…
I0403 13:41:54.157476 28545 net.cpp:313] The NetState phase (1) differed from the phase (0) specified by a rule in layer data
I0403 13:41:54.157796 28545 net.cpp:49] Initializing net from parameters: 
state {
  phase: TEST
}
layer {
  name: "data"
  type: "Data"
  top: "data"
  top: "label"
  include {
    phase: TEST
  }
  transform_param {
    crop_size: 227
    mean_file: "/home/mohanty/data/final_dataset/lmdb/color-40-60/mean.binaryproto"
  }
  data_param {
    source: "/home/mohanty/data/final_dataset/lmdb/color-40-60/test_db"
    batch_size: 100
    backend: LMDB
  }
}
layer {
  name: "conv1"
  type: "Convolution"
  bottom: "data"
  top: "conv1"
  param {
    lr_mult: 1
    decay_mult: 1
  }
  param {
    lr_mult: 2
    decay_mult: 0
  }
  convolution_param {
    num_output: 96
    kernel_size: 11
    stride: 4
    weight_filler {
      type: "gaussian"
      std: 0.01
    }
    bias_filler {
      type: "constant"
      value: 0
    }
  }
}
layer {
  name: "relu1"
  type: "ReLU"
  bottom: "conv1"
  top: "conv1"
}
layer {
  name: "norm1"
  type: "LRN"
  bottom: "conv1"
  top: "norm1"
  lrn_param {
    local_size: 5
    alpha: 0.0001
    beta: 0.75
  }
}
layer {
  name: "pool1"
  type: "Pooling"
  bottom: "norm1"
  top: "pool1"
  pooling_param {
    pool: MAX
    kernel_size: 3
    stride: 2
  }
}
layer {
  name: "conv2"
  type: "Convolution"
  bottom: "pool1"
  top: "conv2"
  param {
    lr_mult: 1
    decay_mult: 1
  }
  param {
    lr_mult: 2
    decay_mult: 0
  }
  convolution_param {
    num_output: 256
    pad: 2
    kernel_size: 5
    group: 2
    weight_filler {
      type: "gaussian"
      std: 0.01
    }
    bias_filler {
      type: "constant"
      value: 0.1
    }
  }
}
layer {
  name: "relu2"
  type: "ReLU"
  bottom: "conv2"
  top: "conv2"
}
layer {
  name: "norm2"
  type: "LRN"
  bottom: "conv2"
  top: "norm2"
  lrn_param {
    local_size: 5
    alpha: 0.0001
    beta: 0.75
  }
}
layer {
  name: "pool2"
  type: "Pooling"
  bottom: "norm2"
  top: "pool2"
  pooling_param {
    pool: MAX
    kernel_size: 3
    stride: 2
  }
}
layer {
  name: "conv3"
  type: "Convolution"
  bottom: "pool2"
  top: "conv3"
  param {
    lr_mult: 1
    decay_mult: 1
  }
  param {
    lr_mult: 2
    decay_mult: 0
  }
  convolution_param {
    num_output: 384
    pad: 1
    kernel_size: 3
    weight_filler {
      type: "gaussian"
      std: 0.01
    }
    bias_filler {
      type: "constant"
      value: 0
    }
  }
}
layer {
  name: "relu3"
  type: "ReLU"
  bottom: "conv3"
  top: "conv3"
}
layer {
  name: "conv4"
  type: "Convolution"
  bottom: "conv3"
  top: "conv4"
  param {
    lr_mult: 1
    decay_mult: 1
  }
  param {
    lr_mult: 2
    decay_mult: 0
  }
  convolution_param {
    num_output: 384
    pad: 1
    kernel_size: 3
    group: 2
    weight_filler {
      type: "gaussian"
      std: 0.01
    }
    bias_filler {
      type: "constant"
      value: 0.1
    }
  }
}
layer {
  name: "relu4"
  type: "ReLU"
  bottom: "conv4"
  top: "conv4"
}
layer {
  name: "conv5"
  type: "Convolution"
  bottom: "conv4"
  top: "conv5"
  param {
    lr_mult: 1
    decay_mult: 1
  }
  param {
    lr_mult: 2
    decay_mult: 0
  }
  convolution_param {
    num_output: 256
    pad: 1
    kernel_size: 3
    group: 2
    weight_filler {
      type: "gaussian"
      std: 0.01
    }
    bias_filler {
      type: "constant"
      value: 0.1
    }
  }
}
layer {
  name: "relu5"
  type: "ReLU"
  bottom: "conv5"
  top: "conv5"
}
layer {
  name: "pool5"
  type: "Pooling"
  bottom: "conv5"
  top: "pool5"
  pooling_param {
    pool: MAX
    kernel_size: 3
    stride: 2
  }
}
layer {
  name: "fc6"
  type: "InnerProduct"
  bottom: "pool5"
  top: "fc6"
  param {
    lr_mult: 1
    decay_mult: 1
  }
  param {
    lr_mult: 2
    decay_mult: 0
  }
  inner_product_param {
    num_output: 4096
    weight_filler {
      type: "gaussian"
      std: 0.005
    }
    bias_filler {
      type: "constant"
      value: 0.1
    }
  }
}
layer {
  name: "relu6"
  type: "ReLU"
  bottom: "fc6"
  top: "fc6"
}
layer {
  name: "drop6"
  type: "Dropout"
  bottom: "fc6"
  top: "fc6"
  dropout_param {
    dropout_ratio: 0.5
  }
}
layer {
  name: "fc7"
  type: "InnerProduct"
  bottom: "fc6"
  top: "fc7"
  param {
    lr_mult: 1
    decay_mult: 1
  }
  param {
    lr_mult: 2
    decay_mult: 0
  }
  inner_product_param {
    num_output: 4096
    weight_filler {
      type: "gaussian"
      std: 0.005
    }
    bias_filler {
      type: "constant"
      value: 0.1
    }
  }
}
layer {
  name: "relu7"
  type: "ReLU"
  bottom: "fc7"
  top: "fc7"
}
layer {
  name: "drop7"
  type: "Dropout"
  bottom: "fc7"
  top: "fc7"
  dropout_param {
    dropout_ratio: 0.5
  }
}
layer {
  name: "fc8_plantvillage"
  type: "InnerProduct"
  bottom: "fc7"
  top: "fc8_plantvillage"
  param {
    lr_mult: 1
    decay_mult: 1
  }
  param {
    lr_mult: 2
    decay_mult: 0
  }
  inner_product_param {
    num_output: 38
    weight_filler {
      type: "gaussian"
      std: 0.01
    }
    bias_filler {
      type: "constant"
      value: 0
    }
  }
}
layer {
  name: "prob"
  type: "Softmax"
  bottom: "fc8_plantvillage"
  top: "prob"
  include {
    phase: TEST
  }
}
layer {
  name: "hdf5out"
  type: "HDF5Output"
  bottom: "prob"
  bottom: "label"
  include {
    phase: TEST
  }
  hdf5_output_param {
    file_name: "hdf5_dumps/iter_2604.h5"
  }
}
layer {
  name: "loss"
  type: "SoftmaxWithLoss"
  bottom: "fc8_plantvillage"
  bottom: "label"
  top: "loss"
}
layer {
  name: "accuracy"
  type: "Accuracy"
  bottom: "fc8_plantvillage"
  bottom: "label"
  top: "accuracy"
  include {
    phase: TEST
  }
}
I0403 13:41:54.158435 28545 layer_factory.hpp:77] Creating layer data
I0403 13:41:54.159101 28545 net.cpp:91] Creating Layer data
I0403 13:41:54.159135 28545 net.cpp:399] data -> data
I0403 13:41:54.159190 28545 net.cpp:399] data -> label
I0403 13:41:54.159229 28545 data_transformer.cpp:25] Loading mean file from: /home/mohanty/data/final_dataset/lmdb/color-40-60/mean.binaryproto
I0403 13:41:54.162037 28548 db_lmdb.cpp:38] Opened lmdb /home/mohanty/data/final_dataset/lmdb/color-40-60/test_db
I0403 13:41:54.173630 28545 data_layer.cpp:41] output data size: 100,3,227,227
I0403 13:41:54.307821 28545 net.cpp:141] Setting up data
I0403 13:41:54.307919 28545 net.cpp:148] Top shape: 100 3 227 227 (15458700)
I0403 13:41:54.307945 28545 net.cpp:148] Top shape: 100 (100)
I0403 13:41:54.307961 28545 net.cpp:156] Memory required for data: 61835200
I0403 13:41:54.307991 28545 layer_factory.hpp:77] Creating layer label_data_1_split
I0403 13:41:54.308018 28545 net.cpp:91] Creating Layer label_data_1_split
I0403 13:41:54.308040 28545 net.cpp:425] label_data_1_split <- label
I0403 13:41:54.308074 28545 net.cpp:399] label_data_1_split -> label_data_1_split_0
I0403 13:41:54.308105 28545 net.cpp:399] label_data_1_split -> label_data_1_split_1
I0403 13:41:54.308128 28545 net.cpp:399] label_data_1_split -> label_data_1_split_2
I0403 13:41:54.308195 28545 net.cpp:141] Setting up label_data_1_split
I0403 13:41:54.308221 28545 net.cpp:148] Top shape: 100 (100)
I0403 13:41:54.308239 28545 net.cpp:148] Top shape: 100 (100)
I0403 13:41:54.308264 28545 net.cpp:148] Top shape: 100 (100)
I0403 13:41:54.308280 28545 net.cpp:156] Memory required for data: 61836400
I0403 13:41:54.308296 28545 layer_factory.hpp:77] Creating layer conv1
I0403 13:41:54.308331 28545 net.cpp:91] Creating Layer conv1
I0403 13:41:54.308351 28545 net.cpp:425] conv1 <- data
I0403 13:41:54.308372 28545 net.cpp:399] conv1 -> conv1
I0403 13:41:54.478610 28545 net.cpp:141] Setting up conv1
I0403 13:41:54.478687 28545 net.cpp:148] Top shape: 100 96 55 55 (29040000)
I0403 13:41:54.478706 28545 net.cpp:156] Memory required for data: 177996400
I0403 13:41:54.478737 28545 layer_factory.hpp:77] Creating layer relu1
I0403 13:41:54.478768 28545 net.cpp:91] Creating Layer relu1
I0403 13:41:54.478790 28545 net.cpp:425] relu1 <- conv1
I0403 13:41:54.478811 28545 net.cpp:386] relu1 -> conv1 (in-place)
I0403 13:41:54.479074 28545 net.cpp:141] Setting up relu1
I0403 13:41:54.479101 28545 net.cpp:148] Top shape: 100 96 55 55 (29040000)
I0403 13:41:54.479118 28545 net.cpp:156] Memory required for data: 294156400
I0403 13:41:54.479168 28545 layer_factory.hpp:77] Creating layer norm1
I0403 13:41:54.479200 28545 net.cpp:91] Creating Layer norm1
I0403 13:41:54.479223 28545 net.cpp:425] norm1 <- conv1
I0403 13:41:54.479241 28545 net.cpp:399] norm1 -> norm1
I0403 13:41:54.479614 28545 net.cpp:141] Setting up norm1
I0403 13:41:54.479643 28545 net.cpp:148] Top shape: 100 96 55 55 (29040000)
I0403 13:41:54.479661 28545 net.cpp:156] Memory required for data: 410316400
I0403 13:41:54.479677 28545 layer_factory.hpp:77] Creating layer pool1
I0403 13:41:54.479703 28545 net.cpp:91] Creating Layer pool1
I0403 13:41:54.479722 28545 net.cpp:425] pool1 <- norm1
I0403 13:41:54.479743 28545 net.cpp:399] pool1 -> pool1
I0403 13:41:54.479815 28545 net.cpp:141] Setting up pool1
I0403 13:41:54.479841 28545 net.cpp:148] Top shape: 100 96 27 27 (6998400)
I0403 13:41:54.479857 28545 net.cpp:156] Memory required for data: 438310000
I0403 13:41:54.479871 28545 layer_factory.hpp:77] Creating layer conv2
I0403 13:41:54.479897 28545 net.cpp:91] Creating Layer conv2
I0403 13:41:54.479915 28545 net.cpp:425] conv2 <- pool1
I0403 13:41:54.479936 28545 net.cpp:399] conv2 -> conv2
I0403 13:41:54.495262 28545 net.cpp:141] Setting up conv2
I0403 13:41:54.495311 28545 net.cpp:148] Top shape: 100 256 27 27 (18662400)
I0403 13:41:54.495332 28545 net.cpp:156] Memory required for data: 512959600
I0403 13:41:54.495358 28545 layer_factory.hpp:77] Creating layer relu2
I0403 13:41:54.495380 28545 net.cpp:91] Creating Layer relu2
I0403 13:41:54.495398 28545 net.cpp:425] relu2 <- conv2
I0403 13:41:54.495419 28545 net.cpp:386] relu2 -> conv2 (in-place)
I0403 13:41:54.495710 28545 net.cpp:141] Setting up relu2
I0403 13:41:54.495741 28545 net.cpp:148] Top shape: 100 256 27 27 (18662400)
I0403 13:41:54.495759 28545 net.cpp:156] Memory required for data: 587609200
I0403 13:41:54.495774 28545 layer_factory.hpp:77] Creating layer norm2
I0403 13:41:54.495798 28545 net.cpp:91] Creating Layer norm2
I0403 13:41:54.495820 28545 net.cpp:425] norm2 <- conv2
I0403 13:41:54.495841 28545 net.cpp:399] norm2 -> norm2
I0403 13:41:54.496049 28545 net.cpp:141] Setting up norm2
I0403 13:41:54.496079 28545 net.cpp:148] Top shape: 100 256 27 27 (18662400)
I0403 13:41:54.496096 28545 net.cpp:156] Memory required for data: 662258800
I0403 13:41:54.496110 28545 layer_factory.hpp:77] Creating layer pool2
I0403 13:41:54.496129 28545 net.cpp:91] Creating Layer pool2
I0403 13:41:54.496146 28545 net.cpp:425] pool2 <- norm2
I0403 13:41:54.496168 28545 net.cpp:399] pool2 -> pool2
I0403 13:41:54.496223 28545 net.cpp:141] Setting up pool2
I0403 13:41:54.496250 28545 net.cpp:148] Top shape: 100 256 13 13 (4326400)
I0403 13:41:54.496273 28545 net.cpp:156] Memory required for data: 679564400
I0403 13:41:54.496289 28545 layer_factory.hpp:77] Creating layer conv3
I0403 13:41:54.496315 28545 net.cpp:91] Creating Layer conv3
I0403 13:41:54.496333 28545 net.cpp:425] conv3 <- pool2
I0403 13:41:54.496356 28545 net.cpp:399] conv3 -> conv3
I0403 13:41:54.538102 28545 net.cpp:141] Setting up conv3
I0403 13:41:54.538179 28545 net.cpp:148] Top shape: 100 384 13 13 (6489600)
I0403 13:41:54.538200 28545 net.cpp:156] Memory required for data: 705522800
I0403 13:41:54.538228 28545 layer_factory.hpp:77] Creating layer relu3
I0403 13:41:54.538255 28545 net.cpp:91] Creating Layer relu3
I0403 13:41:54.538276 28545 net.cpp:425] relu3 <- conv3
I0403 13:41:54.538300 28545 net.cpp:386] relu3 -> conv3 (in-place)
I0403 13:41:54.538580 28545 net.cpp:141] Setting up relu3
I0403 13:41:54.538610 28545 net.cpp:148] Top shape: 100 384 13 13 (6489600)
I0403 13:41:54.538630 28545 net.cpp:156] Memory required for data: 731481200
I0403 13:41:54.538647 28545 layer_factory.hpp:77] Creating layer conv4
I0403 13:41:54.538676 28545 net.cpp:91] Creating Layer conv4
I0403 13:41:54.538696 28545 net.cpp:425] conv4 <- conv3
I0403 13:41:54.538718 28545 net.cpp:399] conv4 -> conv4
I0403 13:41:54.569957 28545 net.cpp:141] Setting up conv4
I0403 13:41:54.570032 28545 net.cpp:148] Top shape: 100 384 13 13 (6489600)
I0403 13:41:54.570086 28545 net.cpp:156] Memory required for data: 757439600
I0403 13:41:54.570116 28545 layer_factory.hpp:77] Creating layer relu4
I0403 13:41:54.570143 28545 net.cpp:91] Creating Layer relu4
I0403 13:41:54.570168 28545 net.cpp:425] relu4 <- conv4
I0403 13:41:54.570237 28545 net.cpp:386] relu4 -> conv4 (in-place)
I0403 13:41:54.570551 28545 net.cpp:141] Setting up relu4
I0403 13:41:54.570590 28545 net.cpp:148] Top shape: 100 384 13 13 (6489600)
I0403 13:41:54.570614 28545 net.cpp:156] Memory required for data: 783398000
I0403 13:41:54.570636 28545 layer_factory.hpp:77] Creating layer conv5
I0403 13:41:54.570670 28545 net.cpp:91] Creating Layer conv5
I0403 13:41:54.570694 28545 net.cpp:425] conv5 <- conv4
I0403 13:41:54.570722 28545 net.cpp:399] conv5 -> conv5
I0403 13:41:54.699779 28545 net.cpp:141] Setting up conv5
I0403 13:41:54.699838 28545 net.cpp:148] Top shape: 100 256 13 13 (4326400)
I0403 13:41:54.699859 28545 net.cpp:156] Memory required for data: 800703600
I0403 13:41:54.699889 28545 layer_factory.hpp:77] Creating layer relu5
I0403 13:41:54.699918 28545 net.cpp:91] Creating Layer relu5
I0403 13:41:54.699939 28545 net.cpp:425] relu5 <- conv5
I0403 13:41:54.699970 28545 net.cpp:386] relu5 -> conv5 (in-place)
I0403 13:41:54.700278 28545 net.cpp:141] Setting up relu5
I0403 13:41:54.700310 28545 net.cpp:148] Top shape: 100 256 13 13 (4326400)
I0403 13:41:54.700328 28545 net.cpp:156] Memory required for data: 818009200
I0403 13:41:54.700350 28545 layer_factory.hpp:77] Creating layer pool5
I0403 13:41:54.700378 28545 net.cpp:91] Creating Layer pool5
I0403 13:41:54.700404 28545 net.cpp:425] pool5 <- conv5
I0403 13:41:54.700434 28545 net.cpp:399] pool5 -> pool5
I0403 13:41:54.700505 28545 net.cpp:141] Setting up pool5
I0403 13:41:54.700538 28545 net.cpp:148] Top shape: 100 256 6 6 (921600)
I0403 13:41:54.700559 28545 net.cpp:156] Memory required for data: 821695600
I0403 13:41:54.700577 28545 layer_factory.hpp:77] Creating layer fc6
I0403 13:41:54.700608 28545 net.cpp:91] Creating Layer fc6
I0403 13:41:54.700628 28545 net.cpp:425] fc6 <- pool5
I0403 13:41:54.700650 28545 net.cpp:399] fc6 -> fc6
I0403 13:41:56.308390 28545 net.cpp:141] Setting up fc6
I0403 13:41:56.308475 28545 net.cpp:148] Top shape: 100 4096 (409600)
I0403 13:41:56.308495 28545 net.cpp:156] Memory required for data: 823334000
I0403 13:41:56.308516 28545 layer_factory.hpp:77] Creating layer relu6
I0403 13:41:56.308542 28545 net.cpp:91] Creating Layer relu6
I0403 13:41:56.308562 28545 net.cpp:425] relu6 <- fc6
I0403 13:41:56.308583 28545 net.cpp:386] relu6 -> fc6 (in-place)
I0403 13:41:56.308809 28545 net.cpp:141] Setting up relu6
I0403 13:41:56.308835 28545 net.cpp:148] Top shape: 100 4096 (409600)
I0403 13:41:56.308850 28545 net.cpp:156] Memory required for data: 824972400
I0403 13:41:56.308864 28545 layer_factory.hpp:77] Creating layer drop6
I0403 13:41:56.308883 28545 net.cpp:91] Creating Layer drop6
I0403 13:41:56.308898 28545 net.cpp:425] drop6 <- fc6
I0403 13:41:56.308917 28545 net.cpp:386] drop6 -> fc6 (in-place)
I0403 13:41:56.308969 28545 net.cpp:141] Setting up drop6
I0403 13:41:56.308995 28545 net.cpp:148] Top shape: 100 4096 (409600)
I0403 13:41:56.309011 28545 net.cpp:156] Memory required for data: 826610800
I0403 13:41:56.309027 28545 layer_factory.hpp:77] Creating layer fc7
I0403 13:41:56.309047 28545 net.cpp:91] Creating Layer fc7
I0403 13:41:56.309062 28545 net.cpp:425] fc7 <- fc6
I0403 13:41:56.309082 28545 net.cpp:399] fc7 -> fc7
I0403 13:41:57.595427 28545 net.cpp:141] Setting up fc7
I0403 13:41:57.595510 28545 net.cpp:148] Top shape: 100 4096 (409600)
I0403 13:41:57.595528 28545 net.cpp:156] Memory required for data: 828249200
I0403 13:41:57.595551 28545 layer_factory.hpp:77] Creating layer relu7
I0403 13:41:57.595577 28545 net.cpp:91] Creating Layer relu7
I0403 13:41:57.595594 28545 net.cpp:425] relu7 <- fc7
I0403 13:41:57.595618 28545 net.cpp:386] relu7 -> fc7 (in-place)
I0403 13:41:57.596006 28545 net.cpp:141] Setting up relu7
I0403 13:41:57.596036 28545 net.cpp:148] Top shape: 100 4096 (409600)
I0403 13:41:57.596086 28545 net.cpp:156] Memory required for data: 829887600
I0403 13:41:57.596102 28545 layer_factory.hpp:77] Creating layer drop7
I0403 13:41:57.596122 28545 net.cpp:91] Creating Layer drop7
I0403 13:41:57.596138 28545 net.cpp:425] drop7 <- fc7
I0403 13:41:57.596159 28545 net.cpp:386] drop7 -> fc7 (in-place)
I0403 13:41:57.596204 28545 net.cpp:141] Setting up drop7
I0403 13:41:57.596228 28545 net.cpp:148] Top shape: 100 4096 (409600)
I0403 13:41:57.596242 28545 net.cpp:156] Memory required for data: 831526000
I0403 13:41:57.596258 28545 layer_factory.hpp:77] Creating layer fc8_plantvillage
I0403 13:41:57.596281 28545 net.cpp:91] Creating Layer fc8_plantvillage
I0403 13:41:57.596303 28545 net.cpp:425] fc8_plantvillage <- fc7
I0403 13:41:57.596324 28545 net.cpp:399] fc8_plantvillage -> fc8_plantvillage
I0403 13:41:57.603086 28545 net.cpp:141] Setting up fc8_plantvillage
I0403 13:41:57.603116 28545 net.cpp:148] Top shape: 100 38 (3800)
I0403 13:41:57.603133 28545 net.cpp:156] Memory required for data: 831541200
I0403 13:41:57.603153 28545 layer_factory.hpp:77] Creating layer fc8_plantvillage_fc8_plantvillage_0_split
I0403 13:41:57.603173 28545 net.cpp:91] Creating Layer fc8_plantvillage_fc8_plantvillage_0_split
I0403 13:41:57.603188 28545 net.cpp:425] fc8_plantvillage_fc8_plantvillage_0_split <- fc8_plantvillage
I0403 13:41:57.603207 28545 net.cpp:399] fc8_plantvillage_fc8_plantvillage_0_split -> fc8_plantvillage_fc8_plantvillage_0_split_0
I0403 13:41:57.603229 28545 net.cpp:399] fc8_plantvillage_fc8_plantvillage_0_split -> fc8_plantvillage_fc8_plantvillage_0_split_1
I0403 13:41:57.603250 28545 net.cpp:399] fc8_plantvillage_fc8_plantvillage_0_split -> fc8_plantvillage_fc8_plantvillage_0_split_2
I0403 13:41:57.603340 28545 net.cpp:141] Setting up fc8_plantvillage_fc8_plantvillage_0_split
I0403 13:41:57.603366 28545 net.cpp:148] Top shape: 100 38 (3800)
I0403 13:41:57.603384 28545 net.cpp:148] Top shape: 100 38 (3800)
I0403 13:41:57.603400 28545 net.cpp:148] Top shape: 100 38 (3800)
I0403 13:41:57.603415 28545 net.cpp:156] Memory required for data: 831586800
I0403 13:41:57.603430 28545 layer_factory.hpp:77] Creating layer prob
I0403 13:41:57.603449 28545 net.cpp:91] Creating Layer prob
I0403 13:41:57.603464 28545 net.cpp:425] prob <- fc8_plantvillage_fc8_plantvillage_0_split_0
I0403 13:41:57.603484 28545 net.cpp:399] prob -> prob
I0403 13:41:57.603713 28545 net.cpp:141] Setting up prob
I0403 13:41:57.603744 28545 net.cpp:148] Top shape: 100 38 (3800)
I0403 13:41:57.603761 28545 net.cpp:156] Memory required for data: 831602000
I0403 13:41:57.603776 28545 layer_factory.hpp:77] Creating layer hdf5out
I0403 13:41:57.603796 28545 net.cpp:91] Creating Layer hdf5out
I0403 13:41:57.603812 28545 net.cpp:425] hdf5out <- prob
I0403 13:41:57.603829 28545 net.cpp:425] hdf5out <- label_data_1_split_0
I0403 13:41:57.608011 28545 net.cpp:141] Setting up hdf5out
…
