…
I0403 13:53:15.030720 28807 net.cpp:313] The NetState phase (1) differed from the phase (0) specified by a rule in layer data
I0403 13:53:15.031033 28807 net.cpp:49] Initializing net from parameters: 
state {
  phase: TEST
}
layer {
  name: "data"
  type: "Data"
  top: "data"
  top: "label"
  include {
    phase: TEST
  }
  transform_param {
    crop_size: 227
    mean_file: "/home/mohanty/data/final_dataset/lmdb/color-40-60/mean.binaryproto"
  }
  data_param {
    source: "/home/mohanty/data/final_dataset/lmdb/color-40-60/test_db"
    batch_size: 100
    backend: LMDB
  }
}
layer {
  name: "conv1"
  type: "Convolution"
  bottom: "data"
  top: "conv1"
  param {
    lr_mult: 1
    decay_mult: 1
  }
  param {
    lr_mult: 2
    decay_mult: 0
  }
  convolution_param {
    num_output: 96
    kernel_size: 11
    stride: 4
    weight_filler {
      type: "gaussian"
      std: 0.01
    }
    bias_filler {
      type: "constant"
      value: 0
    }
  }
}
layer {
  name: "relu1"
  type: "ReLU"
  bottom: "conv1"
  top: "conv1"
}
layer {
  name: "norm1"
  type: "LRN"
  bottom: "conv1"
  top: "norm1"
  lrn_param {
    local_size: 5
    alpha: 0.0001
    beta: 0.75
  }
}
layer {
  name: "pool1"
  type: "Pooling"
  bottom: "norm1"
  top: "pool1"
  pooling_param {
    pool: MAX
    kernel_size: 3
    stride: 2
  }
}
layer {
  name: "conv2"
  type: "Convolution"
  bottom: "pool1"
  top: "conv2"
  param {
    lr_mult: 1
    decay_mult: 1
  }
  param {
    lr_mult: 2
    decay_mult: 0
  }
  convolution_param {
    num_output: 256
    pad: 2
    kernel_size: 5
    group: 2
    weight_filler {
      type: "gaussian"
      std: 0.01
    }
    bias_filler {
      type: "constant"
      value: 0.1
    }
  }
}
layer {
  name: "relu2"
  type: "ReLU"
  bottom: "conv2"
  top: "conv2"
}
layer {
  name: "norm2"
  type: "LRN"
  bottom: "conv2"
  top: "norm2"
  lrn_param {
    local_size: 5
    alpha: 0.0001
    beta: 0.75
  }
}
layer {
  name: "pool2"
  type: "Pooling"
  bottom: "norm2"
  top: "pool2"
  pooling_param {
    pool: MAX
    kernel_size: 3
    stride: 2
  }
}
layer {
  name: "conv3"
  type: "Convolution"
  bottom: "pool2"
  top: "conv3"
  param {
    lr_mult: 1
    decay_mult: 1
  }
  param {
    lr_mult: 2
    decay_mult: 0
  }
  convolution_param {
    num_output: 384
    pad: 1
    kernel_size: 3
    weight_filler {
      type: "gaussian"
      std: 0.01
    }
    bias_filler {
      type: "constant"
      value: 0
    }
  }
}
layer {
  name: "relu3"
  type: "ReLU"
  bottom: "conv3"
  top: "conv3"
}
layer {
  name: "conv4"
  type: "Convolution"
  bottom: "conv3"
  top: "conv4"
  param {
    lr_mult: 1
    decay_mult: 1
  }
  param {
    lr_mult: 2
    decay_mult: 0
  }
  convolution_param {
    num_output: 384
    pad: 1
    kernel_size: 3
    group: 2
    weight_filler {
      type: "gaussian"
      std: 0.01
    }
    bias_filler {
      type: "constant"
      value: 0.1
    }
  }
}
layer {
  name: "relu4"
  type: "ReLU"
  bottom: "conv4"
  top: "conv4"
}
layer {
  name: "conv5"
  type: "Convolution"
  bottom: "conv4"
  top: "conv5"
  param {
    lr_mult: 1
    decay_mult: 1
  }
  param {
    lr_mult: 2
    decay_mult: 0
  }
  convolution_param {
    num_output: 256
    pad: 1
    kernel_size: 3
    group: 2
    weight_filler {
      type: "gaussian"
      std: 0.01
    }
    bias_filler {
      type: "constant"
      value: 0.1
    }
  }
}
layer {
  name: "relu5"
  type: "ReLU"
  bottom: "conv5"
  top: "conv5"
}
layer {
  name: "pool5"
  type: "Pooling"
  bottom: "conv5"
  top: "pool5"
  pooling_param {
    pool: MAX
    kernel_size: 3
    stride: 2
  }
}
layer {
  name: "fc6"
  type: "InnerProduct"
  bottom: "pool5"
  top: "fc6"
  param {
    lr_mult: 1
    decay_mult: 1
  }
  param {
    lr_mult: 2
    decay_mult: 0
  }
  inner_product_param {
    num_output: 4096
    weight_filler {
      type: "gaussian"
      std: 0.005
    }
    bias_filler {
      type: "constant"
      value: 0.1
    }
  }
}
layer {
  name: "relu6"
  type: "ReLU"
  bottom: "fc6"
  top: "fc6"
}
layer {
  name: "drop6"
  type: "Dropout"
  bottom: "fc6"
  top: "fc6"
  dropout_param {
    dropout_ratio: 0.5
  }
}
layer {
  name: "fc7"
  type: "InnerProduct"
  bottom: "fc6"
  top: "fc7"
  param {
    lr_mult: 1
    decay_mult: 1
  }
  param {
    lr_mult: 2
    decay_mult: 0
  }
  inner_product_param {
    num_output: 4096
    weight_filler {
      type: "gaussian"
      std: 0.005
    }
    bias_filler {
      type: "constant"
      value: 0.1
    }
  }
}
layer {
  name: "relu7"
  type: "ReLU"
  bottom: "fc7"
  top: "fc7"
}
layer {
  name: "drop7"
  type: "Dropout"
  bottom: "fc7"
  top: "fc7"
  dropout_param {
    dropout_ratio: 0.5
  }
}
layer {
  name: "fc8_plantvillage"
  type: "InnerProduct"
  bottom: "fc7"
  top: "fc8_plantvillage"
  param {
    lr_mult: 1
    decay_mult: 1
  }
  param {
    lr_mult: 2
    decay_mult: 0
  }
  inner_product_param {
    num_output: 38
    weight_filler {
      type: "gaussian"
      std: 0.01
    }
    bias_filler {
      type: "constant"
      value: 0
    }
  }
}
layer {
  name: "prob"
  type: "Softmax"
  bottom: "fc8_plantvillage"
  top: "prob"
  include {
    phase: TEST
  }
}
layer {
  name: "hdf5out"
  type: "HDF5Output"
  bottom: "prob"
  bottom: "label"
  include {
    phase: TEST
  }
  hdf5_output_param {
    file_name: "hdf5_dumps/iter_4774.h5"
  }
}
layer {
  name: "loss"
  type: "SoftmaxWithLoss"
  bottom: "fc8_plantvillage"
  bottom: "label"
  top: "loss"
}
layer {
  name: "accuracy"
  type: "Accuracy"
  bottom: "fc8_plantvillage"
  bottom: "label"
  top: "accuracy"
  include {
    phase: TEST
  }
}
I0403 13:53:15.031640 28807 layer_factory.hpp:77] Creating layer data
I0403 13:53:15.032296 28807 net.cpp:91] Creating Layer data
I0403 13:53:15.032328 28807 net.cpp:399] data -> data
I0403 13:53:15.032380 28807 net.cpp:399] data -> label
I0403 13:53:15.032420 28807 data_transformer.cpp:25] Loading mean file from: /home/mohanty/data/final_dataset/lmdb/color-40-60/mean.binaryproto
I0403 13:53:15.035429 28810 db_lmdb.cpp:38] Opened lmdb /home/mohanty/data/final_dataset/lmdb/color-40-60/test_db
I0403 13:53:15.046931 28807 data_layer.cpp:41] output data size: 100,3,227,227
I0403 13:53:15.182091 28807 net.cpp:141] Setting up data
I0403 13:53:15.182191 28807 net.cpp:148] Top shape: 100 3 227 227 (15458700)
I0403 13:53:15.182216 28807 net.cpp:148] Top shape: 100 (100)
I0403 13:53:15.182234 28807 net.cpp:156] Memory required for data: 61835200
I0403 13:53:15.182266 28807 layer_factory.hpp:77] Creating layer label_data_1_split
I0403 13:53:15.182296 28807 net.cpp:91] Creating Layer label_data_1_split
I0403 13:53:15.182315 28807 net.cpp:425] label_data_1_split <- label
I0403 13:53:15.182349 28807 net.cpp:399] label_data_1_split -> label_data_1_split_0
I0403 13:53:15.182379 28807 net.cpp:399] label_data_1_split -> label_data_1_split_1
I0403 13:53:15.182404 28807 net.cpp:399] label_data_1_split -> label_data_1_split_2
I0403 13:53:15.182471 28807 net.cpp:141] Setting up label_data_1_split
I0403 13:53:15.182494 28807 net.cpp:148] Top shape: 100 (100)
I0403 13:53:15.182514 28807 net.cpp:148] Top shape: 100 (100)
I0403 13:53:15.182533 28807 net.cpp:148] Top shape: 100 (100)
I0403 13:53:15.182549 28807 net.cpp:156] Memory required for data: 61836400
I0403 13:53:15.182566 28807 layer_factory.hpp:77] Creating layer conv1
I0403 13:53:15.182600 28807 net.cpp:91] Creating Layer conv1
I0403 13:53:15.182621 28807 net.cpp:425] conv1 <- data
I0403 13:53:15.182642 28807 net.cpp:399] conv1 -> conv1
I0403 13:53:15.328635 28807 net.cpp:141] Setting up conv1
I0403 13:53:15.328713 28807 net.cpp:148] Top shape: 100 96 55 55 (29040000)
I0403 13:53:15.328732 28807 net.cpp:156] Memory required for data: 177996400
I0403 13:53:15.328764 28807 layer_factory.hpp:77] Creating layer relu1
I0403 13:53:15.328794 28807 net.cpp:91] Creating Layer relu1
I0403 13:53:15.328815 28807 net.cpp:425] relu1 <- conv1
I0403 13:53:15.328835 28807 net.cpp:386] relu1 -> conv1 (in-place)
I0403 13:53:15.329092 28807 net.cpp:141] Setting up relu1
I0403 13:53:15.329120 28807 net.cpp:148] Top shape: 100 96 55 55 (29040000)
I0403 13:53:15.329138 28807 net.cpp:156] Memory required for data: 294156400
I0403 13:53:15.329187 28807 layer_factory.hpp:77] Creating layer norm1
I0403 13:53:15.329217 28807 net.cpp:91] Creating Layer norm1
I0403 13:53:15.329238 28807 net.cpp:425] norm1 <- conv1
I0403 13:53:15.329262 28807 net.cpp:399] norm1 -> norm1
I0403 13:53:15.329586 28807 net.cpp:141] Setting up norm1
I0403 13:53:15.329615 28807 net.cpp:148] Top shape: 100 96 55 55 (29040000)
I0403 13:53:15.329633 28807 net.cpp:156] Memory required for data: 410316400
I0403 13:53:15.329650 28807 layer_factory.hpp:77] Creating layer pool1
I0403 13:53:15.329675 28807 net.cpp:91] Creating Layer pool1
I0403 13:53:15.329694 28807 net.cpp:425] pool1 <- norm1
I0403 13:53:15.329713 28807 net.cpp:399] pool1 -> pool1
I0403 13:53:15.329784 28807 net.cpp:141] Setting up pool1
I0403 13:53:15.329810 28807 net.cpp:148] Top shape: 100 96 27 27 (6998400)
I0403 13:53:15.329828 28807 net.cpp:156] Memory required for data: 438310000
I0403 13:53:15.329856 28807 layer_factory.hpp:77] Creating layer conv2
I0403 13:53:15.329882 28807 net.cpp:91] Creating Layer conv2
I0403 13:53:15.329900 28807 net.cpp:425] conv2 <- pool1
I0403 13:53:15.329918 28807 net.cpp:399] conv2 -> conv2
I0403 13:53:15.345633 28807 net.cpp:141] Setting up conv2
I0403 13:53:15.345691 28807 net.cpp:148] Top shape: 100 256 27 27 (18662400)
I0403 13:53:15.345738 28807 net.cpp:156] Memory required for data: 512959600
I0403 13:53:15.345772 28807 layer_factory.hpp:77] Creating layer relu2
I0403 13:53:15.345794 28807 net.cpp:91] Creating Layer relu2
I0403 13:53:15.345813 28807 net.cpp:425] relu2 <- conv2
I0403 13:53:15.345834 28807 net.cpp:386] relu2 -> conv2 (in-place)
I0403 13:53:15.346113 28807 net.cpp:141] Setting up relu2
I0403 13:53:15.346143 28807 net.cpp:148] Top shape: 100 256 27 27 (18662400)
I0403 13:53:15.346159 28807 net.cpp:156] Memory required for data: 587609200
I0403 13:53:15.346176 28807 layer_factory.hpp:77] Creating layer norm2
I0403 13:53:15.346200 28807 net.cpp:91] Creating Layer norm2
I0403 13:53:15.346218 28807 net.cpp:425] norm2 <- conv2
I0403 13:53:15.346237 28807 net.cpp:399] norm2 -> norm2
I0403 13:53:15.346432 28807 net.cpp:141] Setting up norm2
I0403 13:53:15.346462 28807 net.cpp:148] Top shape: 100 256 27 27 (18662400)
I0403 13:53:15.346478 28807 net.cpp:156] Memory required for data: 662258800
I0403 13:53:15.346495 28807 layer_factory.hpp:77] Creating layer pool2
I0403 13:53:15.346516 28807 net.cpp:91] Creating Layer pool2
I0403 13:53:15.346532 28807 net.cpp:425] pool2 <- norm2
I0403 13:53:15.346552 28807 net.cpp:399] pool2 -> pool2
I0403 13:53:15.346606 28807 net.cpp:141] Setting up pool2
I0403 13:53:15.346632 28807 net.cpp:148] Top shape: 100 256 13 13 (4326400)
I0403 13:53:15.346648 28807 net.cpp:156] Memory required for data: 679564400
I0403 13:53:15.346665 28807 layer_factory.hpp:77] Creating layer conv3
I0403 13:53:15.346688 28807 net.cpp:91] Creating Layer conv3
I0403 13:53:15.346707 28807 net.cpp:425] conv3 <- pool2
I0403 13:53:15.346727 28807 net.cpp:399] conv3 -> conv3
I0403 13:53:15.386374 28807 net.cpp:141] Setting up conv3
I0403 13:53:15.386456 28807 net.cpp:148] Top shape: 100 384 13 13 (6489600)
I0403 13:53:15.386474 28807 net.cpp:156] Memory required for data: 705522800
I0403 13:53:15.386504 28807 layer_factory.hpp:77] Creating layer relu3
I0403 13:53:15.386533 28807 net.cpp:91] Creating Layer relu3
I0403 13:53:15.386565 28807 net.cpp:425] relu3 <- conv3
I0403 13:53:15.386586 28807 net.cpp:386] relu3 -> conv3 (in-place)
I0403 13:53:15.396116 28807 net.cpp:141] Setting up relu3
I0403 13:53:15.396155 28807 net.cpp:148] Top shape: 100 384 13 13 (6489600)
I0403 13:53:15.396173 28807 net.cpp:156] Memory required for data: 731481200
I0403 13:53:15.396190 28807 layer_factory.hpp:77] Creating layer conv4
I0403 13:53:15.396219 28807 net.cpp:91] Creating Layer conv4
I0403 13:53:15.396239 28807 net.cpp:425] conv4 <- conv3
I0403 13:53:15.396275 28807 net.cpp:399] conv4 -> conv4
I0403 13:53:15.426897 28807 net.cpp:141] Setting up conv4
I0403 13:53:15.426949 28807 net.cpp:148] Top shape: 100 384 13 13 (6489600)
I0403 13:53:15.426998 28807 net.cpp:156] Memory required for data: 757439600
I0403 13:53:15.427022 28807 layer_factory.hpp:77] Creating layer relu4
I0403 13:53:15.427047 28807 net.cpp:91] Creating Layer relu4
I0403 13:53:15.427067 28807 net.cpp:425] relu4 <- conv4
I0403 13:53:15.427086 28807 net.cpp:386] relu4 -> conv4 (in-place)
I0403 13:53:15.427407 28807 net.cpp:141] Setting up relu4
I0403 13:53:15.427435 28807 net.cpp:148] Top shape: 100 384 13 13 (6489600)
I0403 13:53:15.427451 28807 net.cpp:156] Memory required for data: 783398000
I0403 13:53:15.427466 28807 layer_factory.hpp:77] Creating layer conv5
I0403 13:53:15.427492 28807 net.cpp:91] Creating Layer conv5
I0403 13:53:15.427510 28807 net.cpp:425] conv5 <- conv4
I0403 13:53:15.427533 28807 net.cpp:399] conv5 -> conv5
I0403 13:53:15.448657 28807 net.cpp:141] Setting up conv5
I0403 13:53:15.448709 28807 net.cpp:148] Top shape: 100 256 13 13 (4326400)
I0403 13:53:15.448726 28807 net.cpp:156] Memory required for data: 800703600
I0403 13:53:15.448755 28807 layer_factory.hpp:77] Creating layer relu5
I0403 13:53:15.448777 28807 net.cpp:91] Creating Layer relu5
I0403 13:53:15.448796 28807 net.cpp:425] relu5 <- conv5
I0403 13:53:15.448814 28807 net.cpp:386] relu5 -> conv5 (in-place)
I0403 13:53:15.449100 28807 net.cpp:141] Setting up relu5
I0403 13:53:15.449128 28807 net.cpp:148] Top shape: 100 256 13 13 (4326400)
I0403 13:53:15.449146 28807 net.cpp:156] Memory required for data: 818009200
I0403 13:53:15.449161 28807 layer_factory.hpp:77] Creating layer pool5
I0403 13:53:15.449187 28807 net.cpp:91] Creating Layer pool5
I0403 13:53:15.449206 28807 net.cpp:425] pool5 <- conv5
I0403 13:53:15.449225 28807 net.cpp:399] pool5 -> pool5
I0403 13:53:15.449295 28807 net.cpp:141] Setting up pool5
I0403 13:53:15.449321 28807 net.cpp:148] Top shape: 100 256 6 6 (921600)
I0403 13:53:15.449337 28807 net.cpp:156] Memory required for data: 821695600
I0403 13:53:15.449352 28807 layer_factory.hpp:77] Creating layer fc6
I0403 13:53:15.449383 28807 net.cpp:91] Creating Layer fc6
I0403 13:53:15.449404 28807 net.cpp:425] fc6 <- pool5
I0403 13:53:15.449426 28807 net.cpp:399] fc6 -> fc6
I0403 13:53:17.023012 28807 net.cpp:141] Setting up fc6
I0403 13:53:17.023092 28807 net.cpp:148] Top shape: 100 4096 (409600)
I0403 13:53:17.023109 28807 net.cpp:156] Memory required for data: 823334000
I0403 13:53:17.023133 28807 layer_factory.hpp:77] Creating layer relu6
I0403 13:53:17.023159 28807 net.cpp:91] Creating Layer relu6
I0403 13:53:17.023177 28807 net.cpp:425] relu6 <- fc6
I0403 13:53:17.023200 28807 net.cpp:386] relu6 -> fc6 (in-place)
I0403 13:53:17.023453 28807 net.cpp:141] Setting up relu6
I0403 13:53:17.023481 28807 net.cpp:148] Top shape: 100 4096 (409600)
I0403 13:53:17.023497 28807 net.cpp:156] Memory required for data: 824972400
I0403 13:53:17.023514 28807 layer_factory.hpp:77] Creating layer drop6
I0403 13:53:17.023536 28807 net.cpp:91] Creating Layer drop6
I0403 13:53:17.023555 28807 net.cpp:425] drop6 <- fc6
I0403 13:53:17.023573 28807 net.cpp:386] drop6 -> fc6 (in-place)
I0403 13:53:17.023633 28807 net.cpp:141] Setting up drop6
I0403 13:53:17.023659 28807 net.cpp:148] Top shape: 100 4096 (409600)
I0403 13:53:17.023675 28807 net.cpp:156] Memory required for data: 826610800
I0403 13:53:17.023691 28807 layer_factory.hpp:77] Creating layer fc7
I0403 13:53:17.023713 28807 net.cpp:91] Creating Layer fc7
I0403 13:53:17.023730 28807 net.cpp:425] fc7 <- fc6
I0403 13:53:17.023752 28807 net.cpp:399] fc7 -> fc7
I0403 13:53:17.717293 28807 net.cpp:141] Setting up fc7
I0403 13:53:17.717370 28807 net.cpp:148] Top shape: 100 4096 (409600)
I0403 13:53:17.717386 28807 net.cpp:156] Memory required for data: 828249200
I0403 13:53:17.717409 28807 layer_factory.hpp:77] Creating layer relu7
I0403 13:53:17.717437 28807 net.cpp:91] Creating Layer relu7
I0403 13:53:17.717455 28807 net.cpp:425] relu7 <- fc7
I0403 13:53:17.717475 28807 net.cpp:386] relu7 -> fc7 (in-place)
I0403 13:53:17.717887 28807 net.cpp:141] Setting up relu7
I0403 13:53:17.717916 28807 net.cpp:148] Top shape: 100 4096 (409600)
I0403 13:53:17.717965 28807 net.cpp:156] Memory required for data: 829887600
I0403 13:53:17.717983 28807 layer_factory.hpp:77] Creating layer drop7
I0403 13:53:17.718006 28807 net.cpp:91] Creating Layer drop7
I0403 13:53:17.718024 28807 net.cpp:425] drop7 <- fc7
I0403 13:53:17.718041 28807 net.cpp:386] drop7 -> fc7 (in-place)
I0403 13:53:17.718087 28807 net.cpp:141] Setting up drop7
I0403 13:53:17.718111 28807 net.cpp:148] Top shape: 100 4096 (409600)
I0403 13:53:17.718127 28807 net.cpp:156] Memory required for data: 831526000
I0403 13:53:17.718142 28807 layer_factory.hpp:77] Creating layer fc8_plantvillage
I0403 13:53:17.718161 28807 net.cpp:91] Creating Layer fc8_plantvillage
I0403 13:53:17.718178 28807 net.cpp:425] fc8_plantvillage <- fc7
I0403 13:53:17.718199 28807 net.cpp:399] fc8_plantvillage -> fc8_plantvillage
I0403 13:53:17.724936 28807 net.cpp:141] Setting up fc8_plantvillage
I0403 13:53:17.724967 28807 net.cpp:148] Top shape: 100 38 (3800)
I0403 13:53:17.724984 28807 net.cpp:156] Memory required for data: 831541200
I0403 13:53:17.725004 28807 layer_factory.hpp:77] Creating layer fc8_plantvillage_fc8_plantvillage_0_split
I0403 13:53:17.725023 28807 net.cpp:91] Creating Layer fc8_plantvillage_fc8_plantvillage_0_split
I0403 13:53:17.725040 28807 net.cpp:425] fc8_plantvillage_fc8_plantvillage_0_split <- fc8_plantvillage
I0403 13:53:17.725057 28807 net.cpp:399] fc8_plantvillage_fc8_plantvillage_0_split -> fc8_plantvillage_fc8_plantvillage_0_split_0
I0403 13:53:17.725080 28807 net.cpp:399] fc8_plantvillage_fc8_plantvillage_0_split -> fc8_plantvillage_fc8_plantvillage_0_split_1
I0403 13:53:17.725101 28807 net.cpp:399] fc8_plantvillage_fc8_plantvillage_0_split -> fc8_plantvillage_fc8_plantvillage_0_split_2
I0403 13:53:17.725180 28807 net.cpp:141] Setting up fc8_plantvillage_fc8_plantvillage_0_split
I0403 13:53:17.725206 28807 net.cpp:148] Top shape: 100 38 (3800)
I0403 13:53:17.725224 28807 net.cpp:148] Top shape: 100 38 (3800)
I0403 13:53:17.725239 28807 net.cpp:148] Top shape: 100 38 (3800)
I0403 13:53:17.725260 28807 net.cpp:156] Memory required for data: 831586800
I0403 13:53:17.725277 28807 layer_factory.hpp:77] Creating layer prob
I0403 13:53:17.725297 28807 net.cpp:91] Creating Layer prob
I0403 13:53:17.725313 28807 net.cpp:425] prob <- fc8_plantvillage_fc8_plantvillage_0_split_0
I0403 13:53:17.725332 28807 net.cpp:399] prob -> prob
I0403 13:53:17.725560 28807 net.cpp:141] Setting up prob
I0403 13:53:17.725586 28807 net.cpp:148] Top shape: 100 38 (3800)
I0403 13:53:17.725601 28807 net.cpp:156] Memory required for data: 831602000
I0403 13:53:17.725617 28807 layer_factory.hpp:77] Creating layer hdf5out
I0403 13:53:17.725641 28807 net.cpp:91] Creating Layer hdf5out
I0403 13:53:17.725657 28807 net.cpp:425] hdf5out <- prob
I0403 13:53:17.725675 28807 net.cpp:425] hdf5out <- label_data_1_split_0
I0403 13:53:17.729231 28807 net.cpp:141] Setting up hdf5out
…
