…
I0403 13:29:26.947082 28264 net.cpp:313] The NetState phase (1) differed from the phase (0) specified by a rule in layer data
I0403 13:29:26.947410 28264 net.cpp:49] Initializing net from parameters: 
state {
  phase: TEST
}
layer {
  name: "data"
  type: "Data"
  top: "data"
  top: "label"
  include {
    phase: TEST
  }
  transform_param {
    crop_size: 227
    mean_file: "/home/mohanty/data/final_dataset/lmdb/color-40-60/mean.binaryproto"
  }
  data_param {
    source: "/home/mohanty/data/final_dataset/lmdb/color-40-60/test_db"
    batch_size: 100
    backend: LMDB
  }
}
layer {
  name: "conv1"
  type: "Convolution"
  bottom: "data"
  top: "conv1"
  param {
    lr_mult: 1
    decay_mult: 1
  }
  param {
    lr_mult: 2
    decay_mult: 0
  }
  convolution_param {
    num_output: 96
    kernel_size: 11
    stride: 4
    weight_filler {
      type: "gaussian"
      std: 0.01
    }
    bias_filler {
      type: "constant"
      value: 0
    }
  }
}
layer {
  name: "relu1"
  type: "ReLU"
  bottom: "conv1"
  top: "conv1"
}
layer {
  name: "norm1"
  type: "LRN"
  bottom: "conv1"
  top: "norm1"
  lrn_param {
    local_size: 5
    alpha: 0.0001
    beta: 0.75
  }
}
layer {
  name: "pool1"
  type: "Pooling"
  bottom: "norm1"
  top: "pool1"
  pooling_param {
    pool: MAX
    kernel_size: 3
    stride: 2
  }
}
layer {
  name: "conv2"
  type: "Convolution"
  bottom: "pool1"
  top: "conv2"
  param {
    lr_mult: 1
    decay_mult: 1
  }
  param {
    lr_mult: 2
    decay_mult: 0
  }
  convolution_param {
    num_output: 256
    pad: 2
    kernel_size: 5
    group: 2
    weight_filler {
      type: "gaussian"
      std: 0.01
    }
    bias_filler {
      type: "constant"
      value: 0.1
    }
  }
}
layer {
  name: "relu2"
  type: "ReLU"
  bottom: "conv2"
  top: "conv2"
}
layer {
  name: "norm2"
  type: "LRN"
  bottom: "conv2"
  top: "norm2"
  lrn_param {
    local_size: 5
    alpha: 0.0001
    beta: 0.75
  }
}
layer {
  name: "pool2"
  type: "Pooling"
  bottom: "norm2"
  top: "pool2"
  pooling_param {
    pool: MAX
    kernel_size: 3
    stride: 2
  }
}
layer {
  name: "conv3"
  type: "Convolution"
  bottom: "pool2"
  top: "conv3"
  param {
    lr_mult: 1
    decay_mult: 1
  }
  param {
    lr_mult: 2
    decay_mult: 0
  }
  convolution_param {
    num_output: 384
    pad: 1
    kernel_size: 3
    weight_filler {
      type: "gaussian"
      std: 0.01
    }
    bias_filler {
      type: "constant"
      value: 0
    }
  }
}
layer {
  name: "relu3"
  type: "ReLU"
  bottom: "conv3"
  top: "conv3"
}
layer {
  name: "conv4"
  type: "Convolution"
  bottom: "conv3"
  top: "conv4"
  param {
    lr_mult: 1
    decay_mult: 1
  }
  param {
    lr_mult: 2
    decay_mult: 0
  }
  convolution_param {
    num_output: 384
    pad: 1
    kernel_size: 3
    group: 2
    weight_filler {
      type: "gaussian"
      std: 0.01
    }
    bias_filler {
      type: "constant"
      value: 0.1
    }
  }
}
layer {
  name: "relu4"
  type: "ReLU"
  bottom: "conv4"
  top: "conv4"
}
layer {
  name: "conv5"
  type: "Convolution"
  bottom: "conv4"
  top: "conv5"
  param {
    lr_mult: 1
    decay_mult: 1
  }
  param {
    lr_mult: 2
    decay_mult: 0
  }
  convolution_param {
    num_output: 256
    pad: 1
    kernel_size: 3
    group: 2
    weight_filler {
      type: "gaussian"
      std: 0.01
    }
    bias_filler {
      type: "constant"
      value: 0.1
    }
  }
}
layer {
  name: "relu5"
  type: "ReLU"
  bottom: "conv5"
  top: "conv5"
}
layer {
  name: "pool5"
  type: "Pooling"
  bottom: "conv5"
  top: "pool5"
  pooling_param {
    pool: MAX
    kernel_size: 3
    stride: 2
  }
}
layer {
  name: "fc6"
  type: "InnerProduct"
  bottom: "pool5"
  top: "fc6"
  param {
    lr_mult: 1
    decay_mult: 1
  }
  param {
    lr_mult: 2
    decay_mult: 0
  }
  inner_product_param {
    num_output: 4096
    weight_filler {
      type: "gaussian"
      std: 0.005
    }
    bias_filler {
      type: "constant"
      value: 0.1
    }
  }
}
layer {
  name: "relu6"
  type: "ReLU"
  bottom: "fc6"
  top: "fc6"
}
layer {
  name: "drop6"
  type: "Dropout"
  bottom: "fc6"
  top: "fc6"
  dropout_param {
    dropout_ratio: 0.5
  }
}
layer {
  name: "fc7"
  type: "InnerProduct"
  bottom: "fc6"
  top: "fc7"
  param {
    lr_mult: 1
    decay_mult: 1
  }
  param {
    lr_mult: 2
    decay_mult: 0
  }
  inner_product_param {
    num_output: 4096
    weight_filler {
      type: "gaussian"
      std: 0.005
    }
    bias_filler {
      type: "constant"
      value: 0.1
    }
  }
}
layer {
  name: "relu7"
  type: "ReLU"
  bottom: "fc7"
  top: "fc7"
}
layer {
  name: "drop7"
  type: "Dropout"
  bottom: "fc7"
  top: "fc7"
  dropout_param {
    dropout_ratio: 0.5
  }
}
layer {
  name: "fc8_plantvillage"
  type: "InnerProduct"
  bottom: "fc7"
  top: "fc8_plantvillage"
  param {
    lr_mult: 1
    decay_mult: 1
  }
  param {
    lr_mult: 2
    decay_mult: 0
  }
  inner_product_param {
    num_output: 38
    weight_filler {
      type: "gaussian"
      std: 0.01
    }
    bias_filler {
      type: "constant"
      value: 0
    }
  }
}
layer {
  name: "prob"
  type: "Softmax"
  bottom: "fc8_plantvillage"
  top: "prob"
  include {
    phase: TEST
  }
}
layer {
  name: "hdf5out"
  type: "HDF5Output"
  bottom: "prob"
  bottom: "label"
  include {
    phase: TEST
  }
  hdf5_output_param {
    file_name: "hdf5_dumps/iter_217.h5"
  }
}
layer {
  name: "loss"
  type: "SoftmaxWithLoss"
  bottom: "fc8_plantvillage"
  bottom: "label"
  top: "loss"
}
layer {
  name: "accuracy"
  type: "Accuracy"
  bottom: "fc8_plantvillage"
  bottom: "label"
  top: "accuracy"
  include {
    phase: TEST
  }
}
I0403 13:29:26.947945 28264 layer_factory.hpp:77] Creating layer data
I0403 13:29:26.948597 28264 net.cpp:91] Creating Layer data
I0403 13:29:26.948632 28264 net.cpp:399] data -> data
I0403 13:29:26.948686 28264 net.cpp:399] data -> label
I0403 13:29:26.948739 28264 data_transformer.cpp:25] Loading mean file from: /home/mohanty/data/final_dataset/lmdb/color-40-60/mean.binaryproto
I0403 13:29:26.957578 28268 db_lmdb.cpp:38] Opened lmdb /home/mohanty/data/final_dataset/lmdb/color-40-60/test_db
I0403 13:29:26.981941 28264 data_layer.cpp:41] output data size: 100,3,227,227
I0403 13:29:27.117123 28264 net.cpp:141] Setting up data
I0403 13:29:27.117216 28264 net.cpp:148] Top shape: 100 3 227 227 (15458700)
I0403 13:29:27.117241 28264 net.cpp:148] Top shape: 100 (100)
I0403 13:29:27.117257 28264 net.cpp:156] Memory required for data: 61835200
I0403 13:29:27.117291 28264 layer_factory.hpp:77] Creating layer label_data_1_split
I0403 13:29:27.117321 28264 net.cpp:91] Creating Layer label_data_1_split
I0403 13:29:27.117342 28264 net.cpp:425] label_data_1_split <- label
I0403 13:29:27.117375 28264 net.cpp:399] label_data_1_split -> label_data_1_split_0
I0403 13:29:27.117406 28264 net.cpp:399] label_data_1_split -> label_data_1_split_1
I0403 13:29:27.117430 28264 net.cpp:399] label_data_1_split -> label_data_1_split_2
I0403 13:29:27.117497 28264 net.cpp:141] Setting up label_data_1_split
I0403 13:29:27.117524 28264 net.cpp:148] Top shape: 100 (100)
I0403 13:29:27.117543 28264 net.cpp:148] Top shape: 100 (100)
I0403 13:29:27.117561 28264 net.cpp:148] Top shape: 100 (100)
I0403 13:29:27.117576 28264 net.cpp:156] Memory required for data: 61836400
I0403 13:29:27.117594 28264 layer_factory.hpp:77] Creating layer conv1
I0403 13:29:27.117626 28264 net.cpp:91] Creating Layer conv1
I0403 13:29:27.117646 28264 net.cpp:425] conv1 <- data
I0403 13:29:27.117668 28264 net.cpp:399] conv1 -> conv1
I0403 13:29:27.265724 28264 net.cpp:141] Setting up conv1
I0403 13:29:27.265805 28264 net.cpp:148] Top shape: 100 96 55 55 (29040000)
I0403 13:29:27.265823 28264 net.cpp:156] Memory required for data: 177996400
I0403 13:29:27.265857 28264 layer_factory.hpp:77] Creating layer relu1
I0403 13:29:27.265897 28264 net.cpp:91] Creating Layer relu1
I0403 13:29:27.265915 28264 net.cpp:425] relu1 <- conv1
I0403 13:29:27.265935 28264 net.cpp:386] relu1 -> conv1 (in-place)
I0403 13:29:27.266186 28264 net.cpp:141] Setting up relu1
I0403 13:29:27.266259 28264 net.cpp:148] Top shape: 100 96 55 55 (29040000)
I0403 13:29:27.266281 28264 net.cpp:156] Memory required for data: 294156400
I0403 13:29:27.266361 28264 layer_factory.hpp:77] Creating layer norm1
I0403 13:29:27.266394 28264 net.cpp:91] Creating Layer norm1
I0403 13:29:27.266414 28264 net.cpp:425] norm1 <- conv1
I0403 13:29:27.266435 28264 net.cpp:399] norm1 -> norm1
I0403 13:29:27.266767 28264 net.cpp:141] Setting up norm1
I0403 13:29:27.266796 28264 net.cpp:148] Top shape: 100 96 55 55 (29040000)
I0403 13:29:27.266813 28264 net.cpp:156] Memory required for data: 410316400
I0403 13:29:27.266830 28264 layer_factory.hpp:77] Creating layer pool1
I0403 13:29:27.266855 28264 net.cpp:91] Creating Layer pool1
I0403 13:29:27.266885 28264 net.cpp:425] pool1 <- norm1
I0403 13:29:27.266903 28264 net.cpp:399] pool1 -> pool1
I0403 13:29:27.266969 28264 net.cpp:141] Setting up pool1
I0403 13:29:27.266994 28264 net.cpp:148] Top shape: 100 96 27 27 (6998400)
I0403 13:29:27.267010 28264 net.cpp:156] Memory required for data: 438310000
I0403 13:29:27.267026 28264 layer_factory.hpp:77] Creating layer conv2
I0403 13:29:27.267050 28264 net.cpp:91] Creating Layer conv2
I0403 13:29:27.267067 28264 net.cpp:425] conv2 <- pool1
I0403 13:29:27.267086 28264 net.cpp:399] conv2 -> conv2
I0403 13:29:27.282383 28264 net.cpp:141] Setting up conv2
I0403 13:29:27.282438 28264 net.cpp:148] Top shape: 100 256 27 27 (18662400)
I0403 13:29:27.282455 28264 net.cpp:156] Memory required for data: 512959600
I0403 13:29:27.282480 28264 layer_factory.hpp:77] Creating layer relu2
I0403 13:29:27.282505 28264 net.cpp:91] Creating Layer relu2
I0403 13:29:27.282524 28264 net.cpp:425] relu2 <- conv2
I0403 13:29:27.282544 28264 net.cpp:386] relu2 -> conv2 (in-place)
I0403 13:29:27.282876 28264 net.cpp:141] Setting up relu2
I0403 13:29:27.282907 28264 net.cpp:148] Top shape: 100 256 27 27 (18662400)
I0403 13:29:27.282923 28264 net.cpp:156] Memory required for data: 587609200
I0403 13:29:27.282939 28264 layer_factory.hpp:77] Creating layer norm2
I0403 13:29:27.282964 28264 net.cpp:91] Creating Layer norm2
I0403 13:29:27.282984 28264 net.cpp:425] norm2 <- conv2
I0403 13:29:27.283006 28264 net.cpp:399] norm2 -> norm2
I0403 13:29:27.283212 28264 net.cpp:141] Setting up norm2
I0403 13:29:27.283241 28264 net.cpp:148] Top shape: 100 256 27 27 (18662400)
I0403 13:29:27.283260 28264 net.cpp:156] Memory required for data: 662258800
I0403 13:29:27.283277 28264 layer_factory.hpp:77] Creating layer pool2
I0403 13:29:27.283325 28264 net.cpp:91] Creating Layer pool2
I0403 13:29:27.283346 28264 net.cpp:425] pool2 <- norm2
I0403 13:29:27.283367 28264 net.cpp:399] pool2 -> pool2
I0403 13:29:27.283427 28264 net.cpp:141] Setting up pool2
I0403 13:29:27.283454 28264 net.cpp:148] Top shape: 100 256 13 13 (4326400)
I0403 13:29:27.283473 28264 net.cpp:156] Memory required for data: 679564400
I0403 13:29:27.283488 28264 layer_factory.hpp:77] Creating layer conv3
I0403 13:29:27.283515 28264 net.cpp:91] Creating Layer conv3
I0403 13:29:27.283535 28264 net.cpp:425] conv3 <- pool2
I0403 13:29:27.283566 28264 net.cpp:399] conv3 -> conv3
I0403 13:29:27.333540 28264 net.cpp:141] Setting up conv3
I0403 13:29:27.333616 28264 net.cpp:148] Top shape: 100 384 13 13 (6489600)
I0403 13:29:27.333633 28264 net.cpp:156] Memory required for data: 705522800
I0403 13:29:27.333663 28264 layer_factory.hpp:77] Creating layer relu3
I0403 13:29:27.333688 28264 net.cpp:91] Creating Layer relu3
I0403 13:29:27.333705 28264 net.cpp:425] relu3 <- conv3
I0403 13:29:27.333724 28264 net.cpp:386] relu3 -> conv3 (in-place)
I0403 13:29:27.334012 28264 net.cpp:141] Setting up relu3
I0403 13:29:27.334041 28264 net.cpp:148] Top shape: 100 384 13 13 (6489600)
I0403 13:29:27.334058 28264 net.cpp:156] Memory required for data: 731481200
I0403 13:29:27.334074 28264 layer_factory.hpp:77] Creating layer conv4
I0403 13:29:27.334100 28264 net.cpp:91] Creating Layer conv4
I0403 13:29:27.334118 28264 net.cpp:425] conv4 <- conv3
I0403 13:29:27.334141 28264 net.cpp:399] conv4 -> conv4
I0403 13:29:27.364840 28264 net.cpp:141] Setting up conv4
I0403 13:29:27.364912 28264 net.cpp:148] Top shape: 100 384 13 13 (6489600)
I0403 13:29:27.364965 28264 net.cpp:156] Memory required for data: 757439600
I0403 13:29:27.364989 28264 layer_factory.hpp:77] Creating layer relu4
I0403 13:29:27.365017 28264 net.cpp:91] Creating Layer relu4
I0403 13:29:27.365037 28264 net.cpp:425] relu4 <- conv4
I0403 13:29:27.365057 28264 net.cpp:386] relu4 -> conv4 (in-place)
I0403 13:29:27.365398 28264 net.cpp:141] Setting up relu4
I0403 13:29:27.365428 28264 net.cpp:148] Top shape: 100 384 13 13 (6489600)
I0403 13:29:27.365445 28264 net.cpp:156] Memory required for data: 783398000
I0403 13:29:27.365463 28264 layer_factory.hpp:77] Creating layer conv5
I0403 13:29:27.365490 28264 net.cpp:91] Creating Layer conv5
I0403 13:29:27.365509 28264 net.cpp:425] conv5 <- conv4
I0403 13:29:27.365531 28264 net.cpp:399] conv5 -> conv5
I0403 13:29:27.387210 28264 net.cpp:141] Setting up conv5
I0403 13:29:27.387271 28264 net.cpp:148] Top shape: 100 256 13 13 (4326400)
I0403 13:29:27.387295 28264 net.cpp:156] Memory required for data: 800703600
I0403 13:29:27.387322 28264 layer_factory.hpp:77] Creating layer relu5
I0403 13:29:27.387351 28264 net.cpp:91] Creating Layer relu5
I0403 13:29:27.387369 28264 net.cpp:425] relu5 <- conv5
I0403 13:29:27.387389 28264 net.cpp:386] relu5 -> conv5 (in-place)
I0403 13:29:27.387668 28264 net.cpp:141] Setting up relu5
I0403 13:29:27.387696 28264 net.cpp:148] Top shape: 100 256 13 13 (4326400)
I0403 13:29:27.387713 28264 net.cpp:156] Memory required for data: 818009200
I0403 13:29:27.387729 28264 layer_factory.hpp:77] Creating layer pool5
I0403 13:29:27.387755 28264 net.cpp:91] Creating Layer pool5
I0403 13:29:27.387774 28264 net.cpp:425] pool5 <- conv5
I0403 13:29:27.387797 28264 net.cpp:399] pool5 -> pool5
I0403 13:29:27.387858 28264 net.cpp:141] Setting up pool5
I0403 13:29:27.387883 28264 net.cpp:148] Top shape: 100 256 6 6 (921600)
I0403 13:29:27.387900 28264 net.cpp:156] Memory required for data: 821695600
I0403 13:29:27.387917 28264 layer_factory.hpp:77] Creating layer fc6
I0403 13:29:27.387945 28264 net.cpp:91] Creating Layer fc6
I0403 13:29:27.387964 28264 net.cpp:425] fc6 <- pool5
I0403 13:29:27.387984 28264 net.cpp:399] fc6 -> fc6
I0403 13:29:28.972656 28264 net.cpp:141] Setting up fc6
I0403 13:29:28.972735 28264 net.cpp:148] Top shape: 100 4096 (409600)
I0403 13:29:28.972754 28264 net.cpp:156] Memory required for data: 823334000
I0403 13:29:28.972777 28264 layer_factory.hpp:77] Creating layer relu6
I0403 13:29:28.972802 28264 net.cpp:91] Creating Layer relu6
I0403 13:29:28.972821 28264 net.cpp:425] relu6 <- fc6
I0403 13:29:28.972847 28264 net.cpp:386] relu6 -> fc6 (in-place)
I0403 13:29:28.973088 28264 net.cpp:141] Setting up relu6
I0403 13:29:28.973116 28264 net.cpp:148] Top shape: 100 4096 (409600)
I0403 13:29:28.973134 28264 net.cpp:156] Memory required for data: 824972400
I0403 13:29:28.973150 28264 layer_factory.hpp:77] Creating layer drop6
I0403 13:29:28.973172 28264 net.cpp:91] Creating Layer drop6
I0403 13:29:28.973191 28264 net.cpp:425] drop6 <- fc6
I0403 13:29:28.973211 28264 net.cpp:386] drop6 -> fc6 (in-place)
I0403 13:29:28.973266 28264 net.cpp:141] Setting up drop6
I0403 13:29:28.973305 28264 net.cpp:148] Top shape: 100 4096 (409600)
I0403 13:29:28.973325 28264 net.cpp:156] Memory required for data: 826610800
I0403 13:29:28.973346 28264 layer_factory.hpp:77] Creating layer fc7
I0403 13:29:28.973368 28264 net.cpp:91] Creating Layer fc7
I0403 13:29:28.973386 28264 net.cpp:425] fc7 <- fc6
I0403 13:29:28.973408 28264 net.cpp:399] fc7 -> fc7
I0403 13:29:29.668683 28264 net.cpp:141] Setting up fc7
I0403 13:29:29.668761 28264 net.cpp:148] Top shape: 100 4096 (409600)
I0403 13:29:29.668781 28264 net.cpp:156] Memory required for data: 828249200
I0403 13:29:29.668803 28264 layer_factory.hpp:77] Creating layer relu7
I0403 13:29:29.668830 28264 net.cpp:91] Creating Layer relu7
I0403 13:29:29.668850 28264 net.cpp:425] relu7 <- fc7
I0403 13:29:29.668871 28264 net.cpp:386] relu7 -> fc7 (in-place)
I0403 13:29:29.669262 28264 net.cpp:141] Setting up relu7
I0403 13:29:29.669297 28264 net.cpp:148] Top shape: 100 4096 (409600)
I0403 13:29:29.669358 28264 net.cpp:156] Memory required for data: 829887600
I0403 13:29:29.669376 28264 layer_factory.hpp:77] Creating layer drop7
I0403 13:29:29.669399 28264 net.cpp:91] Creating Layer drop7
I0403 13:29:29.669415 28264 net.cpp:425] drop7 <- fc7
I0403 13:29:29.669435 28264 net.cpp:386] drop7 -> fc7 (in-place)
I0403 13:29:29.669481 28264 net.cpp:141] Setting up drop7
I0403 13:29:29.669505 28264 net.cpp:148] Top shape: 100 4096 (409600)
I0403 13:29:29.669523 28264 net.cpp:156] Memory required for data: 831526000
I0403 13:29:29.669539 28264 layer_factory.hpp:77] Creating layer fc8_plantvillage
I0403 13:29:29.669560 28264 net.cpp:91] Creating Layer fc8_plantvillage
I0403 13:29:29.669576 28264 net.cpp:425] fc8_plantvillage <- fc7
I0403 13:29:29.669598 28264 net.cpp:399] fc8_plantvillage -> fc8_plantvillage
I0403 13:29:29.676563 28264 net.cpp:141] Setting up fc8_plantvillage
I0403 13:29:29.676594 28264 net.cpp:148] Top shape: 100 38 (3800)
I0403 13:29:29.676612 28264 net.cpp:156] Memory required for data: 831541200
I0403 13:29:29.676635 28264 layer_factory.hpp:77] Creating layer fc8_plantvillage_fc8_plantvillage_0_split
I0403 13:29:29.676657 28264 net.cpp:91] Creating Layer fc8_plantvillage_fc8_plantvillage_0_split
I0403 13:29:29.676676 28264 net.cpp:425] fc8_plantvillage_fc8_plantvillage_0_split <- fc8_plantvillage
I0403 13:29:29.676707 28264 net.cpp:399] fc8_plantvillage_fc8_plantvillage_0_split -> fc8_plantvillage_fc8_plantvillage_0_split_0
I0403 13:29:29.676728 28264 net.cpp:399] fc8_plantvillage_fc8_plantvillage_0_split -> fc8_plantvillage_fc8_plantvillage_0_split_1
I0403 13:29:29.676754 28264 net.cpp:399] fc8_plantvillage_fc8_plantvillage_0_split -> fc8_plantvillage_fc8_plantvillage_0_split_2
I0403 13:29:29.676833 28264 net.cpp:141] Setting up fc8_plantvillage_fc8_plantvillage_0_split
I0403 13:29:29.676858 28264 net.cpp:148] Top shape: 100 38 (3800)
I0403 13:29:29.676877 28264 net.cpp:148] Top shape: 100 38 (3800)
I0403 13:29:29.676893 28264 net.cpp:148] Top shape: 100 38 (3800)
I0403 13:29:29.676908 28264 net.cpp:156] Memory required for data: 831586800
I0403 13:29:29.676924 28264 layer_factory.hpp:77] Creating layer prob
I0403 13:29:29.676946 28264 net.cpp:91] Creating Layer prob
I0403 13:29:29.676964 28264 net.cpp:425] prob <- fc8_plantvillage_fc8_plantvillage_0_split_0
I0403 13:29:29.676985 28264 net.cpp:399] prob -> prob
I0403 13:29:29.677213 28264 net.cpp:141] Setting up prob
I0403 13:29:29.677240 28264 net.cpp:148] Top shape: 100 38 (3800)
I0403 13:29:29.677258 28264 net.cpp:156] Memory required for data: 831602000
I0403 13:29:29.677273 28264 layer_factory.hpp:77] Creating layer hdf5out
I0403 13:29:29.677732 28264 net.cpp:91] Creating Layer hdf5out
I0403 13:29:29.677755 28264 net.cpp:425] hdf5out <- prob
I0403 13:29:29.677774 28264 net.cpp:425] hdf5out <- label_data_1_split_0
I0403 13:29:29.693423 28264 net.cpp:141] Setting up hdf5out
…
