…
I0403 13:56:40.024152 28890 net.cpp:313] The NetState phase (1) differed from the phase (0) specified by a rule in layer data
I0403 13:56:40.024471 28890 net.cpp:49] Initializing net from parameters: 
state {
  phase: TEST
}
layer {
  name: "data"
  type: "Data"
  top: "data"
  top: "label"
  include {
    phase: TEST
  }
  transform_param {
    crop_size: 227
    mean_file: "/home/mohanty/data/final_dataset/lmdb/color-40-60/mean.binaryproto"
  }
  data_param {
    source: "/home/mohanty/data/final_dataset/lmdb/color-40-60/test_db"
    batch_size: 100
    backend: LMDB
  }
}
layer {
  name: "conv1"
  type: "Convolution"
  bottom: "data"
  top: "conv1"
  param {
    lr_mult: 1
    decay_mult: 1
  }
  param {
    lr_mult: 2
    decay_mult: 0
  }
  convolution_param {
    num_output: 96
    kernel_size: 11
    stride: 4
    weight_filler {
      type: "gaussian"
      std: 0.01
    }
    bias_filler {
      type: "constant"
      value: 0
    }
  }
}
layer {
  name: "relu1"
  type: "ReLU"
  bottom: "conv1"
  top: "conv1"
}
layer {
  name: "norm1"
  type: "LRN"
  bottom: "conv1"
  top: "norm1"
  lrn_param {
    local_size: 5
    alpha: 0.0001
    beta: 0.75
  }
}
layer {
  name: "pool1"
  type: "Pooling"
  bottom: "norm1"
  top: "pool1"
  pooling_param {
    pool: MAX
    kernel_size: 3
    stride: 2
  }
}
layer {
  name: "conv2"
  type: "Convolution"
  bottom: "pool1"
  top: "conv2"
  param {
    lr_mult: 1
    decay_mult: 1
  }
  param {
    lr_mult: 2
    decay_mult: 0
  }
  convolution_param {
    num_output: 256
    pad: 2
    kernel_size: 5
    group: 2
    weight_filler {
      type: "gaussian"
      std: 0.01
    }
    bias_filler {
      type: "constant"
      value: 0.1
    }
  }
}
layer {
  name: "relu2"
  type: "ReLU"
  bottom: "conv2"
  top: "conv2"
}
layer {
  name: "norm2"
  type: "LRN"
  bottom: "conv2"
  top: "norm2"
  lrn_param {
    local_size: 5
    alpha: 0.0001
    beta: 0.75
  }
}
layer {
  name: "pool2"
  type: "Pooling"
  bottom: "norm2"
  top: "pool2"
  pooling_param {
    pool: MAX
    kernel_size: 3
    stride: 2
  }
}
layer {
  name: "conv3"
  type: "Convolution"
  bottom: "pool2"
  top: "conv3"
  param {
    lr_mult: 1
    decay_mult: 1
  }
  param {
    lr_mult: 2
    decay_mult: 0
  }
  convolution_param {
    num_output: 384
    pad: 1
    kernel_size: 3
    weight_filler {
      type: "gaussian"
      std: 0.01
    }
    bias_filler {
      type: "constant"
      value: 0
    }
  }
}
layer {
  name: "relu3"
  type: "ReLU"
  bottom: "conv3"
  top: "conv3"
}
layer {
  name: "conv4"
  type: "Convolution"
  bottom: "conv3"
  top: "conv4"
  param {
    lr_mult: 1
    decay_mult: 1
  }
  param {
    lr_mult: 2
    decay_mult: 0
  }
  convolution_param {
    num_output: 384
    pad: 1
    kernel_size: 3
    group: 2
    weight_filler {
      type: "gaussian"
      std: 0.01
    }
    bias_filler {
      type: "constant"
      value: 0.1
    }
  }
}
layer {
  name: "relu4"
  type: "ReLU"
  bottom: "conv4"
  top: "conv4"
}
layer {
  name: "conv5"
  type: "Convolution"
  bottom: "conv4"
  top: "conv5"
  param {
    lr_mult: 1
    decay_mult: 1
  }
  param {
    lr_mult: 2
    decay_mult: 0
  }
  convolution_param {
    num_output: 256
    pad: 1
    kernel_size: 3
    group: 2
    weight_filler {
      type: "gaussian"
      std: 0.01
    }
    bias_filler {
      type: "constant"
      value: 0.1
    }
  }
}
layer {
  name: "relu5"
  type: "ReLU"
  bottom: "conv5"
  top: "conv5"
}
layer {
  name: "pool5"
  type: "Pooling"
  bottom: "conv5"
  top: "pool5"
  pooling_param {
    pool: MAX
    kernel_size: 3
    stride: 2
  }
}
layer {
  name: "fc6"
  type: "InnerProduct"
  bottom: "pool5"
  top: "fc6"
  param {
    lr_mult: 1
    decay_mult: 1
  }
  param {
    lr_mult: 2
    decay_mult: 0
  }
  inner_product_param {
    num_output: 4096
    weight_filler {
      type: "gaussian"
      std: 0.005
    }
    bias_filler {
      type: "constant"
      value: 0.1
    }
  }
}
layer {
  name: "relu6"
  type: "ReLU"
  bottom: "fc6"
  top: "fc6"
}
layer {
  name: "drop6"
  type: "Dropout"
  bottom: "fc6"
  top: "fc6"
  dropout_param {
    dropout_ratio: 0.5
  }
}
layer {
  name: "fc7"
  type: "InnerProduct"
  bottom: "fc6"
  top: "fc7"
  param {
    lr_mult: 1
    decay_mult: 1
  }
  param {
    lr_mult: 2
    decay_mult: 0
  }
  inner_product_param {
    num_output: 4096
    weight_filler {
      type: "gaussian"
      std: 0.005
    }
    bias_filler {
      type: "constant"
      value: 0.1
    }
  }
}
layer {
  name: "relu7"
  type: "ReLU"
  bottom: "fc7"
  top: "fc7"
}
layer {
  name: "drop7"
  type: "Dropout"
  bottom: "fc7"
  top: "fc7"
  dropout_param {
    dropout_ratio: 0.5
  }
}
layer {
  name: "fc8_plantvillage"
  type: "InnerProduct"
  bottom: "fc7"
  top: "fc8_plantvillage"
  param {
    lr_mult: 1
    decay_mult: 1
  }
  param {
    lr_mult: 2
    decay_mult: 0
  }
  inner_product_param {
    num_output: 38
    weight_filler {
      type: "gaussian"
      std: 0.01
    }
    bias_filler {
      type: "constant"
      value: 0
    }
  }
}
layer {
  name: "prob"
  type: "Softmax"
  bottom: "fc8_plantvillage"
  top: "prob"
  include {
    phase: TEST
  }
}
layer {
  name: "hdf5out"
  type: "HDF5Output"
  bottom: "prob"
  bottom: "label"
  include {
    phase: TEST
  }
  hdf5_output_param {
    file_name: "hdf5_dumps/iter_5425.h5"
  }
}
layer {
  name: "loss"
  type: "SoftmaxWithLoss"
  bottom: "fc8_plantvillage"
  bottom: "label"
  top: "loss"
}
layer {
  name: "accuracy"
  type: "Accuracy"
  bottom: "fc8_plantvillage"
  bottom: "label"
  top: "accuracy"
  include {
    phase: TEST
  }
}
I0403 13:56:40.025032 28890 layer_factory.hpp:77] Creating layer data
I0403 13:56:40.025671 28890 net.cpp:91] Creating Layer data
I0403 13:56:40.025714 28890 net.cpp:399] data -> data
I0403 13:56:40.025780 28890 net.cpp:399] data -> label
I0403 13:56:40.025821 28890 data_transformer.cpp:25] Loading mean file from: /home/mohanty/data/final_dataset/lmdb/color-40-60/mean.binaryproto
I0403 13:56:40.028497 28893 db_lmdb.cpp:38] Opened lmdb /home/mohanty/data/final_dataset/lmdb/color-40-60/test_db
I0403 13:56:40.040537 28890 data_layer.cpp:41] output data size: 100,3,227,227
I0403 13:56:40.173182 28890 net.cpp:141] Setting up data
I0403 13:56:40.173246 28890 net.cpp:148] Top shape: 100 3 227 227 (15458700)
I0403 13:56:40.173281 28890 net.cpp:148] Top shape: 100 (100)
I0403 13:56:40.173298 28890 net.cpp:156] Memory required for data: 61835200
I0403 13:56:40.173328 28890 layer_factory.hpp:77] Creating layer label_data_1_split
I0403 13:56:40.173354 28890 net.cpp:91] Creating Layer label_data_1_split
I0403 13:56:40.173373 28890 net.cpp:425] label_data_1_split <- label
I0403 13:56:40.173406 28890 net.cpp:399] label_data_1_split -> label_data_1_split_0
I0403 13:56:40.173434 28890 net.cpp:399] label_data_1_split -> label_data_1_split_1
I0403 13:56:40.173454 28890 net.cpp:399] label_data_1_split -> label_data_1_split_2
I0403 13:56:40.173516 28890 net.cpp:141] Setting up label_data_1_split
I0403 13:56:40.173539 28890 net.cpp:148] Top shape: 100 (100)
I0403 13:56:40.173557 28890 net.cpp:148] Top shape: 100 (100)
I0403 13:56:40.173575 28890 net.cpp:148] Top shape: 100 (100)
I0403 13:56:40.173591 28890 net.cpp:156] Memory required for data: 61836400
I0403 13:56:40.173607 28890 layer_factory.hpp:77] Creating layer conv1
I0403 13:56:40.173640 28890 net.cpp:91] Creating Layer conv1
I0403 13:56:40.173658 28890 net.cpp:425] conv1 <- data
I0403 13:56:40.173677 28890 net.cpp:399] conv1 -> conv1
I0403 13:56:40.325783 28890 net.cpp:141] Setting up conv1
I0403 13:56:40.325826 28890 net.cpp:148] Top shape: 100 96 55 55 (29040000)
I0403 13:56:40.325846 28890 net.cpp:156] Memory required for data: 177996400
I0403 13:56:40.325881 28890 layer_factory.hpp:77] Creating layer relu1
I0403 13:56:40.325908 28890 net.cpp:91] Creating Layer relu1
I0403 13:56:40.325927 28890 net.cpp:425] relu1 <- conv1
I0403 13:56:40.325948 28890 net.cpp:386] relu1 -> conv1 (in-place)
I0403 13:56:40.326211 28890 net.cpp:141] Setting up relu1
I0403 13:56:40.326241 28890 net.cpp:148] Top shape: 100 96 55 55 (29040000)
I0403 13:56:40.326277 28890 net.cpp:156] Memory required for data: 294156400
I0403 13:56:40.326328 28890 layer_factory.hpp:77] Creating layer norm1
I0403 13:56:40.326359 28890 net.cpp:91] Creating Layer norm1
I0403 13:56:40.326380 28890 net.cpp:425] norm1 <- conv1
I0403 13:56:40.326400 28890 net.cpp:399] norm1 -> norm1
I0403 13:56:40.326733 28890 net.cpp:141] Setting up norm1
I0403 13:56:40.326763 28890 net.cpp:148] Top shape: 100 96 55 55 (29040000)
I0403 13:56:40.326782 28890 net.cpp:156] Memory required for data: 410316400
I0403 13:56:40.326798 28890 layer_factory.hpp:77] Creating layer pool1
I0403 13:56:40.326822 28890 net.cpp:91] Creating Layer pool1
I0403 13:56:40.326884 28890 net.cpp:425] pool1 <- norm1
I0403 13:56:40.326910 28890 net.cpp:399] pool1 -> pool1
I0403 13:56:40.326983 28890 net.cpp:141] Setting up pool1
I0403 13:56:40.327010 28890 net.cpp:148] Top shape: 100 96 27 27 (6998400)
I0403 13:56:40.327026 28890 net.cpp:156] Memory required for data: 438310000
I0403 13:56:40.327042 28890 layer_factory.hpp:77] Creating layer conv2
I0403 13:56:40.327069 28890 net.cpp:91] Creating Layer conv2
I0403 13:56:40.327085 28890 net.cpp:425] conv2 <- pool1
I0403 13:56:40.327117 28890 net.cpp:399] conv2 -> conv2
I0403 13:56:40.342852 28890 net.cpp:141] Setting up conv2
I0403 13:56:40.342901 28890 net.cpp:148] Top shape: 100 256 27 27 (18662400)
I0403 13:56:40.342921 28890 net.cpp:156] Memory required for data: 512959600
I0403 13:56:40.342946 28890 layer_factory.hpp:77] Creating layer relu2
I0403 13:56:40.342969 28890 net.cpp:91] Creating Layer relu2
I0403 13:56:40.342986 28890 net.cpp:425] relu2 <- conv2
I0403 13:56:40.343005 28890 net.cpp:386] relu2 -> conv2 (in-place)
I0403 13:56:40.343302 28890 net.cpp:141] Setting up relu2
I0403 13:56:40.343333 28890 net.cpp:148] Top shape: 100 256 27 27 (18662400)
I0403 13:56:40.343364 28890 net.cpp:156] Memory required for data: 587609200
I0403 13:56:40.343381 28890 layer_factory.hpp:77] Creating layer norm2
I0403 13:56:40.343406 28890 net.cpp:91] Creating Layer norm2
I0403 13:56:40.343430 28890 net.cpp:425] norm2 <- conv2
I0403 13:56:40.343451 28890 net.cpp:399] norm2 -> norm2
I0403 13:56:40.343729 28890 net.cpp:141] Setting up norm2
I0403 13:56:40.343757 28890 net.cpp:148] Top shape: 100 256 27 27 (18662400)
I0403 13:56:40.343773 28890 net.cpp:156] Memory required for data: 662258800
I0403 13:56:40.343791 28890 layer_factory.hpp:77] Creating layer pool2
I0403 13:56:40.343812 28890 net.cpp:91] Creating Layer pool2
I0403 13:56:40.343830 28890 net.cpp:425] pool2 <- norm2
I0403 13:56:40.343849 28890 net.cpp:399] pool2 -> pool2
I0403 13:56:40.343904 28890 net.cpp:141] Setting up pool2
I0403 13:56:40.343930 28890 net.cpp:148] Top shape: 100 256 13 13 (4326400)
I0403 13:56:40.343945 28890 net.cpp:156] Memory required for data: 679564400
I0403 13:56:40.343962 28890 layer_factory.hpp:77] Creating layer conv3
I0403 13:56:40.343986 28890 net.cpp:91] Creating Layer conv3
I0403 13:56:40.344005 28890 net.cpp:425] conv3 <- pool2
I0403 13:56:40.344027 28890 net.cpp:399] conv3 -> conv3
I0403 13:56:40.390593 28890 net.cpp:141] Setting up conv3
I0403 13:56:40.390671 28890 net.cpp:148] Top shape: 100 384 13 13 (6489600)
I0403 13:56:40.390691 28890 net.cpp:156] Memory required for data: 705522800
I0403 13:56:40.390722 28890 layer_factory.hpp:77] Creating layer relu3
I0403 13:56:40.390748 28890 net.cpp:91] Creating Layer relu3
I0403 13:56:40.390766 28890 net.cpp:425] relu3 <- conv3
I0403 13:56:40.390787 28890 net.cpp:386] relu3 -> conv3 (in-place)
I0403 13:56:40.391088 28890 net.cpp:141] Setting up relu3
I0403 13:56:40.391120 28890 net.cpp:148] Top shape: 100 384 13 13 (6489600)
I0403 13:56:40.391139 28890 net.cpp:156] Memory required for data: 731481200
I0403 13:56:40.391157 28890 layer_factory.hpp:77] Creating layer conv4
I0403 13:56:40.391182 28890 net.cpp:91] Creating Layer conv4
I0403 13:56:40.391202 28890 net.cpp:425] conv4 <- conv3
I0403 13:56:40.391225 28890 net.cpp:399] conv4 -> conv4
I0403 13:56:40.422068 28890 net.cpp:141] Setting up conv4
I0403 13:56:40.422134 28890 net.cpp:148] Top shape: 100 384 13 13 (6489600)
I0403 13:56:40.422188 28890 net.cpp:156] Memory required for data: 757439600
I0403 13:56:40.422211 28890 layer_factory.hpp:77] Creating layer relu4
I0403 13:56:40.422240 28890 net.cpp:91] Creating Layer relu4
I0403 13:56:40.422267 28890 net.cpp:425] relu4 <- conv4
I0403 13:56:40.422288 28890 net.cpp:386] relu4 -> conv4 (in-place)
I0403 13:56:40.422585 28890 net.cpp:141] Setting up relu4
I0403 13:56:40.422612 28890 net.cpp:148] Top shape: 100 384 13 13 (6489600)
I0403 13:56:40.422629 28890 net.cpp:156] Memory required for data: 783398000
I0403 13:56:40.422646 28890 layer_factory.hpp:77] Creating layer conv5
I0403 13:56:40.422673 28890 net.cpp:91] Creating Layer conv5
I0403 13:56:40.422693 28890 net.cpp:425] conv5 <- conv4
I0403 13:56:40.422714 28890 net.cpp:399] conv5 -> conv5
I0403 13:56:40.444104 28890 net.cpp:141] Setting up conv5
I0403 13:56:40.444160 28890 net.cpp:148] Top shape: 100 256 13 13 (4326400)
I0403 13:56:40.444181 28890 net.cpp:156] Memory required for data: 800703600
I0403 13:56:40.444208 28890 layer_factory.hpp:77] Creating layer relu5
I0403 13:56:40.444233 28890 net.cpp:91] Creating Layer relu5
I0403 13:56:40.444257 28890 net.cpp:425] relu5 <- conv5
I0403 13:56:40.444278 28890 net.cpp:386] relu5 -> conv5 (in-place)
I0403 13:56:40.444567 28890 net.cpp:141] Setting up relu5
I0403 13:56:40.444597 28890 net.cpp:148] Top shape: 100 256 13 13 (4326400)
I0403 13:56:40.444613 28890 net.cpp:156] Memory required for data: 818009200
I0403 13:56:40.444630 28890 layer_factory.hpp:77] Creating layer pool5
I0403 13:56:40.444655 28890 net.cpp:91] Creating Layer pool5
I0403 13:56:40.444705 28890 net.cpp:425] pool5 <- conv5
I0403 13:56:40.444735 28890 net.cpp:399] pool5 -> pool5
I0403 13:56:40.444798 28890 net.cpp:141] Setting up pool5
I0403 13:56:40.444824 28890 net.cpp:148] Top shape: 100 256 6 6 (921600)
I0403 13:56:40.444840 28890 net.cpp:156] Memory required for data: 821695600
I0403 13:56:40.444856 28890 layer_factory.hpp:77] Creating layer fc6
I0403 13:56:40.444886 28890 net.cpp:91] Creating Layer fc6
I0403 13:56:40.444906 28890 net.cpp:425] fc6 <- pool5
I0403 13:56:40.444927 28890 net.cpp:399] fc6 -> fc6
I0403 13:56:42.048123 28890 net.cpp:141] Setting up fc6
I0403 13:56:42.048198 28890 net.cpp:148] Top shape: 100 4096 (409600)
I0403 13:56:42.048215 28890 net.cpp:156] Memory required for data: 823334000
I0403 13:56:42.048238 28890 layer_factory.hpp:77] Creating layer relu6
I0403 13:56:42.048269 28890 net.cpp:91] Creating Layer relu6
I0403 13:56:42.048290 28890 net.cpp:425] relu6 <- fc6
I0403 13:56:42.048310 28890 net.cpp:386] relu6 -> fc6 (in-place)
I0403 13:56:42.048530 28890 net.cpp:141] Setting up relu6
I0403 13:56:42.048557 28890 net.cpp:148] Top shape: 100 4096 (409600)
I0403 13:56:42.048573 28890 net.cpp:156] Memory required for data: 824972400
I0403 13:56:42.048588 28890 layer_factory.hpp:77] Creating layer drop6
I0403 13:56:42.048609 28890 net.cpp:91] Creating Layer drop6
I0403 13:56:42.048627 28890 net.cpp:425] drop6 <- fc6
I0403 13:56:42.048646 28890 net.cpp:386] drop6 -> fc6 (in-place)
I0403 13:56:42.048702 28890 net.cpp:141] Setting up drop6
I0403 13:56:42.048727 28890 net.cpp:148] Top shape: 100 4096 (409600)
I0403 13:56:42.048741 28890 net.cpp:156] Memory required for data: 826610800
I0403 13:56:42.048758 28890 layer_factory.hpp:77] Creating layer fc7
I0403 13:56:42.048777 28890 net.cpp:91] Creating Layer fc7
I0403 13:56:42.048794 28890 net.cpp:425] fc7 <- fc6
I0403 13:56:42.048818 28890 net.cpp:399] fc7 -> fc7
I0403 13:56:42.737536 28890 net.cpp:141] Setting up fc7
I0403 13:56:42.737604 28890 net.cpp:148] Top shape: 100 4096 (409600)
I0403 13:56:42.737623 28890 net.cpp:156] Memory required for data: 828249200
I0403 13:56:42.737646 28890 layer_factory.hpp:77] Creating layer relu7
I0403 13:56:42.737669 28890 net.cpp:91] Creating Layer relu7
I0403 13:56:42.737689 28890 net.cpp:425] relu7 <- fc7
I0403 13:56:42.737709 28890 net.cpp:386] relu7 -> fc7 (in-place)
I0403 13:56:42.738113 28890 net.cpp:141] Setting up relu7
I0403 13:56:42.738142 28890 net.cpp:148] Top shape: 100 4096 (409600)
I0403 13:56:42.738189 28890 net.cpp:156] Memory required for data: 829887600
I0403 13:56:42.738206 28890 layer_factory.hpp:77] Creating layer drop7
I0403 13:56:42.738229 28890 net.cpp:91] Creating Layer drop7
I0403 13:56:42.738247 28890 net.cpp:425] drop7 <- fc7
I0403 13:56:42.738273 28890 net.cpp:386] drop7 -> fc7 (in-place)
I0403 13:56:42.738320 28890 net.cpp:141] Setting up drop7
I0403 13:56:42.738344 28890 net.cpp:148] Top shape: 100 4096 (409600)
I0403 13:56:42.738359 28890 net.cpp:156] Memory required for data: 831526000
I0403 13:56:42.738374 28890 layer_factory.hpp:77] Creating layer fc8_plantvillage
I0403 13:56:42.738396 28890 net.cpp:91] Creating Layer fc8_plantvillage
I0403 13:56:42.738415 28890 net.cpp:425] fc8_plantvillage <- fc7
I0403 13:56:42.738435 28890 net.cpp:399] fc8_plantvillage -> fc8_plantvillage
I0403 13:56:42.745129 28890 net.cpp:141] Setting up fc8_plantvillage
I0403 13:56:42.745159 28890 net.cpp:148] Top shape: 100 38 (3800)
I0403 13:56:42.745175 28890 net.cpp:156] Memory required for data: 831541200
I0403 13:56:42.745195 28890 layer_factory.hpp:77] Creating layer fc8_plantvillage_fc8_plantvillage_0_split
I0403 13:56:42.745218 28890 net.cpp:91] Creating Layer fc8_plantvillage_fc8_plantvillage_0_split
I0403 13:56:42.745236 28890 net.cpp:425] fc8_plantvillage_fc8_plantvillage_0_split <- fc8_plantvillage
I0403 13:56:42.745260 28890 net.cpp:399] fc8_plantvillage_fc8_plantvillage_0_split -> fc8_plantvillage_fc8_plantvillage_0_split_0
I0403 13:56:42.745286 28890 net.cpp:399] fc8_plantvillage_fc8_plantvillage_0_split -> fc8_plantvillage_fc8_plantvillage_0_split_1
I0403 13:56:42.745309 28890 net.cpp:399] fc8_plantvillage_fc8_plantvillage_0_split -> fc8_plantvillage_fc8_plantvillage_0_split_2
I0403 13:56:42.745388 28890 net.cpp:141] Setting up fc8_plantvillage_fc8_plantvillage_0_split
I0403 13:56:42.745414 28890 net.cpp:148] Top shape: 100 38 (3800)
I0403 13:56:42.745431 28890 net.cpp:148] Top shape: 100 38 (3800)
I0403 13:56:42.745446 28890 net.cpp:148] Top shape: 100 38 (3800)
I0403 13:56:42.745461 28890 net.cpp:156] Memory required for data: 831586800
I0403 13:56:42.745477 28890 layer_factory.hpp:77] Creating layer prob
I0403 13:56:42.745498 28890 net.cpp:91] Creating Layer prob
I0403 13:56:42.745517 28890 net.cpp:425] prob <- fc8_plantvillage_fc8_plantvillage_0_split_0
I0403 13:56:42.745535 28890 net.cpp:399] prob -> prob
I0403 13:56:42.745759 28890 net.cpp:141] Setting up prob
I0403 13:56:42.745786 28890 net.cpp:148] Top shape: 100 38 (3800)
I0403 13:56:42.745802 28890 net.cpp:156] Memory required for data: 831602000
I0403 13:56:42.745818 28890 layer_factory.hpp:77] Creating layer hdf5out
I0403 13:56:42.745841 28890 net.cpp:91] Creating Layer hdf5out
I0403 13:56:42.745860 28890 net.cpp:425] hdf5out <- prob
I0403 13:56:42.745879 28890 net.cpp:425] hdf5out <- label_data_1_split_0
I0403 13:56:42.749261 28890 net.cpp:141] Setting up hdf5out
…
