…
I0403 13:46:27.210345 28654 net.cpp:313] The NetState phase (1) differed from the phase (0) specified by a rule in layer data
I0403 13:46:27.210670 28654 net.cpp:49] Initializing net from parameters: 
state {
  phase: TEST
}
layer {
  name: "data"
  type: "Data"
  top: "data"
  top: "label"
  include {
    phase: TEST
  }
  transform_param {
    crop_size: 227
    mean_file: "/home/mohanty/data/final_dataset/lmdb/color-40-60/mean.binaryproto"
  }
  data_param {
    source: "/home/mohanty/data/final_dataset/lmdb/color-40-60/test_db"
    batch_size: 100
    backend: LMDB
  }
}
layer {
  name: "conv1"
  type: "Convolution"
  bottom: "data"
  top: "conv1"
  param {
    lr_mult: 1
    decay_mult: 1
  }
  param {
    lr_mult: 2
    decay_mult: 0
  }
  convolution_param {
    num_output: 96
    kernel_size: 11
    stride: 4
    weight_filler {
      type: "gaussian"
      std: 0.01
    }
    bias_filler {
      type: "constant"
      value: 0
    }
  }
}
layer {
  name: "relu1"
  type: "ReLU"
  bottom: "conv1"
  top: "conv1"
}
layer {
  name: "norm1"
  type: "LRN"
  bottom: "conv1"
  top: "norm1"
  lrn_param {
    local_size: 5
    alpha: 0.0001
    beta: 0.75
  }
}
layer {
  name: "pool1"
  type: "Pooling"
  bottom: "norm1"
  top: "pool1"
  pooling_param {
    pool: MAX
    kernel_size: 3
    stride: 2
  }
}
layer {
  name: "conv2"
  type: "Convolution"
  bottom: "pool1"
  top: "conv2"
  param {
    lr_mult: 1
    decay_mult: 1
  }
  param {
    lr_mult: 2
    decay_mult: 0
  }
  convolution_param {
    num_output: 256
    pad: 2
    kernel_size: 5
    group: 2
    weight_filler {
      type: "gaussian"
      std: 0.01
    }
    bias_filler {
      type: "constant"
      value: 0.1
    }
  }
}
layer {
  name: "relu2"
  type: "ReLU"
  bottom: "conv2"
  top: "conv2"
}
layer {
  name: "norm2"
  type: "LRN"
  bottom: "conv2"
  top: "norm2"
  lrn_param {
    local_size: 5
    alpha: 0.0001
    beta: 0.75
  }
}
layer {
  name: "pool2"
  type: "Pooling"
  bottom: "norm2"
  top: "pool2"
  pooling_param {
    pool: MAX
    kernel_size: 3
    stride: 2
  }
}
layer {
  name: "conv3"
  type: "Convolution"
  bottom: "pool2"
  top: "conv3"
  param {
    lr_mult: 1
    decay_mult: 1
  }
  param {
    lr_mult: 2
    decay_mult: 0
  }
  convolution_param {
    num_output: 384
    pad: 1
    kernel_size: 3
    weight_filler {
      type: "gaussian"
      std: 0.01
    }
    bias_filler {
      type: "constant"
      value: 0
    }
  }
}
layer {
  name: "relu3"
  type: "ReLU"
  bottom: "conv3"
  top: "conv3"
}
layer {
  name: "conv4"
  type: "Convolution"
  bottom: "conv3"
  top: "conv4"
  param {
    lr_mult: 1
    decay_mult: 1
  }
  param {
    lr_mult: 2
    decay_mult: 0
  }
  convolution_param {
    num_output: 384
    pad: 1
    kernel_size: 3
    group: 2
    weight_filler {
      type: "gaussian"
      std: 0.01
    }
    bias_filler {
      type: "constant"
      value: 0.1
    }
  }
}
layer {
  name: "relu4"
  type: "ReLU"
  bottom: "conv4"
  top: "conv4"
}
layer {
  name: "conv5"
  type: "Convolution"
  bottom: "conv4"
  top: "conv5"
  param {
    lr_mult: 1
    decay_mult: 1
  }
  param {
    lr_mult: 2
    decay_mult: 0
  }
  convolution_param {
    num_output: 256
    pad: 1
    kernel_size: 3
    group: 2
    weight_filler {
      type: "gaussian"
      std: 0.01
    }
    bias_filler {
      type: "constant"
      value: 0.1
    }
  }
}
layer {
  name: "relu5"
  type: "ReLU"
  bottom: "conv5"
  top: "conv5"
}
layer {
  name: "pool5"
  type: "Pooling"
  bottom: "conv5"
  top: "pool5"
  pooling_param {
    pool: MAX
    kernel_size: 3
    stride: 2
  }
}
layer {
  name: "fc6"
  type: "InnerProduct"
  bottom: "pool5"
  top: "fc6"
  param {
    lr_mult: 1
    decay_mult: 1
  }
  param {
    lr_mult: 2
    decay_mult: 0
  }
  inner_product_param {
    num_output: 4096
    weight_filler {
      type: "gaussian"
      std: 0.005
    }
    bias_filler {
      type: "constant"
      value: 0.1
    }
  }
}
layer {
  name: "relu6"
  type: "ReLU"
  bottom: "fc6"
  top: "fc6"
}
layer {
  name: "drop6"
  type: "Dropout"
  bottom: "fc6"
  top: "fc6"
  dropout_param {
    dropout_ratio: 0.5
  }
}
layer {
  name: "fc7"
  type: "InnerProduct"
  bottom: "fc6"
  top: "fc7"
  param {
    lr_mult: 1
    decay_mult: 1
  }
  param {
    lr_mult: 2
    decay_mult: 0
  }
  inner_product_param {
    num_output: 4096
    weight_filler {
      type: "gaussian"
      std: 0.005
    }
    bias_filler {
      type: "constant"
      value: 0.1
    }
  }
}
layer {
  name: "relu7"
  type: "ReLU"
  bottom: "fc7"
  top: "fc7"
}
layer {
  name: "drop7"
  type: "Dropout"
  bottom: "fc7"
  top: "fc7"
  dropout_param {
    dropout_ratio: 0.5
  }
}
layer {
  name: "fc8_plantvillage"
  type: "InnerProduct"
  bottom: "fc7"
  top: "fc8_plantvillage"
  param {
    lr_mult: 1
    decay_mult: 1
  }
  param {
    lr_mult: 2
    decay_mult: 0
  }
  inner_product_param {
    num_output: 38
    weight_filler {
      type: "gaussian"
      std: 0.01
    }
    bias_filler {
      type: "constant"
      value: 0
    }
  }
}
layer {
  name: "prob"
  type: "Softmax"
  bottom: "fc8_plantvillage"
  top: "prob"
  include {
    phase: TEST
  }
}
layer {
  name: "hdf5out"
  type: "HDF5Output"
  bottom: "prob"
  bottom: "label"
  include {
    phase: TEST
  }
  hdf5_output_param {
    file_name: "hdf5_dumps/iter_3472.h5"
  }
}
layer {
  name: "loss"
  type: "SoftmaxWithLoss"
  bottom: "fc8_plantvillage"
  bottom: "label"
  top: "loss"
}
layer {
  name: "accuracy"
  type: "Accuracy"
  bottom: "fc8_plantvillage"
  bottom: "label"
  top: "accuracy"
  include {
    phase: TEST
  }
}
I0403 13:46:27.211236 28654 layer_factory.hpp:77] Creating layer data
I0403 13:46:27.211892 28654 net.cpp:91] Creating Layer data
I0403 13:46:27.211925 28654 net.cpp:399] data -> data
I0403 13:46:27.211979 28654 net.cpp:399] data -> label
I0403 13:46:27.212020 28654 data_transformer.cpp:25] Loading mean file from: /home/mohanty/data/final_dataset/lmdb/color-40-60/mean.binaryproto
I0403 13:46:27.214617 28658 db_lmdb.cpp:38] Opened lmdb /home/mohanty/data/final_dataset/lmdb/color-40-60/test_db
I0403 13:46:27.226600 28654 data_layer.cpp:41] output data size: 100,3,227,227
I0403 13:46:27.362529 28654 net.cpp:141] Setting up data
I0403 13:46:27.362624 28654 net.cpp:148] Top shape: 100 3 227 227 (15458700)
I0403 13:46:27.362648 28654 net.cpp:148] Top shape: 100 (100)
I0403 13:46:27.362664 28654 net.cpp:156] Memory required for data: 61835200
I0403 13:46:27.362695 28654 layer_factory.hpp:77] Creating layer label_data_1_split
I0403 13:46:27.362722 28654 net.cpp:91] Creating Layer label_data_1_split
I0403 13:46:27.362740 28654 net.cpp:425] label_data_1_split <- label
I0403 13:46:27.362773 28654 net.cpp:399] label_data_1_split -> label_data_1_split_0
I0403 13:46:27.362802 28654 net.cpp:399] label_data_1_split -> label_data_1_split_1
I0403 13:46:27.362824 28654 net.cpp:399] label_data_1_split -> label_data_1_split_2
I0403 13:46:27.362891 28654 net.cpp:141] Setting up label_data_1_split
I0403 13:46:27.362916 28654 net.cpp:148] Top shape: 100 (100)
I0403 13:46:27.362933 28654 net.cpp:148] Top shape: 100 (100)
I0403 13:46:27.362951 28654 net.cpp:148] Top shape: 100 (100)
I0403 13:46:27.362965 28654 net.cpp:156] Memory required for data: 61836400
I0403 13:46:27.362980 28654 layer_factory.hpp:77] Creating layer conv1
I0403 13:46:27.363013 28654 net.cpp:91] Creating Layer conv1
I0403 13:46:27.363032 28654 net.cpp:425] conv1 <- data
I0403 13:46:27.363054 28654 net.cpp:399] conv1 -> conv1
I0403 13:46:27.510445 28654 net.cpp:141] Setting up conv1
I0403 13:46:27.510524 28654 net.cpp:148] Top shape: 100 96 55 55 (29040000)
I0403 13:46:27.510542 28654 net.cpp:156] Memory required for data: 177996400
I0403 13:46:27.510576 28654 layer_factory.hpp:77] Creating layer relu1
I0403 13:46:27.510606 28654 net.cpp:91] Creating Layer relu1
I0403 13:46:27.510625 28654 net.cpp:425] relu1 <- conv1
I0403 13:46:27.510646 28654 net.cpp:386] relu1 -> conv1 (in-place)
I0403 13:46:27.511018 28654 net.cpp:141] Setting up relu1
I0403 13:46:27.511049 28654 net.cpp:148] Top shape: 100 96 55 55 (29040000)
I0403 13:46:27.511065 28654 net.cpp:156] Memory required for data: 294156400
I0403 13:46:27.511114 28654 layer_factory.hpp:77] Creating layer norm1
I0403 13:46:27.511145 28654 net.cpp:91] Creating Layer norm1
I0403 13:46:27.511164 28654 net.cpp:425] norm1 <- conv1
I0403 13:46:27.511184 28654 net.cpp:399] norm1 -> norm1
I0403 13:46:27.511503 28654 net.cpp:141] Setting up norm1
I0403 13:46:27.511533 28654 net.cpp:148] Top shape: 100 96 55 55 (29040000)
I0403 13:46:27.511550 28654 net.cpp:156] Memory required for data: 410316400
I0403 13:46:27.511567 28654 layer_factory.hpp:77] Creating layer pool1
I0403 13:46:27.511592 28654 net.cpp:91] Creating Layer pool1
I0403 13:46:27.511611 28654 net.cpp:425] pool1 <- norm1
I0403 13:46:27.511631 28654 net.cpp:399] pool1 -> pool1
I0403 13:46:27.511699 28654 net.cpp:141] Setting up pool1
I0403 13:46:27.511725 28654 net.cpp:148] Top shape: 100 96 27 27 (6998400)
I0403 13:46:27.511741 28654 net.cpp:156] Memory required for data: 438310000
I0403 13:46:27.511757 28654 layer_factory.hpp:77] Creating layer conv2
I0403 13:46:27.511783 28654 net.cpp:91] Creating Layer conv2
I0403 13:46:27.511801 28654 net.cpp:425] conv2 <- pool1
I0403 13:46:27.511821 28654 net.cpp:399] conv2 -> conv2
I0403 13:46:27.527473 28654 net.cpp:141] Setting up conv2
I0403 13:46:27.527524 28654 net.cpp:148] Top shape: 100 256 27 27 (18662400)
I0403 13:46:27.527544 28654 net.cpp:156] Memory required for data: 512959600
I0403 13:46:27.527568 28654 layer_factory.hpp:77] Creating layer relu2
I0403 13:46:27.527590 28654 net.cpp:91] Creating Layer relu2
I0403 13:46:27.527609 28654 net.cpp:425] relu2 <- conv2
I0403 13:46:27.527629 28654 net.cpp:386] relu2 -> conv2 (in-place)
I0403 13:46:27.527974 28654 net.cpp:141] Setting up relu2
I0403 13:46:27.528005 28654 net.cpp:148] Top shape: 100 256 27 27 (18662400)
I0403 13:46:27.528023 28654 net.cpp:156] Memory required for data: 587609200
I0403 13:46:27.528040 28654 layer_factory.hpp:77] Creating layer norm2
I0403 13:46:27.528064 28654 net.cpp:91] Creating Layer norm2
I0403 13:46:27.528084 28654 net.cpp:425] norm2 <- conv2
I0403 13:46:27.528105 28654 net.cpp:399] norm2 -> norm2
I0403 13:46:27.528316 28654 net.cpp:141] Setting up norm2
I0403 13:46:27.528344 28654 net.cpp:148] Top shape: 100 256 27 27 (18662400)
I0403 13:46:27.528360 28654 net.cpp:156] Memory required for data: 662258800
I0403 13:46:27.528375 28654 layer_factory.hpp:77] Creating layer pool2
I0403 13:46:27.528398 28654 net.cpp:91] Creating Layer pool2
I0403 13:46:27.528415 28654 net.cpp:425] pool2 <- norm2
I0403 13:46:27.528439 28654 net.cpp:399] pool2 -> pool2
I0403 13:46:27.528492 28654 net.cpp:141] Setting up pool2
I0403 13:46:27.528519 28654 net.cpp:148] Top shape: 100 256 13 13 (4326400)
I0403 13:46:27.528535 28654 net.cpp:156] Memory required for data: 679564400
I0403 13:46:27.528551 28654 layer_factory.hpp:77] Creating layer conv3
I0403 13:46:27.528576 28654 net.cpp:91] Creating Layer conv3
I0403 13:46:27.528596 28654 net.cpp:425] conv3 <- pool2
I0403 13:46:27.528619 28654 net.cpp:399] conv3 -> conv3
I0403 13:46:27.568910 28654 net.cpp:141] Setting up conv3
I0403 13:46:27.568989 28654 net.cpp:148] Top shape: 100 384 13 13 (6489600)
I0403 13:46:27.569010 28654 net.cpp:156] Memory required for data: 705522800
I0403 13:46:27.569036 28654 layer_factory.hpp:77] Creating layer relu3
I0403 13:46:27.569059 28654 net.cpp:91] Creating Layer relu3
I0403 13:46:27.569078 28654 net.cpp:425] relu3 <- conv3
I0403 13:46:27.569098 28654 net.cpp:386] relu3 -> conv3 (in-place)
I0403 13:46:27.569422 28654 net.cpp:141] Setting up relu3
I0403 13:46:27.569454 28654 net.cpp:148] Top shape: 100 384 13 13 (6489600)
I0403 13:46:27.569474 28654 net.cpp:156] Memory required for data: 731481200
I0403 13:46:27.569492 28654 layer_factory.hpp:77] Creating layer conv4
I0403 13:46:27.569519 28654 net.cpp:91] Creating Layer conv4
I0403 13:46:27.569540 28654 net.cpp:425] conv4 <- conv3
I0403 13:46:27.569561 28654 net.cpp:399] conv4 -> conv4
I0403 13:46:27.600777 28654 net.cpp:141] Setting up conv4
I0403 13:46:27.600842 28654 net.cpp:148] Top shape: 100 384 13 13 (6489600)
I0403 13:46:27.600893 28654 net.cpp:156] Memory required for data: 757439600
I0403 13:46:27.600917 28654 layer_factory.hpp:77] Creating layer relu4
I0403 13:46:27.600941 28654 net.cpp:91] Creating Layer relu4
I0403 13:46:27.600961 28654 net.cpp:425] relu4 <- conv4
I0403 13:46:27.600981 28654 net.cpp:386] relu4 -> conv4 (in-place)
I0403 13:46:27.601269 28654 net.cpp:141] Setting up relu4
I0403 13:46:27.601301 28654 net.cpp:148] Top shape: 100 384 13 13 (6489600)
I0403 13:46:27.601320 28654 net.cpp:156] Memory required for data: 783398000
I0403 13:46:27.601336 28654 layer_factory.hpp:77] Creating layer conv5
I0403 13:46:27.601363 28654 net.cpp:91] Creating Layer conv5
I0403 13:46:27.601383 28654 net.cpp:425] conv5 <- conv4
I0403 13:46:27.601405 28654 net.cpp:399] conv5 -> conv5
I0403 13:46:27.623034 28654 net.cpp:141] Setting up conv5
I0403 13:46:27.623073 28654 net.cpp:148] Top shape: 100 256 13 13 (4326400)
I0403 13:46:27.623090 28654 net.cpp:156] Memory required for data: 800703600
I0403 13:46:27.623116 28654 layer_factory.hpp:77] Creating layer relu5
I0403 13:46:27.623142 28654 net.cpp:91] Creating Layer relu5
I0403 13:46:27.623162 28654 net.cpp:425] relu5 <- conv5
I0403 13:46:27.623183 28654 net.cpp:386] relu5 -> conv5 (in-place)
I0403 13:46:27.623481 28654 net.cpp:141] Setting up relu5
I0403 13:46:27.623514 28654 net.cpp:148] Top shape: 100 256 13 13 (4326400)
I0403 13:46:27.623531 28654 net.cpp:156] Memory required for data: 818009200
I0403 13:46:27.623548 28654 layer_factory.hpp:77] Creating layer pool5
I0403 13:46:27.623572 28654 net.cpp:91] Creating Layer pool5
I0403 13:46:27.623589 28654 net.cpp:425] pool5 <- conv5
I0403 13:46:27.623611 28654 net.cpp:399] pool5 -> pool5
I0403 13:46:27.623673 28654 net.cpp:141] Setting up pool5
I0403 13:46:27.623700 28654 net.cpp:148] Top shape: 100 256 6 6 (921600)
I0403 13:46:27.623718 28654 net.cpp:156] Memory required for data: 821695600
I0403 13:46:27.623734 28654 layer_factory.hpp:77] Creating layer fc6
I0403 13:46:27.623764 28654 net.cpp:91] Creating Layer fc6
I0403 13:46:27.623782 28654 net.cpp:425] fc6 <- pool5
I0403 13:46:27.623805 28654 net.cpp:399] fc6 -> fc6
I0403 13:46:29.209861 28654 net.cpp:141] Setting up fc6
I0403 13:46:29.209939 28654 net.cpp:148] Top shape: 100 4096 (409600)
I0403 13:46:29.209957 28654 net.cpp:156] Memory required for data: 823334000
I0403 13:46:29.209980 28654 layer_factory.hpp:77] Creating layer relu6
I0403 13:46:29.210008 28654 net.cpp:91] Creating Layer relu6
I0403 13:46:29.210029 28654 net.cpp:425] relu6 <- fc6
I0403 13:46:29.210052 28654 net.cpp:386] relu6 -> fc6 (in-place)
I0403 13:46:29.210294 28654 net.cpp:141] Setting up relu6
I0403 13:46:29.210333 28654 net.cpp:148] Top shape: 100 4096 (409600)
I0403 13:46:29.210350 28654 net.cpp:156] Memory required for data: 824972400
I0403 13:46:29.210367 28654 layer_factory.hpp:77] Creating layer drop6
I0403 13:46:29.210387 28654 net.cpp:91] Creating Layer drop6
I0403 13:46:29.210403 28654 net.cpp:425] drop6 <- fc6
I0403 13:46:29.210420 28654 net.cpp:386] drop6 -> fc6 (in-place)
I0403 13:46:29.210476 28654 net.cpp:141] Setting up drop6
I0403 13:46:29.210502 28654 net.cpp:148] Top shape: 100 4096 (409600)
I0403 13:46:29.210517 28654 net.cpp:156] Memory required for data: 826610800
I0403 13:46:29.210533 28654 layer_factory.hpp:77] Creating layer fc7
I0403 13:46:29.210557 28654 net.cpp:91] Creating Layer fc7
I0403 13:46:29.210578 28654 net.cpp:425] fc7 <- fc6
I0403 13:46:29.210599 28654 net.cpp:399] fc7 -> fc7
I0403 13:46:29.907539 28654 net.cpp:141] Setting up fc7
I0403 13:46:29.907616 28654 net.cpp:148] Top shape: 100 4096 (409600)
I0403 13:46:29.907632 28654 net.cpp:156] Memory required for data: 828249200
I0403 13:46:29.907654 28654 layer_factory.hpp:77] Creating layer relu7
I0403 13:46:29.907676 28654 net.cpp:91] Creating Layer relu7
I0403 13:46:29.907694 28654 net.cpp:425] relu7 <- fc7
I0403 13:46:29.907714 28654 net.cpp:386] relu7 -> fc7 (in-place)
I0403 13:46:29.908105 28654 net.cpp:141] Setting up relu7
I0403 13:46:29.908135 28654 net.cpp:148] Top shape: 100 4096 (409600)
I0403 13:46:29.908184 28654 net.cpp:156] Memory required for data: 829887600
I0403 13:46:29.908200 28654 layer_factory.hpp:77] Creating layer drop7
I0403 13:46:29.908221 28654 net.cpp:91] Creating Layer drop7
I0403 13:46:29.908237 28654 net.cpp:425] drop7 <- fc7
I0403 13:46:29.908254 28654 net.cpp:386] drop7 -> fc7 (in-place)
I0403 13:46:29.908308 28654 net.cpp:141] Setting up drop7
I0403 13:46:29.908334 28654 net.cpp:148] Top shape: 100 4096 (409600)
I0403 13:46:29.908349 28654 net.cpp:156] Memory required for data: 831526000
I0403 13:46:29.908365 28654 layer_factory.hpp:77] Creating layer fc8_plantvillage
I0403 13:46:29.908386 28654 net.cpp:91] Creating Layer fc8_plantvillage
I0403 13:46:29.908404 28654 net.cpp:425] fc8_plantvillage <- fc7
I0403 13:46:29.908424 28654 net.cpp:399] fc8_plantvillage -> fc8_plantvillage
I0403 13:46:29.915144 28654 net.cpp:141] Setting up fc8_plantvillage
I0403 13:46:29.915174 28654 net.cpp:148] Top shape: 100 38 (3800)
I0403 13:46:29.915190 28654 net.cpp:156] Memory required for data: 831541200
I0403 13:46:29.915210 28654 layer_factory.hpp:77] Creating layer fc8_plantvillage_fc8_plantvillage_0_split
I0403 13:46:29.915228 28654 net.cpp:91] Creating Layer fc8_plantvillage_fc8_plantvillage_0_split
I0403 13:46:29.915244 28654 net.cpp:425] fc8_plantvillage_fc8_plantvillage_0_split <- fc8_plantvillage
I0403 13:46:29.915264 28654 net.cpp:399] fc8_plantvillage_fc8_plantvillage_0_split -> fc8_plantvillage_fc8_plantvillage_0_split_0
I0403 13:46:29.915292 28654 net.cpp:399] fc8_plantvillage_fc8_plantvillage_0_split -> fc8_plantvillage_fc8_plantvillage_0_split_1
I0403 13:46:29.915315 28654 net.cpp:399] fc8_plantvillage_fc8_plantvillage_0_split -> fc8_plantvillage_fc8_plantvillage_0_split_2
I0403 13:46:29.915392 28654 net.cpp:141] Setting up fc8_plantvillage_fc8_plantvillage_0_split
I0403 13:46:29.915417 28654 net.cpp:148] Top shape: 100 38 (3800)
I0403 13:46:29.915434 28654 net.cpp:148] Top shape: 100 38 (3800)
I0403 13:46:29.915452 28654 net.cpp:148] Top shape: 100 38 (3800)
I0403 13:46:29.915464 28654 net.cpp:156] Memory required for data: 831586800
I0403 13:46:29.915479 28654 layer_factory.hpp:77] Creating layer prob
I0403 13:46:29.915500 28654 net.cpp:91] Creating Layer prob
I0403 13:46:29.915518 28654 net.cpp:425] prob <- fc8_plantvillage_fc8_plantvillage_0_split_0
I0403 13:46:29.915536 28654 net.cpp:399] prob -> prob
I0403 13:46:29.915757 28654 net.cpp:141] Setting up prob
I0403 13:46:29.915786 28654 net.cpp:148] Top shape: 100 38 (3800)
I0403 13:46:29.915802 28654 net.cpp:156] Memory required for data: 831602000
I0403 13:46:29.915818 28654 layer_factory.hpp:77] Creating layer hdf5out
I0403 13:46:29.915838 28654 net.cpp:91] Creating Layer hdf5out
I0403 13:46:29.915855 28654 net.cpp:425] hdf5out <- prob
I0403 13:46:29.915873 28654 net.cpp:425] hdf5out <- label_data_1_split_0
I0403 13:46:29.920043 28654 net.cpp:141] Setting up hdf5out
…
