…
I0403 13:58:56.607926 28941 net.cpp:313] The NetState phase (1) differed from the phase (0) specified by a rule in layer data
I0403 13:58:56.608234 28941 net.cpp:49] Initializing net from parameters: 
state {
  phase: TEST
}
layer {
  name: "data"
  type: "Data"
  top: "data"
  top: "label"
  include {
    phase: TEST
  }
  transform_param {
    crop_size: 227
    mean_file: "/home/mohanty/data/final_dataset/lmdb/color-40-60/mean.binaryproto"
  }
  data_param {
    source: "/home/mohanty/data/final_dataset/lmdb/color-40-60/test_db"
    batch_size: 100
    backend: LMDB
  }
}
layer {
  name: "conv1"
  type: "Convolution"
  bottom: "data"
  top: "conv1"
  param {
    lr_mult: 1
    decay_mult: 1
  }
  param {
    lr_mult: 2
    decay_mult: 0
  }
  convolution_param {
    num_output: 96
    kernel_size: 11
    stride: 4
    weight_filler {
      type: "gaussian"
      std: 0.01
    }
    bias_filler {
      type: "constant"
      value: 0
    }
  }
}
layer {
  name: "relu1"
  type: "ReLU"
  bottom: "conv1"
  top: "conv1"
}
layer {
  name: "norm1"
  type: "LRN"
  bottom: "conv1"
  top: "norm1"
  lrn_param {
    local_size: 5
    alpha: 0.0001
    beta: 0.75
  }
}
layer {
  name: "pool1"
  type: "Pooling"
  bottom: "norm1"
  top: "pool1"
  pooling_param {
    pool: MAX
    kernel_size: 3
    stride: 2
  }
}
layer {
  name: "conv2"
  type: "Convolution"
  bottom: "pool1"
  top: "conv2"
  param {
    lr_mult: 1
    decay_mult: 1
  }
  param {
    lr_mult: 2
    decay_mult: 0
  }
  convolution_param {
    num_output: 256
    pad: 2
    kernel_size: 5
    group: 2
    weight_filler {
      type: "gaussian"
      std: 0.01
    }
    bias_filler {
      type: "constant"
      value: 0.1
    }
  }
}
layer {
  name: "relu2"
  type: "ReLU"
  bottom: "conv2"
  top: "conv2"
}
layer {
  name: "norm2"
  type: "LRN"
  bottom: "conv2"
  top: "norm2"
  lrn_param {
    local_size: 5
    alpha: 0.0001
    beta: 0.75
  }
}
layer {
  name: "pool2"
  type: "Pooling"
  bottom: "norm2"
  top: "pool2"
  pooling_param {
    pool: MAX
    kernel_size: 3
    stride: 2
  }
}
layer {
  name: "conv3"
  type: "Convolution"
  bottom: "pool2"
  top: "conv3"
  param {
    lr_mult: 1
    decay_mult: 1
  }
  param {
    lr_mult: 2
    decay_mult: 0
  }
  convolution_param {
    num_output: 384
    pad: 1
    kernel_size: 3
    weight_filler {
      type: "gaussian"
      std: 0.01
    }
    bias_filler {
      type: "constant"
      value: 0
    }
  }
}
layer {
  name: "relu3"
  type: "ReLU"
  bottom: "conv3"
  top: "conv3"
}
layer {
  name: "conv4"
  type: "Convolution"
  bottom: "conv3"
  top: "conv4"
  param {
    lr_mult: 1
    decay_mult: 1
  }
  param {
    lr_mult: 2
    decay_mult: 0
  }
  convolution_param {
    num_output: 384
    pad: 1
    kernel_size: 3
    group: 2
    weight_filler {
      type: "gaussian"
      std: 0.01
    }
    bias_filler {
      type: "constant"
      value: 0.1
    }
  }
}
layer {
  name: "relu4"
  type: "ReLU"
  bottom: "conv4"
  top: "conv4"
}
layer {
  name: "conv5"
  type: "Convolution"
  bottom: "conv4"
  top: "conv5"
  param {
    lr_mult: 1
    decay_mult: 1
  }
  param {
    lr_mult: 2
    decay_mult: 0
  }
  convolution_param {
    num_output: 256
    pad: 1
    kernel_size: 3
    group: 2
    weight_filler {
      type: "gaussian"
      std: 0.01
    }
    bias_filler {
      type: "constant"
      value: 0.1
    }
  }
}
layer {
  name: "relu5"
  type: "ReLU"
  bottom: "conv5"
  top: "conv5"
}
layer {
  name: "pool5"
  type: "Pooling"
  bottom: "conv5"
  top: "pool5"
  pooling_param {
    pool: MAX
    kernel_size: 3
    stride: 2
  }
}
layer {
  name: "fc6"
  type: "InnerProduct"
  bottom: "pool5"
  top: "fc6"
  param {
    lr_mult: 1
    decay_mult: 1
  }
  param {
    lr_mult: 2
    decay_mult: 0
  }
  inner_product_param {
    num_output: 4096
    weight_filler {
      type: "gaussian"
      std: 0.005
    }
    bias_filler {
      type: "constant"
      value: 0.1
    }
  }
}
layer {
  name: "relu6"
  type: "ReLU"
  bottom: "fc6"
  top: "fc6"
}
layer {
  name: "drop6"
  type: "Dropout"
  bottom: "fc6"
  top: "fc6"
  dropout_param {
    dropout_ratio: 0.5
  }
}
layer {
  name: "fc7"
  type: "InnerProduct"
  bottom: "fc6"
  top: "fc7"
  param {
    lr_mult: 1
    decay_mult: 1
  }
  param {
    lr_mult: 2
    decay_mult: 0
  }
  inner_product_param {
    num_output: 4096
    weight_filler {
      type: "gaussian"
      std: 0.005
    }
    bias_filler {
      type: "constant"
      value: 0.1
    }
  }
}
layer {
  name: "relu7"
  type: "ReLU"
  bottom: "fc7"
  top: "fc7"
}
layer {
  name: "drop7"
  type: "Dropout"
  bottom: "fc7"
  top: "fc7"
  dropout_param {
    dropout_ratio: 0.5
  }
}
layer {
  name: "fc8_plantvillage"
  type: "InnerProduct"
  bottom: "fc7"
  top: "fc8_plantvillage"
  param {
    lr_mult: 1
    decay_mult: 1
  }
  param {
    lr_mult: 2
    decay_mult: 0
  }
  inner_product_param {
    num_output: 38
    weight_filler {
      type: "gaussian"
      std: 0.01
    }
    bias_filler {
      type: "constant"
      value: 0
    }
  }
}
layer {
  name: "prob"
  type: "Softmax"
  bottom: "fc8_plantvillage"
  top: "prob"
  include {
    phase: TEST
  }
}
layer {
  name: "hdf5out"
  type: "HDF5Output"
  bottom: "prob"
  bottom: "label"
  include {
    phase: TEST
  }
  hdf5_output_param {
    file_name: "hdf5_dumps/iter_5859.h5"
  }
}
layer {
  name: "loss"
  type: "SoftmaxWithLoss"
  bottom: "fc8_plantvillage"
  bottom: "label"
  top: "loss"
}
layer {
  name: "accuracy"
  type: "Accuracy"
  bottom: "fc8_plantvillage"
  bottom: "label"
  top: "accuracy"
  include {
    phase: TEST
  }
}
I0403 13:58:56.608852 28941 layer_factory.hpp:77] Creating layer data
I0403 13:58:56.609519 28941 net.cpp:91] Creating Layer data
I0403 13:58:56.609554 28941 net.cpp:399] data -> data
I0403 13:58:56.609607 28941 net.cpp:399] data -> label
I0403 13:58:56.609647 28941 data_transformer.cpp:25] Loading mean file from: /home/mohanty/data/final_dataset/lmdb/color-40-60/mean.binaryproto
I0403 13:58:56.612812 28945 db_lmdb.cpp:38] Opened lmdb /home/mohanty/data/final_dataset/lmdb/color-40-60/test_db
I0403 13:58:56.623886 28941 data_layer.cpp:41] output data size: 100,3,227,227
I0403 13:58:56.758949 28941 net.cpp:141] Setting up data
I0403 13:58:56.759016 28941 net.cpp:148] Top shape: 100 3 227 227 (15458700)
I0403 13:58:56.759040 28941 net.cpp:148] Top shape: 100 (100)
I0403 13:58:56.759057 28941 net.cpp:156] Memory required for data: 61835200
I0403 13:58:56.759084 28941 layer_factory.hpp:77] Creating layer label_data_1_split
I0403 13:58:56.759111 28941 net.cpp:91] Creating Layer label_data_1_split
I0403 13:58:56.759131 28941 net.cpp:425] label_data_1_split <- label
I0403 13:58:56.759165 28941 net.cpp:399] label_data_1_split -> label_data_1_split_0
I0403 13:58:56.759192 28941 net.cpp:399] label_data_1_split -> label_data_1_split_1
I0403 13:58:56.759217 28941 net.cpp:399] label_data_1_split -> label_data_1_split_2
I0403 13:58:56.759290 28941 net.cpp:141] Setting up label_data_1_split
I0403 13:58:56.759315 28941 net.cpp:148] Top shape: 100 (100)
I0403 13:58:56.759335 28941 net.cpp:148] Top shape: 100 (100)
I0403 13:58:56.759351 28941 net.cpp:148] Top shape: 100 (100)
I0403 13:58:56.759366 28941 net.cpp:156] Memory required for data: 61836400
I0403 13:58:56.759382 28941 layer_factory.hpp:77] Creating layer conv1
I0403 13:58:56.759415 28941 net.cpp:91] Creating Layer conv1
I0403 13:58:56.759435 28941 net.cpp:425] conv1 <- data
I0403 13:58:56.759455 28941 net.cpp:399] conv1 -> conv1
I0403 13:58:56.907974 28941 net.cpp:141] Setting up conv1
I0403 13:58:56.908047 28941 net.cpp:148] Top shape: 100 96 55 55 (29040000)
I0403 13:58:56.908066 28941 net.cpp:156] Memory required for data: 177996400
I0403 13:58:56.908098 28941 layer_factory.hpp:77] Creating layer relu1
I0403 13:58:56.908133 28941 net.cpp:91] Creating Layer relu1
I0403 13:58:56.908152 28941 net.cpp:425] relu1 <- conv1
I0403 13:58:56.908172 28941 net.cpp:386] relu1 -> conv1 (in-place)
I0403 13:58:56.908437 28941 net.cpp:141] Setting up relu1
I0403 13:58:56.908466 28941 net.cpp:148] Top shape: 100 96 55 55 (29040000)
I0403 13:58:56.908483 28941 net.cpp:156] Memory required for data: 294156400
I0403 13:58:56.908530 28941 layer_factory.hpp:77] Creating layer norm1
I0403 13:58:56.908560 28941 net.cpp:91] Creating Layer norm1
I0403 13:58:56.908579 28941 net.cpp:425] norm1 <- conv1
I0403 13:58:56.908598 28941 net.cpp:399] norm1 -> norm1
I0403 13:58:56.908951 28941 net.cpp:141] Setting up norm1
I0403 13:58:56.908979 28941 net.cpp:148] Top shape: 100 96 55 55 (29040000)
I0403 13:58:56.908996 28941 net.cpp:156] Memory required for data: 410316400
I0403 13:58:56.909024 28941 layer_factory.hpp:77] Creating layer pool1
I0403 13:58:56.909047 28941 net.cpp:91] Creating Layer pool1
I0403 13:58:56.909065 28941 net.cpp:425] pool1 <- norm1
I0403 13:58:56.909096 28941 net.cpp:399] pool1 -> pool1
I0403 13:58:56.909165 28941 net.cpp:141] Setting up pool1
I0403 13:58:56.909190 28941 net.cpp:148] Top shape: 100 96 27 27 (6998400)
I0403 13:58:56.909207 28941 net.cpp:156] Memory required for data: 438310000
I0403 13:58:56.909224 28941 layer_factory.hpp:77] Creating layer conv2
I0403 13:58:56.909250 28941 net.cpp:91] Creating Layer conv2
I0403 13:58:56.909272 28941 net.cpp:425] conv2 <- pool1
I0403 13:58:56.909292 28941 net.cpp:399] conv2 -> conv2
I0403 13:58:56.924984 28941 net.cpp:141] Setting up conv2
I0403 13:58:56.925034 28941 net.cpp:148] Top shape: 100 256 27 27 (18662400)
I0403 13:58:56.925050 28941 net.cpp:156] Memory required for data: 512959600
I0403 13:58:56.925073 28941 layer_factory.hpp:77] Creating layer relu2
I0403 13:58:56.925096 28941 net.cpp:91] Creating Layer relu2
I0403 13:58:56.925112 28941 net.cpp:425] relu2 <- conv2
I0403 13:58:56.925130 28941 net.cpp:386] relu2 -> conv2 (in-place)
I0403 13:58:56.925426 28941 net.cpp:141] Setting up relu2
I0403 13:58:56.925454 28941 net.cpp:148] Top shape: 100 256 27 27 (18662400)
I0403 13:58:56.925472 28941 net.cpp:156] Memory required for data: 587609200
I0403 13:58:56.925488 28941 layer_factory.hpp:77] Creating layer norm2
I0403 13:58:56.925510 28941 net.cpp:91] Creating Layer norm2
I0403 13:58:56.925529 28941 net.cpp:425] norm2 <- conv2
I0403 13:58:56.925547 28941 net.cpp:399] norm2 -> norm2
I0403 13:58:56.925751 28941 net.cpp:141] Setting up norm2
I0403 13:58:56.925778 28941 net.cpp:148] Top shape: 100 256 27 27 (18662400)
I0403 13:58:56.925794 28941 net.cpp:156] Memory required for data: 662258800
I0403 13:58:56.925812 28941 layer_factory.hpp:77] Creating layer pool2
I0403 13:58:56.925866 28941 net.cpp:91] Creating Layer pool2
I0403 13:58:56.925884 28941 net.cpp:425] pool2 <- norm2
I0403 13:58:56.925904 28941 net.cpp:399] pool2 -> pool2
I0403 13:58:56.925956 28941 net.cpp:141] Setting up pool2
I0403 13:58:56.925981 28941 net.cpp:148] Top shape: 100 256 13 13 (4326400)
I0403 13:58:56.925997 28941 net.cpp:156] Memory required for data: 679564400
I0403 13:58:56.926012 28941 layer_factory.hpp:77] Creating layer conv3
I0403 13:58:56.926034 28941 net.cpp:91] Creating Layer conv3
I0403 13:58:56.926051 28941 net.cpp:425] conv3 <- pool2
I0403 13:58:56.926070 28941 net.cpp:399] conv3 -> conv3
I0403 13:58:56.965945 28941 net.cpp:141] Setting up conv3
I0403 13:58:56.966022 28941 net.cpp:148] Top shape: 100 384 13 13 (6489600)
I0403 13:58:56.966039 28941 net.cpp:156] Memory required for data: 705522800
I0403 13:58:56.966068 28941 layer_factory.hpp:77] Creating layer relu3
I0403 13:58:56.966094 28941 net.cpp:91] Creating Layer relu3
I0403 13:58:56.966111 28941 net.cpp:425] relu3 <- conv3
I0403 13:58:56.966143 28941 net.cpp:386] relu3 -> conv3 (in-place)
I0403 13:58:56.976196 28941 net.cpp:141] Setting up relu3
I0403 13:58:56.976233 28941 net.cpp:148] Top shape: 100 384 13 13 (6489600)
I0403 13:58:56.976249 28941 net.cpp:156] Memory required for data: 731481200
I0403 13:58:56.976282 28941 layer_factory.hpp:77] Creating layer conv4
I0403 13:58:56.976307 28941 net.cpp:91] Creating Layer conv4
I0403 13:58:56.976326 28941 net.cpp:425] conv4 <- conv3
I0403 13:58:56.976347 28941 net.cpp:399] conv4 -> conv4
I0403 13:58:57.007836 28941 net.cpp:141] Setting up conv4
I0403 13:58:57.007905 28941 net.cpp:148] Top shape: 100 384 13 13 (6489600)
I0403 13:58:57.007956 28941 net.cpp:156] Memory required for data: 757439600
I0403 13:58:57.007979 28941 layer_factory.hpp:77] Creating layer relu4
I0403 13:58:57.008005 28941 net.cpp:91] Creating Layer relu4
I0403 13:58:57.008024 28941 net.cpp:425] relu4 <- conv4
I0403 13:58:57.008045 28941 net.cpp:386] relu4 -> conv4 (in-place)
I0403 13:58:57.008373 28941 net.cpp:141] Setting up relu4
I0403 13:58:57.008401 28941 net.cpp:148] Top shape: 100 384 13 13 (6489600)
I0403 13:58:57.008417 28941 net.cpp:156] Memory required for data: 783398000
I0403 13:58:57.008432 28941 layer_factory.hpp:77] Creating layer conv5
I0403 13:58:57.008462 28941 net.cpp:91] Creating Layer conv5
I0403 13:58:57.008481 28941 net.cpp:425] conv5 <- conv4
I0403 13:58:57.008502 28941 net.cpp:399] conv5 -> conv5
I0403 13:58:57.030326 28941 net.cpp:141] Setting up conv5
I0403 13:58:57.030401 28941 net.cpp:148] Top shape: 100 256 13 13 (4326400)
I0403 13:58:57.030421 28941 net.cpp:156] Memory required for data: 800703600
I0403 13:58:57.030448 28941 layer_factory.hpp:77] Creating layer relu5
I0403 13:58:57.030470 28941 net.cpp:91] Creating Layer relu5
I0403 13:58:57.030488 28941 net.cpp:425] relu5 <- conv5
I0403 13:58:57.030511 28941 net.cpp:386] relu5 -> conv5 (in-place)
I0403 13:58:57.030817 28941 net.cpp:141] Setting up relu5
I0403 13:58:57.030845 28941 net.cpp:148] Top shape: 100 256 13 13 (4326400)
I0403 13:58:57.030861 28941 net.cpp:156] Memory required for data: 818009200
I0403 13:58:57.030877 28941 layer_factory.hpp:77] Creating layer pool5
I0403 13:58:57.030900 28941 net.cpp:91] Creating Layer pool5
I0403 13:58:57.030916 28941 net.cpp:425] pool5 <- conv5
I0403 13:58:57.030939 28941 net.cpp:399] pool5 -> pool5
I0403 13:58:57.031002 28941 net.cpp:141] Setting up pool5
I0403 13:58:57.031026 28941 net.cpp:148] Top shape: 100 256 6 6 (921600)
I0403 13:58:57.031043 28941 net.cpp:156] Memory required for data: 821695600
I0403 13:58:57.031057 28941 layer_factory.hpp:77] Creating layer fc6
I0403 13:58:57.031085 28941 net.cpp:91] Creating Layer fc6
I0403 13:58:57.031105 28941 net.cpp:425] fc6 <- pool5
I0403 13:58:57.031126 28941 net.cpp:399] fc6 -> fc6
I0403 13:58:58.597820 28941 net.cpp:141] Setting up fc6
I0403 13:58:58.597887 28941 net.cpp:148] Top shape: 100 4096 (409600)
I0403 13:58:58.597903 28941 net.cpp:156] Memory required for data: 823334000
I0403 13:58:58.597924 28941 layer_factory.hpp:77] Creating layer relu6
I0403 13:58:58.597949 28941 net.cpp:91] Creating Layer relu6
I0403 13:58:58.597966 28941 net.cpp:425] relu6 <- fc6
I0403 13:58:58.597986 28941 net.cpp:386] relu6 -> fc6 (in-place)
I0403 13:58:58.598212 28941 net.cpp:141] Setting up relu6
I0403 13:58:58.598238 28941 net.cpp:148] Top shape: 100 4096 (409600)
I0403 13:58:58.598259 28941 net.cpp:156] Memory required for data: 824972400
I0403 13:58:58.598275 28941 layer_factory.hpp:77] Creating layer drop6
I0403 13:58:58.598295 28941 net.cpp:91] Creating Layer drop6
I0403 13:58:58.598312 28941 net.cpp:425] drop6 <- fc6
I0403 13:58:58.598330 28941 net.cpp:386] drop6 -> fc6 (in-place)
I0403 13:58:58.598384 28941 net.cpp:141] Setting up drop6
I0403 13:58:58.598408 28941 net.cpp:148] Top shape: 100 4096 (409600)
I0403 13:58:58.598423 28941 net.cpp:156] Memory required for data: 826610800
I0403 13:58:58.598438 28941 layer_factory.hpp:77] Creating layer fc7
I0403 13:58:58.598459 28941 net.cpp:91] Creating Layer fc7
I0403 13:58:58.598474 28941 net.cpp:425] fc7 <- fc6
I0403 13:58:58.598492 28941 net.cpp:399] fc7 -> fc7
I0403 13:58:59.295413 28941 net.cpp:141] Setting up fc7
I0403 13:58:59.295461 28941 net.cpp:148] Top shape: 100 4096 (409600)
I0403 13:58:59.295477 28941 net.cpp:156] Memory required for data: 828249200
I0403 13:58:59.295498 28941 layer_factory.hpp:77] Creating layer relu7
I0403 13:58:59.295522 28941 net.cpp:91] Creating Layer relu7
I0403 13:58:59.295541 28941 net.cpp:425] relu7 <- fc7
I0403 13:58:59.295562 28941 net.cpp:386] relu7 -> fc7 (in-place)
I0403 13:58:59.295964 28941 net.cpp:141] Setting up relu7
I0403 13:58:59.295992 28941 net.cpp:148] Top shape: 100 4096 (409600)
I0403 13:58:59.296041 28941 net.cpp:156] Memory required for data: 829887600
I0403 13:58:59.296056 28941 layer_factory.hpp:77] Creating layer drop7
I0403 13:58:59.296075 28941 net.cpp:91] Creating Layer drop7
I0403 13:58:59.296090 28941 net.cpp:425] drop7 <- fc7
I0403 13:58:59.296110 28941 net.cpp:386] drop7 -> fc7 (in-place)
I0403 13:58:59.296152 28941 net.cpp:141] Setting up drop7
I0403 13:58:59.296175 28941 net.cpp:148] Top shape: 100 4096 (409600)
I0403 13:58:59.296190 28941 net.cpp:156] Memory required for data: 831526000
I0403 13:58:59.296203 28941 layer_factory.hpp:77] Creating layer fc8_plantvillage
I0403 13:58:59.296226 28941 net.cpp:91] Creating Layer fc8_plantvillage
I0403 13:58:59.296241 28941 net.cpp:425] fc8_plantvillage <- fc7
I0403 13:58:59.296270 28941 net.cpp:399] fc8_plantvillage -> fc8_plantvillage
I0403 13:58:59.302978 28941 net.cpp:141] Setting up fc8_plantvillage
I0403 13:58:59.303006 28941 net.cpp:148] Top shape: 100 38 (3800)
I0403 13:58:59.303021 28941 net.cpp:156] Memory required for data: 831541200
I0403 13:58:59.303040 28941 layer_factory.hpp:77] Creating layer fc8_plantvillage_fc8_plantvillage_0_split
I0403 13:58:59.303059 28941 net.cpp:91] Creating Layer fc8_plantvillage_fc8_plantvillage_0_split
I0403 13:58:59.303074 28941 net.cpp:425] fc8_plantvillage_fc8_plantvillage_0_split <- fc8_plantvillage
I0403 13:58:59.303093 28941 net.cpp:399] fc8_plantvillage_fc8_plantvillage_0_split -> fc8_plantvillage_fc8_plantvillage_0_split_0
I0403 13:58:59.303113 28941 net.cpp:399] fc8_plantvillage_fc8_plantvillage_0_split -> fc8_plantvillage_fc8_plantvillage_0_split_1
I0403 13:58:59.303133 28941 net.cpp:399] fc8_plantvillage_fc8_plantvillage_0_split -> fc8_plantvillage_fc8_plantvillage_0_split_2
I0403 13:58:59.303210 28941 net.cpp:141] Setting up fc8_plantvillage_fc8_plantvillage_0_split
I0403 13:58:59.303233 28941 net.cpp:148] Top shape: 100 38 (3800)
I0403 13:58:59.303249 28941 net.cpp:148] Top shape: 100 38 (3800)
I0403 13:58:59.303293 28941 net.cpp:148] Top shape: 100 38 (3800)
I0403 13:58:59.303308 28941 net.cpp:156] Memory required for data: 831586800
I0403 13:58:59.303323 28941 layer_factory.hpp:77] Creating layer prob
I0403 13:58:59.303341 28941 net.cpp:91] Creating Layer prob
I0403 13:58:59.303357 28941 net.cpp:425] prob <- fc8_plantvillage_fc8_plantvillage_0_split_0
I0403 13:58:59.303375 28941 net.cpp:399] prob -> prob
I0403 13:58:59.303612 28941 net.cpp:141] Setting up prob
I0403 13:58:59.303640 28941 net.cpp:148] Top shape: 100 38 (3800)
I0403 13:58:59.303656 28941 net.cpp:156] Memory required for data: 831602000
I0403 13:58:59.303670 28941 layer_factory.hpp:77] Creating layer hdf5out
I0403 13:58:59.303690 28941 net.cpp:91] Creating Layer hdf5out
I0403 13:58:59.303706 28941 net.cpp:425] hdf5out <- prob
I0403 13:58:59.303721 28941 net.cpp:425] hdf5out <- label_data_1_split_0
I0403 13:58:59.307777 28941 net.cpp:141] Setting up hdf5out
…
