…
I0403 13:49:51.298410 28734 net.cpp:313] The NetState phase (1) differed from the phase (0) specified by a rule in layer data
I0403 13:49:51.298717 28734 net.cpp:49] Initializing net from parameters: 
state {
  phase: TEST
}
layer {
  name: "data"
  type: "Data"
  top: "data"
  top: "label"
  include {
    phase: TEST
  }
  transform_param {
    crop_size: 227
    mean_file: "/home/mohanty/data/final_dataset/lmdb/color-40-60/mean.binaryproto"
  }
  data_param {
    source: "/home/mohanty/data/final_dataset/lmdb/color-40-60/test_db"
    batch_size: 100
    backend: LMDB
  }
}
layer {
  name: "conv1"
  type: "Convolution"
  bottom: "data"
  top: "conv1"
  param {
    lr_mult: 1
    decay_mult: 1
  }
  param {
    lr_mult: 2
    decay_mult: 0
  }
  convolution_param {
    num_output: 96
    kernel_size: 11
    stride: 4
    weight_filler {
      type: "gaussian"
      std: 0.01
    }
    bias_filler {
      type: "constant"
      value: 0
    }
  }
}
layer {
  name: "relu1"
  type: "ReLU"
  bottom: "conv1"
  top: "conv1"
}
layer {
  name: "norm1"
  type: "LRN"
  bottom: "conv1"
  top: "norm1"
  lrn_param {
    local_size: 5
    alpha: 0.0001
    beta: 0.75
  }
}
layer {
  name: "pool1"
  type: "Pooling"
  bottom: "norm1"
  top: "pool1"
  pooling_param {
    pool: MAX
    kernel_size: 3
    stride: 2
  }
}
layer {
  name: "conv2"
  type: "Convolution"
  bottom: "pool1"
  top: "conv2"
  param {
    lr_mult: 1
    decay_mult: 1
  }
  param {
    lr_mult: 2
    decay_mult: 0
  }
  convolution_param {
    num_output: 256
    pad: 2
    kernel_size: 5
    group: 2
    weight_filler {
      type: "gaussian"
      std: 0.01
    }
    bias_filler {
      type: "constant"
      value: 0.1
    }
  }
}
layer {
  name: "relu2"
  type: "ReLU"
  bottom: "conv2"
  top: "conv2"
}
layer {
  name: "norm2"
  type: "LRN"
  bottom: "conv2"
  top: "norm2"
  lrn_param {
    local_size: 5
    alpha: 0.0001
    beta: 0.75
  }
}
layer {
  name: "pool2"
  type: "Pooling"
  bottom: "norm2"
  top: "pool2"
  pooling_param {
    pool: MAX
    kernel_size: 3
    stride: 2
  }
}
layer {
  name: "conv3"
  type: "Convolution"
  bottom: "pool2"
  top: "conv3"
  param {
    lr_mult: 1
    decay_mult: 1
  }
  param {
    lr_mult: 2
    decay_mult: 0
  }
  convolution_param {
    num_output: 384
    pad: 1
    kernel_size: 3
    weight_filler {
      type: "gaussian"
      std: 0.01
    }
    bias_filler {
      type: "constant"
      value: 0
    }
  }
}
layer {
  name: "relu3"
  type: "ReLU"
  bottom: "conv3"
  top: "conv3"
}
layer {
  name: "conv4"
  type: "Convolution"
  bottom: "conv3"
  top: "conv4"
  param {
    lr_mult: 1
    decay_mult: 1
  }
  param {
    lr_mult: 2
    decay_mult: 0
  }
  convolution_param {
    num_output: 384
    pad: 1
    kernel_size: 3
    group: 2
    weight_filler {
      type: "gaussian"
      std: 0.01
    }
    bias_filler {
      type: "constant"
      value: 0.1
    }
  }
}
layer {
  name: "relu4"
  type: "ReLU"
  bottom: "conv4"
  top: "conv4"
}
layer {
  name: "conv5"
  type: "Convolution"
  bottom: "conv4"
  top: "conv5"
  param {
    lr_mult: 1
    decay_mult: 1
  }
  param {
    lr_mult: 2
    decay_mult: 0
  }
  convolution_param {
    num_output: 256
    pad: 1
    kernel_size: 3
    group: 2
    weight_filler {
      type: "gaussian"
      std: 0.01
    }
    bias_filler {
      type: "constant"
      value: 0.1
    }
  }
}
layer {
  name: "relu5"
  type: "ReLU"
  bottom: "conv5"
  top: "conv5"
}
layer {
  name: "pool5"
  type: "Pooling"
  bottom: "conv5"
  top: "pool5"
  pooling_param {
    pool: MAX
    kernel_size: 3
    stride: 2
  }
}
layer {
  name: "fc6"
  type: "InnerProduct"
  bottom: "pool5"
  top: "fc6"
  param {
    lr_mult: 1
    decay_mult: 1
  }
  param {
    lr_mult: 2
    decay_mult: 0
  }
  inner_product_param {
    num_output: 4096
    weight_filler {
      type: "gaussian"
      std: 0.005
    }
    bias_filler {
      type: "constant"
      value: 0.1
    }
  }
}
layer {
  name: "relu6"
  type: "ReLU"
  bottom: "fc6"
  top: "fc6"
}
layer {
  name: "drop6"
  type: "Dropout"
  bottom: "fc6"
  top: "fc6"
  dropout_param {
    dropout_ratio: 0.5
  }
}
layer {
  name: "fc7"
  type: "InnerProduct"
  bottom: "fc6"
  top: "fc7"
  param {
    lr_mult: 1
    decay_mult: 1
  }
  param {
    lr_mult: 2
    decay_mult: 0
  }
  inner_product_param {
    num_output: 4096
    weight_filler {
      type: "gaussian"
      std: 0.005
    }
    bias_filler {
      type: "constant"
      value: 0.1
    }
  }
}
layer {
  name: "relu7"
  type: "ReLU"
  bottom: "fc7"
  top: "fc7"
}
layer {
  name: "drop7"
  type: "Dropout"
  bottom: "fc7"
  top: "fc7"
  dropout_param {
    dropout_ratio: 0.5
  }
}
layer {
  name: "fc8_plantvillage"
  type: "InnerProduct"
  bottom: "fc7"
  top: "fc8_plantvillage"
  param {
    lr_mult: 1
    decay_mult: 1
  }
  param {
    lr_mult: 2
    decay_mult: 0
  }
  inner_product_param {
    num_output: 38
    weight_filler {
      type: "gaussian"
      std: 0.01
    }
    bias_filler {
      type: "constant"
      value: 0
    }
  }
}
layer {
  name: "prob"
  type: "Softmax"
  bottom: "fc8_plantvillage"
  top: "prob"
  include {
    phase: TEST
  }
}
layer {
  name: "hdf5out"
  type: "HDF5Output"
  bottom: "prob"
  bottom: "label"
  include {
    phase: TEST
  }
  hdf5_output_param {
    file_name: "hdf5_dumps/iter_4123.h5"
  }
}
layer {
  name: "loss"
  type: "SoftmaxWithLoss"
  bottom: "fc8_plantvillage"
  bottom: "label"
  top: "loss"
}
layer {
  name: "accuracy"
  type: "Accuracy"
  bottom: "fc8_plantvillage"
  bottom: "label"
  top: "accuracy"
  include {
    phase: TEST
  }
}
I0403 13:49:51.299288 28734 layer_factory.hpp:77] Creating layer data
I0403 13:49:51.299947 28734 net.cpp:91] Creating Layer data
I0403 13:49:51.299981 28734 net.cpp:399] data -> data
I0403 13:49:51.300034 28734 net.cpp:399] data -> label
I0403 13:49:51.300073 28734 data_transformer.cpp:25] Loading mean file from: /home/mohanty/data/final_dataset/lmdb/color-40-60/mean.binaryproto
I0403 13:49:51.303117 28737 db_lmdb.cpp:38] Opened lmdb /home/mohanty/data/final_dataset/lmdb/color-40-60/test_db
I0403 13:49:51.314378 28734 data_layer.cpp:41] output data size: 100,3,227,227
I0403 13:49:51.451136 28734 net.cpp:141] Setting up data
I0403 13:49:51.451232 28734 net.cpp:148] Top shape: 100 3 227 227 (15458700)
I0403 13:49:51.451261 28734 net.cpp:148] Top shape: 100 (100)
I0403 13:49:51.451278 28734 net.cpp:156] Memory required for data: 61835200
I0403 13:49:51.451309 28734 layer_factory.hpp:77] Creating layer label_data_1_split
I0403 13:49:51.451336 28734 net.cpp:91] Creating Layer label_data_1_split
I0403 13:49:51.451356 28734 net.cpp:425] label_data_1_split <- label
I0403 13:49:51.451390 28734 net.cpp:399] label_data_1_split -> label_data_1_split_0
I0403 13:49:51.451419 28734 net.cpp:399] label_data_1_split -> label_data_1_split_1
I0403 13:49:51.451442 28734 net.cpp:399] label_data_1_split -> label_data_1_split_2
I0403 13:49:51.451508 28734 net.cpp:141] Setting up label_data_1_split
I0403 13:49:51.451534 28734 net.cpp:148] Top shape: 100 (100)
I0403 13:49:51.451552 28734 net.cpp:148] Top shape: 100 (100)
I0403 13:49:51.451571 28734 net.cpp:148] Top shape: 100 (100)
I0403 13:49:51.451586 28734 net.cpp:156] Memory required for data: 61836400
I0403 13:49:51.451602 28734 layer_factory.hpp:77] Creating layer conv1
I0403 13:49:51.451634 28734 net.cpp:91] Creating Layer conv1
I0403 13:49:51.451655 28734 net.cpp:425] conv1 <- data
I0403 13:49:51.451676 28734 net.cpp:399] conv1 -> conv1
I0403 13:49:51.598955 28734 net.cpp:141] Setting up conv1
I0403 13:49:51.599035 28734 net.cpp:148] Top shape: 100 96 55 55 (29040000)
I0403 13:49:51.599055 28734 net.cpp:156] Memory required for data: 177996400
I0403 13:49:51.599087 28734 layer_factory.hpp:77] Creating layer relu1
I0403 13:49:51.599117 28734 net.cpp:91] Creating Layer relu1
I0403 13:49:51.599136 28734 net.cpp:425] relu1 <- conv1
I0403 13:49:51.599158 28734 net.cpp:386] relu1 -> conv1 (in-place)
I0403 13:49:51.599428 28734 net.cpp:141] Setting up relu1
I0403 13:49:51.599458 28734 net.cpp:148] Top shape: 100 96 55 55 (29040000)
I0403 13:49:51.599477 28734 net.cpp:156] Memory required for data: 294156400
I0403 13:49:51.599526 28734 layer_factory.hpp:77] Creating layer norm1
I0403 13:49:51.599557 28734 net.cpp:91] Creating Layer norm1
I0403 13:49:51.599577 28734 net.cpp:425] norm1 <- conv1
I0403 13:49:51.599596 28734 net.cpp:399] norm1 -> norm1
I0403 13:49:51.599915 28734 net.cpp:141] Setting up norm1
I0403 13:49:51.599946 28734 net.cpp:148] Top shape: 100 96 55 55 (29040000)
I0403 13:49:51.600006 28734 net.cpp:156] Memory required for data: 410316400
I0403 13:49:51.600025 28734 layer_factory.hpp:77] Creating layer pool1
I0403 13:49:51.600050 28734 net.cpp:91] Creating Layer pool1
I0403 13:49:51.600069 28734 net.cpp:425] pool1 <- norm1
I0403 13:49:51.600090 28734 net.cpp:399] pool1 -> pool1
I0403 13:49:51.600162 28734 net.cpp:141] Setting up pool1
I0403 13:49:51.600188 28734 net.cpp:148] Top shape: 100 96 27 27 (6998400)
I0403 13:49:51.600204 28734 net.cpp:156] Memory required for data: 438310000
I0403 13:49:51.600220 28734 layer_factory.hpp:77] Creating layer conv2
I0403 13:49:51.600246 28734 net.cpp:91] Creating Layer conv2
I0403 13:49:51.600275 28734 net.cpp:425] conv2 <- pool1
I0403 13:49:51.600296 28734 net.cpp:399] conv2 -> conv2
I0403 13:49:51.615977 28734 net.cpp:141] Setting up conv2
I0403 13:49:51.616030 28734 net.cpp:148] Top shape: 100 256 27 27 (18662400)
I0403 13:49:51.616050 28734 net.cpp:156] Memory required for data: 512959600
I0403 13:49:51.616075 28734 layer_factory.hpp:77] Creating layer relu2
I0403 13:49:51.616096 28734 net.cpp:91] Creating Layer relu2
I0403 13:49:51.616117 28734 net.cpp:425] relu2 <- conv2
I0403 13:49:51.616137 28734 net.cpp:386] relu2 -> conv2 (in-place)
I0403 13:49:51.616421 28734 net.cpp:141] Setting up relu2
I0403 13:49:51.616449 28734 net.cpp:148] Top shape: 100 256 27 27 (18662400)
I0403 13:49:51.616466 28734 net.cpp:156] Memory required for data: 587609200
I0403 13:49:51.616483 28734 layer_factory.hpp:77] Creating layer norm2
I0403 13:49:51.616508 28734 net.cpp:91] Creating Layer norm2
I0403 13:49:51.616526 28734 net.cpp:425] norm2 <- conv2
I0403 13:49:51.616546 28734 net.cpp:399] norm2 -> norm2
I0403 13:49:51.616744 28734 net.cpp:141] Setting up norm2
I0403 13:49:51.616772 28734 net.cpp:148] Top shape: 100 256 27 27 (18662400)
I0403 13:49:51.616788 28734 net.cpp:156] Memory required for data: 662258800
I0403 13:49:51.616806 28734 layer_factory.hpp:77] Creating layer pool2
I0403 13:49:51.616827 28734 net.cpp:91] Creating Layer pool2
I0403 13:49:51.616843 28734 net.cpp:425] pool2 <- norm2
I0403 13:49:51.616861 28734 net.cpp:399] pool2 -> pool2
I0403 13:49:51.616961 28734 net.cpp:141] Setting up pool2
I0403 13:49:51.616988 28734 net.cpp:148] Top shape: 100 256 13 13 (4326400)
I0403 13:49:51.617004 28734 net.cpp:156] Memory required for data: 679564400
I0403 13:49:51.617020 28734 layer_factory.hpp:77] Creating layer conv3
I0403 13:49:51.617044 28734 net.cpp:91] Creating Layer conv3
I0403 13:49:51.617063 28734 net.cpp:425] conv3 <- pool2
I0403 13:49:51.617084 28734 net.cpp:399] conv3 -> conv3
I0403 13:49:51.665078 28734 net.cpp:141] Setting up conv3
I0403 13:49:51.665155 28734 net.cpp:148] Top shape: 100 384 13 13 (6489600)
I0403 13:49:51.665174 28734 net.cpp:156] Memory required for data: 705522800
I0403 13:49:51.665200 28734 layer_factory.hpp:77] Creating layer relu3
I0403 13:49:51.665225 28734 net.cpp:91] Creating Layer relu3
I0403 13:49:51.665243 28734 net.cpp:425] relu3 <- conv3
I0403 13:49:51.665271 28734 net.cpp:386] relu3 -> conv3 (in-place)
I0403 13:49:51.665545 28734 net.cpp:141] Setting up relu3
I0403 13:49:51.665575 28734 net.cpp:148] Top shape: 100 384 13 13 (6489600)
I0403 13:49:51.665591 28734 net.cpp:156] Memory required for data: 731481200
I0403 13:49:51.665607 28734 layer_factory.hpp:77] Creating layer conv4
I0403 13:49:51.665633 28734 net.cpp:91] Creating Layer conv4
I0403 13:49:51.665652 28734 net.cpp:425] conv4 <- conv3
I0403 13:49:51.665673 28734 net.cpp:399] conv4 -> conv4
I0403 13:49:51.696107 28734 net.cpp:141] Setting up conv4
I0403 13:49:51.696161 28734 net.cpp:148] Top shape: 100 384 13 13 (6489600)
I0403 13:49:51.696205 28734 net.cpp:156] Memory required for data: 757439600
I0403 13:49:51.696229 28734 layer_factory.hpp:77] Creating layer relu4
I0403 13:49:51.696257 28734 net.cpp:91] Creating Layer relu4
I0403 13:49:51.696277 28734 net.cpp:425] relu4 <- conv4
I0403 13:49:51.696301 28734 net.cpp:386] relu4 -> conv4 (in-place)
I0403 13:49:51.696622 28734 net.cpp:141] Setting up relu4
I0403 13:49:51.696650 28734 net.cpp:148] Top shape: 100 384 13 13 (6489600)
I0403 13:49:51.696666 28734 net.cpp:156] Memory required for data: 783398000
I0403 13:49:51.696681 28734 layer_factory.hpp:77] Creating layer conv5
I0403 13:49:51.696708 28734 net.cpp:91] Creating Layer conv5
I0403 13:49:51.696727 28734 net.cpp:425] conv5 <- conv4
I0403 13:49:51.696748 28734 net.cpp:399] conv5 -> conv5
I0403 13:49:51.717561 28734 net.cpp:141] Setting up conv5
I0403 13:49:51.717614 28734 net.cpp:148] Top shape: 100 256 13 13 (4326400)
I0403 13:49:51.717633 28734 net.cpp:156] Memory required for data: 800703600
I0403 13:49:51.717658 28734 layer_factory.hpp:77] Creating layer relu5
I0403 13:49:51.717684 28734 net.cpp:91] Creating Layer relu5
I0403 13:49:51.717702 28734 net.cpp:425] relu5 <- conv5
I0403 13:49:51.717720 28734 net.cpp:386] relu5 -> conv5 (in-place)
I0403 13:49:51.717996 28734 net.cpp:141] Setting up relu5
I0403 13:49:51.718024 28734 net.cpp:148] Top shape: 100 256 13 13 (4326400)
I0403 13:49:51.718039 28734 net.cpp:156] Memory required for data: 818009200
I0403 13:49:51.718055 28734 layer_factory.hpp:77] Creating layer pool5
I0403 13:49:51.718081 28734 net.cpp:91] Creating Layer pool5
I0403 13:49:51.718098 28734 net.cpp:425] pool5 <- conv5
I0403 13:49:51.718118 28734 net.cpp:399] pool5 -> pool5
I0403 13:49:51.718181 28734 net.cpp:141] Setting up pool5
I0403 13:49:51.718205 28734 net.cpp:148] Top shape: 100 256 6 6 (921600)
I0403 13:49:51.718220 28734 net.cpp:156] Memory required for data: 821695600
I0403 13:49:51.718235 28734 layer_factory.hpp:77] Creating layer fc6
I0403 13:49:51.718268 28734 net.cpp:91] Creating Layer fc6
I0403 13:49:51.718287 28734 net.cpp:425] fc6 <- pool5
I0403 13:49:51.718307 28734 net.cpp:399] fc6 -> fc6
I0403 13:49:53.309878 28734 net.cpp:141] Setting up fc6
I0403 13:49:53.309923 28734 net.cpp:148] Top shape: 100 4096 (409600)
I0403 13:49:53.309940 28734 net.cpp:156] Memory required for data: 823334000
I0403 13:49:53.309962 28734 layer_factory.hpp:77] Creating layer relu6
I0403 13:49:53.309986 28734 net.cpp:91] Creating Layer relu6
I0403 13:49:53.310005 28734 net.cpp:425] relu6 <- fc6
I0403 13:49:53.310029 28734 net.cpp:386] relu6 -> fc6 (in-place)
I0403 13:49:53.310247 28734 net.cpp:141] Setting up relu6
I0403 13:49:53.310279 28734 net.cpp:148] Top shape: 100 4096 (409600)
I0403 13:49:53.310295 28734 net.cpp:156] Memory required for data: 824972400
I0403 13:49:53.310310 28734 layer_factory.hpp:77] Creating layer drop6
I0403 13:49:53.310329 28734 net.cpp:91] Creating Layer drop6
I0403 13:49:53.310350 28734 net.cpp:425] drop6 <- fc6
I0403 13:49:53.310369 28734 net.cpp:386] drop6 -> fc6 (in-place)
I0403 13:49:53.310420 28734 net.cpp:141] Setting up drop6
I0403 13:49:53.310447 28734 net.cpp:148] Top shape: 100 4096 (409600)
I0403 13:49:53.310463 28734 net.cpp:156] Memory required for data: 826610800
I0403 13:49:53.310478 28734 layer_factory.hpp:77] Creating layer fc7
I0403 13:49:53.310498 28734 net.cpp:91] Creating Layer fc7
I0403 13:49:53.310514 28734 net.cpp:425] fc7 <- fc6
I0403 13:49:53.310535 28734 net.cpp:399] fc7 -> fc7
I0403 13:49:53.997948 28734 net.cpp:141] Setting up fc7
I0403 13:49:53.998026 28734 net.cpp:148] Top shape: 100 4096 (409600)
I0403 13:49:53.998044 28734 net.cpp:156] Memory required for data: 828249200
I0403 13:49:53.998066 28734 layer_factory.hpp:77] Creating layer relu7
I0403 13:49:53.998088 28734 net.cpp:91] Creating Layer relu7
I0403 13:49:53.998106 28734 net.cpp:425] relu7 <- fc7
I0403 13:49:53.998129 28734 net.cpp:386] relu7 -> fc7 (in-place)
I0403 13:49:53.998531 28734 net.cpp:141] Setting up relu7
I0403 13:49:53.998558 28734 net.cpp:148] Top shape: 100 4096 (409600)
I0403 13:49:53.998610 28734 net.cpp:156] Memory required for data: 829887600
I0403 13:49:53.998626 28734 layer_factory.hpp:77] Creating layer drop7
I0403 13:49:53.998646 28734 net.cpp:91] Creating Layer drop7
I0403 13:49:53.998662 28734 net.cpp:425] drop7 <- fc7
I0403 13:49:53.998683 28734 net.cpp:386] drop7 -> fc7 (in-place)
I0403 13:49:53.998728 28734 net.cpp:141] Setting up drop7
I0403 13:49:53.998755 28734 net.cpp:148] Top shape: 100 4096 (409600)
I0403 13:49:53.998771 28734 net.cpp:156] Memory required for data: 831526000
I0403 13:49:53.998786 28734 layer_factory.hpp:77] Creating layer fc8_plantvillage
I0403 13:49:53.998806 28734 net.cpp:91] Creating Layer fc8_plantvillage
I0403 13:49:53.998823 28734 net.cpp:425] fc8_plantvillage <- fc7
I0403 13:49:53.998844 28734 net.cpp:399] fc8_plantvillage -> fc8_plantvillage
I0403 13:49:54.005589 28734 net.cpp:141] Setting up fc8_plantvillage
I0403 13:49:54.005620 28734 net.cpp:148] Top shape: 100 38 (3800)
I0403 13:49:54.005635 28734 net.cpp:156] Memory required for data: 831541200
I0403 13:49:54.005656 28734 layer_factory.hpp:77] Creating layer fc8_plantvillage_fc8_plantvillage_0_split
I0403 13:49:54.005677 28734 net.cpp:91] Creating Layer fc8_plantvillage_fc8_plantvillage_0_split
I0403 13:49:54.005695 28734 net.cpp:425] fc8_plantvillage_fc8_plantvillage_0_split <- fc8_plantvillage
I0403 13:49:54.005713 28734 net.cpp:399] fc8_plantvillage_fc8_plantvillage_0_split -> fc8_plantvillage_fc8_plantvillage_0_split_0
I0403 13:49:54.005734 28734 net.cpp:399] fc8_plantvillage_fc8_plantvillage_0_split -> fc8_plantvillage_fc8_plantvillage_0_split_1
I0403 13:49:54.005754 28734 net.cpp:399] fc8_plantvillage_fc8_plantvillage_0_split -> fc8_plantvillage_fc8_plantvillage_0_split_2
I0403 13:49:54.005837 28734 net.cpp:141] Setting up fc8_plantvillage_fc8_plantvillage_0_split
I0403 13:49:54.005863 28734 net.cpp:148] Top shape: 100 38 (3800)
I0403 13:49:54.005880 28734 net.cpp:148] Top shape: 100 38 (3800)
I0403 13:49:54.005897 28734 net.cpp:148] Top shape: 100 38 (3800)
I0403 13:49:54.005911 28734 net.cpp:156] Memory required for data: 831586800
I0403 13:49:54.005926 28734 layer_factory.hpp:77] Creating layer prob
I0403 13:49:54.005946 28734 net.cpp:91] Creating Layer prob
I0403 13:49:54.005962 28734 net.cpp:425] prob <- fc8_plantvillage_fc8_plantvillage_0_split_0
I0403 13:49:54.005982 28734 net.cpp:399] prob -> prob
I0403 13:49:54.006211 28734 net.cpp:141] Setting up prob
I0403 13:49:54.006239 28734 net.cpp:148] Top shape: 100 38 (3800)
I0403 13:49:54.006261 28734 net.cpp:156] Memory required for data: 831602000
I0403 13:49:54.006278 28734 layer_factory.hpp:77] Creating layer hdf5out
I0403 13:49:54.006300 28734 net.cpp:91] Creating Layer hdf5out
I0403 13:49:54.006319 28734 net.cpp:425] hdf5out <- prob
I0403 13:49:54.006336 28734 net.cpp:425] hdf5out <- label_data_1_split_0
I0403 13:49:54.010500 28734 net.cpp:141] Setting up hdf5out
…
