…
I0403 13:30:35.266007 28293 net.cpp:313] The NetState phase (1) differed from the phase (0) specified by a rule in layer data
I0403 13:30:35.266321 28293 net.cpp:49] Initializing net from parameters: 
state {
  phase: TEST
}
layer {
  name: "data"
  type: "Data"
  top: "data"
  top: "label"
  include {
    phase: TEST
  }
  transform_param {
    crop_size: 227
    mean_file: "/home/mohanty/data/final_dataset/lmdb/color-40-60/mean.binaryproto"
  }
  data_param {
    source: "/home/mohanty/data/final_dataset/lmdb/color-40-60/test_db"
    batch_size: 100
    backend: LMDB
  }
}
layer {
  name: "conv1"
  type: "Convolution"
  bottom: "data"
  top: "conv1"
  param {
    lr_mult: 1
    decay_mult: 1
  }
  param {
    lr_mult: 2
    decay_mult: 0
  }
  convolution_param {
    num_output: 96
    kernel_size: 11
    stride: 4
    weight_filler {
      type: "gaussian"
      std: 0.01
    }
    bias_filler {
      type: "constant"
      value: 0
    }
  }
}
layer {
  name: "relu1"
  type: "ReLU"
  bottom: "conv1"
  top: "conv1"
}
layer {
  name: "norm1"
  type: "LRN"
  bottom: "conv1"
  top: "norm1"
  lrn_param {
    local_size: 5
    alpha: 0.0001
    beta: 0.75
  }
}
layer {
  name: "pool1"
  type: "Pooling"
  bottom: "norm1"
  top: "pool1"
  pooling_param {
    pool: MAX
    kernel_size: 3
    stride: 2
  }
}
layer {
  name: "conv2"
  type: "Convolution"
  bottom: "pool1"
  top: "conv2"
  param {
    lr_mult: 1
    decay_mult: 1
  }
  param {
    lr_mult: 2
    decay_mult: 0
  }
  convolution_param {
    num_output: 256
    pad: 2
    kernel_size: 5
    group: 2
    weight_filler {
      type: "gaussian"
      std: 0.01
    }
    bias_filler {
      type: "constant"
      value: 0.1
    }
  }
}
layer {
  name: "relu2"
  type: "ReLU"
  bottom: "conv2"
  top: "conv2"
}
layer {
  name: "norm2"
  type: "LRN"
  bottom: "conv2"
  top: "norm2"
  lrn_param {
    local_size: 5
    alpha: 0.0001
    beta: 0.75
  }
}
layer {
  name: "pool2"
  type: "Pooling"
  bottom: "norm2"
  top: "pool2"
  pooling_param {
    pool: MAX
    kernel_size: 3
    stride: 2
  }
}
layer {
  name: "conv3"
  type: "Convolution"
  bottom: "pool2"
  top: "conv3"
  param {
    lr_mult: 1
    decay_mult: 1
  }
  param {
    lr_mult: 2
    decay_mult: 0
  }
  convolution_param {
    num_output: 384
    pad: 1
    kernel_size: 3
    weight_filler {
      type: "gaussian"
      std: 0.01
    }
    bias_filler {
      type: "constant"
      value: 0
    }
  }
}
layer {
  name: "relu3"
  type: "ReLU"
  bottom: "conv3"
  top: "conv3"
}
layer {
  name: "conv4"
  type: "Convolution"
  bottom: "conv3"
  top: "conv4"
  param {
    lr_mult: 1
    decay_mult: 1
  }
  param {
    lr_mult: 2
    decay_mult: 0
  }
  convolution_param {
    num_output: 384
    pad: 1
    kernel_size: 3
    group: 2
    weight_filler {
      type: "gaussian"
      std: 0.01
    }
    bias_filler {
      type: "constant"
      value: 0.1
    }
  }
}
layer {
  name: "relu4"
  type: "ReLU"
  bottom: "conv4"
  top: "conv4"
}
layer {
  name: "conv5"
  type: "Convolution"
  bottom: "conv4"
  top: "conv5"
  param {
    lr_mult: 1
    decay_mult: 1
  }
  param {
    lr_mult: 2
    decay_mult: 0
  }
  convolution_param {
    num_output: 256
    pad: 1
    kernel_size: 3
    group: 2
    weight_filler {
      type: "gaussian"
      std: 0.01
    }
    bias_filler {
      type: "constant"
      value: 0.1
    }
  }
}
layer {
  name: "relu5"
  type: "ReLU"
  bottom: "conv5"
  top: "conv5"
}
layer {
  name: "pool5"
  type: "Pooling"
  bottom: "conv5"
  top: "pool5"
  pooling_param {
    pool: MAX
    kernel_size: 3
    stride: 2
  }
}
layer {
  name: "fc6"
  type: "InnerProduct"
  bottom: "pool5"
  top: "fc6"
  param {
    lr_mult: 1
    decay_mult: 1
  }
  param {
    lr_mult: 2
    decay_mult: 0
  }
  inner_product_param {
    num_output: 4096
    weight_filler {
      type: "gaussian"
      std: 0.005
    }
    bias_filler {
      type: "constant"
      value: 0.1
    }
  }
}
layer {
  name: "relu6"
  type: "ReLU"
  bottom: "fc6"
  top: "fc6"
}
layer {
  name: "drop6"
  type: "Dropout"
  bottom: "fc6"
  top: "fc6"
  dropout_param {
    dropout_ratio: 0.5
  }
}
layer {
  name: "fc7"
  type: "InnerProduct"
  bottom: "fc6"
  top: "fc7"
  param {
    lr_mult: 1
    decay_mult: 1
  }
  param {
    lr_mult: 2
    decay_mult: 0
  }
  inner_product_param {
    num_output: 4096
    weight_filler {
      type: "gaussian"
      std: 0.005
    }
    bias_filler {
      type: "constant"
      value: 0.1
    }
  }
}
layer {
  name: "relu7"
  type: "ReLU"
  bottom: "fc7"
  top: "fc7"
}
layer {
  name: "drop7"
  type: "Dropout"
  bottom: "fc7"
  top: "fc7"
  dropout_param {
    dropout_ratio: 0.5
  }
}
layer {
  name: "fc8_plantvillage"
  type: "InnerProduct"
  bottom: "fc7"
  top: "fc8_plantvillage"
  param {
    lr_mult: 1
    decay_mult: 1
  }
  param {
    lr_mult: 2
    decay_mult: 0
  }
  inner_product_param {
    num_output: 38
    weight_filler {
      type: "gaussian"
      std: 0.01
    }
    bias_filler {
      type: "constant"
      value: 0
    }
  }
}
layer {
  name: "prob"
  type: "Softmax"
  bottom: "fc8_plantvillage"
  top: "prob"
  include {
    phase: TEST
  }
}
layer {
  name: "hdf5out"
  type: "HDF5Output"
  bottom: "prob"
  bottom: "label"
  include {
    phase: TEST
  }
  hdf5_output_param {
    file_name: "hdf5_dumps/iter_434.h5"
  }
}
layer {
  name: "loss"
  type: "SoftmaxWithLoss"
  bottom: "fc8_plantvillage"
  bottom: "label"
  top: "loss"
}
layer {
  name: "accuracy"
  type: "Accuracy"
  bottom: "fc8_plantvillage"
  bottom: "label"
  top: "accuracy"
  include {
    phase: TEST
  }
}
I0403 13:30:35.266947 28293 layer_factory.hpp:77] Creating layer data
I0403 13:30:35.267616 28293 net.cpp:91] Creating Layer data
I0403 13:30:35.267648 28293 net.cpp:399] data -> data
I0403 13:30:35.267700 28293 net.cpp:399] data -> label
I0403 13:30:35.267737 28293 data_transformer.cpp:25] Loading mean file from: /home/mohanty/data/final_dataset/lmdb/color-40-60/mean.binaryproto
I0403 13:30:35.271018 28296 db_lmdb.cpp:38] Opened lmdb /home/mohanty/data/final_dataset/lmdb/color-40-60/test_db
I0403 13:30:35.282218 28293 data_layer.cpp:41] output data size: 100,3,227,227
I0403 13:30:35.413127 28293 net.cpp:141] Setting up data
I0403 13:30:35.413203 28293 net.cpp:148] Top shape: 100 3 227 227 (15458700)
I0403 13:30:35.413226 28293 net.cpp:148] Top shape: 100 (100)
I0403 13:30:35.413242 28293 net.cpp:156] Memory required for data: 61835200
I0403 13:30:35.413270 28293 layer_factory.hpp:77] Creating layer label_data_1_split
I0403 13:30:35.413301 28293 net.cpp:91] Creating Layer label_data_1_split
I0403 13:30:35.413321 28293 net.cpp:425] label_data_1_split <- label
I0403 13:30:35.413354 28293 net.cpp:399] label_data_1_split -> label_data_1_split_0
I0403 13:30:35.413383 28293 net.cpp:399] label_data_1_split -> label_data_1_split_1
I0403 13:30:35.413404 28293 net.cpp:399] label_data_1_split -> label_data_1_split_2
I0403 13:30:35.413468 28293 net.cpp:141] Setting up label_data_1_split
I0403 13:30:35.413491 28293 net.cpp:148] Top shape: 100 (100)
I0403 13:30:35.413509 28293 net.cpp:148] Top shape: 100 (100)
I0403 13:30:35.413527 28293 net.cpp:148] Top shape: 100 (100)
I0403 13:30:35.413542 28293 net.cpp:156] Memory required for data: 61836400
I0403 13:30:35.413570 28293 layer_factory.hpp:77] Creating layer conv1
I0403 13:30:35.413601 28293 net.cpp:91] Creating Layer conv1
I0403 13:30:35.413619 28293 net.cpp:425] conv1 <- data
I0403 13:30:35.413638 28293 net.cpp:399] conv1 -> conv1
I0403 13:30:35.559670 28293 net.cpp:141] Setting up conv1
I0403 13:30:35.559751 28293 net.cpp:148] Top shape: 100 96 55 55 (29040000)
I0403 13:30:35.559770 28293 net.cpp:156] Memory required for data: 177996400
I0403 13:30:35.559803 28293 layer_factory.hpp:77] Creating layer relu1
I0403 13:30:35.559834 28293 net.cpp:91] Creating Layer relu1
I0403 13:30:35.559855 28293 net.cpp:425] relu1 <- conv1
I0403 13:30:35.559877 28293 net.cpp:386] relu1 -> conv1 (in-place)
I0403 13:30:35.560164 28293 net.cpp:141] Setting up relu1
I0403 13:30:35.560194 28293 net.cpp:148] Top shape: 100 96 55 55 (29040000)
I0403 13:30:35.560211 28293 net.cpp:156] Memory required for data: 294156400
I0403 13:30:35.560259 28293 layer_factory.hpp:77] Creating layer norm1
I0403 13:30:35.560295 28293 net.cpp:91] Creating Layer norm1
I0403 13:30:35.560317 28293 net.cpp:425] norm1 <- conv1
I0403 13:30:35.560338 28293 net.cpp:399] norm1 -> norm1
I0403 13:30:35.560698 28293 net.cpp:141] Setting up norm1
I0403 13:30:35.560727 28293 net.cpp:148] Top shape: 100 96 55 55 (29040000)
I0403 13:30:35.560745 28293 net.cpp:156] Memory required for data: 410316400
I0403 13:30:35.560761 28293 layer_factory.hpp:77] Creating layer pool1
I0403 13:30:35.560786 28293 net.cpp:91] Creating Layer pool1
I0403 13:30:35.560803 28293 net.cpp:425] pool1 <- norm1
I0403 13:30:35.560827 28293 net.cpp:399] pool1 -> pool1
I0403 13:30:35.560906 28293 net.cpp:141] Setting up pool1
I0403 13:30:35.560935 28293 net.cpp:148] Top shape: 100 96 27 27 (6998400)
I0403 13:30:35.560953 28293 net.cpp:156] Memory required for data: 438310000
I0403 13:30:35.560969 28293 layer_factory.hpp:77] Creating layer conv2
I0403 13:30:35.560997 28293 net.cpp:91] Creating Layer conv2
I0403 13:30:35.561017 28293 net.cpp:425] conv2 <- pool1
I0403 13:30:35.561038 28293 net.cpp:399] conv2 -> conv2
I0403 13:30:35.576891 28293 net.cpp:141] Setting up conv2
I0403 13:30:35.576939 28293 net.cpp:148] Top shape: 100 256 27 27 (18662400)
I0403 13:30:35.576957 28293 net.cpp:156] Memory required for data: 512959600
I0403 13:30:35.576983 28293 layer_factory.hpp:77] Creating layer relu2
I0403 13:30:35.577004 28293 net.cpp:91] Creating Layer relu2
I0403 13:30:35.577021 28293 net.cpp:425] relu2 <- conv2
I0403 13:30:35.577044 28293 net.cpp:386] relu2 -> conv2 (in-place)
I0403 13:30:35.577347 28293 net.cpp:141] Setting up relu2
I0403 13:30:35.577376 28293 net.cpp:148] Top shape: 100 256 27 27 (18662400)
I0403 13:30:35.577394 28293 net.cpp:156] Memory required for data: 587609200
I0403 13:30:35.577409 28293 layer_factory.hpp:77] Creating layer norm2
I0403 13:30:35.577435 28293 net.cpp:91] Creating Layer norm2
I0403 13:30:35.577452 28293 net.cpp:425] norm2 <- conv2
I0403 13:30:35.577472 28293 net.cpp:399] norm2 -> norm2
I0403 13:30:35.577683 28293 net.cpp:141] Setting up norm2
I0403 13:30:35.577711 28293 net.cpp:148] Top shape: 100 256 27 27 (18662400)
I0403 13:30:35.577728 28293 net.cpp:156] Memory required for data: 662258800
I0403 13:30:35.577744 28293 layer_factory.hpp:77] Creating layer pool2
I0403 13:30:35.577764 28293 net.cpp:91] Creating Layer pool2
I0403 13:30:35.577781 28293 net.cpp:425] pool2 <- norm2
I0403 13:30:35.577805 28293 net.cpp:399] pool2 -> pool2
I0403 13:30:35.577860 28293 net.cpp:141] Setting up pool2
I0403 13:30:35.577886 28293 net.cpp:148] Top shape: 100 256 13 13 (4326400)
I0403 13:30:35.577903 28293 net.cpp:156] Memory required for data: 679564400
I0403 13:30:35.577919 28293 layer_factory.hpp:77] Creating layer conv3
I0403 13:30:35.577944 28293 net.cpp:91] Creating Layer conv3
I0403 13:30:35.577963 28293 net.cpp:425] conv3 <- pool2
I0403 13:30:35.577983 28293 net.cpp:399] conv3 -> conv3
I0403 13:30:35.617578 28293 net.cpp:141] Setting up conv3
I0403 13:30:35.617658 28293 net.cpp:148] Top shape: 100 384 13 13 (6489600)
I0403 13:30:35.617679 28293 net.cpp:156] Memory required for data: 705522800
I0403 13:30:35.617707 28293 layer_factory.hpp:77] Creating layer relu3
I0403 13:30:35.617732 28293 net.cpp:91] Creating Layer relu3
I0403 13:30:35.617749 28293 net.cpp:425] relu3 <- conv3
I0403 13:30:35.617772 28293 net.cpp:386] relu3 -> conv3 (in-place)
I0403 13:30:35.618077 28293 net.cpp:141] Setting up relu3
I0403 13:30:35.618105 28293 net.cpp:148] Top shape: 100 384 13 13 (6489600)
I0403 13:30:35.618122 28293 net.cpp:156] Memory required for data: 731481200
I0403 13:30:35.618139 28293 layer_factory.hpp:77] Creating layer conv4
I0403 13:30:35.618165 28293 net.cpp:91] Creating Layer conv4
I0403 13:30:35.618183 28293 net.cpp:425] conv4 <- conv3
I0403 13:30:35.618206 28293 net.cpp:399] conv4 -> conv4
I0403 13:30:35.648749 28293 net.cpp:141] Setting up conv4
I0403 13:30:35.648826 28293 net.cpp:148] Top shape: 100 384 13 13 (6489600)
I0403 13:30:35.648876 28293 net.cpp:156] Memory required for data: 757439600
I0403 13:30:35.648898 28293 layer_factory.hpp:77] Creating layer relu4
I0403 13:30:35.648921 28293 net.cpp:91] Creating Layer relu4
I0403 13:30:35.648941 28293 net.cpp:425] relu4 <- conv4
I0403 13:30:35.648964 28293 net.cpp:386] relu4 -> conv4 (in-place)
I0403 13:30:35.649261 28293 net.cpp:141] Setting up relu4
I0403 13:30:35.649296 28293 net.cpp:148] Top shape: 100 384 13 13 (6489600)
I0403 13:30:35.649314 28293 net.cpp:156] Memory required for data: 783398000
I0403 13:30:35.649330 28293 layer_factory.hpp:77] Creating layer conv5
I0403 13:30:35.649355 28293 net.cpp:91] Creating Layer conv5
I0403 13:30:35.649374 28293 net.cpp:425] conv5 <- conv4
I0403 13:30:35.649394 28293 net.cpp:399] conv5 -> conv5
I0403 13:30:35.669795 28293 net.cpp:141] Setting up conv5
I0403 13:30:35.669850 28293 net.cpp:148] Top shape: 100 256 13 13 (4326400)
I0403 13:30:35.669868 28293 net.cpp:156] Memory required for data: 800703600
I0403 13:30:35.669894 28293 layer_factory.hpp:77] Creating layer relu5
I0403 13:30:35.669914 28293 net.cpp:91] Creating Layer relu5
I0403 13:30:35.669932 28293 net.cpp:425] relu5 <- conv5
I0403 13:30:35.669953 28293 net.cpp:386] relu5 -> conv5 (in-place)
I0403 13:30:35.670235 28293 net.cpp:141] Setting up relu5
I0403 13:30:35.670264 28293 net.cpp:148] Top shape: 100 256 13 13 (4326400)
I0403 13:30:35.670280 28293 net.cpp:156] Memory required for data: 818009200
I0403 13:30:35.670300 28293 layer_factory.hpp:77] Creating layer pool5
I0403 13:30:35.670326 28293 net.cpp:91] Creating Layer pool5
I0403 13:30:35.670346 28293 net.cpp:425] pool5 <- conv5
I0403 13:30:35.670366 28293 net.cpp:399] pool5 -> pool5
I0403 13:30:35.670428 28293 net.cpp:141] Setting up pool5
I0403 13:30:35.670454 28293 net.cpp:148] Top shape: 100 256 6 6 (921600)
I0403 13:30:35.670469 28293 net.cpp:156] Memory required for data: 821695600
I0403 13:30:35.670485 28293 layer_factory.hpp:77] Creating layer fc6
I0403 13:30:35.670512 28293 net.cpp:91] Creating Layer fc6
I0403 13:30:35.670531 28293 net.cpp:425] fc6 <- pool5
I0403 13:30:35.670552 28293 net.cpp:399] fc6 -> fc6
I0403 13:30:37.229176 28293 net.cpp:141] Setting up fc6
I0403 13:30:37.229219 28293 net.cpp:148] Top shape: 100 4096 (409600)
I0403 13:30:37.229236 28293 net.cpp:156] Memory required for data: 823334000
I0403 13:30:37.229259 28293 layer_factory.hpp:77] Creating layer relu6
I0403 13:30:37.229296 28293 net.cpp:91] Creating Layer relu6
I0403 13:30:37.229318 28293 net.cpp:425] relu6 <- fc6
I0403 13:30:37.229338 28293 net.cpp:386] relu6 -> fc6 (in-place)
I0403 13:30:37.229570 28293 net.cpp:141] Setting up relu6
I0403 13:30:37.229598 28293 net.cpp:148] Top shape: 100 4096 (409600)
I0403 13:30:37.229612 28293 net.cpp:156] Memory required for data: 824972400
I0403 13:30:37.229627 28293 layer_factory.hpp:77] Creating layer drop6
I0403 13:30:37.229646 28293 net.cpp:91] Creating Layer drop6
I0403 13:30:37.229662 28293 net.cpp:425] drop6 <- fc6
I0403 13:30:37.229682 28293 net.cpp:386] drop6 -> fc6 (in-place)
I0403 13:30:37.229746 28293 net.cpp:141] Setting up drop6
I0403 13:30:37.229773 28293 net.cpp:148] Top shape: 100 4096 (409600)
I0403 13:30:37.229789 28293 net.cpp:156] Memory required for data: 826610800
I0403 13:30:37.229816 28293 layer_factory.hpp:77] Creating layer fc7
I0403 13:30:37.229846 28293 net.cpp:91] Creating Layer fc7
I0403 13:30:37.229861 28293 net.cpp:425] fc7 <- fc6
I0403 13:30:37.229882 28293 net.cpp:399] fc7 -> fc7
I0403 13:30:37.915545 28293 net.cpp:141] Setting up fc7
I0403 13:30:37.915622 28293 net.cpp:148] Top shape: 100 4096 (409600)
I0403 13:30:37.915640 28293 net.cpp:156] Memory required for data: 828249200
I0403 13:30:37.915663 28293 layer_factory.hpp:77] Creating layer relu7
I0403 13:30:37.915684 28293 net.cpp:91] Creating Layer relu7
I0403 13:30:37.915702 28293 net.cpp:425] relu7 <- fc7
I0403 13:30:37.915725 28293 net.cpp:386] relu7 -> fc7 (in-place)
I0403 13:30:37.916134 28293 net.cpp:141] Setting up relu7
I0403 13:30:37.916164 28293 net.cpp:148] Top shape: 100 4096 (409600)
I0403 13:30:37.916211 28293 net.cpp:156] Memory required for data: 829887600
I0403 13:30:37.916229 28293 layer_factory.hpp:77] Creating layer drop7
I0403 13:30:37.916247 28293 net.cpp:91] Creating Layer drop7
I0403 13:30:37.916263 28293 net.cpp:425] drop7 <- fc7
I0403 13:30:37.916290 28293 net.cpp:386] drop7 -> fc7 (in-place)
I0403 13:30:37.916337 28293 net.cpp:141] Setting up drop7
I0403 13:30:37.916360 28293 net.cpp:148] Top shape: 100 4096 (409600)
I0403 13:30:37.916376 28293 net.cpp:156] Memory required for data: 831526000
I0403 13:30:37.916391 28293 layer_factory.hpp:77] Creating layer fc8_plantvillage
I0403 13:30:37.916414 28293 net.cpp:91] Creating Layer fc8_plantvillage
I0403 13:30:37.916431 28293 net.cpp:425] fc8_plantvillage <- fc7
I0403 13:30:37.916452 28293 net.cpp:399] fc8_plantvillage -> fc8_plantvillage
I0403 13:30:37.923193 28293 net.cpp:141] Setting up fc8_plantvillage
I0403 13:30:37.923221 28293 net.cpp:148] Top shape: 100 38 (3800)
I0403 13:30:37.923236 28293 net.cpp:156] Memory required for data: 831541200
I0403 13:30:37.923255 28293 layer_factory.hpp:77] Creating layer fc8_plantvillage_fc8_plantvillage_0_split
I0403 13:30:37.923274 28293 net.cpp:91] Creating Layer fc8_plantvillage_fc8_plantvillage_0_split
I0403 13:30:37.923305 28293 net.cpp:425] fc8_plantvillage_fc8_plantvillage_0_split <- fc8_plantvillage
I0403 13:30:37.923329 28293 net.cpp:399] fc8_plantvillage_fc8_plantvillage_0_split -> fc8_plantvillage_fc8_plantvillage_0_split_0
I0403 13:30:37.923352 28293 net.cpp:399] fc8_plantvillage_fc8_plantvillage_0_split -> fc8_plantvillage_fc8_plantvillage_0_split_1
I0403 13:30:37.923373 28293 net.cpp:399] fc8_plantvillage_fc8_plantvillage_0_split -> fc8_plantvillage_fc8_plantvillage_0_split_2
I0403 13:30:37.923451 28293 net.cpp:141] Setting up fc8_plantvillage_fc8_plantvillage_0_split
I0403 13:30:37.923476 28293 net.cpp:148] Top shape: 100 38 (3800)
I0403 13:30:37.923492 28293 net.cpp:148] Top shape: 100 38 (3800)
I0403 13:30:37.923508 28293 net.cpp:148] Top shape: 100 38 (3800)
I0403 13:30:37.923523 28293 net.cpp:156] Memory required for data: 831586800
I0403 13:30:37.923538 28293 layer_factory.hpp:77] Creating layer prob
I0403 13:30:37.923557 28293 net.cpp:91] Creating Layer prob
I0403 13:30:37.923573 28293 net.cpp:425] prob <- fc8_plantvillage_fc8_plantvillage_0_split_0
I0403 13:30:37.923593 28293 net.cpp:399] prob -> prob
I0403 13:30:37.923816 28293 net.cpp:141] Setting up prob
I0403 13:30:37.923846 28293 net.cpp:148] Top shape: 100 38 (3800)
I0403 13:30:37.923863 28293 net.cpp:156] Memory required for data: 831602000
I0403 13:30:37.923878 28293 layer_factory.hpp:77] Creating layer hdf5out
I0403 13:30:37.923898 28293 net.cpp:91] Creating Layer hdf5out
I0403 13:30:37.923914 28293 net.cpp:425] hdf5out <- prob
I0403 13:30:37.923931 28293 net.cpp:425] hdf5out <- label_data_1_split_0
I0403 13:30:37.927729 28293 net.cpp:141] Setting up hdf5out
…
