…
I0403 13:48:42.880270 28701 net.cpp:313] The NetState phase (1) differed from the phase (0) specified by a rule in layer data
I0403 13:48:42.880578 28701 net.cpp:49] Initializing net from parameters: 
state {
  phase: TEST
}
layer {
  name: "data"
  type: "Data"
  top: "data"
  top: "label"
  include {
    phase: TEST
  }
  transform_param {
    crop_size: 227
    mean_file: "/home/mohanty/data/final_dataset/lmdb/color-40-60/mean.binaryproto"
  }
  data_param {
    source: "/home/mohanty/data/final_dataset/lmdb/color-40-60/test_db"
    batch_size: 100
    backend: LMDB
  }
}
layer {
  name: "conv1"
  type: "Convolution"
  bottom: "data"
  top: "conv1"
  param {
    lr_mult: 1
    decay_mult: 1
  }
  param {
    lr_mult: 2
    decay_mult: 0
  }
  convolution_param {
    num_output: 96
    kernel_size: 11
    stride: 4
    weight_filler {
      type: "gaussian"
      std: 0.01
    }
    bias_filler {
      type: "constant"
      value: 0
    }
  }
}
layer {
  name: "relu1"
  type: "ReLU"
  bottom: "conv1"
  top: "conv1"
}
layer {
  name: "norm1"
  type: "LRN"
  bottom: "conv1"
  top: "norm1"
  lrn_param {
    local_size: 5
    alpha: 0.0001
    beta: 0.75
  }
}
layer {
  name: "pool1"
  type: "Pooling"
  bottom: "norm1"
  top: "pool1"
  pooling_param {
    pool: MAX
    kernel_size: 3
    stride: 2
  }
}
layer {
  name: "conv2"
  type: "Convolution"
  bottom: "pool1"
  top: "conv2"
  param {
    lr_mult: 1
    decay_mult: 1
  }
  param {
    lr_mult: 2
    decay_mult: 0
  }
  convolution_param {
    num_output: 256
    pad: 2
    kernel_size: 5
    group: 2
    weight_filler {
      type: "gaussian"
      std: 0.01
    }
    bias_filler {
      type: "constant"
      value: 0.1
    }
  }
}
layer {
  name: "relu2"
  type: "ReLU"
  bottom: "conv2"
  top: "conv2"
}
layer {
  name: "norm2"
  type: "LRN"
  bottom: "conv2"
  top: "norm2"
  lrn_param {
    local_size: 5
    alpha: 0.0001
    beta: 0.75
  }
}
layer {
  name: "pool2"
  type: "Pooling"
  bottom: "norm2"
  top: "pool2"
  pooling_param {
    pool: MAX
    kernel_size: 3
    stride: 2
  }
}
layer {
  name: "conv3"
  type: "Convolution"
  bottom: "pool2"
  top: "conv3"
  param {
    lr_mult: 1
    decay_mult: 1
  }
  param {
    lr_mult: 2
    decay_mult: 0
  }
  convolution_param {
    num_output: 384
    pad: 1
    kernel_size: 3
    weight_filler {
      type: "gaussian"
      std: 0.01
    }
    bias_filler {
      type: "constant"
      value: 0
    }
  }
}
layer {
  name: "relu3"
  type: "ReLU"
  bottom: "conv3"
  top: "conv3"
}
layer {
  name: "conv4"
  type: "Convolution"
  bottom: "conv3"
  top: "conv4"
  param {
    lr_mult: 1
    decay_mult: 1
  }
  param {
    lr_mult: 2
    decay_mult: 0
  }
  convolution_param {
    num_output: 384
    pad: 1
    kernel_size: 3
    group: 2
    weight_filler {
      type: "gaussian"
      std: 0.01
    }
    bias_filler {
      type: "constant"
      value: 0.1
    }
  }
}
layer {
  name: "relu4"
  type: "ReLU"
  bottom: "conv4"
  top: "conv4"
}
layer {
  name: "conv5"
  type: "Convolution"
  bottom: "conv4"
  top: "conv5"
  param {
    lr_mult: 1
    decay_mult: 1
  }
  param {
    lr_mult: 2
    decay_mult: 0
  }
  convolution_param {
    num_output: 256
    pad: 1
    kernel_size: 3
    group: 2
    weight_filler {
      type: "gaussian"
      std: 0.01
    }
    bias_filler {
      type: "constant"
      value: 0.1
    }
  }
}
layer {
  name: "relu5"
  type: "ReLU"
  bottom: "conv5"
  top: "conv5"
}
layer {
  name: "pool5"
  type: "Pooling"
  bottom: "conv5"
  top: "pool5"
  pooling_param {
    pool: MAX
    kernel_size: 3
    stride: 2
  }
}
layer {
  name: "fc6"
  type: "InnerProduct"
  bottom: "pool5"
  top: "fc6"
  param {
    lr_mult: 1
    decay_mult: 1
  }
  param {
    lr_mult: 2
    decay_mult: 0
  }
  inner_product_param {
    num_output: 4096
    weight_filler {
      type: "gaussian"
      std: 0.005
    }
    bias_filler {
      type: "constant"
      value: 0.1
    }
  }
}
layer {
  name: "relu6"
  type: "ReLU"
  bottom: "fc6"
  top: "fc6"
}
layer {
  name: "drop6"
  type: "Dropout"
  bottom: "fc6"
  top: "fc6"
  dropout_param {
    dropout_ratio: 0.5
  }
}
layer {
  name: "fc7"
  type: "InnerProduct"
  bottom: "fc6"
  top: "fc7"
  param {
    lr_mult: 1
    decay_mult: 1
  }
  param {
    lr_mult: 2
    decay_mult: 0
  }
  inner_product_param {
    num_output: 4096
    weight_filler {
      type: "gaussian"
      std: 0.005
    }
    bias_filler {
      type: "constant"
      value: 0.1
    }
  }
}
layer {
  name: "relu7"
  type: "ReLU"
  bottom: "fc7"
  top: "fc7"
}
layer {
  name: "drop7"
  type: "Dropout"
  bottom: "fc7"
  top: "fc7"
  dropout_param {
    dropout_ratio: 0.5
  }
}
layer {
  name: "fc8_plantvillage"
  type: "InnerProduct"
  bottom: "fc7"
  top: "fc8_plantvillage"
  param {
    lr_mult: 1
    decay_mult: 1
  }
  param {
    lr_mult: 2
    decay_mult: 0
  }
  inner_product_param {
    num_output: 38
    weight_filler {
      type: "gaussian"
      std: 0.01
    }
    bias_filler {
      type: "constant"
      value: 0
    }
  }
}
layer {
  name: "prob"
  type: "Softmax"
  bottom: "fc8_plantvillage"
  top: "prob"
  include {
    phase: TEST
  }
}
layer {
  name: "hdf5out"
  type: "HDF5Output"
  bottom: "prob"
  bottom: "label"
  include {
    phase: TEST
  }
  hdf5_output_param {
    file_name: "hdf5_dumps/iter_3906.h5"
  }
}
layer {
  name: "loss"
  type: "SoftmaxWithLoss"
  bottom: "fc8_plantvillage"
  bottom: "label"
  top: "loss"
}
layer {
  name: "accuracy"
  type: "Accuracy"
  bottom: "fc8_plantvillage"
  bottom: "label"
  top: "accuracy"
  include {
    phase: TEST
  }
}
I0403 13:48:42.881278 28701 layer_factory.hpp:77] Creating layer data
I0403 13:48:42.881943 28701 net.cpp:91] Creating Layer data
I0403 13:48:42.881978 28701 net.cpp:399] data -> data
I0403 13:48:42.882030 28701 net.cpp:399] data -> label
I0403 13:48:42.882068 28701 data_transformer.cpp:25] Loading mean file from: /home/mohanty/data/final_dataset/lmdb/color-40-60/mean.binaryproto
I0403 13:48:42.884554 28704 db_lmdb.cpp:38] Opened lmdb /home/mohanty/data/final_dataset/lmdb/color-40-60/test_db
I0403 13:48:42.896800 28701 data_layer.cpp:41] output data size: 100,3,227,227
I0403 13:48:43.030449 28701 net.cpp:141] Setting up data
I0403 13:48:43.030542 28701 net.cpp:148] Top shape: 100 3 227 227 (15458700)
I0403 13:48:43.030567 28701 net.cpp:148] Top shape: 100 (100)
I0403 13:48:43.030583 28701 net.cpp:156] Memory required for data: 61835200
I0403 13:48:43.030613 28701 layer_factory.hpp:77] Creating layer label_data_1_split
I0403 13:48:43.030640 28701 net.cpp:91] Creating Layer label_data_1_split
I0403 13:48:43.030660 28701 net.cpp:425] label_data_1_split <- label
I0403 13:48:43.030694 28701 net.cpp:399] label_data_1_split -> label_data_1_split_0
I0403 13:48:43.030722 28701 net.cpp:399] label_data_1_split -> label_data_1_split_1
I0403 13:48:43.030745 28701 net.cpp:399] label_data_1_split -> label_data_1_split_2
I0403 13:48:43.030808 28701 net.cpp:141] Setting up label_data_1_split
I0403 13:48:43.030834 28701 net.cpp:148] Top shape: 100 (100)
I0403 13:48:43.030851 28701 net.cpp:148] Top shape: 100 (100)
I0403 13:48:43.030869 28701 net.cpp:148] Top shape: 100 (100)
I0403 13:48:43.030884 28701 net.cpp:156] Memory required for data: 61836400
I0403 13:48:43.030900 28701 layer_factory.hpp:77] Creating layer conv1
I0403 13:48:43.030935 28701 net.cpp:91] Creating Layer conv1
I0403 13:48:43.030954 28701 net.cpp:425] conv1 <- data
I0403 13:48:43.030975 28701 net.cpp:399] conv1 -> conv1
I0403 13:48:43.178902 28701 net.cpp:141] Setting up conv1
I0403 13:48:43.178980 28701 net.cpp:148] Top shape: 100 96 55 55 (29040000)
I0403 13:48:43.178999 28701 net.cpp:156] Memory required for data: 177996400
I0403 13:48:43.179036 28701 layer_factory.hpp:77] Creating layer relu1
I0403 13:48:43.179065 28701 net.cpp:91] Creating Layer relu1
I0403 13:48:43.179085 28701 net.cpp:425] relu1 <- conv1
I0403 13:48:43.179106 28701 net.cpp:386] relu1 -> conv1 (in-place)
I0403 13:48:43.179401 28701 net.cpp:141] Setting up relu1
I0403 13:48:43.179431 28701 net.cpp:148] Top shape: 100 96 55 55 (29040000)
I0403 13:48:43.179450 28701 net.cpp:156] Memory required for data: 294156400
I0403 13:48:43.179502 28701 layer_factory.hpp:77] Creating layer norm1
I0403 13:48:43.179534 28701 net.cpp:91] Creating Layer norm1
I0403 13:48:43.179568 28701 net.cpp:425] norm1 <- conv1
I0403 13:48:43.179586 28701 net.cpp:399] norm1 -> norm1
I0403 13:48:43.179925 28701 net.cpp:141] Setting up norm1
I0403 13:48:43.179957 28701 net.cpp:148] Top shape: 100 96 55 55 (29040000)
I0403 13:48:43.179975 28701 net.cpp:156] Memory required for data: 410316400
I0403 13:48:43.179993 28701 layer_factory.hpp:77] Creating layer pool1
I0403 13:48:43.180016 28701 net.cpp:91] Creating Layer pool1
I0403 13:48:43.180034 28701 net.cpp:425] pool1 <- norm1
I0403 13:48:43.180058 28701 net.cpp:399] pool1 -> pool1
I0403 13:48:43.180131 28701 net.cpp:141] Setting up pool1
I0403 13:48:43.180160 28701 net.cpp:148] Top shape: 100 96 27 27 (6998400)
I0403 13:48:43.180176 28701 net.cpp:156] Memory required for data: 438310000
I0403 13:48:43.180193 28701 layer_factory.hpp:77] Creating layer conv2
I0403 13:48:43.180219 28701 net.cpp:91] Creating Layer conv2
I0403 13:48:43.180238 28701 net.cpp:425] conv2 <- pool1
I0403 13:48:43.180260 28701 net.cpp:399] conv2 -> conv2
I0403 13:48:43.195253 28701 net.cpp:141] Setting up conv2
I0403 13:48:43.195305 28701 net.cpp:148] Top shape: 100 256 27 27 (18662400)
I0403 13:48:43.195325 28701 net.cpp:156] Memory required for data: 512959600
I0403 13:48:43.195349 28701 layer_factory.hpp:77] Creating layer relu2
I0403 13:48:43.195372 28701 net.cpp:91] Creating Layer relu2
I0403 13:48:43.195390 28701 net.cpp:425] relu2 <- conv2
I0403 13:48:43.195412 28701 net.cpp:386] relu2 -> conv2 (in-place)
I0403 13:48:43.195705 28701 net.cpp:141] Setting up relu2
I0403 13:48:43.195734 28701 net.cpp:148] Top shape: 100 256 27 27 (18662400)
I0403 13:48:43.195750 28701 net.cpp:156] Memory required for data: 587609200
I0403 13:48:43.195767 28701 layer_factory.hpp:77] Creating layer norm2
I0403 13:48:43.195791 28701 net.cpp:91] Creating Layer norm2
I0403 13:48:43.195809 28701 net.cpp:425] norm2 <- conv2
I0403 13:48:43.195828 28701 net.cpp:399] norm2 -> norm2
I0403 13:48:43.196027 28701 net.cpp:141] Setting up norm2
I0403 13:48:43.196053 28701 net.cpp:148] Top shape: 100 256 27 27 (18662400)
I0403 13:48:43.196069 28701 net.cpp:156] Memory required for data: 662258800
I0403 13:48:43.196084 28701 layer_factory.hpp:77] Creating layer pool2
I0403 13:48:43.196104 28701 net.cpp:91] Creating Layer pool2
I0403 13:48:43.196120 28701 net.cpp:425] pool2 <- norm2
I0403 13:48:43.196148 28701 net.cpp:399] pool2 -> pool2
I0403 13:48:43.196202 28701 net.cpp:141] Setting up pool2
I0403 13:48:43.196226 28701 net.cpp:148] Top shape: 100 256 13 13 (4326400)
I0403 13:48:43.196241 28701 net.cpp:156] Memory required for data: 679564400
I0403 13:48:43.196257 28701 layer_factory.hpp:77] Creating layer conv3
I0403 13:48:43.196290 28701 net.cpp:91] Creating Layer conv3
I0403 13:48:43.196324 28701 net.cpp:425] conv3 <- pool2
I0403 13:48:43.196346 28701 net.cpp:399] conv3 -> conv3
I0403 13:48:43.235522 28701 net.cpp:141] Setting up conv3
I0403 13:48:43.235596 28701 net.cpp:148] Top shape: 100 384 13 13 (6489600)
I0403 13:48:43.235616 28701 net.cpp:156] Memory required for data: 705522800
I0403 13:48:43.235646 28701 layer_factory.hpp:77] Creating layer relu3
I0403 13:48:43.235669 28701 net.cpp:91] Creating Layer relu3
I0403 13:48:43.235688 28701 net.cpp:425] relu3 <- conv3
I0403 13:48:43.235712 28701 net.cpp:386] relu3 -> conv3 (in-place)
I0403 13:48:43.235987 28701 net.cpp:141] Setting up relu3
I0403 13:48:43.236017 28701 net.cpp:148] Top shape: 100 384 13 13 (6489600)
I0403 13:48:43.236037 28701 net.cpp:156] Memory required for data: 731481200
I0403 13:48:43.236054 28701 layer_factory.hpp:77] Creating layer conv4
I0403 13:48:43.236083 28701 net.cpp:91] Creating Layer conv4
I0403 13:48:43.236101 28701 net.cpp:425] conv4 <- conv3
I0403 13:48:43.236124 28701 net.cpp:399] conv4 -> conv4
I0403 13:48:43.265969 28701 net.cpp:141] Setting up conv4
I0403 13:48:43.266034 28701 net.cpp:148] Top shape: 100 384 13 13 (6489600)
I0403 13:48:43.266085 28701 net.cpp:156] Memory required for data: 757439600
I0403 13:48:43.266109 28701 layer_factory.hpp:77] Creating layer relu4
I0403 13:48:43.266132 28701 net.cpp:91] Creating Layer relu4
I0403 13:48:43.266151 28701 net.cpp:425] relu4 <- conv4
I0403 13:48:43.266175 28701 net.cpp:386] relu4 -> conv4 (in-place)
I0403 13:48:43.266489 28701 net.cpp:141] Setting up relu4
I0403 13:48:43.266521 28701 net.cpp:148] Top shape: 100 384 13 13 (6489600)
I0403 13:48:43.266541 28701 net.cpp:156] Memory required for data: 783398000
I0403 13:48:43.266569 28701 layer_factory.hpp:77] Creating layer conv5
I0403 13:48:43.266597 28701 net.cpp:91] Creating Layer conv5
I0403 13:48:43.266618 28701 net.cpp:425] conv5 <- conv4
I0403 13:48:43.266638 28701 net.cpp:399] conv5 -> conv5
I0403 13:48:43.287281 28701 net.cpp:141] Setting up conv5
I0403 13:48:43.287340 28701 net.cpp:148] Top shape: 100 256 13 13 (4326400)
I0403 13:48:43.287360 28701 net.cpp:156] Memory required for data: 800703600
I0403 13:48:43.287386 28701 layer_factory.hpp:77] Creating layer relu5
I0403 13:48:43.287408 28701 net.cpp:91] Creating Layer relu5
I0403 13:48:43.287427 28701 net.cpp:425] relu5 <- conv5
I0403 13:48:43.287451 28701 net.cpp:386] relu5 -> conv5 (in-place)
I0403 13:48:43.287735 28701 net.cpp:141] Setting up relu5
I0403 13:48:43.287763 28701 net.cpp:148] Top shape: 100 256 13 13 (4326400)
I0403 13:48:43.287780 28701 net.cpp:156] Memory required for data: 818009200
I0403 13:48:43.287796 28701 layer_factory.hpp:77] Creating layer pool5
I0403 13:48:43.287818 28701 net.cpp:91] Creating Layer pool5
I0403 13:48:43.287839 28701 net.cpp:425] pool5 <- conv5
I0403 13:48:43.287863 28701 net.cpp:399] pool5 -> pool5
I0403 13:48:43.287926 28701 net.cpp:141] Setting up pool5
I0403 13:48:43.287952 28701 net.cpp:148] Top shape: 100 256 6 6 (921600)
I0403 13:48:43.287969 28701 net.cpp:156] Memory required for data: 821695600
I0403 13:48:43.287986 28701 layer_factory.hpp:77] Creating layer fc6
I0403 13:48:43.288017 28701 net.cpp:91] Creating Layer fc6
I0403 13:48:43.288038 28701 net.cpp:425] fc6 <- pool5
I0403 13:48:43.288058 28701 net.cpp:399] fc6 -> fc6
I0403 13:48:44.897658 28701 net.cpp:141] Setting up fc6
I0403 13:48:44.897738 28701 net.cpp:148] Top shape: 100 4096 (409600)
I0403 13:48:44.897755 28701 net.cpp:156] Memory required for data: 823334000
I0403 13:48:44.897780 28701 layer_factory.hpp:77] Creating layer relu6
I0403 13:48:44.897806 28701 net.cpp:91] Creating Layer relu6
I0403 13:48:44.897826 28701 net.cpp:425] relu6 <- fc6
I0403 13:48:44.897847 28701 net.cpp:386] relu6 -> fc6 (in-place)
I0403 13:48:44.898079 28701 net.cpp:141] Setting up relu6
I0403 13:48:44.898107 28701 net.cpp:148] Top shape: 100 4096 (409600)
I0403 13:48:44.898121 28701 net.cpp:156] Memory required for data: 824972400
I0403 13:48:44.898138 28701 layer_factory.hpp:77] Creating layer drop6
I0403 13:48:44.898157 28701 net.cpp:91] Creating Layer drop6
I0403 13:48:44.898174 28701 net.cpp:425] drop6 <- fc6
I0403 13:48:44.898193 28701 net.cpp:386] drop6 -> fc6 (in-place)
I0403 13:48:44.898247 28701 net.cpp:141] Setting up drop6
I0403 13:48:44.898272 28701 net.cpp:148] Top shape: 100 4096 (409600)
I0403 13:48:44.898298 28701 net.cpp:156] Memory required for data: 826610800
I0403 13:48:44.898315 28701 layer_factory.hpp:77] Creating layer fc7
I0403 13:48:44.898350 28701 net.cpp:91] Creating Layer fc7
I0403 13:48:44.898365 28701 net.cpp:425] fc7 <- fc6
I0403 13:48:44.898388 28701 net.cpp:399] fc7 -> fc7
I0403 13:48:45.606384 28701 net.cpp:141] Setting up fc7
I0403 13:48:45.606461 28701 net.cpp:148] Top shape: 100 4096 (409600)
I0403 13:48:45.606479 28701 net.cpp:156] Memory required for data: 828249200
I0403 13:48:45.606501 28701 layer_factory.hpp:77] Creating layer relu7
I0403 13:48:45.606524 28701 net.cpp:91] Creating Layer relu7
I0403 13:48:45.606544 28701 net.cpp:425] relu7 <- fc7
I0403 13:48:45.606566 28701 net.cpp:386] relu7 -> fc7 (in-place)
I0403 13:48:45.606959 28701 net.cpp:141] Setting up relu7
I0403 13:48:45.606988 28701 net.cpp:148] Top shape: 100 4096 (409600)
I0403 13:48:45.607038 28701 net.cpp:156] Memory required for data: 829887600
I0403 13:48:45.607054 28701 layer_factory.hpp:77] Creating layer drop7
I0403 13:48:45.607074 28701 net.cpp:91] Creating Layer drop7
I0403 13:48:45.607090 28701 net.cpp:425] drop7 <- fc7
I0403 13:48:45.607111 28701 net.cpp:386] drop7 -> fc7 (in-place)
I0403 13:48:45.607157 28701 net.cpp:141] Setting up drop7
I0403 13:48:45.607180 28701 net.cpp:148] Top shape: 100 4096 (409600)
I0403 13:48:45.607197 28701 net.cpp:156] Memory required for data: 831526000
I0403 13:48:45.607211 28701 layer_factory.hpp:77] Creating layer fc8_plantvillage
I0403 13:48:45.607234 28701 net.cpp:91] Creating Layer fc8_plantvillage
I0403 13:48:45.607251 28701 net.cpp:425] fc8_plantvillage <- fc7
I0403 13:48:45.607273 28701 net.cpp:399] fc8_plantvillage -> fc8_plantvillage
I0403 13:48:45.614296 28701 net.cpp:141] Setting up fc8_plantvillage
I0403 13:48:45.614326 28701 net.cpp:148] Top shape: 100 38 (3800)
I0403 13:48:45.614342 28701 net.cpp:156] Memory required for data: 831541200
I0403 13:48:45.614362 28701 layer_factory.hpp:77] Creating layer fc8_plantvillage_fc8_plantvillage_0_split
I0403 13:48:45.614383 28701 net.cpp:91] Creating Layer fc8_plantvillage_fc8_plantvillage_0_split
I0403 13:48:45.614400 28701 net.cpp:425] fc8_plantvillage_fc8_plantvillage_0_split <- fc8_plantvillage
I0403 13:48:45.614423 28701 net.cpp:399] fc8_plantvillage_fc8_plantvillage_0_split -> fc8_plantvillage_fc8_plantvillage_0_split_0
I0403 13:48:45.614444 28701 net.cpp:399] fc8_plantvillage_fc8_plantvillage_0_split -> fc8_plantvillage_fc8_plantvillage_0_split_1
I0403 13:48:45.614464 28701 net.cpp:399] fc8_plantvillage_fc8_plantvillage_0_split -> fc8_plantvillage_fc8_plantvillage_0_split_2
I0403 13:48:45.614543 28701 net.cpp:141] Setting up fc8_plantvillage_fc8_plantvillage_0_split
I0403 13:48:45.614569 28701 net.cpp:148] Top shape: 100 38 (3800)
I0403 13:48:45.614588 28701 net.cpp:148] Top shape: 100 38 (3800)
I0403 13:48:45.614604 28701 net.cpp:148] Top shape: 100 38 (3800)
I0403 13:48:45.614619 28701 net.cpp:156] Memory required for data: 831586800
I0403 13:48:45.614634 28701 layer_factory.hpp:77] Creating layer prob
I0403 13:48:45.614653 28701 net.cpp:91] Creating Layer prob
I0403 13:48:45.614670 28701 net.cpp:425] prob <- fc8_plantvillage_fc8_plantvillage_0_split_0
I0403 13:48:45.614691 28701 net.cpp:399] prob -> prob
I0403 13:48:45.614917 28701 net.cpp:141] Setting up prob
I0403 13:48:45.614946 28701 net.cpp:148] Top shape: 100 38 (3800)
I0403 13:48:45.614964 28701 net.cpp:156] Memory required for data: 831602000
I0403 13:48:45.614980 28701 layer_factory.hpp:77] Creating layer hdf5out
I0403 13:48:45.615000 28701 net.cpp:91] Creating Layer hdf5out
I0403 13:48:45.615017 28701 net.cpp:425] hdf5out <- prob
I0403 13:48:45.615036 28701 net.cpp:425] hdf5out <- label_data_1_split_0
I0403 13:48:45.642192 28701 net.cpp:141] Setting up hdf5out
…
