…
I0403 13:31:42.593714 28310 net.cpp:313] The NetState phase (1) differed from the phase (0) specified by a rule in layer data
I0403 13:31:42.594025 28310 net.cpp:49] Initializing net from parameters: 
state {
  phase: TEST
}
layer {
  name: "data"
  type: "Data"
  top: "data"
  top: "label"
  include {
    phase: TEST
  }
  transform_param {
    crop_size: 227
    mean_file: "/home/mohanty/data/final_dataset/lmdb/color-40-60/mean.binaryproto"
  }
  data_param {
    source: "/home/mohanty/data/final_dataset/lmdb/color-40-60/test_db"
    batch_size: 100
    backend: LMDB
  }
}
layer {
  name: "conv1"
  type: "Convolution"
  bottom: "data"
  top: "conv1"
  param {
    lr_mult: 1
    decay_mult: 1
  }
  param {
    lr_mult: 2
    decay_mult: 0
  }
  convolution_param {
    num_output: 96
    kernel_size: 11
    stride: 4
    weight_filler {
      type: "gaussian"
      std: 0.01
    }
    bias_filler {
      type: "constant"
      value: 0
    }
  }
}
layer {
  name: "relu1"
  type: "ReLU"
  bottom: "conv1"
  top: "conv1"
}
layer {
  name: "norm1"
  type: "LRN"
  bottom: "conv1"
  top: "norm1"
  lrn_param {
    local_size: 5
    alpha: 0.0001
    beta: 0.75
  }
}
layer {
  name: "pool1"
  type: "Pooling"
  bottom: "norm1"
  top: "pool1"
  pooling_param {
    pool: MAX
    kernel_size: 3
    stride: 2
  }
}
layer {
  name: "conv2"
  type: "Convolution"
  bottom: "pool1"
  top: "conv2"
  param {
    lr_mult: 1
    decay_mult: 1
  }
  param {
    lr_mult: 2
    decay_mult: 0
  }
  convolution_param {
    num_output: 256
    pad: 2
    kernel_size: 5
    group: 2
    weight_filler {
      type: "gaussian"
      std: 0.01
    }
    bias_filler {
      type: "constant"
      value: 0.1
    }
  }
}
layer {
  name: "relu2"
  type: "ReLU"
  bottom: "conv2"
  top: "conv2"
}
layer {
  name: "norm2"
  type: "LRN"
  bottom: "conv2"
  top: "norm2"
  lrn_param {
    local_size: 5
    alpha: 0.0001
    beta: 0.75
  }
}
layer {
  name: "pool2"
  type: "Pooling"
  bottom: "norm2"
  top: "pool2"
  pooling_param {
    pool: MAX
    kernel_size: 3
    stride: 2
  }
}
layer {
  name: "conv3"
  type: "Convolution"
  bottom: "pool2"
  top: "conv3"
  param {
    lr_mult: 1
    decay_mult: 1
  }
  param {
    lr_mult: 2
    decay_mult: 0
  }
  convolution_param {
    num_output: 384
    pad: 1
    kernel_size: 3
    weight_filler {
      type: "gaussian"
      std: 0.01
    }
    bias_filler {
      type: "constant"
      value: 0
    }
  }
}
layer {
  name: "relu3"
  type: "ReLU"
  bottom: "conv3"
  top: "conv3"
}
layer {
  name: "conv4"
  type: "Convolution"
  bottom: "conv3"
  top: "conv4"
  param {
    lr_mult: 1
    decay_mult: 1
  }
  param {
    lr_mult: 2
    decay_mult: 0
  }
  convolution_param {
    num_output: 384
    pad: 1
    kernel_size: 3
    group: 2
    weight_filler {
      type: "gaussian"
      std: 0.01
    }
    bias_filler {
      type: "constant"
      value: 0.1
    }
  }
}
layer {
  name: "relu4"
  type: "ReLU"
  bottom: "conv4"
  top: "conv4"
}
layer {
  name: "conv5"
  type: "Convolution"
  bottom: "conv4"
  top: "conv5"
  param {
    lr_mult: 1
    decay_mult: 1
  }
  param {
    lr_mult: 2
    decay_mult: 0
  }
  convolution_param {
    num_output: 256
    pad: 1
    kernel_size: 3
    group: 2
    weight_filler {
      type: "gaussian"
      std: 0.01
    }
    bias_filler {
      type: "constant"
      value: 0.1
    }
  }
}
layer {
  name: "relu5"
  type: "ReLU"
  bottom: "conv5"
  top: "conv5"
}
layer {
  name: "pool5"
  type: "Pooling"
  bottom: "conv5"
  top: "pool5"
  pooling_param {
    pool: MAX
    kernel_size: 3
    stride: 2
  }
}
layer {
  name: "fc6"
  type: "InnerProduct"
  bottom: "pool5"
  top: "fc6"
  param {
    lr_mult: 1
    decay_mult: 1
  }
  param {
    lr_mult: 2
    decay_mult: 0
  }
  inner_product_param {
    num_output: 4096
    weight_filler {
      type: "gaussian"
      std: 0.005
    }
    bias_filler {
      type: "constant"
      value: 0.1
    }
  }
}
layer {
  name: "relu6"
  type: "ReLU"
  bottom: "fc6"
  top: "fc6"
}
layer {
  name: "drop6"
  type: "Dropout"
  bottom: "fc6"
  top: "fc6"
  dropout_param {
    dropout_ratio: 0.5
  }
}
layer {
  name: "fc7"
  type: "InnerProduct"
  bottom: "fc6"
  top: "fc7"
  param {
    lr_mult: 1
    decay_mult: 1
  }
  param {
    lr_mult: 2
    decay_mult: 0
  }
  inner_product_param {
    num_output: 4096
    weight_filler {
      type: "gaussian"
      std: 0.005
    }
    bias_filler {
      type: "constant"
      value: 0.1
    }
  }
}
layer {
  name: "relu7"
  type: "ReLU"
  bottom: "fc7"
  top: "fc7"
}
layer {
  name: "drop7"
  type: "Dropout"
  bottom: "fc7"
  top: "fc7"
  dropout_param {
    dropout_ratio: 0.5
  }
}
layer {
  name: "fc8_plantvillage"
  type: "InnerProduct"
  bottom: "fc7"
  top: "fc8_plantvillage"
  param {
    lr_mult: 1
    decay_mult: 1
  }
  param {
    lr_mult: 2
    decay_mult: 0
  }
  inner_product_param {
    num_output: 38
    weight_filler {
      type: "gaussian"
      std: 0.01
    }
    bias_filler {
      type: "constant"
      value: 0
    }
  }
}
layer {
  name: "prob"
  type: "Softmax"
  bottom: "fc8_plantvillage"
  top: "prob"
  include {
    phase: TEST
  }
}
layer {
  name: "hdf5out"
  type: "HDF5Output"
  bottom: "prob"
  bottom: "label"
  include {
    phase: TEST
  }
  hdf5_output_param {
    file_name: "hdf5_dumps/iter_651.h5"
  }
}
layer {
  name: "loss"
  type: "SoftmaxWithLoss"
  bottom: "fc8_plantvillage"
  bottom: "label"
  top: "loss"
}
layer {
  name: "accuracy"
  type: "Accuracy"
  bottom: "fc8_plantvillage"
  bottom: "label"
  top: "accuracy"
  include {
    phase: TEST
  }
}
I0403 13:31:42.594647 28310 layer_factory.hpp:77] Creating layer data
I0403 13:31:42.595316 28310 net.cpp:91] Creating Layer data
I0403 13:31:42.595348 28310 net.cpp:399] data -> data
I0403 13:31:42.595402 28310 net.cpp:399] data -> label
I0403 13:31:42.595443 28310 data_transformer.cpp:25] Loading mean file from: /home/mohanty/data/final_dataset/lmdb/color-40-60/mean.binaryproto
I0403 13:31:42.598383 28313 db_lmdb.cpp:38] Opened lmdb /home/mohanty/data/final_dataset/lmdb/color-40-60/test_db
I0403 13:31:42.609870 28310 data_layer.cpp:41] output data size: 100,3,227,227
I0403 13:31:42.741302 28310 net.cpp:141] Setting up data
I0403 13:31:42.741394 28310 net.cpp:148] Top shape: 100 3 227 227 (15458700)
I0403 13:31:42.741417 28310 net.cpp:148] Top shape: 100 (100)
I0403 13:31:42.741433 28310 net.cpp:156] Memory required for data: 61835200
I0403 13:31:42.741461 28310 layer_factory.hpp:77] Creating layer label_data_1_split
I0403 13:31:42.741487 28310 net.cpp:91] Creating Layer label_data_1_split
I0403 13:31:42.741506 28310 net.cpp:425] label_data_1_split <- label
I0403 13:31:42.741538 28310 net.cpp:399] label_data_1_split -> label_data_1_split_0
I0403 13:31:42.741566 28310 net.cpp:399] label_data_1_split -> label_data_1_split_1
I0403 13:31:42.741588 28310 net.cpp:399] label_data_1_split -> label_data_1_split_2
I0403 13:31:42.741652 28310 net.cpp:141] Setting up label_data_1_split
I0403 13:31:42.741677 28310 net.cpp:148] Top shape: 100 (100)
I0403 13:31:42.741694 28310 net.cpp:148] Top shape: 100 (100)
I0403 13:31:42.741713 28310 net.cpp:148] Top shape: 100 (100)
I0403 13:31:42.741727 28310 net.cpp:156] Memory required for data: 61836400
I0403 13:31:42.741744 28310 layer_factory.hpp:77] Creating layer conv1
I0403 13:31:42.741775 28310 net.cpp:91] Creating Layer conv1
I0403 13:31:42.741794 28310 net.cpp:425] conv1 <- data
I0403 13:31:42.741813 28310 net.cpp:399] conv1 -> conv1
I0403 13:31:42.888723 28310 net.cpp:141] Setting up conv1
I0403 13:31:42.888802 28310 net.cpp:148] Top shape: 100 96 55 55 (29040000)
I0403 13:31:42.888820 28310 net.cpp:156] Memory required for data: 177996400
I0403 13:31:42.888865 28310 layer_factory.hpp:77] Creating layer relu1
I0403 13:31:42.888897 28310 net.cpp:91] Creating Layer relu1
I0403 13:31:42.888916 28310 net.cpp:425] relu1 <- conv1
I0403 13:31:42.888936 28310 net.cpp:386] relu1 -> conv1 (in-place)
I0403 13:31:42.889214 28310 net.cpp:141] Setting up relu1
I0403 13:31:42.889243 28310 net.cpp:148] Top shape: 100 96 55 55 (29040000)
I0403 13:31:42.889258 28310 net.cpp:156] Memory required for data: 294156400
I0403 13:31:42.889312 28310 layer_factory.hpp:77] Creating layer norm1
I0403 13:31:42.889343 28310 net.cpp:91] Creating Layer norm1
I0403 13:31:42.889364 28310 net.cpp:425] norm1 <- conv1
I0403 13:31:42.889385 28310 net.cpp:399] norm1 -> norm1
I0403 13:31:42.889717 28310 net.cpp:141] Setting up norm1
I0403 13:31:42.889750 28310 net.cpp:148] Top shape: 100 96 55 55 (29040000)
I0403 13:31:42.889766 28310 net.cpp:156] Memory required for data: 410316400
I0403 13:31:42.889786 28310 layer_factory.hpp:77] Creating layer pool1
I0403 13:31:42.889812 28310 net.cpp:91] Creating Layer pool1
I0403 13:31:42.889829 28310 net.cpp:425] pool1 <- norm1
I0403 13:31:42.889850 28310 net.cpp:399] pool1 -> pool1
I0403 13:31:42.889925 28310 net.cpp:141] Setting up pool1
I0403 13:31:42.889950 28310 net.cpp:148] Top shape: 100 96 27 27 (6998400)
I0403 13:31:42.889966 28310 net.cpp:156] Memory required for data: 438310000
I0403 13:31:42.889981 28310 layer_factory.hpp:77] Creating layer conv2
I0403 13:31:42.890009 28310 net.cpp:91] Creating Layer conv2
I0403 13:31:42.890028 28310 net.cpp:425] conv2 <- pool1
I0403 13:31:42.890048 28310 net.cpp:399] conv2 -> conv2
I0403 13:31:42.905177 28310 net.cpp:141] Setting up conv2
I0403 13:31:42.905227 28310 net.cpp:148] Top shape: 100 256 27 27 (18662400)
I0403 13:31:42.905246 28310 net.cpp:156] Memory required for data: 512959600
I0403 13:31:42.905269 28310 layer_factory.hpp:77] Creating layer relu2
I0403 13:31:42.905294 28310 net.cpp:91] Creating Layer relu2
I0403 13:31:42.905313 28310 net.cpp:425] relu2 <- conv2
I0403 13:31:42.905335 28310 net.cpp:386] relu2 -> conv2 (in-place)
I0403 13:31:42.905616 28310 net.cpp:141] Setting up relu2
I0403 13:31:42.905644 28310 net.cpp:148] Top shape: 100 256 27 27 (18662400)
I0403 13:31:42.905660 28310 net.cpp:156] Memory required for data: 587609200
I0403 13:31:42.905676 28310 layer_factory.hpp:77] Creating layer norm2
I0403 13:31:42.905700 28310 net.cpp:91] Creating Layer norm2
I0403 13:31:42.905719 28310 net.cpp:425] norm2 <- conv2
I0403 13:31:42.905738 28310 net.cpp:399] norm2 -> norm2
I0403 13:31:42.905941 28310 net.cpp:141] Setting up norm2
I0403 13:31:42.905969 28310 net.cpp:148] Top shape: 100 256 27 27 (18662400)
I0403 13:31:42.905985 28310 net.cpp:156] Memory required for data: 662258800
I0403 13:31:42.906002 28310 layer_factory.hpp:77] Creating layer pool2
I0403 13:31:42.906019 28310 net.cpp:91] Creating Layer pool2
I0403 13:31:42.906034 28310 net.cpp:425] pool2 <- norm2
I0403 13:31:42.906055 28310 net.cpp:399] pool2 -> pool2
I0403 13:31:42.906108 28310 net.cpp:141] Setting up pool2
I0403 13:31:42.906133 28310 net.cpp:148] Top shape: 100 256 13 13 (4326400)
I0403 13:31:42.906148 28310 net.cpp:156] Memory required for data: 679564400
I0403 13:31:42.906164 28310 layer_factory.hpp:77] Creating layer conv3
I0403 13:31:42.906188 28310 net.cpp:91] Creating Layer conv3
I0403 13:31:42.906204 28310 net.cpp:425] conv3 <- pool2
I0403 13:31:42.906225 28310 net.cpp:399] conv3 -> conv3
I0403 13:31:42.944963 28310 net.cpp:141] Setting up conv3
I0403 13:31:42.945042 28310 net.cpp:148] Top shape: 100 384 13 13 (6489600)
I0403 13:31:42.945063 28310 net.cpp:156] Memory required for data: 705522800
I0403 13:31:42.945091 28310 layer_factory.hpp:77] Creating layer relu3
I0403 13:31:42.945116 28310 net.cpp:91] Creating Layer relu3
I0403 13:31:42.945134 28310 net.cpp:425] relu3 <- conv3
I0403 13:31:42.945157 28310 net.cpp:386] relu3 -> conv3 (in-place)
I0403 13:31:42.945444 28310 net.cpp:141] Setting up relu3
I0403 13:31:42.945472 28310 net.cpp:148] Top shape: 100 384 13 13 (6489600)
I0403 13:31:42.945488 28310 net.cpp:156] Memory required for data: 731481200
I0403 13:31:42.945504 28310 layer_factory.hpp:77] Creating layer conv4
I0403 13:31:42.945531 28310 net.cpp:91] Creating Layer conv4
I0403 13:31:42.945549 28310 net.cpp:425] conv4 <- conv3
I0403 13:31:42.945574 28310 net.cpp:399] conv4 -> conv4
I0403 13:31:42.976706 28310 net.cpp:141] Setting up conv4
I0403 13:31:42.976776 28310 net.cpp:148] Top shape: 100 384 13 13 (6489600)
I0403 13:31:42.976827 28310 net.cpp:156] Memory required for data: 757439600
I0403 13:31:42.976852 28310 layer_factory.hpp:77] Creating layer relu4
I0403 13:31:42.976878 28310 net.cpp:91] Creating Layer relu4
I0403 13:31:42.976897 28310 net.cpp:425] relu4 <- conv4
I0403 13:31:42.976917 28310 net.cpp:386] relu4 -> conv4 (in-place)
I0403 13:31:42.977212 28310 net.cpp:141] Setting up relu4
I0403 13:31:42.977244 28310 net.cpp:148] Top shape: 100 384 13 13 (6489600)
I0403 13:31:42.977260 28310 net.cpp:156] Memory required for data: 783398000
I0403 13:31:42.977277 28310 layer_factory.hpp:77] Creating layer conv5
I0403 13:31:42.977308 28310 net.cpp:91] Creating Layer conv5
I0403 13:31:42.977325 28310 net.cpp:425] conv5 <- conv4
I0403 13:31:42.977349 28310 net.cpp:399] conv5 -> conv5
I0403 13:31:42.998121 28310 net.cpp:141] Setting up conv5
I0403 13:31:42.998162 28310 net.cpp:148] Top shape: 100 256 13 13 (4326400)
I0403 13:31:42.998179 28310 net.cpp:156] Memory required for data: 800703600
I0403 13:31:42.998205 28310 layer_factory.hpp:77] Creating layer relu5
I0403 13:31:42.998226 28310 net.cpp:91] Creating Layer relu5
I0403 13:31:42.998245 28310 net.cpp:425] relu5 <- conv5
I0403 13:31:42.998265 28310 net.cpp:386] relu5 -> conv5 (in-place)
I0403 13:31:42.998570 28310 net.cpp:141] Setting up relu5
I0403 13:31:42.998602 28310 net.cpp:148] Top shape: 100 256 13 13 (4326400)
I0403 13:31:42.998621 28310 net.cpp:156] Memory required for data: 818009200
I0403 13:31:42.998637 28310 layer_factory.hpp:77] Creating layer pool5
I0403 13:31:42.998672 28310 net.cpp:91] Creating Layer pool5
I0403 13:31:42.998692 28310 net.cpp:425] pool5 <- conv5
I0403 13:31:42.998713 28310 net.cpp:399] pool5 -> pool5
I0403 13:31:42.998785 28310 net.cpp:141] Setting up pool5
I0403 13:31:42.998811 28310 net.cpp:148] Top shape: 100 256 6 6 (921600)
I0403 13:31:42.998828 28310 net.cpp:156] Memory required for data: 821695600
I0403 13:31:42.998843 28310 layer_factory.hpp:77] Creating layer fc6
I0403 13:31:42.998872 28310 net.cpp:91] Creating Layer fc6
I0403 13:31:42.998889 28310 net.cpp:425] fc6 <- pool5
I0403 13:31:42.998911 28310 net.cpp:399] fc6 -> fc6
I0403 13:31:44.565052 28310 net.cpp:141] Setting up fc6
I0403 13:31:44.565140 28310 net.cpp:148] Top shape: 100 4096 (409600)
I0403 13:31:44.565158 28310 net.cpp:156] Memory required for data: 823334000
I0403 13:31:44.565181 28310 layer_factory.hpp:77] Creating layer relu6
I0403 13:31:44.565204 28310 net.cpp:91] Creating Layer relu6
I0403 13:31:44.565222 28310 net.cpp:425] relu6 <- fc6
I0403 13:31:44.565243 28310 net.cpp:386] relu6 -> fc6 (in-place)
I0403 13:31:44.565490 28310 net.cpp:141] Setting up relu6
I0403 13:31:44.565518 28310 net.cpp:148] Top shape: 100 4096 (409600)
I0403 13:31:44.565536 28310 net.cpp:156] Memory required for data: 824972400
I0403 13:31:44.565552 28310 layer_factory.hpp:77] Creating layer drop6
I0403 13:31:44.565572 28310 net.cpp:91] Creating Layer drop6
I0403 13:31:44.565587 28310 net.cpp:425] drop6 <- fc6
I0403 13:31:44.565608 28310 net.cpp:386] drop6 -> fc6 (in-place)
I0403 13:31:44.565671 28310 net.cpp:141] Setting up drop6
I0403 13:31:44.565696 28310 net.cpp:148] Top shape: 100 4096 (409600)
I0403 13:31:44.565709 28310 net.cpp:156] Memory required for data: 826610800
I0403 13:31:44.565726 28310 layer_factory.hpp:77] Creating layer fc7
I0403 13:31:44.565749 28310 net.cpp:91] Creating Layer fc7
I0403 13:31:44.565768 28310 net.cpp:425] fc7 <- fc6
I0403 13:31:44.565788 28310 net.cpp:399] fc7 -> fc7
I0403 13:31:45.251621 28310 net.cpp:141] Setting up fc7
I0403 13:31:45.251711 28310 net.cpp:148] Top shape: 100 4096 (409600)
I0403 13:31:45.251729 28310 net.cpp:156] Memory required for data: 828249200
I0403 13:31:45.251750 28310 layer_factory.hpp:77] Creating layer relu7
I0403 13:31:45.251772 28310 net.cpp:91] Creating Layer relu7
I0403 13:31:45.251791 28310 net.cpp:425] relu7 <- fc7
I0403 13:31:45.251811 28310 net.cpp:386] relu7 -> fc7 (in-place)
I0403 13:31:45.252212 28310 net.cpp:141] Setting up relu7
I0403 13:31:45.252240 28310 net.cpp:148] Top shape: 100 4096 (409600)
I0403 13:31:45.252311 28310 net.cpp:156] Memory required for data: 829887600
I0403 13:31:45.252329 28310 layer_factory.hpp:77] Creating layer drop7
I0403 13:31:45.252351 28310 net.cpp:91] Creating Layer drop7
I0403 13:31:45.252367 28310 net.cpp:425] drop7 <- fc7
I0403 13:31:45.252385 28310 net.cpp:386] drop7 -> fc7 (in-place)
I0403 13:31:45.252431 28310 net.cpp:141] Setting up drop7
I0403 13:31:45.252454 28310 net.cpp:148] Top shape: 100 4096 (409600)
I0403 13:31:45.252470 28310 net.cpp:156] Memory required for data: 831526000
I0403 13:31:45.252485 28310 layer_factory.hpp:77] Creating layer fc8_plantvillage
I0403 13:31:45.252506 28310 net.cpp:91] Creating Layer fc8_plantvillage
I0403 13:31:45.252523 28310 net.cpp:425] fc8_plantvillage <- fc7
I0403 13:31:45.252543 28310 net.cpp:399] fc8_plantvillage -> fc8_plantvillage
I0403 13:31:45.259383 28310 net.cpp:141] Setting up fc8_plantvillage
I0403 13:31:45.259413 28310 net.cpp:148] Top shape: 100 38 (3800)
I0403 13:31:45.259428 28310 net.cpp:156] Memory required for data: 831541200
I0403 13:31:45.259449 28310 layer_factory.hpp:77] Creating layer fc8_plantvillage_fc8_plantvillage_0_split
I0403 13:31:45.259469 28310 net.cpp:91] Creating Layer fc8_plantvillage_fc8_plantvillage_0_split
I0403 13:31:45.259485 28310 net.cpp:425] fc8_plantvillage_fc8_plantvillage_0_split <- fc8_plantvillage
I0403 13:31:45.259503 28310 net.cpp:399] fc8_plantvillage_fc8_plantvillage_0_split -> fc8_plantvillage_fc8_plantvillage_0_split_0
I0403 13:31:45.259524 28310 net.cpp:399] fc8_plantvillage_fc8_plantvillage_0_split -> fc8_plantvillage_fc8_plantvillage_0_split_1
I0403 13:31:45.259543 28310 net.cpp:399] fc8_plantvillage_fc8_plantvillage_0_split -> fc8_plantvillage_fc8_plantvillage_0_split_2
I0403 13:31:45.259623 28310 net.cpp:141] Setting up fc8_plantvillage_fc8_plantvillage_0_split
I0403 13:31:45.259655 28310 net.cpp:148] Top shape: 100 38 (3800)
I0403 13:31:45.259671 28310 net.cpp:148] Top shape: 100 38 (3800)
I0403 13:31:45.259686 28310 net.cpp:148] Top shape: 100 38 (3800)
I0403 13:31:45.259701 28310 net.cpp:156] Memory required for data: 831586800
I0403 13:31:45.259716 28310 layer_factory.hpp:77] Creating layer prob
I0403 13:31:45.259738 28310 net.cpp:91] Creating Layer prob
I0403 13:31:45.259755 28310 net.cpp:425] prob <- fc8_plantvillage_fc8_plantvillage_0_split_0
I0403 13:31:45.259774 28310 net.cpp:399] prob -> prob
I0403 13:31:45.259997 28310 net.cpp:141] Setting up prob
I0403 13:31:45.260026 28310 net.cpp:148] Top shape: 100 38 (3800)
I0403 13:31:45.260042 28310 net.cpp:156] Memory required for data: 831602000
I0403 13:31:45.260058 28310 layer_factory.hpp:77] Creating layer hdf5out
I0403 13:31:45.260077 28310 net.cpp:91] Creating Layer hdf5out
I0403 13:31:45.260093 28310 net.cpp:425] hdf5out <- prob
I0403 13:31:45.260112 28310 net.cpp:425] hdf5out <- label_data_1_split_0
I0403 13:31:45.265200 28310 net.cpp:141] Setting up hdf5out
…
