…
I0403 13:40:46.832962 28526 net.cpp:313] The NetState phase (1) differed from the phase (0) specified by a rule in layer data
I0403 13:40:46.833283 28526 net.cpp:49] Initializing net from parameters: 
state {
  phase: TEST
}
layer {
  name: "data"
  type: "Data"
  top: "data"
  top: "label"
  include {
    phase: TEST
  }
  transform_param {
    crop_size: 227
    mean_file: "/home/mohanty/data/final_dataset/lmdb/color-40-60/mean.binaryproto"
  }
  data_param {
    source: "/home/mohanty/data/final_dataset/lmdb/color-40-60/test_db"
    batch_size: 100
    backend: LMDB
  }
}
layer {
  name: "conv1"
  type: "Convolution"
  bottom: "data"
  top: "conv1"
  param {
    lr_mult: 1
    decay_mult: 1
  }
  param {
    lr_mult: 2
    decay_mult: 0
  }
  convolution_param {
    num_output: 96
    kernel_size: 11
    stride: 4
    weight_filler {
      type: "gaussian"
      std: 0.01
    }
    bias_filler {
      type: "constant"
      value: 0
    }
  }
}
layer {
  name: "relu1"
  type: "ReLU"
  bottom: "conv1"
  top: "conv1"
}
layer {
  name: "norm1"
  type: "LRN"
  bottom: "conv1"
  top: "norm1"
  lrn_param {
    local_size: 5
    alpha: 0.0001
    beta: 0.75
  }
}
layer {
  name: "pool1"
  type: "Pooling"
  bottom: "norm1"
  top: "pool1"
  pooling_param {
    pool: MAX
    kernel_size: 3
    stride: 2
  }
}
layer {
  name: "conv2"
  type: "Convolution"
  bottom: "pool1"
  top: "conv2"
  param {
    lr_mult: 1
    decay_mult: 1
  }
  param {
    lr_mult: 2
    decay_mult: 0
  }
  convolution_param {
    num_output: 256
    pad: 2
    kernel_size: 5
    group: 2
    weight_filler {
      type: "gaussian"
      std: 0.01
    }
    bias_filler {
      type: "constant"
      value: 0.1
    }
  }
}
layer {
  name: "relu2"
  type: "ReLU"
  bottom: "conv2"
  top: "conv2"
}
layer {
  name: "norm2"
  type: "LRN"
  bottom: "conv2"
  top: "norm2"
  lrn_param {
    local_size: 5
    alpha: 0.0001
    beta: 0.75
  }
}
layer {
  name: "pool2"
  type: "Pooling"
  bottom: "norm2"
  top: "pool2"
  pooling_param {
    pool: MAX
    kernel_size: 3
    stride: 2
  }
}
layer {
  name: "conv3"
  type: "Convolution"
  bottom: "pool2"
  top: "conv3"
  param {
    lr_mult: 1
    decay_mult: 1
  }
  param {
    lr_mult: 2
    decay_mult: 0
  }
  convolution_param {
    num_output: 384
    pad: 1
    kernel_size: 3
    weight_filler {
      type: "gaussian"
      std: 0.01
    }
    bias_filler {
      type: "constant"
      value: 0
    }
  }
}
layer {
  name: "relu3"
  type: "ReLU"
  bottom: "conv3"
  top: "conv3"
}
layer {
  name: "conv4"
  type: "Convolution"
  bottom: "conv3"
  top: "conv4"
  param {
    lr_mult: 1
    decay_mult: 1
  }
  param {
    lr_mult: 2
    decay_mult: 0
  }
  convolution_param {
    num_output: 384
    pad: 1
    kernel_size: 3
    group: 2
    weight_filler {
      type: "gaussian"
      std: 0.01
    }
    bias_filler {
      type: "constant"
      value: 0.1
    }
  }
}
layer {
  name: "relu4"
  type: "ReLU"
  bottom: "conv4"
  top: "conv4"
}
layer {
  name: "conv5"
  type: "Convolution"
  bottom: "conv4"
  top: "conv5"
  param {
    lr_mult: 1
    decay_mult: 1
  }
  param {
    lr_mult: 2
    decay_mult: 0
  }
  convolution_param {
    num_output: 256
    pad: 1
    kernel_size: 3
    group: 2
    weight_filler {
      type: "gaussian"
      std: 0.01
    }
    bias_filler {
      type: "constant"
      value: 0.1
    }
  }
}
layer {
  name: "relu5"
  type: "ReLU"
  bottom: "conv5"
  top: "conv5"
}
layer {
  name: "pool5"
  type: "Pooling"
  bottom: "conv5"
  top: "pool5"
  pooling_param {
    pool: MAX
    kernel_size: 3
    stride: 2
  }
}
layer {
  name: "fc6"
  type: "InnerProduct"
  bottom: "pool5"
  top: "fc6"
  param {
    lr_mult: 1
    decay_mult: 1
  }
  param {
    lr_mult: 2
    decay_mult: 0
  }
  inner_product_param {
    num_output: 4096
    weight_filler {
      type: "gaussian"
      std: 0.005
    }
    bias_filler {
      type: "constant"
      value: 0.1
    }
  }
}
layer {
  name: "relu6"
  type: "ReLU"
  bottom: "fc6"
  top: "fc6"
}
layer {
  name: "drop6"
  type: "Dropout"
  bottom: "fc6"
  top: "fc6"
  dropout_param {
    dropout_ratio: 0.5
  }
}
layer {
  name: "fc7"
  type: "InnerProduct"
  bottom: "fc6"
  top: "fc7"
  param {
    lr_mult: 1
    decay_mult: 1
  }
  param {
    lr_mult: 2
    decay_mult: 0
  }
  inner_product_param {
    num_output: 4096
    weight_filler {
      type: "gaussian"
      std: 0.005
    }
    bias_filler {
      type: "constant"
      value: 0.1
    }
  }
}
layer {
  name: "relu7"
  type: "ReLU"
  bottom: "fc7"
  top: "fc7"
}
layer {
  name: "drop7"
  type: "Dropout"
  bottom: "fc7"
  top: "fc7"
  dropout_param {
    dropout_ratio: 0.5
  }
}
layer {
  name: "fc8_plantvillage"
  type: "InnerProduct"
  bottom: "fc7"
  top: "fc8_plantvillage"
  param {
    lr_mult: 1
    decay_mult: 1
  }
  param {
    lr_mult: 2
    decay_mult: 0
  }
  inner_product_param {
    num_output: 38
    weight_filler {
      type: "gaussian"
      std: 0.01
    }
    bias_filler {
      type: "constant"
      value: 0
    }
  }
}
layer {
  name: "prob"
  type: "Softmax"
  bottom: "fc8_plantvillage"
  top: "prob"
  include {
    phase: TEST
  }
}
layer {
  name: "hdf5out"
  type: "HDF5Output"
  bottom: "prob"
  bottom: "label"
  include {
    phase: TEST
  }
  hdf5_output_param {
    file_name: "hdf5_dumps/iter_2387.h5"
  }
}
layer {
  name: "loss"
  type: "SoftmaxWithLoss"
  bottom: "fc8_plantvillage"
  bottom: "label"
  top: "loss"
}
layer {
  name: "accuracy"
  type: "Accuracy"
  bottom: "fc8_plantvillage"
  bottom: "label"
  top: "accuracy"
  include {
    phase: TEST
  }
}
I0403 13:40:46.833920 28526 layer_factory.hpp:77] Creating layer data
I0403 13:40:46.834614 28526 net.cpp:91] Creating Layer data
I0403 13:40:46.834647 28526 net.cpp:399] data -> data
I0403 13:40:46.834705 28526 net.cpp:399] data -> label
I0403 13:40:46.834744 28526 data_transformer.cpp:25] Loading mean file from: /home/mohanty/data/final_dataset/lmdb/color-40-60/mean.binaryproto
I0403 13:40:46.837620 28529 db_lmdb.cpp:38] Opened lmdb /home/mohanty/data/final_dataset/lmdb/color-40-60/test_db
I0403 13:40:46.852144 28526 data_layer.cpp:41] output data size: 100,3,227,227
I0403 13:40:46.988929 28526 net.cpp:141] Setting up data
I0403 13:40:46.989022 28526 net.cpp:148] Top shape: 100 3 227 227 (15458700)
I0403 13:40:46.989047 28526 net.cpp:148] Top shape: 100 (100)
I0403 13:40:46.989063 28526 net.cpp:156] Memory required for data: 61835200
I0403 13:40:46.989096 28526 layer_factory.hpp:77] Creating layer label_data_1_split
I0403 13:40:46.989123 28526 net.cpp:91] Creating Layer label_data_1_split
I0403 13:40:46.989142 28526 net.cpp:425] label_data_1_split <- label
I0403 13:40:46.989184 28526 net.cpp:399] label_data_1_split -> label_data_1_split_0
I0403 13:40:46.989215 28526 net.cpp:399] label_data_1_split -> label_data_1_split_1
I0403 13:40:46.989238 28526 net.cpp:399] label_data_1_split -> label_data_1_split_2
I0403 13:40:46.989312 28526 net.cpp:141] Setting up label_data_1_split
I0403 13:40:46.989342 28526 net.cpp:148] Top shape: 100 (100)
I0403 13:40:46.989362 28526 net.cpp:148] Top shape: 100 (100)
I0403 13:40:46.989378 28526 net.cpp:148] Top shape: 100 (100)
I0403 13:40:46.989393 28526 net.cpp:156] Memory required for data: 61836400
I0403 13:40:46.989413 28526 layer_factory.hpp:77] Creating layer conv1
I0403 13:40:46.989456 28526 net.cpp:91] Creating Layer conv1
I0403 13:40:46.989476 28526 net.cpp:425] conv1 <- data
I0403 13:40:46.989496 28526 net.cpp:399] conv1 -> conv1
I0403 13:40:47.148944 28526 net.cpp:141] Setting up conv1
I0403 13:40:47.149021 28526 net.cpp:148] Top shape: 100 96 55 55 (29040000)
I0403 13:40:47.149040 28526 net.cpp:156] Memory required for data: 177996400
I0403 13:40:47.149073 28526 layer_factory.hpp:77] Creating layer relu1
I0403 13:40:47.149103 28526 net.cpp:91] Creating Layer relu1
I0403 13:40:47.149122 28526 net.cpp:425] relu1 <- conv1
I0403 13:40:47.149142 28526 net.cpp:386] relu1 -> conv1 (in-place)
I0403 13:40:47.149415 28526 net.cpp:141] Setting up relu1
I0403 13:40:47.149444 28526 net.cpp:148] Top shape: 100 96 55 55 (29040000)
I0403 13:40:47.149461 28526 net.cpp:156] Memory required for data: 294156400
I0403 13:40:47.149513 28526 layer_factory.hpp:77] Creating layer norm1
I0403 13:40:47.149543 28526 net.cpp:91] Creating Layer norm1
I0403 13:40:47.149562 28526 net.cpp:425] norm1 <- conv1
I0403 13:40:47.149581 28526 net.cpp:399] norm1 -> norm1
I0403 13:40:47.149896 28526 net.cpp:141] Setting up norm1
I0403 13:40:47.149926 28526 net.cpp:148] Top shape: 100 96 55 55 (29040000)
I0403 13:40:47.149943 28526 net.cpp:156] Memory required for data: 410316400
I0403 13:40:47.149960 28526 layer_factory.hpp:77] Creating layer pool1
I0403 13:40:47.149983 28526 net.cpp:91] Creating Layer pool1
I0403 13:40:47.150003 28526 net.cpp:425] pool1 <- norm1
I0403 13:40:47.150022 28526 net.cpp:399] pool1 -> pool1
I0403 13:40:47.150094 28526 net.cpp:141] Setting up pool1
I0403 13:40:47.150120 28526 net.cpp:148] Top shape: 100 96 27 27 (6998400)
I0403 13:40:47.150136 28526 net.cpp:156] Memory required for data: 438310000
I0403 13:40:47.150153 28526 layer_factory.hpp:77] Creating layer conv2
I0403 13:40:47.150179 28526 net.cpp:91] Creating Layer conv2
I0403 13:40:47.150197 28526 net.cpp:425] conv2 <- pool1
I0403 13:40:47.150218 28526 net.cpp:399] conv2 -> conv2
I0403 13:40:47.165645 28526 net.cpp:141] Setting up conv2
I0403 13:40:47.165696 28526 net.cpp:148] Top shape: 100 256 27 27 (18662400)
I0403 13:40:47.165714 28526 net.cpp:156] Memory required for data: 512959600
I0403 13:40:47.165740 28526 layer_factory.hpp:77] Creating layer relu2
I0403 13:40:47.165765 28526 net.cpp:91] Creating Layer relu2
I0403 13:40:47.165786 28526 net.cpp:425] relu2 <- conv2
I0403 13:40:47.165804 28526 net.cpp:386] relu2 -> conv2 (in-place)
I0403 13:40:47.166095 28526 net.cpp:141] Setting up relu2
I0403 13:40:47.166126 28526 net.cpp:148] Top shape: 100 256 27 27 (18662400)
I0403 13:40:47.166143 28526 net.cpp:156] Memory required for data: 587609200
I0403 13:40:47.166160 28526 layer_factory.hpp:77] Creating layer norm2
I0403 13:40:47.166182 28526 net.cpp:91] Creating Layer norm2
I0403 13:40:47.166200 28526 net.cpp:425] norm2 <- conv2
I0403 13:40:47.166225 28526 net.cpp:399] norm2 -> norm2
I0403 13:40:47.166467 28526 net.cpp:141] Setting up norm2
I0403 13:40:47.166496 28526 net.cpp:148] Top shape: 100 256 27 27 (18662400)
I0403 13:40:47.166512 28526 net.cpp:156] Memory required for data: 662258800
I0403 13:40:47.166528 28526 layer_factory.hpp:77] Creating layer pool2
I0403 13:40:47.166550 28526 net.cpp:91] Creating Layer pool2
I0403 13:40:47.166569 28526 net.cpp:425] pool2 <- norm2
I0403 13:40:47.166589 28526 net.cpp:399] pool2 -> pool2
I0403 13:40:47.166646 28526 net.cpp:141] Setting up pool2
I0403 13:40:47.166671 28526 net.cpp:148] Top shape: 100 256 13 13 (4326400)
I0403 13:40:47.166687 28526 net.cpp:156] Memory required for data: 679564400
I0403 13:40:47.166703 28526 layer_factory.hpp:77] Creating layer conv3
I0403 13:40:47.166728 28526 net.cpp:91] Creating Layer conv3
I0403 13:40:47.166748 28526 net.cpp:425] conv3 <- pool2
I0403 13:40:47.166769 28526 net.cpp:399] conv3 -> conv3
I0403 13:40:47.206466 28526 net.cpp:141] Setting up conv3
I0403 13:40:47.206521 28526 net.cpp:148] Top shape: 100 384 13 13 (6489600)
I0403 13:40:47.206538 28526 net.cpp:156] Memory required for data: 705522800
I0403 13:40:47.206569 28526 layer_factory.hpp:77] Creating layer relu3
I0403 13:40:47.206594 28526 net.cpp:91] Creating Layer relu3
I0403 13:40:47.206614 28526 net.cpp:425] relu3 <- conv3
I0403 13:40:47.206632 28526 net.cpp:386] relu3 -> conv3 (in-place)
I0403 13:40:47.206918 28526 net.cpp:141] Setting up relu3
I0403 13:40:47.206945 28526 net.cpp:148] Top shape: 100 384 13 13 (6489600)
I0403 13:40:47.206964 28526 net.cpp:156] Memory required for data: 731481200
I0403 13:40:47.206981 28526 layer_factory.hpp:77] Creating layer conv4
I0403 13:40:47.207005 28526 net.cpp:91] Creating Layer conv4
I0403 13:40:47.207021 28526 net.cpp:425] conv4 <- conv3
I0403 13:40:47.207044 28526 net.cpp:399] conv4 -> conv4
I0403 13:40:47.237491 28526 net.cpp:141] Setting up conv4
I0403 13:40:47.237550 28526 net.cpp:148] Top shape: 100 384 13 13 (6489600)
I0403 13:40:47.237599 28526 net.cpp:156] Memory required for data: 757439600
I0403 13:40:47.237623 28526 layer_factory.hpp:77] Creating layer relu4
I0403 13:40:47.237648 28526 net.cpp:91] Creating Layer relu4
I0403 13:40:47.237668 28526 net.cpp:425] relu4 <- conv4
I0403 13:40:47.237685 28526 net.cpp:386] relu4 -> conv4 (in-place)
I0403 13:40:47.237964 28526 net.cpp:141] Setting up relu4
I0403 13:40:47.237993 28526 net.cpp:148] Top shape: 100 384 13 13 (6489600)
I0403 13:40:47.238008 28526 net.cpp:156] Memory required for data: 783398000
I0403 13:40:47.238023 28526 layer_factory.hpp:77] Creating layer conv5
I0403 13:40:47.238052 28526 net.cpp:91] Creating Layer conv5
I0403 13:40:47.238072 28526 net.cpp:425] conv5 <- conv4
I0403 13:40:47.238095 28526 net.cpp:399] conv5 -> conv5
I0403 13:40:47.259122 28526 net.cpp:141] Setting up conv5
I0403 13:40:47.259176 28526 net.cpp:148] Top shape: 100 256 13 13 (4326400)
I0403 13:40:47.259192 28526 net.cpp:156] Memory required for data: 800703600
I0403 13:40:47.259218 28526 layer_factory.hpp:77] Creating layer relu5
I0403 13:40:47.259243 28526 net.cpp:91] Creating Layer relu5
I0403 13:40:47.259261 28526 net.cpp:425] relu5 <- conv5
I0403 13:40:47.259281 28526 net.cpp:386] relu5 -> conv5 (in-place)
I0403 13:40:47.259572 28526 net.cpp:141] Setting up relu5
I0403 13:40:47.259601 28526 net.cpp:148] Top shape: 100 256 13 13 (4326400)
I0403 13:40:47.259618 28526 net.cpp:156] Memory required for data: 818009200
I0403 13:40:47.259634 28526 layer_factory.hpp:77] Creating layer pool5
I0403 13:40:47.259660 28526 net.cpp:91] Creating Layer pool5
I0403 13:40:47.259678 28526 net.cpp:425] pool5 <- conv5
I0403 13:40:47.259701 28526 net.cpp:399] pool5 -> pool5
I0403 13:40:47.259763 28526 net.cpp:141] Setting up pool5
I0403 13:40:47.259789 28526 net.cpp:148] Top shape: 100 256 6 6 (921600)
I0403 13:40:47.259805 28526 net.cpp:156] Memory required for data: 821695600
I0403 13:40:47.259820 28526 layer_factory.hpp:77] Creating layer fc6
I0403 13:40:47.259850 28526 net.cpp:91] Creating Layer fc6
I0403 13:40:47.259871 28526 net.cpp:425] fc6 <- pool5
I0403 13:40:47.259891 28526 net.cpp:399] fc6 -> fc6
I0403 13:40:48.832864 28526 net.cpp:141] Setting up fc6
I0403 13:40:48.832923 28526 net.cpp:148] Top shape: 100 4096 (409600)
I0403 13:40:48.832942 28526 net.cpp:156] Memory required for data: 823334000
I0403 13:40:48.832965 28526 layer_factory.hpp:77] Creating layer relu6
I0403 13:40:48.832988 28526 net.cpp:91] Creating Layer relu6
I0403 13:40:48.833006 28526 net.cpp:425] relu6 <- fc6
I0403 13:40:48.833030 28526 net.cpp:386] relu6 -> fc6 (in-place)
I0403 13:40:48.833262 28526 net.cpp:141] Setting up relu6
I0403 13:40:48.833302 28526 net.cpp:148] Top shape: 100 4096 (409600)
I0403 13:40:48.833320 28526 net.cpp:156] Memory required for data: 824972400
I0403 13:40:48.833336 28526 layer_factory.hpp:77] Creating layer drop6
I0403 13:40:48.833359 28526 net.cpp:91] Creating Layer drop6
I0403 13:40:48.833375 28526 net.cpp:425] drop6 <- fc6
I0403 13:40:48.833395 28526 net.cpp:386] drop6 -> fc6 (in-place)
I0403 13:40:48.833451 28526 net.cpp:141] Setting up drop6
I0403 13:40:48.833477 28526 net.cpp:148] Top shape: 100 4096 (409600)
I0403 13:40:48.833492 28526 net.cpp:156] Memory required for data: 826610800
I0403 13:40:48.833506 28526 layer_factory.hpp:77] Creating layer fc7
I0403 13:40:48.833528 28526 net.cpp:91] Creating Layer fc7
I0403 13:40:48.833544 28526 net.cpp:425] fc7 <- fc6
I0403 13:40:48.833569 28526 net.cpp:399] fc7 -> fc7
I0403 13:40:49.522516 28526 net.cpp:141] Setting up fc7
I0403 13:40:49.522562 28526 net.cpp:148] Top shape: 100 4096 (409600)
I0403 13:40:49.522578 28526 net.cpp:156] Memory required for data: 828249200
I0403 13:40:49.522601 28526 layer_factory.hpp:77] Creating layer relu7
I0403 13:40:49.522622 28526 net.cpp:91] Creating Layer relu7
I0403 13:40:49.522639 28526 net.cpp:425] relu7 <- fc7
I0403 13:40:49.522660 28526 net.cpp:386] relu7 -> fc7 (in-place)
I0403 13:40:49.523056 28526 net.cpp:141] Setting up relu7
I0403 13:40:49.523082 28526 net.cpp:148] Top shape: 100 4096 (409600)
I0403 13:40:49.523145 28526 net.cpp:156] Memory required for data: 829887600
I0403 13:40:49.523162 28526 layer_factory.hpp:77] Creating layer drop7
I0403 13:40:49.523185 28526 net.cpp:91] Creating Layer drop7
I0403 13:40:49.523200 28526 net.cpp:425] drop7 <- fc7
I0403 13:40:49.523219 28526 net.cpp:386] drop7 -> fc7 (in-place)
I0403 13:40:49.523263 28526 net.cpp:141] Setting up drop7
I0403 13:40:49.523298 28526 net.cpp:148] Top shape: 100 4096 (409600)
I0403 13:40:49.523318 28526 net.cpp:156] Memory required for data: 831526000
I0403 13:40:49.523332 28526 layer_factory.hpp:77] Creating layer fc8_plantvillage
I0403 13:40:49.523356 28526 net.cpp:91] Creating Layer fc8_plantvillage
I0403 13:40:49.523373 28526 net.cpp:425] fc8_plantvillage <- fc7
I0403 13:40:49.523391 28526 net.cpp:399] fc8_plantvillage -> fc8_plantvillage
I0403 13:40:49.530222 28526 net.cpp:141] Setting up fc8_plantvillage
I0403 13:40:49.530251 28526 net.cpp:148] Top shape: 100 38 (3800)
I0403 13:40:49.530267 28526 net.cpp:156] Memory required for data: 831541200
I0403 13:40:49.530290 28526 layer_factory.hpp:77] Creating layer fc8_plantvillage_fc8_plantvillage_0_split
I0403 13:40:49.530313 28526 net.cpp:91] Creating Layer fc8_plantvillage_fc8_plantvillage_0_split
I0403 13:40:49.530329 28526 net.cpp:425] fc8_plantvillage_fc8_plantvillage_0_split <- fc8_plantvillage
I0403 13:40:49.530347 28526 net.cpp:399] fc8_plantvillage_fc8_plantvillage_0_split -> fc8_plantvillage_fc8_plantvillage_0_split_0
I0403 13:40:49.530369 28526 net.cpp:399] fc8_plantvillage_fc8_plantvillage_0_split -> fc8_plantvillage_fc8_plantvillage_0_split_1
I0403 13:40:49.530392 28526 net.cpp:399] fc8_plantvillage_fc8_plantvillage_0_split -> fc8_plantvillage_fc8_plantvillage_0_split_2
I0403 13:40:49.530468 28526 net.cpp:141] Setting up fc8_plantvillage_fc8_plantvillage_0_split
I0403 13:40:49.530493 28526 net.cpp:148] Top shape: 100 38 (3800)
I0403 13:40:49.530510 28526 net.cpp:148] Top shape: 100 38 (3800)
I0403 13:40:49.530526 28526 net.cpp:148] Top shape: 100 38 (3800)
I0403 13:40:49.530541 28526 net.cpp:156] Memory required for data: 831586800
I0403 13:40:49.530557 28526 layer_factory.hpp:77] Creating layer prob
I0403 13:40:49.530578 28526 net.cpp:91] Creating Layer prob
I0403 13:40:49.530594 28526 net.cpp:425] prob <- fc8_plantvillage_fc8_plantvillage_0_split_0
I0403 13:40:49.530613 28526 net.cpp:399] prob -> prob
I0403 13:40:49.530836 28526 net.cpp:141] Setting up prob
I0403 13:40:49.530864 28526 net.cpp:148] Top shape: 100 38 (3800)
I0403 13:40:49.530879 28526 net.cpp:156] Memory required for data: 831602000
I0403 13:40:49.530895 28526 layer_factory.hpp:77] Creating layer hdf5out
I0403 13:40:49.530917 28526 net.cpp:91] Creating Layer hdf5out
I0403 13:40:49.530936 28526 net.cpp:425] hdf5out <- prob
I0403 13:40:49.530953 28526 net.cpp:425] hdf5out <- label_data_1_split_0
I0403 13:40:49.552072 28526 net.cpp:141] Setting up hdf5out
…
