…
I0403 13:55:31.929954 28866 net.cpp:313] The NetState phase (1) differed from the phase (0) specified by a rule in layer data
I0403 13:55:31.930274 28866 net.cpp:49] Initializing net from parameters: 
state {
  phase: TEST
}
layer {
  name: "data"
  type: "Data"
  top: "data"
  top: "label"
  include {
    phase: TEST
  }
  transform_param {
    crop_size: 227
    mean_file: "/home/mohanty/data/final_dataset/lmdb/color-40-60/mean.binaryproto"
  }
  data_param {
    source: "/home/mohanty/data/final_dataset/lmdb/color-40-60/test_db"
    batch_size: 100
    backend: LMDB
  }
}
layer {
  name: "conv1"
  type: "Convolution"
  bottom: "data"
  top: "conv1"
  param {
    lr_mult: 1
    decay_mult: 1
  }
  param {
    lr_mult: 2
    decay_mult: 0
  }
  convolution_param {
    num_output: 96
    kernel_size: 11
    stride: 4
    weight_filler {
      type: "gaussian"
      std: 0.01
    }
    bias_filler {
      type: "constant"
      value: 0
    }
  }
}
layer {
  name: "relu1"
  type: "ReLU"
  bottom: "conv1"
  top: "conv1"
}
layer {
  name: "norm1"
  type: "LRN"
  bottom: "conv1"
  top: "norm1"
  lrn_param {
    local_size: 5
    alpha: 0.0001
    beta: 0.75
  }
}
layer {
  name: "pool1"
  type: "Pooling"
  bottom: "norm1"
  top: "pool1"
  pooling_param {
    pool: MAX
    kernel_size: 3
    stride: 2
  }
}
layer {
  name: "conv2"
  type: "Convolution"
  bottom: "pool1"
  top: "conv2"
  param {
    lr_mult: 1
    decay_mult: 1
  }
  param {
    lr_mult: 2
    decay_mult: 0
  }
  convolution_param {
    num_output: 256
    pad: 2
    kernel_size: 5
    group: 2
    weight_filler {
      type: "gaussian"
      std: 0.01
    }
    bias_filler {
      type: "constant"
      value: 0.1
    }
  }
}
layer {
  name: "relu2"
  type: "ReLU"
  bottom: "conv2"
  top: "conv2"
}
layer {
  name: "norm2"
  type: "LRN"
  bottom: "conv2"
  top: "norm2"
  lrn_param {
    local_size: 5
    alpha: 0.0001
    beta: 0.75
  }
}
layer {
  name: "pool2"
  type: "Pooling"
  bottom: "norm2"
  top: "pool2"
  pooling_param {
    pool: MAX
    kernel_size: 3
    stride: 2
  }
}
layer {
  name: "conv3"
  type: "Convolution"
  bottom: "pool2"
  top: "conv3"
  param {
    lr_mult: 1
    decay_mult: 1
  }
  param {
    lr_mult: 2
    decay_mult: 0
  }
  convolution_param {
    num_output: 384
    pad: 1
    kernel_size: 3
    weight_filler {
      type: "gaussian"
      std: 0.01
    }
    bias_filler {
      type: "constant"
      value: 0
    }
  }
}
layer {
  name: "relu3"
  type: "ReLU"
  bottom: "conv3"
  top: "conv3"
}
layer {
  name: "conv4"
  type: "Convolution"
  bottom: "conv3"
  top: "conv4"
  param {
    lr_mult: 1
    decay_mult: 1
  }
  param {
    lr_mult: 2
    decay_mult: 0
  }
  convolution_param {
    num_output: 384
    pad: 1
    kernel_size: 3
    group: 2
    weight_filler {
      type: "gaussian"
      std: 0.01
    }
    bias_filler {
      type: "constant"
      value: 0.1
    }
  }
}
layer {
  name: "relu4"
  type: "ReLU"
  bottom: "conv4"
  top: "conv4"
}
layer {
  name: "conv5"
  type: "Convolution"
  bottom: "conv4"
  top: "conv5"
  param {
    lr_mult: 1
    decay_mult: 1
  }
  param {
    lr_mult: 2
    decay_mult: 0
  }
  convolution_param {
    num_output: 256
    pad: 1
    kernel_size: 3
    group: 2
    weight_filler {
      type: "gaussian"
      std: 0.01
    }
    bias_filler {
      type: "constant"
      value: 0.1
    }
  }
}
layer {
  name: "relu5"
  type: "ReLU"
  bottom: "conv5"
  top: "conv5"
}
layer {
  name: "pool5"
  type: "Pooling"
  bottom: "conv5"
  top: "pool5"
  pooling_param {
    pool: MAX
    kernel_size: 3
    stride: 2
  }
}
layer {
  name: "fc6"
  type: "InnerProduct"
  bottom: "pool5"
  top: "fc6"
  param {
    lr_mult: 1
    decay_mult: 1
  }
  param {
    lr_mult: 2
    decay_mult: 0
  }
  inner_product_param {
    num_output: 4096
    weight_filler {
      type: "gaussian"
      std: 0.005
    }
    bias_filler {
      type: "constant"
      value: 0.1
    }
  }
}
layer {
  name: "relu6"
  type: "ReLU"
  bottom: "fc6"
  top: "fc6"
}
layer {
  name: "drop6"
  type: "Dropout"
  bottom: "fc6"
  top: "fc6"
  dropout_param {
    dropout_ratio: 0.5
  }
}
layer {
  name: "fc7"
  type: "InnerProduct"
  bottom: "fc6"
  top: "fc7"
  param {
    lr_mult: 1
    decay_mult: 1
  }
  param {
    lr_mult: 2
    decay_mult: 0
  }
  inner_product_param {
    num_output: 4096
    weight_filler {
      type: "gaussian"
      std: 0.005
    }
    bias_filler {
      type: "constant"
      value: 0.1
    }
  }
}
layer {
  name: "relu7"
  type: "ReLU"
  bottom: "fc7"
  top: "fc7"
}
layer {
  name: "drop7"
  type: "Dropout"
  bottom: "fc7"
  top: "fc7"
  dropout_param {
    dropout_ratio: 0.5
  }
}
layer {
  name: "fc8_plantvillage"
  type: "InnerProduct"
  bottom: "fc7"
  top: "fc8_plantvillage"
  param {
    lr_mult: 1
    decay_mult: 1
  }
  param {
    lr_mult: 2
    decay_mult: 0
  }
  inner_product_param {
    num_output: 38
    weight_filler {
      type: "gaussian"
      std: 0.01
    }
    bias_filler {
      type: "constant"
      value: 0
    }
  }
}
layer {
  name: "prob"
  type: "Softmax"
  bottom: "fc8_plantvillage"
  top: "prob"
  include {
    phase: TEST
  }
}
layer {
  name: "hdf5out"
  type: "HDF5Output"
  bottom: "prob"
  bottom: "label"
  include {
    phase: TEST
  }
  hdf5_output_param {
    file_name: "hdf5_dumps/iter_5208.h5"
  }
}
layer {
  name: "loss"
  type: "SoftmaxWithLoss"
  bottom: "fc8_plantvillage"
  bottom: "label"
  top: "loss"
}
layer {
  name: "accuracy"
  type: "Accuracy"
  bottom: "fc8_plantvillage"
  bottom: "label"
  top: "accuracy"
  include {
    phase: TEST
  }
}
I0403 13:55:31.930879 28866 layer_factory.hpp:77] Creating layer data
I0403 13:55:31.931541 28866 net.cpp:91] Creating Layer data
I0403 13:55:31.931573 28866 net.cpp:399] data -> data
I0403 13:55:31.931628 28866 net.cpp:399] data -> label
I0403 13:55:31.931668 28866 data_transformer.cpp:25] Loading mean file from: /home/mohanty/data/final_dataset/lmdb/color-40-60/mean.binaryproto
I0403 13:55:31.947793 28869 db_lmdb.cpp:38] Opened lmdb /home/mohanty/data/final_dataset/lmdb/color-40-60/test_db
I0403 13:55:31.955410 28866 data_layer.cpp:41] output data size: 100,3,227,227
I0403 13:55:32.092393 28866 net.cpp:141] Setting up data
I0403 13:55:32.092489 28866 net.cpp:148] Top shape: 100 3 227 227 (15458700)
I0403 13:55:32.092514 28866 net.cpp:148] Top shape: 100 (100)
I0403 13:55:32.092530 28866 net.cpp:156] Memory required for data: 61835200
I0403 13:55:32.092561 28866 layer_factory.hpp:77] Creating layer label_data_1_split
I0403 13:55:32.092589 28866 net.cpp:91] Creating Layer label_data_1_split
I0403 13:55:32.092609 28866 net.cpp:425] label_data_1_split <- label
I0403 13:55:32.092643 28866 net.cpp:399] label_data_1_split -> label_data_1_split_0
I0403 13:55:32.092672 28866 net.cpp:399] label_data_1_split -> label_data_1_split_1
I0403 13:55:32.092696 28866 net.cpp:399] label_data_1_split -> label_data_1_split_2
I0403 13:55:32.092763 28866 net.cpp:141] Setting up label_data_1_split
I0403 13:55:32.092789 28866 net.cpp:148] Top shape: 100 (100)
I0403 13:55:32.092808 28866 net.cpp:148] Top shape: 100 (100)
I0403 13:55:32.092826 28866 net.cpp:148] Top shape: 100 (100)
I0403 13:55:32.092842 28866 net.cpp:156] Memory required for data: 61836400
I0403 13:55:32.092857 28866 layer_factory.hpp:77] Creating layer conv1
I0403 13:55:32.092891 28866 net.cpp:91] Creating Layer conv1
I0403 13:55:32.092911 28866 net.cpp:425] conv1 <- data
I0403 13:55:32.092932 28866 net.cpp:399] conv1 -> conv1
I0403 13:55:32.242184 28866 net.cpp:141] Setting up conv1
I0403 13:55:32.242267 28866 net.cpp:148] Top shape: 100 96 55 55 (29040000)
I0403 13:55:32.242287 28866 net.cpp:156] Memory required for data: 177996400
I0403 13:55:32.242322 28866 layer_factory.hpp:77] Creating layer relu1
I0403 13:55:32.242410 28866 net.cpp:91] Creating Layer relu1
I0403 13:55:32.242452 28866 net.cpp:425] relu1 <- conv1
I0403 13:55:32.242477 28866 net.cpp:386] relu1 -> conv1 (in-place)
I0403 13:55:32.242763 28866 net.cpp:141] Setting up relu1
I0403 13:55:32.242792 28866 net.cpp:148] Top shape: 100 96 55 55 (29040000)
I0403 13:55:32.242810 28866 net.cpp:156] Memory required for data: 294156400
I0403 13:55:32.242858 28866 layer_factory.hpp:77] Creating layer norm1
I0403 13:55:32.242890 28866 net.cpp:91] Creating Layer norm1
I0403 13:55:32.242910 28866 net.cpp:425] norm1 <- conv1
I0403 13:55:32.242930 28866 net.cpp:399] norm1 -> norm1
I0403 13:55:32.243289 28866 net.cpp:141] Setting up norm1
I0403 13:55:32.243321 28866 net.cpp:148] Top shape: 100 96 55 55 (29040000)
I0403 13:55:32.243340 28866 net.cpp:156] Memory required for data: 410316400
I0403 13:55:32.243357 28866 layer_factory.hpp:77] Creating layer pool1
I0403 13:55:32.243381 28866 net.cpp:91] Creating Layer pool1
I0403 13:55:32.243401 28866 net.cpp:425] pool1 <- norm1
I0403 13:55:32.243420 28866 net.cpp:399] pool1 -> pool1
I0403 13:55:32.243494 28866 net.cpp:141] Setting up pool1
I0403 13:55:32.243520 28866 net.cpp:148] Top shape: 100 96 27 27 (6998400)
I0403 13:55:32.243538 28866 net.cpp:156] Memory required for data: 438310000
I0403 13:55:32.243556 28866 layer_factory.hpp:77] Creating layer conv2
I0403 13:55:32.243584 28866 net.cpp:91] Creating Layer conv2
I0403 13:55:32.243604 28866 net.cpp:425] conv2 <- pool1
I0403 13:55:32.243630 28866 net.cpp:399] conv2 -> conv2
I0403 13:55:32.259167 28866 net.cpp:141] Setting up conv2
I0403 13:55:32.259217 28866 net.cpp:148] Top shape: 100 256 27 27 (18662400)
I0403 13:55:32.259238 28866 net.cpp:156] Memory required for data: 512959600
I0403 13:55:32.259268 28866 layer_factory.hpp:77] Creating layer relu2
I0403 13:55:32.259295 28866 net.cpp:91] Creating Layer relu2
I0403 13:55:32.259315 28866 net.cpp:425] relu2 <- conv2
I0403 13:55:32.259336 28866 net.cpp:386] relu2 -> conv2 (in-place)
I0403 13:55:32.259629 28866 net.cpp:141] Setting up relu2
I0403 13:55:32.259660 28866 net.cpp:148] Top shape: 100 256 27 27 (18662400)
I0403 13:55:32.259678 28866 net.cpp:156] Memory required for data: 587609200
I0403 13:55:32.259696 28866 layer_factory.hpp:77] Creating layer norm2
I0403 13:55:32.259799 28866 net.cpp:91] Creating Layer norm2
I0403 13:55:32.259831 28866 net.cpp:425] norm2 <- conv2
I0403 13:55:32.259852 28866 net.cpp:399] norm2 -> norm2
I0403 13:55:32.260061 28866 net.cpp:141] Setting up norm2
I0403 13:55:32.260088 28866 net.cpp:148] Top shape: 100 256 27 27 (18662400)
I0403 13:55:32.260105 28866 net.cpp:156] Memory required for data: 662258800
I0403 13:55:32.260123 28866 layer_factory.hpp:77] Creating layer pool2
I0403 13:55:32.260144 28866 net.cpp:91] Creating Layer pool2
I0403 13:55:32.260161 28866 net.cpp:425] pool2 <- norm2
I0403 13:55:32.260190 28866 net.cpp:399] pool2 -> pool2
I0403 13:55:32.260251 28866 net.cpp:141] Setting up pool2
I0403 13:55:32.260303 28866 net.cpp:148] Top shape: 100 256 13 13 (4326400)
I0403 13:55:32.260320 28866 net.cpp:156] Memory required for data: 679564400
I0403 13:55:32.260340 28866 layer_factory.hpp:77] Creating layer conv3
I0403 13:55:32.260367 28866 net.cpp:91] Creating Layer conv3
I0403 13:55:32.260386 28866 net.cpp:425] conv3 <- pool2
I0403 13:55:32.260409 28866 net.cpp:399] conv3 -> conv3
I0403 13:55:32.300257 28866 net.cpp:141] Setting up conv3
I0403 13:55:32.300338 28866 net.cpp:148] Top shape: 100 384 13 13 (6489600)
I0403 13:55:32.300357 28866 net.cpp:156] Memory required for data: 705522800
I0403 13:55:32.300385 28866 layer_factory.hpp:77] Creating layer relu3
I0403 13:55:32.300412 28866 net.cpp:91] Creating Layer relu3
I0403 13:55:32.300431 28866 net.cpp:425] relu3 <- conv3
I0403 13:55:32.300451 28866 net.cpp:386] relu3 -> conv3 (in-place)
I0403 13:55:32.300739 28866 net.cpp:141] Setting up relu3
I0403 13:55:32.300770 28866 net.cpp:148] Top shape: 100 384 13 13 (6489600)
I0403 13:55:32.300787 28866 net.cpp:156] Memory required for data: 731481200
I0403 13:55:32.300806 28866 layer_factory.hpp:77] Creating layer conv4
I0403 13:55:32.300837 28866 net.cpp:91] Creating Layer conv4
I0403 13:55:32.300858 28866 net.cpp:425] conv4 <- conv3
I0403 13:55:32.300879 28866 net.cpp:399] conv4 -> conv4
I0403 13:55:32.331552 28866 net.cpp:141] Setting up conv4
I0403 13:55:32.331604 28866 net.cpp:148] Top shape: 100 384 13 13 (6489600)
I0403 13:55:32.331655 28866 net.cpp:156] Memory required for data: 757439600
I0403 13:55:32.331691 28866 layer_factory.hpp:77] Creating layer relu4
I0403 13:55:32.331717 28866 net.cpp:91] Creating Layer relu4
I0403 13:55:32.331737 28866 net.cpp:425] relu4 <- conv4
I0403 13:55:32.331758 28866 net.cpp:386] relu4 -> conv4 (in-place)
I0403 13:55:32.332051 28866 net.cpp:141] Setting up relu4
I0403 13:55:32.332079 28866 net.cpp:148] Top shape: 100 384 13 13 (6489600)
I0403 13:55:32.332098 28866 net.cpp:156] Memory required for data: 783398000
I0403 13:55:32.332114 28866 layer_factory.hpp:77] Creating layer conv5
I0403 13:55:32.332141 28866 net.cpp:91] Creating Layer conv5
I0403 13:55:32.332161 28866 net.cpp:425] conv5 <- conv4
I0403 13:55:32.332185 28866 net.cpp:399] conv5 -> conv5
I0403 13:55:32.353425 28866 net.cpp:141] Setting up conv5
I0403 13:55:32.353482 28866 net.cpp:148] Top shape: 100 256 13 13 (4326400)
I0403 13:55:32.353505 28866 net.cpp:156] Memory required for data: 800703600
I0403 13:55:32.353533 28866 layer_factory.hpp:77] Creating layer relu5
I0403 13:55:32.353564 28866 net.cpp:91] Creating Layer relu5
I0403 13:55:32.353593 28866 net.cpp:425] relu5 <- conv5
I0403 13:55:32.353613 28866 net.cpp:386] relu5 -> conv5 (in-place)
I0403 13:55:32.353895 28866 net.cpp:141] Setting up relu5
I0403 13:55:32.353941 28866 net.cpp:148] Top shape: 100 256 13 13 (4326400)
I0403 13:55:32.353958 28866 net.cpp:156] Memory required for data: 818009200
I0403 13:55:32.353976 28866 layer_factory.hpp:77] Creating layer pool5
I0403 13:55:32.354001 28866 net.cpp:91] Creating Layer pool5
I0403 13:55:32.354019 28866 net.cpp:425] pool5 <- conv5
I0403 13:55:32.354043 28866 net.cpp:399] pool5 -> pool5
I0403 13:55:32.354106 28866 net.cpp:141] Setting up pool5
I0403 13:55:32.354135 28866 net.cpp:148] Top shape: 100 256 6 6 (921600)
I0403 13:55:32.354153 28866 net.cpp:156] Memory required for data: 821695600
I0403 13:55:32.354171 28866 layer_factory.hpp:77] Creating layer fc6
I0403 13:55:32.354200 28866 net.cpp:91] Creating Layer fc6
I0403 13:55:32.354220 28866 net.cpp:425] fc6 <- pool5
I0403 13:55:32.354243 28866 net.cpp:399] fc6 -> fc6
I0403 13:55:33.925423 28866 net.cpp:141] Setting up fc6
I0403 13:55:33.925503 28866 net.cpp:148] Top shape: 100 4096 (409600)
I0403 13:55:33.925520 28866 net.cpp:156] Memory required for data: 823334000
I0403 13:55:33.925544 28866 layer_factory.hpp:77] Creating layer relu6
I0403 13:55:33.925570 28866 net.cpp:91] Creating Layer relu6
I0403 13:55:33.925590 28866 net.cpp:425] relu6 <- fc6
I0403 13:55:33.925619 28866 net.cpp:386] relu6 -> fc6 (in-place)
I0403 13:55:33.925849 28866 net.cpp:141] Setting up relu6
I0403 13:55:33.925875 28866 net.cpp:148] Top shape: 100 4096 (409600)
I0403 13:55:33.925890 28866 net.cpp:156] Memory required for data: 824972400
I0403 13:55:33.925906 28866 layer_factory.hpp:77] Creating layer drop6
I0403 13:55:33.925930 28866 net.cpp:91] Creating Layer drop6
I0403 13:55:33.925946 28866 net.cpp:425] drop6 <- fc6
I0403 13:55:33.925966 28866 net.cpp:386] drop6 -> fc6 (in-place)
I0403 13:55:33.926018 28866 net.cpp:141] Setting up drop6
I0403 13:55:33.926043 28866 net.cpp:148] Top shape: 100 4096 (409600)
I0403 13:55:33.926057 28866 net.cpp:156] Memory required for data: 826610800
I0403 13:55:33.926072 28866 layer_factory.hpp:77] Creating layer fc7
I0403 13:55:33.926095 28866 net.cpp:91] Creating Layer fc7
I0403 13:55:33.926112 28866 net.cpp:425] fc7 <- fc6
I0403 13:55:33.926131 28866 net.cpp:399] fc7 -> fc7
I0403 13:55:34.612145 28866 net.cpp:141] Setting up fc7
I0403 13:55:34.612226 28866 net.cpp:148] Top shape: 100 4096 (409600)
I0403 13:55:34.612246 28866 net.cpp:156] Memory required for data: 828249200
I0403 13:55:34.612277 28866 layer_factory.hpp:77] Creating layer relu7
I0403 13:55:34.612300 28866 net.cpp:91] Creating Layer relu7
I0403 13:55:34.612318 28866 net.cpp:425] relu7 <- fc7
I0403 13:55:34.612345 28866 net.cpp:386] relu7 -> fc7 (in-place)
I0403 13:55:34.612761 28866 net.cpp:141] Setting up relu7
I0403 13:55:34.612792 28866 net.cpp:148] Top shape: 100 4096 (409600)
I0403 13:55:34.612843 28866 net.cpp:156] Memory required for data: 829887600
I0403 13:55:34.612861 28866 layer_factory.hpp:77] Creating layer drop7
I0403 13:55:34.612881 28866 net.cpp:91] Creating Layer drop7
I0403 13:55:34.612897 28866 net.cpp:425] drop7 <- fc7
I0403 13:55:34.612915 28866 net.cpp:386] drop7 -> fc7 (in-place)
I0403 13:55:34.612960 28866 net.cpp:141] Setting up drop7
I0403 13:55:34.612984 28866 net.cpp:148] Top shape: 100 4096 (409600)
I0403 13:55:34.612999 28866 net.cpp:156] Memory required for data: 831526000
I0403 13:55:34.613014 28866 layer_factory.hpp:77] Creating layer fc8_plantvillage
I0403 13:55:34.613039 28866 net.cpp:91] Creating Layer fc8_plantvillage
I0403 13:55:34.613056 28866 net.cpp:425] fc8_plantvillage <- fc7
I0403 13:55:34.613075 28866 net.cpp:399] fc8_plantvillage -> fc8_plantvillage
I0403 13:55:34.619801 28866 net.cpp:141] Setting up fc8_plantvillage
I0403 13:55:34.619830 28866 net.cpp:148] Top shape: 100 38 (3800)
I0403 13:55:34.619846 28866 net.cpp:156] Memory required for data: 831541200
I0403 13:55:34.619866 28866 layer_factory.hpp:77] Creating layer fc8_plantvillage_fc8_plantvillage_0_split
I0403 13:55:34.619889 28866 net.cpp:91] Creating Layer fc8_plantvillage_fc8_plantvillage_0_split
I0403 13:55:34.619907 28866 net.cpp:425] fc8_plantvillage_fc8_plantvillage_0_split <- fc8_plantvillage
I0403 13:55:34.619926 28866 net.cpp:399] fc8_plantvillage_fc8_plantvillage_0_split -> fc8_plantvillage_fc8_plantvillage_0_split_0
I0403 13:55:34.619949 28866 net.cpp:399] fc8_plantvillage_fc8_plantvillage_0_split -> fc8_plantvillage_fc8_plantvillage_0_split_1
I0403 13:55:34.619971 28866 net.cpp:399] fc8_plantvillage_fc8_plantvillage_0_split -> fc8_plantvillage_fc8_plantvillage_0_split_2
I0403 13:55:34.620048 28866 net.cpp:141] Setting up fc8_plantvillage_fc8_plantvillage_0_split
I0403 13:55:34.620074 28866 net.cpp:148] Top shape: 100 38 (3800)
I0403 13:55:34.620091 28866 net.cpp:148] Top shape: 100 38 (3800)
I0403 13:55:34.620108 28866 net.cpp:148] Top shape: 100 38 (3800)
I0403 13:55:34.620124 28866 net.cpp:156] Memory required for data: 831586800
I0403 13:55:34.620139 28866 layer_factory.hpp:77] Creating layer prob
I0403 13:55:34.620160 28866 net.cpp:91] Creating Layer prob
I0403 13:55:34.620177 28866 net.cpp:425] prob <- fc8_plantvillage_fc8_plantvillage_0_split_0
I0403 13:55:34.620196 28866 net.cpp:399] prob -> prob
I0403 13:55:34.620429 28866 net.cpp:141] Setting up prob
I0403 13:55:34.620455 28866 net.cpp:148] Top shape: 100 38 (3800)
I0403 13:55:34.620477 28866 net.cpp:156] Memory required for data: 831602000
I0403 13:55:34.620493 28866 layer_factory.hpp:77] Creating layer hdf5out
I0403 13:55:34.620512 28866 net.cpp:91] Creating Layer hdf5out
I0403 13:55:34.620529 28866 net.cpp:425] hdf5out <- prob
I0403 13:55:34.620546 28866 net.cpp:425] hdf5out <- label_data_1_split_0
I0403 13:55:34.624704 28866 net.cpp:141] Setting up hdf5out
…
