…
I0403 13:35:07.330209 28394 net.cpp:313] The NetState phase (1) differed from the phase (0) specified by a rule in layer data
I0403 13:35:07.330509 28394 net.cpp:49] Initializing net from parameters: 
state {
  phase: TEST
}
layer {
  name: "data"
  type: "Data"
  top: "data"
  top: "label"
  include {
    phase: TEST
  }
  transform_param {
    crop_size: 227
    mean_file: "/home/mohanty/data/final_dataset/lmdb/color-40-60/mean.binaryproto"
  }
  data_param {
    source: "/home/mohanty/data/final_dataset/lmdb/color-40-60/test_db"
    batch_size: 100
    backend: LMDB
  }
}
layer {
  name: "conv1"
  type: "Convolution"
  bottom: "data"
  top: "conv1"
  param {
    lr_mult: 1
    decay_mult: 1
  }
  param {
    lr_mult: 2
    decay_mult: 0
  }
  convolution_param {
    num_output: 96
    kernel_size: 11
    stride: 4
    weight_filler {
      type: "gaussian"
      std: 0.01
    }
    bias_filler {
      type: "constant"
      value: 0
    }
  }
}
layer {
  name: "relu1"
  type: "ReLU"
  bottom: "conv1"
  top: "conv1"
}
layer {
  name: "norm1"
  type: "LRN"
  bottom: "conv1"
  top: "norm1"
  lrn_param {
    local_size: 5
    alpha: 0.0001
    beta: 0.75
  }
}
layer {
  name: "pool1"
  type: "Pooling"
  bottom: "norm1"
  top: "pool1"
  pooling_param {
    pool: MAX
    kernel_size: 3
    stride: 2
  }
}
layer {
  name: "conv2"
  type: "Convolution"
  bottom: "pool1"
  top: "conv2"
  param {
    lr_mult: 1
    decay_mult: 1
  }
  param {
    lr_mult: 2
    decay_mult: 0
  }
  convolution_param {
    num_output: 256
    pad: 2
    kernel_size: 5
    group: 2
    weight_filler {
      type: "gaussian"
      std: 0.01
    }
    bias_filler {
      type: "constant"
      value: 0.1
    }
  }
}
layer {
  name: "relu2"
  type: "ReLU"
  bottom: "conv2"
  top: "conv2"
}
layer {
  name: "norm2"
  type: "LRN"
  bottom: "conv2"
  top: "norm2"
  lrn_param {
    local_size: 5
    alpha: 0.0001
    beta: 0.75
  }
}
layer {
  name: "pool2"
  type: "Pooling"
  bottom: "norm2"
  top: "pool2"
  pooling_param {
    pool: MAX
    kernel_size: 3
    stride: 2
  }
}
layer {
  name: "conv3"
  type: "Convolution"
  bottom: "pool2"
  top: "conv3"
  param {
    lr_mult: 1
    decay_mult: 1
  }
  param {
    lr_mult: 2
    decay_mult: 0
  }
  convolution_param {
    num_output: 384
    pad: 1
    kernel_size: 3
    weight_filler {
      type: "gaussian"
      std: 0.01
    }
    bias_filler {
      type: "constant"
      value: 0
    }
  }
}
layer {
  name: "relu3"
  type: "ReLU"
  bottom: "conv3"
  top: "conv3"
}
layer {
  name: "conv4"
  type: "Convolution"
  bottom: "conv3"
  top: "conv4"
  param {
    lr_mult: 1
    decay_mult: 1
  }
  param {
    lr_mult: 2
    decay_mult: 0
  }
  convolution_param {
    num_output: 384
    pad: 1
    kernel_size: 3
    group: 2
    weight_filler {
      type: "gaussian"
      std: 0.01
    }
    bias_filler {
      type: "constant"
      value: 0.1
    }
  }
}
layer {
  name: "relu4"
  type: "ReLU"
  bottom: "conv4"
  top: "conv4"
}
layer {
  name: "conv5"
  type: "Convolution"
  bottom: "conv4"
  top: "conv5"
  param {
    lr_mult: 1
    decay_mult: 1
  }
  param {
    lr_mult: 2
    decay_mult: 0
  }
  convolution_param {
    num_output: 256
    pad: 1
    kernel_size: 3
    group: 2
    weight_filler {
      type: "gaussian"
      std: 0.01
    }
    bias_filler {
      type: "constant"
      value: 0.1
    }
  }
}
layer {
  name: "relu5"
  type: "ReLU"
  bottom: "conv5"
  top: "conv5"
}
layer {
  name: "pool5"
  type: "Pooling"
  bottom: "conv5"
  top: "pool5"
  pooling_param {
    pool: MAX
    kernel_size: 3
    stride: 2
  }
}
layer {
  name: "fc6"
  type: "InnerProduct"
  bottom: "pool5"
  top: "fc6"
  param {
    lr_mult: 1
    decay_mult: 1
  }
  param {
    lr_mult: 2
    decay_mult: 0
  }
  inner_product_param {
    num_output: 4096
    weight_filler {
      type: "gaussian"
      std: 0.005
    }
    bias_filler {
      type: "constant"
      value: 0.1
    }
  }
}
layer {
  name: "relu6"
  type: "ReLU"
  bottom: "fc6"
  top: "fc6"
}
layer {
  name: "drop6"
  type: "Dropout"
  bottom: "fc6"
  top: "fc6"
  dropout_param {
    dropout_ratio: 0.5
  }
}
layer {
  name: "fc7"
  type: "InnerProduct"
  bottom: "fc6"
  top: "fc7"
  param {
    lr_mult: 1
    decay_mult: 1
  }
  param {
    lr_mult: 2
    decay_mult: 0
  }
  inner_product_param {
    num_output: 4096
    weight_filler {
      type: "gaussian"
      std: 0.005
    }
    bias_filler {
      type: "constant"
      value: 0.1
    }
  }
}
layer {
  name: "relu7"
  type: "ReLU"
  bottom: "fc7"
  top: "fc7"
}
layer {
  name: "drop7"
  type: "Dropout"
  bottom: "fc7"
  top: "fc7"
  dropout_param {
    dropout_ratio: 0.5
  }
}
layer {
  name: "fc8_plantvillage"
  type: "InnerProduct"
  bottom: "fc7"
  top: "fc8_plantvillage"
  param {
    lr_mult: 1
    decay_mult: 1
  }
  param {
    lr_mult: 2
    decay_mult: 0
  }
  inner_product_param {
    num_output: 38
    weight_filler {
      type: "gaussian"
      std: 0.01
    }
    bias_filler {
      type: "constant"
      value: 0
    }
  }
}
layer {
  name: "prob"
  type: "Softmax"
  bottom: "fc8_plantvillage"
  top: "prob"
  include {
    phase: TEST
  }
}
layer {
  name: "hdf5out"
  type: "HDF5Output"
  bottom: "prob"
  bottom: "label"
  include {
    phase: TEST
  }
  hdf5_output_param {
    file_name: "hdf5_dumps/iter_1302.h5"
  }
}
layer {
  name: "loss"
  type: "SoftmaxWithLoss"
  bottom: "fc8_plantvillage"
  bottom: "label"
  top: "loss"
}
layer {
  name: "accuracy"
  type: "Accuracy"
  bottom: "fc8_plantvillage"
  bottom: "label"
  top: "accuracy"
  include {
    phase: TEST
  }
}
I0403 13:35:07.331043 28394 layer_factory.hpp:77] Creating layer data
I0403 13:35:07.331710 28394 net.cpp:91] Creating Layer data
I0403 13:35:07.331743 28394 net.cpp:399] data -> data
I0403 13:35:07.331794 28394 net.cpp:399] data -> label
I0403 13:35:07.331833 28394 data_transformer.cpp:25] Loading mean file from: /home/mohanty/data/final_dataset/lmdb/color-40-60/mean.binaryproto
I0403 13:35:07.334589 28399 db_lmdb.cpp:38] Opened lmdb /home/mohanty/data/final_dataset/lmdb/color-40-60/test_db
I0403 13:35:07.346259 28394 data_layer.cpp:41] output data size: 100,3,227,227
I0403 13:35:07.477362 28394 net.cpp:141] Setting up data
I0403 13:35:07.477426 28394 net.cpp:148] Top shape: 100 3 227 227 (15458700)
I0403 13:35:07.477449 28394 net.cpp:148] Top shape: 100 (100)
I0403 13:35:07.477465 28394 net.cpp:156] Memory required for data: 61835200
I0403 13:35:07.477494 28394 layer_factory.hpp:77] Creating layer label_data_1_split
I0403 13:35:07.477519 28394 net.cpp:91] Creating Layer label_data_1_split
I0403 13:35:07.477537 28394 net.cpp:425] label_data_1_split <- label
I0403 13:35:07.477569 28394 net.cpp:399] label_data_1_split -> label_data_1_split_0
I0403 13:35:07.477597 28394 net.cpp:399] label_data_1_split -> label_data_1_split_1
I0403 13:35:07.477620 28394 net.cpp:399] label_data_1_split -> label_data_1_split_2
I0403 13:35:07.477684 28394 net.cpp:141] Setting up label_data_1_split
I0403 13:35:07.477706 28394 net.cpp:148] Top shape: 100 (100)
I0403 13:35:07.477725 28394 net.cpp:148] Top shape: 100 (100)
I0403 13:35:07.477741 28394 net.cpp:148] Top shape: 100 (100)
I0403 13:35:07.477756 28394 net.cpp:156] Memory required for data: 61836400
I0403 13:35:07.477772 28394 layer_factory.hpp:77] Creating layer conv1
I0403 13:35:07.477805 28394 net.cpp:91] Creating Layer conv1
I0403 13:35:07.477824 28394 net.cpp:425] conv1 <- data
I0403 13:35:07.477844 28394 net.cpp:399] conv1 -> conv1
I0403 13:35:07.628981 28394 net.cpp:141] Setting up conv1
I0403 13:35:07.629024 28394 net.cpp:148] Top shape: 100 96 55 55 (29040000)
I0403 13:35:07.629042 28394 net.cpp:156] Memory required for data: 177996400
I0403 13:35:07.629076 28394 layer_factory.hpp:77] Creating layer relu1
I0403 13:35:07.629104 28394 net.cpp:91] Creating Layer relu1
I0403 13:35:07.629124 28394 net.cpp:425] relu1 <- conv1
I0403 13:35:07.629143 28394 net.cpp:386] relu1 -> conv1 (in-place)
I0403 13:35:07.629467 28394 net.cpp:141] Setting up relu1
I0403 13:35:07.629497 28394 net.cpp:148] Top shape: 100 96 55 55 (29040000)
I0403 13:35:07.629513 28394 net.cpp:156] Memory required for data: 294156400
I0403 13:35:07.629565 28394 layer_factory.hpp:77] Creating layer norm1
I0403 13:35:07.629595 28394 net.cpp:91] Creating Layer norm1
I0403 13:35:07.629627 28394 net.cpp:425] norm1 <- conv1
I0403 13:35:07.629645 28394 net.cpp:399] norm1 -> norm1
I0403 13:35:07.629971 28394 net.cpp:141] Setting up norm1
I0403 13:35:07.630010 28394 net.cpp:148] Top shape: 100 96 55 55 (29040000)
I0403 13:35:07.630028 28394 net.cpp:156] Memory required for data: 410316400
I0403 13:35:07.630044 28394 layer_factory.hpp:77] Creating layer pool1
I0403 13:35:07.630069 28394 net.cpp:91] Creating Layer pool1
I0403 13:35:07.630100 28394 net.cpp:425] pool1 <- norm1
I0403 13:35:07.630118 28394 net.cpp:399] pool1 -> pool1
I0403 13:35:07.630187 28394 net.cpp:141] Setting up pool1
I0403 13:35:07.630213 28394 net.cpp:148] Top shape: 100 96 27 27 (6998400)
I0403 13:35:07.630228 28394 net.cpp:156] Memory required for data: 438310000
I0403 13:35:07.630245 28394 layer_factory.hpp:77] Creating layer conv2
I0403 13:35:07.630276 28394 net.cpp:91] Creating Layer conv2
I0403 13:35:07.630296 28394 net.cpp:425] conv2 <- pool1
I0403 13:35:07.630316 28394 net.cpp:399] conv2 -> conv2
I0403 13:35:07.645390 28394 net.cpp:141] Setting up conv2
I0403 13:35:07.645437 28394 net.cpp:148] Top shape: 100 256 27 27 (18662400)
I0403 13:35:07.645455 28394 net.cpp:156] Memory required for data: 512959600
I0403 13:35:07.645479 28394 layer_factory.hpp:77] Creating layer relu2
I0403 13:35:07.645503 28394 net.cpp:91] Creating Layer relu2
I0403 13:35:07.645522 28394 net.cpp:425] relu2 <- conv2
I0403 13:35:07.645541 28394 net.cpp:386] relu2 -> conv2 (in-place)
I0403 13:35:07.645876 28394 net.cpp:141] Setting up relu2
I0403 13:35:07.645905 28394 net.cpp:148] Top shape: 100 256 27 27 (18662400)
I0403 13:35:07.645920 28394 net.cpp:156] Memory required for data: 587609200
I0403 13:35:07.645938 28394 layer_factory.hpp:77] Creating layer norm2
I0403 13:35:07.645962 28394 net.cpp:91] Creating Layer norm2
I0403 13:35:07.645979 28394 net.cpp:425] norm2 <- conv2
I0403 13:35:07.645998 28394 net.cpp:399] norm2 -> norm2
I0403 13:35:07.646204 28394 net.cpp:141] Setting up norm2
I0403 13:35:07.646231 28394 net.cpp:148] Top shape: 100 256 27 27 (18662400)
I0403 13:35:07.646247 28394 net.cpp:156] Memory required for data: 662258800
I0403 13:35:07.646268 28394 layer_factory.hpp:77] Creating layer pool2
I0403 13:35:07.646287 28394 net.cpp:91] Creating Layer pool2
I0403 13:35:07.646303 28394 net.cpp:425] pool2 <- norm2
I0403 13:35:07.646324 28394 net.cpp:399] pool2 -> pool2
I0403 13:35:07.646378 28394 net.cpp:141] Setting up pool2
I0403 13:35:07.646404 28394 net.cpp:148] Top shape: 100 256 13 13 (4326400)
I0403 13:35:07.646421 28394 net.cpp:156] Memory required for data: 679564400
I0403 13:35:07.646436 28394 layer_factory.hpp:77] Creating layer conv3
I0403 13:35:07.646461 28394 net.cpp:91] Creating Layer conv3
I0403 13:35:07.646479 28394 net.cpp:425] conv3 <- pool2
I0403 13:35:07.646498 28394 net.cpp:399] conv3 -> conv3
I0403 13:35:07.692353 28394 net.cpp:141] Setting up conv3
I0403 13:35:07.692425 28394 net.cpp:148] Top shape: 100 384 13 13 (6489600)
I0403 13:35:07.692442 28394 net.cpp:156] Memory required for data: 705522800
I0403 13:35:07.692471 28394 layer_factory.hpp:77] Creating layer relu3
I0403 13:35:07.692494 28394 net.cpp:91] Creating Layer relu3
I0403 13:35:07.692514 28394 net.cpp:425] relu3 <- conv3
I0403 13:35:07.692538 28394 net.cpp:386] relu3 -> conv3 (in-place)
I0403 13:35:07.692818 28394 net.cpp:141] Setting up relu3
I0403 13:35:07.692847 28394 net.cpp:148] Top shape: 100 384 13 13 (6489600)
I0403 13:35:07.692864 28394 net.cpp:156] Memory required for data: 731481200
I0403 13:35:07.692880 28394 layer_factory.hpp:77] Creating layer conv4
I0403 13:35:07.692906 28394 net.cpp:91] Creating Layer conv4
I0403 13:35:07.692926 28394 net.cpp:425] conv4 <- conv3
I0403 13:35:07.692950 28394 net.cpp:399] conv4 -> conv4
I0403 13:35:07.723675 28394 net.cpp:141] Setting up conv4
I0403 13:35:07.723742 28394 net.cpp:148] Top shape: 100 384 13 13 (6489600)
I0403 13:35:07.723793 28394 net.cpp:156] Memory required for data: 757439600
I0403 13:35:07.723815 28394 layer_factory.hpp:77] Creating layer relu4
I0403 13:35:07.723839 28394 net.cpp:91] Creating Layer relu4
I0403 13:35:07.723856 28394 net.cpp:425] relu4 <- conv4
I0403 13:35:07.723881 28394 net.cpp:386] relu4 -> conv4 (in-place)
I0403 13:35:07.724169 28394 net.cpp:141] Setting up relu4
I0403 13:35:07.724198 28394 net.cpp:148] Top shape: 100 384 13 13 (6489600)
I0403 13:35:07.724215 28394 net.cpp:156] Memory required for data: 783398000
I0403 13:35:07.724231 28394 layer_factory.hpp:77] Creating layer conv5
I0403 13:35:07.724267 28394 net.cpp:91] Creating Layer conv5
I0403 13:35:07.724289 28394 net.cpp:425] conv5 <- conv4
I0403 13:35:07.724313 28394 net.cpp:399] conv5 -> conv5
I0403 13:35:07.745362 28394 net.cpp:141] Setting up conv5
I0403 13:35:07.745417 28394 net.cpp:148] Top shape: 100 256 13 13 (4326400)
I0403 13:35:07.745435 28394 net.cpp:156] Memory required for data: 800703600
I0403 13:35:07.745461 28394 layer_factory.hpp:77] Creating layer relu5
I0403 13:35:07.745484 28394 net.cpp:91] Creating Layer relu5
I0403 13:35:07.745512 28394 net.cpp:425] relu5 <- conv5
I0403 13:35:07.745530 28394 net.cpp:386] relu5 -> conv5 (in-place)
I0403 13:35:07.745815 28394 net.cpp:141] Setting up relu5
I0403 13:35:07.745842 28394 net.cpp:148] Top shape: 100 256 13 13 (4326400)
I0403 13:35:07.745859 28394 net.cpp:156] Memory required for data: 818009200
I0403 13:35:07.745875 28394 layer_factory.hpp:77] Creating layer pool5
I0403 13:35:07.745901 28394 net.cpp:91] Creating Layer pool5
I0403 13:35:07.745921 28394 net.cpp:425] pool5 <- conv5
I0403 13:35:07.745940 28394 net.cpp:399] pool5 -> pool5
I0403 13:35:07.746042 28394 net.cpp:141] Setting up pool5
I0403 13:35:07.746068 28394 net.cpp:148] Top shape: 100 256 6 6 (921600)
I0403 13:35:07.746085 28394 net.cpp:156] Memory required for data: 821695600
I0403 13:35:07.746100 28394 layer_factory.hpp:77] Creating layer fc6
I0403 13:35:07.746129 28394 net.cpp:91] Creating Layer fc6
I0403 13:35:07.746148 28394 net.cpp:425] fc6 <- pool5
I0403 13:35:07.746171 28394 net.cpp:399] fc6 -> fc6
I0403 13:35:09.313552 28394 net.cpp:141] Setting up fc6
I0403 13:35:09.313628 28394 net.cpp:148] Top shape: 100 4096 (409600)
I0403 13:35:09.313647 28394 net.cpp:156] Memory required for data: 823334000
I0403 13:35:09.313668 28394 layer_factory.hpp:77] Creating layer relu6
I0403 13:35:09.313693 28394 net.cpp:91] Creating Layer relu6
I0403 13:35:09.313711 28394 net.cpp:425] relu6 <- fc6
I0403 13:35:09.313732 28394 net.cpp:386] relu6 -> fc6 (in-place)
I0403 13:35:09.313957 28394 net.cpp:141] Setting up relu6
I0403 13:35:09.313983 28394 net.cpp:148] Top shape: 100 4096 (409600)
I0403 13:35:09.313998 28394 net.cpp:156] Memory required for data: 824972400
I0403 13:35:09.314013 28394 layer_factory.hpp:77] Creating layer drop6
I0403 13:35:09.314033 28394 net.cpp:91] Creating Layer drop6
I0403 13:35:09.314048 28394 net.cpp:425] drop6 <- fc6
I0403 13:35:09.314067 28394 net.cpp:386] drop6 -> fc6 (in-place)
I0403 13:35:09.314118 28394 net.cpp:141] Setting up drop6
I0403 13:35:09.314144 28394 net.cpp:148] Top shape: 100 4096 (409600)
I0403 13:35:09.314160 28394 net.cpp:156] Memory required for data: 826610800
I0403 13:35:09.314177 28394 layer_factory.hpp:77] Creating layer fc7
I0403 13:35:09.314198 28394 net.cpp:91] Creating Layer fc7
I0403 13:35:09.314213 28394 net.cpp:425] fc7 <- fc6
I0403 13:35:09.314232 28394 net.cpp:399] fc7 -> fc7
I0403 13:35:10.005995 28394 net.cpp:141] Setting up fc7
I0403 13:35:10.006057 28394 net.cpp:148] Top shape: 100 4096 (409600)
I0403 13:35:10.006074 28394 net.cpp:156] Memory required for data: 828249200
I0403 13:35:10.006096 28394 layer_factory.hpp:77] Creating layer relu7
I0403 13:35:10.006120 28394 net.cpp:91] Creating Layer relu7
I0403 13:35:10.006139 28394 net.cpp:425] relu7 <- fc7
I0403 13:35:10.006175 28394 net.cpp:386] relu7 -> fc7 (in-place)
I0403 13:35:10.006594 28394 net.cpp:141] Setting up relu7
I0403 13:35:10.006623 28394 net.cpp:148] Top shape: 100 4096 (409600)
I0403 13:35:10.006669 28394 net.cpp:156] Memory required for data: 829887600
I0403 13:35:10.006685 28394 layer_factory.hpp:77] Creating layer drop7
I0403 13:35:10.006703 28394 net.cpp:91] Creating Layer drop7
I0403 13:35:10.006719 28394 net.cpp:425] drop7 <- fc7
I0403 13:35:10.006739 28394 net.cpp:386] drop7 -> fc7 (in-place)
I0403 13:35:10.006784 28394 net.cpp:141] Setting up drop7
I0403 13:35:10.006810 28394 net.cpp:148] Top shape: 100 4096 (409600)
I0403 13:35:10.006825 28394 net.cpp:156] Memory required for data: 831526000
I0403 13:35:10.006841 28394 layer_factory.hpp:77] Creating layer fc8_plantvillage
I0403 13:35:10.006860 28394 net.cpp:91] Creating Layer fc8_plantvillage
I0403 13:35:10.006876 28394 net.cpp:425] fc8_plantvillage <- fc7
I0403 13:35:10.006897 28394 net.cpp:399] fc8_plantvillage -> fc8_plantvillage
I0403 13:35:10.013700 28394 net.cpp:141] Setting up fc8_plantvillage
I0403 13:35:10.013727 28394 net.cpp:148] Top shape: 100 38 (3800)
I0403 13:35:10.013744 28394 net.cpp:156] Memory required for data: 831541200
I0403 13:35:10.013763 28394 layer_factory.hpp:77] Creating layer fc8_plantvillage_fc8_plantvillage_0_split
I0403 13:35:10.013784 28394 net.cpp:91] Creating Layer fc8_plantvillage_fc8_plantvillage_0_split
I0403 13:35:10.013803 28394 net.cpp:425] fc8_plantvillage_fc8_plantvillage_0_split <- fc8_plantvillage
I0403 13:35:10.013820 28394 net.cpp:399] fc8_plantvillage_fc8_plantvillage_0_split -> fc8_plantvillage_fc8_plantvillage_0_split_0
I0403 13:35:10.013840 28394 net.cpp:399] fc8_plantvillage_fc8_plantvillage_0_split -> fc8_plantvillage_fc8_plantvillage_0_split_1
I0403 13:35:10.013861 28394 net.cpp:399] fc8_plantvillage_fc8_plantvillage_0_split -> fc8_plantvillage_fc8_plantvillage_0_split_2
I0403 13:35:10.013936 28394 net.cpp:141] Setting up fc8_plantvillage_fc8_plantvillage_0_split
I0403 13:35:10.013964 28394 net.cpp:148] Top shape: 100 38 (3800)
I0403 13:35:10.013983 28394 net.cpp:148] Top shape: 100 38 (3800)
I0403 13:35:10.014000 28394 net.cpp:148] Top shape: 100 38 (3800)
I0403 13:35:10.014014 28394 net.cpp:156] Memory required for data: 831586800
I0403 13:35:10.014029 28394 layer_factory.hpp:77] Creating layer prob
I0403 13:35:10.014048 28394 net.cpp:91] Creating Layer prob
I0403 13:35:10.014065 28394 net.cpp:425] prob <- fc8_plantvillage_fc8_plantvillage_0_split_0
I0403 13:35:10.014083 28394 net.cpp:399] prob -> prob
I0403 13:35:10.014312 28394 net.cpp:141] Setting up prob
I0403 13:35:10.014336 28394 net.cpp:148] Top shape: 100 38 (3800)
I0403 13:35:10.014353 28394 net.cpp:156] Memory required for data: 831602000
I0403 13:35:10.014367 28394 layer_factory.hpp:77] Creating layer hdf5out
I0403 13:35:10.014386 28394 net.cpp:91] Creating Layer hdf5out
I0403 13:35:10.014403 28394 net.cpp:425] hdf5out <- prob
I0403 13:35:10.014420 28394 net.cpp:425] hdf5out <- label_data_1_split_0
I0403 13:35:10.018817 28394 net.cpp:141] Setting up hdf5out
…
