…
I0403 13:54:23.560940 28840 net.cpp:313] The NetState phase (1) differed from the phase (0) specified by a rule in layer data
I0403 13:54:23.561250 28840 net.cpp:49] Initializing net from parameters: 
state {
  phase: TEST
}
layer {
  name: "data"
  type: "Data"
  top: "data"
  top: "label"
  include {
    phase: TEST
  }
  transform_param {
    crop_size: 227
    mean_file: "/home/mohanty/data/final_dataset/lmdb/color-40-60/mean.binaryproto"
  }
  data_param {
    source: "/home/mohanty/data/final_dataset/lmdb/color-40-60/test_db"
    batch_size: 100
    backend: LMDB
  }
}
layer {
  name: "conv1"
  type: "Convolution"
  bottom: "data"
  top: "conv1"
  param {
    lr_mult: 1
    decay_mult: 1
  }
  param {
    lr_mult: 2
    decay_mult: 0
  }
  convolution_param {
    num_output: 96
    kernel_size: 11
    stride: 4
    weight_filler {
      type: "gaussian"
      std: 0.01
    }
    bias_filler {
      type: "constant"
      value: 0
    }
  }
}
layer {
  name: "relu1"
  type: "ReLU"
  bottom: "conv1"
  top: "conv1"
}
layer {
  name: "norm1"
  type: "LRN"
  bottom: "conv1"
  top: "norm1"
  lrn_param {
    local_size: 5
    alpha: 0.0001
    beta: 0.75
  }
}
layer {
  name: "pool1"
  type: "Pooling"
  bottom: "norm1"
  top: "pool1"
  pooling_param {
    pool: MAX
    kernel_size: 3
    stride: 2
  }
}
layer {
  name: "conv2"
  type: "Convolution"
  bottom: "pool1"
  top: "conv2"
  param {
    lr_mult: 1
    decay_mult: 1
  }
  param {
    lr_mult: 2
    decay_mult: 0
  }
  convolution_param {
    num_output: 256
    pad: 2
    kernel_size: 5
    group: 2
    weight_filler {
      type: "gaussian"
      std: 0.01
    }
    bias_filler {
      type: "constant"
      value: 0.1
    }
  }
}
layer {
  name: "relu2"
  type: "ReLU"
  bottom: "conv2"
  top: "conv2"
}
layer {
  name: "norm2"
  type: "LRN"
  bottom: "conv2"
  top: "norm2"
  lrn_param {
    local_size: 5
    alpha: 0.0001
    beta: 0.75
  }
}
layer {
  name: "pool2"
  type: "Pooling"
  bottom: "norm2"
  top: "pool2"
  pooling_param {
    pool: MAX
    kernel_size: 3
    stride: 2
  }
}
layer {
  name: "conv3"
  type: "Convolution"
  bottom: "pool2"
  top: "conv3"
  param {
    lr_mult: 1
    decay_mult: 1
  }
  param {
    lr_mult: 2
    decay_mult: 0
  }
  convolution_param {
    num_output: 384
    pad: 1
    kernel_size: 3
    weight_filler {
      type: "gaussian"
      std: 0.01
    }
    bias_filler {
      type: "constant"
      value: 0
    }
  }
}
layer {
  name: "relu3"
  type: "ReLU"
  bottom: "conv3"
  top: "conv3"
}
layer {
  name: "conv4"
  type: "Convolution"
  bottom: "conv3"
  top: "conv4"
  param {
    lr_mult: 1
    decay_mult: 1
  }
  param {
    lr_mult: 2
    decay_mult: 0
  }
  convolution_param {
    num_output: 384
    pad: 1
    kernel_size: 3
    group: 2
    weight_filler {
      type: "gaussian"
      std: 0.01
    }
    bias_filler {
      type: "constant"
      value: 0.1
    }
  }
}
layer {
  name: "relu4"
  type: "ReLU"
  bottom: "conv4"
  top: "conv4"
}
layer {
  name: "conv5"
  type: "Convolution"
  bottom: "conv4"
  top: "conv5"
  param {
    lr_mult: 1
    decay_mult: 1
  }
  param {
    lr_mult: 2
    decay_mult: 0
  }
  convolution_param {
    num_output: 256
    pad: 1
    kernel_size: 3
    group: 2
    weight_filler {
      type: "gaussian"
      std: 0.01
    }
    bias_filler {
      type: "constant"
      value: 0.1
    }
  }
}
layer {
  name: "relu5"
  type: "ReLU"
  bottom: "conv5"
  top: "conv5"
}
layer {
  name: "pool5"
  type: "Pooling"
  bottom: "conv5"
  top: "pool5"
  pooling_param {
    pool: MAX
    kernel_size: 3
    stride: 2
  }
}
layer {
  name: "fc6"
  type: "InnerProduct"
  bottom: "pool5"
  top: "fc6"
  param {
    lr_mult: 1
    decay_mult: 1
  }
  param {
    lr_mult: 2
    decay_mult: 0
  }
  inner_product_param {
    num_output: 4096
    weight_filler {
      type: "gaussian"
      std: 0.005
    }
    bias_filler {
      type: "constant"
      value: 0.1
    }
  }
}
layer {
  name: "relu6"
  type: "ReLU"
  bottom: "fc6"
  top: "fc6"
}
layer {
  name: "drop6"
  type: "Dropout"
  bottom: "fc6"
  top: "fc6"
  dropout_param {
    dropout_ratio: 0.5
  }
}
layer {
  name: "fc7"
  type: "InnerProduct"
  bottom: "fc6"
  top: "fc7"
  param {
    lr_mult: 1
    decay_mult: 1
  }
  param {
    lr_mult: 2
    decay_mult: 0
  }
  inner_product_param {
    num_output: 4096
    weight_filler {
      type: "gaussian"
      std: 0.005
    }
    bias_filler {
      type: "constant"
      value: 0.1
    }
  }
}
layer {
  name: "relu7"
  type: "ReLU"
  bottom: "fc7"
  top: "fc7"
}
layer {
  name: "drop7"
  type: "Dropout"
  bottom: "fc7"
  top: "fc7"
  dropout_param {
    dropout_ratio: 0.5
  }
}
layer {
  name: "fc8_plantvillage"
  type: "InnerProduct"
  bottom: "fc7"
  top: "fc8_plantvillage"
  param {
    lr_mult: 1
    decay_mult: 1
  }
  param {
    lr_mult: 2
    decay_mult: 0
  }
  inner_product_param {
    num_output: 38
    weight_filler {
      type: "gaussian"
      std: 0.01
    }
    bias_filler {
      type: "constant"
      value: 0
    }
  }
}
layer {
  name: "prob"
  type: "Softmax"
  bottom: "fc8_plantvillage"
  top: "prob"
  include {
    phase: TEST
  }
}
layer {
  name: "hdf5out"
  type: "HDF5Output"
  bottom: "prob"
  bottom: "label"
  include {
    phase: TEST
  }
  hdf5_output_param {
    file_name: "hdf5_dumps/iter_4991.h5"
  }
}
layer {
  name: "loss"
  type: "SoftmaxWithLoss"
  bottom: "fc8_plantvillage"
  bottom: "label"
  top: "loss"
}
layer {
  name: "accuracy"
  type: "Accuracy"
  bottom: "fc8_plantvillage"
  bottom: "label"
  top: "accuracy"
  include {
    phase: TEST
  }
}
I0403 13:54:23.561836 28840 layer_factory.hpp:77] Creating layer data
I0403 13:54:23.562475 28840 net.cpp:91] Creating Layer data
I0403 13:54:23.562510 28840 net.cpp:399] data -> data
I0403 13:54:23.562561 28840 net.cpp:399] data -> label
I0403 13:54:23.562597 28840 data_transformer.cpp:25] Loading mean file from: /home/mohanty/data/final_dataset/lmdb/color-40-60/mean.binaryproto
I0403 13:54:23.565608 28845 db_lmdb.cpp:38] Opened lmdb /home/mohanty/data/final_dataset/lmdb/color-40-60/test_db
I0403 13:54:23.576879 28840 data_layer.cpp:41] output data size: 100,3,227,227
I0403 13:54:23.711226 28840 net.cpp:141] Setting up data
I0403 13:54:23.711328 28840 net.cpp:148] Top shape: 100 3 227 227 (15458700)
I0403 13:54:23.711352 28840 net.cpp:148] Top shape: 100 (100)
I0403 13:54:23.711369 28840 net.cpp:156] Memory required for data: 61835200
I0403 13:54:23.711401 28840 layer_factory.hpp:77] Creating layer label_data_1_split
I0403 13:54:23.711429 28840 net.cpp:91] Creating Layer label_data_1_split
I0403 13:54:23.711447 28840 net.cpp:425] label_data_1_split <- label
I0403 13:54:23.711482 28840 net.cpp:399] label_data_1_split -> label_data_1_split_0
I0403 13:54:23.711510 28840 net.cpp:399] label_data_1_split -> label_data_1_split_1
I0403 13:54:23.711532 28840 net.cpp:399] label_data_1_split -> label_data_1_split_2
I0403 13:54:23.711602 28840 net.cpp:141] Setting up label_data_1_split
I0403 13:54:23.711627 28840 net.cpp:148] Top shape: 100 (100)
I0403 13:54:23.711645 28840 net.cpp:148] Top shape: 100 (100)
I0403 13:54:23.711663 28840 net.cpp:148] Top shape: 100 (100)
I0403 13:54:23.711678 28840 net.cpp:156] Memory required for data: 61836400
I0403 13:54:23.711694 28840 layer_factory.hpp:77] Creating layer conv1
I0403 13:54:23.711729 28840 net.cpp:91] Creating Layer conv1
I0403 13:54:23.711747 28840 net.cpp:425] conv1 <- data
I0403 13:54:23.711768 28840 net.cpp:399] conv1 -> conv1
I0403 13:54:23.860628 28840 net.cpp:141] Setting up conv1
I0403 13:54:23.860704 28840 net.cpp:148] Top shape: 100 96 55 55 (29040000)
I0403 13:54:23.860723 28840 net.cpp:156] Memory required for data: 177996400
I0403 13:54:23.860754 28840 layer_factory.hpp:77] Creating layer relu1
I0403 13:54:23.860783 28840 net.cpp:91] Creating Layer relu1
I0403 13:54:23.860805 28840 net.cpp:425] relu1 <- conv1
I0403 13:54:23.860823 28840 net.cpp:386] relu1 -> conv1 (in-place)
I0403 13:54:23.861088 28840 net.cpp:141] Setting up relu1
I0403 13:54:23.861115 28840 net.cpp:148] Top shape: 100 96 55 55 (29040000)
I0403 13:54:23.861131 28840 net.cpp:156] Memory required for data: 294156400
I0403 13:54:23.861181 28840 layer_factory.hpp:77] Creating layer norm1
I0403 13:54:23.861213 28840 net.cpp:91] Creating Layer norm1
I0403 13:54:23.861232 28840 net.cpp:425] norm1 <- conv1
I0403 13:54:23.861261 28840 net.cpp:399] norm1 -> norm1
I0403 13:54:23.861589 28840 net.cpp:141] Setting up norm1
I0403 13:54:23.861630 28840 net.cpp:148] Top shape: 100 96 55 55 (29040000)
I0403 13:54:23.861647 28840 net.cpp:156] Memory required for data: 410316400
I0403 13:54:23.861663 28840 layer_factory.hpp:77] Creating layer pool1
I0403 13:54:23.861686 28840 net.cpp:91] Creating Layer pool1
I0403 13:54:23.861703 28840 net.cpp:425] pool1 <- norm1
I0403 13:54:23.861723 28840 net.cpp:399] pool1 -> pool1
I0403 13:54:23.861790 28840 net.cpp:141] Setting up pool1
I0403 13:54:23.861815 28840 net.cpp:148] Top shape: 100 96 27 27 (6998400)
I0403 13:54:23.861831 28840 net.cpp:156] Memory required for data: 438310000
I0403 13:54:23.861847 28840 layer_factory.hpp:77] Creating layer conv2
I0403 13:54:23.861872 28840 net.cpp:91] Creating Layer conv2
I0403 13:54:23.861889 28840 net.cpp:425] conv2 <- pool1
I0403 13:54:23.861908 28840 net.cpp:399] conv2 -> conv2
I0403 13:54:23.876900 28840 net.cpp:141] Setting up conv2
I0403 13:54:23.876947 28840 net.cpp:148] Top shape: 100 256 27 27 (18662400)
I0403 13:54:23.876965 28840 net.cpp:156] Memory required for data: 512959600
I0403 13:54:23.876988 28840 layer_factory.hpp:77] Creating layer relu2
I0403 13:54:23.877009 28840 net.cpp:91] Creating Layer relu2
I0403 13:54:23.877027 28840 net.cpp:425] relu2 <- conv2
I0403 13:54:23.877046 28840 net.cpp:386] relu2 -> conv2 (in-place)
I0403 13:54:23.877322 28840 net.cpp:141] Setting up relu2
I0403 13:54:23.877349 28840 net.cpp:148] Top shape: 100 256 27 27 (18662400)
I0403 13:54:23.877367 28840 net.cpp:156] Memory required for data: 587609200
I0403 13:54:23.877382 28840 layer_factory.hpp:77] Creating layer norm2
I0403 13:54:23.877405 28840 net.cpp:91] Creating Layer norm2
I0403 13:54:23.877423 28840 net.cpp:425] norm2 <- conv2
I0403 13:54:23.877441 28840 net.cpp:399] norm2 -> norm2
I0403 13:54:23.877627 28840 net.cpp:141] Setting up norm2
I0403 13:54:23.877655 28840 net.cpp:148] Top shape: 100 256 27 27 (18662400)
I0403 13:54:23.877671 28840 net.cpp:156] Memory required for data: 662258800
I0403 13:54:23.877687 28840 layer_factory.hpp:77] Creating layer pool2
I0403 13:54:23.877707 28840 net.cpp:91] Creating Layer pool2
I0403 13:54:23.877724 28840 net.cpp:425] pool2 <- norm2
I0403 13:54:23.877744 28840 net.cpp:399] pool2 -> pool2
I0403 13:54:23.877795 28840 net.cpp:141] Setting up pool2
I0403 13:54:23.877818 28840 net.cpp:148] Top shape: 100 256 13 13 (4326400)
I0403 13:54:23.877835 28840 net.cpp:156] Memory required for data: 679564400
I0403 13:54:23.877849 28840 layer_factory.hpp:77] Creating layer conv3
I0403 13:54:23.877872 28840 net.cpp:91] Creating Layer conv3
I0403 13:54:23.877890 28840 net.cpp:425] conv3 <- pool2
I0403 13:54:23.877910 28840 net.cpp:399] conv3 -> conv3
I0403 13:54:23.926293 28840 net.cpp:141] Setting up conv3
I0403 13:54:23.926337 28840 net.cpp:148] Top shape: 100 384 13 13 (6489600)
I0403 13:54:23.926355 28840 net.cpp:156] Memory required for data: 705522800
I0403 13:54:23.926383 28840 layer_factory.hpp:77] Creating layer relu3
I0403 13:54:23.926406 28840 net.cpp:91] Creating Layer relu3
I0403 13:54:23.926424 28840 net.cpp:425] relu3 <- conv3
I0403 13:54:23.926445 28840 net.cpp:386] relu3 -> conv3 (in-place)
I0403 13:54:23.926704 28840 net.cpp:141] Setting up relu3
I0403 13:54:23.926733 28840 net.cpp:148] Top shape: 100 384 13 13 (6489600)
I0403 13:54:23.926748 28840 net.cpp:156] Memory required for data: 731481200
I0403 13:54:23.926764 28840 layer_factory.hpp:77] Creating layer conv4
I0403 13:54:23.926787 28840 net.cpp:91] Creating Layer conv4
I0403 13:54:23.926805 28840 net.cpp:425] conv4 <- conv3
I0403 13:54:23.926826 28840 net.cpp:399] conv4 -> conv4
I0403 13:54:23.956531 28840 net.cpp:141] Setting up conv4
I0403 13:54:23.956625 28840 net.cpp:148] Top shape: 100 384 13 13 (6489600)
I0403 13:54:23.956676 28840 net.cpp:156] Memory required for data: 757439600
I0403 13:54:23.956699 28840 layer_factory.hpp:77] Creating layer relu4
I0403 13:54:23.956722 28840 net.cpp:91] Creating Layer relu4
I0403 13:54:23.956740 28840 net.cpp:425] relu4 <- conv4
I0403 13:54:23.956761 28840 net.cpp:386] relu4 -> conv4 (in-place)
I0403 13:54:23.957048 28840 net.cpp:141] Setting up relu4
I0403 13:54:23.957077 28840 net.cpp:148] Top shape: 100 384 13 13 (6489600)
I0403 13:54:23.957094 28840 net.cpp:156] Memory required for data: 783398000
I0403 13:54:23.957109 28840 layer_factory.hpp:77] Creating layer conv5
I0403 13:54:23.957135 28840 net.cpp:91] Creating Layer conv5
I0403 13:54:23.957154 28840 net.cpp:425] conv5 <- conv4
I0403 13:54:23.957172 28840 net.cpp:399] conv5 -> conv5
I0403 13:54:23.977619 28840 net.cpp:141] Setting up conv5
I0403 13:54:23.977674 28840 net.cpp:148] Top shape: 100 256 13 13 (4326400)
I0403 13:54:23.977690 28840 net.cpp:156] Memory required for data: 800703600
I0403 13:54:23.977717 28840 layer_factory.hpp:77] Creating layer relu5
I0403 13:54:23.977738 28840 net.cpp:91] Creating Layer relu5
I0403 13:54:23.977756 28840 net.cpp:425] relu5 <- conv5
I0403 13:54:23.977777 28840 net.cpp:386] relu5 -> conv5 (in-place)
I0403 13:54:23.978057 28840 net.cpp:141] Setting up relu5
I0403 13:54:23.978086 28840 net.cpp:148] Top shape: 100 256 13 13 (4326400)
I0403 13:54:23.978103 28840 net.cpp:156] Memory required for data: 818009200
I0403 13:54:23.978119 28840 layer_factory.hpp:77] Creating layer pool5
I0403 13:54:23.978147 28840 net.cpp:91] Creating Layer pool5
I0403 13:54:23.978164 28840 net.cpp:425] pool5 <- conv5
I0403 13:54:23.978184 28840 net.cpp:399] pool5 -> pool5
I0403 13:54:23.978246 28840 net.cpp:141] Setting up pool5
I0403 13:54:23.978276 28840 net.cpp:148] Top shape: 100 256 6 6 (921600)
I0403 13:54:23.978292 28840 net.cpp:156] Memory required for data: 821695600
I0403 13:54:23.978309 28840 layer_factory.hpp:77] Creating layer fc6
I0403 13:54:23.978339 28840 net.cpp:91] Creating Layer fc6
I0403 13:54:23.978359 28840 net.cpp:425] fc6 <- pool5
I0403 13:54:23.978379 28840 net.cpp:399] fc6 -> fc6
I0403 13:54:25.566004 28840 net.cpp:141] Setting up fc6
I0403 13:54:25.566047 28840 net.cpp:148] Top shape: 100 4096 (409600)
I0403 13:54:25.566064 28840 net.cpp:156] Memory required for data: 823334000
I0403 13:54:25.566087 28840 layer_factory.hpp:77] Creating layer relu6
I0403 13:54:25.566110 28840 net.cpp:91] Creating Layer relu6
I0403 13:54:25.566126 28840 net.cpp:425] relu6 <- fc6
I0403 13:54:25.566149 28840 net.cpp:386] relu6 -> fc6 (in-place)
I0403 13:54:25.566393 28840 net.cpp:141] Setting up relu6
I0403 13:54:25.566418 28840 net.cpp:148] Top shape: 100 4096 (409600)
I0403 13:54:25.566434 28840 net.cpp:156] Memory required for data: 824972400
I0403 13:54:25.566450 28840 layer_factory.hpp:77] Creating layer drop6
I0403 13:54:25.566469 28840 net.cpp:91] Creating Layer drop6
I0403 13:54:25.566484 28840 net.cpp:425] drop6 <- fc6
I0403 13:54:25.566504 28840 net.cpp:386] drop6 -> fc6 (in-place)
I0403 13:54:25.566555 28840 net.cpp:141] Setting up drop6
I0403 13:54:25.566581 28840 net.cpp:148] Top shape: 100 4096 (409600)
I0403 13:54:25.566599 28840 net.cpp:156] Memory required for data: 826610800
I0403 13:54:25.566627 28840 layer_factory.hpp:77] Creating layer fc7
I0403 13:54:25.566647 28840 net.cpp:91] Creating Layer fc7
I0403 13:54:25.566661 28840 net.cpp:425] fc7 <- fc6
I0403 13:54:25.566680 28840 net.cpp:399] fc7 -> fc7
I0403 13:54:26.263298 28840 net.cpp:141] Setting up fc7
I0403 13:54:26.263375 28840 net.cpp:148] Top shape: 100 4096 (409600)
I0403 13:54:26.263392 28840 net.cpp:156] Memory required for data: 828249200
I0403 13:54:26.263414 28840 layer_factory.hpp:77] Creating layer relu7
I0403 13:54:26.263438 28840 net.cpp:91] Creating Layer relu7
I0403 13:54:26.263458 28840 net.cpp:425] relu7 <- fc7
I0403 13:54:26.263481 28840 net.cpp:386] relu7 -> fc7 (in-place)
I0403 13:54:26.263886 28840 net.cpp:141] Setting up relu7
I0403 13:54:26.263914 28840 net.cpp:148] Top shape: 100 4096 (409600)
I0403 13:54:26.263963 28840 net.cpp:156] Memory required for data: 829887600
I0403 13:54:26.263981 28840 layer_factory.hpp:77] Creating layer drop7
I0403 13:54:26.264001 28840 net.cpp:91] Creating Layer drop7
I0403 13:54:26.264016 28840 net.cpp:425] drop7 <- fc7
I0403 13:54:26.264037 28840 net.cpp:386] drop7 -> fc7 (in-place)
I0403 13:54:26.264081 28840 net.cpp:141] Setting up drop7
I0403 13:54:26.264106 28840 net.cpp:148] Top shape: 100 4096 (409600)
I0403 13:54:26.264120 28840 net.cpp:156] Memory required for data: 831526000
I0403 13:54:26.264135 28840 layer_factory.hpp:77] Creating layer fc8_plantvillage
I0403 13:54:26.264155 28840 net.cpp:91] Creating Layer fc8_plantvillage
I0403 13:54:26.264170 28840 net.cpp:425] fc8_plantvillage <- fc7
I0403 13:54:26.264189 28840 net.cpp:399] fc8_plantvillage -> fc8_plantvillage
I0403 13:54:26.271028 28840 net.cpp:141] Setting up fc8_plantvillage
I0403 13:54:26.271056 28840 net.cpp:148] Top shape: 100 38 (3800)
I0403 13:54:26.271072 28840 net.cpp:156] Memory required for data: 831541200
I0403 13:54:26.271091 28840 layer_factory.hpp:77] Creating layer fc8_plantvillage_fc8_plantvillage_0_split
I0403 13:54:26.271109 28840 net.cpp:91] Creating Layer fc8_plantvillage_fc8_plantvillage_0_split
I0403 13:54:26.271124 28840 net.cpp:425] fc8_plantvillage_fc8_plantvillage_0_split <- fc8_plantvillage
I0403 13:54:26.271144 28840 net.cpp:399] fc8_plantvillage_fc8_plantvillage_0_split -> fc8_plantvillage_fc8_plantvillage_0_split_0
I0403 13:54:26.271165 28840 net.cpp:399] fc8_plantvillage_fc8_plantvillage_0_split -> fc8_plantvillage_fc8_plantvillage_0_split_1
I0403 13:54:26.271185 28840 net.cpp:399] fc8_plantvillage_fc8_plantvillage_0_split -> fc8_plantvillage_fc8_plantvillage_0_split_2
I0403 13:54:26.271265 28840 net.cpp:141] Setting up fc8_plantvillage_fc8_plantvillage_0_split
I0403 13:54:26.271289 28840 net.cpp:148] Top shape: 100 38 (3800)
I0403 13:54:26.271306 28840 net.cpp:148] Top shape: 100 38 (3800)
I0403 13:54:26.271322 28840 net.cpp:148] Top shape: 100 38 (3800)
I0403 13:54:26.271335 28840 net.cpp:156] Memory required for data: 831586800
I0403 13:54:26.271352 28840 layer_factory.hpp:77] Creating layer prob
I0403 13:54:26.271369 28840 net.cpp:91] Creating Layer prob
I0403 13:54:26.271384 28840 net.cpp:425] prob <- fc8_plantvillage_fc8_plantvillage_0_split_0
I0403 13:54:26.271404 28840 net.cpp:399] prob -> prob
I0403 13:54:26.271618 28840 net.cpp:141] Setting up prob
I0403 13:54:26.271644 28840 net.cpp:148] Top shape: 100 38 (3800)
I0403 13:54:26.271659 28840 net.cpp:156] Memory required for data: 831602000
I0403 13:54:26.271675 28840 layer_factory.hpp:77] Creating layer hdf5out
I0403 13:54:26.271694 28840 net.cpp:91] Creating Layer hdf5out
I0403 13:54:26.271710 28840 net.cpp:425] hdf5out <- prob
I0403 13:54:26.271726 28840 net.cpp:425] hdf5out <- label_data_1_split_0
I0403 13:54:26.275228 28840 net.cpp:141] Setting up hdf5out
…
