…
I0403 14:01:13.138567 29007 net.cpp:313] The NetState phase (1) differed from the phase (0) specified by a rule in layer data
I0403 14:01:13.138850 29007 net.cpp:49] Initializing net from parameters: 
state {
  phase: TEST
}
layer {
  name: "data"
  type: "Data"
  top: "data"
  top: "label"
  include {
    phase: TEST
  }
  transform_param {
    crop_size: 227
    mean_file: "/home/mohanty/data/final_dataset/lmdb/color-40-60/mean.binaryproto"
  }
  data_param {
    source: "/home/mohanty/data/final_dataset/lmdb/color-40-60/test_db"
    batch_size: 100
    backend: LMDB
  }
}
layer {
  name: "conv1"
  type: "Convolution"
  bottom: "data"
  top: "conv1"
  param {
    lr_mult: 1
    decay_mult: 1
  }
  param {
    lr_mult: 2
    decay_mult: 0
  }
  convolution_param {
    num_output: 96
    kernel_size: 11
    stride: 4
    weight_filler {
      type: "gaussian"
      std: 0.01
    }
    bias_filler {
      type: "constant"
      value: 0
    }
  }
}
layer {
  name: "relu1"
  type: "ReLU"
  bottom: "conv1"
  top: "conv1"
}
layer {
  name: "norm1"
  type: "LRN"
  bottom: "conv1"
  top: "norm1"
  lrn_param {
    local_size: 5
    alpha: 0.0001
    beta: 0.75
  }
}
layer {
  name: "pool1"
  type: "Pooling"
  bottom: "norm1"
  top: "pool1"
  pooling_param {
    pool: MAX
    kernel_size: 3
    stride: 2
  }
}
layer {
  name: "conv2"
  type: "Convolution"
  bottom: "pool1"
  top: "conv2"
  param {
    lr_mult: 1
    decay_mult: 1
  }
  param {
    lr_mult: 2
    decay_mult: 0
  }
  convolution_param {
    num_output: 256
    pad: 2
    kernel_size: 5
    group: 2
    weight_filler {
      type: "gaussian"
      std: 0.01
    }
    bias_filler {
      type: "constant"
      value: 0.1
    }
  }
}
layer {
  name: "relu2"
  type: "ReLU"
  bottom: "conv2"
  top: "conv2"
}
layer {
  name: "norm2"
  type: "LRN"
  bottom: "conv2"
  top: "norm2"
  lrn_param {
    local_size: 5
    alpha: 0.0001
    beta: 0.75
  }
}
layer {
  name: "pool2"
  type: "Pooling"
  bottom: "norm2"
  top: "pool2"
  pooling_param {
    pool: MAX
    kernel_size: 3
    stride: 2
  }
}
layer {
  name: "conv3"
  type: "Convolution"
  bottom: "pool2"
  top: "conv3"
  param {
    lr_mult: 1
    decay_mult: 1
  }
  param {
    lr_mult: 2
    decay_mult: 0
  }
  convolution_param {
    num_output: 384
    pad: 1
    kernel_size: 3
    weight_filler {
      type: "gaussian"
      std: 0.01
    }
    bias_filler {
      type: "constant"
      value: 0
    }
  }
}
layer {
  name: "relu3"
  type: "ReLU"
  bottom: "conv3"
  top: "conv3"
}
layer {
  name: "conv4"
  type: "Convolution"
  bottom: "conv3"
  top: "conv4"
  param {
    lr_mult: 1
    decay_mult: 1
  }
  param {
    lr_mult: 2
    decay_mult: 0
  }
  convolution_param {
    num_output: 384
    pad: 1
    kernel_size: 3
    group: 2
    weight_filler {
      type: "gaussian"
      std: 0.01
    }
    bias_filler {
      type: "constant"
      value: 0.1
    }
  }
}
layer {
  name: "relu4"
  type: "ReLU"
  bottom: "conv4"
  top: "conv4"
}
layer {
  name: "conv5"
  type: "Convolution"
  bottom: "conv4"
  top: "conv5"
  param {
    lr_mult: 1
    decay_mult: 1
  }
  param {
    lr_mult: 2
    decay_mult: 0
  }
  convolution_param {
    num_output: 256
    pad: 1
    kernel_size: 3
    group: 2
    weight_filler {
      type: "gaussian"
      std: 0.01
    }
    bias_filler {
      type: "constant"
      value: 0.1
    }
  }
}
layer {
  name: "relu5"
  type: "ReLU"
  bottom: "conv5"
  top: "conv5"
}
layer {
  name: "pool5"
  type: "Pooling"
  bottom: "conv5"
  top: "pool5"
  pooling_param {
    pool: MAX
    kernel_size: 3
    stride: 2
  }
}
layer {
  name: "fc6"
  type: "InnerProduct"
  bottom: "pool5"
  top: "fc6"
  param {
    lr_mult: 1
    decay_mult: 1
  }
  param {
    lr_mult: 2
    decay_mult: 0
  }
  inner_product_param {
    num_output: 4096
    weight_filler {
      type: "gaussian"
      std: 0.005
    }
    bias_filler {
      type: "constant"
      value: 0.1
    }
  }
}
layer {
  name: "relu6"
  type: "ReLU"
  bottom: "fc6"
  top: "fc6"
}
layer {
  name: "drop6"
  type: "Dropout"
  bottom: "fc6"
  top: "fc6"
  dropout_param {
    dropout_ratio: 0.5
  }
}
layer {
  name: "fc7"
  type: "InnerProduct"
  bottom: "fc6"
  top: "fc7"
  param {
    lr_mult: 1
    decay_mult: 1
  }
  param {
    lr_mult: 2
    decay_mult: 0
  }
  inner_product_param {
    num_output: 4096
    weight_filler {
      type: "gaussian"
      std: 0.005
    }
    bias_filler {
      type: "constant"
      value: 0.1
    }
  }
}
layer {
  name: "relu7"
  type: "ReLU"
  bottom: "fc7"
  top: "fc7"
}
layer {
  name: "drop7"
  type: "Dropout"
  bottom: "fc7"
  top: "fc7"
  dropout_param {
    dropout_ratio: 0.5
  }
}
layer {
  name: "fc8_plantvillage"
  type: "InnerProduct"
  bottom: "fc7"
  top: "fc8_plantvillage"
  param {
    lr_mult: 1
    decay_mult: 1
  }
  param {
    lr_mult: 2
    decay_mult: 0
  }
  inner_product_param {
    num_output: 38
    weight_filler {
      type: "gaussian"
      std: 0.01
    }
    bias_filler {
      type: "constant"
      value: 0
    }
  }
}
layer {
  name: "prob"
  type: "Softmax"
  bottom: "fc8_plantvillage"
  top: "prob"
  include {
    phase: TEST
  }
}
layer {
  name: "hdf5out"
  type: "HDF5Output"
  bottom: "prob"
  bottom: "label"
  include {
    phase: TEST
  }
  hdf5_output_param {
    file_name: "hdf5_dumps/iter_6293.h5"
  }
}
layer {
  name: "loss"
  type: "SoftmaxWithLoss"
  bottom: "fc8_plantvillage"
  bottom: "label"
  top: "loss"
}
layer {
  name: "accuracy"
  type: "Accuracy"
  bottom: "fc8_plantvillage"
  bottom: "label"
  top: "accuracy"
  include {
    phase: TEST
  }
}
I0403 14:01:13.139374 29007 layer_factory.hpp:77] Creating layer data
I0403 14:01:13.139994 29007 net.cpp:91] Creating Layer data
I0403 14:01:13.140027 29007 net.cpp:399] data -> data
I0403 14:01:13.140079 29007 net.cpp:399] data -> label
I0403 14:01:13.140115 29007 data_transformer.cpp:25] Loading mean file from: /home/mohanty/data/final_dataset/lmdb/color-40-60/mean.binaryproto
I0403 14:01:13.143394 29009 db_lmdb.cpp:38] Opened lmdb /home/mohanty/data/final_dataset/lmdb/color-40-60/test_db
I0403 14:01:13.154068 29007 data_layer.cpp:41] output data size: 100,3,227,227
I0403 14:01:13.283776 29007 net.cpp:141] Setting up data
I0403 14:01:13.283870 29007 net.cpp:148] Top shape: 100 3 227 227 (15458700)
I0403 14:01:13.283895 29007 net.cpp:148] Top shape: 100 (100)
I0403 14:01:13.283910 29007 net.cpp:156] Memory required for data: 61835200
I0403 14:01:13.283936 29007 layer_factory.hpp:77] Creating layer label_data_1_split
I0403 14:01:13.283962 29007 net.cpp:91] Creating Layer label_data_1_split
I0403 14:01:13.283982 29007 net.cpp:425] label_data_1_split <- label
I0403 14:01:13.284014 29007 net.cpp:399] label_data_1_split -> label_data_1_split_0
I0403 14:01:13.284044 29007 net.cpp:399] label_data_1_split -> label_data_1_split_1
I0403 14:01:13.284066 29007 net.cpp:399] label_data_1_split -> label_data_1_split_2
I0403 14:01:13.284132 29007 net.cpp:141] Setting up label_data_1_split
I0403 14:01:13.284155 29007 net.cpp:148] Top shape: 100 (100)
I0403 14:01:13.284173 29007 net.cpp:148] Top shape: 100 (100)
I0403 14:01:13.284191 29007 net.cpp:148] Top shape: 100 (100)
I0403 14:01:13.284206 29007 net.cpp:156] Memory required for data: 61836400
I0403 14:01:13.284222 29007 layer_factory.hpp:77] Creating layer conv1
I0403 14:01:13.284255 29007 net.cpp:91] Creating Layer conv1
I0403 14:01:13.284273 29007 net.cpp:425] conv1 <- data
I0403 14:01:13.284306 29007 net.cpp:399] conv1 -> conv1
I0403 14:01:13.429949 29007 net.cpp:141] Setting up conv1
I0403 14:01:13.430011 29007 net.cpp:148] Top shape: 100 96 55 55 (29040000)
I0403 14:01:13.430030 29007 net.cpp:156] Memory required for data: 177996400
I0403 14:01:13.430061 29007 layer_factory.hpp:77] Creating layer relu1
I0403 14:01:13.430091 29007 net.cpp:91] Creating Layer relu1
I0403 14:01:13.430109 29007 net.cpp:425] relu1 <- conv1
I0403 14:01:13.430130 29007 net.cpp:386] relu1 -> conv1 (in-place)
I0403 14:01:13.430400 29007 net.cpp:141] Setting up relu1
I0403 14:01:13.430429 29007 net.cpp:148] Top shape: 100 96 55 55 (29040000)
I0403 14:01:13.430445 29007 net.cpp:156] Memory required for data: 294156400
I0403 14:01:13.430495 29007 layer_factory.hpp:77] Creating layer norm1
I0403 14:01:13.430527 29007 net.cpp:91] Creating Layer norm1
I0403 14:01:13.430546 29007 net.cpp:425] norm1 <- conv1
I0403 14:01:13.430567 29007 net.cpp:399] norm1 -> norm1
I0403 14:01:13.430927 29007 net.cpp:141] Setting up norm1
I0403 14:01:13.430956 29007 net.cpp:148] Top shape: 100 96 55 55 (29040000)
I0403 14:01:13.430974 29007 net.cpp:156] Memory required for data: 410316400
I0403 14:01:13.430990 29007 layer_factory.hpp:77] Creating layer pool1
I0403 14:01:13.431015 29007 net.cpp:91] Creating Layer pool1
I0403 14:01:13.431032 29007 net.cpp:425] pool1 <- norm1
I0403 14:01:13.431051 29007 net.cpp:399] pool1 -> pool1
I0403 14:01:13.431119 29007 net.cpp:141] Setting up pool1
I0403 14:01:13.431144 29007 net.cpp:148] Top shape: 100 96 27 27 (6998400)
I0403 14:01:13.431160 29007 net.cpp:156] Memory required for data: 438310000
I0403 14:01:13.431176 29007 layer_factory.hpp:77] Creating layer conv2
I0403 14:01:13.431202 29007 net.cpp:91] Creating Layer conv2
I0403 14:01:13.431219 29007 net.cpp:425] conv2 <- pool1
I0403 14:01:13.431237 29007 net.cpp:399] conv2 -> conv2
I0403 14:01:13.446508 29007 net.cpp:141] Setting up conv2
I0403 14:01:13.446557 29007 net.cpp:148] Top shape: 100 256 27 27 (18662400)
I0403 14:01:13.446574 29007 net.cpp:156] Memory required for data: 512959600
I0403 14:01:13.446598 29007 layer_factory.hpp:77] Creating layer relu2
I0403 14:01:13.446622 29007 net.cpp:91] Creating Layer relu2
I0403 14:01:13.446641 29007 net.cpp:425] relu2 <- conv2
I0403 14:01:13.446660 29007 net.cpp:386] relu2 -> conv2 (in-place)
I0403 14:01:13.446941 29007 net.cpp:141] Setting up relu2
I0403 14:01:13.446969 29007 net.cpp:148] Top shape: 100 256 27 27 (18662400)
I0403 14:01:13.446986 29007 net.cpp:156] Memory required for data: 587609200
I0403 14:01:13.447002 29007 layer_factory.hpp:77] Creating layer norm2
I0403 14:01:13.447026 29007 net.cpp:91] Creating Layer norm2
I0403 14:01:13.447044 29007 net.cpp:425] norm2 <- conv2
I0403 14:01:13.447063 29007 net.cpp:399] norm2 -> norm2
I0403 14:01:13.447321 29007 net.cpp:141] Setting up norm2
I0403 14:01:13.447350 29007 net.cpp:148] Top shape: 100 256 27 27 (18662400)
I0403 14:01:13.447365 29007 net.cpp:156] Memory required for data: 662258800
I0403 14:01:13.447381 29007 layer_factory.hpp:77] Creating layer pool2
I0403 14:01:13.447399 29007 net.cpp:91] Creating Layer pool2
I0403 14:01:13.447415 29007 net.cpp:425] pool2 <- norm2
I0403 14:01:13.447437 29007 net.cpp:399] pool2 -> pool2
I0403 14:01:13.447489 29007 net.cpp:141] Setting up pool2
I0403 14:01:13.447520 29007 net.cpp:148] Top shape: 100 256 13 13 (4326400)
I0403 14:01:13.447537 29007 net.cpp:156] Memory required for data: 679564400
I0403 14:01:13.447553 29007 layer_factory.hpp:77] Creating layer conv3
I0403 14:01:13.447578 29007 net.cpp:91] Creating Layer conv3
I0403 14:01:13.447597 29007 net.cpp:425] conv3 <- pool2
I0403 14:01:13.447618 29007 net.cpp:399] conv3 -> conv3
I0403 14:01:13.486898 29007 net.cpp:141] Setting up conv3
I0403 14:01:13.486974 29007 net.cpp:148] Top shape: 100 384 13 13 (6489600)
I0403 14:01:13.486991 29007 net.cpp:156] Memory required for data: 705522800
I0403 14:01:13.487017 29007 layer_factory.hpp:77] Creating layer relu3
I0403 14:01:13.487042 29007 net.cpp:91] Creating Layer relu3
I0403 14:01:13.487061 29007 net.cpp:425] relu3 <- conv3
I0403 14:01:13.487082 29007 net.cpp:386] relu3 -> conv3 (in-place)
I0403 14:01:13.496837 29007 net.cpp:141] Setting up relu3
I0403 14:01:13.496871 29007 net.cpp:148] Top shape: 100 384 13 13 (6489600)
I0403 14:01:13.496889 29007 net.cpp:156] Memory required for data: 731481200
I0403 14:01:13.496906 29007 layer_factory.hpp:77] Creating layer conv4
I0403 14:01:13.496935 29007 net.cpp:91] Creating Layer conv4
I0403 14:01:13.496954 29007 net.cpp:425] conv4 <- conv3
I0403 14:01:13.496978 29007 net.cpp:399] conv4 -> conv4
I0403 14:01:13.527587 29007 net.cpp:141] Setting up conv4
I0403 14:01:13.527650 29007 net.cpp:148] Top shape: 100 384 13 13 (6489600)
I0403 14:01:13.527700 29007 net.cpp:156] Memory required for data: 757439600
I0403 14:01:13.527724 29007 layer_factory.hpp:77] Creating layer relu4
I0403 14:01:13.527748 29007 net.cpp:91] Creating Layer relu4
I0403 14:01:13.527767 29007 net.cpp:425] relu4 <- conv4
I0403 14:01:13.527791 29007 net.cpp:386] relu4 -> conv4 (in-place)
I0403 14:01:13.528074 29007 net.cpp:141] Setting up relu4
I0403 14:01:13.528102 29007 net.cpp:148] Top shape: 100 384 13 13 (6489600)
I0403 14:01:13.528117 29007 net.cpp:156] Memory required for data: 783398000
I0403 14:01:13.528134 29007 layer_factory.hpp:77] Creating layer conv5
I0403 14:01:13.528161 29007 net.cpp:91] Creating Layer conv5
I0403 14:01:13.528180 29007 net.cpp:425] conv5 <- conv4
I0403 14:01:13.528239 29007 net.cpp:399] conv5 -> conv5
I0403 14:01:13.549296 29007 net.cpp:141] Setting up conv5
I0403 14:01:13.549346 29007 net.cpp:148] Top shape: 100 256 13 13 (4326400)
I0403 14:01:13.549365 29007 net.cpp:156] Memory required for data: 800703600
I0403 14:01:13.549389 29007 layer_factory.hpp:77] Creating layer relu5
I0403 14:01:13.549412 29007 net.cpp:91] Creating Layer relu5
I0403 14:01:13.549427 29007 net.cpp:425] relu5 <- conv5
I0403 14:01:13.549448 29007 net.cpp:386] relu5 -> conv5 (in-place)
I0403 14:01:13.549731 29007 net.cpp:141] Setting up relu5
I0403 14:01:13.549757 29007 net.cpp:148] Top shape: 100 256 13 13 (4326400)
I0403 14:01:13.549773 29007 net.cpp:156] Memory required for data: 818009200
I0403 14:01:13.549789 29007 layer_factory.hpp:77] Creating layer pool5
I0403 14:01:13.549814 29007 net.cpp:91] Creating Layer pool5
I0403 14:01:13.549832 29007 net.cpp:425] pool5 <- conv5
I0403 14:01:13.549850 29007 net.cpp:399] pool5 -> pool5
I0403 14:01:13.549913 29007 net.cpp:141] Setting up pool5
I0403 14:01:13.549937 29007 net.cpp:148] Top shape: 100 256 6 6 (921600)
I0403 14:01:13.549952 29007 net.cpp:156] Memory required for data: 821695600
I0403 14:01:13.549967 29007 layer_factory.hpp:77] Creating layer fc6
I0403 14:01:13.549994 29007 net.cpp:91] Creating Layer fc6
I0403 14:01:13.550012 29007 net.cpp:425] fc6 <- pool5
I0403 14:01:13.550046 29007 net.cpp:399] fc6 -> fc6
I0403 14:01:15.110558 29007 net.cpp:141] Setting up fc6
I0403 14:01:15.110637 29007 net.cpp:148] Top shape: 100 4096 (409600)
I0403 14:01:15.110654 29007 net.cpp:156] Memory required for data: 823334000
I0403 14:01:15.110677 29007 layer_factory.hpp:77] Creating layer relu6
I0403 14:01:15.110700 29007 net.cpp:91] Creating Layer relu6
I0403 14:01:15.110719 29007 net.cpp:425] relu6 <- fc6
I0403 14:01:15.110740 29007 net.cpp:386] relu6 -> fc6 (in-place)
I0403 14:01:15.110968 29007 net.cpp:141] Setting up relu6
I0403 14:01:15.110993 29007 net.cpp:148] Top shape: 100 4096 (409600)
I0403 14:01:15.111009 29007 net.cpp:156] Memory required for data: 824972400
I0403 14:01:15.111024 29007 layer_factory.hpp:77] Creating layer drop6
I0403 14:01:15.111044 29007 net.cpp:91] Creating Layer drop6
I0403 14:01:15.111062 29007 net.cpp:425] drop6 <- fc6
I0403 14:01:15.111081 29007 net.cpp:386] drop6 -> fc6 (in-place)
I0403 14:01:15.111134 29007 net.cpp:141] Setting up drop6
I0403 14:01:15.111163 29007 net.cpp:148] Top shape: 100 4096 (409600)
I0403 14:01:15.111179 29007 net.cpp:156] Memory required for data: 826610800
I0403 14:01:15.111196 29007 layer_factory.hpp:77] Creating layer fc7
I0403 14:01:15.111217 29007 net.cpp:91] Creating Layer fc7
I0403 14:01:15.111232 29007 net.cpp:425] fc7 <- fc6
I0403 14:01:15.111251 29007 net.cpp:399] fc7 -> fc7
I0403 14:01:15.801455 29007 net.cpp:141] Setting up fc7
I0403 14:01:15.801542 29007 net.cpp:148] Top shape: 100 4096 (409600)
I0403 14:01:15.801560 29007 net.cpp:156] Memory required for data: 828249200
I0403 14:01:15.801583 29007 layer_factory.hpp:77] Creating layer relu7
I0403 14:01:15.801605 29007 net.cpp:91] Creating Layer relu7
I0403 14:01:15.801625 29007 net.cpp:425] relu7 <- fc7
I0403 14:01:15.801647 29007 net.cpp:386] relu7 -> fc7 (in-place)
I0403 14:01:15.802062 29007 net.cpp:141] Setting up relu7
I0403 14:01:15.802089 29007 net.cpp:148] Top shape: 100 4096 (409600)
I0403 14:01:15.802156 29007 net.cpp:156] Memory required for data: 829887600
I0403 14:01:15.802173 29007 layer_factory.hpp:77] Creating layer drop7
I0403 14:01:15.802193 29007 net.cpp:91] Creating Layer drop7
I0403 14:01:15.802209 29007 net.cpp:425] drop7 <- fc7
I0403 14:01:15.802230 29007 net.cpp:386] drop7 -> fc7 (in-place)
I0403 14:01:15.802276 29007 net.cpp:141] Setting up drop7
I0403 14:01:15.802309 29007 net.cpp:148] Top shape: 100 4096 (409600)
I0403 14:01:15.802326 29007 net.cpp:156] Memory required for data: 831526000
I0403 14:01:15.802342 29007 layer_factory.hpp:77] Creating layer fc8_plantvillage
I0403 14:01:15.802363 29007 net.cpp:91] Creating Layer fc8_plantvillage
I0403 14:01:15.802379 29007 net.cpp:425] fc8_plantvillage <- fc7
I0403 14:01:15.802403 29007 net.cpp:399] fc8_plantvillage -> fc8_plantvillage
I0403 14:01:15.809228 29007 net.cpp:141] Setting up fc8_plantvillage
I0403 14:01:15.809260 29007 net.cpp:148] Top shape: 100 38 (3800)
I0403 14:01:15.809276 29007 net.cpp:156] Memory required for data: 831541200
I0403 14:01:15.809300 29007 layer_factory.hpp:77] Creating layer fc8_plantvillage_fc8_plantvillage_0_split
I0403 14:01:15.809321 29007 net.cpp:91] Creating Layer fc8_plantvillage_fc8_plantvillage_0_split
I0403 14:01:15.809342 29007 net.cpp:425] fc8_plantvillage_fc8_plantvillage_0_split <- fc8_plantvillage
I0403 14:01:15.809361 29007 net.cpp:399] fc8_plantvillage_fc8_plantvillage_0_split -> fc8_plantvillage_fc8_plantvillage_0_split_0
I0403 14:01:15.809382 29007 net.cpp:399] fc8_plantvillage_fc8_plantvillage_0_split -> fc8_plantvillage_fc8_plantvillage_0_split_1
I0403 14:01:15.809402 29007 net.cpp:399] fc8_plantvillage_fc8_plantvillage_0_split -> fc8_plantvillage_fc8_plantvillage_0_split_2
I0403 14:01:15.809480 29007 net.cpp:141] Setting up fc8_plantvillage_fc8_plantvillage_0_split
I0403 14:01:15.809507 29007 net.cpp:148] Top shape: 100 38 (3800)
I0403 14:01:15.809526 29007 net.cpp:148] Top shape: 100 38 (3800)
I0403 14:01:15.809543 29007 net.cpp:148] Top shape: 100 38 (3800)
I0403 14:01:15.809557 29007 net.cpp:156] Memory required for data: 831586800
I0403 14:01:15.809572 29007 layer_factory.hpp:77] Creating layer prob
I0403 14:01:15.809592 29007 net.cpp:91] Creating Layer prob
I0403 14:01:15.809607 29007 net.cpp:425] prob <- fc8_plantvillage_fc8_plantvillage_0_split_0
I0403 14:01:15.809626 29007 net.cpp:399] prob -> prob
I0403 14:01:15.809852 29007 net.cpp:141] Setting up prob
I0403 14:01:15.809880 29007 net.cpp:148] Top shape: 100 38 (3800)
I0403 14:01:15.809893 29007 net.cpp:156] Memory required for data: 831602000
I0403 14:01:15.809908 29007 layer_factory.hpp:77] Creating layer hdf5out
I0403 14:01:15.809928 29007 net.cpp:91] Creating Layer hdf5out
I0403 14:01:15.809944 29007 net.cpp:425] hdf5out <- prob
I0403 14:01:15.809962 29007 net.cpp:425] hdf5out <- label_data_1_split_0
I0403 14:01:15.813933 29007 net.cpp:141] Setting up hdf5out
…
