…
I0403 13:47:34.621670 28676 net.cpp:313] The NetState phase (1) differed from the phase (0) specified by a rule in layer data
I0403 13:47:34.621981 28676 net.cpp:49] Initializing net from parameters: 
state {
  phase: TEST
}
layer {
  name: "data"
  type: "Data"
  top: "data"
  top: "label"
  include {
    phase: TEST
  }
  transform_param {
    crop_size: 227
    mean_file: "/home/mohanty/data/final_dataset/lmdb/color-40-60/mean.binaryproto"
  }
  data_param {
    source: "/home/mohanty/data/final_dataset/lmdb/color-40-60/test_db"
    batch_size: 100
    backend: LMDB
  }
}
layer {
  name: "conv1"
  type: "Convolution"
  bottom: "data"
  top: "conv1"
  param {
    lr_mult: 1
    decay_mult: 1
  }
  param {
    lr_mult: 2
    decay_mult: 0
  }
  convolution_param {
    num_output: 96
    kernel_size: 11
    stride: 4
    weight_filler {
      type: "gaussian"
      std: 0.01
    }
    bias_filler {
      type: "constant"
      value: 0
    }
  }
}
layer {
  name: "relu1"
  type: "ReLU"
  bottom: "conv1"
  top: "conv1"
}
layer {
  name: "norm1"
  type: "LRN"
  bottom: "conv1"
  top: "norm1"
  lrn_param {
    local_size: 5
    alpha: 0.0001
    beta: 0.75
  }
}
layer {
  name: "pool1"
  type: "Pooling"
  bottom: "norm1"
  top: "pool1"
  pooling_param {
    pool: MAX
    kernel_size: 3
    stride: 2
  }
}
layer {
  name: "conv2"
  type: "Convolution"
  bottom: "pool1"
  top: "conv2"
  param {
    lr_mult: 1
    decay_mult: 1
  }
  param {
    lr_mult: 2
    decay_mult: 0
  }
  convolution_param {
    num_output: 256
    pad: 2
    kernel_size: 5
    group: 2
    weight_filler {
      type: "gaussian"
      std: 0.01
    }
    bias_filler {
      type: "constant"
      value: 0.1
    }
  }
}
layer {
  name: "relu2"
  type: "ReLU"
  bottom: "conv2"
  top: "conv2"
}
layer {
  name: "norm2"
  type: "LRN"
  bottom: "conv2"
  top: "norm2"
  lrn_param {
    local_size: 5
    alpha: 0.0001
    beta: 0.75
  }
}
layer {
  name: "pool2"
  type: "Pooling"
  bottom: "norm2"
  top: "pool2"
  pooling_param {
    pool: MAX
    kernel_size: 3
    stride: 2
  }
}
layer {
  name: "conv3"
  type: "Convolution"
  bottom: "pool2"
  top: "conv3"
  param {
    lr_mult: 1
    decay_mult: 1
  }
  param {
    lr_mult: 2
    decay_mult: 0
  }
  convolution_param {
    num_output: 384
    pad: 1
    kernel_size: 3
    weight_filler {
      type: "gaussian"
      std: 0.01
    }
    bias_filler {
      type: "constant"
      value: 0
    }
  }
}
layer {
  name: "relu3"
  type: "ReLU"
  bottom: "conv3"
  top: "conv3"
}
layer {
  name: "conv4"
  type: "Convolution"
  bottom: "conv3"
  top: "conv4"
  param {
    lr_mult: 1
    decay_mult: 1
  }
  param {
    lr_mult: 2
    decay_mult: 0
  }
  convolution_param {
    num_output: 384
    pad: 1
    kernel_size: 3
    group: 2
    weight_filler {
      type: "gaussian"
      std: 0.01
    }
    bias_filler {
      type: "constant"
      value: 0.1
    }
  }
}
layer {
  name: "relu4"
  type: "ReLU"
  bottom: "conv4"
  top: "conv4"
}
layer {
  name: "conv5"
  type: "Convolution"
  bottom: "conv4"
  top: "conv5"
  param {
    lr_mult: 1
    decay_mult: 1
  }
  param {
    lr_mult: 2
    decay_mult: 0
  }
  convolution_param {
    num_output: 256
    pad: 1
    kernel_size: 3
    group: 2
    weight_filler {
      type: "gaussian"
      std: 0.01
    }
    bias_filler {
      type: "constant"
      value: 0.1
    }
  }
}
layer {
  name: "relu5"
  type: "ReLU"
  bottom: "conv5"
  top: "conv5"
}
layer {
  name: "pool5"
  type: "Pooling"
  bottom: "conv5"
  top: "pool5"
  pooling_param {
    pool: MAX
    kernel_size: 3
    stride: 2
  }
}
layer {
  name: "fc6"
  type: "InnerProduct"
  bottom: "pool5"
  top: "fc6"
  param {
    lr_mult: 1
    decay_mult: 1
  }
  param {
    lr_mult: 2
    decay_mult: 0
  }
  inner_product_param {
    num_output: 4096
    weight_filler {
      type: "gaussian"
      std: 0.005
    }
    bias_filler {
      type: "constant"
      value: 0.1
    }
  }
}
layer {
  name: "relu6"
  type: "ReLU"
  bottom: "fc6"
  top: "fc6"
}
layer {
  name: "drop6"
  type: "Dropout"
  bottom: "fc6"
  top: "fc6"
  dropout_param {
    dropout_ratio: 0.5
  }
}
layer {
  name: "fc7"
  type: "InnerProduct"
  bottom: "fc6"
  top: "fc7"
  param {
    lr_mult: 1
    decay_mult: 1
  }
  param {
    lr_mult: 2
    decay_mult: 0
  }
  inner_product_param {
    num_output: 4096
    weight_filler {
      type: "gaussian"
      std: 0.005
    }
    bias_filler {
      type: "constant"
      value: 0.1
    }
  }
}
layer {
  name: "relu7"
  type: "ReLU"
  bottom: "fc7"
  top: "fc7"
}
layer {
  name: "drop7"
  type: "Dropout"
  bottom: "fc7"
  top: "fc7"
  dropout_param {
    dropout_ratio: 0.5
  }
}
layer {
  name: "fc8_plantvillage"
  type: "InnerProduct"
  bottom: "fc7"
  top: "fc8_plantvillage"
  param {
    lr_mult: 1
    decay_mult: 1
  }
  param {
    lr_mult: 2
    decay_mult: 0
  }
  inner_product_param {
    num_output: 38
    weight_filler {
      type: "gaussian"
      std: 0.01
    }
    bias_filler {
      type: "constant"
      value: 0
    }
  }
}
layer {
  name: "prob"
  type: "Softmax"
  bottom: "fc8_plantvillage"
  top: "prob"
  include {
    phase: TEST
  }
}
layer {
  name: "hdf5out"
  type: "HDF5Output"
  bottom: "prob"
  bottom: "label"
  include {
    phase: TEST
  }
  hdf5_output_param {
    file_name: "hdf5_dumps/iter_3689.h5"
  }
}
layer {
  name: "loss"
  type: "SoftmaxWithLoss"
  bottom: "fc8_plantvillage"
  bottom: "label"
  top: "loss"
}
layer {
  name: "accuracy"
  type: "Accuracy"
  bottom: "fc8_plantvillage"
  bottom: "label"
  top: "accuracy"
  include {
    phase: TEST
  }
}
I0403 13:47:34.622562 28676 layer_factory.hpp:77] Creating layer data
I0403 13:47:34.623220 28676 net.cpp:91] Creating Layer data
I0403 13:47:34.623255 28676 net.cpp:399] data -> data
I0403 13:47:34.623323 28676 net.cpp:399] data -> label
I0403 13:47:34.623364 28676 data_transformer.cpp:25] Loading mean file from: /home/mohanty/data/final_dataset/lmdb/color-40-60/mean.binaryproto
I0403 13:47:34.626677 28679 db_lmdb.cpp:38] Opened lmdb /home/mohanty/data/final_dataset/lmdb/color-40-60/test_db
I0403 13:47:34.637608 28676 data_layer.cpp:41] output data size: 100,3,227,227
I0403 13:47:34.770419 28676 net.cpp:141] Setting up data
I0403 13:47:34.770512 28676 net.cpp:148] Top shape: 100 3 227 227 (15458700)
I0403 13:47:34.770535 28676 net.cpp:148] Top shape: 100 (100)
I0403 13:47:34.770551 28676 net.cpp:156] Memory required for data: 61835200
I0403 13:47:34.770581 28676 layer_factory.hpp:77] Creating layer label_data_1_split
I0403 13:47:34.770606 28676 net.cpp:91] Creating Layer label_data_1_split
I0403 13:47:34.770624 28676 net.cpp:425] label_data_1_split <- label
I0403 13:47:34.770656 28676 net.cpp:399] label_data_1_split -> label_data_1_split_0
I0403 13:47:34.770685 28676 net.cpp:399] label_data_1_split -> label_data_1_split_1
I0403 13:47:34.770705 28676 net.cpp:399] label_data_1_split -> label_data_1_split_2
I0403 13:47:34.770767 28676 net.cpp:141] Setting up label_data_1_split
I0403 13:47:34.770790 28676 net.cpp:148] Top shape: 100 (100)
I0403 13:47:34.770807 28676 net.cpp:148] Top shape: 100 (100)
I0403 13:47:34.770823 28676 net.cpp:148] Top shape: 100 (100)
I0403 13:47:34.770838 28676 net.cpp:156] Memory required for data: 61836400
I0403 13:47:34.770853 28676 layer_factory.hpp:77] Creating layer conv1
I0403 13:47:34.770884 28676 net.cpp:91] Creating Layer conv1
I0403 13:47:34.770902 28676 net.cpp:425] conv1 <- data
I0403 13:47:34.770922 28676 net.cpp:399] conv1 -> conv1
I0403 13:47:34.921342 28676 net.cpp:141] Setting up conv1
I0403 13:47:34.921421 28676 net.cpp:148] Top shape: 100 96 55 55 (29040000)
I0403 13:47:34.921439 28676 net.cpp:156] Memory required for data: 177996400
I0403 13:47:34.921471 28676 layer_factory.hpp:77] Creating layer relu1
I0403 13:47:34.921502 28676 net.cpp:91] Creating Layer relu1
I0403 13:47:34.921521 28676 net.cpp:425] relu1 <- conv1
I0403 13:47:34.921543 28676 net.cpp:386] relu1 -> conv1 (in-place)
I0403 13:47:34.921811 28676 net.cpp:141] Setting up relu1
I0403 13:47:34.921840 28676 net.cpp:148] Top shape: 100 96 55 55 (29040000)
I0403 13:47:34.921859 28676 net.cpp:156] Memory required for data: 294156400
I0403 13:47:34.921907 28676 layer_factory.hpp:77] Creating layer norm1
I0403 13:47:34.921937 28676 net.cpp:91] Creating Layer norm1
I0403 13:47:34.921957 28676 net.cpp:425] norm1 <- conv1
I0403 13:47:34.921977 28676 net.cpp:399] norm1 -> norm1
I0403 13:47:34.922297 28676 net.cpp:141] Setting up norm1
I0403 13:47:34.922371 28676 net.cpp:148] Top shape: 100 96 55 55 (29040000)
I0403 13:47:34.922394 28676 net.cpp:156] Memory required for data: 410316400
I0403 13:47:34.922412 28676 layer_factory.hpp:77] Creating layer pool1
I0403 13:47:34.922436 28676 net.cpp:91] Creating Layer pool1
I0403 13:47:34.922454 28676 net.cpp:425] pool1 <- norm1
I0403 13:47:34.922474 28676 net.cpp:399] pool1 -> pool1
I0403 13:47:34.922544 28676 net.cpp:141] Setting up pool1
I0403 13:47:34.922571 28676 net.cpp:148] Top shape: 100 96 27 27 (6998400)
I0403 13:47:34.922587 28676 net.cpp:156] Memory required for data: 438310000
I0403 13:47:34.922605 28676 layer_factory.hpp:77] Creating layer conv2
I0403 13:47:34.922631 28676 net.cpp:91] Creating Layer conv2
I0403 13:47:34.922648 28676 net.cpp:425] conv2 <- pool1
I0403 13:47:34.922668 28676 net.cpp:399] conv2 -> conv2
I0403 13:47:34.938614 28676 net.cpp:141] Setting up conv2
I0403 13:47:34.938663 28676 net.cpp:148] Top shape: 100 256 27 27 (18662400)
I0403 13:47:34.938681 28676 net.cpp:156] Memory required for data: 512959600
I0403 13:47:34.938709 28676 layer_factory.hpp:77] Creating layer relu2
I0403 13:47:34.938731 28676 net.cpp:91] Creating Layer relu2
I0403 13:47:34.938750 28676 net.cpp:425] relu2 <- conv2
I0403 13:47:34.938768 28676 net.cpp:386] relu2 -> conv2 (in-place)
I0403 13:47:34.939064 28676 net.cpp:141] Setting up relu2
I0403 13:47:34.939096 28676 net.cpp:148] Top shape: 100 256 27 27 (18662400)
I0403 13:47:34.939118 28676 net.cpp:156] Memory required for data: 587609200
I0403 13:47:34.939141 28676 layer_factory.hpp:77] Creating layer norm2
I0403 13:47:34.939163 28676 net.cpp:91] Creating Layer norm2
I0403 13:47:34.939180 28676 net.cpp:425] norm2 <- conv2
I0403 13:47:34.939203 28676 net.cpp:399] norm2 -> norm2
I0403 13:47:34.939471 28676 net.cpp:141] Setting up norm2
I0403 13:47:34.939499 28676 net.cpp:148] Top shape: 100 256 27 27 (18662400)
I0403 13:47:34.939517 28676 net.cpp:156] Memory required for data: 662258800
I0403 13:47:34.939532 28676 layer_factory.hpp:77] Creating layer pool2
I0403 13:47:34.939553 28676 net.cpp:91] Creating Layer pool2
I0403 13:47:34.939570 28676 net.cpp:425] pool2 <- norm2
I0403 13:47:34.939590 28676 net.cpp:399] pool2 -> pool2
I0403 13:47:34.939646 28676 net.cpp:141] Setting up pool2
I0403 13:47:34.939674 28676 net.cpp:148] Top shape: 100 256 13 13 (4326400)
I0403 13:47:34.939692 28676 net.cpp:156] Memory required for data: 679564400
I0403 13:47:34.939708 28676 layer_factory.hpp:77] Creating layer conv3
I0403 13:47:34.939733 28676 net.cpp:91] Creating Layer conv3
I0403 13:47:34.939752 28676 net.cpp:425] conv3 <- pool2
I0403 13:47:34.939779 28676 net.cpp:399] conv3 -> conv3
I0403 13:47:34.988675 28676 net.cpp:141] Setting up conv3
I0403 13:47:34.988752 28676 net.cpp:148] Top shape: 100 384 13 13 (6489600)
I0403 13:47:34.988770 28676 net.cpp:156] Memory required for data: 705522800
I0403 13:47:34.988798 28676 layer_factory.hpp:77] Creating layer relu3
I0403 13:47:34.988826 28676 net.cpp:91] Creating Layer relu3
I0403 13:47:34.988845 28676 net.cpp:425] relu3 <- conv3
I0403 13:47:34.988865 28676 net.cpp:386] relu3 -> conv3 (in-place)
I0403 13:47:34.989162 28676 net.cpp:141] Setting up relu3
I0403 13:47:34.989192 28676 net.cpp:148] Top shape: 100 384 13 13 (6489600)
I0403 13:47:34.989207 28676 net.cpp:156] Memory required for data: 731481200
I0403 13:47:34.989224 28676 layer_factory.hpp:77] Creating layer conv4
I0403 13:47:34.989259 28676 net.cpp:91] Creating Layer conv4
I0403 13:47:34.989284 28676 net.cpp:425] conv4 <- conv3
I0403 13:47:34.989305 28676 net.cpp:399] conv4 -> conv4
I0403 13:47:35.020941 28676 net.cpp:141] Setting up conv4
I0403 13:47:35.021013 28676 net.cpp:148] Top shape: 100 384 13 13 (6489600)
I0403 13:47:35.021064 28676 net.cpp:156] Memory required for data: 757439600
I0403 13:47:35.021087 28676 layer_factory.hpp:77] Creating layer relu4
I0403 13:47:35.021113 28676 net.cpp:91] Creating Layer relu4
I0403 13:47:35.021133 28676 net.cpp:425] relu4 <- conv4
I0403 13:47:35.021155 28676 net.cpp:386] relu4 -> conv4 (in-place)
I0403 13:47:35.021456 28676 net.cpp:141] Setting up relu4
I0403 13:47:35.021484 28676 net.cpp:148] Top shape: 100 384 13 13 (6489600)
I0403 13:47:35.021502 28676 net.cpp:156] Memory required for data: 783398000
I0403 13:47:35.021517 28676 layer_factory.hpp:77] Creating layer conv5
I0403 13:47:35.021544 28676 net.cpp:91] Creating Layer conv5
I0403 13:47:35.021564 28676 net.cpp:425] conv5 <- conv4
I0403 13:47:35.021585 28676 net.cpp:399] conv5 -> conv5
I0403 13:47:35.043304 28676 net.cpp:141] Setting up conv5
I0403 13:47:35.043359 28676 net.cpp:148] Top shape: 100 256 13 13 (4326400)
I0403 13:47:35.043377 28676 net.cpp:156] Memory required for data: 800703600
I0403 13:47:35.043407 28676 layer_factory.hpp:77] Creating layer relu5
I0403 13:47:35.043431 28676 net.cpp:91] Creating Layer relu5
I0403 13:47:35.043447 28676 net.cpp:425] relu5 <- conv5
I0403 13:47:35.043467 28676 net.cpp:386] relu5 -> conv5 (in-place)
I0403 13:47:35.043758 28676 net.cpp:141] Setting up relu5
I0403 13:47:35.043787 28676 net.cpp:148] Top shape: 100 256 13 13 (4326400)
I0403 13:47:35.043804 28676 net.cpp:156] Memory required for data: 818009200
I0403 13:47:35.043820 28676 layer_factory.hpp:77] Creating layer pool5
I0403 13:47:35.043846 28676 net.cpp:91] Creating Layer pool5
I0403 13:47:35.043864 28676 net.cpp:425] pool5 <- conv5
I0403 13:47:35.043884 28676 net.cpp:399] pool5 -> pool5
I0403 13:47:35.043949 28676 net.cpp:141] Setting up pool5
I0403 13:47:35.043975 28676 net.cpp:148] Top shape: 100 256 6 6 (921600)
I0403 13:47:35.043992 28676 net.cpp:156] Memory required for data: 821695600
I0403 13:47:35.044044 28676 layer_factory.hpp:77] Creating layer fc6
I0403 13:47:35.044077 28676 net.cpp:91] Creating Layer fc6
I0403 13:47:35.044097 28676 net.cpp:425] fc6 <- pool5
I0403 13:47:35.044119 28676 net.cpp:399] fc6 -> fc6
I0403 13:47:36.618962 28676 net.cpp:141] Setting up fc6
I0403 13:47:36.619041 28676 net.cpp:148] Top shape: 100 4096 (409600)
I0403 13:47:36.619062 28676 net.cpp:156] Memory required for data: 823334000
I0403 13:47:36.619086 28676 layer_factory.hpp:77] Creating layer relu6
I0403 13:47:36.619108 28676 net.cpp:91] Creating Layer relu6
I0403 13:47:36.619127 28676 net.cpp:425] relu6 <- fc6
I0403 13:47:36.619149 28676 net.cpp:386] relu6 -> fc6 (in-place)
I0403 13:47:36.619384 28676 net.cpp:141] Setting up relu6
I0403 13:47:36.619410 28676 net.cpp:148] Top shape: 100 4096 (409600)
I0403 13:47:36.619426 28676 net.cpp:156] Memory required for data: 824972400
I0403 13:47:36.619441 28676 layer_factory.hpp:77] Creating layer drop6
I0403 13:47:36.619462 28676 net.cpp:91] Creating Layer drop6
I0403 13:47:36.619480 28676 net.cpp:425] drop6 <- fc6
I0403 13:47:36.619499 28676 net.cpp:386] drop6 -> fc6 (in-place)
I0403 13:47:36.619554 28676 net.cpp:141] Setting up drop6
I0403 13:47:36.619577 28676 net.cpp:148] Top shape: 100 4096 (409600)
I0403 13:47:36.619593 28676 net.cpp:156] Memory required for data: 826610800
I0403 13:47:36.619608 28676 layer_factory.hpp:77] Creating layer fc7
I0403 13:47:36.619628 28676 net.cpp:91] Creating Layer fc7
I0403 13:47:36.619644 28676 net.cpp:425] fc7 <- fc6
I0403 13:47:36.619665 28676 net.cpp:399] fc7 -> fc7
I0403 13:47:37.321918 28676 net.cpp:141] Setting up fc7
I0403 13:47:37.322007 28676 net.cpp:148] Top shape: 100 4096 (409600)
I0403 13:47:37.322026 28676 net.cpp:156] Memory required for data: 828249200
I0403 13:47:37.322046 28676 layer_factory.hpp:77] Creating layer relu7
I0403 13:47:37.322072 28676 net.cpp:91] Creating Layer relu7
I0403 13:47:37.322091 28676 net.cpp:425] relu7 <- fc7
I0403 13:47:37.322111 28676 net.cpp:386] relu7 -> fc7 (in-place)
I0403 13:47:37.322520 28676 net.cpp:141] Setting up relu7
I0403 13:47:37.322547 28676 net.cpp:148] Top shape: 100 4096 (409600)
I0403 13:47:37.322616 28676 net.cpp:156] Memory required for data: 829887600
I0403 13:47:37.322633 28676 layer_factory.hpp:77] Creating layer drop7
I0403 13:47:37.322655 28676 net.cpp:91] Creating Layer drop7
I0403 13:47:37.322674 28676 net.cpp:425] drop7 <- fc7
I0403 13:47:37.322693 28676 net.cpp:386] drop7 -> fc7 (in-place)
I0403 13:47:37.322741 28676 net.cpp:141] Setting up drop7
I0403 13:47:37.322765 28676 net.cpp:148] Top shape: 100 4096 (409600)
I0403 13:47:37.322780 28676 net.cpp:156] Memory required for data: 831526000
I0403 13:47:37.322795 28676 layer_factory.hpp:77] Creating layer fc8_plantvillage
I0403 13:47:37.322816 28676 net.cpp:91] Creating Layer fc8_plantvillage
I0403 13:47:37.322832 28676 net.cpp:425] fc8_plantvillage <- fc7
I0403 13:47:37.322854 28676 net.cpp:399] fc8_plantvillage -> fc8_plantvillage
I0403 13:47:37.329942 28676 net.cpp:141] Setting up fc8_plantvillage
I0403 13:47:37.329975 28676 net.cpp:148] Top shape: 100 38 (3800)
I0403 13:47:37.329993 28676 net.cpp:156] Memory required for data: 831541200
I0403 13:47:37.330013 28676 layer_factory.hpp:77] Creating layer fc8_plantvillage_fc8_plantvillage_0_split
I0403 13:47:37.330032 28676 net.cpp:91] Creating Layer fc8_plantvillage_fc8_plantvillage_0_split
I0403 13:47:37.330049 28676 net.cpp:425] fc8_plantvillage_fc8_plantvillage_0_split <- fc8_plantvillage
I0403 13:47:37.330067 28676 net.cpp:399] fc8_plantvillage_fc8_plantvillage_0_split -> fc8_plantvillage_fc8_plantvillage_0_split_0
I0403 13:47:37.330087 28676 net.cpp:399] fc8_plantvillage_fc8_plantvillage_0_split -> fc8_plantvillage_fc8_plantvillage_0_split_1
I0403 13:47:37.330106 28676 net.cpp:399] fc8_plantvillage_fc8_plantvillage_0_split -> fc8_plantvillage_fc8_plantvillage_0_split_2
I0403 13:47:37.330184 28676 net.cpp:141] Setting up fc8_plantvillage_fc8_plantvillage_0_split
I0403 13:47:37.330209 28676 net.cpp:148] Top shape: 100 38 (3800)
I0403 13:47:37.330226 28676 net.cpp:148] Top shape: 100 38 (3800)
I0403 13:47:37.330241 28676 net.cpp:148] Top shape: 100 38 (3800)
I0403 13:47:37.330263 28676 net.cpp:156] Memory required for data: 831586800
I0403 13:47:37.330278 28676 layer_factory.hpp:77] Creating layer prob
I0403 13:47:37.330296 28676 net.cpp:91] Creating Layer prob
I0403 13:47:37.330312 28676 net.cpp:425] prob <- fc8_plantvillage_fc8_plantvillage_0_split_0
I0403 13:47:37.330330 28676 net.cpp:399] prob -> prob
I0403 13:47:37.330556 28676 net.cpp:141] Setting up prob
I0403 13:47:37.330585 28676 net.cpp:148] Top shape: 100 38 (3800)
I0403 13:47:37.330600 28676 net.cpp:156] Memory required for data: 831602000
I0403 13:47:37.330615 28676 layer_factory.hpp:77] Creating layer hdf5out
I0403 13:47:37.330637 28676 net.cpp:91] Creating Layer hdf5out
I0403 13:47:37.330654 28676 net.cpp:425] hdf5out <- prob
I0403 13:47:37.330672 28676 net.cpp:425] hdf5out <- label_data_1_split_0
I0403 13:47:37.348201 28676 net.cpp:141] Setting up hdf5out
…
