…
I0403 14:00:04.985720 28971 net.cpp:313] The NetState phase (1) differed from the phase (0) specified by a rule in layer data
I0403 14:00:04.986044 28971 net.cpp:49] Initializing net from parameters: 
state {
  phase: TEST
}
layer {
  name: "data"
  type: "Data"
  top: "data"
  top: "label"
  include {
    phase: TEST
  }
  transform_param {
    crop_size: 227
    mean_file: "/home/mohanty/data/final_dataset/lmdb/color-40-60/mean.binaryproto"
  }
  data_param {
    source: "/home/mohanty/data/final_dataset/lmdb/color-40-60/test_db"
    batch_size: 100
    backend: LMDB
  }
}
layer {
  name: "conv1"
  type: "Convolution"
  bottom: "data"
  top: "conv1"
  param {
    lr_mult: 1
    decay_mult: 1
  }
  param {
    lr_mult: 2
    decay_mult: 0
  }
  convolution_param {
    num_output: 96
    kernel_size: 11
    stride: 4
    weight_filler {
      type: "gaussian"
      std: 0.01
    }
    bias_filler {
      type: "constant"
      value: 0
    }
  }
}
layer {
  name: "relu1"
  type: "ReLU"
  bottom: "conv1"
  top: "conv1"
}
layer {
  name: "norm1"
  type: "LRN"
  bottom: "conv1"
  top: "norm1"
  lrn_param {
    local_size: 5
    alpha: 0.0001
    beta: 0.75
  }
}
layer {
  name: "pool1"
  type: "Pooling"
  bottom: "norm1"
  top: "pool1"
  pooling_param {
    pool: MAX
    kernel_size: 3
    stride: 2
  }
}
layer {
  name: "conv2"
  type: "Convolution"
  bottom: "pool1"
  top: "conv2"
  param {
    lr_mult: 1
    decay_mult: 1
  }
  param {
    lr_mult: 2
    decay_mult: 0
  }
  convolution_param {
    num_output: 256
    pad: 2
    kernel_size: 5
    group: 2
    weight_filler {
      type: "gaussian"
      std: 0.01
    }
    bias_filler {
      type: "constant"
      value: 0.1
    }
  }
}
layer {
  name: "relu2"
  type: "ReLU"
  bottom: "conv2"
  top: "conv2"
}
layer {
  name: "norm2"
  type: "LRN"
  bottom: "conv2"
  top: "norm2"
  lrn_param {
    local_size: 5
    alpha: 0.0001
    beta: 0.75
  }
}
layer {
  name: "pool2"
  type: "Pooling"
  bottom: "norm2"
  top: "pool2"
  pooling_param {
    pool: MAX
    kernel_size: 3
    stride: 2
  }
}
layer {
  name: "conv3"
  type: "Convolution"
  bottom: "pool2"
  top: "conv3"
  param {
    lr_mult: 1
    decay_mult: 1
  }
  param {
    lr_mult: 2
    decay_mult: 0
  }
  convolution_param {
    num_output: 384
    pad: 1
    kernel_size: 3
    weight_filler {
      type: "gaussian"
      std: 0.01
    }
    bias_filler {
      type: "constant"
      value: 0
    }
  }
}
layer {
  name: "relu3"
  type: "ReLU"
  bottom: "conv3"
  top: "conv3"
}
layer {
  name: "conv4"
  type: "Convolution"
  bottom: "conv3"
  top: "conv4"
  param {
    lr_mult: 1
    decay_mult: 1
  }
  param {
    lr_mult: 2
    decay_mult: 0
  }
  convolution_param {
    num_output: 384
    pad: 1
    kernel_size: 3
    group: 2
    weight_filler {
      type: "gaussian"
      std: 0.01
    }
    bias_filler {
      type: "constant"
      value: 0.1
    }
  }
}
layer {
  name: "relu4"
  type: "ReLU"
  bottom: "conv4"
  top: "conv4"
}
layer {
  name: "conv5"
  type: "Convolution"
  bottom: "conv4"
  top: "conv5"
  param {
    lr_mult: 1
    decay_mult: 1
  }
  param {
    lr_mult: 2
    decay_mult: 0
  }
  convolution_param {
    num_output: 256
    pad: 1
    kernel_size: 3
    group: 2
    weight_filler {
      type: "gaussian"
      std: 0.01
    }
    bias_filler {
      type: "constant"
      value: 0.1
    }
  }
}
layer {
  name: "relu5"
  type: "ReLU"
  bottom: "conv5"
  top: "conv5"
}
layer {
  name: "pool5"
  type: "Pooling"
  bottom: "conv5"
  top: "pool5"
  pooling_param {
    pool: MAX
    kernel_size: 3
    stride: 2
  }
}
layer {
  name: "fc6"
  type: "InnerProduct"
  bottom: "pool5"
  top: "fc6"
  param {
    lr_mult: 1
    decay_mult: 1
  }
  param {
    lr_mult: 2
    decay_mult: 0
  }
  inner_product_param {
    num_output: 4096
    weight_filler {
      type: "gaussian"
      std: 0.005
    }
    bias_filler {
      type: "constant"
      value: 0.1
    }
  }
}
layer {
  name: "relu6"
  type: "ReLU"
  bottom: "fc6"
  top: "fc6"
}
layer {
  name: "drop6"
  type: "Dropout"
  bottom: "fc6"
  top: "fc6"
  dropout_param {
    dropout_ratio: 0.5
  }
}
layer {
  name: "fc7"
  type: "InnerProduct"
  bottom: "fc6"
  top: "fc7"
  param {
    lr_mult: 1
    decay_mult: 1
  }
  param {
    lr_mult: 2
    decay_mult: 0
  }
  inner_product_param {
    num_output: 4096
    weight_filler {
      type: "gaussian"
      std: 0.005
    }
    bias_filler {
      type: "constant"
      value: 0.1
    }
  }
}
layer {
  name: "relu7"
  type: "ReLU"
  bottom: "fc7"
  top: "fc7"
}
layer {
  name: "drop7"
  type: "Dropout"
  bottom: "fc7"
  top: "fc7"
  dropout_param {
    dropout_ratio: 0.5
  }
}
layer {
  name: "fc8_plantvillage"
  type: "InnerProduct"
  bottom: "fc7"
  top: "fc8_plantvillage"
  param {
    lr_mult: 1
    decay_mult: 1
  }
  param {
    lr_mult: 2
    decay_mult: 0
  }
  inner_product_param {
    num_output: 38
    weight_filler {
      type: "gaussian"
      std: 0.01
    }
    bias_filler {
      type: "constant"
      value: 0
    }
  }
}
layer {
  name: "prob"
  type: "Softmax"
  bottom: "fc8_plantvillage"
  top: "prob"
  include {
    phase: TEST
  }
}
layer {
  name: "hdf5out"
  type: "HDF5Output"
  bottom: "prob"
  bottom: "label"
  include {
    phase: TEST
  }
  hdf5_output_param {
    file_name: "hdf5_dumps/iter_6076.h5"
  }
}
layer {
  name: "loss"
  type: "SoftmaxWithLoss"
  bottom: "fc8_plantvillage"
  bottom: "label"
  top: "loss"
}
layer {
  name: "accuracy"
  type: "Accuracy"
  bottom: "fc8_plantvillage"
  bottom: "label"
  top: "accuracy"
  include {
    phase: TEST
  }
}
I0403 14:00:04.986574 28971 layer_factory.hpp:77] Creating layer data
I0403 14:00:04.987256 28971 net.cpp:91] Creating Layer data
I0403 14:00:04.987289 28971 net.cpp:399] data -> data
I0403 14:00:04.987342 28971 net.cpp:399] data -> label
I0403 14:00:04.987380 28971 data_transformer.cpp:25] Loading mean file from: /home/mohanty/data/final_dataset/lmdb/color-40-60/mean.binaryproto
I0403 14:00:04.989755 28974 db_lmdb.cpp:38] Opened lmdb /home/mohanty/data/final_dataset/lmdb/color-40-60/test_db
I0403 14:00:05.002171 28971 data_layer.cpp:41] output data size: 100,3,227,227
I0403 14:00:05.135928 28971 net.cpp:141] Setting up data
I0403 14:00:05.135987 28971 net.cpp:148] Top shape: 100 3 227 227 (15458700)
I0403 14:00:05.136010 28971 net.cpp:148] Top shape: 100 (100)
I0403 14:00:05.136028 28971 net.cpp:156] Memory required for data: 61835200
I0403 14:00:05.136055 28971 layer_factory.hpp:77] Creating layer label_data_1_split
I0403 14:00:05.136081 28971 net.cpp:91] Creating Layer label_data_1_split
I0403 14:00:05.136099 28971 net.cpp:425] label_data_1_split <- label
I0403 14:00:05.136132 28971 net.cpp:399] label_data_1_split -> label_data_1_split_0
I0403 14:00:05.136160 28971 net.cpp:399] label_data_1_split -> label_data_1_split_1
I0403 14:00:05.136180 28971 net.cpp:399] label_data_1_split -> label_data_1_split_2
I0403 14:00:05.136246 28971 net.cpp:141] Setting up label_data_1_split
I0403 14:00:05.136275 28971 net.cpp:148] Top shape: 100 (100)
I0403 14:00:05.136291 28971 net.cpp:148] Top shape: 100 (100)
I0403 14:00:05.136308 28971 net.cpp:148] Top shape: 100 (100)
I0403 14:00:05.136323 28971 net.cpp:156] Memory required for data: 61836400
I0403 14:00:05.136339 28971 layer_factory.hpp:77] Creating layer conv1
I0403 14:00:05.136371 28971 net.cpp:91] Creating Layer conv1
I0403 14:00:05.136391 28971 net.cpp:425] conv1 <- data
I0403 14:00:05.136411 28971 net.cpp:399] conv1 -> conv1
I0403 14:00:05.283944 28971 net.cpp:141] Setting up conv1
I0403 14:00:05.284029 28971 net.cpp:148] Top shape: 100 96 55 55 (29040000)
I0403 14:00:05.284049 28971 net.cpp:156] Memory required for data: 177996400
I0403 14:00:05.284083 28971 layer_factory.hpp:77] Creating layer relu1
I0403 14:00:05.284112 28971 net.cpp:91] Creating Layer relu1
I0403 14:00:05.284132 28971 net.cpp:425] relu1 <- conv1
I0403 14:00:05.284153 28971 net.cpp:386] relu1 -> conv1 (in-place)
I0403 14:00:05.284440 28971 net.cpp:141] Setting up relu1
I0403 14:00:05.284474 28971 net.cpp:148] Top shape: 100 96 55 55 (29040000)
I0403 14:00:05.284492 28971 net.cpp:156] Memory required for data: 294156400
I0403 14:00:05.284541 28971 layer_factory.hpp:77] Creating layer norm1
I0403 14:00:05.284572 28971 net.cpp:91] Creating Layer norm1
I0403 14:00:05.284592 28971 net.cpp:425] norm1 <- conv1
I0403 14:00:05.284612 28971 net.cpp:399] norm1 -> norm1
I0403 14:00:05.284941 28971 net.cpp:141] Setting up norm1
I0403 14:00:05.284971 28971 net.cpp:148] Top shape: 100 96 55 55 (29040000)
I0403 14:00:05.284988 28971 net.cpp:156] Memory required for data: 410316400
I0403 14:00:05.285004 28971 layer_factory.hpp:77] Creating layer pool1
I0403 14:00:05.285030 28971 net.cpp:91] Creating Layer pool1
I0403 14:00:05.285049 28971 net.cpp:425] pool1 <- norm1
I0403 14:00:05.285068 28971 net.cpp:399] pool1 -> pool1
I0403 14:00:05.285143 28971 net.cpp:141] Setting up pool1
I0403 14:00:05.285169 28971 net.cpp:148] Top shape: 100 96 27 27 (6998400)
I0403 14:00:05.285184 28971 net.cpp:156] Memory required for data: 438310000
I0403 14:00:05.285200 28971 layer_factory.hpp:77] Creating layer conv2
I0403 14:00:05.285228 28971 net.cpp:91] Creating Layer conv2
I0403 14:00:05.285245 28971 net.cpp:425] conv2 <- pool1
I0403 14:00:05.285267 28971 net.cpp:399] conv2 -> conv2
I0403 14:00:05.300271 28971 net.cpp:141] Setting up conv2
I0403 14:00:05.300312 28971 net.cpp:148] Top shape: 100 256 27 27 (18662400)
I0403 14:00:05.300330 28971 net.cpp:156] Memory required for data: 512959600
I0403 14:00:05.300355 28971 layer_factory.hpp:77] Creating layer relu2
I0403 14:00:05.300379 28971 net.cpp:91] Creating Layer relu2
I0403 14:00:05.300398 28971 net.cpp:425] relu2 <- conv2
I0403 14:00:05.300416 28971 net.cpp:386] relu2 -> conv2 (in-place)
I0403 14:00:05.300705 28971 net.cpp:141] Setting up relu2
I0403 14:00:05.300734 28971 net.cpp:148] Top shape: 100 256 27 27 (18662400)
I0403 14:00:05.300751 28971 net.cpp:156] Memory required for data: 587609200
I0403 14:00:05.300767 28971 layer_factory.hpp:77] Creating layer norm2
I0403 14:00:05.300791 28971 net.cpp:91] Creating Layer norm2
I0403 14:00:05.300812 28971 net.cpp:425] norm2 <- conv2
I0403 14:00:05.300834 28971 net.cpp:399] norm2 -> norm2
I0403 14:00:05.301033 28971 net.cpp:141] Setting up norm2
I0403 14:00:05.301060 28971 net.cpp:148] Top shape: 100 256 27 27 (18662400)
I0403 14:00:05.301075 28971 net.cpp:156] Memory required for data: 662258800
I0403 14:00:05.301090 28971 layer_factory.hpp:77] Creating layer pool2
I0403 14:00:05.301110 28971 net.cpp:91] Creating Layer pool2
I0403 14:00:05.301125 28971 net.cpp:425] pool2 <- norm2
I0403 14:00:05.301144 28971 net.cpp:399] pool2 -> pool2
I0403 14:00:05.301198 28971 net.cpp:141] Setting up pool2
I0403 14:00:05.301223 28971 net.cpp:148] Top shape: 100 256 13 13 (4326400)
I0403 14:00:05.301236 28971 net.cpp:156] Memory required for data: 679564400
I0403 14:00:05.301252 28971 layer_factory.hpp:77] Creating layer conv3
I0403 14:00:05.301280 28971 net.cpp:91] Creating Layer conv3
I0403 14:00:05.301301 28971 net.cpp:425] conv3 <- pool2
I0403 14:00:05.301321 28971 net.cpp:399] conv3 -> conv3
I0403 14:00:05.339582 28971 net.cpp:141] Setting up conv3
I0403 14:00:05.339656 28971 net.cpp:148] Top shape: 100 384 13 13 (6489600)
I0403 14:00:05.339673 28971 net.cpp:156] Memory required for data: 705522800
I0403 14:00:05.339700 28971 layer_factory.hpp:77] Creating layer relu3
I0403 14:00:05.339738 28971 net.cpp:91] Creating Layer relu3
I0403 14:00:05.339757 28971 net.cpp:425] relu3 <- conv3
I0403 14:00:05.339777 28971 net.cpp:386] relu3 -> conv3 (in-place)
I0403 14:00:05.340055 28971 net.cpp:141] Setting up relu3
I0403 14:00:05.340082 28971 net.cpp:148] Top shape: 100 384 13 13 (6489600)
I0403 14:00:05.340098 28971 net.cpp:156] Memory required for data: 731481200
I0403 14:00:05.340114 28971 layer_factory.hpp:77] Creating layer conv4
I0403 14:00:05.340139 28971 net.cpp:91] Creating Layer conv4
I0403 14:00:05.340157 28971 net.cpp:425] conv4 <- conv3
I0403 14:00:05.340179 28971 net.cpp:399] conv4 -> conv4
I0403 14:00:05.369774 28971 net.cpp:141] Setting up conv4
I0403 14:00:05.369834 28971 net.cpp:148] Top shape: 100 384 13 13 (6489600)
I0403 14:00:05.369884 28971 net.cpp:156] Memory required for data: 757439600
I0403 14:00:05.369906 28971 layer_factory.hpp:77] Creating layer relu4
I0403 14:00:05.369928 28971 net.cpp:91] Creating Layer relu4
I0403 14:00:05.369946 28971 net.cpp:425] relu4 <- conv4
I0403 14:00:05.369968 28971 net.cpp:386] relu4 -> conv4 (in-place)
I0403 14:00:05.370249 28971 net.cpp:141] Setting up relu4
I0403 14:00:05.370277 28971 net.cpp:148] Top shape: 100 384 13 13 (6489600)
I0403 14:00:05.370298 28971 net.cpp:156] Memory required for data: 783398000
I0403 14:00:05.370316 28971 layer_factory.hpp:77] Creating layer conv5
I0403 14:00:05.370342 28971 net.cpp:91] Creating Layer conv5
I0403 14:00:05.370362 28971 net.cpp:425] conv5 <- conv4
I0403 14:00:05.370384 28971 net.cpp:399] conv5 -> conv5
I0403 14:00:05.390669 28971 net.cpp:141] Setting up conv5
I0403 14:00:05.390722 28971 net.cpp:148] Top shape: 100 256 13 13 (4326400)
I0403 14:00:05.390740 28971 net.cpp:156] Memory required for data: 800703600
I0403 14:00:05.390766 28971 layer_factory.hpp:77] Creating layer relu5
I0403 14:00:05.390790 28971 net.cpp:91] Creating Layer relu5
I0403 14:00:05.390807 28971 net.cpp:425] relu5 <- conv5
I0403 14:00:05.390830 28971 net.cpp:386] relu5 -> conv5 (in-place)
I0403 14:00:05.391108 28971 net.cpp:141] Setting up relu5
I0403 14:00:05.391137 28971 net.cpp:148] Top shape: 100 256 13 13 (4326400)
I0403 14:00:05.391155 28971 net.cpp:156] Memory required for data: 818009200
I0403 14:00:05.391170 28971 layer_factory.hpp:77] Creating layer pool5
I0403 14:00:05.391194 28971 net.cpp:91] Creating Layer pool5
I0403 14:00:05.391213 28971 net.cpp:425] pool5 <- conv5
I0403 14:00:05.391233 28971 net.cpp:399] pool5 -> pool5
I0403 14:00:05.391302 28971 net.cpp:141] Setting up pool5
I0403 14:00:05.391327 28971 net.cpp:148] Top shape: 100 256 6 6 (921600)
I0403 14:00:05.391345 28971 net.cpp:156] Memory required for data: 821695600
I0403 14:00:05.391360 28971 layer_factory.hpp:77] Creating layer fc6
I0403 14:00:05.391389 28971 net.cpp:91] Creating Layer fc6
I0403 14:00:05.391408 28971 net.cpp:425] fc6 <- pool5
I0403 14:00:05.391429 28971 net.cpp:399] fc6 -> fc6
I0403 14:00:06.949527 28971 net.cpp:141] Setting up fc6
I0403 14:00:06.949576 28971 net.cpp:148] Top shape: 100 4096 (409600)
I0403 14:00:06.949592 28971 net.cpp:156] Memory required for data: 823334000
I0403 14:00:06.949614 28971 layer_factory.hpp:77] Creating layer relu6
I0403 14:00:06.949636 28971 net.cpp:91] Creating Layer relu6
I0403 14:00:06.949654 28971 net.cpp:425] relu6 <- fc6
I0403 14:00:06.949678 28971 net.cpp:386] relu6 -> fc6 (in-place)
I0403 14:00:06.949910 28971 net.cpp:141] Setting up relu6
I0403 14:00:06.949936 28971 net.cpp:148] Top shape: 100 4096 (409600)
I0403 14:00:06.949952 28971 net.cpp:156] Memory required for data: 824972400
I0403 14:00:06.949967 28971 layer_factory.hpp:77] Creating layer drop6
I0403 14:00:06.949986 28971 net.cpp:91] Creating Layer drop6
I0403 14:00:06.950003 28971 net.cpp:425] drop6 <- fc6
I0403 14:00:06.950023 28971 net.cpp:386] drop6 -> fc6 (in-place)
I0403 14:00:06.950078 28971 net.cpp:141] Setting up drop6
I0403 14:00:06.950100 28971 net.cpp:148] Top shape: 100 4096 (409600)
I0403 14:00:06.950116 28971 net.cpp:156] Memory required for data: 826610800
I0403 14:00:06.950131 28971 layer_factory.hpp:77] Creating layer fc7
I0403 14:00:06.950152 28971 net.cpp:91] Creating Layer fc7
I0403 14:00:06.950171 28971 net.cpp:425] fc7 <- fc6
I0403 14:00:06.950196 28971 net.cpp:399] fc7 -> fc7
I0403 14:00:07.643250 28971 net.cpp:141] Setting up fc7
I0403 14:00:07.643317 28971 net.cpp:148] Top shape: 100 4096 (409600)
I0403 14:00:07.643349 28971 net.cpp:156] Memory required for data: 828249200
I0403 14:00:07.643370 28971 layer_factory.hpp:77] Creating layer relu7
I0403 14:00:07.643395 28971 net.cpp:91] Creating Layer relu7
I0403 14:00:07.643414 28971 net.cpp:425] relu7 <- fc7
I0403 14:00:07.643435 28971 net.cpp:386] relu7 -> fc7 (in-place)
I0403 14:00:07.643826 28971 net.cpp:141] Setting up relu7
I0403 14:00:07.643853 28971 net.cpp:148] Top shape: 100 4096 (409600)
I0403 14:00:07.643887 28971 net.cpp:156] Memory required for data: 829887600
I0403 14:00:07.643903 28971 layer_factory.hpp:77] Creating layer drop7
I0403 14:00:07.643921 28971 net.cpp:91] Creating Layer drop7
I0403 14:00:07.643939 28971 net.cpp:425] drop7 <- fc7
I0403 14:00:07.643959 28971 net.cpp:386] drop7 -> fc7 (in-place)
I0403 14:00:07.644001 28971 net.cpp:141] Setting up drop7
I0403 14:00:07.644026 28971 net.cpp:148] Top shape: 100 4096 (409600)
I0403 14:00:07.644042 28971 net.cpp:156] Memory required for data: 831526000
I0403 14:00:07.644057 28971 layer_factory.hpp:77] Creating layer fc8_plantvillage
I0403 14:00:07.644076 28971 net.cpp:91] Creating Layer fc8_plantvillage
I0403 14:00:07.644093 28971 net.cpp:425] fc8_plantvillage <- fc7
I0403 14:00:07.644114 28971 net.cpp:399] fc8_plantvillage -> fc8_plantvillage
I0403 14:00:07.650815 28971 net.cpp:141] Setting up fc8_plantvillage
I0403 14:00:07.650843 28971 net.cpp:148] Top shape: 100 38 (3800)
I0403 14:00:07.650859 28971 net.cpp:156] Memory required for data: 831541200
I0403 14:00:07.650877 28971 layer_factory.hpp:77] Creating layer fc8_plantvillage_fc8_plantvillage_0_split
I0403 14:00:07.650899 28971 net.cpp:91] Creating Layer fc8_plantvillage_fc8_plantvillage_0_split
I0403 14:00:07.650915 28971 net.cpp:425] fc8_plantvillage_fc8_plantvillage_0_split <- fc8_plantvillage
I0403 14:00:07.650933 28971 net.cpp:399] fc8_plantvillage_fc8_plantvillage_0_split -> fc8_plantvillage_fc8_plantvillage_0_split_0
I0403 14:00:07.650952 28971 net.cpp:399] fc8_plantvillage_fc8_plantvillage_0_split -> fc8_plantvillage_fc8_plantvillage_0_split_1
I0403 14:00:07.650972 28971 net.cpp:399] fc8_plantvillage_fc8_plantvillage_0_split -> fc8_plantvillage_fc8_plantvillage_0_split_2
I0403 14:00:07.651049 28971 net.cpp:141] Setting up fc8_plantvillage_fc8_plantvillage_0_split
I0403 14:00:07.651073 28971 net.cpp:148] Top shape: 100 38 (3800)
I0403 14:00:07.651090 28971 net.cpp:148] Top shape: 100 38 (3800)
I0403 14:00:07.651105 28971 net.cpp:148] Top shape: 100 38 (3800)
I0403 14:00:07.651119 28971 net.cpp:156] Memory required for data: 831586800
I0403 14:00:07.651134 28971 layer_factory.hpp:77] Creating layer prob
I0403 14:00:07.651152 28971 net.cpp:91] Creating Layer prob
I0403 14:00:07.651168 28971 net.cpp:425] prob <- fc8_plantvillage_fc8_plantvillage_0_split_0
I0403 14:00:07.651188 28971 net.cpp:399] prob -> prob
I0403 14:00:07.651415 28971 net.cpp:141] Setting up prob
I0403 14:00:07.651442 28971 net.cpp:148] Top shape: 100 38 (3800)
I0403 14:00:07.651456 28971 net.cpp:156] Memory required for data: 831602000
I0403 14:00:07.651470 28971 layer_factory.hpp:77] Creating layer hdf5out
I0403 14:00:07.651489 28971 net.cpp:91] Creating Layer hdf5out
I0403 14:00:07.651510 28971 net.cpp:425] hdf5out <- prob
I0403 14:00:07.651525 28971 net.cpp:425] hdf5out <- label_data_1_split_0
I0403 14:00:07.655932 28971 net.cpp:141] Setting up hdf5out
…
