…
I0403 13:32:50.666467 28335 net.cpp:313] The NetState phase (1) differed from the phase (0) specified by a rule in layer data
I0403 13:32:50.666775 28335 net.cpp:49] Initializing net from parameters: 
state {
  phase: TEST
}
layer {
  name: "data"
  type: "Data"
  top: "data"
  top: "label"
  include {
    phase: TEST
  }
  transform_param {
    crop_size: 227
    mean_file: "/home/mohanty/data/final_dataset/lmdb/color-40-60/mean.binaryproto"
  }
  data_param {
    source: "/home/mohanty/data/final_dataset/lmdb/color-40-60/test_db"
    batch_size: 100
    backend: LMDB
  }
}
layer {
  name: "conv1"
  type: "Convolution"
  bottom: "data"
  top: "conv1"
  param {
    lr_mult: 1
    decay_mult: 1
  }
  param {
    lr_mult: 2
    decay_mult: 0
  }
  convolution_param {
    num_output: 96
    kernel_size: 11
    stride: 4
    weight_filler {
      type: "gaussian"
      std: 0.01
    }
    bias_filler {
      type: "constant"
      value: 0
    }
  }
}
layer {
  name: "relu1"
  type: "ReLU"
  bottom: "conv1"
  top: "conv1"
}
layer {
  name: "norm1"
  type: "LRN"
  bottom: "conv1"
  top: "norm1"
  lrn_param {
    local_size: 5
    alpha: 0.0001
    beta: 0.75
  }
}
layer {
  name: "pool1"
  type: "Pooling"
  bottom: "norm1"
  top: "pool1"
  pooling_param {
    pool: MAX
    kernel_size: 3
    stride: 2
  }
}
layer {
  name: "conv2"
  type: "Convolution"
  bottom: "pool1"
  top: "conv2"
  param {
    lr_mult: 1
    decay_mult: 1
  }
  param {
    lr_mult: 2
    decay_mult: 0
  }
  convolution_param {
    num_output: 256
    pad: 2
    kernel_size: 5
    group: 2
    weight_filler {
      type: "gaussian"
      std: 0.01
    }
    bias_filler {
      type: "constant"
      value: 0.1
    }
  }
}
layer {
  name: "relu2"
  type: "ReLU"
  bottom: "conv2"
  top: "conv2"
}
layer {
  name: "norm2"
  type: "LRN"
  bottom: "conv2"
  top: "norm2"
  lrn_param {
    local_size: 5
    alpha: 0.0001
    beta: 0.75
  }
}
layer {
  name: "pool2"
  type: "Pooling"
  bottom: "norm2"
  top: "pool2"
  pooling_param {
    pool: MAX
    kernel_size: 3
    stride: 2
  }
}
layer {
  name: "conv3"
  type: "Convolution"
  bottom: "pool2"
  top: "conv3"
  param {
    lr_mult: 1
    decay_mult: 1
  }
  param {
    lr_mult: 2
    decay_mult: 0
  }
  convolution_param {
    num_output: 384
    pad: 1
    kernel_size: 3
    weight_filler {
      type: "gaussian"
      std: 0.01
    }
    bias_filler {
      type: "constant"
      value: 0
    }
  }
}
layer {
  name: "relu3"
  type: "ReLU"
  bottom: "conv3"
  top: "conv3"
}
layer {
  name: "conv4"
  type: "Convolution"
  bottom: "conv3"
  top: "conv4"
  param {
    lr_mult: 1
    decay_mult: 1
  }
  param {
    lr_mult: 2
    decay_mult: 0
  }
  convolution_param {
    num_output: 384
    pad: 1
    kernel_size: 3
    group: 2
    weight_filler {
      type: "gaussian"
      std: 0.01
    }
    bias_filler {
      type: "constant"
      value: 0.1
    }
  }
}
layer {
  name: "relu4"
  type: "ReLU"
  bottom: "conv4"
  top: "conv4"
}
layer {
  name: "conv5"
  type: "Convolution"
  bottom: "conv4"
  top: "conv5"
  param {
    lr_mult: 1
    decay_mult: 1
  }
  param {
    lr_mult: 2
    decay_mult: 0
  }
  convolution_param {
    num_output: 256
    pad: 1
    kernel_size: 3
    group: 2
    weight_filler {
      type: "gaussian"
      std: 0.01
    }
    bias_filler {
      type: "constant"
      value: 0.1
    }
  }
}
layer {
  name: "relu5"
  type: "ReLU"
  bottom: "conv5"
  top: "conv5"
}
layer {
  name: "pool5"
  type: "Pooling"
  bottom: "conv5"
  top: "pool5"
  pooling_param {
    pool: MAX
    kernel_size: 3
    stride: 2
  }
}
layer {
  name: "fc6"
  type: "InnerProduct"
  bottom: "pool5"
  top: "fc6"
  param {
    lr_mult: 1
    decay_mult: 1
  }
  param {
    lr_mult: 2
    decay_mult: 0
  }
  inner_product_param {
    num_output: 4096
    weight_filler {
      type: "gaussian"
      std: 0.005
    }
    bias_filler {
      type: "constant"
      value: 0.1
    }
  }
}
layer {
  name: "relu6"
  type: "ReLU"
  bottom: "fc6"
  top: "fc6"
}
layer {
  name: "drop6"
  type: "Dropout"
  bottom: "fc6"
  top: "fc6"
  dropout_param {
    dropout_ratio: 0.5
  }
}
layer {
  name: "fc7"
  type: "InnerProduct"
  bottom: "fc6"
  top: "fc7"
  param {
    lr_mult: 1
    decay_mult: 1
  }
  param {
    lr_mult: 2
    decay_mult: 0
  }
  inner_product_param {
    num_output: 4096
    weight_filler {
      type: "gaussian"
      std: 0.005
    }
    bias_filler {
      type: "constant"
      value: 0.1
    }
  }
}
layer {
  name: "relu7"
  type: "ReLU"
  bottom: "fc7"
  top: "fc7"
}
layer {
  name: "drop7"
  type: "Dropout"
  bottom: "fc7"
  top: "fc7"
  dropout_param {
    dropout_ratio: 0.5
  }
}
layer {
  name: "fc8_plantvillage"
  type: "InnerProduct"
  bottom: "fc7"
  top: "fc8_plantvillage"
  param {
    lr_mult: 1
    decay_mult: 1
  }
  param {
    lr_mult: 2
    decay_mult: 0
  }
  inner_product_param {
    num_output: 38
    weight_filler {
      type: "gaussian"
      std: 0.01
    }
    bias_filler {
      type: "constant"
      value: 0
    }
  }
}
layer {
  name: "prob"
  type: "Softmax"
  bottom: "fc8_plantvillage"
  top: "prob"
  include {
    phase: TEST
  }
}
layer {
  name: "hdf5out"
  type: "HDF5Output"
  bottom: "prob"
  bottom: "label"
  include {
    phase: TEST
  }
  hdf5_output_param {
    file_name: "hdf5_dumps/iter_868.h5"
  }
}
layer {
  name: "loss"
  type: "SoftmaxWithLoss"
  bottom: "fc8_plantvillage"
  bottom: "label"
  top: "loss"
}
layer {
  name: "accuracy"
  type: "Accuracy"
  bottom: "fc8_plantvillage"
  bottom: "label"
  top: "accuracy"
  include {
    phase: TEST
  }
}
I0403 13:32:50.667331 28335 layer_factory.hpp:77] Creating layer data
I0403 13:32:50.668021 28335 net.cpp:91] Creating Layer data
I0403 13:32:50.668056 28335 net.cpp:399] data -> data
I0403 13:32:50.668112 28335 net.cpp:399] data -> label
I0403 13:32:50.668150 28335 data_transformer.cpp:25] Loading mean file from: /home/mohanty/data/final_dataset/lmdb/color-40-60/mean.binaryproto
I0403 13:32:50.671242 28339 db_lmdb.cpp:38] Opened lmdb /home/mohanty/data/final_dataset/lmdb/color-40-60/test_db
I0403 13:32:50.682282 28335 data_layer.cpp:41] output data size: 100,3,227,227
I0403 13:32:50.816833 28335 net.cpp:141] Setting up data
I0403 13:32:50.816931 28335 net.cpp:148] Top shape: 100 3 227 227 (15458700)
I0403 13:32:50.816956 28335 net.cpp:148] Top shape: 100 (100)
I0403 13:32:50.816973 28335 net.cpp:156] Memory required for data: 61835200
I0403 13:32:50.817003 28335 layer_factory.hpp:77] Creating layer label_data_1_split
I0403 13:32:50.817030 28335 net.cpp:91] Creating Layer label_data_1_split
I0403 13:32:50.817050 28335 net.cpp:425] label_data_1_split <- label
I0403 13:32:50.817083 28335 net.cpp:399] label_data_1_split -> label_data_1_split_0
I0403 13:32:50.817112 28335 net.cpp:399] label_data_1_split -> label_data_1_split_1
I0403 13:32:50.817134 28335 net.cpp:399] label_data_1_split -> label_data_1_split_2
I0403 13:32:50.817201 28335 net.cpp:141] Setting up label_data_1_split
I0403 13:32:50.817227 28335 net.cpp:148] Top shape: 100 (100)
I0403 13:32:50.817245 28335 net.cpp:148] Top shape: 100 (100)
I0403 13:32:50.817270 28335 net.cpp:148] Top shape: 100 (100)
I0403 13:32:50.817286 28335 net.cpp:156] Memory required for data: 61836400
I0403 13:32:50.817302 28335 layer_factory.hpp:77] Creating layer conv1
I0403 13:32:50.817335 28335 net.cpp:91] Creating Layer conv1
I0403 13:32:50.817365 28335 net.cpp:425] conv1 <- data
I0403 13:32:50.817387 28335 net.cpp:399] conv1 -> conv1
I0403 13:32:50.964563 28335 net.cpp:141] Setting up conv1
I0403 13:32:50.964633 28335 net.cpp:148] Top shape: 100 96 55 55 (29040000)
I0403 13:32:50.964651 28335 net.cpp:156] Memory required for data: 177996400
I0403 13:32:50.964695 28335 layer_factory.hpp:77] Creating layer relu1
I0403 13:32:50.964725 28335 net.cpp:91] Creating Layer relu1
I0403 13:32:50.964743 28335 net.cpp:425] relu1 <- conv1
I0403 13:32:50.964763 28335 net.cpp:386] relu1 -> conv1 (in-place)
I0403 13:32:50.965049 28335 net.cpp:141] Setting up relu1
I0403 13:32:50.965082 28335 net.cpp:148] Top shape: 100 96 55 55 (29040000)
I0403 13:32:50.965100 28335 net.cpp:156] Memory required for data: 294156400
I0403 13:32:50.965147 28335 layer_factory.hpp:77] Creating layer norm1
I0403 13:32:50.965178 28335 net.cpp:91] Creating Layer norm1
I0403 13:32:50.965198 28335 net.cpp:425] norm1 <- conv1
I0403 13:32:50.965219 28335 net.cpp:399] norm1 -> norm1
I0403 13:32:50.965550 28335 net.cpp:141] Setting up norm1
I0403 13:32:50.965579 28335 net.cpp:148] Top shape: 100 96 55 55 (29040000)
I0403 13:32:50.965595 28335 net.cpp:156] Memory required for data: 410316400
I0403 13:32:50.965611 28335 layer_factory.hpp:77] Creating layer pool1
I0403 13:32:50.965634 28335 net.cpp:91] Creating Layer pool1
I0403 13:32:50.965651 28335 net.cpp:425] pool1 <- norm1
I0403 13:32:50.965673 28335 net.cpp:399] pool1 -> pool1
I0403 13:32:50.965744 28335 net.cpp:141] Setting up pool1
I0403 13:32:50.965771 28335 net.cpp:148] Top shape: 100 96 27 27 (6998400)
I0403 13:32:50.965788 28335 net.cpp:156] Memory required for data: 438310000
I0403 13:32:50.965803 28335 layer_factory.hpp:77] Creating layer conv2
I0403 13:32:50.965831 28335 net.cpp:91] Creating Layer conv2
I0403 13:32:50.965847 28335 net.cpp:425] conv2 <- pool1
I0403 13:32:50.965867 28335 net.cpp:399] conv2 -> conv2
I0403 13:32:50.980784 28335 net.cpp:141] Setting up conv2
I0403 13:32:50.980831 28335 net.cpp:148] Top shape: 100 256 27 27 (18662400)
I0403 13:32:50.980849 28335 net.cpp:156] Memory required for data: 512959600
I0403 13:32:50.980872 28335 layer_factory.hpp:77] Creating layer relu2
I0403 13:32:50.980892 28335 net.cpp:91] Creating Layer relu2
I0403 13:32:50.980908 28335 net.cpp:425] relu2 <- conv2
I0403 13:32:50.980940 28335 net.cpp:386] relu2 -> conv2 (in-place)
I0403 13:32:50.981228 28335 net.cpp:141] Setting up relu2
I0403 13:32:50.981272 28335 net.cpp:148] Top shape: 100 256 27 27 (18662400)
I0403 13:32:50.981289 28335 net.cpp:156] Memory required for data: 587609200
I0403 13:32:50.981304 28335 layer_factory.hpp:77] Creating layer norm2
I0403 13:32:50.981328 28335 net.cpp:91] Creating Layer norm2
I0403 13:32:50.981346 28335 net.cpp:425] norm2 <- conv2
I0403 13:32:50.981364 28335 net.cpp:399] norm2 -> norm2
I0403 13:32:50.981561 28335 net.cpp:141] Setting up norm2
I0403 13:32:50.981591 28335 net.cpp:148] Top shape: 100 256 27 27 (18662400)
I0403 13:32:50.981607 28335 net.cpp:156] Memory required for data: 662258800
I0403 13:32:50.981623 28335 layer_factory.hpp:77] Creating layer pool2
I0403 13:32:50.981642 28335 net.cpp:91] Creating Layer pool2
I0403 13:32:50.981657 28335 net.cpp:425] pool2 <- norm2
I0403 13:32:50.981679 28335 net.cpp:399] pool2 -> pool2
I0403 13:32:50.981734 28335 net.cpp:141] Setting up pool2
I0403 13:32:50.981757 28335 net.cpp:148] Top shape: 100 256 13 13 (4326400)
I0403 13:32:50.981772 28335 net.cpp:156] Memory required for data: 679564400
I0403 13:32:50.981787 28335 layer_factory.hpp:77] Creating layer conv3
I0403 13:32:50.981815 28335 net.cpp:91] Creating Layer conv3
I0403 13:32:50.981833 28335 net.cpp:425] conv3 <- pool2
I0403 13:32:50.981853 28335 net.cpp:399] conv3 -> conv3
I0403 13:32:51.019836 28335 net.cpp:141] Setting up conv3
I0403 13:32:51.019911 28335 net.cpp:148] Top shape: 100 384 13 13 (6489600)
I0403 13:32:51.019928 28335 net.cpp:156] Memory required for data: 705522800
I0403 13:32:51.019956 28335 layer_factory.hpp:77] Creating layer relu3
I0403 13:32:51.019979 28335 net.cpp:91] Creating Layer relu3
I0403 13:32:51.019997 28335 net.cpp:425] relu3 <- conv3
I0403 13:32:51.020018 28335 net.cpp:386] relu3 -> conv3 (in-place)
I0403 13:32:51.020300 28335 net.cpp:141] Setting up relu3
I0403 13:32:51.020328 28335 net.cpp:148] Top shape: 100 384 13 13 (6489600)
I0403 13:32:51.020344 28335 net.cpp:156] Memory required for data: 731481200
I0403 13:32:51.020359 28335 layer_factory.hpp:77] Creating layer conv4
I0403 13:32:51.020386 28335 net.cpp:91] Creating Layer conv4
I0403 13:32:51.020406 28335 net.cpp:425] conv4 <- conv3
I0403 13:32:51.020426 28335 net.cpp:399] conv4 -> conv4
I0403 13:32:51.050197 28335 net.cpp:141] Setting up conv4
I0403 13:32:51.050267 28335 net.cpp:148] Top shape: 100 384 13 13 (6489600)
I0403 13:32:51.050319 28335 net.cpp:156] Memory required for data: 757439600
I0403 13:32:51.050343 28335 layer_factory.hpp:77] Creating layer relu4
I0403 13:32:51.050365 28335 net.cpp:91] Creating Layer relu4
I0403 13:32:51.050382 28335 net.cpp:425] relu4 <- conv4
I0403 13:32:51.050405 28335 net.cpp:386] relu4 -> conv4 (in-place)
I0403 13:32:51.050688 28335 net.cpp:141] Setting up relu4
I0403 13:32:51.050717 28335 net.cpp:148] Top shape: 100 384 13 13 (6489600)
I0403 13:32:51.050735 28335 net.cpp:156] Memory required for data: 783398000
I0403 13:32:51.050751 28335 layer_factory.hpp:77] Creating layer conv5
I0403 13:32:51.050777 28335 net.cpp:91] Creating Layer conv5
I0403 13:32:51.050796 28335 net.cpp:425] conv5 <- conv4
I0403 13:32:51.050815 28335 net.cpp:399] conv5 -> conv5
I0403 13:32:51.071991 28335 net.cpp:141] Setting up conv5
I0403 13:32:51.072047 28335 net.cpp:148] Top shape: 100 256 13 13 (4326400)
I0403 13:32:51.072064 28335 net.cpp:156] Memory required for data: 800703600
I0403 13:32:51.072090 28335 layer_factory.hpp:77] Creating layer relu5
I0403 13:32:51.072113 28335 net.cpp:91] Creating Layer relu5
I0403 13:32:51.072130 28335 net.cpp:425] relu5 <- conv5
I0403 13:32:51.072152 28335 net.cpp:386] relu5 -> conv5 (in-place)
I0403 13:32:51.072440 28335 net.cpp:141] Setting up relu5
I0403 13:32:51.072469 28335 net.cpp:148] Top shape: 100 256 13 13 (4326400)
I0403 13:32:51.072485 28335 net.cpp:156] Memory required for data: 818009200
I0403 13:32:51.072501 28335 layer_factory.hpp:77] Creating layer pool5
I0403 13:32:51.072528 28335 net.cpp:91] Creating Layer pool5
I0403 13:32:51.072546 28335 net.cpp:425] pool5 <- conv5
I0403 13:32:51.072566 28335 net.cpp:399] pool5 -> pool5
I0403 13:32:51.072638 28335 net.cpp:141] Setting up pool5
I0403 13:32:51.072666 28335 net.cpp:148] Top shape: 100 256 6 6 (921600)
I0403 13:32:51.072682 28335 net.cpp:156] Memory required for data: 821695600
I0403 13:32:51.072697 28335 layer_factory.hpp:77] Creating layer fc6
I0403 13:32:51.072726 28335 net.cpp:91] Creating Layer fc6
I0403 13:32:51.072744 28335 net.cpp:425] fc6 <- pool5
I0403 13:32:51.072765 28335 net.cpp:399] fc6 -> fc6
I0403 13:32:52.636911 28335 net.cpp:141] Setting up fc6
I0403 13:32:52.636981 28335 net.cpp:148] Top shape: 100 4096 (409600)
I0403 13:32:52.636997 28335 net.cpp:156] Memory required for data: 823334000
I0403 13:32:52.637020 28335 layer_factory.hpp:77] Creating layer relu6
I0403 13:32:52.637044 28335 net.cpp:91] Creating Layer relu6
I0403 13:32:52.637063 28335 net.cpp:425] relu6 <- fc6
I0403 13:32:52.637084 28335 net.cpp:386] relu6 -> fc6 (in-place)
I0403 13:32:52.637325 28335 net.cpp:141] Setting up relu6
I0403 13:32:52.637351 28335 net.cpp:148] Top shape: 100 4096 (409600)
I0403 13:32:52.637368 28335 net.cpp:156] Memory required for data: 824972400
I0403 13:32:52.637384 28335 layer_factory.hpp:77] Creating layer drop6
I0403 13:32:52.637403 28335 net.cpp:91] Creating Layer drop6
I0403 13:32:52.637418 28335 net.cpp:425] drop6 <- fc6
I0403 13:32:52.637440 28335 net.cpp:386] drop6 -> fc6 (in-place)
I0403 13:32:52.637493 28335 net.cpp:141] Setting up drop6
I0403 13:32:52.637521 28335 net.cpp:148] Top shape: 100 4096 (409600)
I0403 13:32:52.637537 28335 net.cpp:156] Memory required for data: 826610800
I0403 13:32:52.637552 28335 layer_factory.hpp:77] Creating layer fc7
I0403 13:32:52.637573 28335 net.cpp:91] Creating Layer fc7
I0403 13:32:52.637589 28335 net.cpp:425] fc7 <- fc6
I0403 13:32:52.637610 28335 net.cpp:399] fc7 -> fc7
I0403 13:32:53.350801 28335 net.cpp:141] Setting up fc7
I0403 13:32:53.350854 28335 net.cpp:148] Top shape: 100 4096 (409600)
I0403 13:32:53.350873 28335 net.cpp:156] Memory required for data: 828249200
I0403 13:32:53.350895 28335 layer_factory.hpp:77] Creating layer relu7
I0403 13:32:53.350917 28335 net.cpp:91] Creating Layer relu7
I0403 13:32:53.350935 28335 net.cpp:425] relu7 <- fc7
I0403 13:32:53.350958 28335 net.cpp:386] relu7 -> fc7 (in-place)
I0403 13:32:53.351361 28335 net.cpp:141] Setting up relu7
I0403 13:32:53.351388 28335 net.cpp:148] Top shape: 100 4096 (409600)
I0403 13:32:53.351435 28335 net.cpp:156] Memory required for data: 829887600
I0403 13:32:53.351452 28335 layer_factory.hpp:77] Creating layer drop7
I0403 13:32:53.351469 28335 net.cpp:91] Creating Layer drop7
I0403 13:32:53.351485 28335 net.cpp:425] drop7 <- fc7
I0403 13:32:53.351505 28335 net.cpp:386] drop7 -> fc7 (in-place)
I0403 13:32:53.351548 28335 net.cpp:141] Setting up drop7
I0403 13:32:53.351572 28335 net.cpp:148] Top shape: 100 4096 (409600)
I0403 13:32:53.351586 28335 net.cpp:156] Memory required for data: 831526000
I0403 13:32:53.351601 28335 layer_factory.hpp:77] Creating layer fc8_plantvillage
I0403 13:32:53.351624 28335 net.cpp:91] Creating Layer fc8_plantvillage
I0403 13:32:53.351640 28335 net.cpp:425] fc8_plantvillage <- fc7
I0403 13:32:53.351660 28335 net.cpp:399] fc8_plantvillage -> fc8_plantvillage
I0403 13:32:53.358332 28335 net.cpp:141] Setting up fc8_plantvillage
I0403 13:32:53.358362 28335 net.cpp:148] Top shape: 100 38 (3800)
I0403 13:32:53.358378 28335 net.cpp:156] Memory required for data: 831541200
I0403 13:32:53.358395 28335 layer_factory.hpp:77] Creating layer fc8_plantvillage_fc8_plantvillage_0_split
I0403 13:32:53.358414 28335 net.cpp:91] Creating Layer fc8_plantvillage_fc8_plantvillage_0_split
I0403 13:32:53.358430 28335 net.cpp:425] fc8_plantvillage_fc8_plantvillage_0_split <- fc8_plantvillage
I0403 13:32:53.358449 28335 net.cpp:399] fc8_plantvillage_fc8_plantvillage_0_split -> fc8_plantvillage_fc8_plantvillage_0_split_0
I0403 13:32:53.358470 28335 net.cpp:399] fc8_plantvillage_fc8_plantvillage_0_split -> fc8_plantvillage_fc8_plantvillage_0_split_1
I0403 13:32:53.358490 28335 net.cpp:399] fc8_plantvillage_fc8_plantvillage_0_split -> fc8_plantvillage_fc8_plantvillage_0_split_2
I0403 13:32:53.358564 28335 net.cpp:141] Setting up fc8_plantvillage_fc8_plantvillage_0_split
I0403 13:32:53.358587 28335 net.cpp:148] Top shape: 100 38 (3800)
I0403 13:32:53.358604 28335 net.cpp:148] Top shape: 100 38 (3800)
I0403 13:32:53.358620 28335 net.cpp:148] Top shape: 100 38 (3800)
I0403 13:32:53.358634 28335 net.cpp:156] Memory required for data: 831586800
I0403 13:32:53.358649 28335 layer_factory.hpp:77] Creating layer prob
I0403 13:32:53.358666 28335 net.cpp:91] Creating Layer prob
I0403 13:32:53.358681 28335 net.cpp:425] prob <- fc8_plantvillage_fc8_plantvillage_0_split_0
I0403 13:32:53.358700 28335 net.cpp:399] prob -> prob
I0403 13:32:53.358916 28335 net.cpp:141] Setting up prob
I0403 13:32:53.358943 28335 net.cpp:148] Top shape: 100 38 (3800)
I0403 13:32:53.358959 28335 net.cpp:156] Memory required for data: 831602000
I0403 13:32:53.358974 28335 layer_factory.hpp:77] Creating layer hdf5out
I0403 13:32:53.358994 28335 net.cpp:91] Creating Layer hdf5out
I0403 13:32:53.359009 28335 net.cpp:425] hdf5out <- prob
I0403 13:32:53.359025 28335 net.cpp:425] hdf5out <- label_data_1_split_0
I0403 13:32:53.362287 28335 net.cpp:141] Setting up hdf5out
…
