…
I0403 13:33:59.319206 28372 net.cpp:313] The NetState phase (1) differed from the phase (0) specified by a rule in layer data
I0403 13:33:59.319514 28372 net.cpp:49] Initializing net from parameters: 
state {
  phase: TEST
}
layer {
  name: "data"
  type: "Data"
  top: "data"
  top: "label"
  include {
    phase: TEST
  }
  transform_param {
    crop_size: 227
    mean_file: "/home/mohanty/data/final_dataset/lmdb/color-40-60/mean.binaryproto"
  }
  data_param {
    source: "/home/mohanty/data/final_dataset/lmdb/color-40-60/test_db"
    batch_size: 100
    backend: LMDB
  }
}
layer {
  name: "conv1"
  type: "Convolution"
  bottom: "data"
  top: "conv1"
  param {
    lr_mult: 1
    decay_mult: 1
  }
  param {
    lr_mult: 2
    decay_mult: 0
  }
  convolution_param {
    num_output: 96
    kernel_size: 11
    stride: 4
    weight_filler {
      type: "gaussian"
      std: 0.01
    }
    bias_filler {
      type: "constant"
      value: 0
    }
  }
}
layer {
  name: "relu1"
  type: "ReLU"
  bottom: "conv1"
  top: "conv1"
}
layer {
  name: "norm1"
  type: "LRN"
  bottom: "conv1"
  top: "norm1"
  lrn_param {
    local_size: 5
    alpha: 0.0001
    beta: 0.75
  }
}
layer {
  name: "pool1"
  type: "Pooling"
  bottom: "norm1"
  top: "pool1"
  pooling_param {
    pool: MAX
    kernel_size: 3
    stride: 2
  }
}
layer {
  name: "conv2"
  type: "Convolution"
  bottom: "pool1"
  top: "conv2"
  param {
    lr_mult: 1
    decay_mult: 1
  }
  param {
    lr_mult: 2
    decay_mult: 0
  }
  convolution_param {
    num_output: 256
    pad: 2
    kernel_size: 5
    group: 2
    weight_filler {
      type: "gaussian"
      std: 0.01
    }
    bias_filler {
      type: "constant"
      value: 0.1
    }
  }
}
layer {
  name: "relu2"
  type: "ReLU"
  bottom: "conv2"
  top: "conv2"
}
layer {
  name: "norm2"
  type: "LRN"
  bottom: "conv2"
  top: "norm2"
  lrn_param {
    local_size: 5
    alpha: 0.0001
    beta: 0.75
  }
}
layer {
  name: "pool2"
  type: "Pooling"
  bottom: "norm2"
  top: "pool2"
  pooling_param {
    pool: MAX
    kernel_size: 3
    stride: 2
  }
}
layer {
  name: "conv3"
  type: "Convolution"
  bottom: "pool2"
  top: "conv3"
  param {
    lr_mult: 1
    decay_mult: 1
  }
  param {
    lr_mult: 2
    decay_mult: 0
  }
  convolution_param {
    num_output: 384
    pad: 1
    kernel_size: 3
    weight_filler {
      type: "gaussian"
      std: 0.01
    }
    bias_filler {
      type: "constant"
      value: 0
    }
  }
}
layer {
  name: "relu3"
  type: "ReLU"
  bottom: "conv3"
  top: "conv3"
}
layer {
  name: "conv4"
  type: "Convolution"
  bottom: "conv3"
  top: "conv4"
  param {
    lr_mult: 1
    decay_mult: 1
  }
  param {
    lr_mult: 2
    decay_mult: 0
  }
  convolution_param {
    num_output: 384
    pad: 1
    kernel_size: 3
    group: 2
    weight_filler {
      type: "gaussian"
      std: 0.01
    }
    bias_filler {
      type: "constant"
      value: 0.1
    }
  }
}
layer {
  name: "relu4"
  type: "ReLU"
  bottom: "conv4"
  top: "conv4"
}
layer {
  name: "conv5"
  type: "Convolution"
  bottom: "conv4"
  top: "conv5"
  param {
    lr_mult: 1
    decay_mult: 1
  }
  param {
    lr_mult: 2
    decay_mult: 0
  }
  convolution_param {
    num_output: 256
    pad: 1
    kernel_size: 3
    group: 2
    weight_filler {
      type: "gaussian"
      std: 0.01
    }
    bias_filler {
      type: "constant"
      value: 0.1
    }
  }
}
layer {
  name: "relu5"
  type: "ReLU"
  bottom: "conv5"
  top: "conv5"
}
layer {
  name: "pool5"
  type: "Pooling"
  bottom: "conv5"
  top: "pool5"
  pooling_param {
    pool: MAX
    kernel_size: 3
    stride: 2
  }
}
layer {
  name: "fc6"
  type: "InnerProduct"
  bottom: "pool5"
  top: "fc6"
  param {
    lr_mult: 1
    decay_mult: 1
  }
  param {
    lr_mult: 2
    decay_mult: 0
  }
  inner_product_param {
    num_output: 4096
    weight_filler {
      type: "gaussian"
      std: 0.005
    }
    bias_filler {
      type: "constant"
      value: 0.1
    }
  }
}
layer {
  name: "relu6"
  type: "ReLU"
  bottom: "fc6"
  top: "fc6"
}
layer {
  name: "drop6"
  type: "Dropout"
  bottom: "fc6"
  top: "fc6"
  dropout_param {
    dropout_ratio: 0.5
  }
}
layer {
  name: "fc7"
  type: "InnerProduct"
  bottom: "fc6"
  top: "fc7"
  param {
    lr_mult: 1
    decay_mult: 1
  }
  param {
    lr_mult: 2
    decay_mult: 0
  }
  inner_product_param {
    num_output: 4096
    weight_filler {
      type: "gaussian"
      std: 0.005
    }
    bias_filler {
      type: "constant"
      value: 0.1
    }
  }
}
layer {
  name: "relu7"
  type: "ReLU"
  bottom: "fc7"
  top: "fc7"
}
layer {
  name: "drop7"
  type: "Dropout"
  bottom: "fc7"
  top: "fc7"
  dropout_param {
    dropout_ratio: 0.5
  }
}
layer {
  name: "fc8_plantvillage"
  type: "InnerProduct"
  bottom: "fc7"
  top: "fc8_plantvillage"
  param {
    lr_mult: 1
    decay_mult: 1
  }
  param {
    lr_mult: 2
    decay_mult: 0
  }
  inner_product_param {
    num_output: 38
    weight_filler {
      type: "gaussian"
      std: 0.01
    }
    bias_filler {
      type: "constant"
      value: 0
    }
  }
}
layer {
  name: "prob"
  type: "Softmax"
  bottom: "fc8_plantvillage"
  top: "prob"
  include {
    phase: TEST
  }
}
layer {
  name: "hdf5out"
  type: "HDF5Output"
  bottom: "prob"
  bottom: "label"
  include {
    phase: TEST
  }
  hdf5_output_param {
    file_name: "hdf5_dumps/iter_1085.h5"
  }
}
layer {
  name: "loss"
  type: "SoftmaxWithLoss"
  bottom: "fc8_plantvillage"
  bottom: "label"
  top: "loss"
}
layer {
  name: "accuracy"
  type: "Accuracy"
  bottom: "fc8_plantvillage"
  bottom: "label"
  top: "accuracy"
  include {
    phase: TEST
  }
}
I0403 13:33:59.320104 28372 layer_factory.hpp:77] Creating layer data
I0403 13:33:59.320755 28372 net.cpp:91] Creating Layer data
I0403 13:33:59.320788 28372 net.cpp:399] data -> data
I0403 13:33:59.320855 28372 net.cpp:399] data -> label
I0403 13:33:59.320894 28372 data_transformer.cpp:25] Loading mean file from: /home/mohanty/data/final_dataset/lmdb/color-40-60/mean.binaryproto
I0403 13:33:59.324019 28375 db_lmdb.cpp:38] Opened lmdb /home/mohanty/data/final_dataset/lmdb/color-40-60/test_db
I0403 13:33:59.335273 28372 data_layer.cpp:41] output data size: 100,3,227,227
I0403 13:33:59.470090 28372 net.cpp:141] Setting up data
I0403 13:33:59.470154 28372 net.cpp:148] Top shape: 100 3 227 227 (15458700)
I0403 13:33:59.470178 28372 net.cpp:148] Top shape: 100 (100)
I0403 13:33:59.470194 28372 net.cpp:156] Memory required for data: 61835200
I0403 13:33:59.470222 28372 layer_factory.hpp:77] Creating layer label_data_1_split
I0403 13:33:59.470250 28372 net.cpp:91] Creating Layer label_data_1_split
I0403 13:33:59.470276 28372 net.cpp:425] label_data_1_split <- label
I0403 13:33:59.470311 28372 net.cpp:399] label_data_1_split -> label_data_1_split_0
I0403 13:33:59.470340 28372 net.cpp:399] label_data_1_split -> label_data_1_split_1
I0403 13:33:59.470361 28372 net.cpp:399] label_data_1_split -> label_data_1_split_2
I0403 13:33:59.470427 28372 net.cpp:141] Setting up label_data_1_split
I0403 13:33:59.470453 28372 net.cpp:148] Top shape: 100 (100)
I0403 13:33:59.470471 28372 net.cpp:148] Top shape: 100 (100)
I0403 13:33:59.470490 28372 net.cpp:148] Top shape: 100 (100)
I0403 13:33:59.470505 28372 net.cpp:156] Memory required for data: 61836400
I0403 13:33:59.470521 28372 layer_factory.hpp:77] Creating layer conv1
I0403 13:33:59.470553 28372 net.cpp:91] Creating Layer conv1
I0403 13:33:59.470576 28372 net.cpp:425] conv1 <- data
I0403 13:33:59.470595 28372 net.cpp:399] conv1 -> conv1
I0403 13:33:59.637715 28372 net.cpp:141] Setting up conv1
I0403 13:33:59.637769 28372 net.cpp:148] Top shape: 100 96 55 55 (29040000)
I0403 13:33:59.637789 28372 net.cpp:156] Memory required for data: 177996400
I0403 13:33:59.637821 28372 layer_factory.hpp:77] Creating layer relu1
I0403 13:33:59.637856 28372 net.cpp:91] Creating Layer relu1
I0403 13:33:59.637876 28372 net.cpp:425] relu1 <- conv1
I0403 13:33:59.637895 28372 net.cpp:386] relu1 -> conv1 (in-place)
I0403 13:33:59.638178 28372 net.cpp:141] Setting up relu1
I0403 13:33:59.638207 28372 net.cpp:148] Top shape: 100 96 55 55 (29040000)
I0403 13:33:59.638224 28372 net.cpp:156] Memory required for data: 294156400
I0403 13:33:59.638275 28372 layer_factory.hpp:77] Creating layer norm1
I0403 13:33:59.638310 28372 net.cpp:91] Creating Layer norm1
I0403 13:33:59.638332 28372 net.cpp:425] norm1 <- conv1
I0403 13:33:59.638365 28372 net.cpp:399] norm1 -> norm1
I0403 13:33:59.638679 28372 net.cpp:141] Setting up norm1
I0403 13:33:59.638708 28372 net.cpp:148] Top shape: 100 96 55 55 (29040000)
I0403 13:33:59.638725 28372 net.cpp:156] Memory required for data: 410316400
I0403 13:33:59.638742 28372 layer_factory.hpp:77] Creating layer pool1
I0403 13:33:59.638766 28372 net.cpp:91] Creating Layer pool1
I0403 13:33:59.638784 28372 net.cpp:425] pool1 <- norm1
I0403 13:33:59.638803 28372 net.cpp:399] pool1 -> pool1
I0403 13:33:59.638871 28372 net.cpp:141] Setting up pool1
I0403 13:33:59.638896 28372 net.cpp:148] Top shape: 100 96 27 27 (6998400)
I0403 13:33:59.638912 28372 net.cpp:156] Memory required for data: 438310000
I0403 13:33:59.638928 28372 layer_factory.hpp:77] Creating layer conv2
I0403 13:33:59.638954 28372 net.cpp:91] Creating Layer conv2
I0403 13:33:59.638972 28372 net.cpp:425] conv2 <- pool1
I0403 13:33:59.638991 28372 net.cpp:399] conv2 -> conv2
I0403 13:33:59.654618 28372 net.cpp:141] Setting up conv2
I0403 13:33:59.654675 28372 net.cpp:148] Top shape: 100 256 27 27 (18662400)
I0403 13:33:59.654696 28372 net.cpp:156] Memory required for data: 512959600
I0403 13:33:59.654729 28372 layer_factory.hpp:77] Creating layer relu2
I0403 13:33:59.654758 28372 net.cpp:91] Creating Layer relu2
I0403 13:33:59.654780 28372 net.cpp:425] relu2 <- conv2
I0403 13:33:59.654801 28372 net.cpp:386] relu2 -> conv2 (in-place)
I0403 13:33:59.655112 28372 net.cpp:141] Setting up relu2
I0403 13:33:59.655140 28372 net.cpp:148] Top shape: 100 256 27 27 (18662400)
I0403 13:33:59.655156 28372 net.cpp:156] Memory required for data: 587609200
I0403 13:33:59.655174 28372 layer_factory.hpp:77] Creating layer norm2
I0403 13:33:59.655200 28372 net.cpp:91] Creating Layer norm2
I0403 13:33:59.655218 28372 net.cpp:425] norm2 <- conv2
I0403 13:33:59.655241 28372 net.cpp:399] norm2 -> norm2
I0403 13:33:59.655462 28372 net.cpp:141] Setting up norm2
I0403 13:33:59.655489 28372 net.cpp:148] Top shape: 100 256 27 27 (18662400)
I0403 13:33:59.655505 28372 net.cpp:156] Memory required for data: 662258800
I0403 13:33:59.655522 28372 layer_factory.hpp:77] Creating layer pool2
I0403 13:33:59.655546 28372 net.cpp:91] Creating Layer pool2
I0403 13:33:59.655563 28372 net.cpp:425] pool2 <- norm2
I0403 13:33:59.655582 28372 net.cpp:399] pool2 -> pool2
I0403 13:33:59.655640 28372 net.cpp:141] Setting up pool2
I0403 13:33:59.655665 28372 net.cpp:148] Top shape: 100 256 13 13 (4326400)
I0403 13:33:59.655681 28372 net.cpp:156] Memory required for data: 679564400
I0403 13:33:59.655699 28372 layer_factory.hpp:77] Creating layer conv3
I0403 13:33:59.655724 28372 net.cpp:91] Creating Layer conv3
I0403 13:33:59.655742 28372 net.cpp:425] conv3 <- pool2
I0403 13:33:59.655764 28372 net.cpp:399] conv3 -> conv3
I0403 13:33:59.695086 28372 net.cpp:141] Setting up conv3
I0403 13:33:59.695152 28372 net.cpp:148] Top shape: 100 384 13 13 (6489600)
I0403 13:33:59.695169 28372 net.cpp:156] Memory required for data: 705522800
I0403 13:33:59.695199 28372 layer_factory.hpp:77] Creating layer relu3
I0403 13:33:59.695221 28372 net.cpp:91] Creating Layer relu3
I0403 13:33:59.695238 28372 net.cpp:425] relu3 <- conv3
I0403 13:33:59.695258 28372 net.cpp:386] relu3 -> conv3 (in-place)
I0403 13:33:59.695552 28372 net.cpp:141] Setting up relu3
I0403 13:33:59.695580 28372 net.cpp:148] Top shape: 100 384 13 13 (6489600)
I0403 13:33:59.695597 28372 net.cpp:156] Memory required for data: 731481200
I0403 13:33:59.695614 28372 layer_factory.hpp:77] Creating layer conv4
I0403 13:33:59.695641 28372 net.cpp:91] Creating Layer conv4
I0403 13:33:59.695660 28372 net.cpp:425] conv4 <- conv3
I0403 13:33:59.695683 28372 net.cpp:399] conv4 -> conv4
I0403 13:33:59.725483 28372 net.cpp:141] Setting up conv4
I0403 13:33:59.725548 28372 net.cpp:148] Top shape: 100 384 13 13 (6489600)
I0403 13:33:59.725595 28372 net.cpp:156] Memory required for data: 757439600
I0403 13:33:59.725618 28372 layer_factory.hpp:77] Creating layer relu4
I0403 13:33:59.725643 28372 net.cpp:91] Creating Layer relu4
I0403 13:33:59.725662 28372 net.cpp:425] relu4 <- conv4
I0403 13:33:59.725682 28372 net.cpp:386] relu4 -> conv4 (in-place)
I0403 13:33:59.725971 28372 net.cpp:141] Setting up relu4
I0403 13:33:59.726001 28372 net.cpp:148] Top shape: 100 384 13 13 (6489600)
I0403 13:33:59.726016 28372 net.cpp:156] Memory required for data: 783398000
I0403 13:33:59.726033 28372 layer_factory.hpp:77] Creating layer conv5
I0403 13:33:59.726060 28372 net.cpp:91] Creating Layer conv5
I0403 13:33:59.726078 28372 net.cpp:425] conv5 <- conv4
I0403 13:33:59.726101 28372 net.cpp:399] conv5 -> conv5
I0403 13:33:59.746845 28372 net.cpp:141] Setting up conv5
I0403 13:33:59.746901 28372 net.cpp:148] Top shape: 100 256 13 13 (4326400)
I0403 13:33:59.746918 28372 net.cpp:156] Memory required for data: 800703600
I0403 13:33:59.746944 28372 layer_factory.hpp:77] Creating layer relu5
I0403 13:33:59.746969 28372 net.cpp:91] Creating Layer relu5
I0403 13:33:59.746989 28372 net.cpp:425] relu5 <- conv5
I0403 13:33:59.747009 28372 net.cpp:386] relu5 -> conv5 (in-place)
I0403 13:33:59.747299 28372 net.cpp:141] Setting up relu5
I0403 13:33:59.747328 28372 net.cpp:148] Top shape: 100 256 13 13 (4326400)
I0403 13:33:59.747344 28372 net.cpp:156] Memory required for data: 818009200
I0403 13:33:59.747361 28372 layer_factory.hpp:77] Creating layer pool5
I0403 13:33:59.747386 28372 net.cpp:91] Creating Layer pool5
I0403 13:33:59.747405 28372 net.cpp:425] pool5 <- conv5
I0403 13:33:59.747428 28372 net.cpp:399] pool5 -> pool5
I0403 13:33:59.747489 28372 net.cpp:141] Setting up pool5
I0403 13:33:59.747514 28372 net.cpp:148] Top shape: 100 256 6 6 (921600)
I0403 13:33:59.747530 28372 net.cpp:156] Memory required for data: 821695600
I0403 13:33:59.747547 28372 layer_factory.hpp:77] Creating layer fc6
I0403 13:33:59.747575 28372 net.cpp:91] Creating Layer fc6
I0403 13:33:59.747594 28372 net.cpp:425] fc6 <- pool5
I0403 13:33:59.747614 28372 net.cpp:399] fc6 -> fc6
I0403 13:34:01.307435 28372 net.cpp:141] Setting up fc6
I0403 13:34:01.307497 28372 net.cpp:148] Top shape: 100 4096 (409600)
I0403 13:34:01.307512 28372 net.cpp:156] Memory required for data: 823334000
I0403 13:34:01.307535 28372 layer_factory.hpp:77] Creating layer relu6
I0403 13:34:01.307557 28372 net.cpp:91] Creating Layer relu6
I0403 13:34:01.307576 28372 net.cpp:425] relu6 <- fc6
I0403 13:34:01.307600 28372 net.cpp:386] relu6 -> fc6 (in-place)
I0403 13:34:01.307837 28372 net.cpp:141] Setting up relu6
I0403 13:34:01.307862 28372 net.cpp:148] Top shape: 100 4096 (409600)
I0403 13:34:01.307878 28372 net.cpp:156] Memory required for data: 824972400
I0403 13:34:01.307894 28372 layer_factory.hpp:77] Creating layer drop6
I0403 13:34:01.307916 28372 net.cpp:91] Creating Layer drop6
I0403 13:34:01.307932 28372 net.cpp:425] drop6 <- fc6
I0403 13:34:01.307950 28372 net.cpp:386] drop6 -> fc6 (in-place)
I0403 13:34:01.308003 28372 net.cpp:141] Setting up drop6
I0403 13:34:01.308027 28372 net.cpp:148] Top shape: 100 4096 (409600)
I0403 13:34:01.308043 28372 net.cpp:156] Memory required for data: 826610800
I0403 13:34:01.308058 28372 layer_factory.hpp:77] Creating layer fc7
I0403 13:34:01.308078 28372 net.cpp:91] Creating Layer fc7
I0403 13:34:01.308094 28372 net.cpp:425] fc7 <- fc6
I0403 13:34:01.308115 28372 net.cpp:399] fc7 -> fc7
I0403 13:34:01.993736 28372 net.cpp:141] Setting up fc7
I0403 13:34:01.993778 28372 net.cpp:148] Top shape: 100 4096 (409600)
I0403 13:34:01.993795 28372 net.cpp:156] Memory required for data: 828249200
I0403 13:34:01.993816 28372 layer_factory.hpp:77] Creating layer relu7
I0403 13:34:01.993840 28372 net.cpp:91] Creating Layer relu7
I0403 13:34:01.993872 28372 net.cpp:425] relu7 <- fc7
I0403 13:34:01.993893 28372 net.cpp:386] relu7 -> fc7 (in-place)
I0403 13:34:01.994302 28372 net.cpp:141] Setting up relu7
I0403 13:34:01.994329 28372 net.cpp:148] Top shape: 100 4096 (409600)
I0403 13:34:01.994375 28372 net.cpp:156] Memory required for data: 829887600
I0403 13:34:01.994391 28372 layer_factory.hpp:77] Creating layer drop7
I0403 13:34:01.994413 28372 net.cpp:91] Creating Layer drop7
I0403 13:34:01.994429 28372 net.cpp:425] drop7 <- fc7
I0403 13:34:01.994448 28372 net.cpp:386] drop7 -> fc7 (in-place)
I0403 13:34:01.994489 28372 net.cpp:141] Setting up drop7
I0403 13:34:01.994514 28372 net.cpp:148] Top shape: 100 4096 (409600)
I0403 13:34:01.994530 28372 net.cpp:156] Memory required for data: 831526000
I0403 13:34:01.994545 28372 layer_factory.hpp:77] Creating layer fc8_plantvillage
I0403 13:34:01.994565 28372 net.cpp:91] Creating Layer fc8_plantvillage
I0403 13:34:01.994580 28372 net.cpp:425] fc8_plantvillage <- fc7
I0403 13:34:01.994601 28372 net.cpp:399] fc8_plantvillage -> fc8_plantvillage
I0403 13:34:02.001250 28372 net.cpp:141] Setting up fc8_plantvillage
I0403 13:34:02.001278 28372 net.cpp:148] Top shape: 100 38 (3800)
I0403 13:34:02.001302 28372 net.cpp:156] Memory required for data: 831541200
I0403 13:34:02.001322 28372 layer_factory.hpp:77] Creating layer fc8_plantvillage_fc8_plantvillage_0_split
I0403 13:34:02.001343 28372 net.cpp:91] Creating Layer fc8_plantvillage_fc8_plantvillage_0_split
I0403 13:34:02.001370 28372 net.cpp:425] fc8_plantvillage_fc8_plantvillage_0_split <- fc8_plantvillage
I0403 13:34:02.001389 28372 net.cpp:399] fc8_plantvillage_fc8_plantvillage_0_split -> fc8_plantvillage_fc8_plantvillage_0_split_0
I0403 13:34:02.001408 28372 net.cpp:399] fc8_plantvillage_fc8_plantvillage_0_split -> fc8_plantvillage_fc8_plantvillage_0_split_1
I0403 13:34:02.001427 28372 net.cpp:399] fc8_plantvillage_fc8_plantvillage_0_split -> fc8_plantvillage_fc8_plantvillage_0_split_2
I0403 13:34:02.001505 28372 net.cpp:141] Setting up fc8_plantvillage_fc8_plantvillage_0_split
I0403 13:34:02.001530 28372 net.cpp:148] Top shape: 100 38 (3800)
I0403 13:34:02.001548 28372 net.cpp:148] Top shape: 100 38 (3800)
I0403 13:34:02.001564 28372 net.cpp:148] Top shape: 100 38 (3800)
I0403 13:34:02.001577 28372 net.cpp:156] Memory required for data: 831586800
I0403 13:34:02.001592 28372 layer_factory.hpp:77] Creating layer prob
I0403 13:34:02.001610 28372 net.cpp:91] Creating Layer prob
I0403 13:34:02.001626 28372 net.cpp:425] prob <- fc8_plantvillage_fc8_plantvillage_0_split_0
I0403 13:34:02.001657 28372 net.cpp:399] prob -> prob
I0403 13:34:02.001879 28372 net.cpp:141] Setting up prob
I0403 13:34:02.001906 28372 net.cpp:148] Top shape: 100 38 (3800)
I0403 13:34:02.001921 28372 net.cpp:156] Memory required for data: 831602000
I0403 13:34:02.001936 28372 layer_factory.hpp:77] Creating layer hdf5out
I0403 13:34:02.001957 28372 net.cpp:91] Creating Layer hdf5out
I0403 13:34:02.001976 28372 net.cpp:425] hdf5out <- prob
I0403 13:34:02.001992 28372 net.cpp:425] hdf5out <- label_data_1_split_0
I0403 13:34:02.020124 28372 net.cpp:141] Setting up hdf5out
…
