…
I0403 13:39:38.805073 28499 net.cpp:313] The NetState phase (1) differed from the phase (0) specified by a rule in layer data
I0403 13:39:38.805403 28499 net.cpp:49] Initializing net from parameters: 
state {
  phase: TEST
}
layer {
  name: "data"
  type: "Data"
  top: "data"
  top: "label"
  include {
    phase: TEST
  }
  transform_param {
    crop_size: 227
    mean_file: "/home/mohanty/data/final_dataset/lmdb/color-40-60/mean.binaryproto"
  }
  data_param {
    source: "/home/mohanty/data/final_dataset/lmdb/color-40-60/test_db"
    batch_size: 100
    backend: LMDB
  }
}
layer {
  name: "conv1"
  type: "Convolution"
  bottom: "data"
  top: "conv1"
  param {
    lr_mult: 1
    decay_mult: 1
  }
  param {
    lr_mult: 2
    decay_mult: 0
  }
  convolution_param {
    num_output: 96
    kernel_size: 11
    stride: 4
    weight_filler {
      type: "gaussian"
      std: 0.01
    }
    bias_filler {
      type: "constant"
      value: 0
    }
  }
}
layer {
  name: "relu1"
  type: "ReLU"
  bottom: "conv1"
  top: "conv1"
}
layer {
  name: "norm1"
  type: "LRN"
  bottom: "conv1"
  top: "norm1"
  lrn_param {
    local_size: 5
    alpha: 0.0001
    beta: 0.75
  }
}
layer {
  name: "pool1"
  type: "Pooling"
  bottom: "norm1"
  top: "pool1"
  pooling_param {
    pool: MAX
    kernel_size: 3
    stride: 2
  }
}
layer {
  name: "conv2"
  type: "Convolution"
  bottom: "pool1"
  top: "conv2"
  param {
    lr_mult: 1
    decay_mult: 1
  }
  param {
    lr_mult: 2
    decay_mult: 0
  }
  convolution_param {
    num_output: 256
    pad: 2
    kernel_size: 5
    group: 2
    weight_filler {
      type: "gaussian"
      std: 0.01
    }
    bias_filler {
      type: "constant"
      value: 0.1
    }
  }
}
layer {
  name: "relu2"
  type: "ReLU"
  bottom: "conv2"
  top: "conv2"
}
layer {
  name: "norm2"
  type: "LRN"
  bottom: "conv2"
  top: "norm2"
  lrn_param {
    local_size: 5
    alpha: 0.0001
    beta: 0.75
  }
}
layer {
  name: "pool2"
  type: "Pooling"
  bottom: "norm2"
  top: "pool2"
  pooling_param {
    pool: MAX
    kernel_size: 3
    stride: 2
  }
}
layer {
  name: "conv3"
  type: "Convolution"
  bottom: "pool2"
  top: "conv3"
  param {
    lr_mult: 1
    decay_mult: 1
  }
  param {
    lr_mult: 2
    decay_mult: 0
  }
  convolution_param {
    num_output: 384
    pad: 1
    kernel_size: 3
    weight_filler {
      type: "gaussian"
      std: 0.01
    }
    bias_filler {
      type: "constant"
      value: 0
    }
  }
}
layer {
  name: "relu3"
  type: "ReLU"
  bottom: "conv3"
  top: "conv3"
}
layer {
  name: "conv4"
  type: "Convolution"
  bottom: "conv3"
  top: "conv4"
  param {
    lr_mult: 1
    decay_mult: 1
  }
  param {
    lr_mult: 2
    decay_mult: 0
  }
  convolution_param {
    num_output: 384
    pad: 1
    kernel_size: 3
    group: 2
    weight_filler {
      type: "gaussian"
      std: 0.01
    }
    bias_filler {
      type: "constant"
      value: 0.1
    }
  }
}
layer {
  name: "relu4"
  type: "ReLU"
  bottom: "conv4"
  top: "conv4"
}
layer {
  name: "conv5"
  type: "Convolution"
  bottom: "conv4"
  top: "conv5"
  param {
    lr_mult: 1
    decay_mult: 1
  }
  param {
    lr_mult: 2
    decay_mult: 0
  }
  convolution_param {
    num_output: 256
    pad: 1
    kernel_size: 3
    group: 2
    weight_filler {
      type: "gaussian"
      std: 0.01
    }
    bias_filler {
      type: "constant"
      value: 0.1
    }
  }
}
layer {
  name: "relu5"
  type: "ReLU"
  bottom: "conv5"
  top: "conv5"
}
layer {
  name: "pool5"
  type: "Pooling"
  bottom: "conv5"
  top: "pool5"
  pooling_param {
    pool: MAX
    kernel_size: 3
    stride: 2
  }
}
layer {
  name: "fc6"
  type: "InnerProduct"
  bottom: "pool5"
  top: "fc6"
  param {
    lr_mult: 1
    decay_mult: 1
  }
  param {
    lr_mult: 2
    decay_mult: 0
  }
  inner_product_param {
    num_output: 4096
    weight_filler {
      type: "gaussian"
      std: 0.005
    }
    bias_filler {
      type: "constant"
      value: 0.1
    }
  }
}
layer {
  name: "relu6"
  type: "ReLU"
  bottom: "fc6"
  top: "fc6"
}
layer {
  name: "drop6"
  type: "Dropout"
  bottom: "fc6"
  top: "fc6"
  dropout_param {
    dropout_ratio: 0.5
  }
}
layer {
  name: "fc7"
  type: "InnerProduct"
  bottom: "fc6"
  top: "fc7"
  param {
    lr_mult: 1
    decay_mult: 1
  }
  param {
    lr_mult: 2
    decay_mult: 0
  }
  inner_product_param {
    num_output: 4096
    weight_filler {
      type: "gaussian"
      std: 0.005
    }
    bias_filler {
      type: "constant"
      value: 0.1
    }
  }
}
layer {
  name: "relu7"
  type: "ReLU"
  bottom: "fc7"
  top: "fc7"
}
layer {
  name: "drop7"
  type: "Dropout"
  bottom: "fc7"
  top: "fc7"
  dropout_param {
    dropout_ratio: 0.5
  }
}
layer {
  name: "fc8_plantvillage"
  type: "InnerProduct"
  bottom: "fc7"
  top: "fc8_plantvillage"
  param {
    lr_mult: 1
    decay_mult: 1
  }
  param {
    lr_mult: 2
    decay_mult: 0
  }
  inner_product_param {
    num_output: 38
    weight_filler {
      type: "gaussian"
      std: 0.01
    }
    bias_filler {
      type: "constant"
      value: 0
    }
  }
}
layer {
  name: "prob"
  type: "Softmax"
  bottom: "fc8_plantvillage"
  top: "prob"
  include {
    phase: TEST
  }
}
layer {
  name: "hdf5out"
  type: "HDF5Output"
  bottom: "prob"
  bottom: "label"
  include {
    phase: TEST
  }
  hdf5_output_param {
    file_name: "hdf5_dumps/iter_2170.h5"
  }
}
layer {
  name: "loss"
  type: "SoftmaxWithLoss"
  bottom: "fc8_plantvillage"
  bottom: "label"
  top: "loss"
}
layer {
  name: "accuracy"
  type: "Accuracy"
  bottom: "fc8_plantvillage"
  bottom: "label"
  top: "accuracy"
  include {
    phase: TEST
  }
}
I0403 13:39:38.806016 28499 layer_factory.hpp:77] Creating layer data
I0403 13:39:38.806686 28499 net.cpp:91] Creating Layer data
I0403 13:39:38.806718 28499 net.cpp:399] data -> data
I0403 13:39:38.806771 28499 net.cpp:399] data -> label
I0403 13:39:38.806812 28499 data_transformer.cpp:25] Loading mean file from: /home/mohanty/data/final_dataset/lmdb/color-40-60/mean.binaryproto
I0403 13:39:38.809407 28502 db_lmdb.cpp:38] Opened lmdb /home/mohanty/data/final_dataset/lmdb/color-40-60/test_db
I0403 13:39:38.821151 28499 data_layer.cpp:41] output data size: 100,3,227,227
I0403 13:39:38.952118 28499 net.cpp:141] Setting up data
I0403 13:39:38.952178 28499 net.cpp:148] Top shape: 100 3 227 227 (15458700)
I0403 13:39:38.952200 28499 net.cpp:148] Top shape: 100 (100)
I0403 13:39:38.952215 28499 net.cpp:156] Memory required for data: 61835200
I0403 13:39:38.952244 28499 layer_factory.hpp:77] Creating layer label_data_1_split
I0403 13:39:38.952275 28499 net.cpp:91] Creating Layer label_data_1_split
I0403 13:39:38.952293 28499 net.cpp:425] label_data_1_split <- label
I0403 13:39:38.952325 28499 net.cpp:399] label_data_1_split -> label_data_1_split_0
I0403 13:39:38.952350 28499 net.cpp:399] label_data_1_split -> label_data_1_split_1
I0403 13:39:38.952370 28499 net.cpp:399] label_data_1_split -> label_data_1_split_2
I0403 13:39:38.952431 28499 net.cpp:141] Setting up label_data_1_split
I0403 13:39:38.952455 28499 net.cpp:148] Top shape: 100 (100)
I0403 13:39:38.952471 28499 net.cpp:148] Top shape: 100 (100)
I0403 13:39:38.952487 28499 net.cpp:148] Top shape: 100 (100)
I0403 13:39:38.952502 28499 net.cpp:156] Memory required for data: 61836400
I0403 13:39:38.952517 28499 layer_factory.hpp:77] Creating layer conv1
I0403 13:39:38.952549 28499 net.cpp:91] Creating Layer conv1
I0403 13:39:38.952569 28499 net.cpp:425] conv1 <- data
I0403 13:39:38.952589 28499 net.cpp:399] conv1 -> conv1
I0403 13:39:39.099036 28499 net.cpp:141] Setting up conv1
I0403 13:39:39.099115 28499 net.cpp:148] Top shape: 100 96 55 55 (29040000)
I0403 13:39:39.099133 28499 net.cpp:156] Memory required for data: 177996400
I0403 13:39:39.099164 28499 layer_factory.hpp:77] Creating layer relu1
I0403 13:39:39.099192 28499 net.cpp:91] Creating Layer relu1
I0403 13:39:39.099211 28499 net.cpp:425] relu1 <- conv1
I0403 13:39:39.099232 28499 net.cpp:386] relu1 -> conv1 (in-place)
I0403 13:39:39.099548 28499 net.cpp:141] Setting up relu1
I0403 13:39:39.099577 28499 net.cpp:148] Top shape: 100 96 55 55 (29040000)
I0403 13:39:39.099596 28499 net.cpp:156] Memory required for data: 294156400
I0403 13:39:39.099645 28499 layer_factory.hpp:77] Creating layer norm1
I0403 13:39:39.099674 28499 net.cpp:91] Creating Layer norm1
I0403 13:39:39.099692 28499 net.cpp:425] norm1 <- conv1
I0403 13:39:39.099711 28499 net.cpp:399] norm1 -> norm1
I0403 13:39:39.100024 28499 net.cpp:141] Setting up norm1
I0403 13:39:39.100052 28499 net.cpp:148] Top shape: 100 96 55 55 (29040000)
I0403 13:39:39.100069 28499 net.cpp:156] Memory required for data: 410316400
I0403 13:39:39.100085 28499 layer_factory.hpp:77] Creating layer pool1
I0403 13:39:39.100109 28499 net.cpp:91] Creating Layer pool1
I0403 13:39:39.100127 28499 net.cpp:425] pool1 <- norm1
I0403 13:39:39.100147 28499 net.cpp:399] pool1 -> pool1
I0403 13:39:39.100214 28499 net.cpp:141] Setting up pool1
I0403 13:39:39.100239 28499 net.cpp:148] Top shape: 100 96 27 27 (6998400)
I0403 13:39:39.100260 28499 net.cpp:156] Memory required for data: 438310000
I0403 13:39:39.100277 28499 layer_factory.hpp:77] Creating layer conv2
I0403 13:39:39.100303 28499 net.cpp:91] Creating Layer conv2
I0403 13:39:39.100322 28499 net.cpp:425] conv2 <- pool1
I0403 13:39:39.100340 28499 net.cpp:399] conv2 -> conv2
I0403 13:39:39.115674 28499 net.cpp:141] Setting up conv2
I0403 13:39:39.115712 28499 net.cpp:148] Top shape: 100 256 27 27 (18662400)
I0403 13:39:39.115731 28499 net.cpp:156] Memory required for data: 512959600
I0403 13:39:39.115756 28499 layer_factory.hpp:77] Creating layer relu2
I0403 13:39:39.115778 28499 net.cpp:91] Creating Layer relu2
I0403 13:39:39.115794 28499 net.cpp:425] relu2 <- conv2
I0403 13:39:39.115814 28499 net.cpp:386] relu2 -> conv2 (in-place)
I0403 13:39:39.116137 28499 net.cpp:141] Setting up relu2
I0403 13:39:39.116164 28499 net.cpp:148] Top shape: 100 256 27 27 (18662400)
I0403 13:39:39.116180 28499 net.cpp:156] Memory required for data: 587609200
I0403 13:39:39.116195 28499 layer_factory.hpp:77] Creating layer norm2
I0403 13:39:39.116217 28499 net.cpp:91] Creating Layer norm2
I0403 13:39:39.116235 28499 net.cpp:425] norm2 <- conv2
I0403 13:39:39.116258 28499 net.cpp:399] norm2 -> norm2
I0403 13:39:39.116441 28499 net.cpp:141] Setting up norm2
I0403 13:39:39.116467 28499 net.cpp:148] Top shape: 100 256 27 27 (18662400)
I0403 13:39:39.116483 28499 net.cpp:156] Memory required for data: 662258800
I0403 13:39:39.116499 28499 layer_factory.hpp:77] Creating layer pool2
I0403 13:39:39.116529 28499 net.cpp:91] Creating Layer pool2
I0403 13:39:39.116544 28499 net.cpp:425] pool2 <- norm2
I0403 13:39:39.116564 28499 net.cpp:399] pool2 -> pool2
I0403 13:39:39.116613 28499 net.cpp:141] Setting up pool2
I0403 13:39:39.116638 28499 net.cpp:148] Top shape: 100 256 13 13 (4326400)
I0403 13:39:39.116654 28499 net.cpp:156] Memory required for data: 679564400
I0403 13:39:39.116669 28499 layer_factory.hpp:77] Creating layer conv3
I0403 13:39:39.116693 28499 net.cpp:91] Creating Layer conv3
I0403 13:39:39.116709 28499 net.cpp:425] conv3 <- pool2
I0403 13:39:39.116729 28499 net.cpp:399] conv3 -> conv3
I0403 13:39:39.164557 28499 net.cpp:141] Setting up conv3
I0403 13:39:39.164634 28499 net.cpp:148] Top shape: 100 384 13 13 (6489600)
I0403 13:39:39.164654 28499 net.cpp:156] Memory required for data: 705522800
I0403 13:39:39.164683 28499 layer_factory.hpp:77] Creating layer relu3
I0403 13:39:39.164707 28499 net.cpp:91] Creating Layer relu3
I0403 13:39:39.164726 28499 net.cpp:425] relu3 <- conv3
I0403 13:39:39.164747 28499 net.cpp:386] relu3 -> conv3 (in-place)
I0403 13:39:39.165027 28499 net.cpp:141] Setting up relu3
I0403 13:39:39.165055 28499 net.cpp:148] Top shape: 100 384 13 13 (6489600)
I0403 13:39:39.165072 28499 net.cpp:156] Memory required for data: 731481200
I0403 13:39:39.165088 28499 layer_factory.hpp:77] Creating layer conv4
I0403 13:39:39.165114 28499 net.cpp:91] Creating Layer conv4
I0403 13:39:39.165132 28499 net.cpp:425] conv4 <- conv3
I0403 13:39:39.165151 28499 net.cpp:399] conv4 -> conv4
I0403 13:39:39.195616 28499 net.cpp:141] Setting up conv4
I0403 13:39:39.195680 28499 net.cpp:148] Top shape: 100 384 13 13 (6489600)
I0403 13:39:39.195730 28499 net.cpp:156] Memory required for data: 757439600
I0403 13:39:39.195754 28499 layer_factory.hpp:77] Creating layer relu4
I0403 13:39:39.195780 28499 net.cpp:91] Creating Layer relu4
I0403 13:39:39.195797 28499 net.cpp:425] relu4 <- conv4
I0403 13:39:39.195817 28499 net.cpp:386] relu4 -> conv4 (in-place)
I0403 13:39:39.196142 28499 net.cpp:141] Setting up relu4
I0403 13:39:39.196171 28499 net.cpp:148] Top shape: 100 384 13 13 (6489600)
I0403 13:39:39.196187 28499 net.cpp:156] Memory required for data: 783398000
I0403 13:39:39.196202 28499 layer_factory.hpp:77] Creating layer conv5
I0403 13:39:39.196228 28499 net.cpp:91] Creating Layer conv5
I0403 13:39:39.196246 28499 net.cpp:425] conv5 <- conv4
I0403 13:39:39.196275 28499 net.cpp:399] conv5 -> conv5
I0403 13:39:39.217453 28499 net.cpp:141] Setting up conv5
I0403 13:39:39.217509 28499 net.cpp:148] Top shape: 100 256 13 13 (4326400)
I0403 13:39:39.217525 28499 net.cpp:156] Memory required for data: 800703600
I0403 13:39:39.217550 28499 layer_factory.hpp:77] Creating layer relu5
I0403 13:39:39.217576 28499 net.cpp:91] Creating Layer relu5
I0403 13:39:39.217593 28499 net.cpp:425] relu5 <- conv5
I0403 13:39:39.217612 28499 net.cpp:386] relu5 -> conv5 (in-place)
I0403 13:39:39.217893 28499 net.cpp:141] Setting up relu5
I0403 13:39:39.217926 28499 net.cpp:148] Top shape: 100 256 13 13 (4326400)
I0403 13:39:39.217942 28499 net.cpp:156] Memory required for data: 818009200
I0403 13:39:39.217958 28499 layer_factory.hpp:77] Creating layer pool5
I0403 13:39:39.217980 28499 net.cpp:91] Creating Layer pool5
I0403 13:39:39.217996 28499 net.cpp:425] pool5 <- conv5
I0403 13:39:39.218019 28499 net.cpp:399] pool5 -> pool5
I0403 13:39:39.218080 28499 net.cpp:141] Setting up pool5
I0403 13:39:39.218106 28499 net.cpp:148] Top shape: 100 256 6 6 (921600)
I0403 13:39:39.218122 28499 net.cpp:156] Memory required for data: 821695600
I0403 13:39:39.218137 28499 layer_factory.hpp:77] Creating layer fc6
I0403 13:39:39.218164 28499 net.cpp:91] Creating Layer fc6
I0403 13:39:39.218183 28499 net.cpp:425] fc6 <- pool5
I0403 13:39:39.218204 28499 net.cpp:399] fc6 -> fc6
I0403 13:39:40.787941 28499 net.cpp:141] Setting up fc6
I0403 13:39:40.788005 28499 net.cpp:148] Top shape: 100 4096 (409600)
I0403 13:39:40.788022 28499 net.cpp:156] Memory required for data: 823334000
I0403 13:39:40.788044 28499 layer_factory.hpp:77] Creating layer relu6
I0403 13:39:40.788069 28499 net.cpp:91] Creating Layer relu6
I0403 13:39:40.788085 28499 net.cpp:425] relu6 <- fc6
I0403 13:39:40.788105 28499 net.cpp:386] relu6 -> fc6 (in-place)
I0403 13:39:40.788359 28499 net.cpp:141] Setting up relu6
I0403 13:39:40.788386 28499 net.cpp:148] Top shape: 100 4096 (409600)
I0403 13:39:40.788403 28499 net.cpp:156] Memory required for data: 824972400
I0403 13:39:40.788419 28499 layer_factory.hpp:77] Creating layer drop6
I0403 13:39:40.788441 28499 net.cpp:91] Creating Layer drop6
I0403 13:39:40.788457 28499 net.cpp:425] drop6 <- fc6
I0403 13:39:40.788475 28499 net.cpp:386] drop6 -> fc6 (in-place)
I0403 13:39:40.788527 28499 net.cpp:141] Setting up drop6
I0403 13:39:40.788563 28499 net.cpp:148] Top shape: 100 4096 (409600)
I0403 13:39:40.788578 28499 net.cpp:156] Memory required for data: 826610800
I0403 13:39:40.788594 28499 layer_factory.hpp:77] Creating layer fc7
I0403 13:39:40.788630 28499 net.cpp:91] Creating Layer fc7
I0403 13:39:40.788646 28499 net.cpp:425] fc7 <- fc6
I0403 13:39:40.788664 28499 net.cpp:399] fc7 -> fc7
I0403 13:39:41.503475 28499 net.cpp:141] Setting up fc7
I0403 13:39:41.503522 28499 net.cpp:148] Top shape: 100 4096 (409600)
I0403 13:39:41.503540 28499 net.cpp:156] Memory required for data: 828249200
I0403 13:39:41.503561 28499 layer_factory.hpp:77] Creating layer relu7
I0403 13:39:41.503584 28499 net.cpp:91] Creating Layer relu7
I0403 13:39:41.503602 28499 net.cpp:425] relu7 <- fc7
I0403 13:39:41.503620 28499 net.cpp:386] relu7 -> fc7 (in-place)
I0403 13:39:41.504029 28499 net.cpp:141] Setting up relu7
I0403 13:39:41.504057 28499 net.cpp:148] Top shape: 100 4096 (409600)
I0403 13:39:41.504106 28499 net.cpp:156] Memory required for data: 829887600
I0403 13:39:41.504122 28499 layer_factory.hpp:77] Creating layer drop7
I0403 13:39:41.504142 28499 net.cpp:91] Creating Layer drop7
I0403 13:39:41.504156 28499 net.cpp:425] drop7 <- fc7
I0403 13:39:41.504173 28499 net.cpp:386] drop7 -> fc7 (in-place)
I0403 13:39:41.504217 28499 net.cpp:141] Setting up drop7
I0403 13:39:41.504240 28499 net.cpp:148] Top shape: 100 4096 (409600)
I0403 13:39:41.504261 28499 net.cpp:156] Memory required for data: 831526000
I0403 13:39:41.504277 28499 layer_factory.hpp:77] Creating layer fc8_plantvillage
I0403 13:39:41.504302 28499 net.cpp:91] Creating Layer fc8_plantvillage
I0403 13:39:41.504328 28499 net.cpp:425] fc8_plantvillage <- fc7
I0403 13:39:41.504346 28499 net.cpp:399] fc8_plantvillage -> fc8_plantvillage
I0403 13:39:41.511122 28499 net.cpp:141] Setting up fc8_plantvillage
I0403 13:39:41.511157 28499 net.cpp:148] Top shape: 100 38 (3800)
I0403 13:39:41.511174 28499 net.cpp:156] Memory required for data: 831541200
I0403 13:39:41.511194 28499 layer_factory.hpp:77] Creating layer fc8_plantvillage_fc8_plantvillage_0_split
I0403 13:39:41.511217 28499 net.cpp:91] Creating Layer fc8_plantvillage_fc8_plantvillage_0_split
I0403 13:39:41.511235 28499 net.cpp:425] fc8_plantvillage_fc8_plantvillage_0_split <- fc8_plantvillage
I0403 13:39:41.511257 28499 net.cpp:399] fc8_plantvillage_fc8_plantvillage_0_split -> fc8_plantvillage_fc8_plantvillage_0_split_0
I0403 13:39:41.511282 28499 net.cpp:399] fc8_plantvillage_fc8_plantvillage_0_split -> fc8_plantvillage_fc8_plantvillage_0_split_1
I0403 13:39:41.511306 28499 net.cpp:399] fc8_plantvillage_fc8_plantvillage_0_split -> fc8_plantvillage_fc8_plantvillage_0_split_2
I0403 13:39:41.511384 28499 net.cpp:141] Setting up fc8_plantvillage_fc8_plantvillage_0_split
I0403 13:39:41.511409 28499 net.cpp:148] Top shape: 100 38 (3800)
I0403 13:39:41.511426 28499 net.cpp:148] Top shape: 100 38 (3800)
I0403 13:39:41.511442 28499 net.cpp:148] Top shape: 100 38 (3800)
I0403 13:39:41.511456 28499 net.cpp:156] Memory required for data: 831586800
I0403 13:39:41.511471 28499 layer_factory.hpp:77] Creating layer prob
I0403 13:39:41.511493 28499 net.cpp:91] Creating Layer prob
I0403 13:39:41.511510 28499 net.cpp:425] prob <- fc8_plantvillage_fc8_plantvillage_0_split_0
I0403 13:39:41.511528 28499 net.cpp:399] prob -> prob
I0403 13:39:41.511765 28499 net.cpp:141] Setting up prob
I0403 13:39:41.511790 28499 net.cpp:148] Top shape: 100 38 (3800)
I0403 13:39:41.511806 28499 net.cpp:156] Memory required for data: 831602000
I0403 13:39:41.511822 28499 layer_factory.hpp:77] Creating layer hdf5out
I0403 13:39:41.511844 28499 net.cpp:91] Creating Layer hdf5out
I0403 13:39:41.511862 28499 net.cpp:425] hdf5out <- prob
I0403 13:39:41.511878 28499 net.cpp:425] hdf5out <- label_data_1_split_0
I0403 13:39:41.515496 28499 net.cpp:141] Setting up hdf5out
…
