…
I0403 13:38:30.575307 28461 net.cpp:313] The NetState phase (1) differed from the phase (0) specified by a rule in layer data
I0403 13:38:30.575611 28461 net.cpp:49] Initializing net from parameters: 
state {
  phase: TEST
}
layer {
  name: "data"
  type: "Data"
  top: "data"
  top: "label"
  include {
    phase: TEST
  }
  transform_param {
    crop_size: 227
    mean_file: "/home/mohanty/data/final_dataset/lmdb/color-40-60/mean.binaryproto"
  }
  data_param {
    source: "/home/mohanty/data/final_dataset/lmdb/color-40-60/test_db"
    batch_size: 100
    backend: LMDB
  }
}
layer {
  name: "conv1"
  type: "Convolution"
  bottom: "data"
  top: "conv1"
  param {
    lr_mult: 1
    decay_mult: 1
  }
  param {
    lr_mult: 2
    decay_mult: 0
  }
  convolution_param {
    num_output: 96
    kernel_size: 11
    stride: 4
    weight_filler {
      type: "gaussian"
      std: 0.01
    }
    bias_filler {
      type: "constant"
      value: 0
    }
  }
}
layer {
  name: "relu1"
  type: "ReLU"
  bottom: "conv1"
  top: "conv1"
}
layer {
  name: "norm1"
  type: "LRN"
  bottom: "conv1"
  top: "norm1"
  lrn_param {
    local_size: 5
    alpha: 0.0001
    beta: 0.75
  }
}
layer {
  name: "pool1"
  type: "Pooling"
  bottom: "norm1"
  top: "pool1"
  pooling_param {
    pool: MAX
    kernel_size: 3
    stride: 2
  }
}
layer {
  name: "conv2"
  type: "Convolution"
  bottom: "pool1"
  top: "conv2"
  param {
    lr_mult: 1
    decay_mult: 1
  }
  param {
    lr_mult: 2
    decay_mult: 0
  }
  convolution_param {
    num_output: 256
    pad: 2
    kernel_size: 5
    group: 2
    weight_filler {
      type: "gaussian"
      std: 0.01
    }
    bias_filler {
      type: "constant"
      value: 0.1
    }
  }
}
layer {
  name: "relu2"
  type: "ReLU"
  bottom: "conv2"
  top: "conv2"
}
layer {
  name: "norm2"
  type: "LRN"
  bottom: "conv2"
  top: "norm2"
  lrn_param {
    local_size: 5
    alpha: 0.0001
    beta: 0.75
  }
}
layer {
  name: "pool2"
  type: "Pooling"
  bottom: "norm2"
  top: "pool2"
  pooling_param {
    pool: MAX
    kernel_size: 3
    stride: 2
  }
}
layer {
  name: "conv3"
  type: "Convolution"
  bottom: "pool2"
  top: "conv3"
  param {
    lr_mult: 1
    decay_mult: 1
  }
  param {
    lr_mult: 2
    decay_mult: 0
  }
  convolution_param {
    num_output: 384
    pad: 1
    kernel_size: 3
    weight_filler {
      type: "gaussian"
      std: 0.01
    }
    bias_filler {
      type: "constant"
      value: 0
    }
  }
}
layer {
  name: "relu3"
  type: "ReLU"
  bottom: "conv3"
  top: "conv3"
}
layer {
  name: "conv4"
  type: "Convolution"
  bottom: "conv3"
  top: "conv4"
  param {
    lr_mult: 1
    decay_mult: 1
  }
  param {
    lr_mult: 2
    decay_mult: 0
  }
  convolution_param {
    num_output: 384
    pad: 1
    kernel_size: 3
    group: 2
    weight_filler {
      type: "gaussian"
      std: 0.01
    }
    bias_filler {
      type: "constant"
      value: 0.1
    }
  }
}
layer {
  name: "relu4"
  type: "ReLU"
  bottom: "conv4"
  top: "conv4"
}
layer {
  name: "conv5"
  type: "Convolution"
  bottom: "conv4"
  top: "conv5"
  param {
    lr_mult: 1
    decay_mult: 1
  }
  param {
    lr_mult: 2
    decay_mult: 0
  }
  convolution_param {
    num_output: 256
    pad: 1
    kernel_size: 3
    group: 2
    weight_filler {
      type: "gaussian"
      std: 0.01
    }
    bias_filler {
      type: "constant"
      value: 0.1
    }
  }
}
layer {
  name: "relu5"
  type: "ReLU"
  bottom: "conv5"
  top: "conv5"
}
layer {
  name: "pool5"
  type: "Pooling"
  bottom: "conv5"
  top: "pool5"
  pooling_param {
    pool: MAX
    kernel_size: 3
    stride: 2
  }
}
layer {
  name: "fc6"
  type: "InnerProduct"
  bottom: "pool5"
  top: "fc6"
  param {
    lr_mult: 1
    decay_mult: 1
  }
  param {
    lr_mult: 2
    decay_mult: 0
  }
  inner_product_param {
    num_output: 4096
    weight_filler {
      type: "gaussian"
      std: 0.005
    }
    bias_filler {
      type: "constant"
      value: 0.1
    }
  }
}
layer {
  name: "relu6"
  type: "ReLU"
  bottom: "fc6"
  top: "fc6"
}
layer {
  name: "drop6"
  type: "Dropout"
  bottom: "fc6"
  top: "fc6"
  dropout_param {
    dropout_ratio: 0.5
  }
}
layer {
  name: "fc7"
  type: "InnerProduct"
  bottom: "fc6"
  top: "fc7"
  param {
    lr_mult: 1
    decay_mult: 1
  }
  param {
    lr_mult: 2
    decay_mult: 0
  }
  inner_product_param {
    num_output: 4096
    weight_filler {
      type: "gaussian"
      std: 0.005
    }
    bias_filler {
      type: "constant"
      value: 0.1
    }
  }
}
layer {
  name: "relu7"
  type: "ReLU"
  bottom: "fc7"
  top: "fc7"
}
layer {
  name: "drop7"
  type: "Dropout"
  bottom: "fc7"
  top: "fc7"
  dropout_param {
    dropout_ratio: 0.5
  }
}
layer {
  name: "fc8_plantvillage"
  type: "InnerProduct"
  bottom: "fc7"
  top: "fc8_plantvillage"
  param {
    lr_mult: 1
    decay_mult: 1
  }
  param {
    lr_mult: 2
    decay_mult: 0
  }
  inner_product_param {
    num_output: 38
    weight_filler {
      type: "gaussian"
      std: 0.01
    }
    bias_filler {
      type: "constant"
      value: 0
    }
  }
}
layer {
  name: "prob"
  type: "Softmax"
  bottom: "fc8_plantvillage"
  top: "prob"
  include {
    phase: TEST
  }
}
layer {
  name: "hdf5out"
  type: "HDF5Output"
  bottom: "prob"
  bottom: "label"
  include {
    phase: TEST
  }
  hdf5_output_param {
    file_name: "hdf5_dumps/iter_1953.h5"
  }
}
layer {
  name: "loss"
  type: "SoftmaxWithLoss"
  bottom: "fc8_plantvillage"
  bottom: "label"
  top: "loss"
}
layer {
  name: "accuracy"
  type: "Accuracy"
  bottom: "fc8_plantvillage"
  bottom: "label"
  top: "accuracy"
  include {
    phase: TEST
  }
}
I0403 13:38:30.577801 28461 layer_factory.hpp:77] Creating layer data
I0403 13:38:30.578480 28461 net.cpp:91] Creating Layer data
I0403 13:38:30.578516 28461 net.cpp:399] data -> data
I0403 13:38:30.578568 28461 net.cpp:399] data -> label
I0403 13:38:30.578606 28461 data_transformer.cpp:25] Loading mean file from: /home/mohanty/data/final_dataset/lmdb/color-40-60/mean.binaryproto
I0403 13:38:30.581986 28465 db_lmdb.cpp:38] Opened lmdb /home/mohanty/data/final_dataset/lmdb/color-40-60/test_db
I0403 13:38:30.592797 28461 data_layer.cpp:41] output data size: 100,3,227,227
I0403 13:38:30.724769 28461 net.cpp:141] Setting up data
I0403 13:38:30.724864 28461 net.cpp:148] Top shape: 100 3 227 227 (15458700)
I0403 13:38:30.724886 28461 net.cpp:148] Top shape: 100 (100)
I0403 13:38:30.724902 28461 net.cpp:156] Memory required for data: 61835200
I0403 13:38:30.724931 28461 layer_factory.hpp:77] Creating layer label_data_1_split
I0403 13:38:30.724957 28461 net.cpp:91] Creating Layer label_data_1_split
I0403 13:38:30.724977 28461 net.cpp:425] label_data_1_split <- label
I0403 13:38:30.725009 28461 net.cpp:399] label_data_1_split -> label_data_1_split_0
I0403 13:38:30.725038 28461 net.cpp:399] label_data_1_split -> label_data_1_split_1
I0403 13:38:30.725060 28461 net.cpp:399] label_data_1_split -> label_data_1_split_2
I0403 13:38:30.725126 28461 net.cpp:141] Setting up label_data_1_split
I0403 13:38:30.725152 28461 net.cpp:148] Top shape: 100 (100)
I0403 13:38:30.725168 28461 net.cpp:148] Top shape: 100 (100)
I0403 13:38:30.725185 28461 net.cpp:148] Top shape: 100 (100)
I0403 13:38:30.725201 28461 net.cpp:156] Memory required for data: 61836400
I0403 13:38:30.725217 28461 layer_factory.hpp:77] Creating layer conv1
I0403 13:38:30.725250 28461 net.cpp:91] Creating Layer conv1
I0403 13:38:30.725275 28461 net.cpp:425] conv1 <- data
I0403 13:38:30.725297 28461 net.cpp:399] conv1 -> conv1
I0403 13:38:30.874019 28461 net.cpp:141] Setting up conv1
I0403 13:38:30.874095 28461 net.cpp:148] Top shape: 100 96 55 55 (29040000)
I0403 13:38:30.874114 28461 net.cpp:156] Memory required for data: 177996400
I0403 13:38:30.874147 28461 layer_factory.hpp:77] Creating layer relu1
I0403 13:38:30.874186 28461 net.cpp:91] Creating Layer relu1
I0403 13:38:30.874204 28461 net.cpp:425] relu1 <- conv1
I0403 13:38:30.874224 28461 net.cpp:386] relu1 -> conv1 (in-place)
I0403 13:38:30.874500 28461 net.cpp:141] Setting up relu1
I0403 13:38:30.874529 28461 net.cpp:148] Top shape: 100 96 55 55 (29040000)
I0403 13:38:30.874547 28461 net.cpp:156] Memory required for data: 294156400
I0403 13:38:30.874596 28461 layer_factory.hpp:77] Creating layer norm1
I0403 13:38:30.874625 28461 net.cpp:91] Creating Layer norm1
I0403 13:38:30.874645 28461 net.cpp:425] norm1 <- conv1
I0403 13:38:30.874665 28461 net.cpp:399] norm1 -> norm1
I0403 13:38:30.874976 28461 net.cpp:141] Setting up norm1
I0403 13:38:30.875005 28461 net.cpp:148] Top shape: 100 96 55 55 (29040000)
I0403 13:38:30.875022 28461 net.cpp:156] Memory required for data: 410316400
I0403 13:38:30.875038 28461 layer_factory.hpp:77] Creating layer pool1
I0403 13:38:30.875061 28461 net.cpp:91] Creating Layer pool1
I0403 13:38:30.875080 28461 net.cpp:425] pool1 <- norm1
I0403 13:38:30.875098 28461 net.cpp:399] pool1 -> pool1
I0403 13:38:30.875169 28461 net.cpp:141] Setting up pool1
I0403 13:38:30.875195 28461 net.cpp:148] Top shape: 100 96 27 27 (6998400)
I0403 13:38:30.875211 28461 net.cpp:156] Memory required for data: 438310000
I0403 13:38:30.875227 28461 layer_factory.hpp:77] Creating layer conv2
I0403 13:38:30.875257 28461 net.cpp:91] Creating Layer conv2
I0403 13:38:30.875277 28461 net.cpp:425] conv2 <- pool1
I0403 13:38:30.875299 28461 net.cpp:399] conv2 -> conv2
I0403 13:38:30.890992 28461 net.cpp:141] Setting up conv2
I0403 13:38:30.891043 28461 net.cpp:148] Top shape: 100 256 27 27 (18662400)
I0403 13:38:30.891062 28461 net.cpp:156] Memory required for data: 512959600
I0403 13:38:30.891086 28461 layer_factory.hpp:77] Creating layer relu2
I0403 13:38:30.891109 28461 net.cpp:91] Creating Layer relu2
I0403 13:38:30.891127 28461 net.cpp:425] relu2 <- conv2
I0403 13:38:30.891147 28461 net.cpp:386] relu2 -> conv2 (in-place)
I0403 13:38:30.891434 28461 net.cpp:141] Setting up relu2
I0403 13:38:30.891464 28461 net.cpp:148] Top shape: 100 256 27 27 (18662400)
I0403 13:38:30.891481 28461 net.cpp:156] Memory required for data: 587609200
I0403 13:38:30.891499 28461 layer_factory.hpp:77] Creating layer norm2
I0403 13:38:30.891521 28461 net.cpp:91] Creating Layer norm2
I0403 13:38:30.891541 28461 net.cpp:425] norm2 <- conv2
I0403 13:38:30.891561 28461 net.cpp:399] norm2 -> norm2
I0403 13:38:30.891758 28461 net.cpp:141] Setting up norm2
I0403 13:38:30.891788 28461 net.cpp:148] Top shape: 100 256 27 27 (18662400)
I0403 13:38:30.891803 28461 net.cpp:156] Memory required for data: 662258800
I0403 13:38:30.891819 28461 layer_factory.hpp:77] Creating layer pool2
I0403 13:38:30.891839 28461 net.cpp:91] Creating Layer pool2
I0403 13:38:30.891855 28461 net.cpp:425] pool2 <- norm2
I0403 13:38:30.891875 28461 net.cpp:399] pool2 -> pool2
I0403 13:38:30.891929 28461 net.cpp:141] Setting up pool2
I0403 13:38:30.891955 28461 net.cpp:148] Top shape: 100 256 13 13 (4326400)
I0403 13:38:30.891971 28461 net.cpp:156] Memory required for data: 679564400
I0403 13:38:30.891988 28461 layer_factory.hpp:77] Creating layer conv3
I0403 13:38:30.892011 28461 net.cpp:91] Creating Layer conv3
I0403 13:38:30.892030 28461 net.cpp:425] conv3 <- pool2
I0403 13:38:30.892050 28461 net.cpp:399] conv3 -> conv3
I0403 13:38:30.939832 28461 net.cpp:141] Setting up conv3
I0403 13:38:30.939908 28461 net.cpp:148] Top shape: 100 384 13 13 (6489600)
I0403 13:38:30.939924 28461 net.cpp:156] Memory required for data: 705522800
I0403 13:38:30.939952 28461 layer_factory.hpp:77] Creating layer relu3
I0403 13:38:30.939976 28461 net.cpp:91] Creating Layer relu3
I0403 13:38:30.939995 28461 net.cpp:425] relu3 <- conv3
I0403 13:38:30.940021 28461 net.cpp:386] relu3 -> conv3 (in-place)
I0403 13:38:30.940313 28461 net.cpp:141] Setting up relu3
I0403 13:38:30.940356 28461 net.cpp:148] Top shape: 100 384 13 13 (6489600)
I0403 13:38:30.940371 28461 net.cpp:156] Memory required for data: 731481200
I0403 13:38:30.940387 28461 layer_factory.hpp:77] Creating layer conv4
I0403 13:38:30.940414 28461 net.cpp:91] Creating Layer conv4
I0403 13:38:30.940433 28461 net.cpp:425] conv4 <- conv3
I0403 13:38:30.940456 28461 net.cpp:399] conv4 -> conv4
I0403 13:38:30.971037 28461 net.cpp:141] Setting up conv4
I0403 13:38:30.971108 28461 net.cpp:148] Top shape: 100 384 13 13 (6489600)
I0403 13:38:30.971158 28461 net.cpp:156] Memory required for data: 757439600
I0403 13:38:30.971182 28461 layer_factory.hpp:77] Creating layer relu4
I0403 13:38:30.971205 28461 net.cpp:91] Creating Layer relu4
I0403 13:38:30.971225 28461 net.cpp:425] relu4 <- conv4
I0403 13:38:30.971248 28461 net.cpp:386] relu4 -> conv4 (in-place)
I0403 13:38:30.971539 28461 net.cpp:141] Setting up relu4
I0403 13:38:30.971570 28461 net.cpp:148] Top shape: 100 384 13 13 (6489600)
I0403 13:38:30.971585 28461 net.cpp:156] Memory required for data: 783398000
I0403 13:38:30.971601 28461 layer_factory.hpp:77] Creating layer conv5
I0403 13:38:30.971628 28461 net.cpp:91] Creating Layer conv5
I0403 13:38:30.971647 28461 net.cpp:425] conv5 <- conv4
I0403 13:38:30.971670 28461 net.cpp:399] conv5 -> conv5
I0403 13:38:30.992312 28461 net.cpp:141] Setting up conv5
I0403 13:38:30.992383 28461 net.cpp:148] Top shape: 100 256 13 13 (4326400)
I0403 13:38:30.992401 28461 net.cpp:156] Memory required for data: 800703600
I0403 13:38:30.992429 28461 layer_factory.hpp:77] Creating layer relu5
I0403 13:38:30.992450 28461 net.cpp:91] Creating Layer relu5
I0403 13:38:30.992470 28461 net.cpp:425] relu5 <- conv5
I0403 13:38:30.992491 28461 net.cpp:386] relu5 -> conv5 (in-place)
I0403 13:38:30.992799 28461 net.cpp:141] Setting up relu5
I0403 13:38:30.992827 28461 net.cpp:148] Top shape: 100 256 13 13 (4326400)
I0403 13:38:30.992843 28461 net.cpp:156] Memory required for data: 818009200
I0403 13:38:30.992859 28461 layer_factory.hpp:77] Creating layer pool5
I0403 13:38:30.992885 28461 net.cpp:91] Creating Layer pool5
I0403 13:38:30.992902 28461 net.cpp:425] pool5 <- conv5
I0403 13:38:30.992923 28461 net.cpp:399] pool5 -> pool5
I0403 13:38:30.992986 28461 net.cpp:141] Setting up pool5
I0403 13:38:30.993011 28461 net.cpp:148] Top shape: 100 256 6 6 (921600)
I0403 13:38:30.993026 28461 net.cpp:156] Memory required for data: 821695600
I0403 13:38:30.993041 28461 layer_factory.hpp:77] Creating layer fc6
I0403 13:38:30.993068 28461 net.cpp:91] Creating Layer fc6
I0403 13:38:30.993088 28461 net.cpp:425] fc6 <- pool5
I0403 13:38:30.993113 28461 net.cpp:399] fc6 -> fc6
I0403 13:38:32.553164 28461 net.cpp:141] Setting up fc6
I0403 13:38:32.553241 28461 net.cpp:148] Top shape: 100 4096 (409600)
I0403 13:38:32.553270 28461 net.cpp:156] Memory required for data: 823334000
I0403 13:38:32.553295 28461 layer_factory.hpp:77] Creating layer relu6
I0403 13:38:32.553318 28461 net.cpp:91] Creating Layer relu6
I0403 13:38:32.553338 28461 net.cpp:425] relu6 <- fc6
I0403 13:38:32.553359 28461 net.cpp:386] relu6 -> fc6 (in-place)
I0403 13:38:32.553586 28461 net.cpp:141] Setting up relu6
I0403 13:38:32.553613 28461 net.cpp:148] Top shape: 100 4096 (409600)
I0403 13:38:32.553628 28461 net.cpp:156] Memory required for data: 824972400
I0403 13:38:32.553644 28461 layer_factory.hpp:77] Creating layer drop6
I0403 13:38:32.553663 28461 net.cpp:91] Creating Layer drop6
I0403 13:38:32.553678 28461 net.cpp:425] drop6 <- fc6
I0403 13:38:32.553699 28461 net.cpp:386] drop6 -> fc6 (in-place)
I0403 13:38:32.553750 28461 net.cpp:141] Setting up drop6
I0403 13:38:32.553779 28461 net.cpp:148] Top shape: 100 4096 (409600)
I0403 13:38:32.553797 28461 net.cpp:156] Memory required for data: 826610800
I0403 13:38:32.553812 28461 layer_factory.hpp:77] Creating layer fc7
I0403 13:38:32.553831 28461 net.cpp:91] Creating Layer fc7
I0403 13:38:32.553848 28461 net.cpp:425] fc7 <- fc6
I0403 13:38:32.553869 28461 net.cpp:399] fc7 -> fc7
I0403 13:38:33.241812 28461 net.cpp:141] Setting up fc7
I0403 13:38:33.241888 28461 net.cpp:148] Top shape: 100 4096 (409600)
I0403 13:38:33.241904 28461 net.cpp:156] Memory required for data: 828249200
I0403 13:38:33.241926 28461 layer_factory.hpp:77] Creating layer relu7
I0403 13:38:33.241950 28461 net.cpp:91] Creating Layer relu7
I0403 13:38:33.241967 28461 net.cpp:425] relu7 <- fc7
I0403 13:38:33.241989 28461 net.cpp:386] relu7 -> fc7 (in-place)
I0403 13:38:33.242409 28461 net.cpp:141] Setting up relu7
I0403 13:38:33.242437 28461 net.cpp:148] Top shape: 100 4096 (409600)
I0403 13:38:33.242487 28461 net.cpp:156] Memory required for data: 829887600
I0403 13:38:33.242503 28461 layer_factory.hpp:77] Creating layer drop7
I0403 13:38:33.242522 28461 net.cpp:91] Creating Layer drop7
I0403 13:38:33.242538 28461 net.cpp:425] drop7 <- fc7
I0403 13:38:33.242559 28461 net.cpp:386] drop7 -> fc7 (in-place)
I0403 13:38:33.242605 28461 net.cpp:141] Setting up drop7
I0403 13:38:33.242645 28461 net.cpp:148] Top shape: 100 4096 (409600)
I0403 13:38:33.242660 28461 net.cpp:156] Memory required for data: 831526000
I0403 13:38:33.242676 28461 layer_factory.hpp:77] Creating layer fc8_plantvillage
I0403 13:38:33.242697 28461 net.cpp:91] Creating Layer fc8_plantvillage
I0403 13:38:33.242712 28461 net.cpp:425] fc8_plantvillage <- fc7
I0403 13:38:33.242733 28461 net.cpp:399] fc8_plantvillage -> fc8_plantvillage
I0403 13:38:33.249459 28461 net.cpp:141] Setting up fc8_plantvillage
I0403 13:38:33.249488 28461 net.cpp:148] Top shape: 100 38 (3800)
I0403 13:38:33.249505 28461 net.cpp:156] Memory required for data: 831541200
I0403 13:38:33.249524 28461 layer_factory.hpp:77] Creating layer fc8_plantvillage_fc8_plantvillage_0_split
I0403 13:38:33.249544 28461 net.cpp:91] Creating Layer fc8_plantvillage_fc8_plantvillage_0_split
I0403 13:38:33.249564 28461 net.cpp:425] fc8_plantvillage_fc8_plantvillage_0_split <- fc8_plantvillage
I0403 13:38:33.249583 28461 net.cpp:399] fc8_plantvillage_fc8_plantvillage_0_split -> fc8_plantvillage_fc8_plantvillage_0_split_0
I0403 13:38:33.249604 28461 net.cpp:399] fc8_plantvillage_fc8_plantvillage_0_split -> fc8_plantvillage_fc8_plantvillage_0_split_1
I0403 13:38:33.249624 28461 net.cpp:399] fc8_plantvillage_fc8_plantvillage_0_split -> fc8_plantvillage_fc8_plantvillage_0_split_2
I0403 13:38:33.249704 28461 net.cpp:141] Setting up fc8_plantvillage_fc8_plantvillage_0_split
I0403 13:38:33.249732 28461 net.cpp:148] Top shape: 100 38 (3800)
I0403 13:38:33.249749 28461 net.cpp:148] Top shape: 100 38 (3800)
I0403 13:38:33.249766 28461 net.cpp:148] Top shape: 100 38 (3800)
I0403 13:38:33.249781 28461 net.cpp:156] Memory required for data: 831586800
I0403 13:38:33.249796 28461 layer_factory.hpp:77] Creating layer prob
I0403 13:38:33.249815 28461 net.cpp:91] Creating Layer prob
I0403 13:38:33.249831 28461 net.cpp:425] prob <- fc8_plantvillage_fc8_plantvillage_0_split_0
I0403 13:38:33.249850 28461 net.cpp:399] prob -> prob
I0403 13:38:33.250080 28461 net.cpp:141] Setting up prob
I0403 13:38:33.250108 28461 net.cpp:148] Top shape: 100 38 (3800)
I0403 13:38:33.250123 28461 net.cpp:156] Memory required for data: 831602000
I0403 13:38:33.250138 28461 layer_factory.hpp:77] Creating layer hdf5out
I0403 13:38:33.250159 28461 net.cpp:91] Creating Layer hdf5out
I0403 13:38:33.250175 28461 net.cpp:425] hdf5out <- prob
I0403 13:38:33.250192 28461 net.cpp:425] hdf5out <- label_data_1_split_0
I0403 13:38:33.254307 28461 net.cpp:141] Setting up hdf5out
…
