…
I0403 13:37:22.899230 28435 net.cpp:313] The NetState phase (1) differed from the phase (0) specified by a rule in layer data
I0403 13:37:22.899570 28435 net.cpp:49] Initializing net from parameters: 
state {
  phase: TEST
}
layer {
  name: "data"
  type: "Data"
  top: "data"
  top: "label"
  include {
    phase: TEST
  }
  transform_param {
    crop_size: 227
    mean_file: "/home/mohanty/data/final_dataset/lmdb/color-40-60/mean.binaryproto"
  }
  data_param {
    source: "/home/mohanty/data/final_dataset/lmdb/color-40-60/test_db"
    batch_size: 100
    backend: LMDB
  }
}
layer {
  name: "conv1"
  type: "Convolution"
  bottom: "data"
  top: "conv1"
  param {
    lr_mult: 1
    decay_mult: 1
  }
  param {
    lr_mult: 2
    decay_mult: 0
  }
  convolution_param {
    num_output: 96
    kernel_size: 11
    stride: 4
    weight_filler {
      type: "gaussian"
      std: 0.01
    }
    bias_filler {
      type: "constant"
      value: 0
    }
  }
}
layer {
  name: "relu1"
  type: "ReLU"
  bottom: "conv1"
  top: "conv1"
}
layer {
  name: "norm1"
  type: "LRN"
  bottom: "conv1"
  top: "norm1"
  lrn_param {
    local_size: 5
    alpha: 0.0001
    beta: 0.75
  }
}
layer {
  name: "pool1"
  type: "Pooling"
  bottom: "norm1"
  top: "pool1"
  pooling_param {
    pool: MAX
    kernel_size: 3
    stride: 2
  }
}
layer {
  name: "conv2"
  type: "Convolution"
  bottom: "pool1"
  top: "conv2"
  param {
    lr_mult: 1
    decay_mult: 1
  }
  param {
    lr_mult: 2
    decay_mult: 0
  }
  convolution_param {
    num_output: 256
    pad: 2
    kernel_size: 5
    group: 2
    weight_filler {
      type: "gaussian"
      std: 0.01
    }
    bias_filler {
      type: "constant"
      value: 0.1
    }
  }
}
layer {
  name: "relu2"
  type: "ReLU"
  bottom: "conv2"
  top: "conv2"
}
layer {
  name: "norm2"
  type: "LRN"
  bottom: "conv2"
  top: "norm2"
  lrn_param {
    local_size: 5
    alpha: 0.0001
    beta: 0.75
  }
}
layer {
  name: "pool2"
  type: "Pooling"
  bottom: "norm2"
  top: "pool2"
  pooling_param {
    pool: MAX
    kernel_size: 3
    stride: 2
  }
}
layer {
  name: "conv3"
  type: "Convolution"
  bottom: "pool2"
  top: "conv3"
  param {
    lr_mult: 1
    decay_mult: 1
  }
  param {
    lr_mult: 2
    decay_mult: 0
  }
  convolution_param {
    num_output: 384
    pad: 1
    kernel_size: 3
    weight_filler {
      type: "gaussian"
      std: 0.01
    }
    bias_filler {
      type: "constant"
      value: 0
    }
  }
}
layer {
  name: "relu3"
  type: "ReLU"
  bottom: "conv3"
  top: "conv3"
}
layer {
  name: "conv4"
  type: "Convolution"
  bottom: "conv3"
  top: "conv4"
  param {
    lr_mult: 1
    decay_mult: 1
  }
  param {
    lr_mult: 2
    decay_mult: 0
  }
  convolution_param {
    num_output: 384
    pad: 1
    kernel_size: 3
    group: 2
    weight_filler {
      type: "gaussian"
      std: 0.01
    }
    bias_filler {
      type: "constant"
      value: 0.1
    }
  }
}
layer {
  name: "relu4"
  type: "ReLU"
  bottom: "conv4"
  top: "conv4"
}
layer {
  name: "conv5"
  type: "Convolution"
  bottom: "conv4"
  top: "conv5"
  param {
    lr_mult: 1
    decay_mult: 1
  }
  param {
    lr_mult: 2
    decay_mult: 0
  }
  convolution_param {
    num_output: 256
    pad: 1
    kernel_size: 3
    group: 2
    weight_filler {
      type: "gaussian"
      std: 0.01
    }
    bias_filler {
      type: "constant"
      value: 0.1
    }
  }
}
layer {
  name: "relu5"
  type: "ReLU"
  bottom: "conv5"
  top: "conv5"
}
layer {
  name: "pool5"
  type: "Pooling"
  bottom: "conv5"
  top: "pool5"
  pooling_param {
    pool: MAX
    kernel_size: 3
    stride: 2
  }
}
layer {
  name: "fc6"
  type: "InnerProduct"
  bottom: "pool5"
  top: "fc6"
  param {
    lr_mult: 1
    decay_mult: 1
  }
  param {
    lr_mult: 2
    decay_mult: 0
  }
  inner_product_param {
    num_output: 4096
    weight_filler {
      type: "gaussian"
      std: 0.005
    }
    bias_filler {
      type: "constant"
      value: 0.1
    }
  }
}
layer {
  name: "relu6"
  type: "ReLU"
  bottom: "fc6"
  top: "fc6"
}
layer {
  name: "drop6"
  type: "Dropout"
  bottom: "fc6"
  top: "fc6"
  dropout_param {
    dropout_ratio: 0.5
  }
}
layer {
  name: "fc7"
  type: "InnerProduct"
  bottom: "fc6"
  top: "fc7"
  param {
    lr_mult: 1
    decay_mult: 1
  }
  param {
    lr_mult: 2
    decay_mult: 0
  }
  inner_product_param {
    num_output: 4096
    weight_filler {
      type: "gaussian"
      std: 0.005
    }
    bias_filler {
      type: "constant"
      value: 0.1
    }
  }
}
layer {
  name: "relu7"
  type: "ReLU"
  bottom: "fc7"
  top: "fc7"
}
layer {
  name: "drop7"
  type: "Dropout"
  bottom: "fc7"
  top: "fc7"
  dropout_param {
    dropout_ratio: 0.5
  }
}
layer {
  name: "fc8_plantvillage"
  type: "InnerProduct"
  bottom: "fc7"
  top: "fc8_plantvillage"
  param {
    lr_mult: 1
    decay_mult: 1
  }
  param {
    lr_mult: 2
    decay_mult: 0
  }
  inner_product_param {
    num_output: 38
    weight_filler {
      type: "gaussian"
      std: 0.01
    }
    bias_filler {
      type: "constant"
      value: 0
    }
  }
}
layer {
  name: "prob"
  type: "Softmax"
  bottom: "fc8_plantvillage"
  top: "prob"
  include {
    phase: TEST
  }
}
layer {
  name: "hdf5out"
  type: "HDF5Output"
  bottom: "prob"
  bottom: "label"
  include {
    phase: TEST
  }
  hdf5_output_param {
    file_name: "hdf5_dumps/iter_1736.h5"
  }
}
layer {
  name: "loss"
  type: "SoftmaxWithLoss"
  bottom: "fc8_plantvillage"
  bottom: "label"
  top: "loss"
}
layer {
  name: "accuracy"
  type: "Accuracy"
  bottom: "fc8_plantvillage"
  bottom: "label"
  top: "accuracy"
  include {
    phase: TEST
  }
}
I0403 13:37:22.900197 28435 layer_factory.hpp:77] Creating layer data
I0403 13:37:22.900857 28435 net.cpp:91] Creating Layer data
I0403 13:37:22.900890 28435 net.cpp:399] data -> data
I0403 13:37:22.900949 28435 net.cpp:399] data -> label
I0403 13:37:22.900990 28435 data_transformer.cpp:25] Loading mean file from: /home/mohanty/data/final_dataset/lmdb/color-40-60/mean.binaryproto
I0403 13:37:22.903962 28441 db_lmdb.cpp:38] Opened lmdb /home/mohanty/data/final_dataset/lmdb/color-40-60/test_db
I0403 13:37:22.916219 28435 data_layer.cpp:41] output data size: 100,3,227,227
I0403 13:37:23.053171 28435 net.cpp:141] Setting up data
I0403 13:37:23.053278 28435 net.cpp:148] Top shape: 100 3 227 227 (15458700)
I0403 13:37:23.053305 28435 net.cpp:148] Top shape: 100 (100)
I0403 13:37:23.053323 28435 net.cpp:156] Memory required for data: 61835200
I0403 13:37:23.053352 28435 layer_factory.hpp:77] Creating layer label_data_1_split
I0403 13:37:23.053380 28435 net.cpp:91] Creating Layer label_data_1_split
I0403 13:37:23.053400 28435 net.cpp:425] label_data_1_split <- label
I0403 13:37:23.053433 28435 net.cpp:399] label_data_1_split -> label_data_1_split_0
I0403 13:37:23.053462 28435 net.cpp:399] label_data_1_split -> label_data_1_split_1
I0403 13:37:23.053485 28435 net.cpp:399] label_data_1_split -> label_data_1_split_2
I0403 13:37:23.053556 28435 net.cpp:141] Setting up label_data_1_split
I0403 13:37:23.053581 28435 net.cpp:148] Top shape: 100 (100)
I0403 13:37:23.053599 28435 net.cpp:148] Top shape: 100 (100)
I0403 13:37:23.053617 28435 net.cpp:148] Top shape: 100 (100)
I0403 13:37:23.053633 28435 net.cpp:156] Memory required for data: 61836400
I0403 13:37:23.053648 28435 layer_factory.hpp:77] Creating layer conv1
I0403 13:37:23.053683 28435 net.cpp:91] Creating Layer conv1
I0403 13:37:23.053702 28435 net.cpp:425] conv1 <- data
I0403 13:37:23.053724 28435 net.cpp:399] conv1 -> conv1
I0403 13:37:23.206063 28435 net.cpp:141] Setting up conv1
I0403 13:37:23.206143 28435 net.cpp:148] Top shape: 100 96 55 55 (29040000)
I0403 13:37:23.206163 28435 net.cpp:156] Memory required for data: 177996400
I0403 13:37:23.206199 28435 layer_factory.hpp:77] Creating layer relu1
I0403 13:37:23.206229 28435 net.cpp:91] Creating Layer relu1
I0403 13:37:23.206297 28435 net.cpp:425] relu1 <- conv1
I0403 13:37:23.206326 28435 net.cpp:386] relu1 -> conv1 (in-place)
I0403 13:37:23.206595 28435 net.cpp:141] Setting up relu1
I0403 13:37:23.206625 28435 net.cpp:148] Top shape: 100 96 55 55 (29040000)
I0403 13:37:23.206642 28435 net.cpp:156] Memory required for data: 294156400
I0403 13:37:23.206692 28435 layer_factory.hpp:77] Creating layer norm1
I0403 13:37:23.206723 28435 net.cpp:91] Creating Layer norm1
I0403 13:37:23.206743 28435 net.cpp:425] norm1 <- conv1
I0403 13:37:23.206763 28435 net.cpp:399] norm1 -> norm1
I0403 13:37:23.207079 28435 net.cpp:141] Setting up norm1
I0403 13:37:23.207110 28435 net.cpp:148] Top shape: 100 96 55 55 (29040000)
I0403 13:37:23.207128 28435 net.cpp:156] Memory required for data: 410316400
I0403 13:37:23.207144 28435 layer_factory.hpp:77] Creating layer pool1
I0403 13:37:23.207170 28435 net.cpp:91] Creating Layer pool1
I0403 13:37:23.207190 28435 net.cpp:425] pool1 <- norm1
I0403 13:37:23.207209 28435 net.cpp:399] pool1 -> pool1
I0403 13:37:23.207285 28435 net.cpp:141] Setting up pool1
I0403 13:37:23.207312 28435 net.cpp:148] Top shape: 100 96 27 27 (6998400)
I0403 13:37:23.207329 28435 net.cpp:156] Memory required for data: 438310000
I0403 13:37:23.207346 28435 layer_factory.hpp:77] Creating layer conv2
I0403 13:37:23.207372 28435 net.cpp:91] Creating Layer conv2
I0403 13:37:23.207391 28435 net.cpp:425] conv2 <- pool1
I0403 13:37:23.207412 28435 net.cpp:399] conv2 -> conv2
I0403 13:37:23.223052 28435 net.cpp:141] Setting up conv2
I0403 13:37:23.223119 28435 net.cpp:148] Top shape: 100 256 27 27 (18662400)
I0403 13:37:23.223162 28435 net.cpp:156] Memory required for data: 512959600
I0403 13:37:23.223187 28435 layer_factory.hpp:77] Creating layer relu2
I0403 13:37:23.223212 28435 net.cpp:91] Creating Layer relu2
I0403 13:37:23.223229 28435 net.cpp:425] relu2 <- conv2
I0403 13:37:23.223248 28435 net.cpp:386] relu2 -> conv2 (in-place)
I0403 13:37:23.223533 28435 net.cpp:141] Setting up relu2
I0403 13:37:23.223562 28435 net.cpp:148] Top shape: 100 256 27 27 (18662400)
I0403 13:37:23.223580 28435 net.cpp:156] Memory required for data: 587609200
I0403 13:37:23.223598 28435 layer_factory.hpp:77] Creating layer norm2
I0403 13:37:23.223620 28435 net.cpp:91] Creating Layer norm2
I0403 13:37:23.223639 28435 net.cpp:425] norm2 <- conv2
I0403 13:37:23.223659 28435 net.cpp:399] norm2 -> norm2
I0403 13:37:23.223857 28435 net.cpp:141] Setting up norm2
I0403 13:37:23.223886 28435 net.cpp:148] Top shape: 100 256 27 27 (18662400)
I0403 13:37:23.223902 28435 net.cpp:156] Memory required for data: 662258800
I0403 13:37:23.223919 28435 layer_factory.hpp:77] Creating layer pool2
I0403 13:37:23.223940 28435 net.cpp:91] Creating Layer pool2
I0403 13:37:23.223958 28435 net.cpp:425] pool2 <- norm2
I0403 13:37:23.223976 28435 net.cpp:399] pool2 -> pool2
I0403 13:37:23.224030 28435 net.cpp:141] Setting up pool2
I0403 13:37:23.224056 28435 net.cpp:148] Top shape: 100 256 13 13 (4326400)
I0403 13:37:23.224072 28435 net.cpp:156] Memory required for data: 679564400
I0403 13:37:23.224088 28435 layer_factory.hpp:77] Creating layer conv3
I0403 13:37:23.224112 28435 net.cpp:91] Creating Layer conv3
I0403 13:37:23.224130 28435 net.cpp:425] conv3 <- pool2
I0403 13:37:23.224151 28435 net.cpp:399] conv3 -> conv3
I0403 13:37:23.270876 28435 net.cpp:141] Setting up conv3
I0403 13:37:23.270949 28435 net.cpp:148] Top shape: 100 384 13 13 (6489600)
I0403 13:37:23.270967 28435 net.cpp:156] Memory required for data: 705522800
I0403 13:37:23.270995 28435 layer_factory.hpp:77] Creating layer relu3
I0403 13:37:23.271023 28435 net.cpp:91] Creating Layer relu3
I0403 13:37:23.271044 28435 net.cpp:425] relu3 <- conv3
I0403 13:37:23.271067 28435 net.cpp:386] relu3 -> conv3 (in-place)
I0403 13:37:23.271363 28435 net.cpp:141] Setting up relu3
I0403 13:37:23.271392 28435 net.cpp:148] Top shape: 100 384 13 13 (6489600)
I0403 13:37:23.271410 28435 net.cpp:156] Memory required for data: 731481200
I0403 13:37:23.271427 28435 layer_factory.hpp:77] Creating layer conv4
I0403 13:37:23.271455 28435 net.cpp:91] Creating Layer conv4
I0403 13:37:23.271473 28435 net.cpp:425] conv4 <- conv3
I0403 13:37:23.271507 28435 net.cpp:399] conv4 -> conv4
I0403 13:37:23.302988 28435 net.cpp:141] Setting up conv4
I0403 13:37:23.303026 28435 net.cpp:148] Top shape: 100 384 13 13 (6489600)
I0403 13:37:23.303074 28435 net.cpp:156] Memory required for data: 757439600
I0403 13:37:23.303099 28435 layer_factory.hpp:77] Creating layer relu4
I0403 13:37:23.303123 28435 net.cpp:91] Creating Layer relu4
I0403 13:37:23.303141 28435 net.cpp:425] relu4 <- conv4
I0403 13:37:23.303164 28435 net.cpp:386] relu4 -> conv4 (in-place)
I0403 13:37:23.303455 28435 net.cpp:141] Setting up relu4
I0403 13:37:23.303483 28435 net.cpp:148] Top shape: 100 384 13 13 (6489600)
I0403 13:37:23.303499 28435 net.cpp:156] Memory required for data: 783398000
I0403 13:37:23.303516 28435 layer_factory.hpp:77] Creating layer conv5
I0403 13:37:23.303541 28435 net.cpp:91] Creating Layer conv5
I0403 13:37:23.303560 28435 net.cpp:425] conv5 <- conv4
I0403 13:37:23.303581 28435 net.cpp:399] conv5 -> conv5
I0403 13:37:23.324530 28435 net.cpp:141] Setting up conv5
I0403 13:37:23.324587 28435 net.cpp:148] Top shape: 100 256 13 13 (4326400)
I0403 13:37:23.324605 28435 net.cpp:156] Memory required for data: 800703600
I0403 13:37:23.324631 28435 layer_factory.hpp:77] Creating layer relu5
I0403 13:37:23.324657 28435 net.cpp:91] Creating Layer relu5
I0403 13:37:23.324676 28435 net.cpp:425] relu5 <- conv5
I0403 13:37:23.324695 28435 net.cpp:386] relu5 -> conv5 (in-place)
I0403 13:37:23.324980 28435 net.cpp:141] Setting up relu5
I0403 13:37:23.325008 28435 net.cpp:148] Top shape: 100 256 13 13 (4326400)
I0403 13:37:23.325026 28435 net.cpp:156] Memory required for data: 818009200
I0403 13:37:23.325042 28435 layer_factory.hpp:77] Creating layer pool5
I0403 13:37:23.325068 28435 net.cpp:91] Creating Layer pool5
I0403 13:37:23.325086 28435 net.cpp:425] pool5 <- conv5
I0403 13:37:23.325106 28435 net.cpp:399] pool5 -> pool5
I0403 13:37:23.325208 28435 net.cpp:141] Setting up pool5
I0403 13:37:23.325235 28435 net.cpp:148] Top shape: 100 256 6 6 (921600)
I0403 13:37:23.325256 28435 net.cpp:156] Memory required for data: 821695600
I0403 13:37:23.325273 28435 layer_factory.hpp:77] Creating layer fc6
I0403 13:37:23.325304 28435 net.cpp:91] Creating Layer fc6
I0403 13:37:23.325325 28435 net.cpp:425] fc6 <- pool5
I0403 13:37:23.325345 28435 net.cpp:399] fc6 -> fc6
I0403 13:37:24.903247 28435 net.cpp:141] Setting up fc6
I0403 13:37:24.903334 28435 net.cpp:148] Top shape: 100 4096 (409600)
I0403 13:37:24.903352 28435 net.cpp:156] Memory required for data: 823334000
I0403 13:37:24.903374 28435 layer_factory.hpp:77] Creating layer relu6
I0403 13:37:24.903398 28435 net.cpp:91] Creating Layer relu6
I0403 13:37:24.903417 28435 net.cpp:425] relu6 <- fc6
I0403 13:37:24.903440 28435 net.cpp:386] relu6 -> fc6 (in-place)
I0403 13:37:24.903673 28435 net.cpp:141] Setting up relu6
I0403 13:37:24.903699 28435 net.cpp:148] Top shape: 100 4096 (409600)
I0403 13:37:24.903714 28435 net.cpp:156] Memory required for data: 824972400
I0403 13:37:24.903729 28435 layer_factory.hpp:77] Creating layer drop6
I0403 13:37:24.903753 28435 net.cpp:91] Creating Layer drop6
I0403 13:37:24.903769 28435 net.cpp:425] drop6 <- fc6
I0403 13:37:24.903787 28435 net.cpp:386] drop6 -> fc6 (in-place)
I0403 13:37:24.903839 28435 net.cpp:141] Setting up drop6
I0403 13:37:24.903866 28435 net.cpp:148] Top shape: 100 4096 (409600)
I0403 13:37:24.903882 28435 net.cpp:156] Memory required for data: 826610800
I0403 13:37:24.903899 28435 layer_factory.hpp:77] Creating layer fc7
I0403 13:37:24.903919 28435 net.cpp:91] Creating Layer fc7
I0403 13:37:24.903936 28435 net.cpp:425] fc7 <- fc6
I0403 13:37:24.903959 28435 net.cpp:399] fc7 -> fc7
I0403 13:37:25.591328 28435 net.cpp:141] Setting up fc7
I0403 13:37:25.591405 28435 net.cpp:148] Top shape: 100 4096 (409600)
I0403 13:37:25.591423 28435 net.cpp:156] Memory required for data: 828249200
I0403 13:37:25.591446 28435 layer_factory.hpp:77] Creating layer relu7
I0403 13:37:25.591470 28435 net.cpp:91] Creating Layer relu7
I0403 13:37:25.591487 28435 net.cpp:425] relu7 <- fc7
I0403 13:37:25.591509 28435 net.cpp:386] relu7 -> fc7 (in-place)
I0403 13:37:25.591918 28435 net.cpp:141] Setting up relu7
I0403 13:37:25.591946 28435 net.cpp:148] Top shape: 100 4096 (409600)
I0403 13:37:25.592013 28435 net.cpp:156] Memory required for data: 829887600
I0403 13:37:25.592031 28435 layer_factory.hpp:77] Creating layer drop7
I0403 13:37:25.592051 28435 net.cpp:91] Creating Layer drop7
I0403 13:37:25.592067 28435 net.cpp:425] drop7 <- fc7
I0403 13:37:25.592088 28435 net.cpp:386] drop7 -> fc7 (in-place)
I0403 13:37:25.592138 28435 net.cpp:141] Setting up drop7
I0403 13:37:25.592162 28435 net.cpp:148] Top shape: 100 4096 (409600)
I0403 13:37:25.592178 28435 net.cpp:156] Memory required for data: 831526000
I0403 13:37:25.592195 28435 layer_factory.hpp:77] Creating layer fc8_plantvillage
I0403 13:37:25.592214 28435 net.cpp:91] Creating Layer fc8_plantvillage
I0403 13:37:25.592233 28435 net.cpp:425] fc8_plantvillage <- fc7
I0403 13:37:25.592262 28435 net.cpp:399] fc8_plantvillage -> fc8_plantvillage
I0403 13:37:25.599175 28435 net.cpp:141] Setting up fc8_plantvillage
I0403 13:37:25.599205 28435 net.cpp:148] Top shape: 100 38 (3800)
I0403 13:37:25.599222 28435 net.cpp:156] Memory required for data: 831541200
I0403 13:37:25.599242 28435 layer_factory.hpp:77] Creating layer fc8_plantvillage_fc8_plantvillage_0_split
I0403 13:37:25.599272 28435 net.cpp:91] Creating Layer fc8_plantvillage_fc8_plantvillage_0_split
I0403 13:37:25.599290 28435 net.cpp:425] fc8_plantvillage_fc8_plantvillage_0_split <- fc8_plantvillage
I0403 13:37:25.599308 28435 net.cpp:399] fc8_plantvillage_fc8_plantvillage_0_split -> fc8_plantvillage_fc8_plantvillage_0_split_0
I0403 13:37:25.599329 28435 net.cpp:399] fc8_plantvillage_fc8_plantvillage_0_split -> fc8_plantvillage_fc8_plantvillage_0_split_1
I0403 13:37:25.599350 28435 net.cpp:399] fc8_plantvillage_fc8_plantvillage_0_split -> fc8_plantvillage_fc8_plantvillage_0_split_2
I0403 13:37:25.599431 28435 net.cpp:141] Setting up fc8_plantvillage_fc8_plantvillage_0_split
I0403 13:37:25.599457 28435 net.cpp:148] Top shape: 100 38 (3800)
I0403 13:37:25.599473 28435 net.cpp:148] Top shape: 100 38 (3800)
I0403 13:37:25.599489 28435 net.cpp:148] Top shape: 100 38 (3800)
I0403 13:37:25.599504 28435 net.cpp:156] Memory required for data: 831586800
I0403 13:37:25.599521 28435 layer_factory.hpp:77] Creating layer prob
I0403 13:37:25.599540 28435 net.cpp:91] Creating Layer prob
I0403 13:37:25.599555 28435 net.cpp:425] prob <- fc8_plantvillage_fc8_plantvillage_0_split_0
I0403 13:37:25.599573 28435 net.cpp:399] prob -> prob
I0403 13:37:25.599803 28435 net.cpp:141] Setting up prob
I0403 13:37:25.599829 28435 net.cpp:148] Top shape: 100 38 (3800)
I0403 13:37:25.599845 28435 net.cpp:156] Memory required for data: 831602000
I0403 13:37:25.599861 28435 layer_factory.hpp:77] Creating layer hdf5out
I0403 13:37:25.599880 28435 net.cpp:91] Creating Layer hdf5out
I0403 13:37:25.599896 28435 net.cpp:425] hdf5out <- prob
I0403 13:37:25.599913 28435 net.cpp:425] hdf5out <- label_data_1_split_0
I0403 13:37:25.603147 28435 net.cpp:141] Setting up hdf5out
…
