…
I0403 13:52:07.921627 28788 net.cpp:313] The NetState phase (1) differed from the phase (0) specified by a rule in layer data
I0403 13:52:07.921927 28788 net.cpp:49] Initializing net from parameters: 
state {
  phase: TEST
}
layer {
  name: "data"
  type: "Data"
  top: "data"
  top: "label"
  include {
    phase: TEST
  }
  transform_param {
    crop_size: 227
    mean_file: "/home/mohanty/data/final_dataset/lmdb/color-40-60/mean.binaryproto"
  }
  data_param {
    source: "/home/mohanty/data/final_dataset/lmdb/color-40-60/test_db"
    batch_size: 100
    backend: LMDB
  }
}
layer {
  name: "conv1"
  type: "Convolution"
  bottom: "data"
  top: "conv1"
  param {
    lr_mult: 1
    decay_mult: 1
  }
  param {
    lr_mult: 2
    decay_mult: 0
  }
  convolution_param {
    num_output: 96
    kernel_size: 11
    stride: 4
    weight_filler {
      type: "gaussian"
      std: 0.01
    }
    bias_filler {
      type: "constant"
      value: 0
    }
  }
}
layer {
  name: "relu1"
  type: "ReLU"
  bottom: "conv1"
  top: "conv1"
}
layer {
  name: "norm1"
  type: "LRN"
  bottom: "conv1"
  top: "norm1"
  lrn_param {
    local_size: 5
    alpha: 0.0001
    beta: 0.75
  }
}
layer {
  name: "pool1"
  type: "Pooling"
  bottom: "norm1"
  top: "pool1"
  pooling_param {
    pool: MAX
    kernel_size: 3
    stride: 2
  }
}
layer {
  name: "conv2"
  type: "Convolution"
  bottom: "pool1"
  top: "conv2"
  param {
    lr_mult: 1
    decay_mult: 1
  }
  param {
    lr_mult: 2
    decay_mult: 0
  }
  convolution_param {
    num_output: 256
    pad: 2
    kernel_size: 5
    group: 2
    weight_filler {
      type: "gaussian"
      std: 0.01
    }
    bias_filler {
      type: "constant"
      value: 0.1
    }
  }
}
layer {
  name: "relu2"
  type: "ReLU"
  bottom: "conv2"
  top: "conv2"
}
layer {
  name: "norm2"
  type: "LRN"
  bottom: "conv2"
  top: "norm2"
  lrn_param {
    local_size: 5
    alpha: 0.0001
    beta: 0.75
  }
}
layer {
  name: "pool2"
  type: "Pooling"
  bottom: "norm2"
  top: "pool2"
  pooling_param {
    pool: MAX
    kernel_size: 3
    stride: 2
  }
}
layer {
  name: "conv3"
  type: "Convolution"
  bottom: "pool2"
  top: "conv3"
  param {
    lr_mult: 1
    decay_mult: 1
  }
  param {
    lr_mult: 2
    decay_mult: 0
  }
  convolution_param {
    num_output: 384
    pad: 1
    kernel_size: 3
    weight_filler {
      type: "gaussian"
      std: 0.01
    }
    bias_filler {
      type: "constant"
      value: 0
    }
  }
}
layer {
  name: "relu3"
  type: "ReLU"
  bottom: "conv3"
  top: "conv3"
}
layer {
  name: "conv4"
  type: "Convolution"
  bottom: "conv3"
  top: "conv4"
  param {
    lr_mult: 1
    decay_mult: 1
  }
  param {
    lr_mult: 2
    decay_mult: 0
  }
  convolution_param {
    num_output: 384
    pad: 1
    kernel_size: 3
    group: 2
    weight_filler {
      type: "gaussian"
      std: 0.01
    }
    bias_filler {
      type: "constant"
      value: 0.1
    }
  }
}
layer {
  name: "relu4"
  type: "ReLU"
  bottom: "conv4"
  top: "conv4"
}
layer {
  name: "conv5"
  type: "Convolution"
  bottom: "conv4"
  top: "conv5"
  param {
    lr_mult: 1
    decay_mult: 1
  }
  param {
    lr_mult: 2
    decay_mult: 0
  }
  convolution_param {
    num_output: 256
    pad: 1
    kernel_size: 3
    group: 2
    weight_filler {
      type: "gaussian"
      std: 0.01
    }
    bias_filler {
      type: "constant"
      value: 0.1
    }
  }
}
layer {
  name: "relu5"
  type: "ReLU"
  bottom: "conv5"
  top: "conv5"
}
layer {
  name: "pool5"
  type: "Pooling"
  bottom: "conv5"
  top: "pool5"
  pooling_param {
    pool: MAX
    kernel_size: 3
    stride: 2
  }
}
layer {
  name: "fc6"
  type: "InnerProduct"
  bottom: "pool5"
  top: "fc6"
  param {
    lr_mult: 1
    decay_mult: 1
  }
  param {
    lr_mult: 2
    decay_mult: 0
  }
  inner_product_param {
    num_output: 4096
    weight_filler {
      type: "gaussian"
      std: 0.005
    }
    bias_filler {
      type: "constant"
      value: 0.1
    }
  }
}
layer {
  name: "relu6"
  type: "ReLU"
  bottom: "fc6"
  top: "fc6"
}
layer {
  name: "drop6"
  type: "Dropout"
  bottom: "fc6"
  top: "fc6"
  dropout_param {
    dropout_ratio: 0.5
  }
}
layer {
  name: "fc7"
  type: "InnerProduct"
  bottom: "fc6"
  top: "fc7"
  param {
    lr_mult: 1
    decay_mult: 1
  }
  param {
    lr_mult: 2
    decay_mult: 0
  }
  inner_product_param {
    num_output: 4096
    weight_filler {
      type: "gaussian"
      std: 0.005
    }
    bias_filler {
      type: "constant"
      value: 0.1
    }
  }
}
layer {
  name: "relu7"
  type: "ReLU"
  bottom: "fc7"
  top: "fc7"
}
layer {
  name: "drop7"
  type: "Dropout"
  bottom: "fc7"
  top: "fc7"
  dropout_param {
    dropout_ratio: 0.5
  }
}
layer {
  name: "fc8_plantvillage"
  type: "InnerProduct"
  bottom: "fc7"
  top: "fc8_plantvillage"
  param {
    lr_mult: 1
    decay_mult: 1
  }
  param {
    lr_mult: 2
    decay_mult: 0
  }
  inner_product_param {
    num_output: 38
    weight_filler {
      type: "gaussian"
      std: 0.01
    }
    bias_filler {
      type: "constant"
      value: 0
    }
  }
}
layer {
  name: "prob"
  type: "Softmax"
  bottom: "fc8_plantvillage"
  top: "prob"
  include {
    phase: TEST
  }
}
layer {
  name: "hdf5out"
  type: "HDF5Output"
  bottom: "prob"
  bottom: "label"
  include {
    phase: TEST
  }
  hdf5_output_param {
    file_name: "hdf5_dumps/iter_4557.h5"
  }
}
layer {
  name: "loss"
  type: "SoftmaxWithLoss"
  bottom: "fc8_plantvillage"
  bottom: "label"
  top: "loss"
}
layer {
  name: "accuracy"
  type: "Accuracy"
  bottom: "fc8_plantvillage"
  bottom: "label"
  top: "accuracy"
  include {
    phase: TEST
  }
}
I0403 13:52:07.922525 28788 layer_factory.hpp:77] Creating layer data
I0403 13:52:07.923173 28788 net.cpp:91] Creating Layer data
I0403 13:52:07.923204 28788 net.cpp:399] data -> data
I0403 13:52:07.923257 28788 net.cpp:399] data -> label
I0403 13:52:07.923298 28788 data_transformer.cpp:25] Loading mean file from: /home/mohanty/data/final_dataset/lmdb/color-40-60/mean.binaryproto
I0403 13:52:07.926515 28793 db_lmdb.cpp:38] Opened lmdb /home/mohanty/data/final_dataset/lmdb/color-40-60/test_db
I0403 13:52:07.937919 28788 data_layer.cpp:41] output data size: 100,3,227,227
I0403 13:52:08.070801 28788 net.cpp:141] Setting up data
I0403 13:52:08.070891 28788 net.cpp:148] Top shape: 100 3 227 227 (15458700)
I0403 13:52:08.070914 28788 net.cpp:148] Top shape: 100 (100)
I0403 13:52:08.070930 28788 net.cpp:156] Memory required for data: 61835200
I0403 13:52:08.070956 28788 layer_factory.hpp:77] Creating layer label_data_1_split
I0403 13:52:08.070981 28788 net.cpp:91] Creating Layer label_data_1_split
I0403 13:52:08.070999 28788 net.cpp:425] label_data_1_split <- label
I0403 13:52:08.071030 28788 net.cpp:399] label_data_1_split -> label_data_1_split_0
I0403 13:52:08.071058 28788 net.cpp:399] label_data_1_split -> label_data_1_split_1
I0403 13:52:08.071080 28788 net.cpp:399] label_data_1_split -> label_data_1_split_2
I0403 13:52:08.071144 28788 net.cpp:141] Setting up label_data_1_split
I0403 13:52:08.071167 28788 net.cpp:148] Top shape: 100 (100)
I0403 13:52:08.071183 28788 net.cpp:148] Top shape: 100 (100)
I0403 13:52:08.071199 28788 net.cpp:148] Top shape: 100 (100)
I0403 13:52:08.071214 28788 net.cpp:156] Memory required for data: 61836400
I0403 13:52:08.071229 28788 layer_factory.hpp:77] Creating layer conv1
I0403 13:52:08.071261 28788 net.cpp:91] Creating Layer conv1
I0403 13:52:08.071280 28788 net.cpp:425] conv1 <- data
I0403 13:52:08.071305 28788 net.cpp:399] conv1 -> conv1
I0403 13:52:08.221246 28788 net.cpp:141] Setting up conv1
I0403 13:52:08.221326 28788 net.cpp:148] Top shape: 100 96 55 55 (29040000)
I0403 13:52:08.221346 28788 net.cpp:156] Memory required for data: 177996400
I0403 13:52:08.221379 28788 layer_factory.hpp:77] Creating layer relu1
I0403 13:52:08.221408 28788 net.cpp:91] Creating Layer relu1
I0403 13:52:08.221428 28788 net.cpp:425] relu1 <- conv1
I0403 13:52:08.221451 28788 net.cpp:386] relu1 -> conv1 (in-place)
I0403 13:52:08.221726 28788 net.cpp:141] Setting up relu1
I0403 13:52:08.221757 28788 net.cpp:148] Top shape: 100 96 55 55 (29040000)
I0403 13:52:08.221774 28788 net.cpp:156] Memory required for data: 294156400
I0403 13:52:08.221876 28788 layer_factory.hpp:77] Creating layer norm1
I0403 13:52:08.221911 28788 net.cpp:91] Creating Layer norm1
I0403 13:52:08.221936 28788 net.cpp:425] norm1 <- conv1
I0403 13:52:08.221956 28788 net.cpp:399] norm1 -> norm1
I0403 13:52:08.222314 28788 net.cpp:141] Setting up norm1
I0403 13:52:08.222344 28788 net.cpp:148] Top shape: 100 96 55 55 (29040000)
I0403 13:52:08.222360 28788 net.cpp:156] Memory required for data: 410316400
I0403 13:52:08.222378 28788 layer_factory.hpp:77] Creating layer pool1
I0403 13:52:08.222401 28788 net.cpp:91] Creating Layer pool1
I0403 13:52:08.222425 28788 net.cpp:425] pool1 <- norm1
I0403 13:52:08.222445 28788 net.cpp:399] pool1 -> pool1
I0403 13:52:08.222529 28788 net.cpp:141] Setting up pool1
I0403 13:52:08.222555 28788 net.cpp:148] Top shape: 100 96 27 27 (6998400)
I0403 13:52:08.222570 28788 net.cpp:156] Memory required for data: 438310000
I0403 13:52:08.222586 28788 layer_factory.hpp:77] Creating layer conv2
I0403 13:52:08.222614 28788 net.cpp:91] Creating Layer conv2
I0403 13:52:08.222631 28788 net.cpp:425] conv2 <- pool1
I0403 13:52:08.222653 28788 net.cpp:399] conv2 -> conv2
I0403 13:52:08.238360 28788 net.cpp:141] Setting up conv2
I0403 13:52:08.238421 28788 net.cpp:148] Top shape: 100 256 27 27 (18662400)
I0403 13:52:08.238441 28788 net.cpp:156] Memory required for data: 512959600
I0403 13:52:08.238467 28788 layer_factory.hpp:77] Creating layer relu2
I0403 13:52:08.238489 28788 net.cpp:91] Creating Layer relu2
I0403 13:52:08.238507 28788 net.cpp:425] relu2 <- conv2
I0403 13:52:08.238529 28788 net.cpp:386] relu2 -> conv2 (in-place)
I0403 13:52:08.238874 28788 net.cpp:141] Setting up relu2
I0403 13:52:08.238903 28788 net.cpp:148] Top shape: 100 256 27 27 (18662400)
I0403 13:52:08.238919 28788 net.cpp:156] Memory required for data: 587609200
I0403 13:52:08.238935 28788 layer_factory.hpp:77] Creating layer norm2
I0403 13:52:08.238958 28788 net.cpp:91] Creating Layer norm2
I0403 13:52:08.238976 28788 net.cpp:425] norm2 <- conv2
I0403 13:52:08.238996 28788 net.cpp:399] norm2 -> norm2
I0403 13:52:08.239210 28788 net.cpp:141] Setting up norm2
I0403 13:52:08.239253 28788 net.cpp:148] Top shape: 100 256 27 27 (18662400)
I0403 13:52:08.239270 28788 net.cpp:156] Memory required for data: 662258800
I0403 13:52:08.239291 28788 layer_factory.hpp:77] Creating layer pool2
I0403 13:52:08.239312 28788 net.cpp:91] Creating Layer pool2
I0403 13:52:08.239331 28788 net.cpp:425] pool2 <- norm2
I0403 13:52:08.239351 28788 net.cpp:399] pool2 -> pool2
I0403 13:52:08.239408 28788 net.cpp:141] Setting up pool2
I0403 13:52:08.239433 28788 net.cpp:148] Top shape: 100 256 13 13 (4326400)
I0403 13:52:08.239447 28788 net.cpp:156] Memory required for data: 679564400
I0403 13:52:08.239464 28788 layer_factory.hpp:77] Creating layer conv3
I0403 13:52:08.239491 28788 net.cpp:91] Creating Layer conv3
I0403 13:52:08.239512 28788 net.cpp:425] conv3 <- pool2
I0403 13:52:08.239542 28788 net.cpp:399] conv3 -> conv3
I0403 13:52:08.279640 28788 net.cpp:141] Setting up conv3
I0403 13:52:08.279716 28788 net.cpp:148] Top shape: 100 384 13 13 (6489600)
I0403 13:52:08.279734 28788 net.cpp:156] Memory required for data: 705522800
I0403 13:52:08.279760 28788 layer_factory.hpp:77] Creating layer relu3
I0403 13:52:08.279788 28788 net.cpp:91] Creating Layer relu3
I0403 13:52:08.279808 28788 net.cpp:425] relu3 <- conv3
I0403 13:52:08.279829 28788 net.cpp:386] relu3 -> conv3 (in-place)
I0403 13:52:08.289361 28788 net.cpp:141] Setting up relu3
I0403 13:52:08.289397 28788 net.cpp:148] Top shape: 100 384 13 13 (6489600)
I0403 13:52:08.289413 28788 net.cpp:156] Memory required for data: 731481200
I0403 13:52:08.289429 28788 layer_factory.hpp:77] Creating layer conv4
I0403 13:52:08.289460 28788 net.cpp:91] Creating Layer conv4
I0403 13:52:08.289479 28788 net.cpp:425] conv4 <- conv3
I0403 13:52:08.289501 28788 net.cpp:399] conv4 -> conv4
I0403 13:52:08.320556 28788 net.cpp:141] Setting up conv4
I0403 13:52:08.320631 28788 net.cpp:148] Top shape: 100 384 13 13 (6489600)
I0403 13:52:08.320682 28788 net.cpp:156] Memory required for data: 757439600
I0403 13:52:08.320704 28788 layer_factory.hpp:77] Creating layer relu4
I0403 13:52:08.320727 28788 net.cpp:91] Creating Layer relu4
I0403 13:52:08.320746 28788 net.cpp:425] relu4 <- conv4
I0403 13:52:08.320770 28788 net.cpp:386] relu4 -> conv4 (in-place)
I0403 13:52:08.321050 28788 net.cpp:141] Setting up relu4
I0403 13:52:08.321084 28788 net.cpp:148] Top shape: 100 384 13 13 (6489600)
I0403 13:52:08.321101 28788 net.cpp:156] Memory required for data: 783398000
I0403 13:52:08.321116 28788 layer_factory.hpp:77] Creating layer conv5
I0403 13:52:08.321172 28788 net.cpp:91] Creating Layer conv5
I0403 13:52:08.321195 28788 net.cpp:425] conv5 <- conv4
I0403 13:52:08.321216 28788 net.cpp:399] conv5 -> conv5
I0403 13:52:08.343138 28788 net.cpp:141] Setting up conv5
I0403 13:52:08.343194 28788 net.cpp:148] Top shape: 100 256 13 13 (4326400)
I0403 13:52:08.343211 28788 net.cpp:156] Memory required for data: 800703600
I0403 13:52:08.343237 28788 layer_factory.hpp:77] Creating layer relu5
I0403 13:52:08.343260 28788 net.cpp:91] Creating Layer relu5
I0403 13:52:08.343276 28788 net.cpp:425] relu5 <- conv5
I0403 13:52:08.343304 28788 net.cpp:386] relu5 -> conv5 (in-place)
I0403 13:52:08.343605 28788 net.cpp:141] Setting up relu5
I0403 13:52:08.343634 28788 net.cpp:148] Top shape: 100 256 13 13 (4326400)
I0403 13:52:08.343652 28788 net.cpp:156] Memory required for data: 818009200
I0403 13:52:08.343667 28788 layer_factory.hpp:77] Creating layer pool5
I0403 13:52:08.343693 28788 net.cpp:91] Creating Layer pool5
I0403 13:52:08.343711 28788 net.cpp:425] pool5 <- conv5
I0403 13:52:08.343731 28788 net.cpp:399] pool5 -> pool5
I0403 13:52:08.343801 28788 net.cpp:141] Setting up pool5
I0403 13:52:08.343838 28788 net.cpp:148] Top shape: 100 256 6 6 (921600)
I0403 13:52:08.343853 28788 net.cpp:156] Memory required for data: 821695600
I0403 13:52:08.343869 28788 layer_factory.hpp:77] Creating layer fc6
I0403 13:52:08.343899 28788 net.cpp:91] Creating Layer fc6
I0403 13:52:08.343919 28788 net.cpp:425] fc6 <- pool5
I0403 13:52:08.343937 28788 net.cpp:399] fc6 -> fc6
I0403 13:52:09.960057 28788 net.cpp:141] Setting up fc6
I0403 13:52:09.960132 28788 net.cpp:148] Top shape: 100 4096 (409600)
I0403 13:52:09.960150 28788 net.cpp:156] Memory required for data: 823334000
I0403 13:52:09.960171 28788 layer_factory.hpp:77] Creating layer relu6
I0403 13:52:09.960194 28788 net.cpp:91] Creating Layer relu6
I0403 13:52:09.960212 28788 net.cpp:425] relu6 <- fc6
I0403 13:52:09.960234 28788 net.cpp:386] relu6 -> fc6 (in-place)
I0403 13:52:09.960458 28788 net.cpp:141] Setting up relu6
I0403 13:52:09.960484 28788 net.cpp:148] Top shape: 100 4096 (409600)
I0403 13:52:09.960500 28788 net.cpp:156] Memory required for data: 824972400
I0403 13:52:09.960513 28788 layer_factory.hpp:77] Creating layer drop6
I0403 13:52:09.960533 28788 net.cpp:91] Creating Layer drop6
I0403 13:52:09.960549 28788 net.cpp:425] drop6 <- fc6
I0403 13:52:09.960569 28788 net.cpp:386] drop6 -> fc6 (in-place)
I0403 13:52:09.960621 28788 net.cpp:141] Setting up drop6
I0403 13:52:09.960647 28788 net.cpp:148] Top shape: 100 4096 (409600)
I0403 13:52:09.960664 28788 net.cpp:156] Memory required for data: 826610800
I0403 13:52:09.960678 28788 layer_factory.hpp:77] Creating layer fc7
I0403 13:52:09.960698 28788 net.cpp:91] Creating Layer fc7
I0403 13:52:09.960716 28788 net.cpp:425] fc7 <- fc6
I0403 13:52:09.960737 28788 net.cpp:399] fc7 -> fc7
I0403 13:52:10.662405 28788 net.cpp:141] Setting up fc7
I0403 13:52:10.662484 28788 net.cpp:148] Top shape: 100 4096 (409600)
I0403 13:52:10.662503 28788 net.cpp:156] Memory required for data: 828249200
I0403 13:52:10.662524 28788 layer_factory.hpp:77] Creating layer relu7
I0403 13:52:10.662546 28788 net.cpp:91] Creating Layer relu7
I0403 13:52:10.662564 28788 net.cpp:425] relu7 <- fc7
I0403 13:52:10.662587 28788 net.cpp:386] relu7 -> fc7 (in-place)
I0403 13:52:10.662997 28788 net.cpp:141] Setting up relu7
I0403 13:52:10.663024 28788 net.cpp:148] Top shape: 100 4096 (409600)
I0403 13:52:10.663079 28788 net.cpp:156] Memory required for data: 829887600
I0403 13:52:10.663095 28788 layer_factory.hpp:77] Creating layer drop7
I0403 13:52:10.663116 28788 net.cpp:91] Creating Layer drop7
I0403 13:52:10.663133 28788 net.cpp:425] drop7 <- fc7
I0403 13:52:10.663154 28788 net.cpp:386] drop7 -> fc7 (in-place)
I0403 13:52:10.663198 28788 net.cpp:141] Setting up drop7
I0403 13:52:10.663224 28788 net.cpp:148] Top shape: 100 4096 (409600)
I0403 13:52:10.663242 28788 net.cpp:156] Memory required for data: 831526000
I0403 13:52:10.663259 28788 layer_factory.hpp:77] Creating layer fc8_plantvillage
I0403 13:52:10.663280 28788 net.cpp:91] Creating Layer fc8_plantvillage
I0403 13:52:10.663311 28788 net.cpp:425] fc8_plantvillage <- fc7
I0403 13:52:10.663333 28788 net.cpp:399] fc8_plantvillage -> fc8_plantvillage
I0403 13:52:10.670367 28788 net.cpp:141] Setting up fc8_plantvillage
I0403 13:52:10.670398 28788 net.cpp:148] Top shape: 100 38 (3800)
I0403 13:52:10.670413 28788 net.cpp:156] Memory required for data: 831541200
I0403 13:52:10.670433 28788 layer_factory.hpp:77] Creating layer fc8_plantvillage_fc8_plantvillage_0_split
I0403 13:52:10.670451 28788 net.cpp:91] Creating Layer fc8_plantvillage_fc8_plantvillage_0_split
I0403 13:52:10.670469 28788 net.cpp:425] fc8_plantvillage_fc8_plantvillage_0_split <- fc8_plantvillage
I0403 13:52:10.670488 28788 net.cpp:399] fc8_plantvillage_fc8_plantvillage_0_split -> fc8_plantvillage_fc8_plantvillage_0_split_0
I0403 13:52:10.670512 28788 net.cpp:399] fc8_plantvillage_fc8_plantvillage_0_split -> fc8_plantvillage_fc8_plantvillage_0_split_1
I0403 13:52:10.670533 28788 net.cpp:399] fc8_plantvillage_fc8_plantvillage_0_split -> fc8_plantvillage_fc8_plantvillage_0_split_2
I0403 13:52:10.670627 28788 net.cpp:141] Setting up fc8_plantvillage_fc8_plantvillage_0_split
I0403 13:52:10.670651 28788 net.cpp:148] Top shape: 100 38 (3800)
I0403 13:52:10.670667 28788 net.cpp:148] Top shape: 100 38 (3800)
I0403 13:52:10.670683 28788 net.cpp:148] Top shape: 100 38 (3800)
I0403 13:52:10.670698 28788 net.cpp:156] Memory required for data: 831586800
I0403 13:52:10.670714 28788 layer_factory.hpp:77] Creating layer prob
I0403 13:52:10.670733 28788 net.cpp:91] Creating Layer prob
I0403 13:52:10.670748 28788 net.cpp:425] prob <- fc8_plantvillage_fc8_plantvillage_0_split_0
I0403 13:52:10.670769 28788 net.cpp:399] prob -> prob
I0403 13:52:10.670999 28788 net.cpp:141] Setting up prob
I0403 13:52:10.671025 28788 net.cpp:148] Top shape: 100 38 (3800)
I0403 13:52:10.671038 28788 net.cpp:156] Memory required for data: 831602000
I0403 13:52:10.671054 28788 layer_factory.hpp:77] Creating layer hdf5out
I0403 13:52:10.671074 28788 net.cpp:91] Creating Layer hdf5out
I0403 13:52:10.671092 28788 net.cpp:425] hdf5out <- prob
I0403 13:52:10.671108 28788 net.cpp:425] hdf5out <- label_data_1_split_0
I0403 13:52:10.674779 28788 net.cpp:141] Setting up hdf5out
…
