…
I0403 13:57:48.868309 28910 net.cpp:313] The NetState phase (1) differed from the phase (0) specified by a rule in layer data
I0403 13:57:48.868597 28910 net.cpp:49] Initializing net from parameters: 
state {
  phase: TEST
}
layer {
  name: "data"
  type: "Data"
  top: "data"
  top: "label"
  include {
    phase: TEST
  }
  transform_param {
    crop_size: 227
    mean_file: "/home/mohanty/data/final_dataset/lmdb/color-40-60/mean.binaryproto"
  }
  data_param {
    source: "/home/mohanty/data/final_dataset/lmdb/color-40-60/test_db"
    batch_size: 100
    backend: LMDB
  }
}
layer {
  name: "conv1"
  type: "Convolution"
  bottom: "data"
  top: "conv1"
  param {
    lr_mult: 1
    decay_mult: 1
  }
  param {
    lr_mult: 2
    decay_mult: 0
  }
  convolution_param {
    num_output: 96
    kernel_size: 11
    stride: 4
    weight_filler {
      type: "gaussian"
      std: 0.01
    }
    bias_filler {
      type: "constant"
      value: 0
    }
  }
}
layer {
  name: "relu1"
  type: "ReLU"
  bottom: "conv1"
  top: "conv1"
}
layer {
  name: "norm1"
  type: "LRN"
  bottom: "conv1"
  top: "norm1"
  lrn_param {
    local_size: 5
    alpha: 0.0001
    beta: 0.75
  }
}
layer {
  name: "pool1"
  type: "Pooling"
  bottom: "norm1"
  top: "pool1"
  pooling_param {
    pool: MAX
    kernel_size: 3
    stride: 2
  }
}
layer {
  name: "conv2"
  type: "Convolution"
  bottom: "pool1"
  top: "conv2"
  param {
    lr_mult: 1
    decay_mult: 1
  }
  param {
    lr_mult: 2
    decay_mult: 0
  }
  convolution_param {
    num_output: 256
    pad: 2
    kernel_size: 5
    group: 2
    weight_filler {
      type: "gaussian"
      std: 0.01
    }
    bias_filler {
      type: "constant"
      value: 0.1
    }
  }
}
layer {
  name: "relu2"
  type: "ReLU"
  bottom: "conv2"
  top: "conv2"
}
layer {
  name: "norm2"
  type: "LRN"
  bottom: "conv2"
  top: "norm2"
  lrn_param {
    local_size: 5
    alpha: 0.0001
    beta: 0.75
  }
}
layer {
  name: "pool2"
  type: "Pooling"
  bottom: "norm2"
  top: "pool2"
  pooling_param {
    pool: MAX
    kernel_size: 3
    stride: 2
  }
}
layer {
  name: "conv3"
  type: "Convolution"
  bottom: "pool2"
  top: "conv3"
  param {
    lr_mult: 1
    decay_mult: 1
  }
  param {
    lr_mult: 2
    decay_mult: 0
  }
  convolution_param {
    num_output: 384
    pad: 1
    kernel_size: 3
    weight_filler {
      type: "gaussian"
      std: 0.01
    }
    bias_filler {
      type: "constant"
      value: 0
    }
  }
}
layer {
  name: "relu3"
  type: "ReLU"
  bottom: "conv3"
  top: "conv3"
}
layer {
  name: "conv4"
  type: "Convolution"
  bottom: "conv3"
  top: "conv4"
  param {
    lr_mult: 1
    decay_mult: 1
  }
  param {
    lr_mult: 2
    decay_mult: 0
  }
  convolution_param {
    num_output: 384
    pad: 1
    kernel_size: 3
    group: 2
    weight_filler {
      type: "gaussian"
      std: 0.01
    }
    bias_filler {
      type: "constant"
      value: 0.1
    }
  }
}
layer {
  name: "relu4"
  type: "ReLU"
  bottom: "conv4"
  top: "conv4"
}
layer {
  name: "conv5"
  type: "Convolution"
  bottom: "conv4"
  top: "conv5"
  param {
    lr_mult: 1
    decay_mult: 1
  }
  param {
    lr_mult: 2
    decay_mult: 0
  }
  convolution_param {
    num_output: 256
    pad: 1
    kernel_size: 3
    group: 2
    weight_filler {
      type: "gaussian"
      std: 0.01
    }
    bias_filler {
      type: "constant"
      value: 0.1
    }
  }
}
layer {
  name: "relu5"
  type: "ReLU"
  bottom: "conv5"
  top: "conv5"
}
layer {
  name: "pool5"
  type: "Pooling"
  bottom: "conv5"
  top: "pool5"
  pooling_param {
    pool: MAX
    kernel_size: 3
    stride: 2
  }
}
layer {
  name: "fc6"
  type: "InnerProduct"
  bottom: "pool5"
  top: "fc6"
  param {
    lr_mult: 1
    decay_mult: 1
  }
  param {
    lr_mult: 2
    decay_mult: 0
  }
  inner_product_param {
    num_output: 4096
    weight_filler {
      type: "gaussian"
      std: 0.005
    }
    bias_filler {
      type: "constant"
      value: 0.1
    }
  }
}
layer {
  name: "relu6"
  type: "ReLU"
  bottom: "fc6"
  top: "fc6"
}
layer {
  name: "drop6"
  type: "Dropout"
  bottom: "fc6"
  top: "fc6"
  dropout_param {
    dropout_ratio: 0.5
  }
}
layer {
  name: "fc7"
  type: "InnerProduct"
  bottom: "fc6"
  top: "fc7"
  param {
    lr_mult: 1
    decay_mult: 1
  }
  param {
    lr_mult: 2
    decay_mult: 0
  }
  inner_product_param {
    num_output: 4096
    weight_filler {
      type: "gaussian"
      std: 0.005
    }
    bias_filler {
      type: "constant"
      value: 0.1
    }
  }
}
layer {
  name: "relu7"
  type: "ReLU"
  bottom: "fc7"
  top: "fc7"
}
layer {
  name: "drop7"
  type: "Dropout"
  bottom: "fc7"
  top: "fc7"
  dropout_param {
    dropout_ratio: 0.5
  }
}
layer {
  name: "fc8_plantvillage"
  type: "InnerProduct"
  bottom: "fc7"
  top: "fc8_plantvillage"
  param {
    lr_mult: 1
    decay_mult: 1
  }
  param {
    lr_mult: 2
    decay_mult: 0
  }
  inner_product_param {
    num_output: 38
    weight_filler {
      type: "gaussian"
      std: 0.01
    }
    bias_filler {
      type: "constant"
      value: 0
    }
  }
}
layer {
  name: "prob"
  type: "Softmax"
  bottom: "fc8_plantvillage"
  top: "prob"
  include {
    phase: TEST
  }
}
layer {
  name: "hdf5out"
  type: "HDF5Output"
  bottom: "prob"
  bottom: "label"
  include {
    phase: TEST
  }
  hdf5_output_param {
    file_name: "hdf5_dumps/iter_5642.h5"
  }
}
layer {
  name: "loss"
  type: "SoftmaxWithLoss"
  bottom: "fc8_plantvillage"
  bottom: "label"
  top: "loss"
}
layer {
  name: "accuracy"
  type: "Accuracy"
  bottom: "fc8_plantvillage"
  bottom: "label"
  top: "accuracy"
  include {
    phase: TEST
  }
}
I0403 13:57:48.869174 28910 layer_factory.hpp:77] Creating layer data
I0403 13:57:48.869842 28910 net.cpp:91] Creating Layer data
I0403 13:57:48.869873 28910 net.cpp:399] data -> data
I0403 13:57:48.869920 28910 net.cpp:399] data -> label
I0403 13:57:48.869959 28910 data_transformer.cpp:25] Loading mean file from: /home/mohanty/data/final_dataset/lmdb/color-40-60/mean.binaryproto
I0403 13:57:48.872856 28915 db_lmdb.cpp:38] Opened lmdb /home/mohanty/data/final_dataset/lmdb/color-40-60/test_db
I0403 13:57:48.884184 28910 data_layer.cpp:41] output data size: 100,3,227,227
I0403 13:57:49.019831 28910 net.cpp:141] Setting up data
I0403 13:57:49.019938 28910 net.cpp:148] Top shape: 100 3 227 227 (15458700)
I0403 13:57:49.019963 28910 net.cpp:148] Top shape: 100 (100)
I0403 13:57:49.019979 28910 net.cpp:156] Memory required for data: 61835200
I0403 13:57:49.020009 28910 layer_factory.hpp:77] Creating layer label_data_1_split
I0403 13:57:49.020035 28910 net.cpp:91] Creating Layer label_data_1_split
I0403 13:57:49.020054 28910 net.cpp:425] label_data_1_split <- label
I0403 13:57:49.020087 28910 net.cpp:399] label_data_1_split -> label_data_1_split_0
I0403 13:57:49.020114 28910 net.cpp:399] label_data_1_split -> label_data_1_split_1
I0403 13:57:49.020136 28910 net.cpp:399] label_data_1_split -> label_data_1_split_2
I0403 13:57:49.020223 28910 net.cpp:141] Setting up label_data_1_split
I0403 13:57:49.020248 28910 net.cpp:148] Top shape: 100 (100)
I0403 13:57:49.020267 28910 net.cpp:148] Top shape: 100 (100)
I0403 13:57:49.020288 28910 net.cpp:148] Top shape: 100 (100)
I0403 13:57:49.020304 28910 net.cpp:156] Memory required for data: 61836400
I0403 13:57:49.020320 28910 layer_factory.hpp:77] Creating layer conv1
I0403 13:57:49.020354 28910 net.cpp:91] Creating Layer conv1
I0403 13:57:49.020375 28910 net.cpp:425] conv1 <- data
I0403 13:57:49.020395 28910 net.cpp:399] conv1 -> conv1
I0403 13:57:49.171413 28910 net.cpp:141] Setting up conv1
I0403 13:57:49.171501 28910 net.cpp:148] Top shape: 100 96 55 55 (29040000)
I0403 13:57:49.171520 28910 net.cpp:156] Memory required for data: 177996400
I0403 13:57:49.171555 28910 layer_factory.hpp:77] Creating layer relu1
I0403 13:57:49.171583 28910 net.cpp:91] Creating Layer relu1
I0403 13:57:49.171603 28910 net.cpp:425] relu1 <- conv1
I0403 13:57:49.171624 28910 net.cpp:386] relu1 -> conv1 (in-place)
I0403 13:57:49.171890 28910 net.cpp:141] Setting up relu1
I0403 13:57:49.171921 28910 net.cpp:148] Top shape: 100 96 55 55 (29040000)
I0403 13:57:49.171941 28910 net.cpp:156] Memory required for data: 294156400
I0403 13:57:49.171993 28910 layer_factory.hpp:77] Creating layer norm1
I0403 13:57:49.172024 28910 net.cpp:91] Creating Layer norm1
I0403 13:57:49.172044 28910 net.cpp:425] norm1 <- conv1
I0403 13:57:49.172063 28910 net.cpp:399] norm1 -> norm1
I0403 13:57:49.172385 28910 net.cpp:141] Setting up norm1
I0403 13:57:49.172416 28910 net.cpp:148] Top shape: 100 96 55 55 (29040000)
I0403 13:57:49.172433 28910 net.cpp:156] Memory required for data: 410316400
I0403 13:57:49.172449 28910 layer_factory.hpp:77] Creating layer pool1
I0403 13:57:49.172473 28910 net.cpp:91] Creating Layer pool1
I0403 13:57:49.172492 28910 net.cpp:425] pool1 <- norm1
I0403 13:57:49.172510 28910 net.cpp:399] pool1 -> pool1
I0403 13:57:49.172580 28910 net.cpp:141] Setting up pool1
I0403 13:57:49.172608 28910 net.cpp:148] Top shape: 100 96 27 27 (6998400)
I0403 13:57:49.172624 28910 net.cpp:156] Memory required for data: 438310000
I0403 13:57:49.172639 28910 layer_factory.hpp:77] Creating layer conv2
I0403 13:57:49.172665 28910 net.cpp:91] Creating Layer conv2
I0403 13:57:49.172683 28910 net.cpp:425] conv2 <- pool1
I0403 13:57:49.172703 28910 net.cpp:399] conv2 -> conv2
I0403 13:57:49.188190 28910 net.cpp:141] Setting up conv2
I0403 13:57:49.188246 28910 net.cpp:148] Top shape: 100 256 27 27 (18662400)
I0403 13:57:49.188267 28910 net.cpp:156] Memory required for data: 512959600
I0403 13:57:49.188297 28910 layer_factory.hpp:77] Creating layer relu2
I0403 13:57:49.188320 28910 net.cpp:91] Creating Layer relu2
I0403 13:57:49.188338 28910 net.cpp:425] relu2 <- conv2
I0403 13:57:49.188359 28910 net.cpp:386] relu2 -> conv2 (in-place)
I0403 13:57:49.188654 28910 net.cpp:141] Setting up relu2
I0403 13:57:49.188683 28910 net.cpp:148] Top shape: 100 256 27 27 (18662400)
I0403 13:57:49.188700 28910 net.cpp:156] Memory required for data: 587609200
I0403 13:57:49.188716 28910 layer_factory.hpp:77] Creating layer norm2
I0403 13:57:49.188741 28910 net.cpp:91] Creating Layer norm2
I0403 13:57:49.188760 28910 net.cpp:425] norm2 <- conv2
I0403 13:57:49.188779 28910 net.cpp:399] norm2 -> norm2
I0403 13:57:49.188987 28910 net.cpp:141] Setting up norm2
I0403 13:57:49.189018 28910 net.cpp:148] Top shape: 100 256 27 27 (18662400)
I0403 13:57:49.189035 28910 net.cpp:156] Memory required for data: 662258800
I0403 13:57:49.189052 28910 layer_factory.hpp:77] Creating layer pool2
I0403 13:57:49.189072 28910 net.cpp:91] Creating Layer pool2
I0403 13:57:49.189088 28910 net.cpp:425] pool2 <- norm2
I0403 13:57:49.189110 28910 net.cpp:399] pool2 -> pool2
I0403 13:57:49.189167 28910 net.cpp:141] Setting up pool2
I0403 13:57:49.189193 28910 net.cpp:148] Top shape: 100 256 13 13 (4326400)
I0403 13:57:49.189215 28910 net.cpp:156] Memory required for data: 679564400
I0403 13:57:49.189231 28910 layer_factory.hpp:77] Creating layer conv3
I0403 13:57:49.189261 28910 net.cpp:91] Creating Layer conv3
I0403 13:57:49.189280 28910 net.cpp:425] conv3 <- pool2
I0403 13:57:49.189306 28910 net.cpp:399] conv3 -> conv3
I0403 13:57:49.228180 28910 net.cpp:141] Setting up conv3
I0403 13:57:49.228258 28910 net.cpp:148] Top shape: 100 384 13 13 (6489600)
I0403 13:57:49.228277 28910 net.cpp:156] Memory required for data: 705522800
I0403 13:57:49.228309 28910 layer_factory.hpp:77] Creating layer relu3
I0403 13:57:49.228333 28910 net.cpp:91] Creating Layer relu3
I0403 13:57:49.228353 28910 net.cpp:425] relu3 <- conv3
I0403 13:57:49.228374 28910 net.cpp:386] relu3 -> conv3 (in-place)
I0403 13:57:49.228689 28910 net.cpp:141] Setting up relu3
I0403 13:57:49.228718 28910 net.cpp:148] Top shape: 100 384 13 13 (6489600)
I0403 13:57:49.228734 28910 net.cpp:156] Memory required for data: 731481200
I0403 13:57:49.228749 28910 layer_factory.hpp:77] Creating layer conv4
I0403 13:57:49.228775 28910 net.cpp:91] Creating Layer conv4
I0403 13:57:49.228792 28910 net.cpp:425] conv4 <- conv3
I0403 13:57:49.228816 28910 net.cpp:399] conv4 -> conv4
I0403 13:57:49.258602 28910 net.cpp:141] Setting up conv4
I0403 13:57:49.258671 28910 net.cpp:148] Top shape: 100 384 13 13 (6489600)
I0403 13:57:49.258718 28910 net.cpp:156] Memory required for data: 757439600
I0403 13:57:49.258743 28910 layer_factory.hpp:77] Creating layer relu4
I0403 13:57:49.258765 28910 net.cpp:91] Creating Layer relu4
I0403 13:57:49.258782 28910 net.cpp:425] relu4 <- conv4
I0403 13:57:49.258801 28910 net.cpp:386] relu4 -> conv4 (in-place)
I0403 13:57:49.259089 28910 net.cpp:141] Setting up relu4
I0403 13:57:49.259120 28910 net.cpp:148] Top shape: 100 384 13 13 (6489600)
I0403 13:57:49.259137 28910 net.cpp:156] Memory required for data: 783398000
I0403 13:57:49.259152 28910 layer_factory.hpp:77] Creating layer conv5
I0403 13:57:49.259178 28910 net.cpp:91] Creating Layer conv5
I0403 13:57:49.259196 28910 net.cpp:425] conv5 <- conv4
I0403 13:57:49.259215 28910 net.cpp:399] conv5 -> conv5
I0403 13:57:49.279695 28910 net.cpp:141] Setting up conv5
I0403 13:57:49.279754 28910 net.cpp:148] Top shape: 100 256 13 13 (4326400)
I0403 13:57:49.279774 28910 net.cpp:156] Memory required for data: 800703600
I0403 13:57:49.279800 28910 layer_factory.hpp:77] Creating layer relu5
I0403 13:57:49.279822 28910 net.cpp:91] Creating Layer relu5
I0403 13:57:49.279840 28910 net.cpp:425] relu5 <- conv5
I0403 13:57:49.279861 28910 net.cpp:386] relu5 -> conv5 (in-place)
I0403 13:57:49.280141 28910 net.cpp:141] Setting up relu5
I0403 13:57:49.280175 28910 net.cpp:148] Top shape: 100 256 13 13 (4326400)
I0403 13:57:49.280192 28910 net.cpp:156] Memory required for data: 818009200
I0403 13:57:49.280208 28910 layer_factory.hpp:77] Creating layer pool5
I0403 13:57:49.280233 28910 net.cpp:91] Creating Layer pool5
I0403 13:57:49.280251 28910 net.cpp:425] pool5 <- conv5
I0403 13:57:49.280270 28910 net.cpp:399] pool5 -> pool5
I0403 13:57:49.280341 28910 net.cpp:141] Setting up pool5
I0403 13:57:49.280369 28910 net.cpp:148] Top shape: 100 256 6 6 (921600)
I0403 13:57:49.280386 28910 net.cpp:156] Memory required for data: 821695600
I0403 13:57:49.280402 28910 layer_factory.hpp:77] Creating layer fc6
I0403 13:57:49.280431 28910 net.cpp:91] Creating Layer fc6
I0403 13:57:49.280449 28910 net.cpp:425] fc6 <- pool5
I0403 13:57:49.280472 28910 net.cpp:399] fc6 -> fc6
I0403 13:57:50.793182 28910 net.cpp:141] Setting up fc6
I0403 13:57:50.793265 28910 net.cpp:148] Top shape: 100 4096 (409600)
I0403 13:57:50.793292 28910 net.cpp:156] Memory required for data: 823334000
I0403 13:57:50.793319 28910 layer_factory.hpp:77] Creating layer relu6
I0403 13:57:50.793342 28910 net.cpp:91] Creating Layer relu6
I0403 13:57:50.793359 28910 net.cpp:425] relu6 <- fc6
I0403 13:57:50.793378 28910 net.cpp:386] relu6 -> fc6 (in-place)
I0403 13:57:50.793622 28910 net.cpp:141] Setting up relu6
I0403 13:57:50.793650 28910 net.cpp:148] Top shape: 100 4096 (409600)
I0403 13:57:50.793666 28910 net.cpp:156] Memory required for data: 824972400
I0403 13:57:50.793683 28910 layer_factory.hpp:77] Creating layer drop6
I0403 13:57:50.793701 28910 net.cpp:91] Creating Layer drop6
I0403 13:57:50.793728 28910 net.cpp:425] drop6 <- fc6
I0403 13:57:50.793747 28910 net.cpp:386] drop6 -> fc6 (in-place)
I0403 13:57:50.793799 28910 net.cpp:141] Setting up drop6
I0403 13:57:50.793823 28910 net.cpp:148] Top shape: 100 4096 (409600)
I0403 13:57:50.793836 28910 net.cpp:156] Memory required for data: 826610800
I0403 13:57:50.793851 28910 layer_factory.hpp:77] Creating layer fc7
I0403 13:57:50.793874 28910 net.cpp:91] Creating Layer fc7
I0403 13:57:50.793889 28910 net.cpp:425] fc7 <- fc6
I0403 13:57:50.793910 28910 net.cpp:399] fc7 -> fc7
I0403 13:57:51.526523 28910 net.cpp:141] Setting up fc7
I0403 13:57:51.526593 28910 net.cpp:148] Top shape: 100 4096 (409600)
I0403 13:57:51.526612 28910 net.cpp:156] Memory required for data: 828249200
I0403 13:57:51.526638 28910 layer_factory.hpp:77] Creating layer relu7
I0403 13:57:51.526662 28910 net.cpp:91] Creating Layer relu7
I0403 13:57:51.526682 28910 net.cpp:425] relu7 <- fc7
I0403 13:57:51.526705 28910 net.cpp:386] relu7 -> fc7 (in-place)
I0403 13:57:51.527135 28910 net.cpp:141] Setting up relu7
I0403 13:57:51.527168 28910 net.cpp:148] Top shape: 100 4096 (409600)
I0403 13:57:51.527217 28910 net.cpp:156] Memory required for data: 829887600
I0403 13:57:51.527236 28910 layer_factory.hpp:77] Creating layer drop7
I0403 13:57:51.527258 28910 net.cpp:91] Creating Layer drop7
I0403 13:57:51.527276 28910 net.cpp:425] drop7 <- fc7
I0403 13:57:51.527305 28910 net.cpp:386] drop7 -> fc7 (in-place)
I0403 13:57:51.527353 28910 net.cpp:141] Setting up drop7
I0403 13:57:51.527379 28910 net.cpp:148] Top shape: 100 4096 (409600)
I0403 13:57:51.527397 28910 net.cpp:156] Memory required for data: 831526000
I0403 13:57:51.527415 28910 layer_factory.hpp:77] Creating layer fc8_plantvillage
I0403 13:57:51.527441 28910 net.cpp:91] Creating Layer fc8_plantvillage
I0403 13:57:51.527458 28910 net.cpp:425] fc8_plantvillage <- fc7
I0403 13:57:51.527484 28910 net.cpp:399] fc8_plantvillage -> fc8_plantvillage
I0403 13:57:51.535013 28910 net.cpp:141] Setting up fc8_plantvillage
I0403 13:57:51.535063 28910 net.cpp:148] Top shape: 100 38 (3800)
I0403 13:57:51.535082 28910 net.cpp:156] Memory required for data: 831541200
I0403 13:57:51.535105 28910 layer_factory.hpp:77] Creating layer fc8_plantvillage_fc8_plantvillage_0_split
I0403 13:57:51.535128 28910 net.cpp:91] Creating Layer fc8_plantvillage_fc8_plantvillage_0_split
I0403 13:57:51.535148 28910 net.cpp:425] fc8_plantvillage_fc8_plantvillage_0_split <- fc8_plantvillage
I0403 13:57:51.535172 28910 net.cpp:399] fc8_plantvillage_fc8_plantvillage_0_split -> fc8_plantvillage_fc8_plantvillage_0_split_0
I0403 13:57:51.535198 28910 net.cpp:399] fc8_plantvillage_fc8_plantvillage_0_split -> fc8_plantvillage_fc8_plantvillage_0_split_1
I0403 13:57:51.535221 28910 net.cpp:399] fc8_plantvillage_fc8_plantvillage_0_split -> fc8_plantvillage_fc8_plantvillage_0_split_2
I0403 13:57:51.535312 28910 net.cpp:141] Setting up fc8_plantvillage_fc8_plantvillage_0_split
I0403 13:57:51.535343 28910 net.cpp:148] Top shape: 100 38 (3800)
I0403 13:57:51.535364 28910 net.cpp:148] Top shape: 100 38 (3800)
I0403 13:57:51.535383 28910 net.cpp:148] Top shape: 100 38 (3800)
I0403 13:57:51.535400 28910 net.cpp:156] Memory required for data: 831586800
I0403 13:57:51.535418 28910 layer_factory.hpp:77] Creating layer prob
I0403 13:57:51.535439 28910 net.cpp:91] Creating Layer prob
I0403 13:57:51.535459 28910 net.cpp:425] prob <- fc8_plantvillage_fc8_plantvillage_0_split_0
I0403 13:57:51.535478 28910 net.cpp:399] prob -> prob
I0403 13:57:51.535748 28910 net.cpp:141] Setting up prob
I0403 13:57:51.535778 28910 net.cpp:148] Top shape: 100 38 (3800)
I0403 13:57:51.535796 28910 net.cpp:156] Memory required for data: 831602000
I0403 13:57:51.535814 28910 layer_factory.hpp:77] Creating layer hdf5out
I0403 13:57:51.535835 28910 net.cpp:91] Creating Layer hdf5out
I0403 13:57:51.535853 28910 net.cpp:425] hdf5out <- prob
I0403 13:57:51.535872 28910 net.cpp:425] hdf5out <- label_data_1_split_0
I0403 13:57:51.539559 28910 net.cpp:141] Setting up hdf5out
…
