…
I0403 15:31:37.314240 15253 net.cpp:313] The NetState phase (1) differed from the phase (0) specified by a rule in layer data
I0403 15:31:37.315384 15253 net.cpp:49] Initializing net from parameters: 
state {
  phase: TEST
}
layer {
  name: "data"
  type: "Data"
  top: "data"
  top: "label"
  include {
    phase: TEST
  }
  transform_param {
    mirror: false
    crop_size: 224
    mean_file: "/home/mohanty/data/final_dataset/lmdb/color-50-50/mean.binaryproto"
  }
  data_param {
    source: "/home/mohanty/data/final_dataset/lmdb/color-50-50/test_db"
    batch_size: 24
    backend: LMDB
  }
}
layer {
  name: "conv1/7x7_s2"
  type: "Convolution"
  bottom: "data"
  top: "conv1/7x7_s2"
  param {
    lr_mult: 1
    decay_mult: 1
  }
  param {
    lr_mult: 2
    decay_mult: 0
  }
  convolution_param {
    num_output: 64
    pad: 3
    kernel_size: 7
    stride: 2
    weight_filler {
      type: "xavier"
      std: 0.1
    }
    bias_filler {
      type: "constant"
      value: 0.2
    }
  }
}
layer {
  name: "conv1/relu_7x7"
  type: "ReLU"
  bottom: "conv1/7x7_s2"
  top: "conv1/7x7_s2"
}
layer {
  name: "pool1/3x3_s2"
  type: "Pooling"
  bottom: "conv1/7x7_s2"
  top: "pool1/3x3_s2"
  pooling_param {
    pool: MAX
    kernel_size: 3
    stride: 2
  }
}
layer {
  name: "pool1/norm1"
  type: "LRN"
  bottom: "pool1/3x3_s2"
  top: "pool1/norm1"
  lrn_param {
    local_size: 5
    alpha: 0.0001
    beta: 0.75
  }
}
layer {
  name: "conv2/3x3_reduce"
  type: "Convolution"
  bottom: "pool1/norm1"
  top: "conv2/3x3_reduce"
  param {
    lr_mult: 1
    decay_mult: 1
  }
  param {
    lr_mult: 2
    decay_mult: 0
  }
  convolution_param {
    num_output: 64
    kernel_size: 1
    weight_filler {
      type: "xavier"
      std: 0.1
    }
    bias_filler {
      type: "constant"
      value: 0.2
    }
  }
}
layer {
  name: "conv2/relu_3x3_reduce"
  type: "ReLU"
  bottom: "conv2/3x3_reduce"
  top: "conv2/3x3_reduce"
}
layer {
  name: "conv2/3x3"
  type: "Convolution"
  bottom: "conv2/3x3_reduce"
  top: "conv2/3x3"
  param {
    lr_mult: 1
    decay_mult: 1
  }
  param {
    lr_mult: 2
    decay_mult: 0
  }
  convolution_param {
    num_output: 192
    pad: 1
    kernel_size: 3
    weight_filler {
      type: "xavier"
      std: 0.03
    }
    bias_filler {
      type: "constant"
      value: 0.2
    }
  }
}
layer {
  name: "conv2/relu_3x3"
  type: "ReLU"
  bottom: "conv2/3x3"
  top: "conv2/3x3"
}
layer {
  name: "conv2/norm2"
  type: "LRN"
  bottom: "conv2/3x3"
  top: "conv2/norm2"
  lrn_param {
    local_size: 5
    alpha: 0.0001
    beta: 0.75
  }
}
layer {
  name: "pool2/3x3_s2"
  type: "Pooling"
  bottom: "conv2/norm2"
  top: "pool2/3x3_s2"
  pooling_param {
    pool: MAX
    kernel_size: 3
    stride: 2
  }
}
layer {
  name: "inception_3a/1x1"
  type: "Convolution"
  bottom: "pool2/3x3_s2"
  top: "inception_3a/1x1"
  param {
    lr_mult: 1
    decay_mult: 1
  }
  param {
    lr_mult: 2
    decay_mult: 0
  }
  convolution_param {
    num_output: 64
    kernel_size: 1
    weight_filler {
      type: "xavier"
      std: 0.03
    }
    bias_filler {
      type: "constant"
      value: 0.2
    }
  }
}
layer {
  name: "inception_3a/relu_1x1"
  type: "ReLU"
  bottom: "inception_3a/1x1"
  top: "inception_3a/1x1"
}
layer {
  name: "inception_3a/3x3_reduce"
  type: "Convolution"
  bottom: "pool2/3x3_s2"
  top: "inception_3a/3x3_reduce"
  param {
    lr_mult: 1
    decay_mult: 1
  }
  param {
    lr_mult: 2
    decay_mult: 0
  }
  convolution_param {
    num_output: 96
    kernel_size: 1
    weight_filler {
      type: "xavier"
      std: 0.09
    }
    bias_filler {
      type: "constant"
      value: 0.2
    }
  }
}
layer {
  name: "inception_3a/relu_3x3_reduce"
  type: "ReLU"
  bottom: "inception_3a/3x3_reduce"
  top: "inception_3a/3x3_reduce"
}
layer {
  name: "inception_3a/3x3"
  type: "Convolution"
  bottom: "inception_3a/3x3_reduce"
  top: "inception_3a/3x3"
  param {
    lr_mult: 1
    decay_mult: 1
  }
  param {
    lr_mult: 2
    decay_mult: 0
  }
  convolution_param {
    num_output: 128
    pad: 1
    kernel_size: 3
    weight_filler {
      type: "xavier"
      std: 0.03
    }
    bias_filler {
      type: "constant"
      value: 0.2
    }
  }
}
layer {
  name: "inception_3a/relu_3x3"
  type: "ReLU"
  bottom: "inception_3a/3x3"
  top: "inception_3a/3x3"
}
layer {
  name: "inception_3a/5x5_reduce"
  type: "Convolution"
  bottom: "pool2/3x3_s2"
  top: "inception_3a/5x5_reduce"
  param {
    lr_mult: 1
    decay_mult: 1
  }
  param {
    lr_mult: 2
    decay_mult: 0
  }
  convolution_param {
    num_output: 16
    kernel_size: 1
    weight_filler {
      type: "xavier"
      std: 0.2
    }
    bias_filler {
      type: "constant"
      value: 0.2
    }
  }
}
layer {
  name: "inception_3a/relu_5x5_reduce"
  type: "ReLU"
  bottom: "inception_3a/5x5_reduce"
  top: "inception_3a/5x5_reduce"
}
layer {
  name: "inception_3a/5x5"
  type: "Convolution"
  bottom: "inception_3a/5x5_reduce"
  top: "inception_3a/5x5"
  param {
    lr_mult: 1
    decay_mult: 1
  }
  param {
    lr_mult: 2
    decay_mult: 0
  }
  convolution_param {
    num_output: 32
    pad: 2
    kernel_size: 5
    weight_filler {
      type: "xavier"
      std: 0.03
    }
    bias_filler {
      type: "constant"
      value: 0.2
    }
  }
}
layer {
  name: "inception_3a/relu_5x5"
  type: "ReLU"
  bottom: "inception_3a/5x5"
  top: "inception_3a/5x5"
}
layer {
  name: "inception_3a/pool"
  type: "Pooling"
  bottom: "pool2/3x3_s2"
  top: "inception_3a/pool"
  pooling_param {
    pool: MAX
    kernel_size: 3
    stride: 1
    pad: 1
  }
}
layer {
  name: "inception_3a/pool_proj"
  type: "Convolution"
  bottom: "inception_3a/pool"
  top: "inception_3a/pool_proj"
  param {
    lr_mult: 1
    decay_mult: 1
  }
  param {
    lr_mult: 2
    decay_mult: 0
  }
  convolution_param {
    num_output: 32
    kernel_size: 1
    weight_filler {
      type: "xavier"
      std: 0.1
    }
    bias_filler {
      type: "constant"
      value: 0.2
    }
  }
}
layer {
  name: "inception_3a/relu_pool_proj"
  type: "ReLU"
  bottom: "inception_3a/pool_proj"
  top: "inception_3a/pool_proj"
}
layer {
  name: "inception_3a/output"
  type: "Concat"
  bottom: "inception_3a/1x1"
  bottom: "inception_3a/3x3"
  bottom: "inception_3a/5x5"
  bottom: "inception_3a/pool_proj"
  top: "inception_3a/output"
}
layer {
  name: "inception_3b/1x1"
  type: "Convolution"
  bottom: "inception_3a/output"
  top: "inception_3b/1x1"
  param {
    lr_mult: 1
    decay_mult: 1
  }
  param {
    lr_mult: 2
    decay_mult: 0
  }
  convolution_param {
    num_output: 128
    kernel_size: 1
    weight_filler {
      type: "xavier"
      std: 0.03
    }
    bias_filler {
      type: "constant"
      value: 0.2
    }
  }
}
layer {
  name: "inception_3b/relu_1x1"
  type: "ReLU"
  bottom: "inception_3b/1x1"
  top: "inception_3b/1x1"
}
layer {
  name: "inception_3b/3x3_reduce"
  type: "Convolution"
  bottom: "inception_3a/output"
  top: "inception_3b/3x3_reduce"
  param {
    lr_mult: 1
    decay_mult: 1
  }
  param {
    lr_mult: 2
    decay_mult: 0
  }
  convolution_param {
    num_output: 128
    kernel_size: 1
    weight_filler {
      type: "xavier"
      std: 0.09
    }
    bias_filler {
      type: "constant"
      value: 0.2
    }
  }
}
layer {
  name: "inception_3b/relu_3x3_reduce"
  type: "ReLU"
  bottom: "inception_3b/3x3_reduce"
  top: "inception_3b/3x3_reduce"
}
layer {
  name: "inception_3b/3x3"
  type: "Convolution"
  bottom: "inception_3b/3x3_reduce"
  top: "inception_3b/3x3"
  param {
    lr_mult: 1
    decay_mult: 1
  }
  param {
    lr_mult: 2
    decay_mult: 0
  }
  convolution_param {
    num_output: 192
    pad: 1
    kernel_size: 3
    weight_filler {
      type: "xavier"
      std: 0.03
    }
    bias_filler {
      type: "constant"
      value: 0.2
    }
  }
}
layer {
  name: "inception_3b/relu_3x3"
  type: "ReLU"
  bottom: "inception_3b/3x3"
  top: "inception_3b/3x3"
}
layer {
  name: "inception_3b/5x5_reduce"
  type: "Convolution"
  bottom: "inception_3a/output"
  top: "inception_3b/5x5_reduce"
  param {
    lr_mult: 1
    decay_mult: 1
  }
  param {
    lr_mult: 2
    decay_mult: 0
  }
  convolution_param {
    num_output: 32
    kernel_size: 1
    weight_filler {
      type: "xavier"
      std: 0.2
    }
    bias_filler {
      type: "constant"
      value: 0.2
    }
  }
}
layer {
  name: "inception_3b/relu_5x5_reduce"
  type: "ReLU"
  bottom: "inception_3b/5x5_reduce"
  top: "inception_3b/5x5_reduce"
}
layer {
  name: "inception_3b/5x5"
  type: "Convolution"
  bottom: "inception_3b/5x5_reduce"
  top: "inception_3b/5x5"
  param {
    lr_mult: 1
    decay_mult: 1
  }
  param {
    lr_mult: 2
    decay_mult: 0
  }
  convolution_param {
    num_output: 96
    pad: 2
    kernel_size: 5
    weight_filler {
      type: "xavier"
      std: 0.03
    }
    bias_filler {
      type: "constant"
      value: 0.2
    }
  }
}
layer {
  name: "inception_3b/relu_5x5"
  type: "ReLU"
  bottom: "inception_3b/5x5"
  top: "inception_3b/5x5"
}
layer {
  name: "inception_3b/pool"
  type: "Pooling"
  bottom: "inception_3a/output"
  top: "inception_3b/pool"
  pooling_param {
    pool: MAX
    kernel_size: 3
    stride: 1
    pad: 1
  }
}
layer {
  name: "inception_3b/pool_proj"
  type: "Convolution"
  bottom: "inception_3b/pool"
  top: "inception_3b/pool_proj"
  param {
    lr_mult: 1
    decay_mult: 1
  }
  param {
    lr_mult: 2
    decay_mult: 0
  }
  convolution_param {
    num_output: 64
    kernel_size: 1
    weight_filler {
      type: "xavier"
      std: 0.1
    }
    bias_filler {
      type: "constant"
      value: 0.2
    }
  }
}
layer {
  name: "inception_3b/relu_pool_proj"
  type: "ReLU"
  bottom: "inception_3b/pool_proj"
  top: "inception_3b/pool_proj"
}
layer {
  name: "inception_3b/output"
  type: "Concat"
  bottom: "inception_3b/1x1"
  bottom: "inception_3b/3x3"
  bottom: "inception_3b/5x5"
  bottom: "inception_3b/pool_proj"
  top: "inception_3b/output"
}
layer {
  name: "pool3/3x3_s2"
  type: "Pooling"
  bottom: "inception_3b/output"
  top: "pool3/3x3_s2"
  pooling_param {
    pool: MAX
    kernel_size: 3
    stride: 2
  }
}
layer {
  name: "inception_4a/1x1"
  type: "Convolution"
  bottom: "pool3/3x3_s2"
  top: "inception_4a/1x1"
  param {
    lr_mult: 1
    decay_mult: 1
  }
  param {
    lr_mult: 2
    decay_mult: 0
  }
  convolution_param {
    num_output: 192
    kernel_size: 1
    weight_filler {
      type: "xavier"
      std: 0.03
    }
    bias_filler {
      type: "constant"
      value: 0.2
    }
  }
}
layer {
  name: "inception_4a/relu_1x1"
  type: "ReLU"
  bottom: "inception_4a/1x1"
  top: "inception_4a/1x1"
}
layer {
  name: "inception_4a/3x3_reduce"
  type: "Convolution"
  bottom: "pool3/3x3_s2"
  top: "inception_4a/3x3_reduce"
  param {
    lr_mult: 1
    decay_mult: 1
  }
  param {
    lr_mult: 2
    decay_mult: 0
  }
  convolution_param {
    num_output: 96
    kernel_size: 1
    weight_filler {
      type: "xavier"
      std: 0.09
    }
    bias_filler {
      type: "constant"
      value: 0.2
    }
  }
}
layer {
  name: "inception_4a/relu_3x3_reduce"
  type: "ReLU"
  bottom: "inception_4a/3x3_reduce"
  top: "inception_4a/3x3_reduce"
}
layer {
  name: "inception_4a/3x3"
  type: "Convolution"
  bottom: "inception_4a/3x3_reduce"
  top: "inception_4a/3x3"
  param {
    lr_mult: 1
    decay_mult: 1
  }
  param {
    lr_mult: 2
    decay_mult: 0
  }
  convolution_param {
    num_output: 208
    pad: 1
    kernel_size: 3
    weight_filler {
      type: "xavier"
      std: 0.03
    }
    bias_filler {
      type: "constant"
      value: 0.2
    }
  }
}
layer {
  name: "inception_4a/relu_3x3"
  type: "ReLU"
  bottom: "inception_4a/3x3"
  top: "inception_4a/3x3"
}
layer {
  name: "inception_4a/5x5_reduce"
  type: "Convolution"
  bottom: "pool3/3x3_s2"
  top: "inception_4a/5x5_reduce"
  param {
    lr_mult: 1
    decay_mult: 1
  }
  param {
    lr_mult: 2
    decay_mult: 0
  }
  convolution_param {
    num_output: 16
    kernel_size: 1
    weight_filler {
      type: "xavier"
      std: 0.2
    }
    bias_filler {
      type: "constant"
      value: 0.2
    }
  }
}
layer {
  name: "inception_4a/relu_5x5_reduce"
  type: "ReLU"
  bottom: "inception_4a/5x5_reduce"
  top: "inception_4a/5x5_reduce"
}
layer {
  name: "inception_4a/5x5"
  type: "Convolution"
  bottom: "inception_4a/5x5_reduce"
  top: "inception_4a/5x5"
  param {
    lr_mult: 1
    decay_mult: 1
  }
  param {
    lr_mult: 2
    decay_mult: 0
  }
  convolution_param {
    num_output: 48
    pad: 2
    kernel_size: 5
    weight_filler {
      type: "xavier"
      std: 0.03
    }
    bias_filler {
      type: "constant"
      value: 0.2
    }
  }
}
layer {
  name: "inception_4a/relu_5x5"
  type: "ReLU"
  bottom: "inception_4a/5x5"
  top: "inception_4a/5x5"
}
layer {
  name: "inception_4a/pool"
  type: "Pooling"
  bottom: "pool3/3x3_s2"
  top: "inception_4a/pool"
  pooling_param {
    pool: MAX
    kernel_size: 3
    stride: 1
    pad: 1
  }
}
layer {
  name: "inception_4a/pool_proj"
  type: "Convolution"
  bottom: "inception_4a/pool"
  top: "inception_4a/pool_proj"
  param {
    lr_mult: 1
    decay_mult: 1
  }
  param {
    lr_mult: 2
    decay_mult: 0
  }
  convolution_param {
    num_output: 64
    kernel_size: 1
    weight_filler {
      type: "xavier"
      std: 0.1
    }
    bias_filler {
      type: "constant"
      value: 0.2
    }
  }
}
layer {
  name: "inception_4a/relu_pool_proj"
  type: "ReLU"
  bottom: "inception_4a/pool_proj"
  top: "inception_4a/pool_proj"
}
layer {
  name: "inception_4a/output"
  type: "Concat"
  bottom: "inception_4a/1x1"
  bottom: "inception_4a/3x3"
  bottom: "inception_4a/5x5"
  bottom: "inception_4a/pool_proj"
  top: "inception_4a/output"
}
layer {
  name: "loss1/ave_pool"
  type: "Pooling"
  bottom: "inception_4a/output"
  top: "loss1/ave_pool"
  pooling_param {
    pool: AVE
    kernel_size: 5
    stride: 3
  }
}
layer {
  name: "loss1/conv"
  type: "Convolution"
  bottom: "loss1/ave_pool"
  top: "loss1/conv"
  param {
    lr_mult: 1
    decay_mult: 1
  }
  param {
    lr_mult: 2
    decay_mult: 0
  }
  convolution_param {
    num_output: 128
    kernel_size: 1
    weight_filler {
      type: "xavier"
      std: 0.08
    }
    bias_filler {
      type: "constant"
      value: 0.2
    }
  }
}
layer {
  name: "loss1/relu_conv"
  type: "ReLU"
  bottom: "loss1/conv"
  top: "loss1/conv"
}
layer {
  name: "loss1/fc"
  type: "InnerProduct"
  bottom: "loss1/conv"
  top: "loss1/fc"
  param {
    lr_mult: 1
    decay_mult: 1
  }
  param {
    lr_mult: 2
    decay_mult: 0
  }
  inner_product_param {
    num_output: 1024
    weight_filler {
      type: "xavier"
      std: 0.02
    }
    bias_filler {
      type: "constant"
      value: 0.2
    }
  }
}
layer {
  name: "loss1/relu_fc"
  type: "ReLU"
  bottom: "loss1/fc"
  top: "loss1/fc"
}
layer {
  name: "loss1/drop_fc"
  type: "Dropout"
  bottom: "loss1/fc"
  top: "loss1/fc"
  dropout_param {
    dropout_ratio: 0.7
  }
}
layer {
  name: "loss1/classifier_plantvillage"
  type: "InnerProduct"
  bottom: "loss1/fc"
  top: "loss1/classifier_plantvillage"
  param {
    lr_mult: 1
    decay_mult: 1
  }
  param {
    lr_mult: 2
    decay_mult: 0
  }
  inner_product_param {
    num_output: 38
    weight_filler {
      type: "xavier"
      std: 0.0009765625
    }
    bias_filler {
      type: "constant"
      value: 0
    }
  }
}
layer {
  name: "inception_4b/1x1"
  type: "Convolution"
  bottom: "inception_4a/output"
  top: "inception_4b/1x1"
  param {
    lr_mult: 1
    decay_mult: 1
  }
  param {
    lr_mult: 2
    decay_mult: 0
  }
  convolution_param {
    num_output: 160
    kernel_size: 1
    weight_filler {
      type: "xavier"
      std: 0.03
    }
    bias_filler {
      type: "constant"
      value: 0.2
    }
  }
}
layer {
  name: "inception_4b/relu_1x1"
  type: "ReLU"
  bottom: "inception_4b/1x1"
  top: "inception_4b/1x1"
}
layer {
  name: "inception_4b/3x3_reduce"
  type: "Convolution"
  bottom: "inception_4a/output"
  top: "inception_4b/3x3_reduce"
  param {
    lr_mult: 1
    decay_mult: 1
  }
  param {
    lr_mult: 2
    decay_mult: 0
  }
  convolution_param {
    num_output: 112
    kernel_size: 1
    weight_filler {
      type: "xavier"
      std: 0.09
    }
    bias_filler {
      type: "constant"
      value: 0.2
    }
  }
}
layer {
  name: "inception_4b/relu_3x3_reduce"
  type: "ReLU"
  bottom: "inception_4b/3x3_reduce"
  top: "inception_4b/3x3_reduce"
}
layer {
  name: "inception_4b/3x3"
  type: "Convolution"
  bottom: "inception_4b/3x3_reduce"
  top: "inception_4b/3x3"
  param {
    lr_mult: 1
    decay_mult: 1
  }
  param {
    lr_mult: 2
    decay_mult: 0
  }
  convolution_param {
    num_output: 224
    pad: 1
    kernel_size: 3
    weight_filler {
      type: "xavier"
      std: 0.03
    }
    bias_filler {
      type: "constant"
      value: 0.2
    }
  }
}
layer {
  name: "inception_4b/relu_3x3"
  type: "ReLU"
  bottom: "inception_4b/3x3"
  top: "inception_4b/3x3"
}
layer {
  name: "inception_4b/5x5_reduce"
  type: "Convolution"
  bottom: "inception_4a/output"
  top: "inception_4b/5x5_reduce"
  param {
    lr_mult: 1
    decay_mult: 1
  }
  param {
    lr_mult: 2
    decay_mult: 0
  }
  convolution_param {
    num_output: 24
    kernel_size: 1
    weight_filler {
      type: "xavier"
      std: 0.2
    }
    bias_filler {
      type: "constant"
      value: 0.2
    }
  }
}
layer {
  name: "inception_4b/relu_5x5_reduce"
  type: "ReLU"
  bottom: "inception_4b/5x5_reduce"
  top: "inception_4b/5x5_reduce"
}
layer {
  name: "inception_4b/5x5"
  type: "Convolution"
  bottom: "inception_4b/5x5_reduce"
  top: "inception_4b/5x5"
  param {
    lr_mult: 1
    decay_mult: 1
  }
  param {
    lr_mult: 2
    decay_mult: 0
  }
  convolution_param {
    num_output: 64
    pad: 2
    kernel_size: 5
    weight_filler {
      type: "xavier"
      std: 0.03
    }
    bias_filler {
      type: "constant"
      value: 0.2
    }
  }
}
layer {
  name: "inception_4b/relu_5x5"
  type: "ReLU"
  bottom: "inception_4b/5x5"
  top: "inception_4b/5x5"
}
layer {
  name: "inception_4b/pool"
  type: "Pooling"
  bottom: "inception_4a/output"
  top: "inception_4b/pool"
  pooling_param {
    pool: MAX
    kernel_size: 3
    stride: 1
    pad: 1
  }
}
layer {
  name: "inception_4b/pool_proj"
  type: "Convolution"
  bottom: "inception_4b/pool"
  top: "inception_4b/pool_proj"
  param {
    lr_mult: 1
    decay_mult: 1
  }
  param {
    lr_mult: 2
    decay_mult: 0
  }
  convolution_param {
    num_output: 64
    kernel_size: 1
    weight_filler {
      type: "xavier"
      std: 0.1
    }
    bias_filler {
      type: "constant"
      value: 0.2
    }
  }
}
layer {
  name: "inception_4b/relu_pool_proj"
  type: "ReLU"
  bottom: "inception_4b/pool_proj"
  top: "inception_4b/pool_proj"
}
layer {
  name: "inception_4b/output"
  type: "Concat"
  bottom: "inception_4b/1x1"
  bottom: "inception_4b/3x3"
  bottom: "inception_4b/5x5"
  bottom: "inception_4b/pool_proj"
  top: "inception_4b/output"
}
layer {
  name: "inception_4c/1x1"
  type: "Convolution"
  bottom: "inception_4b/output"
  top: "inception_4c/1x1"
  param {
    lr_mult: 1
    decay_mult: 1
  }
  param {
    lr_mult: 2
    decay_mult: 0
  }
  convolution_param {
    num_output: 128
    kernel_size: 1
    weight_filler {
      type: "xavier"
      std: 0.03
    }
    bias_filler {
      type: "constant"
      value: 0.2
    }
  }
}
layer {
  name: "inception_4c/relu_1x1"
  type: "ReLU"
  bottom: "inception_4c/1x1"
  top: "inception_4c/1x1"
}
layer {
  name: "inception_4c/3x3_reduce"
  type: "Convolution"
  bottom: "inception_4b/output"
  top: "inception_4c/3x3_reduce"
  param {
    lr_mult: 1
    decay_mult: 1
  }
  param {
    lr_mult: 2
    decay_mult: 0
  }
  convolution_param {
    num_output: 128
    kernel_size: 1
    weight_filler {
      type: "xavier"
      std: 0.09
    }
    bias_filler {
      type: "constant"
      value: 0.2
    }
  }
}
layer {
  name: "inception_4c/relu_3x3_reduce"
  type: "ReLU"
  bottom: "inception_4c/3x3_reduce"
  top: "inception_4c/3x3_reduce"
}
layer {
  name: "inception_4c/3x3"
  type: "Convolution"
  bottom: "inception_4c/3x3_reduce"
  top: "inception_4c/3x3"
  param {
    lr_mult: 1
    decay_mult: 1
  }
  param {
    lr_mult: 2
    decay_mult: 0
  }
  convolution_param {
    num_output: 256
    pad: 1
    kernel_size: 3
    weight_filler {
      type: "xavier"
      std: 0.03
    }
    bias_filler {
      type: "constant"
      value: 0.2
    }
  }
}
layer {
  name: "inception_4c/relu_3x3"
  type: "ReLU"
  bottom: "inception_4c/3x3"
  top: "inception_4c/3x3"
}
layer {
  name: "inception_4c/5x5_reduce"
  type: "Convolution"
  bottom: "inception_4b/output"
  top: "inception_4c/5x5_reduce"
  param {
    lr_mult: 1
    decay_mult: 1
  }
  param {
    lr_mult: 2
    decay_mult: 0
  }
  convolution_param {
    num_output: 24
    kernel_size: 1
    weight_filler {
      type: "xavier"
      std: 0.2
    }
    bias_filler {
      type: "constant"
      value: 0.2
    }
  }
}
layer {
  name: "inception_4c/relu_5x5_reduce"
  type: "ReLU"
  bottom: "inception_4c/5x5_reduce"
  top: "inception_4c/5x5_reduce"
}
layer {
  name: "inception_4c/5x5"
  type: "Convolution"
  bottom: "inception_4c/5x5_reduce"
  top: "inception_4c/5x5"
  param {
    lr_mult: 1
    decay_mult: 1
  }
  param {
    lr_mult: 2
    decay_mult: 0
  }
  convolution_param {
    num_output: 64
    pad: 2
    kernel_size: 5
    weight_filler {
      type: "xavier"
      std: 0.03
    }
    bias_filler {
      type: "constant"
      value: 0.2
    }
  }
}
layer {
  name: "inception_4c/relu_5x5"
  type: "ReLU"
  bottom: "inception_4c/5x5"
  top: "inception_4c/5x5"
}
layer {
  name: "inception_4c/pool"
  type: "Pooling"
  bottom: "inception_4b/output"
  top: "inception_4c/pool"
  pooling_param {
    pool: MAX
    kernel_size: 3
    stride: 1
    pad: 1
  }
}
layer {
  name: "inception_4c/pool_proj"
  type: "Convolution"
  bottom: "inception_4c/pool"
  top: "inception_4c/pool_proj"
  param {
    lr_mult: 1
    decay_mult: 1
  }
  param {
    lr_mult: 2
    decay_mult: 0
  }
  convolution_param {
    num_output: 64
    kernel_size: 1
    weight_filler {
      type: "xavier"
      std: 0.1
    }
    bias_filler {
      type: "constant"
      value: 0.2
    }
  }
}
layer {
  name: "inception_4c/relu_pool_proj"
  type: "ReLU"
  bottom: "inception_4c/pool_proj"
  top: "inception_4c/pool_proj"
}
layer {
  name: "inception_4c/output"
  type: "Concat"
  bottom: "inception_4c/1x1"
  bottom: "inception_4c/3x3"
  bottom: "inception_4c/5x5"
  bottom: "inception_4c/pool_proj"
  top: "inception_4c/output"
}
layer {
  name: "inception_4d/1x1"
  type: "Convolution"
  bottom: "inception_4c/output"
  top: "inception_4d/1x1"
  param {
    lr_mult: 1
    decay_mult: 1
  }
  param {
    lr_mult: 2
    decay_mult: 0
  }
  convolution_param {
    num_output: 112
    kernel_size: 1
    weight_filler {
      type: "xavier"
      std: 0.03
    }
    bias_filler {
      type: "constant"
      value: 0.2
    }
  }
}
layer {
  name: "inception_4d/relu_1x1"
  type: "ReLU"
  bottom: "inception_4d/1x1"
  top: "inception_4d/1x1"
}
layer {
  name: "inception_4d/3x3_reduce"
  type: "Convolution"
  bottom: "inception_4c/output"
  top: "inception_4d/3x3_reduce"
  param {
    lr_mult: 1
    decay_mult: 1
  }
  param {
    lr_mult: 2
    decay_mult: 0
  }
  convolution_param {
    num_output: 144
    kernel_size: 1
    weight_filler {
      type: "xavier"
      std: 0.09
    }
    bias_filler {
      type: "constant"
      value: 0.2
    }
  }
}
layer {
  name: "inception_4d/relu_3x3_reduce"
  type: "ReLU"
  bottom: "inception_4d/3x3_reduce"
  top: "inception_4d/3x3_reduce"
}
layer {
  name: "inception_4d/3x3"
  type: "Convolution"
  bottom: "inception_4d/3x3_reduce"
  top: "inception_4d/3x3"
  param {
    lr_mult: 1
    decay_mult: 1
  }
  param {
    lr_mult: 2
    decay_mult: 0
  }
  convolution_param {
    num_output: 288
    pad: 1
    kernel_size: 3
    weight_filler {
      type: "xavier"
      std: 0.03
    }
    bias_filler {
      type: "constant"
      value: 0.2
    }
  }
}
layer {
  name: "inception_4d/relu_3x3"
  type: "ReLU"
  bottom: "inception_4d/3x3"
  top: "inception_4d/3x3"
}
layer {
  name: "inception_4d/5x5_reduce"
  type: "Convolution"
  bottom: "inception_4c/output"
  top: "inception_4d/5x5_reduce"
  param {
    lr_mult: 1
    decay_mult: 1
  }
  param {
    lr_mult: 2
    decay_mult: 0
  }
  convolution_param {
    num_output: 32
    kernel_size: 1
    weight_filler {
      type: "xavier"
      std: 0.2
    }
    bias_filler {
      type: "constant"
      value: 0.2
    }
  }
}
layer {
  name: "inception_4d/relu_5x5_reduce"
  type: "ReLU"
  bottom: "inception_4d/5x5_reduce"
  top: "inception_4d/5x5_reduce"
}
layer {
  name: "inception_4d/5x5"
  type: "Convolution"
  bottom: "inception_4d/5x5_reduce"
  top: "inception_4d/5x5"
  param {
    lr_mult: 1
    decay_mult: 1
  }
  param {
    lr_mult: 2
    decay_mult: 0
  }
  convolution_param {
    num_output: 64
    pad: 2
    kernel_size: 5
    weight_filler {
      type: "xavier"
      std: 0.03
    }
    bias_filler {
      type: "constant"
      value: 0.2
    }
  }
}
layer {
  name: "inception_4d/relu_5x5"
  type: "ReLU"
  bottom: "inception_4d/5x5"
  top: "inception_4d/5x5"
}
layer {
  name: "inception_4d/pool"
  type: "Pooling"
  bottom: "inception_4c/output"
  top: "inception_4d/pool"
  pooling_param {
    pool: MAX
    kernel_size: 3
    stride: 1
    pad: 1
  }
}
layer {
  name: "inception_4d/pool_proj"
  type: "Convolution"
  bottom: "inception_4d/pool"
  top: "inception_4d/pool_proj"
  param {
    lr_mult: 1
    decay_mult: 1
  }
  param {
    lr_mult: 2
    decay_mult: 0
  }
  convolution_param {
    num_output: 64
    kernel_size: 1
    weight_filler {
      type: "xavier"
      std: 0.1
    }
    bias_filler {
      type: "constant"
      value: 0.2
    }
  }
}
layer {
  name: "inception_4d/relu_pool_proj"
  type: "ReLU"
  bottom: "inception_4d/pool_proj"
  top: "inception_4d/pool_proj"
}
layer {
  name: "inception_4d/output"
  type: "Concat"
  bottom: "inception_4d/1x1"
  bottom: "inception_4d/3x3"
  bottom: "inception_4d/5x5"
  bottom: "inception_4d/pool_proj"
  top: "inception_4d/output"
}
layer {
  name: "loss2/ave_pool"
  type: "Pooling"
  bottom: "inception_4d/output"
  top: "loss2/ave_pool"
  pooling_param {
    pool: AVE
    kernel_size: 5
    stride: 3
  }
}
layer {
  name: "loss2/conv"
  type: "Convolution"
  bottom: "loss2/ave_pool"
  top: "loss2/conv"
  param {
    lr_mult: 1
    decay_mult: 1
  }
  param {
    lr_mult: 2
    decay_mult: 0
  }
  convolution_param {
    num_output: 128
    kernel_size: 1
    weight_filler {
      type: "xavier"
      std: 0.08
    }
    bias_filler {
      type: "constant"
      value: 0.2
    }
  }
}
layer {
  name: "loss2/relu_conv"
  type: "ReLU"
  bottom: "loss2/conv"
  top: "loss2/conv"
}
layer {
  name: "loss2/fc"
  type: "InnerProduct"
  bottom: "loss2/conv"
  top: "loss2/fc"
  param {
    lr_mult: 1
    decay_mult: 1
  }
  param {
    lr_mult: 2
    decay_mult: 0
  }
  inner_product_param {
    num_output: 1024
    weight_filler {
      type: "xavier"
      std: 0.02
    }
    bias_filler {
      type: "constant"
      value: 0.2
    }
  }
}
layer {
  name: "loss2/relu_fc"
  type: "ReLU"
  bottom: "loss2/fc"
  top: "loss2/fc"
}
layer {
  name: "loss2/drop_fc"
  type: "Dropout"
  bottom: "loss2/fc"
  top: "loss2/fc"
  dropout_param {
    dropout_ratio: 0.7
  }
}
layer {
  name: "loss2/classifier_plantvillage"
  type: "InnerProduct"
  bottom: "loss2/fc"
  top: "loss2/classifier_plantvillage"
  param {
    lr_mult: 1
    decay_mult: 1
  }
  param {
    lr_mult: 2
    decay_mult: 0
  }
  inner_product_param {
    num_output: 38
    weight_filler {
      type: "xavier"
      std: 0.0009765625
    }
    bias_filler {
      type: "constant"
      value: 0
    }
  }
}
layer {
  name: "inception_4e/1x1"
  type: "Convolution"
  bottom: "inception_4d/output"
  top: "inception_4e/1x1"
  param {
    lr_mult: 1
    decay_mult: 1
  }
  param {
    lr_mult: 2
    decay_mult: 0
  }
  convolution_param {
    num_output: 256
    kernel_size: 1
    weight_filler {
      type: "xavier"
      std: 0.03
    }
    bias_filler {
      type: "constant"
      value: 0.2
    }
  }
}
layer {
  name: "inception_4e/relu_1x1"
  type: "ReLU"
  bottom: "inception_4e/1x1"
  top: "inception_4e/1x1"
}
layer {
  name: "inception_4e/3x3_reduce"
  type: "Convolution"
  bottom: "inception_4d/output"
  top: "inception_4e/3x3_reduce"
  param {
    lr_mult: 1
    decay_mult: 1
  }
  param {
    lr_mult: 2
    decay_mult: 0
  }
  convolution_param {
    num_output: 160
    kernel_size: 1
    weight_filler {
      type: "xavier"
      std: 0.09
    }
    bias_filler {
      type: "constant"
      value: 0.2
    }
  }
}
layer {
  name: "inception_4e/relu_3x3_reduce"
  type: "ReLU"
  bottom: "inception_4e/3x3_reduce"
  top: "inception_4e/3x3_reduce"
}
layer {
  name: "inception_4e/3x3"
  type: "Convolution"
  bottom: "inception_4e/3x3_reduce"
  top: "inception_4e/3x3"
  param {
    lr_mult: 1
    decay_mult: 1
  }
  param {
    lr_mult: 2
    decay_mult: 0
  }
  convolution_param {
    num_output: 320
    pad: 1
    kernel_size: 3
    weight_filler {
      type: "xavier"
      std: 0.03
    }
    bias_filler {
      type: "constant"
      value: 0.2
    }
  }
}
layer {
  name: "inception_4e/relu_3x3"
  type: "ReLU"
  bottom: "inception_4e/3x3"
  top: "inception_4e/3x3"
}
layer {
  name: "inception_4e/5x5_reduce"
  type: "Convolution"
  bottom: "inception_4d/output"
  top: "inception_4e/5x5_reduce"
  param {
    lr_mult: 1
    decay_mult: 1
  }
  param {
    lr_mult: 2
    decay_mult: 0
  }
  convolution_param {
    num_output: 32
    kernel_size: 1
    weight_filler {
      type: "xavier"
      std: 0.2
    }
    bias_filler {
      type: "constant"
      value: 0.2
    }
  }
}
layer {
  name: "inception_4e/relu_5x5_reduce"
  type: "ReLU"
  bottom: "inception_4e/5x5_reduce"
  top: "inception_4e/5x5_reduce"
}
layer {
  name: "inception_4e/5x5"
  type: "Convolution"
  bottom: "inception_4e/5x5_reduce"
  top: "inception_4e/5x5"
  p
I0403 15:31:37.316727 15253 layer_factory.hpp:77] Creating layer data
I0403 15:31:37.317340 15253 net.cpp:91] Creating Layer data
I0403 15:31:37.317370 15253 net.cpp:399] data -> data
I0403 15:31:37.317423 15253 net.cpp:399] data -> label
I0403 15:31:37.317461 15253 data_transformer.cpp:25] Loading mean file from: /home/mohanty/data/final_dataset/lmdb/color-50-50/mean.binaryproto
I0403 15:31:37.320222 15256 db_lmdb.cpp:38] Opened lmdb /home/mohanty/data/final_dataset/lmdb/color-50-50/test_db
I0403 15:31:37.331054 15253 data_layer.cpp:41] output data size: 24,3,224,224
I0403 15:31:37.358127 15253 net.cpp:141] Setting up data
I0403 15:31:37.358206 15253 net.cpp:148] Top shape: 24 3 224 224 (3612672)
I0403 15:31:37.358230 15253 net.cpp:148] Top shape: 24 (24)
I0403 15:31:37.358248 15253 net.cpp:156] Memory required for data: 14450784
I0403 15:31:37.358278 15253 layer_factory.hpp:77] Creating layer label_data_1_split
I0403 15:31:37.358307 15253 net.cpp:91] Creating Layer label_data_1_split
I0403 15:31:37.358326 15253 net.cpp:425] label_data_1_split <- label
I0403 15:31:37.358361 15253 net.cpp:399] label_data_1_split -> label_data_1_split_0
I0403 15:31:37.358392 15253 net.cpp:399] label_data_1_split -> label_data_1_split_1
I0403 15:31:37.358415 15253 net.cpp:399] label_data_1_split -> label_data_1_split_2
I0403 15:31:37.358439 15253 net.cpp:399] label_data_1_split -> label_data_1_split_3
I0403 15:31:37.358463 15253 net.cpp:399] label_data_1_split -> label_data_1_split_4
I0403 15:31:37.358484 15253 net.cpp:399] label_data_1_split -> label_data_1_split_5
I0403 15:31:37.358510 15253 net.cpp:399] label_data_1_split -> label_data_1_split_6
I0403 15:31:37.358535 15253 net.cpp:399] label_data_1_split -> label_data_1_split_7
I0403 15:31:37.358557 15253 net.cpp:399] label_data_1_split -> label_data_1_split_8
I0403 15:31:37.358579 15253 net.cpp:399] label_data_1_split -> label_data_1_split_9
I0403 15:31:37.358697 15253 net.cpp:141] Setting up label_data_1_split
I0403 15:31:37.358722 15253 net.cpp:148] Top shape: 24 (24)
I0403 15:31:37.358741 15253 net.cpp:148] Top shape: 24 (24)
I0403 15:31:37.358758 15253 net.cpp:148] Top shape: 24 (24)
I0403 15:31:37.358777 15253 net.cpp:148] Top shape: 24 (24)
I0403 15:31:37.358794 15253 net.cpp:148] Top shape: 24 (24)
I0403 15:31:37.358810 15253 net.cpp:148] Top shape: 24 (24)
I0403 15:31:37.358827 15253 net.cpp:148] Top shape: 24 (24)
I0403 15:31:37.358844 15253 net.cpp:148] Top shape: 24 (24)
I0403 15:31:37.358860 15253 net.cpp:148] Top shape: 24 (24)
I0403 15:31:37.358877 15253 net.cpp:148] Top shape: 24 (24)
I0403 15:31:37.358932 15253 net.cpp:156] Memory required for data: 14451744
I0403 15:31:37.358948 15253 layer_factory.hpp:77] Creating layer conv1/7x7_s2
I0403 15:31:37.358980 15253 net.cpp:91] Creating Layer conv1/7x7_s2
I0403 15:31:37.358999 15253 net.cpp:425] conv1/7x7_s2 <- data
I0403 15:31:37.359019 15253 net.cpp:399] conv1/7x7_s2 -> conv1/7x7_s2
I0403 15:31:37.499532 15253 net.cpp:141] Setting up conv1/7x7_s2
I0403 15:31:37.499606 15253 net.cpp:148] Top shape: 24 64 112 112 (19267584)
I0403 15:31:37.499624 15253 net.cpp:156] Memory required for data: 91522080
I0403 15:31:37.499656 15253 layer_factory.hpp:77] Creating layer conv1/relu_7x7
I0403 15:31:37.499687 15253 net.cpp:91] Creating Layer conv1/relu_7x7
I0403 15:31:37.499707 15253 net.cpp:425] conv1/relu_7x7 <- conv1/7x7_s2
I0403 15:31:37.499728 15253 net.cpp:386] conv1/relu_7x7 -> conv1/7x7_s2 (in-place)
I0403 15:31:37.500012 15253 net.cpp:141] Setting up conv1/relu_7x7
I0403 15:31:37.500041 15253 net.cpp:148] Top shape: 24 64 112 112 (19267584)
I0403 15:31:37.500056 15253 net.cpp:156] Memory required for data: 168592416
I0403 15:31:37.500072 15253 layer_factory.hpp:77] Creating layer pool1/3x3_s2
I0403 15:31:37.500099 15253 net.cpp:91] Creating Layer pool1/3x3_s2
I0403 15:31:37.500119 15253 net.cpp:425] pool1/3x3_s2 <- conv1/7x7_s2
I0403 15:31:37.500138 15253 net.cpp:399] pool1/3x3_s2 -> pool1/3x3_s2
I0403 15:31:37.500217 15253 net.cpp:141] Setting up pool1/3x3_s2
I0403 15:31:37.500242 15253 net.cpp:148] Top shape: 24 64 56 56 (4816896)
I0403 15:31:37.500259 15253 net.cpp:156] Memory required for data: 187860000
I0403 15:31:37.500274 15253 layer_factory.hpp:77] Creating layer pool1/norm1
I0403 15:31:37.500299 15253 net.cpp:91] Creating Layer pool1/norm1
I0403 15:31:37.500318 15253 net.cpp:425] pool1/norm1 <- pool1/3x3_s2
I0403 15:31:37.500339 15253 net.cpp:399] pool1/norm1 -> pool1/norm1
I0403 15:31:37.500663 15253 net.cpp:141] Setting up pool1/norm1
I0403 15:31:37.500690 15253 net.cpp:148] Top shape: 24 64 56 56 (4816896)
I0403 15:31:37.500705 15253 net.cpp:156] Memory required for data: 207127584
I0403 15:31:37.500720 15253 layer_factory.hpp:77] Creating layer conv2/3x3_reduce
I0403 15:31:37.500747 15253 net.cpp:91] Creating Layer conv2/3x3_reduce
I0403 15:31:37.500766 15253 net.cpp:425] conv2/3x3_reduce <- pool1/norm1
I0403 15:31:37.500789 15253 net.cpp:399] conv2/3x3_reduce -> conv2/3x3_reduce
I0403 15:31:37.502272 15253 net.cpp:141] Setting up conv2/3x3_reduce
I0403 15:31:37.502305 15253 net.cpp:148] Top shape: 24 64 56 56 (4816896)
I0403 15:31:37.502324 15253 net.cpp:156] Memory required for data: 226395168
I0403 15:31:37.502347 15253 layer_factory.hpp:77] Creating layer conv2/relu_3x3_reduce
I0403 15:31:37.502367 15253 net.cpp:91] Creating Layer conv2/relu_3x3_reduce
I0403 15:31:37.502383 15253 net.cpp:425] conv2/relu_3x3_reduce <- conv2/3x3_reduce
I0403 15:31:37.502403 15253 net.cpp:386] conv2/relu_3x3_reduce -> conv2/3x3_reduce (in-place)
I0403 15:31:37.502718 15253 net.cpp:141] Setting up conv2/relu_3x3_reduce
I0403 15:31:37.502748 15253 net.cpp:148] Top shape: 24 64 56 56 (4816896)
I0403 15:31:37.502766 15253 net.cpp:156] Memory required for data: 245662752
I0403 15:31:37.502781 15253 layer_factory.hpp:77] Creating layer conv2/3x3
I0403 15:31:37.502806 15253 net.cpp:91] Creating Layer conv2/3x3
I0403 15:31:37.502825 15253 net.cpp:425] conv2/3x3 <- conv2/3x3_reduce
I0403 15:31:37.502848 15253 net.cpp:399] conv2/3x3 -> conv2/3x3
I0403 15:31:37.505235 15253 net.cpp:141] Setting up conv2/3x3
I0403 15:31:37.505270 15253 net.cpp:148] Top shape: 24 192 56 56 (14450688)
I0403 15:31:37.505286 15253 net.cpp:156] Memory required for data: 303465504
I0403 15:31:37.505309 15253 layer_factory.hpp:77] Creating layer conv2/relu_3x3
I0403 15:31:37.505329 15253 net.cpp:91] Creating Layer conv2/relu_3x3
I0403 15:31:37.505347 15253 net.cpp:425] conv2/relu_3x3 <- conv2/3x3
I0403 15:31:37.505367 15253 net.cpp:386] conv2/relu_3x3 -> conv2/3x3 (in-place)
I0403 15:31:37.505558 15253 net.cpp:141] Setting up conv2/relu_3x3
I0403 15:31:37.505585 15253 net.cpp:148] Top shape: 24 192 56 56 (14450688)
I0403 15:31:37.505640 15253 net.cpp:156] Memory required for data: 361268256
I0403 15:31:37.505656 15253 layer_factory.hpp:77] Creating layer conv2/norm2
I0403 15:31:37.505677 15253 net.cpp:91] Creating Layer conv2/norm2
I0403 15:31:37.505695 15253 net.cpp:425] conv2/norm2 <- conv2/3x3
I0403 15:31:37.505717 15253 net.cpp:399] conv2/norm2 -> conv2/norm2
I0403 15:31:37.506063 15253 net.cpp:141] Setting up conv2/norm2
I0403 15:31:37.506096 15253 net.cpp:148] Top shape: 24 192 56 56 (14450688)
I0403 15:31:37.506114 15253 net.cpp:156] Memory required for data: 419071008
I0403 15:31:37.506130 15253 layer_factory.hpp:77] Creating layer pool2/3x3_s2
I0403 15:31:37.506148 15253 net.cpp:91] Creating Layer pool2/3x3_s2
I0403 15:31:37.506165 15253 net.cpp:425] pool2/3x3_s2 <- conv2/norm2
I0403 15:31:37.506189 15253 net.cpp:399] pool2/3x3_s2 -> pool2/3x3_s2
I0403 15:31:37.506244 15253 net.cpp:141] Setting up pool2/3x3_s2
I0403 15:31:37.506269 15253 net.cpp:148] Top shape: 24 192 28 28 (3612672)
I0403 15:31:37.506284 15253 net.cpp:156] Memory required for data: 433521696
I0403 15:31:37.506299 15253 layer_factory.hpp:77] Creating layer pool2/3x3_s2_pool2/3x3_s2_0_split
I0403 15:31:37.506320 15253 net.cpp:91] Creating Layer pool2/3x3_s2_pool2/3x3_s2_0_split
I0403 15:31:37.506337 15253 net.cpp:425] pool2/3x3_s2_pool2/3x3_s2_0_split <- pool2/3x3_s2
I0403 15:31:37.506356 15253 net.cpp:399] pool2/3x3_s2_pool2/3x3_s2_0_split -> pool2/3x3_s2_pool2/3x3_s2_0_split_0
I0403 15:31:37.506376 15253 net.cpp:399] pool2/3x3_s2_pool2/3x3_s2_0_split -> pool2/3x3_s2_pool2/3x3_s2_0_split_1
I0403 15:31:37.506397 15253 net.cpp:399] pool2/3x3_s2_pool2/3x3_s2_0_split -> pool2/3x3_s2_pool2/3x3_s2_0_split_2
I0403 15:31:37.506417 15253 net.cpp:399] pool2/3x3_s2_pool2/3x3_s2_0_split -> pool2/3x3_s2_pool2/3x3_s2_0_split_3
I0403 15:31:37.506490 15253 net.cpp:141] Setting up pool2/3x3_s2_pool2/3x3_s2_0_split
I0403 15:31:37.506520 15253 net.cpp:148] Top shape: 24 192 28 28 (3612672)
I0403 15:31:37.506537 15253 net.cpp:148] Top shape: 24 192 28 28 (3612672)
I0403 15:31:37.506554 15253 net.cpp:148] Top shape: 24 192 28 28 (3612672)
I0403 15:31:37.506572 15253 net.cpp:148] Top shape: 24 192 28 28 (3612672)
I0403 15:31:37.506585 15253 net.cpp:156] Memory required for data: 491324448
I0403 15:31:37.506600 15253 layer_factory.hpp:77] Creating layer inception_3a/1x1
I0403 15:31:37.506623 15253 net.cpp:91] Creating Layer inception_3a/1x1
I0403 15:31:37.506641 15253 net.cpp:425] inception_3a/1x1 <- pool2/3x3_s2_pool2/3x3_s2_0_split_0
I0403 15:31:37.506664 15253 net.cpp:399] inception_3a/1x1 -> inception_3a/1x1
I0403 15:31:37.508275 15253 net.cpp:141] Setting up inception_3a/1x1
I0403 15:31:37.508307 15253 net.cpp:148] Top shape: 24 64 28 28 (1204224)
I0403 15:31:37.508327 15253 net.cpp:156] Memory required for data: 496141344
I0403 15:31:37.508347 15253 layer_factory.hpp:77] Creating layer inception_3a/relu_1x1
I0403 15:31:37.508364 15253 net.cpp:91] Creating Layer inception_3a/relu_1x1
I0403 15:31:37.508381 15253 net.cpp:425] inception_3a/relu_1x1 <- inception_3a/1x1
I0403 15:31:37.508401 15253 net.cpp:386] inception_3a/relu_1x1 -> inception_3a/1x1 (in-place)
I0403 15:31:37.508589 15253 net.cpp:141] Setting up inception_3a/relu_1x1
I0403 15:31:37.508616 15253 net.cpp:148] Top shape: 24 64 28 28 (1204224)
I0403 15:31:37.508632 15253 net.cpp:156] Memory required for data: 500958240
I0403 15:31:37.508647 15253 layer_factory.hpp:77] Creating layer inception_3a/3x3_reduce
I0403 15:31:37.508671 15253 net.cpp:91] Creating Layer inception_3a/3x3_reduce
I0403 15:31:37.508689 15253 net.cpp:425] inception_3a/3x3_reduce <- pool2/3x3_s2_pool2/3x3_s2_0_split_1
I0403 15:31:37.508711 15253 net.cpp:399] inception_3a/3x3_reduce -> inception_3a/3x3_reduce
I0403 15:31:37.510481 15253 net.cpp:141] Setting up inception_3a/3x3_reduce
I0403 15:31:37.510519 15253 net.cpp:148] Top shape: 24 96 28 28 (1806336)
I0403 15:31:37.510540 15253 net.cpp:156] Memory required for data: 508183584
I0403 15:31:37.510565 15253 layer_factory.hpp:77] Creating layer inception_3a/relu_3x3_reduce
I0403 15:31:37.510604 15253 net.cpp:91] Creating Layer inception_3a/relu_3x3_reduce
I0403 15:31:37.510625 15253 net.cpp:425] inception_3a/relu_3x3_reduce <- inception_3a/3x3_reduce
I0403 15:31:37.510645 15253 net.cpp:386] inception_3a/relu_3x3_reduce -> inception_3a/3x3_reduce (in-place)
I0403 15:31:37.510831 15253 net.cpp:141] Setting up inception_3a/relu_3x3_reduce
I0403 15:31:37.510859 15253 net.cpp:148] Top shape: 24 96 28 28 (1806336)
I0403 15:31:37.510876 15253 net.cpp:156] Memory required for data: 515408928
I0403 15:31:37.510893 15253 layer_factory.hpp:77] Creating layer inception_3a/3x3
I0403 15:31:37.510918 15253 net.cpp:91] Creating Layer inception_3a/3x3
I0403 15:31:37.510938 15253 net.cpp:425] inception_3a/3x3 <- inception_3a/3x3_reduce
I0403 15:31:37.510958 15253 net.cpp:399] inception_3a/3x3 -> inception_3a/3x3
I0403 15:31:37.512655 15253 net.cpp:141] Setting up inception_3a/3x3
I0403 15:31:37.512683 15253 net.cpp:148] Top shape: 24 128 28 28 (2408448)
I0403 15:31:37.512701 15253 net.cpp:156] Memory required for data: 525042720
I0403 15:31:37.512720 15253 layer_factory.hpp:77] Creating layer inception_3a/relu_3x3
I0403 15:31:37.512739 15253 net.cpp:91] Creating Layer inception_3a/relu_3x3
I0403 15:31:37.512756 15253 net.cpp:425] inception_3a/relu_3x3 <- inception_3a/3x3
I0403 15:31:37.512776 15253 net.cpp:386] inception_3a/relu_3x3 -> inception_3a/3x3 (in-place)
I0403 15:31:37.513061 15253 net.cpp:141] Setting up inception_3a/relu_3x3
I0403 15:31:37.513088 15253 net.cpp:148] Top shape: 24 128 28 28 (2408448)
I0403 15:31:37.513103 15253 net.cpp:156] Memory required for data: 534676512
I0403 15:31:37.513119 15253 layer_factory.hpp:77] Creating layer inception_3a/5x5_reduce
I0403 15:31:37.513142 15253 net.cpp:91] Creating Layer inception_3a/5x5_reduce
I0403 15:31:37.513160 15253 net.cpp:425] inception_3a/5x5_reduce <- pool2/3x3_s2_pool2/3x3_s2_0_split_2
I0403 15:31:37.513183 15253 net.cpp:399] inception_3a/5x5_reduce -> inception_3a/5x5_reduce
I0403 15:31:37.514173 15253 net.cpp:141] Setting up inception_3a/5x5_reduce
I0403 15:31:37.514202 15253 net.cpp:148] Top shape: 24 16 28 28 (301056)
I0403 15:31:37.514219 15253 net.cpp:156] Memory required for data: 535880736
I0403 15:31:37.514236 15253 layer_factory.hpp:77] Creating layer inception_3a/relu_5x5_reduce
I0403 15:31:37.514264 15253 net.cpp:91] Creating Layer inception_3a/relu_5x5_reduce
I0403 15:31:37.514282 15253 net.cpp:425] inception_3a/relu_5x5_reduce <- inception_3a/5x5_reduce
I0403 15:31:37.514303 15253 net.cpp:386] inception_3a/relu_5x5_reduce -> inception_3a/5x5_reduce (in-place)
I0403 15:31:37.514618 15253 net.cpp:141] Setting up inception_3a/relu_5x5_reduce
I0403 15:31:37.514647 15253 net.cpp:148] Top shape: 24 16 28 28 (301056)
I0403 15:31:37.514662 15253 net.cpp:156] Memory required for data: 537084960
I0403 15:31:37.514678 15253 layer_factory.hpp:77] Creating layer inception_3a/5x5
I0403 15:31:37.514701 15253 net.cpp:91] Creating Layer inception_3a/5x5
I0403 15:31:37.514720 15253 net.cpp:425] inception_3a/5x5 <- inception_3a/5x5_reduce
I0403 15:31:37.514742 15253 net.cpp:399] inception_3a/5x5 -> inception_3a/5x5
I0403 15:31:37.515784 15253 net.cpp:141] Setting up inception_3a/5x5
I0403 15:31:37.515811 15253 net.cpp:148] Top shape: 24 32 28 28 (602112)
I0403 15:31:37.515828 15253 net.cpp:156] Memory required for data: 539493408
I0403 15:31:37.515847 15253 layer_factory.hpp:77] Creating layer inception_3a/relu_5x5
I0403 15:31:37.515867 15253 net.cpp:91] Creating Layer inception_3a/relu_5x5
I0403 15:31:37.515884 15253 net.cpp:425] inception_3a/relu_5x5 <- inception_3a/5x5
I0403 15:31:37.515905 15253 net.cpp:386] inception_3a/relu_5x5 -> inception_3a/5x5 (in-place)
I0403 15:31:37.516085 15253 net.cpp:141] Setting up inception_3a/relu_5x5
I0403 15:31:37.516111 15253 net.cpp:148] Top shape: 24 32 28 28 (602112)
I0403 15:31:37.516127 15253 net.cpp:156] Memory required for data: 541901856
I0403 15:31:37.516144 15253 layer_factory.hpp:77] Creating layer inception_3a/pool
I0403 15:31:37.516165 15253 net.cpp:91] Creating Layer inception_3a/pool
I0403 15:31:37.516182 15253 net.cpp:425] inception_3a/pool <- pool2/3x3_s2_pool2/3x3_s2_0_split_3
I0403 15:31:37.516216 15253 net.cpp:399] inception_3a/pool -> inception_3a/pool
I0403 15:31:37.516278 15253 net.cpp:141] Setting up inception_3a/pool
I0403 15:31:37.516302 15253 net.cpp:148] Top shape: 24 192 28 28 (3612672)
I0403 15:31:37.516317 15253 net.cpp:156] Memory required for data: 556352544
I0403 15:31:37.516332 15253 layer_factory.hpp:77] Creating layer inception_3a/pool_proj
I0403 15:31:37.516355 15253 net.cpp:91] Creating Layer inception_3a/pool_proj
I0403 15:31:37.516373 15253 net.cpp:425] inception_3a/pool_proj <- inception_3a/pool
I0403 15:31:37.516396 15253 net.cpp:399] inception_3a/pool_proj -> inception_3a/pool_proj
I0403 15:31:37.517385 15253 net.cpp:141] Setting up inception_3a/pool_proj
I0403 15:31:37.517416 15253 net.cpp:148] Top shape: 24 32 28 28 (602112)
I0403 15:31:37.517434 15253 net.cpp:156] Memory required for data: 558760992
I0403 15:31:37.517457 15253 layer_factory.hpp:77] Creating layer inception_3a/relu_pool_proj
I0403 15:31:37.517480 15253 net.cpp:91] Creating Layer inception_3a/relu_pool_proj
I0403 15:31:37.517498 15253 net.cpp:425] inception_3a/relu_pool_proj <- inception_3a/pool_proj
I0403 15:31:37.517523 15253 net.cpp:386] inception_3a/relu_pool_proj -> inception_3a/pool_proj (in-place)
I0403 15:31:37.517802 15253 net.cpp:141] Setting up inception_3a/relu_pool_proj
I0403 15:31:37.517829 15253 net.cpp:148] Top shape: 24 32 28 28 (602112)
I0403 15:31:37.517845 15253 net.cpp:156] Memory required for data: 561169440
I0403 15:31:37.517861 15253 layer_factory.hpp:77] Creating layer inception_3a/output
I0403 15:31:37.517880 15253 net.cpp:91] Creating Layer inception_3a/output
I0403 15:31:37.517896 15253 net.cpp:425] inception_3a/output <- inception_3a/1x1
I0403 15:31:37.517915 15253 net.cpp:425] inception_3a/output <- inception_3a/3x3
I0403 15:31:37.517931 15253 net.cpp:425] inception_3a/output <- inception_3a/5x5
I0403 15:31:37.517949 15253 net.cpp:425] inception_3a/output <- inception_3a/pool_proj
I0403 15:31:37.517971 15253 net.cpp:399] inception_3a/output -> inception_3a/output
I0403 15:31:37.518018 15253 net.cpp:141] Setting up inception_3a/output
I0403 15:31:37.518045 15253 net.cpp:148] Top shape: 24 256 28 28 (4816896)
I0403 15:31:37.518062 15253 net.cpp:156] Memory required for data: 580437024
I0403 15:31:37.518077 15253 layer_factory.hpp:77] Creating layer inception_3a/output_inception_3a/output_0_split
I0403 15:31:37.518096 15253 net.cpp:91] Creating Layer inception_3a/output_inception_3a/output_0_split
I0403 15:31:37.518112 15253 net.cpp:425] inception_3a/output_inception_3a/output_0_split <- inception_3a/output
I0403 15:31:37.518131 15253 net.cpp:399] inception_3a/output_inception_3a/output_0_split -> inception_3a/output_inception_3a/output_0_split_0
I0403 15:31:37.518151 15253 net.cpp:399] inception_3a/output_inception_3a/output_0_split -> inception_3a/output_inception_3a/output_0_split_1
I0403 15:31:37.518177 15253 net.cpp:399] inception_3a/output_inception_3a/output_0_split -> inception_3a/output_inception_3a/output_0_split_2
I0403 15:31:37.518199 15253 net.cpp:399] inception_3a/output_inception_3a/output_0_split -> inception_3a/output_inception_3a/output_0_split_3
I0403 15:31:37.518277 15253 net.cpp:141] Setting up inception_3a/output_inception_3a/output_0_split
I0403 15:31:37.518303 15253 net.cpp:148] Top shape: 24 256 28 28 (4816896)
I0403 15:31:37.518322 15253 net.cpp:148] Top shape: 24 256 28 28 (4816896)
I0403 15:31:37.518339 15253 net.cpp:148] Top shape: 24 256 28 28 (4816896)
I0403 15:31:37.518355 15253 net.cpp:148] Top shape: 24 256 28 28 (4816896)
I0403 15:31:37.518370 15253 net.cpp:156] Memory required for data: 657507360
I0403 15:31:37.518385 15253 layer_factory.hpp:77] Creating layer inception_3b/1x1
I0403 15:31:37.518409 15253 net.cpp:91] Creating Layer inception_3b/1x1
I0403 15:31:37.518427 15253 net.cpp:425] inception_3b/1x1 <- inception_3a/output_inception_3a/output_0_split_0
I0403 15:31:37.518447 15253 net.cpp:399] inception_3b/1x1 -> inception_3b/1x1
I0403 15:31:37.519606 15253 net.cpp:141] Setting up inception_3b/1x1
I0403 15:31:37.519649 15253 net.cpp:148] Top shape: 24 128 28 28 (2408448)
I0403 15:31:37.519667 15253 net.cpp:156] Memory required for data: 667141152
I0403 15:31:37.519687 15253 layer_factory.hpp:77] Creating layer inception_3b/relu_1x1
I0403 15:31:37.519706 15253 net.cpp:91] Creating Layer inception_3b/relu_1x1
I0403 15:31:37.519722 15253 net.cpp:425] inception_3b/relu_1x1 <- inception_3b/1x1
I0403 15:31:37.519743 15253 net.cpp:386] inception_3b/relu_1x1 -> inception_3b/1x1 (in-place)
I0403 15:31:37.519924 15253 net.cpp:141] Setting up inception_3b/relu_1x1
I0403 15:31:37.519950 15253 net.cpp:148] Top shape: 24 128 28 28 (2408448)
I0403 15:31:37.519966 15253 net.cpp:156] Memory required for data: 676774944
I0403 15:31:37.519982 15253 layer_factory.hpp:77] Creating layer inception_3b/3x3_reduce
I0403 15:31:37.520005 15253 net.cpp:91] Creating Layer inception_3b/3x3_reduce
I0403 15:31:37.520023 15253 net.cpp:425] inception_3b/3x3_reduce <- inception_3a/output_inception_3a/output_0_split_1
I0403 15:31:37.520045 15253 net.cpp:399] inception_3b/3x3_reduce -> inception_3b/3x3_reduce
I0403 15:31:37.521199 15253 net.cpp:141] Setting up inception_3b/3x3_reduce
I0403 15:31:37.521231 15253 net.cpp:148] Top shape: 24 128 28 28 (2408448)
I0403 15:31:37.521250 15253 net.cpp:156] Memory required for data: 686408736
I0403 15:31:37.521270 15253 layer_factory.hpp:77] Creating layer inception_3b/relu_3x3_reduce
I0403 15:31:37.521287 15253 net.cpp:91] Creating Layer inception_3b/relu_3x3_reduce
I0403 15:31:37.521304 15253 net.cpp:425] inception_3b/relu_3x3_reduce <- inception_3b/3x3_reduce
I0403 15:31:37.521322 15253 net.cpp:386] inception_3b/relu_3x3_reduce -> inception_3b/3x3_reduce (in-place)
I0403 15:31:37.521502 15253 net.cpp:141] Setting up inception_3b/relu_3x3_reduce
I0403 15:31:37.521533 15253 net.cpp:148] Top shape: 24 128 28 28 (2408448)
I0403 15:31:37.521548 15253 net.cpp:156] Memory required for data: 696042528
I0403 15:31:37.521564 15253 layer_factory.hpp:77] Creating layer inception_3b/3x3
I0403 15:31:37.521589 15253 net.cpp:91] Creating Layer inception_3b/3x3
I0403 15:31:37.521610 15253 net.cpp:425] inception_3b/3x3 <- inception_3b/3x3_reduce
I0403 15:31:37.521632 15253 net.cpp:399] inception_3b/3x3 -> inception_3b/3x3
I0403 15:31:37.524618 15253 net.cpp:141] Setting up inception_3b/3x3
I0403 15:31:37.524648 15253 net.cpp:148] Top shape: 24 192 28 28 (3612672)
I0403 15:31:37.524665 15253 net.cpp:156] Memory required for data: 710493216
I0403 15:31:37.524684 15253 layer_factory.hpp:77] Creating layer inception_3b/relu_3x3
I0403 15:31:37.524703 15253 net.cpp:91] Creating Layer inception_3b/relu_3x3
I0403 15:31:37.524720 15253 net.cpp:425] inception_3b/relu_3x3 <- inception_3b/3x3
I0403 15:31:37.524741 15253 net.cpp:386] inception_3b/relu_3x3 -> inception_3b/3x3 (in-place)
I0403 15:31:37.525030 15253 net.cpp:141] Setting up inception_3b/relu_3x3
I0403 15:31:37.525056 15253 net.cpp:148] Top shape: 24 192 28 28 (3612672)
I0403 15:31:37.525073 15253 net.cpp:156] Memory required for data: 724943904
I0403 15:31:37.525087 15253 layer_factory.hpp:77] Creating layer inception_3b/5x5_reduce
I0403 15:31:37.525110 15253 net.cpp:91] Creating Layer inception_3b/5x5_reduce
I0403 15:31:37.525127 15253 net.cpp:425] inception_3b/5x5_reduce <- inception_3a/output_inception_3a/output_0_split_2
I0403 15:31:37.525151 15253 net.cpp:399] inception_3b/5x5_reduce -> inception_3b/5x5_reduce
I0403 15:31:37.526175 15253 net.cpp:141] Setting up inception_3b/5x5_reduce
I0403 15:31:37.526203 15253 net.cpp:148] Top shape: 24 32 28 28 (602112)
I0403 15:31:37.526218 15253 net.cpp:156] Memory required for data: 727352352
I0403 15:31:37.526238 15253 layer_factory.hpp:77] Creating layer inception_3b/relu_5x5_reduce
I0403 15:31:37.526255 15253 net.cpp:91] Creating Layer inception_3b/relu_5x5_reduce
I0403 15:31:37.526273 15253 net.cpp:425] inception_3b/relu_5x5_reduce <- inception_3b/5x5_reduce
I0403 15:31:37.526293 15253 net.cpp:386] inception_3b/relu_5x5_reduce -> inception_3b/5x5_reduce (in-place)
I0403 15:31:37.526468 15253 net.cpp:141] Setting up inception_3b/relu_5x5_reduce
I0403 15:31:37.526509 15253 net.cpp:148] Top shape: 24 32 28 28 (602112)
I0403 15:31:37.526526 15253 net.cpp:156] Memory required for data: 729760800
I0403 15:31:37.526541 15253 layer_factory.hpp:77] Creating layer inception_3b/5x5
I0403 15:31:37.526566 15253 net.cpp:91] Creating Layer inception_3b/5x5
I0403 15:31:37.526582 15253 net.cpp:425] inception_3b/5x5 <- inception_3b/5x5_reduce
I0403 15:31:37.526604 15253 net.cpp:399] inception_3b/5x5 -> inception_3b/5x5
I0403 15:31:37.528569 15253 net.cpp:141] Setting up inception_3b/5x5
I0403 15:31:37.528601 15253 net.cpp:148] Top shape: 24 96 28 28 (1806336)
I0403 15:31:37.528619 15253 net.cpp:156] Memory required for data: 736986144
I0403 15:31:37.528637 15253 layer_factory.hpp:77] Creating layer inception_3b/relu_5x5
I0403 15:31:37.528656 15253 net.cpp:91] Creating Layer inception_3b/relu_5x5
I0403 15:31:37.528672 15253 net.cpp:425] inception_3b/relu_5x5 <- inception_3b/5x5
I0403 15:31:37.528689 15253 net.cpp:386] inception_3b/relu_5x5 -> inception_3b/5x5 (in-place)
I0403 15:31:37.528882 15253 net.cpp:141] Setting up inception_3b/relu_5x5
I0403 15:31:37.528906 15253 net.cpp:148] Top shape: 24 96 28 28 (1806336)
I0403 15:31:37.528923 15253 net.cpp:156] Memory required for data: 744211488
I0403 15:31:37.528937 15253 layer_factory.hpp:77] Creating layer inception_3b/pool
I0403 15:31:37.528955 15253 net.cpp:91] Creating Layer inception_3b/pool
I0403 15:31:37.528971 15253 net.cpp:425] inception_3b/pool <- inception_3a/output_inception_3a/output_0_split_3
I0403 15:31:37.528990 15253 net.cpp:399] inception_3b/pool -> inception_3b/pool
I0403 15:31:37.529045 15253 net.cpp:141] Setting up inception_3b/pool
I0403 15:31:37.529072 15253 net.cpp:148] Top shape: 24 256 28 28 (4816896)
I0403 15:31:37.529088 15253 net.cpp:156] Memory required for data: 763479072
I0403 15:31:37.529104 15253 layer_factory.hpp:77] Creating layer inception_3b/pool_proj
I0403 15:31:37.529126 15253 net.cpp:91] Creating Layer inception_3b/pool_proj
I0403 15:31:37.529145 15253 net.cpp:425] inception_3b/pool_proj <- inception_3b/pool
I0403 15:31:37.529163 15253 net.cpp:399] inception_3b/pool_proj -> inception_3b/pool_proj
I0403 15:31:37.530217 15253 net.cpp:141] Setting up inception_3b/pool_proj
I0403 15:31:37.530244 15253 net.cpp:148] Top shape: 24 64 28 28 (1204224)
I0403 15:31:37.530261 15253 net.cpp:156] Memory required for data: 768295968
I0403 15:31:37.530279 15253 layer_factory.hpp:77] Creating layer inception_3b/relu_pool_proj
I0403 15:31:37.530300 15253 net.cpp:91] Creating Layer inception_3b/relu_pool_proj
I0403 15:31:37.530318 15253 net.cpp:425] inception_3b/relu_pool_proj <- inception_3b/pool_proj
I0403 15:31:37.530336 15253 net.cpp:386] inception_3b/relu_pool_proj -> inception_3b/pool_proj (in-place)
I0403 15:31:37.530740 15253 net.cpp:141] Setting up inception_3b/relu_pool_proj
I0403 15:31:37.530766 15253 net.cpp:148] Top shape: 24 64 28 28 (1204224)
I0403 15:31:37.530782 15253 net.cpp:156] Memory required for data: 773112864
I0403 15:31:37.530798 15253 layer_factory.hpp:77] Creating layer inception_3b/output
I0403 15:31:37.530815 15253 net.cpp:91] Creating Layer inception_3b/output
I0403 15:31:37.530832 15253 net.cpp:425] inception_3b/output <- inception_3b/1x1
I0403 15:31:37.530848 15253 net.cpp:425] inception_3b/output <- inception_3b/3x3
I0403 15:31:37.530864 15253 net.cpp:425] inception_3b/output <- inception_3b/5x5
I0403 15:31:37.530881 15253 net.cpp:425] inception_3b/output <- inception_3b/pool_proj
I0403 15:31:37.530901 15253 net.cpp:399] inception_3b/output -> inception_3b/output
I0403 15:31:37.530948 15253 net.cpp:141] Setting up inception_3b/output
I0403 15:31:37.530972 15253 net.cpp:148] Top shape: 24 480 28 28 (9031680)
I0403 15:31:37.530987 15253 net.cpp:156] Memory required for data: 809239584
I0403 15:31:37.531002 15253 layer_factory.hpp:77] Creating layer pool3/3x3_s2
I0403 15:31:37.531019 15253 net.cpp:91] Creating Layer pool3/3x3_s2
I0403 15:31:37.531036 15253 net.cpp:425] pool3/3x3_s2 <- inception_3b/output
I0403 15:31:37.531056 15253 net.cpp:399] pool3/3x3_s2 -> pool3/3x3_s2
I0403 15:31:37.531128 15253 net.cpp:141] Setting up pool3/3x3_s2
I0403 15:31:37.531152 15253 net.cpp:148] Top shape: 24 480 14 14 (2257920)
I0403 15:31:37.531168 15253 net.cpp:156] Memory required for data: 818271264
I0403 15:31:37.531183 15253 layer_factory.hpp:77] Creating layer pool3/3x3_s2_pool3/3x3_s2_0_split
I0403 15:31:37.531203 15253 net.cpp:91] Creating Layer pool3/3x3_s2_pool3/3x3_s2_0_split
I0403 15:31:37.531219 15253 net.cpp:425] pool3/3x3_s2_pool3/3x3_s2_0_split <- pool3/3x3_s2
I0403 15:31:37.531236 15253 net.cpp:399] pool3/3x3_s2_pool3/3x3_s2_0_split -> pool3/3x3_s2_pool3/3x3_s2_0_split_0
I0403 15:31:37.531257 15253 net.cpp:399] pool3/3x3_s2_pool3/3x3_s2_0_split -> pool3/3x3_s2_pool3/3x3_s2_0_split_1
I0403 15:31:37.531280 15253 net.cpp:399] pool3/3x3_s2_pool3/3x3_s2_0_split -> pool3/3x3_s2_pool3/3x3_s2_0_split_2
I0403 15:31:37.531301 15253 net.cpp:399] pool3/3x3_s2_pool3/3x3_s2_0_split -> pool3/3x3_s2_pool3/3x3_s2_0_split_3
I0403 15:31:37.531376 15253 net.cpp:141] Setting up pool3/3x3_s2_pool3/3x3_s2_0_split
I0403 15:31:37.531399 15253 net.cpp:148] Top shape: 24 480 14 14 (2257920)
I0403 15:31:37.531416 15253 net.cpp:148] Top shape: 24 480 14 14 (2257920)
I0403 15:31:37.531432 15253 net.cpp:148] Top shape: 24 480 14 14 (2257920)
I0403 15:31:37.531448 15253 net.cpp:148] Top shape: 24 480 14 14 (2257920)
I0403 15:31:37.531462 15253 net.cpp:156] Memory required for data: 854397984
I0403 15:31:37.531477 15253 layer_factory.hpp:77] Creating layer inception_4a/1x1
I0403 15:31:37.531499 15253 net.cpp:91] Creating Layer inception_4a/1x1
I0403 15:31:37.531522 15253 net.cpp:425] inception_4a/1x1 <- pool3/3x3_s2_pool3/3x3_s2_0_split_0
I0403 15:31:37.531544 15253 net.cpp:399] inception_4a/1x1 -> inception_4a/1x1
I0403 15:31:37.533099 15253 net.cpp:141] Setting up inception_4a/1x1
I0403 15:31:37.533128 15253 net.cpp:148] Top shape: 24 192 14 14 (903168)
I0403 15:31:37.533143 15253 net.cpp:156] Memory required for data: 858010656
I0403 15:31:37.533162 15253 layer_factory.hpp:77] Creating layer inception_4a/relu_1x1
I0403 15:31:37.533182 15253 net.cpp:91] Creating Layer inception_4a/relu_1x1
I0403 15:31:37.533200 15253 net.cpp:425] inception_4a/relu_1x1 <- inception_4a/1x1
I0403 15:31:37.533217 15253 net.cpp:386] inception_4a/relu_1x1 -> inception_4a/1x1 (in-place)
I0403 15:31:37.533393 15253 net.cpp:141] Setting up inception_4a/relu_1x1
I0403 15:31:37.533421 15253 net.cpp:148] Top shape: 24 192 14 14 (903168)
I0403 15:31:37.533437 15253 net.cpp:156] Memory required for data: 861623328
I0403 15:31:37.533453 15253 layer_factory.hpp:77] Creating layer inception_4a/3x3_reduce
I0403 15:31:37.533476 15253 net.cpp:91] Creating Layer inception_4a/3x3_reduce
I0403 15:31:37.533494 15253 net.cpp:425] inception_4a/3x3_reduce <- pool3/3x3_s2_pool3/3x3_s2_0_split_1
I0403 15:31:37.533517 15253 net.cpp:399] inception_4a/3x3_reduce -> inception_4a/3x3_reduce
I0403 15:31:37.534775 15253 net.cpp:141] Setting up inception_4a/3x3_reduce
I0403 15:31:37.534803 15253 net.cpp:148] Top shape: 24 96 14 14 (451584)
I0403 15:31:37.534819 15253 net.cpp:156] Memory required for data: 863429664
I0403 15:31:37.534844 15253 layer_factory.hpp:77] Creating layer inception_4a/relu_3x3_reduce
I0403 15:31:37.534868 15253 net.cpp:91] Creating Layer inception_4a/relu_3x3_reduce
I0403 15:31:37.534885 15253 net.cpp:425] inception_4a/relu_3x3_reduce <- inception_4a/3x3_reduce
I0403 15:31:37.534903 15253 net.cpp:386] inception_4a/relu_3x3_reduce -> inception_4a/3x3_reduce (in-place)
I0403 15:31:37.535078 15253 net.cpp:141] Setting up inception_4a/relu_3x3_reduce
I0403 15:31:37.535104 15253 net.cpp:148] Top shape: 24 96 14 14 (451584)
I0403 15:31:37.535120 15253 net.cpp:156] Memory required for data: 865236000
I0403 15:31:37.535133 15253 layer_factory.hpp:77] Creating layer inception_4a/3x3
I0403 15:31:37.535157 15253 net.cpp:91] Creating Layer inception_4a/3x3
I0403 15:31:37.535176 15253 net.cpp:425] inception_4a/3x3 <- inception_4a/3x3_reduce
I0403 15:31:37.535195 15253 net.cpp:399] inception_4a/3x3 -> inception_4a/3x3
I0403 15:31:37.537853 15253 net.cpp:141] Setting up inception_4a/3x3
I0403 15:31:37.537885 15253 net.cpp:148] Top shape: 24 208 14 14 (978432)
I0403 15:31:37.537904 15253 net.cpp:156] Memory required for data: 869149728
I0403 15:31:37.537924 15253 layer_factory.hpp:77] Creating layer inception_4a/relu_3x3
I0403 15:31:37.537942 15253 net.cpp:91] Creating Layer inception_4a/relu_3x3
I0403 15:31:37.537960 15253 net.cpp:425] inception_4a/relu_3x3 <- inception_4a/3x3
I0403 15:31:37.537978 15253 net.cpp:386] inception_4a/relu_3x3 -> inception_4a/3x3 (in-place)
I0403 15:31:37.538256 15253 net.cpp:141] Setting up inception_4a/relu_3x3
I0403 15:31:37.538285 15253 net.cpp:148] Top shape: 24 208 14 14 (978432)
I0403 15:31:37.538302 15253 net.cpp:156] Memory required for data: 873063456
I0403 15:31:37.538317 15253 layer_factory.hpp:77] Creating layer inception_4a/5x5_reduce
I0403 15:31:37.538341 15253 net.cpp:91] Creating Layer inception_4a/5x5_reduce
I0403 15:31:37.538358 15253 net.cpp:425] inception_4a/5x5_reduce <- pool3/3x3_s2_pool3/3x3_s2_0_split_2
I0403 15:31:37.538378 15253 net.cpp:399] inception_4a/5x5_reduce -> inception_4a/5x5_reduce
I0403 15:31:37.539386 15253 net.cpp:141] Setting up inception_4a/5x5_reduce
I0403 15:31:37.539413 15253 net.cpp:148] Top shape: 24 16 14 14 (75264)
I0403 15:31:37.539430 15253 net.cpp:156] Memory required for data: 873364512
I0403 15:31:37.539448 15253 layer_factory.hpp:77] Creating layer inception_4a/relu_5x5_reduce
I0403 15:31:37.539468 15253 net.cpp:91] Creating Layer inception_4a/relu_5x5_reduce
I0403 15:31:37.539484 15253 net.cpp:425] inception_4a/relu_5x5_reduce <- inception_4a/5x5_reduce
I0403 15:31:37.539507 15253 net.cpp:386] inception_4a/relu_5x5_reduce -> inception_4a/5x5_reduce (in-place)
I0403 15:31:37.539686 15253 net.cpp:141] Setting up inception_4a/relu_5x5_reduce
I0403 15:31:37.539711 15253 net.cpp:148] Top shape: 24 16 14 14 (75264)
I0403 15:31:37.539727 15253 net.cpp:156] Memory required for data: 873665568
I0403 15:31:37.539742 15253 layer_factory.hpp:77] Creating layer inception_4a/5x5
I0403 15:31:37.539764 15253 net.cpp:91] Creating Layer inception_4a/5x5
I0403 15:31:37.539783 15253 net.cpp:425] inception_4a/5x5 <- inception_4a/5x5_reduce
I0403 15:31:37.539803 15253 net.cpp:399] inception_4a/5x5 -> inception_4a/5x5
I0403 15:31:37.540868 15253 net.cpp:141] Setting up inception_4a/5x5
I0403 15:31:37.540895 15253 net.cpp:148] Top shape: 24 48 14 14 (225792)
I0403 15:31:37.540910 15253 net.cpp:156] Memory required for data: 874568736
I0403 15:31:37.540930 15253 layer_factory.hpp:77] Creating layer inception_4a/relu_5x5
I0403 15:31:37.540951 15253 net.cpp:91] Creating Layer inception_4a/relu_5x5
I0403 15:31:37.540968 15253 net.cpp:425] inception_4a/relu_5x5 <- inception_4a/5x5
I0403 15:31:37.540987 15253 net.cpp:386] inception_4a/relu_5x5 -> inception_4a/5x5 (in-place)
I0403 15:31:37.541162 15253 net.cpp:141] Setting up inception_4a/relu_5x5
I0403 15:31:37.541188 15253 net.cpp:148] Top shape: 24 48 14 14 (225792)
I0403 15:31:37.541205 15253 net.cpp:156] Memory required for data: 875471904
I0403 15:31:37.541220 15253 layer_factory.hpp:77] Creating layer inception_4a/pool
I0403 15:31:37.541239 15253 net.cpp:91] Creating Layer inception_4a/pool
I0403 15:31:37.541255 15253 net.cpp:425] inception_4a/pool <- pool3/3x3_s2_pool3/3x3_s2_0_split_3
I0403 15:31:37.541272 15253 net.cpp:399] inception_4a/pool -> inception_4a/pool
I0403 15:31:37.541338 15253 net.cpp:141] Setting up inception_4a/pool
I0403 15:31:37.541363 15253 net.cpp:148] Top shape: 24 480 14 14 (2257920)
I0403 15:31:37.541378 15253 net.cpp:156] Memory required for data: 884503584
I0403 15:31:37.541393 15253 layer_factory.hpp:77] Creating layer inception_4a/pool_proj
I0403 15:31:37.541425 15253 net.cpp:91] Creating Layer inception_4a/pool_proj
I0403 15:31:37.541443 15253 net.cpp:425] inception_4a/pool_proj <- inception_4a/pool
I0403 15:31:37.541465 15253 net.cpp:399] inception_4a/pool_proj -> inception_4a/pool_proj
I0403 15:31:37.542700 15253 net.cpp:141] Setting up inception_4a/pool_proj
I0403 15:31:37.542727 15253 net.cpp:148] Top shape: 24 64 14 14 (301056)
I0403 15:31:37.542758 15253 net.cpp:156] Memory required for data: 885707808
I0403 15:31:37.542778 15253 layer_factory.hpp:77] Creating layer inception_4a/relu_pool_proj
I0403 15:31:37.542800 15253 net.cpp:91] Creating Layer inception_4a/relu_pool_proj
I0403 15:31:37.542817 15253 net.cpp:425] inception_4a/relu_pool_proj <- inception_4a/pool_proj
I0403 15:31:37.542834 15253 net.cpp:386] inception_4a/relu_pool_proj -> inception_4a/pool_proj (in-place)
I0403 15:31:37.543112 15253 net.cpp:141] Setting up inception_4a/relu_pool_proj
I0403 15:31:37.543139 15253 net.cpp:148] Top shape: 24 64 14 14 (301056)
I0403 15:31:37.543155 15253 net.cpp:156] Memory required for data: 886912032
I0403 15:31:37.543170 15253 layer_factory.hpp:77] Creating layer inception_4a/output
I0403 15:31:37.543190 15253 net.cpp:91] Creating Layer inception_4a/output
I0403 15:31:37.543206 15253 net.cpp:425] inception_4a/output <- inception_4a/1x1
I0403 15:31:37.543222 15253 net.cpp:425] inception_4a/output <- inception_4a/3x3
I0403 15:31:37.543241 15253 net.cpp:425] inception_4a/output <- inception_4a/5x5
I0403 15:31:37.543256 15253 net.cpp:425] inception_4a/output <- inception_4a/pool_proj
I0403 15:31:37.543274 15253 net.cpp:399] inception_4a/output -> inception_4a/output
I0403 15:31:37.543320 15253 net.cpp:141] Setting up inception_4a/output
I0403 15:31:37.543344 15253 net.cpp:148] Top shape: 24 512 14 14 (2408448)
I0403 15:31:37.543359 15253 net.cpp:156] Memory required for data: 896545824
I0403 15:31:37.543375 15253 layer_factory.hpp:77] Creating layer inception_4a/output_inception_4a/output_0_split
I0403 15:31:37.543392 15253 net.cpp:91] Creating Layer inception_4a/output_inception_4a/output_0_split
I0403 15:31:37.543407 15253 net.cpp:425] inception_4a/output_inception_4a/output_0_split <- inception_4a/output
I0403 15:31:37.543427 15253 net.cpp:399] inception_4a/output_inception_4a/output_0_split -> inception_4a/output_inception_4a/output_0_split_0
I0403 15:31:37.543450 15253 net.cpp:399] inception_4a/output_inception_4a/output_0_split -> inception_4a/output_inception_4a/output_0_split_1
I0403 15:31:37.543472 15253 net.cpp:399] inception_4a/output_inception_4a/output_0_split -> inception_4a/output_inception_4a/output_0_split_2
I0403 15:31:37.543493 15253 net.cpp:399] inception_4a/output_inception_4a/output_0_split -> inception_4a/output_inception_4a/output_0_split_3
I0403 15:31:37.543519 15253 net.cpp:399] inception_4a/output_inception_4a/output_0_split -> inception_4a/output_inception_4a/output_0_split_4
I0403 15:31:37.543615 15253 net.cpp:141] Setting up inception_4a/output_inception_4a/output_0_split
I0403 15:31:37.543639 15253 net.cpp:148] Top shape: 24 512 14 14 (2408448)
I0403 15:31:37.543656 15253 net.cpp:148] Top shape: 24 512 14 14 (2408448)
I0403 15:31:37.543673 15253 net.cpp:148] Top shape: 24 512 14 14 (2408448)
I0403 15:31:37.543689 15253 net.cpp:148] Top shape: 24 512 14 14 (2408448)
I0403 15:31:37.543704 15253 net.cpp:148] Top shape: 24 512 14 14 (2408448)
I0403 15:31:37.543717 15253 net.cpp:156] Memory required for data: 944714784
I0403 15:31:37.543732 15253 layer_factory.hpp:77] Creating layer loss1/ave_pool
I0403 15:31:37.543751 15253 net.cpp:91] Creating Layer loss1/ave_pool
I0403 15:31:37.543766 15253 net.cpp:425] loss1/ave_pool <- inception_4a/output_inception_4a/output_0_split_0
I0403 15:31:37.543786 15253 net.cpp:399] loss1/ave_pool -> loss1/ave_pool
I0403 15:31:37.543988 15253 net.cpp:141] Setting up loss1/ave_pool
I0403 15:31:37.544014 15253 net.cpp:148] Top shape: 24 512 4 4 (196608)
I0403 15:31:37.544029 15253 net.cpp:156] Memory required for data: 945501216
I0403 15:31:37.544044 15253 layer_factory.hpp:77] Creating layer loss1/conv
I0403 15:31:37.544066 15253 net.cpp:91] Creating Layer loss1/conv
I0403 15:31:37.544085 15253 net.cpp:425] loss1/conv <- loss1/ave_pool
I0403 15:31:37.544106 15253 net.cpp:399] loss1/conv -> loss1/conv
I0403 15:31:37.545503 15253 net.cpp:141] Setting up loss1/conv
I0403 15:31:37.545544 15253 net.cpp:148] Top shape: 24 128 4 4 (49152)
I0403 15:31:37.545562 15253 net.cpp:156] Memory required for data: 945697824
I0403 15:31:37.545594 15253 layer_factory.hpp:77] Creating layer loss1/relu_conv
I0403 15:31:37.545614 15253 net.cpp:91] Creating Layer loss1/relu_conv
I0403 15:31:37.545630 15253 net.cpp:425] loss1/relu_conv <- loss1/conv
I0403 15:31:37.545650 15253 net.cpp:386] loss1/relu_conv -> loss1/conv (in-place)
I0403 15:31:37.545933 15253 net.cpp:141] Setting up loss1/relu_conv
I0403 15:31:37.545961 15253 net.cpp:148] Top shape: 24 128 4 4 (49152)
I0403 15:31:37.545977 15253 net.cpp:156] Memory required for data: 945894432
I0403 15:31:37.545994 15253 layer_factory.hpp:77] Creating layer loss1/fc
I0403 15:31:37.546016 15253 net.cpp:91] Creating Layer loss1/fc
I0403 15:31:37.546035 15253 net.cpp:425] loss1/fc <- loss1/conv
I0403 15:31:37.546056 15253 net.cpp:399] loss1/fc -> loss1/fc
I0403 15:31:37.563705 15253 net.cpp:141] Setting up loss1/fc
I0403 15:31:37.563740 15253 net.cpp:148] Top shape: 24 1024 (24576)
I0403 15:31:37.563758 15253 net.cpp:156] Memory required for data: 945992736
I0403 15:31:37.563777 15253 layer_factory.hpp:77] Creating layer loss1/relu_fc
I0403 15:31:37.563796 15253 net.cpp:91] Creating Layer loss1/relu_fc
I0403 15:31:37.563813 15253 net.cpp:425] loss1/relu_fc <- loss1/fc
I0403 15:31:37.563830 15253 net.cpp:386] loss1/relu_fc -> loss1/fc (in-place)
I0403 15:31:37.564016 15253 net.cpp:141] Setting up loss1/relu_fc
I0403 15:31:37.564043 15253 net.cpp:148] Top shape: 24 1024 (24576)
I0403 15:31:37.564059 15253 net.cpp:156] Memory required for data: 946091040
I0403 15:31:37.564074 15253 layer_factory.hpp:77] Creating layer loss1/drop_fc
I0403 15:31:37.564100 15253 net.cpp:91] Creating Layer loss1/drop_fc
I0403 15:31:37.564116 15253 net.cpp:425] loss1/drop_fc <- loss1/fc
I0403 15:31:37.564133 15253 net.cpp:386] loss1/drop_fc -> loss1/fc (in-place)
I0403 15:31:37.564184 15253 net.cpp:141] Setting up loss1/drop_fc
I0403 15:31:37.564208 15253 net.cpp:148] Top shape: 24 1024 (24576)
I0403 15:31:37.564223 15253 net.cpp:156] Memory required for data: 946189344
I0403 15:31:37.564237 15253 layer_factory.hpp:77] Creating layer loss1/classifier_plantvillage
I0403 15:31:37.564262 15253 net.cpp:91] Creating Layer loss1/classifier_plantvillage
I0403 15:31:37.564280 15253 net.cpp:425] loss1/classifier_plantvillage <- loss1/fc
I0403 15:31:37.564297 15253 net.cpp:399] loss1/classifier_plantvillage -> loss1/classifier_plantvillage
I0403 15:31:37.565183 15253 net.cpp:141] Setting up loss1/classifier_plantvillage
I0403 15:31:37.565213 15253 net.cpp:148] Top shape: 24 38 (912)
I0403 15:31:37.565230 15253 net.cpp:156] Memory required for data: 946192992
I0403 15:31:37.565248 15253 layer_factory.hpp:77] Creating layer loss1/classifier_plantvillage_loss1/classifier_plantvillage_0_split
I0403 15:31:37.565266 15253 net.cpp:91] Creating Layer loss1/classifier_plantvillage_loss1/classifier_plantvillage_0_split
I0403 15:31:37.565282 15253 net.cpp:425] loss1/classifier_plantvillage_loss1/classifier_plantvillage_0_split <- loss1/classifier_plantvillage
I0403 15:31:37.565299 15253 net.cpp:399] loss1/classifier_plantvillage_loss1/classifier_plantvillage_0_split -> loss1/classifier_plantvillage_loss1/classifier_plantvillage_0_split_0
I0403 15:31:37.565320 15253 net.cpp:399] loss1/classifier_plantvillage_loss1/classifier_plantvillage_0_split -> loss1/classifier_plantvillage_loss1/classifier_plantvillage_0_split_1
I0403 15:31:37.565342 15253 net.cpp:399] loss1/classifier_plantvillage_loss1/classifier_plantvillage_0_split -> loss1/classifier_plantvillage_loss1/classifier_plantvillage_0_split_2
I0403 15:31:37.565407 15253 net.cpp:141] Setting up loss1/classifier_plantvillage_loss1/classifier_plantvillage_0_split
I0403 15:31:37.565430 15253 net.cpp:148] Top shape: 24 38 (912)
I0403 15:31:37.565446 15253 net.cpp:148] Top shape: 24 38 (912)
I0403 15:31:37.565462 15253 net.cpp:148] Top shape: 24 38 (912)
I0403 15:31:37.565475 15253 net.cpp:156] Memory required for data: 946203936
I0403 15:31:37.565490 15253 layer_factory.hpp:77] Creating layer inception_4b/1x1
I0403 15:31:37.565518 15253 net.cpp:91] Creating Layer inception_4b/1x1
I0403 15:31:37.565553 15253 net.cpp:425] inception_4b/1x1 <- inception_4a/output_inception_4a/output_0_split_1
I0403 15:31:37.565575 15253 net.cpp:399] inception_4b/1x1 -> inception_4b/1x1
I0403 15:31:37.567155 15253 net.cpp:141] Setting up inception_4b/1x1
I0403 15:31:37.567183 15253 net.cpp:148] Top shape: 24 160 14 14 (752640)
I0403 15:31:37.567198 15253 net.cpp:156] Memory required for data: 949214496
I0403 15:31:37.567216 15253 layer_factory.hpp:77] Creating layer inception_4b/relu_1x1
I0403 15:31:37.567234 15253 net.cpp:91] Creating Layer inception_4b/relu_1x1
I0403 15:31:37.567250 15253 net.cpp:425] inception_4b/relu_1x1 <- inception_4b/1x1
I0403 15:31:37.567270 15253 net.cpp:386] inception_4b/relu_1x1 -> inception_4b/1x1 (in-place)
I0403 15:31:37.567445 15253 net.cpp:141] Setting up inception_4b/relu_1x1
I0403 15:31:37.567469 15253 net.cpp:148] Top shape: 24 160 14 14 (752640)
I0403 15:31:37.567484 15253 net.cpp:156] Memory required for data: 952225056
I0403 15:31:37.567499 15253 layer_factory.hpp:77] Creating layer inception_4b/3x3_reduce
I0403 15:31:37.567526 15253 net.cpp:91] Creating Layer inception_4b/3x3_reduce
I0403 15:31:37.567544 15253 net.cpp:425] inception_4b/3x3_reduce <- inception_4a/output_inception_4a/output_0_split_2
I0403 15:31:37.567567 15253 net.cpp:399] inception_4b/3x3_reduce -> inception_4b/3x3_reduce
I0403 15:31:37.568861 15253 net.cpp:141] Setting up inception_4b/3x3_reduce
I0403 15:31:37.568889 15253 net.cpp:148] Top shape: 24 112 14 14 (526848)
I0403 15:31:37.568904 15253 net.cpp:156] Memory required for data: 954332448
I0403 15:31:37.568923 15253 layer_factory.hpp:77] Creating layer inception_4b/relu_3x3_reduce
I0403 15:31:37.568943 15253 net.cpp:91] Creating Layer inception_4b/relu_3x3_reduce
I0403 15:31:37.568960 15253 net.cpp:425] inception_4b/relu_3x3_reduce <- inception_4b/3x3_reduce
I0403 15:31:37.568977 15253 net.cpp:386] inception_4b/relu_3x3_reduce -> inception_4b/3x3_reduce (in-place)
I0403 15:31:37.569247 15253 net.cpp:141] Setting up inception_4b/relu_3x3_reduce
I0403 15:31:37.569272 15253 net.cpp:148] Top shape: 24 112 14 14 (526848)
I0403 15:31:37.569286 15253 net.cpp:156] Memory required for data: 956439840
I0403 15:31:37.569301 15253 layer_factory.hpp:77] Creating layer inception_4b/3x3
I0403 15:31:37.569322 15253 net.cpp:91] Creating Layer inception_4b/3x3
I0403 15:31:37.569340 15253 net.cpp:425] inception_4b/3x3 <- inception_4b/3x3_reduce
I0403 15:31:37.569361 15253 net.cpp:399] inception_4b/3x3 -> inception_4b/3x3
I0403 15:31:37.572232 15253 net.cpp:141] Setting up inception_4b/3x3
I0403 15:31:37.572259 15253 net.cpp:148] Top shape: 24 224 14 14 (1053696)
I0403 15:31:37.572275 15253 net.cpp:156] Memory required for data: 960654624
I0403 15:31:37.572293 15253 layer_factory.hpp:77] Creating layer inception_4b/relu_3x3
I0403 15:31:37.572314 15253 net.cpp:91] Creating Layer inception_4b/relu_3x3
I0403 15:31:37.572330 15253 net.cpp:425] inception_4b/relu_3x3 <- inception_4b/3x3
I0403 15:31:37.572347 15253 net.cpp:386] inception_4b/relu_3x3 -> inception_4b/3x3 (in-place)
I0403 15:31:37.572531 15253 net.cpp:141] Setting up inception_4b/relu_3x3
I0403 15:31:37.572558 15253 net.cpp:148] Top shape: 24 224 14 14 (1053696)
I0403 15:31:37.572573 15253 net.cpp:156] Memory required for data: 964869408
I0403 15:31:37.572588 15253 layer_factory.hpp:77] Creating layer inception_4b/5x5_reduce
I0403 15:31:37.572612 15253 net.cpp:91] Creating Layer inception_4b/5x5_reduce
I0403 15:31:37.572629 15253 net.cpp:425] inception_4b/5x5_reduce <- inception_4a/output_inception_4a/output_0_split_3
I0403 15:31:37.572648 15253 net.cpp:399] inception_4b/5x5_reduce -> inception_4b/5x5_reduce
I0403 15:31:37.573734 15253 net.cpp:141] Setting up inception_4b/5x5_reduce
I0403 15:31:37.573762 15253 net.cpp:148] Top shape: 24 24 14 14 (112896)
I0403 15:31:37.573778 15253 net.cpp:156] Memory required for data: 965320992
I0403 15:31:37.573797 15253 layer_factory.hpp:77] Creating layer inception_4b/relu_5x5_reduce
I0403 15:31:37.573815 15253 net.cpp:91] Creating Layer inception_4b/relu_5x5_reduce
I0403 15:31:37.573858 15253 net.cpp:425] inception_4b/relu_5x5_reduce <- inception_4b/5x5_reduce
I0403 15:31:37.573879 15253 net.cpp:386] inception_4b/relu_5x5_reduce -> inception_4b/5x5_reduce (in-place)
I0403 15:31:37.574055 15253 net.cpp:141] Setting up inception_4b/relu_5x5_reduce
I0403 15:31:37.574080 15253 net.cpp:148] Top shape: 24 24 14 14 (112896)
I0403 15:31:37.574095 15253 net.cpp:156] Memory required for data: 965772576
I0403 15:31:37.574110 15253 layer_factory.hpp:77] Creating layer inception_4b/5x5
I0403 15:31:37.574131 15253 net.cpp:91] Creating Layer inception_4b/5x5
I0403 15:31:37.574149 15253 net.cpp:425] inception_4b/5x5 <- inception_4b/5x5_reduce
I0403 15:31:37.574170 15253 net.cpp:399] inception_4b/5x5 -> inception_4b/5x5
I0403 15:31:37.575348 15253 net.cpp:141] Setting up inception_4b/5x5
I0403 15:31:37.575377 15253 net.cpp:148] Top shape: 24 64 14 14 (301056)
I0403 15:31:37.575393 15253 net.cpp:156] Memory required for data: 966976800
I0403 15:31:37.575412 15253 layer_factory.hpp:77] Creating layer inception_4b/relu_5x5
I0403 15:31:37.575428 15253 net.cpp:91] Creating Layer inception_4b/relu_5x5
I0403 15:31:37.575445 15253 net.cpp:425] inception_4b/relu_5x5 <- inception_4b/5x5
I0403 15:31:37.575465 15253 net.cpp:386] inception_4b/relu_5x5 -> inception_4b/5x5 (in-place)
I0403 15:31:37.575757 15253 net.cpp:141] Setting up inception_4b/relu_5x5
I0403 15:31:37.575783 15253 net.cpp:148] Top shape: 24 64 14 14 (301056)
I0403 15:31:37.575798 15253 net.cpp:156] Memory required for data: 968181024
I0403 15:31:37.575814 15253 layer_factory.hpp:77] Creating layer inception_4b/pool
I0403 15:31:37.575831 15253 net.cpp:91] Creating Layer inception_4b/pool
I0403 15:31:37.575847 15253 net.cpp:425] inception_4b/pool <- inception_4a/output_inception_4a/output_0_split_4
I0403 15:31:37.575870 15253 net.cpp:399] inception_4b/pool -> inception_4b/pool
I0403 15:31:37.575934 15253 net.cpp:141] Setting up inception_4b/pool
I0403 15:31:37.575958 15253 net.cpp:148] Top shape: 24 512 14 14 (2408448)
I0403 15:31:37.575973 15253 net.cpp:156] Memory required for data: 977814816
I0403 15:31:37.575986 15253 layer_factory.hpp:77] Creating layer inception_4b/pool_proj
I0403 15:31:37.576009 15253 net.cpp:91] Creating Layer inception_4b/pool_proj
I0403 15:31:37.576027 15253 net.cpp:425] inception_4b/pool_proj <- inception_4b/pool
I0403 15:31:37.576046 15253 net.cpp:399] inception_4b/pool_proj -> inception_4b/pool_proj
I0403 15:31:37.577203 15253 net.cpp:141] Setting up inception_4b/pool_proj
I0403 15:31:37.577229 15253 net.cpp:148] Top shape: 24 64 14 14 (301056)
I0403 15:31:37.577246 15253 net.cpp:156] Memory required for data: 979019040
I0403 15:31:37.577265 15253 layer_factory.hpp:77] Creating layer inception_4b/relu_pool_proj
I0403 15:31:37.577282 15253 net.cpp:91] Creating Layer inception_4b/relu_pool_proj
I0403 15:31:37.577298 15253 net.cpp:425] inception_4b/relu_pool_proj <- inception_4b/pool_proj
I0403 15:31:37.577318 15253 net.cpp:386] inception_4b/relu_pool_proj -> inception_4b/pool_proj (in-place)
I0403 15:31:37.577491 15253 net.cpp:141] Setting up inception_4b/relu_pool_proj
I0403 15:31:37.577520 15253 net.cpp:148] Top shape: 24 64 14 14 (301056)
I0403 15:31:37.577538 15253 net.cpp:156] Memory required for data: 980223264
I0403 15:31:37.577553 15253 layer_factory.hpp:77] Creating layer inception_4b/output
I0403 15:31:37.577571 15253 net.cpp:91] Creating Layer inception_4b/output
I0403 15:31:37.577587 15253 net.cpp:425] inception_4b/output <- inception_4b/1x1
I0403 15:31:37.577605 15253 net.cpp:425] inception_4b/output <- inception_4b/3x3
I0403 15:31:37.577622 15253 net.cpp:425] inception_4b/output <- inception_4b/5x5
I0403 15:31:37.577638 15253 net.cpp:425] inception_4b/output <- inception_4b/pool_proj
I0403 15:31:37.577656 15253 net.cpp:399] inception_4b/output -> inception_4b/output
I0403 15:31:37.577702 15253 net.cpp:141] Setting up inception_4b/output
I0403 15:31:37.577724 15253 net.cpp:148] Top shape: 24 512 14 14 (2408448)
I0403 15:31:37.577739 15253 net.cpp:156] Memory required for data: 989857056
I0403 15:31:37.577767 15253 layer_factory.hpp:77] Creating layer inception_4b/output_inception_4b/output_0_split
I0403 15:31:37.577785 15253 net.cpp:91] Creating Layer inception_4b/output_inception_4b/output_0_split
I0403 15:31:37.577801 15253 net.cpp:425] inception_4b/output_inception_4b/output_0_split <- inception_4b/output
I0403 15:31:37.577821 15253 net.cpp:399] inception_4b/output_inception_4b/output_0_split -> inception_4b/output_inception_4b/output_0_split_0
I0403 15:31:37.577842 15253 net.cpp:399] inception_4b/output_inception_4b/output_0_split -> inception_4b/output_inception_4b/output_0_split_1
I0403 15:31:37.577863 15253 net.cpp:399] inception_4b/output_inception_4b/output_0_split -> inception_4b/output_inception_4b/output_0_split_2
I0403 15:31:37.577883 15253 net.cpp:399] inception_4b/output_inception_4b/output_0_split -> inception_4b/output_inception_4b/output_0_split_3
I0403 15:31:37.577962 15253 net.cpp:141] Setting up inception_4b/output_inception_4b/output_0_split
I0403 15:31:37.577987 15253 net.cpp:148] Top shape: 24 512 14 14 (2408448)
I0403 15:31:37.578004 15253 net.cpp:148] Top shape: 24 512 14 14 (2408448)
I0403 15:31:37.578021 15253 net.cpp:148] Top shape: 24 512 14 14 (2408448)
I0403 15:31:37.578037 15253 net.cpp:148] Top shape: 24 512 14 14 (2408448)
I0403 15:31:37.578049 15253 net.cpp:156] Memory required for data: 1028392224
I0403 15:31:37.578064 15253 layer_factory.hpp:77] Creating layer inception_4c/1x1
I0403 15:31:37.578086 15253 net.cpp:91] Creating Layer inception_4c/1x1
I0403 15:31:37.578104 15253 net.cpp:425] inception_4c/1x1 <- inception_4b/output_inception_4b/output_0_split_0
I0403 15:31:37.578124 15253 net.cpp:399] inception_4c/1x1 -> inception_4c/1x1
I0403 15:31:37.579496 15253 net.cpp:141] Setting up inception_4c/1x1
I0403 15:31:37.579527 15253 net.cpp:148] Top shape: 24 128 14 14 (602112)
I0403 15:31:37.579543 15253 net.cpp:156] Memory required for data: 1030800672
I0403 15:31:37.579562 15253 layer_factory.hpp:77] Creating layer inception_4c/relu_1x1
I0403 15:31:37.579583 15253 net.cpp:91] Creating Layer inception_4c/relu_1x1
I0403 15:31:37.579599 15253 net.cpp:425] inception_4c/relu_1x1 <- inception_4c/1x1
I0403 15:31:37.579617 15253 net.cpp:386] inception_4c/relu_1x1 -> inception_4c/1x1 (in-place)
I0403 15:31:37.579792 15253 net.cpp:141] Setting up inception_4c/relu_1x1
I0403 15:31:37.579818 15253 net.cpp:148] Top shape: 24 128 14 14 (602112)
I0403 15:31:37.579834 15253 net.cpp:156] Memory required for data: 1033209120
I0403 15:31:37.579849 15253 layer_factory.hpp:77] Creating layer inception_4c/3x3_reduce
I0403 15:31:37.579871 15253 net.cpp:91] Creating Layer inception_4c/3x3_reduce
I0403 15:31:37.579888 15253 net.cpp:425] inception_4c/3x3_reduce <- inception_4b/output_inception_4b/output_0_split_1
I0403 15:31:37.579907 15253 net.cpp:399] inception_4c/3x3_reduce -> inception_4c/3x3_reduce
I0403 15:31:37.581789 15253 net.cpp:141] Setting up inception_4c/3x3_reduce
I0403 15:31:37.581818 15253 net.cpp:148] Top shape: 24 128 14 14 (602112)
I0403 15:31:37.581835 15253 net.cpp:156] Memory required for data: 1035617568
I0403 15:31:37.581852 15253 layer_factory.hpp:77] Creating layer inception_4c/relu_3x3_reduce
I0403 15:31:37.581871 15253 net.cpp:91] Creating Layer inception_4c/relu_3x3_reduce
I0403 15:31:37.581887 15253 net.cpp:425] inception_4c/relu_3x3_reduce <- inception_4c/3x3_reduce
I0403 15:31:37.581907 15253 net.cpp:386] inception_4c/relu_3x3_reduce -> inception_4c/3x3_reduce (in-place)
I0403 15:31:37.582183 15253 net.cpp:141] Setting up inception_4c/relu_3x3_reduce
I0403 15:31:37.582211 15253 net.cpp:148] Top shape: 24 128 14 14 (602112)
I0403 15:31:37.582227 15253 net.cpp:156] Memory required for data: 1038026016
I0403 15:31:37.582242 15253 layer_factory.hpp:77] Creating layer inception_4c/3x3
I0403 15:31:37.582265 15253 net.cpp:91] Creating Layer inception_4c/3x3
I0403 15:31:37.582283 15253 net.cpp:425] inception_4c/3x3 <- inception_4c/3x3_reduce
I0403 15:31:37.582301 15253 net.cpp:399] inception_4c/3x3 -> inception_4c/3x3
I0403 15:31:37.585798 15253 net.cpp:141] Setting up inception_4c/3x3
I0403 15:31:37.585839 15253 net.cpp:148] Top shape: 24 256 14 14 (1204224)
I0403 15:31:37.585855 15253 net.cpp:156] Memory required for data: 1042842912
I0403 15:31:37.585886 15253 layer_factory.hpp:77] Creating layer inception_4c/relu_3x3
I0403 15:31:37.585907 15253 net.cpp:91] Creating Layer inception_4c/relu_3x3
I0403 15:31:37.585924 15253 net.cpp:425] inception_4c/relu_3x3 <- inception_4c/3x3
I0403 15:31:37.585943 15253 net.cpp:386] inception_4c/relu_3x3 -> inception_4c/3x3 (in-place)
I0403 15:31:37.586118 15253 net.cpp:141] Setting up inception_4c/relu_3x3
I0403 15:31:37.586143 15253 net.cpp:148] Top shape: 24 256 14 14 (1204224)
I0403 15:31:37.586158 15253 net.cpp:156] Memory required for data: 1047659808
I0403 15:31:37.586174 15253 layer_factory.hpp:77] Creating layer inception_4c/5x5_reduce
I0403 15:31:37.586196 15253 net.cpp:91] Creating Layer inception_4c/5x5_reduce
I0403 15:31:37.586215 15253 net.cpp:425] inception_4c/5x5_reduce <- inception_4b/output_inception_4b/output_0_split_2
I0403 15:31:37.586236 15253 net.cpp:399] inception_4c/5x5_reduce -> inception_4c/5x5_reduce
I0403 15:31:37.587288 15253 net.cpp:141] Setting up inception_4c/5x5_reduce
I0403 15:31:37.587318 15253 net.cpp:148] Top shape: 24 24 14 14 (112896)
I0403 15:31:37.587335 15253 net.cpp:156] Memory required for data: 1048111392
I0403 15:31:37.587353 15253 layer_factory.hpp:77] Creating layer inception_4c/relu_5x5_reduce
I0403 15:31:37.587373 15253 net.cpp:91] Creating Layer inception_4c/relu_5x5_reduce
I0403 15:31:37.587388 15253 net.cpp:425] inception_4c/relu_5x5_reduce <- inception_4c/5x5_reduce
I0403 15:31:37.587407 15253 net.cpp:386] inception_4c/relu_5x5_reduce -> inception_4c/5x5_reduce (in-place)
I0403 15:31:37.587590 15253 net.cpp:141] Setting up inception_4c/relu_5x5_reduce
I0403 15:31:37.587615 15253 net.cpp:148] Top shape: 24 24 14 14 (112896)
I0403 15:31:37.587630 15253 net.cpp:156] Memory required for data: 1048562976
I0403 15:31:37.587646 15253 layer_factory.hpp:77] Creating layer inception_4c/5x5
I0403 15:31:37.587667 15253 net.cpp:91] Creating Layer inception_4c/5x5
I0403 15:31:37.587685 15253 net.cpp:425] inception_4c/5x5 <- inception_4c/5x5_reduce
I0403 15:31:37.587705 15253 net.cpp:399] inception_4c/5x5 -> inception_4c/5x5
I0403 15:31:37.588907 15253 net.cpp:141] Setting up inception_4c/5x5
I0403 15:31:37.588933 15253 net.cpp:148] Top shape: 24 64 14 14 (301056)
I0403 15:31:37.588949 15253 net.cpp:156] Memory required for data: 1049767200
I0403 15:31:37.588968 15253 layer_factory.hpp:77] Creating layer inception_4c/relu_5x5
I0403 15:31:37.588987 15253 net.cpp:91] Creating Layer inception_4c/relu_5x5
I0403 15:31:37.589004 15253 net.cpp:425] inception_4c/relu_5x5 <- inception_4c/5x5
I0403 15:31:37.589021 15253 net.cpp:386] inception_4c/relu_5x5 -> inception_4c/5x5 (in-place)
I0403 15:31:37.589305 15253 net.cpp:141] Setting up inception_4c/relu_5x5
I0403 15:31:37.589331 15253 net.cpp:148] Top shape: 24 64 14 14 (301056)
I0403 15:31:37.589346 15253 net.cpp:156] Memory required for data: 1050971424
I0403 15:31:37.589361 15253 layer_factory.hpp:77] Creating layer inception_4c/pool
I0403 15:31:37.589381 15253 net.cpp:91] Creating Layer inception_4c/pool
I0403 15:31:37.589398 15253 net.cpp:425] inception_4c/pool <- inception_4b/output_inception_4b/output_0_split_3
I0403 15:31:37.589416 15253 net.cpp:399] inception_4c/pool -> inception_4c/pool
I0403 15:31:37.589481 15253 net.cpp:141] Setting up inception_4c/pool
I0403 15:31:37.589509 15253 net.cpp:148] Top shape: 24 512 14 14 (2408448)
I0403 15:31:37.589525 15253 net.cpp:156] Memory required for data: 1060605216
I0403 15:31:37.589540 15253 layer_factory.hpp:77] Creating layer inception_4c/pool_proj
I0403 15:31:37.589561 15253 net.cpp:91] Creating Layer inception_4c/pool_proj
I0403 15:31:37.589579 15253 net.cpp:425] inception_4c/pool_proj <- inception_4c/pool
I0403 15:31:37.589601 15253 net.cpp:399] inception_4c/pool_proj -> inception_4c/pool_proj
I0403 15:31:37.590797 15253 net.cpp:141] Setting up inception_4c/pool_proj
I0403 15:31:37.590826 15253 net.cpp:148] Top shape: 24 64 14 14 (301056)
I0403 15:31:37.590857 15253 net.cpp:156] Memory required for data: 1061809440
I0403 15:31:37.590878 15253 layer_factory.hpp:77] Creating layer inception_4c/relu_pool_proj
I0403 15:31:37.590895 15253 net.cpp:91] Creating Layer inception_4c/relu_pool_proj
I0403 15:31:37.590910 15253 net.cpp:425] inception_4c/relu_pool_proj <- inception_4c/pool_proj
I0403 15:31:37.590930 15253 net.cpp:386] inception_4c/relu_pool_proj -> inception_4c/pool_proj (in-place)
I0403 15:31:37.591125 15253 net.cpp:141] Setting up inception_4c/relu_pool_proj
I0403 15:31:37.591150 15253 net.cpp:148] Top shape: 24 64 14 14 (301056)
I0403 15:31:37.591166 15253 net.cpp:156] Memory required for data: 1063013664
I0403 15:31:37.591181 15253 layer_factory.hpp:77] Creating layer inception_4c/output
I0403 15:31:37.591199 15253 net.cpp:91] Creating Layer inception_4c/output
I0403 15:31:37.591217 15253 net.cpp:425] inception_4c/output <- inception_4c/1x1
I0403 15:31:37.591243 15253 net.cpp:425] inception_4c/output <- inception_4c/3x3
I0403 15:31:37.591259 15253 net.cpp:425] inception_4c/output <- inception_4c/5x5
I0403 15:31:37.591274 15253 net.cpp:425] inception_4c/output <- inception_4c/pool_proj
I0403 15:31:37.591315 15253 net.cpp:399] inception_4c/output -> inception_4c/output
I0403 15:31:37.591392 15253 net.cpp:141] Setting up inception_4c/output
I0403 15:31:37.591418 15253 net.cpp:148] Top shape: 24 512 14 14 (2408448)
I0403 15:31:37.591434 15253 net.cpp:156] Memory required for data: 1072647456
I0403 15:31:37.591449 15253 layer_factory.hpp:77] Creating layer inception_4c/output_inception_4c/output_0_split
I0403 15:31:37.591465 15253 net.cpp:91] Creating Layer inception_4c/output_inception_4c/output_0_split
I0403 15:31:37.591481 15253 net.cpp:425] inception_4c/output_inception_4c/output_0_split <- inception_4c/output
I0403 15:31:37.591501 15253 net.cpp:399] inception_4c/output_inception_4c/output_0_split -> inception_4c/output_inception_4c/output_0_split_0
I0403 15:31:37.591527 15253 net.cpp:399] inception_4c/output_inception_4c/output_0_split -> inception_4c/output_inception_4c/output_0_split_1
I0403 15:31:37.591549 15253 net.cpp:399] inception_4c/output_inception_4c/output_0_split -> inception_4c/output_inception_4c/output_0_split_2
I0403 15:31:37.591570 15253 net.cpp:399] inception_4c/output_inception_4c/output_0_split -> inception_4c/output_inception_4c/output_0_split_3
I0403 15:31:37.591677 15253 net.cpp:141] Setting up inception_4c/output_inception_4c/output_0_split
I0403 15:31:37.591703 15253 net.cpp:148] Top shape: 24 512 14 14 (2408448)
I0403 15:31:37.591722 15253 net.cpp:148] Top shape: 24 512 14 14 (2408448)
I0403 15:31:37.591737 15253 net.cpp:148] Top shape: 24 512 14 14 (2408448)
I0403 15:31:37.591753 15253 net.cpp:148] Top shape: 24 512 14 14 (2408448)
I0403 15:31:37.591766 15253 net.cpp:156] Memory required for data: 1111182624
I0403 15:31:37.591780 15253 layer_factory.hpp:77] Creating layer inception_4d/1x1
I0403 15:31:37.591801 15253 net.cpp:91] Creating Layer inception_4d/1x1
I0403 15:31:37.591820 15253 net.cpp:425] inception_4d/1x1 <- inception_4c/output_inception_4c/output_0_split_0
I0403 15:31:37.591837 15253 net.cpp:399] inception_4d/1x1 -> inception_4d/1x1
I0403 15:31:37.593175 15253 net.cpp:141] Setting up inception_4d/1x1
I0403 15:31:37.593205 15253 net.cpp:148] Top shape: 24 112 14 14 (526848)
I0403 15:31:37.593221 15253 net.cpp:156] Memory required for data: 1113290016
I0403 15:31:37.593240 15253 layer_factory.hpp:77] Creating layer inception_4d/relu_1x1
I0403 15:31:37.593257 15253 net.cpp:91] Creating Layer inception_4d/relu_1x1
I0403 15:31:37.593273 15253 net.cpp:425] inception_4d/relu_1x1 <- inception_4d/1x1
I0403 15:31:37.593299 15253 net.cpp:386] inception_4d/relu_1x1 -> inception_4d/1x1 (in-place)
I0403 15:31:37.593480 15253 net.cpp:141] Setting up inception_4d/relu_1x1
I0403 15:31:37.593510 15253 net.cpp:148] Top shape: 24 112 14 14 (526848)
I0403 15:31:37.593528 15253 net.cpp:156] Memory required for data: 1115397408
I0403 15:31:37.593543 15253 layer_factory.hpp:77] Creating layer inception_4d/3x3_reduce
I0403 15:31:37.593578 15253 net.cpp:91] Creating Layer inception_4d/3x3_reduce
I0403 15:31:37.593596 15253 net.cpp:425] inception_4d/3x3_reduce <- inception_4c/output_inception_4c/output_0_split_1
I0403 15:31:37.593627 15253 net.cpp:399] inception_4d/3x3_reduce -> inception_4d/3x3_reduce
I0403 15:31:37.595085 15253 net.cpp:141] Setting up inception_4d/3x3_reduce
I0403 15:31:37.595113 15253 net.cpp:148] Top shape: 24 144 14 14 (677376)
I0403 15:31:37.595127 15253 net.cpp:156] Memory required for data: 1118106912
I0403 15:31:37.595145 15253 layer_factory.hpp:77] Creating layer inception_4d/relu_3x3_reduce
I0403 15:31:37.595165 15253 net.cpp:91] Creating Layer inception_4d/relu_3x3_reduce
I0403 15:31:37.595182 15253 net.cpp:425] inception_4d/relu_3x3_reduce <- inception_4d/3x3_reduce
I0403 15:31:37.595199 15253 net.cpp:386] inception_4d/relu_3x3_reduce -> inception_4d/3x3_reduce (in-place)
I0403 15:31:37.595479 15253 net.cpp:141] Setting up inception_4d/relu_3x3_reduce
I0403 15:31:37.595513 15253 net.cpp:148] Top shape: 24 144 14 14 (677376)
I0403 15:31:37.595531 15253 net.cpp:156] Memory required for data: 1120816416
I0403 15:31:37.595546 15253 layer_factory.hpp:77] Creating layer inception_4d/3x3
I0403 15:31:37.595569 15253 net.cpp:91] Creating Layer inception_4d/3x3
I0403 15:31:37.595587 15253 net.cpp:425] inception_4d/3x3 <- inception_4d/3x3_reduce
I0403 15:31:37.595608 15253 net.cpp:399] inception_4d/3x3 -> inception_4d/3x3
I0403 15:31:37.599752 15253 net.cpp:141] Setting up inception_4d/3x3
I0403 15:31:37.599783 15253 net.cpp:148] Top shape: 24 288 14 14 (1354752)
I0403 15:31:37.599802 15253 net.cpp:156] Memory required for data: 1126235424
I0403 15:31:37.599820 15253 layer_factory.hpp:77] Creating layer inception_4d/relu_3x3
I0403 15:31:37.599839 15253 net.cpp:91] Creating Layer inception_4d/relu_3x3
I0403 15:31:37.599858 15253 net.cpp:425] inception_4d/relu_3x3 <- inception_4d/3x3
I0403 15:31:37.599879 15253 net.cpp:386] inception_4d/relu_3x3 -> inception_4d/3x3 (in-place)
I0403 15:31:37.600059 15253 net.cpp:141] Setting up inception_4d/relu_3x3
I0403 15:31:37.600083 15253 net.cpp:148] Top shape: 24 288 14 14 (1354752)
I0403 15:31:37.600100 15253 net.cpp:156] Memory required for data: 1131654432
I0403 15:31:37.600113 15253 layer_factory.hpp:77] Creating layer inception_4d/5x5_reduce
I0403 15:31:37.600136 15253 net.cpp:91] Creating Layer inception_4d/5x5_reduce
I0403 15:31:37.600153 15253 net.cpp:425] inception_4d/5x5_reduce <- inception_4c/output_inception_4c/output_0_split_2
I0403 15:31:37.600174 15253 net.cpp:399] inception_4d/5x5_reduce -> inception_4d/5x5_reduce
I0403 15:31:37.601286 15253 net.cpp:141] Setting up inception_4d/5x5_reduce
I0403 15:31:37.601315 15253 net.cpp:148] Top shape: 24 32 14 14 (150528)
I0403 15:31:37.601331 15253 net.cpp:156] Memory required for data: 1132256544
I0403 15:31:37.601349 15253 layer_factory.hpp:77] Creating layer inception_4d/relu_5x5_reduce
I0403 15:31:37.601367 15253 net.cpp:91] Creating Layer inception_4d/relu_5x5_reduce
I0403 15:31:37.601383 15253 net.cpp:425] inception_4d/relu_5x5_reduce <- inception_4d/5x5_reduce
I0403 15:31:37.601399 15253 net.cpp:386] inception_4d/relu_5x5_reduce -> inception_4d/5x5_reduce (in-place)
I0403 15:31:37.601593 15253 net.cpp:141] Setting up inception_4d/relu_5x5_reduce
I0403 15:31:37.601629 15253 net.cpp:148] Top shape: 24 32 14 14 (150528)
I0403 15:31:37.601644 15253 net.cpp:156] Memory required for data: 1132858656
I0403 15:31:37.601658 15253 layer_factory.hpp:77] Creating layer inception_4d/5x5
I0403 15:31:37.601680 15253 net.cpp:91] Creating Layer inception_4d/5x5
I0403 15:31:37.601697 15253 net.cpp:425] inception_4d/5x5 <- inception_4d/5x5_reduce
I0403 15:31:37.601718 15253 net.cpp:399] inception_4d/5x5 -> inception_4d/5x5
I0403 15:31:37.603142 15253 net.cpp:141] Setting up inception_4d/5x5
I0403 15:31:37.603169 15253 net.cpp:148] Top shape: 24 64 14 14 (301056)
I0403 15:31:37.603184 15253 net.cpp:156] Memory required for data: 1134062880
I0403 15:31:37.603204 15253 layer_factory.hpp:77] Creating layer inception_4d/relu_5x5
I0403 15:31:37.603237 15253 net.cpp:91] Creating Layer inception_4d/relu_5x5
I0403 15:31:37.603256 15253 net.cpp:425] inception_4d/relu_5x5 <- inception_4d/5x5
I0403 15:31:37.603272 15253 net.cpp:386] inception_4d/relu_5x5 -> inception_4d/5x5 (in-place)
I0403 15:31:37.603567 15253 net.cpp:141] Setting up inception_4d/relu_5x5
I0403 15:31:37.603593 15253 net.cpp:148] Top shape: 24 64 14 14 (301056)
I0403 15:31:37.603610 15253 net.cpp:156] Memory required for data: 1135267104
I0403 15:31:37.603624 15253 layer_factory.hpp:77] Creating layer inception_4d/pool
I0403 15:31:37.603641 15253 net.cpp:91] Creating Layer inception_4d/pool
I0403 15:31:37.603658 15253 net.cpp:425] inception_4d/pool <- inception_4c/output_inception_4c/output_0_split_3
I0403 15:31:37.603678 15253 net.cpp:399] inception_4d/pool -> inception_4d/pool
I0403 15:31:37.603744 15253 net.cpp:141] Setting up inception_4d/pool
I0403 15:31:37.603768 15253 net.cpp:148] Top shape: 24 512 14 14 (2408448)
I0403 15:31:37.603782 15253 net.cpp:156] Memory required for data: 1144900896
I0403 15:31:37.603796 15253 layer_factory.hpp:77] Creating layer inception_4d/pool_proj
I0403 15:31:37.603818 15253 net.cpp:91] Creating Layer inception_4d/pool_proj
I0403 15:31:37.603837 15253 net.cpp:425] inception_4d/pool_proj <- inception_4d/pool
I0403 15:31:37.603857 15253 net.cpp:399] inception_4d/pool_proj -> inception_4d/pool_proj
I0403 15:31:37.605609 15253 net.cpp:141] Setting up inception_4d/pool_proj
I0403 15:31:37.605643 15253 net.cpp:148] Top shape: 24 64 14 14 (301056)
I0403 15:31:37.605659 15253 net.cpp:156] Memory required for data: 1146105120
I0403 15:31:37.605679 15253 layer_factory.hpp:77] Creating layer inception_4d/relu_pool_proj
I0403 15:31:37.605695 15253 net.cpp:91] Creating Layer inception_4d/relu_pool_proj
I0403 15:31:37.605712 15253 net.cpp:425] inception_4d/relu_pool_proj <- inception_4d/pool_proj
I0403 15:31:37.605732 15253 net.cpp:386] inception_4d/relu_pool_proj -> inception_4d/pool_proj (in-place)
I0403 15:31:37.605914 15253 net.cpp:141] Setting up inception_4d/relu_pool_proj
I0403 15:31:37.605939 15253 net.cpp:148] Top shape: 24 64 14 14 (301056)
I0403 15:31:37.605954 15253 net.cpp:156] Memory required for data: 1147309344
I0403 15:31:37.605968 15253 layer_factory.hpp:77] Creating layer inception_4d/output
I0403 15:31:37.605985 15253 net.cpp:91] Creating Layer inception_4d/output
I0403 15:31:37.606000 15253 net.cpp:425] inception_4d/output <- inception_4d/1x1
I0403 15:31:37.606017 15253 net.cpp:425] inception_4d/output <- inception_4d/3x3
I0403 15:31:37.606034 15253 net.cpp:425] inception_4d/output <- inception_4d/5x5
I0403 15:31:37.606050 15253 net.cpp:425] inception_4d/output <- inception_4d/pool_proj
I0403 15:31:37.606068 15253 net.cpp:399] inception_4d/output -> inception_4d/output
I0403 15:31:37.606115 15253 net.cpp:141] Setting up inception_4d/output
I0403 15:31:37.606142 15253 net.cpp:148] Top shape: 24 528 14 14 (2483712)
I0403 15:31:37.606158 15253 net.cpp:156] Memory required for data: 1157244192
I0403 15:31:37.606171 15253 layer_factory.hpp:77] Creating layer inception_4d/output_inception_4d/output_0_split
I0403 15:31:37.606189 15253 net.cpp:91] Creating Layer inception_4d/output_inception_4d/output_0_split
I0403 15:31:37.606204 15253 net.cpp:425] inception_4d/output_inception_4d/output_0_split <- inception_4d/output
I0403 15:31:37.606221 15253 net.cpp:399] inception_4d/output_inception_4d/output_0_split -> inception_4d/output_inception_4d/output_0_split_0
I0403 15:31:37.606245 15253 net.cpp:399] inception_4d/output_inception_4d/output_0_split -> inception_4d/output_inception_4d/output_0_split_1
I0403 15:31:37.606267 15253 net.cpp:399] inception_4d/output_inception_4d/output_0_split -> inception_4d/output_inception_4d/output_0_split_2
I0403 15:31:37.606288 15253 net.cpp:399] inception_4d/output_inception_4d/output_0_split -> inception_4d/output_inception_4d/output_0_split_3
I0403 15:31:37.606308 15253 net.cpp:399] inception_4d/output_inception_4d/output_0_split -> inception_4d/output_inception_4d/output_0_split_4
I0403 15:31:37.606413 15253 net.cpp:141] Setting up inception_4d/output_inception_4d/output_0_split
I0403 15:31:37.606448 15253 net.cpp:148] Top shape: 24 528 14 14 (2483712)
I0403 15:31:37.606468 15253 net.cpp:148] Top shape: 24 528 14 14 (2483712)
I0403 15:31:37.606487 15253 net.cpp:148] Top shape: 24 528 14 14 (2483712)
I0403 15:31:37.606501 15253 net.cpp:148] Top shape: 24 528 14 14 (2483712)
I0403 15:31:37.606523 15253 net.cpp:148] Top shape: 24 528 14 14 (2483712)
I0403 15:31:37.606536 15253 net.cpp:156] Memory required for data: 1206918432
I0403 15:31:37.606551 15253 layer_factory.hpp:77] Creating layer loss2/ave_pool
I0403 15:31:37.606569 15253 net.cpp:91] Creating Layer loss2/ave_pool
I0403 15:31:37.606585 15253 net.cpp:425] loss2/ave_pool <- inception_4d/output_inception_4d/output_0_split_0
I0403 15:31:37.606602 15253 net.cpp:399] loss2/ave_pool -> loss2/ave_pool
I0403 15:31:37.606914 15253 net.cpp:141] Setting up loss2/ave_pool
I0403 15:31:37.606942 15253 net.cpp:148] Top shape: 24 528 4 4 (202752)
I0403 15:31:37.606957 15253 net.cpp:156] Memory required for data: 1207729440
I0403 15:31:37.606972 15253 layer_factory.hpp:77] Creating layer loss2/conv
I0403 15:31:37.606994 15253 net.cpp:91] Creating Layer loss2/conv
I0403 15:31:37.607012 15253 net.cpp:425] loss2/conv <- loss2/ave_pool
I0403 15:31:37.607031 15253 net.cpp:399] loss2/conv -> loss2/conv
I0403 15:31:37.608937 15253 net.cpp:141] Setting up loss2/conv
I0403 15:31:37.608964 15253 net.cpp:148] Top shape: 24 128 4 4 (49152)
I0403 15:31:37.608979 15253 net.cpp:156] Memory required for data: 1207926048
I0403 15:31:37.608997 15253 layer_factory.hpp:77] Creating layer loss2/relu_conv
I0403 15:31:37.609015 15253 net.cpp:91] Creating Layer loss2/relu_conv
I0403 15:31:37.609032 15253 net.cpp:425] loss2/relu_conv <- loss2/conv
I0403 15:31:37.609051 15253 net.cpp:386] loss2/relu_conv -> loss2/conv (in-place)
I0403 15:31:37.609330 15253 net.cpp:141] Setting up loss2/relu_conv
I0403 15:31:37.609356 15253 net.cpp:148] Top shape: 24 128 4 4 (49152)
I0403 15:31:37.609371 15253 net.cpp:156] Memory required for data: 1208122656
I0403 15:31:37.609386 15253 layer_factory.hpp:77] Creating layer loss2/fc
I0403 15:31:37.609403 15253 net.cpp:91] Creating Layer loss2/fc
I0403 15:31:37.609421 15253 net.cpp:425] loss2/fc <- loss2/conv
I0403 15:31:37.609441 15253 net.cpp:399] loss2/fc -> loss2/fc
I0403 15:31:37.626845 15253 net.cpp:141] Setting up loss2/fc
I0403 15:31:37.626878 15253 net.cpp:148] Top shape: 24 1024 (24576)
I0403 15:31:37.626894 15253 net.cpp:156] Memory required for data: 1208220960
I0403 15:31:37.626914 15253 layer_factory.hpp:77] Creating layer loss2/relu_fc
I0403 15:31:37.626931 15253 net.cpp:91] Creating Layer loss2/relu_fc
I0403 15:31:37.626947 15253 net.cpp:425] loss2/relu_fc <- loss2/fc
I0403 15:31:37.626965 15253 net.cpp:386] loss2/relu_fc -> loss2/fc (in-place)
I0403 15:31:37.627255 15253 net.cpp:141] Setting up loss2/relu_fc
I0403 15:31:37.627284 15253 net.cpp:148] Top shape: 24 1024 (24576)
I0403 15:31:37.627298 15253 net.cpp:156] Memory required for data: 1208319264
I0403 15:31:37.627313 15253 layer_factory.hpp:77] Creating layer loss2/drop_fc
I0403 15:31:37.627331 15253 net.cpp:91] Creating Layer loss2/drop_fc
I0403 15:31:37.627347 15253 net.cpp:425] loss2/drop_fc <- loss2/fc
I0403 15:31:37.627367 15253 net.cpp:386] loss2/drop_fc -> loss2/fc (in-place)
I0403 15:31:37.627415 15253 net.cpp:141] Setting up loss2/drop_fc
I0403 15:31:37.627439 15253 net.cpp:148] Top shape: 24 1024 (24576)
I0403 15:31:37.627454 15253 net.cpp:156] Memory required for data: 1208417568
I0403 15:31:37.627467 15253 layer_factory.hpp:77] Creating layer loss2/classifier_plantvillage
I0403 15:31:37.627490 15253 net.cpp:91] Creating Layer loss2/classifier_plantvillage
I0403 15:31:37.627511 15253 net.cpp:425] loss2/classifier_plantvillage <- loss2/fc
I0403 15:31:37.627535 15253 net.cpp:399] loss2/classifier_plantvillage -> loss2/classifier_plantvillage
I0403 15:31:37.627926 15253 net.cpp:141] Setting up loss2/classifier_plantvillage
I0403 15:31:37.627950 15253 net.cpp:148] Top shape: 24 38 (912)
I0403 15:31:37.627966 15253 net.cpp:156] Memory required for data: 1208421216
I0403 15:31:37.628000 15253 layer_factory.hpp:77] Creating layer loss2/classifier_plantvillage_loss2/classifier_plantvillage_0_split
I0403 15:31:37.628017 15253 net.cpp:91] Creating Layer loss2/classifier_plantvillage_loss2/classifier_plantvillage_0_split
I0403 15:31:37.628033 15253 net.cpp:425] loss2/classifier_plantvillage_loss2/classifier_plantvillage_0_split <- loss2/classifier_plantvillage
I0403 15:31:37.628053 15253 net.cpp:399] loss2/classifier_plantvillage_loss2/classifier_plantvillage_0_split -> loss2/classifier_plantvillage_loss2/classifier_plantvillage_0_split_0
I0403 15:31:37.628074 15253 net.cpp:399] loss2/classifier_plantvillage_loss2/classifier_plantvillage_0_split -> loss2/classifier_plantvillage_loss2/classifier_plantvillage_0_split_1
I0403 15:31:37.628095 15253 net.cpp:399] loss2/classifier_plantvillage_loss2/classifier_plantvillage_0_split -> loss2/classifier_plantvillage_loss2/classifier_plantvillage_0_split_2
I0403 15:31:37.628172 15253 net.cpp:141] Setting up loss2/classifier_plantvillage_loss2/classifier_plantvillage_0_split
I0403 15:31:37.628196 15253 net.cpp:148] Top shape: 24 38 (912)
I0403 15:31:37.628211 15253 net.cpp:148] Top shape: 24 38 (912)
I0403 15:31:37.628227 15253 net.cpp:148] Top shape: 24 38 (912)
I0403 15:31:37.628240 15253 net.cpp:156] Memory required for data: 1208432160
I0403 15:31:37.628259 15253 layer_factory.hpp:77] Creating layer inception_4e/1x1
I0403 15:31:37.628283 15253 net.cpp:91] Creating Layer inception_4e/1x1
I0403 15:31:37.628299 15253 net.cpp:425] inception_4e/1x1 <- inception_4d/output_inception_4d/output_0_split_1
I0403 15:31:37.628319 15253 net.cpp:399] inception_4e/1x1 -> inception_4e/1x1
I0403 15:31:37.630094 15253 net.cpp:141] Setting up inception_4e/1x1
I0403 15:31:37.630121 15253 net.cpp:148] Top shape: 24 256 14 14 (1204224)
I0403 15:31:37.630137 15253 net.cpp:156] Memory required for data: 1213249056
I0403 15:31:37.630156 15253 layer_factory.hpp:77] Creating layer inception_4e/relu_1x1
I0403 15:31:37.630175 15253 net.cpp:91] Creating Layer inception_4e/relu_1x1
I0403 15:31:37.630201 15253 net.cpp:425] inception_4e/relu_1x1 <- inception_4e/1x1
I0403 15:31:37.630219 15253 net.cpp:386] inception_4e/relu_1x1 -> inception_4e/1x1 (in-place)
I0403 15:31:37.630511 15253 net.cpp:141] Setting up inception_4e/relu_1x1
I0403 15:31:37.630537 15253 net.cpp:148] Top shape: 24 256 14 14 (1204224)
I0403 15:31:37.630553 15253 net.cpp:156] Memory required for data: 1218065952
I0403 15:31:37.630568 15253 layer_factory.hpp:77] Creating layer inception_4e/3x3_reduce
I0403 15:31:37.630591 15253 net.cpp:91] Creating Layer inception_4e/3x3_reduce
I0403 15:31:37.630610 15253 net.cpp:425] inception_4e/3x3_reduce <- inception_4d/output_inception_4d/output_0_split_2
I0403 15:31:37.630632 15253 net.cpp:399] inception_4e/3x3_reduce -> inception_4e/3x3_reduce
I0403 15:31:37.632742 15253 net.cpp:141] Setting up inception_4e/3x3_reduce
I0403 15:31:37.632771 15253 net.cpp:148] Top shape: 24 160 14 14 (752640)
I0403 15:31:37.632786 15253 net.cpp:156] Memory required for data: 1221076512
I0403 15:31:37.632805 15253 layer_factory.hpp:77] Creating layer inception_4e/relu_3x3_reduce
I0403 15:31:37.632823 15253 net.cpp:91] Creating Layer inception_4e/relu_3x3_reduce
I0403 15:31:37.632840 15253 net.cpp:425] inception_4e/relu_3x3_reduce <- inception_4e/3x3_reduce
I0403 15:31:37.632861 15253 net.cpp:386] inception_4e/relu_3x3_reduce -> inception_4e/3x3_reduce (in-place)
I0403 15:31:37.633044 15253 net.cpp:141] Setting up inception_4e/relu_3x3_reduce
I0403 15:31:37.633069 15253 net.cpp:148] Top shape: 24 160 14 14 (752640)
I0403 15:31:37.633083 15253 net.cpp:156] Memory required for data: 1224087072
I0403 15:31:37.633098 15253 layer_factory.hpp:77] Creating layer inception_4e/3x3
I0403 15:31:37.633121 15253 net.cpp:91] Creating Layer inception_4e/3x3
I0403 15:31:37.633139 15253 net.cpp:425] inception_4e/3x3 <- inception_4e/3x3_reduce
I0403 15:31:37.633160 15253 net.cpp:399] inception_4e/3x3 -> inception_4e/3x3
I0403 15:31:37.638116 15253 net.cpp:141] Setting up inception_4e/3x3
I0403 15:31:37.638156 15253 net.cpp:148] Top shape: 24 320 14 14 (1505280)
I0403 15:31:37.638172 15253 net.cpp:156] Memory required for data: 1230108192
I0403 15:31:37.638191 15253 layer_factory.hpp:77] Creating layer inception_4e/relu_3x3
I0403 15:31:37.638211 15253 net.cpp:91] Creating Layer inception_4e/relu_3x3
I0403 15:31:37.638228 15253 net.cpp:425] inception_4e/relu_3x3 <- inception_4e/3x3
I0403 15:31:37.638247 15253 net.cpp:386] inception_4e/relu_3x3 -> inception_4e/3x3 (in-place)
I0403 15:31:37.638546 15253 net.cpp:141] Setting up inception_4e/relu_3x3
I0403 15:31:37.638574 15253 net.cpp:148] Top shape: 24 320 14 14 (1505280)
I0403 15:31:37.638591 15253 net.cpp:156] Memory required for data: 1236129312
I0403 15:31:37.638607 15253 layer_factory.hpp:77] Creating layer inception_4e/5x5_reduce
I0403 15:31:37.638629 15253 net.cpp:91] Creating Layer inception_4e/5x5_reduce
I0403 15:31:37.638648 15253 net.cpp:425] inception_4e/5x5_reduce <- inception_4d/output_inception_4d/output_0_split_3
I0403 15:31:37.638666 15253 net.cpp:399] inception_4e/5x5_reduce -> inception_4e/5x5_reduce
I0403 15:31:37.639713 15253 net.cpp:141] Setting up inception_4e/5x5_reduce
I0403 15:31:37.639739 15253 net.cpp:148] Top shape: 24 32 14 14 (150528)
I0403 15:31:37.639753 15253 net.cpp:156] Memory required for data: 1236731424
I0403 15:31:37.639772 15253 layer_factory.hpp:77] Creating layer inception_4e/relu_5x5_reduce
I0403 15:31:37.639791 15253 net.cpp:91] Creating Layer inception_4e/relu_5x5_reduce
I0403 15:31:37.639809 15253 net.cpp:425] inception_4e/relu_5x5_reduce <- inception_4e/5x5_reduce
I0403 15:31:37.639827 15253 net.cpp:386] inception_4e/relu_5x5_reduce -> inception_4e/5x5_reduce (in-place)
I0403 15:31:37.640118 15253 net.cpp:141] Setting up inception_4e/relu_5x5_reduce
I0403 15:31:37.640144 15253 net.cpp:148] Top shape: 24 32 14 14 (150528)
I0403 15:31:37.640159 15253 net.cpp:156] Memory required for data: 1237333536
I0403 15:31:37.640174 15253 layer_factory.hpp:77] Creating layer inception_4e/5x5
I0403 15:31:37.640211 15253 net.cpp:91] Creating Layer inception_4e/5x5
I0403 15:31:37.640231 15253 net.cpp:425] inception_4e/5x5 <- inception_4e/5x5_reduce
I0403 15:31:37.640250 15253 net.cpp:399] inception_4e/5x5 -> inception_4e/5x5
I0403 15:31:37.642045 15253 net.cpp:141] Setting up inception_4e/5x5
I0403 15:31:37.642076 15253 net.cpp:148] Top shape: 24 128 14 14 (602112)
I0403 15:31:37.642091 15253 net.cpp:156] Memory required for data: 1239741984
I0403 15:31:37.642109 15253 layer_factory.hpp:77] Creating layer inception_4e/relu_5x5
I0403 15:31:37.642127 15253 net.cpp:91] Creating Layer inception_4e/relu_5x5
I0403 15:31:37.642143 15253 net.cpp:425] inception_4e/relu_5x5 <- inception_4e/5x5
I0403 15:31:37.642163 15253 net.cpp:386] inception_4e/relu_5x5 -> inception_4e/5x5 (in-place)
I0403 15:31:37.642354 15253 net.cpp:141] Setting up inception_4e/relu_5x5
I0403 15:31:37.642379 15253 net.cpp:148] Top shape: 24 128 14 14 (602112)
I0403 15:31:37.642395 15253 net.cpp:156] Memory required for data: 1242150432
I0403 15:31:37.642408 15253 layer_factory.hpp:77] Creating layer inception_4e/pool
I0403 15:31:37.642426 15253 net.cpp:91] Creating Layer inception_4e/pool
I0403 15:31:37.642442 15253 net.cpp:425] inception_4e/pool <- inception_4d/output_inception_4d/output_0_split_4
I0403 15:31:37.642472 15253 net.cpp:399] inception_4e/pool -> inception_4e/pool
I0403 15:31:37.642545 15253 net.cpp:141] Setting up inception_4e/pool
I0403 15:31:37.642570 15253 net.cpp:148] Top shape: 24 528 14 14 (2483712)
I0403 15:31:37.642585 15253 net.cpp:156] Memory required for data: 1252085280
I0403 15:31:37.642599 15253 layer_factory.hpp:77] Creating layer inception_4e/pool_proj
I0403 15:31:37.642622 15253 net.cpp:91] Creating Layer inception_4e/pool_proj
I0403 15:31:37.642640 15253 net.cpp:425] inception_4e/pool_proj <- inception_4e/pool
I0403 15:31:37.642658 15253 net.cpp:399] inception_4e/pool_proj -> inception_4e/pool_proj
I0403 15:31:37.644124 15253 net.cpp:141] Setting up inception_4e/pool_proj
I0403 15:31:37.644153 15253 net.cpp:148] Top shape: 24 128 14 14 (602112)
I0403 15:31:37.644182 15253 net.cpp:156] Memory required for data: 1254493728
I0403 15:31:37.644202 15253 layer_factory.hpp:77] Creating layer inception_4e/relu_pool_proj
I0403 15:31:37.644219 15253 net.cpp:91] Creating Layer inception_4e/relu_pool_proj
I0403 15:31:37.644237 15253 net.cpp:425] inception_4e/relu_pool_proj <- inception_4e/pool_proj
I0403 15:31:37.644256 15253 net.cpp:386] inception_4e/relu_pool_proj -> inception_4e/pool_proj (in-place)
I0403 15:31:37.644544 15253 net.cpp:141] Setting up inception_4e/relu_pool_proj
I0403 15:31:37.644572 15253 net.cpp:148] Top shape: 24 128 14 14 (602112)
I0403 15:31:37.644587 15253 net.cpp:156] Memory required for data: 1256902176
I0403 15:31:37.644603 15253 layer_factory.hpp:77] Creating layer inception_4e/output
I0403 15:31:37.644620 15253 net.cpp:91] Creating Layer inception_4e/output
I0403 15:31:37.644636 15253 net.cpp:425] inception_4e/output <- inception_4e/1x1
I0403 15:31:37.644652 15253 net.cpp:425] inception_4e/output <- inception_4e/3x3
I0403 15:31:37.644668 15253 net.cpp:425] inception_4e/output <- inception_4e/5x5
I0403 15:31:37.644685 15253 net.cpp:425] inception_4e/output <- inception_4e/pool_proj
I0403 15:31:37.644701 15253 net.cpp:399] inception_4e/output -> inception_4e/output
I0403 15:31:37.644752 15253 net.cpp:141] Setting up inception_4e/output
I0403 15:31:37.644775 15253 net.cpp:148] Top shape: 24 832 14 14 (3913728)
I0403 15:31:37.644789 15253 net.cpp:156] Memory required for data: 1272557088
I0403 15:31:37.644804 15253 layer_factory.hpp:77] Creating layer pool4/3x3_s2
I0403 15:31:37.644822 15253 net.cpp:91] Creating Layer pool4/3x3_s2
I0403 15:31:37.644840 15253 net.cpp:425] pool4/3x3_s2 <- inception_4e/output
I0403 15:31:37.644857 15253 net.cpp:399] pool4/3x3_s2 -> pool4/3x3_s2
I0403 15:31:37.644927 15253 net.cpp:141] Setting up pool4/3x3_s2
I0403 15:31:37.644950 15253 net.cpp:148] Top shape: 24 832 7 7 (978432)
I0403 15:31:37.644964 15253 net.cpp:156] Memory required for data: 1276470816
I0403 15:31:37.644979 15253 layer_factory.hpp:77] Creating layer pool4/3x3_s2_pool4/3x3_s2_0_split
I0403 15:31:37.644996 15253 net.cpp:91] Creating Layer pool4/3x3_s2_pool4/3x3_s2_0_split
I0403 15:31:37.645011 15253 net.cpp:425] pool4/3x3_s2_pool4/3x3_s2_0_split <- pool4/3x3_s2
I0403 15:31:37.645033 15253 net.cpp:399] pool4/3x3_s2_pool4/3x3_s2_0_split -> pool4/3x3_s2_pool4/3x3_s2_0_split_0
I0403 15:31:37.645054 15253 net.cpp:399] pool4/3x3_s2_pool4/3x3_s2_0_split -> pool4/3x3_s2_pool4/3x3_s2_0_split_1
I0403 15:31:37.645076 15253 net.cpp:399] pool4/3x3_s2_pool4/3x3_s2_0_split -> pool4/3x3_s2_pool4/3x3_s2_0_split_2
I0403 15:31:37.645095 15253 net.cpp:399] pool4/3x3_s2_pool4/3x3_s2_0_split -> pool4/3x3_s2_pool4/3x3_s2_0_split_3
I0403 15:31:37.645182 15253 net.cpp:141] Setting up pool4/3x3_s2_pool4/3x3_s2_0_split
I0403 15:31:37.645206 15253 net.cpp:148] Top shape: 24 832 7 7 (978432)
I0403 15:31:37.645222 15253 net.cpp:148] Top shape: 24 832 7 7 (978432)
I0403 15:31:37.645238 15253 net.cpp:148] Top shape: 24 832 7 7 (978432)
I0403 15:31:37.645254 15253 net.cpp:148] Top shape: 24 832 7 7 (978432)
I0403 15:31:37.645267 15253 net.cpp:156] Memory required for data: 1292125728
I0403 15:31:37.645282 15253 layer_factory.hpp:77] Creating layer inception_5a/1x1
I0403 15:31:37.645303 15253 net.cpp:91] Creating Layer inception_5a/1x1
I0403 15:31:37.645321 15253 net.cpp:425] inception_5a/1x1 <- pool4/3x3_s2_pool4/3x3_s2_0_split_0
I0403 15:31:37.645342 15253 net.cpp:399] inception_5a/1x1 -> inception_5a/1x1
I0403 15:31:37.648121 15253 net.cpp:141] Setting up inception_5a/1x1
I0403 15:31:37.648149 15253 net.cpp:148] Top shape: 24 256 7 7 (301056)
I0403 15:31:37.648164 15253 net.cpp:156] Memory required for data: 1293329952
I0403 15:31:37.648182 15253 layer_factory.hpp:77] Creating layer inception_5a/relu_1x1
I0403 15:31:37.648200 15253 net.cpp:91] Creating Layer inception_5a/relu_1x1
I0403 15:31:37.648216 15253 net.cpp:425] inception_5a/relu_1x1 <- inception_5a/1x1
I0403 15:31:37.648236 15253 net.cpp:386] inception_5a/relu_1x1 -> inception_5a/1x1 (in-place)
I0403 15:31:37.648546 15253 net.cpp:141] Setting up inception_5a/relu_1x1
I0403 15:31:37.648571 15253 net.cpp:148] Top shape: 24 256 7 7 (301056)
I0403 15:31:37.648586 15253 net.cpp:156] Memory required for data: 1294534176
I0403 15:31:37.648602 15253 layer_factory.hpp:77] Creating layer inception_5a/3x3_reduce
I0403 15:31:37.648622 15253 net.cpp:91] Creating Layer inception_5a/3x3_reduce
I0403 15:31:37.648641 15253 net.cpp:425] inception_5a/3x3_reduce <- pool4/3x3_s2_pool4/3x3_s2_0_split_1
I0403 15:31:37.648663 15253 net.cpp:399] inception_5a/3x3_reduce -> inception_5a/3x3_reduce
I0403 15:31:37.651620 15253 net.cpp:141] Setting up inception_5a/3x3_reduce
I0403 15:31:37.651648 15253 net.cpp:148] Top shape: 24 160 7 7 (188160)
I0403 15:31:37.651664 15253 net.cpp:156] Memory required for data: 1295286816
I0403 15:31:37.651682 15253 layer_factory.hpp:77] Creating layer inception_5a/relu_3x3_reduce
I0403 15:31:37.651702 15253 net.cpp:91] Creating Layer inception_5a/relu_3x3_reduce
I0403 15:31:37.651720 15253 net.cpp:425] inception_5a/relu_3x3_reduce <- inception_5a/3x3_reduce
I0403 15:31:37.651737 15253 net.cpp:386] inception_5a/relu_3x3_reduce -> inception_5a/3x3_reduce (in-place)
I0403 15:31:37.651921 15253 net.cpp:141] Setting up inception_5a/relu_3x3_reduce
I0403 15:31:37.651947 15253 net.cpp:148] Top shape: 24 160 7 7 (188160)
I0403 15:31:37.651960 15253 net.cpp:156] Memory required for data: 1296039456
I0403 15:31:37.651975 15253 layer_factory.hpp:77] Creating layer inception_5a/3x3
I0403 15:31:37.651998 15253 net.cpp:91] Creating Layer inception_5a/3x3
I0403 15:31:37.652015 15253 net.cpp:425] inception_5a/3x3 <- inception_5a/3x3_reduce
I0403 15:31:37.652036 15253 net.cpp:399] inception_5a/3x3 -> inception_5a/3x3
I0403 15:31:37.656941 15253 net.cpp:141] Setting up inception_5a/3x3
I0403 15:31:37.656976 15253 net.cpp:148] Top shape: 24 320 7 7 (376320)
I0403 15:31:37.656994 15253 net.cpp:156] Memory required for data: 1297544736
I0403 15:31:37.657014 15253 layer_factory.hpp:77] Creating layer inception_5a/relu_3x3
I0403 15:31:37.657033 15253 net.cpp:91] Creating Layer inception_5a/relu_3x3
I0403 15:31:37.657049 15253 net.cpp:425] inception_5a/relu_3x3 <- inception_5a/3x3
I0403 15:31:37.657070 15253 net.cpp:386] inception_5a/relu_3x3 -> inception_5a/3x3 (in-place)
I0403 15:31:37.657359 15253 net.cpp:141] Setting up inception_5a/relu_3x3
I0403 15:31:37.657387 15253 net.cpp:148] Top shape: 24 320 7 7 (376320)
I0403 15:31:37.657403 15253 net.cpp:156] Memory required for data: 1299050016
I0403 15:31:37.657419 15253 layer_factory.hpp:77] Creating layer inception_5a/5x5_reduce
I0403 15:31:37.657443 15253 net.cpp:91] Creating Layer inception_5a/5x5_reduce
I0403 15:31:37.657460 15253 net.cpp:425] inception_5a/5x5_reduce <- pool4/3x3_s2_pool4/3x3_s2_0_split_2
I0403 15:31:37.657482 15253 net.cpp:399] inception_5a/5x5_reduce -> inception_5a/5x5_reduce
I0403 15:31:37.658627 15253 net.cpp:141] Setting up inception_5a/5x5_reduce
I0403 15:31:37.658655 15253 net.cpp:148] Top shape: 24 32 7 7 (37632)
I0403 15:31:37.658670 15253 net.cpp:156] Memory required for data: 1299200544
I0403 15:31:37.658689 15253 layer_factory.hpp:77] Creating layer inception_5a/relu_5x5_reduce
I0403 15:31:37.658706 15253 net.cpp:91] Creating Layer inception_5a/relu_5x5_reduce
I0403 15:31:37.658722 15253 net.cpp:425] inception_5a/relu_5x5_reduce <- inception_5a/5x5_reduce
I0403 15:31:37.658741 15253 net.cpp:386] inception_5a/relu_5x5_reduce -> inception_5a/5x5_reduce (in-place)
I0403 15:31:37.659036 15253 net.cpp:141] Setting up inception_5a/relu_5x5_reduce
I0403 15:31:37.659061 15253 net.cpp:148] Top shape: 24 32 7 7 (37632)
I0403 15:31:37.659077 15253 net.cpp:156] Memory required for data: 1299351072
I0403 15:31:37.659091 15253 layer_factory.hpp:77] Creating layer inception_5a/5x5
I0403 15:31:37.659113 15253 net.cpp:91] Creating Layer inception_5a/5x5
I0403 15:31:37.659132 15253 net.cpp:425] inception_5a/5x5 <- inception_5a/5x5_reduce
I0403 15:31:37.659153 15253 net.cpp:399] inception_5a/5x5 -> inception_5a/5x5
I0403 15:31:37.660858 15253 net.cpp:141] Setting up inception_5a/5x5
I0403 15:31:37.660900 15253 net.cpp:148] Top shape: 24 128 7 7 (150528)
I0403 15:31:37.660917 15253 net.cpp:156] Memory required for data: 1299953184
I0403 15:31:37.660936 15253 layer_factory.hpp:77] Creating layer inception_5a/relu_5x5
I0403 15:31:37.660967 15253 net.cpp:91] Creating Layer inception_5a/relu_5x5
I0403 15:31:37.660984 15253 net.cpp:425] inception_5a/relu_5x5 <- inception_5a/5x5
I0403 15:31:37.661005 15253 net.cpp:386] inception_5a/relu_5x5 -> inception_5a/5x5 (in-place)
I0403 15:31:37.661192 15253 net.cpp:141] Setting up inception_5a/relu_5x5
I0403 15:31:37.661216 15253 net.cpp:148] Top shape: 24 128 7 7 (150528)
I0403 15:31:37.661231 15253 net.cpp:156] Memory required for data: 1300555296
I0403 15:31:37.661247 15253 layer_factory.hpp:77] Creating layer inception_5a/pool
I0403 15:31:37.661263 15253 net.cpp:91] Creating Layer inception_5a/pool
I0403 15:31:37.661279 15253 net.cpp:425] inception_5a/pool <- pool4/3x3_s2_pool4/3x3_s2_0_split_3
I0403 15:31:37.661299 15253 net.cpp:399] inception_5a/pool -> inception_5a/pool
I0403 15:31:37.661371 15253 net.cpp:141] Setting up inception_5a/pool
I0403 15:31:37.661394 15253 net.cpp:148] Top shape: 24 832 7 7 (978432)
I0403 15:31:37.661409 15253 net.cpp:156] Memory required for data: 1304469024
I0403 15:31:37.661424 15253 layer_factory.hpp:77] Creating layer inception_5a/pool_proj
I0403 15:31:37.661447 15253 net.cpp:91] Creating Layer inception_5a/pool_proj
I0403 15:31:37.661463 15253 net.cpp:425] inception_5a/pool_proj <- inception_5a/pool
I0403 15:31:37.661484 15253 net.cpp:399] inception_5a/pool_proj -> inception_5a/pool_proj
I0403 15:31:37.663708 15253 net.cpp:141] Setting up inception_5a/pool_proj
I0403 15:31:37.663739 15253 net.cpp:148] Top shape: 24 128 7 7 (150528)
I0403 15:31:37.663756 15253 net.cpp:156] Memory required for data: 1305071136
I0403 15:31:37.663774 15253 layer_factory.hpp:77] Creating layer inception_5a/relu_pool_proj
I0403 15:31:37.663794 15253 net.cpp:91] Creating Layer inception_5a/relu_pool_proj
I0403 15:31:37.663810 15253 net.cpp:425] inception_5a/relu_pool_proj <- inception_5a/pool_proj
I0403 15:31:37.663827 15253 net.cpp:386] inception_5a/relu_pool_proj -> inception_5a/pool_proj (in-place)
I0403 15:31:37.664125 15253 net.cpp:141] Setting up inception_5a/relu_pool_proj
I0403 15:31:37.664154 15253 net.cpp:148] Top shape: 24 128 7 7 (150528)
I0403 15:31:37.664170 15253 net.cpp:156] Memory required for data: 1305673248
I0403 15:31:37.664186 15253 layer_factory.hpp:77] Creating layer inception_5a/output
I0403 15:31:37.664201 15253 net.cpp:91] Creating Layer inception_5a/output
I0403 15:31:37.664217 15253 net.cpp:425] inception_5a/output <- inception_5a/1x1
I0403 15:31:37.664234 15253 net.cpp:425] inception_5a/output <- inception_5a/3x3
I0403 15:31:37.664250 15253 net.cpp:425] inception_5a/output <- inception_5a/5x5
I0403 15:31:37.664266 15253 net.cpp:425] inception_5a/output <- inception_5a/pool_proj
I0403 15:31:37.664284 15253 net.cpp:399] inception_5a/output -> inception_5a/output
I0403 15:31:37.664335 15253 net.cpp:141] Setting up inception_5a/output
I0403 15:31:37.664358 15253 net.cpp:148] Top shape: 24 832 7 7 (978432)
I0403 15:31:37.664372 15253 net.cpp:156] Memory required for data: 1309586976
I0403 15:31:37.664387 15253 layer_factory.hpp:77] Creating layer inception_5a/output_inception_5a/output_0_split
I0403 15:31:37.664407 15253 net.cpp:91] Creating Layer inception_5a/output_inception_5a/output_0_split
I0403 15:31:37.664423 15253 net.cpp:425] inception_5a/output_inception_5a/output_0_split <- inception_5a/output
I0403 15:31:37.664441 15253 net.cpp:399] inception_5a/output_inception_5a/output_0_split -> inception_5a/output_inception_5a/output_0_split_0
I0403 15:31:37.664461 15253 net.cpp:399] inception_5a/output_inception_5a/output_0_split -> inception_5a/output_inception_5a/output_0_split_1
I0403 15:31:37.664482 15253 net.cpp:399] inception_5a/output_inception_5a/output_0_split -> inception_5a/output_inception_5a/output_0_split_2
I0403 15:31:37.664502 15253 net.cpp:399] inception_5a/output_inception_5a/output_0_split -> inception_5a/output_inception_5a/output_0_split_3
I0403 15:31:37.664618 15253 net.cpp:141] Setting up inception_5a/output_inception_5a/output_0_split
I0403 15:31:37.664641 15253 net.cpp:148] Top shape: 24 832 7 7 (978432)
I0403 15:31:37.664657 15253 net.cpp:148] Top shape: 24 832 7 7 (978432)
I0403 15:31:37.664674 15253 net.cpp:148] Top shape: 24 832 7 7 (978432)
I0403 15:31:37.664688 15253 net.cpp:148] Top shape: 24 832 7 7 (978432)
I0403 15:31:37.664701 15253 net.cpp:156] Memory required for data: 1325241888
I0403 15:31:37.664716 15253 layer_factory.hpp:77] Creating layer inception_5b/1x1
I0403 15:31:37.664738 15253 net.cpp:91] Creating Layer inception_5b/1x1
I0403 15:31:37.664755 15253 net.cpp:425] inception_5b/1x1 <- inception_5a/output_inception_5a/output_0_split_0
I0403 15:31:37.664777 15253 net.cpp:399] inception_5b/1x1 -> inception_5b/1x1
I0403 15:31:37.668457 15253 net.cpp:141] Setting up inception_5b/1x1
I0403 15:31:37.668485 15253 net.cpp:148] Top shape: 24 384 7 7 (451584)
I0403 15:31:37.668500 15253 net.cpp:156] Memory required for data: 1327048224
I0403 15:31:37.668524 15253 layer_factory.hpp:77] Creating layer inception_5b/relu_1x1
I0403 15:31:37.668546 15253 net.cpp:91] Creating Layer inception_5b/relu_1x1
I0403 15:31:37.668565 15253 net.cpp:425] inception_5b/relu_1x1 <- inception_5b/1x1
I0403 15:31:37.668582 15253 net.cpp:386] inception_5b/relu_1x1 -> inception_5b/1x1 (in-place)
I0403 15:31:37.668882 15253 net.cpp:141] Setting up inception_5b/relu_1x1
I0403 15:31:37.668908 15253 net.cpp:148] Top shape: 24 384 7 7 (451584)
I0403 15:31:37.668923 15253 net.cpp:156] Memory required for data: 1328854560
I0403 15:31:37.668937 15253 layer_factory.hpp:77] Creating layer inception_5b/3x3_reduce
I0403 15:31:37.668962 15253 net.cpp:91] Creating Layer inception_5b/3x3_reduce
I0403 15:31:37.668980 15253 net.cpp:425] inception_5b/3x3_reduce <- inception_5a/output_inception_5a/output_0_split_1
I0403 15:31:37.668999 15253 net.cpp:399] inception_5b/3x3_reduce -> inception_5b/3x3_reduce
I0403 15:31:37.671643 15253 net.cpp:141] Setting up inception_5b/3x3_reduce
I0403 15:31:37.671674 15253 net.cpp:148] Top shape: 24 192 7 7 (225792)
I0403 15:31:37.671691 15253 net.cpp:156] Memory required for data: 1329757728
I0403 15:31:37.671710 15253 layer_factory.hpp:77] Creating layer inception_5b/relu_3x3_reduce
I0403 15:31:37.671730 15253 net.cpp:91] Creating Layer inception_5b/relu_3x3_reduce
I0403 15:31:37.671746 15253 net.cpp:425] inception_5b/relu_3x3_reduce <- inception_5b/3x3_reduce
I0403 15:31:37.671762 15253 net.cpp:386] inception_5b/relu_3x3_reduce -> inception_5b/3x3_reduce (in-place)
I0403 15:31:37.671952 15253 net.cpp:141] Setting up inception_5b/relu_3x3_reduce
I0403 15:31:37.671977 15253 net.cpp:148] Top shape: 24 192 7 7 (225792)
I0403 15:31:37.671993 15253 net.cpp:156] Memory required for data: 1330660896
I0403 15:31:37.672008 15253 layer_factory.hpp:77] Creating layer inception_5b/3x3
I0403 15:31:37.672029 15253 net.cpp:91] Creating Layer inception_5b/3x3
I0403 15:31:37.672047 15253 net.cpp:425] inception_5b/3x3 <- inception_5b/3x3_reduce
I0403 15:31:37.672070 15253 net.cpp:399] inception_5b/3x3 -> inception_5b/3x3
I0403 15:31:37.678692 15253 net.cpp:141] Setting up inception_5b/3x3
I0403 15:31:37.678722 15253 net.cpp:148] Top shape: 24 384 7 7 (451584)
I0403 15:31:37.678738 15253 net.cpp:156] Memory required for data: 1332467232
I0403 15:31:37.678757 15253 layer_factory.hpp:77] Creating layer inception_5b/relu_3x3
I0403 15:31:37.678774 15253 net.cpp:91] Creating Layer inception_5b/relu_3x3
I0403 15:31:37.678791 15253 net.cpp:425] inception_5b/relu_3x3 <- inception_5b/3x3
I0403 15:31:37.678809 15253 net.cpp:386] inception_5b/relu_3x3 -> inception_5b/3x3 (in-place)
I0403 15:31:37.679105 15253 net.cpp:141] Setting up inception_5b/relu_3x3
I0403 15:31:37.679133 15253 net.cpp:148] Top shape: 24 384 7 7 (451584)
I0403 15:31:37.679150 15253 net.cpp:156] Memory required for data: 1334273568
I0403 15:31:37.679164 15253 layer_factory.hpp:77] Creating layer inception_5b/5x5_reduce
I0403 15:31:37.679204 15253 net.cpp:91] Creating Layer inception_5b/5x5_reduce
I0403 15:31:37.679224 15253 net.cpp:425] inception_5b/5x5_reduce <- inception_5a/output_inception_5a/output_0_split_2
I0403 15:31:37.679244 15253 net.cpp:399] inception_5b/5x5_reduce -> inception_5b/5x5_reduce
I0403 15:31:37.680491 15253 net.cpp:141] Setting up inception_5b/5x5_reduce
I0403 15:31:37.680526 15253 net.cpp:148] Top shape: 24 48 7 7 (56448)
I0403 15:31:37.680542 15253 net.cpp:156] Memory required for data: 1334499360
I0403 15:31:37.680560 15253 layer_factory.hpp:77] Creating layer inception_5b/relu_5x5_reduce
I0403 15:31:37.680578 15253 net.cpp:91] Creating Layer inception_5b/relu_5x5_reduce
I0403 15:31:37.680595 15253 net.cpp:425] inception_5b/relu_5x5_reduce <- inception_5b/5x5_reduce
I0403 15:31:37.680618 15253 net.cpp:386] inception_5b/relu_5x5_reduce -> inception_5b/5x5_reduce (in-place)
I0403 15:31:37.680984 15253 net.cpp:141] Setting up inception_5b/relu_5x5_reduce
I0403 15:31:37.681010 15253 net.cpp:148] Top shape: 24 48 7 7 (56448)
I0403 15:31:37.681025 15253 net.cpp:156] Memory required for data: 1334725152
I0403 15:31:37.681040 15253 layer_factory.hpp:77] Creating layer inception_5b/5x5
I0403 15:31:37.681059 15253 net.cpp:91] Creating Layer inception_5b/5x5
I0403 15:31:37.681077 15253 net.cpp:425] inception_5b/5x5 <- inception_5b/5x5_reduce
I0403 15:31:37.681095 15253 net.cpp:399] inception_5b/5x5 -> inception_5b/5x5
I0403 15:31:37.683142 15253 net.cpp:141] Setting up inception_5b/5x5
I0403 15:31:37.683169 15253 net.cpp:148] Top shape: 24 128 7 7 (150528)
I0403 15:31:37.683184 15253 net.cpp:156] Memory required for data: 1335327264
I0403 15:31:37.683202 15253 layer_factory.hpp:77] Creating layer inception_5b/relu_5x5
I0403 15:31:37.683220 15253 net.cpp:91] Creating Layer inception_5b/relu_5x5
I0403 15:31:37.683238 15253 net.cpp:425] inception_5b/relu_5x5 <- inception_5b/5x5
I0403 15:31:37.683257 15253 net.cpp:386] inception_5b/relu_5x5 -> inception_5b/5x5 (in-place)
I0403 15:31:37.683450 15253 net.cpp:141] Setting up inception_5b/relu_5x5
I0403 15:31:37.683475 15253 net.cpp:148] Top shape: 24 128 7 7 (150528)
I0403 15:31:37.683490 15253 net.cpp:156] Memory required for data: 1335929376
I0403 15:31:37.683508 15253 layer_factory.hpp:77] Creating layer inception_5b/pool
I0403 15:31:37.683531 15253 net.cpp:91] Creating Layer inception_5b/pool
I0403 15:31:37.683548 15253 net.cpp:425] inception_5b/pool <- inception_5a/output_inception_5a/output_0_split_3
I0403 15:31:37.683568 15253 net.cpp:399] inception_5b/pool -> inception_5b/pool
I0403 15:31:37.683640 15253 net.cpp:141] Setting up inception_5b/pool
I0403 15:31:37.683663 15253 net.cpp:148] Top shape: 24 832 7 7 (978432)
I0403 15:31:37.683678 15253 net.cpp:156] Memory required for data: 1339843104
I0403 15:31:37.683692 15253 layer_factory.hpp:77] Creating layer inception_5b/pool_proj
I0403 15:31:37.683714 15253 net.cpp:91] Creating Layer inception_5b/pool_proj
I0403 15:31:37.683732 15253 net.cpp:425] inception_5b/pool_proj <- inception_5b/pool
I0403 15:31:37.683754 15253 net.cpp:399] inception_5b/pool_proj -> inception_5b/pool_proj
I0403 15:31:37.686018 15253 net.cpp:141] Setting up inception_5b/pool_proj
I0403 15:31:37.686050 15253 net.cpp:148] Top shape: 24 128 7 7 (150528)
I0403 15:31:37.686066 15253 net.cpp:156] Memory required for data: 1340445216
I0403 15:31:37.686085 15253 layer_factory.hpp:77] Creating layer inception_5b/relu_pool_proj
I0403 15:31:37.686103 15253 net.cpp:91] Creating Layer inception_5b/relu_pool_proj
I0403 15:31:37.686120 15253 net.cpp:425] inception_5b/relu_pool_proj <- inception_5b/pool_proj
I0403 15:31:37.686141 15253 net.cpp:386] inception_5b/relu_pool_proj -> inception_5b/pool_proj (in-place)
I0403 15:31:37.686434 15253 net.cpp:141] Setting up inception_5b/relu_pool_proj
I0403 15:31:37.686462 15253 net.cpp:148] Top shape: 24 128 7 7 (150528)
I0403 15:31:37.686478 15253 net.cpp:156] Memory required for data: 1341047328
I0403 15:31:37.686493 15253 layer_factory.hpp:77] Creating layer inception_5b/output
I0403 15:31:37.686514 15253 net.cpp:91] Creating Layer inception_5b/output
I0403 15:31:37.686545 15253 net.cpp:425] inception_5b/output <- inception_5b/1x1
I0403 15:31:37.686563 15253 net.cpp:425] inception_5b/output <- inception_5b/3x3
I0403 15:31:37.686579 15253 net.cpp:425] inception_5b/output <- inception_5b/5x5
I0403 15:31:37.686596 15253 net.cpp:425] inception_5b/output <- inception_5b/pool_proj
I0403 15:31:37.686617 15253 net.cpp:399] inception_5b/output -> inception_5b/output
I0403 15:31:37.686668 15253 net.cpp:141] Setting up inception_5b/output
I0403 15:31:37.686692 15253 net.cpp:148] Top shape: 24 1024 7 7 (1204224)
I0403 15:31:37.686707 15253 net.cpp:156] Memory required for data: 1345864224
I0403 15:31:37.686722 15253 layer_factory.hpp:77] Creating layer pool5/7x7_s1
I0403 15:31:37.686743 15253 net.cpp:91] Creating Layer pool5/7x7_s1
I0403 15:31:37.686760 15253 net.cpp:425] pool5/7x7_s1 <- inception_5b/output
I0403 15:31:37.686777 15253 net.cpp:399] pool5/7x7_s1 -> pool5/7x7_s1
I0403 15:31:37.687003 15253 net.cpp:141] Setting up pool5/7x7_s1
I0403 15:31:37.687028 15253 net.cpp:148] Top shape: 24 1024 1 1 (24576)
I0403 15:31:37.687044 15253 net.cpp:156] Memory required for data: 1345962528
I0403 15:31:37.687059 15253 layer_factory.hpp:77] Creating layer pool5/drop_7x7_s1
I0403 15:31:37.687077 15253 net.cpp:91] Creating Layer pool5/drop_7x7_s1
I0403 15:31:37.687093 15253 net.cpp:425] pool5/drop_7x7_s1 <- pool5/7x7_s1
I0403 15:31:37.687113 15253 net.cpp:386] pool5/drop_7x7_s1 -> pool5/7x7_s1 (in-place)
I0403 15:31:37.687163 15253 net.cpp:141] Setting up pool5/drop_7x7_s1
I0403 15:31:37.687187 15253 net.cpp:148] Top shape: 24 1024 1 1 (24576)
I0403 15:31:37.687202 15253 net.cpp:156] Memory required for data: 1346060832
I0403 15:31:37.687217 15253 layer_factory.hpp:77] Creating layer loss3/classifier_plantvillage
I0403 15:31:37.687265 15253 net.cpp:91] Creating Layer loss3/classifier_plantvillage
I0403 15:31:37.687286 15253 net.cpp:425] loss3/classifier_plantvillage <- pool5/7x7_s1
I0403 15:31:37.687309 15253 net.cpp:399] loss3/classifier_plantvillage -> loss3/classifier_plantvillage
I0403 15:31:37.687744 15253 net.cpp:141] Setting up loss3/classifier_plantvillage
I0403 15:31:37.687769 15253 net.cpp:148] Top shape: 24 38 (912)
I0403 15:31:37.687784 15253 net.cpp:156] Memory required for data: 1346064480
I0403 15:31:37.687803 15253 layer_factory.hpp:77] Creating layer loss3/classifier_plantvillage_loss3/classifier_plantvillage_0_split
I0403 15:31:37.687824 15253 net.cpp:91] Creating Layer loss3/classifier_plantvillage_loss3/classifier_plantvillage_0_split
I0403 15:31:37.687840 15253 net.cpp:425] loss3/classifier_plantvillage_loss3/classifier_plantvillage_0_split <- loss3/classifier_plantvillage
I0403 15:31:37.687857 15253 net.cpp:399] loss3/classifier_plantvillage_loss3/classifier_plantvillage_0_split -> loss3/classifier_plantvillage_loss3/classifier_plantvillage_0_split_0
I0403 15:31:37.687878 15253 net.cpp:399] loss3/classifier_plantvillage_loss3/classifier_plantvillage_0_split -> loss3/classifier_plantvillage_loss3/classifier_plantvillage_0_split_1
I0403 15:31:37.687899 15253 net.cpp:399] loss3/classifier_plantvillage_loss3/classifier_plantvillage_0_split -> loss3/classifier_plantvillage_loss3/classifier_plantvillage_0_split_2
I0403 15:31:37.687922 15253 net.cpp:399] loss3/classifier_plantvillage_loss3/classifier_plantvillage_0_split -> loss3/classifier_plantvillage_loss3/classifier_plantvillage_0_split_3
I0403 15:31:37.688020 15253 net.cpp:141] Setting up loss3/classifier_plantvillage_loss3/classifier_plantvillage_0_split
I0403 15:31:37.688043 15253 net.cpp:148] Top shape: 24 38 (912)
I0403 15:31:37.688060 15253 net.cpp:148] Top shape: 24 38 (912)
I0403 15:31:37.688076 15253 net.cpp:148] Top shape: 24 38 (912)
I0403 15:31:37.688091 15253 net.cpp:148] Top shape: 24 38 (912)
I0403 15:31:37.688103 15253 net.cpp:156] Memory required for data: 1346079072
I0403 15:31:37.688117 15253 layer_factory.hpp:77] Creating layer loss1/loss
I0403 15:31:37.688138 15253 net.cpp:91] Creating Layer loss1/loss
I0403 15:31:37.688155 15253 net.cpp:425] loss1/loss <- loss1/classifier_plantvillage_loss1/classifier_plantvillage_0_split_0
I0403 15:31:37.688186 15253 net.cpp:425] loss1/loss <- label_data_1_split_0
…
