…
I0403 15:14:11.057399 14250 net.cpp:313] The NetState phase (1) differed from the phase (0) specified by a rule in layer data
I0403 15:14:11.058547 14250 net.cpp:49] Initializing net from parameters: 
state {
  phase: TEST
}
layer {
  name: "data"
  type: "Data"
  top: "data"
  top: "label"
  include {
    phase: TEST
  }
  transform_param {
    mirror: false
    crop_size: 224
    mean_file: "/home/mohanty/data/final_dataset/lmdb/color-50-50/mean.binaryproto"
  }
  data_param {
    source: "/home/mohanty/data/final_dataset/lmdb/color-50-50/test_db"
    batch_size: 24
    backend: LMDB
  }
}
layer {
  name: "conv1/7x7_s2"
  type: "Convolution"
  bottom: "data"
  top: "conv1/7x7_s2"
  param {
    lr_mult: 1
    decay_mult: 1
  }
  param {
    lr_mult: 2
    decay_mult: 0
  }
  convolution_param {
    num_output: 64
    pad: 3
    kernel_size: 7
    stride: 2
    weight_filler {
      type: "xavier"
      std: 0.1
    }
    bias_filler {
      type: "constant"
      value: 0.2
    }
  }
}
layer {
  name: "conv1/relu_7x7"
  type: "ReLU"
  bottom: "conv1/7x7_s2"
  top: "conv1/7x7_s2"
}
layer {
  name: "pool1/3x3_s2"
  type: "Pooling"
  bottom: "conv1/7x7_s2"
  top: "pool1/3x3_s2"
  pooling_param {
    pool: MAX
    kernel_size: 3
    stride: 2
  }
}
layer {
  name: "pool1/norm1"
  type: "LRN"
  bottom: "pool1/3x3_s2"
  top: "pool1/norm1"
  lrn_param {
    local_size: 5
    alpha: 0.0001
    beta: 0.75
  }
}
layer {
  name: "conv2/3x3_reduce"
  type: "Convolution"
  bottom: "pool1/norm1"
  top: "conv2/3x3_reduce"
  param {
    lr_mult: 1
    decay_mult: 1
  }
  param {
    lr_mult: 2
    decay_mult: 0
  }
  convolution_param {
    num_output: 64
    kernel_size: 1
    weight_filler {
      type: "xavier"
      std: 0.1
    }
    bias_filler {
      type: "constant"
      value: 0.2
    }
  }
}
layer {
  name: "conv2/relu_3x3_reduce"
  type: "ReLU"
  bottom: "conv2/3x3_reduce"
  top: "conv2/3x3_reduce"
}
layer {
  name: "conv2/3x3"
  type: "Convolution"
  bottom: "conv2/3x3_reduce"
  top: "conv2/3x3"
  param {
    lr_mult: 1
    decay_mult: 1
  }
  param {
    lr_mult: 2
    decay_mult: 0
  }
  convolution_param {
    num_output: 192
    pad: 1
    kernel_size: 3
    weight_filler {
      type: "xavier"
      std: 0.03
    }
    bias_filler {
      type: "constant"
      value: 0.2
    }
  }
}
layer {
  name: "conv2/relu_3x3"
  type: "ReLU"
  bottom: "conv2/3x3"
  top: "conv2/3x3"
}
layer {
  name: "conv2/norm2"
  type: "LRN"
  bottom: "conv2/3x3"
  top: "conv2/norm2"
  lrn_param {
    local_size: 5
    alpha: 0.0001
    beta: 0.75
  }
}
layer {
  name: "pool2/3x3_s2"
  type: "Pooling"
  bottom: "conv2/norm2"
  top: "pool2/3x3_s2"
  pooling_param {
    pool: MAX
    kernel_size: 3
    stride: 2
  }
}
layer {
  name: "inception_3a/1x1"
  type: "Convolution"
  bottom: "pool2/3x3_s2"
  top: "inception_3a/1x1"
  param {
    lr_mult: 1
    decay_mult: 1
  }
  param {
    lr_mult: 2
    decay_mult: 0
  }
  convolution_param {
    num_output: 64
    kernel_size: 1
    weight_filler {
      type: "xavier"
      std: 0.03
    }
    bias_filler {
      type: "constant"
      value: 0.2
    }
  }
}
layer {
  name: "inception_3a/relu_1x1"
  type: "ReLU"
  bottom: "inception_3a/1x1"
  top: "inception_3a/1x1"
}
layer {
  name: "inception_3a/3x3_reduce"
  type: "Convolution"
  bottom: "pool2/3x3_s2"
  top: "inception_3a/3x3_reduce"
  param {
    lr_mult: 1
    decay_mult: 1
  }
  param {
    lr_mult: 2
    decay_mult: 0
  }
  convolution_param {
    num_output: 96
    kernel_size: 1
    weight_filler {
      type: "xavier"
      std: 0.09
    }
    bias_filler {
      type: "constant"
      value: 0.2
    }
  }
}
layer {
  name: "inception_3a/relu_3x3_reduce"
  type: "ReLU"
  bottom: "inception_3a/3x3_reduce"
  top: "inception_3a/3x3_reduce"
}
layer {
  name: "inception_3a/3x3"
  type: "Convolution"
  bottom: "inception_3a/3x3_reduce"
  top: "inception_3a/3x3"
  param {
    lr_mult: 1
    decay_mult: 1
  }
  param {
    lr_mult: 2
    decay_mult: 0
  }
  convolution_param {
    num_output: 128
    pad: 1
    kernel_size: 3
    weight_filler {
      type: "xavier"
      std: 0.03
    }
    bias_filler {
      type: "constant"
      value: 0.2
    }
  }
}
layer {
  name: "inception_3a/relu_3x3"
  type: "ReLU"
  bottom: "inception_3a/3x3"
  top: "inception_3a/3x3"
}
layer {
  name: "inception_3a/5x5_reduce"
  type: "Convolution"
  bottom: "pool2/3x3_s2"
  top: "inception_3a/5x5_reduce"
  param {
    lr_mult: 1
    decay_mult: 1
  }
  param {
    lr_mult: 2
    decay_mult: 0
  }
  convolution_param {
    num_output: 16
    kernel_size: 1
    weight_filler {
      type: "xavier"
      std: 0.2
    }
    bias_filler {
      type: "constant"
      value: 0.2
    }
  }
}
layer {
  name: "inception_3a/relu_5x5_reduce"
  type: "ReLU"
  bottom: "inception_3a/5x5_reduce"
  top: "inception_3a/5x5_reduce"
}
layer {
  name: "inception_3a/5x5"
  type: "Convolution"
  bottom: "inception_3a/5x5_reduce"
  top: "inception_3a/5x5"
  param {
    lr_mult: 1
    decay_mult: 1
  }
  param {
    lr_mult: 2
    decay_mult: 0
  }
  convolution_param {
    num_output: 32
    pad: 2
    kernel_size: 5
    weight_filler {
      type: "xavier"
      std: 0.03
    }
    bias_filler {
      type: "constant"
      value: 0.2
    }
  }
}
layer {
  name: "inception_3a/relu_5x5"
  type: "ReLU"
  bottom: "inception_3a/5x5"
  top: "inception_3a/5x5"
}
layer {
  name: "inception_3a/pool"
  type: "Pooling"
  bottom: "pool2/3x3_s2"
  top: "inception_3a/pool"
  pooling_param {
    pool: MAX
    kernel_size: 3
    stride: 1
    pad: 1
  }
}
layer {
  name: "inception_3a/pool_proj"
  type: "Convolution"
  bottom: "inception_3a/pool"
  top: "inception_3a/pool_proj"
  param {
    lr_mult: 1
    decay_mult: 1
  }
  param {
    lr_mult: 2
    decay_mult: 0
  }
  convolution_param {
    num_output: 32
    kernel_size: 1
    weight_filler {
      type: "xavier"
      std: 0.1
    }
    bias_filler {
      type: "constant"
      value: 0.2
    }
  }
}
layer {
  name: "inception_3a/relu_pool_proj"
  type: "ReLU"
  bottom: "inception_3a/pool_proj"
  top: "inception_3a/pool_proj"
}
layer {
  name: "inception_3a/output"
  type: "Concat"
  bottom: "inception_3a/1x1"
  bottom: "inception_3a/3x3"
  bottom: "inception_3a/5x5"
  bottom: "inception_3a/pool_proj"
  top: "inception_3a/output"
}
layer {
  name: "inception_3b/1x1"
  type: "Convolution"
  bottom: "inception_3a/output"
  top: "inception_3b/1x1"
  param {
    lr_mult: 1
    decay_mult: 1
  }
  param {
    lr_mult: 2
    decay_mult: 0
  }
  convolution_param {
    num_output: 128
    kernel_size: 1
    weight_filler {
      type: "xavier"
      std: 0.03
    }
    bias_filler {
      type: "constant"
      value: 0.2
    }
  }
}
layer {
  name: "inception_3b/relu_1x1"
  type: "ReLU"
  bottom: "inception_3b/1x1"
  top: "inception_3b/1x1"
}
layer {
  name: "inception_3b/3x3_reduce"
  type: "Convolution"
  bottom: "inception_3a/output"
  top: "inception_3b/3x3_reduce"
  param {
    lr_mult: 1
    decay_mult: 1
  }
  param {
    lr_mult: 2
    decay_mult: 0
  }
  convolution_param {
    num_output: 128
    kernel_size: 1
    weight_filler {
      type: "xavier"
      std: 0.09
    }
    bias_filler {
      type: "constant"
      value: 0.2
    }
  }
}
layer {
  name: "inception_3b/relu_3x3_reduce"
  type: "ReLU"
  bottom: "inception_3b/3x3_reduce"
  top: "inception_3b/3x3_reduce"
}
layer {
  name: "inception_3b/3x3"
  type: "Convolution"
  bottom: "inception_3b/3x3_reduce"
  top: "inception_3b/3x3"
  param {
    lr_mult: 1
    decay_mult: 1
  }
  param {
    lr_mult: 2
    decay_mult: 0
  }
  convolution_param {
    num_output: 192
    pad: 1
    kernel_size: 3
    weight_filler {
      type: "xavier"
      std: 0.03
    }
    bias_filler {
      type: "constant"
      value: 0.2
    }
  }
}
layer {
  name: "inception_3b/relu_3x3"
  type: "ReLU"
  bottom: "inception_3b/3x3"
  top: "inception_3b/3x3"
}
layer {
  name: "inception_3b/5x5_reduce"
  type: "Convolution"
  bottom: "inception_3a/output"
  top: "inception_3b/5x5_reduce"
  param {
    lr_mult: 1
    decay_mult: 1
  }
  param {
    lr_mult: 2
    decay_mult: 0
  }
  convolution_param {
    num_output: 32
    kernel_size: 1
    weight_filler {
      type: "xavier"
      std: 0.2
    }
    bias_filler {
      type: "constant"
      value: 0.2
    }
  }
}
layer {
  name: "inception_3b/relu_5x5_reduce"
  type: "ReLU"
  bottom: "inception_3b/5x5_reduce"
  top: "inception_3b/5x5_reduce"
}
layer {
  name: "inception_3b/5x5"
  type: "Convolution"
  bottom: "inception_3b/5x5_reduce"
  top: "inception_3b/5x5"
  param {
    lr_mult: 1
    decay_mult: 1
  }
  param {
    lr_mult: 2
    decay_mult: 0
  }
  convolution_param {
    num_output: 96
    pad: 2
    kernel_size: 5
    weight_filler {
      type: "xavier"
      std: 0.03
    }
    bias_filler {
      type: "constant"
      value: 0.2
    }
  }
}
layer {
  name: "inception_3b/relu_5x5"
  type: "ReLU"
  bottom: "inception_3b/5x5"
  top: "inception_3b/5x5"
}
layer {
  name: "inception_3b/pool"
  type: "Pooling"
  bottom: "inception_3a/output"
  top: "inception_3b/pool"
  pooling_param {
    pool: MAX
    kernel_size: 3
    stride: 1
    pad: 1
  }
}
layer {
  name: "inception_3b/pool_proj"
  type: "Convolution"
  bottom: "inception_3b/pool"
  top: "inception_3b/pool_proj"
  param {
    lr_mult: 1
    decay_mult: 1
  }
  param {
    lr_mult: 2
    decay_mult: 0
  }
  convolution_param {
    num_output: 64
    kernel_size: 1
    weight_filler {
      type: "xavier"
      std: 0.1
    }
    bias_filler {
      type: "constant"
      value: 0.2
    }
  }
}
layer {
  name: "inception_3b/relu_pool_proj"
  type: "ReLU"
  bottom: "inception_3b/pool_proj"
  top: "inception_3b/pool_proj"
}
layer {
  name: "inception_3b/output"
  type: "Concat"
  bottom: "inception_3b/1x1"
  bottom: "inception_3b/3x3"
  bottom: "inception_3b/5x5"
  bottom: "inception_3b/pool_proj"
  top: "inception_3b/output"
}
layer {
  name: "pool3/3x3_s2"
  type: "Pooling"
  bottom: "inception_3b/output"
  top: "pool3/3x3_s2"
  pooling_param {
    pool: MAX
    kernel_size: 3
    stride: 2
  }
}
layer {
  name: "inception_4a/1x1"
  type: "Convolution"
  bottom: "pool3/3x3_s2"
  top: "inception_4a/1x1"
  param {
    lr_mult: 1
    decay_mult: 1
  }
  param {
    lr_mult: 2
    decay_mult: 0
  }
  convolution_param {
    num_output: 192
    kernel_size: 1
    weight_filler {
      type: "xavier"
      std: 0.03
    }
    bias_filler {
      type: "constant"
      value: 0.2
    }
  }
}
layer {
  name: "inception_4a/relu_1x1"
  type: "ReLU"
  bottom: "inception_4a/1x1"
  top: "inception_4a/1x1"
}
layer {
  name: "inception_4a/3x3_reduce"
  type: "Convolution"
  bottom: "pool3/3x3_s2"
  top: "inception_4a/3x3_reduce"
  param {
    lr_mult: 1
    decay_mult: 1
  }
  param {
    lr_mult: 2
    decay_mult: 0
  }
  convolution_param {
    num_output: 96
    kernel_size: 1
    weight_filler {
      type: "xavier"
      std: 0.09
    }
    bias_filler {
      type: "constant"
      value: 0.2
    }
  }
}
layer {
  name: "inception_4a/relu_3x3_reduce"
  type: "ReLU"
  bottom: "inception_4a/3x3_reduce"
  top: "inception_4a/3x3_reduce"
}
layer {
  name: "inception_4a/3x3"
  type: "Convolution"
  bottom: "inception_4a/3x3_reduce"
  top: "inception_4a/3x3"
  param {
    lr_mult: 1
    decay_mult: 1
  }
  param {
    lr_mult: 2
    decay_mult: 0
  }
  convolution_param {
    num_output: 208
    pad: 1
    kernel_size: 3
    weight_filler {
      type: "xavier"
      std: 0.03
    }
    bias_filler {
      type: "constant"
      value: 0.2
    }
  }
}
layer {
  name: "inception_4a/relu_3x3"
  type: "ReLU"
  bottom: "inception_4a/3x3"
  top: "inception_4a/3x3"
}
layer {
  name: "inception_4a/5x5_reduce"
  type: "Convolution"
  bottom: "pool3/3x3_s2"
  top: "inception_4a/5x5_reduce"
  param {
    lr_mult: 1
    decay_mult: 1
  }
  param {
    lr_mult: 2
    decay_mult: 0
  }
  convolution_param {
    num_output: 16
    kernel_size: 1
    weight_filler {
      type: "xavier"
      std: 0.2
    }
    bias_filler {
      type: "constant"
      value: 0.2
    }
  }
}
layer {
  name: "inception_4a/relu_5x5_reduce"
  type: "ReLU"
  bottom: "inception_4a/5x5_reduce"
  top: "inception_4a/5x5_reduce"
}
layer {
  name: "inception_4a/5x5"
  type: "Convolution"
  bottom: "inception_4a/5x5_reduce"
  top: "inception_4a/5x5"
  param {
    lr_mult: 1
    decay_mult: 1
  }
  param {
    lr_mult: 2
    decay_mult: 0
  }
  convolution_param {
    num_output: 48
    pad: 2
    kernel_size: 5
    weight_filler {
      type: "xavier"
      std: 0.03
    }
    bias_filler {
      type: "constant"
      value: 0.2
    }
  }
}
layer {
  name: "inception_4a/relu_5x5"
  type: "ReLU"
  bottom: "inception_4a/5x5"
  top: "inception_4a/5x5"
}
layer {
  name: "inception_4a/pool"
  type: "Pooling"
  bottom: "pool3/3x3_s2"
  top: "inception_4a/pool"
  pooling_param {
    pool: MAX
    kernel_size: 3
    stride: 1
    pad: 1
  }
}
layer {
  name: "inception_4a/pool_proj"
  type: "Convolution"
  bottom: "inception_4a/pool"
  top: "inception_4a/pool_proj"
  param {
    lr_mult: 1
    decay_mult: 1
  }
  param {
    lr_mult: 2
    decay_mult: 0
  }
  convolution_param {
    num_output: 64
    kernel_size: 1
    weight_filler {
      type: "xavier"
      std: 0.1
    }
    bias_filler {
      type: "constant"
      value: 0.2
    }
  }
}
layer {
  name: "inception_4a/relu_pool_proj"
  type: "ReLU"
  bottom: "inception_4a/pool_proj"
  top: "inception_4a/pool_proj"
}
layer {
  name: "inception_4a/output"
  type: "Concat"
  bottom: "inception_4a/1x1"
  bottom: "inception_4a/3x3"
  bottom: "inception_4a/5x5"
  bottom: "inception_4a/pool_proj"
  top: "inception_4a/output"
}
layer {
  name: "loss1/ave_pool"
  type: "Pooling"
  bottom: "inception_4a/output"
  top: "loss1/ave_pool"
  pooling_param {
    pool: AVE
    kernel_size: 5
    stride: 3
  }
}
layer {
  name: "loss1/conv"
  type: "Convolution"
  bottom: "loss1/ave_pool"
  top: "loss1/conv"
  param {
    lr_mult: 1
    decay_mult: 1
  }
  param {
    lr_mult: 2
    decay_mult: 0
  }
  convolution_param {
    num_output: 128
    kernel_size: 1
    weight_filler {
      type: "xavier"
      std: 0.08
    }
    bias_filler {
      type: "constant"
      value: 0.2
    }
  }
}
layer {
  name: "loss1/relu_conv"
  type: "ReLU"
  bottom: "loss1/conv"
  top: "loss1/conv"
}
layer {
  name: "loss1/fc"
  type: "InnerProduct"
  bottom: "loss1/conv"
  top: "loss1/fc"
  param {
    lr_mult: 1
    decay_mult: 1
  }
  param {
    lr_mult: 2
    decay_mult: 0
  }
  inner_product_param {
    num_output: 1024
    weight_filler {
      type: "xavier"
      std: 0.02
    }
    bias_filler {
      type: "constant"
      value: 0.2
    }
  }
}
layer {
  name: "loss1/relu_fc"
  type: "ReLU"
  bottom: "loss1/fc"
  top: "loss1/fc"
}
layer {
  name: "loss1/drop_fc"
  type: "Dropout"
  bottom: "loss1/fc"
  top: "loss1/fc"
  dropout_param {
    dropout_ratio: 0.7
  }
}
layer {
  name: "loss1/classifier_plantvillage"
  type: "InnerProduct"
  bottom: "loss1/fc"
  top: "loss1/classifier_plantvillage"
  param {
    lr_mult: 1
    decay_mult: 1
  }
  param {
    lr_mult: 2
    decay_mult: 0
  }
  inner_product_param {
    num_output: 38
    weight_filler {
      type: "xavier"
      std: 0.0009765625
    }
    bias_filler {
      type: "constant"
      value: 0
    }
  }
}
layer {
  name: "inception_4b/1x1"
  type: "Convolution"
  bottom: "inception_4a/output"
  top: "inception_4b/1x1"
  param {
    lr_mult: 1
    decay_mult: 1
  }
  param {
    lr_mult: 2
    decay_mult: 0
  }
  convolution_param {
    num_output: 160
    kernel_size: 1
    weight_filler {
      type: "xavier"
      std: 0.03
    }
    bias_filler {
      type: "constant"
      value: 0.2
    }
  }
}
layer {
  name: "inception_4b/relu_1x1"
  type: "ReLU"
  bottom: "inception_4b/1x1"
  top: "inception_4b/1x1"
}
layer {
  name: "inception_4b/3x3_reduce"
  type: "Convolution"
  bottom: "inception_4a/output"
  top: "inception_4b/3x3_reduce"
  param {
    lr_mult: 1
    decay_mult: 1
  }
  param {
    lr_mult: 2
    decay_mult: 0
  }
  convolution_param {
    num_output: 112
    kernel_size: 1
    weight_filler {
      type: "xavier"
      std: 0.09
    }
    bias_filler {
      type: "constant"
      value: 0.2
    }
  }
}
layer {
  name: "inception_4b/relu_3x3_reduce"
  type: "ReLU"
  bottom: "inception_4b/3x3_reduce"
  top: "inception_4b/3x3_reduce"
}
layer {
  name: "inception_4b/3x3"
  type: "Convolution"
  bottom: "inception_4b/3x3_reduce"
  top: "inception_4b/3x3"
  param {
    lr_mult: 1
    decay_mult: 1
  }
  param {
    lr_mult: 2
    decay_mult: 0
  }
  convolution_param {
    num_output: 224
    pad: 1
    kernel_size: 3
    weight_filler {
      type: "xavier"
      std: 0.03
    }
    bias_filler {
      type: "constant"
      value: 0.2
    }
  }
}
layer {
  name: "inception_4b/relu_3x3"
  type: "ReLU"
  bottom: "inception_4b/3x3"
  top: "inception_4b/3x3"
}
layer {
  name: "inception_4b/5x5_reduce"
  type: "Convolution"
  bottom: "inception_4a/output"
  top: "inception_4b/5x5_reduce"
  param {
    lr_mult: 1
    decay_mult: 1
  }
  param {
    lr_mult: 2
    decay_mult: 0
  }
  convolution_param {
    num_output: 24
    kernel_size: 1
    weight_filler {
      type: "xavier"
      std: 0.2
    }
    bias_filler {
      type: "constant"
      value: 0.2
    }
  }
}
layer {
  name: "inception_4b/relu_5x5_reduce"
  type: "ReLU"
  bottom: "inception_4b/5x5_reduce"
  top: "inception_4b/5x5_reduce"
}
layer {
  name: "inception_4b/5x5"
  type: "Convolution"
  bottom: "inception_4b/5x5_reduce"
  top: "inception_4b/5x5"
  param {
    lr_mult: 1
    decay_mult: 1
  }
  param {
    lr_mult: 2
    decay_mult: 0
  }
  convolution_param {
    num_output: 64
    pad: 2
    kernel_size: 5
    weight_filler {
      type: "xavier"
      std: 0.03
    }
    bias_filler {
      type: "constant"
      value: 0.2
    }
  }
}
layer {
  name: "inception_4b/relu_5x5"
  type: "ReLU"
  bottom: "inception_4b/5x5"
  top: "inception_4b/5x5"
}
layer {
  name: "inception_4b/pool"
  type: "Pooling"
  bottom: "inception_4a/output"
  top: "inception_4b/pool"
  pooling_param {
    pool: MAX
    kernel_size: 3
    stride: 1
    pad: 1
  }
}
layer {
  name: "inception_4b/pool_proj"
  type: "Convolution"
  bottom: "inception_4b/pool"
  top: "inception_4b/pool_proj"
  param {
    lr_mult: 1
    decay_mult: 1
  }
  param {
    lr_mult: 2
    decay_mult: 0
  }
  convolution_param {
    num_output: 64
    kernel_size: 1
    weight_filler {
      type: "xavier"
      std: 0.1
    }
    bias_filler {
      type: "constant"
      value: 0.2
    }
  }
}
layer {
  name: "inception_4b/relu_pool_proj"
  type: "ReLU"
  bottom: "inception_4b/pool_proj"
  top: "inception_4b/pool_proj"
}
layer {
  name: "inception_4b/output"
  type: "Concat"
  bottom: "inception_4b/1x1"
  bottom: "inception_4b/3x3"
  bottom: "inception_4b/5x5"
  bottom: "inception_4b/pool_proj"
  top: "inception_4b/output"
}
layer {
  name: "inception_4c/1x1"
  type: "Convolution"
  bottom: "inception_4b/output"
  top: "inception_4c/1x1"
  param {
    lr_mult: 1
    decay_mult: 1
  }
  param {
    lr_mult: 2
    decay_mult: 0
  }
  convolution_param {
    num_output: 128
    kernel_size: 1
    weight_filler {
      type: "xavier"
      std: 0.03
    }
    bias_filler {
      type: "constant"
      value: 0.2
    }
  }
}
layer {
  name: "inception_4c/relu_1x1"
  type: "ReLU"
  bottom: "inception_4c/1x1"
  top: "inception_4c/1x1"
}
layer {
  name: "inception_4c/3x3_reduce"
  type: "Convolution"
  bottom: "inception_4b/output"
  top: "inception_4c/3x3_reduce"
  param {
    lr_mult: 1
    decay_mult: 1
  }
  param {
    lr_mult: 2
    decay_mult: 0
  }
  convolution_param {
    num_output: 128
    kernel_size: 1
    weight_filler {
      type: "xavier"
      std: 0.09
    }
    bias_filler {
      type: "constant"
      value: 0.2
    }
  }
}
layer {
  name: "inception_4c/relu_3x3_reduce"
  type: "ReLU"
  bottom: "inception_4c/3x3_reduce"
  top: "inception_4c/3x3_reduce"
}
layer {
  name: "inception_4c/3x3"
  type: "Convolution"
  bottom: "inception_4c/3x3_reduce"
  top: "inception_4c/3x3"
  param {
    lr_mult: 1
    decay_mult: 1
  }
  param {
    lr_mult: 2
    decay_mult: 0
  }
  convolution_param {
    num_output: 256
    pad: 1
    kernel_size: 3
    weight_filler {
      type: "xavier"
      std: 0.03
    }
    bias_filler {
      type: "constant"
      value: 0.2
    }
  }
}
layer {
  name: "inception_4c/relu_3x3"
  type: "ReLU"
  bottom: "inception_4c/3x3"
  top: "inception_4c/3x3"
}
layer {
  name: "inception_4c/5x5_reduce"
  type: "Convolution"
  bottom: "inception_4b/output"
  top: "inception_4c/5x5_reduce"
  param {
    lr_mult: 1
    decay_mult: 1
  }
  param {
    lr_mult: 2
    decay_mult: 0
  }
  convolution_param {
    num_output: 24
    kernel_size: 1
    weight_filler {
      type: "xavier"
      std: 0.2
    }
    bias_filler {
      type: "constant"
      value: 0.2
    }
  }
}
layer {
  name: "inception_4c/relu_5x5_reduce"
  type: "ReLU"
  bottom: "inception_4c/5x5_reduce"
  top: "inception_4c/5x5_reduce"
}
layer {
  name: "inception_4c/5x5"
  type: "Convolution"
  bottom: "inception_4c/5x5_reduce"
  top: "inception_4c/5x5"
  param {
    lr_mult: 1
    decay_mult: 1
  }
  param {
    lr_mult: 2
    decay_mult: 0
  }
  convolution_param {
    num_output: 64
    pad: 2
    kernel_size: 5
    weight_filler {
      type: "xavier"
      std: 0.03
    }
    bias_filler {
      type: "constant"
      value: 0.2
    }
  }
}
layer {
  name: "inception_4c/relu_5x5"
  type: "ReLU"
  bottom: "inception_4c/5x5"
  top: "inception_4c/5x5"
}
layer {
  name: "inception_4c/pool"
  type: "Pooling"
  bottom: "inception_4b/output"
  top: "inception_4c/pool"
  pooling_param {
    pool: MAX
    kernel_size: 3
    stride: 1
    pad: 1
  }
}
layer {
  name: "inception_4c/pool_proj"
  type: "Convolution"
  bottom: "inception_4c/pool"
  top: "inception_4c/pool_proj"
  param {
    lr_mult: 1
    decay_mult: 1
  }
  param {
    lr_mult: 2
    decay_mult: 0
  }
  convolution_param {
    num_output: 64
    kernel_size: 1
    weight_filler {
      type: "xavier"
      std: 0.1
    }
    bias_filler {
      type: "constant"
      value: 0.2
    }
  }
}
layer {
  name: "inception_4c/relu_pool_proj"
  type: "ReLU"
  bottom: "inception_4c/pool_proj"
  top: "inception_4c/pool_proj"
}
layer {
  name: "inception_4c/output"
  type: "Concat"
  bottom: "inception_4c/1x1"
  bottom: "inception_4c/3x3"
  bottom: "inception_4c/5x5"
  bottom: "inception_4c/pool_proj"
  top: "inception_4c/output"
}
layer {
  name: "inception_4d/1x1"
  type: "Convolution"
  bottom: "inception_4c/output"
  top: "inception_4d/1x1"
  param {
    lr_mult: 1
    decay_mult: 1
  }
  param {
    lr_mult: 2
    decay_mult: 0
  }
  convolution_param {
    num_output: 112
    kernel_size: 1
    weight_filler {
      type: "xavier"
      std: 0.03
    }
    bias_filler {
      type: "constant"
      value: 0.2
    }
  }
}
layer {
  name: "inception_4d/relu_1x1"
  type: "ReLU"
  bottom: "inception_4d/1x1"
  top: "inception_4d/1x1"
}
layer {
  name: "inception_4d/3x3_reduce"
  type: "Convolution"
  bottom: "inception_4c/output"
  top: "inception_4d/3x3_reduce"
  param {
    lr_mult: 1
    decay_mult: 1
  }
  param {
    lr_mult: 2
    decay_mult: 0
  }
  convolution_param {
    num_output: 144
    kernel_size: 1
    weight_filler {
      type: "xavier"
      std: 0.09
    }
    bias_filler {
      type: "constant"
      value: 0.2
    }
  }
}
layer {
  name: "inception_4d/relu_3x3_reduce"
  type: "ReLU"
  bottom: "inception_4d/3x3_reduce"
  top: "inception_4d/3x3_reduce"
}
layer {
  name: "inception_4d/3x3"
  type: "Convolution"
  bottom: "inception_4d/3x3_reduce"
  top: "inception_4d/3x3"
  param {
    lr_mult: 1
    decay_mult: 1
  }
  param {
    lr_mult: 2
    decay_mult: 0
  }
  convolution_param {
    num_output: 288
    pad: 1
    kernel_size: 3
    weight_filler {
      type: "xavier"
      std: 0.03
    }
    bias_filler {
      type: "constant"
      value: 0.2
    }
  }
}
layer {
  name: "inception_4d/relu_3x3"
  type: "ReLU"
  bottom: "inception_4d/3x3"
  top: "inception_4d/3x3"
}
layer {
  name: "inception_4d/5x5_reduce"
  type: "Convolution"
  bottom: "inception_4c/output"
  top: "inception_4d/5x5_reduce"
  param {
    lr_mult: 1
    decay_mult: 1
  }
  param {
    lr_mult: 2
    decay_mult: 0
  }
  convolution_param {
    num_output: 32
    kernel_size: 1
    weight_filler {
      type: "xavier"
      std: 0.2
    }
    bias_filler {
      type: "constant"
      value: 0.2
    }
  }
}
layer {
  name: "inception_4d/relu_5x5_reduce"
  type: "ReLU"
  bottom: "inception_4d/5x5_reduce"
  top: "inception_4d/5x5_reduce"
}
layer {
  name: "inception_4d/5x5"
  type: "Convolution"
  bottom: "inception_4d/5x5_reduce"
  top: "inception_4d/5x5"
  param {
    lr_mult: 1
    decay_mult: 1
  }
  param {
    lr_mult: 2
    decay_mult: 0
  }
  convolution_param {
    num_output: 64
    pad: 2
    kernel_size: 5
    weight_filler {
      type: "xavier"
      std: 0.03
    }
    bias_filler {
      type: "constant"
      value: 0.2
    }
  }
}
layer {
  name: "inception_4d/relu_5x5"
  type: "ReLU"
  bottom: "inception_4d/5x5"
  top: "inception_4d/5x5"
}
layer {
  name: "inception_4d/pool"
  type: "Pooling"
  bottom: "inception_4c/output"
  top: "inception_4d/pool"
  pooling_param {
    pool: MAX
    kernel_size: 3
    stride: 1
    pad: 1
  }
}
layer {
  name: "inception_4d/pool_proj"
  type: "Convolution"
  bottom: "inception_4d/pool"
  top: "inception_4d/pool_proj"
  param {
    lr_mult: 1
    decay_mult: 1
  }
  param {
    lr_mult: 2
    decay_mult: 0
  }
  convolution_param {
    num_output: 64
    kernel_size: 1
    weight_filler {
      type: "xavier"
      std: 0.1
    }
    bias_filler {
      type: "constant"
      value: 0.2
    }
  }
}
layer {
  name: "inception_4d/relu_pool_proj"
  type: "ReLU"
  bottom: "inception_4d/pool_proj"
  top: "inception_4d/pool_proj"
}
layer {
  name: "inception_4d/output"
  type: "Concat"
  bottom: "inception_4d/1x1"
  bottom: "inception_4d/3x3"
  bottom: "inception_4d/5x5"
  bottom: "inception_4d/pool_proj"
  top: "inception_4d/output"
}
layer {
  name: "loss2/ave_pool"
  type: "Pooling"
  bottom: "inception_4d/output"
  top: "loss2/ave_pool"
  pooling_param {
    pool: AVE
    kernel_size: 5
    stride: 3
  }
}
layer {
  name: "loss2/conv"
  type: "Convolution"
  bottom: "loss2/ave_pool"
  top: "loss2/conv"
  param {
    lr_mult: 1
    decay_mult: 1
  }
  param {
    lr_mult: 2
    decay_mult: 0
  }
  convolution_param {
    num_output: 128
    kernel_size: 1
    weight_filler {
      type: "xavier"
      std: 0.08
    }
    bias_filler {
      type: "constant"
      value: 0.2
    }
  }
}
layer {
  name: "loss2/relu_conv"
  type: "ReLU"
  bottom: "loss2/conv"
  top: "loss2/conv"
}
layer {
  name: "loss2/fc"
  type: "InnerProduct"
  bottom: "loss2/conv"
  top: "loss2/fc"
  param {
    lr_mult: 1
    decay_mult: 1
  }
  param {
    lr_mult: 2
    decay_mult: 0
  }
  inner_product_param {
    num_output: 1024
    weight_filler {
      type: "xavier"
      std: 0.02
    }
    bias_filler {
      type: "constant"
      value: 0.2
    }
  }
}
layer {
  name: "loss2/relu_fc"
  type: "ReLU"
  bottom: "loss2/fc"
  top: "loss2/fc"
}
layer {
  name: "loss2/drop_fc"
  type: "Dropout"
  bottom: "loss2/fc"
  top: "loss2/fc"
  dropout_param {
    dropout_ratio: 0.7
  }
}
layer {
  name: "loss2/classifier_plantvillage"
  type: "InnerProduct"
  bottom: "loss2/fc"
  top: "loss2/classifier_plantvillage"
  param {
    lr_mult: 1
    decay_mult: 1
  }
  param {
    lr_mult: 2
    decay_mult: 0
  }
  inner_product_param {
    num_output: 38
    weight_filler {
      type: "xavier"
      std: 0.0009765625
    }
    bias_filler {
      type: "constant"
      value: 0
    }
  }
}
layer {
  name: "inception_4e/1x1"
  type: "Convolution"
  bottom: "inception_4d/output"
  top: "inception_4e/1x1"
  param {
    lr_mult: 1
    decay_mult: 1
  }
  param {
    lr_mult: 2
    decay_mult: 0
  }
  convolution_param {
    num_output: 256
    kernel_size: 1
    weight_filler {
      type: "xavier"
      std: 0.03
    }
    bias_filler {
      type: "constant"
      value: 0.2
    }
  }
}
layer {
  name: "inception_4e/relu_1x1"
  type: "ReLU"
  bottom: "inception_4e/1x1"
  top: "inception_4e/1x1"
}
layer {
  name: "inception_4e/3x3_reduce"
  type: "Convolution"
  bottom: "inception_4d/output"
  top: "inception_4e/3x3_reduce"
  param {
    lr_mult: 1
    decay_mult: 1
  }
  param {
    lr_mult: 2
    decay_mult: 0
  }
  convolution_param {
    num_output: 160
    kernel_size: 1
    weight_filler {
      type: "xavier"
      std: 0.09
    }
    bias_filler {
      type: "constant"
      value: 0.2
    }
  }
}
layer {
  name: "inception_4e/relu_3x3_reduce"
  type: "ReLU"
  bottom: "inception_4e/3x3_reduce"
  top: "inception_4e/3x3_reduce"
}
layer {
  name: "inception_4e/3x3"
  type: "Convolution"
  bottom: "inception_4e/3x3_reduce"
  top: "inception_4e/3x3"
  param {
    lr_mult: 1
    decay_mult: 1
  }
  param {
    lr_mult: 2
    decay_mult: 0
  }
  convolution_param {
    num_output: 320
    pad: 1
    kernel_size: 3
    weight_filler {
      type: "xavier"
      std: 0.03
    }
    bias_filler {
      type: "constant"
      value: 0.2
    }
  }
}
layer {
  name: "inception_4e/relu_3x3"
  type: "ReLU"
  bottom: "inception_4e/3x3"
  top: "inception_4e/3x3"
}
layer {
  name: "inception_4e/5x5_reduce"
  type: "Convolution"
  bottom: "inception_4d/output"
  top: "inception_4e/5x5_reduce"
  param {
    lr_mult: 1
    decay_mult: 1
  }
  param {
    lr_mult: 2
    decay_mult: 0
  }
  convolution_param {
    num_output: 32
    kernel_size: 1
    weight_filler {
      type: "xavier"
      std: 0.2
    }
    bias_filler {
      type: "constant"
      value: 0.2
    }
  }
}
layer {
  name: "inception_4e/relu_5x5_reduce"
  type: "ReLU"
  bottom: "inception_4e/5x5_reduce"
  top: "inception_4e/5x5_reduce"
}
layer {
  name: "inception_4e/5x5"
  type: "Convolution"
  bottom: "inception_4e/5x5_reduce"
  top: "inception_4e/5x5"
  p
I0403 15:14:11.059761 14250 layer_factory.hpp:77] Creating layer data
I0403 15:14:11.060331 14250 net.cpp:91] Creating Layer data
I0403 15:14:11.060361 14250 net.cpp:399] data -> data
I0403 15:14:11.060408 14250 net.cpp:399] data -> label
I0403 15:14:11.060442 14250 data_transformer.cpp:25] Loading mean file from: /home/mohanty/data/final_dataset/lmdb/color-50-50/mean.binaryproto
I0403 15:14:11.063344 14253 db_lmdb.cpp:38] Opened lmdb /home/mohanty/data/final_dataset/lmdb/color-50-50/test_db
I0403 15:14:11.074002 14250 data_layer.cpp:41] output data size: 24,3,224,224
I0403 15:14:11.101222 14250 net.cpp:141] Setting up data
I0403 15:14:11.101310 14250 net.cpp:148] Top shape: 24 3 224 224 (3612672)
I0403 15:14:11.101332 14250 net.cpp:148] Top shape: 24 (24)
I0403 15:14:11.101347 14250 net.cpp:156] Memory required for data: 14450784
I0403 15:14:11.101375 14250 layer_factory.hpp:77] Creating layer label_data_1_split
I0403 15:14:11.101400 14250 net.cpp:91] Creating Layer label_data_1_split
I0403 15:14:11.101418 14250 net.cpp:425] label_data_1_split <- label
I0403 15:14:11.101449 14250 net.cpp:399] label_data_1_split -> label_data_1_split_0
I0403 15:14:11.101477 14250 net.cpp:399] label_data_1_split -> label_data_1_split_1
I0403 15:14:11.101498 14250 net.cpp:399] label_data_1_split -> label_data_1_split_2
I0403 15:14:11.101518 14250 net.cpp:399] label_data_1_split -> label_data_1_split_3
I0403 15:14:11.101541 14250 net.cpp:399] label_data_1_split -> label_data_1_split_4
I0403 15:14:11.101562 14250 net.cpp:399] label_data_1_split -> label_data_1_split_5
I0403 15:14:11.101583 14250 net.cpp:399] label_data_1_split -> label_data_1_split_6
I0403 15:14:11.101603 14250 net.cpp:399] label_data_1_split -> label_data_1_split_7
I0403 15:14:11.101621 14250 net.cpp:399] label_data_1_split -> label_data_1_split_8
I0403 15:14:11.101641 14250 net.cpp:399] label_data_1_split -> label_data_1_split_9
I0403 15:14:11.101758 14250 net.cpp:141] Setting up label_data_1_split
I0403 15:14:11.101783 14250 net.cpp:148] Top shape: 24 (24)
I0403 15:14:11.101799 14250 net.cpp:148] Top shape: 24 (24)
I0403 15:14:11.101814 14250 net.cpp:148] Top shape: 24 (24)
I0403 15:14:11.101830 14250 net.cpp:148] Top shape: 24 (24)
I0403 15:14:11.101843 14250 net.cpp:148] Top shape: 24 (24)
I0403 15:14:11.101858 14250 net.cpp:148] Top shape: 24 (24)
I0403 15:14:11.101873 14250 net.cpp:148] Top shape: 24 (24)
I0403 15:14:11.101889 14250 net.cpp:148] Top shape: 24 (24)
I0403 15:14:11.101903 14250 net.cpp:148] Top shape: 24 (24)
I0403 15:14:11.101919 14250 net.cpp:148] Top shape: 24 (24)
I0403 15:14:11.101968 14250 net.cpp:156] Memory required for data: 14451744
I0403 15:14:11.101984 14250 layer_factory.hpp:77] Creating layer conv1/7x7_s2
I0403 15:14:11.102015 14250 net.cpp:91] Creating Layer conv1/7x7_s2
I0403 15:14:11.102035 14250 net.cpp:425] conv1/7x7_s2 <- data
I0403 15:14:11.102054 14250 net.cpp:399] conv1/7x7_s2 -> conv1/7x7_s2
I0403 15:14:11.241586 14250 net.cpp:141] Setting up conv1/7x7_s2
I0403 15:14:11.241632 14250 net.cpp:148] Top shape: 24 64 112 112 (19267584)
I0403 15:14:11.241649 14250 net.cpp:156] Memory required for data: 91522080
I0403 15:14:11.241680 14250 layer_factory.hpp:77] Creating layer conv1/relu_7x7
I0403 15:14:11.241708 14250 net.cpp:91] Creating Layer conv1/relu_7x7
I0403 15:14:11.241726 14250 net.cpp:425] conv1/relu_7x7 <- conv1/7x7_s2
I0403 15:14:11.241745 14250 net.cpp:386] conv1/relu_7x7 -> conv1/7x7_s2 (in-place)
I0403 15:14:11.242017 14250 net.cpp:141] Setting up conv1/relu_7x7
I0403 15:14:11.242044 14250 net.cpp:148] Top shape: 24 64 112 112 (19267584)
I0403 15:14:11.242061 14250 net.cpp:156] Memory required for data: 168592416
I0403 15:14:11.242077 14250 layer_factory.hpp:77] Creating layer pool1/3x3_s2
I0403 15:14:11.242102 14250 net.cpp:91] Creating Layer pool1/3x3_s2
I0403 15:14:11.242120 14250 net.cpp:425] pool1/3x3_s2 <- conv1/7x7_s2
I0403 15:14:11.242139 14250 net.cpp:399] pool1/3x3_s2 -> pool1/3x3_s2
I0403 15:14:11.242215 14250 net.cpp:141] Setting up pool1/3x3_s2
I0403 15:14:11.242240 14250 net.cpp:148] Top shape: 24 64 56 56 (4816896)
I0403 15:14:11.242256 14250 net.cpp:156] Memory required for data: 187860000
I0403 15:14:11.242271 14250 layer_factory.hpp:77] Creating layer pool1/norm1
I0403 15:14:11.242296 14250 net.cpp:91] Creating Layer pool1/norm1
I0403 15:14:11.242314 14250 net.cpp:425] pool1/norm1 <- pool1/3x3_s2
I0403 15:14:11.242332 14250 net.cpp:399] pool1/norm1 -> pool1/norm1
I0403 15:14:11.242633 14250 net.cpp:141] Setting up pool1/norm1
I0403 15:14:11.242661 14250 net.cpp:148] Top shape: 24 64 56 56 (4816896)
I0403 15:14:11.242677 14250 net.cpp:156] Memory required for data: 207127584
I0403 15:14:11.242732 14250 layer_factory.hpp:77] Creating layer conv2/3x3_reduce
I0403 15:14:11.242763 14250 net.cpp:91] Creating Layer conv2/3x3_reduce
I0403 15:14:11.242780 14250 net.cpp:425] conv2/3x3_reduce <- pool1/norm1
I0403 15:14:11.242799 14250 net.cpp:399] conv2/3x3_reduce -> conv2/3x3_reduce
I0403 15:14:11.244179 14250 net.cpp:141] Setting up conv2/3x3_reduce
I0403 15:14:11.244210 14250 net.cpp:148] Top shape: 24 64 56 56 (4816896)
I0403 15:14:11.244226 14250 net.cpp:156] Memory required for data: 226395168
I0403 15:14:11.244248 14250 layer_factory.hpp:77] Creating layer conv2/relu_3x3_reduce
I0403 15:14:11.244269 14250 net.cpp:91] Creating Layer conv2/relu_3x3_reduce
I0403 15:14:11.244285 14250 net.cpp:425] conv2/relu_3x3_reduce <- conv2/3x3_reduce
I0403 15:14:11.244302 14250 net.cpp:386] conv2/relu_3x3_reduce -> conv2/3x3_reduce (in-place)
I0403 15:14:11.244616 14250 net.cpp:141] Setting up conv2/relu_3x3_reduce
I0403 15:14:11.244645 14250 net.cpp:148] Top shape: 24 64 56 56 (4816896)
I0403 15:14:11.244662 14250 net.cpp:156] Memory required for data: 245662752
I0403 15:14:11.244678 14250 layer_factory.hpp:77] Creating layer conv2/3x3
I0403 15:14:11.244700 14250 net.cpp:91] Creating Layer conv2/3x3
I0403 15:14:11.244717 14250 net.cpp:425] conv2/3x3 <- conv2/3x3_reduce
I0403 15:14:11.244736 14250 net.cpp:399] conv2/3x3 -> conv2/3x3
I0403 15:14:11.247104 14250 net.cpp:141] Setting up conv2/3x3
I0403 15:14:11.247135 14250 net.cpp:148] Top shape: 24 192 56 56 (14450688)
I0403 15:14:11.247153 14250 net.cpp:156] Memory required for data: 303465504
I0403 15:14:11.247174 14250 layer_factory.hpp:77] Creating layer conv2/relu_3x3
I0403 15:14:11.247195 14250 net.cpp:91] Creating Layer conv2/relu_3x3
I0403 15:14:11.247210 14250 net.cpp:425] conv2/relu_3x3 <- conv2/3x3
I0403 15:14:11.247228 14250 net.cpp:386] conv2/relu_3x3 -> conv2/3x3 (in-place)
I0403 15:14:11.247397 14250 net.cpp:141] Setting up conv2/relu_3x3
I0403 15:14:11.247424 14250 net.cpp:148] Top shape: 24 192 56 56 (14450688)
I0403 15:14:11.247478 14250 net.cpp:156] Memory required for data: 361268256
I0403 15:14:11.247494 14250 layer_factory.hpp:77] Creating layer conv2/norm2
I0403 15:14:11.247514 14250 net.cpp:91] Creating Layer conv2/norm2
I0403 15:14:11.247530 14250 net.cpp:425] conv2/norm2 <- conv2/3x3
I0403 15:14:11.247557 14250 net.cpp:399] conv2/norm2 -> conv2/norm2
I0403 15:14:11.247856 14250 net.cpp:141] Setting up conv2/norm2
I0403 15:14:11.247885 14250 net.cpp:148] Top shape: 24 192 56 56 (14450688)
I0403 15:14:11.247901 14250 net.cpp:156] Memory required for data: 419071008
I0403 15:14:11.247942 14250 layer_factory.hpp:77] Creating layer pool2/3x3_s2
I0403 15:14:11.247967 14250 net.cpp:91] Creating Layer pool2/3x3_s2
I0403 15:14:11.247984 14250 net.cpp:425] pool2/3x3_s2 <- conv2/norm2
I0403 15:14:11.248003 14250 net.cpp:399] pool2/3x3_s2 -> pool2/3x3_s2
I0403 15:14:11.248056 14250 net.cpp:141] Setting up pool2/3x3_s2
I0403 15:14:11.248080 14250 net.cpp:148] Top shape: 24 192 28 28 (3612672)
I0403 15:14:11.248096 14250 net.cpp:156] Memory required for data: 433521696
I0403 15:14:11.248112 14250 layer_factory.hpp:77] Creating layer pool2/3x3_s2_pool2/3x3_s2_0_split
I0403 15:14:11.248131 14250 net.cpp:91] Creating Layer pool2/3x3_s2_pool2/3x3_s2_0_split
I0403 15:14:11.248147 14250 net.cpp:425] pool2/3x3_s2_pool2/3x3_s2_0_split <- pool2/3x3_s2
I0403 15:14:11.248163 14250 net.cpp:399] pool2/3x3_s2_pool2/3x3_s2_0_split -> pool2/3x3_s2_pool2/3x3_s2_0_split_0
I0403 15:14:11.248183 14250 net.cpp:399] pool2/3x3_s2_pool2/3x3_s2_0_split -> pool2/3x3_s2_pool2/3x3_s2_0_split_1
I0403 15:14:11.248203 14250 net.cpp:399] pool2/3x3_s2_pool2/3x3_s2_0_split -> pool2/3x3_s2_pool2/3x3_s2_0_split_2
I0403 15:14:11.248224 14250 net.cpp:399] pool2/3x3_s2_pool2/3x3_s2_0_split -> pool2/3x3_s2_pool2/3x3_s2_0_split_3
I0403 15:14:11.248291 14250 net.cpp:141] Setting up pool2/3x3_s2_pool2/3x3_s2_0_split
I0403 15:14:11.248314 14250 net.cpp:148] Top shape: 24 192 28 28 (3612672)
I0403 15:14:11.248332 14250 net.cpp:148] Top shape: 24 192 28 28 (3612672)
I0403 15:14:11.248347 14250 net.cpp:148] Top shape: 24 192 28 28 (3612672)
I0403 15:14:11.248363 14250 net.cpp:148] Top shape: 24 192 28 28 (3612672)
I0403 15:14:11.248378 14250 net.cpp:156] Memory required for data: 491324448
I0403 15:14:11.248392 14250 layer_factory.hpp:77] Creating layer inception_3a/1x1
I0403 15:14:11.248414 14250 net.cpp:91] Creating Layer inception_3a/1x1
I0403 15:14:11.248430 14250 net.cpp:425] inception_3a/1x1 <- pool2/3x3_s2_pool2/3x3_s2_0_split_0
I0403 15:14:11.248450 14250 net.cpp:399] inception_3a/1x1 -> inception_3a/1x1
I0403 15:14:11.250038 14250 net.cpp:141] Setting up inception_3a/1x1
I0403 15:14:11.250072 14250 net.cpp:148] Top shape: 24 64 28 28 (1204224)
I0403 15:14:11.250089 14250 net.cpp:156] Memory required for data: 496141344
I0403 15:14:11.250108 14250 layer_factory.hpp:77] Creating layer inception_3a/relu_1x1
I0403 15:14:11.250128 14250 net.cpp:91] Creating Layer inception_3a/relu_1x1
I0403 15:14:11.250144 14250 net.cpp:425] inception_3a/relu_1x1 <- inception_3a/1x1
I0403 15:14:11.250161 14250 net.cpp:386] inception_3a/relu_1x1 -> inception_3a/1x1 (in-place)
I0403 15:14:11.250351 14250 net.cpp:141] Setting up inception_3a/relu_1x1
I0403 15:14:11.250380 14250 net.cpp:148] Top shape: 24 64 28 28 (1204224)
I0403 15:14:11.250397 14250 net.cpp:156] Memory required for data: 500958240
I0403 15:14:11.250412 14250 layer_factory.hpp:77] Creating layer inception_3a/3x3_reduce
I0403 15:14:11.250435 14250 net.cpp:91] Creating Layer inception_3a/3x3_reduce
I0403 15:14:11.250454 14250 net.cpp:425] inception_3a/3x3_reduce <- pool2/3x3_s2_pool2/3x3_s2_0_split_1
I0403 15:14:11.250475 14250 net.cpp:399] inception_3a/3x3_reduce -> inception_3a/3x3_reduce
I0403 15:14:11.252259 14250 net.cpp:141] Setting up inception_3a/3x3_reduce
I0403 15:14:11.252288 14250 net.cpp:148] Top shape: 24 96 28 28 (1806336)
I0403 15:14:11.252305 14250 net.cpp:156] Memory required for data: 508183584
I0403 15:14:11.252328 14250 layer_factory.hpp:77] Creating layer inception_3a/relu_3x3_reduce
I0403 15:14:11.252367 14250 net.cpp:91] Creating Layer inception_3a/relu_3x3_reduce
I0403 15:14:11.252385 14250 net.cpp:425] inception_3a/relu_3x3_reduce <- inception_3a/3x3_reduce
I0403 15:14:11.252406 14250 net.cpp:386] inception_3a/relu_3x3_reduce -> inception_3a/3x3_reduce (in-place)
I0403 15:14:11.252600 14250 net.cpp:141] Setting up inception_3a/relu_3x3_reduce
I0403 15:14:11.252627 14250 net.cpp:148] Top shape: 24 96 28 28 (1806336)
I0403 15:14:11.252643 14250 net.cpp:156] Memory required for data: 515408928
I0403 15:14:11.252658 14250 layer_factory.hpp:77] Creating layer inception_3a/3x3
I0403 15:14:11.252681 14250 net.cpp:91] Creating Layer inception_3a/3x3
I0403 15:14:11.252698 14250 net.cpp:425] inception_3a/3x3 <- inception_3a/3x3_reduce
I0403 15:14:11.252720 14250 net.cpp:399] inception_3a/3x3 -> inception_3a/3x3
I0403 15:14:11.254467 14250 net.cpp:141] Setting up inception_3a/3x3
I0403 15:14:11.254498 14250 net.cpp:148] Top shape: 24 128 28 28 (2408448)
I0403 15:14:11.254515 14250 net.cpp:156] Memory required for data: 525042720
I0403 15:14:11.254534 14250 layer_factory.hpp:77] Creating layer inception_3a/relu_3x3
I0403 15:14:11.254566 14250 net.cpp:91] Creating Layer inception_3a/relu_3x3
I0403 15:14:11.254585 14250 net.cpp:425] inception_3a/relu_3x3 <- inception_3a/3x3
I0403 15:14:11.254606 14250 net.cpp:386] inception_3a/relu_3x3 -> inception_3a/3x3 (in-place)
I0403 15:14:11.254896 14250 net.cpp:141] Setting up inception_3a/relu_3x3
I0403 15:14:11.254927 14250 net.cpp:148] Top shape: 24 128 28 28 (2408448)
I0403 15:14:11.254945 14250 net.cpp:156] Memory required for data: 534676512
I0403 15:14:11.254959 14250 layer_factory.hpp:77] Creating layer inception_3a/5x5_reduce
I0403 15:14:11.254982 14250 net.cpp:91] Creating Layer inception_3a/5x5_reduce
I0403 15:14:11.255000 14250 net.cpp:425] inception_3a/5x5_reduce <- pool2/3x3_s2_pool2/3x3_s2_0_split_2
I0403 15:14:11.255020 14250 net.cpp:399] inception_3a/5x5_reduce -> inception_3a/5x5_reduce
I0403 15:14:11.256034 14250 net.cpp:141] Setting up inception_3a/5x5_reduce
I0403 15:14:11.256064 14250 net.cpp:148] Top shape: 24 16 28 28 (301056)
I0403 15:14:11.256083 14250 net.cpp:156] Memory required for data: 535880736
I0403 15:14:11.256101 14250 layer_factory.hpp:77] Creating layer inception_3a/relu_5x5_reduce
I0403 15:14:11.256121 14250 net.cpp:91] Creating Layer inception_3a/relu_5x5_reduce
I0403 15:14:11.256139 14250 net.cpp:425] inception_3a/relu_5x5_reduce <- inception_3a/5x5_reduce
I0403 15:14:11.256160 14250 net.cpp:386] inception_3a/relu_5x5_reduce -> inception_3a/5x5_reduce (in-place)
I0403 15:14:11.256474 14250 net.cpp:141] Setting up inception_3a/relu_5x5_reduce
I0403 15:14:11.256502 14250 net.cpp:148] Top shape: 24 16 28 28 (301056)
I0403 15:14:11.256520 14250 net.cpp:156] Memory required for data: 537084960
I0403 15:14:11.256541 14250 layer_factory.hpp:77] Creating layer inception_3a/5x5
I0403 15:14:11.256567 14250 net.cpp:91] Creating Layer inception_3a/5x5
I0403 15:14:11.256588 14250 net.cpp:425] inception_3a/5x5 <- inception_3a/5x5_reduce
I0403 15:14:11.256611 14250 net.cpp:399] inception_3a/5x5 -> inception_3a/5x5
I0403 15:14:11.257683 14250 net.cpp:141] Setting up inception_3a/5x5
I0403 15:14:11.257719 14250 net.cpp:148] Top shape: 24 32 28 28 (602112)
I0403 15:14:11.257736 14250 net.cpp:156] Memory required for data: 539493408
I0403 15:14:11.257755 14250 layer_factory.hpp:77] Creating layer inception_3a/relu_5x5
I0403 15:14:11.257774 14250 net.cpp:91] Creating Layer inception_3a/relu_5x5
I0403 15:14:11.257791 14250 net.cpp:425] inception_3a/relu_5x5 <- inception_3a/5x5
I0403 15:14:11.257809 14250 net.cpp:386] inception_3a/relu_5x5 -> inception_3a/5x5 (in-place)
I0403 15:14:11.258003 14250 net.cpp:141] Setting up inception_3a/relu_5x5
I0403 15:14:11.258029 14250 net.cpp:148] Top shape: 24 32 28 28 (602112)
I0403 15:14:11.258044 14250 net.cpp:156] Memory required for data: 541901856
I0403 15:14:11.258059 14250 layer_factory.hpp:77] Creating layer inception_3a/pool
I0403 15:14:11.258075 14250 net.cpp:91] Creating Layer inception_3a/pool
I0403 15:14:11.258091 14250 net.cpp:425] inception_3a/pool <- pool2/3x3_s2_pool2/3x3_s2_0_split_3
I0403 15:14:11.258127 14250 net.cpp:399] inception_3a/pool -> inception_3a/pool
I0403 15:14:11.258188 14250 net.cpp:141] Setting up inception_3a/pool
I0403 15:14:11.258213 14250 net.cpp:148] Top shape: 24 192 28 28 (3612672)
I0403 15:14:11.258229 14250 net.cpp:156] Memory required for data: 556352544
I0403 15:14:11.258244 14250 layer_factory.hpp:77] Creating layer inception_3a/pool_proj
I0403 15:14:11.258268 14250 net.cpp:91] Creating Layer inception_3a/pool_proj
I0403 15:14:11.258286 14250 net.cpp:425] inception_3a/pool_proj <- inception_3a/pool
I0403 15:14:11.258304 14250 net.cpp:399] inception_3a/pool_proj -> inception_3a/pool_proj
I0403 15:14:11.259274 14250 net.cpp:141] Setting up inception_3a/pool_proj
I0403 15:14:11.259300 14250 net.cpp:148] Top shape: 24 32 28 28 (602112)
I0403 15:14:11.259315 14250 net.cpp:156] Memory required for data: 558760992
I0403 15:14:11.259338 14250 layer_factory.hpp:77] Creating layer inception_3a/relu_pool_proj
I0403 15:14:11.259358 14250 net.cpp:91] Creating Layer inception_3a/relu_pool_proj
I0403 15:14:11.259373 14250 net.cpp:425] inception_3a/relu_pool_proj <- inception_3a/pool_proj
I0403 15:14:11.259392 14250 net.cpp:386] inception_3a/relu_pool_proj -> inception_3a/pool_proj (in-place)
I0403 15:14:11.259667 14250 net.cpp:141] Setting up inception_3a/relu_pool_proj
I0403 15:14:11.259697 14250 net.cpp:148] Top shape: 24 32 28 28 (602112)
I0403 15:14:11.259714 14250 net.cpp:156] Memory required for data: 561169440
I0403 15:14:11.259729 14250 layer_factory.hpp:77] Creating layer inception_3a/output
I0403 15:14:11.259747 14250 net.cpp:91] Creating Layer inception_3a/output
I0403 15:14:11.259762 14250 net.cpp:425] inception_3a/output <- inception_3a/1x1
I0403 15:14:11.259778 14250 net.cpp:425] inception_3a/output <- inception_3a/3x3
I0403 15:14:11.259793 14250 net.cpp:425] inception_3a/output <- inception_3a/5x5
I0403 15:14:11.259807 14250 net.cpp:425] inception_3a/output <- inception_3a/pool_proj
I0403 15:14:11.259824 14250 net.cpp:399] inception_3a/output -> inception_3a/output
I0403 15:14:11.259871 14250 net.cpp:141] Setting up inception_3a/output
I0403 15:14:11.259893 14250 net.cpp:148] Top shape: 24 256 28 28 (4816896)
I0403 15:14:11.259907 14250 net.cpp:156] Memory required for data: 580437024
I0403 15:14:11.259922 14250 layer_factory.hpp:77] Creating layer inception_3a/output_inception_3a/output_0_split
I0403 15:14:11.259940 14250 net.cpp:91] Creating Layer inception_3a/output_inception_3a/output_0_split
I0403 15:14:11.259956 14250 net.cpp:425] inception_3a/output_inception_3a/output_0_split <- inception_3a/output
I0403 15:14:11.259973 14250 net.cpp:399] inception_3a/output_inception_3a/output_0_split -> inception_3a/output_inception_3a/output_0_split_0
I0403 15:14:11.259992 14250 net.cpp:399] inception_3a/output_inception_3a/output_0_split -> inception_3a/output_inception_3a/output_0_split_1
I0403 15:14:11.260016 14250 net.cpp:399] inception_3a/output_inception_3a/output_0_split -> inception_3a/output_inception_3a/output_0_split_2
I0403 15:14:11.260037 14250 net.cpp:399] inception_3a/output_inception_3a/output_0_split -> inception_3a/output_inception_3a/output_0_split_3
I0403 15:14:11.260110 14250 net.cpp:141] Setting up inception_3a/output_inception_3a/output_0_split
I0403 15:14:11.260133 14250 net.cpp:148] Top shape: 24 256 28 28 (4816896)
I0403 15:14:11.260149 14250 net.cpp:148] Top shape: 24 256 28 28 (4816896)
I0403 15:14:11.260164 14250 net.cpp:148] Top shape: 24 256 28 28 (4816896)
I0403 15:14:11.260179 14250 net.cpp:148] Top shape: 24 256 28 28 (4816896)
I0403 15:14:11.260192 14250 net.cpp:156] Memory required for data: 657507360
I0403 15:14:11.260206 14250 layer_factory.hpp:77] Creating layer inception_3b/1x1
I0403 15:14:11.260229 14250 net.cpp:91] Creating Layer inception_3b/1x1
I0403 15:14:11.260246 14250 net.cpp:425] inception_3b/1x1 <- inception_3a/output_inception_3a/output_0_split_0
I0403 15:14:11.260267 14250 net.cpp:399] inception_3b/1x1 -> inception_3b/1x1
I0403 15:14:11.261390 14250 net.cpp:141] Setting up inception_3b/1x1
I0403 15:14:11.261428 14250 net.cpp:148] Top shape: 24 128 28 28 (2408448)
I0403 15:14:11.261445 14250 net.cpp:156] Memory required for data: 667141152
I0403 15:14:11.261462 14250 layer_factory.hpp:77] Creating layer inception_3b/relu_1x1
I0403 15:14:11.261482 14250 net.cpp:91] Creating Layer inception_3b/relu_1x1
I0403 15:14:11.261499 14250 net.cpp:425] inception_3b/relu_1x1 <- inception_3b/1x1
I0403 15:14:11.261517 14250 net.cpp:386] inception_3b/relu_1x1 -> inception_3b/1x1 (in-place)
I0403 15:14:11.261690 14250 net.cpp:141] Setting up inception_3b/relu_1x1
I0403 15:14:11.261718 14250 net.cpp:148] Top shape: 24 128 28 28 (2408448)
I0403 15:14:11.261732 14250 net.cpp:156] Memory required for data: 676774944
I0403 15:14:11.261747 14250 layer_factory.hpp:77] Creating layer inception_3b/3x3_reduce
I0403 15:14:11.261770 14250 net.cpp:91] Creating Layer inception_3b/3x3_reduce
I0403 15:14:11.261786 14250 net.cpp:425] inception_3b/3x3_reduce <- inception_3a/output_inception_3a/output_0_split_1
I0403 15:14:11.261809 14250 net.cpp:399] inception_3b/3x3_reduce -> inception_3b/3x3_reduce
I0403 15:14:11.262931 14250 net.cpp:141] Setting up inception_3b/3x3_reduce
I0403 15:14:11.262959 14250 net.cpp:148] Top shape: 24 128 28 28 (2408448)
I0403 15:14:11.262974 14250 net.cpp:156] Memory required for data: 686408736
I0403 15:14:11.262992 14250 layer_factory.hpp:77] Creating layer inception_3b/relu_3x3_reduce
I0403 15:14:11.263013 14250 net.cpp:91] Creating Layer inception_3b/relu_3x3_reduce
I0403 15:14:11.263030 14250 net.cpp:425] inception_3b/relu_3x3_reduce <- inception_3b/3x3_reduce
I0403 15:14:11.263046 14250 net.cpp:386] inception_3b/relu_3x3_reduce -> inception_3b/3x3_reduce (in-place)
I0403 15:14:11.263216 14250 net.cpp:141] Setting up inception_3b/relu_3x3_reduce
I0403 15:14:11.263242 14250 net.cpp:148] Top shape: 24 128 28 28 (2408448)
I0403 15:14:11.263260 14250 net.cpp:156] Memory required for data: 696042528
I0403 15:14:11.263275 14250 layer_factory.hpp:77] Creating layer inception_3b/3x3
I0403 15:14:11.263299 14250 net.cpp:91] Creating Layer inception_3b/3x3
I0403 15:14:11.263316 14250 net.cpp:425] inception_3b/3x3 <- inception_3b/3x3_reduce
I0403 15:14:11.263337 14250 net.cpp:399] inception_3b/3x3 -> inception_3b/3x3
I0403 15:14:11.266221 14250 net.cpp:141] Setting up inception_3b/3x3
I0403 15:14:11.266252 14250 net.cpp:148] Top shape: 24 192 28 28 (3612672)
I0403 15:14:11.266269 14250 net.cpp:156] Memory required for data: 710493216
I0403 15:14:11.266288 14250 layer_factory.hpp:77] Creating layer inception_3b/relu_3x3
I0403 15:14:11.266305 14250 net.cpp:91] Creating Layer inception_3b/relu_3x3
I0403 15:14:11.266320 14250 net.cpp:425] inception_3b/relu_3x3 <- inception_3b/3x3
I0403 15:14:11.266338 14250 net.cpp:386] inception_3b/relu_3x3 -> inception_3b/3x3 (in-place)
I0403 15:14:11.266625 14250 net.cpp:141] Setting up inception_3b/relu_3x3
I0403 15:14:11.266654 14250 net.cpp:148] Top shape: 24 192 28 28 (3612672)
I0403 15:14:11.266670 14250 net.cpp:156] Memory required for data: 724943904
I0403 15:14:11.266685 14250 layer_factory.hpp:77] Creating layer inception_3b/5x5_reduce
I0403 15:14:11.266706 14250 net.cpp:91] Creating Layer inception_3b/5x5_reduce
I0403 15:14:11.266724 14250 net.cpp:425] inception_3b/5x5_reduce <- inception_3a/output_inception_3a/output_0_split_2
I0403 15:14:11.266743 14250 net.cpp:399] inception_3b/5x5_reduce -> inception_3b/5x5_reduce
I0403 15:14:11.267763 14250 net.cpp:141] Setting up inception_3b/5x5_reduce
I0403 15:14:11.267793 14250 net.cpp:148] Top shape: 24 32 28 28 (602112)
I0403 15:14:11.267810 14250 net.cpp:156] Memory required for data: 727352352
I0403 15:14:11.267827 14250 layer_factory.hpp:77] Creating layer inception_3b/relu_5x5_reduce
I0403 15:14:11.267845 14250 net.cpp:91] Creating Layer inception_3b/relu_5x5_reduce
I0403 15:14:11.267860 14250 net.cpp:425] inception_3b/relu_5x5_reduce <- inception_3b/5x5_reduce
I0403 15:14:11.267877 14250 net.cpp:386] inception_3b/relu_5x5_reduce -> inception_3b/5x5_reduce (in-place)
I0403 15:14:11.268051 14250 net.cpp:141] Setting up inception_3b/relu_5x5_reduce
I0403 15:14:11.268088 14250 net.cpp:148] Top shape: 24 32 28 28 (602112)
I0403 15:14:11.268105 14250 net.cpp:156] Memory required for data: 729760800
I0403 15:14:11.268118 14250 layer_factory.hpp:77] Creating layer inception_3b/5x5
I0403 15:14:11.268141 14250 net.cpp:91] Creating Layer inception_3b/5x5
I0403 15:14:11.268158 14250 net.cpp:425] inception_3b/5x5 <- inception_3b/5x5_reduce
I0403 15:14:11.268178 14250 net.cpp:399] inception_3b/5x5 -> inception_3b/5x5
I0403 15:14:11.270151 14250 net.cpp:141] Setting up inception_3b/5x5
I0403 15:14:11.270180 14250 net.cpp:148] Top shape: 24 96 28 28 (1806336)
I0403 15:14:11.270195 14250 net.cpp:156] Memory required for data: 736986144
I0403 15:14:11.270213 14250 layer_factory.hpp:77] Creating layer inception_3b/relu_5x5
I0403 15:14:11.270233 14250 net.cpp:91] Creating Layer inception_3b/relu_5x5
I0403 15:14:11.270249 14250 net.cpp:425] inception_3b/relu_5x5 <- inception_3b/5x5
I0403 15:14:11.270267 14250 net.cpp:386] inception_3b/relu_5x5 -> inception_3b/5x5 (in-place)
I0403 15:14:11.270457 14250 net.cpp:141] Setting up inception_3b/relu_5x5
I0403 15:14:11.270483 14250 net.cpp:148] Top shape: 24 96 28 28 (1806336)
I0403 15:14:11.270496 14250 net.cpp:156] Memory required for data: 744211488
I0403 15:14:11.270514 14250 layer_factory.hpp:77] Creating layer inception_3b/pool
I0403 15:14:11.270530 14250 net.cpp:91] Creating Layer inception_3b/pool
I0403 15:14:11.270550 14250 net.cpp:425] inception_3b/pool <- inception_3a/output_inception_3a/output_0_split_3
I0403 15:14:11.270570 14250 net.cpp:399] inception_3b/pool -> inception_3b/pool
I0403 15:14:11.270625 14250 net.cpp:141] Setting up inception_3b/pool
I0403 15:14:11.270648 14250 net.cpp:148] Top shape: 24 256 28 28 (4816896)
I0403 15:14:11.270661 14250 net.cpp:156] Memory required for data: 763479072
I0403 15:14:11.270675 14250 layer_factory.hpp:77] Creating layer inception_3b/pool_proj
I0403 15:14:11.270697 14250 net.cpp:91] Creating Layer inception_3b/pool_proj
I0403 15:14:11.270714 14250 net.cpp:425] inception_3b/pool_proj <- inception_3b/pool
I0403 15:14:11.270733 14250 net.cpp:399] inception_3b/pool_proj -> inception_3b/pool_proj
I0403 15:14:11.271787 14250 net.cpp:141] Setting up inception_3b/pool_proj
I0403 15:14:11.271814 14250 net.cpp:148] Top shape: 24 64 28 28 (1204224)
I0403 15:14:11.271829 14250 net.cpp:156] Memory required for data: 768295968
I0403 15:14:11.271847 14250 layer_factory.hpp:77] Creating layer inception_3b/relu_pool_proj
I0403 15:14:11.271867 14250 net.cpp:91] Creating Layer inception_3b/relu_pool_proj
I0403 15:14:11.271884 14250 net.cpp:425] inception_3b/relu_pool_proj <- inception_3b/pool_proj
I0403 15:14:11.271903 14250 net.cpp:386] inception_3b/relu_pool_proj -> inception_3b/pool_proj (in-place)
I0403 15:14:11.272297 14250 net.cpp:141] Setting up inception_3b/relu_pool_proj
I0403 15:14:11.272323 14250 net.cpp:148] Top shape: 24 64 28 28 (1204224)
I0403 15:14:11.272338 14250 net.cpp:156] Memory required for data: 773112864
I0403 15:14:11.272352 14250 layer_factory.hpp:77] Creating layer inception_3b/output
I0403 15:14:11.272369 14250 net.cpp:91] Creating Layer inception_3b/output
I0403 15:14:11.272384 14250 net.cpp:425] inception_3b/output <- inception_3b/1x1
I0403 15:14:11.272399 14250 net.cpp:425] inception_3b/output <- inception_3b/3x3
I0403 15:14:11.272414 14250 net.cpp:425] inception_3b/output <- inception_3b/5x5
I0403 15:14:11.272429 14250 net.cpp:425] inception_3b/output <- inception_3b/pool_proj
I0403 15:14:11.272450 14250 net.cpp:399] inception_3b/output -> inception_3b/output
I0403 15:14:11.272495 14250 net.cpp:141] Setting up inception_3b/output
I0403 15:14:11.272519 14250 net.cpp:148] Top shape: 24 480 28 28 (9031680)
I0403 15:14:11.272541 14250 net.cpp:156] Memory required for data: 809239584
I0403 15:14:11.272569 14250 layer_factory.hpp:77] Creating layer pool3/3x3_s2
I0403 15:14:11.272588 14250 net.cpp:91] Creating Layer pool3/3x3_s2
I0403 15:14:11.272603 14250 net.cpp:425] pool3/3x3_s2 <- inception_3b/output
I0403 15:14:11.272634 14250 net.cpp:399] pool3/3x3_s2 -> pool3/3x3_s2
I0403 15:14:11.272712 14250 net.cpp:141] Setting up pool3/3x3_s2
I0403 15:14:11.272737 14250 net.cpp:148] Top shape: 24 480 14 14 (2257920)
I0403 15:14:11.272753 14250 net.cpp:156] Memory required for data: 818271264
I0403 15:14:11.272766 14250 layer_factory.hpp:77] Creating layer pool3/3x3_s2_pool3/3x3_s2_0_split
I0403 15:14:11.272784 14250 net.cpp:91] Creating Layer pool3/3x3_s2_pool3/3x3_s2_0_split
I0403 15:14:11.272799 14250 net.cpp:425] pool3/3x3_s2_pool3/3x3_s2_0_split <- pool3/3x3_s2
I0403 15:14:11.272819 14250 net.cpp:399] pool3/3x3_s2_pool3/3x3_s2_0_split -> pool3/3x3_s2_pool3/3x3_s2_0_split_0
I0403 15:14:11.272840 14250 net.cpp:399] pool3/3x3_s2_pool3/3x3_s2_0_split -> pool3/3x3_s2_pool3/3x3_s2_0_split_1
I0403 15:14:11.272861 14250 net.cpp:399] pool3/3x3_s2_pool3/3x3_s2_0_split -> pool3/3x3_s2_pool3/3x3_s2_0_split_2
I0403 15:14:11.272882 14250 net.cpp:399] pool3/3x3_s2_pool3/3x3_s2_0_split -> pool3/3x3_s2_pool3/3x3_s2_0_split_3
I0403 15:14:11.272972 14250 net.cpp:141] Setting up pool3/3x3_s2_pool3/3x3_s2_0_split
I0403 15:14:11.272996 14250 net.cpp:148] Top shape: 24 480 14 14 (2257920)
I0403 15:14:11.273012 14250 net.cpp:148] Top shape: 24 480 14 14 (2257920)
I0403 15:14:11.273027 14250 net.cpp:148] Top shape: 24 480 14 14 (2257920)
I0403 15:14:11.273042 14250 net.cpp:148] Top shape: 24 480 14 14 (2257920)
I0403 15:14:11.273056 14250 net.cpp:156] Memory required for data: 854397984
I0403 15:14:11.273069 14250 layer_factory.hpp:77] Creating layer inception_4a/1x1
I0403 15:14:11.273092 14250 net.cpp:91] Creating Layer inception_4a/1x1
I0403 15:14:11.273108 14250 net.cpp:425] inception_4a/1x1 <- pool3/3x3_s2_pool3/3x3_s2_0_split_0
I0403 15:14:11.273130 14250 net.cpp:399] inception_4a/1x1 -> inception_4a/1x1
I0403 15:14:11.274755 14250 net.cpp:141] Setting up inception_4a/1x1
I0403 15:14:11.274783 14250 net.cpp:148] Top shape: 24 192 14 14 (903168)
I0403 15:14:11.274799 14250 net.cpp:156] Memory required for data: 858010656
I0403 15:14:11.274817 14250 layer_factory.hpp:77] Creating layer inception_4a/relu_1x1
I0403 15:14:11.274839 14250 net.cpp:91] Creating Layer inception_4a/relu_1x1
I0403 15:14:11.274855 14250 net.cpp:425] inception_4a/relu_1x1 <- inception_4a/1x1
I0403 15:14:11.274873 14250 net.cpp:386] inception_4a/relu_1x1 -> inception_4a/1x1 (in-place)
I0403 15:14:11.275053 14250 net.cpp:141] Setting up inception_4a/relu_1x1
I0403 15:14:11.275079 14250 net.cpp:148] Top shape: 24 192 14 14 (903168)
I0403 15:14:11.275094 14250 net.cpp:156] Memory required for data: 861623328
I0403 15:14:11.275109 14250 layer_factory.hpp:77] Creating layer inception_4a/3x3_reduce
I0403 15:14:11.275133 14250 net.cpp:91] Creating Layer inception_4a/3x3_reduce
I0403 15:14:11.275151 14250 net.cpp:425] inception_4a/3x3_reduce <- pool3/3x3_s2_pool3/3x3_s2_0_split_1
I0403 15:14:11.275169 14250 net.cpp:399] inception_4a/3x3_reduce -> inception_4a/3x3_reduce
I0403 15:14:11.276474 14250 net.cpp:141] Setting up inception_4a/3x3_reduce
I0403 15:14:11.276502 14250 net.cpp:148] Top shape: 24 96 14 14 (451584)
I0403 15:14:11.276518 14250 net.cpp:156] Memory required for data: 863429664
I0403 15:14:11.276547 14250 layer_factory.hpp:77] Creating layer inception_4a/relu_3x3_reduce
I0403 15:14:11.276568 14250 net.cpp:91] Creating Layer inception_4a/relu_3x3_reduce
I0403 15:14:11.276584 14250 net.cpp:425] inception_4a/relu_3x3_reduce <- inception_4a/3x3_reduce
I0403 15:14:11.276604 14250 net.cpp:386] inception_4a/relu_3x3_reduce -> inception_4a/3x3_reduce (in-place)
I0403 15:14:11.276803 14250 net.cpp:141] Setting up inception_4a/relu_3x3_reduce
I0403 15:14:11.276829 14250 net.cpp:148] Top shape: 24 96 14 14 (451584)
I0403 15:14:11.276844 14250 net.cpp:156] Memory required for data: 865236000
I0403 15:14:11.276859 14250 layer_factory.hpp:77] Creating layer inception_4a/3x3
I0403 15:14:11.276881 14250 net.cpp:91] Creating Layer inception_4a/3x3
I0403 15:14:11.276900 14250 net.cpp:425] inception_4a/3x3 <- inception_4a/3x3_reduce
I0403 15:14:11.276921 14250 net.cpp:399] inception_4a/3x3 -> inception_4a/3x3
I0403 15:14:11.279678 14250 net.cpp:141] Setting up inception_4a/3x3
I0403 15:14:11.279707 14250 net.cpp:148] Top shape: 24 208 14 14 (978432)
I0403 15:14:11.279726 14250 net.cpp:156] Memory required for data: 869149728
I0403 15:14:11.279745 14250 layer_factory.hpp:77] Creating layer inception_4a/relu_3x3
I0403 15:14:11.279763 14250 net.cpp:91] Creating Layer inception_4a/relu_3x3
I0403 15:14:11.279779 14250 net.cpp:425] inception_4a/relu_3x3 <- inception_4a/3x3
I0403 15:14:11.279798 14250 net.cpp:386] inception_4a/relu_3x3 -> inception_4a/3x3 (in-place)
I0403 15:14:11.280081 14250 net.cpp:141] Setting up inception_4a/relu_3x3
I0403 15:14:11.280108 14250 net.cpp:148] Top shape: 24 208 14 14 (978432)
I0403 15:14:11.280128 14250 net.cpp:156] Memory required for data: 873063456
I0403 15:14:11.280143 14250 layer_factory.hpp:77] Creating layer inception_4a/5x5_reduce
I0403 15:14:11.280161 14250 net.cpp:91] Creating Layer inception_4a/5x5_reduce
I0403 15:14:11.280179 14250 net.cpp:425] inception_4a/5x5_reduce <- pool3/3x3_s2_pool3/3x3_s2_0_split_2
I0403 15:14:11.280200 14250 net.cpp:399] inception_4a/5x5_reduce -> inception_4a/5x5_reduce
I0403 15:14:11.281250 14250 net.cpp:141] Setting up inception_4a/5x5_reduce
I0403 15:14:11.281283 14250 net.cpp:148] Top shape: 24 16 14 14 (75264)
I0403 15:14:11.281301 14250 net.cpp:156] Memory required for data: 873364512
I0403 15:14:11.281321 14250 layer_factory.hpp:77] Creating layer inception_4a/relu_5x5_reduce
I0403 15:14:11.281338 14250 net.cpp:91] Creating Layer inception_4a/relu_5x5_reduce
I0403 15:14:11.281354 14250 net.cpp:425] inception_4a/relu_5x5_reduce <- inception_4a/5x5_reduce
I0403 15:14:11.281371 14250 net.cpp:386] inception_4a/relu_5x5_reduce -> inception_4a/5x5_reduce (in-place)
I0403 15:14:11.281561 14250 net.cpp:141] Setting up inception_4a/relu_5x5_reduce
I0403 15:14:11.281587 14250 net.cpp:148] Top shape: 24 16 14 14 (75264)
I0403 15:14:11.281615 14250 net.cpp:156] Memory required for data: 873665568
I0403 15:14:11.281628 14250 layer_factory.hpp:77] Creating layer inception_4a/5x5
I0403 15:14:11.281649 14250 net.cpp:91] Creating Layer inception_4a/5x5
I0403 15:14:11.281667 14250 net.cpp:425] inception_4a/5x5 <- inception_4a/5x5_reduce
I0403 15:14:11.281687 14250 net.cpp:399] inception_4a/5x5 -> inception_4a/5x5
I0403 15:14:11.282778 14250 net.cpp:141] Setting up inception_4a/5x5
I0403 15:14:11.282804 14250 net.cpp:148] Top shape: 24 48 14 14 (225792)
I0403 15:14:11.282820 14250 net.cpp:156] Memory required for data: 874568736
I0403 15:14:11.282837 14250 layer_factory.hpp:77] Creating layer inception_4a/relu_5x5
I0403 15:14:11.282855 14250 net.cpp:91] Creating Layer inception_4a/relu_5x5
I0403 15:14:11.282871 14250 net.cpp:425] inception_4a/relu_5x5 <- inception_4a/5x5
I0403 15:14:11.282889 14250 net.cpp:386] inception_4a/relu_5x5 -> inception_4a/5x5 (in-place)
I0403 15:14:11.283069 14250 net.cpp:141] Setting up inception_4a/relu_5x5
I0403 15:14:11.283094 14250 net.cpp:148] Top shape: 24 48 14 14 (225792)
I0403 15:14:11.283109 14250 net.cpp:156] Memory required for data: 875471904
I0403 15:14:11.283123 14250 layer_factory.hpp:77] Creating layer inception_4a/pool
I0403 15:14:11.283143 14250 net.cpp:91] Creating Layer inception_4a/pool
I0403 15:14:11.283159 14250 net.cpp:425] inception_4a/pool <- pool3/3x3_s2_pool3/3x3_s2_0_split_3
I0403 15:14:11.283176 14250 net.cpp:399] inception_4a/pool -> inception_4a/pool
I0403 15:14:11.283236 14250 net.cpp:141] Setting up inception_4a/pool
I0403 15:14:11.283259 14250 net.cpp:148] Top shape: 24 480 14 14 (2257920)
I0403 15:14:11.283273 14250 net.cpp:156] Memory required for data: 884503584
I0403 15:14:11.283288 14250 layer_factory.hpp:77] Creating layer inception_4a/pool_proj
I0403 15:14:11.283314 14250 net.cpp:91] Creating Layer inception_4a/pool_proj
I0403 15:14:11.283332 14250 net.cpp:425] inception_4a/pool_proj <- inception_4a/pool
I0403 15:14:11.283354 14250 net.cpp:399] inception_4a/pool_proj -> inception_4a/pool_proj
I0403 15:14:11.284518 14250 net.cpp:141] Setting up inception_4a/pool_proj
I0403 15:14:11.284556 14250 net.cpp:148] Top shape: 24 64 14 14 (301056)
I0403 15:14:11.284589 14250 net.cpp:156] Memory required for data: 885707808
I0403 15:14:11.284607 14250 layer_factory.hpp:77] Creating layer inception_4a/relu_pool_proj
I0403 15:14:11.284631 14250 net.cpp:91] Creating Layer inception_4a/relu_pool_proj
I0403 15:14:11.284648 14250 net.cpp:425] inception_4a/relu_pool_proj <- inception_4a/pool_proj
I0403 15:14:11.284665 14250 net.cpp:386] inception_4a/relu_pool_proj -> inception_4a/pool_proj (in-place)
I0403 15:14:11.284953 14250 net.cpp:141] Setting up inception_4a/relu_pool_proj
I0403 15:14:11.284981 14250 net.cpp:148] Top shape: 24 64 14 14 (301056)
I0403 15:14:11.284994 14250 net.cpp:156] Memory required for data: 886912032
I0403 15:14:11.285008 14250 layer_factory.hpp:77] Creating layer inception_4a/output
I0403 15:14:11.285025 14250 net.cpp:91] Creating Layer inception_4a/output
I0403 15:14:11.285040 14250 net.cpp:425] inception_4a/output <- inception_4a/1x1
I0403 15:14:11.285056 14250 net.cpp:425] inception_4a/output <- inception_4a/3x3
I0403 15:14:11.285071 14250 net.cpp:425] inception_4a/output <- inception_4a/5x5
I0403 15:14:11.285086 14250 net.cpp:425] inception_4a/output <- inception_4a/pool_proj
I0403 15:14:11.285104 14250 net.cpp:399] inception_4a/output -> inception_4a/output
I0403 15:14:11.285151 14250 net.cpp:141] Setting up inception_4a/output
I0403 15:14:11.285174 14250 net.cpp:148] Top shape: 24 512 14 14 (2408448)
I0403 15:14:11.285188 14250 net.cpp:156] Memory required for data: 896545824
I0403 15:14:11.285202 14250 layer_factory.hpp:77] Creating layer inception_4a/output_inception_4a/output_0_split
I0403 15:14:11.285219 14250 net.cpp:91] Creating Layer inception_4a/output_inception_4a/output_0_split
I0403 15:14:11.285234 14250 net.cpp:425] inception_4a/output_inception_4a/output_0_split <- inception_4a/output
I0403 15:14:11.285254 14250 net.cpp:399] inception_4a/output_inception_4a/output_0_split -> inception_4a/output_inception_4a/output_0_split_0
I0403 15:14:11.285274 14250 net.cpp:399] inception_4a/output_inception_4a/output_0_split -> inception_4a/output_inception_4a/output_0_split_1
I0403 15:14:11.285295 14250 net.cpp:399] inception_4a/output_inception_4a/output_0_split -> inception_4a/output_inception_4a/output_0_split_2
I0403 15:14:11.285315 14250 net.cpp:399] inception_4a/output_inception_4a/output_0_split -> inception_4a/output_inception_4a/output_0_split_3
I0403 15:14:11.285333 14250 net.cpp:399] inception_4a/output_inception_4a/output_0_split -> inception_4a/output_inception_4a/output_0_split_4
I0403 15:14:11.285424 14250 net.cpp:141] Setting up inception_4a/output_inception_4a/output_0_split
I0403 15:14:11.285449 14250 net.cpp:148] Top shape: 24 512 14 14 (2408448)
I0403 15:14:11.285466 14250 net.cpp:148] Top shape: 24 512 14 14 (2408448)
I0403 15:14:11.285482 14250 net.cpp:148] Top shape: 24 512 14 14 (2408448)
I0403 15:14:11.285496 14250 net.cpp:148] Top shape: 24 512 14 14 (2408448)
I0403 15:14:11.285511 14250 net.cpp:148] Top shape: 24 512 14 14 (2408448)
I0403 15:14:11.285524 14250 net.cpp:156] Memory required for data: 944714784
I0403 15:14:11.285542 14250 layer_factory.hpp:77] Creating layer loss1/ave_pool
I0403 15:14:11.285560 14250 net.cpp:91] Creating Layer loss1/ave_pool
I0403 15:14:11.285576 14250 net.cpp:425] loss1/ave_pool <- inception_4a/output_inception_4a/output_0_split_0
I0403 15:14:11.285593 14250 net.cpp:399] loss1/ave_pool -> loss1/ave_pool
I0403 15:14:11.285805 14250 net.cpp:141] Setting up loss1/ave_pool
I0403 15:14:11.285831 14250 net.cpp:148] Top shape: 24 512 4 4 (196608)
I0403 15:14:11.285845 14250 net.cpp:156] Memory required for data: 945501216
I0403 15:14:11.285859 14250 layer_factory.hpp:77] Creating layer loss1/conv
I0403 15:14:11.285881 14250 net.cpp:91] Creating Layer loss1/conv
I0403 15:14:11.285898 14250 net.cpp:425] loss1/conv <- loss1/ave_pool
I0403 15:14:11.285918 14250 net.cpp:399] loss1/conv -> loss1/conv
I0403 15:14:11.287327 14250 net.cpp:141] Setting up loss1/conv
I0403 15:14:11.287356 14250 net.cpp:148] Top shape: 24 128 4 4 (49152)
I0403 15:14:11.287372 14250 net.cpp:156] Memory required for data: 945697824
I0403 15:14:11.287405 14250 layer_factory.hpp:77] Creating layer loss1/relu_conv
I0403 15:14:11.287425 14250 net.cpp:91] Creating Layer loss1/relu_conv
I0403 15:14:11.287439 14250 net.cpp:425] loss1/relu_conv <- loss1/conv
I0403 15:14:11.287456 14250 net.cpp:386] loss1/relu_conv -> loss1/conv (in-place)
I0403 15:14:11.287744 14250 net.cpp:141] Setting up loss1/relu_conv
I0403 15:14:11.287773 14250 net.cpp:148] Top shape: 24 128 4 4 (49152)
I0403 15:14:11.287789 14250 net.cpp:156] Memory required for data: 945894432
I0403 15:14:11.287803 14250 layer_factory.hpp:77] Creating layer loss1/fc
I0403 15:14:11.287838 14250 net.cpp:91] Creating Layer loss1/fc
I0403 15:14:11.287856 14250 net.cpp:425] loss1/fc <- loss1/conv
I0403 15:14:11.287878 14250 net.cpp:399] loss1/fc -> loss1/fc
I0403 15:14:11.305235 14250 net.cpp:141] Setting up loss1/fc
I0403 15:14:11.305271 14250 net.cpp:148] Top shape: 24 1024 (24576)
I0403 15:14:11.305286 14250 net.cpp:156] Memory required for data: 945992736
I0403 15:14:11.305302 14250 layer_factory.hpp:77] Creating layer loss1/relu_fc
I0403 15:14:11.305322 14250 net.cpp:91] Creating Layer loss1/relu_fc
I0403 15:14:11.305338 14250 net.cpp:425] loss1/relu_fc <- loss1/fc
I0403 15:14:11.305354 14250 net.cpp:386] loss1/relu_fc -> loss1/fc (in-place)
I0403 15:14:11.305536 14250 net.cpp:141] Setting up loss1/relu_fc
I0403 15:14:11.305563 14250 net.cpp:148] Top shape: 24 1024 (24576)
I0403 15:14:11.305577 14250 net.cpp:156] Memory required for data: 946091040
I0403 15:14:11.305591 14250 layer_factory.hpp:77] Creating layer loss1/drop_fc
I0403 15:14:11.305619 14250 net.cpp:91] Creating Layer loss1/drop_fc
I0403 15:14:11.305634 14250 net.cpp:425] loss1/drop_fc <- loss1/fc
I0403 15:14:11.305651 14250 net.cpp:386] loss1/drop_fc -> loss1/fc (in-place)
I0403 15:14:11.305701 14250 net.cpp:141] Setting up loss1/drop_fc
I0403 15:14:11.305723 14250 net.cpp:148] Top shape: 24 1024 (24576)
I0403 15:14:11.305737 14250 net.cpp:156] Memory required for data: 946189344
I0403 15:14:11.305752 14250 layer_factory.hpp:77] Creating layer loss1/classifier_plantvillage
I0403 15:14:11.305768 14250 net.cpp:91] Creating Layer loss1/classifier_plantvillage
I0403 15:14:11.305783 14250 net.cpp:425] loss1/classifier_plantvillage <- loss1/fc
I0403 15:14:11.305804 14250 net.cpp:399] loss1/classifier_plantvillage -> loss1/classifier_plantvillage
I0403 15:14:11.306684 14250 net.cpp:141] Setting up loss1/classifier_plantvillage
I0403 15:14:11.306715 14250 net.cpp:148] Top shape: 24 38 (912)
I0403 15:14:11.306730 14250 net.cpp:156] Memory required for data: 946192992
I0403 15:14:11.306746 14250 layer_factory.hpp:77] Creating layer loss1/classifier_plantvillage_loss1/classifier_plantvillage_0_split
I0403 15:14:11.306763 14250 net.cpp:91] Creating Layer loss1/classifier_plantvillage_loss1/classifier_plantvillage_0_split
I0403 15:14:11.306778 14250 net.cpp:425] loss1/classifier_plantvillage_loss1/classifier_plantvillage_0_split <- loss1/classifier_plantvillage
I0403 15:14:11.306795 14250 net.cpp:399] loss1/classifier_plantvillage_loss1/classifier_plantvillage_0_split -> loss1/classifier_plantvillage_loss1/classifier_plantvillage_0_split_0
I0403 15:14:11.306814 14250 net.cpp:399] loss1/classifier_plantvillage_loss1/classifier_plantvillage_0_split -> loss1/classifier_plantvillage_loss1/classifier_plantvillage_0_split_1
I0403 15:14:11.306833 14250 net.cpp:399] loss1/classifier_plantvillage_loss1/classifier_plantvillage_0_split -> loss1/classifier_plantvillage_loss1/classifier_plantvillage_0_split_2
I0403 15:14:11.306898 14250 net.cpp:141] Setting up loss1/classifier_plantvillage_loss1/classifier_plantvillage_0_split
I0403 15:14:11.306921 14250 net.cpp:148] Top shape: 24 38 (912)
I0403 15:14:11.306936 14250 net.cpp:148] Top shape: 24 38 (912)
I0403 15:14:11.306949 14250 net.cpp:148] Top shape: 24 38 (912)
I0403 15:14:11.306962 14250 net.cpp:156] Memory required for data: 946203936
I0403 15:14:11.306977 14250 layer_factory.hpp:77] Creating layer inception_4b/1x1
I0403 15:14:11.306995 14250 net.cpp:91] Creating Layer inception_4b/1x1
I0403 15:14:11.307027 14250 net.cpp:425] inception_4b/1x1 <- inception_4a/output_inception_4a/output_0_split_1
I0403 15:14:11.307049 14250 net.cpp:399] inception_4b/1x1 -> inception_4b/1x1
I0403 15:14:11.308656 14250 net.cpp:141] Setting up inception_4b/1x1
I0403 15:14:11.308686 14250 net.cpp:148] Top shape: 24 160 14 14 (752640)
I0403 15:14:11.308701 14250 net.cpp:156] Memory required for data: 949214496
I0403 15:14:11.308718 14250 layer_factory.hpp:77] Creating layer inception_4b/relu_1x1
I0403 15:14:11.308735 14250 net.cpp:91] Creating Layer inception_4b/relu_1x1
I0403 15:14:11.308750 14250 net.cpp:425] inception_4b/relu_1x1 <- inception_4b/1x1
I0403 15:14:11.308766 14250 net.cpp:386] inception_4b/relu_1x1 -> inception_4b/1x1 (in-place)
I0403 15:14:11.308941 14250 net.cpp:141] Setting up inception_4b/relu_1x1
I0403 15:14:11.308965 14250 net.cpp:148] Top shape: 24 160 14 14 (752640)
I0403 15:14:11.308979 14250 net.cpp:156] Memory required for data: 952225056
I0403 15:14:11.308993 14250 layer_factory.hpp:77] Creating layer inception_4b/3x3_reduce
I0403 15:14:11.309015 14250 net.cpp:91] Creating Layer inception_4b/3x3_reduce
I0403 15:14:11.309031 14250 net.cpp:425] inception_4b/3x3_reduce <- inception_4a/output_inception_4a/output_0_split_2
I0403 15:14:11.309052 14250 net.cpp:399] inception_4b/3x3_reduce -> inception_4b/3x3_reduce
I0403 15:14:11.310362 14250 net.cpp:141] Setting up inception_4b/3x3_reduce
I0403 15:14:11.310391 14250 net.cpp:148] Top shape: 24 112 14 14 (526848)
I0403 15:14:11.310408 14250 net.cpp:156] Memory required for data: 954332448
I0403 15:14:11.310425 14250 layer_factory.hpp:77] Creating layer inception_4b/relu_3x3_reduce
I0403 15:14:11.310442 14250 net.cpp:91] Creating Layer inception_4b/relu_3x3_reduce
I0403 15:14:11.310458 14250 net.cpp:425] inception_4b/relu_3x3_reduce <- inception_4b/3x3_reduce
I0403 15:14:11.310477 14250 net.cpp:386] inception_4b/relu_3x3_reduce -> inception_4b/3x3_reduce (in-place)
I0403 15:14:11.310757 14250 net.cpp:141] Setting up inception_4b/relu_3x3_reduce
I0403 15:14:11.310786 14250 net.cpp:148] Top shape: 24 112 14 14 (526848)
I0403 15:14:11.310801 14250 net.cpp:156] Memory required for data: 956439840
I0403 15:14:11.310816 14250 layer_factory.hpp:77] Creating layer inception_4b/3x3
I0403 15:14:11.310837 14250 net.cpp:91] Creating Layer inception_4b/3x3
I0403 15:14:11.310853 14250 net.cpp:425] inception_4b/3x3 <- inception_4b/3x3_reduce
I0403 15:14:11.310873 14250 net.cpp:399] inception_4b/3x3 -> inception_4b/3x3
I0403 15:14:11.313765 14250 net.cpp:141] Setting up inception_4b/3x3
I0403 15:14:11.313793 14250 net.cpp:148] Top shape: 24 224 14 14 (1053696)
I0403 15:14:11.313808 14250 net.cpp:156] Memory required for data: 960654624
I0403 15:14:11.313825 14250 layer_factory.hpp:77] Creating layer inception_4b/relu_3x3
I0403 15:14:11.313844 14250 net.cpp:91] Creating Layer inception_4b/relu_3x3
I0403 15:14:11.313860 14250 net.cpp:425] inception_4b/relu_3x3 <- inception_4b/3x3
I0403 15:14:11.313876 14250 net.cpp:386] inception_4b/relu_3x3 -> inception_4b/3x3 (in-place)
I0403 15:14:11.314052 14250 net.cpp:141] Setting up inception_4b/relu_3x3
I0403 15:14:11.314076 14250 net.cpp:148] Top shape: 24 224 14 14 (1053696)
I0403 15:14:11.314090 14250 net.cpp:156] Memory required for data: 964869408
I0403 15:14:11.314105 14250 layer_factory.hpp:77] Creating layer inception_4b/5x5_reduce
I0403 15:14:11.314127 14250 net.cpp:91] Creating Layer inception_4b/5x5_reduce
I0403 15:14:11.314144 14250 net.cpp:425] inception_4b/5x5_reduce <- inception_4a/output_inception_4a/output_0_split_3
I0403 15:14:11.314162 14250 net.cpp:399] inception_4b/5x5_reduce -> inception_4b/5x5_reduce
I0403 15:14:11.315230 14250 net.cpp:141] Setting up inception_4b/5x5_reduce
I0403 15:14:11.315261 14250 net.cpp:148] Top shape: 24 24 14 14 (112896)
I0403 15:14:11.315277 14250 net.cpp:156] Memory required for data: 965320992
I0403 15:14:11.315295 14250 layer_factory.hpp:77] Creating layer inception_4b/relu_5x5_reduce
I0403 15:14:11.315313 14250 net.cpp:91] Creating Layer inception_4b/relu_5x5_reduce
I0403 15:14:11.315343 14250 net.cpp:425] inception_4b/relu_5x5_reduce <- inception_4b/5x5_reduce
I0403 15:14:11.315363 14250 net.cpp:386] inception_4b/relu_5x5_reduce -> inception_4b/5x5_reduce (in-place)
I0403 15:14:11.315544 14250 net.cpp:141] Setting up inception_4b/relu_5x5_reduce
I0403 15:14:11.315568 14250 net.cpp:148] Top shape: 24 24 14 14 (112896)
I0403 15:14:11.315583 14250 net.cpp:156] Memory required for data: 965772576
I0403 15:14:11.315603 14250 layer_factory.hpp:77] Creating layer inception_4b/5x5
I0403 15:14:11.315623 14250 net.cpp:91] Creating Layer inception_4b/5x5
I0403 15:14:11.315640 14250 net.cpp:425] inception_4b/5x5 <- inception_4b/5x5_reduce
I0403 15:14:11.315660 14250 net.cpp:399] inception_4b/5x5 -> inception_4b/5x5
I0403 15:14:11.316846 14250 net.cpp:141] Setting up inception_4b/5x5
I0403 15:14:11.316875 14250 net.cpp:148] Top shape: 24 64 14 14 (301056)
I0403 15:14:11.316891 14250 net.cpp:156] Memory required for data: 966976800
I0403 15:14:11.316908 14250 layer_factory.hpp:77] Creating layer inception_4b/relu_5x5
I0403 15:14:11.316926 14250 net.cpp:91] Creating Layer inception_4b/relu_5x5
I0403 15:14:11.316941 14250 net.cpp:425] inception_4b/relu_5x5 <- inception_4b/5x5
I0403 15:14:11.316956 14250 net.cpp:386] inception_4b/relu_5x5 -> inception_4b/5x5 (in-place)
I0403 15:14:11.317234 14250 net.cpp:141] Setting up inception_4b/relu_5x5
I0403 15:14:11.317276 14250 net.cpp:148] Top shape: 24 64 14 14 (301056)
I0403 15:14:11.317291 14250 net.cpp:156] Memory required for data: 968181024
I0403 15:14:11.317306 14250 layer_factory.hpp:77] Creating layer inception_4b/pool
I0403 15:14:11.317323 14250 net.cpp:91] Creating Layer inception_4b/pool
I0403 15:14:11.317338 14250 net.cpp:425] inception_4b/pool <- inception_4a/output_inception_4a/output_0_split_4
I0403 15:14:11.317356 14250 net.cpp:399] inception_4b/pool -> inception_4b/pool
I0403 15:14:11.317420 14250 net.cpp:141] Setting up inception_4b/pool
I0403 15:14:11.317442 14250 net.cpp:148] Top shape: 24 512 14 14 (2408448)
I0403 15:14:11.317457 14250 net.cpp:156] Memory required for data: 977814816
I0403 15:14:11.317471 14250 layer_factory.hpp:77] Creating layer inception_4b/pool_proj
I0403 15:14:11.317492 14250 net.cpp:91] Creating Layer inception_4b/pool_proj
I0403 15:14:11.317509 14250 net.cpp:425] inception_4b/pool_proj <- inception_4b/pool
I0403 15:14:11.317529 14250 net.cpp:399] inception_4b/pool_proj -> inception_4b/pool_proj
I0403 15:14:11.318717 14250 net.cpp:141] Setting up inception_4b/pool_proj
I0403 15:14:11.318745 14250 net.cpp:148] Top shape: 24 64 14 14 (301056)
I0403 15:14:11.318761 14250 net.cpp:156] Memory required for data: 979019040
I0403 15:14:11.318778 14250 layer_factory.hpp:77] Creating layer inception_4b/relu_pool_proj
I0403 15:14:11.318795 14250 net.cpp:91] Creating Layer inception_4b/relu_pool_proj
I0403 15:14:11.318811 14250 net.cpp:425] inception_4b/relu_pool_proj <- inception_4b/pool_proj
I0403 15:14:11.318827 14250 net.cpp:386] inception_4b/relu_pool_proj -> inception_4b/pool_proj (in-place)
I0403 15:14:11.319007 14250 net.cpp:141] Setting up inception_4b/relu_pool_proj
I0403 15:14:11.319031 14250 net.cpp:148] Top shape: 24 64 14 14 (301056)
I0403 15:14:11.319046 14250 net.cpp:156] Memory required for data: 980223264
I0403 15:14:11.319059 14250 layer_factory.hpp:77] Creating layer inception_4b/output
I0403 15:14:11.319077 14250 net.cpp:91] Creating Layer inception_4b/output
I0403 15:14:11.319090 14250 net.cpp:425] inception_4b/output <- inception_4b/1x1
I0403 15:14:11.319106 14250 net.cpp:425] inception_4b/output <- inception_4b/3x3
I0403 15:14:11.319121 14250 net.cpp:425] inception_4b/output <- inception_4b/5x5
I0403 15:14:11.319136 14250 net.cpp:425] inception_4b/output <- inception_4b/pool_proj
I0403 15:14:11.319155 14250 net.cpp:399] inception_4b/output -> inception_4b/output
I0403 15:14:11.319200 14250 net.cpp:141] Setting up inception_4b/output
I0403 15:14:11.319223 14250 net.cpp:148] Top shape: 24 512 14 14 (2408448)
I0403 15:14:11.319238 14250 net.cpp:156] Memory required for data: 989857056
I0403 15:14:11.319267 14250 layer_factory.hpp:77] Creating layer inception_4b/output_inception_4b/output_0_split
I0403 15:14:11.319284 14250 net.cpp:91] Creating Layer inception_4b/output_inception_4b/output_0_split
I0403 15:14:11.319299 14250 net.cpp:425] inception_4b/output_inception_4b/output_0_split <- inception_4b/output
I0403 15:14:11.319317 14250 net.cpp:399] inception_4b/output_inception_4b/output_0_split -> inception_4b/output_inception_4b/output_0_split_0
I0403 15:14:11.319337 14250 net.cpp:399] inception_4b/output_inception_4b/output_0_split -> inception_4b/output_inception_4b/output_0_split_1
I0403 15:14:11.319356 14250 net.cpp:399] inception_4b/output_inception_4b/output_0_split -> inception_4b/output_inception_4b/output_0_split_2
I0403 15:14:11.319376 14250 net.cpp:399] inception_4b/output_inception_4b/output_0_split -> inception_4b/output_inception_4b/output_0_split_3
I0403 15:14:11.319455 14250 net.cpp:141] Setting up inception_4b/output_inception_4b/output_0_split
I0403 15:14:11.319478 14250 net.cpp:148] Top shape: 24 512 14 14 (2408448)
I0403 15:14:11.319494 14250 net.cpp:148] Top shape: 24 512 14 14 (2408448)
I0403 15:14:11.319507 14250 net.cpp:148] Top shape: 24 512 14 14 (2408448)
I0403 15:14:11.319521 14250 net.cpp:148] Top shape: 24 512 14 14 (2408448)
I0403 15:14:11.319535 14250 net.cpp:156] Memory required for data: 1028392224
I0403 15:14:11.319567 14250 layer_factory.hpp:77] Creating layer inception_4c/1x1
I0403 15:14:11.319591 14250 net.cpp:91] Creating Layer inception_4c/1x1
I0403 15:14:11.319607 14250 net.cpp:425] inception_4c/1x1 <- inception_4b/output_inception_4b/output_0_split_0
I0403 15:14:11.319640 14250 net.cpp:399] inception_4c/1x1 -> inception_4c/1x1
I0403 15:14:11.321096 14250 net.cpp:141] Setting up inception_4c/1x1
I0403 15:14:11.321125 14250 net.cpp:148] Top shape: 24 128 14 14 (602112)
I0403 15:14:11.321140 14250 net.cpp:156] Memory required for data: 1030800672
I0403 15:14:11.321156 14250 layer_factory.hpp:77] Creating layer inception_4c/relu_1x1
I0403 15:14:11.321177 14250 net.cpp:91] Creating Layer inception_4c/relu_1x1
I0403 15:14:11.321193 14250 net.cpp:425] inception_4c/relu_1x1 <- inception_4c/1x1
I0403 15:14:11.321210 14250 net.cpp:386] inception_4c/relu_1x1 -> inception_4c/1x1 (in-place)
I0403 15:14:11.321391 14250 net.cpp:141] Setting up inception_4c/relu_1x1
I0403 15:14:11.321416 14250 net.cpp:148] Top shape: 24 128 14 14 (602112)
I0403 15:14:11.321431 14250 net.cpp:156] Memory required for data: 1033209120
I0403 15:14:11.321445 14250 layer_factory.hpp:77] Creating layer inception_4c/3x3_reduce
I0403 15:14:11.321467 14250 net.cpp:91] Creating Layer inception_4c/3x3_reduce
I0403 15:14:11.321485 14250 net.cpp:425] inception_4c/3x3_reduce <- inception_4b/output_inception_4b/output_0_split_1
I0403 15:14:11.321503 14250 net.cpp:399] inception_4c/3x3_reduce -> inception_4c/3x3_reduce
I0403 15:14:11.323439 14250 net.cpp:141] Setting up inception_4c/3x3_reduce
I0403 15:14:11.323468 14250 net.cpp:148] Top shape: 24 128 14 14 (602112)
I0403 15:14:11.323483 14250 net.cpp:156] Memory required for data: 1035617568
I0403 15:14:11.323505 14250 layer_factory.hpp:77] Creating layer inception_4c/relu_3x3_reduce
I0403 15:14:11.323525 14250 net.cpp:91] Creating Layer inception_4c/relu_3x3_reduce
I0403 15:14:11.323547 14250 net.cpp:425] inception_4c/relu_3x3_reduce <- inception_4c/3x3_reduce
I0403 15:14:11.323572 14250 net.cpp:386] inception_4c/relu_3x3_reduce -> inception_4c/3x3_reduce (in-place)
I0403 15:14:11.323870 14250 net.cpp:141] Setting up inception_4c/relu_3x3_reduce
I0403 15:14:11.323900 14250 net.cpp:148] Top shape: 24 128 14 14 (602112)
I0403 15:14:11.323918 14250 net.cpp:156] Memory required for data: 1038026016
I0403 15:14:11.323938 14250 layer_factory.hpp:77] Creating layer inception_4c/3x3
I0403 15:14:11.323971 14250 net.cpp:91] Creating Layer inception_4c/3x3
I0403 15:14:11.323993 14250 net.cpp:425] inception_4c/3x3 <- inception_4c/3x3_reduce
I0403 15:14:11.324019 14250 net.cpp:399] inception_4c/3x3 -> inception_4c/3x3
I0403 15:14:11.327769 14250 net.cpp:141] Setting up inception_4c/3x3
I0403 15:14:11.327816 14250 net.cpp:148] Top shape: 24 256 14 14 (1204224)
I0403 15:14:11.327833 14250 net.cpp:156] Memory required for data: 1042842912
I0403 15:14:11.327865 14250 layer_factory.hpp:77] Creating layer inception_4c/relu_3x3
I0403 15:14:11.327888 14250 net.cpp:91] Creating Layer inception_4c/relu_3x3
I0403 15:14:11.327904 14250 net.cpp:425] inception_4c/relu_3x3 <- inception_4c/3x3
I0403 15:14:11.327921 14250 net.cpp:386] inception_4c/relu_3x3 -> inception_4c/3x3 (in-place)
I0403 15:14:11.328126 14250 net.cpp:141] Setting up inception_4c/relu_3x3
I0403 15:14:11.328155 14250 net.cpp:148] Top shape: 24 256 14 14 (1204224)
I0403 15:14:11.328171 14250 net.cpp:156] Memory required for data: 1047659808
I0403 15:14:11.328186 14250 layer_factory.hpp:77] Creating layer inception_4c/5x5_reduce
I0403 15:14:11.328208 14250 net.cpp:91] Creating Layer inception_4c/5x5_reduce
I0403 15:14:11.328227 14250 net.cpp:425] inception_4c/5x5_reduce <- inception_4b/output_inception_4b/output_0_split_2
I0403 15:14:11.328245 14250 net.cpp:399] inception_4c/5x5_reduce -> inception_4c/5x5_reduce
I0403 15:14:11.329380 14250 net.cpp:141] Setting up inception_4c/5x5_reduce
I0403 15:14:11.329411 14250 net.cpp:148] Top shape: 24 24 14 14 (112896)
I0403 15:14:11.329427 14250 net.cpp:156] Memory required for data: 1048111392
I0403 15:14:11.329445 14250 layer_factory.hpp:77] Creating layer inception_4c/relu_5x5_reduce
I0403 15:14:11.329464 14250 net.cpp:91] Creating Layer inception_4c/relu_5x5_reduce
I0403 15:14:11.329480 14250 net.cpp:425] inception_4c/relu_5x5_reduce <- inception_4c/5x5_reduce
I0403 15:14:11.329499 14250 net.cpp:386] inception_4c/relu_5x5_reduce -> inception_4c/5x5_reduce (in-place)
I0403 15:14:11.329696 14250 net.cpp:141] Setting up inception_4c/relu_5x5_reduce
I0403 15:14:11.329722 14250 net.cpp:148] Top shape: 24 24 14 14 (112896)
I0403 15:14:11.329738 14250 net.cpp:156] Memory required for data: 1048562976
I0403 15:14:11.329753 14250 layer_factory.hpp:77] Creating layer inception_4c/5x5
I0403 15:14:11.329776 14250 net.cpp:91] Creating Layer inception_4c/5x5
I0403 15:14:11.329793 14250 net.cpp:425] inception_4c/5x5 <- inception_4c/5x5_reduce
I0403 15:14:11.329813 14250 net.cpp:399] inception_4c/5x5 -> inception_4c/5x5
I0403 15:14:11.331106 14250 net.cpp:141] Setting up inception_4c/5x5
I0403 15:14:11.331135 14250 net.cpp:148] Top shape: 24 64 14 14 (301056)
I0403 15:14:11.331151 14250 net.cpp:156] Memory required for data: 1049767200
I0403 15:14:11.331171 14250 layer_factory.hpp:77] Creating layer inception_4c/relu_5x5
I0403 15:14:11.331192 14250 net.cpp:91] Creating Layer inception_4c/relu_5x5
I0403 15:14:11.331209 14250 net.cpp:425] inception_4c/relu_5x5 <- inception_4c/5x5
I0403 15:14:11.331226 14250 net.cpp:386] inception_4c/relu_5x5 -> inception_4c/5x5 (in-place)
I0403 15:14:11.331522 14250 net.cpp:141] Setting up inception_4c/relu_5x5
I0403 15:14:11.331554 14250 net.cpp:148] Top shape: 24 64 14 14 (301056)
I0403 15:14:11.331570 14250 net.cpp:156] Memory required for data: 1050971424
I0403 15:14:11.331585 14250 layer_factory.hpp:77] Creating layer inception_4c/pool
I0403 15:14:11.331603 14250 net.cpp:91] Creating Layer inception_4c/pool
I0403 15:14:11.331619 14250 net.cpp:425] inception_4c/pool <- inception_4b/output_inception_4b/output_0_split_3
I0403 15:14:11.331639 14250 net.cpp:399] inception_4c/pool -> inception_4c/pool
I0403 15:14:11.331706 14250 net.cpp:141] Setting up inception_4c/pool
I0403 15:14:11.331732 14250 net.cpp:148] Top shape: 24 512 14 14 (2408448)
I0403 15:14:11.331746 14250 net.cpp:156] Memory required for data: 1060605216
I0403 15:14:11.331760 14250 layer_factory.hpp:77] Creating layer inception_4c/pool_proj
I0403 15:14:11.331782 14250 net.cpp:91] Creating Layer inception_4c/pool_proj
I0403 15:14:11.331800 14250 net.cpp:425] inception_4c/pool_proj <- inception_4c/pool
I0403 15:14:11.331818 14250 net.cpp:399] inception_4c/pool_proj -> inception_4c/pool_proj
I0403 15:14:11.333079 14250 net.cpp:141] Setting up inception_4c/pool_proj
I0403 15:14:11.333112 14250 net.cpp:148] Top shape: 24 64 14 14 (301056)
I0403 15:14:11.333140 14250 net.cpp:156] Memory required for data: 1061809440
I0403 15:14:11.333161 14250 layer_factory.hpp:77] Creating layer inception_4c/relu_pool_proj
I0403 15:14:11.333179 14250 net.cpp:91] Creating Layer inception_4c/relu_pool_proj
I0403 15:14:11.333195 14250 net.cpp:425] inception_4c/relu_pool_proj <- inception_4c/pool_proj
I0403 15:14:11.333211 14250 net.cpp:386] inception_4c/relu_pool_proj -> inception_4c/pool_proj (in-place)
I0403 15:14:11.333403 14250 net.cpp:141] Setting up inception_4c/relu_pool_proj
I0403 15:14:11.333430 14250 net.cpp:148] Top shape: 24 64 14 14 (301056)
I0403 15:14:11.333444 14250 net.cpp:156] Memory required for data: 1063013664
I0403 15:14:11.333459 14250 layer_factory.hpp:77] Creating layer inception_4c/output
I0403 15:14:11.333477 14250 net.cpp:91] Creating Layer inception_4c/output
I0403 15:14:11.333492 14250 net.cpp:425] inception_4c/output <- inception_4c/1x1
I0403 15:14:11.333508 14250 net.cpp:425] inception_4c/output <- inception_4c/3x3
I0403 15:14:11.333523 14250 net.cpp:425] inception_4c/output <- inception_4c/5x5
I0403 15:14:11.333542 14250 net.cpp:425] inception_4c/output <- inception_4c/pool_proj
I0403 15:14:11.333564 14250 net.cpp:399] inception_4c/output -> inception_4c/output
I0403 15:14:11.333611 14250 net.cpp:141] Setting up inception_4c/output
I0403 15:14:11.333637 14250 net.cpp:148] Top shape: 24 512 14 14 (2408448)
I0403 15:14:11.333654 14250 net.cpp:156] Memory required for data: 1072647456
I0403 15:14:11.333668 14250 layer_factory.hpp:77] Creating layer inception_4c/output_inception_4c/output_0_split
I0403 15:14:11.333685 14250 net.cpp:91] Creating Layer inception_4c/output_inception_4c/output_0_split
I0403 15:14:11.333700 14250 net.cpp:425] inception_4c/output_inception_4c/output_0_split <- inception_4c/output
I0403 15:14:11.333717 14250 net.cpp:399] inception_4c/output_inception_4c/output_0_split -> inception_4c/output_inception_4c/output_0_split_0
I0403 15:14:11.333740 14250 net.cpp:399] inception_4c/output_inception_4c/output_0_split -> inception_4c/output_inception_4c/output_0_split_1
I0403 15:14:11.333761 14250 net.cpp:399] inception_4c/output_inception_4c/output_0_split -> inception_4c/output_inception_4c/output_0_split_2
I0403 15:14:11.333781 14250 net.cpp:399] inception_4c/output_inception_4c/output_0_split -> inception_4c/output_inception_4c/output_0_split_3
I0403 15:14:11.333868 14250 net.cpp:141] Setting up inception_4c/output_inception_4c/output_0_split
I0403 15:14:11.333891 14250 net.cpp:148] Top shape: 24 512 14 14 (2408448)
I0403 15:14:11.333907 14250 net.cpp:148] Top shape: 24 512 14 14 (2408448)
I0403 15:14:11.333923 14250 net.cpp:148] Top shape: 24 512 14 14 (2408448)
I0403 15:14:11.333937 14250 net.cpp:148] Top shape: 24 512 14 14 (2408448)
I0403 15:14:11.333951 14250 net.cpp:156] Memory required for data: 1111182624
I0403 15:14:11.333966 14250 layer_factory.hpp:77] Creating layer inception_4d/1x1
I0403 15:14:11.333987 14250 net.cpp:91] Creating Layer inception_4d/1x1
I0403 15:14:11.334004 14250 net.cpp:425] inception_4d/1x1 <- inception_4c/output_inception_4c/output_0_split_0
I0403 15:14:11.334025 14250 net.cpp:399] inception_4d/1x1 -> inception_4d/1x1
I0403 15:14:11.335458 14250 net.cpp:141] Setting up inception_4d/1x1
I0403 15:14:11.335487 14250 net.cpp:148] Top shape: 24 112 14 14 (526848)
I0403 15:14:11.335503 14250 net.cpp:156] Memory required for data: 1113290016
I0403 15:14:11.335521 14250 layer_factory.hpp:77] Creating layer inception_4d/relu_1x1
I0403 15:14:11.335546 14250 net.cpp:91] Creating Layer inception_4d/relu_1x1
I0403 15:14:11.335566 14250 net.cpp:425] inception_4d/relu_1x1 <- inception_4d/1x1
I0403 15:14:11.335583 14250 net.cpp:386] inception_4d/relu_1x1 -> inception_4d/1x1 (in-place)
I0403 15:14:11.335774 14250 net.cpp:141] Setting up inception_4d/relu_1x1
I0403 15:14:11.335801 14250 net.cpp:148] Top shape: 24 112 14 14 (526848)
I0403 15:14:11.335818 14250 net.cpp:156] Memory required for data: 1115397408
I0403 15:14:11.335832 14250 layer_factory.hpp:77] Creating layer inception_4d/3x3_reduce
I0403 15:14:11.335868 14250 net.cpp:91] Creating Layer inception_4d/3x3_reduce
I0403 15:14:11.335887 14250 net.cpp:425] inception_4d/3x3_reduce <- inception_4c/output_inception_4c/output_0_split_1
I0403 15:14:11.335906 14250 net.cpp:399] inception_4d/3x3_reduce -> inception_4d/3x3_reduce
I0403 15:14:11.337462 14250 net.cpp:141] Setting up inception_4d/3x3_reduce
I0403 15:14:11.337491 14250 net.cpp:148] Top shape: 24 144 14 14 (677376)
I0403 15:14:11.337507 14250 net.cpp:156] Memory required for data: 1118106912
I0403 15:14:11.337524 14250 layer_factory.hpp:77] Creating layer inception_4d/relu_3x3_reduce
I0403 15:14:11.337546 14250 net.cpp:91] Creating Layer inception_4d/relu_3x3_reduce
I0403 15:14:11.337564 14250 net.cpp:425] inception_4d/relu_3x3_reduce <- inception_4d/3x3_reduce
I0403 15:14:11.337584 14250 net.cpp:386] inception_4d/relu_3x3_reduce -> inception_4d/3x3_reduce (in-place)
I0403 15:14:11.337903 14250 net.cpp:141] Setting up inception_4d/relu_3x3_reduce
I0403 15:14:11.337931 14250 net.cpp:148] Top shape: 24 144 14 14 (677376)
I0403 15:14:11.337946 14250 net.cpp:156] Memory required for data: 1120816416
I0403 15:14:11.337962 14250 layer_factory.hpp:77] Creating layer inception_4d/3x3
I0403 15:14:11.337997 14250 net.cpp:91] Creating Layer inception_4d/3x3
I0403 15:14:11.338016 14250 net.cpp:425] inception_4d/3x3 <- inception_4d/3x3_reduce
I0403 15:14:11.338037 14250 net.cpp:399] inception_4d/3x3 -> inception_4d/3x3
I0403 15:14:11.342298 14250 net.cpp:141] Setting up inception_4d/3x3
I0403 15:14:11.342326 14250 net.cpp:148] Top shape: 24 288 14 14 (1354752)
I0403 15:14:11.342341 14250 net.cpp:156] Memory required for data: 1126235424
I0403 15:14:11.342360 14250 layer_factory.hpp:77] Creating layer inception_4d/relu_3x3
I0403 15:14:11.342380 14250 net.cpp:91] Creating Layer inception_4d/relu_3x3
I0403 15:14:11.342396 14250 net.cpp:425] inception_4d/relu_3x3 <- inception_4d/3x3
I0403 15:14:11.342413 14250 net.cpp:386] inception_4d/relu_3x3 -> inception_4d/3x3 (in-place)
I0403 15:14:11.342600 14250 net.cpp:141] Setting up inception_4d/relu_3x3
I0403 15:14:11.342628 14250 net.cpp:148] Top shape: 24 288 14 14 (1354752)
I0403 15:14:11.342644 14250 net.cpp:156] Memory required for data: 1131654432
I0403 15:14:11.342658 14250 layer_factory.hpp:77] Creating layer inception_4d/5x5_reduce
I0403 15:14:11.342679 14250 net.cpp:91] Creating Layer inception_4d/5x5_reduce
I0403 15:14:11.342696 14250 net.cpp:425] inception_4d/5x5_reduce <- inception_4c/output_inception_4c/output_0_split_2
I0403 15:14:11.342715 14250 net.cpp:399] inception_4d/5x5_reduce -> inception_4d/5x5_reduce
I0403 15:14:11.343873 14250 net.cpp:141] Setting up inception_4d/5x5_reduce
I0403 15:14:11.343901 14250 net.cpp:148] Top shape: 24 32 14 14 (150528)
I0403 15:14:11.343916 14250 net.cpp:156] Memory required for data: 1132256544
I0403 15:14:11.343935 14250 layer_factory.hpp:77] Creating layer inception_4d/relu_5x5_reduce
I0403 15:14:11.343955 14250 net.cpp:91] Creating Layer inception_4d/relu_5x5_reduce
I0403 15:14:11.343971 14250 net.cpp:425] inception_4d/relu_5x5_reduce <- inception_4d/5x5_reduce
I0403 15:14:11.343988 14250 net.cpp:386] inception_4d/relu_5x5_reduce -> inception_4d/5x5_reduce (in-place)
I0403 15:14:11.344175 14250 net.cpp:141] Setting up inception_4d/relu_5x5_reduce
I0403 15:14:11.344202 14250 net.cpp:148] Top shape: 24 32 14 14 (150528)
I0403 15:14:11.344218 14250 net.cpp:156] Memory required for data: 1132858656
I0403 15:14:11.344233 14250 layer_factory.hpp:77] Creating layer inception_4d/5x5
I0403 15:14:11.344254 14250 net.cpp:91] Creating Layer inception_4d/5x5
I0403 15:14:11.344274 14250 net.cpp:425] inception_4d/5x5 <- inception_4d/5x5_reduce
I0403 15:14:11.344291 14250 net.cpp:399] inception_4d/5x5 -> inception_4d/5x5
I0403 15:14:11.345793 14250 net.cpp:141] Setting up inception_4d/5x5
I0403 15:14:11.345824 14250 net.cpp:148] Top shape: 24 64 14 14 (301056)
I0403 15:14:11.345840 14250 net.cpp:156] Memory required for data: 1134062880
I0403 15:14:11.345860 14250 layer_factory.hpp:77] Creating layer inception_4d/relu_5x5
I0403 15:14:11.345896 14250 net.cpp:91] Creating Layer inception_4d/relu_5x5
I0403 15:14:11.345911 14250 net.cpp:425] inception_4d/relu_5x5 <- inception_4d/5x5
I0403 15:14:11.345930 14250 net.cpp:386] inception_4d/relu_5x5 -> inception_4d/5x5 (in-place)
I0403 15:14:11.346230 14250 net.cpp:141] Setting up inception_4d/relu_5x5
I0403 15:14:11.346258 14250 net.cpp:148] Top shape: 24 64 14 14 (301056)
I0403 15:14:11.346273 14250 net.cpp:156] Memory required for data: 1135267104
I0403 15:14:11.346288 14250 layer_factory.hpp:77] Creating layer inception_4d/pool
I0403 15:14:11.346305 14250 net.cpp:91] Creating Layer inception_4d/pool
I0403 15:14:11.346321 14250 net.cpp:425] inception_4d/pool <- inception_4c/output_inception_4c/output_0_split_3
I0403 15:14:11.346341 14250 net.cpp:399] inception_4d/pool -> inception_4d/pool
I0403 15:14:11.346407 14250 net.cpp:141] Setting up inception_4d/pool
I0403 15:14:11.346433 14250 net.cpp:148] Top shape: 24 512 14 14 (2408448)
I0403 15:14:11.346448 14250 net.cpp:156] Memory required for data: 1144900896
I0403 15:14:11.346463 14250 layer_factory.hpp:77] Creating layer inception_4d/pool_proj
I0403 15:14:11.346482 14250 net.cpp:91] Creating Layer inception_4d/pool_proj
I0403 15:14:11.346498 14250 net.cpp:425] inception_4d/pool_proj <- inception_4d/pool
I0403 15:14:11.346519 14250 net.cpp:399] inception_4d/pool_proj -> inception_4d/pool_proj
I0403 15:14:11.348286 14250 net.cpp:141] Setting up inception_4d/pool_proj
I0403 15:14:11.348315 14250 net.cpp:148] Top shape: 24 64 14 14 (301056)
I0403 15:14:11.348330 14250 net.cpp:156] Memory required for data: 1146105120
I0403 15:14:11.348348 14250 layer_factory.hpp:77] Creating layer inception_4d/relu_pool_proj
I0403 15:14:11.348368 14250 net.cpp:91] Creating Layer inception_4d/relu_pool_proj
I0403 15:14:11.348386 14250 net.cpp:425] inception_4d/relu_pool_proj <- inception_4d/pool_proj
I0403 15:14:11.348402 14250 net.cpp:386] inception_4d/relu_pool_proj -> inception_4d/pool_proj (in-place)
I0403 15:14:11.348595 14250 net.cpp:141] Setting up inception_4d/relu_pool_proj
I0403 15:14:11.348623 14250 net.cpp:148] Top shape: 24 64 14 14 (301056)
I0403 15:14:11.348639 14250 net.cpp:156] Memory required for data: 1147309344
I0403 15:14:11.348652 14250 layer_factory.hpp:77] Creating layer inception_4d/output
I0403 15:14:11.348670 14250 net.cpp:91] Creating Layer inception_4d/output
I0403 15:14:11.348685 14250 net.cpp:425] inception_4d/output <- inception_4d/1x1
I0403 15:14:11.348701 14250 net.cpp:425] inception_4d/output <- inception_4d/3x3
I0403 15:14:11.348716 14250 net.cpp:425] inception_4d/output <- inception_4d/5x5
I0403 15:14:11.348731 14250 net.cpp:425] inception_4d/output <- inception_4d/pool_proj
I0403 15:14:11.348747 14250 net.cpp:399] inception_4d/output -> inception_4d/output
I0403 15:14:11.348796 14250 net.cpp:141] Setting up inception_4d/output
I0403 15:14:11.348819 14250 net.cpp:148] Top shape: 24 528 14 14 (2483712)
I0403 15:14:11.348834 14250 net.cpp:156] Memory required for data: 1157244192
I0403 15:14:11.348847 14250 layer_factory.hpp:77] Creating layer inception_4d/output_inception_4d/output_0_split
I0403 15:14:11.348866 14250 net.cpp:91] Creating Layer inception_4d/output_inception_4d/output_0_split
I0403 15:14:11.348883 14250 net.cpp:425] inception_4d/output_inception_4d/output_0_split <- inception_4d/output
I0403 15:14:11.348901 14250 net.cpp:399] inception_4d/output_inception_4d/output_0_split -> inception_4d/output_inception_4d/output_0_split_0
I0403 15:14:11.348920 14250 net.cpp:399] inception_4d/output_inception_4d/output_0_split -> inception_4d/output_inception_4d/output_0_split_1
I0403 15:14:11.348942 14250 net.cpp:399] inception_4d/output_inception_4d/output_0_split -> inception_4d/output_inception_4d/output_0_split_2
I0403 15:14:11.348963 14250 net.cpp:399] inception_4d/output_inception_4d/output_0_split -> inception_4d/output_inception_4d/output_0_split_3
I0403 15:14:11.348983 14250 net.cpp:399] inception_4d/output_inception_4d/output_0_split -> inception_4d/output_inception_4d/output_0_split_4
I0403 15:14:11.349083 14250 net.cpp:141] Setting up inception_4d/output_inception_4d/output_0_split
I0403 15:14:11.349119 14250 net.cpp:148] Top shape: 24 528 14 14 (2483712)
I0403 15:14:11.349136 14250 net.cpp:148] Top shape: 24 528 14 14 (2483712)
I0403 15:14:11.349151 14250 net.cpp:148] Top shape: 24 528 14 14 (2483712)
I0403 15:14:11.349165 14250 net.cpp:148] Top shape: 24 528 14 14 (2483712)
I0403 15:14:11.349180 14250 net.cpp:148] Top shape: 24 528 14 14 (2483712)
I0403 15:14:11.349194 14250 net.cpp:156] Memory required for data: 1206918432
I0403 15:14:11.349207 14250 layer_factory.hpp:77] Creating layer loss2/ave_pool
I0403 15:14:11.349226 14250 net.cpp:91] Creating Layer loss2/ave_pool
I0403 15:14:11.349243 14250 net.cpp:425] loss2/ave_pool <- inception_4d/output_inception_4d/output_0_split_0
I0403 15:14:11.349261 14250 net.cpp:399] loss2/ave_pool -> loss2/ave_pool
I0403 15:14:11.349583 14250 net.cpp:141] Setting up loss2/ave_pool
I0403 15:14:11.349609 14250 net.cpp:148] Top shape: 24 528 4 4 (202752)
I0403 15:14:11.349625 14250 net.cpp:156] Memory required for data: 1207729440
I0403 15:14:11.349639 14250 layer_factory.hpp:77] Creating layer loss2/conv
I0403 15:14:11.349663 14250 net.cpp:91] Creating Layer loss2/conv
I0403 15:14:11.349680 14250 net.cpp:425] loss2/conv <- loss2/ave_pool
I0403 15:14:11.349699 14250 net.cpp:399] loss2/conv -> loss2/conv
I0403 15:14:11.351598 14250 net.cpp:141] Setting up loss2/conv
I0403 15:14:11.351625 14250 net.cpp:148] Top shape: 24 128 4 4 (49152)
I0403 15:14:11.351641 14250 net.cpp:156] Memory required for data: 1207926048
I0403 15:14:11.351660 14250 layer_factory.hpp:77] Creating layer loss2/relu_conv
I0403 15:14:11.351677 14250 net.cpp:91] Creating Layer loss2/relu_conv
I0403 15:14:11.351693 14250 net.cpp:425] loss2/relu_conv <- loss2/conv
I0403 15:14:11.351712 14250 net.cpp:386] loss2/relu_conv -> loss2/conv (in-place)
I0403 15:14:11.352001 14250 net.cpp:141] Setting up loss2/relu_conv
I0403 15:14:11.352027 14250 net.cpp:148] Top shape: 24 128 4 4 (49152)
I0403 15:14:11.352043 14250 net.cpp:156] Memory required for data: 1208122656
I0403 15:14:11.352057 14250 layer_factory.hpp:77] Creating layer loss2/fc
I0403 15:14:11.352077 14250 net.cpp:91] Creating Layer loss2/fc
I0403 15:14:11.352092 14250 net.cpp:425] loss2/fc <- loss2/conv
I0403 15:14:11.352113 14250 net.cpp:399] loss2/fc -> loss2/fc
I0403 15:14:11.369686 14250 net.cpp:141] Setting up loss2/fc
I0403 15:14:11.369734 14250 net.cpp:148] Top shape: 24 1024 (24576)
I0403 15:14:11.369750 14250 net.cpp:156] Memory required for data: 1208220960
I0403 15:14:11.369767 14250 layer_factory.hpp:77] Creating layer loss2/relu_fc
I0403 15:14:11.369786 14250 net.cpp:91] Creating Layer loss2/relu_fc
I0403 15:14:11.369802 14250 net.cpp:425] loss2/relu_fc <- loss2/fc
I0403 15:14:11.369819 14250 net.cpp:386] loss2/relu_fc -> loss2/fc (in-place)
I0403 15:14:11.370137 14250 net.cpp:141] Setting up loss2/relu_fc
I0403 15:14:11.370167 14250 net.cpp:148] Top shape: 24 1024 (24576)
I0403 15:14:11.370182 14250 net.cpp:156] Memory required for data: 1208319264
I0403 15:14:11.370196 14250 layer_factory.hpp:77] Creating layer loss2/drop_fc
I0403 15:14:11.370214 14250 net.cpp:91] Creating Layer loss2/drop_fc
I0403 15:14:11.370229 14250 net.cpp:425] loss2/drop_fc <- loss2/fc
I0403 15:14:11.370246 14250 net.cpp:386] loss2/drop_fc -> loss2/fc (in-place)
I0403 15:14:11.370299 14250 net.cpp:141] Setting up loss2/drop_fc
I0403 15:14:11.370321 14250 net.cpp:148] Top shape: 24 1024 (24576)
I0403 15:14:11.370335 14250 net.cpp:156] Memory required for data: 1208417568
I0403 15:14:11.370349 14250 layer_factory.hpp:77] Creating layer loss2/classifier_plantvillage
I0403 15:14:11.370368 14250 net.cpp:91] Creating Layer loss2/classifier_plantvillage
I0403 15:14:11.370383 14250 net.cpp:425] loss2/classifier_plantvillage <- loss2/fc
I0403 15:14:11.370400 14250 net.cpp:399] loss2/classifier_plantvillage -> loss2/classifier_plantvillage
I0403 15:14:11.370846 14250 net.cpp:141] Setting up loss2/classifier_plantvillage
I0403 15:14:11.370872 14250 net.cpp:148] Top shape: 24 38 (912)
I0403 15:14:11.370887 14250 net.cpp:156] Memory required for data: 1208421216
I0403 15:14:11.370947 14250 layer_factory.hpp:77] Creating layer loss2/classifier_plantvillage_loss2/classifier_plantvillage_0_split
I0403 15:14:11.370966 14250 net.cpp:91] Creating Layer loss2/classifier_plantvillage_loss2/classifier_plantvillage_0_split
I0403 15:14:11.370982 14250 net.cpp:425] loss2/classifier_plantvillage_loss2/classifier_plantvillage_0_split <- loss2/classifier_plantvillage
I0403 15:14:11.371001 14250 net.cpp:399] loss2/classifier_plantvillage_loss2/classifier_plantvillage_0_split -> loss2/classifier_plantvillage_loss2/classifier_plantvillage_0_split_0
I0403 15:14:11.371023 14250 net.cpp:399] loss2/classifier_plantvillage_loss2/classifier_plantvillage_0_split -> loss2/classifier_plantvillage_loss2/classifier_plantvillage_0_split_1
I0403 15:14:11.371043 14250 net.cpp:399] loss2/classifier_plantvillage_loss2/classifier_plantvillage_0_split -> loss2/classifier_plantvillage_loss2/classifier_plantvillage_0_split_2
I0403 15:14:11.371121 14250 net.cpp:141] Setting up loss2/classifier_plantvillage_loss2/classifier_plantvillage_0_split
I0403 15:14:11.371146 14250 net.cpp:148] Top shape: 24 38 (912)
I0403 15:14:11.371162 14250 net.cpp:148] Top shape: 24 38 (912)
I0403 15:14:11.371177 14250 net.cpp:148] Top shape: 24 38 (912)
I0403 15:14:11.371191 14250 net.cpp:156] Memory required for data: 1208432160
I0403 15:14:11.371204 14250 layer_factory.hpp:77] Creating layer inception_4e/1x1
I0403 15:14:11.371227 14250 net.cpp:91] Creating Layer inception_4e/1x1
I0403 15:14:11.371244 14250 net.cpp:425] inception_4e/1x1 <- inception_4d/output_inception_4d/output_0_split_1
I0403 15:14:11.371265 14250 net.cpp:399] inception_4e/1x1 -> inception_4e/1x1
I0403 15:14:11.373119 14250 net.cpp:141] Setting up inception_4e/1x1
I0403 15:14:11.373147 14250 net.cpp:148] Top shape: 24 256 14 14 (1204224)
I0403 15:14:11.373163 14250 net.cpp:156] Memory required for data: 1213249056
I0403 15:14:11.373183 14250 layer_factory.hpp:77] Creating layer inception_4e/relu_1x1
I0403 15:14:11.373199 14250 net.cpp:91] Creating Layer inception_4e/relu_1x1
I0403 15:14:11.373215 14250 net.cpp:425] inception_4e/relu_1x1 <- inception_4e/1x1
I0403 15:14:11.373235 14250 net.cpp:386] inception_4e/relu_1x1 -> inception_4e/1x1 (in-place)
I0403 15:14:11.373540 14250 net.cpp:141] Setting up inception_4e/relu_1x1
I0403 15:14:11.373567 14250 net.cpp:148] Top shape: 24 256 14 14 (1204224)
I0403 15:14:11.373582 14250 net.cpp:156] Memory required for data: 1218065952
I0403 15:14:11.373596 14250 layer_factory.hpp:77] Creating layer inception_4e/3x3_reduce
I0403 15:14:11.373620 14250 net.cpp:91] Creating Layer inception_4e/3x3_reduce
I0403 15:14:11.373636 14250 net.cpp:425] inception_4e/3x3_reduce <- inception_4d/output_inception_4d/output_0_split_2
I0403 15:14:11.373658 14250 net.cpp:399] inception_4e/3x3_reduce -> inception_4e/3x3_reduce
I0403 15:14:11.375831 14250 net.cpp:141] Setting up inception_4e/3x3_reduce
I0403 15:14:11.375864 14250 net.cpp:148] Top shape: 24 160 14 14 (752640)
I0403 15:14:11.375880 14250 net.cpp:156] Memory required for data: 1221076512
I0403 15:14:11.375898 14250 layer_factory.hpp:77] Creating layer inception_4e/relu_3x3_reduce
I0403 15:14:11.375917 14250 net.cpp:91] Creating Layer inception_4e/relu_3x3_reduce
I0403 15:14:11.375932 14250 net.cpp:425] inception_4e/relu_3x3_reduce <- inception_4e/3x3_reduce
I0403 15:14:11.375952 14250 net.cpp:386] inception_4e/relu_3x3_reduce -> inception_4e/3x3_reduce (in-place)
I0403 15:14:11.376149 14250 net.cpp:141] Setting up inception_4e/relu_3x3_reduce
I0403 15:14:11.376175 14250 net.cpp:148] Top shape: 24 160 14 14 (752640)
I0403 15:14:11.376190 14250 net.cpp:156] Memory required for data: 1224087072
I0403 15:14:11.376206 14250 layer_factory.hpp:77] Creating layer inception_4e/3x3
I0403 15:14:11.376229 14250 net.cpp:91] Creating Layer inception_4e/3x3
I0403 15:14:11.376260 14250 net.cpp:425] inception_4e/3x3 <- inception_4e/3x3_reduce
I0403 15:14:11.376281 14250 net.cpp:399] inception_4e/3x3 -> inception_4e/3x3
I0403 15:14:11.381443 14250 net.cpp:141] Setting up inception_4e/3x3
I0403 15:14:11.381484 14250 net.cpp:148] Top shape: 24 320 14 14 (1505280)
I0403 15:14:11.381501 14250 net.cpp:156] Memory required for data: 1230108192
I0403 15:14:11.381520 14250 layer_factory.hpp:77] Creating layer inception_4e/relu_3x3
I0403 15:14:11.381544 14250 net.cpp:91] Creating Layer inception_4e/relu_3x3
I0403 15:14:11.381563 14250 net.cpp:425] inception_4e/relu_3x3 <- inception_4e/3x3
I0403 15:14:11.381580 14250 net.cpp:386] inception_4e/relu_3x3 -> inception_4e/3x3 (in-place)
I0403 15:14:11.381891 14250 net.cpp:141] Setting up inception_4e/relu_3x3
I0403 15:14:11.381919 14250 net.cpp:148] Top shape: 24 320 14 14 (1505280)
I0403 15:14:11.381934 14250 net.cpp:156] Memory required for data: 1236129312
I0403 15:14:11.381949 14250 layer_factory.hpp:77] Creating layer inception_4e/5x5_reduce
I0403 15:14:11.381973 14250 net.cpp:91] Creating Layer inception_4e/5x5_reduce
I0403 15:14:11.381990 14250 net.cpp:425] inception_4e/5x5_reduce <- inception_4d/output_inception_4d/output_0_split_3
I0403 15:14:11.382011 14250 net.cpp:399] inception_4e/5x5_reduce -> inception_4e/5x5_reduce
I0403 15:14:11.383117 14250 net.cpp:141] Setting up inception_4e/5x5_reduce
I0403 15:14:11.383148 14250 net.cpp:148] Top shape: 24 32 14 14 (150528)
I0403 15:14:11.383165 14250 net.cpp:156] Memory required for data: 1236731424
I0403 15:14:11.383183 14250 layer_factory.hpp:77] Creating layer inception_4e/relu_5x5_reduce
I0403 15:14:11.383201 14250 net.cpp:91] Creating Layer inception_4e/relu_5x5_reduce
I0403 15:14:11.383218 14250 net.cpp:425] inception_4e/relu_5x5_reduce <- inception_4e/5x5_reduce
I0403 15:14:11.383237 14250 net.cpp:386] inception_4e/relu_5x5_reduce -> inception_4e/5x5_reduce (in-place)
I0403 15:14:11.383548 14250 net.cpp:141] Setting up inception_4e/relu_5x5_reduce
I0403 15:14:11.383576 14250 net.cpp:148] Top shape: 24 32 14 14 (150528)
I0403 15:14:11.383594 14250 net.cpp:156] Memory required for data: 1237333536
I0403 15:14:11.383608 14250 layer_factory.hpp:77] Creating layer inception_4e/5x5
I0403 15:14:11.383649 14250 net.cpp:91] Creating Layer inception_4e/5x5
I0403 15:14:11.383669 14250 net.cpp:425] inception_4e/5x5 <- inception_4e/5x5_reduce
I0403 15:14:11.383689 14250 net.cpp:399] inception_4e/5x5 -> inception_4e/5x5
I0403 15:14:11.385601 14250 net.cpp:141] Setting up inception_4e/5x5
I0403 15:14:11.385630 14250 net.cpp:148] Top shape: 24 128 14 14 (602112)
I0403 15:14:11.385646 14250 net.cpp:156] Memory required for data: 1239741984
I0403 15:14:11.385664 14250 layer_factory.hpp:77] Creating layer inception_4e/relu_5x5
I0403 15:14:11.385685 14250 net.cpp:91] Creating Layer inception_4e/relu_5x5
I0403 15:14:11.385704 14250 net.cpp:425] inception_4e/relu_5x5 <- inception_4e/5x5
I0403 15:14:11.385720 14250 net.cpp:386] inception_4e/relu_5x5 -> inception_4e/5x5 (in-place)
I0403 15:14:11.385927 14250 net.cpp:141] Setting up inception_4e/relu_5x5
I0403 15:14:11.385953 14250 net.cpp:148] Top shape: 24 128 14 14 (602112)
I0403 15:14:11.385968 14250 net.cpp:156] Memory required for data: 1242150432
I0403 15:14:11.385982 14250 layer_factory.hpp:77] Creating layer inception_4e/pool
I0403 15:14:11.386001 14250 net.cpp:91] Creating Layer inception_4e/pool
I0403 15:14:11.386016 14250 net.cpp:425] inception_4e/pool <- inception_4d/output_inception_4d/output_0_split_4
I0403 15:14:11.386037 14250 net.cpp:399] inception_4e/pool -> inception_4e/pool
I0403 15:14:11.386108 14250 net.cpp:141] Setting up inception_4e/pool
I0403 15:14:11.386133 14250 net.cpp:148] Top shape: 24 528 14 14 (2483712)
I0403 15:14:11.386147 14250 net.cpp:156] Memory required for data: 1252085280
I0403 15:14:11.386162 14250 layer_factory.hpp:77] Creating layer inception_4e/pool_proj
I0403 15:14:11.386185 14250 net.cpp:91] Creating Layer inception_4e/pool_proj
I0403 15:14:11.386204 14250 net.cpp:425] inception_4e/pool_proj <- inception_4e/pool
I0403 15:14:11.386221 14250 net.cpp:399] inception_4e/pool_proj -> inception_4e/pool_proj
I0403 15:14:11.387761 14250 net.cpp:141] Setting up inception_4e/pool_proj
I0403 15:14:11.387789 14250 net.cpp:148] Top shape: 24 128 14 14 (602112)
I0403 15:14:11.387820 14250 net.cpp:156] Memory required for data: 1254493728
I0403 15:14:11.387840 14250 layer_factory.hpp:77] Creating layer inception_4e/relu_pool_proj
I0403 15:14:11.387861 14250 net.cpp:91] Creating Layer inception_4e/relu_pool_proj
I0403 15:14:11.387877 14250 net.cpp:425] inception_4e/relu_pool_proj <- inception_4e/pool_proj
I0403 15:14:11.387895 14250 net.cpp:386] inception_4e/relu_pool_proj -> inception_4e/pool_proj (in-place)
I0403 15:14:11.388209 14250 net.cpp:141] Setting up inception_4e/relu_pool_proj
I0403 15:14:11.388236 14250 net.cpp:148] Top shape: 24 128 14 14 (602112)
I0403 15:14:11.388249 14250 net.cpp:156] Memory required for data: 1256902176
I0403 15:14:11.388267 14250 layer_factory.hpp:77] Creating layer inception_4e/output
I0403 15:14:11.388285 14250 net.cpp:91] Creating Layer inception_4e/output
I0403 15:14:11.388303 14250 net.cpp:425] inception_4e/output <- inception_4e/1x1
I0403 15:14:11.388319 14250 net.cpp:425] inception_4e/output <- inception_4e/3x3
I0403 15:14:11.388334 14250 net.cpp:425] inception_4e/output <- inception_4e/5x5
I0403 15:14:11.388350 14250 net.cpp:425] inception_4e/output <- inception_4e/pool_proj
I0403 15:14:11.388366 14250 net.cpp:399] inception_4e/output -> inception_4e/output
I0403 15:14:11.388417 14250 net.cpp:141] Setting up inception_4e/output
I0403 15:14:11.388440 14250 net.cpp:148] Top shape: 24 832 14 14 (3913728)
I0403 15:14:11.388454 14250 net.cpp:156] Memory required for data: 1272557088
I0403 15:14:11.388468 14250 layer_factory.hpp:77] Creating layer pool4/3x3_s2
I0403 15:14:11.388485 14250 net.cpp:91] Creating Layer pool4/3x3_s2
I0403 15:14:11.388501 14250 net.cpp:425] pool4/3x3_s2 <- inception_4e/output
I0403 15:14:11.388520 14250 net.cpp:399] pool4/3x3_s2 -> pool4/3x3_s2
I0403 15:14:11.388592 14250 net.cpp:141] Setting up pool4/3x3_s2
I0403 15:14:11.388617 14250 net.cpp:148] Top shape: 24 832 7 7 (978432)
I0403 15:14:11.388630 14250 net.cpp:156] Memory required for data: 1276470816
I0403 15:14:11.388644 14250 layer_factory.hpp:77] Creating layer pool4/3x3_s2_pool4/3x3_s2_0_split
I0403 15:14:11.388664 14250 net.cpp:91] Creating Layer pool4/3x3_s2_pool4/3x3_s2_0_split
I0403 15:14:11.388680 14250 net.cpp:425] pool4/3x3_s2_pool4/3x3_s2_0_split <- pool4/3x3_s2
I0403 15:14:11.388700 14250 net.cpp:399] pool4/3x3_s2_pool4/3x3_s2_0_split -> pool4/3x3_s2_pool4/3x3_s2_0_split_0
I0403 15:14:11.388720 14250 net.cpp:399] pool4/3x3_s2_pool4/3x3_s2_0_split -> pool4/3x3_s2_pool4/3x3_s2_0_split_1
I0403 15:14:11.388741 14250 net.cpp:399] pool4/3x3_s2_pool4/3x3_s2_0_split -> pool4/3x3_s2_pool4/3x3_s2_0_split_2
I0403 15:14:11.388759 14250 net.cpp:399] pool4/3x3_s2_pool4/3x3_s2_0_split -> pool4/3x3_s2_pool4/3x3_s2_0_split_3
I0403 15:14:11.388847 14250 net.cpp:141] Setting up pool4/3x3_s2_pool4/3x3_s2_0_split
I0403 15:14:11.388885 14250 net.cpp:148] Top shape: 24 832 7 7 (978432)
I0403 15:14:11.388903 14250 net.cpp:148] Top shape: 24 832 7 7 (978432)
I0403 15:14:11.388918 14250 net.cpp:148] Top shape: 24 832 7 7 (978432)
I0403 15:14:11.388933 14250 net.cpp:148] Top shape: 24 832 7 7 (978432)
I0403 15:14:11.388947 14250 net.cpp:156] Memory required for data: 1292125728
I0403 15:14:11.388960 14250 layer_factory.hpp:77] Creating layer inception_5a/1x1
I0403 15:14:11.388983 14250 net.cpp:91] Creating Layer inception_5a/1x1
I0403 15:14:11.389000 14250 net.cpp:425] inception_5a/1x1 <- pool4/3x3_s2_pool4/3x3_s2_0_split_0
I0403 15:14:11.389020 14250 net.cpp:399] inception_5a/1x1 -> inception_5a/1x1
I0403 15:14:11.391836 14250 net.cpp:141] Setting up inception_5a/1x1
I0403 15:14:11.391866 14250 net.cpp:148] Top shape: 24 256 7 7 (301056)
I0403 15:14:11.391881 14250 net.cpp:156] Memory required for data: 1293329952
I0403 15:14:11.391899 14250 layer_factory.hpp:77] Creating layer inception_5a/relu_1x1
I0403 15:14:11.391916 14250 net.cpp:91] Creating Layer inception_5a/relu_1x1
I0403 15:14:11.391932 14250 net.cpp:425] inception_5a/relu_1x1 <- inception_5a/1x1
I0403 15:14:11.391948 14250 net.cpp:386] inception_5a/relu_1x1 -> inception_5a/1x1 (in-place)
I0403 15:14:11.392258 14250 net.cpp:141] Setting up inception_5a/relu_1x1
I0403 15:14:11.392287 14250 net.cpp:148] Top shape: 24 256 7 7 (301056)
I0403 15:14:11.392302 14250 net.cpp:156] Memory required for data: 1294534176
I0403 15:14:11.392316 14250 layer_factory.hpp:77] Creating layer inception_5a/3x3_reduce
I0403 15:14:11.392338 14250 net.cpp:91] Creating Layer inception_5a/3x3_reduce
I0403 15:14:11.392354 14250 net.cpp:425] inception_5a/3x3_reduce <- pool4/3x3_s2_pool4/3x3_s2_0_split_1
I0403 15:14:11.392372 14250 net.cpp:399] inception_5a/3x3_reduce -> inception_5a/3x3_reduce
I0403 15:14:11.394776 14250 net.cpp:141] Setting up inception_5a/3x3_reduce
I0403 15:14:11.394805 14250 net.cpp:148] Top shape: 24 160 7 7 (188160)
I0403 15:14:11.394820 14250 net.cpp:156] Memory required for data: 1295286816
I0403 15:14:11.394839 14250 layer_factory.hpp:77] Creating layer inception_5a/relu_3x3_reduce
I0403 15:14:11.394858 14250 net.cpp:91] Creating Layer inception_5a/relu_3x3_reduce
I0403 15:14:11.394875 14250 net.cpp:425] inception_5a/relu_3x3_reduce <- inception_5a/3x3_reduce
I0403 15:14:11.394891 14250 net.cpp:386] inception_5a/relu_3x3_reduce -> inception_5a/3x3_reduce (in-place)
I0403 15:14:11.395078 14250 net.cpp:141] Setting up inception_5a/relu_3x3_reduce
I0403 15:14:11.395105 14250 net.cpp:148] Top shape: 24 160 7 7 (188160)
I0403 15:14:11.395120 14250 net.cpp:156] Memory required for data: 1296039456
I0403 15:14:11.395133 14250 layer_factory.hpp:77] Creating layer inception_5a/3x3
I0403 15:14:11.395155 14250 net.cpp:91] Creating Layer inception_5a/3x3
I0403 15:14:11.395172 14250 net.cpp:425] inception_5a/3x3 <- inception_5a/3x3_reduce
I0403 15:14:11.395190 14250 net.cpp:399] inception_5a/3x3 -> inception_5a/3x3
I0403 15:14:11.400065 14250 net.cpp:141] Setting up inception_5a/3x3
I0403 15:14:11.400095 14250 net.cpp:148] Top shape: 24 320 7 7 (376320)
I0403 15:14:11.400111 14250 net.cpp:156] Memory required for data: 1297544736
I0403 15:14:11.400128 14250 layer_factory.hpp:77] Creating layer inception_5a/relu_3x3
I0403 15:14:11.400147 14250 net.cpp:91] Creating Layer inception_5a/relu_3x3
I0403 15:14:11.400162 14250 net.cpp:425] inception_5a/relu_3x3 <- inception_5a/3x3
I0403 15:14:11.400182 14250 net.cpp:386] inception_5a/relu_3x3 -> inception_5a/3x3 (in-place)
I0403 15:14:11.400471 14250 net.cpp:141] Setting up inception_5a/relu_3x3
I0403 15:14:11.400499 14250 net.cpp:148] Top shape: 24 320 7 7 (376320)
I0403 15:14:11.400516 14250 net.cpp:156] Memory required for data: 1299050016
I0403 15:14:11.400528 14250 layer_factory.hpp:77] Creating layer inception_5a/5x5_reduce
I0403 15:14:11.400557 14250 net.cpp:91] Creating Layer inception_5a/5x5_reduce
I0403 15:14:11.400574 14250 net.cpp:425] inception_5a/5x5_reduce <- pool4/3x3_s2_pool4/3x3_s2_0_split_2
I0403 15:14:11.400593 14250 net.cpp:399] inception_5a/5x5_reduce -> inception_5a/5x5_reduce
I0403 15:14:11.401736 14250 net.cpp:141] Setting up inception_5a/5x5_reduce
I0403 15:14:11.401767 14250 net.cpp:148] Top shape: 24 32 7 7 (37632)
I0403 15:14:11.401782 14250 net.cpp:156] Memory required for data: 1299200544
I0403 15:14:11.401800 14250 layer_factory.hpp:77] Creating layer inception_5a/relu_5x5_reduce
I0403 15:14:11.401818 14250 net.cpp:91] Creating Layer inception_5a/relu_5x5_reduce
I0403 15:14:11.401832 14250 net.cpp:425] inception_5a/relu_5x5_reduce <- inception_5a/5x5_reduce
I0403 15:14:11.401850 14250 net.cpp:386] inception_5a/relu_5x5_reduce -> inception_5a/5x5_reduce (in-place)
I0403 15:14:11.402144 14250 net.cpp:141] Setting up inception_5a/relu_5x5_reduce
I0403 15:14:11.402169 14250 net.cpp:148] Top shape: 24 32 7 7 (37632)
I0403 15:14:11.402184 14250 net.cpp:156] Memory required for data: 1299351072
I0403 15:14:11.402197 14250 layer_factory.hpp:77] Creating layer inception_5a/5x5
I0403 15:14:11.402218 14250 net.cpp:91] Creating Layer inception_5a/5x5
I0403 15:14:11.402235 14250 net.cpp:425] inception_5a/5x5 <- inception_5a/5x5_reduce
I0403 15:14:11.402254 14250 net.cpp:399] inception_5a/5x5 -> inception_5a/5x5
I0403 15:14:11.403990 14250 net.cpp:141] Setting up inception_5a/5x5
I0403 15:14:11.404031 14250 net.cpp:148] Top shape: 24 128 7 7 (150528)
I0403 15:14:11.404047 14250 net.cpp:156] Memory required for data: 1299953184
I0403 15:14:11.404064 14250 layer_factory.hpp:77] Creating layer inception_5a/relu_5x5
I0403 15:14:11.404083 14250 net.cpp:91] Creating Layer inception_5a/relu_5x5
I0403 15:14:11.404098 14250 net.cpp:425] inception_5a/relu_5x5 <- inception_5a/5x5
I0403 15:14:11.404116 14250 net.cpp:386] inception_5a/relu_5x5 -> inception_5a/5x5 (in-place)
I0403 15:14:11.404304 14250 net.cpp:141] Setting up inception_5a/relu_5x5
I0403 15:14:11.404330 14250 net.cpp:148] Top shape: 24 128 7 7 (150528)
I0403 15:14:11.404345 14250 net.cpp:156] Memory required for data: 1300555296
I0403 15:14:11.404358 14250 layer_factory.hpp:77] Creating layer inception_5a/pool
I0403 15:14:11.404374 14250 net.cpp:91] Creating Layer inception_5a/pool
I0403 15:14:11.404389 14250 net.cpp:425] inception_5a/pool <- pool4/3x3_s2_pool4/3x3_s2_0_split_3
I0403 15:14:11.404408 14250 net.cpp:399] inception_5a/pool -> inception_5a/pool
I0403 15:14:11.404477 14250 net.cpp:141] Setting up inception_5a/pool
I0403 15:14:11.404500 14250 net.cpp:148] Top shape: 24 832 7 7 (978432)
I0403 15:14:11.404513 14250 net.cpp:156] Memory required for data: 1304469024
I0403 15:14:11.404527 14250 layer_factory.hpp:77] Creating layer inception_5a/pool_proj
I0403 15:14:11.404559 14250 net.cpp:91] Creating Layer inception_5a/pool_proj
I0403 15:14:11.404578 14250 net.cpp:425] inception_5a/pool_proj <- inception_5a/pool
I0403 15:14:11.404597 14250 net.cpp:399] inception_5a/pool_proj -> inception_5a/pool_proj
I0403 15:14:11.406857 14250 net.cpp:141] Setting up inception_5a/pool_proj
I0403 15:14:11.406885 14250 net.cpp:148] Top shape: 24 128 7 7 (150528)
I0403 15:14:11.406900 14250 net.cpp:156] Memory required for data: 1305071136
I0403 15:14:11.406918 14250 layer_factory.hpp:77] Creating layer inception_5a/relu_pool_proj
I0403 15:14:11.406937 14250 net.cpp:91] Creating Layer inception_5a/relu_pool_proj
I0403 15:14:11.406954 14250 net.cpp:425] inception_5a/relu_pool_proj <- inception_5a/pool_proj
I0403 15:14:11.406970 14250 net.cpp:386] inception_5a/relu_pool_proj -> inception_5a/pool_proj (in-place)
I0403 15:14:11.407263 14250 net.cpp:141] Setting up inception_5a/relu_pool_proj
I0403 15:14:11.407287 14250 net.cpp:148] Top shape: 24 128 7 7 (150528)
I0403 15:14:11.407305 14250 net.cpp:156] Memory required for data: 1305673248
I0403 15:14:11.407320 14250 layer_factory.hpp:77] Creating layer inception_5a/output
I0403 15:14:11.407336 14250 net.cpp:91] Creating Layer inception_5a/output
I0403 15:14:11.407351 14250 net.cpp:425] inception_5a/output <- inception_5a/1x1
I0403 15:14:11.407366 14250 net.cpp:425] inception_5a/output <- inception_5a/3x3
I0403 15:14:11.407382 14250 net.cpp:425] inception_5a/output <- inception_5a/5x5
I0403 15:14:11.407397 14250 net.cpp:425] inception_5a/output <- inception_5a/pool_proj
I0403 15:14:11.407413 14250 net.cpp:399] inception_5a/output -> inception_5a/output
I0403 15:14:11.407462 14250 net.cpp:141] Setting up inception_5a/output
I0403 15:14:11.407485 14250 net.cpp:148] Top shape: 24 832 7 7 (978432)
I0403 15:14:11.407498 14250 net.cpp:156] Memory required for data: 1309586976
I0403 15:14:11.407512 14250 layer_factory.hpp:77] Creating layer inception_5a/output_inception_5a/output_0_split
I0403 15:14:11.407528 14250 net.cpp:91] Creating Layer inception_5a/output_inception_5a/output_0_split
I0403 15:14:11.407548 14250 net.cpp:425] inception_5a/output_inception_5a/output_0_split <- inception_5a/output
I0403 15:14:11.407572 14250 net.cpp:399] inception_5a/output_inception_5a/output_0_split -> inception_5a/output_inception_5a/output_0_split_0
I0403 15:14:11.407593 14250 net.cpp:399] inception_5a/output_inception_5a/output_0_split -> inception_5a/output_inception_5a/output_0_split_1
I0403 15:14:11.407613 14250 net.cpp:399] inception_5a/output_inception_5a/output_0_split -> inception_5a/output_inception_5a/output_0_split_2
I0403 15:14:11.407639 14250 net.cpp:399] inception_5a/output_inception_5a/output_0_split -> inception_5a/output_inception_5a/output_0_split_3
I0403 15:14:11.407755 14250 net.cpp:141] Setting up inception_5a/output_inception_5a/output_0_split
I0403 15:14:11.407779 14250 net.cpp:148] Top shape: 24 832 7 7 (978432)
I0403 15:14:11.407794 14250 net.cpp:148] Top shape: 24 832 7 7 (978432)
I0403 15:14:11.407809 14250 net.cpp:148] Top shape: 24 832 7 7 (978432)
I0403 15:14:11.407822 14250 net.cpp:148] Top shape: 24 832 7 7 (978432)
I0403 15:14:11.407841 14250 net.cpp:156] Memory required for data: 1325241888
I0403 15:14:11.407855 14250 layer_factory.hpp:77] Creating layer inception_5b/1x1
I0403 15:14:11.407876 14250 net.cpp:91] Creating Layer inception_5b/1x1
I0403 15:14:11.407894 14250 net.cpp:425] inception_5b/1x1 <- inception_5a/output_inception_5a/output_0_split_0
I0403 15:14:11.407922 14250 net.cpp:399] inception_5b/1x1 -> inception_5b/1x1
I0403 15:14:11.411646 14250 net.cpp:141] Setting up inception_5b/1x1
I0403 15:14:11.411675 14250 net.cpp:148] Top shape: 24 384 7 7 (451584)
I0403 15:14:11.411691 14250 net.cpp:156] Memory required for data: 1327048224
I0403 15:14:11.411716 14250 layer_factory.hpp:77] Creating layer inception_5b/relu_1x1
I0403 15:14:11.411737 14250 net.cpp:91] Creating Layer inception_5b/relu_1x1
I0403 15:14:11.411753 14250 net.cpp:425] inception_5b/relu_1x1 <- inception_5b/1x1
I0403 15:14:11.411772 14250 net.cpp:386] inception_5b/relu_1x1 -> inception_5b/1x1 (in-place)
I0403 15:14:11.412082 14250 net.cpp:141] Setting up inception_5b/relu_1x1
I0403 15:14:11.412109 14250 net.cpp:148] Top shape: 24 384 7 7 (451584)
I0403 15:14:11.412124 14250 net.cpp:156] Memory required for data: 1328854560
I0403 15:14:11.412139 14250 layer_factory.hpp:77] Creating layer inception_5b/3x3_reduce
I0403 15:14:11.412161 14250 net.cpp:91] Creating Layer inception_5b/3x3_reduce
I0403 15:14:11.412179 14250 net.cpp:425] inception_5b/3x3_reduce <- inception_5a/output_inception_5a/output_0_split_1
I0403 15:14:11.412201 14250 net.cpp:399] inception_5b/3x3_reduce -> inception_5b/3x3_reduce
I0403 15:14:11.414880 14250 net.cpp:141] Setting up inception_5b/3x3_reduce
I0403 15:14:11.414909 14250 net.cpp:148] Top shape: 24 192 7 7 (225792)
I0403 15:14:11.414924 14250 net.cpp:156] Memory required for data: 1329757728
I0403 15:14:11.414942 14250 layer_factory.hpp:77] Creating layer inception_5b/relu_3x3_reduce
I0403 15:14:11.414963 14250 net.cpp:91] Creating Layer inception_5b/relu_3x3_reduce
I0403 15:14:11.414979 14250 net.cpp:425] inception_5b/relu_3x3_reduce <- inception_5b/3x3_reduce
I0403 15:14:11.414999 14250 net.cpp:386] inception_5b/relu_3x3_reduce -> inception_5b/3x3_reduce (in-place)
I0403 15:14:11.415189 14250 net.cpp:141] Setting up inception_5b/relu_3x3_reduce
I0403 15:14:11.415216 14250 net.cpp:148] Top shape: 24 192 7 7 (225792)
I0403 15:14:11.415232 14250 net.cpp:156] Memory required for data: 1330660896
I0403 15:14:11.415246 14250 layer_factory.hpp:77] Creating layer inception_5b/3x3
I0403 15:14:11.415271 14250 net.cpp:91] Creating Layer inception_5b/3x3
I0403 15:14:11.415288 14250 net.cpp:425] inception_5b/3x3 <- inception_5b/3x3_reduce
I0403 15:14:11.415307 14250 net.cpp:399] inception_5b/3x3 -> inception_5b/3x3
I0403 15:14:11.422263 14250 net.cpp:141] Setting up inception_5b/3x3
I0403 15:14:11.422293 14250 net.cpp:148] Top shape: 24 384 7 7 (451584)
I0403 15:14:11.422313 14250 net.cpp:156] Memory required for data: 1332467232
I0403 15:14:11.422332 14250 layer_factory.hpp:77] Creating layer inception_5b/relu_3x3
I0403 15:14:11.422350 14250 net.cpp:91] Creating Layer inception_5b/relu_3x3
I0403 15:14:11.422368 14250 net.cpp:425] inception_5b/relu_3x3 <- inception_5b/3x3
I0403 15:14:11.422384 14250 net.cpp:386] inception_5b/relu_3x3 -> inception_5b/3x3 (in-place)
I0403 15:14:11.422703 14250 net.cpp:141] Setting up inception_5b/relu_3x3
I0403 15:14:11.422729 14250 net.cpp:148] Top shape: 24 384 7 7 (451584)
I0403 15:14:11.422749 14250 net.cpp:156] Memory required for data: 1334273568
I0403 15:14:11.422765 14250 layer_factory.hpp:77] Creating layer inception_5b/5x5_reduce
I0403 15:14:11.422802 14250 net.cpp:91] Creating Layer inception_5b/5x5_reduce
I0403 15:14:11.422821 14250 net.cpp:425] inception_5b/5x5_reduce <- inception_5a/output_inception_5a/output_0_split_2
I0403 15:14:11.422843 14250 net.cpp:399] inception_5b/5x5_reduce -> inception_5b/5x5_reduce
I0403 15:14:11.424165 14250 net.cpp:141] Setting up inception_5b/5x5_reduce
I0403 15:14:11.424193 14250 net.cpp:148] Top shape: 24 48 7 7 (56448)
I0403 15:14:11.424211 14250 net.cpp:156] Memory required for data: 1334499360
I0403 15:14:11.424228 14250 layer_factory.hpp:77] Creating layer inception_5b/relu_5x5_reduce
I0403 15:14:11.424249 14250 net.cpp:91] Creating Layer inception_5b/relu_5x5_reduce
I0403 15:14:11.424269 14250 net.cpp:425] inception_5b/relu_5x5_reduce <- inception_5b/5x5_reduce
I0403 15:14:11.424288 14250 net.cpp:386] inception_5b/relu_5x5_reduce -> inception_5b/5x5_reduce (in-place)
I0403 15:14:11.424685 14250 net.cpp:141] Setting up inception_5b/relu_5x5_reduce
I0403 15:14:11.424713 14250 net.cpp:148] Top shape: 24 48 7 7 (56448)
I0403 15:14:11.424729 14250 net.cpp:156] Memory required for data: 1334725152
I0403 15:14:11.424746 14250 layer_factory.hpp:77] Creating layer inception_5b/5x5
I0403 15:14:11.424765 14250 net.cpp:91] Creating Layer inception_5b/5x5
I0403 15:14:11.424783 14250 net.cpp:425] inception_5b/5x5 <- inception_5b/5x5_reduce
I0403 15:14:11.424803 14250 net.cpp:399] inception_5b/5x5 -> inception_5b/5x5
I0403 15:14:11.426939 14250 net.cpp:141] Setting up inception_5b/5x5
I0403 15:14:11.426970 14250 net.cpp:148] Top shape: 24 128 7 7 (150528)
I0403 15:14:11.426987 14250 net.cpp:156] Memory required for data: 1335327264
I0403 15:14:11.427006 14250 layer_factory.hpp:77] Creating layer inception_5b/relu_5x5
I0403 15:14:11.427024 14250 net.cpp:91] Creating Layer inception_5b/relu_5x5
I0403 15:14:11.427040 14250 net.cpp:425] inception_5b/relu_5x5 <- inception_5b/5x5
I0403 15:14:11.427057 14250 net.cpp:386] inception_5b/relu_5x5 -> inception_5b/5x5 (in-place)
I0403 15:14:11.427264 14250 net.cpp:141] Setting up inception_5b/relu_5x5
I0403 15:14:11.427290 14250 net.cpp:148] Top shape: 24 128 7 7 (150528)
I0403 15:14:11.427305 14250 net.cpp:156] Memory required for data: 1335929376
I0403 15:14:11.427321 14250 layer_factory.hpp:77] Creating layer inception_5b/pool
I0403 15:14:11.427338 14250 net.cpp:91] Creating Layer inception_5b/pool
I0403 15:14:11.427356 14250 net.cpp:425] inception_5b/pool <- inception_5a/output_inception_5a/output_0_split_3
I0403 15:14:11.427376 14250 net.cpp:399] inception_5b/pool -> inception_5b/pool
I0403 15:14:11.427451 14250 net.cpp:141] Setting up inception_5b/pool
I0403 15:14:11.427477 14250 net.cpp:148] Top shape: 24 832 7 7 (978432)
I0403 15:14:11.427492 14250 net.cpp:156] Memory required for data: 1339843104
I0403 15:14:11.427507 14250 layer_factory.hpp:77] Creating layer inception_5b/pool_proj
I0403 15:14:11.427528 14250 net.cpp:91] Creating Layer inception_5b/pool_proj
I0403 15:14:11.427551 14250 net.cpp:425] inception_5b/pool_proj <- inception_5b/pool
I0403 15:14:11.427572 14250 net.cpp:399] inception_5b/pool_proj -> inception_5b/pool_proj
I0403 15:14:11.429981 14250 net.cpp:141] Setting up inception_5b/pool_proj
I0403 15:14:11.430011 14250 net.cpp:148] Top shape: 24 128 7 7 (150528)
I0403 15:14:11.430027 14250 net.cpp:156] Memory required for data: 1340445216
I0403 15:14:11.430045 14250 layer_factory.hpp:77] Creating layer inception_5b/relu_pool_proj
I0403 15:14:11.430066 14250 net.cpp:91] Creating Layer inception_5b/relu_pool_proj
I0403 15:14:11.430084 14250 net.cpp:425] inception_5b/relu_pool_proj <- inception_5b/pool_proj
I0403 15:14:11.430102 14250 net.cpp:386] inception_5b/relu_pool_proj -> inception_5b/pool_proj (in-place)
I0403 15:14:11.430410 14250 net.cpp:141] Setting up inception_5b/relu_pool_proj
I0403 15:14:11.430438 14250 net.cpp:148] Top shape: 24 128 7 7 (150528)
I0403 15:14:11.430454 14250 net.cpp:156] Memory required for data: 1341047328
I0403 15:14:11.430469 14250 layer_factory.hpp:77] Creating layer inception_5b/output
I0403 15:14:11.430488 14250 net.cpp:91] Creating Layer inception_5b/output
I0403 15:14:11.430521 14250 net.cpp:425] inception_5b/output <- inception_5b/1x1
I0403 15:14:11.430542 14250 net.cpp:425] inception_5b/output <- inception_5b/3x3
I0403 15:14:11.430560 14250 net.cpp:425] inception_5b/output <- inception_5b/5x5
I0403 15:14:11.430577 14250 net.cpp:425] inception_5b/output <- inception_5b/pool_proj
I0403 15:14:11.430594 14250 net.cpp:399] inception_5b/output -> inception_5b/output
I0403 15:14:11.430652 14250 net.cpp:141] Setting up inception_5b/output
I0403 15:14:11.430677 14250 net.cpp:148] Top shape: 24 1024 7 7 (1204224)
I0403 15:14:11.430692 14250 net.cpp:156] Memory required for data: 1345864224
I0403 15:14:11.430707 14250 layer_factory.hpp:77] Creating layer pool5/7x7_s1
I0403 15:14:11.430726 14250 net.cpp:91] Creating Layer pool5/7x7_s1
I0403 15:14:11.430740 14250 net.cpp:425] pool5/7x7_s1 <- inception_5b/output
I0403 15:14:11.430762 14250 net.cpp:399] pool5/7x7_s1 -> pool5/7x7_s1
I0403 15:14:11.430986 14250 net.cpp:141] Setting up pool5/7x7_s1
I0403 15:14:11.431015 14250 net.cpp:148] Top shape: 24 1024 1 1 (24576)
I0403 15:14:11.431031 14250 net.cpp:156] Memory required for data: 1345962528
I0403 15:14:11.431046 14250 layer_factory.hpp:77] Creating layer pool5/drop_7x7_s1
I0403 15:14:11.431063 14250 net.cpp:91] Creating Layer pool5/drop_7x7_s1
I0403 15:14:11.431080 14250 net.cpp:425] pool5/drop_7x7_s1 <- pool5/7x7_s1
I0403 15:14:11.431099 14250 net.cpp:386] pool5/drop_7x7_s1 -> pool5/7x7_s1 (in-place)
I0403 15:14:11.431151 14250 net.cpp:141] Setting up pool5/drop_7x7_s1
I0403 15:14:11.431174 14250 net.cpp:148] Top shape: 24 1024 1 1 (24576)
I0403 15:14:11.431190 14250 net.cpp:156] Memory required for data: 1346060832
I0403 15:14:11.431203 14250 layer_factory.hpp:77] Creating layer loss3/classifier_plantvillage
I0403 15:14:11.431224 14250 net.cpp:91] Creating Layer loss3/classifier_plantvillage
I0403 15:14:11.431241 14250 net.cpp:425] loss3/classifier_plantvillage <- pool5/7x7_s1
I0403 15:14:11.431262 14250 net.cpp:399] loss3/classifier_plantvillage -> loss3/classifier_plantvillage
I0403 15:14:11.431705 14250 net.cpp:141] Setting up loss3/classifier_plantvillage
I0403 15:14:11.431731 14250 net.cpp:148] Top shape: 24 38 (912)
I0403 15:14:11.431746 14250 net.cpp:156] Memory required for data: 1346064480
I0403 15:14:11.431764 14250 layer_factory.hpp:77] Creating layer loss3/classifier_plantvillage_loss3/classifier_plantvillage_0_split
I0403 15:14:11.431782 14250 net.cpp:91] Creating Layer loss3/classifier_plantvillage_loss3/classifier_plantvillage_0_split
I0403 15:14:11.431798 14250 net.cpp:425] loss3/classifier_plantvillage_loss3/classifier_plantvillage_0_split <- loss3/classifier_plantvillage
I0403 15:14:11.431821 14250 net.cpp:399] loss3/classifier_plantvillage_loss3/classifier_plantvillage_0_split -> loss3/classifier_plantvillage_loss3/classifier_plantvillage_0_split_0
I0403 15:14:11.431841 14250 net.cpp:399] loss3/classifier_plantvillage_loss3/classifier_plantvillage_0_split -> loss3/classifier_plantvillage_loss3/classifier_plantvillage_0_split_1
I0403 15:14:11.431861 14250 net.cpp:399] loss3/classifier_plantvillage_loss3/classifier_plantvillage_0_split -> loss3/classifier_plantvillage_loss3/classifier_plantvillage_0_split_2
I0403 15:14:11.431880 14250 net.cpp:399] loss3/classifier_plantvillage_loss3/classifier_plantvillage_0_split -> loss3/classifier_plantvillage_loss3/classifier_plantvillage_0_split_3
I0403 15:14:11.431983 14250 net.cpp:141] Setting up loss3/classifier_plantvillage_loss3/classifier_plantvillage_0_split
I0403 15:14:11.432008 14250 net.cpp:148] Top shape: 24 38 (912)
I0403 15:14:11.432024 14250 net.cpp:148] Top shape: 24 38 (912)
I0403 15:14:11.432039 14250 net.cpp:148] Top shape: 24 38 (912)
I0403 15:14:11.432054 14250 net.cpp:148] Top shape: 24 38 (912)
I0403 15:14:11.432067 14250 net.cpp:156] Memory required for data: 1346079072
I0403 15:14:11.432081 14250 layer_factory.hpp:77] Creating layer loss1/loss
I0403 15:14:11.432103 14250 net.cpp:91] Creating Layer loss1/loss
I0403 15:14:11.432121 14250 net.cpp:425] loss1/loss <- loss1/classifier_plantvillage_loss1/classifier_plantvillage_0_split_0
I0403 15:14:11.432153 14250 net.cpp:425] loss1/loss <- label_data_1_split_0
…
