…
I0403 15:07:12.766650 14125 net.cpp:313] The NetState phase (1) differed from the phase (0) specified by a rule in layer data
I0403 15:07:12.767838 14125 net.cpp:49] Initializing net from parameters: 
state {
  phase: TEST
}
layer {
  name: "data"
  type: "Data"
  top: "data"
  top: "label"
  include {
    phase: TEST
  }
  transform_param {
    mirror: false
    crop_size: 224
    mean_file: "/home/mohanty/data/final_dataset/lmdb/color-50-50/mean.binaryproto"
  }
  data_param {
    source: "/home/mohanty/data/final_dataset/lmdb/color-50-50/test_db"
    batch_size: 24
    backend: LMDB
  }
}
layer {
  name: "conv1/7x7_s2"
  type: "Convolution"
  bottom: "data"
  top: "conv1/7x7_s2"
  param {
    lr_mult: 1
    decay_mult: 1
  }
  param {
    lr_mult: 2
    decay_mult: 0
  }
  convolution_param {
    num_output: 64
    pad: 3
    kernel_size: 7
    stride: 2
    weight_filler {
      type: "xavier"
      std: 0.1
    }
    bias_filler {
      type: "constant"
      value: 0.2
    }
  }
}
layer {
  name: "conv1/relu_7x7"
  type: "ReLU"
  bottom: "conv1/7x7_s2"
  top: "conv1/7x7_s2"
}
layer {
  name: "pool1/3x3_s2"
  type: "Pooling"
  bottom: "conv1/7x7_s2"
  top: "pool1/3x3_s2"
  pooling_param {
    pool: MAX
    kernel_size: 3
    stride: 2
  }
}
layer {
  name: "pool1/norm1"
  type: "LRN"
  bottom: "pool1/3x3_s2"
  top: "pool1/norm1"
  lrn_param {
    local_size: 5
    alpha: 0.0001
    beta: 0.75
  }
}
layer {
  name: "conv2/3x3_reduce"
  type: "Convolution"
  bottom: "pool1/norm1"
  top: "conv2/3x3_reduce"
  param {
    lr_mult: 1
    decay_mult: 1
  }
  param {
    lr_mult: 2
    decay_mult: 0
  }
  convolution_param {
    num_output: 64
    kernel_size: 1
    weight_filler {
      type: "xavier"
      std: 0.1
    }
    bias_filler {
      type: "constant"
      value: 0.2
    }
  }
}
layer {
  name: "conv2/relu_3x3_reduce"
  type: "ReLU"
  bottom: "conv2/3x3_reduce"
  top: "conv2/3x3_reduce"
}
layer {
  name: "conv2/3x3"
  type: "Convolution"
  bottom: "conv2/3x3_reduce"
  top: "conv2/3x3"
  param {
    lr_mult: 1
    decay_mult: 1
  }
  param {
    lr_mult: 2
    decay_mult: 0
  }
  convolution_param {
    num_output: 192
    pad: 1
    kernel_size: 3
    weight_filler {
      type: "xavier"
      std: 0.03
    }
    bias_filler {
      type: "constant"
      value: 0.2
    }
  }
}
layer {
  name: "conv2/relu_3x3"
  type: "ReLU"
  bottom: "conv2/3x3"
  top: "conv2/3x3"
}
layer {
  name: "conv2/norm2"
  type: "LRN"
  bottom: "conv2/3x3"
  top: "conv2/norm2"
  lrn_param {
    local_size: 5
    alpha: 0.0001
    beta: 0.75
  }
}
layer {
  name: "pool2/3x3_s2"
  type: "Pooling"
  bottom: "conv2/norm2"
  top: "pool2/3x3_s2"
  pooling_param {
    pool: MAX
    kernel_size: 3
    stride: 2
  }
}
layer {
  name: "inception_3a/1x1"
  type: "Convolution"
  bottom: "pool2/3x3_s2"
  top: "inception_3a/1x1"
  param {
    lr_mult: 1
    decay_mult: 1
  }
  param {
    lr_mult: 2
    decay_mult: 0
  }
  convolution_param {
    num_output: 64
    kernel_size: 1
    weight_filler {
      type: "xavier"
      std: 0.03
    }
    bias_filler {
      type: "constant"
      value: 0.2
    }
  }
}
layer {
  name: "inception_3a/relu_1x1"
  type: "ReLU"
  bottom: "inception_3a/1x1"
  top: "inception_3a/1x1"
}
layer {
  name: "inception_3a/3x3_reduce"
  type: "Convolution"
  bottom: "pool2/3x3_s2"
  top: "inception_3a/3x3_reduce"
  param {
    lr_mult: 1
    decay_mult: 1
  }
  param {
    lr_mult: 2
    decay_mult: 0
  }
  convolution_param {
    num_output: 96
    kernel_size: 1
    weight_filler {
      type: "xavier"
      std: 0.09
    }
    bias_filler {
      type: "constant"
      value: 0.2
    }
  }
}
layer {
  name: "inception_3a/relu_3x3_reduce"
  type: "ReLU"
  bottom: "inception_3a/3x3_reduce"
  top: "inception_3a/3x3_reduce"
}
layer {
  name: "inception_3a/3x3"
  type: "Convolution"
  bottom: "inception_3a/3x3_reduce"
  top: "inception_3a/3x3"
  param {
    lr_mult: 1
    decay_mult: 1
  }
  param {
    lr_mult: 2
    decay_mult: 0
  }
  convolution_param {
    num_output: 128
    pad: 1
    kernel_size: 3
    weight_filler {
      type: "xavier"
      std: 0.03
    }
    bias_filler {
      type: "constant"
      value: 0.2
    }
  }
}
layer {
  name: "inception_3a/relu_3x3"
  type: "ReLU"
  bottom: "inception_3a/3x3"
  top: "inception_3a/3x3"
}
layer {
  name: "inception_3a/5x5_reduce"
  type: "Convolution"
  bottom: "pool2/3x3_s2"
  top: "inception_3a/5x5_reduce"
  param {
    lr_mult: 1
    decay_mult: 1
  }
  param {
    lr_mult: 2
    decay_mult: 0
  }
  convolution_param {
    num_output: 16
    kernel_size: 1
    weight_filler {
      type: "xavier"
      std: 0.2
    }
    bias_filler {
      type: "constant"
      value: 0.2
    }
  }
}
layer {
  name: "inception_3a/relu_5x5_reduce"
  type: "ReLU"
  bottom: "inception_3a/5x5_reduce"
  top: "inception_3a/5x5_reduce"
}
layer {
  name: "inception_3a/5x5"
  type: "Convolution"
  bottom: "inception_3a/5x5_reduce"
  top: "inception_3a/5x5"
  param {
    lr_mult: 1
    decay_mult: 1
  }
  param {
    lr_mult: 2
    decay_mult: 0
  }
  convolution_param {
    num_output: 32
    pad: 2
    kernel_size: 5
    weight_filler {
      type: "xavier"
      std: 0.03
    }
    bias_filler {
      type: "constant"
      value: 0.2
    }
  }
}
layer {
  name: "inception_3a/relu_5x5"
  type: "ReLU"
  bottom: "inception_3a/5x5"
  top: "inception_3a/5x5"
}
layer {
  name: "inception_3a/pool"
  type: "Pooling"
  bottom: "pool2/3x3_s2"
  top: "inception_3a/pool"
  pooling_param {
    pool: MAX
    kernel_size: 3
    stride: 1
    pad: 1
  }
}
layer {
  name: "inception_3a/pool_proj"
  type: "Convolution"
  bottom: "inception_3a/pool"
  top: "inception_3a/pool_proj"
  param {
    lr_mult: 1
    decay_mult: 1
  }
  param {
    lr_mult: 2
    decay_mult: 0
  }
  convolution_param {
    num_output: 32
    kernel_size: 1
    weight_filler {
      type: "xavier"
      std: 0.1
    }
    bias_filler {
      type: "constant"
      value: 0.2
    }
  }
}
layer {
  name: "inception_3a/relu_pool_proj"
  type: "ReLU"
  bottom: "inception_3a/pool_proj"
  top: "inception_3a/pool_proj"
}
layer {
  name: "inception_3a/output"
  type: "Concat"
  bottom: "inception_3a/1x1"
  bottom: "inception_3a/3x3"
  bottom: "inception_3a/5x5"
  bottom: "inception_3a/pool_proj"
  top: "inception_3a/output"
}
layer {
  name: "inception_3b/1x1"
  type: "Convolution"
  bottom: "inception_3a/output"
  top: "inception_3b/1x1"
  param {
    lr_mult: 1
    decay_mult: 1
  }
  param {
    lr_mult: 2
    decay_mult: 0
  }
  convolution_param {
    num_output: 128
    kernel_size: 1
    weight_filler {
      type: "xavier"
      std: 0.03
    }
    bias_filler {
      type: "constant"
      value: 0.2
    }
  }
}
layer {
  name: "inception_3b/relu_1x1"
  type: "ReLU"
  bottom: "inception_3b/1x1"
  top: "inception_3b/1x1"
}
layer {
  name: "inception_3b/3x3_reduce"
  type: "Convolution"
  bottom: "inception_3a/output"
  top: "inception_3b/3x3_reduce"
  param {
    lr_mult: 1
    decay_mult: 1
  }
  param {
    lr_mult: 2
    decay_mult: 0
  }
  convolution_param {
    num_output: 128
    kernel_size: 1
    weight_filler {
      type: "xavier"
      std: 0.09
    }
    bias_filler {
      type: "constant"
      value: 0.2
    }
  }
}
layer {
  name: "inception_3b/relu_3x3_reduce"
  type: "ReLU"
  bottom: "inception_3b/3x3_reduce"
  top: "inception_3b/3x3_reduce"
}
layer {
  name: "inception_3b/3x3"
  type: "Convolution"
  bottom: "inception_3b/3x3_reduce"
  top: "inception_3b/3x3"
  param {
    lr_mult: 1
    decay_mult: 1
  }
  param {
    lr_mult: 2
    decay_mult: 0
  }
  convolution_param {
    num_output: 192
    pad: 1
    kernel_size: 3
    weight_filler {
      type: "xavier"
      std: 0.03
    }
    bias_filler {
      type: "constant"
      value: 0.2
    }
  }
}
layer {
  name: "inception_3b/relu_3x3"
  type: "ReLU"
  bottom: "inception_3b/3x3"
  top: "inception_3b/3x3"
}
layer {
  name: "inception_3b/5x5_reduce"
  type: "Convolution"
  bottom: "inception_3a/output"
  top: "inception_3b/5x5_reduce"
  param {
    lr_mult: 1
    decay_mult: 1
  }
  param {
    lr_mult: 2
    decay_mult: 0
  }
  convolution_param {
    num_output: 32
    kernel_size: 1
    weight_filler {
      type: "xavier"
      std: 0.2
    }
    bias_filler {
      type: "constant"
      value: 0.2
    }
  }
}
layer {
  name: "inception_3b/relu_5x5_reduce"
  type: "ReLU"
  bottom: "inception_3b/5x5_reduce"
  top: "inception_3b/5x5_reduce"
}
layer {
  name: "inception_3b/5x5"
  type: "Convolution"
  bottom: "inception_3b/5x5_reduce"
  top: "inception_3b/5x5"
  param {
    lr_mult: 1
    decay_mult: 1
  }
  param {
    lr_mult: 2
    decay_mult: 0
  }
  convolution_param {
    num_output: 96
    pad: 2
    kernel_size: 5
    weight_filler {
      type: "xavier"
      std: 0.03
    }
    bias_filler {
      type: "constant"
      value: 0.2
    }
  }
}
layer {
  name: "inception_3b/relu_5x5"
  type: "ReLU"
  bottom: "inception_3b/5x5"
  top: "inception_3b/5x5"
}
layer {
  name: "inception_3b/pool"
  type: "Pooling"
  bottom: "inception_3a/output"
  top: "inception_3b/pool"
  pooling_param {
    pool: MAX
    kernel_size: 3
    stride: 1
    pad: 1
  }
}
layer {
  name: "inception_3b/pool_proj"
  type: "Convolution"
  bottom: "inception_3b/pool"
  top: "inception_3b/pool_proj"
  param {
    lr_mult: 1
    decay_mult: 1
  }
  param {
    lr_mult: 2
    decay_mult: 0
  }
  convolution_param {
    num_output: 64
    kernel_size: 1
    weight_filler {
      type: "xavier"
      std: 0.1
    }
    bias_filler {
      type: "constant"
      value: 0.2
    }
  }
}
layer {
  name: "inception_3b/relu_pool_proj"
  type: "ReLU"
  bottom: "inception_3b/pool_proj"
  top: "inception_3b/pool_proj"
}
layer {
  name: "inception_3b/output"
  type: "Concat"
  bottom: "inception_3b/1x1"
  bottom: "inception_3b/3x3"
  bottom: "inception_3b/5x5"
  bottom: "inception_3b/pool_proj"
  top: "inception_3b/output"
}
layer {
  name: "pool3/3x3_s2"
  type: "Pooling"
  bottom: "inception_3b/output"
  top: "pool3/3x3_s2"
  pooling_param {
    pool: MAX
    kernel_size: 3
    stride: 2
  }
}
layer {
  name: "inception_4a/1x1"
  type: "Convolution"
  bottom: "pool3/3x3_s2"
  top: "inception_4a/1x1"
  param {
    lr_mult: 1
    decay_mult: 1
  }
  param {
    lr_mult: 2
    decay_mult: 0
  }
  convolution_param {
    num_output: 192
    kernel_size: 1
    weight_filler {
      type: "xavier"
      std: 0.03
    }
    bias_filler {
      type: "constant"
      value: 0.2
    }
  }
}
layer {
  name: "inception_4a/relu_1x1"
  type: "ReLU"
  bottom: "inception_4a/1x1"
  top: "inception_4a/1x1"
}
layer {
  name: "inception_4a/3x3_reduce"
  type: "Convolution"
  bottom: "pool3/3x3_s2"
  top: "inception_4a/3x3_reduce"
  param {
    lr_mult: 1
    decay_mult: 1
  }
  param {
    lr_mult: 2
    decay_mult: 0
  }
  convolution_param {
    num_output: 96
    kernel_size: 1
    weight_filler {
      type: "xavier"
      std: 0.09
    }
    bias_filler {
      type: "constant"
      value: 0.2
    }
  }
}
layer {
  name: "inception_4a/relu_3x3_reduce"
  type: "ReLU"
  bottom: "inception_4a/3x3_reduce"
  top: "inception_4a/3x3_reduce"
}
layer {
  name: "inception_4a/3x3"
  type: "Convolution"
  bottom: "inception_4a/3x3_reduce"
  top: "inception_4a/3x3"
  param {
    lr_mult: 1
    decay_mult: 1
  }
  param {
    lr_mult: 2
    decay_mult: 0
  }
  convolution_param {
    num_output: 208
    pad: 1
    kernel_size: 3
    weight_filler {
      type: "xavier"
      std: 0.03
    }
    bias_filler {
      type: "constant"
      value: 0.2
    }
  }
}
layer {
  name: "inception_4a/relu_3x3"
  type: "ReLU"
  bottom: "inception_4a/3x3"
  top: "inception_4a/3x3"
}
layer {
  name: "inception_4a/5x5_reduce"
  type: "Convolution"
  bottom: "pool3/3x3_s2"
  top: "inception_4a/5x5_reduce"
  param {
    lr_mult: 1
    decay_mult: 1
  }
  param {
    lr_mult: 2
    decay_mult: 0
  }
  convolution_param {
    num_output: 16
    kernel_size: 1
    weight_filler {
      type: "xavier"
      std: 0.2
    }
    bias_filler {
      type: "constant"
      value: 0.2
    }
  }
}
layer {
  name: "inception_4a/relu_5x5_reduce"
  type: "ReLU"
  bottom: "inception_4a/5x5_reduce"
  top: "inception_4a/5x5_reduce"
}
layer {
  name: "inception_4a/5x5"
  type: "Convolution"
  bottom: "inception_4a/5x5_reduce"
  top: "inception_4a/5x5"
  param {
    lr_mult: 1
    decay_mult: 1
  }
  param {
    lr_mult: 2
    decay_mult: 0
  }
  convolution_param {
    num_output: 48
    pad: 2
    kernel_size: 5
    weight_filler {
      type: "xavier"
      std: 0.03
    }
    bias_filler {
      type: "constant"
      value: 0.2
    }
  }
}
layer {
  name: "inception_4a/relu_5x5"
  type: "ReLU"
  bottom: "inception_4a/5x5"
  top: "inception_4a/5x5"
}
layer {
  name: "inception_4a/pool"
  type: "Pooling"
  bottom: "pool3/3x3_s2"
  top: "inception_4a/pool"
  pooling_param {
    pool: MAX
    kernel_size: 3
    stride: 1
    pad: 1
  }
}
layer {
  name: "inception_4a/pool_proj"
  type: "Convolution"
  bottom: "inception_4a/pool"
  top: "inception_4a/pool_proj"
  param {
    lr_mult: 1
    decay_mult: 1
  }
  param {
    lr_mult: 2
    decay_mult: 0
  }
  convolution_param {
    num_output: 64
    kernel_size: 1
    weight_filler {
      type: "xavier"
      std: 0.1
    }
    bias_filler {
      type: "constant"
      value: 0.2
    }
  }
}
layer {
  name: "inception_4a/relu_pool_proj"
  type: "ReLU"
  bottom: "inception_4a/pool_proj"
  top: "inception_4a/pool_proj"
}
layer {
  name: "inception_4a/output"
  type: "Concat"
  bottom: "inception_4a/1x1"
  bottom: "inception_4a/3x3"
  bottom: "inception_4a/5x5"
  bottom: "inception_4a/pool_proj"
  top: "inception_4a/output"
}
layer {
  name: "loss1/ave_pool"
  type: "Pooling"
  bottom: "inception_4a/output"
  top: "loss1/ave_pool"
  pooling_param {
    pool: AVE
    kernel_size: 5
    stride: 3
  }
}
layer {
  name: "loss1/conv"
  type: "Convolution"
  bottom: "loss1/ave_pool"
  top: "loss1/conv"
  param {
    lr_mult: 1
    decay_mult: 1
  }
  param {
    lr_mult: 2
    decay_mult: 0
  }
  convolution_param {
    num_output: 128
    kernel_size: 1
    weight_filler {
      type: "xavier"
      std: 0.08
    }
    bias_filler {
      type: "constant"
      value: 0.2
    }
  }
}
layer {
  name: "loss1/relu_conv"
  type: "ReLU"
  bottom: "loss1/conv"
  top: "loss1/conv"
}
layer {
  name: "loss1/fc"
  type: "InnerProduct"
  bottom: "loss1/conv"
  top: "loss1/fc"
  param {
    lr_mult: 1
    decay_mult: 1
  }
  param {
    lr_mult: 2
    decay_mult: 0
  }
  inner_product_param {
    num_output: 1024
    weight_filler {
      type: "xavier"
      std: 0.02
    }
    bias_filler {
      type: "constant"
      value: 0.2
    }
  }
}
layer {
  name: "loss1/relu_fc"
  type: "ReLU"
  bottom: "loss1/fc"
  top: "loss1/fc"
}
layer {
  name: "loss1/drop_fc"
  type: "Dropout"
  bottom: "loss1/fc"
  top: "loss1/fc"
  dropout_param {
    dropout_ratio: 0.7
  }
}
layer {
  name: "loss1/classifier_plantvillage"
  type: "InnerProduct"
  bottom: "loss1/fc"
  top: "loss1/classifier_plantvillage"
  param {
    lr_mult: 1
    decay_mult: 1
  }
  param {
    lr_mult: 2
    decay_mult: 0
  }
  inner_product_param {
    num_output: 38
    weight_filler {
      type: "xavier"
      std: 0.0009765625
    }
    bias_filler {
      type: "constant"
      value: 0
    }
  }
}
layer {
  name: "inception_4b/1x1"
  type: "Convolution"
  bottom: "inception_4a/output"
  top: "inception_4b/1x1"
  param {
    lr_mult: 1
    decay_mult: 1
  }
  param {
    lr_mult: 2
    decay_mult: 0
  }
  convolution_param {
    num_output: 160
    kernel_size: 1
    weight_filler {
      type: "xavier"
      std: 0.03
    }
    bias_filler {
      type: "constant"
      value: 0.2
    }
  }
}
layer {
  name: "inception_4b/relu_1x1"
  type: "ReLU"
  bottom: "inception_4b/1x1"
  top: "inception_4b/1x1"
}
layer {
  name: "inception_4b/3x3_reduce"
  type: "Convolution"
  bottom: "inception_4a/output"
  top: "inception_4b/3x3_reduce"
  param {
    lr_mult: 1
    decay_mult: 1
  }
  param {
    lr_mult: 2
    decay_mult: 0
  }
  convolution_param {
    num_output: 112
    kernel_size: 1
    weight_filler {
      type: "xavier"
      std: 0.09
    }
    bias_filler {
      type: "constant"
      value: 0.2
    }
  }
}
layer {
  name: "inception_4b/relu_3x3_reduce"
  type: "ReLU"
  bottom: "inception_4b/3x3_reduce"
  top: "inception_4b/3x3_reduce"
}
layer {
  name: "inception_4b/3x3"
  type: "Convolution"
  bottom: "inception_4b/3x3_reduce"
  top: "inception_4b/3x3"
  param {
    lr_mult: 1
    decay_mult: 1
  }
  param {
    lr_mult: 2
    decay_mult: 0
  }
  convolution_param {
    num_output: 224
    pad: 1
    kernel_size: 3
    weight_filler {
      type: "xavier"
      std: 0.03
    }
    bias_filler {
      type: "constant"
      value: 0.2
    }
  }
}
layer {
  name: "inception_4b/relu_3x3"
  type: "ReLU"
  bottom: "inception_4b/3x3"
  top: "inception_4b/3x3"
}
layer {
  name: "inception_4b/5x5_reduce"
  type: "Convolution"
  bottom: "inception_4a/output"
  top: "inception_4b/5x5_reduce"
  param {
    lr_mult: 1
    decay_mult: 1
  }
  param {
    lr_mult: 2
    decay_mult: 0
  }
  convolution_param {
    num_output: 24
    kernel_size: 1
    weight_filler {
      type: "xavier"
      std: 0.2
    }
    bias_filler {
      type: "constant"
      value: 0.2
    }
  }
}
layer {
  name: "inception_4b/relu_5x5_reduce"
  type: "ReLU"
  bottom: "inception_4b/5x5_reduce"
  top: "inception_4b/5x5_reduce"
}
layer {
  name: "inception_4b/5x5"
  type: "Convolution"
  bottom: "inception_4b/5x5_reduce"
  top: "inception_4b/5x5"
  param {
    lr_mult: 1
    decay_mult: 1
  }
  param {
    lr_mult: 2
    decay_mult: 0
  }
  convolution_param {
    num_output: 64
    pad: 2
    kernel_size: 5
    weight_filler {
      type: "xavier"
      std: 0.03
    }
    bias_filler {
      type: "constant"
      value: 0.2
    }
  }
}
layer {
  name: "inception_4b/relu_5x5"
  type: "ReLU"
  bottom: "inception_4b/5x5"
  top: "inception_4b/5x5"
}
layer {
  name: "inception_4b/pool"
  type: "Pooling"
  bottom: "inception_4a/output"
  top: "inception_4b/pool"
  pooling_param {
    pool: MAX
    kernel_size: 3
    stride: 1
    pad: 1
  }
}
layer {
  name: "inception_4b/pool_proj"
  type: "Convolution"
  bottom: "inception_4b/pool"
  top: "inception_4b/pool_proj"
  param {
    lr_mult: 1
    decay_mult: 1
  }
  param {
    lr_mult: 2
    decay_mult: 0
  }
  convolution_param {
    num_output: 64
    kernel_size: 1
    weight_filler {
      type: "xavier"
      std: 0.1
    }
    bias_filler {
      type: "constant"
      value: 0.2
    }
  }
}
layer {
  name: "inception_4b/relu_pool_proj"
  type: "ReLU"
  bottom: "inception_4b/pool_proj"
  top: "inception_4b/pool_proj"
}
layer {
  name: "inception_4b/output"
  type: "Concat"
  bottom: "inception_4b/1x1"
  bottom: "inception_4b/3x3"
  bottom: "inception_4b/5x5"
  bottom: "inception_4b/pool_proj"
  top: "inception_4b/output"
}
layer {
  name: "inception_4c/1x1"
  type: "Convolution"
  bottom: "inception_4b/output"
  top: "inception_4c/1x1"
  param {
    lr_mult: 1
    decay_mult: 1
  }
  param {
    lr_mult: 2
    decay_mult: 0
  }
  convolution_param {
    num_output: 128
    kernel_size: 1
    weight_filler {
      type: "xavier"
      std: 0.03
    }
    bias_filler {
      type: "constant"
      value: 0.2
    }
  }
}
layer {
  name: "inception_4c/relu_1x1"
  type: "ReLU"
  bottom: "inception_4c/1x1"
  top: "inception_4c/1x1"
}
layer {
  name: "inception_4c/3x3_reduce"
  type: "Convolution"
  bottom: "inception_4b/output"
  top: "inception_4c/3x3_reduce"
  param {
    lr_mult: 1
    decay_mult: 1
  }
  param {
    lr_mult: 2
    decay_mult: 0
  }
  convolution_param {
    num_output: 128
    kernel_size: 1
    weight_filler {
      type: "xavier"
      std: 0.09
    }
    bias_filler {
      type: "constant"
      value: 0.2
    }
  }
}
layer {
  name: "inception_4c/relu_3x3_reduce"
  type: "ReLU"
  bottom: "inception_4c/3x3_reduce"
  top: "inception_4c/3x3_reduce"
}
layer {
  name: "inception_4c/3x3"
  type: "Convolution"
  bottom: "inception_4c/3x3_reduce"
  top: "inception_4c/3x3"
  param {
    lr_mult: 1
    decay_mult: 1
  }
  param {
    lr_mult: 2
    decay_mult: 0
  }
  convolution_param {
    num_output: 256
    pad: 1
    kernel_size: 3
    weight_filler {
      type: "xavier"
      std: 0.03
    }
    bias_filler {
      type: "constant"
      value: 0.2
    }
  }
}
layer {
  name: "inception_4c/relu_3x3"
  type: "ReLU"
  bottom: "inception_4c/3x3"
  top: "inception_4c/3x3"
}
layer {
  name: "inception_4c/5x5_reduce"
  type: "Convolution"
  bottom: "inception_4b/output"
  top: "inception_4c/5x5_reduce"
  param {
    lr_mult: 1
    decay_mult: 1
  }
  param {
    lr_mult: 2
    decay_mult: 0
  }
  convolution_param {
    num_output: 24
    kernel_size: 1
    weight_filler {
      type: "xavier"
      std: 0.2
    }
    bias_filler {
      type: "constant"
      value: 0.2
    }
  }
}
layer {
  name: "inception_4c/relu_5x5_reduce"
  type: "ReLU"
  bottom: "inception_4c/5x5_reduce"
  top: "inception_4c/5x5_reduce"
}
layer {
  name: "inception_4c/5x5"
  type: "Convolution"
  bottom: "inception_4c/5x5_reduce"
  top: "inception_4c/5x5"
  param {
    lr_mult: 1
    decay_mult: 1
  }
  param {
    lr_mult: 2
    decay_mult: 0
  }
  convolution_param {
    num_output: 64
    pad: 2
    kernel_size: 5
    weight_filler {
      type: "xavier"
      std: 0.03
    }
    bias_filler {
      type: "constant"
      value: 0.2
    }
  }
}
layer {
  name: "inception_4c/relu_5x5"
  type: "ReLU"
  bottom: "inception_4c/5x5"
  top: "inception_4c/5x5"
}
layer {
  name: "inception_4c/pool"
  type: "Pooling"
  bottom: "inception_4b/output"
  top: "inception_4c/pool"
  pooling_param {
    pool: MAX
    kernel_size: 3
    stride: 1
    pad: 1
  }
}
layer {
  name: "inception_4c/pool_proj"
  type: "Convolution"
  bottom: "inception_4c/pool"
  top: "inception_4c/pool_proj"
  param {
    lr_mult: 1
    decay_mult: 1
  }
  param {
    lr_mult: 2
    decay_mult: 0
  }
  convolution_param {
    num_output: 64
    kernel_size: 1
    weight_filler {
      type: "xavier"
      std: 0.1
    }
    bias_filler {
      type: "constant"
      value: 0.2
    }
  }
}
layer {
  name: "inception_4c/relu_pool_proj"
  type: "ReLU"
  bottom: "inception_4c/pool_proj"
  top: "inception_4c/pool_proj"
}
layer {
  name: "inception_4c/output"
  type: "Concat"
  bottom: "inception_4c/1x1"
  bottom: "inception_4c/3x3"
  bottom: "inception_4c/5x5"
  bottom: "inception_4c/pool_proj"
  top: "inception_4c/output"
}
layer {
  name: "inception_4d/1x1"
  type: "Convolution"
  bottom: "inception_4c/output"
  top: "inception_4d/1x1"
  param {
    lr_mult: 1
    decay_mult: 1
  }
  param {
    lr_mult: 2
    decay_mult: 0
  }
  convolution_param {
    num_output: 112
    kernel_size: 1
    weight_filler {
      type: "xavier"
      std: 0.03
    }
    bias_filler {
      type: "constant"
      value: 0.2
    }
  }
}
layer {
  name: "inception_4d/relu_1x1"
  type: "ReLU"
  bottom: "inception_4d/1x1"
  top: "inception_4d/1x1"
}
layer {
  name: "inception_4d/3x3_reduce"
  type: "Convolution"
  bottom: "inception_4c/output"
  top: "inception_4d/3x3_reduce"
  param {
    lr_mult: 1
    decay_mult: 1
  }
  param {
    lr_mult: 2
    decay_mult: 0
  }
  convolution_param {
    num_output: 144
    kernel_size: 1
    weight_filler {
      type: "xavier"
      std: 0.09
    }
    bias_filler {
      type: "constant"
      value: 0.2
    }
  }
}
layer {
  name: "inception_4d/relu_3x3_reduce"
  type: "ReLU"
  bottom: "inception_4d/3x3_reduce"
  top: "inception_4d/3x3_reduce"
}
layer {
  name: "inception_4d/3x3"
  type: "Convolution"
  bottom: "inception_4d/3x3_reduce"
  top: "inception_4d/3x3"
  param {
    lr_mult: 1
    decay_mult: 1
  }
  param {
    lr_mult: 2
    decay_mult: 0
  }
  convolution_param {
    num_output: 288
    pad: 1
    kernel_size: 3
    weight_filler {
      type: "xavier"
      std: 0.03
    }
    bias_filler {
      type: "constant"
      value: 0.2
    }
  }
}
layer {
  name: "inception_4d/relu_3x3"
  type: "ReLU"
  bottom: "inception_4d/3x3"
  top: "inception_4d/3x3"
}
layer {
  name: "inception_4d/5x5_reduce"
  type: "Convolution"
  bottom: "inception_4c/output"
  top: "inception_4d/5x5_reduce"
  param {
    lr_mult: 1
    decay_mult: 1
  }
  param {
    lr_mult: 2
    decay_mult: 0
  }
  convolution_param {
    num_output: 32
    kernel_size: 1
    weight_filler {
      type: "xavier"
      std: 0.2
    }
    bias_filler {
      type: "constant"
      value: 0.2
    }
  }
}
layer {
  name: "inception_4d/relu_5x5_reduce"
  type: "ReLU"
  bottom: "inception_4d/5x5_reduce"
  top: "inception_4d/5x5_reduce"
}
layer {
  name: "inception_4d/5x5"
  type: "Convolution"
  bottom: "inception_4d/5x5_reduce"
  top: "inception_4d/5x5"
  param {
    lr_mult: 1
    decay_mult: 1
  }
  param {
    lr_mult: 2
    decay_mult: 0
  }
  convolution_param {
    num_output: 64
    pad: 2
    kernel_size: 5
    weight_filler {
      type: "xavier"
      std: 0.03
    }
    bias_filler {
      type: "constant"
      value: 0.2
    }
  }
}
layer {
  name: "inception_4d/relu_5x5"
  type: "ReLU"
  bottom: "inception_4d/5x5"
  top: "inception_4d/5x5"
}
layer {
  name: "inception_4d/pool"
  type: "Pooling"
  bottom: "inception_4c/output"
  top: "inception_4d/pool"
  pooling_param {
    pool: MAX
    kernel_size: 3
    stride: 1
    pad: 1
  }
}
layer {
  name: "inception_4d/pool_proj"
  type: "Convolution"
  bottom: "inception_4d/pool"
  top: "inception_4d/pool_proj"
  param {
    lr_mult: 1
    decay_mult: 1
  }
  param {
    lr_mult: 2
    decay_mult: 0
  }
  convolution_param {
    num_output: 64
    kernel_size: 1
    weight_filler {
      type: "xavier"
      std: 0.1
    }
    bias_filler {
      type: "constant"
      value: 0.2
    }
  }
}
layer {
  name: "inception_4d/relu_pool_proj"
  type: "ReLU"
  bottom: "inception_4d/pool_proj"
  top: "inception_4d/pool_proj"
}
layer {
  name: "inception_4d/output"
  type: "Concat"
  bottom: "inception_4d/1x1"
  bottom: "inception_4d/3x3"
  bottom: "inception_4d/5x5"
  bottom: "inception_4d/pool_proj"
  top: "inception_4d/output"
}
layer {
  name: "loss2/ave_pool"
  type: "Pooling"
  bottom: "inception_4d/output"
  top: "loss2/ave_pool"
  pooling_param {
    pool: AVE
    kernel_size: 5
    stride: 3
  }
}
layer {
  name: "loss2/conv"
  type: "Convolution"
  bottom: "loss2/ave_pool"
  top: "loss2/conv"
  param {
    lr_mult: 1
    decay_mult: 1
  }
  param {
    lr_mult: 2
    decay_mult: 0
  }
  convolution_param {
    num_output: 128
    kernel_size: 1
    weight_filler {
      type: "xavier"
      std: 0.08
    }
    bias_filler {
      type: "constant"
      value: 0.2
    }
  }
}
layer {
  name: "loss2/relu_conv"
  type: "ReLU"
  bottom: "loss2/conv"
  top: "loss2/conv"
}
layer {
  name: "loss2/fc"
  type: "InnerProduct"
  bottom: "loss2/conv"
  top: "loss2/fc"
  param {
    lr_mult: 1
    decay_mult: 1
  }
  param {
    lr_mult: 2
    decay_mult: 0
  }
  inner_product_param {
    num_output: 1024
    weight_filler {
      type: "xavier"
      std: 0.02
    }
    bias_filler {
      type: "constant"
      value: 0.2
    }
  }
}
layer {
  name: "loss2/relu_fc"
  type: "ReLU"
  bottom: "loss2/fc"
  top: "loss2/fc"
}
layer {
  name: "loss2/drop_fc"
  type: "Dropout"
  bottom: "loss2/fc"
  top: "loss2/fc"
  dropout_param {
    dropout_ratio: 0.7
  }
}
layer {
  name: "loss2/classifier_plantvillage"
  type: "InnerProduct"
  bottom: "loss2/fc"
  top: "loss2/classifier_plantvillage"
  param {
    lr_mult: 1
    decay_mult: 1
  }
  param {
    lr_mult: 2
    decay_mult: 0
  }
  inner_product_param {
    num_output: 38
    weight_filler {
      type: "xavier"
      std: 0.0009765625
    }
    bias_filler {
      type: "constant"
      value: 0
    }
  }
}
layer {
  name: "inception_4e/1x1"
  type: "Convolution"
  bottom: "inception_4d/output"
  top: "inception_4e/1x1"
  param {
    lr_mult: 1
    decay_mult: 1
  }
  param {
    lr_mult: 2
    decay_mult: 0
  }
  convolution_param {
    num_output: 256
    kernel_size: 1
    weight_filler {
      type: "xavier"
      std: 0.03
    }
    bias_filler {
      type: "constant"
      value: 0.2
    }
  }
}
layer {
  name: "inception_4e/relu_1x1"
  type: "ReLU"
  bottom: "inception_4e/1x1"
  top: "inception_4e/1x1"
}
layer {
  name: "inception_4e/3x3_reduce"
  type: "Convolution"
  bottom: "inception_4d/output"
  top: "inception_4e/3x3_reduce"
  param {
    lr_mult: 1
    decay_mult: 1
  }
  param {
    lr_mult: 2
    decay_mult: 0
  }
  convolution_param {
    num_output: 160
    kernel_size: 1
    weight_filler {
      type: "xavier"
      std: 0.09
    }
    bias_filler {
      type: "constant"
      value: 0.2
    }
  }
}
layer {
  name: "inception_4e/relu_3x3_reduce"
  type: "ReLU"
  bottom: "inception_4e/3x3_reduce"
  top: "inception_4e/3x3_reduce"
}
layer {
  name: "inception_4e/3x3"
  type: "Convolution"
  bottom: "inception_4e/3x3_reduce"
  top: "inception_4e/3x3"
  param {
    lr_mult: 1
    decay_mult: 1
  }
  param {
    lr_mult: 2
    decay_mult: 0
  }
  convolution_param {
    num_output: 320
    pad: 1
    kernel_size: 3
    weight_filler {
      type: "xavier"
      std: 0.03
    }
    bias_filler {
      type: "constant"
      value: 0.2
    }
  }
}
layer {
  name: "inception_4e/relu_3x3"
  type: "ReLU"
  bottom: "inception_4e/3x3"
  top: "inception_4e/3x3"
}
layer {
  name: "inception_4e/5x5_reduce"
  type: "Convolution"
  bottom: "inception_4d/output"
  top: "inception_4e/5x5_reduce"
  param {
    lr_mult: 1
    decay_mult: 1
  }
  param {
    lr_mult: 2
    decay_mult: 0
  }
  convolution_param {
    num_output: 32
    kernel_size: 1
    weight_filler {
      type: "xavier"
      std: 0.2
    }
    bias_filler {
      type: "constant"
      value: 0.2
    }
  }
}
layer {
  name: "inception_4e/relu_5x5_reduce"
  type: "ReLU"
  bottom: "inception_4e/5x5_reduce"
  top: "inception_4e/5x5_reduce"
}
layer {
  name: "inception_4e/5x5"
  type: "Convolution"
  bottom: "inception_4e/5x5_reduce"
  top: "inception_4e/5x5"
  p
I0403 15:07:12.769155 14125 layer_factory.hpp:77] Creating layer data
I0403 15:07:12.769798 14125 net.cpp:91] Creating Layer data
I0403 15:07:12.769834 14125 net.cpp:399] data -> data
I0403 15:07:12.769887 14125 net.cpp:399] data -> label
I0403 15:07:12.769925 14125 data_transformer.cpp:25] Loading mean file from: /home/mohanty/data/final_dataset/lmdb/color-50-50/mean.binaryproto
I0403 15:07:12.780941 14130 db_lmdb.cpp:38] Opened lmdb /home/mohanty/data/final_dataset/lmdb/color-50-50/test_db
I0403 15:07:12.788203 14125 data_layer.cpp:41] output data size: 24,3,224,224
I0403 15:07:12.815836 14125 net.cpp:141] Setting up data
I0403 15:07:12.815913 14125 net.cpp:148] Top shape: 24 3 224 224 (3612672)
I0403 15:07:12.815937 14125 net.cpp:148] Top shape: 24 (24)
I0403 15:07:12.815951 14125 net.cpp:156] Memory required for data: 14450784
I0403 15:07:12.815978 14125 layer_factory.hpp:77] Creating layer label_data_1_split
I0403 15:07:12.816004 14125 net.cpp:91] Creating Layer label_data_1_split
I0403 15:07:12.816021 14125 net.cpp:425] label_data_1_split <- label
I0403 15:07:12.816053 14125 net.cpp:399] label_data_1_split -> label_data_1_split_0
I0403 15:07:12.816082 14125 net.cpp:399] label_data_1_split -> label_data_1_split_1
I0403 15:07:12.816102 14125 net.cpp:399] label_data_1_split -> label_data_1_split_2
I0403 15:07:12.816123 14125 net.cpp:399] label_data_1_split -> label_data_1_split_3
I0403 15:07:12.816143 14125 net.cpp:399] label_data_1_split -> label_data_1_split_4
I0403 15:07:12.816162 14125 net.cpp:399] label_data_1_split -> label_data_1_split_5
I0403 15:07:12.816182 14125 net.cpp:399] label_data_1_split -> label_data_1_split_6
I0403 15:07:12.816203 14125 net.cpp:399] label_data_1_split -> label_data_1_split_7
I0403 15:07:12.816222 14125 net.cpp:399] label_data_1_split -> label_data_1_split_8
I0403 15:07:12.816242 14125 net.cpp:399] label_data_1_split -> label_data_1_split_9
I0403 15:07:12.816359 14125 net.cpp:141] Setting up label_data_1_split
I0403 15:07:12.816381 14125 net.cpp:148] Top shape: 24 (24)
I0403 15:07:12.816400 14125 net.cpp:148] Top shape: 24 (24)
I0403 15:07:12.816416 14125 net.cpp:148] Top shape: 24 (24)
I0403 15:07:12.816431 14125 net.cpp:148] Top shape: 24 (24)
I0403 15:07:12.816445 14125 net.cpp:148] Top shape: 24 (24)
I0403 15:07:12.816460 14125 net.cpp:148] Top shape: 24 (24)
I0403 15:07:12.816475 14125 net.cpp:148] Top shape: 24 (24)
I0403 15:07:12.816491 14125 net.cpp:148] Top shape: 24 (24)
I0403 15:07:12.816506 14125 net.cpp:148] Top shape: 24 (24)
I0403 15:07:12.816521 14125 net.cpp:148] Top shape: 24 (24)
I0403 15:07:12.816577 14125 net.cpp:156] Memory required for data: 14451744
I0403 15:07:12.816593 14125 layer_factory.hpp:77] Creating layer conv1/7x7_s2
I0403 15:07:12.816624 14125 net.cpp:91] Creating Layer conv1/7x7_s2
I0403 15:07:12.816643 14125 net.cpp:425] conv1/7x7_s2 <- data
I0403 15:07:12.816663 14125 net.cpp:399] conv1/7x7_s2 -> conv1/7x7_s2
I0403 15:07:12.958992 14125 net.cpp:141] Setting up conv1/7x7_s2
I0403 15:07:12.959077 14125 net.cpp:148] Top shape: 24 64 112 112 (19267584)
I0403 15:07:12.959095 14125 net.cpp:156] Memory required for data: 91522080
I0403 15:07:12.959127 14125 layer_factory.hpp:77] Creating layer conv1/relu_7x7
I0403 15:07:12.959156 14125 net.cpp:91] Creating Layer conv1/relu_7x7
I0403 15:07:12.959174 14125 net.cpp:425] conv1/relu_7x7 <- conv1/7x7_s2
I0403 15:07:12.959194 14125 net.cpp:386] conv1/relu_7x7 -> conv1/7x7_s2 (in-place)
I0403 15:07:12.959465 14125 net.cpp:141] Setting up conv1/relu_7x7
I0403 15:07:12.959493 14125 net.cpp:148] Top shape: 24 64 112 112 (19267584)
I0403 15:07:12.959514 14125 net.cpp:156] Memory required for data: 168592416
I0403 15:07:12.959532 14125 layer_factory.hpp:77] Creating layer pool1/3x3_s2
I0403 15:07:12.959558 14125 net.cpp:91] Creating Layer pool1/3x3_s2
I0403 15:07:12.959575 14125 net.cpp:425] pool1/3x3_s2 <- conv1/7x7_s2
I0403 15:07:12.959594 14125 net.cpp:399] pool1/3x3_s2 -> pool1/3x3_s2
I0403 15:07:12.959671 14125 net.cpp:141] Setting up pool1/3x3_s2
I0403 15:07:12.959697 14125 net.cpp:148] Top shape: 24 64 56 56 (4816896)
I0403 15:07:12.959712 14125 net.cpp:156] Memory required for data: 187860000
I0403 15:07:12.959728 14125 layer_factory.hpp:77] Creating layer pool1/norm1
I0403 15:07:12.959753 14125 net.cpp:91] Creating Layer pool1/norm1
I0403 15:07:12.959771 14125 net.cpp:425] pool1/norm1 <- pool1/3x3_s2
I0403 15:07:12.959789 14125 net.cpp:399] pool1/norm1 -> pool1/norm1
I0403 15:07:12.960091 14125 net.cpp:141] Setting up pool1/norm1
I0403 15:07:12.960119 14125 net.cpp:148] Top shape: 24 64 56 56 (4816896)
I0403 15:07:12.960136 14125 net.cpp:156] Memory required for data: 207127584
I0403 15:07:12.960151 14125 layer_factory.hpp:77] Creating layer conv2/3x3_reduce
I0403 15:07:12.960176 14125 net.cpp:91] Creating Layer conv2/3x3_reduce
I0403 15:07:12.960193 14125 net.cpp:425] conv2/3x3_reduce <- pool1/norm1
I0403 15:07:12.960213 14125 net.cpp:399] conv2/3x3_reduce -> conv2/3x3_reduce
I0403 15:07:12.961601 14125 net.cpp:141] Setting up conv2/3x3_reduce
I0403 15:07:12.961632 14125 net.cpp:148] Top shape: 24 64 56 56 (4816896)
I0403 15:07:12.961649 14125 net.cpp:156] Memory required for data: 226395168
I0403 15:07:12.961671 14125 layer_factory.hpp:77] Creating layer conv2/relu_3x3_reduce
I0403 15:07:12.961691 14125 net.cpp:91] Creating Layer conv2/relu_3x3_reduce
I0403 15:07:12.961707 14125 net.cpp:425] conv2/relu_3x3_reduce <- conv2/3x3_reduce
I0403 15:07:12.961725 14125 net.cpp:386] conv2/relu_3x3_reduce -> conv2/3x3_reduce (in-place)
I0403 15:07:12.961987 14125 net.cpp:141] Setting up conv2/relu_3x3_reduce
I0403 15:07:12.962018 14125 net.cpp:148] Top shape: 24 64 56 56 (4816896)
I0403 15:07:12.962034 14125 net.cpp:156] Memory required for data: 245662752
I0403 15:07:12.962050 14125 layer_factory.hpp:77] Creating layer conv2/3x3
I0403 15:07:12.962074 14125 net.cpp:91] Creating Layer conv2/3x3
I0403 15:07:12.962091 14125 net.cpp:425] conv2/3x3 <- conv2/3x3_reduce
I0403 15:07:12.962111 14125 net.cpp:399] conv2/3x3 -> conv2/3x3
I0403 15:07:12.964488 14125 net.cpp:141] Setting up conv2/3x3
I0403 15:07:12.964537 14125 net.cpp:148] Top shape: 24 192 56 56 (14450688)
I0403 15:07:12.964558 14125 net.cpp:156] Memory required for data: 303465504
I0403 15:07:12.964581 14125 layer_factory.hpp:77] Creating layer conv2/relu_3x3
I0403 15:07:12.964601 14125 net.cpp:91] Creating Layer conv2/relu_3x3
I0403 15:07:12.964617 14125 net.cpp:425] conv2/relu_3x3 <- conv2/3x3
I0403 15:07:12.964635 14125 net.cpp:386] conv2/relu_3x3 -> conv2/3x3 (in-place)
I0403 15:07:12.964803 14125 net.cpp:141] Setting up conv2/relu_3x3
I0403 15:07:12.964829 14125 net.cpp:148] Top shape: 24 192 56 56 (14450688)
I0403 15:07:12.964879 14125 net.cpp:156] Memory required for data: 361268256
I0403 15:07:12.964896 14125 layer_factory.hpp:77] Creating layer conv2/norm2
I0403 15:07:12.964915 14125 net.cpp:91] Creating Layer conv2/norm2
I0403 15:07:12.964932 14125 net.cpp:425] conv2/norm2 <- conv2/3x3
I0403 15:07:12.964949 14125 net.cpp:399] conv2/norm2 -> conv2/norm2
I0403 15:07:12.965250 14125 net.cpp:141] Setting up conv2/norm2
I0403 15:07:12.965278 14125 net.cpp:148] Top shape: 24 192 56 56 (14450688)
I0403 15:07:12.965294 14125 net.cpp:156] Memory required for data: 419071008
I0403 15:07:12.965309 14125 layer_factory.hpp:77] Creating layer pool2/3x3_s2
I0403 15:07:12.965328 14125 net.cpp:91] Creating Layer pool2/3x3_s2
I0403 15:07:12.965345 14125 net.cpp:425] pool2/3x3_s2 <- conv2/norm2
I0403 15:07:12.965363 14125 net.cpp:399] pool2/3x3_s2 -> pool2/3x3_s2
I0403 15:07:12.965415 14125 net.cpp:141] Setting up pool2/3x3_s2
I0403 15:07:12.965440 14125 net.cpp:148] Top shape: 24 192 28 28 (3612672)
I0403 15:07:12.965456 14125 net.cpp:156] Memory required for data: 433521696
I0403 15:07:12.965471 14125 layer_factory.hpp:77] Creating layer pool2/3x3_s2_pool2/3x3_s2_0_split
I0403 15:07:12.965487 14125 net.cpp:91] Creating Layer pool2/3x3_s2_pool2/3x3_s2_0_split
I0403 15:07:12.965503 14125 net.cpp:425] pool2/3x3_s2_pool2/3x3_s2_0_split <- pool2/3x3_s2
I0403 15:07:12.965528 14125 net.cpp:399] pool2/3x3_s2_pool2/3x3_s2_0_split -> pool2/3x3_s2_pool2/3x3_s2_0_split_0
I0403 15:07:12.965548 14125 net.cpp:399] pool2/3x3_s2_pool2/3x3_s2_0_split -> pool2/3x3_s2_pool2/3x3_s2_0_split_1
I0403 15:07:12.965569 14125 net.cpp:399] pool2/3x3_s2_pool2/3x3_s2_0_split -> pool2/3x3_s2_pool2/3x3_s2_0_split_2
I0403 15:07:12.965589 14125 net.cpp:399] pool2/3x3_s2_pool2/3x3_s2_0_split -> pool2/3x3_s2_pool2/3x3_s2_0_split_3
I0403 15:07:12.965656 14125 net.cpp:141] Setting up pool2/3x3_s2_pool2/3x3_s2_0_split
I0403 15:07:12.965679 14125 net.cpp:148] Top shape: 24 192 28 28 (3612672)
I0403 15:07:12.965697 14125 net.cpp:148] Top shape: 24 192 28 28 (3612672)
I0403 15:07:12.965713 14125 net.cpp:148] Top shape: 24 192 28 28 (3612672)
I0403 15:07:12.965728 14125 net.cpp:148] Top shape: 24 192 28 28 (3612672)
I0403 15:07:12.965742 14125 net.cpp:156] Memory required for data: 491324448
I0403 15:07:12.965757 14125 layer_factory.hpp:77] Creating layer inception_3a/1x1
I0403 15:07:12.965778 14125 net.cpp:91] Creating Layer inception_3a/1x1
I0403 15:07:12.965796 14125 net.cpp:425] inception_3a/1x1 <- pool2/3x3_s2_pool2/3x3_s2_0_split_0
I0403 15:07:12.965814 14125 net.cpp:399] inception_3a/1x1 -> inception_3a/1x1
I0403 15:07:12.967437 14125 net.cpp:141] Setting up inception_3a/1x1
I0403 15:07:12.967469 14125 net.cpp:148] Top shape: 24 64 28 28 (1204224)
I0403 15:07:12.967486 14125 net.cpp:156] Memory required for data: 496141344
I0403 15:07:12.967509 14125 layer_factory.hpp:77] Creating layer inception_3a/relu_1x1
I0403 15:07:12.967533 14125 net.cpp:91] Creating Layer inception_3a/relu_1x1
I0403 15:07:12.967551 14125 net.cpp:425] inception_3a/relu_1x1 <- inception_3a/1x1
I0403 15:07:12.967569 14125 net.cpp:386] inception_3a/relu_1x1 -> inception_3a/1x1 (in-place)
I0403 15:07:12.967756 14125 net.cpp:141] Setting up inception_3a/relu_1x1
I0403 15:07:12.967782 14125 net.cpp:148] Top shape: 24 64 28 28 (1204224)
I0403 15:07:12.967797 14125 net.cpp:156] Memory required for data: 500958240
I0403 15:07:12.967813 14125 layer_factory.hpp:77] Creating layer inception_3a/3x3_reduce
I0403 15:07:12.967835 14125 net.cpp:91] Creating Layer inception_3a/3x3_reduce
I0403 15:07:12.967854 14125 net.cpp:425] inception_3a/3x3_reduce <- pool2/3x3_s2_pool2/3x3_s2_0_split_1
I0403 15:07:12.967880 14125 net.cpp:399] inception_3a/3x3_reduce -> inception_3a/3x3_reduce
I0403 15:07:12.969704 14125 net.cpp:141] Setting up inception_3a/3x3_reduce
I0403 15:07:12.969740 14125 net.cpp:148] Top shape: 24 96 28 28 (1806336)
I0403 15:07:12.969759 14125 net.cpp:156] Memory required for data: 508183584
I0403 15:07:12.969784 14125 layer_factory.hpp:77] Creating layer inception_3a/relu_3x3_reduce
I0403 15:07:12.969826 14125 net.cpp:91] Creating Layer inception_3a/relu_3x3_reduce
I0403 15:07:12.969846 14125 net.cpp:425] inception_3a/relu_3x3_reduce <- inception_3a/3x3_reduce
I0403 15:07:12.969866 14125 net.cpp:386] inception_3a/relu_3x3_reduce -> inception_3a/3x3_reduce (in-place)
I0403 15:07:12.970060 14125 net.cpp:141] Setting up inception_3a/relu_3x3_reduce
I0403 15:07:12.970087 14125 net.cpp:148] Top shape: 24 96 28 28 (1806336)
I0403 15:07:12.970103 14125 net.cpp:156] Memory required for data: 515408928
I0403 15:07:12.970116 14125 layer_factory.hpp:77] Creating layer inception_3a/3x3
I0403 15:07:12.970139 14125 net.cpp:91] Creating Layer inception_3a/3x3
I0403 15:07:12.970157 14125 net.cpp:425] inception_3a/3x3 <- inception_3a/3x3_reduce
I0403 15:07:12.970180 14125 net.cpp:399] inception_3a/3x3 -> inception_3a/3x3
I0403 15:07:12.971942 14125 net.cpp:141] Setting up inception_3a/3x3
I0403 15:07:12.971974 14125 net.cpp:148] Top shape: 24 128 28 28 (2408448)
I0403 15:07:12.971992 14125 net.cpp:156] Memory required for data: 525042720
I0403 15:07:12.972010 14125 layer_factory.hpp:77] Creating layer inception_3a/relu_3x3
I0403 15:07:12.972029 14125 net.cpp:91] Creating Layer inception_3a/relu_3x3
I0403 15:07:12.972044 14125 net.cpp:425] inception_3a/relu_3x3 <- inception_3a/3x3
I0403 15:07:12.972064 14125 net.cpp:386] inception_3a/relu_3x3 -> inception_3a/3x3 (in-place)
I0403 15:07:12.972354 14125 net.cpp:141] Setting up inception_3a/relu_3x3
I0403 15:07:12.972384 14125 net.cpp:148] Top shape: 24 128 28 28 (2408448)
I0403 15:07:12.972401 14125 net.cpp:156] Memory required for data: 534676512
I0403 15:07:12.972416 14125 layer_factory.hpp:77] Creating layer inception_3a/5x5_reduce
I0403 15:07:12.972440 14125 net.cpp:91] Creating Layer inception_3a/5x5_reduce
I0403 15:07:12.972457 14125 net.cpp:425] inception_3a/5x5_reduce <- pool2/3x3_s2_pool2/3x3_s2_0_split_2
I0403 15:07:12.972477 14125 net.cpp:399] inception_3a/5x5_reduce -> inception_3a/5x5_reduce
I0403 15:07:12.973529 14125 net.cpp:141] Setting up inception_3a/5x5_reduce
I0403 15:07:12.973561 14125 net.cpp:148] Top shape: 24 16 28 28 (301056)
I0403 15:07:12.973577 14125 net.cpp:156] Memory required for data: 535880736
I0403 15:07:12.973597 14125 layer_factory.hpp:77] Creating layer inception_3a/relu_5x5_reduce
I0403 15:07:12.973615 14125 net.cpp:91] Creating Layer inception_3a/relu_5x5_reduce
I0403 15:07:12.973633 14125 net.cpp:425] inception_3a/relu_5x5_reduce <- inception_3a/5x5_reduce
I0403 15:07:12.973654 14125 net.cpp:386] inception_3a/relu_5x5_reduce -> inception_3a/5x5_reduce (in-place)
I0403 15:07:12.973975 14125 net.cpp:141] Setting up inception_3a/relu_5x5_reduce
I0403 15:07:12.974004 14125 net.cpp:148] Top shape: 24 16 28 28 (301056)
I0403 15:07:12.974020 14125 net.cpp:156] Memory required for data: 537084960
I0403 15:07:12.974033 14125 layer_factory.hpp:77] Creating layer inception_3a/5x5
I0403 15:07:12.974056 14125 net.cpp:91] Creating Layer inception_3a/5x5
I0403 15:07:12.974074 14125 net.cpp:425] inception_3a/5x5 <- inception_3a/5x5_reduce
I0403 15:07:12.974097 14125 net.cpp:399] inception_3a/5x5 -> inception_3a/5x5
I0403 15:07:12.975199 14125 net.cpp:141] Setting up inception_3a/5x5
I0403 15:07:12.975232 14125 net.cpp:148] Top shape: 24 32 28 28 (602112)
I0403 15:07:12.975250 14125 net.cpp:156] Memory required for data: 539493408
I0403 15:07:12.975270 14125 layer_factory.hpp:77] Creating layer inception_3a/relu_5x5
I0403 15:07:12.975289 14125 net.cpp:91] Creating Layer inception_3a/relu_5x5
I0403 15:07:12.975306 14125 net.cpp:425] inception_3a/relu_5x5 <- inception_3a/5x5
I0403 15:07:12.975325 14125 net.cpp:386] inception_3a/relu_5x5 -> inception_3a/5x5 (in-place)
I0403 15:07:12.975515 14125 net.cpp:141] Setting up inception_3a/relu_5x5
I0403 15:07:12.975543 14125 net.cpp:148] Top shape: 24 32 28 28 (602112)
I0403 15:07:12.975558 14125 net.cpp:156] Memory required for data: 541901856
I0403 15:07:12.975572 14125 layer_factory.hpp:77] Creating layer inception_3a/pool
I0403 15:07:12.975591 14125 net.cpp:91] Creating Layer inception_3a/pool
I0403 15:07:12.975608 14125 net.cpp:425] inception_3a/pool <- pool2/3x3_s2_pool2/3x3_s2_0_split_3
I0403 15:07:12.975644 14125 net.cpp:399] inception_3a/pool -> inception_3a/pool
I0403 15:07:12.975708 14125 net.cpp:141] Setting up inception_3a/pool
I0403 15:07:12.975733 14125 net.cpp:148] Top shape: 24 192 28 28 (3612672)
I0403 15:07:12.975747 14125 net.cpp:156] Memory required for data: 556352544
I0403 15:07:12.975762 14125 layer_factory.hpp:77] Creating layer inception_3a/pool_proj
I0403 15:07:12.975787 14125 net.cpp:91] Creating Layer inception_3a/pool_proj
I0403 15:07:12.975805 14125 net.cpp:425] inception_3a/pool_proj <- inception_3a/pool
I0403 15:07:12.975824 14125 net.cpp:399] inception_3a/pool_proj -> inception_3a/pool_proj
I0403 15:07:12.976850 14125 net.cpp:141] Setting up inception_3a/pool_proj
I0403 15:07:12.976879 14125 net.cpp:148] Top shape: 24 32 28 28 (602112)
I0403 15:07:12.976896 14125 net.cpp:156] Memory required for data: 558760992
I0403 15:07:12.976920 14125 layer_factory.hpp:77] Creating layer inception_3a/relu_pool_proj
I0403 15:07:12.976941 14125 net.cpp:91] Creating Layer inception_3a/relu_pool_proj
I0403 15:07:12.976958 14125 net.cpp:425] inception_3a/relu_pool_proj <- inception_3a/pool_proj
I0403 15:07:12.976977 14125 net.cpp:386] inception_3a/relu_pool_proj -> inception_3a/pool_proj (in-place)
I0403 15:07:12.977264 14125 net.cpp:141] Setting up inception_3a/relu_pool_proj
I0403 15:07:12.977294 14125 net.cpp:148] Top shape: 24 32 28 28 (602112)
I0403 15:07:12.977311 14125 net.cpp:156] Memory required for data: 561169440
I0403 15:07:12.977326 14125 layer_factory.hpp:77] Creating layer inception_3a/output
I0403 15:07:12.977344 14125 net.cpp:91] Creating Layer inception_3a/output
I0403 15:07:12.977361 14125 net.cpp:425] inception_3a/output <- inception_3a/1x1
I0403 15:07:12.977377 14125 net.cpp:425] inception_3a/output <- inception_3a/3x3
I0403 15:07:12.977394 14125 net.cpp:425] inception_3a/output <- inception_3a/5x5
I0403 15:07:12.977411 14125 net.cpp:425] inception_3a/output <- inception_3a/pool_proj
I0403 15:07:12.977432 14125 net.cpp:399] inception_3a/output -> inception_3a/output
I0403 15:07:12.977479 14125 net.cpp:141] Setting up inception_3a/output
I0403 15:07:12.977509 14125 net.cpp:148] Top shape: 24 256 28 28 (4816896)
I0403 15:07:12.977526 14125 net.cpp:156] Memory required for data: 580437024
I0403 15:07:12.977541 14125 layer_factory.hpp:77] Creating layer inception_3a/output_inception_3a/output_0_split
I0403 15:07:12.977562 14125 net.cpp:91] Creating Layer inception_3a/output_inception_3a/output_0_split
I0403 15:07:12.977579 14125 net.cpp:425] inception_3a/output_inception_3a/output_0_split <- inception_3a/output
I0403 15:07:12.977597 14125 net.cpp:399] inception_3a/output_inception_3a/output_0_split -> inception_3a/output_inception_3a/output_0_split_0
I0403 15:07:12.977618 14125 net.cpp:399] inception_3a/output_inception_3a/output_0_split -> inception_3a/output_inception_3a/output_0_split_1
I0403 15:07:12.977645 14125 net.cpp:399] inception_3a/output_inception_3a/output_0_split -> inception_3a/output_inception_3a/output_0_split_2
I0403 15:07:12.977668 14125 net.cpp:399] inception_3a/output_inception_3a/output_0_split -> inception_3a/output_inception_3a/output_0_split_3
I0403 15:07:12.977746 14125 net.cpp:141] Setting up inception_3a/output_inception_3a/output_0_split
I0403 15:07:12.977772 14125 net.cpp:148] Top shape: 24 256 28 28 (4816896)
I0403 15:07:12.977792 14125 net.cpp:148] Top shape: 24 256 28 28 (4816896)
I0403 15:07:12.977807 14125 net.cpp:148] Top shape: 24 256 28 28 (4816896)
I0403 15:07:12.977823 14125 net.cpp:148] Top shape: 24 256 28 28 (4816896)
I0403 15:07:12.977838 14125 net.cpp:156] Memory required for data: 657507360
I0403 15:07:12.977851 14125 layer_factory.hpp:77] Creating layer inception_3b/1x1
I0403 15:07:12.977875 14125 net.cpp:91] Creating Layer inception_3b/1x1
I0403 15:07:12.977892 14125 net.cpp:425] inception_3b/1x1 <- inception_3a/output_inception_3a/output_0_split_0
I0403 15:07:12.977912 14125 net.cpp:399] inception_3b/1x1 -> inception_3b/1x1
I0403 15:07:12.979110 14125 net.cpp:141] Setting up inception_3b/1x1
I0403 15:07:12.979152 14125 net.cpp:148] Top shape: 24 128 28 28 (2408448)
I0403 15:07:12.979176 14125 net.cpp:156] Memory required for data: 667141152
I0403 15:07:12.979195 14125 layer_factory.hpp:77] Creating layer inception_3b/relu_1x1
I0403 15:07:12.979214 14125 net.cpp:91] Creating Layer inception_3b/relu_1x1
I0403 15:07:12.979230 14125 net.cpp:425] inception_3b/relu_1x1 <- inception_3b/1x1
I0403 15:07:12.979248 14125 net.cpp:386] inception_3b/relu_1x1 -> inception_3b/1x1 (in-place)
I0403 15:07:12.979434 14125 net.cpp:141] Setting up inception_3b/relu_1x1
I0403 15:07:12.979462 14125 net.cpp:148] Top shape: 24 128 28 28 (2408448)
I0403 15:07:12.979478 14125 net.cpp:156] Memory required for data: 676774944
I0403 15:07:12.979493 14125 layer_factory.hpp:77] Creating layer inception_3b/3x3_reduce
I0403 15:07:12.979521 14125 net.cpp:91] Creating Layer inception_3b/3x3_reduce
I0403 15:07:12.979542 14125 net.cpp:425] inception_3b/3x3_reduce <- inception_3a/output_inception_3a/output_0_split_1
I0403 15:07:12.979560 14125 net.cpp:399] inception_3b/3x3_reduce -> inception_3b/3x3_reduce
I0403 15:07:12.980763 14125 net.cpp:141] Setting up inception_3b/3x3_reduce
I0403 15:07:12.980792 14125 net.cpp:148] Top shape: 24 128 28 28 (2408448)
I0403 15:07:12.980808 14125 net.cpp:156] Memory required for data: 686408736
I0403 15:07:12.980828 14125 layer_factory.hpp:77] Creating layer inception_3b/relu_3x3_reduce
I0403 15:07:12.980849 14125 net.cpp:91] Creating Layer inception_3b/relu_3x3_reduce
I0403 15:07:12.980866 14125 net.cpp:425] inception_3b/relu_3x3_reduce <- inception_3b/3x3_reduce
I0403 15:07:12.980883 14125 net.cpp:386] inception_3b/relu_3x3_reduce -> inception_3b/3x3_reduce (in-place)
I0403 15:07:12.981066 14125 net.cpp:141] Setting up inception_3b/relu_3x3_reduce
I0403 15:07:12.981092 14125 net.cpp:148] Top shape: 24 128 28 28 (2408448)
I0403 15:07:12.981108 14125 net.cpp:156] Memory required for data: 696042528
I0403 15:07:12.981123 14125 layer_factory.hpp:77] Creating layer inception_3b/3x3
I0403 15:07:12.981149 14125 net.cpp:91] Creating Layer inception_3b/3x3
I0403 15:07:12.981168 14125 net.cpp:425] inception_3b/3x3 <- inception_3b/3x3_reduce
I0403 15:07:12.981190 14125 net.cpp:399] inception_3b/3x3 -> inception_3b/3x3
I0403 15:07:12.984295 14125 net.cpp:141] Setting up inception_3b/3x3
I0403 15:07:12.984328 14125 net.cpp:148] Top shape: 24 192 28 28 (3612672)
I0403 15:07:12.984345 14125 net.cpp:156] Memory required for data: 710493216
I0403 15:07:12.984364 14125 layer_factory.hpp:77] Creating layer inception_3b/relu_3x3
I0403 15:07:12.984383 14125 net.cpp:91] Creating Layer inception_3b/relu_3x3
I0403 15:07:12.984400 14125 net.cpp:425] inception_3b/relu_3x3 <- inception_3b/3x3
I0403 15:07:12.984421 14125 net.cpp:386] inception_3b/relu_3x3 -> inception_3b/3x3 (in-place)
I0403 15:07:12.984721 14125 net.cpp:141] Setting up inception_3b/relu_3x3
I0403 15:07:12.984751 14125 net.cpp:148] Top shape: 24 192 28 28 (3612672)
I0403 15:07:12.984768 14125 net.cpp:156] Memory required for data: 724943904
I0403 15:07:12.984784 14125 layer_factory.hpp:77] Creating layer inception_3b/5x5_reduce
I0403 15:07:12.984807 14125 net.cpp:91] Creating Layer inception_3b/5x5_reduce
I0403 15:07:12.984827 14125 net.cpp:425] inception_3b/5x5_reduce <- inception_3a/output_inception_3a/output_0_split_2
I0403 15:07:12.984846 14125 net.cpp:399] inception_3b/5x5_reduce -> inception_3b/5x5_reduce
I0403 15:07:12.985898 14125 net.cpp:141] Setting up inception_3b/5x5_reduce
I0403 15:07:12.985929 14125 net.cpp:148] Top shape: 24 32 28 28 (602112)
I0403 15:07:12.985945 14125 net.cpp:156] Memory required for data: 727352352
I0403 15:07:12.985965 14125 layer_factory.hpp:77] Creating layer inception_3b/relu_5x5_reduce
I0403 15:07:12.985983 14125 net.cpp:91] Creating Layer inception_3b/relu_5x5_reduce
I0403 15:07:12.986001 14125 net.cpp:425] inception_3b/relu_5x5_reduce <- inception_3b/5x5_reduce
I0403 15:07:12.986021 14125 net.cpp:386] inception_3b/relu_5x5_reduce -> inception_3b/5x5_reduce (in-place)
I0403 15:07:12.986204 14125 net.cpp:141] Setting up inception_3b/relu_5x5_reduce
I0403 15:07:12.986243 14125 net.cpp:148] Top shape: 24 32 28 28 (602112)
I0403 15:07:12.986261 14125 net.cpp:156] Memory required for data: 729760800
I0403 15:07:12.986276 14125 layer_factory.hpp:77] Creating layer inception_3b/5x5
I0403 15:07:12.986300 14125 net.cpp:91] Creating Layer inception_3b/5x5
I0403 15:07:12.986318 14125 net.cpp:425] inception_3b/5x5 <- inception_3b/5x5_reduce
I0403 15:07:12.986345 14125 net.cpp:399] inception_3b/5x5 -> inception_3b/5x5
I0403 15:07:12.988446 14125 net.cpp:141] Setting up inception_3b/5x5
I0403 15:07:12.988477 14125 net.cpp:148] Top shape: 24 96 28 28 (1806336)
I0403 15:07:12.988494 14125 net.cpp:156] Memory required for data: 736986144
I0403 15:07:12.988517 14125 layer_factory.hpp:77] Creating layer inception_3b/relu_5x5
I0403 15:07:12.988540 14125 net.cpp:91] Creating Layer inception_3b/relu_5x5
I0403 15:07:12.988557 14125 net.cpp:425] inception_3b/relu_5x5 <- inception_3b/5x5
I0403 15:07:12.988575 14125 net.cpp:386] inception_3b/relu_5x5 -> inception_3b/5x5 (in-place)
I0403 15:07:12.988777 14125 net.cpp:141] Setting up inception_3b/relu_5x5
I0403 15:07:12.988804 14125 net.cpp:148] Top shape: 24 96 28 28 (1806336)
I0403 15:07:12.988821 14125 net.cpp:156] Memory required for data: 744211488
I0403 15:07:12.988836 14125 layer_factory.hpp:77] Creating layer inception_3b/pool
I0403 15:07:12.988853 14125 net.cpp:91] Creating Layer inception_3b/pool
I0403 15:07:12.988870 14125 net.cpp:425] inception_3b/pool <- inception_3a/output_inception_3a/output_0_split_3
I0403 15:07:12.988888 14125 net.cpp:399] inception_3b/pool -> inception_3b/pool
I0403 15:07:12.988947 14125 net.cpp:141] Setting up inception_3b/pool
I0403 15:07:12.988971 14125 net.cpp:148] Top shape: 24 256 28 28 (4816896)
I0403 15:07:12.988986 14125 net.cpp:156] Memory required for data: 763479072
I0403 15:07:12.989001 14125 layer_factory.hpp:77] Creating layer inception_3b/pool_proj
I0403 15:07:12.989025 14125 net.cpp:91] Creating Layer inception_3b/pool_proj
I0403 15:07:12.989043 14125 net.cpp:425] inception_3b/pool_proj <- inception_3b/pool
I0403 15:07:12.989063 14125 net.cpp:399] inception_3b/pool_proj -> inception_3b/pool_proj
I0403 15:07:12.990175 14125 net.cpp:141] Setting up inception_3b/pool_proj
I0403 15:07:12.990203 14125 net.cpp:148] Top shape: 24 64 28 28 (1204224)
I0403 15:07:12.990221 14125 net.cpp:156] Memory required for data: 768295968
I0403 15:07:12.990239 14125 layer_factory.hpp:77] Creating layer inception_3b/relu_pool_proj
I0403 15:07:12.990260 14125 net.cpp:91] Creating Layer inception_3b/relu_pool_proj
I0403 15:07:12.990278 14125 net.cpp:425] inception_3b/relu_pool_proj <- inception_3b/pool_proj
I0403 15:07:12.990296 14125 net.cpp:386] inception_3b/relu_pool_proj -> inception_3b/pool_proj (in-place)
I0403 15:07:12.990716 14125 net.cpp:141] Setting up inception_3b/relu_pool_proj
I0403 15:07:12.990746 14125 net.cpp:148] Top shape: 24 64 28 28 (1204224)
I0403 15:07:12.990761 14125 net.cpp:156] Memory required for data: 773112864
I0403 15:07:12.990777 14125 layer_factory.hpp:77] Creating layer inception_3b/output
I0403 15:07:12.990793 14125 net.cpp:91] Creating Layer inception_3b/output
I0403 15:07:12.990809 14125 net.cpp:425] inception_3b/output <- inception_3b/1x1
I0403 15:07:12.990826 14125 net.cpp:425] inception_3b/output <- inception_3b/3x3
I0403 15:07:12.990842 14125 net.cpp:425] inception_3b/output <- inception_3b/5x5
I0403 15:07:12.990859 14125 net.cpp:425] inception_3b/output <- inception_3b/pool_proj
I0403 15:07:12.990878 14125 net.cpp:399] inception_3b/output -> inception_3b/output
I0403 15:07:12.990924 14125 net.cpp:141] Setting up inception_3b/output
I0403 15:07:12.990950 14125 net.cpp:148] Top shape: 24 480 28 28 (9031680)
I0403 15:07:12.990967 14125 net.cpp:156] Memory required for data: 809239584
I0403 15:07:12.990981 14125 layer_factory.hpp:77] Creating layer pool3/3x3_s2
I0403 15:07:12.990999 14125 net.cpp:91] Creating Layer pool3/3x3_s2
I0403 15:07:12.991015 14125 net.cpp:425] pool3/3x3_s2 <- inception_3b/output
I0403 15:07:12.991035 14125 net.cpp:399] pool3/3x3_s2 -> pool3/3x3_s2
I0403 15:07:12.991111 14125 net.cpp:141] Setting up pool3/3x3_s2
I0403 15:07:12.991137 14125 net.cpp:148] Top shape: 24 480 14 14 (2257920)
I0403 15:07:12.991152 14125 net.cpp:156] Memory required for data: 818271264
I0403 15:07:12.991166 14125 layer_factory.hpp:77] Creating layer pool3/3x3_s2_pool3/3x3_s2_0_split
I0403 15:07:12.991186 14125 net.cpp:91] Creating Layer pool3/3x3_s2_pool3/3x3_s2_0_split
I0403 15:07:12.991204 14125 net.cpp:425] pool3/3x3_s2_pool3/3x3_s2_0_split <- pool3/3x3_s2
I0403 15:07:12.991220 14125 net.cpp:399] pool3/3x3_s2_pool3/3x3_s2_0_split -> pool3/3x3_s2_pool3/3x3_s2_0_split_0
I0403 15:07:12.991240 14125 net.cpp:399] pool3/3x3_s2_pool3/3x3_s2_0_split -> pool3/3x3_s2_pool3/3x3_s2_0_split_1
I0403 15:07:12.991261 14125 net.cpp:399] pool3/3x3_s2_pool3/3x3_s2_0_split -> pool3/3x3_s2_pool3/3x3_s2_0_split_2
I0403 15:07:12.991281 14125 net.cpp:399] pool3/3x3_s2_pool3/3x3_s2_0_split -> pool3/3x3_s2_pool3/3x3_s2_0_split_3
I0403 15:07:12.991363 14125 net.cpp:141] Setting up pool3/3x3_s2_pool3/3x3_s2_0_split
I0403 15:07:12.991386 14125 net.cpp:148] Top shape: 24 480 14 14 (2257920)
I0403 15:07:12.991403 14125 net.cpp:148] Top shape: 24 480 14 14 (2257920)
I0403 15:07:12.991420 14125 net.cpp:148] Top shape: 24 480 14 14 (2257920)
I0403 15:07:12.991436 14125 net.cpp:148] Top shape: 24 480 14 14 (2257920)
I0403 15:07:12.991449 14125 net.cpp:156] Memory required for data: 854397984
I0403 15:07:12.991464 14125 layer_factory.hpp:77] Creating layer inception_4a/1x1
I0403 15:07:12.991487 14125 net.cpp:91] Creating Layer inception_4a/1x1
I0403 15:07:12.991509 14125 net.cpp:425] inception_4a/1x1 <- pool3/3x3_s2_pool3/3x3_s2_0_split_0
I0403 15:07:12.991533 14125 net.cpp:399] inception_4a/1x1 -> inception_4a/1x1
I0403 15:07:12.993188 14125 net.cpp:141] Setting up inception_4a/1x1
I0403 15:07:12.993218 14125 net.cpp:148] Top shape: 24 192 14 14 (903168)
I0403 15:07:12.993234 14125 net.cpp:156] Memory required for data: 858010656
I0403 15:07:12.993258 14125 layer_factory.hpp:77] Creating layer inception_4a/relu_1x1
I0403 15:07:12.993279 14125 net.cpp:91] Creating Layer inception_4a/relu_1x1
I0403 15:07:12.993297 14125 net.cpp:425] inception_4a/relu_1x1 <- inception_4a/1x1
I0403 15:07:12.993315 14125 net.cpp:386] inception_4a/relu_1x1 -> inception_4a/1x1 (in-place)
I0403 15:07:12.993499 14125 net.cpp:141] Setting up inception_4a/relu_1x1
I0403 15:07:12.993533 14125 net.cpp:148] Top shape: 24 192 14 14 (903168)
I0403 15:07:12.993551 14125 net.cpp:156] Memory required for data: 861623328
I0403 15:07:12.993566 14125 layer_factory.hpp:77] Creating layer inception_4a/3x3_reduce
I0403 15:07:12.993589 14125 net.cpp:91] Creating Layer inception_4a/3x3_reduce
I0403 15:07:12.993608 14125 net.cpp:425] inception_4a/3x3_reduce <- pool3/3x3_s2_pool3/3x3_s2_0_split_1
I0403 15:07:12.993628 14125 net.cpp:399] inception_4a/3x3_reduce -> inception_4a/3x3_reduce
I0403 15:07:12.995009 14125 net.cpp:141] Setting up inception_4a/3x3_reduce
I0403 15:07:12.995039 14125 net.cpp:148] Top shape: 24 96 14 14 (451584)
I0403 15:07:12.995056 14125 net.cpp:156] Memory required for data: 863429664
I0403 15:07:12.995082 14125 layer_factory.hpp:77] Creating layer inception_4a/relu_3x3_reduce
I0403 15:07:12.995105 14125 net.cpp:91] Creating Layer inception_4a/relu_3x3_reduce
I0403 15:07:12.995121 14125 net.cpp:425] inception_4a/relu_3x3_reduce <- inception_4a/3x3_reduce
I0403 15:07:12.995141 14125 net.cpp:386] inception_4a/relu_3x3_reduce -> inception_4a/3x3_reduce (in-place)
I0403 15:07:12.995338 14125 net.cpp:141] Setting up inception_4a/relu_3x3_reduce
I0403 15:07:12.995364 14125 net.cpp:148] Top shape: 24 96 14 14 (451584)
I0403 15:07:12.995380 14125 net.cpp:156] Memory required for data: 865236000
I0403 15:07:12.995394 14125 layer_factory.hpp:77] Creating layer inception_4a/3x3
I0403 15:07:12.995417 14125 net.cpp:91] Creating Layer inception_4a/3x3
I0403 15:07:12.995434 14125 net.cpp:425] inception_4a/3x3 <- inception_4a/3x3_reduce
I0403 15:07:12.995456 14125 net.cpp:399] inception_4a/3x3 -> inception_4a/3x3
I0403 15:07:12.998225 14125 net.cpp:141] Setting up inception_4a/3x3
I0403 15:07:12.998256 14125 net.cpp:148] Top shape: 24 208 14 14 (978432)
I0403 15:07:12.998272 14125 net.cpp:156] Memory required for data: 869149728
I0403 15:07:12.998291 14125 layer_factory.hpp:77] Creating layer inception_4a/relu_3x3
I0403 15:07:12.998311 14125 net.cpp:91] Creating Layer inception_4a/relu_3x3
I0403 15:07:12.998328 14125 net.cpp:425] inception_4a/relu_3x3 <- inception_4a/3x3
I0403 15:07:12.998345 14125 net.cpp:386] inception_4a/relu_3x3 -> inception_4a/3x3 (in-place)
I0403 15:07:12.998641 14125 net.cpp:141] Setting up inception_4a/relu_3x3
I0403 15:07:12.998668 14125 net.cpp:148] Top shape: 24 208 14 14 (978432)
I0403 15:07:12.998683 14125 net.cpp:156] Memory required for data: 873063456
I0403 15:07:12.998697 14125 layer_factory.hpp:77] Creating layer inception_4a/5x5_reduce
I0403 15:07:12.998723 14125 net.cpp:91] Creating Layer inception_4a/5x5_reduce
I0403 15:07:12.998740 14125 net.cpp:425] inception_4a/5x5_reduce <- pool3/3x3_s2_pool3/3x3_s2_0_split_2
I0403 15:07:12.998759 14125 net.cpp:399] inception_4a/5x5_reduce -> inception_4a/5x5_reduce
I0403 15:07:12.999816 14125 net.cpp:141] Setting up inception_4a/5x5_reduce
I0403 15:07:12.999846 14125 net.cpp:148] Top shape: 24 16 14 14 (75264)
I0403 15:07:12.999863 14125 net.cpp:156] Memory required for data: 873364512
I0403 15:07:12.999881 14125 layer_factory.hpp:77] Creating layer inception_4a/relu_5x5_reduce
I0403 15:07:12.999899 14125 net.cpp:91] Creating Layer inception_4a/relu_5x5_reduce
I0403 15:07:12.999915 14125 net.cpp:425] inception_4a/relu_5x5_reduce <- inception_4a/5x5_reduce
I0403 15:07:12.999935 14125 net.cpp:386] inception_4a/relu_5x5_reduce -> inception_4a/5x5_reduce (in-place)
I0403 15:07:13.000118 14125 net.cpp:141] Setting up inception_4a/relu_5x5_reduce
I0403 15:07:13.000144 14125 net.cpp:148] Top shape: 24 16 14 14 (75264)
I0403 15:07:13.000159 14125 net.cpp:156] Memory required for data: 873665568
I0403 15:07:13.000174 14125 layer_factory.hpp:77] Creating layer inception_4a/5x5
I0403 15:07:13.000197 14125 net.cpp:91] Creating Layer inception_4a/5x5
I0403 15:07:13.000214 14125 net.cpp:425] inception_4a/5x5 <- inception_4a/5x5_reduce
I0403 15:07:13.000236 14125 net.cpp:399] inception_4a/5x5 -> inception_4a/5x5
I0403 15:07:13.001354 14125 net.cpp:141] Setting up inception_4a/5x5
I0403 15:07:13.001382 14125 net.cpp:148] Top shape: 24 48 14 14 (225792)
I0403 15:07:13.001399 14125 net.cpp:156] Memory required for data: 874568736
I0403 15:07:13.001416 14125 layer_factory.hpp:77] Creating layer inception_4a/relu_5x5
I0403 15:07:13.001437 14125 net.cpp:91] Creating Layer inception_4a/relu_5x5
I0403 15:07:13.001453 14125 net.cpp:425] inception_4a/relu_5x5 <- inception_4a/5x5
I0403 15:07:13.001471 14125 net.cpp:386] inception_4a/relu_5x5 -> inception_4a/5x5 (in-place)
I0403 15:07:13.001662 14125 net.cpp:141] Setting up inception_4a/relu_5x5
I0403 15:07:13.001688 14125 net.cpp:148] Top shape: 24 48 14 14 (225792)
I0403 15:07:13.001703 14125 net.cpp:156] Memory required for data: 875471904
I0403 15:07:13.001716 14125 layer_factory.hpp:77] Creating layer inception_4a/pool
I0403 15:07:13.001736 14125 net.cpp:91] Creating Layer inception_4a/pool
I0403 15:07:13.001754 14125 net.cpp:425] inception_4a/pool <- pool3/3x3_s2_pool3/3x3_s2_0_split_3
I0403 15:07:13.001772 14125 net.cpp:399] inception_4a/pool -> inception_4a/pool
I0403 15:07:13.001837 14125 net.cpp:141] Setting up inception_4a/pool
I0403 15:07:13.001860 14125 net.cpp:148] Top shape: 24 480 14 14 (2257920)
I0403 15:07:13.001875 14125 net.cpp:156] Memory required for data: 884503584
I0403 15:07:13.001890 14125 layer_factory.hpp:77] Creating layer inception_4a/pool_proj
I0403 15:07:13.001912 14125 net.cpp:91] Creating Layer inception_4a/pool_proj
I0403 15:07:13.001929 14125 net.cpp:425] inception_4a/pool_proj <- inception_4a/pool
I0403 15:07:13.001950 14125 net.cpp:399] inception_4a/pool_proj -> inception_4a/pool_proj
I0403 15:07:13.003149 14125 net.cpp:141] Setting up inception_4a/pool_proj
I0403 15:07:13.003177 14125 net.cpp:148] Top shape: 24 64 14 14 (301056)
I0403 15:07:13.003208 14125 net.cpp:156] Memory required for data: 885707808
I0403 15:07:13.003227 14125 layer_factory.hpp:77] Creating layer inception_4a/relu_pool_proj
I0403 15:07:13.003249 14125 net.cpp:91] Creating Layer inception_4a/relu_pool_proj
I0403 15:07:13.003268 14125 net.cpp:425] inception_4a/relu_pool_proj <- inception_4a/pool_proj
I0403 15:07:13.003284 14125 net.cpp:386] inception_4a/relu_pool_proj -> inception_4a/pool_proj (in-place)
I0403 15:07:13.003577 14125 net.cpp:141] Setting up inception_4a/relu_pool_proj
I0403 15:07:13.003604 14125 net.cpp:148] Top shape: 24 64 14 14 (301056)
I0403 15:07:13.003619 14125 net.cpp:156] Memory required for data: 886912032
I0403 15:07:13.003634 14125 layer_factory.hpp:77] Creating layer inception_4a/output
I0403 15:07:13.003651 14125 net.cpp:91] Creating Layer inception_4a/output
I0403 15:07:13.003670 14125 net.cpp:425] inception_4a/output <- inception_4a/1x1
I0403 15:07:13.003687 14125 net.cpp:425] inception_4a/output <- inception_4a/3x3
I0403 15:07:13.003705 14125 net.cpp:425] inception_4a/output <- inception_4a/5x5
I0403 15:07:13.003720 14125 net.cpp:425] inception_4a/output <- inception_4a/pool_proj
I0403 15:07:13.003737 14125 net.cpp:399] inception_4a/output -> inception_4a/output
I0403 15:07:13.003782 14125 net.cpp:141] Setting up inception_4a/output
I0403 15:07:13.003808 14125 net.cpp:148] Top shape: 24 512 14 14 (2408448)
I0403 15:07:13.003823 14125 net.cpp:156] Memory required for data: 896545824
I0403 15:07:13.003837 14125 layer_factory.hpp:77] Creating layer inception_4a/output_inception_4a/output_0_split
I0403 15:07:13.003854 14125 net.cpp:91] Creating Layer inception_4a/output_inception_4a/output_0_split
I0403 15:07:13.003870 14125 net.cpp:425] inception_4a/output_inception_4a/output_0_split <- inception_4a/output
I0403 15:07:13.003890 14125 net.cpp:399] inception_4a/output_inception_4a/output_0_split -> inception_4a/output_inception_4a/output_0_split_0
I0403 15:07:13.003911 14125 net.cpp:399] inception_4a/output_inception_4a/output_0_split -> inception_4a/output_inception_4a/output_0_split_1
I0403 15:07:13.003932 14125 net.cpp:399] inception_4a/output_inception_4a/output_0_split -> inception_4a/output_inception_4a/output_0_split_2
I0403 15:07:13.003953 14125 net.cpp:399] inception_4a/output_inception_4a/output_0_split -> inception_4a/output_inception_4a/output_0_split_3
I0403 15:07:13.003973 14125 net.cpp:399] inception_4a/output_inception_4a/output_0_split -> inception_4a/output_inception_4a/output_0_split_4
I0403 15:07:13.004068 14125 net.cpp:141] Setting up inception_4a/output_inception_4a/output_0_split
I0403 15:07:13.004093 14125 net.cpp:148] Top shape: 24 512 14 14 (2408448)
I0403 15:07:13.004112 14125 net.cpp:148] Top shape: 24 512 14 14 (2408448)
I0403 15:07:13.004128 14125 net.cpp:148] Top shape: 24 512 14 14 (2408448)
I0403 15:07:13.004143 14125 net.cpp:148] Top shape: 24 512 14 14 (2408448)
I0403 15:07:13.004159 14125 net.cpp:148] Top shape: 24 512 14 14 (2408448)
I0403 15:07:13.004173 14125 net.cpp:156] Memory required for data: 944714784
I0403 15:07:13.004187 14125 layer_factory.hpp:77] Creating layer loss1/ave_pool
I0403 15:07:13.004204 14125 net.cpp:91] Creating Layer loss1/ave_pool
I0403 15:07:13.004220 14125 net.cpp:425] loss1/ave_pool <- inception_4a/output_inception_4a/output_0_split_0
I0403 15:07:13.004240 14125 net.cpp:399] loss1/ave_pool -> loss1/ave_pool
I0403 15:07:13.004459 14125 net.cpp:141] Setting up loss1/ave_pool
I0403 15:07:13.004487 14125 net.cpp:148] Top shape: 24 512 4 4 (196608)
I0403 15:07:13.004503 14125 net.cpp:156] Memory required for data: 945501216
I0403 15:07:13.004529 14125 layer_factory.hpp:77] Creating layer loss1/conv
I0403 15:07:13.004552 14125 net.cpp:91] Creating Layer loss1/conv
I0403 15:07:13.004571 14125 net.cpp:425] loss1/conv <- loss1/ave_pool
I0403 15:07:13.004592 14125 net.cpp:399] loss1/conv -> loss1/conv
I0403 15:07:13.006083 14125 net.cpp:141] Setting up loss1/conv
I0403 15:07:13.006111 14125 net.cpp:148] Top shape: 24 128 4 4 (49152)
I0403 15:07:13.006129 14125 net.cpp:156] Memory required for data: 945697824
I0403 15:07:13.006162 14125 layer_factory.hpp:77] Creating layer loss1/relu_conv
I0403 15:07:13.006186 14125 net.cpp:91] Creating Layer loss1/relu_conv
I0403 15:07:13.006202 14125 net.cpp:425] loss1/relu_conv <- loss1/conv
I0403 15:07:13.006220 14125 net.cpp:386] loss1/relu_conv -> loss1/conv (in-place)
I0403 15:07:13.006525 14125 net.cpp:141] Setting up loss1/relu_conv
I0403 15:07:13.006552 14125 net.cpp:148] Top shape: 24 128 4 4 (49152)
I0403 15:07:13.006568 14125 net.cpp:156] Memory required for data: 945894432
I0403 15:07:13.006583 14125 layer_factory.hpp:77] Creating layer loss1/fc
I0403 15:07:13.006610 14125 net.cpp:91] Creating Layer loss1/fc
I0403 15:07:13.006630 14125 net.cpp:425] loss1/fc <- loss1/conv
I0403 15:07:13.006651 14125 net.cpp:399] loss1/fc -> loss1/fc
I0403 15:07:13.025388 14125 net.cpp:141] Setting up loss1/fc
I0403 15:07:13.025420 14125 net.cpp:148] Top shape: 24 1024 (24576)
I0403 15:07:13.025436 14125 net.cpp:156] Memory required for data: 945992736
I0403 15:07:13.025455 14125 layer_factory.hpp:77] Creating layer loss1/relu_fc
I0403 15:07:13.025475 14125 net.cpp:91] Creating Layer loss1/relu_fc
I0403 15:07:13.025490 14125 net.cpp:425] loss1/relu_fc <- loss1/fc
I0403 15:07:13.025514 14125 net.cpp:386] loss1/relu_fc -> loss1/fc (in-place)
I0403 15:07:13.025715 14125 net.cpp:141] Setting up loss1/relu_fc
I0403 15:07:13.025746 14125 net.cpp:148] Top shape: 24 1024 (24576)
I0403 15:07:13.025763 14125 net.cpp:156] Memory required for data: 946091040
I0403 15:07:13.025776 14125 layer_factory.hpp:77] Creating layer loss1/drop_fc
I0403 15:07:13.025804 14125 net.cpp:91] Creating Layer loss1/drop_fc
I0403 15:07:13.025822 14125 net.cpp:425] loss1/drop_fc <- loss1/fc
I0403 15:07:13.025840 14125 net.cpp:386] loss1/drop_fc -> loss1/fc (in-place)
I0403 15:07:13.025895 14125 net.cpp:141] Setting up loss1/drop_fc
I0403 15:07:13.025919 14125 net.cpp:148] Top shape: 24 1024 (24576)
I0403 15:07:13.025934 14125 net.cpp:156] Memory required for data: 946189344
I0403 15:07:13.025950 14125 layer_factory.hpp:77] Creating layer loss1/classifier_plantvillage
I0403 15:07:13.025969 14125 net.cpp:91] Creating Layer loss1/classifier_plantvillage
I0403 15:07:13.025985 14125 net.cpp:425] loss1/classifier_plantvillage <- loss1/fc
I0403 15:07:13.026006 14125 net.cpp:399] loss1/classifier_plantvillage -> loss1/classifier_plantvillage
I0403 15:07:13.026955 14125 net.cpp:141] Setting up loss1/classifier_plantvillage
I0403 15:07:13.026983 14125 net.cpp:148] Top shape: 24 38 (912)
I0403 15:07:13.026999 14125 net.cpp:156] Memory required for data: 946192992
I0403 15:07:13.027017 14125 layer_factory.hpp:77] Creating layer loss1/classifier_plantvillage_loss1/classifier_plantvillage_0_split
I0403 15:07:13.027039 14125 net.cpp:91] Creating Layer loss1/classifier_plantvillage_loss1/classifier_plantvillage_0_split
I0403 15:07:13.027056 14125 net.cpp:425] loss1/classifier_plantvillage_loss1/classifier_plantvillage_0_split <- loss1/classifier_plantvillage
I0403 15:07:13.027075 14125 net.cpp:399] loss1/classifier_plantvillage_loss1/classifier_plantvillage_0_split -> loss1/classifier_plantvillage_loss1/classifier_plantvillage_0_split_0
I0403 15:07:13.027094 14125 net.cpp:399] loss1/classifier_plantvillage_loss1/classifier_plantvillage_0_split -> loss1/classifier_plantvillage_loss1/classifier_plantvillage_0_split_1
I0403 15:07:13.027115 14125 net.cpp:399] loss1/classifier_plantvillage_loss1/classifier_plantvillage_0_split -> loss1/classifier_plantvillage_loss1/classifier_plantvillage_0_split_2
I0403 15:07:13.027186 14125 net.cpp:141] Setting up loss1/classifier_plantvillage_loss1/classifier_plantvillage_0_split
I0403 15:07:13.027211 14125 net.cpp:148] Top shape: 24 38 (912)
I0403 15:07:13.027228 14125 net.cpp:148] Top shape: 24 38 (912)
I0403 15:07:13.027245 14125 net.cpp:148] Top shape: 24 38 (912)
I0403 15:07:13.027261 14125 net.cpp:156] Memory required for data: 946203936
I0403 15:07:13.027276 14125 layer_factory.hpp:77] Creating layer inception_4b/1x1
I0403 15:07:13.027298 14125 net.cpp:91] Creating Layer inception_4b/1x1
I0403 15:07:13.027338 14125 net.cpp:425] inception_4b/1x1 <- inception_4a/output_inception_4a/output_0_split_1
I0403 15:07:13.027359 14125 net.cpp:399] inception_4b/1x1 -> inception_4b/1x1
I0403 15:07:13.029083 14125 net.cpp:141] Setting up inception_4b/1x1
I0403 15:07:13.029114 14125 net.cpp:148] Top shape: 24 160 14 14 (752640)
I0403 15:07:13.029130 14125 net.cpp:156] Memory required for data: 949214496
I0403 15:07:13.029148 14125 layer_factory.hpp:77] Creating layer inception_4b/relu_1x1
I0403 15:07:13.029167 14125 net.cpp:91] Creating Layer inception_4b/relu_1x1
I0403 15:07:13.029182 14125 net.cpp:425] inception_4b/relu_1x1 <- inception_4b/1x1
I0403 15:07:13.029201 14125 net.cpp:386] inception_4b/relu_1x1 -> inception_4b/1x1 (in-place)
I0403 15:07:13.029386 14125 net.cpp:141] Setting up inception_4b/relu_1x1
I0403 15:07:13.029412 14125 net.cpp:148] Top shape: 24 160 14 14 (752640)
I0403 15:07:13.029428 14125 net.cpp:156] Memory required for data: 952225056
I0403 15:07:13.029443 14125 layer_factory.hpp:77] Creating layer inception_4b/3x3_reduce
I0403 15:07:13.029470 14125 net.cpp:91] Creating Layer inception_4b/3x3_reduce
I0403 15:07:13.029489 14125 net.cpp:425] inception_4b/3x3_reduce <- inception_4a/output_inception_4a/output_0_split_2
I0403 15:07:13.029515 14125 net.cpp:399] inception_4b/3x3_reduce -> inception_4b/3x3_reduce
I0403 15:07:13.030917 14125 net.cpp:141] Setting up inception_4b/3x3_reduce
I0403 15:07:13.030946 14125 net.cpp:148] Top shape: 24 112 14 14 (526848)
I0403 15:07:13.030962 14125 net.cpp:156] Memory required for data: 954332448
I0403 15:07:13.030980 14125 layer_factory.hpp:77] Creating layer inception_4b/relu_3x3_reduce
I0403 15:07:13.030998 14125 net.cpp:91] Creating Layer inception_4b/relu_3x3_reduce
I0403 15:07:13.031014 14125 net.cpp:425] inception_4b/relu_3x3_reduce <- inception_4b/3x3_reduce
I0403 15:07:13.031033 14125 net.cpp:386] inception_4b/relu_3x3_reduce -> inception_4b/3x3_reduce (in-place)
I0403 15:07:13.031325 14125 net.cpp:141] Setting up inception_4b/relu_3x3_reduce
I0403 15:07:13.031352 14125 net.cpp:148] Top shape: 24 112 14 14 (526848)
I0403 15:07:13.031368 14125 net.cpp:156] Memory required for data: 956439840
I0403 15:07:13.031383 14125 layer_factory.hpp:77] Creating layer inception_4b/3x3
I0403 15:07:13.031404 14125 net.cpp:91] Creating Layer inception_4b/3x3
I0403 15:07:13.031422 14125 net.cpp:425] inception_4b/3x3 <- inception_4b/3x3_reduce
I0403 15:07:13.031443 14125 net.cpp:399] inception_4b/3x3 -> inception_4b/3x3
I0403 15:07:13.034518 14125 net.cpp:141] Setting up inception_4b/3x3
I0403 15:07:13.034548 14125 net.cpp:148] Top shape: 24 224 14 14 (1053696)
I0403 15:07:13.034564 14125 net.cpp:156] Memory required for data: 960654624
I0403 15:07:13.034582 14125 layer_factory.hpp:77] Creating layer inception_4b/relu_3x3
I0403 15:07:13.034603 14125 net.cpp:91] Creating Layer inception_4b/relu_3x3
I0403 15:07:13.034622 14125 net.cpp:425] inception_4b/relu_3x3 <- inception_4b/3x3
I0403 15:07:13.034639 14125 net.cpp:386] inception_4b/relu_3x3 -> inception_4b/3x3 (in-place)
I0403 15:07:13.034827 14125 net.cpp:141] Setting up inception_4b/relu_3x3
I0403 15:07:13.034855 14125 net.cpp:148] Top shape: 24 224 14 14 (1053696)
I0403 15:07:13.034871 14125 net.cpp:156] Memory required for data: 964869408
I0403 15:07:13.034885 14125 layer_factory.hpp:77] Creating layer inception_4b/5x5_reduce
I0403 15:07:13.034909 14125 net.cpp:91] Creating Layer inception_4b/5x5_reduce
I0403 15:07:13.034926 14125 net.cpp:425] inception_4b/5x5_reduce <- inception_4a/output_inception_4a/output_0_split_3
I0403 15:07:13.034945 14125 net.cpp:399] inception_4b/5x5_reduce -> inception_4b/5x5_reduce
I0403 15:07:13.036074 14125 net.cpp:141] Setting up inception_4b/5x5_reduce
I0403 15:07:13.036106 14125 net.cpp:148] Top shape: 24 24 14 14 (112896)
I0403 15:07:13.036123 14125 net.cpp:156] Memory required for data: 965320992
I0403 15:07:13.036140 14125 layer_factory.hpp:77] Creating layer inception_4b/relu_5x5_reduce
I0403 15:07:13.036159 14125 net.cpp:91] Creating Layer inception_4b/relu_5x5_reduce
I0403 15:07:13.036191 14125 net.cpp:425] inception_4b/relu_5x5_reduce <- inception_4b/5x5_reduce
I0403 15:07:13.036211 14125 net.cpp:386] inception_4b/relu_5x5_reduce -> inception_4b/5x5_reduce (in-place)
I0403 15:07:13.036406 14125 net.cpp:141] Setting up inception_4b/relu_5x5_reduce
I0403 15:07:13.036432 14125 net.cpp:148] Top shape: 24 24 14 14 (112896)
I0403 15:07:13.036447 14125 net.cpp:156] Memory required for data: 965772576
I0403 15:07:13.036460 14125 layer_factory.hpp:77] Creating layer inception_4b/5x5
I0403 15:07:13.036484 14125 net.cpp:91] Creating Layer inception_4b/5x5
I0403 15:07:13.036500 14125 net.cpp:425] inception_4b/5x5 <- inception_4b/5x5_reduce
I0403 15:07:13.036526 14125 net.cpp:399] inception_4b/5x5 -> inception_4b/5x5
I0403 15:07:13.037796 14125 net.cpp:141] Setting up inception_4b/5x5
I0403 15:07:13.037827 14125 net.cpp:148] Top shape: 24 64 14 14 (301056)
I0403 15:07:13.037844 14125 net.cpp:156] Memory required for data: 966976800
I0403 15:07:13.037863 14125 layer_factory.hpp:77] Creating layer inception_4b/relu_5x5
I0403 15:07:13.037881 14125 net.cpp:91] Creating Layer inception_4b/relu_5x5
I0403 15:07:13.037899 14125 net.cpp:425] inception_4b/relu_5x5 <- inception_4b/5x5
I0403 15:07:13.037916 14125 net.cpp:386] inception_4b/relu_5x5 -> inception_4b/5x5 (in-place)
I0403 15:07:13.038213 14125 net.cpp:141] Setting up inception_4b/relu_5x5
I0403 15:07:13.038252 14125 net.cpp:148] Top shape: 24 64 14 14 (301056)
I0403 15:07:13.038269 14125 net.cpp:156] Memory required for data: 968181024
I0403 15:07:13.038283 14125 layer_factory.hpp:77] Creating layer inception_4b/pool
I0403 15:07:13.038302 14125 net.cpp:91] Creating Layer inception_4b/pool
I0403 15:07:13.038318 14125 net.cpp:425] inception_4b/pool <- inception_4a/output_inception_4a/output_0_split_4
I0403 15:07:13.038338 14125 net.cpp:399] inception_4b/pool -> inception_4b/pool
I0403 15:07:13.038403 14125 net.cpp:141] Setting up inception_4b/pool
I0403 15:07:13.038429 14125 net.cpp:148] Top shape: 24 512 14 14 (2408448)
I0403 15:07:13.038444 14125 net.cpp:156] Memory required for data: 977814816
I0403 15:07:13.038457 14125 layer_factory.hpp:77] Creating layer inception_4b/pool_proj
I0403 15:07:13.038480 14125 net.cpp:91] Creating Layer inception_4b/pool_proj
I0403 15:07:13.038499 14125 net.cpp:425] inception_4b/pool_proj <- inception_4b/pool
I0403 15:07:13.038525 14125 net.cpp:399] inception_4b/pool_proj -> inception_4b/pool_proj
I0403 15:07:13.039779 14125 net.cpp:141] Setting up inception_4b/pool_proj
I0403 15:07:13.039811 14125 net.cpp:148] Top shape: 24 64 14 14 (301056)
I0403 15:07:13.039827 14125 net.cpp:156] Memory required for data: 979019040
I0403 15:07:13.039845 14125 layer_factory.hpp:77] Creating layer inception_4b/relu_pool_proj
I0403 15:07:13.039865 14125 net.cpp:91] Creating Layer inception_4b/relu_pool_proj
I0403 15:07:13.039880 14125 net.cpp:425] inception_4b/relu_pool_proj <- inception_4b/pool_proj
I0403 15:07:13.039899 14125 net.cpp:386] inception_4b/relu_pool_proj -> inception_4b/pool_proj (in-place)
I0403 15:07:13.040088 14125 net.cpp:141] Setting up inception_4b/relu_pool_proj
I0403 15:07:13.040114 14125 net.cpp:148] Top shape: 24 64 14 14 (301056)
I0403 15:07:13.040128 14125 net.cpp:156] Memory required for data: 980223264
I0403 15:07:13.040143 14125 layer_factory.hpp:77] Creating layer inception_4b/output
I0403 15:07:13.040160 14125 net.cpp:91] Creating Layer inception_4b/output
I0403 15:07:13.040176 14125 net.cpp:425] inception_4b/output <- inception_4b/1x1
I0403 15:07:13.040192 14125 net.cpp:425] inception_4b/output <- inception_4b/3x3
I0403 15:07:13.040216 14125 net.cpp:425] inception_4b/output <- inception_4b/5x5
I0403 15:07:13.040232 14125 net.cpp:425] inception_4b/output <- inception_4b/pool_proj
I0403 15:07:13.040251 14125 net.cpp:399] inception_4b/output -> inception_4b/output
I0403 15:07:13.040298 14125 net.cpp:141] Setting up inception_4b/output
I0403 15:07:13.040324 14125 net.cpp:148] Top shape: 24 512 14 14 (2408448)
I0403 15:07:13.040340 14125 net.cpp:156] Memory required for data: 989857056
I0403 15:07:13.040370 14125 layer_factory.hpp:77] Creating layer inception_4b/output_inception_4b/output_0_split
I0403 15:07:13.040388 14125 net.cpp:91] Creating Layer inception_4b/output_inception_4b/output_0_split
I0403 15:07:13.040405 14125 net.cpp:425] inception_4b/output_inception_4b/output_0_split <- inception_4b/output
I0403 15:07:13.040421 14125 net.cpp:399] inception_4b/output_inception_4b/output_0_split -> inception_4b/output_inception_4b/output_0_split_0
I0403 15:07:13.040444 14125 net.cpp:399] inception_4b/output_inception_4b/output_0_split -> inception_4b/output_inception_4b/output_0_split_1
I0403 15:07:13.040467 14125 net.cpp:399] inception_4b/output_inception_4b/output_0_split -> inception_4b/output_inception_4b/output_0_split_2
I0403 15:07:13.040487 14125 net.cpp:399] inception_4b/output_inception_4b/output_0_split -> inception_4b/output_inception_4b/output_0_split_3
I0403 15:07:13.040577 14125 net.cpp:141] Setting up inception_4b/output_inception_4b/output_0_split
I0403 15:07:13.040602 14125 net.cpp:148] Top shape: 24 512 14 14 (2408448)
I0403 15:07:13.040618 14125 net.cpp:148] Top shape: 24 512 14 14 (2408448)
I0403 15:07:13.040634 14125 net.cpp:148] Top shape: 24 512 14 14 (2408448)
I0403 15:07:13.040649 14125 net.cpp:148] Top shape: 24 512 14 14 (2408448)
I0403 15:07:13.040663 14125 net.cpp:156] Memory required for data: 1028392224
I0403 15:07:13.040678 14125 layer_factory.hpp:77] Creating layer inception_4c/1x1
I0403 15:07:13.040701 14125 net.cpp:91] Creating Layer inception_4c/1x1
I0403 15:07:13.040719 14125 net.cpp:425] inception_4c/1x1 <- inception_4b/output_inception_4b/output_0_split_0
I0403 15:07:13.040738 14125 net.cpp:399] inception_4c/1x1 -> inception_4c/1x1
I0403 15:07:13.042232 14125 net.cpp:141] Setting up inception_4c/1x1
I0403 15:07:13.042260 14125 net.cpp:148] Top shape: 24 128 14 14 (602112)
I0403 15:07:13.042276 14125 net.cpp:156] Memory required for data: 1030800672
I0403 15:07:13.042294 14125 layer_factory.hpp:77] Creating layer inception_4c/relu_1x1
I0403 15:07:13.042315 14125 net.cpp:91] Creating Layer inception_4c/relu_1x1
I0403 15:07:13.042332 14125 net.cpp:425] inception_4c/relu_1x1 <- inception_4c/1x1
I0403 15:07:13.042349 14125 net.cpp:386] inception_4c/relu_1x1 -> inception_4c/1x1 (in-place)
I0403 15:07:13.042541 14125 net.cpp:141] Setting up inception_4c/relu_1x1
I0403 15:07:13.042567 14125 net.cpp:148] Top shape: 24 128 14 14 (602112)
I0403 15:07:13.042587 14125 net.cpp:156] Memory required for data: 1033209120
I0403 15:07:13.042601 14125 layer_factory.hpp:77] Creating layer inception_4c/3x3_reduce
I0403 15:07:13.042621 14125 net.cpp:91] Creating Layer inception_4c/3x3_reduce
I0403 15:07:13.042639 14125 net.cpp:425] inception_4c/3x3_reduce <- inception_4b/output_inception_4b/output_0_split_1
I0403 15:07:13.042659 14125 net.cpp:399] inception_4c/3x3_reduce -> inception_4c/3x3_reduce
I0403 15:07:13.044716 14125 net.cpp:141] Setting up inception_4c/3x3_reduce
I0403 15:07:13.044749 14125 net.cpp:148] Top shape: 24 128 14 14 (602112)
I0403 15:07:13.044764 14125 net.cpp:156] Memory required for data: 1035617568
I0403 15:07:13.044783 14125 layer_factory.hpp:77] Creating layer inception_4c/relu_3x3_reduce
I0403 15:07:13.044802 14125 net.cpp:91] Creating Layer inception_4c/relu_3x3_reduce
I0403 15:07:13.044818 14125 net.cpp:425] inception_4c/relu_3x3_reduce <- inception_4c/3x3_reduce
I0403 15:07:13.044836 14125 net.cpp:386] inception_4c/relu_3x3_reduce -> inception_4c/3x3_reduce (in-place)
I0403 15:07:13.045136 14125 net.cpp:141] Setting up inception_4c/relu_3x3_reduce
I0403 15:07:13.045166 14125 net.cpp:148] Top shape: 24 128 14 14 (602112)
I0403 15:07:13.045182 14125 net.cpp:156] Memory required for data: 1038026016
I0403 15:07:13.045197 14125 layer_factory.hpp:77] Creating layer inception_4c/3x3
I0403 15:07:13.045220 14125 net.cpp:91] Creating Layer inception_4c/3x3
I0403 15:07:13.045239 14125 net.cpp:425] inception_4c/3x3 <- inception_4c/3x3_reduce
I0403 15:07:13.045258 14125 net.cpp:399] inception_4c/3x3 -> inception_4c/3x3
I0403 15:07:13.049006 14125 net.cpp:141] Setting up inception_4c/3x3
I0403 15:07:13.049052 14125 net.cpp:148] Top shape: 24 256 14 14 (1204224)
I0403 15:07:13.049070 14125 net.cpp:156] Memory required for data: 1042842912
I0403 15:07:13.049103 14125 layer_factory.hpp:77] Creating layer inception_4c/relu_3x3
I0403 15:07:13.049124 14125 net.cpp:91] Creating Layer inception_4c/relu_3x3
I0403 15:07:13.049141 14125 net.cpp:425] inception_4c/relu_3x3 <- inception_4c/3x3
I0403 15:07:13.049160 14125 net.cpp:386] inception_4c/relu_3x3 -> inception_4c/3x3 (in-place)
I0403 15:07:13.049348 14125 net.cpp:141] Setting up inception_4c/relu_3x3
I0403 15:07:13.049376 14125 net.cpp:148] Top shape: 24 256 14 14 (1204224)
I0403 15:07:13.049391 14125 net.cpp:156] Memory required for data: 1047659808
I0403 15:07:13.049406 14125 layer_factory.hpp:77] Creating layer inception_4c/5x5_reduce
I0403 15:07:13.049432 14125 net.cpp:91] Creating Layer inception_4c/5x5_reduce
I0403 15:07:13.049450 14125 net.cpp:425] inception_4c/5x5_reduce <- inception_4b/output_inception_4b/output_0_split_2
I0403 15:07:13.049471 14125 net.cpp:399] inception_4c/5x5_reduce -> inception_4c/5x5_reduce
I0403 15:07:13.050611 14125 net.cpp:141] Setting up inception_4c/5x5_reduce
I0403 15:07:13.050642 14125 net.cpp:148] Top shape: 24 24 14 14 (112896)
I0403 15:07:13.050658 14125 net.cpp:156] Memory required for data: 1048111392
I0403 15:07:13.050676 14125 layer_factory.hpp:77] Creating layer inception_4c/relu_5x5_reduce
I0403 15:07:13.050694 14125 net.cpp:91] Creating Layer inception_4c/relu_5x5_reduce
I0403 15:07:13.050711 14125 net.cpp:425] inception_4c/relu_5x5_reduce <- inception_4c/5x5_reduce
I0403 15:07:13.050729 14125 net.cpp:386] inception_4c/relu_5x5_reduce -> inception_4c/5x5_reduce (in-place)
I0403 15:07:13.050921 14125 net.cpp:141] Setting up inception_4c/relu_5x5_reduce
I0403 15:07:13.050946 14125 net.cpp:148] Top shape: 24 24 14 14 (112896)
I0403 15:07:13.050961 14125 net.cpp:156] Memory required for data: 1048562976
I0403 15:07:13.050976 14125 layer_factory.hpp:77] Creating layer inception_4c/5x5
I0403 15:07:13.050998 14125 net.cpp:91] Creating Layer inception_4c/5x5
I0403 15:07:13.051017 14125 net.cpp:425] inception_4c/5x5 <- inception_4c/5x5_reduce
I0403 15:07:13.051038 14125 net.cpp:399] inception_4c/5x5 -> inception_4c/5x5
I0403 15:07:13.052332 14125 net.cpp:141] Setting up inception_4c/5x5
I0403 15:07:13.052361 14125 net.cpp:148] Top shape: 24 64 14 14 (301056)
I0403 15:07:13.052378 14125 net.cpp:156] Memory required for data: 1049767200
I0403 15:07:13.052397 14125 layer_factory.hpp:77] Creating layer inception_4c/relu_5x5
I0403 15:07:13.052415 14125 net.cpp:91] Creating Layer inception_4c/relu_5x5
I0403 15:07:13.052431 14125 net.cpp:425] inception_4c/relu_5x5 <- inception_4c/5x5
I0403 15:07:13.052451 14125 net.cpp:386] inception_4c/relu_5x5 -> inception_4c/5x5 (in-place)
I0403 15:07:13.052774 14125 net.cpp:141] Setting up inception_4c/relu_5x5
I0403 15:07:13.052801 14125 net.cpp:148] Top shape: 24 64 14 14 (301056)
I0403 15:07:13.052817 14125 net.cpp:156] Memory required for data: 1050971424
I0403 15:07:13.052832 14125 layer_factory.hpp:77] Creating layer inception_4c/pool
I0403 15:07:13.052850 14125 net.cpp:91] Creating Layer inception_4c/pool
I0403 15:07:13.052867 14125 net.cpp:425] inception_4c/pool <- inception_4b/output_inception_4b/output_0_split_3
I0403 15:07:13.052887 14125 net.cpp:399] inception_4c/pool -> inception_4c/pool
I0403 15:07:13.052955 14125 net.cpp:141] Setting up inception_4c/pool
I0403 15:07:13.052980 14125 net.cpp:148] Top shape: 24 512 14 14 (2408448)
I0403 15:07:13.052994 14125 net.cpp:156] Memory required for data: 1060605216
I0403 15:07:13.053009 14125 layer_factory.hpp:77] Creating layer inception_4c/pool_proj
I0403 15:07:13.053037 14125 net.cpp:91] Creating Layer inception_4c/pool_proj
I0403 15:07:13.053056 14125 net.cpp:425] inception_4c/pool_proj <- inception_4c/pool
I0403 15:07:13.053073 14125 net.cpp:399] inception_4c/pool_proj -> inception_4c/pool_proj
I0403 15:07:13.054344 14125 net.cpp:141] Setting up inception_4c/pool_proj
I0403 15:07:13.054376 14125 net.cpp:148] Top shape: 24 64 14 14 (301056)
I0403 15:07:13.054406 14125 net.cpp:156] Memory required for data: 1061809440
I0403 15:07:13.054425 14125 layer_factory.hpp:77] Creating layer inception_4c/relu_pool_proj
I0403 15:07:13.054445 14125 net.cpp:91] Creating Layer inception_4c/relu_pool_proj
I0403 15:07:13.054461 14125 net.cpp:425] inception_4c/relu_pool_proj <- inception_4c/pool_proj
I0403 15:07:13.054481 14125 net.cpp:386] inception_4c/relu_pool_proj -> inception_4c/pool_proj (in-place)
I0403 15:07:13.054687 14125 net.cpp:141] Setting up inception_4c/relu_pool_proj
I0403 15:07:13.054711 14125 net.cpp:148] Top shape: 24 64 14 14 (301056)
I0403 15:07:13.054726 14125 net.cpp:156] Memory required for data: 1063013664
I0403 15:07:13.054740 14125 layer_factory.hpp:77] Creating layer inception_4c/output
I0403 15:07:13.054759 14125 net.cpp:91] Creating Layer inception_4c/output
I0403 15:07:13.054774 14125 net.cpp:425] inception_4c/output <- inception_4c/1x1
I0403 15:07:13.054790 14125 net.cpp:425] inception_4c/output <- inception_4c/3x3
I0403 15:07:13.054805 14125 net.cpp:425] inception_4c/output <- inception_4c/5x5
I0403 15:07:13.054821 14125 net.cpp:425] inception_4c/output <- inception_4c/pool_proj
I0403 15:07:13.054839 14125 net.cpp:399] inception_4c/output -> inception_4c/output
I0403 15:07:13.054886 14125 net.cpp:141] Setting up inception_4c/output
I0403 15:07:13.054913 14125 net.cpp:148] Top shape: 24 512 14 14 (2408448)
I0403 15:07:13.054927 14125 net.cpp:156] Memory required for data: 1072647456
I0403 15:07:13.054941 14125 layer_factory.hpp:77] Creating layer inception_4c/output_inception_4c/output_0_split
I0403 15:07:13.054957 14125 net.cpp:91] Creating Layer inception_4c/output_inception_4c/output_0_split
I0403 15:07:13.054973 14125 net.cpp:425] inception_4c/output_inception_4c/output_0_split <- inception_4c/output
I0403 15:07:13.054989 14125 net.cpp:399] inception_4c/output_inception_4c/output_0_split -> inception_4c/output_inception_4c/output_0_split_0
I0403 15:07:13.055011 14125 net.cpp:399] inception_4c/output_inception_4c/output_0_split -> inception_4c/output_inception_4c/output_0_split_1
I0403 15:07:13.055032 14125 net.cpp:399] inception_4c/output_inception_4c/output_0_split -> inception_4c/output_inception_4c/output_0_split_2
I0403 15:07:13.055053 14125 net.cpp:399] inception_4c/output_inception_4c/output_0_split -> inception_4c/output_inception_4c/output_0_split_3
I0403 15:07:13.055142 14125 net.cpp:141] Setting up inception_4c/output_inception_4c/output_0_split
I0403 15:07:13.055166 14125 net.cpp:148] Top shape: 24 512 14 14 (2408448)
I0403 15:07:13.055181 14125 net.cpp:148] Top shape: 24 512 14 14 (2408448)
I0403 15:07:13.055197 14125 net.cpp:148] Top shape: 24 512 14 14 (2408448)
I0403 15:07:13.055210 14125 net.cpp:148] Top shape: 24 512 14 14 (2408448)
I0403 15:07:13.055223 14125 net.cpp:156] Memory required for data: 1111182624
I0403 15:07:13.055238 14125 layer_factory.hpp:77] Creating layer inception_4d/1x1
I0403 15:07:13.055259 14125 net.cpp:91] Creating Layer inception_4d/1x1
I0403 15:07:13.055277 14125 net.cpp:425] inception_4d/1x1 <- inception_4c/output_inception_4c/output_0_split_0
I0403 15:07:13.055299 14125 net.cpp:399] inception_4d/1x1 -> inception_4d/1x1
I0403 15:07:13.056726 14125 net.cpp:141] Setting up inception_4d/1x1
I0403 15:07:13.056756 14125 net.cpp:148] Top shape: 24 112 14 14 (526848)
I0403 15:07:13.056772 14125 net.cpp:156] Memory required for data: 1113290016
I0403 15:07:13.056790 14125 layer_factory.hpp:77] Creating layer inception_4d/relu_1x1
I0403 15:07:13.056813 14125 net.cpp:91] Creating Layer inception_4d/relu_1x1
I0403 15:07:13.056829 14125 net.cpp:425] inception_4d/relu_1x1 <- inception_4d/1x1
I0403 15:07:13.056848 14125 net.cpp:386] inception_4d/relu_1x1 -> inception_4d/1x1 (in-place)
I0403 15:07:13.057040 14125 net.cpp:141] Setting up inception_4d/relu_1x1
I0403 15:07:13.057070 14125 net.cpp:148] Top shape: 24 112 14 14 (526848)
I0403 15:07:13.057086 14125 net.cpp:156] Memory required for data: 1115397408
I0403 15:07:13.057101 14125 layer_factory.hpp:77] Creating layer inception_4d/3x3_reduce
I0403 15:07:13.057140 14125 net.cpp:91] Creating Layer inception_4d/3x3_reduce
I0403 15:07:13.057159 14125 net.cpp:425] inception_4d/3x3_reduce <- inception_4c/output_inception_4c/output_0_split_1
I0403 15:07:13.057178 14125 net.cpp:399] inception_4d/3x3_reduce -> inception_4d/3x3_reduce
I0403 15:07:13.058766 14125 net.cpp:141] Setting up inception_4d/3x3_reduce
I0403 15:07:13.058796 14125 net.cpp:148] Top shape: 24 144 14 14 (677376)
I0403 15:07:13.058811 14125 net.cpp:156] Memory required for data: 1118106912
I0403 15:07:13.058830 14125 layer_factory.hpp:77] Creating layer inception_4d/relu_3x3_reduce
I0403 15:07:13.058852 14125 net.cpp:91] Creating Layer inception_4d/relu_3x3_reduce
I0403 15:07:13.058871 14125 net.cpp:425] inception_4d/relu_3x3_reduce <- inception_4d/3x3_reduce
I0403 15:07:13.058887 14125 net.cpp:386] inception_4d/relu_3x3_reduce -> inception_4d/3x3_reduce (in-place)
I0403 15:07:13.059190 14125 net.cpp:141] Setting up inception_4d/relu_3x3_reduce
I0403 15:07:13.059219 14125 net.cpp:148] Top shape: 24 144 14 14 (677376)
I0403 15:07:13.059236 14125 net.cpp:156] Memory required for data: 1120816416
I0403 15:07:13.059252 14125 layer_factory.hpp:77] Creating layer inception_4d/3x3
I0403 15:07:13.059274 14125 net.cpp:91] Creating Layer inception_4d/3x3
I0403 15:07:13.059293 14125 net.cpp:425] inception_4d/3x3 <- inception_4d/3x3_reduce
I0403 15:07:13.059315 14125 net.cpp:399] inception_4d/3x3 -> inception_4d/3x3
I0403 15:07:13.063751 14125 net.cpp:141] Setting up inception_4d/3x3
I0403 15:07:13.063781 14125 net.cpp:148] Top shape: 24 288 14 14 (1354752)
I0403 15:07:13.063798 14125 net.cpp:156] Memory required for data: 1126235424
I0403 15:07:13.063817 14125 layer_factory.hpp:77] Creating layer inception_4d/relu_3x3
I0403 15:07:13.063838 14125 net.cpp:91] Creating Layer inception_4d/relu_3x3
I0403 15:07:13.063858 14125 net.cpp:425] inception_4d/relu_3x3 <- inception_4d/3x3
I0403 15:07:13.063875 14125 net.cpp:386] inception_4d/relu_3x3 -> inception_4d/3x3 (in-place)
I0403 15:07:13.064079 14125 net.cpp:141] Setting up inception_4d/relu_3x3
I0403 15:07:13.064105 14125 net.cpp:148] Top shape: 24 288 14 14 (1354752)
I0403 15:07:13.064121 14125 net.cpp:156] Memory required for data: 1131654432
I0403 15:07:13.064136 14125 layer_factory.hpp:77] Creating layer inception_4d/5x5_reduce
I0403 15:07:13.064157 14125 net.cpp:91] Creating Layer inception_4d/5x5_reduce
I0403 15:07:13.064175 14125 net.cpp:425] inception_4d/5x5_reduce <- inception_4c/output_inception_4c/output_0_split_2
I0403 15:07:13.064193 14125 net.cpp:399] inception_4d/5x5_reduce -> inception_4d/5x5_reduce
I0403 15:07:13.065349 14125 net.cpp:141] Setting up inception_4d/5x5_reduce
I0403 15:07:13.065377 14125 net.cpp:148] Top shape: 24 32 14 14 (150528)
I0403 15:07:13.065392 14125 net.cpp:156] Memory required for data: 1132256544
I0403 15:07:13.065410 14125 layer_factory.hpp:77] Creating layer inception_4d/relu_5x5_reduce
I0403 15:07:13.065430 14125 net.cpp:91] Creating Layer inception_4d/relu_5x5_reduce
I0403 15:07:13.065448 14125 net.cpp:425] inception_4d/relu_5x5_reduce <- inception_4d/5x5_reduce
I0403 15:07:13.065464 14125 net.cpp:386] inception_4d/relu_5x5_reduce -> inception_4d/5x5_reduce (in-place)
I0403 15:07:13.065666 14125 net.cpp:141] Setting up inception_4d/relu_5x5_reduce
I0403 15:07:13.065696 14125 net.cpp:148] Top shape: 24 32 14 14 (150528)
I0403 15:07:13.065712 14125 net.cpp:156] Memory required for data: 1132858656
I0403 15:07:13.065727 14125 layer_factory.hpp:77] Creating layer inception_4d/5x5
I0403 15:07:13.065749 14125 net.cpp:91] Creating Layer inception_4d/5x5
I0403 15:07:13.065767 14125 net.cpp:425] inception_4d/5x5 <- inception_4d/5x5_reduce
I0403 15:07:13.065786 14125 net.cpp:399] inception_4d/5x5 -> inception_4d/5x5
I0403 15:07:13.067267 14125 net.cpp:141] Setting up inception_4d/5x5
I0403 15:07:13.067296 14125 net.cpp:148] Top shape: 24 64 14 14 (301056)
I0403 15:07:13.067313 14125 net.cpp:156] Memory required for data: 1134062880
I0403 15:07:13.067332 14125 layer_factory.hpp:77] Creating layer inception_4d/relu_5x5
I0403 15:07:13.067366 14125 net.cpp:91] Creating Layer inception_4d/relu_5x5
I0403 15:07:13.067384 14125 net.cpp:425] inception_4d/relu_5x5 <- inception_4d/5x5
I0403 15:07:13.067405 14125 net.cpp:386] inception_4d/relu_5x5 -> inception_4d/5x5 (in-place)
I0403 15:07:13.067713 14125 net.cpp:141] Setting up inception_4d/relu_5x5
I0403 15:07:13.067740 14125 net.cpp:148] Top shape: 24 64 14 14 (301056)
I0403 15:07:13.067755 14125 net.cpp:156] Memory required for data: 1135267104
I0403 15:07:13.067770 14125 layer_factory.hpp:77] Creating layer inception_4d/pool
I0403 15:07:13.067788 14125 net.cpp:91] Creating Layer inception_4d/pool
I0403 15:07:13.067814 14125 net.cpp:425] inception_4d/pool <- inception_4c/output_inception_4c/output_0_split_3
I0403 15:07:13.067834 14125 net.cpp:399] inception_4d/pool -> inception_4d/pool
I0403 15:07:13.067901 14125 net.cpp:141] Setting up inception_4d/pool
I0403 15:07:13.067925 14125 net.cpp:148] Top shape: 24 512 14 14 (2408448)
I0403 15:07:13.067940 14125 net.cpp:156] Memory required for data: 1144900896
I0403 15:07:13.067955 14125 layer_factory.hpp:77] Creating layer inception_4d/pool_proj
I0403 15:07:13.067978 14125 net.cpp:91] Creating Layer inception_4d/pool_proj
I0403 15:07:13.067996 14125 net.cpp:425] inception_4d/pool_proj <- inception_4d/pool
I0403 15:07:13.068014 14125 net.cpp:399] inception_4d/pool_proj -> inception_4d/pool_proj
I0403 15:07:13.069795 14125 net.cpp:141] Setting up inception_4d/pool_proj
I0403 15:07:13.069825 14125 net.cpp:148] Top shape: 24 64 14 14 (301056)
I0403 15:07:13.069842 14125 net.cpp:156] Memory required for data: 1146105120
I0403 15:07:13.069860 14125 layer_factory.hpp:77] Creating layer inception_4d/relu_pool_proj
I0403 15:07:13.069882 14125 net.cpp:91] Creating Layer inception_4d/relu_pool_proj
I0403 15:07:13.069900 14125 net.cpp:425] inception_4d/relu_pool_proj <- inception_4d/pool_proj
I0403 15:07:13.069916 14125 net.cpp:386] inception_4d/relu_pool_proj -> inception_4d/pool_proj (in-place)
I0403 15:07:13.070104 14125 net.cpp:141] Setting up inception_4d/relu_pool_proj
I0403 15:07:13.070132 14125 net.cpp:148] Top shape: 24 64 14 14 (301056)
I0403 15:07:13.070148 14125 net.cpp:156] Memory required for data: 1147309344
I0403 15:07:13.070163 14125 layer_factory.hpp:77] Creating layer inception_4d/output
I0403 15:07:13.070180 14125 net.cpp:91] Creating Layer inception_4d/output
I0403 15:07:13.070196 14125 net.cpp:425] inception_4d/output <- inception_4d/1x1
I0403 15:07:13.070214 14125 net.cpp:425] inception_4d/output <- inception_4d/3x3
I0403 15:07:13.070228 14125 net.cpp:425] inception_4d/output <- inception_4d/5x5
I0403 15:07:13.070245 14125 net.cpp:425] inception_4d/output <- inception_4d/pool_proj
I0403 15:07:13.070263 14125 net.cpp:399] inception_4d/output -> inception_4d/output
I0403 15:07:13.070312 14125 net.cpp:141] Setting up inception_4d/output
I0403 15:07:13.070334 14125 net.cpp:148] Top shape: 24 528 14 14 (2483712)
I0403 15:07:13.070349 14125 net.cpp:156] Memory required for data: 1157244192
I0403 15:07:13.070363 14125 layer_factory.hpp:77] Creating layer inception_4d/output_inception_4d/output_0_split
I0403 15:07:13.070384 14125 net.cpp:91] Creating Layer inception_4d/output_inception_4d/output_0_split
I0403 15:07:13.070400 14125 net.cpp:425] inception_4d/output_inception_4d/output_0_split <- inception_4d/output
I0403 15:07:13.070417 14125 net.cpp:399] inception_4d/output_inception_4d/output_0_split -> inception_4d/output_inception_4d/output_0_split_0
I0403 15:07:13.070441 14125 net.cpp:399] inception_4d/output_inception_4d/output_0_split -> inception_4d/output_inception_4d/output_0_split_1
I0403 15:07:13.070462 14125 net.cpp:399] inception_4d/output_inception_4d/output_0_split -> inception_4d/output_inception_4d/output_0_split_2
I0403 15:07:13.070483 14125 net.cpp:399] inception_4d/output_inception_4d/output_0_split -> inception_4d/output_inception_4d/output_0_split_3
I0403 15:07:13.070503 14125 net.cpp:399] inception_4d/output_inception_4d/output_0_split -> inception_4d/output_inception_4d/output_0_split_4
I0403 15:07:13.070612 14125 net.cpp:141] Setting up inception_4d/output_inception_4d/output_0_split
I0403 15:07:13.070648 14125 net.cpp:148] Top shape: 24 528 14 14 (2483712)
I0403 15:07:13.070665 14125 net.cpp:148] Top shape: 24 528 14 14 (2483712)
I0403 15:07:13.070680 14125 net.cpp:148] Top shape: 24 528 14 14 (2483712)
I0403 15:07:13.070696 14125 net.cpp:148] Top shape: 24 528 14 14 (2483712)
I0403 15:07:13.070711 14125 net.cpp:148] Top shape: 24 528 14 14 (2483712)
I0403 15:07:13.070724 14125 net.cpp:156] Memory required for data: 1206918432
I0403 15:07:13.070737 14125 layer_factory.hpp:77] Creating layer loss2/ave_pool
I0403 15:07:13.070757 14125 net.cpp:91] Creating Layer loss2/ave_pool
I0403 15:07:13.070775 14125 net.cpp:425] loss2/ave_pool <- inception_4d/output_inception_4d/output_0_split_0
I0403 15:07:13.070792 14125 net.cpp:399] loss2/ave_pool -> loss2/ave_pool
I0403 15:07:13.071125 14125 net.cpp:141] Setting up loss2/ave_pool
I0403 15:07:13.071153 14125 net.cpp:148] Top shape: 24 528 4 4 (202752)
I0403 15:07:13.071172 14125 net.cpp:156] Memory required for data: 1207729440
I0403 15:07:13.071187 14125 layer_factory.hpp:77] Creating layer loss2/conv
I0403 15:07:13.071208 14125 net.cpp:91] Creating Layer loss2/conv
I0403 15:07:13.071225 14125 net.cpp:425] loss2/conv <- loss2/ave_pool
I0403 15:07:13.071246 14125 net.cpp:399] loss2/conv -> loss2/conv
I0403 15:07:13.073240 14125 net.cpp:141] Setting up loss2/conv
I0403 15:07:13.073271 14125 net.cpp:148] Top shape: 24 128 4 4 (49152)
I0403 15:07:13.073287 14125 net.cpp:156] Memory required for data: 1207926048
I0403 15:07:13.073305 14125 layer_factory.hpp:77] Creating layer loss2/relu_conv
I0403 15:07:13.073323 14125 net.cpp:91] Creating Layer loss2/relu_conv
I0403 15:07:13.073339 14125 net.cpp:425] loss2/relu_conv <- loss2/conv
I0403 15:07:13.073359 14125 net.cpp:386] loss2/relu_conv -> loss2/conv (in-place)
I0403 15:07:13.073648 14125 net.cpp:141] Setting up loss2/relu_conv
I0403 15:07:13.073678 14125 net.cpp:148] Top shape: 24 128 4 4 (49152)
I0403 15:07:13.073693 14125 net.cpp:156] Memory required for data: 1208122656
I0403 15:07:13.073709 14125 layer_factory.hpp:77] Creating layer loss2/fc
I0403 15:07:13.073727 14125 net.cpp:91] Creating Layer loss2/fc
I0403 15:07:13.073743 14125 net.cpp:425] loss2/fc <- loss2/conv
I0403 15:07:13.073765 14125 net.cpp:399] loss2/fc -> loss2/fc
I0403 15:07:13.091027 14125 net.cpp:141] Setting up loss2/fc
I0403 15:07:13.091058 14125 net.cpp:148] Top shape: 24 1024 (24576)
I0403 15:07:13.091074 14125 net.cpp:156] Memory required for data: 1208220960
I0403 15:07:13.091092 14125 layer_factory.hpp:77] Creating layer loss2/relu_fc
I0403 15:07:13.091112 14125 net.cpp:91] Creating Layer loss2/relu_fc
I0403 15:07:13.091130 14125 net.cpp:425] loss2/relu_fc <- loss2/fc
I0403 15:07:13.091145 14125 net.cpp:386] loss2/relu_fc -> loss2/fc (in-place)
I0403 15:07:13.091439 14125 net.cpp:141] Setting up loss2/relu_fc
I0403 15:07:13.091465 14125 net.cpp:148] Top shape: 24 1024 (24576)
I0403 15:07:13.091480 14125 net.cpp:156] Memory required for data: 1208319264
I0403 15:07:13.091495 14125 layer_factory.hpp:77] Creating layer loss2/drop_fc
I0403 15:07:13.091527 14125 net.cpp:91] Creating Layer loss2/drop_fc
I0403 15:07:13.091545 14125 net.cpp:425] loss2/drop_fc <- loss2/fc
I0403 15:07:13.091562 14125 net.cpp:386] loss2/drop_fc -> loss2/fc (in-place)
I0403 15:07:13.091612 14125 net.cpp:141] Setting up loss2/drop_fc
I0403 15:07:13.091635 14125 net.cpp:148] Top shape: 24 1024 (24576)
I0403 15:07:13.091650 14125 net.cpp:156] Memory required for data: 1208417568
I0403 15:07:13.091663 14125 layer_factory.hpp:77] Creating layer loss2/classifier_plantvillage
I0403 15:07:13.091683 14125 net.cpp:91] Creating Layer loss2/classifier_plantvillage
I0403 15:07:13.091701 14125 net.cpp:425] loss2/classifier_plantvillage <- loss2/fc
I0403 15:07:13.091717 14125 net.cpp:399] loss2/classifier_plantvillage -> loss2/classifier_plantvillage
I0403 15:07:13.092109 14125 net.cpp:141] Setting up loss2/classifier_plantvillage
I0403 15:07:13.092133 14125 net.cpp:148] Top shape: 24 38 (912)
I0403 15:07:13.092149 14125 net.cpp:156] Memory required for data: 1208421216
I0403 15:07:13.092182 14125 layer_factory.hpp:77] Creating layer loss2/classifier_plantvillage_loss2/classifier_plantvillage_0_split
I0403 15:07:13.092201 14125 net.cpp:91] Creating Layer loss2/classifier_plantvillage_loss2/classifier_plantvillage_0_split
I0403 15:07:13.092216 14125 net.cpp:425] loss2/classifier_plantvillage_loss2/classifier_plantvillage_0_split <- loss2/classifier_plantvillage
I0403 15:07:13.092236 14125 net.cpp:399] loss2/classifier_plantvillage_loss2/classifier_plantvillage_0_split -> loss2/classifier_plantvillage_loss2/classifier_plantvillage_0_split_0
I0403 15:07:13.092257 14125 net.cpp:399] loss2/classifier_plantvillage_loss2/classifier_plantvillage_0_split -> loss2/classifier_plantvillage_loss2/classifier_plantvillage_0_split_1
I0403 15:07:13.092277 14125 net.cpp:399] loss2/classifier_plantvillage_loss2/classifier_plantvillage_0_split -> loss2/classifier_plantvillage_loss2/classifier_plantvillage_0_split_2
I0403 15:07:13.092353 14125 net.cpp:141] Setting up loss2/classifier_plantvillage_loss2/classifier_plantvillage_0_split
I0403 15:07:13.092380 14125 net.cpp:148] Top shape: 24 38 (912)
I0403 15:07:13.092396 14125 net.cpp:148] Top shape: 24 38 (912)
I0403 15:07:13.092411 14125 net.cpp:148] Top shape: 24 38 (912)
I0403 15:07:13.092423 14125 net.cpp:156] Memory required for data: 1208432160
I0403 15:07:13.092437 14125 layer_factory.hpp:77] Creating layer inception_4e/1x1
I0403 15:07:13.092456 14125 net.cpp:91] Creating Layer inception_4e/1x1
I0403 15:07:13.092471 14125 net.cpp:425] inception_4e/1x1 <- inception_4d/output_inception_4d/output_0_split_1
I0403 15:07:13.092489 14125 net.cpp:399] inception_4e/1x1 -> inception_4e/1x1
I0403 15:07:13.094281 14125 net.cpp:141] Setting up inception_4e/1x1
I0403 15:07:13.094310 14125 net.cpp:148] Top shape: 24 256 14 14 (1204224)
I0403 15:07:13.094324 14125 net.cpp:156] Memory required for data: 1213249056
I0403 15:07:13.094341 14125 layer_factory.hpp:77] Creating layer inception_4e/relu_1x1
I0403 15:07:13.094359 14125 net.cpp:91] Creating Layer inception_4e/relu_1x1
I0403 15:07:13.094374 14125 net.cpp:425] inception_4e/relu_1x1 <- inception_4e/1x1
I0403 15:07:13.094393 14125 net.cpp:386] inception_4e/relu_1x1 -> inception_4e/1x1 (in-place)
I0403 15:07:13.094720 14125 net.cpp:141] Setting up inception_4e/relu_1x1
I0403 15:07:13.094745 14125 net.cpp:148] Top shape: 24 256 14 14 (1204224)
I0403 15:07:13.094760 14125 net.cpp:156] Memory required for data: 1218065952
I0403 15:07:13.094774 14125 layer_factory.hpp:77] Creating layer inception_4e/3x3_reduce
I0403 15:07:13.094795 14125 net.cpp:91] Creating Layer inception_4e/3x3_reduce
I0403 15:07:13.094813 14125 net.cpp:425] inception_4e/3x3_reduce <- inception_4d/output_inception_4d/output_0_split_2
I0403 15:07:13.094833 14125 net.cpp:399] inception_4e/3x3_reduce -> inception_4e/3x3_reduce
I0403 15:07:13.097008 14125 net.cpp:141] Setting up inception_4e/3x3_reduce
I0403 15:07:13.097039 14125 net.cpp:148] Top shape: 24 160 14 14 (752640)
I0403 15:07:13.097055 14125 net.cpp:156] Memory required for data: 1221076512
I0403 15:07:13.097074 14125 layer_factory.hpp:77] Creating layer inception_4e/relu_3x3_reduce
I0403 15:07:13.097090 14125 net.cpp:91] Creating Layer inception_4e/relu_3x3_reduce
I0403 15:07:13.097105 14125 net.cpp:425] inception_4e/relu_3x3_reduce <- inception_4e/3x3_reduce
I0403 15:07:13.097124 14125 net.cpp:386] inception_4e/relu_3x3_reduce -> inception_4e/3x3_reduce (in-place)
I0403 15:07:13.097304 14125 net.cpp:141] Setting up inception_4e/relu_3x3_reduce
I0403 15:07:13.097329 14125 net.cpp:148] Top shape: 24 160 14 14 (752640)
I0403 15:07:13.097343 14125 net.cpp:156] Memory required for data: 1224087072
I0403 15:07:13.097357 14125 layer_factory.hpp:77] Creating layer inception_4e/3x3
I0403 15:07:13.097378 14125 net.cpp:91] Creating Layer inception_4e/3x3
I0403 15:07:13.097394 14125 net.cpp:425] inception_4e/3x3 <- inception_4e/3x3_reduce
I0403 15:07:13.097416 14125 net.cpp:399] inception_4e/3x3 -> inception_4e/3x3
I0403 15:07:13.102334 14125 net.cpp:141] Setting up inception_4e/3x3
I0403 15:07:13.102375 14125 net.cpp:148] Top shape: 24 320 14 14 (1505280)
I0403 15:07:13.102391 14125 net.cpp:156] Memory required for data: 1230108192
I0403 15:07:13.102407 14125 layer_factory.hpp:77] Creating layer inception_4e/relu_3x3
I0403 15:07:13.102427 14125 net.cpp:91] Creating Layer inception_4e/relu_3x3
I0403 15:07:13.102443 14125 net.cpp:425] inception_4e/relu_3x3 <- inception_4e/3x3
I0403 15:07:13.102459 14125 net.cpp:386] inception_4e/relu_3x3 -> inception_4e/3x3 (in-place)
I0403 15:07:13.102764 14125 net.cpp:141] Setting up inception_4e/relu_3x3
I0403 15:07:13.102790 14125 net.cpp:148] Top shape: 24 320 14 14 (1505280)
I0403 15:07:13.102804 14125 net.cpp:156] Memory required for data: 1236129312
I0403 15:07:13.102818 14125 layer_factory.hpp:77] Creating layer inception_4e/5x5_reduce
I0403 15:07:13.102843 14125 net.cpp:91] Creating Layer inception_4e/5x5_reduce
I0403 15:07:13.102859 14125 net.cpp:425] inception_4e/5x5_reduce <- inception_4d/output_inception_4d/output_0_split_3
I0403 15:07:13.102881 14125 net.cpp:399] inception_4e/5x5_reduce -> inception_4e/5x5_reduce
I0403 15:07:13.103932 14125 net.cpp:141] Setting up inception_4e/5x5_reduce
I0403 15:07:13.103960 14125 net.cpp:148] Top shape: 24 32 14 14 (150528)
I0403 15:07:13.103973 14125 net.cpp:156] Memory required for data: 1236731424
I0403 15:07:13.103991 14125 layer_factory.hpp:77] Creating layer inception_4e/relu_5x5_reduce
I0403 15:07:13.104007 14125 net.cpp:91] Creating Layer inception_4e/relu_5x5_reduce
I0403 15:07:13.104022 14125 net.cpp:425] inception_4e/relu_5x5_reduce <- inception_4e/5x5_reduce
I0403 15:07:13.104040 14125 net.cpp:386] inception_4e/relu_5x5_reduce -> inception_4e/5x5_reduce (in-place)
I0403 15:07:13.104339 14125 net.cpp:141] Setting up inception_4e/relu_5x5_reduce
I0403 15:07:13.104364 14125 net.cpp:148] Top shape: 24 32 14 14 (150528)
I0403 15:07:13.104378 14125 net.cpp:156] Memory required for data: 1237333536
I0403 15:07:13.104393 14125 layer_factory.hpp:77] Creating layer inception_4e/5x5
I0403 15:07:13.104429 14125 net.cpp:91] Creating Layer inception_4e/5x5
I0403 15:07:13.104449 14125 net.cpp:425] inception_4e/5x5 <- inception_4e/5x5_reduce
I0403 15:07:13.104466 14125 net.cpp:399] inception_4e/5x5 -> inception_4e/5x5
I0403 15:07:13.106290 14125 net.cpp:141] Setting up inception_4e/5x5
I0403 15:07:13.106320 14125 net.cpp:148] Top shape: 24 128 14 14 (602112)
I0403 15:07:13.106338 14125 net.cpp:156] Memory required for data: 1239741984
I0403 15:07:13.106355 14125 layer_factory.hpp:77] Creating layer inception_4e/relu_5x5
I0403 15:07:13.106372 14125 net.cpp:91] Creating Layer inception_4e/relu_5x5
I0403 15:07:13.106387 14125 net.cpp:425] inception_4e/relu_5x5 <- inception_4e/5x5
I0403 15:07:13.106403 14125 net.cpp:386] inception_4e/relu_5x5 -> inception_4e/5x5 (in-place)
I0403 15:07:13.106601 14125 net.cpp:141] Setting up inception_4e/relu_5x5
I0403 15:07:13.106626 14125 net.cpp:148] Top shape: 24 128 14 14 (602112)
I0403 15:07:13.106645 14125 net.cpp:156] Memory required for data: 1242150432
I0403 15:07:13.106658 14125 layer_factory.hpp:77] Creating layer inception_4e/pool
I0403 15:07:13.106683 14125 net.cpp:91] Creating Layer inception_4e/pool
I0403 15:07:13.106698 14125 net.cpp:425] inception_4e/pool <- inception_4d/output_inception_4d/output_0_split_4
I0403 15:07:13.106719 14125 net.cpp:399] inception_4e/pool -> inception_4e/pool
I0403 15:07:13.106796 14125 net.cpp:141] Setting up inception_4e/pool
I0403 15:07:13.106822 14125 net.cpp:148] Top shape: 24 528 14 14 (2483712)
I0403 15:07:13.106837 14125 net.cpp:156] Memory required for data: 1252085280
I0403 15:07:13.106850 14125 layer_factory.hpp:77] Creating layer inception_4e/pool_proj
I0403 15:07:13.106870 14125 net.cpp:91] Creating Layer inception_4e/pool_proj
I0403 15:07:13.106887 14125 net.cpp:425] inception_4e/pool_proj <- inception_4e/pool
I0403 15:07:13.106911 14125 net.cpp:399] inception_4e/pool_proj -> inception_4e/pool_proj
I0403 15:07:13.108422 14125 net.cpp:141] Setting up inception_4e/pool_proj
I0403 15:07:13.108453 14125 net.cpp:148] Top shape: 24 128 14 14 (602112)
I0403 15:07:13.108482 14125 net.cpp:156] Memory required for data: 1254493728
I0403 15:07:13.108502 14125 layer_factory.hpp:77] Creating layer inception_4e/relu_pool_proj
I0403 15:07:13.108527 14125 net.cpp:91] Creating Layer inception_4e/relu_pool_proj
I0403 15:07:13.108544 14125 net.cpp:425] inception_4e/relu_pool_proj <- inception_4e/pool_proj
I0403 15:07:13.108561 14125 net.cpp:386] inception_4e/relu_pool_proj -> inception_4e/pool_proj (in-place)
I0403 15:07:13.108860 14125 net.cpp:141] Setting up inception_4e/relu_pool_proj
I0403 15:07:13.108889 14125 net.cpp:148] Top shape: 24 128 14 14 (602112)
I0403 15:07:13.108906 14125 net.cpp:156] Memory required for data: 1256902176
I0403 15:07:13.108919 14125 layer_factory.hpp:77] Creating layer inception_4e/output
I0403 15:07:13.108937 14125 net.cpp:91] Creating Layer inception_4e/output
I0403 15:07:13.108952 14125 net.cpp:425] inception_4e/output <- inception_4e/1x1
I0403 15:07:13.108968 14125 net.cpp:425] inception_4e/output <- inception_4e/3x3
I0403 15:07:13.108984 14125 net.cpp:425] inception_4e/output <- inception_4e/5x5
I0403 15:07:13.109000 14125 net.cpp:425] inception_4e/output <- inception_4e/pool_proj
I0403 15:07:13.109016 14125 net.cpp:399] inception_4e/output -> inception_4e/output
I0403 15:07:13.109067 14125 net.cpp:141] Setting up inception_4e/output
I0403 15:07:13.109091 14125 net.cpp:148] Top shape: 24 832 14 14 (3913728)
I0403 15:07:13.109107 14125 net.cpp:156] Memory required for data: 1272557088
I0403 15:07:13.109119 14125 layer_factory.hpp:77] Creating layer pool4/3x3_s2
I0403 15:07:13.109143 14125 net.cpp:91] Creating Layer pool4/3x3_s2
I0403 15:07:13.109159 14125 net.cpp:425] pool4/3x3_s2 <- inception_4e/output
I0403 15:07:13.109177 14125 net.cpp:399] pool4/3x3_s2 -> pool4/3x3_s2
I0403 15:07:13.109244 14125 net.cpp:141] Setting up pool4/3x3_s2
I0403 15:07:13.109268 14125 net.cpp:148] Top shape: 24 832 7 7 (978432)
I0403 15:07:13.109283 14125 net.cpp:156] Memory required for data: 1276470816
I0403 15:07:13.109297 14125 layer_factory.hpp:77] Creating layer pool4/3x3_s2_pool4/3x3_s2_0_split
I0403 15:07:13.109313 14125 net.cpp:91] Creating Layer pool4/3x3_s2_pool4/3x3_s2_0_split
I0403 15:07:13.109328 14125 net.cpp:425] pool4/3x3_s2_pool4/3x3_s2_0_split <- pool4/3x3_s2
I0403 15:07:13.109346 14125 net.cpp:399] pool4/3x3_s2_pool4/3x3_s2_0_split -> pool4/3x3_s2_pool4/3x3_s2_0_split_0
I0403 15:07:13.109367 14125 net.cpp:399] pool4/3x3_s2_pool4/3x3_s2_0_split -> pool4/3x3_s2_pool4/3x3_s2_0_split_1
I0403 15:07:13.109387 14125 net.cpp:399] pool4/3x3_s2_pool4/3x3_s2_0_split -> pool4/3x3_s2_pool4/3x3_s2_0_split_2
I0403 15:07:13.109406 14125 net.cpp:399] pool4/3x3_s2_pool4/3x3_s2_0_split -> pool4/3x3_s2_pool4/3x3_s2_0_split_3
I0403 15:07:13.109498 14125 net.cpp:141] Setting up pool4/3x3_s2_pool4/3x3_s2_0_split
I0403 15:07:13.109527 14125 net.cpp:148] Top shape: 24 832 7 7 (978432)
I0403 15:07:13.109545 14125 net.cpp:148] Top shape: 24 832 7 7 (978432)
I0403 15:07:13.109561 14125 net.cpp:148] Top shape: 24 832 7 7 (978432)
I0403 15:07:13.109577 14125 net.cpp:148] Top shape: 24 832 7 7 (978432)
I0403 15:07:13.109591 14125 net.cpp:156] Memory required for data: 1292125728
I0403 15:07:13.109604 14125 layer_factory.hpp:77] Creating layer inception_5a/1x1
I0403 15:07:13.109628 14125 net.cpp:91] Creating Layer inception_5a/1x1
I0403 15:07:13.109647 14125 net.cpp:425] inception_5a/1x1 <- pool4/3x3_s2_pool4/3x3_s2_0_split_0
I0403 15:07:13.109665 14125 net.cpp:399] inception_5a/1x1 -> inception_5a/1x1
I0403 15:07:13.112648 14125 net.cpp:141] Setting up inception_5a/1x1
I0403 15:07:13.112680 14125 net.cpp:148] Top shape: 24 256 7 7 (301056)
I0403 15:07:13.112697 14125 net.cpp:156] Memory required for data: 1293329952
I0403 15:07:13.112716 14125 layer_factory.hpp:77] Creating layer inception_5a/relu_1x1
I0403 15:07:13.112735 14125 net.cpp:91] Creating Layer inception_5a/relu_1x1
I0403 15:07:13.112751 14125 net.cpp:425] inception_5a/relu_1x1 <- inception_5a/1x1
I0403 15:07:13.112771 14125 net.cpp:386] inception_5a/relu_1x1 -> inception_5a/1x1 (in-place)
I0403 15:07:13.113090 14125 net.cpp:141] Setting up inception_5a/relu_1x1
I0403 15:07:13.113119 14125 net.cpp:148] Top shape: 24 256 7 7 (301056)
I0403 15:07:13.113137 14125 net.cpp:156] Memory required for data: 1294534176
I0403 15:07:13.113152 14125 layer_factory.hpp:77] Creating layer inception_5a/3x3_reduce
I0403 15:07:13.113174 14125 net.cpp:91] Creating Layer inception_5a/3x3_reduce
I0403 15:07:13.113193 14125 net.cpp:425] inception_5a/3x3_reduce <- pool4/3x3_s2_pool4/3x3_s2_0_split_1
I0403 15:07:13.113211 14125 net.cpp:399] inception_5a/3x3_reduce -> inception_5a/3x3_reduce
I0403 15:07:13.115794 14125 net.cpp:141] Setting up inception_5a/3x3_reduce
I0403 15:07:13.115825 14125 net.cpp:148] Top shape: 24 160 7 7 (188160)
I0403 15:07:13.115841 14125 net.cpp:156] Memory required for data: 1295286816
I0403 15:07:13.115860 14125 layer_factory.hpp:77] Creating layer inception_5a/relu_3x3_reduce
I0403 15:07:13.115881 14125 net.cpp:91] Creating Layer inception_5a/relu_3x3_reduce
I0403 15:07:13.115900 14125 net.cpp:425] inception_5a/relu_3x3_reduce <- inception_5a/3x3_reduce
I0403 15:07:13.115916 14125 net.cpp:386] inception_5a/relu_3x3_reduce -> inception_5a/3x3_reduce (in-place)
I0403 15:07:13.116111 14125 net.cpp:141] Setting up inception_5a/relu_3x3_reduce
I0403 15:07:13.116139 14125 net.cpp:148] Top shape: 24 160 7 7 (188160)
I0403 15:07:13.116156 14125 net.cpp:156] Memory required for data: 1296039456
I0403 15:07:13.116170 14125 layer_factory.hpp:77] Creating layer inception_5a/3x3
I0403 15:07:13.116194 14125 net.cpp:91] Creating Layer inception_5a/3x3
I0403 15:07:13.116211 14125 net.cpp:425] inception_5a/3x3 <- inception_5a/3x3_reduce
I0403 15:07:13.116230 14125 net.cpp:399] inception_5a/3x3 -> inception_5a/3x3
I0403 15:07:13.121529 14125 net.cpp:141] Setting up inception_5a/3x3
I0403 15:07:13.121562 14125 net.cpp:148] Top shape: 24 320 7 7 (376320)
I0403 15:07:13.121578 14125 net.cpp:156] Memory required for data: 1297544736
I0403 15:07:13.121598 14125 layer_factory.hpp:77] Creating layer inception_5a/relu_3x3
I0403 15:07:13.121615 14125 net.cpp:91] Creating Layer inception_5a/relu_3x3
I0403 15:07:13.121631 14125 net.cpp:425] inception_5a/relu_3x3 <- inception_5a/3x3
I0403 15:07:13.121649 14125 net.cpp:386] inception_5a/relu_3x3 -> inception_5a/3x3 (in-place)
I0403 15:07:13.121954 14125 net.cpp:141] Setting up inception_5a/relu_3x3
I0403 15:07:13.121984 14125 net.cpp:148] Top shape: 24 320 7 7 (376320)
I0403 15:07:13.122001 14125 net.cpp:156] Memory required for data: 1299050016
I0403 15:07:13.122015 14125 layer_factory.hpp:77] Creating layer inception_5a/5x5_reduce
I0403 15:07:13.122038 14125 net.cpp:91] Creating Layer inception_5a/5x5_reduce
I0403 15:07:13.122056 14125 net.cpp:425] inception_5a/5x5_reduce <- pool4/3x3_s2_pool4/3x3_s2_0_split_2
I0403 15:07:13.122076 14125 net.cpp:399] inception_5a/5x5_reduce -> inception_5a/5x5_reduce
I0403 15:07:13.123306 14125 net.cpp:141] Setting up inception_5a/5x5_reduce
I0403 15:07:13.123337 14125 net.cpp:148] Top shape: 24 32 7 7 (37632)
I0403 15:07:13.123355 14125 net.cpp:156] Memory required for data: 1299200544
I0403 15:07:13.123373 14125 layer_factory.hpp:77] Creating layer inception_5a/relu_5x5_reduce
I0403 15:07:13.123390 14125 net.cpp:91] Creating Layer inception_5a/relu_5x5_reduce
I0403 15:07:13.123406 14125 net.cpp:425] inception_5a/relu_5x5_reduce <- inception_5a/5x5_reduce
I0403 15:07:13.123426 14125 net.cpp:386] inception_5a/relu_5x5_reduce -> inception_5a/5x5_reduce (in-place)
I0403 15:07:13.123745 14125 net.cpp:141] Setting up inception_5a/relu_5x5_reduce
I0403 15:07:13.123772 14125 net.cpp:148] Top shape: 24 32 7 7 (37632)
I0403 15:07:13.123787 14125 net.cpp:156] Memory required for data: 1299351072
I0403 15:07:13.123801 14125 layer_factory.hpp:77] Creating layer inception_5a/5x5
I0403 15:07:13.123826 14125 net.cpp:91] Creating Layer inception_5a/5x5
I0403 15:07:13.123843 14125 net.cpp:425] inception_5a/5x5 <- inception_5a/5x5_reduce
I0403 15:07:13.123865 14125 net.cpp:399] inception_5a/5x5 -> inception_5a/5x5
I0403 15:07:13.125670 14125 net.cpp:141] Setting up inception_5a/5x5
I0403 15:07:13.125716 14125 net.cpp:148] Top shape: 24 128 7 7 (150528)
I0403 15:07:13.125733 14125 net.cpp:156] Memory required for data: 1299953184
I0403 15:07:13.125752 14125 layer_factory.hpp:77] Creating layer inception_5a/relu_5x5
I0403 15:07:13.125771 14125 net.cpp:91] Creating Layer inception_5a/relu_5x5
I0403 15:07:13.125787 14125 net.cpp:425] inception_5a/relu_5x5 <- inception_5a/5x5
I0403 15:07:13.125804 14125 net.cpp:386] inception_5a/relu_5x5 -> inception_5a/5x5 (in-place)
I0403 15:07:13.126009 14125 net.cpp:141] Setting up inception_5a/relu_5x5
I0403 15:07:13.126035 14125 net.cpp:148] Top shape: 24 128 7 7 (150528)
I0403 15:07:13.126050 14125 net.cpp:156] Memory required for data: 1300555296
I0403 15:07:13.126065 14125 layer_factory.hpp:77] Creating layer inception_5a/pool
I0403 15:07:13.126082 14125 net.cpp:91] Creating Layer inception_5a/pool
I0403 15:07:13.126098 14125 net.cpp:425] inception_5a/pool <- pool4/3x3_s2_pool4/3x3_s2_0_split_3
I0403 15:07:13.126119 14125 net.cpp:399] inception_5a/pool -> inception_5a/pool
I0403 15:07:13.126194 14125 net.cpp:141] Setting up inception_5a/pool
I0403 15:07:13.126220 14125 net.cpp:148] Top shape: 24 832 7 7 (978432)
I0403 15:07:13.126236 14125 net.cpp:156] Memory required for data: 1304469024
I0403 15:07:13.126250 14125 layer_factory.hpp:77] Creating layer inception_5a/pool_proj
I0403 15:07:13.126272 14125 net.cpp:91] Creating Layer inception_5a/pool_proj
I0403 15:07:13.126291 14125 net.cpp:425] inception_5a/pool_proj <- inception_5a/pool
I0403 15:07:13.126309 14125 net.cpp:399] inception_5a/pool_proj -> inception_5a/pool_proj
I0403 15:07:13.128710 14125 net.cpp:141] Setting up inception_5a/pool_proj
I0403 15:07:13.128739 14125 net.cpp:148] Top shape: 24 128 7 7 (150528)
I0403 15:07:13.128756 14125 net.cpp:156] Memory required for data: 1305071136
I0403 15:07:13.128773 14125 layer_factory.hpp:77] Creating layer inception_5a/relu_pool_proj
I0403 15:07:13.128798 14125 net.cpp:91] Creating Layer inception_5a/relu_pool_proj
I0403 15:07:13.128815 14125 net.cpp:425] inception_5a/relu_pool_proj <- inception_5a/pool_proj
I0403 15:07:13.128832 14125 net.cpp:386] inception_5a/relu_pool_proj -> inception_5a/pool_proj (in-place)
I0403 15:07:13.129139 14125 net.cpp:141] Setting up inception_5a/relu_pool_proj
I0403 15:07:13.129176 14125 net.cpp:148] Top shape: 24 128 7 7 (150528)
I0403 15:07:13.129191 14125 net.cpp:156] Memory required for data: 1305673248
I0403 15:07:13.129207 14125 layer_factory.hpp:77] Creating layer inception_5a/output
I0403 15:07:13.129226 14125 net.cpp:91] Creating Layer inception_5a/output
I0403 15:07:13.129243 14125 net.cpp:425] inception_5a/output <- inception_5a/1x1
I0403 15:07:13.129261 14125 net.cpp:425] inception_5a/output <- inception_5a/3x3
I0403 15:07:13.129276 14125 net.cpp:425] inception_5a/output <- inception_5a/5x5
I0403 15:07:13.129293 14125 net.cpp:425] inception_5a/output <- inception_5a/pool_proj
I0403 15:07:13.129310 14125 net.cpp:399] inception_5a/output -> inception_5a/output
I0403 15:07:13.129364 14125 net.cpp:141] Setting up inception_5a/output
I0403 15:07:13.129390 14125 net.cpp:148] Top shape: 24 832 7 7 (978432)
I0403 15:07:13.129403 14125 net.cpp:156] Memory required for data: 1309586976
I0403 15:07:13.129418 14125 layer_factory.hpp:77] Creating layer inception_5a/output_inception_5a/output_0_split
I0403 15:07:13.129446 14125 net.cpp:91] Creating Layer inception_5a/output_inception_5a/output_0_split
I0403 15:07:13.129462 14125 net.cpp:425] inception_5a/output_inception_5a/output_0_split <- inception_5a/output
I0403 15:07:13.129480 14125 net.cpp:399] inception_5a/output_inception_5a/output_0_split -> inception_5a/output_inception_5a/output_0_split_0
I0403 15:07:13.129501 14125 net.cpp:399] inception_5a/output_inception_5a/output_0_split -> inception_5a/output_inception_5a/output_0_split_1
I0403 15:07:13.129528 14125 net.cpp:399] inception_5a/output_inception_5a/output_0_split -> inception_5a/output_inception_5a/output_0_split_2
I0403 15:07:13.129549 14125 net.cpp:399] inception_5a/output_inception_5a/output_0_split -> inception_5a/output_inception_5a/output_0_split_3
I0403 15:07:13.129667 14125 net.cpp:141] Setting up inception_5a/output_inception_5a/output_0_split
I0403 15:07:13.129701 14125 net.cpp:148] Top shape: 24 832 7 7 (978432)
I0403 15:07:13.129719 14125 net.cpp:148] Top shape: 24 832 7 7 (978432)
I0403 15:07:13.129734 14125 net.cpp:148] Top shape: 24 832 7 7 (978432)
I0403 15:07:13.129748 14125 net.cpp:148] Top shape: 24 832 7 7 (978432)
I0403 15:07:13.129761 14125 net.cpp:156] Memory required for data: 1325241888
I0403 15:07:13.129776 14125 layer_factory.hpp:77] Creating layer inception_5b/1x1
I0403 15:07:13.129797 14125 net.cpp:91] Creating Layer inception_5b/1x1
I0403 15:07:13.129815 14125 net.cpp:425] inception_5b/1x1 <- inception_5a/output_inception_5a/output_0_split_0
I0403 15:07:13.129835 14125 net.cpp:399] inception_5b/1x1 -> inception_5b/1x1
I0403 15:07:13.133649 14125 net.cpp:141] Setting up inception_5b/1x1
I0403 15:07:13.133678 14125 net.cpp:148] Top shape: 24 384 7 7 (451584)
I0403 15:07:13.133693 14125 net.cpp:156] Memory required for data: 1327048224
I0403 15:07:13.133711 14125 layer_factory.hpp:77] Creating layer inception_5b/relu_1x1
I0403 15:07:13.133733 14125 net.cpp:91] Creating Layer inception_5b/relu_1x1
I0403 15:07:13.133749 14125 net.cpp:425] inception_5b/relu_1x1 <- inception_5b/1x1
I0403 15:07:13.133765 14125 net.cpp:386] inception_5b/relu_1x1 -> inception_5b/1x1 (in-place)
I0403 15:07:13.134075 14125 net.cpp:141] Setting up inception_5b/relu_1x1
I0403 15:07:13.134101 14125 net.cpp:148] Top shape: 24 384 7 7 (451584)
I0403 15:07:13.134116 14125 net.cpp:156] Memory required for data: 1328854560
I0403 15:07:13.134130 14125 layer_factory.hpp:77] Creating layer inception_5b/3x3_reduce
I0403 15:07:13.134151 14125 net.cpp:91] Creating Layer inception_5b/3x3_reduce
I0403 15:07:13.134169 14125 net.cpp:425] inception_5b/3x3_reduce <- inception_5a/output_inception_5a/output_0_split_1
I0403 15:07:13.134193 14125 net.cpp:399] inception_5b/3x3_reduce -> inception_5b/3x3_reduce
I0403 15:07:13.136904 14125 net.cpp:141] Setting up inception_5b/3x3_reduce
I0403 15:07:13.136932 14125 net.cpp:148] Top shape: 24 192 7 7 (225792)
I0403 15:07:13.136947 14125 net.cpp:156] Memory required for data: 1329757728
I0403 15:07:13.136966 14125 layer_factory.hpp:77] Creating layer inception_5b/relu_3x3_reduce
I0403 15:07:13.136987 14125 net.cpp:91] Creating Layer inception_5b/relu_3x3_reduce
I0403 15:07:13.137003 14125 net.cpp:425] inception_5b/relu_3x3_reduce <- inception_5b/3x3_reduce
I0403 15:07:13.137020 14125 net.cpp:386] inception_5b/relu_3x3_reduce -> inception_5b/3x3_reduce (in-place)
I0403 15:07:13.137212 14125 net.cpp:141] Setting up inception_5b/relu_3x3_reduce
I0403 15:07:13.137238 14125 net.cpp:148] Top shape: 24 192 7 7 (225792)
I0403 15:07:13.137253 14125 net.cpp:156] Memory required for data: 1330660896
I0403 15:07:13.137267 14125 layer_factory.hpp:77] Creating layer inception_5b/3x3
I0403 15:07:13.137289 14125 net.cpp:91] Creating Layer inception_5b/3x3
I0403 15:07:13.137305 14125 net.cpp:425] inception_5b/3x3 <- inception_5b/3x3_reduce
I0403 15:07:13.137327 14125 net.cpp:399] inception_5b/3x3 -> inception_5b/3x3
I0403 15:07:13.144062 14125 net.cpp:141] Setting up inception_5b/3x3
I0403 15:07:13.144090 14125 net.cpp:148] Top shape: 24 384 7 7 (451584)
I0403 15:07:13.144106 14125 net.cpp:156] Memory required for data: 1332467232
I0403 15:07:13.144124 14125 layer_factory.hpp:77] Creating layer inception_5b/relu_3x3
I0403 15:07:13.144145 14125 net.cpp:91] Creating Layer inception_5b/relu_3x3
I0403 15:07:13.144162 14125 net.cpp:425] inception_5b/relu_3x3 <- inception_5b/3x3
I0403 15:07:13.144178 14125 net.cpp:386] inception_5b/relu_3x3 -> inception_5b/3x3 (in-place)
I0403 15:07:13.144479 14125 net.cpp:141] Setting up inception_5b/relu_3x3
I0403 15:07:13.144515 14125 net.cpp:148] Top shape: 24 384 7 7 (451584)
I0403 15:07:13.144534 14125 net.cpp:156] Memory required for data: 1334273568
I0403 15:07:13.144551 14125 layer_factory.hpp:77] Creating layer inception_5b/5x5_reduce
I0403 15:07:13.144592 14125 net.cpp:91] Creating Layer inception_5b/5x5_reduce
I0403 15:07:13.144610 14125 net.cpp:425] inception_5b/5x5_reduce <- inception_5a/output_inception_5a/output_0_split_2
I0403 15:07:13.144629 14125 net.cpp:399] inception_5b/5x5_reduce -> inception_5b/5x5_reduce
I0403 15:07:13.145925 14125 net.cpp:141] Setting up inception_5b/5x5_reduce
I0403 15:07:13.145952 14125 net.cpp:148] Top shape: 24 48 7 7 (56448)
I0403 15:07:13.145970 14125 net.cpp:156] Memory required for data: 1334499360
I0403 15:07:13.145988 14125 layer_factory.hpp:77] Creating layer inception_5b/relu_5x5_reduce
I0403 15:07:13.146006 14125 net.cpp:91] Creating Layer inception_5b/relu_5x5_reduce
I0403 15:07:13.146023 14125 net.cpp:425] inception_5b/relu_5x5_reduce <- inception_5b/5x5_reduce
I0403 15:07:13.146039 14125 net.cpp:386] inception_5b/relu_5x5_reduce -> inception_5b/5x5_reduce (in-place)
I0403 15:07:13.146414 14125 net.cpp:141] Setting up inception_5b/relu_5x5_reduce
I0403 15:07:13.146441 14125 net.cpp:148] Top shape: 24 48 7 7 (56448)
I0403 15:07:13.146456 14125 net.cpp:156] Memory required for data: 1334725152
I0403 15:07:13.146471 14125 layer_factory.hpp:77] Creating layer inception_5b/5x5
I0403 15:07:13.146491 14125 net.cpp:91] Creating Layer inception_5b/5x5
I0403 15:07:13.146512 14125 net.cpp:425] inception_5b/5x5 <- inception_5b/5x5_reduce
I0403 15:07:13.146533 14125 net.cpp:399] inception_5b/5x5 -> inception_5b/5x5
I0403 15:07:13.148628 14125 net.cpp:141] Setting up inception_5b/5x5
I0403 15:07:13.148658 14125 net.cpp:148] Top shape: 24 128 7 7 (150528)
I0403 15:07:13.148674 14125 net.cpp:156] Memory required for data: 1335327264
I0403 15:07:13.148694 14125 layer_factory.hpp:77] Creating layer inception_5b/relu_5x5
I0403 15:07:13.148711 14125 net.cpp:91] Creating Layer inception_5b/relu_5x5
I0403 15:07:13.148727 14125 net.cpp:425] inception_5b/relu_5x5 <- inception_5b/5x5
I0403 15:07:13.148746 14125 net.cpp:386] inception_5b/relu_5x5 -> inception_5b/5x5 (in-place)
I0403 15:07:13.148943 14125 net.cpp:141] Setting up inception_5b/relu_5x5
I0403 15:07:13.148968 14125 net.cpp:148] Top shape: 24 128 7 7 (150528)
I0403 15:07:13.148983 14125 net.cpp:156] Memory required for data: 1335929376
I0403 15:07:13.148998 14125 layer_factory.hpp:77] Creating layer inception_5b/pool
I0403 15:07:13.149014 14125 net.cpp:91] Creating Layer inception_5b/pool
I0403 15:07:13.149030 14125 net.cpp:425] inception_5b/pool <- inception_5a/output_inception_5a/output_0_split_3
I0403 15:07:13.149050 14125 net.cpp:399] inception_5b/pool -> inception_5b/pool
I0403 15:07:13.149124 14125 net.cpp:141] Setting up inception_5b/pool
I0403 15:07:13.149148 14125 net.cpp:148] Top shape: 24 832 7 7 (978432)
I0403 15:07:13.149163 14125 net.cpp:156] Memory required for data: 1339843104
I0403 15:07:13.149178 14125 layer_factory.hpp:77] Creating layer inception_5b/pool_proj
I0403 15:07:13.149200 14125 net.cpp:91] Creating Layer inception_5b/pool_proj
I0403 15:07:13.149219 14125 net.cpp:425] inception_5b/pool_proj <- inception_5b/pool
I0403 15:07:13.149235 14125 net.cpp:399] inception_5b/pool_proj -> inception_5b/pool_proj
I0403 15:07:13.151569 14125 net.cpp:141] Setting up inception_5b/pool_proj
I0403 15:07:13.151599 14125 net.cpp:148] Top shape: 24 128 7 7 (150528)
I0403 15:07:13.151615 14125 net.cpp:156] Memory required for data: 1340445216
I0403 15:07:13.151633 14125 layer_factory.hpp:77] Creating layer inception_5b/relu_pool_proj
I0403 15:07:13.151650 14125 net.cpp:91] Creating Layer inception_5b/relu_pool_proj
I0403 15:07:13.151665 14125 net.cpp:425] inception_5b/relu_pool_proj <- inception_5b/pool_proj
I0403 15:07:13.151682 14125 net.cpp:386] inception_5b/relu_pool_proj -> inception_5b/pool_proj (in-place)
I0403 15:07:13.151975 14125 net.cpp:141] Setting up inception_5b/relu_pool_proj
I0403 15:07:13.152004 14125 net.cpp:148] Top shape: 24 128 7 7 (150528)
I0403 15:07:13.152019 14125 net.cpp:156] Memory required for data: 1341047328
I0403 15:07:13.152034 14125 layer_factory.hpp:77] Creating layer inception_5b/output
I0403 15:07:13.152050 14125 net.cpp:91] Creating Layer inception_5b/output
I0403 15:07:13.152079 14125 net.cpp:425] inception_5b/output <- inception_5b/1x1
I0403 15:07:13.152096 14125 net.cpp:425] inception_5b/output <- inception_5b/3x3
I0403 15:07:13.152112 14125 net.cpp:425] inception_5b/output <- inception_5b/5x5
I0403 15:07:13.152127 14125 net.cpp:425] inception_5b/output <- inception_5b/pool_proj
I0403 15:07:13.152143 14125 net.cpp:399] inception_5b/output -> inception_5b/output
I0403 15:07:13.152194 14125 net.cpp:141] Setting up inception_5b/output
I0403 15:07:13.152218 14125 net.cpp:148] Top shape: 24 1024 7 7 (1204224)
I0403 15:07:13.152232 14125 net.cpp:156] Memory required for data: 1345864224
I0403 15:07:13.152246 14125 layer_factory.hpp:77] Creating layer pool5/7x7_s1
I0403 15:07:13.152264 14125 net.cpp:91] Creating Layer pool5/7x7_s1
I0403 15:07:13.152281 14125 net.cpp:425] pool5/7x7_s1 <- inception_5b/output
I0403 15:07:13.152298 14125 net.cpp:399] pool5/7x7_s1 -> pool5/7x7_s1
I0403 15:07:13.152513 14125 net.cpp:141] Setting up pool5/7x7_s1
I0403 15:07:13.152541 14125 net.cpp:148] Top shape: 24 1024 1 1 (24576)
I0403 15:07:13.152556 14125 net.cpp:156] Memory required for data: 1345962528
I0403 15:07:13.152570 14125 layer_factory.hpp:77] Creating layer pool5/drop_7x7_s1
I0403 15:07:13.152586 14125 net.cpp:91] Creating Layer pool5/drop_7x7_s1
I0403 15:07:13.152602 14125 net.cpp:425] pool5/drop_7x7_s1 <- pool5/7x7_s1
I0403 15:07:13.152619 14125 net.cpp:386] pool5/drop_7x7_s1 -> pool5/7x7_s1 (in-place)
I0403 15:07:13.152669 14125 net.cpp:141] Setting up pool5/drop_7x7_s1
I0403 15:07:13.152693 14125 net.cpp:148] Top shape: 24 1024 1 1 (24576)
I0403 15:07:13.152705 14125 net.cpp:156] Memory required for data: 1346060832
I0403 15:07:13.152720 14125 layer_factory.hpp:77] Creating layer loss3/classifier_plantvillage
I0403 15:07:13.152741 14125 net.cpp:91] Creating Layer loss3/classifier_plantvillage
I0403 15:07:13.152757 14125 net.cpp:425] loss3/classifier_plantvillage <- pool5/7x7_s1
I0403 15:07:13.152776 14125 net.cpp:399] loss3/classifier_plantvillage -> loss3/classifier_plantvillage
I0403 15:07:13.153189 14125 net.cpp:141] Setting up loss3/classifier_plantvillage
I0403 15:07:13.153213 14125 net.cpp:148] Top shape: 24 38 (912)
I0403 15:07:13.153228 14125 net.cpp:156] Memory required for data: 1346064480
I0403 15:07:13.153244 14125 layer_factory.hpp:77] Creating layer loss3/classifier_plantvillage_loss3/classifier_plantvillage_0_split
I0403 15:07:13.153262 14125 net.cpp:91] Creating Layer loss3/classifier_plantvillage_loss3/classifier_plantvillage_0_split
I0403 15:07:13.153277 14125 net.cpp:425] loss3/classifier_plantvillage_loss3/classifier_plantvillage_0_split <- loss3/classifier_plantvillage
I0403 15:07:13.153296 14125 net.cpp:399] loss3/classifier_plantvillage_loss3/classifier_plantvillage_0_split -> loss3/classifier_plantvillage_loss3/classifier_plantvillage_0_split_0
I0403 15:07:13.153317 14125 net.cpp:399] loss3/classifier_plantvillage_loss3/classifier_plantvillage_0_split -> loss3/classifier_plantvillage_loss3/classifier_plantvillage_0_split_1
I0403 15:07:13.153337 14125 net.cpp:399] loss3/classifier_plantvillage_loss3/classifier_plantvillage_0_split -> loss3/classifier_plantvillage_loss3/classifier_plantvillage_0_split_2
I0403 15:07:13.153355 14125 net.cpp:399] loss3/classifier_plantvillage_loss3/classifier_plantvillage_0_split -> loss3/classifier_plantvillage_loss3/classifier_plantvillage_0_split_3
I0403 15:07:13.153460 14125 net.cpp:141] Setting up loss3/classifier_plantvillage_loss3/classifier_plantvillage_0_split
I0403 15:07:13.153481 14125 net.cpp:148] Top shape: 24 38 (912)
I0403 15:07:13.153496 14125 net.cpp:148] Top shape: 24 38 (912)
I0403 15:07:13.153518 14125 net.cpp:148] Top shape: 24 38 (912)
I0403 15:07:13.153533 14125 net.cpp:148] Top shape: 24 38 (912)
I0403 15:07:13.153547 14125 net.cpp:156] Memory required for data: 1346079072
I0403 15:07:13.153560 14125 layer_factory.hpp:77] Creating layer loss1/loss
I0403 15:07:13.153589 14125 net.cpp:91] Creating Layer loss1/loss
I0403 15:07:13.153605 14125 net.cpp:425] loss1/loss <- loss1/classifier_plantvillage_loss1/classifier_plantvillage_0_split_0
I0403 15:07:13.153636 14125 net.cpp:425] loss1/loss <- label_data_1_split_0
…
