…
I0403 15:50:54.420333 16119 net.cpp:313] The NetState phase (1) differed from the phase (0) specified by a rule in layer data
I0403 15:50:54.421468 16119 net.cpp:49] Initializing net from parameters: 
state {
  phase: TEST
}
layer {
  name: "data"
  type: "Data"
  top: "data"
  top: "label"
  include {
    phase: TEST
  }
  transform_param {
    mirror: false
    crop_size: 224
    mean_file: "/home/mohanty/data/final_dataset/lmdb/color-50-50/mean.binaryproto"
  }
  data_param {
    source: "/home/mohanty/data/final_dataset/lmdb/color-50-50/test_db"
    batch_size: 24
    backend: LMDB
  }
}
layer {
  name: "conv1/7x7_s2"
  type: "Convolution"
  bottom: "data"
  top: "conv1/7x7_s2"
  param {
    lr_mult: 1
    decay_mult: 1
  }
  param {
    lr_mult: 2
    decay_mult: 0
  }
  convolution_param {
    num_output: 64
    pad: 3
    kernel_size: 7
    stride: 2
    weight_filler {
      type: "xavier"
      std: 0.1
    }
    bias_filler {
      type: "constant"
      value: 0.2
    }
  }
}
layer {
  name: "conv1/relu_7x7"
  type: "ReLU"
  bottom: "conv1/7x7_s2"
  top: "conv1/7x7_s2"
}
layer {
  name: "pool1/3x3_s2"
  type: "Pooling"
  bottom: "conv1/7x7_s2"
  top: "pool1/3x3_s2"
  pooling_param {
    pool: MAX
    kernel_size: 3
    stride: 2
  }
}
layer {
  name: "pool1/norm1"
  type: "LRN"
  bottom: "pool1/3x3_s2"
  top: "pool1/norm1"
  lrn_param {
    local_size: 5
    alpha: 0.0001
    beta: 0.75
  }
}
layer {
  name: "conv2/3x3_reduce"
  type: "Convolution"
  bottom: "pool1/norm1"
  top: "conv2/3x3_reduce"
  param {
    lr_mult: 1
    decay_mult: 1
  }
  param {
    lr_mult: 2
    decay_mult: 0
  }
  convolution_param {
    num_output: 64
    kernel_size: 1
    weight_filler {
      type: "xavier"
      std: 0.1
    }
    bias_filler {
      type: "constant"
      value: 0.2
    }
  }
}
layer {
  name: "conv2/relu_3x3_reduce"
  type: "ReLU"
  bottom: "conv2/3x3_reduce"
  top: "conv2/3x3_reduce"
}
layer {
  name: "conv2/3x3"
  type: "Convolution"
  bottom: "conv2/3x3_reduce"
  top: "conv2/3x3"
  param {
    lr_mult: 1
    decay_mult: 1
  }
  param {
    lr_mult: 2
    decay_mult: 0
  }
  convolution_param {
    num_output: 192
    pad: 1
    kernel_size: 3
    weight_filler {
      type: "xavier"
      std: 0.03
    }
    bias_filler {
      type: "constant"
      value: 0.2
    }
  }
}
layer {
  name: "conv2/relu_3x3"
  type: "ReLU"
  bottom: "conv2/3x3"
  top: "conv2/3x3"
}
layer {
  name: "conv2/norm2"
  type: "LRN"
  bottom: "conv2/3x3"
  top: "conv2/norm2"
  lrn_param {
    local_size: 5
    alpha: 0.0001
    beta: 0.75
  }
}
layer {
  name: "pool2/3x3_s2"
  type: "Pooling"
  bottom: "conv2/norm2"
  top: "pool2/3x3_s2"
  pooling_param {
    pool: MAX
    kernel_size: 3
    stride: 2
  }
}
layer {
  name: "inception_3a/1x1"
  type: "Convolution"
  bottom: "pool2/3x3_s2"
  top: "inception_3a/1x1"
  param {
    lr_mult: 1
    decay_mult: 1
  }
  param {
    lr_mult: 2
    decay_mult: 0
  }
  convolution_param {
    num_output: 64
    kernel_size: 1
    weight_filler {
      type: "xavier"
      std: 0.03
    }
    bias_filler {
      type: "constant"
      value: 0.2
    }
  }
}
layer {
  name: "inception_3a/relu_1x1"
  type: "ReLU"
  bottom: "inception_3a/1x1"
  top: "inception_3a/1x1"
}
layer {
  name: "inception_3a/3x3_reduce"
  type: "Convolution"
  bottom: "pool2/3x3_s2"
  top: "inception_3a/3x3_reduce"
  param {
    lr_mult: 1
    decay_mult: 1
  }
  param {
    lr_mult: 2
    decay_mult: 0
  }
  convolution_param {
    num_output: 96
    kernel_size: 1
    weight_filler {
      type: "xavier"
      std: 0.09
    }
    bias_filler {
      type: "constant"
      value: 0.2
    }
  }
}
layer {
  name: "inception_3a/relu_3x3_reduce"
  type: "ReLU"
  bottom: "inception_3a/3x3_reduce"
  top: "inception_3a/3x3_reduce"
}
layer {
  name: "inception_3a/3x3"
  type: "Convolution"
  bottom: "inception_3a/3x3_reduce"
  top: "inception_3a/3x3"
  param {
    lr_mult: 1
    decay_mult: 1
  }
  param {
    lr_mult: 2
    decay_mult: 0
  }
  convolution_param {
    num_output: 128
    pad: 1
    kernel_size: 3
    weight_filler {
      type: "xavier"
      std: 0.03
    }
    bias_filler {
      type: "constant"
      value: 0.2
    }
  }
}
layer {
  name: "inception_3a/relu_3x3"
  type: "ReLU"
  bottom: "inception_3a/3x3"
  top: "inception_3a/3x3"
}
layer {
  name: "inception_3a/5x5_reduce"
  type: "Convolution"
  bottom: "pool2/3x3_s2"
  top: "inception_3a/5x5_reduce"
  param {
    lr_mult: 1
    decay_mult: 1
  }
  param {
    lr_mult: 2
    decay_mult: 0
  }
  convolution_param {
    num_output: 16
    kernel_size: 1
    weight_filler {
      type: "xavier"
      std: 0.2
    }
    bias_filler {
      type: "constant"
      value: 0.2
    }
  }
}
layer {
  name: "inception_3a/relu_5x5_reduce"
  type: "ReLU"
  bottom: "inception_3a/5x5_reduce"
  top: "inception_3a/5x5_reduce"
}
layer {
  name: "inception_3a/5x5"
  type: "Convolution"
  bottom: "inception_3a/5x5_reduce"
  top: "inception_3a/5x5"
  param {
    lr_mult: 1
    decay_mult: 1
  }
  param {
    lr_mult: 2
    decay_mult: 0
  }
  convolution_param {
    num_output: 32
    pad: 2
    kernel_size: 5
    weight_filler {
      type: "xavier"
      std: 0.03
    }
    bias_filler {
      type: "constant"
      value: 0.2
    }
  }
}
layer {
  name: "inception_3a/relu_5x5"
  type: "ReLU"
  bottom: "inception_3a/5x5"
  top: "inception_3a/5x5"
}
layer {
  name: "inception_3a/pool"
  type: "Pooling"
  bottom: "pool2/3x3_s2"
  top: "inception_3a/pool"
  pooling_param {
    pool: MAX
    kernel_size: 3
    stride: 1
    pad: 1
  }
}
layer {
  name: "inception_3a/pool_proj"
  type: "Convolution"
  bottom: "inception_3a/pool"
  top: "inception_3a/pool_proj"
  param {
    lr_mult: 1
    decay_mult: 1
  }
  param {
    lr_mult: 2
    decay_mult: 0
  }
  convolution_param {
    num_output: 32
    kernel_size: 1
    weight_filler {
      type: "xavier"
      std: 0.1
    }
    bias_filler {
      type: "constant"
      value: 0.2
    }
  }
}
layer {
  name: "inception_3a/relu_pool_proj"
  type: "ReLU"
  bottom: "inception_3a/pool_proj"
  top: "inception_3a/pool_proj"
}
layer {
  name: "inception_3a/output"
  type: "Concat"
  bottom: "inception_3a/1x1"
  bottom: "inception_3a/3x3"
  bottom: "inception_3a/5x5"
  bottom: "inception_3a/pool_proj"
  top: "inception_3a/output"
}
layer {
  name: "inception_3b/1x1"
  type: "Convolution"
  bottom: "inception_3a/output"
  top: "inception_3b/1x1"
  param {
    lr_mult: 1
    decay_mult: 1
  }
  param {
    lr_mult: 2
    decay_mult: 0
  }
  convolution_param {
    num_output: 128
    kernel_size: 1
    weight_filler {
      type: "xavier"
      std: 0.03
    }
    bias_filler {
      type: "constant"
      value: 0.2
    }
  }
}
layer {
  name: "inception_3b/relu_1x1"
  type: "ReLU"
  bottom: "inception_3b/1x1"
  top: "inception_3b/1x1"
}
layer {
  name: "inception_3b/3x3_reduce"
  type: "Convolution"
  bottom: "inception_3a/output"
  top: "inception_3b/3x3_reduce"
  param {
    lr_mult: 1
    decay_mult: 1
  }
  param {
    lr_mult: 2
    decay_mult: 0
  }
  convolution_param {
    num_output: 128
    kernel_size: 1
    weight_filler {
      type: "xavier"
      std: 0.09
    }
    bias_filler {
      type: "constant"
      value: 0.2
    }
  }
}
layer {
  name: "inception_3b/relu_3x3_reduce"
  type: "ReLU"
  bottom: "inception_3b/3x3_reduce"
  top: "inception_3b/3x3_reduce"
}
layer {
  name: "inception_3b/3x3"
  type: "Convolution"
  bottom: "inception_3b/3x3_reduce"
  top: "inception_3b/3x3"
  param {
    lr_mult: 1
    decay_mult: 1
  }
  param {
    lr_mult: 2
    decay_mult: 0
  }
  convolution_param {
    num_output: 192
    pad: 1
    kernel_size: 3
    weight_filler {
      type: "xavier"
      std: 0.03
    }
    bias_filler {
      type: "constant"
      value: 0.2
    }
  }
}
layer {
  name: "inception_3b/relu_3x3"
  type: "ReLU"
  bottom: "inception_3b/3x3"
  top: "inception_3b/3x3"
}
layer {
  name: "inception_3b/5x5_reduce"
  type: "Convolution"
  bottom: "inception_3a/output"
  top: "inception_3b/5x5_reduce"
  param {
    lr_mult: 1
    decay_mult: 1
  }
  param {
    lr_mult: 2
    decay_mult: 0
  }
  convolution_param {
    num_output: 32
    kernel_size: 1
    weight_filler {
      type: "xavier"
      std: 0.2
    }
    bias_filler {
      type: "constant"
      value: 0.2
    }
  }
}
layer {
  name: "inception_3b/relu_5x5_reduce"
  type: "ReLU"
  bottom: "inception_3b/5x5_reduce"
  top: "inception_3b/5x5_reduce"
}
layer {
  name: "inception_3b/5x5"
  type: "Convolution"
  bottom: "inception_3b/5x5_reduce"
  top: "inception_3b/5x5"
  param {
    lr_mult: 1
    decay_mult: 1
  }
  param {
    lr_mult: 2
    decay_mult: 0
  }
  convolution_param {
    num_output: 96
    pad: 2
    kernel_size: 5
    weight_filler {
      type: "xavier"
      std: 0.03
    }
    bias_filler {
      type: "constant"
      value: 0.2
    }
  }
}
layer {
  name: "inception_3b/relu_5x5"
  type: "ReLU"
  bottom: "inception_3b/5x5"
  top: "inception_3b/5x5"
}
layer {
  name: "inception_3b/pool"
  type: "Pooling"
  bottom: "inception_3a/output"
  top: "inception_3b/pool"
  pooling_param {
    pool: MAX
    kernel_size: 3
    stride: 1
    pad: 1
  }
}
layer {
  name: "inception_3b/pool_proj"
  type: "Convolution"
  bottom: "inception_3b/pool"
  top: "inception_3b/pool_proj"
  param {
    lr_mult: 1
    decay_mult: 1
  }
  param {
    lr_mult: 2
    decay_mult: 0
  }
  convolution_param {
    num_output: 64
    kernel_size: 1
    weight_filler {
      type: "xavier"
      std: 0.1
    }
    bias_filler {
      type: "constant"
      value: 0.2
    }
  }
}
layer {
  name: "inception_3b/relu_pool_proj"
  type: "ReLU"
  bottom: "inception_3b/pool_proj"
  top: "inception_3b/pool_proj"
}
layer {
  name: "inception_3b/output"
  type: "Concat"
  bottom: "inception_3b/1x1"
  bottom: "inception_3b/3x3"
  bottom: "inception_3b/5x5"
  bottom: "inception_3b/pool_proj"
  top: "inception_3b/output"
}
layer {
  name: "pool3/3x3_s2"
  type: "Pooling"
  bottom: "inception_3b/output"
  top: "pool3/3x3_s2"
  pooling_param {
    pool: MAX
    kernel_size: 3
    stride: 2
  }
}
layer {
  name: "inception_4a/1x1"
  type: "Convolution"
  bottom: "pool3/3x3_s2"
  top: "inception_4a/1x1"
  param {
    lr_mult: 1
    decay_mult: 1
  }
  param {
    lr_mult: 2
    decay_mult: 0
  }
  convolution_param {
    num_output: 192
    kernel_size: 1
    weight_filler {
      type: "xavier"
      std: 0.03
    }
    bias_filler {
      type: "constant"
      value: 0.2
    }
  }
}
layer {
  name: "inception_4a/relu_1x1"
  type: "ReLU"
  bottom: "inception_4a/1x1"
  top: "inception_4a/1x1"
}
layer {
  name: "inception_4a/3x3_reduce"
  type: "Convolution"
  bottom: "pool3/3x3_s2"
  top: "inception_4a/3x3_reduce"
  param {
    lr_mult: 1
    decay_mult: 1
  }
  param {
    lr_mult: 2
    decay_mult: 0
  }
  convolution_param {
    num_output: 96
    kernel_size: 1
    weight_filler {
      type: "xavier"
      std: 0.09
    }
    bias_filler {
      type: "constant"
      value: 0.2
    }
  }
}
layer {
  name: "inception_4a/relu_3x3_reduce"
  type: "ReLU"
  bottom: "inception_4a/3x3_reduce"
  top: "inception_4a/3x3_reduce"
}
layer {
  name: "inception_4a/3x3"
  type: "Convolution"
  bottom: "inception_4a/3x3_reduce"
  top: "inception_4a/3x3"
  param {
    lr_mult: 1
    decay_mult: 1
  }
  param {
    lr_mult: 2
    decay_mult: 0
  }
  convolution_param {
    num_output: 208
    pad: 1
    kernel_size: 3
    weight_filler {
      type: "xavier"
      std: 0.03
    }
    bias_filler {
      type: "constant"
      value: 0.2
    }
  }
}
layer {
  name: "inception_4a/relu_3x3"
  type: "ReLU"
  bottom: "inception_4a/3x3"
  top: "inception_4a/3x3"
}
layer {
  name: "inception_4a/5x5_reduce"
  type: "Convolution"
  bottom: "pool3/3x3_s2"
  top: "inception_4a/5x5_reduce"
  param {
    lr_mult: 1
    decay_mult: 1
  }
  param {
    lr_mult: 2
    decay_mult: 0
  }
  convolution_param {
    num_output: 16
    kernel_size: 1
    weight_filler {
      type: "xavier"
      std: 0.2
    }
    bias_filler {
      type: "constant"
      value: 0.2
    }
  }
}
layer {
  name: "inception_4a/relu_5x5_reduce"
  type: "ReLU"
  bottom: "inception_4a/5x5_reduce"
  top: "inception_4a/5x5_reduce"
}
layer {
  name: "inception_4a/5x5"
  type: "Convolution"
  bottom: "inception_4a/5x5_reduce"
  top: "inception_4a/5x5"
  param {
    lr_mult: 1
    decay_mult: 1
  }
  param {
    lr_mult: 2
    decay_mult: 0
  }
  convolution_param {
    num_output: 48
    pad: 2
    kernel_size: 5
    weight_filler {
      type: "xavier"
      std: 0.03
    }
    bias_filler {
      type: "constant"
      value: 0.2
    }
  }
}
layer {
  name: "inception_4a/relu_5x5"
  type: "ReLU"
  bottom: "inception_4a/5x5"
  top: "inception_4a/5x5"
}
layer {
  name: "inception_4a/pool"
  type: "Pooling"
  bottom: "pool3/3x3_s2"
  top: "inception_4a/pool"
  pooling_param {
    pool: MAX
    kernel_size: 3
    stride: 1
    pad: 1
  }
}
layer {
  name: "inception_4a/pool_proj"
  type: "Convolution"
  bottom: "inception_4a/pool"
  top: "inception_4a/pool_proj"
  param {
    lr_mult: 1
    decay_mult: 1
  }
  param {
    lr_mult: 2
    decay_mult: 0
  }
  convolution_param {
    num_output: 64
    kernel_size: 1
    weight_filler {
      type: "xavier"
      std: 0.1
    }
    bias_filler {
      type: "constant"
      value: 0.2
    }
  }
}
layer {
  name: "inception_4a/relu_pool_proj"
  type: "ReLU"
  bottom: "inception_4a/pool_proj"
  top: "inception_4a/pool_proj"
}
layer {
  name: "inception_4a/output"
  type: "Concat"
  bottom: "inception_4a/1x1"
  bottom: "inception_4a/3x3"
  bottom: "inception_4a/5x5"
  bottom: "inception_4a/pool_proj"
  top: "inception_4a/output"
}
layer {
  name: "loss1/ave_pool"
  type: "Pooling"
  bottom: "inception_4a/output"
  top: "loss1/ave_pool"
  pooling_param {
    pool: AVE
    kernel_size: 5
    stride: 3
  }
}
layer {
  name: "loss1/conv"
  type: "Convolution"
  bottom: "loss1/ave_pool"
  top: "loss1/conv"
  param {
    lr_mult: 1
    decay_mult: 1
  }
  param {
    lr_mult: 2
    decay_mult: 0
  }
  convolution_param {
    num_output: 128
    kernel_size: 1
    weight_filler {
      type: "xavier"
      std: 0.08
    }
    bias_filler {
      type: "constant"
      value: 0.2
    }
  }
}
layer {
  name: "loss1/relu_conv"
  type: "ReLU"
  bottom: "loss1/conv"
  top: "loss1/conv"
}
layer {
  name: "loss1/fc"
  type: "InnerProduct"
  bottom: "loss1/conv"
  top: "loss1/fc"
  param {
    lr_mult: 1
    decay_mult: 1
  }
  param {
    lr_mult: 2
    decay_mult: 0
  }
  inner_product_param {
    num_output: 1024
    weight_filler {
      type: "xavier"
      std: 0.02
    }
    bias_filler {
      type: "constant"
      value: 0.2
    }
  }
}
layer {
  name: "loss1/relu_fc"
  type: "ReLU"
  bottom: "loss1/fc"
  top: "loss1/fc"
}
layer {
  name: "loss1/drop_fc"
  type: "Dropout"
  bottom: "loss1/fc"
  top: "loss1/fc"
  dropout_param {
    dropout_ratio: 0.7
  }
}
layer {
  name: "loss1/classifier_plantvillage"
  type: "InnerProduct"
  bottom: "loss1/fc"
  top: "loss1/classifier_plantvillage"
  param {
    lr_mult: 1
    decay_mult: 1
  }
  param {
    lr_mult: 2
    decay_mult: 0
  }
  inner_product_param {
    num_output: 38
    weight_filler {
      type: "xavier"
      std: 0.0009765625
    }
    bias_filler {
      type: "constant"
      value: 0
    }
  }
}
layer {
  name: "inception_4b/1x1"
  type: "Convolution"
  bottom: "inception_4a/output"
  top: "inception_4b/1x1"
  param {
    lr_mult: 1
    decay_mult: 1
  }
  param {
    lr_mult: 2
    decay_mult: 0
  }
  convolution_param {
    num_output: 160
    kernel_size: 1
    weight_filler {
      type: "xavier"
      std: 0.03
    }
    bias_filler {
      type: "constant"
      value: 0.2
    }
  }
}
layer {
  name: "inception_4b/relu_1x1"
  type: "ReLU"
  bottom: "inception_4b/1x1"
  top: "inception_4b/1x1"
}
layer {
  name: "inception_4b/3x3_reduce"
  type: "Convolution"
  bottom: "inception_4a/output"
  top: "inception_4b/3x3_reduce"
  param {
    lr_mult: 1
    decay_mult: 1
  }
  param {
    lr_mult: 2
    decay_mult: 0
  }
  convolution_param {
    num_output: 112
    kernel_size: 1
    weight_filler {
      type: "xavier"
      std: 0.09
    }
    bias_filler {
      type: "constant"
      value: 0.2
    }
  }
}
layer {
  name: "inception_4b/relu_3x3_reduce"
  type: "ReLU"
  bottom: "inception_4b/3x3_reduce"
  top: "inception_4b/3x3_reduce"
}
layer {
  name: "inception_4b/3x3"
  type: "Convolution"
  bottom: "inception_4b/3x3_reduce"
  top: "inception_4b/3x3"
  param {
    lr_mult: 1
    decay_mult: 1
  }
  param {
    lr_mult: 2
    decay_mult: 0
  }
  convolution_param {
    num_output: 224
    pad: 1
    kernel_size: 3
    weight_filler {
      type: "xavier"
      std: 0.03
    }
    bias_filler {
      type: "constant"
      value: 0.2
    }
  }
}
layer {
  name: "inception_4b/relu_3x3"
  type: "ReLU"
  bottom: "inception_4b/3x3"
  top: "inception_4b/3x3"
}
layer {
  name: "inception_4b/5x5_reduce"
  type: "Convolution"
  bottom: "inception_4a/output"
  top: "inception_4b/5x5_reduce"
  param {
    lr_mult: 1
    decay_mult: 1
  }
  param {
    lr_mult: 2
    decay_mult: 0
  }
  convolution_param {
    num_output: 24
    kernel_size: 1
    weight_filler {
      type: "xavier"
      std: 0.2
    }
    bias_filler {
      type: "constant"
      value: 0.2
    }
  }
}
layer {
  name: "inception_4b/relu_5x5_reduce"
  type: "ReLU"
  bottom: "inception_4b/5x5_reduce"
  top: "inception_4b/5x5_reduce"
}
layer {
  name: "inception_4b/5x5"
  type: "Convolution"
  bottom: "inception_4b/5x5_reduce"
  top: "inception_4b/5x5"
  param {
    lr_mult: 1
    decay_mult: 1
  }
  param {
    lr_mult: 2
    decay_mult: 0
  }
  convolution_param {
    num_output: 64
    pad: 2
    kernel_size: 5
    weight_filler {
      type: "xavier"
      std: 0.03
    }
    bias_filler {
      type: "constant"
      value: 0.2
    }
  }
}
layer {
  name: "inception_4b/relu_5x5"
  type: "ReLU"
  bottom: "inception_4b/5x5"
  top: "inception_4b/5x5"
}
layer {
  name: "inception_4b/pool"
  type: "Pooling"
  bottom: "inception_4a/output"
  top: "inception_4b/pool"
  pooling_param {
    pool: MAX
    kernel_size: 3
    stride: 1
    pad: 1
  }
}
layer {
  name: "inception_4b/pool_proj"
  type: "Convolution"
  bottom: "inception_4b/pool"
  top: "inception_4b/pool_proj"
  param {
    lr_mult: 1
    decay_mult: 1
  }
  param {
    lr_mult: 2
    decay_mult: 0
  }
  convolution_param {
    num_output: 64
    kernel_size: 1
    weight_filler {
      type: "xavier"
      std: 0.1
    }
    bias_filler {
      type: "constant"
      value: 0.2
    }
  }
}
layer {
  name: "inception_4b/relu_pool_proj"
  type: "ReLU"
  bottom: "inception_4b/pool_proj"
  top: "inception_4b/pool_proj"
}
layer {
  name: "inception_4b/output"
  type: "Concat"
  bottom: "inception_4b/1x1"
  bottom: "inception_4b/3x3"
  bottom: "inception_4b/5x5"
  bottom: "inception_4b/pool_proj"
  top: "inception_4b/output"
}
layer {
  name: "inception_4c/1x1"
  type: "Convolution"
  bottom: "inception_4b/output"
  top: "inception_4c/1x1"
  param {
    lr_mult: 1
    decay_mult: 1
  }
  param {
    lr_mult: 2
    decay_mult: 0
  }
  convolution_param {
    num_output: 128
    kernel_size: 1
    weight_filler {
      type: "xavier"
      std: 0.03
    }
    bias_filler {
      type: "constant"
      value: 0.2
    }
  }
}
layer {
  name: "inception_4c/relu_1x1"
  type: "ReLU"
  bottom: "inception_4c/1x1"
  top: "inception_4c/1x1"
}
layer {
  name: "inception_4c/3x3_reduce"
  type: "Convolution"
  bottom: "inception_4b/output"
  top: "inception_4c/3x3_reduce"
  param {
    lr_mult: 1
    decay_mult: 1
  }
  param {
    lr_mult: 2
    decay_mult: 0
  }
  convolution_param {
    num_output: 128
    kernel_size: 1
    weight_filler {
      type: "xavier"
      std: 0.09
    }
    bias_filler {
      type: "constant"
      value: 0.2
    }
  }
}
layer {
  name: "inception_4c/relu_3x3_reduce"
  type: "ReLU"
  bottom: "inception_4c/3x3_reduce"
  top: "inception_4c/3x3_reduce"
}
layer {
  name: "inception_4c/3x3"
  type: "Convolution"
  bottom: "inception_4c/3x3_reduce"
  top: "inception_4c/3x3"
  param {
    lr_mult: 1
    decay_mult: 1
  }
  param {
    lr_mult: 2
    decay_mult: 0
  }
  convolution_param {
    num_output: 256
    pad: 1
    kernel_size: 3
    weight_filler {
      type: "xavier"
      std: 0.03
    }
    bias_filler {
      type: "constant"
      value: 0.2
    }
  }
}
layer {
  name: "inception_4c/relu_3x3"
  type: "ReLU"
  bottom: "inception_4c/3x3"
  top: "inception_4c/3x3"
}
layer {
  name: "inception_4c/5x5_reduce"
  type: "Convolution"
  bottom: "inception_4b/output"
  top: "inception_4c/5x5_reduce"
  param {
    lr_mult: 1
    decay_mult: 1
  }
  param {
    lr_mult: 2
    decay_mult: 0
  }
  convolution_param {
    num_output: 24
    kernel_size: 1
    weight_filler {
      type: "xavier"
      std: 0.2
    }
    bias_filler {
      type: "constant"
      value: 0.2
    }
  }
}
layer {
  name: "inception_4c/relu_5x5_reduce"
  type: "ReLU"
  bottom: "inception_4c/5x5_reduce"
  top: "inception_4c/5x5_reduce"
}
layer {
  name: "inception_4c/5x5"
  type: "Convolution"
  bottom: "inception_4c/5x5_reduce"
  top: "inception_4c/5x5"
  param {
    lr_mult: 1
    decay_mult: 1
  }
  param {
    lr_mult: 2
    decay_mult: 0
  }
  convolution_param {
    num_output: 64
    pad: 2
    kernel_size: 5
    weight_filler {
      type: "xavier"
      std: 0.03
    }
    bias_filler {
      type: "constant"
      value: 0.2
    }
  }
}
layer {
  name: "inception_4c/relu_5x5"
  type: "ReLU"
  bottom: "inception_4c/5x5"
  top: "inception_4c/5x5"
}
layer {
  name: "inception_4c/pool"
  type: "Pooling"
  bottom: "inception_4b/output"
  top: "inception_4c/pool"
  pooling_param {
    pool: MAX
    kernel_size: 3
    stride: 1
    pad: 1
  }
}
layer {
  name: "inception_4c/pool_proj"
  type: "Convolution"
  bottom: "inception_4c/pool"
  top: "inception_4c/pool_proj"
  param {
    lr_mult: 1
    decay_mult: 1
  }
  param {
    lr_mult: 2
    decay_mult: 0
  }
  convolution_param {
    num_output: 64
    kernel_size: 1
    weight_filler {
      type: "xavier"
      std: 0.1
    }
    bias_filler {
      type: "constant"
      value: 0.2
    }
  }
}
layer {
  name: "inception_4c/relu_pool_proj"
  type: "ReLU"
  bottom: "inception_4c/pool_proj"
  top: "inception_4c/pool_proj"
}
layer {
  name: "inception_4c/output"
  type: "Concat"
  bottom: "inception_4c/1x1"
  bottom: "inception_4c/3x3"
  bottom: "inception_4c/5x5"
  bottom: "inception_4c/pool_proj"
  top: "inception_4c/output"
}
layer {
  name: "inception_4d/1x1"
  type: "Convolution"
  bottom: "inception_4c/output"
  top: "inception_4d/1x1"
  param {
    lr_mult: 1
    decay_mult: 1
  }
  param {
    lr_mult: 2
    decay_mult: 0
  }
  convolution_param {
    num_output: 112
    kernel_size: 1
    weight_filler {
      type: "xavier"
      std: 0.03
    }
    bias_filler {
      type: "constant"
      value: 0.2
    }
  }
}
layer {
  name: "inception_4d/relu_1x1"
  type: "ReLU"
  bottom: "inception_4d/1x1"
  top: "inception_4d/1x1"
}
layer {
  name: "inception_4d/3x3_reduce"
  type: "Convolution"
  bottom: "inception_4c/output"
  top: "inception_4d/3x3_reduce"
  param {
    lr_mult: 1
    decay_mult: 1
  }
  param {
    lr_mult: 2
    decay_mult: 0
  }
  convolution_param {
    num_output: 144
    kernel_size: 1
    weight_filler {
      type: "xavier"
      std: 0.09
    }
    bias_filler {
      type: "constant"
      value: 0.2
    }
  }
}
layer {
  name: "inception_4d/relu_3x3_reduce"
  type: "ReLU"
  bottom: "inception_4d/3x3_reduce"
  top: "inception_4d/3x3_reduce"
}
layer {
  name: "inception_4d/3x3"
  type: "Convolution"
  bottom: "inception_4d/3x3_reduce"
  top: "inception_4d/3x3"
  param {
    lr_mult: 1
    decay_mult: 1
  }
  param {
    lr_mult: 2
    decay_mult: 0
  }
  convolution_param {
    num_output: 288
    pad: 1
    kernel_size: 3
    weight_filler {
      type: "xavier"
      std: 0.03
    }
    bias_filler {
      type: "constant"
      value: 0.2
    }
  }
}
layer {
  name: "inception_4d/relu_3x3"
  type: "ReLU"
  bottom: "inception_4d/3x3"
  top: "inception_4d/3x3"
}
layer {
  name: "inception_4d/5x5_reduce"
  type: "Convolution"
  bottom: "inception_4c/output"
  top: "inception_4d/5x5_reduce"
  param {
    lr_mult: 1
    decay_mult: 1
  }
  param {
    lr_mult: 2
    decay_mult: 0
  }
  convolution_param {
    num_output: 32
    kernel_size: 1
    weight_filler {
      type: "xavier"
      std: 0.2
    }
    bias_filler {
      type: "constant"
      value: 0.2
    }
  }
}
layer {
  name: "inception_4d/relu_5x5_reduce"
  type: "ReLU"
  bottom: "inception_4d/5x5_reduce"
  top: "inception_4d/5x5_reduce"
}
layer {
  name: "inception_4d/5x5"
  type: "Convolution"
  bottom: "inception_4d/5x5_reduce"
  top: "inception_4d/5x5"
  param {
    lr_mult: 1
    decay_mult: 1
  }
  param {
    lr_mult: 2
    decay_mult: 0
  }
  convolution_param {
    num_output: 64
    pad: 2
    kernel_size: 5
    weight_filler {
      type: "xavier"
      std: 0.03
    }
    bias_filler {
      type: "constant"
      value: 0.2
    }
  }
}
layer {
  name: "inception_4d/relu_5x5"
  type: "ReLU"
  bottom: "inception_4d/5x5"
  top: "inception_4d/5x5"
}
layer {
  name: "inception_4d/pool"
  type: "Pooling"
  bottom: "inception_4c/output"
  top: "inception_4d/pool"
  pooling_param {
    pool: MAX
    kernel_size: 3
    stride: 1
    pad: 1
  }
}
layer {
  name: "inception_4d/pool_proj"
  type: "Convolution"
  bottom: "inception_4d/pool"
  top: "inception_4d/pool_proj"
  param {
    lr_mult: 1
    decay_mult: 1
  }
  param {
    lr_mult: 2
    decay_mult: 0
  }
  convolution_param {
    num_output: 64
    kernel_size: 1
    weight_filler {
      type: "xavier"
      std: 0.1
    }
    bias_filler {
      type: "constant"
      value: 0.2
    }
  }
}
layer {
  name: "inception_4d/relu_pool_proj"
  type: "ReLU"
  bottom: "inception_4d/pool_proj"
  top: "inception_4d/pool_proj"
}
layer {
  name: "inception_4d/output"
  type: "Concat"
  bottom: "inception_4d/1x1"
  bottom: "inception_4d/3x3"
  bottom: "inception_4d/5x5"
  bottom: "inception_4d/pool_proj"
  top: "inception_4d/output"
}
layer {
  name: "loss2/ave_pool"
  type: "Pooling"
  bottom: "inception_4d/output"
  top: "loss2/ave_pool"
  pooling_param {
    pool: AVE
    kernel_size: 5
    stride: 3
  }
}
layer {
  name: "loss2/conv"
  type: "Convolution"
  bottom: "loss2/ave_pool"
  top: "loss2/conv"
  param {
    lr_mult: 1
    decay_mult: 1
  }
  param {
    lr_mult: 2
    decay_mult: 0
  }
  convolution_param {
    num_output: 128
    kernel_size: 1
    weight_filler {
      type: "xavier"
      std: 0.08
    }
    bias_filler {
      type: "constant"
      value: 0.2
    }
  }
}
layer {
  name: "loss2/relu_conv"
  type: "ReLU"
  bottom: "loss2/conv"
  top: "loss2/conv"
}
layer {
  name: "loss2/fc"
  type: "InnerProduct"
  bottom: "loss2/conv"
  top: "loss2/fc"
  param {
    lr_mult: 1
    decay_mult: 1
  }
  param {
    lr_mult: 2
    decay_mult: 0
  }
  inner_product_param {
    num_output: 1024
    weight_filler {
      type: "xavier"
      std: 0.02
    }
    bias_filler {
      type: "constant"
      value: 0.2
    }
  }
}
layer {
  name: "loss2/relu_fc"
  type: "ReLU"
  bottom: "loss2/fc"
  top: "loss2/fc"
}
layer {
  name: "loss2/drop_fc"
  type: "Dropout"
  bottom: "loss2/fc"
  top: "loss2/fc"
  dropout_param {
    dropout_ratio: 0.7
  }
}
layer {
  name: "loss2/classifier_plantvillage"
  type: "InnerProduct"
  bottom: "loss2/fc"
  top: "loss2/classifier_plantvillage"
  param {
    lr_mult: 1
    decay_mult: 1
  }
  param {
    lr_mult: 2
    decay_mult: 0
  }
  inner_product_param {
    num_output: 38
    weight_filler {
      type: "xavier"
      std: 0.0009765625
    }
    bias_filler {
      type: "constant"
      value: 0
    }
  }
}
layer {
  name: "inception_4e/1x1"
  type: "Convolution"
  bottom: "inception_4d/output"
  top: "inception_4e/1x1"
  param {
    lr_mult: 1
    decay_mult: 1
  }
  param {
    lr_mult: 2
    decay_mult: 0
  }
  convolution_param {
    num_output: 256
    kernel_size: 1
    weight_filler {
      type: "xavier"
      std: 0.03
    }
    bias_filler {
      type: "constant"
      value: 0.2
    }
  }
}
layer {
  name: "inception_4e/relu_1x1"
  type: "ReLU"
  bottom: "inception_4e/1x1"
  top: "inception_4e/1x1"
}
layer {
  name: "inception_4e/3x3_reduce"
  type: "Convolution"
  bottom: "inception_4d/output"
  top: "inception_4e/3x3_reduce"
  param {
    lr_mult: 1
    decay_mult: 1
  }
  param {
    lr_mult: 2
    decay_mult: 0
  }
  convolution_param {
    num_output: 160
    kernel_size: 1
    weight_filler {
      type: "xavier"
      std: 0.09
    }
    bias_filler {
      type: "constant"
      value: 0.2
    }
  }
}
layer {
  name: "inception_4e/relu_3x3_reduce"
  type: "ReLU"
  bottom: "inception_4e/3x3_reduce"
  top: "inception_4e/3x3_reduce"
}
layer {
  name: "inception_4e/3x3"
  type: "Convolution"
  bottom: "inception_4e/3x3_reduce"
  top: "inception_4e/3x3"
  param {
    lr_mult: 1
    decay_mult: 1
  }
  param {
    lr_mult: 2
    decay_mult: 0
  }
  convolution_param {
    num_output: 320
    pad: 1
    kernel_size: 3
    weight_filler {
      type: "xavier"
      std: 0.03
    }
    bias_filler {
      type: "constant"
      value: 0.2
    }
  }
}
layer {
  name: "inception_4e/relu_3x3"
  type: "ReLU"
  bottom: "inception_4e/3x3"
  top: "inception_4e/3x3"
}
layer {
  name: "inception_4e/5x5_reduce"
  type: "Convolution"
  bottom: "inception_4d/output"
  top: "inception_4e/5x5_reduce"
  param {
    lr_mult: 1
    decay_mult: 1
  }
  param {
    lr_mult: 2
    decay_mult: 0
  }
  convolution_param {
    num_output: 32
    kernel_size: 1
    weight_filler {
      type: "xavier"
      std: 0.2
    }
    bias_filler {
      type: "constant"
      value: 0.2
    }
  }
}
layer {
  name: "inception_4e/relu_5x5_reduce"
  type: "ReLU"
  bottom: "inception_4e/5x5_reduce"
  top: "inception_4e/5x5_reduce"
}
layer {
  name: "inception_4e/5x5"
  type: "Convolution"
  bottom: "inception_4e/5x5_reduce"
  top: "inception_4e/5x5"
  p
I0403 15:50:54.422704 16119 layer_factory.hpp:77] Creating layer data
I0403 15:50:54.423280 16119 net.cpp:91] Creating Layer data
I0403 15:50:54.423308 16119 net.cpp:399] data -> data
I0403 15:50:54.423358 16119 net.cpp:399] data -> label
I0403 15:50:54.423393 16119 data_transformer.cpp:25] Loading mean file from: /home/mohanty/data/final_dataset/lmdb/color-50-50/mean.binaryproto
I0403 15:50:54.426298 16123 db_lmdb.cpp:38] Opened lmdb /home/mohanty/data/final_dataset/lmdb/color-50-50/test_db
I0403 15:50:54.436383 16119 data_layer.cpp:41] output data size: 24,3,224,224
I0403 15:50:54.463824 16119 net.cpp:141] Setting up data
I0403 15:50:54.463902 16119 net.cpp:148] Top shape: 24 3 224 224 (3612672)
I0403 15:50:54.463924 16119 net.cpp:148] Top shape: 24 (24)
I0403 15:50:54.463940 16119 net.cpp:156] Memory required for data: 14450784
I0403 15:50:54.463968 16119 layer_factory.hpp:77] Creating layer label_data_1_split
I0403 15:50:54.463994 16119 net.cpp:91] Creating Layer label_data_1_split
I0403 15:50:54.464012 16119 net.cpp:425] label_data_1_split <- label
I0403 15:50:54.464045 16119 net.cpp:399] label_data_1_split -> label_data_1_split_0
I0403 15:50:54.464072 16119 net.cpp:399] label_data_1_split -> label_data_1_split_1
I0403 15:50:54.464093 16119 net.cpp:399] label_data_1_split -> label_data_1_split_2
I0403 15:50:54.464114 16119 net.cpp:399] label_data_1_split -> label_data_1_split_3
I0403 15:50:54.464134 16119 net.cpp:399] label_data_1_split -> label_data_1_split_4
I0403 15:50:54.464154 16119 net.cpp:399] label_data_1_split -> label_data_1_split_5
I0403 15:50:54.464174 16119 net.cpp:399] label_data_1_split -> label_data_1_split_6
I0403 15:50:54.464193 16119 net.cpp:399] label_data_1_split -> label_data_1_split_7
I0403 15:50:54.464213 16119 net.cpp:399] label_data_1_split -> label_data_1_split_8
I0403 15:50:54.464234 16119 net.cpp:399] label_data_1_split -> label_data_1_split_9
I0403 15:50:54.464354 16119 net.cpp:141] Setting up label_data_1_split
I0403 15:50:54.464377 16119 net.cpp:148] Top shape: 24 (24)
I0403 15:50:54.464395 16119 net.cpp:148] Top shape: 24 (24)
I0403 15:50:54.464411 16119 net.cpp:148] Top shape: 24 (24)
I0403 15:50:54.464426 16119 net.cpp:148] Top shape: 24 (24)
I0403 15:50:54.464442 16119 net.cpp:148] Top shape: 24 (24)
I0403 15:50:54.464457 16119 net.cpp:148] Top shape: 24 (24)
I0403 15:50:54.464471 16119 net.cpp:148] Top shape: 24 (24)
I0403 15:50:54.464488 16119 net.cpp:148] Top shape: 24 (24)
I0403 15:50:54.464503 16119 net.cpp:148] Top shape: 24 (24)
I0403 15:50:54.464519 16119 net.cpp:148] Top shape: 24 (24)
I0403 15:50:54.464576 16119 net.cpp:156] Memory required for data: 14451744
I0403 15:50:54.464592 16119 layer_factory.hpp:77] Creating layer conv1/7x7_s2
I0403 15:50:54.464624 16119 net.cpp:91] Creating Layer conv1/7x7_s2
I0403 15:50:54.464643 16119 net.cpp:425] conv1/7x7_s2 <- data
I0403 15:50:54.464663 16119 net.cpp:399] conv1/7x7_s2 -> conv1/7x7_s2
I0403 15:50:54.606561 16119 net.cpp:141] Setting up conv1/7x7_s2
I0403 15:50:54.606639 16119 net.cpp:148] Top shape: 24 64 112 112 (19267584)
I0403 15:50:54.606657 16119 net.cpp:156] Memory required for data: 91522080
I0403 15:50:54.606688 16119 layer_factory.hpp:77] Creating layer conv1/relu_7x7
I0403 15:50:54.606715 16119 net.cpp:91] Creating Layer conv1/relu_7x7
I0403 15:50:54.606734 16119 net.cpp:425] conv1/relu_7x7 <- conv1/7x7_s2
I0403 15:50:54.606752 16119 net.cpp:386] conv1/relu_7x7 -> conv1/7x7_s2 (in-place)
I0403 15:50:54.607028 16119 net.cpp:141] Setting up conv1/relu_7x7
I0403 15:50:54.607054 16119 net.cpp:148] Top shape: 24 64 112 112 (19267584)
I0403 15:50:54.607070 16119 net.cpp:156] Memory required for data: 168592416
I0403 15:50:54.607084 16119 layer_factory.hpp:77] Creating layer pool1/3x3_s2
I0403 15:50:54.607110 16119 net.cpp:91] Creating Layer pool1/3x3_s2
I0403 15:50:54.607128 16119 net.cpp:425] pool1/3x3_s2 <- conv1/7x7_s2
I0403 15:50:54.607146 16119 net.cpp:399] pool1/3x3_s2 -> pool1/3x3_s2
I0403 15:50:54.607221 16119 net.cpp:141] Setting up pool1/3x3_s2
I0403 15:50:54.607245 16119 net.cpp:148] Top shape: 24 64 56 56 (4816896)
I0403 15:50:54.607260 16119 net.cpp:156] Memory required for data: 187860000
I0403 15:50:54.607275 16119 layer_factory.hpp:77] Creating layer pool1/norm1
I0403 15:50:54.607300 16119 net.cpp:91] Creating Layer pool1/norm1
I0403 15:50:54.607318 16119 net.cpp:425] pool1/norm1 <- pool1/3x3_s2
I0403 15:50:54.607336 16119 net.cpp:399] pool1/norm1 -> pool1/norm1
I0403 15:50:54.607640 16119 net.cpp:141] Setting up pool1/norm1
I0403 15:50:54.607666 16119 net.cpp:148] Top shape: 24 64 56 56 (4816896)
I0403 15:50:54.607681 16119 net.cpp:156] Memory required for data: 207127584
I0403 15:50:54.607695 16119 layer_factory.hpp:77] Creating layer conv2/3x3_reduce
I0403 15:50:54.607722 16119 net.cpp:91] Creating Layer conv2/3x3_reduce
I0403 15:50:54.607738 16119 net.cpp:425] conv2/3x3_reduce <- pool1/norm1
I0403 15:50:54.607759 16119 net.cpp:399] conv2/3x3_reduce -> conv2/3x3_reduce
I0403 15:50:54.609184 16119 net.cpp:141] Setting up conv2/3x3_reduce
I0403 15:50:54.609213 16119 net.cpp:148] Top shape: 24 64 56 56 (4816896)
I0403 15:50:54.609230 16119 net.cpp:156] Memory required for data: 226395168
I0403 15:50:54.609251 16119 layer_factory.hpp:77] Creating layer conv2/relu_3x3_reduce
I0403 15:50:54.609271 16119 net.cpp:91] Creating Layer conv2/relu_3x3_reduce
I0403 15:50:54.609285 16119 net.cpp:425] conv2/relu_3x3_reduce <- conv2/3x3_reduce
I0403 15:50:54.609304 16119 net.cpp:386] conv2/relu_3x3_reduce -> conv2/3x3_reduce (in-place)
I0403 15:50:54.609575 16119 net.cpp:141] Setting up conv2/relu_3x3_reduce
I0403 15:50:54.609603 16119 net.cpp:148] Top shape: 24 64 56 56 (4816896)
I0403 15:50:54.609619 16119 net.cpp:156] Memory required for data: 245662752
I0403 15:50:54.609634 16119 layer_factory.hpp:77] Creating layer conv2/3x3
I0403 15:50:54.609658 16119 net.cpp:91] Creating Layer conv2/3x3
I0403 15:50:54.609675 16119 net.cpp:425] conv2/3x3 <- conv2/3x3_reduce
I0403 15:50:54.609697 16119 net.cpp:399] conv2/3x3 -> conv2/3x3
I0403 15:50:54.611999 16119 net.cpp:141] Setting up conv2/3x3
I0403 15:50:54.612030 16119 net.cpp:148] Top shape: 24 192 56 56 (14450688)
I0403 15:50:54.612046 16119 net.cpp:156] Memory required for data: 303465504
I0403 15:50:54.612067 16119 layer_factory.hpp:77] Creating layer conv2/relu_3x3
I0403 15:50:54.612087 16119 net.cpp:91] Creating Layer conv2/relu_3x3
I0403 15:50:54.612102 16119 net.cpp:425] conv2/relu_3x3 <- conv2/3x3
I0403 15:50:54.612121 16119 net.cpp:386] conv2/relu_3x3 -> conv2/3x3 (in-place)
I0403 15:50:54.612300 16119 net.cpp:141] Setting up conv2/relu_3x3
I0403 15:50:54.612325 16119 net.cpp:148] Top shape: 24 192 56 56 (14450688)
I0403 15:50:54.612376 16119 net.cpp:156] Memory required for data: 361268256
I0403 15:50:54.612392 16119 layer_factory.hpp:77] Creating layer conv2/norm2
I0403 15:50:54.612412 16119 net.cpp:91] Creating Layer conv2/norm2
I0403 15:50:54.612429 16119 net.cpp:425] conv2/norm2 <- conv2/3x3
I0403 15:50:54.612447 16119 net.cpp:399] conv2/norm2 -> conv2/norm2
I0403 15:50:54.612756 16119 net.cpp:141] Setting up conv2/norm2
I0403 15:50:54.612783 16119 net.cpp:148] Top shape: 24 192 56 56 (14450688)
I0403 15:50:54.612798 16119 net.cpp:156] Memory required for data: 419071008
I0403 15:50:54.612813 16119 layer_factory.hpp:77] Creating layer pool2/3x3_s2
I0403 15:50:54.612831 16119 net.cpp:91] Creating Layer pool2/3x3_s2
I0403 15:50:54.612846 16119 net.cpp:425] pool2/3x3_s2 <- conv2/norm2
I0403 15:50:54.612862 16119 net.cpp:399] pool2/3x3_s2 -> pool2/3x3_s2
I0403 15:50:54.612917 16119 net.cpp:141] Setting up pool2/3x3_s2
I0403 15:50:54.612941 16119 net.cpp:148] Top shape: 24 192 28 28 (3612672)
I0403 15:50:54.612954 16119 net.cpp:156] Memory required for data: 433521696
I0403 15:50:54.612968 16119 layer_factory.hpp:77] Creating layer pool2/3x3_s2_pool2/3x3_s2_0_split
I0403 15:50:54.612984 16119 net.cpp:91] Creating Layer pool2/3x3_s2_pool2/3x3_s2_0_split
I0403 15:50:54.612999 16119 net.cpp:425] pool2/3x3_s2_pool2/3x3_s2_0_split <- pool2/3x3_s2
I0403 15:50:54.613019 16119 net.cpp:399] pool2/3x3_s2_pool2/3x3_s2_0_split -> pool2/3x3_s2_pool2/3x3_s2_0_split_0
I0403 15:50:54.613040 16119 net.cpp:399] pool2/3x3_s2_pool2/3x3_s2_0_split -> pool2/3x3_s2_pool2/3x3_s2_0_split_1
I0403 15:50:54.613059 16119 net.cpp:399] pool2/3x3_s2_pool2/3x3_s2_0_split -> pool2/3x3_s2_pool2/3x3_s2_0_split_2
I0403 15:50:54.613081 16119 net.cpp:399] pool2/3x3_s2_pool2/3x3_s2_0_split -> pool2/3x3_s2_pool2/3x3_s2_0_split_3
I0403 15:50:54.613152 16119 net.cpp:141] Setting up pool2/3x3_s2_pool2/3x3_s2_0_split
I0403 15:50:54.613174 16119 net.cpp:148] Top shape: 24 192 28 28 (3612672)
I0403 15:50:54.613189 16119 net.cpp:148] Top shape: 24 192 28 28 (3612672)
I0403 15:50:54.613204 16119 net.cpp:148] Top shape: 24 192 28 28 (3612672)
I0403 15:50:54.613219 16119 net.cpp:148] Top shape: 24 192 28 28 (3612672)
I0403 15:50:54.613232 16119 net.cpp:156] Memory required for data: 491324448
I0403 15:50:54.613247 16119 layer_factory.hpp:77] Creating layer inception_3a/1x1
I0403 15:50:54.613271 16119 net.cpp:91] Creating Layer inception_3a/1x1
I0403 15:50:54.613288 16119 net.cpp:425] inception_3a/1x1 <- pool2/3x3_s2_pool2/3x3_s2_0_split_0
I0403 15:50:54.613308 16119 net.cpp:399] inception_3a/1x1 -> inception_3a/1x1
I0403 15:50:54.614858 16119 net.cpp:141] Setting up inception_3a/1x1
I0403 15:50:54.614889 16119 net.cpp:148] Top shape: 24 64 28 28 (1204224)
I0403 15:50:54.614907 16119 net.cpp:156] Memory required for data: 496141344
I0403 15:50:54.614926 16119 layer_factory.hpp:77] Creating layer inception_3a/relu_1x1
I0403 15:50:54.614944 16119 net.cpp:91] Creating Layer inception_3a/relu_1x1
I0403 15:50:54.614959 16119 net.cpp:425] inception_3a/relu_1x1 <- inception_3a/1x1
I0403 15:50:54.614979 16119 net.cpp:386] inception_3a/relu_1x1 -> inception_3a/1x1 (in-place)
I0403 15:50:54.615152 16119 net.cpp:141] Setting up inception_3a/relu_1x1
I0403 15:50:54.615177 16119 net.cpp:148] Top shape: 24 64 28 28 (1204224)
I0403 15:50:54.615192 16119 net.cpp:156] Memory required for data: 500958240
I0403 15:50:54.615206 16119 layer_factory.hpp:77] Creating layer inception_3a/3x3_reduce
I0403 15:50:54.615228 16119 net.cpp:91] Creating Layer inception_3a/3x3_reduce
I0403 15:50:54.615245 16119 net.cpp:425] inception_3a/3x3_reduce <- pool2/3x3_s2_pool2/3x3_s2_0_split_1
I0403 15:50:54.615267 16119 net.cpp:399] inception_3a/3x3_reduce -> inception_3a/3x3_reduce
I0403 15:50:54.616971 16119 net.cpp:141] Setting up inception_3a/3x3_reduce
I0403 15:50:54.616999 16119 net.cpp:148] Top shape: 24 96 28 28 (1806336)
I0403 15:50:54.617015 16119 net.cpp:156] Memory required for data: 508183584
I0403 15:50:54.617038 16119 layer_factory.hpp:77] Creating layer inception_3a/relu_3x3_reduce
I0403 15:50:54.617072 16119 net.cpp:91] Creating Layer inception_3a/relu_3x3_reduce
I0403 15:50:54.617089 16119 net.cpp:425] inception_3a/relu_3x3_reduce <- inception_3a/3x3_reduce
I0403 15:50:54.617110 16119 net.cpp:386] inception_3a/relu_3x3_reduce -> inception_3a/3x3_reduce (in-place)
I0403 15:50:54.617295 16119 net.cpp:141] Setting up inception_3a/relu_3x3_reduce
I0403 15:50:54.617321 16119 net.cpp:148] Top shape: 24 96 28 28 (1806336)
I0403 15:50:54.617337 16119 net.cpp:156] Memory required for data: 515408928
I0403 15:50:54.617353 16119 layer_factory.hpp:77] Creating layer inception_3a/3x3
I0403 15:50:54.617375 16119 net.cpp:91] Creating Layer inception_3a/3x3
I0403 15:50:54.617393 16119 net.cpp:425] inception_3a/3x3 <- inception_3a/3x3_reduce
I0403 15:50:54.617411 16119 net.cpp:399] inception_3a/3x3 -> inception_3a/3x3
I0403 15:50:54.619071 16119 net.cpp:141] Setting up inception_3a/3x3
I0403 15:50:54.619098 16119 net.cpp:148] Top shape: 24 128 28 28 (2408448)
I0403 15:50:54.619113 16119 net.cpp:156] Memory required for data: 525042720
I0403 15:50:54.619132 16119 layer_factory.hpp:77] Creating layer inception_3a/relu_3x3
I0403 15:50:54.619150 16119 net.cpp:91] Creating Layer inception_3a/relu_3x3
I0403 15:50:54.619165 16119 net.cpp:425] inception_3a/relu_3x3 <- inception_3a/3x3
I0403 15:50:54.619185 16119 net.cpp:386] inception_3a/relu_3x3 -> inception_3a/3x3 (in-place)
I0403 15:50:54.619462 16119 net.cpp:141] Setting up inception_3a/relu_3x3
I0403 15:50:54.619488 16119 net.cpp:148] Top shape: 24 128 28 28 (2408448)
I0403 15:50:54.619503 16119 net.cpp:156] Memory required for data: 534676512
I0403 15:50:54.619516 16119 layer_factory.hpp:77] Creating layer inception_3a/5x5_reduce
I0403 15:50:54.619544 16119 net.cpp:91] Creating Layer inception_3a/5x5_reduce
I0403 15:50:54.619562 16119 net.cpp:425] inception_3a/5x5_reduce <- pool2/3x3_s2_pool2/3x3_s2_0_split_2
I0403 15:50:54.619583 16119 net.cpp:399] inception_3a/5x5_reduce -> inception_3a/5x5_reduce
I0403 15:50:54.620558 16119 net.cpp:141] Setting up inception_3a/5x5_reduce
I0403 15:50:54.620585 16119 net.cpp:148] Top shape: 24 16 28 28 (301056)
I0403 15:50:54.620600 16119 net.cpp:156] Memory required for data: 535880736
I0403 15:50:54.620618 16119 layer_factory.hpp:77] Creating layer inception_3a/relu_5x5_reduce
I0403 15:50:54.620638 16119 net.cpp:91] Creating Layer inception_3a/relu_5x5_reduce
I0403 15:50:54.620656 16119 net.cpp:425] inception_3a/relu_5x5_reduce <- inception_3a/5x5_reduce
I0403 15:50:54.620673 16119 net.cpp:386] inception_3a/relu_5x5_reduce -> inception_3a/5x5_reduce (in-place)
I0403 15:50:54.620970 16119 net.cpp:141] Setting up inception_3a/relu_5x5_reduce
I0403 15:50:54.620996 16119 net.cpp:148] Top shape: 24 16 28 28 (301056)
I0403 15:50:54.621016 16119 net.cpp:156] Memory required for data: 537084960
I0403 15:50:54.621031 16119 layer_factory.hpp:77] Creating layer inception_3a/5x5
I0403 15:50:54.621060 16119 net.cpp:91] Creating Layer inception_3a/5x5
I0403 15:50:54.621078 16119 net.cpp:425] inception_3a/5x5 <- inception_3a/5x5_reduce
I0403 15:50:54.621099 16119 net.cpp:399] inception_3a/5x5 -> inception_3a/5x5
I0403 15:50:54.622136 16119 net.cpp:141] Setting up inception_3a/5x5
I0403 15:50:54.622166 16119 net.cpp:148] Top shape: 24 32 28 28 (602112)
I0403 15:50:54.622184 16119 net.cpp:156] Memory required for data: 539493408
I0403 15:50:54.622201 16119 layer_factory.hpp:77] Creating layer inception_3a/relu_5x5
I0403 15:50:54.622221 16119 net.cpp:91] Creating Layer inception_3a/relu_5x5
I0403 15:50:54.622237 16119 net.cpp:425] inception_3a/relu_5x5 <- inception_3a/5x5
I0403 15:50:54.622257 16119 net.cpp:386] inception_3a/relu_5x5 -> inception_3a/5x5 (in-place)
I0403 15:50:54.622439 16119 net.cpp:141] Setting up inception_3a/relu_5x5
I0403 15:50:54.622464 16119 net.cpp:148] Top shape: 24 32 28 28 (602112)
I0403 15:50:54.622479 16119 net.cpp:156] Memory required for data: 541901856
I0403 15:50:54.622494 16119 layer_factory.hpp:77] Creating layer inception_3a/pool
I0403 15:50:54.622512 16119 net.cpp:91] Creating Layer inception_3a/pool
I0403 15:50:54.622529 16119 net.cpp:425] inception_3a/pool <- pool2/3x3_s2_pool2/3x3_s2_0_split_3
I0403 15:50:54.622570 16119 net.cpp:399] inception_3a/pool -> inception_3a/pool
I0403 15:50:54.622632 16119 net.cpp:141] Setting up inception_3a/pool
I0403 15:50:54.622656 16119 net.cpp:148] Top shape: 24 192 28 28 (3612672)
I0403 15:50:54.622670 16119 net.cpp:156] Memory required for data: 556352544
I0403 15:50:54.622685 16119 layer_factory.hpp:77] Creating layer inception_3a/pool_proj
I0403 15:50:54.622707 16119 net.cpp:91] Creating Layer inception_3a/pool_proj
I0403 15:50:54.622725 16119 net.cpp:425] inception_3a/pool_proj <- inception_3a/pool
I0403 15:50:54.622747 16119 net.cpp:399] inception_3a/pool_proj -> inception_3a/pool_proj
I0403 15:50:54.623740 16119 net.cpp:141] Setting up inception_3a/pool_proj
I0403 15:50:54.623769 16119 net.cpp:148] Top shape: 24 32 28 28 (602112)
I0403 15:50:54.623785 16119 net.cpp:156] Memory required for data: 558760992
I0403 15:50:54.623810 16119 layer_factory.hpp:77] Creating layer inception_3a/relu_pool_proj
I0403 15:50:54.623831 16119 net.cpp:91] Creating Layer inception_3a/relu_pool_proj
I0403 15:50:54.623849 16119 net.cpp:425] inception_3a/relu_pool_proj <- inception_3a/pool_proj
I0403 15:50:54.623867 16119 net.cpp:386] inception_3a/relu_pool_proj -> inception_3a/pool_proj (in-place)
I0403 15:50:54.624153 16119 net.cpp:141] Setting up inception_3a/relu_pool_proj
I0403 15:50:54.624181 16119 net.cpp:148] Top shape: 24 32 28 28 (602112)
I0403 15:50:54.624197 16119 net.cpp:156] Memory required for data: 561169440
I0403 15:50:54.624212 16119 layer_factory.hpp:77] Creating layer inception_3a/output
I0403 15:50:54.624231 16119 net.cpp:91] Creating Layer inception_3a/output
I0403 15:50:54.624246 16119 net.cpp:425] inception_3a/output <- inception_3a/1x1
I0403 15:50:54.624265 16119 net.cpp:425] inception_3a/output <- inception_3a/3x3
I0403 15:50:54.624281 16119 net.cpp:425] inception_3a/output <- inception_3a/5x5
I0403 15:50:54.624299 16119 net.cpp:425] inception_3a/output <- inception_3a/pool_proj
I0403 15:50:54.624318 16119 net.cpp:399] inception_3a/output -> inception_3a/output
I0403 15:50:54.624366 16119 net.cpp:141] Setting up inception_3a/output
I0403 15:50:54.624392 16119 net.cpp:148] Top shape: 24 256 28 28 (4816896)
I0403 15:50:54.624408 16119 net.cpp:156] Memory required for data: 580437024
I0403 15:50:54.624423 16119 layer_factory.hpp:77] Creating layer inception_3a/output_inception_3a/output_0_split
I0403 15:50:54.624439 16119 net.cpp:91] Creating Layer inception_3a/output_inception_3a/output_0_split
I0403 15:50:54.624454 16119 net.cpp:425] inception_3a/output_inception_3a/output_0_split <- inception_3a/output
I0403 15:50:54.624471 16119 net.cpp:399] inception_3a/output_inception_3a/output_0_split -> inception_3a/output_inception_3a/output_0_split_0
I0403 15:50:54.624495 16119 net.cpp:399] inception_3a/output_inception_3a/output_0_split -> inception_3a/output_inception_3a/output_0_split_1
I0403 15:50:54.624517 16119 net.cpp:399] inception_3a/output_inception_3a/output_0_split -> inception_3a/output_inception_3a/output_0_split_2
I0403 15:50:54.624548 16119 net.cpp:399] inception_3a/output_inception_3a/output_0_split -> inception_3a/output_inception_3a/output_0_split_3
I0403 15:50:54.624629 16119 net.cpp:141] Setting up inception_3a/output_inception_3a/output_0_split
I0403 15:50:54.624655 16119 net.cpp:148] Top shape: 24 256 28 28 (4816896)
I0403 15:50:54.624672 16119 net.cpp:148] Top shape: 24 256 28 28 (4816896)
I0403 15:50:54.624688 16119 net.cpp:148] Top shape: 24 256 28 28 (4816896)
I0403 15:50:54.624703 16119 net.cpp:148] Top shape: 24 256 28 28 (4816896)
I0403 15:50:54.624717 16119 net.cpp:156] Memory required for data: 657507360
I0403 15:50:54.624732 16119 layer_factory.hpp:77] Creating layer inception_3b/1x1
I0403 15:50:54.624754 16119 net.cpp:91] Creating Layer inception_3b/1x1
I0403 15:50:54.624773 16119 net.cpp:425] inception_3b/1x1 <- inception_3a/output_inception_3a/output_0_split_0
I0403 15:50:54.624794 16119 net.cpp:399] inception_3b/1x1 -> inception_3b/1x1
I0403 15:50:54.625985 16119 net.cpp:141] Setting up inception_3b/1x1
I0403 15:50:54.626027 16119 net.cpp:148] Top shape: 24 128 28 28 (2408448)
I0403 15:50:54.626045 16119 net.cpp:156] Memory required for data: 667141152
I0403 15:50:54.626063 16119 layer_factory.hpp:77] Creating layer inception_3b/relu_1x1
I0403 15:50:54.626083 16119 net.cpp:91] Creating Layer inception_3b/relu_1x1
I0403 15:50:54.626098 16119 net.cpp:425] inception_3b/relu_1x1 <- inception_3b/1x1
I0403 15:50:54.626116 16119 net.cpp:386] inception_3b/relu_1x1 -> inception_3b/1x1 (in-place)
I0403 15:50:54.626297 16119 net.cpp:141] Setting up inception_3b/relu_1x1
I0403 15:50:54.626322 16119 net.cpp:148] Top shape: 24 128 28 28 (2408448)
I0403 15:50:54.626338 16119 net.cpp:156] Memory required for data: 676774944
I0403 15:50:54.626353 16119 layer_factory.hpp:77] Creating layer inception_3b/3x3_reduce
I0403 15:50:54.626376 16119 net.cpp:91] Creating Layer inception_3b/3x3_reduce
I0403 15:50:54.626394 16119 net.cpp:425] inception_3b/3x3_reduce <- inception_3a/output_inception_3a/output_0_split_1
I0403 15:50:54.626415 16119 net.cpp:399] inception_3b/3x3_reduce -> inception_3b/3x3_reduce
I0403 15:50:54.627610 16119 net.cpp:141] Setting up inception_3b/3x3_reduce
I0403 15:50:54.627641 16119 net.cpp:148] Top shape: 24 128 28 28 (2408448)
I0403 15:50:54.627658 16119 net.cpp:156] Memory required for data: 686408736
I0403 15:50:54.627678 16119 layer_factory.hpp:77] Creating layer inception_3b/relu_3x3_reduce
I0403 15:50:54.627697 16119 net.cpp:91] Creating Layer inception_3b/relu_3x3_reduce
I0403 15:50:54.627713 16119 net.cpp:425] inception_3b/relu_3x3_reduce <- inception_3b/3x3_reduce
I0403 15:50:54.627734 16119 net.cpp:386] inception_3b/relu_3x3_reduce -> inception_3b/3x3_reduce (in-place)
I0403 15:50:54.627923 16119 net.cpp:141] Setting up inception_3b/relu_3x3_reduce
I0403 15:50:54.627948 16119 net.cpp:148] Top shape: 24 128 28 28 (2408448)
I0403 15:50:54.627964 16119 net.cpp:156] Memory required for data: 696042528
I0403 15:50:54.627979 16119 layer_factory.hpp:77] Creating layer inception_3b/3x3
I0403 15:50:54.628006 16119 net.cpp:91] Creating Layer inception_3b/3x3
I0403 15:50:54.628026 16119 net.cpp:425] inception_3b/3x3 <- inception_3b/3x3_reduce
I0403 15:50:54.628046 16119 net.cpp:399] inception_3b/3x3 -> inception_3b/3x3
I0403 15:50:54.631134 16119 net.cpp:141] Setting up inception_3b/3x3
I0403 15:50:54.631165 16119 net.cpp:148] Top shape: 24 192 28 28 (3612672)
I0403 15:50:54.631181 16119 net.cpp:156] Memory required for data: 710493216
I0403 15:50:54.631201 16119 layer_factory.hpp:77] Creating layer inception_3b/relu_3x3
I0403 15:50:54.631219 16119 net.cpp:91] Creating Layer inception_3b/relu_3x3
I0403 15:50:54.631237 16119 net.cpp:425] inception_3b/relu_3x3 <- inception_3b/3x3
I0403 15:50:54.631256 16119 net.cpp:386] inception_3b/relu_3x3 -> inception_3b/3x3 (in-place)
I0403 15:50:54.631553 16119 net.cpp:141] Setting up inception_3b/relu_3x3
I0403 15:50:54.631580 16119 net.cpp:148] Top shape: 24 192 28 28 (3612672)
I0403 15:50:54.631597 16119 net.cpp:156] Memory required for data: 724943904
I0403 15:50:54.631613 16119 layer_factory.hpp:77] Creating layer inception_3b/5x5_reduce
I0403 15:50:54.631636 16119 net.cpp:91] Creating Layer inception_3b/5x5_reduce
I0403 15:50:54.631655 16119 net.cpp:425] inception_3b/5x5_reduce <- inception_3a/output_inception_3a/output_0_split_2
I0403 15:50:54.631677 16119 net.cpp:399] inception_3b/5x5_reduce -> inception_3b/5x5_reduce
I0403 15:50:54.632740 16119 net.cpp:141] Setting up inception_3b/5x5_reduce
I0403 15:50:54.632771 16119 net.cpp:148] Top shape: 24 32 28 28 (602112)
I0403 15:50:54.632788 16119 net.cpp:156] Memory required for data: 727352352
I0403 15:50:54.632807 16119 layer_factory.hpp:77] Creating layer inception_3b/relu_5x5_reduce
I0403 15:50:54.632827 16119 net.cpp:91] Creating Layer inception_3b/relu_5x5_reduce
I0403 15:50:54.632843 16119 net.cpp:425] inception_3b/relu_5x5_reduce <- inception_3b/5x5_reduce
I0403 15:50:54.632863 16119 net.cpp:386] inception_3b/relu_5x5_reduce -> inception_3b/5x5_reduce (in-place)
I0403 15:50:54.633049 16119 net.cpp:141] Setting up inception_3b/relu_5x5_reduce
I0403 15:50:54.633088 16119 net.cpp:148] Top shape: 24 32 28 28 (602112)
I0403 15:50:54.633105 16119 net.cpp:156] Memory required for data: 729760800
I0403 15:50:54.633121 16119 layer_factory.hpp:77] Creating layer inception_3b/5x5
I0403 15:50:54.633143 16119 net.cpp:91] Creating Layer inception_3b/5x5
I0403 15:50:54.633162 16119 net.cpp:425] inception_3b/5x5 <- inception_3b/5x5_reduce
I0403 15:50:54.633184 16119 net.cpp:399] inception_3b/5x5 -> inception_3b/5x5
I0403 15:50:54.635298 16119 net.cpp:141] Setting up inception_3b/5x5
I0403 15:50:54.635329 16119 net.cpp:148] Top shape: 24 96 28 28 (1806336)
I0403 15:50:54.635345 16119 net.cpp:156] Memory required for data: 736986144
I0403 15:50:54.635367 16119 layer_factory.hpp:77] Creating layer inception_3b/relu_5x5
I0403 15:50:54.635387 16119 net.cpp:91] Creating Layer inception_3b/relu_5x5
I0403 15:50:54.635404 16119 net.cpp:425] inception_3b/relu_5x5 <- inception_3b/5x5
I0403 15:50:54.635422 16119 net.cpp:386] inception_3b/relu_5x5 -> inception_3b/5x5 (in-place)
I0403 15:50:54.635638 16119 net.cpp:141] Setting up inception_3b/relu_5x5
I0403 15:50:54.635664 16119 net.cpp:148] Top shape: 24 96 28 28 (1806336)
I0403 15:50:54.635680 16119 net.cpp:156] Memory required for data: 744211488
I0403 15:50:54.635695 16119 layer_factory.hpp:77] Creating layer inception_3b/pool
I0403 15:50:54.635715 16119 net.cpp:91] Creating Layer inception_3b/pool
I0403 15:50:54.635731 16119 net.cpp:425] inception_3b/pool <- inception_3a/output_inception_3a/output_0_split_3
I0403 15:50:54.635751 16119 net.cpp:399] inception_3b/pool -> inception_3b/pool
I0403 15:50:54.635812 16119 net.cpp:141] Setting up inception_3b/pool
I0403 15:50:54.635838 16119 net.cpp:148] Top shape: 24 256 28 28 (4816896)
I0403 15:50:54.635853 16119 net.cpp:156] Memory required for data: 763479072
I0403 15:50:54.635867 16119 layer_factory.hpp:77] Creating layer inception_3b/pool_proj
I0403 15:50:54.635893 16119 net.cpp:91] Creating Layer inception_3b/pool_proj
I0403 15:50:54.635911 16119 net.cpp:425] inception_3b/pool_proj <- inception_3b/pool
I0403 15:50:54.635931 16119 net.cpp:399] inception_3b/pool_proj -> inception_3b/pool_proj
I0403 15:50:54.637059 16119 net.cpp:141] Setting up inception_3b/pool_proj
I0403 15:50:54.637089 16119 net.cpp:148] Top shape: 24 64 28 28 (1204224)
I0403 15:50:54.637105 16119 net.cpp:156] Memory required for data: 768295968
I0403 15:50:54.637125 16119 layer_factory.hpp:77] Creating layer inception_3b/relu_pool_proj
I0403 15:50:54.637146 16119 net.cpp:91] Creating Layer inception_3b/relu_pool_proj
I0403 15:50:54.637163 16119 net.cpp:425] inception_3b/relu_pool_proj <- inception_3b/pool_proj
I0403 15:50:54.637182 16119 net.cpp:386] inception_3b/relu_pool_proj -> inception_3b/pool_proj (in-place)
I0403 15:50:54.637600 16119 net.cpp:141] Setting up inception_3b/relu_pool_proj
I0403 15:50:54.637627 16119 net.cpp:148] Top shape: 24 64 28 28 (1204224)
I0403 15:50:54.637644 16119 net.cpp:156] Memory required for data: 773112864
I0403 15:50:54.637660 16119 layer_factory.hpp:77] Creating layer inception_3b/output
I0403 15:50:54.637677 16119 net.cpp:91] Creating Layer inception_3b/output
I0403 15:50:54.637694 16119 net.cpp:425] inception_3b/output <- inception_3b/1x1
I0403 15:50:54.637713 16119 net.cpp:425] inception_3b/output <- inception_3b/3x3
I0403 15:50:54.637732 16119 net.cpp:425] inception_3b/output <- inception_3b/5x5
I0403 15:50:54.637748 16119 net.cpp:425] inception_3b/output <- inception_3b/pool_proj
I0403 15:50:54.637765 16119 net.cpp:399] inception_3b/output -> inception_3b/output
I0403 15:50:54.637811 16119 net.cpp:141] Setting up inception_3b/output
I0403 15:50:54.637838 16119 net.cpp:148] Top shape: 24 480 28 28 (9031680)
I0403 15:50:54.637855 16119 net.cpp:156] Memory required for data: 809239584
I0403 15:50:54.637869 16119 layer_factory.hpp:77] Creating layer pool3/3x3_s2
I0403 15:50:54.637888 16119 net.cpp:91] Creating Layer pool3/3x3_s2
I0403 15:50:54.637904 16119 net.cpp:425] pool3/3x3_s2 <- inception_3b/output
I0403 15:50:54.637925 16119 net.cpp:399] pool3/3x3_s2 -> pool3/3x3_s2
I0403 15:50:54.638001 16119 net.cpp:141] Setting up pool3/3x3_s2
I0403 15:50:54.638030 16119 net.cpp:148] Top shape: 24 480 14 14 (2257920)
I0403 15:50:54.638046 16119 net.cpp:156] Memory required for data: 818271264
I0403 15:50:54.638061 16119 layer_factory.hpp:77] Creating layer pool3/3x3_s2_pool3/3x3_s2_0_split
I0403 15:50:54.638077 16119 net.cpp:91] Creating Layer pool3/3x3_s2_pool3/3x3_s2_0_split
I0403 15:50:54.638093 16119 net.cpp:425] pool3/3x3_s2_pool3/3x3_s2_0_split <- pool3/3x3_s2
I0403 15:50:54.638111 16119 net.cpp:399] pool3/3x3_s2_pool3/3x3_s2_0_split -> pool3/3x3_s2_pool3/3x3_s2_0_split_0
I0403 15:50:54.638131 16119 net.cpp:399] pool3/3x3_s2_pool3/3x3_s2_0_split -> pool3/3x3_s2_pool3/3x3_s2_0_split_1
I0403 15:50:54.638151 16119 net.cpp:399] pool3/3x3_s2_pool3/3x3_s2_0_split -> pool3/3x3_s2_pool3/3x3_s2_0_split_2
I0403 15:50:54.638173 16119 net.cpp:399] pool3/3x3_s2_pool3/3x3_s2_0_split -> pool3/3x3_s2_pool3/3x3_s2_0_split_3
I0403 15:50:54.638262 16119 net.cpp:141] Setting up pool3/3x3_s2_pool3/3x3_s2_0_split
I0403 15:50:54.638286 16119 net.cpp:148] Top shape: 24 480 14 14 (2257920)
I0403 15:50:54.638303 16119 net.cpp:148] Top shape: 24 480 14 14 (2257920)
I0403 15:50:54.638319 16119 net.cpp:148] Top shape: 24 480 14 14 (2257920)
I0403 15:50:54.638335 16119 net.cpp:148] Top shape: 24 480 14 14 (2257920)
I0403 15:50:54.638350 16119 net.cpp:156] Memory required for data: 854397984
I0403 15:50:54.638365 16119 layer_factory.hpp:77] Creating layer inception_4a/1x1
I0403 15:50:54.638387 16119 net.cpp:91] Creating Layer inception_4a/1x1
I0403 15:50:54.638406 16119 net.cpp:425] inception_4a/1x1 <- pool3/3x3_s2_pool3/3x3_s2_0_split_0
I0403 15:50:54.638427 16119 net.cpp:399] inception_4a/1x1 -> inception_4a/1x1
I0403 15:50:54.640100 16119 net.cpp:141] Setting up inception_4a/1x1
I0403 15:50:54.640130 16119 net.cpp:148] Top shape: 24 192 14 14 (903168)
I0403 15:50:54.640146 16119 net.cpp:156] Memory required for data: 858010656
I0403 15:50:54.640163 16119 layer_factory.hpp:77] Creating layer inception_4a/relu_1x1
I0403 15:50:54.640184 16119 net.cpp:91] Creating Layer inception_4a/relu_1x1
I0403 15:50:54.640202 16119 net.cpp:425] inception_4a/relu_1x1 <- inception_4a/1x1
I0403 15:50:54.640221 16119 net.cpp:386] inception_4a/relu_1x1 -> inception_4a/1x1 (in-place)
I0403 15:50:54.640406 16119 net.cpp:141] Setting up inception_4a/relu_1x1
I0403 15:50:54.640436 16119 net.cpp:148] Top shape: 24 192 14 14 (903168)
I0403 15:50:54.640453 16119 net.cpp:156] Memory required for data: 861623328
I0403 15:50:54.640468 16119 layer_factory.hpp:77] Creating layer inception_4a/3x3_reduce
I0403 15:50:54.640492 16119 net.cpp:91] Creating Layer inception_4a/3x3_reduce
I0403 15:50:54.640511 16119 net.cpp:425] inception_4a/3x3_reduce <- pool3/3x3_s2_pool3/3x3_s2_0_split_1
I0403 15:50:54.640530 16119 net.cpp:399] inception_4a/3x3_reduce -> inception_4a/3x3_reduce
I0403 15:50:54.641896 16119 net.cpp:141] Setting up inception_4a/3x3_reduce
I0403 15:50:54.641927 16119 net.cpp:148] Top shape: 24 96 14 14 (451584)
I0403 15:50:54.641942 16119 net.cpp:156] Memory required for data: 863429664
I0403 15:50:54.641969 16119 layer_factory.hpp:77] Creating layer inception_4a/relu_3x3_reduce
I0403 15:50:54.641993 16119 net.cpp:91] Creating Layer inception_4a/relu_3x3_reduce
I0403 15:50:54.642011 16119 net.cpp:425] inception_4a/relu_3x3_reduce <- inception_4a/3x3_reduce
I0403 15:50:54.642030 16119 net.cpp:386] inception_4a/relu_3x3_reduce -> inception_4a/3x3_reduce (in-place)
I0403 15:50:54.642220 16119 net.cpp:141] Setting up inception_4a/relu_3x3_reduce
I0403 15:50:54.642249 16119 net.cpp:148] Top shape: 24 96 14 14 (451584)
I0403 15:50:54.642267 16119 net.cpp:156] Memory required for data: 865236000
I0403 15:50:54.642282 16119 layer_factory.hpp:77] Creating layer inception_4a/3x3
I0403 15:50:54.642304 16119 net.cpp:91] Creating Layer inception_4a/3x3
I0403 15:50:54.642323 16119 net.cpp:425] inception_4a/3x3 <- inception_4a/3x3_reduce
I0403 15:50:54.642343 16119 net.cpp:399] inception_4a/3x3 -> inception_4a/3x3
I0403 15:50:54.645198 16119 net.cpp:141] Setting up inception_4a/3x3
I0403 15:50:54.645231 16119 net.cpp:148] Top shape: 24 208 14 14 (978432)
I0403 15:50:54.645248 16119 net.cpp:156] Memory required for data: 869149728
I0403 15:50:54.645269 16119 layer_factory.hpp:77] Creating layer inception_4a/relu_3x3
I0403 15:50:54.645290 16119 net.cpp:91] Creating Layer inception_4a/relu_3x3
I0403 15:50:54.645308 16119 net.cpp:425] inception_4a/relu_3x3 <- inception_4a/3x3
I0403 15:50:54.645328 16119 net.cpp:386] inception_4a/relu_3x3 -> inception_4a/3x3 (in-place)
I0403 15:50:54.645627 16119 net.cpp:141] Setting up inception_4a/relu_3x3
I0403 15:50:54.645658 16119 net.cpp:148] Top shape: 24 208 14 14 (978432)
I0403 15:50:54.645675 16119 net.cpp:156] Memory required for data: 873063456
I0403 15:50:54.645690 16119 layer_factory.hpp:77] Creating layer inception_4a/5x5_reduce
I0403 15:50:54.645715 16119 net.cpp:91] Creating Layer inception_4a/5x5_reduce
I0403 15:50:54.645735 16119 net.cpp:425] inception_4a/5x5_reduce <- pool3/3x3_s2_pool3/3x3_s2_0_split_2
I0403 15:50:54.645756 16119 net.cpp:399] inception_4a/5x5_reduce -> inception_4a/5x5_reduce
I0403 15:50:54.646842 16119 net.cpp:141] Setting up inception_4a/5x5_reduce
I0403 15:50:54.646872 16119 net.cpp:148] Top shape: 24 16 14 14 (75264)
I0403 15:50:54.646890 16119 net.cpp:156] Memory required for data: 873364512
I0403 15:50:54.646908 16119 layer_factory.hpp:77] Creating layer inception_4a/relu_5x5_reduce
I0403 15:50:54.646929 16119 net.cpp:91] Creating Layer inception_4a/relu_5x5_reduce
I0403 15:50:54.646945 16119 net.cpp:425] inception_4a/relu_5x5_reduce <- inception_4a/5x5_reduce
I0403 15:50:54.646965 16119 net.cpp:386] inception_4a/relu_5x5_reduce -> inception_4a/5x5_reduce (in-place)
I0403 15:50:54.647159 16119 net.cpp:141] Setting up inception_4a/relu_5x5_reduce
I0403 15:50:54.647186 16119 net.cpp:148] Top shape: 24 16 14 14 (75264)
I0403 15:50:54.647202 16119 net.cpp:156] Memory required for data: 873665568
I0403 15:50:54.647217 16119 layer_factory.hpp:77] Creating layer inception_4a/5x5
I0403 15:50:54.647239 16119 net.cpp:91] Creating Layer inception_4a/5x5
I0403 15:50:54.647258 16119 net.cpp:425] inception_4a/5x5 <- inception_4a/5x5_reduce
I0403 15:50:54.647279 16119 net.cpp:399] inception_4a/5x5 -> inception_4a/5x5
I0403 15:50:54.648413 16119 net.cpp:141] Setting up inception_4a/5x5
I0403 15:50:54.648440 16119 net.cpp:148] Top shape: 24 48 14 14 (225792)
I0403 15:50:54.648455 16119 net.cpp:156] Memory required for data: 874568736
I0403 15:50:54.648473 16119 layer_factory.hpp:77] Creating layer inception_4a/relu_5x5
I0403 15:50:54.648494 16119 net.cpp:91] Creating Layer inception_4a/relu_5x5
I0403 15:50:54.648511 16119 net.cpp:425] inception_4a/relu_5x5 <- inception_4a/5x5
I0403 15:50:54.648529 16119 net.cpp:386] inception_4a/relu_5x5 -> inception_4a/5x5 (in-place)
I0403 15:50:54.648710 16119 net.cpp:141] Setting up inception_4a/relu_5x5
I0403 15:50:54.648735 16119 net.cpp:148] Top shape: 24 48 14 14 (225792)
I0403 15:50:54.648749 16119 net.cpp:156] Memory required for data: 875471904
I0403 15:50:54.648763 16119 layer_factory.hpp:77] Creating layer inception_4a/pool
I0403 15:50:54.648782 16119 net.cpp:91] Creating Layer inception_4a/pool
I0403 15:50:54.648799 16119 net.cpp:425] inception_4a/pool <- pool3/3x3_s2_pool3/3x3_s2_0_split_3
I0403 15:50:54.648816 16119 net.cpp:399] inception_4a/pool -> inception_4a/pool
I0403 15:50:54.648879 16119 net.cpp:141] Setting up inception_4a/pool
I0403 15:50:54.648901 16119 net.cpp:148] Top shape: 24 480 14 14 (2257920)
I0403 15:50:54.648916 16119 net.cpp:156] Memory required for data: 884503584
I0403 15:50:54.648931 16119 layer_factory.hpp:77] Creating layer inception_4a/pool_proj
I0403 15:50:54.648952 16119 net.cpp:91] Creating Layer inception_4a/pool_proj
I0403 15:50:54.648969 16119 net.cpp:425] inception_4a/pool_proj <- inception_4a/pool
I0403 15:50:54.648989 16119 net.cpp:399] inception_4a/pool_proj -> inception_4a/pool_proj
I0403 15:50:54.650161 16119 net.cpp:141] Setting up inception_4a/pool_proj
I0403 15:50:54.650189 16119 net.cpp:148] Top shape: 24 64 14 14 (301056)
I0403 15:50:54.650221 16119 net.cpp:156] Memory required for data: 885707808
I0403 15:50:54.650240 16119 layer_factory.hpp:77] Creating layer inception_4a/relu_pool_proj
I0403 15:50:54.650262 16119 net.cpp:91] Creating Layer inception_4a/relu_pool_proj
I0403 15:50:54.650280 16119 net.cpp:425] inception_4a/relu_pool_proj <- inception_4a/pool_proj
I0403 15:50:54.650297 16119 net.cpp:386] inception_4a/relu_pool_proj -> inception_4a/pool_proj (in-place)
I0403 15:50:54.650586 16119 net.cpp:141] Setting up inception_4a/relu_pool_proj
I0403 15:50:54.650612 16119 net.cpp:148] Top shape: 24 64 14 14 (301056)
I0403 15:50:54.650627 16119 net.cpp:156] Memory required for data: 886912032
I0403 15:50:54.650642 16119 layer_factory.hpp:77] Creating layer inception_4a/output
I0403 15:50:54.650665 16119 net.cpp:91] Creating Layer inception_4a/output
I0403 15:50:54.650681 16119 net.cpp:425] inception_4a/output <- inception_4a/1x1
I0403 15:50:54.650698 16119 net.cpp:425] inception_4a/output <- inception_4a/3x3
I0403 15:50:54.650713 16119 net.cpp:425] inception_4a/output <- inception_4a/5x5
I0403 15:50:54.650729 16119 net.cpp:425] inception_4a/output <- inception_4a/pool_proj
I0403 15:50:54.650746 16119 net.cpp:399] inception_4a/output -> inception_4a/output
I0403 15:50:54.650792 16119 net.cpp:141] Setting up inception_4a/output
I0403 15:50:54.650815 16119 net.cpp:148] Top shape: 24 512 14 14 (2408448)
I0403 15:50:54.650830 16119 net.cpp:156] Memory required for data: 896545824
I0403 15:50:54.650843 16119 layer_factory.hpp:77] Creating layer inception_4a/output_inception_4a/output_0_split
I0403 15:50:54.650861 16119 net.cpp:91] Creating Layer inception_4a/output_inception_4a/output_0_split
I0403 15:50:54.650876 16119 net.cpp:425] inception_4a/output_inception_4a/output_0_split <- inception_4a/output
I0403 15:50:54.650897 16119 net.cpp:399] inception_4a/output_inception_4a/output_0_split -> inception_4a/output_inception_4a/output_0_split_0
I0403 15:50:54.650918 16119 net.cpp:399] inception_4a/output_inception_4a/output_0_split -> inception_4a/output_inception_4a/output_0_split_1
I0403 15:50:54.650938 16119 net.cpp:399] inception_4a/output_inception_4a/output_0_split -> inception_4a/output_inception_4a/output_0_split_2
I0403 15:50:54.650959 16119 net.cpp:399] inception_4a/output_inception_4a/output_0_split -> inception_4a/output_inception_4a/output_0_split_3
I0403 15:50:54.650979 16119 net.cpp:399] inception_4a/output_inception_4a/output_0_split -> inception_4a/output_inception_4a/output_0_split_4
I0403 15:50:54.651070 16119 net.cpp:141] Setting up inception_4a/output_inception_4a/output_0_split
I0403 15:50:54.651093 16119 net.cpp:148] Top shape: 24 512 14 14 (2408448)
I0403 15:50:54.651111 16119 net.cpp:148] Top shape: 24 512 14 14 (2408448)
I0403 15:50:54.651127 16119 net.cpp:148] Top shape: 24 512 14 14 (2408448)
I0403 15:50:54.651142 16119 net.cpp:148] Top shape: 24 512 14 14 (2408448)
I0403 15:50:54.651156 16119 net.cpp:148] Top shape: 24 512 14 14 (2408448)
I0403 15:50:54.651170 16119 net.cpp:156] Memory required for data: 944714784
I0403 15:50:54.651183 16119 layer_factory.hpp:77] Creating layer loss1/ave_pool
I0403 15:50:54.651201 16119 net.cpp:91] Creating Layer loss1/ave_pool
I0403 15:50:54.651216 16119 net.cpp:425] loss1/ave_pool <- inception_4a/output_inception_4a/output_0_split_0
I0403 15:50:54.651237 16119 net.cpp:399] loss1/ave_pool -> loss1/ave_pool
I0403 15:50:54.651443 16119 net.cpp:141] Setting up loss1/ave_pool
I0403 15:50:54.651468 16119 net.cpp:148] Top shape: 24 512 4 4 (196608)
I0403 15:50:54.651482 16119 net.cpp:156] Memory required for data: 945501216
I0403 15:50:54.651496 16119 layer_factory.hpp:77] Creating layer loss1/conv
I0403 15:50:54.651518 16119 net.cpp:91] Creating Layer loss1/conv
I0403 15:50:54.651538 16119 net.cpp:425] loss1/conv <- loss1/ave_pool
I0403 15:50:54.651561 16119 net.cpp:399] loss1/conv -> loss1/conv
I0403 15:50:54.652971 16119 net.cpp:141] Setting up loss1/conv
I0403 15:50:54.653000 16119 net.cpp:148] Top shape: 24 128 4 4 (49152)
I0403 15:50:54.653017 16119 net.cpp:156] Memory required for data: 945697824
I0403 15:50:54.653049 16119 layer_factory.hpp:77] Creating layer loss1/relu_conv
I0403 15:50:54.653069 16119 net.cpp:91] Creating Layer loss1/relu_conv
I0403 15:50:54.653084 16119 net.cpp:425] loss1/relu_conv <- loss1/conv
I0403 15:50:54.653105 16119 net.cpp:386] loss1/relu_conv -> loss1/conv (in-place)
I0403 15:50:54.653383 16119 net.cpp:141] Setting up loss1/relu_conv
I0403 15:50:54.653411 16119 net.cpp:148] Top shape: 24 128 4 4 (49152)
I0403 15:50:54.653426 16119 net.cpp:156] Memory required for data: 945894432
I0403 15:50:54.653441 16119 layer_factory.hpp:77] Creating layer loss1/fc
I0403 15:50:54.653465 16119 net.cpp:91] Creating Layer loss1/fc
I0403 15:50:54.653481 16119 net.cpp:425] loss1/fc <- loss1/conv
I0403 15:50:54.653502 16119 net.cpp:399] loss1/fc -> loss1/fc
I0403 15:50:54.671205 16119 net.cpp:141] Setting up loss1/fc
I0403 15:50:54.671241 16119 net.cpp:148] Top shape: 24 1024 (24576)
I0403 15:50:54.671257 16119 net.cpp:156] Memory required for data: 945992736
I0403 15:50:54.671275 16119 layer_factory.hpp:77] Creating layer loss1/relu_fc
I0403 15:50:54.671295 16119 net.cpp:91] Creating Layer loss1/relu_fc
I0403 15:50:54.671311 16119 net.cpp:425] loss1/relu_fc <- loss1/fc
I0403 15:50:54.671329 16119 net.cpp:386] loss1/relu_fc -> loss1/fc (in-place)
I0403 15:50:54.671512 16119 net.cpp:141] Setting up loss1/relu_fc
I0403 15:50:54.671541 16119 net.cpp:148] Top shape: 24 1024 (24576)
I0403 15:50:54.671558 16119 net.cpp:156] Memory required for data: 946091040
I0403 15:50:54.671573 16119 layer_factory.hpp:77] Creating layer loss1/drop_fc
I0403 15:50:54.671599 16119 net.cpp:91] Creating Layer loss1/drop_fc
I0403 15:50:54.671617 16119 net.cpp:425] loss1/drop_fc <- loss1/fc
I0403 15:50:54.671633 16119 net.cpp:386] loss1/drop_fc -> loss1/fc (in-place)
I0403 15:50:54.671685 16119 net.cpp:141] Setting up loss1/drop_fc
I0403 15:50:54.671708 16119 net.cpp:148] Top shape: 24 1024 (24576)
I0403 15:50:54.671722 16119 net.cpp:156] Memory required for data: 946189344
I0403 15:50:54.671736 16119 layer_factory.hpp:77] Creating layer loss1/classifier_plantvillage
I0403 15:50:54.671758 16119 net.cpp:91] Creating Layer loss1/classifier_plantvillage
I0403 15:50:54.671775 16119 net.cpp:425] loss1/classifier_plantvillage <- loss1/fc
I0403 15:50:54.671792 16119 net.cpp:399] loss1/classifier_plantvillage -> loss1/classifier_plantvillage
I0403 15:50:54.672689 16119 net.cpp:141] Setting up loss1/classifier_plantvillage
I0403 15:50:54.672718 16119 net.cpp:148] Top shape: 24 38 (912)
I0403 15:50:54.672732 16119 net.cpp:156] Memory required for data: 946192992
I0403 15:50:54.672749 16119 layer_factory.hpp:77] Creating layer loss1/classifier_plantvillage_loss1/classifier_plantvillage_0_split
I0403 15:50:54.672770 16119 net.cpp:91] Creating Layer loss1/classifier_plantvillage_loss1/classifier_plantvillage_0_split
I0403 15:50:54.672785 16119 net.cpp:425] loss1/classifier_plantvillage_loss1/classifier_plantvillage_0_split <- loss1/classifier_plantvillage
I0403 15:50:54.672803 16119 net.cpp:399] loss1/classifier_plantvillage_loss1/classifier_plantvillage_0_split -> loss1/classifier_plantvillage_loss1/classifier_plantvillage_0_split_0
I0403 15:50:54.672824 16119 net.cpp:399] loss1/classifier_plantvillage_loss1/classifier_plantvillage_0_split -> loss1/classifier_plantvillage_loss1/classifier_plantvillage_0_split_1
I0403 15:50:54.672845 16119 net.cpp:399] loss1/classifier_plantvillage_loss1/classifier_plantvillage_0_split -> loss1/classifier_plantvillage_loss1/classifier_plantvillage_0_split_2
I0403 15:50:54.672911 16119 net.cpp:141] Setting up loss1/classifier_plantvillage_loss1/classifier_plantvillage_0_split
I0403 15:50:54.672935 16119 net.cpp:148] Top shape: 24 38 (912)
I0403 15:50:54.672950 16119 net.cpp:148] Top shape: 24 38 (912)
I0403 15:50:54.672963 16119 net.cpp:148] Top shape: 24 38 (912)
I0403 15:50:54.672977 16119 net.cpp:156] Memory required for data: 946203936
I0403 15:50:54.672991 16119 layer_factory.hpp:77] Creating layer inception_4b/1x1
I0403 15:50:54.673012 16119 net.cpp:91] Creating Layer inception_4b/1x1
I0403 15:50:54.673048 16119 net.cpp:425] inception_4b/1x1 <- inception_4a/output_inception_4a/output_0_split_1
I0403 15:50:54.673069 16119 net.cpp:399] inception_4b/1x1 -> inception_4b/1x1
I0403 15:50:54.674760 16119 net.cpp:141] Setting up inception_4b/1x1
I0403 15:50:54.674793 16119 net.cpp:148] Top shape: 24 160 14 14 (752640)
I0403 15:50:54.674808 16119 net.cpp:156] Memory required for data: 949214496
I0403 15:50:54.674828 16119 layer_factory.hpp:77] Creating layer inception_4b/relu_1x1
I0403 15:50:54.674846 16119 net.cpp:91] Creating Layer inception_4b/relu_1x1
I0403 15:50:54.674873 16119 net.cpp:425] inception_4b/relu_1x1 <- inception_4b/1x1
I0403 15:50:54.674892 16119 net.cpp:386] inception_4b/relu_1x1 -> inception_4b/1x1 (in-place)
I0403 15:50:54.675067 16119 net.cpp:141] Setting up inception_4b/relu_1x1
I0403 15:50:54.675091 16119 net.cpp:148] Top shape: 24 160 14 14 (752640)
I0403 15:50:54.675106 16119 net.cpp:156] Memory required for data: 952225056
I0403 15:50:54.675119 16119 layer_factory.hpp:77] Creating layer inception_4b/3x3_reduce
I0403 15:50:54.675143 16119 net.cpp:91] Creating Layer inception_4b/3x3_reduce
I0403 15:50:54.675159 16119 net.cpp:425] inception_4b/3x3_reduce <- inception_4a/output_inception_4a/output_0_split_2
I0403 15:50:54.675181 16119 net.cpp:399] inception_4b/3x3_reduce -> inception_4b/3x3_reduce
I0403 15:50:54.676566 16119 net.cpp:141] Setting up inception_4b/3x3_reduce
I0403 15:50:54.676594 16119 net.cpp:148] Top shape: 24 112 14 14 (526848)
I0403 15:50:54.676609 16119 net.cpp:156] Memory required for data: 954332448
I0403 15:50:54.676627 16119 layer_factory.hpp:77] Creating layer inception_4b/relu_3x3_reduce
I0403 15:50:54.676645 16119 net.cpp:91] Creating Layer inception_4b/relu_3x3_reduce
I0403 15:50:54.676661 16119 net.cpp:425] inception_4b/relu_3x3_reduce <- inception_4b/3x3_reduce
I0403 15:50:54.676681 16119 net.cpp:386] inception_4b/relu_3x3_reduce -> inception_4b/3x3_reduce (in-place)
I0403 15:50:54.676969 16119 net.cpp:141] Setting up inception_4b/relu_3x3_reduce
I0403 15:50:54.676995 16119 net.cpp:148] Top shape: 24 112 14 14 (526848)
I0403 15:50:54.677009 16119 net.cpp:156] Memory required for data: 956439840
I0403 15:50:54.677024 16119 layer_factory.hpp:77] Creating layer inception_4b/3x3
I0403 15:50:54.677047 16119 net.cpp:91] Creating Layer inception_4b/3x3
I0403 15:50:54.677064 16119 net.cpp:425] inception_4b/3x3 <- inception_4b/3x3_reduce
I0403 15:50:54.677084 16119 net.cpp:399] inception_4b/3x3 -> inception_4b/3x3
I0403 15:50:54.680115 16119 net.cpp:141] Setting up inception_4b/3x3
I0403 15:50:54.680145 16119 net.cpp:148] Top shape: 24 224 14 14 (1053696)
I0403 15:50:54.680160 16119 net.cpp:156] Memory required for data: 960654624
I0403 15:50:54.680178 16119 layer_factory.hpp:77] Creating layer inception_4b/relu_3x3
I0403 15:50:54.680198 16119 net.cpp:91] Creating Layer inception_4b/relu_3x3
I0403 15:50:54.680215 16119 net.cpp:425] inception_4b/relu_3x3 <- inception_4b/3x3
I0403 15:50:54.680233 16119 net.cpp:386] inception_4b/relu_3x3 -> inception_4b/3x3 (in-place)
I0403 15:50:54.680413 16119 net.cpp:141] Setting up inception_4b/relu_3x3
I0403 15:50:54.680439 16119 net.cpp:148] Top shape: 24 224 14 14 (1053696)
I0403 15:50:54.680454 16119 net.cpp:156] Memory required for data: 964869408
I0403 15:50:54.680467 16119 layer_factory.hpp:77] Creating layer inception_4b/5x5_reduce
I0403 15:50:54.680490 16119 net.cpp:91] Creating Layer inception_4b/5x5_reduce
I0403 15:50:54.680506 16119 net.cpp:425] inception_4b/5x5_reduce <- inception_4a/output_inception_4a/output_0_split_3
I0403 15:50:54.680528 16119 net.cpp:399] inception_4b/5x5_reduce -> inception_4b/5x5_reduce
I0403 15:50:54.681620 16119 net.cpp:141] Setting up inception_4b/5x5_reduce
I0403 15:50:54.681648 16119 net.cpp:148] Top shape: 24 24 14 14 (112896)
I0403 15:50:54.681663 16119 net.cpp:156] Memory required for data: 965320992
I0403 15:50:54.681681 16119 layer_factory.hpp:77] Creating layer inception_4b/relu_5x5_reduce
I0403 15:50:54.681700 16119 net.cpp:91] Creating Layer inception_4b/relu_5x5_reduce
I0403 15:50:54.681730 16119 net.cpp:425] inception_4b/relu_5x5_reduce <- inception_4b/5x5_reduce
I0403 15:50:54.681751 16119 net.cpp:386] inception_4b/relu_5x5_reduce -> inception_4b/5x5_reduce (in-place)
I0403 15:50:54.681939 16119 net.cpp:141] Setting up inception_4b/relu_5x5_reduce
I0403 15:50:54.681964 16119 net.cpp:148] Top shape: 24 24 14 14 (112896)
I0403 15:50:54.681978 16119 net.cpp:156] Memory required for data: 965772576
I0403 15:50:54.681993 16119 layer_factory.hpp:77] Creating layer inception_4b/5x5
I0403 15:50:54.682014 16119 net.cpp:91] Creating Layer inception_4b/5x5
I0403 15:50:54.682031 16119 net.cpp:425] inception_4b/5x5 <- inception_4b/5x5_reduce
I0403 15:50:54.682052 16119 net.cpp:399] inception_4b/5x5 -> inception_4b/5x5
I0403 15:50:54.683279 16119 net.cpp:141] Setting up inception_4b/5x5
I0403 15:50:54.683317 16119 net.cpp:148] Top shape: 24 64 14 14 (301056)
I0403 15:50:54.683333 16119 net.cpp:156] Memory required for data: 966976800
I0403 15:50:54.683351 16119 layer_factory.hpp:77] Creating layer inception_4b/relu_5x5
I0403 15:50:54.683369 16119 net.cpp:91] Creating Layer inception_4b/relu_5x5
I0403 15:50:54.683385 16119 net.cpp:425] inception_4b/relu_5x5 <- inception_4b/5x5
I0403 15:50:54.683404 16119 net.cpp:386] inception_4b/relu_5x5 -> inception_4b/5x5 (in-place)
I0403 15:50:54.683692 16119 net.cpp:141] Setting up inception_4b/relu_5x5
I0403 15:50:54.683722 16119 net.cpp:148] Top shape: 24 64 14 14 (301056)
I0403 15:50:54.683737 16119 net.cpp:156] Memory required for data: 968181024
I0403 15:50:54.683751 16119 layer_factory.hpp:77] Creating layer inception_4b/pool
I0403 15:50:54.683769 16119 net.cpp:91] Creating Layer inception_4b/pool
I0403 15:50:54.683786 16119 net.cpp:425] inception_4b/pool <- inception_4a/output_inception_4a/output_0_split_4
I0403 15:50:54.683806 16119 net.cpp:399] inception_4b/pool -> inception_4b/pool
I0403 15:50:54.683871 16119 net.cpp:141] Setting up inception_4b/pool
I0403 15:50:54.683897 16119 net.cpp:148] Top shape: 24 512 14 14 (2408448)
I0403 15:50:54.683912 16119 net.cpp:156] Memory required for data: 977814816
I0403 15:50:54.683926 16119 layer_factory.hpp:77] Creating layer inception_4b/pool_proj
I0403 15:50:54.683946 16119 net.cpp:91] Creating Layer inception_4b/pool_proj
I0403 15:50:54.683964 16119 net.cpp:425] inception_4b/pool_proj <- inception_4b/pool
I0403 15:50:54.683984 16119 net.cpp:399] inception_4b/pool_proj -> inception_4b/pool_proj
I0403 15:50:54.685199 16119 net.cpp:141] Setting up inception_4b/pool_proj
I0403 15:50:54.685225 16119 net.cpp:148] Top shape: 24 64 14 14 (301056)
I0403 15:50:54.685241 16119 net.cpp:156] Memory required for data: 979019040
I0403 15:50:54.685258 16119 layer_factory.hpp:77] Creating layer inception_4b/relu_pool_proj
I0403 15:50:54.685276 16119 net.cpp:91] Creating Layer inception_4b/relu_pool_proj
I0403 15:50:54.685292 16119 net.cpp:425] inception_4b/relu_pool_proj <- inception_4b/pool_proj
I0403 15:50:54.685312 16119 net.cpp:386] inception_4b/relu_pool_proj -> inception_4b/pool_proj (in-place)
I0403 15:50:54.685493 16119 net.cpp:141] Setting up inception_4b/relu_pool_proj
I0403 15:50:54.685518 16119 net.cpp:148] Top shape: 24 64 14 14 (301056)
I0403 15:50:54.685533 16119 net.cpp:156] Memory required for data: 980223264
I0403 15:50:54.685551 16119 layer_factory.hpp:77] Creating layer inception_4b/output
I0403 15:50:54.685570 16119 net.cpp:91] Creating Layer inception_4b/output
I0403 15:50:54.685585 16119 net.cpp:425] inception_4b/output <- inception_4b/1x1
I0403 15:50:54.685601 16119 net.cpp:425] inception_4b/output <- inception_4b/3x3
I0403 15:50:54.685616 16119 net.cpp:425] inception_4b/output <- inception_4b/5x5
I0403 15:50:54.685631 16119 net.cpp:425] inception_4b/output <- inception_4b/pool_proj
I0403 15:50:54.685653 16119 net.cpp:399] inception_4b/output -> inception_4b/output
I0403 15:50:54.685703 16119 net.cpp:141] Setting up inception_4b/output
I0403 15:50:54.685725 16119 net.cpp:148] Top shape: 24 512 14 14 (2408448)
I0403 15:50:54.685740 16119 net.cpp:156] Memory required for data: 989857056
I0403 15:50:54.685770 16119 layer_factory.hpp:77] Creating layer inception_4b/output_inception_4b/output_0_split
I0403 15:50:54.685787 16119 net.cpp:91] Creating Layer inception_4b/output_inception_4b/output_0_split
I0403 15:50:54.685802 16119 net.cpp:425] inception_4b/output_inception_4b/output_0_split <- inception_4b/output
I0403 15:50:54.685822 16119 net.cpp:399] inception_4b/output_inception_4b/output_0_split -> inception_4b/output_inception_4b/output_0_split_0
I0403 15:50:54.685842 16119 net.cpp:399] inception_4b/output_inception_4b/output_0_split -> inception_4b/output_inception_4b/output_0_split_1
I0403 15:50:54.685863 16119 net.cpp:399] inception_4b/output_inception_4b/output_0_split -> inception_4b/output_inception_4b/output_0_split_2
I0403 15:50:54.685883 16119 net.cpp:399] inception_4b/output_inception_4b/output_0_split -> inception_4b/output_inception_4b/output_0_split_3
I0403 15:50:54.685966 16119 net.cpp:141] Setting up inception_4b/output_inception_4b/output_0_split
I0403 15:50:54.685992 16119 net.cpp:148] Top shape: 24 512 14 14 (2408448)
I0403 15:50:54.686007 16119 net.cpp:148] Top shape: 24 512 14 14 (2408448)
I0403 15:50:54.686022 16119 net.cpp:148] Top shape: 24 512 14 14 (2408448)
I0403 15:50:54.686038 16119 net.cpp:148] Top shape: 24 512 14 14 (2408448)
I0403 15:50:54.686050 16119 net.cpp:156] Memory required for data: 1028392224
I0403 15:50:54.686064 16119 layer_factory.hpp:77] Creating layer inception_4c/1x1
I0403 15:50:54.686085 16119 net.cpp:91] Creating Layer inception_4c/1x1
I0403 15:50:54.686103 16119 net.cpp:425] inception_4c/1x1 <- inception_4b/output_inception_4b/output_0_split_0
I0403 15:50:54.686121 16119 net.cpp:399] inception_4c/1x1 -> inception_4c/1x1
I0403 15:50:54.687556 16119 net.cpp:141] Setting up inception_4c/1x1
I0403 15:50:54.687583 16119 net.cpp:148] Top shape: 24 128 14 14 (602112)
I0403 15:50:54.687599 16119 net.cpp:156] Memory required for data: 1030800672
I0403 15:50:54.687618 16119 layer_factory.hpp:77] Creating layer inception_4c/relu_1x1
I0403 15:50:54.687639 16119 net.cpp:91] Creating Layer inception_4c/relu_1x1
I0403 15:50:54.687656 16119 net.cpp:425] inception_4c/relu_1x1 <- inception_4c/1x1
I0403 15:50:54.687675 16119 net.cpp:386] inception_4c/relu_1x1 -> inception_4c/1x1 (in-place)
I0403 15:50:54.687857 16119 net.cpp:141] Setting up inception_4c/relu_1x1
I0403 15:50:54.687885 16119 net.cpp:148] Top shape: 24 128 14 14 (602112)
I0403 15:50:54.687901 16119 net.cpp:156] Memory required for data: 1033209120
I0403 15:50:54.687916 16119 layer_factory.hpp:77] Creating layer inception_4c/3x3_reduce
I0403 15:50:54.687938 16119 net.cpp:91] Creating Layer inception_4c/3x3_reduce
I0403 15:50:54.687957 16119 net.cpp:425] inception_4c/3x3_reduce <- inception_4b/output_inception_4b/output_0_split_1
I0403 15:50:54.687975 16119 net.cpp:399] inception_4c/3x3_reduce -> inception_4c/3x3_reduce
I0403 15:50:54.689973 16119 net.cpp:141] Setting up inception_4c/3x3_reduce
I0403 15:50:54.690004 16119 net.cpp:148] Top shape: 24 128 14 14 (602112)
I0403 15:50:54.690021 16119 net.cpp:156] Memory required for data: 1035617568
I0403 15:50:54.690038 16119 layer_factory.hpp:77] Creating layer inception_4c/relu_3x3_reduce
I0403 15:50:54.690057 16119 net.cpp:91] Creating Layer inception_4c/relu_3x3_reduce
I0403 15:50:54.690071 16119 net.cpp:425] inception_4c/relu_3x3_reduce <- inception_4c/3x3_reduce
I0403 15:50:54.690090 16119 net.cpp:386] inception_4c/relu_3x3_reduce -> inception_4c/3x3_reduce (in-place)
I0403 15:50:54.690376 16119 net.cpp:141] Setting up inception_4c/relu_3x3_reduce
I0403 15:50:54.690404 16119 net.cpp:148] Top shape: 24 128 14 14 (602112)
I0403 15:50:54.690420 16119 net.cpp:156] Memory required for data: 1038026016
I0403 15:50:54.690435 16119 layer_factory.hpp:77] Creating layer inception_4c/3x3
I0403 15:50:54.690459 16119 net.cpp:91] Creating Layer inception_4c/3x3
I0403 15:50:54.690476 16119 net.cpp:425] inception_4c/3x3 <- inception_4c/3x3_reduce
I0403 15:50:54.690495 16119 net.cpp:399] inception_4c/3x3 -> inception_4c/3x3
I0403 15:50:54.694351 16119 net.cpp:141] Setting up inception_4c/3x3
I0403 15:50:54.694394 16119 net.cpp:148] Top shape: 24 256 14 14 (1204224)
I0403 15:50:54.694411 16119 net.cpp:156] Memory required for data: 1042842912
I0403 15:50:54.694443 16119 layer_factory.hpp:77] Creating layer inception_4c/relu_3x3
I0403 15:50:54.694464 16119 net.cpp:91] Creating Layer inception_4c/relu_3x3
I0403 15:50:54.694501 16119 net.cpp:425] inception_4c/relu_3x3 <- inception_4c/3x3
I0403 15:50:54.694520 16119 net.cpp:386] inception_4c/relu_3x3 -> inception_4c/3x3 (in-place)
I0403 15:50:54.694725 16119 net.cpp:141] Setting up inception_4c/relu_3x3
I0403 15:50:54.694752 16119 net.cpp:148] Top shape: 24 256 14 14 (1204224)
I0403 15:50:54.694772 16119 net.cpp:156] Memory required for data: 1047659808
I0403 15:50:54.694792 16119 layer_factory.hpp:77] Creating layer inception_4c/5x5_reduce
I0403 15:50:54.694819 16119 net.cpp:91] Creating Layer inception_4c/5x5_reduce
I0403 15:50:54.694838 16119 net.cpp:425] inception_4c/5x5_reduce <- inception_4b/output_inception_4b/output_0_split_2
I0403 15:50:54.694867 16119 net.cpp:399] inception_4c/5x5_reduce -> inception_4c/5x5_reduce
I0403 15:50:54.695986 16119 net.cpp:141] Setting up inception_4c/5x5_reduce
I0403 15:50:54.696013 16119 net.cpp:148] Top shape: 24 24 14 14 (112896)
I0403 15:50:54.696029 16119 net.cpp:156] Memory required for data: 1048111392
I0403 15:50:54.696048 16119 layer_factory.hpp:77] Creating layer inception_4c/relu_5x5_reduce
I0403 15:50:54.696066 16119 net.cpp:91] Creating Layer inception_4c/relu_5x5_reduce
I0403 15:50:54.696082 16119 net.cpp:425] inception_4c/relu_5x5_reduce <- inception_4c/5x5_reduce
I0403 15:50:54.696101 16119 net.cpp:386] inception_4c/relu_5x5_reduce -> inception_4c/5x5_reduce (in-place)
I0403 15:50:54.696288 16119 net.cpp:141] Setting up inception_4c/relu_5x5_reduce
I0403 15:50:54.696313 16119 net.cpp:148] Top shape: 24 24 14 14 (112896)
I0403 15:50:54.696328 16119 net.cpp:156] Memory required for data: 1048562976
I0403 15:50:54.696342 16119 layer_factory.hpp:77] Creating layer inception_4c/5x5
I0403 15:50:54.696363 16119 net.cpp:91] Creating Layer inception_4c/5x5
I0403 15:50:54.696382 16119 net.cpp:425] inception_4c/5x5 <- inception_4c/5x5_reduce
I0403 15:50:54.696403 16119 net.cpp:399] inception_4c/5x5 -> inception_4c/5x5
I0403 15:50:54.697662 16119 net.cpp:141] Setting up inception_4c/5x5
I0403 15:50:54.697690 16119 net.cpp:148] Top shape: 24 64 14 14 (301056)
I0403 15:50:54.697710 16119 net.cpp:156] Memory required for data: 1049767200
I0403 15:50:54.697727 16119 layer_factory.hpp:77] Creating layer inception_4c/relu_5x5
I0403 15:50:54.697751 16119 net.cpp:91] Creating Layer inception_4c/relu_5x5
I0403 15:50:54.697773 16119 net.cpp:425] inception_4c/relu_5x5 <- inception_4c/5x5
I0403 15:50:54.697790 16119 net.cpp:386] inception_4c/relu_5x5 -> inception_4c/5x5 (in-place)
I0403 15:50:54.698084 16119 net.cpp:141] Setting up inception_4c/relu_5x5
I0403 15:50:54.698110 16119 net.cpp:148] Top shape: 24 64 14 14 (301056)
I0403 15:50:54.698125 16119 net.cpp:156] Memory required for data: 1050971424
I0403 15:50:54.698139 16119 layer_factory.hpp:77] Creating layer inception_4c/pool
I0403 15:50:54.698159 16119 net.cpp:91] Creating Layer inception_4c/pool
I0403 15:50:54.698176 16119 net.cpp:425] inception_4c/pool <- inception_4b/output_inception_4b/output_0_split_3
I0403 15:50:54.698195 16119 net.cpp:399] inception_4c/pool -> inception_4c/pool
I0403 15:50:54.698261 16119 net.cpp:141] Setting up inception_4c/pool
I0403 15:50:54.698285 16119 net.cpp:148] Top shape: 24 512 14 14 (2408448)
I0403 15:50:54.698299 16119 net.cpp:156] Memory required for data: 1060605216
I0403 15:50:54.698313 16119 layer_factory.hpp:77] Creating layer inception_4c/pool_proj
I0403 15:50:54.698335 16119 net.cpp:91] Creating Layer inception_4c/pool_proj
I0403 15:50:54.698354 16119 net.cpp:425] inception_4c/pool_proj <- inception_4c/pool
I0403 15:50:54.698374 16119 net.cpp:399] inception_4c/pool_proj -> inception_4c/pool_proj
I0403 15:50:54.699615 16119 net.cpp:141] Setting up inception_4c/pool_proj
I0403 15:50:54.699645 16119 net.cpp:148] Top shape: 24 64 14 14 (301056)
I0403 15:50:54.699686 16119 net.cpp:156] Memory required for data: 1061809440
I0403 15:50:54.699707 16119 layer_factory.hpp:77] Creating layer inception_4c/relu_pool_proj
I0403 15:50:54.699726 16119 net.cpp:91] Creating Layer inception_4c/relu_pool_proj
I0403 15:50:54.699743 16119 net.cpp:425] inception_4c/relu_pool_proj <- inception_4c/pool_proj
I0403 15:50:54.699762 16119 net.cpp:386] inception_4c/relu_pool_proj -> inception_4c/pool_proj (in-place)
I0403 15:50:54.699952 16119 net.cpp:141] Setting up inception_4c/relu_pool_proj
I0403 15:50:54.699978 16119 net.cpp:148] Top shape: 24 64 14 14 (301056)
I0403 15:50:54.699993 16119 net.cpp:156] Memory required for data: 1063013664
I0403 15:50:54.700008 16119 layer_factory.hpp:77] Creating layer inception_4c/output
I0403 15:50:54.700037 16119 net.cpp:91] Creating Layer inception_4c/output
I0403 15:50:54.700052 16119 net.cpp:425] inception_4c/output <- inception_4c/1x1
I0403 15:50:54.700067 16119 net.cpp:425] inception_4c/output <- inception_4c/3x3
I0403 15:50:54.700083 16119 net.cpp:425] inception_4c/output <- inception_4c/5x5
I0403 15:50:54.700098 16119 net.cpp:425] inception_4c/output <- inception_4c/pool_proj
I0403 15:50:54.700117 16119 net.cpp:399] inception_4c/output -> inception_4c/output
I0403 15:50:54.700166 16119 net.cpp:141] Setting up inception_4c/output
I0403 15:50:54.700189 16119 net.cpp:148] Top shape: 24 512 14 14 (2408448)
I0403 15:50:54.700204 16119 net.cpp:156] Memory required for data: 1072647456
I0403 15:50:54.700218 16119 layer_factory.hpp:77] Creating layer inception_4c/output_inception_4c/output_0_split
I0403 15:50:54.700234 16119 net.cpp:91] Creating Layer inception_4c/output_inception_4c/output_0_split
I0403 15:50:54.700250 16119 net.cpp:425] inception_4c/output_inception_4c/output_0_split <- inception_4c/output
I0403 15:50:54.700271 16119 net.cpp:399] inception_4c/output_inception_4c/output_0_split -> inception_4c/output_inception_4c/output_0_split_0
I0403 15:50:54.700292 16119 net.cpp:399] inception_4c/output_inception_4c/output_0_split -> inception_4c/output_inception_4c/output_0_split_1
I0403 15:50:54.700312 16119 net.cpp:399] inception_4c/output_inception_4c/output_0_split -> inception_4c/output_inception_4c/output_0_split_2
I0403 15:50:54.700331 16119 net.cpp:399] inception_4c/output_inception_4c/output_0_split -> inception_4c/output_inception_4c/output_0_split_3
I0403 15:50:54.700419 16119 net.cpp:141] Setting up inception_4c/output_inception_4c/output_0_split
I0403 15:50:54.700443 16119 net.cpp:148] Top shape: 24 512 14 14 (2408448)
I0403 15:50:54.700458 16119 net.cpp:148] Top shape: 24 512 14 14 (2408448)
I0403 15:50:54.700472 16119 net.cpp:148] Top shape: 24 512 14 14 (2408448)
I0403 15:50:54.700489 16119 net.cpp:148] Top shape: 24 512 14 14 (2408448)
I0403 15:50:54.700501 16119 net.cpp:156] Memory required for data: 1111182624
I0403 15:50:54.700515 16119 layer_factory.hpp:77] Creating layer inception_4d/1x1
I0403 15:50:54.700546 16119 net.cpp:91] Creating Layer inception_4d/1x1
I0403 15:50:54.700564 16119 net.cpp:425] inception_4d/1x1 <- inception_4c/output_inception_4c/output_0_split_0
I0403 15:50:54.700583 16119 net.cpp:399] inception_4d/1x1 -> inception_4d/1x1
I0403 15:50:54.701969 16119 net.cpp:141] Setting up inception_4d/1x1
I0403 15:50:54.701997 16119 net.cpp:148] Top shape: 24 112 14 14 (526848)
I0403 15:50:54.702013 16119 net.cpp:156] Memory required for data: 1113290016
I0403 15:50:54.702030 16119 layer_factory.hpp:77] Creating layer inception_4d/relu_1x1
I0403 15:50:54.702051 16119 net.cpp:91] Creating Layer inception_4d/relu_1x1
I0403 15:50:54.702069 16119 net.cpp:425] inception_4d/relu_1x1 <- inception_4d/1x1
I0403 15:50:54.702085 16119 net.cpp:386] inception_4d/relu_1x1 -> inception_4d/1x1 (in-place)
I0403 15:50:54.702272 16119 net.cpp:141] Setting up inception_4d/relu_1x1
I0403 15:50:54.702297 16119 net.cpp:148] Top shape: 24 112 14 14 (526848)
I0403 15:50:54.702311 16119 net.cpp:156] Memory required for data: 1115397408
I0403 15:50:54.702327 16119 layer_factory.hpp:77] Creating layer inception_4d/3x3_reduce
I0403 15:50:54.702363 16119 net.cpp:91] Creating Layer inception_4d/3x3_reduce
I0403 15:50:54.702381 16119 net.cpp:425] inception_4d/3x3_reduce <- inception_4c/output_inception_4c/output_0_split_1
I0403 15:50:54.702402 16119 net.cpp:399] inception_4d/3x3_reduce -> inception_4d/3x3_reduce
I0403 15:50:54.703925 16119 net.cpp:141] Setting up inception_4d/3x3_reduce
I0403 15:50:54.703953 16119 net.cpp:148] Top shape: 24 144 14 14 (677376)
I0403 15:50:54.703968 16119 net.cpp:156] Memory required for data: 1118106912
I0403 15:50:54.703985 16119 layer_factory.hpp:77] Creating layer inception_4d/relu_3x3_reduce
I0403 15:50:54.704006 16119 net.cpp:91] Creating Layer inception_4d/relu_3x3_reduce
I0403 15:50:54.704023 16119 net.cpp:425] inception_4d/relu_3x3_reduce <- inception_4d/3x3_reduce
I0403 15:50:54.704041 16119 net.cpp:386] inception_4d/relu_3x3_reduce -> inception_4d/3x3_reduce (in-place)
I0403 15:50:54.704329 16119 net.cpp:141] Setting up inception_4d/relu_3x3_reduce
I0403 15:50:54.704355 16119 net.cpp:148] Top shape: 24 144 14 14 (677376)
I0403 15:50:54.704370 16119 net.cpp:156] Memory required for data: 1120816416
I0403 15:50:54.704385 16119 layer_factory.hpp:77] Creating layer inception_4d/3x3
I0403 15:50:54.704406 16119 net.cpp:91] Creating Layer inception_4d/3x3
I0403 15:50:54.704424 16119 net.cpp:425] inception_4d/3x3 <- inception_4d/3x3_reduce
I0403 15:50:54.704445 16119 net.cpp:399] inception_4d/3x3 -> inception_4d/3x3
I0403 15:50:54.708751 16119 net.cpp:141] Setting up inception_4d/3x3
I0403 15:50:54.708782 16119 net.cpp:148] Top shape: 24 288 14 14 (1354752)
I0403 15:50:54.708798 16119 net.cpp:156] Memory required for data: 1126235424
I0403 15:50:54.708817 16119 layer_factory.hpp:77] Creating layer inception_4d/relu_3x3
I0403 15:50:54.708835 16119 net.cpp:91] Creating Layer inception_4d/relu_3x3
I0403 15:50:54.708850 16119 net.cpp:425] inception_4d/relu_3x3 <- inception_4d/3x3
I0403 15:50:54.708868 16119 net.cpp:386] inception_4d/relu_3x3 -> inception_4d/3x3 (in-place)
I0403 15:50:54.709059 16119 net.cpp:141] Setting up inception_4d/relu_3x3
I0403 15:50:54.709084 16119 net.cpp:148] Top shape: 24 288 14 14 (1354752)
I0403 15:50:54.709098 16119 net.cpp:156] Memory required for data: 1131654432
I0403 15:50:54.709113 16119 layer_factory.hpp:77] Creating layer inception_4d/5x5_reduce
I0403 15:50:54.709138 16119 net.cpp:91] Creating Layer inception_4d/5x5_reduce
I0403 15:50:54.709156 16119 net.cpp:425] inception_4d/5x5_reduce <- inception_4c/output_inception_4c/output_0_split_2
I0403 15:50:54.709178 16119 net.cpp:399] inception_4d/5x5_reduce -> inception_4d/5x5_reduce
I0403 15:50:54.710333 16119 net.cpp:141] Setting up inception_4d/5x5_reduce
I0403 15:50:54.710361 16119 net.cpp:148] Top shape: 24 32 14 14 (150528)
I0403 15:50:54.710377 16119 net.cpp:156] Memory required for data: 1132256544
I0403 15:50:54.710397 16119 layer_factory.hpp:77] Creating layer inception_4d/relu_5x5_reduce
I0403 15:50:54.710417 16119 net.cpp:91] Creating Layer inception_4d/relu_5x5_reduce
I0403 15:50:54.710433 16119 net.cpp:425] inception_4d/relu_5x5_reduce <- inception_4d/5x5_reduce
I0403 15:50:54.710450 16119 net.cpp:386] inception_4d/relu_5x5_reduce -> inception_4d/5x5_reduce (in-place)
I0403 15:50:54.710647 16119 net.cpp:141] Setting up inception_4d/relu_5x5_reduce
I0403 15:50:54.710671 16119 net.cpp:148] Top shape: 24 32 14 14 (150528)
I0403 15:50:54.710686 16119 net.cpp:156] Memory required for data: 1132858656
I0403 15:50:54.710700 16119 layer_factory.hpp:77] Creating layer inception_4d/5x5
I0403 15:50:54.710722 16119 net.cpp:91] Creating Layer inception_4d/5x5
I0403 15:50:54.710739 16119 net.cpp:425] inception_4d/5x5 <- inception_4d/5x5_reduce
I0403 15:50:54.710760 16119 net.cpp:399] inception_4d/5x5 -> inception_4d/5x5
I0403 15:50:54.712246 16119 net.cpp:141] Setting up inception_4d/5x5
I0403 15:50:54.712275 16119 net.cpp:148] Top shape: 24 64 14 14 (301056)
I0403 15:50:54.712291 16119 net.cpp:156] Memory required for data: 1134062880
I0403 15:50:54.712311 16119 layer_factory.hpp:77] Creating layer inception_4d/relu_5x5
I0403 15:50:54.712342 16119 net.cpp:91] Creating Layer inception_4d/relu_5x5
I0403 15:50:54.712360 16119 net.cpp:425] inception_4d/relu_5x5 <- inception_4d/5x5
I0403 15:50:54.712380 16119 net.cpp:386] inception_4d/relu_5x5 -> inception_4d/5x5 (in-place)
I0403 15:50:54.712688 16119 net.cpp:141] Setting up inception_4d/relu_5x5
I0403 15:50:54.712715 16119 net.cpp:148] Top shape: 24 64 14 14 (301056)
I0403 15:50:54.712730 16119 net.cpp:156] Memory required for data: 1135267104
I0403 15:50:54.712744 16119 layer_factory.hpp:77] Creating layer inception_4d/pool
I0403 15:50:54.712761 16119 net.cpp:91] Creating Layer inception_4d/pool
I0403 15:50:54.712777 16119 net.cpp:425] inception_4d/pool <- inception_4c/output_inception_4c/output_0_split_3
I0403 15:50:54.712798 16119 net.cpp:399] inception_4d/pool -> inception_4d/pool
I0403 15:50:54.712867 16119 net.cpp:141] Setting up inception_4d/pool
I0403 15:50:54.712889 16119 net.cpp:148] Top shape: 24 512 14 14 (2408448)
I0403 15:50:54.712905 16119 net.cpp:156] Memory required for data: 1144900896
I0403 15:50:54.712919 16119 layer_factory.hpp:77] Creating layer inception_4d/pool_proj
I0403 15:50:54.712944 16119 net.cpp:91] Creating Layer inception_4d/pool_proj
I0403 15:50:54.712960 16119 net.cpp:425] inception_4d/pool_proj <- inception_4d/pool
I0403 15:50:54.712978 16119 net.cpp:399] inception_4d/pool_proj -> inception_4d/pool_proj
I0403 15:50:54.714866 16119 net.cpp:141] Setting up inception_4d/pool_proj
I0403 15:50:54.714900 16119 net.cpp:148] Top shape: 24 64 14 14 (301056)
I0403 15:50:54.714917 16119 net.cpp:156] Memory required for data: 1146105120
I0403 15:50:54.714936 16119 layer_factory.hpp:77] Creating layer inception_4d/relu_pool_proj
I0403 15:50:54.714954 16119 net.cpp:91] Creating Layer inception_4d/relu_pool_proj
I0403 15:50:54.714972 16119 net.cpp:425] inception_4d/relu_pool_proj <- inception_4d/pool_proj
I0403 15:50:54.714989 16119 net.cpp:386] inception_4d/relu_pool_proj -> inception_4d/pool_proj (in-place)
I0403 15:50:54.715184 16119 net.cpp:141] Setting up inception_4d/relu_pool_proj
I0403 15:50:54.715212 16119 net.cpp:148] Top shape: 24 64 14 14 (301056)
I0403 15:50:54.715227 16119 net.cpp:156] Memory required for data: 1147309344
I0403 15:50:54.715243 16119 layer_factory.hpp:77] Creating layer inception_4d/output
I0403 15:50:54.715265 16119 net.cpp:91] Creating Layer inception_4d/output
I0403 15:50:54.715281 16119 net.cpp:425] inception_4d/output <- inception_4d/1x1
I0403 15:50:54.715298 16119 net.cpp:425] inception_4d/output <- inception_4d/3x3
I0403 15:50:54.715314 16119 net.cpp:425] inception_4d/output <- inception_4d/5x5
I0403 15:50:54.715330 16119 net.cpp:425] inception_4d/output <- inception_4d/pool_proj
I0403 15:50:54.715350 16119 net.cpp:399] inception_4d/output -> inception_4d/output
I0403 15:50:54.715399 16119 net.cpp:141] Setting up inception_4d/output
I0403 15:50:54.715425 16119 net.cpp:148] Top shape: 24 528 14 14 (2483712)
I0403 15:50:54.715441 16119 net.cpp:156] Memory required for data: 1157244192
I0403 15:50:54.715456 16119 layer_factory.hpp:77] Creating layer inception_4d/output_inception_4d/output_0_split
I0403 15:50:54.715481 16119 net.cpp:91] Creating Layer inception_4d/output_inception_4d/output_0_split
I0403 15:50:54.715497 16119 net.cpp:425] inception_4d/output_inception_4d/output_0_split <- inception_4d/output
I0403 15:50:54.715517 16119 net.cpp:399] inception_4d/output_inception_4d/output_0_split -> inception_4d/output_inception_4d/output_0_split_0
I0403 15:50:54.715553 16119 net.cpp:399] inception_4d/output_inception_4d/output_0_split -> inception_4d/output_inception_4d/output_0_split_1
I0403 15:50:54.715576 16119 net.cpp:399] inception_4d/output_inception_4d/output_0_split -> inception_4d/output_inception_4d/output_0_split_2
I0403 15:50:54.715597 16119 net.cpp:399] inception_4d/output_inception_4d/output_0_split -> inception_4d/output_inception_4d/output_0_split_3
I0403 15:50:54.715617 16119 net.cpp:399] inception_4d/output_inception_4d/output_0_split -> inception_4d/output_inception_4d/output_0_split_4
I0403 15:50:54.715721 16119 net.cpp:141] Setting up inception_4d/output_inception_4d/output_0_split
I0403 15:50:54.715775 16119 net.cpp:148] Top shape: 24 528 14 14 (2483712)
I0403 15:50:54.715792 16119 net.cpp:148] Top shape: 24 528 14 14 (2483712)
I0403 15:50:54.715808 16119 net.cpp:148] Top shape: 24 528 14 14 (2483712)
I0403 15:50:54.715824 16119 net.cpp:148] Top shape: 24 528 14 14 (2483712)
I0403 15:50:54.715840 16119 net.cpp:148] Top shape: 24 528 14 14 (2483712)
I0403 15:50:54.715854 16119 net.cpp:156] Memory required for data: 1206918432
I0403 15:50:54.715870 16119 layer_factory.hpp:77] Creating layer loss2/ave_pool
I0403 15:50:54.715891 16119 net.cpp:91] Creating Layer loss2/ave_pool
I0403 15:50:54.715909 16119 net.cpp:425] loss2/ave_pool <- inception_4d/output_inception_4d/output_0_split_0
I0403 15:50:54.715929 16119 net.cpp:399] loss2/ave_pool -> loss2/ave_pool
I0403 15:50:54.716264 16119 net.cpp:141] Setting up loss2/ave_pool
I0403 15:50:54.716294 16119 net.cpp:148] Top shape: 24 528 4 4 (202752)
I0403 15:50:54.716310 16119 net.cpp:156] Memory required for data: 1207729440
I0403 15:50:54.716325 16119 layer_factory.hpp:77] Creating layer loss2/conv
I0403 15:50:54.716348 16119 net.cpp:91] Creating Layer loss2/conv
I0403 15:50:54.716367 16119 net.cpp:425] loss2/conv <- loss2/ave_pool
I0403 15:50:54.716387 16119 net.cpp:399] loss2/conv -> loss2/conv
I0403 15:50:54.718359 16119 net.cpp:141] Setting up loss2/conv
I0403 15:50:54.718389 16119 net.cpp:148] Top shape: 24 128 4 4 (49152)
I0403 15:50:54.718405 16119 net.cpp:156] Memory required for data: 1207926048
I0403 15:50:54.718423 16119 layer_factory.hpp:77] Creating layer loss2/relu_conv
I0403 15:50:54.718444 16119 net.cpp:91] Creating Layer loss2/relu_conv
I0403 15:50:54.718462 16119 net.cpp:425] loss2/relu_conv <- loss2/conv
I0403 15:50:54.718479 16119 net.cpp:386] loss2/relu_conv -> loss2/conv (in-place)
I0403 15:50:54.718775 16119 net.cpp:141] Setting up loss2/relu_conv
I0403 15:50:54.718803 16119 net.cpp:148] Top shape: 24 128 4 4 (49152)
I0403 15:50:54.718818 16119 net.cpp:156] Memory required for data: 1208122656
I0403 15:50:54.718834 16119 layer_factory.hpp:77] Creating layer loss2/fc
I0403 15:50:54.718860 16119 net.cpp:91] Creating Layer loss2/fc
I0403 15:50:54.718878 16119 net.cpp:425] loss2/fc <- loss2/conv
I0403 15:50:54.718899 16119 net.cpp:399] loss2/fc -> loss2/fc
I0403 15:50:54.737262 16119 net.cpp:141] Setting up loss2/fc
I0403 15:50:54.737298 16119 net.cpp:148] Top shape: 24 1024 (24576)
I0403 15:50:54.737313 16119 net.cpp:156] Memory required for data: 1208220960
I0403 15:50:54.737332 16119 layer_factory.hpp:77] Creating layer loss2/relu_fc
I0403 15:50:54.737351 16119 net.cpp:91] Creating Layer loss2/relu_fc
I0403 15:50:54.737368 16119 net.cpp:425] loss2/relu_fc <- loss2/fc
I0403 15:50:54.737387 16119 net.cpp:386] loss2/relu_fc -> loss2/fc (in-place)
I0403 15:50:54.737725 16119 net.cpp:141] Setting up loss2/relu_fc
I0403 15:50:54.737752 16119 net.cpp:148] Top shape: 24 1024 (24576)
I0403 15:50:54.737768 16119 net.cpp:156] Memory required for data: 1208319264
I0403 15:50:54.737784 16119 layer_factory.hpp:77] Creating layer loss2/drop_fc
I0403 15:50:54.737802 16119 net.cpp:91] Creating Layer loss2/drop_fc
I0403 15:50:54.737818 16119 net.cpp:425] loss2/drop_fc <- loss2/fc
I0403 15:50:54.737838 16119 net.cpp:386] loss2/drop_fc -> loss2/fc (in-place)
I0403 15:50:54.737887 16119 net.cpp:141] Setting up loss2/drop_fc
I0403 15:50:54.737910 16119 net.cpp:148] Top shape: 24 1024 (24576)
I0403 15:50:54.737926 16119 net.cpp:156] Memory required for data: 1208417568
I0403 15:50:54.737939 16119 layer_factory.hpp:77] Creating layer loss2/classifier_plantvillage
I0403 15:50:54.737962 16119 net.cpp:91] Creating Layer loss2/classifier_plantvillage
I0403 15:50:54.737978 16119 net.cpp:425] loss2/classifier_plantvillage <- loss2/fc
I0403 15:50:54.737998 16119 net.cpp:399] loss2/classifier_plantvillage -> loss2/classifier_plantvillage
I0403 15:50:54.738409 16119 net.cpp:141] Setting up loss2/classifier_plantvillage
I0403 15:50:54.738435 16119 net.cpp:148] Top shape: 24 38 (912)
I0403 15:50:54.738450 16119 net.cpp:156] Memory required for data: 1208421216
I0403 15:50:54.738488 16119 layer_factory.hpp:77] Creating layer loss2/classifier_plantvillage_loss2/classifier_plantvillage_0_split
I0403 15:50:54.738510 16119 net.cpp:91] Creating Layer loss2/classifier_plantvillage_loss2/classifier_plantvillage_0_split
I0403 15:50:54.738528 16119 net.cpp:425] loss2/classifier_plantvillage_loss2/classifier_plantvillage_0_split <- loss2/classifier_plantvillage
I0403 15:50:54.738551 16119 net.cpp:399] loss2/classifier_plantvillage_loss2/classifier_plantvillage_0_split -> loss2/classifier_plantvillage_loss2/classifier_plantvillage_0_split_0
I0403 15:50:54.738572 16119 net.cpp:399] loss2/classifier_plantvillage_loss2/classifier_plantvillage_0_split -> loss2/classifier_plantvillage_loss2/classifier_plantvillage_0_split_1
I0403 15:50:54.738593 16119 net.cpp:399] loss2/classifier_plantvillage_loss2/classifier_plantvillage_0_split -> loss2/classifier_plantvillage_loss2/classifier_plantvillage_0_split_2
I0403 15:50:54.738673 16119 net.cpp:141] Setting up loss2/classifier_plantvillage_loss2/classifier_plantvillage_0_split
I0403 15:50:54.738697 16119 net.cpp:148] Top shape: 24 38 (912)
I0403 15:50:54.738711 16119 net.cpp:148] Top shape: 24 38 (912)
I0403 15:50:54.738728 16119 net.cpp:148] Top shape: 24 38 (912)
I0403 15:50:54.738740 16119 net.cpp:156] Memory required for data: 1208432160
I0403 15:50:54.738755 16119 layer_factory.hpp:77] Creating layer inception_4e/1x1
I0403 15:50:54.738776 16119 net.cpp:91] Creating Layer inception_4e/1x1
I0403 15:50:54.738792 16119 net.cpp:425] inception_4e/1x1 <- inception_4d/output_inception_4d/output_0_split_1
I0403 15:50:54.738814 16119 net.cpp:399] inception_4e/1x1 -> inception_4e/1x1
I0403 15:50:54.740674 16119 net.cpp:141] Setting up inception_4e/1x1
I0403 15:50:54.740701 16119 net.cpp:148] Top shape: 24 256 14 14 (1204224)
I0403 15:50:54.740717 16119 net.cpp:156] Memory required for data: 1213249056
I0403 15:50:54.740736 16119 layer_factory.hpp:77] Creating layer inception_4e/relu_1x1
I0403 15:50:54.740756 16119 net.cpp:91] Creating Layer inception_4e/relu_1x1
I0403 15:50:54.740772 16119 net.cpp:425] inception_4e/relu_1x1 <- inception_4e/1x1
I0403 15:50:54.740789 16119 net.cpp:386] inception_4e/relu_1x1 -> inception_4e/1x1 (in-place)
I0403 15:50:54.741092 16119 net.cpp:141] Setting up inception_4e/relu_1x1
I0403 15:50:54.741118 16119 net.cpp:148] Top shape: 24 256 14 14 (1204224)
I0403 15:50:54.741133 16119 net.cpp:156] Memory required for data: 1218065952
I0403 15:50:54.741148 16119 layer_factory.hpp:77] Creating layer inception_4e/3x3_reduce
I0403 15:50:54.741173 16119 net.cpp:91] Creating Layer inception_4e/3x3_reduce
I0403 15:50:54.741190 16119 net.cpp:425] inception_4e/3x3_reduce <- inception_4d/output_inception_4d/output_0_split_2
I0403 15:50:54.741210 16119 net.cpp:399] inception_4e/3x3_reduce -> inception_4e/3x3_reduce
I0403 15:50:54.743374 16119 net.cpp:141] Setting up inception_4e/3x3_reduce
I0403 15:50:54.743402 16119 net.cpp:148] Top shape: 24 160 14 14 (752640)
I0403 15:50:54.743418 16119 net.cpp:156] Memory required for data: 1221076512
I0403 15:50:54.743437 16119 layer_factory.hpp:77] Creating layer inception_4e/relu_3x3_reduce
I0403 15:50:54.743455 16119 net.cpp:91] Creating Layer inception_4e/relu_3x3_reduce
I0403 15:50:54.743474 16119 net.cpp:425] inception_4e/relu_3x3_reduce <- inception_4e/3x3_reduce
I0403 15:50:54.743491 16119 net.cpp:386] inception_4e/relu_3x3_reduce -> inception_4e/3x3_reduce (in-place)
I0403 15:50:54.743690 16119 net.cpp:141] Setting up inception_4e/relu_3x3_reduce
I0403 15:50:54.743716 16119 net.cpp:148] Top shape: 24 160 14 14 (752640)
I0403 15:50:54.743731 16119 net.cpp:156] Memory required for data: 1224087072
I0403 15:50:54.743744 16119 layer_factory.hpp:77] Creating layer inception_4e/3x3
I0403 15:50:54.743767 16119 net.cpp:91] Creating Layer inception_4e/3x3
I0403 15:50:54.743784 16119 net.cpp:425] inception_4e/3x3 <- inception_4e/3x3_reduce
I0403 15:50:54.743805 16119 net.cpp:399] inception_4e/3x3 -> inception_4e/3x3
I0403 15:50:54.748901 16119 net.cpp:141] Setting up inception_4e/3x3
I0403 15:50:54.748942 16119 net.cpp:148] Top shape: 24 320 14 14 (1505280)
I0403 15:50:54.748958 16119 net.cpp:156] Memory required for data: 1230108192
I0403 15:50:54.748976 16119 layer_factory.hpp:77] Creating layer inception_4e/relu_3x3
I0403 15:50:54.748997 16119 net.cpp:91] Creating Layer inception_4e/relu_3x3
I0403 15:50:54.749014 16119 net.cpp:425] inception_4e/relu_3x3 <- inception_4e/3x3
I0403 15:50:54.749032 16119 net.cpp:386] inception_4e/relu_3x3 -> inception_4e/3x3 (in-place)
I0403 15:50:54.749335 16119 net.cpp:141] Setting up inception_4e/relu_3x3
I0403 15:50:54.749361 16119 net.cpp:148] Top shape: 24 320 14 14 (1505280)
I0403 15:50:54.749375 16119 net.cpp:156] Memory required for data: 1236129312
I0403 15:50:54.749390 16119 layer_factory.hpp:77] Creating layer inception_4e/5x5_reduce
I0403 15:50:54.749414 16119 net.cpp:91] Creating Layer inception_4e/5x5_reduce
I0403 15:50:54.749431 16119 net.cpp:425] inception_4e/5x5_reduce <- inception_4d/output_inception_4d/output_0_split_3
I0403 15:50:54.749450 16119 net.cpp:399] inception_4e/5x5_reduce -> inception_4e/5x5_reduce
I0403 15:50:54.750550 16119 net.cpp:141] Setting up inception_4e/5x5_reduce
I0403 15:50:54.750577 16119 net.cpp:148] Top shape: 24 32 14 14 (150528)
I0403 15:50:54.750593 16119 net.cpp:156] Memory required for data: 1236731424
I0403 15:50:54.750610 16119 layer_factory.hpp:77] Creating layer inception_4e/relu_5x5_reduce
I0403 15:50:54.750628 16119 net.cpp:91] Creating Layer inception_4e/relu_5x5_reduce
I0403 15:50:54.750644 16119 net.cpp:425] inception_4e/relu_5x5_reduce <- inception_4e/5x5_reduce
I0403 15:50:54.750663 16119 net.cpp:386] inception_4e/relu_5x5_reduce -> inception_4e/5x5_reduce (in-place)
I0403 15:50:54.750968 16119 net.cpp:141] Setting up inception_4e/relu_5x5_reduce
I0403 15:50:54.750994 16119 net.cpp:148] Top shape: 24 32 14 14 (150528)
I0403 15:50:54.751009 16119 net.cpp:156] Memory required for data: 1237333536
I0403 15:50:54.751024 16119 layer_factory.hpp:77] Creating layer inception_4e/5x5
I0403 15:50:54.751061 16119 net.cpp:91] Creating Layer inception_4e/5x5
I0403 15:50:54.751080 16119 net.cpp:425] inception_4e/5x5 <- inception_4e/5x5_reduce
I0403 15:50:54.751099 16119 net.cpp:399] inception_4e/5x5 -> inception_4e/5x5
I0403 15:50:54.752976 16119 net.cpp:141] Setting up inception_4e/5x5
I0403 15:50:54.753005 16119 net.cpp:148] Top shape: 24 128 14 14 (602112)
I0403 15:50:54.753021 16119 net.cpp:156] Memory required for data: 1239741984
I0403 15:50:54.753039 16119 layer_factory.hpp:77] Creating layer inception_4e/relu_5x5
I0403 15:50:54.753057 16119 net.cpp:91] Creating Layer inception_4e/relu_5x5
I0403 15:50:54.753073 16119 net.cpp:425] inception_4e/relu_5x5 <- inception_4e/5x5
I0403 15:50:54.753093 16119 net.cpp:386] inception_4e/relu_5x5 -> inception_4e/5x5 (in-place)
I0403 15:50:54.753294 16119 net.cpp:141] Setting up inception_4e/relu_5x5
I0403 15:50:54.753319 16119 net.cpp:148] Top shape: 24 128 14 14 (602112)
I0403 15:50:54.753334 16119 net.cpp:156] Memory required for data: 1242150432
I0403 15:50:54.753348 16119 layer_factory.hpp:77] Creating layer inception_4e/pool
I0403 15:50:54.753366 16119 net.cpp:91] Creating Layer inception_4e/pool
I0403 15:50:54.753386 16119 net.cpp:425] inception_4e/pool <- inception_4d/output_inception_4d/output_0_split_4
I0403 15:50:54.753404 16119 net.cpp:399] inception_4e/pool -> inception_4e/pool
I0403 15:50:54.753475 16119 net.cpp:141] Setting up inception_4e/pool
I0403 15:50:54.753499 16119 net.cpp:148] Top shape: 24 528 14 14 (2483712)
I0403 15:50:54.753514 16119 net.cpp:156] Memory required for data: 1252085280
I0403 15:50:54.753527 16119 layer_factory.hpp:77] Creating layer inception_4e/pool_proj
I0403 15:50:54.753554 16119 net.cpp:91] Creating Layer inception_4e/pool_proj
I0403 15:50:54.753572 16119 net.cpp:425] inception_4e/pool_proj <- inception_4e/pool
I0403 15:50:54.753593 16119 net.cpp:399] inception_4e/pool_proj -> inception_4e/pool_proj
I0403 15:50:54.755126 16119 net.cpp:141] Setting up inception_4e/pool_proj
I0403 15:50:54.755159 16119 net.cpp:148] Top shape: 24 128 14 14 (602112)
I0403 15:50:54.755189 16119 net.cpp:156] Memory required for data: 1254493728
I0403 15:50:54.755208 16119 layer_factory.hpp:77] Creating layer inception_4e/relu_pool_proj
I0403 15:50:54.755226 16119 net.cpp:91] Creating Layer inception_4e/relu_pool_proj
I0403 15:50:54.755242 16119 net.cpp:425] inception_4e/relu_pool_proj <- inception_4e/pool_proj
I0403 15:50:54.755259 16119 net.cpp:386] inception_4e/relu_pool_proj -> inception_4e/pool_proj (in-place)
I0403 15:50:54.755560 16119 net.cpp:141] Setting up inception_4e/relu_pool_proj
I0403 15:50:54.755589 16119 net.cpp:148] Top shape: 24 128 14 14 (602112)
I0403 15:50:54.755604 16119 net.cpp:156] Memory required for data: 1256902176
I0403 15:50:54.755620 16119 layer_factory.hpp:77] Creating layer inception_4e/output
I0403 15:50:54.755637 16119 net.cpp:91] Creating Layer inception_4e/output
I0403 15:50:54.755652 16119 net.cpp:425] inception_4e/output <- inception_4e/1x1
I0403 15:50:54.755668 16119 net.cpp:425] inception_4e/output <- inception_4e/3x3
I0403 15:50:54.755684 16119 net.cpp:425] inception_4e/output <- inception_4e/5x5
I0403 15:50:54.755700 16119 net.cpp:425] inception_4e/output <- inception_4e/pool_proj
I0403 15:50:54.755717 16119 net.cpp:399] inception_4e/output -> inception_4e/output
I0403 15:50:54.755769 16119 net.cpp:141] Setting up inception_4e/output
I0403 15:50:54.755791 16119 net.cpp:148] Top shape: 24 832 14 14 (3913728)
I0403 15:50:54.755806 16119 net.cpp:156] Memory required for data: 1272557088
I0403 15:50:54.755820 16119 layer_factory.hpp:77] Creating layer pool4/3x3_s2
I0403 15:50:54.755841 16119 net.cpp:91] Creating Layer pool4/3x3_s2
I0403 15:50:54.755856 16119 net.cpp:425] pool4/3x3_s2 <- inception_4e/output
I0403 15:50:54.755874 16119 net.cpp:399] pool4/3x3_s2 -> pool4/3x3_s2
I0403 15:50:54.755942 16119 net.cpp:141] Setting up pool4/3x3_s2
I0403 15:50:54.755966 16119 net.cpp:148] Top shape: 24 832 7 7 (978432)
I0403 15:50:54.755981 16119 net.cpp:156] Memory required for data: 1276470816
I0403 15:50:54.755995 16119 layer_factory.hpp:77] Creating layer pool4/3x3_s2_pool4/3x3_s2_0_split
I0403 15:50:54.756011 16119 net.cpp:91] Creating Layer pool4/3x3_s2_pool4/3x3_s2_0_split
I0403 15:50:54.756027 16119 net.cpp:425] pool4/3x3_s2_pool4/3x3_s2_0_split <- pool4/3x3_s2
I0403 15:50:54.756047 16119 net.cpp:399] pool4/3x3_s2_pool4/3x3_s2_0_split -> pool4/3x3_s2_pool4/3x3_s2_0_split_0
I0403 15:50:54.756067 16119 net.cpp:399] pool4/3x3_s2_pool4/3x3_s2_0_split -> pool4/3x3_s2_pool4/3x3_s2_0_split_1
I0403 15:50:54.756088 16119 net.cpp:399] pool4/3x3_s2_pool4/3x3_s2_0_split -> pool4/3x3_s2_pool4/3x3_s2_0_split_2
I0403 15:50:54.756106 16119 net.cpp:399] pool4/3x3_s2_pool4/3x3_s2_0_split -> pool4/3x3_s2_pool4/3x3_s2_0_split_3
I0403 15:50:54.756198 16119 net.cpp:141] Setting up pool4/3x3_s2_pool4/3x3_s2_0_split
I0403 15:50:54.756223 16119 net.cpp:148] Top shape: 24 832 7 7 (978432)
I0403 15:50:54.756240 16119 net.cpp:148] Top shape: 24 832 7 7 (978432)
I0403 15:50:54.756255 16119 net.cpp:148] Top shape: 24 832 7 7 (978432)
I0403 15:50:54.756271 16119 net.cpp:148] Top shape: 24 832 7 7 (978432)
I0403 15:50:54.756284 16119 net.cpp:156] Memory required for data: 1292125728
I0403 15:50:54.756299 16119 layer_factory.hpp:77] Creating layer inception_5a/1x1
I0403 15:50:54.756321 16119 net.cpp:91] Creating Layer inception_5a/1x1
I0403 15:50:54.756338 16119 net.cpp:425] inception_5a/1x1 <- pool4/3x3_s2_pool4/3x3_s2_0_split_0
I0403 15:50:54.756357 16119 net.cpp:399] inception_5a/1x1 -> inception_5a/1x1
I0403 15:50:54.759245 16119 net.cpp:141] Setting up inception_5a/1x1
I0403 15:50:54.759277 16119 net.cpp:148] Top shape: 24 256 7 7 (301056)
I0403 15:50:54.759294 16119 net.cpp:156] Memory required for data: 1293329952
I0403 15:50:54.759312 16119 layer_factory.hpp:77] Creating layer inception_5a/relu_1x1
I0403 15:50:54.759330 16119 net.cpp:91] Creating Layer inception_5a/relu_1x1
I0403 15:50:54.759346 16119 net.cpp:425] inception_5a/relu_1x1 <- inception_5a/1x1
I0403 15:50:54.759366 16119 net.cpp:386] inception_5a/relu_1x1 -> inception_5a/1x1 (in-place)
I0403 15:50:54.759687 16119 net.cpp:141] Setting up inception_5a/relu_1x1
I0403 15:50:54.759716 16119 net.cpp:148] Top shape: 24 256 7 7 (301056)
I0403 15:50:54.759730 16119 net.cpp:156] Memory required for data: 1294534176
I0403 15:50:54.759745 16119 layer_factory.hpp:77] Creating layer inception_5a/3x3_reduce
I0403 15:50:54.759768 16119 net.cpp:91] Creating Layer inception_5a/3x3_reduce
I0403 15:50:54.759784 16119 net.cpp:425] inception_5a/3x3_reduce <- pool4/3x3_s2_pool4/3x3_s2_0_split_1
I0403 15:50:54.759805 16119 net.cpp:399] inception_5a/3x3_reduce -> inception_5a/3x3_reduce
I0403 15:50:54.762291 16119 net.cpp:141] Setting up inception_5a/3x3_reduce
I0403 15:50:54.762320 16119 net.cpp:148] Top shape: 24 160 7 7 (188160)
I0403 15:50:54.762337 16119 net.cpp:156] Memory required for data: 1295286816
I0403 15:50:54.762356 16119 layer_factory.hpp:77] Creating layer inception_5a/relu_3x3_reduce
I0403 15:50:54.762374 16119 net.cpp:91] Creating Layer inception_5a/relu_3x3_reduce
I0403 15:50:54.762390 16119 net.cpp:425] inception_5a/relu_3x3_reduce <- inception_5a/3x3_reduce
I0403 15:50:54.762408 16119 net.cpp:386] inception_5a/relu_3x3_reduce -> inception_5a/3x3_reduce (in-place)
I0403 15:50:54.762600 16119 net.cpp:141] Setting up inception_5a/relu_3x3_reduce
I0403 15:50:54.762627 16119 net.cpp:148] Top shape: 24 160 7 7 (188160)
I0403 15:50:54.762644 16119 net.cpp:156] Memory required for data: 1296039456
I0403 15:50:54.762658 16119 layer_factory.hpp:77] Creating layer inception_5a/3x3
I0403 15:50:54.762683 16119 net.cpp:91] Creating Layer inception_5a/3x3
I0403 15:50:54.762701 16119 net.cpp:425] inception_5a/3x3 <- inception_5a/3x3_reduce
I0403 15:50:54.762719 16119 net.cpp:399] inception_5a/3x3 -> inception_5a/3x3
I0403 15:50:54.767760 16119 net.cpp:141] Setting up inception_5a/3x3
I0403 15:50:54.767787 16119 net.cpp:148] Top shape: 24 320 7 7 (376320)
I0403 15:50:54.767802 16119 net.cpp:156] Memory required for data: 1297544736
I0403 15:50:54.767820 16119 layer_factory.hpp:77] Creating layer inception_5a/relu_3x3
I0403 15:50:54.767838 16119 net.cpp:91] Creating Layer inception_5a/relu_3x3
I0403 15:50:54.767853 16119 net.cpp:425] inception_5a/relu_3x3 <- inception_5a/3x3
I0403 15:50:54.767871 16119 net.cpp:386] inception_5a/relu_3x3 -> inception_5a/3x3 (in-place)
I0403 15:50:54.768165 16119 net.cpp:141] Setting up inception_5a/relu_3x3
I0403 15:50:54.768192 16119 net.cpp:148] Top shape: 24 320 7 7 (376320)
I0403 15:50:54.768206 16119 net.cpp:156] Memory required for data: 1299050016
I0403 15:50:54.768220 16119 layer_factory.hpp:77] Creating layer inception_5a/5x5_reduce
I0403 15:50:54.768241 16119 net.cpp:91] Creating Layer inception_5a/5x5_reduce
I0403 15:50:54.768259 16119 net.cpp:425] inception_5a/5x5_reduce <- pool4/3x3_s2_pool4/3x3_s2_0_split_2
I0403 15:50:54.768285 16119 net.cpp:399] inception_5a/5x5_reduce -> inception_5a/5x5_reduce
I0403 15:50:54.769434 16119 net.cpp:141] Setting up inception_5a/5x5_reduce
I0403 15:50:54.769464 16119 net.cpp:148] Top shape: 24 32 7 7 (37632)
I0403 15:50:54.769479 16119 net.cpp:156] Memory required for data: 1299200544
I0403 15:50:54.769496 16119 layer_factory.hpp:77] Creating layer inception_5a/relu_5x5_reduce
I0403 15:50:54.769516 16119 net.cpp:91] Creating Layer inception_5a/relu_5x5_reduce
I0403 15:50:54.769532 16119 net.cpp:425] inception_5a/relu_5x5_reduce <- inception_5a/5x5_reduce
I0403 15:50:54.769554 16119 net.cpp:386] inception_5a/relu_5x5_reduce -> inception_5a/5x5_reduce (in-place)
I0403 15:50:54.769879 16119 net.cpp:141] Setting up inception_5a/relu_5x5_reduce
I0403 15:50:54.769906 16119 net.cpp:148] Top shape: 24 32 7 7 (37632)
I0403 15:50:54.769956 16119 net.cpp:156] Memory required for data: 1299351072
I0403 15:50:54.769974 16119 layer_factory.hpp:77] Creating layer inception_5a/5x5
I0403 15:50:54.770009 16119 net.cpp:91] Creating Layer inception_5a/5x5
I0403 15:50:54.770056 16119 net.cpp:425] inception_5a/5x5 <- inception_5a/5x5_reduce
I0403 15:50:54.770081 16119 net.cpp:399] inception_5a/5x5 -> inception_5a/5x5
I0403 15:50:54.771977 16119 net.cpp:141] Setting up inception_5a/5x5
I0403 15:50:54.772020 16119 net.cpp:148] Top shape: 24 128 7 7 (150528)
I0403 15:50:54.772037 16119 net.cpp:156] Memory required for data: 1299953184
I0403 15:50:54.772056 16119 layer_factory.hpp:77] Creating layer inception_5a/relu_5x5
I0403 15:50:54.772075 16119 net.cpp:91] Creating Layer inception_5a/relu_5x5
I0403 15:50:54.772091 16119 net.cpp:425] inception_5a/relu_5x5 <- inception_5a/5x5
I0403 15:50:54.772111 16119 net.cpp:386] inception_5a/relu_5x5 -> inception_5a/5x5 (in-place)
I0403 15:50:54.772322 16119 net.cpp:141] Setting up inception_5a/relu_5x5
I0403 15:50:54.772347 16119 net.cpp:148] Top shape: 24 128 7 7 (150528)
I0403 15:50:54.772361 16119 net.cpp:156] Memory required for data: 1300555296
I0403 15:50:54.772377 16119 layer_factory.hpp:77] Creating layer inception_5a/pool
I0403 15:50:54.772397 16119 net.cpp:91] Creating Layer inception_5a/pool
I0403 15:50:54.772413 16119 net.cpp:425] inception_5a/pool <- pool4/3x3_s2_pool4/3x3_s2_0_split_3
I0403 15:50:54.772430 16119 net.cpp:399] inception_5a/pool -> inception_5a/pool
I0403 15:50:54.772502 16119 net.cpp:141] Setting up inception_5a/pool
I0403 15:50:54.772526 16119 net.cpp:148] Top shape: 24 832 7 7 (978432)
I0403 15:50:54.772546 16119 net.cpp:156] Memory required for data: 1304469024
I0403 15:50:54.772560 16119 layer_factory.hpp:77] Creating layer inception_5a/pool_proj
I0403 15:50:54.772585 16119 net.cpp:91] Creating Layer inception_5a/pool_proj
I0403 15:50:54.772604 16119 net.cpp:425] inception_5a/pool_proj <- inception_5a/pool
I0403 15:50:54.772625 16119 net.cpp:399] inception_5a/pool_proj -> inception_5a/pool_proj
I0403 15:50:54.774950 16119 net.cpp:141] Setting up inception_5a/pool_proj
I0403 15:50:54.774981 16119 net.cpp:148] Top shape: 24 128 7 7 (150528)
I0403 15:50:54.774998 16119 net.cpp:156] Memory required for data: 1305071136
I0403 15:50:54.775017 16119 layer_factory.hpp:77] Creating layer inception_5a/relu_pool_proj
I0403 15:50:54.775034 16119 net.cpp:91] Creating Layer inception_5a/relu_pool_proj
I0403 15:50:54.775050 16119 net.cpp:425] inception_5a/relu_pool_proj <- inception_5a/pool_proj
I0403 15:50:54.775070 16119 net.cpp:386] inception_5a/relu_pool_proj -> inception_5a/pool_proj (in-place)
I0403 15:50:54.775367 16119 net.cpp:141] Setting up inception_5a/relu_pool_proj
I0403 15:50:54.775395 16119 net.cpp:148] Top shape: 24 128 7 7 (150528)
I0403 15:50:54.775411 16119 net.cpp:156] Memory required for data: 1305673248
I0403 15:50:54.775426 16119 layer_factory.hpp:77] Creating layer inception_5a/output
I0403 15:50:54.775444 16119 net.cpp:91] Creating Layer inception_5a/output
I0403 15:50:54.775460 16119 net.cpp:425] inception_5a/output <- inception_5a/1x1
I0403 15:50:54.775475 16119 net.cpp:425] inception_5a/output <- inception_5a/3x3
I0403 15:50:54.775492 16119 net.cpp:425] inception_5a/output <- inception_5a/5x5
I0403 15:50:54.775508 16119 net.cpp:425] inception_5a/output <- inception_5a/pool_proj
I0403 15:50:54.775526 16119 net.cpp:399] inception_5a/output -> inception_5a/output
I0403 15:50:54.775583 16119 net.cpp:141] Setting up inception_5a/output
I0403 15:50:54.775605 16119 net.cpp:148] Top shape: 24 832 7 7 (978432)
I0403 15:50:54.775620 16119 net.cpp:156] Memory required for data: 1309586976
I0403 15:50:54.775635 16119 layer_factory.hpp:77] Creating layer inception_5a/output_inception_5a/output_0_split
I0403 15:50:54.775652 16119 net.cpp:91] Creating Layer inception_5a/output_inception_5a/output_0_split
I0403 15:50:54.775668 16119 net.cpp:425] inception_5a/output_inception_5a/output_0_split <- inception_5a/output
I0403 15:50:54.775689 16119 net.cpp:399] inception_5a/output_inception_5a/output_0_split -> inception_5a/output_inception_5a/output_0_split_0
I0403 15:50:54.775712 16119 net.cpp:399] inception_5a/output_inception_5a/output_0_split -> inception_5a/output_inception_5a/output_0_split_1
I0403 15:50:54.775732 16119 net.cpp:399] inception_5a/output_inception_5a/output_0_split -> inception_5a/output_inception_5a/output_0_split_2
I0403 15:50:54.775755 16119 net.cpp:399] inception_5a/output_inception_5a/output_0_split -> inception_5a/output_inception_5a/output_0_split_3
I0403 15:50:54.775866 16119 net.cpp:141] Setting up inception_5a/output_inception_5a/output_0_split
I0403 15:50:54.775889 16119 net.cpp:148] Top shape: 24 832 7 7 (978432)
I0403 15:50:54.775905 16119 net.cpp:148] Top shape: 24 832 7 7 (978432)
I0403 15:50:54.775919 16119 net.cpp:148] Top shape: 24 832 7 7 (978432)
I0403 15:50:54.775935 16119 net.cpp:148] Top shape: 24 832 7 7 (978432)
I0403 15:50:54.775949 16119 net.cpp:156] Memory required for data: 1325241888
I0403 15:50:54.775962 16119 layer_factory.hpp:77] Creating layer inception_5b/1x1
I0403 15:50:54.775984 16119 net.cpp:91] Creating Layer inception_5b/1x1
I0403 15:50:54.776000 16119 net.cpp:425] inception_5b/1x1 <- inception_5a/output_inception_5a/output_0_split_0
I0403 15:50:54.776021 16119 net.cpp:399] inception_5b/1x1 -> inception_5b/1x1
I0403 15:50:54.779917 16119 net.cpp:141] Setting up inception_5b/1x1
I0403 15:50:54.779948 16119 net.cpp:148] Top shape: 24 384 7 7 (451584)
I0403 15:50:54.779965 16119 net.cpp:156] Memory required for data: 1327048224
I0403 15:50:54.779983 16119 layer_factory.hpp:77] Creating layer inception_5b/relu_1x1
I0403 15:50:54.780001 16119 net.cpp:91] Creating Layer inception_5b/relu_1x1
I0403 15:50:54.780017 16119 net.cpp:425] inception_5b/relu_1x1 <- inception_5b/1x1
I0403 15:50:54.780035 16119 net.cpp:386] inception_5b/relu_1x1 -> inception_5b/1x1 (in-place)
I0403 15:50:54.780342 16119 net.cpp:141] Setting up inception_5b/relu_1x1
I0403 15:50:54.780371 16119 net.cpp:148] Top shape: 24 384 7 7 (451584)
I0403 15:50:54.780387 16119 net.cpp:156] Memory required for data: 1328854560
I0403 15:50:54.780402 16119 layer_factory.hpp:77] Creating layer inception_5b/3x3_reduce
I0403 15:50:54.780422 16119 net.cpp:91] Creating Layer inception_5b/3x3_reduce
I0403 15:50:54.780439 16119 net.cpp:425] inception_5b/3x3_reduce <- inception_5a/output_inception_5a/output_0_split_1
I0403 15:50:54.780460 16119 net.cpp:399] inception_5b/3x3_reduce -> inception_5b/3x3_reduce
I0403 15:50:54.783169 16119 net.cpp:141] Setting up inception_5b/3x3_reduce
I0403 15:50:54.783200 16119 net.cpp:148] Top shape: 24 192 7 7 (225792)
I0403 15:50:54.783215 16119 net.cpp:156] Memory required for data: 1329757728
I0403 15:50:54.783236 16119 layer_factory.hpp:77] Creating layer inception_5b/relu_3x3_reduce
I0403 15:50:54.783254 16119 net.cpp:91] Creating Layer inception_5b/relu_3x3_reduce
I0403 15:50:54.783270 16119 net.cpp:425] inception_5b/relu_3x3_reduce <- inception_5b/3x3_reduce
I0403 15:50:54.783288 16119 net.cpp:386] inception_5b/relu_3x3_reduce -> inception_5b/3x3_reduce (in-place)
I0403 15:50:54.783486 16119 net.cpp:141] Setting up inception_5b/relu_3x3_reduce
I0403 15:50:54.783511 16119 net.cpp:148] Top shape: 24 192 7 7 (225792)
I0403 15:50:54.783526 16119 net.cpp:156] Memory required for data: 1330660896
I0403 15:50:54.783546 16119 layer_factory.hpp:77] Creating layer inception_5b/3x3
I0403 15:50:54.783571 16119 net.cpp:91] Creating Layer inception_5b/3x3
I0403 15:50:54.783588 16119 net.cpp:425] inception_5b/3x3 <- inception_5b/3x3_reduce
I0403 15:50:54.783612 16119 net.cpp:399] inception_5b/3x3 -> inception_5b/3x3
I0403 15:50:54.790463 16119 net.cpp:141] Setting up inception_5b/3x3
I0403 15:50:54.790493 16119 net.cpp:148] Top shape: 24 384 7 7 (451584)
I0403 15:50:54.790509 16119 net.cpp:156] Memory required for data: 1332467232
I0403 15:50:54.790527 16119 layer_factory.hpp:77] Creating layer inception_5b/relu_3x3
I0403 15:50:54.790551 16119 net.cpp:91] Creating Layer inception_5b/relu_3x3
I0403 15:50:54.790568 16119 net.cpp:425] inception_5b/relu_3x3 <- inception_5b/3x3
I0403 15:50:54.790588 16119 net.cpp:386] inception_5b/relu_3x3 -> inception_5b/3x3 (in-place)
I0403 15:50:54.790879 16119 net.cpp:141] Setting up inception_5b/relu_3x3
I0403 15:50:54.790907 16119 net.cpp:148] Top shape: 24 384 7 7 (451584)
I0403 15:50:54.790922 16119 net.cpp:156] Memory required for data: 1334273568
I0403 15:50:54.790937 16119 layer_factory.hpp:77] Creating layer inception_5b/5x5_reduce
I0403 15:50:54.790974 16119 net.cpp:91] Creating Layer inception_5b/5x5_reduce
I0403 15:50:54.790993 16119 net.cpp:425] inception_5b/5x5_reduce <- inception_5a/output_inception_5a/output_0_split_2
I0403 15:50:54.791013 16119 net.cpp:399] inception_5b/5x5_reduce -> inception_5b/5x5_reduce
I0403 15:50:54.792263 16119 net.cpp:141] Setting up inception_5b/5x5_reduce
I0403 15:50:54.792292 16119 net.cpp:148] Top shape: 24 48 7 7 (56448)
I0403 15:50:54.792307 16119 net.cpp:156] Memory required for data: 1334499360
I0403 15:50:54.792325 16119 layer_factory.hpp:77] Creating layer inception_5b/relu_5x5_reduce
I0403 15:50:54.792342 16119 net.cpp:91] Creating Layer inception_5b/relu_5x5_reduce
I0403 15:50:54.792358 16119 net.cpp:425] inception_5b/relu_5x5_reduce <- inception_5b/5x5_reduce
I0403 15:50:54.792376 16119 net.cpp:386] inception_5b/relu_5x5_reduce -> inception_5b/5x5_reduce (in-place)
I0403 15:50:54.792749 16119 net.cpp:141] Setting up inception_5b/relu_5x5_reduce
I0403 15:50:54.792775 16119 net.cpp:148] Top shape: 24 48 7 7 (56448)
I0403 15:50:54.792789 16119 net.cpp:156] Memory required for data: 1334725152
I0403 15:50:54.792804 16119 layer_factory.hpp:77] Creating layer inception_5b/5x5
I0403 15:50:54.792824 16119 net.cpp:91] Creating Layer inception_5b/5x5
I0403 15:50:54.792840 16119 net.cpp:425] inception_5b/5x5 <- inception_5b/5x5_reduce
I0403 15:50:54.792858 16119 net.cpp:399] inception_5b/5x5 -> inception_5b/5x5
I0403 15:50:54.794880 16119 net.cpp:141] Setting up inception_5b/5x5
I0403 15:50:54.794909 16119 net.cpp:148] Top shape: 24 128 7 7 (150528)
I0403 15:50:54.794925 16119 net.cpp:156] Memory required for data: 1335327264
I0403 15:50:54.794944 16119 layer_factory.hpp:77] Creating layer inception_5b/relu_5x5
I0403 15:50:54.794961 16119 net.cpp:91] Creating Layer inception_5b/relu_5x5
I0403 15:50:54.794977 16119 net.cpp:425] inception_5b/relu_5x5 <- inception_5b/5x5
I0403 15:50:54.794996 16119 net.cpp:386] inception_5b/relu_5x5 -> inception_5b/5x5 (in-place)
I0403 15:50:54.795186 16119 net.cpp:141] Setting up inception_5b/relu_5x5
I0403 15:50:54.795210 16119 net.cpp:148] Top shape: 24 128 7 7 (150528)
I0403 15:50:54.795225 16119 net.cpp:156] Memory required for data: 1335929376
I0403 15:50:54.795238 16119 layer_factory.hpp:77] Creating layer inception_5b/pool
I0403 15:50:54.795258 16119 net.cpp:91] Creating Layer inception_5b/pool
I0403 15:50:54.795274 16119 net.cpp:425] inception_5b/pool <- inception_5a/output_inception_5a/output_0_split_3
I0403 15:50:54.795291 16119 net.cpp:399] inception_5b/pool -> inception_5b/pool
I0403 15:50:54.795363 16119 net.cpp:141] Setting up inception_5b/pool
I0403 15:50:54.795385 16119 net.cpp:148] Top shape: 24 832 7 7 (978432)
I0403 15:50:54.795399 16119 net.cpp:156] Memory required for data: 1339843104
I0403 15:50:54.795413 16119 layer_factory.hpp:77] Creating layer inception_5b/pool_proj
I0403 15:50:54.795438 16119 net.cpp:91] Creating Layer inception_5b/pool_proj
I0403 15:50:54.795455 16119 net.cpp:425] inception_5b/pool_proj <- inception_5b/pool
I0403 15:50:54.795475 16119 net.cpp:399] inception_5b/pool_proj -> inception_5b/pool_proj
I0403 15:50:54.797796 16119 net.cpp:141] Setting up inception_5b/pool_proj
I0403 15:50:54.797826 16119 net.cpp:148] Top shape: 24 128 7 7 (150528)
I0403 15:50:54.797842 16119 net.cpp:156] Memory required for data: 1340445216
I0403 15:50:54.797859 16119 layer_factory.hpp:77] Creating layer inception_5b/relu_pool_proj
I0403 15:50:54.797878 16119 net.cpp:91] Creating Layer inception_5b/relu_pool_proj
I0403 15:50:54.797894 16119 net.cpp:425] inception_5b/relu_pool_proj <- inception_5b/pool_proj
I0403 15:50:54.797911 16119 net.cpp:386] inception_5b/relu_pool_proj -> inception_5b/pool_proj (in-place)
I0403 15:50:54.798210 16119 net.cpp:141] Setting up inception_5b/relu_pool_proj
I0403 15:50:54.798238 16119 net.cpp:148] Top shape: 24 128 7 7 (150528)
I0403 15:50:54.798252 16119 net.cpp:156] Memory required for data: 1341047328
I0403 15:50:54.798267 16119 layer_factory.hpp:77] Creating layer inception_5b/output
I0403 15:50:54.798283 16119 net.cpp:91] Creating Layer inception_5b/output
I0403 15:50:54.798313 16119 net.cpp:425] inception_5b/output <- inception_5b/1x1
I0403 15:50:54.798331 16119 net.cpp:425] inception_5b/output <- inception_5b/3x3
I0403 15:50:54.798346 16119 net.cpp:425] inception_5b/output <- inception_5b/5x5
I0403 15:50:54.798362 16119 net.cpp:425] inception_5b/output <- inception_5b/pool_proj
I0403 15:50:54.798377 16119 net.cpp:399] inception_5b/output -> inception_5b/output
I0403 15:50:54.798430 16119 net.cpp:141] Setting up inception_5b/output
I0403 15:50:54.798452 16119 net.cpp:148] Top shape: 24 1024 7 7 (1204224)
I0403 15:50:54.798467 16119 net.cpp:156] Memory required for data: 1345864224
I0403 15:50:54.798481 16119 layer_factory.hpp:77] Creating layer pool5/7x7_s1
I0403 15:50:54.798501 16119 net.cpp:91] Creating Layer pool5/7x7_s1
I0403 15:50:54.798516 16119 net.cpp:425] pool5/7x7_s1 <- inception_5b/output
I0403 15:50:54.798533 16119 net.cpp:399] pool5/7x7_s1 -> pool5/7x7_s1
I0403 15:50:54.798758 16119 net.cpp:141] Setting up pool5/7x7_s1
I0403 15:50:54.798782 16119 net.cpp:148] Top shape: 24 1024 1 1 (24576)
I0403 15:50:54.798797 16119 net.cpp:156] Memory required for data: 1345962528
I0403 15:50:54.798811 16119 layer_factory.hpp:77] Creating layer pool5/drop_7x7_s1
I0403 15:50:54.798828 16119 net.cpp:91] Creating Layer pool5/drop_7x7_s1
I0403 15:50:54.798843 16119 net.cpp:425] pool5/drop_7x7_s1 <- pool5/7x7_s1
I0403 15:50:54.798862 16119 net.cpp:386] pool5/drop_7x7_s1 -> pool5/7x7_s1 (in-place)
I0403 15:50:54.798912 16119 net.cpp:141] Setting up pool5/drop_7x7_s1
I0403 15:50:54.798936 16119 net.cpp:148] Top shape: 24 1024 1 1 (24576)
I0403 15:50:54.798951 16119 net.cpp:156] Memory required for data: 1346060832
I0403 15:50:54.798965 16119 layer_factory.hpp:77] Creating layer loss3/classifier_plantvillage
I0403 15:50:54.798985 16119 net.cpp:91] Creating Layer loss3/classifier_plantvillage
I0403 15:50:54.799000 16119 net.cpp:425] loss3/classifier_plantvillage <- pool5/7x7_s1
I0403 15:50:54.799020 16119 net.cpp:399] loss3/classifier_plantvillage -> loss3/classifier_plantvillage
I0403 15:50:54.799435 16119 net.cpp:141] Setting up loss3/classifier_plantvillage
I0403 15:50:54.799459 16119 net.cpp:148] Top shape: 24 38 (912)
I0403 15:50:54.799474 16119 net.cpp:156] Memory required for data: 1346064480
I0403 15:50:54.799490 16119 layer_factory.hpp:77] Creating layer loss3/classifier_plantvillage_loss3/classifier_plantvillage_0_split
I0403 15:50:54.799511 16119 net.cpp:91] Creating Layer loss3/classifier_plantvillage_loss3/classifier_plantvillage_0_split
I0403 15:50:54.799527 16119 net.cpp:425] loss3/classifier_plantvillage_loss3/classifier_plantvillage_0_split <- loss3/classifier_plantvillage
I0403 15:50:54.799551 16119 net.cpp:399] loss3/classifier_plantvillage_loss3/classifier_plantvillage_0_split -> loss3/classifier_plantvillage_loss3/classifier_plantvillage_0_split_0
I0403 15:50:54.799572 16119 net.cpp:399] loss3/classifier_plantvillage_loss3/classifier_plantvillage_0_split -> loss3/classifier_plantvillage_loss3/classifier_plantvillage_0_split_1
I0403 15:50:54.799592 16119 net.cpp:399] loss3/classifier_plantvillage_loss3/classifier_plantvillage_0_split -> loss3/classifier_plantvillage_loss3/classifier_plantvillage_0_split_2
I0403 15:50:54.799615 16119 net.cpp:399] loss3/classifier_plantvillage_loss3/classifier_plantvillage_0_split -> loss3/classifier_plantvillage_loss3/classifier_plantvillage_0_split_3
I0403 15:50:54.799715 16119 net.cpp:141] Setting up loss3/classifier_plantvillage_loss3/classifier_plantvillage_0_split
I0403 15:50:54.799738 16119 net.cpp:148] Top shape: 24 38 (912)
I0403 15:50:54.799753 16119 net.cpp:148] Top shape: 24 38 (912)
I0403 15:50:54.799768 16119 net.cpp:148] Top shape: 24 38 (912)
I0403 15:50:54.799782 16119 net.cpp:148] Top shape: 24 38 (912)
I0403 15:50:54.799796 16119 net.cpp:156] Memory required for data: 1346079072
I0403 15:50:54.799809 16119 layer_factory.hpp:77] Creating layer loss1/loss
I0403 15:50:54.799830 16119 net.cpp:91] Creating Layer loss1/loss
I0403 15:50:54.799847 16119 net.cpp:425] loss1/loss <- loss1/classifier_plantvillage_loss1/classifier_plantvillage_0_split_0
I0403 15:50:54.799876 16119 net.cpp:425] loss1/loss <- label_data_1_split_0
…
