…
I0403 15:19:24.763631 14528 net.cpp:313] The NetState phase (1) differed from the phase (0) specified by a rule in layer data
I0403 15:19:24.764792 14528 net.cpp:49] Initializing net from parameters: 
state {
  phase: TEST
}
layer {
  name: "data"
  type: "Data"
  top: "data"
  top: "label"
  include {
    phase: TEST
  }
  transform_param {
    mirror: false
    crop_size: 224
    mean_file: "/home/mohanty/data/final_dataset/lmdb/color-50-50/mean.binaryproto"
  }
  data_param {
    source: "/home/mohanty/data/final_dataset/lmdb/color-50-50/test_db"
    batch_size: 24
    backend: LMDB
  }
}
layer {
  name: "conv1/7x7_s2"
  type: "Convolution"
  bottom: "data"
  top: "conv1/7x7_s2"
  param {
    lr_mult: 1
    decay_mult: 1
  }
  param {
    lr_mult: 2
    decay_mult: 0
  }
  convolution_param {
    num_output: 64
    pad: 3
    kernel_size: 7
    stride: 2
    weight_filler {
      type: "xavier"
      std: 0.1
    }
    bias_filler {
      type: "constant"
      value: 0.2
    }
  }
}
layer {
  name: "conv1/relu_7x7"
  type: "ReLU"
  bottom: "conv1/7x7_s2"
  top: "conv1/7x7_s2"
}
layer {
  name: "pool1/3x3_s2"
  type: "Pooling"
  bottom: "conv1/7x7_s2"
  top: "pool1/3x3_s2"
  pooling_param {
    pool: MAX
    kernel_size: 3
    stride: 2
  }
}
layer {
  name: "pool1/norm1"
  type: "LRN"
  bottom: "pool1/3x3_s2"
  top: "pool1/norm1"
  lrn_param {
    local_size: 5
    alpha: 0.0001
    beta: 0.75
  }
}
layer {
  name: "conv2/3x3_reduce"
  type: "Convolution"
  bottom: "pool1/norm1"
  top: "conv2/3x3_reduce"
  param {
    lr_mult: 1
    decay_mult: 1
  }
  param {
    lr_mult: 2
    decay_mult: 0
  }
  convolution_param {
    num_output: 64
    kernel_size: 1
    weight_filler {
      type: "xavier"
      std: 0.1
    }
    bias_filler {
      type: "constant"
      value: 0.2
    }
  }
}
layer {
  name: "conv2/relu_3x3_reduce"
  type: "ReLU"
  bottom: "conv2/3x3_reduce"
  top: "conv2/3x3_reduce"
}
layer {
  name: "conv2/3x3"
  type: "Convolution"
  bottom: "conv2/3x3_reduce"
  top: "conv2/3x3"
  param {
    lr_mult: 1
    decay_mult: 1
  }
  param {
    lr_mult: 2
    decay_mult: 0
  }
  convolution_param {
    num_output: 192
    pad: 1
    kernel_size: 3
    weight_filler {
      type: "xavier"
      std: 0.03
    }
    bias_filler {
      type: "constant"
      value: 0.2
    }
  }
}
layer {
  name: "conv2/relu_3x3"
  type: "ReLU"
  bottom: "conv2/3x3"
  top: "conv2/3x3"
}
layer {
  name: "conv2/norm2"
  type: "LRN"
  bottom: "conv2/3x3"
  top: "conv2/norm2"
  lrn_param {
    local_size: 5
    alpha: 0.0001
    beta: 0.75
  }
}
layer {
  name: "pool2/3x3_s2"
  type: "Pooling"
  bottom: "conv2/norm2"
  top: "pool2/3x3_s2"
  pooling_param {
    pool: MAX
    kernel_size: 3
    stride: 2
  }
}
layer {
  name: "inception_3a/1x1"
  type: "Convolution"
  bottom: "pool2/3x3_s2"
  top: "inception_3a/1x1"
  param {
    lr_mult: 1
    decay_mult: 1
  }
  param {
    lr_mult: 2
    decay_mult: 0
  }
  convolution_param {
    num_output: 64
    kernel_size: 1
    weight_filler {
      type: "xavier"
      std: 0.03
    }
    bias_filler {
      type: "constant"
      value: 0.2
    }
  }
}
layer {
  name: "inception_3a/relu_1x1"
  type: "ReLU"
  bottom: "inception_3a/1x1"
  top: "inception_3a/1x1"
}
layer {
  name: "inception_3a/3x3_reduce"
  type: "Convolution"
  bottom: "pool2/3x3_s2"
  top: "inception_3a/3x3_reduce"
  param {
    lr_mult: 1
    decay_mult: 1
  }
  param {
    lr_mult: 2
    decay_mult: 0
  }
  convolution_param {
    num_output: 96
    kernel_size: 1
    weight_filler {
      type: "xavier"
      std: 0.09
    }
    bias_filler {
      type: "constant"
      value: 0.2
    }
  }
}
layer {
  name: "inception_3a/relu_3x3_reduce"
  type: "ReLU"
  bottom: "inception_3a/3x3_reduce"
  top: "inception_3a/3x3_reduce"
}
layer {
  name: "inception_3a/3x3"
  type: "Convolution"
  bottom: "inception_3a/3x3_reduce"
  top: "inception_3a/3x3"
  param {
    lr_mult: 1
    decay_mult: 1
  }
  param {
    lr_mult: 2
    decay_mult: 0
  }
  convolution_param {
    num_output: 128
    pad: 1
    kernel_size: 3
    weight_filler {
      type: "xavier"
      std: 0.03
    }
    bias_filler {
      type: "constant"
      value: 0.2
    }
  }
}
layer {
  name: "inception_3a/relu_3x3"
  type: "ReLU"
  bottom: "inception_3a/3x3"
  top: "inception_3a/3x3"
}
layer {
  name: "inception_3a/5x5_reduce"
  type: "Convolution"
  bottom: "pool2/3x3_s2"
  top: "inception_3a/5x5_reduce"
  param {
    lr_mult: 1
    decay_mult: 1
  }
  param {
    lr_mult: 2
    decay_mult: 0
  }
  convolution_param {
    num_output: 16
    kernel_size: 1
    weight_filler {
      type: "xavier"
      std: 0.2
    }
    bias_filler {
      type: "constant"
      value: 0.2
    }
  }
}
layer {
  name: "inception_3a/relu_5x5_reduce"
  type: "ReLU"
  bottom: "inception_3a/5x5_reduce"
  top: "inception_3a/5x5_reduce"
}
layer {
  name: "inception_3a/5x5"
  type: "Convolution"
  bottom: "inception_3a/5x5_reduce"
  top: "inception_3a/5x5"
  param {
    lr_mult: 1
    decay_mult: 1
  }
  param {
    lr_mult: 2
    decay_mult: 0
  }
  convolution_param {
    num_output: 32
    pad: 2
    kernel_size: 5
    weight_filler {
      type: "xavier"
      std: 0.03
    }
    bias_filler {
      type: "constant"
      value: 0.2
    }
  }
}
layer {
  name: "inception_3a/relu_5x5"
  type: "ReLU"
  bottom: "inception_3a/5x5"
  top: "inception_3a/5x5"
}
layer {
  name: "inception_3a/pool"
  type: "Pooling"
  bottom: "pool2/3x3_s2"
  top: "inception_3a/pool"
  pooling_param {
    pool: MAX
    kernel_size: 3
    stride: 1
    pad: 1
  }
}
layer {
  name: "inception_3a/pool_proj"
  type: "Convolution"
  bottom: "inception_3a/pool"
  top: "inception_3a/pool_proj"
  param {
    lr_mult: 1
    decay_mult: 1
  }
  param {
    lr_mult: 2
    decay_mult: 0
  }
  convolution_param {
    num_output: 32
    kernel_size: 1
    weight_filler {
      type: "xavier"
      std: 0.1
    }
    bias_filler {
      type: "constant"
      value: 0.2
    }
  }
}
layer {
  name: "inception_3a/relu_pool_proj"
  type: "ReLU"
  bottom: "inception_3a/pool_proj"
  top: "inception_3a/pool_proj"
}
layer {
  name: "inception_3a/output"
  type: "Concat"
  bottom: "inception_3a/1x1"
  bottom: "inception_3a/3x3"
  bottom: "inception_3a/5x5"
  bottom: "inception_3a/pool_proj"
  top: "inception_3a/output"
}
layer {
  name: "inception_3b/1x1"
  type: "Convolution"
  bottom: "inception_3a/output"
  top: "inception_3b/1x1"
  param {
    lr_mult: 1
    decay_mult: 1
  }
  param {
    lr_mult: 2
    decay_mult: 0
  }
  convolution_param {
    num_output: 128
    kernel_size: 1
    weight_filler {
      type: "xavier"
      std: 0.03
    }
    bias_filler {
      type: "constant"
      value: 0.2
    }
  }
}
layer {
  name: "inception_3b/relu_1x1"
  type: "ReLU"
  bottom: "inception_3b/1x1"
  top: "inception_3b/1x1"
}
layer {
  name: "inception_3b/3x3_reduce"
  type: "Convolution"
  bottom: "inception_3a/output"
  top: "inception_3b/3x3_reduce"
  param {
    lr_mult: 1
    decay_mult: 1
  }
  param {
    lr_mult: 2
    decay_mult: 0
  }
  convolution_param {
    num_output: 128
    kernel_size: 1
    weight_filler {
      type: "xavier"
      std: 0.09
    }
    bias_filler {
      type: "constant"
      value: 0.2
    }
  }
}
layer {
  name: "inception_3b/relu_3x3_reduce"
  type: "ReLU"
  bottom: "inception_3b/3x3_reduce"
  top: "inception_3b/3x3_reduce"
}
layer {
  name: "inception_3b/3x3"
  type: "Convolution"
  bottom: "inception_3b/3x3_reduce"
  top: "inception_3b/3x3"
  param {
    lr_mult: 1
    decay_mult: 1
  }
  param {
    lr_mult: 2
    decay_mult: 0
  }
  convolution_param {
    num_output: 192
    pad: 1
    kernel_size: 3
    weight_filler {
      type: "xavier"
      std: 0.03
    }
    bias_filler {
      type: "constant"
      value: 0.2
    }
  }
}
layer {
  name: "inception_3b/relu_3x3"
  type: "ReLU"
  bottom: "inception_3b/3x3"
  top: "inception_3b/3x3"
}
layer {
  name: "inception_3b/5x5_reduce"
  type: "Convolution"
  bottom: "inception_3a/output"
  top: "inception_3b/5x5_reduce"
  param {
    lr_mult: 1
    decay_mult: 1
  }
  param {
    lr_mult: 2
    decay_mult: 0
  }
  convolution_param {
    num_output: 32
    kernel_size: 1
    weight_filler {
      type: "xavier"
      std: 0.2
    }
    bias_filler {
      type: "constant"
      value: 0.2
    }
  }
}
layer {
  name: "inception_3b/relu_5x5_reduce"
  type: "ReLU"
  bottom: "inception_3b/5x5_reduce"
  top: "inception_3b/5x5_reduce"
}
layer {
  name: "inception_3b/5x5"
  type: "Convolution"
  bottom: "inception_3b/5x5_reduce"
  top: "inception_3b/5x5"
  param {
    lr_mult: 1
    decay_mult: 1
  }
  param {
    lr_mult: 2
    decay_mult: 0
  }
  convolution_param {
    num_output: 96
    pad: 2
    kernel_size: 5
    weight_filler {
      type: "xavier"
      std: 0.03
    }
    bias_filler {
      type: "constant"
      value: 0.2
    }
  }
}
layer {
  name: "inception_3b/relu_5x5"
  type: "ReLU"
  bottom: "inception_3b/5x5"
  top: "inception_3b/5x5"
}
layer {
  name: "inception_3b/pool"
  type: "Pooling"
  bottom: "inception_3a/output"
  top: "inception_3b/pool"
  pooling_param {
    pool: MAX
    kernel_size: 3
    stride: 1
    pad: 1
  }
}
layer {
  name: "inception_3b/pool_proj"
  type: "Convolution"
  bottom: "inception_3b/pool"
  top: "inception_3b/pool_proj"
  param {
    lr_mult: 1
    decay_mult: 1
  }
  param {
    lr_mult: 2
    decay_mult: 0
  }
  convolution_param {
    num_output: 64
    kernel_size: 1
    weight_filler {
      type: "xavier"
      std: 0.1
    }
    bias_filler {
      type: "constant"
      value: 0.2
    }
  }
}
layer {
  name: "inception_3b/relu_pool_proj"
  type: "ReLU"
  bottom: "inception_3b/pool_proj"
  top: "inception_3b/pool_proj"
}
layer {
  name: "inception_3b/output"
  type: "Concat"
  bottom: "inception_3b/1x1"
  bottom: "inception_3b/3x3"
  bottom: "inception_3b/5x5"
  bottom: "inception_3b/pool_proj"
  top: "inception_3b/output"
}
layer {
  name: "pool3/3x3_s2"
  type: "Pooling"
  bottom: "inception_3b/output"
  top: "pool3/3x3_s2"
  pooling_param {
    pool: MAX
    kernel_size: 3
    stride: 2
  }
}
layer {
  name: "inception_4a/1x1"
  type: "Convolution"
  bottom: "pool3/3x3_s2"
  top: "inception_4a/1x1"
  param {
    lr_mult: 1
    decay_mult: 1
  }
  param {
    lr_mult: 2
    decay_mult: 0
  }
  convolution_param {
    num_output: 192
    kernel_size: 1
    weight_filler {
      type: "xavier"
      std: 0.03
    }
    bias_filler {
      type: "constant"
      value: 0.2
    }
  }
}
layer {
  name: "inception_4a/relu_1x1"
  type: "ReLU"
  bottom: "inception_4a/1x1"
  top: "inception_4a/1x1"
}
layer {
  name: "inception_4a/3x3_reduce"
  type: "Convolution"
  bottom: "pool3/3x3_s2"
  top: "inception_4a/3x3_reduce"
  param {
    lr_mult: 1
    decay_mult: 1
  }
  param {
    lr_mult: 2
    decay_mult: 0
  }
  convolution_param {
    num_output: 96
    kernel_size: 1
    weight_filler {
      type: "xavier"
      std: 0.09
    }
    bias_filler {
      type: "constant"
      value: 0.2
    }
  }
}
layer {
  name: "inception_4a/relu_3x3_reduce"
  type: "ReLU"
  bottom: "inception_4a/3x3_reduce"
  top: "inception_4a/3x3_reduce"
}
layer {
  name: "inception_4a/3x3"
  type: "Convolution"
  bottom: "inception_4a/3x3_reduce"
  top: "inception_4a/3x3"
  param {
    lr_mult: 1
    decay_mult: 1
  }
  param {
    lr_mult: 2
    decay_mult: 0
  }
  convolution_param {
    num_output: 208
    pad: 1
    kernel_size: 3
    weight_filler {
      type: "xavier"
      std: 0.03
    }
    bias_filler {
      type: "constant"
      value: 0.2
    }
  }
}
layer {
  name: "inception_4a/relu_3x3"
  type: "ReLU"
  bottom: "inception_4a/3x3"
  top: "inception_4a/3x3"
}
layer {
  name: "inception_4a/5x5_reduce"
  type: "Convolution"
  bottom: "pool3/3x3_s2"
  top: "inception_4a/5x5_reduce"
  param {
    lr_mult: 1
    decay_mult: 1
  }
  param {
    lr_mult: 2
    decay_mult: 0
  }
  convolution_param {
    num_output: 16
    kernel_size: 1
    weight_filler {
      type: "xavier"
      std: 0.2
    }
    bias_filler {
      type: "constant"
      value: 0.2
    }
  }
}
layer {
  name: "inception_4a/relu_5x5_reduce"
  type: "ReLU"
  bottom: "inception_4a/5x5_reduce"
  top: "inception_4a/5x5_reduce"
}
layer {
  name: "inception_4a/5x5"
  type: "Convolution"
  bottom: "inception_4a/5x5_reduce"
  top: "inception_4a/5x5"
  param {
    lr_mult: 1
    decay_mult: 1
  }
  param {
    lr_mult: 2
    decay_mult: 0
  }
  convolution_param {
    num_output: 48
    pad: 2
    kernel_size: 5
    weight_filler {
      type: "xavier"
      std: 0.03
    }
    bias_filler {
      type: "constant"
      value: 0.2
    }
  }
}
layer {
  name: "inception_4a/relu_5x5"
  type: "ReLU"
  bottom: "inception_4a/5x5"
  top: "inception_4a/5x5"
}
layer {
  name: "inception_4a/pool"
  type: "Pooling"
  bottom: "pool3/3x3_s2"
  top: "inception_4a/pool"
  pooling_param {
    pool: MAX
    kernel_size: 3
    stride: 1
    pad: 1
  }
}
layer {
  name: "inception_4a/pool_proj"
  type: "Convolution"
  bottom: "inception_4a/pool"
  top: "inception_4a/pool_proj"
  param {
    lr_mult: 1
    decay_mult: 1
  }
  param {
    lr_mult: 2
    decay_mult: 0
  }
  convolution_param {
    num_output: 64
    kernel_size: 1
    weight_filler {
      type: "xavier"
      std: 0.1
    }
    bias_filler {
      type: "constant"
      value: 0.2
    }
  }
}
layer {
  name: "inception_4a/relu_pool_proj"
  type: "ReLU"
  bottom: "inception_4a/pool_proj"
  top: "inception_4a/pool_proj"
}
layer {
  name: "inception_4a/output"
  type: "Concat"
  bottom: "inception_4a/1x1"
  bottom: "inception_4a/3x3"
  bottom: "inception_4a/5x5"
  bottom: "inception_4a/pool_proj"
  top: "inception_4a/output"
}
layer {
  name: "loss1/ave_pool"
  type: "Pooling"
  bottom: "inception_4a/output"
  top: "loss1/ave_pool"
  pooling_param {
    pool: AVE
    kernel_size: 5
    stride: 3
  }
}
layer {
  name: "loss1/conv"
  type: "Convolution"
  bottom: "loss1/ave_pool"
  top: "loss1/conv"
  param {
    lr_mult: 1
    decay_mult: 1
  }
  param {
    lr_mult: 2
    decay_mult: 0
  }
  convolution_param {
    num_output: 128
    kernel_size: 1
    weight_filler {
      type: "xavier"
      std: 0.08
    }
    bias_filler {
      type: "constant"
      value: 0.2
    }
  }
}
layer {
  name: "loss1/relu_conv"
  type: "ReLU"
  bottom: "loss1/conv"
  top: "loss1/conv"
}
layer {
  name: "loss1/fc"
  type: "InnerProduct"
  bottom: "loss1/conv"
  top: "loss1/fc"
  param {
    lr_mult: 1
    decay_mult: 1
  }
  param {
    lr_mult: 2
    decay_mult: 0
  }
  inner_product_param {
    num_output: 1024
    weight_filler {
      type: "xavier"
      std: 0.02
    }
    bias_filler {
      type: "constant"
      value: 0.2
    }
  }
}
layer {
  name: "loss1/relu_fc"
  type: "ReLU"
  bottom: "loss1/fc"
  top: "loss1/fc"
}
layer {
  name: "loss1/drop_fc"
  type: "Dropout"
  bottom: "loss1/fc"
  top: "loss1/fc"
  dropout_param {
    dropout_ratio: 0.7
  }
}
layer {
  name: "loss1/classifier_plantvillage"
  type: "InnerProduct"
  bottom: "loss1/fc"
  top: "loss1/classifier_plantvillage"
  param {
    lr_mult: 1
    decay_mult: 1
  }
  param {
    lr_mult: 2
    decay_mult: 0
  }
  inner_product_param {
    num_output: 38
    weight_filler {
      type: "xavier"
      std: 0.0009765625
    }
    bias_filler {
      type: "constant"
      value: 0
    }
  }
}
layer {
  name: "inception_4b/1x1"
  type: "Convolution"
  bottom: "inception_4a/output"
  top: "inception_4b/1x1"
  param {
    lr_mult: 1
    decay_mult: 1
  }
  param {
    lr_mult: 2
    decay_mult: 0
  }
  convolution_param {
    num_output: 160
    kernel_size: 1
    weight_filler {
      type: "xavier"
      std: 0.03
    }
    bias_filler {
      type: "constant"
      value: 0.2
    }
  }
}
layer {
  name: "inception_4b/relu_1x1"
  type: "ReLU"
  bottom: "inception_4b/1x1"
  top: "inception_4b/1x1"
}
layer {
  name: "inception_4b/3x3_reduce"
  type: "Convolution"
  bottom: "inception_4a/output"
  top: "inception_4b/3x3_reduce"
  param {
    lr_mult: 1
    decay_mult: 1
  }
  param {
    lr_mult: 2
    decay_mult: 0
  }
  convolution_param {
    num_output: 112
    kernel_size: 1
    weight_filler {
      type: "xavier"
      std: 0.09
    }
    bias_filler {
      type: "constant"
      value: 0.2
    }
  }
}
layer {
  name: "inception_4b/relu_3x3_reduce"
  type: "ReLU"
  bottom: "inception_4b/3x3_reduce"
  top: "inception_4b/3x3_reduce"
}
layer {
  name: "inception_4b/3x3"
  type: "Convolution"
  bottom: "inception_4b/3x3_reduce"
  top: "inception_4b/3x3"
  param {
    lr_mult: 1
    decay_mult: 1
  }
  param {
    lr_mult: 2
    decay_mult: 0
  }
  convolution_param {
    num_output: 224
    pad: 1
    kernel_size: 3
    weight_filler {
      type: "xavier"
      std: 0.03
    }
    bias_filler {
      type: "constant"
      value: 0.2
    }
  }
}
layer {
  name: "inception_4b/relu_3x3"
  type: "ReLU"
  bottom: "inception_4b/3x3"
  top: "inception_4b/3x3"
}
layer {
  name: "inception_4b/5x5_reduce"
  type: "Convolution"
  bottom: "inception_4a/output"
  top: "inception_4b/5x5_reduce"
  param {
    lr_mult: 1
    decay_mult: 1
  }
  param {
    lr_mult: 2
    decay_mult: 0
  }
  convolution_param {
    num_output: 24
    kernel_size: 1
    weight_filler {
      type: "xavier"
      std: 0.2
    }
    bias_filler {
      type: "constant"
      value: 0.2
    }
  }
}
layer {
  name: "inception_4b/relu_5x5_reduce"
  type: "ReLU"
  bottom: "inception_4b/5x5_reduce"
  top: "inception_4b/5x5_reduce"
}
layer {
  name: "inception_4b/5x5"
  type: "Convolution"
  bottom: "inception_4b/5x5_reduce"
  top: "inception_4b/5x5"
  param {
    lr_mult: 1
    decay_mult: 1
  }
  param {
    lr_mult: 2
    decay_mult: 0
  }
  convolution_param {
    num_output: 64
    pad: 2
    kernel_size: 5
    weight_filler {
      type: "xavier"
      std: 0.03
    }
    bias_filler {
      type: "constant"
      value: 0.2
    }
  }
}
layer {
  name: "inception_4b/relu_5x5"
  type: "ReLU"
  bottom: "inception_4b/5x5"
  top: "inception_4b/5x5"
}
layer {
  name: "inception_4b/pool"
  type: "Pooling"
  bottom: "inception_4a/output"
  top: "inception_4b/pool"
  pooling_param {
    pool: MAX
    kernel_size: 3
    stride: 1
    pad: 1
  }
}
layer {
  name: "inception_4b/pool_proj"
  type: "Convolution"
  bottom: "inception_4b/pool"
  top: "inception_4b/pool_proj"
  param {
    lr_mult: 1
    decay_mult: 1
  }
  param {
    lr_mult: 2
    decay_mult: 0
  }
  convolution_param {
    num_output: 64
    kernel_size: 1
    weight_filler {
      type: "xavier"
      std: 0.1
    }
    bias_filler {
      type: "constant"
      value: 0.2
    }
  }
}
layer {
  name: "inception_4b/relu_pool_proj"
  type: "ReLU"
  bottom: "inception_4b/pool_proj"
  top: "inception_4b/pool_proj"
}
layer {
  name: "inception_4b/output"
  type: "Concat"
  bottom: "inception_4b/1x1"
  bottom: "inception_4b/3x3"
  bottom: "inception_4b/5x5"
  bottom: "inception_4b/pool_proj"
  top: "inception_4b/output"
}
layer {
  name: "inception_4c/1x1"
  type: "Convolution"
  bottom: "inception_4b/output"
  top: "inception_4c/1x1"
  param {
    lr_mult: 1
    decay_mult: 1
  }
  param {
    lr_mult: 2
    decay_mult: 0
  }
  convolution_param {
    num_output: 128
    kernel_size: 1
    weight_filler {
      type: "xavier"
      std: 0.03
    }
    bias_filler {
      type: "constant"
      value: 0.2
    }
  }
}
layer {
  name: "inception_4c/relu_1x1"
  type: "ReLU"
  bottom: "inception_4c/1x1"
  top: "inception_4c/1x1"
}
layer {
  name: "inception_4c/3x3_reduce"
  type: "Convolution"
  bottom: "inception_4b/output"
  top: "inception_4c/3x3_reduce"
  param {
    lr_mult: 1
    decay_mult: 1
  }
  param {
    lr_mult: 2
    decay_mult: 0
  }
  convolution_param {
    num_output: 128
    kernel_size: 1
    weight_filler {
      type: "xavier"
      std: 0.09
    }
    bias_filler {
      type: "constant"
      value: 0.2
    }
  }
}
layer {
  name: "inception_4c/relu_3x3_reduce"
  type: "ReLU"
  bottom: "inception_4c/3x3_reduce"
  top: "inception_4c/3x3_reduce"
}
layer {
  name: "inception_4c/3x3"
  type: "Convolution"
  bottom: "inception_4c/3x3_reduce"
  top: "inception_4c/3x3"
  param {
    lr_mult: 1
    decay_mult: 1
  }
  param {
    lr_mult: 2
    decay_mult: 0
  }
  convolution_param {
    num_output: 256
    pad: 1
    kernel_size: 3
    weight_filler {
      type: "xavier"
      std: 0.03
    }
    bias_filler {
      type: "constant"
      value: 0.2
    }
  }
}
layer {
  name: "inception_4c/relu_3x3"
  type: "ReLU"
  bottom: "inception_4c/3x3"
  top: "inception_4c/3x3"
}
layer {
  name: "inception_4c/5x5_reduce"
  type: "Convolution"
  bottom: "inception_4b/output"
  top: "inception_4c/5x5_reduce"
  param {
    lr_mult: 1
    decay_mult: 1
  }
  param {
    lr_mult: 2
    decay_mult: 0
  }
  convolution_param {
    num_output: 24
    kernel_size: 1
    weight_filler {
      type: "xavier"
      std: 0.2
    }
    bias_filler {
      type: "constant"
      value: 0.2
    }
  }
}
layer {
  name: "inception_4c/relu_5x5_reduce"
  type: "ReLU"
  bottom: "inception_4c/5x5_reduce"
  top: "inception_4c/5x5_reduce"
}
layer {
  name: "inception_4c/5x5"
  type: "Convolution"
  bottom: "inception_4c/5x5_reduce"
  top: "inception_4c/5x5"
  param {
    lr_mult: 1
    decay_mult: 1
  }
  param {
    lr_mult: 2
    decay_mult: 0
  }
  convolution_param {
    num_output: 64
    pad: 2
    kernel_size: 5
    weight_filler {
      type: "xavier"
      std: 0.03
    }
    bias_filler {
      type: "constant"
      value: 0.2
    }
  }
}
layer {
  name: "inception_4c/relu_5x5"
  type: "ReLU"
  bottom: "inception_4c/5x5"
  top: "inception_4c/5x5"
}
layer {
  name: "inception_4c/pool"
  type: "Pooling"
  bottom: "inception_4b/output"
  top: "inception_4c/pool"
  pooling_param {
    pool: MAX
    kernel_size: 3
    stride: 1
    pad: 1
  }
}
layer {
  name: "inception_4c/pool_proj"
  type: "Convolution"
  bottom: "inception_4c/pool"
  top: "inception_4c/pool_proj"
  param {
    lr_mult: 1
    decay_mult: 1
  }
  param {
    lr_mult: 2
    decay_mult: 0
  }
  convolution_param {
    num_output: 64
    kernel_size: 1
    weight_filler {
      type: "xavier"
      std: 0.1
    }
    bias_filler {
      type: "constant"
      value: 0.2
    }
  }
}
layer {
  name: "inception_4c/relu_pool_proj"
  type: "ReLU"
  bottom: "inception_4c/pool_proj"
  top: "inception_4c/pool_proj"
}
layer {
  name: "inception_4c/output"
  type: "Concat"
  bottom: "inception_4c/1x1"
  bottom: "inception_4c/3x3"
  bottom: "inception_4c/5x5"
  bottom: "inception_4c/pool_proj"
  top: "inception_4c/output"
}
layer {
  name: "inception_4d/1x1"
  type: "Convolution"
  bottom: "inception_4c/output"
  top: "inception_4d/1x1"
  param {
    lr_mult: 1
    decay_mult: 1
  }
  param {
    lr_mult: 2
    decay_mult: 0
  }
  convolution_param {
    num_output: 112
    kernel_size: 1
    weight_filler {
      type: "xavier"
      std: 0.03
    }
    bias_filler {
      type: "constant"
      value: 0.2
    }
  }
}
layer {
  name: "inception_4d/relu_1x1"
  type: "ReLU"
  bottom: "inception_4d/1x1"
  top: "inception_4d/1x1"
}
layer {
  name: "inception_4d/3x3_reduce"
  type: "Convolution"
  bottom: "inception_4c/output"
  top: "inception_4d/3x3_reduce"
  param {
    lr_mult: 1
    decay_mult: 1
  }
  param {
    lr_mult: 2
    decay_mult: 0
  }
  convolution_param {
    num_output: 144
    kernel_size: 1
    weight_filler {
      type: "xavier"
      std: 0.09
    }
    bias_filler {
      type: "constant"
      value: 0.2
    }
  }
}
layer {
  name: "inception_4d/relu_3x3_reduce"
  type: "ReLU"
  bottom: "inception_4d/3x3_reduce"
  top: "inception_4d/3x3_reduce"
}
layer {
  name: "inception_4d/3x3"
  type: "Convolution"
  bottom: "inception_4d/3x3_reduce"
  top: "inception_4d/3x3"
  param {
    lr_mult: 1
    decay_mult: 1
  }
  param {
    lr_mult: 2
    decay_mult: 0
  }
  convolution_param {
    num_output: 288
    pad: 1
    kernel_size: 3
    weight_filler {
      type: "xavier"
      std: 0.03
    }
    bias_filler {
      type: "constant"
      value: 0.2
    }
  }
}
layer {
  name: "inception_4d/relu_3x3"
  type: "ReLU"
  bottom: "inception_4d/3x3"
  top: "inception_4d/3x3"
}
layer {
  name: "inception_4d/5x5_reduce"
  type: "Convolution"
  bottom: "inception_4c/output"
  top: "inception_4d/5x5_reduce"
  param {
    lr_mult: 1
    decay_mult: 1
  }
  param {
    lr_mult: 2
    decay_mult: 0
  }
  convolution_param {
    num_output: 32
    kernel_size: 1
    weight_filler {
      type: "xavier"
      std: 0.2
    }
    bias_filler {
      type: "constant"
      value: 0.2
    }
  }
}
layer {
  name: "inception_4d/relu_5x5_reduce"
  type: "ReLU"
  bottom: "inception_4d/5x5_reduce"
  top: "inception_4d/5x5_reduce"
}
layer {
  name: "inception_4d/5x5"
  type: "Convolution"
  bottom: "inception_4d/5x5_reduce"
  top: "inception_4d/5x5"
  param {
    lr_mult: 1
    decay_mult: 1
  }
  param {
    lr_mult: 2
    decay_mult: 0
  }
  convolution_param {
    num_output: 64
    pad: 2
    kernel_size: 5
    weight_filler {
      type: "xavier"
      std: 0.03
    }
    bias_filler {
      type: "constant"
      value: 0.2
    }
  }
}
layer {
  name: "inception_4d/relu_5x5"
  type: "ReLU"
  bottom: "inception_4d/5x5"
  top: "inception_4d/5x5"
}
layer {
  name: "inception_4d/pool"
  type: "Pooling"
  bottom: "inception_4c/output"
  top: "inception_4d/pool"
  pooling_param {
    pool: MAX
    kernel_size: 3
    stride: 1
    pad: 1
  }
}
layer {
  name: "inception_4d/pool_proj"
  type: "Convolution"
  bottom: "inception_4d/pool"
  top: "inception_4d/pool_proj"
  param {
    lr_mult: 1
    decay_mult: 1
  }
  param {
    lr_mult: 2
    decay_mult: 0
  }
  convolution_param {
    num_output: 64
    kernel_size: 1
    weight_filler {
      type: "xavier"
      std: 0.1
    }
    bias_filler {
      type: "constant"
      value: 0.2
    }
  }
}
layer {
  name: "inception_4d/relu_pool_proj"
  type: "ReLU"
  bottom: "inception_4d/pool_proj"
  top: "inception_4d/pool_proj"
}
layer {
  name: "inception_4d/output"
  type: "Concat"
  bottom: "inception_4d/1x1"
  bottom: "inception_4d/3x3"
  bottom: "inception_4d/5x5"
  bottom: "inception_4d/pool_proj"
  top: "inception_4d/output"
}
layer {
  name: "loss2/ave_pool"
  type: "Pooling"
  bottom: "inception_4d/output"
  top: "loss2/ave_pool"
  pooling_param {
    pool: AVE
    kernel_size: 5
    stride: 3
  }
}
layer {
  name: "loss2/conv"
  type: "Convolution"
  bottom: "loss2/ave_pool"
  top: "loss2/conv"
  param {
    lr_mult: 1
    decay_mult: 1
  }
  param {
    lr_mult: 2
    decay_mult: 0
  }
  convolution_param {
    num_output: 128
    kernel_size: 1
    weight_filler {
      type: "xavier"
      std: 0.08
    }
    bias_filler {
      type: "constant"
      value: 0.2
    }
  }
}
layer {
  name: "loss2/relu_conv"
  type: "ReLU"
  bottom: "loss2/conv"
  top: "loss2/conv"
}
layer {
  name: "loss2/fc"
  type: "InnerProduct"
  bottom: "loss2/conv"
  top: "loss2/fc"
  param {
    lr_mult: 1
    decay_mult: 1
  }
  param {
    lr_mult: 2
    decay_mult: 0
  }
  inner_product_param {
    num_output: 1024
    weight_filler {
      type: "xavier"
      std: 0.02
    }
    bias_filler {
      type: "constant"
      value: 0.2
    }
  }
}
layer {
  name: "loss2/relu_fc"
  type: "ReLU"
  bottom: "loss2/fc"
  top: "loss2/fc"
}
layer {
  name: "loss2/drop_fc"
  type: "Dropout"
  bottom: "loss2/fc"
  top: "loss2/fc"
  dropout_param {
    dropout_ratio: 0.7
  }
}
layer {
  name: "loss2/classifier_plantvillage"
  type: "InnerProduct"
  bottom: "loss2/fc"
  top: "loss2/classifier_plantvillage"
  param {
    lr_mult: 1
    decay_mult: 1
  }
  param {
    lr_mult: 2
    decay_mult: 0
  }
  inner_product_param {
    num_output: 38
    weight_filler {
      type: "xavier"
      std: 0.0009765625
    }
    bias_filler {
      type: "constant"
      value: 0
    }
  }
}
layer {
  name: "inception_4e/1x1"
  type: "Convolution"
  bottom: "inception_4d/output"
  top: "inception_4e/1x1"
  param {
    lr_mult: 1
    decay_mult: 1
  }
  param {
    lr_mult: 2
    decay_mult: 0
  }
  convolution_param {
    num_output: 256
    kernel_size: 1
    weight_filler {
      type: "xavier"
      std: 0.03
    }
    bias_filler {
      type: "constant"
      value: 0.2
    }
  }
}
layer {
  name: "inception_4e/relu_1x1"
  type: "ReLU"
  bottom: "inception_4e/1x1"
  top: "inception_4e/1x1"
}
layer {
  name: "inception_4e/3x3_reduce"
  type: "Convolution"
  bottom: "inception_4d/output"
  top: "inception_4e/3x3_reduce"
  param {
    lr_mult: 1
    decay_mult: 1
  }
  param {
    lr_mult: 2
    decay_mult: 0
  }
  convolution_param {
    num_output: 160
    kernel_size: 1
    weight_filler {
      type: "xavier"
      std: 0.09
    }
    bias_filler {
      type: "constant"
      value: 0.2
    }
  }
}
layer {
  name: "inception_4e/relu_3x3_reduce"
  type: "ReLU"
  bottom: "inception_4e/3x3_reduce"
  top: "inception_4e/3x3_reduce"
}
layer {
  name: "inception_4e/3x3"
  type: "Convolution"
  bottom: "inception_4e/3x3_reduce"
  top: "inception_4e/3x3"
  param {
    lr_mult: 1
    decay_mult: 1
  }
  param {
    lr_mult: 2
    decay_mult: 0
  }
  convolution_param {
    num_output: 320
    pad: 1
    kernel_size: 3
    weight_filler {
      type: "xavier"
      std: 0.03
    }
    bias_filler {
      type: "constant"
      value: 0.2
    }
  }
}
layer {
  name: "inception_4e/relu_3x3"
  type: "ReLU"
  bottom: "inception_4e/3x3"
  top: "inception_4e/3x3"
}
layer {
  name: "inception_4e/5x5_reduce"
  type: "Convolution"
  bottom: "inception_4d/output"
  top: "inception_4e/5x5_reduce"
  param {
    lr_mult: 1
    decay_mult: 1
  }
  param {
    lr_mult: 2
    decay_mult: 0
  }
  convolution_param {
    num_output: 32
    kernel_size: 1
    weight_filler {
      type: "xavier"
      std: 0.2
    }
    bias_filler {
      type: "constant"
      value: 0.2
    }
  }
}
layer {
  name: "inception_4e/relu_5x5_reduce"
  type: "ReLU"
  bottom: "inception_4e/5x5_reduce"
  top: "inception_4e/5x5_reduce"
}
layer {
  name: "inception_4e/5x5"
  type: "Convolution"
  bottom: "inception_4e/5x5_reduce"
  top: "inception_4e/5x5"
  p
I0403 15:19:24.766026 14528 layer_factory.hpp:77] Creating layer data
I0403 15:19:24.766607 14528 net.cpp:91] Creating Layer data
I0403 15:19:24.766638 14528 net.cpp:399] data -> data
I0403 15:19:24.766687 14528 net.cpp:399] data -> label
I0403 15:19:24.766722 14528 data_transformer.cpp:25] Loading mean file from: /home/mohanty/data/final_dataset/lmdb/color-50-50/mean.binaryproto
I0403 15:19:24.772689 14530 db_lmdb.cpp:38] Opened lmdb /home/mohanty/data/final_dataset/lmdb/color-50-50/test_db
I0403 15:19:24.787874 14528 data_layer.cpp:41] output data size: 24,3,224,224
I0403 15:19:24.816349 14528 net.cpp:141] Setting up data
I0403 15:19:24.816422 14528 net.cpp:148] Top shape: 24 3 224 224 (3612672)
I0403 15:19:24.816445 14528 net.cpp:148] Top shape: 24 (24)
I0403 15:19:24.816460 14528 net.cpp:156] Memory required for data: 14450784
I0403 15:19:24.816488 14528 layer_factory.hpp:77] Creating layer label_data_1_split
I0403 15:19:24.816520 14528 net.cpp:91] Creating Layer label_data_1_split
I0403 15:19:24.816541 14528 net.cpp:425] label_data_1_split <- label
I0403 15:19:24.816575 14528 net.cpp:399] label_data_1_split -> label_data_1_split_0
I0403 15:19:24.816603 14528 net.cpp:399] label_data_1_split -> label_data_1_split_1
I0403 15:19:24.816624 14528 net.cpp:399] label_data_1_split -> label_data_1_split_2
I0403 15:19:24.816647 14528 net.cpp:399] label_data_1_split -> label_data_1_split_3
I0403 15:19:24.816666 14528 net.cpp:399] label_data_1_split -> label_data_1_split_4
I0403 15:19:24.816686 14528 net.cpp:399] label_data_1_split -> label_data_1_split_5
I0403 15:19:24.816706 14528 net.cpp:399] label_data_1_split -> label_data_1_split_6
I0403 15:19:24.816726 14528 net.cpp:399] label_data_1_split -> label_data_1_split_7
I0403 15:19:24.816746 14528 net.cpp:399] label_data_1_split -> label_data_1_split_8
I0403 15:19:24.816767 14528 net.cpp:399] label_data_1_split -> label_data_1_split_9
I0403 15:19:24.816887 14528 net.cpp:141] Setting up label_data_1_split
I0403 15:19:24.816911 14528 net.cpp:148] Top shape: 24 (24)
I0403 15:19:24.816928 14528 net.cpp:148] Top shape: 24 (24)
I0403 15:19:24.816944 14528 net.cpp:148] Top shape: 24 (24)
I0403 15:19:24.816961 14528 net.cpp:148] Top shape: 24 (24)
I0403 15:19:24.816975 14528 net.cpp:148] Top shape: 24 (24)
I0403 15:19:24.816990 14528 net.cpp:148] Top shape: 24 (24)
I0403 15:19:24.817006 14528 net.cpp:148] Top shape: 24 (24)
I0403 15:19:24.817023 14528 net.cpp:148] Top shape: 24 (24)
I0403 15:19:24.817037 14528 net.cpp:148] Top shape: 24 (24)
I0403 15:19:24.817054 14528 net.cpp:148] Top shape: 24 (24)
I0403 15:19:24.817101 14528 net.cpp:156] Memory required for data: 14451744
I0403 15:19:24.817118 14528 layer_factory.hpp:77] Creating layer conv1/7x7_s2
I0403 15:19:24.817150 14528 net.cpp:91] Creating Layer conv1/7x7_s2
I0403 15:19:24.817168 14528 net.cpp:425] conv1/7x7_s2 <- data
I0403 15:19:24.817188 14528 net.cpp:399] conv1/7x7_s2 -> conv1/7x7_s2
I0403 15:19:24.966899 14528 net.cpp:141] Setting up conv1/7x7_s2
I0403 15:19:24.966963 14528 net.cpp:148] Top shape: 24 64 112 112 (19267584)
I0403 15:19:24.966979 14528 net.cpp:156] Memory required for data: 91522080
I0403 15:19:24.967011 14528 layer_factory.hpp:77] Creating layer conv1/relu_7x7
I0403 15:19:24.967039 14528 net.cpp:91] Creating Layer conv1/relu_7x7
I0403 15:19:24.967057 14528 net.cpp:425] conv1/relu_7x7 <- conv1/7x7_s2
I0403 15:19:24.967077 14528 net.cpp:386] conv1/relu_7x7 -> conv1/7x7_s2 (in-place)
I0403 15:19:24.967365 14528 net.cpp:141] Setting up conv1/relu_7x7
I0403 15:19:24.967393 14528 net.cpp:148] Top shape: 24 64 112 112 (19267584)
I0403 15:19:24.967409 14528 net.cpp:156] Memory required for data: 168592416
I0403 15:19:24.967423 14528 layer_factory.hpp:77] Creating layer pool1/3x3_s2
I0403 15:19:24.967450 14528 net.cpp:91] Creating Layer pool1/3x3_s2
I0403 15:19:24.967468 14528 net.cpp:425] pool1/3x3_s2 <- conv1/7x7_s2
I0403 15:19:24.967488 14528 net.cpp:399] pool1/3x3_s2 -> pool1/3x3_s2
I0403 15:19:24.967573 14528 net.cpp:141] Setting up pool1/3x3_s2
I0403 15:19:24.967598 14528 net.cpp:148] Top shape: 24 64 56 56 (4816896)
I0403 15:19:24.967612 14528 net.cpp:156] Memory required for data: 187860000
I0403 15:19:24.967628 14528 layer_factory.hpp:77] Creating layer pool1/norm1
I0403 15:19:24.967653 14528 net.cpp:91] Creating Layer pool1/norm1
I0403 15:19:24.967671 14528 net.cpp:425] pool1/norm1 <- pool1/3x3_s2
I0403 15:19:24.967689 14528 net.cpp:399] pool1/norm1 -> pool1/norm1
I0403 15:19:24.968000 14528 net.cpp:141] Setting up pool1/norm1
I0403 15:19:24.968030 14528 net.cpp:148] Top shape: 24 64 56 56 (4816896)
I0403 15:19:24.968046 14528 net.cpp:156] Memory required for data: 207127584
I0403 15:19:24.968061 14528 layer_factory.hpp:77] Creating layer conv2/3x3_reduce
I0403 15:19:24.968086 14528 net.cpp:91] Creating Layer conv2/3x3_reduce
I0403 15:19:24.968102 14528 net.cpp:425] conv2/3x3_reduce <- pool1/norm1
I0403 15:19:24.968123 14528 net.cpp:399] conv2/3x3_reduce -> conv2/3x3_reduce
I0403 15:19:24.969552 14528 net.cpp:141] Setting up conv2/3x3_reduce
I0403 15:19:24.969581 14528 net.cpp:148] Top shape: 24 64 56 56 (4816896)
I0403 15:19:24.969599 14528 net.cpp:156] Memory required for data: 226395168
I0403 15:19:24.969619 14528 layer_factory.hpp:77] Creating layer conv2/relu_3x3_reduce
I0403 15:19:24.969637 14528 net.cpp:91] Creating Layer conv2/relu_3x3_reduce
I0403 15:19:24.969653 14528 net.cpp:425] conv2/relu_3x3_reduce <- conv2/3x3_reduce
I0403 15:19:24.969676 14528 net.cpp:386] conv2/relu_3x3_reduce -> conv2/3x3_reduce (in-place)
I0403 15:19:24.969954 14528 net.cpp:141] Setting up conv2/relu_3x3_reduce
I0403 15:19:24.969980 14528 net.cpp:148] Top shape: 24 64 56 56 (4816896)
I0403 15:19:24.969996 14528 net.cpp:156] Memory required for data: 245662752
I0403 15:19:24.970011 14528 layer_factory.hpp:77] Creating layer conv2/3x3
I0403 15:19:24.970034 14528 net.cpp:91] Creating Layer conv2/3x3
I0403 15:19:24.970052 14528 net.cpp:425] conv2/3x3 <- conv2/3x3_reduce
I0403 15:19:24.970075 14528 net.cpp:399] conv2/3x3 -> conv2/3x3
I0403 15:19:24.972414 14528 net.cpp:141] Setting up conv2/3x3
I0403 15:19:24.972445 14528 net.cpp:148] Top shape: 24 192 56 56 (14450688)
I0403 15:19:24.972461 14528 net.cpp:156] Memory required for data: 303465504
I0403 15:19:24.972482 14528 layer_factory.hpp:77] Creating layer conv2/relu_3x3
I0403 15:19:24.972501 14528 net.cpp:91] Creating Layer conv2/relu_3x3
I0403 15:19:24.972523 14528 net.cpp:425] conv2/relu_3x3 <- conv2/3x3
I0403 15:19:24.972543 14528 net.cpp:386] conv2/relu_3x3 -> conv2/3x3 (in-place)
I0403 15:19:24.972728 14528 net.cpp:141] Setting up conv2/relu_3x3
I0403 15:19:24.972759 14528 net.cpp:148] Top shape: 24 192 56 56 (14450688)
I0403 15:19:24.972810 14528 net.cpp:156] Memory required for data: 361268256
I0403 15:19:24.972826 14528 layer_factory.hpp:77] Creating layer conv2/norm2
I0403 15:19:24.972844 14528 net.cpp:91] Creating Layer conv2/norm2
I0403 15:19:24.972861 14528 net.cpp:425] conv2/norm2 <- conv2/3x3
I0403 15:19:24.972880 14528 net.cpp:399] conv2/norm2 -> conv2/norm2
I0403 15:19:24.973192 14528 net.cpp:141] Setting up conv2/norm2
I0403 15:19:24.973220 14528 net.cpp:148] Top shape: 24 192 56 56 (14450688)
I0403 15:19:24.973237 14528 net.cpp:156] Memory required for data: 419071008
I0403 15:19:24.973251 14528 layer_factory.hpp:77] Creating layer pool2/3x3_s2
I0403 15:19:24.973270 14528 net.cpp:91] Creating Layer pool2/3x3_s2
I0403 15:19:24.973285 14528 net.cpp:425] pool2/3x3_s2 <- conv2/norm2
I0403 15:19:24.973306 14528 net.cpp:399] pool2/3x3_s2 -> pool2/3x3_s2
I0403 15:19:24.973361 14528 net.cpp:141] Setting up pool2/3x3_s2
I0403 15:19:24.973383 14528 net.cpp:148] Top shape: 24 192 28 28 (3612672)
I0403 15:19:24.973398 14528 net.cpp:156] Memory required for data: 433521696
I0403 15:19:24.973412 14528 layer_factory.hpp:77] Creating layer pool2/3x3_s2_pool2/3x3_s2_0_split
I0403 15:19:24.973433 14528 net.cpp:91] Creating Layer pool2/3x3_s2_pool2/3x3_s2_0_split
I0403 15:19:24.973449 14528 net.cpp:425] pool2/3x3_s2_pool2/3x3_s2_0_split <- pool2/3x3_s2
I0403 15:19:24.973467 14528 net.cpp:399] pool2/3x3_s2_pool2/3x3_s2_0_split -> pool2/3x3_s2_pool2/3x3_s2_0_split_0
I0403 15:19:24.973490 14528 net.cpp:399] pool2/3x3_s2_pool2/3x3_s2_0_split -> pool2/3x3_s2_pool2/3x3_s2_0_split_1
I0403 15:19:24.973515 14528 net.cpp:399] pool2/3x3_s2_pool2/3x3_s2_0_split -> pool2/3x3_s2_pool2/3x3_s2_0_split_2
I0403 15:19:24.973537 14528 net.cpp:399] pool2/3x3_s2_pool2/3x3_s2_0_split -> pool2/3x3_s2_pool2/3x3_s2_0_split_3
I0403 15:19:24.973608 14528 net.cpp:141] Setting up pool2/3x3_s2_pool2/3x3_s2_0_split
I0403 15:19:24.973633 14528 net.cpp:148] Top shape: 24 192 28 28 (3612672)
I0403 15:19:24.973649 14528 net.cpp:148] Top shape: 24 192 28 28 (3612672)
I0403 15:19:24.973664 14528 net.cpp:148] Top shape: 24 192 28 28 (3612672)
I0403 15:19:24.973680 14528 net.cpp:148] Top shape: 24 192 28 28 (3612672)
I0403 15:19:24.973693 14528 net.cpp:156] Memory required for data: 491324448
I0403 15:19:24.973707 14528 layer_factory.hpp:77] Creating layer inception_3a/1x1
I0403 15:19:24.973729 14528 net.cpp:91] Creating Layer inception_3a/1x1
I0403 15:19:24.973747 14528 net.cpp:425] inception_3a/1x1 <- pool2/3x3_s2_pool2/3x3_s2_0_split_0
I0403 15:19:24.973768 14528 net.cpp:399] inception_3a/1x1 -> inception_3a/1x1
I0403 15:19:24.975342 14528 net.cpp:141] Setting up inception_3a/1x1
I0403 15:19:24.975371 14528 net.cpp:148] Top shape: 24 64 28 28 (1204224)
I0403 15:19:24.975389 14528 net.cpp:156] Memory required for data: 496141344
I0403 15:19:24.975406 14528 layer_factory.hpp:77] Creating layer inception_3a/relu_1x1
I0403 15:19:24.975425 14528 net.cpp:91] Creating Layer inception_3a/relu_1x1
I0403 15:19:24.975450 14528 net.cpp:425] inception_3a/relu_1x1 <- inception_3a/1x1
I0403 15:19:24.975466 14528 net.cpp:386] inception_3a/relu_1x1 -> inception_3a/1x1 (in-place)
I0403 15:19:24.975648 14528 net.cpp:141] Setting up inception_3a/relu_1x1
I0403 15:19:24.975674 14528 net.cpp:148] Top shape: 24 64 28 28 (1204224)
I0403 15:19:24.975689 14528 net.cpp:156] Memory required for data: 500958240
I0403 15:19:24.975703 14528 layer_factory.hpp:77] Creating layer inception_3a/3x3_reduce
I0403 15:19:24.975725 14528 net.cpp:91] Creating Layer inception_3a/3x3_reduce
I0403 15:19:24.975744 14528 net.cpp:425] inception_3a/3x3_reduce <- pool2/3x3_s2_pool2/3x3_s2_0_split_1
I0403 15:19:24.975764 14528 net.cpp:399] inception_3a/3x3_reduce -> inception_3a/3x3_reduce
I0403 15:19:24.977474 14528 net.cpp:141] Setting up inception_3a/3x3_reduce
I0403 15:19:24.977509 14528 net.cpp:148] Top shape: 24 96 28 28 (1806336)
I0403 15:19:24.977526 14528 net.cpp:156] Memory required for data: 508183584
I0403 15:19:24.977548 14528 layer_factory.hpp:77] Creating layer inception_3a/relu_3x3_reduce
I0403 15:19:24.977587 14528 net.cpp:91] Creating Layer inception_3a/relu_3x3_reduce
I0403 15:19:24.977605 14528 net.cpp:425] inception_3a/relu_3x3_reduce <- inception_3a/3x3_reduce
I0403 15:19:24.977623 14528 net.cpp:386] inception_3a/relu_3x3_reduce -> inception_3a/3x3_reduce (in-place)
I0403 15:19:24.977812 14528 net.cpp:141] Setting up inception_3a/relu_3x3_reduce
I0403 15:19:24.977838 14528 net.cpp:148] Top shape: 24 96 28 28 (1806336)
I0403 15:19:24.977854 14528 net.cpp:156] Memory required for data: 515408928
I0403 15:19:24.977867 14528 layer_factory.hpp:77] Creating layer inception_3a/3x3
I0403 15:19:24.977890 14528 net.cpp:91] Creating Layer inception_3a/3x3
I0403 15:19:24.977908 14528 net.cpp:425] inception_3a/3x3 <- inception_3a/3x3_reduce
I0403 15:19:24.977929 14528 net.cpp:399] inception_3a/3x3 -> inception_3a/3x3
I0403 15:19:24.979607 14528 net.cpp:141] Setting up inception_3a/3x3
I0403 15:19:24.979636 14528 net.cpp:148] Top shape: 24 128 28 28 (2408448)
I0403 15:19:24.979651 14528 net.cpp:156] Memory required for data: 525042720
I0403 15:19:24.979670 14528 layer_factory.hpp:77] Creating layer inception_3a/relu_3x3
I0403 15:19:24.979691 14528 net.cpp:91] Creating Layer inception_3a/relu_3x3
I0403 15:19:24.979707 14528 net.cpp:425] inception_3a/relu_3x3 <- inception_3a/3x3
I0403 15:19:24.979724 14528 net.cpp:386] inception_3a/relu_3x3 -> inception_3a/3x3 (in-place)
I0403 15:19:24.979997 14528 net.cpp:141] Setting up inception_3a/relu_3x3
I0403 15:19:24.980025 14528 net.cpp:148] Top shape: 24 128 28 28 (2408448)
I0403 15:19:24.980039 14528 net.cpp:156] Memory required for data: 534676512
I0403 15:19:24.980054 14528 layer_factory.hpp:77] Creating layer inception_3a/5x5_reduce
I0403 15:19:24.980077 14528 net.cpp:91] Creating Layer inception_3a/5x5_reduce
I0403 15:19:24.980093 14528 net.cpp:425] inception_3a/5x5_reduce <- pool2/3x3_s2_pool2/3x3_s2_0_split_2
I0403 15:19:24.980113 14528 net.cpp:399] inception_3a/5x5_reduce -> inception_3a/5x5_reduce
I0403 15:19:24.981078 14528 net.cpp:141] Setting up inception_3a/5x5_reduce
I0403 15:19:24.981106 14528 net.cpp:148] Top shape: 24 16 28 28 (301056)
I0403 15:19:24.981123 14528 net.cpp:156] Memory required for data: 535880736
I0403 15:19:24.981142 14528 layer_factory.hpp:77] Creating layer inception_3a/relu_5x5_reduce
I0403 15:19:24.981161 14528 net.cpp:91] Creating Layer inception_3a/relu_5x5_reduce
I0403 15:19:24.981178 14528 net.cpp:425] inception_3a/relu_5x5_reduce <- inception_3a/5x5_reduce
I0403 15:19:24.981195 14528 net.cpp:386] inception_3a/relu_5x5_reduce -> inception_3a/5x5_reduce (in-place)
I0403 15:19:24.981490 14528 net.cpp:141] Setting up inception_3a/relu_5x5_reduce
I0403 15:19:24.981525 14528 net.cpp:148] Top shape: 24 16 28 28 (301056)
I0403 15:19:24.981544 14528 net.cpp:156] Memory required for data: 537084960
I0403 15:19:24.981557 14528 layer_factory.hpp:77] Creating layer inception_3a/5x5
I0403 15:19:24.981580 14528 net.cpp:91] Creating Layer inception_3a/5x5
I0403 15:19:24.981596 14528 net.cpp:425] inception_3a/5x5 <- inception_3a/5x5_reduce
I0403 15:19:24.981616 14528 net.cpp:399] inception_3a/5x5 -> inception_3a/5x5
I0403 15:19:24.982637 14528 net.cpp:141] Setting up inception_3a/5x5
I0403 15:19:24.982666 14528 net.cpp:148] Top shape: 24 32 28 28 (602112)
I0403 15:19:24.982681 14528 net.cpp:156] Memory required for data: 539493408
I0403 15:19:24.982700 14528 layer_factory.hpp:77] Creating layer inception_3a/relu_5x5
I0403 15:19:24.982722 14528 net.cpp:91] Creating Layer inception_3a/relu_5x5
I0403 15:19:24.982738 14528 net.cpp:425] inception_3a/relu_5x5 <- inception_3a/5x5
I0403 15:19:24.982755 14528 net.cpp:386] inception_3a/relu_5x5 -> inception_3a/5x5 (in-place)
I0403 15:19:24.982930 14528 net.cpp:141] Setting up inception_3a/relu_5x5
I0403 15:19:24.982956 14528 net.cpp:148] Top shape: 24 32 28 28 (602112)
I0403 15:19:24.982971 14528 net.cpp:156] Memory required for data: 541901856
I0403 15:19:24.982986 14528 layer_factory.hpp:77] Creating layer inception_3a/pool
I0403 15:19:24.983006 14528 net.cpp:91] Creating Layer inception_3a/pool
I0403 15:19:24.983022 14528 net.cpp:425] inception_3a/pool <- pool2/3x3_s2_pool2/3x3_s2_0_split_3
I0403 15:19:24.983055 14528 net.cpp:399] inception_3a/pool -> inception_3a/pool
I0403 15:19:24.983116 14528 net.cpp:141] Setting up inception_3a/pool
I0403 15:19:24.983140 14528 net.cpp:148] Top shape: 24 192 28 28 (3612672)
I0403 15:19:24.983155 14528 net.cpp:156] Memory required for data: 556352544
I0403 15:19:24.983170 14528 layer_factory.hpp:77] Creating layer inception_3a/pool_proj
I0403 15:19:24.983192 14528 net.cpp:91] Creating Layer inception_3a/pool_proj
I0403 15:19:24.983209 14528 net.cpp:425] inception_3a/pool_proj <- inception_3a/pool
I0403 15:19:24.983232 14528 net.cpp:399] inception_3a/pool_proj -> inception_3a/pool_proj
I0403 15:19:24.984225 14528 net.cpp:141] Setting up inception_3a/pool_proj
I0403 15:19:24.984254 14528 net.cpp:148] Top shape: 24 32 28 28 (602112)
I0403 15:19:24.984272 14528 net.cpp:156] Memory required for data: 558760992
I0403 15:19:24.984293 14528 layer_factory.hpp:77] Creating layer inception_3a/relu_pool_proj
I0403 15:19:24.984315 14528 net.cpp:91] Creating Layer inception_3a/relu_pool_proj
I0403 15:19:24.984333 14528 net.cpp:425] inception_3a/relu_pool_proj <- inception_3a/pool_proj
I0403 15:19:24.984349 14528 net.cpp:386] inception_3a/relu_pool_proj -> inception_3a/pool_proj (in-place)
I0403 15:19:24.984637 14528 net.cpp:141] Setting up inception_3a/relu_pool_proj
I0403 15:19:24.984664 14528 net.cpp:148] Top shape: 24 32 28 28 (602112)
I0403 15:19:24.984680 14528 net.cpp:156] Memory required for data: 561169440
I0403 15:19:24.984695 14528 layer_factory.hpp:77] Creating layer inception_3a/output
I0403 15:19:24.984712 14528 net.cpp:91] Creating Layer inception_3a/output
I0403 15:19:24.984735 14528 net.cpp:425] inception_3a/output <- inception_3a/1x1
I0403 15:19:24.984751 14528 net.cpp:425] inception_3a/output <- inception_3a/3x3
I0403 15:19:24.984767 14528 net.cpp:425] inception_3a/output <- inception_3a/5x5
I0403 15:19:24.984784 14528 net.cpp:425] inception_3a/output <- inception_3a/pool_proj
I0403 15:19:24.984800 14528 net.cpp:399] inception_3a/output -> inception_3a/output
I0403 15:19:24.984848 14528 net.cpp:141] Setting up inception_3a/output
I0403 15:19:24.984874 14528 net.cpp:148] Top shape: 24 256 28 28 (4816896)
I0403 15:19:24.984889 14528 net.cpp:156] Memory required for data: 580437024
I0403 15:19:24.984905 14528 layer_factory.hpp:77] Creating layer inception_3a/output_inception_3a/output_0_split
I0403 15:19:24.984921 14528 net.cpp:91] Creating Layer inception_3a/output_inception_3a/output_0_split
I0403 15:19:24.984937 14528 net.cpp:425] inception_3a/output_inception_3a/output_0_split <- inception_3a/output
I0403 15:19:24.984956 14528 net.cpp:399] inception_3a/output_inception_3a/output_0_split -> inception_3a/output_inception_3a/output_0_split_0
I0403 15:19:24.984977 14528 net.cpp:399] inception_3a/output_inception_3a/output_0_split -> inception_3a/output_inception_3a/output_0_split_1
I0403 15:19:24.985000 14528 net.cpp:399] inception_3a/output_inception_3a/output_0_split -> inception_3a/output_inception_3a/output_0_split_2
I0403 15:19:24.985021 14528 net.cpp:399] inception_3a/output_inception_3a/output_0_split -> inception_3a/output_inception_3a/output_0_split_3
I0403 15:19:24.985097 14528 net.cpp:141] Setting up inception_3a/output_inception_3a/output_0_split
I0403 15:19:24.985121 14528 net.cpp:148] Top shape: 24 256 28 28 (4816896)
I0403 15:19:24.985137 14528 net.cpp:148] Top shape: 24 256 28 28 (4816896)
I0403 15:19:24.985153 14528 net.cpp:148] Top shape: 24 256 28 28 (4816896)
I0403 15:19:24.985168 14528 net.cpp:148] Top shape: 24 256 28 28 (4816896)
I0403 15:19:24.985182 14528 net.cpp:156] Memory required for data: 657507360
I0403 15:19:24.985195 14528 layer_factory.hpp:77] Creating layer inception_3b/1x1
I0403 15:19:24.985219 14528 net.cpp:91] Creating Layer inception_3b/1x1
I0403 15:19:24.985236 14528 net.cpp:425] inception_3b/1x1 <- inception_3a/output_inception_3a/output_0_split_0
I0403 15:19:24.985257 14528 net.cpp:399] inception_3b/1x1 -> inception_3b/1x1
I0403 15:19:24.986415 14528 net.cpp:141] Setting up inception_3b/1x1
I0403 15:19:24.986455 14528 net.cpp:148] Top shape: 24 128 28 28 (2408448)
I0403 15:19:24.986472 14528 net.cpp:156] Memory required for data: 667141152
I0403 15:19:24.986491 14528 layer_factory.hpp:77] Creating layer inception_3b/relu_1x1
I0403 15:19:24.986513 14528 net.cpp:91] Creating Layer inception_3b/relu_1x1
I0403 15:19:24.986531 14528 net.cpp:425] inception_3b/relu_1x1 <- inception_3b/1x1
I0403 15:19:24.986552 14528 net.cpp:386] inception_3b/relu_1x1 -> inception_3b/1x1 (in-place)
I0403 15:19:24.986733 14528 net.cpp:141] Setting up inception_3b/relu_1x1
I0403 15:19:24.986759 14528 net.cpp:148] Top shape: 24 128 28 28 (2408448)
I0403 15:19:24.986774 14528 net.cpp:156] Memory required for data: 676774944
I0403 15:19:24.986788 14528 layer_factory.hpp:77] Creating layer inception_3b/3x3_reduce
I0403 15:19:24.986810 14528 net.cpp:91] Creating Layer inception_3b/3x3_reduce
I0403 15:19:24.986829 14528 net.cpp:425] inception_3b/3x3_reduce <- inception_3a/output_inception_3a/output_0_split_1
I0403 15:19:24.986850 14528 net.cpp:399] inception_3b/3x3_reduce -> inception_3b/3x3_reduce
I0403 15:19:24.988013 14528 net.cpp:141] Setting up inception_3b/3x3_reduce
I0403 15:19:24.988044 14528 net.cpp:148] Top shape: 24 128 28 28 (2408448)
I0403 15:19:24.988061 14528 net.cpp:156] Memory required for data: 686408736
I0403 15:19:24.988080 14528 layer_factory.hpp:77] Creating layer inception_3b/relu_3x3_reduce
I0403 15:19:24.988097 14528 net.cpp:91] Creating Layer inception_3b/relu_3x3_reduce
I0403 15:19:24.988113 14528 net.cpp:425] inception_3b/relu_3x3_reduce <- inception_3b/3x3_reduce
I0403 15:19:24.988132 14528 net.cpp:386] inception_3b/relu_3x3_reduce -> inception_3b/3x3_reduce (in-place)
I0403 15:19:24.988312 14528 net.cpp:141] Setting up inception_3b/relu_3x3_reduce
I0403 15:19:24.988337 14528 net.cpp:148] Top shape: 24 128 28 28 (2408448)
I0403 15:19:24.988353 14528 net.cpp:156] Memory required for data: 696042528
I0403 15:19:24.988366 14528 layer_factory.hpp:77] Creating layer inception_3b/3x3
I0403 15:19:24.988391 14528 net.cpp:91] Creating Layer inception_3b/3x3
I0403 15:19:24.988410 14528 net.cpp:425] inception_3b/3x3 <- inception_3b/3x3_reduce
I0403 15:19:24.988430 14528 net.cpp:399] inception_3b/3x3 -> inception_3b/3x3
I0403 15:19:24.991389 14528 net.cpp:141] Setting up inception_3b/3x3
I0403 15:19:24.991417 14528 net.cpp:148] Top shape: 24 192 28 28 (3612672)
I0403 15:19:24.991433 14528 net.cpp:156] Memory required for data: 710493216
I0403 15:19:24.991451 14528 layer_factory.hpp:77] Creating layer inception_3b/relu_3x3
I0403 15:19:24.991472 14528 net.cpp:91] Creating Layer inception_3b/relu_3x3
I0403 15:19:24.991487 14528 net.cpp:425] inception_3b/relu_3x3 <- inception_3b/3x3
I0403 15:19:24.991508 14528 net.cpp:386] inception_3b/relu_3x3 -> inception_3b/3x3 (in-place)
I0403 15:19:24.991786 14528 net.cpp:141] Setting up inception_3b/relu_3x3
I0403 15:19:24.991812 14528 net.cpp:148] Top shape: 24 192 28 28 (3612672)
I0403 15:19:24.991827 14528 net.cpp:156] Memory required for data: 724943904
I0403 15:19:24.991842 14528 layer_factory.hpp:77] Creating layer inception_3b/5x5_reduce
I0403 15:19:24.991863 14528 net.cpp:91] Creating Layer inception_3b/5x5_reduce
I0403 15:19:24.991879 14528 net.cpp:425] inception_3b/5x5_reduce <- inception_3a/output_inception_3a/output_0_split_2
I0403 15:19:24.991901 14528 net.cpp:399] inception_3b/5x5_reduce -> inception_3b/5x5_reduce
I0403 15:19:24.992894 14528 net.cpp:141] Setting up inception_3b/5x5_reduce
I0403 15:19:24.992923 14528 net.cpp:148] Top shape: 24 32 28 28 (602112)
I0403 15:19:24.992938 14528 net.cpp:156] Memory required for data: 727352352
I0403 15:19:24.992954 14528 layer_factory.hpp:77] Creating layer inception_3b/relu_5x5_reduce
I0403 15:19:24.992974 14528 net.cpp:91] Creating Layer inception_3b/relu_5x5_reduce
I0403 15:19:24.992991 14528 net.cpp:425] inception_3b/relu_5x5_reduce <- inception_3b/5x5_reduce
I0403 15:19:24.993007 14528 net.cpp:386] inception_3b/relu_5x5_reduce -> inception_3b/5x5_reduce (in-place)
I0403 15:19:24.993185 14528 net.cpp:141] Setting up inception_3b/relu_5x5_reduce
I0403 15:19:24.993221 14528 net.cpp:148] Top shape: 24 32 28 28 (602112)
I0403 15:19:24.993237 14528 net.cpp:156] Memory required for data: 729760800
I0403 15:19:24.993252 14528 layer_factory.hpp:77] Creating layer inception_3b/5x5
I0403 15:19:24.993275 14528 net.cpp:91] Creating Layer inception_3b/5x5
I0403 15:19:24.993293 14528 net.cpp:425] inception_3b/5x5 <- inception_3b/5x5_reduce
I0403 15:19:24.993310 14528 net.cpp:399] inception_3b/5x5 -> inception_3b/5x5
I0403 15:19:24.995260 14528 net.cpp:141] Setting up inception_3b/5x5
I0403 15:19:24.995290 14528 net.cpp:148] Top shape: 24 96 28 28 (1806336)
I0403 15:19:24.995307 14528 net.cpp:156] Memory required for data: 736986144
I0403 15:19:24.995326 14528 layer_factory.hpp:77] Creating layer inception_3b/relu_5x5
I0403 15:19:24.995343 14528 net.cpp:91] Creating Layer inception_3b/relu_5x5
I0403 15:19:24.995359 14528 net.cpp:425] inception_3b/relu_5x5 <- inception_3b/5x5
I0403 15:19:24.995378 14528 net.cpp:386] inception_3b/relu_5x5 -> inception_3b/5x5 (in-place)
I0403 15:19:24.995571 14528 net.cpp:141] Setting up inception_3b/relu_5x5
I0403 15:19:24.995596 14528 net.cpp:148] Top shape: 24 96 28 28 (1806336)
I0403 15:19:24.995611 14528 net.cpp:156] Memory required for data: 744211488
I0403 15:19:24.995625 14528 layer_factory.hpp:77] Creating layer inception_3b/pool
I0403 15:19:24.995642 14528 net.cpp:91] Creating Layer inception_3b/pool
I0403 15:19:24.995656 14528 net.cpp:425] inception_3b/pool <- inception_3a/output_inception_3a/output_0_split_3
I0403 15:19:24.995673 14528 net.cpp:399] inception_3b/pool -> inception_3b/pool
I0403 15:19:24.995731 14528 net.cpp:141] Setting up inception_3b/pool
I0403 15:19:24.995754 14528 net.cpp:148] Top shape: 24 256 28 28 (4816896)
I0403 15:19:24.995769 14528 net.cpp:156] Memory required for data: 763479072
I0403 15:19:24.995782 14528 layer_factory.hpp:77] Creating layer inception_3b/pool_proj
I0403 15:19:24.995803 14528 net.cpp:91] Creating Layer inception_3b/pool_proj
I0403 15:19:24.995820 14528 net.cpp:425] inception_3b/pool_proj <- inception_3b/pool
I0403 15:19:24.995841 14528 net.cpp:399] inception_3b/pool_proj -> inception_3b/pool_proj
I0403 15:19:24.996881 14528 net.cpp:141] Setting up inception_3b/pool_proj
I0403 15:19:24.996908 14528 net.cpp:148] Top shape: 24 64 28 28 (1204224)
I0403 15:19:24.996923 14528 net.cpp:156] Memory required for data: 768295968
I0403 15:19:24.996942 14528 layer_factory.hpp:77] Creating layer inception_3b/relu_pool_proj
I0403 15:19:24.996961 14528 net.cpp:91] Creating Layer inception_3b/relu_pool_proj
I0403 15:19:24.996978 14528 net.cpp:425] inception_3b/relu_pool_proj <- inception_3b/pool_proj
I0403 15:19:24.996995 14528 net.cpp:386] inception_3b/relu_pool_proj -> inception_3b/pool_proj (in-place)
I0403 15:19:24.997378 14528 net.cpp:141] Setting up inception_3b/relu_pool_proj
I0403 15:19:24.997405 14528 net.cpp:148] Top shape: 24 64 28 28 (1204224)
I0403 15:19:24.997419 14528 net.cpp:156] Memory required for data: 773112864
I0403 15:19:24.997433 14528 layer_factory.hpp:77] Creating layer inception_3b/output
I0403 15:19:24.997452 14528 net.cpp:91] Creating Layer inception_3b/output
I0403 15:19:24.997468 14528 net.cpp:425] inception_3b/output <- inception_3b/1x1
I0403 15:19:24.997485 14528 net.cpp:425] inception_3b/output <- inception_3b/3x3
I0403 15:19:24.997500 14528 net.cpp:425] inception_3b/output <- inception_3b/5x5
I0403 15:19:24.997521 14528 net.cpp:425] inception_3b/output <- inception_3b/pool_proj
I0403 15:19:24.997539 14528 net.cpp:399] inception_3b/output -> inception_3b/output
I0403 15:19:24.997584 14528 net.cpp:141] Setting up inception_3b/output
I0403 15:19:24.997607 14528 net.cpp:148] Top shape: 24 480 28 28 (9031680)
I0403 15:19:24.997622 14528 net.cpp:156] Memory required for data: 809239584
I0403 15:19:24.997635 14528 layer_factory.hpp:77] Creating layer pool3/3x3_s2
I0403 15:19:24.997653 14528 net.cpp:91] Creating Layer pool3/3x3_s2
I0403 15:19:24.997668 14528 net.cpp:425] pool3/3x3_s2 <- inception_3b/output
I0403 15:19:24.997687 14528 net.cpp:399] pool3/3x3_s2 -> pool3/3x3_s2
I0403 15:19:24.997757 14528 net.cpp:141] Setting up pool3/3x3_s2
I0403 15:19:24.997781 14528 net.cpp:148] Top shape: 24 480 14 14 (2257920)
I0403 15:19:24.997797 14528 net.cpp:156] Memory required for data: 818271264
I0403 15:19:24.997812 14528 layer_factory.hpp:77] Creating layer pool3/3x3_s2_pool3/3x3_s2_0_split
I0403 15:19:24.997828 14528 net.cpp:91] Creating Layer pool3/3x3_s2_pool3/3x3_s2_0_split
I0403 15:19:24.997843 14528 net.cpp:425] pool3/3x3_s2_pool3/3x3_s2_0_split <- pool3/3x3_s2
I0403 15:19:24.997859 14528 net.cpp:399] pool3/3x3_s2_pool3/3x3_s2_0_split -> pool3/3x3_s2_pool3/3x3_s2_0_split_0
I0403 15:19:24.997880 14528 net.cpp:399] pool3/3x3_s2_pool3/3x3_s2_0_split -> pool3/3x3_s2_pool3/3x3_s2_0_split_1
I0403 15:19:24.997900 14528 net.cpp:399] pool3/3x3_s2_pool3/3x3_s2_0_split -> pool3/3x3_s2_pool3/3x3_s2_0_split_2
I0403 15:19:24.997920 14528 net.cpp:399] pool3/3x3_s2_pool3/3x3_s2_0_split -> pool3/3x3_s2_pool3/3x3_s2_0_split_3
I0403 15:19:24.997995 14528 net.cpp:141] Setting up pool3/3x3_s2_pool3/3x3_s2_0_split
I0403 15:19:24.998018 14528 net.cpp:148] Top shape: 24 480 14 14 (2257920)
I0403 15:19:24.998034 14528 net.cpp:148] Top shape: 24 480 14 14 (2257920)
I0403 15:19:24.998049 14528 net.cpp:148] Top shape: 24 480 14 14 (2257920)
I0403 15:19:24.998064 14528 net.cpp:148] Top shape: 24 480 14 14 (2257920)
I0403 15:19:24.998077 14528 net.cpp:156] Memory required for data: 854397984
I0403 15:19:24.998092 14528 layer_factory.hpp:77] Creating layer inception_4a/1x1
I0403 15:19:24.998114 14528 net.cpp:91] Creating Layer inception_4a/1x1
I0403 15:19:24.998131 14528 net.cpp:425] inception_4a/1x1 <- pool3/3x3_s2_pool3/3x3_s2_0_split_0
I0403 15:19:24.998149 14528 net.cpp:399] inception_4a/1x1 -> inception_4a/1x1
I0403 15:19:24.999760 14528 net.cpp:141] Setting up inception_4a/1x1
I0403 15:19:24.999790 14528 net.cpp:148] Top shape: 24 192 14 14 (903168)
I0403 15:19:24.999807 14528 net.cpp:156] Memory required for data: 858010656
I0403 15:19:24.999825 14528 layer_factory.hpp:77] Creating layer inception_4a/relu_1x1
I0403 15:19:24.999843 14528 net.cpp:91] Creating Layer inception_4a/relu_1x1
I0403 15:19:24.999861 14528 net.cpp:425] inception_4a/relu_1x1 <- inception_4a/1x1
I0403 15:19:24.999881 14528 net.cpp:386] inception_4a/relu_1x1 -> inception_4a/1x1 (in-place)
I0403 15:19:25.000062 14528 net.cpp:141] Setting up inception_4a/relu_1x1
I0403 15:19:25.000087 14528 net.cpp:148] Top shape: 24 192 14 14 (903168)
I0403 15:19:25.000103 14528 net.cpp:156] Memory required for data: 861623328
I0403 15:19:25.000118 14528 layer_factory.hpp:77] Creating layer inception_4a/3x3_reduce
I0403 15:19:25.000140 14528 net.cpp:91] Creating Layer inception_4a/3x3_reduce
I0403 15:19:25.000157 14528 net.cpp:425] inception_4a/3x3_reduce <- pool3/3x3_s2_pool3/3x3_s2_0_split_1
I0403 15:19:25.000179 14528 net.cpp:399] inception_4a/3x3_reduce -> inception_4a/3x3_reduce
I0403 15:19:25.001474 14528 net.cpp:141] Setting up inception_4a/3x3_reduce
I0403 15:19:25.001509 14528 net.cpp:148] Top shape: 24 96 14 14 (451584)
I0403 15:19:25.001528 14528 net.cpp:156] Memory required for data: 863429664
I0403 15:19:25.001550 14528 layer_factory.hpp:77] Creating layer inception_4a/relu_3x3_reduce
I0403 15:19:25.001574 14528 net.cpp:91] Creating Layer inception_4a/relu_3x3_reduce
I0403 15:19:25.001590 14528 net.cpp:425] inception_4a/relu_3x3_reduce <- inception_4a/3x3_reduce
I0403 15:19:25.001608 14528 net.cpp:386] inception_4a/relu_3x3_reduce -> inception_4a/3x3_reduce (in-place)
I0403 15:19:25.001785 14528 net.cpp:141] Setting up inception_4a/relu_3x3_reduce
I0403 15:19:25.001811 14528 net.cpp:148] Top shape: 24 96 14 14 (451584)
I0403 15:19:25.001826 14528 net.cpp:156] Memory required for data: 865236000
I0403 15:19:25.001840 14528 layer_factory.hpp:77] Creating layer inception_4a/3x3
I0403 15:19:25.001863 14528 net.cpp:91] Creating Layer inception_4a/3x3
I0403 15:19:25.001880 14528 net.cpp:425] inception_4a/3x3 <- inception_4a/3x3_reduce
I0403 15:19:25.001902 14528 net.cpp:399] inception_4a/3x3 -> inception_4a/3x3
I0403 15:19:25.004637 14528 net.cpp:141] Setting up inception_4a/3x3
I0403 15:19:25.004667 14528 net.cpp:148] Top shape: 24 208 14 14 (978432)
I0403 15:19:25.004683 14528 net.cpp:156] Memory required for data: 869149728
I0403 15:19:25.004701 14528 layer_factory.hpp:77] Creating layer inception_4a/relu_3x3
I0403 15:19:25.004720 14528 net.cpp:91] Creating Layer inception_4a/relu_3x3
I0403 15:19:25.004737 14528 net.cpp:425] inception_4a/relu_3x3 <- inception_4a/3x3
I0403 15:19:25.004756 14528 net.cpp:386] inception_4a/relu_3x3 -> inception_4a/3x3 (in-place)
I0403 15:19:25.005041 14528 net.cpp:141] Setting up inception_4a/relu_3x3
I0403 15:19:25.005067 14528 net.cpp:148] Top shape: 24 208 14 14 (978432)
I0403 15:19:25.005084 14528 net.cpp:156] Memory required for data: 873063456
I0403 15:19:25.005098 14528 layer_factory.hpp:77] Creating layer inception_4a/5x5_reduce
I0403 15:19:25.005122 14528 net.cpp:91] Creating Layer inception_4a/5x5_reduce
I0403 15:19:25.005139 14528 net.cpp:425] inception_4a/5x5_reduce <- pool3/3x3_s2_pool3/3x3_s2_0_split_2
I0403 15:19:25.005162 14528 net.cpp:399] inception_4a/5x5_reduce -> inception_4a/5x5_reduce
I0403 15:19:25.006216 14528 net.cpp:141] Setting up inception_4a/5x5_reduce
I0403 15:19:25.006243 14528 net.cpp:148] Top shape: 24 16 14 14 (75264)
I0403 15:19:25.006260 14528 net.cpp:156] Memory required for data: 873364512
I0403 15:19:25.006278 14528 layer_factory.hpp:77] Creating layer inception_4a/relu_5x5_reduce
I0403 15:19:25.006299 14528 net.cpp:91] Creating Layer inception_4a/relu_5x5_reduce
I0403 15:19:25.006316 14528 net.cpp:425] inception_4a/relu_5x5_reduce <- inception_4a/5x5_reduce
I0403 15:19:25.006335 14528 net.cpp:386] inception_4a/relu_5x5_reduce -> inception_4a/5x5_reduce (in-place)
I0403 15:19:25.006522 14528 net.cpp:141] Setting up inception_4a/relu_5x5_reduce
I0403 15:19:25.006548 14528 net.cpp:148] Top shape: 24 16 14 14 (75264)
I0403 15:19:25.006563 14528 net.cpp:156] Memory required for data: 873665568
I0403 15:19:25.006577 14528 layer_factory.hpp:77] Creating layer inception_4a/5x5
I0403 15:19:25.006600 14528 net.cpp:91] Creating Layer inception_4a/5x5
I0403 15:19:25.006619 14528 net.cpp:425] inception_4a/5x5 <- inception_4a/5x5_reduce
I0403 15:19:25.006638 14528 net.cpp:399] inception_4a/5x5 -> inception_4a/5x5
I0403 15:19:25.007761 14528 net.cpp:141] Setting up inception_4a/5x5
I0403 15:19:25.007789 14528 net.cpp:148] Top shape: 24 48 14 14 (225792)
I0403 15:19:25.007805 14528 net.cpp:156] Memory required for data: 874568736
I0403 15:19:25.007823 14528 layer_factory.hpp:77] Creating layer inception_4a/relu_5x5
I0403 15:19:25.007844 14528 net.cpp:91] Creating Layer inception_4a/relu_5x5
I0403 15:19:25.007860 14528 net.cpp:425] inception_4a/relu_5x5 <- inception_4a/5x5
I0403 15:19:25.007879 14528 net.cpp:386] inception_4a/relu_5x5 -> inception_4a/5x5 (in-place)
I0403 15:19:25.008062 14528 net.cpp:141] Setting up inception_4a/relu_5x5
I0403 15:19:25.008090 14528 net.cpp:148] Top shape: 24 48 14 14 (225792)
I0403 15:19:25.008105 14528 net.cpp:156] Memory required for data: 875471904
I0403 15:19:25.008121 14528 layer_factory.hpp:77] Creating layer inception_4a/pool
I0403 15:19:25.008137 14528 net.cpp:91] Creating Layer inception_4a/pool
I0403 15:19:25.008153 14528 net.cpp:425] inception_4a/pool <- pool3/3x3_s2_pool3/3x3_s2_0_split_3
I0403 15:19:25.008173 14528 net.cpp:399] inception_4a/pool -> inception_4a/pool
I0403 15:19:25.008235 14528 net.cpp:141] Setting up inception_4a/pool
I0403 15:19:25.008260 14528 net.cpp:148] Top shape: 24 480 14 14 (2257920)
I0403 15:19:25.008275 14528 net.cpp:156] Memory required for data: 884503584
I0403 15:19:25.008290 14528 layer_factory.hpp:77] Creating layer inception_4a/pool_proj
I0403 15:19:25.008311 14528 net.cpp:91] Creating Layer inception_4a/pool_proj
I0403 15:19:25.008328 14528 net.cpp:425] inception_4a/pool_proj <- inception_4a/pool
I0403 15:19:25.008349 14528 net.cpp:399] inception_4a/pool_proj -> inception_4a/pool_proj
I0403 15:19:25.009563 14528 net.cpp:141] Setting up inception_4a/pool_proj
I0403 15:19:25.009596 14528 net.cpp:148] Top shape: 24 64 14 14 (301056)
I0403 15:19:25.009627 14528 net.cpp:156] Memory required for data: 885707808
I0403 15:19:25.009647 14528 layer_factory.hpp:77] Creating layer inception_4a/relu_pool_proj
I0403 15:19:25.009666 14528 net.cpp:91] Creating Layer inception_4a/relu_pool_proj
I0403 15:19:25.009683 14528 net.cpp:425] inception_4a/relu_pool_proj <- inception_4a/pool_proj
I0403 15:19:25.009701 14528 net.cpp:386] inception_4a/relu_pool_proj -> inception_4a/pool_proj (in-place)
I0403 15:19:25.009992 14528 net.cpp:141] Setting up inception_4a/relu_pool_proj
I0403 15:19:25.010022 14528 net.cpp:148] Top shape: 24 64 14 14 (301056)
I0403 15:19:25.010038 14528 net.cpp:156] Memory required for data: 886912032
I0403 15:19:25.010053 14528 layer_factory.hpp:77] Creating layer inception_4a/output
I0403 15:19:25.010071 14528 net.cpp:91] Creating Layer inception_4a/output
I0403 15:19:25.010085 14528 net.cpp:425] inception_4a/output <- inception_4a/1x1
I0403 15:19:25.010102 14528 net.cpp:425] inception_4a/output <- inception_4a/3x3
I0403 15:19:25.010118 14528 net.cpp:425] inception_4a/output <- inception_4a/5x5
I0403 15:19:25.010133 14528 net.cpp:425] inception_4a/output <- inception_4a/pool_proj
I0403 15:19:25.010149 14528 net.cpp:399] inception_4a/output -> inception_4a/output
I0403 15:19:25.010197 14528 net.cpp:141] Setting up inception_4a/output
I0403 15:19:25.010221 14528 net.cpp:148] Top shape: 24 512 14 14 (2408448)
I0403 15:19:25.010236 14528 net.cpp:156] Memory required for data: 896545824
I0403 15:19:25.010249 14528 layer_factory.hpp:77] Creating layer inception_4a/output_inception_4a/output_0_split
I0403 15:19:25.010270 14528 net.cpp:91] Creating Layer inception_4a/output_inception_4a/output_0_split
I0403 15:19:25.010288 14528 net.cpp:425] inception_4a/output_inception_4a/output_0_split <- inception_4a/output
I0403 15:19:25.010304 14528 net.cpp:399] inception_4a/output_inception_4a/output_0_split -> inception_4a/output_inception_4a/output_0_split_0
I0403 15:19:25.010325 14528 net.cpp:399] inception_4a/output_inception_4a/output_0_split -> inception_4a/output_inception_4a/output_0_split_1
I0403 15:19:25.010345 14528 net.cpp:399] inception_4a/output_inception_4a/output_0_split -> inception_4a/output_inception_4a/output_0_split_2
I0403 15:19:25.010366 14528 net.cpp:399] inception_4a/output_inception_4a/output_0_split -> inception_4a/output_inception_4a/output_0_split_3
I0403 15:19:25.010390 14528 net.cpp:399] inception_4a/output_inception_4a/output_0_split -> inception_4a/output_inception_4a/output_0_split_4
I0403 15:19:25.010489 14528 net.cpp:141] Setting up inception_4a/output_inception_4a/output_0_split
I0403 15:19:25.010517 14528 net.cpp:148] Top shape: 24 512 14 14 (2408448)
I0403 15:19:25.010535 14528 net.cpp:148] Top shape: 24 512 14 14 (2408448)
I0403 15:19:25.010551 14528 net.cpp:148] Top shape: 24 512 14 14 (2408448)
I0403 15:19:25.010566 14528 net.cpp:148] Top shape: 24 512 14 14 (2408448)
I0403 15:19:25.010582 14528 net.cpp:148] Top shape: 24 512 14 14 (2408448)
I0403 15:19:25.010596 14528 net.cpp:156] Memory required for data: 944714784
I0403 15:19:25.010610 14528 layer_factory.hpp:77] Creating layer loss1/ave_pool
I0403 15:19:25.010630 14528 net.cpp:91] Creating Layer loss1/ave_pool
I0403 15:19:25.010648 14528 net.cpp:425] loss1/ave_pool <- inception_4a/output_inception_4a/output_0_split_0
I0403 15:19:25.010665 14528 net.cpp:399] loss1/ave_pool -> loss1/ave_pool
I0403 15:19:25.010874 14528 net.cpp:141] Setting up loss1/ave_pool
I0403 15:19:25.010902 14528 net.cpp:148] Top shape: 24 512 4 4 (196608)
I0403 15:19:25.010918 14528 net.cpp:156] Memory required for data: 945501216
I0403 15:19:25.010933 14528 layer_factory.hpp:77] Creating layer loss1/conv
I0403 15:19:25.010957 14528 net.cpp:91] Creating Layer loss1/conv
I0403 15:19:25.010973 14528 net.cpp:425] loss1/conv <- loss1/ave_pool
I0403 15:19:25.010992 14528 net.cpp:399] loss1/conv -> loss1/conv
I0403 15:19:25.012440 14528 net.cpp:141] Setting up loss1/conv
I0403 15:19:25.012470 14528 net.cpp:148] Top shape: 24 128 4 4 (49152)
I0403 15:19:25.012486 14528 net.cpp:156] Memory required for data: 945697824
I0403 15:19:25.012524 14528 layer_factory.hpp:77] Creating layer loss1/relu_conv
I0403 15:19:25.012544 14528 net.cpp:91] Creating Layer loss1/relu_conv
I0403 15:19:25.012563 14528 net.cpp:425] loss1/relu_conv <- loss1/conv
I0403 15:19:25.012581 14528 net.cpp:386] loss1/relu_conv -> loss1/conv (in-place)
I0403 15:19:25.012871 14528 net.cpp:141] Setting up loss1/relu_conv
I0403 15:19:25.012897 14528 net.cpp:148] Top shape: 24 128 4 4 (49152)
I0403 15:19:25.012913 14528 net.cpp:156] Memory required for data: 945894432
I0403 15:19:25.012928 14528 layer_factory.hpp:77] Creating layer loss1/fc
I0403 15:19:25.012951 14528 net.cpp:91] Creating Layer loss1/fc
I0403 15:19:25.012971 14528 net.cpp:425] loss1/fc <- loss1/conv
I0403 15:19:25.012990 14528 net.cpp:399] loss1/fc -> loss1/fc
I0403 15:19:25.030359 14528 net.cpp:141] Setting up loss1/fc
I0403 15:19:25.030390 14528 net.cpp:148] Top shape: 24 1024 (24576)
I0403 15:19:25.030403 14528 net.cpp:156] Memory required for data: 945992736
I0403 15:19:25.030421 14528 layer_factory.hpp:77] Creating layer loss1/relu_fc
I0403 15:19:25.030441 14528 net.cpp:91] Creating Layer loss1/relu_fc
I0403 15:19:25.030459 14528 net.cpp:425] loss1/relu_fc <- loss1/fc
I0403 15:19:25.030477 14528 net.cpp:386] loss1/relu_fc -> loss1/fc (in-place)
I0403 15:19:25.030670 14528 net.cpp:141] Setting up loss1/relu_fc
I0403 15:19:25.030696 14528 net.cpp:148] Top shape: 24 1024 (24576)
I0403 15:19:25.030712 14528 net.cpp:156] Memory required for data: 946091040
I0403 15:19:25.030726 14528 layer_factory.hpp:77] Creating layer loss1/drop_fc
I0403 15:19:25.030752 14528 net.cpp:91] Creating Layer loss1/drop_fc
I0403 15:19:25.030771 14528 net.cpp:425] loss1/drop_fc <- loss1/fc
I0403 15:19:25.030791 14528 net.cpp:386] loss1/drop_fc -> loss1/fc (in-place)
I0403 15:19:25.030841 14528 net.cpp:141] Setting up loss1/drop_fc
I0403 15:19:25.030864 14528 net.cpp:148] Top shape: 24 1024 (24576)
I0403 15:19:25.030877 14528 net.cpp:156] Memory required for data: 946189344
I0403 15:19:25.030892 14528 layer_factory.hpp:77] Creating layer loss1/classifier_plantvillage
I0403 15:19:25.030912 14528 net.cpp:91] Creating Layer loss1/classifier_plantvillage
I0403 15:19:25.030930 14528 net.cpp:425] loss1/classifier_plantvillage <- loss1/fc
I0403 15:19:25.030948 14528 net.cpp:399] loss1/classifier_plantvillage -> loss1/classifier_plantvillage
I0403 15:19:25.031829 14528 net.cpp:141] Setting up loss1/classifier_plantvillage
I0403 15:19:25.031857 14528 net.cpp:148] Top shape: 24 38 (912)
I0403 15:19:25.031873 14528 net.cpp:156] Memory required for data: 946192992
I0403 15:19:25.031890 14528 layer_factory.hpp:77] Creating layer loss1/classifier_plantvillage_loss1/classifier_plantvillage_0_split
I0403 15:19:25.031908 14528 net.cpp:91] Creating Layer loss1/classifier_plantvillage_loss1/classifier_plantvillage_0_split
I0403 15:19:25.031924 14528 net.cpp:425] loss1/classifier_plantvillage_loss1/classifier_plantvillage_0_split <- loss1/classifier_plantvillage
I0403 15:19:25.031942 14528 net.cpp:399] loss1/classifier_plantvillage_loss1/classifier_plantvillage_0_split -> loss1/classifier_plantvillage_loss1/classifier_plantvillage_0_split_0
I0403 15:19:25.031962 14528 net.cpp:399] loss1/classifier_plantvillage_loss1/classifier_plantvillage_0_split -> loss1/classifier_plantvillage_loss1/classifier_plantvillage_0_split_1
I0403 15:19:25.031981 14528 net.cpp:399] loss1/classifier_plantvillage_loss1/classifier_plantvillage_0_split -> loss1/classifier_plantvillage_loss1/classifier_plantvillage_0_split_2
I0403 15:19:25.032045 14528 net.cpp:141] Setting up loss1/classifier_plantvillage_loss1/classifier_plantvillage_0_split
I0403 15:19:25.032068 14528 net.cpp:148] Top shape: 24 38 (912)
I0403 15:19:25.032083 14528 net.cpp:148] Top shape: 24 38 (912)
I0403 15:19:25.032097 14528 net.cpp:148] Top shape: 24 38 (912)
I0403 15:19:25.032110 14528 net.cpp:156] Memory required for data: 946203936
I0403 15:19:25.032124 14528 layer_factory.hpp:77] Creating layer inception_4b/1x1
I0403 15:19:25.032145 14528 net.cpp:91] Creating Layer inception_4b/1x1
I0403 15:19:25.032177 14528 net.cpp:425] inception_4b/1x1 <- inception_4a/output_inception_4a/output_0_split_1
I0403 15:19:25.032196 14528 net.cpp:399] inception_4b/1x1 -> inception_4b/1x1
I0403 15:19:25.033799 14528 net.cpp:141] Setting up inception_4b/1x1
I0403 15:19:25.033826 14528 net.cpp:148] Top shape: 24 160 14 14 (752640)
I0403 15:19:25.033841 14528 net.cpp:156] Memory required for data: 949214496
I0403 15:19:25.033859 14528 layer_factory.hpp:77] Creating layer inception_4b/relu_1x1
I0403 15:19:25.033879 14528 net.cpp:91] Creating Layer inception_4b/relu_1x1
I0403 15:19:25.033895 14528 net.cpp:425] inception_4b/relu_1x1 <- inception_4b/1x1
I0403 15:19:25.033911 14528 net.cpp:386] inception_4b/relu_1x1 -> inception_4b/1x1 (in-place)
I0403 15:19:25.034087 14528 net.cpp:141] Setting up inception_4b/relu_1x1
I0403 15:19:25.034111 14528 net.cpp:148] Top shape: 24 160 14 14 (752640)
I0403 15:19:25.034126 14528 net.cpp:156] Memory required for data: 952225056
I0403 15:19:25.034140 14528 layer_factory.hpp:77] Creating layer inception_4b/3x3_reduce
I0403 15:19:25.034160 14528 net.cpp:91] Creating Layer inception_4b/3x3_reduce
I0403 15:19:25.034178 14528 net.cpp:425] inception_4b/3x3_reduce <- inception_4a/output_inception_4a/output_0_split_2
I0403 15:19:25.034198 14528 net.cpp:399] inception_4b/3x3_reduce -> inception_4b/3x3_reduce
I0403 15:19:25.035521 14528 net.cpp:141] Setting up inception_4b/3x3_reduce
I0403 15:19:25.035548 14528 net.cpp:148] Top shape: 24 112 14 14 (526848)
I0403 15:19:25.035563 14528 net.cpp:156] Memory required for data: 954332448
I0403 15:19:25.035580 14528 layer_factory.hpp:77] Creating layer inception_4b/relu_3x3_reduce
I0403 15:19:25.035600 14528 net.cpp:91] Creating Layer inception_4b/relu_3x3_reduce
I0403 15:19:25.035616 14528 net.cpp:425] inception_4b/relu_3x3_reduce <- inception_4b/3x3_reduce
I0403 15:19:25.035634 14528 net.cpp:386] inception_4b/relu_3x3_reduce -> inception_4b/3x3_reduce (in-place)
I0403 15:19:25.035909 14528 net.cpp:141] Setting up inception_4b/relu_3x3_reduce
I0403 15:19:25.035934 14528 net.cpp:148] Top shape: 24 112 14 14 (526848)
I0403 15:19:25.035948 14528 net.cpp:156] Memory required for data: 956439840
I0403 15:19:25.035962 14528 layer_factory.hpp:77] Creating layer inception_4b/3x3
I0403 15:19:25.035984 14528 net.cpp:91] Creating Layer inception_4b/3x3
I0403 15:19:25.036000 14528 net.cpp:425] inception_4b/3x3 <- inception_4b/3x3_reduce
I0403 15:19:25.036020 14528 net.cpp:399] inception_4b/3x3 -> inception_4b/3x3
I0403 15:19:25.038920 14528 net.cpp:141] Setting up inception_4b/3x3
I0403 15:19:25.038950 14528 net.cpp:148] Top shape: 24 224 14 14 (1053696)
I0403 15:19:25.038966 14528 net.cpp:156] Memory required for data: 960654624
I0403 15:19:25.038985 14528 layer_factory.hpp:77] Creating layer inception_4b/relu_3x3
I0403 15:19:25.039001 14528 net.cpp:91] Creating Layer inception_4b/relu_3x3
I0403 15:19:25.039017 14528 net.cpp:425] inception_4b/relu_3x3 <- inception_4b/3x3
I0403 15:19:25.039036 14528 net.cpp:386] inception_4b/relu_3x3 -> inception_4b/3x3 (in-place)
I0403 15:19:25.039211 14528 net.cpp:141] Setting up inception_4b/relu_3x3
I0403 15:19:25.039235 14528 net.cpp:148] Top shape: 24 224 14 14 (1053696)
I0403 15:19:25.039250 14528 net.cpp:156] Memory required for data: 964869408
I0403 15:19:25.039264 14528 layer_factory.hpp:77] Creating layer inception_4b/5x5_reduce
I0403 15:19:25.039285 14528 net.cpp:91] Creating Layer inception_4b/5x5_reduce
I0403 15:19:25.039302 14528 net.cpp:425] inception_4b/5x5_reduce <- inception_4a/output_inception_4a/output_0_split_3
I0403 15:19:25.039324 14528 net.cpp:399] inception_4b/5x5_reduce -> inception_4b/5x5_reduce
I0403 15:19:25.040387 14528 net.cpp:141] Setting up inception_4b/5x5_reduce
I0403 15:19:25.040415 14528 net.cpp:148] Top shape: 24 24 14 14 (112896)
I0403 15:19:25.040429 14528 net.cpp:156] Memory required for data: 965320992
I0403 15:19:25.040447 14528 layer_factory.hpp:77] Creating layer inception_4b/relu_5x5_reduce
I0403 15:19:25.040467 14528 net.cpp:91] Creating Layer inception_4b/relu_5x5_reduce
I0403 15:19:25.040496 14528 net.cpp:425] inception_4b/relu_5x5_reduce <- inception_4b/5x5_reduce
I0403 15:19:25.040519 14528 net.cpp:386] inception_4b/relu_5x5_reduce -> inception_4b/5x5_reduce (in-place)
I0403 15:19:25.040699 14528 net.cpp:141] Setting up inception_4b/relu_5x5_reduce
I0403 15:19:25.040725 14528 net.cpp:148] Top shape: 24 24 14 14 (112896)
I0403 15:19:25.040740 14528 net.cpp:156] Memory required for data: 965772576
I0403 15:19:25.040755 14528 layer_factory.hpp:77] Creating layer inception_4b/5x5
I0403 15:19:25.040773 14528 net.cpp:91] Creating Layer inception_4b/5x5
I0403 15:19:25.040789 14528 net.cpp:425] inception_4b/5x5 <- inception_4b/5x5_reduce
I0403 15:19:25.040809 14528 net.cpp:399] inception_4b/5x5 -> inception_4b/5x5
I0403 15:19:25.042007 14528 net.cpp:141] Setting up inception_4b/5x5
I0403 15:19:25.042034 14528 net.cpp:148] Top shape: 24 64 14 14 (301056)
I0403 15:19:25.042049 14528 net.cpp:156] Memory required for data: 966976800
I0403 15:19:25.042067 14528 layer_factory.hpp:77] Creating layer inception_4b/relu_5x5
I0403 15:19:25.042085 14528 net.cpp:91] Creating Layer inception_4b/relu_5x5
I0403 15:19:25.042101 14528 net.cpp:425] inception_4b/relu_5x5 <- inception_4b/5x5
I0403 15:19:25.042119 14528 net.cpp:386] inception_4b/relu_5x5 -> inception_4b/5x5 (in-place)
I0403 15:19:25.042397 14528 net.cpp:141] Setting up inception_4b/relu_5x5
I0403 15:19:25.042421 14528 net.cpp:148] Top shape: 24 64 14 14 (301056)
I0403 15:19:25.042438 14528 net.cpp:156] Memory required for data: 968181024
I0403 15:19:25.042451 14528 layer_factory.hpp:77] Creating layer inception_4b/pool
I0403 15:19:25.042469 14528 net.cpp:91] Creating Layer inception_4b/pool
I0403 15:19:25.042484 14528 net.cpp:425] inception_4b/pool <- inception_4a/output_inception_4a/output_0_split_4
I0403 15:19:25.042503 14528 net.cpp:399] inception_4b/pool -> inception_4b/pool
I0403 15:19:25.042570 14528 net.cpp:141] Setting up inception_4b/pool
I0403 15:19:25.042594 14528 net.cpp:148] Top shape: 24 512 14 14 (2408448)
I0403 15:19:25.042609 14528 net.cpp:156] Memory required for data: 977814816
I0403 15:19:25.042623 14528 layer_factory.hpp:77] Creating layer inception_4b/pool_proj
I0403 15:19:25.042644 14528 net.cpp:91] Creating Layer inception_4b/pool_proj
I0403 15:19:25.042660 14528 net.cpp:425] inception_4b/pool_proj <- inception_4b/pool
I0403 15:19:25.042680 14528 net.cpp:399] inception_4b/pool_proj -> inception_4b/pool_proj
I0403 15:19:25.043843 14528 net.cpp:141] Setting up inception_4b/pool_proj
I0403 15:19:25.043870 14528 net.cpp:148] Top shape: 24 64 14 14 (301056)
I0403 15:19:25.043885 14528 net.cpp:156] Memory required for data: 979019040
I0403 15:19:25.043902 14528 layer_factory.hpp:77] Creating layer inception_4b/relu_pool_proj
I0403 15:19:25.043923 14528 net.cpp:91] Creating Layer inception_4b/relu_pool_proj
I0403 15:19:25.043941 14528 net.cpp:425] inception_4b/relu_pool_proj <- inception_4b/pool_proj
I0403 15:19:25.043957 14528 net.cpp:386] inception_4b/relu_pool_proj -> inception_4b/pool_proj (in-place)
I0403 15:19:25.044133 14528 net.cpp:141] Setting up inception_4b/relu_pool_proj
I0403 15:19:25.044157 14528 net.cpp:148] Top shape: 24 64 14 14 (301056)
I0403 15:19:25.044172 14528 net.cpp:156] Memory required for data: 980223264
I0403 15:19:25.044185 14528 layer_factory.hpp:77] Creating layer inception_4b/output
I0403 15:19:25.044203 14528 net.cpp:91] Creating Layer inception_4b/output
I0403 15:19:25.044219 14528 net.cpp:425] inception_4b/output <- inception_4b/1x1
I0403 15:19:25.044235 14528 net.cpp:425] inception_4b/output <- inception_4b/3x3
I0403 15:19:25.044250 14528 net.cpp:425] inception_4b/output <- inception_4b/5x5
I0403 15:19:25.044266 14528 net.cpp:425] inception_4b/output <- inception_4b/pool_proj
I0403 15:19:25.044282 14528 net.cpp:399] inception_4b/output -> inception_4b/output
I0403 15:19:25.044329 14528 net.cpp:141] Setting up inception_4b/output
I0403 15:19:25.044351 14528 net.cpp:148] Top shape: 24 512 14 14 (2408448)
I0403 15:19:25.044365 14528 net.cpp:156] Memory required for data: 989857056
I0403 15:19:25.044394 14528 layer_factory.hpp:77] Creating layer inception_4b/output_inception_4b/output_0_split
I0403 15:19:25.044410 14528 net.cpp:91] Creating Layer inception_4b/output_inception_4b/output_0_split
I0403 15:19:25.044425 14528 net.cpp:425] inception_4b/output_inception_4b/output_0_split <- inception_4b/output
I0403 15:19:25.044446 14528 net.cpp:399] inception_4b/output_inception_4b/output_0_split -> inception_4b/output_inception_4b/output_0_split_0
I0403 15:19:25.044467 14528 net.cpp:399] inception_4b/output_inception_4b/output_0_split -> inception_4b/output_inception_4b/output_0_split_1
I0403 15:19:25.044487 14528 net.cpp:399] inception_4b/output_inception_4b/output_0_split -> inception_4b/output_inception_4b/output_0_split_2
I0403 15:19:25.044517 14528 net.cpp:399] inception_4b/output_inception_4b/output_0_split -> inception_4b/output_inception_4b/output_0_split_3
I0403 15:19:25.044605 14528 net.cpp:141] Setting up inception_4b/output_inception_4b/output_0_split
I0403 15:19:25.044628 14528 net.cpp:148] Top shape: 24 512 14 14 (2408448)
I0403 15:19:25.044644 14528 net.cpp:148] Top shape: 24 512 14 14 (2408448)
I0403 15:19:25.044659 14528 net.cpp:148] Top shape: 24 512 14 14 (2408448)
I0403 15:19:25.044673 14528 net.cpp:148] Top shape: 24 512 14 14 (2408448)
I0403 15:19:25.044687 14528 net.cpp:156] Memory required for data: 1028392224
I0403 15:19:25.044702 14528 layer_factory.hpp:77] Creating layer inception_4c/1x1
I0403 15:19:25.044723 14528 net.cpp:91] Creating Layer inception_4c/1x1
I0403 15:19:25.044739 14528 net.cpp:425] inception_4c/1x1 <- inception_4b/output_inception_4b/output_0_split_0
I0403 15:19:25.044759 14528 net.cpp:399] inception_4c/1x1 -> inception_4c/1x1
I0403 15:19:25.046205 14528 net.cpp:141] Setting up inception_4c/1x1
I0403 15:19:25.046233 14528 net.cpp:148] Top shape: 24 128 14 14 (602112)
I0403 15:19:25.046249 14528 net.cpp:156] Memory required for data: 1030800672
I0403 15:19:25.046268 14528 layer_factory.hpp:77] Creating layer inception_4c/relu_1x1
I0403 15:19:25.046289 14528 net.cpp:91] Creating Layer inception_4c/relu_1x1
I0403 15:19:25.046306 14528 net.cpp:425] inception_4c/relu_1x1 <- inception_4c/1x1
I0403 15:19:25.046324 14528 net.cpp:386] inception_4c/relu_1x1 -> inception_4c/1x1 (in-place)
I0403 15:19:25.046509 14528 net.cpp:141] Setting up inception_4c/relu_1x1
I0403 15:19:25.046535 14528 net.cpp:148] Top shape: 24 128 14 14 (602112)
I0403 15:19:25.046548 14528 net.cpp:156] Memory required for data: 1033209120
I0403 15:19:25.046563 14528 layer_factory.hpp:77] Creating layer inception_4c/3x3_reduce
I0403 15:19:25.046584 14528 net.cpp:91] Creating Layer inception_4c/3x3_reduce
I0403 15:19:25.046602 14528 net.cpp:425] inception_4c/3x3_reduce <- inception_4b/output_inception_4b/output_0_split_1
I0403 15:19:25.046623 14528 net.cpp:399] inception_4c/3x3_reduce -> inception_4c/3x3_reduce
I0403 15:19:25.048574 14528 net.cpp:141] Setting up inception_4c/3x3_reduce
I0403 15:19:25.048602 14528 net.cpp:148] Top shape: 24 128 14 14 (602112)
I0403 15:19:25.048617 14528 net.cpp:156] Memory required for data: 1035617568
I0403 15:19:25.048635 14528 layer_factory.hpp:77] Creating layer inception_4c/relu_3x3_reduce
I0403 15:19:25.048653 14528 net.cpp:91] Creating Layer inception_4c/relu_3x3_reduce
I0403 15:19:25.048669 14528 net.cpp:425] inception_4c/relu_3x3_reduce <- inception_4c/3x3_reduce
I0403 15:19:25.048688 14528 net.cpp:386] inception_4c/relu_3x3_reduce -> inception_4c/3x3_reduce (in-place)
I0403 15:19:25.048975 14528 net.cpp:141] Setting up inception_4c/relu_3x3_reduce
I0403 15:19:25.049001 14528 net.cpp:148] Top shape: 24 128 14 14 (602112)
I0403 15:19:25.049016 14528 net.cpp:156] Memory required for data: 1038026016
I0403 15:19:25.049031 14528 layer_factory.hpp:77] Creating layer inception_4c/3x3
I0403 15:19:25.049054 14528 net.cpp:91] Creating Layer inception_4c/3x3
I0403 15:19:25.049072 14528 net.cpp:425] inception_4c/3x3 <- inception_4c/3x3_reduce
I0403 15:19:25.049093 14528 net.cpp:399] inception_4c/3x3 -> inception_4c/3x3
I0403 15:19:25.052706 14528 net.cpp:141] Setting up inception_4c/3x3
I0403 15:19:25.052747 14528 net.cpp:148] Top shape: 24 256 14 14 (1204224)
I0403 15:19:25.052763 14528 net.cpp:156] Memory required for data: 1042842912
I0403 15:19:25.052796 14528 layer_factory.hpp:77] Creating layer inception_4c/relu_3x3
I0403 15:19:25.052819 14528 net.cpp:91] Creating Layer inception_4c/relu_3x3
I0403 15:19:25.052835 14528 net.cpp:425] inception_4c/relu_3x3 <- inception_4c/3x3
I0403 15:19:25.052853 14528 net.cpp:386] inception_4c/relu_3x3 -> inception_4c/3x3 (in-place)
I0403 15:19:25.053035 14528 net.cpp:141] Setting up inception_4c/relu_3x3
I0403 15:19:25.053061 14528 net.cpp:148] Top shape: 24 256 14 14 (1204224)
I0403 15:19:25.053074 14528 net.cpp:156] Memory required for data: 1047659808
I0403 15:19:25.053089 14528 layer_factory.hpp:77] Creating layer inception_4c/5x5_reduce
I0403 15:19:25.053112 14528 net.cpp:91] Creating Layer inception_4c/5x5_reduce
I0403 15:19:25.053129 14528 net.cpp:425] inception_4c/5x5_reduce <- inception_4b/output_inception_4b/output_0_split_2
I0403 15:19:25.053151 14528 net.cpp:399] inception_4c/5x5_reduce -> inception_4c/5x5_reduce
I0403 15:19:25.054252 14528 net.cpp:141] Setting up inception_4c/5x5_reduce
I0403 15:19:25.054280 14528 net.cpp:148] Top shape: 24 24 14 14 (112896)
I0403 15:19:25.054296 14528 net.cpp:156] Memory required for data: 1048111392
I0403 15:19:25.054314 14528 layer_factory.hpp:77] Creating layer inception_4c/relu_5x5_reduce
I0403 15:19:25.054334 14528 net.cpp:91] Creating Layer inception_4c/relu_5x5_reduce
I0403 15:19:25.054352 14528 net.cpp:425] inception_4c/relu_5x5_reduce <- inception_4c/5x5_reduce
I0403 15:19:25.054368 14528 net.cpp:386] inception_4c/relu_5x5_reduce -> inception_4c/5x5_reduce (in-place)
I0403 15:19:25.054568 14528 net.cpp:141] Setting up inception_4c/relu_5x5_reduce
I0403 15:19:25.054592 14528 net.cpp:148] Top shape: 24 24 14 14 (112896)
I0403 15:19:25.054610 14528 net.cpp:156] Memory required for data: 1048562976
I0403 15:19:25.054625 14528 layer_factory.hpp:77] Creating layer inception_4c/5x5
I0403 15:19:25.054644 14528 net.cpp:91] Creating Layer inception_4c/5x5
I0403 15:19:25.054662 14528 net.cpp:425] inception_4c/5x5 <- inception_4c/5x5_reduce
I0403 15:19:25.054682 14528 net.cpp:399] inception_4c/5x5 -> inception_4c/5x5
I0403 15:19:25.055930 14528 net.cpp:141] Setting up inception_4c/5x5
I0403 15:19:25.055958 14528 net.cpp:148] Top shape: 24 64 14 14 (301056)
I0403 15:19:25.055974 14528 net.cpp:156] Memory required for data: 1049767200
I0403 15:19:25.055992 14528 layer_factory.hpp:77] Creating layer inception_4c/relu_5x5
I0403 15:19:25.056012 14528 net.cpp:91] Creating Layer inception_4c/relu_5x5
I0403 15:19:25.056030 14528 net.cpp:425] inception_4c/relu_5x5 <- inception_4c/5x5
I0403 15:19:25.056047 14528 net.cpp:386] inception_4c/relu_5x5 -> inception_4c/5x5 (in-place)
I0403 15:19:25.056334 14528 net.cpp:141] Setting up inception_4c/relu_5x5
I0403 15:19:25.056360 14528 net.cpp:148] Top shape: 24 64 14 14 (301056)
I0403 15:19:25.056375 14528 net.cpp:156] Memory required for data: 1050971424
I0403 15:19:25.056391 14528 layer_factory.hpp:77] Creating layer inception_4c/pool
I0403 15:19:25.056409 14528 net.cpp:91] Creating Layer inception_4c/pool
I0403 15:19:25.056427 14528 net.cpp:425] inception_4c/pool <- inception_4b/output_inception_4b/output_0_split_3
I0403 15:19:25.056443 14528 net.cpp:399] inception_4c/pool -> inception_4c/pool
I0403 15:19:25.056516 14528 net.cpp:141] Setting up inception_4c/pool
I0403 15:19:25.056540 14528 net.cpp:148] Top shape: 24 512 14 14 (2408448)
I0403 15:19:25.056555 14528 net.cpp:156] Memory required for data: 1060605216
I0403 15:19:25.056570 14528 layer_factory.hpp:77] Creating layer inception_4c/pool_proj
I0403 15:19:25.056591 14528 net.cpp:91] Creating Layer inception_4c/pool_proj
I0403 15:19:25.056608 14528 net.cpp:425] inception_4c/pool_proj <- inception_4c/pool
I0403 15:19:25.056629 14528 net.cpp:399] inception_4c/pool_proj -> inception_4c/pool_proj
I0403 15:19:25.057860 14528 net.cpp:141] Setting up inception_4c/pool_proj
I0403 15:19:25.057888 14528 net.cpp:148] Top shape: 24 64 14 14 (301056)
I0403 15:19:25.057919 14528 net.cpp:156] Memory required for data: 1061809440
I0403 15:19:25.057937 14528 layer_factory.hpp:77] Creating layer inception_4c/relu_pool_proj
I0403 15:19:25.057957 14528 net.cpp:91] Creating Layer inception_4c/relu_pool_proj
I0403 15:19:25.057974 14528 net.cpp:425] inception_4c/relu_pool_proj <- inception_4c/pool_proj
I0403 15:19:25.057991 14528 net.cpp:386] inception_4c/relu_pool_proj -> inception_4c/pool_proj (in-place)
I0403 15:19:25.058176 14528 net.cpp:141] Setting up inception_4c/relu_pool_proj
I0403 15:19:25.058200 14528 net.cpp:148] Top shape: 24 64 14 14 (301056)
I0403 15:19:25.058214 14528 net.cpp:156] Memory required for data: 1063013664
I0403 15:19:25.058228 14528 layer_factory.hpp:77] Creating layer inception_4c/output
I0403 15:19:25.058246 14528 net.cpp:91] Creating Layer inception_4c/output
I0403 15:19:25.058262 14528 net.cpp:425] inception_4c/output <- inception_4c/1x1
I0403 15:19:25.058279 14528 net.cpp:425] inception_4c/output <- inception_4c/3x3
I0403 15:19:25.058295 14528 net.cpp:425] inception_4c/output <- inception_4c/5x5
I0403 15:19:25.058311 14528 net.cpp:425] inception_4c/output <- inception_4c/pool_proj
I0403 15:19:25.058327 14528 net.cpp:399] inception_4c/output -> inception_4c/output
I0403 15:19:25.058375 14528 net.cpp:141] Setting up inception_4c/output
I0403 15:19:25.058398 14528 net.cpp:148] Top shape: 24 512 14 14 (2408448)
I0403 15:19:25.058413 14528 net.cpp:156] Memory required for data: 1072647456
I0403 15:19:25.058426 14528 layer_factory.hpp:77] Creating layer inception_4c/output_inception_4c/output_0_split
I0403 15:19:25.058442 14528 net.cpp:91] Creating Layer inception_4c/output_inception_4c/output_0_split
I0403 15:19:25.058457 14528 net.cpp:425] inception_4c/output_inception_4c/output_0_split <- inception_4c/output
I0403 15:19:25.058476 14528 net.cpp:399] inception_4c/output_inception_4c/output_0_split -> inception_4c/output_inception_4c/output_0_split_0
I0403 15:19:25.058497 14528 net.cpp:399] inception_4c/output_inception_4c/output_0_split -> inception_4c/output_inception_4c/output_0_split_1
I0403 15:19:25.058524 14528 net.cpp:399] inception_4c/output_inception_4c/output_0_split -> inception_4c/output_inception_4c/output_0_split_2
I0403 15:19:25.058547 14528 net.cpp:399] inception_4c/output_inception_4c/output_0_split -> inception_4c/output_inception_4c/output_0_split_3
I0403 15:19:25.058635 14528 net.cpp:141] Setting up inception_4c/output_inception_4c/output_0_split
I0403 15:19:25.058661 14528 net.cpp:148] Top shape: 24 512 14 14 (2408448)
I0403 15:19:25.058678 14528 net.cpp:148] Top shape: 24 512 14 14 (2408448)
I0403 15:19:25.058693 14528 net.cpp:148] Top shape: 24 512 14 14 (2408448)
I0403 15:19:25.058708 14528 net.cpp:148] Top shape: 24 512 14 14 (2408448)
I0403 15:19:25.058722 14528 net.cpp:156] Memory required for data: 1111182624
I0403 15:19:25.058737 14528 layer_factory.hpp:77] Creating layer inception_4d/1x1
I0403 15:19:25.058758 14528 net.cpp:91] Creating Layer inception_4d/1x1
I0403 15:19:25.058774 14528 net.cpp:425] inception_4d/1x1 <- inception_4c/output_inception_4c/output_0_split_0
I0403 15:19:25.058795 14528 net.cpp:399] inception_4d/1x1 -> inception_4d/1x1
I0403 15:19:25.060181 14528 net.cpp:141] Setting up inception_4d/1x1
I0403 15:19:25.060211 14528 net.cpp:148] Top shape: 24 112 14 14 (526848)
I0403 15:19:25.060227 14528 net.cpp:156] Memory required for data: 1113290016
I0403 15:19:25.060245 14528 layer_factory.hpp:77] Creating layer inception_4d/relu_1x1
I0403 15:19:25.060263 14528 net.cpp:91] Creating Layer inception_4d/relu_1x1
I0403 15:19:25.060279 14528 net.cpp:425] inception_4d/relu_1x1 <- inception_4d/1x1
I0403 15:19:25.060302 14528 net.cpp:386] inception_4d/relu_1x1 -> inception_4d/1x1 (in-place)
I0403 15:19:25.060488 14528 net.cpp:141] Setting up inception_4d/relu_1x1
I0403 15:19:25.060519 14528 net.cpp:148] Top shape: 24 112 14 14 (526848)
I0403 15:19:25.060535 14528 net.cpp:156] Memory required for data: 1115397408
I0403 15:19:25.060549 14528 layer_factory.hpp:77] Creating layer inception_4d/3x3_reduce
I0403 15:19:25.060585 14528 net.cpp:91] Creating Layer inception_4d/3x3_reduce
I0403 15:19:25.060603 14528 net.cpp:425] inception_4d/3x3_reduce <- inception_4c/output_inception_4c/output_0_split_1
I0403 15:19:25.060624 14528 net.cpp:399] inception_4d/3x3_reduce -> inception_4d/3x3_reduce
I0403 15:19:25.062141 14528 net.cpp:141] Setting up inception_4d/3x3_reduce
I0403 15:19:25.062170 14528 net.cpp:148] Top shape: 24 144 14 14 (677376)
I0403 15:19:25.062187 14528 net.cpp:156] Memory required for data: 1118106912
I0403 15:19:25.062204 14528 layer_factory.hpp:77] Creating layer inception_4d/relu_3x3_reduce
I0403 15:19:25.062223 14528 net.cpp:91] Creating Layer inception_4d/relu_3x3_reduce
I0403 15:19:25.062238 14528 net.cpp:425] inception_4d/relu_3x3_reduce <- inception_4d/3x3_reduce
I0403 15:19:25.062257 14528 net.cpp:386] inception_4d/relu_3x3_reduce -> inception_4d/3x3_reduce (in-place)
I0403 15:19:25.062554 14528 net.cpp:141] Setting up inception_4d/relu_3x3_reduce
I0403 15:19:25.062582 14528 net.cpp:148] Top shape: 24 144 14 14 (677376)
I0403 15:19:25.062598 14528 net.cpp:156] Memory required for data: 1120816416
I0403 15:19:25.062613 14528 layer_factory.hpp:77] Creating layer inception_4d/3x3
I0403 15:19:25.062634 14528 net.cpp:91] Creating Layer inception_4d/3x3
I0403 15:19:25.062652 14528 net.cpp:425] inception_4d/3x3 <- inception_4d/3x3_reduce
I0403 15:19:25.062671 14528 net.cpp:399] inception_4d/3x3 -> inception_4d/3x3
I0403 15:19:25.066891 14528 net.cpp:141] Setting up inception_4d/3x3
I0403 15:19:25.066920 14528 net.cpp:148] Top shape: 24 288 14 14 (1354752)
I0403 15:19:25.066934 14528 net.cpp:156] Memory required for data: 1126235424
I0403 15:19:25.066951 14528 layer_factory.hpp:77] Creating layer inception_4d/relu_3x3
I0403 15:19:25.066968 14528 net.cpp:91] Creating Layer inception_4d/relu_3x3
I0403 15:19:25.066984 14528 net.cpp:425] inception_4d/relu_3x3 <- inception_4d/3x3
I0403 15:19:25.067003 14528 net.cpp:386] inception_4d/relu_3x3 -> inception_4d/3x3 (in-place)
I0403 15:19:25.067183 14528 net.cpp:141] Setting up inception_4d/relu_3x3
I0403 15:19:25.067209 14528 net.cpp:148] Top shape: 24 288 14 14 (1354752)
I0403 15:19:25.067222 14528 net.cpp:156] Memory required for data: 1131654432
I0403 15:19:25.067236 14528 layer_factory.hpp:77] Creating layer inception_4d/5x5_reduce
I0403 15:19:25.067256 14528 net.cpp:91] Creating Layer inception_4d/5x5_reduce
I0403 15:19:25.067273 14528 net.cpp:425] inception_4d/5x5_reduce <- inception_4c/output_inception_4c/output_0_split_2
I0403 15:19:25.067296 14528 net.cpp:399] inception_4d/5x5_reduce -> inception_4d/5x5_reduce
I0403 15:19:25.068434 14528 net.cpp:141] Setting up inception_4d/5x5_reduce
I0403 15:19:25.068462 14528 net.cpp:148] Top shape: 24 32 14 14 (150528)
I0403 15:19:25.068478 14528 net.cpp:156] Memory required for data: 1132256544
I0403 15:19:25.068496 14528 layer_factory.hpp:77] Creating layer inception_4d/relu_5x5_reduce
I0403 15:19:25.068521 14528 net.cpp:91] Creating Layer inception_4d/relu_5x5_reduce
I0403 15:19:25.068536 14528 net.cpp:425] inception_4d/relu_5x5_reduce <- inception_4d/5x5_reduce
I0403 15:19:25.068555 14528 net.cpp:386] inception_4d/relu_5x5_reduce -> inception_4d/5x5_reduce (in-place)
I0403 15:19:25.068740 14528 net.cpp:141] Setting up inception_4d/relu_5x5_reduce
I0403 15:19:25.068763 14528 net.cpp:148] Top shape: 24 32 14 14 (150528)
I0403 15:19:25.068778 14528 net.cpp:156] Memory required for data: 1132858656
I0403 15:19:25.068792 14528 layer_factory.hpp:77] Creating layer inception_4d/5x5
I0403 15:19:25.068814 14528 net.cpp:91] Creating Layer inception_4d/5x5
I0403 15:19:25.068830 14528 net.cpp:425] inception_4d/5x5 <- inception_4d/5x5_reduce
I0403 15:19:25.068850 14528 net.cpp:399] inception_4d/5x5 -> inception_4d/5x5
I0403 15:19:25.070296 14528 net.cpp:141] Setting up inception_4d/5x5
I0403 15:19:25.070322 14528 net.cpp:148] Top shape: 24 64 14 14 (301056)
I0403 15:19:25.070338 14528 net.cpp:156] Memory required for data: 1134062880
I0403 15:19:25.070355 14528 layer_factory.hpp:77] Creating layer inception_4d/relu_5x5
I0403 15:19:25.070390 14528 net.cpp:91] Creating Layer inception_4d/relu_5x5
I0403 15:19:25.070407 14528 net.cpp:425] inception_4d/relu_5x5 <- inception_4d/5x5
I0403 15:19:25.070425 14528 net.cpp:386] inception_4d/relu_5x5 -> inception_4d/5x5 (in-place)
I0403 15:19:25.070726 14528 net.cpp:141] Setting up inception_4d/relu_5x5
I0403 15:19:25.070752 14528 net.cpp:148] Top shape: 24 64 14 14 (301056)
I0403 15:19:25.070766 14528 net.cpp:156] Memory required for data: 1135267104
I0403 15:19:25.070780 14528 layer_factory.hpp:77] Creating layer inception_4d/pool
I0403 15:19:25.070799 14528 net.cpp:91] Creating Layer inception_4d/pool
I0403 15:19:25.070816 14528 net.cpp:425] inception_4d/pool <- inception_4c/output_inception_4c/output_0_split_3
I0403 15:19:25.070834 14528 net.cpp:399] inception_4d/pool -> inception_4d/pool
I0403 15:19:25.070904 14528 net.cpp:141] Setting up inception_4d/pool
I0403 15:19:25.070927 14528 net.cpp:148] Top shape: 24 512 14 14 (2408448)
I0403 15:19:25.070941 14528 net.cpp:156] Memory required for data: 1144900896
I0403 15:19:25.070955 14528 layer_factory.hpp:77] Creating layer inception_4d/pool_proj
I0403 15:19:25.070976 14528 net.cpp:91] Creating Layer inception_4d/pool_proj
I0403 15:19:25.070992 14528 net.cpp:425] inception_4d/pool_proj <- inception_4d/pool
I0403 15:19:25.071012 14528 net.cpp:399] inception_4d/pool_proj -> inception_4d/pool_proj
I0403 15:19:25.072737 14528 net.cpp:141] Setting up inception_4d/pool_proj
I0403 15:19:25.072765 14528 net.cpp:148] Top shape: 24 64 14 14 (301056)
I0403 15:19:25.072780 14528 net.cpp:156] Memory required for data: 1146105120
I0403 15:19:25.072798 14528 layer_factory.hpp:77] Creating layer inception_4d/relu_pool_proj
I0403 15:19:25.072816 14528 net.cpp:91] Creating Layer inception_4d/relu_pool_proj
I0403 15:19:25.072831 14528 net.cpp:425] inception_4d/relu_pool_proj <- inception_4d/pool_proj
I0403 15:19:25.072849 14528 net.cpp:386] inception_4d/relu_pool_proj -> inception_4d/pool_proj (in-place)
I0403 15:19:25.073031 14528 net.cpp:141] Setting up inception_4d/relu_pool_proj
I0403 15:19:25.073055 14528 net.cpp:148] Top shape: 24 64 14 14 (301056)
I0403 15:19:25.073071 14528 net.cpp:156] Memory required for data: 1147309344
I0403 15:19:25.073083 14528 layer_factory.hpp:77] Creating layer inception_4d/output
I0403 15:19:25.073101 14528 net.cpp:91] Creating Layer inception_4d/output
I0403 15:19:25.073117 14528 net.cpp:425] inception_4d/output <- inception_4d/1x1
I0403 15:19:25.073132 14528 net.cpp:425] inception_4d/output <- inception_4d/3x3
I0403 15:19:25.073148 14528 net.cpp:425] inception_4d/output <- inception_4d/5x5
I0403 15:19:25.073163 14528 net.cpp:425] inception_4d/output <- inception_4d/pool_proj
I0403 15:19:25.073180 14528 net.cpp:399] inception_4d/output -> inception_4d/output
I0403 15:19:25.073225 14528 net.cpp:141] Setting up inception_4d/output
I0403 15:19:25.073251 14528 net.cpp:148] Top shape: 24 528 14 14 (2483712)
I0403 15:19:25.073266 14528 net.cpp:156] Memory required for data: 1157244192
I0403 15:19:25.073278 14528 layer_factory.hpp:77] Creating layer inception_4d/output_inception_4d/output_0_split
I0403 15:19:25.073295 14528 net.cpp:91] Creating Layer inception_4d/output_inception_4d/output_0_split
I0403 15:19:25.073310 14528 net.cpp:425] inception_4d/output_inception_4d/output_0_split <- inception_4d/output
I0403 15:19:25.073329 14528 net.cpp:399] inception_4d/output_inception_4d/output_0_split -> inception_4d/output_inception_4d/output_0_split_0
I0403 15:19:25.073349 14528 net.cpp:399] inception_4d/output_inception_4d/output_0_split -> inception_4d/output_inception_4d/output_0_split_1
I0403 15:19:25.073369 14528 net.cpp:399] inception_4d/output_inception_4d/output_0_split -> inception_4d/output_inception_4d/output_0_split_2
I0403 15:19:25.073388 14528 net.cpp:399] inception_4d/output_inception_4d/output_0_split -> inception_4d/output_inception_4d/output_0_split_3
I0403 15:19:25.073406 14528 net.cpp:399] inception_4d/output_inception_4d/output_0_split -> inception_4d/output_inception_4d/output_0_split_4
I0403 15:19:25.073515 14528 net.cpp:141] Setting up inception_4d/output_inception_4d/output_0_split
I0403 15:19:25.073551 14528 net.cpp:148] Top shape: 24 528 14 14 (2483712)
I0403 15:19:25.073570 14528 net.cpp:148] Top shape: 24 528 14 14 (2483712)
I0403 15:19:25.073586 14528 net.cpp:148] Top shape: 24 528 14 14 (2483712)
I0403 15:19:25.073601 14528 net.cpp:148] Top shape: 24 528 14 14 (2483712)
I0403 15:19:25.073616 14528 net.cpp:148] Top shape: 24 528 14 14 (2483712)
I0403 15:19:25.073628 14528 net.cpp:156] Memory required for data: 1206918432
I0403 15:19:25.073642 14528 layer_factory.hpp:77] Creating layer loss2/ave_pool
I0403 15:19:25.073658 14528 net.cpp:91] Creating Layer loss2/ave_pool
I0403 15:19:25.073673 14528 net.cpp:425] loss2/ave_pool <- inception_4d/output_inception_4d/output_0_split_0
I0403 15:19:25.073693 14528 net.cpp:399] loss2/ave_pool -> loss2/ave_pool
I0403 15:19:25.074002 14528 net.cpp:141] Setting up loss2/ave_pool
I0403 15:19:25.074028 14528 net.cpp:148] Top shape: 24 528 4 4 (202752)
I0403 15:19:25.074043 14528 net.cpp:156] Memory required for data: 1207729440
I0403 15:19:25.074057 14528 layer_factory.hpp:77] Creating layer loss2/conv
I0403 15:19:25.074079 14528 net.cpp:91] Creating Layer loss2/conv
I0403 15:19:25.074095 14528 net.cpp:425] loss2/conv <- loss2/ave_pool
I0403 15:19:25.074115 14528 net.cpp:399] loss2/conv -> loss2/conv
I0403 15:19:25.075978 14528 net.cpp:141] Setting up loss2/conv
I0403 15:19:25.076006 14528 net.cpp:148] Top shape: 24 128 4 4 (49152)
I0403 15:19:25.076022 14528 net.cpp:156] Memory required for data: 1207926048
I0403 15:19:25.076040 14528 layer_factory.hpp:77] Creating layer loss2/relu_conv
I0403 15:19:25.076061 14528 net.cpp:91] Creating Layer loss2/relu_conv
I0403 15:19:25.076076 14528 net.cpp:425] loss2/relu_conv <- loss2/conv
I0403 15:19:25.076093 14528 net.cpp:386] loss2/relu_conv -> loss2/conv (in-place)
I0403 15:19:25.076373 14528 net.cpp:141] Setting up loss2/relu_conv
I0403 15:19:25.076400 14528 net.cpp:148] Top shape: 24 128 4 4 (49152)
I0403 15:19:25.076414 14528 net.cpp:156] Memory required for data: 1208122656
I0403 15:19:25.076428 14528 layer_factory.hpp:77] Creating layer loss2/fc
I0403 15:19:25.076447 14528 net.cpp:91] Creating Layer loss2/fc
I0403 15:19:25.076464 14528 net.cpp:425] loss2/fc <- loss2/conv
I0403 15:19:25.076481 14528 net.cpp:399] loss2/fc -> loss2/fc
I0403 15:19:25.093709 14528 net.cpp:141] Setting up loss2/fc
I0403 15:19:25.093740 14528 net.cpp:148] Top shape: 24 1024 (24576)
I0403 15:19:25.093755 14528 net.cpp:156] Memory required for data: 1208220960
I0403 15:19:25.093773 14528 layer_factory.hpp:77] Creating layer loss2/relu_fc
I0403 15:19:25.093791 14528 net.cpp:91] Creating Layer loss2/relu_fc
I0403 15:19:25.093806 14528 net.cpp:425] loss2/relu_fc <- loss2/fc
I0403 15:19:25.093825 14528 net.cpp:386] loss2/relu_fc -> loss2/fc (in-place)
I0403 15:19:25.094164 14528 net.cpp:141] Setting up loss2/relu_fc
I0403 15:19:25.094190 14528 net.cpp:148] Top shape: 24 1024 (24576)
I0403 15:19:25.094204 14528 net.cpp:156] Memory required for data: 1208319264
I0403 15:19:25.094219 14528 layer_factory.hpp:77] Creating layer loss2/drop_fc
I0403 15:19:25.094236 14528 net.cpp:91] Creating Layer loss2/drop_fc
I0403 15:19:25.094251 14528 net.cpp:425] loss2/drop_fc <- loss2/fc
I0403 15:19:25.094271 14528 net.cpp:386] loss2/drop_fc -> loss2/fc (in-place)
I0403 15:19:25.094318 14528 net.cpp:141] Setting up loss2/drop_fc
I0403 15:19:25.094343 14528 net.cpp:148] Top shape: 24 1024 (24576)
I0403 15:19:25.094359 14528 net.cpp:156] Memory required for data: 1208417568
I0403 15:19:25.094373 14528 layer_factory.hpp:77] Creating layer loss2/classifier_plantvillage
I0403 15:19:25.094390 14528 net.cpp:91] Creating Layer loss2/classifier_plantvillage
I0403 15:19:25.094405 14528 net.cpp:425] loss2/classifier_plantvillage <- loss2/fc
I0403 15:19:25.094426 14528 net.cpp:399] loss2/classifier_plantvillage -> loss2/classifier_plantvillage
I0403 15:19:25.094826 14528 net.cpp:141] Setting up loss2/classifier_plantvillage
I0403 15:19:25.094853 14528 net.cpp:148] Top shape: 24 38 (912)
I0403 15:19:25.094868 14528 net.cpp:156] Memory required for data: 1208421216
I0403 15:19:25.094902 14528 layer_factory.hpp:77] Creating layer loss2/classifier_plantvillage_loss2/classifier_plantvillage_0_split
I0403 15:19:25.094920 14528 net.cpp:91] Creating Layer loss2/classifier_plantvillage_loss2/classifier_plantvillage_0_split
I0403 15:19:25.094935 14528 net.cpp:425] loss2/classifier_plantvillage_loss2/classifier_plantvillage_0_split <- loss2/classifier_plantvillage
I0403 15:19:25.094954 14528 net.cpp:399] loss2/classifier_plantvillage_loss2/classifier_plantvillage_0_split -> loss2/classifier_plantvillage_loss2/classifier_plantvillage_0_split_0
I0403 15:19:25.094974 14528 net.cpp:399] loss2/classifier_plantvillage_loss2/classifier_plantvillage_0_split -> loss2/classifier_plantvillage_loss2/classifier_plantvillage_0_split_1
I0403 15:19:25.094993 14528 net.cpp:399] loss2/classifier_plantvillage_loss2/classifier_plantvillage_0_split -> loss2/classifier_plantvillage_loss2/classifier_plantvillage_0_split_2
I0403 15:19:25.095069 14528 net.cpp:141] Setting up loss2/classifier_plantvillage_loss2/classifier_plantvillage_0_split
I0403 15:19:25.095091 14528 net.cpp:148] Top shape: 24 38 (912)
I0403 15:19:25.095106 14528 net.cpp:148] Top shape: 24 38 (912)
I0403 15:19:25.095120 14528 net.cpp:148] Top shape: 24 38 (912)
I0403 15:19:25.095134 14528 net.cpp:156] Memory required for data: 1208432160
I0403 15:19:25.095147 14528 layer_factory.hpp:77] Creating layer inception_4e/1x1
I0403 15:19:25.095166 14528 net.cpp:91] Creating Layer inception_4e/1x1
I0403 15:19:25.095182 14528 net.cpp:425] inception_4e/1x1 <- inception_4d/output_inception_4d/output_0_split_1
I0403 15:19:25.095202 14528 net.cpp:399] inception_4e/1x1 -> inception_4e/1x1
I0403 15:19:25.096988 14528 net.cpp:141] Setting up inception_4e/1x1
I0403 15:19:25.097015 14528 net.cpp:148] Top shape: 24 256 14 14 (1204224)
I0403 15:19:25.097030 14528 net.cpp:156] Memory required for data: 1213249056
I0403 15:19:25.097048 14528 layer_factory.hpp:77] Creating layer inception_4e/relu_1x1
I0403 15:19:25.097067 14528 net.cpp:91] Creating Layer inception_4e/relu_1x1
I0403 15:19:25.097084 14528 net.cpp:425] inception_4e/relu_1x1 <- inception_4e/1x1
I0403 15:19:25.097100 14528 net.cpp:386] inception_4e/relu_1x1 -> inception_4e/1x1 (in-place)
I0403 15:19:25.097399 14528 net.cpp:141] Setting up inception_4e/relu_1x1
I0403 15:19:25.097425 14528 net.cpp:148] Top shape: 24 256 14 14 (1204224)
I0403 15:19:25.097440 14528 net.cpp:156] Memory required for data: 1218065952
I0403 15:19:25.097455 14528 layer_factory.hpp:77] Creating layer inception_4e/3x3_reduce
I0403 15:19:25.097477 14528 net.cpp:91] Creating Layer inception_4e/3x3_reduce
I0403 15:19:25.097494 14528 net.cpp:425] inception_4e/3x3_reduce <- inception_4d/output_inception_4d/output_0_split_2
I0403 15:19:25.097517 14528 net.cpp:399] inception_4e/3x3_reduce -> inception_4e/3x3_reduce
I0403 15:19:25.099645 14528 net.cpp:141] Setting up inception_4e/3x3_reduce
I0403 15:19:25.099674 14528 net.cpp:148] Top shape: 24 160 14 14 (752640)
I0403 15:19:25.099691 14528 net.cpp:156] Memory required for data: 1221076512
I0403 15:19:25.099709 14528 layer_factory.hpp:77] Creating layer inception_4e/relu_3x3_reduce
I0403 15:19:25.099730 14528 net.cpp:91] Creating Layer inception_4e/relu_3x3_reduce
I0403 15:19:25.099746 14528 net.cpp:425] inception_4e/relu_3x3_reduce <- inception_4e/3x3_reduce
I0403 15:19:25.099763 14528 net.cpp:386] inception_4e/relu_3x3_reduce -> inception_4e/3x3_reduce (in-place)
I0403 15:19:25.099956 14528 net.cpp:141] Setting up inception_4e/relu_3x3_reduce
I0403 15:19:25.099980 14528 net.cpp:148] Top shape: 24 160 14 14 (752640)
I0403 15:19:25.099995 14528 net.cpp:156] Memory required for data: 1224087072
I0403 15:19:25.100009 14528 layer_factory.hpp:77] Creating layer inception_4e/3x3
I0403 15:19:25.100033 14528 net.cpp:91] Creating Layer inception_4e/3x3
I0403 15:19:25.100050 14528 net.cpp:425] inception_4e/3x3 <- inception_4e/3x3_reduce
I0403 15:19:25.100069 14528 net.cpp:399] inception_4e/3x3 -> inception_4e/3x3
I0403 15:19:25.105094 14528 net.cpp:141] Setting up inception_4e/3x3
I0403 15:19:25.105137 14528 net.cpp:148] Top shape: 24 320 14 14 (1505280)
I0403 15:19:25.105155 14528 net.cpp:156] Memory required for data: 1230108192
I0403 15:19:25.105173 14528 layer_factory.hpp:77] Creating layer inception_4e/relu_3x3
I0403 15:19:25.105192 14528 net.cpp:91] Creating Layer inception_4e/relu_3x3
I0403 15:19:25.105211 14528 net.cpp:425] inception_4e/relu_3x3 <- inception_4e/3x3
I0403 15:19:25.105231 14528 net.cpp:386] inception_4e/relu_3x3 -> inception_4e/3x3 (in-place)
I0403 15:19:25.105536 14528 net.cpp:141] Setting up inception_4e/relu_3x3
I0403 15:19:25.105566 14528 net.cpp:148] Top shape: 24 320 14 14 (1505280)
I0403 15:19:25.105581 14528 net.cpp:156] Memory required for data: 1236129312
I0403 15:19:25.105597 14528 layer_factory.hpp:77] Creating layer inception_4e/5x5_reduce
I0403 15:19:25.105618 14528 net.cpp:91] Creating Layer inception_4e/5x5_reduce
I0403 15:19:25.105636 14528 net.cpp:425] inception_4e/5x5_reduce <- inception_4d/output_inception_4d/output_0_split_3
I0403 15:19:25.105655 14528 net.cpp:399] inception_4e/5x5_reduce -> inception_4e/5x5_reduce
I0403 15:19:25.106745 14528 net.cpp:141] Setting up inception_4e/5x5_reduce
I0403 15:19:25.106772 14528 net.cpp:148] Top shape: 24 32 14 14 (150528)
I0403 15:19:25.106788 14528 net.cpp:156] Memory required for data: 1236731424
I0403 15:19:25.106806 14528 layer_factory.hpp:77] Creating layer inception_4e/relu_5x5_reduce
I0403 15:19:25.106827 14528 net.cpp:91] Creating Layer inception_4e/relu_5x5_reduce
I0403 15:19:25.106842 14528 net.cpp:425] inception_4e/relu_5x5_reduce <- inception_4e/5x5_reduce
I0403 15:19:25.106859 14528 net.cpp:386] inception_4e/relu_5x5_reduce -> inception_4e/5x5_reduce (in-place)
I0403 15:19:25.107161 14528 net.cpp:141] Setting up inception_4e/relu_5x5_reduce
I0403 15:19:25.107187 14528 net.cpp:148] Top shape: 24 32 14 14 (150528)
I0403 15:19:25.107203 14528 net.cpp:156] Memory required for data: 1237333536
I0403 15:19:25.107218 14528 layer_factory.hpp:77] Creating layer inception_4e/5x5
I0403 15:19:25.107254 14528 net.cpp:91] Creating Layer inception_4e/5x5
I0403 15:19:25.107272 14528 net.cpp:425] inception_4e/5x5 <- inception_4e/5x5_reduce
I0403 15:19:25.107293 14528 net.cpp:399] inception_4e/5x5 -> inception_4e/5x5
I0403 15:19:25.109148 14528 net.cpp:141] Setting up inception_4e/5x5
I0403 15:19:25.109177 14528 net.cpp:148] Top shape: 24 128 14 14 (602112)
I0403 15:19:25.109192 14528 net.cpp:156] Memory required for data: 1239741984
I0403 15:19:25.109211 14528 layer_factory.hpp:77] Creating layer inception_4e/relu_5x5
I0403 15:19:25.109230 14528 net.cpp:91] Creating Layer inception_4e/relu_5x5
I0403 15:19:25.109244 14528 net.cpp:425] inception_4e/relu_5x5 <- inception_4e/5x5
I0403 15:19:25.109266 14528 net.cpp:386] inception_4e/relu_5x5 -> inception_4e/5x5 (in-place)
I0403 15:19:25.109464 14528 net.cpp:141] Setting up inception_4e/relu_5x5
I0403 15:19:25.109488 14528 net.cpp:148] Top shape: 24 128 14 14 (602112)
I0403 15:19:25.109503 14528 net.cpp:156] Memory required for data: 1242150432
I0403 15:19:25.109522 14528 layer_factory.hpp:77] Creating layer inception_4e/pool
I0403 15:19:25.109542 14528 net.cpp:91] Creating Layer inception_4e/pool
I0403 15:19:25.109560 14528 net.cpp:425] inception_4e/pool <- inception_4d/output_inception_4d/output_0_split_4
I0403 15:19:25.109576 14528 net.cpp:399] inception_4e/pool -> inception_4e/pool
I0403 15:19:25.109648 14528 net.cpp:141] Setting up inception_4e/pool
I0403 15:19:25.109671 14528 net.cpp:148] Top shape: 24 528 14 14 (2483712)
I0403 15:19:25.109685 14528 net.cpp:156] Memory required for data: 1252085280
I0403 15:19:25.109699 14528 layer_factory.hpp:77] Creating layer inception_4e/pool_proj
I0403 15:19:25.109721 14528 net.cpp:91] Creating Layer inception_4e/pool_proj
I0403 15:19:25.109737 14528 net.cpp:425] inception_4e/pool_proj <- inception_4e/pool
I0403 15:19:25.109757 14528 net.cpp:399] inception_4e/pool_proj -> inception_4e/pool_proj
I0403 15:19:25.111273 14528 net.cpp:141] Setting up inception_4e/pool_proj
I0403 15:19:25.111300 14528 net.cpp:148] Top shape: 24 128 14 14 (602112)
I0403 15:19:25.111330 14528 net.cpp:156] Memory required for data: 1254493728
I0403 15:19:25.111349 14528 layer_factory.hpp:77] Creating layer inception_4e/relu_pool_proj
I0403 15:19:25.111367 14528 net.cpp:91] Creating Layer inception_4e/relu_pool_proj
I0403 15:19:25.111383 14528 net.cpp:425] inception_4e/relu_pool_proj <- inception_4e/pool_proj
I0403 15:19:25.111402 14528 net.cpp:386] inception_4e/relu_pool_proj -> inception_4e/pool_proj (in-place)
I0403 15:19:25.111708 14528 net.cpp:141] Setting up inception_4e/relu_pool_proj
I0403 15:19:25.111734 14528 net.cpp:148] Top shape: 24 128 14 14 (602112)
I0403 15:19:25.111749 14528 net.cpp:156] Memory required for data: 1256902176
I0403 15:19:25.111763 14528 layer_factory.hpp:77] Creating layer inception_4e/output
I0403 15:19:25.111780 14528 net.cpp:91] Creating Layer inception_4e/output
I0403 15:19:25.111795 14528 net.cpp:425] inception_4e/output <- inception_4e/1x1
I0403 15:19:25.111810 14528 net.cpp:425] inception_4e/output <- inception_4e/3x3
I0403 15:19:25.111826 14528 net.cpp:425] inception_4e/output <- inception_4e/5x5
I0403 15:19:25.111841 14528 net.cpp:425] inception_4e/output <- inception_4e/pool_proj
I0403 15:19:25.111861 14528 net.cpp:399] inception_4e/output -> inception_4e/output
I0403 15:19:25.111912 14528 net.cpp:141] Setting up inception_4e/output
I0403 15:19:25.111937 14528 net.cpp:148] Top shape: 24 832 14 14 (3913728)
I0403 15:19:25.111951 14528 net.cpp:156] Memory required for data: 1272557088
I0403 15:19:25.111965 14528 layer_factory.hpp:77] Creating layer pool4/3x3_s2
I0403 15:19:25.111982 14528 net.cpp:91] Creating Layer pool4/3x3_s2
I0403 15:19:25.111997 14528 net.cpp:425] pool4/3x3_s2 <- inception_4e/output
I0403 15:19:25.112015 14528 net.cpp:399] pool4/3x3_s2 -> pool4/3x3_s2
I0403 15:19:25.112083 14528 net.cpp:141] Setting up pool4/3x3_s2
I0403 15:19:25.112107 14528 net.cpp:148] Top shape: 24 832 7 7 (978432)
I0403 15:19:25.112121 14528 net.cpp:156] Memory required for data: 1276470816
I0403 15:19:25.112134 14528 layer_factory.hpp:77] Creating layer pool4/3x3_s2_pool4/3x3_s2_0_split
I0403 15:19:25.112151 14528 net.cpp:91] Creating Layer pool4/3x3_s2_pool4/3x3_s2_0_split
I0403 15:19:25.112166 14528 net.cpp:425] pool4/3x3_s2_pool4/3x3_s2_0_split <- pool4/3x3_s2
I0403 15:19:25.112186 14528 net.cpp:399] pool4/3x3_s2_pool4/3x3_s2_0_split -> pool4/3x3_s2_pool4/3x3_s2_0_split_0
I0403 15:19:25.112206 14528 net.cpp:399] pool4/3x3_s2_pool4/3x3_s2_0_split -> pool4/3x3_s2_pool4/3x3_s2_0_split_1
I0403 15:19:25.112226 14528 net.cpp:399] pool4/3x3_s2_pool4/3x3_s2_0_split -> pool4/3x3_s2_pool4/3x3_s2_0_split_2
I0403 15:19:25.112248 14528 net.cpp:399] pool4/3x3_s2_pool4/3x3_s2_0_split -> pool4/3x3_s2_pool4/3x3_s2_0_split_3
I0403 15:19:25.112341 14528 net.cpp:141] Setting up pool4/3x3_s2_pool4/3x3_s2_0_split
I0403 15:19:25.112365 14528 net.cpp:148] Top shape: 24 832 7 7 (978432)
I0403 15:19:25.112380 14528 net.cpp:148] Top shape: 24 832 7 7 (978432)
I0403 15:19:25.112396 14528 net.cpp:148] Top shape: 24 832 7 7 (978432)
I0403 15:19:25.112409 14528 net.cpp:148] Top shape: 24 832 7 7 (978432)
I0403 15:19:25.112422 14528 net.cpp:156] Memory required for data: 1292125728
I0403 15:19:25.112437 14528 layer_factory.hpp:77] Creating layer inception_5a/1x1
I0403 15:19:25.112458 14528 net.cpp:91] Creating Layer inception_5a/1x1
I0403 15:19:25.112475 14528 net.cpp:425] inception_5a/1x1 <- pool4/3x3_s2_pool4/3x3_s2_0_split_0
I0403 15:19:25.112495 14528 net.cpp:399] inception_5a/1x1 -> inception_5a/1x1
I0403 15:19:25.115380 14528 net.cpp:141] Setting up inception_5a/1x1
I0403 15:19:25.115409 14528 net.cpp:148] Top shape: 24 256 7 7 (301056)
I0403 15:19:25.115425 14528 net.cpp:156] Memory required for data: 1293329952
I0403 15:19:25.115443 14528 layer_factory.hpp:77] Creating layer inception_5a/relu_1x1
I0403 15:19:25.115464 14528 net.cpp:91] Creating Layer inception_5a/relu_1x1
I0403 15:19:25.115481 14528 net.cpp:425] inception_5a/relu_1x1 <- inception_5a/1x1
I0403 15:19:25.115499 14528 net.cpp:386] inception_5a/relu_1x1 -> inception_5a/1x1 (in-place)
I0403 15:19:25.115823 14528 net.cpp:141] Setting up inception_5a/relu_1x1
I0403 15:19:25.115849 14528 net.cpp:148] Top shape: 24 256 7 7 (301056)
I0403 15:19:25.115864 14528 net.cpp:156] Memory required for data: 1294534176
I0403 15:19:25.115880 14528 layer_factory.hpp:77] Creating layer inception_5a/3x3_reduce
I0403 15:19:25.115901 14528 net.cpp:91] Creating Layer inception_5a/3x3_reduce
I0403 15:19:25.115919 14528 net.cpp:425] inception_5a/3x3_reduce <- pool4/3x3_s2_pool4/3x3_s2_0_split_1
I0403 15:19:25.115941 14528 net.cpp:399] inception_5a/3x3_reduce -> inception_5a/3x3_reduce
I0403 15:19:25.118408 14528 net.cpp:141] Setting up inception_5a/3x3_reduce
I0403 15:19:25.118438 14528 net.cpp:148] Top shape: 24 160 7 7 (188160)
I0403 15:19:25.118455 14528 net.cpp:156] Memory required for data: 1295286816
I0403 15:19:25.118473 14528 layer_factory.hpp:77] Creating layer inception_5a/relu_3x3_reduce
I0403 15:19:25.118491 14528 net.cpp:91] Creating Layer inception_5a/relu_3x3_reduce
I0403 15:19:25.118510 14528 net.cpp:425] inception_5a/relu_3x3_reduce <- inception_5a/3x3_reduce
I0403 15:19:25.118531 14528 net.cpp:386] inception_5a/relu_3x3_reduce -> inception_5a/3x3_reduce (in-place)
I0403 15:19:25.118717 14528 net.cpp:141] Setting up inception_5a/relu_3x3_reduce
I0403 15:19:25.118742 14528 net.cpp:148] Top shape: 24 160 7 7 (188160)
I0403 15:19:25.118757 14528 net.cpp:156] Memory required for data: 1296039456
I0403 15:19:25.118770 14528 layer_factory.hpp:77] Creating layer inception_5a/3x3
I0403 15:19:25.118793 14528 net.cpp:91] Creating Layer inception_5a/3x3
I0403 15:19:25.118809 14528 net.cpp:425] inception_5a/3x3 <- inception_5a/3x3_reduce
I0403 15:19:25.118829 14528 net.cpp:399] inception_5a/3x3 -> inception_5a/3x3
I0403 15:19:25.123733 14528 net.cpp:141] Setting up inception_5a/3x3
I0403 15:19:25.123762 14528 net.cpp:148] Top shape: 24 320 7 7 (376320)
I0403 15:19:25.123777 14528 net.cpp:156] Memory required for data: 1297544736
I0403 15:19:25.123795 14528 layer_factory.hpp:77] Creating layer inception_5a/relu_3x3
I0403 15:19:25.123816 14528 net.cpp:91] Creating Layer inception_5a/relu_3x3
I0403 15:19:25.123831 14528 net.cpp:425] inception_5a/relu_3x3 <- inception_5a/3x3
I0403 15:19:25.123849 14528 net.cpp:386] inception_5a/relu_3x3 -> inception_5a/3x3 (in-place)
I0403 15:19:25.124140 14528 net.cpp:141] Setting up inception_5a/relu_3x3
I0403 15:19:25.124164 14528 net.cpp:148] Top shape: 24 320 7 7 (376320)
I0403 15:19:25.124178 14528 net.cpp:156] Memory required for data: 1299050016
I0403 15:19:25.124193 14528 layer_factory.hpp:77] Creating layer inception_5a/5x5_reduce
I0403 15:19:25.124214 14528 net.cpp:91] Creating Layer inception_5a/5x5_reduce
I0403 15:19:25.124231 14528 net.cpp:425] inception_5a/5x5_reduce <- pool4/3x3_s2_pool4/3x3_s2_0_split_2
I0403 15:19:25.124251 14528 net.cpp:399] inception_5a/5x5_reduce -> inception_5a/5x5_reduce
I0403 15:19:25.125412 14528 net.cpp:141] Setting up inception_5a/5x5_reduce
I0403 15:19:25.125442 14528 net.cpp:148] Top shape: 24 32 7 7 (37632)
I0403 15:19:25.125458 14528 net.cpp:156] Memory required for data: 1299200544
I0403 15:19:25.125476 14528 layer_factory.hpp:77] Creating layer inception_5a/relu_5x5_reduce
I0403 15:19:25.125494 14528 net.cpp:91] Creating Layer inception_5a/relu_5x5_reduce
I0403 15:19:25.125514 14528 net.cpp:425] inception_5a/relu_5x5_reduce <- inception_5a/5x5_reduce
I0403 15:19:25.125531 14528 net.cpp:386] inception_5a/relu_5x5_reduce -> inception_5a/5x5_reduce (in-place)
I0403 15:19:25.125823 14528 net.cpp:141] Setting up inception_5a/relu_5x5_reduce
I0403 15:19:25.125847 14528 net.cpp:148] Top shape: 24 32 7 7 (37632)
I0403 15:19:25.125862 14528 net.cpp:156] Memory required for data: 1299351072
I0403 15:19:25.125876 14528 layer_factory.hpp:77] Creating layer inception_5a/5x5
I0403 15:19:25.125897 14528 net.cpp:91] Creating Layer inception_5a/5x5
I0403 15:19:25.125915 14528 net.cpp:425] inception_5a/5x5 <- inception_5a/5x5_reduce
I0403 15:19:25.125934 14528 net.cpp:399] inception_5a/5x5 -> inception_5a/5x5
I0403 15:19:25.127632 14528 net.cpp:141] Setting up inception_5a/5x5
I0403 15:19:25.127671 14528 net.cpp:148] Top shape: 24 128 7 7 (150528)
I0403 15:19:25.127687 14528 net.cpp:156] Memory required for data: 1299953184
I0403 15:19:25.127706 14528 layer_factory.hpp:77] Creating layer inception_5a/relu_5x5
I0403 15:19:25.127722 14528 net.cpp:91] Creating Layer inception_5a/relu_5x5
I0403 15:19:25.127737 14528 net.cpp:425] inception_5a/relu_5x5 <- inception_5a/5x5
I0403 15:19:25.127755 14528 net.cpp:386] inception_5a/relu_5x5 -> inception_5a/5x5 (in-place)
I0403 15:19:25.127943 14528 net.cpp:141] Setting up inception_5a/relu_5x5
I0403 15:19:25.127967 14528 net.cpp:148] Top shape: 24 128 7 7 (150528)
I0403 15:19:25.127982 14528 net.cpp:156] Memory required for data: 1300555296
I0403 15:19:25.127995 14528 layer_factory.hpp:77] Creating layer inception_5a/pool
I0403 15:19:25.128013 14528 net.cpp:91] Creating Layer inception_5a/pool
I0403 15:19:25.128031 14528 net.cpp:425] inception_5a/pool <- pool4/3x3_s2_pool4/3x3_s2_0_split_3
I0403 15:19:25.128047 14528 net.cpp:399] inception_5a/pool -> inception_5a/pool
I0403 15:19:25.128118 14528 net.cpp:141] Setting up inception_5a/pool
I0403 15:19:25.128140 14528 net.cpp:148] Top shape: 24 832 7 7 (978432)
I0403 15:19:25.128154 14528 net.cpp:156] Memory required for data: 1304469024
I0403 15:19:25.128168 14528 layer_factory.hpp:77] Creating layer inception_5a/pool_proj
I0403 15:19:25.128188 14528 net.cpp:91] Creating Layer inception_5a/pool_proj
I0403 15:19:25.128204 14528 net.cpp:425] inception_5a/pool_proj <- inception_5a/pool
I0403 15:19:25.128226 14528 net.cpp:399] inception_5a/pool_proj -> inception_5a/pool_proj
I0403 15:19:25.130486 14528 net.cpp:141] Setting up inception_5a/pool_proj
I0403 15:19:25.130518 14528 net.cpp:148] Top shape: 24 128 7 7 (150528)
I0403 15:19:25.130535 14528 net.cpp:156] Memory required for data: 1305071136
I0403 15:19:25.130553 14528 layer_factory.hpp:77] Creating layer inception_5a/relu_pool_proj
I0403 15:19:25.130570 14528 net.cpp:91] Creating Layer inception_5a/relu_pool_proj
I0403 15:19:25.130586 14528 net.cpp:425] inception_5a/relu_pool_proj <- inception_5a/pool_proj
I0403 15:19:25.130605 14528 net.cpp:386] inception_5a/relu_pool_proj -> inception_5a/pool_proj (in-place)
I0403 15:19:25.130898 14528 net.cpp:141] Setting up inception_5a/relu_pool_proj
I0403 15:19:25.130923 14528 net.cpp:148] Top shape: 24 128 7 7 (150528)
I0403 15:19:25.130939 14528 net.cpp:156] Memory required for data: 1305673248
I0403 15:19:25.130954 14528 layer_factory.hpp:77] Creating layer inception_5a/output
I0403 15:19:25.130970 14528 net.cpp:91] Creating Layer inception_5a/output
I0403 15:19:25.130985 14528 net.cpp:425] inception_5a/output <- inception_5a/1x1
I0403 15:19:25.131000 14528 net.cpp:425] inception_5a/output <- inception_5a/3x3
I0403 15:19:25.131016 14528 net.cpp:425] inception_5a/output <- inception_5a/5x5
I0403 15:19:25.131031 14528 net.cpp:425] inception_5a/output <- inception_5a/pool_proj
I0403 15:19:25.131050 14528 net.cpp:399] inception_5a/output -> inception_5a/output
I0403 15:19:25.131099 14528 net.cpp:141] Setting up inception_5a/output
I0403 15:19:25.131124 14528 net.cpp:148] Top shape: 24 832 7 7 (978432)
I0403 15:19:25.131139 14528 net.cpp:156] Memory required for data: 1309586976
I0403 15:19:25.131152 14528 layer_factory.hpp:77] Creating layer inception_5a/output_inception_5a/output_0_split
I0403 15:19:25.131167 14528 net.cpp:91] Creating Layer inception_5a/output_inception_5a/output_0_split
I0403 15:19:25.131182 14528 net.cpp:425] inception_5a/output_inception_5a/output_0_split <- inception_5a/output
I0403 15:19:25.131199 14528 net.cpp:399] inception_5a/output_inception_5a/output_0_split -> inception_5a/output_inception_5a/output_0_split_0
I0403 15:19:25.131222 14528 net.cpp:399] inception_5a/output_inception_5a/output_0_split -> inception_5a/output_inception_5a/output_0_split_1
I0403 15:19:25.131242 14528 net.cpp:399] inception_5a/output_inception_5a/output_0_split -> inception_5a/output_inception_5a/output_0_split_2
I0403 15:19:25.131261 14528 net.cpp:399] inception_5a/output_inception_5a/output_0_split -> inception_5a/output_inception_5a/output_0_split_3
I0403 15:19:25.131371 14528 net.cpp:141] Setting up inception_5a/output_inception_5a/output_0_split
I0403 15:19:25.131393 14528 net.cpp:148] Top shape: 24 832 7 7 (978432)
I0403 15:19:25.131408 14528 net.cpp:148] Top shape: 24 832 7 7 (978432)
I0403 15:19:25.131422 14528 net.cpp:148] Top shape: 24 832 7 7 (978432)
I0403 15:19:25.131438 14528 net.cpp:148] Top shape: 24 832 7 7 (978432)
I0403 15:19:25.131449 14528 net.cpp:156] Memory required for data: 1325241888
I0403 15:19:25.131464 14528 layer_factory.hpp:77] Creating layer inception_5b/1x1
I0403 15:19:25.131484 14528 net.cpp:91] Creating Layer inception_5b/1x1
I0403 15:19:25.131500 14528 net.cpp:425] inception_5b/1x1 <- inception_5a/output_inception_5a/output_0_split_0
I0403 15:19:25.131525 14528 net.cpp:399] inception_5b/1x1 -> inception_5b/1x1
I0403 15:19:25.135203 14528 net.cpp:141] Setting up inception_5b/1x1
I0403 15:19:25.135234 14528 net.cpp:148] Top shape: 24 384 7 7 (451584)
I0403 15:19:25.135249 14528 net.cpp:156] Memory required for data: 1327048224
I0403 15:19:25.135269 14528 layer_factory.hpp:77] Creating layer inception_5b/relu_1x1
I0403 15:19:25.135287 14528 net.cpp:91] Creating Layer inception_5b/relu_1x1
I0403 15:19:25.135301 14528 net.cpp:425] inception_5b/relu_1x1 <- inception_5b/1x1
I0403 15:19:25.135323 14528 net.cpp:386] inception_5b/relu_1x1 -> inception_5b/1x1 (in-place)
I0403 15:19:25.135627 14528 net.cpp:141] Setting up inception_5b/relu_1x1
I0403 15:19:25.135653 14528 net.cpp:148] Top shape: 24 384 7 7 (451584)
I0403 15:19:25.135668 14528 net.cpp:156] Memory required for data: 1328854560
I0403 15:19:25.135682 14528 layer_factory.hpp:77] Creating layer inception_5b/3x3_reduce
I0403 15:19:25.135704 14528 net.cpp:91] Creating Layer inception_5b/3x3_reduce
I0403 15:19:25.135720 14528 net.cpp:425] inception_5b/3x3_reduce <- inception_5a/output_inception_5a/output_0_split_1
I0403 15:19:25.135741 14528 net.cpp:399] inception_5b/3x3_reduce -> inception_5b/3x3_reduce
I0403 15:19:25.138351 14528 net.cpp:141] Setting up inception_5b/3x3_reduce
I0403 15:19:25.138381 14528 net.cpp:148] Top shape: 24 192 7 7 (225792)
I0403 15:19:25.138397 14528 net.cpp:156] Memory required for data: 1329757728
I0403 15:19:25.138416 14528 layer_factory.hpp:77] Creating layer inception_5b/relu_3x3_reduce
I0403 15:19:25.138432 14528 net.cpp:91] Creating Layer inception_5b/relu_3x3_reduce
I0403 15:19:25.138447 14528 net.cpp:425] inception_5b/relu_3x3_reduce <- inception_5b/3x3_reduce
I0403 15:19:25.138466 14528 net.cpp:386] inception_5b/relu_3x3_reduce -> inception_5b/3x3_reduce (in-place)
I0403 15:19:25.138659 14528 net.cpp:141] Setting up inception_5b/relu_3x3_reduce
I0403 15:19:25.138684 14528 net.cpp:148] Top shape: 24 192 7 7 (225792)
I0403 15:19:25.138697 14528 net.cpp:156] Memory required for data: 1330660896
I0403 15:19:25.138710 14528 layer_factory.hpp:77] Creating layer inception_5b/3x3
I0403 15:19:25.138733 14528 net.cpp:91] Creating Layer inception_5b/3x3
I0403 15:19:25.138751 14528 net.cpp:425] inception_5b/3x3 <- inception_5b/3x3_reduce
I0403 15:19:25.138772 14528 net.cpp:399] inception_5b/3x3 -> inception_5b/3x3
I0403 15:19:25.145335 14528 net.cpp:141] Setting up inception_5b/3x3
I0403 15:19:25.145364 14528 net.cpp:148] Top shape: 24 384 7 7 (451584)
I0403 15:19:25.145378 14528 net.cpp:156] Memory required for data: 1332467232
I0403 15:19:25.145396 14528 layer_factory.hpp:77] Creating layer inception_5b/relu_3x3
I0403 15:19:25.145413 14528 net.cpp:91] Creating Layer inception_5b/relu_3x3
I0403 15:19:25.145428 14528 net.cpp:425] inception_5b/relu_3x3 <- inception_5b/3x3
I0403 15:19:25.145447 14528 net.cpp:386] inception_5b/relu_3x3 -> inception_5b/3x3 (in-place)
I0403 15:19:25.145747 14528 net.cpp:141] Setting up inception_5b/relu_3x3
I0403 15:19:25.145773 14528 net.cpp:148] Top shape: 24 384 7 7 (451584)
I0403 15:19:25.145788 14528 net.cpp:156] Memory required for data: 1334273568
I0403 15:19:25.145802 14528 layer_factory.hpp:77] Creating layer inception_5b/5x5_reduce
I0403 15:19:25.145839 14528 net.cpp:91] Creating Layer inception_5b/5x5_reduce
I0403 15:19:25.145858 14528 net.cpp:425] inception_5b/5x5_reduce <- inception_5a/output_inception_5a/output_0_split_2
I0403 15:19:25.145879 14528 net.cpp:399] inception_5b/5x5_reduce -> inception_5b/5x5_reduce
I0403 15:19:25.147138 14528 net.cpp:141] Setting up inception_5b/5x5_reduce
I0403 15:19:25.147166 14528 net.cpp:148] Top shape: 24 48 7 7 (56448)
I0403 15:19:25.147179 14528 net.cpp:156] Memory required for data: 1334499360
I0403 15:19:25.147197 14528 layer_factory.hpp:77] Creating layer inception_5b/relu_5x5_reduce
I0403 15:19:25.147214 14528 net.cpp:91] Creating Layer inception_5b/relu_5x5_reduce
I0403 15:19:25.147230 14528 net.cpp:425] inception_5b/relu_5x5_reduce <- inception_5b/5x5_reduce
I0403 15:19:25.147249 14528 net.cpp:386] inception_5b/relu_5x5_reduce -> inception_5b/5x5_reduce (in-place)
I0403 15:19:25.147621 14528 net.cpp:141] Setting up inception_5b/relu_5x5_reduce
I0403 15:19:25.147646 14528 net.cpp:148] Top shape: 24 48 7 7 (56448)
I0403 15:19:25.147661 14528 net.cpp:156] Memory required for data: 1334725152
I0403 15:19:25.147675 14528 layer_factory.hpp:77] Creating layer inception_5b/5x5
I0403 15:19:25.147696 14528 net.cpp:91] Creating Layer inception_5b/5x5
I0403 15:19:25.147711 14528 net.cpp:425] inception_5b/5x5 <- inception_5b/5x5_reduce
I0403 15:19:25.147729 14528 net.cpp:399] inception_5b/5x5 -> inception_5b/5x5
I0403 15:19:25.149771 14528 net.cpp:141] Setting up inception_5b/5x5
I0403 15:19:25.149798 14528 net.cpp:148] Top shape: 24 128 7 7 (150528)
I0403 15:19:25.149813 14528 net.cpp:156] Memory required for data: 1335327264
I0403 15:19:25.149832 14528 layer_factory.hpp:77] Creating layer inception_5b/relu_5x5
I0403 15:19:25.149850 14528 net.cpp:91] Creating Layer inception_5b/relu_5x5
I0403 15:19:25.149868 14528 net.cpp:425] inception_5b/relu_5x5 <- inception_5b/5x5
I0403 15:19:25.149883 14528 net.cpp:386] inception_5b/relu_5x5 -> inception_5b/5x5 (in-place)
I0403 15:19:25.150075 14528 net.cpp:141] Setting up inception_5b/relu_5x5
I0403 15:19:25.150099 14528 net.cpp:148] Top shape: 24 128 7 7 (150528)
I0403 15:19:25.150113 14528 net.cpp:156] Memory required for data: 1335929376
I0403 15:19:25.150127 14528 layer_factory.hpp:77] Creating layer inception_5b/pool
I0403 15:19:25.150146 14528 net.cpp:91] Creating Layer inception_5b/pool
I0403 15:19:25.150166 14528 net.cpp:425] inception_5b/pool <- inception_5a/output_inception_5a/output_0_split_3
I0403 15:19:25.150183 14528 net.cpp:399] inception_5b/pool -> inception_5b/pool
I0403 15:19:25.150254 14528 net.cpp:141] Setting up inception_5b/pool
I0403 15:19:25.150277 14528 net.cpp:148] Top shape: 24 832 7 7 (978432)
I0403 15:19:25.150291 14528 net.cpp:156] Memory required for data: 1339843104
I0403 15:19:25.150305 14528 layer_factory.hpp:77] Creating layer inception_5b/pool_proj
I0403 15:19:25.150326 14528 net.cpp:91] Creating Layer inception_5b/pool_proj
I0403 15:19:25.150343 14528 net.cpp:425] inception_5b/pool_proj <- inception_5b/pool
I0403 15:19:25.150363 14528 net.cpp:399] inception_5b/pool_proj -> inception_5b/pool_proj
I0403 15:19:25.152688 14528 net.cpp:141] Setting up inception_5b/pool_proj
I0403 15:19:25.152717 14528 net.cpp:148] Top shape: 24 128 7 7 (150528)
I0403 15:19:25.152732 14528 net.cpp:156] Memory required for data: 1340445216
I0403 15:19:25.152750 14528 layer_factory.hpp:77] Creating layer inception_5b/relu_pool_proj
I0403 15:19:25.152770 14528 net.cpp:91] Creating Layer inception_5b/relu_pool_proj
I0403 15:19:25.152786 14528 net.cpp:425] inception_5b/relu_pool_proj <- inception_5b/pool_proj
I0403 15:19:25.152806 14528 net.cpp:386] inception_5b/relu_pool_proj -> inception_5b/pool_proj (in-place)
I0403 15:19:25.153110 14528 net.cpp:141] Setting up inception_5b/relu_pool_proj
I0403 15:19:25.153136 14528 net.cpp:148] Top shape: 24 128 7 7 (150528)
I0403 15:19:25.153151 14528 net.cpp:156] Memory required for data: 1341047328
I0403 15:19:25.153165 14528 layer_factory.hpp:77] Creating layer inception_5b/output
I0403 15:19:25.153182 14528 net.cpp:91] Creating Layer inception_5b/output
I0403 15:19:25.153213 14528 net.cpp:425] inception_5b/output <- inception_5b/1x1
I0403 15:19:25.153230 14528 net.cpp:425] inception_5b/output <- inception_5b/3x3
I0403 15:19:25.153247 14528 net.cpp:425] inception_5b/output <- inception_5b/5x5
I0403 15:19:25.153264 14528 net.cpp:425] inception_5b/output <- inception_5b/pool_proj
I0403 15:19:25.153283 14528 net.cpp:399] inception_5b/output -> inception_5b/output
I0403 15:19:25.153337 14528 net.cpp:141] Setting up inception_5b/output
I0403 15:19:25.153362 14528 net.cpp:148] Top shape: 24 1024 7 7 (1204224)
I0403 15:19:25.153378 14528 net.cpp:156] Memory required for data: 1345864224
I0403 15:19:25.153391 14528 layer_factory.hpp:77] Creating layer pool5/7x7_s1
I0403 15:19:25.153408 14528 net.cpp:91] Creating Layer pool5/7x7_s1
I0403 15:19:25.153424 14528 net.cpp:425] pool5/7x7_s1 <- inception_5b/output
I0403 15:19:25.153440 14528 net.cpp:399] pool5/7x7_s1 -> pool5/7x7_s1
I0403 15:19:25.153666 14528 net.cpp:141] Setting up pool5/7x7_s1
I0403 15:19:25.153692 14528 net.cpp:148] Top shape: 24 1024 1 1 (24576)
I0403 15:19:25.153707 14528 net.cpp:156] Memory required for data: 1345962528
I0403 15:19:25.153722 14528 layer_factory.hpp:77] Creating layer pool5/drop_7x7_s1
I0403 15:19:25.153738 14528 net.cpp:91] Creating Layer pool5/drop_7x7_s1
I0403 15:19:25.153754 14528 net.cpp:425] pool5/drop_7x7_s1 <- pool5/7x7_s1
I0403 15:19:25.153774 14528 net.cpp:386] pool5/drop_7x7_s1 -> pool5/7x7_s1 (in-place)
I0403 15:19:25.153825 14528 net.cpp:141] Setting up pool5/drop_7x7_s1
I0403 15:19:25.153851 14528 net.cpp:148] Top shape: 24 1024 1 1 (24576)
I0403 15:19:25.153864 14528 net.cpp:156] Memory required for data: 1346060832
I0403 15:19:25.153878 14528 layer_factory.hpp:77] Creating layer loss3/classifier_plantvillage
I0403 15:19:25.153897 14528 net.cpp:91] Creating Layer loss3/classifier_plantvillage
I0403 15:19:25.153913 14528 net.cpp:425] loss3/classifier_plantvillage <- pool5/7x7_s1
I0403 15:19:25.153935 14528 net.cpp:399] loss3/classifier_plantvillage -> loss3/classifier_plantvillage
I0403 15:19:25.154369 14528 net.cpp:141] Setting up loss3/classifier_plantvillage
I0403 15:19:25.154393 14528 net.cpp:148] Top shape: 24 38 (912)
I0403 15:19:25.154408 14528 net.cpp:156] Memory required for data: 1346064480
I0403 15:19:25.154425 14528 layer_factory.hpp:77] Creating layer loss3/classifier_plantvillage_loss3/classifier_plantvillage_0_split
I0403 15:19:25.154446 14528 net.cpp:91] Creating Layer loss3/classifier_plantvillage_loss3/classifier_plantvillage_0_split
I0403 15:19:25.154464 14528 net.cpp:425] loss3/classifier_plantvillage_loss3/classifier_plantvillage_0_split <- loss3/classifier_plantvillage
I0403 15:19:25.154481 14528 net.cpp:399] loss3/classifier_plantvillage_loss3/classifier_plantvillage_0_split -> loss3/classifier_plantvillage_loss3/classifier_plantvillage_0_split_0
I0403 15:19:25.154503 14528 net.cpp:399] loss3/classifier_plantvillage_loss3/classifier_plantvillage_0_split -> loss3/classifier_plantvillage_loss3/classifier_plantvillage_0_split_1
I0403 15:19:25.154536 14528 net.cpp:399] loss3/classifier_plantvillage_loss3/classifier_plantvillage_0_split -> loss3/classifier_plantvillage_loss3/classifier_plantvillage_0_split_2
I0403 15:19:25.154556 14528 net.cpp:399] loss3/classifier_plantvillage_loss3/classifier_plantvillage_0_split -> loss3/classifier_plantvillage_loss3/classifier_plantvillage_0_split_3
I0403 15:19:25.154662 14528 net.cpp:141] Setting up loss3/classifier_plantvillage_loss3/classifier_plantvillage_0_split
I0403 15:19:25.154685 14528 net.cpp:148] Top shape: 24 38 (912)
I0403 15:19:25.154701 14528 net.cpp:148] Top shape: 24 38 (912)
I0403 15:19:25.154716 14528 net.cpp:148] Top shape: 24 38 (912)
I0403 15:19:25.154731 14528 net.cpp:148] Top shape: 24 38 (912)
I0403 15:19:25.154743 14528 net.cpp:156] Memory required for data: 1346079072
I0403 15:19:25.154758 14528 layer_factory.hpp:77] Creating layer loss1/loss
I0403 15:19:25.154779 14528 net.cpp:91] Creating Layer loss1/loss
I0403 15:19:25.154795 14528 net.cpp:425] loss1/loss <- loss1/classifier_plantvillage_loss1/classifier_plantvillage_0_split_0
I0403 15:19:25.154826 14528 net.cpp:425] loss1/loss <- label_data_1_split_0
…
