…
I0403 15:38:36.427793 15721 net.cpp:313] The NetState phase (1) differed from the phase (0) specified by a rule in layer data
I0403 15:38:36.428956 15721 net.cpp:49] Initializing net from parameters: 
state {
  phase: TEST
}
layer {
  name: "data"
  type: "Data"
  top: "data"
  top: "label"
  include {
    phase: TEST
  }
  transform_param {
    mirror: false
    crop_size: 224
    mean_file: "/home/mohanty/data/final_dataset/lmdb/color-50-50/mean.binaryproto"
  }
  data_param {
    source: "/home/mohanty/data/final_dataset/lmdb/color-50-50/test_db"
    batch_size: 24
    backend: LMDB
  }
}
layer {
  name: "conv1/7x7_s2"
  type: "Convolution"
  bottom: "data"
  top: "conv1/7x7_s2"
  param {
    lr_mult: 1
    decay_mult: 1
  }
  param {
    lr_mult: 2
    decay_mult: 0
  }
  convolution_param {
    num_output: 64
    pad: 3
    kernel_size: 7
    stride: 2
    weight_filler {
      type: "xavier"
      std: 0.1
    }
    bias_filler {
      type: "constant"
      value: 0.2
    }
  }
}
layer {
  name: "conv1/relu_7x7"
  type: "ReLU"
  bottom: "conv1/7x7_s2"
  top: "conv1/7x7_s2"
}
layer {
  name: "pool1/3x3_s2"
  type: "Pooling"
  bottom: "conv1/7x7_s2"
  top: "pool1/3x3_s2"
  pooling_param {
    pool: MAX
    kernel_size: 3
    stride: 2
  }
}
layer {
  name: "pool1/norm1"
  type: "LRN"
  bottom: "pool1/3x3_s2"
  top: "pool1/norm1"
  lrn_param {
    local_size: 5
    alpha: 0.0001
    beta: 0.75
  }
}
layer {
  name: "conv2/3x3_reduce"
  type: "Convolution"
  bottom: "pool1/norm1"
  top: "conv2/3x3_reduce"
  param {
    lr_mult: 1
    decay_mult: 1
  }
  param {
    lr_mult: 2
    decay_mult: 0
  }
  convolution_param {
    num_output: 64
    kernel_size: 1
    weight_filler {
      type: "xavier"
      std: 0.1
    }
    bias_filler {
      type: "constant"
      value: 0.2
    }
  }
}
layer {
  name: "conv2/relu_3x3_reduce"
  type: "ReLU"
  bottom: "conv2/3x3_reduce"
  top: "conv2/3x3_reduce"
}
layer {
  name: "conv2/3x3"
  type: "Convolution"
  bottom: "conv2/3x3_reduce"
  top: "conv2/3x3"
  param {
    lr_mult: 1
    decay_mult: 1
  }
  param {
    lr_mult: 2
    decay_mult: 0
  }
  convolution_param {
    num_output: 192
    pad: 1
    kernel_size: 3
    weight_filler {
      type: "xavier"
      std: 0.03
    }
    bias_filler {
      type: "constant"
      value: 0.2
    }
  }
}
layer {
  name: "conv2/relu_3x3"
  type: "ReLU"
  bottom: "conv2/3x3"
  top: "conv2/3x3"
}
layer {
  name: "conv2/norm2"
  type: "LRN"
  bottom: "conv2/3x3"
  top: "conv2/norm2"
  lrn_param {
    local_size: 5
    alpha: 0.0001
    beta: 0.75
  }
}
layer {
  name: "pool2/3x3_s2"
  type: "Pooling"
  bottom: "conv2/norm2"
  top: "pool2/3x3_s2"
  pooling_param {
    pool: MAX
    kernel_size: 3
    stride: 2
  }
}
layer {
  name: "inception_3a/1x1"
  type: "Convolution"
  bottom: "pool2/3x3_s2"
  top: "inception_3a/1x1"
  param {
    lr_mult: 1
    decay_mult: 1
  }
  param {
    lr_mult: 2
    decay_mult: 0
  }
  convolution_param {
    num_output: 64
    kernel_size: 1
    weight_filler {
      type: "xavier"
      std: 0.03
    }
    bias_filler {
      type: "constant"
      value: 0.2
    }
  }
}
layer {
  name: "inception_3a/relu_1x1"
  type: "ReLU"
  bottom: "inception_3a/1x1"
  top: "inception_3a/1x1"
}
layer {
  name: "inception_3a/3x3_reduce"
  type: "Convolution"
  bottom: "pool2/3x3_s2"
  top: "inception_3a/3x3_reduce"
  param {
    lr_mult: 1
    decay_mult: 1
  }
  param {
    lr_mult: 2
    decay_mult: 0
  }
  convolution_param {
    num_output: 96
    kernel_size: 1
    weight_filler {
      type: "xavier"
      std: 0.09
    }
    bias_filler {
      type: "constant"
      value: 0.2
    }
  }
}
layer {
  name: "inception_3a/relu_3x3_reduce"
  type: "ReLU"
  bottom: "inception_3a/3x3_reduce"
  top: "inception_3a/3x3_reduce"
}
layer {
  name: "inception_3a/3x3"
  type: "Convolution"
  bottom: "inception_3a/3x3_reduce"
  top: "inception_3a/3x3"
  param {
    lr_mult: 1
    decay_mult: 1
  }
  param {
    lr_mult: 2
    decay_mult: 0
  }
  convolution_param {
    num_output: 128
    pad: 1
    kernel_size: 3
    weight_filler {
      type: "xavier"
      std: 0.03
    }
    bias_filler {
      type: "constant"
      value: 0.2
    }
  }
}
layer {
  name: "inception_3a/relu_3x3"
  type: "ReLU"
  bottom: "inception_3a/3x3"
  top: "inception_3a/3x3"
}
layer {
  name: "inception_3a/5x5_reduce"
  type: "Convolution"
  bottom: "pool2/3x3_s2"
  top: "inception_3a/5x5_reduce"
  param {
    lr_mult: 1
    decay_mult: 1
  }
  param {
    lr_mult: 2
    decay_mult: 0
  }
  convolution_param {
    num_output: 16
    kernel_size: 1
    weight_filler {
      type: "xavier"
      std: 0.2
    }
    bias_filler {
      type: "constant"
      value: 0.2
    }
  }
}
layer {
  name: "inception_3a/relu_5x5_reduce"
  type: "ReLU"
  bottom: "inception_3a/5x5_reduce"
  top: "inception_3a/5x5_reduce"
}
layer {
  name: "inception_3a/5x5"
  type: "Convolution"
  bottom: "inception_3a/5x5_reduce"
  top: "inception_3a/5x5"
  param {
    lr_mult: 1
    decay_mult: 1
  }
  param {
    lr_mult: 2
    decay_mult: 0
  }
  convolution_param {
    num_output: 32
    pad: 2
    kernel_size: 5
    weight_filler {
      type: "xavier"
      std: 0.03
    }
    bias_filler {
      type: "constant"
      value: 0.2
    }
  }
}
layer {
  name: "inception_3a/relu_5x5"
  type: "ReLU"
  bottom: "inception_3a/5x5"
  top: "inception_3a/5x5"
}
layer {
  name: "inception_3a/pool"
  type: "Pooling"
  bottom: "pool2/3x3_s2"
  top: "inception_3a/pool"
  pooling_param {
    pool: MAX
    kernel_size: 3
    stride: 1
    pad: 1
  }
}
layer {
  name: "inception_3a/pool_proj"
  type: "Convolution"
  bottom: "inception_3a/pool"
  top: "inception_3a/pool_proj"
  param {
    lr_mult: 1
    decay_mult: 1
  }
  param {
    lr_mult: 2
    decay_mult: 0
  }
  convolution_param {
    num_output: 32
    kernel_size: 1
    weight_filler {
      type: "xavier"
      std: 0.1
    }
    bias_filler {
      type: "constant"
      value: 0.2
    }
  }
}
layer {
  name: "inception_3a/relu_pool_proj"
  type: "ReLU"
  bottom: "inception_3a/pool_proj"
  top: "inception_3a/pool_proj"
}
layer {
  name: "inception_3a/output"
  type: "Concat"
  bottom: "inception_3a/1x1"
  bottom: "inception_3a/3x3"
  bottom: "inception_3a/5x5"
  bottom: "inception_3a/pool_proj"
  top: "inception_3a/output"
}
layer {
  name: "inception_3b/1x1"
  type: "Convolution"
  bottom: "inception_3a/output"
  top: "inception_3b/1x1"
  param {
    lr_mult: 1
    decay_mult: 1
  }
  param {
    lr_mult: 2
    decay_mult: 0
  }
  convolution_param {
    num_output: 128
    kernel_size: 1
    weight_filler {
      type: "xavier"
      std: 0.03
    }
    bias_filler {
      type: "constant"
      value: 0.2
    }
  }
}
layer {
  name: "inception_3b/relu_1x1"
  type: "ReLU"
  bottom: "inception_3b/1x1"
  top: "inception_3b/1x1"
}
layer {
  name: "inception_3b/3x3_reduce"
  type: "Convolution"
  bottom: "inception_3a/output"
  top: "inception_3b/3x3_reduce"
  param {
    lr_mult: 1
    decay_mult: 1
  }
  param {
    lr_mult: 2
    decay_mult: 0
  }
  convolution_param {
    num_output: 128
    kernel_size: 1
    weight_filler {
      type: "xavier"
      std: 0.09
    }
    bias_filler {
      type: "constant"
      value: 0.2
    }
  }
}
layer {
  name: "inception_3b/relu_3x3_reduce"
  type: "ReLU"
  bottom: "inception_3b/3x3_reduce"
  top: "inception_3b/3x3_reduce"
}
layer {
  name: "inception_3b/3x3"
  type: "Convolution"
  bottom: "inception_3b/3x3_reduce"
  top: "inception_3b/3x3"
  param {
    lr_mult: 1
    decay_mult: 1
  }
  param {
    lr_mult: 2
    decay_mult: 0
  }
  convolution_param {
    num_output: 192
    pad: 1
    kernel_size: 3
    weight_filler {
      type: "xavier"
      std: 0.03
    }
    bias_filler {
      type: "constant"
      value: 0.2
    }
  }
}
layer {
  name: "inception_3b/relu_3x3"
  type: "ReLU"
  bottom: "inception_3b/3x3"
  top: "inception_3b/3x3"
}
layer {
  name: "inception_3b/5x5_reduce"
  type: "Convolution"
  bottom: "inception_3a/output"
  top: "inception_3b/5x5_reduce"
  param {
    lr_mult: 1
    decay_mult: 1
  }
  param {
    lr_mult: 2
    decay_mult: 0
  }
  convolution_param {
    num_output: 32
    kernel_size: 1
    weight_filler {
      type: "xavier"
      std: 0.2
    }
    bias_filler {
      type: "constant"
      value: 0.2
    }
  }
}
layer {
  name: "inception_3b/relu_5x5_reduce"
  type: "ReLU"
  bottom: "inception_3b/5x5_reduce"
  top: "inception_3b/5x5_reduce"
}
layer {
  name: "inception_3b/5x5"
  type: "Convolution"
  bottom: "inception_3b/5x5_reduce"
  top: "inception_3b/5x5"
  param {
    lr_mult: 1
    decay_mult: 1
  }
  param {
    lr_mult: 2
    decay_mult: 0
  }
  convolution_param {
    num_output: 96
    pad: 2
    kernel_size: 5
    weight_filler {
      type: "xavier"
      std: 0.03
    }
    bias_filler {
      type: "constant"
      value: 0.2
    }
  }
}
layer {
  name: "inception_3b/relu_5x5"
  type: "ReLU"
  bottom: "inception_3b/5x5"
  top: "inception_3b/5x5"
}
layer {
  name: "inception_3b/pool"
  type: "Pooling"
  bottom: "inception_3a/output"
  top: "inception_3b/pool"
  pooling_param {
    pool: MAX
    kernel_size: 3
    stride: 1
    pad: 1
  }
}
layer {
  name: "inception_3b/pool_proj"
  type: "Convolution"
  bottom: "inception_3b/pool"
  top: "inception_3b/pool_proj"
  param {
    lr_mult: 1
    decay_mult: 1
  }
  param {
    lr_mult: 2
    decay_mult: 0
  }
  convolution_param {
    num_output: 64
    kernel_size: 1
    weight_filler {
      type: "xavier"
      std: 0.1
    }
    bias_filler {
      type: "constant"
      value: 0.2
    }
  }
}
layer {
  name: "inception_3b/relu_pool_proj"
  type: "ReLU"
  bottom: "inception_3b/pool_proj"
  top: "inception_3b/pool_proj"
}
layer {
  name: "inception_3b/output"
  type: "Concat"
  bottom: "inception_3b/1x1"
  bottom: "inception_3b/3x3"
  bottom: "inception_3b/5x5"
  bottom: "inception_3b/pool_proj"
  top: "inception_3b/output"
}
layer {
  name: "pool3/3x3_s2"
  type: "Pooling"
  bottom: "inception_3b/output"
  top: "pool3/3x3_s2"
  pooling_param {
    pool: MAX
    kernel_size: 3
    stride: 2
  }
}
layer {
  name: "inception_4a/1x1"
  type: "Convolution"
  bottom: "pool3/3x3_s2"
  top: "inception_4a/1x1"
  param {
    lr_mult: 1
    decay_mult: 1
  }
  param {
    lr_mult: 2
    decay_mult: 0
  }
  convolution_param {
    num_output: 192
    kernel_size: 1
    weight_filler {
      type: "xavier"
      std: 0.03
    }
    bias_filler {
      type: "constant"
      value: 0.2
    }
  }
}
layer {
  name: "inception_4a/relu_1x1"
  type: "ReLU"
  bottom: "inception_4a/1x1"
  top: "inception_4a/1x1"
}
layer {
  name: "inception_4a/3x3_reduce"
  type: "Convolution"
  bottom: "pool3/3x3_s2"
  top: "inception_4a/3x3_reduce"
  param {
    lr_mult: 1
    decay_mult: 1
  }
  param {
    lr_mult: 2
    decay_mult: 0
  }
  convolution_param {
    num_output: 96
    kernel_size: 1
    weight_filler {
      type: "xavier"
      std: 0.09
    }
    bias_filler {
      type: "constant"
      value: 0.2
    }
  }
}
layer {
  name: "inception_4a/relu_3x3_reduce"
  type: "ReLU"
  bottom: "inception_4a/3x3_reduce"
  top: "inception_4a/3x3_reduce"
}
layer {
  name: "inception_4a/3x3"
  type: "Convolution"
  bottom: "inception_4a/3x3_reduce"
  top: "inception_4a/3x3"
  param {
    lr_mult: 1
    decay_mult: 1
  }
  param {
    lr_mult: 2
    decay_mult: 0
  }
  convolution_param {
    num_output: 208
    pad: 1
    kernel_size: 3
    weight_filler {
      type: "xavier"
      std: 0.03
    }
    bias_filler {
      type: "constant"
      value: 0.2
    }
  }
}
layer {
  name: "inception_4a/relu_3x3"
  type: "ReLU"
  bottom: "inception_4a/3x3"
  top: "inception_4a/3x3"
}
layer {
  name: "inception_4a/5x5_reduce"
  type: "Convolution"
  bottom: "pool3/3x3_s2"
  top: "inception_4a/5x5_reduce"
  param {
    lr_mult: 1
    decay_mult: 1
  }
  param {
    lr_mult: 2
    decay_mult: 0
  }
  convolution_param {
    num_output: 16
    kernel_size: 1
    weight_filler {
      type: "xavier"
      std: 0.2
    }
    bias_filler {
      type: "constant"
      value: 0.2
    }
  }
}
layer {
  name: "inception_4a/relu_5x5_reduce"
  type: "ReLU"
  bottom: "inception_4a/5x5_reduce"
  top: "inception_4a/5x5_reduce"
}
layer {
  name: "inception_4a/5x5"
  type: "Convolution"
  bottom: "inception_4a/5x5_reduce"
  top: "inception_4a/5x5"
  param {
    lr_mult: 1
    decay_mult: 1
  }
  param {
    lr_mult: 2
    decay_mult: 0
  }
  convolution_param {
    num_output: 48
    pad: 2
    kernel_size: 5
    weight_filler {
      type: "xavier"
      std: 0.03
    }
    bias_filler {
      type: "constant"
      value: 0.2
    }
  }
}
layer {
  name: "inception_4a/relu_5x5"
  type: "ReLU"
  bottom: "inception_4a/5x5"
  top: "inception_4a/5x5"
}
layer {
  name: "inception_4a/pool"
  type: "Pooling"
  bottom: "pool3/3x3_s2"
  top: "inception_4a/pool"
  pooling_param {
    pool: MAX
    kernel_size: 3
    stride: 1
    pad: 1
  }
}
layer {
  name: "inception_4a/pool_proj"
  type: "Convolution"
  bottom: "inception_4a/pool"
  top: "inception_4a/pool_proj"
  param {
    lr_mult: 1
    decay_mult: 1
  }
  param {
    lr_mult: 2
    decay_mult: 0
  }
  convolution_param {
    num_output: 64
    kernel_size: 1
    weight_filler {
      type: "xavier"
      std: 0.1
    }
    bias_filler {
      type: "constant"
      value: 0.2
    }
  }
}
layer {
  name: "inception_4a/relu_pool_proj"
  type: "ReLU"
  bottom: "inception_4a/pool_proj"
  top: "inception_4a/pool_proj"
}
layer {
  name: "inception_4a/output"
  type: "Concat"
  bottom: "inception_4a/1x1"
  bottom: "inception_4a/3x3"
  bottom: "inception_4a/5x5"
  bottom: "inception_4a/pool_proj"
  top: "inception_4a/output"
}
layer {
  name: "loss1/ave_pool"
  type: "Pooling"
  bottom: "inception_4a/output"
  top: "loss1/ave_pool"
  pooling_param {
    pool: AVE
    kernel_size: 5
    stride: 3
  }
}
layer {
  name: "loss1/conv"
  type: "Convolution"
  bottom: "loss1/ave_pool"
  top: "loss1/conv"
  param {
    lr_mult: 1
    decay_mult: 1
  }
  param {
    lr_mult: 2
    decay_mult: 0
  }
  convolution_param {
    num_output: 128
    kernel_size: 1
    weight_filler {
      type: "xavier"
      std: 0.08
    }
    bias_filler {
      type: "constant"
      value: 0.2
    }
  }
}
layer {
  name: "loss1/relu_conv"
  type: "ReLU"
  bottom: "loss1/conv"
  top: "loss1/conv"
}
layer {
  name: "loss1/fc"
  type: "InnerProduct"
  bottom: "loss1/conv"
  top: "loss1/fc"
  param {
    lr_mult: 1
    decay_mult: 1
  }
  param {
    lr_mult: 2
    decay_mult: 0
  }
  inner_product_param {
    num_output: 1024
    weight_filler {
      type: "xavier"
      std: 0.02
    }
    bias_filler {
      type: "constant"
      value: 0.2
    }
  }
}
layer {
  name: "loss1/relu_fc"
  type: "ReLU"
  bottom: "loss1/fc"
  top: "loss1/fc"
}
layer {
  name: "loss1/drop_fc"
  type: "Dropout"
  bottom: "loss1/fc"
  top: "loss1/fc"
  dropout_param {
    dropout_ratio: 0.7
  }
}
layer {
  name: "loss1/classifier_plantvillage"
  type: "InnerProduct"
  bottom: "loss1/fc"
  top: "loss1/classifier_plantvillage"
  param {
    lr_mult: 1
    decay_mult: 1
  }
  param {
    lr_mult: 2
    decay_mult: 0
  }
  inner_product_param {
    num_output: 38
    weight_filler {
      type: "xavier"
      std: 0.0009765625
    }
    bias_filler {
      type: "constant"
      value: 0
    }
  }
}
layer {
  name: "inception_4b/1x1"
  type: "Convolution"
  bottom: "inception_4a/output"
  top: "inception_4b/1x1"
  param {
    lr_mult: 1
    decay_mult: 1
  }
  param {
    lr_mult: 2
    decay_mult: 0
  }
  convolution_param {
    num_output: 160
    kernel_size: 1
    weight_filler {
      type: "xavier"
      std: 0.03
    }
    bias_filler {
      type: "constant"
      value: 0.2
    }
  }
}
layer {
  name: "inception_4b/relu_1x1"
  type: "ReLU"
  bottom: "inception_4b/1x1"
  top: "inception_4b/1x1"
}
layer {
  name: "inception_4b/3x3_reduce"
  type: "Convolution"
  bottom: "inception_4a/output"
  top: "inception_4b/3x3_reduce"
  param {
    lr_mult: 1
    decay_mult: 1
  }
  param {
    lr_mult: 2
    decay_mult: 0
  }
  convolution_param {
    num_output: 112
    kernel_size: 1
    weight_filler {
      type: "xavier"
      std: 0.09
    }
    bias_filler {
      type: "constant"
      value: 0.2
    }
  }
}
layer {
  name: "inception_4b/relu_3x3_reduce"
  type: "ReLU"
  bottom: "inception_4b/3x3_reduce"
  top: "inception_4b/3x3_reduce"
}
layer {
  name: "inception_4b/3x3"
  type: "Convolution"
  bottom: "inception_4b/3x3_reduce"
  top: "inception_4b/3x3"
  param {
    lr_mult: 1
    decay_mult: 1
  }
  param {
    lr_mult: 2
    decay_mult: 0
  }
  convolution_param {
    num_output: 224
    pad: 1
    kernel_size: 3
    weight_filler {
      type: "xavier"
      std: 0.03
    }
    bias_filler {
      type: "constant"
      value: 0.2
    }
  }
}
layer {
  name: "inception_4b/relu_3x3"
  type: "ReLU"
  bottom: "inception_4b/3x3"
  top: "inception_4b/3x3"
}
layer {
  name: "inception_4b/5x5_reduce"
  type: "Convolution"
  bottom: "inception_4a/output"
  top: "inception_4b/5x5_reduce"
  param {
    lr_mult: 1
    decay_mult: 1
  }
  param {
    lr_mult: 2
    decay_mult: 0
  }
  convolution_param {
    num_output: 24
    kernel_size: 1
    weight_filler {
      type: "xavier"
      std: 0.2
    }
    bias_filler {
      type: "constant"
      value: 0.2
    }
  }
}
layer {
  name: "inception_4b/relu_5x5_reduce"
  type: "ReLU"
  bottom: "inception_4b/5x5_reduce"
  top: "inception_4b/5x5_reduce"
}
layer {
  name: "inception_4b/5x5"
  type: "Convolution"
  bottom: "inception_4b/5x5_reduce"
  top: "inception_4b/5x5"
  param {
    lr_mult: 1
    decay_mult: 1
  }
  param {
    lr_mult: 2
    decay_mult: 0
  }
  convolution_param {
    num_output: 64
    pad: 2
    kernel_size: 5
    weight_filler {
      type: "xavier"
      std: 0.03
    }
    bias_filler {
      type: "constant"
      value: 0.2
    }
  }
}
layer {
  name: "inception_4b/relu_5x5"
  type: "ReLU"
  bottom: "inception_4b/5x5"
  top: "inception_4b/5x5"
}
layer {
  name: "inception_4b/pool"
  type: "Pooling"
  bottom: "inception_4a/output"
  top: "inception_4b/pool"
  pooling_param {
    pool: MAX
    kernel_size: 3
    stride: 1
    pad: 1
  }
}
layer {
  name: "inception_4b/pool_proj"
  type: "Convolution"
  bottom: "inception_4b/pool"
  top: "inception_4b/pool_proj"
  param {
    lr_mult: 1
    decay_mult: 1
  }
  param {
    lr_mult: 2
    decay_mult: 0
  }
  convolution_param {
    num_output: 64
    kernel_size: 1
    weight_filler {
      type: "xavier"
      std: 0.1
    }
    bias_filler {
      type: "constant"
      value: 0.2
    }
  }
}
layer {
  name: "inception_4b/relu_pool_proj"
  type: "ReLU"
  bottom: "inception_4b/pool_proj"
  top: "inception_4b/pool_proj"
}
layer {
  name: "inception_4b/output"
  type: "Concat"
  bottom: "inception_4b/1x1"
  bottom: "inception_4b/3x3"
  bottom: "inception_4b/5x5"
  bottom: "inception_4b/pool_proj"
  top: "inception_4b/output"
}
layer {
  name: "inception_4c/1x1"
  type: "Convolution"
  bottom: "inception_4b/output"
  top: "inception_4c/1x1"
  param {
    lr_mult: 1
    decay_mult: 1
  }
  param {
    lr_mult: 2
    decay_mult: 0
  }
  convolution_param {
    num_output: 128
    kernel_size: 1
    weight_filler {
      type: "xavier"
      std: 0.03
    }
    bias_filler {
      type: "constant"
      value: 0.2
    }
  }
}
layer {
  name: "inception_4c/relu_1x1"
  type: "ReLU"
  bottom: "inception_4c/1x1"
  top: "inception_4c/1x1"
}
layer {
  name: "inception_4c/3x3_reduce"
  type: "Convolution"
  bottom: "inception_4b/output"
  top: "inception_4c/3x3_reduce"
  param {
    lr_mult: 1
    decay_mult: 1
  }
  param {
    lr_mult: 2
    decay_mult: 0
  }
  convolution_param {
    num_output: 128
    kernel_size: 1
    weight_filler {
      type: "xavier"
      std: 0.09
    }
    bias_filler {
      type: "constant"
      value: 0.2
    }
  }
}
layer {
  name: "inception_4c/relu_3x3_reduce"
  type: "ReLU"
  bottom: "inception_4c/3x3_reduce"
  top: "inception_4c/3x3_reduce"
}
layer {
  name: "inception_4c/3x3"
  type: "Convolution"
  bottom: "inception_4c/3x3_reduce"
  top: "inception_4c/3x3"
  param {
    lr_mult: 1
    decay_mult: 1
  }
  param {
    lr_mult: 2
    decay_mult: 0
  }
  convolution_param {
    num_output: 256
    pad: 1
    kernel_size: 3
    weight_filler {
      type: "xavier"
      std: 0.03
    }
    bias_filler {
      type: "constant"
      value: 0.2
    }
  }
}
layer {
  name: "inception_4c/relu_3x3"
  type: "ReLU"
  bottom: "inception_4c/3x3"
  top: "inception_4c/3x3"
}
layer {
  name: "inception_4c/5x5_reduce"
  type: "Convolution"
  bottom: "inception_4b/output"
  top: "inception_4c/5x5_reduce"
  param {
    lr_mult: 1
    decay_mult: 1
  }
  param {
    lr_mult: 2
    decay_mult: 0
  }
  convolution_param {
    num_output: 24
    kernel_size: 1
    weight_filler {
      type: "xavier"
      std: 0.2
    }
    bias_filler {
      type: "constant"
      value: 0.2
    }
  }
}
layer {
  name: "inception_4c/relu_5x5_reduce"
  type: "ReLU"
  bottom: "inception_4c/5x5_reduce"
  top: "inception_4c/5x5_reduce"
}
layer {
  name: "inception_4c/5x5"
  type: "Convolution"
  bottom: "inception_4c/5x5_reduce"
  top: "inception_4c/5x5"
  param {
    lr_mult: 1
    decay_mult: 1
  }
  param {
    lr_mult: 2
    decay_mult: 0
  }
  convolution_param {
    num_output: 64
    pad: 2
    kernel_size: 5
    weight_filler {
      type: "xavier"
      std: 0.03
    }
    bias_filler {
      type: "constant"
      value: 0.2
    }
  }
}
layer {
  name: "inception_4c/relu_5x5"
  type: "ReLU"
  bottom: "inception_4c/5x5"
  top: "inception_4c/5x5"
}
layer {
  name: "inception_4c/pool"
  type: "Pooling"
  bottom: "inception_4b/output"
  top: "inception_4c/pool"
  pooling_param {
    pool: MAX
    kernel_size: 3
    stride: 1
    pad: 1
  }
}
layer {
  name: "inception_4c/pool_proj"
  type: "Convolution"
  bottom: "inception_4c/pool"
  top: "inception_4c/pool_proj"
  param {
    lr_mult: 1
    decay_mult: 1
  }
  param {
    lr_mult: 2
    decay_mult: 0
  }
  convolution_param {
    num_output: 64
    kernel_size: 1
    weight_filler {
      type: "xavier"
      std: 0.1
    }
    bias_filler {
      type: "constant"
      value: 0.2
    }
  }
}
layer {
  name: "inception_4c/relu_pool_proj"
  type: "ReLU"
  bottom: "inception_4c/pool_proj"
  top: "inception_4c/pool_proj"
}
layer {
  name: "inception_4c/output"
  type: "Concat"
  bottom: "inception_4c/1x1"
  bottom: "inception_4c/3x3"
  bottom: "inception_4c/5x5"
  bottom: "inception_4c/pool_proj"
  top: "inception_4c/output"
}
layer {
  name: "inception_4d/1x1"
  type: "Convolution"
  bottom: "inception_4c/output"
  top: "inception_4d/1x1"
  param {
    lr_mult: 1
    decay_mult: 1
  }
  param {
    lr_mult: 2
    decay_mult: 0
  }
  convolution_param {
    num_output: 112
    kernel_size: 1
    weight_filler {
      type: "xavier"
      std: 0.03
    }
    bias_filler {
      type: "constant"
      value: 0.2
    }
  }
}
layer {
  name: "inception_4d/relu_1x1"
  type: "ReLU"
  bottom: "inception_4d/1x1"
  top: "inception_4d/1x1"
}
layer {
  name: "inception_4d/3x3_reduce"
  type: "Convolution"
  bottom: "inception_4c/output"
  top: "inception_4d/3x3_reduce"
  param {
    lr_mult: 1
    decay_mult: 1
  }
  param {
    lr_mult: 2
    decay_mult: 0
  }
  convolution_param {
    num_output: 144
    kernel_size: 1
    weight_filler {
      type: "xavier"
      std: 0.09
    }
    bias_filler {
      type: "constant"
      value: 0.2
    }
  }
}
layer {
  name: "inception_4d/relu_3x3_reduce"
  type: "ReLU"
  bottom: "inception_4d/3x3_reduce"
  top: "inception_4d/3x3_reduce"
}
layer {
  name: "inception_4d/3x3"
  type: "Convolution"
  bottom: "inception_4d/3x3_reduce"
  top: "inception_4d/3x3"
  param {
    lr_mult: 1
    decay_mult: 1
  }
  param {
    lr_mult: 2
    decay_mult: 0
  }
  convolution_param {
    num_output: 288
    pad: 1
    kernel_size: 3
    weight_filler {
      type: "xavier"
      std: 0.03
    }
    bias_filler {
      type: "constant"
      value: 0.2
    }
  }
}
layer {
  name: "inception_4d/relu_3x3"
  type: "ReLU"
  bottom: "inception_4d/3x3"
  top: "inception_4d/3x3"
}
layer {
  name: "inception_4d/5x5_reduce"
  type: "Convolution"
  bottom: "inception_4c/output"
  top: "inception_4d/5x5_reduce"
  param {
    lr_mult: 1
    decay_mult: 1
  }
  param {
    lr_mult: 2
    decay_mult: 0
  }
  convolution_param {
    num_output: 32
    kernel_size: 1
    weight_filler {
      type: "xavier"
      std: 0.2
    }
    bias_filler {
      type: "constant"
      value: 0.2
    }
  }
}
layer {
  name: "inception_4d/relu_5x5_reduce"
  type: "ReLU"
  bottom: "inception_4d/5x5_reduce"
  top: "inception_4d/5x5_reduce"
}
layer {
  name: "inception_4d/5x5"
  type: "Convolution"
  bottom: "inception_4d/5x5_reduce"
  top: "inception_4d/5x5"
  param {
    lr_mult: 1
    decay_mult: 1
  }
  param {
    lr_mult: 2
    decay_mult: 0
  }
  convolution_param {
    num_output: 64
    pad: 2
    kernel_size: 5
    weight_filler {
      type: "xavier"
      std: 0.03
    }
    bias_filler {
      type: "constant"
      value: 0.2
    }
  }
}
layer {
  name: "inception_4d/relu_5x5"
  type: "ReLU"
  bottom: "inception_4d/5x5"
  top: "inception_4d/5x5"
}
layer {
  name: "inception_4d/pool"
  type: "Pooling"
  bottom: "inception_4c/output"
  top: "inception_4d/pool"
  pooling_param {
    pool: MAX
    kernel_size: 3
    stride: 1
    pad: 1
  }
}
layer {
  name: "inception_4d/pool_proj"
  type: "Convolution"
  bottom: "inception_4d/pool"
  top: "inception_4d/pool_proj"
  param {
    lr_mult: 1
    decay_mult: 1
  }
  param {
    lr_mult: 2
    decay_mult: 0
  }
  convolution_param {
    num_output: 64
    kernel_size: 1
    weight_filler {
      type: "xavier"
      std: 0.1
    }
    bias_filler {
      type: "constant"
      value: 0.2
    }
  }
}
layer {
  name: "inception_4d/relu_pool_proj"
  type: "ReLU"
  bottom: "inception_4d/pool_proj"
  top: "inception_4d/pool_proj"
}
layer {
  name: "inception_4d/output"
  type: "Concat"
  bottom: "inception_4d/1x1"
  bottom: "inception_4d/3x3"
  bottom: "inception_4d/5x5"
  bottom: "inception_4d/pool_proj"
  top: "inception_4d/output"
}
layer {
  name: "loss2/ave_pool"
  type: "Pooling"
  bottom: "inception_4d/output"
  top: "loss2/ave_pool"
  pooling_param {
    pool: AVE
    kernel_size: 5
    stride: 3
  }
}
layer {
  name: "loss2/conv"
  type: "Convolution"
  bottom: "loss2/ave_pool"
  top: "loss2/conv"
  param {
    lr_mult: 1
    decay_mult: 1
  }
  param {
    lr_mult: 2
    decay_mult: 0
  }
  convolution_param {
    num_output: 128
    kernel_size: 1
    weight_filler {
      type: "xavier"
      std: 0.08
    }
    bias_filler {
      type: "constant"
      value: 0.2
    }
  }
}
layer {
  name: "loss2/relu_conv"
  type: "ReLU"
  bottom: "loss2/conv"
  top: "loss2/conv"
}
layer {
  name: "loss2/fc"
  type: "InnerProduct"
  bottom: "loss2/conv"
  top: "loss2/fc"
  param {
    lr_mult: 1
    decay_mult: 1
  }
  param {
    lr_mult: 2
    decay_mult: 0
  }
  inner_product_param {
    num_output: 1024
    weight_filler {
      type: "xavier"
      std: 0.02
    }
    bias_filler {
      type: "constant"
      value: 0.2
    }
  }
}
layer {
  name: "loss2/relu_fc"
  type: "ReLU"
  bottom: "loss2/fc"
  top: "loss2/fc"
}
layer {
  name: "loss2/drop_fc"
  type: "Dropout"
  bottom: "loss2/fc"
  top: "loss2/fc"
  dropout_param {
    dropout_ratio: 0.7
  }
}
layer {
  name: "loss2/classifier_plantvillage"
  type: "InnerProduct"
  bottom: "loss2/fc"
  top: "loss2/classifier_plantvillage"
  param {
    lr_mult: 1
    decay_mult: 1
  }
  param {
    lr_mult: 2
    decay_mult: 0
  }
  inner_product_param {
    num_output: 38
    weight_filler {
      type: "xavier"
      std: 0.0009765625
    }
    bias_filler {
      type: "constant"
      value: 0
    }
  }
}
layer {
  name: "inception_4e/1x1"
  type: "Convolution"
  bottom: "inception_4d/output"
  top: "inception_4e/1x1"
  param {
    lr_mult: 1
    decay_mult: 1
  }
  param {
    lr_mult: 2
    decay_mult: 0
  }
  convolution_param {
    num_output: 256
    kernel_size: 1
    weight_filler {
      type: "xavier"
      std: 0.03
    }
    bias_filler {
      type: "constant"
      value: 0.2
    }
  }
}
layer {
  name: "inception_4e/relu_1x1"
  type: "ReLU"
  bottom: "inception_4e/1x1"
  top: "inception_4e/1x1"
}
layer {
  name: "inception_4e/3x3_reduce"
  type: "Convolution"
  bottom: "inception_4d/output"
  top: "inception_4e/3x3_reduce"
  param {
    lr_mult: 1
    decay_mult: 1
  }
  param {
    lr_mult: 2
    decay_mult: 0
  }
  convolution_param {
    num_output: 160
    kernel_size: 1
    weight_filler {
      type: "xavier"
      std: 0.09
    }
    bias_filler {
      type: "constant"
      value: 0.2
    }
  }
}
layer {
  name: "inception_4e/relu_3x3_reduce"
  type: "ReLU"
  bottom: "inception_4e/3x3_reduce"
  top: "inception_4e/3x3_reduce"
}
layer {
  name: "inception_4e/3x3"
  type: "Convolution"
  bottom: "inception_4e/3x3_reduce"
  top: "inception_4e/3x3"
  param {
    lr_mult: 1
    decay_mult: 1
  }
  param {
    lr_mult: 2
    decay_mult: 0
  }
  convolution_param {
    num_output: 320
    pad: 1
    kernel_size: 3
    weight_filler {
      type: "xavier"
      std: 0.03
    }
    bias_filler {
      type: "constant"
      value: 0.2
    }
  }
}
layer {
  name: "inception_4e/relu_3x3"
  type: "ReLU"
  bottom: "inception_4e/3x3"
  top: "inception_4e/3x3"
}
layer {
  name: "inception_4e/5x5_reduce"
  type: "Convolution"
  bottom: "inception_4d/output"
  top: "inception_4e/5x5_reduce"
  param {
    lr_mult: 1
    decay_mult: 1
  }
  param {
    lr_mult: 2
    decay_mult: 0
  }
  convolution_param {
    num_output: 32
    kernel_size: 1
    weight_filler {
      type: "xavier"
      std: 0.2
    }
    bias_filler {
      type: "constant"
      value: 0.2
    }
  }
}
layer {
  name: "inception_4e/relu_5x5_reduce"
  type: "ReLU"
  bottom: "inception_4e/5x5_reduce"
  top: "inception_4e/5x5_reduce"
}
layer {
  name: "inception_4e/5x5"
  type: "Convolution"
  bottom: "inception_4e/5x5_reduce"
  top: "inception_4e/5x5"
  p
I0403 15:38:36.430184 15721 layer_factory.hpp:77] Creating layer data
I0403 15:38:36.430794 15721 net.cpp:91] Creating Layer data
I0403 15:38:36.430822 15721 net.cpp:399] data -> data
I0403 15:38:36.430874 15721 net.cpp:399] data -> label
I0403 15:38:36.430909 15721 data_transformer.cpp:25] Loading mean file from: /home/mohanty/data/final_dataset/lmdb/color-50-50/mean.binaryproto
I0403 15:38:36.433514 15724 db_lmdb.cpp:38] Opened lmdb /home/mohanty/data/final_dataset/lmdb/color-50-50/test_db
I0403 15:38:36.444198 15721 data_layer.cpp:41] output data size: 24,3,224,224
I0403 15:38:36.471366 15721 net.cpp:141] Setting up data
I0403 15:38:36.471437 15721 net.cpp:148] Top shape: 24 3 224 224 (3612672)
I0403 15:38:36.471460 15721 net.cpp:148] Top shape: 24 (24)
I0403 15:38:36.471477 15721 net.cpp:156] Memory required for data: 14450784
I0403 15:38:36.471504 15721 layer_factory.hpp:77] Creating layer label_data_1_split
I0403 15:38:36.471532 15721 net.cpp:91] Creating Layer label_data_1_split
I0403 15:38:36.471556 15721 net.cpp:425] label_data_1_split <- label
I0403 15:38:36.471591 15721 net.cpp:399] label_data_1_split -> label_data_1_split_0
I0403 15:38:36.471619 15721 net.cpp:399] label_data_1_split -> label_data_1_split_1
I0403 15:38:36.471642 15721 net.cpp:399] label_data_1_split -> label_data_1_split_2
I0403 15:38:36.471662 15721 net.cpp:399] label_data_1_split -> label_data_1_split_3
I0403 15:38:36.471683 15721 net.cpp:399] label_data_1_split -> label_data_1_split_4
I0403 15:38:36.471704 15721 net.cpp:399] label_data_1_split -> label_data_1_split_5
I0403 15:38:36.471724 15721 net.cpp:399] label_data_1_split -> label_data_1_split_6
I0403 15:38:36.471743 15721 net.cpp:399] label_data_1_split -> label_data_1_split_7
I0403 15:38:36.471765 15721 net.cpp:399] label_data_1_split -> label_data_1_split_8
I0403 15:38:36.471786 15721 net.cpp:399] label_data_1_split -> label_data_1_split_9
I0403 15:38:36.471900 15721 net.cpp:141] Setting up label_data_1_split
I0403 15:38:36.471925 15721 net.cpp:148] Top shape: 24 (24)
I0403 15:38:36.471941 15721 net.cpp:148] Top shape: 24 (24)
I0403 15:38:36.471956 15721 net.cpp:148] Top shape: 24 (24)
I0403 15:38:36.471972 15721 net.cpp:148] Top shape: 24 (24)
I0403 15:38:36.471987 15721 net.cpp:148] Top shape: 24 (24)
I0403 15:38:36.472002 15721 net.cpp:148] Top shape: 24 (24)
I0403 15:38:36.472018 15721 net.cpp:148] Top shape: 24 (24)
I0403 15:38:36.472033 15721 net.cpp:148] Top shape: 24 (24)
I0403 15:38:36.472048 15721 net.cpp:148] Top shape: 24 (24)
I0403 15:38:36.472064 15721 net.cpp:148] Top shape: 24 (24)
I0403 15:38:36.472116 15721 net.cpp:156] Memory required for data: 14451744
I0403 15:38:36.472132 15721 layer_factory.hpp:77] Creating layer conv1/7x7_s2
I0403 15:38:36.472163 15721 net.cpp:91] Creating Layer conv1/7x7_s2
I0403 15:38:36.472182 15721 net.cpp:425] conv1/7x7_s2 <- data
I0403 15:38:36.472200 15721 net.cpp:399] conv1/7x7_s2 -> conv1/7x7_s2
I0403 15:38:36.616364 15721 net.cpp:141] Setting up conv1/7x7_s2
I0403 15:38:36.616433 15721 net.cpp:148] Top shape: 24 64 112 112 (19267584)
I0403 15:38:36.616451 15721 net.cpp:156] Memory required for data: 91522080
I0403 15:38:36.616482 15721 layer_factory.hpp:77] Creating layer conv1/relu_7x7
I0403 15:38:36.616509 15721 net.cpp:91] Creating Layer conv1/relu_7x7
I0403 15:38:36.616528 15721 net.cpp:425] conv1/relu_7x7 <- conv1/7x7_s2
I0403 15:38:36.616554 15721 net.cpp:386] conv1/relu_7x7 -> conv1/7x7_s2 (in-place)
I0403 15:38:36.616855 15721 net.cpp:141] Setting up conv1/relu_7x7
I0403 15:38:36.616883 15721 net.cpp:148] Top shape: 24 64 112 112 (19267584)
I0403 15:38:36.616899 15721 net.cpp:156] Memory required for data: 168592416
I0403 15:38:36.616914 15721 layer_factory.hpp:77] Creating layer pool1/3x3_s2
I0403 15:38:36.616938 15721 net.cpp:91] Creating Layer pool1/3x3_s2
I0403 15:38:36.616955 15721 net.cpp:425] pool1/3x3_s2 <- conv1/7x7_s2
I0403 15:38:36.616974 15721 net.cpp:399] pool1/3x3_s2 -> pool1/3x3_s2
I0403 15:38:36.617049 15721 net.cpp:141] Setting up pool1/3x3_s2
I0403 15:38:36.617074 15721 net.cpp:148] Top shape: 24 64 56 56 (4816896)
I0403 15:38:36.617089 15721 net.cpp:156] Memory required for data: 187860000
I0403 15:38:36.617103 15721 layer_factory.hpp:77] Creating layer pool1/norm1
I0403 15:38:36.617126 15721 net.cpp:91] Creating Layer pool1/norm1
I0403 15:38:36.617143 15721 net.cpp:425] pool1/norm1 <- pool1/3x3_s2
I0403 15:38:36.617161 15721 net.cpp:399] pool1/norm1 -> pool1/norm1
I0403 15:38:36.617449 15721 net.cpp:141] Setting up pool1/norm1
I0403 15:38:36.617477 15721 net.cpp:148] Top shape: 24 64 56 56 (4816896)
I0403 15:38:36.617492 15721 net.cpp:156] Memory required for data: 207127584
I0403 15:38:36.617507 15721 layer_factory.hpp:77] Creating layer conv2/3x3_reduce
I0403 15:38:36.617530 15721 net.cpp:91] Creating Layer conv2/3x3_reduce
I0403 15:38:36.617552 15721 net.cpp:425] conv2/3x3_reduce <- pool1/norm1
I0403 15:38:36.617571 15721 net.cpp:399] conv2/3x3_reduce -> conv2/3x3_reduce
I0403 15:38:36.619017 15721 net.cpp:141] Setting up conv2/3x3_reduce
I0403 15:38:36.619047 15721 net.cpp:148] Top shape: 24 64 56 56 (4816896)
I0403 15:38:36.619065 15721 net.cpp:156] Memory required for data: 226395168
I0403 15:38:36.619086 15721 layer_factory.hpp:77] Creating layer conv2/relu_3x3_reduce
I0403 15:38:36.619107 15721 net.cpp:91] Creating Layer conv2/relu_3x3_reduce
I0403 15:38:36.619123 15721 net.cpp:425] conv2/relu_3x3_reduce <- conv2/3x3_reduce
I0403 15:38:36.619141 15721 net.cpp:386] conv2/relu_3x3_reduce -> conv2/3x3_reduce (in-place)
I0403 15:38:36.619413 15721 net.cpp:141] Setting up conv2/relu_3x3_reduce
I0403 15:38:36.619441 15721 net.cpp:148] Top shape: 24 64 56 56 (4816896)
I0403 15:38:36.619457 15721 net.cpp:156] Memory required for data: 245662752
I0403 15:38:36.619472 15721 layer_factory.hpp:77] Creating layer conv2/3x3
I0403 15:38:36.619496 15721 net.cpp:91] Creating Layer conv2/3x3
I0403 15:38:36.619515 15721 net.cpp:425] conv2/3x3 <- conv2/3x3_reduce
I0403 15:38:36.619534 15721 net.cpp:399] conv2/3x3 -> conv2/3x3
I0403 15:38:36.621999 15721 net.cpp:141] Setting up conv2/3x3
I0403 15:38:36.622030 15721 net.cpp:148] Top shape: 24 192 56 56 (14450688)
I0403 15:38:36.622046 15721 net.cpp:156] Memory required for data: 303465504
I0403 15:38:36.622067 15721 layer_factory.hpp:77] Creating layer conv2/relu_3x3
I0403 15:38:36.622089 15721 net.cpp:91] Creating Layer conv2/relu_3x3
I0403 15:38:36.622107 15721 net.cpp:425] conv2/relu_3x3 <- conv2/3x3
I0403 15:38:36.622124 15721 net.cpp:386] conv2/relu_3x3 -> conv2/3x3 (in-place)
I0403 15:38:36.622309 15721 net.cpp:141] Setting up conv2/relu_3x3
I0403 15:38:36.622335 15721 net.cpp:148] Top shape: 24 192 56 56 (14450688)
I0403 15:38:36.622390 15721 net.cpp:156] Memory required for data: 361268256
I0403 15:38:36.622406 15721 layer_factory.hpp:77] Creating layer conv2/norm2
I0403 15:38:36.622423 15721 net.cpp:91] Creating Layer conv2/norm2
I0403 15:38:36.622439 15721 net.cpp:425] conv2/norm2 <- conv2/3x3
I0403 15:38:36.622458 15721 net.cpp:399] conv2/norm2 -> conv2/norm2
I0403 15:38:36.622779 15721 net.cpp:141] Setting up conv2/norm2
I0403 15:38:36.622807 15721 net.cpp:148] Top shape: 24 192 56 56 (14450688)
I0403 15:38:36.622822 15721 net.cpp:156] Memory required for data: 419071008
I0403 15:38:36.622836 15721 layer_factory.hpp:77] Creating layer pool2/3x3_s2
I0403 15:38:36.622854 15721 net.cpp:91] Creating Layer pool2/3x3_s2
I0403 15:38:36.622870 15721 net.cpp:425] pool2/3x3_s2 <- conv2/norm2
I0403 15:38:36.622892 15721 net.cpp:399] pool2/3x3_s2 -> pool2/3x3_s2
I0403 15:38:36.622949 15721 net.cpp:141] Setting up pool2/3x3_s2
I0403 15:38:36.622973 15721 net.cpp:148] Top shape: 24 192 28 28 (3612672)
I0403 15:38:36.622988 15721 net.cpp:156] Memory required for data: 433521696
I0403 15:38:36.623003 15721 layer_factory.hpp:77] Creating layer pool2/3x3_s2_pool2/3x3_s2_0_split
I0403 15:38:36.623020 15721 net.cpp:91] Creating Layer pool2/3x3_s2_pool2/3x3_s2_0_split
I0403 15:38:36.623037 15721 net.cpp:425] pool2/3x3_s2_pool2/3x3_s2_0_split <- pool2/3x3_s2
I0403 15:38:36.623057 15721 net.cpp:399] pool2/3x3_s2_pool2/3x3_s2_0_split -> pool2/3x3_s2_pool2/3x3_s2_0_split_0
I0403 15:38:36.623078 15721 net.cpp:399] pool2/3x3_s2_pool2/3x3_s2_0_split -> pool2/3x3_s2_pool2/3x3_s2_0_split_1
I0403 15:38:36.623098 15721 net.cpp:399] pool2/3x3_s2_pool2/3x3_s2_0_split -> pool2/3x3_s2_pool2/3x3_s2_0_split_2
I0403 15:38:36.623117 15721 net.cpp:399] pool2/3x3_s2_pool2/3x3_s2_0_split -> pool2/3x3_s2_pool2/3x3_s2_0_split_3
I0403 15:38:36.623189 15721 net.cpp:141] Setting up pool2/3x3_s2_pool2/3x3_s2_0_split
I0403 15:38:36.623214 15721 net.cpp:148] Top shape: 24 192 28 28 (3612672)
I0403 15:38:36.623232 15721 net.cpp:148] Top shape: 24 192 28 28 (3612672)
I0403 15:38:36.623247 15721 net.cpp:148] Top shape: 24 192 28 28 (3612672)
I0403 15:38:36.623262 15721 net.cpp:148] Top shape: 24 192 28 28 (3612672)
I0403 15:38:36.623275 15721 net.cpp:156] Memory required for data: 491324448
I0403 15:38:36.623289 15721 layer_factory.hpp:77] Creating layer inception_3a/1x1
I0403 15:38:36.623312 15721 net.cpp:91] Creating Layer inception_3a/1x1
I0403 15:38:36.623329 15721 net.cpp:425] inception_3a/1x1 <- pool2/3x3_s2_pool2/3x3_s2_0_split_0
I0403 15:38:36.623347 15721 net.cpp:399] inception_3a/1x1 -> inception_3a/1x1
I0403 15:38:36.624981 15721 net.cpp:141] Setting up inception_3a/1x1
I0403 15:38:36.625012 15721 net.cpp:148] Top shape: 24 64 28 28 (1204224)
I0403 15:38:36.625028 15721 net.cpp:156] Memory required for data: 496141344
I0403 15:38:36.625047 15721 layer_factory.hpp:77] Creating layer inception_3a/relu_1x1
I0403 15:38:36.625068 15721 net.cpp:91] Creating Layer inception_3a/relu_1x1
I0403 15:38:36.625085 15721 net.cpp:425] inception_3a/relu_1x1 <- inception_3a/1x1
I0403 15:38:36.625102 15721 net.cpp:386] inception_3a/relu_1x1 -> inception_3a/1x1 (in-place)
I0403 15:38:36.625345 15721 net.cpp:141] Setting up inception_3a/relu_1x1
I0403 15:38:36.625375 15721 net.cpp:148] Top shape: 24 64 28 28 (1204224)
I0403 15:38:36.625391 15721 net.cpp:156] Memory required for data: 500958240
I0403 15:38:36.625404 15721 layer_factory.hpp:77] Creating layer inception_3a/3x3_reduce
I0403 15:38:36.625427 15721 net.cpp:91] Creating Layer inception_3a/3x3_reduce
I0403 15:38:36.625444 15721 net.cpp:425] inception_3a/3x3_reduce <- pool2/3x3_s2_pool2/3x3_s2_0_split_1
I0403 15:38:36.625463 15721 net.cpp:399] inception_3a/3x3_reduce -> inception_3a/3x3_reduce
I0403 15:38:36.627213 15721 net.cpp:141] Setting up inception_3a/3x3_reduce
I0403 15:38:36.627243 15721 net.cpp:148] Top shape: 24 96 28 28 (1806336)
I0403 15:38:36.627259 15721 net.cpp:156] Memory required for data: 508183584
I0403 15:38:36.627280 15721 layer_factory.hpp:77] Creating layer inception_3a/relu_3x3_reduce
I0403 15:38:36.627316 15721 net.cpp:91] Creating Layer inception_3a/relu_3x3_reduce
I0403 15:38:36.627334 15721 net.cpp:425] inception_3a/relu_3x3_reduce <- inception_3a/3x3_reduce
I0403 15:38:36.627353 15721 net.cpp:386] inception_3a/relu_3x3_reduce -> inception_3a/3x3_reduce (in-place)
I0403 15:38:36.627535 15721 net.cpp:141] Setting up inception_3a/relu_3x3_reduce
I0403 15:38:36.627564 15721 net.cpp:148] Top shape: 24 96 28 28 (1806336)
I0403 15:38:36.627580 15721 net.cpp:156] Memory required for data: 515408928
I0403 15:38:36.627594 15721 layer_factory.hpp:77] Creating layer inception_3a/3x3
I0403 15:38:36.627616 15721 net.cpp:91] Creating Layer inception_3a/3x3
I0403 15:38:36.627634 15721 net.cpp:425] inception_3a/3x3 <- inception_3a/3x3_reduce
I0403 15:38:36.627655 15721 net.cpp:399] inception_3a/3x3 -> inception_3a/3x3
I0403 15:38:36.629293 15721 net.cpp:141] Setting up inception_3a/3x3
I0403 15:38:36.629323 15721 net.cpp:148] Top shape: 24 128 28 28 (2408448)
I0403 15:38:36.629340 15721 net.cpp:156] Memory required for data: 525042720
I0403 15:38:36.629359 15721 layer_factory.hpp:77] Creating layer inception_3a/relu_3x3
I0403 15:38:36.629376 15721 net.cpp:91] Creating Layer inception_3a/relu_3x3
I0403 15:38:36.629390 15721 net.cpp:425] inception_3a/relu_3x3 <- inception_3a/3x3
I0403 15:38:36.629407 15721 net.cpp:386] inception_3a/relu_3x3 -> inception_3a/3x3 (in-place)
I0403 15:38:36.629683 15721 net.cpp:141] Setting up inception_3a/relu_3x3
I0403 15:38:36.629711 15721 net.cpp:148] Top shape: 24 128 28 28 (2408448)
I0403 15:38:36.629727 15721 net.cpp:156] Memory required for data: 534676512
I0403 15:38:36.629742 15721 layer_factory.hpp:77] Creating layer inception_3a/5x5_reduce
I0403 15:38:36.629761 15721 net.cpp:91] Creating Layer inception_3a/5x5_reduce
I0403 15:38:36.629777 15721 net.cpp:425] inception_3a/5x5_reduce <- pool2/3x3_s2_pool2/3x3_s2_0_split_2
I0403 15:38:36.629798 15721 net.cpp:399] inception_3a/5x5_reduce -> inception_3a/5x5_reduce
I0403 15:38:36.630751 15721 net.cpp:141] Setting up inception_3a/5x5_reduce
I0403 15:38:36.630781 15721 net.cpp:148] Top shape: 24 16 28 28 (301056)
I0403 15:38:36.630797 15721 net.cpp:156] Memory required for data: 535880736
I0403 15:38:36.630815 15721 layer_factory.hpp:77] Creating layer inception_3a/relu_5x5_reduce
I0403 15:38:36.630833 15721 net.cpp:91] Creating Layer inception_3a/relu_5x5_reduce
I0403 15:38:36.630849 15721 net.cpp:425] inception_3a/relu_5x5_reduce <- inception_3a/5x5_reduce
I0403 15:38:36.630866 15721 net.cpp:386] inception_3a/relu_5x5_reduce -> inception_3a/5x5_reduce (in-place)
I0403 15:38:36.631156 15721 net.cpp:141] Setting up inception_3a/relu_5x5_reduce
I0403 15:38:36.631182 15721 net.cpp:148] Top shape: 24 16 28 28 (301056)
I0403 15:38:36.631197 15721 net.cpp:156] Memory required for data: 537084960
I0403 15:38:36.631211 15721 layer_factory.hpp:77] Creating layer inception_3a/5x5
I0403 15:38:36.631233 15721 net.cpp:91] Creating Layer inception_3a/5x5
I0403 15:38:36.631250 15721 net.cpp:425] inception_3a/5x5 <- inception_3a/5x5_reduce
I0403 15:38:36.631270 15721 net.cpp:399] inception_3a/5x5 -> inception_3a/5x5
I0403 15:38:36.632287 15721 net.cpp:141] Setting up inception_3a/5x5
I0403 15:38:36.632314 15721 net.cpp:148] Top shape: 24 32 28 28 (602112)
I0403 15:38:36.632329 15721 net.cpp:156] Memory required for data: 539493408
I0403 15:38:36.632347 15721 layer_factory.hpp:77] Creating layer inception_3a/relu_5x5
I0403 15:38:36.632367 15721 net.cpp:91] Creating Layer inception_3a/relu_5x5
I0403 15:38:36.632385 15721 net.cpp:425] inception_3a/relu_5x5 <- inception_3a/5x5
I0403 15:38:36.632400 15721 net.cpp:386] inception_3a/relu_5x5 -> inception_3a/5x5 (in-place)
I0403 15:38:36.632577 15721 net.cpp:141] Setting up inception_3a/relu_5x5
I0403 15:38:36.632603 15721 net.cpp:148] Top shape: 24 32 28 28 (602112)
I0403 15:38:36.632619 15721 net.cpp:156] Memory required for data: 541901856
I0403 15:38:36.632633 15721 layer_factory.hpp:77] Creating layer inception_3a/pool
I0403 15:38:36.632652 15721 net.cpp:91] Creating Layer inception_3a/pool
I0403 15:38:36.632666 15721 net.cpp:425] inception_3a/pool <- pool2/3x3_s2_pool2/3x3_s2_0_split_3
I0403 15:38:36.632702 15721 net.cpp:399] inception_3a/pool -> inception_3a/pool
I0403 15:38:36.632761 15721 net.cpp:141] Setting up inception_3a/pool
I0403 15:38:36.632784 15721 net.cpp:148] Top shape: 24 192 28 28 (3612672)
I0403 15:38:36.632798 15721 net.cpp:156] Memory required for data: 556352544
I0403 15:38:36.632812 15721 layer_factory.hpp:77] Creating layer inception_3a/pool_proj
I0403 15:38:36.632834 15721 net.cpp:91] Creating Layer inception_3a/pool_proj
I0403 15:38:36.632850 15721 net.cpp:425] inception_3a/pool_proj <- inception_3a/pool
I0403 15:38:36.632871 15721 net.cpp:399] inception_3a/pool_proj -> inception_3a/pool_proj
I0403 15:38:36.633831 15721 net.cpp:141] Setting up inception_3a/pool_proj
I0403 15:38:36.633857 15721 net.cpp:148] Top shape: 24 32 28 28 (602112)
I0403 15:38:36.633873 15721 net.cpp:156] Memory required for data: 558760992
I0403 15:38:36.633896 15721 layer_factory.hpp:77] Creating layer inception_3a/relu_pool_proj
I0403 15:38:36.633915 15721 net.cpp:91] Creating Layer inception_3a/relu_pool_proj
I0403 15:38:36.633931 15721 net.cpp:425] inception_3a/relu_pool_proj <- inception_3a/pool_proj
I0403 15:38:36.633947 15721 net.cpp:386] inception_3a/relu_pool_proj -> inception_3a/pool_proj (in-place)
I0403 15:38:36.634222 15721 net.cpp:141] Setting up inception_3a/relu_pool_proj
I0403 15:38:36.634249 15721 net.cpp:148] Top shape: 24 32 28 28 (602112)
I0403 15:38:36.634265 15721 net.cpp:156] Memory required for data: 561169440
I0403 15:38:36.634280 15721 layer_factory.hpp:77] Creating layer inception_3a/output
I0403 15:38:36.634297 15721 net.cpp:91] Creating Layer inception_3a/output
I0403 15:38:36.634312 15721 net.cpp:425] inception_3a/output <- inception_3a/1x1
I0403 15:38:36.634328 15721 net.cpp:425] inception_3a/output <- inception_3a/3x3
I0403 15:38:36.634342 15721 net.cpp:425] inception_3a/output <- inception_3a/5x5
I0403 15:38:36.634358 15721 net.cpp:425] inception_3a/output <- inception_3a/pool_proj
I0403 15:38:36.634374 15721 net.cpp:399] inception_3a/output -> inception_3a/output
I0403 15:38:36.634421 15721 net.cpp:141] Setting up inception_3a/output
I0403 15:38:36.634444 15721 net.cpp:148] Top shape: 24 256 28 28 (4816896)
I0403 15:38:36.634459 15721 net.cpp:156] Memory required for data: 580437024
I0403 15:38:36.634474 15721 layer_factory.hpp:77] Creating layer inception_3a/output_inception_3a/output_0_split
I0403 15:38:36.634490 15721 net.cpp:91] Creating Layer inception_3a/output_inception_3a/output_0_split
I0403 15:38:36.634508 15721 net.cpp:425] inception_3a/output_inception_3a/output_0_split <- inception_3a/output
I0403 15:38:36.634526 15721 net.cpp:399] inception_3a/output_inception_3a/output_0_split -> inception_3a/output_inception_3a/output_0_split_0
I0403 15:38:36.634562 15721 net.cpp:399] inception_3a/output_inception_3a/output_0_split -> inception_3a/output_inception_3a/output_0_split_1
I0403 15:38:36.634591 15721 net.cpp:399] inception_3a/output_inception_3a/output_0_split -> inception_3a/output_inception_3a/output_0_split_2
I0403 15:38:36.634614 15721 net.cpp:399] inception_3a/output_inception_3a/output_0_split -> inception_3a/output_inception_3a/output_0_split_3
I0403 15:38:36.634692 15721 net.cpp:141] Setting up inception_3a/output_inception_3a/output_0_split
I0403 15:38:36.634724 15721 net.cpp:148] Top shape: 24 256 28 28 (4816896)
I0403 15:38:36.634744 15721 net.cpp:148] Top shape: 24 256 28 28 (4816896)
I0403 15:38:36.634760 15721 net.cpp:148] Top shape: 24 256 28 28 (4816896)
I0403 15:38:36.634776 15721 net.cpp:148] Top shape: 24 256 28 28 (4816896)
I0403 15:38:36.634789 15721 net.cpp:156] Memory required for data: 657507360
I0403 15:38:36.634804 15721 layer_factory.hpp:77] Creating layer inception_3b/1x1
I0403 15:38:36.634825 15721 net.cpp:91] Creating Layer inception_3b/1x1
I0403 15:38:36.634842 15721 net.cpp:425] inception_3b/1x1 <- inception_3a/output_inception_3a/output_0_split_0
I0403 15:38:36.634863 15721 net.cpp:399] inception_3b/1x1 -> inception_3b/1x1
I0403 15:38:36.636036 15721 net.cpp:141] Setting up inception_3b/1x1
I0403 15:38:36.636077 15721 net.cpp:148] Top shape: 24 128 28 28 (2408448)
I0403 15:38:36.636093 15721 net.cpp:156] Memory required for data: 667141152
I0403 15:38:36.636111 15721 layer_factory.hpp:77] Creating layer inception_3b/relu_1x1
I0403 15:38:36.636132 15721 net.cpp:91] Creating Layer inception_3b/relu_1x1
I0403 15:38:36.636149 15721 net.cpp:425] inception_3b/relu_1x1 <- inception_3b/1x1
I0403 15:38:36.636168 15721 net.cpp:386] inception_3b/relu_1x1 -> inception_3b/1x1 (in-place)
I0403 15:38:36.636346 15721 net.cpp:141] Setting up inception_3b/relu_1x1
I0403 15:38:36.636373 15721 net.cpp:148] Top shape: 24 128 28 28 (2408448)
I0403 15:38:36.636389 15721 net.cpp:156] Memory required for data: 676774944
I0403 15:38:36.636404 15721 layer_factory.hpp:77] Creating layer inception_3b/3x3_reduce
I0403 15:38:36.636426 15721 net.cpp:91] Creating Layer inception_3b/3x3_reduce
I0403 15:38:36.636443 15721 net.cpp:425] inception_3b/3x3_reduce <- inception_3a/output_inception_3a/output_0_split_1
I0403 15:38:36.636462 15721 net.cpp:399] inception_3b/3x3_reduce -> inception_3b/3x3_reduce
I0403 15:38:36.637673 15721 net.cpp:141] Setting up inception_3b/3x3_reduce
I0403 15:38:36.637702 15721 net.cpp:148] Top shape: 24 128 28 28 (2408448)
I0403 15:38:36.637718 15721 net.cpp:156] Memory required for data: 686408736
I0403 15:38:36.637737 15721 layer_factory.hpp:77] Creating layer inception_3b/relu_3x3_reduce
I0403 15:38:36.637758 15721 net.cpp:91] Creating Layer inception_3b/relu_3x3_reduce
I0403 15:38:36.637774 15721 net.cpp:425] inception_3b/relu_3x3_reduce <- inception_3b/3x3_reduce
I0403 15:38:36.637791 15721 net.cpp:386] inception_3b/relu_3x3_reduce -> inception_3b/3x3_reduce (in-place)
I0403 15:38:36.637972 15721 net.cpp:141] Setting up inception_3b/relu_3x3_reduce
I0403 15:38:36.637998 15721 net.cpp:148] Top shape: 24 128 28 28 (2408448)
I0403 15:38:36.638013 15721 net.cpp:156] Memory required for data: 696042528
I0403 15:38:36.638027 15721 layer_factory.hpp:77] Creating layer inception_3b/3x3
I0403 15:38:36.638053 15721 net.cpp:91] Creating Layer inception_3b/3x3
I0403 15:38:36.638072 15721 net.cpp:425] inception_3b/3x3 <- inception_3b/3x3_reduce
I0403 15:38:36.638092 15721 net.cpp:399] inception_3b/3x3 -> inception_3b/3x3
I0403 15:38:36.641106 15721 net.cpp:141] Setting up inception_3b/3x3
I0403 15:38:36.641137 15721 net.cpp:148] Top shape: 24 192 28 28 (3612672)
I0403 15:38:36.641155 15721 net.cpp:156] Memory required for data: 710493216
I0403 15:38:36.641173 15721 layer_factory.hpp:77] Creating layer inception_3b/relu_3x3
I0403 15:38:36.641191 15721 net.cpp:91] Creating Layer inception_3b/relu_3x3
I0403 15:38:36.641207 15721 net.cpp:425] inception_3b/relu_3x3 <- inception_3b/3x3
I0403 15:38:36.641224 15721 net.cpp:386] inception_3b/relu_3x3 -> inception_3b/3x3 (in-place)
I0403 15:38:36.641506 15721 net.cpp:141] Setting up inception_3b/relu_3x3
I0403 15:38:36.641535 15721 net.cpp:148] Top shape: 24 192 28 28 (3612672)
I0403 15:38:36.641556 15721 net.cpp:156] Memory required for data: 724943904
I0403 15:38:36.641571 15721 layer_factory.hpp:77] Creating layer inception_3b/5x5_reduce
I0403 15:38:36.641590 15721 net.cpp:91] Creating Layer inception_3b/5x5_reduce
I0403 15:38:36.641607 15721 net.cpp:425] inception_3b/5x5_reduce <- inception_3a/output_inception_3a/output_0_split_2
I0403 15:38:36.641628 15721 net.cpp:399] inception_3b/5x5_reduce -> inception_3b/5x5_reduce
I0403 15:38:36.642647 15721 net.cpp:141] Setting up inception_3b/5x5_reduce
I0403 15:38:36.642675 15721 net.cpp:148] Top shape: 24 32 28 28 (602112)
I0403 15:38:36.642690 15721 net.cpp:156] Memory required for data: 727352352
I0403 15:38:36.642709 15721 layer_factory.hpp:77] Creating layer inception_3b/relu_5x5_reduce
I0403 15:38:36.642729 15721 net.cpp:91] Creating Layer inception_3b/relu_5x5_reduce
I0403 15:38:36.642746 15721 net.cpp:425] inception_3b/relu_5x5_reduce <- inception_3b/5x5_reduce
I0403 15:38:36.642763 15721 net.cpp:386] inception_3b/relu_5x5_reduce -> inception_3b/5x5_reduce (in-place)
I0403 15:38:36.642941 15721 net.cpp:141] Setting up inception_3b/relu_5x5_reduce
I0403 15:38:36.642982 15721 net.cpp:148] Top shape: 24 32 28 28 (602112)
I0403 15:38:36.642997 15721 net.cpp:156] Memory required for data: 729760800
I0403 15:38:36.643013 15721 layer_factory.hpp:77] Creating layer inception_3b/5x5
I0403 15:38:36.643034 15721 net.cpp:91] Creating Layer inception_3b/5x5
I0403 15:38:36.643052 15721 net.cpp:425] inception_3b/5x5 <- inception_3b/5x5_reduce
I0403 15:38:36.643071 15721 net.cpp:399] inception_3b/5x5 -> inception_3b/5x5
I0403 15:38:36.645120 15721 net.cpp:141] Setting up inception_3b/5x5
I0403 15:38:36.645150 15721 net.cpp:148] Top shape: 24 96 28 28 (1806336)
I0403 15:38:36.645166 15721 net.cpp:156] Memory required for data: 736986144
I0403 15:38:36.645184 15721 layer_factory.hpp:77] Creating layer inception_3b/relu_5x5
I0403 15:38:36.645206 15721 net.cpp:91] Creating Layer inception_3b/relu_5x5
I0403 15:38:36.645223 15721 net.cpp:425] inception_3b/relu_5x5 <- inception_3b/5x5
I0403 15:38:36.645241 15721 net.cpp:386] inception_3b/relu_5x5 -> inception_3b/5x5 (in-place)
I0403 15:38:36.645442 15721 net.cpp:141] Setting up inception_3b/relu_5x5
I0403 15:38:36.645467 15721 net.cpp:148] Top shape: 24 96 28 28 (1806336)
I0403 15:38:36.645483 15721 net.cpp:156] Memory required for data: 744211488
I0403 15:38:36.645496 15721 layer_factory.hpp:77] Creating layer inception_3b/pool
I0403 15:38:36.645514 15721 net.cpp:91] Creating Layer inception_3b/pool
I0403 15:38:36.645530 15721 net.cpp:425] inception_3b/pool <- inception_3a/output_inception_3a/output_0_split_3
I0403 15:38:36.645553 15721 net.cpp:399] inception_3b/pool -> inception_3b/pool
I0403 15:38:36.645612 15721 net.cpp:141] Setting up inception_3b/pool
I0403 15:38:36.645635 15721 net.cpp:148] Top shape: 24 256 28 28 (4816896)
I0403 15:38:36.645649 15721 net.cpp:156] Memory required for data: 763479072
I0403 15:38:36.645663 15721 layer_factory.hpp:77] Creating layer inception_3b/pool_proj
I0403 15:38:36.645685 15721 net.cpp:91] Creating Layer inception_3b/pool_proj
I0403 15:38:36.645702 15721 net.cpp:425] inception_3b/pool_proj <- inception_3b/pool
I0403 15:38:36.645723 15721 net.cpp:399] inception_3b/pool_proj -> inception_3b/pool_proj
I0403 15:38:36.646795 15721 net.cpp:141] Setting up inception_3b/pool_proj
I0403 15:38:36.646826 15721 net.cpp:148] Top shape: 24 64 28 28 (1204224)
I0403 15:38:36.646842 15721 net.cpp:156] Memory required for data: 768295968
I0403 15:38:36.646859 15721 layer_factory.hpp:77] Creating layer inception_3b/relu_pool_proj
I0403 15:38:36.646878 15721 net.cpp:91] Creating Layer inception_3b/relu_pool_proj
I0403 15:38:36.646893 15721 net.cpp:425] inception_3b/relu_pool_proj <- inception_3b/pool_proj
I0403 15:38:36.646914 15721 net.cpp:386] inception_3b/relu_pool_proj -> inception_3b/pool_proj (in-place)
I0403 15:38:36.647315 15721 net.cpp:141] Setting up inception_3b/relu_pool_proj
I0403 15:38:36.647343 15721 net.cpp:148] Top shape: 24 64 28 28 (1204224)
I0403 15:38:36.647359 15721 net.cpp:156] Memory required for data: 773112864
I0403 15:38:36.647374 15721 layer_factory.hpp:77] Creating layer inception_3b/output
I0403 15:38:36.647392 15721 net.cpp:91] Creating Layer inception_3b/output
I0403 15:38:36.647408 15721 net.cpp:425] inception_3b/output <- inception_3b/1x1
I0403 15:38:36.647424 15721 net.cpp:425] inception_3b/output <- inception_3b/3x3
I0403 15:38:36.647440 15721 net.cpp:425] inception_3b/output <- inception_3b/5x5
I0403 15:38:36.647456 15721 net.cpp:425] inception_3b/output <- inception_3b/pool_proj
I0403 15:38:36.647474 15721 net.cpp:399] inception_3b/output -> inception_3b/output
I0403 15:38:36.647519 15721 net.cpp:141] Setting up inception_3b/output
I0403 15:38:36.647547 15721 net.cpp:148] Top shape: 24 480 28 28 (9031680)
I0403 15:38:36.647567 15721 net.cpp:156] Memory required for data: 809239584
I0403 15:38:36.647581 15721 layer_factory.hpp:77] Creating layer pool3/3x3_s2
I0403 15:38:36.647601 15721 net.cpp:91] Creating Layer pool3/3x3_s2
I0403 15:38:36.647619 15721 net.cpp:425] pool3/3x3_s2 <- inception_3b/output
I0403 15:38:36.647635 15721 net.cpp:399] pool3/3x3_s2 -> pool3/3x3_s2
I0403 15:38:36.647711 15721 net.cpp:141] Setting up pool3/3x3_s2
I0403 15:38:36.647734 15721 net.cpp:148] Top shape: 24 480 14 14 (2257920)
I0403 15:38:36.647748 15721 net.cpp:156] Memory required for data: 818271264
I0403 15:38:36.647763 15721 layer_factory.hpp:77] Creating layer pool3/3x3_s2_pool3/3x3_s2_0_split
I0403 15:38:36.647780 15721 net.cpp:91] Creating Layer pool3/3x3_s2_pool3/3x3_s2_0_split
I0403 15:38:36.647795 15721 net.cpp:425] pool3/3x3_s2_pool3/3x3_s2_0_split <- pool3/3x3_s2
I0403 15:38:36.647815 15721 net.cpp:399] pool3/3x3_s2_pool3/3x3_s2_0_split -> pool3/3x3_s2_pool3/3x3_s2_0_split_0
I0403 15:38:36.647837 15721 net.cpp:399] pool3/3x3_s2_pool3/3x3_s2_0_split -> pool3/3x3_s2_pool3/3x3_s2_0_split_1
I0403 15:38:36.647857 15721 net.cpp:399] pool3/3x3_s2_pool3/3x3_s2_0_split -> pool3/3x3_s2_pool3/3x3_s2_0_split_2
I0403 15:38:36.647876 15721 net.cpp:399] pool3/3x3_s2_pool3/3x3_s2_0_split -> pool3/3x3_s2_pool3/3x3_s2_0_split_3
I0403 15:38:36.647959 15721 net.cpp:141] Setting up pool3/3x3_s2_pool3/3x3_s2_0_split
I0403 15:38:36.647984 15721 net.cpp:148] Top shape: 24 480 14 14 (2257920)
I0403 15:38:36.648002 15721 net.cpp:148] Top shape: 24 480 14 14 (2257920)
I0403 15:38:36.648017 15721 net.cpp:148] Top shape: 24 480 14 14 (2257920)
I0403 15:38:36.648033 15721 net.cpp:148] Top shape: 24 480 14 14 (2257920)
I0403 15:38:36.648046 15721 net.cpp:156] Memory required for data: 854397984
I0403 15:38:36.648061 15721 layer_factory.hpp:77] Creating layer inception_4a/1x1
I0403 15:38:36.648083 15721 net.cpp:91] Creating Layer inception_4a/1x1
I0403 15:38:36.648100 15721 net.cpp:425] inception_4a/1x1 <- pool3/3x3_s2_pool3/3x3_s2_0_split_0
I0403 15:38:36.648119 15721 net.cpp:399] inception_4a/1x1 -> inception_4a/1x1
I0403 15:38:36.649718 15721 net.cpp:141] Setting up inception_4a/1x1
I0403 15:38:36.649745 15721 net.cpp:148] Top shape: 24 192 14 14 (903168)
I0403 15:38:36.649761 15721 net.cpp:156] Memory required for data: 858010656
I0403 15:38:36.649780 15721 layer_factory.hpp:77] Creating layer inception_4a/relu_1x1
I0403 15:38:36.649797 15721 net.cpp:91] Creating Layer inception_4a/relu_1x1
I0403 15:38:36.649819 15721 net.cpp:425] inception_4a/relu_1x1 <- inception_4a/1x1
I0403 15:38:36.649837 15721 net.cpp:386] inception_4a/relu_1x1 -> inception_4a/1x1 (in-place)
I0403 15:38:36.650013 15721 net.cpp:141] Setting up inception_4a/relu_1x1
I0403 15:38:36.650038 15721 net.cpp:148] Top shape: 24 192 14 14 (903168)
I0403 15:38:36.650053 15721 net.cpp:156] Memory required for data: 861623328
I0403 15:38:36.650079 15721 layer_factory.hpp:77] Creating layer inception_4a/3x3_reduce
I0403 15:38:36.650102 15721 net.cpp:91] Creating Layer inception_4a/3x3_reduce
I0403 15:38:36.650118 15721 net.cpp:425] inception_4a/3x3_reduce <- pool3/3x3_s2_pool3/3x3_s2_0_split_1
I0403 15:38:36.650140 15721 net.cpp:399] inception_4a/3x3_reduce -> inception_4a/3x3_reduce
I0403 15:38:36.651402 15721 net.cpp:141] Setting up inception_4a/3x3_reduce
I0403 15:38:36.651429 15721 net.cpp:148] Top shape: 24 96 14 14 (451584)
I0403 15:38:36.651445 15721 net.cpp:156] Memory required for data: 863429664
I0403 15:38:36.651469 15721 layer_factory.hpp:77] Creating layer inception_4a/relu_3x3_reduce
I0403 15:38:36.651489 15721 net.cpp:91] Creating Layer inception_4a/relu_3x3_reduce
I0403 15:38:36.651505 15721 net.cpp:425] inception_4a/relu_3x3_reduce <- inception_4a/3x3_reduce
I0403 15:38:36.651525 15721 net.cpp:386] inception_4a/relu_3x3_reduce -> inception_4a/3x3_reduce (in-place)
I0403 15:38:36.651705 15721 net.cpp:141] Setting up inception_4a/relu_3x3_reduce
I0403 15:38:36.651728 15721 net.cpp:148] Top shape: 24 96 14 14 (451584)
I0403 15:38:36.651743 15721 net.cpp:156] Memory required for data: 865236000
I0403 15:38:36.651757 15721 layer_factory.hpp:77] Creating layer inception_4a/3x3
I0403 15:38:36.651779 15721 net.cpp:91] Creating Layer inception_4a/3x3
I0403 15:38:36.651796 15721 net.cpp:425] inception_4a/3x3 <- inception_4a/3x3_reduce
I0403 15:38:36.651818 15721 net.cpp:399] inception_4a/3x3 -> inception_4a/3x3
I0403 15:38:36.654501 15721 net.cpp:141] Setting up inception_4a/3x3
I0403 15:38:36.654528 15721 net.cpp:148] Top shape: 24 208 14 14 (978432)
I0403 15:38:36.654548 15721 net.cpp:156] Memory required for data: 869149728
I0403 15:38:36.654567 15721 layer_factory.hpp:77] Creating layer inception_4a/relu_3x3
I0403 15:38:36.654587 15721 net.cpp:91] Creating Layer inception_4a/relu_3x3
I0403 15:38:36.654603 15721 net.cpp:425] inception_4a/relu_3x3 <- inception_4a/3x3
I0403 15:38:36.654619 15721 net.cpp:386] inception_4a/relu_3x3 -> inception_4a/3x3 (in-place)
I0403 15:38:36.654893 15721 net.cpp:141] Setting up inception_4a/relu_3x3
I0403 15:38:36.654919 15721 net.cpp:148] Top shape: 24 208 14 14 (978432)
I0403 15:38:36.654933 15721 net.cpp:156] Memory required for data: 873063456
I0403 15:38:36.654947 15721 layer_factory.hpp:77] Creating layer inception_4a/5x5_reduce
I0403 15:38:36.654969 15721 net.cpp:91] Creating Layer inception_4a/5x5_reduce
I0403 15:38:36.654985 15721 net.cpp:425] inception_4a/5x5_reduce <- pool3/3x3_s2_pool3/3x3_s2_0_split_2
I0403 15:38:36.655005 15721 net.cpp:399] inception_4a/5x5_reduce -> inception_4a/5x5_reduce
I0403 15:38:36.656002 15721 net.cpp:141] Setting up inception_4a/5x5_reduce
I0403 15:38:36.656029 15721 net.cpp:148] Top shape: 24 16 14 14 (75264)
I0403 15:38:36.656044 15721 net.cpp:156] Memory required for data: 873364512
I0403 15:38:36.656061 15721 layer_factory.hpp:77] Creating layer inception_4a/relu_5x5_reduce
I0403 15:38:36.656081 15721 net.cpp:91] Creating Layer inception_4a/relu_5x5_reduce
I0403 15:38:36.656097 15721 net.cpp:425] inception_4a/relu_5x5_reduce <- inception_4a/5x5_reduce
I0403 15:38:36.656113 15721 net.cpp:386] inception_4a/relu_5x5_reduce -> inception_4a/5x5_reduce (in-place)
I0403 15:38:36.656291 15721 net.cpp:141] Setting up inception_4a/relu_5x5_reduce
I0403 15:38:36.656316 15721 net.cpp:148] Top shape: 24 16 14 14 (75264)
I0403 15:38:36.656330 15721 net.cpp:156] Memory required for data: 873665568
I0403 15:38:36.656344 15721 layer_factory.hpp:77] Creating layer inception_4a/5x5
I0403 15:38:36.656365 15721 net.cpp:91] Creating Layer inception_4a/5x5
I0403 15:38:36.656381 15721 net.cpp:425] inception_4a/5x5 <- inception_4a/5x5_reduce
I0403 15:38:36.656399 15721 net.cpp:399] inception_4a/5x5 -> inception_4a/5x5
I0403 15:38:36.657449 15721 net.cpp:141] Setting up inception_4a/5x5
I0403 15:38:36.657479 15721 net.cpp:148] Top shape: 24 48 14 14 (225792)
I0403 15:38:36.657495 15721 net.cpp:156] Memory required for data: 874568736
I0403 15:38:36.657511 15721 layer_factory.hpp:77] Creating layer inception_4a/relu_5x5
I0403 15:38:36.657529 15721 net.cpp:91] Creating Layer inception_4a/relu_5x5
I0403 15:38:36.657549 15721 net.cpp:425] inception_4a/relu_5x5 <- inception_4a/5x5
I0403 15:38:36.657575 15721 net.cpp:386] inception_4a/relu_5x5 -> inception_4a/5x5 (in-place)
I0403 15:38:36.657748 15721 net.cpp:141] Setting up inception_4a/relu_5x5
I0403 15:38:36.657773 15721 net.cpp:148] Top shape: 24 48 14 14 (225792)
I0403 15:38:36.657786 15721 net.cpp:156] Memory required for data: 875471904
I0403 15:38:36.657800 15721 layer_factory.hpp:77] Creating layer inception_4a/pool
I0403 15:38:36.657816 15721 net.cpp:91] Creating Layer inception_4a/pool
I0403 15:38:36.657835 15721 net.cpp:425] inception_4a/pool <- pool3/3x3_s2_pool3/3x3_s2_0_split_3
I0403 15:38:36.657851 15721 net.cpp:399] inception_4a/pool -> inception_4a/pool
I0403 15:38:36.657912 15721 net.cpp:141] Setting up inception_4a/pool
I0403 15:38:36.657933 15721 net.cpp:148] Top shape: 24 480 14 14 (2257920)
I0403 15:38:36.657948 15721 net.cpp:156] Memory required for data: 884503584
I0403 15:38:36.657960 15721 layer_factory.hpp:77] Creating layer inception_4a/pool_proj
I0403 15:38:36.657981 15721 net.cpp:91] Creating Layer inception_4a/pool_proj
I0403 15:38:36.657997 15721 net.cpp:425] inception_4a/pool_proj <- inception_4a/pool
I0403 15:38:36.658017 15721 net.cpp:399] inception_4a/pool_proj -> inception_4a/pool_proj
I0403 15:38:36.659137 15721 net.cpp:141] Setting up inception_4a/pool_proj
I0403 15:38:36.659163 15721 net.cpp:148] Top shape: 24 64 14 14 (301056)
I0403 15:38:36.659193 15721 net.cpp:156] Memory required for data: 885707808
I0403 15:38:36.659211 15721 layer_factory.hpp:77] Creating layer inception_4a/relu_pool_proj
I0403 15:38:36.659229 15721 net.cpp:91] Creating Layer inception_4a/relu_pool_proj
I0403 15:38:36.659245 15721 net.cpp:425] inception_4a/relu_pool_proj <- inception_4a/pool_proj
I0403 15:38:36.659265 15721 net.cpp:386] inception_4a/relu_pool_proj -> inception_4a/pool_proj (in-place)
I0403 15:38:36.659559 15721 net.cpp:141] Setting up inception_4a/relu_pool_proj
I0403 15:38:36.659584 15721 net.cpp:148] Top shape: 24 64 14 14 (301056)
I0403 15:38:36.659600 15721 net.cpp:156] Memory required for data: 886912032
I0403 15:38:36.659613 15721 layer_factory.hpp:77] Creating layer inception_4a/output
I0403 15:38:36.659631 15721 net.cpp:91] Creating Layer inception_4a/output
I0403 15:38:36.659646 15721 net.cpp:425] inception_4a/output <- inception_4a/1x1
I0403 15:38:36.659662 15721 net.cpp:425] inception_4a/output <- inception_4a/3x3
I0403 15:38:36.659677 15721 net.cpp:425] inception_4a/output <- inception_4a/5x5
I0403 15:38:36.659693 15721 net.cpp:425] inception_4a/output <- inception_4a/pool_proj
I0403 15:38:36.659711 15721 net.cpp:399] inception_4a/output -> inception_4a/output
I0403 15:38:36.659756 15721 net.cpp:141] Setting up inception_4a/output
I0403 15:38:36.659793 15721 net.cpp:148] Top shape: 24 512 14 14 (2408448)
I0403 15:38:36.659807 15721 net.cpp:156] Memory required for data: 896545824
I0403 15:38:36.659821 15721 layer_factory.hpp:77] Creating layer inception_4a/output_inception_4a/output_0_split
I0403 15:38:36.659838 15721 net.cpp:91] Creating Layer inception_4a/output_inception_4a/output_0_split
I0403 15:38:36.659852 15721 net.cpp:425] inception_4a/output_inception_4a/output_0_split <- inception_4a/output
I0403 15:38:36.659868 15721 net.cpp:399] inception_4a/output_inception_4a/output_0_split -> inception_4a/output_inception_4a/output_0_split_0
I0403 15:38:36.659889 15721 net.cpp:399] inception_4a/output_inception_4a/output_0_split -> inception_4a/output_inception_4a/output_0_split_1
I0403 15:38:36.659910 15721 net.cpp:399] inception_4a/output_inception_4a/output_0_split -> inception_4a/output_inception_4a/output_0_split_2
I0403 15:38:36.659930 15721 net.cpp:399] inception_4a/output_inception_4a/output_0_split -> inception_4a/output_inception_4a/output_0_split_3
I0403 15:38:36.659950 15721 net.cpp:399] inception_4a/output_inception_4a/output_0_split -> inception_4a/output_inception_4a/output_0_split_4
I0403 15:38:36.660038 15721 net.cpp:141] Setting up inception_4a/output_inception_4a/output_0_split
I0403 15:38:36.660061 15721 net.cpp:148] Top shape: 24 512 14 14 (2408448)
I0403 15:38:36.660076 15721 net.cpp:148] Top shape: 24 512 14 14 (2408448)
I0403 15:38:36.660094 15721 net.cpp:148] Top shape: 24 512 14 14 (2408448)
I0403 15:38:36.660109 15721 net.cpp:148] Top shape: 24 512 14 14 (2408448)
I0403 15:38:36.660122 15721 net.cpp:148] Top shape: 24 512 14 14 (2408448)
I0403 15:38:36.660135 15721 net.cpp:156] Memory required for data: 944714784
I0403 15:38:36.660148 15721 layer_factory.hpp:77] Creating layer loss1/ave_pool
I0403 15:38:36.660164 15721 net.cpp:91] Creating Layer loss1/ave_pool
I0403 15:38:36.660179 15721 net.cpp:425] loss1/ave_pool <- inception_4a/output_inception_4a/output_0_split_0
I0403 15:38:36.660195 15721 net.cpp:399] loss1/ave_pool -> loss1/ave_pool
I0403 15:38:36.660390 15721 net.cpp:141] Setting up loss1/ave_pool
I0403 15:38:36.660414 15721 net.cpp:148] Top shape: 24 512 4 4 (196608)
I0403 15:38:36.660429 15721 net.cpp:156] Memory required for data: 945501216
I0403 15:38:36.660441 15721 layer_factory.hpp:77] Creating layer loss1/conv
I0403 15:38:36.660464 15721 net.cpp:91] Creating Layer loss1/conv
I0403 15:38:36.660480 15721 net.cpp:425] loss1/conv <- loss1/ave_pool
I0403 15:38:36.660500 15721 net.cpp:399] loss1/conv -> loss1/conv
I0403 15:38:36.661859 15721 net.cpp:141] Setting up loss1/conv
I0403 15:38:36.661886 15721 net.cpp:148] Top shape: 24 128 4 4 (49152)
I0403 15:38:36.661901 15721 net.cpp:156] Memory required for data: 945697824
I0403 15:38:36.661933 15721 layer_factory.hpp:77] Creating layer loss1/relu_conv
I0403 15:38:36.661953 15721 net.cpp:91] Creating Layer loss1/relu_conv
I0403 15:38:36.661970 15721 net.cpp:425] loss1/relu_conv <- loss1/conv
I0403 15:38:36.661986 15721 net.cpp:386] loss1/relu_conv -> loss1/conv (in-place)
I0403 15:38:36.662258 15721 net.cpp:141] Setting up loss1/relu_conv
I0403 15:38:36.662292 15721 net.cpp:148] Top shape: 24 128 4 4 (49152)
I0403 15:38:36.662305 15721 net.cpp:156] Memory required for data: 945894432
I0403 15:38:36.662319 15721 layer_factory.hpp:77] Creating layer loss1/fc
I0403 15:38:36.662343 15721 net.cpp:91] Creating Layer loss1/fc
I0403 15:38:36.662360 15721 net.cpp:425] loss1/fc <- loss1/conv
I0403 15:38:36.662379 15721 net.cpp:399] loss1/fc -> loss1/fc
I0403 15:38:36.680263 15721 net.cpp:141] Setting up loss1/fc
I0403 15:38:36.680299 15721 net.cpp:148] Top shape: 24 1024 (24576)
I0403 15:38:36.680315 15721 net.cpp:156] Memory required for data: 945992736
I0403 15:38:36.680332 15721 layer_factory.hpp:77] Creating layer loss1/relu_fc
I0403 15:38:36.680351 15721 net.cpp:91] Creating Layer loss1/relu_fc
I0403 15:38:36.680366 15721 net.cpp:425] loss1/relu_fc <- loss1/fc
I0403 15:38:36.680387 15721 net.cpp:386] loss1/relu_fc -> loss1/fc (in-place)
I0403 15:38:36.680583 15721 net.cpp:141] Setting up loss1/relu_fc
I0403 15:38:36.680608 15721 net.cpp:148] Top shape: 24 1024 (24576)
I0403 15:38:36.680621 15721 net.cpp:156] Memory required for data: 946091040
I0403 15:38:36.680635 15721 layer_factory.hpp:77] Creating layer loss1/drop_fc
I0403 15:38:36.680662 15721 net.cpp:91] Creating Layer loss1/drop_fc
I0403 15:38:36.680680 15721 net.cpp:425] loss1/drop_fc <- loss1/fc
I0403 15:38:36.680696 15721 net.cpp:386] loss1/drop_fc -> loss1/fc (in-place)
I0403 15:38:36.680747 15721 net.cpp:141] Setting up loss1/drop_fc
I0403 15:38:36.680773 15721 net.cpp:148] Top shape: 24 1024 (24576)
I0403 15:38:36.680789 15721 net.cpp:156] Memory required for data: 946189344
I0403 15:38:36.680804 15721 layer_factory.hpp:77] Creating layer loss1/classifier_plantvillage
I0403 15:38:36.680821 15721 net.cpp:91] Creating Layer loss1/classifier_plantvillage
I0403 15:38:36.680836 15721 net.cpp:425] loss1/classifier_plantvillage <- loss1/fc
I0403 15:38:36.680855 15721 net.cpp:399] loss1/classifier_plantvillage -> loss1/classifier_plantvillage
I0403 15:38:36.681772 15721 net.cpp:141] Setting up loss1/classifier_plantvillage
I0403 15:38:36.681802 15721 net.cpp:148] Top shape: 24 38 (912)
I0403 15:38:36.681816 15721 net.cpp:156] Memory required for data: 946192992
I0403 15:38:36.681833 15721 layer_factory.hpp:77] Creating layer loss1/classifier_plantvillage_loss1/classifier_plantvillage_0_split
I0403 15:38:36.681854 15721 net.cpp:91] Creating Layer loss1/classifier_plantvillage_loss1/classifier_plantvillage_0_split
I0403 15:38:36.681869 15721 net.cpp:425] loss1/classifier_plantvillage_loss1/classifier_plantvillage_0_split <- loss1/classifier_plantvillage
I0403 15:38:36.681886 15721 net.cpp:399] loss1/classifier_plantvillage_loss1/classifier_plantvillage_0_split -> loss1/classifier_plantvillage_loss1/classifier_plantvillage_0_split_0
I0403 15:38:36.681905 15721 net.cpp:399] loss1/classifier_plantvillage_loss1/classifier_plantvillage_0_split -> loss1/classifier_plantvillage_loss1/classifier_plantvillage_0_split_1
I0403 15:38:36.681926 15721 net.cpp:399] loss1/classifier_plantvillage_loss1/classifier_plantvillage_0_split -> loss1/classifier_plantvillage_loss1/classifier_plantvillage_0_split_2
I0403 15:38:36.681994 15721 net.cpp:141] Setting up loss1/classifier_plantvillage_loss1/classifier_plantvillage_0_split
I0403 15:38:36.682020 15721 net.cpp:148] Top shape: 24 38 (912)
I0403 15:38:36.682036 15721 net.cpp:148] Top shape: 24 38 (912)
I0403 15:38:36.682051 15721 net.cpp:148] Top shape: 24 38 (912)
I0403 15:38:36.682065 15721 net.cpp:156] Memory required for data: 946203936
I0403 15:38:36.682077 15721 layer_factory.hpp:77] Creating layer inception_4b/1x1
I0403 15:38:36.682096 15721 net.cpp:91] Creating Layer inception_4b/1x1
I0403 15:38:36.682132 15721 net.cpp:425] inception_4b/1x1 <- inception_4a/output_inception_4a/output_0_split_1
I0403 15:38:36.682152 15721 net.cpp:399] inception_4b/1x1 -> inception_4b/1x1
I0403 15:38:36.683804 15721 net.cpp:141] Setting up inception_4b/1x1
I0403 15:38:36.683831 15721 net.cpp:148] Top shape: 24 160 14 14 (752640)
I0403 15:38:36.683845 15721 net.cpp:156] Memory required for data: 949214496
I0403 15:38:36.683862 15721 layer_factory.hpp:77] Creating layer inception_4b/relu_1x1
I0403 15:38:36.683882 15721 net.cpp:91] Creating Layer inception_4b/relu_1x1
I0403 15:38:36.683899 15721 net.cpp:425] inception_4b/relu_1x1 <- inception_4b/1x1
I0403 15:38:36.683915 15721 net.cpp:386] inception_4b/relu_1x1 -> inception_4b/1x1 (in-place)
I0403 15:38:36.684089 15721 net.cpp:141] Setting up inception_4b/relu_1x1
I0403 15:38:36.684115 15721 net.cpp:148] Top shape: 24 160 14 14 (752640)
I0403 15:38:36.684129 15721 net.cpp:156] Memory required for data: 952225056
I0403 15:38:36.684144 15721 layer_factory.hpp:77] Creating layer inception_4b/3x3_reduce
I0403 15:38:36.684165 15721 net.cpp:91] Creating Layer inception_4b/3x3_reduce
I0403 15:38:36.684180 15721 net.cpp:425] inception_4b/3x3_reduce <- inception_4a/output_inception_4a/output_0_split_2
I0403 15:38:36.684198 15721 net.cpp:399] inception_4b/3x3_reduce -> inception_4b/3x3_reduce
I0403 15:38:36.685505 15721 net.cpp:141] Setting up inception_4b/3x3_reduce
I0403 15:38:36.685535 15721 net.cpp:148] Top shape: 24 112 14 14 (526848)
I0403 15:38:36.685572 15721 net.cpp:156] Memory required for data: 954332448
I0403 15:38:36.685590 15721 layer_factory.hpp:77] Creating layer inception_4b/relu_3x3_reduce
I0403 15:38:36.685608 15721 net.cpp:91] Creating Layer inception_4b/relu_3x3_reduce
I0403 15:38:36.685623 15721 net.cpp:425] inception_4b/relu_3x3_reduce <- inception_4b/3x3_reduce
I0403 15:38:36.685642 15721 net.cpp:386] inception_4b/relu_3x3_reduce -> inception_4b/3x3_reduce (in-place)
I0403 15:38:36.685912 15721 net.cpp:141] Setting up inception_4b/relu_3x3_reduce
I0403 15:38:36.685940 15721 net.cpp:148] Top shape: 24 112 14 14 (526848)
I0403 15:38:36.685956 15721 net.cpp:156] Memory required for data: 956439840
I0403 15:38:36.685969 15721 layer_factory.hpp:77] Creating layer inception_4b/3x3
I0403 15:38:36.685991 15721 net.cpp:91] Creating Layer inception_4b/3x3
I0403 15:38:36.686007 15721 net.cpp:425] inception_4b/3x3 <- inception_4b/3x3_reduce
I0403 15:38:36.686024 15721 net.cpp:399] inception_4b/3x3 -> inception_4b/3x3
I0403 15:38:36.688941 15721 net.cpp:141] Setting up inception_4b/3x3
I0403 15:38:36.688971 15721 net.cpp:148] Top shape: 24 224 14 14 (1053696)
I0403 15:38:36.688985 15721 net.cpp:156] Memory required for data: 960654624
I0403 15:38:36.689002 15721 layer_factory.hpp:77] Creating layer inception_4b/relu_3x3
I0403 15:38:36.689021 15721 net.cpp:91] Creating Layer inception_4b/relu_3x3
I0403 15:38:36.689038 15721 net.cpp:425] inception_4b/relu_3x3 <- inception_4b/3x3
I0403 15:38:36.689054 15721 net.cpp:386] inception_4b/relu_3x3 -> inception_4b/3x3 (in-place)
I0403 15:38:36.689226 15721 net.cpp:141] Setting up inception_4b/relu_3x3
I0403 15:38:36.689249 15721 net.cpp:148] Top shape: 24 224 14 14 (1053696)
I0403 15:38:36.689275 15721 net.cpp:156] Memory required for data: 964869408
I0403 15:38:36.689287 15721 layer_factory.hpp:77] Creating layer inception_4b/5x5_reduce
I0403 15:38:36.689312 15721 net.cpp:91] Creating Layer inception_4b/5x5_reduce
I0403 15:38:36.689328 15721 net.cpp:425] inception_4b/5x5_reduce <- inception_4a/output_inception_4a/output_0_split_3
I0403 15:38:36.689354 15721 net.cpp:399] inception_4b/5x5_reduce -> inception_4b/5x5_reduce
I0403 15:38:36.690471 15721 net.cpp:141] Setting up inception_4b/5x5_reduce
I0403 15:38:36.690587 15721 net.cpp:148] Top shape: 24 24 14 14 (112896)
I0403 15:38:36.690652 15721 net.cpp:156] Memory required for data: 965320992
I0403 15:38:36.690701 15721 layer_factory.hpp:77] Creating layer inception_4b/relu_5x5_reduce
I0403 15:38:36.690728 15721 net.cpp:91] Creating Layer inception_4b/relu_5x5_reduce
I0403 15:38:36.690762 15721 net.cpp:425] inception_4b/relu_5x5_reduce <- inception_4b/5x5_reduce
I0403 15:38:36.690783 15721 net.cpp:386] inception_4b/relu_5x5_reduce -> inception_4b/5x5_reduce (in-place)
I0403 15:38:36.691002 15721 net.cpp:141] Setting up inception_4b/relu_5x5_reduce
I0403 15:38:36.691031 15721 net.cpp:148] Top shape: 24 24 14 14 (112896)
I0403 15:38:36.691054 15721 net.cpp:156] Memory required for data: 965772576
I0403 15:38:36.691081 15721 layer_factory.hpp:77] Creating layer inception_4b/5x5
I0403 15:38:36.691107 15721 net.cpp:91] Creating Layer inception_4b/5x5
I0403 15:38:36.691123 15721 net.cpp:425] inception_4b/5x5 <- inception_4b/5x5_reduce
I0403 15:38:36.691144 15721 net.cpp:399] inception_4b/5x5 -> inception_4b/5x5
I0403 15:38:36.692421 15721 net.cpp:141] Setting up inception_4b/5x5
I0403 15:38:36.692451 15721 net.cpp:148] Top shape: 24 64 14 14 (301056)
I0403 15:38:36.692466 15721 net.cpp:156] Memory required for data: 966976800
I0403 15:38:36.692486 15721 layer_factory.hpp:77] Creating layer inception_4b/relu_5x5
I0403 15:38:36.692507 15721 net.cpp:91] Creating Layer inception_4b/relu_5x5
I0403 15:38:36.692525 15721 net.cpp:425] inception_4b/relu_5x5 <- inception_4b/5x5
I0403 15:38:36.692554 15721 net.cpp:386] inception_4b/relu_5x5 -> inception_4b/5x5 (in-place)
I0403 15:38:36.692862 15721 net.cpp:141] Setting up inception_4b/relu_5x5
I0403 15:38:36.692889 15721 net.cpp:148] Top shape: 24 64 14 14 (301056)
I0403 15:38:36.692912 15721 net.cpp:156] Memory required for data: 968181024
I0403 15:38:36.692927 15721 layer_factory.hpp:77] Creating layer inception_4b/pool
I0403 15:38:36.692948 15721 net.cpp:91] Creating Layer inception_4b/pool
I0403 15:38:36.692965 15721 net.cpp:425] inception_4b/pool <- inception_4a/output_inception_4a/output_0_split_4
I0403 15:38:36.692983 15721 net.cpp:399] inception_4b/pool -> inception_4b/pool
I0403 15:38:36.693049 15721 net.cpp:141] Setting up inception_4b/pool
I0403 15:38:36.693073 15721 net.cpp:148] Top shape: 24 512 14 14 (2408448)
I0403 15:38:36.693089 15721 net.cpp:156] Memory required for data: 977814816
I0403 15:38:36.693102 15721 layer_factory.hpp:77] Creating layer inception_4b/pool_proj
I0403 15:38:36.693125 15721 net.cpp:91] Creating Layer inception_4b/pool_proj
I0403 15:38:36.693150 15721 net.cpp:425] inception_4b/pool_proj <- inception_4b/pool
I0403 15:38:36.693174 15721 net.cpp:399] inception_4b/pool_proj -> inception_4b/pool_proj
I0403 15:38:36.694433 15721 net.cpp:141] Setting up inception_4b/pool_proj
I0403 15:38:36.694465 15721 net.cpp:148] Top shape: 24 64 14 14 (301056)
I0403 15:38:36.694483 15721 net.cpp:156] Memory required for data: 979019040
I0403 15:38:36.694502 15721 layer_factory.hpp:77] Creating layer inception_4b/relu_pool_proj
I0403 15:38:36.694521 15721 net.cpp:91] Creating Layer inception_4b/relu_pool_proj
I0403 15:38:36.694547 15721 net.cpp:425] inception_4b/relu_pool_proj <- inception_4b/pool_proj
I0403 15:38:36.694581 15721 net.cpp:386] inception_4b/relu_pool_proj -> inception_4b/pool_proj (in-place)
I0403 15:38:36.694768 15721 net.cpp:141] Setting up inception_4b/relu_pool_proj
I0403 15:38:36.694799 15721 net.cpp:148] Top shape: 24 64 14 14 (301056)
I0403 15:38:36.694814 15721 net.cpp:156] Memory required for data: 980223264
I0403 15:38:36.694829 15721 layer_factory.hpp:77] Creating layer inception_4b/output
I0403 15:38:36.694846 15721 net.cpp:91] Creating Layer inception_4b/output
I0403 15:38:36.694861 15721 net.cpp:425] inception_4b/output <- inception_4b/1x1
I0403 15:38:36.694877 15721 net.cpp:425] inception_4b/output <- inception_4b/3x3
I0403 15:38:36.694892 15721 net.cpp:425] inception_4b/output <- inception_4b/5x5
I0403 15:38:36.694908 15721 net.cpp:425] inception_4b/output <- inception_4b/pool_proj
I0403 15:38:36.694927 15721 net.cpp:399] inception_4b/output -> inception_4b/output
I0403 15:38:36.694974 15721 net.cpp:141] Setting up inception_4b/output
I0403 15:38:36.694998 15721 net.cpp:148] Top shape: 24 512 14 14 (2408448)
I0403 15:38:36.695013 15721 net.cpp:156] Memory required for data: 989857056
I0403 15:38:36.695042 15721 layer_factory.hpp:77] Creating layer inception_4b/output_inception_4b/output_0_split
I0403 15:38:36.695063 15721 net.cpp:91] Creating Layer inception_4b/output_inception_4b/output_0_split
I0403 15:38:36.695080 15721 net.cpp:425] inception_4b/output_inception_4b/output_0_split <- inception_4b/output
I0403 15:38:36.695098 15721 net.cpp:399] inception_4b/output_inception_4b/output_0_split -> inception_4b/output_inception_4b/output_0_split_0
I0403 15:38:36.695118 15721 net.cpp:399] inception_4b/output_inception_4b/output_0_split -> inception_4b/output_inception_4b/output_0_split_1
I0403 15:38:36.695142 15721 net.cpp:399] inception_4b/output_inception_4b/output_0_split -> inception_4b/output_inception_4b/output_0_split_2
I0403 15:38:36.695163 15721 net.cpp:399] inception_4b/output_inception_4b/output_0_split -> inception_4b/output_inception_4b/output_0_split_3
I0403 15:38:36.695248 15721 net.cpp:141] Setting up inception_4b/output_inception_4b/output_0_split
I0403 15:38:36.695273 15721 net.cpp:148] Top shape: 24 512 14 14 (2408448)
I0403 15:38:36.695289 15721 net.cpp:148] Top shape: 24 512 14 14 (2408448)
I0403 15:38:36.695304 15721 net.cpp:148] Top shape: 24 512 14 14 (2408448)
I0403 15:38:36.695318 15721 net.cpp:148] Top shape: 24 512 14 14 (2408448)
I0403 15:38:36.695333 15721 net.cpp:156] Memory required for data: 1028392224
I0403 15:38:36.695346 15721 layer_factory.hpp:77] Creating layer inception_4c/1x1
I0403 15:38:36.695369 15721 net.cpp:91] Creating Layer inception_4c/1x1
I0403 15:38:36.695385 15721 net.cpp:425] inception_4c/1x1 <- inception_4b/output_inception_4b/output_0_split_0
I0403 15:38:36.695405 15721 net.cpp:399] inception_4c/1x1 -> inception_4c/1x1
I0403 15:38:36.696882 15721 net.cpp:141] Setting up inception_4c/1x1
I0403 15:38:36.696913 15721 net.cpp:148] Top shape: 24 128 14 14 (602112)
I0403 15:38:36.696931 15721 net.cpp:156] Memory required for data: 1030800672
I0403 15:38:36.696949 15721 layer_factory.hpp:77] Creating layer inception_4c/relu_1x1
I0403 15:38:36.696967 15721 net.cpp:91] Creating Layer inception_4c/relu_1x1
I0403 15:38:36.696984 15721 net.cpp:425] inception_4c/relu_1x1 <- inception_4c/1x1
I0403 15:38:36.697003 15721 net.cpp:386] inception_4c/relu_1x1 -> inception_4c/1x1 (in-place)
I0403 15:38:36.697190 15721 net.cpp:141] Setting up inception_4c/relu_1x1
I0403 15:38:36.697216 15721 net.cpp:148] Top shape: 24 128 14 14 (602112)
I0403 15:38:36.697230 15721 net.cpp:156] Memory required for data: 1033209120
I0403 15:38:36.697245 15721 layer_factory.hpp:77] Creating layer inception_4c/3x3_reduce
I0403 15:38:36.697279 15721 net.cpp:91] Creating Layer inception_4c/3x3_reduce
I0403 15:38:36.697298 15721 net.cpp:425] inception_4c/3x3_reduce <- inception_4b/output_inception_4b/output_0_split_1
I0403 15:38:36.697319 15721 net.cpp:399] inception_4c/3x3_reduce -> inception_4c/3x3_reduce
I0403 15:38:36.699359 15721 net.cpp:141] Setting up inception_4c/3x3_reduce
I0403 15:38:36.699388 15721 net.cpp:148] Top shape: 24 128 14 14 (602112)
I0403 15:38:36.699404 15721 net.cpp:156] Memory required for data: 1035617568
I0403 15:38:36.699422 15721 layer_factory.hpp:77] Creating layer inception_4c/relu_3x3_reduce
I0403 15:38:36.699443 15721 net.cpp:91] Creating Layer inception_4c/relu_3x3_reduce
I0403 15:38:36.699461 15721 net.cpp:425] inception_4c/relu_3x3_reduce <- inception_4c/3x3_reduce
I0403 15:38:36.699478 15721 net.cpp:386] inception_4c/relu_3x3_reduce -> inception_4c/3x3_reduce (in-place)
I0403 15:38:36.699777 15721 net.cpp:141] Setting up inception_4c/relu_3x3_reduce
I0403 15:38:36.699805 15721 net.cpp:148] Top shape: 24 128 14 14 (602112)
I0403 15:38:36.699820 15721 net.cpp:156] Memory required for data: 1038026016
I0403 15:38:36.699834 15721 layer_factory.hpp:77] Creating layer inception_4c/3x3
I0403 15:38:36.699858 15721 net.cpp:91] Creating Layer inception_4c/3x3
I0403 15:38:36.699877 15721 net.cpp:425] inception_4c/3x3 <- inception_4c/3x3_reduce
I0403 15:38:36.699899 15721 net.cpp:399] inception_4c/3x3 -> inception_4c/3x3
I0403 15:38:36.703665 15721 net.cpp:141] Setting up inception_4c/3x3
I0403 15:38:36.703707 15721 net.cpp:148] Top shape: 24 256 14 14 (1204224)
I0403 15:38:36.703724 15721 net.cpp:156] Memory required for data: 1042842912
I0403 15:38:36.703757 15721 layer_factory.hpp:77] Creating layer inception_4c/relu_3x3
I0403 15:38:36.703779 15721 net.cpp:91] Creating Layer inception_4c/relu_3x3
I0403 15:38:36.703795 15721 net.cpp:425] inception_4c/relu_3x3 <- inception_4c/3x3
I0403 15:38:36.703812 15721 net.cpp:386] inception_4c/relu_3x3 -> inception_4c/3x3 (in-place)
I0403 15:38:36.703999 15721 net.cpp:141] Setting up inception_4c/relu_3x3
I0403 15:38:36.704025 15721 net.cpp:148] Top shape: 24 256 14 14 (1204224)
I0403 15:38:36.704040 15721 net.cpp:156] Memory required for data: 1047659808
I0403 15:38:36.704054 15721 layer_factory.hpp:77] Creating layer inception_4c/5x5_reduce
I0403 15:38:36.704079 15721 net.cpp:91] Creating Layer inception_4c/5x5_reduce
I0403 15:38:36.704098 15721 net.cpp:425] inception_4c/5x5_reduce <- inception_4b/output_inception_4b/output_0_split_2
I0403 15:38:36.704118 15721 net.cpp:399] inception_4c/5x5_reduce -> inception_4c/5x5_reduce
I0403 15:38:36.705241 15721 net.cpp:141] Setting up inception_4c/5x5_reduce
I0403 15:38:36.705271 15721 net.cpp:148] Top shape: 24 24 14 14 (112896)
I0403 15:38:36.705286 15721 net.cpp:156] Memory required for data: 1048111392
I0403 15:38:36.705304 15721 layer_factory.hpp:77] Creating layer inception_4c/relu_5x5_reduce
I0403 15:38:36.705327 15721 net.cpp:91] Creating Layer inception_4c/relu_5x5_reduce
I0403 15:38:36.705344 15721 net.cpp:425] inception_4c/relu_5x5_reduce <- inception_4c/5x5_reduce
I0403 15:38:36.705363 15721 net.cpp:386] inception_4c/relu_5x5_reduce -> inception_4c/5x5_reduce (in-place)
I0403 15:38:36.705562 15721 net.cpp:141] Setting up inception_4c/relu_5x5_reduce
I0403 15:38:36.705590 15721 net.cpp:148] Top shape: 24 24 14 14 (112896)
I0403 15:38:36.705607 15721 net.cpp:156] Memory required for data: 1048562976
I0403 15:38:36.705622 15721 layer_factory.hpp:77] Creating layer inception_4c/5x5
I0403 15:38:36.705646 15721 net.cpp:91] Creating Layer inception_4c/5x5
I0403 15:38:36.705663 15721 net.cpp:425] inception_4c/5x5 <- inception_4c/5x5_reduce
I0403 15:38:36.705684 15721 net.cpp:399] inception_4c/5x5 -> inception_4c/5x5
I0403 15:38:36.706966 15721 net.cpp:141] Setting up inception_4c/5x5
I0403 15:38:36.707000 15721 net.cpp:148] Top shape: 24 64 14 14 (301056)
I0403 15:38:36.707016 15721 net.cpp:156] Memory required for data: 1049767200
I0403 15:38:36.707036 15721 layer_factory.hpp:77] Creating layer inception_4c/relu_5x5
I0403 15:38:36.707053 15721 net.cpp:91] Creating Layer inception_4c/relu_5x5
I0403 15:38:36.707069 15721 net.cpp:425] inception_4c/relu_5x5 <- inception_4c/5x5
I0403 15:38:36.707089 15721 net.cpp:386] inception_4c/relu_5x5 -> inception_4c/5x5 (in-place)
I0403 15:38:36.707399 15721 net.cpp:141] Setting up inception_4c/relu_5x5
I0403 15:38:36.707429 15721 net.cpp:148] Top shape: 24 64 14 14 (301056)
I0403 15:38:36.707445 15721 net.cpp:156] Memory required for data: 1050971424
I0403 15:38:36.707460 15721 layer_factory.hpp:77] Creating layer inception_4c/pool
I0403 15:38:36.707479 15721 net.cpp:91] Creating Layer inception_4c/pool
I0403 15:38:36.707495 15721 net.cpp:425] inception_4c/pool <- inception_4b/output_inception_4b/output_0_split_3
I0403 15:38:36.707516 15721 net.cpp:399] inception_4c/pool -> inception_4c/pool
I0403 15:38:36.707600 15721 net.cpp:141] Setting up inception_4c/pool
I0403 15:38:36.707628 15721 net.cpp:148] Top shape: 24 512 14 14 (2408448)
I0403 15:38:36.707643 15721 net.cpp:156] Memory required for data: 1060605216
I0403 15:38:36.707656 15721 layer_factory.hpp:77] Creating layer inception_4c/pool_proj
I0403 15:38:36.707676 15721 net.cpp:91] Creating Layer inception_4c/pool_proj
I0403 15:38:36.707692 15721 net.cpp:425] inception_4c/pool_proj <- inception_4c/pool
I0403 15:38:36.707713 15721 net.cpp:399] inception_4c/pool_proj -> inception_4c/pool_proj
I0403 15:38:36.708971 15721 net.cpp:141] Setting up inception_4c/pool_proj
I0403 15:38:36.708999 15721 net.cpp:148] Top shape: 24 64 14 14 (301056)
I0403 15:38:36.709029 15721 net.cpp:156] Memory required for data: 1061809440
I0403 15:38:36.709049 15721 layer_factory.hpp:77] Creating layer inception_4c/relu_pool_proj
I0403 15:38:36.709072 15721 net.cpp:91] Creating Layer inception_4c/relu_pool_proj
I0403 15:38:36.709089 15721 net.cpp:425] inception_4c/relu_pool_proj <- inception_4c/pool_proj
I0403 15:38:36.709106 15721 net.cpp:386] inception_4c/relu_pool_proj -> inception_4c/pool_proj (in-place)
I0403 15:38:36.709295 15721 net.cpp:141] Setting up inception_4c/relu_pool_proj
I0403 15:38:36.709321 15721 net.cpp:148] Top shape: 24 64 14 14 (301056)
I0403 15:38:36.709336 15721 net.cpp:156] Memory required for data: 1063013664
I0403 15:38:36.709352 15721 layer_factory.hpp:77] Creating layer inception_4c/output
I0403 15:38:36.709369 15721 net.cpp:91] Creating Layer inception_4c/output
I0403 15:38:36.709384 15721 net.cpp:425] inception_4c/output <- inception_4c/1x1
I0403 15:38:36.709400 15721 net.cpp:425] inception_4c/output <- inception_4c/3x3
I0403 15:38:36.709416 15721 net.cpp:425] inception_4c/output <- inception_4c/5x5
I0403 15:38:36.709432 15721 net.cpp:425] inception_4c/output <- inception_4c/pool_proj
I0403 15:38:36.709451 15721 net.cpp:399] inception_4c/output -> inception_4c/output
I0403 15:38:36.709499 15721 net.cpp:141] Setting up inception_4c/output
I0403 15:38:36.709522 15721 net.cpp:148] Top shape: 24 512 14 14 (2408448)
I0403 15:38:36.709542 15721 net.cpp:156] Memory required for data: 1072647456
I0403 15:38:36.709558 15721 layer_factory.hpp:77] Creating layer inception_4c/output_inception_4c/output_0_split
I0403 15:38:36.709578 15721 net.cpp:91] Creating Layer inception_4c/output_inception_4c/output_0_split
I0403 15:38:36.709594 15721 net.cpp:425] inception_4c/output_inception_4c/output_0_split <- inception_4c/output
I0403 15:38:36.709611 15721 net.cpp:399] inception_4c/output_inception_4c/output_0_split -> inception_4c/output_inception_4c/output_0_split_0
I0403 15:38:36.709631 15721 net.cpp:399] inception_4c/output_inception_4c/output_0_split -> inception_4c/output_inception_4c/output_0_split_1
I0403 15:38:36.709656 15721 net.cpp:399] inception_4c/output_inception_4c/output_0_split -> inception_4c/output_inception_4c/output_0_split_2
I0403 15:38:36.709676 15721 net.cpp:399] inception_4c/output_inception_4c/output_0_split -> inception_4c/output_inception_4c/output_0_split_3
I0403 15:38:36.709766 15721 net.cpp:141] Setting up inception_4c/output_inception_4c/output_0_split
I0403 15:38:36.709790 15721 net.cpp:148] Top shape: 24 512 14 14 (2408448)
I0403 15:38:36.709806 15721 net.cpp:148] Top shape: 24 512 14 14 (2408448)
I0403 15:38:36.709821 15721 net.cpp:148] Top shape: 24 512 14 14 (2408448)
I0403 15:38:36.709837 15721 net.cpp:148] Top shape: 24 512 14 14 (2408448)
I0403 15:38:36.709851 15721 net.cpp:156] Memory required for data: 1111182624
I0403 15:38:36.709866 15721 layer_factory.hpp:77] Creating layer inception_4d/1x1
I0403 15:38:36.709892 15721 net.cpp:91] Creating Layer inception_4d/1x1
I0403 15:38:36.709908 15721 net.cpp:425] inception_4d/1x1 <- inception_4c/output_inception_4c/output_0_split_0
I0403 15:38:36.709929 15721 net.cpp:399] inception_4d/1x1 -> inception_4d/1x1
I0403 15:38:36.711352 15721 net.cpp:141] Setting up inception_4d/1x1
I0403 15:38:36.711380 15721 net.cpp:148] Top shape: 24 112 14 14 (526848)
I0403 15:38:36.711396 15721 net.cpp:156] Memory required for data: 1113290016
I0403 15:38:36.711416 15721 layer_factory.hpp:77] Creating layer inception_4d/relu_1x1
I0403 15:38:36.711436 15721 net.cpp:91] Creating Layer inception_4d/relu_1x1
I0403 15:38:36.711453 15721 net.cpp:425] inception_4d/relu_1x1 <- inception_4d/1x1
I0403 15:38:36.711472 15721 net.cpp:386] inception_4d/relu_1x1 -> inception_4d/1x1 (in-place)
I0403 15:38:36.711663 15721 net.cpp:141] Setting up inception_4d/relu_1x1
I0403 15:38:36.711689 15721 net.cpp:148] Top shape: 24 112 14 14 (526848)
I0403 15:38:36.711704 15721 net.cpp:156] Memory required for data: 1115397408
I0403 15:38:36.711717 15721 layer_factory.hpp:77] Creating layer inception_4d/3x3_reduce
I0403 15:38:36.711755 15721 net.cpp:91] Creating Layer inception_4d/3x3_reduce
I0403 15:38:36.711774 15721 net.cpp:425] inception_4d/3x3_reduce <- inception_4c/output_inception_4c/output_0_split_1
I0403 15:38:36.711793 15721 net.cpp:399] inception_4d/3x3_reduce -> inception_4d/3x3_reduce
I0403 15:38:36.713382 15721 net.cpp:141] Setting up inception_4d/3x3_reduce
I0403 15:38:36.713410 15721 net.cpp:148] Top shape: 24 144 14 14 (677376)
I0403 15:38:36.713426 15721 net.cpp:156] Memory required for data: 1118106912
I0403 15:38:36.713444 15721 layer_factory.hpp:77] Creating layer inception_4d/relu_3x3_reduce
I0403 15:38:36.713462 15721 net.cpp:91] Creating Layer inception_4d/relu_3x3_reduce
I0403 15:38:36.713479 15721 net.cpp:425] inception_4d/relu_3x3_reduce <- inception_4d/3x3_reduce
I0403 15:38:36.713498 15721 net.cpp:386] inception_4d/relu_3x3_reduce -> inception_4d/3x3_reduce (in-place)
I0403 15:38:36.713804 15721 net.cpp:141] Setting up inception_4d/relu_3x3_reduce
I0403 15:38:36.713830 15721 net.cpp:148] Top shape: 24 144 14 14 (677376)
I0403 15:38:36.713846 15721 net.cpp:156] Memory required for data: 1120816416
I0403 15:38:36.713860 15721 layer_factory.hpp:77] Creating layer inception_4d/3x3
I0403 15:38:36.713883 15721 net.cpp:91] Creating Layer inception_4d/3x3
I0403 15:38:36.713901 15721 net.cpp:425] inception_4d/3x3 <- inception_4d/3x3_reduce
I0403 15:38:36.713922 15721 net.cpp:399] inception_4d/3x3 -> inception_4d/3x3
I0403 15:38:36.718472 15721 net.cpp:141] Setting up inception_4d/3x3
I0403 15:38:36.718502 15721 net.cpp:148] Top shape: 24 288 14 14 (1354752)
I0403 15:38:36.718518 15721 net.cpp:156] Memory required for data: 1126235424
I0403 15:38:36.718540 15721 layer_factory.hpp:77] Creating layer inception_4d/relu_3x3
I0403 15:38:36.718564 15721 net.cpp:91] Creating Layer inception_4d/relu_3x3
I0403 15:38:36.718583 15721 net.cpp:425] inception_4d/relu_3x3 <- inception_4d/3x3
I0403 15:38:36.718602 15721 net.cpp:386] inception_4d/relu_3x3 -> inception_4d/3x3 (in-place)
I0403 15:38:36.718799 15721 net.cpp:141] Setting up inception_4d/relu_3x3
I0403 15:38:36.718828 15721 net.cpp:148] Top shape: 24 288 14 14 (1354752)
I0403 15:38:36.718844 15721 net.cpp:156] Memory required for data: 1131654432
I0403 15:38:36.718859 15721 layer_factory.hpp:77] Creating layer inception_4d/5x5_reduce
I0403 15:38:36.718879 15721 net.cpp:91] Creating Layer inception_4d/5x5_reduce
I0403 15:38:36.718899 15721 net.cpp:425] inception_4d/5x5_reduce <- inception_4c/output_inception_4c/output_0_split_2
I0403 15:38:36.718920 15721 net.cpp:399] inception_4d/5x5_reduce -> inception_4d/5x5_reduce
I0403 15:38:36.720140 15721 net.cpp:141] Setting up inception_4d/5x5_reduce
I0403 15:38:36.720170 15721 net.cpp:148] Top shape: 24 32 14 14 (150528)
I0403 15:38:36.720185 15721 net.cpp:156] Memory required for data: 1132256544
I0403 15:38:36.720204 15721 layer_factory.hpp:77] Creating layer inception_4d/relu_5x5_reduce
I0403 15:38:36.720227 15721 net.cpp:91] Creating Layer inception_4d/relu_5x5_reduce
I0403 15:38:36.720245 15721 net.cpp:425] inception_4d/relu_5x5_reduce <- inception_4d/5x5_reduce
I0403 15:38:36.720263 15721 net.cpp:386] inception_4d/relu_5x5_reduce -> inception_4d/5x5_reduce (in-place)
I0403 15:38:36.720465 15721 net.cpp:141] Setting up inception_4d/relu_5x5_reduce
I0403 15:38:36.720491 15721 net.cpp:148] Top shape: 24 32 14 14 (150528)
I0403 15:38:36.720506 15721 net.cpp:156] Memory required for data: 1132858656
I0403 15:38:36.720521 15721 layer_factory.hpp:77] Creating layer inception_4d/5x5
I0403 15:38:36.720551 15721 net.cpp:91] Creating Layer inception_4d/5x5
I0403 15:38:36.720571 15721 net.cpp:425] inception_4d/5x5 <- inception_4d/5x5_reduce
I0403 15:38:36.720590 15721 net.cpp:399] inception_4d/5x5 -> inception_4d/5x5
I0403 15:38:36.722148 15721 net.cpp:141] Setting up inception_4d/5x5
I0403 15:38:36.722180 15721 net.cpp:148] Top shape: 24 64 14 14 (301056)
I0403 15:38:36.722198 15721 net.cpp:156] Memory required for data: 1134062880
I0403 15:38:36.722218 15721 layer_factory.hpp:77] Creating layer inception_4d/relu_5x5
I0403 15:38:36.722251 15721 net.cpp:91] Creating Layer inception_4d/relu_5x5
I0403 15:38:36.722270 15721 net.cpp:425] inception_4d/relu_5x5 <- inception_4d/5x5
I0403 15:38:36.722291 15721 net.cpp:386] inception_4d/relu_5x5 -> inception_4d/5x5 (in-place)
I0403 15:38:36.722615 15721 net.cpp:141] Setting up inception_4d/relu_5x5
I0403 15:38:36.722645 15721 net.cpp:148] Top shape: 24 64 14 14 (301056)
I0403 15:38:36.722662 15721 net.cpp:156] Memory required for data: 1135267104
I0403 15:38:36.722678 15721 layer_factory.hpp:77] Creating layer inception_4d/pool
I0403 15:38:36.722697 15721 net.cpp:91] Creating Layer inception_4d/pool
I0403 15:38:36.722713 15721 net.cpp:425] inception_4d/pool <- inception_4c/output_inception_4c/output_0_split_3
I0403 15:38:36.722734 15721 net.cpp:399] inception_4d/pool -> inception_4d/pool
I0403 15:38:36.722805 15721 net.cpp:141] Setting up inception_4d/pool
I0403 15:38:36.722829 15721 net.cpp:148] Top shape: 24 512 14 14 (2408448)
I0403 15:38:36.722844 15721 net.cpp:156] Memory required for data: 1144900896
I0403 15:38:36.722859 15721 layer_factory.hpp:77] Creating layer inception_4d/pool_proj
I0403 15:38:36.722882 15721 net.cpp:91] Creating Layer inception_4d/pool_proj
I0403 15:38:36.722900 15721 net.cpp:425] inception_4d/pool_proj <- inception_4d/pool
I0403 15:38:36.722923 15721 net.cpp:399] inception_4d/pool_proj -> inception_4d/pool_proj
I0403 15:38:36.724805 15721 net.cpp:141] Setting up inception_4d/pool_proj
I0403 15:38:36.724836 15721 net.cpp:148] Top shape: 24 64 14 14 (301056)
I0403 15:38:36.724853 15721 net.cpp:156] Memory required for data: 1146105120
I0403 15:38:36.724872 15721 layer_factory.hpp:77] Creating layer inception_4d/relu_pool_proj
I0403 15:38:36.724894 15721 net.cpp:91] Creating Layer inception_4d/relu_pool_proj
I0403 15:38:36.724912 15721 net.cpp:425] inception_4d/relu_pool_proj <- inception_4d/pool_proj
I0403 15:38:36.724931 15721 net.cpp:386] inception_4d/relu_pool_proj -> inception_4d/pool_proj (in-place)
I0403 15:38:36.725126 15721 net.cpp:141] Setting up inception_4d/relu_pool_proj
I0403 15:38:36.725154 15721 net.cpp:148] Top shape: 24 64 14 14 (301056)
I0403 15:38:36.725169 15721 net.cpp:156] Memory required for data: 1147309344
I0403 15:38:36.725185 15721 layer_factory.hpp:77] Creating layer inception_4d/output
I0403 15:38:36.725203 15721 net.cpp:91] Creating Layer inception_4d/output
I0403 15:38:36.725219 15721 net.cpp:425] inception_4d/output <- inception_4d/1x1
I0403 15:38:36.725235 15721 net.cpp:425] inception_4d/output <- inception_4d/3x3
I0403 15:38:36.725251 15721 net.cpp:425] inception_4d/output <- inception_4d/5x5
I0403 15:38:36.725268 15721 net.cpp:425] inception_4d/output <- inception_4d/pool_proj
I0403 15:38:36.725286 15721 net.cpp:399] inception_4d/output -> inception_4d/output
I0403 15:38:36.725337 15721 net.cpp:141] Setting up inception_4d/output
I0403 15:38:36.725363 15721 net.cpp:148] Top shape: 24 528 14 14 (2483712)
I0403 15:38:36.725378 15721 net.cpp:156] Memory required for data: 1157244192
I0403 15:38:36.725392 15721 layer_factory.hpp:77] Creating layer inception_4d/output_inception_4d/output_0_split
I0403 15:38:36.725414 15721 net.cpp:91] Creating Layer inception_4d/output_inception_4d/output_0_split
I0403 15:38:36.725430 15721 net.cpp:425] inception_4d/output_inception_4d/output_0_split <- inception_4d/output
I0403 15:38:36.725448 15721 net.cpp:399] inception_4d/output_inception_4d/output_0_split -> inception_4d/output_inception_4d/output_0_split_0
I0403 15:38:36.725471 15721 net.cpp:399] inception_4d/output_inception_4d/output_0_split -> inception_4d/output_inception_4d/output_0_split_1
I0403 15:38:36.725492 15721 net.cpp:399] inception_4d/output_inception_4d/output_0_split -> inception_4d/output_inception_4d/output_0_split_2
I0403 15:38:36.725512 15721 net.cpp:399] inception_4d/output_inception_4d/output_0_split -> inception_4d/output_inception_4d/output_0_split_3
I0403 15:38:36.725545 15721 net.cpp:399] inception_4d/output_inception_4d/output_0_split -> inception_4d/output_inception_4d/output_0_split_4
I0403 15:38:36.725666 15721 net.cpp:141] Setting up inception_4d/output_inception_4d/output_0_split
I0403 15:38:36.725705 15721 net.cpp:148] Top shape: 24 528 14 14 (2483712)
I0403 15:38:36.725723 15721 net.cpp:148] Top shape: 24 528 14 14 (2483712)
I0403 15:38:36.725739 15721 net.cpp:148] Top shape: 24 528 14 14 (2483712)
I0403 15:38:36.725754 15721 net.cpp:148] Top shape: 24 528 14 14 (2483712)
I0403 15:38:36.725770 15721 net.cpp:148] Top shape: 24 528 14 14 (2483712)
I0403 15:38:36.725785 15721 net.cpp:156] Memory required for data: 1206918432
I0403 15:38:36.725800 15721 layer_factory.hpp:77] Creating layer loss2/ave_pool
I0403 15:38:36.725818 15721 net.cpp:91] Creating Layer loss2/ave_pool
I0403 15:38:36.725833 15721 net.cpp:425] loss2/ave_pool <- inception_4d/output_inception_4d/output_0_split_0
I0403 15:38:36.725855 15721 net.cpp:399] loss2/ave_pool -> loss2/ave_pool
I0403 15:38:36.726186 15721 net.cpp:141] Setting up loss2/ave_pool
I0403 15:38:36.726213 15721 net.cpp:148] Top shape: 24 528 4 4 (202752)
I0403 15:38:36.726229 15721 net.cpp:156] Memory required for data: 1207729440
I0403 15:38:36.726244 15721 layer_factory.hpp:77] Creating layer loss2/conv
I0403 15:38:36.726268 15721 net.cpp:91] Creating Layer loss2/conv
I0403 15:38:36.726285 15721 net.cpp:425] loss2/conv <- loss2/ave_pool
I0403 15:38:36.726308 15721 net.cpp:399] loss2/conv -> loss2/conv
I0403 15:38:36.728343 15721 net.cpp:141] Setting up loss2/conv
I0403 15:38:36.728376 15721 net.cpp:148] Top shape: 24 128 4 4 (49152)
I0403 15:38:36.728394 15721 net.cpp:156] Memory required for data: 1207926048
I0403 15:38:36.728413 15721 layer_factory.hpp:77] Creating layer loss2/relu_conv
I0403 15:38:36.728432 15721 net.cpp:91] Creating Layer loss2/relu_conv
I0403 15:38:36.728451 15721 net.cpp:425] loss2/relu_conv <- loss2/conv
I0403 15:38:36.728467 15721 net.cpp:386] loss2/relu_conv -> loss2/conv (in-place)
I0403 15:38:36.728775 15721 net.cpp:141] Setting up loss2/relu_conv
I0403 15:38:36.728806 15721 net.cpp:148] Top shape: 24 128 4 4 (49152)
I0403 15:38:36.728822 15721 net.cpp:156] Memory required for data: 1208122656
I0403 15:38:36.728838 15721 layer_factory.hpp:77] Creating layer loss2/fc
I0403 15:38:36.728857 15721 net.cpp:91] Creating Layer loss2/fc
I0403 15:38:36.728874 15721 net.cpp:425] loss2/fc <- loss2/conv
I0403 15:38:36.728899 15721 net.cpp:399] loss2/fc -> loss2/fc
I0403 15:38:36.747643 15721 net.cpp:141] Setting up loss2/fc
I0403 15:38:36.747678 15721 net.cpp:148] Top shape: 24 1024 (24576)
I0403 15:38:36.747692 15721 net.cpp:156] Memory required for data: 1208220960
I0403 15:38:36.747711 15721 layer_factory.hpp:77] Creating layer loss2/relu_fc
I0403 15:38:36.747732 15721 net.cpp:91] Creating Layer loss2/relu_fc
I0403 15:38:36.747750 15721 net.cpp:425] loss2/relu_fc <- loss2/fc
I0403 15:38:36.747768 15721 net.cpp:386] loss2/relu_fc -> loss2/fc (in-place)
I0403 15:38:36.748076 15721 net.cpp:141] Setting up loss2/relu_fc
I0403 15:38:36.748103 15721 net.cpp:148] Top shape: 24 1024 (24576)
I0403 15:38:36.748118 15721 net.cpp:156] Memory required for data: 1208319264
I0403 15:38:36.748133 15721 layer_factory.hpp:77] Creating layer loss2/drop_fc
I0403 15:38:36.748154 15721 net.cpp:91] Creating Layer loss2/drop_fc
I0403 15:38:36.748172 15721 net.cpp:425] loss2/drop_fc <- loss2/fc
I0403 15:38:36.748189 15721 net.cpp:386] loss2/drop_fc -> loss2/fc (in-place)
I0403 15:38:36.748241 15721 net.cpp:141] Setting up loss2/drop_fc
I0403 15:38:36.748265 15721 net.cpp:148] Top shape: 24 1024 (24576)
I0403 15:38:36.748280 15721 net.cpp:156] Memory required for data: 1208417568
I0403 15:38:36.748294 15721 layer_factory.hpp:77] Creating layer loss2/classifier_plantvillage
I0403 15:38:36.748312 15721 net.cpp:91] Creating Layer loss2/classifier_plantvillage
I0403 15:38:36.748332 15721 net.cpp:425] loss2/classifier_plantvillage <- loss2/fc
I0403 15:38:36.748350 15721 net.cpp:399] loss2/classifier_plantvillage -> loss2/classifier_plantvillage
I0403 15:38:36.748776 15721 net.cpp:141] Setting up loss2/classifier_plantvillage
I0403 15:38:36.748800 15721 net.cpp:148] Top shape: 24 38 (912)
I0403 15:38:36.748816 15721 net.cpp:156] Memory required for data: 1208421216
I0403 15:38:36.748852 15721 layer_factory.hpp:77] Creating layer loss2/classifier_plantvillage_loss2/classifier_plantvillage_0_split
I0403 15:38:36.748870 15721 net.cpp:91] Creating Layer loss2/classifier_plantvillage_loss2/classifier_plantvillage_0_split
I0403 15:38:36.748886 15721 net.cpp:425] loss2/classifier_plantvillage_loss2/classifier_plantvillage_0_split <- loss2/classifier_plantvillage
I0403 15:38:36.748905 15721 net.cpp:399] loss2/classifier_plantvillage_loss2/classifier_plantvillage_0_split -> loss2/classifier_plantvillage_loss2/classifier_plantvillage_0_split_0
I0403 15:38:36.748926 15721 net.cpp:399] loss2/classifier_plantvillage_loss2/classifier_plantvillage_0_split -> loss2/classifier_plantvillage_loss2/classifier_plantvillage_0_split_1
I0403 15:38:36.748947 15721 net.cpp:399] loss2/classifier_plantvillage_loss2/classifier_plantvillage_0_split -> loss2/classifier_plantvillage_loss2/classifier_plantvillage_0_split_2
I0403 15:38:36.749024 15721 net.cpp:141] Setting up loss2/classifier_plantvillage_loss2/classifier_plantvillage_0_split
I0403 15:38:36.749049 15721 net.cpp:148] Top shape: 24 38 (912)
I0403 15:38:36.749066 15721 net.cpp:148] Top shape: 24 38 (912)
I0403 15:38:36.749083 15721 net.cpp:148] Top shape: 24 38 (912)
I0403 15:38:36.749095 15721 net.cpp:156] Memory required for data: 1208432160
I0403 15:38:36.749109 15721 layer_factory.hpp:77] Creating layer inception_4e/1x1
I0403 15:38:36.749132 15721 net.cpp:91] Creating Layer inception_4e/1x1
I0403 15:38:36.749150 15721 net.cpp:425] inception_4e/1x1 <- inception_4d/output_inception_4d/output_0_split_1
I0403 15:38:36.749167 15721 net.cpp:399] inception_4e/1x1 -> inception_4e/1x1
I0403 15:38:36.750998 15721 net.cpp:141] Setting up inception_4e/1x1
I0403 15:38:36.751029 15721 net.cpp:148] Top shape: 24 256 14 14 (1204224)
I0403 15:38:36.751045 15721 net.cpp:156] Memory required for data: 1213249056
I0403 15:38:36.751063 15721 layer_factory.hpp:77] Creating layer inception_4e/relu_1x1
I0403 15:38:36.751082 15721 net.cpp:91] Creating Layer inception_4e/relu_1x1
I0403 15:38:36.751097 15721 net.cpp:425] inception_4e/relu_1x1 <- inception_4e/1x1
I0403 15:38:36.751116 15721 net.cpp:386] inception_4e/relu_1x1 -> inception_4e/1x1 (in-place)
I0403 15:38:36.751413 15721 net.cpp:141] Setting up inception_4e/relu_1x1
I0403 15:38:36.751442 15721 net.cpp:148] Top shape: 24 256 14 14 (1204224)
I0403 15:38:36.751458 15721 net.cpp:156] Memory required for data: 1218065952
I0403 15:38:36.751473 15721 layer_factory.hpp:77] Creating layer inception_4e/3x3_reduce
I0403 15:38:36.751495 15721 net.cpp:91] Creating Layer inception_4e/3x3_reduce
I0403 15:38:36.751513 15721 net.cpp:425] inception_4e/3x3_reduce <- inception_4d/output_inception_4d/output_0_split_2
I0403 15:38:36.751530 15721 net.cpp:399] inception_4e/3x3_reduce -> inception_4e/3x3_reduce
I0403 15:38:36.753685 15721 net.cpp:141] Setting up inception_4e/3x3_reduce
I0403 15:38:36.753718 15721 net.cpp:148] Top shape: 24 160 14 14 (752640)
I0403 15:38:36.753736 15721 net.cpp:156] Memory required for data: 1221076512
I0403 15:38:36.753753 15721 layer_factory.hpp:77] Creating layer inception_4e/relu_3x3_reduce
I0403 15:38:36.753772 15721 net.cpp:91] Creating Layer inception_4e/relu_3x3_reduce
I0403 15:38:36.753787 15721 net.cpp:425] inception_4e/relu_3x3_reduce <- inception_4e/3x3_reduce
I0403 15:38:36.753803 15721 net.cpp:386] inception_4e/relu_3x3_reduce -> inception_4e/3x3_reduce (in-place)
I0403 15:38:36.753989 15721 net.cpp:141] Setting up inception_4e/relu_3x3_reduce
I0403 15:38:36.754015 15721 net.cpp:148] Top shape: 24 160 14 14 (752640)
I0403 15:38:36.754031 15721 net.cpp:156] Memory required for data: 1224087072
I0403 15:38:36.754045 15721 layer_factory.hpp:77] Creating layer inception_4e/3x3
I0403 15:38:36.754066 15721 net.cpp:91] Creating Layer inception_4e/3x3
I0403 15:38:36.754083 15721 net.cpp:425] inception_4e/3x3 <- inception_4e/3x3_reduce
I0403 15:38:36.754104 15721 net.cpp:399] inception_4e/3x3 -> inception_4e/3x3
I0403 15:38:36.759155 15721 net.cpp:141] Setting up inception_4e/3x3
I0403 15:38:36.759198 15721 net.cpp:148] Top shape: 24 320 14 14 (1505280)
I0403 15:38:36.759214 15721 net.cpp:156] Memory required for data: 1230108192
I0403 15:38:36.759232 15721 layer_factory.hpp:77] Creating layer inception_4e/relu_3x3
I0403 15:38:36.759250 15721 net.cpp:91] Creating Layer inception_4e/relu_3x3
I0403 15:38:36.759266 15721 net.cpp:425] inception_4e/relu_3x3 <- inception_4e/3x3
I0403 15:38:36.759285 15721 net.cpp:386] inception_4e/relu_3x3 -> inception_4e/3x3 (in-place)
I0403 15:38:36.759588 15721 net.cpp:141] Setting up inception_4e/relu_3x3
I0403 15:38:36.759614 15721 net.cpp:148] Top shape: 24 320 14 14 (1505280)
I0403 15:38:36.759629 15721 net.cpp:156] Memory required for data: 1236129312
I0403 15:38:36.759644 15721 layer_factory.hpp:77] Creating layer inception_4e/5x5_reduce
I0403 15:38:36.759665 15721 net.cpp:91] Creating Layer inception_4e/5x5_reduce
I0403 15:38:36.759683 15721 net.cpp:425] inception_4e/5x5_reduce <- inception_4d/output_inception_4d/output_0_split_3
I0403 15:38:36.759704 15721 net.cpp:399] inception_4e/5x5_reduce -> inception_4e/5x5_reduce
I0403 15:38:36.760787 15721 net.cpp:141] Setting up inception_4e/5x5_reduce
I0403 15:38:36.760815 15721 net.cpp:148] Top shape: 24 32 14 14 (150528)
I0403 15:38:36.760831 15721 net.cpp:156] Memory required for data: 1236731424
I0403 15:38:36.760849 15721 layer_factory.hpp:77] Creating layer inception_4e/relu_5x5_reduce
I0403 15:38:36.760867 15721 net.cpp:91] Creating Layer inception_4e/relu_5x5_reduce
I0403 15:38:36.760884 15721 net.cpp:425] inception_4e/relu_5x5_reduce <- inception_4e/5x5_reduce
I0403 15:38:36.760902 15721 net.cpp:386] inception_4e/relu_5x5_reduce -> inception_4e/5x5_reduce (in-place)
I0403 15:38:36.761201 15721 net.cpp:141] Setting up inception_4e/relu_5x5_reduce
I0403 15:38:36.761229 15721 net.cpp:148] Top shape: 24 32 14 14 (150528)
I0403 15:38:36.761257 15721 net.cpp:156] Memory required for data: 1237333536
I0403 15:38:36.761272 15721 layer_factory.hpp:77] Creating layer inception_4e/5x5
I0403 15:38:36.761312 15721 net.cpp:91] Creating Layer inception_4e/5x5
I0403 15:38:36.761330 15721 net.cpp:425] inception_4e/5x5 <- inception_4e/5x5_reduce
I0403 15:38:36.761350 15721 net.cpp:399] inception_4e/5x5 -> inception_4e/5x5
I0403 15:38:36.763245 15721 net.cpp:141] Setting up inception_4e/5x5
I0403 15:38:36.763273 15721 net.cpp:148] Top shape: 24 128 14 14 (602112)
I0403 15:38:36.763288 15721 net.cpp:156] Memory required for data: 1239741984
I0403 15:38:36.763308 15721 layer_factory.hpp:77] Creating layer inception_4e/relu_5x5
I0403 15:38:36.763327 15721 net.cpp:91] Creating Layer inception_4e/relu_5x5
I0403 15:38:36.763345 15721 net.cpp:425] inception_4e/relu_5x5 <- inception_4e/5x5
I0403 15:38:36.763361 15721 net.cpp:386] inception_4e/relu_5x5 -> inception_4e/5x5 (in-place)
I0403 15:38:36.763561 15721 net.cpp:141] Setting up inception_4e/relu_5x5
I0403 15:38:36.763589 15721 net.cpp:148] Top shape: 24 128 14 14 (602112)
I0403 15:38:36.763604 15721 net.cpp:156] Memory required for data: 1242150432
I0403 15:38:36.763619 15721 layer_factory.hpp:77] Creating layer inception_4e/pool
I0403 15:38:36.763638 15721 net.cpp:91] Creating Layer inception_4e/pool
I0403 15:38:36.763653 15721 net.cpp:425] inception_4e/pool <- inception_4d/output_inception_4d/output_0_split_4
I0403 15:38:36.763672 15721 net.cpp:399] inception_4e/pool -> inception_4e/pool
I0403 15:38:36.763744 15721 net.cpp:141] Setting up inception_4e/pool
I0403 15:38:36.763768 15721 net.cpp:148] Top shape: 24 528 14 14 (2483712)
I0403 15:38:36.763782 15721 net.cpp:156] Memory required for data: 1252085280
I0403 15:38:36.763797 15721 layer_factory.hpp:77] Creating layer inception_4e/pool_proj
I0403 15:38:36.763818 15721 net.cpp:91] Creating Layer inception_4e/pool_proj
I0403 15:38:36.763835 15721 net.cpp:425] inception_4e/pool_proj <- inception_4e/pool
I0403 15:38:36.763855 15721 net.cpp:399] inception_4e/pool_proj -> inception_4e/pool_proj
I0403 15:38:36.765364 15721 net.cpp:141] Setting up inception_4e/pool_proj
I0403 15:38:36.765393 15721 net.cpp:148] Top shape: 24 128 14 14 (602112)
I0403 15:38:36.765421 15721 net.cpp:156] Memory required for data: 1254493728
I0403 15:38:36.765441 15721 layer_factory.hpp:77] Creating layer inception_4e/relu_pool_proj
I0403 15:38:36.765461 15721 net.cpp:91] Creating Layer inception_4e/relu_pool_proj
I0403 15:38:36.765477 15721 net.cpp:425] inception_4e/relu_pool_proj <- inception_4e/pool_proj
I0403 15:38:36.765496 15721 net.cpp:386] inception_4e/relu_pool_proj -> inception_4e/pool_proj (in-place)
I0403 15:38:36.765799 15721 net.cpp:141] Setting up inception_4e/relu_pool_proj
I0403 15:38:36.765825 15721 net.cpp:148] Top shape: 24 128 14 14 (602112)
I0403 15:38:36.765841 15721 net.cpp:156] Memory required for data: 1256902176
I0403 15:38:36.765854 15721 layer_factory.hpp:77] Creating layer inception_4e/output
I0403 15:38:36.765872 15721 net.cpp:91] Creating Layer inception_4e/output
I0403 15:38:36.765887 15721 net.cpp:425] inception_4e/output <- inception_4e/1x1
I0403 15:38:36.765902 15721 net.cpp:425] inception_4e/output <- inception_4e/3x3
I0403 15:38:36.765918 15721 net.cpp:425] inception_4e/output <- inception_4e/5x5
I0403 15:38:36.765933 15721 net.cpp:425] inception_4e/output <- inception_4e/pool_proj
I0403 15:38:36.765952 15721 net.cpp:399] inception_4e/output -> inception_4e/output
I0403 15:38:36.766005 15721 net.cpp:141] Setting up inception_4e/output
I0403 15:38:36.766028 15721 net.cpp:148] Top shape: 24 832 14 14 (3913728)
I0403 15:38:36.766041 15721 net.cpp:156] Memory required for data: 1272557088
I0403 15:38:36.766055 15721 layer_factory.hpp:77] Creating layer pool4/3x3_s2
I0403 15:38:36.766072 15721 net.cpp:91] Creating Layer pool4/3x3_s2
I0403 15:38:36.766086 15721 net.cpp:425] pool4/3x3_s2 <- inception_4e/output
I0403 15:38:36.766106 15721 net.cpp:399] pool4/3x3_s2 -> pool4/3x3_s2
I0403 15:38:36.766173 15721 net.cpp:141] Setting up pool4/3x3_s2
I0403 15:38:36.766197 15721 net.cpp:148] Top shape: 24 832 7 7 (978432)
I0403 15:38:36.766211 15721 net.cpp:156] Memory required for data: 1276470816
I0403 15:38:36.766225 15721 layer_factory.hpp:77] Creating layer pool4/3x3_s2_pool4/3x3_s2_0_split
I0403 15:38:36.766244 15721 net.cpp:91] Creating Layer pool4/3x3_s2_pool4/3x3_s2_0_split
I0403 15:38:36.766261 15721 net.cpp:425] pool4/3x3_s2_pool4/3x3_s2_0_split <- pool4/3x3_s2
I0403 15:38:36.766278 15721 net.cpp:399] pool4/3x3_s2_pool4/3x3_s2_0_split -> pool4/3x3_s2_pool4/3x3_s2_0_split_0
I0403 15:38:36.766299 15721 net.cpp:399] pool4/3x3_s2_pool4/3x3_s2_0_split -> pool4/3x3_s2_pool4/3x3_s2_0_split_1
I0403 15:38:36.766321 15721 net.cpp:399] pool4/3x3_s2_pool4/3x3_s2_0_split -> pool4/3x3_s2_pool4/3x3_s2_0_split_2
I0403 15:38:36.766340 15721 net.cpp:399] pool4/3x3_s2_pool4/3x3_s2_0_split -> pool4/3x3_s2_pool4/3x3_s2_0_split_3
I0403 15:38:36.766433 15721 net.cpp:141] Setting up pool4/3x3_s2_pool4/3x3_s2_0_split
I0403 15:38:36.766455 15721 net.cpp:148] Top shape: 24 832 7 7 (978432)
I0403 15:38:36.766471 15721 net.cpp:148] Top shape: 24 832 7 7 (978432)
I0403 15:38:36.766485 15721 net.cpp:148] Top shape: 24 832 7 7 (978432)
I0403 15:38:36.766499 15721 net.cpp:148] Top shape: 24 832 7 7 (978432)
I0403 15:38:36.766513 15721 net.cpp:156] Memory required for data: 1292125728
I0403 15:38:36.766527 15721 layer_factory.hpp:77] Creating layer inception_5a/1x1
I0403 15:38:36.766553 15721 net.cpp:91] Creating Layer inception_5a/1x1
I0403 15:38:36.766571 15721 net.cpp:425] inception_5a/1x1 <- pool4/3x3_s2_pool4/3x3_s2_0_split_0
I0403 15:38:36.766592 15721 net.cpp:399] inception_5a/1x1 -> inception_5a/1x1
I0403 15:38:36.769484 15721 net.cpp:141] Setting up inception_5a/1x1
I0403 15:38:36.769513 15721 net.cpp:148] Top shape: 24 256 7 7 (301056)
I0403 15:38:36.769531 15721 net.cpp:156] Memory required for data: 1293329952
I0403 15:38:36.769554 15721 layer_factory.hpp:77] Creating layer inception_5a/relu_1x1
I0403 15:38:36.769574 15721 net.cpp:91] Creating Layer inception_5a/relu_1x1
I0403 15:38:36.769589 15721 net.cpp:425] inception_5a/relu_1x1 <- inception_5a/1x1
I0403 15:38:36.769606 15721 net.cpp:386] inception_5a/relu_1x1 -> inception_5a/1x1 (in-place)
I0403 15:38:36.769922 15721 net.cpp:141] Setting up inception_5a/relu_1x1
I0403 15:38:36.769948 15721 net.cpp:148] Top shape: 24 256 7 7 (301056)
I0403 15:38:36.769964 15721 net.cpp:156] Memory required for data: 1294534176
I0403 15:38:36.769979 15721 layer_factory.hpp:77] Creating layer inception_5a/3x3_reduce
I0403 15:38:36.769999 15721 net.cpp:91] Creating Layer inception_5a/3x3_reduce
I0403 15:38:36.770015 15721 net.cpp:425] inception_5a/3x3_reduce <- pool4/3x3_s2_pool4/3x3_s2_0_split_1
I0403 15:38:36.770036 15721 net.cpp:399] inception_5a/3x3_reduce -> inception_5a/3x3_reduce
I0403 15:38:36.772583 15721 net.cpp:141] Setting up inception_5a/3x3_reduce
I0403 15:38:36.772614 15721 net.cpp:148] Top shape: 24 160 7 7 (188160)
I0403 15:38:36.772630 15721 net.cpp:156] Memory required for data: 1295286816
I0403 15:38:36.772650 15721 layer_factory.hpp:77] Creating layer inception_5a/relu_3x3_reduce
I0403 15:38:36.772667 15721 net.cpp:91] Creating Layer inception_5a/relu_3x3_reduce
I0403 15:38:36.772683 15721 net.cpp:425] inception_5a/relu_3x3_reduce <- inception_5a/3x3_reduce
I0403 15:38:36.772703 15721 net.cpp:386] inception_5a/relu_3x3_reduce -> inception_5a/3x3_reduce (in-place)
I0403 15:38:36.772898 15721 net.cpp:141] Setting up inception_5a/relu_3x3_reduce
I0403 15:38:36.772924 15721 net.cpp:148] Top shape: 24 160 7 7 (188160)
I0403 15:38:36.772939 15721 net.cpp:156] Memory required for data: 1296039456
I0403 15:38:36.772953 15721 layer_factory.hpp:77] Creating layer inception_5a/3x3
I0403 15:38:36.772975 15721 net.cpp:91] Creating Layer inception_5a/3x3
I0403 15:38:36.772994 15721 net.cpp:425] inception_5a/3x3 <- inception_5a/3x3_reduce
I0403 15:38:36.773017 15721 net.cpp:399] inception_5a/3x3 -> inception_5a/3x3
I0403 15:38:36.778245 15721 net.cpp:141] Setting up inception_5a/3x3
I0403 15:38:36.778276 15721 net.cpp:148] Top shape: 24 320 7 7 (376320)
I0403 15:38:36.778291 15721 net.cpp:156] Memory required for data: 1297544736
I0403 15:38:36.778311 15721 layer_factory.hpp:77] Creating layer inception_5a/relu_3x3
I0403 15:38:36.778331 15721 net.cpp:91] Creating Layer inception_5a/relu_3x3
I0403 15:38:36.778348 15721 net.cpp:425] inception_5a/relu_3x3 <- inception_5a/3x3
I0403 15:38:36.778367 15721 net.cpp:386] inception_5a/relu_3x3 -> inception_5a/3x3 (in-place)
I0403 15:38:36.778673 15721 net.cpp:141] Setting up inception_5a/relu_3x3
I0403 15:38:36.778700 15721 net.cpp:148] Top shape: 24 320 7 7 (376320)
I0403 15:38:36.778715 15721 net.cpp:156] Memory required for data: 1299050016
I0403 15:38:36.778730 15721 layer_factory.hpp:77] Creating layer inception_5a/5x5_reduce
I0403 15:38:36.778758 15721 net.cpp:91] Creating Layer inception_5a/5x5_reduce
I0403 15:38:36.778775 15721 net.cpp:425] inception_5a/5x5_reduce <- pool4/3x3_s2_pool4/3x3_s2_0_split_2
I0403 15:38:36.778795 15721 net.cpp:399] inception_5a/5x5_reduce -> inception_5a/5x5_reduce
I0403 15:38:36.780011 15721 net.cpp:141] Setting up inception_5a/5x5_reduce
I0403 15:38:36.780042 15721 net.cpp:148] Top shape: 24 32 7 7 (37632)
I0403 15:38:36.780061 15721 net.cpp:156] Memory required for data: 1299200544
I0403 15:38:36.780078 15721 layer_factory.hpp:77] Creating layer inception_5a/relu_5x5_reduce
I0403 15:38:36.780097 15721 net.cpp:91] Creating Layer inception_5a/relu_5x5_reduce
I0403 15:38:36.780112 15721 net.cpp:425] inception_5a/relu_5x5_reduce <- inception_5a/5x5_reduce
I0403 15:38:36.780129 15721 net.cpp:386] inception_5a/relu_5x5_reduce -> inception_5a/5x5_reduce (in-place)
I0403 15:38:36.780438 15721 net.cpp:141] Setting up inception_5a/relu_5x5_reduce
I0403 15:38:36.780468 15721 net.cpp:148] Top shape: 24 32 7 7 (37632)
I0403 15:38:36.780483 15721 net.cpp:156] Memory required for data: 1299351072
I0403 15:38:36.780499 15721 layer_factory.hpp:77] Creating layer inception_5a/5x5
I0403 15:38:36.780521 15721 net.cpp:91] Creating Layer inception_5a/5x5
I0403 15:38:36.780542 15721 net.cpp:425] inception_5a/5x5 <- inception_5a/5x5_reduce
I0403 15:38:36.780565 15721 net.cpp:399] inception_5a/5x5 -> inception_5a/5x5
I0403 15:38:36.782368 15721 net.cpp:141] Setting up inception_5a/5x5
I0403 15:38:36.782410 15721 net.cpp:148] Top shape: 24 128 7 7 (150528)
I0403 15:38:36.782428 15721 net.cpp:156] Memory required for data: 1299953184
I0403 15:38:36.782446 15721 layer_factory.hpp:77] Creating layer inception_5a/relu_5x5
I0403 15:38:36.782469 15721 net.cpp:91] Creating Layer inception_5a/relu_5x5
I0403 15:38:36.782485 15721 net.cpp:425] inception_5a/relu_5x5 <- inception_5a/5x5
I0403 15:38:36.782505 15721 net.cpp:386] inception_5a/relu_5x5 -> inception_5a/5x5 (in-place)
I0403 15:38:36.782717 15721 net.cpp:141] Setting up inception_5a/relu_5x5
I0403 15:38:36.782744 15721 net.cpp:148] Top shape: 24 128 7 7 (150528)
I0403 15:38:36.782760 15721 net.cpp:156] Memory required for data: 1300555296
I0403 15:38:36.782775 15721 layer_factory.hpp:77] Creating layer inception_5a/pool
I0403 15:38:36.782793 15721 net.cpp:91] Creating Layer inception_5a/pool
I0403 15:38:36.782809 15721 net.cpp:425] inception_5a/pool <- pool4/3x3_s2_pool4/3x3_s2_0_split_3
I0403 15:38:36.782829 15721 net.cpp:399] inception_5a/pool -> inception_5a/pool
I0403 15:38:36.782902 15721 net.cpp:141] Setting up inception_5a/pool
I0403 15:38:36.782927 15721 net.cpp:148] Top shape: 24 832 7 7 (978432)
I0403 15:38:36.782941 15721 net.cpp:156] Memory required for data: 1304469024
I0403 15:38:36.782955 15721 layer_factory.hpp:77] Creating layer inception_5a/pool_proj
I0403 15:38:36.782981 15721 net.cpp:91] Creating Layer inception_5a/pool_proj
I0403 15:38:36.782999 15721 net.cpp:425] inception_5a/pool_proj <- inception_5a/pool
I0403 15:38:36.783018 15721 net.cpp:399] inception_5a/pool_proj -> inception_5a/pool_proj
I0403 15:38:36.785369 15721 net.cpp:141] Setting up inception_5a/pool_proj
I0403 15:38:36.785399 15721 net.cpp:148] Top shape: 24 128 7 7 (150528)
I0403 15:38:36.785415 15721 net.cpp:156] Memory required for data: 1305071136
I0403 15:38:36.785434 15721 layer_factory.hpp:77] Creating layer inception_5a/relu_pool_proj
I0403 15:38:36.785454 15721 net.cpp:91] Creating Layer inception_5a/relu_pool_proj
I0403 15:38:36.785472 15721 net.cpp:425] inception_5a/relu_pool_proj <- inception_5a/pool_proj
I0403 15:38:36.785490 15721 net.cpp:386] inception_5a/relu_pool_proj -> inception_5a/pool_proj (in-place)
I0403 15:38:36.785804 15721 net.cpp:141] Setting up inception_5a/relu_pool_proj
I0403 15:38:36.785831 15721 net.cpp:148] Top shape: 24 128 7 7 (150528)
I0403 15:38:36.785846 15721 net.cpp:156] Memory required for data: 1305673248
I0403 15:38:36.785861 15721 layer_factory.hpp:77] Creating layer inception_5a/output
I0403 15:38:36.785881 15721 net.cpp:91] Creating Layer inception_5a/output
I0403 15:38:36.785898 15721 net.cpp:425] inception_5a/output <- inception_5a/1x1
I0403 15:38:36.785915 15721 net.cpp:425] inception_5a/output <- inception_5a/3x3
I0403 15:38:36.785931 15721 net.cpp:425] inception_5a/output <- inception_5a/5x5
I0403 15:38:36.785946 15721 net.cpp:425] inception_5a/output <- inception_5a/pool_proj
I0403 15:38:36.785964 15721 net.cpp:399] inception_5a/output -> inception_5a/output
I0403 15:38:36.786016 15721 net.cpp:141] Setting up inception_5a/output
I0403 15:38:36.786041 15721 net.cpp:148] Top shape: 24 832 7 7 (978432)
I0403 15:38:36.786056 15721 net.cpp:156] Memory required for data: 1309586976
I0403 15:38:36.786070 15721 layer_factory.hpp:77] Creating layer inception_5a/output_inception_5a/output_0_split
I0403 15:38:36.786087 15721 net.cpp:91] Creating Layer inception_5a/output_inception_5a/output_0_split
I0403 15:38:36.786103 15721 net.cpp:425] inception_5a/output_inception_5a/output_0_split <- inception_5a/output
I0403 15:38:36.786123 15721 net.cpp:399] inception_5a/output_inception_5a/output_0_split -> inception_5a/output_inception_5a/output_0_split_0
I0403 15:38:36.786144 15721 net.cpp:399] inception_5a/output_inception_5a/output_0_split -> inception_5a/output_inception_5a/output_0_split_1
I0403 15:38:36.786164 15721 net.cpp:399] inception_5a/output_inception_5a/output_0_split -> inception_5a/output_inception_5a/output_0_split_2
I0403 15:38:36.786185 15721 net.cpp:399] inception_5a/output_inception_5a/output_0_split -> inception_5a/output_inception_5a/output_0_split_3
I0403 15:38:36.786301 15721 net.cpp:141] Setting up inception_5a/output_inception_5a/output_0_split
I0403 15:38:36.786329 15721 net.cpp:148] Top shape: 24 832 7 7 (978432)
I0403 15:38:36.786345 15721 net.cpp:148] Top shape: 24 832 7 7 (978432)
I0403 15:38:36.786361 15721 net.cpp:148] Top shape: 24 832 7 7 (978432)
I0403 15:38:36.786376 15721 net.cpp:148] Top shape: 24 832 7 7 (978432)
I0403 15:38:36.786389 15721 net.cpp:156] Memory required for data: 1325241888
I0403 15:38:36.786403 15721 layer_factory.hpp:77] Creating layer inception_5b/1x1
I0403 15:38:36.786425 15721 net.cpp:91] Creating Layer inception_5b/1x1
I0403 15:38:36.786443 15721 net.cpp:425] inception_5b/1x1 <- inception_5a/output_inception_5a/output_0_split_0
I0403 15:38:36.786463 15721 net.cpp:399] inception_5b/1x1 -> inception_5b/1x1
I0403 15:38:36.790412 15721 net.cpp:141] Setting up inception_5b/1x1
I0403 15:38:36.790443 15721 net.cpp:148] Top shape: 24 384 7 7 (451584)
I0403 15:38:36.790459 15721 net.cpp:156] Memory required for data: 1327048224
I0403 15:38:36.790477 15721 layer_factory.hpp:77] Creating layer inception_5b/relu_1x1
I0403 15:38:36.790496 15721 net.cpp:91] Creating Layer inception_5b/relu_1x1
I0403 15:38:36.790513 15721 net.cpp:425] inception_5b/relu_1x1 <- inception_5b/1x1
I0403 15:38:36.790532 15721 net.cpp:386] inception_5b/relu_1x1 -> inception_5b/1x1 (in-place)
I0403 15:38:36.790868 15721 net.cpp:141] Setting up inception_5b/relu_1x1
I0403 15:38:36.790894 15721 net.cpp:148] Top shape: 24 384 7 7 (451584)
I0403 15:38:36.790910 15721 net.cpp:156] Memory required for data: 1328854560
I0403 15:38:36.790923 15721 layer_factory.hpp:77] Creating layer inception_5b/3x3_reduce
I0403 15:38:36.790946 15721 net.cpp:91] Creating Layer inception_5b/3x3_reduce
I0403 15:38:36.790962 15721 net.cpp:425] inception_5b/3x3_reduce <- inception_5a/output_inception_5a/output_0_split_1
I0403 15:38:36.790985 15721 net.cpp:399] inception_5b/3x3_reduce -> inception_5b/3x3_reduce
I0403 15:38:36.793691 15721 net.cpp:141] Setting up inception_5b/3x3_reduce
I0403 15:38:36.793720 15721 net.cpp:148] Top shape: 24 192 7 7 (225792)
I0403 15:38:36.793736 15721 net.cpp:156] Memory required for data: 1329757728
I0403 15:38:36.793753 15721 layer_factory.hpp:77] Creating layer inception_5b/relu_3x3_reduce
I0403 15:38:36.793773 15721 net.cpp:91] Creating Layer inception_5b/relu_3x3_reduce
I0403 15:38:36.793790 15721 net.cpp:425] inception_5b/relu_3x3_reduce <- inception_5b/3x3_reduce
I0403 15:38:36.793807 15721 net.cpp:386] inception_5b/relu_3x3_reduce -> inception_5b/3x3_reduce (in-place)
I0403 15:38:36.794000 15721 net.cpp:141] Setting up inception_5b/relu_3x3_reduce
I0403 15:38:36.794025 15721 net.cpp:148] Top shape: 24 192 7 7 (225792)
I0403 15:38:36.794039 15721 net.cpp:156] Memory required for data: 1330660896
I0403 15:38:36.794052 15721 layer_factory.hpp:77] Creating layer inception_5b/3x3
I0403 15:38:36.794076 15721 net.cpp:91] Creating Layer inception_5b/3x3
I0403 15:38:36.794093 15721 net.cpp:425] inception_5b/3x3 <- inception_5b/3x3_reduce
I0403 15:38:36.794112 15721 net.cpp:399] inception_5b/3x3 -> inception_5b/3x3
I0403 15:38:36.800981 15721 net.cpp:141] Setting up inception_5b/3x3
I0403 15:38:36.801010 15721 net.cpp:148] Top shape: 24 384 7 7 (451584)
I0403 15:38:36.801026 15721 net.cpp:156] Memory required for data: 1332467232
I0403 15:38:36.801044 15721 layer_factory.hpp:77] Creating layer inception_5b/relu_3x3
I0403 15:38:36.801066 15721 net.cpp:91] Creating Layer inception_5b/relu_3x3
I0403 15:38:36.801084 15721 net.cpp:425] inception_5b/relu_3x3 <- inception_5b/3x3
I0403 15:38:36.801100 15721 net.cpp:386] inception_5b/relu_3x3 -> inception_5b/3x3 (in-place)
I0403 15:38:36.801416 15721 net.cpp:141] Setting up inception_5b/relu_3x3
I0403 15:38:36.801443 15721 net.cpp:148] Top shape: 24 384 7 7 (451584)
I0403 15:38:36.801458 15721 net.cpp:156] Memory required for data: 1334273568
I0403 15:38:36.801473 15721 layer_factory.hpp:77] Creating layer inception_5b/5x5_reduce
I0403 15:38:36.801512 15721 net.cpp:91] Creating Layer inception_5b/5x5_reduce
I0403 15:38:36.801532 15721 net.cpp:425] inception_5b/5x5_reduce <- inception_5a/output_inception_5a/output_0_split_2
I0403 15:38:36.801571 15721 net.cpp:399] inception_5b/5x5_reduce -> inception_5b/5x5_reduce
I0403 15:38:36.802860 15721 net.cpp:141] Setting up inception_5b/5x5_reduce
I0403 15:38:36.802887 15721 net.cpp:148] Top shape: 24 48 7 7 (56448)
I0403 15:38:36.802902 15721 net.cpp:156] Memory required for data: 1334499360
I0403 15:38:36.802919 15721 layer_factory.hpp:77] Creating layer inception_5b/relu_5x5_reduce
I0403 15:38:36.802939 15721 net.cpp:91] Creating Layer inception_5b/relu_5x5_reduce
I0403 15:38:36.802956 15721 net.cpp:425] inception_5b/relu_5x5_reduce <- inception_5b/5x5_reduce
I0403 15:38:36.802973 15721 net.cpp:386] inception_5b/relu_5x5_reduce -> inception_5b/5x5_reduce (in-place)
I0403 15:38:36.803349 15721 net.cpp:141] Setting up inception_5b/relu_5x5_reduce
I0403 15:38:36.803375 15721 net.cpp:148] Top shape: 24 48 7 7 (56448)
I0403 15:38:36.803390 15721 net.cpp:156] Memory required for data: 1334725152
I0403 15:38:36.803405 15721 layer_factory.hpp:77] Creating layer inception_5b/5x5
I0403 15:38:36.803424 15721 net.cpp:91] Creating Layer inception_5b/5x5
I0403 15:38:36.803441 15721 net.cpp:425] inception_5b/5x5 <- inception_5b/5x5_reduce
I0403 15:38:36.803459 15721 net.cpp:399] inception_5b/5x5 -> inception_5b/5x5
I0403 15:38:36.805583 15721 net.cpp:141] Setting up inception_5b/5x5
I0403 15:38:36.805611 15721 net.cpp:148] Top shape: 24 128 7 7 (150528)
I0403 15:38:36.805629 15721 net.cpp:156] Memory required for data: 1335327264
I0403 15:38:36.805647 15721 layer_factory.hpp:77] Creating layer inception_5b/relu_5x5
I0403 15:38:36.805666 15721 net.cpp:91] Creating Layer inception_5b/relu_5x5
I0403 15:38:36.805683 15721 net.cpp:425] inception_5b/relu_5x5 <- inception_5b/5x5
I0403 15:38:36.805701 15721 net.cpp:386] inception_5b/relu_5x5 -> inception_5b/5x5 (in-place)
I0403 15:38:36.805898 15721 net.cpp:141] Setting up inception_5b/relu_5x5
I0403 15:38:36.805925 15721 net.cpp:148] Top shape: 24 128 7 7 (150528)
I0403 15:38:36.805941 15721 net.cpp:156] Memory required for data: 1335929376
I0403 15:38:36.805955 15721 layer_factory.hpp:77] Creating layer inception_5b/pool
I0403 15:38:36.805974 15721 net.cpp:91] Creating Layer inception_5b/pool
I0403 15:38:36.805989 15721 net.cpp:425] inception_5b/pool <- inception_5a/output_inception_5a/output_0_split_3
I0403 15:38:36.806008 15721 net.cpp:399] inception_5b/pool -> inception_5b/pool
I0403 15:38:36.806080 15721 net.cpp:141] Setting up inception_5b/pool
I0403 15:38:36.806108 15721 net.cpp:148] Top shape: 24 832 7 7 (978432)
I0403 15:38:36.806123 15721 net.cpp:156] Memory required for data: 1339843104
I0403 15:38:36.806138 15721 layer_factory.hpp:77] Creating layer inception_5b/pool_proj
I0403 15:38:36.806156 15721 net.cpp:91] Creating Layer inception_5b/pool_proj
I0403 15:38:36.806172 15721 net.cpp:425] inception_5b/pool_proj <- inception_5b/pool
I0403 15:38:36.806192 15721 net.cpp:399] inception_5b/pool_proj -> inception_5b/pool_proj
I0403 15:38:36.808518 15721 net.cpp:141] Setting up inception_5b/pool_proj
I0403 15:38:36.808552 15721 net.cpp:148] Top shape: 24 128 7 7 (150528)
I0403 15:38:36.808568 15721 net.cpp:156] Memory required for data: 1340445216
I0403 15:38:36.808586 15721 layer_factory.hpp:77] Creating layer inception_5b/relu_pool_proj
I0403 15:38:36.808607 15721 net.cpp:91] Creating Layer inception_5b/relu_pool_proj
I0403 15:38:36.808624 15721 net.cpp:425] inception_5b/relu_pool_proj <- inception_5b/pool_proj
I0403 15:38:36.808641 15721 net.cpp:386] inception_5b/relu_pool_proj -> inception_5b/pool_proj (in-place)
I0403 15:38:36.808939 15721 net.cpp:141] Setting up inception_5b/relu_pool_proj
I0403 15:38:36.808965 15721 net.cpp:148] Top shape: 24 128 7 7 (150528)
I0403 15:38:36.808979 15721 net.cpp:156] Memory required for data: 1341047328
I0403 15:38:36.808993 15721 layer_factory.hpp:77] Creating layer inception_5b/output
I0403 15:38:36.809012 15721 net.cpp:91] Creating Layer inception_5b/output
I0403 15:38:36.809042 15721 net.cpp:425] inception_5b/output <- inception_5b/1x1
I0403 15:38:36.809061 15721 net.cpp:425] inception_5b/output <- inception_5b/3x3
I0403 15:38:36.809077 15721 net.cpp:425] inception_5b/output <- inception_5b/5x5
I0403 15:38:36.809092 15721 net.cpp:425] inception_5b/output <- inception_5b/pool_proj
I0403 15:38:36.809108 15721 net.cpp:399] inception_5b/output -> inception_5b/output
I0403 15:38:36.809162 15721 net.cpp:141] Setting up inception_5b/output
I0403 15:38:36.809186 15721 net.cpp:148] Top shape: 24 1024 7 7 (1204224)
I0403 15:38:36.809201 15721 net.cpp:156] Memory required for data: 1345864224
I0403 15:38:36.809214 15721 layer_factory.hpp:77] Creating layer pool5/7x7_s1
I0403 15:38:36.809231 15721 net.cpp:91] Creating Layer pool5/7x7_s1
I0403 15:38:36.809247 15721 net.cpp:425] pool5/7x7_s1 <- inception_5b/output
I0403 15:38:36.809265 15721 net.cpp:399] pool5/7x7_s1 -> pool5/7x7_s1
I0403 15:38:36.809484 15721 net.cpp:141] Setting up pool5/7x7_s1
I0403 15:38:36.809509 15721 net.cpp:148] Top shape: 24 1024 1 1 (24576)
I0403 15:38:36.809525 15721 net.cpp:156] Memory required for data: 1345962528
I0403 15:38:36.809542 15721 layer_factory.hpp:77] Creating layer pool5/drop_7x7_s1
I0403 15:38:36.809564 15721 net.cpp:91] Creating Layer pool5/drop_7x7_s1
I0403 15:38:36.809581 15721 net.cpp:425] pool5/drop_7x7_s1 <- pool5/7x7_s1
I0403 15:38:36.809598 15721 net.cpp:386] pool5/drop_7x7_s1 -> pool5/7x7_s1 (in-place)
I0403 15:38:36.809649 15721 net.cpp:141] Setting up pool5/drop_7x7_s1
I0403 15:38:36.809674 15721 net.cpp:148] Top shape: 24 1024 1 1 (24576)
I0403 15:38:36.809687 15721 net.cpp:156] Memory required for data: 1346060832
I0403 15:38:36.809701 15721 layer_factory.hpp:77] Creating layer loss3/classifier_plantvillage
I0403 15:38:36.809720 15721 net.cpp:91] Creating Layer loss3/classifier_plantvillage
I0403 15:38:36.809736 15721 net.cpp:425] loss3/classifier_plantvillage <- pool5/7x7_s1
I0403 15:38:36.809756 15721 net.cpp:399] loss3/classifier_plantvillage -> loss3/classifier_plantvillage
I0403 15:38:36.810189 15721 net.cpp:141] Setting up loss3/classifier_plantvillage
I0403 15:38:36.810214 15721 net.cpp:148] Top shape: 24 38 (912)
I0403 15:38:36.810227 15721 net.cpp:156] Memory required for data: 1346064480
I0403 15:38:36.810245 15721 layer_factory.hpp:77] Creating layer loss3/classifier_plantvillage_loss3/classifier_plantvillage_0_split
I0403 15:38:36.810276 15721 net.cpp:91] Creating Layer loss3/classifier_plantvillage_loss3/classifier_plantvillage_0_split
I0403 15:38:36.810292 15721 net.cpp:425] loss3/classifier_plantvillage_loss3/classifier_plantvillage_0_split <- loss3/classifier_plantvillage
I0403 15:38:36.810312 15721 net.cpp:399] loss3/classifier_plantvillage_loss3/classifier_plantvillage_0_split -> loss3/classifier_plantvillage_loss3/classifier_plantvillage_0_split_0
I0403 15:38:36.810334 15721 net.cpp:399] loss3/classifier_plantvillage_loss3/classifier_plantvillage_0_split -> loss3/classifier_plantvillage_loss3/classifier_plantvillage_0_split_1
I0403 15:38:36.810354 15721 net.cpp:399] loss3/classifier_plantvillage_loss3/classifier_plantvillage_0_split -> loss3/classifier_plantvillage_loss3/classifier_plantvillage_0_split_2
I0403 15:38:36.810375 15721 net.cpp:399] loss3/classifier_plantvillage_loss3/classifier_plantvillage_0_split -> loss3/classifier_plantvillage_loss3/classifier_plantvillage_0_split_3
I0403 15:38:36.810480 15721 net.cpp:141] Setting up loss3/classifier_plantvillage_loss3/classifier_plantvillage_0_split
I0403 15:38:36.810504 15721 net.cpp:148] Top shape: 24 38 (912)
I0403 15:38:36.810520 15721 net.cpp:148] Top shape: 24 38 (912)
I0403 15:38:36.810540 15721 net.cpp:148] Top shape: 24 38 (912)
I0403 15:38:36.810570 15721 net.cpp:148] Top shape: 24 38 (912)
I0403 15:38:36.810582 15721 net.cpp:156] Memory required for data: 1346079072
I0403 15:38:36.810596 15721 layer_factory.hpp:77] Creating layer loss1/loss
I0403 15:38:36.810617 15721 net.cpp:91] Creating Layer loss1/loss
I0403 15:38:36.810633 15721 net.cpp:425] loss1/loss <- loss1/classifier_plantvillage_loss1/classifier_plantvillage_0_split_0
I0403 15:38:36.810664 15721 net.cpp:425] loss1/loss <- label_data_1_split_0
…
