…
I0403 15:35:06.264237 15564 net.cpp:313] The NetState phase (1) differed from the phase (0) specified by a rule in layer data
I0403 15:35:06.265414 15564 net.cpp:49] Initializing net from parameters: 
state {
  phase: TEST
}
layer {
  name: "data"
  type: "Data"
  top: "data"
  top: "label"
  include {
    phase: TEST
  }
  transform_param {
    mirror: false
    crop_size: 224
    mean_file: "/home/mohanty/data/final_dataset/lmdb/color-50-50/mean.binaryproto"
  }
  data_param {
    source: "/home/mohanty/data/final_dataset/lmdb/color-50-50/test_db"
    batch_size: 24
    backend: LMDB
  }
}
layer {
  name: "conv1/7x7_s2"
  type: "Convolution"
  bottom: "data"
  top: "conv1/7x7_s2"
  param {
    lr_mult: 1
    decay_mult: 1
  }
  param {
    lr_mult: 2
    decay_mult: 0
  }
  convolution_param {
    num_output: 64
    pad: 3
    kernel_size: 7
    stride: 2
    weight_filler {
      type: "xavier"
      std: 0.1
    }
    bias_filler {
      type: "constant"
      value: 0.2
    }
  }
}
layer {
  name: "conv1/relu_7x7"
  type: "ReLU"
  bottom: "conv1/7x7_s2"
  top: "conv1/7x7_s2"
}
layer {
  name: "pool1/3x3_s2"
  type: "Pooling"
  bottom: "conv1/7x7_s2"
  top: "pool1/3x3_s2"
  pooling_param {
    pool: MAX
    kernel_size: 3
    stride: 2
  }
}
layer {
  name: "pool1/norm1"
  type: "LRN"
  bottom: "pool1/3x3_s2"
  top: "pool1/norm1"
  lrn_param {
    local_size: 5
    alpha: 0.0001
    beta: 0.75
  }
}
layer {
  name: "conv2/3x3_reduce"
  type: "Convolution"
  bottom: "pool1/norm1"
  top: "conv2/3x3_reduce"
  param {
    lr_mult: 1
    decay_mult: 1
  }
  param {
    lr_mult: 2
    decay_mult: 0
  }
  convolution_param {
    num_output: 64
    kernel_size: 1
    weight_filler {
      type: "xavier"
      std: 0.1
    }
    bias_filler {
      type: "constant"
      value: 0.2
    }
  }
}
layer {
  name: "conv2/relu_3x3_reduce"
  type: "ReLU"
  bottom: "conv2/3x3_reduce"
  top: "conv2/3x3_reduce"
}
layer {
  name: "conv2/3x3"
  type: "Convolution"
  bottom: "conv2/3x3_reduce"
  top: "conv2/3x3"
  param {
    lr_mult: 1
    decay_mult: 1
  }
  param {
    lr_mult: 2
    decay_mult: 0
  }
  convolution_param {
    num_output: 192
    pad: 1
    kernel_size: 3
    weight_filler {
      type: "xavier"
      std: 0.03
    }
    bias_filler {
      type: "constant"
      value: 0.2
    }
  }
}
layer {
  name: "conv2/relu_3x3"
  type: "ReLU"
  bottom: "conv2/3x3"
  top: "conv2/3x3"
}
layer {
  name: "conv2/norm2"
  type: "LRN"
  bottom: "conv2/3x3"
  top: "conv2/norm2"
  lrn_param {
    local_size: 5
    alpha: 0.0001
    beta: 0.75
  }
}
layer {
  name: "pool2/3x3_s2"
  type: "Pooling"
  bottom: "conv2/norm2"
  top: "pool2/3x3_s2"
  pooling_param {
    pool: MAX
    kernel_size: 3
    stride: 2
  }
}
layer {
  name: "inception_3a/1x1"
  type: "Convolution"
  bottom: "pool2/3x3_s2"
  top: "inception_3a/1x1"
  param {
    lr_mult: 1
    decay_mult: 1
  }
  param {
    lr_mult: 2
    decay_mult: 0
  }
  convolution_param {
    num_output: 64
    kernel_size: 1
    weight_filler {
      type: "xavier"
      std: 0.03
    }
    bias_filler {
      type: "constant"
      value: 0.2
    }
  }
}
layer {
  name: "inception_3a/relu_1x1"
  type: "ReLU"
  bottom: "inception_3a/1x1"
  top: "inception_3a/1x1"
}
layer {
  name: "inception_3a/3x3_reduce"
  type: "Convolution"
  bottom: "pool2/3x3_s2"
  top: "inception_3a/3x3_reduce"
  param {
    lr_mult: 1
    decay_mult: 1
  }
  param {
    lr_mult: 2
    decay_mult: 0
  }
  convolution_param {
    num_output: 96
    kernel_size: 1
    weight_filler {
      type: "xavier"
      std: 0.09
    }
    bias_filler {
      type: "constant"
      value: 0.2
    }
  }
}
layer {
  name: "inception_3a/relu_3x3_reduce"
  type: "ReLU"
  bottom: "inception_3a/3x3_reduce"
  top: "inception_3a/3x3_reduce"
}
layer {
  name: "inception_3a/3x3"
  type: "Convolution"
  bottom: "inception_3a/3x3_reduce"
  top: "inception_3a/3x3"
  param {
    lr_mult: 1
    decay_mult: 1
  }
  param {
    lr_mult: 2
    decay_mult: 0
  }
  convolution_param {
    num_output: 128
    pad: 1
    kernel_size: 3
    weight_filler {
      type: "xavier"
      std: 0.03
    }
    bias_filler {
      type: "constant"
      value: 0.2
    }
  }
}
layer {
  name: "inception_3a/relu_3x3"
  type: "ReLU"
  bottom: "inception_3a/3x3"
  top: "inception_3a/3x3"
}
layer {
  name: "inception_3a/5x5_reduce"
  type: "Convolution"
  bottom: "pool2/3x3_s2"
  top: "inception_3a/5x5_reduce"
  param {
    lr_mult: 1
    decay_mult: 1
  }
  param {
    lr_mult: 2
    decay_mult: 0
  }
  convolution_param {
    num_output: 16
    kernel_size: 1
    weight_filler {
      type: "xavier"
      std: 0.2
    }
    bias_filler {
      type: "constant"
      value: 0.2
    }
  }
}
layer {
  name: "inception_3a/relu_5x5_reduce"
  type: "ReLU"
  bottom: "inception_3a/5x5_reduce"
  top: "inception_3a/5x5_reduce"
}
layer {
  name: "inception_3a/5x5"
  type: "Convolution"
  bottom: "inception_3a/5x5_reduce"
  top: "inception_3a/5x5"
  param {
    lr_mult: 1
    decay_mult: 1
  }
  param {
    lr_mult: 2
    decay_mult: 0
  }
  convolution_param {
    num_output: 32
    pad: 2
    kernel_size: 5
    weight_filler {
      type: "xavier"
      std: 0.03
    }
    bias_filler {
      type: "constant"
      value: 0.2
    }
  }
}
layer {
  name: "inception_3a/relu_5x5"
  type: "ReLU"
  bottom: "inception_3a/5x5"
  top: "inception_3a/5x5"
}
layer {
  name: "inception_3a/pool"
  type: "Pooling"
  bottom: "pool2/3x3_s2"
  top: "inception_3a/pool"
  pooling_param {
    pool: MAX
    kernel_size: 3
    stride: 1
    pad: 1
  }
}
layer {
  name: "inception_3a/pool_proj"
  type: "Convolution"
  bottom: "inception_3a/pool"
  top: "inception_3a/pool_proj"
  param {
    lr_mult: 1
    decay_mult: 1
  }
  param {
    lr_mult: 2
    decay_mult: 0
  }
  convolution_param {
    num_output: 32
    kernel_size: 1
    weight_filler {
      type: "xavier"
      std: 0.1
    }
    bias_filler {
      type: "constant"
      value: 0.2
    }
  }
}
layer {
  name: "inception_3a/relu_pool_proj"
  type: "ReLU"
  bottom: "inception_3a/pool_proj"
  top: "inception_3a/pool_proj"
}
layer {
  name: "inception_3a/output"
  type: "Concat"
  bottom: "inception_3a/1x1"
  bottom: "inception_3a/3x3"
  bottom: "inception_3a/5x5"
  bottom: "inception_3a/pool_proj"
  top: "inception_3a/output"
}
layer {
  name: "inception_3b/1x1"
  type: "Convolution"
  bottom: "inception_3a/output"
  top: "inception_3b/1x1"
  param {
    lr_mult: 1
    decay_mult: 1
  }
  param {
    lr_mult: 2
    decay_mult: 0
  }
  convolution_param {
    num_output: 128
    kernel_size: 1
    weight_filler {
      type: "xavier"
      std: 0.03
    }
    bias_filler {
      type: "constant"
      value: 0.2
    }
  }
}
layer {
  name: "inception_3b/relu_1x1"
  type: "ReLU"
  bottom: "inception_3b/1x1"
  top: "inception_3b/1x1"
}
layer {
  name: "inception_3b/3x3_reduce"
  type: "Convolution"
  bottom: "inception_3a/output"
  top: "inception_3b/3x3_reduce"
  param {
    lr_mult: 1
    decay_mult: 1
  }
  param {
    lr_mult: 2
    decay_mult: 0
  }
  convolution_param {
    num_output: 128
    kernel_size: 1
    weight_filler {
      type: "xavier"
      std: 0.09
    }
    bias_filler {
      type: "constant"
      value: 0.2
    }
  }
}
layer {
  name: "inception_3b/relu_3x3_reduce"
  type: "ReLU"
  bottom: "inception_3b/3x3_reduce"
  top: "inception_3b/3x3_reduce"
}
layer {
  name: "inception_3b/3x3"
  type: "Convolution"
  bottom: "inception_3b/3x3_reduce"
  top: "inception_3b/3x3"
  param {
    lr_mult: 1
    decay_mult: 1
  }
  param {
    lr_mult: 2
    decay_mult: 0
  }
  convolution_param {
    num_output: 192
    pad: 1
    kernel_size: 3
    weight_filler {
      type: "xavier"
      std: 0.03
    }
    bias_filler {
      type: "constant"
      value: 0.2
    }
  }
}
layer {
  name: "inception_3b/relu_3x3"
  type: "ReLU"
  bottom: "inception_3b/3x3"
  top: "inception_3b/3x3"
}
layer {
  name: "inception_3b/5x5_reduce"
  type: "Convolution"
  bottom: "inception_3a/output"
  top: "inception_3b/5x5_reduce"
  param {
    lr_mult: 1
    decay_mult: 1
  }
  param {
    lr_mult: 2
    decay_mult: 0
  }
  convolution_param {
    num_output: 32
    kernel_size: 1
    weight_filler {
      type: "xavier"
      std: 0.2
    }
    bias_filler {
      type: "constant"
      value: 0.2
    }
  }
}
layer {
  name: "inception_3b/relu_5x5_reduce"
  type: "ReLU"
  bottom: "inception_3b/5x5_reduce"
  top: "inception_3b/5x5_reduce"
}
layer {
  name: "inception_3b/5x5"
  type: "Convolution"
  bottom: "inception_3b/5x5_reduce"
  top: "inception_3b/5x5"
  param {
    lr_mult: 1
    decay_mult: 1
  }
  param {
    lr_mult: 2
    decay_mult: 0
  }
  convolution_param {
    num_output: 96
    pad: 2
    kernel_size: 5
    weight_filler {
      type: "xavier"
      std: 0.03
    }
    bias_filler {
      type: "constant"
      value: 0.2
    }
  }
}
layer {
  name: "inception_3b/relu_5x5"
  type: "ReLU"
  bottom: "inception_3b/5x5"
  top: "inception_3b/5x5"
}
layer {
  name: "inception_3b/pool"
  type: "Pooling"
  bottom: "inception_3a/output"
  top: "inception_3b/pool"
  pooling_param {
    pool: MAX
    kernel_size: 3
    stride: 1
    pad: 1
  }
}
layer {
  name: "inception_3b/pool_proj"
  type: "Convolution"
  bottom: "inception_3b/pool"
  top: "inception_3b/pool_proj"
  param {
    lr_mult: 1
    decay_mult: 1
  }
  param {
    lr_mult: 2
    decay_mult: 0
  }
  convolution_param {
    num_output: 64
    kernel_size: 1
    weight_filler {
      type: "xavier"
      std: 0.1
    }
    bias_filler {
      type: "constant"
      value: 0.2
    }
  }
}
layer {
  name: "inception_3b/relu_pool_proj"
  type: "ReLU"
  bottom: "inception_3b/pool_proj"
  top: "inception_3b/pool_proj"
}
layer {
  name: "inception_3b/output"
  type: "Concat"
  bottom: "inception_3b/1x1"
  bottom: "inception_3b/3x3"
  bottom: "inception_3b/5x5"
  bottom: "inception_3b/pool_proj"
  top: "inception_3b/output"
}
layer {
  name: "pool3/3x3_s2"
  type: "Pooling"
  bottom: "inception_3b/output"
  top: "pool3/3x3_s2"
  pooling_param {
    pool: MAX
    kernel_size: 3
    stride: 2
  }
}
layer {
  name: "inception_4a/1x1"
  type: "Convolution"
  bottom: "pool3/3x3_s2"
  top: "inception_4a/1x1"
  param {
    lr_mult: 1
    decay_mult: 1
  }
  param {
    lr_mult: 2
    decay_mult: 0
  }
  convolution_param {
    num_output: 192
    kernel_size: 1
    weight_filler {
      type: "xavier"
      std: 0.03
    }
    bias_filler {
      type: "constant"
      value: 0.2
    }
  }
}
layer {
  name: "inception_4a/relu_1x1"
  type: "ReLU"
  bottom: "inception_4a/1x1"
  top: "inception_4a/1x1"
}
layer {
  name: "inception_4a/3x3_reduce"
  type: "Convolution"
  bottom: "pool3/3x3_s2"
  top: "inception_4a/3x3_reduce"
  param {
    lr_mult: 1
    decay_mult: 1
  }
  param {
    lr_mult: 2
    decay_mult: 0
  }
  convolution_param {
    num_output: 96
    kernel_size: 1
    weight_filler {
      type: "xavier"
      std: 0.09
    }
    bias_filler {
      type: "constant"
      value: 0.2
    }
  }
}
layer {
  name: "inception_4a/relu_3x3_reduce"
  type: "ReLU"
  bottom: "inception_4a/3x3_reduce"
  top: "inception_4a/3x3_reduce"
}
layer {
  name: "inception_4a/3x3"
  type: "Convolution"
  bottom: "inception_4a/3x3_reduce"
  top: "inception_4a/3x3"
  param {
    lr_mult: 1
    decay_mult: 1
  }
  param {
    lr_mult: 2
    decay_mult: 0
  }
  convolution_param {
    num_output: 208
    pad: 1
    kernel_size: 3
    weight_filler {
      type: "xavier"
      std: 0.03
    }
    bias_filler {
      type: "constant"
      value: 0.2
    }
  }
}
layer {
  name: "inception_4a/relu_3x3"
  type: "ReLU"
  bottom: "inception_4a/3x3"
  top: "inception_4a/3x3"
}
layer {
  name: "inception_4a/5x5_reduce"
  type: "Convolution"
  bottom: "pool3/3x3_s2"
  top: "inception_4a/5x5_reduce"
  param {
    lr_mult: 1
    decay_mult: 1
  }
  param {
    lr_mult: 2
    decay_mult: 0
  }
  convolution_param {
    num_output: 16
    kernel_size: 1
    weight_filler {
      type: "xavier"
      std: 0.2
    }
    bias_filler {
      type: "constant"
      value: 0.2
    }
  }
}
layer {
  name: "inception_4a/relu_5x5_reduce"
  type: "ReLU"
  bottom: "inception_4a/5x5_reduce"
  top: "inception_4a/5x5_reduce"
}
layer {
  name: "inception_4a/5x5"
  type: "Convolution"
  bottom: "inception_4a/5x5_reduce"
  top: "inception_4a/5x5"
  param {
    lr_mult: 1
    decay_mult: 1
  }
  param {
    lr_mult: 2
    decay_mult: 0
  }
  convolution_param {
    num_output: 48
    pad: 2
    kernel_size: 5
    weight_filler {
      type: "xavier"
      std: 0.03
    }
    bias_filler {
      type: "constant"
      value: 0.2
    }
  }
}
layer {
  name: "inception_4a/relu_5x5"
  type: "ReLU"
  bottom: "inception_4a/5x5"
  top: "inception_4a/5x5"
}
layer {
  name: "inception_4a/pool"
  type: "Pooling"
  bottom: "pool3/3x3_s2"
  top: "inception_4a/pool"
  pooling_param {
    pool: MAX
    kernel_size: 3
    stride: 1
    pad: 1
  }
}
layer {
  name: "inception_4a/pool_proj"
  type: "Convolution"
  bottom: "inception_4a/pool"
  top: "inception_4a/pool_proj"
  param {
    lr_mult: 1
    decay_mult: 1
  }
  param {
    lr_mult: 2
    decay_mult: 0
  }
  convolution_param {
    num_output: 64
    kernel_size: 1
    weight_filler {
      type: "xavier"
      std: 0.1
    }
    bias_filler {
      type: "constant"
      value: 0.2
    }
  }
}
layer {
  name: "inception_4a/relu_pool_proj"
  type: "ReLU"
  bottom: "inception_4a/pool_proj"
  top: "inception_4a/pool_proj"
}
layer {
  name: "inception_4a/output"
  type: "Concat"
  bottom: "inception_4a/1x1"
  bottom: "inception_4a/3x3"
  bottom: "inception_4a/5x5"
  bottom: "inception_4a/pool_proj"
  top: "inception_4a/output"
}
layer {
  name: "loss1/ave_pool"
  type: "Pooling"
  bottom: "inception_4a/output"
  top: "loss1/ave_pool"
  pooling_param {
    pool: AVE
    kernel_size: 5
    stride: 3
  }
}
layer {
  name: "loss1/conv"
  type: "Convolution"
  bottom: "loss1/ave_pool"
  top: "loss1/conv"
  param {
    lr_mult: 1
    decay_mult: 1
  }
  param {
    lr_mult: 2
    decay_mult: 0
  }
  convolution_param {
    num_output: 128
    kernel_size: 1
    weight_filler {
      type: "xavier"
      std: 0.08
    }
    bias_filler {
      type: "constant"
      value: 0.2
    }
  }
}
layer {
  name: "loss1/relu_conv"
  type: "ReLU"
  bottom: "loss1/conv"
  top: "loss1/conv"
}
layer {
  name: "loss1/fc"
  type: "InnerProduct"
  bottom: "loss1/conv"
  top: "loss1/fc"
  param {
    lr_mult: 1
    decay_mult: 1
  }
  param {
    lr_mult: 2
    decay_mult: 0
  }
  inner_product_param {
    num_output: 1024
    weight_filler {
      type: "xavier"
      std: 0.02
    }
    bias_filler {
      type: "constant"
      value: 0.2
    }
  }
}
layer {
  name: "loss1/relu_fc"
  type: "ReLU"
  bottom: "loss1/fc"
  top: "loss1/fc"
}
layer {
  name: "loss1/drop_fc"
  type: "Dropout"
  bottom: "loss1/fc"
  top: "loss1/fc"
  dropout_param {
    dropout_ratio: 0.7
  }
}
layer {
  name: "loss1/classifier_plantvillage"
  type: "InnerProduct"
  bottom: "loss1/fc"
  top: "loss1/classifier_plantvillage"
  param {
    lr_mult: 1
    decay_mult: 1
  }
  param {
    lr_mult: 2
    decay_mult: 0
  }
  inner_product_param {
    num_output: 38
    weight_filler {
      type: "xavier"
      std: 0.0009765625
    }
    bias_filler {
      type: "constant"
      value: 0
    }
  }
}
layer {
  name: "inception_4b/1x1"
  type: "Convolution"
  bottom: "inception_4a/output"
  top: "inception_4b/1x1"
  param {
    lr_mult: 1
    decay_mult: 1
  }
  param {
    lr_mult: 2
    decay_mult: 0
  }
  convolution_param {
    num_output: 160
    kernel_size: 1
    weight_filler {
      type: "xavier"
      std: 0.03
    }
    bias_filler {
      type: "constant"
      value: 0.2
    }
  }
}
layer {
  name: "inception_4b/relu_1x1"
  type: "ReLU"
  bottom: "inception_4b/1x1"
  top: "inception_4b/1x1"
}
layer {
  name: "inception_4b/3x3_reduce"
  type: "Convolution"
  bottom: "inception_4a/output"
  top: "inception_4b/3x3_reduce"
  param {
    lr_mult: 1
    decay_mult: 1
  }
  param {
    lr_mult: 2
    decay_mult: 0
  }
  convolution_param {
    num_output: 112
    kernel_size: 1
    weight_filler {
      type: "xavier"
      std: 0.09
    }
    bias_filler {
      type: "constant"
      value: 0.2
    }
  }
}
layer {
  name: "inception_4b/relu_3x3_reduce"
  type: "ReLU"
  bottom: "inception_4b/3x3_reduce"
  top: "inception_4b/3x3_reduce"
}
layer {
  name: "inception_4b/3x3"
  type: "Convolution"
  bottom: "inception_4b/3x3_reduce"
  top: "inception_4b/3x3"
  param {
    lr_mult: 1
    decay_mult: 1
  }
  param {
    lr_mult: 2
    decay_mult: 0
  }
  convolution_param {
    num_output: 224
    pad: 1
    kernel_size: 3
    weight_filler {
      type: "xavier"
      std: 0.03
    }
    bias_filler {
      type: "constant"
      value: 0.2
    }
  }
}
layer {
  name: "inception_4b/relu_3x3"
  type: "ReLU"
  bottom: "inception_4b/3x3"
  top: "inception_4b/3x3"
}
layer {
  name: "inception_4b/5x5_reduce"
  type: "Convolution"
  bottom: "inception_4a/output"
  top: "inception_4b/5x5_reduce"
  param {
    lr_mult: 1
    decay_mult: 1
  }
  param {
    lr_mult: 2
    decay_mult: 0
  }
  convolution_param {
    num_output: 24
    kernel_size: 1
    weight_filler {
      type: "xavier"
      std: 0.2
    }
    bias_filler {
      type: "constant"
      value: 0.2
    }
  }
}
layer {
  name: "inception_4b/relu_5x5_reduce"
  type: "ReLU"
  bottom: "inception_4b/5x5_reduce"
  top: "inception_4b/5x5_reduce"
}
layer {
  name: "inception_4b/5x5"
  type: "Convolution"
  bottom: "inception_4b/5x5_reduce"
  top: "inception_4b/5x5"
  param {
    lr_mult: 1
    decay_mult: 1
  }
  param {
    lr_mult: 2
    decay_mult: 0
  }
  convolution_param {
    num_output: 64
    pad: 2
    kernel_size: 5
    weight_filler {
      type: "xavier"
      std: 0.03
    }
    bias_filler {
      type: "constant"
      value: 0.2
    }
  }
}
layer {
  name: "inception_4b/relu_5x5"
  type: "ReLU"
  bottom: "inception_4b/5x5"
  top: "inception_4b/5x5"
}
layer {
  name: "inception_4b/pool"
  type: "Pooling"
  bottom: "inception_4a/output"
  top: "inception_4b/pool"
  pooling_param {
    pool: MAX
    kernel_size: 3
    stride: 1
    pad: 1
  }
}
layer {
  name: "inception_4b/pool_proj"
  type: "Convolution"
  bottom: "inception_4b/pool"
  top: "inception_4b/pool_proj"
  param {
    lr_mult: 1
    decay_mult: 1
  }
  param {
    lr_mult: 2
    decay_mult: 0
  }
  convolution_param {
    num_output: 64
    kernel_size: 1
    weight_filler {
      type: "xavier"
      std: 0.1
    }
    bias_filler {
      type: "constant"
      value: 0.2
    }
  }
}
layer {
  name: "inception_4b/relu_pool_proj"
  type: "ReLU"
  bottom: "inception_4b/pool_proj"
  top: "inception_4b/pool_proj"
}
layer {
  name: "inception_4b/output"
  type: "Concat"
  bottom: "inception_4b/1x1"
  bottom: "inception_4b/3x3"
  bottom: "inception_4b/5x5"
  bottom: "inception_4b/pool_proj"
  top: "inception_4b/output"
}
layer {
  name: "inception_4c/1x1"
  type: "Convolution"
  bottom: "inception_4b/output"
  top: "inception_4c/1x1"
  param {
    lr_mult: 1
    decay_mult: 1
  }
  param {
    lr_mult: 2
    decay_mult: 0
  }
  convolution_param {
    num_output: 128
    kernel_size: 1
    weight_filler {
      type: "xavier"
      std: 0.03
    }
    bias_filler {
      type: "constant"
      value: 0.2
    }
  }
}
layer {
  name: "inception_4c/relu_1x1"
  type: "ReLU"
  bottom: "inception_4c/1x1"
  top: "inception_4c/1x1"
}
layer {
  name: "inception_4c/3x3_reduce"
  type: "Convolution"
  bottom: "inception_4b/output"
  top: "inception_4c/3x3_reduce"
  param {
    lr_mult: 1
    decay_mult: 1
  }
  param {
    lr_mult: 2
    decay_mult: 0
  }
  convolution_param {
    num_output: 128
    kernel_size: 1
    weight_filler {
      type: "xavier"
      std: 0.09
    }
    bias_filler {
      type: "constant"
      value: 0.2
    }
  }
}
layer {
  name: "inception_4c/relu_3x3_reduce"
  type: "ReLU"
  bottom: "inception_4c/3x3_reduce"
  top: "inception_4c/3x3_reduce"
}
layer {
  name: "inception_4c/3x3"
  type: "Convolution"
  bottom: "inception_4c/3x3_reduce"
  top: "inception_4c/3x3"
  param {
    lr_mult: 1
    decay_mult: 1
  }
  param {
    lr_mult: 2
    decay_mult: 0
  }
  convolution_param {
    num_output: 256
    pad: 1
    kernel_size: 3
    weight_filler {
      type: "xavier"
      std: 0.03
    }
    bias_filler {
      type: "constant"
      value: 0.2
    }
  }
}
layer {
  name: "inception_4c/relu_3x3"
  type: "ReLU"
  bottom: "inception_4c/3x3"
  top: "inception_4c/3x3"
}
layer {
  name: "inception_4c/5x5_reduce"
  type: "Convolution"
  bottom: "inception_4b/output"
  top: "inception_4c/5x5_reduce"
  param {
    lr_mult: 1
    decay_mult: 1
  }
  param {
    lr_mult: 2
    decay_mult: 0
  }
  convolution_param {
    num_output: 24
    kernel_size: 1
    weight_filler {
      type: "xavier"
      std: 0.2
    }
    bias_filler {
      type: "constant"
      value: 0.2
    }
  }
}
layer {
  name: "inception_4c/relu_5x5_reduce"
  type: "ReLU"
  bottom: "inception_4c/5x5_reduce"
  top: "inception_4c/5x5_reduce"
}
layer {
  name: "inception_4c/5x5"
  type: "Convolution"
  bottom: "inception_4c/5x5_reduce"
  top: "inception_4c/5x5"
  param {
    lr_mult: 1
    decay_mult: 1
  }
  param {
    lr_mult: 2
    decay_mult: 0
  }
  convolution_param {
    num_output: 64
    pad: 2
    kernel_size: 5
    weight_filler {
      type: "xavier"
      std: 0.03
    }
    bias_filler {
      type: "constant"
      value: 0.2
    }
  }
}
layer {
  name: "inception_4c/relu_5x5"
  type: "ReLU"
  bottom: "inception_4c/5x5"
  top: "inception_4c/5x5"
}
layer {
  name: "inception_4c/pool"
  type: "Pooling"
  bottom: "inception_4b/output"
  top: "inception_4c/pool"
  pooling_param {
    pool: MAX
    kernel_size: 3
    stride: 1
    pad: 1
  }
}
layer {
  name: "inception_4c/pool_proj"
  type: "Convolution"
  bottom: "inception_4c/pool"
  top: "inception_4c/pool_proj"
  param {
    lr_mult: 1
    decay_mult: 1
  }
  param {
    lr_mult: 2
    decay_mult: 0
  }
  convolution_param {
    num_output: 64
    kernel_size: 1
    weight_filler {
      type: "xavier"
      std: 0.1
    }
    bias_filler {
      type: "constant"
      value: 0.2
    }
  }
}
layer {
  name: "inception_4c/relu_pool_proj"
  type: "ReLU"
  bottom: "inception_4c/pool_proj"
  top: "inception_4c/pool_proj"
}
layer {
  name: "inception_4c/output"
  type: "Concat"
  bottom: "inception_4c/1x1"
  bottom: "inception_4c/3x3"
  bottom: "inception_4c/5x5"
  bottom: "inception_4c/pool_proj"
  top: "inception_4c/output"
}
layer {
  name: "inception_4d/1x1"
  type: "Convolution"
  bottom: "inception_4c/output"
  top: "inception_4d/1x1"
  param {
    lr_mult: 1
    decay_mult: 1
  }
  param {
    lr_mult: 2
    decay_mult: 0
  }
  convolution_param {
    num_output: 112
    kernel_size: 1
    weight_filler {
      type: "xavier"
      std: 0.03
    }
    bias_filler {
      type: "constant"
      value: 0.2
    }
  }
}
layer {
  name: "inception_4d/relu_1x1"
  type: "ReLU"
  bottom: "inception_4d/1x1"
  top: "inception_4d/1x1"
}
layer {
  name: "inception_4d/3x3_reduce"
  type: "Convolution"
  bottom: "inception_4c/output"
  top: "inception_4d/3x3_reduce"
  param {
    lr_mult: 1
    decay_mult: 1
  }
  param {
    lr_mult: 2
    decay_mult: 0
  }
  convolution_param {
    num_output: 144
    kernel_size: 1
    weight_filler {
      type: "xavier"
      std: 0.09
    }
    bias_filler {
      type: "constant"
      value: 0.2
    }
  }
}
layer {
  name: "inception_4d/relu_3x3_reduce"
  type: "ReLU"
  bottom: "inception_4d/3x3_reduce"
  top: "inception_4d/3x3_reduce"
}
layer {
  name: "inception_4d/3x3"
  type: "Convolution"
  bottom: "inception_4d/3x3_reduce"
  top: "inception_4d/3x3"
  param {
    lr_mult: 1
    decay_mult: 1
  }
  param {
    lr_mult: 2
    decay_mult: 0
  }
  convolution_param {
    num_output: 288
    pad: 1
    kernel_size: 3
    weight_filler {
      type: "xavier"
      std: 0.03
    }
    bias_filler {
      type: "constant"
      value: 0.2
    }
  }
}
layer {
  name: "inception_4d/relu_3x3"
  type: "ReLU"
  bottom: "inception_4d/3x3"
  top: "inception_4d/3x3"
}
layer {
  name: "inception_4d/5x5_reduce"
  type: "Convolution"
  bottom: "inception_4c/output"
  top: "inception_4d/5x5_reduce"
  param {
    lr_mult: 1
    decay_mult: 1
  }
  param {
    lr_mult: 2
    decay_mult: 0
  }
  convolution_param {
    num_output: 32
    kernel_size: 1
    weight_filler {
      type: "xavier"
      std: 0.2
    }
    bias_filler {
      type: "constant"
      value: 0.2
    }
  }
}
layer {
  name: "inception_4d/relu_5x5_reduce"
  type: "ReLU"
  bottom: "inception_4d/5x5_reduce"
  top: "inception_4d/5x5_reduce"
}
layer {
  name: "inception_4d/5x5"
  type: "Convolution"
  bottom: "inception_4d/5x5_reduce"
  top: "inception_4d/5x5"
  param {
    lr_mult: 1
    decay_mult: 1
  }
  param {
    lr_mult: 2
    decay_mult: 0
  }
  convolution_param {
    num_output: 64
    pad: 2
    kernel_size: 5
    weight_filler {
      type: "xavier"
      std: 0.03
    }
    bias_filler {
      type: "constant"
      value: 0.2
    }
  }
}
layer {
  name: "inception_4d/relu_5x5"
  type: "ReLU"
  bottom: "inception_4d/5x5"
  top: "inception_4d/5x5"
}
layer {
  name: "inception_4d/pool"
  type: "Pooling"
  bottom: "inception_4c/output"
  top: "inception_4d/pool"
  pooling_param {
    pool: MAX
    kernel_size: 3
    stride: 1
    pad: 1
  }
}
layer {
  name: "inception_4d/pool_proj"
  type: "Convolution"
  bottom: "inception_4d/pool"
  top: "inception_4d/pool_proj"
  param {
    lr_mult: 1
    decay_mult: 1
  }
  param {
    lr_mult: 2
    decay_mult: 0
  }
  convolution_param {
    num_output: 64
    kernel_size: 1
    weight_filler {
      type: "xavier"
      std: 0.1
    }
    bias_filler {
      type: "constant"
      value: 0.2
    }
  }
}
layer {
  name: "inception_4d/relu_pool_proj"
  type: "ReLU"
  bottom: "inception_4d/pool_proj"
  top: "inception_4d/pool_proj"
}
layer {
  name: "inception_4d/output"
  type: "Concat"
  bottom: "inception_4d/1x1"
  bottom: "inception_4d/3x3"
  bottom: "inception_4d/5x5"
  bottom: "inception_4d/pool_proj"
  top: "inception_4d/output"
}
layer {
  name: "loss2/ave_pool"
  type: "Pooling"
  bottom: "inception_4d/output"
  top: "loss2/ave_pool"
  pooling_param {
    pool: AVE
    kernel_size: 5
    stride: 3
  }
}
layer {
  name: "loss2/conv"
  type: "Convolution"
  bottom: "loss2/ave_pool"
  top: "loss2/conv"
  param {
    lr_mult: 1
    decay_mult: 1
  }
  param {
    lr_mult: 2
    decay_mult: 0
  }
  convolution_param {
    num_output: 128
    kernel_size: 1
    weight_filler {
      type: "xavier"
      std: 0.08
    }
    bias_filler {
      type: "constant"
      value: 0.2
    }
  }
}
layer {
  name: "loss2/relu_conv"
  type: "ReLU"
  bottom: "loss2/conv"
  top: "loss2/conv"
}
layer {
  name: "loss2/fc"
  type: "InnerProduct"
  bottom: "loss2/conv"
  top: "loss2/fc"
  param {
    lr_mult: 1
    decay_mult: 1
  }
  param {
    lr_mult: 2
    decay_mult: 0
  }
  inner_product_param {
    num_output: 1024
    weight_filler {
      type: "xavier"
      std: 0.02
    }
    bias_filler {
      type: "constant"
      value: 0.2
    }
  }
}
layer {
  name: "loss2/relu_fc"
  type: "ReLU"
  bottom: "loss2/fc"
  top: "loss2/fc"
}
layer {
  name: "loss2/drop_fc"
  type: "Dropout"
  bottom: "loss2/fc"
  top: "loss2/fc"
  dropout_param {
    dropout_ratio: 0.7
  }
}
layer {
  name: "loss2/classifier_plantvillage"
  type: "InnerProduct"
  bottom: "loss2/fc"
  top: "loss2/classifier_plantvillage"
  param {
    lr_mult: 1
    decay_mult: 1
  }
  param {
    lr_mult: 2
    decay_mult: 0
  }
  inner_product_param {
    num_output: 38
    weight_filler {
      type: "xavier"
      std: 0.0009765625
    }
    bias_filler {
      type: "constant"
      value: 0
    }
  }
}
layer {
  name: "inception_4e/1x1"
  type: "Convolution"
  bottom: "inception_4d/output"
  top: "inception_4e/1x1"
  param {
    lr_mult: 1
    decay_mult: 1
  }
  param {
    lr_mult: 2
    decay_mult: 0
  }
  convolution_param {
    num_output: 256
    kernel_size: 1
    weight_filler {
      type: "xavier"
      std: 0.03
    }
    bias_filler {
      type: "constant"
      value: 0.2
    }
  }
}
layer {
  name: "inception_4e/relu_1x1"
  type: "ReLU"
  bottom: "inception_4e/1x1"
  top: "inception_4e/1x1"
}
layer {
  name: "inception_4e/3x3_reduce"
  type: "Convolution"
  bottom: "inception_4d/output"
  top: "inception_4e/3x3_reduce"
  param {
    lr_mult: 1
    decay_mult: 1
  }
  param {
    lr_mult: 2
    decay_mult: 0
  }
  convolution_param {
    num_output: 160
    kernel_size: 1
    weight_filler {
      type: "xavier"
      std: 0.09
    }
    bias_filler {
      type: "constant"
      value: 0.2
    }
  }
}
layer {
  name: "inception_4e/relu_3x3_reduce"
  type: "ReLU"
  bottom: "inception_4e/3x3_reduce"
  top: "inception_4e/3x3_reduce"
}
layer {
  name: "inception_4e/3x3"
  type: "Convolution"
  bottom: "inception_4e/3x3_reduce"
  top: "inception_4e/3x3"
  param {
    lr_mult: 1
    decay_mult: 1
  }
  param {
    lr_mult: 2
    decay_mult: 0
  }
  convolution_param {
    num_output: 320
    pad: 1
    kernel_size: 3
    weight_filler {
      type: "xavier"
      std: 0.03
    }
    bias_filler {
      type: "constant"
      value: 0.2
    }
  }
}
layer {
  name: "inception_4e/relu_3x3"
  type: "ReLU"
  bottom: "inception_4e/3x3"
  top: "inception_4e/3x3"
}
layer {
  name: "inception_4e/5x5_reduce"
  type: "Convolution"
  bottom: "inception_4d/output"
  top: "inception_4e/5x5_reduce"
  param {
    lr_mult: 1
    decay_mult: 1
  }
  param {
    lr_mult: 2
    decay_mult: 0
  }
  convolution_param {
    num_output: 32
    kernel_size: 1
    weight_filler {
      type: "xavier"
      std: 0.2
    }
    bias_filler {
      type: "constant"
      value: 0.2
    }
  }
}
layer {
  name: "inception_4e/relu_5x5_reduce"
  type: "ReLU"
  bottom: "inception_4e/5x5_reduce"
  top: "inception_4e/5x5_reduce"
}
layer {
  name: "inception_4e/5x5"
  type: "Convolution"
  bottom: "inception_4e/5x5_reduce"
  top: "inception_4e/5x5"
  p
I0403 15:35:06.266698 15564 layer_factory.hpp:77] Creating layer data
I0403 15:35:06.267307 15564 net.cpp:91] Creating Layer data
I0403 15:35:06.267339 15564 net.cpp:399] data -> data
I0403 15:35:06.267390 15564 net.cpp:399] data -> label
I0403 15:35:06.267433 15564 data_transformer.cpp:25] Loading mean file from: /home/mohanty/data/final_dataset/lmdb/color-50-50/mean.binaryproto
I0403 15:35:06.270239 15567 db_lmdb.cpp:38] Opened lmdb /home/mohanty/data/final_dataset/lmdb/color-50-50/test_db
I0403 15:35:06.281033 15564 data_layer.cpp:41] output data size: 24,3,224,224
I0403 15:35:06.308759 15564 net.cpp:141] Setting up data
I0403 15:35:06.308831 15564 net.cpp:148] Top shape: 24 3 224 224 (3612672)
I0403 15:35:06.308853 15564 net.cpp:148] Top shape: 24 (24)
I0403 15:35:06.308868 15564 net.cpp:156] Memory required for data: 14450784
I0403 15:35:06.308895 15564 layer_factory.hpp:77] Creating layer label_data_1_split
I0403 15:35:06.308923 15564 net.cpp:91] Creating Layer label_data_1_split
I0403 15:35:06.308941 15564 net.cpp:425] label_data_1_split <- label
I0403 15:35:06.308974 15564 net.cpp:399] label_data_1_split -> label_data_1_split_0
I0403 15:35:06.309002 15564 net.cpp:399] label_data_1_split -> label_data_1_split_1
I0403 15:35:06.309025 15564 net.cpp:399] label_data_1_split -> label_data_1_split_2
I0403 15:35:06.309046 15564 net.cpp:399] label_data_1_split -> label_data_1_split_3
I0403 15:35:06.309065 15564 net.cpp:399] label_data_1_split -> label_data_1_split_4
I0403 15:35:06.309085 15564 net.cpp:399] label_data_1_split -> label_data_1_split_5
I0403 15:35:06.309105 15564 net.cpp:399] label_data_1_split -> label_data_1_split_6
I0403 15:35:06.309126 15564 net.cpp:399] label_data_1_split -> label_data_1_split_7
I0403 15:35:06.309145 15564 net.cpp:399] label_data_1_split -> label_data_1_split_8
I0403 15:35:06.309166 15564 net.cpp:399] label_data_1_split -> label_data_1_split_9
I0403 15:35:06.309285 15564 net.cpp:141] Setting up label_data_1_split
I0403 15:35:06.309309 15564 net.cpp:148] Top shape: 24 (24)
I0403 15:35:06.309327 15564 net.cpp:148] Top shape: 24 (24)
I0403 15:35:06.309342 15564 net.cpp:148] Top shape: 24 (24)
I0403 15:35:06.309358 15564 net.cpp:148] Top shape: 24 (24)
I0403 15:35:06.309373 15564 net.cpp:148] Top shape: 24 (24)
I0403 15:35:06.309388 15564 net.cpp:148] Top shape: 24 (24)
I0403 15:35:06.309404 15564 net.cpp:148] Top shape: 24 (24)
I0403 15:35:06.309419 15564 net.cpp:148] Top shape: 24 (24)
I0403 15:35:06.309435 15564 net.cpp:148] Top shape: 24 (24)
I0403 15:35:06.309451 15564 net.cpp:148] Top shape: 24 (24)
I0403 15:35:06.309500 15564 net.cpp:156] Memory required for data: 14451744
I0403 15:35:06.309516 15564 layer_factory.hpp:77] Creating layer conv1/7x7_s2
I0403 15:35:06.309559 15564 net.cpp:91] Creating Layer conv1/7x7_s2
I0403 15:35:06.309579 15564 net.cpp:425] conv1/7x7_s2 <- data
I0403 15:35:06.309599 15564 net.cpp:399] conv1/7x7_s2 -> conv1/7x7_s2
I0403 15:35:06.449616 15564 net.cpp:141] Setting up conv1/7x7_s2
I0403 15:35:06.449681 15564 net.cpp:148] Top shape: 24 64 112 112 (19267584)
I0403 15:35:06.449697 15564 net.cpp:156] Memory required for data: 91522080
I0403 15:35:06.449728 15564 layer_factory.hpp:77] Creating layer conv1/relu_7x7
I0403 15:35:06.449753 15564 net.cpp:91] Creating Layer conv1/relu_7x7
I0403 15:35:06.449770 15564 net.cpp:425] conv1/relu_7x7 <- conv1/7x7_s2
I0403 15:35:06.449789 15564 net.cpp:386] conv1/relu_7x7 -> conv1/7x7_s2 (in-place)
I0403 15:35:06.450040 15564 net.cpp:141] Setting up conv1/relu_7x7
I0403 15:35:06.450067 15564 net.cpp:148] Top shape: 24 64 112 112 (19267584)
I0403 15:35:06.450081 15564 net.cpp:156] Memory required for data: 168592416
I0403 15:35:06.450095 15564 layer_factory.hpp:77] Creating layer pool1/3x3_s2
I0403 15:35:06.450120 15564 net.cpp:91] Creating Layer pool1/3x3_s2
I0403 15:35:06.450137 15564 net.cpp:425] pool1/3x3_s2 <- conv1/7x7_s2
I0403 15:35:06.450155 15564 net.cpp:399] pool1/3x3_s2 -> pool1/3x3_s2
I0403 15:35:06.450227 15564 net.cpp:141] Setting up pool1/3x3_s2
I0403 15:35:06.450250 15564 net.cpp:148] Top shape: 24 64 56 56 (4816896)
I0403 15:35:06.450264 15564 net.cpp:156] Memory required for data: 187860000
I0403 15:35:06.450278 15564 layer_factory.hpp:77] Creating layer pool1/norm1
I0403 15:35:06.450302 15564 net.cpp:91] Creating Layer pool1/norm1
I0403 15:35:06.450320 15564 net.cpp:425] pool1/norm1 <- pool1/3x3_s2
I0403 15:35:06.450336 15564 net.cpp:399] pool1/norm1 -> pool1/norm1
I0403 15:35:06.450620 15564 net.cpp:141] Setting up pool1/norm1
I0403 15:35:06.450646 15564 net.cpp:148] Top shape: 24 64 56 56 (4816896)
I0403 15:35:06.450661 15564 net.cpp:156] Memory required for data: 207127584
I0403 15:35:06.450675 15564 layer_factory.hpp:77] Creating layer conv2/3x3_reduce
I0403 15:35:06.450700 15564 net.cpp:91] Creating Layer conv2/3x3_reduce
I0403 15:35:06.450716 15564 net.cpp:425] conv2/3x3_reduce <- pool1/norm1
I0403 15:35:06.450733 15564 net.cpp:399] conv2/3x3_reduce -> conv2/3x3_reduce
I0403 15:35:06.452077 15564 net.cpp:141] Setting up conv2/3x3_reduce
I0403 15:35:06.452106 15564 net.cpp:148] Top shape: 24 64 56 56 (4816896)
I0403 15:35:06.452122 15564 net.cpp:156] Memory required for data: 226395168
I0403 15:35:06.452142 15564 layer_factory.hpp:77] Creating layer conv2/relu_3x3_reduce
I0403 15:35:06.452160 15564 net.cpp:91] Creating Layer conv2/relu_3x3_reduce
I0403 15:35:06.452175 15564 net.cpp:425] conv2/relu_3x3_reduce <- conv2/3x3_reduce
I0403 15:35:06.452193 15564 net.cpp:386] conv2/relu_3x3_reduce -> conv2/3x3_reduce (in-place)
I0403 15:35:06.452440 15564 net.cpp:141] Setting up conv2/relu_3x3_reduce
I0403 15:35:06.452466 15564 net.cpp:148] Top shape: 24 64 56 56 (4816896)
I0403 15:35:06.452481 15564 net.cpp:156] Memory required for data: 245662752
I0403 15:35:06.452496 15564 layer_factory.hpp:77] Creating layer conv2/3x3
I0403 15:35:06.452517 15564 net.cpp:91] Creating Layer conv2/3x3
I0403 15:35:06.452533 15564 net.cpp:425] conv2/3x3 <- conv2/3x3_reduce
I0403 15:35:06.452556 15564 net.cpp:399] conv2/3x3 -> conv2/3x3
I0403 15:35:06.454820 15564 net.cpp:141] Setting up conv2/3x3
I0403 15:35:06.454884 15564 net.cpp:148] Top shape: 24 192 56 56 (14450688)
I0403 15:35:06.454903 15564 net.cpp:156] Memory required for data: 303465504
I0403 15:35:06.454923 15564 layer_factory.hpp:77] Creating layer conv2/relu_3x3
I0403 15:35:06.454942 15564 net.cpp:91] Creating Layer conv2/relu_3x3
I0403 15:35:06.454957 15564 net.cpp:425] conv2/relu_3x3 <- conv2/3x3
I0403 15:35:06.454973 15564 net.cpp:386] conv2/relu_3x3 -> conv2/3x3 (in-place)
I0403 15:35:06.455135 15564 net.cpp:141] Setting up conv2/relu_3x3
I0403 15:35:06.455159 15564 net.cpp:148] Top shape: 24 192 56 56 (14450688)
I0403 15:35:06.455206 15564 net.cpp:156] Memory required for data: 361268256
I0403 15:35:06.455221 15564 layer_factory.hpp:77] Creating layer conv2/norm2
I0403 15:35:06.455240 15564 net.cpp:91] Creating Layer conv2/norm2
I0403 15:35:06.455255 15564 net.cpp:425] conv2/norm2 <- conv2/3x3
I0403 15:35:06.455271 15564 net.cpp:399] conv2/norm2 -> conv2/norm2
I0403 15:35:06.455559 15564 net.cpp:141] Setting up conv2/norm2
I0403 15:35:06.455585 15564 net.cpp:148] Top shape: 24 192 56 56 (14450688)
I0403 15:35:06.455600 15564 net.cpp:156] Memory required for data: 419071008
I0403 15:35:06.455615 15564 layer_factory.hpp:77] Creating layer pool2/3x3_s2
I0403 15:35:06.455632 15564 net.cpp:91] Creating Layer pool2/3x3_s2
I0403 15:35:06.455647 15564 net.cpp:425] pool2/3x3_s2 <- conv2/norm2
I0403 15:35:06.455668 15564 net.cpp:399] pool2/3x3_s2 -> pool2/3x3_s2
I0403 15:35:06.455719 15564 net.cpp:141] Setting up pool2/3x3_s2
I0403 15:35:06.455741 15564 net.cpp:148] Top shape: 24 192 28 28 (3612672)
I0403 15:35:06.455755 15564 net.cpp:156] Memory required for data: 433521696
I0403 15:35:06.455768 15564 layer_factory.hpp:77] Creating layer pool2/3x3_s2_pool2/3x3_s2_0_split
I0403 15:35:06.455785 15564 net.cpp:91] Creating Layer pool2/3x3_s2_pool2/3x3_s2_0_split
I0403 15:35:06.455801 15564 net.cpp:425] pool2/3x3_s2_pool2/3x3_s2_0_split <- pool2/3x3_s2
I0403 15:35:06.455816 15564 net.cpp:399] pool2/3x3_s2_pool2/3x3_s2_0_split -> pool2/3x3_s2_pool2/3x3_s2_0_split_0
I0403 15:35:06.455835 15564 net.cpp:399] pool2/3x3_s2_pool2/3x3_s2_0_split -> pool2/3x3_s2_pool2/3x3_s2_0_split_1
I0403 15:35:06.455854 15564 net.cpp:399] pool2/3x3_s2_pool2/3x3_s2_0_split -> pool2/3x3_s2_pool2/3x3_s2_0_split_2
I0403 15:35:06.455873 15564 net.cpp:399] pool2/3x3_s2_pool2/3x3_s2_0_split -> pool2/3x3_s2_pool2/3x3_s2_0_split_3
I0403 15:35:06.455936 15564 net.cpp:141] Setting up pool2/3x3_s2_pool2/3x3_s2_0_split
I0403 15:35:06.455958 15564 net.cpp:148] Top shape: 24 192 28 28 (3612672)
I0403 15:35:06.455974 15564 net.cpp:148] Top shape: 24 192 28 28 (3612672)
I0403 15:35:06.455989 15564 net.cpp:148] Top shape: 24 192 28 28 (3612672)
I0403 15:35:06.456003 15564 net.cpp:148] Top shape: 24 192 28 28 (3612672)
I0403 15:35:06.456017 15564 net.cpp:156] Memory required for data: 491324448
I0403 15:35:06.456030 15564 layer_factory.hpp:77] Creating layer inception_3a/1x1
I0403 15:35:06.456049 15564 net.cpp:91] Creating Layer inception_3a/1x1
I0403 15:35:06.456065 15564 net.cpp:425] inception_3a/1x1 <- pool2/3x3_s2_pool2/3x3_s2_0_split_0
I0403 15:35:06.456084 15564 net.cpp:399] inception_3a/1x1 -> inception_3a/1x1
I0403 15:35:06.457636 15564 net.cpp:141] Setting up inception_3a/1x1
I0403 15:35:06.457665 15564 net.cpp:148] Top shape: 24 64 28 28 (1204224)
I0403 15:35:06.457681 15564 net.cpp:156] Memory required for data: 496141344
I0403 15:35:06.457700 15564 layer_factory.hpp:77] Creating layer inception_3a/relu_1x1
I0403 15:35:06.457716 15564 net.cpp:91] Creating Layer inception_3a/relu_1x1
I0403 15:35:06.457731 15564 net.cpp:425] inception_3a/relu_1x1 <- inception_3a/1x1
I0403 15:35:06.457751 15564 net.cpp:386] inception_3a/relu_1x1 -> inception_3a/1x1 (in-place)
I0403 15:35:06.457924 15564 net.cpp:141] Setting up inception_3a/relu_1x1
I0403 15:35:06.457948 15564 net.cpp:148] Top shape: 24 64 28 28 (1204224)
I0403 15:35:06.457962 15564 net.cpp:156] Memory required for data: 500958240
I0403 15:35:06.457976 15564 layer_factory.hpp:77] Creating layer inception_3a/3x3_reduce
I0403 15:35:06.457998 15564 net.cpp:91] Creating Layer inception_3a/3x3_reduce
I0403 15:35:06.458015 15564 net.cpp:425] inception_3a/3x3_reduce <- pool2/3x3_s2_pool2/3x3_s2_0_split_1
I0403 15:35:06.458060 15564 net.cpp:399] inception_3a/3x3_reduce -> inception_3a/3x3_reduce
I0403 15:35:06.459756 15564 net.cpp:141] Setting up inception_3a/3x3_reduce
I0403 15:35:06.459785 15564 net.cpp:148] Top shape: 24 96 28 28 (1806336)
I0403 15:35:06.459800 15564 net.cpp:156] Memory required for data: 508183584
I0403 15:35:06.459821 15564 layer_factory.hpp:77] Creating layer inception_3a/relu_3x3_reduce
I0403 15:35:06.459859 15564 net.cpp:91] Creating Layer inception_3a/relu_3x3_reduce
I0403 15:35:06.459877 15564 net.cpp:425] inception_3a/relu_3x3_reduce <- inception_3a/3x3_reduce
I0403 15:35:06.459894 15564 net.cpp:386] inception_3a/relu_3x3_reduce -> inception_3a/3x3_reduce (in-place)
I0403 15:35:06.460075 15564 net.cpp:141] Setting up inception_3a/relu_3x3_reduce
I0403 15:35:06.460100 15564 net.cpp:148] Top shape: 24 96 28 28 (1806336)
I0403 15:35:06.460114 15564 net.cpp:156] Memory required for data: 515408928
I0403 15:35:06.460129 15564 layer_factory.hpp:77] Creating layer inception_3a/3x3
I0403 15:35:06.460151 15564 net.cpp:91] Creating Layer inception_3a/3x3
I0403 15:35:06.460168 15564 net.cpp:425] inception_3a/3x3 <- inception_3a/3x3_reduce
I0403 15:35:06.460188 15564 net.cpp:399] inception_3a/3x3 -> inception_3a/3x3
I0403 15:35:06.461828 15564 net.cpp:141] Setting up inception_3a/3x3
I0403 15:35:06.461856 15564 net.cpp:148] Top shape: 24 128 28 28 (2408448)
I0403 15:35:06.461871 15564 net.cpp:156] Memory required for data: 525042720
I0403 15:35:06.461889 15564 layer_factory.hpp:77] Creating layer inception_3a/relu_3x3
I0403 15:35:06.461908 15564 net.cpp:91] Creating Layer inception_3a/relu_3x3
I0403 15:35:06.461925 15564 net.cpp:425] inception_3a/relu_3x3 <- inception_3a/3x3
I0403 15:35:06.461941 15564 net.cpp:386] inception_3a/relu_3x3 -> inception_3a/3x3 (in-place)
I0403 15:35:06.462210 15564 net.cpp:141] Setting up inception_3a/relu_3x3
I0403 15:35:06.462236 15564 net.cpp:148] Top shape: 24 128 28 28 (2408448)
I0403 15:35:06.462251 15564 net.cpp:156] Memory required for data: 534676512
I0403 15:35:06.462265 15564 layer_factory.hpp:77] Creating layer inception_3a/5x5_reduce
I0403 15:35:06.462286 15564 net.cpp:91] Creating Layer inception_3a/5x5_reduce
I0403 15:35:06.462303 15564 net.cpp:425] inception_3a/5x5_reduce <- pool2/3x3_s2_pool2/3x3_s2_0_split_2
I0403 15:35:06.462324 15564 net.cpp:399] inception_3a/5x5_reduce -> inception_3a/5x5_reduce
I0403 15:35:06.463275 15564 net.cpp:141] Setting up inception_3a/5x5_reduce
I0403 15:35:06.463304 15564 net.cpp:148] Top shape: 24 16 28 28 (301056)
I0403 15:35:06.463320 15564 net.cpp:156] Memory required for data: 535880736
I0403 15:35:06.463336 15564 layer_factory.hpp:77] Creating layer inception_3a/relu_5x5_reduce
I0403 15:35:06.463357 15564 net.cpp:91] Creating Layer inception_3a/relu_5x5_reduce
I0403 15:35:06.463374 15564 net.cpp:425] inception_3a/relu_5x5_reduce <- inception_3a/5x5_reduce
I0403 15:35:06.463392 15564 net.cpp:386] inception_3a/relu_5x5_reduce -> inception_3a/5x5_reduce (in-place)
I0403 15:35:06.463685 15564 net.cpp:141] Setting up inception_3a/relu_5x5_reduce
I0403 15:35:06.463712 15564 net.cpp:148] Top shape: 24 16 28 28 (301056)
I0403 15:35:06.463728 15564 net.cpp:156] Memory required for data: 537084960
I0403 15:35:06.463742 15564 layer_factory.hpp:77] Creating layer inception_3a/5x5
I0403 15:35:06.463763 15564 net.cpp:91] Creating Layer inception_3a/5x5
I0403 15:35:06.463780 15564 net.cpp:425] inception_3a/5x5 <- inception_3a/5x5_reduce
I0403 15:35:06.463799 15564 net.cpp:399] inception_3a/5x5 -> inception_3a/5x5
I0403 15:35:06.464794 15564 net.cpp:141] Setting up inception_3a/5x5
I0403 15:35:06.464820 15564 net.cpp:148] Top shape: 24 32 28 28 (602112)
I0403 15:35:06.464835 15564 net.cpp:156] Memory required for data: 539493408
I0403 15:35:06.464854 15564 layer_factory.hpp:77] Creating layer inception_3a/relu_5x5
I0403 15:35:06.464874 15564 net.cpp:91] Creating Layer inception_3a/relu_5x5
I0403 15:35:06.464890 15564 net.cpp:425] inception_3a/relu_5x5 <- inception_3a/5x5
I0403 15:35:06.464906 15564 net.cpp:386] inception_3a/relu_5x5 -> inception_3a/5x5 (in-place)
I0403 15:35:06.465075 15564 net.cpp:141] Setting up inception_3a/relu_5x5
I0403 15:35:06.465101 15564 net.cpp:148] Top shape: 24 32 28 28 (602112)
I0403 15:35:06.465116 15564 net.cpp:156] Memory required for data: 541901856
I0403 15:35:06.465131 15564 layer_factory.hpp:77] Creating layer inception_3a/pool
I0403 15:35:06.465147 15564 net.cpp:91] Creating Layer inception_3a/pool
I0403 15:35:06.465162 15564 net.cpp:425] inception_3a/pool <- pool2/3x3_s2_pool2/3x3_s2_0_split_3
I0403 15:35:06.465194 15564 net.cpp:399] inception_3a/pool -> inception_3a/pool
I0403 15:35:06.465253 15564 net.cpp:141] Setting up inception_3a/pool
I0403 15:35:06.465276 15564 net.cpp:148] Top shape: 24 192 28 28 (3612672)
I0403 15:35:06.465291 15564 net.cpp:156] Memory required for data: 556352544
I0403 15:35:06.465304 15564 layer_factory.hpp:77] Creating layer inception_3a/pool_proj
I0403 15:35:06.465325 15564 net.cpp:91] Creating Layer inception_3a/pool_proj
I0403 15:35:06.465342 15564 net.cpp:425] inception_3a/pool_proj <- inception_3a/pool
I0403 15:35:06.465364 15564 net.cpp:399] inception_3a/pool_proj -> inception_3a/pool_proj
I0403 15:35:06.466327 15564 net.cpp:141] Setting up inception_3a/pool_proj
I0403 15:35:06.466356 15564 net.cpp:148] Top shape: 24 32 28 28 (602112)
I0403 15:35:06.466370 15564 net.cpp:156] Memory required for data: 558760992
I0403 15:35:06.466392 15564 layer_factory.hpp:77] Creating layer inception_3a/relu_pool_proj
I0403 15:35:06.466411 15564 net.cpp:91] Creating Layer inception_3a/relu_pool_proj
I0403 15:35:06.466428 15564 net.cpp:425] inception_3a/relu_pool_proj <- inception_3a/pool_proj
I0403 15:35:06.466445 15564 net.cpp:386] inception_3a/relu_pool_proj -> inception_3a/pool_proj (in-place)
I0403 15:35:06.466722 15564 net.cpp:141] Setting up inception_3a/relu_pool_proj
I0403 15:35:06.466747 15564 net.cpp:148] Top shape: 24 32 28 28 (602112)
I0403 15:35:06.466763 15564 net.cpp:156] Memory required for data: 561169440
I0403 15:35:06.466776 15564 layer_factory.hpp:77] Creating layer inception_3a/output
I0403 15:35:06.466794 15564 net.cpp:91] Creating Layer inception_3a/output
I0403 15:35:06.466809 15564 net.cpp:425] inception_3a/output <- inception_3a/1x1
I0403 15:35:06.466827 15564 net.cpp:425] inception_3a/output <- inception_3a/3x3
I0403 15:35:06.466843 15564 net.cpp:425] inception_3a/output <- inception_3a/5x5
I0403 15:35:06.466859 15564 net.cpp:425] inception_3a/output <- inception_3a/pool_proj
I0403 15:35:06.466876 15564 net.cpp:399] inception_3a/output -> inception_3a/output
I0403 15:35:06.466922 15564 net.cpp:141] Setting up inception_3a/output
I0403 15:35:06.466943 15564 net.cpp:148] Top shape: 24 256 28 28 (4816896)
I0403 15:35:06.466958 15564 net.cpp:156] Memory required for data: 580437024
I0403 15:35:06.466972 15564 layer_factory.hpp:77] Creating layer inception_3a/output_inception_3a/output_0_split
I0403 15:35:06.466989 15564 net.cpp:91] Creating Layer inception_3a/output_inception_3a/output_0_split
I0403 15:35:06.467003 15564 net.cpp:425] inception_3a/output_inception_3a/output_0_split <- inception_3a/output
I0403 15:35:06.467022 15564 net.cpp:399] inception_3a/output_inception_3a/output_0_split -> inception_3a/output_inception_3a/output_0_split_0
I0403 15:35:06.467043 15564 net.cpp:399] inception_3a/output_inception_3a/output_0_split -> inception_3a/output_inception_3a/output_0_split_1
I0403 15:35:06.467066 15564 net.cpp:399] inception_3a/output_inception_3a/output_0_split -> inception_3a/output_inception_3a/output_0_split_2
I0403 15:35:06.467089 15564 net.cpp:399] inception_3a/output_inception_3a/output_0_split -> inception_3a/output_inception_3a/output_0_split_3
I0403 15:35:06.467164 15564 net.cpp:141] Setting up inception_3a/output_inception_3a/output_0_split
I0403 15:35:06.467185 15564 net.cpp:148] Top shape: 24 256 28 28 (4816896)
I0403 15:35:06.467201 15564 net.cpp:148] Top shape: 24 256 28 28 (4816896)
I0403 15:35:06.467216 15564 net.cpp:148] Top shape: 24 256 28 28 (4816896)
I0403 15:35:06.467231 15564 net.cpp:148] Top shape: 24 256 28 28 (4816896)
I0403 15:35:06.467244 15564 net.cpp:156] Memory required for data: 657507360
I0403 15:35:06.467257 15564 layer_factory.hpp:77] Creating layer inception_3b/1x1
I0403 15:35:06.467279 15564 net.cpp:91] Creating Layer inception_3b/1x1
I0403 15:35:06.467296 15564 net.cpp:425] inception_3b/1x1 <- inception_3a/output_inception_3a/output_0_split_0
I0403 15:35:06.467316 15564 net.cpp:399] inception_3b/1x1 -> inception_3b/1x1
I0403 15:35:06.468443 15564 net.cpp:141] Setting up inception_3b/1x1
I0403 15:35:06.468482 15564 net.cpp:148] Top shape: 24 128 28 28 (2408448)
I0403 15:35:06.468498 15564 net.cpp:156] Memory required for data: 667141152
I0403 15:35:06.468516 15564 layer_factory.hpp:77] Creating layer inception_3b/relu_1x1
I0403 15:35:06.468533 15564 net.cpp:91] Creating Layer inception_3b/relu_1x1
I0403 15:35:06.468582 15564 net.cpp:425] inception_3b/relu_1x1 <- inception_3b/1x1
I0403 15:35:06.468601 15564 net.cpp:386] inception_3b/relu_1x1 -> inception_3b/1x1 (in-place)
I0403 15:35:06.468776 15564 net.cpp:141] Setting up inception_3b/relu_1x1
I0403 15:35:06.468801 15564 net.cpp:148] Top shape: 24 128 28 28 (2408448)
I0403 15:35:06.468816 15564 net.cpp:156] Memory required for data: 676774944
I0403 15:35:06.468830 15564 layer_factory.hpp:77] Creating layer inception_3b/3x3_reduce
I0403 15:35:06.468852 15564 net.cpp:91] Creating Layer inception_3b/3x3_reduce
I0403 15:35:06.468870 15564 net.cpp:425] inception_3b/3x3_reduce <- inception_3a/output_inception_3a/output_0_split_1
I0403 15:35:06.468891 15564 net.cpp:399] inception_3b/3x3_reduce -> inception_3b/3x3_reduce
I0403 15:35:06.470065 15564 net.cpp:141] Setting up inception_3b/3x3_reduce
I0403 15:35:06.470093 15564 net.cpp:148] Top shape: 24 128 28 28 (2408448)
I0403 15:35:06.470109 15564 net.cpp:156] Memory required for data: 686408736
I0403 15:35:06.470126 15564 layer_factory.hpp:77] Creating layer inception_3b/relu_3x3_reduce
I0403 15:35:06.470144 15564 net.cpp:91] Creating Layer inception_3b/relu_3x3_reduce
I0403 15:35:06.470160 15564 net.cpp:425] inception_3b/relu_3x3_reduce <- inception_3b/3x3_reduce
I0403 15:35:06.470180 15564 net.cpp:386] inception_3b/relu_3x3_reduce -> inception_3b/3x3_reduce (in-place)
I0403 15:35:06.470363 15564 net.cpp:141] Setting up inception_3b/relu_3x3_reduce
I0403 15:35:06.470388 15564 net.cpp:148] Top shape: 24 128 28 28 (2408448)
I0403 15:35:06.470403 15564 net.cpp:156] Memory required for data: 696042528
I0403 15:35:06.470417 15564 layer_factory.hpp:77] Creating layer inception_3b/3x3
I0403 15:35:06.470443 15564 net.cpp:91] Creating Layer inception_3b/3x3
I0403 15:35:06.470461 15564 net.cpp:425] inception_3b/3x3 <- inception_3b/3x3_reduce
I0403 15:35:06.470480 15564 net.cpp:399] inception_3b/3x3 -> inception_3b/3x3
I0403 15:35:06.473464 15564 net.cpp:141] Setting up inception_3b/3x3
I0403 15:35:06.473492 15564 net.cpp:148] Top shape: 24 192 28 28 (3612672)
I0403 15:35:06.473507 15564 net.cpp:156] Memory required for data: 710493216
I0403 15:35:06.473526 15564 layer_factory.hpp:77] Creating layer inception_3b/relu_3x3
I0403 15:35:06.473551 15564 net.cpp:91] Creating Layer inception_3b/relu_3x3
I0403 15:35:06.473569 15564 net.cpp:425] inception_3b/relu_3x3 <- inception_3b/3x3
I0403 15:35:06.473587 15564 net.cpp:386] inception_3b/relu_3x3 -> inception_3b/3x3 (in-place)
I0403 15:35:06.473865 15564 net.cpp:141] Setting up inception_3b/relu_3x3
I0403 15:35:06.473892 15564 net.cpp:148] Top shape: 24 192 28 28 (3612672)
I0403 15:35:06.473906 15564 net.cpp:156] Memory required for data: 724943904
I0403 15:35:06.473920 15564 layer_factory.hpp:77] Creating layer inception_3b/5x5_reduce
I0403 15:35:06.473944 15564 net.cpp:91] Creating Layer inception_3b/5x5_reduce
I0403 15:35:06.473963 15564 net.cpp:425] inception_3b/5x5_reduce <- inception_3a/output_inception_3a/output_0_split_2
I0403 15:35:06.473984 15564 net.cpp:399] inception_3b/5x5_reduce -> inception_3b/5x5_reduce
I0403 15:35:06.475035 15564 net.cpp:141] Setting up inception_3b/5x5_reduce
I0403 15:35:06.475064 15564 net.cpp:148] Top shape: 24 32 28 28 (602112)
I0403 15:35:06.475080 15564 net.cpp:156] Memory required for data: 727352352
I0403 15:35:06.475097 15564 layer_factory.hpp:77] Creating layer inception_3b/relu_5x5_reduce
I0403 15:35:06.475118 15564 net.cpp:91] Creating Layer inception_3b/relu_5x5_reduce
I0403 15:35:06.475136 15564 net.cpp:425] inception_3b/relu_5x5_reduce <- inception_3b/5x5_reduce
I0403 15:35:06.475154 15564 net.cpp:386] inception_3b/relu_5x5_reduce -> inception_3b/5x5_reduce (in-place)
I0403 15:35:06.475333 15564 net.cpp:141] Setting up inception_3b/relu_5x5_reduce
I0403 15:35:06.475373 15564 net.cpp:148] Top shape: 24 32 28 28 (602112)
I0403 15:35:06.475390 15564 net.cpp:156] Memory required for data: 729760800
I0403 15:35:06.475405 15564 layer_factory.hpp:77] Creating layer inception_3b/5x5
I0403 15:35:06.475428 15564 net.cpp:91] Creating Layer inception_3b/5x5
I0403 15:35:06.475446 15564 net.cpp:425] inception_3b/5x5 <- inception_3b/5x5_reduce
I0403 15:35:06.475464 15564 net.cpp:399] inception_3b/5x5 -> inception_3b/5x5
I0403 15:35:06.477475 15564 net.cpp:141] Setting up inception_3b/5x5
I0403 15:35:06.477504 15564 net.cpp:148] Top shape: 24 96 28 28 (1806336)
I0403 15:35:06.477519 15564 net.cpp:156] Memory required for data: 736986144
I0403 15:35:06.477542 15564 layer_factory.hpp:77] Creating layer inception_3b/relu_5x5
I0403 15:35:06.477571 15564 net.cpp:91] Creating Layer inception_3b/relu_5x5
I0403 15:35:06.477587 15564 net.cpp:425] inception_3b/relu_5x5 <- inception_3b/5x5
I0403 15:35:06.477607 15564 net.cpp:386] inception_3b/relu_5x5 -> inception_3b/5x5 (in-place)
I0403 15:35:06.477803 15564 net.cpp:141] Setting up inception_3b/relu_5x5
I0403 15:35:06.477831 15564 net.cpp:148] Top shape: 24 96 28 28 (1806336)
I0403 15:35:06.477845 15564 net.cpp:156] Memory required for data: 744211488
I0403 15:35:06.477860 15564 layer_factory.hpp:77] Creating layer inception_3b/pool
I0403 15:35:06.477879 15564 net.cpp:91] Creating Layer inception_3b/pool
I0403 15:35:06.477895 15564 net.cpp:425] inception_3b/pool <- inception_3a/output_inception_3a/output_0_split_3
I0403 15:35:06.477912 15564 net.cpp:399] inception_3b/pool -> inception_3b/pool
I0403 15:35:06.477969 15564 net.cpp:141] Setting up inception_3b/pool
I0403 15:35:06.477993 15564 net.cpp:148] Top shape: 24 256 28 28 (4816896)
I0403 15:35:06.478008 15564 net.cpp:156] Memory required for data: 763479072
I0403 15:35:06.478021 15564 layer_factory.hpp:77] Creating layer inception_3b/pool_proj
I0403 15:35:06.478044 15564 net.cpp:91] Creating Layer inception_3b/pool_proj
I0403 15:35:06.478062 15564 net.cpp:425] inception_3b/pool_proj <- inception_3b/pool
I0403 15:35:06.478083 15564 net.cpp:399] inception_3b/pool_proj -> inception_3b/pool_proj
I0403 15:35:06.479156 15564 net.cpp:141] Setting up inception_3b/pool_proj
I0403 15:35:06.479185 15564 net.cpp:148] Top shape: 24 64 28 28 (1204224)
I0403 15:35:06.479202 15564 net.cpp:156] Memory required for data: 768295968
I0403 15:35:06.479220 15564 layer_factory.hpp:77] Creating layer inception_3b/relu_pool_proj
I0403 15:35:06.479239 15564 net.cpp:91] Creating Layer inception_3b/relu_pool_proj
I0403 15:35:06.479255 15564 net.cpp:425] inception_3b/relu_pool_proj <- inception_3b/pool_proj
I0403 15:35:06.479271 15564 net.cpp:386] inception_3b/relu_pool_proj -> inception_3b/pool_proj (in-place)
I0403 15:35:06.479676 15564 net.cpp:141] Setting up inception_3b/relu_pool_proj
I0403 15:35:06.479702 15564 net.cpp:148] Top shape: 24 64 28 28 (1204224)
I0403 15:35:06.479717 15564 net.cpp:156] Memory required for data: 773112864
I0403 15:35:06.479732 15564 layer_factory.hpp:77] Creating layer inception_3b/output
I0403 15:35:06.479751 15564 net.cpp:91] Creating Layer inception_3b/output
I0403 15:35:06.479768 15564 net.cpp:425] inception_3b/output <- inception_3b/1x1
I0403 15:35:06.479784 15564 net.cpp:425] inception_3b/output <- inception_3b/3x3
I0403 15:35:06.479799 15564 net.cpp:425] inception_3b/output <- inception_3b/5x5
I0403 15:35:06.479815 15564 net.cpp:425] inception_3b/output <- inception_3b/pool_proj
I0403 15:35:06.479832 15564 net.cpp:399] inception_3b/output -> inception_3b/output
I0403 15:35:06.479878 15564 net.cpp:141] Setting up inception_3b/output
I0403 15:35:06.479902 15564 net.cpp:148] Top shape: 24 480 28 28 (9031680)
I0403 15:35:06.479917 15564 net.cpp:156] Memory required for data: 809239584
I0403 15:35:06.479929 15564 layer_factory.hpp:77] Creating layer pool3/3x3_s2
I0403 15:35:06.479946 15564 net.cpp:91] Creating Layer pool3/3x3_s2
I0403 15:35:06.479962 15564 net.cpp:425] pool3/3x3_s2 <- inception_3b/output
I0403 15:35:06.479982 15564 net.cpp:399] pool3/3x3_s2 -> pool3/3x3_s2
I0403 15:35:06.480056 15564 net.cpp:141] Setting up pool3/3x3_s2
I0403 15:35:06.480078 15564 net.cpp:148] Top shape: 24 480 14 14 (2257920)
I0403 15:35:06.480093 15564 net.cpp:156] Memory required for data: 818271264
I0403 15:35:06.480108 15564 layer_factory.hpp:77] Creating layer pool3/3x3_s2_pool3/3x3_s2_0_split
I0403 15:35:06.480126 15564 net.cpp:91] Creating Layer pool3/3x3_s2_pool3/3x3_s2_0_split
I0403 15:35:06.480142 15564 net.cpp:425] pool3/3x3_s2_pool3/3x3_s2_0_split <- pool3/3x3_s2
I0403 15:35:06.480161 15564 net.cpp:399] pool3/3x3_s2_pool3/3x3_s2_0_split -> pool3/3x3_s2_pool3/3x3_s2_0_split_0
I0403 15:35:06.480181 15564 net.cpp:399] pool3/3x3_s2_pool3/3x3_s2_0_split -> pool3/3x3_s2_pool3/3x3_s2_0_split_1
I0403 15:35:06.480201 15564 net.cpp:399] pool3/3x3_s2_pool3/3x3_s2_0_split -> pool3/3x3_s2_pool3/3x3_s2_0_split_2
I0403 15:35:06.480221 15564 net.cpp:399] pool3/3x3_s2_pool3/3x3_s2_0_split -> pool3/3x3_s2_pool3/3x3_s2_0_split_3
I0403 15:35:06.480300 15564 net.cpp:141] Setting up pool3/3x3_s2_pool3/3x3_s2_0_split
I0403 15:35:06.480325 15564 net.cpp:148] Top shape: 24 480 14 14 (2257920)
I0403 15:35:06.480342 15564 net.cpp:148] Top shape: 24 480 14 14 (2257920)
I0403 15:35:06.480357 15564 net.cpp:148] Top shape: 24 480 14 14 (2257920)
I0403 15:35:06.480373 15564 net.cpp:148] Top shape: 24 480 14 14 (2257920)
I0403 15:35:06.480387 15564 net.cpp:156] Memory required for data: 854397984
I0403 15:35:06.480401 15564 layer_factory.hpp:77] Creating layer inception_4a/1x1
I0403 15:35:06.480423 15564 net.cpp:91] Creating Layer inception_4a/1x1
I0403 15:35:06.480442 15564 net.cpp:425] inception_4a/1x1 <- pool3/3x3_s2_pool3/3x3_s2_0_split_0
I0403 15:35:06.480460 15564 net.cpp:399] inception_4a/1x1 -> inception_4a/1x1
I0403 15:35:06.482084 15564 net.cpp:141] Setting up inception_4a/1x1
I0403 15:35:06.482115 15564 net.cpp:148] Top shape: 24 192 14 14 (903168)
I0403 15:35:06.482131 15564 net.cpp:156] Memory required for data: 858010656
I0403 15:35:06.482149 15564 layer_factory.hpp:77] Creating layer inception_4a/relu_1x1
I0403 15:35:06.482167 15564 net.cpp:91] Creating Layer inception_4a/relu_1x1
I0403 15:35:06.482183 15564 net.cpp:425] inception_4a/relu_1x1 <- inception_4a/1x1
I0403 15:35:06.482203 15564 net.cpp:386] inception_4a/relu_1x1 -> inception_4a/1x1 (in-place)
I0403 15:35:06.482385 15564 net.cpp:141] Setting up inception_4a/relu_1x1
I0403 15:35:06.482410 15564 net.cpp:148] Top shape: 24 192 14 14 (903168)
I0403 15:35:06.482425 15564 net.cpp:156] Memory required for data: 861623328
I0403 15:35:06.482439 15564 layer_factory.hpp:77] Creating layer inception_4a/3x3_reduce
I0403 15:35:06.482461 15564 net.cpp:91] Creating Layer inception_4a/3x3_reduce
I0403 15:35:06.482480 15564 net.cpp:425] inception_4a/3x3_reduce <- pool3/3x3_s2_pool3/3x3_s2_0_split_1
I0403 15:35:06.482501 15564 net.cpp:399] inception_4a/3x3_reduce -> inception_4a/3x3_reduce
I0403 15:35:06.483811 15564 net.cpp:141] Setting up inception_4a/3x3_reduce
I0403 15:35:06.483841 15564 net.cpp:148] Top shape: 24 96 14 14 (451584)
I0403 15:35:06.483858 15564 net.cpp:156] Memory required for data: 863429664
I0403 15:35:06.483882 15564 layer_factory.hpp:77] Creating layer inception_4a/relu_3x3_reduce
I0403 15:35:06.483903 15564 net.cpp:91] Creating Layer inception_4a/relu_3x3_reduce
I0403 15:35:06.483919 15564 net.cpp:425] inception_4a/relu_3x3_reduce <- inception_4a/3x3_reduce
I0403 15:35:06.483937 15564 net.cpp:386] inception_4a/relu_3x3_reduce -> inception_4a/3x3_reduce (in-place)
I0403 15:35:06.484115 15564 net.cpp:141] Setting up inception_4a/relu_3x3_reduce
I0403 15:35:06.484140 15564 net.cpp:148] Top shape: 24 96 14 14 (451584)
I0403 15:35:06.484155 15564 net.cpp:156] Memory required for data: 865236000
I0403 15:35:06.484169 15564 layer_factory.hpp:77] Creating layer inception_4a/3x3
I0403 15:35:06.484191 15564 net.cpp:91] Creating Layer inception_4a/3x3
I0403 15:35:06.484208 15564 net.cpp:425] inception_4a/3x3 <- inception_4a/3x3_reduce
I0403 15:35:06.484230 15564 net.cpp:399] inception_4a/3x3 -> inception_4a/3x3
I0403 15:35:06.486999 15564 net.cpp:141] Setting up inception_4a/3x3
I0403 15:35:06.487028 15564 net.cpp:148] Top shape: 24 208 14 14 (978432)
I0403 15:35:06.487045 15564 net.cpp:156] Memory required for data: 869149728
I0403 15:35:06.487061 15564 layer_factory.hpp:77] Creating layer inception_4a/relu_3x3
I0403 15:35:06.487079 15564 net.cpp:91] Creating Layer inception_4a/relu_3x3
I0403 15:35:06.487095 15564 net.cpp:425] inception_4a/relu_3x3 <- inception_4a/3x3
I0403 15:35:06.487115 15564 net.cpp:386] inception_4a/relu_3x3 -> inception_4a/3x3 (in-place)
I0403 15:35:06.487401 15564 net.cpp:141] Setting up inception_4a/relu_3x3
I0403 15:35:06.487428 15564 net.cpp:148] Top shape: 24 208 14 14 (978432)
I0403 15:35:06.487443 15564 net.cpp:156] Memory required for data: 873063456
I0403 15:35:06.487457 15564 layer_factory.hpp:77] Creating layer inception_4a/5x5_reduce
I0403 15:35:06.487479 15564 net.cpp:91] Creating Layer inception_4a/5x5_reduce
I0403 15:35:06.487496 15564 net.cpp:425] inception_4a/5x5_reduce <- pool3/3x3_s2_pool3/3x3_s2_0_split_2
I0403 15:35:06.487519 15564 net.cpp:399] inception_4a/5x5_reduce -> inception_4a/5x5_reduce
I0403 15:35:06.488574 15564 net.cpp:141] Setting up inception_4a/5x5_reduce
I0403 15:35:06.488600 15564 net.cpp:148] Top shape: 24 16 14 14 (75264)
I0403 15:35:06.488615 15564 net.cpp:156] Memory required for data: 873364512
I0403 15:35:06.488633 15564 layer_factory.hpp:77] Creating layer inception_4a/relu_5x5_reduce
I0403 15:35:06.488653 15564 net.cpp:91] Creating Layer inception_4a/relu_5x5_reduce
I0403 15:35:06.488670 15564 net.cpp:425] inception_4a/relu_5x5_reduce <- inception_4a/5x5_reduce
I0403 15:35:06.488687 15564 net.cpp:386] inception_4a/relu_5x5_reduce -> inception_4a/5x5_reduce (in-place)
I0403 15:35:06.488862 15564 net.cpp:141] Setting up inception_4a/relu_5x5_reduce
I0403 15:35:06.488885 15564 net.cpp:148] Top shape: 24 16 14 14 (75264)
I0403 15:35:06.488904 15564 net.cpp:156] Memory required for data: 873665568
I0403 15:35:06.488919 15564 layer_factory.hpp:77] Creating layer inception_4a/5x5
I0403 15:35:06.488939 15564 net.cpp:91] Creating Layer inception_4a/5x5
I0403 15:35:06.488955 15564 net.cpp:425] inception_4a/5x5 <- inception_4a/5x5_reduce
I0403 15:35:06.488975 15564 net.cpp:399] inception_4a/5x5 -> inception_4a/5x5
I0403 15:35:06.490048 15564 net.cpp:141] Setting up inception_4a/5x5
I0403 15:35:06.490075 15564 net.cpp:148] Top shape: 24 48 14 14 (225792)
I0403 15:35:06.490092 15564 net.cpp:156] Memory required for data: 874568736
I0403 15:35:06.490108 15564 layer_factory.hpp:77] Creating layer inception_4a/relu_5x5
I0403 15:35:06.490128 15564 net.cpp:91] Creating Layer inception_4a/relu_5x5
I0403 15:35:06.490144 15564 net.cpp:425] inception_4a/relu_5x5 <- inception_4a/5x5
I0403 15:35:06.490161 15564 net.cpp:386] inception_4a/relu_5x5 -> inception_4a/5x5 (in-place)
I0403 15:35:06.490337 15564 net.cpp:141] Setting up inception_4a/relu_5x5
I0403 15:35:06.490361 15564 net.cpp:148] Top shape: 24 48 14 14 (225792)
I0403 15:35:06.490375 15564 net.cpp:156] Memory required for data: 875471904
I0403 15:35:06.490389 15564 layer_factory.hpp:77] Creating layer inception_4a/pool
I0403 15:35:06.490406 15564 net.cpp:91] Creating Layer inception_4a/pool
I0403 15:35:06.490422 15564 net.cpp:425] inception_4a/pool <- pool3/3x3_s2_pool3/3x3_s2_0_split_3
I0403 15:35:06.490442 15564 net.cpp:399] inception_4a/pool -> inception_4a/pool
I0403 15:35:06.490502 15564 net.cpp:141] Setting up inception_4a/pool
I0403 15:35:06.490526 15564 net.cpp:148] Top shape: 24 480 14 14 (2257920)
I0403 15:35:06.490545 15564 net.cpp:156] Memory required for data: 884503584
I0403 15:35:06.490569 15564 layer_factory.hpp:77] Creating layer inception_4a/pool_proj
I0403 15:35:06.490593 15564 net.cpp:91] Creating Layer inception_4a/pool_proj
I0403 15:35:06.490610 15564 net.cpp:425] inception_4a/pool_proj <- inception_4a/pool
I0403 15:35:06.490628 15564 net.cpp:399] inception_4a/pool_proj -> inception_4a/pool_proj
I0403 15:35:06.491785 15564 net.cpp:141] Setting up inception_4a/pool_proj
I0403 15:35:06.491814 15564 net.cpp:148] Top shape: 24 64 14 14 (301056)
I0403 15:35:06.491847 15564 net.cpp:156] Memory required for data: 885707808
I0403 15:35:06.491865 15564 layer_factory.hpp:77] Creating layer inception_4a/relu_pool_proj
I0403 15:35:06.491883 15564 net.cpp:91] Creating Layer inception_4a/relu_pool_proj
I0403 15:35:06.491897 15564 net.cpp:425] inception_4a/relu_pool_proj <- inception_4a/pool_proj
I0403 15:35:06.491919 15564 net.cpp:386] inception_4a/relu_pool_proj -> inception_4a/pool_proj (in-place)
I0403 15:35:06.492198 15564 net.cpp:141] Setting up inception_4a/relu_pool_proj
I0403 15:35:06.492226 15564 net.cpp:148] Top shape: 24 64 14 14 (301056)
I0403 15:35:06.492243 15564 net.cpp:156] Memory required for data: 886912032
I0403 15:35:06.492256 15564 layer_factory.hpp:77] Creating layer inception_4a/output
I0403 15:35:06.492272 15564 net.cpp:91] Creating Layer inception_4a/output
I0403 15:35:06.492287 15564 net.cpp:425] inception_4a/output <- inception_4a/1x1
I0403 15:35:06.492302 15564 net.cpp:425] inception_4a/output <- inception_4a/3x3
I0403 15:35:06.492317 15564 net.cpp:425] inception_4a/output <- inception_4a/5x5
I0403 15:35:06.492333 15564 net.cpp:425] inception_4a/output <- inception_4a/pool_proj
I0403 15:35:06.492348 15564 net.cpp:399] inception_4a/output -> inception_4a/output
I0403 15:35:06.492395 15564 net.cpp:141] Setting up inception_4a/output
I0403 15:35:06.492418 15564 net.cpp:148] Top shape: 24 512 14 14 (2408448)
I0403 15:35:06.492431 15564 net.cpp:156] Memory required for data: 896545824
I0403 15:35:06.492445 15564 layer_factory.hpp:77] Creating layer inception_4a/output_inception_4a/output_0_split
I0403 15:35:06.492465 15564 net.cpp:91] Creating Layer inception_4a/output_inception_4a/output_0_split
I0403 15:35:06.492480 15564 net.cpp:425] inception_4a/output_inception_4a/output_0_split <- inception_4a/output
I0403 15:35:06.492497 15564 net.cpp:399] inception_4a/output_inception_4a/output_0_split -> inception_4a/output_inception_4a/output_0_split_0
I0403 15:35:06.492517 15564 net.cpp:399] inception_4a/output_inception_4a/output_0_split -> inception_4a/output_inception_4a/output_0_split_1
I0403 15:35:06.492544 15564 net.cpp:399] inception_4a/output_inception_4a/output_0_split -> inception_4a/output_inception_4a/output_0_split_2
I0403 15:35:06.492568 15564 net.cpp:399] inception_4a/output_inception_4a/output_0_split -> inception_4a/output_inception_4a/output_0_split_3
I0403 15:35:06.492588 15564 net.cpp:399] inception_4a/output_inception_4a/output_0_split -> inception_4a/output_inception_4a/output_0_split_4
I0403 15:35:06.492681 15564 net.cpp:141] Setting up inception_4a/output_inception_4a/output_0_split
I0403 15:35:06.492704 15564 net.cpp:148] Top shape: 24 512 14 14 (2408448)
I0403 15:35:06.492719 15564 net.cpp:148] Top shape: 24 512 14 14 (2408448)
I0403 15:35:06.492734 15564 net.cpp:148] Top shape: 24 512 14 14 (2408448)
I0403 15:35:06.492748 15564 net.cpp:148] Top shape: 24 512 14 14 (2408448)
I0403 15:35:06.492763 15564 net.cpp:148] Top shape: 24 512 14 14 (2408448)
I0403 15:35:06.492775 15564 net.cpp:156] Memory required for data: 944714784
I0403 15:35:06.492789 15564 layer_factory.hpp:77] Creating layer loss1/ave_pool
I0403 15:35:06.492806 15564 net.cpp:91] Creating Layer loss1/ave_pool
I0403 15:35:06.492821 15564 net.cpp:425] loss1/ave_pool <- inception_4a/output_inception_4a/output_0_split_0
I0403 15:35:06.492841 15564 net.cpp:399] loss1/ave_pool -> loss1/ave_pool
I0403 15:35:06.493041 15564 net.cpp:141] Setting up loss1/ave_pool
I0403 15:35:06.493067 15564 net.cpp:148] Top shape: 24 512 4 4 (196608)
I0403 15:35:06.493083 15564 net.cpp:156] Memory required for data: 945501216
I0403 15:35:06.493096 15564 layer_factory.hpp:77] Creating layer loss1/conv
I0403 15:35:06.493118 15564 net.cpp:91] Creating Layer loss1/conv
I0403 15:35:06.493134 15564 net.cpp:425] loss1/conv <- loss1/ave_pool
I0403 15:35:06.493152 15564 net.cpp:399] loss1/conv -> loss1/conv
I0403 15:35:06.494542 15564 net.cpp:141] Setting up loss1/conv
I0403 15:35:06.494570 15564 net.cpp:148] Top shape: 24 128 4 4 (49152)
I0403 15:35:06.494585 15564 net.cpp:156] Memory required for data: 945697824
I0403 15:35:06.494618 15564 layer_factory.hpp:77] Creating layer loss1/relu_conv
I0403 15:35:06.494637 15564 net.cpp:91] Creating Layer loss1/relu_conv
I0403 15:35:06.494652 15564 net.cpp:425] loss1/relu_conv <- loss1/conv
I0403 15:35:06.494671 15564 net.cpp:386] loss1/relu_conv -> loss1/conv (in-place)
I0403 15:35:06.494949 15564 net.cpp:141] Setting up loss1/relu_conv
I0403 15:35:06.494976 15564 net.cpp:148] Top shape: 24 128 4 4 (49152)
I0403 15:35:06.494989 15564 net.cpp:156] Memory required for data: 945894432
I0403 15:35:06.495003 15564 layer_factory.hpp:77] Creating layer loss1/fc
I0403 15:35:06.495026 15564 net.cpp:91] Creating Layer loss1/fc
I0403 15:35:06.495044 15564 net.cpp:425] loss1/fc <- loss1/conv
I0403 15:35:06.495069 15564 net.cpp:399] loss1/fc -> loss1/fc
I0403 15:35:06.512867 15564 net.cpp:141] Setting up loss1/fc
I0403 15:35:06.512899 15564 net.cpp:148] Top shape: 24 1024 (24576)
I0403 15:35:06.512914 15564 net.cpp:156] Memory required for data: 945992736
I0403 15:35:06.512933 15564 layer_factory.hpp:77] Creating layer loss1/relu_fc
I0403 15:35:06.512950 15564 net.cpp:91] Creating Layer loss1/relu_fc
I0403 15:35:06.512966 15564 net.cpp:425] loss1/relu_fc <- loss1/fc
I0403 15:35:06.512984 15564 net.cpp:386] loss1/relu_fc -> loss1/fc (in-place)
I0403 15:35:06.513170 15564 net.cpp:141] Setting up loss1/relu_fc
I0403 15:35:06.513193 15564 net.cpp:148] Top shape: 24 1024 (24576)
I0403 15:35:06.513207 15564 net.cpp:156] Memory required for data: 946091040
I0403 15:35:06.513221 15564 layer_factory.hpp:77] Creating layer loss1/drop_fc
I0403 15:35:06.513257 15564 net.cpp:91] Creating Layer loss1/drop_fc
I0403 15:35:06.513273 15564 net.cpp:425] loss1/drop_fc <- loss1/fc
I0403 15:35:06.513291 15564 net.cpp:386] loss1/drop_fc -> loss1/fc (in-place)
I0403 15:35:06.513342 15564 net.cpp:141] Setting up loss1/drop_fc
I0403 15:35:06.513365 15564 net.cpp:148] Top shape: 24 1024 (24576)
I0403 15:35:06.513384 15564 net.cpp:156] Memory required for data: 946189344
I0403 15:35:06.513399 15564 layer_factory.hpp:77] Creating layer loss1/classifier_plantvillage
I0403 15:35:06.513417 15564 net.cpp:91] Creating Layer loss1/classifier_plantvillage
I0403 15:35:06.513432 15564 net.cpp:425] loss1/classifier_plantvillage <- loss1/fc
I0403 15:35:06.513452 15564 net.cpp:399] loss1/classifier_plantvillage -> loss1/classifier_plantvillage
I0403 15:35:06.514381 15564 net.cpp:141] Setting up loss1/classifier_plantvillage
I0403 15:35:06.514408 15564 net.cpp:148] Top shape: 24 38 (912)
I0403 15:35:06.514423 15564 net.cpp:156] Memory required for data: 946192992
I0403 15:35:06.514442 15564 layer_factory.hpp:77] Creating layer loss1/classifier_plantvillage_loss1/classifier_plantvillage_0_split
I0403 15:35:06.514461 15564 net.cpp:91] Creating Layer loss1/classifier_plantvillage_loss1/classifier_plantvillage_0_split
I0403 15:35:06.514475 15564 net.cpp:425] loss1/classifier_plantvillage_loss1/classifier_plantvillage_0_split <- loss1/classifier_plantvillage
I0403 15:35:06.514494 15564 net.cpp:399] loss1/classifier_plantvillage_loss1/classifier_plantvillage_0_split -> loss1/classifier_plantvillage_loss1/classifier_plantvillage_0_split_0
I0403 15:35:06.514515 15564 net.cpp:399] loss1/classifier_plantvillage_loss1/classifier_plantvillage_0_split -> loss1/classifier_plantvillage_loss1/classifier_plantvillage_0_split_1
I0403 15:35:06.514535 15564 net.cpp:399] loss1/classifier_plantvillage_loss1/classifier_plantvillage_0_split -> loss1/classifier_plantvillage_loss1/classifier_plantvillage_0_split_2
I0403 15:35:06.514605 15564 net.cpp:141] Setting up loss1/classifier_plantvillage_loss1/classifier_plantvillage_0_split
I0403 15:35:06.514628 15564 net.cpp:148] Top shape: 24 38 (912)
I0403 15:35:06.514643 15564 net.cpp:148] Top shape: 24 38 (912)
I0403 15:35:06.514658 15564 net.cpp:148] Top shape: 24 38 (912)
I0403 15:35:06.514672 15564 net.cpp:156] Memory required for data: 946203936
I0403 15:35:06.514685 15564 layer_factory.hpp:77] Creating layer inception_4b/1x1
I0403 15:35:06.514708 15564 net.cpp:91] Creating Layer inception_4b/1x1
I0403 15:35:06.514741 15564 net.cpp:425] inception_4b/1x1 <- inception_4a/output_inception_4a/output_0_split_1
I0403 15:35:06.514761 15564 net.cpp:399] inception_4b/1x1 -> inception_4b/1x1
I0403 15:35:06.516446 15564 net.cpp:141] Setting up inception_4b/1x1
I0403 15:35:06.516476 15564 net.cpp:148] Top shape: 24 160 14 14 (752640)
I0403 15:35:06.516491 15564 net.cpp:156] Memory required for data: 949214496
I0403 15:35:06.516510 15564 layer_factory.hpp:77] Creating layer inception_4b/relu_1x1
I0403 15:35:06.516531 15564 net.cpp:91] Creating Layer inception_4b/relu_1x1
I0403 15:35:06.516553 15564 net.cpp:425] inception_4b/relu_1x1 <- inception_4b/1x1
I0403 15:35:06.516571 15564 net.cpp:386] inception_4b/relu_1x1 -> inception_4b/1x1 (in-place)
I0403 15:35:06.516755 15564 net.cpp:141] Setting up inception_4b/relu_1x1
I0403 15:35:06.516780 15564 net.cpp:148] Top shape: 24 160 14 14 (752640)
I0403 15:35:06.516798 15564 net.cpp:156] Memory required for data: 952225056
I0403 15:35:06.516813 15564 layer_factory.hpp:77] Creating layer inception_4b/3x3_reduce
I0403 15:35:06.516832 15564 net.cpp:91] Creating Layer inception_4b/3x3_reduce
I0403 15:35:06.516849 15564 net.cpp:425] inception_4b/3x3_reduce <- inception_4a/output_inception_4a/output_0_split_2
I0403 15:35:06.516870 15564 net.cpp:399] inception_4b/3x3_reduce -> inception_4b/3x3_reduce
I0403 15:35:06.518244 15564 net.cpp:141] Setting up inception_4b/3x3_reduce
I0403 15:35:06.518271 15564 net.cpp:148] Top shape: 24 112 14 14 (526848)
I0403 15:35:06.518287 15564 net.cpp:156] Memory required for data: 954332448
I0403 15:35:06.518306 15564 layer_factory.hpp:77] Creating layer inception_4b/relu_3x3_reduce
I0403 15:35:06.518326 15564 net.cpp:91] Creating Layer inception_4b/relu_3x3_reduce
I0403 15:35:06.518343 15564 net.cpp:425] inception_4b/relu_3x3_reduce <- inception_4b/3x3_reduce
I0403 15:35:06.518360 15564 net.cpp:386] inception_4b/relu_3x3_reduce -> inception_4b/3x3_reduce (in-place)
I0403 15:35:06.518651 15564 net.cpp:141] Setting up inception_4b/relu_3x3_reduce
I0403 15:35:06.518677 15564 net.cpp:148] Top shape: 24 112 14 14 (526848)
I0403 15:35:06.518692 15564 net.cpp:156] Memory required for data: 956439840
I0403 15:35:06.518707 15564 layer_factory.hpp:77] Creating layer inception_4b/3x3
I0403 15:35:06.518728 15564 net.cpp:91] Creating Layer inception_4b/3x3
I0403 15:35:06.518746 15564 net.cpp:425] inception_4b/3x3 <- inception_4b/3x3_reduce
I0403 15:35:06.518767 15564 net.cpp:399] inception_4b/3x3 -> inception_4b/3x3
I0403 15:35:06.521801 15564 net.cpp:141] Setting up inception_4b/3x3
I0403 15:35:06.521831 15564 net.cpp:148] Top shape: 24 224 14 14 (1053696)
I0403 15:35:06.521847 15564 net.cpp:156] Memory required for data: 960654624
I0403 15:35:06.521863 15564 layer_factory.hpp:77] Creating layer inception_4b/relu_3x3
I0403 15:35:06.521881 15564 net.cpp:91] Creating Layer inception_4b/relu_3x3
I0403 15:35:06.521898 15564 net.cpp:425] inception_4b/relu_3x3 <- inception_4b/3x3
I0403 15:35:06.521917 15564 net.cpp:386] inception_4b/relu_3x3 -> inception_4b/3x3 (in-place)
I0403 15:35:06.522095 15564 net.cpp:141] Setting up inception_4b/relu_3x3
I0403 15:35:06.522120 15564 net.cpp:148] Top shape: 24 224 14 14 (1053696)
I0403 15:35:06.522135 15564 net.cpp:156] Memory required for data: 964869408
I0403 15:35:06.522148 15564 layer_factory.hpp:77] Creating layer inception_4b/5x5_reduce
I0403 15:35:06.522171 15564 net.cpp:91] Creating Layer inception_4b/5x5_reduce
I0403 15:35:06.522188 15564 net.cpp:425] inception_4b/5x5_reduce <- inception_4a/output_inception_4a/output_0_split_3
I0403 15:35:06.522208 15564 net.cpp:399] inception_4b/5x5_reduce -> inception_4b/5x5_reduce
I0403 15:35:06.523274 15564 net.cpp:141] Setting up inception_4b/5x5_reduce
I0403 15:35:06.523301 15564 net.cpp:148] Top shape: 24 24 14 14 (112896)
I0403 15:35:06.523316 15564 net.cpp:156] Memory required for data: 965320992
I0403 15:35:06.523334 15564 layer_factory.hpp:77] Creating layer inception_4b/relu_5x5_reduce
I0403 15:35:06.523355 15564 net.cpp:91] Creating Layer inception_4b/relu_5x5_reduce
I0403 15:35:06.523385 15564 net.cpp:425] inception_4b/relu_5x5_reduce <- inception_4b/5x5_reduce
I0403 15:35:06.523403 15564 net.cpp:386] inception_4b/relu_5x5_reduce -> inception_4b/5x5_reduce (in-place)
I0403 15:35:06.523591 15564 net.cpp:141] Setting up inception_4b/relu_5x5_reduce
I0403 15:35:06.523617 15564 net.cpp:148] Top shape: 24 24 14 14 (112896)
I0403 15:35:06.523632 15564 net.cpp:156] Memory required for data: 965772576
I0403 15:35:06.523646 15564 layer_factory.hpp:77] Creating layer inception_4b/5x5
I0403 15:35:06.523668 15564 net.cpp:91] Creating Layer inception_4b/5x5
I0403 15:35:06.523684 15564 net.cpp:425] inception_4b/5x5 <- inception_4b/5x5_reduce
I0403 15:35:06.523704 15564 net.cpp:399] inception_4b/5x5 -> inception_4b/5x5
I0403 15:35:06.524935 15564 net.cpp:141] Setting up inception_4b/5x5
I0403 15:35:06.524962 15564 net.cpp:148] Top shape: 24 64 14 14 (301056)
I0403 15:35:06.524977 15564 net.cpp:156] Memory required for data: 966976800
I0403 15:35:06.524996 15564 layer_factory.hpp:77] Creating layer inception_4b/relu_5x5
I0403 15:35:06.525015 15564 net.cpp:91] Creating Layer inception_4b/relu_5x5
I0403 15:35:06.525032 15564 net.cpp:425] inception_4b/relu_5x5 <- inception_4b/5x5
I0403 15:35:06.525049 15564 net.cpp:386] inception_4b/relu_5x5 -> inception_4b/5x5 (in-place)
I0403 15:35:06.525331 15564 net.cpp:141] Setting up inception_4b/relu_5x5
I0403 15:35:06.525357 15564 net.cpp:148] Top shape: 24 64 14 14 (301056)
I0403 15:35:06.525370 15564 net.cpp:156] Memory required for data: 968181024
I0403 15:35:06.525385 15564 layer_factory.hpp:77] Creating layer inception_4b/pool
I0403 15:35:06.525403 15564 net.cpp:91] Creating Layer inception_4b/pool
I0403 15:35:06.525418 15564 net.cpp:425] inception_4b/pool <- inception_4a/output_inception_4a/output_0_split_4
I0403 15:35:06.525439 15564 net.cpp:399] inception_4b/pool -> inception_4b/pool
I0403 15:35:06.525504 15564 net.cpp:141] Setting up inception_4b/pool
I0403 15:35:06.525528 15564 net.cpp:148] Top shape: 24 512 14 14 (2408448)
I0403 15:35:06.525547 15564 net.cpp:156] Memory required for data: 977814816
I0403 15:35:06.525563 15564 layer_factory.hpp:77] Creating layer inception_4b/pool_proj
I0403 15:35:06.525586 15564 net.cpp:91] Creating Layer inception_4b/pool_proj
I0403 15:35:06.525604 15564 net.cpp:425] inception_4b/pool_proj <- inception_4b/pool
I0403 15:35:06.525622 15564 net.cpp:399] inception_4b/pool_proj -> inception_4b/pool_proj
I0403 15:35:06.526815 15564 net.cpp:141] Setting up inception_4b/pool_proj
I0403 15:35:06.526842 15564 net.cpp:148] Top shape: 24 64 14 14 (301056)
I0403 15:35:06.526857 15564 net.cpp:156] Memory required for data: 979019040
I0403 15:35:06.526875 15564 layer_factory.hpp:77] Creating layer inception_4b/relu_pool_proj
I0403 15:35:06.526895 15564 net.cpp:91] Creating Layer inception_4b/relu_pool_proj
I0403 15:35:06.526911 15564 net.cpp:425] inception_4b/relu_pool_proj <- inception_4b/pool_proj
I0403 15:35:06.526928 15564 net.cpp:386] inception_4b/relu_pool_proj -> inception_4b/pool_proj (in-place)
I0403 15:35:06.527110 15564 net.cpp:141] Setting up inception_4b/relu_pool_proj
I0403 15:35:06.527137 15564 net.cpp:148] Top shape: 24 64 14 14 (301056)
I0403 15:35:06.527153 15564 net.cpp:156] Memory required for data: 980223264
I0403 15:35:06.527166 15564 layer_factory.hpp:77] Creating layer inception_4b/output
I0403 15:35:06.527184 15564 net.cpp:91] Creating Layer inception_4b/output
I0403 15:35:06.527199 15564 net.cpp:425] inception_4b/output <- inception_4b/1x1
I0403 15:35:06.527215 15564 net.cpp:425] inception_4b/output <- inception_4b/3x3
I0403 15:35:06.527230 15564 net.cpp:425] inception_4b/output <- inception_4b/5x5
I0403 15:35:06.527245 15564 net.cpp:425] inception_4b/output <- inception_4b/pool_proj
I0403 15:35:06.527261 15564 net.cpp:399] inception_4b/output -> inception_4b/output
I0403 15:35:06.527307 15564 net.cpp:141] Setting up inception_4b/output
I0403 15:35:06.527329 15564 net.cpp:148] Top shape: 24 512 14 14 (2408448)
I0403 15:35:06.527344 15564 net.cpp:156] Memory required for data: 989857056
I0403 15:35:06.527372 15564 layer_factory.hpp:77] Creating layer inception_4b/output_inception_4b/output_0_split
I0403 15:35:06.527393 15564 net.cpp:91] Creating Layer inception_4b/output_inception_4b/output_0_split
I0403 15:35:06.527408 15564 net.cpp:425] inception_4b/output_inception_4b/output_0_split <- inception_4b/output
I0403 15:35:06.527426 15564 net.cpp:399] inception_4b/output_inception_4b/output_0_split -> inception_4b/output_inception_4b/output_0_split_0
I0403 15:35:06.527446 15564 net.cpp:399] inception_4b/output_inception_4b/output_0_split -> inception_4b/output_inception_4b/output_0_split_1
I0403 15:35:06.527465 15564 net.cpp:399] inception_4b/output_inception_4b/output_0_split -> inception_4b/output_inception_4b/output_0_split_2
I0403 15:35:06.527485 15564 net.cpp:399] inception_4b/output_inception_4b/output_0_split -> inception_4b/output_inception_4b/output_0_split_3
I0403 15:35:06.527575 15564 net.cpp:141] Setting up inception_4b/output_inception_4b/output_0_split
I0403 15:35:06.527598 15564 net.cpp:148] Top shape: 24 512 14 14 (2408448)
I0403 15:35:06.527613 15564 net.cpp:148] Top shape: 24 512 14 14 (2408448)
I0403 15:35:06.527628 15564 net.cpp:148] Top shape: 24 512 14 14 (2408448)
I0403 15:35:06.527643 15564 net.cpp:148] Top shape: 24 512 14 14 (2408448)
I0403 15:35:06.527657 15564 net.cpp:156] Memory required for data: 1028392224
I0403 15:35:06.527670 15564 layer_factory.hpp:77] Creating layer inception_4c/1x1
I0403 15:35:06.527691 15564 net.cpp:91] Creating Layer inception_4c/1x1
I0403 15:35:06.527709 15564 net.cpp:425] inception_4c/1x1 <- inception_4b/output_inception_4b/output_0_split_0
I0403 15:35:06.527729 15564 net.cpp:399] inception_4c/1x1 -> inception_4c/1x1
I0403 15:35:06.529167 15564 net.cpp:141] Setting up inception_4c/1x1
I0403 15:35:06.529198 15564 net.cpp:148] Top shape: 24 128 14 14 (602112)
I0403 15:35:06.529214 15564 net.cpp:156] Memory required for data: 1030800672
I0403 15:35:06.529232 15564 layer_factory.hpp:77] Creating layer inception_4c/relu_1x1
I0403 15:35:06.529258 15564 net.cpp:91] Creating Layer inception_4c/relu_1x1
I0403 15:35:06.529274 15564 net.cpp:425] inception_4c/relu_1x1 <- inception_4c/1x1
I0403 15:35:06.529290 15564 net.cpp:386] inception_4c/relu_1x1 -> inception_4c/1x1 (in-place)
I0403 15:35:06.529479 15564 net.cpp:141] Setting up inception_4c/relu_1x1
I0403 15:35:06.529503 15564 net.cpp:148] Top shape: 24 128 14 14 (602112)
I0403 15:35:06.529518 15564 net.cpp:156] Memory required for data: 1033209120
I0403 15:35:06.529532 15564 layer_factory.hpp:77] Creating layer inception_4c/3x3_reduce
I0403 15:35:06.529568 15564 net.cpp:91] Creating Layer inception_4c/3x3_reduce
I0403 15:35:06.529585 15564 net.cpp:425] inception_4c/3x3_reduce <- inception_4b/output_inception_4b/output_0_split_1
I0403 15:35:06.529611 15564 net.cpp:399] inception_4c/3x3_reduce -> inception_4c/3x3_reduce
I0403 15:35:06.531566 15564 net.cpp:141] Setting up inception_4c/3x3_reduce
I0403 15:35:06.531594 15564 net.cpp:148] Top shape: 24 128 14 14 (602112)
I0403 15:35:06.531610 15564 net.cpp:156] Memory required for data: 1035617568
I0403 15:35:06.531626 15564 layer_factory.hpp:77] Creating layer inception_4c/relu_3x3_reduce
I0403 15:35:06.531646 15564 net.cpp:91] Creating Layer inception_4c/relu_3x3_reduce
I0403 15:35:06.531662 15564 net.cpp:425] inception_4c/relu_3x3_reduce <- inception_4c/3x3_reduce
I0403 15:35:06.531679 15564 net.cpp:386] inception_4c/relu_3x3_reduce -> inception_4c/3x3_reduce (in-place)
I0403 15:35:06.531961 15564 net.cpp:141] Setting up inception_4c/relu_3x3_reduce
I0403 15:35:06.531987 15564 net.cpp:148] Top shape: 24 128 14 14 (602112)
I0403 15:35:06.532001 15564 net.cpp:156] Memory required for data: 1038026016
I0403 15:35:06.532016 15564 layer_factory.hpp:77] Creating layer inception_4c/3x3
I0403 15:35:06.532037 15564 net.cpp:91] Creating Layer inception_4c/3x3
I0403 15:35:06.532054 15564 net.cpp:425] inception_4c/3x3 <- inception_4c/3x3_reduce
I0403 15:35:06.532076 15564 net.cpp:399] inception_4c/3x3 -> inception_4c/3x3
I0403 15:35:06.535650 15564 net.cpp:141] Setting up inception_4c/3x3
I0403 15:35:06.535691 15564 net.cpp:148] Top shape: 24 256 14 14 (1204224)
I0403 15:35:06.535706 15564 net.cpp:156] Memory required for data: 1042842912
I0403 15:35:06.535737 15564 layer_factory.hpp:77] Creating layer inception_4c/relu_3x3
I0403 15:35:06.535759 15564 net.cpp:91] Creating Layer inception_4c/relu_3x3
I0403 15:35:06.535776 15564 net.cpp:425] inception_4c/relu_3x3 <- inception_4c/3x3
I0403 15:35:06.535794 15564 net.cpp:386] inception_4c/relu_3x3 -> inception_4c/3x3 (in-place)
I0403 15:35:06.535969 15564 net.cpp:141] Setting up inception_4c/relu_3x3
I0403 15:35:06.535992 15564 net.cpp:148] Top shape: 24 256 14 14 (1204224)
I0403 15:35:06.536006 15564 net.cpp:156] Memory required for data: 1047659808
I0403 15:35:06.536020 15564 layer_factory.hpp:77] Creating layer inception_4c/5x5_reduce
I0403 15:35:06.536041 15564 net.cpp:91] Creating Layer inception_4c/5x5_reduce
I0403 15:35:06.536056 15564 net.cpp:425] inception_4c/5x5_reduce <- inception_4b/output_inception_4b/output_0_split_2
I0403 15:35:06.536077 15564 net.cpp:399] inception_4c/5x5_reduce -> inception_4c/5x5_reduce
I0403 15:35:06.537158 15564 net.cpp:141] Setting up inception_4c/5x5_reduce
I0403 15:35:06.537184 15564 net.cpp:148] Top shape: 24 24 14 14 (112896)
I0403 15:35:06.537199 15564 net.cpp:156] Memory required for data: 1048111392
I0403 15:35:06.537215 15564 layer_factory.hpp:77] Creating layer inception_4c/relu_5x5_reduce
I0403 15:35:06.537235 15564 net.cpp:91] Creating Layer inception_4c/relu_5x5_reduce
I0403 15:35:06.537250 15564 net.cpp:425] inception_4c/relu_5x5_reduce <- inception_4c/5x5_reduce
I0403 15:35:06.537266 15564 net.cpp:386] inception_4c/relu_5x5_reduce -> inception_4c/5x5_reduce (in-place)
I0403 15:35:06.537444 15564 net.cpp:141] Setting up inception_4c/relu_5x5_reduce
I0403 15:35:06.537468 15564 net.cpp:148] Top shape: 24 24 14 14 (112896)
I0403 15:35:06.537482 15564 net.cpp:156] Memory required for data: 1048562976
I0403 15:35:06.537497 15564 layer_factory.hpp:77] Creating layer inception_4c/5x5
I0403 15:35:06.537518 15564 net.cpp:91] Creating Layer inception_4c/5x5
I0403 15:35:06.537539 15564 net.cpp:425] inception_4c/5x5 <- inception_4c/5x5_reduce
I0403 15:35:06.537559 15564 net.cpp:399] inception_4c/5x5 -> inception_4c/5x5
I0403 15:35:06.538769 15564 net.cpp:141] Setting up inception_4c/5x5
I0403 15:35:06.538799 15564 net.cpp:148] Top shape: 24 64 14 14 (301056)
I0403 15:35:06.538813 15564 net.cpp:156] Memory required for data: 1049767200
I0403 15:35:06.538830 15564 layer_factory.hpp:77] Creating layer inception_4c/relu_5x5
I0403 15:35:06.538848 15564 net.cpp:91] Creating Layer inception_4c/relu_5x5
I0403 15:35:06.538863 15564 net.cpp:425] inception_4c/relu_5x5 <- inception_4c/5x5
I0403 15:35:06.538879 15564 net.cpp:386] inception_4c/relu_5x5 -> inception_4c/5x5 (in-place)
I0403 15:35:06.539158 15564 net.cpp:141] Setting up inception_4c/relu_5x5
I0403 15:35:06.539186 15564 net.cpp:148] Top shape: 24 64 14 14 (301056)
I0403 15:35:06.539201 15564 net.cpp:156] Memory required for data: 1050971424
I0403 15:35:06.539213 15564 layer_factory.hpp:77] Creating layer inception_4c/pool
I0403 15:35:06.539230 15564 net.cpp:91] Creating Layer inception_4c/pool
I0403 15:35:06.539245 15564 net.cpp:425] inception_4c/pool <- inception_4b/output_inception_4b/output_0_split_3
I0403 15:35:06.539263 15564 net.cpp:399] inception_4c/pool -> inception_4c/pool
I0403 15:35:06.539325 15564 net.cpp:141] Setting up inception_4c/pool
I0403 15:35:06.539348 15564 net.cpp:148] Top shape: 24 512 14 14 (2408448)
I0403 15:35:06.539362 15564 net.cpp:156] Memory required for data: 1060605216
I0403 15:35:06.539376 15564 layer_factory.hpp:77] Creating layer inception_4c/pool_proj
I0403 15:35:06.539397 15564 net.cpp:91] Creating Layer inception_4c/pool_proj
I0403 15:35:06.539414 15564 net.cpp:425] inception_4c/pool_proj <- inception_4c/pool
I0403 15:35:06.539433 15564 net.cpp:399] inception_4c/pool_proj -> inception_4c/pool_proj
I0403 15:35:06.540621 15564 net.cpp:141] Setting up inception_4c/pool_proj
I0403 15:35:06.540647 15564 net.cpp:148] Top shape: 24 64 14 14 (301056)
I0403 15:35:06.540675 15564 net.cpp:156] Memory required for data: 1061809440
I0403 15:35:06.540694 15564 layer_factory.hpp:77] Creating layer inception_4c/relu_pool_proj
I0403 15:35:06.540715 15564 net.cpp:91] Creating Layer inception_4c/relu_pool_proj
I0403 15:35:06.540731 15564 net.cpp:425] inception_4c/relu_pool_proj <- inception_4c/pool_proj
I0403 15:35:06.540748 15564 net.cpp:386] inception_4c/relu_pool_proj -> inception_4c/pool_proj (in-place)
I0403 15:35:06.540922 15564 net.cpp:141] Setting up inception_4c/relu_pool_proj
I0403 15:35:06.540948 15564 net.cpp:148] Top shape: 24 64 14 14 (301056)
I0403 15:35:06.540963 15564 net.cpp:156] Memory required for data: 1063013664
I0403 15:35:06.540977 15564 layer_factory.hpp:77] Creating layer inception_4c/output
I0403 15:35:06.540993 15564 net.cpp:91] Creating Layer inception_4c/output
I0403 15:35:06.541007 15564 net.cpp:425] inception_4c/output <- inception_4c/1x1
I0403 15:35:06.541023 15564 net.cpp:425] inception_4c/output <- inception_4c/3x3
I0403 15:35:06.541038 15564 net.cpp:425] inception_4c/output <- inception_4c/5x5
I0403 15:35:06.541054 15564 net.cpp:425] inception_4c/output <- inception_4c/pool_proj
I0403 15:35:06.541069 15564 net.cpp:399] inception_4c/output -> inception_4c/output
I0403 15:35:06.541115 15564 net.cpp:141] Setting up inception_4c/output
I0403 15:35:06.541137 15564 net.cpp:148] Top shape: 24 512 14 14 (2408448)
I0403 15:35:06.541151 15564 net.cpp:156] Memory required for data: 1072647456
I0403 15:35:06.541164 15564 layer_factory.hpp:77] Creating layer inception_4c/output_inception_4c/output_0_split
I0403 15:35:06.541180 15564 net.cpp:91] Creating Layer inception_4c/output_inception_4c/output_0_split
I0403 15:35:06.541198 15564 net.cpp:425] inception_4c/output_inception_4c/output_0_split <- inception_4c/output
I0403 15:35:06.541214 15564 net.cpp:399] inception_4c/output_inception_4c/output_0_split -> inception_4c/output_inception_4c/output_0_split_0
I0403 15:35:06.541234 15564 net.cpp:399] inception_4c/output_inception_4c/output_0_split -> inception_4c/output_inception_4c/output_0_split_1
I0403 15:35:06.541252 15564 net.cpp:399] inception_4c/output_inception_4c/output_0_split -> inception_4c/output_inception_4c/output_0_split_2
I0403 15:35:06.541271 15564 net.cpp:399] inception_4c/output_inception_4c/output_0_split -> inception_4c/output_inception_4c/output_0_split_3
I0403 15:35:06.541355 15564 net.cpp:141] Setting up inception_4c/output_inception_4c/output_0_split
I0403 15:35:06.541378 15564 net.cpp:148] Top shape: 24 512 14 14 (2408448)
I0403 15:35:06.541393 15564 net.cpp:148] Top shape: 24 512 14 14 (2408448)
I0403 15:35:06.541407 15564 net.cpp:148] Top shape: 24 512 14 14 (2408448)
I0403 15:35:06.541421 15564 net.cpp:148] Top shape: 24 512 14 14 (2408448)
I0403 15:35:06.541435 15564 net.cpp:156] Memory required for data: 1111182624
I0403 15:35:06.541447 15564 layer_factory.hpp:77] Creating layer inception_4d/1x1
I0403 15:35:06.541470 15564 net.cpp:91] Creating Layer inception_4d/1x1
I0403 15:35:06.541486 15564 net.cpp:425] inception_4d/1x1 <- inception_4c/output_inception_4c/output_0_split_0
I0403 15:35:06.541507 15564 net.cpp:399] inception_4d/1x1 -> inception_4d/1x1
I0403 15:35:06.542847 15564 net.cpp:141] Setting up inception_4d/1x1
I0403 15:35:06.542873 15564 net.cpp:148] Top shape: 24 112 14 14 (526848)
I0403 15:35:06.542888 15564 net.cpp:156] Memory required for data: 1113290016
I0403 15:35:06.542906 15564 layer_factory.hpp:77] Creating layer inception_4d/relu_1x1
I0403 15:35:06.542922 15564 net.cpp:91] Creating Layer inception_4d/relu_1x1
I0403 15:35:06.542937 15564 net.cpp:425] inception_4d/relu_1x1 <- inception_4d/1x1
I0403 15:35:06.542955 15564 net.cpp:386] inception_4d/relu_1x1 -> inception_4d/1x1 (in-place)
I0403 15:35:06.543130 15564 net.cpp:141] Setting up inception_4d/relu_1x1
I0403 15:35:06.543154 15564 net.cpp:148] Top shape: 24 112 14 14 (526848)
I0403 15:35:06.543169 15564 net.cpp:156] Memory required for data: 1115397408
I0403 15:35:06.543182 15564 layer_factory.hpp:77] Creating layer inception_4d/3x3_reduce
I0403 15:35:06.543218 15564 net.cpp:91] Creating Layer inception_4d/3x3_reduce
I0403 15:35:06.543236 15564 net.cpp:425] inception_4d/3x3_reduce <- inception_4c/output_inception_4c/output_0_split_1
I0403 15:35:06.543256 15564 net.cpp:399] inception_4d/3x3_reduce -> inception_4d/3x3_reduce
I0403 15:35:06.544724 15564 net.cpp:141] Setting up inception_4d/3x3_reduce
I0403 15:35:06.544754 15564 net.cpp:148] Top shape: 24 144 14 14 (677376)
I0403 15:35:06.544770 15564 net.cpp:156] Memory required for data: 1118106912
I0403 15:35:06.544786 15564 layer_factory.hpp:77] Creating layer inception_4d/relu_3x3_reduce
I0403 15:35:06.544803 15564 net.cpp:91] Creating Layer inception_4d/relu_3x3_reduce
I0403 15:35:06.544818 15564 net.cpp:425] inception_4d/relu_3x3_reduce <- inception_4d/3x3_reduce
I0403 15:35:06.544837 15564 net.cpp:386] inception_4d/relu_3x3_reduce -> inception_4d/3x3_reduce (in-place)
I0403 15:35:06.545120 15564 net.cpp:141] Setting up inception_4d/relu_3x3_reduce
I0403 15:35:06.545147 15564 net.cpp:148] Top shape: 24 144 14 14 (677376)
I0403 15:35:06.545162 15564 net.cpp:156] Memory required for data: 1120816416
I0403 15:35:06.545177 15564 layer_factory.hpp:77] Creating layer inception_4d/3x3
I0403 15:35:06.545199 15564 net.cpp:91] Creating Layer inception_4d/3x3
I0403 15:35:06.545215 15564 net.cpp:425] inception_4d/3x3 <- inception_4d/3x3_reduce
I0403 15:35:06.545233 15564 net.cpp:399] inception_4d/3x3 -> inception_4d/3x3
I0403 15:35:06.549378 15564 net.cpp:141] Setting up inception_4d/3x3
I0403 15:35:06.549407 15564 net.cpp:148] Top shape: 24 288 14 14 (1354752)
I0403 15:35:06.549422 15564 net.cpp:156] Memory required for data: 1126235424
I0403 15:35:06.549439 15564 layer_factory.hpp:77] Creating layer inception_4d/relu_3x3
I0403 15:35:06.549456 15564 net.cpp:91] Creating Layer inception_4d/relu_3x3
I0403 15:35:06.549473 15564 net.cpp:425] inception_4d/relu_3x3 <- inception_4d/3x3
I0403 15:35:06.549490 15564 net.cpp:386] inception_4d/relu_3x3 -> inception_4d/3x3 (in-place)
I0403 15:35:06.549675 15564 net.cpp:141] Setting up inception_4d/relu_3x3
I0403 15:35:06.549700 15564 net.cpp:148] Top shape: 24 288 14 14 (1354752)
I0403 15:35:06.549713 15564 net.cpp:156] Memory required for data: 1131654432
I0403 15:35:06.549726 15564 layer_factory.hpp:77] Creating layer inception_4d/5x5_reduce
I0403 15:35:06.549747 15564 net.cpp:91] Creating Layer inception_4d/5x5_reduce
I0403 15:35:06.549764 15564 net.cpp:425] inception_4d/5x5_reduce <- inception_4c/output_inception_4c/output_0_split_2
I0403 15:35:06.549785 15564 net.cpp:399] inception_4d/5x5_reduce -> inception_4d/5x5_reduce
I0403 15:35:06.550885 15564 net.cpp:141] Setting up inception_4d/5x5_reduce
I0403 15:35:06.550912 15564 net.cpp:148] Top shape: 24 32 14 14 (150528)
I0403 15:35:06.550926 15564 net.cpp:156] Memory required for data: 1132256544
I0403 15:35:06.550943 15564 layer_factory.hpp:77] Creating layer inception_4d/relu_5x5_reduce
I0403 15:35:06.550961 15564 net.cpp:91] Creating Layer inception_4d/relu_5x5_reduce
I0403 15:35:06.550977 15564 net.cpp:425] inception_4d/relu_5x5_reduce <- inception_4d/5x5_reduce
I0403 15:35:06.550995 15564 net.cpp:386] inception_4d/relu_5x5_reduce -> inception_4d/5x5_reduce (in-place)
I0403 15:35:06.551177 15564 net.cpp:141] Setting up inception_4d/relu_5x5_reduce
I0403 15:35:06.551200 15564 net.cpp:148] Top shape: 24 32 14 14 (150528)
I0403 15:35:06.551214 15564 net.cpp:156] Memory required for data: 1132858656
I0403 15:35:06.551229 15564 layer_factory.hpp:77] Creating layer inception_4d/5x5
I0403 15:35:06.551249 15564 net.cpp:91] Creating Layer inception_4d/5x5
I0403 15:35:06.551276 15564 net.cpp:425] inception_4d/5x5 <- inception_4d/5x5_reduce
I0403 15:35:06.551297 15564 net.cpp:399] inception_4d/5x5 -> inception_4d/5x5
I0403 15:35:06.552716 15564 net.cpp:141] Setting up inception_4d/5x5
I0403 15:35:06.552742 15564 net.cpp:148] Top shape: 24 64 14 14 (301056)
I0403 15:35:06.552757 15564 net.cpp:156] Memory required for data: 1134062880
I0403 15:35:06.552774 15564 layer_factory.hpp:77] Creating layer inception_4d/relu_5x5
I0403 15:35:06.552809 15564 net.cpp:91] Creating Layer inception_4d/relu_5x5
I0403 15:35:06.552826 15564 net.cpp:425] inception_4d/relu_5x5 <- inception_4d/5x5
I0403 15:35:06.552844 15564 net.cpp:386] inception_4d/relu_5x5 -> inception_4d/5x5 (in-place)
I0403 15:35:06.553135 15564 net.cpp:141] Setting up inception_4d/relu_5x5
I0403 15:35:06.553161 15564 net.cpp:148] Top shape: 24 64 14 14 (301056)
I0403 15:35:06.553175 15564 net.cpp:156] Memory required for data: 1135267104
I0403 15:35:06.553189 15564 layer_factory.hpp:77] Creating layer inception_4d/pool
I0403 15:35:06.553208 15564 net.cpp:91] Creating Layer inception_4d/pool
I0403 15:35:06.553225 15564 net.cpp:425] inception_4d/pool <- inception_4c/output_inception_4c/output_0_split_3
I0403 15:35:06.553241 15564 net.cpp:399] inception_4d/pool -> inception_4d/pool
I0403 15:35:06.553306 15564 net.cpp:141] Setting up inception_4d/pool
I0403 15:35:06.553328 15564 net.cpp:148] Top shape: 24 512 14 14 (2408448)
I0403 15:35:06.553342 15564 net.cpp:156] Memory required for data: 1144900896
I0403 15:35:06.553356 15564 layer_factory.hpp:77] Creating layer inception_4d/pool_proj
I0403 15:35:06.553376 15564 net.cpp:91] Creating Layer inception_4d/pool_proj
I0403 15:35:06.553393 15564 net.cpp:425] inception_4d/pool_proj <- inception_4d/pool
I0403 15:35:06.553413 15564 net.cpp:399] inception_4d/pool_proj -> inception_4d/pool_proj
I0403 15:35:06.555184 15564 net.cpp:141] Setting up inception_4d/pool_proj
I0403 15:35:06.555212 15564 net.cpp:148] Top shape: 24 64 14 14 (301056)
I0403 15:35:06.555236 15564 net.cpp:156] Memory required for data: 1146105120
I0403 15:35:06.555254 15564 layer_factory.hpp:77] Creating layer inception_4d/relu_pool_proj
I0403 15:35:06.555272 15564 net.cpp:91] Creating Layer inception_4d/relu_pool_proj
I0403 15:35:06.555291 15564 net.cpp:425] inception_4d/relu_pool_proj <- inception_4d/pool_proj
I0403 15:35:06.555308 15564 net.cpp:386] inception_4d/relu_pool_proj -> inception_4d/pool_proj (in-place)
I0403 15:35:06.555492 15564 net.cpp:141] Setting up inception_4d/relu_pool_proj
I0403 15:35:06.555516 15564 net.cpp:148] Top shape: 24 64 14 14 (301056)
I0403 15:35:06.555531 15564 net.cpp:156] Memory required for data: 1147309344
I0403 15:35:06.555557 15564 layer_factory.hpp:77] Creating layer inception_4d/output
I0403 15:35:06.555577 15564 net.cpp:91] Creating Layer inception_4d/output
I0403 15:35:06.555593 15564 net.cpp:425] inception_4d/output <- inception_4d/1x1
I0403 15:35:06.555610 15564 net.cpp:425] inception_4d/output <- inception_4d/3x3
I0403 15:35:06.555627 15564 net.cpp:425] inception_4d/output <- inception_4d/5x5
I0403 15:35:06.555642 15564 net.cpp:425] inception_4d/output <- inception_4d/pool_proj
I0403 15:35:06.555660 15564 net.cpp:399] inception_4d/output -> inception_4d/output
I0403 15:35:06.555707 15564 net.cpp:141] Setting up inception_4d/output
I0403 15:35:06.555732 15564 net.cpp:148] Top shape: 24 528 14 14 (2483712)
I0403 15:35:06.555745 15564 net.cpp:156] Memory required for data: 1157244192
I0403 15:35:06.555758 15564 layer_factory.hpp:77] Creating layer inception_4d/output_inception_4d/output_0_split
I0403 15:35:06.555775 15564 net.cpp:91] Creating Layer inception_4d/output_inception_4d/output_0_split
I0403 15:35:06.555790 15564 net.cpp:425] inception_4d/output_inception_4d/output_0_split <- inception_4d/output
I0403 15:35:06.555809 15564 net.cpp:399] inception_4d/output_inception_4d/output_0_split -> inception_4d/output_inception_4d/output_0_split_0
I0403 15:35:06.555830 15564 net.cpp:399] inception_4d/output_inception_4d/output_0_split -> inception_4d/output_inception_4d/output_0_split_1
I0403 15:35:06.555850 15564 net.cpp:399] inception_4d/output_inception_4d/output_0_split -> inception_4d/output_inception_4d/output_0_split_2
I0403 15:35:06.555871 15564 net.cpp:399] inception_4d/output_inception_4d/output_0_split -> inception_4d/output_inception_4d/output_0_split_3
I0403 15:35:06.555889 15564 net.cpp:399] inception_4d/output_inception_4d/output_0_split -> inception_4d/output_inception_4d/output_0_split_4
I0403 15:35:06.555995 15564 net.cpp:141] Setting up inception_4d/output_inception_4d/output_0_split
I0403 15:35:06.556030 15564 net.cpp:148] Top shape: 24 528 14 14 (2483712)
I0403 15:35:06.556047 15564 net.cpp:148] Top shape: 24 528 14 14 (2483712)
I0403 15:35:06.556062 15564 net.cpp:148] Top shape: 24 528 14 14 (2483712)
I0403 15:35:06.556077 15564 net.cpp:148] Top shape: 24 528 14 14 (2483712)
I0403 15:35:06.556092 15564 net.cpp:148] Top shape: 24 528 14 14 (2483712)
I0403 15:35:06.556103 15564 net.cpp:156] Memory required for data: 1206918432
I0403 15:35:06.556118 15564 layer_factory.hpp:77] Creating layer loss2/ave_pool
I0403 15:35:06.556134 15564 net.cpp:91] Creating Layer loss2/ave_pool
I0403 15:35:06.556150 15564 net.cpp:425] loss2/ave_pool <- inception_4d/output_inception_4d/output_0_split_0
I0403 15:35:06.556170 15564 net.cpp:399] loss2/ave_pool -> loss2/ave_pool
I0403 15:35:06.556481 15564 net.cpp:141] Setting up loss2/ave_pool
I0403 15:35:06.556507 15564 net.cpp:148] Top shape: 24 528 4 4 (202752)
I0403 15:35:06.556521 15564 net.cpp:156] Memory required for data: 1207729440
I0403 15:35:06.556540 15564 layer_factory.hpp:77] Creating layer loss2/conv
I0403 15:35:06.556573 15564 net.cpp:91] Creating Layer loss2/conv
I0403 15:35:06.556591 15564 net.cpp:425] loss2/conv <- loss2/ave_pool
I0403 15:35:06.556612 15564 net.cpp:399] loss2/conv -> loss2/conv
I0403 15:35:06.558501 15564 net.cpp:141] Setting up loss2/conv
I0403 15:35:06.558528 15564 net.cpp:148] Top shape: 24 128 4 4 (49152)
I0403 15:35:06.558548 15564 net.cpp:156] Memory required for data: 1207926048
I0403 15:35:06.558568 15564 layer_factory.hpp:77] Creating layer loss2/relu_conv
I0403 15:35:06.558588 15564 net.cpp:91] Creating Layer loss2/relu_conv
I0403 15:35:06.558605 15564 net.cpp:425] loss2/relu_conv <- loss2/conv
I0403 15:35:06.558622 15564 net.cpp:386] loss2/relu_conv -> loss2/conv (in-place)
I0403 15:35:06.558912 15564 net.cpp:141] Setting up loss2/relu_conv
I0403 15:35:06.558938 15564 net.cpp:148] Top shape: 24 128 4 4 (49152)
I0403 15:35:06.558953 15564 net.cpp:156] Memory required for data: 1208122656
I0403 15:35:06.558967 15564 layer_factory.hpp:77] Creating layer loss2/fc
I0403 15:35:06.558989 15564 net.cpp:91] Creating Layer loss2/fc
I0403 15:35:06.559005 15564 net.cpp:425] loss2/fc <- loss2/conv
I0403 15:35:06.559026 15564 net.cpp:399] loss2/fc -> loss2/fc
I0403 15:35:06.576628 15564 net.cpp:141] Setting up loss2/fc
I0403 15:35:06.576660 15564 net.cpp:148] Top shape: 24 1024 (24576)
I0403 15:35:06.576675 15564 net.cpp:156] Memory required for data: 1208220960
I0403 15:35:06.576694 15564 layer_factory.hpp:77] Creating layer loss2/relu_fc
I0403 15:35:06.576710 15564 net.cpp:91] Creating Layer loss2/relu_fc
I0403 15:35:06.576727 15564 net.cpp:425] loss2/relu_fc <- loss2/fc
I0403 15:35:06.576746 15564 net.cpp:386] loss2/relu_fc -> loss2/fc (in-place)
I0403 15:35:06.577049 15564 net.cpp:141] Setting up loss2/relu_fc
I0403 15:35:06.577074 15564 net.cpp:148] Top shape: 24 1024 (24576)
I0403 15:35:06.577088 15564 net.cpp:156] Memory required for data: 1208319264
I0403 15:35:06.577102 15564 layer_factory.hpp:77] Creating layer loss2/drop_fc
I0403 15:35:06.577119 15564 net.cpp:91] Creating Layer loss2/drop_fc
I0403 15:35:06.577134 15564 net.cpp:425] loss2/drop_fc <- loss2/fc
I0403 15:35:06.577153 15564 net.cpp:386] loss2/drop_fc -> loss2/fc (in-place)
I0403 15:35:06.577201 15564 net.cpp:141] Setting up loss2/drop_fc
I0403 15:35:06.577225 15564 net.cpp:148] Top shape: 24 1024 (24576)
I0403 15:35:06.577240 15564 net.cpp:156] Memory required for data: 1208417568
I0403 15:35:06.577253 15564 layer_factory.hpp:77] Creating layer loss2/classifier_plantvillage
I0403 15:35:06.577271 15564 net.cpp:91] Creating Layer loss2/classifier_plantvillage
I0403 15:35:06.577286 15564 net.cpp:425] loss2/classifier_plantvillage <- loss2/fc
I0403 15:35:06.577306 15564 net.cpp:399] loss2/classifier_plantvillage -> loss2/classifier_plantvillage
I0403 15:35:06.577707 15564 net.cpp:141] Setting up loss2/classifier_plantvillage
I0403 15:35:06.577730 15564 net.cpp:148] Top shape: 24 38 (912)
I0403 15:35:06.577744 15564 net.cpp:156] Memory required for data: 1208421216
I0403 15:35:06.577778 15564 layer_factory.hpp:77] Creating layer loss2/classifier_plantvillage_loss2/classifier_plantvillage_0_split
I0403 15:35:06.577800 15564 net.cpp:91] Creating Layer loss2/classifier_plantvillage_loss2/classifier_plantvillage_0_split
I0403 15:35:06.577816 15564 net.cpp:425] loss2/classifier_plantvillage_loss2/classifier_plantvillage_0_split <- loss2/classifier_plantvillage
I0403 15:35:06.577833 15564 net.cpp:399] loss2/classifier_plantvillage_loss2/classifier_plantvillage_0_split -> loss2/classifier_plantvillage_loss2/classifier_plantvillage_0_split_0
I0403 15:35:06.577855 15564 net.cpp:399] loss2/classifier_plantvillage_loss2/classifier_plantvillage_0_split -> loss2/classifier_plantvillage_loss2/classifier_plantvillage_0_split_1
I0403 15:35:06.577877 15564 net.cpp:399] loss2/classifier_plantvillage_loss2/classifier_plantvillage_0_split -> loss2/classifier_plantvillage_loss2/classifier_plantvillage_0_split_2
I0403 15:35:06.577950 15564 net.cpp:141] Setting up loss2/classifier_plantvillage_loss2/classifier_plantvillage_0_split
I0403 15:35:06.577972 15564 net.cpp:148] Top shape: 24 38 (912)
I0403 15:35:06.577987 15564 net.cpp:148] Top shape: 24 38 (912)
I0403 15:35:06.578001 15564 net.cpp:148] Top shape: 24 38 (912)
I0403 15:35:06.578013 15564 net.cpp:156] Memory required for data: 1208432160
I0403 15:35:06.578027 15564 layer_factory.hpp:77] Creating layer inception_4e/1x1
I0403 15:35:06.578047 15564 net.cpp:91] Creating Layer inception_4e/1x1
I0403 15:35:06.578063 15564 net.cpp:425] inception_4e/1x1 <- inception_4d/output_inception_4d/output_0_split_1
I0403 15:35:06.578081 15564 net.cpp:399] inception_4e/1x1 -> inception_4e/1x1
I0403 15:35:06.579849 15564 net.cpp:141] Setting up inception_4e/1x1
I0403 15:35:06.579877 15564 net.cpp:148] Top shape: 24 256 14 14 (1204224)
I0403 15:35:06.579892 15564 net.cpp:156] Memory required for data: 1213249056
I0403 15:35:06.579910 15564 layer_factory.hpp:77] Creating layer inception_4e/relu_1x1
I0403 15:35:06.579928 15564 net.cpp:91] Creating Layer inception_4e/relu_1x1
I0403 15:35:06.579943 15564 net.cpp:425] inception_4e/relu_1x1 <- inception_4e/1x1
I0403 15:35:06.579959 15564 net.cpp:386] inception_4e/relu_1x1 -> inception_4e/1x1 (in-place)
I0403 15:35:06.580246 15564 net.cpp:141] Setting up inception_4e/relu_1x1
I0403 15:35:06.580273 15564 net.cpp:148] Top shape: 24 256 14 14 (1204224)
I0403 15:35:06.580288 15564 net.cpp:156] Memory required for data: 1218065952
I0403 15:35:06.580302 15564 layer_factory.hpp:77] Creating layer inception_4e/3x3_reduce
I0403 15:35:06.580322 15564 net.cpp:91] Creating Layer inception_4e/3x3_reduce
I0403 15:35:06.580337 15564 net.cpp:425] inception_4e/3x3_reduce <- inception_4d/output_inception_4d/output_0_split_2
I0403 15:35:06.580356 15564 net.cpp:399] inception_4e/3x3_reduce -> inception_4e/3x3_reduce
I0403 15:35:06.582398 15564 net.cpp:141] Setting up inception_4e/3x3_reduce
I0403 15:35:06.582425 15564 net.cpp:148] Top shape: 24 160 14 14 (752640)
I0403 15:35:06.582440 15564 net.cpp:156] Memory required for data: 1221076512
I0403 15:35:06.582458 15564 layer_factory.hpp:77] Creating layer inception_4e/relu_3x3_reduce
I0403 15:35:06.582478 15564 net.cpp:91] Creating Layer inception_4e/relu_3x3_reduce
I0403 15:35:06.582494 15564 net.cpp:425] inception_4e/relu_3x3_reduce <- inception_4e/3x3_reduce
I0403 15:35:06.582510 15564 net.cpp:386] inception_4e/relu_3x3_reduce -> inception_4e/3x3_reduce (in-place)
I0403 15:35:06.582698 15564 net.cpp:141] Setting up inception_4e/relu_3x3_reduce
I0403 15:35:06.582725 15564 net.cpp:148] Top shape: 24 160 14 14 (752640)
I0403 15:35:06.582739 15564 net.cpp:156] Memory required for data: 1224087072
I0403 15:35:06.582753 15564 layer_factory.hpp:77] Creating layer inception_4e/3x3
I0403 15:35:06.582774 15564 net.cpp:91] Creating Layer inception_4e/3x3
I0403 15:35:06.582790 15564 net.cpp:425] inception_4e/3x3 <- inception_4e/3x3_reduce
I0403 15:35:06.582808 15564 net.cpp:399] inception_4e/3x3 -> inception_4e/3x3
I0403 15:35:06.587707 15564 net.cpp:141] Setting up inception_4e/3x3
I0403 15:35:06.587750 15564 net.cpp:148] Top shape: 24 320 14 14 (1505280)
I0403 15:35:06.587767 15564 net.cpp:156] Memory required for data: 1230108192
I0403 15:35:06.587785 15564 layer_factory.hpp:77] Creating layer inception_4e/relu_3x3
I0403 15:35:06.587802 15564 net.cpp:91] Creating Layer inception_4e/relu_3x3
I0403 15:35:06.587817 15564 net.cpp:425] inception_4e/relu_3x3 <- inception_4e/3x3
I0403 15:35:06.587833 15564 net.cpp:386] inception_4e/relu_3x3 -> inception_4e/3x3 (in-place)
I0403 15:35:06.588125 15564 net.cpp:141] Setting up inception_4e/relu_3x3
I0403 15:35:06.588150 15564 net.cpp:148] Top shape: 24 320 14 14 (1505280)
I0403 15:35:06.588165 15564 net.cpp:156] Memory required for data: 1236129312
I0403 15:35:06.588178 15564 layer_factory.hpp:77] Creating layer inception_4e/5x5_reduce
I0403 15:35:06.588201 15564 net.cpp:91] Creating Layer inception_4e/5x5_reduce
I0403 15:35:06.588217 15564 net.cpp:425] inception_4e/5x5_reduce <- inception_4d/output_inception_4d/output_0_split_3
I0403 15:35:06.588238 15564 net.cpp:399] inception_4e/5x5_reduce -> inception_4e/5x5_reduce
I0403 15:35:06.589284 15564 net.cpp:141] Setting up inception_4e/5x5_reduce
I0403 15:35:06.589310 15564 net.cpp:148] Top shape: 24 32 14 14 (150528)
I0403 15:35:06.589325 15564 net.cpp:156] Memory required for data: 1236731424
I0403 15:35:06.589342 15564 layer_factory.hpp:77] Creating layer inception_4e/relu_5x5_reduce
I0403 15:35:06.589361 15564 net.cpp:91] Creating Layer inception_4e/relu_5x5_reduce
I0403 15:35:06.589378 15564 net.cpp:425] inception_4e/relu_5x5_reduce <- inception_4e/5x5_reduce
I0403 15:35:06.589395 15564 net.cpp:386] inception_4e/relu_5x5_reduce -> inception_4e/5x5_reduce (in-place)
I0403 15:35:06.589689 15564 net.cpp:141] Setting up inception_4e/relu_5x5_reduce
I0403 15:35:06.589714 15564 net.cpp:148] Top shape: 24 32 14 14 (150528)
I0403 15:35:06.589727 15564 net.cpp:156] Memory required for data: 1237333536
I0403 15:35:06.589741 15564 layer_factory.hpp:77] Creating layer inception_4e/5x5
I0403 15:35:06.589779 15564 net.cpp:91] Creating Layer inception_4e/5x5
I0403 15:35:06.589797 15564 net.cpp:425] inception_4e/5x5 <- inception_4e/5x5_reduce
I0403 15:35:06.589818 15564 net.cpp:399] inception_4e/5x5 -> inception_4e/5x5
I0403 15:35:06.591614 15564 net.cpp:141] Setting up inception_4e/5x5
I0403 15:35:06.591640 15564 net.cpp:148] Top shape: 24 128 14 14 (602112)
I0403 15:35:06.591655 15564 net.cpp:156] Memory required for data: 1239741984
I0403 15:35:06.591672 15564 layer_factory.hpp:77] Creating layer inception_4e/relu_5x5
I0403 15:35:06.591692 15564 net.cpp:91] Creating Layer inception_4e/relu_5x5
I0403 15:35:06.591707 15564 net.cpp:425] inception_4e/relu_5x5 <- inception_4e/5x5
I0403 15:35:06.591723 15564 net.cpp:386] inception_4e/relu_5x5 -> inception_4e/5x5 (in-place)
I0403 15:35:06.591913 15564 net.cpp:141] Setting up inception_4e/relu_5x5
I0403 15:35:06.591938 15564 net.cpp:148] Top shape: 24 128 14 14 (602112)
I0403 15:35:06.591950 15564 net.cpp:156] Memory required for data: 1242150432
I0403 15:35:06.591964 15564 layer_factory.hpp:77] Creating layer inception_4e/pool
I0403 15:35:06.591982 15564 net.cpp:91] Creating Layer inception_4e/pool
I0403 15:35:06.592000 15564 net.cpp:425] inception_4e/pool <- inception_4d/output_inception_4d/output_0_split_4
I0403 15:35:06.592016 15564 net.cpp:399] inception_4e/pool -> inception_4e/pool
I0403 15:35:06.592084 15564 net.cpp:141] Setting up inception_4e/pool
I0403 15:35:06.592108 15564 net.cpp:148] Top shape: 24 528 14 14 (2483712)
I0403 15:35:06.592120 15564 net.cpp:156] Memory required for data: 1252085280
I0403 15:35:06.592133 15564 layer_factory.hpp:77] Creating layer inception_4e/pool_proj
I0403 15:35:06.592154 15564 net.cpp:91] Creating Layer inception_4e/pool_proj
I0403 15:35:06.592170 15564 net.cpp:425] inception_4e/pool_proj <- inception_4e/pool
I0403 15:35:06.592192 15564 net.cpp:399] inception_4e/pool_proj -> inception_4e/pool_proj
I0403 15:35:06.593657 15564 net.cpp:141] Setting up inception_4e/pool_proj
I0403 15:35:06.593683 15564 net.cpp:148] Top shape: 24 128 14 14 (602112)
I0403 15:35:06.593711 15564 net.cpp:156] Memory required for data: 1254493728
I0403 15:35:06.593730 15564 layer_factory.hpp:77] Creating layer inception_4e/relu_pool_proj
I0403 15:35:06.593750 15564 net.cpp:91] Creating Layer inception_4e/relu_pool_proj
I0403 15:35:06.593767 15564 net.cpp:425] inception_4e/relu_pool_proj <- inception_4e/pool_proj
I0403 15:35:06.593783 15564 net.cpp:386] inception_4e/relu_pool_proj -> inception_4e/pool_proj (in-place)
I0403 15:35:06.594068 15564 net.cpp:141] Setting up inception_4e/relu_pool_proj
I0403 15:35:06.594092 15564 net.cpp:148] Top shape: 24 128 14 14 (602112)
I0403 15:35:06.594106 15564 net.cpp:156] Memory required for data: 1256902176
I0403 15:35:06.594120 15564 layer_factory.hpp:77] Creating layer inception_4e/output
I0403 15:35:06.594136 15564 net.cpp:91] Creating Layer inception_4e/output
I0403 15:35:06.594151 15564 net.cpp:425] inception_4e/output <- inception_4e/1x1
I0403 15:35:06.594166 15564 net.cpp:425] inception_4e/output <- inception_4e/3x3
I0403 15:35:06.594182 15564 net.cpp:425] inception_4e/output <- inception_4e/5x5
I0403 15:35:06.594195 15564 net.cpp:425] inception_4e/output <- inception_4e/pool_proj
I0403 15:35:06.594214 15564 net.cpp:399] inception_4e/output -> inception_4e/output
I0403 15:35:06.594261 15564 net.cpp:141] Setting up inception_4e/output
I0403 15:35:06.594286 15564 net.cpp:148] Top shape: 24 832 14 14 (3913728)
I0403 15:35:06.594301 15564 net.cpp:156] Memory required for data: 1272557088
I0403 15:35:06.594315 15564 layer_factory.hpp:77] Creating layer pool4/3x3_s2
I0403 15:35:06.594331 15564 net.cpp:91] Creating Layer pool4/3x3_s2
I0403 15:35:06.594346 15564 net.cpp:425] pool4/3x3_s2 <- inception_4e/output
I0403 15:35:06.594365 15564 net.cpp:399] pool4/3x3_s2 -> pool4/3x3_s2
I0403 15:35:06.594430 15564 net.cpp:141] Setting up pool4/3x3_s2
I0403 15:35:06.594452 15564 net.cpp:148] Top shape: 24 832 7 7 (978432)
I0403 15:35:06.594466 15564 net.cpp:156] Memory required for data: 1276470816
I0403 15:35:06.594480 15564 layer_factory.hpp:77] Creating layer pool4/3x3_s2_pool4/3x3_s2_0_split
I0403 15:35:06.594497 15564 net.cpp:91] Creating Layer pool4/3x3_s2_pool4/3x3_s2_0_split
I0403 15:35:06.594512 15564 net.cpp:425] pool4/3x3_s2_pool4/3x3_s2_0_split <- pool4/3x3_s2
I0403 15:35:06.594529 15564 net.cpp:399] pool4/3x3_s2_pool4/3x3_s2_0_split -> pool4/3x3_s2_pool4/3x3_s2_0_split_0
I0403 15:35:06.594553 15564 net.cpp:399] pool4/3x3_s2_pool4/3x3_s2_0_split -> pool4/3x3_s2_pool4/3x3_s2_0_split_1
I0403 15:35:06.594573 15564 net.cpp:399] pool4/3x3_s2_pool4/3x3_s2_0_split -> pool4/3x3_s2_pool4/3x3_s2_0_split_2
I0403 15:35:06.594593 15564 net.cpp:399] pool4/3x3_s2_pool4/3x3_s2_0_split -> pool4/3x3_s2_pool4/3x3_s2_0_split_3
I0403 15:35:06.594678 15564 net.cpp:141] Setting up pool4/3x3_s2_pool4/3x3_s2_0_split
I0403 15:35:06.594701 15564 net.cpp:148] Top shape: 24 832 7 7 (978432)
I0403 15:35:06.594717 15564 net.cpp:148] Top shape: 24 832 7 7 (978432)
I0403 15:35:06.594730 15564 net.cpp:148] Top shape: 24 832 7 7 (978432)
I0403 15:35:06.594745 15564 net.cpp:148] Top shape: 24 832 7 7 (978432)
I0403 15:35:06.594758 15564 net.cpp:156] Memory required for data: 1292125728
I0403 15:35:06.594770 15564 layer_factory.hpp:77] Creating layer inception_5a/1x1
I0403 15:35:06.594792 15564 net.cpp:91] Creating Layer inception_5a/1x1
I0403 15:35:06.594808 15564 net.cpp:425] inception_5a/1x1 <- pool4/3x3_s2_pool4/3x3_s2_0_split_0
I0403 15:35:06.594828 15564 net.cpp:399] inception_5a/1x1 -> inception_5a/1x1
I0403 15:35:06.597605 15564 net.cpp:141] Setting up inception_5a/1x1
I0403 15:35:06.597635 15564 net.cpp:148] Top shape: 24 256 7 7 (301056)
I0403 15:35:06.597650 15564 net.cpp:156] Memory required for data: 1293329952
I0403 15:35:06.597666 15564 layer_factory.hpp:77] Creating layer inception_5a/relu_1x1
I0403 15:35:06.597686 15564 net.cpp:91] Creating Layer inception_5a/relu_1x1
I0403 15:35:06.597702 15564 net.cpp:425] inception_5a/relu_1x1 <- inception_5a/1x1
I0403 15:35:06.597718 15564 net.cpp:386] inception_5a/relu_1x1 -> inception_5a/1x1 (in-place)
I0403 15:35:06.598026 15564 net.cpp:141] Setting up inception_5a/relu_1x1
I0403 15:35:06.598050 15564 net.cpp:148] Top shape: 24 256 7 7 (301056)
I0403 15:35:06.598064 15564 net.cpp:156] Memory required for data: 1294534176
I0403 15:35:06.598078 15564 layer_factory.hpp:77] Creating layer inception_5a/3x3_reduce
I0403 15:35:06.598099 15564 net.cpp:91] Creating Layer inception_5a/3x3_reduce
I0403 15:35:06.598116 15564 net.cpp:425] inception_5a/3x3_reduce <- pool4/3x3_s2_pool4/3x3_s2_0_split_1
I0403 15:35:06.598137 15564 net.cpp:399] inception_5a/3x3_reduce -> inception_5a/3x3_reduce
I0403 15:35:06.600527 15564 net.cpp:141] Setting up inception_5a/3x3_reduce
I0403 15:35:06.600560 15564 net.cpp:148] Top shape: 24 160 7 7 (188160)
I0403 15:35:06.600579 15564 net.cpp:156] Memory required for data: 1295286816
I0403 15:35:06.600596 15564 layer_factory.hpp:77] Creating layer inception_5a/relu_3x3_reduce
I0403 15:35:06.600615 15564 net.cpp:91] Creating Layer inception_5a/relu_3x3_reduce
I0403 15:35:06.600630 15564 net.cpp:425] inception_5a/relu_3x3_reduce <- inception_5a/3x3_reduce
I0403 15:35:06.600648 15564 net.cpp:386] inception_5a/relu_3x3_reduce -> inception_5a/3x3_reduce (in-place)
I0403 15:35:06.600832 15564 net.cpp:141] Setting up inception_5a/relu_3x3_reduce
I0403 15:35:06.600857 15564 net.cpp:148] Top shape: 24 160 7 7 (188160)
I0403 15:35:06.600869 15564 net.cpp:156] Memory required for data: 1296039456
I0403 15:35:06.600884 15564 layer_factory.hpp:77] Creating layer inception_5a/3x3
I0403 15:35:06.600905 15564 net.cpp:91] Creating Layer inception_5a/3x3
I0403 15:35:06.600922 15564 net.cpp:425] inception_5a/3x3 <- inception_5a/3x3_reduce
I0403 15:35:06.600942 15564 net.cpp:399] inception_5a/3x3 -> inception_5a/3x3
I0403 15:35:06.605845 15564 net.cpp:141] Setting up inception_5a/3x3
I0403 15:35:06.605873 15564 net.cpp:148] Top shape: 24 320 7 7 (376320)
I0403 15:35:06.605890 15564 net.cpp:156] Memory required for data: 1297544736
I0403 15:35:06.605906 15564 layer_factory.hpp:77] Creating layer inception_5a/relu_3x3
I0403 15:35:06.605926 15564 net.cpp:91] Creating Layer inception_5a/relu_3x3
I0403 15:35:06.605942 15564 net.cpp:425] inception_5a/relu_3x3 <- inception_5a/3x3
I0403 15:35:06.605959 15564 net.cpp:386] inception_5a/relu_3x3 -> inception_5a/3x3 (in-place)
I0403 15:35:06.606245 15564 net.cpp:141] Setting up inception_5a/relu_3x3
I0403 15:35:06.606281 15564 net.cpp:148] Top shape: 24 320 7 7 (376320)
I0403 15:35:06.606295 15564 net.cpp:156] Memory required for data: 1299050016
I0403 15:35:06.606309 15564 layer_factory.hpp:77] Creating layer inception_5a/5x5_reduce
I0403 15:35:06.606333 15564 net.cpp:91] Creating Layer inception_5a/5x5_reduce
I0403 15:35:06.606350 15564 net.cpp:425] inception_5a/5x5_reduce <- pool4/3x3_s2_pool4/3x3_s2_0_split_2
I0403 15:35:06.606371 15564 net.cpp:399] inception_5a/5x5_reduce -> inception_5a/5x5_reduce
I0403 15:35:06.607514 15564 net.cpp:141] Setting up inception_5a/5x5_reduce
I0403 15:35:06.607545 15564 net.cpp:148] Top shape: 24 32 7 7 (37632)
I0403 15:35:06.607563 15564 net.cpp:156] Memory required for data: 1299200544
I0403 15:35:06.607581 15564 layer_factory.hpp:77] Creating layer inception_5a/relu_5x5_reduce
I0403 15:35:06.607600 15564 net.cpp:91] Creating Layer inception_5a/relu_5x5_reduce
I0403 15:35:06.607617 15564 net.cpp:425] inception_5a/relu_5x5_reduce <- inception_5a/5x5_reduce
I0403 15:35:06.607635 15564 net.cpp:386] inception_5a/relu_5x5_reduce -> inception_5a/5x5_reduce (in-place)
I0403 15:35:06.607928 15564 net.cpp:141] Setting up inception_5a/relu_5x5_reduce
I0403 15:35:06.607952 15564 net.cpp:148] Top shape: 24 32 7 7 (37632)
I0403 15:35:06.607967 15564 net.cpp:156] Memory required for data: 1299351072
I0403 15:35:06.607981 15564 layer_factory.hpp:77] Creating layer inception_5a/5x5
I0403 15:35:06.608003 15564 net.cpp:91] Creating Layer inception_5a/5x5
I0403 15:35:06.608021 15564 net.cpp:425] inception_5a/5x5 <- inception_5a/5x5_reduce
I0403 15:35:06.608039 15564 net.cpp:399] inception_5a/5x5 -> inception_5a/5x5
I0403 15:35:06.609710 15564 net.cpp:141] Setting up inception_5a/5x5
I0403 15:35:06.609748 15564 net.cpp:148] Top shape: 24 128 7 7 (150528)
I0403 15:35:06.609763 15564 net.cpp:156] Memory required for data: 1299953184
I0403 15:35:06.609781 15564 layer_factory.hpp:77] Creating layer inception_5a/relu_5x5
I0403 15:35:06.609802 15564 net.cpp:91] Creating Layer inception_5a/relu_5x5
I0403 15:35:06.609817 15564 net.cpp:425] inception_5a/relu_5x5 <- inception_5a/5x5
I0403 15:35:06.609834 15564 net.cpp:386] inception_5a/relu_5x5 -> inception_5a/5x5 (in-place)
I0403 15:35:06.610018 15564 net.cpp:141] Setting up inception_5a/relu_5x5
I0403 15:35:06.610041 15564 net.cpp:148] Top shape: 24 128 7 7 (150528)
I0403 15:35:06.610056 15564 net.cpp:156] Memory required for data: 1300555296
I0403 15:35:06.610070 15564 layer_factory.hpp:77] Creating layer inception_5a/pool
I0403 15:35:06.610090 15564 net.cpp:91] Creating Layer inception_5a/pool
I0403 15:35:06.610106 15564 net.cpp:425] inception_5a/pool <- pool4/3x3_s2_pool4/3x3_s2_0_split_3
I0403 15:35:06.610123 15564 net.cpp:399] inception_5a/pool -> inception_5a/pool
I0403 15:35:06.610195 15564 net.cpp:141] Setting up inception_5a/pool
I0403 15:35:06.610219 15564 net.cpp:148] Top shape: 24 832 7 7 (978432)
I0403 15:35:06.610232 15564 net.cpp:156] Memory required for data: 1304469024
I0403 15:35:06.610246 15564 layer_factory.hpp:77] Creating layer inception_5a/pool_proj
I0403 15:35:06.610267 15564 net.cpp:91] Creating Layer inception_5a/pool_proj
I0403 15:35:06.610285 15564 net.cpp:425] inception_5a/pool_proj <- inception_5a/pool
I0403 15:35:06.610304 15564 net.cpp:399] inception_5a/pool_proj -> inception_5a/pool_proj
I0403 15:35:06.612581 15564 net.cpp:141] Setting up inception_5a/pool_proj
I0403 15:35:06.612609 15564 net.cpp:148] Top shape: 24 128 7 7 (150528)
I0403 15:35:06.612625 15564 net.cpp:156] Memory required for data: 1305071136
I0403 15:35:06.612643 15564 layer_factory.hpp:77] Creating layer inception_5a/relu_pool_proj
I0403 15:35:06.612660 15564 net.cpp:91] Creating Layer inception_5a/relu_pool_proj
I0403 15:35:06.612676 15564 net.cpp:425] inception_5a/relu_pool_proj <- inception_5a/pool_proj
I0403 15:35:06.612695 15564 net.cpp:386] inception_5a/relu_pool_proj -> inception_5a/pool_proj (in-place)
I0403 15:35:06.612988 15564 net.cpp:141] Setting up inception_5a/relu_pool_proj
I0403 15:35:06.613014 15564 net.cpp:148] Top shape: 24 128 7 7 (150528)
I0403 15:35:06.613029 15564 net.cpp:156] Memory required for data: 1305673248
I0403 15:35:06.613044 15564 layer_factory.hpp:77] Creating layer inception_5a/output
I0403 15:35:06.613060 15564 net.cpp:91] Creating Layer inception_5a/output
I0403 15:35:06.613076 15564 net.cpp:425] inception_5a/output <- inception_5a/1x1
I0403 15:35:06.613092 15564 net.cpp:425] inception_5a/output <- inception_5a/3x3
I0403 15:35:06.613108 15564 net.cpp:425] inception_5a/output <- inception_5a/5x5
I0403 15:35:06.613124 15564 net.cpp:425] inception_5a/output <- inception_5a/pool_proj
I0403 15:35:06.613143 15564 net.cpp:399] inception_5a/output -> inception_5a/output
I0403 15:35:06.613193 15564 net.cpp:141] Setting up inception_5a/output
I0403 15:35:06.613217 15564 net.cpp:148] Top shape: 24 832 7 7 (978432)
I0403 15:35:06.613232 15564 net.cpp:156] Memory required for data: 1309586976
I0403 15:35:06.613247 15564 layer_factory.hpp:77] Creating layer inception_5a/output_inception_5a/output_0_split
I0403 15:35:06.613273 15564 net.cpp:91] Creating Layer inception_5a/output_inception_5a/output_0_split
I0403 15:35:06.613289 15564 net.cpp:425] inception_5a/output_inception_5a/output_0_split <- inception_5a/output
I0403 15:35:06.613306 15564 net.cpp:399] inception_5a/output_inception_5a/output_0_split -> inception_5a/output_inception_5a/output_0_split_0
I0403 15:35:06.613328 15564 net.cpp:399] inception_5a/output_inception_5a/output_0_split -> inception_5a/output_inception_5a/output_0_split_1
I0403 15:35:06.613349 15564 net.cpp:399] inception_5a/output_inception_5a/output_0_split -> inception_5a/output_inception_5a/output_0_split_2
I0403 15:35:06.613370 15564 net.cpp:399] inception_5a/output_inception_5a/output_0_split -> inception_5a/output_inception_5a/output_0_split_3
I0403 15:35:06.613483 15564 net.cpp:141] Setting up inception_5a/output_inception_5a/output_0_split
I0403 15:35:06.613507 15564 net.cpp:148] Top shape: 24 832 7 7 (978432)
I0403 15:35:06.613523 15564 net.cpp:148] Top shape: 24 832 7 7 (978432)
I0403 15:35:06.613541 15564 net.cpp:148] Top shape: 24 832 7 7 (978432)
I0403 15:35:06.613565 15564 net.cpp:148] Top shape: 24 832 7 7 (978432)
I0403 15:35:06.613579 15564 net.cpp:156] Memory required for data: 1325241888
I0403 15:35:06.613593 15564 layer_factory.hpp:77] Creating layer inception_5b/1x1
I0403 15:35:06.613615 15564 net.cpp:91] Creating Layer inception_5b/1x1
I0403 15:35:06.613636 15564 net.cpp:425] inception_5b/1x1 <- inception_5a/output_inception_5a/output_0_split_0
I0403 15:35:06.613654 15564 net.cpp:399] inception_5b/1x1 -> inception_5b/1x1
I0403 15:35:06.617424 15564 net.cpp:141] Setting up inception_5b/1x1
I0403 15:35:06.617455 15564 net.cpp:148] Top shape: 24 384 7 7 (451584)
I0403 15:35:06.617472 15564 net.cpp:156] Memory required for data: 1327048224
I0403 15:35:06.617491 15564 layer_factory.hpp:77] Creating layer inception_5b/relu_1x1
I0403 15:35:06.617508 15564 net.cpp:91] Creating Layer inception_5b/relu_1x1
I0403 15:35:06.617524 15564 net.cpp:425] inception_5b/relu_1x1 <- inception_5b/1x1
I0403 15:35:06.617547 15564 net.cpp:386] inception_5b/relu_1x1 -> inception_5b/1x1 (in-place)
I0403 15:35:06.617851 15564 net.cpp:141] Setting up inception_5b/relu_1x1
I0403 15:35:06.617879 15564 net.cpp:148] Top shape: 24 384 7 7 (451584)
I0403 15:35:06.617895 15564 net.cpp:156] Memory required for data: 1328854560
I0403 15:35:06.617909 15564 layer_factory.hpp:77] Creating layer inception_5b/3x3_reduce
I0403 15:35:06.617931 15564 net.cpp:91] Creating Layer inception_5b/3x3_reduce
I0403 15:35:06.617949 15564 net.cpp:425] inception_5b/3x3_reduce <- inception_5a/output_inception_5a/output_0_split_1
I0403 15:35:06.617969 15564 net.cpp:399] inception_5b/3x3_reduce -> inception_5b/3x3_reduce
I0403 15:35:06.620635 15564 net.cpp:141] Setting up inception_5b/3x3_reduce
I0403 15:35:06.620677 15564 net.cpp:148] Top shape: 24 192 7 7 (225792)
I0403 15:35:06.620692 15564 net.cpp:156] Memory required for data: 1329757728
I0403 15:35:06.620710 15564 layer_factory.hpp:77] Creating layer inception_5b/relu_3x3_reduce
I0403 15:35:06.620729 15564 net.cpp:91] Creating Layer inception_5b/relu_3x3_reduce
I0403 15:35:06.620746 15564 net.cpp:425] inception_5b/relu_3x3_reduce <- inception_5b/3x3_reduce
I0403 15:35:06.620766 15564 net.cpp:386] inception_5b/relu_3x3_reduce -> inception_5b/3x3_reduce (in-place)
I0403 15:35:06.620976 15564 net.cpp:141] Setting up inception_5b/relu_3x3_reduce
I0403 15:35:06.621001 15564 net.cpp:148] Top shape: 24 192 7 7 (225792)
I0403 15:35:06.621016 15564 net.cpp:156] Memory required for data: 1330660896
I0403 15:35:06.621031 15564 layer_factory.hpp:77] Creating layer inception_5b/3x3
I0403 15:35:06.621052 15564 net.cpp:91] Creating Layer inception_5b/3x3
I0403 15:35:06.621069 15564 net.cpp:425] inception_5b/3x3 <- inception_5b/3x3_reduce
I0403 15:35:06.621090 15564 net.cpp:399] inception_5b/3x3 -> inception_5b/3x3
I0403 15:35:06.627828 15564 net.cpp:141] Setting up inception_5b/3x3
I0403 15:35:06.627857 15564 net.cpp:148] Top shape: 24 384 7 7 (451584)
I0403 15:35:06.627873 15564 net.cpp:156] Memory required for data: 1332467232
I0403 15:35:06.627892 15564 layer_factory.hpp:77] Creating layer inception_5b/relu_3x3
I0403 15:35:06.627908 15564 net.cpp:91] Creating Layer inception_5b/relu_3x3
I0403 15:35:06.627924 15564 net.cpp:425] inception_5b/relu_3x3 <- inception_5b/3x3
I0403 15:35:06.627943 15564 net.cpp:386] inception_5b/relu_3x3 -> inception_5b/3x3 (in-place)
I0403 15:35:06.628240 15564 net.cpp:141] Setting up inception_5b/relu_3x3
I0403 15:35:06.628267 15564 net.cpp:148] Top shape: 24 384 7 7 (451584)
I0403 15:35:06.628283 15564 net.cpp:156] Memory required for data: 1334273568
I0403 15:35:06.628298 15564 layer_factory.hpp:77] Creating layer inception_5b/5x5_reduce
I0403 15:35:06.628334 15564 net.cpp:91] Creating Layer inception_5b/5x5_reduce
I0403 15:35:06.628353 15564 net.cpp:425] inception_5b/5x5_reduce <- inception_5a/output_inception_5a/output_0_split_2
I0403 15:35:06.628376 15564 net.cpp:399] inception_5b/5x5_reduce -> inception_5b/5x5_reduce
I0403 15:35:06.629669 15564 net.cpp:141] Setting up inception_5b/5x5_reduce
I0403 15:35:06.629696 15564 net.cpp:148] Top shape: 24 48 7 7 (56448)
I0403 15:35:06.629712 15564 net.cpp:156] Memory required for data: 1334499360
I0403 15:35:06.629729 15564 layer_factory.hpp:77] Creating layer inception_5b/relu_5x5_reduce
I0403 15:35:06.629750 15564 net.cpp:91] Creating Layer inception_5b/relu_5x5_reduce
I0403 15:35:06.629765 15564 net.cpp:425] inception_5b/relu_5x5_reduce <- inception_5b/5x5_reduce
I0403 15:35:06.629783 15564 net.cpp:386] inception_5b/relu_5x5_reduce -> inception_5b/5x5_reduce (in-place)
I0403 15:35:06.630146 15564 net.cpp:141] Setting up inception_5b/relu_5x5_reduce
I0403 15:35:06.630170 15564 net.cpp:148] Top shape: 24 48 7 7 (56448)
I0403 15:35:06.630184 15564 net.cpp:156] Memory required for data: 1334725152
I0403 15:35:06.630198 15564 layer_factory.hpp:77] Creating layer inception_5b/5x5
I0403 15:35:06.630218 15564 net.cpp:91] Creating Layer inception_5b/5x5
I0403 15:35:06.630234 15564 net.cpp:425] inception_5b/5x5 <- inception_5b/5x5_reduce
I0403 15:35:06.630252 15564 net.cpp:399] inception_5b/5x5 -> inception_5b/5x5
I0403 15:35:06.632266 15564 net.cpp:141] Setting up inception_5b/5x5
I0403 15:35:06.632293 15564 net.cpp:148] Top shape: 24 128 7 7 (150528)
I0403 15:35:06.632308 15564 net.cpp:156] Memory required for data: 1335327264
I0403 15:35:06.632324 15564 layer_factory.hpp:77] Creating layer inception_5b/relu_5x5
I0403 15:35:06.632344 15564 net.cpp:91] Creating Layer inception_5b/relu_5x5
I0403 15:35:06.632360 15564 net.cpp:425] inception_5b/relu_5x5 <- inception_5b/5x5
I0403 15:35:06.632377 15564 net.cpp:386] inception_5b/relu_5x5 -> inception_5b/5x5 (in-place)
I0403 15:35:06.632570 15564 net.cpp:141] Setting up inception_5b/relu_5x5
I0403 15:35:06.632596 15564 net.cpp:148] Top shape: 24 128 7 7 (150528)
I0403 15:35:06.632611 15564 net.cpp:156] Memory required for data: 1335929376
I0403 15:35:06.632625 15564 layer_factory.hpp:77] Creating layer inception_5b/pool
I0403 15:35:06.632642 15564 net.cpp:91] Creating Layer inception_5b/pool
I0403 15:35:06.632658 15564 net.cpp:425] inception_5b/pool <- inception_5a/output_inception_5a/output_0_split_3
I0403 15:35:06.632673 15564 net.cpp:399] inception_5b/pool -> inception_5b/pool
I0403 15:35:06.632746 15564 net.cpp:141] Setting up inception_5b/pool
I0403 15:35:06.632769 15564 net.cpp:148] Top shape: 24 832 7 7 (978432)
I0403 15:35:06.632783 15564 net.cpp:156] Memory required for data: 1339843104
I0403 15:35:06.632797 15564 layer_factory.hpp:77] Creating layer inception_5b/pool_proj
I0403 15:35:06.632817 15564 net.cpp:91] Creating Layer inception_5b/pool_proj
I0403 15:35:06.632834 15564 net.cpp:425] inception_5b/pool_proj <- inception_5b/pool
I0403 15:35:06.632853 15564 net.cpp:399] inception_5b/pool_proj -> inception_5b/pool_proj
I0403 15:35:06.635090 15564 net.cpp:141] Setting up inception_5b/pool_proj
I0403 15:35:06.635119 15564 net.cpp:148] Top shape: 24 128 7 7 (150528)
I0403 15:35:06.635134 15564 net.cpp:156] Memory required for data: 1340445216
I0403 15:35:06.635152 15564 layer_factory.hpp:77] Creating layer inception_5b/relu_pool_proj
I0403 15:35:06.635172 15564 net.cpp:91] Creating Layer inception_5b/relu_pool_proj
I0403 15:35:06.635188 15564 net.cpp:425] inception_5b/relu_pool_proj <- inception_5b/pool_proj
I0403 15:35:06.635205 15564 net.cpp:386] inception_5b/relu_pool_proj -> inception_5b/pool_proj (in-place)
I0403 15:35:06.635496 15564 net.cpp:141] Setting up inception_5b/relu_pool_proj
I0403 15:35:06.635521 15564 net.cpp:148] Top shape: 24 128 7 7 (150528)
I0403 15:35:06.635545 15564 net.cpp:156] Memory required for data: 1341047328
I0403 15:35:06.635572 15564 layer_factory.hpp:77] Creating layer inception_5b/output
I0403 15:35:06.635589 15564 net.cpp:91] Creating Layer inception_5b/output
I0403 15:35:06.635619 15564 net.cpp:425] inception_5b/output <- inception_5b/1x1
I0403 15:35:06.635637 15564 net.cpp:425] inception_5b/output <- inception_5b/3x3
I0403 15:35:06.635653 15564 net.cpp:425] inception_5b/output <- inception_5b/5x5
I0403 15:35:06.635668 15564 net.cpp:425] inception_5b/output <- inception_5b/pool_proj
I0403 15:35:06.635686 15564 net.cpp:399] inception_5b/output -> inception_5b/output
I0403 15:35:06.635737 15564 net.cpp:141] Setting up inception_5b/output
I0403 15:35:06.635762 15564 net.cpp:148] Top shape: 24 1024 7 7 (1204224)
I0403 15:35:06.635777 15564 net.cpp:156] Memory required for data: 1345864224
I0403 15:35:06.635790 15564 layer_factory.hpp:77] Creating layer pool5/7x7_s1
I0403 15:35:06.635807 15564 net.cpp:91] Creating Layer pool5/7x7_s1
I0403 15:35:06.635823 15564 net.cpp:425] pool5/7x7_s1 <- inception_5b/output
I0403 15:35:06.635843 15564 net.cpp:399] pool5/7x7_s1 -> pool5/7x7_s1
I0403 15:35:06.636051 15564 net.cpp:141] Setting up pool5/7x7_s1
I0403 15:35:06.636075 15564 net.cpp:148] Top shape: 24 1024 1 1 (24576)
I0403 15:35:06.636090 15564 net.cpp:156] Memory required for data: 1345962528
I0403 15:35:06.636103 15564 layer_factory.hpp:77] Creating layer pool5/drop_7x7_s1
I0403 15:35:06.636122 15564 net.cpp:91] Creating Layer pool5/drop_7x7_s1
I0403 15:35:06.636138 15564 net.cpp:425] pool5/drop_7x7_s1 <- pool5/7x7_s1
I0403 15:35:06.636154 15564 net.cpp:386] pool5/drop_7x7_s1 -> pool5/7x7_s1 (in-place)
I0403 15:35:06.636201 15564 net.cpp:141] Setting up pool5/drop_7x7_s1
I0403 15:35:06.636225 15564 net.cpp:148] Top shape: 24 1024 1 1 (24576)
I0403 15:35:06.636240 15564 net.cpp:156] Memory required for data: 1346060832
I0403 15:35:06.636253 15564 layer_factory.hpp:77] Creating layer loss3/classifier_plantvillage
I0403 15:35:06.636271 15564 net.cpp:91] Creating Layer loss3/classifier_plantvillage
I0403 15:35:06.636286 15564 net.cpp:425] loss3/classifier_plantvillage <- pool5/7x7_s1
I0403 15:35:06.636307 15564 net.cpp:399] loss3/classifier_plantvillage -> loss3/classifier_plantvillage
I0403 15:35:06.636723 15564 net.cpp:141] Setting up loss3/classifier_plantvillage
I0403 15:35:06.636745 15564 net.cpp:148] Top shape: 24 38 (912)
I0403 15:35:06.636759 15564 net.cpp:156] Memory required for data: 1346064480
I0403 15:35:06.636775 15564 layer_factory.hpp:77] Creating layer loss3/classifier_plantvillage_loss3/classifier_plantvillage_0_split
I0403 15:35:06.636792 15564 net.cpp:91] Creating Layer loss3/classifier_plantvillage_loss3/classifier_plantvillage_0_split
I0403 15:35:06.636807 15564 net.cpp:425] loss3/classifier_plantvillage_loss3/classifier_plantvillage_0_split <- loss3/classifier_plantvillage
I0403 15:35:06.636823 15564 net.cpp:399] loss3/classifier_plantvillage_loss3/classifier_plantvillage_0_split -> loss3/classifier_plantvillage_loss3/classifier_plantvillage_0_split_0
I0403 15:35:06.636845 15564 net.cpp:399] loss3/classifier_plantvillage_loss3/classifier_plantvillage_0_split -> loss3/classifier_plantvillage_loss3/classifier_plantvillage_0_split_1
I0403 15:35:06.636867 15564 net.cpp:399] loss3/classifier_plantvillage_loss3/classifier_plantvillage_0_split -> loss3/classifier_plantvillage_loss3/classifier_plantvillage_0_split_2
I0403 15:35:06.636886 15564 net.cpp:399] loss3/classifier_plantvillage_loss3/classifier_plantvillage_0_split -> loss3/classifier_plantvillage_loss3/classifier_plantvillage_0_split_3
I0403 15:35:06.636983 15564 net.cpp:141] Setting up loss3/classifier_plantvillage_loss3/classifier_plantvillage_0_split
I0403 15:35:06.637006 15564 net.cpp:148] Top shape: 24 38 (912)
I0403 15:35:06.637020 15564 net.cpp:148] Top shape: 24 38 (912)
I0403 15:35:06.637035 15564 net.cpp:148] Top shape: 24 38 (912)
I0403 15:35:06.637049 15564 net.cpp:148] Top shape: 24 38 (912)
I0403 15:35:06.637061 15564 net.cpp:156] Memory required for data: 1346079072
I0403 15:35:06.637075 15564 layer_factory.hpp:77] Creating layer loss1/loss
I0403 15:35:06.637099 15564 net.cpp:91] Creating Layer loss1/loss
I0403 15:35:06.637115 15564 net.cpp:425] loss1/loss <- loss1/classifier_plantvillage_loss1/classifier_plantvillage_0_split_0
I0403 15:35:06.637145 15564 net.cpp:425] loss1/loss <- label_data_1_split_0
…
