…
I0403 14:58:25.137748 13949 net.cpp:313] The NetState phase (1) differed from the phase (0) specified by a rule in layer data
I0403 14:58:25.138911 13949 net.cpp:49] Initializing net from parameters: 
state {
  phase: TEST
}
layer {
  name: "data"
  type: "Data"
  top: "data"
  top: "label"
  include {
    phase: TEST
  }
  transform_param {
    mirror: false
    crop_size: 224
    mean_file: "/home/mohanty/data/final_dataset/lmdb/color-50-50/mean.binaryproto"
  }
  data_param {
    source: "/home/mohanty/data/final_dataset/lmdb/color-50-50/test_db"
    batch_size: 24
    backend: LMDB
  }
}
layer {
  name: "conv1/7x7_s2"
  type: "Convolution"
  bottom: "data"
  top: "conv1/7x7_s2"
  param {
    lr_mult: 1
    decay_mult: 1
  }
  param {
    lr_mult: 2
    decay_mult: 0
  }
  convolution_param {
    num_output: 64
    pad: 3
    kernel_size: 7
    stride: 2
    weight_filler {
      type: "xavier"
      std: 0.1
    }
    bias_filler {
      type: "constant"
      value: 0.2
    }
  }
}
layer {
  name: "conv1/relu_7x7"
  type: "ReLU"
  bottom: "conv1/7x7_s2"
  top: "conv1/7x7_s2"
}
layer {
  name: "pool1/3x3_s2"
  type: "Pooling"
  bottom: "conv1/7x7_s2"
  top: "pool1/3x3_s2"
  pooling_param {
    pool: MAX
    kernel_size: 3
    stride: 2
  }
}
layer {
  name: "pool1/norm1"
  type: "LRN"
  bottom: "pool1/3x3_s2"
  top: "pool1/norm1"
  lrn_param {
    local_size: 5
    alpha: 0.0001
    beta: 0.75
  }
}
layer {
  name: "conv2/3x3_reduce"
  type: "Convolution"
  bottom: "pool1/norm1"
  top: "conv2/3x3_reduce"
  param {
    lr_mult: 1
    decay_mult: 1
  }
  param {
    lr_mult: 2
    decay_mult: 0
  }
  convolution_param {
    num_output: 64
    kernel_size: 1
    weight_filler {
      type: "xavier"
      std: 0.1
    }
    bias_filler {
      type: "constant"
      value: 0.2
    }
  }
}
layer {
  name: "conv2/relu_3x3_reduce"
  type: "ReLU"
  bottom: "conv2/3x3_reduce"
  top: "conv2/3x3_reduce"
}
layer {
  name: "conv2/3x3"
  type: "Convolution"
  bottom: "conv2/3x3_reduce"
  top: "conv2/3x3"
  param {
    lr_mult: 1
    decay_mult: 1
  }
  param {
    lr_mult: 2
    decay_mult: 0
  }
  convolution_param {
    num_output: 192
    pad: 1
    kernel_size: 3
    weight_filler {
      type: "xavier"
      std: 0.03
    }
    bias_filler {
      type: "constant"
      value: 0.2
    }
  }
}
layer {
  name: "conv2/relu_3x3"
  type: "ReLU"
  bottom: "conv2/3x3"
  top: "conv2/3x3"
}
layer {
  name: "conv2/norm2"
  type: "LRN"
  bottom: "conv2/3x3"
  top: "conv2/norm2"
  lrn_param {
    local_size: 5
    alpha: 0.0001
    beta: 0.75
  }
}
layer {
  name: "pool2/3x3_s2"
  type: "Pooling"
  bottom: "conv2/norm2"
  top: "pool2/3x3_s2"
  pooling_param {
    pool: MAX
    kernel_size: 3
    stride: 2
  }
}
layer {
  name: "inception_3a/1x1"
  type: "Convolution"
  bottom: "pool2/3x3_s2"
  top: "inception_3a/1x1"
  param {
    lr_mult: 1
    decay_mult: 1
  }
  param {
    lr_mult: 2
    decay_mult: 0
  }
  convolution_param {
    num_output: 64
    kernel_size: 1
    weight_filler {
      type: "xavier"
      std: 0.03
    }
    bias_filler {
      type: "constant"
      value: 0.2
    }
  }
}
layer {
  name: "inception_3a/relu_1x1"
  type: "ReLU"
  bottom: "inception_3a/1x1"
  top: "inception_3a/1x1"
}
layer {
  name: "inception_3a/3x3_reduce"
  type: "Convolution"
  bottom: "pool2/3x3_s2"
  top: "inception_3a/3x3_reduce"
  param {
    lr_mult: 1
    decay_mult: 1
  }
  param {
    lr_mult: 2
    decay_mult: 0
  }
  convolution_param {
    num_output: 96
    kernel_size: 1
    weight_filler {
      type: "xavier"
      std: 0.09
    }
    bias_filler {
      type: "constant"
      value: 0.2
    }
  }
}
layer {
  name: "inception_3a/relu_3x3_reduce"
  type: "ReLU"
  bottom: "inception_3a/3x3_reduce"
  top: "inception_3a/3x3_reduce"
}
layer {
  name: "inception_3a/3x3"
  type: "Convolution"
  bottom: "inception_3a/3x3_reduce"
  top: "inception_3a/3x3"
  param {
    lr_mult: 1
    decay_mult: 1
  }
  param {
    lr_mult: 2
    decay_mult: 0
  }
  convolution_param {
    num_output: 128
    pad: 1
    kernel_size: 3
    weight_filler {
      type: "xavier"
      std: 0.03
    }
    bias_filler {
      type: "constant"
      value: 0.2
    }
  }
}
layer {
  name: "inception_3a/relu_3x3"
  type: "ReLU"
  bottom: "inception_3a/3x3"
  top: "inception_3a/3x3"
}
layer {
  name: "inception_3a/5x5_reduce"
  type: "Convolution"
  bottom: "pool2/3x3_s2"
  top: "inception_3a/5x5_reduce"
  param {
    lr_mult: 1
    decay_mult: 1
  }
  param {
    lr_mult: 2
    decay_mult: 0
  }
  convolution_param {
    num_output: 16
    kernel_size: 1
    weight_filler {
      type: "xavier"
      std: 0.2
    }
    bias_filler {
      type: "constant"
      value: 0.2
    }
  }
}
layer {
  name: "inception_3a/relu_5x5_reduce"
  type: "ReLU"
  bottom: "inception_3a/5x5_reduce"
  top: "inception_3a/5x5_reduce"
}
layer {
  name: "inception_3a/5x5"
  type: "Convolution"
  bottom: "inception_3a/5x5_reduce"
  top: "inception_3a/5x5"
  param {
    lr_mult: 1
    decay_mult: 1
  }
  param {
    lr_mult: 2
    decay_mult: 0
  }
  convolution_param {
    num_output: 32
    pad: 2
    kernel_size: 5
    weight_filler {
      type: "xavier"
      std: 0.03
    }
    bias_filler {
      type: "constant"
      value: 0.2
    }
  }
}
layer {
  name: "inception_3a/relu_5x5"
  type: "ReLU"
  bottom: "inception_3a/5x5"
  top: "inception_3a/5x5"
}
layer {
  name: "inception_3a/pool"
  type: "Pooling"
  bottom: "pool2/3x3_s2"
  top: "inception_3a/pool"
  pooling_param {
    pool: MAX
    kernel_size: 3
    stride: 1
    pad: 1
  }
}
layer {
  name: "inception_3a/pool_proj"
  type: "Convolution"
  bottom: "inception_3a/pool"
  top: "inception_3a/pool_proj"
  param {
    lr_mult: 1
    decay_mult: 1
  }
  param {
    lr_mult: 2
    decay_mult: 0
  }
  convolution_param {
    num_output: 32
    kernel_size: 1
    weight_filler {
      type: "xavier"
      std: 0.1
    }
    bias_filler {
      type: "constant"
      value: 0.2
    }
  }
}
layer {
  name: "inception_3a/relu_pool_proj"
  type: "ReLU"
  bottom: "inception_3a/pool_proj"
  top: "inception_3a/pool_proj"
}
layer {
  name: "inception_3a/output"
  type: "Concat"
  bottom: "inception_3a/1x1"
  bottom: "inception_3a/3x3"
  bottom: "inception_3a/5x5"
  bottom: "inception_3a/pool_proj"
  top: "inception_3a/output"
}
layer {
  name: "inception_3b/1x1"
  type: "Convolution"
  bottom: "inception_3a/output"
  top: "inception_3b/1x1"
  param {
    lr_mult: 1
    decay_mult: 1
  }
  param {
    lr_mult: 2
    decay_mult: 0
  }
  convolution_param {
    num_output: 128
    kernel_size: 1
    weight_filler {
      type: "xavier"
      std: 0.03
    }
    bias_filler {
      type: "constant"
      value: 0.2
    }
  }
}
layer {
  name: "inception_3b/relu_1x1"
  type: "ReLU"
  bottom: "inception_3b/1x1"
  top: "inception_3b/1x1"
}
layer {
  name: "inception_3b/3x3_reduce"
  type: "Convolution"
  bottom: "inception_3a/output"
  top: "inception_3b/3x3_reduce"
  param {
    lr_mult: 1
    decay_mult: 1
  }
  param {
    lr_mult: 2
    decay_mult: 0
  }
  convolution_param {
    num_output: 128
    kernel_size: 1
    weight_filler {
      type: "xavier"
      std: 0.09
    }
    bias_filler {
      type: "constant"
      value: 0.2
    }
  }
}
layer {
  name: "inception_3b/relu_3x3_reduce"
  type: "ReLU"
  bottom: "inception_3b/3x3_reduce"
  top: "inception_3b/3x3_reduce"
}
layer {
  name: "inception_3b/3x3"
  type: "Convolution"
  bottom: "inception_3b/3x3_reduce"
  top: "inception_3b/3x3"
  param {
    lr_mult: 1
    decay_mult: 1
  }
  param {
    lr_mult: 2
    decay_mult: 0
  }
  convolution_param {
    num_output: 192
    pad: 1
    kernel_size: 3
    weight_filler {
      type: "xavier"
      std: 0.03
    }
    bias_filler {
      type: "constant"
      value: 0.2
    }
  }
}
layer {
  name: "inception_3b/relu_3x3"
  type: "ReLU"
  bottom: "inception_3b/3x3"
  top: "inception_3b/3x3"
}
layer {
  name: "inception_3b/5x5_reduce"
  type: "Convolution"
  bottom: "inception_3a/output"
  top: "inception_3b/5x5_reduce"
  param {
    lr_mult: 1
    decay_mult: 1
  }
  param {
    lr_mult: 2
    decay_mult: 0
  }
  convolution_param {
    num_output: 32
    kernel_size: 1
    weight_filler {
      type: "xavier"
      std: 0.2
    }
    bias_filler {
      type: "constant"
      value: 0.2
    }
  }
}
layer {
  name: "inception_3b/relu_5x5_reduce"
  type: "ReLU"
  bottom: "inception_3b/5x5_reduce"
  top: "inception_3b/5x5_reduce"
}
layer {
  name: "inception_3b/5x5"
  type: "Convolution"
  bottom: "inception_3b/5x5_reduce"
  top: "inception_3b/5x5"
  param {
    lr_mult: 1
    decay_mult: 1
  }
  param {
    lr_mult: 2
    decay_mult: 0
  }
  convolution_param {
    num_output: 96
    pad: 2
    kernel_size: 5
    weight_filler {
      type: "xavier"
      std: 0.03
    }
    bias_filler {
      type: "constant"
      value: 0.2
    }
  }
}
layer {
  name: "inception_3b/relu_5x5"
  type: "ReLU"
  bottom: "inception_3b/5x5"
  top: "inception_3b/5x5"
}
layer {
  name: "inception_3b/pool"
  type: "Pooling"
  bottom: "inception_3a/output"
  top: "inception_3b/pool"
  pooling_param {
    pool: MAX
    kernel_size: 3
    stride: 1
    pad: 1
  }
}
layer {
  name: "inception_3b/pool_proj"
  type: "Convolution"
  bottom: "inception_3b/pool"
  top: "inception_3b/pool_proj"
  param {
    lr_mult: 1
    decay_mult: 1
  }
  param {
    lr_mult: 2
    decay_mult: 0
  }
  convolution_param {
    num_output: 64
    kernel_size: 1
    weight_filler {
      type: "xavier"
      std: 0.1
    }
    bias_filler {
      type: "constant"
      value: 0.2
    }
  }
}
layer {
  name: "inception_3b/relu_pool_proj"
  type: "ReLU"
  bottom: "inception_3b/pool_proj"
  top: "inception_3b/pool_proj"
}
layer {
  name: "inception_3b/output"
  type: "Concat"
  bottom: "inception_3b/1x1"
  bottom: "inception_3b/3x3"
  bottom: "inception_3b/5x5"
  bottom: "inception_3b/pool_proj"
  top: "inception_3b/output"
}
layer {
  name: "pool3/3x3_s2"
  type: "Pooling"
  bottom: "inception_3b/output"
  top: "pool3/3x3_s2"
  pooling_param {
    pool: MAX
    kernel_size: 3
    stride: 2
  }
}
layer {
  name: "inception_4a/1x1"
  type: "Convolution"
  bottom: "pool3/3x3_s2"
  top: "inception_4a/1x1"
  param {
    lr_mult: 1
    decay_mult: 1
  }
  param {
    lr_mult: 2
    decay_mult: 0
  }
  convolution_param {
    num_output: 192
    kernel_size: 1
    weight_filler {
      type: "xavier"
      std: 0.03
    }
    bias_filler {
      type: "constant"
      value: 0.2
    }
  }
}
layer {
  name: "inception_4a/relu_1x1"
  type: "ReLU"
  bottom: "inception_4a/1x1"
  top: "inception_4a/1x1"
}
layer {
  name: "inception_4a/3x3_reduce"
  type: "Convolution"
  bottom: "pool3/3x3_s2"
  top: "inception_4a/3x3_reduce"
  param {
    lr_mult: 1
    decay_mult: 1
  }
  param {
    lr_mult: 2
    decay_mult: 0
  }
  convolution_param {
    num_output: 96
    kernel_size: 1
    weight_filler {
      type: "xavier"
      std: 0.09
    }
    bias_filler {
      type: "constant"
      value: 0.2
    }
  }
}
layer {
  name: "inception_4a/relu_3x3_reduce"
  type: "ReLU"
  bottom: "inception_4a/3x3_reduce"
  top: "inception_4a/3x3_reduce"
}
layer {
  name: "inception_4a/3x3"
  type: "Convolution"
  bottom: "inception_4a/3x3_reduce"
  top: "inception_4a/3x3"
  param {
    lr_mult: 1
    decay_mult: 1
  }
  param {
    lr_mult: 2
    decay_mult: 0
  }
  convolution_param {
    num_output: 208
    pad: 1
    kernel_size: 3
    weight_filler {
      type: "xavier"
      std: 0.03
    }
    bias_filler {
      type: "constant"
      value: 0.2
    }
  }
}
layer {
  name: "inception_4a/relu_3x3"
  type: "ReLU"
  bottom: "inception_4a/3x3"
  top: "inception_4a/3x3"
}
layer {
  name: "inception_4a/5x5_reduce"
  type: "Convolution"
  bottom: "pool3/3x3_s2"
  top: "inception_4a/5x5_reduce"
  param {
    lr_mult: 1
    decay_mult: 1
  }
  param {
    lr_mult: 2
    decay_mult: 0
  }
  convolution_param {
    num_output: 16
    kernel_size: 1
    weight_filler {
      type: "xavier"
      std: 0.2
    }
    bias_filler {
      type: "constant"
      value: 0.2
    }
  }
}
layer {
  name: "inception_4a/relu_5x5_reduce"
  type: "ReLU"
  bottom: "inception_4a/5x5_reduce"
  top: "inception_4a/5x5_reduce"
}
layer {
  name: "inception_4a/5x5"
  type: "Convolution"
  bottom: "inception_4a/5x5_reduce"
  top: "inception_4a/5x5"
  param {
    lr_mult: 1
    decay_mult: 1
  }
  param {
    lr_mult: 2
    decay_mult: 0
  }
  convolution_param {
    num_output: 48
    pad: 2
    kernel_size: 5
    weight_filler {
      type: "xavier"
      std: 0.03
    }
    bias_filler {
      type: "constant"
      value: 0.2
    }
  }
}
layer {
  name: "inception_4a/relu_5x5"
  type: "ReLU"
  bottom: "inception_4a/5x5"
  top: "inception_4a/5x5"
}
layer {
  name: "inception_4a/pool"
  type: "Pooling"
  bottom: "pool3/3x3_s2"
  top: "inception_4a/pool"
  pooling_param {
    pool: MAX
    kernel_size: 3
    stride: 1
    pad: 1
  }
}
layer {
  name: "inception_4a/pool_proj"
  type: "Convolution"
  bottom: "inception_4a/pool"
  top: "inception_4a/pool_proj"
  param {
    lr_mult: 1
    decay_mult: 1
  }
  param {
    lr_mult: 2
    decay_mult: 0
  }
  convolution_param {
    num_output: 64
    kernel_size: 1
    weight_filler {
      type: "xavier"
      std: 0.1
    }
    bias_filler {
      type: "constant"
      value: 0.2
    }
  }
}
layer {
  name: "inception_4a/relu_pool_proj"
  type: "ReLU"
  bottom: "inception_4a/pool_proj"
  top: "inception_4a/pool_proj"
}
layer {
  name: "inception_4a/output"
  type: "Concat"
  bottom: "inception_4a/1x1"
  bottom: "inception_4a/3x3"
  bottom: "inception_4a/5x5"
  bottom: "inception_4a/pool_proj"
  top: "inception_4a/output"
}
layer {
  name: "loss1/ave_pool"
  type: "Pooling"
  bottom: "inception_4a/output"
  top: "loss1/ave_pool"
  pooling_param {
    pool: AVE
    kernel_size: 5
    stride: 3
  }
}
layer {
  name: "loss1/conv"
  type: "Convolution"
  bottom: "loss1/ave_pool"
  top: "loss1/conv"
  param {
    lr_mult: 1
    decay_mult: 1
  }
  param {
    lr_mult: 2
    decay_mult: 0
  }
  convolution_param {
    num_output: 128
    kernel_size: 1
    weight_filler {
      type: "xavier"
      std: 0.08
    }
    bias_filler {
      type: "constant"
      value: 0.2
    }
  }
}
layer {
  name: "loss1/relu_conv"
  type: "ReLU"
  bottom: "loss1/conv"
  top: "loss1/conv"
}
layer {
  name: "loss1/fc"
  type: "InnerProduct"
  bottom: "loss1/conv"
  top: "loss1/fc"
  param {
    lr_mult: 1
    decay_mult: 1
  }
  param {
    lr_mult: 2
    decay_mult: 0
  }
  inner_product_param {
    num_output: 1024
    weight_filler {
      type: "xavier"
      std: 0.02
    }
    bias_filler {
      type: "constant"
      value: 0.2
    }
  }
}
layer {
  name: "loss1/relu_fc"
  type: "ReLU"
  bottom: "loss1/fc"
  top: "loss1/fc"
}
layer {
  name: "loss1/drop_fc"
  type: "Dropout"
  bottom: "loss1/fc"
  top: "loss1/fc"
  dropout_param {
    dropout_ratio: 0.7
  }
}
layer {
  name: "loss1/classifier_plantvillage"
  type: "InnerProduct"
  bottom: "loss1/fc"
  top: "loss1/classifier_plantvillage"
  param {
    lr_mult: 1
    decay_mult: 1
  }
  param {
    lr_mult: 2
    decay_mult: 0
  }
  inner_product_param {
    num_output: 38
    weight_filler {
      type: "xavier"
      std: 0.0009765625
    }
    bias_filler {
      type: "constant"
      value: 0
    }
  }
}
layer {
  name: "inception_4b/1x1"
  type: "Convolution"
  bottom: "inception_4a/output"
  top: "inception_4b/1x1"
  param {
    lr_mult: 1
    decay_mult: 1
  }
  param {
    lr_mult: 2
    decay_mult: 0
  }
  convolution_param {
    num_output: 160
    kernel_size: 1
    weight_filler {
      type: "xavier"
      std: 0.03
    }
    bias_filler {
      type: "constant"
      value: 0.2
    }
  }
}
layer {
  name: "inception_4b/relu_1x1"
  type: "ReLU"
  bottom: "inception_4b/1x1"
  top: "inception_4b/1x1"
}
layer {
  name: "inception_4b/3x3_reduce"
  type: "Convolution"
  bottom: "inception_4a/output"
  top: "inception_4b/3x3_reduce"
  param {
    lr_mult: 1
    decay_mult: 1
  }
  param {
    lr_mult: 2
    decay_mult: 0
  }
  convolution_param {
    num_output: 112
    kernel_size: 1
    weight_filler {
      type: "xavier"
      std: 0.09
    }
    bias_filler {
      type: "constant"
      value: 0.2
    }
  }
}
layer {
  name: "inception_4b/relu_3x3_reduce"
  type: "ReLU"
  bottom: "inception_4b/3x3_reduce"
  top: "inception_4b/3x3_reduce"
}
layer {
  name: "inception_4b/3x3"
  type: "Convolution"
  bottom: "inception_4b/3x3_reduce"
  top: "inception_4b/3x3"
  param {
    lr_mult: 1
    decay_mult: 1
  }
  param {
    lr_mult: 2
    decay_mult: 0
  }
  convolution_param {
    num_output: 224
    pad: 1
    kernel_size: 3
    weight_filler {
      type: "xavier"
      std: 0.03
    }
    bias_filler {
      type: "constant"
      value: 0.2
    }
  }
}
layer {
  name: "inception_4b/relu_3x3"
  type: "ReLU"
  bottom: "inception_4b/3x3"
  top: "inception_4b/3x3"
}
layer {
  name: "inception_4b/5x5_reduce"
  type: "Convolution"
  bottom: "inception_4a/output"
  top: "inception_4b/5x5_reduce"
  param {
    lr_mult: 1
    decay_mult: 1
  }
  param {
    lr_mult: 2
    decay_mult: 0
  }
  convolution_param {
    num_output: 24
    kernel_size: 1
    weight_filler {
      type: "xavier"
      std: 0.2
    }
    bias_filler {
      type: "constant"
      value: 0.2
    }
  }
}
layer {
  name: "inception_4b/relu_5x5_reduce"
  type: "ReLU"
  bottom: "inception_4b/5x5_reduce"
  top: "inception_4b/5x5_reduce"
}
layer {
  name: "inception_4b/5x5"
  type: "Convolution"
  bottom: "inception_4b/5x5_reduce"
  top: "inception_4b/5x5"
  param {
    lr_mult: 1
    decay_mult: 1
  }
  param {
    lr_mult: 2
    decay_mult: 0
  }
  convolution_param {
    num_output: 64
    pad: 2
    kernel_size: 5
    weight_filler {
      type: "xavier"
      std: 0.03
    }
    bias_filler {
      type: "constant"
      value: 0.2
    }
  }
}
layer {
  name: "inception_4b/relu_5x5"
  type: "ReLU"
  bottom: "inception_4b/5x5"
  top: "inception_4b/5x5"
}
layer {
  name: "inception_4b/pool"
  type: "Pooling"
  bottom: "inception_4a/output"
  top: "inception_4b/pool"
  pooling_param {
    pool: MAX
    kernel_size: 3
    stride: 1
    pad: 1
  }
}
layer {
  name: "inception_4b/pool_proj"
  type: "Convolution"
  bottom: "inception_4b/pool"
  top: "inception_4b/pool_proj"
  param {
    lr_mult: 1
    decay_mult: 1
  }
  param {
    lr_mult: 2
    decay_mult: 0
  }
  convolution_param {
    num_output: 64
    kernel_size: 1
    weight_filler {
      type: "xavier"
      std: 0.1
    }
    bias_filler {
      type: "constant"
      value: 0.2
    }
  }
}
layer {
  name: "inception_4b/relu_pool_proj"
  type: "ReLU"
  bottom: "inception_4b/pool_proj"
  top: "inception_4b/pool_proj"
}
layer {
  name: "inception_4b/output"
  type: "Concat"
  bottom: "inception_4b/1x1"
  bottom: "inception_4b/3x3"
  bottom: "inception_4b/5x5"
  bottom: "inception_4b/pool_proj"
  top: "inception_4b/output"
}
layer {
  name: "inception_4c/1x1"
  type: "Convolution"
  bottom: "inception_4b/output"
  top: "inception_4c/1x1"
  param {
    lr_mult: 1
    decay_mult: 1
  }
  param {
    lr_mult: 2
    decay_mult: 0
  }
  convolution_param {
    num_output: 128
    kernel_size: 1
    weight_filler {
      type: "xavier"
      std: 0.03
    }
    bias_filler {
      type: "constant"
      value: 0.2
    }
  }
}
layer {
  name: "inception_4c/relu_1x1"
  type: "ReLU"
  bottom: "inception_4c/1x1"
  top: "inception_4c/1x1"
}
layer {
  name: "inception_4c/3x3_reduce"
  type: "Convolution"
  bottom: "inception_4b/output"
  top: "inception_4c/3x3_reduce"
  param {
    lr_mult: 1
    decay_mult: 1
  }
  param {
    lr_mult: 2
    decay_mult: 0
  }
  convolution_param {
    num_output: 128
    kernel_size: 1
    weight_filler {
      type: "xavier"
      std: 0.09
    }
    bias_filler {
      type: "constant"
      value: 0.2
    }
  }
}
layer {
  name: "inception_4c/relu_3x3_reduce"
  type: "ReLU"
  bottom: "inception_4c/3x3_reduce"
  top: "inception_4c/3x3_reduce"
}
layer {
  name: "inception_4c/3x3"
  type: "Convolution"
  bottom: "inception_4c/3x3_reduce"
  top: "inception_4c/3x3"
  param {
    lr_mult: 1
    decay_mult: 1
  }
  param {
    lr_mult: 2
    decay_mult: 0
  }
  convolution_param {
    num_output: 256
    pad: 1
    kernel_size: 3
    weight_filler {
      type: "xavier"
      std: 0.03
    }
    bias_filler {
      type: "constant"
      value: 0.2
    }
  }
}
layer {
  name: "inception_4c/relu_3x3"
  type: "ReLU"
  bottom: "inception_4c/3x3"
  top: "inception_4c/3x3"
}
layer {
  name: "inception_4c/5x5_reduce"
  type: "Convolution"
  bottom: "inception_4b/output"
  top: "inception_4c/5x5_reduce"
  param {
    lr_mult: 1
    decay_mult: 1
  }
  param {
    lr_mult: 2
    decay_mult: 0
  }
  convolution_param {
    num_output: 24
    kernel_size: 1
    weight_filler {
      type: "xavier"
      std: 0.2
    }
    bias_filler {
      type: "constant"
      value: 0.2
    }
  }
}
layer {
  name: "inception_4c/relu_5x5_reduce"
  type: "ReLU"
  bottom: "inception_4c/5x5_reduce"
  top: "inception_4c/5x5_reduce"
}
layer {
  name: "inception_4c/5x5"
  type: "Convolution"
  bottom: "inception_4c/5x5_reduce"
  top: "inception_4c/5x5"
  param {
    lr_mult: 1
    decay_mult: 1
  }
  param {
    lr_mult: 2
    decay_mult: 0
  }
  convolution_param {
    num_output: 64
    pad: 2
    kernel_size: 5
    weight_filler {
      type: "xavier"
      std: 0.03
    }
    bias_filler {
      type: "constant"
      value: 0.2
    }
  }
}
layer {
  name: "inception_4c/relu_5x5"
  type: "ReLU"
  bottom: "inception_4c/5x5"
  top: "inception_4c/5x5"
}
layer {
  name: "inception_4c/pool"
  type: "Pooling"
  bottom: "inception_4b/output"
  top: "inception_4c/pool"
  pooling_param {
    pool: MAX
    kernel_size: 3
    stride: 1
    pad: 1
  }
}
layer {
  name: "inception_4c/pool_proj"
  type: "Convolution"
  bottom: "inception_4c/pool"
  top: "inception_4c/pool_proj"
  param {
    lr_mult: 1
    decay_mult: 1
  }
  param {
    lr_mult: 2
    decay_mult: 0
  }
  convolution_param {
    num_output: 64
    kernel_size: 1
    weight_filler {
      type: "xavier"
      std: 0.1
    }
    bias_filler {
      type: "constant"
      value: 0.2
    }
  }
}
layer {
  name: "inception_4c/relu_pool_proj"
  type: "ReLU"
  bottom: "inception_4c/pool_proj"
  top: "inception_4c/pool_proj"
}
layer {
  name: "inception_4c/output"
  type: "Concat"
  bottom: "inception_4c/1x1"
  bottom: "inception_4c/3x3"
  bottom: "inception_4c/5x5"
  bottom: "inception_4c/pool_proj"
  top: "inception_4c/output"
}
layer {
  name: "inception_4d/1x1"
  type: "Convolution"
  bottom: "inception_4c/output"
  top: "inception_4d/1x1"
  param {
    lr_mult: 1
    decay_mult: 1
  }
  param {
    lr_mult: 2
    decay_mult: 0
  }
  convolution_param {
    num_output: 112
    kernel_size: 1
    weight_filler {
      type: "xavier"
      std: 0.03
    }
    bias_filler {
      type: "constant"
      value: 0.2
    }
  }
}
layer {
  name: "inception_4d/relu_1x1"
  type: "ReLU"
  bottom: "inception_4d/1x1"
  top: "inception_4d/1x1"
}
layer {
  name: "inception_4d/3x3_reduce"
  type: "Convolution"
  bottom: "inception_4c/output"
  top: "inception_4d/3x3_reduce"
  param {
    lr_mult: 1
    decay_mult: 1
  }
  param {
    lr_mult: 2
    decay_mult: 0
  }
  convolution_param {
    num_output: 144
    kernel_size: 1
    weight_filler {
      type: "xavier"
      std: 0.09
    }
    bias_filler {
      type: "constant"
      value: 0.2
    }
  }
}
layer {
  name: "inception_4d/relu_3x3_reduce"
  type: "ReLU"
  bottom: "inception_4d/3x3_reduce"
  top: "inception_4d/3x3_reduce"
}
layer {
  name: "inception_4d/3x3"
  type: "Convolution"
  bottom: "inception_4d/3x3_reduce"
  top: "inception_4d/3x3"
  param {
    lr_mult: 1
    decay_mult: 1
  }
  param {
    lr_mult: 2
    decay_mult: 0
  }
  convolution_param {
    num_output: 288
    pad: 1
    kernel_size: 3
    weight_filler {
      type: "xavier"
      std: 0.03
    }
    bias_filler {
      type: "constant"
      value: 0.2
    }
  }
}
layer {
  name: "inception_4d/relu_3x3"
  type: "ReLU"
  bottom: "inception_4d/3x3"
  top: "inception_4d/3x3"
}
layer {
  name: "inception_4d/5x5_reduce"
  type: "Convolution"
  bottom: "inception_4c/output"
  top: "inception_4d/5x5_reduce"
  param {
    lr_mult: 1
    decay_mult: 1
  }
  param {
    lr_mult: 2
    decay_mult: 0
  }
  convolution_param {
    num_output: 32
    kernel_size: 1
    weight_filler {
      type: "xavier"
      std: 0.2
    }
    bias_filler {
      type: "constant"
      value: 0.2
    }
  }
}
layer {
  name: "inception_4d/relu_5x5_reduce"
  type: "ReLU"
  bottom: "inception_4d/5x5_reduce"
  top: "inception_4d/5x5_reduce"
}
layer {
  name: "inception_4d/5x5"
  type: "Convolution"
  bottom: "inception_4d/5x5_reduce"
  top: "inception_4d/5x5"
  param {
    lr_mult: 1
    decay_mult: 1
  }
  param {
    lr_mult: 2
    decay_mult: 0
  }
  convolution_param {
    num_output: 64
    pad: 2
    kernel_size: 5
    weight_filler {
      type: "xavier"
      std: 0.03
    }
    bias_filler {
      type: "constant"
      value: 0.2
    }
  }
}
layer {
  name: "inception_4d/relu_5x5"
  type: "ReLU"
  bottom: "inception_4d/5x5"
  top: "inception_4d/5x5"
}
layer {
  name: "inception_4d/pool"
  type: "Pooling"
  bottom: "inception_4c/output"
  top: "inception_4d/pool"
  pooling_param {
    pool: MAX
    kernel_size: 3
    stride: 1
    pad: 1
  }
}
layer {
  name: "inception_4d/pool_proj"
  type: "Convolution"
  bottom: "inception_4d/pool"
  top: "inception_4d/pool_proj"
  param {
    lr_mult: 1
    decay_mult: 1
  }
  param {
    lr_mult: 2
    decay_mult: 0
  }
  convolution_param {
    num_output: 64
    kernel_size: 1
    weight_filler {
      type: "xavier"
      std: 0.1
    }
    bias_filler {
      type: "constant"
      value: 0.2
    }
  }
}
layer {
  name: "inception_4d/relu_pool_proj"
  type: "ReLU"
  bottom: "inception_4d/pool_proj"
  top: "inception_4d/pool_proj"
}
layer {
  name: "inception_4d/output"
  type: "Concat"
  bottom: "inception_4d/1x1"
  bottom: "inception_4d/3x3"
  bottom: "inception_4d/5x5"
  bottom: "inception_4d/pool_proj"
  top: "inception_4d/output"
}
layer {
  name: "loss2/ave_pool"
  type: "Pooling"
  bottom: "inception_4d/output"
  top: "loss2/ave_pool"
  pooling_param {
    pool: AVE
    kernel_size: 5
    stride: 3
  }
}
layer {
  name: "loss2/conv"
  type: "Convolution"
  bottom: "loss2/ave_pool"
  top: "loss2/conv"
  param {
    lr_mult: 1
    decay_mult: 1
  }
  param {
    lr_mult: 2
    decay_mult: 0
  }
  convolution_param {
    num_output: 128
    kernel_size: 1
    weight_filler {
      type: "xavier"
      std: 0.08
    }
    bias_filler {
      type: "constant"
      value: 0.2
    }
  }
}
layer {
  name: "loss2/relu_conv"
  type: "ReLU"
  bottom: "loss2/conv"
  top: "loss2/conv"
}
layer {
  name: "loss2/fc"
  type: "InnerProduct"
  bottom: "loss2/conv"
  top: "loss2/fc"
  param {
    lr_mult: 1
    decay_mult: 1
  }
  param {
    lr_mult: 2
    decay_mult: 0
  }
  inner_product_param {
    num_output: 1024
    weight_filler {
      type: "xavier"
      std: 0.02
    }
    bias_filler {
      type: "constant"
      value: 0.2
    }
  }
}
layer {
  name: "loss2/relu_fc"
  type: "ReLU"
  bottom: "loss2/fc"
  top: "loss2/fc"
}
layer {
  name: "loss2/drop_fc"
  type: "Dropout"
  bottom: "loss2/fc"
  top: "loss2/fc"
  dropout_param {
    dropout_ratio: 0.7
  }
}
layer {
  name: "loss2/classifier_plantvillage"
  type: "InnerProduct"
  bottom: "loss2/fc"
  top: "loss2/classifier_plantvillage"
  param {
    lr_mult: 1
    decay_mult: 1
  }
  param {
    lr_mult: 2
    decay_mult: 0
  }
  inner_product_param {
    num_output: 38
    weight_filler {
      type: "xavier"
      std: 0.0009765625
    }
    bias_filler {
      type: "constant"
      value: 0
    }
  }
}
layer {
  name: "inception_4e/1x1"
  type: "Convolution"
  bottom: "inception_4d/output"
  top: "inception_4e/1x1"
  param {
    lr_mult: 1
    decay_mult: 1
  }
  param {
    lr_mult: 2
    decay_mult: 0
  }
  convolution_param {
    num_output: 256
    kernel_size: 1
    weight_filler {
      type: "xavier"
      std: 0.03
    }
    bias_filler {
      type: "constant"
      value: 0.2
    }
  }
}
layer {
  name: "inception_4e/relu_1x1"
  type: "ReLU"
  bottom: "inception_4e/1x1"
  top: "inception_4e/1x1"
}
layer {
  name: "inception_4e/3x3_reduce"
  type: "Convolution"
  bottom: "inception_4d/output"
  top: "inception_4e/3x3_reduce"
  param {
    lr_mult: 1
    decay_mult: 1
  }
  param {
    lr_mult: 2
    decay_mult: 0
  }
  convolution_param {
    num_output: 160
    kernel_size: 1
    weight_filler {
      type: "xavier"
      std: 0.09
    }
    bias_filler {
      type: "constant"
      value: 0.2
    }
  }
}
layer {
  name: "inception_4e/relu_3x3_reduce"
  type: "ReLU"
  bottom: "inception_4e/3x3_reduce"
  top: "inception_4e/3x3_reduce"
}
layer {
  name: "inception_4e/3x3"
  type: "Convolution"
  bottom: "inception_4e/3x3_reduce"
  top: "inception_4e/3x3"
  param {
    lr_mult: 1
    decay_mult: 1
  }
  param {
    lr_mult: 2
    decay_mult: 0
  }
  convolution_param {
    num_output: 320
    pad: 1
    kernel_size: 3
    weight_filler {
      type: "xavier"
      std: 0.03
    }
    bias_filler {
      type: "constant"
      value: 0.2
    }
  }
}
layer {
  name: "inception_4e/relu_3x3"
  type: "ReLU"
  bottom: "inception_4e/3x3"
  top: "inception_4e/3x3"
}
layer {
  name: "inception_4e/5x5_reduce"
  type: "Convolution"
  bottom: "inception_4d/output"
  top: "inception_4e/5x5_reduce"
  param {
    lr_mult: 1
    decay_mult: 1
  }
  param {
    lr_mult: 2
    decay_mult: 0
  }
  convolution_param {
    num_output: 32
    kernel_size: 1
    weight_filler {
      type: "xavier"
      std: 0.2
    }
    bias_filler {
      type: "constant"
      value: 0.2
    }
  }
}
layer {
  name: "inception_4e/relu_5x5_reduce"
  type: "ReLU"
  bottom: "inception_4e/5x5_reduce"
  top: "inception_4e/5x5_reduce"
}
layer {
  name: "inception_4e/5x5"
  type: "Convolution"
  bottom: "inception_4e/5x5_reduce"
  top: "inception_4e/5x5"
  p
I0403 14:58:25.140919 13949 layer_factory.hpp:77] Creating layer data
I0403 14:58:25.141522 13949 net.cpp:91] Creating Layer data
I0403 14:58:25.141557 13949 net.cpp:399] data -> data
I0403 14:58:25.141610 13949 net.cpp:399] data -> label
I0403 14:58:25.141647 13949 data_transformer.cpp:25] Loading mean file from: /home/mohanty/data/final_dataset/lmdb/color-50-50/mean.binaryproto
I0403 14:58:25.157266 13952 db_lmdb.cpp:38] Opened lmdb /home/mohanty/data/final_dataset/lmdb/color-50-50/test_db
I0403 14:58:25.171370 13949 data_layer.cpp:41] output data size: 24,3,224,224
I0403 14:58:25.199498 13949 net.cpp:141] Setting up data
I0403 14:58:25.199589 13949 net.cpp:148] Top shape: 24 3 224 224 (3612672)
I0403 14:58:25.199612 13949 net.cpp:148] Top shape: 24 (24)
I0403 14:58:25.199628 13949 net.cpp:156] Memory required for data: 14450784
I0403 14:58:25.199657 13949 layer_factory.hpp:77] Creating layer label_data_1_split
I0403 14:58:25.199684 13949 net.cpp:91] Creating Layer label_data_1_split
I0403 14:58:25.199703 13949 net.cpp:425] label_data_1_split <- label
I0403 14:58:25.199738 13949 net.cpp:399] label_data_1_split -> label_data_1_split_0
I0403 14:58:25.199769 13949 net.cpp:399] label_data_1_split -> label_data_1_split_1
I0403 14:58:25.199790 13949 net.cpp:399] label_data_1_split -> label_data_1_split_2
I0403 14:58:25.199812 13949 net.cpp:399] label_data_1_split -> label_data_1_split_3
I0403 14:58:25.199832 13949 net.cpp:399] label_data_1_split -> label_data_1_split_4
I0403 14:58:25.199853 13949 net.cpp:399] label_data_1_split -> label_data_1_split_5
I0403 14:58:25.199873 13949 net.cpp:399] label_data_1_split -> label_data_1_split_6
I0403 14:58:25.199894 13949 net.cpp:399] label_data_1_split -> label_data_1_split_7
I0403 14:58:25.199915 13949 net.cpp:399] label_data_1_split -> label_data_1_split_8
I0403 14:58:25.199935 13949 net.cpp:399] label_data_1_split -> label_data_1_split_9
I0403 14:58:25.200057 13949 net.cpp:141] Setting up label_data_1_split
I0403 14:58:25.200080 13949 net.cpp:148] Top shape: 24 (24)
I0403 14:58:25.200098 13949 net.cpp:148] Top shape: 24 (24)
I0403 14:58:25.200114 13949 net.cpp:148] Top shape: 24 (24)
I0403 14:58:25.200130 13949 net.cpp:148] Top shape: 24 (24)
I0403 14:58:25.200146 13949 net.cpp:148] Top shape: 24 (24)
I0403 14:58:25.200162 13949 net.cpp:148] Top shape: 24 (24)
I0403 14:58:25.200177 13949 net.cpp:148] Top shape: 24 (24)
I0403 14:58:25.200193 13949 net.cpp:148] Top shape: 24 (24)
I0403 14:58:25.200209 13949 net.cpp:148] Top shape: 24 (24)
I0403 14:58:25.200225 13949 net.cpp:148] Top shape: 24 (24)
I0403 14:58:25.200275 13949 net.cpp:156] Memory required for data: 14451744
I0403 14:58:25.200294 13949 layer_factory.hpp:77] Creating layer conv1/7x7_s2
I0403 14:58:25.200326 13949 net.cpp:91] Creating Layer conv1/7x7_s2
I0403 14:58:25.200346 13949 net.cpp:425] conv1/7x7_s2 <- data
I0403 14:58:25.200366 13949 net.cpp:399] conv1/7x7_s2 -> conv1/7x7_s2
I0403 14:58:25.354789 13949 net.cpp:141] Setting up conv1/7x7_s2
I0403 14:58:25.354851 13949 net.cpp:148] Top shape: 24 64 112 112 (19267584)
I0403 14:58:25.354869 13949 net.cpp:156] Memory required for data: 91522080
I0403 14:58:25.354902 13949 layer_factory.hpp:77] Creating layer conv1/relu_7x7
I0403 14:58:25.354928 13949 net.cpp:91] Creating Layer conv1/relu_7x7
I0403 14:58:25.354948 13949 net.cpp:425] conv1/relu_7x7 <- conv1/7x7_s2
I0403 14:58:25.354969 13949 net.cpp:386] conv1/relu_7x7 -> conv1/7x7_s2 (in-place)
I0403 14:58:25.355229 13949 net.cpp:141] Setting up conv1/relu_7x7
I0403 14:58:25.355270 13949 net.cpp:148] Top shape: 24 64 112 112 (19267584)
I0403 14:58:25.355288 13949 net.cpp:156] Memory required for data: 168592416
I0403 14:58:25.355304 13949 layer_factory.hpp:77] Creating layer pool1/3x3_s2
I0403 14:58:25.355329 13949 net.cpp:91] Creating Layer pool1/3x3_s2
I0403 14:58:25.355348 13949 net.cpp:425] pool1/3x3_s2 <- conv1/7x7_s2
I0403 14:58:25.355367 13949 net.cpp:399] pool1/3x3_s2 -> pool1/3x3_s2
I0403 14:58:25.355445 13949 net.cpp:141] Setting up pool1/3x3_s2
I0403 14:58:25.355470 13949 net.cpp:148] Top shape: 24 64 56 56 (4816896)
I0403 14:58:25.355486 13949 net.cpp:156] Memory required for data: 187860000
I0403 14:58:25.355501 13949 layer_factory.hpp:77] Creating layer pool1/norm1
I0403 14:58:25.355527 13949 net.cpp:91] Creating Layer pool1/norm1
I0403 14:58:25.355563 13949 net.cpp:425] pool1/norm1 <- pool1/3x3_s2
I0403 14:58:25.355583 13949 net.cpp:399] pool1/norm1 -> pool1/norm1
I0403 14:58:25.355896 13949 net.cpp:141] Setting up pool1/norm1
I0403 14:58:25.355924 13949 net.cpp:148] Top shape: 24 64 56 56 (4816896)
I0403 14:58:25.355952 13949 net.cpp:156] Memory required for data: 207127584
I0403 14:58:25.355968 13949 layer_factory.hpp:77] Creating layer conv2/3x3_reduce
I0403 14:58:25.355993 13949 net.cpp:91] Creating Layer conv2/3x3_reduce
I0403 14:58:25.356009 13949 net.cpp:425] conv2/3x3_reduce <- pool1/norm1
I0403 14:58:25.356029 13949 net.cpp:399] conv2/3x3_reduce -> conv2/3x3_reduce
I0403 14:58:25.357614 13949 net.cpp:141] Setting up conv2/3x3_reduce
I0403 14:58:25.357646 13949 net.cpp:148] Top shape: 24 64 56 56 (4816896)
I0403 14:58:25.357664 13949 net.cpp:156] Memory required for data: 226395168
I0403 14:58:25.357686 13949 layer_factory.hpp:77] Creating layer conv2/relu_3x3_reduce
I0403 14:58:25.357705 13949 net.cpp:91] Creating Layer conv2/relu_3x3_reduce
I0403 14:58:25.357722 13949 net.cpp:425] conv2/relu_3x3_reduce <- conv2/3x3_reduce
I0403 14:58:25.357740 13949 net.cpp:386] conv2/relu_3x3_reduce -> conv2/3x3_reduce (in-place)
I0403 14:58:25.358022 13949 net.cpp:141] Setting up conv2/relu_3x3_reduce
I0403 14:58:25.358052 13949 net.cpp:148] Top shape: 24 64 56 56 (4816896)
I0403 14:58:25.358069 13949 net.cpp:156] Memory required for data: 245662752
I0403 14:58:25.358086 13949 layer_factory.hpp:77] Creating layer conv2/3x3
I0403 14:58:25.358110 13949 net.cpp:91] Creating Layer conv2/3x3
I0403 14:58:25.358129 13949 net.cpp:425] conv2/3x3 <- conv2/3x3_reduce
I0403 14:58:25.358150 13949 net.cpp:399] conv2/3x3 -> conv2/3x3
I0403 14:58:25.360811 13949 net.cpp:141] Setting up conv2/3x3
I0403 14:58:25.360844 13949 net.cpp:148] Top shape: 24 192 56 56 (14450688)
I0403 14:58:25.360862 13949 net.cpp:156] Memory required for data: 303465504
I0403 14:58:25.360883 13949 layer_factory.hpp:77] Creating layer conv2/relu_3x3
I0403 14:58:25.360903 13949 net.cpp:91] Creating Layer conv2/relu_3x3
I0403 14:58:25.360919 13949 net.cpp:425] conv2/relu_3x3 <- conv2/3x3
I0403 14:58:25.360937 13949 net.cpp:386] conv2/relu_3x3 -> conv2/3x3 (in-place)
I0403 14:58:25.361119 13949 net.cpp:141] Setting up conv2/relu_3x3
I0403 14:58:25.361145 13949 net.cpp:148] Top shape: 24 192 56 56 (14450688)
I0403 14:58:25.361192 13949 net.cpp:156] Memory required for data: 361268256
I0403 14:58:25.361208 13949 layer_factory.hpp:77] Creating layer conv2/norm2
I0403 14:58:25.361232 13949 net.cpp:91] Creating Layer conv2/norm2
I0403 14:58:25.361248 13949 net.cpp:425] conv2/norm2 <- conv2/3x3
I0403 14:58:25.361268 13949 net.cpp:399] conv2/norm2 -> conv2/norm2
I0403 14:58:25.361575 13949 net.cpp:141] Setting up conv2/norm2
I0403 14:58:25.361603 13949 net.cpp:148] Top shape: 24 192 56 56 (14450688)
I0403 14:58:25.361619 13949 net.cpp:156] Memory required for data: 419071008
I0403 14:58:25.361634 13949 layer_factory.hpp:77] Creating layer pool2/3x3_s2
I0403 14:58:25.361655 13949 net.cpp:91] Creating Layer pool2/3x3_s2
I0403 14:58:25.361673 13949 net.cpp:425] pool2/3x3_s2 <- conv2/norm2
I0403 14:58:25.361691 13949 net.cpp:399] pool2/3x3_s2 -> pool2/3x3_s2
I0403 14:58:25.361749 13949 net.cpp:141] Setting up pool2/3x3_s2
I0403 14:58:25.361775 13949 net.cpp:148] Top shape: 24 192 28 28 (3612672)
I0403 14:58:25.361887 13949 net.cpp:156] Memory required for data: 433521696
I0403 14:58:25.361908 13949 layer_factory.hpp:77] Creating layer pool2/3x3_s2_pool2/3x3_s2_0_split
I0403 14:58:25.361927 13949 net.cpp:91] Creating Layer pool2/3x3_s2_pool2/3x3_s2_0_split
I0403 14:58:25.361943 13949 net.cpp:425] pool2/3x3_s2_pool2/3x3_s2_0_split <- pool2/3x3_s2
I0403 14:58:25.361964 13949 net.cpp:399] pool2/3x3_s2_pool2/3x3_s2_0_split -> pool2/3x3_s2_pool2/3x3_s2_0_split_0
I0403 14:58:25.361986 13949 net.cpp:399] pool2/3x3_s2_pool2/3x3_s2_0_split -> pool2/3x3_s2_pool2/3x3_s2_0_split_1
I0403 14:58:25.362006 13949 net.cpp:399] pool2/3x3_s2_pool2/3x3_s2_0_split -> pool2/3x3_s2_pool2/3x3_s2_0_split_2
I0403 14:58:25.362025 13949 net.cpp:399] pool2/3x3_s2_pool2/3x3_s2_0_split -> pool2/3x3_s2_pool2/3x3_s2_0_split_3
I0403 14:58:25.362099 13949 net.cpp:141] Setting up pool2/3x3_s2_pool2/3x3_s2_0_split
I0403 14:58:25.362125 13949 net.cpp:148] Top shape: 24 192 28 28 (3612672)
I0403 14:58:25.362143 13949 net.cpp:148] Top shape: 24 192 28 28 (3612672)
I0403 14:58:25.362159 13949 net.cpp:148] Top shape: 24 192 28 28 (3612672)
I0403 14:58:25.362174 13949 net.cpp:148] Top shape: 24 192 28 28 (3612672)
I0403 14:58:25.362187 13949 net.cpp:156] Memory required for data: 491324448
I0403 14:58:25.362201 13949 layer_factory.hpp:77] Creating layer inception_3a/1x1
I0403 14:58:25.362224 13949 net.cpp:91] Creating Layer inception_3a/1x1
I0403 14:58:25.362242 13949 net.cpp:425] inception_3a/1x1 <- pool2/3x3_s2_pool2/3x3_s2_0_split_0
I0403 14:58:25.362260 13949 net.cpp:399] inception_3a/1x1 -> inception_3a/1x1
I0403 14:58:25.363925 13949 net.cpp:141] Setting up inception_3a/1x1
I0403 14:58:25.363956 13949 net.cpp:148] Top shape: 24 64 28 28 (1204224)
I0403 14:58:25.363972 13949 net.cpp:156] Memory required for data: 496141344
I0403 14:58:25.363991 13949 layer_factory.hpp:77] Creating layer inception_3a/relu_1x1
I0403 14:58:25.364013 13949 net.cpp:91] Creating Layer inception_3a/relu_1x1
I0403 14:58:25.364030 13949 net.cpp:425] inception_3a/relu_1x1 <- inception_3a/1x1
I0403 14:58:25.364048 13949 net.cpp:386] inception_3a/relu_1x1 -> inception_3a/1x1 (in-place)
I0403 14:58:25.364226 13949 net.cpp:141] Setting up inception_3a/relu_1x1
I0403 14:58:25.364253 13949 net.cpp:148] Top shape: 24 64 28 28 (1204224)
I0403 14:58:25.364267 13949 net.cpp:156] Memory required for data: 500958240
I0403 14:58:25.364282 13949 layer_factory.hpp:77] Creating layer inception_3a/3x3_reduce
I0403 14:58:25.364306 13949 net.cpp:91] Creating Layer inception_3a/3x3_reduce
I0403 14:58:25.364325 13949 net.cpp:425] inception_3a/3x3_reduce <- pool2/3x3_s2_pool2/3x3_s2_0_split_1
I0403 14:58:25.364347 13949 net.cpp:399] inception_3a/3x3_reduce -> inception_3a/3x3_reduce
I0403 14:58:25.366169 13949 net.cpp:141] Setting up inception_3a/3x3_reduce
I0403 14:58:25.366201 13949 net.cpp:148] Top shape: 24 96 28 28 (1806336)
I0403 14:58:25.366217 13949 net.cpp:156] Memory required for data: 508183584
I0403 14:58:25.366240 13949 layer_factory.hpp:77] Creating layer inception_3a/relu_3x3_reduce
I0403 14:58:25.366276 13949 net.cpp:91] Creating Layer inception_3a/relu_3x3_reduce
I0403 14:58:25.366294 13949 net.cpp:425] inception_3a/relu_3x3_reduce <- inception_3a/3x3_reduce
I0403 14:58:25.366315 13949 net.cpp:386] inception_3a/relu_3x3_reduce -> inception_3a/3x3_reduce (in-place)
I0403 14:58:25.366497 13949 net.cpp:141] Setting up inception_3a/relu_3x3_reduce
I0403 14:58:25.366523 13949 net.cpp:148] Top shape: 24 96 28 28 (1806336)
I0403 14:58:25.366540 13949 net.cpp:156] Memory required for data: 515408928
I0403 14:58:25.366556 13949 layer_factory.hpp:77] Creating layer inception_3a/3x3
I0403 14:58:25.366580 13949 net.cpp:91] Creating Layer inception_3a/3x3
I0403 14:58:25.366597 13949 net.cpp:425] inception_3a/3x3 <- inception_3a/3x3_reduce
I0403 14:58:25.366619 13949 net.cpp:399] inception_3a/3x3 -> inception_3a/3x3
I0403 14:58:25.368343 13949 net.cpp:141] Setting up inception_3a/3x3
I0403 14:58:25.368376 13949 net.cpp:148] Top shape: 24 128 28 28 (2408448)
I0403 14:58:25.368393 13949 net.cpp:156] Memory required for data: 525042720
I0403 14:58:25.368412 13949 layer_factory.hpp:77] Creating layer inception_3a/relu_3x3
I0403 14:58:25.368429 13949 net.cpp:91] Creating Layer inception_3a/relu_3x3
I0403 14:58:25.368445 13949 net.cpp:425] inception_3a/relu_3x3 <- inception_3a/3x3
I0403 14:58:25.368464 13949 net.cpp:386] inception_3a/relu_3x3 -> inception_3a/3x3 (in-place)
I0403 14:58:25.368739 13949 net.cpp:141] Setting up inception_3a/relu_3x3
I0403 14:58:25.368768 13949 net.cpp:148] Top shape: 24 128 28 28 (2408448)
I0403 14:58:25.368783 13949 net.cpp:156] Memory required for data: 534676512
I0403 14:58:25.368799 13949 layer_factory.hpp:77] Creating layer inception_3a/5x5_reduce
I0403 14:58:25.368885 13949 net.cpp:91] Creating Layer inception_3a/5x5_reduce
I0403 14:58:25.368904 13949 net.cpp:425] inception_3a/5x5_reduce <- pool2/3x3_s2_pool2/3x3_s2_0_split_2
I0403 14:58:25.368924 13949 net.cpp:399] inception_3a/5x5_reduce -> inception_3a/5x5_reduce
I0403 14:58:25.369909 13949 net.cpp:141] Setting up inception_3a/5x5_reduce
I0403 14:58:25.369940 13949 net.cpp:148] Top shape: 24 16 28 28 (301056)
I0403 14:58:25.369956 13949 net.cpp:156] Memory required for data: 535880736
I0403 14:58:25.369976 13949 layer_factory.hpp:77] Creating layer inception_3a/relu_5x5_reduce
I0403 14:58:25.369994 13949 net.cpp:91] Creating Layer inception_3a/relu_5x5_reduce
I0403 14:58:25.370010 13949 net.cpp:425] inception_3a/relu_5x5_reduce <- inception_3a/5x5_reduce
I0403 14:58:25.370033 13949 net.cpp:386] inception_3a/relu_5x5_reduce -> inception_3a/5x5_reduce (in-place)
I0403 14:58:25.370334 13949 net.cpp:141] Setting up inception_3a/relu_5x5_reduce
I0403 14:58:25.370362 13949 net.cpp:148] Top shape: 24 16 28 28 (301056)
I0403 14:58:25.370378 13949 net.cpp:156] Memory required for data: 537084960
I0403 14:58:25.370393 13949 layer_factory.hpp:77] Creating layer inception_3a/5x5
I0403 14:58:25.370415 13949 net.cpp:91] Creating Layer inception_3a/5x5
I0403 14:58:25.370434 13949 net.cpp:425] inception_3a/5x5 <- inception_3a/5x5_reduce
I0403 14:58:25.370455 13949 net.cpp:399] inception_3a/5x5 -> inception_3a/5x5
I0403 14:58:25.371482 13949 net.cpp:141] Setting up inception_3a/5x5
I0403 14:58:25.371513 13949 net.cpp:148] Top shape: 24 32 28 28 (602112)
I0403 14:58:25.371531 13949 net.cpp:156] Memory required for data: 539493408
I0403 14:58:25.371556 13949 layer_factory.hpp:77] Creating layer inception_3a/relu_5x5
I0403 14:58:25.371574 13949 net.cpp:91] Creating Layer inception_3a/relu_5x5
I0403 14:58:25.371590 13949 net.cpp:425] inception_3a/relu_5x5 <- inception_3a/5x5
I0403 14:58:25.371611 13949 net.cpp:386] inception_3a/relu_5x5 -> inception_3a/5x5 (in-place)
I0403 14:58:25.371788 13949 net.cpp:141] Setting up inception_3a/relu_5x5
I0403 14:58:25.371824 13949 net.cpp:148] Top shape: 24 32 28 28 (602112)
I0403 14:58:25.371840 13949 net.cpp:156] Memory required for data: 541901856
I0403 14:58:25.371856 13949 layer_factory.hpp:77] Creating layer inception_3a/pool
I0403 14:58:25.371877 13949 net.cpp:91] Creating Layer inception_3a/pool
I0403 14:58:25.371898 13949 net.cpp:425] inception_3a/pool <- pool2/3x3_s2_pool2/3x3_s2_0_split_3
I0403 14:58:25.371937 13949 net.cpp:399] inception_3a/pool -> inception_3a/pool
I0403 14:58:25.371999 13949 net.cpp:141] Setting up inception_3a/pool
I0403 14:58:25.372022 13949 net.cpp:148] Top shape: 24 192 28 28 (3612672)
I0403 14:58:25.372037 13949 net.cpp:156] Memory required for data: 556352544
I0403 14:58:25.372052 13949 layer_factory.hpp:77] Creating layer inception_3a/pool_proj
I0403 14:58:25.372081 13949 net.cpp:91] Creating Layer inception_3a/pool_proj
I0403 14:58:25.372100 13949 net.cpp:425] inception_3a/pool_proj <- inception_3a/pool
I0403 14:58:25.372120 13949 net.cpp:399] inception_3a/pool_proj -> inception_3a/pool_proj
I0403 14:58:25.373132 13949 net.cpp:141] Setting up inception_3a/pool_proj
I0403 14:58:25.373162 13949 net.cpp:148] Top shape: 24 32 28 28 (602112)
I0403 14:58:25.373178 13949 net.cpp:156] Memory required for data: 558760992
I0403 14:58:25.373203 13949 layer_factory.hpp:77] Creating layer inception_3a/relu_pool_proj
I0403 14:58:25.373224 13949 net.cpp:91] Creating Layer inception_3a/relu_pool_proj
I0403 14:58:25.373241 13949 net.cpp:425] inception_3a/relu_pool_proj <- inception_3a/pool_proj
I0403 14:58:25.373261 13949 net.cpp:386] inception_3a/relu_pool_proj -> inception_3a/pool_proj (in-place)
I0403 14:58:25.373549 13949 net.cpp:141] Setting up inception_3a/relu_pool_proj
I0403 14:58:25.373580 13949 net.cpp:148] Top shape: 24 32 28 28 (602112)
I0403 14:58:25.373607 13949 net.cpp:156] Memory required for data: 561169440
I0403 14:58:25.373622 13949 layer_factory.hpp:77] Creating layer inception_3a/output
I0403 14:58:25.373641 13949 net.cpp:91] Creating Layer inception_3a/output
I0403 14:58:25.373657 13949 net.cpp:425] inception_3a/output <- inception_3a/1x1
I0403 14:58:25.373674 13949 net.cpp:425] inception_3a/output <- inception_3a/3x3
I0403 14:58:25.373692 13949 net.cpp:425] inception_3a/output <- inception_3a/5x5
I0403 14:58:25.373708 13949 net.cpp:425] inception_3a/output <- inception_3a/pool_proj
I0403 14:58:25.373728 13949 net.cpp:399] inception_3a/output -> inception_3a/output
I0403 14:58:25.373776 13949 net.cpp:141] Setting up inception_3a/output
I0403 14:58:25.373801 13949 net.cpp:148] Top shape: 24 256 28 28 (4816896)
I0403 14:58:25.373817 13949 net.cpp:156] Memory required for data: 580437024
I0403 14:58:25.373843 13949 layer_factory.hpp:77] Creating layer inception_3a/output_inception_3a/output_0_split
I0403 14:58:25.373863 13949 net.cpp:91] Creating Layer inception_3a/output_inception_3a/output_0_split
I0403 14:58:25.373881 13949 net.cpp:425] inception_3a/output_inception_3a/output_0_split <- inception_3a/output
I0403 14:58:25.373898 13949 net.cpp:399] inception_3a/output_inception_3a/output_0_split -> inception_3a/output_inception_3a/output_0_split_0
I0403 14:58:25.373919 13949 net.cpp:399] inception_3a/output_inception_3a/output_0_split -> inception_3a/output_inception_3a/output_0_split_1
I0403 14:58:25.373944 13949 net.cpp:399] inception_3a/output_inception_3a/output_0_split -> inception_3a/output_inception_3a/output_0_split_2
I0403 14:58:25.373966 13949 net.cpp:399] inception_3a/output_inception_3a/output_0_split -> inception_3a/output_inception_3a/output_0_split_3
I0403 14:58:25.374039 13949 net.cpp:141] Setting up inception_3a/output_inception_3a/output_0_split
I0403 14:58:25.374064 13949 net.cpp:148] Top shape: 24 256 28 28 (4816896)
I0403 14:58:25.374083 13949 net.cpp:148] Top shape: 24 256 28 28 (4816896)
I0403 14:58:25.374097 13949 net.cpp:148] Top shape: 24 256 28 28 (4816896)
I0403 14:58:25.374112 13949 net.cpp:148] Top shape: 24 256 28 28 (4816896)
I0403 14:58:25.374126 13949 net.cpp:156] Memory required for data: 657507360
I0403 14:58:25.374140 13949 layer_factory.hpp:77] Creating layer inception_3b/1x1
I0403 14:58:25.374162 13949 net.cpp:91] Creating Layer inception_3b/1x1
I0403 14:58:25.374181 13949 net.cpp:425] inception_3b/1x1 <- inception_3a/output_inception_3a/output_0_split_0
I0403 14:58:25.374199 13949 net.cpp:399] inception_3b/1x1 -> inception_3b/1x1
I0403 14:58:25.375356 13949 net.cpp:141] Setting up inception_3b/1x1
I0403 14:58:25.375396 13949 net.cpp:148] Top shape: 24 128 28 28 (2408448)
I0403 14:58:25.375413 13949 net.cpp:156] Memory required for data: 667141152
I0403 14:58:25.375432 13949 layer_factory.hpp:77] Creating layer inception_3b/relu_1x1
I0403 14:58:25.375452 13949 net.cpp:91] Creating Layer inception_3b/relu_1x1
I0403 14:58:25.375470 13949 net.cpp:425] inception_3b/relu_1x1 <- inception_3b/1x1
I0403 14:58:25.375488 13949 net.cpp:386] inception_3b/relu_1x1 -> inception_3b/1x1 (in-place)
I0403 14:58:25.375669 13949 net.cpp:141] Setting up inception_3b/relu_1x1
I0403 14:58:25.375699 13949 net.cpp:148] Top shape: 24 128 28 28 (2408448)
I0403 14:58:25.375716 13949 net.cpp:156] Memory required for data: 676774944
I0403 14:58:25.375730 13949 layer_factory.hpp:77] Creating layer inception_3b/3x3_reduce
I0403 14:58:25.375753 13949 net.cpp:91] Creating Layer inception_3b/3x3_reduce
I0403 14:58:25.375771 13949 net.cpp:425] inception_3b/3x3_reduce <- inception_3a/output_inception_3a/output_0_split_1
I0403 14:58:25.375792 13949 net.cpp:399] inception_3b/3x3_reduce -> inception_3b/3x3_reduce
I0403 14:58:25.376937 13949 net.cpp:141] Setting up inception_3b/3x3_reduce
I0403 14:58:25.376965 13949 net.cpp:148] Top shape: 24 128 28 28 (2408448)
I0403 14:58:25.376981 13949 net.cpp:156] Memory required for data: 686408736
I0403 14:58:25.377001 13949 layer_factory.hpp:77] Creating layer inception_3b/relu_3x3_reduce
I0403 14:58:25.377022 13949 net.cpp:91] Creating Layer inception_3b/relu_3x3_reduce
I0403 14:58:25.377039 13949 net.cpp:425] inception_3b/relu_3x3_reduce <- inception_3b/3x3_reduce
I0403 14:58:25.377056 13949 net.cpp:386] inception_3b/relu_3x3_reduce -> inception_3b/3x3_reduce (in-place)
I0403 14:58:25.377231 13949 net.cpp:141] Setting up inception_3b/relu_3x3_reduce
I0403 14:58:25.377257 13949 net.cpp:148] Top shape: 24 128 28 28 (2408448)
I0403 14:58:25.377274 13949 net.cpp:156] Memory required for data: 696042528
I0403 14:58:25.377287 13949 layer_factory.hpp:77] Creating layer inception_3b/3x3
I0403 14:58:25.377312 13949 net.cpp:91] Creating Layer inception_3b/3x3
I0403 14:58:25.377331 13949 net.cpp:425] inception_3b/3x3 <- inception_3b/3x3_reduce
I0403 14:58:25.377352 13949 net.cpp:399] inception_3b/3x3 -> inception_3b/3x3
I0403 14:58:25.380313 13949 net.cpp:141] Setting up inception_3b/3x3
I0403 14:58:25.380345 13949 net.cpp:148] Top shape: 24 192 28 28 (3612672)
I0403 14:58:25.380362 13949 net.cpp:156] Memory required for data: 710493216
I0403 14:58:25.380381 13949 layer_factory.hpp:77] Creating layer inception_3b/relu_3x3
I0403 14:58:25.380400 13949 net.cpp:91] Creating Layer inception_3b/relu_3x3
I0403 14:58:25.380417 13949 net.cpp:425] inception_3b/relu_3x3 <- inception_3b/3x3
I0403 14:58:25.380437 13949 net.cpp:386] inception_3b/relu_3x3 -> inception_3b/3x3 (in-place)
I0403 14:58:25.380722 13949 net.cpp:141] Setting up inception_3b/relu_3x3
I0403 14:58:25.380750 13949 net.cpp:148] Top shape: 24 192 28 28 (3612672)
I0403 14:58:25.380766 13949 net.cpp:156] Memory required for data: 724943904
I0403 14:58:25.380782 13949 layer_factory.hpp:77] Creating layer inception_3b/5x5_reduce
I0403 14:58:25.380806 13949 net.cpp:91] Creating Layer inception_3b/5x5_reduce
I0403 14:58:25.380825 13949 net.cpp:425] inception_3b/5x5_reduce <- inception_3a/output_inception_3a/output_0_split_2
I0403 14:58:25.380844 13949 net.cpp:399] inception_3b/5x5_reduce -> inception_3b/5x5_reduce
I0403 14:58:25.381844 13949 net.cpp:141] Setting up inception_3b/5x5_reduce
I0403 14:58:25.381875 13949 net.cpp:148] Top shape: 24 32 28 28 (602112)
I0403 14:58:25.381891 13949 net.cpp:156] Memory required for data: 727352352
I0403 14:58:25.381911 13949 layer_factory.hpp:77] Creating layer inception_3b/relu_5x5_reduce
I0403 14:58:25.381929 13949 net.cpp:91] Creating Layer inception_3b/relu_5x5_reduce
I0403 14:58:25.381945 13949 net.cpp:425] inception_3b/relu_5x5_reduce <- inception_3b/5x5_reduce
I0403 14:58:25.381965 13949 net.cpp:386] inception_3b/relu_5x5_reduce -> inception_3b/5x5_reduce (in-place)
I0403 14:58:25.382141 13949 net.cpp:141] Setting up inception_3b/relu_5x5_reduce
I0403 14:58:25.382179 13949 net.cpp:148] Top shape: 24 32 28 28 (602112)
I0403 14:58:25.382195 13949 net.cpp:156] Memory required for data: 729760800
I0403 14:58:25.382210 13949 layer_factory.hpp:77] Creating layer inception_3b/5x5
I0403 14:58:25.382233 13949 net.cpp:91] Creating Layer inception_3b/5x5
I0403 14:58:25.382251 13949 net.cpp:425] inception_3b/5x5 <- inception_3b/5x5_reduce
I0403 14:58:25.382273 13949 net.cpp:399] inception_3b/5x5 -> inception_3b/5x5
I0403 14:58:25.384274 13949 net.cpp:141] Setting up inception_3b/5x5
I0403 14:58:25.384305 13949 net.cpp:148] Top shape: 24 96 28 28 (1806336)
I0403 14:58:25.384322 13949 net.cpp:156] Memory required for data: 736986144
I0403 14:58:25.384341 13949 layer_factory.hpp:77] Creating layer inception_3b/relu_5x5
I0403 14:58:25.384363 13949 net.cpp:91] Creating Layer inception_3b/relu_5x5
I0403 14:58:25.384382 13949 net.cpp:425] inception_3b/relu_5x5 <- inception_3b/5x5
I0403 14:58:25.384399 13949 net.cpp:386] inception_3b/relu_5x5 -> inception_3b/5x5 (in-place)
I0403 14:58:25.384604 13949 net.cpp:141] Setting up inception_3b/relu_5x5
I0403 14:58:25.384631 13949 net.cpp:148] Top shape: 24 96 28 28 (1806336)
I0403 14:58:25.384647 13949 net.cpp:156] Memory required for data: 744211488
I0403 14:58:25.384661 13949 layer_factory.hpp:77] Creating layer inception_3b/pool
I0403 14:58:25.384680 13949 net.cpp:91] Creating Layer inception_3b/pool
I0403 14:58:25.384696 13949 net.cpp:425] inception_3b/pool <- inception_3a/output_inception_3a/output_0_split_3
I0403 14:58:25.384716 13949 net.cpp:399] inception_3b/pool -> inception_3b/pool
I0403 14:58:25.384773 13949 net.cpp:141] Setting up inception_3b/pool
I0403 14:58:25.384796 13949 net.cpp:148] Top shape: 24 256 28 28 (4816896)
I0403 14:58:25.384810 13949 net.cpp:156] Memory required for data: 763479072
I0403 14:58:25.384825 13949 layer_factory.hpp:77] Creating layer inception_3b/pool_proj
I0403 14:58:25.384848 13949 net.cpp:91] Creating Layer inception_3b/pool_proj
I0403 14:58:25.384870 13949 net.cpp:425] inception_3b/pool_proj <- inception_3b/pool
I0403 14:58:25.384888 13949 net.cpp:399] inception_3b/pool_proj -> inception_3b/pool_proj
I0403 14:58:25.385958 13949 net.cpp:141] Setting up inception_3b/pool_proj
I0403 14:58:25.385987 13949 net.cpp:148] Top shape: 24 64 28 28 (1204224)
I0403 14:58:25.386003 13949 net.cpp:156] Memory required for data: 768295968
I0403 14:58:25.386020 13949 layer_factory.hpp:77] Creating layer inception_3b/relu_pool_proj
I0403 14:58:25.386039 13949 net.cpp:91] Creating Layer inception_3b/relu_pool_proj
I0403 14:58:25.386056 13949 net.cpp:425] inception_3b/relu_pool_proj <- inception_3b/pool_proj
I0403 14:58:25.386077 13949 net.cpp:386] inception_3b/relu_pool_proj -> inception_3b/pool_proj (in-place)
I0403 14:58:25.386493 13949 net.cpp:141] Setting up inception_3b/relu_pool_proj
I0403 14:58:25.386520 13949 net.cpp:148] Top shape: 24 64 28 28 (1204224)
I0403 14:58:25.386540 13949 net.cpp:156] Memory required for data: 773112864
I0403 14:58:25.386557 13949 layer_factory.hpp:77] Creating layer inception_3b/output
I0403 14:58:25.386575 13949 net.cpp:91] Creating Layer inception_3b/output
I0403 14:58:25.386592 13949 net.cpp:425] inception_3b/output <- inception_3b/1x1
I0403 14:58:25.386610 13949 net.cpp:425] inception_3b/output <- inception_3b/3x3
I0403 14:58:25.386626 13949 net.cpp:425] inception_3b/output <- inception_3b/5x5
I0403 14:58:25.386643 13949 net.cpp:425] inception_3b/output <- inception_3b/pool_proj
I0403 14:58:25.386663 13949 net.cpp:399] inception_3b/output -> inception_3b/output
I0403 14:58:25.386708 13949 net.cpp:141] Setting up inception_3b/output
I0403 14:58:25.386734 13949 net.cpp:148] Top shape: 24 480 28 28 (9031680)
I0403 14:58:25.386750 13949 net.cpp:156] Memory required for data: 809239584
I0403 14:58:25.386765 13949 layer_factory.hpp:77] Creating layer pool3/3x3_s2
I0403 14:58:25.386783 13949 net.cpp:91] Creating Layer pool3/3x3_s2
I0403 14:58:25.386800 13949 net.cpp:425] pool3/3x3_s2 <- inception_3b/output
I0403 14:58:25.386821 13949 net.cpp:399] pool3/3x3_s2 -> pool3/3x3_s2
I0403 14:58:25.386893 13949 net.cpp:141] Setting up pool3/3x3_s2
I0403 14:58:25.386917 13949 net.cpp:148] Top shape: 24 480 14 14 (2257920)
I0403 14:58:25.386932 13949 net.cpp:156] Memory required for data: 818271264
I0403 14:58:25.386946 13949 layer_factory.hpp:77] Creating layer pool3/3x3_s2_pool3/3x3_s2_0_split
I0403 14:58:25.386966 13949 net.cpp:91] Creating Layer pool3/3x3_s2_pool3/3x3_s2_0_split
I0403 14:58:25.386983 13949 net.cpp:425] pool3/3x3_s2_pool3/3x3_s2_0_split <- pool3/3x3_s2
I0403 14:58:25.387001 13949 net.cpp:399] pool3/3x3_s2_pool3/3x3_s2_0_split -> pool3/3x3_s2_pool3/3x3_s2_0_split_0
I0403 14:58:25.387020 13949 net.cpp:399] pool3/3x3_s2_pool3/3x3_s2_0_split -> pool3/3x3_s2_pool3/3x3_s2_0_split_1
I0403 14:58:25.387040 13949 net.cpp:399] pool3/3x3_s2_pool3/3x3_s2_0_split -> pool3/3x3_s2_pool3/3x3_s2_0_split_2
I0403 14:58:25.387060 13949 net.cpp:399] pool3/3x3_s2_pool3/3x3_s2_0_split -> pool3/3x3_s2_pool3/3x3_s2_0_split_3
I0403 14:58:25.387137 13949 net.cpp:141] Setting up pool3/3x3_s2_pool3/3x3_s2_0_split
I0403 14:58:25.387161 13949 net.cpp:148] Top shape: 24 480 14 14 (2257920)
I0403 14:58:25.387177 13949 net.cpp:148] Top shape: 24 480 14 14 (2257920)
I0403 14:58:25.387193 13949 net.cpp:148] Top shape: 24 480 14 14 (2257920)
I0403 14:58:25.387209 13949 net.cpp:148] Top shape: 24 480 14 14 (2257920)
I0403 14:58:25.387223 13949 net.cpp:156] Memory required for data: 854397984
I0403 14:58:25.387238 13949 layer_factory.hpp:77] Creating layer inception_4a/1x1
I0403 14:58:25.387260 13949 net.cpp:91] Creating Layer inception_4a/1x1
I0403 14:58:25.387279 13949 net.cpp:425] inception_4a/1x1 <- pool3/3x3_s2_pool3/3x3_s2_0_split_0
I0403 14:58:25.387302 13949 net.cpp:399] inception_4a/1x1 -> inception_4a/1x1
I0403 14:58:25.388882 13949 net.cpp:141] Setting up inception_4a/1x1
I0403 14:58:25.388911 13949 net.cpp:148] Top shape: 24 192 14 14 (903168)
I0403 14:58:25.388926 13949 net.cpp:156] Memory required for data: 858010656
I0403 14:58:25.388943 13949 layer_factory.hpp:77] Creating layer inception_4a/relu_1x1
I0403 14:58:25.388963 13949 net.cpp:91] Creating Layer inception_4a/relu_1x1
I0403 14:58:25.388980 13949 net.cpp:425] inception_4a/relu_1x1 <- inception_4a/1x1
I0403 14:58:25.388998 13949 net.cpp:386] inception_4a/relu_1x1 -> inception_4a/1x1 (in-place)
I0403 14:58:25.389171 13949 net.cpp:141] Setting up inception_4a/relu_1x1
I0403 14:58:25.389199 13949 net.cpp:148] Top shape: 24 192 14 14 (903168)
I0403 14:58:25.389214 13949 net.cpp:156] Memory required for data: 861623328
I0403 14:58:25.389228 13949 layer_factory.hpp:77] Creating layer inception_4a/3x3_reduce
I0403 14:58:25.389247 13949 net.cpp:91] Creating Layer inception_4a/3x3_reduce
I0403 14:58:25.389264 13949 net.cpp:425] inception_4a/3x3_reduce <- pool3/3x3_s2_pool3/3x3_s2_0_split_1
I0403 14:58:25.389297 13949 net.cpp:399] inception_4a/3x3_reduce -> inception_4a/3x3_reduce
I0403 14:58:25.390527 13949 net.cpp:141] Setting up inception_4a/3x3_reduce
I0403 14:58:25.390558 13949 net.cpp:148] Top shape: 24 96 14 14 (451584)
I0403 14:58:25.390573 13949 net.cpp:156] Memory required for data: 863429664
I0403 14:58:25.390597 13949 layer_factory.hpp:77] Creating layer inception_4a/relu_3x3_reduce
I0403 14:58:25.390617 13949 net.cpp:91] Creating Layer inception_4a/relu_3x3_reduce
I0403 14:58:25.390633 13949 net.cpp:425] inception_4a/relu_3x3_reduce <- inception_4a/3x3_reduce
I0403 14:58:25.390652 13949 net.cpp:386] inception_4a/relu_3x3_reduce -> inception_4a/3x3_reduce (in-place)
I0403 14:58:25.390827 13949 net.cpp:141] Setting up inception_4a/relu_3x3_reduce
I0403 14:58:25.390851 13949 net.cpp:148] Top shape: 24 96 14 14 (451584)
I0403 14:58:25.390866 13949 net.cpp:156] Memory required for data: 865236000
I0403 14:58:25.390879 13949 layer_factory.hpp:77] Creating layer inception_4a/3x3
I0403 14:58:25.390900 13949 net.cpp:91] Creating Layer inception_4a/3x3
I0403 14:58:25.390918 13949 net.cpp:425] inception_4a/3x3 <- inception_4a/3x3_reduce
I0403 14:58:25.390938 13949 net.cpp:399] inception_4a/3x3 -> inception_4a/3x3
I0403 14:58:25.393504 13949 net.cpp:141] Setting up inception_4a/3x3
I0403 14:58:25.393533 13949 net.cpp:148] Top shape: 24 208 14 14 (978432)
I0403 14:58:25.393553 13949 net.cpp:156] Memory required for data: 869149728
I0403 14:58:25.393571 13949 layer_factory.hpp:77] Creating layer inception_4a/relu_3x3
I0403 14:58:25.393591 13949 net.cpp:91] Creating Layer inception_4a/relu_3x3
I0403 14:58:25.393609 13949 net.cpp:425] inception_4a/relu_3x3 <- inception_4a/3x3
I0403 14:58:25.393625 13949 net.cpp:386] inception_4a/relu_3x3 -> inception_4a/3x3 (in-place)
I0403 14:58:25.393890 13949 net.cpp:141] Setting up inception_4a/relu_3x3
I0403 14:58:25.393916 13949 net.cpp:148] Top shape: 24 208 14 14 (978432)
I0403 14:58:25.393930 13949 net.cpp:156] Memory required for data: 873063456
I0403 14:58:25.393945 13949 layer_factory.hpp:77] Creating layer inception_4a/5x5_reduce
I0403 14:58:25.393970 13949 net.cpp:91] Creating Layer inception_4a/5x5_reduce
I0403 14:58:25.393986 13949 net.cpp:425] inception_4a/5x5_reduce <- pool3/3x3_s2_pool3/3x3_s2_0_split_2
I0403 14:58:25.394004 13949 net.cpp:399] inception_4a/5x5_reduce -> inception_4a/5x5_reduce
I0403 14:58:25.394992 13949 net.cpp:141] Setting up inception_4a/5x5_reduce
I0403 14:58:25.395021 13949 net.cpp:148] Top shape: 24 16 14 14 (75264)
I0403 14:58:25.395036 13949 net.cpp:156] Memory required for data: 873364512
I0403 14:58:25.395054 13949 layer_factory.hpp:77] Creating layer inception_4a/relu_5x5_reduce
I0403 14:58:25.395071 13949 net.cpp:91] Creating Layer inception_4a/relu_5x5_reduce
I0403 14:58:25.395087 13949 net.cpp:425] inception_4a/relu_5x5_reduce <- inception_4a/5x5_reduce
I0403 14:58:25.395107 13949 net.cpp:386] inception_4a/relu_5x5_reduce -> inception_4a/5x5_reduce (in-place)
I0403 14:58:25.395277 13949 net.cpp:141] Setting up inception_4a/relu_5x5_reduce
I0403 14:58:25.395303 13949 net.cpp:148] Top shape: 24 16 14 14 (75264)
I0403 14:58:25.395318 13949 net.cpp:156] Memory required for data: 873665568
I0403 14:58:25.395333 13949 layer_factory.hpp:77] Creating layer inception_4a/5x5
I0403 14:58:25.395354 13949 net.cpp:91] Creating Layer inception_4a/5x5
I0403 14:58:25.395371 13949 net.cpp:425] inception_4a/5x5 <- inception_4a/5x5_reduce
I0403 14:58:25.395391 13949 net.cpp:399] inception_4a/5x5 -> inception_4a/5x5
I0403 14:58:25.396435 13949 net.cpp:141] Setting up inception_4a/5x5
I0403 14:58:25.396462 13949 net.cpp:148] Top shape: 24 48 14 14 (225792)
I0403 14:58:25.396477 13949 net.cpp:156] Memory required for data: 874568736
I0403 14:58:25.396494 13949 layer_factory.hpp:77] Creating layer inception_4a/relu_5x5
I0403 14:58:25.396512 13949 net.cpp:91] Creating Layer inception_4a/relu_5x5
I0403 14:58:25.396531 13949 net.cpp:425] inception_4a/relu_5x5 <- inception_4a/5x5
I0403 14:58:25.396553 13949 net.cpp:386] inception_4a/relu_5x5 -> inception_4a/5x5 (in-place)
I0403 14:58:25.396725 13949 net.cpp:141] Setting up inception_4a/relu_5x5
I0403 14:58:25.396749 13949 net.cpp:148] Top shape: 24 48 14 14 (225792)
I0403 14:58:25.396764 13949 net.cpp:156] Memory required for data: 875471904
I0403 14:58:25.396777 13949 layer_factory.hpp:77] Creating layer inception_4a/pool
I0403 14:58:25.396796 13949 net.cpp:91] Creating Layer inception_4a/pool
I0403 14:58:25.396812 13949 net.cpp:425] inception_4a/pool <- pool3/3x3_s2_pool3/3x3_s2_0_split_3
I0403 14:58:25.396829 13949 net.cpp:399] inception_4a/pool -> inception_4a/pool
I0403 14:58:25.396888 13949 net.cpp:141] Setting up inception_4a/pool
I0403 14:58:25.396911 13949 net.cpp:148] Top shape: 24 480 14 14 (2257920)
I0403 14:58:25.396925 13949 net.cpp:156] Memory required for data: 884503584
I0403 14:58:25.396939 13949 layer_factory.hpp:77] Creating layer inception_4a/pool_proj
I0403 14:58:25.396960 13949 net.cpp:91] Creating Layer inception_4a/pool_proj
I0403 14:58:25.396976 13949 net.cpp:425] inception_4a/pool_proj <- inception_4a/pool
I0403 14:58:25.396996 13949 net.cpp:399] inception_4a/pool_proj -> inception_4a/pool_proj
I0403 14:58:25.398123 13949 net.cpp:141] Setting up inception_4a/pool_proj
I0403 14:58:25.398150 13949 net.cpp:148] Top shape: 24 64 14 14 (301056)
I0403 14:58:25.398180 13949 net.cpp:156] Memory required for data: 885707808
I0403 14:58:25.398198 13949 layer_factory.hpp:77] Creating layer inception_4a/relu_pool_proj
I0403 14:58:25.398219 13949 net.cpp:91] Creating Layer inception_4a/relu_pool_proj
I0403 14:58:25.398236 13949 net.cpp:425] inception_4a/relu_pool_proj <- inception_4a/pool_proj
I0403 14:58:25.398253 13949 net.cpp:386] inception_4a/relu_pool_proj -> inception_4a/pool_proj (in-place)
I0403 14:58:25.398524 13949 net.cpp:141] Setting up inception_4a/relu_pool_proj
I0403 14:58:25.398553 13949 net.cpp:148] Top shape: 24 64 14 14 (301056)
I0403 14:58:25.398568 13949 net.cpp:156] Memory required for data: 886912032
I0403 14:58:25.398583 13949 layer_factory.hpp:77] Creating layer inception_4a/output
I0403 14:58:25.398599 13949 net.cpp:91] Creating Layer inception_4a/output
I0403 14:58:25.398614 13949 net.cpp:425] inception_4a/output <- inception_4a/1x1
I0403 14:58:25.398630 13949 net.cpp:425] inception_4a/output <- inception_4a/3x3
I0403 14:58:25.398649 13949 net.cpp:425] inception_4a/output <- inception_4a/5x5
I0403 14:58:25.398665 13949 net.cpp:425] inception_4a/output <- inception_4a/pool_proj
I0403 14:58:25.398682 13949 net.cpp:399] inception_4a/output -> inception_4a/output
I0403 14:58:25.398723 13949 net.cpp:141] Setting up inception_4a/output
I0403 14:58:25.398748 13949 net.cpp:148] Top shape: 24 512 14 14 (2408448)
I0403 14:58:25.398763 13949 net.cpp:156] Memory required for data: 896545824
I0403 14:58:25.398777 13949 layer_factory.hpp:77] Creating layer inception_4a/output_inception_4a/output_0_split
I0403 14:58:25.398793 13949 net.cpp:91] Creating Layer inception_4a/output_inception_4a/output_0_split
I0403 14:58:25.398809 13949 net.cpp:425] inception_4a/output_inception_4a/output_0_split <- inception_4a/output
I0403 14:58:25.398829 13949 net.cpp:399] inception_4a/output_inception_4a/output_0_split -> inception_4a/output_inception_4a/output_0_split_0
I0403 14:58:25.398850 13949 net.cpp:399] inception_4a/output_inception_4a/output_0_split -> inception_4a/output_inception_4a/output_0_split_1
I0403 14:58:25.398870 13949 net.cpp:399] inception_4a/output_inception_4a/output_0_split -> inception_4a/output_inception_4a/output_0_split_2
I0403 14:58:25.398890 13949 net.cpp:399] inception_4a/output_inception_4a/output_0_split -> inception_4a/output_inception_4a/output_0_split_3
I0403 14:58:25.398908 13949 net.cpp:399] inception_4a/output_inception_4a/output_0_split -> inception_4a/output_inception_4a/output_0_split_4
I0403 14:58:25.398996 13949 net.cpp:141] Setting up inception_4a/output_inception_4a/output_0_split
I0403 14:58:25.399019 13949 net.cpp:148] Top shape: 24 512 14 14 (2408448)
I0403 14:58:25.399037 13949 net.cpp:148] Top shape: 24 512 14 14 (2408448)
I0403 14:58:25.399054 13949 net.cpp:148] Top shape: 24 512 14 14 (2408448)
I0403 14:58:25.399068 13949 net.cpp:148] Top shape: 24 512 14 14 (2408448)
I0403 14:58:25.399082 13949 net.cpp:148] Top shape: 24 512 14 14 (2408448)
I0403 14:58:25.399096 13949 net.cpp:156] Memory required for data: 944714784
I0403 14:58:25.399109 13949 layer_factory.hpp:77] Creating layer loss1/ave_pool
I0403 14:58:25.399127 13949 net.cpp:91] Creating Layer loss1/ave_pool
I0403 14:58:25.399142 13949 net.cpp:425] loss1/ave_pool <- inception_4a/output_inception_4a/output_0_split_0
I0403 14:58:25.399161 13949 net.cpp:399] loss1/ave_pool -> loss1/ave_pool
I0403 14:58:25.399358 13949 net.cpp:141] Setting up loss1/ave_pool
I0403 14:58:25.399384 13949 net.cpp:148] Top shape: 24 512 4 4 (196608)
I0403 14:58:25.399399 13949 net.cpp:156] Memory required for data: 945501216
I0403 14:58:25.399412 13949 layer_factory.hpp:77] Creating layer loss1/conv
I0403 14:58:25.399435 13949 net.cpp:91] Creating Layer loss1/conv
I0403 14:58:25.399451 13949 net.cpp:425] loss1/conv <- loss1/ave_pool
I0403 14:58:25.399471 13949 net.cpp:399] loss1/conv -> loss1/conv
I0403 14:58:25.400888 13949 net.cpp:141] Setting up loss1/conv
I0403 14:58:25.400916 13949 net.cpp:148] Top shape: 24 128 4 4 (49152)
I0403 14:58:25.400931 13949 net.cpp:156] Memory required for data: 945697824
I0403 14:58:25.400965 13949 layer_factory.hpp:77] Creating layer loss1/relu_conv
I0403 14:58:25.400988 13949 net.cpp:91] Creating Layer loss1/relu_conv
I0403 14:58:25.401005 13949 net.cpp:425] loss1/relu_conv <- loss1/conv
I0403 14:58:25.401022 13949 net.cpp:386] loss1/relu_conv -> loss1/conv (in-place)
I0403 14:58:25.401327 13949 net.cpp:141] Setting up loss1/relu_conv
I0403 14:58:25.401365 13949 net.cpp:148] Top shape: 24 128 4 4 (49152)
I0403 14:58:25.401381 13949 net.cpp:156] Memory required for data: 945894432
I0403 14:58:25.401396 13949 layer_factory.hpp:77] Creating layer loss1/fc
I0403 14:58:25.401422 13949 net.cpp:91] Creating Layer loss1/fc
I0403 14:58:25.401440 13949 net.cpp:425] loss1/fc <- loss1/conv
I0403 14:58:25.401460 13949 net.cpp:399] loss1/fc -> loss1/fc
I0403 14:58:25.419452 13949 net.cpp:141] Setting up loss1/fc
I0403 14:58:25.419491 13949 net.cpp:148] Top shape: 24 1024 (24576)
I0403 14:58:25.419507 13949 net.cpp:156] Memory required for data: 945992736
I0403 14:58:25.419528 13949 layer_factory.hpp:77] Creating layer loss1/relu_fc
I0403 14:58:25.419551 13949 net.cpp:91] Creating Layer loss1/relu_fc
I0403 14:58:25.419569 13949 net.cpp:425] loss1/relu_fc <- loss1/fc
I0403 14:58:25.419590 13949 net.cpp:386] loss1/relu_fc -> loss1/fc (in-place)
I0403 14:58:25.419787 13949 net.cpp:141] Setting up loss1/relu_fc
I0403 14:58:25.419814 13949 net.cpp:148] Top shape: 24 1024 (24576)
I0403 14:58:25.419831 13949 net.cpp:156] Memory required for data: 946091040
I0403 14:58:25.419844 13949 layer_factory.hpp:77] Creating layer loss1/drop_fc
I0403 14:58:25.419872 13949 net.cpp:91] Creating Layer loss1/drop_fc
I0403 14:58:25.419889 13949 net.cpp:425] loss1/drop_fc <- loss1/fc
I0403 14:58:25.419906 13949 net.cpp:386] loss1/drop_fc -> loss1/fc (in-place)
I0403 14:58:25.419960 13949 net.cpp:141] Setting up loss1/drop_fc
I0403 14:58:25.419983 13949 net.cpp:148] Top shape: 24 1024 (24576)
I0403 14:58:25.419997 13949 net.cpp:156] Memory required for data: 946189344
I0403 14:58:25.420013 13949 layer_factory.hpp:77] Creating layer loss1/classifier_plantvillage
I0403 14:58:25.420032 13949 net.cpp:91] Creating Layer loss1/classifier_plantvillage
I0403 14:58:25.420047 13949 net.cpp:425] loss1/classifier_plantvillage <- loss1/fc
I0403 14:58:25.420068 13949 net.cpp:399] loss1/classifier_plantvillage -> loss1/classifier_plantvillage
I0403 14:58:25.421015 13949 net.cpp:141] Setting up loss1/classifier_plantvillage
I0403 14:58:25.421043 13949 net.cpp:148] Top shape: 24 38 (912)
I0403 14:58:25.421058 13949 net.cpp:156] Memory required for data: 946192992
I0403 14:58:25.421075 13949 layer_factory.hpp:77] Creating layer loss1/classifier_plantvillage_loss1/classifier_plantvillage_0_split
I0403 14:58:25.421097 13949 net.cpp:91] Creating Layer loss1/classifier_plantvillage_loss1/classifier_plantvillage_0_split
I0403 14:58:25.421113 13949 net.cpp:425] loss1/classifier_plantvillage_loss1/classifier_plantvillage_0_split <- loss1/classifier_plantvillage
I0403 14:58:25.421131 13949 net.cpp:399] loss1/classifier_plantvillage_loss1/classifier_plantvillage_0_split -> loss1/classifier_plantvillage_loss1/classifier_plantvillage_0_split_0
I0403 14:58:25.421151 13949 net.cpp:399] loss1/classifier_plantvillage_loss1/classifier_plantvillage_0_split -> loss1/classifier_plantvillage_loss1/classifier_plantvillage_0_split_1
I0403 14:58:25.421171 13949 net.cpp:399] loss1/classifier_plantvillage_loss1/classifier_plantvillage_0_split -> loss1/classifier_plantvillage_loss1/classifier_plantvillage_0_split_2
I0403 14:58:25.421241 13949 net.cpp:141] Setting up loss1/classifier_plantvillage_loss1/classifier_plantvillage_0_split
I0403 14:58:25.421264 13949 net.cpp:148] Top shape: 24 38 (912)
I0403 14:58:25.421280 13949 net.cpp:148] Top shape: 24 38 (912)
I0403 14:58:25.421298 13949 net.cpp:148] Top shape: 24 38 (912)
I0403 14:58:25.421314 13949 net.cpp:156] Memory required for data: 946203936
I0403 14:58:25.421327 13949 layer_factory.hpp:77] Creating layer inception_4b/1x1
I0403 14:58:25.421351 13949 net.cpp:91] Creating Layer inception_4b/1x1
I0403 14:58:25.421393 13949 net.cpp:425] inception_4b/1x1 <- inception_4a/output_inception_4a/output_0_split_1
I0403 14:58:25.421414 13949 net.cpp:399] inception_4b/1x1 -> inception_4b/1x1
I0403 14:58:25.423072 13949 net.cpp:141] Setting up inception_4b/1x1
I0403 14:58:25.423100 13949 net.cpp:148] Top shape: 24 160 14 14 (752640)
I0403 14:58:25.423116 13949 net.cpp:156] Memory required for data: 949214496
I0403 14:58:25.423135 13949 layer_factory.hpp:77] Creating layer inception_4b/relu_1x1
I0403 14:58:25.423156 13949 net.cpp:91] Creating Layer inception_4b/relu_1x1
I0403 14:58:25.423173 13949 net.cpp:425] inception_4b/relu_1x1 <- inception_4b/1x1
I0403 14:58:25.423190 13949 net.cpp:386] inception_4b/relu_1x1 -> inception_4b/1x1 (in-place)
I0403 14:58:25.423368 13949 net.cpp:141] Setting up inception_4b/relu_1x1
I0403 14:58:25.423393 13949 net.cpp:148] Top shape: 24 160 14 14 (752640)
I0403 14:58:25.423408 13949 net.cpp:156] Memory required for data: 952225056
I0403 14:58:25.423423 13949 layer_factory.hpp:77] Creating layer inception_4b/3x3_reduce
I0403 14:58:25.423446 13949 net.cpp:91] Creating Layer inception_4b/3x3_reduce
I0403 14:58:25.423465 13949 net.cpp:425] inception_4b/3x3_reduce <- inception_4a/output_inception_4a/output_0_split_2
I0403 14:58:25.423485 13949 net.cpp:399] inception_4b/3x3_reduce -> inception_4b/3x3_reduce
I0403 14:58:25.424846 13949 net.cpp:141] Setting up inception_4b/3x3_reduce
I0403 14:58:25.424875 13949 net.cpp:148] Top shape: 24 112 14 14 (526848)
I0403 14:58:25.424890 13949 net.cpp:156] Memory required for data: 954332448
I0403 14:58:25.424907 13949 layer_factory.hpp:77] Creating layer inception_4b/relu_3x3_reduce
I0403 14:58:25.424926 13949 net.cpp:91] Creating Layer inception_4b/relu_3x3_reduce
I0403 14:58:25.424942 13949 net.cpp:425] inception_4b/relu_3x3_reduce <- inception_4b/3x3_reduce
I0403 14:58:25.424962 13949 net.cpp:386] inception_4b/relu_3x3_reduce -> inception_4b/3x3_reduce (in-place)
I0403 14:58:25.425243 13949 net.cpp:141] Setting up inception_4b/relu_3x3_reduce
I0403 14:58:25.425271 13949 net.cpp:148] Top shape: 24 112 14 14 (526848)
I0403 14:58:25.425285 13949 net.cpp:156] Memory required for data: 956439840
I0403 14:58:25.425300 13949 layer_factory.hpp:77] Creating layer inception_4b/3x3
I0403 14:58:25.425323 13949 net.cpp:91] Creating Layer inception_4b/3x3
I0403 14:58:25.425340 13949 net.cpp:425] inception_4b/3x3 <- inception_4b/3x3_reduce
I0403 14:58:25.425361 13949 net.cpp:399] inception_4b/3x3 -> inception_4b/3x3
I0403 14:58:25.428370 13949 net.cpp:141] Setting up inception_4b/3x3
I0403 14:58:25.428400 13949 net.cpp:148] Top shape: 24 224 14 14 (1053696)
I0403 14:58:25.428416 13949 net.cpp:156] Memory required for data: 960654624
I0403 14:58:25.428436 13949 layer_factory.hpp:77] Creating layer inception_4b/relu_3x3
I0403 14:58:25.428457 13949 net.cpp:91] Creating Layer inception_4b/relu_3x3
I0403 14:58:25.428474 13949 net.cpp:425] inception_4b/relu_3x3 <- inception_4b/3x3
I0403 14:58:25.428493 13949 net.cpp:386] inception_4b/relu_3x3 -> inception_4b/3x3 (in-place)
I0403 14:58:25.428674 13949 net.cpp:141] Setting up inception_4b/relu_3x3
I0403 14:58:25.428702 13949 net.cpp:148] Top shape: 24 224 14 14 (1053696)
I0403 14:58:25.428717 13949 net.cpp:156] Memory required for data: 964869408
I0403 14:58:25.428731 13949 layer_factory.hpp:77] Creating layer inception_4b/5x5_reduce
I0403 14:58:25.428755 13949 net.cpp:91] Creating Layer inception_4b/5x5_reduce
I0403 14:58:25.428772 13949 net.cpp:425] inception_4b/5x5_reduce <- inception_4a/output_inception_4a/output_0_split_3
I0403 14:58:25.428792 13949 net.cpp:399] inception_4b/5x5_reduce -> inception_4b/5x5_reduce
I0403 14:58:25.429879 13949 net.cpp:141] Setting up inception_4b/5x5_reduce
I0403 14:58:25.429909 13949 net.cpp:148] Top shape: 24 24 14 14 (112896)
I0403 14:58:25.429926 13949 net.cpp:156] Memory required for data: 965320992
I0403 14:58:25.429945 13949 layer_factory.hpp:77] Creating layer inception_4b/relu_5x5_reduce
I0403 14:58:25.429963 13949 net.cpp:91] Creating Layer inception_4b/relu_5x5_reduce
I0403 14:58:25.429994 13949 net.cpp:425] inception_4b/relu_5x5_reduce <- inception_4b/5x5_reduce
I0403 14:58:25.430016 13949 net.cpp:386] inception_4b/relu_5x5_reduce -> inception_4b/5x5_reduce (in-place)
I0403 14:58:25.430199 13949 net.cpp:141] Setting up inception_4b/relu_5x5_reduce
I0403 14:58:25.430224 13949 net.cpp:148] Top shape: 24 24 14 14 (112896)
I0403 14:58:25.430239 13949 net.cpp:156] Memory required for data: 965772576
I0403 14:58:25.430253 13949 layer_factory.hpp:77] Creating layer inception_4b/5x5
I0403 14:58:25.430275 13949 net.cpp:91] Creating Layer inception_4b/5x5
I0403 14:58:25.430295 13949 net.cpp:425] inception_4b/5x5 <- inception_4b/5x5_reduce
I0403 14:58:25.430316 13949 net.cpp:399] inception_4b/5x5 -> inception_4b/5x5
I0403 14:58:25.431532 13949 net.cpp:141] Setting up inception_4b/5x5
I0403 14:58:25.431565 13949 net.cpp:148] Top shape: 24 64 14 14 (301056)
I0403 14:58:25.431581 13949 net.cpp:156] Memory required for data: 966976800
I0403 14:58:25.431598 13949 layer_factory.hpp:77] Creating layer inception_4b/relu_5x5
I0403 14:58:25.431619 13949 net.cpp:91] Creating Layer inception_4b/relu_5x5
I0403 14:58:25.431638 13949 net.cpp:425] inception_4b/relu_5x5 <- inception_4b/5x5
I0403 14:58:25.431655 13949 net.cpp:386] inception_4b/relu_5x5 -> inception_4b/5x5 (in-place)
I0403 14:58:25.431941 13949 net.cpp:141] Setting up inception_4b/relu_5x5
I0403 14:58:25.431967 13949 net.cpp:148] Top shape: 24 64 14 14 (301056)
I0403 14:58:25.431982 13949 net.cpp:156] Memory required for data: 968181024
I0403 14:58:25.431996 13949 layer_factory.hpp:77] Creating layer inception_4b/pool
I0403 14:58:25.432018 13949 net.cpp:91] Creating Layer inception_4b/pool
I0403 14:58:25.432034 13949 net.cpp:425] inception_4b/pool <- inception_4a/output_inception_4a/output_0_split_4
I0403 14:58:25.432055 13949 net.cpp:399] inception_4b/pool -> inception_4b/pool
I0403 14:58:25.432119 13949 net.cpp:141] Setting up inception_4b/pool
I0403 14:58:25.432143 13949 net.cpp:148] Top shape: 24 512 14 14 (2408448)
I0403 14:58:25.432158 13949 net.cpp:156] Memory required for data: 977814816
I0403 14:58:25.432173 13949 layer_factory.hpp:77] Creating layer inception_4b/pool_proj
I0403 14:58:25.432194 13949 net.cpp:91] Creating Layer inception_4b/pool_proj
I0403 14:58:25.432211 13949 net.cpp:425] inception_4b/pool_proj <- inception_4b/pool
I0403 14:58:25.432232 13949 net.cpp:399] inception_4b/pool_proj -> inception_4b/pool_proj
I0403 14:58:25.433437 13949 net.cpp:141] Setting up inception_4b/pool_proj
I0403 14:58:25.433467 13949 net.cpp:148] Top shape: 24 64 14 14 (301056)
I0403 14:58:25.433483 13949 net.cpp:156] Memory required for data: 979019040
I0403 14:58:25.433501 13949 layer_factory.hpp:77] Creating layer inception_4b/relu_pool_proj
I0403 14:58:25.433519 13949 net.cpp:91] Creating Layer inception_4b/relu_pool_proj
I0403 14:58:25.433539 13949 net.cpp:425] inception_4b/relu_pool_proj <- inception_4b/pool_proj
I0403 14:58:25.433562 13949 net.cpp:386] inception_4b/relu_pool_proj -> inception_4b/pool_proj (in-place)
I0403 14:58:25.433744 13949 net.cpp:141] Setting up inception_4b/relu_pool_proj
I0403 14:58:25.433769 13949 net.cpp:148] Top shape: 24 64 14 14 (301056)
I0403 14:58:25.433784 13949 net.cpp:156] Memory required for data: 980223264
I0403 14:58:25.433799 13949 layer_factory.hpp:77] Creating layer inception_4b/output
I0403 14:58:25.433815 13949 net.cpp:91] Creating Layer inception_4b/output
I0403 14:58:25.433831 13949 net.cpp:425] inception_4b/output <- inception_4b/1x1
I0403 14:58:25.433848 13949 net.cpp:425] inception_4b/output <- inception_4b/3x3
I0403 14:58:25.433864 13949 net.cpp:425] inception_4b/output <- inception_4b/5x5
I0403 14:58:25.433881 13949 net.cpp:425] inception_4b/output <- inception_4b/pool_proj
I0403 14:58:25.433900 13949 net.cpp:399] inception_4b/output -> inception_4b/output
I0403 14:58:25.433945 13949 net.cpp:141] Setting up inception_4b/output
I0403 14:58:25.433971 13949 net.cpp:148] Top shape: 24 512 14 14 (2408448)
I0403 14:58:25.433987 13949 net.cpp:156] Memory required for data: 989857056
I0403 14:58:25.434016 13949 layer_factory.hpp:77] Creating layer inception_4b/output_inception_4b/output_0_split
I0403 14:58:25.434034 13949 net.cpp:91] Creating Layer inception_4b/output_inception_4b/output_0_split
I0403 14:58:25.434051 13949 net.cpp:425] inception_4b/output_inception_4b/output_0_split <- inception_4b/output
I0403 14:58:25.434067 13949 net.cpp:399] inception_4b/output_inception_4b/output_0_split -> inception_4b/output_inception_4b/output_0_split_0
I0403 14:58:25.434090 13949 net.cpp:399] inception_4b/output_inception_4b/output_0_split -> inception_4b/output_inception_4b/output_0_split_1
I0403 14:58:25.434113 13949 net.cpp:399] inception_4b/output_inception_4b/output_0_split -> inception_4b/output_inception_4b/output_0_split_2
I0403 14:58:25.434133 13949 net.cpp:399] inception_4b/output_inception_4b/output_0_split -> inception_4b/output_inception_4b/output_0_split_3
I0403 14:58:25.434216 13949 net.cpp:141] Setting up inception_4b/output_inception_4b/output_0_split
I0403 14:58:25.434239 13949 net.cpp:148] Top shape: 24 512 14 14 (2408448)
I0403 14:58:25.434255 13949 net.cpp:148] Top shape: 24 512 14 14 (2408448)
I0403 14:58:25.434270 13949 net.cpp:148] Top shape: 24 512 14 14 (2408448)
I0403 14:58:25.434285 13949 net.cpp:148] Top shape: 24 512 14 14 (2408448)
I0403 14:58:25.434299 13949 net.cpp:156] Memory required for data: 1028392224
I0403 14:58:25.434314 13949 layer_factory.hpp:77] Creating layer inception_4c/1x1
I0403 14:58:25.434337 13949 net.cpp:91] Creating Layer inception_4c/1x1
I0403 14:58:25.434355 13949 net.cpp:425] inception_4c/1x1 <- inception_4b/output_inception_4b/output_0_split_0
I0403 14:58:25.434373 13949 net.cpp:399] inception_4c/1x1 -> inception_4c/1x1
I0403 14:58:25.435811 13949 net.cpp:141] Setting up inception_4c/1x1
I0403 14:58:25.435838 13949 net.cpp:148] Top shape: 24 128 14 14 (602112)
I0403 14:58:25.435854 13949 net.cpp:156] Memory required for data: 1030800672
I0403 14:58:25.435873 13949 layer_factory.hpp:77] Creating layer inception_4c/relu_1x1
I0403 14:58:25.435890 13949 net.cpp:91] Creating Layer inception_4c/relu_1x1
I0403 14:58:25.435907 13949 net.cpp:425] inception_4c/relu_1x1 <- inception_4c/1x1
I0403 14:58:25.435926 13949 net.cpp:386] inception_4c/relu_1x1 -> inception_4c/1x1 (in-place)
I0403 14:58:25.436108 13949 net.cpp:141] Setting up inception_4c/relu_1x1
I0403 14:58:25.436132 13949 net.cpp:148] Top shape: 24 128 14 14 (602112)
I0403 14:58:25.436147 13949 net.cpp:156] Memory required for data: 1033209120
I0403 14:58:25.436162 13949 layer_factory.hpp:77] Creating layer inception_4c/3x3_reduce
I0403 14:58:25.436184 13949 net.cpp:91] Creating Layer inception_4c/3x3_reduce
I0403 14:58:25.436202 13949 net.cpp:425] inception_4c/3x3_reduce <- inception_4b/output_inception_4b/output_0_split_1
I0403 14:58:25.436223 13949 net.cpp:399] inception_4c/3x3_reduce -> inception_4c/3x3_reduce
I0403 14:58:25.438158 13949 net.cpp:141] Setting up inception_4c/3x3_reduce
I0403 14:58:25.438189 13949 net.cpp:148] Top shape: 24 128 14 14 (602112)
I0403 14:58:25.438206 13949 net.cpp:156] Memory required for data: 1035617568
I0403 14:58:25.438225 13949 layer_factory.hpp:77] Creating layer inception_4c/relu_3x3_reduce
I0403 14:58:25.438243 13949 net.cpp:91] Creating Layer inception_4c/relu_3x3_reduce
I0403 14:58:25.438259 13949 net.cpp:425] inception_4c/relu_3x3_reduce <- inception_4c/3x3_reduce
I0403 14:58:25.438277 13949 net.cpp:386] inception_4c/relu_3x3_reduce -> inception_4c/3x3_reduce (in-place)
I0403 14:58:25.438566 13949 net.cpp:141] Setting up inception_4c/relu_3x3_reduce
I0403 14:58:25.438596 13949 net.cpp:148] Top shape: 24 128 14 14 (602112)
I0403 14:58:25.438611 13949 net.cpp:156] Memory required for data: 1038026016
I0403 14:58:25.438627 13949 layer_factory.hpp:77] Creating layer inception_4c/3x3
I0403 14:58:25.438647 13949 net.cpp:91] Creating Layer inception_4c/3x3
I0403 14:58:25.438663 13949 net.cpp:425] inception_4c/3x3 <- inception_4c/3x3_reduce
I0403 14:58:25.438685 13949 net.cpp:399] inception_4c/3x3 -> inception_4c/3x3
I0403 14:58:25.442294 13949 net.cpp:141] Setting up inception_4c/3x3
I0403 14:58:25.442339 13949 net.cpp:148] Top shape: 24 256 14 14 (1204224)
I0403 14:58:25.442358 13949 net.cpp:156] Memory required for data: 1042842912
I0403 14:58:25.442390 13949 layer_factory.hpp:77] Creating layer inception_4c/relu_3x3
I0403 14:58:25.442411 13949 net.cpp:91] Creating Layer inception_4c/relu_3x3
I0403 14:58:25.442428 13949 net.cpp:425] inception_4c/relu_3x3 <- inception_4c/3x3
I0403 14:58:25.442448 13949 net.cpp:386] inception_4c/relu_3x3 -> inception_4c/3x3 (in-place)
I0403 14:58:25.442632 13949 net.cpp:141] Setting up inception_4c/relu_3x3
I0403 14:58:25.442661 13949 net.cpp:148] Top shape: 24 256 14 14 (1204224)
I0403 14:58:25.442675 13949 net.cpp:156] Memory required for data: 1047659808
I0403 14:58:25.442690 13949 layer_factory.hpp:77] Creating layer inception_4c/5x5_reduce
I0403 14:58:25.442713 13949 net.cpp:91] Creating Layer inception_4c/5x5_reduce
I0403 14:58:25.442730 13949 net.cpp:425] inception_4c/5x5_reduce <- inception_4b/output_inception_4b/output_0_split_2
I0403 14:58:25.442750 13949 net.cpp:399] inception_4c/5x5_reduce -> inception_4c/5x5_reduce
I0403 14:58:25.443831 13949 net.cpp:141] Setting up inception_4c/5x5_reduce
I0403 14:58:25.443861 13949 net.cpp:148] Top shape: 24 24 14 14 (112896)
I0403 14:58:25.443878 13949 net.cpp:156] Memory required for data: 1048111392
I0403 14:58:25.443897 13949 layer_factory.hpp:77] Creating layer inception_4c/relu_5x5_reduce
I0403 14:58:25.443915 13949 net.cpp:91] Creating Layer inception_4c/relu_5x5_reduce
I0403 14:58:25.443933 13949 net.cpp:425] inception_4c/relu_5x5_reduce <- inception_4c/5x5_reduce
I0403 14:58:25.443950 13949 net.cpp:386] inception_4c/relu_5x5_reduce -> inception_4c/5x5_reduce (in-place)
I0403 14:58:25.444139 13949 net.cpp:141] Setting up inception_4c/relu_5x5_reduce
I0403 14:58:25.444164 13949 net.cpp:148] Top shape: 24 24 14 14 (112896)
I0403 14:58:25.444178 13949 net.cpp:156] Memory required for data: 1048562976
I0403 14:58:25.444193 13949 layer_factory.hpp:77] Creating layer inception_4c/5x5
I0403 14:58:25.444214 13949 net.cpp:91] Creating Layer inception_4c/5x5
I0403 14:58:25.444232 13949 net.cpp:425] inception_4c/5x5 <- inception_4c/5x5_reduce
I0403 14:58:25.444252 13949 net.cpp:399] inception_4c/5x5 -> inception_4c/5x5
I0403 14:58:25.445503 13949 net.cpp:141] Setting up inception_4c/5x5
I0403 14:58:25.445531 13949 net.cpp:148] Top shape: 24 64 14 14 (301056)
I0403 14:58:25.445552 13949 net.cpp:156] Memory required for data: 1049767200
I0403 14:58:25.445571 13949 layer_factory.hpp:77] Creating layer inception_4c/relu_5x5
I0403 14:58:25.445590 13949 net.cpp:91] Creating Layer inception_4c/relu_5x5
I0403 14:58:25.445607 13949 net.cpp:425] inception_4c/relu_5x5 <- inception_4c/5x5
I0403 14:58:25.445627 13949 net.cpp:386] inception_4c/relu_5x5 -> inception_4c/5x5 (in-place)
I0403 14:58:25.445920 13949 net.cpp:141] Setting up inception_4c/relu_5x5
I0403 14:58:25.445946 13949 net.cpp:148] Top shape: 24 64 14 14 (301056)
I0403 14:58:25.445961 13949 net.cpp:156] Memory required for data: 1050971424
I0403 14:58:25.445976 13949 layer_factory.hpp:77] Creating layer inception_4c/pool
I0403 14:58:25.445994 13949 net.cpp:91] Creating Layer inception_4c/pool
I0403 14:58:25.446010 13949 net.cpp:425] inception_4c/pool <- inception_4b/output_inception_4b/output_0_split_3
I0403 14:58:25.446030 13949 net.cpp:399] inception_4c/pool -> inception_4c/pool
I0403 14:58:25.446096 13949 net.cpp:141] Setting up inception_4c/pool
I0403 14:58:25.446120 13949 net.cpp:148] Top shape: 24 512 14 14 (2408448)
I0403 14:58:25.446135 13949 net.cpp:156] Memory required for data: 1060605216
I0403 14:58:25.446149 13949 layer_factory.hpp:77] Creating layer inception_4c/pool_proj
I0403 14:58:25.446173 13949 net.cpp:91] Creating Layer inception_4c/pool_proj
I0403 14:58:25.446192 13949 net.cpp:425] inception_4c/pool_proj <- inception_4c/pool
I0403 14:58:25.446209 13949 net.cpp:399] inception_4c/pool_proj -> inception_4c/pool_proj
I0403 14:58:25.447453 13949 net.cpp:141] Setting up inception_4c/pool_proj
I0403 14:58:25.447484 13949 net.cpp:148] Top shape: 24 64 14 14 (301056)
I0403 14:58:25.447513 13949 net.cpp:156] Memory required for data: 1061809440
I0403 14:58:25.447532 13949 layer_factory.hpp:77] Creating layer inception_4c/relu_pool_proj
I0403 14:58:25.447556 13949 net.cpp:91] Creating Layer inception_4c/relu_pool_proj
I0403 14:58:25.447573 13949 net.cpp:425] inception_4c/relu_pool_proj <- inception_4c/pool_proj
I0403 14:58:25.447597 13949 net.cpp:386] inception_4c/relu_pool_proj -> inception_4c/pool_proj (in-place)
I0403 14:58:25.447785 13949 net.cpp:141] Setting up inception_4c/relu_pool_proj
I0403 14:58:25.447810 13949 net.cpp:148] Top shape: 24 64 14 14 (301056)
I0403 14:58:25.447825 13949 net.cpp:156] Memory required for data: 1063013664
I0403 14:58:25.447840 13949 layer_factory.hpp:77] Creating layer inception_4c/output
I0403 14:58:25.447857 13949 net.cpp:91] Creating Layer inception_4c/output
I0403 14:58:25.447873 13949 net.cpp:425] inception_4c/output <- inception_4c/1x1
I0403 14:58:25.447890 13949 net.cpp:425] inception_4c/output <- inception_4c/3x3
I0403 14:58:25.447906 13949 net.cpp:425] inception_4c/output <- inception_4c/5x5
I0403 14:58:25.447922 13949 net.cpp:425] inception_4c/output <- inception_4c/pool_proj
I0403 14:58:25.447942 13949 net.cpp:399] inception_4c/output -> inception_4c/output
I0403 14:58:25.447991 13949 net.cpp:141] Setting up inception_4c/output
I0403 14:58:25.448017 13949 net.cpp:148] Top shape: 24 512 14 14 (2408448)
I0403 14:58:25.448034 13949 net.cpp:156] Memory required for data: 1072647456
I0403 14:58:25.448047 13949 layer_factory.hpp:77] Creating layer inception_4c/output_inception_4c/output_0_split
I0403 14:58:25.448065 13949 net.cpp:91] Creating Layer inception_4c/output_inception_4c/output_0_split
I0403 14:58:25.448081 13949 net.cpp:425] inception_4c/output_inception_4c/output_0_split <- inception_4c/output
I0403 14:58:25.448098 13949 net.cpp:399] inception_4c/output_inception_4c/output_0_split -> inception_4c/output_inception_4c/output_0_split_0
I0403 14:58:25.448120 13949 net.cpp:399] inception_4c/output_inception_4c/output_0_split -> inception_4c/output_inception_4c/output_0_split_1
I0403 14:58:25.448142 13949 net.cpp:399] inception_4c/output_inception_4c/output_0_split -> inception_4c/output_inception_4c/output_0_split_2
I0403 14:58:25.448163 13949 net.cpp:399] inception_4c/output_inception_4c/output_0_split -> inception_4c/output_inception_4c/output_0_split_3
I0403 14:58:25.448251 13949 net.cpp:141] Setting up inception_4c/output_inception_4c/output_0_split
I0403 14:58:25.448273 13949 net.cpp:148] Top shape: 24 512 14 14 (2408448)
I0403 14:58:25.448290 13949 net.cpp:148] Top shape: 24 512 14 14 (2408448)
I0403 14:58:25.448307 13949 net.cpp:148] Top shape: 24 512 14 14 (2408448)
I0403 14:58:25.448320 13949 net.cpp:148] Top shape: 24 512 14 14 (2408448)
I0403 14:58:25.448333 13949 net.cpp:156] Memory required for data: 1111182624
I0403 14:58:25.448348 13949 layer_factory.hpp:77] Creating layer inception_4d/1x1
I0403 14:58:25.448369 13949 net.cpp:91] Creating Layer inception_4d/1x1
I0403 14:58:25.448387 13949 net.cpp:425] inception_4d/1x1 <- inception_4c/output_inception_4c/output_0_split_0
I0403 14:58:25.448408 13949 net.cpp:399] inception_4d/1x1 -> inception_4d/1x1
I0403 14:58:25.449852 13949 net.cpp:141] Setting up inception_4d/1x1
I0403 14:58:25.449882 13949 net.cpp:148] Top shape: 24 112 14 14 (526848)
I0403 14:58:25.449898 13949 net.cpp:156] Memory required for data: 1113290016
I0403 14:58:25.449915 13949 layer_factory.hpp:77] Creating layer inception_4d/relu_1x1
I0403 14:58:25.449937 13949 net.cpp:91] Creating Layer inception_4d/relu_1x1
I0403 14:58:25.449955 13949 net.cpp:425] inception_4d/relu_1x1 <- inception_4d/1x1
I0403 14:58:25.449973 13949 net.cpp:386] inception_4d/relu_1x1 -> inception_4d/1x1 (in-place)
I0403 14:58:25.450162 13949 net.cpp:141] Setting up inception_4d/relu_1x1
I0403 14:58:25.450191 13949 net.cpp:148] Top shape: 24 112 14 14 (526848)
I0403 14:58:25.450207 13949 net.cpp:156] Memory required for data: 1115397408
I0403 14:58:25.450222 13949 layer_factory.hpp:77] Creating layer inception_4d/3x3_reduce
I0403 14:58:25.450259 13949 net.cpp:91] Creating Layer inception_4d/3x3_reduce
I0403 14:58:25.450279 13949 net.cpp:425] inception_4d/3x3_reduce <- inception_4c/output_inception_4c/output_0_split_1
I0403 14:58:25.450300 13949 net.cpp:399] inception_4d/3x3_reduce -> inception_4d/3x3_reduce
I0403 14:58:25.451861 13949 net.cpp:141] Setting up inception_4d/3x3_reduce
I0403 14:58:25.451890 13949 net.cpp:148] Top shape: 24 144 14 14 (677376)
I0403 14:58:25.451906 13949 net.cpp:156] Memory required for data: 1118106912
I0403 14:58:25.451925 13949 layer_factory.hpp:77] Creating layer inception_4d/relu_3x3_reduce
I0403 14:58:25.451946 13949 net.cpp:91] Creating Layer inception_4d/relu_3x3_reduce
I0403 14:58:25.451963 13949 net.cpp:425] inception_4d/relu_3x3_reduce <- inception_4d/3x3_reduce
I0403 14:58:25.451982 13949 net.cpp:386] inception_4d/relu_3x3_reduce -> inception_4d/3x3_reduce (in-place)
I0403 14:58:25.452280 13949 net.cpp:141] Setting up inception_4d/relu_3x3_reduce
I0403 14:58:25.452307 13949 net.cpp:148] Top shape: 24 144 14 14 (677376)
I0403 14:58:25.452323 13949 net.cpp:156] Memory required for data: 1120816416
I0403 14:58:25.452338 13949 layer_factory.hpp:77] Creating layer inception_4d/3x3
I0403 14:58:25.452361 13949 net.cpp:91] Creating Layer inception_4d/3x3
I0403 14:58:25.452380 13949 net.cpp:425] inception_4d/3x3 <- inception_4d/3x3_reduce
I0403 14:58:25.452402 13949 net.cpp:399] inception_4d/3x3 -> inception_4d/3x3
I0403 14:58:25.456691 13949 net.cpp:141] Setting up inception_4d/3x3
I0403 14:58:25.456722 13949 net.cpp:148] Top shape: 24 288 14 14 (1354752)
I0403 14:58:25.456737 13949 net.cpp:156] Memory required for data: 1126235424
I0403 14:58:25.456756 13949 layer_factory.hpp:77] Creating layer inception_4d/relu_3x3
I0403 14:58:25.456776 13949 net.cpp:91] Creating Layer inception_4d/relu_3x3
I0403 14:58:25.456794 13949 net.cpp:425] inception_4d/relu_3x3 <- inception_4d/3x3
I0403 14:58:25.456812 13949 net.cpp:386] inception_4d/relu_3x3 -> inception_4d/3x3 (in-place)
I0403 14:58:25.456997 13949 net.cpp:141] Setting up inception_4d/relu_3x3
I0403 14:58:25.457026 13949 net.cpp:148] Top shape: 24 288 14 14 (1354752)
I0403 14:58:25.457041 13949 net.cpp:156] Memory required for data: 1131654432
I0403 14:58:25.457056 13949 layer_factory.hpp:77] Creating layer inception_4d/5x5_reduce
I0403 14:58:25.457077 13949 net.cpp:91] Creating Layer inception_4d/5x5_reduce
I0403 14:58:25.457095 13949 net.cpp:425] inception_4d/5x5_reduce <- inception_4c/output_inception_4c/output_0_split_2
I0403 14:58:25.457114 13949 net.cpp:399] inception_4d/5x5_reduce -> inception_4d/5x5_reduce
I0403 14:58:25.458309 13949 net.cpp:141] Setting up inception_4d/5x5_reduce
I0403 14:58:25.458338 13949 net.cpp:148] Top shape: 24 32 14 14 (150528)
I0403 14:58:25.458353 13949 net.cpp:156] Memory required for data: 1132256544
I0403 14:58:25.458371 13949 layer_factory.hpp:77] Creating layer inception_4d/relu_5x5_reduce
I0403 14:58:25.458391 13949 net.cpp:91] Creating Layer inception_4d/relu_5x5_reduce
I0403 14:58:25.458408 13949 net.cpp:425] inception_4d/relu_5x5_reduce <- inception_4d/5x5_reduce
I0403 14:58:25.458425 13949 net.cpp:386] inception_4d/relu_5x5_reduce -> inception_4d/5x5_reduce (in-place)
I0403 14:58:25.458616 13949 net.cpp:141] Setting up inception_4d/relu_5x5_reduce
I0403 14:58:25.458645 13949 net.cpp:148] Top shape: 24 32 14 14 (150528)
I0403 14:58:25.458662 13949 net.cpp:156] Memory required for data: 1132858656
I0403 14:58:25.458676 13949 layer_factory.hpp:77] Creating layer inception_4d/5x5
I0403 14:58:25.458698 13949 net.cpp:91] Creating Layer inception_4d/5x5
I0403 14:58:25.458716 13949 net.cpp:425] inception_4d/5x5 <- inception_4d/5x5_reduce
I0403 14:58:25.458735 13949 net.cpp:399] inception_4d/5x5 -> inception_4d/5x5
I0403 14:58:25.460366 13949 net.cpp:141] Setting up inception_4d/5x5
I0403 14:58:25.460394 13949 net.cpp:148] Top shape: 24 64 14 14 (301056)
I0403 14:58:25.460410 13949 net.cpp:156] Memory required for data: 1134062880
I0403 14:58:25.460428 13949 layer_factory.hpp:77] Creating layer inception_4d/relu_5x5
I0403 14:58:25.460477 13949 net.cpp:91] Creating Layer inception_4d/relu_5x5
I0403 14:58:25.460496 13949 net.cpp:425] inception_4d/relu_5x5 <- inception_4d/5x5
I0403 14:58:25.460516 13949 net.cpp:386] inception_4d/relu_5x5 -> inception_4d/5x5 (in-place)
I0403 14:58:25.460851 13949 net.cpp:141] Setting up inception_4d/relu_5x5
I0403 14:58:25.460880 13949 net.cpp:148] Top shape: 24 64 14 14 (301056)
I0403 14:58:25.460896 13949 net.cpp:156] Memory required for data: 1135267104
I0403 14:58:25.460911 13949 layer_factory.hpp:77] Creating layer inception_4d/pool
I0403 14:58:25.460930 13949 net.cpp:91] Creating Layer inception_4d/pool
I0403 14:58:25.460947 13949 net.cpp:425] inception_4d/pool <- inception_4c/output_inception_4c/output_0_split_3
I0403 14:58:25.460970 13949 net.cpp:399] inception_4d/pool -> inception_4d/pool
I0403 14:58:25.461041 13949 net.cpp:141] Setting up inception_4d/pool
I0403 14:58:25.461067 13949 net.cpp:148] Top shape: 24 512 14 14 (2408448)
I0403 14:58:25.461082 13949 net.cpp:156] Memory required for data: 1144900896
I0403 14:58:25.461098 13949 layer_factory.hpp:77] Creating layer inception_4d/pool_proj
I0403 14:58:25.461123 13949 net.cpp:91] Creating Layer inception_4d/pool_proj
I0403 14:58:25.461143 13949 net.cpp:425] inception_4d/pool_proj <- inception_4d/pool
I0403 14:58:25.461161 13949 net.cpp:399] inception_4d/pool_proj -> inception_4d/pool_proj
I0403 14:58:25.463043 13949 net.cpp:141] Setting up inception_4d/pool_proj
I0403 14:58:25.463074 13949 net.cpp:148] Top shape: 24 64 14 14 (301056)
I0403 14:58:25.463090 13949 net.cpp:156] Memory required for data: 1146105120
I0403 14:58:25.463109 13949 layer_factory.hpp:77] Creating layer inception_4d/relu_pool_proj
I0403 14:58:25.463131 13949 net.cpp:91] Creating Layer inception_4d/relu_pool_proj
I0403 14:58:25.463148 13949 net.cpp:425] inception_4d/relu_pool_proj <- inception_4d/pool_proj
I0403 14:58:25.463166 13949 net.cpp:386] inception_4d/relu_pool_proj -> inception_4d/pool_proj (in-place)
I0403 14:58:25.463363 13949 net.cpp:141] Setting up inception_4d/relu_pool_proj
I0403 14:58:25.463392 13949 net.cpp:148] Top shape: 24 64 14 14 (301056)
I0403 14:58:25.463408 13949 net.cpp:156] Memory required for data: 1147309344
I0403 14:58:25.463423 13949 layer_factory.hpp:77] Creating layer inception_4d/output
I0403 14:58:25.463440 13949 net.cpp:91] Creating Layer inception_4d/output
I0403 14:58:25.463457 13949 net.cpp:425] inception_4d/output <- inception_4d/1x1
I0403 14:58:25.463474 13949 net.cpp:425] inception_4d/output <- inception_4d/3x3
I0403 14:58:25.463491 13949 net.cpp:425] inception_4d/output <- inception_4d/5x5
I0403 14:58:25.463508 13949 net.cpp:425] inception_4d/output <- inception_4d/pool_proj
I0403 14:58:25.463529 13949 net.cpp:399] inception_4d/output -> inception_4d/output
I0403 14:58:25.463583 13949 net.cpp:141] Setting up inception_4d/output
I0403 14:58:25.463608 13949 net.cpp:148] Top shape: 24 528 14 14 (2483712)
I0403 14:58:25.463623 13949 net.cpp:156] Memory required for data: 1157244192
I0403 14:58:25.463637 13949 layer_factory.hpp:77] Creating layer inception_4d/output_inception_4d/output_0_split
I0403 14:58:25.463659 13949 net.cpp:91] Creating Layer inception_4d/output_inception_4d/output_0_split
I0403 14:58:25.463675 13949 net.cpp:425] inception_4d/output_inception_4d/output_0_split <- inception_4d/output
I0403 14:58:25.463693 13949 net.cpp:399] inception_4d/output_inception_4d/output_0_split -> inception_4d/output_inception_4d/output_0_split_0
I0403 14:58:25.463716 13949 net.cpp:399] inception_4d/output_inception_4d/output_0_split -> inception_4d/output_inception_4d/output_0_split_1
I0403 14:58:25.463740 13949 net.cpp:399] inception_4d/output_inception_4d/output_0_split -> inception_4d/output_inception_4d/output_0_split_2
I0403 14:58:25.463762 13949 net.cpp:399] inception_4d/output_inception_4d/output_0_split -> inception_4d/output_inception_4d/output_0_split_3
I0403 14:58:25.463783 13949 net.cpp:399] inception_4d/output_inception_4d/output_0_split -> inception_4d/output_inception_4d/output_0_split_4
I0403 14:58:25.463887 13949 net.cpp:141] Setting up inception_4d/output_inception_4d/output_0_split
I0403 14:58:25.463925 13949 net.cpp:148] Top shape: 24 528 14 14 (2483712)
I0403 14:58:25.463943 13949 net.cpp:148] Top shape: 24 528 14 14 (2483712)
I0403 14:58:25.463959 13949 net.cpp:148] Top shape: 24 528 14 14 (2483712)
I0403 14:58:25.463975 13949 net.cpp:148] Top shape: 24 528 14 14 (2483712)
I0403 14:58:25.463990 13949 net.cpp:148] Top shape: 24 528 14 14 (2483712)
I0403 14:58:25.464004 13949 net.cpp:156] Memory required for data: 1206918432
I0403 14:58:25.464020 13949 layer_factory.hpp:77] Creating layer loss2/ave_pool
I0403 14:58:25.464040 13949 net.cpp:91] Creating Layer loss2/ave_pool
I0403 14:58:25.464057 13949 net.cpp:425] loss2/ave_pool <- inception_4d/output_inception_4d/output_0_split_0
I0403 14:58:25.464077 13949 net.cpp:399] loss2/ave_pool -> loss2/ave_pool
I0403 14:58:25.464397 13949 net.cpp:141] Setting up loss2/ave_pool
I0403 14:58:25.464426 13949 net.cpp:148] Top shape: 24 528 4 4 (202752)
I0403 14:58:25.464442 13949 net.cpp:156] Memory required for data: 1207729440
I0403 14:58:25.464465 13949 layer_factory.hpp:77] Creating layer loss2/conv
I0403 14:58:25.464488 13949 net.cpp:91] Creating Layer loss2/conv
I0403 14:58:25.464506 13949 net.cpp:425] loss2/conv <- loss2/ave_pool
I0403 14:58:25.464529 13949 net.cpp:399] loss2/conv -> loss2/conv
I0403 14:58:25.466493 13949 net.cpp:141] Setting up loss2/conv
I0403 14:58:25.466528 13949 net.cpp:148] Top shape: 24 128 4 4 (49152)
I0403 14:58:25.466552 13949 net.cpp:156] Memory required for data: 1207926048
I0403 14:58:25.466572 13949 layer_factory.hpp:77] Creating layer loss2/relu_conv
I0403 14:58:25.466590 13949 net.cpp:91] Creating Layer loss2/relu_conv
I0403 14:58:25.466608 13949 net.cpp:425] loss2/relu_conv <- loss2/conv
I0403 14:58:25.466627 13949 net.cpp:386] loss2/relu_conv -> loss2/conv (in-place)
I0403 14:58:25.466925 13949 net.cpp:141] Setting up loss2/relu_conv
I0403 14:58:25.466954 13949 net.cpp:148] Top shape: 24 128 4 4 (49152)
I0403 14:58:25.466971 13949 net.cpp:156] Memory required for data: 1208122656
I0403 14:58:25.466986 13949 layer_factory.hpp:77] Creating layer loss2/fc
I0403 14:58:25.467017 13949 net.cpp:91] Creating Layer loss2/fc
I0403 14:58:25.467034 13949 net.cpp:425] loss2/fc <- loss2/conv
I0403 14:58:25.467057 13949 net.cpp:399] loss2/fc -> loss2/fc
I0403 14:58:25.484526 13949 net.cpp:141] Setting up loss2/fc
I0403 14:58:25.484565 13949 net.cpp:148] Top shape: 24 1024 (24576)
I0403 14:58:25.484581 13949 net.cpp:156] Memory required for data: 1208220960
I0403 14:58:25.484599 13949 layer_factory.hpp:77] Creating layer loss2/relu_fc
I0403 14:58:25.484619 13949 net.cpp:91] Creating Layer loss2/relu_fc
I0403 14:58:25.484637 13949 net.cpp:425] loss2/relu_fc <- loss2/fc
I0403 14:58:25.484654 13949 net.cpp:386] loss2/relu_fc -> loss2/fc (in-place)
I0403 14:58:25.484942 13949 net.cpp:141] Setting up loss2/relu_fc
I0403 14:58:25.484967 13949 net.cpp:148] Top shape: 24 1024 (24576)
I0403 14:58:25.484982 13949 net.cpp:156] Memory required for data: 1208319264
I0403 14:58:25.484997 13949 layer_factory.hpp:77] Creating layer loss2/drop_fc
I0403 14:58:25.485018 13949 net.cpp:91] Creating Layer loss2/drop_fc
I0403 14:58:25.485033 13949 net.cpp:425] loss2/drop_fc <- loss2/fc
I0403 14:58:25.485050 13949 net.cpp:386] loss2/drop_fc -> loss2/fc (in-place)
I0403 14:58:25.485100 13949 net.cpp:141] Setting up loss2/drop_fc
I0403 14:58:25.485122 13949 net.cpp:148] Top shape: 24 1024 (24576)
I0403 14:58:25.485136 13949 net.cpp:156] Memory required for data: 1208417568
I0403 14:58:25.485152 13949 layer_factory.hpp:77] Creating layer loss2/classifier_plantvillage
I0403 14:58:25.485172 13949 net.cpp:91] Creating Layer loss2/classifier_plantvillage
I0403 14:58:25.485188 13949 net.cpp:425] loss2/classifier_plantvillage <- loss2/fc
I0403 14:58:25.485206 13949 net.cpp:399] loss2/classifier_plantvillage -> loss2/classifier_plantvillage
I0403 14:58:25.485602 13949 net.cpp:141] Setting up loss2/classifier_plantvillage
I0403 14:58:25.485627 13949 net.cpp:148] Top shape: 24 38 (912)
I0403 14:58:25.485641 13949 net.cpp:156] Memory required for data: 1208421216
I0403 14:58:25.485677 13949 layer_factory.hpp:77] Creating layer loss2/classifier_plantvillage_loss2/classifier_plantvillage_0_split
I0403 14:58:25.485697 13949 net.cpp:91] Creating Layer loss2/classifier_plantvillage_loss2/classifier_plantvillage_0_split
I0403 14:58:25.485713 13949 net.cpp:425] loss2/classifier_plantvillage_loss2/classifier_plantvillage_0_split <- loss2/classifier_plantvillage
I0403 14:58:25.485733 13949 net.cpp:399] loss2/classifier_plantvillage_loss2/classifier_plantvillage_0_split -> loss2/classifier_plantvillage_loss2/classifier_plantvillage_0_split_0
I0403 14:58:25.485754 13949 net.cpp:399] loss2/classifier_plantvillage_loss2/classifier_plantvillage_0_split -> loss2/classifier_plantvillage_loss2/classifier_plantvillage_0_split_1
I0403 14:58:25.485774 13949 net.cpp:399] loss2/classifier_plantvillage_loss2/classifier_plantvillage_0_split -> loss2/classifier_plantvillage_loss2/classifier_plantvillage_0_split_2
I0403 14:58:25.485849 13949 net.cpp:141] Setting up loss2/classifier_plantvillage_loss2/classifier_plantvillage_0_split
I0403 14:58:25.485873 13949 net.cpp:148] Top shape: 24 38 (912)
I0403 14:58:25.485890 13949 net.cpp:148] Top shape: 24 38 (912)
I0403 14:58:25.485905 13949 net.cpp:148] Top shape: 24 38 (912)
I0403 14:58:25.485918 13949 net.cpp:156] Memory required for data: 1208432160
I0403 14:58:25.485932 13949 layer_factory.hpp:77] Creating layer inception_4e/1x1
I0403 14:58:25.485952 13949 net.cpp:91] Creating Layer inception_4e/1x1
I0403 14:58:25.485968 13949 net.cpp:425] inception_4e/1x1 <- inception_4d/output_inception_4d/output_0_split_1
I0403 14:58:25.485986 13949 net.cpp:399] inception_4e/1x1 -> inception_4e/1x1
I0403 14:58:25.487778 13949 net.cpp:141] Setting up inception_4e/1x1
I0403 14:58:25.487807 13949 net.cpp:148] Top shape: 24 256 14 14 (1204224)
I0403 14:58:25.487821 13949 net.cpp:156] Memory required for data: 1213249056
I0403 14:58:25.487839 13949 layer_factory.hpp:77] Creating layer inception_4e/relu_1x1
I0403 14:58:25.487859 13949 net.cpp:91] Creating Layer inception_4e/relu_1x1
I0403 14:58:25.487874 13949 net.cpp:425] inception_4e/relu_1x1 <- inception_4e/1x1
I0403 14:58:25.487893 13949 net.cpp:386] inception_4e/relu_1x1 -> inception_4e/1x1 (in-place)
I0403 14:58:25.488199 13949 net.cpp:141] Setting up inception_4e/relu_1x1
I0403 14:58:25.488224 13949 net.cpp:148] Top shape: 24 256 14 14 (1204224)
I0403 14:58:25.488240 13949 net.cpp:156] Memory required for data: 1218065952
I0403 14:58:25.488253 13949 layer_factory.hpp:77] Creating layer inception_4e/3x3_reduce
I0403 14:58:25.488275 13949 net.cpp:91] Creating Layer inception_4e/3x3_reduce
I0403 14:58:25.488294 13949 net.cpp:425] inception_4e/3x3_reduce <- inception_4d/output_inception_4d/output_0_split_2
I0403 14:58:25.488314 13949 net.cpp:399] inception_4e/3x3_reduce -> inception_4e/3x3_reduce
I0403 14:58:25.490387 13949 net.cpp:141] Setting up inception_4e/3x3_reduce
I0403 14:58:25.490417 13949 net.cpp:148] Top shape: 24 160 14 14 (752640)
I0403 14:58:25.490434 13949 net.cpp:156] Memory required for data: 1221076512
I0403 14:58:25.490453 13949 layer_factory.hpp:77] Creating layer inception_4e/relu_3x3_reduce
I0403 14:58:25.490470 13949 net.cpp:91] Creating Layer inception_4e/relu_3x3_reduce
I0403 14:58:25.490486 13949 net.cpp:425] inception_4e/relu_3x3_reduce <- inception_4e/3x3_reduce
I0403 14:58:25.490505 13949 net.cpp:386] inception_4e/relu_3x3_reduce -> inception_4e/3x3_reduce (in-place)
I0403 14:58:25.490694 13949 net.cpp:141] Setting up inception_4e/relu_3x3_reduce
I0403 14:58:25.490718 13949 net.cpp:148] Top shape: 24 160 14 14 (752640)
I0403 14:58:25.490732 13949 net.cpp:156] Memory required for data: 1224087072
I0403 14:58:25.490746 13949 layer_factory.hpp:77] Creating layer inception_4e/3x3
I0403 14:58:25.490768 13949 net.cpp:91] Creating Layer inception_4e/3x3
I0403 14:58:25.490787 13949 net.cpp:425] inception_4e/3x3 <- inception_4e/3x3_reduce
I0403 14:58:25.490808 13949 net.cpp:399] inception_4e/3x3 -> inception_4e/3x3
I0403 14:58:25.495707 13949 net.cpp:141] Setting up inception_4e/3x3
I0403 14:58:25.495748 13949 net.cpp:148] Top shape: 24 320 14 14 (1505280)
I0403 14:58:25.495764 13949 net.cpp:156] Memory required for data: 1230108192
I0403 14:58:25.495781 13949 layer_factory.hpp:77] Creating layer inception_4e/relu_3x3
I0403 14:58:25.495801 13949 net.cpp:91] Creating Layer inception_4e/relu_3x3
I0403 14:58:25.495818 13949 net.cpp:425] inception_4e/relu_3x3 <- inception_4e/3x3
I0403 14:58:25.495836 13949 net.cpp:386] inception_4e/relu_3x3 -> inception_4e/3x3 (in-place)
I0403 14:58:25.496130 13949 net.cpp:141] Setting up inception_4e/relu_3x3
I0403 14:58:25.496156 13949 net.cpp:148] Top shape: 24 320 14 14 (1505280)
I0403 14:58:25.496171 13949 net.cpp:156] Memory required for data: 1236129312
I0403 14:58:25.496186 13949 layer_factory.hpp:77] Creating layer inception_4e/5x5_reduce
I0403 14:58:25.496209 13949 net.cpp:91] Creating Layer inception_4e/5x5_reduce
I0403 14:58:25.496227 13949 net.cpp:425] inception_4e/5x5_reduce <- inception_4d/output_inception_4d/output_0_split_3
I0403 14:58:25.496249 13949 net.cpp:399] inception_4e/5x5_reduce -> inception_4e/5x5_reduce
I0403 14:58:25.497318 13949 net.cpp:141] Setting up inception_4e/5x5_reduce
I0403 14:58:25.497345 13949 net.cpp:148] Top shape: 24 32 14 14 (150528)
I0403 14:58:25.497361 13949 net.cpp:156] Memory required for data: 1236731424
I0403 14:58:25.497380 13949 layer_factory.hpp:77] Creating layer inception_4e/relu_5x5_reduce
I0403 14:58:25.497397 13949 net.cpp:91] Creating Layer inception_4e/relu_5x5_reduce
I0403 14:58:25.497414 13949 net.cpp:425] inception_4e/relu_5x5_reduce <- inception_4e/5x5_reduce
I0403 14:58:25.497434 13949 net.cpp:386] inception_4e/relu_5x5_reduce -> inception_4e/5x5_reduce (in-place)
I0403 14:58:25.497740 13949 net.cpp:141] Setting up inception_4e/relu_5x5_reduce
I0403 14:58:25.497766 13949 net.cpp:148] Top shape: 24 32 14 14 (150528)
I0403 14:58:25.497781 13949 net.cpp:156] Memory required for data: 1237333536
I0403 14:58:25.497797 13949 layer_factory.hpp:77] Creating layer inception_4e/5x5
I0403 14:58:25.497834 13949 net.cpp:91] Creating Layer inception_4e/5x5
I0403 14:58:25.497854 13949 net.cpp:425] inception_4e/5x5 <- inception_4e/5x5_reduce
I0403 14:58:25.497874 13949 net.cpp:399] inception_4e/5x5 -> inception_4e/5x5
I0403 14:58:25.499729 13949 net.cpp:141] Setting up inception_4e/5x5
I0403 14:58:25.499760 13949 net.cpp:148] Top shape: 24 128 14 14 (602112)
I0403 14:58:25.499776 13949 net.cpp:156] Memory required for data: 1239741984
I0403 14:58:25.499795 13949 layer_factory.hpp:77] Creating layer inception_4e/relu_5x5
I0403 14:58:25.499814 13949 net.cpp:91] Creating Layer inception_4e/relu_5x5
I0403 14:58:25.499831 13949 net.cpp:425] inception_4e/relu_5x5 <- inception_4e/5x5
I0403 14:58:25.499848 13949 net.cpp:386] inception_4e/relu_5x5 -> inception_4e/5x5 (in-place)
I0403 14:58:25.500051 13949 net.cpp:141] Setting up inception_4e/relu_5x5
I0403 14:58:25.500075 13949 net.cpp:148] Top shape: 24 128 14 14 (602112)
I0403 14:58:25.500090 13949 net.cpp:156] Memory required for data: 1242150432
I0403 14:58:25.500104 13949 layer_factory.hpp:77] Creating layer inception_4e/pool
I0403 14:58:25.500124 13949 net.cpp:91] Creating Layer inception_4e/pool
I0403 14:58:25.500141 13949 net.cpp:425] inception_4e/pool <- inception_4d/output_inception_4d/output_0_split_4
I0403 14:58:25.500162 13949 net.cpp:399] inception_4e/pool -> inception_4e/pool
I0403 14:58:25.500231 13949 net.cpp:141] Setting up inception_4e/pool
I0403 14:58:25.500258 13949 net.cpp:148] Top shape: 24 528 14 14 (2483712)
I0403 14:58:25.500273 13949 net.cpp:156] Memory required for data: 1252085280
I0403 14:58:25.500288 13949 layer_factory.hpp:77] Creating layer inception_4e/pool_proj
I0403 14:58:25.500309 13949 net.cpp:91] Creating Layer inception_4e/pool_proj
I0403 14:58:25.500327 13949 net.cpp:425] inception_4e/pool_proj <- inception_4e/pool
I0403 14:58:25.500346 13949 net.cpp:399] inception_4e/pool_proj -> inception_4e/pool_proj
I0403 14:58:25.501858 13949 net.cpp:141] Setting up inception_4e/pool_proj
I0403 14:58:25.501886 13949 net.cpp:148] Top shape: 24 128 14 14 (602112)
I0403 14:58:25.501919 13949 net.cpp:156] Memory required for data: 1254493728
I0403 14:58:25.501940 13949 layer_factory.hpp:77] Creating layer inception_4e/relu_pool_proj
I0403 14:58:25.501958 13949 net.cpp:91] Creating Layer inception_4e/relu_pool_proj
I0403 14:58:25.501974 13949 net.cpp:425] inception_4e/relu_pool_proj <- inception_4e/pool_proj
I0403 14:58:25.501991 13949 net.cpp:386] inception_4e/relu_pool_proj -> inception_4e/pool_proj (in-place)
I0403 14:58:25.502290 13949 net.cpp:141] Setting up inception_4e/relu_pool_proj
I0403 14:58:25.502315 13949 net.cpp:148] Top shape: 24 128 14 14 (602112)
I0403 14:58:25.502334 13949 net.cpp:156] Memory required for data: 1256902176
I0403 14:58:25.502349 13949 layer_factory.hpp:77] Creating layer inception_4e/output
I0403 14:58:25.502367 13949 net.cpp:91] Creating Layer inception_4e/output
I0403 14:58:25.502384 13949 net.cpp:425] inception_4e/output <- inception_4e/1x1
I0403 14:58:25.502400 13949 net.cpp:425] inception_4e/output <- inception_4e/3x3
I0403 14:58:25.502418 13949 net.cpp:425] inception_4e/output <- inception_4e/5x5
I0403 14:58:25.502434 13949 net.cpp:425] inception_4e/output <- inception_4e/pool_proj
I0403 14:58:25.502451 13949 net.cpp:399] inception_4e/output -> inception_4e/output
I0403 14:58:25.502503 13949 net.cpp:141] Setting up inception_4e/output
I0403 14:58:25.502527 13949 net.cpp:148] Top shape: 24 832 14 14 (3913728)
I0403 14:58:25.502547 13949 net.cpp:156] Memory required for data: 1272557088
I0403 14:58:25.502564 13949 layer_factory.hpp:77] Creating layer pool4/3x3_s2
I0403 14:58:25.502581 13949 net.cpp:91] Creating Layer pool4/3x3_s2
I0403 14:58:25.502601 13949 net.cpp:425] pool4/3x3_s2 <- inception_4e/output
I0403 14:58:25.502619 13949 net.cpp:399] pool4/3x3_s2 -> pool4/3x3_s2
I0403 14:58:25.502688 13949 net.cpp:141] Setting up pool4/3x3_s2
I0403 14:58:25.502712 13949 net.cpp:148] Top shape: 24 832 7 7 (978432)
I0403 14:58:25.502727 13949 net.cpp:156] Memory required for data: 1276470816
I0403 14:58:25.502742 13949 layer_factory.hpp:77] Creating layer pool4/3x3_s2_pool4/3x3_s2_0_split
I0403 14:58:25.502758 13949 net.cpp:91] Creating Layer pool4/3x3_s2_pool4/3x3_s2_0_split
I0403 14:58:25.502774 13949 net.cpp:425] pool4/3x3_s2_pool4/3x3_s2_0_split <- pool4/3x3_s2
I0403 14:58:25.502794 13949 net.cpp:399] pool4/3x3_s2_pool4/3x3_s2_0_split -> pool4/3x3_s2_pool4/3x3_s2_0_split_0
I0403 14:58:25.502815 13949 net.cpp:399] pool4/3x3_s2_pool4/3x3_s2_0_split -> pool4/3x3_s2_pool4/3x3_s2_0_split_1
I0403 14:58:25.502836 13949 net.cpp:399] pool4/3x3_s2_pool4/3x3_s2_0_split -> pool4/3x3_s2_pool4/3x3_s2_0_split_2
I0403 14:58:25.502856 13949 net.cpp:399] pool4/3x3_s2_pool4/3x3_s2_0_split -> pool4/3x3_s2_pool4/3x3_s2_0_split_3
I0403 14:58:25.502948 13949 net.cpp:141] Setting up pool4/3x3_s2_pool4/3x3_s2_0_split
I0403 14:58:25.502971 13949 net.cpp:148] Top shape: 24 832 7 7 (978432)
I0403 14:58:25.502986 13949 net.cpp:148] Top shape: 24 832 7 7 (978432)
I0403 14:58:25.503002 13949 net.cpp:148] Top shape: 24 832 7 7 (978432)
I0403 14:58:25.503017 13949 net.cpp:148] Top shape: 24 832 7 7 (978432)
I0403 14:58:25.503031 13949 net.cpp:156] Memory required for data: 1292125728
I0403 14:58:25.503044 13949 layer_factory.hpp:77] Creating layer inception_5a/1x1
I0403 14:58:25.503067 13949 net.cpp:91] Creating Layer inception_5a/1x1
I0403 14:58:25.503085 13949 net.cpp:425] inception_5a/1x1 <- pool4/3x3_s2_pool4/3x3_s2_0_split_0
I0403 14:58:25.503104 13949 net.cpp:399] inception_5a/1x1 -> inception_5a/1x1
I0403 14:58:25.506074 13949 net.cpp:141] Setting up inception_5a/1x1
I0403 14:58:25.506108 13949 net.cpp:148] Top shape: 24 256 7 7 (301056)
I0403 14:58:25.506125 13949 net.cpp:156] Memory required for data: 1293329952
I0403 14:58:25.506145 13949 layer_factory.hpp:77] Creating layer inception_5a/relu_1x1
I0403 14:58:25.506162 13949 net.cpp:91] Creating Layer inception_5a/relu_1x1
I0403 14:58:25.506180 13949 net.cpp:425] inception_5a/relu_1x1 <- inception_5a/1x1
I0403 14:58:25.506199 13949 net.cpp:386] inception_5a/relu_1x1 -> inception_5a/1x1 (in-place)
I0403 14:58:25.506525 13949 net.cpp:141] Setting up inception_5a/relu_1x1
I0403 14:58:25.506559 13949 net.cpp:148] Top shape: 24 256 7 7 (301056)
I0403 14:58:25.506577 13949 net.cpp:156] Memory required for data: 1294534176
I0403 14:58:25.506592 13949 layer_factory.hpp:77] Creating layer inception_5a/3x3_reduce
I0403 14:58:25.506615 13949 net.cpp:91] Creating Layer inception_5a/3x3_reduce
I0403 14:58:25.506634 13949 net.cpp:425] inception_5a/3x3_reduce <- pool4/3x3_s2_pool4/3x3_s2_0_split_1
I0403 14:58:25.506654 13949 net.cpp:399] inception_5a/3x3_reduce -> inception_5a/3x3_reduce
I0403 14:58:25.509204 13949 net.cpp:141] Setting up inception_5a/3x3_reduce
I0403 14:58:25.509235 13949 net.cpp:148] Top shape: 24 160 7 7 (188160)
I0403 14:58:25.509251 13949 net.cpp:156] Memory required for data: 1295286816
I0403 14:58:25.509270 13949 layer_factory.hpp:77] Creating layer inception_5a/relu_3x3_reduce
I0403 14:58:25.509294 13949 net.cpp:91] Creating Layer inception_5a/relu_3x3_reduce
I0403 14:58:25.509312 13949 net.cpp:425] inception_5a/relu_3x3_reduce <- inception_5a/3x3_reduce
I0403 14:58:25.509330 13949 net.cpp:386] inception_5a/relu_3x3_reduce -> inception_5a/3x3_reduce (in-place)
I0403 14:58:25.509528 13949 net.cpp:141] Setting up inception_5a/relu_3x3_reduce
I0403 14:58:25.509562 13949 net.cpp:148] Top shape: 24 160 7 7 (188160)
I0403 14:58:25.509578 13949 net.cpp:156] Memory required for data: 1296039456
I0403 14:58:25.509601 13949 layer_factory.hpp:77] Creating layer inception_5a/3x3
I0403 14:58:25.509624 13949 net.cpp:91] Creating Layer inception_5a/3x3
I0403 14:58:25.509644 13949 net.cpp:425] inception_5a/3x3 <- inception_5a/3x3_reduce
I0403 14:58:25.509662 13949 net.cpp:399] inception_5a/3x3 -> inception_5a/3x3
I0403 14:58:25.514859 13949 net.cpp:141] Setting up inception_5a/3x3
I0403 14:58:25.514892 13949 net.cpp:148] Top shape: 24 320 7 7 (376320)
I0403 14:58:25.514910 13949 net.cpp:156] Memory required for data: 1297544736
I0403 14:58:25.514930 13949 layer_factory.hpp:77] Creating layer inception_5a/relu_3x3
I0403 14:58:25.514948 13949 net.cpp:91] Creating Layer inception_5a/relu_3x3
I0403 14:58:25.514964 13949 net.cpp:425] inception_5a/relu_3x3 <- inception_5a/3x3
I0403 14:58:25.514982 13949 net.cpp:386] inception_5a/relu_3x3 -> inception_5a/3x3 (in-place)
I0403 14:58:25.515293 13949 net.cpp:141] Setting up inception_5a/relu_3x3
I0403 14:58:25.515323 13949 net.cpp:148] Top shape: 24 320 7 7 (376320)
I0403 14:58:25.515341 13949 net.cpp:156] Memory required for data: 1299050016
I0403 14:58:25.515355 13949 layer_factory.hpp:77] Creating layer inception_5a/5x5_reduce
I0403 14:58:25.515378 13949 net.cpp:91] Creating Layer inception_5a/5x5_reduce
I0403 14:58:25.515398 13949 net.cpp:425] inception_5a/5x5_reduce <- pool4/3x3_s2_pool4/3x3_s2_0_split_2
I0403 14:58:25.515418 13949 net.cpp:399] inception_5a/5x5_reduce -> inception_5a/5x5_reduce
I0403 14:58:25.516638 13949 net.cpp:141] Setting up inception_5a/5x5_reduce
I0403 14:58:25.516671 13949 net.cpp:148] Top shape: 24 32 7 7 (37632)
I0403 14:58:25.516688 13949 net.cpp:156] Memory required for data: 1299200544
I0403 14:58:25.516708 13949 layer_factory.hpp:77] Creating layer inception_5a/relu_5x5_reduce
I0403 14:58:25.516726 13949 net.cpp:91] Creating Layer inception_5a/relu_5x5_reduce
I0403 14:58:25.516743 13949 net.cpp:425] inception_5a/relu_5x5_reduce <- inception_5a/5x5_reduce
I0403 14:58:25.516764 13949 net.cpp:386] inception_5a/relu_5x5_reduce -> inception_5a/5x5_reduce (in-place)
I0403 14:58:25.517073 13949 net.cpp:141] Setting up inception_5a/relu_5x5_reduce
I0403 14:58:25.517102 13949 net.cpp:148] Top shape: 24 32 7 7 (37632)
I0403 14:58:25.517118 13949 net.cpp:156] Memory required for data: 1299351072
I0403 14:58:25.517133 13949 layer_factory.hpp:77] Creating layer inception_5a/5x5
I0403 14:58:25.517156 13949 net.cpp:91] Creating Layer inception_5a/5x5
I0403 14:58:25.517175 13949 net.cpp:425] inception_5a/5x5 <- inception_5a/5x5_reduce
I0403 14:58:25.517197 13949 net.cpp:399] inception_5a/5x5 -> inception_5a/5x5
I0403 14:58:25.518985 13949 net.cpp:141] Setting up inception_5a/5x5
I0403 14:58:25.519027 13949 net.cpp:148] Top shape: 24 128 7 7 (150528)
I0403 14:58:25.519045 13949 net.cpp:156] Memory required for data: 1299953184
I0403 14:58:25.519064 13949 layer_factory.hpp:77] Creating layer inception_5a/relu_5x5
I0403 14:58:25.519083 13949 net.cpp:91] Creating Layer inception_5a/relu_5x5
I0403 14:58:25.519099 13949 net.cpp:425] inception_5a/relu_5x5 <- inception_5a/5x5
I0403 14:58:25.519116 13949 net.cpp:386] inception_5a/relu_5x5 -> inception_5a/5x5 (in-place)
I0403 14:58:25.519321 13949 net.cpp:141] Setting up inception_5a/relu_5x5
I0403 14:58:25.519347 13949 net.cpp:148] Top shape: 24 128 7 7 (150528)
I0403 14:58:25.519363 13949 net.cpp:156] Memory required for data: 1300555296
I0403 14:58:25.519378 13949 layer_factory.hpp:77] Creating layer inception_5a/pool
I0403 14:58:25.519397 13949 net.cpp:91] Creating Layer inception_5a/pool
I0403 14:58:25.519413 13949 net.cpp:425] inception_5a/pool <- pool4/3x3_s2_pool4/3x3_s2_0_split_3
I0403 14:58:25.519434 13949 net.cpp:399] inception_5a/pool -> inception_5a/pool
I0403 14:58:25.519507 13949 net.cpp:141] Setting up inception_5a/pool
I0403 14:58:25.519536 13949 net.cpp:148] Top shape: 24 832 7 7 (978432)
I0403 14:58:25.519556 13949 net.cpp:156] Memory required for data: 1304469024
I0403 14:58:25.519572 13949 layer_factory.hpp:77] Creating layer inception_5a/pool_proj
I0403 14:58:25.519593 13949 net.cpp:91] Creating Layer inception_5a/pool_proj
I0403 14:58:25.519613 13949 net.cpp:425] inception_5a/pool_proj <- inception_5a/pool
I0403 14:58:25.519632 13949 net.cpp:399] inception_5a/pool_proj -> inception_5a/pool_proj
I0403 14:58:25.522009 13949 net.cpp:141] Setting up inception_5a/pool_proj
I0403 14:58:25.522038 13949 net.cpp:148] Top shape: 24 128 7 7 (150528)
I0403 14:58:25.522054 13949 net.cpp:156] Memory required for data: 1305071136
I0403 14:58:25.522073 13949 layer_factory.hpp:77] Creating layer inception_5a/relu_pool_proj
I0403 14:58:25.522094 13949 net.cpp:91] Creating Layer inception_5a/relu_pool_proj
I0403 14:58:25.522111 13949 net.cpp:425] inception_5a/relu_pool_proj <- inception_5a/pool_proj
I0403 14:58:25.522128 13949 net.cpp:386] inception_5a/relu_pool_proj -> inception_5a/pool_proj (in-place)
I0403 14:58:25.522438 13949 net.cpp:141] Setting up inception_5a/relu_pool_proj
I0403 14:58:25.522464 13949 net.cpp:148] Top shape: 24 128 7 7 (150528)
I0403 14:58:25.522478 13949 net.cpp:156] Memory required for data: 1305673248
I0403 14:58:25.522493 13949 layer_factory.hpp:77] Creating layer inception_5a/output
I0403 14:58:25.522514 13949 net.cpp:91] Creating Layer inception_5a/output
I0403 14:58:25.522532 13949 net.cpp:425] inception_5a/output <- inception_5a/1x1
I0403 14:58:25.522555 13949 net.cpp:425] inception_5a/output <- inception_5a/3x3
I0403 14:58:25.522572 13949 net.cpp:425] inception_5a/output <- inception_5a/5x5
I0403 14:58:25.522588 13949 net.cpp:425] inception_5a/output <- inception_5a/pool_proj
I0403 14:58:25.522606 13949 net.cpp:399] inception_5a/output -> inception_5a/output
I0403 14:58:25.522660 13949 net.cpp:141] Setting up inception_5a/output
I0403 14:58:25.522683 13949 net.cpp:148] Top shape: 24 832 7 7 (978432)
I0403 14:58:25.522698 13949 net.cpp:156] Memory required for data: 1309586976
I0403 14:58:25.522712 13949 layer_factory.hpp:77] Creating layer inception_5a/output_inception_5a/output_0_split
I0403 14:58:25.522729 13949 net.cpp:91] Creating Layer inception_5a/output_inception_5a/output_0_split
I0403 14:58:25.522744 13949 net.cpp:425] inception_5a/output_inception_5a/output_0_split <- inception_5a/output
I0403 14:58:25.522764 13949 net.cpp:399] inception_5a/output_inception_5a/output_0_split -> inception_5a/output_inception_5a/output_0_split_0
I0403 14:58:25.522785 13949 net.cpp:399] inception_5a/output_inception_5a/output_0_split -> inception_5a/output_inception_5a/output_0_split_1
I0403 14:58:25.522805 13949 net.cpp:399] inception_5a/output_inception_5a/output_0_split -> inception_5a/output_inception_5a/output_0_split_2
I0403 14:58:25.522825 13949 net.cpp:399] inception_5a/output_inception_5a/output_0_split -> inception_5a/output_inception_5a/output_0_split_3
I0403 14:58:25.522940 13949 net.cpp:141] Setting up inception_5a/output_inception_5a/output_0_split
I0403 14:58:25.522966 13949 net.cpp:148] Top shape: 24 832 7 7 (978432)
I0403 14:58:25.522984 13949 net.cpp:148] Top shape: 24 832 7 7 (978432)
I0403 14:58:25.523000 13949 net.cpp:148] Top shape: 24 832 7 7 (978432)
I0403 14:58:25.523013 13949 net.cpp:148] Top shape: 24 832 7 7 (978432)
I0403 14:58:25.523027 13949 net.cpp:156] Memory required for data: 1325241888
I0403 14:58:25.523041 13949 layer_factory.hpp:77] Creating layer inception_5b/1x1
I0403 14:58:25.523063 13949 net.cpp:91] Creating Layer inception_5b/1x1
I0403 14:58:25.523082 13949 net.cpp:425] inception_5b/1x1 <- inception_5a/output_inception_5a/output_0_split_0
I0403 14:58:25.523102 13949 net.cpp:399] inception_5b/1x1 -> inception_5b/1x1
I0403 14:58:25.526907 13949 net.cpp:141] Setting up inception_5b/1x1
I0403 14:58:25.526937 13949 net.cpp:148] Top shape: 24 384 7 7 (451584)
I0403 14:58:25.526954 13949 net.cpp:156] Memory required for data: 1327048224
I0403 14:58:25.526973 13949 layer_factory.hpp:77] Creating layer inception_5b/relu_1x1
I0403 14:58:25.526993 13949 net.cpp:91] Creating Layer inception_5b/relu_1x1
I0403 14:58:25.527011 13949 net.cpp:425] inception_5b/relu_1x1 <- inception_5b/1x1
I0403 14:58:25.527029 13949 net.cpp:386] inception_5b/relu_1x1 -> inception_5b/1x1 (in-place)
I0403 14:58:25.527334 13949 net.cpp:141] Setting up inception_5b/relu_1x1
I0403 14:58:25.527361 13949 net.cpp:148] Top shape: 24 384 7 7 (451584)
I0403 14:58:25.527377 13949 net.cpp:156] Memory required for data: 1328854560
I0403 14:58:25.527392 13949 layer_factory.hpp:77] Creating layer inception_5b/3x3_reduce
I0403 14:58:25.527415 13949 net.cpp:91] Creating Layer inception_5b/3x3_reduce
I0403 14:58:25.527434 13949 net.cpp:425] inception_5b/3x3_reduce <- inception_5a/output_inception_5a/output_0_split_1
I0403 14:58:25.527456 13949 net.cpp:399] inception_5b/3x3_reduce -> inception_5b/3x3_reduce
I0403 14:58:25.530148 13949 net.cpp:141] Setting up inception_5b/3x3_reduce
I0403 14:58:25.530179 13949 net.cpp:148] Top shape: 24 192 7 7 (225792)
I0403 14:58:25.530194 13949 net.cpp:156] Memory required for data: 1329757728
I0403 14:58:25.530212 13949 layer_factory.hpp:77] Creating layer inception_5b/relu_3x3_reduce
I0403 14:58:25.530233 13949 net.cpp:91] Creating Layer inception_5b/relu_3x3_reduce
I0403 14:58:25.530251 13949 net.cpp:425] inception_5b/relu_3x3_reduce <- inception_5b/3x3_reduce
I0403 14:58:25.530270 13949 net.cpp:386] inception_5b/relu_3x3_reduce -> inception_5b/3x3_reduce (in-place)
I0403 14:58:25.530462 13949 net.cpp:141] Setting up inception_5b/relu_3x3_reduce
I0403 14:58:25.530489 13949 net.cpp:148] Top shape: 24 192 7 7 (225792)
I0403 14:58:25.530505 13949 net.cpp:156] Memory required for data: 1330660896
I0403 14:58:25.530520 13949 layer_factory.hpp:77] Creating layer inception_5b/3x3
I0403 14:58:25.530546 13949 net.cpp:91] Creating Layer inception_5b/3x3
I0403 14:58:25.530566 13949 net.cpp:425] inception_5b/3x3 <- inception_5b/3x3_reduce
I0403 14:58:25.530586 13949 net.cpp:399] inception_5b/3x3 -> inception_5b/3x3
I0403 14:58:25.537478 13949 net.cpp:141] Setting up inception_5b/3x3
I0403 14:58:25.537509 13949 net.cpp:148] Top shape: 24 384 7 7 (451584)
I0403 14:58:25.537526 13949 net.cpp:156] Memory required for data: 1332467232
I0403 14:58:25.537550 13949 layer_factory.hpp:77] Creating layer inception_5b/relu_3x3
I0403 14:58:25.537575 13949 net.cpp:91] Creating Layer inception_5b/relu_3x3
I0403 14:58:25.537592 13949 net.cpp:425] inception_5b/relu_3x3 <- inception_5b/3x3
I0403 14:58:25.537622 13949 net.cpp:386] inception_5b/relu_3x3 -> inception_5b/3x3 (in-place)
I0403 14:58:25.537963 13949 net.cpp:141] Setting up inception_5b/relu_3x3
I0403 14:58:25.537989 13949 net.cpp:148] Top shape: 24 384 7 7 (451584)
I0403 14:58:25.538004 13949 net.cpp:156] Memory required for data: 1334273568
I0403 14:58:25.538019 13949 layer_factory.hpp:77] Creating layer inception_5b/5x5_reduce
I0403 14:58:25.538061 13949 net.cpp:91] Creating Layer inception_5b/5x5_reduce
I0403 14:58:25.538081 13949 net.cpp:425] inception_5b/5x5_reduce <- inception_5a/output_inception_5a/output_0_split_2
I0403 14:58:25.538101 13949 net.cpp:399] inception_5b/5x5_reduce -> inception_5b/5x5_reduce
I0403 14:58:25.539468 13949 net.cpp:141] Setting up inception_5b/5x5_reduce
I0403 14:58:25.539507 13949 net.cpp:148] Top shape: 24 48 7 7 (56448)
I0403 14:58:25.539525 13949 net.cpp:156] Memory required for data: 1334499360
I0403 14:58:25.539547 13949 layer_factory.hpp:77] Creating layer inception_5b/relu_5x5_reduce
I0403 14:58:25.539577 13949 net.cpp:91] Creating Layer inception_5b/relu_5x5_reduce
I0403 14:58:25.539594 13949 net.cpp:425] inception_5b/relu_5x5_reduce <- inception_5b/5x5_reduce
I0403 14:58:25.539624 13949 net.cpp:386] inception_5b/relu_5x5_reduce -> inception_5b/5x5_reduce (in-place)
I0403 14:58:25.540045 13949 net.cpp:141] Setting up inception_5b/relu_5x5_reduce
I0403 14:58:25.540072 13949 net.cpp:148] Top shape: 24 48 7 7 (56448)
I0403 14:58:25.540087 13949 net.cpp:156] Memory required for data: 1334725152
I0403 14:58:25.540102 13949 layer_factory.hpp:77] Creating layer inception_5b/5x5
I0403 14:58:25.540122 13949 net.cpp:91] Creating Layer inception_5b/5x5
I0403 14:58:25.540141 13949 net.cpp:425] inception_5b/5x5 <- inception_5b/5x5_reduce
I0403 14:58:25.540160 13949 net.cpp:399] inception_5b/5x5 -> inception_5b/5x5
I0403 14:58:25.542388 13949 net.cpp:141] Setting up inception_5b/5x5
I0403 14:58:25.542418 13949 net.cpp:148] Top shape: 24 128 7 7 (150528)
I0403 14:58:25.542433 13949 net.cpp:156] Memory required for data: 1335327264
I0403 14:58:25.542451 13949 layer_factory.hpp:77] Creating layer inception_5b/relu_5x5
I0403 14:58:25.542469 13949 net.cpp:91] Creating Layer inception_5b/relu_5x5
I0403 14:58:25.542497 13949 net.cpp:425] inception_5b/relu_5x5 <- inception_5b/5x5
I0403 14:58:25.542517 13949 net.cpp:386] inception_5b/relu_5x5 -> inception_5b/5x5 (in-place)
I0403 14:58:25.542734 13949 net.cpp:141] Setting up inception_5b/relu_5x5
I0403 14:58:25.542760 13949 net.cpp:148] Top shape: 24 128 7 7 (150528)
I0403 14:58:25.542788 13949 net.cpp:156] Memory required for data: 1335929376
I0403 14:58:25.542803 13949 layer_factory.hpp:77] Creating layer inception_5b/pool
I0403 14:58:25.542820 13949 net.cpp:91] Creating Layer inception_5b/pool
I0403 14:58:25.542836 13949 net.cpp:425] inception_5b/pool <- inception_5a/output_inception_5a/output_0_split_3
I0403 14:58:25.542857 13949 net.cpp:399] inception_5b/pool -> inception_5b/pool
I0403 14:58:25.542943 13949 net.cpp:141] Setting up inception_5b/pool
I0403 14:58:25.542968 13949 net.cpp:148] Top shape: 24 832 7 7 (978432)
I0403 14:58:25.542981 13949 net.cpp:156] Memory required for data: 1339843104
I0403 14:58:25.542996 13949 layer_factory.hpp:77] Creating layer inception_5b/pool_proj
I0403 14:58:25.543018 13949 net.cpp:91] Creating Layer inception_5b/pool_proj
I0403 14:58:25.543036 13949 net.cpp:425] inception_5b/pool_proj <- inception_5b/pool
I0403 14:58:25.543056 13949 net.cpp:399] inception_5b/pool_proj -> inception_5b/pool_proj
I0403 14:58:25.545442 13949 net.cpp:141] Setting up inception_5b/pool_proj
I0403 14:58:25.545474 13949 net.cpp:148] Top shape: 24 128 7 7 (150528)
I0403 14:58:25.545490 13949 net.cpp:156] Memory required for data: 1340445216
I0403 14:58:25.545507 13949 layer_factory.hpp:77] Creating layer inception_5b/relu_pool_proj
I0403 14:58:25.545526 13949 net.cpp:91] Creating Layer inception_5b/relu_pool_proj
I0403 14:58:25.545547 13949 net.cpp:425] inception_5b/relu_pool_proj <- inception_5b/pool_proj
I0403 14:58:25.545564 13949 net.cpp:386] inception_5b/relu_pool_proj -> inception_5b/pool_proj (in-place)
I0403 14:58:25.545882 13949 net.cpp:141] Setting up inception_5b/relu_pool_proj
I0403 14:58:25.545922 13949 net.cpp:148] Top shape: 24 128 7 7 (150528)
I0403 14:58:25.545938 13949 net.cpp:156] Memory required for data: 1341047328
I0403 14:58:25.545953 13949 layer_factory.hpp:77] Creating layer inception_5b/output
I0403 14:58:25.545969 13949 net.cpp:91] Creating Layer inception_5b/output
I0403 14:58:25.546001 13949 net.cpp:425] inception_5b/output <- inception_5b/1x1
I0403 14:58:25.546020 13949 net.cpp:425] inception_5b/output <- inception_5b/3x3
I0403 14:58:25.546036 13949 net.cpp:425] inception_5b/output <- inception_5b/5x5
I0403 14:58:25.546052 13949 net.cpp:425] inception_5b/output <- inception_5b/pool_proj
I0403 14:58:25.546069 13949 net.cpp:399] inception_5b/output -> inception_5b/output
I0403 14:58:25.546121 13949 net.cpp:141] Setting up inception_5b/output
I0403 14:58:25.546144 13949 net.cpp:148] Top shape: 24 1024 7 7 (1204224)
I0403 14:58:25.546159 13949 net.cpp:156] Memory required for data: 1345864224
I0403 14:58:25.546172 13949 layer_factory.hpp:77] Creating layer pool5/7x7_s1
I0403 14:58:25.546191 13949 net.cpp:91] Creating Layer pool5/7x7_s1
I0403 14:58:25.546208 13949 net.cpp:425] pool5/7x7_s1 <- inception_5b/output
I0403 14:58:25.546226 13949 net.cpp:399] pool5/7x7_s1 -> pool5/7x7_s1
I0403 14:58:25.546439 13949 net.cpp:141] Setting up pool5/7x7_s1
I0403 14:58:25.546468 13949 net.cpp:148] Top shape: 24 1024 1 1 (24576)
I0403 14:58:25.546483 13949 net.cpp:156] Memory required for data: 1345962528
I0403 14:58:25.546496 13949 layer_factory.hpp:77] Creating layer pool5/drop_7x7_s1
I0403 14:58:25.546514 13949 net.cpp:91] Creating Layer pool5/drop_7x7_s1
I0403 14:58:25.546528 13949 net.cpp:425] pool5/drop_7x7_s1 <- pool5/7x7_s1
I0403 14:58:25.546550 13949 net.cpp:386] pool5/drop_7x7_s1 -> pool5/7x7_s1 (in-place)
I0403 14:58:25.546602 13949 net.cpp:141] Setting up pool5/drop_7x7_s1
I0403 14:58:25.546638 13949 net.cpp:148] Top shape: 24 1024 1 1 (24576)
I0403 14:58:25.546653 13949 net.cpp:156] Memory required for data: 1346060832
I0403 14:58:25.546666 13949 layer_factory.hpp:77] Creating layer loss3/classifier_plantvillage
I0403 14:58:25.546687 13949 net.cpp:91] Creating Layer loss3/classifier_plantvillage
I0403 14:58:25.546705 13949 net.cpp:425] loss3/classifier_plantvillage <- pool5/7x7_s1
I0403 14:58:25.546723 13949 net.cpp:399] loss3/classifier_plantvillage -> loss3/classifier_plantvillage
I0403 14:58:25.547153 13949 net.cpp:141] Setting up loss3/classifier_plantvillage
I0403 14:58:25.547178 13949 net.cpp:148] Top shape: 24 38 (912)
I0403 14:58:25.547193 13949 net.cpp:156] Memory required for data: 1346064480
I0403 14:58:25.547209 13949 layer_factory.hpp:77] Creating layer loss3/classifier_plantvillage_loss3/classifier_plantvillage_0_split
I0403 14:58:25.547227 13949 net.cpp:91] Creating Layer loss3/classifier_plantvillage_loss3/classifier_plantvillage_0_split
I0403 14:58:25.547243 13949 net.cpp:425] loss3/classifier_plantvillage_loss3/classifier_plantvillage_0_split <- loss3/classifier_plantvillage
I0403 14:58:25.547266 13949 net.cpp:399] loss3/classifier_plantvillage_loss3/classifier_plantvillage_0_split -> loss3/classifier_plantvillage_loss3/classifier_plantvillage_0_split_0
I0403 14:58:25.547286 13949 net.cpp:399] loss3/classifier_plantvillage_loss3/classifier_plantvillage_0_split -> loss3/classifier_plantvillage_loss3/classifier_plantvillage_0_split_1
I0403 14:58:25.547307 13949 net.cpp:399] loss3/classifier_plantvillage_loss3/classifier_plantvillage_0_split -> loss3/classifier_plantvillage_loss3/classifier_plantvillage_0_split_2
I0403 14:58:25.547325 13949 net.cpp:399] loss3/classifier_plantvillage_loss3/classifier_plantvillage_0_split -> loss3/classifier_plantvillage_loss3/classifier_plantvillage_0_split_3
I0403 14:58:25.547430 13949 net.cpp:141] Setting up loss3/classifier_plantvillage_loss3/classifier_plantvillage_0_split
I0403 14:58:25.547453 13949 net.cpp:148] Top shape: 24 38 (912)
I0403 14:58:25.547469 13949 net.cpp:148] Top shape: 24 38 (912)
I0403 14:58:25.547484 13949 net.cpp:148] Top shape: 24 38 (912)
I0403 14:58:25.547498 13949 net.cpp:148] Top shape: 24 38 (912)
I0403 14:58:25.547511 13949 net.cpp:156] Memory required for data: 1346079072
I0403 14:58:25.547525 13949 layer_factory.hpp:77] Creating layer loss1/loss
I0403 14:58:25.547549 13949 net.cpp:91] Creating Layer loss1/loss
I0403 14:58:25.547569 13949 net.cpp:425] loss1/loss <- loss1/classifier_plantvillage_loss1/classifier_plantvillage_0_split_0
I0403 14:58:25.547598 13949 net.cpp:425] loss1/loss <- label_data_1_split_0
…
