…
I0403 15:33:21.226833 15475 net.cpp:313] The NetState phase (1) differed from the phase (0) specified by a rule in layer data
I0403 15:33:21.227931 15475 net.cpp:49] Initializing net from parameters: 
state {
  phase: TEST
}
layer {
  name: "data"
  type: "Data"
  top: "data"
  top: "label"
  include {
    phase: TEST
  }
  transform_param {
    mirror: false
    crop_size: 224
    mean_file: "/home/mohanty/data/final_dataset/lmdb/color-50-50/mean.binaryproto"
  }
  data_param {
    source: "/home/mohanty/data/final_dataset/lmdb/color-50-50/test_db"
    batch_size: 24
    backend: LMDB
  }
}
layer {
  name: "conv1/7x7_s2"
  type: "Convolution"
  bottom: "data"
  top: "conv1/7x7_s2"
  param {
    lr_mult: 1
    decay_mult: 1
  }
  param {
    lr_mult: 2
    decay_mult: 0
  }
  convolution_param {
    num_output: 64
    pad: 3
    kernel_size: 7
    stride: 2
    weight_filler {
      type: "xavier"
      std: 0.1
    }
    bias_filler {
      type: "constant"
      value: 0.2
    }
  }
}
layer {
  name: "conv1/relu_7x7"
  type: "ReLU"
  bottom: "conv1/7x7_s2"
  top: "conv1/7x7_s2"
}
layer {
  name: "pool1/3x3_s2"
  type: "Pooling"
  bottom: "conv1/7x7_s2"
  top: "pool1/3x3_s2"
  pooling_param {
    pool: MAX
    kernel_size: 3
    stride: 2
  }
}
layer {
  name: "pool1/norm1"
  type: "LRN"
  bottom: "pool1/3x3_s2"
  top: "pool1/norm1"
  lrn_param {
    local_size: 5
    alpha: 0.0001
    beta: 0.75
  }
}
layer {
  name: "conv2/3x3_reduce"
  type: "Convolution"
  bottom: "pool1/norm1"
  top: "conv2/3x3_reduce"
  param {
    lr_mult: 1
    decay_mult: 1
  }
  param {
    lr_mult: 2
    decay_mult: 0
  }
  convolution_param {
    num_output: 64
    kernel_size: 1
    weight_filler {
      type: "xavier"
      std: 0.1
    }
    bias_filler {
      type: "constant"
      value: 0.2
    }
  }
}
layer {
  name: "conv2/relu_3x3_reduce"
  type: "ReLU"
  bottom: "conv2/3x3_reduce"
  top: "conv2/3x3_reduce"
}
layer {
  name: "conv2/3x3"
  type: "Convolution"
  bottom: "conv2/3x3_reduce"
  top: "conv2/3x3"
  param {
    lr_mult: 1
    decay_mult: 1
  }
  param {
    lr_mult: 2
    decay_mult: 0
  }
  convolution_param {
    num_output: 192
    pad: 1
    kernel_size: 3
    weight_filler {
      type: "xavier"
      std: 0.03
    }
    bias_filler {
      type: "constant"
      value: 0.2
    }
  }
}
layer {
  name: "conv2/relu_3x3"
  type: "ReLU"
  bottom: "conv2/3x3"
  top: "conv2/3x3"
}
layer {
  name: "conv2/norm2"
  type: "LRN"
  bottom: "conv2/3x3"
  top: "conv2/norm2"
  lrn_param {
    local_size: 5
    alpha: 0.0001
    beta: 0.75
  }
}
layer {
  name: "pool2/3x3_s2"
  type: "Pooling"
  bottom: "conv2/norm2"
  top: "pool2/3x3_s2"
  pooling_param {
    pool: MAX
    kernel_size: 3
    stride: 2
  }
}
layer {
  name: "inception_3a/1x1"
  type: "Convolution"
  bottom: "pool2/3x3_s2"
  top: "inception_3a/1x1"
  param {
    lr_mult: 1
    decay_mult: 1
  }
  param {
    lr_mult: 2
    decay_mult: 0
  }
  convolution_param {
    num_output: 64
    kernel_size: 1
    weight_filler {
      type: "xavier"
      std: 0.03
    }
    bias_filler {
      type: "constant"
      value: 0.2
    }
  }
}
layer {
  name: "inception_3a/relu_1x1"
  type: "ReLU"
  bottom: "inception_3a/1x1"
  top: "inception_3a/1x1"
}
layer {
  name: "inception_3a/3x3_reduce"
  type: "Convolution"
  bottom: "pool2/3x3_s2"
  top: "inception_3a/3x3_reduce"
  param {
    lr_mult: 1
    decay_mult: 1
  }
  param {
    lr_mult: 2
    decay_mult: 0
  }
  convolution_param {
    num_output: 96
    kernel_size: 1
    weight_filler {
      type: "xavier"
      std: 0.09
    }
    bias_filler {
      type: "constant"
      value: 0.2
    }
  }
}
layer {
  name: "inception_3a/relu_3x3_reduce"
  type: "ReLU"
  bottom: "inception_3a/3x3_reduce"
  top: "inception_3a/3x3_reduce"
}
layer {
  name: "inception_3a/3x3"
  type: "Convolution"
  bottom: "inception_3a/3x3_reduce"
  top: "inception_3a/3x3"
  param {
    lr_mult: 1
    decay_mult: 1
  }
  param {
    lr_mult: 2
    decay_mult: 0
  }
  convolution_param {
    num_output: 128
    pad: 1
    kernel_size: 3
    weight_filler {
      type: "xavier"
      std: 0.03
    }
    bias_filler {
      type: "constant"
      value: 0.2
    }
  }
}
layer {
  name: "inception_3a/relu_3x3"
  type: "ReLU"
  bottom: "inception_3a/3x3"
  top: "inception_3a/3x3"
}
layer {
  name: "inception_3a/5x5_reduce"
  type: "Convolution"
  bottom: "pool2/3x3_s2"
  top: "inception_3a/5x5_reduce"
  param {
    lr_mult: 1
    decay_mult: 1
  }
  param {
    lr_mult: 2
    decay_mult: 0
  }
  convolution_param {
    num_output: 16
    kernel_size: 1
    weight_filler {
      type: "xavier"
      std: 0.2
    }
    bias_filler {
      type: "constant"
      value: 0.2
    }
  }
}
layer {
  name: "inception_3a/relu_5x5_reduce"
  type: "ReLU"
  bottom: "inception_3a/5x5_reduce"
  top: "inception_3a/5x5_reduce"
}
layer {
  name: "inception_3a/5x5"
  type: "Convolution"
  bottom: "inception_3a/5x5_reduce"
  top: "inception_3a/5x5"
  param {
    lr_mult: 1
    decay_mult: 1
  }
  param {
    lr_mult: 2
    decay_mult: 0
  }
  convolution_param {
    num_output: 32
    pad: 2
    kernel_size: 5
    weight_filler {
      type: "xavier"
      std: 0.03
    }
    bias_filler {
      type: "constant"
      value: 0.2
    }
  }
}
layer {
  name: "inception_3a/relu_5x5"
  type: "ReLU"
  bottom: "inception_3a/5x5"
  top: "inception_3a/5x5"
}
layer {
  name: "inception_3a/pool"
  type: "Pooling"
  bottom: "pool2/3x3_s2"
  top: "inception_3a/pool"
  pooling_param {
    pool: MAX
    kernel_size: 3
    stride: 1
    pad: 1
  }
}
layer {
  name: "inception_3a/pool_proj"
  type: "Convolution"
  bottom: "inception_3a/pool"
  top: "inception_3a/pool_proj"
  param {
    lr_mult: 1
    decay_mult: 1
  }
  param {
    lr_mult: 2
    decay_mult: 0
  }
  convolution_param {
    num_output: 32
    kernel_size: 1
    weight_filler {
      type: "xavier"
      std: 0.1
    }
    bias_filler {
      type: "constant"
      value: 0.2
    }
  }
}
layer {
  name: "inception_3a/relu_pool_proj"
  type: "ReLU"
  bottom: "inception_3a/pool_proj"
  top: "inception_3a/pool_proj"
}
layer {
  name: "inception_3a/output"
  type: "Concat"
  bottom: "inception_3a/1x1"
  bottom: "inception_3a/3x3"
  bottom: "inception_3a/5x5"
  bottom: "inception_3a/pool_proj"
  top: "inception_3a/output"
}
layer {
  name: "inception_3b/1x1"
  type: "Convolution"
  bottom: "inception_3a/output"
  top: "inception_3b/1x1"
  param {
    lr_mult: 1
    decay_mult: 1
  }
  param {
    lr_mult: 2
    decay_mult: 0
  }
  convolution_param {
    num_output: 128
    kernel_size: 1
    weight_filler {
      type: "xavier"
      std: 0.03
    }
    bias_filler {
      type: "constant"
      value: 0.2
    }
  }
}
layer {
  name: "inception_3b/relu_1x1"
  type: "ReLU"
  bottom: "inception_3b/1x1"
  top: "inception_3b/1x1"
}
layer {
  name: "inception_3b/3x3_reduce"
  type: "Convolution"
  bottom: "inception_3a/output"
  top: "inception_3b/3x3_reduce"
  param {
    lr_mult: 1
    decay_mult: 1
  }
  param {
    lr_mult: 2
    decay_mult: 0
  }
  convolution_param {
    num_output: 128
    kernel_size: 1
    weight_filler {
      type: "xavier"
      std: 0.09
    }
    bias_filler {
      type: "constant"
      value: 0.2
    }
  }
}
layer {
  name: "inception_3b/relu_3x3_reduce"
  type: "ReLU"
  bottom: "inception_3b/3x3_reduce"
  top: "inception_3b/3x3_reduce"
}
layer {
  name: "inception_3b/3x3"
  type: "Convolution"
  bottom: "inception_3b/3x3_reduce"
  top: "inception_3b/3x3"
  param {
    lr_mult: 1
    decay_mult: 1
  }
  param {
    lr_mult: 2
    decay_mult: 0
  }
  convolution_param {
    num_output: 192
    pad: 1
    kernel_size: 3
    weight_filler {
      type: "xavier"
      std: 0.03
    }
    bias_filler {
      type: "constant"
      value: 0.2
    }
  }
}
layer {
  name: "inception_3b/relu_3x3"
  type: "ReLU"
  bottom: "inception_3b/3x3"
  top: "inception_3b/3x3"
}
layer {
  name: "inception_3b/5x5_reduce"
  type: "Convolution"
  bottom: "inception_3a/output"
  top: "inception_3b/5x5_reduce"
  param {
    lr_mult: 1
    decay_mult: 1
  }
  param {
    lr_mult: 2
    decay_mult: 0
  }
  convolution_param {
    num_output: 32
    kernel_size: 1
    weight_filler {
      type: "xavier"
      std: 0.2
    }
    bias_filler {
      type: "constant"
      value: 0.2
    }
  }
}
layer {
  name: "inception_3b/relu_5x5_reduce"
  type: "ReLU"
  bottom: "inception_3b/5x5_reduce"
  top: "inception_3b/5x5_reduce"
}
layer {
  name: "inception_3b/5x5"
  type: "Convolution"
  bottom: "inception_3b/5x5_reduce"
  top: "inception_3b/5x5"
  param {
    lr_mult: 1
    decay_mult: 1
  }
  param {
    lr_mult: 2
    decay_mult: 0
  }
  convolution_param {
    num_output: 96
    pad: 2
    kernel_size: 5
    weight_filler {
      type: "xavier"
      std: 0.03
    }
    bias_filler {
      type: "constant"
      value: 0.2
    }
  }
}
layer {
  name: "inception_3b/relu_5x5"
  type: "ReLU"
  bottom: "inception_3b/5x5"
  top: "inception_3b/5x5"
}
layer {
  name: "inception_3b/pool"
  type: "Pooling"
  bottom: "inception_3a/output"
  top: "inception_3b/pool"
  pooling_param {
    pool: MAX
    kernel_size: 3
    stride: 1
    pad: 1
  }
}
layer {
  name: "inception_3b/pool_proj"
  type: "Convolution"
  bottom: "inception_3b/pool"
  top: "inception_3b/pool_proj"
  param {
    lr_mult: 1
    decay_mult: 1
  }
  param {
    lr_mult: 2
    decay_mult: 0
  }
  convolution_param {
    num_output: 64
    kernel_size: 1
    weight_filler {
      type: "xavier"
      std: 0.1
    }
    bias_filler {
      type: "constant"
      value: 0.2
    }
  }
}
layer {
  name: "inception_3b/relu_pool_proj"
  type: "ReLU"
  bottom: "inception_3b/pool_proj"
  top: "inception_3b/pool_proj"
}
layer {
  name: "inception_3b/output"
  type: "Concat"
  bottom: "inception_3b/1x1"
  bottom: "inception_3b/3x3"
  bottom: "inception_3b/5x5"
  bottom: "inception_3b/pool_proj"
  top: "inception_3b/output"
}
layer {
  name: "pool3/3x3_s2"
  type: "Pooling"
  bottom: "inception_3b/output"
  top: "pool3/3x3_s2"
  pooling_param {
    pool: MAX
    kernel_size: 3
    stride: 2
  }
}
layer {
  name: "inception_4a/1x1"
  type: "Convolution"
  bottom: "pool3/3x3_s2"
  top: "inception_4a/1x1"
  param {
    lr_mult: 1
    decay_mult: 1
  }
  param {
    lr_mult: 2
    decay_mult: 0
  }
  convolution_param {
    num_output: 192
    kernel_size: 1
    weight_filler {
      type: "xavier"
      std: 0.03
    }
    bias_filler {
      type: "constant"
      value: 0.2
    }
  }
}
layer {
  name: "inception_4a/relu_1x1"
  type: "ReLU"
  bottom: "inception_4a/1x1"
  top: "inception_4a/1x1"
}
layer {
  name: "inception_4a/3x3_reduce"
  type: "Convolution"
  bottom: "pool3/3x3_s2"
  top: "inception_4a/3x3_reduce"
  param {
    lr_mult: 1
    decay_mult: 1
  }
  param {
    lr_mult: 2
    decay_mult: 0
  }
  convolution_param {
    num_output: 96
    kernel_size: 1
    weight_filler {
      type: "xavier"
      std: 0.09
    }
    bias_filler {
      type: "constant"
      value: 0.2
    }
  }
}
layer {
  name: "inception_4a/relu_3x3_reduce"
  type: "ReLU"
  bottom: "inception_4a/3x3_reduce"
  top: "inception_4a/3x3_reduce"
}
layer {
  name: "inception_4a/3x3"
  type: "Convolution"
  bottom: "inception_4a/3x3_reduce"
  top: "inception_4a/3x3"
  param {
    lr_mult: 1
    decay_mult: 1
  }
  param {
    lr_mult: 2
    decay_mult: 0
  }
  convolution_param {
    num_output: 208
    pad: 1
    kernel_size: 3
    weight_filler {
      type: "xavier"
      std: 0.03
    }
    bias_filler {
      type: "constant"
      value: 0.2
    }
  }
}
layer {
  name: "inception_4a/relu_3x3"
  type: "ReLU"
  bottom: "inception_4a/3x3"
  top: "inception_4a/3x3"
}
layer {
  name: "inception_4a/5x5_reduce"
  type: "Convolution"
  bottom: "pool3/3x3_s2"
  top: "inception_4a/5x5_reduce"
  param {
    lr_mult: 1
    decay_mult: 1
  }
  param {
    lr_mult: 2
    decay_mult: 0
  }
  convolution_param {
    num_output: 16
    kernel_size: 1
    weight_filler {
      type: "xavier"
      std: 0.2
    }
    bias_filler {
      type: "constant"
      value: 0.2
    }
  }
}
layer {
  name: "inception_4a/relu_5x5_reduce"
  type: "ReLU"
  bottom: "inception_4a/5x5_reduce"
  top: "inception_4a/5x5_reduce"
}
layer {
  name: "inception_4a/5x5"
  type: "Convolution"
  bottom: "inception_4a/5x5_reduce"
  top: "inception_4a/5x5"
  param {
    lr_mult: 1
    decay_mult: 1
  }
  param {
    lr_mult: 2
    decay_mult: 0
  }
  convolution_param {
    num_output: 48
    pad: 2
    kernel_size: 5
    weight_filler {
      type: "xavier"
      std: 0.03
    }
    bias_filler {
      type: "constant"
      value: 0.2
    }
  }
}
layer {
  name: "inception_4a/relu_5x5"
  type: "ReLU"
  bottom: "inception_4a/5x5"
  top: "inception_4a/5x5"
}
layer {
  name: "inception_4a/pool"
  type: "Pooling"
  bottom: "pool3/3x3_s2"
  top: "inception_4a/pool"
  pooling_param {
    pool: MAX
    kernel_size: 3
    stride: 1
    pad: 1
  }
}
layer {
  name: "inception_4a/pool_proj"
  type: "Convolution"
  bottom: "inception_4a/pool"
  top: "inception_4a/pool_proj"
  param {
    lr_mult: 1
    decay_mult: 1
  }
  param {
    lr_mult: 2
    decay_mult: 0
  }
  convolution_param {
    num_output: 64
    kernel_size: 1
    weight_filler {
      type: "xavier"
      std: 0.1
    }
    bias_filler {
      type: "constant"
      value: 0.2
    }
  }
}
layer {
  name: "inception_4a/relu_pool_proj"
  type: "ReLU"
  bottom: "inception_4a/pool_proj"
  top: "inception_4a/pool_proj"
}
layer {
  name: "inception_4a/output"
  type: "Concat"
  bottom: "inception_4a/1x1"
  bottom: "inception_4a/3x3"
  bottom: "inception_4a/5x5"
  bottom: "inception_4a/pool_proj"
  top: "inception_4a/output"
}
layer {
  name: "loss1/ave_pool"
  type: "Pooling"
  bottom: "inception_4a/output"
  top: "loss1/ave_pool"
  pooling_param {
    pool: AVE
    kernel_size: 5
    stride: 3
  }
}
layer {
  name: "loss1/conv"
  type: "Convolution"
  bottom: "loss1/ave_pool"
  top: "loss1/conv"
  param {
    lr_mult: 1
    decay_mult: 1
  }
  param {
    lr_mult: 2
    decay_mult: 0
  }
  convolution_param {
    num_output: 128
    kernel_size: 1
    weight_filler {
      type: "xavier"
      std: 0.08
    }
    bias_filler {
      type: "constant"
      value: 0.2
    }
  }
}
layer {
  name: "loss1/relu_conv"
  type: "ReLU"
  bottom: "loss1/conv"
  top: "loss1/conv"
}
layer {
  name: "loss1/fc"
  type: "InnerProduct"
  bottom: "loss1/conv"
  top: "loss1/fc"
  param {
    lr_mult: 1
    decay_mult: 1
  }
  param {
    lr_mult: 2
    decay_mult: 0
  }
  inner_product_param {
    num_output: 1024
    weight_filler {
      type: "xavier"
      std: 0.02
    }
    bias_filler {
      type: "constant"
      value: 0.2
    }
  }
}
layer {
  name: "loss1/relu_fc"
  type: "ReLU"
  bottom: "loss1/fc"
  top: "loss1/fc"
}
layer {
  name: "loss1/drop_fc"
  type: "Dropout"
  bottom: "loss1/fc"
  top: "loss1/fc"
  dropout_param {
    dropout_ratio: 0.7
  }
}
layer {
  name: "loss1/classifier_plantvillage"
  type: "InnerProduct"
  bottom: "loss1/fc"
  top: "loss1/classifier_plantvillage"
  param {
    lr_mult: 1
    decay_mult: 1
  }
  param {
    lr_mult: 2
    decay_mult: 0
  }
  inner_product_param {
    num_output: 38
    weight_filler {
      type: "xavier"
      std: 0.0009765625
    }
    bias_filler {
      type: "constant"
      value: 0
    }
  }
}
layer {
  name: "inception_4b/1x1"
  type: "Convolution"
  bottom: "inception_4a/output"
  top: "inception_4b/1x1"
  param {
    lr_mult: 1
    decay_mult: 1
  }
  param {
    lr_mult: 2
    decay_mult: 0
  }
  convolution_param {
    num_output: 160
    kernel_size: 1
    weight_filler {
      type: "xavier"
      std: 0.03
    }
    bias_filler {
      type: "constant"
      value: 0.2
    }
  }
}
layer {
  name: "inception_4b/relu_1x1"
  type: "ReLU"
  bottom: "inception_4b/1x1"
  top: "inception_4b/1x1"
}
layer {
  name: "inception_4b/3x3_reduce"
  type: "Convolution"
  bottom: "inception_4a/output"
  top: "inception_4b/3x3_reduce"
  param {
    lr_mult: 1
    decay_mult: 1
  }
  param {
    lr_mult: 2
    decay_mult: 0
  }
  convolution_param {
    num_output: 112
    kernel_size: 1
    weight_filler {
      type: "xavier"
      std: 0.09
    }
    bias_filler {
      type: "constant"
      value: 0.2
    }
  }
}
layer {
  name: "inception_4b/relu_3x3_reduce"
  type: "ReLU"
  bottom: "inception_4b/3x3_reduce"
  top: "inception_4b/3x3_reduce"
}
layer {
  name: "inception_4b/3x3"
  type: "Convolution"
  bottom: "inception_4b/3x3_reduce"
  top: "inception_4b/3x3"
  param {
    lr_mult: 1
    decay_mult: 1
  }
  param {
    lr_mult: 2
    decay_mult: 0
  }
  convolution_param {
    num_output: 224
    pad: 1
    kernel_size: 3
    weight_filler {
      type: "xavier"
      std: 0.03
    }
    bias_filler {
      type: "constant"
      value: 0.2
    }
  }
}
layer {
  name: "inception_4b/relu_3x3"
  type: "ReLU"
  bottom: "inception_4b/3x3"
  top: "inception_4b/3x3"
}
layer {
  name: "inception_4b/5x5_reduce"
  type: "Convolution"
  bottom: "inception_4a/output"
  top: "inception_4b/5x5_reduce"
  param {
    lr_mult: 1
    decay_mult: 1
  }
  param {
    lr_mult: 2
    decay_mult: 0
  }
  convolution_param {
    num_output: 24
    kernel_size: 1
    weight_filler {
      type: "xavier"
      std: 0.2
    }
    bias_filler {
      type: "constant"
      value: 0.2
    }
  }
}
layer {
  name: "inception_4b/relu_5x5_reduce"
  type: "ReLU"
  bottom: "inception_4b/5x5_reduce"
  top: "inception_4b/5x5_reduce"
}
layer {
  name: "inception_4b/5x5"
  type: "Convolution"
  bottom: "inception_4b/5x5_reduce"
  top: "inception_4b/5x5"
  param {
    lr_mult: 1
    decay_mult: 1
  }
  param {
    lr_mult: 2
    decay_mult: 0
  }
  convolution_param {
    num_output: 64
    pad: 2
    kernel_size: 5
    weight_filler {
      type: "xavier"
      std: 0.03
    }
    bias_filler {
      type: "constant"
      value: 0.2
    }
  }
}
layer {
  name: "inception_4b/relu_5x5"
  type: "ReLU"
  bottom: "inception_4b/5x5"
  top: "inception_4b/5x5"
}
layer {
  name: "inception_4b/pool"
  type: "Pooling"
  bottom: "inception_4a/output"
  top: "inception_4b/pool"
  pooling_param {
    pool: MAX
    kernel_size: 3
    stride: 1
    pad: 1
  }
}
layer {
  name: "inception_4b/pool_proj"
  type: "Convolution"
  bottom: "inception_4b/pool"
  top: "inception_4b/pool_proj"
  param {
    lr_mult: 1
    decay_mult: 1
  }
  param {
    lr_mult: 2
    decay_mult: 0
  }
  convolution_param {
    num_output: 64
    kernel_size: 1
    weight_filler {
      type: "xavier"
      std: 0.1
    }
    bias_filler {
      type: "constant"
      value: 0.2
    }
  }
}
layer {
  name: "inception_4b/relu_pool_proj"
  type: "ReLU"
  bottom: "inception_4b/pool_proj"
  top: "inception_4b/pool_proj"
}
layer {
  name: "inception_4b/output"
  type: "Concat"
  bottom: "inception_4b/1x1"
  bottom: "inception_4b/3x3"
  bottom: "inception_4b/5x5"
  bottom: "inception_4b/pool_proj"
  top: "inception_4b/output"
}
layer {
  name: "inception_4c/1x1"
  type: "Convolution"
  bottom: "inception_4b/output"
  top: "inception_4c/1x1"
  param {
    lr_mult: 1
    decay_mult: 1
  }
  param {
    lr_mult: 2
    decay_mult: 0
  }
  convolution_param {
    num_output: 128
    kernel_size: 1
    weight_filler {
      type: "xavier"
      std: 0.03
    }
    bias_filler {
      type: "constant"
      value: 0.2
    }
  }
}
layer {
  name: "inception_4c/relu_1x1"
  type: "ReLU"
  bottom: "inception_4c/1x1"
  top: "inception_4c/1x1"
}
layer {
  name: "inception_4c/3x3_reduce"
  type: "Convolution"
  bottom: "inception_4b/output"
  top: "inception_4c/3x3_reduce"
  param {
    lr_mult: 1
    decay_mult: 1
  }
  param {
    lr_mult: 2
    decay_mult: 0
  }
  convolution_param {
    num_output: 128
    kernel_size: 1
    weight_filler {
      type: "xavier"
      std: 0.09
    }
    bias_filler {
      type: "constant"
      value: 0.2
    }
  }
}
layer {
  name: "inception_4c/relu_3x3_reduce"
  type: "ReLU"
  bottom: "inception_4c/3x3_reduce"
  top: "inception_4c/3x3_reduce"
}
layer {
  name: "inception_4c/3x3"
  type: "Convolution"
  bottom: "inception_4c/3x3_reduce"
  top: "inception_4c/3x3"
  param {
    lr_mult: 1
    decay_mult: 1
  }
  param {
    lr_mult: 2
    decay_mult: 0
  }
  convolution_param {
    num_output: 256
    pad: 1
    kernel_size: 3
    weight_filler {
      type: "xavier"
      std: 0.03
    }
    bias_filler {
      type: "constant"
      value: 0.2
    }
  }
}
layer {
  name: "inception_4c/relu_3x3"
  type: "ReLU"
  bottom: "inception_4c/3x3"
  top: "inception_4c/3x3"
}
layer {
  name: "inception_4c/5x5_reduce"
  type: "Convolution"
  bottom: "inception_4b/output"
  top: "inception_4c/5x5_reduce"
  param {
    lr_mult: 1
    decay_mult: 1
  }
  param {
    lr_mult: 2
    decay_mult: 0
  }
  convolution_param {
    num_output: 24
    kernel_size: 1
    weight_filler {
      type: "xavier"
      std: 0.2
    }
    bias_filler {
      type: "constant"
      value: 0.2
    }
  }
}
layer {
  name: "inception_4c/relu_5x5_reduce"
  type: "ReLU"
  bottom: "inception_4c/5x5_reduce"
  top: "inception_4c/5x5_reduce"
}
layer {
  name: "inception_4c/5x5"
  type: "Convolution"
  bottom: "inception_4c/5x5_reduce"
  top: "inception_4c/5x5"
  param {
    lr_mult: 1
    decay_mult: 1
  }
  param {
    lr_mult: 2
    decay_mult: 0
  }
  convolution_param {
    num_output: 64
    pad: 2
    kernel_size: 5
    weight_filler {
      type: "xavier"
      std: 0.03
    }
    bias_filler {
      type: "constant"
      value: 0.2
    }
  }
}
layer {
  name: "inception_4c/relu_5x5"
  type: "ReLU"
  bottom: "inception_4c/5x5"
  top: "inception_4c/5x5"
}
layer {
  name: "inception_4c/pool"
  type: "Pooling"
  bottom: "inception_4b/output"
  top: "inception_4c/pool"
  pooling_param {
    pool: MAX
    kernel_size: 3
    stride: 1
    pad: 1
  }
}
layer {
  name: "inception_4c/pool_proj"
  type: "Convolution"
  bottom: "inception_4c/pool"
  top: "inception_4c/pool_proj"
  param {
    lr_mult: 1
    decay_mult: 1
  }
  param {
    lr_mult: 2
    decay_mult: 0
  }
  convolution_param {
    num_output: 64
    kernel_size: 1
    weight_filler {
      type: "xavier"
      std: 0.1
    }
    bias_filler {
      type: "constant"
      value: 0.2
    }
  }
}
layer {
  name: "inception_4c/relu_pool_proj"
  type: "ReLU"
  bottom: "inception_4c/pool_proj"
  top: "inception_4c/pool_proj"
}
layer {
  name: "inception_4c/output"
  type: "Concat"
  bottom: "inception_4c/1x1"
  bottom: "inception_4c/3x3"
  bottom: "inception_4c/5x5"
  bottom: "inception_4c/pool_proj"
  top: "inception_4c/output"
}
layer {
  name: "inception_4d/1x1"
  type: "Convolution"
  bottom: "inception_4c/output"
  top: "inception_4d/1x1"
  param {
    lr_mult: 1
    decay_mult: 1
  }
  param {
    lr_mult: 2
    decay_mult: 0
  }
  convolution_param {
    num_output: 112
    kernel_size: 1
    weight_filler {
      type: "xavier"
      std: 0.03
    }
    bias_filler {
      type: "constant"
      value: 0.2
    }
  }
}
layer {
  name: "inception_4d/relu_1x1"
  type: "ReLU"
  bottom: "inception_4d/1x1"
  top: "inception_4d/1x1"
}
layer {
  name: "inception_4d/3x3_reduce"
  type: "Convolution"
  bottom: "inception_4c/output"
  top: "inception_4d/3x3_reduce"
  param {
    lr_mult: 1
    decay_mult: 1
  }
  param {
    lr_mult: 2
    decay_mult: 0
  }
  convolution_param {
    num_output: 144
    kernel_size: 1
    weight_filler {
      type: "xavier"
      std: 0.09
    }
    bias_filler {
      type: "constant"
      value: 0.2
    }
  }
}
layer {
  name: "inception_4d/relu_3x3_reduce"
  type: "ReLU"
  bottom: "inception_4d/3x3_reduce"
  top: "inception_4d/3x3_reduce"
}
layer {
  name: "inception_4d/3x3"
  type: "Convolution"
  bottom: "inception_4d/3x3_reduce"
  top: "inception_4d/3x3"
  param {
    lr_mult: 1
    decay_mult: 1
  }
  param {
    lr_mult: 2
    decay_mult: 0
  }
  convolution_param {
    num_output: 288
    pad: 1
    kernel_size: 3
    weight_filler {
      type: "xavier"
      std: 0.03
    }
    bias_filler {
      type: "constant"
      value: 0.2
    }
  }
}
layer {
  name: "inception_4d/relu_3x3"
  type: "ReLU"
  bottom: "inception_4d/3x3"
  top: "inception_4d/3x3"
}
layer {
  name: "inception_4d/5x5_reduce"
  type: "Convolution"
  bottom: "inception_4c/output"
  top: "inception_4d/5x5_reduce"
  param {
    lr_mult: 1
    decay_mult: 1
  }
  param {
    lr_mult: 2
    decay_mult: 0
  }
  convolution_param {
    num_output: 32
    kernel_size: 1
    weight_filler {
      type: "xavier"
      std: 0.2
    }
    bias_filler {
      type: "constant"
      value: 0.2
    }
  }
}
layer {
  name: "inception_4d/relu_5x5_reduce"
  type: "ReLU"
  bottom: "inception_4d/5x5_reduce"
  top: "inception_4d/5x5_reduce"
}
layer {
  name: "inception_4d/5x5"
  type: "Convolution"
  bottom: "inception_4d/5x5_reduce"
  top: "inception_4d/5x5"
  param {
    lr_mult: 1
    decay_mult: 1
  }
  param {
    lr_mult: 2
    decay_mult: 0
  }
  convolution_param {
    num_output: 64
    pad: 2
    kernel_size: 5
    weight_filler {
      type: "xavier"
      std: 0.03
    }
    bias_filler {
      type: "constant"
      value: 0.2
    }
  }
}
layer {
  name: "inception_4d/relu_5x5"
  type: "ReLU"
  bottom: "inception_4d/5x5"
  top: "inception_4d/5x5"
}
layer {
  name: "inception_4d/pool"
  type: "Pooling"
  bottom: "inception_4c/output"
  top: "inception_4d/pool"
  pooling_param {
    pool: MAX
    kernel_size: 3
    stride: 1
    pad: 1
  }
}
layer {
  name: "inception_4d/pool_proj"
  type: "Convolution"
  bottom: "inception_4d/pool"
  top: "inception_4d/pool_proj"
  param {
    lr_mult: 1
    decay_mult: 1
  }
  param {
    lr_mult: 2
    decay_mult: 0
  }
  convolution_param {
    num_output: 64
    kernel_size: 1
    weight_filler {
      type: "xavier"
      std: 0.1
    }
    bias_filler {
      type: "constant"
      value: 0.2
    }
  }
}
layer {
  name: "inception_4d/relu_pool_proj"
  type: "ReLU"
  bottom: "inception_4d/pool_proj"
  top: "inception_4d/pool_proj"
}
layer {
  name: "inception_4d/output"
  type: "Concat"
  bottom: "inception_4d/1x1"
  bottom: "inception_4d/3x3"
  bottom: "inception_4d/5x5"
  bottom: "inception_4d/pool_proj"
  top: "inception_4d/output"
}
layer {
  name: "loss2/ave_pool"
  type: "Pooling"
  bottom: "inception_4d/output"
  top: "loss2/ave_pool"
  pooling_param {
    pool: AVE
    kernel_size: 5
    stride: 3
  }
}
layer {
  name: "loss2/conv"
  type: "Convolution"
  bottom: "loss2/ave_pool"
  top: "loss2/conv"
  param {
    lr_mult: 1
    decay_mult: 1
  }
  param {
    lr_mult: 2
    decay_mult: 0
  }
  convolution_param {
    num_output: 128
    kernel_size: 1
    weight_filler {
      type: "xavier"
      std: 0.08
    }
    bias_filler {
      type: "constant"
      value: 0.2
    }
  }
}
layer {
  name: "loss2/relu_conv"
  type: "ReLU"
  bottom: "loss2/conv"
  top: "loss2/conv"
}
layer {
  name: "loss2/fc"
  type: "InnerProduct"
  bottom: "loss2/conv"
  top: "loss2/fc"
  param {
    lr_mult: 1
    decay_mult: 1
  }
  param {
    lr_mult: 2
    decay_mult: 0
  }
  inner_product_param {
    num_output: 1024
    weight_filler {
      type: "xavier"
      std: 0.02
    }
    bias_filler {
      type: "constant"
      value: 0.2
    }
  }
}
layer {
  name: "loss2/relu_fc"
  type: "ReLU"
  bottom: "loss2/fc"
  top: "loss2/fc"
}
layer {
  name: "loss2/drop_fc"
  type: "Dropout"
  bottom: "loss2/fc"
  top: "loss2/fc"
  dropout_param {
    dropout_ratio: 0.7
  }
}
layer {
  name: "loss2/classifier_plantvillage"
  type: "InnerProduct"
  bottom: "loss2/fc"
  top: "loss2/classifier_plantvillage"
  param {
    lr_mult: 1
    decay_mult: 1
  }
  param {
    lr_mult: 2
    decay_mult: 0
  }
  inner_product_param {
    num_output: 38
    weight_filler {
      type: "xavier"
      std: 0.0009765625
    }
    bias_filler {
      type: "constant"
      value: 0
    }
  }
}
layer {
  name: "inception_4e/1x1"
  type: "Convolution"
  bottom: "inception_4d/output"
  top: "inception_4e/1x1"
  param {
    lr_mult: 1
    decay_mult: 1
  }
  param {
    lr_mult: 2
    decay_mult: 0
  }
  convolution_param {
    num_output: 256
    kernel_size: 1
    weight_filler {
      type: "xavier"
      std: 0.03
    }
    bias_filler {
      type: "constant"
      value: 0.2
    }
  }
}
layer {
  name: "inception_4e/relu_1x1"
  type: "ReLU"
  bottom: "inception_4e/1x1"
  top: "inception_4e/1x1"
}
layer {
  name: "inception_4e/3x3_reduce"
  type: "Convolution"
  bottom: "inception_4d/output"
  top: "inception_4e/3x3_reduce"
  param {
    lr_mult: 1
    decay_mult: 1
  }
  param {
    lr_mult: 2
    decay_mult: 0
  }
  convolution_param {
    num_output: 160
    kernel_size: 1
    weight_filler {
      type: "xavier"
      std: 0.09
    }
    bias_filler {
      type: "constant"
      value: 0.2
    }
  }
}
layer {
  name: "inception_4e/relu_3x3_reduce"
  type: "ReLU"
  bottom: "inception_4e/3x3_reduce"
  top: "inception_4e/3x3_reduce"
}
layer {
  name: "inception_4e/3x3"
  type: "Convolution"
  bottom: "inception_4e/3x3_reduce"
  top: "inception_4e/3x3"
  param {
    lr_mult: 1
    decay_mult: 1
  }
  param {
    lr_mult: 2
    decay_mult: 0
  }
  convolution_param {
    num_output: 320
    pad: 1
    kernel_size: 3
    weight_filler {
      type: "xavier"
      std: 0.03
    }
    bias_filler {
      type: "constant"
      value: 0.2
    }
  }
}
layer {
  name: "inception_4e/relu_3x3"
  type: "ReLU"
  bottom: "inception_4e/3x3"
  top: "inception_4e/3x3"
}
layer {
  name: "inception_4e/5x5_reduce"
  type: "Convolution"
  bottom: "inception_4d/output"
  top: "inception_4e/5x5_reduce"
  param {
    lr_mult: 1
    decay_mult: 1
  }
  param {
    lr_mult: 2
    decay_mult: 0
  }
  convolution_param {
    num_output: 32
    kernel_size: 1
    weight_filler {
      type: "xavier"
      std: 0.2
    }
    bias_filler {
      type: "constant"
      value: 0.2
    }
  }
}
layer {
  name: "inception_4e/relu_5x5_reduce"
  type: "ReLU"
  bottom: "inception_4e/5x5_reduce"
  top: "inception_4e/5x5_reduce"
}
layer {
  name: "inception_4e/5x5"
  type: "Convolution"
  bottom: "inception_4e/5x5_reduce"
  top: "inception_4e/5x5"
  p
I0403 15:33:21.229169 15475 layer_factory.hpp:77] Creating layer data
I0403 15:33:21.229746 15475 net.cpp:91] Creating Layer data
I0403 15:33:21.229775 15475 net.cpp:399] data -> data
I0403 15:33:21.229825 15475 net.cpp:399] data -> label
I0403 15:33:21.229861 15475 data_transformer.cpp:25] Loading mean file from: /home/mohanty/data/final_dataset/lmdb/color-50-50/mean.binaryproto
I0403 15:33:21.232818 15478 db_lmdb.cpp:38] Opened lmdb /home/mohanty/data/final_dataset/lmdb/color-50-50/test_db
I0403 15:33:21.242867 15475 data_layer.cpp:41] output data size: 24,3,224,224
I0403 15:33:21.269963 15475 net.cpp:141] Setting up data
I0403 15:33:21.270030 15475 net.cpp:148] Top shape: 24 3 224 224 (3612672)
I0403 15:33:21.270052 15475 net.cpp:148] Top shape: 24 (24)
I0403 15:33:21.270067 15475 net.cpp:156] Memory required for data: 14450784
I0403 15:33:21.270093 15475 layer_factory.hpp:77] Creating layer label_data_1_split
I0403 15:33:21.270118 15475 net.cpp:91] Creating Layer label_data_1_split
I0403 15:33:21.270136 15475 net.cpp:425] label_data_1_split <- label
I0403 15:33:21.270167 15475 net.cpp:399] label_data_1_split -> label_data_1_split_0
I0403 15:33:21.270195 15475 net.cpp:399] label_data_1_split -> label_data_1_split_1
I0403 15:33:21.270215 15475 net.cpp:399] label_data_1_split -> label_data_1_split_2
I0403 15:33:21.270233 15475 net.cpp:399] label_data_1_split -> label_data_1_split_3
I0403 15:33:21.270252 15475 net.cpp:399] label_data_1_split -> label_data_1_split_4
I0403 15:33:21.270270 15475 net.cpp:399] label_data_1_split -> label_data_1_split_5
I0403 15:33:21.270289 15475 net.cpp:399] label_data_1_split -> label_data_1_split_6
I0403 15:33:21.270308 15475 net.cpp:399] label_data_1_split -> label_data_1_split_7
I0403 15:33:21.270328 15475 net.cpp:399] label_data_1_split -> label_data_1_split_8
I0403 15:33:21.270345 15475 net.cpp:399] label_data_1_split -> label_data_1_split_9
I0403 15:33:21.270457 15475 net.cpp:141] Setting up label_data_1_split
I0403 15:33:21.270480 15475 net.cpp:148] Top shape: 24 (24)
I0403 15:33:21.270498 15475 net.cpp:148] Top shape: 24 (24)
I0403 15:33:21.270517 15475 net.cpp:148] Top shape: 24 (24)
I0403 15:33:21.270534 15475 net.cpp:148] Top shape: 24 (24)
I0403 15:33:21.270548 15475 net.cpp:148] Top shape: 24 (24)
I0403 15:33:21.270563 15475 net.cpp:148] Top shape: 24 (24)
I0403 15:33:21.270577 15475 net.cpp:148] Top shape: 24 (24)
I0403 15:33:21.270592 15475 net.cpp:148] Top shape: 24 (24)
I0403 15:33:21.270607 15475 net.cpp:148] Top shape: 24 (24)
I0403 15:33:21.270622 15475 net.cpp:148] Top shape: 24 (24)
I0403 15:33:21.270669 15475 net.cpp:156] Memory required for data: 14451744
I0403 15:33:21.270685 15475 layer_factory.hpp:77] Creating layer conv1/7x7_s2
I0403 15:33:21.270715 15475 net.cpp:91] Creating Layer conv1/7x7_s2
I0403 15:33:21.270732 15475 net.cpp:425] conv1/7x7_s2 <- data
I0403 15:33:21.270751 15475 net.cpp:399] conv1/7x7_s2 -> conv1/7x7_s2
I0403 15:33:21.411782 15475 net.cpp:141] Setting up conv1/7x7_s2
I0403 15:33:21.411860 15475 net.cpp:148] Top shape: 24 64 112 112 (19267584)
I0403 15:33:21.411878 15475 net.cpp:156] Memory required for data: 91522080
I0403 15:33:21.411909 15475 layer_factory.hpp:77] Creating layer conv1/relu_7x7
I0403 15:33:21.411936 15475 net.cpp:91] Creating Layer conv1/relu_7x7
I0403 15:33:21.411954 15475 net.cpp:425] conv1/relu_7x7 <- conv1/7x7_s2
I0403 15:33:21.411973 15475 net.cpp:386] conv1/relu_7x7 -> conv1/7x7_s2 (in-place)
I0403 15:33:21.412231 15475 net.cpp:141] Setting up conv1/relu_7x7
I0403 15:33:21.412259 15475 net.cpp:148] Top shape: 24 64 112 112 (19267584)
I0403 15:33:21.412276 15475 net.cpp:156] Memory required for data: 168592416
I0403 15:33:21.412291 15475 layer_factory.hpp:77] Creating layer pool1/3x3_s2
I0403 15:33:21.412315 15475 net.cpp:91] Creating Layer pool1/3x3_s2
I0403 15:33:21.412333 15475 net.cpp:425] pool1/3x3_s2 <- conv1/7x7_s2
I0403 15:33:21.412351 15475 net.cpp:399] pool1/3x3_s2 -> pool1/3x3_s2
I0403 15:33:21.412426 15475 net.cpp:141] Setting up pool1/3x3_s2
I0403 15:33:21.412451 15475 net.cpp:148] Top shape: 24 64 56 56 (4816896)
I0403 15:33:21.412467 15475 net.cpp:156] Memory required for data: 187860000
I0403 15:33:21.412482 15475 layer_factory.hpp:77] Creating layer pool1/norm1
I0403 15:33:21.412505 15475 net.cpp:91] Creating Layer pool1/norm1
I0403 15:33:21.412523 15475 net.cpp:425] pool1/norm1 <- pool1/3x3_s2
I0403 15:33:21.412545 15475 net.cpp:399] pool1/norm1 -> pool1/norm1
I0403 15:33:21.412839 15475 net.cpp:141] Setting up pool1/norm1
I0403 15:33:21.412866 15475 net.cpp:148] Top shape: 24 64 56 56 (4816896)
I0403 15:33:21.412883 15475 net.cpp:156] Memory required for data: 207127584
I0403 15:33:21.412897 15475 layer_factory.hpp:77] Creating layer conv2/3x3_reduce
I0403 15:33:21.412921 15475 net.cpp:91] Creating Layer conv2/3x3_reduce
I0403 15:33:21.412938 15475 net.cpp:425] conv2/3x3_reduce <- pool1/norm1
I0403 15:33:21.412956 15475 net.cpp:399] conv2/3x3_reduce -> conv2/3x3_reduce
I0403 15:33:21.414311 15475 net.cpp:141] Setting up conv2/3x3_reduce
I0403 15:33:21.414345 15475 net.cpp:148] Top shape: 24 64 56 56 (4816896)
I0403 15:33:21.414362 15475 net.cpp:156] Memory required for data: 226395168
I0403 15:33:21.414387 15475 layer_factory.hpp:77] Creating layer conv2/relu_3x3_reduce
I0403 15:33:21.414407 15475 net.cpp:91] Creating Layer conv2/relu_3x3_reduce
I0403 15:33:21.414422 15475 net.cpp:425] conv2/relu_3x3_reduce <- conv2/3x3_reduce
I0403 15:33:21.414439 15475 net.cpp:386] conv2/relu_3x3_reduce -> conv2/3x3_reduce (in-place)
I0403 15:33:21.414706 15475 net.cpp:141] Setting up conv2/relu_3x3_reduce
I0403 15:33:21.414734 15475 net.cpp:148] Top shape: 24 64 56 56 (4816896)
I0403 15:33:21.414751 15475 net.cpp:156] Memory required for data: 245662752
I0403 15:33:21.414765 15475 layer_factory.hpp:77] Creating layer conv2/3x3
I0403 15:33:21.414786 15475 net.cpp:91] Creating Layer conv2/3x3
I0403 15:33:21.414803 15475 net.cpp:425] conv2/3x3 <- conv2/3x3_reduce
I0403 15:33:21.414821 15475 net.cpp:399] conv2/3x3 -> conv2/3x3
I0403 15:33:21.417090 15475 net.cpp:141] Setting up conv2/3x3
I0403 15:33:21.417120 15475 net.cpp:148] Top shape: 24 192 56 56 (14450688)
I0403 15:33:21.417137 15475 net.cpp:156] Memory required for data: 303465504
I0403 15:33:21.417158 15475 layer_factory.hpp:77] Creating layer conv2/relu_3x3
I0403 15:33:21.417177 15475 net.cpp:91] Creating Layer conv2/relu_3x3
I0403 15:33:21.417193 15475 net.cpp:425] conv2/relu_3x3 <- conv2/3x3
I0403 15:33:21.417210 15475 net.cpp:386] conv2/relu_3x3 -> conv2/3x3 (in-place)
I0403 15:33:21.417372 15475 net.cpp:141] Setting up conv2/relu_3x3
I0403 15:33:21.417398 15475 net.cpp:148] Top shape: 24 192 56 56 (14450688)
I0403 15:33:21.417455 15475 net.cpp:156] Memory required for data: 361268256
I0403 15:33:21.417471 15475 layer_factory.hpp:77] Creating layer conv2/norm2
I0403 15:33:21.417490 15475 net.cpp:91] Creating Layer conv2/norm2
I0403 15:33:21.417505 15475 net.cpp:425] conv2/norm2 <- conv2/3x3
I0403 15:33:21.417522 15475 net.cpp:399] conv2/norm2 -> conv2/norm2
I0403 15:33:21.417819 15475 net.cpp:141] Setting up conv2/norm2
I0403 15:33:21.417845 15475 net.cpp:148] Top shape: 24 192 56 56 (14450688)
I0403 15:33:21.417861 15475 net.cpp:156] Memory required for data: 419071008
I0403 15:33:21.417876 15475 layer_factory.hpp:77] Creating layer pool2/3x3_s2
I0403 15:33:21.417893 15475 net.cpp:91] Creating Layer pool2/3x3_s2
I0403 15:33:21.417908 15475 net.cpp:425] pool2/3x3_s2 <- conv2/norm2
I0403 15:33:21.417927 15475 net.cpp:399] pool2/3x3_s2 -> pool2/3x3_s2
I0403 15:33:21.417976 15475 net.cpp:141] Setting up pool2/3x3_s2
I0403 15:33:21.417999 15475 net.cpp:148] Top shape: 24 192 28 28 (3612672)
I0403 15:33:21.418015 15475 net.cpp:156] Memory required for data: 433521696
I0403 15:33:21.418028 15475 layer_factory.hpp:77] Creating layer pool2/3x3_s2_pool2/3x3_s2_0_split
I0403 15:33:21.418046 15475 net.cpp:91] Creating Layer pool2/3x3_s2_pool2/3x3_s2_0_split
I0403 15:33:21.418061 15475 net.cpp:425] pool2/3x3_s2_pool2/3x3_s2_0_split <- pool2/3x3_s2
I0403 15:33:21.418077 15475 net.cpp:399] pool2/3x3_s2_pool2/3x3_s2_0_split -> pool2/3x3_s2_pool2/3x3_s2_0_split_0
I0403 15:33:21.418097 15475 net.cpp:399] pool2/3x3_s2_pool2/3x3_s2_0_split -> pool2/3x3_s2_pool2/3x3_s2_0_split_1
I0403 15:33:21.418117 15475 net.cpp:399] pool2/3x3_s2_pool2/3x3_s2_0_split -> pool2/3x3_s2_pool2/3x3_s2_0_split_2
I0403 15:33:21.418135 15475 net.cpp:399] pool2/3x3_s2_pool2/3x3_s2_0_split -> pool2/3x3_s2_pool2/3x3_s2_0_split_3
I0403 15:33:21.418200 15475 net.cpp:141] Setting up pool2/3x3_s2_pool2/3x3_s2_0_split
I0403 15:33:21.418222 15475 net.cpp:148] Top shape: 24 192 28 28 (3612672)
I0403 15:33:21.418239 15475 net.cpp:148] Top shape: 24 192 28 28 (3612672)
I0403 15:33:21.418256 15475 net.cpp:148] Top shape: 24 192 28 28 (3612672)
I0403 15:33:21.418272 15475 net.cpp:148] Top shape: 24 192 28 28 (3612672)
I0403 15:33:21.418284 15475 net.cpp:156] Memory required for data: 491324448
I0403 15:33:21.418298 15475 layer_factory.hpp:77] Creating layer inception_3a/1x1
I0403 15:33:21.418318 15475 net.cpp:91] Creating Layer inception_3a/1x1
I0403 15:33:21.418335 15475 net.cpp:425] inception_3a/1x1 <- pool2/3x3_s2_pool2/3x3_s2_0_split_0
I0403 15:33:21.418354 15475 net.cpp:399] inception_3a/1x1 -> inception_3a/1x1
I0403 15:33:21.419874 15475 net.cpp:141] Setting up inception_3a/1x1
I0403 15:33:21.419904 15475 net.cpp:148] Top shape: 24 64 28 28 (1204224)
I0403 15:33:21.419921 15475 net.cpp:156] Memory required for data: 496141344
I0403 15:33:21.419939 15475 layer_factory.hpp:77] Creating layer inception_3a/relu_1x1
I0403 15:33:21.419960 15475 net.cpp:91] Creating Layer inception_3a/relu_1x1
I0403 15:33:21.419977 15475 net.cpp:425] inception_3a/relu_1x1 <- inception_3a/1x1
I0403 15:33:21.419994 15475 net.cpp:386] inception_3a/relu_1x1 -> inception_3a/1x1 (in-place)
I0403 15:33:21.420167 15475 net.cpp:141] Setting up inception_3a/relu_1x1
I0403 15:33:21.420195 15475 net.cpp:148] Top shape: 24 64 28 28 (1204224)
I0403 15:33:21.420212 15475 net.cpp:156] Memory required for data: 500958240
I0403 15:33:21.420225 15475 layer_factory.hpp:77] Creating layer inception_3a/3x3_reduce
I0403 15:33:21.420248 15475 net.cpp:91] Creating Layer inception_3a/3x3_reduce
I0403 15:33:21.420267 15475 net.cpp:425] inception_3a/3x3_reduce <- pool2/3x3_s2_pool2/3x3_s2_0_split_1
I0403 15:33:21.420286 15475 net.cpp:399] inception_3a/3x3_reduce -> inception_3a/3x3_reduce
I0403 15:33:21.422014 15475 net.cpp:141] Setting up inception_3a/3x3_reduce
I0403 15:33:21.422044 15475 net.cpp:148] Top shape: 24 96 28 28 (1806336)
I0403 15:33:21.422060 15475 net.cpp:156] Memory required for data: 508183584
I0403 15:33:21.422086 15475 layer_factory.hpp:77] Creating layer inception_3a/relu_3x3_reduce
I0403 15:33:21.422122 15475 net.cpp:91] Creating Layer inception_3a/relu_3x3_reduce
I0403 15:33:21.422140 15475 net.cpp:425] inception_3a/relu_3x3_reduce <- inception_3a/3x3_reduce
I0403 15:33:21.422160 15475 net.cpp:386] inception_3a/relu_3x3_reduce -> inception_3a/3x3_reduce (in-place)
I0403 15:33:21.422343 15475 net.cpp:141] Setting up inception_3a/relu_3x3_reduce
I0403 15:33:21.422369 15475 net.cpp:148] Top shape: 24 96 28 28 (1806336)
I0403 15:33:21.422384 15475 net.cpp:156] Memory required for data: 515408928
I0403 15:33:21.422399 15475 layer_factory.hpp:77] Creating layer inception_3a/3x3
I0403 15:33:21.422420 15475 net.cpp:91] Creating Layer inception_3a/3x3
I0403 15:33:21.422438 15475 net.cpp:425] inception_3a/3x3 <- inception_3a/3x3_reduce
I0403 15:33:21.422462 15475 net.cpp:399] inception_3a/3x3 -> inception_3a/3x3
I0403 15:33:21.424144 15475 net.cpp:141] Setting up inception_3a/3x3
I0403 15:33:21.424175 15475 net.cpp:148] Top shape: 24 128 28 28 (2408448)
I0403 15:33:21.424191 15475 net.cpp:156] Memory required for data: 525042720
I0403 15:33:21.424211 15475 layer_factory.hpp:77] Creating layer inception_3a/relu_3x3
I0403 15:33:21.424228 15475 net.cpp:91] Creating Layer inception_3a/relu_3x3
I0403 15:33:21.424244 15475 net.cpp:425] inception_3a/relu_3x3 <- inception_3a/3x3
I0403 15:33:21.424266 15475 net.cpp:386] inception_3a/relu_3x3 -> inception_3a/3x3 (in-place)
I0403 15:33:21.424553 15475 net.cpp:141] Setting up inception_3a/relu_3x3
I0403 15:33:21.424583 15475 net.cpp:148] Top shape: 24 128 28 28 (2408448)
I0403 15:33:21.424600 15475 net.cpp:156] Memory required for data: 534676512
I0403 15:33:21.424615 15475 layer_factory.hpp:77] Creating layer inception_3a/5x5_reduce
I0403 15:33:21.424638 15475 net.cpp:91] Creating Layer inception_3a/5x5_reduce
I0403 15:33:21.424656 15475 net.cpp:425] inception_3a/5x5_reduce <- pool2/3x3_s2_pool2/3x3_s2_0_split_2
I0403 15:33:21.424675 15475 net.cpp:399] inception_3a/5x5_reduce -> inception_3a/5x5_reduce
I0403 15:33:21.425664 15475 net.cpp:141] Setting up inception_3a/5x5_reduce
I0403 15:33:21.425695 15475 net.cpp:148] Top shape: 24 16 28 28 (301056)
I0403 15:33:21.425711 15475 net.cpp:156] Memory required for data: 535880736
I0403 15:33:21.425730 15475 layer_factory.hpp:77] Creating layer inception_3a/relu_5x5_reduce
I0403 15:33:21.425748 15475 net.cpp:91] Creating Layer inception_3a/relu_5x5_reduce
I0403 15:33:21.425763 15475 net.cpp:425] inception_3a/relu_5x5_reduce <- inception_3a/5x5_reduce
I0403 15:33:21.425784 15475 net.cpp:386] inception_3a/relu_5x5_reduce -> inception_3a/5x5_reduce (in-place)
I0403 15:33:21.426074 15475 net.cpp:141] Setting up inception_3a/relu_5x5_reduce
I0403 15:33:21.426101 15475 net.cpp:148] Top shape: 24 16 28 28 (301056)
I0403 15:33:21.426117 15475 net.cpp:156] Memory required for data: 537084960
I0403 15:33:21.426132 15475 layer_factory.hpp:77] Creating layer inception_3a/5x5
I0403 15:33:21.426154 15475 net.cpp:91] Creating Layer inception_3a/5x5
I0403 15:33:21.426172 15475 net.cpp:425] inception_3a/5x5 <- inception_3a/5x5_reduce
I0403 15:33:21.426193 15475 net.cpp:399] inception_3a/5x5 -> inception_3a/5x5
I0403 15:33:21.427211 15475 net.cpp:141] Setting up inception_3a/5x5
I0403 15:33:21.427238 15475 net.cpp:148] Top shape: 24 32 28 28 (602112)
I0403 15:33:21.427255 15475 net.cpp:156] Memory required for data: 539493408
I0403 15:33:21.427273 15475 layer_factory.hpp:77] Creating layer inception_3a/relu_5x5
I0403 15:33:21.427294 15475 net.cpp:91] Creating Layer inception_3a/relu_5x5
I0403 15:33:21.427312 15475 net.cpp:425] inception_3a/relu_5x5 <- inception_3a/5x5
I0403 15:33:21.427330 15475 net.cpp:386] inception_3a/relu_5x5 -> inception_3a/5x5 (in-place)
I0403 15:33:21.427508 15475 net.cpp:141] Setting up inception_3a/relu_5x5
I0403 15:33:21.427534 15475 net.cpp:148] Top shape: 24 32 28 28 (602112)
I0403 15:33:21.427557 15475 net.cpp:156] Memory required for data: 541901856
I0403 15:33:21.427572 15475 layer_factory.hpp:77] Creating layer inception_3a/pool
I0403 15:33:21.427589 15475 net.cpp:91] Creating Layer inception_3a/pool
I0403 15:33:21.427604 15475 net.cpp:425] inception_3a/pool <- pool2/3x3_s2_pool2/3x3_s2_0_split_3
I0403 15:33:21.427640 15475 net.cpp:399] inception_3a/pool -> inception_3a/pool
I0403 15:33:21.427700 15475 net.cpp:141] Setting up inception_3a/pool
I0403 15:33:21.427724 15475 net.cpp:148] Top shape: 24 192 28 28 (3612672)
I0403 15:33:21.427739 15475 net.cpp:156] Memory required for data: 556352544
I0403 15:33:21.427753 15475 layer_factory.hpp:77] Creating layer inception_3a/pool_proj
I0403 15:33:21.427778 15475 net.cpp:91] Creating Layer inception_3a/pool_proj
I0403 15:33:21.427796 15475 net.cpp:425] inception_3a/pool_proj <- inception_3a/pool
I0403 15:33:21.427814 15475 net.cpp:399] inception_3a/pool_proj -> inception_3a/pool_proj
I0403 15:33:21.428828 15475 net.cpp:141] Setting up inception_3a/pool_proj
I0403 15:33:21.428858 15475 net.cpp:148] Top shape: 24 32 28 28 (602112)
I0403 15:33:21.428874 15475 net.cpp:156] Memory required for data: 558760992
I0403 15:33:21.428899 15475 layer_factory.hpp:77] Creating layer inception_3a/relu_pool_proj
I0403 15:33:21.428920 15475 net.cpp:91] Creating Layer inception_3a/relu_pool_proj
I0403 15:33:21.428936 15475 net.cpp:425] inception_3a/relu_pool_proj <- inception_3a/pool_proj
I0403 15:33:21.428956 15475 net.cpp:386] inception_3a/relu_pool_proj -> inception_3a/pool_proj (in-place)
I0403 15:33:21.429245 15475 net.cpp:141] Setting up inception_3a/relu_pool_proj
I0403 15:33:21.429276 15475 net.cpp:148] Top shape: 24 32 28 28 (602112)
I0403 15:33:21.429293 15475 net.cpp:156] Memory required for data: 561169440
I0403 15:33:21.429308 15475 layer_factory.hpp:77] Creating layer inception_3a/output
I0403 15:33:21.429327 15475 net.cpp:91] Creating Layer inception_3a/output
I0403 15:33:21.429342 15475 net.cpp:425] inception_3a/output <- inception_3a/1x1
I0403 15:33:21.429359 15475 net.cpp:425] inception_3a/output <- inception_3a/3x3
I0403 15:33:21.429375 15475 net.cpp:425] inception_3a/output <- inception_3a/5x5
I0403 15:33:21.429391 15475 net.cpp:425] inception_3a/output <- inception_3a/pool_proj
I0403 15:33:21.429409 15475 net.cpp:399] inception_3a/output -> inception_3a/output
I0403 15:33:21.429458 15475 net.cpp:141] Setting up inception_3a/output
I0403 15:33:21.429483 15475 net.cpp:148] Top shape: 24 256 28 28 (4816896)
I0403 15:33:21.429499 15475 net.cpp:156] Memory required for data: 580437024
I0403 15:33:21.429514 15475 layer_factory.hpp:77] Creating layer inception_3a/output_inception_3a/output_0_split
I0403 15:33:21.429530 15475 net.cpp:91] Creating Layer inception_3a/output_inception_3a/output_0_split
I0403 15:33:21.429551 15475 net.cpp:425] inception_3a/output_inception_3a/output_0_split <- inception_3a/output
I0403 15:33:21.429574 15475 net.cpp:399] inception_3a/output_inception_3a/output_0_split -> inception_3a/output_inception_3a/output_0_split_0
I0403 15:33:21.429596 15475 net.cpp:399] inception_3a/output_inception_3a/output_0_split -> inception_3a/output_inception_3a/output_0_split_1
I0403 15:33:21.429621 15475 net.cpp:399] inception_3a/output_inception_3a/output_0_split -> inception_3a/output_inception_3a/output_0_split_2
I0403 15:33:21.429644 15475 net.cpp:399] inception_3a/output_inception_3a/output_0_split -> inception_3a/output_inception_3a/output_0_split_3
I0403 15:33:21.429721 15475 net.cpp:141] Setting up inception_3a/output_inception_3a/output_0_split
I0403 15:33:21.429745 15475 net.cpp:148] Top shape: 24 256 28 28 (4816896)
I0403 15:33:21.429764 15475 net.cpp:148] Top shape: 24 256 28 28 (4816896)
I0403 15:33:21.429782 15475 net.cpp:148] Top shape: 24 256 28 28 (4816896)
I0403 15:33:21.429800 15475 net.cpp:148] Top shape: 24 256 28 28 (4816896)
I0403 15:33:21.429813 15475 net.cpp:156] Memory required for data: 657507360
I0403 15:33:21.429828 15475 layer_factory.hpp:77] Creating layer inception_3b/1x1
I0403 15:33:21.429848 15475 net.cpp:91] Creating Layer inception_3b/1x1
I0403 15:33:21.429865 15475 net.cpp:425] inception_3b/1x1 <- inception_3a/output_inception_3a/output_0_split_0
I0403 15:33:21.429886 15475 net.cpp:399] inception_3b/1x1 -> inception_3b/1x1
I0403 15:33:21.431093 15475 net.cpp:141] Setting up inception_3b/1x1
I0403 15:33:21.431134 15475 net.cpp:148] Top shape: 24 128 28 28 (2408448)
I0403 15:33:21.431152 15475 net.cpp:156] Memory required for data: 667141152
I0403 15:33:21.431171 15475 layer_factory.hpp:77] Creating layer inception_3b/relu_1x1
I0403 15:33:21.431195 15475 net.cpp:91] Creating Layer inception_3b/relu_1x1
I0403 15:33:21.431213 15475 net.cpp:425] inception_3b/relu_1x1 <- inception_3b/1x1
I0403 15:33:21.431231 15475 net.cpp:386] inception_3b/relu_1x1 -> inception_3b/1x1 (in-place)
I0403 15:33:21.431416 15475 net.cpp:141] Setting up inception_3b/relu_1x1
I0403 15:33:21.431444 15475 net.cpp:148] Top shape: 24 128 28 28 (2408448)
I0403 15:33:21.431462 15475 net.cpp:156] Memory required for data: 676774944
I0403 15:33:21.431476 15475 layer_factory.hpp:77] Creating layer inception_3b/3x3_reduce
I0403 15:33:21.431499 15475 net.cpp:91] Creating Layer inception_3b/3x3_reduce
I0403 15:33:21.431517 15475 net.cpp:425] inception_3b/3x3_reduce <- inception_3a/output_inception_3a/output_0_split_1
I0403 15:33:21.431540 15475 net.cpp:399] inception_3b/3x3_reduce -> inception_3b/3x3_reduce
I0403 15:33:21.432735 15475 net.cpp:141] Setting up inception_3b/3x3_reduce
I0403 15:33:21.432765 15475 net.cpp:148] Top shape: 24 128 28 28 (2408448)
I0403 15:33:21.432781 15475 net.cpp:156] Memory required for data: 686408736
I0403 15:33:21.432799 15475 layer_factory.hpp:77] Creating layer inception_3b/relu_3x3_reduce
I0403 15:33:21.432821 15475 net.cpp:91] Creating Layer inception_3b/relu_3x3_reduce
I0403 15:33:21.432838 15475 net.cpp:425] inception_3b/relu_3x3_reduce <- inception_3b/3x3_reduce
I0403 15:33:21.432855 15475 net.cpp:386] inception_3b/relu_3x3_reduce -> inception_3b/3x3_reduce (in-place)
I0403 15:33:21.433038 15475 net.cpp:141] Setting up inception_3b/relu_3x3_reduce
I0403 15:33:21.433068 15475 net.cpp:148] Top shape: 24 128 28 28 (2408448)
I0403 15:33:21.433084 15475 net.cpp:156] Memory required for data: 696042528
I0403 15:33:21.433099 15475 layer_factory.hpp:77] Creating layer inception_3b/3x3
I0403 15:33:21.433125 15475 net.cpp:91] Creating Layer inception_3b/3x3
I0403 15:33:21.433142 15475 net.cpp:425] inception_3b/3x3 <- inception_3b/3x3_reduce
I0403 15:33:21.433164 15475 net.cpp:399] inception_3b/3x3 -> inception_3b/3x3
I0403 15:33:21.436241 15475 net.cpp:141] Setting up inception_3b/3x3
I0403 15:33:21.436275 15475 net.cpp:148] Top shape: 24 192 28 28 (3612672)
I0403 15:33:21.436293 15475 net.cpp:156] Memory required for data: 710493216
I0403 15:33:21.436313 15475 layer_factory.hpp:77] Creating layer inception_3b/relu_3x3
I0403 15:33:21.436331 15475 net.cpp:91] Creating Layer inception_3b/relu_3x3
I0403 15:33:21.436347 15475 net.cpp:425] inception_3b/relu_3x3 <- inception_3b/3x3
I0403 15:33:21.436368 15475 net.cpp:386] inception_3b/relu_3x3 -> inception_3b/3x3 (in-place)
I0403 15:33:21.436660 15475 net.cpp:141] Setting up inception_3b/relu_3x3
I0403 15:33:21.436691 15475 net.cpp:148] Top shape: 24 192 28 28 (3612672)
I0403 15:33:21.436707 15475 net.cpp:156] Memory required for data: 724943904
I0403 15:33:21.436722 15475 layer_factory.hpp:77] Creating layer inception_3b/5x5_reduce
I0403 15:33:21.436748 15475 net.cpp:91] Creating Layer inception_3b/5x5_reduce
I0403 15:33:21.436766 15475 net.cpp:425] inception_3b/5x5_reduce <- inception_3a/output_inception_3a/output_0_split_2
I0403 15:33:21.436786 15475 net.cpp:399] inception_3b/5x5_reduce -> inception_3b/5x5_reduce
I0403 15:33:21.437826 15475 net.cpp:141] Setting up inception_3b/5x5_reduce
I0403 15:33:21.437855 15475 net.cpp:148] Top shape: 24 32 28 28 (602112)
I0403 15:33:21.437872 15475 net.cpp:156] Memory required for data: 727352352
I0403 15:33:21.437891 15475 layer_factory.hpp:77] Creating layer inception_3b/relu_5x5_reduce
I0403 15:33:21.437912 15475 net.cpp:91] Creating Layer inception_3b/relu_5x5_reduce
I0403 15:33:21.437930 15475 net.cpp:425] inception_3b/relu_5x5_reduce <- inception_3b/5x5_reduce
I0403 15:33:21.437948 15475 net.cpp:386] inception_3b/relu_5x5_reduce -> inception_3b/5x5_reduce (in-place)
I0403 15:33:21.438130 15475 net.cpp:141] Setting up inception_3b/relu_5x5_reduce
I0403 15:33:21.438170 15475 net.cpp:148] Top shape: 24 32 28 28 (602112)
I0403 15:33:21.438186 15475 net.cpp:156] Memory required for data: 729760800
I0403 15:33:21.438201 15475 layer_factory.hpp:77] Creating layer inception_3b/5x5
I0403 15:33:21.438225 15475 net.cpp:91] Creating Layer inception_3b/5x5
I0403 15:33:21.438242 15475 net.cpp:425] inception_3b/5x5 <- inception_3b/5x5_reduce
I0403 15:33:21.438267 15475 net.cpp:399] inception_3b/5x5 -> inception_3b/5x5
I0403 15:33:21.440340 15475 net.cpp:141] Setting up inception_3b/5x5
I0403 15:33:21.440371 15475 net.cpp:148] Top shape: 24 96 28 28 (1806336)
I0403 15:33:21.440387 15475 net.cpp:156] Memory required for data: 736986144
I0403 15:33:21.440407 15475 layer_factory.hpp:77] Creating layer inception_3b/relu_5x5
I0403 15:33:21.440426 15475 net.cpp:91] Creating Layer inception_3b/relu_5x5
I0403 15:33:21.440444 15475 net.cpp:425] inception_3b/relu_5x5 <- inception_3b/5x5
I0403 15:33:21.440461 15475 net.cpp:386] inception_3b/relu_5x5 -> inception_3b/5x5 (in-place)
I0403 15:33:21.440667 15475 net.cpp:141] Setting up inception_3b/relu_5x5
I0403 15:33:21.440693 15475 net.cpp:148] Top shape: 24 96 28 28 (1806336)
I0403 15:33:21.440711 15475 net.cpp:156] Memory required for data: 744211488
I0403 15:33:21.440726 15475 layer_factory.hpp:77] Creating layer inception_3b/pool
I0403 15:33:21.440744 15475 net.cpp:91] Creating Layer inception_3b/pool
I0403 15:33:21.440760 15475 net.cpp:425] inception_3b/pool <- inception_3a/output_inception_3a/output_0_split_3
I0403 15:33:21.440779 15475 net.cpp:399] inception_3b/pool -> inception_3b/pool
I0403 15:33:21.440837 15475 net.cpp:141] Setting up inception_3b/pool
I0403 15:33:21.440861 15475 net.cpp:148] Top shape: 24 256 28 28 (4816896)
I0403 15:33:21.440877 15475 net.cpp:156] Memory required for data: 763479072
I0403 15:33:21.440891 15475 layer_factory.hpp:77] Creating layer inception_3b/pool_proj
I0403 15:33:21.440915 15475 net.cpp:91] Creating Layer inception_3b/pool_proj
I0403 15:33:21.440933 15475 net.cpp:425] inception_3b/pool_proj <- inception_3b/pool
I0403 15:33:21.440954 15475 net.cpp:399] inception_3b/pool_proj -> inception_3b/pool_proj
I0403 15:33:21.442062 15475 net.cpp:141] Setting up inception_3b/pool_proj
I0403 15:33:21.442091 15475 net.cpp:148] Top shape: 24 64 28 28 (1204224)
I0403 15:33:21.442108 15475 net.cpp:156] Memory required for data: 768295968
I0403 15:33:21.442127 15475 layer_factory.hpp:77] Creating layer inception_3b/relu_pool_proj
I0403 15:33:21.442147 15475 net.cpp:91] Creating Layer inception_3b/relu_pool_proj
I0403 15:33:21.442163 15475 net.cpp:425] inception_3b/relu_pool_proj <- inception_3b/pool_proj
I0403 15:33:21.442183 15475 net.cpp:386] inception_3b/relu_pool_proj -> inception_3b/pool_proj (in-place)
I0403 15:33:21.442590 15475 net.cpp:141] Setting up inception_3b/relu_pool_proj
I0403 15:33:21.442620 15475 net.cpp:148] Top shape: 24 64 28 28 (1204224)
I0403 15:33:21.442637 15475 net.cpp:156] Memory required for data: 773112864
I0403 15:33:21.442653 15475 layer_factory.hpp:77] Creating layer inception_3b/output
I0403 15:33:21.442670 15475 net.cpp:91] Creating Layer inception_3b/output
I0403 15:33:21.442687 15475 net.cpp:425] inception_3b/output <- inception_3b/1x1
I0403 15:33:21.442703 15475 net.cpp:425] inception_3b/output <- inception_3b/3x3
I0403 15:33:21.442719 15475 net.cpp:425] inception_3b/output <- inception_3b/5x5
I0403 15:33:21.442736 15475 net.cpp:425] inception_3b/output <- inception_3b/pool_proj
I0403 15:33:21.442755 15475 net.cpp:399] inception_3b/output -> inception_3b/output
I0403 15:33:21.442801 15475 net.cpp:141] Setting up inception_3b/output
I0403 15:33:21.442826 15475 net.cpp:148] Top shape: 24 480 28 28 (9031680)
I0403 15:33:21.442841 15475 net.cpp:156] Memory required for data: 809239584
I0403 15:33:21.442855 15475 layer_factory.hpp:77] Creating layer pool3/3x3_s2
I0403 15:33:21.442875 15475 net.cpp:91] Creating Layer pool3/3x3_s2
I0403 15:33:21.442893 15475 net.cpp:425] pool3/3x3_s2 <- inception_3b/output
I0403 15:33:21.442911 15475 net.cpp:399] pool3/3x3_s2 -> pool3/3x3_s2
I0403 15:33:21.442988 15475 net.cpp:141] Setting up pool3/3x3_s2
I0403 15:33:21.443014 15475 net.cpp:148] Top shape: 24 480 14 14 (2257920)
I0403 15:33:21.443029 15475 net.cpp:156] Memory required for data: 818271264
I0403 15:33:21.443043 15475 layer_factory.hpp:77] Creating layer pool3/3x3_s2_pool3/3x3_s2_0_split
I0403 15:33:21.443060 15475 net.cpp:91] Creating Layer pool3/3x3_s2_pool3/3x3_s2_0_split
I0403 15:33:21.443075 15475 net.cpp:425] pool3/3x3_s2_pool3/3x3_s2_0_split <- pool3/3x3_s2
I0403 15:33:21.443095 15475 net.cpp:399] pool3/3x3_s2_pool3/3x3_s2_0_split -> pool3/3x3_s2_pool3/3x3_s2_0_split_0
I0403 15:33:21.443116 15475 net.cpp:399] pool3/3x3_s2_pool3/3x3_s2_0_split -> pool3/3x3_s2_pool3/3x3_s2_0_split_1
I0403 15:33:21.443137 15475 net.cpp:399] pool3/3x3_s2_pool3/3x3_s2_0_split -> pool3/3x3_s2_pool3/3x3_s2_0_split_2
I0403 15:33:21.443157 15475 net.cpp:399] pool3/3x3_s2_pool3/3x3_s2_0_split -> pool3/3x3_s2_pool3/3x3_s2_0_split_3
I0403 15:33:21.443238 15475 net.cpp:141] Setting up pool3/3x3_s2_pool3/3x3_s2_0_split
I0403 15:33:21.443264 15475 net.cpp:148] Top shape: 24 480 14 14 (2257920)
I0403 15:33:21.443280 15475 net.cpp:148] Top shape: 24 480 14 14 (2257920)
I0403 15:33:21.443297 15475 net.cpp:148] Top shape: 24 480 14 14 (2257920)
I0403 15:33:21.443312 15475 net.cpp:148] Top shape: 24 480 14 14 (2257920)
I0403 15:33:21.443327 15475 net.cpp:156] Memory required for data: 854397984
I0403 15:33:21.443341 15475 layer_factory.hpp:77] Creating layer inception_4a/1x1
I0403 15:33:21.443364 15475 net.cpp:91] Creating Layer inception_4a/1x1
I0403 15:33:21.443382 15475 net.cpp:425] inception_4a/1x1 <- pool3/3x3_s2_pool3/3x3_s2_0_split_0
I0403 15:33:21.443403 15475 net.cpp:399] inception_4a/1x1 -> inception_4a/1x1
I0403 15:33:21.445075 15475 net.cpp:141] Setting up inception_4a/1x1
I0403 15:33:21.445104 15475 net.cpp:148] Top shape: 24 192 14 14 (903168)
I0403 15:33:21.445121 15475 net.cpp:156] Memory required for data: 858010656
I0403 15:33:21.445138 15475 layer_factory.hpp:77] Creating layer inception_4a/relu_1x1
I0403 15:33:21.445158 15475 net.cpp:91] Creating Layer inception_4a/relu_1x1
I0403 15:33:21.445173 15475 net.cpp:425] inception_4a/relu_1x1 <- inception_4a/1x1
I0403 15:33:21.445194 15475 net.cpp:386] inception_4a/relu_1x1 -> inception_4a/1x1 (in-place)
I0403 15:33:21.445379 15475 net.cpp:141] Setting up inception_4a/relu_1x1
I0403 15:33:21.445405 15475 net.cpp:148] Top shape: 24 192 14 14 (903168)
I0403 15:33:21.445420 15475 net.cpp:156] Memory required for data: 861623328
I0403 15:33:21.445436 15475 layer_factory.hpp:77] Creating layer inception_4a/3x3_reduce
I0403 15:33:21.445458 15475 net.cpp:91] Creating Layer inception_4a/3x3_reduce
I0403 15:33:21.445477 15475 net.cpp:425] inception_4a/3x3_reduce <- pool3/3x3_s2_pool3/3x3_s2_0_split_1
I0403 15:33:21.445498 15475 net.cpp:399] inception_4a/3x3_reduce -> inception_4a/3x3_reduce
I0403 15:33:21.446857 15475 net.cpp:141] Setting up inception_4a/3x3_reduce
I0403 15:33:21.446887 15475 net.cpp:148] Top shape: 24 96 14 14 (451584)
I0403 15:33:21.446903 15475 net.cpp:156] Memory required for data: 863429664
I0403 15:33:21.446929 15475 layer_factory.hpp:77] Creating layer inception_4a/relu_3x3_reduce
I0403 15:33:21.446950 15475 net.cpp:91] Creating Layer inception_4a/relu_3x3_reduce
I0403 15:33:21.446967 15475 net.cpp:425] inception_4a/relu_3x3_reduce <- inception_4a/3x3_reduce
I0403 15:33:21.446987 15475 net.cpp:386] inception_4a/relu_3x3_reduce -> inception_4a/3x3_reduce (in-place)
I0403 15:33:21.447172 15475 net.cpp:141] Setting up inception_4a/relu_3x3_reduce
I0403 15:33:21.447198 15475 net.cpp:148] Top shape: 24 96 14 14 (451584)
I0403 15:33:21.447214 15475 net.cpp:156] Memory required for data: 865236000
I0403 15:33:21.447229 15475 layer_factory.hpp:77] Creating layer inception_4a/3x3
I0403 15:33:21.447252 15475 net.cpp:91] Creating Layer inception_4a/3x3
I0403 15:33:21.447270 15475 net.cpp:425] inception_4a/3x3 <- inception_4a/3x3_reduce
I0403 15:33:21.447291 15475 net.cpp:399] inception_4a/3x3 -> inception_4a/3x3
I0403 15:33:21.450095 15475 net.cpp:141] Setting up inception_4a/3x3
I0403 15:33:21.450124 15475 net.cpp:148] Top shape: 24 208 14 14 (978432)
I0403 15:33:21.450140 15475 net.cpp:156] Memory required for data: 869149728
I0403 15:33:21.450160 15475 layer_factory.hpp:77] Creating layer inception_4a/relu_3x3
I0403 15:33:21.450179 15475 net.cpp:91] Creating Layer inception_4a/relu_3x3
I0403 15:33:21.450197 15475 net.cpp:425] inception_4a/relu_3x3 <- inception_4a/3x3
I0403 15:33:21.450213 15475 net.cpp:386] inception_4a/relu_3x3 -> inception_4a/3x3 (in-place)
I0403 15:33:21.450496 15475 net.cpp:141] Setting up inception_4a/relu_3x3
I0403 15:33:21.450523 15475 net.cpp:148] Top shape: 24 208 14 14 (978432)
I0403 15:33:21.450543 15475 net.cpp:156] Memory required for data: 873063456
I0403 15:33:21.450561 15475 layer_factory.hpp:77] Creating layer inception_4a/5x5_reduce
I0403 15:33:21.450582 15475 net.cpp:91] Creating Layer inception_4a/5x5_reduce
I0403 15:33:21.450600 15475 net.cpp:425] inception_4a/5x5_reduce <- pool3/3x3_s2_pool3/3x3_s2_0_split_2
I0403 15:33:21.450623 15475 net.cpp:399] inception_4a/5x5_reduce -> inception_4a/5x5_reduce
I0403 15:33:21.451661 15475 net.cpp:141] Setting up inception_4a/5x5_reduce
I0403 15:33:21.451690 15475 net.cpp:148] Top shape: 24 16 14 14 (75264)
I0403 15:33:21.451706 15475 net.cpp:156] Memory required for data: 873364512
I0403 15:33:21.451725 15475 layer_factory.hpp:77] Creating layer inception_4a/relu_5x5_reduce
I0403 15:33:21.451745 15475 net.cpp:91] Creating Layer inception_4a/relu_5x5_reduce
I0403 15:33:21.451761 15475 net.cpp:425] inception_4a/relu_5x5_reduce <- inception_4a/5x5_reduce
I0403 15:33:21.451779 15475 net.cpp:386] inception_4a/relu_5x5_reduce -> inception_4a/5x5_reduce (in-place)
I0403 15:33:21.451959 15475 net.cpp:141] Setting up inception_4a/relu_5x5_reduce
I0403 15:33:21.451985 15475 net.cpp:148] Top shape: 24 16 14 14 (75264)
I0403 15:33:21.452000 15475 net.cpp:156] Memory required for data: 873665568
I0403 15:33:21.452015 15475 layer_factory.hpp:77] Creating layer inception_4a/5x5
I0403 15:33:21.452038 15475 net.cpp:91] Creating Layer inception_4a/5x5
I0403 15:33:21.452055 15475 net.cpp:425] inception_4a/5x5 <- inception_4a/5x5_reduce
I0403 15:33:21.452076 15475 net.cpp:399] inception_4a/5x5 -> inception_4a/5x5
I0403 15:33:21.453177 15475 net.cpp:141] Setting up inception_4a/5x5
I0403 15:33:21.453208 15475 net.cpp:148] Top shape: 24 48 14 14 (225792)
I0403 15:33:21.453224 15475 net.cpp:156] Memory required for data: 874568736
I0403 15:33:21.453243 15475 layer_factory.hpp:77] Creating layer inception_4a/relu_5x5
I0403 15:33:21.453263 15475 net.cpp:91] Creating Layer inception_4a/relu_5x5
I0403 15:33:21.453279 15475 net.cpp:425] inception_4a/relu_5x5 <- inception_4a/5x5
I0403 15:33:21.453299 15475 net.cpp:386] inception_4a/relu_5x5 -> inception_4a/5x5 (in-place)
I0403 15:33:21.453481 15475 net.cpp:141] Setting up inception_4a/relu_5x5
I0403 15:33:21.453507 15475 net.cpp:148] Top shape: 24 48 14 14 (225792)
I0403 15:33:21.453522 15475 net.cpp:156] Memory required for data: 875471904
I0403 15:33:21.453541 15475 layer_factory.hpp:77] Creating layer inception_4a/pool
I0403 15:33:21.453562 15475 net.cpp:91] Creating Layer inception_4a/pool
I0403 15:33:21.453577 15475 net.cpp:425] inception_4a/pool <- pool3/3x3_s2_pool3/3x3_s2_0_split_3
I0403 15:33:21.453598 15475 net.cpp:399] inception_4a/pool -> inception_4a/pool
I0403 15:33:21.453663 15475 net.cpp:141] Setting up inception_4a/pool
I0403 15:33:21.453687 15475 net.cpp:148] Top shape: 24 480 14 14 (2257920)
I0403 15:33:21.453701 15475 net.cpp:156] Memory required for data: 884503584
I0403 15:33:21.453716 15475 layer_factory.hpp:77] Creating layer inception_4a/pool_proj
I0403 15:33:21.453737 15475 net.cpp:91] Creating Layer inception_4a/pool_proj
I0403 15:33:21.453755 15475 net.cpp:425] inception_4a/pool_proj <- inception_4a/pool
I0403 15:33:21.453778 15475 net.cpp:399] inception_4a/pool_proj -> inception_4a/pool_proj
I0403 15:33:21.454968 15475 net.cpp:141] Setting up inception_4a/pool_proj
I0403 15:33:21.454996 15475 net.cpp:148] Top shape: 24 64 14 14 (301056)
I0403 15:33:21.455029 15475 net.cpp:156] Memory required for data: 885707808
I0403 15:33:21.455047 15475 layer_factory.hpp:77] Creating layer inception_4a/relu_pool_proj
I0403 15:33:21.455068 15475 net.cpp:91] Creating Layer inception_4a/relu_pool_proj
I0403 15:33:21.455085 15475 net.cpp:425] inception_4a/relu_pool_proj <- inception_4a/pool_proj
I0403 15:33:21.455103 15475 net.cpp:386] inception_4a/relu_pool_proj -> inception_4a/pool_proj (in-place)
I0403 15:33:21.455387 15475 net.cpp:141] Setting up inception_4a/relu_pool_proj
I0403 15:33:21.455415 15475 net.cpp:148] Top shape: 24 64 14 14 (301056)
I0403 15:33:21.455430 15475 net.cpp:156] Memory required for data: 886912032
I0403 15:33:21.455445 15475 layer_factory.hpp:77] Creating layer inception_4a/output
I0403 15:33:21.455461 15475 net.cpp:91] Creating Layer inception_4a/output
I0403 15:33:21.455477 15475 net.cpp:425] inception_4a/output <- inception_4a/1x1
I0403 15:33:21.455494 15475 net.cpp:425] inception_4a/output <- inception_4a/3x3
I0403 15:33:21.455510 15475 net.cpp:425] inception_4a/output <- inception_4a/5x5
I0403 15:33:21.455526 15475 net.cpp:425] inception_4a/output <- inception_4a/pool_proj
I0403 15:33:21.455551 15475 net.cpp:399] inception_4a/output -> inception_4a/output
I0403 15:33:21.455598 15475 net.cpp:141] Setting up inception_4a/output
I0403 15:33:21.455624 15475 net.cpp:148] Top shape: 24 512 14 14 (2408448)
I0403 15:33:21.455641 15475 net.cpp:156] Memory required for data: 896545824
I0403 15:33:21.455656 15475 layer_factory.hpp:77] Creating layer inception_4a/output_inception_4a/output_0_split
I0403 15:33:21.455672 15475 net.cpp:91] Creating Layer inception_4a/output_inception_4a/output_0_split
I0403 15:33:21.455688 15475 net.cpp:425] inception_4a/output_inception_4a/output_0_split <- inception_4a/output
I0403 15:33:21.455708 15475 net.cpp:399] inception_4a/output_inception_4a/output_0_split -> inception_4a/output_inception_4a/output_0_split_0
I0403 15:33:21.455729 15475 net.cpp:399] inception_4a/output_inception_4a/output_0_split -> inception_4a/output_inception_4a/output_0_split_1
I0403 15:33:21.455749 15475 net.cpp:399] inception_4a/output_inception_4a/output_0_split -> inception_4a/output_inception_4a/output_0_split_2
I0403 15:33:21.455770 15475 net.cpp:399] inception_4a/output_inception_4a/output_0_split -> inception_4a/output_inception_4a/output_0_split_3
I0403 15:33:21.455790 15475 net.cpp:399] inception_4a/output_inception_4a/output_0_split -> inception_4a/output_inception_4a/output_0_split_4
I0403 15:33:21.455883 15475 net.cpp:141] Setting up inception_4a/output_inception_4a/output_0_split
I0403 15:33:21.455907 15475 net.cpp:148] Top shape: 24 512 14 14 (2408448)
I0403 15:33:21.455924 15475 net.cpp:148] Top shape: 24 512 14 14 (2408448)
I0403 15:33:21.455940 15475 net.cpp:148] Top shape: 24 512 14 14 (2408448)
I0403 15:33:21.455955 15475 net.cpp:148] Top shape: 24 512 14 14 (2408448)
I0403 15:33:21.455971 15475 net.cpp:148] Top shape: 24 512 14 14 (2408448)
I0403 15:33:21.455984 15475 net.cpp:156] Memory required for data: 944714784
I0403 15:33:21.455999 15475 layer_factory.hpp:77] Creating layer loss1/ave_pool
I0403 15:33:21.456019 15475 net.cpp:91] Creating Layer loss1/ave_pool
I0403 15:33:21.456037 15475 net.cpp:425] loss1/ave_pool <- inception_4a/output_inception_4a/output_0_split_0
I0403 15:33:21.456054 15475 net.cpp:399] loss1/ave_pool -> loss1/ave_pool
I0403 15:33:21.456270 15475 net.cpp:141] Setting up loss1/ave_pool
I0403 15:33:21.456297 15475 net.cpp:148] Top shape: 24 512 4 4 (196608)
I0403 15:33:21.456313 15475 net.cpp:156] Memory required for data: 945501216
I0403 15:33:21.456327 15475 layer_factory.hpp:77] Creating layer loss1/conv
I0403 15:33:21.456351 15475 net.cpp:91] Creating Layer loss1/conv
I0403 15:33:21.456367 15475 net.cpp:425] loss1/conv <- loss1/ave_pool
I0403 15:33:21.456387 15475 net.cpp:399] loss1/conv -> loss1/conv
I0403 15:33:21.457828 15475 net.cpp:141] Setting up loss1/conv
I0403 15:33:21.457856 15475 net.cpp:148] Top shape: 24 128 4 4 (49152)
I0403 15:33:21.457872 15475 net.cpp:156] Memory required for data: 945697824
I0403 15:33:21.457906 15475 layer_factory.hpp:77] Creating layer loss1/relu_conv
I0403 15:33:21.457927 15475 net.cpp:91] Creating Layer loss1/relu_conv
I0403 15:33:21.457944 15475 net.cpp:425] loss1/relu_conv <- loss1/conv
I0403 15:33:21.457962 15475 net.cpp:386] loss1/relu_conv -> loss1/conv (in-place)
I0403 15:33:21.458251 15475 net.cpp:141] Setting up loss1/relu_conv
I0403 15:33:21.458278 15475 net.cpp:148] Top shape: 24 128 4 4 (49152)
I0403 15:33:21.458293 15475 net.cpp:156] Memory required for data: 945894432
I0403 15:33:21.458308 15475 layer_factory.hpp:77] Creating layer loss1/fc
I0403 15:33:21.458336 15475 net.cpp:91] Creating Layer loss1/fc
I0403 15:33:21.458354 15475 net.cpp:425] loss1/fc <- loss1/conv
I0403 15:33:21.458375 15475 net.cpp:399] loss1/fc -> loss1/fc
I0403 15:33:21.477093 15475 net.cpp:141] Setting up loss1/fc
I0403 15:33:21.477166 15475 net.cpp:148] Top shape: 24 1024 (24576)
I0403 15:33:21.477183 15475 net.cpp:156] Memory required for data: 945992736
I0403 15:33:21.477205 15475 layer_factory.hpp:77] Creating layer loss1/relu_fc
I0403 15:33:21.477226 15475 net.cpp:91] Creating Layer loss1/relu_fc
I0403 15:33:21.477243 15475 net.cpp:425] loss1/relu_fc <- loss1/fc
I0403 15:33:21.477267 15475 net.cpp:386] loss1/relu_fc -> loss1/fc (in-place)
I0403 15:33:21.477502 15475 net.cpp:141] Setting up loss1/relu_fc
I0403 15:33:21.477530 15475 net.cpp:148] Top shape: 24 1024 (24576)
I0403 15:33:21.477550 15475 net.cpp:156] Memory required for data: 946091040
I0403 15:33:21.477566 15475 layer_factory.hpp:77] Creating layer loss1/drop_fc
I0403 15:33:21.477601 15475 net.cpp:91] Creating Layer loss1/drop_fc
I0403 15:33:21.477618 15475 net.cpp:425] loss1/drop_fc <- loss1/fc
I0403 15:33:21.477635 15475 net.cpp:386] loss1/drop_fc -> loss1/fc (in-place)
I0403 15:33:21.477695 15475 net.cpp:141] Setting up loss1/drop_fc
I0403 15:33:21.477720 15475 net.cpp:148] Top shape: 24 1024 (24576)
I0403 15:33:21.477735 15475 net.cpp:156] Memory required for data: 946189344
I0403 15:33:21.477749 15475 layer_factory.hpp:77] Creating layer loss1/classifier_plantvillage
I0403 15:33:21.477769 15475 net.cpp:91] Creating Layer loss1/classifier_plantvillage
I0403 15:33:21.477784 15475 net.cpp:425] loss1/classifier_plantvillage <- loss1/fc
I0403 15:33:21.477808 15475 net.cpp:399] loss1/classifier_plantvillage -> loss1/classifier_plantvillage
I0403 15:33:21.478852 15475 net.cpp:141] Setting up loss1/classifier_plantvillage
I0403 15:33:21.478879 15475 net.cpp:148] Top shape: 24 38 (912)
I0403 15:33:21.478894 15475 net.cpp:156] Memory required for data: 946192992
I0403 15:33:21.478912 15475 layer_factory.hpp:77] Creating layer loss1/classifier_plantvillage_loss1/classifier_plantvillage_0_split
I0403 15:33:21.478934 15475 net.cpp:91] Creating Layer loss1/classifier_plantvillage_loss1/classifier_plantvillage_0_split
I0403 15:33:21.478950 15475 net.cpp:425] loss1/classifier_plantvillage_loss1/classifier_plantvillage_0_split <- loss1/classifier_plantvillage
I0403 15:33:21.478967 15475 net.cpp:399] loss1/classifier_plantvillage_loss1/classifier_plantvillage_0_split -> loss1/classifier_plantvillage_loss1/classifier_plantvillage_0_split_0
I0403 15:33:21.478987 15475 net.cpp:399] loss1/classifier_plantvillage_loss1/classifier_plantvillage_0_split -> loss1/classifier_plantvillage_loss1/classifier_plantvillage_0_split_1
I0403 15:33:21.479007 15475 net.cpp:399] loss1/classifier_plantvillage_loss1/classifier_plantvillage_0_split -> loss1/classifier_plantvillage_loss1/classifier_plantvillage_0_split_2
I0403 15:33:21.479076 15475 net.cpp:141] Setting up loss1/classifier_plantvillage_loss1/classifier_plantvillage_0_split
I0403 15:33:21.479099 15475 net.cpp:148] Top shape: 24 38 (912)
I0403 15:33:21.479115 15475 net.cpp:148] Top shape: 24 38 (912)
I0403 15:33:21.479130 15475 net.cpp:148] Top shape: 24 38 (912)
I0403 15:33:21.479143 15475 net.cpp:156] Memory required for data: 946203936
I0403 15:33:21.479157 15475 layer_factory.hpp:77] Creating layer inception_4b/1x1
I0403 15:33:21.479182 15475 net.cpp:91] Creating Layer inception_4b/1x1
I0403 15:33:21.479230 15475 net.cpp:425] inception_4b/1x1 <- inception_4a/output_inception_4a/output_0_split_1
I0403 15:33:21.479250 15475 net.cpp:399] inception_4b/1x1 -> inception_4b/1x1
I0403 15:33:21.480950 15475 net.cpp:141] Setting up inception_4b/1x1
I0403 15:33:21.480979 15475 net.cpp:148] Top shape: 24 160 14 14 (752640)
I0403 15:33:21.480994 15475 net.cpp:156] Memory required for data: 949214496
I0403 15:33:21.481012 15475 layer_factory.hpp:77] Creating layer inception_4b/relu_1x1
I0403 15:33:21.481032 15475 net.cpp:91] Creating Layer inception_4b/relu_1x1
I0403 15:33:21.481050 15475 net.cpp:425] inception_4b/relu_1x1 <- inception_4b/1x1
I0403 15:33:21.481067 15475 net.cpp:386] inception_4b/relu_1x1 -> inception_4b/1x1 (in-place)
I0403 15:33:21.481247 15475 net.cpp:141] Setting up inception_4b/relu_1x1
I0403 15:33:21.481276 15475 net.cpp:148] Top shape: 24 160 14 14 (752640)
I0403 15:33:21.481289 15475 net.cpp:156] Memory required for data: 952225056
I0403 15:33:21.481305 15475 layer_factory.hpp:77] Creating layer inception_4b/3x3_reduce
I0403 15:33:21.481333 15475 net.cpp:91] Creating Layer inception_4b/3x3_reduce
I0403 15:33:21.481353 15475 net.cpp:425] inception_4b/3x3_reduce <- inception_4a/output_inception_4a/output_0_split_2
I0403 15:33:21.481374 15475 net.cpp:399] inception_4b/3x3_reduce -> inception_4b/3x3_reduce
I0403 15:33:21.482745 15475 net.cpp:141] Setting up inception_4b/3x3_reduce
I0403 15:33:21.482777 15475 net.cpp:148] Top shape: 24 112 14 14 (526848)
I0403 15:33:21.482795 15475 net.cpp:156] Memory required for data: 954332448
I0403 15:33:21.482813 15475 layer_factory.hpp:77] Creating layer inception_4b/relu_3x3_reduce
I0403 15:33:21.482831 15475 net.cpp:91] Creating Layer inception_4b/relu_3x3_reduce
I0403 15:33:21.482849 15475 net.cpp:425] inception_4b/relu_3x3_reduce <- inception_4b/3x3_reduce
I0403 15:33:21.482872 15475 net.cpp:386] inception_4b/relu_3x3_reduce -> inception_4b/3x3_reduce (in-place)
I0403 15:33:21.483151 15475 net.cpp:141] Setting up inception_4b/relu_3x3_reduce
I0403 15:33:21.483180 15475 net.cpp:148] Top shape: 24 112 14 14 (526848)
I0403 15:33:21.483197 15475 net.cpp:156] Memory required for data: 956439840
I0403 15:33:21.483212 15475 layer_factory.hpp:77] Creating layer inception_4b/3x3
I0403 15:33:21.483235 15475 net.cpp:91] Creating Layer inception_4b/3x3
I0403 15:33:21.483254 15475 net.cpp:425] inception_4b/3x3 <- inception_4b/3x3_reduce
I0403 15:33:21.483275 15475 net.cpp:399] inception_4b/3x3 -> inception_4b/3x3
I0403 15:33:21.486299 15475 net.cpp:141] Setting up inception_4b/3x3
I0403 15:33:21.486332 15475 net.cpp:148] Top shape: 24 224 14 14 (1053696)
I0403 15:33:21.486349 15475 net.cpp:156] Memory required for data: 960654624
I0403 15:33:21.486368 15475 layer_factory.hpp:77] Creating layer inception_4b/relu_3x3
I0403 15:33:21.486390 15475 net.cpp:91] Creating Layer inception_4b/relu_3x3
I0403 15:33:21.486409 15475 net.cpp:425] inception_4b/relu_3x3 <- inception_4b/3x3
I0403 15:33:21.486426 15475 net.cpp:386] inception_4b/relu_3x3 -> inception_4b/3x3 (in-place)
I0403 15:33:21.486615 15475 net.cpp:141] Setting up inception_4b/relu_3x3
I0403 15:33:21.486642 15475 net.cpp:148] Top shape: 24 224 14 14 (1053696)
I0403 15:33:21.486660 15475 net.cpp:156] Memory required for data: 964869408
I0403 15:33:21.486676 15475 layer_factory.hpp:77] Creating layer inception_4b/5x5_reduce
I0403 15:33:21.486696 15475 net.cpp:91] Creating Layer inception_4b/5x5_reduce
I0403 15:33:21.486712 15475 net.cpp:425] inception_4b/5x5_reduce <- inception_4a/output_inception_4a/output_0_split_3
I0403 15:33:21.486735 15475 net.cpp:399] inception_4b/5x5_reduce -> inception_4b/5x5_reduce
I0403 15:33:21.487829 15475 net.cpp:141] Setting up inception_4b/5x5_reduce
I0403 15:33:21.487860 15475 net.cpp:148] Top shape: 24 24 14 14 (112896)
I0403 15:33:21.487877 15475 net.cpp:156] Memory required for data: 965320992
I0403 15:33:21.487895 15475 layer_factory.hpp:77] Creating layer inception_4b/relu_5x5_reduce
I0403 15:33:21.487915 15475 net.cpp:91] Creating Layer inception_4b/relu_5x5_reduce
I0403 15:33:21.487962 15475 net.cpp:425] inception_4b/relu_5x5_reduce <- inception_4b/5x5_reduce
I0403 15:33:21.487982 15475 net.cpp:386] inception_4b/relu_5x5_reduce -> inception_4b/5x5_reduce (in-place)
I0403 15:33:21.488167 15475 net.cpp:141] Setting up inception_4b/relu_5x5_reduce
I0403 15:33:21.488193 15475 net.cpp:148] Top shape: 24 24 14 14 (112896)
I0403 15:33:21.488209 15475 net.cpp:156] Memory required for data: 965772576
I0403 15:33:21.488224 15475 layer_factory.hpp:77] Creating layer inception_4b/5x5
I0403 15:33:21.488246 15475 net.cpp:91] Creating Layer inception_4b/5x5
I0403 15:33:21.488265 15475 net.cpp:425] inception_4b/5x5 <- inception_4b/5x5_reduce
I0403 15:33:21.488287 15475 net.cpp:399] inception_4b/5x5 -> inception_4b/5x5
I0403 15:33:21.489531 15475 net.cpp:141] Setting up inception_4b/5x5
I0403 15:33:21.489563 15475 net.cpp:148] Top shape: 24 64 14 14 (301056)
I0403 15:33:21.489581 15475 net.cpp:156] Memory required for data: 966976800
I0403 15:33:21.489600 15475 layer_factory.hpp:77] Creating layer inception_4b/relu_5x5
I0403 15:33:21.489620 15475 net.cpp:91] Creating Layer inception_4b/relu_5x5
I0403 15:33:21.489637 15475 net.cpp:425] inception_4b/relu_5x5 <- inception_4b/5x5
I0403 15:33:21.489655 15475 net.cpp:386] inception_4b/relu_5x5 -> inception_4b/5x5 (in-place)
I0403 15:33:21.489943 15475 net.cpp:141] Setting up inception_4b/relu_5x5
I0403 15:33:21.489970 15475 net.cpp:148] Top shape: 24 64 14 14 (301056)
I0403 15:33:21.489987 15475 net.cpp:156] Memory required for data: 968181024
I0403 15:33:21.490002 15475 layer_factory.hpp:77] Creating layer inception_4b/pool
I0403 15:33:21.490023 15475 net.cpp:91] Creating Layer inception_4b/pool
I0403 15:33:21.490041 15475 net.cpp:425] inception_4b/pool <- inception_4a/output_inception_4a/output_0_split_4
I0403 15:33:21.490061 15475 net.cpp:399] inception_4b/pool -> inception_4b/pool
I0403 15:33:21.490128 15475 net.cpp:141] Setting up inception_4b/pool
I0403 15:33:21.490154 15475 net.cpp:148] Top shape: 24 512 14 14 (2408448)
I0403 15:33:21.490169 15475 net.cpp:156] Memory required for data: 977814816
I0403 15:33:21.490182 15475 layer_factory.hpp:77] Creating layer inception_4b/pool_proj
I0403 15:33:21.490203 15475 net.cpp:91] Creating Layer inception_4b/pool_proj
I0403 15:33:21.490221 15475 net.cpp:425] inception_4b/pool_proj <- inception_4b/pool
I0403 15:33:21.490242 15475 net.cpp:399] inception_4b/pool_proj -> inception_4b/pool_proj
I0403 15:33:21.491466 15475 net.cpp:141] Setting up inception_4b/pool_proj
I0403 15:33:21.491497 15475 net.cpp:148] Top shape: 24 64 14 14 (301056)
I0403 15:33:21.491513 15475 net.cpp:156] Memory required for data: 979019040
I0403 15:33:21.491534 15475 layer_factory.hpp:77] Creating layer inception_4b/relu_pool_proj
I0403 15:33:21.491559 15475 net.cpp:91] Creating Layer inception_4b/relu_pool_proj
I0403 15:33:21.491578 15475 net.cpp:425] inception_4b/relu_pool_proj <- inception_4b/pool_proj
I0403 15:33:21.491596 15475 net.cpp:386] inception_4b/relu_pool_proj -> inception_4b/pool_proj (in-place)
I0403 15:33:21.491778 15475 net.cpp:141] Setting up inception_4b/relu_pool_proj
I0403 15:33:21.491804 15475 net.cpp:148] Top shape: 24 64 14 14 (301056)
I0403 15:33:21.491819 15475 net.cpp:156] Memory required for data: 980223264
I0403 15:33:21.491835 15475 layer_factory.hpp:77] Creating layer inception_4b/output
I0403 15:33:21.491853 15475 net.cpp:91] Creating Layer inception_4b/output
I0403 15:33:21.491869 15475 net.cpp:425] inception_4b/output <- inception_4b/1x1
I0403 15:33:21.491886 15475 net.cpp:425] inception_4b/output <- inception_4b/3x3
I0403 15:33:21.491902 15475 net.cpp:425] inception_4b/output <- inception_4b/5x5
I0403 15:33:21.491919 15475 net.cpp:425] inception_4b/output <- inception_4b/pool_proj
I0403 15:33:21.491938 15475 net.cpp:399] inception_4b/output -> inception_4b/output
I0403 15:33:21.491986 15475 net.cpp:141] Setting up inception_4b/output
I0403 15:33:21.492012 15475 net.cpp:148] Top shape: 24 512 14 14 (2408448)
I0403 15:33:21.492028 15475 net.cpp:156] Memory required for data: 989857056
I0403 15:33:21.492059 15475 layer_factory.hpp:77] Creating layer inception_4b/output_inception_4b/output_0_split
I0403 15:33:21.492079 15475 net.cpp:91] Creating Layer inception_4b/output_inception_4b/output_0_split
I0403 15:33:21.492094 15475 net.cpp:425] inception_4b/output_inception_4b/output_0_split <- inception_4b/output
I0403 15:33:21.492111 15475 net.cpp:399] inception_4b/output_inception_4b/output_0_split -> inception_4b/output_inception_4b/output_0_split_0
I0403 15:33:21.492131 15475 net.cpp:399] inception_4b/output_inception_4b/output_0_split -> inception_4b/output_inception_4b/output_0_split_1
I0403 15:33:21.492153 15475 net.cpp:399] inception_4b/output_inception_4b/output_0_split -> inception_4b/output_inception_4b/output_0_split_2
I0403 15:33:21.492173 15475 net.cpp:399] inception_4b/output_inception_4b/output_0_split -> inception_4b/output_inception_4b/output_0_split_3
I0403 15:33:21.492272 15475 net.cpp:141] Setting up inception_4b/output_inception_4b/output_0_split
I0403 15:33:21.492296 15475 net.cpp:148] Top shape: 24 512 14 14 (2408448)
I0403 15:33:21.492312 15475 net.cpp:148] Top shape: 24 512 14 14 (2408448)
I0403 15:33:21.492328 15475 net.cpp:148] Top shape: 24 512 14 14 (2408448)
I0403 15:33:21.492343 15475 net.cpp:148] Top shape: 24 512 14 14 (2408448)
I0403 15:33:21.492357 15475 net.cpp:156] Memory required for data: 1028392224
I0403 15:33:21.492372 15475 layer_factory.hpp:77] Creating layer inception_4c/1x1
I0403 15:33:21.492394 15475 net.cpp:91] Creating Layer inception_4c/1x1
I0403 15:33:21.492413 15475 net.cpp:425] inception_4c/1x1 <- inception_4b/output_inception_4b/output_0_split_0
I0403 15:33:21.492434 15475 net.cpp:399] inception_4c/1x1 -> inception_4c/1x1
I0403 15:33:21.493907 15475 net.cpp:141] Setting up inception_4c/1x1
I0403 15:33:21.493935 15475 net.cpp:148] Top shape: 24 128 14 14 (602112)
I0403 15:33:21.493952 15475 net.cpp:156] Memory required for data: 1030800672
I0403 15:33:21.493969 15475 layer_factory.hpp:77] Creating layer inception_4c/relu_1x1
I0403 15:33:21.493986 15475 net.cpp:91] Creating Layer inception_4c/relu_1x1
I0403 15:33:21.494001 15475 net.cpp:425] inception_4c/relu_1x1 <- inception_4c/1x1
I0403 15:33:21.494021 15475 net.cpp:386] inception_4c/relu_1x1 -> inception_4c/1x1 (in-place)
I0403 15:33:21.494204 15475 net.cpp:141] Setting up inception_4c/relu_1x1
I0403 15:33:21.494228 15475 net.cpp:148] Top shape: 24 128 14 14 (602112)
I0403 15:33:21.494243 15475 net.cpp:156] Memory required for data: 1033209120
I0403 15:33:21.494257 15475 layer_factory.hpp:77] Creating layer inception_4c/3x3_reduce
I0403 15:33:21.494279 15475 net.cpp:91] Creating Layer inception_4c/3x3_reduce
I0403 15:33:21.494297 15475 net.cpp:425] inception_4c/3x3_reduce <- inception_4b/output_inception_4b/output_0_split_1
I0403 15:33:21.494318 15475 net.cpp:399] inception_4c/3x3_reduce -> inception_4c/3x3_reduce
I0403 15:33:21.496316 15475 net.cpp:141] Setting up inception_4c/3x3_reduce
I0403 15:33:21.496345 15475 net.cpp:148] Top shape: 24 128 14 14 (602112)
I0403 15:33:21.496361 15475 net.cpp:156] Memory required for data: 1035617568
I0403 15:33:21.496378 15475 layer_factory.hpp:77] Creating layer inception_4c/relu_3x3_reduce
I0403 15:33:21.496398 15475 net.cpp:91] Creating Layer inception_4c/relu_3x3_reduce
I0403 15:33:21.496415 15475 net.cpp:425] inception_4c/relu_3x3_reduce <- inception_4c/3x3_reduce
I0403 15:33:21.496431 15475 net.cpp:386] inception_4c/relu_3x3_reduce -> inception_4c/3x3_reduce (in-place)
I0403 15:33:21.496723 15475 net.cpp:141] Setting up inception_4c/relu_3x3_reduce
I0403 15:33:21.496750 15475 net.cpp:148] Top shape: 24 128 14 14 (602112)
I0403 15:33:21.496765 15475 net.cpp:156] Memory required for data: 1038026016
I0403 15:33:21.496780 15475 layer_factory.hpp:77] Creating layer inception_4c/3x3
I0403 15:33:21.496803 15475 net.cpp:91] Creating Layer inception_4c/3x3
I0403 15:33:21.496820 15475 net.cpp:425] inception_4c/3x3 <- inception_4c/3x3_reduce
I0403 15:33:21.496842 15475 net.cpp:399] inception_4c/3x3 -> inception_4c/3x3
I0403 15:33:21.500488 15475 net.cpp:141] Setting up inception_4c/3x3
I0403 15:33:21.500555 15475 net.cpp:148] Top shape: 24 256 14 14 (1204224)
I0403 15:33:21.500572 15475 net.cpp:156] Memory required for data: 1042842912
I0403 15:33:21.500607 15475 layer_factory.hpp:77] Creating layer inception_4c/relu_3x3
I0403 15:33:21.500628 15475 net.cpp:91] Creating Layer inception_4c/relu_3x3
I0403 15:33:21.500646 15475 net.cpp:425] inception_4c/relu_3x3 <- inception_4c/3x3
I0403 15:33:21.500663 15475 net.cpp:386] inception_4c/relu_3x3 -> inception_4c/3x3 (in-place)
I0403 15:33:21.500845 15475 net.cpp:141] Setting up inception_4c/relu_3x3
I0403 15:33:21.500872 15475 net.cpp:148] Top shape: 24 256 14 14 (1204224)
I0403 15:33:21.500888 15475 net.cpp:156] Memory required for data: 1047659808
I0403 15:33:21.500902 15475 layer_factory.hpp:77] Creating layer inception_4c/5x5_reduce
I0403 15:33:21.500929 15475 net.cpp:91] Creating Layer inception_4c/5x5_reduce
I0403 15:33:21.500947 15475 net.cpp:425] inception_4c/5x5_reduce <- inception_4b/output_inception_4b/output_0_split_2
I0403 15:33:21.500967 15475 net.cpp:399] inception_4c/5x5_reduce -> inception_4c/5x5_reduce
I0403 15:33:21.502071 15475 net.cpp:141] Setting up inception_4c/5x5_reduce
I0403 15:33:21.502101 15475 net.cpp:148] Top shape: 24 24 14 14 (112896)
I0403 15:33:21.502117 15475 net.cpp:156] Memory required for data: 1048111392
I0403 15:33:21.502135 15475 layer_factory.hpp:77] Creating layer inception_4c/relu_5x5_reduce
I0403 15:33:21.502153 15475 net.cpp:91] Creating Layer inception_4c/relu_5x5_reduce
I0403 15:33:21.502169 15475 net.cpp:425] inception_4c/relu_5x5_reduce <- inception_4c/5x5_reduce
I0403 15:33:21.502187 15475 net.cpp:386] inception_4c/relu_5x5_reduce -> inception_4c/5x5_reduce (in-place)
I0403 15:33:21.502369 15475 net.cpp:141] Setting up inception_4c/relu_5x5_reduce
I0403 15:33:21.502396 15475 net.cpp:148] Top shape: 24 24 14 14 (112896)
I0403 15:33:21.502413 15475 net.cpp:156] Memory required for data: 1048562976
I0403 15:33:21.502426 15475 layer_factory.hpp:77] Creating layer inception_4c/5x5
I0403 15:33:21.502449 15475 net.cpp:91] Creating Layer inception_4c/5x5
I0403 15:33:21.502466 15475 net.cpp:425] inception_4c/5x5 <- inception_4c/5x5_reduce
I0403 15:33:21.502486 15475 net.cpp:399] inception_4c/5x5 -> inception_4c/5x5
I0403 15:33:21.503756 15475 net.cpp:141] Setting up inception_4c/5x5
I0403 15:33:21.503782 15475 net.cpp:148] Top shape: 24 64 14 14 (301056)
I0403 15:33:21.503798 15475 net.cpp:156] Memory required for data: 1049767200
I0403 15:33:21.503816 15475 layer_factory.hpp:77] Creating layer inception_4c/relu_5x5
I0403 15:33:21.503834 15475 net.cpp:91] Creating Layer inception_4c/relu_5x5
I0403 15:33:21.503850 15475 net.cpp:425] inception_4c/relu_5x5 <- inception_4c/5x5
I0403 15:33:21.503870 15475 net.cpp:386] inception_4c/relu_5x5 -> inception_4c/5x5 (in-place)
I0403 15:33:21.504163 15475 net.cpp:141] Setting up inception_4c/relu_5x5
I0403 15:33:21.504189 15475 net.cpp:148] Top shape: 24 64 14 14 (301056)
I0403 15:33:21.504204 15475 net.cpp:156] Memory required for data: 1050971424
I0403 15:33:21.504218 15475 layer_factory.hpp:77] Creating layer inception_4c/pool
I0403 15:33:21.504237 15475 net.cpp:91] Creating Layer inception_4c/pool
I0403 15:33:21.504253 15475 net.cpp:425] inception_4c/pool <- inception_4b/output_inception_4b/output_0_split_3
I0403 15:33:21.504273 15475 net.cpp:399] inception_4c/pool -> inception_4c/pool
I0403 15:33:21.504340 15475 net.cpp:141] Setting up inception_4c/pool
I0403 15:33:21.504364 15475 net.cpp:148] Top shape: 24 512 14 14 (2408448)
I0403 15:33:21.504379 15475 net.cpp:156] Memory required for data: 1060605216
I0403 15:33:21.504392 15475 layer_factory.hpp:77] Creating layer inception_4c/pool_proj
I0403 15:33:21.504420 15475 net.cpp:91] Creating Layer inception_4c/pool_proj
I0403 15:33:21.504437 15475 net.cpp:425] inception_4c/pool_proj <- inception_4c/pool
I0403 15:33:21.504454 15475 net.cpp:399] inception_4c/pool_proj -> inception_4c/pool_proj
I0403 15:33:21.505717 15475 net.cpp:141] Setting up inception_4c/pool_proj
I0403 15:33:21.505745 15475 net.cpp:148] Top shape: 24 64 14 14 (301056)
I0403 15:33:21.505779 15475 net.cpp:156] Memory required for data: 1061809440
I0403 15:33:21.505798 15475 layer_factory.hpp:77] Creating layer inception_4c/relu_pool_proj
I0403 15:33:21.505820 15475 net.cpp:91] Creating Layer inception_4c/relu_pool_proj
I0403 15:33:21.505836 15475 net.cpp:425] inception_4c/relu_pool_proj <- inception_4c/pool_proj
I0403 15:33:21.505852 15475 net.cpp:386] inception_4c/relu_pool_proj -> inception_4c/pool_proj (in-place)
I0403 15:33:21.506036 15475 net.cpp:141] Setting up inception_4c/relu_pool_proj
I0403 15:33:21.506060 15475 net.cpp:148] Top shape: 24 64 14 14 (301056)
I0403 15:33:21.506075 15475 net.cpp:156] Memory required for data: 1063013664
I0403 15:33:21.506089 15475 layer_factory.hpp:77] Creating layer inception_4c/output
I0403 15:33:21.506106 15475 net.cpp:91] Creating Layer inception_4c/output
I0403 15:33:21.506121 15475 net.cpp:425] inception_4c/output <- inception_4c/1x1
I0403 15:33:21.506137 15475 net.cpp:425] inception_4c/output <- inception_4c/3x3
I0403 15:33:21.506153 15475 net.cpp:425] inception_4c/output <- inception_4c/5x5
I0403 15:33:21.506168 15475 net.cpp:425] inception_4c/output <- inception_4c/pool_proj
I0403 15:33:21.506187 15475 net.cpp:399] inception_4c/output -> inception_4c/output
I0403 15:33:21.506235 15475 net.cpp:141] Setting up inception_4c/output
I0403 15:33:21.506260 15475 net.cpp:148] Top shape: 24 512 14 14 (2408448)
I0403 15:33:21.506275 15475 net.cpp:156] Memory required for data: 1072647456
I0403 15:33:21.506289 15475 layer_factory.hpp:77] Creating layer inception_4c/output_inception_4c/output_0_split
I0403 15:33:21.506306 15475 net.cpp:91] Creating Layer inception_4c/output_inception_4c/output_0_split
I0403 15:33:21.506321 15475 net.cpp:425] inception_4c/output_inception_4c/output_0_split <- inception_4c/output
I0403 15:33:21.506338 15475 net.cpp:399] inception_4c/output_inception_4c/output_0_split -> inception_4c/output_inception_4c/output_0_split_0
I0403 15:33:21.506357 15475 net.cpp:399] inception_4c/output_inception_4c/output_0_split -> inception_4c/output_inception_4c/output_0_split_1
I0403 15:33:21.506379 15475 net.cpp:399] inception_4c/output_inception_4c/output_0_split -> inception_4c/output_inception_4c/output_0_split_2
I0403 15:33:21.506400 15475 net.cpp:399] inception_4c/output_inception_4c/output_0_split -> inception_4c/output_inception_4c/output_0_split_3
I0403 15:33:21.506489 15475 net.cpp:141] Setting up inception_4c/output_inception_4c/output_0_split
I0403 15:33:21.506511 15475 net.cpp:148] Top shape: 24 512 14 14 (2408448)
I0403 15:33:21.506527 15475 net.cpp:148] Top shape: 24 512 14 14 (2408448)
I0403 15:33:21.506547 15475 net.cpp:148] Top shape: 24 512 14 14 (2408448)
I0403 15:33:21.506563 15475 net.cpp:148] Top shape: 24 512 14 14 (2408448)
I0403 15:33:21.506577 15475 net.cpp:156] Memory required for data: 1111182624
I0403 15:33:21.506590 15475 layer_factory.hpp:77] Creating layer inception_4d/1x1
I0403 15:33:21.506613 15475 net.cpp:91] Creating Layer inception_4d/1x1
I0403 15:33:21.506630 15475 net.cpp:425] inception_4d/1x1 <- inception_4c/output_inception_4c/output_0_split_0
I0403 15:33:21.506651 15475 net.cpp:399] inception_4d/1x1 -> inception_4d/1x1
I0403 15:33:21.508056 15475 net.cpp:141] Setting up inception_4d/1x1
I0403 15:33:21.508085 15475 net.cpp:148] Top shape: 24 112 14 14 (526848)
I0403 15:33:21.508100 15475 net.cpp:156] Memory required for data: 1113290016
I0403 15:33:21.508118 15475 layer_factory.hpp:77] Creating layer inception_4d/relu_1x1
I0403 15:33:21.508138 15475 net.cpp:91] Creating Layer inception_4d/relu_1x1
I0403 15:33:21.508155 15475 net.cpp:425] inception_4d/relu_1x1 <- inception_4d/1x1
I0403 15:33:21.508172 15475 net.cpp:386] inception_4d/relu_1x1 -> inception_4d/1x1 (in-place)
I0403 15:33:21.508355 15475 net.cpp:141] Setting up inception_4d/relu_1x1
I0403 15:33:21.508383 15475 net.cpp:148] Top shape: 24 112 14 14 (526848)
I0403 15:33:21.508399 15475 net.cpp:156] Memory required for data: 1115397408
I0403 15:33:21.508414 15475 layer_factory.hpp:77] Creating layer inception_4d/3x3_reduce
I0403 15:33:21.508447 15475 net.cpp:91] Creating Layer inception_4d/3x3_reduce
I0403 15:33:21.508466 15475 net.cpp:425] inception_4d/3x3_reduce <- inception_4c/output_inception_4c/output_0_split_1
I0403 15:33:21.508489 15475 net.cpp:399] inception_4d/3x3_reduce -> inception_4d/3x3_reduce
I0403 15:33:21.510018 15475 net.cpp:141] Setting up inception_4d/3x3_reduce
I0403 15:33:21.510046 15475 net.cpp:148] Top shape: 24 144 14 14 (677376)
I0403 15:33:21.510062 15475 net.cpp:156] Memory required for data: 1118106912
I0403 15:33:21.510081 15475 layer_factory.hpp:77] Creating layer inception_4d/relu_3x3_reduce
I0403 15:33:21.510097 15475 net.cpp:91] Creating Layer inception_4d/relu_3x3_reduce
I0403 15:33:21.510118 15475 net.cpp:425] inception_4d/relu_3x3_reduce <- inception_4d/3x3_reduce
I0403 15:33:21.510134 15475 net.cpp:386] inception_4d/relu_3x3_reduce -> inception_4d/3x3_reduce (in-place)
I0403 15:33:21.510424 15475 net.cpp:141] Setting up inception_4d/relu_3x3_reduce
I0403 15:33:21.510450 15475 net.cpp:148] Top shape: 24 144 14 14 (677376)
I0403 15:33:21.510465 15475 net.cpp:156] Memory required for data: 1120816416
I0403 15:33:21.510480 15475 layer_factory.hpp:77] Creating layer inception_4d/3x3
I0403 15:33:21.510502 15475 net.cpp:91] Creating Layer inception_4d/3x3
I0403 15:33:21.510519 15475 net.cpp:425] inception_4d/3x3 <- inception_4d/3x3_reduce
I0403 15:33:21.510545 15475 net.cpp:399] inception_4d/3x3 -> inception_4d/3x3
I0403 15:33:21.514873 15475 net.cpp:141] Setting up inception_4d/3x3
I0403 15:33:21.514901 15475 net.cpp:148] Top shape: 24 288 14 14 (1354752)
I0403 15:33:21.514917 15475 net.cpp:156] Memory required for data: 1126235424
I0403 15:33:21.514935 15475 layer_factory.hpp:77] Creating layer inception_4d/relu_3x3
I0403 15:33:21.514955 15475 net.cpp:91] Creating Layer inception_4d/relu_3x3
I0403 15:33:21.514971 15475 net.cpp:425] inception_4d/relu_3x3 <- inception_4d/3x3
I0403 15:33:21.514988 15475 net.cpp:386] inception_4d/relu_3x3 -> inception_4d/3x3 (in-place)
I0403 15:33:21.515177 15475 net.cpp:141] Setting up inception_4d/relu_3x3
I0403 15:33:21.515204 15475 net.cpp:148] Top shape: 24 288 14 14 (1354752)
I0403 15:33:21.515220 15475 net.cpp:156] Memory required for data: 1131654432
I0403 15:33:21.515235 15475 layer_factory.hpp:77] Creating layer inception_4d/5x5_reduce
I0403 15:33:21.515257 15475 net.cpp:91] Creating Layer inception_4d/5x5_reduce
I0403 15:33:21.515275 15475 net.cpp:425] inception_4d/5x5_reduce <- inception_4c/output_inception_4c/output_0_split_2
I0403 15:33:21.515292 15475 net.cpp:399] inception_4d/5x5_reduce -> inception_4d/5x5_reduce
I0403 15:33:21.516494 15475 net.cpp:141] Setting up inception_4d/5x5_reduce
I0403 15:33:21.516521 15475 net.cpp:148] Top shape: 24 32 14 14 (150528)
I0403 15:33:21.516541 15475 net.cpp:156] Memory required for data: 1132256544
I0403 15:33:21.516562 15475 layer_factory.hpp:77] Creating layer inception_4d/relu_5x5_reduce
I0403 15:33:21.516583 15475 net.cpp:91] Creating Layer inception_4d/relu_5x5_reduce
I0403 15:33:21.516600 15475 net.cpp:425] inception_4d/relu_5x5_reduce <- inception_4d/5x5_reduce
I0403 15:33:21.516618 15475 net.cpp:386] inception_4d/relu_5x5_reduce -> inception_4d/5x5_reduce (in-place)
I0403 15:33:21.516813 15475 net.cpp:141] Setting up inception_4d/relu_5x5_reduce
I0403 15:33:21.516842 15475 net.cpp:148] Top shape: 24 32 14 14 (150528)
I0403 15:33:21.516858 15475 net.cpp:156] Memory required for data: 1132858656
I0403 15:33:21.516873 15475 layer_factory.hpp:77] Creating layer inception_4d/5x5
I0403 15:33:21.516896 15475 net.cpp:91] Creating Layer inception_4d/5x5
I0403 15:33:21.516914 15475 net.cpp:425] inception_4d/5x5 <- inception_4d/5x5_reduce
I0403 15:33:21.516933 15475 net.cpp:399] inception_4d/5x5 -> inception_4d/5x5
I0403 15:33:21.518458 15475 net.cpp:141] Setting up inception_4d/5x5
I0403 15:33:21.518491 15475 net.cpp:148] Top shape: 24 64 14 14 (301056)
I0403 15:33:21.518507 15475 net.cpp:156] Memory required for data: 1134062880
I0403 15:33:21.518527 15475 layer_factory.hpp:77] Creating layer inception_4d/relu_5x5
I0403 15:33:21.518565 15475 net.cpp:91] Creating Layer inception_4d/relu_5x5
I0403 15:33:21.518584 15475 net.cpp:425] inception_4d/relu_5x5 <- inception_4d/5x5
I0403 15:33:21.518604 15475 net.cpp:386] inception_4d/relu_5x5 -> inception_4d/5x5 (in-place)
I0403 15:33:21.518918 15475 net.cpp:141] Setting up inception_4d/relu_5x5
I0403 15:33:21.518946 15475 net.cpp:148] Top shape: 24 64 14 14 (301056)
I0403 15:33:21.518964 15475 net.cpp:156] Memory required for data: 1135267104
I0403 15:33:21.518980 15475 layer_factory.hpp:77] Creating layer inception_4d/pool
I0403 15:33:21.518997 15475 net.cpp:91] Creating Layer inception_4d/pool
I0403 15:33:21.519014 15475 net.cpp:425] inception_4d/pool <- inception_4c/output_inception_4c/output_0_split_3
I0403 15:33:21.519035 15475 net.cpp:399] inception_4d/pool -> inception_4d/pool
I0403 15:33:21.519104 15475 net.cpp:141] Setting up inception_4d/pool
I0403 15:33:21.519129 15475 net.cpp:148] Top shape: 24 512 14 14 (2408448)
I0403 15:33:21.519145 15475 net.cpp:156] Memory required for data: 1144900896
I0403 15:33:21.519160 15475 layer_factory.hpp:77] Creating layer inception_4d/pool_proj
I0403 15:33:21.519182 15475 net.cpp:91] Creating Layer inception_4d/pool_proj
I0403 15:33:21.519202 15475 net.cpp:425] inception_4d/pool_proj <- inception_4d/pool
I0403 15:33:21.519222 15475 net.cpp:399] inception_4d/pool_proj -> inception_4d/pool_proj
I0403 15:33:21.521071 15475 net.cpp:141] Setting up inception_4d/pool_proj
I0403 15:33:21.521101 15475 net.cpp:148] Top shape: 24 64 14 14 (301056)
I0403 15:33:21.521117 15475 net.cpp:156] Memory required for data: 1146105120
I0403 15:33:21.521136 15475 layer_factory.hpp:77] Creating layer inception_4d/relu_pool_proj
I0403 15:33:21.521157 15475 net.cpp:91] Creating Layer inception_4d/relu_pool_proj
I0403 15:33:21.521174 15475 net.cpp:425] inception_4d/relu_pool_proj <- inception_4d/pool_proj
I0403 15:33:21.521191 15475 net.cpp:386] inception_4d/relu_pool_proj -> inception_4d/pool_proj (in-place)
I0403 15:33:21.521381 15475 net.cpp:141] Setting up inception_4d/relu_pool_proj
I0403 15:33:21.521409 15475 net.cpp:148] Top shape: 24 64 14 14 (301056)
I0403 15:33:21.521425 15475 net.cpp:156] Memory required for data: 1147309344
I0403 15:33:21.521440 15475 layer_factory.hpp:77] Creating layer inception_4d/output
I0403 15:33:21.521457 15475 net.cpp:91] Creating Layer inception_4d/output
I0403 15:33:21.521472 15475 net.cpp:425] inception_4d/output <- inception_4d/1x1
I0403 15:33:21.521488 15475 net.cpp:425] inception_4d/output <- inception_4d/3x3
I0403 15:33:21.521504 15475 net.cpp:425] inception_4d/output <- inception_4d/5x5
I0403 15:33:21.521520 15475 net.cpp:425] inception_4d/output <- inception_4d/pool_proj
I0403 15:33:21.521541 15475 net.cpp:399] inception_4d/output -> inception_4d/output
I0403 15:33:21.521594 15475 net.cpp:141] Setting up inception_4d/output
I0403 15:33:21.521617 15475 net.cpp:148] Top shape: 24 528 14 14 (2483712)
I0403 15:33:21.521632 15475 net.cpp:156] Memory required for data: 1157244192
I0403 15:33:21.521646 15475 layer_factory.hpp:77] Creating layer inception_4d/output_inception_4d/output_0_split
I0403 15:33:21.521667 15475 net.cpp:91] Creating Layer inception_4d/output_inception_4d/output_0_split
I0403 15:33:21.521682 15475 net.cpp:425] inception_4d/output_inception_4d/output_0_split <- inception_4d/output
I0403 15:33:21.521699 15475 net.cpp:399] inception_4d/output_inception_4d/output_0_split -> inception_4d/output_inception_4d/output_0_split_0
I0403 15:33:21.521720 15475 net.cpp:399] inception_4d/output_inception_4d/output_0_split -> inception_4d/output_inception_4d/output_0_split_1
I0403 15:33:21.521739 15475 net.cpp:399] inception_4d/output_inception_4d/output_0_split -> inception_4d/output_inception_4d/output_0_split_2
I0403 15:33:21.521764 15475 net.cpp:399] inception_4d/output_inception_4d/output_0_split -> inception_4d/output_inception_4d/output_0_split_3
I0403 15:33:21.521785 15475 net.cpp:399] inception_4d/output_inception_4d/output_0_split -> inception_4d/output_inception_4d/output_0_split_4
I0403 15:33:21.521893 15475 net.cpp:141] Setting up inception_4d/output_inception_4d/output_0_split
I0403 15:33:21.521929 15475 net.cpp:148] Top shape: 24 528 14 14 (2483712)
I0403 15:33:21.521946 15475 net.cpp:148] Top shape: 24 528 14 14 (2483712)
I0403 15:33:21.521961 15475 net.cpp:148] Top shape: 24 528 14 14 (2483712)
I0403 15:33:21.521976 15475 net.cpp:148] Top shape: 24 528 14 14 (2483712)
I0403 15:33:21.521992 15475 net.cpp:148] Top shape: 24 528 14 14 (2483712)
I0403 15:33:21.522006 15475 net.cpp:156] Memory required for data: 1206918432
I0403 15:33:21.522020 15475 layer_factory.hpp:77] Creating layer loss2/ave_pool
I0403 15:33:21.522037 15475 net.cpp:91] Creating Layer loss2/ave_pool
I0403 15:33:21.522053 15475 net.cpp:425] loss2/ave_pool <- inception_4d/output_inception_4d/output_0_split_0
I0403 15:33:21.522074 15475 net.cpp:399] loss2/ave_pool -> loss2/ave_pool
I0403 15:33:21.522397 15475 net.cpp:141] Setting up loss2/ave_pool
I0403 15:33:21.522423 15475 net.cpp:148] Top shape: 24 528 4 4 (202752)
I0403 15:33:21.522439 15475 net.cpp:156] Memory required for data: 1207729440
I0403 15:33:21.522454 15475 layer_factory.hpp:77] Creating layer loss2/conv
I0403 15:33:21.522476 15475 net.cpp:91] Creating Layer loss2/conv
I0403 15:33:21.522493 15475 net.cpp:425] loss2/conv <- loss2/ave_pool
I0403 15:33:21.522514 15475 net.cpp:399] loss2/conv -> loss2/conv
I0403 15:33:21.524493 15475 net.cpp:141] Setting up loss2/conv
I0403 15:33:21.524526 15475 net.cpp:148] Top shape: 24 128 4 4 (49152)
I0403 15:33:21.524556 15475 net.cpp:156] Memory required for data: 1207926048
I0403 15:33:21.524577 15475 layer_factory.hpp:77] Creating layer loss2/relu_conv
I0403 15:33:21.524596 15475 net.cpp:91] Creating Layer loss2/relu_conv
I0403 15:33:21.524612 15475 net.cpp:425] loss2/relu_conv <- loss2/conv
I0403 15:33:21.524632 15475 net.cpp:386] loss2/relu_conv -> loss2/conv (in-place)
I0403 15:33:21.524924 15475 net.cpp:141] Setting up loss2/relu_conv
I0403 15:33:21.524953 15475 net.cpp:148] Top shape: 24 128 4 4 (49152)
I0403 15:33:21.524971 15475 net.cpp:156] Memory required for data: 1208122656
I0403 15:33:21.524986 15475 layer_factory.hpp:77] Creating layer loss2/fc
I0403 15:33:21.525005 15475 net.cpp:91] Creating Layer loss2/fc
I0403 15:33:21.525022 15475 net.cpp:425] loss2/fc <- loss2/conv
I0403 15:33:21.525043 15475 net.cpp:399] loss2/fc -> loss2/fc
I0403 15:33:21.543025 15475 net.cpp:141] Setting up loss2/fc
I0403 15:33:21.543059 15475 net.cpp:148] Top shape: 24 1024 (24576)
I0403 15:33:21.543074 15475 net.cpp:156] Memory required for data: 1208220960
I0403 15:33:21.543093 15475 layer_factory.hpp:77] Creating layer loss2/relu_fc
I0403 15:33:21.543114 15475 net.cpp:91] Creating Layer loss2/relu_fc
I0403 15:33:21.543131 15475 net.cpp:425] loss2/relu_fc <- loss2/fc
I0403 15:33:21.543148 15475 net.cpp:386] loss2/relu_fc -> loss2/fc (in-place)
I0403 15:33:21.543457 15475 net.cpp:141] Setting up loss2/relu_fc
I0403 15:33:21.543483 15475 net.cpp:148] Top shape: 24 1024 (24576)
I0403 15:33:21.543498 15475 net.cpp:156] Memory required for data: 1208319264
I0403 15:33:21.543514 15475 layer_factory.hpp:77] Creating layer loss2/drop_fc
I0403 15:33:21.543534 15475 net.cpp:91] Creating Layer loss2/drop_fc
I0403 15:33:21.543555 15475 net.cpp:425] loss2/drop_fc <- loss2/fc
I0403 15:33:21.543572 15475 net.cpp:386] loss2/drop_fc -> loss2/fc (in-place)
I0403 15:33:21.543624 15475 net.cpp:141] Setting up loss2/drop_fc
I0403 15:33:21.543648 15475 net.cpp:148] Top shape: 24 1024 (24576)
I0403 15:33:21.543661 15475 net.cpp:156] Memory required for data: 1208417568
I0403 15:33:21.543676 15475 layer_factory.hpp:77] Creating layer loss2/classifier_plantvillage
I0403 15:33:21.543694 15475 net.cpp:91] Creating Layer loss2/classifier_plantvillage
I0403 15:33:21.543709 15475 net.cpp:425] loss2/classifier_plantvillage <- loss2/fc
I0403 15:33:21.543730 15475 net.cpp:399] loss2/classifier_plantvillage -> loss2/classifier_plantvillage
I0403 15:33:21.544145 15475 net.cpp:141] Setting up loss2/classifier_plantvillage
I0403 15:33:21.544170 15475 net.cpp:148] Top shape: 24 38 (912)
I0403 15:33:21.544185 15475 net.cpp:156] Memory required for data: 1208421216
I0403 15:33:21.544226 15475 layer_factory.hpp:77] Creating layer loss2/classifier_plantvillage_loss2/classifier_plantvillage_0_split
I0403 15:33:21.544247 15475 net.cpp:91] Creating Layer loss2/classifier_plantvillage_loss2/classifier_plantvillage_0_split
I0403 15:33:21.544265 15475 net.cpp:425] loss2/classifier_plantvillage_loss2/classifier_plantvillage_0_split <- loss2/classifier_plantvillage
I0403 15:33:21.544284 15475 net.cpp:399] loss2/classifier_plantvillage_loss2/classifier_plantvillage_0_split -> loss2/classifier_plantvillage_loss2/classifier_plantvillage_0_split_0
I0403 15:33:21.544306 15475 net.cpp:399] loss2/classifier_plantvillage_loss2/classifier_plantvillage_0_split -> loss2/classifier_plantvillage_loss2/classifier_plantvillage_0_split_1
I0403 15:33:21.544324 15475 net.cpp:399] loss2/classifier_plantvillage_loss2/classifier_plantvillage_0_split -> loss2/classifier_plantvillage_loss2/classifier_plantvillage_0_split_2
I0403 15:33:21.544401 15475 net.cpp:141] Setting up loss2/classifier_plantvillage_loss2/classifier_plantvillage_0_split
I0403 15:33:21.544426 15475 net.cpp:148] Top shape: 24 38 (912)
I0403 15:33:21.544443 15475 net.cpp:148] Top shape: 24 38 (912)
I0403 15:33:21.544459 15475 net.cpp:148] Top shape: 24 38 (912)
I0403 15:33:21.544472 15475 net.cpp:156] Memory required for data: 1208432160
I0403 15:33:21.544486 15475 layer_factory.hpp:77] Creating layer inception_4e/1x1
I0403 15:33:21.544507 15475 net.cpp:91] Creating Layer inception_4e/1x1
I0403 15:33:21.544523 15475 net.cpp:425] inception_4e/1x1 <- inception_4d/output_inception_4d/output_0_split_1
I0403 15:33:21.544550 15475 net.cpp:399] inception_4e/1x1 -> inception_4e/1x1
I0403 15:33:21.546406 15475 net.cpp:141] Setting up inception_4e/1x1
I0403 15:33:21.546433 15475 net.cpp:148] Top shape: 24 256 14 14 (1204224)
I0403 15:33:21.546449 15475 net.cpp:156] Memory required for data: 1213249056
I0403 15:33:21.546468 15475 layer_factory.hpp:77] Creating layer inception_4e/relu_1x1
I0403 15:33:21.546484 15475 net.cpp:91] Creating Layer inception_4e/relu_1x1
I0403 15:33:21.546500 15475 net.cpp:425] inception_4e/relu_1x1 <- inception_4e/1x1
I0403 15:33:21.546520 15475 net.cpp:386] inception_4e/relu_1x1 -> inception_4e/1x1 (in-place)
I0403 15:33:21.546819 15475 net.cpp:141] Setting up inception_4e/relu_1x1
I0403 15:33:21.546845 15475 net.cpp:148] Top shape: 24 256 14 14 (1204224)
I0403 15:33:21.546860 15475 net.cpp:156] Memory required for data: 1218065952
I0403 15:33:21.546875 15475 layer_factory.hpp:77] Creating layer inception_4e/3x3_reduce
I0403 15:33:21.546897 15475 net.cpp:91] Creating Layer inception_4e/3x3_reduce
I0403 15:33:21.546916 15475 net.cpp:425] inception_4e/3x3_reduce <- inception_4d/output_inception_4d/output_0_split_2
I0403 15:33:21.546936 15475 net.cpp:399] inception_4e/3x3_reduce -> inception_4e/3x3_reduce
I0403 15:33:21.549065 15475 net.cpp:141] Setting up inception_4e/3x3_reduce
I0403 15:33:21.549096 15475 net.cpp:148] Top shape: 24 160 14 14 (752640)
I0403 15:33:21.549113 15475 net.cpp:156] Memory required for data: 1221076512
I0403 15:33:21.549131 15475 layer_factory.hpp:77] Creating layer inception_4e/relu_3x3_reduce
I0403 15:33:21.549149 15475 net.cpp:91] Creating Layer inception_4e/relu_3x3_reduce
I0403 15:33:21.549165 15475 net.cpp:425] inception_4e/relu_3x3_reduce <- inception_4e/3x3_reduce
I0403 15:33:21.549185 15475 net.cpp:386] inception_4e/relu_3x3_reduce -> inception_4e/3x3_reduce (in-place)
I0403 15:33:21.549371 15475 net.cpp:141] Setting up inception_4e/relu_3x3_reduce
I0403 15:33:21.549396 15475 net.cpp:148] Top shape: 24 160 14 14 (752640)
I0403 15:33:21.549409 15475 net.cpp:156] Memory required for data: 1224087072
I0403 15:33:21.549424 15475 layer_factory.hpp:77] Creating layer inception_4e/3x3
I0403 15:33:21.549445 15475 net.cpp:91] Creating Layer inception_4e/3x3
I0403 15:33:21.549463 15475 net.cpp:425] inception_4e/3x3 <- inception_4e/3x3_reduce
I0403 15:33:21.549484 15475 net.cpp:399] inception_4e/3x3 -> inception_4e/3x3
I0403 15:33:21.554502 15475 net.cpp:141] Setting up inception_4e/3x3
I0403 15:33:21.554558 15475 net.cpp:148] Top shape: 24 320 14 14 (1505280)
I0403 15:33:21.554575 15475 net.cpp:156] Memory required for data: 1230108192
I0403 15:33:21.554594 15475 layer_factory.hpp:77] Creating layer inception_4e/relu_3x3
I0403 15:33:21.554611 15475 net.cpp:91] Creating Layer inception_4e/relu_3x3
I0403 15:33:21.554630 15475 net.cpp:425] inception_4e/relu_3x3 <- inception_4e/3x3
I0403 15:33:21.554651 15475 net.cpp:386] inception_4e/relu_3x3 -> inception_4e/3x3 (in-place)
I0403 15:33:21.554952 15475 net.cpp:141] Setting up inception_4e/relu_3x3
I0403 15:33:21.554980 15475 net.cpp:148] Top shape: 24 320 14 14 (1505280)
I0403 15:33:21.554994 15475 net.cpp:156] Memory required for data: 1236129312
I0403 15:33:21.555008 15475 layer_factory.hpp:77] Creating layer inception_4e/5x5_reduce
I0403 15:33:21.555032 15475 net.cpp:91] Creating Layer inception_4e/5x5_reduce
I0403 15:33:21.555052 15475 net.cpp:425] inception_4e/5x5_reduce <- inception_4d/output_inception_4d/output_0_split_3
I0403 15:33:21.555073 15475 net.cpp:399] inception_4e/5x5_reduce -> inception_4e/5x5_reduce
I0403 15:33:21.556154 15475 net.cpp:141] Setting up inception_4e/5x5_reduce
I0403 15:33:21.556182 15475 net.cpp:148] Top shape: 24 32 14 14 (150528)
I0403 15:33:21.556200 15475 net.cpp:156] Memory required for data: 1236731424
I0403 15:33:21.556217 15475 layer_factory.hpp:77] Creating layer inception_4e/relu_5x5_reduce
I0403 15:33:21.556234 15475 net.cpp:91] Creating Layer inception_4e/relu_5x5_reduce
I0403 15:33:21.556251 15475 net.cpp:425] inception_4e/relu_5x5_reduce <- inception_4e/5x5_reduce
I0403 15:33:21.556268 15475 net.cpp:386] inception_4e/relu_5x5_reduce -> inception_4e/5x5_reduce (in-place)
I0403 15:33:21.556568 15475 net.cpp:141] Setting up inception_4e/relu_5x5_reduce
I0403 15:33:21.556597 15475 net.cpp:148] Top shape: 24 32 14 14 (150528)
I0403 15:33:21.556613 15475 net.cpp:156] Memory required for data: 1237333536
I0403 15:33:21.556627 15475 layer_factory.hpp:77] Creating layer inception_4e/5x5
I0403 15:33:21.556671 15475 net.cpp:91] Creating Layer inception_4e/5x5
I0403 15:33:21.556690 15475 net.cpp:425] inception_4e/5x5 <- inception_4e/5x5_reduce
I0403 15:33:21.556710 15475 net.cpp:399] inception_4e/5x5 -> inception_4e/5x5
I0403 15:33:21.558568 15475 net.cpp:141] Setting up inception_4e/5x5
I0403 15:33:21.558596 15475 net.cpp:148] Top shape: 24 128 14 14 (602112)
I0403 15:33:21.558612 15475 net.cpp:156] Memory required for data: 1239741984
I0403 15:33:21.558630 15475 layer_factory.hpp:77] Creating layer inception_4e/relu_5x5
I0403 15:33:21.558652 15475 net.cpp:91] Creating Layer inception_4e/relu_5x5
I0403 15:33:21.558668 15475 net.cpp:425] inception_4e/relu_5x5 <- inception_4e/5x5
I0403 15:33:21.558686 15475 net.cpp:386] inception_4e/relu_5x5 -> inception_4e/5x5 (in-place)
I0403 15:33:21.558881 15475 net.cpp:141] Setting up inception_4e/relu_5x5
I0403 15:33:21.558908 15475 net.cpp:148] Top shape: 24 128 14 14 (602112)
I0403 15:33:21.558924 15475 net.cpp:156] Memory required for data: 1242150432
I0403 15:33:21.558938 15475 layer_factory.hpp:77] Creating layer inception_4e/pool
I0403 15:33:21.558956 15475 net.cpp:91] Creating Layer inception_4e/pool
I0403 15:33:21.558971 15475 net.cpp:425] inception_4e/pool <- inception_4d/output_inception_4d/output_0_split_4
I0403 15:33:21.558991 15475 net.cpp:399] inception_4e/pool -> inception_4e/pool
I0403 15:33:21.559062 15475 net.cpp:141] Setting up inception_4e/pool
I0403 15:33:21.559089 15475 net.cpp:148] Top shape: 24 528 14 14 (2483712)
I0403 15:33:21.559106 15475 net.cpp:156] Memory required for data: 1252085280
I0403 15:33:21.559123 15475 layer_factory.hpp:77] Creating layer inception_4e/pool_proj
I0403 15:33:21.559142 15475 net.cpp:91] Creating Layer inception_4e/pool_proj
I0403 15:33:21.559160 15475 net.cpp:425] inception_4e/pool_proj <- inception_4e/pool
I0403 15:33:21.559182 15475 net.cpp:399] inception_4e/pool_proj -> inception_4e/pool_proj
I0403 15:33:21.560672 15475 net.cpp:141] Setting up inception_4e/pool_proj
I0403 15:33:21.560699 15475 net.cpp:148] Top shape: 24 128 14 14 (602112)
I0403 15:33:21.560727 15475 net.cpp:156] Memory required for data: 1254493728
I0403 15:33:21.560746 15475 layer_factory.hpp:77] Creating layer inception_4e/relu_pool_proj
I0403 15:33:21.560766 15475 net.cpp:91] Creating Layer inception_4e/relu_pool_proj
I0403 15:33:21.560782 15475 net.cpp:425] inception_4e/relu_pool_proj <- inception_4e/pool_proj
I0403 15:33:21.560798 15475 net.cpp:386] inception_4e/relu_pool_proj -> inception_4e/pool_proj (in-place)
I0403 15:33:21.561082 15475 net.cpp:141] Setting up inception_4e/relu_pool_proj
I0403 15:33:21.561108 15475 net.cpp:148] Top shape: 24 128 14 14 (602112)
I0403 15:33:21.561122 15475 net.cpp:156] Memory required for data: 1256902176
I0403 15:33:21.561136 15475 layer_factory.hpp:77] Creating layer inception_4e/output
I0403 15:33:21.561156 15475 net.cpp:91] Creating Layer inception_4e/output
I0403 15:33:21.561172 15475 net.cpp:425] inception_4e/output <- inception_4e/1x1
I0403 15:33:21.561189 15475 net.cpp:425] inception_4e/output <- inception_4e/3x3
I0403 15:33:21.561205 15475 net.cpp:425] inception_4e/output <- inception_4e/5x5
I0403 15:33:21.561221 15475 net.cpp:425] inception_4e/output <- inception_4e/pool_proj
I0403 15:33:21.561238 15475 net.cpp:399] inception_4e/output -> inception_4e/output
I0403 15:33:21.561288 15475 net.cpp:141] Setting up inception_4e/output
I0403 15:33:21.561311 15475 net.cpp:148] Top shape: 24 832 14 14 (3913728)
I0403 15:33:21.561324 15475 net.cpp:156] Memory required for data: 1272557088
I0403 15:33:21.561338 15475 layer_factory.hpp:77] Creating layer pool4/3x3_s2
I0403 15:33:21.561357 15475 net.cpp:91] Creating Layer pool4/3x3_s2
I0403 15:33:21.561372 15475 net.cpp:425] pool4/3x3_s2 <- inception_4e/output
I0403 15:33:21.561393 15475 net.cpp:399] pool4/3x3_s2 -> pool4/3x3_s2
I0403 15:33:21.561460 15475 net.cpp:141] Setting up pool4/3x3_s2
I0403 15:33:21.561486 15475 net.cpp:148] Top shape: 24 832 7 7 (978432)
I0403 15:33:21.561501 15475 net.cpp:156] Memory required for data: 1276470816
I0403 15:33:21.561514 15475 layer_factory.hpp:77] Creating layer pool4/3x3_s2_pool4/3x3_s2_0_split
I0403 15:33:21.561530 15475 net.cpp:91] Creating Layer pool4/3x3_s2_pool4/3x3_s2_0_split
I0403 15:33:21.561550 15475 net.cpp:425] pool4/3x3_s2_pool4/3x3_s2_0_split <- pool4/3x3_s2
I0403 15:33:21.561568 15475 net.cpp:399] pool4/3x3_s2_pool4/3x3_s2_0_split -> pool4/3x3_s2_pool4/3x3_s2_0_split_0
I0403 15:33:21.561589 15475 net.cpp:399] pool4/3x3_s2_pool4/3x3_s2_0_split -> pool4/3x3_s2_pool4/3x3_s2_0_split_1
I0403 15:33:21.561610 15475 net.cpp:399] pool4/3x3_s2_pool4/3x3_s2_0_split -> pool4/3x3_s2_pool4/3x3_s2_0_split_2
I0403 15:33:21.561630 15475 net.cpp:399] pool4/3x3_s2_pool4/3x3_s2_0_split -> pool4/3x3_s2_pool4/3x3_s2_0_split_3
I0403 15:33:21.561719 15475 net.cpp:141] Setting up pool4/3x3_s2_pool4/3x3_s2_0_split
I0403 15:33:21.561743 15475 net.cpp:148] Top shape: 24 832 7 7 (978432)
I0403 15:33:21.561758 15475 net.cpp:148] Top shape: 24 832 7 7 (978432)
I0403 15:33:21.561772 15475 net.cpp:148] Top shape: 24 832 7 7 (978432)
I0403 15:33:21.561786 15475 net.cpp:148] Top shape: 24 832 7 7 (978432)
I0403 15:33:21.561801 15475 net.cpp:156] Memory required for data: 1292125728
I0403 15:33:21.561816 15475 layer_factory.hpp:77] Creating layer inception_5a/1x1
I0403 15:33:21.561841 15475 net.cpp:91] Creating Layer inception_5a/1x1
I0403 15:33:21.561858 15475 net.cpp:425] inception_5a/1x1 <- pool4/3x3_s2_pool4/3x3_s2_0_split_0
I0403 15:33:21.561877 15475 net.cpp:399] inception_5a/1x1 -> inception_5a/1x1
I0403 15:33:21.564754 15475 net.cpp:141] Setting up inception_5a/1x1
I0403 15:33:21.564785 15475 net.cpp:148] Top shape: 24 256 7 7 (301056)
I0403 15:33:21.564802 15475 net.cpp:156] Memory required for data: 1293329952
I0403 15:33:21.564821 15475 layer_factory.hpp:77] Creating layer inception_5a/relu_1x1
I0403 15:33:21.564841 15475 net.cpp:91] Creating Layer inception_5a/relu_1x1
I0403 15:33:21.564857 15475 net.cpp:425] inception_5a/relu_1x1 <- inception_5a/1x1
I0403 15:33:21.564874 15475 net.cpp:386] inception_5a/relu_1x1 -> inception_5a/1x1 (in-place)
I0403 15:33:21.565191 15475 net.cpp:141] Setting up inception_5a/relu_1x1
I0403 15:33:21.565218 15475 net.cpp:148] Top shape: 24 256 7 7 (301056)
I0403 15:33:21.565233 15475 net.cpp:156] Memory required for data: 1294534176
I0403 15:33:21.565248 15475 layer_factory.hpp:77] Creating layer inception_5a/3x3_reduce
I0403 15:33:21.565273 15475 net.cpp:91] Creating Layer inception_5a/3x3_reduce
I0403 15:33:21.565289 15475 net.cpp:425] inception_5a/3x3_reduce <- pool4/3x3_s2_pool4/3x3_s2_0_split_1
I0403 15:33:21.565309 15475 net.cpp:399] inception_5a/3x3_reduce -> inception_5a/3x3_reduce
I0403 15:33:21.567795 15475 net.cpp:141] Setting up inception_5a/3x3_reduce
I0403 15:33:21.567823 15475 net.cpp:148] Top shape: 24 160 7 7 (188160)
I0403 15:33:21.567839 15475 net.cpp:156] Memory required for data: 1295286816
I0403 15:33:21.567857 15475 layer_factory.hpp:77] Creating layer inception_5a/relu_3x3_reduce
I0403 15:33:21.567878 15475 net.cpp:91] Creating Layer inception_5a/relu_3x3_reduce
I0403 15:33:21.567893 15475 net.cpp:425] inception_5a/relu_3x3_reduce <- inception_5a/3x3_reduce
I0403 15:33:21.567911 15475 net.cpp:386] inception_5a/relu_3x3_reduce -> inception_5a/3x3_reduce (in-place)
I0403 15:33:21.568099 15475 net.cpp:141] Setting up inception_5a/relu_3x3_reduce
I0403 15:33:21.568125 15475 net.cpp:148] Top shape: 24 160 7 7 (188160)
I0403 15:33:21.568140 15475 net.cpp:156] Memory required for data: 1296039456
I0403 15:33:21.568153 15475 layer_factory.hpp:77] Creating layer inception_5a/3x3
I0403 15:33:21.568177 15475 net.cpp:91] Creating Layer inception_5a/3x3
I0403 15:33:21.568194 15475 net.cpp:425] inception_5a/3x3 <- inception_5a/3x3_reduce
I0403 15:33:21.568213 15475 net.cpp:399] inception_5a/3x3 -> inception_5a/3x3
I0403 15:33:21.573292 15475 net.cpp:141] Setting up inception_5a/3x3
I0403 15:33:21.573323 15475 net.cpp:148] Top shape: 24 320 7 7 (376320)
I0403 15:33:21.573340 15475 net.cpp:156] Memory required for data: 1297544736
I0403 15:33:21.573359 15475 layer_factory.hpp:77] Creating layer inception_5a/relu_3x3
I0403 15:33:21.573376 15475 net.cpp:91] Creating Layer inception_5a/relu_3x3
I0403 15:33:21.573392 15475 net.cpp:425] inception_5a/relu_3x3 <- inception_5a/3x3
I0403 15:33:21.573410 15475 net.cpp:386] inception_5a/relu_3x3 -> inception_5a/3x3 (in-place)
I0403 15:33:21.573710 15475 net.cpp:141] Setting up inception_5a/relu_3x3
I0403 15:33:21.573739 15475 net.cpp:148] Top shape: 24 320 7 7 (376320)
I0403 15:33:21.573755 15475 net.cpp:156] Memory required for data: 1299050016
I0403 15:33:21.573770 15475 layer_factory.hpp:77] Creating layer inception_5a/5x5_reduce
I0403 15:33:21.573789 15475 net.cpp:91] Creating Layer inception_5a/5x5_reduce
I0403 15:33:21.573807 15475 net.cpp:425] inception_5a/5x5_reduce <- pool4/3x3_s2_pool4/3x3_s2_0_split_2
I0403 15:33:21.573827 15475 net.cpp:399] inception_5a/5x5_reduce -> inception_5a/5x5_reduce
I0403 15:33:21.575019 15475 net.cpp:141] Setting up inception_5a/5x5_reduce
I0403 15:33:21.575050 15475 net.cpp:148] Top shape: 24 32 7 7 (37632)
I0403 15:33:21.575067 15475 net.cpp:156] Memory required for data: 1299200544
I0403 15:33:21.575086 15475 layer_factory.hpp:77] Creating layer inception_5a/relu_5x5_reduce
I0403 15:33:21.575103 15475 net.cpp:91] Creating Layer inception_5a/relu_5x5_reduce
I0403 15:33:21.575120 15475 net.cpp:425] inception_5a/relu_5x5_reduce <- inception_5a/5x5_reduce
I0403 15:33:21.575139 15475 net.cpp:386] inception_5a/relu_5x5_reduce -> inception_5a/5x5_reduce (in-place)
I0403 15:33:21.575438 15475 net.cpp:141] Setting up inception_5a/relu_5x5_reduce
I0403 15:33:21.575467 15475 net.cpp:148] Top shape: 24 32 7 7 (37632)
I0403 15:33:21.575484 15475 net.cpp:156] Memory required for data: 1299351072
I0403 15:33:21.575498 15475 layer_factory.hpp:77] Creating layer inception_5a/5x5
I0403 15:33:21.575520 15475 net.cpp:91] Creating Layer inception_5a/5x5
I0403 15:33:21.575541 15475 net.cpp:425] inception_5a/5x5 <- inception_5a/5x5_reduce
I0403 15:33:21.575562 15475 net.cpp:399] inception_5a/5x5 -> inception_5a/5x5
I0403 15:33:21.577292 15475 net.cpp:141] Setting up inception_5a/5x5
I0403 15:33:21.577334 15475 net.cpp:148] Top shape: 24 128 7 7 (150528)
I0403 15:33:21.577352 15475 net.cpp:156] Memory required for data: 1299953184
I0403 15:33:21.577370 15475 layer_factory.hpp:77] Creating layer inception_5a/relu_5x5
I0403 15:33:21.577388 15475 net.cpp:91] Creating Layer inception_5a/relu_5x5
I0403 15:33:21.577404 15475 net.cpp:425] inception_5a/relu_5x5 <- inception_5a/5x5
I0403 15:33:21.577420 15475 net.cpp:386] inception_5a/relu_5x5 -> inception_5a/5x5 (in-place)
I0403 15:33:21.577620 15475 net.cpp:141] Setting up inception_5a/relu_5x5
I0403 15:33:21.577646 15475 net.cpp:148] Top shape: 24 128 7 7 (150528)
I0403 15:33:21.577662 15475 net.cpp:156] Memory required for data: 1300555296
I0403 15:33:21.577677 15475 layer_factory.hpp:77] Creating layer inception_5a/pool
I0403 15:33:21.577695 15475 net.cpp:91] Creating Layer inception_5a/pool
I0403 15:33:21.577710 15475 net.cpp:425] inception_5a/pool <- pool4/3x3_s2_pool4/3x3_s2_0_split_3
I0403 15:33:21.577731 15475 net.cpp:399] inception_5a/pool -> inception_5a/pool
I0403 15:33:21.577801 15475 net.cpp:141] Setting up inception_5a/pool
I0403 15:33:21.577827 15475 net.cpp:148] Top shape: 24 832 7 7 (978432)
I0403 15:33:21.577842 15475 net.cpp:156] Memory required for data: 1304469024
I0403 15:33:21.577857 15475 layer_factory.hpp:77] Creating layer inception_5a/pool_proj
I0403 15:33:21.577877 15475 net.cpp:91] Creating Layer inception_5a/pool_proj
I0403 15:33:21.577893 15475 net.cpp:425] inception_5a/pool_proj <- inception_5a/pool
I0403 15:33:21.577913 15475 net.cpp:399] inception_5a/pool_proj -> inception_5a/pool_proj
I0403 15:33:21.580204 15475 net.cpp:141] Setting up inception_5a/pool_proj
I0403 15:33:21.580232 15475 net.cpp:148] Top shape: 24 128 7 7 (150528)
I0403 15:33:21.580247 15475 net.cpp:156] Memory required for data: 1305071136
I0403 15:33:21.580267 15475 layer_factory.hpp:77] Creating layer inception_5a/relu_pool_proj
I0403 15:33:21.580289 15475 net.cpp:91] Creating Layer inception_5a/relu_pool_proj
I0403 15:33:21.580307 15475 net.cpp:425] inception_5a/relu_pool_proj <- inception_5a/pool_proj
I0403 15:33:21.580322 15475 net.cpp:386] inception_5a/relu_pool_proj -> inception_5a/pool_proj (in-place)
I0403 15:33:21.580618 15475 net.cpp:141] Setting up inception_5a/relu_pool_proj
I0403 15:33:21.580643 15475 net.cpp:148] Top shape: 24 128 7 7 (150528)
I0403 15:33:21.580658 15475 net.cpp:156] Memory required for data: 1305673248
I0403 15:33:21.580674 15475 layer_factory.hpp:77] Creating layer inception_5a/output
I0403 15:33:21.580693 15475 net.cpp:91] Creating Layer inception_5a/output
I0403 15:33:21.580711 15475 net.cpp:425] inception_5a/output <- inception_5a/1x1
I0403 15:33:21.580729 15475 net.cpp:425] inception_5a/output <- inception_5a/3x3
I0403 15:33:21.580744 15475 net.cpp:425] inception_5a/output <- inception_5a/5x5
I0403 15:33:21.580760 15475 net.cpp:425] inception_5a/output <- inception_5a/pool_proj
I0403 15:33:21.580775 15475 net.cpp:399] inception_5a/output -> inception_5a/output
I0403 15:33:21.580826 15475 net.cpp:141] Setting up inception_5a/output
I0403 15:33:21.580848 15475 net.cpp:148] Top shape: 24 832 7 7 (978432)
I0403 15:33:21.580862 15475 net.cpp:156] Memory required for data: 1309586976
I0403 15:33:21.580876 15475 layer_factory.hpp:77] Creating layer inception_5a/output_inception_5a/output_0_split
I0403 15:33:21.580893 15475 net.cpp:91] Creating Layer inception_5a/output_inception_5a/output_0_split
I0403 15:33:21.580907 15475 net.cpp:425] inception_5a/output_inception_5a/output_0_split <- inception_5a/output
I0403 15:33:21.580925 15475 net.cpp:399] inception_5a/output_inception_5a/output_0_split -> inception_5a/output_inception_5a/output_0_split_0
I0403 15:33:21.580945 15475 net.cpp:399] inception_5a/output_inception_5a/output_0_split -> inception_5a/output_inception_5a/output_0_split_1
I0403 15:33:21.580965 15475 net.cpp:399] inception_5a/output_inception_5a/output_0_split -> inception_5a/output_inception_5a/output_0_split_2
I0403 15:33:21.580984 15475 net.cpp:399] inception_5a/output_inception_5a/output_0_split -> inception_5a/output_inception_5a/output_0_split_3
I0403 15:33:21.581096 15475 net.cpp:141] Setting up inception_5a/output_inception_5a/output_0_split
I0403 15:33:21.581121 15475 net.cpp:148] Top shape: 24 832 7 7 (978432)
I0403 15:33:21.581137 15475 net.cpp:148] Top shape: 24 832 7 7 (978432)
I0403 15:33:21.581153 15475 net.cpp:148] Top shape: 24 832 7 7 (978432)
I0403 15:33:21.581168 15475 net.cpp:148] Top shape: 24 832 7 7 (978432)
I0403 15:33:21.581182 15475 net.cpp:156] Memory required for data: 1325241888
I0403 15:33:21.581194 15475 layer_factory.hpp:77] Creating layer inception_5b/1x1
I0403 15:33:21.581217 15475 net.cpp:91] Creating Layer inception_5b/1x1
I0403 15:33:21.581233 15475 net.cpp:425] inception_5b/1x1 <- inception_5a/output_inception_5a/output_0_split_0
I0403 15:33:21.581250 15475 net.cpp:399] inception_5b/1x1 -> inception_5b/1x1
I0403 15:33:21.584939 15475 net.cpp:141] Setting up inception_5b/1x1
I0403 15:33:21.584967 15475 net.cpp:148] Top shape: 24 384 7 7 (451584)
I0403 15:33:21.584983 15475 net.cpp:156] Memory required for data: 1327048224
I0403 15:33:21.585001 15475 layer_factory.hpp:77] Creating layer inception_5b/relu_1x1
I0403 15:33:21.585021 15475 net.cpp:91] Creating Layer inception_5b/relu_1x1
I0403 15:33:21.585037 15475 net.cpp:425] inception_5b/relu_1x1 <- inception_5b/1x1
I0403 15:33:21.585053 15475 net.cpp:386] inception_5b/relu_1x1 -> inception_5b/1x1 (in-place)
I0403 15:33:21.585350 15475 net.cpp:141] Setting up inception_5b/relu_1x1
I0403 15:33:21.585376 15475 net.cpp:148] Top shape: 24 384 7 7 (451584)
I0403 15:33:21.585389 15475 net.cpp:156] Memory required for data: 1328854560
I0403 15:33:21.585403 15475 layer_factory.hpp:77] Creating layer inception_5b/3x3_reduce
I0403 15:33:21.585425 15475 net.cpp:91] Creating Layer inception_5b/3x3_reduce
I0403 15:33:21.585443 15475 net.cpp:425] inception_5b/3x3_reduce <- inception_5a/output_inception_5a/output_0_split_1
I0403 15:33:21.585464 15475 net.cpp:399] inception_5b/3x3_reduce -> inception_5b/3x3_reduce
I0403 15:33:21.588111 15475 net.cpp:141] Setting up inception_5b/3x3_reduce
I0403 15:33:21.588141 15475 net.cpp:148] Top shape: 24 192 7 7 (225792)
I0403 15:33:21.588156 15475 net.cpp:156] Memory required for data: 1329757728
I0403 15:33:21.588174 15475 layer_factory.hpp:77] Creating layer inception_5b/relu_3x3_reduce
I0403 15:33:21.588193 15475 net.cpp:91] Creating Layer inception_5b/relu_3x3_reduce
I0403 15:33:21.588209 15475 net.cpp:425] inception_5b/relu_3x3_reduce <- inception_5b/3x3_reduce
I0403 15:33:21.588227 15475 net.cpp:386] inception_5b/relu_3x3_reduce -> inception_5b/3x3_reduce (in-place)
I0403 15:33:21.588413 15475 net.cpp:141] Setting up inception_5b/relu_3x3_reduce
I0403 15:33:21.588439 15475 net.cpp:148] Top shape: 24 192 7 7 (225792)
I0403 15:33:21.588455 15475 net.cpp:156] Memory required for data: 1330660896
I0403 15:33:21.588469 15475 layer_factory.hpp:77] Creating layer inception_5b/3x3
I0403 15:33:21.588490 15475 net.cpp:91] Creating Layer inception_5b/3x3
I0403 15:33:21.588506 15475 net.cpp:425] inception_5b/3x3 <- inception_5b/3x3_reduce
I0403 15:33:21.588524 15475 net.cpp:399] inception_5b/3x3 -> inception_5b/3x3
I0403 15:33:21.595161 15475 net.cpp:141] Setting up inception_5b/3x3
I0403 15:33:21.595190 15475 net.cpp:148] Top shape: 24 384 7 7 (451584)
I0403 15:33:21.595204 15475 net.cpp:156] Memory required for data: 1332467232
I0403 15:33:21.595222 15475 layer_factory.hpp:77] Creating layer inception_5b/relu_3x3
I0403 15:33:21.595242 15475 net.cpp:91] Creating Layer inception_5b/relu_3x3
I0403 15:33:21.595258 15475 net.cpp:425] inception_5b/relu_3x3 <- inception_5b/3x3
I0403 15:33:21.595274 15475 net.cpp:386] inception_5b/relu_3x3 -> inception_5b/3x3 (in-place)
I0403 15:33:21.595582 15475 net.cpp:141] Setting up inception_5b/relu_3x3
I0403 15:33:21.595607 15475 net.cpp:148] Top shape: 24 384 7 7 (451584)
I0403 15:33:21.595621 15475 net.cpp:156] Memory required for data: 1334273568
I0403 15:33:21.595635 15475 layer_factory.hpp:77] Creating layer inception_5b/5x5_reduce
I0403 15:33:21.595674 15475 net.cpp:91] Creating Layer inception_5b/5x5_reduce
I0403 15:33:21.595692 15475 net.cpp:425] inception_5b/5x5_reduce <- inception_5a/output_inception_5a/output_0_split_2
I0403 15:33:21.595713 15475 net.cpp:399] inception_5b/5x5_reduce -> inception_5b/5x5_reduce
I0403 15:33:21.596974 15475 net.cpp:141] Setting up inception_5b/5x5_reduce
I0403 15:33:21.597002 15475 net.cpp:148] Top shape: 24 48 7 7 (56448)
I0403 15:33:21.597018 15475 net.cpp:156] Memory required for data: 1334499360
I0403 15:33:21.597034 15475 layer_factory.hpp:77] Creating layer inception_5b/relu_5x5_reduce
I0403 15:33:21.597054 15475 net.cpp:91] Creating Layer inception_5b/relu_5x5_reduce
I0403 15:33:21.597070 15475 net.cpp:425] inception_5b/relu_5x5_reduce <- inception_5b/5x5_reduce
I0403 15:33:21.597087 15475 net.cpp:386] inception_5b/relu_5x5_reduce -> inception_5b/5x5_reduce (in-place)
I0403 15:33:21.597458 15475 net.cpp:141] Setting up inception_5b/relu_5x5_reduce
I0403 15:33:21.597484 15475 net.cpp:148] Top shape: 24 48 7 7 (56448)
I0403 15:33:21.597499 15475 net.cpp:156] Memory required for data: 1334725152
I0403 15:33:21.597513 15475 layer_factory.hpp:77] Creating layer inception_5b/5x5
I0403 15:33:21.597532 15475 net.cpp:91] Creating Layer inception_5b/5x5
I0403 15:33:21.597554 15475 net.cpp:425] inception_5b/5x5 <- inception_5b/5x5_reduce
I0403 15:33:21.597573 15475 net.cpp:399] inception_5b/5x5 -> inception_5b/5x5
I0403 15:33:21.599607 15475 net.cpp:141] Setting up inception_5b/5x5
I0403 15:33:21.599633 15475 net.cpp:148] Top shape: 24 128 7 7 (150528)
I0403 15:33:21.599648 15475 net.cpp:156] Memory required for data: 1335327264
I0403 15:33:21.599665 15475 layer_factory.hpp:77] Creating layer inception_5b/relu_5x5
I0403 15:33:21.599684 15475 net.cpp:91] Creating Layer inception_5b/relu_5x5
I0403 15:33:21.599701 15475 net.cpp:425] inception_5b/relu_5x5 <- inception_5b/5x5
I0403 15:33:21.599719 15475 net.cpp:386] inception_5b/relu_5x5 -> inception_5b/5x5 (in-place)
I0403 15:33:21.599910 15475 net.cpp:141] Setting up inception_5b/relu_5x5
I0403 15:33:21.599934 15475 net.cpp:148] Top shape: 24 128 7 7 (150528)
I0403 15:33:21.599949 15475 net.cpp:156] Memory required for data: 1335929376
I0403 15:33:21.599963 15475 layer_factory.hpp:77] Creating layer inception_5b/pool
I0403 15:33:21.599980 15475 net.cpp:91] Creating Layer inception_5b/pool
I0403 15:33:21.599995 15475 net.cpp:425] inception_5b/pool <- inception_5a/output_inception_5a/output_0_split_3
I0403 15:33:21.600014 15475 net.cpp:399] inception_5b/pool -> inception_5b/pool
I0403 15:33:21.600087 15475 net.cpp:141] Setting up inception_5b/pool
I0403 15:33:21.600109 15475 net.cpp:148] Top shape: 24 832 7 7 (978432)
I0403 15:33:21.600123 15475 net.cpp:156] Memory required for data: 1339843104
I0403 15:33:21.600137 15475 layer_factory.hpp:77] Creating layer inception_5b/pool_proj
I0403 15:33:21.600159 15475 net.cpp:91] Creating Layer inception_5b/pool_proj
I0403 15:33:21.600177 15475 net.cpp:425] inception_5b/pool_proj <- inception_5b/pool
I0403 15:33:21.600194 15475 net.cpp:399] inception_5b/pool_proj -> inception_5b/pool_proj
I0403 15:33:21.602453 15475 net.cpp:141] Setting up inception_5b/pool_proj
I0403 15:33:21.602481 15475 net.cpp:148] Top shape: 24 128 7 7 (150528)
I0403 15:33:21.602497 15475 net.cpp:156] Memory required for data: 1340445216
I0403 15:33:21.602514 15475 layer_factory.hpp:77] Creating layer inception_5b/relu_pool_proj
I0403 15:33:21.602535 15475 net.cpp:91] Creating Layer inception_5b/relu_pool_proj
I0403 15:33:21.602555 15475 net.cpp:425] inception_5b/relu_pool_proj <- inception_5b/pool_proj
I0403 15:33:21.602572 15475 net.cpp:386] inception_5b/relu_pool_proj -> inception_5b/pool_proj (in-place)
I0403 15:33:21.602866 15475 net.cpp:141] Setting up inception_5b/relu_pool_proj
I0403 15:33:21.602892 15475 net.cpp:148] Top shape: 24 128 7 7 (150528)
I0403 15:33:21.602907 15475 net.cpp:156] Memory required for data: 1341047328
I0403 15:33:21.602921 15475 layer_factory.hpp:77] Creating layer inception_5b/output
I0403 15:33:21.602941 15475 net.cpp:91] Creating Layer inception_5b/output
I0403 15:33:21.602970 15475 net.cpp:425] inception_5b/output <- inception_5b/1x1
I0403 15:33:21.602988 15475 net.cpp:425] inception_5b/output <- inception_5b/3x3
I0403 15:33:21.603003 15475 net.cpp:425] inception_5b/output <- inception_5b/5x5
I0403 15:33:21.603019 15475 net.cpp:425] inception_5b/output <- inception_5b/pool_proj
I0403 15:33:21.603035 15475 net.cpp:399] inception_5b/output -> inception_5b/output
I0403 15:33:21.603088 15475 net.cpp:141] Setting up inception_5b/output
I0403 15:33:21.603111 15475 net.cpp:148] Top shape: 24 1024 7 7 (1204224)
I0403 15:33:21.603126 15475 net.cpp:156] Memory required for data: 1345864224
I0403 15:33:21.603139 15475 layer_factory.hpp:77] Creating layer pool5/7x7_s1
I0403 15:33:21.603155 15475 net.cpp:91] Creating Layer pool5/7x7_s1
I0403 15:33:21.603173 15475 net.cpp:425] pool5/7x7_s1 <- inception_5b/output
I0403 15:33:21.603190 15475 net.cpp:399] pool5/7x7_s1 -> pool5/7x7_s1
I0403 15:33:21.603404 15475 net.cpp:141] Setting up pool5/7x7_s1
I0403 15:33:21.603431 15475 net.cpp:148] Top shape: 24 1024 1 1 (24576)
I0403 15:33:21.603446 15475 net.cpp:156] Memory required for data: 1345962528
I0403 15:33:21.603461 15475 layer_factory.hpp:77] Creating layer pool5/drop_7x7_s1
I0403 15:33:21.603477 15475 net.cpp:91] Creating Layer pool5/drop_7x7_s1
I0403 15:33:21.603492 15475 net.cpp:425] pool5/drop_7x7_s1 <- pool5/7x7_s1
I0403 15:33:21.603508 15475 net.cpp:386] pool5/drop_7x7_s1 -> pool5/7x7_s1 (in-place)
I0403 15:33:21.603562 15475 net.cpp:141] Setting up pool5/drop_7x7_s1
I0403 15:33:21.603586 15475 net.cpp:148] Top shape: 24 1024 1 1 (24576)
I0403 15:33:21.603600 15475 net.cpp:156] Memory required for data: 1346060832
I0403 15:33:21.603613 15475 layer_factory.hpp:77] Creating layer loss3/classifier_plantvillage
I0403 15:33:21.603633 15475 net.cpp:91] Creating Layer loss3/classifier_plantvillage
I0403 15:33:21.603649 15475 net.cpp:425] loss3/classifier_plantvillage <- pool5/7x7_s1
I0403 15:33:21.603667 15475 net.cpp:399] loss3/classifier_plantvillage -> loss3/classifier_plantvillage
I0403 15:33:21.604085 15475 net.cpp:141] Setting up loss3/classifier_plantvillage
I0403 15:33:21.604110 15475 net.cpp:148] Top shape: 24 38 (912)
I0403 15:33:21.604123 15475 net.cpp:156] Memory required for data: 1346064480
I0403 15:33:21.604140 15475 layer_factory.hpp:77] Creating layer loss3/classifier_plantvillage_loss3/classifier_plantvillage_0_split
I0403 15:33:21.604157 15475 net.cpp:91] Creating Layer loss3/classifier_plantvillage_loss3/classifier_plantvillage_0_split
I0403 15:33:21.604172 15475 net.cpp:425] loss3/classifier_plantvillage_loss3/classifier_plantvillage_0_split <- loss3/classifier_plantvillage
I0403 15:33:21.604192 15475 net.cpp:399] loss3/classifier_plantvillage_loss3/classifier_plantvillage_0_split -> loss3/classifier_plantvillage_loss3/classifier_plantvillage_0_split_0
I0403 15:33:21.604212 15475 net.cpp:399] loss3/classifier_plantvillage_loss3/classifier_plantvillage_0_split -> loss3/classifier_plantvillage_loss3/classifier_plantvillage_0_split_1
I0403 15:33:21.604231 15475 net.cpp:399] loss3/classifier_plantvillage_loss3/classifier_plantvillage_0_split -> loss3/classifier_plantvillage_loss3/classifier_plantvillage_0_split_2
I0403 15:33:21.604250 15475 net.cpp:399] loss3/classifier_plantvillage_loss3/classifier_plantvillage_0_split -> loss3/classifier_plantvillage_loss3/classifier_plantvillage_0_split_3
I0403 15:33:21.604353 15475 net.cpp:141] Setting up loss3/classifier_plantvillage_loss3/classifier_plantvillage_0_split
I0403 15:33:21.604378 15475 net.cpp:148] Top shape: 24 38 (912)
I0403 15:33:21.604395 15475 net.cpp:148] Top shape: 24 38 (912)
I0403 15:33:21.604410 15475 net.cpp:148] Top shape: 24 38 (912)
I0403 15:33:21.604424 15475 net.cpp:148] Top shape: 24 38 (912)
I0403 15:33:21.604437 15475 net.cpp:156] Memory required for data: 1346079072
I0403 15:33:21.604451 15475 layer_factory.hpp:77] Creating layer loss1/loss
I0403 15:33:21.604473 15475 net.cpp:91] Creating Layer loss1/loss
I0403 15:33:21.604490 15475 net.cpp:425] loss1/loss <- loss1/classifier_plantvillage_loss1/classifier_plantvillage_0_split_0
I0403 15:33:21.604522 15475 net.cpp:425] loss1/loss <- label_data_1_split_0
…
