…
I0403 15:08:57.084251 14153 net.cpp:313] The NetState phase (1) differed from the phase (0) specified by a rule in layer data
I0403 15:08:57.085378 14153 net.cpp:49] Initializing net from parameters: 
state {
  phase: TEST
}
layer {
  name: "data"
  type: "Data"
  top: "data"
  top: "label"
  include {
    phase: TEST
  }
  transform_param {
    mirror: false
    crop_size: 224
    mean_file: "/home/mohanty/data/final_dataset/lmdb/color-50-50/mean.binaryproto"
  }
  data_param {
    source: "/home/mohanty/data/final_dataset/lmdb/color-50-50/test_db"
    batch_size: 24
    backend: LMDB
  }
}
layer {
  name: "conv1/7x7_s2"
  type: "Convolution"
  bottom: "data"
  top: "conv1/7x7_s2"
  param {
    lr_mult: 1
    decay_mult: 1
  }
  param {
    lr_mult: 2
    decay_mult: 0
  }
  convolution_param {
    num_output: 64
    pad: 3
    kernel_size: 7
    stride: 2
    weight_filler {
      type: "xavier"
      std: 0.1
    }
    bias_filler {
      type: "constant"
      value: 0.2
    }
  }
}
layer {
  name: "conv1/relu_7x7"
  type: "ReLU"
  bottom: "conv1/7x7_s2"
  top: "conv1/7x7_s2"
}
layer {
  name: "pool1/3x3_s2"
  type: "Pooling"
  bottom: "conv1/7x7_s2"
  top: "pool1/3x3_s2"
  pooling_param {
    pool: MAX
    kernel_size: 3
    stride: 2
  }
}
layer {
  name: "pool1/norm1"
  type: "LRN"
  bottom: "pool1/3x3_s2"
  top: "pool1/norm1"
  lrn_param {
    local_size: 5
    alpha: 0.0001
    beta: 0.75
  }
}
layer {
  name: "conv2/3x3_reduce"
  type: "Convolution"
  bottom: "pool1/norm1"
  top: "conv2/3x3_reduce"
  param {
    lr_mult: 1
    decay_mult: 1
  }
  param {
    lr_mult: 2
    decay_mult: 0
  }
  convolution_param {
    num_output: 64
    kernel_size: 1
    weight_filler {
      type: "xavier"
      std: 0.1
    }
    bias_filler {
      type: "constant"
      value: 0.2
    }
  }
}
layer {
  name: "conv2/relu_3x3_reduce"
  type: "ReLU"
  bottom: "conv2/3x3_reduce"
  top: "conv2/3x3_reduce"
}
layer {
  name: "conv2/3x3"
  type: "Convolution"
  bottom: "conv2/3x3_reduce"
  top: "conv2/3x3"
  param {
    lr_mult: 1
    decay_mult: 1
  }
  param {
    lr_mult: 2
    decay_mult: 0
  }
  convolution_param {
    num_output: 192
    pad: 1
    kernel_size: 3
    weight_filler {
      type: "xavier"
      std: 0.03
    }
    bias_filler {
      type: "constant"
      value: 0.2
    }
  }
}
layer {
  name: "conv2/relu_3x3"
  type: "ReLU"
  bottom: "conv2/3x3"
  top: "conv2/3x3"
}
layer {
  name: "conv2/norm2"
  type: "LRN"
  bottom: "conv2/3x3"
  top: "conv2/norm2"
  lrn_param {
    local_size: 5
    alpha: 0.0001
    beta: 0.75
  }
}
layer {
  name: "pool2/3x3_s2"
  type: "Pooling"
  bottom: "conv2/norm2"
  top: "pool2/3x3_s2"
  pooling_param {
    pool: MAX
    kernel_size: 3
    stride: 2
  }
}
layer {
  name: "inception_3a/1x1"
  type: "Convolution"
  bottom: "pool2/3x3_s2"
  top: "inception_3a/1x1"
  param {
    lr_mult: 1
    decay_mult: 1
  }
  param {
    lr_mult: 2
    decay_mult: 0
  }
  convolution_param {
    num_output: 64
    kernel_size: 1
    weight_filler {
      type: "xavier"
      std: 0.03
    }
    bias_filler {
      type: "constant"
      value: 0.2
    }
  }
}
layer {
  name: "inception_3a/relu_1x1"
  type: "ReLU"
  bottom: "inception_3a/1x1"
  top: "inception_3a/1x1"
}
layer {
  name: "inception_3a/3x3_reduce"
  type: "Convolution"
  bottom: "pool2/3x3_s2"
  top: "inception_3a/3x3_reduce"
  param {
    lr_mult: 1
    decay_mult: 1
  }
  param {
    lr_mult: 2
    decay_mult: 0
  }
  convolution_param {
    num_output: 96
    kernel_size: 1
    weight_filler {
      type: "xavier"
      std: 0.09
    }
    bias_filler {
      type: "constant"
      value: 0.2
    }
  }
}
layer {
  name: "inception_3a/relu_3x3_reduce"
  type: "ReLU"
  bottom: "inception_3a/3x3_reduce"
  top: "inception_3a/3x3_reduce"
}
layer {
  name: "inception_3a/3x3"
  type: "Convolution"
  bottom: "inception_3a/3x3_reduce"
  top: "inception_3a/3x3"
  param {
    lr_mult: 1
    decay_mult: 1
  }
  param {
    lr_mult: 2
    decay_mult: 0
  }
  convolution_param {
    num_output: 128
    pad: 1
    kernel_size: 3
    weight_filler {
      type: "xavier"
      std: 0.03
    }
    bias_filler {
      type: "constant"
      value: 0.2
    }
  }
}
layer {
  name: "inception_3a/relu_3x3"
  type: "ReLU"
  bottom: "inception_3a/3x3"
  top: "inception_3a/3x3"
}
layer {
  name: "inception_3a/5x5_reduce"
  type: "Convolution"
  bottom: "pool2/3x3_s2"
  top: "inception_3a/5x5_reduce"
  param {
    lr_mult: 1
    decay_mult: 1
  }
  param {
    lr_mult: 2
    decay_mult: 0
  }
  convolution_param {
    num_output: 16
    kernel_size: 1
    weight_filler {
      type: "xavier"
      std: 0.2
    }
    bias_filler {
      type: "constant"
      value: 0.2
    }
  }
}
layer {
  name: "inception_3a/relu_5x5_reduce"
  type: "ReLU"
  bottom: "inception_3a/5x5_reduce"
  top: "inception_3a/5x5_reduce"
}
layer {
  name: "inception_3a/5x5"
  type: "Convolution"
  bottom: "inception_3a/5x5_reduce"
  top: "inception_3a/5x5"
  param {
    lr_mult: 1
    decay_mult: 1
  }
  param {
    lr_mult: 2
    decay_mult: 0
  }
  convolution_param {
    num_output: 32
    pad: 2
    kernel_size: 5
    weight_filler {
      type: "xavier"
      std: 0.03
    }
    bias_filler {
      type: "constant"
      value: 0.2
    }
  }
}
layer {
  name: "inception_3a/relu_5x5"
  type: "ReLU"
  bottom: "inception_3a/5x5"
  top: "inception_3a/5x5"
}
layer {
  name: "inception_3a/pool"
  type: "Pooling"
  bottom: "pool2/3x3_s2"
  top: "inception_3a/pool"
  pooling_param {
    pool: MAX
    kernel_size: 3
    stride: 1
    pad: 1
  }
}
layer {
  name: "inception_3a/pool_proj"
  type: "Convolution"
  bottom: "inception_3a/pool"
  top: "inception_3a/pool_proj"
  param {
    lr_mult: 1
    decay_mult: 1
  }
  param {
    lr_mult: 2
    decay_mult: 0
  }
  convolution_param {
    num_output: 32
    kernel_size: 1
    weight_filler {
      type: "xavier"
      std: 0.1
    }
    bias_filler {
      type: "constant"
      value: 0.2
    }
  }
}
layer {
  name: "inception_3a/relu_pool_proj"
  type: "ReLU"
  bottom: "inception_3a/pool_proj"
  top: "inception_3a/pool_proj"
}
layer {
  name: "inception_3a/output"
  type: "Concat"
  bottom: "inception_3a/1x1"
  bottom: "inception_3a/3x3"
  bottom: "inception_3a/5x5"
  bottom: "inception_3a/pool_proj"
  top: "inception_3a/output"
}
layer {
  name: "inception_3b/1x1"
  type: "Convolution"
  bottom: "inception_3a/output"
  top: "inception_3b/1x1"
  param {
    lr_mult: 1
    decay_mult: 1
  }
  param {
    lr_mult: 2
    decay_mult: 0
  }
  convolution_param {
    num_output: 128
    kernel_size: 1
    weight_filler {
      type: "xavier"
      std: 0.03
    }
    bias_filler {
      type: "constant"
      value: 0.2
    }
  }
}
layer {
  name: "inception_3b/relu_1x1"
  type: "ReLU"
  bottom: "inception_3b/1x1"
  top: "inception_3b/1x1"
}
layer {
  name: "inception_3b/3x3_reduce"
  type: "Convolution"
  bottom: "inception_3a/output"
  top: "inception_3b/3x3_reduce"
  param {
    lr_mult: 1
    decay_mult: 1
  }
  param {
    lr_mult: 2
    decay_mult: 0
  }
  convolution_param {
    num_output: 128
    kernel_size: 1
    weight_filler {
      type: "xavier"
      std: 0.09
    }
    bias_filler {
      type: "constant"
      value: 0.2
    }
  }
}
layer {
  name: "inception_3b/relu_3x3_reduce"
  type: "ReLU"
  bottom: "inception_3b/3x3_reduce"
  top: "inception_3b/3x3_reduce"
}
layer {
  name: "inception_3b/3x3"
  type: "Convolution"
  bottom: "inception_3b/3x3_reduce"
  top: "inception_3b/3x3"
  param {
    lr_mult: 1
    decay_mult: 1
  }
  param {
    lr_mult: 2
    decay_mult: 0
  }
  convolution_param {
    num_output: 192
    pad: 1
    kernel_size: 3
    weight_filler {
      type: "xavier"
      std: 0.03
    }
    bias_filler {
      type: "constant"
      value: 0.2
    }
  }
}
layer {
  name: "inception_3b/relu_3x3"
  type: "ReLU"
  bottom: "inception_3b/3x3"
  top: "inception_3b/3x3"
}
layer {
  name: "inception_3b/5x5_reduce"
  type: "Convolution"
  bottom: "inception_3a/output"
  top: "inception_3b/5x5_reduce"
  param {
    lr_mult: 1
    decay_mult: 1
  }
  param {
    lr_mult: 2
    decay_mult: 0
  }
  convolution_param {
    num_output: 32
    kernel_size: 1
    weight_filler {
      type: "xavier"
      std: 0.2
    }
    bias_filler {
      type: "constant"
      value: 0.2
    }
  }
}
layer {
  name: "inception_3b/relu_5x5_reduce"
  type: "ReLU"
  bottom: "inception_3b/5x5_reduce"
  top: "inception_3b/5x5_reduce"
}
layer {
  name: "inception_3b/5x5"
  type: "Convolution"
  bottom: "inception_3b/5x5_reduce"
  top: "inception_3b/5x5"
  param {
    lr_mult: 1
    decay_mult: 1
  }
  param {
    lr_mult: 2
    decay_mult: 0
  }
  convolution_param {
    num_output: 96
    pad: 2
    kernel_size: 5
    weight_filler {
      type: "xavier"
      std: 0.03
    }
    bias_filler {
      type: "constant"
      value: 0.2
    }
  }
}
layer {
  name: "inception_3b/relu_5x5"
  type: "ReLU"
  bottom: "inception_3b/5x5"
  top: "inception_3b/5x5"
}
layer {
  name: "inception_3b/pool"
  type: "Pooling"
  bottom: "inception_3a/output"
  top: "inception_3b/pool"
  pooling_param {
    pool: MAX
    kernel_size: 3
    stride: 1
    pad: 1
  }
}
layer {
  name: "inception_3b/pool_proj"
  type: "Convolution"
  bottom: "inception_3b/pool"
  top: "inception_3b/pool_proj"
  param {
    lr_mult: 1
    decay_mult: 1
  }
  param {
    lr_mult: 2
    decay_mult: 0
  }
  convolution_param {
    num_output: 64
    kernel_size: 1
    weight_filler {
      type: "xavier"
      std: 0.1
    }
    bias_filler {
      type: "constant"
      value: 0.2
    }
  }
}
layer {
  name: "inception_3b/relu_pool_proj"
  type: "ReLU"
  bottom: "inception_3b/pool_proj"
  top: "inception_3b/pool_proj"
}
layer {
  name: "inception_3b/output"
  type: "Concat"
  bottom: "inception_3b/1x1"
  bottom: "inception_3b/3x3"
  bottom: "inception_3b/5x5"
  bottom: "inception_3b/pool_proj"
  top: "inception_3b/output"
}
layer {
  name: "pool3/3x3_s2"
  type: "Pooling"
  bottom: "inception_3b/output"
  top: "pool3/3x3_s2"
  pooling_param {
    pool: MAX
    kernel_size: 3
    stride: 2
  }
}
layer {
  name: "inception_4a/1x1"
  type: "Convolution"
  bottom: "pool3/3x3_s2"
  top: "inception_4a/1x1"
  param {
    lr_mult: 1
    decay_mult: 1
  }
  param {
    lr_mult: 2
    decay_mult: 0
  }
  convolution_param {
    num_output: 192
    kernel_size: 1
    weight_filler {
      type: "xavier"
      std: 0.03
    }
    bias_filler {
      type: "constant"
      value: 0.2
    }
  }
}
layer {
  name: "inception_4a/relu_1x1"
  type: "ReLU"
  bottom: "inception_4a/1x1"
  top: "inception_4a/1x1"
}
layer {
  name: "inception_4a/3x3_reduce"
  type: "Convolution"
  bottom: "pool3/3x3_s2"
  top: "inception_4a/3x3_reduce"
  param {
    lr_mult: 1
    decay_mult: 1
  }
  param {
    lr_mult: 2
    decay_mult: 0
  }
  convolution_param {
    num_output: 96
    kernel_size: 1
    weight_filler {
      type: "xavier"
      std: 0.09
    }
    bias_filler {
      type: "constant"
      value: 0.2
    }
  }
}
layer {
  name: "inception_4a/relu_3x3_reduce"
  type: "ReLU"
  bottom: "inception_4a/3x3_reduce"
  top: "inception_4a/3x3_reduce"
}
layer {
  name: "inception_4a/3x3"
  type: "Convolution"
  bottom: "inception_4a/3x3_reduce"
  top: "inception_4a/3x3"
  param {
    lr_mult: 1
    decay_mult: 1
  }
  param {
    lr_mult: 2
    decay_mult: 0
  }
  convolution_param {
    num_output: 208
    pad: 1
    kernel_size: 3
    weight_filler {
      type: "xavier"
      std: 0.03
    }
    bias_filler {
      type: "constant"
      value: 0.2
    }
  }
}
layer {
  name: "inception_4a/relu_3x3"
  type: "ReLU"
  bottom: "inception_4a/3x3"
  top: "inception_4a/3x3"
}
layer {
  name: "inception_4a/5x5_reduce"
  type: "Convolution"
  bottom: "pool3/3x3_s2"
  top: "inception_4a/5x5_reduce"
  param {
    lr_mult: 1
    decay_mult: 1
  }
  param {
    lr_mult: 2
    decay_mult: 0
  }
  convolution_param {
    num_output: 16
    kernel_size: 1
    weight_filler {
      type: "xavier"
      std: 0.2
    }
    bias_filler {
      type: "constant"
      value: 0.2
    }
  }
}
layer {
  name: "inception_4a/relu_5x5_reduce"
  type: "ReLU"
  bottom: "inception_4a/5x5_reduce"
  top: "inception_4a/5x5_reduce"
}
layer {
  name: "inception_4a/5x5"
  type: "Convolution"
  bottom: "inception_4a/5x5_reduce"
  top: "inception_4a/5x5"
  param {
    lr_mult: 1
    decay_mult: 1
  }
  param {
    lr_mult: 2
    decay_mult: 0
  }
  convolution_param {
    num_output: 48
    pad: 2
    kernel_size: 5
    weight_filler {
      type: "xavier"
      std: 0.03
    }
    bias_filler {
      type: "constant"
      value: 0.2
    }
  }
}
layer {
  name: "inception_4a/relu_5x5"
  type: "ReLU"
  bottom: "inception_4a/5x5"
  top: "inception_4a/5x5"
}
layer {
  name: "inception_4a/pool"
  type: "Pooling"
  bottom: "pool3/3x3_s2"
  top: "inception_4a/pool"
  pooling_param {
    pool: MAX
    kernel_size: 3
    stride: 1
    pad: 1
  }
}
layer {
  name: "inception_4a/pool_proj"
  type: "Convolution"
  bottom: "inception_4a/pool"
  top: "inception_4a/pool_proj"
  param {
    lr_mult: 1
    decay_mult: 1
  }
  param {
    lr_mult: 2
    decay_mult: 0
  }
  convolution_param {
    num_output: 64
    kernel_size: 1
    weight_filler {
      type: "xavier"
      std: 0.1
    }
    bias_filler {
      type: "constant"
      value: 0.2
    }
  }
}
layer {
  name: "inception_4a/relu_pool_proj"
  type: "ReLU"
  bottom: "inception_4a/pool_proj"
  top: "inception_4a/pool_proj"
}
layer {
  name: "inception_4a/output"
  type: "Concat"
  bottom: "inception_4a/1x1"
  bottom: "inception_4a/3x3"
  bottom: "inception_4a/5x5"
  bottom: "inception_4a/pool_proj"
  top: "inception_4a/output"
}
layer {
  name: "loss1/ave_pool"
  type: "Pooling"
  bottom: "inception_4a/output"
  top: "loss1/ave_pool"
  pooling_param {
    pool: AVE
    kernel_size: 5
    stride: 3
  }
}
layer {
  name: "loss1/conv"
  type: "Convolution"
  bottom: "loss1/ave_pool"
  top: "loss1/conv"
  param {
    lr_mult: 1
    decay_mult: 1
  }
  param {
    lr_mult: 2
    decay_mult: 0
  }
  convolution_param {
    num_output: 128
    kernel_size: 1
    weight_filler {
      type: "xavier"
      std: 0.08
    }
    bias_filler {
      type: "constant"
      value: 0.2
    }
  }
}
layer {
  name: "loss1/relu_conv"
  type: "ReLU"
  bottom: "loss1/conv"
  top: "loss1/conv"
}
layer {
  name: "loss1/fc"
  type: "InnerProduct"
  bottom: "loss1/conv"
  top: "loss1/fc"
  param {
    lr_mult: 1
    decay_mult: 1
  }
  param {
    lr_mult: 2
    decay_mult: 0
  }
  inner_product_param {
    num_output: 1024
    weight_filler {
      type: "xavier"
      std: 0.02
    }
    bias_filler {
      type: "constant"
      value: 0.2
    }
  }
}
layer {
  name: "loss1/relu_fc"
  type: "ReLU"
  bottom: "loss1/fc"
  top: "loss1/fc"
}
layer {
  name: "loss1/drop_fc"
  type: "Dropout"
  bottom: "loss1/fc"
  top: "loss1/fc"
  dropout_param {
    dropout_ratio: 0.7
  }
}
layer {
  name: "loss1/classifier_plantvillage"
  type: "InnerProduct"
  bottom: "loss1/fc"
  top: "loss1/classifier_plantvillage"
  param {
    lr_mult: 1
    decay_mult: 1
  }
  param {
    lr_mult: 2
    decay_mult: 0
  }
  inner_product_param {
    num_output: 38
    weight_filler {
      type: "xavier"
      std: 0.0009765625
    }
    bias_filler {
      type: "constant"
      value: 0
    }
  }
}
layer {
  name: "inception_4b/1x1"
  type: "Convolution"
  bottom: "inception_4a/output"
  top: "inception_4b/1x1"
  param {
    lr_mult: 1
    decay_mult: 1
  }
  param {
    lr_mult: 2
    decay_mult: 0
  }
  convolution_param {
    num_output: 160
    kernel_size: 1
    weight_filler {
      type: "xavier"
      std: 0.03
    }
    bias_filler {
      type: "constant"
      value: 0.2
    }
  }
}
layer {
  name: "inception_4b/relu_1x1"
  type: "ReLU"
  bottom: "inception_4b/1x1"
  top: "inception_4b/1x1"
}
layer {
  name: "inception_4b/3x3_reduce"
  type: "Convolution"
  bottom: "inception_4a/output"
  top: "inception_4b/3x3_reduce"
  param {
    lr_mult: 1
    decay_mult: 1
  }
  param {
    lr_mult: 2
    decay_mult: 0
  }
  convolution_param {
    num_output: 112
    kernel_size: 1
    weight_filler {
      type: "xavier"
      std: 0.09
    }
    bias_filler {
      type: "constant"
      value: 0.2
    }
  }
}
layer {
  name: "inception_4b/relu_3x3_reduce"
  type: "ReLU"
  bottom: "inception_4b/3x3_reduce"
  top: "inception_4b/3x3_reduce"
}
layer {
  name: "inception_4b/3x3"
  type: "Convolution"
  bottom: "inception_4b/3x3_reduce"
  top: "inception_4b/3x3"
  param {
    lr_mult: 1
    decay_mult: 1
  }
  param {
    lr_mult: 2
    decay_mult: 0
  }
  convolution_param {
    num_output: 224
    pad: 1
    kernel_size: 3
    weight_filler {
      type: "xavier"
      std: 0.03
    }
    bias_filler {
      type: "constant"
      value: 0.2
    }
  }
}
layer {
  name: "inception_4b/relu_3x3"
  type: "ReLU"
  bottom: "inception_4b/3x3"
  top: "inception_4b/3x3"
}
layer {
  name: "inception_4b/5x5_reduce"
  type: "Convolution"
  bottom: "inception_4a/output"
  top: "inception_4b/5x5_reduce"
  param {
    lr_mult: 1
    decay_mult: 1
  }
  param {
    lr_mult: 2
    decay_mult: 0
  }
  convolution_param {
    num_output: 24
    kernel_size: 1
    weight_filler {
      type: "xavier"
      std: 0.2
    }
    bias_filler {
      type: "constant"
      value: 0.2
    }
  }
}
layer {
  name: "inception_4b/relu_5x5_reduce"
  type: "ReLU"
  bottom: "inception_4b/5x5_reduce"
  top: "inception_4b/5x5_reduce"
}
layer {
  name: "inception_4b/5x5"
  type: "Convolution"
  bottom: "inception_4b/5x5_reduce"
  top: "inception_4b/5x5"
  param {
    lr_mult: 1
    decay_mult: 1
  }
  param {
    lr_mult: 2
    decay_mult: 0
  }
  convolution_param {
    num_output: 64
    pad: 2
    kernel_size: 5
    weight_filler {
      type: "xavier"
      std: 0.03
    }
    bias_filler {
      type: "constant"
      value: 0.2
    }
  }
}
layer {
  name: "inception_4b/relu_5x5"
  type: "ReLU"
  bottom: "inception_4b/5x5"
  top: "inception_4b/5x5"
}
layer {
  name: "inception_4b/pool"
  type: "Pooling"
  bottom: "inception_4a/output"
  top: "inception_4b/pool"
  pooling_param {
    pool: MAX
    kernel_size: 3
    stride: 1
    pad: 1
  }
}
layer {
  name: "inception_4b/pool_proj"
  type: "Convolution"
  bottom: "inception_4b/pool"
  top: "inception_4b/pool_proj"
  param {
    lr_mult: 1
    decay_mult: 1
  }
  param {
    lr_mult: 2
    decay_mult: 0
  }
  convolution_param {
    num_output: 64
    kernel_size: 1
    weight_filler {
      type: "xavier"
      std: 0.1
    }
    bias_filler {
      type: "constant"
      value: 0.2
    }
  }
}
layer {
  name: "inception_4b/relu_pool_proj"
  type: "ReLU"
  bottom: "inception_4b/pool_proj"
  top: "inception_4b/pool_proj"
}
layer {
  name: "inception_4b/output"
  type: "Concat"
  bottom: "inception_4b/1x1"
  bottom: "inception_4b/3x3"
  bottom: "inception_4b/5x5"
  bottom: "inception_4b/pool_proj"
  top: "inception_4b/output"
}
layer {
  name: "inception_4c/1x1"
  type: "Convolution"
  bottom: "inception_4b/output"
  top: "inception_4c/1x1"
  param {
    lr_mult: 1
    decay_mult: 1
  }
  param {
    lr_mult: 2
    decay_mult: 0
  }
  convolution_param {
    num_output: 128
    kernel_size: 1
    weight_filler {
      type: "xavier"
      std: 0.03
    }
    bias_filler {
      type: "constant"
      value: 0.2
    }
  }
}
layer {
  name: "inception_4c/relu_1x1"
  type: "ReLU"
  bottom: "inception_4c/1x1"
  top: "inception_4c/1x1"
}
layer {
  name: "inception_4c/3x3_reduce"
  type: "Convolution"
  bottom: "inception_4b/output"
  top: "inception_4c/3x3_reduce"
  param {
    lr_mult: 1
    decay_mult: 1
  }
  param {
    lr_mult: 2
    decay_mult: 0
  }
  convolution_param {
    num_output: 128
    kernel_size: 1
    weight_filler {
      type: "xavier"
      std: 0.09
    }
    bias_filler {
      type: "constant"
      value: 0.2
    }
  }
}
layer {
  name: "inception_4c/relu_3x3_reduce"
  type: "ReLU"
  bottom: "inception_4c/3x3_reduce"
  top: "inception_4c/3x3_reduce"
}
layer {
  name: "inception_4c/3x3"
  type: "Convolution"
  bottom: "inception_4c/3x3_reduce"
  top: "inception_4c/3x3"
  param {
    lr_mult: 1
    decay_mult: 1
  }
  param {
    lr_mult: 2
    decay_mult: 0
  }
  convolution_param {
    num_output: 256
    pad: 1
    kernel_size: 3
    weight_filler {
      type: "xavier"
      std: 0.03
    }
    bias_filler {
      type: "constant"
      value: 0.2
    }
  }
}
layer {
  name: "inception_4c/relu_3x3"
  type: "ReLU"
  bottom: "inception_4c/3x3"
  top: "inception_4c/3x3"
}
layer {
  name: "inception_4c/5x5_reduce"
  type: "Convolution"
  bottom: "inception_4b/output"
  top: "inception_4c/5x5_reduce"
  param {
    lr_mult: 1
    decay_mult: 1
  }
  param {
    lr_mult: 2
    decay_mult: 0
  }
  convolution_param {
    num_output: 24
    kernel_size: 1
    weight_filler {
      type: "xavier"
      std: 0.2
    }
    bias_filler {
      type: "constant"
      value: 0.2
    }
  }
}
layer {
  name: "inception_4c/relu_5x5_reduce"
  type: "ReLU"
  bottom: "inception_4c/5x5_reduce"
  top: "inception_4c/5x5_reduce"
}
layer {
  name: "inception_4c/5x5"
  type: "Convolution"
  bottom: "inception_4c/5x5_reduce"
  top: "inception_4c/5x5"
  param {
    lr_mult: 1
    decay_mult: 1
  }
  param {
    lr_mult: 2
    decay_mult: 0
  }
  convolution_param {
    num_output: 64
    pad: 2
    kernel_size: 5
    weight_filler {
      type: "xavier"
      std: 0.03
    }
    bias_filler {
      type: "constant"
      value: 0.2
    }
  }
}
layer {
  name: "inception_4c/relu_5x5"
  type: "ReLU"
  bottom: "inception_4c/5x5"
  top: "inception_4c/5x5"
}
layer {
  name: "inception_4c/pool"
  type: "Pooling"
  bottom: "inception_4b/output"
  top: "inception_4c/pool"
  pooling_param {
    pool: MAX
    kernel_size: 3
    stride: 1
    pad: 1
  }
}
layer {
  name: "inception_4c/pool_proj"
  type: "Convolution"
  bottom: "inception_4c/pool"
  top: "inception_4c/pool_proj"
  param {
    lr_mult: 1
    decay_mult: 1
  }
  param {
    lr_mult: 2
    decay_mult: 0
  }
  convolution_param {
    num_output: 64
    kernel_size: 1
    weight_filler {
      type: "xavier"
      std: 0.1
    }
    bias_filler {
      type: "constant"
      value: 0.2
    }
  }
}
layer {
  name: "inception_4c/relu_pool_proj"
  type: "ReLU"
  bottom: "inception_4c/pool_proj"
  top: "inception_4c/pool_proj"
}
layer {
  name: "inception_4c/output"
  type: "Concat"
  bottom: "inception_4c/1x1"
  bottom: "inception_4c/3x3"
  bottom: "inception_4c/5x5"
  bottom: "inception_4c/pool_proj"
  top: "inception_4c/output"
}
layer {
  name: "inception_4d/1x1"
  type: "Convolution"
  bottom: "inception_4c/output"
  top: "inception_4d/1x1"
  param {
    lr_mult: 1
    decay_mult: 1
  }
  param {
    lr_mult: 2
    decay_mult: 0
  }
  convolution_param {
    num_output: 112
    kernel_size: 1
    weight_filler {
      type: "xavier"
      std: 0.03
    }
    bias_filler {
      type: "constant"
      value: 0.2
    }
  }
}
layer {
  name: "inception_4d/relu_1x1"
  type: "ReLU"
  bottom: "inception_4d/1x1"
  top: "inception_4d/1x1"
}
layer {
  name: "inception_4d/3x3_reduce"
  type: "Convolution"
  bottom: "inception_4c/output"
  top: "inception_4d/3x3_reduce"
  param {
    lr_mult: 1
    decay_mult: 1
  }
  param {
    lr_mult: 2
    decay_mult: 0
  }
  convolution_param {
    num_output: 144
    kernel_size: 1
    weight_filler {
      type: "xavier"
      std: 0.09
    }
    bias_filler {
      type: "constant"
      value: 0.2
    }
  }
}
layer {
  name: "inception_4d/relu_3x3_reduce"
  type: "ReLU"
  bottom: "inception_4d/3x3_reduce"
  top: "inception_4d/3x3_reduce"
}
layer {
  name: "inception_4d/3x3"
  type: "Convolution"
  bottom: "inception_4d/3x3_reduce"
  top: "inception_4d/3x3"
  param {
    lr_mult: 1
    decay_mult: 1
  }
  param {
    lr_mult: 2
    decay_mult: 0
  }
  convolution_param {
    num_output: 288
    pad: 1
    kernel_size: 3
    weight_filler {
      type: "xavier"
      std: 0.03
    }
    bias_filler {
      type: "constant"
      value: 0.2
    }
  }
}
layer {
  name: "inception_4d/relu_3x3"
  type: "ReLU"
  bottom: "inception_4d/3x3"
  top: "inception_4d/3x3"
}
layer {
  name: "inception_4d/5x5_reduce"
  type: "Convolution"
  bottom: "inception_4c/output"
  top: "inception_4d/5x5_reduce"
  param {
    lr_mult: 1
    decay_mult: 1
  }
  param {
    lr_mult: 2
    decay_mult: 0
  }
  convolution_param {
    num_output: 32
    kernel_size: 1
    weight_filler {
      type: "xavier"
      std: 0.2
    }
    bias_filler {
      type: "constant"
      value: 0.2
    }
  }
}
layer {
  name: "inception_4d/relu_5x5_reduce"
  type: "ReLU"
  bottom: "inception_4d/5x5_reduce"
  top: "inception_4d/5x5_reduce"
}
layer {
  name: "inception_4d/5x5"
  type: "Convolution"
  bottom: "inception_4d/5x5_reduce"
  top: "inception_4d/5x5"
  param {
    lr_mult: 1
    decay_mult: 1
  }
  param {
    lr_mult: 2
    decay_mult: 0
  }
  convolution_param {
    num_output: 64
    pad: 2
    kernel_size: 5
    weight_filler {
      type: "xavier"
      std: 0.03
    }
    bias_filler {
      type: "constant"
      value: 0.2
    }
  }
}
layer {
  name: "inception_4d/relu_5x5"
  type: "ReLU"
  bottom: "inception_4d/5x5"
  top: "inception_4d/5x5"
}
layer {
  name: "inception_4d/pool"
  type: "Pooling"
  bottom: "inception_4c/output"
  top: "inception_4d/pool"
  pooling_param {
    pool: MAX
    kernel_size: 3
    stride: 1
    pad: 1
  }
}
layer {
  name: "inception_4d/pool_proj"
  type: "Convolution"
  bottom: "inception_4d/pool"
  top: "inception_4d/pool_proj"
  param {
    lr_mult: 1
    decay_mult: 1
  }
  param {
    lr_mult: 2
    decay_mult: 0
  }
  convolution_param {
    num_output: 64
    kernel_size: 1
    weight_filler {
      type: "xavier"
      std: 0.1
    }
    bias_filler {
      type: "constant"
      value: 0.2
    }
  }
}
layer {
  name: "inception_4d/relu_pool_proj"
  type: "ReLU"
  bottom: "inception_4d/pool_proj"
  top: "inception_4d/pool_proj"
}
layer {
  name: "inception_4d/output"
  type: "Concat"
  bottom: "inception_4d/1x1"
  bottom: "inception_4d/3x3"
  bottom: "inception_4d/5x5"
  bottom: "inception_4d/pool_proj"
  top: "inception_4d/output"
}
layer {
  name: "loss2/ave_pool"
  type: "Pooling"
  bottom: "inception_4d/output"
  top: "loss2/ave_pool"
  pooling_param {
    pool: AVE
    kernel_size: 5
    stride: 3
  }
}
layer {
  name: "loss2/conv"
  type: "Convolution"
  bottom: "loss2/ave_pool"
  top: "loss2/conv"
  param {
    lr_mult: 1
    decay_mult: 1
  }
  param {
    lr_mult: 2
    decay_mult: 0
  }
  convolution_param {
    num_output: 128
    kernel_size: 1
    weight_filler {
      type: "xavier"
      std: 0.08
    }
    bias_filler {
      type: "constant"
      value: 0.2
    }
  }
}
layer {
  name: "loss2/relu_conv"
  type: "ReLU"
  bottom: "loss2/conv"
  top: "loss2/conv"
}
layer {
  name: "loss2/fc"
  type: "InnerProduct"
  bottom: "loss2/conv"
  top: "loss2/fc"
  param {
    lr_mult: 1
    decay_mult: 1
  }
  param {
    lr_mult: 2
    decay_mult: 0
  }
  inner_product_param {
    num_output: 1024
    weight_filler {
      type: "xavier"
      std: 0.02
    }
    bias_filler {
      type: "constant"
      value: 0.2
    }
  }
}
layer {
  name: "loss2/relu_fc"
  type: "ReLU"
  bottom: "loss2/fc"
  top: "loss2/fc"
}
layer {
  name: "loss2/drop_fc"
  type: "Dropout"
  bottom: "loss2/fc"
  top: "loss2/fc"
  dropout_param {
    dropout_ratio: 0.7
  }
}
layer {
  name: "loss2/classifier_plantvillage"
  type: "InnerProduct"
  bottom: "loss2/fc"
  top: "loss2/classifier_plantvillage"
  param {
    lr_mult: 1
    decay_mult: 1
  }
  param {
    lr_mult: 2
    decay_mult: 0
  }
  inner_product_param {
    num_output: 38
    weight_filler {
      type: "xavier"
      std: 0.0009765625
    }
    bias_filler {
      type: "constant"
      value: 0
    }
  }
}
layer {
  name: "inception_4e/1x1"
  type: "Convolution"
  bottom: "inception_4d/output"
  top: "inception_4e/1x1"
  param {
    lr_mult: 1
    decay_mult: 1
  }
  param {
    lr_mult: 2
    decay_mult: 0
  }
  convolution_param {
    num_output: 256
    kernel_size: 1
    weight_filler {
      type: "xavier"
      std: 0.03
    }
    bias_filler {
      type: "constant"
      value: 0.2
    }
  }
}
layer {
  name: "inception_4e/relu_1x1"
  type: "ReLU"
  bottom: "inception_4e/1x1"
  top: "inception_4e/1x1"
}
layer {
  name: "inception_4e/3x3_reduce"
  type: "Convolution"
  bottom: "inception_4d/output"
  top: "inception_4e/3x3_reduce"
  param {
    lr_mult: 1
    decay_mult: 1
  }
  param {
    lr_mult: 2
    decay_mult: 0
  }
  convolution_param {
    num_output: 160
    kernel_size: 1
    weight_filler {
      type: "xavier"
      std: 0.09
    }
    bias_filler {
      type: "constant"
      value: 0.2
    }
  }
}
layer {
  name: "inception_4e/relu_3x3_reduce"
  type: "ReLU"
  bottom: "inception_4e/3x3_reduce"
  top: "inception_4e/3x3_reduce"
}
layer {
  name: "inception_4e/3x3"
  type: "Convolution"
  bottom: "inception_4e/3x3_reduce"
  top: "inception_4e/3x3"
  param {
    lr_mult: 1
    decay_mult: 1
  }
  param {
    lr_mult: 2
    decay_mult: 0
  }
  convolution_param {
    num_output: 320
    pad: 1
    kernel_size: 3
    weight_filler {
      type: "xavier"
      std: 0.03
    }
    bias_filler {
      type: "constant"
      value: 0.2
    }
  }
}
layer {
  name: "inception_4e/relu_3x3"
  type: "ReLU"
  bottom: "inception_4e/3x3"
  top: "inception_4e/3x3"
}
layer {
  name: "inception_4e/5x5_reduce"
  type: "Convolution"
  bottom: "inception_4d/output"
  top: "inception_4e/5x5_reduce"
  param {
    lr_mult: 1
    decay_mult: 1
  }
  param {
    lr_mult: 2
    decay_mult: 0
  }
  convolution_param {
    num_output: 32
    kernel_size: 1
    weight_filler {
      type: "xavier"
      std: 0.2
    }
    bias_filler {
      type: "constant"
      value: 0.2
    }
  }
}
layer {
  name: "inception_4e/relu_5x5_reduce"
  type: "ReLU"
  bottom: "inception_4e/5x5_reduce"
  top: "inception_4e/5x5_reduce"
}
layer {
  name: "inception_4e/5x5"
  type: "Convolution"
  bottom: "inception_4e/5x5_reduce"
  top: "inception_4e/5x5"
  p
I0403 15:08:57.086827 14153 layer_factory.hpp:77] Creating layer data
I0403 15:08:57.087416 14153 net.cpp:91] Creating Layer data
I0403 15:08:57.087446 14153 net.cpp:399] data -> data
I0403 15:08:57.087496 14153 net.cpp:399] data -> label
I0403 15:08:57.087539 14153 data_transformer.cpp:25] Loading mean file from: /home/mohanty/data/final_dataset/lmdb/color-50-50/mean.binaryproto
I0403 15:08:57.093341 14158 db_lmdb.cpp:38] Opened lmdb /home/mohanty/data/final_dataset/lmdb/color-50-50/test_db
I0403 15:08:57.100853 14153 data_layer.cpp:41] output data size: 24,3,224,224
I0403 15:08:57.127547 14153 net.cpp:141] Setting up data
I0403 15:08:57.127634 14153 net.cpp:148] Top shape: 24 3 224 224 (3612672)
I0403 15:08:57.127658 14153 net.cpp:148] Top shape: 24 (24)
I0403 15:08:57.127674 14153 net.cpp:156] Memory required for data: 14450784
I0403 15:08:57.127703 14153 layer_factory.hpp:77] Creating layer label_data_1_split
I0403 15:08:57.127730 14153 net.cpp:91] Creating Layer label_data_1_split
I0403 15:08:57.127749 14153 net.cpp:425] label_data_1_split <- label
I0403 15:08:57.127784 14153 net.cpp:399] label_data_1_split -> label_data_1_split_0
I0403 15:08:57.127812 14153 net.cpp:399] label_data_1_split -> label_data_1_split_1
I0403 15:08:57.127835 14153 net.cpp:399] label_data_1_split -> label_data_1_split_2
I0403 15:08:57.127857 14153 net.cpp:399] label_data_1_split -> label_data_1_split_3
I0403 15:08:57.127877 14153 net.cpp:399] label_data_1_split -> label_data_1_split_4
I0403 15:08:57.127899 14153 net.cpp:399] label_data_1_split -> label_data_1_split_5
I0403 15:08:57.127919 14153 net.cpp:399] label_data_1_split -> label_data_1_split_6
I0403 15:08:57.127943 14153 net.cpp:399] label_data_1_split -> label_data_1_split_7
I0403 15:08:57.127964 14153 net.cpp:399] label_data_1_split -> label_data_1_split_8
I0403 15:08:57.127985 14153 net.cpp:399] label_data_1_split -> label_data_1_split_9
I0403 15:08:57.128103 14153 net.cpp:141] Setting up label_data_1_split
I0403 15:08:57.128126 14153 net.cpp:148] Top shape: 24 (24)
I0403 15:08:57.128144 14153 net.cpp:148] Top shape: 24 (24)
I0403 15:08:57.128161 14153 net.cpp:148] Top shape: 24 (24)
I0403 15:08:57.128177 14153 net.cpp:148] Top shape: 24 (24)
I0403 15:08:57.128193 14153 net.cpp:148] Top shape: 24 (24)
I0403 15:08:57.128209 14153 net.cpp:148] Top shape: 24 (24)
I0403 15:08:57.128226 14153 net.cpp:148] Top shape: 24 (24)
I0403 15:08:57.128242 14153 net.cpp:148] Top shape: 24 (24)
I0403 15:08:57.128258 14153 net.cpp:148] Top shape: 24 (24)
I0403 15:08:57.128275 14153 net.cpp:148] Top shape: 24 (24)
I0403 15:08:57.128320 14153 net.cpp:156] Memory required for data: 14451744
I0403 15:08:57.128337 14153 layer_factory.hpp:77] Creating layer conv1/7x7_s2
I0403 15:08:57.128370 14153 net.cpp:91] Creating Layer conv1/7x7_s2
I0403 15:08:57.128388 14153 net.cpp:425] conv1/7x7_s2 <- data
I0403 15:08:57.128408 14153 net.cpp:399] conv1/7x7_s2 -> conv1/7x7_s2
I0403 15:08:57.266331 14153 net.cpp:141] Setting up conv1/7x7_s2
I0403 15:08:57.266408 14153 net.cpp:148] Top shape: 24 64 112 112 (19267584)
I0403 15:08:57.266427 14153 net.cpp:156] Memory required for data: 91522080
I0403 15:08:57.266459 14153 layer_factory.hpp:77] Creating layer conv1/relu_7x7
I0403 15:08:57.266487 14153 net.cpp:91] Creating Layer conv1/relu_7x7
I0403 15:08:57.266511 14153 net.cpp:425] conv1/relu_7x7 <- conv1/7x7_s2
I0403 15:08:57.266533 14153 net.cpp:386] conv1/relu_7x7 -> conv1/7x7_s2 (in-place)
I0403 15:08:57.266793 14153 net.cpp:141] Setting up conv1/relu_7x7
I0403 15:08:57.266819 14153 net.cpp:148] Top shape: 24 64 112 112 (19267584)
I0403 15:08:57.266834 14153 net.cpp:156] Memory required for data: 168592416
I0403 15:08:57.266849 14153 layer_factory.hpp:77] Creating layer pool1/3x3_s2
I0403 15:08:57.266875 14153 net.cpp:91] Creating Layer pool1/3x3_s2
I0403 15:08:57.266893 14153 net.cpp:425] pool1/3x3_s2 <- conv1/7x7_s2
I0403 15:08:57.266911 14153 net.cpp:399] pool1/3x3_s2 -> pool1/3x3_s2
I0403 15:08:57.266984 14153 net.cpp:141] Setting up pool1/3x3_s2
I0403 15:08:57.267009 14153 net.cpp:148] Top shape: 24 64 56 56 (4816896)
I0403 15:08:57.267024 14153 net.cpp:156] Memory required for data: 187860000
I0403 15:08:57.267037 14153 layer_factory.hpp:77] Creating layer pool1/norm1
I0403 15:08:57.267061 14153 net.cpp:91] Creating Layer pool1/norm1
I0403 15:08:57.267079 14153 net.cpp:425] pool1/norm1 <- pool1/3x3_s2
I0403 15:08:57.267096 14153 net.cpp:399] pool1/norm1 -> pool1/norm1
I0403 15:08:57.267379 14153 net.cpp:141] Setting up pool1/norm1
I0403 15:08:57.267410 14153 net.cpp:148] Top shape: 24 64 56 56 (4816896)
I0403 15:08:57.267426 14153 net.cpp:156] Memory required for data: 207127584
I0403 15:08:57.267441 14153 layer_factory.hpp:77] Creating layer conv2/3x3_reduce
I0403 15:08:57.267465 14153 net.cpp:91] Creating Layer conv2/3x3_reduce
I0403 15:08:57.267482 14153 net.cpp:425] conv2/3x3_reduce <- pool1/norm1
I0403 15:08:57.267500 14153 net.cpp:399] conv2/3x3_reduce -> conv2/3x3_reduce
I0403 15:08:57.268863 14153 net.cpp:141] Setting up conv2/3x3_reduce
I0403 15:08:57.268896 14153 net.cpp:148] Top shape: 24 64 56 56 (4816896)
I0403 15:08:57.268914 14153 net.cpp:156] Memory required for data: 226395168
I0403 15:08:57.268936 14153 layer_factory.hpp:77] Creating layer conv2/relu_3x3_reduce
I0403 15:08:57.268955 14153 net.cpp:91] Creating Layer conv2/relu_3x3_reduce
I0403 15:08:57.268975 14153 net.cpp:425] conv2/relu_3x3_reduce <- conv2/3x3_reduce
I0403 15:08:57.268995 14153 net.cpp:386] conv2/relu_3x3_reduce -> conv2/3x3_reduce (in-place)
I0403 15:08:57.269271 14153 net.cpp:141] Setting up conv2/relu_3x3_reduce
I0403 15:08:57.269299 14153 net.cpp:148] Top shape: 24 64 56 56 (4816896)
I0403 15:08:57.269316 14153 net.cpp:156] Memory required for data: 245662752
I0403 15:08:57.269331 14153 layer_factory.hpp:77] Creating layer conv2/3x3
I0403 15:08:57.269354 14153 net.cpp:91] Creating Layer conv2/3x3
I0403 15:08:57.269372 14153 net.cpp:425] conv2/3x3 <- conv2/3x3_reduce
I0403 15:08:57.269392 14153 net.cpp:399] conv2/3x3 -> conv2/3x3
I0403 15:08:57.271687 14153 net.cpp:141] Setting up conv2/3x3
I0403 15:08:57.271720 14153 net.cpp:148] Top shape: 24 192 56 56 (14450688)
I0403 15:08:57.271739 14153 net.cpp:156] Memory required for data: 303465504
I0403 15:08:57.271761 14153 layer_factory.hpp:77] Creating layer conv2/relu_3x3
I0403 15:08:57.271782 14153 net.cpp:91] Creating Layer conv2/relu_3x3
I0403 15:08:57.271798 14153 net.cpp:425] conv2/relu_3x3 <- conv2/3x3
I0403 15:08:57.271818 14153 net.cpp:386] conv2/relu_3x3 -> conv2/3x3 (in-place)
I0403 15:08:57.271996 14153 net.cpp:141] Setting up conv2/relu_3x3
I0403 15:08:57.272020 14153 net.cpp:148] Top shape: 24 192 56 56 (14450688)
I0403 15:08:57.272068 14153 net.cpp:156] Memory required for data: 361268256
I0403 15:08:57.272083 14153 layer_factory.hpp:77] Creating layer conv2/norm2
I0403 15:08:57.272104 14153 net.cpp:91] Creating Layer conv2/norm2
I0403 15:08:57.272120 14153 net.cpp:425] conv2/norm2 <- conv2/3x3
I0403 15:08:57.272137 14153 net.cpp:399] conv2/norm2 -> conv2/norm2
I0403 15:08:57.272451 14153 net.cpp:141] Setting up conv2/norm2
I0403 15:08:57.272480 14153 net.cpp:148] Top shape: 24 192 56 56 (14450688)
I0403 15:08:57.272497 14153 net.cpp:156] Memory required for data: 419071008
I0403 15:08:57.272519 14153 layer_factory.hpp:77] Creating layer pool2/3x3_s2
I0403 15:08:57.272541 14153 net.cpp:91] Creating Layer pool2/3x3_s2
I0403 15:08:57.272558 14153 net.cpp:425] pool2/3x3_s2 <- conv2/norm2
I0403 15:08:57.272577 14153 net.cpp:399] pool2/3x3_s2 -> pool2/3x3_s2
I0403 15:08:57.272634 14153 net.cpp:141] Setting up pool2/3x3_s2
I0403 15:08:57.272657 14153 net.cpp:148] Top shape: 24 192 28 28 (3612672)
I0403 15:08:57.272672 14153 net.cpp:156] Memory required for data: 433521696
I0403 15:08:57.272686 14153 layer_factory.hpp:77] Creating layer pool2/3x3_s2_pool2/3x3_s2_0_split
I0403 15:08:57.272707 14153 net.cpp:91] Creating Layer pool2/3x3_s2_pool2/3x3_s2_0_split
I0403 15:08:57.272723 14153 net.cpp:425] pool2/3x3_s2_pool2/3x3_s2_0_split <- pool2/3x3_s2
I0403 15:08:57.272742 14153 net.cpp:399] pool2/3x3_s2_pool2/3x3_s2_0_split -> pool2/3x3_s2_pool2/3x3_s2_0_split_0
I0403 15:08:57.272760 14153 net.cpp:399] pool2/3x3_s2_pool2/3x3_s2_0_split -> pool2/3x3_s2_pool2/3x3_s2_0_split_1
I0403 15:08:57.272780 14153 net.cpp:399] pool2/3x3_s2_pool2/3x3_s2_0_split -> pool2/3x3_s2_pool2/3x3_s2_0_split_2
I0403 15:08:57.272800 14153 net.cpp:399] pool2/3x3_s2_pool2/3x3_s2_0_split -> pool2/3x3_s2_pool2/3x3_s2_0_split_3
I0403 15:08:57.272871 14153 net.cpp:141] Setting up pool2/3x3_s2_pool2/3x3_s2_0_split
I0403 15:08:57.272893 14153 net.cpp:148] Top shape: 24 192 28 28 (3612672)
I0403 15:08:57.272909 14153 net.cpp:148] Top shape: 24 192 28 28 (3612672)
I0403 15:08:57.272925 14153 net.cpp:148] Top shape: 24 192 28 28 (3612672)
I0403 15:08:57.272941 14153 net.cpp:148] Top shape: 24 192 28 28 (3612672)
I0403 15:08:57.272955 14153 net.cpp:156] Memory required for data: 491324448
I0403 15:08:57.272970 14153 layer_factory.hpp:77] Creating layer inception_3a/1x1
I0403 15:08:57.272992 14153 net.cpp:91] Creating Layer inception_3a/1x1
I0403 15:08:57.273010 14153 net.cpp:425] inception_3a/1x1 <- pool2/3x3_s2_pool2/3x3_s2_0_split_0
I0403 15:08:57.273030 14153 net.cpp:399] inception_3a/1x1 -> inception_3a/1x1
I0403 15:08:57.274576 14153 net.cpp:141] Setting up inception_3a/1x1
I0403 15:08:57.274608 14153 net.cpp:148] Top shape: 24 64 28 28 (1204224)
I0403 15:08:57.274626 14153 net.cpp:156] Memory required for data: 496141344
I0403 15:08:57.274644 14153 layer_factory.hpp:77] Creating layer inception_3a/relu_1x1
I0403 15:08:57.274663 14153 net.cpp:91] Creating Layer inception_3a/relu_1x1
I0403 15:08:57.274679 14153 net.cpp:425] inception_3a/relu_1x1 <- inception_3a/1x1
I0403 15:08:57.274696 14153 net.cpp:386] inception_3a/relu_1x1 -> inception_3a/1x1 (in-place)
I0403 15:08:57.274870 14153 net.cpp:141] Setting up inception_3a/relu_1x1
I0403 15:08:57.274895 14153 net.cpp:148] Top shape: 24 64 28 28 (1204224)
I0403 15:08:57.274910 14153 net.cpp:156] Memory required for data: 500958240
I0403 15:08:57.274925 14153 layer_factory.hpp:77] Creating layer inception_3a/3x3_reduce
I0403 15:08:57.274948 14153 net.cpp:91] Creating Layer inception_3a/3x3_reduce
I0403 15:08:57.274966 14153 net.cpp:425] inception_3a/3x3_reduce <- pool2/3x3_s2_pool2/3x3_s2_0_split_1
I0403 15:08:57.274986 14153 net.cpp:399] inception_3a/3x3_reduce -> inception_3a/3x3_reduce
I0403 15:08:57.276705 14153 net.cpp:141] Setting up inception_3a/3x3_reduce
I0403 15:08:57.276738 14153 net.cpp:148] Top shape: 24 96 28 28 (1806336)
I0403 15:08:57.276757 14153 net.cpp:156] Memory required for data: 508183584
I0403 15:08:57.276779 14153 layer_factory.hpp:77] Creating layer inception_3a/relu_3x3_reduce
I0403 15:08:57.276819 14153 net.cpp:91] Creating Layer inception_3a/relu_3x3_reduce
I0403 15:08:57.276840 14153 net.cpp:425] inception_3a/relu_3x3_reduce <- inception_3a/3x3_reduce
I0403 15:08:57.276859 14153 net.cpp:386] inception_3a/relu_3x3_reduce -> inception_3a/3x3_reduce (in-place)
I0403 15:08:57.277041 14153 net.cpp:141] Setting up inception_3a/relu_3x3_reduce
I0403 15:08:57.277065 14153 net.cpp:148] Top shape: 24 96 28 28 (1806336)
I0403 15:08:57.277081 14153 net.cpp:156] Memory required for data: 515408928
I0403 15:08:57.277096 14153 layer_factory.hpp:77] Creating layer inception_3a/3x3
I0403 15:08:57.277119 14153 net.cpp:91] Creating Layer inception_3a/3x3
I0403 15:08:57.277137 14153 net.cpp:425] inception_3a/3x3 <- inception_3a/3x3_reduce
I0403 15:08:57.277156 14153 net.cpp:399] inception_3a/3x3 -> inception_3a/3x3
I0403 15:08:57.278797 14153 net.cpp:141] Setting up inception_3a/3x3
I0403 15:08:57.278827 14153 net.cpp:148] Top shape: 24 128 28 28 (2408448)
I0403 15:08:57.278844 14153 net.cpp:156] Memory required for data: 525042720
I0403 15:08:57.278862 14153 layer_factory.hpp:77] Creating layer inception_3a/relu_3x3
I0403 15:08:57.278880 14153 net.cpp:91] Creating Layer inception_3a/relu_3x3
I0403 15:08:57.278898 14153 net.cpp:425] inception_3a/relu_3x3 <- inception_3a/3x3
I0403 15:08:57.278918 14153 net.cpp:386] inception_3a/relu_3x3 -> inception_3a/3x3 (in-place)
I0403 15:08:57.279191 14153 net.cpp:141] Setting up inception_3a/relu_3x3
I0403 15:08:57.279217 14153 net.cpp:148] Top shape: 24 128 28 28 (2408448)
I0403 15:08:57.279232 14153 net.cpp:156] Memory required for data: 534676512
I0403 15:08:57.279261 14153 layer_factory.hpp:77] Creating layer inception_3a/5x5_reduce
I0403 15:08:57.279284 14153 net.cpp:91] Creating Layer inception_3a/5x5_reduce
I0403 15:08:57.279302 14153 net.cpp:425] inception_3a/5x5_reduce <- pool2/3x3_s2_pool2/3x3_s2_0_split_2
I0403 15:08:57.279323 14153 net.cpp:399] inception_3a/5x5_reduce -> inception_3a/5x5_reduce
I0403 15:08:57.280299 14153 net.cpp:141] Setting up inception_3a/5x5_reduce
I0403 15:08:57.280326 14153 net.cpp:148] Top shape: 24 16 28 28 (301056)
I0403 15:08:57.280342 14153 net.cpp:156] Memory required for data: 535880736
I0403 15:08:57.280360 14153 layer_factory.hpp:77] Creating layer inception_3a/relu_5x5_reduce
I0403 15:08:57.280380 14153 net.cpp:91] Creating Layer inception_3a/relu_5x5_reduce
I0403 15:08:57.280396 14153 net.cpp:425] inception_3a/relu_5x5_reduce <- inception_3a/5x5_reduce
I0403 15:08:57.280416 14153 net.cpp:386] inception_3a/relu_5x5_reduce -> inception_3a/5x5_reduce (in-place)
I0403 15:08:57.280712 14153 net.cpp:141] Setting up inception_3a/relu_5x5_reduce
I0403 15:08:57.280740 14153 net.cpp:148] Top shape: 24 16 28 28 (301056)
I0403 15:08:57.280755 14153 net.cpp:156] Memory required for data: 537084960
I0403 15:08:57.280769 14153 layer_factory.hpp:77] Creating layer inception_3a/5x5
I0403 15:08:57.280792 14153 net.cpp:91] Creating Layer inception_3a/5x5
I0403 15:08:57.280810 14153 net.cpp:425] inception_3a/5x5 <- inception_3a/5x5_reduce
I0403 15:08:57.280833 14153 net.cpp:399] inception_3a/5x5 -> inception_3a/5x5
I0403 15:08:57.281842 14153 net.cpp:141] Setting up inception_3a/5x5
I0403 15:08:57.281874 14153 net.cpp:148] Top shape: 24 32 28 28 (602112)
I0403 15:08:57.281890 14153 net.cpp:156] Memory required for data: 539493408
I0403 15:08:57.281909 14153 layer_factory.hpp:77] Creating layer inception_3a/relu_5x5
I0403 15:08:57.281929 14153 net.cpp:91] Creating Layer inception_3a/relu_5x5
I0403 15:08:57.281946 14153 net.cpp:425] inception_3a/relu_5x5 <- inception_3a/5x5
I0403 15:08:57.281968 14153 net.cpp:386] inception_3a/relu_5x5 -> inception_3a/5x5 (in-place)
I0403 15:08:57.282145 14153 net.cpp:141] Setting up inception_3a/relu_5x5
I0403 15:08:57.282171 14153 net.cpp:148] Top shape: 24 32 28 28 (602112)
I0403 15:08:57.282186 14153 net.cpp:156] Memory required for data: 541901856
I0403 15:08:57.282202 14153 layer_factory.hpp:77] Creating layer inception_3a/pool
I0403 15:08:57.282222 14153 net.cpp:91] Creating Layer inception_3a/pool
I0403 15:08:57.282240 14153 net.cpp:425] inception_3a/pool <- pool2/3x3_s2_pool2/3x3_s2_0_split_3
I0403 15:08:57.282276 14153 net.cpp:399] inception_3a/pool -> inception_3a/pool
I0403 15:08:57.282336 14153 net.cpp:141] Setting up inception_3a/pool
I0403 15:08:57.282361 14153 net.cpp:148] Top shape: 24 192 28 28 (3612672)
I0403 15:08:57.282374 14153 net.cpp:156] Memory required for data: 556352544
I0403 15:08:57.282388 14153 layer_factory.hpp:77] Creating layer inception_3a/pool_proj
I0403 15:08:57.282410 14153 net.cpp:91] Creating Layer inception_3a/pool_proj
I0403 15:08:57.282428 14153 net.cpp:425] inception_3a/pool_proj <- inception_3a/pool
I0403 15:08:57.282450 14153 net.cpp:399] inception_3a/pool_proj -> inception_3a/pool_proj
I0403 15:08:57.283403 14153 net.cpp:141] Setting up inception_3a/pool_proj
I0403 15:08:57.283432 14153 net.cpp:148] Top shape: 24 32 28 28 (602112)
I0403 15:08:57.283447 14153 net.cpp:156] Memory required for data: 558760992
I0403 15:08:57.283470 14153 layer_factory.hpp:77] Creating layer inception_3a/relu_pool_proj
I0403 15:08:57.283491 14153 net.cpp:91] Creating Layer inception_3a/relu_pool_proj
I0403 15:08:57.283511 14153 net.cpp:425] inception_3a/relu_pool_proj <- inception_3a/pool_proj
I0403 15:08:57.283545 14153 net.cpp:386] inception_3a/relu_pool_proj -> inception_3a/pool_proj (in-place)
I0403 15:08:57.283825 14153 net.cpp:141] Setting up inception_3a/relu_pool_proj
I0403 15:08:57.283852 14153 net.cpp:148] Top shape: 24 32 28 28 (602112)
I0403 15:08:57.283869 14153 net.cpp:156] Memory required for data: 561169440
I0403 15:08:57.283884 14153 layer_factory.hpp:77] Creating layer inception_3a/output
I0403 15:08:57.283901 14153 net.cpp:91] Creating Layer inception_3a/output
I0403 15:08:57.283917 14153 net.cpp:425] inception_3a/output <- inception_3a/1x1
I0403 15:08:57.283933 14153 net.cpp:425] inception_3a/output <- inception_3a/3x3
I0403 15:08:57.283951 14153 net.cpp:425] inception_3a/output <- inception_3a/5x5
I0403 15:08:57.283967 14153 net.cpp:425] inception_3a/output <- inception_3a/pool_proj
I0403 15:08:57.283987 14153 net.cpp:399] inception_3a/output -> inception_3a/output
I0403 15:08:57.284032 14153 net.cpp:141] Setting up inception_3a/output
I0403 15:08:57.284060 14153 net.cpp:148] Top shape: 24 256 28 28 (4816896)
I0403 15:08:57.284075 14153 net.cpp:156] Memory required for data: 580437024
I0403 15:08:57.284090 14153 layer_factory.hpp:77] Creating layer inception_3a/output_inception_3a/output_0_split
I0403 15:08:57.284107 14153 net.cpp:91] Creating Layer inception_3a/output_inception_3a/output_0_split
I0403 15:08:57.284124 14153 net.cpp:425] inception_3a/output_inception_3a/output_0_split <- inception_3a/output
I0403 15:08:57.284142 14153 net.cpp:399] inception_3a/output_inception_3a/output_0_split -> inception_3a/output_inception_3a/output_0_split_0
I0403 15:08:57.284162 14153 net.cpp:399] inception_3a/output_inception_3a/output_0_split -> inception_3a/output_inception_3a/output_0_split_1
I0403 15:08:57.284188 14153 net.cpp:399] inception_3a/output_inception_3a/output_0_split -> inception_3a/output_inception_3a/output_0_split_2
I0403 15:08:57.284211 14153 net.cpp:399] inception_3a/output_inception_3a/output_0_split -> inception_3a/output_inception_3a/output_0_split_3
I0403 15:08:57.284289 14153 net.cpp:141] Setting up inception_3a/output_inception_3a/output_0_split
I0403 15:08:57.284323 14153 net.cpp:148] Top shape: 24 256 28 28 (4816896)
I0403 15:08:57.284343 14153 net.cpp:148] Top shape: 24 256 28 28 (4816896)
I0403 15:08:57.284358 14153 net.cpp:148] Top shape: 24 256 28 28 (4816896)
I0403 15:08:57.284374 14153 net.cpp:148] Top shape: 24 256 28 28 (4816896)
I0403 15:08:57.284389 14153 net.cpp:156] Memory required for data: 657507360
I0403 15:08:57.284404 14153 layer_factory.hpp:77] Creating layer inception_3b/1x1
I0403 15:08:57.284427 14153 net.cpp:91] Creating Layer inception_3b/1x1
I0403 15:08:57.284446 14153 net.cpp:425] inception_3b/1x1 <- inception_3a/output_inception_3a/output_0_split_0
I0403 15:08:57.284464 14153 net.cpp:399] inception_3b/1x1 -> inception_3b/1x1
I0403 15:08:57.285645 14153 net.cpp:141] Setting up inception_3b/1x1
I0403 15:08:57.285687 14153 net.cpp:148] Top shape: 24 128 28 28 (2408448)
I0403 15:08:57.285706 14153 net.cpp:156] Memory required for data: 667141152
I0403 15:08:57.285727 14153 layer_factory.hpp:77] Creating layer inception_3b/relu_1x1
I0403 15:08:57.285748 14153 net.cpp:91] Creating Layer inception_3b/relu_1x1
I0403 15:08:57.285765 14153 net.cpp:425] inception_3b/relu_1x1 <- inception_3b/1x1
I0403 15:08:57.285783 14153 net.cpp:386] inception_3b/relu_1x1 -> inception_3b/1x1 (in-place)
I0403 15:08:57.285966 14153 net.cpp:141] Setting up inception_3b/relu_1x1
I0403 15:08:57.285991 14153 net.cpp:148] Top shape: 24 128 28 28 (2408448)
I0403 15:08:57.286006 14153 net.cpp:156] Memory required for data: 676774944
I0403 15:08:57.286022 14153 layer_factory.hpp:77] Creating layer inception_3b/3x3_reduce
I0403 15:08:57.286046 14153 net.cpp:91] Creating Layer inception_3b/3x3_reduce
I0403 15:08:57.286063 14153 net.cpp:425] inception_3b/3x3_reduce <- inception_3a/output_inception_3a/output_0_split_1
I0403 15:08:57.286084 14153 net.cpp:399] inception_3b/3x3_reduce -> inception_3b/3x3_reduce
I0403 15:08:57.287240 14153 net.cpp:141] Setting up inception_3b/3x3_reduce
I0403 15:08:57.287276 14153 net.cpp:148] Top shape: 24 128 28 28 (2408448)
I0403 15:08:57.287293 14153 net.cpp:156] Memory required for data: 686408736
I0403 15:08:57.287313 14153 layer_factory.hpp:77] Creating layer inception_3b/relu_3x3_reduce
I0403 15:08:57.287333 14153 net.cpp:91] Creating Layer inception_3b/relu_3x3_reduce
I0403 15:08:57.287350 14153 net.cpp:425] inception_3b/relu_3x3_reduce <- inception_3b/3x3_reduce
I0403 15:08:57.287369 14153 net.cpp:386] inception_3b/relu_3x3_reduce -> inception_3b/3x3_reduce (in-place)
I0403 15:08:57.287550 14153 net.cpp:141] Setting up inception_3b/relu_3x3_reduce
I0403 15:08:57.287578 14153 net.cpp:148] Top shape: 24 128 28 28 (2408448)
I0403 15:08:57.287595 14153 net.cpp:156] Memory required for data: 696042528
I0403 15:08:57.287611 14153 layer_factory.hpp:77] Creating layer inception_3b/3x3
I0403 15:08:57.287636 14153 net.cpp:91] Creating Layer inception_3b/3x3
I0403 15:08:57.287657 14153 net.cpp:425] inception_3b/3x3 <- inception_3b/3x3_reduce
I0403 15:08:57.287678 14153 net.cpp:399] inception_3b/3x3 -> inception_3b/3x3
I0403 15:08:57.290663 14153 net.cpp:141] Setting up inception_3b/3x3
I0403 15:08:57.290693 14153 net.cpp:148] Top shape: 24 192 28 28 (3612672)
I0403 15:08:57.290709 14153 net.cpp:156] Memory required for data: 710493216
I0403 15:08:57.290729 14153 layer_factory.hpp:77] Creating layer inception_3b/relu_3x3
I0403 15:08:57.290747 14153 net.cpp:91] Creating Layer inception_3b/relu_3x3
I0403 15:08:57.290765 14153 net.cpp:425] inception_3b/relu_3x3 <- inception_3b/3x3
I0403 15:08:57.290786 14153 net.cpp:386] inception_3b/relu_3x3 -> inception_3b/3x3 (in-place)
I0403 15:08:57.291070 14153 net.cpp:141] Setting up inception_3b/relu_3x3
I0403 15:08:57.291097 14153 net.cpp:148] Top shape: 24 192 28 28 (3612672)
I0403 15:08:57.291113 14153 net.cpp:156] Memory required for data: 724943904
I0403 15:08:57.291128 14153 layer_factory.hpp:77] Creating layer inception_3b/5x5_reduce
I0403 15:08:57.291152 14153 net.cpp:91] Creating Layer inception_3b/5x5_reduce
I0403 15:08:57.291169 14153 net.cpp:425] inception_3b/5x5_reduce <- inception_3a/output_inception_3a/output_0_split_2
I0403 15:08:57.291193 14153 net.cpp:399] inception_3b/5x5_reduce -> inception_3b/5x5_reduce
I0403 15:08:57.292208 14153 net.cpp:141] Setting up inception_3b/5x5_reduce
I0403 15:08:57.292238 14153 net.cpp:148] Top shape: 24 32 28 28 (602112)
I0403 15:08:57.292255 14153 net.cpp:156] Memory required for data: 727352352
I0403 15:08:57.292276 14153 layer_factory.hpp:77] Creating layer inception_3b/relu_5x5_reduce
I0403 15:08:57.292294 14153 net.cpp:91] Creating Layer inception_3b/relu_5x5_reduce
I0403 15:08:57.292311 14153 net.cpp:425] inception_3b/relu_5x5_reduce <- inception_3b/5x5_reduce
I0403 15:08:57.292331 14153 net.cpp:386] inception_3b/relu_5x5_reduce -> inception_3b/5x5_reduce (in-place)
I0403 15:08:57.292515 14153 net.cpp:141] Setting up inception_3b/relu_5x5_reduce
I0403 15:08:57.292553 14153 net.cpp:148] Top shape: 24 32 28 28 (602112)
I0403 15:08:57.292569 14153 net.cpp:156] Memory required for data: 729760800
I0403 15:08:57.292584 14153 layer_factory.hpp:77] Creating layer inception_3b/5x5
I0403 15:08:57.292608 14153 net.cpp:91] Creating Layer inception_3b/5x5
I0403 15:08:57.292626 14153 net.cpp:425] inception_3b/5x5 <- inception_3b/5x5_reduce
I0403 15:08:57.292649 14153 net.cpp:399] inception_3b/5x5 -> inception_3b/5x5
I0403 15:08:57.294667 14153 net.cpp:141] Setting up inception_3b/5x5
I0403 15:08:57.294700 14153 net.cpp:148] Top shape: 24 96 28 28 (1806336)
I0403 15:08:57.294719 14153 net.cpp:156] Memory required for data: 736986144
I0403 15:08:57.294739 14153 layer_factory.hpp:77] Creating layer inception_3b/relu_5x5
I0403 15:08:57.294759 14153 net.cpp:91] Creating Layer inception_3b/relu_5x5
I0403 15:08:57.294775 14153 net.cpp:425] inception_3b/relu_5x5 <- inception_3b/5x5
I0403 15:08:57.294793 14153 net.cpp:386] inception_3b/relu_5x5 -> inception_3b/5x5 (in-place)
I0403 15:08:57.294986 14153 net.cpp:141] Setting up inception_3b/relu_5x5
I0403 15:08:57.295013 14153 net.cpp:148] Top shape: 24 96 28 28 (1806336)
I0403 15:08:57.295028 14153 net.cpp:156] Memory required for data: 744211488
I0403 15:08:57.295043 14153 layer_factory.hpp:77] Creating layer inception_3b/pool
I0403 15:08:57.295061 14153 net.cpp:91] Creating Layer inception_3b/pool
I0403 15:08:57.295078 14153 net.cpp:425] inception_3b/pool <- inception_3a/output_inception_3a/output_0_split_3
I0403 15:08:57.295097 14153 net.cpp:399] inception_3b/pool -> inception_3b/pool
I0403 15:08:57.295155 14153 net.cpp:141] Setting up inception_3b/pool
I0403 15:08:57.295181 14153 net.cpp:148] Top shape: 24 256 28 28 (4816896)
I0403 15:08:57.295197 14153 net.cpp:156] Memory required for data: 763479072
I0403 15:08:57.295212 14153 layer_factory.hpp:77] Creating layer inception_3b/pool_proj
I0403 15:08:57.295234 14153 net.cpp:91] Creating Layer inception_3b/pool_proj
I0403 15:08:57.295253 14153 net.cpp:425] inception_3b/pool_proj <- inception_3b/pool
I0403 15:08:57.295272 14153 net.cpp:399] inception_3b/pool_proj -> inception_3b/pool_proj
I0403 15:08:57.296349 14153 net.cpp:141] Setting up inception_3b/pool_proj
I0403 15:08:57.296380 14153 net.cpp:148] Top shape: 24 64 28 28 (1204224)
I0403 15:08:57.296396 14153 net.cpp:156] Memory required for data: 768295968
I0403 15:08:57.296414 14153 layer_factory.hpp:77] Creating layer inception_3b/relu_pool_proj
I0403 15:08:57.296437 14153 net.cpp:91] Creating Layer inception_3b/relu_pool_proj
I0403 15:08:57.296455 14153 net.cpp:425] inception_3b/relu_pool_proj <- inception_3b/pool_proj
I0403 15:08:57.296476 14153 net.cpp:386] inception_3b/relu_pool_proj -> inception_3b/pool_proj (in-place)
I0403 15:08:57.296887 14153 net.cpp:141] Setting up inception_3b/relu_pool_proj
I0403 15:08:57.296916 14153 net.cpp:148] Top shape: 24 64 28 28 (1204224)
I0403 15:08:57.296931 14153 net.cpp:156] Memory required for data: 773112864
I0403 15:08:57.296947 14153 layer_factory.hpp:77] Creating layer inception_3b/output
I0403 15:08:57.296965 14153 net.cpp:91] Creating Layer inception_3b/output
I0403 15:08:57.296983 14153 net.cpp:425] inception_3b/output <- inception_3b/1x1
I0403 15:08:57.297000 14153 net.cpp:425] inception_3b/output <- inception_3b/3x3
I0403 15:08:57.297019 14153 net.cpp:425] inception_3b/output <- inception_3b/5x5
I0403 15:08:57.297035 14153 net.cpp:425] inception_3b/output <- inception_3b/pool_proj
I0403 15:08:57.297055 14153 net.cpp:399] inception_3b/output -> inception_3b/output
I0403 15:08:57.297102 14153 net.cpp:141] Setting up inception_3b/output
I0403 15:08:57.297130 14153 net.cpp:148] Top shape: 24 480 28 28 (9031680)
I0403 15:08:57.297145 14153 net.cpp:156] Memory required for data: 809239584
I0403 15:08:57.297160 14153 layer_factory.hpp:77] Creating layer pool3/3x3_s2
I0403 15:08:57.297178 14153 net.cpp:91] Creating Layer pool3/3x3_s2
I0403 15:08:57.297194 14153 net.cpp:425] pool3/3x3_s2 <- inception_3b/output
I0403 15:08:57.297214 14153 net.cpp:399] pool3/3x3_s2 -> pool3/3x3_s2
I0403 15:08:57.297302 14153 net.cpp:141] Setting up pool3/3x3_s2
I0403 15:08:57.297335 14153 net.cpp:148] Top shape: 24 480 14 14 (2257920)
I0403 15:08:57.297350 14153 net.cpp:156] Memory required for data: 818271264
I0403 15:08:57.297365 14153 layer_factory.hpp:77] Creating layer pool3/3x3_s2_pool3/3x3_s2_0_split
I0403 15:08:57.297385 14153 net.cpp:91] Creating Layer pool3/3x3_s2_pool3/3x3_s2_0_split
I0403 15:08:57.297404 14153 net.cpp:425] pool3/3x3_s2_pool3/3x3_s2_0_split <- pool3/3x3_s2
I0403 15:08:57.297421 14153 net.cpp:399] pool3/3x3_s2_pool3/3x3_s2_0_split -> pool3/3x3_s2_pool3/3x3_s2_0_split_0
I0403 15:08:57.297442 14153 net.cpp:399] pool3/3x3_s2_pool3/3x3_s2_0_split -> pool3/3x3_s2_pool3/3x3_s2_0_split_1
I0403 15:08:57.297466 14153 net.cpp:399] pool3/3x3_s2_pool3/3x3_s2_0_split -> pool3/3x3_s2_pool3/3x3_s2_0_split_2
I0403 15:08:57.297488 14153 net.cpp:399] pool3/3x3_s2_pool3/3x3_s2_0_split -> pool3/3x3_s2_pool3/3x3_s2_0_split_3
I0403 15:08:57.297583 14153 net.cpp:141] Setting up pool3/3x3_s2_pool3/3x3_s2_0_split
I0403 15:08:57.297616 14153 net.cpp:148] Top shape: 24 480 14 14 (2257920)
I0403 15:08:57.297633 14153 net.cpp:148] Top shape: 24 480 14 14 (2257920)
I0403 15:08:57.297651 14153 net.cpp:148] Top shape: 24 480 14 14 (2257920)
I0403 15:08:57.297667 14153 net.cpp:148] Top shape: 24 480 14 14 (2257920)
I0403 15:08:57.297680 14153 net.cpp:156] Memory required for data: 854397984
I0403 15:08:57.297694 14153 layer_factory.hpp:77] Creating layer inception_4a/1x1
I0403 15:08:57.297718 14153 net.cpp:91] Creating Layer inception_4a/1x1
I0403 15:08:57.297735 14153 net.cpp:425] inception_4a/1x1 <- pool3/3x3_s2_pool3/3x3_s2_0_split_0
I0403 15:08:57.297758 14153 net.cpp:399] inception_4a/1x1 -> inception_4a/1x1
I0403 15:08:57.299360 14153 net.cpp:141] Setting up inception_4a/1x1
I0403 15:08:57.299388 14153 net.cpp:148] Top shape: 24 192 14 14 (903168)
I0403 15:08:57.299407 14153 net.cpp:156] Memory required for data: 858010656
I0403 15:08:57.299425 14153 layer_factory.hpp:77] Creating layer inception_4a/relu_1x1
I0403 15:08:57.299448 14153 net.cpp:91] Creating Layer inception_4a/relu_1x1
I0403 15:08:57.299466 14153 net.cpp:425] inception_4a/relu_1x1 <- inception_4a/1x1
I0403 15:08:57.299484 14153 net.cpp:386] inception_4a/relu_1x1 -> inception_4a/1x1 (in-place)
I0403 15:08:57.299670 14153 net.cpp:141] Setting up inception_4a/relu_1x1
I0403 15:08:57.299698 14153 net.cpp:148] Top shape: 24 192 14 14 (903168)
I0403 15:08:57.299715 14153 net.cpp:156] Memory required for data: 861623328
I0403 15:08:57.299731 14153 layer_factory.hpp:77] Creating layer inception_4a/3x3_reduce
I0403 15:08:57.299753 14153 net.cpp:91] Creating Layer inception_4a/3x3_reduce
I0403 15:08:57.299772 14153 net.cpp:425] inception_4a/3x3_reduce <- pool3/3x3_s2_pool3/3x3_s2_0_split_1
I0403 15:08:57.299793 14153 net.cpp:399] inception_4a/3x3_reduce -> inception_4a/3x3_reduce
I0403 15:08:57.301100 14153 net.cpp:141] Setting up inception_4a/3x3_reduce
I0403 15:08:57.301128 14153 net.cpp:148] Top shape: 24 96 14 14 (451584)
I0403 15:08:57.301146 14153 net.cpp:156] Memory required for data: 863429664
I0403 15:08:57.301175 14153 layer_factory.hpp:77] Creating layer inception_4a/relu_3x3_reduce
I0403 15:08:57.301200 14153 net.cpp:91] Creating Layer inception_4a/relu_3x3_reduce
I0403 15:08:57.301219 14153 net.cpp:425] inception_4a/relu_3x3_reduce <- inception_4a/3x3_reduce
I0403 15:08:57.301239 14153 net.cpp:386] inception_4a/relu_3x3_reduce -> inception_4a/3x3_reduce (in-place)
I0403 15:08:57.301417 14153 net.cpp:141] Setting up inception_4a/relu_3x3_reduce
I0403 15:08:57.301445 14153 net.cpp:148] Top shape: 24 96 14 14 (451584)
I0403 15:08:57.301461 14153 net.cpp:156] Memory required for data: 865236000
I0403 15:08:57.301476 14153 layer_factory.hpp:77] Creating layer inception_4a/3x3
I0403 15:08:57.301502 14153 net.cpp:91] Creating Layer inception_4a/3x3
I0403 15:08:57.301525 14153 net.cpp:425] inception_4a/3x3 <- inception_4a/3x3_reduce
I0403 15:08:57.301545 14153 net.cpp:399] inception_4a/3x3 -> inception_4a/3x3
I0403 15:08:57.304298 14153 net.cpp:141] Setting up inception_4a/3x3
I0403 15:08:57.304332 14153 net.cpp:148] Top shape: 24 208 14 14 (978432)
I0403 15:08:57.304352 14153 net.cpp:156] Memory required for data: 869149728
I0403 15:08:57.304371 14153 layer_factory.hpp:77] Creating layer inception_4a/relu_3x3
I0403 15:08:57.304391 14153 net.cpp:91] Creating Layer inception_4a/relu_3x3
I0403 15:08:57.304407 14153 net.cpp:425] inception_4a/relu_3x3 <- inception_4a/3x3
I0403 15:08:57.304426 14153 net.cpp:386] inception_4a/relu_3x3 -> inception_4a/3x3 (in-place)
I0403 15:08:57.304729 14153 net.cpp:141] Setting up inception_4a/relu_3x3
I0403 15:08:57.304761 14153 net.cpp:148] Top shape: 24 208 14 14 (978432)
I0403 15:08:57.304780 14153 net.cpp:156] Memory required for data: 873063456
I0403 15:08:57.304795 14153 layer_factory.hpp:77] Creating layer inception_4a/5x5_reduce
I0403 15:08:57.304818 14153 net.cpp:91] Creating Layer inception_4a/5x5_reduce
I0403 15:08:57.304837 14153 net.cpp:425] inception_4a/5x5_reduce <- pool3/3x3_s2_pool3/3x3_s2_0_split_2
I0403 15:08:57.304857 14153 net.cpp:399] inception_4a/5x5_reduce -> inception_4a/5x5_reduce
I0403 15:08:57.305907 14153 net.cpp:141] Setting up inception_4a/5x5_reduce
I0403 15:08:57.305939 14153 net.cpp:148] Top shape: 24 16 14 14 (75264)
I0403 15:08:57.305956 14153 net.cpp:156] Memory required for data: 873364512
I0403 15:08:57.305975 14153 layer_factory.hpp:77] Creating layer inception_4a/relu_5x5_reduce
I0403 15:08:57.305994 14153 net.cpp:91] Creating Layer inception_4a/relu_5x5_reduce
I0403 15:08:57.306011 14153 net.cpp:425] inception_4a/relu_5x5_reduce <- inception_4a/5x5_reduce
I0403 15:08:57.306031 14153 net.cpp:386] inception_4a/relu_5x5_reduce -> inception_4a/5x5_reduce (in-place)
I0403 15:08:57.306215 14153 net.cpp:141] Setting up inception_4a/relu_5x5_reduce
I0403 15:08:57.306239 14153 net.cpp:148] Top shape: 24 16 14 14 (75264)
I0403 15:08:57.306255 14153 net.cpp:156] Memory required for data: 873665568
I0403 15:08:57.306272 14153 layer_factory.hpp:77] Creating layer inception_4a/5x5
I0403 15:08:57.306294 14153 net.cpp:91] Creating Layer inception_4a/5x5
I0403 15:08:57.306313 14153 net.cpp:425] inception_4a/5x5 <- inception_4a/5x5_reduce
I0403 15:08:57.306334 14153 net.cpp:399] inception_4a/5x5 -> inception_4a/5x5
I0403 15:08:57.307454 14153 net.cpp:141] Setting up inception_4a/5x5
I0403 15:08:57.307484 14153 net.cpp:148] Top shape: 24 48 14 14 (225792)
I0403 15:08:57.307502 14153 net.cpp:156] Memory required for data: 874568736
I0403 15:08:57.307528 14153 layer_factory.hpp:77] Creating layer inception_4a/relu_5x5
I0403 15:08:57.307550 14153 net.cpp:91] Creating Layer inception_4a/relu_5x5
I0403 15:08:57.307569 14153 net.cpp:425] inception_4a/relu_5x5 <- inception_4a/5x5
I0403 15:08:57.307588 14153 net.cpp:386] inception_4a/relu_5x5 -> inception_4a/5x5 (in-place)
I0403 15:08:57.307772 14153 net.cpp:141] Setting up inception_4a/relu_5x5
I0403 15:08:57.307801 14153 net.cpp:148] Top shape: 24 48 14 14 (225792)
I0403 15:08:57.307819 14153 net.cpp:156] Memory required for data: 875471904
I0403 15:08:57.307835 14153 layer_factory.hpp:77] Creating layer inception_4a/pool
I0403 15:08:57.307855 14153 net.cpp:91] Creating Layer inception_4a/pool
I0403 15:08:57.307871 14153 net.cpp:425] inception_4a/pool <- pool3/3x3_s2_pool3/3x3_s2_0_split_3
I0403 15:08:57.307891 14153 net.cpp:399] inception_4a/pool -> inception_4a/pool
I0403 15:08:57.307960 14153 net.cpp:141] Setting up inception_4a/pool
I0403 15:08:57.307986 14153 net.cpp:148] Top shape: 24 480 14 14 (2257920)
I0403 15:08:57.308001 14153 net.cpp:156] Memory required for data: 884503584
I0403 15:08:57.308015 14153 layer_factory.hpp:77] Creating layer inception_4a/pool_proj
I0403 15:08:57.308037 14153 net.cpp:91] Creating Layer inception_4a/pool_proj
I0403 15:08:57.308055 14153 net.cpp:425] inception_4a/pool_proj <- inception_4a/pool
I0403 15:08:57.308078 14153 net.cpp:399] inception_4a/pool_proj -> inception_4a/pool_proj
I0403 15:08:57.309278 14153 net.cpp:141] Setting up inception_4a/pool_proj
I0403 15:08:57.309308 14153 net.cpp:148] Top shape: 24 64 14 14 (301056)
I0403 15:08:57.309341 14153 net.cpp:156] Memory required for data: 885707808
I0403 15:08:57.309361 14153 layer_factory.hpp:77] Creating layer inception_4a/relu_pool_proj
I0403 15:08:57.309384 14153 net.cpp:91] Creating Layer inception_4a/relu_pool_proj
I0403 15:08:57.309402 14153 net.cpp:425] inception_4a/relu_pool_proj <- inception_4a/pool_proj
I0403 15:08:57.309420 14153 net.cpp:386] inception_4a/relu_pool_proj -> inception_4a/pool_proj (in-place)
I0403 15:08:57.309711 14153 net.cpp:141] Setting up inception_4a/relu_pool_proj
I0403 15:08:57.309739 14153 net.cpp:148] Top shape: 24 64 14 14 (301056)
I0403 15:08:57.309756 14153 net.cpp:156] Memory required for data: 886912032
I0403 15:08:57.309770 14153 layer_factory.hpp:77] Creating layer inception_4a/output
I0403 15:08:57.309788 14153 net.cpp:91] Creating Layer inception_4a/output
I0403 15:08:57.309804 14153 net.cpp:425] inception_4a/output <- inception_4a/1x1
I0403 15:08:57.309825 14153 net.cpp:425] inception_4a/output <- inception_4a/3x3
I0403 15:08:57.309842 14153 net.cpp:425] inception_4a/output <- inception_4a/5x5
I0403 15:08:57.309859 14153 net.cpp:425] inception_4a/output <- inception_4a/pool_proj
I0403 15:08:57.309876 14153 net.cpp:399] inception_4a/output -> inception_4a/output
I0403 15:08:57.309924 14153 net.cpp:141] Setting up inception_4a/output
I0403 15:08:57.309947 14153 net.cpp:148] Top shape: 24 512 14 14 (2408448)
I0403 15:08:57.309963 14153 net.cpp:156] Memory required for data: 896545824
I0403 15:08:57.309978 14153 layer_factory.hpp:77] Creating layer inception_4a/output_inception_4a/output_0_split
I0403 15:08:57.309996 14153 net.cpp:91] Creating Layer inception_4a/output_inception_4a/output_0_split
I0403 15:08:57.310012 14153 net.cpp:425] inception_4a/output_inception_4a/output_0_split <- inception_4a/output
I0403 15:08:57.310034 14153 net.cpp:399] inception_4a/output_inception_4a/output_0_split -> inception_4a/output_inception_4a/output_0_split_0
I0403 15:08:57.310055 14153 net.cpp:399] inception_4a/output_inception_4a/output_0_split -> inception_4a/output_inception_4a/output_0_split_1
I0403 15:08:57.310077 14153 net.cpp:399] inception_4a/output_inception_4a/output_0_split -> inception_4a/output_inception_4a/output_0_split_2
I0403 15:08:57.310099 14153 net.cpp:399] inception_4a/output_inception_4a/output_0_split -> inception_4a/output_inception_4a/output_0_split_3
I0403 15:08:57.310120 14153 net.cpp:399] inception_4a/output_inception_4a/output_0_split -> inception_4a/output_inception_4a/output_0_split_4
I0403 15:08:57.310217 14153 net.cpp:141] Setting up inception_4a/output_inception_4a/output_0_split
I0403 15:08:57.310241 14153 net.cpp:148] Top shape: 24 512 14 14 (2408448)
I0403 15:08:57.310258 14153 net.cpp:148] Top shape: 24 512 14 14 (2408448)
I0403 15:08:57.310274 14153 net.cpp:148] Top shape: 24 512 14 14 (2408448)
I0403 15:08:57.310292 14153 net.cpp:148] Top shape: 24 512 14 14 (2408448)
I0403 15:08:57.310307 14153 net.cpp:148] Top shape: 24 512 14 14 (2408448)
I0403 15:08:57.310322 14153 net.cpp:156] Memory required for data: 944714784
I0403 15:08:57.310336 14153 layer_factory.hpp:77] Creating layer loss1/ave_pool
I0403 15:08:57.310354 14153 net.cpp:91] Creating Layer loss1/ave_pool
I0403 15:08:57.310370 14153 net.cpp:425] loss1/ave_pool <- inception_4a/output_inception_4a/output_0_split_0
I0403 15:08:57.310391 14153 net.cpp:399] loss1/ave_pool -> loss1/ave_pool
I0403 15:08:57.310607 14153 net.cpp:141] Setting up loss1/ave_pool
I0403 15:08:57.310634 14153 net.cpp:148] Top shape: 24 512 4 4 (196608)
I0403 15:08:57.310649 14153 net.cpp:156] Memory required for data: 945501216
I0403 15:08:57.310664 14153 layer_factory.hpp:77] Creating layer loss1/conv
I0403 15:08:57.310686 14153 net.cpp:91] Creating Layer loss1/conv
I0403 15:08:57.310705 14153 net.cpp:425] loss1/conv <- loss1/ave_pool
I0403 15:08:57.310727 14153 net.cpp:399] loss1/conv -> loss1/conv
I0403 15:08:57.312173 14153 net.cpp:141] Setting up loss1/conv
I0403 15:08:57.312206 14153 net.cpp:148] Top shape: 24 128 4 4 (49152)
I0403 15:08:57.312224 14153 net.cpp:156] Memory required for data: 945697824
I0403 15:08:57.312260 14153 layer_factory.hpp:77] Creating layer loss1/relu_conv
I0403 15:08:57.312283 14153 net.cpp:91] Creating Layer loss1/relu_conv
I0403 15:08:57.312300 14153 net.cpp:425] loss1/relu_conv <- loss1/conv
I0403 15:08:57.312319 14153 net.cpp:386] loss1/relu_conv -> loss1/conv (in-place)
I0403 15:08:57.312613 14153 net.cpp:141] Setting up loss1/relu_conv
I0403 15:08:57.312644 14153 net.cpp:148] Top shape: 24 128 4 4 (49152)
I0403 15:08:57.312661 14153 net.cpp:156] Memory required for data: 945894432
I0403 15:08:57.312679 14153 layer_factory.hpp:77] Creating layer loss1/fc
I0403 15:08:57.312703 14153 net.cpp:91] Creating Layer loss1/fc
I0403 15:08:57.312722 14153 net.cpp:425] loss1/fc <- loss1/conv
I0403 15:08:57.312744 14153 net.cpp:399] loss1/fc -> loss1/fc
I0403 15:08:57.331234 14153 net.cpp:141] Setting up loss1/fc
I0403 15:08:57.331284 14153 net.cpp:148] Top shape: 24 1024 (24576)
I0403 15:08:57.331300 14153 net.cpp:156] Memory required for data: 945992736
I0403 15:08:57.331320 14153 layer_factory.hpp:77] Creating layer loss1/relu_fc
I0403 15:08:57.331338 14153 net.cpp:91] Creating Layer loss1/relu_fc
I0403 15:08:57.331356 14153 net.cpp:425] loss1/relu_fc <- loss1/fc
I0403 15:08:57.331373 14153 net.cpp:386] loss1/relu_fc -> loss1/fc (in-place)
I0403 15:08:57.331579 14153 net.cpp:141] Setting up loss1/relu_fc
I0403 15:08:57.331606 14153 net.cpp:148] Top shape: 24 1024 (24576)
I0403 15:08:57.331624 14153 net.cpp:156] Memory required for data: 946091040
I0403 15:08:57.331639 14153 layer_factory.hpp:77] Creating layer loss1/drop_fc
I0403 15:08:57.331666 14153 net.cpp:91] Creating Layer loss1/drop_fc
I0403 15:08:57.331684 14153 net.cpp:425] loss1/drop_fc <- loss1/fc
I0403 15:08:57.331701 14153 net.cpp:386] loss1/drop_fc -> loss1/fc (in-place)
I0403 15:08:57.331755 14153 net.cpp:141] Setting up loss1/drop_fc
I0403 15:08:57.331779 14153 net.cpp:148] Top shape: 24 1024 (24576)
I0403 15:08:57.331794 14153 net.cpp:156] Memory required for data: 946189344
I0403 15:08:57.331809 14153 layer_factory.hpp:77] Creating layer loss1/classifier_plantvillage
I0403 15:08:57.331830 14153 net.cpp:91] Creating Layer loss1/classifier_plantvillage
I0403 15:08:57.331847 14153 net.cpp:425] loss1/classifier_plantvillage <- loss1/fc
I0403 15:08:57.331866 14153 net.cpp:399] loss1/classifier_plantvillage -> loss1/classifier_plantvillage
I0403 15:08:57.332788 14153 net.cpp:141] Setting up loss1/classifier_plantvillage
I0403 15:08:57.332818 14153 net.cpp:148] Top shape: 24 38 (912)
I0403 15:08:57.332835 14153 net.cpp:156] Memory required for data: 946192992
I0403 15:08:57.332854 14153 layer_factory.hpp:77] Creating layer loss1/classifier_plantvillage_loss1/classifier_plantvillage_0_split
I0403 15:08:57.332875 14153 net.cpp:91] Creating Layer loss1/classifier_plantvillage_loss1/classifier_plantvillage_0_split
I0403 15:08:57.332890 14153 net.cpp:425] loss1/classifier_plantvillage_loss1/classifier_plantvillage_0_split <- loss1/classifier_plantvillage
I0403 15:08:57.332907 14153 net.cpp:399] loss1/classifier_plantvillage_loss1/classifier_plantvillage_0_split -> loss1/classifier_plantvillage_loss1/classifier_plantvillage_0_split_0
I0403 15:08:57.332929 14153 net.cpp:399] loss1/classifier_plantvillage_loss1/classifier_plantvillage_0_split -> loss1/classifier_plantvillage_loss1/classifier_plantvillage_0_split_1
I0403 15:08:57.332949 14153 net.cpp:399] loss1/classifier_plantvillage_loss1/classifier_plantvillage_0_split -> loss1/classifier_plantvillage_loss1/classifier_plantvillage_0_split_2
I0403 15:08:57.333015 14153 net.cpp:141] Setting up loss1/classifier_plantvillage_loss1/classifier_plantvillage_0_split
I0403 15:08:57.333039 14153 net.cpp:148] Top shape: 24 38 (912)
I0403 15:08:57.333055 14153 net.cpp:148] Top shape: 24 38 (912)
I0403 15:08:57.333071 14153 net.cpp:148] Top shape: 24 38 (912)
I0403 15:08:57.333086 14153 net.cpp:156] Memory required for data: 946203936
I0403 15:08:57.333099 14153 layer_factory.hpp:77] Creating layer inception_4b/1x1
I0403 15:08:57.333120 14153 net.cpp:91] Creating Layer inception_4b/1x1
I0403 15:08:57.333160 14153 net.cpp:425] inception_4b/1x1 <- inception_4a/output_inception_4a/output_0_split_1
I0403 15:08:57.333184 14153 net.cpp:399] inception_4b/1x1 -> inception_4b/1x1
I0403 15:08:57.334918 14153 net.cpp:141] Setting up inception_4b/1x1
I0403 15:08:57.334950 14153 net.cpp:148] Top shape: 24 160 14 14 (752640)
I0403 15:08:57.334970 14153 net.cpp:156] Memory required for data: 949214496
I0403 15:08:57.334990 14153 layer_factory.hpp:77] Creating layer inception_4b/relu_1x1
I0403 15:08:57.335016 14153 net.cpp:91] Creating Layer inception_4b/relu_1x1
I0403 15:08:57.335034 14153 net.cpp:425] inception_4b/relu_1x1 <- inception_4b/1x1
I0403 15:08:57.335055 14153 net.cpp:386] inception_4b/relu_1x1 -> inception_4b/1x1 (in-place)
I0403 15:08:57.335242 14153 net.cpp:141] Setting up inception_4b/relu_1x1
I0403 15:08:57.335270 14153 net.cpp:148] Top shape: 24 160 14 14 (752640)
I0403 15:08:57.335299 14153 net.cpp:156] Memory required for data: 952225056
I0403 15:08:57.335319 14153 layer_factory.hpp:77] Creating layer inception_4b/3x3_reduce
I0403 15:08:57.335341 14153 net.cpp:91] Creating Layer inception_4b/3x3_reduce
I0403 15:08:57.335360 14153 net.cpp:425] inception_4b/3x3_reduce <- inception_4a/output_inception_4a/output_0_split_2
I0403 15:08:57.335381 14153 net.cpp:399] inception_4b/3x3_reduce -> inception_4b/3x3_reduce
I0403 15:08:57.336808 14153 net.cpp:141] Setting up inception_4b/3x3_reduce
I0403 15:08:57.336839 14153 net.cpp:148] Top shape: 24 112 14 14 (526848)
I0403 15:08:57.336856 14153 net.cpp:156] Memory required for data: 954332448
I0403 15:08:57.336875 14153 layer_factory.hpp:77] Creating layer inception_4b/relu_3x3_reduce
I0403 15:08:57.336899 14153 net.cpp:91] Creating Layer inception_4b/relu_3x3_reduce
I0403 15:08:57.336917 14153 net.cpp:425] inception_4b/relu_3x3_reduce <- inception_4b/3x3_reduce
I0403 15:08:57.336936 14153 net.cpp:386] inception_4b/relu_3x3_reduce -> inception_4b/3x3_reduce (in-place)
I0403 15:08:57.337239 14153 net.cpp:141] Setting up inception_4b/relu_3x3_reduce
I0403 15:08:57.337268 14153 net.cpp:148] Top shape: 24 112 14 14 (526848)
I0403 15:08:57.337285 14153 net.cpp:156] Memory required for data: 956439840
I0403 15:08:57.337301 14153 layer_factory.hpp:77] Creating layer inception_4b/3x3
I0403 15:08:57.337323 14153 net.cpp:91] Creating Layer inception_4b/3x3
I0403 15:08:57.337342 14153 net.cpp:425] inception_4b/3x3 <- inception_4b/3x3_reduce
I0403 15:08:57.337368 14153 net.cpp:399] inception_4b/3x3 -> inception_4b/3x3
I0403 15:08:57.340355 14153 net.cpp:141] Setting up inception_4b/3x3
I0403 15:08:57.340384 14153 net.cpp:148] Top shape: 24 224 14 14 (1053696)
I0403 15:08:57.340404 14153 net.cpp:156] Memory required for data: 960654624
I0403 15:08:57.340421 14153 layer_factory.hpp:77] Creating layer inception_4b/relu_3x3
I0403 15:08:57.340443 14153 net.cpp:91] Creating Layer inception_4b/relu_3x3
I0403 15:08:57.340461 14153 net.cpp:425] inception_4b/relu_3x3 <- inception_4b/3x3
I0403 15:08:57.340478 14153 net.cpp:386] inception_4b/relu_3x3 -> inception_4b/3x3 (in-place)
I0403 15:08:57.340668 14153 net.cpp:141] Setting up inception_4b/relu_3x3
I0403 15:08:57.340695 14153 net.cpp:148] Top shape: 24 224 14 14 (1053696)
I0403 15:08:57.340711 14153 net.cpp:156] Memory required for data: 964869408
I0403 15:08:57.340726 14153 layer_factory.hpp:77] Creating layer inception_4b/5x5_reduce
I0403 15:08:57.340749 14153 net.cpp:91] Creating Layer inception_4b/5x5_reduce
I0403 15:08:57.340766 14153 net.cpp:425] inception_4b/5x5_reduce <- inception_4a/output_inception_4a/output_0_split_3
I0403 15:08:57.340785 14153 net.cpp:399] inception_4b/5x5_reduce -> inception_4b/5x5_reduce
I0403 15:08:57.341868 14153 net.cpp:141] Setting up inception_4b/5x5_reduce
I0403 15:08:57.341899 14153 net.cpp:148] Top shape: 24 24 14 14 (112896)
I0403 15:08:57.341917 14153 net.cpp:156] Memory required for data: 965320992
I0403 15:08:57.341936 14153 layer_factory.hpp:77] Creating layer inception_4b/relu_5x5_reduce
I0403 15:08:57.341954 14153 net.cpp:91] Creating Layer inception_4b/relu_5x5_reduce
I0403 15:08:57.341986 14153 net.cpp:425] inception_4b/relu_5x5_reduce <- inception_4b/5x5_reduce
I0403 15:08:57.342006 14153 net.cpp:386] inception_4b/relu_5x5_reduce -> inception_4b/5x5_reduce (in-place)
I0403 15:08:57.342188 14153 net.cpp:141] Setting up inception_4b/relu_5x5_reduce
I0403 15:08:57.342213 14153 net.cpp:148] Top shape: 24 24 14 14 (112896)
I0403 15:08:57.342228 14153 net.cpp:156] Memory required for data: 965772576
I0403 15:08:57.342242 14153 layer_factory.hpp:77] Creating layer inception_4b/5x5
I0403 15:08:57.342264 14153 net.cpp:91] Creating Layer inception_4b/5x5
I0403 15:08:57.342283 14153 net.cpp:425] inception_4b/5x5 <- inception_4b/5x5_reduce
I0403 15:08:57.342303 14153 net.cpp:399] inception_4b/5x5 -> inception_4b/5x5
I0403 15:08:57.343541 14153 net.cpp:141] Setting up inception_4b/5x5
I0403 15:08:57.343574 14153 net.cpp:148] Top shape: 24 64 14 14 (301056)
I0403 15:08:57.343591 14153 net.cpp:156] Memory required for data: 966976800
I0403 15:08:57.343611 14153 layer_factory.hpp:77] Creating layer inception_4b/relu_5x5
I0403 15:08:57.343631 14153 net.cpp:91] Creating Layer inception_4b/relu_5x5
I0403 15:08:57.343647 14153 net.cpp:425] inception_4b/relu_5x5 <- inception_4b/5x5
I0403 15:08:57.343667 14153 net.cpp:386] inception_4b/relu_5x5 -> inception_4b/5x5 (in-place)
I0403 15:08:57.343952 14153 net.cpp:141] Setting up inception_4b/relu_5x5
I0403 15:08:57.343981 14153 net.cpp:148] Top shape: 24 64 14 14 (301056)
I0403 15:08:57.343997 14153 net.cpp:156] Memory required for data: 968181024
I0403 15:08:57.344012 14153 layer_factory.hpp:77] Creating layer inception_4b/pool
I0403 15:08:57.344030 14153 net.cpp:91] Creating Layer inception_4b/pool
I0403 15:08:57.344046 14153 net.cpp:425] inception_4b/pool <- inception_4a/output_inception_4a/output_0_split_4
I0403 15:08:57.344069 14153 net.cpp:399] inception_4b/pool -> inception_4b/pool
I0403 15:08:57.344136 14153 net.cpp:141] Setting up inception_4b/pool
I0403 15:08:57.344159 14153 net.cpp:148] Top shape: 24 512 14 14 (2408448)
I0403 15:08:57.344174 14153 net.cpp:156] Memory required for data: 977814816
I0403 15:08:57.344188 14153 layer_factory.hpp:77] Creating layer inception_4b/pool_proj
I0403 15:08:57.344211 14153 net.cpp:91] Creating Layer inception_4b/pool_proj
I0403 15:08:57.344229 14153 net.cpp:425] inception_4b/pool_proj <- inception_4b/pool
I0403 15:08:57.344249 14153 net.cpp:399] inception_4b/pool_proj -> inception_4b/pool_proj
I0403 15:08:57.345470 14153 net.cpp:141] Setting up inception_4b/pool_proj
I0403 15:08:57.345497 14153 net.cpp:148] Top shape: 24 64 14 14 (301056)
I0403 15:08:57.345518 14153 net.cpp:156] Memory required for data: 979019040
I0403 15:08:57.345536 14153 layer_factory.hpp:77] Creating layer inception_4b/relu_pool_proj
I0403 15:08:57.345553 14153 net.cpp:91] Creating Layer inception_4b/relu_pool_proj
I0403 15:08:57.345569 14153 net.cpp:425] inception_4b/relu_pool_proj <- inception_4b/pool_proj
I0403 15:08:57.345589 14153 net.cpp:386] inception_4b/relu_pool_proj -> inception_4b/pool_proj (in-place)
I0403 15:08:57.345767 14153 net.cpp:141] Setting up inception_4b/relu_pool_proj
I0403 15:08:57.345791 14153 net.cpp:148] Top shape: 24 64 14 14 (301056)
I0403 15:08:57.345805 14153 net.cpp:156] Memory required for data: 980223264
I0403 15:08:57.345819 14153 layer_factory.hpp:77] Creating layer inception_4b/output
I0403 15:08:57.345839 14153 net.cpp:91] Creating Layer inception_4b/output
I0403 15:08:57.345855 14153 net.cpp:425] inception_4b/output <- inception_4b/1x1
I0403 15:08:57.345871 14153 net.cpp:425] inception_4b/output <- inception_4b/3x3
I0403 15:08:57.345886 14153 net.cpp:425] inception_4b/output <- inception_4b/5x5
I0403 15:08:57.345902 14153 net.cpp:425] inception_4b/output <- inception_4b/pool_proj
I0403 15:08:57.345918 14153 net.cpp:399] inception_4b/output -> inception_4b/output
I0403 15:08:57.345962 14153 net.cpp:141] Setting up inception_4b/output
I0403 15:08:57.345986 14153 net.cpp:148] Top shape: 24 512 14 14 (2408448)
I0403 15:08:57.346001 14153 net.cpp:156] Memory required for data: 989857056
I0403 15:08:57.346030 14153 layer_factory.hpp:77] Creating layer inception_4b/output_inception_4b/output_0_split
I0403 15:08:57.346048 14153 net.cpp:91] Creating Layer inception_4b/output_inception_4b/output_0_split
I0403 15:08:57.346063 14153 net.cpp:425] inception_4b/output_inception_4b/output_0_split <- inception_4b/output
I0403 15:08:57.346083 14153 net.cpp:399] inception_4b/output_inception_4b/output_0_split -> inception_4b/output_inception_4b/output_0_split_0
I0403 15:08:57.346104 14153 net.cpp:399] inception_4b/output_inception_4b/output_0_split -> inception_4b/output_inception_4b/output_0_split_1
I0403 15:08:57.346125 14153 net.cpp:399] inception_4b/output_inception_4b/output_0_split -> inception_4b/output_inception_4b/output_0_split_2
I0403 15:08:57.346145 14153 net.cpp:399] inception_4b/output_inception_4b/output_0_split -> inception_4b/output_inception_4b/output_0_split_3
I0403 15:08:57.346225 14153 net.cpp:141] Setting up inception_4b/output_inception_4b/output_0_split
I0403 15:08:57.346251 14153 net.cpp:148] Top shape: 24 512 14 14 (2408448)
I0403 15:08:57.346269 14153 net.cpp:148] Top shape: 24 512 14 14 (2408448)
I0403 15:08:57.346284 14153 net.cpp:148] Top shape: 24 512 14 14 (2408448)
I0403 15:08:57.346300 14153 net.cpp:148] Top shape: 24 512 14 14 (2408448)
I0403 15:08:57.346314 14153 net.cpp:156] Memory required for data: 1028392224
I0403 15:08:57.346328 14153 layer_factory.hpp:77] Creating layer inception_4c/1x1
I0403 15:08:57.346350 14153 net.cpp:91] Creating Layer inception_4c/1x1
I0403 15:08:57.346369 14153 net.cpp:425] inception_4c/1x1 <- inception_4b/output_inception_4b/output_0_split_0
I0403 15:08:57.346386 14153 net.cpp:399] inception_4c/1x1 -> inception_4c/1x1
I0403 15:08:57.347791 14153 net.cpp:141] Setting up inception_4c/1x1
I0403 15:08:57.347820 14153 net.cpp:148] Top shape: 24 128 14 14 (602112)
I0403 15:08:57.347836 14153 net.cpp:156] Memory required for data: 1030800672
I0403 15:08:57.347854 14153 layer_factory.hpp:77] Creating layer inception_4c/relu_1x1
I0403 15:08:57.347879 14153 net.cpp:91] Creating Layer inception_4c/relu_1x1
I0403 15:08:57.347898 14153 net.cpp:425] inception_4c/relu_1x1 <- inception_4c/1x1
I0403 15:08:57.347915 14153 net.cpp:386] inception_4c/relu_1x1 -> inception_4c/1x1 (in-place)
I0403 15:08:57.348095 14153 net.cpp:141] Setting up inception_4c/relu_1x1
I0403 15:08:57.348124 14153 net.cpp:148] Top shape: 24 128 14 14 (602112)
I0403 15:08:57.348140 14153 net.cpp:156] Memory required for data: 1033209120
I0403 15:08:57.348155 14153 layer_factory.hpp:77] Creating layer inception_4c/3x3_reduce
I0403 15:08:57.348176 14153 net.cpp:91] Creating Layer inception_4c/3x3_reduce
I0403 15:08:57.348193 14153 net.cpp:425] inception_4c/3x3_reduce <- inception_4b/output_inception_4b/output_0_split_1
I0403 15:08:57.348212 14153 net.cpp:399] inception_4c/3x3_reduce -> inception_4c/3x3_reduce
I0403 15:08:57.350144 14153 net.cpp:141] Setting up inception_4c/3x3_reduce
I0403 15:08:57.350177 14153 net.cpp:148] Top shape: 24 128 14 14 (602112)
I0403 15:08:57.350194 14153 net.cpp:156] Memory required for data: 1035617568
I0403 15:08:57.350211 14153 layer_factory.hpp:77] Creating layer inception_4c/relu_3x3_reduce
I0403 15:08:57.350229 14153 net.cpp:91] Creating Layer inception_4c/relu_3x3_reduce
I0403 15:08:57.350245 14153 net.cpp:425] inception_4c/relu_3x3_reduce <- inception_4c/3x3_reduce
I0403 15:08:57.350266 14153 net.cpp:386] inception_4c/relu_3x3_reduce -> inception_4c/3x3_reduce (in-place)
I0403 15:08:57.350558 14153 net.cpp:141] Setting up inception_4c/relu_3x3_reduce
I0403 15:08:57.350585 14153 net.cpp:148] Top shape: 24 128 14 14 (602112)
I0403 15:08:57.350601 14153 net.cpp:156] Memory required for data: 1038026016
I0403 15:08:57.350616 14153 layer_factory.hpp:77] Creating layer inception_4c/3x3
I0403 15:08:57.350639 14153 net.cpp:91] Creating Layer inception_4c/3x3
I0403 15:08:57.350656 14153 net.cpp:425] inception_4c/3x3 <- inception_4c/3x3_reduce
I0403 15:08:57.350675 14153 net.cpp:399] inception_4c/3x3 -> inception_4c/3x3
I0403 15:08:57.354188 14153 net.cpp:141] Setting up inception_4c/3x3
I0403 15:08:57.354230 14153 net.cpp:148] Top shape: 24 256 14 14 (1204224)
I0403 15:08:57.354246 14153 net.cpp:156] Memory required for data: 1042842912
I0403 15:08:57.354281 14153 layer_factory.hpp:77] Creating layer inception_4c/relu_3x3
I0403 15:08:57.354302 14153 net.cpp:91] Creating Layer inception_4c/relu_3x3
I0403 15:08:57.354320 14153 net.cpp:425] inception_4c/relu_3x3 <- inception_4c/3x3
I0403 15:08:57.354338 14153 net.cpp:386] inception_4c/relu_3x3 -> inception_4c/3x3 (in-place)
I0403 15:08:57.354529 14153 net.cpp:141] Setting up inception_4c/relu_3x3
I0403 15:08:57.354554 14153 net.cpp:148] Top shape: 24 256 14 14 (1204224)
I0403 15:08:57.354569 14153 net.cpp:156] Memory required for data: 1047659808
I0403 15:08:57.354583 14153 layer_factory.hpp:77] Creating layer inception_4c/5x5_reduce
I0403 15:08:57.354606 14153 net.cpp:91] Creating Layer inception_4c/5x5_reduce
I0403 15:08:57.354624 14153 net.cpp:425] inception_4c/5x5_reduce <- inception_4b/output_inception_4b/output_0_split_2
I0403 15:08:57.354645 14153 net.cpp:399] inception_4c/5x5_reduce -> inception_4c/5x5_reduce
I0403 15:08:57.355705 14153 net.cpp:141] Setting up inception_4c/5x5_reduce
I0403 15:08:57.355736 14153 net.cpp:148] Top shape: 24 24 14 14 (112896)
I0403 15:08:57.355752 14153 net.cpp:156] Memory required for data: 1048111392
I0403 15:08:57.355770 14153 layer_factory.hpp:77] Creating layer inception_4c/relu_5x5_reduce
I0403 15:08:57.355788 14153 net.cpp:91] Creating Layer inception_4c/relu_5x5_reduce
I0403 15:08:57.355804 14153 net.cpp:425] inception_4c/relu_5x5_reduce <- inception_4c/5x5_reduce
I0403 15:08:57.355823 14153 net.cpp:386] inception_4c/relu_5x5_reduce -> inception_4c/5x5_reduce (in-place)
I0403 15:08:57.356003 14153 net.cpp:141] Setting up inception_4c/relu_5x5_reduce
I0403 15:08:57.356027 14153 net.cpp:148] Top shape: 24 24 14 14 (112896)
I0403 15:08:57.356042 14153 net.cpp:156] Memory required for data: 1048562976
I0403 15:08:57.356057 14153 layer_factory.hpp:77] Creating layer inception_4c/5x5
I0403 15:08:57.356078 14153 net.cpp:91] Creating Layer inception_4c/5x5
I0403 15:08:57.356096 14153 net.cpp:425] inception_4c/5x5 <- inception_4c/5x5_reduce
I0403 15:08:57.356117 14153 net.cpp:399] inception_4c/5x5 -> inception_4c/5x5
I0403 15:08:57.357324 14153 net.cpp:141] Setting up inception_4c/5x5
I0403 15:08:57.357352 14153 net.cpp:148] Top shape: 24 64 14 14 (301056)
I0403 15:08:57.357368 14153 net.cpp:156] Memory required for data: 1049767200
I0403 15:08:57.357385 14153 layer_factory.hpp:77] Creating layer inception_4c/relu_5x5
I0403 15:08:57.357406 14153 net.cpp:91] Creating Layer inception_4c/relu_5x5
I0403 15:08:57.357422 14153 net.cpp:425] inception_4c/relu_5x5 <- inception_4c/5x5
I0403 15:08:57.357439 14153 net.cpp:386] inception_4c/relu_5x5 -> inception_4c/5x5 (in-place)
I0403 15:08:57.357725 14153 net.cpp:141] Setting up inception_4c/relu_5x5
I0403 15:08:57.357751 14153 net.cpp:148] Top shape: 24 64 14 14 (301056)
I0403 15:08:57.357766 14153 net.cpp:156] Memory required for data: 1050971424
I0403 15:08:57.357780 14153 layer_factory.hpp:77] Creating layer inception_4c/pool
I0403 15:08:57.357800 14153 net.cpp:91] Creating Layer inception_4c/pool
I0403 15:08:57.357816 14153 net.cpp:425] inception_4c/pool <- inception_4b/output_inception_4b/output_0_split_3
I0403 15:08:57.357836 14153 net.cpp:399] inception_4c/pool -> inception_4c/pool
I0403 15:08:57.357900 14153 net.cpp:141] Setting up inception_4c/pool
I0403 15:08:57.357923 14153 net.cpp:148] Top shape: 24 512 14 14 (2408448)
I0403 15:08:57.357939 14153 net.cpp:156] Memory required for data: 1060605216
I0403 15:08:57.357952 14153 layer_factory.hpp:77] Creating layer inception_4c/pool_proj
I0403 15:08:57.357974 14153 net.cpp:91] Creating Layer inception_4c/pool_proj
I0403 15:08:57.357991 14153 net.cpp:425] inception_4c/pool_proj <- inception_4c/pool
I0403 15:08:57.358011 14153 net.cpp:399] inception_4c/pool_proj -> inception_4c/pool_proj
I0403 15:08:57.359200 14153 net.cpp:141] Setting up inception_4c/pool_proj
I0403 15:08:57.359228 14153 net.cpp:148] Top shape: 24 64 14 14 (301056)
I0403 15:08:57.359258 14153 net.cpp:156] Memory required for data: 1061809440
I0403 15:08:57.359278 14153 layer_factory.hpp:77] Creating layer inception_4c/relu_pool_proj
I0403 15:08:57.359298 14153 net.cpp:91] Creating Layer inception_4c/relu_pool_proj
I0403 15:08:57.359316 14153 net.cpp:425] inception_4c/relu_pool_proj <- inception_4c/pool_proj
I0403 15:08:57.359340 14153 net.cpp:386] inception_4c/relu_pool_proj -> inception_4c/pool_proj (in-place)
I0403 15:08:57.359524 14153 net.cpp:141] Setting up inception_4c/relu_pool_proj
I0403 15:08:57.359549 14153 net.cpp:148] Top shape: 24 64 14 14 (301056)
I0403 15:08:57.359565 14153 net.cpp:156] Memory required for data: 1063013664
I0403 15:08:57.359580 14153 layer_factory.hpp:77] Creating layer inception_4c/output
I0403 15:08:57.359596 14153 net.cpp:91] Creating Layer inception_4c/output
I0403 15:08:57.359614 14153 net.cpp:425] inception_4c/output <- inception_4c/1x1
I0403 15:08:57.359630 14153 net.cpp:425] inception_4c/output <- inception_4c/3x3
I0403 15:08:57.359647 14153 net.cpp:425] inception_4c/output <- inception_4c/5x5
I0403 15:08:57.359661 14153 net.cpp:425] inception_4c/output <- inception_4c/pool_proj
I0403 15:08:57.359678 14153 net.cpp:399] inception_4c/output -> inception_4c/output
I0403 15:08:57.359722 14153 net.cpp:141] Setting up inception_4c/output
I0403 15:08:57.359747 14153 net.cpp:148] Top shape: 24 512 14 14 (2408448)
I0403 15:08:57.359763 14153 net.cpp:156] Memory required for data: 1072647456
I0403 15:08:57.359777 14153 layer_factory.hpp:77] Creating layer inception_4c/output_inception_4c/output_0_split
I0403 15:08:57.359793 14153 net.cpp:91] Creating Layer inception_4c/output_inception_4c/output_0_split
I0403 15:08:57.359808 14153 net.cpp:425] inception_4c/output_inception_4c/output_0_split <- inception_4c/output
I0403 15:08:57.359828 14153 net.cpp:399] inception_4c/output_inception_4c/output_0_split -> inception_4c/output_inception_4c/output_0_split_0
I0403 15:08:57.359849 14153 net.cpp:399] inception_4c/output_inception_4c/output_0_split -> inception_4c/output_inception_4c/output_0_split_1
I0403 15:08:57.359869 14153 net.cpp:399] inception_4c/output_inception_4c/output_0_split -> inception_4c/output_inception_4c/output_0_split_2
I0403 15:08:57.359889 14153 net.cpp:399] inception_4c/output_inception_4c/output_0_split -> inception_4c/output_inception_4c/output_0_split_3
I0403 15:08:57.359972 14153 net.cpp:141] Setting up inception_4c/output_inception_4c/output_0_split
I0403 15:08:57.359997 14153 net.cpp:148] Top shape: 24 512 14 14 (2408448)
I0403 15:08:57.360014 14153 net.cpp:148] Top shape: 24 512 14 14 (2408448)
I0403 15:08:57.360031 14153 net.cpp:148] Top shape: 24 512 14 14 (2408448)
I0403 15:08:57.360046 14153 net.cpp:148] Top shape: 24 512 14 14 (2408448)
I0403 15:08:57.360060 14153 net.cpp:156] Memory required for data: 1111182624
I0403 15:08:57.360074 14153 layer_factory.hpp:77] Creating layer inception_4d/1x1
I0403 15:08:57.360095 14153 net.cpp:91] Creating Layer inception_4d/1x1
I0403 15:08:57.360112 14153 net.cpp:425] inception_4d/1x1 <- inception_4c/output_inception_4c/output_0_split_0
I0403 15:08:57.360131 14153 net.cpp:399] inception_4d/1x1 -> inception_4d/1x1
I0403 15:08:57.361476 14153 net.cpp:141] Setting up inception_4d/1x1
I0403 15:08:57.361510 14153 net.cpp:148] Top shape: 24 112 14 14 (526848)
I0403 15:08:57.361531 14153 net.cpp:156] Memory required for data: 1113290016
I0403 15:08:57.361548 14153 layer_factory.hpp:77] Creating layer inception_4d/relu_1x1
I0403 15:08:57.361567 14153 net.cpp:91] Creating Layer inception_4d/relu_1x1
I0403 15:08:57.361584 14153 net.cpp:425] inception_4d/relu_1x1 <- inception_4d/1x1
I0403 15:08:57.361603 14153 net.cpp:386] inception_4d/relu_1x1 -> inception_4d/1x1 (in-place)
I0403 15:08:57.361783 14153 net.cpp:141] Setting up inception_4d/relu_1x1
I0403 15:08:57.361810 14153 net.cpp:148] Top shape: 24 112 14 14 (526848)
I0403 15:08:57.361827 14153 net.cpp:156] Memory required for data: 1115397408
I0403 15:08:57.361842 14153 layer_factory.hpp:77] Creating layer inception_4d/3x3_reduce
I0403 15:08:57.361881 14153 net.cpp:91] Creating Layer inception_4d/3x3_reduce
I0403 15:08:57.361901 14153 net.cpp:425] inception_4d/3x3_reduce <- inception_4c/output_inception_4c/output_0_split_1
I0403 15:08:57.361920 14153 net.cpp:399] inception_4d/3x3_reduce -> inception_4d/3x3_reduce
I0403 15:08:57.363395 14153 net.cpp:141] Setting up inception_4d/3x3_reduce
I0403 15:08:57.363425 14153 net.cpp:148] Top shape: 24 144 14 14 (677376)
I0403 15:08:57.363440 14153 net.cpp:156] Memory required for data: 1118106912
I0403 15:08:57.363457 14153 layer_factory.hpp:77] Creating layer inception_4d/relu_3x3_reduce
I0403 15:08:57.363477 14153 net.cpp:91] Creating Layer inception_4d/relu_3x3_reduce
I0403 15:08:57.363495 14153 net.cpp:425] inception_4d/relu_3x3_reduce <- inception_4d/3x3_reduce
I0403 15:08:57.363517 14153 net.cpp:386] inception_4d/relu_3x3_reduce -> inception_4d/3x3_reduce (in-place)
I0403 15:08:57.363802 14153 net.cpp:141] Setting up inception_4d/relu_3x3_reduce
I0403 15:08:57.363827 14153 net.cpp:148] Top shape: 24 144 14 14 (677376)
I0403 15:08:57.363842 14153 net.cpp:156] Memory required for data: 1120816416
I0403 15:08:57.363857 14153 layer_factory.hpp:77] Creating layer inception_4d/3x3
I0403 15:08:57.363879 14153 net.cpp:91] Creating Layer inception_4d/3x3
I0403 15:08:57.363896 14153 net.cpp:425] inception_4d/3x3 <- inception_4d/3x3_reduce
I0403 15:08:57.363917 14153 net.cpp:399] inception_4d/3x3 -> inception_4d/3x3
I0403 15:08:57.368083 14153 net.cpp:141] Setting up inception_4d/3x3
I0403 15:08:57.368113 14153 net.cpp:148] Top shape: 24 288 14 14 (1354752)
I0403 15:08:57.368130 14153 net.cpp:156] Memory required for data: 1126235424
I0403 15:08:57.368151 14153 layer_factory.hpp:77] Creating layer inception_4d/relu_3x3
I0403 15:08:57.368171 14153 net.cpp:91] Creating Layer inception_4d/relu_3x3
I0403 15:08:57.368188 14153 net.cpp:425] inception_4d/relu_3x3 <- inception_4d/3x3
I0403 15:08:57.368206 14153 net.cpp:386] inception_4d/relu_3x3 -> inception_4d/3x3 (in-place)
I0403 15:08:57.368391 14153 net.cpp:141] Setting up inception_4d/relu_3x3
I0403 15:08:57.368417 14153 net.cpp:148] Top shape: 24 288 14 14 (1354752)
I0403 15:08:57.368432 14153 net.cpp:156] Memory required for data: 1131654432
I0403 15:08:57.368446 14153 layer_factory.hpp:77] Creating layer inception_4d/5x5_reduce
I0403 15:08:57.368468 14153 net.cpp:91] Creating Layer inception_4d/5x5_reduce
I0403 15:08:57.368486 14153 net.cpp:425] inception_4d/5x5_reduce <- inception_4c/output_inception_4c/output_0_split_2
I0403 15:08:57.368510 14153 net.cpp:399] inception_4d/5x5_reduce -> inception_4d/5x5_reduce
I0403 15:08:57.369622 14153 net.cpp:141] Setting up inception_4d/5x5_reduce
I0403 15:08:57.369652 14153 net.cpp:148] Top shape: 24 32 14 14 (150528)
I0403 15:08:57.369669 14153 net.cpp:156] Memory required for data: 1132256544
I0403 15:08:57.369688 14153 layer_factory.hpp:77] Creating layer inception_4d/relu_5x5_reduce
I0403 15:08:57.369705 14153 net.cpp:91] Creating Layer inception_4d/relu_5x5_reduce
I0403 15:08:57.369721 14153 net.cpp:425] inception_4d/relu_5x5_reduce <- inception_4d/5x5_reduce
I0403 15:08:57.369738 14153 net.cpp:386] inception_4d/relu_5x5_reduce -> inception_4d/5x5_reduce (in-place)
I0403 15:08:57.369925 14153 net.cpp:141] Setting up inception_4d/relu_5x5_reduce
I0403 15:08:57.369948 14153 net.cpp:148] Top shape: 24 32 14 14 (150528)
I0403 15:08:57.369964 14153 net.cpp:156] Memory required for data: 1132858656
I0403 15:08:57.369978 14153 layer_factory.hpp:77] Creating layer inception_4d/5x5
I0403 15:08:57.369999 14153 net.cpp:91] Creating Layer inception_4d/5x5
I0403 15:08:57.370018 14153 net.cpp:425] inception_4d/5x5 <- inception_4d/5x5_reduce
I0403 15:08:57.370038 14153 net.cpp:399] inception_4d/5x5 -> inception_4d/5x5
I0403 15:08:57.371474 14153 net.cpp:141] Setting up inception_4d/5x5
I0403 15:08:57.371502 14153 net.cpp:148] Top shape: 24 64 14 14 (301056)
I0403 15:08:57.371523 14153 net.cpp:156] Memory required for data: 1134062880
I0403 15:08:57.371542 14153 layer_factory.hpp:77] Creating layer inception_4d/relu_5x5
I0403 15:08:57.371577 14153 net.cpp:91] Creating Layer inception_4d/relu_5x5
I0403 15:08:57.371606 14153 net.cpp:425] inception_4d/relu_5x5 <- inception_4d/5x5
I0403 15:08:57.371624 14153 net.cpp:386] inception_4d/relu_5x5 -> inception_4d/5x5 (in-place)
I0403 15:08:57.371919 14153 net.cpp:141] Setting up inception_4d/relu_5x5
I0403 15:08:57.371948 14153 net.cpp:148] Top shape: 24 64 14 14 (301056)
I0403 15:08:57.371970 14153 net.cpp:156] Memory required for data: 1135267104
I0403 15:08:57.371987 14153 layer_factory.hpp:77] Creating layer inception_4d/pool
I0403 15:08:57.372006 14153 net.cpp:91] Creating Layer inception_4d/pool
I0403 15:08:57.372027 14153 net.cpp:425] inception_4d/pool <- inception_4c/output_inception_4c/output_0_split_3
I0403 15:08:57.372052 14153 net.cpp:399] inception_4d/pool -> inception_4d/pool
I0403 15:08:57.372123 14153 net.cpp:141] Setting up inception_4d/pool
I0403 15:08:57.372148 14153 net.cpp:148] Top shape: 24 512 14 14 (2408448)
I0403 15:08:57.372164 14153 net.cpp:156] Memory required for data: 1144900896
I0403 15:08:57.372177 14153 layer_factory.hpp:77] Creating layer inception_4d/pool_proj
I0403 15:08:57.372198 14153 net.cpp:91] Creating Layer inception_4d/pool_proj
I0403 15:08:57.372225 14153 net.cpp:425] inception_4d/pool_proj <- inception_4d/pool
I0403 15:08:57.372243 14153 net.cpp:399] inception_4d/pool_proj -> inception_4d/pool_proj
I0403 15:08:57.374058 14153 net.cpp:141] Setting up inception_4d/pool_proj
I0403 15:08:57.374089 14153 net.cpp:148] Top shape: 24 64 14 14 (301056)
I0403 15:08:57.374106 14153 net.cpp:156] Memory required for data: 1146105120
I0403 15:08:57.374127 14153 layer_factory.hpp:77] Creating layer inception_4d/relu_pool_proj
I0403 15:08:57.374147 14153 net.cpp:91] Creating Layer inception_4d/relu_pool_proj
I0403 15:08:57.374164 14153 net.cpp:425] inception_4d/relu_pool_proj <- inception_4d/pool_proj
I0403 15:08:57.374181 14153 net.cpp:386] inception_4d/relu_pool_proj -> inception_4d/pool_proj (in-place)
I0403 15:08:57.374372 14153 net.cpp:141] Setting up inception_4d/relu_pool_proj
I0403 15:08:57.374397 14153 net.cpp:148] Top shape: 24 64 14 14 (301056)
I0403 15:08:57.374413 14153 net.cpp:156] Memory required for data: 1147309344
I0403 15:08:57.374426 14153 layer_factory.hpp:77] Creating layer inception_4d/output
I0403 15:08:57.374444 14153 net.cpp:91] Creating Layer inception_4d/output
I0403 15:08:57.374459 14153 net.cpp:425] inception_4d/output <- inception_4d/1x1
I0403 15:08:57.374476 14153 net.cpp:425] inception_4d/output <- inception_4d/3x3
I0403 15:08:57.374492 14153 net.cpp:425] inception_4d/output <- inception_4d/5x5
I0403 15:08:57.374519 14153 net.cpp:425] inception_4d/output <- inception_4d/pool_proj
I0403 15:08:57.374542 14153 net.cpp:399] inception_4d/output -> inception_4d/output
I0403 15:08:57.374591 14153 net.cpp:141] Setting up inception_4d/output
I0403 15:08:57.374619 14153 net.cpp:148] Top shape: 24 528 14 14 (2483712)
I0403 15:08:57.374634 14153 net.cpp:156] Memory required for data: 1157244192
I0403 15:08:57.374649 14153 layer_factory.hpp:77] Creating layer inception_4d/output_inception_4d/output_0_split
I0403 15:08:57.374665 14153 net.cpp:91] Creating Layer inception_4d/output_inception_4d/output_0_split
I0403 15:08:57.374681 14153 net.cpp:425] inception_4d/output_inception_4d/output_0_split <- inception_4d/output
I0403 15:08:57.374698 14153 net.cpp:399] inception_4d/output_inception_4d/output_0_split -> inception_4d/output_inception_4d/output_0_split_0
I0403 15:08:57.374722 14153 net.cpp:399] inception_4d/output_inception_4d/output_0_split -> inception_4d/output_inception_4d/output_0_split_1
I0403 15:08:57.374744 14153 net.cpp:399] inception_4d/output_inception_4d/output_0_split -> inception_4d/output_inception_4d/output_0_split_2
I0403 15:08:57.374765 14153 net.cpp:399] inception_4d/output_inception_4d/output_0_split -> inception_4d/output_inception_4d/output_0_split_3
I0403 15:08:57.374786 14153 net.cpp:399] inception_4d/output_inception_4d/output_0_split -> inception_4d/output_inception_4d/output_0_split_4
I0403 15:08:57.374891 14153 net.cpp:141] Setting up inception_4d/output_inception_4d/output_0_split
I0403 15:08:57.374927 14153 net.cpp:148] Top shape: 24 528 14 14 (2483712)
I0403 15:08:57.374944 14153 net.cpp:148] Top shape: 24 528 14 14 (2483712)
I0403 15:08:57.374964 14153 net.cpp:148] Top shape: 24 528 14 14 (2483712)
I0403 15:08:57.374980 14153 net.cpp:148] Top shape: 24 528 14 14 (2483712)
I0403 15:08:57.374996 14153 net.cpp:148] Top shape: 24 528 14 14 (2483712)
I0403 15:08:57.375011 14153 net.cpp:156] Memory required for data: 1206918432
I0403 15:08:57.375026 14153 layer_factory.hpp:77] Creating layer loss2/ave_pool
I0403 15:08:57.375044 14153 net.cpp:91] Creating Layer loss2/ave_pool
I0403 15:08:57.375059 14153 net.cpp:425] loss2/ave_pool <- inception_4d/output_inception_4d/output_0_split_0
I0403 15:08:57.375078 14153 net.cpp:399] loss2/ave_pool -> loss2/ave_pool
I0403 15:08:57.375393 14153 net.cpp:141] Setting up loss2/ave_pool
I0403 15:08:57.375422 14153 net.cpp:148] Top shape: 24 528 4 4 (202752)
I0403 15:08:57.375438 14153 net.cpp:156] Memory required for data: 1207729440
I0403 15:08:57.375453 14153 layer_factory.hpp:77] Creating layer loss2/conv
I0403 15:08:57.375476 14153 net.cpp:91] Creating Layer loss2/conv
I0403 15:08:57.375495 14153 net.cpp:425] loss2/conv <- loss2/ave_pool
I0403 15:08:57.375519 14153 net.cpp:399] loss2/conv -> loss2/conv
I0403 15:08:57.377476 14153 net.cpp:141] Setting up loss2/conv
I0403 15:08:57.377508 14153 net.cpp:148] Top shape: 24 128 4 4 (49152)
I0403 15:08:57.377526 14153 net.cpp:156] Memory required for data: 1207926048
I0403 15:08:57.377544 14153 layer_factory.hpp:77] Creating layer loss2/relu_conv
I0403 15:08:57.377564 14153 net.cpp:91] Creating Layer loss2/relu_conv
I0403 15:08:57.377581 14153 net.cpp:425] loss2/relu_conv <- loss2/conv
I0403 15:08:57.377601 14153 net.cpp:386] loss2/relu_conv -> loss2/conv (in-place)
I0403 15:08:57.377887 14153 net.cpp:141] Setting up loss2/relu_conv
I0403 15:08:57.377914 14153 net.cpp:148] Top shape: 24 128 4 4 (49152)
I0403 15:08:57.377929 14153 net.cpp:156] Memory required for data: 1208122656
I0403 15:08:57.377944 14153 layer_factory.hpp:77] Creating layer loss2/fc
I0403 15:08:57.377962 14153 net.cpp:91] Creating Layer loss2/fc
I0403 15:08:57.377979 14153 net.cpp:425] loss2/fc <- loss2/conv
I0403 15:08:57.378000 14153 net.cpp:399] loss2/fc -> loss2/fc
I0403 15:08:57.395704 14153 net.cpp:141] Setting up loss2/fc
I0403 15:08:57.395752 14153 net.cpp:148] Top shape: 24 1024 (24576)
I0403 15:08:57.395769 14153 net.cpp:156] Memory required for data: 1208220960
I0403 15:08:57.395789 14153 layer_factory.hpp:77] Creating layer loss2/relu_fc
I0403 15:08:57.395810 14153 net.cpp:91] Creating Layer loss2/relu_fc
I0403 15:08:57.395826 14153 net.cpp:425] loss2/relu_fc <- loss2/fc
I0403 15:08:57.395845 14153 net.cpp:386] loss2/relu_fc -> loss2/fc (in-place)
I0403 15:08:57.396186 14153 net.cpp:141] Setting up loss2/relu_fc
I0403 15:08:57.396215 14153 net.cpp:148] Top shape: 24 1024 (24576)
I0403 15:08:57.396232 14153 net.cpp:156] Memory required for data: 1208319264
I0403 15:08:57.396247 14153 layer_factory.hpp:77] Creating layer loss2/drop_fc
I0403 15:08:57.396268 14153 net.cpp:91] Creating Layer loss2/drop_fc
I0403 15:08:57.396286 14153 net.cpp:425] loss2/drop_fc <- loss2/fc
I0403 15:08:57.396302 14153 net.cpp:386] loss2/drop_fc -> loss2/fc (in-place)
I0403 15:08:57.396354 14153 net.cpp:141] Setting up loss2/drop_fc
I0403 15:08:57.396378 14153 net.cpp:148] Top shape: 24 1024 (24576)
I0403 15:08:57.396392 14153 net.cpp:156] Memory required for data: 1208417568
I0403 15:08:57.396406 14153 layer_factory.hpp:77] Creating layer loss2/classifier_plantvillage
I0403 15:08:57.396428 14153 net.cpp:91] Creating Layer loss2/classifier_plantvillage
I0403 15:08:57.396445 14153 net.cpp:425] loss2/classifier_plantvillage <- loss2/fc
I0403 15:08:57.396462 14153 net.cpp:399] loss2/classifier_plantvillage -> loss2/classifier_plantvillage
I0403 15:08:57.396880 14153 net.cpp:141] Setting up loss2/classifier_plantvillage
I0403 15:08:57.396906 14153 net.cpp:148] Top shape: 24 38 (912)
I0403 15:08:57.396920 14153 net.cpp:156] Memory required for data: 1208421216
I0403 15:08:57.396965 14153 layer_factory.hpp:77] Creating layer loss2/classifier_plantvillage_loss2/classifier_plantvillage_0_split
I0403 15:08:57.396984 14153 net.cpp:91] Creating Layer loss2/classifier_plantvillage_loss2/classifier_plantvillage_0_split
I0403 15:08:57.397001 14153 net.cpp:425] loss2/classifier_plantvillage_loss2/classifier_plantvillage_0_split <- loss2/classifier_plantvillage
I0403 15:08:57.397020 14153 net.cpp:399] loss2/classifier_plantvillage_loss2/classifier_plantvillage_0_split -> loss2/classifier_plantvillage_loss2/classifier_plantvillage_0_split_0
I0403 15:08:57.397042 14153 net.cpp:399] loss2/classifier_plantvillage_loss2/classifier_plantvillage_0_split -> loss2/classifier_plantvillage_loss2/classifier_plantvillage_0_split_1
I0403 15:08:57.397063 14153 net.cpp:399] loss2/classifier_plantvillage_loss2/classifier_plantvillage_0_split -> loss2/classifier_plantvillage_loss2/classifier_plantvillage_0_split_2
I0403 15:08:57.397143 14153 net.cpp:141] Setting up loss2/classifier_plantvillage_loss2/classifier_plantvillage_0_split
I0403 15:08:57.397167 14153 net.cpp:148] Top shape: 24 38 (912)
I0403 15:08:57.397183 14153 net.cpp:148] Top shape: 24 38 (912)
I0403 15:08:57.397198 14153 net.cpp:148] Top shape: 24 38 (912)
I0403 15:08:57.397212 14153 net.cpp:156] Memory required for data: 1208432160
I0403 15:08:57.397228 14153 layer_factory.hpp:77] Creating layer inception_4e/1x1
I0403 15:08:57.397250 14153 net.cpp:91] Creating Layer inception_4e/1x1
I0403 15:08:57.397270 14153 net.cpp:425] inception_4e/1x1 <- inception_4d/output_inception_4d/output_0_split_1
I0403 15:08:57.397290 14153 net.cpp:399] inception_4e/1x1 -> inception_4e/1x1
I0403 15:08:57.399158 14153 net.cpp:141] Setting up inception_4e/1x1
I0403 15:08:57.399188 14153 net.cpp:148] Top shape: 24 256 14 14 (1204224)
I0403 15:08:57.399204 14153 net.cpp:156] Memory required for data: 1213249056
I0403 15:08:57.399224 14153 layer_factory.hpp:77] Creating layer inception_4e/relu_1x1
I0403 15:08:57.399245 14153 net.cpp:91] Creating Layer inception_4e/relu_1x1
I0403 15:08:57.399266 14153 net.cpp:425] inception_4e/relu_1x1 <- inception_4e/1x1
I0403 15:08:57.399283 14153 net.cpp:386] inception_4e/relu_1x1 -> inception_4e/1x1 (in-place)
I0403 15:08:57.399587 14153 net.cpp:141] Setting up inception_4e/relu_1x1
I0403 15:08:57.399615 14153 net.cpp:148] Top shape: 24 256 14 14 (1204224)
I0403 15:08:57.399631 14153 net.cpp:156] Memory required for data: 1218065952
I0403 15:08:57.399647 14153 layer_factory.hpp:77] Creating layer inception_4e/3x3_reduce
I0403 15:08:57.399669 14153 net.cpp:91] Creating Layer inception_4e/3x3_reduce
I0403 15:08:57.399688 14153 net.cpp:425] inception_4e/3x3_reduce <- inception_4d/output_inception_4d/output_0_split_2
I0403 15:08:57.399710 14153 net.cpp:399] inception_4e/3x3_reduce -> inception_4e/3x3_reduce
I0403 15:08:57.401868 14153 net.cpp:141] Setting up inception_4e/3x3_reduce
I0403 15:08:57.401901 14153 net.cpp:148] Top shape: 24 160 14 14 (752640)
I0403 15:08:57.401916 14153 net.cpp:156] Memory required for data: 1221076512
I0403 15:08:57.401935 14153 layer_factory.hpp:77] Creating layer inception_4e/relu_3x3_reduce
I0403 15:08:57.401954 14153 net.cpp:91] Creating Layer inception_4e/relu_3x3_reduce
I0403 15:08:57.401973 14153 net.cpp:425] inception_4e/relu_3x3_reduce <- inception_4e/3x3_reduce
I0403 15:08:57.401994 14153 net.cpp:386] inception_4e/relu_3x3_reduce -> inception_4e/3x3_reduce (in-place)
I0403 15:08:57.402181 14153 net.cpp:141] Setting up inception_4e/relu_3x3_reduce
I0403 15:08:57.402207 14153 net.cpp:148] Top shape: 24 160 14 14 (752640)
I0403 15:08:57.402223 14153 net.cpp:156] Memory required for data: 1224087072
I0403 15:08:57.402240 14153 layer_factory.hpp:77] Creating layer inception_4e/3x3
I0403 15:08:57.402262 14153 net.cpp:91] Creating Layer inception_4e/3x3
I0403 15:08:57.402281 14153 net.cpp:425] inception_4e/3x3 <- inception_4e/3x3_reduce
I0403 15:08:57.402309 14153 net.cpp:399] inception_4e/3x3 -> inception_4e/3x3
I0403 15:08:57.407431 14153 net.cpp:141] Setting up inception_4e/3x3
I0403 15:08:57.407477 14153 net.cpp:148] Top shape: 24 320 14 14 (1505280)
I0403 15:08:57.407495 14153 net.cpp:156] Memory required for data: 1230108192
I0403 15:08:57.407519 14153 layer_factory.hpp:77] Creating layer inception_4e/relu_3x3
I0403 15:08:57.407543 14153 net.cpp:91] Creating Layer inception_4e/relu_3x3
I0403 15:08:57.407563 14153 net.cpp:425] inception_4e/relu_3x3 <- inception_4e/3x3
I0403 15:08:57.407582 14153 net.cpp:386] inception_4e/relu_3x3 -> inception_4e/3x3 (in-place)
I0403 15:08:57.407884 14153 net.cpp:141] Setting up inception_4e/relu_3x3
I0403 15:08:57.407915 14153 net.cpp:148] Top shape: 24 320 14 14 (1505280)
I0403 15:08:57.407932 14153 net.cpp:156] Memory required for data: 1236129312
I0403 15:08:57.407946 14153 layer_factory.hpp:77] Creating layer inception_4e/5x5_reduce
I0403 15:08:57.407968 14153 net.cpp:91] Creating Layer inception_4e/5x5_reduce
I0403 15:08:57.407984 14153 net.cpp:425] inception_4e/5x5_reduce <- inception_4d/output_inception_4d/output_0_split_3
I0403 15:08:57.408006 14153 net.cpp:399] inception_4e/5x5_reduce -> inception_4e/5x5_reduce
I0403 15:08:57.409085 14153 net.cpp:141] Setting up inception_4e/5x5_reduce
I0403 15:08:57.409114 14153 net.cpp:148] Top shape: 24 32 14 14 (150528)
I0403 15:08:57.409131 14153 net.cpp:156] Memory required for data: 1236731424
I0403 15:08:57.409148 14153 layer_factory.hpp:77] Creating layer inception_4e/relu_5x5_reduce
I0403 15:08:57.409169 14153 net.cpp:91] Creating Layer inception_4e/relu_5x5_reduce
I0403 15:08:57.409186 14153 net.cpp:425] inception_4e/relu_5x5_reduce <- inception_4e/5x5_reduce
I0403 15:08:57.409204 14153 net.cpp:386] inception_4e/relu_5x5_reduce -> inception_4e/5x5_reduce (in-place)
I0403 15:08:57.409513 14153 net.cpp:141] Setting up inception_4e/relu_5x5_reduce
I0403 15:08:57.409541 14153 net.cpp:148] Top shape: 24 32 14 14 (150528)
I0403 15:08:57.409559 14153 net.cpp:156] Memory required for data: 1237333536
I0403 15:08:57.409574 14153 layer_factory.hpp:77] Creating layer inception_4e/5x5
I0403 15:08:57.409615 14153 net.cpp:91] Creating Layer inception_4e/5x5
I0403 15:08:57.409636 14153 net.cpp:425] inception_4e/5x5 <- inception_4e/5x5_reduce
I0403 15:08:57.409654 14153 net.cpp:399] inception_4e/5x5 -> inception_4e/5x5
I0403 15:08:57.411522 14153 net.cpp:141] Setting up inception_4e/5x5
I0403 15:08:57.411557 14153 net.cpp:148] Top shape: 24 128 14 14 (602112)
I0403 15:08:57.411576 14153 net.cpp:156] Memory required for data: 1239741984
I0403 15:08:57.411595 14153 layer_factory.hpp:77] Creating layer inception_4e/relu_5x5
I0403 15:08:57.411615 14153 net.cpp:91] Creating Layer inception_4e/relu_5x5
I0403 15:08:57.411631 14153 net.cpp:425] inception_4e/relu_5x5 <- inception_4e/5x5
I0403 15:08:57.411651 14153 net.cpp:386] inception_4e/relu_5x5 -> inception_4e/5x5 (in-place)
I0403 15:08:57.411852 14153 net.cpp:141] Setting up inception_4e/relu_5x5
I0403 15:08:57.411877 14153 net.cpp:148] Top shape: 24 128 14 14 (602112)
I0403 15:08:57.411891 14153 net.cpp:156] Memory required for data: 1242150432
I0403 15:08:57.411906 14153 layer_factory.hpp:77] Creating layer inception_4e/pool
I0403 15:08:57.411924 14153 net.cpp:91] Creating Layer inception_4e/pool
I0403 15:08:57.411941 14153 net.cpp:425] inception_4e/pool <- inception_4d/output_inception_4d/output_0_split_4
I0403 15:08:57.411960 14153 net.cpp:399] inception_4e/pool -> inception_4e/pool
I0403 15:08:57.412032 14153 net.cpp:141] Setting up inception_4e/pool
I0403 15:08:57.412056 14153 net.cpp:148] Top shape: 24 528 14 14 (2483712)
I0403 15:08:57.412071 14153 net.cpp:156] Memory required for data: 1252085280
I0403 15:08:57.412086 14153 layer_factory.hpp:77] Creating layer inception_4e/pool_proj
I0403 15:08:57.412109 14153 net.cpp:91] Creating Layer inception_4e/pool_proj
I0403 15:08:57.412127 14153 net.cpp:425] inception_4e/pool_proj <- inception_4e/pool
I0403 15:08:57.412145 14153 net.cpp:399] inception_4e/pool_proj -> inception_4e/pool_proj
I0403 15:08:57.413668 14153 net.cpp:141] Setting up inception_4e/pool_proj
I0403 15:08:57.413699 14153 net.cpp:148] Top shape: 24 128 14 14 (602112)
I0403 15:08:57.413730 14153 net.cpp:156] Memory required for data: 1254493728
I0403 15:08:57.413751 14153 layer_factory.hpp:77] Creating layer inception_4e/relu_pool_proj
I0403 15:08:57.413771 14153 net.cpp:91] Creating Layer inception_4e/relu_pool_proj
I0403 15:08:57.413789 14153 net.cpp:425] inception_4e/relu_pool_proj <- inception_4e/pool_proj
I0403 15:08:57.413810 14153 net.cpp:386] inception_4e/relu_pool_proj -> inception_4e/pool_proj (in-place)
I0403 15:08:57.414103 14153 net.cpp:141] Setting up inception_4e/relu_pool_proj
I0403 15:08:57.414134 14153 net.cpp:148] Top shape: 24 128 14 14 (602112)
I0403 15:08:57.414150 14153 net.cpp:156] Memory required for data: 1256902176
I0403 15:08:57.414166 14153 layer_factory.hpp:77] Creating layer inception_4e/output
I0403 15:08:57.414185 14153 net.cpp:91] Creating Layer inception_4e/output
I0403 15:08:57.414201 14153 net.cpp:425] inception_4e/output <- inception_4e/1x1
I0403 15:08:57.414218 14153 net.cpp:425] inception_4e/output <- inception_4e/3x3
I0403 15:08:57.414235 14153 net.cpp:425] inception_4e/output <- inception_4e/5x5
I0403 15:08:57.414252 14153 net.cpp:425] inception_4e/output <- inception_4e/pool_proj
I0403 15:08:57.414270 14153 net.cpp:399] inception_4e/output -> inception_4e/output
I0403 15:08:57.414322 14153 net.cpp:141] Setting up inception_4e/output
I0403 15:08:57.414346 14153 net.cpp:148] Top shape: 24 832 14 14 (3913728)
I0403 15:08:57.414361 14153 net.cpp:156] Memory required for data: 1272557088
I0403 15:08:57.414374 14153 layer_factory.hpp:77] Creating layer pool4/3x3_s2
I0403 15:08:57.414394 14153 net.cpp:91] Creating Layer pool4/3x3_s2
I0403 15:08:57.414412 14153 net.cpp:425] pool4/3x3_s2 <- inception_4e/output
I0403 15:08:57.414429 14153 net.cpp:399] pool4/3x3_s2 -> pool4/3x3_s2
I0403 15:08:57.414499 14153 net.cpp:141] Setting up pool4/3x3_s2
I0403 15:08:57.414533 14153 net.cpp:148] Top shape: 24 832 7 7 (978432)
I0403 15:08:57.414549 14153 net.cpp:156] Memory required for data: 1276470816
I0403 15:08:57.414564 14153 layer_factory.hpp:77] Creating layer pool4/3x3_s2_pool4/3x3_s2_0_split
I0403 15:08:57.414582 14153 net.cpp:91] Creating Layer pool4/3x3_s2_pool4/3x3_s2_0_split
I0403 15:08:57.414597 14153 net.cpp:425] pool4/3x3_s2_pool4/3x3_s2_0_split <- pool4/3x3_s2
I0403 15:08:57.414616 14153 net.cpp:399] pool4/3x3_s2_pool4/3x3_s2_0_split -> pool4/3x3_s2_pool4/3x3_s2_0_split_0
I0403 15:08:57.414638 14153 net.cpp:399] pool4/3x3_s2_pool4/3x3_s2_0_split -> pool4/3x3_s2_pool4/3x3_s2_0_split_1
I0403 15:08:57.414659 14153 net.cpp:399] pool4/3x3_s2_pool4/3x3_s2_0_split -> pool4/3x3_s2_pool4/3x3_s2_0_split_2
I0403 15:08:57.414680 14153 net.cpp:399] pool4/3x3_s2_pool4/3x3_s2_0_split -> pool4/3x3_s2_pool4/3x3_s2_0_split_3
I0403 15:08:57.414772 14153 net.cpp:141] Setting up pool4/3x3_s2_pool4/3x3_s2_0_split
I0403 15:08:57.414798 14153 net.cpp:148] Top shape: 24 832 7 7 (978432)
I0403 15:08:57.414815 14153 net.cpp:148] Top shape: 24 832 7 7 (978432)
I0403 15:08:57.414831 14153 net.cpp:148] Top shape: 24 832 7 7 (978432)
I0403 15:08:57.414847 14153 net.cpp:148] Top shape: 24 832 7 7 (978432)
I0403 15:08:57.414861 14153 net.cpp:156] Memory required for data: 1292125728
I0403 15:08:57.414875 14153 layer_factory.hpp:77] Creating layer inception_5a/1x1
I0403 15:08:57.414897 14153 net.cpp:91] Creating Layer inception_5a/1x1
I0403 15:08:57.414916 14153 net.cpp:425] inception_5a/1x1 <- pool4/3x3_s2_pool4/3x3_s2_0_split_0
I0403 15:08:57.414934 14153 net.cpp:399] inception_5a/1x1 -> inception_5a/1x1
I0403 15:08:57.417840 14153 net.cpp:141] Setting up inception_5a/1x1
I0403 15:08:57.417868 14153 net.cpp:148] Top shape: 24 256 7 7 (301056)
I0403 15:08:57.417886 14153 net.cpp:156] Memory required for data: 1293329952
I0403 15:08:57.417904 14153 layer_factory.hpp:77] Creating layer inception_5a/relu_1x1
I0403 15:08:57.417923 14153 net.cpp:91] Creating Layer inception_5a/relu_1x1
I0403 15:08:57.417939 14153 net.cpp:425] inception_5a/relu_1x1 <- inception_5a/1x1
I0403 15:08:57.417959 14153 net.cpp:386] inception_5a/relu_1x1 -> inception_5a/1x1 (in-place)
I0403 15:08:57.418265 14153 net.cpp:141] Setting up inception_5a/relu_1x1
I0403 15:08:57.418292 14153 net.cpp:148] Top shape: 24 256 7 7 (301056)
I0403 15:08:57.418306 14153 net.cpp:156] Memory required for data: 1294534176
I0403 15:08:57.418320 14153 layer_factory.hpp:77] Creating layer inception_5a/3x3_reduce
I0403 15:08:57.418341 14153 net.cpp:91] Creating Layer inception_5a/3x3_reduce
I0403 15:08:57.418359 14153 net.cpp:425] inception_5a/3x3_reduce <- pool4/3x3_s2_pool4/3x3_s2_0_split_1
I0403 15:08:57.418380 14153 net.cpp:399] inception_5a/3x3_reduce -> inception_5a/3x3_reduce
I0403 15:08:57.420794 14153 net.cpp:141] Setting up inception_5a/3x3_reduce
I0403 15:08:57.420824 14153 net.cpp:148] Top shape: 24 160 7 7 (188160)
I0403 15:08:57.420840 14153 net.cpp:156] Memory required for data: 1295286816
I0403 15:08:57.420856 14153 layer_factory.hpp:77] Creating layer inception_5a/relu_3x3_reduce
I0403 15:08:57.420877 14153 net.cpp:91] Creating Layer inception_5a/relu_3x3_reduce
I0403 15:08:57.420895 14153 net.cpp:425] inception_5a/relu_3x3_reduce <- inception_5a/3x3_reduce
I0403 15:08:57.420912 14153 net.cpp:386] inception_5a/relu_3x3_reduce -> inception_5a/3x3_reduce (in-place)
I0403 15:08:57.421097 14153 net.cpp:141] Setting up inception_5a/relu_3x3_reduce
I0403 15:08:57.421121 14153 net.cpp:148] Top shape: 24 160 7 7 (188160)
I0403 15:08:57.421135 14153 net.cpp:156] Memory required for data: 1296039456
I0403 15:08:57.421149 14153 layer_factory.hpp:77] Creating layer inception_5a/3x3
I0403 15:08:57.421172 14153 net.cpp:91] Creating Layer inception_5a/3x3
I0403 15:08:57.421190 14153 net.cpp:425] inception_5a/3x3 <- inception_5a/3x3_reduce
I0403 15:08:57.421211 14153 net.cpp:399] inception_5a/3x3 -> inception_5a/3x3
I0403 15:08:57.426208 14153 net.cpp:141] Setting up inception_5a/3x3
I0403 15:08:57.426242 14153 net.cpp:148] Top shape: 24 320 7 7 (376320)
I0403 15:08:57.426260 14153 net.cpp:156] Memory required for data: 1297544736
I0403 15:08:57.426280 14153 layer_factory.hpp:77] Creating layer inception_5a/relu_3x3
I0403 15:08:57.426297 14153 net.cpp:91] Creating Layer inception_5a/relu_3x3
I0403 15:08:57.426313 14153 net.cpp:425] inception_5a/relu_3x3 <- inception_5a/3x3
I0403 15:08:57.426332 14153 net.cpp:386] inception_5a/relu_3x3 -> inception_5a/3x3 (in-place)
I0403 15:08:57.426630 14153 net.cpp:141] Setting up inception_5a/relu_3x3
I0403 15:08:57.426657 14153 net.cpp:148] Top shape: 24 320 7 7 (376320)
I0403 15:08:57.426673 14153 net.cpp:156] Memory required for data: 1299050016
I0403 15:08:57.426688 14153 layer_factory.hpp:77] Creating layer inception_5a/5x5_reduce
I0403 15:08:57.426712 14153 net.cpp:91] Creating Layer inception_5a/5x5_reduce
I0403 15:08:57.426728 14153 net.cpp:425] inception_5a/5x5_reduce <- pool4/3x3_s2_pool4/3x3_s2_0_split_2
I0403 15:08:57.426748 14153 net.cpp:399] inception_5a/5x5_reduce -> inception_5a/5x5_reduce
I0403 15:08:57.427901 14153 net.cpp:141] Setting up inception_5a/5x5_reduce
I0403 15:08:57.427930 14153 net.cpp:148] Top shape: 24 32 7 7 (37632)
I0403 15:08:57.427947 14153 net.cpp:156] Memory required for data: 1299200544
I0403 15:08:57.427965 14153 layer_factory.hpp:77] Creating layer inception_5a/relu_5x5_reduce
I0403 15:08:57.427983 14153 net.cpp:91] Creating Layer inception_5a/relu_5x5_reduce
I0403 15:08:57.427999 14153 net.cpp:425] inception_5a/relu_5x5_reduce <- inception_5a/5x5_reduce
I0403 15:08:57.428019 14153 net.cpp:386] inception_5a/relu_5x5_reduce -> inception_5a/5x5_reduce (in-place)
I0403 15:08:57.428319 14153 net.cpp:141] Setting up inception_5a/relu_5x5_reduce
I0403 15:08:57.428346 14153 net.cpp:148] Top shape: 24 32 7 7 (37632)
I0403 15:08:57.428362 14153 net.cpp:156] Memory required for data: 1299351072
I0403 15:08:57.428377 14153 layer_factory.hpp:77] Creating layer inception_5a/5x5
I0403 15:08:57.428400 14153 net.cpp:91] Creating Layer inception_5a/5x5
I0403 15:08:57.428417 14153 net.cpp:425] inception_5a/5x5 <- inception_5a/5x5_reduce
I0403 15:08:57.428437 14153 net.cpp:399] inception_5a/5x5 -> inception_5a/5x5
I0403 15:08:57.430150 14153 net.cpp:141] Setting up inception_5a/5x5
I0403 15:08:57.430191 14153 net.cpp:148] Top shape: 24 128 7 7 (150528)
I0403 15:08:57.430209 14153 net.cpp:156] Memory required for data: 1299953184
I0403 15:08:57.430227 14153 layer_factory.hpp:77] Creating layer inception_5a/relu_5x5
I0403 15:08:57.430253 14153 net.cpp:91] Creating Layer inception_5a/relu_5x5
I0403 15:08:57.430271 14153 net.cpp:425] inception_5a/relu_5x5 <- inception_5a/5x5
I0403 15:08:57.430291 14153 net.cpp:386] inception_5a/relu_5x5 -> inception_5a/5x5 (in-place)
I0403 15:08:57.430481 14153 net.cpp:141] Setting up inception_5a/relu_5x5
I0403 15:08:57.430511 14153 net.cpp:148] Top shape: 24 128 7 7 (150528)
I0403 15:08:57.430528 14153 net.cpp:156] Memory required for data: 1300555296
I0403 15:08:57.430543 14153 layer_factory.hpp:77] Creating layer inception_5a/pool
I0403 15:08:57.430562 14153 net.cpp:91] Creating Layer inception_5a/pool
I0403 15:08:57.430577 14153 net.cpp:425] inception_5a/pool <- pool4/3x3_s2_pool4/3x3_s2_0_split_3
I0403 15:08:57.430598 14153 net.cpp:399] inception_5a/pool -> inception_5a/pool
I0403 15:08:57.430667 14153 net.cpp:141] Setting up inception_5a/pool
I0403 15:08:57.430691 14153 net.cpp:148] Top shape: 24 832 7 7 (978432)
I0403 15:08:57.430706 14153 net.cpp:156] Memory required for data: 1304469024
I0403 15:08:57.430719 14153 layer_factory.hpp:77] Creating layer inception_5a/pool_proj
I0403 15:08:57.430743 14153 net.cpp:91] Creating Layer inception_5a/pool_proj
I0403 15:08:57.430762 14153 net.cpp:425] inception_5a/pool_proj <- inception_5a/pool
I0403 15:08:57.430779 14153 net.cpp:399] inception_5a/pool_proj -> inception_5a/pool_proj
I0403 15:08:57.433037 14153 net.cpp:141] Setting up inception_5a/pool_proj
I0403 15:08:57.433070 14153 net.cpp:148] Top shape: 24 128 7 7 (150528)
I0403 15:08:57.433089 14153 net.cpp:156] Memory required for data: 1305071136
I0403 15:08:57.433107 14153 layer_factory.hpp:77] Creating layer inception_5a/relu_pool_proj
I0403 15:08:57.433125 14153 net.cpp:91] Creating Layer inception_5a/relu_pool_proj
I0403 15:08:57.433141 14153 net.cpp:425] inception_5a/relu_pool_proj <- inception_5a/pool_proj
I0403 15:08:57.433159 14153 net.cpp:386] inception_5a/relu_pool_proj -> inception_5a/pool_proj (in-place)
I0403 15:08:57.433451 14153 net.cpp:141] Setting up inception_5a/relu_pool_proj
I0403 15:08:57.433480 14153 net.cpp:148] Top shape: 24 128 7 7 (150528)
I0403 15:08:57.433495 14153 net.cpp:156] Memory required for data: 1305673248
I0403 15:08:57.433514 14153 layer_factory.hpp:77] Creating layer inception_5a/output
I0403 15:08:57.433532 14153 net.cpp:91] Creating Layer inception_5a/output
I0403 15:08:57.433548 14153 net.cpp:425] inception_5a/output <- inception_5a/1x1
I0403 15:08:57.433564 14153 net.cpp:425] inception_5a/output <- inception_5a/3x3
I0403 15:08:57.433579 14153 net.cpp:425] inception_5a/output <- inception_5a/5x5
I0403 15:08:57.433595 14153 net.cpp:425] inception_5a/output <- inception_5a/pool_proj
I0403 15:08:57.433612 14153 net.cpp:399] inception_5a/output -> inception_5a/output
I0403 15:08:57.433663 14153 net.cpp:141] Setting up inception_5a/output
I0403 15:08:57.433686 14153 net.cpp:148] Top shape: 24 832 7 7 (978432)
I0403 15:08:57.433701 14153 net.cpp:156] Memory required for data: 1309586976
I0403 15:08:57.433714 14153 layer_factory.hpp:77] Creating layer inception_5a/output_inception_5a/output_0_split
I0403 15:08:57.433732 14153 net.cpp:91] Creating Layer inception_5a/output_inception_5a/output_0_split
I0403 15:08:57.433748 14153 net.cpp:425] inception_5a/output_inception_5a/output_0_split <- inception_5a/output
I0403 15:08:57.433765 14153 net.cpp:399] inception_5a/output_inception_5a/output_0_split -> inception_5a/output_inception_5a/output_0_split_0
I0403 15:08:57.433785 14153 net.cpp:399] inception_5a/output_inception_5a/output_0_split -> inception_5a/output_inception_5a/output_0_split_1
I0403 15:08:57.433805 14153 net.cpp:399] inception_5a/output_inception_5a/output_0_split -> inception_5a/output_inception_5a/output_0_split_2
I0403 15:08:57.433826 14153 net.cpp:399] inception_5a/output_inception_5a/output_0_split -> inception_5a/output_inception_5a/output_0_split_3
I0403 15:08:57.433936 14153 net.cpp:141] Setting up inception_5a/output_inception_5a/output_0_split
I0403 15:08:57.433959 14153 net.cpp:148] Top shape: 24 832 7 7 (978432)
I0403 15:08:57.433975 14153 net.cpp:148] Top shape: 24 832 7 7 (978432)
I0403 15:08:57.433990 14153 net.cpp:148] Top shape: 24 832 7 7 (978432)
I0403 15:08:57.434006 14153 net.cpp:148] Top shape: 24 832 7 7 (978432)
I0403 15:08:57.434020 14153 net.cpp:156] Memory required for data: 1325241888
I0403 15:08:57.434033 14153 layer_factory.hpp:77] Creating layer inception_5b/1x1
I0403 15:08:57.434054 14153 net.cpp:91] Creating Layer inception_5b/1x1
I0403 15:08:57.434072 14153 net.cpp:425] inception_5b/1x1 <- inception_5a/output_inception_5a/output_0_split_0
I0403 15:08:57.434093 14153 net.cpp:399] inception_5b/1x1 -> inception_5b/1x1
I0403 15:08:57.437841 14153 net.cpp:141] Setting up inception_5b/1x1
I0403 15:08:57.437872 14153 net.cpp:148] Top shape: 24 384 7 7 (451584)
I0403 15:08:57.437891 14153 net.cpp:156] Memory required for data: 1327048224
I0403 15:08:57.437908 14153 layer_factory.hpp:77] Creating layer inception_5b/relu_1x1
I0403 15:08:57.437930 14153 net.cpp:91] Creating Layer inception_5b/relu_1x1
I0403 15:08:57.437949 14153 net.cpp:425] inception_5b/relu_1x1 <- inception_5b/1x1
I0403 15:08:57.437968 14153 net.cpp:386] inception_5b/relu_1x1 -> inception_5b/1x1 (in-place)
I0403 15:08:57.438263 14153 net.cpp:141] Setting up inception_5b/relu_1x1
I0403 15:08:57.438290 14153 net.cpp:148] Top shape: 24 384 7 7 (451584)
I0403 15:08:57.438307 14153 net.cpp:156] Memory required for data: 1328854560
I0403 15:08:57.438321 14153 layer_factory.hpp:77] Creating layer inception_5b/3x3_reduce
I0403 15:08:57.438345 14153 net.cpp:91] Creating Layer inception_5b/3x3_reduce
I0403 15:08:57.438364 14153 net.cpp:425] inception_5b/3x3_reduce <- inception_5a/output_inception_5a/output_0_split_1
I0403 15:08:57.438385 14153 net.cpp:399] inception_5b/3x3_reduce -> inception_5b/3x3_reduce
I0403 15:08:57.441016 14153 net.cpp:141] Setting up inception_5b/3x3_reduce
I0403 15:08:57.441050 14153 net.cpp:148] Top shape: 24 192 7 7 (225792)
I0403 15:08:57.441066 14153 net.cpp:156] Memory required for data: 1329757728
I0403 15:08:57.441085 14153 layer_factory.hpp:77] Creating layer inception_5b/relu_3x3_reduce
I0403 15:08:57.441107 14153 net.cpp:91] Creating Layer inception_5b/relu_3x3_reduce
I0403 15:08:57.441123 14153 net.cpp:425] inception_5b/relu_3x3_reduce <- inception_5b/3x3_reduce
I0403 15:08:57.441139 14153 net.cpp:386] inception_5b/relu_3x3_reduce -> inception_5b/3x3_reduce (in-place)
I0403 15:08:57.441329 14153 net.cpp:141] Setting up inception_5b/relu_3x3_reduce
I0403 15:08:57.441354 14153 net.cpp:148] Top shape: 24 192 7 7 (225792)
I0403 15:08:57.441367 14153 net.cpp:156] Memory required for data: 1330660896
I0403 15:08:57.441382 14153 layer_factory.hpp:77] Creating layer inception_5b/3x3
I0403 15:08:57.441403 14153 net.cpp:91] Creating Layer inception_5b/3x3
I0403 15:08:57.441421 14153 net.cpp:425] inception_5b/3x3 <- inception_5b/3x3_reduce
I0403 15:08:57.441442 14153 net.cpp:399] inception_5b/3x3 -> inception_5b/3x3
I0403 15:08:57.448000 14153 net.cpp:141] Setting up inception_5b/3x3
I0403 15:08:57.448032 14153 net.cpp:148] Top shape: 24 384 7 7 (451584)
I0403 15:08:57.448050 14153 net.cpp:156] Memory required for data: 1332467232
I0403 15:08:57.448070 14153 layer_factory.hpp:77] Creating layer inception_5b/relu_3x3
I0403 15:08:57.448088 14153 net.cpp:91] Creating Layer inception_5b/relu_3x3
I0403 15:08:57.448106 14153 net.cpp:425] inception_5b/relu_3x3 <- inception_5b/3x3
I0403 15:08:57.448123 14153 net.cpp:386] inception_5b/relu_3x3 -> inception_5b/3x3 (in-place)
I0403 15:08:57.448418 14153 net.cpp:141] Setting up inception_5b/relu_3x3
I0403 15:08:57.448448 14153 net.cpp:148] Top shape: 24 384 7 7 (451584)
I0403 15:08:57.448467 14153 net.cpp:156] Memory required for data: 1334273568
I0403 15:08:57.448482 14153 layer_factory.hpp:77] Creating layer inception_5b/5x5_reduce
I0403 15:08:57.448523 14153 net.cpp:91] Creating Layer inception_5b/5x5_reduce
I0403 15:08:57.448545 14153 net.cpp:425] inception_5b/5x5_reduce <- inception_5a/output_inception_5a/output_0_split_2
I0403 15:08:57.448565 14153 net.cpp:399] inception_5b/5x5_reduce -> inception_5b/5x5_reduce
I0403 15:08:57.449811 14153 net.cpp:141] Setting up inception_5b/5x5_reduce
I0403 15:08:57.449841 14153 net.cpp:148] Top shape: 24 48 7 7 (56448)
I0403 15:08:57.449861 14153 net.cpp:156] Memory required for data: 1334499360
I0403 15:08:57.449878 14153 layer_factory.hpp:77] Creating layer inception_5b/relu_5x5_reduce
I0403 15:08:57.449898 14153 net.cpp:91] Creating Layer inception_5b/relu_5x5_reduce
I0403 15:08:57.449914 14153 net.cpp:425] inception_5b/relu_5x5_reduce <- inception_5b/5x5_reduce
I0403 15:08:57.449935 14153 net.cpp:386] inception_5b/relu_5x5_reduce -> inception_5b/5x5_reduce (in-place)
I0403 15:08:57.450302 14153 net.cpp:141] Setting up inception_5b/relu_5x5_reduce
I0403 15:08:57.450327 14153 net.cpp:148] Top shape: 24 48 7 7 (56448)
I0403 15:08:57.450342 14153 net.cpp:156] Memory required for data: 1334725152
I0403 15:08:57.450357 14153 layer_factory.hpp:77] Creating layer inception_5b/5x5
I0403 15:08:57.450376 14153 net.cpp:91] Creating Layer inception_5b/5x5
I0403 15:08:57.450392 14153 net.cpp:425] inception_5b/5x5 <- inception_5b/5x5_reduce
I0403 15:08:57.450412 14153 net.cpp:399] inception_5b/5x5 -> inception_5b/5x5
I0403 15:08:57.452412 14153 net.cpp:141] Setting up inception_5b/5x5
I0403 15:08:57.452440 14153 net.cpp:148] Top shape: 24 128 7 7 (150528)
I0403 15:08:57.452456 14153 net.cpp:156] Memory required for data: 1335327264
I0403 15:08:57.452474 14153 layer_factory.hpp:77] Creating layer inception_5b/relu_5x5
I0403 15:08:57.452494 14153 net.cpp:91] Creating Layer inception_5b/relu_5x5
I0403 15:08:57.452517 14153 net.cpp:425] inception_5b/relu_5x5 <- inception_5b/5x5
I0403 15:08:57.452539 14153 net.cpp:386] inception_5b/relu_5x5 -> inception_5b/5x5 (in-place)
I0403 15:08:57.452733 14153 net.cpp:141] Setting up inception_5b/relu_5x5
I0403 15:08:57.452756 14153 net.cpp:148] Top shape: 24 128 7 7 (150528)
I0403 15:08:57.452771 14153 net.cpp:156] Memory required for data: 1335929376
I0403 15:08:57.452785 14153 layer_factory.hpp:77] Creating layer inception_5b/pool
I0403 15:08:57.452805 14153 net.cpp:91] Creating Layer inception_5b/pool
I0403 15:08:57.452822 14153 net.cpp:425] inception_5b/pool <- inception_5a/output_inception_5a/output_0_split_3
I0403 15:08:57.452841 14153 net.cpp:399] inception_5b/pool -> inception_5b/pool
I0403 15:08:57.452920 14153 net.cpp:141] Setting up inception_5b/pool
I0403 15:08:57.452944 14153 net.cpp:148] Top shape: 24 832 7 7 (978432)
I0403 15:08:57.452958 14153 net.cpp:156] Memory required for data: 1339843104
I0403 15:08:57.452972 14153 layer_factory.hpp:77] Creating layer inception_5b/pool_proj
I0403 15:08:57.452994 14153 net.cpp:91] Creating Layer inception_5b/pool_proj
I0403 15:08:57.453011 14153 net.cpp:425] inception_5b/pool_proj <- inception_5b/pool
I0403 15:08:57.453032 14153 net.cpp:399] inception_5b/pool_proj -> inception_5b/pool_proj
I0403 15:08:57.455291 14153 net.cpp:141] Setting up inception_5b/pool_proj
I0403 15:08:57.455323 14153 net.cpp:148] Top shape: 24 128 7 7 (150528)
I0403 15:08:57.455343 14153 net.cpp:156] Memory required for data: 1340445216
I0403 15:08:57.455361 14153 layer_factory.hpp:77] Creating layer inception_5b/relu_pool_proj
I0403 15:08:57.455381 14153 net.cpp:91] Creating Layer inception_5b/relu_pool_proj
I0403 15:08:57.455397 14153 net.cpp:425] inception_5b/relu_pool_proj <- inception_5b/pool_proj
I0403 15:08:57.455416 14153 net.cpp:386] inception_5b/relu_pool_proj -> inception_5b/pool_proj (in-place)
I0403 15:08:57.455719 14153 net.cpp:141] Setting up inception_5b/relu_pool_proj
I0403 15:08:57.455747 14153 net.cpp:148] Top shape: 24 128 7 7 (150528)
I0403 15:08:57.455762 14153 net.cpp:156] Memory required for data: 1341047328
I0403 15:08:57.455777 14153 layer_factory.hpp:77] Creating layer inception_5b/output
I0403 15:08:57.455796 14153 net.cpp:91] Creating Layer inception_5b/output
I0403 15:08:57.455824 14153 net.cpp:425] inception_5b/output <- inception_5b/1x1
I0403 15:08:57.455842 14153 net.cpp:425] inception_5b/output <- inception_5b/3x3
I0403 15:08:57.455858 14153 net.cpp:425] inception_5b/output <- inception_5b/5x5
I0403 15:08:57.455874 14153 net.cpp:425] inception_5b/output <- inception_5b/pool_proj
I0403 15:08:57.455893 14153 net.cpp:399] inception_5b/output -> inception_5b/output
I0403 15:08:57.455945 14153 net.cpp:141] Setting up inception_5b/output
I0403 15:08:57.455967 14153 net.cpp:148] Top shape: 24 1024 7 7 (1204224)
I0403 15:08:57.455981 14153 net.cpp:156] Memory required for data: 1345864224
I0403 15:08:57.455996 14153 layer_factory.hpp:77] Creating layer pool5/7x7_s1
I0403 15:08:57.456015 14153 net.cpp:91] Creating Layer pool5/7x7_s1
I0403 15:08:57.456032 14153 net.cpp:425] pool5/7x7_s1 <- inception_5b/output
I0403 15:08:57.456050 14153 net.cpp:399] pool5/7x7_s1 -> pool5/7x7_s1
I0403 15:08:57.456259 14153 net.cpp:141] Setting up pool5/7x7_s1
I0403 15:08:57.456286 14153 net.cpp:148] Top shape: 24 1024 1 1 (24576)
I0403 15:08:57.456302 14153 net.cpp:156] Memory required for data: 1345962528
I0403 15:08:57.456316 14153 layer_factory.hpp:77] Creating layer pool5/drop_7x7_s1
I0403 15:08:57.456333 14153 net.cpp:91] Creating Layer pool5/drop_7x7_s1
I0403 15:08:57.456349 14153 net.cpp:425] pool5/drop_7x7_s1 <- pool5/7x7_s1
I0403 15:08:57.456368 14153 net.cpp:386] pool5/drop_7x7_s1 -> pool5/7x7_s1 (in-place)
I0403 15:08:57.456418 14153 net.cpp:141] Setting up pool5/drop_7x7_s1
I0403 15:08:57.456439 14153 net.cpp:148] Top shape: 24 1024 1 1 (24576)
I0403 15:08:57.456454 14153 net.cpp:156] Memory required for data: 1346060832
I0403 15:08:57.456467 14153 layer_factory.hpp:77] Creating layer loss3/classifier_plantvillage
I0403 15:08:57.456488 14153 net.cpp:91] Creating Layer loss3/classifier_plantvillage
I0403 15:08:57.456508 14153 net.cpp:425] loss3/classifier_plantvillage <- pool5/7x7_s1
I0403 15:08:57.456531 14153 net.cpp:399] loss3/classifier_plantvillage -> loss3/classifier_plantvillage
I0403 15:08:57.456946 14153 net.cpp:141] Setting up loss3/classifier_plantvillage
I0403 15:08:57.456970 14153 net.cpp:148] Top shape: 24 38 (912)
I0403 15:08:57.456984 14153 net.cpp:156] Memory required for data: 1346064480
I0403 15:08:57.457002 14153 layer_factory.hpp:77] Creating layer loss3/classifier_plantvillage_loss3/classifier_plantvillage_0_split
I0403 15:08:57.457023 14153 net.cpp:91] Creating Layer loss3/classifier_plantvillage_loss3/classifier_plantvillage_0_split
I0403 15:08:57.457039 14153 net.cpp:425] loss3/classifier_plantvillage_loss3/classifier_plantvillage_0_split <- loss3/classifier_plantvillage
I0403 15:08:57.457057 14153 net.cpp:399] loss3/classifier_plantvillage_loss3/classifier_plantvillage_0_split -> loss3/classifier_plantvillage_loss3/classifier_plantvillage_0_split_0
I0403 15:08:57.457077 14153 net.cpp:399] loss3/classifier_plantvillage_loss3/classifier_plantvillage_0_split -> loss3/classifier_plantvillage_loss3/classifier_plantvillage_0_split_1
I0403 15:08:57.457098 14153 net.cpp:399] loss3/classifier_plantvillage_loss3/classifier_plantvillage_0_split -> loss3/classifier_plantvillage_loss3/classifier_plantvillage_0_split_2
I0403 15:08:57.457118 14153 net.cpp:399] loss3/classifier_plantvillage_loss3/classifier_plantvillage_0_split -> loss3/classifier_plantvillage_loss3/classifier_plantvillage_0_split_3
I0403 15:08:57.457217 14153 net.cpp:141] Setting up loss3/classifier_plantvillage_loss3/classifier_plantvillage_0_split
I0403 15:08:57.457240 14153 net.cpp:148] Top shape: 24 38 (912)
I0403 15:08:57.457257 14153 net.cpp:148] Top shape: 24 38 (912)
I0403 15:08:57.457273 14153 net.cpp:148] Top shape: 24 38 (912)
I0403 15:08:57.457288 14153 net.cpp:148] Top shape: 24 38 (912)
I0403 15:08:57.457300 14153 net.cpp:156] Memory required for data: 1346079072
I0403 15:08:57.457314 14153 layer_factory.hpp:77] Creating layer loss1/loss
I0403 15:08:57.457334 14153 net.cpp:91] Creating Layer loss1/loss
I0403 15:08:57.457351 14153 net.cpp:425] loss1/loss <- loss1/classifier_plantvillage_loss1/classifier_plantvillage_0_split_0
I0403 15:08:57.457382 14153 net.cpp:425] loss1/loss <- label_data_1_split_0
…
