…
I0403 15:10:42.493651 14196 net.cpp:313] The NetState phase (1) differed from the phase (0) specified by a rule in layer data
I0403 15:10:42.494794 14196 net.cpp:49] Initializing net from parameters: 
state {
  phase: TEST
}
layer {
  name: "data"
  type: "Data"
  top: "data"
  top: "label"
  include {
    phase: TEST
  }
  transform_param {
    mirror: false
    crop_size: 224
    mean_file: "/home/mohanty/data/final_dataset/lmdb/color-50-50/mean.binaryproto"
  }
  data_param {
    source: "/home/mohanty/data/final_dataset/lmdb/color-50-50/test_db"
    batch_size: 24
    backend: LMDB
  }
}
layer {
  name: "conv1/7x7_s2"
  type: "Convolution"
  bottom: "data"
  top: "conv1/7x7_s2"
  param {
    lr_mult: 1
    decay_mult: 1
  }
  param {
    lr_mult: 2
    decay_mult: 0
  }
  convolution_param {
    num_output: 64
    pad: 3
    kernel_size: 7
    stride: 2
    weight_filler {
      type: "xavier"
      std: 0.1
    }
    bias_filler {
      type: "constant"
      value: 0.2
    }
  }
}
layer {
  name: "conv1/relu_7x7"
  type: "ReLU"
  bottom: "conv1/7x7_s2"
  top: "conv1/7x7_s2"
}
layer {
  name: "pool1/3x3_s2"
  type: "Pooling"
  bottom: "conv1/7x7_s2"
  top: "pool1/3x3_s2"
  pooling_param {
    pool: MAX
    kernel_size: 3
    stride: 2
  }
}
layer {
  name: "pool1/norm1"
  type: "LRN"
  bottom: "pool1/3x3_s2"
  top: "pool1/norm1"
  lrn_param {
    local_size: 5
    alpha: 0.0001
    beta: 0.75
  }
}
layer {
  name: "conv2/3x3_reduce"
  type: "Convolution"
  bottom: "pool1/norm1"
  top: "conv2/3x3_reduce"
  param {
    lr_mult: 1
    decay_mult: 1
  }
  param {
    lr_mult: 2
    decay_mult: 0
  }
  convolution_param {
    num_output: 64
    kernel_size: 1
    weight_filler {
      type: "xavier"
      std: 0.1
    }
    bias_filler {
      type: "constant"
      value: 0.2
    }
  }
}
layer {
  name: "conv2/relu_3x3_reduce"
  type: "ReLU"
  bottom: "conv2/3x3_reduce"
  top: "conv2/3x3_reduce"
}
layer {
  name: "conv2/3x3"
  type: "Convolution"
  bottom: "conv2/3x3_reduce"
  top: "conv2/3x3"
  param {
    lr_mult: 1
    decay_mult: 1
  }
  param {
    lr_mult: 2
    decay_mult: 0
  }
  convolution_param {
    num_output: 192
    pad: 1
    kernel_size: 3
    weight_filler {
      type: "xavier"
      std: 0.03
    }
    bias_filler {
      type: "constant"
      value: 0.2
    }
  }
}
layer {
  name: "conv2/relu_3x3"
  type: "ReLU"
  bottom: "conv2/3x3"
  top: "conv2/3x3"
}
layer {
  name: "conv2/norm2"
  type: "LRN"
  bottom: "conv2/3x3"
  top: "conv2/norm2"
  lrn_param {
    local_size: 5
    alpha: 0.0001
    beta: 0.75
  }
}
layer {
  name: "pool2/3x3_s2"
  type: "Pooling"
  bottom: "conv2/norm2"
  top: "pool2/3x3_s2"
  pooling_param {
    pool: MAX
    kernel_size: 3
    stride: 2
  }
}
layer {
  name: "inception_3a/1x1"
  type: "Convolution"
  bottom: "pool2/3x3_s2"
  top: "inception_3a/1x1"
  param {
    lr_mult: 1
    decay_mult: 1
  }
  param {
    lr_mult: 2
    decay_mult: 0
  }
  convolution_param {
    num_output: 64
    kernel_size: 1
    weight_filler {
      type: "xavier"
      std: 0.03
    }
    bias_filler {
      type: "constant"
      value: 0.2
    }
  }
}
layer {
  name: "inception_3a/relu_1x1"
  type: "ReLU"
  bottom: "inception_3a/1x1"
  top: "inception_3a/1x1"
}
layer {
  name: "inception_3a/3x3_reduce"
  type: "Convolution"
  bottom: "pool2/3x3_s2"
  top: "inception_3a/3x3_reduce"
  param {
    lr_mult: 1
    decay_mult: 1
  }
  param {
    lr_mult: 2
    decay_mult: 0
  }
  convolution_param {
    num_output: 96
    kernel_size: 1
    weight_filler {
      type: "xavier"
      std: 0.09
    }
    bias_filler {
      type: "constant"
      value: 0.2
    }
  }
}
layer {
  name: "inception_3a/relu_3x3_reduce"
  type: "ReLU"
  bottom: "inception_3a/3x3_reduce"
  top: "inception_3a/3x3_reduce"
}
layer {
  name: "inception_3a/3x3"
  type: "Convolution"
  bottom: "inception_3a/3x3_reduce"
  top: "inception_3a/3x3"
  param {
    lr_mult: 1
    decay_mult: 1
  }
  param {
    lr_mult: 2
    decay_mult: 0
  }
  convolution_param {
    num_output: 128
    pad: 1
    kernel_size: 3
    weight_filler {
      type: "xavier"
      std: 0.03
    }
    bias_filler {
      type: "constant"
      value: 0.2
    }
  }
}
layer {
  name: "inception_3a/relu_3x3"
  type: "ReLU"
  bottom: "inception_3a/3x3"
  top: "inception_3a/3x3"
}
layer {
  name: "inception_3a/5x5_reduce"
  type: "Convolution"
  bottom: "pool2/3x3_s2"
  top: "inception_3a/5x5_reduce"
  param {
    lr_mult: 1
    decay_mult: 1
  }
  param {
    lr_mult: 2
    decay_mult: 0
  }
  convolution_param {
    num_output: 16
    kernel_size: 1
    weight_filler {
      type: "xavier"
      std: 0.2
    }
    bias_filler {
      type: "constant"
      value: 0.2
    }
  }
}
layer {
  name: "inception_3a/relu_5x5_reduce"
  type: "ReLU"
  bottom: "inception_3a/5x5_reduce"
  top: "inception_3a/5x5_reduce"
}
layer {
  name: "inception_3a/5x5"
  type: "Convolution"
  bottom: "inception_3a/5x5_reduce"
  top: "inception_3a/5x5"
  param {
    lr_mult: 1
    decay_mult: 1
  }
  param {
    lr_mult: 2
    decay_mult: 0
  }
  convolution_param {
    num_output: 32
    pad: 2
    kernel_size: 5
    weight_filler {
      type: "xavier"
      std: 0.03
    }
    bias_filler {
      type: "constant"
      value: 0.2
    }
  }
}
layer {
  name: "inception_3a/relu_5x5"
  type: "ReLU"
  bottom: "inception_3a/5x5"
  top: "inception_3a/5x5"
}
layer {
  name: "inception_3a/pool"
  type: "Pooling"
  bottom: "pool2/3x3_s2"
  top: "inception_3a/pool"
  pooling_param {
    pool: MAX
    kernel_size: 3
    stride: 1
    pad: 1
  }
}
layer {
  name: "inception_3a/pool_proj"
  type: "Convolution"
  bottom: "inception_3a/pool"
  top: "inception_3a/pool_proj"
  param {
    lr_mult: 1
    decay_mult: 1
  }
  param {
    lr_mult: 2
    decay_mult: 0
  }
  convolution_param {
    num_output: 32
    kernel_size: 1
    weight_filler {
      type: "xavier"
      std: 0.1
    }
    bias_filler {
      type: "constant"
      value: 0.2
    }
  }
}
layer {
  name: "inception_3a/relu_pool_proj"
  type: "ReLU"
  bottom: "inception_3a/pool_proj"
  top: "inception_3a/pool_proj"
}
layer {
  name: "inception_3a/output"
  type: "Concat"
  bottom: "inception_3a/1x1"
  bottom: "inception_3a/3x3"
  bottom: "inception_3a/5x5"
  bottom: "inception_3a/pool_proj"
  top: "inception_3a/output"
}
layer {
  name: "inception_3b/1x1"
  type: "Convolution"
  bottom: "inception_3a/output"
  top: "inception_3b/1x1"
  param {
    lr_mult: 1
    decay_mult: 1
  }
  param {
    lr_mult: 2
    decay_mult: 0
  }
  convolution_param {
    num_output: 128
    kernel_size: 1
    weight_filler {
      type: "xavier"
      std: 0.03
    }
    bias_filler {
      type: "constant"
      value: 0.2
    }
  }
}
layer {
  name: "inception_3b/relu_1x1"
  type: "ReLU"
  bottom: "inception_3b/1x1"
  top: "inception_3b/1x1"
}
layer {
  name: "inception_3b/3x3_reduce"
  type: "Convolution"
  bottom: "inception_3a/output"
  top: "inception_3b/3x3_reduce"
  param {
    lr_mult: 1
    decay_mult: 1
  }
  param {
    lr_mult: 2
    decay_mult: 0
  }
  convolution_param {
    num_output: 128
    kernel_size: 1
    weight_filler {
      type: "xavier"
      std: 0.09
    }
    bias_filler {
      type: "constant"
      value: 0.2
    }
  }
}
layer {
  name: "inception_3b/relu_3x3_reduce"
  type: "ReLU"
  bottom: "inception_3b/3x3_reduce"
  top: "inception_3b/3x3_reduce"
}
layer {
  name: "inception_3b/3x3"
  type: "Convolution"
  bottom: "inception_3b/3x3_reduce"
  top: "inception_3b/3x3"
  param {
    lr_mult: 1
    decay_mult: 1
  }
  param {
    lr_mult: 2
    decay_mult: 0
  }
  convolution_param {
    num_output: 192
    pad: 1
    kernel_size: 3
    weight_filler {
      type: "xavier"
      std: 0.03
    }
    bias_filler {
      type: "constant"
      value: 0.2
    }
  }
}
layer {
  name: "inception_3b/relu_3x3"
  type: "ReLU"
  bottom: "inception_3b/3x3"
  top: "inception_3b/3x3"
}
layer {
  name: "inception_3b/5x5_reduce"
  type: "Convolution"
  bottom: "inception_3a/output"
  top: "inception_3b/5x5_reduce"
  param {
    lr_mult: 1
    decay_mult: 1
  }
  param {
    lr_mult: 2
    decay_mult: 0
  }
  convolution_param {
    num_output: 32
    kernel_size: 1
    weight_filler {
      type: "xavier"
      std: 0.2
    }
    bias_filler {
      type: "constant"
      value: 0.2
    }
  }
}
layer {
  name: "inception_3b/relu_5x5_reduce"
  type: "ReLU"
  bottom: "inception_3b/5x5_reduce"
  top: "inception_3b/5x5_reduce"
}
layer {
  name: "inception_3b/5x5"
  type: "Convolution"
  bottom: "inception_3b/5x5_reduce"
  top: "inception_3b/5x5"
  param {
    lr_mult: 1
    decay_mult: 1
  }
  param {
    lr_mult: 2
    decay_mult: 0
  }
  convolution_param {
    num_output: 96
    pad: 2
    kernel_size: 5
    weight_filler {
      type: "xavier"
      std: 0.03
    }
    bias_filler {
      type: "constant"
      value: 0.2
    }
  }
}
layer {
  name: "inception_3b/relu_5x5"
  type: "ReLU"
  bottom: "inception_3b/5x5"
  top: "inception_3b/5x5"
}
layer {
  name: "inception_3b/pool"
  type: "Pooling"
  bottom: "inception_3a/output"
  top: "inception_3b/pool"
  pooling_param {
    pool: MAX
    kernel_size: 3
    stride: 1
    pad: 1
  }
}
layer {
  name: "inception_3b/pool_proj"
  type: "Convolution"
  bottom: "inception_3b/pool"
  top: "inception_3b/pool_proj"
  param {
    lr_mult: 1
    decay_mult: 1
  }
  param {
    lr_mult: 2
    decay_mult: 0
  }
  convolution_param {
    num_output: 64
    kernel_size: 1
    weight_filler {
      type: "xavier"
      std: 0.1
    }
    bias_filler {
      type: "constant"
      value: 0.2
    }
  }
}
layer {
  name: "inception_3b/relu_pool_proj"
  type: "ReLU"
  bottom: "inception_3b/pool_proj"
  top: "inception_3b/pool_proj"
}
layer {
  name: "inception_3b/output"
  type: "Concat"
  bottom: "inception_3b/1x1"
  bottom: "inception_3b/3x3"
  bottom: "inception_3b/5x5"
  bottom: "inception_3b/pool_proj"
  top: "inception_3b/output"
}
layer {
  name: "pool3/3x3_s2"
  type: "Pooling"
  bottom: "inception_3b/output"
  top: "pool3/3x3_s2"
  pooling_param {
    pool: MAX
    kernel_size: 3
    stride: 2
  }
}
layer {
  name: "inception_4a/1x1"
  type: "Convolution"
  bottom: "pool3/3x3_s2"
  top: "inception_4a/1x1"
  param {
    lr_mult: 1
    decay_mult: 1
  }
  param {
    lr_mult: 2
    decay_mult: 0
  }
  convolution_param {
    num_output: 192
    kernel_size: 1
    weight_filler {
      type: "xavier"
      std: 0.03
    }
    bias_filler {
      type: "constant"
      value: 0.2
    }
  }
}
layer {
  name: "inception_4a/relu_1x1"
  type: "ReLU"
  bottom: "inception_4a/1x1"
  top: "inception_4a/1x1"
}
layer {
  name: "inception_4a/3x3_reduce"
  type: "Convolution"
  bottom: "pool3/3x3_s2"
  top: "inception_4a/3x3_reduce"
  param {
    lr_mult: 1
    decay_mult: 1
  }
  param {
    lr_mult: 2
    decay_mult: 0
  }
  convolution_param {
    num_output: 96
    kernel_size: 1
    weight_filler {
      type: "xavier"
      std: 0.09
    }
    bias_filler {
      type: "constant"
      value: 0.2
    }
  }
}
layer {
  name: "inception_4a/relu_3x3_reduce"
  type: "ReLU"
  bottom: "inception_4a/3x3_reduce"
  top: "inception_4a/3x3_reduce"
}
layer {
  name: "inception_4a/3x3"
  type: "Convolution"
  bottom: "inception_4a/3x3_reduce"
  top: "inception_4a/3x3"
  param {
    lr_mult: 1
    decay_mult: 1
  }
  param {
    lr_mult: 2
    decay_mult: 0
  }
  convolution_param {
    num_output: 208
    pad: 1
    kernel_size: 3
    weight_filler {
      type: "xavier"
      std: 0.03
    }
    bias_filler {
      type: "constant"
      value: 0.2
    }
  }
}
layer {
  name: "inception_4a/relu_3x3"
  type: "ReLU"
  bottom: "inception_4a/3x3"
  top: "inception_4a/3x3"
}
layer {
  name: "inception_4a/5x5_reduce"
  type: "Convolution"
  bottom: "pool3/3x3_s2"
  top: "inception_4a/5x5_reduce"
  param {
    lr_mult: 1
    decay_mult: 1
  }
  param {
    lr_mult: 2
    decay_mult: 0
  }
  convolution_param {
    num_output: 16
    kernel_size: 1
    weight_filler {
      type: "xavier"
      std: 0.2
    }
    bias_filler {
      type: "constant"
      value: 0.2
    }
  }
}
layer {
  name: "inception_4a/relu_5x5_reduce"
  type: "ReLU"
  bottom: "inception_4a/5x5_reduce"
  top: "inception_4a/5x5_reduce"
}
layer {
  name: "inception_4a/5x5"
  type: "Convolution"
  bottom: "inception_4a/5x5_reduce"
  top: "inception_4a/5x5"
  param {
    lr_mult: 1
    decay_mult: 1
  }
  param {
    lr_mult: 2
    decay_mult: 0
  }
  convolution_param {
    num_output: 48
    pad: 2
    kernel_size: 5
    weight_filler {
      type: "xavier"
      std: 0.03
    }
    bias_filler {
      type: "constant"
      value: 0.2
    }
  }
}
layer {
  name: "inception_4a/relu_5x5"
  type: "ReLU"
  bottom: "inception_4a/5x5"
  top: "inception_4a/5x5"
}
layer {
  name: "inception_4a/pool"
  type: "Pooling"
  bottom: "pool3/3x3_s2"
  top: "inception_4a/pool"
  pooling_param {
    pool: MAX
    kernel_size: 3
    stride: 1
    pad: 1
  }
}
layer {
  name: "inception_4a/pool_proj"
  type: "Convolution"
  bottom: "inception_4a/pool"
  top: "inception_4a/pool_proj"
  param {
    lr_mult: 1
    decay_mult: 1
  }
  param {
    lr_mult: 2
    decay_mult: 0
  }
  convolution_param {
    num_output: 64
    kernel_size: 1
    weight_filler {
      type: "xavier"
      std: 0.1
    }
    bias_filler {
      type: "constant"
      value: 0.2
    }
  }
}
layer {
  name: "inception_4a/relu_pool_proj"
  type: "ReLU"
  bottom: "inception_4a/pool_proj"
  top: "inception_4a/pool_proj"
}
layer {
  name: "inception_4a/output"
  type: "Concat"
  bottom: "inception_4a/1x1"
  bottom: "inception_4a/3x3"
  bottom: "inception_4a/5x5"
  bottom: "inception_4a/pool_proj"
  top: "inception_4a/output"
}
layer {
  name: "loss1/ave_pool"
  type: "Pooling"
  bottom: "inception_4a/output"
  top: "loss1/ave_pool"
  pooling_param {
    pool: AVE
    kernel_size: 5
    stride: 3
  }
}
layer {
  name: "loss1/conv"
  type: "Convolution"
  bottom: "loss1/ave_pool"
  top: "loss1/conv"
  param {
    lr_mult: 1
    decay_mult: 1
  }
  param {
    lr_mult: 2
    decay_mult: 0
  }
  convolution_param {
    num_output: 128
    kernel_size: 1
    weight_filler {
      type: "xavier"
      std: 0.08
    }
    bias_filler {
      type: "constant"
      value: 0.2
    }
  }
}
layer {
  name: "loss1/relu_conv"
  type: "ReLU"
  bottom: "loss1/conv"
  top: "loss1/conv"
}
layer {
  name: "loss1/fc"
  type: "InnerProduct"
  bottom: "loss1/conv"
  top: "loss1/fc"
  param {
    lr_mult: 1
    decay_mult: 1
  }
  param {
    lr_mult: 2
    decay_mult: 0
  }
  inner_product_param {
    num_output: 1024
    weight_filler {
      type: "xavier"
      std: 0.02
    }
    bias_filler {
      type: "constant"
      value: 0.2
    }
  }
}
layer {
  name: "loss1/relu_fc"
  type: "ReLU"
  bottom: "loss1/fc"
  top: "loss1/fc"
}
layer {
  name: "loss1/drop_fc"
  type: "Dropout"
  bottom: "loss1/fc"
  top: "loss1/fc"
  dropout_param {
    dropout_ratio: 0.7
  }
}
layer {
  name: "loss1/classifier_plantvillage"
  type: "InnerProduct"
  bottom: "loss1/fc"
  top: "loss1/classifier_plantvillage"
  param {
    lr_mult: 1
    decay_mult: 1
  }
  param {
    lr_mult: 2
    decay_mult: 0
  }
  inner_product_param {
    num_output: 38
    weight_filler {
      type: "xavier"
      std: 0.0009765625
    }
    bias_filler {
      type: "constant"
      value: 0
    }
  }
}
layer {
  name: "inception_4b/1x1"
  type: "Convolution"
  bottom: "inception_4a/output"
  top: "inception_4b/1x1"
  param {
    lr_mult: 1
    decay_mult: 1
  }
  param {
    lr_mult: 2
    decay_mult: 0
  }
  convolution_param {
    num_output: 160
    kernel_size: 1
    weight_filler {
      type: "xavier"
      std: 0.03
    }
    bias_filler {
      type: "constant"
      value: 0.2
    }
  }
}
layer {
  name: "inception_4b/relu_1x1"
  type: "ReLU"
  bottom: "inception_4b/1x1"
  top: "inception_4b/1x1"
}
layer {
  name: "inception_4b/3x3_reduce"
  type: "Convolution"
  bottom: "inception_4a/output"
  top: "inception_4b/3x3_reduce"
  param {
    lr_mult: 1
    decay_mult: 1
  }
  param {
    lr_mult: 2
    decay_mult: 0
  }
  convolution_param {
    num_output: 112
    kernel_size: 1
    weight_filler {
      type: "xavier"
      std: 0.09
    }
    bias_filler {
      type: "constant"
      value: 0.2
    }
  }
}
layer {
  name: "inception_4b/relu_3x3_reduce"
  type: "ReLU"
  bottom: "inception_4b/3x3_reduce"
  top: "inception_4b/3x3_reduce"
}
layer {
  name: "inception_4b/3x3"
  type: "Convolution"
  bottom: "inception_4b/3x3_reduce"
  top: "inception_4b/3x3"
  param {
    lr_mult: 1
    decay_mult: 1
  }
  param {
    lr_mult: 2
    decay_mult: 0
  }
  convolution_param {
    num_output: 224
    pad: 1
    kernel_size: 3
    weight_filler {
      type: "xavier"
      std: 0.03
    }
    bias_filler {
      type: "constant"
      value: 0.2
    }
  }
}
layer {
  name: "inception_4b/relu_3x3"
  type: "ReLU"
  bottom: "inception_4b/3x3"
  top: "inception_4b/3x3"
}
layer {
  name: "inception_4b/5x5_reduce"
  type: "Convolution"
  bottom: "inception_4a/output"
  top: "inception_4b/5x5_reduce"
  param {
    lr_mult: 1
    decay_mult: 1
  }
  param {
    lr_mult: 2
    decay_mult: 0
  }
  convolution_param {
    num_output: 24
    kernel_size: 1
    weight_filler {
      type: "xavier"
      std: 0.2
    }
    bias_filler {
      type: "constant"
      value: 0.2
    }
  }
}
layer {
  name: "inception_4b/relu_5x5_reduce"
  type: "ReLU"
  bottom: "inception_4b/5x5_reduce"
  top: "inception_4b/5x5_reduce"
}
layer {
  name: "inception_4b/5x5"
  type: "Convolution"
  bottom: "inception_4b/5x5_reduce"
  top: "inception_4b/5x5"
  param {
    lr_mult: 1
    decay_mult: 1
  }
  param {
    lr_mult: 2
    decay_mult: 0
  }
  convolution_param {
    num_output: 64
    pad: 2
    kernel_size: 5
    weight_filler {
      type: "xavier"
      std: 0.03
    }
    bias_filler {
      type: "constant"
      value: 0.2
    }
  }
}
layer {
  name: "inception_4b/relu_5x5"
  type: "ReLU"
  bottom: "inception_4b/5x5"
  top: "inception_4b/5x5"
}
layer {
  name: "inception_4b/pool"
  type: "Pooling"
  bottom: "inception_4a/output"
  top: "inception_4b/pool"
  pooling_param {
    pool: MAX
    kernel_size: 3
    stride: 1
    pad: 1
  }
}
layer {
  name: "inception_4b/pool_proj"
  type: "Convolution"
  bottom: "inception_4b/pool"
  top: "inception_4b/pool_proj"
  param {
    lr_mult: 1
    decay_mult: 1
  }
  param {
    lr_mult: 2
    decay_mult: 0
  }
  convolution_param {
    num_output: 64
    kernel_size: 1
    weight_filler {
      type: "xavier"
      std: 0.1
    }
    bias_filler {
      type: "constant"
      value: 0.2
    }
  }
}
layer {
  name: "inception_4b/relu_pool_proj"
  type: "ReLU"
  bottom: "inception_4b/pool_proj"
  top: "inception_4b/pool_proj"
}
layer {
  name: "inception_4b/output"
  type: "Concat"
  bottom: "inception_4b/1x1"
  bottom: "inception_4b/3x3"
  bottom: "inception_4b/5x5"
  bottom: "inception_4b/pool_proj"
  top: "inception_4b/output"
}
layer {
  name: "inception_4c/1x1"
  type: "Convolution"
  bottom: "inception_4b/output"
  top: "inception_4c/1x1"
  param {
    lr_mult: 1
    decay_mult: 1
  }
  param {
    lr_mult: 2
    decay_mult: 0
  }
  convolution_param {
    num_output: 128
    kernel_size: 1
    weight_filler {
      type: "xavier"
      std: 0.03
    }
    bias_filler {
      type: "constant"
      value: 0.2
    }
  }
}
layer {
  name: "inception_4c/relu_1x1"
  type: "ReLU"
  bottom: "inception_4c/1x1"
  top: "inception_4c/1x1"
}
layer {
  name: "inception_4c/3x3_reduce"
  type: "Convolution"
  bottom: "inception_4b/output"
  top: "inception_4c/3x3_reduce"
  param {
    lr_mult: 1
    decay_mult: 1
  }
  param {
    lr_mult: 2
    decay_mult: 0
  }
  convolution_param {
    num_output: 128
    kernel_size: 1
    weight_filler {
      type: "xavier"
      std: 0.09
    }
    bias_filler {
      type: "constant"
      value: 0.2
    }
  }
}
layer {
  name: "inception_4c/relu_3x3_reduce"
  type: "ReLU"
  bottom: "inception_4c/3x3_reduce"
  top: "inception_4c/3x3_reduce"
}
layer {
  name: "inception_4c/3x3"
  type: "Convolution"
  bottom: "inception_4c/3x3_reduce"
  top: "inception_4c/3x3"
  param {
    lr_mult: 1
    decay_mult: 1
  }
  param {
    lr_mult: 2
    decay_mult: 0
  }
  convolution_param {
    num_output: 256
    pad: 1
    kernel_size: 3
    weight_filler {
      type: "xavier"
      std: 0.03
    }
    bias_filler {
      type: "constant"
      value: 0.2
    }
  }
}
layer {
  name: "inception_4c/relu_3x3"
  type: "ReLU"
  bottom: "inception_4c/3x3"
  top: "inception_4c/3x3"
}
layer {
  name: "inception_4c/5x5_reduce"
  type: "Convolution"
  bottom: "inception_4b/output"
  top: "inception_4c/5x5_reduce"
  param {
    lr_mult: 1
    decay_mult: 1
  }
  param {
    lr_mult: 2
    decay_mult: 0
  }
  convolution_param {
    num_output: 24
    kernel_size: 1
    weight_filler {
      type: "xavier"
      std: 0.2
    }
    bias_filler {
      type: "constant"
      value: 0.2
    }
  }
}
layer {
  name: "inception_4c/relu_5x5_reduce"
  type: "ReLU"
  bottom: "inception_4c/5x5_reduce"
  top: "inception_4c/5x5_reduce"
}
layer {
  name: "inception_4c/5x5"
  type: "Convolution"
  bottom: "inception_4c/5x5_reduce"
  top: "inception_4c/5x5"
  param {
    lr_mult: 1
    decay_mult: 1
  }
  param {
    lr_mult: 2
    decay_mult: 0
  }
  convolution_param {
    num_output: 64
    pad: 2
    kernel_size: 5
    weight_filler {
      type: "xavier"
      std: 0.03
    }
    bias_filler {
      type: "constant"
      value: 0.2
    }
  }
}
layer {
  name: "inception_4c/relu_5x5"
  type: "ReLU"
  bottom: "inception_4c/5x5"
  top: "inception_4c/5x5"
}
layer {
  name: "inception_4c/pool"
  type: "Pooling"
  bottom: "inception_4b/output"
  top: "inception_4c/pool"
  pooling_param {
    pool: MAX
    kernel_size: 3
    stride: 1
    pad: 1
  }
}
layer {
  name: "inception_4c/pool_proj"
  type: "Convolution"
  bottom: "inception_4c/pool"
  top: "inception_4c/pool_proj"
  param {
    lr_mult: 1
    decay_mult: 1
  }
  param {
    lr_mult: 2
    decay_mult: 0
  }
  convolution_param {
    num_output: 64
    kernel_size: 1
    weight_filler {
      type: "xavier"
      std: 0.1
    }
    bias_filler {
      type: "constant"
      value: 0.2
    }
  }
}
layer {
  name: "inception_4c/relu_pool_proj"
  type: "ReLU"
  bottom: "inception_4c/pool_proj"
  top: "inception_4c/pool_proj"
}
layer {
  name: "inception_4c/output"
  type: "Concat"
  bottom: "inception_4c/1x1"
  bottom: "inception_4c/3x3"
  bottom: "inception_4c/5x5"
  bottom: "inception_4c/pool_proj"
  top: "inception_4c/output"
}
layer {
  name: "inception_4d/1x1"
  type: "Convolution"
  bottom: "inception_4c/output"
  top: "inception_4d/1x1"
  param {
    lr_mult: 1
    decay_mult: 1
  }
  param {
    lr_mult: 2
    decay_mult: 0
  }
  convolution_param {
    num_output: 112
    kernel_size: 1
    weight_filler {
      type: "xavier"
      std: 0.03
    }
    bias_filler {
      type: "constant"
      value: 0.2
    }
  }
}
layer {
  name: "inception_4d/relu_1x1"
  type: "ReLU"
  bottom: "inception_4d/1x1"
  top: "inception_4d/1x1"
}
layer {
  name: "inception_4d/3x3_reduce"
  type: "Convolution"
  bottom: "inception_4c/output"
  top: "inception_4d/3x3_reduce"
  param {
    lr_mult: 1
    decay_mult: 1
  }
  param {
    lr_mult: 2
    decay_mult: 0
  }
  convolution_param {
    num_output: 144
    kernel_size: 1
    weight_filler {
      type: "xavier"
      std: 0.09
    }
    bias_filler {
      type: "constant"
      value: 0.2
    }
  }
}
layer {
  name: "inception_4d/relu_3x3_reduce"
  type: "ReLU"
  bottom: "inception_4d/3x3_reduce"
  top: "inception_4d/3x3_reduce"
}
layer {
  name: "inception_4d/3x3"
  type: "Convolution"
  bottom: "inception_4d/3x3_reduce"
  top: "inception_4d/3x3"
  param {
    lr_mult: 1
    decay_mult: 1
  }
  param {
    lr_mult: 2
    decay_mult: 0
  }
  convolution_param {
    num_output: 288
    pad: 1
    kernel_size: 3
    weight_filler {
      type: "xavier"
      std: 0.03
    }
    bias_filler {
      type: "constant"
      value: 0.2
    }
  }
}
layer {
  name: "inception_4d/relu_3x3"
  type: "ReLU"
  bottom: "inception_4d/3x3"
  top: "inception_4d/3x3"
}
layer {
  name: "inception_4d/5x5_reduce"
  type: "Convolution"
  bottom: "inception_4c/output"
  top: "inception_4d/5x5_reduce"
  param {
    lr_mult: 1
    decay_mult: 1
  }
  param {
    lr_mult: 2
    decay_mult: 0
  }
  convolution_param {
    num_output: 32
    kernel_size: 1
    weight_filler {
      type: "xavier"
      std: 0.2
    }
    bias_filler {
      type: "constant"
      value: 0.2
    }
  }
}
layer {
  name: "inception_4d/relu_5x5_reduce"
  type: "ReLU"
  bottom: "inception_4d/5x5_reduce"
  top: "inception_4d/5x5_reduce"
}
layer {
  name: "inception_4d/5x5"
  type: "Convolution"
  bottom: "inception_4d/5x5_reduce"
  top: "inception_4d/5x5"
  param {
    lr_mult: 1
    decay_mult: 1
  }
  param {
    lr_mult: 2
    decay_mult: 0
  }
  convolution_param {
    num_output: 64
    pad: 2
    kernel_size: 5
    weight_filler {
      type: "xavier"
      std: 0.03
    }
    bias_filler {
      type: "constant"
      value: 0.2
    }
  }
}
layer {
  name: "inception_4d/relu_5x5"
  type: "ReLU"
  bottom: "inception_4d/5x5"
  top: "inception_4d/5x5"
}
layer {
  name: "inception_4d/pool"
  type: "Pooling"
  bottom: "inception_4c/output"
  top: "inception_4d/pool"
  pooling_param {
    pool: MAX
    kernel_size: 3
    stride: 1
    pad: 1
  }
}
layer {
  name: "inception_4d/pool_proj"
  type: "Convolution"
  bottom: "inception_4d/pool"
  top: "inception_4d/pool_proj"
  param {
    lr_mult: 1
    decay_mult: 1
  }
  param {
    lr_mult: 2
    decay_mult: 0
  }
  convolution_param {
    num_output: 64
    kernel_size: 1
    weight_filler {
      type: "xavier"
      std: 0.1
    }
    bias_filler {
      type: "constant"
      value: 0.2
    }
  }
}
layer {
  name: "inception_4d/relu_pool_proj"
  type: "ReLU"
  bottom: "inception_4d/pool_proj"
  top: "inception_4d/pool_proj"
}
layer {
  name: "inception_4d/output"
  type: "Concat"
  bottom: "inception_4d/1x1"
  bottom: "inception_4d/3x3"
  bottom: "inception_4d/5x5"
  bottom: "inception_4d/pool_proj"
  top: "inception_4d/output"
}
layer {
  name: "loss2/ave_pool"
  type: "Pooling"
  bottom: "inception_4d/output"
  top: "loss2/ave_pool"
  pooling_param {
    pool: AVE
    kernel_size: 5
    stride: 3
  }
}
layer {
  name: "loss2/conv"
  type: "Convolution"
  bottom: "loss2/ave_pool"
  top: "loss2/conv"
  param {
    lr_mult: 1
    decay_mult: 1
  }
  param {
    lr_mult: 2
    decay_mult: 0
  }
  convolution_param {
    num_output: 128
    kernel_size: 1
    weight_filler {
      type: "xavier"
      std: 0.08
    }
    bias_filler {
      type: "constant"
      value: 0.2
    }
  }
}
layer {
  name: "loss2/relu_conv"
  type: "ReLU"
  bottom: "loss2/conv"
  top: "loss2/conv"
}
layer {
  name: "loss2/fc"
  type: "InnerProduct"
  bottom: "loss2/conv"
  top: "loss2/fc"
  param {
    lr_mult: 1
    decay_mult: 1
  }
  param {
    lr_mult: 2
    decay_mult: 0
  }
  inner_product_param {
    num_output: 1024
    weight_filler {
      type: "xavier"
      std: 0.02
    }
    bias_filler {
      type: "constant"
      value: 0.2
    }
  }
}
layer {
  name: "loss2/relu_fc"
  type: "ReLU"
  bottom: "loss2/fc"
  top: "loss2/fc"
}
layer {
  name: "loss2/drop_fc"
  type: "Dropout"
  bottom: "loss2/fc"
  top: "loss2/fc"
  dropout_param {
    dropout_ratio: 0.7
  }
}
layer {
  name: "loss2/classifier_plantvillage"
  type: "InnerProduct"
  bottom: "loss2/fc"
  top: "loss2/classifier_plantvillage"
  param {
    lr_mult: 1
    decay_mult: 1
  }
  param {
    lr_mult: 2
    decay_mult: 0
  }
  inner_product_param {
    num_output: 38
    weight_filler {
      type: "xavier"
      std: 0.0009765625
    }
    bias_filler {
      type: "constant"
      value: 0
    }
  }
}
layer {
  name: "inception_4e/1x1"
  type: "Convolution"
  bottom: "inception_4d/output"
  top: "inception_4e/1x1"
  param {
    lr_mult: 1
    decay_mult: 1
  }
  param {
    lr_mult: 2
    decay_mult: 0
  }
  convolution_param {
    num_output: 256
    kernel_size: 1
    weight_filler {
      type: "xavier"
      std: 0.03
    }
    bias_filler {
      type: "constant"
      value: 0.2
    }
  }
}
layer {
  name: "inception_4e/relu_1x1"
  type: "ReLU"
  bottom: "inception_4e/1x1"
  top: "inception_4e/1x1"
}
layer {
  name: "inception_4e/3x3_reduce"
  type: "Convolution"
  bottom: "inception_4d/output"
  top: "inception_4e/3x3_reduce"
  param {
    lr_mult: 1
    decay_mult: 1
  }
  param {
    lr_mult: 2
    decay_mult: 0
  }
  convolution_param {
    num_output: 160
    kernel_size: 1
    weight_filler {
      type: "xavier"
      std: 0.09
    }
    bias_filler {
      type: "constant"
      value: 0.2
    }
  }
}
layer {
  name: "inception_4e/relu_3x3_reduce"
  type: "ReLU"
  bottom: "inception_4e/3x3_reduce"
  top: "inception_4e/3x3_reduce"
}
layer {
  name: "inception_4e/3x3"
  type: "Convolution"
  bottom: "inception_4e/3x3_reduce"
  top: "inception_4e/3x3"
  param {
    lr_mult: 1
    decay_mult: 1
  }
  param {
    lr_mult: 2
    decay_mult: 0
  }
  convolution_param {
    num_output: 320
    pad: 1
    kernel_size: 3
    weight_filler {
      type: "xavier"
      std: 0.03
    }
    bias_filler {
      type: "constant"
      value: 0.2
    }
  }
}
layer {
  name: "inception_4e/relu_3x3"
  type: "ReLU"
  bottom: "inception_4e/3x3"
  top: "inception_4e/3x3"
}
layer {
  name: "inception_4e/5x5_reduce"
  type: "Convolution"
  bottom: "inception_4d/output"
  top: "inception_4e/5x5_reduce"
  param {
    lr_mult: 1
    decay_mult: 1
  }
  param {
    lr_mult: 2
    decay_mult: 0
  }
  convolution_param {
    num_output: 32
    kernel_size: 1
    weight_filler {
      type: "xavier"
      std: 0.2
    }
    bias_filler {
      type: "constant"
      value: 0.2
    }
  }
}
layer {
  name: "inception_4e/relu_5x5_reduce"
  type: "ReLU"
  bottom: "inception_4e/5x5_reduce"
  top: "inception_4e/5x5_reduce"
}
layer {
  name: "inception_4e/5x5"
  type: "Convolution"
  bottom: "inception_4e/5x5_reduce"
  top: "inception_4e/5x5"
  p
I0403 15:10:42.496060 14196 layer_factory.hpp:77] Creating layer data
I0403 15:10:42.496644 14196 net.cpp:91] Creating Layer data
I0403 15:10:42.496675 14196 net.cpp:399] data -> data
I0403 15:10:42.496721 14196 net.cpp:399] data -> label
I0403 15:10:42.496755 14196 data_transformer.cpp:25] Loading mean file from: /home/mohanty/data/final_dataset/lmdb/color-50-50/mean.binaryproto
I0403 15:10:42.501773 14201 db_lmdb.cpp:38] Opened lmdb /home/mohanty/data/final_dataset/lmdb/color-50-50/test_db
I0403 15:10:42.510208 14196 data_layer.cpp:41] output data size: 24,3,224,224
I0403 15:10:42.537775 14196 net.cpp:141] Setting up data
I0403 15:10:42.537865 14196 net.cpp:148] Top shape: 24 3 224 224 (3612672)
I0403 15:10:42.537889 14196 net.cpp:148] Top shape: 24 (24)
I0403 15:10:42.537904 14196 net.cpp:156] Memory required for data: 14450784
I0403 15:10:42.537932 14196 layer_factory.hpp:77] Creating layer label_data_1_split
I0403 15:10:42.537960 14196 net.cpp:91] Creating Layer label_data_1_split
I0403 15:10:42.537977 14196 net.cpp:425] label_data_1_split <- label
I0403 15:10:42.538010 14196 net.cpp:399] label_data_1_split -> label_data_1_split_0
I0403 15:10:42.538038 14196 net.cpp:399] label_data_1_split -> label_data_1_split_1
I0403 15:10:42.538059 14196 net.cpp:399] label_data_1_split -> label_data_1_split_2
I0403 15:10:42.538080 14196 net.cpp:399] label_data_1_split -> label_data_1_split_3
I0403 15:10:42.538100 14196 net.cpp:399] label_data_1_split -> label_data_1_split_4
I0403 15:10:42.538120 14196 net.cpp:399] label_data_1_split -> label_data_1_split_5
I0403 15:10:42.538138 14196 net.cpp:399] label_data_1_split -> label_data_1_split_6
I0403 15:10:42.538158 14196 net.cpp:399] label_data_1_split -> label_data_1_split_7
I0403 15:10:42.538177 14196 net.cpp:399] label_data_1_split -> label_data_1_split_8
I0403 15:10:42.538197 14196 net.cpp:399] label_data_1_split -> label_data_1_split_9
I0403 15:10:42.538317 14196 net.cpp:141] Setting up label_data_1_split
I0403 15:10:42.538341 14196 net.cpp:148] Top shape: 24 (24)
I0403 15:10:42.538358 14196 net.cpp:148] Top shape: 24 (24)
I0403 15:10:42.538373 14196 net.cpp:148] Top shape: 24 (24)
I0403 15:10:42.538389 14196 net.cpp:148] Top shape: 24 (24)
I0403 15:10:42.538404 14196 net.cpp:148] Top shape: 24 (24)
I0403 15:10:42.538420 14196 net.cpp:148] Top shape: 24 (24)
I0403 15:10:42.538435 14196 net.cpp:148] Top shape: 24 (24)
I0403 15:10:42.538450 14196 net.cpp:148] Top shape: 24 (24)
I0403 15:10:42.538465 14196 net.cpp:148] Top shape: 24 (24)
I0403 15:10:42.538485 14196 net.cpp:148] Top shape: 24 (24)
I0403 15:10:42.538533 14196 net.cpp:156] Memory required for data: 14451744
I0403 15:10:42.538555 14196 layer_factory.hpp:77] Creating layer conv1/7x7_s2
I0403 15:10:42.538589 14196 net.cpp:91] Creating Layer conv1/7x7_s2
I0403 15:10:42.538607 14196 net.cpp:425] conv1/7x7_s2 <- data
I0403 15:10:42.538626 14196 net.cpp:399] conv1/7x7_s2 -> conv1/7x7_s2
I0403 15:10:42.680934 14196 net.cpp:141] Setting up conv1/7x7_s2
I0403 15:10:42.680977 14196 net.cpp:148] Top shape: 24 64 112 112 (19267584)
I0403 15:10:42.680994 14196 net.cpp:156] Memory required for data: 91522080
I0403 15:10:42.681023 14196 layer_factory.hpp:77] Creating layer conv1/relu_7x7
I0403 15:10:42.681049 14196 net.cpp:91] Creating Layer conv1/relu_7x7
I0403 15:10:42.681068 14196 net.cpp:425] conv1/relu_7x7 <- conv1/7x7_s2
I0403 15:10:42.681087 14196 net.cpp:386] conv1/relu_7x7 -> conv1/7x7_s2 (in-place)
I0403 15:10:42.681352 14196 net.cpp:141] Setting up conv1/relu_7x7
I0403 15:10:42.681380 14196 net.cpp:148] Top shape: 24 64 112 112 (19267584)
I0403 15:10:42.681396 14196 net.cpp:156] Memory required for data: 168592416
I0403 15:10:42.681411 14196 layer_factory.hpp:77] Creating layer pool1/3x3_s2
I0403 15:10:42.681435 14196 net.cpp:91] Creating Layer pool1/3x3_s2
I0403 15:10:42.681453 14196 net.cpp:425] pool1/3x3_s2 <- conv1/7x7_s2
I0403 15:10:42.681473 14196 net.cpp:399] pool1/3x3_s2 -> pool1/3x3_s2
I0403 15:10:42.681592 14196 net.cpp:141] Setting up pool1/3x3_s2
I0403 15:10:42.681618 14196 net.cpp:148] Top shape: 24 64 56 56 (4816896)
I0403 15:10:42.681634 14196 net.cpp:156] Memory required for data: 187860000
I0403 15:10:42.681648 14196 layer_factory.hpp:77] Creating layer pool1/norm1
I0403 15:10:42.681673 14196 net.cpp:91] Creating Layer pool1/norm1
I0403 15:10:42.681690 14196 net.cpp:425] pool1/norm1 <- pool1/3x3_s2
I0403 15:10:42.681709 14196 net.cpp:399] pool1/norm1 -> pool1/norm1
I0403 15:10:42.682021 14196 net.cpp:141] Setting up pool1/norm1
I0403 15:10:42.682049 14196 net.cpp:148] Top shape: 24 64 56 56 (4816896)
I0403 15:10:42.682065 14196 net.cpp:156] Memory required for data: 207127584
I0403 15:10:42.682080 14196 layer_factory.hpp:77] Creating layer conv2/3x3_reduce
I0403 15:10:42.682106 14196 net.cpp:91] Creating Layer conv2/3x3_reduce
I0403 15:10:42.682123 14196 net.cpp:425] conv2/3x3_reduce <- pool1/norm1
I0403 15:10:42.682145 14196 net.cpp:399] conv2/3x3_reduce -> conv2/3x3_reduce
I0403 15:10:42.683641 14196 net.cpp:141] Setting up conv2/3x3_reduce
I0403 15:10:42.683675 14196 net.cpp:148] Top shape: 24 64 56 56 (4816896)
I0403 15:10:42.683691 14196 net.cpp:156] Memory required for data: 226395168
I0403 15:10:42.683713 14196 layer_factory.hpp:77] Creating layer conv2/relu_3x3_reduce
I0403 15:10:42.683732 14196 net.cpp:91] Creating Layer conv2/relu_3x3_reduce
I0403 15:10:42.683748 14196 net.cpp:425] conv2/relu_3x3_reduce <- conv2/3x3_reduce
I0403 15:10:42.683768 14196 net.cpp:386] conv2/relu_3x3_reduce -> conv2/3x3_reduce (in-place)
I0403 15:10:42.684048 14196 net.cpp:141] Setting up conv2/relu_3x3_reduce
I0403 15:10:42.684077 14196 net.cpp:148] Top shape: 24 64 56 56 (4816896)
I0403 15:10:42.684093 14196 net.cpp:156] Memory required for data: 245662752
I0403 15:10:42.684108 14196 layer_factory.hpp:77] Creating layer conv2/3x3
I0403 15:10:42.684134 14196 net.cpp:91] Creating Layer conv2/3x3
I0403 15:10:42.684151 14196 net.cpp:425] conv2/3x3 <- conv2/3x3_reduce
I0403 15:10:42.684175 14196 net.cpp:399] conv2/3x3 -> conv2/3x3
I0403 15:10:42.686570 14196 net.cpp:141] Setting up conv2/3x3
I0403 15:10:42.686602 14196 net.cpp:148] Top shape: 24 192 56 56 (14450688)
I0403 15:10:42.686619 14196 net.cpp:156] Memory required for data: 303465504
I0403 15:10:42.686640 14196 layer_factory.hpp:77] Creating layer conv2/relu_3x3
I0403 15:10:42.686660 14196 net.cpp:91] Creating Layer conv2/relu_3x3
I0403 15:10:42.686676 14196 net.cpp:425] conv2/relu_3x3 <- conv2/3x3
I0403 15:10:42.686694 14196 net.cpp:386] conv2/relu_3x3 -> conv2/3x3 (in-place)
I0403 15:10:42.686873 14196 net.cpp:141] Setting up conv2/relu_3x3
I0403 15:10:42.686899 14196 net.cpp:148] Top shape: 24 192 56 56 (14450688)
I0403 15:10:42.686949 14196 net.cpp:156] Memory required for data: 361268256
I0403 15:10:42.686964 14196 layer_factory.hpp:77] Creating layer conv2/norm2
I0403 15:10:42.686986 14196 net.cpp:91] Creating Layer conv2/norm2
I0403 15:10:42.687002 14196 net.cpp:425] conv2/norm2 <- conv2/3x3
I0403 15:10:42.687021 14196 net.cpp:399] conv2/norm2 -> conv2/norm2
I0403 15:10:42.687328 14196 net.cpp:141] Setting up conv2/norm2
I0403 15:10:42.687361 14196 net.cpp:148] Top shape: 24 192 56 56 (14450688)
I0403 15:10:42.687378 14196 net.cpp:156] Memory required for data: 419071008
I0403 15:10:42.687393 14196 layer_factory.hpp:77] Creating layer pool2/3x3_s2
I0403 15:10:42.687410 14196 net.cpp:91] Creating Layer pool2/3x3_s2
I0403 15:10:42.687427 14196 net.cpp:425] pool2/3x3_s2 <- conv2/norm2
I0403 15:10:42.687443 14196 net.cpp:399] pool2/3x3_s2 -> pool2/3x3_s2
I0403 15:10:42.687496 14196 net.cpp:141] Setting up pool2/3x3_s2
I0403 15:10:42.687520 14196 net.cpp:148] Top shape: 24 192 28 28 (3612672)
I0403 15:10:42.687535 14196 net.cpp:156] Memory required for data: 433521696
I0403 15:10:42.687556 14196 layer_factory.hpp:77] Creating layer pool2/3x3_s2_pool2/3x3_s2_0_split
I0403 15:10:42.687574 14196 net.cpp:91] Creating Layer pool2/3x3_s2_pool2/3x3_s2_0_split
I0403 15:10:42.687589 14196 net.cpp:425] pool2/3x3_s2_pool2/3x3_s2_0_split <- pool2/3x3_s2
I0403 15:10:42.687609 14196 net.cpp:399] pool2/3x3_s2_pool2/3x3_s2_0_split -> pool2/3x3_s2_pool2/3x3_s2_0_split_0
I0403 15:10:42.687629 14196 net.cpp:399] pool2/3x3_s2_pool2/3x3_s2_0_split -> pool2/3x3_s2_pool2/3x3_s2_0_split_1
I0403 15:10:42.687649 14196 net.cpp:399] pool2/3x3_s2_pool2/3x3_s2_0_split -> pool2/3x3_s2_pool2/3x3_s2_0_split_2
I0403 15:10:42.687670 14196 net.cpp:399] pool2/3x3_s2_pool2/3x3_s2_0_split -> pool2/3x3_s2_pool2/3x3_s2_0_split_3
I0403 15:10:42.687744 14196 net.cpp:141] Setting up pool2/3x3_s2_pool2/3x3_s2_0_split
I0403 15:10:42.687767 14196 net.cpp:148] Top shape: 24 192 28 28 (3612672)
I0403 15:10:42.687783 14196 net.cpp:148] Top shape: 24 192 28 28 (3612672)
I0403 15:10:42.687798 14196 net.cpp:148] Top shape: 24 192 28 28 (3612672)
I0403 15:10:42.687813 14196 net.cpp:148] Top shape: 24 192 28 28 (3612672)
I0403 15:10:42.687826 14196 net.cpp:156] Memory required for data: 491324448
I0403 15:10:42.687840 14196 layer_factory.hpp:77] Creating layer inception_3a/1x1
I0403 15:10:42.687862 14196 net.cpp:91] Creating Layer inception_3a/1x1
I0403 15:10:42.687880 14196 net.cpp:425] inception_3a/1x1 <- pool2/3x3_s2_pool2/3x3_s2_0_split_0
I0403 15:10:42.687901 14196 net.cpp:399] inception_3a/1x1 -> inception_3a/1x1
I0403 15:10:42.689455 14196 net.cpp:141] Setting up inception_3a/1x1
I0403 15:10:42.689492 14196 net.cpp:148] Top shape: 24 64 28 28 (1204224)
I0403 15:10:42.689522 14196 net.cpp:156] Memory required for data: 496141344
I0403 15:10:42.689549 14196 layer_factory.hpp:77] Creating layer inception_3a/relu_1x1
I0403 15:10:42.689570 14196 net.cpp:91] Creating Layer inception_3a/relu_1x1
I0403 15:10:42.689586 14196 net.cpp:425] inception_3a/relu_1x1 <- inception_3a/1x1
I0403 15:10:42.689606 14196 net.cpp:386] inception_3a/relu_1x1 -> inception_3a/1x1 (in-place)
I0403 15:10:42.689782 14196 net.cpp:141] Setting up inception_3a/relu_1x1
I0403 15:10:42.689808 14196 net.cpp:148] Top shape: 24 64 28 28 (1204224)
I0403 15:10:42.689823 14196 net.cpp:156] Memory required for data: 500958240
I0403 15:10:42.689838 14196 layer_factory.hpp:77] Creating layer inception_3a/3x3_reduce
I0403 15:10:42.689860 14196 net.cpp:91] Creating Layer inception_3a/3x3_reduce
I0403 15:10:42.689879 14196 net.cpp:425] inception_3a/3x3_reduce <- pool2/3x3_s2_pool2/3x3_s2_0_split_1
I0403 15:10:42.689905 14196 net.cpp:399] inception_3a/3x3_reduce -> inception_3a/3x3_reduce
I0403 15:10:42.691665 14196 net.cpp:141] Setting up inception_3a/3x3_reduce
I0403 15:10:42.691709 14196 net.cpp:148] Top shape: 24 96 28 28 (1806336)
I0403 15:10:42.691725 14196 net.cpp:156] Memory required for data: 508183584
I0403 15:10:42.691745 14196 layer_factory.hpp:77] Creating layer inception_3a/relu_3x3_reduce
I0403 15:10:42.691782 14196 net.cpp:91] Creating Layer inception_3a/relu_3x3_reduce
I0403 15:10:42.691799 14196 net.cpp:425] inception_3a/relu_3x3_reduce <- inception_3a/3x3_reduce
I0403 15:10:42.691819 14196 net.cpp:386] inception_3a/relu_3x3_reduce -> inception_3a/3x3_reduce (in-place)
I0403 15:10:42.692008 14196 net.cpp:141] Setting up inception_3a/relu_3x3_reduce
I0403 15:10:42.692036 14196 net.cpp:148] Top shape: 24 96 28 28 (1806336)
I0403 15:10:42.692052 14196 net.cpp:156] Memory required for data: 515408928
I0403 15:10:42.692066 14196 layer_factory.hpp:77] Creating layer inception_3a/3x3
I0403 15:10:42.692090 14196 net.cpp:91] Creating Layer inception_3a/3x3
I0403 15:10:42.692106 14196 net.cpp:425] inception_3a/3x3 <- inception_3a/3x3_reduce
I0403 15:10:42.692126 14196 net.cpp:399] inception_3a/3x3 -> inception_3a/3x3
I0403 15:10:42.693804 14196 net.cpp:141] Setting up inception_3a/3x3
I0403 15:10:42.693833 14196 net.cpp:148] Top shape: 24 128 28 28 (2408448)
I0403 15:10:42.693848 14196 net.cpp:156] Memory required for data: 525042720
I0403 15:10:42.693866 14196 layer_factory.hpp:77] Creating layer inception_3a/relu_3x3
I0403 15:10:42.693884 14196 net.cpp:91] Creating Layer inception_3a/relu_3x3
I0403 15:10:42.693900 14196 net.cpp:425] inception_3a/relu_3x3 <- inception_3a/3x3
I0403 15:10:42.693919 14196 net.cpp:386] inception_3a/relu_3x3 -> inception_3a/3x3 (in-place)
I0403 15:10:42.694198 14196 net.cpp:141] Setting up inception_3a/relu_3x3
I0403 15:10:42.694224 14196 net.cpp:148] Top shape: 24 128 28 28 (2408448)
I0403 15:10:42.694239 14196 net.cpp:156] Memory required for data: 534676512
I0403 15:10:42.694254 14196 layer_factory.hpp:77] Creating layer inception_3a/5x5_reduce
I0403 15:10:42.694280 14196 net.cpp:91] Creating Layer inception_3a/5x5_reduce
I0403 15:10:42.694298 14196 net.cpp:425] inception_3a/5x5_reduce <- pool2/3x3_s2_pool2/3x3_s2_0_split_2
I0403 15:10:42.694319 14196 net.cpp:399] inception_3a/5x5_reduce -> inception_3a/5x5_reduce
I0403 15:10:42.695318 14196 net.cpp:141] Setting up inception_3a/5x5_reduce
I0403 15:10:42.695348 14196 net.cpp:148] Top shape: 24 16 28 28 (301056)
I0403 15:10:42.695363 14196 net.cpp:156] Memory required for data: 535880736
I0403 15:10:42.695382 14196 layer_factory.hpp:77] Creating layer inception_3a/relu_5x5_reduce
I0403 15:10:42.695404 14196 net.cpp:91] Creating Layer inception_3a/relu_5x5_reduce
I0403 15:10:42.695421 14196 net.cpp:425] inception_3a/relu_5x5_reduce <- inception_3a/5x5_reduce
I0403 15:10:42.695439 14196 net.cpp:386] inception_3a/relu_5x5_reduce -> inception_3a/5x5_reduce (in-place)
I0403 15:10:42.695763 14196 net.cpp:141] Setting up inception_3a/relu_5x5_reduce
I0403 15:10:42.695791 14196 net.cpp:148] Top shape: 24 16 28 28 (301056)
I0403 15:10:42.695806 14196 net.cpp:156] Memory required for data: 537084960
I0403 15:10:42.695821 14196 layer_factory.hpp:77] Creating layer inception_3a/5x5
I0403 15:10:42.695843 14196 net.cpp:91] Creating Layer inception_3a/5x5
I0403 15:10:42.695861 14196 net.cpp:425] inception_3a/5x5 <- inception_3a/5x5_reduce
I0403 15:10:42.695883 14196 net.cpp:399] inception_3a/5x5 -> inception_3a/5x5
I0403 15:10:42.696914 14196 net.cpp:141] Setting up inception_3a/5x5
I0403 15:10:42.696944 14196 net.cpp:148] Top shape: 24 32 28 28 (602112)
I0403 15:10:42.696960 14196 net.cpp:156] Memory required for data: 539493408
I0403 15:10:42.696979 14196 layer_factory.hpp:77] Creating layer inception_3a/relu_5x5
I0403 15:10:42.696997 14196 net.cpp:91] Creating Layer inception_3a/relu_5x5
I0403 15:10:42.697013 14196 net.cpp:425] inception_3a/relu_5x5 <- inception_3a/5x5
I0403 15:10:42.697032 14196 net.cpp:386] inception_3a/relu_5x5 -> inception_3a/5x5 (in-place)
I0403 15:10:42.697211 14196 net.cpp:141] Setting up inception_3a/relu_5x5
I0403 15:10:42.697237 14196 net.cpp:148] Top shape: 24 32 28 28 (602112)
I0403 15:10:42.697250 14196 net.cpp:156] Memory required for data: 541901856
I0403 15:10:42.697266 14196 layer_factory.hpp:77] Creating layer inception_3a/pool
I0403 15:10:42.697283 14196 net.cpp:91] Creating Layer inception_3a/pool
I0403 15:10:42.697299 14196 net.cpp:425] inception_3a/pool <- pool2/3x3_s2_pool2/3x3_s2_0_split_3
I0403 15:10:42.697335 14196 net.cpp:399] inception_3a/pool -> inception_3a/pool
I0403 15:10:42.697394 14196 net.cpp:141] Setting up inception_3a/pool
I0403 15:10:42.697418 14196 net.cpp:148] Top shape: 24 192 28 28 (3612672)
I0403 15:10:42.697433 14196 net.cpp:156] Memory required for data: 556352544
I0403 15:10:42.697448 14196 layer_factory.hpp:77] Creating layer inception_3a/pool_proj
I0403 15:10:42.697471 14196 net.cpp:91] Creating Layer inception_3a/pool_proj
I0403 15:10:42.697489 14196 net.cpp:425] inception_3a/pool_proj <- inception_3a/pool
I0403 15:10:42.697511 14196 net.cpp:399] inception_3a/pool_proj -> inception_3a/pool_proj
I0403 15:10:42.698498 14196 net.cpp:141] Setting up inception_3a/pool_proj
I0403 15:10:42.698526 14196 net.cpp:148] Top shape: 24 32 28 28 (602112)
I0403 15:10:42.698546 14196 net.cpp:156] Memory required for data: 558760992
I0403 15:10:42.698572 14196 layer_factory.hpp:77] Creating layer inception_3a/relu_pool_proj
I0403 15:10:42.698596 14196 net.cpp:91] Creating Layer inception_3a/relu_pool_proj
I0403 15:10:42.698612 14196 net.cpp:425] inception_3a/relu_pool_proj <- inception_3a/pool_proj
I0403 15:10:42.698629 14196 net.cpp:386] inception_3a/relu_pool_proj -> inception_3a/pool_proj (in-place)
I0403 15:10:42.698915 14196 net.cpp:141] Setting up inception_3a/relu_pool_proj
I0403 15:10:42.698941 14196 net.cpp:148] Top shape: 24 32 28 28 (602112)
I0403 15:10:42.698956 14196 net.cpp:156] Memory required for data: 561169440
I0403 15:10:42.698971 14196 layer_factory.hpp:77] Creating layer inception_3a/output
I0403 15:10:42.698989 14196 net.cpp:91] Creating Layer inception_3a/output
I0403 15:10:42.699005 14196 net.cpp:425] inception_3a/output <- inception_3a/1x1
I0403 15:10:42.699023 14196 net.cpp:425] inception_3a/output <- inception_3a/3x3
I0403 15:10:42.699038 14196 net.cpp:425] inception_3a/output <- inception_3a/5x5
I0403 15:10:42.699053 14196 net.cpp:425] inception_3a/output <- inception_3a/pool_proj
I0403 15:10:42.699072 14196 net.cpp:399] inception_3a/output -> inception_3a/output
I0403 15:10:42.699118 14196 net.cpp:141] Setting up inception_3a/output
I0403 15:10:42.699141 14196 net.cpp:148] Top shape: 24 256 28 28 (4816896)
I0403 15:10:42.699156 14196 net.cpp:156] Memory required for data: 580437024
I0403 15:10:42.699172 14196 layer_factory.hpp:77] Creating layer inception_3a/output_inception_3a/output_0_split
I0403 15:10:42.699190 14196 net.cpp:91] Creating Layer inception_3a/output_inception_3a/output_0_split
I0403 15:10:42.699206 14196 net.cpp:425] inception_3a/output_inception_3a/output_0_split <- inception_3a/output
I0403 15:10:42.699223 14196 net.cpp:399] inception_3a/output_inception_3a/output_0_split -> inception_3a/output_inception_3a/output_0_split_0
I0403 15:10:42.699246 14196 net.cpp:399] inception_3a/output_inception_3a/output_0_split -> inception_3a/output_inception_3a/output_0_split_1
I0403 15:10:42.699271 14196 net.cpp:399] inception_3a/output_inception_3a/output_0_split -> inception_3a/output_inception_3a/output_0_split_2
I0403 15:10:42.699292 14196 net.cpp:399] inception_3a/output_inception_3a/output_0_split -> inception_3a/output_inception_3a/output_0_split_3
I0403 15:10:42.699364 14196 net.cpp:141] Setting up inception_3a/output_inception_3a/output_0_split
I0403 15:10:42.699390 14196 net.cpp:148] Top shape: 24 256 28 28 (4816896)
I0403 15:10:42.699407 14196 net.cpp:148] Top shape: 24 256 28 28 (4816896)
I0403 15:10:42.699422 14196 net.cpp:148] Top shape: 24 256 28 28 (4816896)
I0403 15:10:42.699437 14196 net.cpp:148] Top shape: 24 256 28 28 (4816896)
I0403 15:10:42.699450 14196 net.cpp:156] Memory required for data: 657507360
I0403 15:10:42.699465 14196 layer_factory.hpp:77] Creating layer inception_3b/1x1
I0403 15:10:42.699486 14196 net.cpp:91] Creating Layer inception_3b/1x1
I0403 15:10:42.699504 14196 net.cpp:425] inception_3b/1x1 <- inception_3a/output_inception_3a/output_0_split_0
I0403 15:10:42.699525 14196 net.cpp:399] inception_3b/1x1 -> inception_3b/1x1
I0403 15:10:42.700690 14196 net.cpp:141] Setting up inception_3b/1x1
I0403 15:10:42.700732 14196 net.cpp:148] Top shape: 24 128 28 28 (2408448)
I0403 15:10:42.700749 14196 net.cpp:156] Memory required for data: 667141152
I0403 15:10:42.700768 14196 layer_factory.hpp:77] Creating layer inception_3b/relu_1x1
I0403 15:10:42.700786 14196 net.cpp:91] Creating Layer inception_3b/relu_1x1
I0403 15:10:42.700803 14196 net.cpp:425] inception_3b/relu_1x1 <- inception_3b/1x1
I0403 15:10:42.700819 14196 net.cpp:386] inception_3b/relu_1x1 -> inception_3b/1x1 (in-place)
I0403 15:10:42.701002 14196 net.cpp:141] Setting up inception_3b/relu_1x1
I0403 15:10:42.701027 14196 net.cpp:148] Top shape: 24 128 28 28 (2408448)
I0403 15:10:42.701042 14196 net.cpp:156] Memory required for data: 676774944
I0403 15:10:42.701057 14196 layer_factory.hpp:77] Creating layer inception_3b/3x3_reduce
I0403 15:10:42.701081 14196 net.cpp:91] Creating Layer inception_3b/3x3_reduce
I0403 15:10:42.701097 14196 net.cpp:425] inception_3b/3x3_reduce <- inception_3a/output_inception_3a/output_0_split_1
I0403 15:10:42.701118 14196 net.cpp:399] inception_3b/3x3_reduce -> inception_3b/3x3_reduce
I0403 15:10:42.702272 14196 net.cpp:141] Setting up inception_3b/3x3_reduce
I0403 15:10:42.702302 14196 net.cpp:148] Top shape: 24 128 28 28 (2408448)
I0403 15:10:42.702319 14196 net.cpp:156] Memory required for data: 686408736
I0403 15:10:42.702337 14196 layer_factory.hpp:77] Creating layer inception_3b/relu_3x3_reduce
I0403 15:10:42.702355 14196 net.cpp:91] Creating Layer inception_3b/relu_3x3_reduce
I0403 15:10:42.702371 14196 net.cpp:425] inception_3b/relu_3x3_reduce <- inception_3b/3x3_reduce
I0403 15:10:42.702391 14196 net.cpp:386] inception_3b/relu_3x3_reduce -> inception_3b/3x3_reduce (in-place)
I0403 15:10:42.702570 14196 net.cpp:141] Setting up inception_3b/relu_3x3_reduce
I0403 15:10:42.702595 14196 net.cpp:148] Top shape: 24 128 28 28 (2408448)
I0403 15:10:42.702611 14196 net.cpp:156] Memory required for data: 696042528
I0403 15:10:42.702625 14196 layer_factory.hpp:77] Creating layer inception_3b/3x3
I0403 15:10:42.702652 14196 net.cpp:91] Creating Layer inception_3b/3x3
I0403 15:10:42.702671 14196 net.cpp:425] inception_3b/3x3 <- inception_3b/3x3_reduce
I0403 15:10:42.702689 14196 net.cpp:399] inception_3b/3x3 -> inception_3b/3x3
I0403 15:10:42.705696 14196 net.cpp:141] Setting up inception_3b/3x3
I0403 15:10:42.705725 14196 net.cpp:148] Top shape: 24 192 28 28 (3612672)
I0403 15:10:42.705741 14196 net.cpp:156] Memory required for data: 710493216
I0403 15:10:42.705760 14196 layer_factory.hpp:77] Creating layer inception_3b/relu_3x3
I0403 15:10:42.705778 14196 net.cpp:91] Creating Layer inception_3b/relu_3x3
I0403 15:10:42.705795 14196 net.cpp:425] inception_3b/relu_3x3 <- inception_3b/3x3
I0403 15:10:42.705813 14196 net.cpp:386] inception_3b/relu_3x3 -> inception_3b/3x3 (in-place)
I0403 15:10:42.706092 14196 net.cpp:141] Setting up inception_3b/relu_3x3
I0403 15:10:42.706120 14196 net.cpp:148] Top shape: 24 192 28 28 (3612672)
I0403 15:10:42.706135 14196 net.cpp:156] Memory required for data: 724943904
I0403 15:10:42.706149 14196 layer_factory.hpp:77] Creating layer inception_3b/5x5_reduce
I0403 15:10:42.706173 14196 net.cpp:91] Creating Layer inception_3b/5x5_reduce
I0403 15:10:42.706192 14196 net.cpp:425] inception_3b/5x5_reduce <- inception_3a/output_inception_3a/output_0_split_2
I0403 15:10:42.706212 14196 net.cpp:399] inception_3b/5x5_reduce -> inception_3b/5x5_reduce
I0403 15:10:42.707224 14196 net.cpp:141] Setting up inception_3b/5x5_reduce
I0403 15:10:42.707254 14196 net.cpp:148] Top shape: 24 32 28 28 (602112)
I0403 15:10:42.707272 14196 net.cpp:156] Memory required for data: 727352352
I0403 15:10:42.707290 14196 layer_factory.hpp:77] Creating layer inception_3b/relu_5x5_reduce
I0403 15:10:42.707309 14196 net.cpp:91] Creating Layer inception_3b/relu_5x5_reduce
I0403 15:10:42.707324 14196 net.cpp:425] inception_3b/relu_5x5_reduce <- inception_3b/5x5_reduce
I0403 15:10:42.707345 14196 net.cpp:386] inception_3b/relu_5x5_reduce -> inception_3b/5x5_reduce (in-place)
I0403 15:10:42.707523 14196 net.cpp:141] Setting up inception_3b/relu_5x5_reduce
I0403 15:10:42.707566 14196 net.cpp:148] Top shape: 24 32 28 28 (602112)
I0403 15:10:42.707582 14196 net.cpp:156] Memory required for data: 729760800
I0403 15:10:42.707597 14196 layer_factory.hpp:77] Creating layer inception_3b/5x5
I0403 15:10:42.707619 14196 net.cpp:91] Creating Layer inception_3b/5x5
I0403 15:10:42.707638 14196 net.cpp:425] inception_3b/5x5 <- inception_3b/5x5_reduce
I0403 15:10:42.707659 14196 net.cpp:399] inception_3b/5x5 -> inception_3b/5x5
I0403 15:10:42.709684 14196 net.cpp:141] Setting up inception_3b/5x5
I0403 15:10:42.709712 14196 net.cpp:148] Top shape: 24 96 28 28 (1806336)
I0403 15:10:42.709728 14196 net.cpp:156] Memory required for data: 736986144
I0403 15:10:42.709745 14196 layer_factory.hpp:77] Creating layer inception_3b/relu_5x5
I0403 15:10:42.709765 14196 net.cpp:91] Creating Layer inception_3b/relu_5x5
I0403 15:10:42.709781 14196 net.cpp:425] inception_3b/relu_5x5 <- inception_3b/5x5
I0403 15:10:42.709799 14196 net.cpp:386] inception_3b/relu_5x5 -> inception_3b/5x5 (in-place)
I0403 15:10:42.709986 14196 net.cpp:141] Setting up inception_3b/relu_5x5
I0403 15:10:42.710011 14196 net.cpp:148] Top shape: 24 96 28 28 (1806336)
I0403 15:10:42.710026 14196 net.cpp:156] Memory required for data: 744211488
I0403 15:10:42.710039 14196 layer_factory.hpp:77] Creating layer inception_3b/pool
I0403 15:10:42.710057 14196 net.cpp:91] Creating Layer inception_3b/pool
I0403 15:10:42.710072 14196 net.cpp:425] inception_3b/pool <- inception_3a/output_inception_3a/output_0_split_3
I0403 15:10:42.710089 14196 net.cpp:399] inception_3b/pool -> inception_3b/pool
I0403 15:10:42.710144 14196 net.cpp:141] Setting up inception_3b/pool
I0403 15:10:42.710166 14196 net.cpp:148] Top shape: 24 256 28 28 (4816896)
I0403 15:10:42.710180 14196 net.cpp:156] Memory required for data: 763479072
I0403 15:10:42.710196 14196 layer_factory.hpp:77] Creating layer inception_3b/pool_proj
I0403 15:10:42.710218 14196 net.cpp:91] Creating Layer inception_3b/pool_proj
I0403 15:10:42.710235 14196 net.cpp:425] inception_3b/pool_proj <- inception_3b/pool
I0403 15:10:42.710254 14196 net.cpp:399] inception_3b/pool_proj -> inception_3b/pool_proj
I0403 15:10:42.711302 14196 net.cpp:141] Setting up inception_3b/pool_proj
I0403 15:10:42.711329 14196 net.cpp:148] Top shape: 24 64 28 28 (1204224)
I0403 15:10:42.711344 14196 net.cpp:156] Memory required for data: 768295968
I0403 15:10:42.711361 14196 layer_factory.hpp:77] Creating layer inception_3b/relu_pool_proj
I0403 15:10:42.711382 14196 net.cpp:91] Creating Layer inception_3b/relu_pool_proj
I0403 15:10:42.711400 14196 net.cpp:425] inception_3b/relu_pool_proj <- inception_3b/pool_proj
I0403 15:10:42.711416 14196 net.cpp:386] inception_3b/relu_pool_proj -> inception_3b/pool_proj (in-place)
I0403 15:10:42.711817 14196 net.cpp:141] Setting up inception_3b/relu_pool_proj
I0403 15:10:42.711843 14196 net.cpp:148] Top shape: 24 64 28 28 (1204224)
I0403 15:10:42.711858 14196 net.cpp:156] Memory required for data: 773112864
I0403 15:10:42.711872 14196 layer_factory.hpp:77] Creating layer inception_3b/output
I0403 15:10:42.711889 14196 net.cpp:91] Creating Layer inception_3b/output
I0403 15:10:42.711904 14196 net.cpp:425] inception_3b/output <- inception_3b/1x1
I0403 15:10:42.711920 14196 net.cpp:425] inception_3b/output <- inception_3b/3x3
I0403 15:10:42.711938 14196 net.cpp:425] inception_3b/output <- inception_3b/5x5
I0403 15:10:42.711954 14196 net.cpp:425] inception_3b/output <- inception_3b/pool_proj
I0403 15:10:42.711971 14196 net.cpp:399] inception_3b/output -> inception_3b/output
I0403 15:10:42.712013 14196 net.cpp:141] Setting up inception_3b/output
I0403 15:10:42.712038 14196 net.cpp:148] Top shape: 24 480 28 28 (9031680)
I0403 15:10:42.712054 14196 net.cpp:156] Memory required for data: 809239584
I0403 15:10:42.712067 14196 layer_factory.hpp:77] Creating layer pool3/3x3_s2
I0403 15:10:42.712083 14196 net.cpp:91] Creating Layer pool3/3x3_s2
I0403 15:10:42.712098 14196 net.cpp:425] pool3/3x3_s2 <- inception_3b/output
I0403 15:10:42.712118 14196 net.cpp:399] pool3/3x3_s2 -> pool3/3x3_s2
I0403 15:10:42.712189 14196 net.cpp:141] Setting up pool3/3x3_s2
I0403 15:10:42.712215 14196 net.cpp:148] Top shape: 24 480 14 14 (2257920)
I0403 15:10:42.712229 14196 net.cpp:156] Memory required for data: 818271264
I0403 15:10:42.712244 14196 layer_factory.hpp:77] Creating layer pool3/3x3_s2_pool3/3x3_s2_0_split
I0403 15:10:42.712260 14196 net.cpp:91] Creating Layer pool3/3x3_s2_pool3/3x3_s2_0_split
I0403 15:10:42.712275 14196 net.cpp:425] pool3/3x3_s2_pool3/3x3_s2_0_split <- pool3/3x3_s2
I0403 15:10:42.712291 14196 net.cpp:399] pool3/3x3_s2_pool3/3x3_s2_0_split -> pool3/3x3_s2_pool3/3x3_s2_0_split_0
I0403 15:10:42.712311 14196 net.cpp:399] pool3/3x3_s2_pool3/3x3_s2_0_split -> pool3/3x3_s2_pool3/3x3_s2_0_split_1
I0403 15:10:42.712328 14196 net.cpp:399] pool3/3x3_s2_pool3/3x3_s2_0_split -> pool3/3x3_s2_pool3/3x3_s2_0_split_2
I0403 15:10:42.712349 14196 net.cpp:399] pool3/3x3_s2_pool3/3x3_s2_0_split -> pool3/3x3_s2_pool3/3x3_s2_0_split_3
I0403 15:10:42.712427 14196 net.cpp:141] Setting up pool3/3x3_s2_pool3/3x3_s2_0_split
I0403 15:10:42.712450 14196 net.cpp:148] Top shape: 24 480 14 14 (2257920)
I0403 15:10:42.712466 14196 net.cpp:148] Top shape: 24 480 14 14 (2257920)
I0403 15:10:42.712479 14196 net.cpp:148] Top shape: 24 480 14 14 (2257920)
I0403 15:10:42.712494 14196 net.cpp:148] Top shape: 24 480 14 14 (2257920)
I0403 15:10:42.712507 14196 net.cpp:156] Memory required for data: 854397984
I0403 15:10:42.712520 14196 layer_factory.hpp:77] Creating layer inception_4a/1x1
I0403 15:10:42.712546 14196 net.cpp:91] Creating Layer inception_4a/1x1
I0403 15:10:42.712565 14196 net.cpp:425] inception_4a/1x1 <- pool3/3x3_s2_pool3/3x3_s2_0_split_0
I0403 15:10:42.712586 14196 net.cpp:399] inception_4a/1x1 -> inception_4a/1x1
I0403 15:10:42.714181 14196 net.cpp:141] Setting up inception_4a/1x1
I0403 15:10:42.714208 14196 net.cpp:148] Top shape: 24 192 14 14 (903168)
I0403 15:10:42.714223 14196 net.cpp:156] Memory required for data: 858010656
I0403 15:10:42.714241 14196 layer_factory.hpp:77] Creating layer inception_4a/relu_1x1
I0403 15:10:42.714262 14196 net.cpp:91] Creating Layer inception_4a/relu_1x1
I0403 15:10:42.714278 14196 net.cpp:425] inception_4a/relu_1x1 <- inception_4a/1x1
I0403 15:10:42.714295 14196 net.cpp:386] inception_4a/relu_1x1 -> inception_4a/1x1 (in-place)
I0403 15:10:42.714465 14196 net.cpp:141] Setting up inception_4a/relu_1x1
I0403 15:10:42.714493 14196 net.cpp:148] Top shape: 24 192 14 14 (903168)
I0403 15:10:42.714509 14196 net.cpp:156] Memory required for data: 861623328
I0403 15:10:42.714522 14196 layer_factory.hpp:77] Creating layer inception_4a/3x3_reduce
I0403 15:10:42.714553 14196 net.cpp:91] Creating Layer inception_4a/3x3_reduce
I0403 15:10:42.714575 14196 net.cpp:425] inception_4a/3x3_reduce <- pool3/3x3_s2_pool3/3x3_s2_0_split_1
I0403 15:10:42.714593 14196 net.cpp:399] inception_4a/3x3_reduce -> inception_4a/3x3_reduce
I0403 15:10:42.715867 14196 net.cpp:141] Setting up inception_4a/3x3_reduce
I0403 15:10:42.715895 14196 net.cpp:148] Top shape: 24 96 14 14 (451584)
I0403 15:10:42.715910 14196 net.cpp:156] Memory required for data: 863429664
I0403 15:10:42.715934 14196 layer_factory.hpp:77] Creating layer inception_4a/relu_3x3_reduce
I0403 15:10:42.715953 14196 net.cpp:91] Creating Layer inception_4a/relu_3x3_reduce
I0403 15:10:42.715970 14196 net.cpp:425] inception_4a/relu_3x3_reduce <- inception_4a/3x3_reduce
I0403 15:10:42.715989 14196 net.cpp:386] inception_4a/relu_3x3_reduce -> inception_4a/3x3_reduce (in-place)
I0403 15:10:42.716162 14196 net.cpp:141] Setting up inception_4a/relu_3x3_reduce
I0403 15:10:42.716189 14196 net.cpp:148] Top shape: 24 96 14 14 (451584)
I0403 15:10:42.716204 14196 net.cpp:156] Memory required for data: 865236000
I0403 15:10:42.716219 14196 layer_factory.hpp:77] Creating layer inception_4a/3x3
I0403 15:10:42.716241 14196 net.cpp:91] Creating Layer inception_4a/3x3
I0403 15:10:42.716259 14196 net.cpp:425] inception_4a/3x3 <- inception_4a/3x3_reduce
I0403 15:10:42.716277 14196 net.cpp:399] inception_4a/3x3 -> inception_4a/3x3
I0403 15:10:42.718957 14196 net.cpp:141] Setting up inception_4a/3x3
I0403 15:10:42.718989 14196 net.cpp:148] Top shape: 24 208 14 14 (978432)
I0403 15:10:42.719007 14196 net.cpp:156] Memory required for data: 869149728
I0403 15:10:42.719025 14196 layer_factory.hpp:77] Creating layer inception_4a/relu_3x3
I0403 15:10:42.719043 14196 net.cpp:91] Creating Layer inception_4a/relu_3x3
I0403 15:10:42.719059 14196 net.cpp:425] inception_4a/relu_3x3 <- inception_4a/3x3
I0403 15:10:42.719079 14196 net.cpp:386] inception_4a/relu_3x3 -> inception_4a/3x3 (in-place)
I0403 15:10:42.719357 14196 net.cpp:141] Setting up inception_4a/relu_3x3
I0403 15:10:42.719384 14196 net.cpp:148] Top shape: 24 208 14 14 (978432)
I0403 15:10:42.719400 14196 net.cpp:156] Memory required for data: 873063456
I0403 15:10:42.719415 14196 layer_factory.hpp:77] Creating layer inception_4a/5x5_reduce
I0403 15:10:42.719439 14196 net.cpp:91] Creating Layer inception_4a/5x5_reduce
I0403 15:10:42.719456 14196 net.cpp:425] inception_4a/5x5_reduce <- pool3/3x3_s2_pool3/3x3_s2_0_split_2
I0403 15:10:42.719475 14196 net.cpp:399] inception_4a/5x5_reduce -> inception_4a/5x5_reduce
I0403 15:10:42.720484 14196 net.cpp:141] Setting up inception_4a/5x5_reduce
I0403 15:10:42.720512 14196 net.cpp:148] Top shape: 24 16 14 14 (75264)
I0403 15:10:42.720528 14196 net.cpp:156] Memory required for data: 873364512
I0403 15:10:42.720551 14196 layer_factory.hpp:77] Creating layer inception_4a/relu_5x5_reduce
I0403 15:10:42.720571 14196 net.cpp:91] Creating Layer inception_4a/relu_5x5_reduce
I0403 15:10:42.720587 14196 net.cpp:425] inception_4a/relu_5x5_reduce <- inception_4a/5x5_reduce
I0403 15:10:42.720607 14196 net.cpp:386] inception_4a/relu_5x5_reduce -> inception_4a/5x5_reduce (in-place)
I0403 15:10:42.720782 14196 net.cpp:141] Setting up inception_4a/relu_5x5_reduce
I0403 15:10:42.720805 14196 net.cpp:148] Top shape: 24 16 14 14 (75264)
I0403 15:10:42.720820 14196 net.cpp:156] Memory required for data: 873665568
I0403 15:10:42.720834 14196 layer_factory.hpp:77] Creating layer inception_4a/5x5
I0403 15:10:42.720855 14196 net.cpp:91] Creating Layer inception_4a/5x5
I0403 15:10:42.720872 14196 net.cpp:425] inception_4a/5x5 <- inception_4a/5x5_reduce
I0403 15:10:42.720893 14196 net.cpp:399] inception_4a/5x5 -> inception_4a/5x5
I0403 15:10:42.721976 14196 net.cpp:141] Setting up inception_4a/5x5
I0403 15:10:42.722002 14196 net.cpp:148] Top shape: 24 48 14 14 (225792)
I0403 15:10:42.722018 14196 net.cpp:156] Memory required for data: 874568736
I0403 15:10:42.722034 14196 layer_factory.hpp:77] Creating layer inception_4a/relu_5x5
I0403 15:10:42.722054 14196 net.cpp:91] Creating Layer inception_4a/relu_5x5
I0403 15:10:42.722071 14196 net.cpp:425] inception_4a/relu_5x5 <- inception_4a/5x5
I0403 15:10:42.722089 14196 net.cpp:386] inception_4a/relu_5x5 -> inception_4a/5x5 (in-place)
I0403 15:10:42.722266 14196 net.cpp:141] Setting up inception_4a/relu_5x5
I0403 15:10:42.722290 14196 net.cpp:148] Top shape: 24 48 14 14 (225792)
I0403 15:10:42.722306 14196 net.cpp:156] Memory required for data: 875471904
I0403 15:10:42.722321 14196 layer_factory.hpp:77] Creating layer inception_4a/pool
I0403 15:10:42.722339 14196 net.cpp:91] Creating Layer inception_4a/pool
I0403 15:10:42.722357 14196 net.cpp:425] inception_4a/pool <- pool3/3x3_s2_pool3/3x3_s2_0_split_3
I0403 15:10:42.722374 14196 net.cpp:399] inception_4a/pool -> inception_4a/pool
I0403 15:10:42.722435 14196 net.cpp:141] Setting up inception_4a/pool
I0403 15:10:42.722458 14196 net.cpp:148] Top shape: 24 480 14 14 (2257920)
I0403 15:10:42.722472 14196 net.cpp:156] Memory required for data: 884503584
I0403 15:10:42.722486 14196 layer_factory.hpp:77] Creating layer inception_4a/pool_proj
I0403 15:10:42.722508 14196 net.cpp:91] Creating Layer inception_4a/pool_proj
I0403 15:10:42.722525 14196 net.cpp:425] inception_4a/pool_proj <- inception_4a/pool
I0403 15:10:42.722550 14196 net.cpp:399] inception_4a/pool_proj -> inception_4a/pool_proj
I0403 15:10:42.723716 14196 net.cpp:141] Setting up inception_4a/pool_proj
I0403 15:10:42.723745 14196 net.cpp:148] Top shape: 24 64 14 14 (301056)
I0403 15:10:42.723776 14196 net.cpp:156] Memory required for data: 885707808
I0403 15:10:42.723796 14196 layer_factory.hpp:77] Creating layer inception_4a/relu_pool_proj
I0403 15:10:42.723817 14196 net.cpp:91] Creating Layer inception_4a/relu_pool_proj
I0403 15:10:42.723834 14196 net.cpp:425] inception_4a/relu_pool_proj <- inception_4a/pool_proj
I0403 15:10:42.723851 14196 net.cpp:386] inception_4a/relu_pool_proj -> inception_4a/pool_proj (in-place)
I0403 15:10:42.724133 14196 net.cpp:141] Setting up inception_4a/relu_pool_proj
I0403 15:10:42.724159 14196 net.cpp:148] Top shape: 24 64 14 14 (301056)
I0403 15:10:42.724174 14196 net.cpp:156] Memory required for data: 886912032
I0403 15:10:42.724189 14196 layer_factory.hpp:77] Creating layer inception_4a/output
I0403 15:10:42.724207 14196 net.cpp:91] Creating Layer inception_4a/output
I0403 15:10:42.724223 14196 net.cpp:425] inception_4a/output <- inception_4a/1x1
I0403 15:10:42.724241 14196 net.cpp:425] inception_4a/output <- inception_4a/3x3
I0403 15:10:42.724257 14196 net.cpp:425] inception_4a/output <- inception_4a/5x5
I0403 15:10:42.724272 14196 net.cpp:425] inception_4a/output <- inception_4a/pool_proj
I0403 15:10:42.724288 14196 net.cpp:399] inception_4a/output -> inception_4a/output
I0403 15:10:42.724334 14196 net.cpp:141] Setting up inception_4a/output
I0403 15:10:42.724356 14196 net.cpp:148] Top shape: 24 512 14 14 (2408448)
I0403 15:10:42.724370 14196 net.cpp:156] Memory required for data: 896545824
I0403 15:10:42.724385 14196 layer_factory.hpp:77] Creating layer inception_4a/output_inception_4a/output_0_split
I0403 15:10:42.724402 14196 net.cpp:91] Creating Layer inception_4a/output_inception_4a/output_0_split
I0403 15:10:42.724417 14196 net.cpp:425] inception_4a/output_inception_4a/output_0_split <- inception_4a/output
I0403 15:10:42.724436 14196 net.cpp:399] inception_4a/output_inception_4a/output_0_split -> inception_4a/output_inception_4a/output_0_split_0
I0403 15:10:42.724457 14196 net.cpp:399] inception_4a/output_inception_4a/output_0_split -> inception_4a/output_inception_4a/output_0_split_1
I0403 15:10:42.724477 14196 net.cpp:399] inception_4a/output_inception_4a/output_0_split -> inception_4a/output_inception_4a/output_0_split_2
I0403 15:10:42.724496 14196 net.cpp:399] inception_4a/output_inception_4a/output_0_split -> inception_4a/output_inception_4a/output_0_split_3
I0403 15:10:42.724515 14196 net.cpp:399] inception_4a/output_inception_4a/output_0_split -> inception_4a/output_inception_4a/output_0_split_4
I0403 15:10:42.724617 14196 net.cpp:141] Setting up inception_4a/output_inception_4a/output_0_split
I0403 15:10:42.724642 14196 net.cpp:148] Top shape: 24 512 14 14 (2408448)
I0403 15:10:42.724660 14196 net.cpp:148] Top shape: 24 512 14 14 (2408448)
I0403 15:10:42.724676 14196 net.cpp:148] Top shape: 24 512 14 14 (2408448)
I0403 15:10:42.724691 14196 net.cpp:148] Top shape: 24 512 14 14 (2408448)
I0403 15:10:42.724706 14196 net.cpp:148] Top shape: 24 512 14 14 (2408448)
I0403 15:10:42.724720 14196 net.cpp:156] Memory required for data: 944714784
I0403 15:10:42.724733 14196 layer_factory.hpp:77] Creating layer loss1/ave_pool
I0403 15:10:42.724750 14196 net.cpp:91] Creating Layer loss1/ave_pool
I0403 15:10:42.724766 14196 net.cpp:425] loss1/ave_pool <- inception_4a/output_inception_4a/output_0_split_0
I0403 15:10:42.724786 14196 net.cpp:399] loss1/ave_pool -> loss1/ave_pool
I0403 15:10:42.724992 14196 net.cpp:141] Setting up loss1/ave_pool
I0403 15:10:42.725018 14196 net.cpp:148] Top shape: 24 512 4 4 (196608)
I0403 15:10:42.725031 14196 net.cpp:156] Memory required for data: 945501216
I0403 15:10:42.725045 14196 layer_factory.hpp:77] Creating layer loss1/conv
I0403 15:10:42.725067 14196 net.cpp:91] Creating Layer loss1/conv
I0403 15:10:42.725083 14196 net.cpp:425] loss1/conv <- loss1/ave_pool
I0403 15:10:42.725108 14196 net.cpp:399] loss1/conv -> loss1/conv
I0403 15:10:42.726514 14196 net.cpp:141] Setting up loss1/conv
I0403 15:10:42.726548 14196 net.cpp:148] Top shape: 24 128 4 4 (49152)
I0403 15:10:42.726565 14196 net.cpp:156] Memory required for data: 945697824
I0403 15:10:42.726598 14196 layer_factory.hpp:77] Creating layer loss1/relu_conv
I0403 15:10:42.726618 14196 net.cpp:91] Creating Layer loss1/relu_conv
I0403 15:10:42.726632 14196 net.cpp:425] loss1/relu_conv <- loss1/conv
I0403 15:10:42.726651 14196 net.cpp:386] loss1/relu_conv -> loss1/conv (in-place)
I0403 15:10:42.726927 14196 net.cpp:141] Setting up loss1/relu_conv
I0403 15:10:42.726955 14196 net.cpp:148] Top shape: 24 128 4 4 (49152)
I0403 15:10:42.726970 14196 net.cpp:156] Memory required for data: 945894432
I0403 15:10:42.726984 14196 layer_factory.hpp:77] Creating layer loss1/fc
I0403 15:10:42.727007 14196 net.cpp:91] Creating Layer loss1/fc
I0403 15:10:42.727025 14196 net.cpp:425] loss1/fc <- loss1/conv
I0403 15:10:42.727046 14196 net.cpp:399] loss1/fc -> loss1/fc
I0403 15:10:42.744858 14196 net.cpp:141] Setting up loss1/fc
I0403 15:10:42.744894 14196 net.cpp:148] Top shape: 24 1024 (24576)
I0403 15:10:42.744909 14196 net.cpp:156] Memory required for data: 945992736
I0403 15:10:42.744925 14196 layer_factory.hpp:77] Creating layer loss1/relu_fc
I0403 15:10:42.744946 14196 net.cpp:91] Creating Layer loss1/relu_fc
I0403 15:10:42.744961 14196 net.cpp:425] loss1/relu_fc <- loss1/fc
I0403 15:10:42.744978 14196 net.cpp:386] loss1/relu_fc -> loss1/fc (in-place)
I0403 15:10:42.745157 14196 net.cpp:141] Setting up loss1/relu_fc
I0403 15:10:42.745183 14196 net.cpp:148] Top shape: 24 1024 (24576)
I0403 15:10:42.745198 14196 net.cpp:156] Memory required for data: 946091040
I0403 15:10:42.745211 14196 layer_factory.hpp:77] Creating layer loss1/drop_fc
I0403 15:10:42.745239 14196 net.cpp:91] Creating Layer loss1/drop_fc
I0403 15:10:42.745254 14196 net.cpp:425] loss1/drop_fc <- loss1/fc
I0403 15:10:42.745272 14196 net.cpp:386] loss1/drop_fc -> loss1/fc (in-place)
I0403 15:10:42.745326 14196 net.cpp:141] Setting up loss1/drop_fc
I0403 15:10:42.745349 14196 net.cpp:148] Top shape: 24 1024 (24576)
I0403 15:10:42.745362 14196 net.cpp:156] Memory required for data: 946189344
I0403 15:10:42.745376 14196 layer_factory.hpp:77] Creating layer loss1/classifier_plantvillage
I0403 15:10:42.745398 14196 net.cpp:91] Creating Layer loss1/classifier_plantvillage
I0403 15:10:42.745414 14196 net.cpp:425] loss1/classifier_plantvillage <- loss1/fc
I0403 15:10:42.745431 14196 net.cpp:399] loss1/classifier_plantvillage -> loss1/classifier_plantvillage
I0403 15:10:42.746331 14196 net.cpp:141] Setting up loss1/classifier_plantvillage
I0403 15:10:42.746361 14196 net.cpp:148] Top shape: 24 38 (912)
I0403 15:10:42.746376 14196 net.cpp:156] Memory required for data: 946192992
I0403 15:10:42.746393 14196 layer_factory.hpp:77] Creating layer loss1/classifier_plantvillage_loss1/classifier_plantvillage_0_split
I0403 15:10:42.746412 14196 net.cpp:91] Creating Layer loss1/classifier_plantvillage_loss1/classifier_plantvillage_0_split
I0403 15:10:42.746429 14196 net.cpp:425] loss1/classifier_plantvillage_loss1/classifier_plantvillage_0_split <- loss1/classifier_plantvillage
I0403 15:10:42.746445 14196 net.cpp:399] loss1/classifier_plantvillage_loss1/classifier_plantvillage_0_split -> loss1/classifier_plantvillage_loss1/classifier_plantvillage_0_split_0
I0403 15:10:42.746467 14196 net.cpp:399] loss1/classifier_plantvillage_loss1/classifier_plantvillage_0_split -> loss1/classifier_plantvillage_loss1/classifier_plantvillage_0_split_1
I0403 15:10:42.746489 14196 net.cpp:399] loss1/classifier_plantvillage_loss1/classifier_plantvillage_0_split -> loss1/classifier_plantvillage_loss1/classifier_plantvillage_0_split_2
I0403 15:10:42.746556 14196 net.cpp:141] Setting up loss1/classifier_plantvillage_loss1/classifier_plantvillage_0_split
I0403 15:10:42.746598 14196 net.cpp:148] Top shape: 24 38 (912)
I0403 15:10:42.746619 14196 net.cpp:148] Top shape: 24 38 (912)
I0403 15:10:42.746639 14196 net.cpp:148] Top shape: 24 38 (912)
I0403 15:10:42.746664 14196 net.cpp:156] Memory required for data: 946203936
I0403 15:10:42.746695 14196 layer_factory.hpp:77] Creating layer inception_4b/1x1
I0403 15:10:42.746737 14196 net.cpp:91] Creating Layer inception_4b/1x1
I0403 15:10:42.746776 14196 net.cpp:425] inception_4b/1x1 <- inception_4a/output_inception_4a/output_0_split_1
I0403 15:10:42.746796 14196 net.cpp:399] inception_4b/1x1 -> inception_4b/1x1
I0403 15:10:42.748430 14196 net.cpp:141] Setting up inception_4b/1x1
I0403 15:10:42.748458 14196 net.cpp:148] Top shape: 24 160 14 14 (752640)
I0403 15:10:42.748474 14196 net.cpp:156] Memory required for data: 949214496
I0403 15:10:42.748492 14196 layer_factory.hpp:77] Creating layer inception_4b/relu_1x1
I0403 15:10:42.748509 14196 net.cpp:91] Creating Layer inception_4b/relu_1x1
I0403 15:10:42.748524 14196 net.cpp:425] inception_4b/relu_1x1 <- inception_4b/1x1
I0403 15:10:42.748548 14196 net.cpp:386] inception_4b/relu_1x1 -> inception_4b/1x1 (in-place)
I0403 15:10:42.748721 14196 net.cpp:141] Setting up inception_4b/relu_1x1
I0403 15:10:42.748745 14196 net.cpp:148] Top shape: 24 160 14 14 (752640)
I0403 15:10:42.748759 14196 net.cpp:156] Memory required for data: 952225056
I0403 15:10:42.748772 14196 layer_factory.hpp:77] Creating layer inception_4b/3x3_reduce
I0403 15:10:42.748793 14196 net.cpp:91] Creating Layer inception_4b/3x3_reduce
I0403 15:10:42.748811 14196 net.cpp:425] inception_4b/3x3_reduce <- inception_4a/output_inception_4a/output_0_split_2
I0403 15:10:42.748831 14196 net.cpp:399] inception_4b/3x3_reduce -> inception_4b/3x3_reduce
I0403 15:10:42.750138 14196 net.cpp:141] Setting up inception_4b/3x3_reduce
I0403 15:10:42.750164 14196 net.cpp:148] Top shape: 24 112 14 14 (526848)
I0403 15:10:42.750180 14196 net.cpp:156] Memory required for data: 954332448
I0403 15:10:42.750196 14196 layer_factory.hpp:77] Creating layer inception_4b/relu_3x3_reduce
I0403 15:10:42.750213 14196 net.cpp:91] Creating Layer inception_4b/relu_3x3_reduce
I0403 15:10:42.750228 14196 net.cpp:425] inception_4b/relu_3x3_reduce <- inception_4b/3x3_reduce
I0403 15:10:42.750247 14196 net.cpp:386] inception_4b/relu_3x3_reduce -> inception_4b/3x3_reduce (in-place)
I0403 15:10:42.750522 14196 net.cpp:141] Setting up inception_4b/relu_3x3_reduce
I0403 15:10:42.750552 14196 net.cpp:148] Top shape: 24 112 14 14 (526848)
I0403 15:10:42.750568 14196 net.cpp:156] Memory required for data: 956439840
I0403 15:10:42.750582 14196 layer_factory.hpp:77] Creating layer inception_4b/3x3
I0403 15:10:42.750604 14196 net.cpp:91] Creating Layer inception_4b/3x3
I0403 15:10:42.750622 14196 net.cpp:425] inception_4b/3x3 <- inception_4b/3x3_reduce
I0403 15:10:42.750641 14196 net.cpp:399] inception_4b/3x3 -> inception_4b/3x3
I0403 15:10:42.753532 14196 net.cpp:141] Setting up inception_4b/3x3
I0403 15:10:42.753563 14196 net.cpp:148] Top shape: 24 224 14 14 (1053696)
I0403 15:10:42.753578 14196 net.cpp:156] Memory required for data: 960654624
I0403 15:10:42.753595 14196 layer_factory.hpp:77] Creating layer inception_4b/relu_3x3
I0403 15:10:42.753614 14196 net.cpp:91] Creating Layer inception_4b/relu_3x3
I0403 15:10:42.753631 14196 net.cpp:425] inception_4b/relu_3x3 <- inception_4b/3x3
I0403 15:10:42.753648 14196 net.cpp:386] inception_4b/relu_3x3 -> inception_4b/3x3 (in-place)
I0403 15:10:42.753823 14196 net.cpp:141] Setting up inception_4b/relu_3x3
I0403 15:10:42.753850 14196 net.cpp:148] Top shape: 24 224 14 14 (1053696)
I0403 15:10:42.753865 14196 net.cpp:156] Memory required for data: 964869408
I0403 15:10:42.753880 14196 layer_factory.hpp:77] Creating layer inception_4b/5x5_reduce
I0403 15:10:42.753901 14196 net.cpp:91] Creating Layer inception_4b/5x5_reduce
I0403 15:10:42.753918 14196 net.cpp:425] inception_4b/5x5_reduce <- inception_4a/output_inception_4a/output_0_split_3
I0403 15:10:42.753940 14196 net.cpp:399] inception_4b/5x5_reduce -> inception_4b/5x5_reduce
I0403 15:10:42.755002 14196 net.cpp:141] Setting up inception_4b/5x5_reduce
I0403 15:10:42.755029 14196 net.cpp:148] Top shape: 24 24 14 14 (112896)
I0403 15:10:42.755045 14196 net.cpp:156] Memory required for data: 965320992
I0403 15:10:42.755064 14196 layer_factory.hpp:77] Creating layer inception_4b/relu_5x5_reduce
I0403 15:10:42.755080 14196 net.cpp:91] Creating Layer inception_4b/relu_5x5_reduce
I0403 15:10:42.755110 14196 net.cpp:425] inception_4b/relu_5x5_reduce <- inception_4b/5x5_reduce
I0403 15:10:42.755131 14196 net.cpp:386] inception_4b/relu_5x5_reduce -> inception_4b/5x5_reduce (in-place)
I0403 15:10:42.755307 14196 net.cpp:141] Setting up inception_4b/relu_5x5_reduce
I0403 15:10:42.755333 14196 net.cpp:148] Top shape: 24 24 14 14 (112896)
I0403 15:10:42.755348 14196 net.cpp:156] Memory required for data: 965772576
I0403 15:10:42.755362 14196 layer_factory.hpp:77] Creating layer inception_4b/5x5
I0403 15:10:42.755383 14196 net.cpp:91] Creating Layer inception_4b/5x5
I0403 15:10:42.755400 14196 net.cpp:425] inception_4b/5x5 <- inception_4b/5x5_reduce
I0403 15:10:42.755422 14196 net.cpp:399] inception_4b/5x5 -> inception_4b/5x5
I0403 15:10:42.756618 14196 net.cpp:141] Setting up inception_4b/5x5
I0403 15:10:42.756649 14196 net.cpp:148] Top shape: 24 64 14 14 (301056)
I0403 15:10:42.756664 14196 net.cpp:156] Memory required for data: 966976800
I0403 15:10:42.756682 14196 layer_factory.hpp:77] Creating layer inception_4b/relu_5x5
I0403 15:10:42.756700 14196 net.cpp:91] Creating Layer inception_4b/relu_5x5
I0403 15:10:42.756716 14196 net.cpp:425] inception_4b/relu_5x5 <- inception_4b/5x5
I0403 15:10:42.756736 14196 net.cpp:386] inception_4b/relu_5x5 -> inception_4b/5x5 (in-place)
I0403 15:10:42.757016 14196 net.cpp:141] Setting up inception_4b/relu_5x5
I0403 15:10:42.757046 14196 net.cpp:148] Top shape: 24 64 14 14 (301056)
I0403 15:10:42.757061 14196 net.cpp:156] Memory required for data: 968181024
I0403 15:10:42.757076 14196 layer_factory.hpp:77] Creating layer inception_4b/pool
I0403 15:10:42.757092 14196 net.cpp:91] Creating Layer inception_4b/pool
I0403 15:10:42.757108 14196 net.cpp:425] inception_4b/pool <- inception_4a/output_inception_4a/output_0_split_4
I0403 15:10:42.757128 14196 net.cpp:399] inception_4b/pool -> inception_4b/pool
I0403 15:10:42.757189 14196 net.cpp:141] Setting up inception_4b/pool
I0403 15:10:42.757215 14196 net.cpp:148] Top shape: 24 512 14 14 (2408448)
I0403 15:10:42.757228 14196 net.cpp:156] Memory required for data: 977814816
I0403 15:10:42.757242 14196 layer_factory.hpp:77] Creating layer inception_4b/pool_proj
I0403 15:10:42.757261 14196 net.cpp:91] Creating Layer inception_4b/pool_proj
I0403 15:10:42.757277 14196 net.cpp:425] inception_4b/pool_proj <- inception_4b/pool
I0403 15:10:42.757298 14196 net.cpp:399] inception_4b/pool_proj -> inception_4b/pool_proj
I0403 15:10:42.758465 14196 net.cpp:141] Setting up inception_4b/pool_proj
I0403 15:10:42.758492 14196 net.cpp:148] Top shape: 24 64 14 14 (301056)
I0403 15:10:42.758507 14196 net.cpp:156] Memory required for data: 979019040
I0403 15:10:42.758527 14196 layer_factory.hpp:77] Creating layer inception_4b/relu_pool_proj
I0403 15:10:42.758549 14196 net.cpp:91] Creating Layer inception_4b/relu_pool_proj
I0403 15:10:42.758566 14196 net.cpp:425] inception_4b/relu_pool_proj <- inception_4b/pool_proj
I0403 15:10:42.758584 14196 net.cpp:386] inception_4b/relu_pool_proj -> inception_4b/pool_proj (in-place)
I0403 15:10:42.758756 14196 net.cpp:141] Setting up inception_4b/relu_pool_proj
I0403 15:10:42.758781 14196 net.cpp:148] Top shape: 24 64 14 14 (301056)
I0403 15:10:42.758795 14196 net.cpp:156] Memory required for data: 980223264
I0403 15:10:42.758808 14196 layer_factory.hpp:77] Creating layer inception_4b/output
I0403 15:10:42.758824 14196 net.cpp:91] Creating Layer inception_4b/output
I0403 15:10:42.758838 14196 net.cpp:425] inception_4b/output <- inception_4b/1x1
I0403 15:10:42.758854 14196 net.cpp:425] inception_4b/output <- inception_4b/3x3
I0403 15:10:42.758869 14196 net.cpp:425] inception_4b/output <- inception_4b/5x5
I0403 15:10:42.758885 14196 net.cpp:425] inception_4b/output <- inception_4b/pool_proj
I0403 15:10:42.758903 14196 net.cpp:399] inception_4b/output -> inception_4b/output
I0403 15:10:42.758950 14196 net.cpp:141] Setting up inception_4b/output
I0403 15:10:42.758972 14196 net.cpp:148] Top shape: 24 512 14 14 (2408448)
I0403 15:10:42.758986 14196 net.cpp:156] Memory required for data: 989857056
I0403 15:10:42.759013 14196 layer_factory.hpp:77] Creating layer inception_4b/output_inception_4b/output_0_split
I0403 15:10:42.759030 14196 net.cpp:91] Creating Layer inception_4b/output_inception_4b/output_0_split
I0403 15:10:42.759045 14196 net.cpp:425] inception_4b/output_inception_4b/output_0_split <- inception_4b/output
I0403 15:10:42.759064 14196 net.cpp:399] inception_4b/output_inception_4b/output_0_split -> inception_4b/output_inception_4b/output_0_split_0
I0403 15:10:42.759084 14196 net.cpp:399] inception_4b/output_inception_4b/output_0_split -> inception_4b/output_inception_4b/output_0_split_1
I0403 15:10:42.759104 14196 net.cpp:399] inception_4b/output_inception_4b/output_0_split -> inception_4b/output_inception_4b/output_0_split_2
I0403 15:10:42.759122 14196 net.cpp:399] inception_4b/output_inception_4b/output_0_split -> inception_4b/output_inception_4b/output_0_split_3
I0403 15:10:42.759204 14196 net.cpp:141] Setting up inception_4b/output_inception_4b/output_0_split
I0403 15:10:42.759228 14196 net.cpp:148] Top shape: 24 512 14 14 (2408448)
I0403 15:10:42.759245 14196 net.cpp:148] Top shape: 24 512 14 14 (2408448)
I0403 15:10:42.759261 14196 net.cpp:148] Top shape: 24 512 14 14 (2408448)
I0403 15:10:42.759276 14196 net.cpp:148] Top shape: 24 512 14 14 (2408448)
I0403 15:10:42.759289 14196 net.cpp:156] Memory required for data: 1028392224
I0403 15:10:42.759302 14196 layer_factory.hpp:77] Creating layer inception_4c/1x1
I0403 15:10:42.759323 14196 net.cpp:91] Creating Layer inception_4c/1x1
I0403 15:10:42.759340 14196 net.cpp:425] inception_4c/1x1 <- inception_4b/output_inception_4b/output_0_split_0
I0403 15:10:42.759358 14196 net.cpp:399] inception_4c/1x1 -> inception_4c/1x1
I0403 15:10:42.760756 14196 net.cpp:141] Setting up inception_4c/1x1
I0403 15:10:42.760784 14196 net.cpp:148] Top shape: 24 128 14 14 (602112)
I0403 15:10:42.760799 14196 net.cpp:156] Memory required for data: 1030800672
I0403 15:10:42.760817 14196 layer_factory.hpp:77] Creating layer inception_4c/relu_1x1
I0403 15:10:42.760838 14196 net.cpp:91] Creating Layer inception_4c/relu_1x1
I0403 15:10:42.760854 14196 net.cpp:425] inception_4c/relu_1x1 <- inception_4c/1x1
I0403 15:10:42.760871 14196 net.cpp:386] inception_4c/relu_1x1 -> inception_4c/1x1 (in-place)
I0403 15:10:42.761041 14196 net.cpp:141] Setting up inception_4c/relu_1x1
I0403 15:10:42.761068 14196 net.cpp:148] Top shape: 24 128 14 14 (602112)
I0403 15:10:42.761082 14196 net.cpp:156] Memory required for data: 1033209120
I0403 15:10:42.761097 14196 layer_factory.hpp:77] Creating layer inception_4c/3x3_reduce
I0403 15:10:42.761118 14196 net.cpp:91] Creating Layer inception_4c/3x3_reduce
I0403 15:10:42.761135 14196 net.cpp:425] inception_4c/3x3_reduce <- inception_4b/output_inception_4b/output_0_split_1
I0403 15:10:42.761154 14196 net.cpp:399] inception_4c/3x3_reduce -> inception_4c/3x3_reduce
I0403 15:10:42.763047 14196 net.cpp:141] Setting up inception_4c/3x3_reduce
I0403 15:10:42.763077 14196 net.cpp:148] Top shape: 24 128 14 14 (602112)
I0403 15:10:42.763094 14196 net.cpp:156] Memory required for data: 1035617568
I0403 15:10:42.763113 14196 layer_factory.hpp:77] Creating layer inception_4c/relu_3x3_reduce
I0403 15:10:42.763129 14196 net.cpp:91] Creating Layer inception_4c/relu_3x3_reduce
I0403 15:10:42.763145 14196 net.cpp:425] inception_4c/relu_3x3_reduce <- inception_4c/3x3_reduce
I0403 15:10:42.763164 14196 net.cpp:386] inception_4c/relu_3x3_reduce -> inception_4c/3x3_reduce (in-place)
I0403 15:10:42.763442 14196 net.cpp:141] Setting up inception_4c/relu_3x3_reduce
I0403 15:10:42.763469 14196 net.cpp:148] Top shape: 24 128 14 14 (602112)
I0403 15:10:42.763484 14196 net.cpp:156] Memory required for data: 1038026016
I0403 15:10:42.763499 14196 layer_factory.hpp:77] Creating layer inception_4c/3x3
I0403 15:10:42.763520 14196 net.cpp:91] Creating Layer inception_4c/3x3
I0403 15:10:42.763541 14196 net.cpp:425] inception_4c/3x3 <- inception_4c/3x3_reduce
I0403 15:10:42.763566 14196 net.cpp:399] inception_4c/3x3 -> inception_4c/3x3
I0403 15:10:42.767069 14196 net.cpp:141] Setting up inception_4c/3x3
I0403 15:10:42.767112 14196 net.cpp:148] Top shape: 24 256 14 14 (1204224)
I0403 15:10:42.767130 14196 net.cpp:156] Memory required for data: 1042842912
I0403 15:10:42.767163 14196 layer_factory.hpp:77] Creating layer inception_4c/relu_3x3
I0403 15:10:42.767184 14196 net.cpp:91] Creating Layer inception_4c/relu_3x3
I0403 15:10:42.767200 14196 net.cpp:425] inception_4c/relu_3x3 <- inception_4c/3x3
I0403 15:10:42.767221 14196 net.cpp:386] inception_4c/relu_3x3 -> inception_4c/3x3 (in-place)
I0403 15:10:42.767397 14196 net.cpp:141] Setting up inception_4c/relu_3x3
I0403 15:10:42.767421 14196 net.cpp:148] Top shape: 24 256 14 14 (1204224)
I0403 15:10:42.767439 14196 net.cpp:156] Memory required for data: 1047659808
I0403 15:10:42.767453 14196 layer_factory.hpp:77] Creating layer inception_4c/5x5_reduce
I0403 15:10:42.767479 14196 net.cpp:91] Creating Layer inception_4c/5x5_reduce
I0403 15:10:42.767503 14196 net.cpp:425] inception_4c/5x5_reduce <- inception_4b/output_inception_4b/output_0_split_2
I0403 15:10:42.767529 14196 net.cpp:399] inception_4c/5x5_reduce -> inception_4c/5x5_reduce
I0403 15:10:42.768640 14196 net.cpp:141] Setting up inception_4c/5x5_reduce
I0403 15:10:42.768666 14196 net.cpp:148] Top shape: 24 24 14 14 (112896)
I0403 15:10:42.768682 14196 net.cpp:156] Memory required for data: 1048111392
I0403 15:10:42.768700 14196 layer_factory.hpp:77] Creating layer inception_4c/relu_5x5_reduce
I0403 15:10:42.768718 14196 net.cpp:91] Creating Layer inception_4c/relu_5x5_reduce
I0403 15:10:42.768733 14196 net.cpp:425] inception_4c/relu_5x5_reduce <- inception_4c/5x5_reduce
I0403 15:10:42.768753 14196 net.cpp:386] inception_4c/relu_5x5_reduce -> inception_4c/5x5_reduce (in-place)
I0403 15:10:42.768934 14196 net.cpp:141] Setting up inception_4c/relu_5x5_reduce
I0403 15:10:42.768959 14196 net.cpp:148] Top shape: 24 24 14 14 (112896)
I0403 15:10:42.768973 14196 net.cpp:156] Memory required for data: 1048562976
I0403 15:10:42.768987 14196 layer_factory.hpp:77] Creating layer inception_4c/5x5
I0403 15:10:42.769009 14196 net.cpp:91] Creating Layer inception_4c/5x5
I0403 15:10:42.769027 14196 net.cpp:425] inception_4c/5x5 <- inception_4c/5x5_reduce
I0403 15:10:42.769049 14196 net.cpp:399] inception_4c/5x5 -> inception_4c/5x5
I0403 15:10:42.770333 14196 net.cpp:141] Setting up inception_4c/5x5
I0403 15:10:42.770360 14196 net.cpp:148] Top shape: 24 64 14 14 (301056)
I0403 15:10:42.770375 14196 net.cpp:156] Memory required for data: 1049767200
I0403 15:10:42.770393 14196 layer_factory.hpp:77] Creating layer inception_4c/relu_5x5
I0403 15:10:42.770414 14196 net.cpp:91] Creating Layer inception_4c/relu_5x5
I0403 15:10:42.770431 14196 net.cpp:425] inception_4c/relu_5x5 <- inception_4c/5x5
I0403 15:10:42.770449 14196 net.cpp:386] inception_4c/relu_5x5 -> inception_4c/5x5 (in-place)
I0403 15:10:42.770748 14196 net.cpp:141] Setting up inception_4c/relu_5x5
I0403 15:10:42.770776 14196 net.cpp:148] Top shape: 24 64 14 14 (301056)
I0403 15:10:42.770792 14196 net.cpp:156] Memory required for data: 1050971424
I0403 15:10:42.770805 14196 layer_factory.hpp:77] Creating layer inception_4c/pool
I0403 15:10:42.770824 14196 net.cpp:91] Creating Layer inception_4c/pool
I0403 15:10:42.770843 14196 net.cpp:425] inception_4c/pool <- inception_4b/output_inception_4b/output_0_split_3
I0403 15:10:42.770860 14196 net.cpp:399] inception_4c/pool -> inception_4c/pool
I0403 15:10:42.770928 14196 net.cpp:141] Setting up inception_4c/pool
I0403 15:10:42.770952 14196 net.cpp:148] Top shape: 24 512 14 14 (2408448)
I0403 15:10:42.770967 14196 net.cpp:156] Memory required for data: 1060605216
I0403 15:10:42.770982 14196 layer_factory.hpp:77] Creating layer inception_4c/pool_proj
I0403 15:10:42.771003 14196 net.cpp:91] Creating Layer inception_4c/pool_proj
I0403 15:10:42.771021 14196 net.cpp:425] inception_4c/pool_proj <- inception_4c/pool
I0403 15:10:42.771042 14196 net.cpp:399] inception_4c/pool_proj -> inception_4c/pool_proj
I0403 15:10:42.772312 14196 net.cpp:141] Setting up inception_4c/pool_proj
I0403 15:10:42.772343 14196 net.cpp:148] Top shape: 24 64 14 14 (301056)
I0403 15:10:42.772373 14196 net.cpp:156] Memory required for data: 1061809440
I0403 15:10:42.772393 14196 layer_factory.hpp:77] Creating layer inception_4c/relu_pool_proj
I0403 15:10:42.772411 14196 net.cpp:91] Creating Layer inception_4c/relu_pool_proj
I0403 15:10:42.772428 14196 net.cpp:425] inception_4c/relu_pool_proj <- inception_4c/pool_proj
I0403 15:10:42.772449 14196 net.cpp:386] inception_4c/relu_pool_proj -> inception_4c/pool_proj (in-place)
I0403 15:10:42.772641 14196 net.cpp:141] Setting up inception_4c/relu_pool_proj
I0403 15:10:42.772666 14196 net.cpp:148] Top shape: 24 64 14 14 (301056)
I0403 15:10:42.772681 14196 net.cpp:156] Memory required for data: 1063013664
I0403 15:10:42.772696 14196 layer_factory.hpp:77] Creating layer inception_4c/output
I0403 15:10:42.772713 14196 net.cpp:91] Creating Layer inception_4c/output
I0403 15:10:42.772728 14196 net.cpp:425] inception_4c/output <- inception_4c/1x1
I0403 15:10:42.772744 14196 net.cpp:425] inception_4c/output <- inception_4c/3x3
I0403 15:10:42.772760 14196 net.cpp:425] inception_4c/output <- inception_4c/5x5
I0403 15:10:42.772776 14196 net.cpp:425] inception_4c/output <- inception_4c/pool_proj
I0403 15:10:42.772795 14196 net.cpp:399] inception_4c/output -> inception_4c/output
I0403 15:10:42.772846 14196 net.cpp:141] Setting up inception_4c/output
I0403 15:10:42.772871 14196 net.cpp:148] Top shape: 24 512 14 14 (2408448)
I0403 15:10:42.772884 14196 net.cpp:156] Memory required for data: 1072647456
I0403 15:10:42.772898 14196 layer_factory.hpp:77] Creating layer inception_4c/output_inception_4c/output_0_split
I0403 15:10:42.772914 14196 net.cpp:91] Creating Layer inception_4c/output_inception_4c/output_0_split
I0403 15:10:42.772930 14196 net.cpp:425] inception_4c/output_inception_4c/output_0_split <- inception_4c/output
I0403 15:10:42.772949 14196 net.cpp:399] inception_4c/output_inception_4c/output_0_split -> inception_4c/output_inception_4c/output_0_split_0
I0403 15:10:42.772970 14196 net.cpp:399] inception_4c/output_inception_4c/output_0_split -> inception_4c/output_inception_4c/output_0_split_1
I0403 15:10:42.772990 14196 net.cpp:399] inception_4c/output_inception_4c/output_0_split -> inception_4c/output_inception_4c/output_0_split_2
I0403 15:10:42.773010 14196 net.cpp:399] inception_4c/output_inception_4c/output_0_split -> inception_4c/output_inception_4c/output_0_split_3
I0403 15:10:42.773100 14196 net.cpp:141] Setting up inception_4c/output_inception_4c/output_0_split
I0403 15:10:42.773126 14196 net.cpp:148] Top shape: 24 512 14 14 (2408448)
I0403 15:10:42.773144 14196 net.cpp:148] Top shape: 24 512 14 14 (2408448)
I0403 15:10:42.773159 14196 net.cpp:148] Top shape: 24 512 14 14 (2408448)
I0403 15:10:42.773175 14196 net.cpp:148] Top shape: 24 512 14 14 (2408448)
I0403 15:10:42.773187 14196 net.cpp:156] Memory required for data: 1111182624
I0403 15:10:42.773201 14196 layer_factory.hpp:77] Creating layer inception_4d/1x1
I0403 15:10:42.773223 14196 net.cpp:91] Creating Layer inception_4d/1x1
I0403 15:10:42.773241 14196 net.cpp:425] inception_4d/1x1 <- inception_4c/output_inception_4c/output_0_split_0
I0403 15:10:42.773259 14196 net.cpp:399] inception_4d/1x1 -> inception_4d/1x1
I0403 15:10:42.774708 14196 net.cpp:141] Setting up inception_4d/1x1
I0403 15:10:42.774739 14196 net.cpp:148] Top shape: 24 112 14 14 (526848)
I0403 15:10:42.774754 14196 net.cpp:156] Memory required for data: 1113290016
I0403 15:10:42.774772 14196 layer_factory.hpp:77] Creating layer inception_4d/relu_1x1
I0403 15:10:42.774792 14196 net.cpp:91] Creating Layer inception_4d/relu_1x1
I0403 15:10:42.774809 14196 net.cpp:425] inception_4d/relu_1x1 <- inception_4d/1x1
I0403 15:10:42.774827 14196 net.cpp:386] inception_4d/relu_1x1 -> inception_4d/1x1 (in-place)
I0403 15:10:42.775017 14196 net.cpp:141] Setting up inception_4d/relu_1x1
I0403 15:10:42.775041 14196 net.cpp:148] Top shape: 24 112 14 14 (526848)
I0403 15:10:42.775055 14196 net.cpp:156] Memory required for data: 1115397408
I0403 15:10:42.775070 14196 layer_factory.hpp:77] Creating layer inception_4d/3x3_reduce
I0403 15:10:42.775107 14196 net.cpp:91] Creating Layer inception_4d/3x3_reduce
I0403 15:10:42.775126 14196 net.cpp:425] inception_4d/3x3_reduce <- inception_4c/output_inception_4c/output_0_split_1
I0403 15:10:42.775147 14196 net.cpp:399] inception_4d/3x3_reduce -> inception_4d/3x3_reduce
I0403 15:10:42.776734 14196 net.cpp:141] Setting up inception_4d/3x3_reduce
I0403 15:10:42.776762 14196 net.cpp:148] Top shape: 24 144 14 14 (677376)
I0403 15:10:42.776777 14196 net.cpp:156] Memory required for data: 1118106912
I0403 15:10:42.776795 14196 layer_factory.hpp:77] Creating layer inception_4d/relu_3x3_reduce
I0403 15:10:42.776815 14196 net.cpp:91] Creating Layer inception_4d/relu_3x3_reduce
I0403 15:10:42.776834 14196 net.cpp:425] inception_4d/relu_3x3_reduce <- inception_4d/3x3_reduce
I0403 15:10:42.776850 14196 net.cpp:386] inception_4d/relu_3x3_reduce -> inception_4d/3x3_reduce (in-place)
I0403 15:10:42.777153 14196 net.cpp:141] Setting up inception_4d/relu_3x3_reduce
I0403 15:10:42.777179 14196 net.cpp:148] Top shape: 24 144 14 14 (677376)
I0403 15:10:42.777195 14196 net.cpp:156] Memory required for data: 1120816416
I0403 15:10:42.777210 14196 layer_factory.hpp:77] Creating layer inception_4d/3x3
I0403 15:10:42.777232 14196 net.cpp:91] Creating Layer inception_4d/3x3
I0403 15:10:42.777251 14196 net.cpp:425] inception_4d/3x3 <- inception_4d/3x3_reduce
I0403 15:10:42.777274 14196 net.cpp:399] inception_4d/3x3 -> inception_4d/3x3
I0403 15:10:42.781711 14196 net.cpp:141] Setting up inception_4d/3x3
I0403 15:10:42.781744 14196 net.cpp:148] Top shape: 24 288 14 14 (1354752)
I0403 15:10:42.781760 14196 net.cpp:156] Memory required for data: 1126235424
I0403 15:10:42.781780 14196 layer_factory.hpp:77] Creating layer inception_4d/relu_3x3
I0403 15:10:42.781797 14196 net.cpp:91] Creating Layer inception_4d/relu_3x3
I0403 15:10:42.781812 14196 net.cpp:425] inception_4d/relu_3x3 <- inception_4d/3x3
I0403 15:10:42.781831 14196 net.cpp:386] inception_4d/relu_3x3 -> inception_4d/3x3 (in-place)
I0403 15:10:42.782019 14196 net.cpp:141] Setting up inception_4d/relu_3x3
I0403 15:10:42.782045 14196 net.cpp:148] Top shape: 24 288 14 14 (1354752)
I0403 15:10:42.782060 14196 net.cpp:156] Memory required for data: 1131654432
I0403 15:10:42.782074 14196 layer_factory.hpp:77] Creating layer inception_4d/5x5_reduce
I0403 15:10:42.782097 14196 net.cpp:91] Creating Layer inception_4d/5x5_reduce
I0403 15:10:42.782115 14196 net.cpp:425] inception_4d/5x5_reduce <- inception_4c/output_inception_4c/output_0_split_2
I0403 15:10:42.782138 14196 net.cpp:399] inception_4d/5x5_reduce -> inception_4d/5x5_reduce
I0403 15:10:42.783329 14196 net.cpp:141] Setting up inception_4d/5x5_reduce
I0403 15:10:42.783360 14196 net.cpp:148] Top shape: 24 32 14 14 (150528)
I0403 15:10:42.783376 14196 net.cpp:156] Memory required for data: 1132256544
I0403 15:10:42.783396 14196 layer_factory.hpp:77] Creating layer inception_4d/relu_5x5_reduce
I0403 15:10:42.783413 14196 net.cpp:91] Creating Layer inception_4d/relu_5x5_reduce
I0403 15:10:42.783429 14196 net.cpp:425] inception_4d/relu_5x5_reduce <- inception_4d/5x5_reduce
I0403 15:10:42.783449 14196 net.cpp:386] inception_4d/relu_5x5_reduce -> inception_4d/5x5_reduce (in-place)
I0403 15:10:42.783653 14196 net.cpp:141] Setting up inception_4d/relu_5x5_reduce
I0403 15:10:42.783679 14196 net.cpp:148] Top shape: 24 32 14 14 (150528)
I0403 15:10:42.783694 14196 net.cpp:156] Memory required for data: 1132858656
I0403 15:10:42.783707 14196 layer_factory.hpp:77] Creating layer inception_4d/5x5
I0403 15:10:42.783730 14196 net.cpp:91] Creating Layer inception_4d/5x5
I0403 15:10:42.783749 14196 net.cpp:425] inception_4d/5x5 <- inception_4d/5x5_reduce
I0403 15:10:42.783771 14196 net.cpp:399] inception_4d/5x5 -> inception_4d/5x5
I0403 15:10:42.785315 14196 net.cpp:141] Setting up inception_4d/5x5
I0403 15:10:42.785342 14196 net.cpp:148] Top shape: 24 64 14 14 (301056)
I0403 15:10:42.785358 14196 net.cpp:156] Memory required for data: 1134062880
I0403 15:10:42.785377 14196 layer_factory.hpp:77] Creating layer inception_4d/relu_5x5
I0403 15:10:42.785413 14196 net.cpp:91] Creating Layer inception_4d/relu_5x5
I0403 15:10:42.785429 14196 net.cpp:425] inception_4d/relu_5x5 <- inception_4d/5x5
I0403 15:10:42.785450 14196 net.cpp:386] inception_4d/relu_5x5 -> inception_4d/5x5 (in-place)
I0403 15:10:42.785766 14196 net.cpp:141] Setting up inception_4d/relu_5x5
I0403 15:10:42.785794 14196 net.cpp:148] Top shape: 24 64 14 14 (301056)
I0403 15:10:42.785809 14196 net.cpp:156] Memory required for data: 1135267104
I0403 15:10:42.785822 14196 layer_factory.hpp:77] Creating layer inception_4d/pool
I0403 15:10:42.785840 14196 net.cpp:91] Creating Layer inception_4d/pool
I0403 15:10:42.785856 14196 net.cpp:425] inception_4d/pool <- inception_4c/output_inception_4c/output_0_split_3
I0403 15:10:42.785877 14196 net.cpp:399] inception_4d/pool -> inception_4d/pool
I0403 15:10:42.785948 14196 net.cpp:141] Setting up inception_4d/pool
I0403 15:10:42.785971 14196 net.cpp:148] Top shape: 24 512 14 14 (2408448)
I0403 15:10:42.785986 14196 net.cpp:156] Memory required for data: 1144900896
I0403 15:10:42.786000 14196 layer_factory.hpp:77] Creating layer inception_4d/pool_proj
I0403 15:10:42.786025 14196 net.cpp:91] Creating Layer inception_4d/pool_proj
I0403 15:10:42.786043 14196 net.cpp:425] inception_4d/pool_proj <- inception_4d/pool
I0403 15:10:42.786062 14196 net.cpp:399] inception_4d/pool_proj -> inception_4d/pool_proj
I0403 15:10:42.787921 14196 net.cpp:141] Setting up inception_4d/pool_proj
I0403 15:10:42.787953 14196 net.cpp:148] Top shape: 24 64 14 14 (301056)
I0403 15:10:42.787971 14196 net.cpp:156] Memory required for data: 1146105120
I0403 15:10:42.787988 14196 layer_factory.hpp:77] Creating layer inception_4d/relu_pool_proj
I0403 15:10:42.788007 14196 net.cpp:91] Creating Layer inception_4d/relu_pool_proj
I0403 15:10:42.788022 14196 net.cpp:425] inception_4d/relu_pool_proj <- inception_4d/pool_proj
I0403 15:10:42.788039 14196 net.cpp:386] inception_4d/relu_pool_proj -> inception_4d/pool_proj (in-place)
I0403 15:10:42.788230 14196 net.cpp:141] Setting up inception_4d/relu_pool_proj
I0403 15:10:42.788255 14196 net.cpp:148] Top shape: 24 64 14 14 (301056)
I0403 15:10:42.788270 14196 net.cpp:156] Memory required for data: 1147309344
I0403 15:10:42.788285 14196 layer_factory.hpp:77] Creating layer inception_4d/output
I0403 15:10:42.788302 14196 net.cpp:91] Creating Layer inception_4d/output
I0403 15:10:42.788317 14196 net.cpp:425] inception_4d/output <- inception_4d/1x1
I0403 15:10:42.788333 14196 net.cpp:425] inception_4d/output <- inception_4d/3x3
I0403 15:10:42.788349 14196 net.cpp:425] inception_4d/output <- inception_4d/5x5
I0403 15:10:42.788365 14196 net.cpp:425] inception_4d/output <- inception_4d/pool_proj
I0403 15:10:42.788384 14196 net.cpp:399] inception_4d/output -> inception_4d/output
I0403 15:10:42.788434 14196 net.cpp:141] Setting up inception_4d/output
I0403 15:10:42.788460 14196 net.cpp:148] Top shape: 24 528 14 14 (2483712)
I0403 15:10:42.788475 14196 net.cpp:156] Memory required for data: 1157244192
I0403 15:10:42.788489 14196 layer_factory.hpp:77] Creating layer inception_4d/output_inception_4d/output_0_split
I0403 15:10:42.788507 14196 net.cpp:91] Creating Layer inception_4d/output_inception_4d/output_0_split
I0403 15:10:42.788522 14196 net.cpp:425] inception_4d/output_inception_4d/output_0_split <- inception_4d/output
I0403 15:10:42.788548 14196 net.cpp:399] inception_4d/output_inception_4d/output_0_split -> inception_4d/output_inception_4d/output_0_split_0
I0403 15:10:42.788573 14196 net.cpp:399] inception_4d/output_inception_4d/output_0_split -> inception_4d/output_inception_4d/output_0_split_1
I0403 15:10:42.788594 14196 net.cpp:399] inception_4d/output_inception_4d/output_0_split -> inception_4d/output_inception_4d/output_0_split_2
I0403 15:10:42.788614 14196 net.cpp:399] inception_4d/output_inception_4d/output_0_split -> inception_4d/output_inception_4d/output_0_split_3
I0403 15:10:42.788635 14196 net.cpp:399] inception_4d/output_inception_4d/output_0_split -> inception_4d/output_inception_4d/output_0_split_4
I0403 15:10:42.788740 14196 net.cpp:141] Setting up inception_4d/output_inception_4d/output_0_split
I0403 15:10:42.788779 14196 net.cpp:148] Top shape: 24 528 14 14 (2483712)
I0403 15:10:42.788795 14196 net.cpp:148] Top shape: 24 528 14 14 (2483712)
I0403 15:10:42.788811 14196 net.cpp:148] Top shape: 24 528 14 14 (2483712)
I0403 15:10:42.788826 14196 net.cpp:148] Top shape: 24 528 14 14 (2483712)
I0403 15:10:42.788841 14196 net.cpp:148] Top shape: 24 528 14 14 (2483712)
I0403 15:10:42.788854 14196 net.cpp:156] Memory required for data: 1206918432
I0403 15:10:42.788869 14196 layer_factory.hpp:77] Creating layer loss2/ave_pool
I0403 15:10:42.788888 14196 net.cpp:91] Creating Layer loss2/ave_pool
I0403 15:10:42.788907 14196 net.cpp:425] loss2/ave_pool <- inception_4d/output_inception_4d/output_0_split_0
I0403 15:10:42.788924 14196 net.cpp:399] loss2/ave_pool -> loss2/ave_pool
I0403 15:10:42.789247 14196 net.cpp:141] Setting up loss2/ave_pool
I0403 15:10:42.789279 14196 net.cpp:148] Top shape: 24 528 4 4 (202752)
I0403 15:10:42.789294 14196 net.cpp:156] Memory required for data: 1207729440
I0403 15:10:42.789309 14196 layer_factory.hpp:77] Creating layer loss2/conv
I0403 15:10:42.789332 14196 net.cpp:91] Creating Layer loss2/conv
I0403 15:10:42.789350 14196 net.cpp:425] loss2/conv <- loss2/ave_pool
I0403 15:10:42.789369 14196 net.cpp:399] loss2/conv -> loss2/conv
I0403 15:10:42.791306 14196 net.cpp:141] Setting up loss2/conv
I0403 15:10:42.791333 14196 net.cpp:148] Top shape: 24 128 4 4 (49152)
I0403 15:10:42.791349 14196 net.cpp:156] Memory required for data: 1207926048
I0403 15:10:42.791366 14196 layer_factory.hpp:77] Creating layer loss2/relu_conv
I0403 15:10:42.791386 14196 net.cpp:91] Creating Layer loss2/relu_conv
I0403 15:10:42.791404 14196 net.cpp:425] loss2/relu_conv <- loss2/conv
I0403 15:10:42.791421 14196 net.cpp:386] loss2/relu_conv -> loss2/conv (in-place)
I0403 15:10:42.791713 14196 net.cpp:141] Setting up loss2/relu_conv
I0403 15:10:42.791739 14196 net.cpp:148] Top shape: 24 128 4 4 (49152)
I0403 15:10:42.791754 14196 net.cpp:156] Memory required for data: 1208122656
I0403 15:10:42.791767 14196 layer_factory.hpp:77] Creating layer loss2/fc
I0403 15:10:42.791790 14196 net.cpp:91] Creating Layer loss2/fc
I0403 15:10:42.791806 14196 net.cpp:425] loss2/fc <- loss2/conv
I0403 15:10:42.791824 14196 net.cpp:399] loss2/fc -> loss2/fc
I0403 15:10:42.809484 14196 net.cpp:141] Setting up loss2/fc
I0403 15:10:42.809540 14196 net.cpp:148] Top shape: 24 1024 (24576)
I0403 15:10:42.809556 14196 net.cpp:156] Memory required for data: 1208220960
I0403 15:10:42.809574 14196 layer_factory.hpp:77] Creating layer loss2/relu_fc
I0403 15:10:42.809593 14196 net.cpp:91] Creating Layer loss2/relu_fc
I0403 15:10:42.809609 14196 net.cpp:425] loss2/relu_fc <- loss2/fc
I0403 15:10:42.809629 14196 net.cpp:386] loss2/relu_fc -> loss2/fc (in-place)
I0403 15:10:42.809958 14196 net.cpp:141] Setting up loss2/relu_fc
I0403 15:10:42.809988 14196 net.cpp:148] Top shape: 24 1024 (24576)
I0403 15:10:42.810004 14196 net.cpp:156] Memory required for data: 1208319264
I0403 15:10:42.810019 14196 layer_factory.hpp:77] Creating layer loss2/drop_fc
I0403 15:10:42.810037 14196 net.cpp:91] Creating Layer loss2/drop_fc
I0403 15:10:42.810052 14196 net.cpp:425] loss2/drop_fc <- loss2/fc
I0403 15:10:42.810071 14196 net.cpp:386] loss2/drop_fc -> loss2/fc (in-place)
I0403 15:10:42.810122 14196 net.cpp:141] Setting up loss2/drop_fc
I0403 15:10:42.810145 14196 net.cpp:148] Top shape: 24 1024 (24576)
I0403 15:10:42.810159 14196 net.cpp:156] Memory required for data: 1208417568
I0403 15:10:42.810173 14196 layer_factory.hpp:77] Creating layer loss2/classifier_plantvillage
I0403 15:10:42.810195 14196 net.cpp:91] Creating Layer loss2/classifier_plantvillage
I0403 15:10:42.810217 14196 net.cpp:425] loss2/classifier_plantvillage <- loss2/fc
I0403 15:10:42.810238 14196 net.cpp:399] loss2/classifier_plantvillage -> loss2/classifier_plantvillage
I0403 15:10:42.810668 14196 net.cpp:141] Setting up loss2/classifier_plantvillage
I0403 15:10:42.810698 14196 net.cpp:148] Top shape: 24 38 (912)
I0403 15:10:42.810713 14196 net.cpp:156] Memory required for data: 1208421216
I0403 15:10:42.810760 14196 layer_factory.hpp:77] Creating layer loss2/classifier_plantvillage_loss2/classifier_plantvillage_0_split
I0403 15:10:42.810783 14196 net.cpp:91] Creating Layer loss2/classifier_plantvillage_loss2/classifier_plantvillage_0_split
I0403 15:10:42.810801 14196 net.cpp:425] loss2/classifier_plantvillage_loss2/classifier_plantvillage_0_split <- loss2/classifier_plantvillage
I0403 15:10:42.810817 14196 net.cpp:399] loss2/classifier_plantvillage_loss2/classifier_plantvillage_0_split -> loss2/classifier_plantvillage_loss2/classifier_plantvillage_0_split_0
I0403 15:10:42.810837 14196 net.cpp:399] loss2/classifier_plantvillage_loss2/classifier_plantvillage_0_split -> loss2/classifier_plantvillage_loss2/classifier_plantvillage_0_split_1
I0403 15:10:42.810858 14196 net.cpp:399] loss2/classifier_plantvillage_loss2/classifier_plantvillage_0_split -> loss2/classifier_plantvillage_loss2/classifier_plantvillage_0_split_2
I0403 15:10:42.810950 14196 net.cpp:141] Setting up loss2/classifier_plantvillage_loss2/classifier_plantvillage_0_split
I0403 15:10:42.810973 14196 net.cpp:148] Top shape: 24 38 (912)
I0403 15:10:42.810989 14196 net.cpp:148] Top shape: 24 38 (912)
I0403 15:10:42.811004 14196 net.cpp:148] Top shape: 24 38 (912)
I0403 15:10:42.811018 14196 net.cpp:156] Memory required for data: 1208432160
I0403 15:10:42.811044 14196 layer_factory.hpp:77] Creating layer inception_4e/1x1
I0403 15:10:42.811064 14196 net.cpp:91] Creating Layer inception_4e/1x1
I0403 15:10:42.811082 14196 net.cpp:425] inception_4e/1x1 <- inception_4d/output_inception_4d/output_0_split_1
I0403 15:10:42.811102 14196 net.cpp:399] inception_4e/1x1 -> inception_4e/1x1
I0403 15:10:42.812933 14196 net.cpp:141] Setting up inception_4e/1x1
I0403 15:10:42.812961 14196 net.cpp:148] Top shape: 24 256 14 14 (1204224)
I0403 15:10:42.812975 14196 net.cpp:156] Memory required for data: 1213249056
I0403 15:10:42.812994 14196 layer_factory.hpp:77] Creating layer inception_4e/relu_1x1
I0403 15:10:42.813012 14196 net.cpp:91] Creating Layer inception_4e/relu_1x1
I0403 15:10:42.813029 14196 net.cpp:425] inception_4e/relu_1x1 <- inception_4e/1x1
I0403 15:10:42.813045 14196 net.cpp:386] inception_4e/relu_1x1 -> inception_4e/1x1 (in-place)
I0403 15:10:42.813338 14196 net.cpp:141] Setting up inception_4e/relu_1x1
I0403 15:10:42.813364 14196 net.cpp:148] Top shape: 24 256 14 14 (1204224)
I0403 15:10:42.813377 14196 net.cpp:156] Memory required for data: 1218065952
I0403 15:10:42.813391 14196 layer_factory.hpp:77] Creating layer inception_4e/3x3_reduce
I0403 15:10:42.813413 14196 net.cpp:91] Creating Layer inception_4e/3x3_reduce
I0403 15:10:42.813431 14196 net.cpp:425] inception_4e/3x3_reduce <- inception_4d/output_inception_4d/output_0_split_2
I0403 15:10:42.813451 14196 net.cpp:399] inception_4e/3x3_reduce -> inception_4e/3x3_reduce
I0403 15:10:42.815536 14196 net.cpp:141] Setting up inception_4e/3x3_reduce
I0403 15:10:42.815567 14196 net.cpp:148] Top shape: 24 160 14 14 (752640)
I0403 15:10:42.815582 14196 net.cpp:156] Memory required for data: 1221076512
I0403 15:10:42.815599 14196 layer_factory.hpp:77] Creating layer inception_4e/relu_3x3_reduce
I0403 15:10:42.815616 14196 net.cpp:91] Creating Layer inception_4e/relu_3x3_reduce
I0403 15:10:42.815636 14196 net.cpp:425] inception_4e/relu_3x3_reduce <- inception_4e/3x3_reduce
I0403 15:10:42.815654 14196 net.cpp:386] inception_4e/relu_3x3_reduce -> inception_4e/3x3_reduce (in-place)
I0403 15:10:42.815835 14196 net.cpp:141] Setting up inception_4e/relu_3x3_reduce
I0403 15:10:42.815860 14196 net.cpp:148] Top shape: 24 160 14 14 (752640)
I0403 15:10:42.815873 14196 net.cpp:156] Memory required for data: 1224087072
I0403 15:10:42.815886 14196 layer_factory.hpp:77] Creating layer inception_4e/3x3
I0403 15:10:42.815917 14196 net.cpp:91] Creating Layer inception_4e/3x3
I0403 15:10:42.815933 14196 net.cpp:425] inception_4e/3x3 <- inception_4e/3x3_reduce
I0403 15:10:42.815958 14196 net.cpp:399] inception_4e/3x3 -> inception_4e/3x3
I0403 15:10:42.820950 14196 net.cpp:141] Setting up inception_4e/3x3
I0403 15:10:42.820992 14196 net.cpp:148] Top shape: 24 320 14 14 (1505280)
I0403 15:10:42.821008 14196 net.cpp:156] Memory required for data: 1230108192
I0403 15:10:42.821027 14196 layer_factory.hpp:77] Creating layer inception_4e/relu_3x3
I0403 15:10:42.821048 14196 net.cpp:91] Creating Layer inception_4e/relu_3x3
I0403 15:10:42.821077 14196 net.cpp:425] inception_4e/relu_3x3 <- inception_4e/3x3
I0403 15:10:42.821096 14196 net.cpp:386] inception_4e/relu_3x3 -> inception_4e/3x3 (in-place)
I0403 15:10:42.821429 14196 net.cpp:141] Setting up inception_4e/relu_3x3
I0403 15:10:42.821463 14196 net.cpp:148] Top shape: 24 320 14 14 (1505280)
I0403 15:10:42.821480 14196 net.cpp:156] Memory required for data: 1236129312
I0403 15:10:42.821497 14196 layer_factory.hpp:77] Creating layer inception_4e/5x5_reduce
I0403 15:10:42.821524 14196 net.cpp:91] Creating Layer inception_4e/5x5_reduce
I0403 15:10:42.821549 14196 net.cpp:425] inception_4e/5x5_reduce <- inception_4d/output_inception_4d/output_0_split_3
I0403 15:10:42.821571 14196 net.cpp:399] inception_4e/5x5_reduce -> inception_4e/5x5_reduce
I0403 15:10:42.822707 14196 net.cpp:141] Setting up inception_4e/5x5_reduce
I0403 15:10:42.822748 14196 net.cpp:148] Top shape: 24 32 14 14 (150528)
I0403 15:10:42.822782 14196 net.cpp:156] Memory required for data: 1236731424
I0403 15:10:42.822800 14196 layer_factory.hpp:77] Creating layer inception_4e/relu_5x5_reduce
I0403 15:10:42.822818 14196 net.cpp:91] Creating Layer inception_4e/relu_5x5_reduce
I0403 15:10:42.822835 14196 net.cpp:425] inception_4e/relu_5x5_reduce <- inception_4e/5x5_reduce
I0403 15:10:42.822854 14196 net.cpp:386] inception_4e/relu_5x5_reduce -> inception_4e/5x5_reduce (in-place)
I0403 15:10:42.823168 14196 net.cpp:141] Setting up inception_4e/relu_5x5_reduce
I0403 15:10:42.823204 14196 net.cpp:148] Top shape: 24 32 14 14 (150528)
I0403 15:10:42.823226 14196 net.cpp:156] Memory required for data: 1237333536
I0403 15:10:42.823240 14196 layer_factory.hpp:77] Creating layer inception_4e/5x5
I0403 15:10:42.823279 14196 net.cpp:91] Creating Layer inception_4e/5x5
I0403 15:10:42.823298 14196 net.cpp:425] inception_4e/5x5 <- inception_4e/5x5_reduce
I0403 15:10:42.823318 14196 net.cpp:399] inception_4e/5x5 -> inception_4e/5x5
I0403 15:10:42.825220 14196 net.cpp:141] Setting up inception_4e/5x5
I0403 15:10:42.825251 14196 net.cpp:148] Top shape: 24 128 14 14 (602112)
I0403 15:10:42.825268 14196 net.cpp:156] Memory required for data: 1239741984
I0403 15:10:42.825286 14196 layer_factory.hpp:77] Creating layer inception_4e/relu_5x5
I0403 15:10:42.825304 14196 net.cpp:91] Creating Layer inception_4e/relu_5x5
I0403 15:10:42.825320 14196 net.cpp:425] inception_4e/relu_5x5 <- inception_4e/5x5
I0403 15:10:42.825340 14196 net.cpp:386] inception_4e/relu_5x5 -> inception_4e/5x5 (in-place)
I0403 15:10:42.825541 14196 net.cpp:141] Setting up inception_4e/relu_5x5
I0403 15:10:42.825565 14196 net.cpp:148] Top shape: 24 128 14 14 (602112)
I0403 15:10:42.825580 14196 net.cpp:156] Memory required for data: 1242150432
I0403 15:10:42.825594 14196 layer_factory.hpp:77] Creating layer inception_4e/pool
I0403 15:10:42.825615 14196 net.cpp:91] Creating Layer inception_4e/pool
I0403 15:10:42.825633 14196 net.cpp:425] inception_4e/pool <- inception_4d/output_inception_4d/output_0_split_4
I0403 15:10:42.825649 14196 net.cpp:399] inception_4e/pool -> inception_4e/pool
I0403 15:10:42.825721 14196 net.cpp:141] Setting up inception_4e/pool
I0403 15:10:42.825743 14196 net.cpp:148] Top shape: 24 528 14 14 (2483712)
I0403 15:10:42.825757 14196 net.cpp:156] Memory required for data: 1252085280
I0403 15:10:42.825772 14196 layer_factory.hpp:77] Creating layer inception_4e/pool_proj
I0403 15:10:42.825793 14196 net.cpp:91] Creating Layer inception_4e/pool_proj
I0403 15:10:42.825809 14196 net.cpp:425] inception_4e/pool_proj <- inception_4e/pool
I0403 15:10:42.825830 14196 net.cpp:399] inception_4e/pool_proj -> inception_4e/pool_proj
I0403 15:10:42.827327 14196 net.cpp:141] Setting up inception_4e/pool_proj
I0403 15:10:42.827358 14196 net.cpp:148] Top shape: 24 128 14 14 (602112)
I0403 15:10:42.827388 14196 net.cpp:156] Memory required for data: 1254493728
I0403 15:10:42.827406 14196 layer_factory.hpp:77] Creating layer inception_4e/relu_pool_proj
I0403 15:10:42.827425 14196 net.cpp:91] Creating Layer inception_4e/relu_pool_proj
I0403 15:10:42.827441 14196 net.cpp:425] inception_4e/relu_pool_proj <- inception_4e/pool_proj
I0403 15:10:42.827457 14196 net.cpp:386] inception_4e/relu_pool_proj -> inception_4e/pool_proj (in-place)
I0403 15:10:42.827754 14196 net.cpp:141] Setting up inception_4e/relu_pool_proj
I0403 15:10:42.827783 14196 net.cpp:148] Top shape: 24 128 14 14 (602112)
I0403 15:10:42.827800 14196 net.cpp:156] Memory required for data: 1256902176
I0403 15:10:42.827813 14196 layer_factory.hpp:77] Creating layer inception_4e/output
I0403 15:10:42.827831 14196 net.cpp:91] Creating Layer inception_4e/output
I0403 15:10:42.827846 14196 net.cpp:425] inception_4e/output <- inception_4e/1x1
I0403 15:10:42.827862 14196 net.cpp:425] inception_4e/output <- inception_4e/3x3
I0403 15:10:42.827877 14196 net.cpp:425] inception_4e/output <- inception_4e/5x5
I0403 15:10:42.827893 14196 net.cpp:425] inception_4e/output <- inception_4e/pool_proj
I0403 15:10:42.827908 14196 net.cpp:399] inception_4e/output -> inception_4e/output
I0403 15:10:42.827960 14196 net.cpp:141] Setting up inception_4e/output
I0403 15:10:42.827982 14196 net.cpp:148] Top shape: 24 832 14 14 (3913728)
I0403 15:10:42.827996 14196 net.cpp:156] Memory required for data: 1272557088
I0403 15:10:42.828011 14196 layer_factory.hpp:77] Creating layer pool4/3x3_s2
I0403 15:10:42.828030 14196 net.cpp:91] Creating Layer pool4/3x3_s2
I0403 15:10:42.828047 14196 net.cpp:425] pool4/3x3_s2 <- inception_4e/output
I0403 15:10:42.828064 14196 net.cpp:399] pool4/3x3_s2 -> pool4/3x3_s2
I0403 15:10:42.828133 14196 net.cpp:141] Setting up pool4/3x3_s2
I0403 15:10:42.828157 14196 net.cpp:148] Top shape: 24 832 7 7 (978432)
I0403 15:10:42.828171 14196 net.cpp:156] Memory required for data: 1276470816
I0403 15:10:42.828186 14196 layer_factory.hpp:77] Creating layer pool4/3x3_s2_pool4/3x3_s2_0_split
I0403 15:10:42.828202 14196 net.cpp:91] Creating Layer pool4/3x3_s2_pool4/3x3_s2_0_split
I0403 15:10:42.828217 14196 net.cpp:425] pool4/3x3_s2_pool4/3x3_s2_0_split <- pool4/3x3_s2
I0403 15:10:42.828238 14196 net.cpp:399] pool4/3x3_s2_pool4/3x3_s2_0_split -> pool4/3x3_s2_pool4/3x3_s2_0_split_0
I0403 15:10:42.828258 14196 net.cpp:399] pool4/3x3_s2_pool4/3x3_s2_0_split -> pool4/3x3_s2_pool4/3x3_s2_0_split_1
I0403 15:10:42.828277 14196 net.cpp:399] pool4/3x3_s2_pool4/3x3_s2_0_split -> pool4/3x3_s2_pool4/3x3_s2_0_split_2
I0403 15:10:42.828296 14196 net.cpp:399] pool4/3x3_s2_pool4/3x3_s2_0_split -> pool4/3x3_s2_pool4/3x3_s2_0_split_3
I0403 15:10:42.828388 14196 net.cpp:141] Setting up pool4/3x3_s2_pool4/3x3_s2_0_split
I0403 15:10:42.828414 14196 net.cpp:148] Top shape: 24 832 7 7 (978432)
I0403 15:10:42.828430 14196 net.cpp:148] Top shape: 24 832 7 7 (978432)
I0403 15:10:42.828445 14196 net.cpp:148] Top shape: 24 832 7 7 (978432)
I0403 15:10:42.828460 14196 net.cpp:148] Top shape: 24 832 7 7 (978432)
I0403 15:10:42.828472 14196 net.cpp:156] Memory required for data: 1292125728
I0403 15:10:42.828486 14196 layer_factory.hpp:77] Creating layer inception_5a/1x1
I0403 15:10:42.828508 14196 net.cpp:91] Creating Layer inception_5a/1x1
I0403 15:10:42.828526 14196 net.cpp:425] inception_5a/1x1 <- pool4/3x3_s2_pool4/3x3_s2_0_split_0
I0403 15:10:42.828548 14196 net.cpp:399] inception_5a/1x1 -> inception_5a/1x1
I0403 15:10:42.831405 14196 net.cpp:141] Setting up inception_5a/1x1
I0403 15:10:42.831435 14196 net.cpp:148] Top shape: 24 256 7 7 (301056)
I0403 15:10:42.831450 14196 net.cpp:156] Memory required for data: 1293329952
I0403 15:10:42.831468 14196 layer_factory.hpp:77] Creating layer inception_5a/relu_1x1
I0403 15:10:42.831485 14196 net.cpp:91] Creating Layer inception_5a/relu_1x1
I0403 15:10:42.831501 14196 net.cpp:425] inception_5a/relu_1x1 <- inception_5a/1x1
I0403 15:10:42.831521 14196 net.cpp:386] inception_5a/relu_1x1 -> inception_5a/1x1 (in-place)
I0403 15:10:42.831836 14196 net.cpp:141] Setting up inception_5a/relu_1x1
I0403 15:10:42.831874 14196 net.cpp:148] Top shape: 24 256 7 7 (301056)
I0403 15:10:42.831889 14196 net.cpp:156] Memory required for data: 1294534176
I0403 15:10:42.831903 14196 layer_factory.hpp:77] Creating layer inception_5a/3x3_reduce
I0403 15:10:42.831926 14196 net.cpp:91] Creating Layer inception_5a/3x3_reduce
I0403 15:10:42.831944 14196 net.cpp:425] inception_5a/3x3_reduce <- pool4/3x3_s2_pool4/3x3_s2_0_split_1
I0403 15:10:42.831966 14196 net.cpp:399] inception_5a/3x3_reduce -> inception_5a/3x3_reduce
I0403 15:10:42.834491 14196 net.cpp:141] Setting up inception_5a/3x3_reduce
I0403 15:10:42.834522 14196 net.cpp:148] Top shape: 24 160 7 7 (188160)
I0403 15:10:42.834547 14196 net.cpp:156] Memory required for data: 1295286816
I0403 15:10:42.834570 14196 layer_factory.hpp:77] Creating layer inception_5a/relu_3x3_reduce
I0403 15:10:42.834589 14196 net.cpp:91] Creating Layer inception_5a/relu_3x3_reduce
I0403 15:10:42.834604 14196 net.cpp:425] inception_5a/relu_3x3_reduce <- inception_5a/3x3_reduce
I0403 15:10:42.834621 14196 net.cpp:386] inception_5a/relu_3x3_reduce -> inception_5a/3x3_reduce (in-place)
I0403 15:10:42.834811 14196 net.cpp:141] Setting up inception_5a/relu_3x3_reduce
I0403 15:10:42.834838 14196 net.cpp:148] Top shape: 24 160 7 7 (188160)
I0403 15:10:42.834853 14196 net.cpp:156] Memory required for data: 1296039456
I0403 15:10:42.834868 14196 layer_factory.hpp:77] Creating layer inception_5a/3x3
I0403 15:10:42.834889 14196 net.cpp:91] Creating Layer inception_5a/3x3
I0403 15:10:42.834908 14196 net.cpp:425] inception_5a/3x3 <- inception_5a/3x3_reduce
I0403 15:10:42.834925 14196 net.cpp:399] inception_5a/3x3 -> inception_5a/3x3
I0403 15:10:42.839998 14196 net.cpp:141] Setting up inception_5a/3x3
I0403 15:10:42.840026 14196 net.cpp:148] Top shape: 24 320 7 7 (376320)
I0403 15:10:42.840047 14196 net.cpp:156] Memory required for data: 1297544736
I0403 15:10:42.840064 14196 layer_factory.hpp:77] Creating layer inception_5a/relu_3x3
I0403 15:10:42.840081 14196 net.cpp:91] Creating Layer inception_5a/relu_3x3
I0403 15:10:42.840097 14196 net.cpp:425] inception_5a/relu_3x3 <- inception_5a/3x3
I0403 15:10:42.840116 14196 net.cpp:386] inception_5a/relu_3x3 -> inception_5a/3x3 (in-place)
I0403 15:10:42.840405 14196 net.cpp:141] Setting up inception_5a/relu_3x3
I0403 15:10:42.840430 14196 net.cpp:148] Top shape: 24 320 7 7 (376320)
I0403 15:10:42.840445 14196 net.cpp:156] Memory required for data: 1299050016
I0403 15:10:42.840457 14196 layer_factory.hpp:77] Creating layer inception_5a/5x5_reduce
I0403 15:10:42.840479 14196 net.cpp:91] Creating Layer inception_5a/5x5_reduce
I0403 15:10:42.840497 14196 net.cpp:425] inception_5a/5x5_reduce <- pool4/3x3_s2_pool4/3x3_s2_0_split_2
I0403 15:10:42.840518 14196 net.cpp:399] inception_5a/5x5_reduce -> inception_5a/5x5_reduce
I0403 15:10:42.841681 14196 net.cpp:141] Setting up inception_5a/5x5_reduce
I0403 15:10:42.841711 14196 net.cpp:148] Top shape: 24 32 7 7 (37632)
I0403 15:10:42.841727 14196 net.cpp:156] Memory required for data: 1299200544
I0403 15:10:42.841744 14196 layer_factory.hpp:77] Creating layer inception_5a/relu_5x5_reduce
I0403 15:10:42.841764 14196 net.cpp:91] Creating Layer inception_5a/relu_5x5_reduce
I0403 15:10:42.841781 14196 net.cpp:425] inception_5a/relu_5x5_reduce <- inception_5a/5x5_reduce
I0403 15:10:42.841799 14196 net.cpp:386] inception_5a/relu_5x5_reduce -> inception_5a/5x5_reduce (in-place)
I0403 15:10:42.842106 14196 net.cpp:141] Setting up inception_5a/relu_5x5_reduce
I0403 15:10:42.842133 14196 net.cpp:148] Top shape: 24 32 7 7 (37632)
I0403 15:10:42.842147 14196 net.cpp:156] Memory required for data: 1299351072
I0403 15:10:42.842160 14196 layer_factory.hpp:77] Creating layer inception_5a/5x5
I0403 15:10:42.842185 14196 net.cpp:91] Creating Layer inception_5a/5x5
I0403 15:10:42.842201 14196 net.cpp:425] inception_5a/5x5 <- inception_5a/5x5_reduce
I0403 15:10:42.842221 14196 net.cpp:399] inception_5a/5x5 -> inception_5a/5x5
I0403 15:10:42.843938 14196 net.cpp:141] Setting up inception_5a/5x5
I0403 15:10:42.843977 14196 net.cpp:148] Top shape: 24 128 7 7 (150528)
I0403 15:10:42.843992 14196 net.cpp:156] Memory required for data: 1299953184
I0403 15:10:42.844010 14196 layer_factory.hpp:77] Creating layer inception_5a/relu_5x5
I0403 15:10:42.844027 14196 net.cpp:91] Creating Layer inception_5a/relu_5x5
I0403 15:10:42.844043 14196 net.cpp:425] inception_5a/relu_5x5 <- inception_5a/5x5
I0403 15:10:42.844061 14196 net.cpp:386] inception_5a/relu_5x5 -> inception_5a/5x5 (in-place)
I0403 15:10:42.844247 14196 net.cpp:141] Setting up inception_5a/relu_5x5
I0403 15:10:42.844271 14196 net.cpp:148] Top shape: 24 128 7 7 (150528)
I0403 15:10:42.844285 14196 net.cpp:156] Memory required for data: 1300555296
I0403 15:10:42.844300 14196 layer_factory.hpp:77] Creating layer inception_5a/pool
I0403 15:10:42.844318 14196 net.cpp:91] Creating Layer inception_5a/pool
I0403 15:10:42.844336 14196 net.cpp:425] inception_5a/pool <- pool4/3x3_s2_pool4/3x3_s2_0_split_3
I0403 15:10:42.844352 14196 net.cpp:399] inception_5a/pool -> inception_5a/pool
I0403 15:10:42.844420 14196 net.cpp:141] Setting up inception_5a/pool
I0403 15:10:42.844444 14196 net.cpp:148] Top shape: 24 832 7 7 (978432)
I0403 15:10:42.844457 14196 net.cpp:156] Memory required for data: 1304469024
I0403 15:10:42.844471 14196 layer_factory.hpp:77] Creating layer inception_5a/pool_proj
I0403 15:10:42.844491 14196 net.cpp:91] Creating Layer inception_5a/pool_proj
I0403 15:10:42.844508 14196 net.cpp:425] inception_5a/pool_proj <- inception_5a/pool
I0403 15:10:42.844527 14196 net.cpp:399] inception_5a/pool_proj -> inception_5a/pool_proj
I0403 15:10:42.846762 14196 net.cpp:141] Setting up inception_5a/pool_proj
I0403 15:10:42.846791 14196 net.cpp:148] Top shape: 24 128 7 7 (150528)
I0403 15:10:42.846807 14196 net.cpp:156] Memory required for data: 1305071136
I0403 15:10:42.846824 14196 layer_factory.hpp:77] Creating layer inception_5a/relu_pool_proj
I0403 15:10:42.846842 14196 net.cpp:91] Creating Layer inception_5a/relu_pool_proj
I0403 15:10:42.846856 14196 net.cpp:425] inception_5a/relu_pool_proj <- inception_5a/pool_proj
I0403 15:10:42.846875 14196 net.cpp:386] inception_5a/relu_pool_proj -> inception_5a/pool_proj (in-place)
I0403 15:10:42.847165 14196 net.cpp:141] Setting up inception_5a/relu_pool_proj
I0403 15:10:42.847193 14196 net.cpp:148] Top shape: 24 128 7 7 (150528)
I0403 15:10:42.847208 14196 net.cpp:156] Memory required for data: 1305673248
I0403 15:10:42.847223 14196 layer_factory.hpp:77] Creating layer inception_5a/output
I0403 15:10:42.847239 14196 net.cpp:91] Creating Layer inception_5a/output
I0403 15:10:42.847254 14196 net.cpp:425] inception_5a/output <- inception_5a/1x1
I0403 15:10:42.847270 14196 net.cpp:425] inception_5a/output <- inception_5a/3x3
I0403 15:10:42.847285 14196 net.cpp:425] inception_5a/output <- inception_5a/5x5
I0403 15:10:42.847301 14196 net.cpp:425] inception_5a/output <- inception_5a/pool_proj
I0403 15:10:42.847316 14196 net.cpp:399] inception_5a/output -> inception_5a/output
I0403 15:10:42.847365 14196 net.cpp:141] Setting up inception_5a/output
I0403 15:10:42.847388 14196 net.cpp:148] Top shape: 24 832 7 7 (978432)
I0403 15:10:42.847401 14196 net.cpp:156] Memory required for data: 1309586976
I0403 15:10:42.847414 14196 layer_factory.hpp:77] Creating layer inception_5a/output_inception_5a/output_0_split
I0403 15:10:42.847434 14196 net.cpp:91] Creating Layer inception_5a/output_inception_5a/output_0_split
I0403 15:10:42.847450 14196 net.cpp:425] inception_5a/output_inception_5a/output_0_split <- inception_5a/output
I0403 15:10:42.847466 14196 net.cpp:399] inception_5a/output_inception_5a/output_0_split -> inception_5a/output_inception_5a/output_0_split_0
I0403 15:10:42.847486 14196 net.cpp:399] inception_5a/output_inception_5a/output_0_split -> inception_5a/output_inception_5a/output_0_split_1
I0403 15:10:42.847506 14196 net.cpp:399] inception_5a/output_inception_5a/output_0_split -> inception_5a/output_inception_5a/output_0_split_2
I0403 15:10:42.847528 14196 net.cpp:399] inception_5a/output_inception_5a/output_0_split -> inception_5a/output_inception_5a/output_0_split_3
I0403 15:10:42.847643 14196 net.cpp:141] Setting up inception_5a/output_inception_5a/output_0_split
I0403 15:10:42.847666 14196 net.cpp:148] Top shape: 24 832 7 7 (978432)
I0403 15:10:42.847682 14196 net.cpp:148] Top shape: 24 832 7 7 (978432)
I0403 15:10:42.847697 14196 net.cpp:148] Top shape: 24 832 7 7 (978432)
I0403 15:10:42.847710 14196 net.cpp:148] Top shape: 24 832 7 7 (978432)
I0403 15:10:42.847723 14196 net.cpp:156] Memory required for data: 1325241888
I0403 15:10:42.847736 14196 layer_factory.hpp:77] Creating layer inception_5b/1x1
I0403 15:10:42.847757 14196 net.cpp:91] Creating Layer inception_5b/1x1
I0403 15:10:42.847774 14196 net.cpp:425] inception_5b/1x1 <- inception_5a/output_inception_5a/output_0_split_0
I0403 15:10:42.847795 14196 net.cpp:399] inception_5b/1x1 -> inception_5b/1x1
I0403 15:10:42.851466 14196 net.cpp:141] Setting up inception_5b/1x1
I0403 15:10:42.851496 14196 net.cpp:148] Top shape: 24 384 7 7 (451584)
I0403 15:10:42.851511 14196 net.cpp:156] Memory required for data: 1327048224
I0403 15:10:42.851529 14196 layer_factory.hpp:77] Creating layer inception_5b/relu_1x1
I0403 15:10:42.851550 14196 net.cpp:91] Creating Layer inception_5b/relu_1x1
I0403 15:10:42.851567 14196 net.cpp:425] inception_5b/relu_1x1 <- inception_5b/1x1
I0403 15:10:42.851583 14196 net.cpp:386] inception_5b/relu_1x1 -> inception_5b/1x1 (in-place)
I0403 15:10:42.851887 14196 net.cpp:141] Setting up inception_5b/relu_1x1
I0403 15:10:42.851915 14196 net.cpp:148] Top shape: 24 384 7 7 (451584)
I0403 15:10:42.851930 14196 net.cpp:156] Memory required for data: 1328854560
I0403 15:10:42.851944 14196 layer_factory.hpp:77] Creating layer inception_5b/3x3_reduce
I0403 15:10:42.851963 14196 net.cpp:91] Creating Layer inception_5b/3x3_reduce
I0403 15:10:42.851979 14196 net.cpp:425] inception_5b/3x3_reduce <- inception_5a/output_inception_5a/output_0_split_1
I0403 15:10:42.851999 14196 net.cpp:399] inception_5b/3x3_reduce -> inception_5b/3x3_reduce
I0403 15:10:42.854651 14196 net.cpp:141] Setting up inception_5b/3x3_reduce
I0403 15:10:42.854681 14196 net.cpp:148] Top shape: 24 192 7 7 (225792)
I0403 15:10:42.854697 14196 net.cpp:156] Memory required for data: 1329757728
I0403 15:10:42.854714 14196 layer_factory.hpp:77] Creating layer inception_5b/relu_3x3_reduce
I0403 15:10:42.854732 14196 net.cpp:91] Creating Layer inception_5b/relu_3x3_reduce
I0403 15:10:42.854748 14196 net.cpp:425] inception_5b/relu_3x3_reduce <- inception_5b/3x3_reduce
I0403 15:10:42.854766 14196 net.cpp:386] inception_5b/relu_3x3_reduce -> inception_5b/3x3_reduce (in-place)
I0403 15:10:42.854951 14196 net.cpp:141] Setting up inception_5b/relu_3x3_reduce
I0403 15:10:42.854975 14196 net.cpp:148] Top shape: 24 192 7 7 (225792)
I0403 15:10:42.854990 14196 net.cpp:156] Memory required for data: 1330660896
I0403 15:10:42.855002 14196 layer_factory.hpp:77] Creating layer inception_5b/3x3
I0403 15:10:42.855025 14196 net.cpp:91] Creating Layer inception_5b/3x3
I0403 15:10:42.855042 14196 net.cpp:425] inception_5b/3x3 <- inception_5b/3x3_reduce
I0403 15:10:42.855063 14196 net.cpp:399] inception_5b/3x3 -> inception_5b/3x3
I0403 15:10:42.861784 14196 net.cpp:141] Setting up inception_5b/3x3
I0403 15:10:42.861816 14196 net.cpp:148] Top shape: 24 384 7 7 (451584)
I0403 15:10:42.861834 14196 net.cpp:156] Memory required for data: 1332467232
I0403 15:10:42.861851 14196 layer_factory.hpp:77] Creating layer inception_5b/relu_3x3
I0403 15:10:42.861870 14196 net.cpp:91] Creating Layer inception_5b/relu_3x3
I0403 15:10:42.861886 14196 net.cpp:425] inception_5b/relu_3x3 <- inception_5b/3x3
I0403 15:10:42.861904 14196 net.cpp:386] inception_5b/relu_3x3 -> inception_5b/3x3 (in-place)
I0403 15:10:42.862202 14196 net.cpp:141] Setting up inception_5b/relu_3x3
I0403 15:10:42.862232 14196 net.cpp:148] Top shape: 24 384 7 7 (451584)
I0403 15:10:42.862248 14196 net.cpp:156] Memory required for data: 1334273568
I0403 15:10:42.862265 14196 layer_factory.hpp:77] Creating layer inception_5b/5x5_reduce
I0403 15:10:42.862305 14196 net.cpp:91] Creating Layer inception_5b/5x5_reduce
I0403 15:10:42.862325 14196 net.cpp:425] inception_5b/5x5_reduce <- inception_5a/output_inception_5a/output_0_split_2
I0403 15:10:42.862344 14196 net.cpp:399] inception_5b/5x5_reduce -> inception_5b/5x5_reduce
I0403 15:10:42.863631 14196 net.cpp:141] Setting up inception_5b/5x5_reduce
I0403 15:10:42.863662 14196 net.cpp:148] Top shape: 24 48 7 7 (56448)
I0403 15:10:42.863677 14196 net.cpp:156] Memory required for data: 1334499360
I0403 15:10:42.863695 14196 layer_factory.hpp:77] Creating layer inception_5b/relu_5x5_reduce
I0403 15:10:42.863713 14196 net.cpp:91] Creating Layer inception_5b/relu_5x5_reduce
I0403 15:10:42.863729 14196 net.cpp:425] inception_5b/relu_5x5_reduce <- inception_5b/5x5_reduce
I0403 15:10:42.863747 14196 net.cpp:386] inception_5b/relu_5x5_reduce -> inception_5b/5x5_reduce (in-place)
I0403 15:10:42.864128 14196 net.cpp:141] Setting up inception_5b/relu_5x5_reduce
I0403 15:10:42.864156 14196 net.cpp:148] Top shape: 24 48 7 7 (56448)
I0403 15:10:42.864171 14196 net.cpp:156] Memory required for data: 1334725152
I0403 15:10:42.864184 14196 layer_factory.hpp:77] Creating layer inception_5b/5x5
I0403 15:10:42.864204 14196 net.cpp:91] Creating Layer inception_5b/5x5
I0403 15:10:42.864222 14196 net.cpp:425] inception_5b/5x5 <- inception_5b/5x5_reduce
I0403 15:10:42.864239 14196 net.cpp:399] inception_5b/5x5 -> inception_5b/5x5
I0403 15:10:42.866400 14196 net.cpp:141] Setting up inception_5b/5x5
I0403 15:10:42.866428 14196 net.cpp:148] Top shape: 24 128 7 7 (150528)
I0403 15:10:42.866443 14196 net.cpp:156] Memory required for data: 1335327264
I0403 15:10:42.866462 14196 layer_factory.hpp:77] Creating layer inception_5b/relu_5x5
I0403 15:10:42.866480 14196 net.cpp:91] Creating Layer inception_5b/relu_5x5
I0403 15:10:42.866497 14196 net.cpp:425] inception_5b/relu_5x5 <- inception_5b/5x5
I0403 15:10:42.866516 14196 net.cpp:386] inception_5b/relu_5x5 -> inception_5b/5x5 (in-place)
I0403 15:10:42.866720 14196 net.cpp:141] Setting up inception_5b/relu_5x5
I0403 15:10:42.866746 14196 net.cpp:148] Top shape: 24 128 7 7 (150528)
I0403 15:10:42.866760 14196 net.cpp:156] Memory required for data: 1335929376
I0403 15:10:42.866775 14196 layer_factory.hpp:77] Creating layer inception_5b/pool
I0403 15:10:42.866796 14196 net.cpp:91] Creating Layer inception_5b/pool
I0403 15:10:42.866812 14196 net.cpp:425] inception_5b/pool <- inception_5a/output_inception_5a/output_0_split_3
I0403 15:10:42.866830 14196 net.cpp:399] inception_5b/pool -> inception_5b/pool
I0403 15:10:42.866906 14196 net.cpp:141] Setting up inception_5b/pool
I0403 15:10:42.866930 14196 net.cpp:148] Top shape: 24 832 7 7 (978432)
I0403 15:10:42.866945 14196 net.cpp:156] Memory required for data: 1339843104
I0403 15:10:42.866961 14196 layer_factory.hpp:77] Creating layer inception_5b/pool_proj
I0403 15:10:42.866982 14196 net.cpp:91] Creating Layer inception_5b/pool_proj
I0403 15:10:42.867000 14196 net.cpp:425] inception_5b/pool_proj <- inception_5b/pool
I0403 15:10:42.867022 14196 net.cpp:399] inception_5b/pool_proj -> inception_5b/pool_proj
I0403 15:10:42.869420 14196 net.cpp:141] Setting up inception_5b/pool_proj
I0403 15:10:42.869451 14196 net.cpp:148] Top shape: 24 128 7 7 (150528)
I0403 15:10:42.869467 14196 net.cpp:156] Memory required for data: 1340445216
I0403 15:10:42.869485 14196 layer_factory.hpp:77] Creating layer inception_5b/relu_pool_proj
I0403 15:10:42.869503 14196 net.cpp:91] Creating Layer inception_5b/relu_pool_proj
I0403 15:10:42.869519 14196 net.cpp:425] inception_5b/relu_pool_proj <- inception_5b/pool_proj
I0403 15:10:42.869544 14196 net.cpp:386] inception_5b/relu_pool_proj -> inception_5b/pool_proj (in-place)
I0403 15:10:42.869854 14196 net.cpp:141] Setting up inception_5b/relu_pool_proj
I0403 15:10:42.869884 14196 net.cpp:148] Top shape: 24 128 7 7 (150528)
I0403 15:10:42.869899 14196 net.cpp:156] Memory required for data: 1341047328
I0403 15:10:42.869915 14196 layer_factory.hpp:77] Creating layer inception_5b/output
I0403 15:10:42.869932 14196 net.cpp:91] Creating Layer inception_5b/output
I0403 15:10:42.869964 14196 net.cpp:425] inception_5b/output <- inception_5b/1x1
I0403 15:10:42.869982 14196 net.cpp:425] inception_5b/output <- inception_5b/3x3
I0403 15:10:42.869999 14196 net.cpp:425] inception_5b/output <- inception_5b/5x5
I0403 15:10:42.870015 14196 net.cpp:425] inception_5b/output <- inception_5b/pool_proj
I0403 15:10:42.870033 14196 net.cpp:399] inception_5b/output -> inception_5b/output
I0403 15:10:42.870086 14196 net.cpp:141] Setting up inception_5b/output
I0403 15:10:42.870111 14196 net.cpp:148] Top shape: 24 1024 7 7 (1204224)
I0403 15:10:42.870126 14196 net.cpp:156] Memory required for data: 1345864224
I0403 15:10:42.870141 14196 layer_factory.hpp:77] Creating layer pool5/7x7_s1
I0403 15:10:42.870159 14196 net.cpp:91] Creating Layer pool5/7x7_s1
I0403 15:10:42.870177 14196 net.cpp:425] pool5/7x7_s1 <- inception_5b/output
I0403 15:10:42.870194 14196 net.cpp:399] pool5/7x7_s1 -> pool5/7x7_s1
I0403 15:10:42.870419 14196 net.cpp:141] Setting up pool5/7x7_s1
I0403 15:10:42.870448 14196 net.cpp:148] Top shape: 24 1024 1 1 (24576)
I0403 15:10:42.870463 14196 net.cpp:156] Memory required for data: 1345962528
I0403 15:10:42.870477 14196 layer_factory.hpp:77] Creating layer pool5/drop_7x7_s1
I0403 15:10:42.870496 14196 net.cpp:91] Creating Layer pool5/drop_7x7_s1
I0403 15:10:42.870512 14196 net.cpp:425] pool5/drop_7x7_s1 <- pool5/7x7_s1
I0403 15:10:42.870530 14196 net.cpp:386] pool5/drop_7x7_s1 -> pool5/7x7_s1 (in-place)
I0403 15:10:42.870586 14196 net.cpp:141] Setting up pool5/drop_7x7_s1
I0403 15:10:42.870614 14196 net.cpp:148] Top shape: 24 1024 1 1 (24576)
I0403 15:10:42.870628 14196 net.cpp:156] Memory required for data: 1346060832
I0403 15:10:42.870643 14196 layer_factory.hpp:77] Creating layer loss3/classifier_plantvillage
I0403 15:10:42.870662 14196 net.cpp:91] Creating Layer loss3/classifier_plantvillage
I0403 15:10:42.870678 14196 net.cpp:425] loss3/classifier_plantvillage <- pool5/7x7_s1
I0403 15:10:42.870698 14196 net.cpp:399] loss3/classifier_plantvillage -> loss3/classifier_plantvillage
I0403 15:10:42.871140 14196 net.cpp:141] Setting up loss3/classifier_plantvillage
I0403 15:10:42.871165 14196 net.cpp:148] Top shape: 24 38 (912)
I0403 15:10:42.871178 14196 net.cpp:156] Memory required for data: 1346064480
I0403 15:10:42.871196 14196 layer_factory.hpp:77] Creating layer loss3/classifier_plantvillage_loss3/classifier_plantvillage_0_split
I0403 15:10:42.871218 14196 net.cpp:91] Creating Layer loss3/classifier_plantvillage_loss3/classifier_plantvillage_0_split
I0403 15:10:42.871235 14196 net.cpp:425] loss3/classifier_plantvillage_loss3/classifier_plantvillage_0_split <- loss3/classifier_plantvillage
I0403 15:10:42.871253 14196 net.cpp:399] loss3/classifier_plantvillage_loss3/classifier_plantvillage_0_split -> loss3/classifier_plantvillage_loss3/classifier_plantvillage_0_split_0
I0403 15:10:42.871273 14196 net.cpp:399] loss3/classifier_plantvillage_loss3/classifier_plantvillage_0_split -> loss3/classifier_plantvillage_loss3/classifier_plantvillage_0_split_1
I0403 15:10:42.871294 14196 net.cpp:399] loss3/classifier_plantvillage_loss3/classifier_plantvillage_0_split -> loss3/classifier_plantvillage_loss3/classifier_plantvillage_0_split_2
I0403 15:10:42.871318 14196 net.cpp:399] loss3/classifier_plantvillage_loss3/classifier_plantvillage_0_split -> loss3/classifier_plantvillage_loss3/classifier_plantvillage_0_split_3
I0403 15:10:42.871423 14196 net.cpp:141] Setting up loss3/classifier_plantvillage_loss3/classifier_plantvillage_0_split
I0403 15:10:42.871446 14196 net.cpp:148] Top shape: 24 38 (912)
I0403 15:10:42.871461 14196 net.cpp:148] Top shape: 24 38 (912)
I0403 15:10:42.871476 14196 net.cpp:148] Top shape: 24 38 (912)
I0403 15:10:42.871490 14196 net.cpp:148] Top shape: 24 38 (912)
I0403 15:10:42.871505 14196 net.cpp:156] Memory required for data: 1346079072
I0403 15:10:42.871518 14196 layer_factory.hpp:77] Creating layer loss1/loss
I0403 15:10:42.871542 14196 net.cpp:91] Creating Layer loss1/loss
I0403 15:10:42.871562 14196 net.cpp:425] loss1/loss <- loss1/classifier_plantvillage_loss1/classifier_plantvillage_0_split_0
I0403 15:10:42.871593 14196 net.cpp:425] loss1/loss <- label_data_1_split_0
…
