…
I0403 15:47:24.276779 16053 net.cpp:313] The NetState phase (1) differed from the phase (0) specified by a rule in layer data
I0403 15:47:24.277901 16053 net.cpp:49] Initializing net from parameters: 
state {
  phase: TEST
}
layer {
  name: "data"
  type: "Data"
  top: "data"
  top: "label"
  include {
    phase: TEST
  }
  transform_param {
    mirror: false
    crop_size: 224
    mean_file: "/home/mohanty/data/final_dataset/lmdb/color-50-50/mean.binaryproto"
  }
  data_param {
    source: "/home/mohanty/data/final_dataset/lmdb/color-50-50/test_db"
    batch_size: 24
    backend: LMDB
  }
}
layer {
  name: "conv1/7x7_s2"
  type: "Convolution"
  bottom: "data"
  top: "conv1/7x7_s2"
  param {
    lr_mult: 1
    decay_mult: 1
  }
  param {
    lr_mult: 2
    decay_mult: 0
  }
  convolution_param {
    num_output: 64
    pad: 3
    kernel_size: 7
    stride: 2
    weight_filler {
      type: "xavier"
      std: 0.1
    }
    bias_filler {
      type: "constant"
      value: 0.2
    }
  }
}
layer {
  name: "conv1/relu_7x7"
  type: "ReLU"
  bottom: "conv1/7x7_s2"
  top: "conv1/7x7_s2"
}
layer {
  name: "pool1/3x3_s2"
  type: "Pooling"
  bottom: "conv1/7x7_s2"
  top: "pool1/3x3_s2"
  pooling_param {
    pool: MAX
    kernel_size: 3
    stride: 2
  }
}
layer {
  name: "pool1/norm1"
  type: "LRN"
  bottom: "pool1/3x3_s2"
  top: "pool1/norm1"
  lrn_param {
    local_size: 5
    alpha: 0.0001
    beta: 0.75
  }
}
layer {
  name: "conv2/3x3_reduce"
  type: "Convolution"
  bottom: "pool1/norm1"
  top: "conv2/3x3_reduce"
  param {
    lr_mult: 1
    decay_mult: 1
  }
  param {
    lr_mult: 2
    decay_mult: 0
  }
  convolution_param {
    num_output: 64
    kernel_size: 1
    weight_filler {
      type: "xavier"
      std: 0.1
    }
    bias_filler {
      type: "constant"
      value: 0.2
    }
  }
}
layer {
  name: "conv2/relu_3x3_reduce"
  type: "ReLU"
  bottom: "conv2/3x3_reduce"
  top: "conv2/3x3_reduce"
}
layer {
  name: "conv2/3x3"
  type: "Convolution"
  bottom: "conv2/3x3_reduce"
  top: "conv2/3x3"
  param {
    lr_mult: 1
    decay_mult: 1
  }
  param {
    lr_mult: 2
    decay_mult: 0
  }
  convolution_param {
    num_output: 192
    pad: 1
    kernel_size: 3
    weight_filler {
      type: "xavier"
      std: 0.03
    }
    bias_filler {
      type: "constant"
      value: 0.2
    }
  }
}
layer {
  name: "conv2/relu_3x3"
  type: "ReLU"
  bottom: "conv2/3x3"
  top: "conv2/3x3"
}
layer {
  name: "conv2/norm2"
  type: "LRN"
  bottom: "conv2/3x3"
  top: "conv2/norm2"
  lrn_param {
    local_size: 5
    alpha: 0.0001
    beta: 0.75
  }
}
layer {
  name: "pool2/3x3_s2"
  type: "Pooling"
  bottom: "conv2/norm2"
  top: "pool2/3x3_s2"
  pooling_param {
    pool: MAX
    kernel_size: 3
    stride: 2
  }
}
layer {
  name: "inception_3a/1x1"
  type: "Convolution"
  bottom: "pool2/3x3_s2"
  top: "inception_3a/1x1"
  param {
    lr_mult: 1
    decay_mult: 1
  }
  param {
    lr_mult: 2
    decay_mult: 0
  }
  convolution_param {
    num_output: 64
    kernel_size: 1
    weight_filler {
      type: "xavier"
      std: 0.03
    }
    bias_filler {
      type: "constant"
      value: 0.2
    }
  }
}
layer {
  name: "inception_3a/relu_1x1"
  type: "ReLU"
  bottom: "inception_3a/1x1"
  top: "inception_3a/1x1"
}
layer {
  name: "inception_3a/3x3_reduce"
  type: "Convolution"
  bottom: "pool2/3x3_s2"
  top: "inception_3a/3x3_reduce"
  param {
    lr_mult: 1
    decay_mult: 1
  }
  param {
    lr_mult: 2
    decay_mult: 0
  }
  convolution_param {
    num_output: 96
    kernel_size: 1
    weight_filler {
      type: "xavier"
      std: 0.09
    }
    bias_filler {
      type: "constant"
      value: 0.2
    }
  }
}
layer {
  name: "inception_3a/relu_3x3_reduce"
  type: "ReLU"
  bottom: "inception_3a/3x3_reduce"
  top: "inception_3a/3x3_reduce"
}
layer {
  name: "inception_3a/3x3"
  type: "Convolution"
  bottom: "inception_3a/3x3_reduce"
  top: "inception_3a/3x3"
  param {
    lr_mult: 1
    decay_mult: 1
  }
  param {
    lr_mult: 2
    decay_mult: 0
  }
  convolution_param {
    num_output: 128
    pad: 1
    kernel_size: 3
    weight_filler {
      type: "xavier"
      std: 0.03
    }
    bias_filler {
      type: "constant"
      value: 0.2
    }
  }
}
layer {
  name: "inception_3a/relu_3x3"
  type: "ReLU"
  bottom: "inception_3a/3x3"
  top: "inception_3a/3x3"
}
layer {
  name: "inception_3a/5x5_reduce"
  type: "Convolution"
  bottom: "pool2/3x3_s2"
  top: "inception_3a/5x5_reduce"
  param {
    lr_mult: 1
    decay_mult: 1
  }
  param {
    lr_mult: 2
    decay_mult: 0
  }
  convolution_param {
    num_output: 16
    kernel_size: 1
    weight_filler {
      type: "xavier"
      std: 0.2
    }
    bias_filler {
      type: "constant"
      value: 0.2
    }
  }
}
layer {
  name: "inception_3a/relu_5x5_reduce"
  type: "ReLU"
  bottom: "inception_3a/5x5_reduce"
  top: "inception_3a/5x5_reduce"
}
layer {
  name: "inception_3a/5x5"
  type: "Convolution"
  bottom: "inception_3a/5x5_reduce"
  top: "inception_3a/5x5"
  param {
    lr_mult: 1
    decay_mult: 1
  }
  param {
    lr_mult: 2
    decay_mult: 0
  }
  convolution_param {
    num_output: 32
    pad: 2
    kernel_size: 5
    weight_filler {
      type: "xavier"
      std: 0.03
    }
    bias_filler {
      type: "constant"
      value: 0.2
    }
  }
}
layer {
  name: "inception_3a/relu_5x5"
  type: "ReLU"
  bottom: "inception_3a/5x5"
  top: "inception_3a/5x5"
}
layer {
  name: "inception_3a/pool"
  type: "Pooling"
  bottom: "pool2/3x3_s2"
  top: "inception_3a/pool"
  pooling_param {
    pool: MAX
    kernel_size: 3
    stride: 1
    pad: 1
  }
}
layer {
  name: "inception_3a/pool_proj"
  type: "Convolution"
  bottom: "inception_3a/pool"
  top: "inception_3a/pool_proj"
  param {
    lr_mult: 1
    decay_mult: 1
  }
  param {
    lr_mult: 2
    decay_mult: 0
  }
  convolution_param {
    num_output: 32
    kernel_size: 1
    weight_filler {
      type: "xavier"
      std: 0.1
    }
    bias_filler {
      type: "constant"
      value: 0.2
    }
  }
}
layer {
  name: "inception_3a/relu_pool_proj"
  type: "ReLU"
  bottom: "inception_3a/pool_proj"
  top: "inception_3a/pool_proj"
}
layer {
  name: "inception_3a/output"
  type: "Concat"
  bottom: "inception_3a/1x1"
  bottom: "inception_3a/3x3"
  bottom: "inception_3a/5x5"
  bottom: "inception_3a/pool_proj"
  top: "inception_3a/output"
}
layer {
  name: "inception_3b/1x1"
  type: "Convolution"
  bottom: "inception_3a/output"
  top: "inception_3b/1x1"
  param {
    lr_mult: 1
    decay_mult: 1
  }
  param {
    lr_mult: 2
    decay_mult: 0
  }
  convolution_param {
    num_output: 128
    kernel_size: 1
    weight_filler {
      type: "xavier"
      std: 0.03
    }
    bias_filler {
      type: "constant"
      value: 0.2
    }
  }
}
layer {
  name: "inception_3b/relu_1x1"
  type: "ReLU"
  bottom: "inception_3b/1x1"
  top: "inception_3b/1x1"
}
layer {
  name: "inception_3b/3x3_reduce"
  type: "Convolution"
  bottom: "inception_3a/output"
  top: "inception_3b/3x3_reduce"
  param {
    lr_mult: 1
    decay_mult: 1
  }
  param {
    lr_mult: 2
    decay_mult: 0
  }
  convolution_param {
    num_output: 128
    kernel_size: 1
    weight_filler {
      type: "xavier"
      std: 0.09
    }
    bias_filler {
      type: "constant"
      value: 0.2
    }
  }
}
layer {
  name: "inception_3b/relu_3x3_reduce"
  type: "ReLU"
  bottom: "inception_3b/3x3_reduce"
  top: "inception_3b/3x3_reduce"
}
layer {
  name: "inception_3b/3x3"
  type: "Convolution"
  bottom: "inception_3b/3x3_reduce"
  top: "inception_3b/3x3"
  param {
    lr_mult: 1
    decay_mult: 1
  }
  param {
    lr_mult: 2
    decay_mult: 0
  }
  convolution_param {
    num_output: 192
    pad: 1
    kernel_size: 3
    weight_filler {
      type: "xavier"
      std: 0.03
    }
    bias_filler {
      type: "constant"
      value: 0.2
    }
  }
}
layer {
  name: "inception_3b/relu_3x3"
  type: "ReLU"
  bottom: "inception_3b/3x3"
  top: "inception_3b/3x3"
}
layer {
  name: "inception_3b/5x5_reduce"
  type: "Convolution"
  bottom: "inception_3a/output"
  top: "inception_3b/5x5_reduce"
  param {
    lr_mult: 1
    decay_mult: 1
  }
  param {
    lr_mult: 2
    decay_mult: 0
  }
  convolution_param {
    num_output: 32
    kernel_size: 1
    weight_filler {
      type: "xavier"
      std: 0.2
    }
    bias_filler {
      type: "constant"
      value: 0.2
    }
  }
}
layer {
  name: "inception_3b/relu_5x5_reduce"
  type: "ReLU"
  bottom: "inception_3b/5x5_reduce"
  top: "inception_3b/5x5_reduce"
}
layer {
  name: "inception_3b/5x5"
  type: "Convolution"
  bottom: "inception_3b/5x5_reduce"
  top: "inception_3b/5x5"
  param {
    lr_mult: 1
    decay_mult: 1
  }
  param {
    lr_mult: 2
    decay_mult: 0
  }
  convolution_param {
    num_output: 96
    pad: 2
    kernel_size: 5
    weight_filler {
      type: "xavier"
      std: 0.03
    }
    bias_filler {
      type: "constant"
      value: 0.2
    }
  }
}
layer {
  name: "inception_3b/relu_5x5"
  type: "ReLU"
  bottom: "inception_3b/5x5"
  top: "inception_3b/5x5"
}
layer {
  name: "inception_3b/pool"
  type: "Pooling"
  bottom: "inception_3a/output"
  top: "inception_3b/pool"
  pooling_param {
    pool: MAX
    kernel_size: 3
    stride: 1
    pad: 1
  }
}
layer {
  name: "inception_3b/pool_proj"
  type: "Convolution"
  bottom: "inception_3b/pool"
  top: "inception_3b/pool_proj"
  param {
    lr_mult: 1
    decay_mult: 1
  }
  param {
    lr_mult: 2
    decay_mult: 0
  }
  convolution_param {
    num_output: 64
    kernel_size: 1
    weight_filler {
      type: "xavier"
      std: 0.1
    }
    bias_filler {
      type: "constant"
      value: 0.2
    }
  }
}
layer {
  name: "inception_3b/relu_pool_proj"
  type: "ReLU"
  bottom: "inception_3b/pool_proj"
  top: "inception_3b/pool_proj"
}
layer {
  name: "inception_3b/output"
  type: "Concat"
  bottom: "inception_3b/1x1"
  bottom: "inception_3b/3x3"
  bottom: "inception_3b/5x5"
  bottom: "inception_3b/pool_proj"
  top: "inception_3b/output"
}
layer {
  name: "pool3/3x3_s2"
  type: "Pooling"
  bottom: "inception_3b/output"
  top: "pool3/3x3_s2"
  pooling_param {
    pool: MAX
    kernel_size: 3
    stride: 2
  }
}
layer {
  name: "inception_4a/1x1"
  type: "Convolution"
  bottom: "pool3/3x3_s2"
  top: "inception_4a/1x1"
  param {
    lr_mult: 1
    decay_mult: 1
  }
  param {
    lr_mult: 2
    decay_mult: 0
  }
  convolution_param {
    num_output: 192
    kernel_size: 1
    weight_filler {
      type: "xavier"
      std: 0.03
    }
    bias_filler {
      type: "constant"
      value: 0.2
    }
  }
}
layer {
  name: "inception_4a/relu_1x1"
  type: "ReLU"
  bottom: "inception_4a/1x1"
  top: "inception_4a/1x1"
}
layer {
  name: "inception_4a/3x3_reduce"
  type: "Convolution"
  bottom: "pool3/3x3_s2"
  top: "inception_4a/3x3_reduce"
  param {
    lr_mult: 1
    decay_mult: 1
  }
  param {
    lr_mult: 2
    decay_mult: 0
  }
  convolution_param {
    num_output: 96
    kernel_size: 1
    weight_filler {
      type: "xavier"
      std: 0.09
    }
    bias_filler {
      type: "constant"
      value: 0.2
    }
  }
}
layer {
  name: "inception_4a/relu_3x3_reduce"
  type: "ReLU"
  bottom: "inception_4a/3x3_reduce"
  top: "inception_4a/3x3_reduce"
}
layer {
  name: "inception_4a/3x3"
  type: "Convolution"
  bottom: "inception_4a/3x3_reduce"
  top: "inception_4a/3x3"
  param {
    lr_mult: 1
    decay_mult: 1
  }
  param {
    lr_mult: 2
    decay_mult: 0
  }
  convolution_param {
    num_output: 208
    pad: 1
    kernel_size: 3
    weight_filler {
      type: "xavier"
      std: 0.03
    }
    bias_filler {
      type: "constant"
      value: 0.2
    }
  }
}
layer {
  name: "inception_4a/relu_3x3"
  type: "ReLU"
  bottom: "inception_4a/3x3"
  top: "inception_4a/3x3"
}
layer {
  name: "inception_4a/5x5_reduce"
  type: "Convolution"
  bottom: "pool3/3x3_s2"
  top: "inception_4a/5x5_reduce"
  param {
    lr_mult: 1
    decay_mult: 1
  }
  param {
    lr_mult: 2
    decay_mult: 0
  }
  convolution_param {
    num_output: 16
    kernel_size: 1
    weight_filler {
      type: "xavier"
      std: 0.2
    }
    bias_filler {
      type: "constant"
      value: 0.2
    }
  }
}
layer {
  name: "inception_4a/relu_5x5_reduce"
  type: "ReLU"
  bottom: "inception_4a/5x5_reduce"
  top: "inception_4a/5x5_reduce"
}
layer {
  name: "inception_4a/5x5"
  type: "Convolution"
  bottom: "inception_4a/5x5_reduce"
  top: "inception_4a/5x5"
  param {
    lr_mult: 1
    decay_mult: 1
  }
  param {
    lr_mult: 2
    decay_mult: 0
  }
  convolution_param {
    num_output: 48
    pad: 2
    kernel_size: 5
    weight_filler {
      type: "xavier"
      std: 0.03
    }
    bias_filler {
      type: "constant"
      value: 0.2
    }
  }
}
layer {
  name: "inception_4a/relu_5x5"
  type: "ReLU"
  bottom: "inception_4a/5x5"
  top: "inception_4a/5x5"
}
layer {
  name: "inception_4a/pool"
  type: "Pooling"
  bottom: "pool3/3x3_s2"
  top: "inception_4a/pool"
  pooling_param {
    pool: MAX
    kernel_size: 3
    stride: 1
    pad: 1
  }
}
layer {
  name: "inception_4a/pool_proj"
  type: "Convolution"
  bottom: "inception_4a/pool"
  top: "inception_4a/pool_proj"
  param {
    lr_mult: 1
    decay_mult: 1
  }
  param {
    lr_mult: 2
    decay_mult: 0
  }
  convolution_param {
    num_output: 64
    kernel_size: 1
    weight_filler {
      type: "xavier"
      std: 0.1
    }
    bias_filler {
      type: "constant"
      value: 0.2
    }
  }
}
layer {
  name: "inception_4a/relu_pool_proj"
  type: "ReLU"
  bottom: "inception_4a/pool_proj"
  top: "inception_4a/pool_proj"
}
layer {
  name: "inception_4a/output"
  type: "Concat"
  bottom: "inception_4a/1x1"
  bottom: "inception_4a/3x3"
  bottom: "inception_4a/5x5"
  bottom: "inception_4a/pool_proj"
  top: "inception_4a/output"
}
layer {
  name: "loss1/ave_pool"
  type: "Pooling"
  bottom: "inception_4a/output"
  top: "loss1/ave_pool"
  pooling_param {
    pool: AVE
    kernel_size: 5
    stride: 3
  }
}
layer {
  name: "loss1/conv"
  type: "Convolution"
  bottom: "loss1/ave_pool"
  top: "loss1/conv"
  param {
    lr_mult: 1
    decay_mult: 1
  }
  param {
    lr_mult: 2
    decay_mult: 0
  }
  convolution_param {
    num_output: 128
    kernel_size: 1
    weight_filler {
      type: "xavier"
      std: 0.08
    }
    bias_filler {
      type: "constant"
      value: 0.2
    }
  }
}
layer {
  name: "loss1/relu_conv"
  type: "ReLU"
  bottom: "loss1/conv"
  top: "loss1/conv"
}
layer {
  name: "loss1/fc"
  type: "InnerProduct"
  bottom: "loss1/conv"
  top: "loss1/fc"
  param {
    lr_mult: 1
    decay_mult: 1
  }
  param {
    lr_mult: 2
    decay_mult: 0
  }
  inner_product_param {
    num_output: 1024
    weight_filler {
      type: "xavier"
      std: 0.02
    }
    bias_filler {
      type: "constant"
      value: 0.2
    }
  }
}
layer {
  name: "loss1/relu_fc"
  type: "ReLU"
  bottom: "loss1/fc"
  top: "loss1/fc"
}
layer {
  name: "loss1/drop_fc"
  type: "Dropout"
  bottom: "loss1/fc"
  top: "loss1/fc"
  dropout_param {
    dropout_ratio: 0.7
  }
}
layer {
  name: "loss1/classifier_plantvillage"
  type: "InnerProduct"
  bottom: "loss1/fc"
  top: "loss1/classifier_plantvillage"
  param {
    lr_mult: 1
    decay_mult: 1
  }
  param {
    lr_mult: 2
    decay_mult: 0
  }
  inner_product_param {
    num_output: 38
    weight_filler {
      type: "xavier"
      std: 0.0009765625
    }
    bias_filler {
      type: "constant"
      value: 0
    }
  }
}
layer {
  name: "inception_4b/1x1"
  type: "Convolution"
  bottom: "inception_4a/output"
  top: "inception_4b/1x1"
  param {
    lr_mult: 1
    decay_mult: 1
  }
  param {
    lr_mult: 2
    decay_mult: 0
  }
  convolution_param {
    num_output: 160
    kernel_size: 1
    weight_filler {
      type: "xavier"
      std: 0.03
    }
    bias_filler {
      type: "constant"
      value: 0.2
    }
  }
}
layer {
  name: "inception_4b/relu_1x1"
  type: "ReLU"
  bottom: "inception_4b/1x1"
  top: "inception_4b/1x1"
}
layer {
  name: "inception_4b/3x3_reduce"
  type: "Convolution"
  bottom: "inception_4a/output"
  top: "inception_4b/3x3_reduce"
  param {
    lr_mult: 1
    decay_mult: 1
  }
  param {
    lr_mult: 2
    decay_mult: 0
  }
  convolution_param {
    num_output: 112
    kernel_size: 1
    weight_filler {
      type: "xavier"
      std: 0.09
    }
    bias_filler {
      type: "constant"
      value: 0.2
    }
  }
}
layer {
  name: "inception_4b/relu_3x3_reduce"
  type: "ReLU"
  bottom: "inception_4b/3x3_reduce"
  top: "inception_4b/3x3_reduce"
}
layer {
  name: "inception_4b/3x3"
  type: "Convolution"
  bottom: "inception_4b/3x3_reduce"
  top: "inception_4b/3x3"
  param {
    lr_mult: 1
    decay_mult: 1
  }
  param {
    lr_mult: 2
    decay_mult: 0
  }
  convolution_param {
    num_output: 224
    pad: 1
    kernel_size: 3
    weight_filler {
      type: "xavier"
      std: 0.03
    }
    bias_filler {
      type: "constant"
      value: 0.2
    }
  }
}
layer {
  name: "inception_4b/relu_3x3"
  type: "ReLU"
  bottom: "inception_4b/3x3"
  top: "inception_4b/3x3"
}
layer {
  name: "inception_4b/5x5_reduce"
  type: "Convolution"
  bottom: "inception_4a/output"
  top: "inception_4b/5x5_reduce"
  param {
    lr_mult: 1
    decay_mult: 1
  }
  param {
    lr_mult: 2
    decay_mult: 0
  }
  convolution_param {
    num_output: 24
    kernel_size: 1
    weight_filler {
      type: "xavier"
      std: 0.2
    }
    bias_filler {
      type: "constant"
      value: 0.2
    }
  }
}
layer {
  name: "inception_4b/relu_5x5_reduce"
  type: "ReLU"
  bottom: "inception_4b/5x5_reduce"
  top: "inception_4b/5x5_reduce"
}
layer {
  name: "inception_4b/5x5"
  type: "Convolution"
  bottom: "inception_4b/5x5_reduce"
  top: "inception_4b/5x5"
  param {
    lr_mult: 1
    decay_mult: 1
  }
  param {
    lr_mult: 2
    decay_mult: 0
  }
  convolution_param {
    num_output: 64
    pad: 2
    kernel_size: 5
    weight_filler {
      type: "xavier"
      std: 0.03
    }
    bias_filler {
      type: "constant"
      value: 0.2
    }
  }
}
layer {
  name: "inception_4b/relu_5x5"
  type: "ReLU"
  bottom: "inception_4b/5x5"
  top: "inception_4b/5x5"
}
layer {
  name: "inception_4b/pool"
  type: "Pooling"
  bottom: "inception_4a/output"
  top: "inception_4b/pool"
  pooling_param {
    pool: MAX
    kernel_size: 3
    stride: 1
    pad: 1
  }
}
layer {
  name: "inception_4b/pool_proj"
  type: "Convolution"
  bottom: "inception_4b/pool"
  top: "inception_4b/pool_proj"
  param {
    lr_mult: 1
    decay_mult: 1
  }
  param {
    lr_mult: 2
    decay_mult: 0
  }
  convolution_param {
    num_output: 64
    kernel_size: 1
    weight_filler {
      type: "xavier"
      std: 0.1
    }
    bias_filler {
      type: "constant"
      value: 0.2
    }
  }
}
layer {
  name: "inception_4b/relu_pool_proj"
  type: "ReLU"
  bottom: "inception_4b/pool_proj"
  top: "inception_4b/pool_proj"
}
layer {
  name: "inception_4b/output"
  type: "Concat"
  bottom: "inception_4b/1x1"
  bottom: "inception_4b/3x3"
  bottom: "inception_4b/5x5"
  bottom: "inception_4b/pool_proj"
  top: "inception_4b/output"
}
layer {
  name: "inception_4c/1x1"
  type: "Convolution"
  bottom: "inception_4b/output"
  top: "inception_4c/1x1"
  param {
    lr_mult: 1
    decay_mult: 1
  }
  param {
    lr_mult: 2
    decay_mult: 0
  }
  convolution_param {
    num_output: 128
    kernel_size: 1
    weight_filler {
      type: "xavier"
      std: 0.03
    }
    bias_filler {
      type: "constant"
      value: 0.2
    }
  }
}
layer {
  name: "inception_4c/relu_1x1"
  type: "ReLU"
  bottom: "inception_4c/1x1"
  top: "inception_4c/1x1"
}
layer {
  name: "inception_4c/3x3_reduce"
  type: "Convolution"
  bottom: "inception_4b/output"
  top: "inception_4c/3x3_reduce"
  param {
    lr_mult: 1
    decay_mult: 1
  }
  param {
    lr_mult: 2
    decay_mult: 0
  }
  convolution_param {
    num_output: 128
    kernel_size: 1
    weight_filler {
      type: "xavier"
      std: 0.09
    }
    bias_filler {
      type: "constant"
      value: 0.2
    }
  }
}
layer {
  name: "inception_4c/relu_3x3_reduce"
  type: "ReLU"
  bottom: "inception_4c/3x3_reduce"
  top: "inception_4c/3x3_reduce"
}
layer {
  name: "inception_4c/3x3"
  type: "Convolution"
  bottom: "inception_4c/3x3_reduce"
  top: "inception_4c/3x3"
  param {
    lr_mult: 1
    decay_mult: 1
  }
  param {
    lr_mult: 2
    decay_mult: 0
  }
  convolution_param {
    num_output: 256
    pad: 1
    kernel_size: 3
    weight_filler {
      type: "xavier"
      std: 0.03
    }
    bias_filler {
      type: "constant"
      value: 0.2
    }
  }
}
layer {
  name: "inception_4c/relu_3x3"
  type: "ReLU"
  bottom: "inception_4c/3x3"
  top: "inception_4c/3x3"
}
layer {
  name: "inception_4c/5x5_reduce"
  type: "Convolution"
  bottom: "inception_4b/output"
  top: "inception_4c/5x5_reduce"
  param {
    lr_mult: 1
    decay_mult: 1
  }
  param {
    lr_mult: 2
    decay_mult: 0
  }
  convolution_param {
    num_output: 24
    kernel_size: 1
    weight_filler {
      type: "xavier"
      std: 0.2
    }
    bias_filler {
      type: "constant"
      value: 0.2
    }
  }
}
layer {
  name: "inception_4c/relu_5x5_reduce"
  type: "ReLU"
  bottom: "inception_4c/5x5_reduce"
  top: "inception_4c/5x5_reduce"
}
layer {
  name: "inception_4c/5x5"
  type: "Convolution"
  bottom: "inception_4c/5x5_reduce"
  top: "inception_4c/5x5"
  param {
    lr_mult: 1
    decay_mult: 1
  }
  param {
    lr_mult: 2
    decay_mult: 0
  }
  convolution_param {
    num_output: 64
    pad: 2
    kernel_size: 5
    weight_filler {
      type: "xavier"
      std: 0.03
    }
    bias_filler {
      type: "constant"
      value: 0.2
    }
  }
}
layer {
  name: "inception_4c/relu_5x5"
  type: "ReLU"
  bottom: "inception_4c/5x5"
  top: "inception_4c/5x5"
}
layer {
  name: "inception_4c/pool"
  type: "Pooling"
  bottom: "inception_4b/output"
  top: "inception_4c/pool"
  pooling_param {
    pool: MAX
    kernel_size: 3
    stride: 1
    pad: 1
  }
}
layer {
  name: "inception_4c/pool_proj"
  type: "Convolution"
  bottom: "inception_4c/pool"
  top: "inception_4c/pool_proj"
  param {
    lr_mult: 1
    decay_mult: 1
  }
  param {
    lr_mult: 2
    decay_mult: 0
  }
  convolution_param {
    num_output: 64
    kernel_size: 1
    weight_filler {
      type: "xavier"
      std: 0.1
    }
    bias_filler {
      type: "constant"
      value: 0.2
    }
  }
}
layer {
  name: "inception_4c/relu_pool_proj"
  type: "ReLU"
  bottom: "inception_4c/pool_proj"
  top: "inception_4c/pool_proj"
}
layer {
  name: "inception_4c/output"
  type: "Concat"
  bottom: "inception_4c/1x1"
  bottom: "inception_4c/3x3"
  bottom: "inception_4c/5x5"
  bottom: "inception_4c/pool_proj"
  top: "inception_4c/output"
}
layer {
  name: "inception_4d/1x1"
  type: "Convolution"
  bottom: "inception_4c/output"
  top: "inception_4d/1x1"
  param {
    lr_mult: 1
    decay_mult: 1
  }
  param {
    lr_mult: 2
    decay_mult: 0
  }
  convolution_param {
    num_output: 112
    kernel_size: 1
    weight_filler {
      type: "xavier"
      std: 0.03
    }
    bias_filler {
      type: "constant"
      value: 0.2
    }
  }
}
layer {
  name: "inception_4d/relu_1x1"
  type: "ReLU"
  bottom: "inception_4d/1x1"
  top: "inception_4d/1x1"
}
layer {
  name: "inception_4d/3x3_reduce"
  type: "Convolution"
  bottom: "inception_4c/output"
  top: "inception_4d/3x3_reduce"
  param {
    lr_mult: 1
    decay_mult: 1
  }
  param {
    lr_mult: 2
    decay_mult: 0
  }
  convolution_param {
    num_output: 144
    kernel_size: 1
    weight_filler {
      type: "xavier"
      std: 0.09
    }
    bias_filler {
      type: "constant"
      value: 0.2
    }
  }
}
layer {
  name: "inception_4d/relu_3x3_reduce"
  type: "ReLU"
  bottom: "inception_4d/3x3_reduce"
  top: "inception_4d/3x3_reduce"
}
layer {
  name: "inception_4d/3x3"
  type: "Convolution"
  bottom: "inception_4d/3x3_reduce"
  top: "inception_4d/3x3"
  param {
    lr_mult: 1
    decay_mult: 1
  }
  param {
    lr_mult: 2
    decay_mult: 0
  }
  convolution_param {
    num_output: 288
    pad: 1
    kernel_size: 3
    weight_filler {
      type: "xavier"
      std: 0.03
    }
    bias_filler {
      type: "constant"
      value: 0.2
    }
  }
}
layer {
  name: "inception_4d/relu_3x3"
  type: "ReLU"
  bottom: "inception_4d/3x3"
  top: "inception_4d/3x3"
}
layer {
  name: "inception_4d/5x5_reduce"
  type: "Convolution"
  bottom: "inception_4c/output"
  top: "inception_4d/5x5_reduce"
  param {
    lr_mult: 1
    decay_mult: 1
  }
  param {
    lr_mult: 2
    decay_mult: 0
  }
  convolution_param {
    num_output: 32
    kernel_size: 1
    weight_filler {
      type: "xavier"
      std: 0.2
    }
    bias_filler {
      type: "constant"
      value: 0.2
    }
  }
}
layer {
  name: "inception_4d/relu_5x5_reduce"
  type: "ReLU"
  bottom: "inception_4d/5x5_reduce"
  top: "inception_4d/5x5_reduce"
}
layer {
  name: "inception_4d/5x5"
  type: "Convolution"
  bottom: "inception_4d/5x5_reduce"
  top: "inception_4d/5x5"
  param {
    lr_mult: 1
    decay_mult: 1
  }
  param {
    lr_mult: 2
    decay_mult: 0
  }
  convolution_param {
    num_output: 64
    pad: 2
    kernel_size: 5
    weight_filler {
      type: "xavier"
      std: 0.03
    }
    bias_filler {
      type: "constant"
      value: 0.2
    }
  }
}
layer {
  name: "inception_4d/relu_5x5"
  type: "ReLU"
  bottom: "inception_4d/5x5"
  top: "inception_4d/5x5"
}
layer {
  name: "inception_4d/pool"
  type: "Pooling"
  bottom: "inception_4c/output"
  top: "inception_4d/pool"
  pooling_param {
    pool: MAX
    kernel_size: 3
    stride: 1
    pad: 1
  }
}
layer {
  name: "inception_4d/pool_proj"
  type: "Convolution"
  bottom: "inception_4d/pool"
  top: "inception_4d/pool_proj"
  param {
    lr_mult: 1
    decay_mult: 1
  }
  param {
    lr_mult: 2
    decay_mult: 0
  }
  convolution_param {
    num_output: 64
    kernel_size: 1
    weight_filler {
      type: "xavier"
      std: 0.1
    }
    bias_filler {
      type: "constant"
      value: 0.2
    }
  }
}
layer {
  name: "inception_4d/relu_pool_proj"
  type: "ReLU"
  bottom: "inception_4d/pool_proj"
  top: "inception_4d/pool_proj"
}
layer {
  name: "inception_4d/output"
  type: "Concat"
  bottom: "inception_4d/1x1"
  bottom: "inception_4d/3x3"
  bottom: "inception_4d/5x5"
  bottom: "inception_4d/pool_proj"
  top: "inception_4d/output"
}
layer {
  name: "loss2/ave_pool"
  type: "Pooling"
  bottom: "inception_4d/output"
  top: "loss2/ave_pool"
  pooling_param {
    pool: AVE
    kernel_size: 5
    stride: 3
  }
}
layer {
  name: "loss2/conv"
  type: "Convolution"
  bottom: "loss2/ave_pool"
  top: "loss2/conv"
  param {
    lr_mult: 1
    decay_mult: 1
  }
  param {
    lr_mult: 2
    decay_mult: 0
  }
  convolution_param {
    num_output: 128
    kernel_size: 1
    weight_filler {
      type: "xavier"
      std: 0.08
    }
    bias_filler {
      type: "constant"
      value: 0.2
    }
  }
}
layer {
  name: "loss2/relu_conv"
  type: "ReLU"
  bottom: "loss2/conv"
  top: "loss2/conv"
}
layer {
  name: "loss2/fc"
  type: "InnerProduct"
  bottom: "loss2/conv"
  top: "loss2/fc"
  param {
    lr_mult: 1
    decay_mult: 1
  }
  param {
    lr_mult: 2
    decay_mult: 0
  }
  inner_product_param {
    num_output: 1024
    weight_filler {
      type: "xavier"
      std: 0.02
    }
    bias_filler {
      type: "constant"
      value: 0.2
    }
  }
}
layer {
  name: "loss2/relu_fc"
  type: "ReLU"
  bottom: "loss2/fc"
  top: "loss2/fc"
}
layer {
  name: "loss2/drop_fc"
  type: "Dropout"
  bottom: "loss2/fc"
  top: "loss2/fc"
  dropout_param {
    dropout_ratio: 0.7
  }
}
layer {
  name: "loss2/classifier_plantvillage"
  type: "InnerProduct"
  bottom: "loss2/fc"
  top: "loss2/classifier_plantvillage"
  param {
    lr_mult: 1
    decay_mult: 1
  }
  param {
    lr_mult: 2
    decay_mult: 0
  }
  inner_product_param {
    num_output: 38
    weight_filler {
      type: "xavier"
      std: 0.0009765625
    }
    bias_filler {
      type: "constant"
      value: 0
    }
  }
}
layer {
  name: "inception_4e/1x1"
  type: "Convolution"
  bottom: "inception_4d/output"
  top: "inception_4e/1x1"
  param {
    lr_mult: 1
    decay_mult: 1
  }
  param {
    lr_mult: 2
    decay_mult: 0
  }
  convolution_param {
    num_output: 256
    kernel_size: 1
    weight_filler {
      type: "xavier"
      std: 0.03
    }
    bias_filler {
      type: "constant"
      value: 0.2
    }
  }
}
layer {
  name: "inception_4e/relu_1x1"
  type: "ReLU"
  bottom: "inception_4e/1x1"
  top: "inception_4e/1x1"
}
layer {
  name: "inception_4e/3x3_reduce"
  type: "Convolution"
  bottom: "inception_4d/output"
  top: "inception_4e/3x3_reduce"
  param {
    lr_mult: 1
    decay_mult: 1
  }
  param {
    lr_mult: 2
    decay_mult: 0
  }
  convolution_param {
    num_output: 160
    kernel_size: 1
    weight_filler {
      type: "xavier"
      std: 0.09
    }
    bias_filler {
      type: "constant"
      value: 0.2
    }
  }
}
layer {
  name: "inception_4e/relu_3x3_reduce"
  type: "ReLU"
  bottom: "inception_4e/3x3_reduce"
  top: "inception_4e/3x3_reduce"
}
layer {
  name: "inception_4e/3x3"
  type: "Convolution"
  bottom: "inception_4e/3x3_reduce"
  top: "inception_4e/3x3"
  param {
    lr_mult: 1
    decay_mult: 1
  }
  param {
    lr_mult: 2
    decay_mult: 0
  }
  convolution_param {
    num_output: 320
    pad: 1
    kernel_size: 3
    weight_filler {
      type: "xavier"
      std: 0.03
    }
    bias_filler {
      type: "constant"
      value: 0.2
    }
  }
}
layer {
  name: "inception_4e/relu_3x3"
  type: "ReLU"
  bottom: "inception_4e/3x3"
  top: "inception_4e/3x3"
}
layer {
  name: "inception_4e/5x5_reduce"
  type: "Convolution"
  bottom: "inception_4d/output"
  top: "inception_4e/5x5_reduce"
  param {
    lr_mult: 1
    decay_mult: 1
  }
  param {
    lr_mult: 2
    decay_mult: 0
  }
  convolution_param {
    num_output: 32
    kernel_size: 1
    weight_filler {
      type: "xavier"
      std: 0.2
    }
    bias_filler {
      type: "constant"
      value: 0.2
    }
  }
}
layer {
  name: "inception_4e/relu_5x5_reduce"
  type: "ReLU"
  bottom: "inception_4e/5x5_reduce"
  top: "inception_4e/5x5_reduce"
}
layer {
  name: "inception_4e/5x5"
  type: "Convolution"
  bottom: "inception_4e/5x5_reduce"
  top: "inception_4e/5x5"
  p
I0403 15:47:24.279199 16053 layer_factory.hpp:77] Creating layer data
I0403 15:47:24.279794 16053 net.cpp:91] Creating Layer data
I0403 15:47:24.279826 16053 net.cpp:399] data -> data
I0403 15:47:24.279877 16053 net.cpp:399] data -> label
I0403 15:47:24.279917 16053 data_transformer.cpp:25] Loading mean file from: /home/mohanty/data/final_dataset/lmdb/color-50-50/mean.binaryproto
I0403 15:47:24.283242 16056 db_lmdb.cpp:38] Opened lmdb /home/mohanty/data/final_dataset/lmdb/color-50-50/test_db
I0403 15:47:24.293380 16053 data_layer.cpp:41] output data size: 24,3,224,224
I0403 15:47:24.321079 16053 net.cpp:141] Setting up data
I0403 15:47:24.321167 16053 net.cpp:148] Top shape: 24 3 224 224 (3612672)
I0403 15:47:24.321190 16053 net.cpp:148] Top shape: 24 (24)
I0403 15:47:24.321207 16053 net.cpp:156] Memory required for data: 14450784
I0403 15:47:24.321234 16053 layer_factory.hpp:77] Creating layer label_data_1_split
I0403 15:47:24.321261 16053 net.cpp:91] Creating Layer label_data_1_split
I0403 15:47:24.321279 16053 net.cpp:425] label_data_1_split <- label
I0403 15:47:24.321313 16053 net.cpp:399] label_data_1_split -> label_data_1_split_0
I0403 15:47:24.321341 16053 net.cpp:399] label_data_1_split -> label_data_1_split_1
I0403 15:47:24.321362 16053 net.cpp:399] label_data_1_split -> label_data_1_split_2
I0403 15:47:24.321382 16053 net.cpp:399] label_data_1_split -> label_data_1_split_3
I0403 15:47:24.321401 16053 net.cpp:399] label_data_1_split -> label_data_1_split_4
I0403 15:47:24.321420 16053 net.cpp:399] label_data_1_split -> label_data_1_split_5
I0403 15:47:24.321439 16053 net.cpp:399] label_data_1_split -> label_data_1_split_6
I0403 15:47:24.321458 16053 net.cpp:399] label_data_1_split -> label_data_1_split_7
I0403 15:47:24.321477 16053 net.cpp:399] label_data_1_split -> label_data_1_split_8
I0403 15:47:24.321496 16053 net.cpp:399] label_data_1_split -> label_data_1_split_9
I0403 15:47:24.321630 16053 net.cpp:141] Setting up label_data_1_split
I0403 15:47:24.321655 16053 net.cpp:148] Top shape: 24 (24)
I0403 15:47:24.321671 16053 net.cpp:148] Top shape: 24 (24)
I0403 15:47:24.321687 16053 net.cpp:148] Top shape: 24 (24)
I0403 15:47:24.321703 16053 net.cpp:148] Top shape: 24 (24)
I0403 15:47:24.321718 16053 net.cpp:148] Top shape: 24 (24)
I0403 15:47:24.321734 16053 net.cpp:148] Top shape: 24 (24)
I0403 15:47:24.321750 16053 net.cpp:148] Top shape: 24 (24)
I0403 15:47:24.321765 16053 net.cpp:148] Top shape: 24 (24)
I0403 15:47:24.321781 16053 net.cpp:148] Top shape: 24 (24)
I0403 15:47:24.321796 16053 net.cpp:148] Top shape: 24 (24)
I0403 15:47:24.321859 16053 net.cpp:156] Memory required for data: 14451744
I0403 15:47:24.321876 16053 layer_factory.hpp:77] Creating layer conv1/7x7_s2
I0403 15:47:24.321907 16053 net.cpp:91] Creating Layer conv1/7x7_s2
I0403 15:47:24.321923 16053 net.cpp:425] conv1/7x7_s2 <- data
I0403 15:47:24.321941 16053 net.cpp:399] conv1/7x7_s2 -> conv1/7x7_s2
I0403 15:47:24.462083 16053 net.cpp:141] Setting up conv1/7x7_s2
I0403 15:47:24.462134 16053 net.cpp:148] Top shape: 24 64 112 112 (19267584)
I0403 15:47:24.462152 16053 net.cpp:156] Memory required for data: 91522080
I0403 15:47:24.462182 16053 layer_factory.hpp:77] Creating layer conv1/relu_7x7
I0403 15:47:24.462210 16053 net.cpp:91] Creating Layer conv1/relu_7x7
I0403 15:47:24.462229 16053 net.cpp:425] conv1/relu_7x7 <- conv1/7x7_s2
I0403 15:47:24.462249 16053 net.cpp:386] conv1/relu_7x7 -> conv1/7x7_s2 (in-place)
I0403 15:47:24.462553 16053 net.cpp:141] Setting up conv1/relu_7x7
I0403 15:47:24.462592 16053 net.cpp:148] Top shape: 24 64 112 112 (19267584)
I0403 15:47:24.462607 16053 net.cpp:156] Memory required for data: 168592416
I0403 15:47:24.462622 16053 layer_factory.hpp:77] Creating layer pool1/3x3_s2
I0403 15:47:24.462648 16053 net.cpp:91] Creating Layer pool1/3x3_s2
I0403 15:47:24.462667 16053 net.cpp:425] pool1/3x3_s2 <- conv1/7x7_s2
I0403 15:47:24.462687 16053 net.cpp:399] pool1/3x3_s2 -> pool1/3x3_s2
I0403 15:47:24.462765 16053 net.cpp:141] Setting up pool1/3x3_s2
I0403 15:47:24.462790 16053 net.cpp:148] Top shape: 24 64 56 56 (4816896)
I0403 15:47:24.462805 16053 net.cpp:156] Memory required for data: 187860000
I0403 15:47:24.462818 16053 layer_factory.hpp:77] Creating layer pool1/norm1
I0403 15:47:24.462844 16053 net.cpp:91] Creating Layer pool1/norm1
I0403 15:47:24.462863 16053 net.cpp:425] pool1/norm1 <- pool1/3x3_s2
I0403 15:47:24.462882 16053 net.cpp:399] pool1/norm1 -> pool1/norm1
I0403 15:47:24.463265 16053 net.cpp:141] Setting up pool1/norm1
I0403 15:47:24.463295 16053 net.cpp:148] Top shape: 24 64 56 56 (4816896)
I0403 15:47:24.463315 16053 net.cpp:156] Memory required for data: 207127584
I0403 15:47:24.463330 16053 layer_factory.hpp:77] Creating layer conv2/3x3_reduce
I0403 15:47:24.463353 16053 net.cpp:91] Creating Layer conv2/3x3_reduce
I0403 15:47:24.463371 16053 net.cpp:425] conv2/3x3_reduce <- pool1/norm1
I0403 15:47:24.463392 16053 net.cpp:399] conv2/3x3_reduce -> conv2/3x3_reduce
I0403 15:47:24.464882 16053 net.cpp:141] Setting up conv2/3x3_reduce
I0403 15:47:24.464913 16053 net.cpp:148] Top shape: 24 64 56 56 (4816896)
I0403 15:47:24.464929 16053 net.cpp:156] Memory required for data: 226395168
I0403 15:47:24.464951 16053 layer_factory.hpp:77] Creating layer conv2/relu_3x3_reduce
I0403 15:47:24.464970 16053 net.cpp:91] Creating Layer conv2/relu_3x3_reduce
I0403 15:47:24.464987 16053 net.cpp:425] conv2/relu_3x3_reduce <- conv2/3x3_reduce
I0403 15:47:24.465006 16053 net.cpp:386] conv2/relu_3x3_reduce -> conv2/3x3_reduce (in-place)
I0403 15:47:24.465281 16053 net.cpp:141] Setting up conv2/relu_3x3_reduce
I0403 15:47:24.465309 16053 net.cpp:148] Top shape: 24 64 56 56 (4816896)
I0403 15:47:24.465324 16053 net.cpp:156] Memory required for data: 245662752
I0403 15:47:24.465339 16053 layer_factory.hpp:77] Creating layer conv2/3x3
I0403 15:47:24.465368 16053 net.cpp:91] Creating Layer conv2/3x3
I0403 15:47:24.465385 16053 net.cpp:425] conv2/3x3 <- conv2/3x3_reduce
I0403 15:47:24.465409 16053 net.cpp:399] conv2/3x3 -> conv2/3x3
I0403 15:47:24.467838 16053 net.cpp:141] Setting up conv2/3x3
I0403 15:47:24.467869 16053 net.cpp:148] Top shape: 24 192 56 56 (14450688)
I0403 15:47:24.467886 16053 net.cpp:156] Memory required for data: 303465504
I0403 15:47:24.467907 16053 layer_factory.hpp:77] Creating layer conv2/relu_3x3
I0403 15:47:24.467927 16053 net.cpp:91] Creating Layer conv2/relu_3x3
I0403 15:47:24.467943 16053 net.cpp:425] conv2/relu_3x3 <- conv2/3x3
I0403 15:47:24.467963 16053 net.cpp:386] conv2/relu_3x3 -> conv2/3x3 (in-place)
I0403 15:47:24.468189 16053 net.cpp:141] Setting up conv2/relu_3x3
I0403 15:47:24.468219 16053 net.cpp:148] Top shape: 24 192 56 56 (14450688)
I0403 15:47:24.468273 16053 net.cpp:156] Memory required for data: 361268256
I0403 15:47:24.468291 16053 layer_factory.hpp:77] Creating layer conv2/norm2
I0403 15:47:24.468308 16053 net.cpp:91] Creating Layer conv2/norm2
I0403 15:47:24.468325 16053 net.cpp:425] conv2/norm2 <- conv2/3x3
I0403 15:47:24.468345 16053 net.cpp:399] conv2/norm2 -> conv2/norm2
I0403 15:47:24.468662 16053 net.cpp:141] Setting up conv2/norm2
I0403 15:47:24.468690 16053 net.cpp:148] Top shape: 24 192 56 56 (14450688)
I0403 15:47:24.468705 16053 net.cpp:156] Memory required for data: 419071008
I0403 15:47:24.468720 16053 layer_factory.hpp:77] Creating layer pool2/3x3_s2
I0403 15:47:24.468739 16053 net.cpp:91] Creating Layer pool2/3x3_s2
I0403 15:47:24.468755 16053 net.cpp:425] pool2/3x3_s2 <- conv2/norm2
I0403 15:47:24.468775 16053 net.cpp:399] pool2/3x3_s2 -> pool2/3x3_s2
I0403 15:47:24.468829 16053 net.cpp:141] Setting up pool2/3x3_s2
I0403 15:47:24.468853 16053 net.cpp:148] Top shape: 24 192 28 28 (3612672)
I0403 15:47:24.468868 16053 net.cpp:156] Memory required for data: 433521696
I0403 15:47:24.468883 16053 layer_factory.hpp:77] Creating layer pool2/3x3_s2_pool2/3x3_s2_0_split
I0403 15:47:24.468904 16053 net.cpp:91] Creating Layer pool2/3x3_s2_pool2/3x3_s2_0_split
I0403 15:47:24.468919 16053 net.cpp:425] pool2/3x3_s2_pool2/3x3_s2_0_split <- pool2/3x3_s2
I0403 15:47:24.468937 16053 net.cpp:399] pool2/3x3_s2_pool2/3x3_s2_0_split -> pool2/3x3_s2_pool2/3x3_s2_0_split_0
I0403 15:47:24.468957 16053 net.cpp:399] pool2/3x3_s2_pool2/3x3_s2_0_split -> pool2/3x3_s2_pool2/3x3_s2_0_split_1
I0403 15:47:24.468981 16053 net.cpp:399] pool2/3x3_s2_pool2/3x3_s2_0_split -> pool2/3x3_s2_pool2/3x3_s2_0_split_2
I0403 15:47:24.469000 16053 net.cpp:399] pool2/3x3_s2_pool2/3x3_s2_0_split -> pool2/3x3_s2_pool2/3x3_s2_0_split_3
I0403 15:47:24.469071 16053 net.cpp:141] Setting up pool2/3x3_s2_pool2/3x3_s2_0_split
I0403 15:47:24.469094 16053 net.cpp:148] Top shape: 24 192 28 28 (3612672)
I0403 15:47:24.469110 16053 net.cpp:148] Top shape: 24 192 28 28 (3612672)
I0403 15:47:24.469125 16053 net.cpp:148] Top shape: 24 192 28 28 (3612672)
I0403 15:47:24.469141 16053 net.cpp:148] Top shape: 24 192 28 28 (3612672)
I0403 15:47:24.469156 16053 net.cpp:156] Memory required for data: 491324448
I0403 15:47:24.469171 16053 layer_factory.hpp:77] Creating layer inception_3a/1x1
I0403 15:47:24.469192 16053 net.cpp:91] Creating Layer inception_3a/1x1
I0403 15:47:24.469210 16053 net.cpp:425] inception_3a/1x1 <- pool2/3x3_s2_pool2/3x3_s2_0_split_0
I0403 15:47:24.469231 16053 net.cpp:399] inception_3a/1x1 -> inception_3a/1x1
I0403 15:47:24.470856 16053 net.cpp:141] Setting up inception_3a/1x1
I0403 15:47:24.470885 16053 net.cpp:148] Top shape: 24 64 28 28 (1204224)
I0403 15:47:24.470901 16053 net.cpp:156] Memory required for data: 496141344
I0403 15:47:24.470921 16053 layer_factory.hpp:77] Creating layer inception_3a/relu_1x1
I0403 15:47:24.470938 16053 net.cpp:91] Creating Layer inception_3a/relu_1x1
I0403 15:47:24.470962 16053 net.cpp:425] inception_3a/relu_1x1 <- inception_3a/1x1
I0403 15:47:24.470980 16053 net.cpp:386] inception_3a/relu_1x1 -> inception_3a/1x1 (in-place)
I0403 15:47:24.471156 16053 net.cpp:141] Setting up inception_3a/relu_1x1
I0403 15:47:24.471181 16053 net.cpp:148] Top shape: 24 64 28 28 (1204224)
I0403 15:47:24.471197 16053 net.cpp:156] Memory required for data: 500958240
I0403 15:47:24.471211 16053 layer_factory.hpp:77] Creating layer inception_3a/3x3_reduce
I0403 15:47:24.471235 16053 net.cpp:91] Creating Layer inception_3a/3x3_reduce
I0403 15:47:24.471252 16053 net.cpp:425] inception_3a/3x3_reduce <- pool2/3x3_s2_pool2/3x3_s2_0_split_1
I0403 15:47:24.471289 16053 net.cpp:399] inception_3a/3x3_reduce -> inception_3a/3x3_reduce
I0403 15:47:24.473120 16053 net.cpp:141] Setting up inception_3a/3x3_reduce
I0403 15:47:24.473150 16053 net.cpp:148] Top shape: 24 96 28 28 (1806336)
I0403 15:47:24.473165 16053 net.cpp:156] Memory required for data: 508183584
I0403 15:47:24.473187 16053 layer_factory.hpp:77] Creating layer inception_3a/relu_3x3_reduce
I0403 15:47:24.473227 16053 net.cpp:91] Creating Layer inception_3a/relu_3x3_reduce
I0403 15:47:24.473247 16053 net.cpp:425] inception_3a/relu_3x3_reduce <- inception_3a/3x3_reduce
I0403 15:47:24.473263 16053 net.cpp:386] inception_3a/relu_3x3_reduce -> inception_3a/3x3_reduce (in-place)
I0403 15:47:24.473446 16053 net.cpp:141] Setting up inception_3a/relu_3x3_reduce
I0403 15:47:24.473471 16053 net.cpp:148] Top shape: 24 96 28 28 (1806336)
I0403 15:47:24.473486 16053 net.cpp:156] Memory required for data: 515408928
I0403 15:47:24.473501 16053 layer_factory.hpp:77] Creating layer inception_3a/3x3
I0403 15:47:24.473523 16053 net.cpp:91] Creating Layer inception_3a/3x3
I0403 15:47:24.473572 16053 net.cpp:425] inception_3a/3x3 <- inception_3a/3x3_reduce
I0403 15:47:24.473603 16053 net.cpp:399] inception_3a/3x3 -> inception_3a/3x3
I0403 15:47:24.475301 16053 net.cpp:141] Setting up inception_3a/3x3
I0403 15:47:24.475332 16053 net.cpp:148] Top shape: 24 128 28 28 (2408448)
I0403 15:47:24.475347 16053 net.cpp:156] Memory required for data: 525042720
I0403 15:47:24.475366 16053 layer_factory.hpp:77] Creating layer inception_3a/relu_3x3
I0403 15:47:24.475389 16053 net.cpp:91] Creating Layer inception_3a/relu_3x3
I0403 15:47:24.475406 16053 net.cpp:425] inception_3a/relu_3x3 <- inception_3a/3x3
I0403 15:47:24.475425 16053 net.cpp:386] inception_3a/relu_3x3 -> inception_3a/3x3 (in-place)
I0403 15:47:24.475723 16053 net.cpp:141] Setting up inception_3a/relu_3x3
I0403 15:47:24.475749 16053 net.cpp:148] Top shape: 24 128 28 28 (2408448)
I0403 15:47:24.475765 16053 net.cpp:156] Memory required for data: 534676512
I0403 15:47:24.475780 16053 layer_factory.hpp:77] Creating layer inception_3a/5x5_reduce
I0403 15:47:24.475803 16053 net.cpp:91] Creating Layer inception_3a/5x5_reduce
I0403 15:47:24.475821 16053 net.cpp:425] inception_3a/5x5_reduce <- pool2/3x3_s2_pool2/3x3_s2_0_split_2
I0403 15:47:24.475842 16053 net.cpp:399] inception_3a/5x5_reduce -> inception_3a/5x5_reduce
I0403 15:47:24.476814 16053 net.cpp:141] Setting up inception_3a/5x5_reduce
I0403 15:47:24.476842 16053 net.cpp:148] Top shape: 24 16 28 28 (301056)
I0403 15:47:24.476857 16053 net.cpp:156] Memory required for data: 535880736
I0403 15:47:24.476876 16053 layer_factory.hpp:77] Creating layer inception_3a/relu_5x5_reduce
I0403 15:47:24.476897 16053 net.cpp:91] Creating Layer inception_3a/relu_5x5_reduce
I0403 15:47:24.476913 16053 net.cpp:425] inception_3a/relu_5x5_reduce <- inception_3a/5x5_reduce
I0403 15:47:24.476932 16053 net.cpp:386] inception_3a/relu_5x5_reduce -> inception_3a/5x5_reduce (in-place)
I0403 15:47:24.477236 16053 net.cpp:141] Setting up inception_3a/relu_5x5_reduce
I0403 15:47:24.477267 16053 net.cpp:148] Top shape: 24 16 28 28 (301056)
I0403 15:47:24.477284 16053 net.cpp:156] Memory required for data: 537084960
I0403 15:47:24.477300 16053 layer_factory.hpp:77] Creating layer inception_3a/5x5
I0403 15:47:24.477321 16053 net.cpp:91] Creating Layer inception_3a/5x5
I0403 15:47:24.477337 16053 net.cpp:425] inception_3a/5x5 <- inception_3a/5x5_reduce
I0403 15:47:24.477358 16053 net.cpp:399] inception_3a/5x5 -> inception_3a/5x5
I0403 15:47:24.478385 16053 net.cpp:141] Setting up inception_3a/5x5
I0403 15:47:24.478412 16053 net.cpp:148] Top shape: 24 32 28 28 (602112)
I0403 15:47:24.478428 16053 net.cpp:156] Memory required for data: 539493408
I0403 15:47:24.478447 16053 layer_factory.hpp:77] Creating layer inception_3a/relu_5x5
I0403 15:47:24.478469 16053 net.cpp:91] Creating Layer inception_3a/relu_5x5
I0403 15:47:24.478487 16053 net.cpp:425] inception_3a/relu_5x5 <- inception_3a/5x5
I0403 15:47:24.478503 16053 net.cpp:386] inception_3a/relu_5x5 -> inception_3a/5x5 (in-place)
I0403 15:47:24.478687 16053 net.cpp:141] Setting up inception_3a/relu_5x5
I0403 15:47:24.478713 16053 net.cpp:148] Top shape: 24 32 28 28 (602112)
I0403 15:47:24.478727 16053 net.cpp:156] Memory required for data: 541901856
I0403 15:47:24.478744 16053 layer_factory.hpp:77] Creating layer inception_3a/pool
I0403 15:47:24.478765 16053 net.cpp:91] Creating Layer inception_3a/pool
I0403 15:47:24.478782 16053 net.cpp:425] inception_3a/pool <- pool2/3x3_s2_pool2/3x3_s2_0_split_3
I0403 15:47:24.478817 16053 net.cpp:399] inception_3a/pool -> inception_3a/pool
I0403 15:47:24.478880 16053 net.cpp:141] Setting up inception_3a/pool
I0403 15:47:24.478904 16053 net.cpp:148] Top shape: 24 192 28 28 (3612672)
I0403 15:47:24.478920 16053 net.cpp:156] Memory required for data: 556352544
I0403 15:47:24.478935 16053 layer_factory.hpp:77] Creating layer inception_3a/pool_proj
I0403 15:47:24.478957 16053 net.cpp:91] Creating Layer inception_3a/pool_proj
I0403 15:47:24.478976 16053 net.cpp:425] inception_3a/pool_proj <- inception_3a/pool
I0403 15:47:24.478997 16053 net.cpp:399] inception_3a/pool_proj -> inception_3a/pool_proj
I0403 15:47:24.479976 16053 net.cpp:141] Setting up inception_3a/pool_proj
I0403 15:47:24.480006 16053 net.cpp:148] Top shape: 24 32 28 28 (602112)
I0403 15:47:24.480023 16053 net.cpp:156] Memory required for data: 558760992
I0403 15:47:24.480046 16053 layer_factory.hpp:77] Creating layer inception_3a/relu_pool_proj
I0403 15:47:24.480068 16053 net.cpp:91] Creating Layer inception_3a/relu_pool_proj
I0403 15:47:24.480087 16053 net.cpp:425] inception_3a/relu_pool_proj <- inception_3a/pool_proj
I0403 15:47:24.480105 16053 net.cpp:386] inception_3a/relu_pool_proj -> inception_3a/pool_proj (in-place)
I0403 15:47:24.480399 16053 net.cpp:141] Setting up inception_3a/relu_pool_proj
I0403 15:47:24.480428 16053 net.cpp:148] Top shape: 24 32 28 28 (602112)
I0403 15:47:24.480444 16053 net.cpp:156] Memory required for data: 561169440
I0403 15:47:24.480460 16053 layer_factory.hpp:77] Creating layer inception_3a/output
I0403 15:47:24.480479 16053 net.cpp:91] Creating Layer inception_3a/output
I0403 15:47:24.480499 16053 net.cpp:425] inception_3a/output <- inception_3a/1x1
I0403 15:47:24.480516 16053 net.cpp:425] inception_3a/output <- inception_3a/3x3
I0403 15:47:24.480535 16053 net.cpp:425] inception_3a/output <- inception_3a/5x5
I0403 15:47:24.480569 16053 net.cpp:425] inception_3a/output <- inception_3a/pool_proj
I0403 15:47:24.480587 16053 net.cpp:399] inception_3a/output -> inception_3a/output
I0403 15:47:24.480633 16053 net.cpp:141] Setting up inception_3a/output
I0403 15:47:24.480660 16053 net.cpp:148] Top shape: 24 256 28 28 (4816896)
I0403 15:47:24.480676 16053 net.cpp:156] Memory required for data: 580437024
I0403 15:47:24.480691 16053 layer_factory.hpp:77] Creating layer inception_3a/output_inception_3a/output_0_split
I0403 15:47:24.480710 16053 net.cpp:91] Creating Layer inception_3a/output_inception_3a/output_0_split
I0403 15:47:24.480725 16053 net.cpp:425] inception_3a/output_inception_3a/output_0_split <- inception_3a/output
I0403 15:47:24.480744 16053 net.cpp:399] inception_3a/output_inception_3a/output_0_split -> inception_3a/output_inception_3a/output_0_split_0
I0403 15:47:24.480765 16053 net.cpp:399] inception_3a/output_inception_3a/output_0_split -> inception_3a/output_inception_3a/output_0_split_1
I0403 15:47:24.480788 16053 net.cpp:399] inception_3a/output_inception_3a/output_0_split -> inception_3a/output_inception_3a/output_0_split_2
I0403 15:47:24.480809 16053 net.cpp:399] inception_3a/output_inception_3a/output_0_split -> inception_3a/output_inception_3a/output_0_split_3
I0403 15:47:24.480886 16053 net.cpp:141] Setting up inception_3a/output_inception_3a/output_0_split
I0403 15:47:24.480909 16053 net.cpp:148] Top shape: 24 256 28 28 (4816896)
I0403 15:47:24.480926 16053 net.cpp:148] Top shape: 24 256 28 28 (4816896)
I0403 15:47:24.480943 16053 net.cpp:148] Top shape: 24 256 28 28 (4816896)
I0403 15:47:24.480958 16053 net.cpp:148] Top shape: 24 256 28 28 (4816896)
I0403 15:47:24.480973 16053 net.cpp:156] Memory required for data: 657507360
I0403 15:47:24.480986 16053 layer_factory.hpp:77] Creating layer inception_3b/1x1
I0403 15:47:24.481009 16053 net.cpp:91] Creating Layer inception_3b/1x1
I0403 15:47:24.481027 16053 net.cpp:425] inception_3b/1x1 <- inception_3a/output_inception_3a/output_0_split_0
I0403 15:47:24.481050 16053 net.cpp:399] inception_3b/1x1 -> inception_3b/1x1
I0403 15:47:24.482209 16053 net.cpp:141] Setting up inception_3b/1x1
I0403 15:47:24.482254 16053 net.cpp:148] Top shape: 24 128 28 28 (2408448)
I0403 15:47:24.482270 16053 net.cpp:156] Memory required for data: 667141152
I0403 15:47:24.482290 16053 layer_factory.hpp:77] Creating layer inception_3b/relu_1x1
I0403 15:47:24.482309 16053 net.cpp:91] Creating Layer inception_3b/relu_1x1
I0403 15:47:24.482326 16053 net.cpp:425] inception_3b/relu_1x1 <- inception_3b/1x1
I0403 15:47:24.482347 16053 net.cpp:386] inception_3b/relu_1x1 -> inception_3b/1x1 (in-place)
I0403 15:47:24.482528 16053 net.cpp:141] Setting up inception_3b/relu_1x1
I0403 15:47:24.482560 16053 net.cpp:148] Top shape: 24 128 28 28 (2408448)
I0403 15:47:24.482578 16053 net.cpp:156] Memory required for data: 676774944
I0403 15:47:24.482594 16053 layer_factory.hpp:77] Creating layer inception_3b/3x3_reduce
I0403 15:47:24.482616 16053 net.cpp:91] Creating Layer inception_3b/3x3_reduce
I0403 15:47:24.482635 16053 net.cpp:425] inception_3b/3x3_reduce <- inception_3a/output_inception_3a/output_0_split_1
I0403 15:47:24.482656 16053 net.cpp:399] inception_3b/3x3_reduce -> inception_3b/3x3_reduce
I0403 15:47:24.483811 16053 net.cpp:141] Setting up inception_3b/3x3_reduce
I0403 15:47:24.483844 16053 net.cpp:148] Top shape: 24 128 28 28 (2408448)
I0403 15:47:24.483861 16053 net.cpp:156] Memory required for data: 686408736
I0403 15:47:24.483880 16053 layer_factory.hpp:77] Creating layer inception_3b/relu_3x3_reduce
I0403 15:47:24.483899 16053 net.cpp:91] Creating Layer inception_3b/relu_3x3_reduce
I0403 15:47:24.483916 16053 net.cpp:425] inception_3b/relu_3x3_reduce <- inception_3b/3x3_reduce
I0403 15:47:24.483935 16053 net.cpp:386] inception_3b/relu_3x3_reduce -> inception_3b/3x3_reduce (in-place)
I0403 15:47:24.484112 16053 net.cpp:141] Setting up inception_3b/relu_3x3_reduce
I0403 15:47:24.484136 16053 net.cpp:148] Top shape: 24 128 28 28 (2408448)
I0403 15:47:24.484151 16053 net.cpp:156] Memory required for data: 696042528
I0403 15:47:24.484166 16053 layer_factory.hpp:77] Creating layer inception_3b/3x3
I0403 15:47:24.484194 16053 net.cpp:91] Creating Layer inception_3b/3x3
I0403 15:47:24.484211 16053 net.cpp:425] inception_3b/3x3 <- inception_3b/3x3_reduce
I0403 15:47:24.484231 16053 net.cpp:399] inception_3b/3x3 -> inception_3b/3x3
I0403 15:47:24.487277 16053 net.cpp:141] Setting up inception_3b/3x3
I0403 15:47:24.487308 16053 net.cpp:148] Top shape: 24 192 28 28 (3612672)
I0403 15:47:24.487324 16053 net.cpp:156] Memory required for data: 710493216
I0403 15:47:24.487344 16053 layer_factory.hpp:77] Creating layer inception_3b/relu_3x3
I0403 15:47:24.487365 16053 net.cpp:91] Creating Layer inception_3b/relu_3x3
I0403 15:47:24.487383 16053 net.cpp:425] inception_3b/relu_3x3 <- inception_3b/3x3
I0403 15:47:24.487401 16053 net.cpp:386] inception_3b/relu_3x3 -> inception_3b/3x3 (in-place)
I0403 15:47:24.487709 16053 net.cpp:141] Setting up inception_3b/relu_3x3
I0403 15:47:24.487735 16053 net.cpp:148] Top shape: 24 192 28 28 (3612672)
I0403 15:47:24.487751 16053 net.cpp:156] Memory required for data: 724943904
I0403 15:47:24.487766 16053 layer_factory.hpp:77] Creating layer inception_3b/5x5_reduce
I0403 15:47:24.487787 16053 net.cpp:91] Creating Layer inception_3b/5x5_reduce
I0403 15:47:24.487805 16053 net.cpp:425] inception_3b/5x5_reduce <- inception_3a/output_inception_3a/output_0_split_2
I0403 15:47:24.487828 16053 net.cpp:399] inception_3b/5x5_reduce -> inception_3b/5x5_reduce
I0403 15:47:24.488842 16053 net.cpp:141] Setting up inception_3b/5x5_reduce
I0403 15:47:24.488870 16053 net.cpp:148] Top shape: 24 32 28 28 (602112)
I0403 15:47:24.488886 16053 net.cpp:156] Memory required for data: 727352352
I0403 15:47:24.488905 16053 layer_factory.hpp:77] Creating layer inception_3b/relu_5x5_reduce
I0403 15:47:24.488926 16053 net.cpp:91] Creating Layer inception_3b/relu_5x5_reduce
I0403 15:47:24.488943 16053 net.cpp:425] inception_3b/relu_5x5_reduce <- inception_3b/5x5_reduce
I0403 15:47:24.488961 16053 net.cpp:386] inception_3b/relu_5x5_reduce -> inception_3b/5x5_reduce (in-place)
I0403 15:47:24.489141 16053 net.cpp:141] Setting up inception_3b/relu_5x5_reduce
I0403 15:47:24.489179 16053 net.cpp:148] Top shape: 24 32 28 28 (602112)
I0403 15:47:24.489195 16053 net.cpp:156] Memory required for data: 729760800
I0403 15:47:24.489209 16053 layer_factory.hpp:77] Creating layer inception_3b/5x5
I0403 15:47:24.489238 16053 net.cpp:91] Creating Layer inception_3b/5x5
I0403 15:47:24.489255 16053 net.cpp:425] inception_3b/5x5 <- inception_3b/5x5_reduce
I0403 15:47:24.489286 16053 net.cpp:399] inception_3b/5x5 -> inception_3b/5x5
I0403 15:47:24.491331 16053 net.cpp:141] Setting up inception_3b/5x5
I0403 15:47:24.491364 16053 net.cpp:148] Top shape: 24 96 28 28 (1806336)
I0403 15:47:24.491379 16053 net.cpp:156] Memory required for data: 736986144
I0403 15:47:24.491399 16053 layer_factory.hpp:77] Creating layer inception_3b/relu_5x5
I0403 15:47:24.491417 16053 net.cpp:91] Creating Layer inception_3b/relu_5x5
I0403 15:47:24.491433 16053 net.cpp:425] inception_3b/relu_5x5 <- inception_3b/5x5
I0403 15:47:24.491453 16053 net.cpp:386] inception_3b/relu_5x5 -> inception_3b/5x5 (in-place)
I0403 15:47:24.491652 16053 net.cpp:141] Setting up inception_3b/relu_5x5
I0403 15:47:24.491678 16053 net.cpp:148] Top shape: 24 96 28 28 (1806336)
I0403 15:47:24.491694 16053 net.cpp:156] Memory required for data: 744211488
I0403 15:47:24.491711 16053 layer_factory.hpp:77] Creating layer inception_3b/pool
I0403 15:47:24.491730 16053 net.cpp:91] Creating Layer inception_3b/pool
I0403 15:47:24.491745 16053 net.cpp:425] inception_3b/pool <- inception_3a/output_inception_3a/output_0_split_3
I0403 15:47:24.491765 16053 net.cpp:399] inception_3b/pool -> inception_3b/pool
I0403 15:47:24.491821 16053 net.cpp:141] Setting up inception_3b/pool
I0403 15:47:24.491844 16053 net.cpp:148] Top shape: 24 256 28 28 (4816896)
I0403 15:47:24.491858 16053 net.cpp:156] Memory required for data: 763479072
I0403 15:47:24.491873 16053 layer_factory.hpp:77] Creating layer inception_3b/pool_proj
I0403 15:47:24.491897 16053 net.cpp:91] Creating Layer inception_3b/pool_proj
I0403 15:47:24.491915 16053 net.cpp:425] inception_3b/pool_proj <- inception_3b/pool
I0403 15:47:24.491936 16053 net.cpp:399] inception_3b/pool_proj -> inception_3b/pool_proj
I0403 15:47:24.493022 16053 net.cpp:141] Setting up inception_3b/pool_proj
I0403 15:47:24.493051 16053 net.cpp:148] Top shape: 24 64 28 28 (1204224)
I0403 15:47:24.493067 16053 net.cpp:156] Memory required for data: 768295968
I0403 15:47:24.493084 16053 layer_factory.hpp:77] Creating layer inception_3b/relu_pool_proj
I0403 15:47:24.493105 16053 net.cpp:91] Creating Layer inception_3b/relu_pool_proj
I0403 15:47:24.493122 16053 net.cpp:425] inception_3b/relu_pool_proj <- inception_3b/pool_proj
I0403 15:47:24.493139 16053 net.cpp:386] inception_3b/relu_pool_proj -> inception_3b/pool_proj (in-place)
I0403 15:47:24.493576 16053 net.cpp:141] Setting up inception_3b/relu_pool_proj
I0403 15:47:24.493602 16053 net.cpp:148] Top shape: 24 64 28 28 (1204224)
I0403 15:47:24.493618 16053 net.cpp:156] Memory required for data: 773112864
I0403 15:47:24.493633 16053 layer_factory.hpp:77] Creating layer inception_3b/output
I0403 15:47:24.493652 16053 net.cpp:91] Creating Layer inception_3b/output
I0403 15:47:24.493669 16053 net.cpp:425] inception_3b/output <- inception_3b/1x1
I0403 15:47:24.493685 16053 net.cpp:425] inception_3b/output <- inception_3b/3x3
I0403 15:47:24.493701 16053 net.cpp:425] inception_3b/output <- inception_3b/5x5
I0403 15:47:24.493717 16053 net.cpp:425] inception_3b/output <- inception_3b/pool_proj
I0403 15:47:24.493734 16053 net.cpp:399] inception_3b/output -> inception_3b/output
I0403 15:47:24.493780 16053 net.cpp:141] Setting up inception_3b/output
I0403 15:47:24.493804 16053 net.cpp:148] Top shape: 24 480 28 28 (9031680)
I0403 15:47:24.493818 16053 net.cpp:156] Memory required for data: 809239584
I0403 15:47:24.493834 16053 layer_factory.hpp:77] Creating layer pool3/3x3_s2
I0403 15:47:24.493850 16053 net.cpp:91] Creating Layer pool3/3x3_s2
I0403 15:47:24.493866 16053 net.cpp:425] pool3/3x3_s2 <- inception_3b/output
I0403 15:47:24.493886 16053 net.cpp:399] pool3/3x3_s2 -> pool3/3x3_s2
I0403 15:47:24.493959 16053 net.cpp:141] Setting up pool3/3x3_s2
I0403 15:47:24.493985 16053 net.cpp:148] Top shape: 24 480 14 14 (2257920)
I0403 15:47:24.494000 16053 net.cpp:156] Memory required for data: 818271264
I0403 15:47:24.494014 16053 layer_factory.hpp:77] Creating layer pool3/3x3_s2_pool3/3x3_s2_0_split
I0403 15:47:24.494031 16053 net.cpp:91] Creating Layer pool3/3x3_s2_pool3/3x3_s2_0_split
I0403 15:47:24.494047 16053 net.cpp:425] pool3/3x3_s2_pool3/3x3_s2_0_split <- pool3/3x3_s2
I0403 15:47:24.494065 16053 net.cpp:399] pool3/3x3_s2_pool3/3x3_s2_0_split -> pool3/3x3_s2_pool3/3x3_s2_0_split_0
I0403 15:47:24.494086 16053 net.cpp:399] pool3/3x3_s2_pool3/3x3_s2_0_split -> pool3/3x3_s2_pool3/3x3_s2_0_split_1
I0403 15:47:24.494107 16053 net.cpp:399] pool3/3x3_s2_pool3/3x3_s2_0_split -> pool3/3x3_s2_pool3/3x3_s2_0_split_2
I0403 15:47:24.494127 16053 net.cpp:399] pool3/3x3_s2_pool3/3x3_s2_0_split -> pool3/3x3_s2_pool3/3x3_s2_0_split_3
I0403 15:47:24.494205 16053 net.cpp:141] Setting up pool3/3x3_s2_pool3/3x3_s2_0_split
I0403 15:47:24.494228 16053 net.cpp:148] Top shape: 24 480 14 14 (2257920)
I0403 15:47:24.494245 16053 net.cpp:148] Top shape: 24 480 14 14 (2257920)
I0403 15:47:24.494261 16053 net.cpp:148] Top shape: 24 480 14 14 (2257920)
I0403 15:47:24.494277 16053 net.cpp:148] Top shape: 24 480 14 14 (2257920)
I0403 15:47:24.494292 16053 net.cpp:156] Memory required for data: 854397984
I0403 15:47:24.494307 16053 layer_factory.hpp:77] Creating layer inception_4a/1x1
I0403 15:47:24.494329 16053 net.cpp:91] Creating Layer inception_4a/1x1
I0403 15:47:24.494348 16053 net.cpp:425] inception_4a/1x1 <- pool3/3x3_s2_pool3/3x3_s2_0_split_0
I0403 15:47:24.494366 16053 net.cpp:399] inception_4a/1x1 -> inception_4a/1x1
I0403 15:47:24.495965 16053 net.cpp:141] Setting up inception_4a/1x1
I0403 15:47:24.495995 16053 net.cpp:148] Top shape: 24 192 14 14 (903168)
I0403 15:47:24.496011 16053 net.cpp:156] Memory required for data: 858010656
I0403 15:47:24.496029 16053 layer_factory.hpp:77] Creating layer inception_4a/relu_1x1
I0403 15:47:24.496047 16053 net.cpp:91] Creating Layer inception_4a/relu_1x1
I0403 15:47:24.496062 16053 net.cpp:425] inception_4a/relu_1x1 <- inception_4a/1x1
I0403 15:47:24.496083 16053 net.cpp:386] inception_4a/relu_1x1 -> inception_4a/1x1 (in-place)
I0403 15:47:24.496256 16053 net.cpp:141] Setting up inception_4a/relu_1x1
I0403 15:47:24.496281 16053 net.cpp:148] Top shape: 24 192 14 14 (903168)
I0403 15:47:24.496295 16053 net.cpp:156] Memory required for data: 861623328
I0403 15:47:24.496310 16053 layer_factory.hpp:77] Creating layer inception_4a/3x3_reduce
I0403 15:47:24.496332 16053 net.cpp:91] Creating Layer inception_4a/3x3_reduce
I0403 15:47:24.496350 16053 net.cpp:425] inception_4a/3x3_reduce <- pool3/3x3_s2_pool3/3x3_s2_0_split_1
I0403 15:47:24.496373 16053 net.cpp:399] inception_4a/3x3_reduce -> inception_4a/3x3_reduce
I0403 15:47:24.497678 16053 net.cpp:141] Setting up inception_4a/3x3_reduce
I0403 15:47:24.497709 16053 net.cpp:148] Top shape: 24 96 14 14 (451584)
I0403 15:47:24.497725 16053 net.cpp:156] Memory required for data: 863429664
I0403 15:47:24.497748 16053 layer_factory.hpp:77] Creating layer inception_4a/relu_3x3_reduce
I0403 15:47:24.497769 16053 net.cpp:91] Creating Layer inception_4a/relu_3x3_reduce
I0403 15:47:24.497786 16053 net.cpp:425] inception_4a/relu_3x3_reduce <- inception_4a/3x3_reduce
I0403 15:47:24.497803 16053 net.cpp:386] inception_4a/relu_3x3_reduce -> inception_4a/3x3_reduce (in-place)
I0403 15:47:24.497983 16053 net.cpp:141] Setting up inception_4a/relu_3x3_reduce
I0403 15:47:24.498008 16053 net.cpp:148] Top shape: 24 96 14 14 (451584)
I0403 15:47:24.498023 16053 net.cpp:156] Memory required for data: 865236000
I0403 15:47:24.498037 16053 layer_factory.hpp:77] Creating layer inception_4a/3x3
I0403 15:47:24.498059 16053 net.cpp:91] Creating Layer inception_4a/3x3
I0403 15:47:24.498075 16053 net.cpp:425] inception_4a/3x3 <- inception_4a/3x3_reduce
I0403 15:47:24.498096 16053 net.cpp:399] inception_4a/3x3 -> inception_4a/3x3
I0403 15:47:24.500809 16053 net.cpp:141] Setting up inception_4a/3x3
I0403 15:47:24.500840 16053 net.cpp:148] Top shape: 24 208 14 14 (978432)
I0403 15:47:24.500856 16053 net.cpp:156] Memory required for data: 869149728
I0403 15:47:24.500875 16053 layer_factory.hpp:77] Creating layer inception_4a/relu_3x3
I0403 15:47:24.500892 16053 net.cpp:91] Creating Layer inception_4a/relu_3x3
I0403 15:47:24.500908 16053 net.cpp:425] inception_4a/relu_3x3 <- inception_4a/3x3
I0403 15:47:24.500927 16053 net.cpp:386] inception_4a/relu_3x3 -> inception_4a/3x3 (in-place)
I0403 15:47:24.501209 16053 net.cpp:141] Setting up inception_4a/relu_3x3
I0403 15:47:24.501237 16053 net.cpp:148] Top shape: 24 208 14 14 (978432)
I0403 15:47:24.501253 16053 net.cpp:156] Memory required for data: 873063456
I0403 15:47:24.501268 16053 layer_factory.hpp:77] Creating layer inception_4a/5x5_reduce
I0403 15:47:24.501291 16053 net.cpp:91] Creating Layer inception_4a/5x5_reduce
I0403 15:47:24.501308 16053 net.cpp:425] inception_4a/5x5_reduce <- pool3/3x3_s2_pool3/3x3_s2_0_split_2
I0403 15:47:24.501328 16053 net.cpp:399] inception_4a/5x5_reduce -> inception_4a/5x5_reduce
I0403 15:47:24.502336 16053 net.cpp:141] Setting up inception_4a/5x5_reduce
I0403 15:47:24.502362 16053 net.cpp:148] Top shape: 24 16 14 14 (75264)
I0403 15:47:24.502377 16053 net.cpp:156] Memory required for data: 873364512
I0403 15:47:24.502395 16053 layer_factory.hpp:77] Creating layer inception_4a/relu_5x5_reduce
I0403 15:47:24.502415 16053 net.cpp:91] Creating Layer inception_4a/relu_5x5_reduce
I0403 15:47:24.502431 16053 net.cpp:425] inception_4a/relu_5x5_reduce <- inception_4a/5x5_reduce
I0403 15:47:24.502449 16053 net.cpp:386] inception_4a/relu_5x5_reduce -> inception_4a/5x5_reduce (in-place)
I0403 15:47:24.502626 16053 net.cpp:141] Setting up inception_4a/relu_5x5_reduce
I0403 15:47:24.502651 16053 net.cpp:148] Top shape: 24 16 14 14 (75264)
I0403 15:47:24.502666 16053 net.cpp:156] Memory required for data: 873665568
I0403 15:47:24.502681 16053 layer_factory.hpp:77] Creating layer inception_4a/5x5
I0403 15:47:24.502703 16053 net.cpp:91] Creating Layer inception_4a/5x5
I0403 15:47:24.502720 16053 net.cpp:425] inception_4a/5x5 <- inception_4a/5x5_reduce
I0403 15:47:24.502742 16053 net.cpp:399] inception_4a/5x5 -> inception_4a/5x5
I0403 15:47:24.503820 16053 net.cpp:141] Setting up inception_4a/5x5
I0403 15:47:24.503847 16053 net.cpp:148] Top shape: 24 48 14 14 (225792)
I0403 15:47:24.503864 16053 net.cpp:156] Memory required for data: 874568736
I0403 15:47:24.503880 16053 layer_factory.hpp:77] Creating layer inception_4a/relu_5x5
I0403 15:47:24.503901 16053 net.cpp:91] Creating Layer inception_4a/relu_5x5
I0403 15:47:24.503917 16053 net.cpp:425] inception_4a/relu_5x5 <- inception_4a/5x5
I0403 15:47:24.503934 16053 net.cpp:386] inception_4a/relu_5x5 -> inception_4a/5x5 (in-place)
I0403 15:47:24.504112 16053 net.cpp:141] Setting up inception_4a/relu_5x5
I0403 15:47:24.504139 16053 net.cpp:148] Top shape: 24 48 14 14 (225792)
I0403 15:47:24.504155 16053 net.cpp:156] Memory required for data: 875471904
I0403 15:47:24.504170 16053 layer_factory.hpp:77] Creating layer inception_4a/pool
I0403 15:47:24.504187 16053 net.cpp:91] Creating Layer inception_4a/pool
I0403 15:47:24.504202 16053 net.cpp:425] inception_4a/pool <- pool3/3x3_s2_pool3/3x3_s2_0_split_3
I0403 15:47:24.504222 16053 net.cpp:399] inception_4a/pool -> inception_4a/pool
I0403 15:47:24.504282 16053 net.cpp:141] Setting up inception_4a/pool
I0403 15:47:24.504307 16053 net.cpp:148] Top shape: 24 480 14 14 (2257920)
I0403 15:47:24.504322 16053 net.cpp:156] Memory required for data: 884503584
I0403 15:47:24.504335 16053 layer_factory.hpp:77] Creating layer inception_4a/pool_proj
I0403 15:47:24.504359 16053 net.cpp:91] Creating Layer inception_4a/pool_proj
I0403 15:47:24.504375 16053 net.cpp:425] inception_4a/pool_proj <- inception_4a/pool
I0403 15:47:24.504395 16053 net.cpp:399] inception_4a/pool_proj -> inception_4a/pool_proj
I0403 15:47:24.505559 16053 net.cpp:141] Setting up inception_4a/pool_proj
I0403 15:47:24.505591 16053 net.cpp:148] Top shape: 24 64 14 14 (301056)
I0403 15:47:24.505621 16053 net.cpp:156] Memory required for data: 885707808
I0403 15:47:24.505640 16053 layer_factory.hpp:77] Creating layer inception_4a/relu_pool_proj
I0403 15:47:24.505658 16053 net.cpp:91] Creating Layer inception_4a/relu_pool_proj
I0403 15:47:24.505674 16053 net.cpp:425] inception_4a/relu_pool_proj <- inception_4a/pool_proj
I0403 15:47:24.505692 16053 net.cpp:386] inception_4a/relu_pool_proj -> inception_4a/pool_proj (in-place)
I0403 15:47:24.505985 16053 net.cpp:141] Setting up inception_4a/relu_pool_proj
I0403 15:47:24.506013 16053 net.cpp:148] Top shape: 24 64 14 14 (301056)
I0403 15:47:24.506031 16053 net.cpp:156] Memory required for data: 886912032
I0403 15:47:24.506045 16053 layer_factory.hpp:77] Creating layer inception_4a/output
I0403 15:47:24.506063 16053 net.cpp:91] Creating Layer inception_4a/output
I0403 15:47:24.506079 16053 net.cpp:425] inception_4a/output <- inception_4a/1x1
I0403 15:47:24.506096 16053 net.cpp:425] inception_4a/output <- inception_4a/3x3
I0403 15:47:24.506113 16053 net.cpp:425] inception_4a/output <- inception_4a/5x5
I0403 15:47:24.506129 16053 net.cpp:425] inception_4a/output <- inception_4a/pool_proj
I0403 15:47:24.506145 16053 net.cpp:399] inception_4a/output -> inception_4a/output
I0403 15:47:24.506192 16053 net.cpp:141] Setting up inception_4a/output
I0403 15:47:24.506227 16053 net.cpp:148] Top shape: 24 512 14 14 (2408448)
I0403 15:47:24.506242 16053 net.cpp:156] Memory required for data: 896545824
I0403 15:47:24.506255 16053 layer_factory.hpp:77] Creating layer inception_4a/output_inception_4a/output_0_split
I0403 15:47:24.506275 16053 net.cpp:91] Creating Layer inception_4a/output_inception_4a/output_0_split
I0403 15:47:24.506294 16053 net.cpp:425] inception_4a/output_inception_4a/output_0_split <- inception_4a/output
I0403 15:47:24.506311 16053 net.cpp:399] inception_4a/output_inception_4a/output_0_split -> inception_4a/output_inception_4a/output_0_split_0
I0403 15:47:24.506331 16053 net.cpp:399] inception_4a/output_inception_4a/output_0_split -> inception_4a/output_inception_4a/output_0_split_1
I0403 15:47:24.506351 16053 net.cpp:399] inception_4a/output_inception_4a/output_0_split -> inception_4a/output_inception_4a/output_0_split_2
I0403 15:47:24.506371 16053 net.cpp:399] inception_4a/output_inception_4a/output_0_split -> inception_4a/output_inception_4a/output_0_split_3
I0403 15:47:24.506393 16053 net.cpp:399] inception_4a/output_inception_4a/output_0_split -> inception_4a/output_inception_4a/output_0_split_4
I0403 15:47:24.506486 16053 net.cpp:141] Setting up inception_4a/output_inception_4a/output_0_split
I0403 15:47:24.506510 16053 net.cpp:148] Top shape: 24 512 14 14 (2408448)
I0403 15:47:24.506526 16053 net.cpp:148] Top shape: 24 512 14 14 (2408448)
I0403 15:47:24.506546 16053 net.cpp:148] Top shape: 24 512 14 14 (2408448)
I0403 15:47:24.506563 16053 net.cpp:148] Top shape: 24 512 14 14 (2408448)
I0403 15:47:24.506578 16053 net.cpp:148] Top shape: 24 512 14 14 (2408448)
I0403 15:47:24.506592 16053 net.cpp:156] Memory required for data: 944714784
I0403 15:47:24.506605 16053 layer_factory.hpp:77] Creating layer loss1/ave_pool
I0403 15:47:24.506623 16053 net.cpp:91] Creating Layer loss1/ave_pool
I0403 15:47:24.506640 16053 net.cpp:425] loss1/ave_pool <- inception_4a/output_inception_4a/output_0_split_0
I0403 15:47:24.506659 16053 net.cpp:399] loss1/ave_pool -> loss1/ave_pool
I0403 15:47:24.506862 16053 net.cpp:141] Setting up loss1/ave_pool
I0403 15:47:24.506891 16053 net.cpp:148] Top shape: 24 512 4 4 (196608)
I0403 15:47:24.506907 16053 net.cpp:156] Memory required for data: 945501216
I0403 15:47:24.506922 16053 layer_factory.hpp:77] Creating layer loss1/conv
I0403 15:47:24.506943 16053 net.cpp:91] Creating Layer loss1/conv
I0403 15:47:24.506960 16053 net.cpp:425] loss1/conv <- loss1/ave_pool
I0403 15:47:24.506978 16053 net.cpp:399] loss1/conv -> loss1/conv
I0403 15:47:24.508447 16053 net.cpp:141] Setting up loss1/conv
I0403 15:47:24.508476 16053 net.cpp:148] Top shape: 24 128 4 4 (49152)
I0403 15:47:24.508492 16053 net.cpp:156] Memory required for data: 945697824
I0403 15:47:24.508527 16053 layer_factory.hpp:77] Creating layer loss1/relu_conv
I0403 15:47:24.508551 16053 net.cpp:91] Creating Layer loss1/relu_conv
I0403 15:47:24.508569 16053 net.cpp:425] loss1/relu_conv <- loss1/conv
I0403 15:47:24.508589 16053 net.cpp:386] loss1/relu_conv -> loss1/conv (in-place)
I0403 15:47:24.508877 16053 net.cpp:141] Setting up loss1/relu_conv
I0403 15:47:24.508903 16053 net.cpp:148] Top shape: 24 128 4 4 (49152)
I0403 15:47:24.508919 16053 net.cpp:156] Memory required for data: 945894432
I0403 15:47:24.508934 16053 layer_factory.hpp:77] Creating layer loss1/fc
I0403 15:47:24.508958 16053 net.cpp:91] Creating Layer loss1/fc
I0403 15:47:24.508975 16053 net.cpp:425] loss1/fc <- loss1/conv
I0403 15:47:24.508996 16053 net.cpp:399] loss1/fc -> loss1/fc
I0403 15:47:24.526805 16053 net.cpp:141] Setting up loss1/fc
I0403 15:47:24.526836 16053 net.cpp:148] Top shape: 24 1024 (24576)
I0403 15:47:24.526851 16053 net.cpp:156] Memory required for data: 945992736
I0403 15:47:24.526870 16053 layer_factory.hpp:77] Creating layer loss1/relu_fc
I0403 15:47:24.526888 16053 net.cpp:91] Creating Layer loss1/relu_fc
I0403 15:47:24.526906 16053 net.cpp:425] loss1/relu_fc <- loss1/fc
I0403 15:47:24.526921 16053 net.cpp:386] loss1/relu_fc -> loss1/fc (in-place)
I0403 15:47:24.527106 16053 net.cpp:141] Setting up loss1/relu_fc
I0403 15:47:24.527129 16053 net.cpp:148] Top shape: 24 1024 (24576)
I0403 15:47:24.527144 16053 net.cpp:156] Memory required for data: 946091040
I0403 15:47:24.527158 16053 layer_factory.hpp:77] Creating layer loss1/drop_fc
I0403 15:47:24.527184 16053 net.cpp:91] Creating Layer loss1/drop_fc
I0403 15:47:24.527201 16053 net.cpp:425] loss1/drop_fc <- loss1/fc
I0403 15:47:24.527220 16053 net.cpp:386] loss1/drop_fc -> loss1/fc (in-place)
I0403 15:47:24.527271 16053 net.cpp:141] Setting up loss1/drop_fc
I0403 15:47:24.527294 16053 net.cpp:148] Top shape: 24 1024 (24576)
I0403 15:47:24.527309 16053 net.cpp:156] Memory required for data: 946189344
I0403 15:47:24.527323 16053 layer_factory.hpp:77] Creating layer loss1/classifier_plantvillage
I0403 15:47:24.527345 16053 net.cpp:91] Creating Layer loss1/classifier_plantvillage
I0403 15:47:24.527361 16053 net.cpp:425] loss1/classifier_plantvillage <- loss1/fc
I0403 15:47:24.527381 16053 net.cpp:399] loss1/classifier_plantvillage -> loss1/classifier_plantvillage
I0403 15:47:24.528275 16053 net.cpp:141] Setting up loss1/classifier_plantvillage
I0403 15:47:24.528306 16053 net.cpp:148] Top shape: 24 38 (912)
I0403 15:47:24.528321 16053 net.cpp:156] Memory required for data: 946192992
I0403 15:47:24.528338 16053 layer_factory.hpp:77] Creating layer loss1/classifier_plantvillage_loss1/classifier_plantvillage_0_split
I0403 15:47:24.528355 16053 net.cpp:91] Creating Layer loss1/classifier_plantvillage_loss1/classifier_plantvillage_0_split
I0403 15:47:24.528372 16053 net.cpp:425] loss1/classifier_plantvillage_loss1/classifier_plantvillage_0_split <- loss1/classifier_plantvillage
I0403 15:47:24.528390 16053 net.cpp:399] loss1/classifier_plantvillage_loss1/classifier_plantvillage_0_split -> loss1/classifier_plantvillage_loss1/classifier_plantvillage_0_split_0
I0403 15:47:24.528410 16053 net.cpp:399] loss1/classifier_plantvillage_loss1/classifier_plantvillage_0_split -> loss1/classifier_plantvillage_loss1/classifier_plantvillage_0_split_1
I0403 15:47:24.528430 16053 net.cpp:399] loss1/classifier_plantvillage_loss1/classifier_plantvillage_0_split -> loss1/classifier_plantvillage_loss1/classifier_plantvillage_0_split_2
I0403 15:47:24.528493 16053 net.cpp:141] Setting up loss1/classifier_plantvillage_loss1/classifier_plantvillage_0_split
I0403 15:47:24.528515 16053 net.cpp:148] Top shape: 24 38 (912)
I0403 15:47:24.528530 16053 net.cpp:148] Top shape: 24 38 (912)
I0403 15:47:24.528550 16053 net.cpp:148] Top shape: 24 38 (912)
I0403 15:47:24.528564 16053 net.cpp:156] Memory required for data: 946203936
I0403 15:47:24.528578 16053 layer_factory.hpp:77] Creating layer inception_4b/1x1
I0403 15:47:24.528600 16053 net.cpp:91] Creating Layer inception_4b/1x1
I0403 15:47:24.528631 16053 net.cpp:425] inception_4b/1x1 <- inception_4a/output_inception_4a/output_0_split_1
I0403 15:47:24.528650 16053 net.cpp:399] inception_4b/1x1 -> inception_4b/1x1
I0403 15:47:24.530246 16053 net.cpp:141] Setting up inception_4b/1x1
I0403 15:47:24.530272 16053 net.cpp:148] Top shape: 24 160 14 14 (752640)
I0403 15:47:24.530287 16053 net.cpp:156] Memory required for data: 949214496
I0403 15:47:24.530304 16053 layer_factory.hpp:77] Creating layer inception_4b/relu_1x1
I0403 15:47:24.530323 16053 net.cpp:91] Creating Layer inception_4b/relu_1x1
I0403 15:47:24.530340 16053 net.cpp:425] inception_4b/relu_1x1 <- inception_4b/1x1
I0403 15:47:24.530356 16053 net.cpp:386] inception_4b/relu_1x1 -> inception_4b/1x1 (in-place)
I0403 15:47:24.530529 16053 net.cpp:141] Setting up inception_4b/relu_1x1
I0403 15:47:24.530558 16053 net.cpp:148] Top shape: 24 160 14 14 (752640)
I0403 15:47:24.530573 16053 net.cpp:156] Memory required for data: 952225056
I0403 15:47:24.530586 16053 layer_factory.hpp:77] Creating layer inception_4b/3x3_reduce
I0403 15:47:24.530611 16053 net.cpp:91] Creating Layer inception_4b/3x3_reduce
I0403 15:47:24.530628 16053 net.cpp:425] inception_4b/3x3_reduce <- inception_4a/output_inception_4a/output_0_split_2
I0403 15:47:24.530649 16053 net.cpp:399] inception_4b/3x3_reduce -> inception_4b/3x3_reduce
I0403 15:47:24.531952 16053 net.cpp:141] Setting up inception_4b/3x3_reduce
I0403 15:47:24.531978 16053 net.cpp:148] Top shape: 24 112 14 14 (526848)
I0403 15:47:24.531993 16053 net.cpp:156] Memory required for data: 954332448
I0403 15:47:24.532011 16053 layer_factory.hpp:77] Creating layer inception_4b/relu_3x3_reduce
I0403 15:47:24.532029 16053 net.cpp:91] Creating Layer inception_4b/relu_3x3_reduce
I0403 15:47:24.532047 16053 net.cpp:425] inception_4b/relu_3x3_reduce <- inception_4b/3x3_reduce
I0403 15:47:24.532063 16053 net.cpp:386] inception_4b/relu_3x3_reduce -> inception_4b/3x3_reduce (in-place)
I0403 15:47:24.532337 16053 net.cpp:141] Setting up inception_4b/relu_3x3_reduce
I0403 15:47:24.532362 16053 net.cpp:148] Top shape: 24 112 14 14 (526848)
I0403 15:47:24.532377 16053 net.cpp:156] Memory required for data: 956439840
I0403 15:47:24.532390 16053 layer_factory.hpp:77] Creating layer inception_4b/3x3
I0403 15:47:24.532413 16053 net.cpp:91] Creating Layer inception_4b/3x3
I0403 15:47:24.532429 16053 net.cpp:425] inception_4b/3x3 <- inception_4b/3x3_reduce
I0403 15:47:24.532449 16053 net.cpp:399] inception_4b/3x3 -> inception_4b/3x3
I0403 15:47:24.535389 16053 net.cpp:141] Setting up inception_4b/3x3
I0403 15:47:24.535419 16053 net.cpp:148] Top shape: 24 224 14 14 (1053696)
I0403 15:47:24.535435 16053 net.cpp:156] Memory required for data: 960654624
I0403 15:47:24.535454 16053 layer_factory.hpp:77] Creating layer inception_4b/relu_3x3
I0403 15:47:24.535471 16053 net.cpp:91] Creating Layer inception_4b/relu_3x3
I0403 15:47:24.535487 16053 net.cpp:425] inception_4b/relu_3x3 <- inception_4b/3x3
I0403 15:47:24.535506 16053 net.cpp:386] inception_4b/relu_3x3 -> inception_4b/3x3 (in-place)
I0403 15:47:24.535687 16053 net.cpp:141] Setting up inception_4b/relu_3x3
I0403 15:47:24.535712 16053 net.cpp:148] Top shape: 24 224 14 14 (1053696)
I0403 15:47:24.535727 16053 net.cpp:156] Memory required for data: 964869408
I0403 15:47:24.535740 16053 layer_factory.hpp:77] Creating layer inception_4b/5x5_reduce
I0403 15:47:24.535761 16053 net.cpp:91] Creating Layer inception_4b/5x5_reduce
I0403 15:47:24.535778 16053 net.cpp:425] inception_4b/5x5_reduce <- inception_4a/output_inception_4a/output_0_split_3
I0403 15:47:24.535800 16053 net.cpp:399] inception_4b/5x5_reduce -> inception_4b/5x5_reduce
I0403 15:47:24.536846 16053 net.cpp:141] Setting up inception_4b/5x5_reduce
I0403 15:47:24.536873 16053 net.cpp:148] Top shape: 24 24 14 14 (112896)
I0403 15:47:24.536888 16053 net.cpp:156] Memory required for data: 965320992
I0403 15:47:24.536906 16053 layer_factory.hpp:77] Creating layer inception_4b/relu_5x5_reduce
I0403 15:47:24.536926 16053 net.cpp:91] Creating Layer inception_4b/relu_5x5_reduce
I0403 15:47:24.536954 16053 net.cpp:425] inception_4b/relu_5x5_reduce <- inception_4b/5x5_reduce
I0403 15:47:24.536972 16053 net.cpp:386] inception_4b/relu_5x5_reduce -> inception_4b/5x5_reduce (in-place)
I0403 15:47:24.537145 16053 net.cpp:141] Setting up inception_4b/relu_5x5_reduce
I0403 15:47:24.537173 16053 net.cpp:148] Top shape: 24 24 14 14 (112896)
I0403 15:47:24.537188 16053 net.cpp:156] Memory required for data: 965772576
I0403 15:47:24.537202 16053 layer_factory.hpp:77] Creating layer inception_4b/5x5
I0403 15:47:24.537221 16053 net.cpp:91] Creating Layer inception_4b/5x5
I0403 15:47:24.537237 16053 net.cpp:425] inception_4b/5x5 <- inception_4b/5x5_reduce
I0403 15:47:24.537257 16053 net.cpp:399] inception_4b/5x5 -> inception_4b/5x5
I0403 15:47:24.538449 16053 net.cpp:141] Setting up inception_4b/5x5
I0403 15:47:24.538475 16053 net.cpp:148] Top shape: 24 64 14 14 (301056)
I0403 15:47:24.538491 16053 net.cpp:156] Memory required for data: 966976800
I0403 15:47:24.538507 16053 layer_factory.hpp:77] Creating layer inception_4b/relu_5x5
I0403 15:47:24.538527 16053 net.cpp:91] Creating Layer inception_4b/relu_5x5
I0403 15:47:24.538547 16053 net.cpp:425] inception_4b/relu_5x5 <- inception_4b/5x5
I0403 15:47:24.538564 16053 net.cpp:386] inception_4b/relu_5x5 -> inception_4b/5x5 (in-place)
I0403 15:47:24.538842 16053 net.cpp:141] Setting up inception_4b/relu_5x5
I0403 15:47:24.538867 16053 net.cpp:148] Top shape: 24 64 14 14 (301056)
I0403 15:47:24.538882 16053 net.cpp:156] Memory required for data: 968181024
I0403 15:47:24.538895 16053 layer_factory.hpp:77] Creating layer inception_4b/pool
I0403 15:47:24.538913 16053 net.cpp:91] Creating Layer inception_4b/pool
I0403 15:47:24.538928 16053 net.cpp:425] inception_4b/pool <- inception_4a/output_inception_4a/output_0_split_4
I0403 15:47:24.538947 16053 net.cpp:399] inception_4b/pool -> inception_4b/pool
I0403 15:47:24.539008 16053 net.cpp:141] Setting up inception_4b/pool
I0403 15:47:24.539032 16053 net.cpp:148] Top shape: 24 512 14 14 (2408448)
I0403 15:47:24.539047 16053 net.cpp:156] Memory required for data: 977814816
I0403 15:47:24.539060 16053 layer_factory.hpp:77] Creating layer inception_4b/pool_proj
I0403 15:47:24.539082 16053 net.cpp:91] Creating Layer inception_4b/pool_proj
I0403 15:47:24.539098 16053 net.cpp:425] inception_4b/pool_proj <- inception_4b/pool
I0403 15:47:24.539115 16053 net.cpp:399] inception_4b/pool_proj -> inception_4b/pool_proj
I0403 15:47:24.540277 16053 net.cpp:141] Setting up inception_4b/pool_proj
I0403 15:47:24.540305 16053 net.cpp:148] Top shape: 24 64 14 14 (301056)
I0403 15:47:24.540320 16053 net.cpp:156] Memory required for data: 979019040
I0403 15:47:24.540338 16053 layer_factory.hpp:77] Creating layer inception_4b/relu_pool_proj
I0403 15:47:24.540359 16053 net.cpp:91] Creating Layer inception_4b/relu_pool_proj
I0403 15:47:24.540375 16053 net.cpp:425] inception_4b/relu_pool_proj <- inception_4b/pool_proj
I0403 15:47:24.540393 16053 net.cpp:386] inception_4b/relu_pool_proj -> inception_4b/pool_proj (in-place)
I0403 15:47:24.540571 16053 net.cpp:141] Setting up inception_4b/relu_pool_proj
I0403 15:47:24.540596 16053 net.cpp:148] Top shape: 24 64 14 14 (301056)
I0403 15:47:24.540609 16053 net.cpp:156] Memory required for data: 980223264
I0403 15:47:24.540623 16053 layer_factory.hpp:77] Creating layer inception_4b/output
I0403 15:47:24.540642 16053 net.cpp:91] Creating Layer inception_4b/output
I0403 15:47:24.540658 16053 net.cpp:425] inception_4b/output <- inception_4b/1x1
I0403 15:47:24.540674 16053 net.cpp:425] inception_4b/output <- inception_4b/3x3
I0403 15:47:24.540689 16053 net.cpp:425] inception_4b/output <- inception_4b/5x5
I0403 15:47:24.540704 16053 net.cpp:425] inception_4b/output <- inception_4b/pool_proj
I0403 15:47:24.540720 16053 net.cpp:399] inception_4b/output -> inception_4b/output
I0403 15:47:24.540766 16053 net.cpp:141] Setting up inception_4b/output
I0403 15:47:24.540788 16053 net.cpp:148] Top shape: 24 512 14 14 (2408448)
I0403 15:47:24.540802 16053 net.cpp:156] Memory required for data: 989857056
I0403 15:47:24.540830 16053 layer_factory.hpp:77] Creating layer inception_4b/output_inception_4b/output_0_split
I0403 15:47:24.540848 16053 net.cpp:91] Creating Layer inception_4b/output_inception_4b/output_0_split
I0403 15:47:24.540863 16053 net.cpp:425] inception_4b/output_inception_4b/output_0_split <- inception_4b/output
I0403 15:47:24.540881 16053 net.cpp:399] inception_4b/output_inception_4b/output_0_split -> inception_4b/output_inception_4b/output_0_split_0
I0403 15:47:24.540902 16053 net.cpp:399] inception_4b/output_inception_4b/output_0_split -> inception_4b/output_inception_4b/output_0_split_1
I0403 15:47:24.540922 16053 net.cpp:399] inception_4b/output_inception_4b/output_0_split -> inception_4b/output_inception_4b/output_0_split_2
I0403 15:47:24.540941 16053 net.cpp:399] inception_4b/output_inception_4b/output_0_split -> inception_4b/output_inception_4b/output_0_split_3
I0403 15:47:24.541023 16053 net.cpp:141] Setting up inception_4b/output_inception_4b/output_0_split
I0403 15:47:24.541048 16053 net.cpp:148] Top shape: 24 512 14 14 (2408448)
I0403 15:47:24.541064 16053 net.cpp:148] Top shape: 24 512 14 14 (2408448)
I0403 15:47:24.541079 16053 net.cpp:148] Top shape: 24 512 14 14 (2408448)
I0403 15:47:24.541093 16053 net.cpp:148] Top shape: 24 512 14 14 (2408448)
I0403 15:47:24.541106 16053 net.cpp:156] Memory required for data: 1028392224
I0403 15:47:24.541121 16053 layer_factory.hpp:77] Creating layer inception_4c/1x1
I0403 15:47:24.541141 16053 net.cpp:91] Creating Layer inception_4c/1x1
I0403 15:47:24.541157 16053 net.cpp:425] inception_4c/1x1 <- inception_4b/output_inception_4b/output_0_split_0
I0403 15:47:24.541177 16053 net.cpp:399] inception_4c/1x1 -> inception_4c/1x1
I0403 15:47:24.542562 16053 net.cpp:141] Setting up inception_4c/1x1
I0403 15:47:24.542590 16053 net.cpp:148] Top shape: 24 128 14 14 (602112)
I0403 15:47:24.542605 16053 net.cpp:156] Memory required for data: 1030800672
I0403 15:47:24.542623 16053 layer_factory.hpp:77] Creating layer inception_4c/relu_1x1
I0403 15:47:24.542642 16053 net.cpp:91] Creating Layer inception_4c/relu_1x1
I0403 15:47:24.542659 16053 net.cpp:425] inception_4c/relu_1x1 <- inception_4c/1x1
I0403 15:47:24.542676 16053 net.cpp:386] inception_4c/relu_1x1 -> inception_4c/1x1 (in-place)
I0403 15:47:24.542851 16053 net.cpp:141] Setting up inception_4c/relu_1x1
I0403 15:47:24.542875 16053 net.cpp:148] Top shape: 24 128 14 14 (602112)
I0403 15:47:24.542888 16053 net.cpp:156] Memory required for data: 1033209120
I0403 15:47:24.542902 16053 layer_factory.hpp:77] Creating layer inception_4c/3x3_reduce
I0403 15:47:24.542923 16053 net.cpp:91] Creating Layer inception_4c/3x3_reduce
I0403 15:47:24.542942 16053 net.cpp:425] inception_4c/3x3_reduce <- inception_4b/output_inception_4b/output_0_split_1
I0403 15:47:24.542961 16053 net.cpp:399] inception_4c/3x3_reduce -> inception_4c/3x3_reduce
I0403 15:47:24.544889 16053 net.cpp:141] Setting up inception_4c/3x3_reduce
I0403 15:47:24.544919 16053 net.cpp:148] Top shape: 24 128 14 14 (602112)
I0403 15:47:24.544934 16053 net.cpp:156] Memory required for data: 1035617568
I0403 15:47:24.544952 16053 layer_factory.hpp:77] Creating layer inception_4c/relu_3x3_reduce
I0403 15:47:24.544970 16053 net.cpp:91] Creating Layer inception_4c/relu_3x3_reduce
I0403 15:47:24.544986 16053 net.cpp:425] inception_4c/relu_3x3_reduce <- inception_4c/3x3_reduce
I0403 15:47:24.545006 16053 net.cpp:386] inception_4c/relu_3x3_reduce -> inception_4c/3x3_reduce (in-place)
I0403 15:47:24.545300 16053 net.cpp:141] Setting up inception_4c/relu_3x3_reduce
I0403 15:47:24.545326 16053 net.cpp:148] Top shape: 24 128 14 14 (602112)
I0403 15:47:24.545341 16053 net.cpp:156] Memory required for data: 1038026016
I0403 15:47:24.545356 16053 layer_factory.hpp:77] Creating layer inception_4c/3x3
I0403 15:47:24.545379 16053 net.cpp:91] Creating Layer inception_4c/3x3
I0403 15:47:24.545397 16053 net.cpp:425] inception_4c/3x3 <- inception_4c/3x3_reduce
I0403 15:47:24.545418 16053 net.cpp:399] inception_4c/3x3 -> inception_4c/3x3
I0403 15:47:24.549049 16053 net.cpp:141] Setting up inception_4c/3x3
I0403 15:47:24.549089 16053 net.cpp:148] Top shape: 24 256 14 14 (1204224)
I0403 15:47:24.549105 16053 net.cpp:156] Memory required for data: 1042842912
I0403 15:47:24.549136 16053 layer_factory.hpp:77] Creating layer inception_4c/relu_3x3
I0403 15:47:24.549160 16053 net.cpp:91] Creating Layer inception_4c/relu_3x3
I0403 15:47:24.549176 16053 net.cpp:425] inception_4c/relu_3x3 <- inception_4c/3x3
I0403 15:47:24.549193 16053 net.cpp:386] inception_4c/relu_3x3 -> inception_4c/3x3 (in-place)
I0403 15:47:24.549373 16053 net.cpp:141] Setting up inception_4c/relu_3x3
I0403 15:47:24.549398 16053 net.cpp:148] Top shape: 24 256 14 14 (1204224)
I0403 15:47:24.549413 16053 net.cpp:156] Memory required for data: 1047659808
I0403 15:47:24.549427 16053 layer_factory.hpp:77] Creating layer inception_4c/5x5_reduce
I0403 15:47:24.549454 16053 net.cpp:91] Creating Layer inception_4c/5x5_reduce
I0403 15:47:24.549473 16053 net.cpp:425] inception_4c/5x5_reduce <- inception_4b/output_inception_4b/output_0_split_2
I0403 15:47:24.549494 16053 net.cpp:399] inception_4c/5x5_reduce -> inception_4c/5x5_reduce
I0403 15:47:24.550586 16053 net.cpp:141] Setting up inception_4c/5x5_reduce
I0403 15:47:24.550613 16053 net.cpp:148] Top shape: 24 24 14 14 (112896)
I0403 15:47:24.550628 16053 net.cpp:156] Memory required for data: 1048111392
I0403 15:47:24.550647 16053 layer_factory.hpp:77] Creating layer inception_4c/relu_5x5_reduce
I0403 15:47:24.550668 16053 net.cpp:91] Creating Layer inception_4c/relu_5x5_reduce
I0403 15:47:24.550684 16053 net.cpp:425] inception_4c/relu_5x5_reduce <- inception_4c/5x5_reduce
I0403 15:47:24.550703 16053 net.cpp:386] inception_4c/relu_5x5_reduce -> inception_4c/5x5_reduce (in-place)
I0403 15:47:24.550882 16053 net.cpp:141] Setting up inception_4c/relu_5x5_reduce
I0403 15:47:24.550907 16053 net.cpp:148] Top shape: 24 24 14 14 (112896)
I0403 15:47:24.550925 16053 net.cpp:156] Memory required for data: 1048562976
I0403 15:47:24.550940 16053 layer_factory.hpp:77] Creating layer inception_4c/5x5
I0403 15:47:24.550959 16053 net.cpp:91] Creating Layer inception_4c/5x5
I0403 15:47:24.550976 16053 net.cpp:425] inception_4c/5x5 <- inception_4c/5x5_reduce
I0403 15:47:24.550997 16053 net.cpp:399] inception_4c/5x5 -> inception_4c/5x5
I0403 15:47:24.552233 16053 net.cpp:141] Setting up inception_4c/5x5
I0403 15:47:24.552274 16053 net.cpp:148] Top shape: 24 64 14 14 (301056)
I0403 15:47:24.552290 16053 net.cpp:156] Memory required for data: 1049767200
I0403 15:47:24.552309 16053 layer_factory.hpp:77] Creating layer inception_4c/relu_5x5
I0403 15:47:24.552330 16053 net.cpp:91] Creating Layer inception_4c/relu_5x5
I0403 15:47:24.552347 16053 net.cpp:425] inception_4c/relu_5x5 <- inception_4c/5x5
I0403 15:47:24.552366 16053 net.cpp:386] inception_4c/relu_5x5 -> inception_4c/5x5 (in-place)
I0403 15:47:24.552673 16053 net.cpp:141] Setting up inception_4c/relu_5x5
I0403 15:47:24.552700 16053 net.cpp:148] Top shape: 24 64 14 14 (301056)
I0403 15:47:24.552714 16053 net.cpp:156] Memory required for data: 1050971424
I0403 15:47:24.552728 16053 layer_factory.hpp:77] Creating layer inception_4c/pool
I0403 15:47:24.552748 16053 net.cpp:91] Creating Layer inception_4c/pool
I0403 15:47:24.552764 16053 net.cpp:425] inception_4c/pool <- inception_4b/output_inception_4b/output_0_split_3
I0403 15:47:24.552793 16053 net.cpp:399] inception_4c/pool -> inception_4c/pool
I0403 15:47:24.552860 16053 net.cpp:141] Setting up inception_4c/pool
I0403 15:47:24.552882 16053 net.cpp:148] Top shape: 24 512 14 14 (2408448)
I0403 15:47:24.552897 16053 net.cpp:156] Memory required for data: 1060605216
I0403 15:47:24.552911 16053 layer_factory.hpp:77] Creating layer inception_4c/pool_proj
I0403 15:47:24.552937 16053 net.cpp:91] Creating Layer inception_4c/pool_proj
I0403 15:47:24.552954 16053 net.cpp:425] inception_4c/pool_proj <- inception_4c/pool
I0403 15:47:24.552974 16053 net.cpp:399] inception_4c/pool_proj -> inception_4c/pool_proj
I0403 15:47:24.554215 16053 net.cpp:141] Setting up inception_4c/pool_proj
I0403 15:47:24.554244 16053 net.cpp:148] Top shape: 24 64 14 14 (301056)
I0403 15:47:24.554272 16053 net.cpp:156] Memory required for data: 1061809440
I0403 15:47:24.554292 16053 layer_factory.hpp:77] Creating layer inception_4c/relu_pool_proj
I0403 15:47:24.554312 16053 net.cpp:91] Creating Layer inception_4c/relu_pool_proj
I0403 15:47:24.554328 16053 net.cpp:425] inception_4c/relu_pool_proj <- inception_4c/pool_proj
I0403 15:47:24.554345 16053 net.cpp:386] inception_4c/relu_pool_proj -> inception_4c/pool_proj (in-place)
I0403 15:47:24.554525 16053 net.cpp:141] Setting up inception_4c/relu_pool_proj
I0403 15:47:24.554560 16053 net.cpp:148] Top shape: 24 64 14 14 (301056)
I0403 15:47:24.554577 16053 net.cpp:156] Memory required for data: 1063013664
I0403 15:47:24.554591 16053 layer_factory.hpp:77] Creating layer inception_4c/output
I0403 15:47:24.554611 16053 net.cpp:91] Creating Layer inception_4c/output
I0403 15:47:24.554628 16053 net.cpp:425] inception_4c/output <- inception_4c/1x1
I0403 15:47:24.554644 16053 net.cpp:425] inception_4c/output <- inception_4c/3x3
I0403 15:47:24.554661 16053 net.cpp:425] inception_4c/output <- inception_4c/5x5
I0403 15:47:24.554675 16053 net.cpp:425] inception_4c/output <- inception_4c/pool_proj
I0403 15:47:24.554692 16053 net.cpp:399] inception_4c/output -> inception_4c/output
I0403 15:47:24.554740 16053 net.cpp:141] Setting up inception_4c/output
I0403 15:47:24.554764 16053 net.cpp:148] Top shape: 24 512 14 14 (2408448)
I0403 15:47:24.554779 16053 net.cpp:156] Memory required for data: 1072647456
I0403 15:47:24.554793 16053 layer_factory.hpp:77] Creating layer inception_4c/output_inception_4c/output_0_split
I0403 15:47:24.554810 16053 net.cpp:91] Creating Layer inception_4c/output_inception_4c/output_0_split
I0403 15:47:24.554824 16053 net.cpp:425] inception_4c/output_inception_4c/output_0_split <- inception_4c/output
I0403 15:47:24.554842 16053 net.cpp:399] inception_4c/output_inception_4c/output_0_split -> inception_4c/output_inception_4c/output_0_split_0
I0403 15:47:24.554863 16053 net.cpp:399] inception_4c/output_inception_4c/output_0_split -> inception_4c/output_inception_4c/output_0_split_1
I0403 15:47:24.554883 16053 net.cpp:399] inception_4c/output_inception_4c/output_0_split -> inception_4c/output_inception_4c/output_0_split_2
I0403 15:47:24.554903 16053 net.cpp:399] inception_4c/output_inception_4c/output_0_split -> inception_4c/output_inception_4c/output_0_split_3
I0403 15:47:24.554991 16053 net.cpp:141] Setting up inception_4c/output_inception_4c/output_0_split
I0403 15:47:24.555016 16053 net.cpp:148] Top shape: 24 512 14 14 (2408448)
I0403 15:47:24.555032 16053 net.cpp:148] Top shape: 24 512 14 14 (2408448)
I0403 15:47:24.555047 16053 net.cpp:148] Top shape: 24 512 14 14 (2408448)
I0403 15:47:24.555061 16053 net.cpp:148] Top shape: 24 512 14 14 (2408448)
I0403 15:47:24.555075 16053 net.cpp:156] Memory required for data: 1111182624
I0403 15:47:24.555089 16053 layer_factory.hpp:77] Creating layer inception_4d/1x1
I0403 15:47:24.555124 16053 net.cpp:91] Creating Layer inception_4d/1x1
I0403 15:47:24.555141 16053 net.cpp:425] inception_4d/1x1 <- inception_4c/output_inception_4c/output_0_split_0
I0403 15:47:24.555160 16053 net.cpp:399] inception_4d/1x1 -> inception_4d/1x1
I0403 15:47:24.556567 16053 net.cpp:141] Setting up inception_4d/1x1
I0403 15:47:24.556597 16053 net.cpp:148] Top shape: 24 112 14 14 (526848)
I0403 15:47:24.556614 16053 net.cpp:156] Memory required for data: 1113290016
I0403 15:47:24.556632 16053 layer_factory.hpp:77] Creating layer inception_4d/relu_1x1
I0403 15:47:24.556653 16053 net.cpp:91] Creating Layer inception_4d/relu_1x1
I0403 15:47:24.556668 16053 net.cpp:425] inception_4d/relu_1x1 <- inception_4d/1x1
I0403 15:47:24.556689 16053 net.cpp:386] inception_4d/relu_1x1 -> inception_4d/1x1 (in-place)
I0403 15:47:24.556871 16053 net.cpp:141] Setting up inception_4d/relu_1x1
I0403 15:47:24.556896 16053 net.cpp:148] Top shape: 24 112 14 14 (526848)
I0403 15:47:24.556910 16053 net.cpp:156] Memory required for data: 1115397408
I0403 15:47:24.556924 16053 layer_factory.hpp:77] Creating layer inception_4d/3x3_reduce
I0403 15:47:24.556963 16053 net.cpp:91] Creating Layer inception_4d/3x3_reduce
I0403 15:47:24.556982 16053 net.cpp:425] inception_4d/3x3_reduce <- inception_4c/output_inception_4c/output_0_split_1
I0403 15:47:24.557003 16053 net.cpp:399] inception_4d/3x3_reduce -> inception_4d/3x3_reduce
I0403 15:47:24.558565 16053 net.cpp:141] Setting up inception_4d/3x3_reduce
I0403 15:47:24.558595 16053 net.cpp:148] Top shape: 24 144 14 14 (677376)
I0403 15:47:24.558611 16053 net.cpp:156] Memory required for data: 1118106912
I0403 15:47:24.558630 16053 layer_factory.hpp:77] Creating layer inception_4d/relu_3x3_reduce
I0403 15:47:24.558650 16053 net.cpp:91] Creating Layer inception_4d/relu_3x3_reduce
I0403 15:47:24.558665 16053 net.cpp:425] inception_4d/relu_3x3_reduce <- inception_4d/3x3_reduce
I0403 15:47:24.558683 16053 net.cpp:386] inception_4d/relu_3x3_reduce -> inception_4d/3x3_reduce (in-place)
I0403 15:47:24.558979 16053 net.cpp:141] Setting up inception_4d/relu_3x3_reduce
I0403 15:47:24.559010 16053 net.cpp:148] Top shape: 24 144 14 14 (677376)
I0403 15:47:24.559026 16053 net.cpp:156] Memory required for data: 1120816416
I0403 15:47:24.559041 16053 layer_factory.hpp:77] Creating layer inception_4d/3x3
I0403 15:47:24.559062 16053 net.cpp:91] Creating Layer inception_4d/3x3
I0403 15:47:24.559080 16053 net.cpp:425] inception_4d/3x3 <- inception_4d/3x3_reduce
I0403 15:47:24.559100 16053 net.cpp:399] inception_4d/3x3 -> inception_4d/3x3
I0403 15:47:24.563508 16053 net.cpp:141] Setting up inception_4d/3x3
I0403 15:47:24.563541 16053 net.cpp:148] Top shape: 24 288 14 14 (1354752)
I0403 15:47:24.563560 16053 net.cpp:156] Memory required for data: 1126235424
I0403 15:47:24.563577 16053 layer_factory.hpp:77] Creating layer inception_4d/relu_3x3
I0403 15:47:24.563596 16053 net.cpp:91] Creating Layer inception_4d/relu_3x3
I0403 15:47:24.563612 16053 net.cpp:425] inception_4d/relu_3x3 <- inception_4d/3x3
I0403 15:47:24.563632 16053 net.cpp:386] inception_4d/relu_3x3 -> inception_4d/3x3 (in-place)
I0403 15:47:24.563822 16053 net.cpp:141] Setting up inception_4d/relu_3x3
I0403 15:47:24.563846 16053 net.cpp:148] Top shape: 24 288 14 14 (1354752)
I0403 15:47:24.563863 16053 net.cpp:156] Memory required for data: 1131654432
I0403 15:47:24.563877 16053 layer_factory.hpp:77] Creating layer inception_4d/5x5_reduce
I0403 15:47:24.563899 16053 net.cpp:91] Creating Layer inception_4d/5x5_reduce
I0403 15:47:24.563917 16053 net.cpp:425] inception_4d/5x5_reduce <- inception_4c/output_inception_4c/output_0_split_2
I0403 15:47:24.563940 16053 net.cpp:399] inception_4d/5x5_reduce -> inception_4d/5x5_reduce
I0403 15:47:24.565137 16053 net.cpp:141] Setting up inception_4d/5x5_reduce
I0403 15:47:24.565168 16053 net.cpp:148] Top shape: 24 32 14 14 (150528)
I0403 15:47:24.565186 16053 net.cpp:156] Memory required for data: 1132256544
I0403 15:47:24.565204 16053 layer_factory.hpp:77] Creating layer inception_4d/relu_5x5_reduce
I0403 15:47:24.565222 16053 net.cpp:91] Creating Layer inception_4d/relu_5x5_reduce
I0403 15:47:24.565239 16053 net.cpp:425] inception_4d/relu_5x5_reduce <- inception_4d/5x5_reduce
I0403 15:47:24.565258 16053 net.cpp:386] inception_4d/relu_5x5_reduce -> inception_4d/5x5_reduce (in-place)
I0403 15:47:24.565456 16053 net.cpp:141] Setting up inception_4d/relu_5x5_reduce
I0403 15:47:24.565481 16053 net.cpp:148] Top shape: 24 32 14 14 (150528)
I0403 15:47:24.565497 16053 net.cpp:156] Memory required for data: 1132858656
I0403 15:47:24.565511 16053 layer_factory.hpp:77] Creating layer inception_4d/5x5
I0403 15:47:24.565534 16053 net.cpp:91] Creating Layer inception_4d/5x5
I0403 15:47:24.565557 16053 net.cpp:425] inception_4d/5x5 <- inception_4d/5x5_reduce
I0403 15:47:24.565579 16053 net.cpp:399] inception_4d/5x5 -> inception_4d/5x5
I0403 15:47:24.567104 16053 net.cpp:141] Setting up inception_4d/5x5
I0403 15:47:24.567132 16053 net.cpp:148] Top shape: 24 64 14 14 (301056)
I0403 15:47:24.567148 16053 net.cpp:156] Memory required for data: 1134062880
I0403 15:47:24.567167 16053 layer_factory.hpp:77] Creating layer inception_4d/relu_5x5
I0403 15:47:24.567204 16053 net.cpp:91] Creating Layer inception_4d/relu_5x5
I0403 15:47:24.567222 16053 net.cpp:425] inception_4d/relu_5x5 <- inception_4d/5x5
I0403 15:47:24.567240 16053 net.cpp:386] inception_4d/relu_5x5 -> inception_4d/5x5 (in-place)
I0403 15:47:24.567553 16053 net.cpp:141] Setting up inception_4d/relu_5x5
I0403 15:47:24.567580 16053 net.cpp:148] Top shape: 24 64 14 14 (301056)
I0403 15:47:24.567596 16053 net.cpp:156] Memory required for data: 1135267104
I0403 15:47:24.567611 16053 layer_factory.hpp:77] Creating layer inception_4d/pool
I0403 15:47:24.567632 16053 net.cpp:91] Creating Layer inception_4d/pool
I0403 15:47:24.567649 16053 net.cpp:425] inception_4d/pool <- inception_4c/output_inception_4c/output_0_split_3
I0403 15:47:24.567668 16053 net.cpp:399] inception_4d/pool -> inception_4d/pool
I0403 15:47:24.567739 16053 net.cpp:141] Setting up inception_4d/pool
I0403 15:47:24.567764 16053 net.cpp:148] Top shape: 24 512 14 14 (2408448)
I0403 15:47:24.567777 16053 net.cpp:156] Memory required for data: 1144900896
I0403 15:47:24.567792 16053 layer_factory.hpp:77] Creating layer inception_4d/pool_proj
I0403 15:47:24.567816 16053 net.cpp:91] Creating Layer inception_4d/pool_proj
I0403 15:47:24.567832 16053 net.cpp:425] inception_4d/pool_proj <- inception_4d/pool
I0403 15:47:24.567854 16053 net.cpp:399] inception_4d/pool_proj -> inception_4d/pool_proj
I0403 15:47:24.569694 16053 net.cpp:141] Setting up inception_4d/pool_proj
I0403 15:47:24.569722 16053 net.cpp:148] Top shape: 24 64 14 14 (301056)
I0403 15:47:24.569738 16053 net.cpp:156] Memory required for data: 1146105120
I0403 15:47:24.569757 16053 layer_factory.hpp:77] Creating layer inception_4d/relu_pool_proj
I0403 15:47:24.569777 16053 net.cpp:91] Creating Layer inception_4d/relu_pool_proj
I0403 15:47:24.569792 16053 net.cpp:425] inception_4d/relu_pool_proj <- inception_4d/pool_proj
I0403 15:47:24.569813 16053 net.cpp:386] inception_4d/relu_pool_proj -> inception_4d/pool_proj (in-place)
I0403 15:47:24.570003 16053 net.cpp:141] Setting up inception_4d/relu_pool_proj
I0403 15:47:24.570029 16053 net.cpp:148] Top shape: 24 64 14 14 (301056)
I0403 15:47:24.570044 16053 net.cpp:156] Memory required for data: 1147309344
I0403 15:47:24.570060 16053 layer_factory.hpp:77] Creating layer inception_4d/output
I0403 15:47:24.570078 16053 net.cpp:91] Creating Layer inception_4d/output
I0403 15:47:24.570096 16053 net.cpp:425] inception_4d/output <- inception_4d/1x1
I0403 15:47:24.570112 16053 net.cpp:425] inception_4d/output <- inception_4d/3x3
I0403 15:47:24.570129 16053 net.cpp:425] inception_4d/output <- inception_4d/5x5
I0403 15:47:24.570145 16053 net.cpp:425] inception_4d/output <- inception_4d/pool_proj
I0403 15:47:24.570163 16053 net.cpp:399] inception_4d/output -> inception_4d/output
I0403 15:47:24.570209 16053 net.cpp:141] Setting up inception_4d/output
I0403 15:47:24.570236 16053 net.cpp:148] Top shape: 24 528 14 14 (2483712)
I0403 15:47:24.570252 16053 net.cpp:156] Memory required for data: 1157244192
I0403 15:47:24.570267 16053 layer_factory.hpp:77] Creating layer inception_4d/output_inception_4d/output_0_split
I0403 15:47:24.570286 16053 net.cpp:91] Creating Layer inception_4d/output_inception_4d/output_0_split
I0403 15:47:24.570302 16053 net.cpp:425] inception_4d/output_inception_4d/output_0_split <- inception_4d/output
I0403 15:47:24.570323 16053 net.cpp:399] inception_4d/output_inception_4d/output_0_split -> inception_4d/output_inception_4d/output_0_split_0
I0403 15:47:24.570345 16053 net.cpp:399] inception_4d/output_inception_4d/output_0_split -> inception_4d/output_inception_4d/output_0_split_1
I0403 15:47:24.570366 16053 net.cpp:399] inception_4d/output_inception_4d/output_0_split -> inception_4d/output_inception_4d/output_0_split_2
I0403 15:47:24.570387 16053 net.cpp:399] inception_4d/output_inception_4d/output_0_split -> inception_4d/output_inception_4d/output_0_split_3
I0403 15:47:24.570407 16053 net.cpp:399] inception_4d/output_inception_4d/output_0_split -> inception_4d/output_inception_4d/output_0_split_4
I0403 15:47:24.570513 16053 net.cpp:141] Setting up inception_4d/output_inception_4d/output_0_split
I0403 15:47:24.570554 16053 net.cpp:148] Top shape: 24 528 14 14 (2483712)
I0403 15:47:24.570574 16053 net.cpp:148] Top shape: 24 528 14 14 (2483712)
I0403 15:47:24.570591 16053 net.cpp:148] Top shape: 24 528 14 14 (2483712)
I0403 15:47:24.570607 16053 net.cpp:148] Top shape: 24 528 14 14 (2483712)
I0403 15:47:24.570623 16053 net.cpp:148] Top shape: 24 528 14 14 (2483712)
I0403 15:47:24.570637 16053 net.cpp:156] Memory required for data: 1206918432
I0403 15:47:24.570652 16053 layer_factory.hpp:77] Creating layer loss2/ave_pool
I0403 15:47:24.570670 16053 net.cpp:91] Creating Layer loss2/ave_pool
I0403 15:47:24.570686 16053 net.cpp:425] loss2/ave_pool <- inception_4d/output_inception_4d/output_0_split_0
I0403 15:47:24.570708 16053 net.cpp:399] loss2/ave_pool -> loss2/ave_pool
I0403 15:47:24.571033 16053 net.cpp:141] Setting up loss2/ave_pool
I0403 15:47:24.571060 16053 net.cpp:148] Top shape: 24 528 4 4 (202752)
I0403 15:47:24.571076 16053 net.cpp:156] Memory required for data: 1207729440
I0403 15:47:24.571091 16053 layer_factory.hpp:77] Creating layer loss2/conv
I0403 15:47:24.571113 16053 net.cpp:91] Creating Layer loss2/conv
I0403 15:47:24.571132 16053 net.cpp:425] loss2/conv <- loss2/ave_pool
I0403 15:47:24.571154 16053 net.cpp:399] loss2/conv -> loss2/conv
I0403 15:47:24.573130 16053 net.cpp:141] Setting up loss2/conv
I0403 15:47:24.573159 16053 net.cpp:148] Top shape: 24 128 4 4 (49152)
I0403 15:47:24.573175 16053 net.cpp:156] Memory required for data: 1207926048
I0403 15:47:24.573194 16053 layer_factory.hpp:77] Creating layer loss2/relu_conv
I0403 15:47:24.573215 16053 net.cpp:91] Creating Layer loss2/relu_conv
I0403 15:47:24.573233 16053 net.cpp:425] loss2/relu_conv <- loss2/conv
I0403 15:47:24.573251 16053 net.cpp:386] loss2/relu_conv -> loss2/conv (in-place)
I0403 15:47:24.573549 16053 net.cpp:141] Setting up loss2/relu_conv
I0403 15:47:24.573575 16053 net.cpp:148] Top shape: 24 128 4 4 (49152)
I0403 15:47:24.573590 16053 net.cpp:156] Memory required for data: 1208122656
I0403 15:47:24.573606 16053 layer_factory.hpp:77] Creating layer loss2/fc
I0403 15:47:24.573628 16053 net.cpp:91] Creating Layer loss2/fc
I0403 15:47:24.573647 16053 net.cpp:425] loss2/fc <- loss2/conv
I0403 15:47:24.573665 16053 net.cpp:399] loss2/fc -> loss2/fc
I0403 15:47:24.591406 16053 net.cpp:141] Setting up loss2/fc
I0403 15:47:24.591449 16053 net.cpp:148] Top shape: 24 1024 (24576)
I0403 15:47:24.591465 16053 net.cpp:156] Memory required for data: 1208220960
I0403 15:47:24.591485 16053 layer_factory.hpp:77] Creating layer loss2/relu_fc
I0403 15:47:24.591503 16053 net.cpp:91] Creating Layer loss2/relu_fc
I0403 15:47:24.591521 16053 net.cpp:425] loss2/relu_fc <- loss2/fc
I0403 15:47:24.591544 16053 net.cpp:386] loss2/relu_fc -> loss2/fc (in-place)
I0403 15:47:24.591892 16053 net.cpp:141] Setting up loss2/relu_fc
I0403 15:47:24.591917 16053 net.cpp:148] Top shape: 24 1024 (24576)
I0403 15:47:24.591931 16053 net.cpp:156] Memory required for data: 1208319264
I0403 15:47:24.591945 16053 layer_factory.hpp:77] Creating layer loss2/drop_fc
I0403 15:47:24.591964 16053 net.cpp:91] Creating Layer loss2/drop_fc
I0403 15:47:24.591979 16053 net.cpp:425] loss2/drop_fc <- loss2/fc
I0403 15:47:24.591998 16053 net.cpp:386] loss2/drop_fc -> loss2/fc (in-place)
I0403 15:47:24.592046 16053 net.cpp:141] Setting up loss2/drop_fc
I0403 15:47:24.592072 16053 net.cpp:148] Top shape: 24 1024 (24576)
I0403 15:47:24.592087 16053 net.cpp:156] Memory required for data: 1208417568
I0403 15:47:24.592102 16053 layer_factory.hpp:77] Creating layer loss2/classifier_plantvillage
I0403 15:47:24.592119 16053 net.cpp:91] Creating Layer loss2/classifier_plantvillage
I0403 15:47:24.592135 16053 net.cpp:425] loss2/classifier_plantvillage <- loss2/fc
I0403 15:47:24.592155 16053 net.cpp:399] loss2/classifier_plantvillage -> loss2/classifier_plantvillage
I0403 15:47:24.592552 16053 net.cpp:141] Setting up loss2/classifier_plantvillage
I0403 15:47:24.592577 16053 net.cpp:148] Top shape: 24 38 (912)
I0403 15:47:24.592592 16053 net.cpp:156] Memory required for data: 1208421216
I0403 15:47:24.592629 16053 layer_factory.hpp:77] Creating layer loss2/classifier_plantvillage_loss2/classifier_plantvillage_0_split
I0403 15:47:24.592648 16053 net.cpp:91] Creating Layer loss2/classifier_plantvillage_loss2/classifier_plantvillage_0_split
I0403 15:47:24.592664 16053 net.cpp:425] loss2/classifier_plantvillage_loss2/classifier_plantvillage_0_split <- loss2/classifier_plantvillage
I0403 15:47:24.592680 16053 net.cpp:399] loss2/classifier_plantvillage_loss2/classifier_plantvillage_0_split -> loss2/classifier_plantvillage_loss2/classifier_plantvillage_0_split_0
I0403 15:47:24.592700 16053 net.cpp:399] loss2/classifier_plantvillage_loss2/classifier_plantvillage_0_split -> loss2/classifier_plantvillage_loss2/classifier_plantvillage_0_split_1
I0403 15:47:24.592718 16053 net.cpp:399] loss2/classifier_plantvillage_loss2/classifier_plantvillage_0_split -> loss2/classifier_plantvillage_loss2/classifier_plantvillage_0_split_2
I0403 15:47:24.592794 16053 net.cpp:141] Setting up loss2/classifier_plantvillage_loss2/classifier_plantvillage_0_split
I0403 15:47:24.592816 16053 net.cpp:148] Top shape: 24 38 (912)
I0403 15:47:24.592831 16053 net.cpp:148] Top shape: 24 38 (912)
I0403 15:47:24.592846 16053 net.cpp:148] Top shape: 24 38 (912)
I0403 15:47:24.592859 16053 net.cpp:156] Memory required for data: 1208432160
I0403 15:47:24.592872 16053 layer_factory.hpp:77] Creating layer inception_4e/1x1
I0403 15:47:24.592892 16053 net.cpp:91] Creating Layer inception_4e/1x1
I0403 15:47:24.592907 16053 net.cpp:425] inception_4e/1x1 <- inception_4d/output_inception_4d/output_0_split_1
I0403 15:47:24.592927 16053 net.cpp:399] inception_4e/1x1 -> inception_4e/1x1
I0403 15:47:24.594728 16053 net.cpp:141] Setting up inception_4e/1x1
I0403 15:47:24.594755 16053 net.cpp:148] Top shape: 24 256 14 14 (1204224)
I0403 15:47:24.594769 16053 net.cpp:156] Memory required for data: 1213249056
I0403 15:47:24.594787 16053 layer_factory.hpp:77] Creating layer inception_4e/relu_1x1
I0403 15:47:24.594807 16053 net.cpp:91] Creating Layer inception_4e/relu_1x1
I0403 15:47:24.594825 16053 net.cpp:425] inception_4e/relu_1x1 <- inception_4e/1x1
I0403 15:47:24.594841 16053 net.cpp:386] inception_4e/relu_1x1 -> inception_4e/1x1 (in-place)
I0403 15:47:24.595144 16053 net.cpp:141] Setting up inception_4e/relu_1x1
I0403 15:47:24.595168 16053 net.cpp:148] Top shape: 24 256 14 14 (1204224)
I0403 15:47:24.595183 16053 net.cpp:156] Memory required for data: 1218065952
I0403 15:47:24.595198 16053 layer_factory.hpp:77] Creating layer inception_4e/3x3_reduce
I0403 15:47:24.595221 16053 net.cpp:91] Creating Layer inception_4e/3x3_reduce
I0403 15:47:24.595238 16053 net.cpp:425] inception_4e/3x3_reduce <- inception_4d/output_inception_4d/output_0_split_2
I0403 15:47:24.595257 16053 net.cpp:399] inception_4e/3x3_reduce -> inception_4e/3x3_reduce
I0403 15:47:24.597422 16053 net.cpp:141] Setting up inception_4e/3x3_reduce
I0403 15:47:24.597450 16053 net.cpp:148] Top shape: 24 160 14 14 (752640)
I0403 15:47:24.597465 16053 net.cpp:156] Memory required for data: 1221076512
I0403 15:47:24.597483 16053 layer_factory.hpp:77] Creating layer inception_4e/relu_3x3_reduce
I0403 15:47:24.597504 16053 net.cpp:91] Creating Layer inception_4e/relu_3x3_reduce
I0403 15:47:24.597522 16053 net.cpp:425] inception_4e/relu_3x3_reduce <- inception_4e/3x3_reduce
I0403 15:47:24.597543 16053 net.cpp:386] inception_4e/relu_3x3_reduce -> inception_4e/3x3_reduce (in-place)
I0403 15:47:24.597730 16053 net.cpp:141] Setting up inception_4e/relu_3x3_reduce
I0403 15:47:24.597755 16053 net.cpp:148] Top shape: 24 160 14 14 (752640)
I0403 15:47:24.597770 16053 net.cpp:156] Memory required for data: 1224087072
I0403 15:47:24.597784 16053 layer_factory.hpp:77] Creating layer inception_4e/3x3
I0403 15:47:24.597808 16053 net.cpp:91] Creating Layer inception_4e/3x3
I0403 15:47:24.597826 16053 net.cpp:425] inception_4e/3x3 <- inception_4e/3x3_reduce
I0403 15:47:24.597844 16053 net.cpp:399] inception_4e/3x3 -> inception_4e/3x3
I0403 15:47:24.602777 16053 net.cpp:141] Setting up inception_4e/3x3
I0403 15:47:24.602816 16053 net.cpp:148] Top shape: 24 320 14 14 (1505280)
I0403 15:47:24.602833 16053 net.cpp:156] Memory required for data: 1230108192
I0403 15:47:24.602852 16053 layer_factory.hpp:77] Creating layer inception_4e/relu_3x3
I0403 15:47:24.602871 16053 net.cpp:91] Creating Layer inception_4e/relu_3x3
I0403 15:47:24.602886 16053 net.cpp:425] inception_4e/relu_3x3 <- inception_4e/3x3
I0403 15:47:24.602903 16053 net.cpp:386] inception_4e/relu_3x3 -> inception_4e/3x3 (in-place)
I0403 15:47:24.603196 16053 net.cpp:141] Setting up inception_4e/relu_3x3
I0403 15:47:24.603224 16053 net.cpp:148] Top shape: 24 320 14 14 (1505280)
I0403 15:47:24.603240 16053 net.cpp:156] Memory required for data: 1236129312
I0403 15:47:24.603253 16053 layer_factory.hpp:77] Creating layer inception_4e/5x5_reduce
I0403 15:47:24.603281 16053 net.cpp:91] Creating Layer inception_4e/5x5_reduce
I0403 15:47:24.603299 16053 net.cpp:425] inception_4e/5x5_reduce <- inception_4d/output_inception_4d/output_0_split_3
I0403 15:47:24.603317 16053 net.cpp:399] inception_4e/5x5_reduce -> inception_4e/5x5_reduce
I0403 15:47:24.604363 16053 net.cpp:141] Setting up inception_4e/5x5_reduce
I0403 15:47:24.604390 16053 net.cpp:148] Top shape: 24 32 14 14 (150528)
I0403 15:47:24.604405 16053 net.cpp:156] Memory required for data: 1236731424
I0403 15:47:24.604423 16053 layer_factory.hpp:77] Creating layer inception_4e/relu_5x5_reduce
I0403 15:47:24.604441 16053 net.cpp:91] Creating Layer inception_4e/relu_5x5_reduce
I0403 15:47:24.604459 16053 net.cpp:425] inception_4e/relu_5x5_reduce <- inception_4e/5x5_reduce
I0403 15:47:24.604475 16053 net.cpp:386] inception_4e/relu_5x5_reduce -> inception_4e/5x5_reduce (in-place)
I0403 15:47:24.604773 16053 net.cpp:141] Setting up inception_4e/relu_5x5_reduce
I0403 15:47:24.604797 16053 net.cpp:148] Top shape: 24 32 14 14 (150528)
I0403 15:47:24.604812 16053 net.cpp:156] Memory required for data: 1237333536
I0403 15:47:24.604825 16053 layer_factory.hpp:77] Creating layer inception_4e/5x5
I0403 15:47:24.604862 16053 net.cpp:91] Creating Layer inception_4e/5x5
I0403 15:47:24.604881 16053 net.cpp:425] inception_4e/5x5 <- inception_4e/5x5_reduce
I0403 15:47:24.604904 16053 net.cpp:399] inception_4e/5x5 -> inception_4e/5x5
I0403 15:47:24.606745 16053 net.cpp:141] Setting up inception_4e/5x5
I0403 15:47:24.606771 16053 net.cpp:148] Top shape: 24 128 14 14 (602112)
I0403 15:47:24.606786 16053 net.cpp:156] Memory required for data: 1239741984
I0403 15:47:24.606804 16053 layer_factory.hpp:77] Creating layer inception_4e/relu_5x5
I0403 15:47:24.606822 16053 net.cpp:91] Creating Layer inception_4e/relu_5x5
I0403 15:47:24.606837 16053 net.cpp:425] inception_4e/relu_5x5 <- inception_4e/5x5
I0403 15:47:24.606854 16053 net.cpp:386] inception_4e/relu_5x5 -> inception_4e/5x5 (in-place)
I0403 15:47:24.607046 16053 net.cpp:141] Setting up inception_4e/relu_5x5
I0403 15:47:24.607070 16053 net.cpp:148] Top shape: 24 128 14 14 (602112)
I0403 15:47:24.607084 16053 net.cpp:156] Memory required for data: 1242150432
I0403 15:47:24.607098 16053 layer_factory.hpp:77] Creating layer inception_4e/pool
I0403 15:47:24.607118 16053 net.cpp:91] Creating Layer inception_4e/pool
I0403 15:47:24.607134 16053 net.cpp:425] inception_4e/pool <- inception_4d/output_inception_4d/output_0_split_4
I0403 15:47:24.607151 16053 net.cpp:399] inception_4e/pool -> inception_4e/pool
I0403 15:47:24.607220 16053 net.cpp:141] Setting up inception_4e/pool
I0403 15:47:24.607244 16053 net.cpp:148] Top shape: 24 528 14 14 (2483712)
I0403 15:47:24.607257 16053 net.cpp:156] Memory required for data: 1252085280
I0403 15:47:24.607272 16053 layer_factory.hpp:77] Creating layer inception_4e/pool_proj
I0403 15:47:24.607293 16053 net.cpp:91] Creating Layer inception_4e/pool_proj
I0403 15:47:24.607309 16053 net.cpp:425] inception_4e/pool_proj <- inception_4e/pool
I0403 15:47:24.607329 16053 net.cpp:399] inception_4e/pool_proj -> inception_4e/pool_proj
I0403 15:47:24.608867 16053 net.cpp:141] Setting up inception_4e/pool_proj
I0403 15:47:24.608896 16053 net.cpp:148] Top shape: 24 128 14 14 (602112)
I0403 15:47:24.608923 16053 net.cpp:156] Memory required for data: 1254493728
I0403 15:47:24.608942 16053 layer_factory.hpp:77] Creating layer inception_4e/relu_pool_proj
I0403 15:47:24.608959 16053 net.cpp:91] Creating Layer inception_4e/relu_pool_proj
I0403 15:47:24.608975 16053 net.cpp:425] inception_4e/relu_pool_proj <- inception_4e/pool_proj
I0403 15:47:24.608994 16053 net.cpp:386] inception_4e/relu_pool_proj -> inception_4e/pool_proj (in-place)
I0403 15:47:24.609288 16053 net.cpp:141] Setting up inception_4e/relu_pool_proj
I0403 15:47:24.609313 16053 net.cpp:148] Top shape: 24 128 14 14 (602112)
I0403 15:47:24.609328 16053 net.cpp:156] Memory required for data: 1256902176
I0403 15:47:24.609341 16053 layer_factory.hpp:77] Creating layer inception_4e/output
I0403 15:47:24.609359 16053 net.cpp:91] Creating Layer inception_4e/output
I0403 15:47:24.609374 16053 net.cpp:425] inception_4e/output <- inception_4e/1x1
I0403 15:47:24.609390 16053 net.cpp:425] inception_4e/output <- inception_4e/3x3
I0403 15:47:24.609405 16053 net.cpp:425] inception_4e/output <- inception_4e/5x5
I0403 15:47:24.609419 16053 net.cpp:425] inception_4e/output <- inception_4e/pool_proj
I0403 15:47:24.609437 16053 net.cpp:399] inception_4e/output -> inception_4e/output
I0403 15:47:24.609486 16053 net.cpp:141] Setting up inception_4e/output
I0403 15:47:24.609514 16053 net.cpp:148] Top shape: 24 832 14 14 (3913728)
I0403 15:47:24.609529 16053 net.cpp:156] Memory required for data: 1272557088
I0403 15:47:24.609547 16053 layer_factory.hpp:77] Creating layer pool4/3x3_s2
I0403 15:47:24.609565 16053 net.cpp:91] Creating Layer pool4/3x3_s2
I0403 15:47:24.609580 16053 net.cpp:425] pool4/3x3_s2 <- inception_4e/output
I0403 15:47:24.609597 16053 net.cpp:399] pool4/3x3_s2 -> pool4/3x3_s2
I0403 15:47:24.609664 16053 net.cpp:141] Setting up pool4/3x3_s2
I0403 15:47:24.609688 16053 net.cpp:148] Top shape: 24 832 7 7 (978432)
I0403 15:47:24.609700 16053 net.cpp:156] Memory required for data: 1276470816
I0403 15:47:24.609714 16053 layer_factory.hpp:77] Creating layer pool4/3x3_s2_pool4/3x3_s2_0_split
I0403 15:47:24.609730 16053 net.cpp:91] Creating Layer pool4/3x3_s2_pool4/3x3_s2_0_split
I0403 15:47:24.609745 16053 net.cpp:425] pool4/3x3_s2_pool4/3x3_s2_0_split <- pool4/3x3_s2
I0403 15:47:24.609763 16053 net.cpp:399] pool4/3x3_s2_pool4/3x3_s2_0_split -> pool4/3x3_s2_pool4/3x3_s2_0_split_0
I0403 15:47:24.609783 16053 net.cpp:399] pool4/3x3_s2_pool4/3x3_s2_0_split -> pool4/3x3_s2_pool4/3x3_s2_0_split_1
I0403 15:47:24.609803 16053 net.cpp:399] pool4/3x3_s2_pool4/3x3_s2_0_split -> pool4/3x3_s2_pool4/3x3_s2_0_split_2
I0403 15:47:24.609824 16053 net.cpp:399] pool4/3x3_s2_pool4/3x3_s2_0_split -> pool4/3x3_s2_pool4/3x3_s2_0_split_3
I0403 15:47:24.609915 16053 net.cpp:141] Setting up pool4/3x3_s2_pool4/3x3_s2_0_split
I0403 15:47:24.609936 16053 net.cpp:148] Top shape: 24 832 7 7 (978432)
I0403 15:47:24.609951 16053 net.cpp:148] Top shape: 24 832 7 7 (978432)
I0403 15:47:24.609966 16053 net.cpp:148] Top shape: 24 832 7 7 (978432)
I0403 15:47:24.609980 16053 net.cpp:148] Top shape: 24 832 7 7 (978432)
I0403 15:47:24.609993 16053 net.cpp:156] Memory required for data: 1292125728
I0403 15:47:24.610007 16053 layer_factory.hpp:77] Creating layer inception_5a/1x1
I0403 15:47:24.610028 16053 net.cpp:91] Creating Layer inception_5a/1x1
I0403 15:47:24.610044 16053 net.cpp:425] inception_5a/1x1 <- pool4/3x3_s2_pool4/3x3_s2_0_split_0
I0403 15:47:24.610064 16053 net.cpp:399] inception_5a/1x1 -> inception_5a/1x1
I0403 15:47:24.612864 16053 net.cpp:141] Setting up inception_5a/1x1
I0403 15:47:24.612890 16053 net.cpp:148] Top shape: 24 256 7 7 (301056)
I0403 15:47:24.612905 16053 net.cpp:156] Memory required for data: 1293329952
I0403 15:47:24.612922 16053 layer_factory.hpp:77] Creating layer inception_5a/relu_1x1
I0403 15:47:24.612942 16053 net.cpp:91] Creating Layer inception_5a/relu_1x1
I0403 15:47:24.612958 16053 net.cpp:425] inception_5a/relu_1x1 <- inception_5a/1x1
I0403 15:47:24.612975 16053 net.cpp:386] inception_5a/relu_1x1 -> inception_5a/1x1 (in-place)
I0403 15:47:24.613282 16053 net.cpp:141] Setting up inception_5a/relu_1x1
I0403 15:47:24.613308 16053 net.cpp:148] Top shape: 24 256 7 7 (301056)
I0403 15:47:24.613322 16053 net.cpp:156] Memory required for data: 1294534176
I0403 15:47:24.613337 16053 layer_factory.hpp:77] Creating layer inception_5a/3x3_reduce
I0403 15:47:24.613358 16053 net.cpp:91] Creating Layer inception_5a/3x3_reduce
I0403 15:47:24.613375 16053 net.cpp:425] inception_5a/3x3_reduce <- pool4/3x3_s2_pool4/3x3_s2_0_split_1
I0403 15:47:24.613395 16053 net.cpp:399] inception_5a/3x3_reduce -> inception_5a/3x3_reduce
I0403 15:47:24.615911 16053 net.cpp:141] Setting up inception_5a/3x3_reduce
I0403 15:47:24.615942 16053 net.cpp:148] Top shape: 24 160 7 7 (188160)
I0403 15:47:24.615958 16053 net.cpp:156] Memory required for data: 1295286816
I0403 15:47:24.615978 16053 layer_factory.hpp:77] Creating layer inception_5a/relu_3x3_reduce
I0403 15:47:24.615994 16053 net.cpp:91] Creating Layer inception_5a/relu_3x3_reduce
I0403 15:47:24.616010 16053 net.cpp:425] inception_5a/relu_3x3_reduce <- inception_5a/3x3_reduce
I0403 15:47:24.616029 16053 net.cpp:386] inception_5a/relu_3x3_reduce -> inception_5a/3x3_reduce (in-place)
I0403 15:47:24.616219 16053 net.cpp:141] Setting up inception_5a/relu_3x3_reduce
I0403 15:47:24.616243 16053 net.cpp:148] Top shape: 24 160 7 7 (188160)
I0403 15:47:24.616258 16053 net.cpp:156] Memory required for data: 1296039456
I0403 15:47:24.616272 16053 layer_factory.hpp:77] Creating layer inception_5a/3x3
I0403 15:47:24.616296 16053 net.cpp:91] Creating Layer inception_5a/3x3
I0403 15:47:24.616313 16053 net.cpp:425] inception_5a/3x3 <- inception_5a/3x3_reduce
I0403 15:47:24.616334 16053 net.cpp:399] inception_5a/3x3 -> inception_5a/3x3
I0403 15:47:24.621399 16053 net.cpp:141] Setting up inception_5a/3x3
I0403 15:47:24.621428 16053 net.cpp:148] Top shape: 24 320 7 7 (376320)
I0403 15:47:24.621444 16053 net.cpp:156] Memory required for data: 1297544736
I0403 15:47:24.621462 16053 layer_factory.hpp:77] Creating layer inception_5a/relu_3x3
I0403 15:47:24.621480 16053 net.cpp:91] Creating Layer inception_5a/relu_3x3
I0403 15:47:24.621496 16053 net.cpp:425] inception_5a/relu_3x3 <- inception_5a/3x3
I0403 15:47:24.621516 16053 net.cpp:386] inception_5a/relu_3x3 -> inception_5a/3x3 (in-place)
I0403 15:47:24.621819 16053 net.cpp:141] Setting up inception_5a/relu_3x3
I0403 15:47:24.621845 16053 net.cpp:148] Top shape: 24 320 7 7 (376320)
I0403 15:47:24.621858 16053 net.cpp:156] Memory required for data: 1299050016
I0403 15:47:24.621873 16053 layer_factory.hpp:77] Creating layer inception_5a/5x5_reduce
I0403 15:47:24.621896 16053 net.cpp:91] Creating Layer inception_5a/5x5_reduce
I0403 15:47:24.621913 16053 net.cpp:425] inception_5a/5x5_reduce <- pool4/3x3_s2_pool4/3x3_s2_0_split_2
I0403 15:47:24.621935 16053 net.cpp:399] inception_5a/5x5_reduce -> inception_5a/5x5_reduce
I0403 15:47:24.623118 16053 net.cpp:141] Setting up inception_5a/5x5_reduce
I0403 15:47:24.623148 16053 net.cpp:148] Top shape: 24 32 7 7 (37632)
I0403 15:47:24.623165 16053 net.cpp:156] Memory required for data: 1299200544
I0403 15:47:24.623183 16053 layer_factory.hpp:77] Creating layer inception_5a/relu_5x5_reduce
I0403 15:47:24.623201 16053 net.cpp:91] Creating Layer inception_5a/relu_5x5_reduce
I0403 15:47:24.623219 16053 net.cpp:425] inception_5a/relu_5x5_reduce <- inception_5a/5x5_reduce
I0403 15:47:24.623235 16053 net.cpp:386] inception_5a/relu_5x5_reduce -> inception_5a/5x5_reduce (in-place)
I0403 15:47:24.623539 16053 net.cpp:141] Setting up inception_5a/relu_5x5_reduce
I0403 15:47:24.623566 16053 net.cpp:148] Top shape: 24 32 7 7 (37632)
I0403 15:47:24.623581 16053 net.cpp:156] Memory required for data: 1299351072
I0403 15:47:24.623596 16053 layer_factory.hpp:77] Creating layer inception_5a/5x5
I0403 15:47:24.623618 16053 net.cpp:91] Creating Layer inception_5a/5x5
I0403 15:47:24.623636 16053 net.cpp:425] inception_5a/5x5 <- inception_5a/5x5_reduce
I0403 15:47:24.623656 16053 net.cpp:399] inception_5a/5x5 -> inception_5a/5x5
I0403 15:47:24.625401 16053 net.cpp:141] Setting up inception_5a/5x5
I0403 15:47:24.625440 16053 net.cpp:148] Top shape: 24 128 7 7 (150528)
I0403 15:47:24.625457 16053 net.cpp:156] Memory required for data: 1299953184
I0403 15:47:24.625475 16053 layer_factory.hpp:77] Creating layer inception_5a/relu_5x5
I0403 15:47:24.625493 16053 net.cpp:91] Creating Layer inception_5a/relu_5x5
I0403 15:47:24.625509 16053 net.cpp:425] inception_5a/relu_5x5 <- inception_5a/5x5
I0403 15:47:24.625527 16053 net.cpp:386] inception_5a/relu_5x5 -> inception_5a/5x5 (in-place)
I0403 15:47:24.625723 16053 net.cpp:141] Setting up inception_5a/relu_5x5
I0403 15:47:24.625748 16053 net.cpp:148] Top shape: 24 128 7 7 (150528)
I0403 15:47:24.625763 16053 net.cpp:156] Memory required for data: 1300555296
I0403 15:47:24.625778 16053 layer_factory.hpp:77] Creating layer inception_5a/pool
I0403 15:47:24.625798 16053 net.cpp:91] Creating Layer inception_5a/pool
I0403 15:47:24.625815 16053 net.cpp:425] inception_5a/pool <- pool4/3x3_s2_pool4/3x3_s2_0_split_3
I0403 15:47:24.625833 16053 net.cpp:399] inception_5a/pool -> inception_5a/pool
I0403 15:47:24.625905 16053 net.cpp:141] Setting up inception_5a/pool
I0403 15:47:24.625928 16053 net.cpp:148] Top shape: 24 832 7 7 (978432)
I0403 15:47:24.625943 16053 net.cpp:156] Memory required for data: 1304469024
I0403 15:47:24.625957 16053 layer_factory.hpp:77] Creating layer inception_5a/pool_proj
I0403 15:47:24.625979 16053 net.cpp:91] Creating Layer inception_5a/pool_proj
I0403 15:47:24.625996 16053 net.cpp:425] inception_5a/pool_proj <- inception_5a/pool
I0403 15:47:24.626016 16053 net.cpp:399] inception_5a/pool_proj -> inception_5a/pool_proj
I0403 15:47:24.628329 16053 net.cpp:141] Setting up inception_5a/pool_proj
I0403 15:47:24.628358 16053 net.cpp:148] Top shape: 24 128 7 7 (150528)
I0403 15:47:24.628374 16053 net.cpp:156] Memory required for data: 1305071136
I0403 15:47:24.628392 16053 layer_factory.hpp:77] Creating layer inception_5a/relu_pool_proj
I0403 15:47:24.628409 16053 net.cpp:91] Creating Layer inception_5a/relu_pool_proj
I0403 15:47:24.628425 16053 net.cpp:425] inception_5a/relu_pool_proj <- inception_5a/pool_proj
I0403 15:47:24.628444 16053 net.cpp:386] inception_5a/relu_pool_proj -> inception_5a/pool_proj (in-place)
I0403 15:47:24.628748 16053 net.cpp:141] Setting up inception_5a/relu_pool_proj
I0403 15:47:24.628774 16053 net.cpp:148] Top shape: 24 128 7 7 (150528)
I0403 15:47:24.628789 16053 net.cpp:156] Memory required for data: 1305673248
I0403 15:47:24.628804 16053 layer_factory.hpp:77] Creating layer inception_5a/output
I0403 15:47:24.628820 16053 net.cpp:91] Creating Layer inception_5a/output
I0403 15:47:24.628836 16053 net.cpp:425] inception_5a/output <- inception_5a/1x1
I0403 15:47:24.628852 16053 net.cpp:425] inception_5a/output <- inception_5a/3x3
I0403 15:47:24.628870 16053 net.cpp:425] inception_5a/output <- inception_5a/5x5
I0403 15:47:24.628885 16053 net.cpp:425] inception_5a/output <- inception_5a/pool_proj
I0403 15:47:24.628906 16053 net.cpp:399] inception_5a/output -> inception_5a/output
I0403 15:47:24.628955 16053 net.cpp:141] Setting up inception_5a/output
I0403 15:47:24.628978 16053 net.cpp:148] Top shape: 24 832 7 7 (978432)
I0403 15:47:24.628993 16053 net.cpp:156] Memory required for data: 1309586976
I0403 15:47:24.629007 16053 layer_factory.hpp:77] Creating layer inception_5a/output_inception_5a/output_0_split
I0403 15:47:24.629027 16053 net.cpp:91] Creating Layer inception_5a/output_inception_5a/output_0_split
I0403 15:47:24.629043 16053 net.cpp:425] inception_5a/output_inception_5a/output_0_split <- inception_5a/output
I0403 15:47:24.629060 16053 net.cpp:399] inception_5a/output_inception_5a/output_0_split -> inception_5a/output_inception_5a/output_0_split_0
I0403 15:47:24.629083 16053 net.cpp:399] inception_5a/output_inception_5a/output_0_split -> inception_5a/output_inception_5a/output_0_split_1
I0403 15:47:24.629106 16053 net.cpp:399] inception_5a/output_inception_5a/output_0_split -> inception_5a/output_inception_5a/output_0_split_2
I0403 15:47:24.629125 16053 net.cpp:399] inception_5a/output_inception_5a/output_0_split -> inception_5a/output_inception_5a/output_0_split_3
I0403 15:47:24.629236 16053 net.cpp:141] Setting up inception_5a/output_inception_5a/output_0_split
I0403 15:47:24.629261 16053 net.cpp:148] Top shape: 24 832 7 7 (978432)
I0403 15:47:24.629276 16053 net.cpp:148] Top shape: 24 832 7 7 (978432)
I0403 15:47:24.629293 16053 net.cpp:148] Top shape: 24 832 7 7 (978432)
I0403 15:47:24.629308 16053 net.cpp:148] Top shape: 24 832 7 7 (978432)
I0403 15:47:24.629322 16053 net.cpp:156] Memory required for data: 1325241888
I0403 15:47:24.629335 16053 layer_factory.hpp:77] Creating layer inception_5b/1x1
I0403 15:47:24.629357 16053 net.cpp:91] Creating Layer inception_5b/1x1
I0403 15:47:24.629374 16053 net.cpp:425] inception_5b/1x1 <- inception_5a/output_inception_5a/output_0_split_0
I0403 15:47:24.629395 16053 net.cpp:399] inception_5b/1x1 -> inception_5b/1x1
I0403 15:47:24.633258 16053 net.cpp:141] Setting up inception_5b/1x1
I0403 15:47:24.633290 16053 net.cpp:148] Top shape: 24 384 7 7 (451584)
I0403 15:47:24.633306 16053 net.cpp:156] Memory required for data: 1327048224
I0403 15:47:24.633337 16053 layer_factory.hpp:77] Creating layer inception_5b/relu_1x1
I0403 15:47:24.633354 16053 net.cpp:91] Creating Layer inception_5b/relu_1x1
I0403 15:47:24.633371 16053 net.cpp:425] inception_5b/relu_1x1 <- inception_5b/1x1
I0403 15:47:24.633391 16053 net.cpp:386] inception_5b/relu_1x1 -> inception_5b/1x1 (in-place)
I0403 15:47:24.633699 16053 net.cpp:141] Setting up inception_5b/relu_1x1
I0403 15:47:24.633728 16053 net.cpp:148] Top shape: 24 384 7 7 (451584)
I0403 15:47:24.633744 16053 net.cpp:156] Memory required for data: 1328854560
I0403 15:47:24.633760 16053 layer_factory.hpp:77] Creating layer inception_5b/3x3_reduce
I0403 15:47:24.633785 16053 net.cpp:91] Creating Layer inception_5b/3x3_reduce
I0403 15:47:24.633802 16053 net.cpp:425] inception_5b/3x3_reduce <- inception_5a/output_inception_5a/output_0_split_1
I0403 15:47:24.633826 16053 net.cpp:399] inception_5b/3x3_reduce -> inception_5b/3x3_reduce
I0403 15:47:24.636559 16053 net.cpp:141] Setting up inception_5b/3x3_reduce
I0403 15:47:24.636590 16053 net.cpp:148] Top shape: 24 192 7 7 (225792)
I0403 15:47:24.636606 16053 net.cpp:156] Memory required for data: 1329757728
I0403 15:47:24.636625 16053 layer_factory.hpp:77] Creating layer inception_5b/relu_3x3_reduce
I0403 15:47:24.636642 16053 net.cpp:91] Creating Layer inception_5b/relu_3x3_reduce
I0403 15:47:24.636658 16053 net.cpp:425] inception_5b/relu_3x3_reduce <- inception_5b/3x3_reduce
I0403 15:47:24.636678 16053 net.cpp:386] inception_5b/relu_3x3_reduce -> inception_5b/3x3_reduce (in-place)
I0403 15:47:24.636878 16053 net.cpp:141] Setting up inception_5b/relu_3x3_reduce
I0403 15:47:24.636904 16053 net.cpp:148] Top shape: 24 192 7 7 (225792)
I0403 15:47:24.636919 16053 net.cpp:156] Memory required for data: 1330660896
I0403 15:47:24.636934 16053 layer_factory.hpp:77] Creating layer inception_5b/3x3
I0403 15:47:24.636955 16053 net.cpp:91] Creating Layer inception_5b/3x3
I0403 15:47:24.636973 16053 net.cpp:425] inception_5b/3x3 <- inception_5b/3x3_reduce
I0403 15:47:24.636996 16053 net.cpp:399] inception_5b/3x3 -> inception_5b/3x3
I0403 15:47:24.643739 16053 net.cpp:141] Setting up inception_5b/3x3
I0403 15:47:24.643769 16053 net.cpp:148] Top shape: 24 384 7 7 (451584)
I0403 15:47:24.643784 16053 net.cpp:156] Memory required for data: 1332467232
I0403 15:47:24.643801 16053 layer_factory.hpp:77] Creating layer inception_5b/relu_3x3
I0403 15:47:24.643821 16053 net.cpp:91] Creating Layer inception_5b/relu_3x3
I0403 15:47:24.643836 16053 net.cpp:425] inception_5b/relu_3x3 <- inception_5b/3x3
I0403 15:47:24.643857 16053 net.cpp:386] inception_5b/relu_3x3 -> inception_5b/3x3 (in-place)
I0403 15:47:24.644160 16053 net.cpp:141] Setting up inception_5b/relu_3x3
I0403 15:47:24.644186 16053 net.cpp:148] Top shape: 24 384 7 7 (451584)
I0403 15:47:24.644201 16053 net.cpp:156] Memory required for data: 1334273568
I0403 15:47:24.644215 16053 layer_factory.hpp:77] Creating layer inception_5b/5x5_reduce
I0403 15:47:24.644254 16053 net.cpp:91] Creating Layer inception_5b/5x5_reduce
I0403 15:47:24.644275 16053 net.cpp:425] inception_5b/5x5_reduce <- inception_5a/output_inception_5a/output_0_split_2
I0403 15:47:24.644297 16053 net.cpp:399] inception_5b/5x5_reduce -> inception_5b/5x5_reduce
I0403 15:47:24.645597 16053 net.cpp:141] Setting up inception_5b/5x5_reduce
I0403 15:47:24.645625 16053 net.cpp:148] Top shape: 24 48 7 7 (56448)
I0403 15:47:24.645640 16053 net.cpp:156] Memory required for data: 1334499360
I0403 15:47:24.645658 16053 layer_factory.hpp:77] Creating layer inception_5b/relu_5x5_reduce
I0403 15:47:24.645678 16053 net.cpp:91] Creating Layer inception_5b/relu_5x5_reduce
I0403 15:47:24.645694 16053 net.cpp:425] inception_5b/relu_5x5_reduce <- inception_5b/5x5_reduce
I0403 15:47:24.645712 16053 net.cpp:386] inception_5b/relu_5x5_reduce -> inception_5b/5x5_reduce (in-place)
I0403 15:47:24.646090 16053 net.cpp:141] Setting up inception_5b/relu_5x5_reduce
I0403 15:47:24.646116 16053 net.cpp:148] Top shape: 24 48 7 7 (56448)
I0403 15:47:24.646131 16053 net.cpp:156] Memory required for data: 1334725152
I0403 15:47:24.646147 16053 layer_factory.hpp:77] Creating layer inception_5b/5x5
I0403 15:47:24.646167 16053 net.cpp:91] Creating Layer inception_5b/5x5
I0403 15:47:24.646183 16053 net.cpp:425] inception_5b/5x5 <- inception_5b/5x5_reduce
I0403 15:47:24.646201 16053 net.cpp:399] inception_5b/5x5 -> inception_5b/5x5
I0403 15:47:24.648289 16053 net.cpp:141] Setting up inception_5b/5x5
I0403 15:47:24.648316 16053 net.cpp:148] Top shape: 24 128 7 7 (150528)
I0403 15:47:24.648331 16053 net.cpp:156] Memory required for data: 1335327264
I0403 15:47:24.648350 16053 layer_factory.hpp:77] Creating layer inception_5b/relu_5x5
I0403 15:47:24.648370 16053 net.cpp:91] Creating Layer inception_5b/relu_5x5
I0403 15:47:24.648387 16053 net.cpp:425] inception_5b/relu_5x5 <- inception_5b/5x5
I0403 15:47:24.648406 16053 net.cpp:386] inception_5b/relu_5x5 -> inception_5b/5x5 (in-place)
I0403 15:47:24.648602 16053 net.cpp:141] Setting up inception_5b/relu_5x5
I0403 15:47:24.648627 16053 net.cpp:148] Top shape: 24 128 7 7 (150528)
I0403 15:47:24.648643 16053 net.cpp:156] Memory required for data: 1335929376
I0403 15:47:24.648656 16053 layer_factory.hpp:77] Creating layer inception_5b/pool
I0403 15:47:24.648676 16053 net.cpp:91] Creating Layer inception_5b/pool
I0403 15:47:24.648694 16053 net.cpp:425] inception_5b/pool <- inception_5a/output_inception_5a/output_0_split_3
I0403 15:47:24.648711 16053 net.cpp:399] inception_5b/pool -> inception_5b/pool
I0403 15:47:24.648785 16053 net.cpp:141] Setting up inception_5b/pool
I0403 15:47:24.648809 16053 net.cpp:148] Top shape: 24 832 7 7 (978432)
I0403 15:47:24.648823 16053 net.cpp:156] Memory required for data: 1339843104
I0403 15:47:24.648838 16053 layer_factory.hpp:77] Creating layer inception_5b/pool_proj
I0403 15:47:24.648860 16053 net.cpp:91] Creating Layer inception_5b/pool_proj
I0403 15:47:24.648877 16053 net.cpp:425] inception_5b/pool_proj <- inception_5b/pool
I0403 15:47:24.648898 16053 net.cpp:399] inception_5b/pool_proj -> inception_5b/pool_proj
I0403 15:47:24.651232 16053 net.cpp:141] Setting up inception_5b/pool_proj
I0403 15:47:24.651260 16053 net.cpp:148] Top shape: 24 128 7 7 (150528)
I0403 15:47:24.651276 16053 net.cpp:156] Memory required for data: 1340445216
I0403 15:47:24.651294 16053 layer_factory.hpp:77] Creating layer inception_5b/relu_pool_proj
I0403 15:47:24.651312 16053 net.cpp:91] Creating Layer inception_5b/relu_pool_proj
I0403 15:47:24.651329 16053 net.cpp:425] inception_5b/relu_pool_proj <- inception_5b/pool_proj
I0403 15:47:24.651350 16053 net.cpp:386] inception_5b/relu_pool_proj -> inception_5b/pool_proj (in-place)
I0403 15:47:24.651659 16053 net.cpp:141] Setting up inception_5b/relu_pool_proj
I0403 15:47:24.651686 16053 net.cpp:148] Top shape: 24 128 7 7 (150528)
I0403 15:47:24.651700 16053 net.cpp:156] Memory required for data: 1341047328
I0403 15:47:24.651715 16053 layer_factory.hpp:77] Creating layer inception_5b/output
I0403 15:47:24.651732 16053 net.cpp:91] Creating Layer inception_5b/output
I0403 15:47:24.651763 16053 net.cpp:425] inception_5b/output <- inception_5b/1x1
I0403 15:47:24.651782 16053 net.cpp:425] inception_5b/output <- inception_5b/3x3
I0403 15:47:24.651798 16053 net.cpp:425] inception_5b/output <- inception_5b/5x5
I0403 15:47:24.651815 16053 net.cpp:425] inception_5b/output <- inception_5b/pool_proj
I0403 15:47:24.651844 16053 net.cpp:399] inception_5b/output -> inception_5b/output
I0403 15:47:24.651896 16053 net.cpp:141] Setting up inception_5b/output
I0403 15:47:24.651921 16053 net.cpp:148] Top shape: 24 1024 7 7 (1204224)
I0403 15:47:24.651937 16053 net.cpp:156] Memory required for data: 1345864224
I0403 15:47:24.651952 16053 layer_factory.hpp:77] Creating layer pool5/7x7_s1
I0403 15:47:24.651969 16053 net.cpp:91] Creating Layer pool5/7x7_s1
I0403 15:47:24.651984 16053 net.cpp:425] pool5/7x7_s1 <- inception_5b/output
I0403 15:47:24.652003 16053 net.cpp:399] pool5/7x7_s1 -> pool5/7x7_s1
I0403 15:47:24.652220 16053 net.cpp:141] Setting up pool5/7x7_s1
I0403 15:47:24.652257 16053 net.cpp:148] Top shape: 24 1024 1 1 (24576)
I0403 15:47:24.652272 16053 net.cpp:156] Memory required for data: 1345962528
I0403 15:47:24.652287 16053 layer_factory.hpp:77] Creating layer pool5/drop_7x7_s1
I0403 15:47:24.652305 16053 net.cpp:91] Creating Layer pool5/drop_7x7_s1
I0403 15:47:24.652323 16053 net.cpp:425] pool5/drop_7x7_s1 <- pool5/7x7_s1
I0403 15:47:24.652343 16053 net.cpp:386] pool5/drop_7x7_s1 -> pool5/7x7_s1 (in-place)
I0403 15:47:24.652393 16053 net.cpp:141] Setting up pool5/drop_7x7_s1
I0403 15:47:24.652420 16053 net.cpp:148] Top shape: 24 1024 1 1 (24576)
I0403 15:47:24.652434 16053 net.cpp:156] Memory required for data: 1346060832
I0403 15:47:24.652449 16053 layer_factory.hpp:77] Creating layer loss3/classifier_plantvillage
I0403 15:47:24.652468 16053 net.cpp:91] Creating Layer loss3/classifier_plantvillage
I0403 15:47:24.652484 16053 net.cpp:425] loss3/classifier_plantvillage <- pool5/7x7_s1
I0403 15:47:24.652505 16053 net.cpp:399] loss3/classifier_plantvillage -> loss3/classifier_plantvillage
I0403 15:47:24.652956 16053 net.cpp:141] Setting up loss3/classifier_plantvillage
I0403 15:47:24.652979 16053 net.cpp:148] Top shape: 24 38 (912)
I0403 15:47:24.652994 16053 net.cpp:156] Memory required for data: 1346064480
I0403 15:47:24.653012 16053 layer_factory.hpp:77] Creating layer loss3/classifier_plantvillage_loss3/classifier_plantvillage_0_split
I0403 15:47:24.653033 16053 net.cpp:91] Creating Layer loss3/classifier_plantvillage_loss3/classifier_plantvillage_0_split
I0403 15:47:24.653050 16053 net.cpp:425] loss3/classifier_plantvillage_loss3/classifier_plantvillage_0_split <- loss3/classifier_plantvillage
I0403 15:47:24.653067 16053 net.cpp:399] loss3/classifier_plantvillage_loss3/classifier_plantvillage_0_split -> loss3/classifier_plantvillage_loss3/classifier_plantvillage_0_split_0
I0403 15:47:24.653090 16053 net.cpp:399] loss3/classifier_plantvillage_loss3/classifier_plantvillage_0_split -> loss3/classifier_plantvillage_loss3/classifier_plantvillage_0_split_1
I0403 15:47:24.653110 16053 net.cpp:399] loss3/classifier_plantvillage_loss3/classifier_plantvillage_0_split -> loss3/classifier_plantvillage_loss3/classifier_plantvillage_0_split_2
I0403 15:47:24.653129 16053 net.cpp:399] loss3/classifier_plantvillage_loss3/classifier_plantvillage_0_split -> loss3/classifier_plantvillage_loss3/classifier_plantvillage_0_split_3
I0403 15:47:24.653233 16053 net.cpp:141] Setting up loss3/classifier_plantvillage_loss3/classifier_plantvillage_0_split
I0403 15:47:24.653255 16053 net.cpp:148] Top shape: 24 38 (912)
I0403 15:47:24.653272 16053 net.cpp:148] Top shape: 24 38 (912)
I0403 15:47:24.653286 16053 net.cpp:148] Top shape: 24 38 (912)
I0403 15:47:24.653301 16053 net.cpp:148] Top shape: 24 38 (912)
I0403 15:47:24.653316 16053 net.cpp:156] Memory required for data: 1346079072
I0403 15:47:24.653328 16053 layer_factory.hpp:77] Creating layer loss1/loss
I0403 15:47:24.653349 16053 net.cpp:91] Creating Layer loss1/loss
I0403 15:47:24.653367 16053 net.cpp:425] loss1/loss <- loss1/classifier_plantvillage_loss1/classifier_plantvillage_0_split_0
I0403 15:47:24.653401 16053 net.cpp:425] loss1/loss <- label_data_1_split_0
…
