…
I0403 15:49:10.082377 16082 net.cpp:313] The NetState phase (1) differed from the phase (0) specified by a rule in layer data
I0403 15:49:10.083526 16082 net.cpp:49] Initializing net from parameters: 
state {
  phase: TEST
}
layer {
  name: "data"
  type: "Data"
  top: "data"
  top: "label"
  include {
    phase: TEST
  }
  transform_param {
    mirror: false
    crop_size: 224
    mean_file: "/home/mohanty/data/final_dataset/lmdb/color-50-50/mean.binaryproto"
  }
  data_param {
    source: "/home/mohanty/data/final_dataset/lmdb/color-50-50/test_db"
    batch_size: 24
    backend: LMDB
  }
}
layer {
  name: "conv1/7x7_s2"
  type: "Convolution"
  bottom: "data"
  top: "conv1/7x7_s2"
  param {
    lr_mult: 1
    decay_mult: 1
  }
  param {
    lr_mult: 2
    decay_mult: 0
  }
  convolution_param {
    num_output: 64
    pad: 3
    kernel_size: 7
    stride: 2
    weight_filler {
      type: "xavier"
      std: 0.1
    }
    bias_filler {
      type: "constant"
      value: 0.2
    }
  }
}
layer {
  name: "conv1/relu_7x7"
  type: "ReLU"
  bottom: "conv1/7x7_s2"
  top: "conv1/7x7_s2"
}
layer {
  name: "pool1/3x3_s2"
  type: "Pooling"
  bottom: "conv1/7x7_s2"
  top: "pool1/3x3_s2"
  pooling_param {
    pool: MAX
    kernel_size: 3
    stride: 2
  }
}
layer {
  name: "pool1/norm1"
  type: "LRN"
  bottom: "pool1/3x3_s2"
  top: "pool1/norm1"
  lrn_param {
    local_size: 5
    alpha: 0.0001
    beta: 0.75
  }
}
layer {
  name: "conv2/3x3_reduce"
  type: "Convolution"
  bottom: "pool1/norm1"
  top: "conv2/3x3_reduce"
  param {
    lr_mult: 1
    decay_mult: 1
  }
  param {
    lr_mult: 2
    decay_mult: 0
  }
  convolution_param {
    num_output: 64
    kernel_size: 1
    weight_filler {
      type: "xavier"
      std: 0.1
    }
    bias_filler {
      type: "constant"
      value: 0.2
    }
  }
}
layer {
  name: "conv2/relu_3x3_reduce"
  type: "ReLU"
  bottom: "conv2/3x3_reduce"
  top: "conv2/3x3_reduce"
}
layer {
  name: "conv2/3x3"
  type: "Convolution"
  bottom: "conv2/3x3_reduce"
  top: "conv2/3x3"
  param {
    lr_mult: 1
    decay_mult: 1
  }
  param {
    lr_mult: 2
    decay_mult: 0
  }
  convolution_param {
    num_output: 192
    pad: 1
    kernel_size: 3
    weight_filler {
      type: "xavier"
      std: 0.03
    }
    bias_filler {
      type: "constant"
      value: 0.2
    }
  }
}
layer {
  name: "conv2/relu_3x3"
  type: "ReLU"
  bottom: "conv2/3x3"
  top: "conv2/3x3"
}
layer {
  name: "conv2/norm2"
  type: "LRN"
  bottom: "conv2/3x3"
  top: "conv2/norm2"
  lrn_param {
    local_size: 5
    alpha: 0.0001
    beta: 0.75
  }
}
layer {
  name: "pool2/3x3_s2"
  type: "Pooling"
  bottom: "conv2/norm2"
  top: "pool2/3x3_s2"
  pooling_param {
    pool: MAX
    kernel_size: 3
    stride: 2
  }
}
layer {
  name: "inception_3a/1x1"
  type: "Convolution"
  bottom: "pool2/3x3_s2"
  top: "inception_3a/1x1"
  param {
    lr_mult: 1
    decay_mult: 1
  }
  param {
    lr_mult: 2
    decay_mult: 0
  }
  convolution_param {
    num_output: 64
    kernel_size: 1
    weight_filler {
      type: "xavier"
      std: 0.03
    }
    bias_filler {
      type: "constant"
      value: 0.2
    }
  }
}
layer {
  name: "inception_3a/relu_1x1"
  type: "ReLU"
  bottom: "inception_3a/1x1"
  top: "inception_3a/1x1"
}
layer {
  name: "inception_3a/3x3_reduce"
  type: "Convolution"
  bottom: "pool2/3x3_s2"
  top: "inception_3a/3x3_reduce"
  param {
    lr_mult: 1
    decay_mult: 1
  }
  param {
    lr_mult: 2
    decay_mult: 0
  }
  convolution_param {
    num_output: 96
    kernel_size: 1
    weight_filler {
      type: "xavier"
      std: 0.09
    }
    bias_filler {
      type: "constant"
      value: 0.2
    }
  }
}
layer {
  name: "inception_3a/relu_3x3_reduce"
  type: "ReLU"
  bottom: "inception_3a/3x3_reduce"
  top: "inception_3a/3x3_reduce"
}
layer {
  name: "inception_3a/3x3"
  type: "Convolution"
  bottom: "inception_3a/3x3_reduce"
  top: "inception_3a/3x3"
  param {
    lr_mult: 1
    decay_mult: 1
  }
  param {
    lr_mult: 2
    decay_mult: 0
  }
  convolution_param {
    num_output: 128
    pad: 1
    kernel_size: 3
    weight_filler {
      type: "xavier"
      std: 0.03
    }
    bias_filler {
      type: "constant"
      value: 0.2
    }
  }
}
layer {
  name: "inception_3a/relu_3x3"
  type: "ReLU"
  bottom: "inception_3a/3x3"
  top: "inception_3a/3x3"
}
layer {
  name: "inception_3a/5x5_reduce"
  type: "Convolution"
  bottom: "pool2/3x3_s2"
  top: "inception_3a/5x5_reduce"
  param {
    lr_mult: 1
    decay_mult: 1
  }
  param {
    lr_mult: 2
    decay_mult: 0
  }
  convolution_param {
    num_output: 16
    kernel_size: 1
    weight_filler {
      type: "xavier"
      std: 0.2
    }
    bias_filler {
      type: "constant"
      value: 0.2
    }
  }
}
layer {
  name: "inception_3a/relu_5x5_reduce"
  type: "ReLU"
  bottom: "inception_3a/5x5_reduce"
  top: "inception_3a/5x5_reduce"
}
layer {
  name: "inception_3a/5x5"
  type: "Convolution"
  bottom: "inception_3a/5x5_reduce"
  top: "inception_3a/5x5"
  param {
    lr_mult: 1
    decay_mult: 1
  }
  param {
    lr_mult: 2
    decay_mult: 0
  }
  convolution_param {
    num_output: 32
    pad: 2
    kernel_size: 5
    weight_filler {
      type: "xavier"
      std: 0.03
    }
    bias_filler {
      type: "constant"
      value: 0.2
    }
  }
}
layer {
  name: "inception_3a/relu_5x5"
  type: "ReLU"
  bottom: "inception_3a/5x5"
  top: "inception_3a/5x5"
}
layer {
  name: "inception_3a/pool"
  type: "Pooling"
  bottom: "pool2/3x3_s2"
  top: "inception_3a/pool"
  pooling_param {
    pool: MAX
    kernel_size: 3
    stride: 1
    pad: 1
  }
}
layer {
  name: "inception_3a/pool_proj"
  type: "Convolution"
  bottom: "inception_3a/pool"
  top: "inception_3a/pool_proj"
  param {
    lr_mult: 1
    decay_mult: 1
  }
  param {
    lr_mult: 2
    decay_mult: 0
  }
  convolution_param {
    num_output: 32
    kernel_size: 1
    weight_filler {
      type: "xavier"
      std: 0.1
    }
    bias_filler {
      type: "constant"
      value: 0.2
    }
  }
}
layer {
  name: "inception_3a/relu_pool_proj"
  type: "ReLU"
  bottom: "inception_3a/pool_proj"
  top: "inception_3a/pool_proj"
}
layer {
  name: "inception_3a/output"
  type: "Concat"
  bottom: "inception_3a/1x1"
  bottom: "inception_3a/3x3"
  bottom: "inception_3a/5x5"
  bottom: "inception_3a/pool_proj"
  top: "inception_3a/output"
}
layer {
  name: "inception_3b/1x1"
  type: "Convolution"
  bottom: "inception_3a/output"
  top: "inception_3b/1x1"
  param {
    lr_mult: 1
    decay_mult: 1
  }
  param {
    lr_mult: 2
    decay_mult: 0
  }
  convolution_param {
    num_output: 128
    kernel_size: 1
    weight_filler {
      type: "xavier"
      std: 0.03
    }
    bias_filler {
      type: "constant"
      value: 0.2
    }
  }
}
layer {
  name: "inception_3b/relu_1x1"
  type: "ReLU"
  bottom: "inception_3b/1x1"
  top: "inception_3b/1x1"
}
layer {
  name: "inception_3b/3x3_reduce"
  type: "Convolution"
  bottom: "inception_3a/output"
  top: "inception_3b/3x3_reduce"
  param {
    lr_mult: 1
    decay_mult: 1
  }
  param {
    lr_mult: 2
    decay_mult: 0
  }
  convolution_param {
    num_output: 128
    kernel_size: 1
    weight_filler {
      type: "xavier"
      std: 0.09
    }
    bias_filler {
      type: "constant"
      value: 0.2
    }
  }
}
layer {
  name: "inception_3b/relu_3x3_reduce"
  type: "ReLU"
  bottom: "inception_3b/3x3_reduce"
  top: "inception_3b/3x3_reduce"
}
layer {
  name: "inception_3b/3x3"
  type: "Convolution"
  bottom: "inception_3b/3x3_reduce"
  top: "inception_3b/3x3"
  param {
    lr_mult: 1
    decay_mult: 1
  }
  param {
    lr_mult: 2
    decay_mult: 0
  }
  convolution_param {
    num_output: 192
    pad: 1
    kernel_size: 3
    weight_filler {
      type: "xavier"
      std: 0.03
    }
    bias_filler {
      type: "constant"
      value: 0.2
    }
  }
}
layer {
  name: "inception_3b/relu_3x3"
  type: "ReLU"
  bottom: "inception_3b/3x3"
  top: "inception_3b/3x3"
}
layer {
  name: "inception_3b/5x5_reduce"
  type: "Convolution"
  bottom: "inception_3a/output"
  top: "inception_3b/5x5_reduce"
  param {
    lr_mult: 1
    decay_mult: 1
  }
  param {
    lr_mult: 2
    decay_mult: 0
  }
  convolution_param {
    num_output: 32
    kernel_size: 1
    weight_filler {
      type: "xavier"
      std: 0.2
    }
    bias_filler {
      type: "constant"
      value: 0.2
    }
  }
}
layer {
  name: "inception_3b/relu_5x5_reduce"
  type: "ReLU"
  bottom: "inception_3b/5x5_reduce"
  top: "inception_3b/5x5_reduce"
}
layer {
  name: "inception_3b/5x5"
  type: "Convolution"
  bottom: "inception_3b/5x5_reduce"
  top: "inception_3b/5x5"
  param {
    lr_mult: 1
    decay_mult: 1
  }
  param {
    lr_mult: 2
    decay_mult: 0
  }
  convolution_param {
    num_output: 96
    pad: 2
    kernel_size: 5
    weight_filler {
      type: "xavier"
      std: 0.03
    }
    bias_filler {
      type: "constant"
      value: 0.2
    }
  }
}
layer {
  name: "inception_3b/relu_5x5"
  type: "ReLU"
  bottom: "inception_3b/5x5"
  top: "inception_3b/5x5"
}
layer {
  name: "inception_3b/pool"
  type: "Pooling"
  bottom: "inception_3a/output"
  top: "inception_3b/pool"
  pooling_param {
    pool: MAX
    kernel_size: 3
    stride: 1
    pad: 1
  }
}
layer {
  name: "inception_3b/pool_proj"
  type: "Convolution"
  bottom: "inception_3b/pool"
  top: "inception_3b/pool_proj"
  param {
    lr_mult: 1
    decay_mult: 1
  }
  param {
    lr_mult: 2
    decay_mult: 0
  }
  convolution_param {
    num_output: 64
    kernel_size: 1
    weight_filler {
      type: "xavier"
      std: 0.1
    }
    bias_filler {
      type: "constant"
      value: 0.2
    }
  }
}
layer {
  name: "inception_3b/relu_pool_proj"
  type: "ReLU"
  bottom: "inception_3b/pool_proj"
  top: "inception_3b/pool_proj"
}
layer {
  name: "inception_3b/output"
  type: "Concat"
  bottom: "inception_3b/1x1"
  bottom: "inception_3b/3x3"
  bottom: "inception_3b/5x5"
  bottom: "inception_3b/pool_proj"
  top: "inception_3b/output"
}
layer {
  name: "pool3/3x3_s2"
  type: "Pooling"
  bottom: "inception_3b/output"
  top: "pool3/3x3_s2"
  pooling_param {
    pool: MAX
    kernel_size: 3
    stride: 2
  }
}
layer {
  name: "inception_4a/1x1"
  type: "Convolution"
  bottom: "pool3/3x3_s2"
  top: "inception_4a/1x1"
  param {
    lr_mult: 1
    decay_mult: 1
  }
  param {
    lr_mult: 2
    decay_mult: 0
  }
  convolution_param {
    num_output: 192
    kernel_size: 1
    weight_filler {
      type: "xavier"
      std: 0.03
    }
    bias_filler {
      type: "constant"
      value: 0.2
    }
  }
}
layer {
  name: "inception_4a/relu_1x1"
  type: "ReLU"
  bottom: "inception_4a/1x1"
  top: "inception_4a/1x1"
}
layer {
  name: "inception_4a/3x3_reduce"
  type: "Convolution"
  bottom: "pool3/3x3_s2"
  top: "inception_4a/3x3_reduce"
  param {
    lr_mult: 1
    decay_mult: 1
  }
  param {
    lr_mult: 2
    decay_mult: 0
  }
  convolution_param {
    num_output: 96
    kernel_size: 1
    weight_filler {
      type: "xavier"
      std: 0.09
    }
    bias_filler {
      type: "constant"
      value: 0.2
    }
  }
}
layer {
  name: "inception_4a/relu_3x3_reduce"
  type: "ReLU"
  bottom: "inception_4a/3x3_reduce"
  top: "inception_4a/3x3_reduce"
}
layer {
  name: "inception_4a/3x3"
  type: "Convolution"
  bottom: "inception_4a/3x3_reduce"
  top: "inception_4a/3x3"
  param {
    lr_mult: 1
    decay_mult: 1
  }
  param {
    lr_mult: 2
    decay_mult: 0
  }
  convolution_param {
    num_output: 208
    pad: 1
    kernel_size: 3
    weight_filler {
      type: "xavier"
      std: 0.03
    }
    bias_filler {
      type: "constant"
      value: 0.2
    }
  }
}
layer {
  name: "inception_4a/relu_3x3"
  type: "ReLU"
  bottom: "inception_4a/3x3"
  top: "inception_4a/3x3"
}
layer {
  name: "inception_4a/5x5_reduce"
  type: "Convolution"
  bottom: "pool3/3x3_s2"
  top: "inception_4a/5x5_reduce"
  param {
    lr_mult: 1
    decay_mult: 1
  }
  param {
    lr_mult: 2
    decay_mult: 0
  }
  convolution_param {
    num_output: 16
    kernel_size: 1
    weight_filler {
      type: "xavier"
      std: 0.2
    }
    bias_filler {
      type: "constant"
      value: 0.2
    }
  }
}
layer {
  name: "inception_4a/relu_5x5_reduce"
  type: "ReLU"
  bottom: "inception_4a/5x5_reduce"
  top: "inception_4a/5x5_reduce"
}
layer {
  name: "inception_4a/5x5"
  type: "Convolution"
  bottom: "inception_4a/5x5_reduce"
  top: "inception_4a/5x5"
  param {
    lr_mult: 1
    decay_mult: 1
  }
  param {
    lr_mult: 2
    decay_mult: 0
  }
  convolution_param {
    num_output: 48
    pad: 2
    kernel_size: 5
    weight_filler {
      type: "xavier"
      std: 0.03
    }
    bias_filler {
      type: "constant"
      value: 0.2
    }
  }
}
layer {
  name: "inception_4a/relu_5x5"
  type: "ReLU"
  bottom: "inception_4a/5x5"
  top: "inception_4a/5x5"
}
layer {
  name: "inception_4a/pool"
  type: "Pooling"
  bottom: "pool3/3x3_s2"
  top: "inception_4a/pool"
  pooling_param {
    pool: MAX
    kernel_size: 3
    stride: 1
    pad: 1
  }
}
layer {
  name: "inception_4a/pool_proj"
  type: "Convolution"
  bottom: "inception_4a/pool"
  top: "inception_4a/pool_proj"
  param {
    lr_mult: 1
    decay_mult: 1
  }
  param {
    lr_mult: 2
    decay_mult: 0
  }
  convolution_param {
    num_output: 64
    kernel_size: 1
    weight_filler {
      type: "xavier"
      std: 0.1
    }
    bias_filler {
      type: "constant"
      value: 0.2
    }
  }
}
layer {
  name: "inception_4a/relu_pool_proj"
  type: "ReLU"
  bottom: "inception_4a/pool_proj"
  top: "inception_4a/pool_proj"
}
layer {
  name: "inception_4a/output"
  type: "Concat"
  bottom: "inception_4a/1x1"
  bottom: "inception_4a/3x3"
  bottom: "inception_4a/5x5"
  bottom: "inception_4a/pool_proj"
  top: "inception_4a/output"
}
layer {
  name: "loss1/ave_pool"
  type: "Pooling"
  bottom: "inception_4a/output"
  top: "loss1/ave_pool"
  pooling_param {
    pool: AVE
    kernel_size: 5
    stride: 3
  }
}
layer {
  name: "loss1/conv"
  type: "Convolution"
  bottom: "loss1/ave_pool"
  top: "loss1/conv"
  param {
    lr_mult: 1
    decay_mult: 1
  }
  param {
    lr_mult: 2
    decay_mult: 0
  }
  convolution_param {
    num_output: 128
    kernel_size: 1
    weight_filler {
      type: "xavier"
      std: 0.08
    }
    bias_filler {
      type: "constant"
      value: 0.2
    }
  }
}
layer {
  name: "loss1/relu_conv"
  type: "ReLU"
  bottom: "loss1/conv"
  top: "loss1/conv"
}
layer {
  name: "loss1/fc"
  type: "InnerProduct"
  bottom: "loss1/conv"
  top: "loss1/fc"
  param {
    lr_mult: 1
    decay_mult: 1
  }
  param {
    lr_mult: 2
    decay_mult: 0
  }
  inner_product_param {
    num_output: 1024
    weight_filler {
      type: "xavier"
      std: 0.02
    }
    bias_filler {
      type: "constant"
      value: 0.2
    }
  }
}
layer {
  name: "loss1/relu_fc"
  type: "ReLU"
  bottom: "loss1/fc"
  top: "loss1/fc"
}
layer {
  name: "loss1/drop_fc"
  type: "Dropout"
  bottom: "loss1/fc"
  top: "loss1/fc"
  dropout_param {
    dropout_ratio: 0.7
  }
}
layer {
  name: "loss1/classifier_plantvillage"
  type: "InnerProduct"
  bottom: "loss1/fc"
  top: "loss1/classifier_plantvillage"
  param {
    lr_mult: 1
    decay_mult: 1
  }
  param {
    lr_mult: 2
    decay_mult: 0
  }
  inner_product_param {
    num_output: 38
    weight_filler {
      type: "xavier"
      std: 0.0009765625
    }
    bias_filler {
      type: "constant"
      value: 0
    }
  }
}
layer {
  name: "inception_4b/1x1"
  type: "Convolution"
  bottom: "inception_4a/output"
  top: "inception_4b/1x1"
  param {
    lr_mult: 1
    decay_mult: 1
  }
  param {
    lr_mult: 2
    decay_mult: 0
  }
  convolution_param {
    num_output: 160
    kernel_size: 1
    weight_filler {
      type: "xavier"
      std: 0.03
    }
    bias_filler {
      type: "constant"
      value: 0.2
    }
  }
}
layer {
  name: "inception_4b/relu_1x1"
  type: "ReLU"
  bottom: "inception_4b/1x1"
  top: "inception_4b/1x1"
}
layer {
  name: "inception_4b/3x3_reduce"
  type: "Convolution"
  bottom: "inception_4a/output"
  top: "inception_4b/3x3_reduce"
  param {
    lr_mult: 1
    decay_mult: 1
  }
  param {
    lr_mult: 2
    decay_mult: 0
  }
  convolution_param {
    num_output: 112
    kernel_size: 1
    weight_filler {
      type: "xavier"
      std: 0.09
    }
    bias_filler {
      type: "constant"
      value: 0.2
    }
  }
}
layer {
  name: "inception_4b/relu_3x3_reduce"
  type: "ReLU"
  bottom: "inception_4b/3x3_reduce"
  top: "inception_4b/3x3_reduce"
}
layer {
  name: "inception_4b/3x3"
  type: "Convolution"
  bottom: "inception_4b/3x3_reduce"
  top: "inception_4b/3x3"
  param {
    lr_mult: 1
    decay_mult: 1
  }
  param {
    lr_mult: 2
    decay_mult: 0
  }
  convolution_param {
    num_output: 224
    pad: 1
    kernel_size: 3
    weight_filler {
      type: "xavier"
      std: 0.03
    }
    bias_filler {
      type: "constant"
      value: 0.2
    }
  }
}
layer {
  name: "inception_4b/relu_3x3"
  type: "ReLU"
  bottom: "inception_4b/3x3"
  top: "inception_4b/3x3"
}
layer {
  name: "inception_4b/5x5_reduce"
  type: "Convolution"
  bottom: "inception_4a/output"
  top: "inception_4b/5x5_reduce"
  param {
    lr_mult: 1
    decay_mult: 1
  }
  param {
    lr_mult: 2
    decay_mult: 0
  }
  convolution_param {
    num_output: 24
    kernel_size: 1
    weight_filler {
      type: "xavier"
      std: 0.2
    }
    bias_filler {
      type: "constant"
      value: 0.2
    }
  }
}
layer {
  name: "inception_4b/relu_5x5_reduce"
  type: "ReLU"
  bottom: "inception_4b/5x5_reduce"
  top: "inception_4b/5x5_reduce"
}
layer {
  name: "inception_4b/5x5"
  type: "Convolution"
  bottom: "inception_4b/5x5_reduce"
  top: "inception_4b/5x5"
  param {
    lr_mult: 1
    decay_mult: 1
  }
  param {
    lr_mult: 2
    decay_mult: 0
  }
  convolution_param {
    num_output: 64
    pad: 2
    kernel_size: 5
    weight_filler {
      type: "xavier"
      std: 0.03
    }
    bias_filler {
      type: "constant"
      value: 0.2
    }
  }
}
layer {
  name: "inception_4b/relu_5x5"
  type: "ReLU"
  bottom: "inception_4b/5x5"
  top: "inception_4b/5x5"
}
layer {
  name: "inception_4b/pool"
  type: "Pooling"
  bottom: "inception_4a/output"
  top: "inception_4b/pool"
  pooling_param {
    pool: MAX
    kernel_size: 3
    stride: 1
    pad: 1
  }
}
layer {
  name: "inception_4b/pool_proj"
  type: "Convolution"
  bottom: "inception_4b/pool"
  top: "inception_4b/pool_proj"
  param {
    lr_mult: 1
    decay_mult: 1
  }
  param {
    lr_mult: 2
    decay_mult: 0
  }
  convolution_param {
    num_output: 64
    kernel_size: 1
    weight_filler {
      type: "xavier"
      std: 0.1
    }
    bias_filler {
      type: "constant"
      value: 0.2
    }
  }
}
layer {
  name: "inception_4b/relu_pool_proj"
  type: "ReLU"
  bottom: "inception_4b/pool_proj"
  top: "inception_4b/pool_proj"
}
layer {
  name: "inception_4b/output"
  type: "Concat"
  bottom: "inception_4b/1x1"
  bottom: "inception_4b/3x3"
  bottom: "inception_4b/5x5"
  bottom: "inception_4b/pool_proj"
  top: "inception_4b/output"
}
layer {
  name: "inception_4c/1x1"
  type: "Convolution"
  bottom: "inception_4b/output"
  top: "inception_4c/1x1"
  param {
    lr_mult: 1
    decay_mult: 1
  }
  param {
    lr_mult: 2
    decay_mult: 0
  }
  convolution_param {
    num_output: 128
    kernel_size: 1
    weight_filler {
      type: "xavier"
      std: 0.03
    }
    bias_filler {
      type: "constant"
      value: 0.2
    }
  }
}
layer {
  name: "inception_4c/relu_1x1"
  type: "ReLU"
  bottom: "inception_4c/1x1"
  top: "inception_4c/1x1"
}
layer {
  name: "inception_4c/3x3_reduce"
  type: "Convolution"
  bottom: "inception_4b/output"
  top: "inception_4c/3x3_reduce"
  param {
    lr_mult: 1
    decay_mult: 1
  }
  param {
    lr_mult: 2
    decay_mult: 0
  }
  convolution_param {
    num_output: 128
    kernel_size: 1
    weight_filler {
      type: "xavier"
      std: 0.09
    }
    bias_filler {
      type: "constant"
      value: 0.2
    }
  }
}
layer {
  name: "inception_4c/relu_3x3_reduce"
  type: "ReLU"
  bottom: "inception_4c/3x3_reduce"
  top: "inception_4c/3x3_reduce"
}
layer {
  name: "inception_4c/3x3"
  type: "Convolution"
  bottom: "inception_4c/3x3_reduce"
  top: "inception_4c/3x3"
  param {
    lr_mult: 1
    decay_mult: 1
  }
  param {
    lr_mult: 2
    decay_mult: 0
  }
  convolution_param {
    num_output: 256
    pad: 1
    kernel_size: 3
    weight_filler {
      type: "xavier"
      std: 0.03
    }
    bias_filler {
      type: "constant"
      value: 0.2
    }
  }
}
layer {
  name: "inception_4c/relu_3x3"
  type: "ReLU"
  bottom: "inception_4c/3x3"
  top: "inception_4c/3x3"
}
layer {
  name: "inception_4c/5x5_reduce"
  type: "Convolution"
  bottom: "inception_4b/output"
  top: "inception_4c/5x5_reduce"
  param {
    lr_mult: 1
    decay_mult: 1
  }
  param {
    lr_mult: 2
    decay_mult: 0
  }
  convolution_param {
    num_output: 24
    kernel_size: 1
    weight_filler {
      type: "xavier"
      std: 0.2
    }
    bias_filler {
      type: "constant"
      value: 0.2
    }
  }
}
layer {
  name: "inception_4c/relu_5x5_reduce"
  type: "ReLU"
  bottom: "inception_4c/5x5_reduce"
  top: "inception_4c/5x5_reduce"
}
layer {
  name: "inception_4c/5x5"
  type: "Convolution"
  bottom: "inception_4c/5x5_reduce"
  top: "inception_4c/5x5"
  param {
    lr_mult: 1
    decay_mult: 1
  }
  param {
    lr_mult: 2
    decay_mult: 0
  }
  convolution_param {
    num_output: 64
    pad: 2
    kernel_size: 5
    weight_filler {
      type: "xavier"
      std: 0.03
    }
    bias_filler {
      type: "constant"
      value: 0.2
    }
  }
}
layer {
  name: "inception_4c/relu_5x5"
  type: "ReLU"
  bottom: "inception_4c/5x5"
  top: "inception_4c/5x5"
}
layer {
  name: "inception_4c/pool"
  type: "Pooling"
  bottom: "inception_4b/output"
  top: "inception_4c/pool"
  pooling_param {
    pool: MAX
    kernel_size: 3
    stride: 1
    pad: 1
  }
}
layer {
  name: "inception_4c/pool_proj"
  type: "Convolution"
  bottom: "inception_4c/pool"
  top: "inception_4c/pool_proj"
  param {
    lr_mult: 1
    decay_mult: 1
  }
  param {
    lr_mult: 2
    decay_mult: 0
  }
  convolution_param {
    num_output: 64
    kernel_size: 1
    weight_filler {
      type: "xavier"
      std: 0.1
    }
    bias_filler {
      type: "constant"
      value: 0.2
    }
  }
}
layer {
  name: "inception_4c/relu_pool_proj"
  type: "ReLU"
  bottom: "inception_4c/pool_proj"
  top: "inception_4c/pool_proj"
}
layer {
  name: "inception_4c/output"
  type: "Concat"
  bottom: "inception_4c/1x1"
  bottom: "inception_4c/3x3"
  bottom: "inception_4c/5x5"
  bottom: "inception_4c/pool_proj"
  top: "inception_4c/output"
}
layer {
  name: "inception_4d/1x1"
  type: "Convolution"
  bottom: "inception_4c/output"
  top: "inception_4d/1x1"
  param {
    lr_mult: 1
    decay_mult: 1
  }
  param {
    lr_mult: 2
    decay_mult: 0
  }
  convolution_param {
    num_output: 112
    kernel_size: 1
    weight_filler {
      type: "xavier"
      std: 0.03
    }
    bias_filler {
      type: "constant"
      value: 0.2
    }
  }
}
layer {
  name: "inception_4d/relu_1x1"
  type: "ReLU"
  bottom: "inception_4d/1x1"
  top: "inception_4d/1x1"
}
layer {
  name: "inception_4d/3x3_reduce"
  type: "Convolution"
  bottom: "inception_4c/output"
  top: "inception_4d/3x3_reduce"
  param {
    lr_mult: 1
    decay_mult: 1
  }
  param {
    lr_mult: 2
    decay_mult: 0
  }
  convolution_param {
    num_output: 144
    kernel_size: 1
    weight_filler {
      type: "xavier"
      std: 0.09
    }
    bias_filler {
      type: "constant"
      value: 0.2
    }
  }
}
layer {
  name: "inception_4d/relu_3x3_reduce"
  type: "ReLU"
  bottom: "inception_4d/3x3_reduce"
  top: "inception_4d/3x3_reduce"
}
layer {
  name: "inception_4d/3x3"
  type: "Convolution"
  bottom: "inception_4d/3x3_reduce"
  top: "inception_4d/3x3"
  param {
    lr_mult: 1
    decay_mult: 1
  }
  param {
    lr_mult: 2
    decay_mult: 0
  }
  convolution_param {
    num_output: 288
    pad: 1
    kernel_size: 3
    weight_filler {
      type: "xavier"
      std: 0.03
    }
    bias_filler {
      type: "constant"
      value: 0.2
    }
  }
}
layer {
  name: "inception_4d/relu_3x3"
  type: "ReLU"
  bottom: "inception_4d/3x3"
  top: "inception_4d/3x3"
}
layer {
  name: "inception_4d/5x5_reduce"
  type: "Convolution"
  bottom: "inception_4c/output"
  top: "inception_4d/5x5_reduce"
  param {
    lr_mult: 1
    decay_mult: 1
  }
  param {
    lr_mult: 2
    decay_mult: 0
  }
  convolution_param {
    num_output: 32
    kernel_size: 1
    weight_filler {
      type: "xavier"
      std: 0.2
    }
    bias_filler {
      type: "constant"
      value: 0.2
    }
  }
}
layer {
  name: "inception_4d/relu_5x5_reduce"
  type: "ReLU"
  bottom: "inception_4d/5x5_reduce"
  top: "inception_4d/5x5_reduce"
}
layer {
  name: "inception_4d/5x5"
  type: "Convolution"
  bottom: "inception_4d/5x5_reduce"
  top: "inception_4d/5x5"
  param {
    lr_mult: 1
    decay_mult: 1
  }
  param {
    lr_mult: 2
    decay_mult: 0
  }
  convolution_param {
    num_output: 64
    pad: 2
    kernel_size: 5
    weight_filler {
      type: "xavier"
      std: 0.03
    }
    bias_filler {
      type: "constant"
      value: 0.2
    }
  }
}
layer {
  name: "inception_4d/relu_5x5"
  type: "ReLU"
  bottom: "inception_4d/5x5"
  top: "inception_4d/5x5"
}
layer {
  name: "inception_4d/pool"
  type: "Pooling"
  bottom: "inception_4c/output"
  top: "inception_4d/pool"
  pooling_param {
    pool: MAX
    kernel_size: 3
    stride: 1
    pad: 1
  }
}
layer {
  name: "inception_4d/pool_proj"
  type: "Convolution"
  bottom: "inception_4d/pool"
  top: "inception_4d/pool_proj"
  param {
    lr_mult: 1
    decay_mult: 1
  }
  param {
    lr_mult: 2
    decay_mult: 0
  }
  convolution_param {
    num_output: 64
    kernel_size: 1
    weight_filler {
      type: "xavier"
      std: 0.1
    }
    bias_filler {
      type: "constant"
      value: 0.2
    }
  }
}
layer {
  name: "inception_4d/relu_pool_proj"
  type: "ReLU"
  bottom: "inception_4d/pool_proj"
  top: "inception_4d/pool_proj"
}
layer {
  name: "inception_4d/output"
  type: "Concat"
  bottom: "inception_4d/1x1"
  bottom: "inception_4d/3x3"
  bottom: "inception_4d/5x5"
  bottom: "inception_4d/pool_proj"
  top: "inception_4d/output"
}
layer {
  name: "loss2/ave_pool"
  type: "Pooling"
  bottom: "inception_4d/output"
  top: "loss2/ave_pool"
  pooling_param {
    pool: AVE
    kernel_size: 5
    stride: 3
  }
}
layer {
  name: "loss2/conv"
  type: "Convolution"
  bottom: "loss2/ave_pool"
  top: "loss2/conv"
  param {
    lr_mult: 1
    decay_mult: 1
  }
  param {
    lr_mult: 2
    decay_mult: 0
  }
  convolution_param {
    num_output: 128
    kernel_size: 1
    weight_filler {
      type: "xavier"
      std: 0.08
    }
    bias_filler {
      type: "constant"
      value: 0.2
    }
  }
}
layer {
  name: "loss2/relu_conv"
  type: "ReLU"
  bottom: "loss2/conv"
  top: "loss2/conv"
}
layer {
  name: "loss2/fc"
  type: "InnerProduct"
  bottom: "loss2/conv"
  top: "loss2/fc"
  param {
    lr_mult: 1
    decay_mult: 1
  }
  param {
    lr_mult: 2
    decay_mult: 0
  }
  inner_product_param {
    num_output: 1024
    weight_filler {
      type: "xavier"
      std: 0.02
    }
    bias_filler {
      type: "constant"
      value: 0.2
    }
  }
}
layer {
  name: "loss2/relu_fc"
  type: "ReLU"
  bottom: "loss2/fc"
  top: "loss2/fc"
}
layer {
  name: "loss2/drop_fc"
  type: "Dropout"
  bottom: "loss2/fc"
  top: "loss2/fc"
  dropout_param {
    dropout_ratio: 0.7
  }
}
layer {
  name: "loss2/classifier_plantvillage"
  type: "InnerProduct"
  bottom: "loss2/fc"
  top: "loss2/classifier_plantvillage"
  param {
    lr_mult: 1
    decay_mult: 1
  }
  param {
    lr_mult: 2
    decay_mult: 0
  }
  inner_product_param {
    num_output: 38
    weight_filler {
      type: "xavier"
      std: 0.0009765625
    }
    bias_filler {
      type: "constant"
      value: 0
    }
  }
}
layer {
  name: "inception_4e/1x1"
  type: "Convolution"
  bottom: "inception_4d/output"
  top: "inception_4e/1x1"
  param {
    lr_mult: 1
    decay_mult: 1
  }
  param {
    lr_mult: 2
    decay_mult: 0
  }
  convolution_param {
    num_output: 256
    kernel_size: 1
    weight_filler {
      type: "xavier"
      std: 0.03
    }
    bias_filler {
      type: "constant"
      value: 0.2
    }
  }
}
layer {
  name: "inception_4e/relu_1x1"
  type: "ReLU"
  bottom: "inception_4e/1x1"
  top: "inception_4e/1x1"
}
layer {
  name: "inception_4e/3x3_reduce"
  type: "Convolution"
  bottom: "inception_4d/output"
  top: "inception_4e/3x3_reduce"
  param {
    lr_mult: 1
    decay_mult: 1
  }
  param {
    lr_mult: 2
    decay_mult: 0
  }
  convolution_param {
    num_output: 160
    kernel_size: 1
    weight_filler {
      type: "xavier"
      std: 0.09
    }
    bias_filler {
      type: "constant"
      value: 0.2
    }
  }
}
layer {
  name: "inception_4e/relu_3x3_reduce"
  type: "ReLU"
  bottom: "inception_4e/3x3_reduce"
  top: "inception_4e/3x3_reduce"
}
layer {
  name: "inception_4e/3x3"
  type: "Convolution"
  bottom: "inception_4e/3x3_reduce"
  top: "inception_4e/3x3"
  param {
    lr_mult: 1
    decay_mult: 1
  }
  param {
    lr_mult: 2
    decay_mult: 0
  }
  convolution_param {
    num_output: 320
    pad: 1
    kernel_size: 3
    weight_filler {
      type: "xavier"
      std: 0.03
    }
    bias_filler {
      type: "constant"
      value: 0.2
    }
  }
}
layer {
  name: "inception_4e/relu_3x3"
  type: "ReLU"
  bottom: "inception_4e/3x3"
  top: "inception_4e/3x3"
}
layer {
  name: "inception_4e/5x5_reduce"
  type: "Convolution"
  bottom: "inception_4d/output"
  top: "inception_4e/5x5_reduce"
  param {
    lr_mult: 1
    decay_mult: 1
  }
  param {
    lr_mult: 2
    decay_mult: 0
  }
  convolution_param {
    num_output: 32
    kernel_size: 1
    weight_filler {
      type: "xavier"
      std: 0.2
    }
    bias_filler {
      type: "constant"
      value: 0.2
    }
  }
}
layer {
  name: "inception_4e/relu_5x5_reduce"
  type: "ReLU"
  bottom: "inception_4e/5x5_reduce"
  top: "inception_4e/5x5_reduce"
}
layer {
  name: "inception_4e/5x5"
  type: "Convolution"
  bottom: "inception_4e/5x5_reduce"
  top: "inception_4e/5x5"
  p
I0403 15:49:10.084753 16082 layer_factory.hpp:77] Creating layer data
I0403 15:49:10.085338 16082 net.cpp:91] Creating Layer data
I0403 15:49:10.085369 16082 net.cpp:399] data -> data
I0403 15:49:10.085419 16082 net.cpp:399] data -> label
I0403 15:49:10.085455 16082 data_transformer.cpp:25] Loading mean file from: /home/mohanty/data/final_dataset/lmdb/color-50-50/mean.binaryproto
I0403 15:49:10.089002 16085 db_lmdb.cpp:38] Opened lmdb /home/mohanty/data/final_dataset/lmdb/color-50-50/test_db
I0403 15:49:10.099191 16082 data_layer.cpp:41] output data size: 24,3,224,224
I0403 15:49:10.128010 16082 net.cpp:141] Setting up data
I0403 15:49:10.128108 16082 net.cpp:148] Top shape: 24 3 224 224 (3612672)
I0403 15:49:10.128134 16082 net.cpp:148] Top shape: 24 (24)
I0403 15:49:10.128149 16082 net.cpp:156] Memory required for data: 14450784
I0403 15:49:10.128180 16082 layer_factory.hpp:77] Creating layer label_data_1_split
I0403 15:49:10.128208 16082 net.cpp:91] Creating Layer label_data_1_split
I0403 15:49:10.128228 16082 net.cpp:425] label_data_1_split <- label
I0403 15:49:10.128263 16082 net.cpp:399] label_data_1_split -> label_data_1_split_0
I0403 15:49:10.128293 16082 net.cpp:399] label_data_1_split -> label_data_1_split_1
I0403 15:49:10.128326 16082 net.cpp:399] label_data_1_split -> label_data_1_split_2
I0403 15:49:10.128348 16082 net.cpp:399] label_data_1_split -> label_data_1_split_3
I0403 15:49:10.128371 16082 net.cpp:399] label_data_1_split -> label_data_1_split_4
I0403 15:49:10.128391 16082 net.cpp:399] label_data_1_split -> label_data_1_split_5
I0403 15:49:10.128413 16082 net.cpp:399] label_data_1_split -> label_data_1_split_6
I0403 15:49:10.128434 16082 net.cpp:399] label_data_1_split -> label_data_1_split_7
I0403 15:49:10.128456 16082 net.cpp:399] label_data_1_split -> label_data_1_split_8
I0403 15:49:10.128476 16082 net.cpp:399] label_data_1_split -> label_data_1_split_9
I0403 15:49:10.128602 16082 net.cpp:141] Setting up label_data_1_split
I0403 15:49:10.128626 16082 net.cpp:148] Top shape: 24 (24)
I0403 15:49:10.128643 16082 net.cpp:148] Top shape: 24 (24)
I0403 15:49:10.128659 16082 net.cpp:148] Top shape: 24 (24)
I0403 15:49:10.128674 16082 net.cpp:148] Top shape: 24 (24)
I0403 15:49:10.128690 16082 net.cpp:148] Top shape: 24 (24)
I0403 15:49:10.128705 16082 net.cpp:148] Top shape: 24 (24)
I0403 15:49:10.128721 16082 net.cpp:148] Top shape: 24 (24)
I0403 15:49:10.128736 16082 net.cpp:148] Top shape: 24 (24)
I0403 15:49:10.128752 16082 net.cpp:148] Top shape: 24 (24)
I0403 15:49:10.128768 16082 net.cpp:148] Top shape: 24 (24)
I0403 15:49:10.128816 16082 net.cpp:156] Memory required for data: 14451744
I0403 15:49:10.128832 16082 layer_factory.hpp:77] Creating layer conv1/7x7_s2
I0403 15:49:10.128865 16082 net.cpp:91] Creating Layer conv1/7x7_s2
I0403 15:49:10.128885 16082 net.cpp:425] conv1/7x7_s2 <- data
I0403 15:49:10.128904 16082 net.cpp:399] conv1/7x7_s2 -> conv1/7x7_s2
I0403 15:49:10.268928 16082 net.cpp:141] Setting up conv1/7x7_s2
I0403 15:49:10.269003 16082 net.cpp:148] Top shape: 24 64 112 112 (19267584)
I0403 15:49:10.269024 16082 net.cpp:156] Memory required for data: 91522080
I0403 15:49:10.269055 16082 layer_factory.hpp:77] Creating layer conv1/relu_7x7
I0403 15:49:10.269083 16082 net.cpp:91] Creating Layer conv1/relu_7x7
I0403 15:49:10.269100 16082 net.cpp:425] conv1/relu_7x7 <- conv1/7x7_s2
I0403 15:49:10.269119 16082 net.cpp:386] conv1/relu_7x7 -> conv1/7x7_s2 (in-place)
I0403 15:49:10.269393 16082 net.cpp:141] Setting up conv1/relu_7x7
I0403 15:49:10.269436 16082 net.cpp:148] Top shape: 24 64 112 112 (19267584)
I0403 15:49:10.269454 16082 net.cpp:156] Memory required for data: 168592416
I0403 15:49:10.269469 16082 layer_factory.hpp:77] Creating layer pool1/3x3_s2
I0403 15:49:10.269493 16082 net.cpp:91] Creating Layer pool1/3x3_s2
I0403 15:49:10.269511 16082 net.cpp:425] pool1/3x3_s2 <- conv1/7x7_s2
I0403 15:49:10.269531 16082 net.cpp:399] pool1/3x3_s2 -> pool1/3x3_s2
I0403 15:49:10.269614 16082 net.cpp:141] Setting up pool1/3x3_s2
I0403 15:49:10.269640 16082 net.cpp:148] Top shape: 24 64 56 56 (4816896)
I0403 15:49:10.269655 16082 net.cpp:156] Memory required for data: 187860000
I0403 15:49:10.269670 16082 layer_factory.hpp:77] Creating layer pool1/norm1
I0403 15:49:10.269697 16082 net.cpp:91] Creating Layer pool1/norm1
I0403 15:49:10.269727 16082 net.cpp:425] pool1/norm1 <- pool1/3x3_s2
I0403 15:49:10.269747 16082 net.cpp:399] pool1/norm1 -> pool1/norm1
I0403 15:49:10.270048 16082 net.cpp:141] Setting up pool1/norm1
I0403 15:49:10.270078 16082 net.cpp:148] Top shape: 24 64 56 56 (4816896)
I0403 15:49:10.270094 16082 net.cpp:156] Memory required for data: 207127584
I0403 15:49:10.270110 16082 layer_factory.hpp:77] Creating layer conv2/3x3_reduce
I0403 15:49:10.270135 16082 net.cpp:91] Creating Layer conv2/3x3_reduce
I0403 15:49:10.270153 16082 net.cpp:425] conv2/3x3_reduce <- pool1/norm1
I0403 15:49:10.270171 16082 net.cpp:399] conv2/3x3_reduce -> conv2/3x3_reduce
I0403 15:49:10.271610 16082 net.cpp:141] Setting up conv2/3x3_reduce
I0403 15:49:10.271642 16082 net.cpp:148] Top shape: 24 64 56 56 (4816896)
I0403 15:49:10.271659 16082 net.cpp:156] Memory required for data: 226395168
I0403 15:49:10.271682 16082 layer_factory.hpp:77] Creating layer conv2/relu_3x3_reduce
I0403 15:49:10.271704 16082 net.cpp:91] Creating Layer conv2/relu_3x3_reduce
I0403 15:49:10.271721 16082 net.cpp:425] conv2/relu_3x3_reduce <- conv2/3x3_reduce
I0403 15:49:10.271739 16082 net.cpp:386] conv2/relu_3x3_reduce -> conv2/3x3_reduce (in-place)
I0403 15:49:10.272008 16082 net.cpp:141] Setting up conv2/relu_3x3_reduce
I0403 15:49:10.272035 16082 net.cpp:148] Top shape: 24 64 56 56 (4816896)
I0403 15:49:10.272050 16082 net.cpp:156] Memory required for data: 245662752
I0403 15:49:10.272065 16082 layer_factory.hpp:77] Creating layer conv2/3x3
I0403 15:49:10.272089 16082 net.cpp:91] Creating Layer conv2/3x3
I0403 15:49:10.272109 16082 net.cpp:425] conv2/3x3 <- conv2/3x3_reduce
I0403 15:49:10.272128 16082 net.cpp:399] conv2/3x3 -> conv2/3x3
I0403 15:49:10.274487 16082 net.cpp:141] Setting up conv2/3x3
I0403 15:49:10.274519 16082 net.cpp:148] Top shape: 24 192 56 56 (14450688)
I0403 15:49:10.274545 16082 net.cpp:156] Memory required for data: 303465504
I0403 15:49:10.274571 16082 layer_factory.hpp:77] Creating layer conv2/relu_3x3
I0403 15:49:10.274593 16082 net.cpp:91] Creating Layer conv2/relu_3x3
I0403 15:49:10.274610 16082 net.cpp:425] conv2/relu_3x3 <- conv2/3x3
I0403 15:49:10.274628 16082 net.cpp:386] conv2/relu_3x3 -> conv2/3x3 (in-place)
I0403 15:49:10.274806 16082 net.cpp:141] Setting up conv2/relu_3x3
I0403 15:49:10.274839 16082 net.cpp:148] Top shape: 24 192 56 56 (14450688)
I0403 15:49:10.274889 16082 net.cpp:156] Memory required for data: 361268256
I0403 15:49:10.274905 16082 layer_factory.hpp:77] Creating layer conv2/norm2
I0403 15:49:10.274924 16082 net.cpp:91] Creating Layer conv2/norm2
I0403 15:49:10.274940 16082 net.cpp:425] conv2/norm2 <- conv2/3x3
I0403 15:49:10.274962 16082 net.cpp:399] conv2/norm2 -> conv2/norm2
I0403 15:49:10.275276 16082 net.cpp:141] Setting up conv2/norm2
I0403 15:49:10.275305 16082 net.cpp:148] Top shape: 24 192 56 56 (14450688)
I0403 15:49:10.275324 16082 net.cpp:156] Memory required for data: 419071008
I0403 15:49:10.275346 16082 layer_factory.hpp:77] Creating layer pool2/3x3_s2
I0403 15:49:10.275372 16082 net.cpp:91] Creating Layer pool2/3x3_s2
I0403 15:49:10.275396 16082 net.cpp:425] pool2/3x3_s2 <- conv2/norm2
I0403 15:49:10.275431 16082 net.cpp:399] pool2/3x3_s2 -> pool2/3x3_s2
I0403 15:49:10.275490 16082 net.cpp:141] Setting up pool2/3x3_s2
I0403 15:49:10.275512 16082 net.cpp:148] Top shape: 24 192 28 28 (3612672)
I0403 15:49:10.275527 16082 net.cpp:156] Memory required for data: 433521696
I0403 15:49:10.275547 16082 layer_factory.hpp:77] Creating layer pool2/3x3_s2_pool2/3x3_s2_0_split
I0403 15:49:10.275568 16082 net.cpp:91] Creating Layer pool2/3x3_s2_pool2/3x3_s2_0_split
I0403 15:49:10.275584 16082 net.cpp:425] pool2/3x3_s2_pool2/3x3_s2_0_split <- pool2/3x3_s2
I0403 15:49:10.275604 16082 net.cpp:399] pool2/3x3_s2_pool2/3x3_s2_0_split -> pool2/3x3_s2_pool2/3x3_s2_0_split_0
I0403 15:49:10.275635 16082 net.cpp:399] pool2/3x3_s2_pool2/3x3_s2_0_split -> pool2/3x3_s2_pool2/3x3_s2_0_split_1
I0403 15:49:10.275667 16082 net.cpp:399] pool2/3x3_s2_pool2/3x3_s2_0_split -> pool2/3x3_s2_pool2/3x3_s2_0_split_2
I0403 15:49:10.275696 16082 net.cpp:399] pool2/3x3_s2_pool2/3x3_s2_0_split -> pool2/3x3_s2_pool2/3x3_s2_0_split_3
I0403 15:49:10.275771 16082 net.cpp:141] Setting up pool2/3x3_s2_pool2/3x3_s2_0_split
I0403 15:49:10.275797 16082 net.cpp:148] Top shape: 24 192 28 28 (3612672)
I0403 15:49:10.275815 16082 net.cpp:148] Top shape: 24 192 28 28 (3612672)
I0403 15:49:10.275831 16082 net.cpp:148] Top shape: 24 192 28 28 (3612672)
I0403 15:49:10.275846 16082 net.cpp:148] Top shape: 24 192 28 28 (3612672)
I0403 15:49:10.275861 16082 net.cpp:156] Memory required for data: 491324448
I0403 15:49:10.275876 16082 layer_factory.hpp:77] Creating layer inception_3a/1x1
I0403 15:49:10.275897 16082 net.cpp:91] Creating Layer inception_3a/1x1
I0403 15:49:10.275913 16082 net.cpp:425] inception_3a/1x1 <- pool2/3x3_s2_pool2/3x3_s2_0_split_0
I0403 15:49:10.275935 16082 net.cpp:399] inception_3a/1x1 -> inception_3a/1x1
I0403 15:49:10.277575 16082 net.cpp:141] Setting up inception_3a/1x1
I0403 15:49:10.277607 16082 net.cpp:148] Top shape: 24 64 28 28 (1204224)
I0403 15:49:10.277626 16082 net.cpp:156] Memory required for data: 496141344
I0403 15:49:10.277645 16082 layer_factory.hpp:77] Creating layer inception_3a/relu_1x1
I0403 15:49:10.277668 16082 net.cpp:91] Creating Layer inception_3a/relu_1x1
I0403 15:49:10.277686 16082 net.cpp:425] inception_3a/relu_1x1 <- inception_3a/1x1
I0403 15:49:10.277704 16082 net.cpp:386] inception_3a/relu_1x1 -> inception_3a/1x1 (in-place)
I0403 15:49:10.277885 16082 net.cpp:141] Setting up inception_3a/relu_1x1
I0403 15:49:10.277914 16082 net.cpp:148] Top shape: 24 64 28 28 (1204224)
I0403 15:49:10.277930 16082 net.cpp:156] Memory required for data: 500958240
I0403 15:49:10.277946 16082 layer_factory.hpp:77] Creating layer inception_3a/3x3_reduce
I0403 15:49:10.277974 16082 net.cpp:91] Creating Layer inception_3a/3x3_reduce
I0403 15:49:10.277992 16082 net.cpp:425] inception_3a/3x3_reduce <- pool2/3x3_s2_pool2/3x3_s2_0_split_1
I0403 15:49:10.278012 16082 net.cpp:399] inception_3a/3x3_reduce -> inception_3a/3x3_reduce
I0403 15:49:10.279806 16082 net.cpp:141] Setting up inception_3a/3x3_reduce
I0403 15:49:10.279839 16082 net.cpp:148] Top shape: 24 96 28 28 (1806336)
I0403 15:49:10.279856 16082 net.cpp:156] Memory required for data: 508183584
I0403 15:49:10.279878 16082 layer_factory.hpp:77] Creating layer inception_3a/relu_3x3_reduce
I0403 15:49:10.279920 16082 net.cpp:91] Creating Layer inception_3a/relu_3x3_reduce
I0403 15:49:10.279942 16082 net.cpp:425] inception_3a/relu_3x3_reduce <- inception_3a/3x3_reduce
I0403 15:49:10.279963 16082 net.cpp:386] inception_3a/relu_3x3_reduce -> inception_3a/3x3_reduce (in-place)
I0403 15:49:10.280155 16082 net.cpp:141] Setting up inception_3a/relu_3x3_reduce
I0403 15:49:10.280184 16082 net.cpp:148] Top shape: 24 96 28 28 (1806336)
I0403 15:49:10.280200 16082 net.cpp:156] Memory required for data: 515408928
I0403 15:49:10.280215 16082 layer_factory.hpp:77] Creating layer inception_3a/3x3
I0403 15:49:10.280239 16082 net.cpp:91] Creating Layer inception_3a/3x3
I0403 15:49:10.280261 16082 net.cpp:425] inception_3a/3x3 <- inception_3a/3x3_reduce
I0403 15:49:10.280285 16082 net.cpp:399] inception_3a/3x3 -> inception_3a/3x3
I0403 15:49:10.282063 16082 net.cpp:141] Setting up inception_3a/3x3
I0403 15:49:10.282094 16082 net.cpp:148] Top shape: 24 128 28 28 (2408448)
I0403 15:49:10.282112 16082 net.cpp:156] Memory required for data: 525042720
I0403 15:49:10.282131 16082 layer_factory.hpp:77] Creating layer inception_3a/relu_3x3
I0403 15:49:10.282156 16082 net.cpp:91] Creating Layer inception_3a/relu_3x3
I0403 15:49:10.282173 16082 net.cpp:425] inception_3a/relu_3x3 <- inception_3a/3x3
I0403 15:49:10.282192 16082 net.cpp:386] inception_3a/relu_3x3 -> inception_3a/3x3 (in-place)
I0403 15:49:10.282481 16082 net.cpp:141] Setting up inception_3a/relu_3x3
I0403 15:49:10.282510 16082 net.cpp:148] Top shape: 24 128 28 28 (2408448)
I0403 15:49:10.282527 16082 net.cpp:156] Memory required for data: 534676512
I0403 15:49:10.282560 16082 layer_factory.hpp:77] Creating layer inception_3a/5x5_reduce
I0403 15:49:10.282585 16082 net.cpp:91] Creating Layer inception_3a/5x5_reduce
I0403 15:49:10.282603 16082 net.cpp:425] inception_3a/5x5_reduce <- pool2/3x3_s2_pool2/3x3_s2_0_split_2
I0403 15:49:10.282626 16082 net.cpp:399] inception_3a/5x5_reduce -> inception_3a/5x5_reduce
I0403 15:49:10.283602 16082 net.cpp:141] Setting up inception_3a/5x5_reduce
I0403 15:49:10.283634 16082 net.cpp:148] Top shape: 24 16 28 28 (301056)
I0403 15:49:10.283651 16082 net.cpp:156] Memory required for data: 535880736
I0403 15:49:10.283669 16082 layer_factory.hpp:77] Creating layer inception_3a/relu_5x5_reduce
I0403 15:49:10.283687 16082 net.cpp:91] Creating Layer inception_3a/relu_5x5_reduce
I0403 15:49:10.283704 16082 net.cpp:425] inception_3a/relu_5x5_reduce <- inception_3a/5x5_reduce
I0403 15:49:10.283720 16082 net.cpp:386] inception_3a/relu_5x5_reduce -> inception_3a/5x5_reduce (in-place)
I0403 15:49:10.284024 16082 net.cpp:141] Setting up inception_3a/relu_5x5_reduce
I0403 15:49:10.284049 16082 net.cpp:148] Top shape: 24 16 28 28 (301056)
I0403 15:49:10.284065 16082 net.cpp:156] Memory required for data: 537084960
I0403 15:49:10.284078 16082 layer_factory.hpp:77] Creating layer inception_3a/5x5
I0403 15:49:10.284101 16082 net.cpp:91] Creating Layer inception_3a/5x5
I0403 15:49:10.284118 16082 net.cpp:425] inception_3a/5x5 <- inception_3a/5x5_reduce
I0403 15:49:10.284139 16082 net.cpp:399] inception_3a/5x5 -> inception_3a/5x5
I0403 15:49:10.285177 16082 net.cpp:141] Setting up inception_3a/5x5
I0403 15:49:10.285207 16082 net.cpp:148] Top shape: 24 32 28 28 (602112)
I0403 15:49:10.285224 16082 net.cpp:156] Memory required for data: 539493408
I0403 15:49:10.285243 16082 layer_factory.hpp:77] Creating layer inception_3a/relu_5x5
I0403 15:49:10.285267 16082 net.cpp:91] Creating Layer inception_3a/relu_5x5
I0403 15:49:10.285284 16082 net.cpp:425] inception_3a/relu_5x5 <- inception_3a/5x5
I0403 15:49:10.285301 16082 net.cpp:386] inception_3a/relu_5x5 -> inception_3a/5x5 (in-place)
I0403 15:49:10.285478 16082 net.cpp:141] Setting up inception_3a/relu_5x5
I0403 15:49:10.285506 16082 net.cpp:148] Top shape: 24 32 28 28 (602112)
I0403 15:49:10.285521 16082 net.cpp:156] Memory required for data: 541901856
I0403 15:49:10.285539 16082 layer_factory.hpp:77] Creating layer inception_3a/pool
I0403 15:49:10.285559 16082 net.cpp:91] Creating Layer inception_3a/pool
I0403 15:49:10.285575 16082 net.cpp:425] inception_3a/pool <- pool2/3x3_s2_pool2/3x3_s2_0_split_3
I0403 15:49:10.285611 16082 net.cpp:399] inception_3a/pool -> inception_3a/pool
I0403 15:49:10.285671 16082 net.cpp:141] Setting up inception_3a/pool
I0403 15:49:10.285696 16082 net.cpp:148] Top shape: 24 192 28 28 (3612672)
I0403 15:49:10.285711 16082 net.cpp:156] Memory required for data: 556352544
I0403 15:49:10.285724 16082 layer_factory.hpp:77] Creating layer inception_3a/pool_proj
I0403 15:49:10.285747 16082 net.cpp:91] Creating Layer inception_3a/pool_proj
I0403 15:49:10.285764 16082 net.cpp:425] inception_3a/pool_proj <- inception_3a/pool
I0403 15:49:10.285787 16082 net.cpp:399] inception_3a/pool_proj -> inception_3a/pool_proj
I0403 15:49:10.286767 16082 net.cpp:141] Setting up inception_3a/pool_proj
I0403 15:49:10.286797 16082 net.cpp:148] Top shape: 24 32 28 28 (602112)
I0403 15:49:10.286813 16082 net.cpp:156] Memory required for data: 558760992
I0403 15:49:10.286839 16082 layer_factory.hpp:77] Creating layer inception_3a/relu_pool_proj
I0403 15:49:10.286860 16082 net.cpp:91] Creating Layer inception_3a/relu_pool_proj
I0403 15:49:10.286876 16082 net.cpp:425] inception_3a/relu_pool_proj <- inception_3a/pool_proj
I0403 15:49:10.286895 16082 net.cpp:386] inception_3a/relu_pool_proj -> inception_3a/pool_proj (in-place)
I0403 15:49:10.287173 16082 net.cpp:141] Setting up inception_3a/relu_pool_proj
I0403 15:49:10.287201 16082 net.cpp:148] Top shape: 24 32 28 28 (602112)
I0403 15:49:10.287217 16082 net.cpp:156] Memory required for data: 561169440
I0403 15:49:10.287232 16082 layer_factory.hpp:77] Creating layer inception_3a/output
I0403 15:49:10.287252 16082 net.cpp:91] Creating Layer inception_3a/output
I0403 15:49:10.287271 16082 net.cpp:425] inception_3a/output <- inception_3a/1x1
I0403 15:49:10.287287 16082 net.cpp:425] inception_3a/output <- inception_3a/3x3
I0403 15:49:10.287303 16082 net.cpp:425] inception_3a/output <- inception_3a/5x5
I0403 15:49:10.287319 16082 net.cpp:425] inception_3a/output <- inception_3a/pool_proj
I0403 15:49:10.287335 16082 net.cpp:399] inception_3a/output -> inception_3a/output
I0403 15:49:10.287384 16082 net.cpp:141] Setting up inception_3a/output
I0403 15:49:10.287406 16082 net.cpp:148] Top shape: 24 256 28 28 (4816896)
I0403 15:49:10.287421 16082 net.cpp:156] Memory required for data: 580437024
I0403 15:49:10.287436 16082 layer_factory.hpp:77] Creating layer inception_3a/output_inception_3a/output_0_split
I0403 15:49:10.287452 16082 net.cpp:91] Creating Layer inception_3a/output_inception_3a/output_0_split
I0403 15:49:10.287468 16082 net.cpp:425] inception_3a/output_inception_3a/output_0_split <- inception_3a/output
I0403 15:49:10.287487 16082 net.cpp:399] inception_3a/output_inception_3a/output_0_split -> inception_3a/output_inception_3a/output_0_split_0
I0403 15:49:10.287508 16082 net.cpp:399] inception_3a/output_inception_3a/output_0_split -> inception_3a/output_inception_3a/output_0_split_1
I0403 15:49:10.287533 16082 net.cpp:399] inception_3a/output_inception_3a/output_0_split -> inception_3a/output_inception_3a/output_0_split_2
I0403 15:49:10.287560 16082 net.cpp:399] inception_3a/output_inception_3a/output_0_split -> inception_3a/output_inception_3a/output_0_split_3
I0403 15:49:10.287637 16082 net.cpp:141] Setting up inception_3a/output_inception_3a/output_0_split
I0403 15:49:10.287662 16082 net.cpp:148] Top shape: 24 256 28 28 (4816896)
I0403 15:49:10.287678 16082 net.cpp:148] Top shape: 24 256 28 28 (4816896)
I0403 15:49:10.287693 16082 net.cpp:148] Top shape: 24 256 28 28 (4816896)
I0403 15:49:10.287708 16082 net.cpp:148] Top shape: 24 256 28 28 (4816896)
I0403 15:49:10.287722 16082 net.cpp:156] Memory required for data: 657507360
I0403 15:49:10.287736 16082 layer_factory.hpp:77] Creating layer inception_3b/1x1
I0403 15:49:10.287758 16082 net.cpp:91] Creating Layer inception_3b/1x1
I0403 15:49:10.287776 16082 net.cpp:425] inception_3b/1x1 <- inception_3a/output_inception_3a/output_0_split_0
I0403 15:49:10.287797 16082 net.cpp:399] inception_3b/1x1 -> inception_3b/1x1
I0403 15:49:10.288952 16082 net.cpp:141] Setting up inception_3b/1x1
I0403 15:49:10.288992 16082 net.cpp:148] Top shape: 24 128 28 28 (2408448)
I0403 15:49:10.289010 16082 net.cpp:156] Memory required for data: 667141152
I0403 15:49:10.289027 16082 layer_factory.hpp:77] Creating layer inception_3b/relu_1x1
I0403 15:49:10.289048 16082 net.cpp:91] Creating Layer inception_3b/relu_1x1
I0403 15:49:10.289067 16082 net.cpp:425] inception_3b/relu_1x1 <- inception_3b/1x1
I0403 15:49:10.289084 16082 net.cpp:386] inception_3b/relu_1x1 -> inception_3b/1x1 (in-place)
I0403 15:49:10.289259 16082 net.cpp:141] Setting up inception_3b/relu_1x1
I0403 15:49:10.289286 16082 net.cpp:148] Top shape: 24 128 28 28 (2408448)
I0403 15:49:10.289306 16082 net.cpp:156] Memory required for data: 676774944
I0403 15:49:10.289322 16082 layer_factory.hpp:77] Creating layer inception_3b/3x3_reduce
I0403 15:49:10.289342 16082 net.cpp:91] Creating Layer inception_3b/3x3_reduce
I0403 15:49:10.289361 16082 net.cpp:425] inception_3b/3x3_reduce <- inception_3a/output_inception_3a/output_0_split_1
I0403 15:49:10.289382 16082 net.cpp:399] inception_3b/3x3_reduce -> inception_3b/3x3_reduce
I0403 15:49:10.290563 16082 net.cpp:141] Setting up inception_3b/3x3_reduce
I0403 15:49:10.290592 16082 net.cpp:148] Top shape: 24 128 28 28 (2408448)
I0403 15:49:10.290611 16082 net.cpp:156] Memory required for data: 686408736
I0403 15:49:10.290628 16082 layer_factory.hpp:77] Creating layer inception_3b/relu_3x3_reduce
I0403 15:49:10.290649 16082 net.cpp:91] Creating Layer inception_3b/relu_3x3_reduce
I0403 15:49:10.290668 16082 net.cpp:425] inception_3b/relu_3x3_reduce <- inception_3b/3x3_reduce
I0403 15:49:10.290685 16082 net.cpp:386] inception_3b/relu_3x3_reduce -> inception_3b/3x3_reduce (in-place)
I0403 15:49:10.290861 16082 net.cpp:141] Setting up inception_3b/relu_3x3_reduce
I0403 15:49:10.290889 16082 net.cpp:148] Top shape: 24 128 28 28 (2408448)
I0403 15:49:10.290904 16082 net.cpp:156] Memory required for data: 696042528
I0403 15:49:10.290917 16082 layer_factory.hpp:77] Creating layer inception_3b/3x3
I0403 15:49:10.290946 16082 net.cpp:91] Creating Layer inception_3b/3x3
I0403 15:49:10.290964 16082 net.cpp:425] inception_3b/3x3 <- inception_3b/3x3_reduce
I0403 15:49:10.290984 16082 net.cpp:399] inception_3b/3x3 -> inception_3b/3x3
I0403 15:49:10.293987 16082 net.cpp:141] Setting up inception_3b/3x3
I0403 15:49:10.294018 16082 net.cpp:148] Top shape: 24 192 28 28 (3612672)
I0403 15:49:10.294036 16082 net.cpp:156] Memory required for data: 710493216
I0403 15:49:10.294056 16082 layer_factory.hpp:77] Creating layer inception_3b/relu_3x3
I0403 15:49:10.294078 16082 net.cpp:91] Creating Layer inception_3b/relu_3x3
I0403 15:49:10.294095 16082 net.cpp:425] inception_3b/relu_3x3 <- inception_3b/3x3
I0403 15:49:10.294113 16082 net.cpp:386] inception_3b/relu_3x3 -> inception_3b/3x3 (in-place)
I0403 15:49:10.294397 16082 net.cpp:141] Setting up inception_3b/relu_3x3
I0403 15:49:10.294426 16082 net.cpp:148] Top shape: 24 192 28 28 (3612672)
I0403 15:49:10.294442 16082 net.cpp:156] Memory required for data: 724943904
I0403 15:49:10.294458 16082 layer_factory.hpp:77] Creating layer inception_3b/5x5_reduce
I0403 15:49:10.294481 16082 net.cpp:91] Creating Layer inception_3b/5x5_reduce
I0403 15:49:10.294498 16082 net.cpp:425] inception_3b/5x5_reduce <- inception_3a/output_inception_3a/output_0_split_2
I0403 15:49:10.294533 16082 net.cpp:399] inception_3b/5x5_reduce -> inception_3b/5x5_reduce
I0403 15:49:10.295557 16082 net.cpp:141] Setting up inception_3b/5x5_reduce
I0403 15:49:10.295588 16082 net.cpp:148] Top shape: 24 32 28 28 (602112)
I0403 15:49:10.295604 16082 net.cpp:156] Memory required for data: 727352352
I0403 15:49:10.295624 16082 layer_factory.hpp:77] Creating layer inception_3b/relu_5x5_reduce
I0403 15:49:10.295646 16082 net.cpp:91] Creating Layer inception_3b/relu_5x5_reduce
I0403 15:49:10.295665 16082 net.cpp:425] inception_3b/relu_5x5_reduce <- inception_3b/5x5_reduce
I0403 15:49:10.295681 16082 net.cpp:386] inception_3b/relu_5x5_reduce -> inception_3b/5x5_reduce (in-place)
I0403 15:49:10.295861 16082 net.cpp:141] Setting up inception_3b/relu_5x5_reduce
I0403 15:49:10.295902 16082 net.cpp:148] Top shape: 24 32 28 28 (602112)
I0403 15:49:10.295918 16082 net.cpp:156] Memory required for data: 729760800
I0403 15:49:10.295933 16082 layer_factory.hpp:77] Creating layer inception_3b/5x5
I0403 15:49:10.295956 16082 net.cpp:91] Creating Layer inception_3b/5x5
I0403 15:49:10.295974 16082 net.cpp:425] inception_3b/5x5 <- inception_3b/5x5_reduce
I0403 15:49:10.295994 16082 net.cpp:399] inception_3b/5x5 -> inception_3b/5x5
I0403 15:49:10.298060 16082 net.cpp:141] Setting up inception_3b/5x5
I0403 15:49:10.298091 16082 net.cpp:148] Top shape: 24 96 28 28 (1806336)
I0403 15:49:10.298110 16082 net.cpp:156] Memory required for data: 736986144
I0403 15:49:10.298128 16082 layer_factory.hpp:77] Creating layer inception_3b/relu_5x5
I0403 15:49:10.298151 16082 net.cpp:91] Creating Layer inception_3b/relu_5x5
I0403 15:49:10.298171 16082 net.cpp:425] inception_3b/relu_5x5 <- inception_3b/5x5
I0403 15:49:10.298187 16082 net.cpp:386] inception_3b/relu_5x5 -> inception_3b/5x5 (in-place)
I0403 15:49:10.298387 16082 net.cpp:141] Setting up inception_3b/relu_5x5
I0403 15:49:10.298413 16082 net.cpp:148] Top shape: 24 96 28 28 (1806336)
I0403 15:49:10.298429 16082 net.cpp:156] Memory required for data: 744211488
I0403 15:49:10.298444 16082 layer_factory.hpp:77] Creating layer inception_3b/pool
I0403 15:49:10.298465 16082 net.cpp:91] Creating Layer inception_3b/pool
I0403 15:49:10.298481 16082 net.cpp:425] inception_3b/pool <- inception_3a/output_inception_3a/output_0_split_3
I0403 15:49:10.298501 16082 net.cpp:399] inception_3b/pool -> inception_3b/pool
I0403 15:49:10.298571 16082 net.cpp:141] Setting up inception_3b/pool
I0403 15:49:10.298595 16082 net.cpp:148] Top shape: 24 256 28 28 (4816896)
I0403 15:49:10.298610 16082 net.cpp:156] Memory required for data: 763479072
I0403 15:49:10.298625 16082 layer_factory.hpp:77] Creating layer inception_3b/pool_proj
I0403 15:49:10.298647 16082 net.cpp:91] Creating Layer inception_3b/pool_proj
I0403 15:49:10.298666 16082 net.cpp:425] inception_3b/pool_proj <- inception_3b/pool
I0403 15:49:10.298686 16082 net.cpp:399] inception_3b/pool_proj -> inception_3b/pool_proj
I0403 15:49:10.299768 16082 net.cpp:141] Setting up inception_3b/pool_proj
I0403 15:49:10.299800 16082 net.cpp:148] Top shape: 24 64 28 28 (1204224)
I0403 15:49:10.299818 16082 net.cpp:156] Memory required for data: 768295968
I0403 15:49:10.299839 16082 layer_factory.hpp:77] Creating layer inception_3b/relu_pool_proj
I0403 15:49:10.299857 16082 net.cpp:91] Creating Layer inception_3b/relu_pool_proj
I0403 15:49:10.299873 16082 net.cpp:425] inception_3b/relu_pool_proj <- inception_3b/pool_proj
I0403 15:49:10.299893 16082 net.cpp:386] inception_3b/relu_pool_proj -> inception_3b/pool_proj (in-place)
I0403 15:49:10.300292 16082 net.cpp:141] Setting up inception_3b/relu_pool_proj
I0403 15:49:10.300323 16082 net.cpp:148] Top shape: 24 64 28 28 (1204224)
I0403 15:49:10.300341 16082 net.cpp:156] Memory required for data: 773112864
I0403 15:49:10.300356 16082 layer_factory.hpp:77] Creating layer inception_3b/output
I0403 15:49:10.300374 16082 net.cpp:91] Creating Layer inception_3b/output
I0403 15:49:10.300390 16082 net.cpp:425] inception_3b/output <- inception_3b/1x1
I0403 15:49:10.300407 16082 net.cpp:425] inception_3b/output <- inception_3b/3x3
I0403 15:49:10.300426 16082 net.cpp:425] inception_3b/output <- inception_3b/5x5
I0403 15:49:10.300443 16082 net.cpp:425] inception_3b/output <- inception_3b/pool_proj
I0403 15:49:10.300459 16082 net.cpp:399] inception_3b/output -> inception_3b/output
I0403 15:49:10.300505 16082 net.cpp:141] Setting up inception_3b/output
I0403 15:49:10.300529 16082 net.cpp:148] Top shape: 24 480 28 28 (9031680)
I0403 15:49:10.300549 16082 net.cpp:156] Memory required for data: 809239584
I0403 15:49:10.300565 16082 layer_factory.hpp:77] Creating layer pool3/3x3_s2
I0403 15:49:10.300585 16082 net.cpp:91] Creating Layer pool3/3x3_s2
I0403 15:49:10.300601 16082 net.cpp:425] pool3/3x3_s2 <- inception_3b/output
I0403 15:49:10.300619 16082 net.cpp:399] pool3/3x3_s2 -> pool3/3x3_s2
I0403 15:49:10.300694 16082 net.cpp:141] Setting up pool3/3x3_s2
I0403 15:49:10.300717 16082 net.cpp:148] Top shape: 24 480 14 14 (2257920)
I0403 15:49:10.300732 16082 net.cpp:156] Memory required for data: 818271264
I0403 15:49:10.300746 16082 layer_factory.hpp:77] Creating layer pool3/3x3_s2_pool3/3x3_s2_0_split
I0403 15:49:10.300765 16082 net.cpp:91] Creating Layer pool3/3x3_s2_pool3/3x3_s2_0_split
I0403 15:49:10.300779 16082 net.cpp:425] pool3/3x3_s2_pool3/3x3_s2_0_split <- pool3/3x3_s2
I0403 15:49:10.300801 16082 net.cpp:399] pool3/3x3_s2_pool3/3x3_s2_0_split -> pool3/3x3_s2_pool3/3x3_s2_0_split_0
I0403 15:49:10.300822 16082 net.cpp:399] pool3/3x3_s2_pool3/3x3_s2_0_split -> pool3/3x3_s2_pool3/3x3_s2_0_split_1
I0403 15:49:10.300843 16082 net.cpp:399] pool3/3x3_s2_pool3/3x3_s2_0_split -> pool3/3x3_s2_pool3/3x3_s2_0_split_2
I0403 15:49:10.300863 16082 net.cpp:399] pool3/3x3_s2_pool3/3x3_s2_0_split -> pool3/3x3_s2_pool3/3x3_s2_0_split_3
I0403 15:49:10.300942 16082 net.cpp:141] Setting up pool3/3x3_s2_pool3/3x3_s2_0_split
I0403 15:49:10.300967 16082 net.cpp:148] Top shape: 24 480 14 14 (2257920)
I0403 15:49:10.300984 16082 net.cpp:148] Top shape: 24 480 14 14 (2257920)
I0403 15:49:10.300999 16082 net.cpp:148] Top shape: 24 480 14 14 (2257920)
I0403 15:49:10.301014 16082 net.cpp:148] Top shape: 24 480 14 14 (2257920)
I0403 15:49:10.301028 16082 net.cpp:156] Memory required for data: 854397984
I0403 15:49:10.301041 16082 layer_factory.hpp:77] Creating layer inception_4a/1x1
I0403 15:49:10.301064 16082 net.cpp:91] Creating Layer inception_4a/1x1
I0403 15:49:10.301081 16082 net.cpp:425] inception_4a/1x1 <- pool3/3x3_s2_pool3/3x3_s2_0_split_0
I0403 15:49:10.301100 16082 net.cpp:399] inception_4a/1x1 -> inception_4a/1x1
I0403 15:49:10.302747 16082 net.cpp:141] Setting up inception_4a/1x1
I0403 15:49:10.302778 16082 net.cpp:148] Top shape: 24 192 14 14 (903168)
I0403 15:49:10.302796 16082 net.cpp:156] Memory required for data: 858010656
I0403 15:49:10.302815 16082 layer_factory.hpp:77] Creating layer inception_4a/relu_1x1
I0403 15:49:10.302834 16082 net.cpp:91] Creating Layer inception_4a/relu_1x1
I0403 15:49:10.302851 16082 net.cpp:425] inception_4a/relu_1x1 <- inception_4a/1x1
I0403 15:49:10.302870 16082 net.cpp:386] inception_4a/relu_1x1 -> inception_4a/1x1 (in-place)
I0403 15:49:10.303050 16082 net.cpp:141] Setting up inception_4a/relu_1x1
I0403 15:49:10.303076 16082 net.cpp:148] Top shape: 24 192 14 14 (903168)
I0403 15:49:10.303092 16082 net.cpp:156] Memory required for data: 861623328
I0403 15:49:10.303107 16082 layer_factory.hpp:77] Creating layer inception_4a/3x3_reduce
I0403 15:49:10.303128 16082 net.cpp:91] Creating Layer inception_4a/3x3_reduce
I0403 15:49:10.303146 16082 net.cpp:425] inception_4a/3x3_reduce <- pool3/3x3_s2_pool3/3x3_s2_0_split_1
I0403 15:49:10.303167 16082 net.cpp:399] inception_4a/3x3_reduce -> inception_4a/3x3_reduce
I0403 15:49:10.304472 16082 net.cpp:141] Setting up inception_4a/3x3_reduce
I0403 15:49:10.304502 16082 net.cpp:148] Top shape: 24 96 14 14 (451584)
I0403 15:49:10.304518 16082 net.cpp:156] Memory required for data: 863429664
I0403 15:49:10.304555 16082 layer_factory.hpp:77] Creating layer inception_4a/relu_3x3_reduce
I0403 15:49:10.304579 16082 net.cpp:91] Creating Layer inception_4a/relu_3x3_reduce
I0403 15:49:10.304595 16082 net.cpp:425] inception_4a/relu_3x3_reduce <- inception_4a/3x3_reduce
I0403 15:49:10.304615 16082 net.cpp:386] inception_4a/relu_3x3_reduce -> inception_4a/3x3_reduce (in-place)
I0403 15:49:10.304797 16082 net.cpp:141] Setting up inception_4a/relu_3x3_reduce
I0403 15:49:10.304823 16082 net.cpp:148] Top shape: 24 96 14 14 (451584)
I0403 15:49:10.304839 16082 net.cpp:156] Memory required for data: 865236000
I0403 15:49:10.304855 16082 layer_factory.hpp:77] Creating layer inception_4a/3x3
I0403 15:49:10.304877 16082 net.cpp:91] Creating Layer inception_4a/3x3
I0403 15:49:10.304895 16082 net.cpp:425] inception_4a/3x3 <- inception_4a/3x3_reduce
I0403 15:49:10.304918 16082 net.cpp:399] inception_4a/3x3 -> inception_4a/3x3
I0403 15:49:10.307731 16082 net.cpp:141] Setting up inception_4a/3x3
I0403 15:49:10.307761 16082 net.cpp:148] Top shape: 24 208 14 14 (978432)
I0403 15:49:10.307777 16082 net.cpp:156] Memory required for data: 869149728
I0403 15:49:10.307797 16082 layer_factory.hpp:77] Creating layer inception_4a/relu_3x3
I0403 15:49:10.307818 16082 net.cpp:91] Creating Layer inception_4a/relu_3x3
I0403 15:49:10.307835 16082 net.cpp:425] inception_4a/relu_3x3 <- inception_4a/3x3
I0403 15:49:10.307854 16082 net.cpp:386] inception_4a/relu_3x3 -> inception_4a/3x3 (in-place)
I0403 15:49:10.308141 16082 net.cpp:141] Setting up inception_4a/relu_3x3
I0403 15:49:10.308169 16082 net.cpp:148] Top shape: 24 208 14 14 (978432)
I0403 15:49:10.308187 16082 net.cpp:156] Memory required for data: 873063456
I0403 15:49:10.308202 16082 layer_factory.hpp:77] Creating layer inception_4a/5x5_reduce
I0403 15:49:10.308224 16082 net.cpp:91] Creating Layer inception_4a/5x5_reduce
I0403 15:49:10.308243 16082 net.cpp:425] inception_4a/5x5_reduce <- pool3/3x3_s2_pool3/3x3_s2_0_split_2
I0403 15:49:10.308264 16082 net.cpp:399] inception_4a/5x5_reduce -> inception_4a/5x5_reduce
I0403 15:49:10.309321 16082 net.cpp:141] Setting up inception_4a/5x5_reduce
I0403 15:49:10.309350 16082 net.cpp:148] Top shape: 24 16 14 14 (75264)
I0403 15:49:10.309366 16082 net.cpp:156] Memory required for data: 873364512
I0403 15:49:10.309386 16082 layer_factory.hpp:77] Creating layer inception_4a/relu_5x5_reduce
I0403 15:49:10.309406 16082 net.cpp:91] Creating Layer inception_4a/relu_5x5_reduce
I0403 15:49:10.309423 16082 net.cpp:425] inception_4a/relu_5x5_reduce <- inception_4a/5x5_reduce
I0403 15:49:10.309440 16082 net.cpp:386] inception_4a/relu_5x5_reduce -> inception_4a/5x5_reduce (in-place)
I0403 15:49:10.309648 16082 net.cpp:141] Setting up inception_4a/relu_5x5_reduce
I0403 15:49:10.309679 16082 net.cpp:148] Top shape: 24 16 14 14 (75264)
I0403 15:49:10.309695 16082 net.cpp:156] Memory required for data: 873665568
I0403 15:49:10.309710 16082 layer_factory.hpp:77] Creating layer inception_4a/5x5
I0403 15:49:10.309733 16082 net.cpp:91] Creating Layer inception_4a/5x5
I0403 15:49:10.309751 16082 net.cpp:425] inception_4a/5x5 <- inception_4a/5x5_reduce
I0403 15:49:10.309770 16082 net.cpp:399] inception_4a/5x5 -> inception_4a/5x5
I0403 15:49:10.310901 16082 net.cpp:141] Setting up inception_4a/5x5
I0403 15:49:10.310933 16082 net.cpp:148] Top shape: 24 48 14 14 (225792)
I0403 15:49:10.310951 16082 net.cpp:156] Memory required for data: 874568736
I0403 15:49:10.310971 16082 layer_factory.hpp:77] Creating layer inception_4a/relu_5x5
I0403 15:49:10.310989 16082 net.cpp:91] Creating Layer inception_4a/relu_5x5
I0403 15:49:10.311005 16082 net.cpp:425] inception_4a/relu_5x5 <- inception_4a/5x5
I0403 15:49:10.311022 16082 net.cpp:386] inception_4a/relu_5x5 -> inception_4a/5x5 (in-place)
I0403 15:49:10.311206 16082 net.cpp:141] Setting up inception_4a/relu_5x5
I0403 15:49:10.311233 16082 net.cpp:148] Top shape: 24 48 14 14 (225792)
I0403 15:49:10.311246 16082 net.cpp:156] Memory required for data: 875471904
I0403 15:49:10.311264 16082 layer_factory.hpp:77] Creating layer inception_4a/pool
I0403 15:49:10.311281 16082 net.cpp:91] Creating Layer inception_4a/pool
I0403 15:49:10.311296 16082 net.cpp:425] inception_4a/pool <- pool3/3x3_s2_pool3/3x3_s2_0_split_3
I0403 15:49:10.311316 16082 net.cpp:399] inception_4a/pool -> inception_4a/pool
I0403 15:49:10.311378 16082 net.cpp:141] Setting up inception_4a/pool
I0403 15:49:10.311405 16082 net.cpp:148] Top shape: 24 480 14 14 (2257920)
I0403 15:49:10.311421 16082 net.cpp:156] Memory required for data: 884503584
I0403 15:49:10.311435 16082 layer_factory.hpp:77] Creating layer inception_4a/pool_proj
I0403 15:49:10.311457 16082 net.cpp:91] Creating Layer inception_4a/pool_proj
I0403 15:49:10.311475 16082 net.cpp:425] inception_4a/pool_proj <- inception_4a/pool
I0403 15:49:10.311493 16082 net.cpp:399] inception_4a/pool_proj -> inception_4a/pool_proj
I0403 15:49:10.312697 16082 net.cpp:141] Setting up inception_4a/pool_proj
I0403 15:49:10.312727 16082 net.cpp:148] Top shape: 24 64 14 14 (301056)
I0403 15:49:10.312759 16082 net.cpp:156] Memory required for data: 885707808
I0403 15:49:10.312780 16082 layer_factory.hpp:77] Creating layer inception_4a/relu_pool_proj
I0403 15:49:10.312800 16082 net.cpp:91] Creating Layer inception_4a/relu_pool_proj
I0403 15:49:10.312818 16082 net.cpp:425] inception_4a/relu_pool_proj <- inception_4a/pool_proj
I0403 15:49:10.312839 16082 net.cpp:386] inception_4a/relu_pool_proj -> inception_4a/pool_proj (in-place)
I0403 15:49:10.313135 16082 net.cpp:141] Setting up inception_4a/relu_pool_proj
I0403 15:49:10.313163 16082 net.cpp:148] Top shape: 24 64 14 14 (301056)
I0403 15:49:10.313180 16082 net.cpp:156] Memory required for data: 886912032
I0403 15:49:10.313196 16082 layer_factory.hpp:77] Creating layer inception_4a/output
I0403 15:49:10.313215 16082 net.cpp:91] Creating Layer inception_4a/output
I0403 15:49:10.313230 16082 net.cpp:425] inception_4a/output <- inception_4a/1x1
I0403 15:49:10.313248 16082 net.cpp:425] inception_4a/output <- inception_4a/3x3
I0403 15:49:10.313266 16082 net.cpp:425] inception_4a/output <- inception_4a/5x5
I0403 15:49:10.313282 16082 net.cpp:425] inception_4a/output <- inception_4a/pool_proj
I0403 15:49:10.313302 16082 net.cpp:399] inception_4a/output -> inception_4a/output
I0403 15:49:10.313349 16082 net.cpp:141] Setting up inception_4a/output
I0403 15:49:10.313375 16082 net.cpp:148] Top shape: 24 512 14 14 (2408448)
I0403 15:49:10.313392 16082 net.cpp:156] Memory required for data: 896545824
I0403 15:49:10.313408 16082 layer_factory.hpp:77] Creating layer inception_4a/output_inception_4a/output_0_split
I0403 15:49:10.313426 16082 net.cpp:91] Creating Layer inception_4a/output_inception_4a/output_0_split
I0403 15:49:10.313441 16082 net.cpp:425] inception_4a/output_inception_4a/output_0_split <- inception_4a/output
I0403 15:49:10.313459 16082 net.cpp:399] inception_4a/output_inception_4a/output_0_split -> inception_4a/output_inception_4a/output_0_split_0
I0403 15:49:10.313480 16082 net.cpp:399] inception_4a/output_inception_4a/output_0_split -> inception_4a/output_inception_4a/output_0_split_1
I0403 15:49:10.313503 16082 net.cpp:399] inception_4a/output_inception_4a/output_0_split -> inception_4a/output_inception_4a/output_0_split_2
I0403 15:49:10.313525 16082 net.cpp:399] inception_4a/output_inception_4a/output_0_split -> inception_4a/output_inception_4a/output_0_split_3
I0403 15:49:10.313565 16082 net.cpp:399] inception_4a/output_inception_4a/output_0_split -> inception_4a/output_inception_4a/output_0_split_4
I0403 15:49:10.313663 16082 net.cpp:141] Setting up inception_4a/output_inception_4a/output_0_split
I0403 15:49:10.313688 16082 net.cpp:148] Top shape: 24 512 14 14 (2408448)
I0403 15:49:10.313705 16082 net.cpp:148] Top shape: 24 512 14 14 (2408448)
I0403 15:49:10.313720 16082 net.cpp:148] Top shape: 24 512 14 14 (2408448)
I0403 15:49:10.313735 16082 net.cpp:148] Top shape: 24 512 14 14 (2408448)
I0403 15:49:10.313751 16082 net.cpp:148] Top shape: 24 512 14 14 (2408448)
I0403 15:49:10.313766 16082 net.cpp:156] Memory required for data: 944714784
I0403 15:49:10.313781 16082 layer_factory.hpp:77] Creating layer loss1/ave_pool
I0403 15:49:10.313802 16082 net.cpp:91] Creating Layer loss1/ave_pool
I0403 15:49:10.313818 16082 net.cpp:425] loss1/ave_pool <- inception_4a/output_inception_4a/output_0_split_0
I0403 15:49:10.313848 16082 net.cpp:399] loss1/ave_pool -> loss1/ave_pool
I0403 15:49:10.314064 16082 net.cpp:141] Setting up loss1/ave_pool
I0403 15:49:10.314090 16082 net.cpp:148] Top shape: 24 512 4 4 (196608)
I0403 15:49:10.314105 16082 net.cpp:156] Memory required for data: 945501216
I0403 15:49:10.314118 16082 layer_factory.hpp:77] Creating layer loss1/conv
I0403 15:49:10.314141 16082 net.cpp:91] Creating Layer loss1/conv
I0403 15:49:10.314158 16082 net.cpp:425] loss1/conv <- loss1/ave_pool
I0403 15:49:10.314179 16082 net.cpp:399] loss1/conv -> loss1/conv
I0403 15:49:10.315641 16082 net.cpp:141] Setting up loss1/conv
I0403 15:49:10.315670 16082 net.cpp:148] Top shape: 24 128 4 4 (49152)
I0403 15:49:10.315686 16082 net.cpp:156] Memory required for data: 945697824
I0403 15:49:10.315721 16082 layer_factory.hpp:77] Creating layer loss1/relu_conv
I0403 15:49:10.315744 16082 net.cpp:91] Creating Layer loss1/relu_conv
I0403 15:49:10.315762 16082 net.cpp:425] loss1/relu_conv <- loss1/conv
I0403 15:49:10.315781 16082 net.cpp:386] loss1/relu_conv -> loss1/conv (in-place)
I0403 15:49:10.316067 16082 net.cpp:141] Setting up loss1/relu_conv
I0403 15:49:10.316094 16082 net.cpp:148] Top shape: 24 128 4 4 (49152)
I0403 15:49:10.316110 16082 net.cpp:156] Memory required for data: 945894432
I0403 15:49:10.316125 16082 layer_factory.hpp:77] Creating layer loss1/fc
I0403 15:49:10.316151 16082 net.cpp:91] Creating Layer loss1/fc
I0403 15:49:10.316169 16082 net.cpp:425] loss1/fc <- loss1/conv
I0403 15:49:10.316187 16082 net.cpp:399] loss1/fc -> loss1/fc
I0403 15:49:10.333971 16082 net.cpp:141] Setting up loss1/fc
I0403 15:49:10.334002 16082 net.cpp:148] Top shape: 24 1024 (24576)
I0403 15:49:10.334019 16082 net.cpp:156] Memory required for data: 945992736
I0403 15:49:10.334036 16082 layer_factory.hpp:77] Creating layer loss1/relu_fc
I0403 15:49:10.334054 16082 net.cpp:91] Creating Layer loss1/relu_fc
I0403 15:49:10.334070 16082 net.cpp:425] loss1/relu_fc <- loss1/fc
I0403 15:49:10.334090 16082 net.cpp:386] loss1/relu_fc -> loss1/fc (in-place)
I0403 15:49:10.334270 16082 net.cpp:141] Setting up loss1/relu_fc
I0403 15:49:10.334295 16082 net.cpp:148] Top shape: 24 1024 (24576)
I0403 15:49:10.334311 16082 net.cpp:156] Memory required for data: 946091040
I0403 15:49:10.334326 16082 layer_factory.hpp:77] Creating layer loss1/drop_fc
I0403 15:49:10.334353 16082 net.cpp:91] Creating Layer loss1/drop_fc
I0403 15:49:10.334370 16082 net.cpp:425] loss1/drop_fc <- loss1/fc
I0403 15:49:10.334388 16082 net.cpp:386] loss1/drop_fc -> loss1/fc (in-place)
I0403 15:49:10.334434 16082 net.cpp:141] Setting up loss1/drop_fc
I0403 15:49:10.334460 16082 net.cpp:148] Top shape: 24 1024 (24576)
I0403 15:49:10.334475 16082 net.cpp:156] Memory required for data: 946189344
I0403 15:49:10.334489 16082 layer_factory.hpp:77] Creating layer loss1/classifier_plantvillage
I0403 15:49:10.334506 16082 net.cpp:91] Creating Layer loss1/classifier_plantvillage
I0403 15:49:10.334522 16082 net.cpp:425] loss1/classifier_plantvillage <- loss1/fc
I0403 15:49:10.334550 16082 net.cpp:399] loss1/classifier_plantvillage -> loss1/classifier_plantvillage
I0403 15:49:10.335460 16082 net.cpp:141] Setting up loss1/classifier_plantvillage
I0403 15:49:10.335487 16082 net.cpp:148] Top shape: 24 38 (912)
I0403 15:49:10.335501 16082 net.cpp:156] Memory required for data: 946192992
I0403 15:49:10.335518 16082 layer_factory.hpp:77] Creating layer loss1/classifier_plantvillage_loss1/classifier_plantvillage_0_split
I0403 15:49:10.335536 16082 net.cpp:91] Creating Layer loss1/classifier_plantvillage_loss1/classifier_plantvillage_0_split
I0403 15:49:10.335558 16082 net.cpp:425] loss1/classifier_plantvillage_loss1/classifier_plantvillage_0_split <- loss1/classifier_plantvillage
I0403 15:49:10.335575 16082 net.cpp:399] loss1/classifier_plantvillage_loss1/classifier_plantvillage_0_split -> loss1/classifier_plantvillage_loss1/classifier_plantvillage_0_split_0
I0403 15:49:10.335595 16082 net.cpp:399] loss1/classifier_plantvillage_loss1/classifier_plantvillage_0_split -> loss1/classifier_plantvillage_loss1/classifier_plantvillage_0_split_1
I0403 15:49:10.335614 16082 net.cpp:399] loss1/classifier_plantvillage_loss1/classifier_plantvillage_0_split -> loss1/classifier_plantvillage_loss1/classifier_plantvillage_0_split_2
I0403 15:49:10.335678 16082 net.cpp:141] Setting up loss1/classifier_plantvillage_loss1/classifier_plantvillage_0_split
I0403 15:49:10.335703 16082 net.cpp:148] Top shape: 24 38 (912)
I0403 15:49:10.335719 16082 net.cpp:148] Top shape: 24 38 (912)
I0403 15:49:10.335734 16082 net.cpp:148] Top shape: 24 38 (912)
I0403 15:49:10.335747 16082 net.cpp:156] Memory required for data: 946203936
I0403 15:49:10.335762 16082 layer_factory.hpp:77] Creating layer inception_4b/1x1
I0403 15:49:10.335780 16082 net.cpp:91] Creating Layer inception_4b/1x1
I0403 15:49:10.335811 16082 net.cpp:425] inception_4b/1x1 <- inception_4a/output_inception_4a/output_0_split_1
I0403 15:49:10.335831 16082 net.cpp:399] inception_4b/1x1 -> inception_4b/1x1
I0403 15:49:10.337471 16082 net.cpp:141] Setting up inception_4b/1x1
I0403 15:49:10.337499 16082 net.cpp:148] Top shape: 24 160 14 14 (752640)
I0403 15:49:10.337514 16082 net.cpp:156] Memory required for data: 949214496
I0403 15:49:10.337532 16082 layer_factory.hpp:77] Creating layer inception_4b/relu_1x1
I0403 15:49:10.337571 16082 net.cpp:91] Creating Layer inception_4b/relu_1x1
I0403 15:49:10.337589 16082 net.cpp:425] inception_4b/relu_1x1 <- inception_4b/1x1
I0403 15:49:10.337606 16082 net.cpp:386] inception_4b/relu_1x1 -> inception_4b/1x1 (in-place)
I0403 15:49:10.337785 16082 net.cpp:141] Setting up inception_4b/relu_1x1
I0403 15:49:10.337812 16082 net.cpp:148] Top shape: 24 160 14 14 (752640)
I0403 15:49:10.337827 16082 net.cpp:156] Memory required for data: 952225056
I0403 15:49:10.337853 16082 layer_factory.hpp:77] Creating layer inception_4b/3x3_reduce
I0403 15:49:10.337874 16082 net.cpp:91] Creating Layer inception_4b/3x3_reduce
I0403 15:49:10.337891 16082 net.cpp:425] inception_4b/3x3_reduce <- inception_4a/output_inception_4a/output_0_split_2
I0403 15:49:10.337909 16082 net.cpp:399] inception_4b/3x3_reduce -> inception_4b/3x3_reduce
I0403 15:49:10.339226 16082 net.cpp:141] Setting up inception_4b/3x3_reduce
I0403 15:49:10.339253 16082 net.cpp:148] Top shape: 24 112 14 14 (526848)
I0403 15:49:10.339269 16082 net.cpp:156] Memory required for data: 954332448
I0403 15:49:10.339287 16082 layer_factory.hpp:77] Creating layer inception_4b/relu_3x3_reduce
I0403 15:49:10.339308 16082 net.cpp:91] Creating Layer inception_4b/relu_3x3_reduce
I0403 15:49:10.339326 16082 net.cpp:425] inception_4b/relu_3x3_reduce <- inception_4b/3x3_reduce
I0403 15:49:10.339344 16082 net.cpp:386] inception_4b/relu_3x3_reduce -> inception_4b/3x3_reduce (in-place)
I0403 15:49:10.339622 16082 net.cpp:141] Setting up inception_4b/relu_3x3_reduce
I0403 15:49:10.339648 16082 net.cpp:148] Top shape: 24 112 14 14 (526848)
I0403 15:49:10.339661 16082 net.cpp:156] Memory required for data: 956439840
I0403 15:49:10.339675 16082 layer_factory.hpp:77] Creating layer inception_4b/3x3
I0403 15:49:10.339699 16082 net.cpp:91] Creating Layer inception_4b/3x3
I0403 15:49:10.339715 16082 net.cpp:425] inception_4b/3x3 <- inception_4b/3x3_reduce
I0403 15:49:10.339732 16082 net.cpp:399] inception_4b/3x3 -> inception_4b/3x3
I0403 15:49:10.342669 16082 net.cpp:141] Setting up inception_4b/3x3
I0403 15:49:10.342699 16082 net.cpp:148] Top shape: 24 224 14 14 (1053696)
I0403 15:49:10.342713 16082 net.cpp:156] Memory required for data: 960654624
I0403 15:49:10.342731 16082 layer_factory.hpp:77] Creating layer inception_4b/relu_3x3
I0403 15:49:10.342749 16082 net.cpp:91] Creating Layer inception_4b/relu_3x3
I0403 15:49:10.342766 16082 net.cpp:425] inception_4b/relu_3x3 <- inception_4b/3x3
I0403 15:49:10.342784 16082 net.cpp:386] inception_4b/relu_3x3 -> inception_4b/3x3 (in-place)
I0403 15:49:10.342957 16082 net.cpp:141] Setting up inception_4b/relu_3x3
I0403 15:49:10.342980 16082 net.cpp:148] Top shape: 24 224 14 14 (1053696)
I0403 15:49:10.342994 16082 net.cpp:156] Memory required for data: 964869408
I0403 15:49:10.343008 16082 layer_factory.hpp:77] Creating layer inception_4b/5x5_reduce
I0403 15:49:10.343029 16082 net.cpp:91] Creating Layer inception_4b/5x5_reduce
I0403 15:49:10.343046 16082 net.cpp:425] inception_4b/5x5_reduce <- inception_4a/output_inception_4a/output_0_split_3
I0403 15:49:10.343067 16082 net.cpp:399] inception_4b/5x5_reduce -> inception_4b/5x5_reduce
I0403 15:49:10.344123 16082 net.cpp:141] Setting up inception_4b/5x5_reduce
I0403 15:49:10.344151 16082 net.cpp:148] Top shape: 24 24 14 14 (112896)
I0403 15:49:10.344167 16082 net.cpp:156] Memory required for data: 965320992
I0403 15:49:10.344184 16082 layer_factory.hpp:77] Creating layer inception_4b/relu_5x5_reduce
I0403 15:49:10.344205 16082 net.cpp:91] Creating Layer inception_4b/relu_5x5_reduce
I0403 15:49:10.344236 16082 net.cpp:425] inception_4b/relu_5x5_reduce <- inception_4b/5x5_reduce
I0403 15:49:10.344255 16082 net.cpp:386] inception_4b/relu_5x5_reduce -> inception_4b/5x5_reduce (in-place)
I0403 15:49:10.344435 16082 net.cpp:141] Setting up inception_4b/relu_5x5_reduce
I0403 15:49:10.344460 16082 net.cpp:148] Top shape: 24 24 14 14 (112896)
I0403 15:49:10.344475 16082 net.cpp:156] Memory required for data: 965772576
I0403 15:49:10.344488 16082 layer_factory.hpp:77] Creating layer inception_4b/5x5
I0403 15:49:10.344509 16082 net.cpp:91] Creating Layer inception_4b/5x5
I0403 15:49:10.344527 16082 net.cpp:425] inception_4b/5x5 <- inception_4b/5x5_reduce
I0403 15:49:10.344558 16082 net.cpp:399] inception_4b/5x5 -> inception_4b/5x5
I0403 15:49:10.345768 16082 net.cpp:141] Setting up inception_4b/5x5
I0403 15:49:10.345796 16082 net.cpp:148] Top shape: 24 64 14 14 (301056)
I0403 15:49:10.345813 16082 net.cpp:156] Memory required for data: 966976800
I0403 15:49:10.345831 16082 layer_factory.hpp:77] Creating layer inception_4b/relu_5x5
I0403 15:49:10.345863 16082 net.cpp:91] Creating Layer inception_4b/relu_5x5
I0403 15:49:10.345880 16082 net.cpp:425] inception_4b/relu_5x5 <- inception_4b/5x5
I0403 15:49:10.345898 16082 net.cpp:386] inception_4b/relu_5x5 -> inception_4b/5x5 (in-place)
I0403 15:49:10.346174 16082 net.cpp:141] Setting up inception_4b/relu_5x5
I0403 15:49:10.346199 16082 net.cpp:148] Top shape: 24 64 14 14 (301056)
I0403 15:49:10.346213 16082 net.cpp:156] Memory required for data: 968181024
I0403 15:49:10.346227 16082 layer_factory.hpp:77] Creating layer inception_4b/pool
I0403 15:49:10.346246 16082 net.cpp:91] Creating Layer inception_4b/pool
I0403 15:49:10.346264 16082 net.cpp:425] inception_4b/pool <- inception_4a/output_inception_4a/output_0_split_4
I0403 15:49:10.346282 16082 net.cpp:399] inception_4b/pool -> inception_4b/pool
I0403 15:49:10.346344 16082 net.cpp:141] Setting up inception_4b/pool
I0403 15:49:10.346367 16082 net.cpp:148] Top shape: 24 512 14 14 (2408448)
I0403 15:49:10.346380 16082 net.cpp:156] Memory required for data: 977814816
I0403 15:49:10.346395 16082 layer_factory.hpp:77] Creating layer inception_4b/pool_proj
I0403 15:49:10.346415 16082 net.cpp:91] Creating Layer inception_4b/pool_proj
I0403 15:49:10.346432 16082 net.cpp:425] inception_4b/pool_proj <- inception_4b/pool
I0403 15:49:10.346452 16082 net.cpp:399] inception_4b/pool_proj -> inception_4b/pool_proj
I0403 15:49:10.347630 16082 net.cpp:141] Setting up inception_4b/pool_proj
I0403 15:49:10.347657 16082 net.cpp:148] Top shape: 24 64 14 14 (301056)
I0403 15:49:10.347674 16082 net.cpp:156] Memory required for data: 979019040
I0403 15:49:10.347692 16082 layer_factory.hpp:77] Creating layer inception_4b/relu_pool_proj
I0403 15:49:10.347715 16082 net.cpp:91] Creating Layer inception_4b/relu_pool_proj
I0403 15:49:10.347734 16082 net.cpp:425] inception_4b/relu_pool_proj <- inception_4b/pool_proj
I0403 15:49:10.347750 16082 net.cpp:386] inception_4b/relu_pool_proj -> inception_4b/pool_proj (in-place)
I0403 15:49:10.347926 16082 net.cpp:141] Setting up inception_4b/relu_pool_proj
I0403 15:49:10.347951 16082 net.cpp:148] Top shape: 24 64 14 14 (301056)
I0403 15:49:10.347966 16082 net.cpp:156] Memory required for data: 980223264
I0403 15:49:10.347980 16082 layer_factory.hpp:77] Creating layer inception_4b/output
I0403 15:49:10.347996 16082 net.cpp:91] Creating Layer inception_4b/output
I0403 15:49:10.348011 16082 net.cpp:425] inception_4b/output <- inception_4b/1x1
I0403 15:49:10.348026 16082 net.cpp:425] inception_4b/output <- inception_4b/3x3
I0403 15:49:10.348042 16082 net.cpp:425] inception_4b/output <- inception_4b/5x5
I0403 15:49:10.348057 16082 net.cpp:425] inception_4b/output <- inception_4b/pool_proj
I0403 15:49:10.348075 16082 net.cpp:399] inception_4b/output -> inception_4b/output
I0403 15:49:10.348119 16082 net.cpp:141] Setting up inception_4b/output
I0403 15:49:10.348141 16082 net.cpp:148] Top shape: 24 512 14 14 (2408448)
I0403 15:49:10.348155 16082 net.cpp:156] Memory required for data: 989857056
I0403 15:49:10.348182 16082 layer_factory.hpp:77] Creating layer inception_4b/output_inception_4b/output_0_split
I0403 15:49:10.348202 16082 net.cpp:91] Creating Layer inception_4b/output_inception_4b/output_0_split
I0403 15:49:10.348218 16082 net.cpp:425] inception_4b/output_inception_4b/output_0_split <- inception_4b/output
I0403 15:49:10.348234 16082 net.cpp:399] inception_4b/output_inception_4b/output_0_split -> inception_4b/output_inception_4b/output_0_split_0
I0403 15:49:10.348254 16082 net.cpp:399] inception_4b/output_inception_4b/output_0_split -> inception_4b/output_inception_4b/output_0_split_1
I0403 15:49:10.348276 16082 net.cpp:399] inception_4b/output_inception_4b/output_0_split -> inception_4b/output_inception_4b/output_0_split_2
I0403 15:49:10.348297 16082 net.cpp:399] inception_4b/output_inception_4b/output_0_split -> inception_4b/output_inception_4b/output_0_split_3
I0403 15:49:10.348387 16082 net.cpp:141] Setting up inception_4b/output_inception_4b/output_0_split
I0403 15:49:10.348408 16082 net.cpp:148] Top shape: 24 512 14 14 (2408448)
I0403 15:49:10.348423 16082 net.cpp:148] Top shape: 24 512 14 14 (2408448)
I0403 15:49:10.348438 16082 net.cpp:148] Top shape: 24 512 14 14 (2408448)
I0403 15:49:10.348453 16082 net.cpp:148] Top shape: 24 512 14 14 (2408448)
I0403 15:49:10.348465 16082 net.cpp:156] Memory required for data: 1028392224
I0403 15:49:10.348479 16082 layer_factory.hpp:77] Creating layer inception_4c/1x1
I0403 15:49:10.348500 16082 net.cpp:91] Creating Layer inception_4c/1x1
I0403 15:49:10.348517 16082 net.cpp:425] inception_4c/1x1 <- inception_4b/output_inception_4b/output_0_split_0
I0403 15:49:10.348541 16082 net.cpp:399] inception_4c/1x1 -> inception_4c/1x1
I0403 15:49:10.349969 16082 net.cpp:141] Setting up inception_4c/1x1
I0403 15:49:10.349999 16082 net.cpp:148] Top shape: 24 128 14 14 (602112)
I0403 15:49:10.350016 16082 net.cpp:156] Memory required for data: 1030800672
I0403 15:49:10.350034 16082 layer_factory.hpp:77] Creating layer inception_4c/relu_1x1
I0403 15:49:10.350052 16082 net.cpp:91] Creating Layer inception_4c/relu_1x1
I0403 15:49:10.350069 16082 net.cpp:425] inception_4c/relu_1x1 <- inception_4c/1x1
I0403 15:49:10.350090 16082 net.cpp:386] inception_4c/relu_1x1 -> inception_4c/1x1 (in-place)
I0403 15:49:10.350266 16082 net.cpp:141] Setting up inception_4c/relu_1x1
I0403 15:49:10.350291 16082 net.cpp:148] Top shape: 24 128 14 14 (602112)
I0403 15:49:10.350306 16082 net.cpp:156] Memory required for data: 1033209120
I0403 15:49:10.350319 16082 layer_factory.hpp:77] Creating layer inception_4c/3x3_reduce
I0403 15:49:10.350340 16082 net.cpp:91] Creating Layer inception_4c/3x3_reduce
I0403 15:49:10.350358 16082 net.cpp:425] inception_4c/3x3_reduce <- inception_4b/output_inception_4b/output_0_split_1
I0403 15:49:10.350378 16082 net.cpp:399] inception_4c/3x3_reduce -> inception_4c/3x3_reduce
I0403 15:49:10.352284 16082 net.cpp:141] Setting up inception_4c/3x3_reduce
I0403 15:49:10.352313 16082 net.cpp:148] Top shape: 24 128 14 14 (602112)
I0403 15:49:10.352329 16082 net.cpp:156] Memory required for data: 1035617568
I0403 15:49:10.352346 16082 layer_factory.hpp:77] Creating layer inception_4c/relu_3x3_reduce
I0403 15:49:10.352375 16082 net.cpp:91] Creating Layer inception_4c/relu_3x3_reduce
I0403 15:49:10.352391 16082 net.cpp:425] inception_4c/relu_3x3_reduce <- inception_4c/3x3_reduce
I0403 15:49:10.352407 16082 net.cpp:386] inception_4c/relu_3x3_reduce -> inception_4c/3x3_reduce (in-place)
I0403 15:49:10.352694 16082 net.cpp:141] Setting up inception_4c/relu_3x3_reduce
I0403 15:49:10.352720 16082 net.cpp:148] Top shape: 24 128 14 14 (602112)
I0403 15:49:10.352744 16082 net.cpp:156] Memory required for data: 1038026016
I0403 15:49:10.352759 16082 layer_factory.hpp:77] Creating layer inception_4c/3x3
I0403 15:49:10.352780 16082 net.cpp:91] Creating Layer inception_4c/3x3
I0403 15:49:10.352797 16082 net.cpp:425] inception_4c/3x3 <- inception_4c/3x3_reduce
I0403 15:49:10.352819 16082 net.cpp:399] inception_4c/3x3 -> inception_4c/3x3
I0403 15:49:10.356428 16082 net.cpp:141] Setting up inception_4c/3x3
I0403 15:49:10.356469 16082 net.cpp:148] Top shape: 24 256 14 14 (1204224)
I0403 15:49:10.356487 16082 net.cpp:156] Memory required for data: 1042842912
I0403 15:49:10.356518 16082 layer_factory.hpp:77] Creating layer inception_4c/relu_3x3
I0403 15:49:10.356544 16082 net.cpp:91] Creating Layer inception_4c/relu_3x3
I0403 15:49:10.356561 16082 net.cpp:425] inception_4c/relu_3x3 <- inception_4c/3x3
I0403 15:49:10.356585 16082 net.cpp:386] inception_4c/relu_3x3 -> inception_4c/3x3 (in-place)
I0403 15:49:10.356761 16082 net.cpp:141] Setting up inception_4c/relu_3x3
I0403 15:49:10.356786 16082 net.cpp:148] Top shape: 24 256 14 14 (1204224)
I0403 15:49:10.356799 16082 net.cpp:156] Memory required for data: 1047659808
I0403 15:49:10.356813 16082 layer_factory.hpp:77] Creating layer inception_4c/5x5_reduce
I0403 15:49:10.356837 16082 net.cpp:91] Creating Layer inception_4c/5x5_reduce
I0403 15:49:10.356854 16082 net.cpp:425] inception_4c/5x5_reduce <- inception_4b/output_inception_4b/output_0_split_2
I0403 15:49:10.356874 16082 net.cpp:399] inception_4c/5x5_reduce -> inception_4c/5x5_reduce
I0403 15:49:10.357985 16082 net.cpp:141] Setting up inception_4c/5x5_reduce
I0403 15:49:10.358012 16082 net.cpp:148] Top shape: 24 24 14 14 (112896)
I0403 15:49:10.358029 16082 net.cpp:156] Memory required for data: 1048111392
I0403 15:49:10.358047 16082 layer_factory.hpp:77] Creating layer inception_4c/relu_5x5_reduce
I0403 15:49:10.358068 16082 net.cpp:91] Creating Layer inception_4c/relu_5x5_reduce
I0403 15:49:10.358085 16082 net.cpp:425] inception_4c/relu_5x5_reduce <- inception_4c/5x5_reduce
I0403 15:49:10.358103 16082 net.cpp:386] inception_4c/relu_5x5_reduce -> inception_4c/5x5_reduce (in-place)
I0403 15:49:10.358276 16082 net.cpp:141] Setting up inception_4c/relu_5x5_reduce
I0403 15:49:10.358302 16082 net.cpp:148] Top shape: 24 24 14 14 (112896)
I0403 15:49:10.358317 16082 net.cpp:156] Memory required for data: 1048562976
I0403 15:49:10.358331 16082 layer_factory.hpp:77] Creating layer inception_4c/5x5
I0403 15:49:10.358352 16082 net.cpp:91] Creating Layer inception_4c/5x5
I0403 15:49:10.358369 16082 net.cpp:425] inception_4c/5x5 <- inception_4c/5x5_reduce
I0403 15:49:10.358387 16082 net.cpp:399] inception_4c/5x5 -> inception_4c/5x5
I0403 15:49:10.359607 16082 net.cpp:141] Setting up inception_4c/5x5
I0403 15:49:10.359635 16082 net.cpp:148] Top shape: 24 64 14 14 (301056)
I0403 15:49:10.359652 16082 net.cpp:156] Memory required for data: 1049767200
I0403 15:49:10.359668 16082 layer_factory.hpp:77] Creating layer inception_4c/relu_5x5
I0403 15:49:10.359685 16082 net.cpp:91] Creating Layer inception_4c/relu_5x5
I0403 15:49:10.359700 16082 net.cpp:425] inception_4c/relu_5x5 <- inception_4c/5x5
I0403 15:49:10.359720 16082 net.cpp:386] inception_4c/relu_5x5 -> inception_4c/5x5 (in-place)
I0403 15:49:10.359997 16082 net.cpp:141] Setting up inception_4c/relu_5x5
I0403 15:49:10.360024 16082 net.cpp:148] Top shape: 24 64 14 14 (301056)
I0403 15:49:10.360039 16082 net.cpp:156] Memory required for data: 1050971424
I0403 15:49:10.360054 16082 layer_factory.hpp:77] Creating layer inception_4c/pool
I0403 15:49:10.360070 16082 net.cpp:91] Creating Layer inception_4c/pool
I0403 15:49:10.360086 16082 net.cpp:425] inception_4c/pool <- inception_4b/output_inception_4b/output_0_split_3
I0403 15:49:10.360105 16082 net.cpp:399] inception_4c/pool -> inception_4c/pool
I0403 15:49:10.360168 16082 net.cpp:141] Setting up inception_4c/pool
I0403 15:49:10.360191 16082 net.cpp:148] Top shape: 24 512 14 14 (2408448)
I0403 15:49:10.360205 16082 net.cpp:156] Memory required for data: 1060605216
I0403 15:49:10.360219 16082 layer_factory.hpp:77] Creating layer inception_4c/pool_proj
I0403 15:49:10.360239 16082 net.cpp:91] Creating Layer inception_4c/pool_proj
I0403 15:49:10.360256 16082 net.cpp:425] inception_4c/pool_proj <- inception_4c/pool
I0403 15:49:10.360275 16082 net.cpp:399] inception_4c/pool_proj -> inception_4c/pool_proj
I0403 15:49:10.361479 16082 net.cpp:141] Setting up inception_4c/pool_proj
I0403 15:49:10.361507 16082 net.cpp:148] Top shape: 24 64 14 14 (301056)
I0403 15:49:10.361553 16082 net.cpp:156] Memory required for data: 1061809440
I0403 15:49:10.361575 16082 layer_factory.hpp:77] Creating layer inception_4c/relu_pool_proj
I0403 15:49:10.361598 16082 net.cpp:91] Creating Layer inception_4c/relu_pool_proj
I0403 15:49:10.361626 16082 net.cpp:425] inception_4c/relu_pool_proj <- inception_4c/pool_proj
I0403 15:49:10.361644 16082 net.cpp:386] inception_4c/relu_pool_proj -> inception_4c/pool_proj (in-place)
I0403 15:49:10.361824 16082 net.cpp:141] Setting up inception_4c/relu_pool_proj
I0403 15:49:10.361850 16082 net.cpp:148] Top shape: 24 64 14 14 (301056)
I0403 15:49:10.361865 16082 net.cpp:156] Memory required for data: 1063013664
I0403 15:49:10.361881 16082 layer_factory.hpp:77] Creating layer inception_4c/output
I0403 15:49:10.361897 16082 net.cpp:91] Creating Layer inception_4c/output
I0403 15:49:10.361924 16082 net.cpp:425] inception_4c/output <- inception_4c/1x1
I0403 15:49:10.361939 16082 net.cpp:425] inception_4c/output <- inception_4c/3x3
I0403 15:49:10.361954 16082 net.cpp:425] inception_4c/output <- inception_4c/5x5
I0403 15:49:10.361970 16082 net.cpp:425] inception_4c/output <- inception_4c/pool_proj
I0403 15:49:10.361987 16082 net.cpp:399] inception_4c/output -> inception_4c/output
I0403 15:49:10.362032 16082 net.cpp:141] Setting up inception_4c/output
I0403 15:49:10.362054 16082 net.cpp:148] Top shape: 24 512 14 14 (2408448)
I0403 15:49:10.362067 16082 net.cpp:156] Memory required for data: 1072647456
I0403 15:49:10.362082 16082 layer_factory.hpp:77] Creating layer inception_4c/output_inception_4c/output_0_split
I0403 15:49:10.362100 16082 net.cpp:91] Creating Layer inception_4c/output_inception_4c/output_0_split
I0403 15:49:10.362115 16082 net.cpp:425] inception_4c/output_inception_4c/output_0_split <- inception_4c/output
I0403 15:49:10.362133 16082 net.cpp:399] inception_4c/output_inception_4c/output_0_split -> inception_4c/output_inception_4c/output_0_split_0
I0403 15:49:10.362151 16082 net.cpp:399] inception_4c/output_inception_4c/output_0_split -> inception_4c/output_inception_4c/output_0_split_1
I0403 15:49:10.362171 16082 net.cpp:399] inception_4c/output_inception_4c/output_0_split -> inception_4c/output_inception_4c/output_0_split_2
I0403 15:49:10.362197 16082 net.cpp:399] inception_4c/output_inception_4c/output_0_split -> inception_4c/output_inception_4c/output_0_split_3
I0403 15:49:10.362282 16082 net.cpp:141] Setting up inception_4c/output_inception_4c/output_0_split
I0403 15:49:10.362305 16082 net.cpp:148] Top shape: 24 512 14 14 (2408448)
I0403 15:49:10.362320 16082 net.cpp:148] Top shape: 24 512 14 14 (2408448)
I0403 15:49:10.362334 16082 net.cpp:148] Top shape: 24 512 14 14 (2408448)
I0403 15:49:10.362349 16082 net.cpp:148] Top shape: 24 512 14 14 (2408448)
I0403 15:49:10.362361 16082 net.cpp:156] Memory required for data: 1111182624
I0403 15:49:10.362375 16082 layer_factory.hpp:77] Creating layer inception_4d/1x1
I0403 15:49:10.362396 16082 net.cpp:91] Creating Layer inception_4d/1x1
I0403 15:49:10.362411 16082 net.cpp:425] inception_4d/1x1 <- inception_4c/output_inception_4c/output_0_split_0
I0403 15:49:10.362432 16082 net.cpp:399] inception_4d/1x1 -> inception_4d/1x1
I0403 15:49:10.363811 16082 net.cpp:141] Setting up inception_4d/1x1
I0403 15:49:10.363838 16082 net.cpp:148] Top shape: 24 112 14 14 (526848)
I0403 15:49:10.363853 16082 net.cpp:156] Memory required for data: 1113290016
I0403 15:49:10.363872 16082 layer_factory.hpp:77] Creating layer inception_4d/relu_1x1
I0403 15:49:10.363890 16082 net.cpp:91] Creating Layer inception_4d/relu_1x1
I0403 15:49:10.363906 16082 net.cpp:425] inception_4d/relu_1x1 <- inception_4d/1x1
I0403 15:49:10.363922 16082 net.cpp:386] inception_4d/relu_1x1 -> inception_4d/1x1 (in-place)
I0403 15:49:10.364096 16082 net.cpp:141] Setting up inception_4d/relu_1x1
I0403 15:49:10.364120 16082 net.cpp:148] Top shape: 24 112 14 14 (526848)
I0403 15:49:10.364133 16082 net.cpp:156] Memory required for data: 1115397408
I0403 15:49:10.364147 16082 layer_factory.hpp:77] Creating layer inception_4d/3x3_reduce
I0403 15:49:10.364182 16082 net.cpp:91] Creating Layer inception_4d/3x3_reduce
I0403 15:49:10.364200 16082 net.cpp:425] inception_4d/3x3_reduce <- inception_4c/output_inception_4c/output_0_split_1
I0403 15:49:10.364220 16082 net.cpp:399] inception_4d/3x3_reduce -> inception_4d/3x3_reduce
I0403 15:49:10.365780 16082 net.cpp:141] Setting up inception_4d/3x3_reduce
I0403 15:49:10.365811 16082 net.cpp:148] Top shape: 24 144 14 14 (677376)
I0403 15:49:10.365828 16082 net.cpp:156] Memory required for data: 1118106912
I0403 15:49:10.365849 16082 layer_factory.hpp:77] Creating layer inception_4d/relu_3x3_reduce
I0403 15:49:10.365878 16082 net.cpp:91] Creating Layer inception_4d/relu_3x3_reduce
I0403 15:49:10.365895 16082 net.cpp:425] inception_4d/relu_3x3_reduce <- inception_4d/3x3_reduce
I0403 15:49:10.365916 16082 net.cpp:386] inception_4d/relu_3x3_reduce -> inception_4d/3x3_reduce (in-place)
I0403 15:49:10.366209 16082 net.cpp:141] Setting up inception_4d/relu_3x3_reduce
I0403 15:49:10.366236 16082 net.cpp:148] Top shape: 24 144 14 14 (677376)
I0403 15:49:10.366252 16082 net.cpp:156] Memory required for data: 1120816416
I0403 15:49:10.366267 16082 layer_factory.hpp:77] Creating layer inception_4d/3x3
I0403 15:49:10.366291 16082 net.cpp:91] Creating Layer inception_4d/3x3
I0403 15:49:10.366309 16082 net.cpp:425] inception_4d/3x3 <- inception_4d/3x3_reduce
I0403 15:49:10.366334 16082 net.cpp:399] inception_4d/3x3 -> inception_4d/3x3
I0403 15:49:10.370659 16082 net.cpp:141] Setting up inception_4d/3x3
I0403 15:49:10.370689 16082 net.cpp:148] Top shape: 24 288 14 14 (1354752)
I0403 15:49:10.370705 16082 net.cpp:156] Memory required for data: 1126235424
I0403 15:49:10.370723 16082 layer_factory.hpp:77] Creating layer inception_4d/relu_3x3
I0403 15:49:10.370743 16082 net.cpp:91] Creating Layer inception_4d/relu_3x3
I0403 15:49:10.370760 16082 net.cpp:425] inception_4d/relu_3x3 <- inception_4d/3x3
I0403 15:49:10.370777 16082 net.cpp:386] inception_4d/relu_3x3 -> inception_4d/3x3 (in-place)
I0403 15:49:10.370960 16082 net.cpp:141] Setting up inception_4d/relu_3x3
I0403 15:49:10.370985 16082 net.cpp:148] Top shape: 24 288 14 14 (1354752)
I0403 15:49:10.371000 16082 net.cpp:156] Memory required for data: 1131654432
I0403 15:49:10.371013 16082 layer_factory.hpp:77] Creating layer inception_4d/5x5_reduce
I0403 15:49:10.371036 16082 net.cpp:91] Creating Layer inception_4d/5x5_reduce
I0403 15:49:10.371052 16082 net.cpp:425] inception_4d/5x5_reduce <- inception_4c/output_inception_4c/output_0_split_2
I0403 15:49:10.371074 16082 net.cpp:399] inception_4d/5x5_reduce -> inception_4d/5x5_reduce
I0403 15:49:10.372230 16082 net.cpp:141] Setting up inception_4d/5x5_reduce
I0403 15:49:10.372258 16082 net.cpp:148] Top shape: 24 32 14 14 (150528)
I0403 15:49:10.372275 16082 net.cpp:156] Memory required for data: 1132256544
I0403 15:49:10.372294 16082 layer_factory.hpp:77] Creating layer inception_4d/relu_5x5_reduce
I0403 15:49:10.372315 16082 net.cpp:91] Creating Layer inception_4d/relu_5x5_reduce
I0403 15:49:10.372333 16082 net.cpp:425] inception_4d/relu_5x5_reduce <- inception_4d/5x5_reduce
I0403 15:49:10.372349 16082 net.cpp:386] inception_4d/relu_5x5_reduce -> inception_4d/5x5_reduce (in-place)
I0403 15:49:10.372535 16082 net.cpp:141] Setting up inception_4d/relu_5x5_reduce
I0403 15:49:10.372565 16082 net.cpp:148] Top shape: 24 32 14 14 (150528)
I0403 15:49:10.372581 16082 net.cpp:156] Memory required for data: 1132858656
I0403 15:49:10.372594 16082 layer_factory.hpp:77] Creating layer inception_4d/5x5
I0403 15:49:10.372617 16082 net.cpp:91] Creating Layer inception_4d/5x5
I0403 15:49:10.372635 16082 net.cpp:425] inception_4d/5x5 <- inception_4d/5x5_reduce
I0403 15:49:10.372654 16082 net.cpp:399] inception_4d/5x5 -> inception_4d/5x5
I0403 15:49:10.374164 16082 net.cpp:141] Setting up inception_4d/5x5
I0403 15:49:10.374193 16082 net.cpp:148] Top shape: 24 64 14 14 (301056)
I0403 15:49:10.374210 16082 net.cpp:156] Memory required for data: 1134062880
I0403 15:49:10.374228 16082 layer_factory.hpp:77] Creating layer inception_4d/relu_5x5
I0403 15:49:10.374264 16082 net.cpp:91] Creating Layer inception_4d/relu_5x5
I0403 15:49:10.374284 16082 net.cpp:425] inception_4d/relu_5x5 <- inception_4d/5x5
I0403 15:49:10.374302 16082 net.cpp:386] inception_4d/relu_5x5 -> inception_4d/5x5 (in-place)
I0403 15:49:10.374620 16082 net.cpp:141] Setting up inception_4d/relu_5x5
I0403 15:49:10.374647 16082 net.cpp:148] Top shape: 24 64 14 14 (301056)
I0403 15:49:10.374662 16082 net.cpp:156] Memory required for data: 1135267104
I0403 15:49:10.374676 16082 layer_factory.hpp:77] Creating layer inception_4d/pool
I0403 15:49:10.374697 16082 net.cpp:91] Creating Layer inception_4d/pool
I0403 15:49:10.374713 16082 net.cpp:425] inception_4d/pool <- inception_4c/output_inception_4c/output_0_split_3
I0403 15:49:10.374732 16082 net.cpp:399] inception_4d/pool -> inception_4d/pool
I0403 15:49:10.374801 16082 net.cpp:141] Setting up inception_4d/pool
I0403 15:49:10.374825 16082 net.cpp:148] Top shape: 24 512 14 14 (2408448)
I0403 15:49:10.374840 16082 net.cpp:156] Memory required for data: 1144900896
I0403 15:49:10.374853 16082 layer_factory.hpp:77] Creating layer inception_4d/pool_proj
I0403 15:49:10.374874 16082 net.cpp:91] Creating Layer inception_4d/pool_proj
I0403 15:49:10.374892 16082 net.cpp:425] inception_4d/pool_proj <- inception_4d/pool
I0403 15:49:10.374913 16082 net.cpp:399] inception_4d/pool_proj -> inception_4d/pool_proj
I0403 15:49:10.376715 16082 net.cpp:141] Setting up inception_4d/pool_proj
I0403 15:49:10.376745 16082 net.cpp:148] Top shape: 24 64 14 14 (301056)
I0403 15:49:10.376762 16082 net.cpp:156] Memory required for data: 1146105120
I0403 15:49:10.376780 16082 layer_factory.hpp:77] Creating layer inception_4d/relu_pool_proj
I0403 15:49:10.376802 16082 net.cpp:91] Creating Layer inception_4d/relu_pool_proj
I0403 15:49:10.376819 16082 net.cpp:425] inception_4d/relu_pool_proj <- inception_4d/pool_proj
I0403 15:49:10.376838 16082 net.cpp:386] inception_4d/relu_pool_proj -> inception_4d/pool_proj (in-place)
I0403 15:49:10.377022 16082 net.cpp:141] Setting up inception_4d/relu_pool_proj
I0403 15:49:10.377046 16082 net.cpp:148] Top shape: 24 64 14 14 (301056)
I0403 15:49:10.377063 16082 net.cpp:156] Memory required for data: 1147309344
I0403 15:49:10.377077 16082 layer_factory.hpp:77] Creating layer inception_4d/output
I0403 15:49:10.377094 16082 net.cpp:91] Creating Layer inception_4d/output
I0403 15:49:10.377109 16082 net.cpp:425] inception_4d/output <- inception_4d/1x1
I0403 15:49:10.377125 16082 net.cpp:425] inception_4d/output <- inception_4d/3x3
I0403 15:49:10.377140 16082 net.cpp:425] inception_4d/output <- inception_4d/5x5
I0403 15:49:10.377156 16082 net.cpp:425] inception_4d/output <- inception_4d/pool_proj
I0403 15:49:10.377171 16082 net.cpp:399] inception_4d/output -> inception_4d/output
I0403 15:49:10.377221 16082 net.cpp:141] Setting up inception_4d/output
I0403 15:49:10.377243 16082 net.cpp:148] Top shape: 24 528 14 14 (2483712)
I0403 15:49:10.377257 16082 net.cpp:156] Memory required for data: 1157244192
I0403 15:49:10.377271 16082 layer_factory.hpp:77] Creating layer inception_4d/output_inception_4d/output_0_split
I0403 15:49:10.377288 16082 net.cpp:91] Creating Layer inception_4d/output_inception_4d/output_0_split
I0403 15:49:10.377303 16082 net.cpp:425] inception_4d/output_inception_4d/output_0_split <- inception_4d/output
I0403 15:49:10.377324 16082 net.cpp:399] inception_4d/output_inception_4d/output_0_split -> inception_4d/output_inception_4d/output_0_split_0
I0403 15:49:10.377346 16082 net.cpp:399] inception_4d/output_inception_4d/output_0_split -> inception_4d/output_inception_4d/output_0_split_1
I0403 15:49:10.377367 16082 net.cpp:399] inception_4d/output_inception_4d/output_0_split -> inception_4d/output_inception_4d/output_0_split_2
I0403 15:49:10.377387 16082 net.cpp:399] inception_4d/output_inception_4d/output_0_split -> inception_4d/output_inception_4d/output_0_split_3
I0403 15:49:10.377406 16082 net.cpp:399] inception_4d/output_inception_4d/output_0_split -> inception_4d/output_inception_4d/output_0_split_4
I0403 15:49:10.377516 16082 net.cpp:141] Setting up inception_4d/output_inception_4d/output_0_split
I0403 15:49:10.377557 16082 net.cpp:148] Top shape: 24 528 14 14 (2483712)
I0403 15:49:10.377573 16082 net.cpp:148] Top shape: 24 528 14 14 (2483712)
I0403 15:49:10.377601 16082 net.cpp:148] Top shape: 24 528 14 14 (2483712)
I0403 15:49:10.377617 16082 net.cpp:148] Top shape: 24 528 14 14 (2483712)
I0403 15:49:10.377632 16082 net.cpp:148] Top shape: 24 528 14 14 (2483712)
I0403 15:49:10.377645 16082 net.cpp:156] Memory required for data: 1206918432
I0403 15:49:10.377660 16082 layer_factory.hpp:77] Creating layer loss2/ave_pool
I0403 15:49:10.377678 16082 net.cpp:91] Creating Layer loss2/ave_pool
I0403 15:49:10.377694 16082 net.cpp:425] loss2/ave_pool <- inception_4d/output_inception_4d/output_0_split_0
I0403 15:49:10.377715 16082 net.cpp:399] loss2/ave_pool -> loss2/ave_pool
I0403 15:49:10.378043 16082 net.cpp:141] Setting up loss2/ave_pool
I0403 15:49:10.378069 16082 net.cpp:148] Top shape: 24 528 4 4 (202752)
I0403 15:49:10.378084 16082 net.cpp:156] Memory required for data: 1207729440
I0403 15:49:10.378099 16082 layer_factory.hpp:77] Creating layer loss2/conv
I0403 15:49:10.378120 16082 net.cpp:91] Creating Layer loss2/conv
I0403 15:49:10.378139 16082 net.cpp:425] loss2/conv <- loss2/ave_pool
I0403 15:49:10.378159 16082 net.cpp:399] loss2/conv -> loss2/conv
I0403 15:49:10.380075 16082 net.cpp:141] Setting up loss2/conv
I0403 15:49:10.380106 16082 net.cpp:148] Top shape: 24 128 4 4 (49152)
I0403 15:49:10.380125 16082 net.cpp:156] Memory required for data: 1207926048
I0403 15:49:10.380143 16082 layer_factory.hpp:77] Creating layer loss2/relu_conv
I0403 15:49:10.380162 16082 net.cpp:91] Creating Layer loss2/relu_conv
I0403 15:49:10.380180 16082 net.cpp:425] loss2/relu_conv <- loss2/conv
I0403 15:49:10.380198 16082 net.cpp:386] loss2/relu_conv -> loss2/conv (in-place)
I0403 15:49:10.380486 16082 net.cpp:141] Setting up loss2/relu_conv
I0403 15:49:10.380517 16082 net.cpp:148] Top shape: 24 128 4 4 (49152)
I0403 15:49:10.380533 16082 net.cpp:156] Memory required for data: 1208122656
I0403 15:49:10.380558 16082 layer_factory.hpp:77] Creating layer loss2/fc
I0403 15:49:10.380578 16082 net.cpp:91] Creating Layer loss2/fc
I0403 15:49:10.380594 16082 net.cpp:425] loss2/fc <- loss2/conv
I0403 15:49:10.380615 16082 net.cpp:399] loss2/fc -> loss2/fc
I0403 15:49:10.398566 16082 net.cpp:141] Setting up loss2/fc
I0403 15:49:10.398617 16082 net.cpp:148] Top shape: 24 1024 (24576)
I0403 15:49:10.398633 16082 net.cpp:156] Memory required for data: 1208220960
I0403 15:49:10.398653 16082 layer_factory.hpp:77] Creating layer loss2/relu_fc
I0403 15:49:10.398674 16082 net.cpp:91] Creating Layer loss2/relu_fc
I0403 15:49:10.398691 16082 net.cpp:425] loss2/relu_fc <- loss2/fc
I0403 15:49:10.398710 16082 net.cpp:386] loss2/relu_fc -> loss2/fc (in-place)
I0403 15:49:10.399050 16082 net.cpp:141] Setting up loss2/relu_fc
I0403 15:49:10.399076 16082 net.cpp:148] Top shape: 24 1024 (24576)
I0403 15:49:10.399091 16082 net.cpp:156] Memory required for data: 1208319264
I0403 15:49:10.399106 16082 layer_factory.hpp:77] Creating layer loss2/drop_fc
I0403 15:49:10.399127 16082 net.cpp:91] Creating Layer loss2/drop_fc
I0403 15:49:10.399143 16082 net.cpp:425] loss2/drop_fc <- loss2/fc
I0403 15:49:10.399160 16082 net.cpp:386] loss2/drop_fc -> loss2/fc (in-place)
I0403 15:49:10.399209 16082 net.cpp:141] Setting up loss2/drop_fc
I0403 15:49:10.399235 16082 net.cpp:148] Top shape: 24 1024 (24576)
I0403 15:49:10.399248 16082 net.cpp:156] Memory required for data: 1208417568
I0403 15:49:10.399262 16082 layer_factory.hpp:77] Creating layer loss2/classifier_plantvillage
I0403 15:49:10.399281 16082 net.cpp:91] Creating Layer loss2/classifier_plantvillage
I0403 15:49:10.399296 16082 net.cpp:425] loss2/classifier_plantvillage <- loss2/fc
I0403 15:49:10.399317 16082 net.cpp:399] loss2/classifier_plantvillage -> loss2/classifier_plantvillage
I0403 15:49:10.399736 16082 net.cpp:141] Setting up loss2/classifier_plantvillage
I0403 15:49:10.399761 16082 net.cpp:148] Top shape: 24 38 (912)
I0403 15:49:10.399775 16082 net.cpp:156] Memory required for data: 1208421216
I0403 15:49:10.399821 16082 layer_factory.hpp:77] Creating layer loss2/classifier_plantvillage_loss2/classifier_plantvillage_0_split
I0403 15:49:10.399839 16082 net.cpp:91] Creating Layer loss2/classifier_plantvillage_loss2/classifier_plantvillage_0_split
I0403 15:49:10.399855 16082 net.cpp:425] loss2/classifier_plantvillage_loss2/classifier_plantvillage_0_split <- loss2/classifier_plantvillage
I0403 15:49:10.399873 16082 net.cpp:399] loss2/classifier_plantvillage_loss2/classifier_plantvillage_0_split -> loss2/classifier_plantvillage_loss2/classifier_plantvillage_0_split_0
I0403 15:49:10.399895 16082 net.cpp:399] loss2/classifier_plantvillage_loss2/classifier_plantvillage_0_split -> loss2/classifier_plantvillage_loss2/classifier_plantvillage_0_split_1
I0403 15:49:10.399916 16082 net.cpp:399] loss2/classifier_plantvillage_loss2/classifier_plantvillage_0_split -> loss2/classifier_plantvillage_loss2/classifier_plantvillage_0_split_2
I0403 15:49:10.399996 16082 net.cpp:141] Setting up loss2/classifier_plantvillage_loss2/classifier_plantvillage_0_split
I0403 15:49:10.400018 16082 net.cpp:148] Top shape: 24 38 (912)
I0403 15:49:10.400037 16082 net.cpp:148] Top shape: 24 38 (912)
I0403 15:49:10.400053 16082 net.cpp:148] Top shape: 24 38 (912)
I0403 15:49:10.400065 16082 net.cpp:156] Memory required for data: 1208432160
I0403 15:49:10.400079 16082 layer_factory.hpp:77] Creating layer inception_4e/1x1
I0403 15:49:10.400100 16082 net.cpp:91] Creating Layer inception_4e/1x1
I0403 15:49:10.400117 16082 net.cpp:425] inception_4e/1x1 <- inception_4d/output_inception_4d/output_0_split_1
I0403 15:49:10.400138 16082 net.cpp:399] inception_4e/1x1 -> inception_4e/1x1
I0403 15:49:10.402036 16082 net.cpp:141] Setting up inception_4e/1x1
I0403 15:49:10.402067 16082 net.cpp:148] Top shape: 24 256 14 14 (1204224)
I0403 15:49:10.402084 16082 net.cpp:156] Memory required for data: 1213249056
I0403 15:49:10.402104 16082 layer_factory.hpp:77] Creating layer inception_4e/relu_1x1
I0403 15:49:10.402122 16082 net.cpp:91] Creating Layer inception_4e/relu_1x1
I0403 15:49:10.402138 16082 net.cpp:425] inception_4e/relu_1x1 <- inception_4e/1x1
I0403 15:49:10.402158 16082 net.cpp:386] inception_4e/relu_1x1 -> inception_4e/1x1 (in-place)
I0403 15:49:10.402462 16082 net.cpp:141] Setting up inception_4e/relu_1x1
I0403 15:49:10.402490 16082 net.cpp:148] Top shape: 24 256 14 14 (1204224)
I0403 15:49:10.402505 16082 net.cpp:156] Memory required for data: 1218065952
I0403 15:49:10.402520 16082 layer_factory.hpp:77] Creating layer inception_4e/3x3_reduce
I0403 15:49:10.402546 16082 net.cpp:91] Creating Layer inception_4e/3x3_reduce
I0403 15:49:10.402565 16082 net.cpp:425] inception_4e/3x3_reduce <- inception_4d/output_inception_4d/output_0_split_2
I0403 15:49:10.402583 16082 net.cpp:399] inception_4e/3x3_reduce -> inception_4e/3x3_reduce
I0403 15:49:10.404692 16082 net.cpp:141] Setting up inception_4e/3x3_reduce
I0403 15:49:10.404721 16082 net.cpp:148] Top shape: 24 160 14 14 (752640)
I0403 15:49:10.404741 16082 net.cpp:156] Memory required for data: 1221076512
I0403 15:49:10.404759 16082 layer_factory.hpp:77] Creating layer inception_4e/relu_3x3_reduce
I0403 15:49:10.404777 16082 net.cpp:91] Creating Layer inception_4e/relu_3x3_reduce
I0403 15:49:10.404791 16082 net.cpp:425] inception_4e/relu_3x3_reduce <- inception_4e/3x3_reduce
I0403 15:49:10.404808 16082 net.cpp:386] inception_4e/relu_3x3_reduce -> inception_4e/3x3_reduce (in-place)
I0403 15:49:10.404986 16082 net.cpp:141] Setting up inception_4e/relu_3x3_reduce
I0403 15:49:10.405012 16082 net.cpp:148] Top shape: 24 160 14 14 (752640)
I0403 15:49:10.405027 16082 net.cpp:156] Memory required for data: 1224087072
I0403 15:49:10.405042 16082 layer_factory.hpp:77] Creating layer inception_4e/3x3
I0403 15:49:10.405063 16082 net.cpp:91] Creating Layer inception_4e/3x3
I0403 15:49:10.405079 16082 net.cpp:425] inception_4e/3x3 <- inception_4e/3x3_reduce
I0403 15:49:10.405097 16082 net.cpp:399] inception_4e/3x3 -> inception_4e/3x3
I0403 15:49:10.410064 16082 net.cpp:141] Setting up inception_4e/3x3
I0403 15:49:10.410107 16082 net.cpp:148] Top shape: 24 320 14 14 (1505280)
I0403 15:49:10.410126 16082 net.cpp:156] Memory required for data: 1230108192
I0403 15:49:10.410145 16082 layer_factory.hpp:77] Creating layer inception_4e/relu_3x3
I0403 15:49:10.410163 16082 net.cpp:91] Creating Layer inception_4e/relu_3x3
I0403 15:49:10.410181 16082 net.cpp:425] inception_4e/relu_3x3 <- inception_4e/3x3
I0403 15:49:10.410200 16082 net.cpp:386] inception_4e/relu_3x3 -> inception_4e/3x3 (in-place)
I0403 15:49:10.410492 16082 net.cpp:141] Setting up inception_4e/relu_3x3
I0403 15:49:10.410519 16082 net.cpp:148] Top shape: 24 320 14 14 (1505280)
I0403 15:49:10.410534 16082 net.cpp:156] Memory required for data: 1236129312
I0403 15:49:10.410554 16082 layer_factory.hpp:77] Creating layer inception_4e/5x5_reduce
I0403 15:49:10.410583 16082 net.cpp:91] Creating Layer inception_4e/5x5_reduce
I0403 15:49:10.410601 16082 net.cpp:425] inception_4e/5x5_reduce <- inception_4d/output_inception_4d/output_0_split_3
I0403 15:49:10.410635 16082 net.cpp:399] inception_4e/5x5_reduce -> inception_4e/5x5_reduce
I0403 15:49:10.411720 16082 net.cpp:141] Setting up inception_4e/5x5_reduce
I0403 15:49:10.411747 16082 net.cpp:148] Top shape: 24 32 14 14 (150528)
I0403 15:49:10.411763 16082 net.cpp:156] Memory required for data: 1236731424
I0403 15:49:10.411782 16082 layer_factory.hpp:77] Creating layer inception_4e/relu_5x5_reduce
I0403 15:49:10.411804 16082 net.cpp:91] Creating Layer inception_4e/relu_5x5_reduce
I0403 15:49:10.411821 16082 net.cpp:425] inception_4e/relu_5x5_reduce <- inception_4e/5x5_reduce
I0403 15:49:10.411837 16082 net.cpp:386] inception_4e/relu_5x5_reduce -> inception_4e/5x5_reduce (in-place)
I0403 15:49:10.412132 16082 net.cpp:141] Setting up inception_4e/relu_5x5_reduce
I0403 15:49:10.412159 16082 net.cpp:148] Top shape: 24 32 14 14 (150528)
I0403 15:49:10.412173 16082 net.cpp:156] Memory required for data: 1237333536
I0403 15:49:10.412189 16082 layer_factory.hpp:77] Creating layer inception_4e/5x5
I0403 15:49:10.412227 16082 net.cpp:91] Creating Layer inception_4e/5x5
I0403 15:49:10.412245 16082 net.cpp:425] inception_4e/5x5 <- inception_4e/5x5_reduce
I0403 15:49:10.412264 16082 net.cpp:399] inception_4e/5x5 -> inception_4e/5x5
I0403 15:49:10.414124 16082 net.cpp:141] Setting up inception_4e/5x5
I0403 15:49:10.414152 16082 net.cpp:148] Top shape: 24 128 14 14 (602112)
I0403 15:49:10.414167 16082 net.cpp:156] Memory required for data: 1239741984
I0403 15:49:10.414186 16082 layer_factory.hpp:77] Creating layer inception_4e/relu_5x5
I0403 15:49:10.414207 16082 net.cpp:91] Creating Layer inception_4e/relu_5x5
I0403 15:49:10.414224 16082 net.cpp:425] inception_4e/relu_5x5 <- inception_4e/5x5
I0403 15:49:10.414240 16082 net.cpp:386] inception_4e/relu_5x5 -> inception_4e/5x5 (in-place)
I0403 15:49:10.414428 16082 net.cpp:141] Setting up inception_4e/relu_5x5
I0403 15:49:10.414455 16082 net.cpp:148] Top shape: 24 128 14 14 (602112)
I0403 15:49:10.414470 16082 net.cpp:156] Memory required for data: 1242150432
I0403 15:49:10.414484 16082 layer_factory.hpp:77] Creating layer inception_4e/pool
I0403 15:49:10.414501 16082 net.cpp:91] Creating Layer inception_4e/pool
I0403 15:49:10.414516 16082 net.cpp:425] inception_4e/pool <- inception_4d/output_inception_4d/output_0_split_4
I0403 15:49:10.414535 16082 net.cpp:399] inception_4e/pool -> inception_4e/pool
I0403 15:49:10.414619 16082 net.cpp:141] Setting up inception_4e/pool
I0403 15:49:10.414643 16082 net.cpp:148] Top shape: 24 528 14 14 (2483712)
I0403 15:49:10.414656 16082 net.cpp:156] Memory required for data: 1252085280
I0403 15:49:10.414670 16082 layer_factory.hpp:77] Creating layer inception_4e/pool_proj
I0403 15:49:10.414695 16082 net.cpp:91] Creating Layer inception_4e/pool_proj
I0403 15:49:10.414711 16082 net.cpp:425] inception_4e/pool_proj <- inception_4e/pool
I0403 15:49:10.414731 16082 net.cpp:399] inception_4e/pool_proj -> inception_4e/pool_proj
I0403 15:49:10.416218 16082 net.cpp:141] Setting up inception_4e/pool_proj
I0403 15:49:10.416249 16082 net.cpp:148] Top shape: 24 128 14 14 (602112)
I0403 15:49:10.416280 16082 net.cpp:156] Memory required for data: 1254493728
I0403 15:49:10.416299 16082 layer_factory.hpp:77] Creating layer inception_4e/relu_pool_proj
I0403 15:49:10.416321 16082 net.cpp:91] Creating Layer inception_4e/relu_pool_proj
I0403 15:49:10.416338 16082 net.cpp:425] inception_4e/relu_pool_proj <- inception_4e/pool_proj
I0403 15:49:10.416357 16082 net.cpp:386] inception_4e/relu_pool_proj -> inception_4e/pool_proj (in-place)
I0403 15:49:10.416659 16082 net.cpp:141] Setting up inception_4e/relu_pool_proj
I0403 15:49:10.416687 16082 net.cpp:148] Top shape: 24 128 14 14 (602112)
I0403 15:49:10.416704 16082 net.cpp:156] Memory required for data: 1256902176
I0403 15:49:10.416719 16082 layer_factory.hpp:77] Creating layer inception_4e/output
I0403 15:49:10.416738 16082 net.cpp:91] Creating Layer inception_4e/output
I0403 15:49:10.416754 16082 net.cpp:425] inception_4e/output <- inception_4e/1x1
I0403 15:49:10.416770 16082 net.cpp:425] inception_4e/output <- inception_4e/3x3
I0403 15:49:10.416787 16082 net.cpp:425] inception_4e/output <- inception_4e/5x5
I0403 15:49:10.416803 16082 net.cpp:425] inception_4e/output <- inception_4e/pool_proj
I0403 15:49:10.416822 16082 net.cpp:399] inception_4e/output -> inception_4e/output
I0403 15:49:10.416875 16082 net.cpp:141] Setting up inception_4e/output
I0403 15:49:10.416900 16082 net.cpp:148] Top shape: 24 832 14 14 (3913728)
I0403 15:49:10.416916 16082 net.cpp:156] Memory required for data: 1272557088
I0403 15:49:10.416931 16082 layer_factory.hpp:77] Creating layer pool4/3x3_s2
I0403 15:49:10.416949 16082 net.cpp:91] Creating Layer pool4/3x3_s2
I0403 15:49:10.416965 16082 net.cpp:425] pool4/3x3_s2 <- inception_4e/output
I0403 15:49:10.416985 16082 net.cpp:399] pool4/3x3_s2 -> pool4/3x3_s2
I0403 15:49:10.417054 16082 net.cpp:141] Setting up pool4/3x3_s2
I0403 15:49:10.417079 16082 net.cpp:148] Top shape: 24 832 7 7 (978432)
I0403 15:49:10.417093 16082 net.cpp:156] Memory required for data: 1276470816
I0403 15:49:10.417109 16082 layer_factory.hpp:77] Creating layer pool4/3x3_s2_pool4/3x3_s2_0_split
I0403 15:49:10.417129 16082 net.cpp:91] Creating Layer pool4/3x3_s2_pool4/3x3_s2_0_split
I0403 15:49:10.417146 16082 net.cpp:425] pool4/3x3_s2_pool4/3x3_s2_0_split <- pool4/3x3_s2
I0403 15:49:10.417165 16082 net.cpp:399] pool4/3x3_s2_pool4/3x3_s2_0_split -> pool4/3x3_s2_pool4/3x3_s2_0_split_0
I0403 15:49:10.417184 16082 net.cpp:399] pool4/3x3_s2_pool4/3x3_s2_0_split -> pool4/3x3_s2_pool4/3x3_s2_0_split_1
I0403 15:49:10.417209 16082 net.cpp:399] pool4/3x3_s2_pool4/3x3_s2_0_split -> pool4/3x3_s2_pool4/3x3_s2_0_split_2
I0403 15:49:10.417232 16082 net.cpp:399] pool4/3x3_s2_pool4/3x3_s2_0_split -> pool4/3x3_s2_pool4/3x3_s2_0_split_3
I0403 15:49:10.417322 16082 net.cpp:141] Setting up pool4/3x3_s2_pool4/3x3_s2_0_split
I0403 15:49:10.417346 16082 net.cpp:148] Top shape: 24 832 7 7 (978432)
I0403 15:49:10.417362 16082 net.cpp:148] Top shape: 24 832 7 7 (978432)
I0403 15:49:10.417378 16082 net.cpp:148] Top shape: 24 832 7 7 (978432)
I0403 15:49:10.417393 16082 net.cpp:148] Top shape: 24 832 7 7 (978432)
I0403 15:49:10.417407 16082 net.cpp:156] Memory required for data: 1292125728
I0403 15:49:10.417423 16082 layer_factory.hpp:77] Creating layer inception_5a/1x1
I0403 15:49:10.417444 16082 net.cpp:91] Creating Layer inception_5a/1x1
I0403 15:49:10.417461 16082 net.cpp:425] inception_5a/1x1 <- pool4/3x3_s2_pool4/3x3_s2_0_split_0
I0403 15:49:10.417482 16082 net.cpp:399] inception_5a/1x1 -> inception_5a/1x1
I0403 15:49:10.420377 16082 net.cpp:141] Setting up inception_5a/1x1
I0403 15:49:10.420406 16082 net.cpp:148] Top shape: 24 256 7 7 (301056)
I0403 15:49:10.420423 16082 net.cpp:156] Memory required for data: 1293329952
I0403 15:49:10.420441 16082 layer_factory.hpp:77] Creating layer inception_5a/relu_1x1
I0403 15:49:10.420464 16082 net.cpp:91] Creating Layer inception_5a/relu_1x1
I0403 15:49:10.420482 16082 net.cpp:425] inception_5a/relu_1x1 <- inception_5a/1x1
I0403 15:49:10.420500 16082 net.cpp:386] inception_5a/relu_1x1 -> inception_5a/1x1 (in-place)
I0403 15:49:10.420810 16082 net.cpp:141] Setting up inception_5a/relu_1x1
I0403 15:49:10.420836 16082 net.cpp:148] Top shape: 24 256 7 7 (301056)
I0403 15:49:10.420851 16082 net.cpp:156] Memory required for data: 1294534176
I0403 15:49:10.420866 16082 layer_factory.hpp:77] Creating layer inception_5a/3x3_reduce
I0403 15:49:10.420887 16082 net.cpp:91] Creating Layer inception_5a/3x3_reduce
I0403 15:49:10.420904 16082 net.cpp:425] inception_5a/3x3_reduce <- pool4/3x3_s2_pool4/3x3_s2_0_split_1
I0403 15:49:10.420925 16082 net.cpp:399] inception_5a/3x3_reduce -> inception_5a/3x3_reduce
I0403 15:49:10.423377 16082 net.cpp:141] Setting up inception_5a/3x3_reduce
I0403 15:49:10.423406 16082 net.cpp:148] Top shape: 24 160 7 7 (188160)
I0403 15:49:10.423423 16082 net.cpp:156] Memory required for data: 1295286816
I0403 15:49:10.423441 16082 layer_factory.hpp:77] Creating layer inception_5a/relu_3x3_reduce
I0403 15:49:10.423460 16082 net.cpp:91] Creating Layer inception_5a/relu_3x3_reduce
I0403 15:49:10.423477 16082 net.cpp:425] inception_5a/relu_3x3_reduce <- inception_5a/3x3_reduce
I0403 15:49:10.423497 16082 net.cpp:386] inception_5a/relu_3x3_reduce -> inception_5a/3x3_reduce (in-place)
I0403 15:49:10.423688 16082 net.cpp:141] Setting up inception_5a/relu_3x3_reduce
I0403 15:49:10.423714 16082 net.cpp:148] Top shape: 24 160 7 7 (188160)
I0403 15:49:10.423729 16082 net.cpp:156] Memory required for data: 1296039456
I0403 15:49:10.423743 16082 layer_factory.hpp:77] Creating layer inception_5a/3x3
I0403 15:49:10.423765 16082 net.cpp:91] Creating Layer inception_5a/3x3
I0403 15:49:10.423784 16082 net.cpp:425] inception_5a/3x3 <- inception_5a/3x3_reduce
I0403 15:49:10.423805 16082 net.cpp:399] inception_5a/3x3 -> inception_5a/3x3
I0403 15:49:10.428825 16082 net.cpp:141] Setting up inception_5a/3x3
I0403 15:49:10.428855 16082 net.cpp:148] Top shape: 24 320 7 7 (376320)
I0403 15:49:10.428871 16082 net.cpp:156] Memory required for data: 1297544736
I0403 15:49:10.428890 16082 layer_factory.hpp:77] Creating layer inception_5a/relu_3x3
I0403 15:49:10.428910 16082 net.cpp:91] Creating Layer inception_5a/relu_3x3
I0403 15:49:10.428928 16082 net.cpp:425] inception_5a/relu_3x3 <- inception_5a/3x3
I0403 15:49:10.428947 16082 net.cpp:386] inception_5a/relu_3x3 -> inception_5a/3x3 (in-place)
I0403 15:49:10.429245 16082 net.cpp:141] Setting up inception_5a/relu_3x3
I0403 15:49:10.429271 16082 net.cpp:148] Top shape: 24 320 7 7 (376320)
I0403 15:49:10.429286 16082 net.cpp:156] Memory required for data: 1299050016
I0403 15:49:10.429299 16082 layer_factory.hpp:77] Creating layer inception_5a/5x5_reduce
I0403 15:49:10.429322 16082 net.cpp:91] Creating Layer inception_5a/5x5_reduce
I0403 15:49:10.429338 16082 net.cpp:425] inception_5a/5x5_reduce <- pool4/3x3_s2_pool4/3x3_s2_0_split_2
I0403 15:49:10.429360 16082 net.cpp:399] inception_5a/5x5_reduce -> inception_5a/5x5_reduce
I0403 15:49:10.430544 16082 net.cpp:141] Setting up inception_5a/5x5_reduce
I0403 15:49:10.430575 16082 net.cpp:148] Top shape: 24 32 7 7 (37632)
I0403 15:49:10.430593 16082 net.cpp:156] Memory required for data: 1299200544
I0403 15:49:10.430610 16082 layer_factory.hpp:77] Creating layer inception_5a/relu_5x5_reduce
I0403 15:49:10.430627 16082 net.cpp:91] Creating Layer inception_5a/relu_5x5_reduce
I0403 15:49:10.430642 16082 net.cpp:425] inception_5a/relu_5x5_reduce <- inception_5a/5x5_reduce
I0403 15:49:10.430660 16082 net.cpp:386] inception_5a/relu_5x5_reduce -> inception_5a/5x5_reduce (in-place)
I0403 15:49:10.430951 16082 net.cpp:141] Setting up inception_5a/relu_5x5_reduce
I0403 15:49:10.430979 16082 net.cpp:148] Top shape: 24 32 7 7 (37632)
I0403 15:49:10.430994 16082 net.cpp:156] Memory required for data: 1299351072
I0403 15:49:10.431007 16082 layer_factory.hpp:77] Creating layer inception_5a/5x5
I0403 15:49:10.431028 16082 net.cpp:91] Creating Layer inception_5a/5x5
I0403 15:49:10.431046 16082 net.cpp:425] inception_5a/5x5 <- inception_5a/5x5_reduce
I0403 15:49:10.431063 16082 net.cpp:399] inception_5a/5x5 -> inception_5a/5x5
I0403 15:49:10.432755 16082 net.cpp:141] Setting up inception_5a/5x5
I0403 15:49:10.432796 16082 net.cpp:148] Top shape: 24 128 7 7 (150528)
I0403 15:49:10.432813 16082 net.cpp:156] Memory required for data: 1299953184
I0403 15:49:10.432832 16082 layer_factory.hpp:77] Creating layer inception_5a/relu_5x5
I0403 15:49:10.432852 16082 net.cpp:91] Creating Layer inception_5a/relu_5x5
I0403 15:49:10.432868 16082 net.cpp:425] inception_5a/relu_5x5 <- inception_5a/5x5
I0403 15:49:10.432885 16082 net.cpp:386] inception_5a/relu_5x5 -> inception_5a/5x5 (in-place)
I0403 15:49:10.433069 16082 net.cpp:141] Setting up inception_5a/relu_5x5
I0403 15:49:10.433099 16082 net.cpp:148] Top shape: 24 128 7 7 (150528)
I0403 15:49:10.433115 16082 net.cpp:156] Memory required for data: 1300555296
I0403 15:49:10.433128 16082 layer_factory.hpp:77] Creating layer inception_5a/pool
I0403 15:49:10.433145 16082 net.cpp:91] Creating Layer inception_5a/pool
I0403 15:49:10.433161 16082 net.cpp:425] inception_5a/pool <- pool4/3x3_s2_pool4/3x3_s2_0_split_3
I0403 15:49:10.433177 16082 net.cpp:399] inception_5a/pool -> inception_5a/pool
I0403 15:49:10.433246 16082 net.cpp:141] Setting up inception_5a/pool
I0403 15:49:10.433269 16082 net.cpp:148] Top shape: 24 832 7 7 (978432)
I0403 15:49:10.433282 16082 net.cpp:156] Memory required for data: 1304469024
I0403 15:49:10.433295 16082 layer_factory.hpp:77] Creating layer inception_5a/pool_proj
I0403 15:49:10.433316 16082 net.cpp:91] Creating Layer inception_5a/pool_proj
I0403 15:49:10.433332 16082 net.cpp:425] inception_5a/pool_proj <- inception_5a/pool
I0403 15:49:10.433353 16082 net.cpp:399] inception_5a/pool_proj -> inception_5a/pool_proj
I0403 15:49:10.435647 16082 net.cpp:141] Setting up inception_5a/pool_proj
I0403 15:49:10.435679 16082 net.cpp:148] Top shape: 24 128 7 7 (150528)
I0403 15:49:10.435695 16082 net.cpp:156] Memory required for data: 1305071136
I0403 15:49:10.435714 16082 layer_factory.hpp:77] Creating layer inception_5a/relu_pool_proj
I0403 15:49:10.435734 16082 net.cpp:91] Creating Layer inception_5a/relu_pool_proj
I0403 15:49:10.435750 16082 net.cpp:425] inception_5a/relu_pool_proj <- inception_5a/pool_proj
I0403 15:49:10.435767 16082 net.cpp:386] inception_5a/relu_pool_proj -> inception_5a/pool_proj (in-place)
I0403 15:49:10.436055 16082 net.cpp:141] Setting up inception_5a/relu_pool_proj
I0403 15:49:10.436080 16082 net.cpp:148] Top shape: 24 128 7 7 (150528)
I0403 15:49:10.436095 16082 net.cpp:156] Memory required for data: 1305673248
I0403 15:49:10.436110 16082 layer_factory.hpp:77] Creating layer inception_5a/output
I0403 15:49:10.436126 16082 net.cpp:91] Creating Layer inception_5a/output
I0403 15:49:10.436143 16082 net.cpp:425] inception_5a/output <- inception_5a/1x1
I0403 15:49:10.436161 16082 net.cpp:425] inception_5a/output <- inception_5a/3x3
I0403 15:49:10.436175 16082 net.cpp:425] inception_5a/output <- inception_5a/5x5
I0403 15:49:10.436190 16082 net.cpp:425] inception_5a/output <- inception_5a/pool_proj
I0403 15:49:10.436206 16082 net.cpp:399] inception_5a/output -> inception_5a/output
I0403 15:49:10.436254 16082 net.cpp:141] Setting up inception_5a/output
I0403 15:49:10.436280 16082 net.cpp:148] Top shape: 24 832 7 7 (978432)
I0403 15:49:10.436293 16082 net.cpp:156] Memory required for data: 1309586976
I0403 15:49:10.436307 16082 layer_factory.hpp:77] Creating layer inception_5a/output_inception_5a/output_0_split
I0403 15:49:10.436323 16082 net.cpp:91] Creating Layer inception_5a/output_inception_5a/output_0_split
I0403 15:49:10.436338 16082 net.cpp:425] inception_5a/output_inception_5a/output_0_split <- inception_5a/output
I0403 15:49:10.436357 16082 net.cpp:399] inception_5a/output_inception_5a/output_0_split -> inception_5a/output_inception_5a/output_0_split_0
I0403 15:49:10.436377 16082 net.cpp:399] inception_5a/output_inception_5a/output_0_split -> inception_5a/output_inception_5a/output_0_split_1
I0403 15:49:10.436396 16082 net.cpp:399] inception_5a/output_inception_5a/output_0_split -> inception_5a/output_inception_5a/output_0_split_2
I0403 15:49:10.436416 16082 net.cpp:399] inception_5a/output_inception_5a/output_0_split -> inception_5a/output_inception_5a/output_0_split_3
I0403 15:49:10.436528 16082 net.cpp:141] Setting up inception_5a/output_inception_5a/output_0_split
I0403 15:49:10.436558 16082 net.cpp:148] Top shape: 24 832 7 7 (978432)
I0403 15:49:10.436575 16082 net.cpp:148] Top shape: 24 832 7 7 (978432)
I0403 15:49:10.436590 16082 net.cpp:148] Top shape: 24 832 7 7 (978432)
I0403 15:49:10.436604 16082 net.cpp:148] Top shape: 24 832 7 7 (978432)
I0403 15:49:10.436619 16082 net.cpp:156] Memory required for data: 1325241888
I0403 15:49:10.436631 16082 layer_factory.hpp:77] Creating layer inception_5b/1x1
I0403 15:49:10.436655 16082 net.cpp:91] Creating Layer inception_5b/1x1
I0403 15:49:10.436673 16082 net.cpp:425] inception_5b/1x1 <- inception_5a/output_inception_5a/output_0_split_0
I0403 15:49:10.436691 16082 net.cpp:399] inception_5b/1x1 -> inception_5b/1x1
I0403 15:49:10.440436 16082 net.cpp:141] Setting up inception_5b/1x1
I0403 15:49:10.440464 16082 net.cpp:148] Top shape: 24 384 7 7 (451584)
I0403 15:49:10.440481 16082 net.cpp:156] Memory required for data: 1327048224
I0403 15:49:10.440500 16082 layer_factory.hpp:77] Creating layer inception_5b/relu_1x1
I0403 15:49:10.440517 16082 net.cpp:91] Creating Layer inception_5b/relu_1x1
I0403 15:49:10.440533 16082 net.cpp:425] inception_5b/relu_1x1 <- inception_5b/1x1
I0403 15:49:10.440559 16082 net.cpp:386] inception_5b/relu_1x1 -> inception_5b/1x1 (in-place)
I0403 15:49:10.440858 16082 net.cpp:141] Setting up inception_5b/relu_1x1
I0403 15:49:10.440883 16082 net.cpp:148] Top shape: 24 384 7 7 (451584)
I0403 15:49:10.440898 16082 net.cpp:156] Memory required for data: 1328854560
I0403 15:49:10.440912 16082 layer_factory.hpp:77] Creating layer inception_5b/3x3_reduce
I0403 15:49:10.440934 16082 net.cpp:91] Creating Layer inception_5b/3x3_reduce
I0403 15:49:10.440951 16082 net.cpp:425] inception_5b/3x3_reduce <- inception_5a/output_inception_5a/output_0_split_1
I0403 15:49:10.440973 16082 net.cpp:399] inception_5b/3x3_reduce -> inception_5b/3x3_reduce
I0403 15:49:10.443652 16082 net.cpp:141] Setting up inception_5b/3x3_reduce
I0403 15:49:10.443681 16082 net.cpp:148] Top shape: 24 192 7 7 (225792)
I0403 15:49:10.443697 16082 net.cpp:156] Memory required for data: 1329757728
I0403 15:49:10.443717 16082 layer_factory.hpp:77] Creating layer inception_5b/relu_3x3_reduce
I0403 15:49:10.443735 16082 net.cpp:91] Creating Layer inception_5b/relu_3x3_reduce
I0403 15:49:10.443753 16082 net.cpp:425] inception_5b/relu_3x3_reduce <- inception_5b/3x3_reduce
I0403 15:49:10.443770 16082 net.cpp:386] inception_5b/relu_3x3_reduce -> inception_5b/3x3_reduce (in-place)
I0403 15:49:10.443958 16082 net.cpp:141] Setting up inception_5b/relu_3x3_reduce
I0403 15:49:10.443981 16082 net.cpp:148] Top shape: 24 192 7 7 (225792)
I0403 15:49:10.443995 16082 net.cpp:156] Memory required for data: 1330660896
I0403 15:49:10.444010 16082 layer_factory.hpp:77] Creating layer inception_5b/3x3
I0403 15:49:10.444032 16082 net.cpp:91] Creating Layer inception_5b/3x3
I0403 15:49:10.444049 16082 net.cpp:425] inception_5b/3x3 <- inception_5b/3x3_reduce
I0403 15:49:10.444067 16082 net.cpp:399] inception_5b/3x3 -> inception_5b/3x3
I0403 15:49:10.450727 16082 net.cpp:141] Setting up inception_5b/3x3
I0403 15:49:10.450757 16082 net.cpp:148] Top shape: 24 384 7 7 (451584)
I0403 15:49:10.450772 16082 net.cpp:156] Memory required for data: 1332467232
I0403 15:49:10.450789 16082 layer_factory.hpp:77] Creating layer inception_5b/relu_3x3
I0403 15:49:10.450809 16082 net.cpp:91] Creating Layer inception_5b/relu_3x3
I0403 15:49:10.450825 16082 net.cpp:425] inception_5b/relu_3x3 <- inception_5b/3x3
I0403 15:49:10.450842 16082 net.cpp:386] inception_5b/relu_3x3 -> inception_5b/3x3 (in-place)
I0403 15:49:10.451135 16082 net.cpp:141] Setting up inception_5b/relu_3x3
I0403 15:49:10.451160 16082 net.cpp:148] Top shape: 24 384 7 7 (451584)
I0403 15:49:10.451175 16082 net.cpp:156] Memory required for data: 1334273568
I0403 15:49:10.451189 16082 layer_factory.hpp:77] Creating layer inception_5b/5x5_reduce
I0403 15:49:10.451226 16082 net.cpp:91] Creating Layer inception_5b/5x5_reduce
I0403 15:49:10.451244 16082 net.cpp:425] inception_5b/5x5_reduce <- inception_5a/output_inception_5a/output_0_split_2
I0403 15:49:10.451266 16082 net.cpp:399] inception_5b/5x5_reduce -> inception_5b/5x5_reduce
I0403 15:49:10.452540 16082 net.cpp:141] Setting up inception_5b/5x5_reduce
I0403 15:49:10.452569 16082 net.cpp:148] Top shape: 24 48 7 7 (56448)
I0403 15:49:10.452584 16082 net.cpp:156] Memory required for data: 1334499360
I0403 15:49:10.452601 16082 layer_factory.hpp:77] Creating layer inception_5b/relu_5x5_reduce
I0403 15:49:10.452622 16082 net.cpp:91] Creating Layer inception_5b/relu_5x5_reduce
I0403 15:49:10.452639 16082 net.cpp:425] inception_5b/relu_5x5_reduce <- inception_5b/5x5_reduce
I0403 15:49:10.452657 16082 net.cpp:386] inception_5b/relu_5x5_reduce -> inception_5b/5x5_reduce (in-place)
I0403 15:49:10.453035 16082 net.cpp:141] Setting up inception_5b/relu_5x5_reduce
I0403 15:49:10.453063 16082 net.cpp:148] Top shape: 24 48 7 7 (56448)
I0403 15:49:10.453076 16082 net.cpp:156] Memory required for data: 1334725152
I0403 15:49:10.453091 16082 layer_factory.hpp:77] Creating layer inception_5b/5x5
I0403 15:49:10.453110 16082 net.cpp:91] Creating Layer inception_5b/5x5
I0403 15:49:10.453127 16082 net.cpp:425] inception_5b/5x5 <- inception_5b/5x5_reduce
I0403 15:49:10.453145 16082 net.cpp:399] inception_5b/5x5 -> inception_5b/5x5
I0403 15:49:10.455274 16082 net.cpp:141] Setting up inception_5b/5x5
I0403 15:49:10.455303 16082 net.cpp:148] Top shape: 24 128 7 7 (150528)
I0403 15:49:10.455320 16082 net.cpp:156] Memory required for data: 1335327264
I0403 15:49:10.455339 16082 layer_factory.hpp:77] Creating layer inception_5b/relu_5x5
I0403 15:49:10.455360 16082 net.cpp:91] Creating Layer inception_5b/relu_5x5
I0403 15:49:10.455379 16082 net.cpp:425] inception_5b/relu_5x5 <- inception_5b/5x5
I0403 15:49:10.455396 16082 net.cpp:386] inception_5b/relu_5x5 -> inception_5b/5x5 (in-place)
I0403 15:49:10.455601 16082 net.cpp:141] Setting up inception_5b/relu_5x5
I0403 15:49:10.455633 16082 net.cpp:148] Top shape: 24 128 7 7 (150528)
I0403 15:49:10.455649 16082 net.cpp:156] Memory required for data: 1335929376
I0403 15:49:10.455665 16082 layer_factory.hpp:77] Creating layer inception_5b/pool
I0403 15:49:10.455683 16082 net.cpp:91] Creating Layer inception_5b/pool
I0403 15:49:10.455700 16082 net.cpp:425] inception_5b/pool <- inception_5a/output_inception_5a/output_0_split_3
I0403 15:49:10.455721 16082 net.cpp:399] inception_5b/pool -> inception_5b/pool
I0403 15:49:10.455797 16082 net.cpp:141] Setting up inception_5b/pool
I0403 15:49:10.455822 16082 net.cpp:148] Top shape: 24 832 7 7 (978432)
I0403 15:49:10.455837 16082 net.cpp:156] Memory required for data: 1339843104
I0403 15:49:10.455852 16082 layer_factory.hpp:77] Creating layer inception_5b/pool_proj
I0403 15:49:10.455874 16082 net.cpp:91] Creating Layer inception_5b/pool_proj
I0403 15:49:10.455891 16082 net.cpp:425] inception_5b/pool_proj <- inception_5b/pool
I0403 15:49:10.455912 16082 net.cpp:399] inception_5b/pool_proj -> inception_5b/pool_proj
I0403 15:49:10.458312 16082 net.cpp:141] Setting up inception_5b/pool_proj
I0403 15:49:10.458341 16082 net.cpp:148] Top shape: 24 128 7 7 (150528)
I0403 15:49:10.458358 16082 net.cpp:156] Memory required for data: 1340445216
I0403 15:49:10.458375 16082 layer_factory.hpp:77] Creating layer inception_5b/relu_pool_proj
I0403 15:49:10.458395 16082 net.cpp:91] Creating Layer inception_5b/relu_pool_proj
I0403 15:49:10.458413 16082 net.cpp:425] inception_5b/relu_pool_proj <- inception_5b/pool_proj
I0403 15:49:10.458431 16082 net.cpp:386] inception_5b/relu_pool_proj -> inception_5b/pool_proj (in-place)
I0403 15:49:10.458744 16082 net.cpp:141] Setting up inception_5b/relu_pool_proj
I0403 15:49:10.458770 16082 net.cpp:148] Top shape: 24 128 7 7 (150528)
I0403 15:49:10.458786 16082 net.cpp:156] Memory required for data: 1341047328
I0403 15:49:10.458801 16082 layer_factory.hpp:77] Creating layer inception_5b/output
I0403 15:49:10.458817 16082 net.cpp:91] Creating Layer inception_5b/output
I0403 15:49:10.458847 16082 net.cpp:425] inception_5b/output <- inception_5b/1x1
I0403 15:49:10.458864 16082 net.cpp:425] inception_5b/output <- inception_5b/3x3
I0403 15:49:10.458880 16082 net.cpp:425] inception_5b/output <- inception_5b/5x5
I0403 15:49:10.458896 16082 net.cpp:425] inception_5b/output <- inception_5b/pool_proj
I0403 15:49:10.458916 16082 net.cpp:399] inception_5b/output -> inception_5b/output
I0403 15:49:10.458971 16082 net.cpp:141] Setting up inception_5b/output
I0403 15:49:10.458994 16082 net.cpp:148] Top shape: 24 1024 7 7 (1204224)
I0403 15:49:10.459008 16082 net.cpp:156] Memory required for data: 1345864224
I0403 15:49:10.459022 16082 layer_factory.hpp:77] Creating layer pool5/7x7_s1
I0403 15:49:10.459040 16082 net.cpp:91] Creating Layer pool5/7x7_s1
I0403 15:49:10.459055 16082 net.cpp:425] pool5/7x7_s1 <- inception_5b/output
I0403 15:49:10.459075 16082 net.cpp:399] pool5/7x7_s1 -> pool5/7x7_s1
I0403 15:49:10.459295 16082 net.cpp:141] Setting up pool5/7x7_s1
I0403 15:49:10.459321 16082 net.cpp:148] Top shape: 24 1024 1 1 (24576)
I0403 15:49:10.459336 16082 net.cpp:156] Memory required for data: 1345962528
I0403 15:49:10.459350 16082 layer_factory.hpp:77] Creating layer pool5/drop_7x7_s1
I0403 15:49:10.459370 16082 net.cpp:91] Creating Layer pool5/drop_7x7_s1
I0403 15:49:10.459386 16082 net.cpp:425] pool5/drop_7x7_s1 <- pool5/7x7_s1
I0403 15:49:10.459404 16082 net.cpp:386] pool5/drop_7x7_s1 -> pool5/7x7_s1 (in-place)
I0403 15:49:10.459456 16082 net.cpp:141] Setting up pool5/drop_7x7_s1
I0403 15:49:10.459480 16082 net.cpp:148] Top shape: 24 1024 1 1 (24576)
I0403 15:49:10.459493 16082 net.cpp:156] Memory required for data: 1346060832
I0403 15:49:10.459507 16082 layer_factory.hpp:77] Creating layer loss3/classifier_plantvillage
I0403 15:49:10.459527 16082 net.cpp:91] Creating Layer loss3/classifier_plantvillage
I0403 15:49:10.459550 16082 net.cpp:425] loss3/classifier_plantvillage <- pool5/7x7_s1
I0403 15:49:10.459576 16082 net.cpp:399] loss3/classifier_plantvillage -> loss3/classifier_plantvillage
I0403 15:49:10.460017 16082 net.cpp:141] Setting up loss3/classifier_plantvillage
I0403 15:49:10.460043 16082 net.cpp:148] Top shape: 24 38 (912)
I0403 15:49:10.460057 16082 net.cpp:156] Memory required for data: 1346064480
I0403 15:49:10.460074 16082 layer_factory.hpp:77] Creating layer loss3/classifier_plantvillage_loss3/classifier_plantvillage_0_split
I0403 15:49:10.460093 16082 net.cpp:91] Creating Layer loss3/classifier_plantvillage_loss3/classifier_plantvillage_0_split
I0403 15:49:10.460108 16082 net.cpp:425] loss3/classifier_plantvillage_loss3/classifier_plantvillage_0_split <- loss3/classifier_plantvillage
I0403 15:49:10.460127 16082 net.cpp:399] loss3/classifier_plantvillage_loss3/classifier_plantvillage_0_split -> loss3/classifier_plantvillage_loss3/classifier_plantvillage_0_split_0
I0403 15:49:10.460147 16082 net.cpp:399] loss3/classifier_plantvillage_loss3/classifier_plantvillage_0_split -> loss3/classifier_plantvillage_loss3/classifier_plantvillage_0_split_1
I0403 15:49:10.460168 16082 net.cpp:399] loss3/classifier_plantvillage_loss3/classifier_plantvillage_0_split -> loss3/classifier_plantvillage_loss3/classifier_plantvillage_0_split_2
I0403 15:49:10.460188 16082 net.cpp:399] loss3/classifier_plantvillage_loss3/classifier_plantvillage_0_split -> loss3/classifier_plantvillage_loss3/classifier_plantvillage_0_split_3
I0403 15:49:10.460294 16082 net.cpp:141] Setting up loss3/classifier_plantvillage_loss3/classifier_plantvillage_0_split
I0403 15:49:10.460316 16082 net.cpp:148] Top shape: 24 38 (912)
I0403 15:49:10.460332 16082 net.cpp:148] Top shape: 24 38 (912)
I0403 15:49:10.460347 16082 net.cpp:148] Top shape: 24 38 (912)
I0403 15:49:10.460361 16082 net.cpp:148] Top shape: 24 38 (912)
I0403 15:49:10.460376 16082 net.cpp:156] Memory required for data: 1346079072
I0403 15:49:10.460388 16082 layer_factory.hpp:77] Creating layer loss1/loss
I0403 15:49:10.460409 16082 net.cpp:91] Creating Layer loss1/loss
I0403 15:49:10.460427 16082 net.cpp:425] loss1/loss <- loss1/classifier_plantvillage_loss1/classifier_plantvillage_0_split_0
I0403 15:49:10.460456 16082 net.cpp:425] loss1/loss <- label_data_1_split_0
…
