…
I0403 15:05:26.996647 14097 net.cpp:313] The NetState phase (1) differed from the phase (0) specified by a rule in layer data
I0403 15:05:26.997856 14097 net.cpp:49] Initializing net from parameters: 
state {
  phase: TEST
}
layer {
  name: "data"
  type: "Data"
  top: "data"
  top: "label"
  include {
    phase: TEST
  }
  transform_param {
    mirror: false
    crop_size: 224
    mean_file: "/home/mohanty/data/final_dataset/lmdb/color-50-50/mean.binaryproto"
  }
  data_param {
    source: "/home/mohanty/data/final_dataset/lmdb/color-50-50/test_db"
    batch_size: 24
    backend: LMDB
  }
}
layer {
  name: "conv1/7x7_s2"
  type: "Convolution"
  bottom: "data"
  top: "conv1/7x7_s2"
  param {
    lr_mult: 1
    decay_mult: 1
  }
  param {
    lr_mult: 2
    decay_mult: 0
  }
  convolution_param {
    num_output: 64
    pad: 3
    kernel_size: 7
    stride: 2
    weight_filler {
      type: "xavier"
      std: 0.1
    }
    bias_filler {
      type: "constant"
      value: 0.2
    }
  }
}
layer {
  name: "conv1/relu_7x7"
  type: "ReLU"
  bottom: "conv1/7x7_s2"
  top: "conv1/7x7_s2"
}
layer {
  name: "pool1/3x3_s2"
  type: "Pooling"
  bottom: "conv1/7x7_s2"
  top: "pool1/3x3_s2"
  pooling_param {
    pool: MAX
    kernel_size: 3
    stride: 2
  }
}
layer {
  name: "pool1/norm1"
  type: "LRN"
  bottom: "pool1/3x3_s2"
  top: "pool1/norm1"
  lrn_param {
    local_size: 5
    alpha: 0.0001
    beta: 0.75
  }
}
layer {
  name: "conv2/3x3_reduce"
  type: "Convolution"
  bottom: "pool1/norm1"
  top: "conv2/3x3_reduce"
  param {
    lr_mult: 1
    decay_mult: 1
  }
  param {
    lr_mult: 2
    decay_mult: 0
  }
  convolution_param {
    num_output: 64
    kernel_size: 1
    weight_filler {
      type: "xavier"
      std: 0.1
    }
    bias_filler {
      type: "constant"
      value: 0.2
    }
  }
}
layer {
  name: "conv2/relu_3x3_reduce"
  type: "ReLU"
  bottom: "conv2/3x3_reduce"
  top: "conv2/3x3_reduce"
}
layer {
  name: "conv2/3x3"
  type: "Convolution"
  bottom: "conv2/3x3_reduce"
  top: "conv2/3x3"
  param {
    lr_mult: 1
    decay_mult: 1
  }
  param {
    lr_mult: 2
    decay_mult: 0
  }
  convolution_param {
    num_output: 192
    pad: 1
    kernel_size: 3
    weight_filler {
      type: "xavier"
      std: 0.03
    }
    bias_filler {
      type: "constant"
      value: 0.2
    }
  }
}
layer {
  name: "conv2/relu_3x3"
  type: "ReLU"
  bottom: "conv2/3x3"
  top: "conv2/3x3"
}
layer {
  name: "conv2/norm2"
  type: "LRN"
  bottom: "conv2/3x3"
  top: "conv2/norm2"
  lrn_param {
    local_size: 5
    alpha: 0.0001
    beta: 0.75
  }
}
layer {
  name: "pool2/3x3_s2"
  type: "Pooling"
  bottom: "conv2/norm2"
  top: "pool2/3x3_s2"
  pooling_param {
    pool: MAX
    kernel_size: 3
    stride: 2
  }
}
layer {
  name: "inception_3a/1x1"
  type: "Convolution"
  bottom: "pool2/3x3_s2"
  top: "inception_3a/1x1"
  param {
    lr_mult: 1
    decay_mult: 1
  }
  param {
    lr_mult: 2
    decay_mult: 0
  }
  convolution_param {
    num_output: 64
    kernel_size: 1
    weight_filler {
      type: "xavier"
      std: 0.03
    }
    bias_filler {
      type: "constant"
      value: 0.2
    }
  }
}
layer {
  name: "inception_3a/relu_1x1"
  type: "ReLU"
  bottom: "inception_3a/1x1"
  top: "inception_3a/1x1"
}
layer {
  name: "inception_3a/3x3_reduce"
  type: "Convolution"
  bottom: "pool2/3x3_s2"
  top: "inception_3a/3x3_reduce"
  param {
    lr_mult: 1
    decay_mult: 1
  }
  param {
    lr_mult: 2
    decay_mult: 0
  }
  convolution_param {
    num_output: 96
    kernel_size: 1
    weight_filler {
      type: "xavier"
      std: 0.09
    }
    bias_filler {
      type: "constant"
      value: 0.2
    }
  }
}
layer {
  name: "inception_3a/relu_3x3_reduce"
  type: "ReLU"
  bottom: "inception_3a/3x3_reduce"
  top: "inception_3a/3x3_reduce"
}
layer {
  name: "inception_3a/3x3"
  type: "Convolution"
  bottom: "inception_3a/3x3_reduce"
  top: "inception_3a/3x3"
  param {
    lr_mult: 1
    decay_mult: 1
  }
  param {
    lr_mult: 2
    decay_mult: 0
  }
  convolution_param {
    num_output: 128
    pad: 1
    kernel_size: 3
    weight_filler {
      type: "xavier"
      std: 0.03
    }
    bias_filler {
      type: "constant"
      value: 0.2
    }
  }
}
layer {
  name: "inception_3a/relu_3x3"
  type: "ReLU"
  bottom: "inception_3a/3x3"
  top: "inception_3a/3x3"
}
layer {
  name: "inception_3a/5x5_reduce"
  type: "Convolution"
  bottom: "pool2/3x3_s2"
  top: "inception_3a/5x5_reduce"
  param {
    lr_mult: 1
    decay_mult: 1
  }
  param {
    lr_mult: 2
    decay_mult: 0
  }
  convolution_param {
    num_output: 16
    kernel_size: 1
    weight_filler {
      type: "xavier"
      std: 0.2
    }
    bias_filler {
      type: "constant"
      value: 0.2
    }
  }
}
layer {
  name: "inception_3a/relu_5x5_reduce"
  type: "ReLU"
  bottom: "inception_3a/5x5_reduce"
  top: "inception_3a/5x5_reduce"
}
layer {
  name: "inception_3a/5x5"
  type: "Convolution"
  bottom: "inception_3a/5x5_reduce"
  top: "inception_3a/5x5"
  param {
    lr_mult: 1
    decay_mult: 1
  }
  param {
    lr_mult: 2
    decay_mult: 0
  }
  convolution_param {
    num_output: 32
    pad: 2
    kernel_size: 5
    weight_filler {
      type: "xavier"
      std: 0.03
    }
    bias_filler {
      type: "constant"
      value: 0.2
    }
  }
}
layer {
  name: "inception_3a/relu_5x5"
  type: "ReLU"
  bottom: "inception_3a/5x5"
  top: "inception_3a/5x5"
}
layer {
  name: "inception_3a/pool"
  type: "Pooling"
  bottom: "pool2/3x3_s2"
  top: "inception_3a/pool"
  pooling_param {
    pool: MAX
    kernel_size: 3
    stride: 1
    pad: 1
  }
}
layer {
  name: "inception_3a/pool_proj"
  type: "Convolution"
  bottom: "inception_3a/pool"
  top: "inception_3a/pool_proj"
  param {
    lr_mult: 1
    decay_mult: 1
  }
  param {
    lr_mult: 2
    decay_mult: 0
  }
  convolution_param {
    num_output: 32
    kernel_size: 1
    weight_filler {
      type: "xavier"
      std: 0.1
    }
    bias_filler {
      type: "constant"
      value: 0.2
    }
  }
}
layer {
  name: "inception_3a/relu_pool_proj"
  type: "ReLU"
  bottom: "inception_3a/pool_proj"
  top: "inception_3a/pool_proj"
}
layer {
  name: "inception_3a/output"
  type: "Concat"
  bottom: "inception_3a/1x1"
  bottom: "inception_3a/3x3"
  bottom: "inception_3a/5x5"
  bottom: "inception_3a/pool_proj"
  top: "inception_3a/output"
}
layer {
  name: "inception_3b/1x1"
  type: "Convolution"
  bottom: "inception_3a/output"
  top: "inception_3b/1x1"
  param {
    lr_mult: 1
    decay_mult: 1
  }
  param {
    lr_mult: 2
    decay_mult: 0
  }
  convolution_param {
    num_output: 128
    kernel_size: 1
    weight_filler {
      type: "xavier"
      std: 0.03
    }
    bias_filler {
      type: "constant"
      value: 0.2
    }
  }
}
layer {
  name: "inception_3b/relu_1x1"
  type: "ReLU"
  bottom: "inception_3b/1x1"
  top: "inception_3b/1x1"
}
layer {
  name: "inception_3b/3x3_reduce"
  type: "Convolution"
  bottom: "inception_3a/output"
  top: "inception_3b/3x3_reduce"
  param {
    lr_mult: 1
    decay_mult: 1
  }
  param {
    lr_mult: 2
    decay_mult: 0
  }
  convolution_param {
    num_output: 128
    kernel_size: 1
    weight_filler {
      type: "xavier"
      std: 0.09
    }
    bias_filler {
      type: "constant"
      value: 0.2
    }
  }
}
layer {
  name: "inception_3b/relu_3x3_reduce"
  type: "ReLU"
  bottom: "inception_3b/3x3_reduce"
  top: "inception_3b/3x3_reduce"
}
layer {
  name: "inception_3b/3x3"
  type: "Convolution"
  bottom: "inception_3b/3x3_reduce"
  top: "inception_3b/3x3"
  param {
    lr_mult: 1
    decay_mult: 1
  }
  param {
    lr_mult: 2
    decay_mult: 0
  }
  convolution_param {
    num_output: 192
    pad: 1
    kernel_size: 3
    weight_filler {
      type: "xavier"
      std: 0.03
    }
    bias_filler {
      type: "constant"
      value: 0.2
    }
  }
}
layer {
  name: "inception_3b/relu_3x3"
  type: "ReLU"
  bottom: "inception_3b/3x3"
  top: "inception_3b/3x3"
}
layer {
  name: "inception_3b/5x5_reduce"
  type: "Convolution"
  bottom: "inception_3a/output"
  top: "inception_3b/5x5_reduce"
  param {
    lr_mult: 1
    decay_mult: 1
  }
  param {
    lr_mult: 2
    decay_mult: 0
  }
  convolution_param {
    num_output: 32
    kernel_size: 1
    weight_filler {
      type: "xavier"
      std: 0.2
    }
    bias_filler {
      type: "constant"
      value: 0.2
    }
  }
}
layer {
  name: "inception_3b/relu_5x5_reduce"
  type: "ReLU"
  bottom: "inception_3b/5x5_reduce"
  top: "inception_3b/5x5_reduce"
}
layer {
  name: "inception_3b/5x5"
  type: "Convolution"
  bottom: "inception_3b/5x5_reduce"
  top: "inception_3b/5x5"
  param {
    lr_mult: 1
    decay_mult: 1
  }
  param {
    lr_mult: 2
    decay_mult: 0
  }
  convolution_param {
    num_output: 96
    pad: 2
    kernel_size: 5
    weight_filler {
      type: "xavier"
      std: 0.03
    }
    bias_filler {
      type: "constant"
      value: 0.2
    }
  }
}
layer {
  name: "inception_3b/relu_5x5"
  type: "ReLU"
  bottom: "inception_3b/5x5"
  top: "inception_3b/5x5"
}
layer {
  name: "inception_3b/pool"
  type: "Pooling"
  bottom: "inception_3a/output"
  top: "inception_3b/pool"
  pooling_param {
    pool: MAX
    kernel_size: 3
    stride: 1
    pad: 1
  }
}
layer {
  name: "inception_3b/pool_proj"
  type: "Convolution"
  bottom: "inception_3b/pool"
  top: "inception_3b/pool_proj"
  param {
    lr_mult: 1
    decay_mult: 1
  }
  param {
    lr_mult: 2
    decay_mult: 0
  }
  convolution_param {
    num_output: 64
    kernel_size: 1
    weight_filler {
      type: "xavier"
      std: 0.1
    }
    bias_filler {
      type: "constant"
      value: 0.2
    }
  }
}
layer {
  name: "inception_3b/relu_pool_proj"
  type: "ReLU"
  bottom: "inception_3b/pool_proj"
  top: "inception_3b/pool_proj"
}
layer {
  name: "inception_3b/output"
  type: "Concat"
  bottom: "inception_3b/1x1"
  bottom: "inception_3b/3x3"
  bottom: "inception_3b/5x5"
  bottom: "inception_3b/pool_proj"
  top: "inception_3b/output"
}
layer {
  name: "pool3/3x3_s2"
  type: "Pooling"
  bottom: "inception_3b/output"
  top: "pool3/3x3_s2"
  pooling_param {
    pool: MAX
    kernel_size: 3
    stride: 2
  }
}
layer {
  name: "inception_4a/1x1"
  type: "Convolution"
  bottom: "pool3/3x3_s2"
  top: "inception_4a/1x1"
  param {
    lr_mult: 1
    decay_mult: 1
  }
  param {
    lr_mult: 2
    decay_mult: 0
  }
  convolution_param {
    num_output: 192
    kernel_size: 1
    weight_filler {
      type: "xavier"
      std: 0.03
    }
    bias_filler {
      type: "constant"
      value: 0.2
    }
  }
}
layer {
  name: "inception_4a/relu_1x1"
  type: "ReLU"
  bottom: "inception_4a/1x1"
  top: "inception_4a/1x1"
}
layer {
  name: "inception_4a/3x3_reduce"
  type: "Convolution"
  bottom: "pool3/3x3_s2"
  top: "inception_4a/3x3_reduce"
  param {
    lr_mult: 1
    decay_mult: 1
  }
  param {
    lr_mult: 2
    decay_mult: 0
  }
  convolution_param {
    num_output: 96
    kernel_size: 1
    weight_filler {
      type: "xavier"
      std: 0.09
    }
    bias_filler {
      type: "constant"
      value: 0.2
    }
  }
}
layer {
  name: "inception_4a/relu_3x3_reduce"
  type: "ReLU"
  bottom: "inception_4a/3x3_reduce"
  top: "inception_4a/3x3_reduce"
}
layer {
  name: "inception_4a/3x3"
  type: "Convolution"
  bottom: "inception_4a/3x3_reduce"
  top: "inception_4a/3x3"
  param {
    lr_mult: 1
    decay_mult: 1
  }
  param {
    lr_mult: 2
    decay_mult: 0
  }
  convolution_param {
    num_output: 208
    pad: 1
    kernel_size: 3
    weight_filler {
      type: "xavier"
      std: 0.03
    }
    bias_filler {
      type: "constant"
      value: 0.2
    }
  }
}
layer {
  name: "inception_4a/relu_3x3"
  type: "ReLU"
  bottom: "inception_4a/3x3"
  top: "inception_4a/3x3"
}
layer {
  name: "inception_4a/5x5_reduce"
  type: "Convolution"
  bottom: "pool3/3x3_s2"
  top: "inception_4a/5x5_reduce"
  param {
    lr_mult: 1
    decay_mult: 1
  }
  param {
    lr_mult: 2
    decay_mult: 0
  }
  convolution_param {
    num_output: 16
    kernel_size: 1
    weight_filler {
      type: "xavier"
      std: 0.2
    }
    bias_filler {
      type: "constant"
      value: 0.2
    }
  }
}
layer {
  name: "inception_4a/relu_5x5_reduce"
  type: "ReLU"
  bottom: "inception_4a/5x5_reduce"
  top: "inception_4a/5x5_reduce"
}
layer {
  name: "inception_4a/5x5"
  type: "Convolution"
  bottom: "inception_4a/5x5_reduce"
  top: "inception_4a/5x5"
  param {
    lr_mult: 1
    decay_mult: 1
  }
  param {
    lr_mult: 2
    decay_mult: 0
  }
  convolution_param {
    num_output: 48
    pad: 2
    kernel_size: 5
    weight_filler {
      type: "xavier"
      std: 0.03
    }
    bias_filler {
      type: "constant"
      value: 0.2
    }
  }
}
layer {
  name: "inception_4a/relu_5x5"
  type: "ReLU"
  bottom: "inception_4a/5x5"
  top: "inception_4a/5x5"
}
layer {
  name: "inception_4a/pool"
  type: "Pooling"
  bottom: "pool3/3x3_s2"
  top: "inception_4a/pool"
  pooling_param {
    pool: MAX
    kernel_size: 3
    stride: 1
    pad: 1
  }
}
layer {
  name: "inception_4a/pool_proj"
  type: "Convolution"
  bottom: "inception_4a/pool"
  top: "inception_4a/pool_proj"
  param {
    lr_mult: 1
    decay_mult: 1
  }
  param {
    lr_mult: 2
    decay_mult: 0
  }
  convolution_param {
    num_output: 64
    kernel_size: 1
    weight_filler {
      type: "xavier"
      std: 0.1
    }
    bias_filler {
      type: "constant"
      value: 0.2
    }
  }
}
layer {
  name: "inception_4a/relu_pool_proj"
  type: "ReLU"
  bottom: "inception_4a/pool_proj"
  top: "inception_4a/pool_proj"
}
layer {
  name: "inception_4a/output"
  type: "Concat"
  bottom: "inception_4a/1x1"
  bottom: "inception_4a/3x3"
  bottom: "inception_4a/5x5"
  bottom: "inception_4a/pool_proj"
  top: "inception_4a/output"
}
layer {
  name: "loss1/ave_pool"
  type: "Pooling"
  bottom: "inception_4a/output"
  top: "loss1/ave_pool"
  pooling_param {
    pool: AVE
    kernel_size: 5
    stride: 3
  }
}
layer {
  name: "loss1/conv"
  type: "Convolution"
  bottom: "loss1/ave_pool"
  top: "loss1/conv"
  param {
    lr_mult: 1
    decay_mult: 1
  }
  param {
    lr_mult: 2
    decay_mult: 0
  }
  convolution_param {
    num_output: 128
    kernel_size: 1
    weight_filler {
      type: "xavier"
      std: 0.08
    }
    bias_filler {
      type: "constant"
      value: 0.2
    }
  }
}
layer {
  name: "loss1/relu_conv"
  type: "ReLU"
  bottom: "loss1/conv"
  top: "loss1/conv"
}
layer {
  name: "loss1/fc"
  type: "InnerProduct"
  bottom: "loss1/conv"
  top: "loss1/fc"
  param {
    lr_mult: 1
    decay_mult: 1
  }
  param {
    lr_mult: 2
    decay_mult: 0
  }
  inner_product_param {
    num_output: 1024
    weight_filler {
      type: "xavier"
      std: 0.02
    }
    bias_filler {
      type: "constant"
      value: 0.2
    }
  }
}
layer {
  name: "loss1/relu_fc"
  type: "ReLU"
  bottom: "loss1/fc"
  top: "loss1/fc"
}
layer {
  name: "loss1/drop_fc"
  type: "Dropout"
  bottom: "loss1/fc"
  top: "loss1/fc"
  dropout_param {
    dropout_ratio: 0.7
  }
}
layer {
  name: "loss1/classifier_plantvillage"
  type: "InnerProduct"
  bottom: "loss1/fc"
  top: "loss1/classifier_plantvillage"
  param {
    lr_mult: 1
    decay_mult: 1
  }
  param {
    lr_mult: 2
    decay_mult: 0
  }
  inner_product_param {
    num_output: 38
    weight_filler {
      type: "xavier"
      std: 0.0009765625
    }
    bias_filler {
      type: "constant"
      value: 0
    }
  }
}
layer {
  name: "inception_4b/1x1"
  type: "Convolution"
  bottom: "inception_4a/output"
  top: "inception_4b/1x1"
  param {
    lr_mult: 1
    decay_mult: 1
  }
  param {
    lr_mult: 2
    decay_mult: 0
  }
  convolution_param {
    num_output: 160
    kernel_size: 1
    weight_filler {
      type: "xavier"
      std: 0.03
    }
    bias_filler {
      type: "constant"
      value: 0.2
    }
  }
}
layer {
  name: "inception_4b/relu_1x1"
  type: "ReLU"
  bottom: "inception_4b/1x1"
  top: "inception_4b/1x1"
}
layer {
  name: "inception_4b/3x3_reduce"
  type: "Convolution"
  bottom: "inception_4a/output"
  top: "inception_4b/3x3_reduce"
  param {
    lr_mult: 1
    decay_mult: 1
  }
  param {
    lr_mult: 2
    decay_mult: 0
  }
  convolution_param {
    num_output: 112
    kernel_size: 1
    weight_filler {
      type: "xavier"
      std: 0.09
    }
    bias_filler {
      type: "constant"
      value: 0.2
    }
  }
}
layer {
  name: "inception_4b/relu_3x3_reduce"
  type: "ReLU"
  bottom: "inception_4b/3x3_reduce"
  top: "inception_4b/3x3_reduce"
}
layer {
  name: "inception_4b/3x3"
  type: "Convolution"
  bottom: "inception_4b/3x3_reduce"
  top: "inception_4b/3x3"
  param {
    lr_mult: 1
    decay_mult: 1
  }
  param {
    lr_mult: 2
    decay_mult: 0
  }
  convolution_param {
    num_output: 224
    pad: 1
    kernel_size: 3
    weight_filler {
      type: "xavier"
      std: 0.03
    }
    bias_filler {
      type: "constant"
      value: 0.2
    }
  }
}
layer {
  name: "inception_4b/relu_3x3"
  type: "ReLU"
  bottom: "inception_4b/3x3"
  top: "inception_4b/3x3"
}
layer {
  name: "inception_4b/5x5_reduce"
  type: "Convolution"
  bottom: "inception_4a/output"
  top: "inception_4b/5x5_reduce"
  param {
    lr_mult: 1
    decay_mult: 1
  }
  param {
    lr_mult: 2
    decay_mult: 0
  }
  convolution_param {
    num_output: 24
    kernel_size: 1
    weight_filler {
      type: "xavier"
      std: 0.2
    }
    bias_filler {
      type: "constant"
      value: 0.2
    }
  }
}
layer {
  name: "inception_4b/relu_5x5_reduce"
  type: "ReLU"
  bottom: "inception_4b/5x5_reduce"
  top: "inception_4b/5x5_reduce"
}
layer {
  name: "inception_4b/5x5"
  type: "Convolution"
  bottom: "inception_4b/5x5_reduce"
  top: "inception_4b/5x5"
  param {
    lr_mult: 1
    decay_mult: 1
  }
  param {
    lr_mult: 2
    decay_mult: 0
  }
  convolution_param {
    num_output: 64
    pad: 2
    kernel_size: 5
    weight_filler {
      type: "xavier"
      std: 0.03
    }
    bias_filler {
      type: "constant"
      value: 0.2
    }
  }
}
layer {
  name: "inception_4b/relu_5x5"
  type: "ReLU"
  bottom: "inception_4b/5x5"
  top: "inception_4b/5x5"
}
layer {
  name: "inception_4b/pool"
  type: "Pooling"
  bottom: "inception_4a/output"
  top: "inception_4b/pool"
  pooling_param {
    pool: MAX
    kernel_size: 3
    stride: 1
    pad: 1
  }
}
layer {
  name: "inception_4b/pool_proj"
  type: "Convolution"
  bottom: "inception_4b/pool"
  top: "inception_4b/pool_proj"
  param {
    lr_mult: 1
    decay_mult: 1
  }
  param {
    lr_mult: 2
    decay_mult: 0
  }
  convolution_param {
    num_output: 64
    kernel_size: 1
    weight_filler {
      type: "xavier"
      std: 0.1
    }
    bias_filler {
      type: "constant"
      value: 0.2
    }
  }
}
layer {
  name: "inception_4b/relu_pool_proj"
  type: "ReLU"
  bottom: "inception_4b/pool_proj"
  top: "inception_4b/pool_proj"
}
layer {
  name: "inception_4b/output"
  type: "Concat"
  bottom: "inception_4b/1x1"
  bottom: "inception_4b/3x3"
  bottom: "inception_4b/5x5"
  bottom: "inception_4b/pool_proj"
  top: "inception_4b/output"
}
layer {
  name: "inception_4c/1x1"
  type: "Convolution"
  bottom: "inception_4b/output"
  top: "inception_4c/1x1"
  param {
    lr_mult: 1
    decay_mult: 1
  }
  param {
    lr_mult: 2
    decay_mult: 0
  }
  convolution_param {
    num_output: 128
    kernel_size: 1
    weight_filler {
      type: "xavier"
      std: 0.03
    }
    bias_filler {
      type: "constant"
      value: 0.2
    }
  }
}
layer {
  name: "inception_4c/relu_1x1"
  type: "ReLU"
  bottom: "inception_4c/1x1"
  top: "inception_4c/1x1"
}
layer {
  name: "inception_4c/3x3_reduce"
  type: "Convolution"
  bottom: "inception_4b/output"
  top: "inception_4c/3x3_reduce"
  param {
    lr_mult: 1
    decay_mult: 1
  }
  param {
    lr_mult: 2
    decay_mult: 0
  }
  convolution_param {
    num_output: 128
    kernel_size: 1
    weight_filler {
      type: "xavier"
      std: 0.09
    }
    bias_filler {
      type: "constant"
      value: 0.2
    }
  }
}
layer {
  name: "inception_4c/relu_3x3_reduce"
  type: "ReLU"
  bottom: "inception_4c/3x3_reduce"
  top: "inception_4c/3x3_reduce"
}
layer {
  name: "inception_4c/3x3"
  type: "Convolution"
  bottom: "inception_4c/3x3_reduce"
  top: "inception_4c/3x3"
  param {
    lr_mult: 1
    decay_mult: 1
  }
  param {
    lr_mult: 2
    decay_mult: 0
  }
  convolution_param {
    num_output: 256
    pad: 1
    kernel_size: 3
    weight_filler {
      type: "xavier"
      std: 0.03
    }
    bias_filler {
      type: "constant"
      value: 0.2
    }
  }
}
layer {
  name: "inception_4c/relu_3x3"
  type: "ReLU"
  bottom: "inception_4c/3x3"
  top: "inception_4c/3x3"
}
layer {
  name: "inception_4c/5x5_reduce"
  type: "Convolution"
  bottom: "inception_4b/output"
  top: "inception_4c/5x5_reduce"
  param {
    lr_mult: 1
    decay_mult: 1
  }
  param {
    lr_mult: 2
    decay_mult: 0
  }
  convolution_param {
    num_output: 24
    kernel_size: 1
    weight_filler {
      type: "xavier"
      std: 0.2
    }
    bias_filler {
      type: "constant"
      value: 0.2
    }
  }
}
layer {
  name: "inception_4c/relu_5x5_reduce"
  type: "ReLU"
  bottom: "inception_4c/5x5_reduce"
  top: "inception_4c/5x5_reduce"
}
layer {
  name: "inception_4c/5x5"
  type: "Convolution"
  bottom: "inception_4c/5x5_reduce"
  top: "inception_4c/5x5"
  param {
    lr_mult: 1
    decay_mult: 1
  }
  param {
    lr_mult: 2
    decay_mult: 0
  }
  convolution_param {
    num_output: 64
    pad: 2
    kernel_size: 5
    weight_filler {
      type: "xavier"
      std: 0.03
    }
    bias_filler {
      type: "constant"
      value: 0.2
    }
  }
}
layer {
  name: "inception_4c/relu_5x5"
  type: "ReLU"
  bottom: "inception_4c/5x5"
  top: "inception_4c/5x5"
}
layer {
  name: "inception_4c/pool"
  type: "Pooling"
  bottom: "inception_4b/output"
  top: "inception_4c/pool"
  pooling_param {
    pool: MAX
    kernel_size: 3
    stride: 1
    pad: 1
  }
}
layer {
  name: "inception_4c/pool_proj"
  type: "Convolution"
  bottom: "inception_4c/pool"
  top: "inception_4c/pool_proj"
  param {
    lr_mult: 1
    decay_mult: 1
  }
  param {
    lr_mult: 2
    decay_mult: 0
  }
  convolution_param {
    num_output: 64
    kernel_size: 1
    weight_filler {
      type: "xavier"
      std: 0.1
    }
    bias_filler {
      type: "constant"
      value: 0.2
    }
  }
}
layer {
  name: "inception_4c/relu_pool_proj"
  type: "ReLU"
  bottom: "inception_4c/pool_proj"
  top: "inception_4c/pool_proj"
}
layer {
  name: "inception_4c/output"
  type: "Concat"
  bottom: "inception_4c/1x1"
  bottom: "inception_4c/3x3"
  bottom: "inception_4c/5x5"
  bottom: "inception_4c/pool_proj"
  top: "inception_4c/output"
}
layer {
  name: "inception_4d/1x1"
  type: "Convolution"
  bottom: "inception_4c/output"
  top: "inception_4d/1x1"
  param {
    lr_mult: 1
    decay_mult: 1
  }
  param {
    lr_mult: 2
    decay_mult: 0
  }
  convolution_param {
    num_output: 112
    kernel_size: 1
    weight_filler {
      type: "xavier"
      std: 0.03
    }
    bias_filler {
      type: "constant"
      value: 0.2
    }
  }
}
layer {
  name: "inception_4d/relu_1x1"
  type: "ReLU"
  bottom: "inception_4d/1x1"
  top: "inception_4d/1x1"
}
layer {
  name: "inception_4d/3x3_reduce"
  type: "Convolution"
  bottom: "inception_4c/output"
  top: "inception_4d/3x3_reduce"
  param {
    lr_mult: 1
    decay_mult: 1
  }
  param {
    lr_mult: 2
    decay_mult: 0
  }
  convolution_param {
    num_output: 144
    kernel_size: 1
    weight_filler {
      type: "xavier"
      std: 0.09
    }
    bias_filler {
      type: "constant"
      value: 0.2
    }
  }
}
layer {
  name: "inception_4d/relu_3x3_reduce"
  type: "ReLU"
  bottom: "inception_4d/3x3_reduce"
  top: "inception_4d/3x3_reduce"
}
layer {
  name: "inception_4d/3x3"
  type: "Convolution"
  bottom: "inception_4d/3x3_reduce"
  top: "inception_4d/3x3"
  param {
    lr_mult: 1
    decay_mult: 1
  }
  param {
    lr_mult: 2
    decay_mult: 0
  }
  convolution_param {
    num_output: 288
    pad: 1
    kernel_size: 3
    weight_filler {
      type: "xavier"
      std: 0.03
    }
    bias_filler {
      type: "constant"
      value: 0.2
    }
  }
}
layer {
  name: "inception_4d/relu_3x3"
  type: "ReLU"
  bottom: "inception_4d/3x3"
  top: "inception_4d/3x3"
}
layer {
  name: "inception_4d/5x5_reduce"
  type: "Convolution"
  bottom: "inception_4c/output"
  top: "inception_4d/5x5_reduce"
  param {
    lr_mult: 1
    decay_mult: 1
  }
  param {
    lr_mult: 2
    decay_mult: 0
  }
  convolution_param {
    num_output: 32
    kernel_size: 1
    weight_filler {
      type: "xavier"
      std: 0.2
    }
    bias_filler {
      type: "constant"
      value: 0.2
    }
  }
}
layer {
  name: "inception_4d/relu_5x5_reduce"
  type: "ReLU"
  bottom: "inception_4d/5x5_reduce"
  top: "inception_4d/5x5_reduce"
}
layer {
  name: "inception_4d/5x5"
  type: "Convolution"
  bottom: "inception_4d/5x5_reduce"
  top: "inception_4d/5x5"
  param {
    lr_mult: 1
    decay_mult: 1
  }
  param {
    lr_mult: 2
    decay_mult: 0
  }
  convolution_param {
    num_output: 64
    pad: 2
    kernel_size: 5
    weight_filler {
      type: "xavier"
      std: 0.03
    }
    bias_filler {
      type: "constant"
      value: 0.2
    }
  }
}
layer {
  name: "inception_4d/relu_5x5"
  type: "ReLU"
  bottom: "inception_4d/5x5"
  top: "inception_4d/5x5"
}
layer {
  name: "inception_4d/pool"
  type: "Pooling"
  bottom: "inception_4c/output"
  top: "inception_4d/pool"
  pooling_param {
    pool: MAX
    kernel_size: 3
    stride: 1
    pad: 1
  }
}
layer {
  name: "inception_4d/pool_proj"
  type: "Convolution"
  bottom: "inception_4d/pool"
  top: "inception_4d/pool_proj"
  param {
    lr_mult: 1
    decay_mult: 1
  }
  param {
    lr_mult: 2
    decay_mult: 0
  }
  convolution_param {
    num_output: 64
    kernel_size: 1
    weight_filler {
      type: "xavier"
      std: 0.1
    }
    bias_filler {
      type: "constant"
      value: 0.2
    }
  }
}
layer {
  name: "inception_4d/relu_pool_proj"
  type: "ReLU"
  bottom: "inception_4d/pool_proj"
  top: "inception_4d/pool_proj"
}
layer {
  name: "inception_4d/output"
  type: "Concat"
  bottom: "inception_4d/1x1"
  bottom: "inception_4d/3x3"
  bottom: "inception_4d/5x5"
  bottom: "inception_4d/pool_proj"
  top: "inception_4d/output"
}
layer {
  name: "loss2/ave_pool"
  type: "Pooling"
  bottom: "inception_4d/output"
  top: "loss2/ave_pool"
  pooling_param {
    pool: AVE
    kernel_size: 5
    stride: 3
  }
}
layer {
  name: "loss2/conv"
  type: "Convolution"
  bottom: "loss2/ave_pool"
  top: "loss2/conv"
  param {
    lr_mult: 1
    decay_mult: 1
  }
  param {
    lr_mult: 2
    decay_mult: 0
  }
  convolution_param {
    num_output: 128
    kernel_size: 1
    weight_filler {
      type: "xavier"
      std: 0.08
    }
    bias_filler {
      type: "constant"
      value: 0.2
    }
  }
}
layer {
  name: "loss2/relu_conv"
  type: "ReLU"
  bottom: "loss2/conv"
  top: "loss2/conv"
}
layer {
  name: "loss2/fc"
  type: "InnerProduct"
  bottom: "loss2/conv"
  top: "loss2/fc"
  param {
    lr_mult: 1
    decay_mult: 1
  }
  param {
    lr_mult: 2
    decay_mult: 0
  }
  inner_product_param {
    num_output: 1024
    weight_filler {
      type: "xavier"
      std: 0.02
    }
    bias_filler {
      type: "constant"
      value: 0.2
    }
  }
}
layer {
  name: "loss2/relu_fc"
  type: "ReLU"
  bottom: "loss2/fc"
  top: "loss2/fc"
}
layer {
  name: "loss2/drop_fc"
  type: "Dropout"
  bottom: "loss2/fc"
  top: "loss2/fc"
  dropout_param {
    dropout_ratio: 0.7
  }
}
layer {
  name: "loss2/classifier_plantvillage"
  type: "InnerProduct"
  bottom: "loss2/fc"
  top: "loss2/classifier_plantvillage"
  param {
    lr_mult: 1
    decay_mult: 1
  }
  param {
    lr_mult: 2
    decay_mult: 0
  }
  inner_product_param {
    num_output: 38
    weight_filler {
      type: "xavier"
      std: 0.0009765625
    }
    bias_filler {
      type: "constant"
      value: 0
    }
  }
}
layer {
  name: "inception_4e/1x1"
  type: "Convolution"
  bottom: "inception_4d/output"
  top: "inception_4e/1x1"
  param {
    lr_mult: 1
    decay_mult: 1
  }
  param {
    lr_mult: 2
    decay_mult: 0
  }
  convolution_param {
    num_output: 256
    kernel_size: 1
    weight_filler {
      type: "xavier"
      std: 0.03
    }
    bias_filler {
      type: "constant"
      value: 0.2
    }
  }
}
layer {
  name: "inception_4e/relu_1x1"
  type: "ReLU"
  bottom: "inception_4e/1x1"
  top: "inception_4e/1x1"
}
layer {
  name: "inception_4e/3x3_reduce"
  type: "Convolution"
  bottom: "inception_4d/output"
  top: "inception_4e/3x3_reduce"
  param {
    lr_mult: 1
    decay_mult: 1
  }
  param {
    lr_mult: 2
    decay_mult: 0
  }
  convolution_param {
    num_output: 160
    kernel_size: 1
    weight_filler {
      type: "xavier"
      std: 0.09
    }
    bias_filler {
      type: "constant"
      value: 0.2
    }
  }
}
layer {
  name: "inception_4e/relu_3x3_reduce"
  type: "ReLU"
  bottom: "inception_4e/3x3_reduce"
  top: "inception_4e/3x3_reduce"
}
layer {
  name: "inception_4e/3x3"
  type: "Convolution"
  bottom: "inception_4e/3x3_reduce"
  top: "inception_4e/3x3"
  param {
    lr_mult: 1
    decay_mult: 1
  }
  param {
    lr_mult: 2
    decay_mult: 0
  }
  convolution_param {
    num_output: 320
    pad: 1
    kernel_size: 3
    weight_filler {
      type: "xavier"
      std: 0.03
    }
    bias_filler {
      type: "constant"
      value: 0.2
    }
  }
}
layer {
  name: "inception_4e/relu_3x3"
  type: "ReLU"
  bottom: "inception_4e/3x3"
  top: "inception_4e/3x3"
}
layer {
  name: "inception_4e/5x5_reduce"
  type: "Convolution"
  bottom: "inception_4d/output"
  top: "inception_4e/5x5_reduce"
  param {
    lr_mult: 1
    decay_mult: 1
  }
  param {
    lr_mult: 2
    decay_mult: 0
  }
  convolution_param {
    num_output: 32
    kernel_size: 1
    weight_filler {
      type: "xavier"
      std: 0.2
    }
    bias_filler {
      type: "constant"
      value: 0.2
    }
  }
}
layer {
  name: "inception_4e/relu_5x5_reduce"
  type: "ReLU"
  bottom: "inception_4e/5x5_reduce"
  top: "inception_4e/5x5_reduce"
}
layer {
  name: "inception_4e/5x5"
  type: "Convolution"
  bottom: "inception_4e/5x5_reduce"
  top: "inception_4e/5x5"
  p
I0403 15:05:26.999248 14097 layer_factory.hpp:77] Creating layer data
I0403 15:05:26.999845 14097 net.cpp:91] Creating Layer data
I0403 15:05:26.999879 14097 net.cpp:399] data -> data
I0403 15:05:26.999928 14097 net.cpp:399] data -> label
I0403 15:05:26.999964 14097 data_transformer.cpp:25] Loading mean file from: /home/mohanty/data/final_dataset/lmdb/color-50-50/mean.binaryproto
I0403 15:05:27.009518 14102 db_lmdb.cpp:38] Opened lmdb /home/mohanty/data/final_dataset/lmdb/color-50-50/test_db
I0403 15:05:27.018777 14097 data_layer.cpp:41] output data size: 24,3,224,224
I0403 15:05:27.046675 14097 net.cpp:141] Setting up data
I0403 15:05:27.046766 14097 net.cpp:148] Top shape: 24 3 224 224 (3612672)
I0403 15:05:27.046788 14097 net.cpp:148] Top shape: 24 (24)
I0403 15:05:27.046803 14097 net.cpp:156] Memory required for data: 14450784
I0403 15:05:27.046831 14097 layer_factory.hpp:77] Creating layer label_data_1_split
I0403 15:05:27.046870 14097 net.cpp:91] Creating Layer label_data_1_split
I0403 15:05:27.046887 14097 net.cpp:425] label_data_1_split <- label
I0403 15:05:27.046921 14097 net.cpp:399] label_data_1_split -> label_data_1_split_0
I0403 15:05:27.046957 14097 net.cpp:399] label_data_1_split -> label_data_1_split_1
I0403 15:05:27.046978 14097 net.cpp:399] label_data_1_split -> label_data_1_split_2
I0403 15:05:27.046998 14097 net.cpp:399] label_data_1_split -> label_data_1_split_3
I0403 15:05:27.047019 14097 net.cpp:399] label_data_1_split -> label_data_1_split_4
I0403 15:05:27.047039 14097 net.cpp:399] label_data_1_split -> label_data_1_split_5
I0403 15:05:27.047057 14097 net.cpp:399] label_data_1_split -> label_data_1_split_6
I0403 15:05:27.047077 14097 net.cpp:399] label_data_1_split -> label_data_1_split_7
I0403 15:05:27.047097 14097 net.cpp:399] label_data_1_split -> label_data_1_split_8
I0403 15:05:27.047117 14097 net.cpp:399] label_data_1_split -> label_data_1_split_9
I0403 15:05:27.047235 14097 net.cpp:141] Setting up label_data_1_split
I0403 15:05:27.047260 14097 net.cpp:148] Top shape: 24 (24)
I0403 15:05:27.047276 14097 net.cpp:148] Top shape: 24 (24)
I0403 15:05:27.047291 14097 net.cpp:148] Top shape: 24 (24)
I0403 15:05:27.047307 14097 net.cpp:148] Top shape: 24 (24)
I0403 15:05:27.047322 14097 net.cpp:148] Top shape: 24 (24)
I0403 15:05:27.047338 14097 net.cpp:148] Top shape: 24 (24)
I0403 15:05:27.047353 14097 net.cpp:148] Top shape: 24 (24)
I0403 15:05:27.047369 14097 net.cpp:148] Top shape: 24 (24)
I0403 15:05:27.047384 14097 net.cpp:148] Top shape: 24 (24)
I0403 15:05:27.047399 14097 net.cpp:148] Top shape: 24 (24)
I0403 15:05:27.047446 14097 net.cpp:156] Memory required for data: 14451744
I0403 15:05:27.047462 14097 layer_factory.hpp:77] Creating layer conv1/7x7_s2
I0403 15:05:27.047493 14097 net.cpp:91] Creating Layer conv1/7x7_s2
I0403 15:05:27.047511 14097 net.cpp:425] conv1/7x7_s2 <- data
I0403 15:05:27.047530 14097 net.cpp:399] conv1/7x7_s2 -> conv1/7x7_s2
I0403 15:05:27.190382 14097 net.cpp:141] Setting up conv1/7x7_s2
I0403 15:05:27.190462 14097 net.cpp:148] Top shape: 24 64 112 112 (19267584)
I0403 15:05:27.190481 14097 net.cpp:156] Memory required for data: 91522080
I0403 15:05:27.190513 14097 layer_factory.hpp:77] Creating layer conv1/relu_7x7
I0403 15:05:27.190546 14097 net.cpp:91] Creating Layer conv1/relu_7x7
I0403 15:05:27.190565 14097 net.cpp:425] conv1/relu_7x7 <- conv1/7x7_s2
I0403 15:05:27.190584 14097 net.cpp:386] conv1/relu_7x7 -> conv1/7x7_s2 (in-place)
I0403 15:05:27.190901 14097 net.cpp:141] Setting up conv1/relu_7x7
I0403 15:05:27.190929 14097 net.cpp:148] Top shape: 24 64 112 112 (19267584)
I0403 15:05:27.190956 14097 net.cpp:156] Memory required for data: 168592416
I0403 15:05:27.190971 14097 layer_factory.hpp:77] Creating layer pool1/3x3_s2
I0403 15:05:27.190997 14097 net.cpp:91] Creating Layer pool1/3x3_s2
I0403 15:05:27.191015 14097 net.cpp:425] pool1/3x3_s2 <- conv1/7x7_s2
I0403 15:05:27.191035 14097 net.cpp:399] pool1/3x3_s2 -> pool1/3x3_s2
I0403 15:05:27.191112 14097 net.cpp:141] Setting up pool1/3x3_s2
I0403 15:05:27.191136 14097 net.cpp:148] Top shape: 24 64 56 56 (4816896)
I0403 15:05:27.191151 14097 net.cpp:156] Memory required for data: 187860000
I0403 15:05:27.191167 14097 layer_factory.hpp:77] Creating layer pool1/norm1
I0403 15:05:27.191196 14097 net.cpp:91] Creating Layer pool1/norm1
I0403 15:05:27.191215 14097 net.cpp:425] pool1/norm1 <- pool1/3x3_s2
I0403 15:05:27.191232 14097 net.cpp:399] pool1/norm1 -> pool1/norm1
I0403 15:05:27.191535 14097 net.cpp:141] Setting up pool1/norm1
I0403 15:05:27.191567 14097 net.cpp:148] Top shape: 24 64 56 56 (4816896)
I0403 15:05:27.191584 14097 net.cpp:156] Memory required for data: 207127584
I0403 15:05:27.191599 14097 layer_factory.hpp:77] Creating layer conv2/3x3_reduce
I0403 15:05:27.191625 14097 net.cpp:91] Creating Layer conv2/3x3_reduce
I0403 15:05:27.191642 14097 net.cpp:425] conv2/3x3_reduce <- pool1/norm1
I0403 15:05:27.191660 14097 net.cpp:399] conv2/3x3_reduce -> conv2/3x3_reduce
I0403 15:05:27.193110 14097 net.cpp:141] Setting up conv2/3x3_reduce
I0403 15:05:27.193140 14097 net.cpp:148] Top shape: 24 64 56 56 (4816896)
I0403 15:05:27.193156 14097 net.cpp:156] Memory required for data: 226395168
I0403 15:05:27.193178 14097 layer_factory.hpp:77] Creating layer conv2/relu_3x3_reduce
I0403 15:05:27.193197 14097 net.cpp:91] Creating Layer conv2/relu_3x3_reduce
I0403 15:05:27.193218 14097 net.cpp:425] conv2/relu_3x3_reduce <- conv2/3x3_reduce
I0403 15:05:27.193236 14097 net.cpp:386] conv2/relu_3x3_reduce -> conv2/3x3_reduce (in-place)
I0403 15:05:27.193496 14097 net.cpp:141] Setting up conv2/relu_3x3_reduce
I0403 15:05:27.193523 14097 net.cpp:148] Top shape: 24 64 56 56 (4816896)
I0403 15:05:27.193544 14097 net.cpp:156] Memory required for data: 245662752
I0403 15:05:27.193560 14097 layer_factory.hpp:77] Creating layer conv2/3x3
I0403 15:05:27.193583 14097 net.cpp:91] Creating Layer conv2/3x3
I0403 15:05:27.193600 14097 net.cpp:425] conv2/3x3 <- conv2/3x3_reduce
I0403 15:05:27.193619 14097 net.cpp:399] conv2/3x3 -> conv2/3x3
I0403 15:05:27.196039 14097 net.cpp:141] Setting up conv2/3x3
I0403 15:05:27.196071 14097 net.cpp:148] Top shape: 24 192 56 56 (14450688)
I0403 15:05:27.196089 14097 net.cpp:156] Memory required for data: 303465504
I0403 15:05:27.196110 14097 layer_factory.hpp:77] Creating layer conv2/relu_3x3
I0403 15:05:27.196130 14097 net.cpp:91] Creating Layer conv2/relu_3x3
I0403 15:05:27.196146 14097 net.cpp:425] conv2/relu_3x3 <- conv2/3x3
I0403 15:05:27.196164 14097 net.cpp:386] conv2/relu_3x3 -> conv2/3x3 (in-place)
I0403 15:05:27.196336 14097 net.cpp:141] Setting up conv2/relu_3x3
I0403 15:05:27.196363 14097 net.cpp:148] Top shape: 24 192 56 56 (14450688)
I0403 15:05:27.196418 14097 net.cpp:156] Memory required for data: 361268256
I0403 15:05:27.196434 14097 layer_factory.hpp:77] Creating layer conv2/norm2
I0403 15:05:27.196455 14097 net.cpp:91] Creating Layer conv2/norm2
I0403 15:05:27.196471 14097 net.cpp:425] conv2/norm2 <- conv2/3x3
I0403 15:05:27.196488 14097 net.cpp:399] conv2/norm2 -> conv2/norm2
I0403 15:05:27.196791 14097 net.cpp:141] Setting up conv2/norm2
I0403 15:05:27.196820 14097 net.cpp:148] Top shape: 24 192 56 56 (14450688)
I0403 15:05:27.196836 14097 net.cpp:156] Memory required for data: 419071008
I0403 15:05:27.196851 14097 layer_factory.hpp:77] Creating layer pool2/3x3_s2
I0403 15:05:27.196871 14097 net.cpp:91] Creating Layer pool2/3x3_s2
I0403 15:05:27.196885 14097 net.cpp:425] pool2/3x3_s2 <- conv2/norm2
I0403 15:05:27.196903 14097 net.cpp:399] pool2/3x3_s2 -> pool2/3x3_s2
I0403 15:05:27.196955 14097 net.cpp:141] Setting up pool2/3x3_s2
I0403 15:05:27.196979 14097 net.cpp:148] Top shape: 24 192 28 28 (3612672)
I0403 15:05:27.196995 14097 net.cpp:156] Memory required for data: 433521696
I0403 15:05:27.197010 14097 layer_factory.hpp:77] Creating layer pool2/3x3_s2_pool2/3x3_s2_0_split
I0403 15:05:27.197027 14097 net.cpp:91] Creating Layer pool2/3x3_s2_pool2/3x3_s2_0_split
I0403 15:05:27.197042 14097 net.cpp:425] pool2/3x3_s2_pool2/3x3_s2_0_split <- pool2/3x3_s2
I0403 15:05:27.197059 14097 net.cpp:399] pool2/3x3_s2_pool2/3x3_s2_0_split -> pool2/3x3_s2_pool2/3x3_s2_0_split_0
I0403 15:05:27.197079 14097 net.cpp:399] pool2/3x3_s2_pool2/3x3_s2_0_split -> pool2/3x3_s2_pool2/3x3_s2_0_split_1
I0403 15:05:27.197099 14097 net.cpp:399] pool2/3x3_s2_pool2/3x3_s2_0_split -> pool2/3x3_s2_pool2/3x3_s2_0_split_2
I0403 15:05:27.197120 14097 net.cpp:399] pool2/3x3_s2_pool2/3x3_s2_0_split -> pool2/3x3_s2_pool2/3x3_s2_0_split_3
I0403 15:05:27.197188 14097 net.cpp:141] Setting up pool2/3x3_s2_pool2/3x3_s2_0_split
I0403 15:05:27.197212 14097 net.cpp:148] Top shape: 24 192 28 28 (3612672)
I0403 15:05:27.197229 14097 net.cpp:148] Top shape: 24 192 28 28 (3612672)
I0403 15:05:27.197244 14097 net.cpp:148] Top shape: 24 192 28 28 (3612672)
I0403 15:05:27.197263 14097 net.cpp:148] Top shape: 24 192 28 28 (3612672)
I0403 15:05:27.197276 14097 net.cpp:156] Memory required for data: 491324448
I0403 15:05:27.197291 14097 layer_factory.hpp:77] Creating layer inception_3a/1x1
I0403 15:05:27.197312 14097 net.cpp:91] Creating Layer inception_3a/1x1
I0403 15:05:27.197330 14097 net.cpp:425] inception_3a/1x1 <- pool2/3x3_s2_pool2/3x3_s2_0_split_0
I0403 15:05:27.197350 14097 net.cpp:399] inception_3a/1x1 -> inception_3a/1x1
I0403 15:05:27.198997 14097 net.cpp:141] Setting up inception_3a/1x1
I0403 15:05:27.199028 14097 net.cpp:148] Top shape: 24 64 28 28 (1204224)
I0403 15:05:27.199045 14097 net.cpp:156] Memory required for data: 496141344
I0403 15:05:27.199065 14097 layer_factory.hpp:77] Creating layer inception_3a/relu_1x1
I0403 15:05:27.199084 14097 net.cpp:91] Creating Layer inception_3a/relu_1x1
I0403 15:05:27.199101 14097 net.cpp:425] inception_3a/relu_1x1 <- inception_3a/1x1
I0403 15:05:27.199123 14097 net.cpp:386] inception_3a/relu_1x1 -> inception_3a/1x1 (in-place)
I0403 15:05:27.199307 14097 net.cpp:141] Setting up inception_3a/relu_1x1
I0403 15:05:27.199333 14097 net.cpp:148] Top shape: 24 64 28 28 (1204224)
I0403 15:05:27.199349 14097 net.cpp:156] Memory required for data: 500958240
I0403 15:05:27.199364 14097 layer_factory.hpp:77] Creating layer inception_3a/3x3_reduce
I0403 15:05:27.199391 14097 net.cpp:91] Creating Layer inception_3a/3x3_reduce
I0403 15:05:27.199412 14097 net.cpp:425] inception_3a/3x3_reduce <- pool2/3x3_s2_pool2/3x3_s2_0_split_1
I0403 15:05:27.199434 14097 net.cpp:399] inception_3a/3x3_reduce -> inception_3a/3x3_reduce
I0403 15:05:27.201220 14097 net.cpp:141] Setting up inception_3a/3x3_reduce
I0403 15:05:27.201249 14097 net.cpp:148] Top shape: 24 96 28 28 (1806336)
I0403 15:05:27.201268 14097 net.cpp:156] Memory required for data: 508183584
I0403 15:05:27.201289 14097 layer_factory.hpp:77] Creating layer inception_3a/relu_3x3_reduce
I0403 15:05:27.201329 14097 net.cpp:91] Creating Layer inception_3a/relu_3x3_reduce
I0403 15:05:27.201347 14097 net.cpp:425] inception_3a/relu_3x3_reduce <- inception_3a/3x3_reduce
I0403 15:05:27.201365 14097 net.cpp:386] inception_3a/relu_3x3_reduce -> inception_3a/3x3_reduce (in-place)
I0403 15:05:27.201563 14097 net.cpp:141] Setting up inception_3a/relu_3x3_reduce
I0403 15:05:27.201592 14097 net.cpp:148] Top shape: 24 96 28 28 (1806336)
I0403 15:05:27.201613 14097 net.cpp:156] Memory required for data: 515408928
I0403 15:05:27.201629 14097 layer_factory.hpp:77] Creating layer inception_3a/3x3
I0403 15:05:27.201653 14097 net.cpp:91] Creating Layer inception_3a/3x3
I0403 15:05:27.201673 14097 net.cpp:425] inception_3a/3x3 <- inception_3a/3x3_reduce
I0403 15:05:27.201694 14097 net.cpp:399] inception_3a/3x3 -> inception_3a/3x3
I0403 15:05:27.203433 14097 net.cpp:141] Setting up inception_3a/3x3
I0403 15:05:27.203464 14097 net.cpp:148] Top shape: 24 128 28 28 (2408448)
I0403 15:05:27.203482 14097 net.cpp:156] Memory required for data: 525042720
I0403 15:05:27.203502 14097 layer_factory.hpp:77] Creating layer inception_3a/relu_3x3
I0403 15:05:27.203522 14097 net.cpp:91] Creating Layer inception_3a/relu_3x3
I0403 15:05:27.203542 14097 net.cpp:425] inception_3a/relu_3x3 <- inception_3a/3x3
I0403 15:05:27.203567 14097 net.cpp:386] inception_3a/relu_3x3 -> inception_3a/3x3 (in-place)
I0403 15:05:27.203860 14097 net.cpp:141] Setting up inception_3a/relu_3x3
I0403 15:05:27.203887 14097 net.cpp:148] Top shape: 24 128 28 28 (2408448)
I0403 15:05:27.203903 14097 net.cpp:156] Memory required for data: 534676512
I0403 15:05:27.203919 14097 layer_factory.hpp:77] Creating layer inception_3a/5x5_reduce
I0403 15:05:27.203943 14097 net.cpp:91] Creating Layer inception_3a/5x5_reduce
I0403 15:05:27.203960 14097 net.cpp:425] inception_3a/5x5_reduce <- pool2/3x3_s2_pool2/3x3_s2_0_split_2
I0403 15:05:27.203982 14097 net.cpp:399] inception_3a/5x5_reduce -> inception_3a/5x5_reduce
I0403 15:05:27.205001 14097 net.cpp:141] Setting up inception_3a/5x5_reduce
I0403 15:05:27.205031 14097 net.cpp:148] Top shape: 24 16 28 28 (301056)
I0403 15:05:27.205049 14097 net.cpp:156] Memory required for data: 535880736
I0403 15:05:27.205066 14097 layer_factory.hpp:77] Creating layer inception_3a/relu_5x5_reduce
I0403 15:05:27.205088 14097 net.cpp:91] Creating Layer inception_3a/relu_5x5_reduce
I0403 15:05:27.205106 14097 net.cpp:425] inception_3a/relu_5x5_reduce <- inception_3a/5x5_reduce
I0403 15:05:27.205124 14097 net.cpp:386] inception_3a/relu_5x5_reduce -> inception_3a/5x5_reduce (in-place)
I0403 15:05:27.205432 14097 net.cpp:141] Setting up inception_3a/relu_5x5_reduce
I0403 15:05:27.205461 14097 net.cpp:148] Top shape: 24 16 28 28 (301056)
I0403 15:05:27.205479 14097 net.cpp:156] Memory required for data: 537084960
I0403 15:05:27.205495 14097 layer_factory.hpp:77] Creating layer inception_3a/5x5
I0403 15:05:27.205520 14097 net.cpp:91] Creating Layer inception_3a/5x5
I0403 15:05:27.205543 14097 net.cpp:425] inception_3a/5x5 <- inception_3a/5x5_reduce
I0403 15:05:27.205564 14097 net.cpp:399] inception_3a/5x5 -> inception_3a/5x5
I0403 15:05:27.206629 14097 net.cpp:141] Setting up inception_3a/5x5
I0403 15:05:27.206660 14097 net.cpp:148] Top shape: 24 32 28 28 (602112)
I0403 15:05:27.206677 14097 net.cpp:156] Memory required for data: 539493408
I0403 15:05:27.206697 14097 layer_factory.hpp:77] Creating layer inception_3a/relu_5x5
I0403 15:05:27.206717 14097 net.cpp:91] Creating Layer inception_3a/relu_5x5
I0403 15:05:27.206733 14097 net.cpp:425] inception_3a/relu_5x5 <- inception_3a/5x5
I0403 15:05:27.206754 14097 net.cpp:386] inception_3a/relu_5x5 -> inception_3a/5x5 (in-place)
I0403 15:05:27.206940 14097 net.cpp:141] Setting up inception_3a/relu_5x5
I0403 15:05:27.206966 14097 net.cpp:148] Top shape: 24 32 28 28 (602112)
I0403 15:05:27.206982 14097 net.cpp:156] Memory required for data: 541901856
I0403 15:05:27.206998 14097 layer_factory.hpp:77] Creating layer inception_3a/pool
I0403 15:05:27.207018 14097 net.cpp:91] Creating Layer inception_3a/pool
I0403 15:05:27.207036 14097 net.cpp:425] inception_3a/pool <- pool2/3x3_s2_pool2/3x3_s2_0_split_3
I0403 15:05:27.207072 14097 net.cpp:399] inception_3a/pool -> inception_3a/pool
I0403 15:05:27.207134 14097 net.cpp:141] Setting up inception_3a/pool
I0403 15:05:27.207160 14097 net.cpp:148] Top shape: 24 192 28 28 (3612672)
I0403 15:05:27.207176 14097 net.cpp:156] Memory required for data: 556352544
I0403 15:05:27.207190 14097 layer_factory.hpp:77] Creating layer inception_3a/pool_proj
I0403 15:05:27.207218 14097 net.cpp:91] Creating Layer inception_3a/pool_proj
I0403 15:05:27.207237 14097 net.cpp:425] inception_3a/pool_proj <- inception_3a/pool
I0403 15:05:27.207259 14097 net.cpp:399] inception_3a/pool_proj -> inception_3a/pool_proj
I0403 15:05:27.208271 14097 net.cpp:141] Setting up inception_3a/pool_proj
I0403 15:05:27.208302 14097 net.cpp:148] Top shape: 24 32 28 28 (602112)
I0403 15:05:27.208319 14097 net.cpp:156] Memory required for data: 558760992
I0403 15:05:27.208341 14097 layer_factory.hpp:77] Creating layer inception_3a/relu_pool_proj
I0403 15:05:27.208364 14097 net.cpp:91] Creating Layer inception_3a/relu_pool_proj
I0403 15:05:27.208381 14097 net.cpp:425] inception_3a/relu_pool_proj <- inception_3a/pool_proj
I0403 15:05:27.208400 14097 net.cpp:386] inception_3a/relu_pool_proj -> inception_3a/pool_proj (in-place)
I0403 15:05:27.208690 14097 net.cpp:141] Setting up inception_3a/relu_pool_proj
I0403 15:05:27.208717 14097 net.cpp:148] Top shape: 24 32 28 28 (602112)
I0403 15:05:27.208734 14097 net.cpp:156] Memory required for data: 561169440
I0403 15:05:27.208748 14097 layer_factory.hpp:77] Creating layer inception_3a/output
I0403 15:05:27.208766 14097 net.cpp:91] Creating Layer inception_3a/output
I0403 15:05:27.208782 14097 net.cpp:425] inception_3a/output <- inception_3a/1x1
I0403 15:05:27.208798 14097 net.cpp:425] inception_3a/output <- inception_3a/3x3
I0403 15:05:27.208814 14097 net.cpp:425] inception_3a/output <- inception_3a/5x5
I0403 15:05:27.208830 14097 net.cpp:425] inception_3a/output <- inception_3a/pool_proj
I0403 15:05:27.208849 14097 net.cpp:399] inception_3a/output -> inception_3a/output
I0403 15:05:27.208897 14097 net.cpp:141] Setting up inception_3a/output
I0403 15:05:27.208925 14097 net.cpp:148] Top shape: 24 256 28 28 (4816896)
I0403 15:05:27.208940 14097 net.cpp:156] Memory required for data: 580437024
I0403 15:05:27.208956 14097 layer_factory.hpp:77] Creating layer inception_3a/output_inception_3a/output_0_split
I0403 15:05:27.208973 14097 net.cpp:91] Creating Layer inception_3a/output_inception_3a/output_0_split
I0403 15:05:27.208989 14097 net.cpp:425] inception_3a/output_inception_3a/output_0_split <- inception_3a/output
I0403 15:05:27.209005 14097 net.cpp:399] inception_3a/output_inception_3a/output_0_split -> inception_3a/output_inception_3a/output_0_split_0
I0403 15:05:27.209028 14097 net.cpp:399] inception_3a/output_inception_3a/output_0_split -> inception_3a/output_inception_3a/output_0_split_1
I0403 15:05:27.209053 14097 net.cpp:399] inception_3a/output_inception_3a/output_0_split -> inception_3a/output_inception_3a/output_0_split_2
I0403 15:05:27.209074 14097 net.cpp:399] inception_3a/output_inception_3a/output_0_split -> inception_3a/output_inception_3a/output_0_split_3
I0403 15:05:27.209153 14097 net.cpp:141] Setting up inception_3a/output_inception_3a/output_0_split
I0403 15:05:27.209179 14097 net.cpp:148] Top shape: 24 256 28 28 (4816896)
I0403 15:05:27.209198 14097 net.cpp:148] Top shape: 24 256 28 28 (4816896)
I0403 15:05:27.209214 14097 net.cpp:148] Top shape: 24 256 28 28 (4816896)
I0403 15:05:27.209229 14097 net.cpp:148] Top shape: 24 256 28 28 (4816896)
I0403 15:05:27.209244 14097 net.cpp:156] Memory required for data: 657507360
I0403 15:05:27.209259 14097 layer_factory.hpp:77] Creating layer inception_3b/1x1
I0403 15:05:27.209283 14097 net.cpp:91] Creating Layer inception_3b/1x1
I0403 15:05:27.209301 14097 net.cpp:425] inception_3b/1x1 <- inception_3a/output_inception_3a/output_0_split_0
I0403 15:05:27.209321 14097 net.cpp:399] inception_3b/1x1 -> inception_3b/1x1
I0403 15:05:27.210515 14097 net.cpp:141] Setting up inception_3b/1x1
I0403 15:05:27.210561 14097 net.cpp:148] Top shape: 24 128 28 28 (2408448)
I0403 15:05:27.210590 14097 net.cpp:156] Memory required for data: 667141152
I0403 15:05:27.210609 14097 layer_factory.hpp:77] Creating layer inception_3b/relu_1x1
I0403 15:05:27.210628 14097 net.cpp:91] Creating Layer inception_3b/relu_1x1
I0403 15:05:27.210645 14097 net.cpp:425] inception_3b/relu_1x1 <- inception_3b/1x1
I0403 15:05:27.210667 14097 net.cpp:386] inception_3b/relu_1x1 -> inception_3b/1x1 (in-place)
I0403 15:05:27.210849 14097 net.cpp:141] Setting up inception_3b/relu_1x1
I0403 15:05:27.210886 14097 net.cpp:148] Top shape: 24 128 28 28 (2408448)
I0403 15:05:27.210901 14097 net.cpp:156] Memory required for data: 676774944
I0403 15:05:27.210916 14097 layer_factory.hpp:77] Creating layer inception_3b/3x3_reduce
I0403 15:05:27.210937 14097 net.cpp:91] Creating Layer inception_3b/3x3_reduce
I0403 15:05:27.210954 14097 net.cpp:425] inception_3b/3x3_reduce <- inception_3a/output_inception_3a/output_0_split_1
I0403 15:05:27.210976 14097 net.cpp:399] inception_3b/3x3_reduce -> inception_3b/3x3_reduce
I0403 15:05:27.212165 14097 net.cpp:141] Setting up inception_3b/3x3_reduce
I0403 15:05:27.212195 14097 net.cpp:148] Top shape: 24 128 28 28 (2408448)
I0403 15:05:27.212210 14097 net.cpp:156] Memory required for data: 686408736
I0403 15:05:27.212229 14097 layer_factory.hpp:77] Creating layer inception_3b/relu_3x3_reduce
I0403 15:05:27.212246 14097 net.cpp:91] Creating Layer inception_3b/relu_3x3_reduce
I0403 15:05:27.212263 14097 net.cpp:425] inception_3b/relu_3x3_reduce <- inception_3b/3x3_reduce
I0403 15:05:27.212283 14097 net.cpp:386] inception_3b/relu_3x3_reduce -> inception_3b/3x3_reduce (in-place)
I0403 15:05:27.212460 14097 net.cpp:141] Setting up inception_3b/relu_3x3_reduce
I0403 15:05:27.212486 14097 net.cpp:148] Top shape: 24 128 28 28 (2408448)
I0403 15:05:27.212499 14097 net.cpp:156] Memory required for data: 696042528
I0403 15:05:27.212513 14097 layer_factory.hpp:77] Creating layer inception_3b/3x3
I0403 15:05:27.212551 14097 net.cpp:91] Creating Layer inception_3b/3x3
I0403 15:05:27.212571 14097 net.cpp:425] inception_3b/3x3 <- inception_3b/3x3_reduce
I0403 15:05:27.212590 14097 net.cpp:399] inception_3b/3x3 -> inception_3b/3x3
I0403 15:05:27.215582 14097 net.cpp:141] Setting up inception_3b/3x3
I0403 15:05:27.215611 14097 net.cpp:148] Top shape: 24 192 28 28 (3612672)
I0403 15:05:27.215628 14097 net.cpp:156] Memory required for data: 710493216
I0403 15:05:27.215647 14097 layer_factory.hpp:77] Creating layer inception_3b/relu_3x3
I0403 15:05:27.215665 14097 net.cpp:91] Creating Layer inception_3b/relu_3x3
I0403 15:05:27.215682 14097 net.cpp:425] inception_3b/relu_3x3 <- inception_3b/3x3
I0403 15:05:27.215701 14097 net.cpp:386] inception_3b/relu_3x3 -> inception_3b/3x3 (in-place)
I0403 15:05:27.215981 14097 net.cpp:141] Setting up inception_3b/relu_3x3
I0403 15:05:27.216008 14097 net.cpp:148] Top shape: 24 192 28 28 (3612672)
I0403 15:05:27.216023 14097 net.cpp:156] Memory required for data: 724943904
I0403 15:05:27.216038 14097 layer_factory.hpp:77] Creating layer inception_3b/5x5_reduce
I0403 15:05:27.216060 14097 net.cpp:91] Creating Layer inception_3b/5x5_reduce
I0403 15:05:27.216078 14097 net.cpp:425] inception_3b/5x5_reduce <- inception_3a/output_inception_3a/output_0_split_2
I0403 15:05:27.216099 14097 net.cpp:399] inception_3b/5x5_reduce -> inception_3b/5x5_reduce
I0403 15:05:27.217115 14097 net.cpp:141] Setting up inception_3b/5x5_reduce
I0403 15:05:27.217144 14097 net.cpp:148] Top shape: 24 32 28 28 (602112)
I0403 15:05:27.217159 14097 net.cpp:156] Memory required for data: 727352352
I0403 15:05:27.217176 14097 layer_factory.hpp:77] Creating layer inception_3b/relu_5x5_reduce
I0403 15:05:27.217195 14097 net.cpp:91] Creating Layer inception_3b/relu_5x5_reduce
I0403 15:05:27.217209 14097 net.cpp:425] inception_3b/relu_5x5_reduce <- inception_3b/5x5_reduce
I0403 15:05:27.217229 14097 net.cpp:386] inception_3b/relu_5x5_reduce -> inception_3b/5x5_reduce (in-place)
I0403 15:05:27.217401 14097 net.cpp:141] Setting up inception_3b/relu_5x5_reduce
I0403 15:05:27.217437 14097 net.cpp:148] Top shape: 24 32 28 28 (602112)
I0403 15:05:27.217453 14097 net.cpp:156] Memory required for data: 729760800
I0403 15:05:27.217466 14097 layer_factory.hpp:77] Creating layer inception_3b/5x5
I0403 15:05:27.217490 14097 net.cpp:91] Creating Layer inception_3b/5x5
I0403 15:05:27.217507 14097 net.cpp:425] inception_3b/5x5 <- inception_3b/5x5_reduce
I0403 15:05:27.217528 14097 net.cpp:399] inception_3b/5x5 -> inception_3b/5x5
I0403 15:05:27.219509 14097 net.cpp:141] Setting up inception_3b/5x5
I0403 15:05:27.219543 14097 net.cpp:148] Top shape: 24 96 28 28 (1806336)
I0403 15:05:27.219560 14097 net.cpp:156] Memory required for data: 736986144
I0403 15:05:27.219578 14097 layer_factory.hpp:77] Creating layer inception_3b/relu_5x5
I0403 15:05:27.219596 14097 net.cpp:91] Creating Layer inception_3b/relu_5x5
I0403 15:05:27.219611 14097 net.cpp:425] inception_3b/relu_5x5 <- inception_3b/5x5
I0403 15:05:27.219631 14097 net.cpp:386] inception_3b/relu_5x5 -> inception_3b/5x5 (in-place)
I0403 15:05:27.219820 14097 net.cpp:141] Setting up inception_3b/relu_5x5
I0403 15:05:27.219844 14097 net.cpp:148] Top shape: 24 96 28 28 (1806336)
I0403 15:05:27.219858 14097 net.cpp:156] Memory required for data: 744211488
I0403 15:05:27.219872 14097 layer_factory.hpp:77] Creating layer inception_3b/pool
I0403 15:05:27.219888 14097 net.cpp:91] Creating Layer inception_3b/pool
I0403 15:05:27.219904 14097 net.cpp:425] inception_3b/pool <- inception_3a/output_inception_3a/output_0_split_3
I0403 15:05:27.219921 14097 net.cpp:399] inception_3b/pool -> inception_3b/pool
I0403 15:05:27.219977 14097 net.cpp:141] Setting up inception_3b/pool
I0403 15:05:27.220000 14097 net.cpp:148] Top shape: 24 256 28 28 (4816896)
I0403 15:05:27.220015 14097 net.cpp:156] Memory required for data: 763479072
I0403 15:05:27.220028 14097 layer_factory.hpp:77] Creating layer inception_3b/pool_proj
I0403 15:05:27.220049 14097 net.cpp:91] Creating Layer inception_3b/pool_proj
I0403 15:05:27.220065 14097 net.cpp:425] inception_3b/pool_proj <- inception_3b/pool
I0403 15:05:27.220085 14097 net.cpp:399] inception_3b/pool_proj -> inception_3b/pool_proj
I0403 15:05:27.221120 14097 net.cpp:141] Setting up inception_3b/pool_proj
I0403 15:05:27.221148 14097 net.cpp:148] Top shape: 24 64 28 28 (1204224)
I0403 15:05:27.221163 14097 net.cpp:156] Memory required for data: 768295968
I0403 15:05:27.221180 14097 layer_factory.hpp:77] Creating layer inception_3b/relu_pool_proj
I0403 15:05:27.221204 14097 net.cpp:91] Creating Layer inception_3b/relu_pool_proj
I0403 15:05:27.221220 14097 net.cpp:425] inception_3b/relu_pool_proj <- inception_3b/pool_proj
I0403 15:05:27.221235 14097 net.cpp:386] inception_3b/relu_pool_proj -> inception_3b/pool_proj (in-place)
I0403 15:05:27.221642 14097 net.cpp:141] Setting up inception_3b/relu_pool_proj
I0403 15:05:27.221668 14097 net.cpp:148] Top shape: 24 64 28 28 (1204224)
I0403 15:05:27.221683 14097 net.cpp:156] Memory required for data: 773112864
I0403 15:05:27.221696 14097 layer_factory.hpp:77] Creating layer inception_3b/output
I0403 15:05:27.221715 14097 net.cpp:91] Creating Layer inception_3b/output
I0403 15:05:27.221731 14097 net.cpp:425] inception_3b/output <- inception_3b/1x1
I0403 15:05:27.221747 14097 net.cpp:425] inception_3b/output <- inception_3b/3x3
I0403 15:05:27.221762 14097 net.cpp:425] inception_3b/output <- inception_3b/5x5
I0403 15:05:27.221776 14097 net.cpp:425] inception_3b/output <- inception_3b/pool_proj
I0403 15:05:27.221792 14097 net.cpp:399] inception_3b/output -> inception_3b/output
I0403 15:05:27.221835 14097 net.cpp:141] Setting up inception_3b/output
I0403 15:05:27.221858 14097 net.cpp:148] Top shape: 24 480 28 28 (9031680)
I0403 15:05:27.221871 14097 net.cpp:156] Memory required for data: 809239584
I0403 15:05:27.221884 14097 layer_factory.hpp:77] Creating layer pool3/3x3_s2
I0403 15:05:27.221901 14097 net.cpp:91] Creating Layer pool3/3x3_s2
I0403 15:05:27.221915 14097 net.cpp:425] pool3/3x3_s2 <- inception_3b/output
I0403 15:05:27.221935 14097 net.cpp:399] pool3/3x3_s2 -> pool3/3x3_s2
I0403 15:05:27.222005 14097 net.cpp:141] Setting up pool3/3x3_s2
I0403 15:05:27.222028 14097 net.cpp:148] Top shape: 24 480 14 14 (2257920)
I0403 15:05:27.222041 14097 net.cpp:156] Memory required for data: 818271264
I0403 15:05:27.222054 14097 layer_factory.hpp:77] Creating layer pool3/3x3_s2_pool3/3x3_s2_0_split
I0403 15:05:27.222072 14097 net.cpp:91] Creating Layer pool3/3x3_s2_pool3/3x3_s2_0_split
I0403 15:05:27.222087 14097 net.cpp:425] pool3/3x3_s2_pool3/3x3_s2_0_split <- pool3/3x3_s2
I0403 15:05:27.222103 14097 net.cpp:399] pool3/3x3_s2_pool3/3x3_s2_0_split -> pool3/3x3_s2_pool3/3x3_s2_0_split_0
I0403 15:05:27.222126 14097 net.cpp:399] pool3/3x3_s2_pool3/3x3_s2_0_split -> pool3/3x3_s2_pool3/3x3_s2_0_split_1
I0403 15:05:27.222143 14097 net.cpp:399] pool3/3x3_s2_pool3/3x3_s2_0_split -> pool3/3x3_s2_pool3/3x3_s2_0_split_2
I0403 15:05:27.222162 14097 net.cpp:399] pool3/3x3_s2_pool3/3x3_s2_0_split -> pool3/3x3_s2_pool3/3x3_s2_0_split_3
I0403 15:05:27.222234 14097 net.cpp:141] Setting up pool3/3x3_s2_pool3/3x3_s2_0_split
I0403 15:05:27.222256 14097 net.cpp:148] Top shape: 24 480 14 14 (2257920)
I0403 15:05:27.222272 14097 net.cpp:148] Top shape: 24 480 14 14 (2257920)
I0403 15:05:27.222286 14097 net.cpp:148] Top shape: 24 480 14 14 (2257920)
I0403 15:05:27.222301 14097 net.cpp:148] Top shape: 24 480 14 14 (2257920)
I0403 15:05:27.222313 14097 net.cpp:156] Memory required for data: 854397984
I0403 15:05:27.222326 14097 layer_factory.hpp:77] Creating layer inception_4a/1x1
I0403 15:05:27.222347 14097 net.cpp:91] Creating Layer inception_4a/1x1
I0403 15:05:27.222363 14097 net.cpp:425] inception_4a/1x1 <- pool3/3x3_s2_pool3/3x3_s2_0_split_0
I0403 15:05:27.222383 14097 net.cpp:399] inception_4a/1x1 -> inception_4a/1x1
I0403 15:05:27.223978 14097 net.cpp:141] Setting up inception_4a/1x1
I0403 15:05:27.224007 14097 net.cpp:148] Top shape: 24 192 14 14 (903168)
I0403 15:05:27.224023 14097 net.cpp:156] Memory required for data: 858010656
I0403 15:05:27.224041 14097 layer_factory.hpp:77] Creating layer inception_4a/relu_1x1
I0403 15:05:27.224059 14097 net.cpp:91] Creating Layer inception_4a/relu_1x1
I0403 15:05:27.224074 14097 net.cpp:425] inception_4a/relu_1x1 <- inception_4a/1x1
I0403 15:05:27.224091 14097 net.cpp:386] inception_4a/relu_1x1 -> inception_4a/1x1 (in-place)
I0403 15:05:27.224264 14097 net.cpp:141] Setting up inception_4a/relu_1x1
I0403 15:05:27.224293 14097 net.cpp:148] Top shape: 24 192 14 14 (903168)
I0403 15:05:27.224308 14097 net.cpp:156] Memory required for data: 861623328
I0403 15:05:27.224323 14097 layer_factory.hpp:77] Creating layer inception_4a/3x3_reduce
I0403 15:05:27.224344 14097 net.cpp:91] Creating Layer inception_4a/3x3_reduce
I0403 15:05:27.224359 14097 net.cpp:425] inception_4a/3x3_reduce <- pool3/3x3_s2_pool3/3x3_s2_0_split_1
I0403 15:05:27.224380 14097 net.cpp:399] inception_4a/3x3_reduce -> inception_4a/3x3_reduce
I0403 15:05:27.225692 14097 net.cpp:141] Setting up inception_4a/3x3_reduce
I0403 15:05:27.225719 14097 net.cpp:148] Top shape: 24 96 14 14 (451584)
I0403 15:05:27.225734 14097 net.cpp:156] Memory required for data: 863429664
I0403 15:05:27.225759 14097 layer_factory.hpp:77] Creating layer inception_4a/relu_3x3_reduce
I0403 15:05:27.225780 14097 net.cpp:91] Creating Layer inception_4a/relu_3x3_reduce
I0403 15:05:27.225795 14097 net.cpp:425] inception_4a/relu_3x3_reduce <- inception_4a/3x3_reduce
I0403 15:05:27.225811 14097 net.cpp:386] inception_4a/relu_3x3_reduce -> inception_4a/3x3_reduce (in-place)
I0403 15:05:27.225987 14097 net.cpp:141] Setting up inception_4a/relu_3x3_reduce
I0403 15:05:27.226013 14097 net.cpp:148] Top shape: 24 96 14 14 (451584)
I0403 15:05:27.226028 14097 net.cpp:156] Memory required for data: 865236000
I0403 15:05:27.226042 14097 layer_factory.hpp:77] Creating layer inception_4a/3x3
I0403 15:05:27.226063 14097 net.cpp:91] Creating Layer inception_4a/3x3
I0403 15:05:27.226079 14097 net.cpp:425] inception_4a/3x3 <- inception_4a/3x3_reduce
I0403 15:05:27.226099 14097 net.cpp:399] inception_4a/3x3 -> inception_4a/3x3
I0403 15:05:27.228821 14097 net.cpp:141] Setting up inception_4a/3x3
I0403 15:05:27.228848 14097 net.cpp:148] Top shape: 24 208 14 14 (978432)
I0403 15:05:27.228863 14097 net.cpp:156] Memory required for data: 869149728
I0403 15:05:27.228881 14097 layer_factory.hpp:77] Creating layer inception_4a/relu_3x3
I0403 15:05:27.228899 14097 net.cpp:91] Creating Layer inception_4a/relu_3x3
I0403 15:05:27.228914 14097 net.cpp:425] inception_4a/relu_3x3 <- inception_4a/3x3
I0403 15:05:27.228934 14097 net.cpp:386] inception_4a/relu_3x3 -> inception_4a/3x3 (in-place)
I0403 15:05:27.229210 14097 net.cpp:141] Setting up inception_4a/relu_3x3
I0403 15:05:27.229236 14097 net.cpp:148] Top shape: 24 208 14 14 (978432)
I0403 15:05:27.229251 14097 net.cpp:156] Memory required for data: 873063456
I0403 15:05:27.229267 14097 layer_factory.hpp:77] Creating layer inception_4a/5x5_reduce
I0403 15:05:27.229290 14097 net.cpp:91] Creating Layer inception_4a/5x5_reduce
I0403 15:05:27.229305 14097 net.cpp:425] inception_4a/5x5_reduce <- pool3/3x3_s2_pool3/3x3_s2_0_split_2
I0403 15:05:27.229327 14097 net.cpp:399] inception_4a/5x5_reduce -> inception_4a/5x5_reduce
I0403 15:05:27.230347 14097 net.cpp:141] Setting up inception_4a/5x5_reduce
I0403 15:05:27.230376 14097 net.cpp:148] Top shape: 24 16 14 14 (75264)
I0403 15:05:27.230391 14097 net.cpp:156] Memory required for data: 873364512
I0403 15:05:27.230407 14097 layer_factory.hpp:77] Creating layer inception_4a/relu_5x5_reduce
I0403 15:05:27.230425 14097 net.cpp:91] Creating Layer inception_4a/relu_5x5_reduce
I0403 15:05:27.230440 14097 net.cpp:425] inception_4a/relu_5x5_reduce <- inception_4a/5x5_reduce
I0403 15:05:27.230459 14097 net.cpp:386] inception_4a/relu_5x5_reduce -> inception_4a/5x5_reduce (in-place)
I0403 15:05:27.230655 14097 net.cpp:141] Setting up inception_4a/relu_5x5_reduce
I0403 15:05:27.230680 14097 net.cpp:148] Top shape: 24 16 14 14 (75264)
I0403 15:05:27.230695 14097 net.cpp:156] Memory required for data: 873665568
I0403 15:05:27.230710 14097 layer_factory.hpp:77] Creating layer inception_4a/5x5
I0403 15:05:27.230731 14097 net.cpp:91] Creating Layer inception_4a/5x5
I0403 15:05:27.230749 14097 net.cpp:425] inception_4a/5x5 <- inception_4a/5x5_reduce
I0403 15:05:27.230770 14097 net.cpp:399] inception_4a/5x5 -> inception_4a/5x5
I0403 15:05:27.231873 14097 net.cpp:141] Setting up inception_4a/5x5
I0403 15:05:27.231901 14097 net.cpp:148] Top shape: 24 48 14 14 (225792)
I0403 15:05:27.231916 14097 net.cpp:156] Memory required for data: 874568736
I0403 15:05:27.231933 14097 layer_factory.hpp:77] Creating layer inception_4a/relu_5x5
I0403 15:05:27.231955 14097 net.cpp:91] Creating Layer inception_4a/relu_5x5
I0403 15:05:27.231971 14097 net.cpp:425] inception_4a/relu_5x5 <- inception_4a/5x5
I0403 15:05:27.231987 14097 net.cpp:386] inception_4a/relu_5x5 -> inception_4a/5x5 (in-place)
I0403 15:05:27.232167 14097 net.cpp:141] Setting up inception_4a/relu_5x5
I0403 15:05:27.232193 14097 net.cpp:148] Top shape: 24 48 14 14 (225792)
I0403 15:05:27.232208 14097 net.cpp:156] Memory required for data: 875471904
I0403 15:05:27.232223 14097 layer_factory.hpp:77] Creating layer inception_4a/pool
I0403 15:05:27.232239 14097 net.cpp:91] Creating Layer inception_4a/pool
I0403 15:05:27.232254 14097 net.cpp:425] inception_4a/pool <- pool3/3x3_s2_pool3/3x3_s2_0_split_3
I0403 15:05:27.232270 14097 net.cpp:399] inception_4a/pool -> inception_4a/pool
I0403 15:05:27.232331 14097 net.cpp:141] Setting up inception_4a/pool
I0403 15:05:27.232354 14097 net.cpp:148] Top shape: 24 480 14 14 (2257920)
I0403 15:05:27.232368 14097 net.cpp:156] Memory required for data: 884503584
I0403 15:05:27.232383 14097 layer_factory.hpp:77] Creating layer inception_4a/pool_proj
I0403 15:05:27.232405 14097 net.cpp:91] Creating Layer inception_4a/pool_proj
I0403 15:05:27.232421 14097 net.cpp:425] inception_4a/pool_proj <- inception_4a/pool
I0403 15:05:27.232441 14097 net.cpp:399] inception_4a/pool_proj -> inception_4a/pool_proj
I0403 15:05:27.233611 14097 net.cpp:141] Setting up inception_4a/pool_proj
I0403 15:05:27.233639 14097 net.cpp:148] Top shape: 24 64 14 14 (301056)
I0403 15:05:27.233669 14097 net.cpp:156] Memory required for data: 885707808
I0403 15:05:27.233688 14097 layer_factory.hpp:77] Creating layer inception_4a/relu_pool_proj
I0403 15:05:27.233710 14097 net.cpp:91] Creating Layer inception_4a/relu_pool_proj
I0403 15:05:27.233726 14097 net.cpp:425] inception_4a/relu_pool_proj <- inception_4a/pool_proj
I0403 15:05:27.233742 14097 net.cpp:386] inception_4a/relu_pool_proj -> inception_4a/pool_proj (in-place)
I0403 15:05:27.234021 14097 net.cpp:141] Setting up inception_4a/relu_pool_proj
I0403 15:05:27.234047 14097 net.cpp:148] Top shape: 24 64 14 14 (301056)
I0403 15:05:27.234061 14097 net.cpp:156] Memory required for data: 886912032
I0403 15:05:27.234076 14097 layer_factory.hpp:77] Creating layer inception_4a/output
I0403 15:05:27.234094 14097 net.cpp:91] Creating Layer inception_4a/output
I0403 15:05:27.234110 14097 net.cpp:425] inception_4a/output <- inception_4a/1x1
I0403 15:05:27.234127 14097 net.cpp:425] inception_4a/output <- inception_4a/3x3
I0403 15:05:27.234141 14097 net.cpp:425] inception_4a/output <- inception_4a/5x5
I0403 15:05:27.234156 14097 net.cpp:425] inception_4a/output <- inception_4a/pool_proj
I0403 15:05:27.234172 14097 net.cpp:399] inception_4a/output -> inception_4a/output
I0403 15:05:27.234218 14097 net.cpp:141] Setting up inception_4a/output
I0403 15:05:27.234241 14097 net.cpp:148] Top shape: 24 512 14 14 (2408448)
I0403 15:05:27.234261 14097 net.cpp:156] Memory required for data: 896545824
I0403 15:05:27.234274 14097 layer_factory.hpp:77] Creating layer inception_4a/output_inception_4a/output_0_split
I0403 15:05:27.234292 14097 net.cpp:91] Creating Layer inception_4a/output_inception_4a/output_0_split
I0403 15:05:27.234305 14097 net.cpp:425] inception_4a/output_inception_4a/output_0_split <- inception_4a/output
I0403 15:05:27.234324 14097 net.cpp:399] inception_4a/output_inception_4a/output_0_split -> inception_4a/output_inception_4a/output_0_split_0
I0403 15:05:27.234345 14097 net.cpp:399] inception_4a/output_inception_4a/output_0_split -> inception_4a/output_inception_4a/output_0_split_1
I0403 15:05:27.234365 14097 net.cpp:399] inception_4a/output_inception_4a/output_0_split -> inception_4a/output_inception_4a/output_0_split_2
I0403 15:05:27.234387 14097 net.cpp:399] inception_4a/output_inception_4a/output_0_split -> inception_4a/output_inception_4a/output_0_split_3
I0403 15:05:27.234408 14097 net.cpp:399] inception_4a/output_inception_4a/output_0_split -> inception_4a/output_inception_4a/output_0_split_4
I0403 15:05:27.234500 14097 net.cpp:141] Setting up inception_4a/output_inception_4a/output_0_split
I0403 15:05:27.234524 14097 net.cpp:148] Top shape: 24 512 14 14 (2408448)
I0403 15:05:27.234550 14097 net.cpp:148] Top shape: 24 512 14 14 (2408448)
I0403 15:05:27.234570 14097 net.cpp:148] Top shape: 24 512 14 14 (2408448)
I0403 15:05:27.234596 14097 net.cpp:148] Top shape: 24 512 14 14 (2408448)
I0403 15:05:27.234611 14097 net.cpp:148] Top shape: 24 512 14 14 (2408448)
I0403 15:05:27.234624 14097 net.cpp:156] Memory required for data: 944714784
I0403 15:05:27.234638 14097 layer_factory.hpp:77] Creating layer loss1/ave_pool
I0403 15:05:27.234657 14097 net.cpp:91] Creating Layer loss1/ave_pool
I0403 15:05:27.234673 14097 net.cpp:425] loss1/ave_pool <- inception_4a/output_inception_4a/output_0_split_0
I0403 15:05:27.234693 14097 net.cpp:399] loss1/ave_pool -> loss1/ave_pool
I0403 15:05:27.234916 14097 net.cpp:141] Setting up loss1/ave_pool
I0403 15:05:27.234941 14097 net.cpp:148] Top shape: 24 512 4 4 (196608)
I0403 15:05:27.234956 14097 net.cpp:156] Memory required for data: 945501216
I0403 15:05:27.234971 14097 layer_factory.hpp:77] Creating layer loss1/conv
I0403 15:05:27.234993 14097 net.cpp:91] Creating Layer loss1/conv
I0403 15:05:27.235010 14097 net.cpp:425] loss1/conv <- loss1/ave_pool
I0403 15:05:27.235028 14097 net.cpp:399] loss1/conv -> loss1/conv
I0403 15:05:27.236435 14097 net.cpp:141] Setting up loss1/conv
I0403 15:05:27.236464 14097 net.cpp:148] Top shape: 24 128 4 4 (49152)
I0403 15:05:27.236479 14097 net.cpp:156] Memory required for data: 945697824
I0403 15:05:27.236510 14097 layer_factory.hpp:77] Creating layer loss1/relu_conv
I0403 15:05:27.236529 14097 net.cpp:91] Creating Layer loss1/relu_conv
I0403 15:05:27.236551 14097 net.cpp:425] loss1/relu_conv <- loss1/conv
I0403 15:05:27.236570 14097 net.cpp:386] loss1/relu_conv -> loss1/conv (in-place)
I0403 15:05:27.236852 14097 net.cpp:141] Setting up loss1/relu_conv
I0403 15:05:27.236878 14097 net.cpp:148] Top shape: 24 128 4 4 (49152)
I0403 15:05:27.236893 14097 net.cpp:156] Memory required for data: 945894432
I0403 15:05:27.236907 14097 layer_factory.hpp:77] Creating layer loss1/fc
I0403 15:05:27.236929 14097 net.cpp:91] Creating Layer loss1/fc
I0403 15:05:27.236946 14097 net.cpp:425] loss1/fc <- loss1/conv
I0403 15:05:27.236968 14097 net.cpp:399] loss1/fc -> loss1/fc
I0403 15:05:27.254530 14097 net.cpp:141] Setting up loss1/fc
I0403 15:05:27.254585 14097 net.cpp:148] Top shape: 24 1024 (24576)
I0403 15:05:27.254601 14097 net.cpp:156] Memory required for data: 945992736
I0403 15:05:27.254621 14097 layer_factory.hpp:77] Creating layer loss1/relu_fc
I0403 15:05:27.254640 14097 net.cpp:91] Creating Layer loss1/relu_fc
I0403 15:05:27.254657 14097 net.cpp:425] loss1/relu_fc <- loss1/fc
I0403 15:05:27.254673 14097 net.cpp:386] loss1/relu_fc -> loss1/fc (in-place)
I0403 15:05:27.254891 14097 net.cpp:141] Setting up loss1/relu_fc
I0403 15:05:27.254916 14097 net.cpp:148] Top shape: 24 1024 (24576)
I0403 15:05:27.254930 14097 net.cpp:156] Memory required for data: 946091040
I0403 15:05:27.254945 14097 layer_factory.hpp:77] Creating layer loss1/drop_fc
I0403 15:05:27.254969 14097 net.cpp:91] Creating Layer loss1/drop_fc
I0403 15:05:27.254987 14097 net.cpp:425] loss1/drop_fc <- loss1/fc
I0403 15:05:27.255014 14097 net.cpp:386] loss1/drop_fc -> loss1/fc (in-place)
I0403 15:05:27.255066 14097 net.cpp:141] Setting up loss1/drop_fc
I0403 15:05:27.255089 14097 net.cpp:148] Top shape: 24 1024 (24576)
I0403 15:05:27.255103 14097 net.cpp:156] Memory required for data: 946189344
I0403 15:05:27.255117 14097 layer_factory.hpp:77] Creating layer loss1/classifier_plantvillage
I0403 15:05:27.255139 14097 net.cpp:91] Creating Layer loss1/classifier_plantvillage
I0403 15:05:27.255156 14097 net.cpp:425] loss1/classifier_plantvillage <- loss1/fc
I0403 15:05:27.255173 14097 net.cpp:399] loss1/classifier_plantvillage -> loss1/classifier_plantvillage
I0403 15:05:27.256078 14097 net.cpp:141] Setting up loss1/classifier_plantvillage
I0403 15:05:27.256108 14097 net.cpp:148] Top shape: 24 38 (912)
I0403 15:05:27.256124 14097 net.cpp:156] Memory required for data: 946192992
I0403 15:05:27.256140 14097 layer_factory.hpp:77] Creating layer loss1/classifier_plantvillage_loss1/classifier_plantvillage_0_split
I0403 15:05:27.256161 14097 net.cpp:91] Creating Layer loss1/classifier_plantvillage_loss1/classifier_plantvillage_0_split
I0403 15:05:27.256176 14097 net.cpp:425] loss1/classifier_plantvillage_loss1/classifier_plantvillage_0_split <- loss1/classifier_plantvillage
I0403 15:05:27.256194 14097 net.cpp:399] loss1/classifier_plantvillage_loss1/classifier_plantvillage_0_split -> loss1/classifier_plantvillage_loss1/classifier_plantvillage_0_split_0
I0403 15:05:27.256217 14097 net.cpp:399] loss1/classifier_plantvillage_loss1/classifier_plantvillage_0_split -> loss1/classifier_plantvillage_loss1/classifier_plantvillage_0_split_1
I0403 15:05:27.256237 14097 net.cpp:399] loss1/classifier_plantvillage_loss1/classifier_plantvillage_0_split -> loss1/classifier_plantvillage_loss1/classifier_plantvillage_0_split_2
I0403 15:05:27.256304 14097 net.cpp:141] Setting up loss1/classifier_plantvillage_loss1/classifier_plantvillage_0_split
I0403 15:05:27.256326 14097 net.cpp:148] Top shape: 24 38 (912)
I0403 15:05:27.256341 14097 net.cpp:148] Top shape: 24 38 (912)
I0403 15:05:27.256356 14097 net.cpp:148] Top shape: 24 38 (912)
I0403 15:05:27.256371 14097 net.cpp:156] Memory required for data: 946203936
I0403 15:05:27.256384 14097 layer_factory.hpp:77] Creating layer inception_4b/1x1
I0403 15:05:27.256403 14097 net.cpp:91] Creating Layer inception_4b/1x1
I0403 15:05:27.256440 14097 net.cpp:425] inception_4b/1x1 <- inception_4a/output_inception_4a/output_0_split_1
I0403 15:05:27.256461 14097 net.cpp:399] inception_4b/1x1 -> inception_4b/1x1
I0403 15:05:27.258133 14097 net.cpp:141] Setting up inception_4b/1x1
I0403 15:05:27.258162 14097 net.cpp:148] Top shape: 24 160 14 14 (752640)
I0403 15:05:27.258177 14097 net.cpp:156] Memory required for data: 949214496
I0403 15:05:27.258195 14097 layer_factory.hpp:77] Creating layer inception_4b/relu_1x1
I0403 15:05:27.258213 14097 net.cpp:91] Creating Layer inception_4b/relu_1x1
I0403 15:05:27.258229 14097 net.cpp:425] inception_4b/relu_1x1 <- inception_4b/1x1
I0403 15:05:27.258247 14097 net.cpp:386] inception_4b/relu_1x1 -> inception_4b/1x1 (in-place)
I0403 15:05:27.258433 14097 net.cpp:141] Setting up inception_4b/relu_1x1
I0403 15:05:27.258457 14097 net.cpp:148] Top shape: 24 160 14 14 (752640)
I0403 15:05:27.258471 14097 net.cpp:156] Memory required for data: 952225056
I0403 15:05:27.258486 14097 layer_factory.hpp:77] Creating layer inception_4b/3x3_reduce
I0403 15:05:27.258507 14097 net.cpp:91] Creating Layer inception_4b/3x3_reduce
I0403 15:05:27.258524 14097 net.cpp:425] inception_4b/3x3_reduce <- inception_4a/output_inception_4a/output_0_split_2
I0403 15:05:27.258564 14097 net.cpp:399] inception_4b/3x3_reduce -> inception_4b/3x3_reduce
I0403 15:05:27.259974 14097 net.cpp:141] Setting up inception_4b/3x3_reduce
I0403 15:05:27.260001 14097 net.cpp:148] Top shape: 24 112 14 14 (526848)
I0403 15:05:27.260016 14097 net.cpp:156] Memory required for data: 954332448
I0403 15:05:27.260035 14097 layer_factory.hpp:77] Creating layer inception_4b/relu_3x3_reduce
I0403 15:05:27.260056 14097 net.cpp:91] Creating Layer inception_4b/relu_3x3_reduce
I0403 15:05:27.260071 14097 net.cpp:425] inception_4b/relu_3x3_reduce <- inception_4b/3x3_reduce
I0403 15:05:27.260089 14097 net.cpp:386] inception_4b/relu_3x3_reduce -> inception_4b/3x3_reduce (in-place)
I0403 15:05:27.260380 14097 net.cpp:141] Setting up inception_4b/relu_3x3_reduce
I0403 15:05:27.260406 14097 net.cpp:148] Top shape: 24 112 14 14 (526848)
I0403 15:05:27.260421 14097 net.cpp:156] Memory required for data: 956439840
I0403 15:05:27.260437 14097 layer_factory.hpp:77] Creating layer inception_4b/3x3
I0403 15:05:27.260459 14097 net.cpp:91] Creating Layer inception_4b/3x3
I0403 15:05:27.260475 14097 net.cpp:425] inception_4b/3x3 <- inception_4b/3x3_reduce
I0403 15:05:27.260495 14097 net.cpp:399] inception_4b/3x3 -> inception_4b/3x3
I0403 15:05:27.263514 14097 net.cpp:141] Setting up inception_4b/3x3
I0403 15:05:27.263550 14097 net.cpp:148] Top shape: 24 224 14 14 (1053696)
I0403 15:05:27.263566 14097 net.cpp:156] Memory required for data: 960654624
I0403 15:05:27.263584 14097 layer_factory.hpp:77] Creating layer inception_4b/relu_3x3
I0403 15:05:27.263602 14097 net.cpp:91] Creating Layer inception_4b/relu_3x3
I0403 15:05:27.263618 14097 net.cpp:425] inception_4b/relu_3x3 <- inception_4b/3x3
I0403 15:05:27.263635 14097 net.cpp:386] inception_4b/relu_3x3 -> inception_4b/3x3 (in-place)
I0403 15:05:27.263819 14097 net.cpp:141] Setting up inception_4b/relu_3x3
I0403 15:05:27.263844 14097 net.cpp:148] Top shape: 24 224 14 14 (1053696)
I0403 15:05:27.263859 14097 net.cpp:156] Memory required for data: 964869408
I0403 15:05:27.263872 14097 layer_factory.hpp:77] Creating layer inception_4b/5x5_reduce
I0403 15:05:27.263895 14097 net.cpp:91] Creating Layer inception_4b/5x5_reduce
I0403 15:05:27.263911 14097 net.cpp:425] inception_4b/5x5_reduce <- inception_4a/output_inception_4a/output_0_split_3
I0403 15:05:27.263932 14097 net.cpp:399] inception_4b/5x5_reduce -> inception_4b/5x5_reduce
I0403 15:05:27.265032 14097 net.cpp:141] Setting up inception_4b/5x5_reduce
I0403 15:05:27.265059 14097 net.cpp:148] Top shape: 24 24 14 14 (112896)
I0403 15:05:27.265074 14097 net.cpp:156] Memory required for data: 965320992
I0403 15:05:27.265092 14097 layer_factory.hpp:77] Creating layer inception_4b/relu_5x5_reduce
I0403 15:05:27.265112 14097 net.cpp:91] Creating Layer inception_4b/relu_5x5_reduce
I0403 15:05:27.265143 14097 net.cpp:425] inception_4b/relu_5x5_reduce <- inception_4b/5x5_reduce
I0403 15:05:27.265162 14097 net.cpp:386] inception_4b/relu_5x5_reduce -> inception_4b/5x5_reduce (in-place)
I0403 15:05:27.265346 14097 net.cpp:141] Setting up inception_4b/relu_5x5_reduce
I0403 15:05:27.265369 14097 net.cpp:148] Top shape: 24 24 14 14 (112896)
I0403 15:05:27.265384 14097 net.cpp:156] Memory required for data: 965772576
I0403 15:05:27.265398 14097 layer_factory.hpp:77] Creating layer inception_4b/5x5
I0403 15:05:27.265419 14097 net.cpp:91] Creating Layer inception_4b/5x5
I0403 15:05:27.265439 14097 net.cpp:425] inception_4b/5x5 <- inception_4b/5x5_reduce
I0403 15:05:27.265456 14097 net.cpp:399] inception_4b/5x5 -> inception_4b/5x5
I0403 15:05:27.266710 14097 net.cpp:141] Setting up inception_4b/5x5
I0403 15:05:27.266738 14097 net.cpp:148] Top shape: 24 64 14 14 (301056)
I0403 15:05:27.266753 14097 net.cpp:156] Memory required for data: 966976800
I0403 15:05:27.266772 14097 layer_factory.hpp:77] Creating layer inception_4b/relu_5x5
I0403 15:05:27.266790 14097 net.cpp:91] Creating Layer inception_4b/relu_5x5
I0403 15:05:27.266806 14097 net.cpp:425] inception_4b/relu_5x5 <- inception_4b/5x5
I0403 15:05:27.266827 14097 net.cpp:386] inception_4b/relu_5x5 -> inception_4b/5x5 (in-place)
I0403 15:05:27.267124 14097 net.cpp:141] Setting up inception_4b/relu_5x5
I0403 15:05:27.267150 14097 net.cpp:148] Top shape: 24 64 14 14 (301056)
I0403 15:05:27.267165 14097 net.cpp:156] Memory required for data: 968181024
I0403 15:05:27.267179 14097 layer_factory.hpp:77] Creating layer inception_4b/pool
I0403 15:05:27.267197 14097 net.cpp:91] Creating Layer inception_4b/pool
I0403 15:05:27.267213 14097 net.cpp:425] inception_4b/pool <- inception_4a/output_inception_4a/output_0_split_4
I0403 15:05:27.267232 14097 net.cpp:399] inception_4b/pool -> inception_4b/pool
I0403 15:05:27.267297 14097 net.cpp:141] Setting up inception_4b/pool
I0403 15:05:27.267319 14097 net.cpp:148] Top shape: 24 512 14 14 (2408448)
I0403 15:05:27.267334 14097 net.cpp:156] Memory required for data: 977814816
I0403 15:05:27.267349 14097 layer_factory.hpp:77] Creating layer inception_4b/pool_proj
I0403 15:05:27.267371 14097 net.cpp:91] Creating Layer inception_4b/pool_proj
I0403 15:05:27.267387 14097 net.cpp:425] inception_4b/pool_proj <- inception_4b/pool
I0403 15:05:27.267405 14097 net.cpp:399] inception_4b/pool_proj -> inception_4b/pool_proj
I0403 15:05:27.268625 14097 net.cpp:141] Setting up inception_4b/pool_proj
I0403 15:05:27.268652 14097 net.cpp:148] Top shape: 24 64 14 14 (301056)
I0403 15:05:27.268667 14097 net.cpp:156] Memory required for data: 979019040
I0403 15:05:27.268687 14097 layer_factory.hpp:77] Creating layer inception_4b/relu_pool_proj
I0403 15:05:27.268704 14097 net.cpp:91] Creating Layer inception_4b/relu_pool_proj
I0403 15:05:27.268720 14097 net.cpp:425] inception_4b/relu_pool_proj <- inception_4b/pool_proj
I0403 15:05:27.268739 14097 net.cpp:386] inception_4b/relu_pool_proj -> inception_4b/pool_proj (in-place)
I0403 15:05:27.268919 14097 net.cpp:141] Setting up inception_4b/relu_pool_proj
I0403 15:05:27.268944 14097 net.cpp:148] Top shape: 24 64 14 14 (301056)
I0403 15:05:27.268957 14097 net.cpp:156] Memory required for data: 980223264
I0403 15:05:27.268971 14097 layer_factory.hpp:77] Creating layer inception_4b/output
I0403 15:05:27.268990 14097 net.cpp:91] Creating Layer inception_4b/output
I0403 15:05:27.269006 14097 net.cpp:425] inception_4b/output <- inception_4b/1x1
I0403 15:05:27.269021 14097 net.cpp:425] inception_4b/output <- inception_4b/3x3
I0403 15:05:27.269037 14097 net.cpp:425] inception_4b/output <- inception_4b/5x5
I0403 15:05:27.269052 14097 net.cpp:425] inception_4b/output <- inception_4b/pool_proj
I0403 15:05:27.269068 14097 net.cpp:399] inception_4b/output -> inception_4b/output
I0403 15:05:27.269114 14097 net.cpp:141] Setting up inception_4b/output
I0403 15:05:27.269136 14097 net.cpp:148] Top shape: 24 512 14 14 (2408448)
I0403 15:05:27.269150 14097 net.cpp:156] Memory required for data: 989857056
I0403 15:05:27.269178 14097 layer_factory.hpp:77] Creating layer inception_4b/output_inception_4b/output_0_split
I0403 15:05:27.269196 14097 net.cpp:91] Creating Layer inception_4b/output_inception_4b/output_0_split
I0403 15:05:27.269210 14097 net.cpp:425] inception_4b/output_inception_4b/output_0_split <- inception_4b/output
I0403 15:05:27.269229 14097 net.cpp:399] inception_4b/output_inception_4b/output_0_split -> inception_4b/output_inception_4b/output_0_split_0
I0403 15:05:27.269249 14097 net.cpp:399] inception_4b/output_inception_4b/output_0_split -> inception_4b/output_inception_4b/output_0_split_1
I0403 15:05:27.269270 14097 net.cpp:399] inception_4b/output_inception_4b/output_0_split -> inception_4b/output_inception_4b/output_0_split_2
I0403 15:05:27.269290 14097 net.cpp:399] inception_4b/output_inception_4b/output_0_split -> inception_4b/output_inception_4b/output_0_split_3
I0403 15:05:27.269374 14097 net.cpp:141] Setting up inception_4b/output_inception_4b/output_0_split
I0403 15:05:27.269397 14097 net.cpp:148] Top shape: 24 512 14 14 (2408448)
I0403 15:05:27.269413 14097 net.cpp:148] Top shape: 24 512 14 14 (2408448)
I0403 15:05:27.269428 14097 net.cpp:148] Top shape: 24 512 14 14 (2408448)
I0403 15:05:27.269443 14097 net.cpp:148] Top shape: 24 512 14 14 (2408448)
I0403 15:05:27.269456 14097 net.cpp:156] Memory required for data: 1028392224
I0403 15:05:27.269470 14097 layer_factory.hpp:77] Creating layer inception_4c/1x1
I0403 15:05:27.269491 14097 net.cpp:91] Creating Layer inception_4c/1x1
I0403 15:05:27.269508 14097 net.cpp:425] inception_4c/1x1 <- inception_4b/output_inception_4b/output_0_split_0
I0403 15:05:27.269528 14097 net.cpp:399] inception_4c/1x1 -> inception_4c/1x1
I0403 15:05:27.271062 14097 net.cpp:141] Setting up inception_4c/1x1
I0403 15:05:27.271090 14097 net.cpp:148] Top shape: 24 128 14 14 (602112)
I0403 15:05:27.271111 14097 net.cpp:156] Memory required for data: 1030800672
I0403 15:05:27.271128 14097 layer_factory.hpp:77] Creating layer inception_4c/relu_1x1
I0403 15:05:27.271147 14097 net.cpp:91] Creating Layer inception_4c/relu_1x1
I0403 15:05:27.271162 14097 net.cpp:425] inception_4c/relu_1x1 <- inception_4c/1x1
I0403 15:05:27.271179 14097 net.cpp:386] inception_4c/relu_1x1 -> inception_4c/1x1 (in-place)
I0403 15:05:27.271366 14097 net.cpp:141] Setting up inception_4c/relu_1x1
I0403 15:05:27.271394 14097 net.cpp:148] Top shape: 24 128 14 14 (602112)
I0403 15:05:27.271409 14097 net.cpp:156] Memory required for data: 1033209120
I0403 15:05:27.271423 14097 layer_factory.hpp:77] Creating layer inception_4c/3x3_reduce
I0403 15:05:27.271445 14097 net.cpp:91] Creating Layer inception_4c/3x3_reduce
I0403 15:05:27.271462 14097 net.cpp:425] inception_4c/3x3_reduce <- inception_4b/output_inception_4b/output_0_split_1
I0403 15:05:27.271481 14097 net.cpp:399] inception_4c/3x3_reduce -> inception_4c/3x3_reduce
I0403 15:05:27.273490 14097 net.cpp:141] Setting up inception_4c/3x3_reduce
I0403 15:05:27.273521 14097 net.cpp:148] Top shape: 24 128 14 14 (602112)
I0403 15:05:27.273542 14097 net.cpp:156] Memory required for data: 1035617568
I0403 15:05:27.273562 14097 layer_factory.hpp:77] Creating layer inception_4c/relu_3x3_reduce
I0403 15:05:27.273581 14097 net.cpp:91] Creating Layer inception_4c/relu_3x3_reduce
I0403 15:05:27.273597 14097 net.cpp:425] inception_4c/relu_3x3_reduce <- inception_4c/3x3_reduce
I0403 15:05:27.273617 14097 net.cpp:386] inception_4c/relu_3x3_reduce -> inception_4c/3x3_reduce (in-place)
I0403 15:05:27.273911 14097 net.cpp:141] Setting up inception_4c/relu_3x3_reduce
I0403 15:05:27.273941 14097 net.cpp:148] Top shape: 24 128 14 14 (602112)
I0403 15:05:27.273957 14097 net.cpp:156] Memory required for data: 1038026016
I0403 15:05:27.273970 14097 layer_factory.hpp:77] Creating layer inception_4c/3x3
I0403 15:05:27.273993 14097 net.cpp:91] Creating Layer inception_4c/3x3
I0403 15:05:27.274011 14097 net.cpp:425] inception_4c/3x3 <- inception_4c/3x3_reduce
I0403 15:05:27.274034 14097 net.cpp:399] inception_4c/3x3 -> inception_4c/3x3
I0403 15:05:27.277900 14097 net.cpp:141] Setting up inception_4c/3x3
I0403 15:05:27.277943 14097 net.cpp:148] Top shape: 24 256 14 14 (1204224)
I0403 15:05:27.277959 14097 net.cpp:156] Memory required for data: 1042842912
I0403 15:05:27.277992 14097 layer_factory.hpp:77] Creating layer inception_4c/relu_3x3
I0403 15:05:27.278013 14097 net.cpp:91] Creating Layer inception_4c/relu_3x3
I0403 15:05:27.278029 14097 net.cpp:425] inception_4c/relu_3x3 <- inception_4c/3x3
I0403 15:05:27.278059 14097 net.cpp:386] inception_4c/relu_3x3 -> inception_4c/3x3 (in-place)
I0403 15:05:27.278251 14097 net.cpp:141] Setting up inception_4c/relu_3x3
I0403 15:05:27.278276 14097 net.cpp:148] Top shape: 24 256 14 14 (1204224)
I0403 15:05:27.278291 14097 net.cpp:156] Memory required for data: 1047659808
I0403 15:05:27.278306 14097 layer_factory.hpp:77] Creating layer inception_4c/5x5_reduce
I0403 15:05:27.278328 14097 net.cpp:91] Creating Layer inception_4c/5x5_reduce
I0403 15:05:27.278347 14097 net.cpp:425] inception_4c/5x5_reduce <- inception_4b/output_inception_4b/output_0_split_2
I0403 15:05:27.278376 14097 net.cpp:399] inception_4c/5x5_reduce -> inception_4c/5x5_reduce
I0403 15:05:27.279547 14097 net.cpp:141] Setting up inception_4c/5x5_reduce
I0403 15:05:27.279577 14097 net.cpp:148] Top shape: 24 24 14 14 (112896)
I0403 15:05:27.279592 14097 net.cpp:156] Memory required for data: 1048111392
I0403 15:05:27.279609 14097 layer_factory.hpp:77] Creating layer inception_4c/relu_5x5_reduce
I0403 15:05:27.279630 14097 net.cpp:91] Creating Layer inception_4c/relu_5x5_reduce
I0403 15:05:27.279647 14097 net.cpp:425] inception_4c/relu_5x5_reduce <- inception_4c/5x5_reduce
I0403 15:05:27.279664 14097 net.cpp:386] inception_4c/relu_5x5_reduce -> inception_4c/5x5_reduce (in-place)
I0403 15:05:27.279851 14097 net.cpp:141] Setting up inception_4c/relu_5x5_reduce
I0403 15:05:27.279876 14097 net.cpp:148] Top shape: 24 24 14 14 (112896)
I0403 15:05:27.279891 14097 net.cpp:156] Memory required for data: 1048562976
I0403 15:05:27.279906 14097 layer_factory.hpp:77] Creating layer inception_4c/5x5
I0403 15:05:27.279927 14097 net.cpp:91] Creating Layer inception_4c/5x5
I0403 15:05:27.279944 14097 net.cpp:425] inception_4c/5x5 <- inception_4c/5x5_reduce
I0403 15:05:27.279965 14097 net.cpp:399] inception_4c/5x5 -> inception_4c/5x5
I0403 15:05:27.281250 14097 net.cpp:141] Setting up inception_4c/5x5
I0403 15:05:27.281278 14097 net.cpp:148] Top shape: 24 64 14 14 (301056)
I0403 15:05:27.281293 14097 net.cpp:156] Memory required for data: 1049767200
I0403 15:05:27.281311 14097 layer_factory.hpp:77] Creating layer inception_4c/relu_5x5
I0403 15:05:27.281332 14097 net.cpp:91] Creating Layer inception_4c/relu_5x5
I0403 15:05:27.281349 14097 net.cpp:425] inception_4c/relu_5x5 <- inception_4c/5x5
I0403 15:05:27.281366 14097 net.cpp:386] inception_4c/relu_5x5 -> inception_4c/5x5 (in-place)
I0403 15:05:27.281685 14097 net.cpp:141] Setting up inception_4c/relu_5x5
I0403 15:05:27.281713 14097 net.cpp:148] Top shape: 24 64 14 14 (301056)
I0403 15:05:27.281728 14097 net.cpp:156] Memory required for data: 1050971424
I0403 15:05:27.281744 14097 layer_factory.hpp:77] Creating layer inception_4c/pool
I0403 15:05:27.281764 14097 net.cpp:91] Creating Layer inception_4c/pool
I0403 15:05:27.281780 14097 net.cpp:425] inception_4c/pool <- inception_4b/output_inception_4b/output_0_split_3
I0403 15:05:27.281800 14097 net.cpp:399] inception_4c/pool -> inception_4c/pool
I0403 15:05:27.281883 14097 net.cpp:141] Setting up inception_4c/pool
I0403 15:05:27.281908 14097 net.cpp:148] Top shape: 24 512 14 14 (2408448)
I0403 15:05:27.281922 14097 net.cpp:156] Memory required for data: 1060605216
I0403 15:05:27.281936 14097 layer_factory.hpp:77] Creating layer inception_4c/pool_proj
I0403 15:05:27.281960 14097 net.cpp:91] Creating Layer inception_4c/pool_proj
I0403 15:05:27.281976 14097 net.cpp:425] inception_4c/pool_proj <- inception_4c/pool
I0403 15:05:27.281996 14097 net.cpp:399] inception_4c/pool_proj -> inception_4c/pool_proj
I0403 15:05:27.283299 14097 net.cpp:141] Setting up inception_4c/pool_proj
I0403 15:05:27.283327 14097 net.cpp:148] Top shape: 24 64 14 14 (301056)
I0403 15:05:27.283366 14097 net.cpp:156] Memory required for data: 1061809440
I0403 15:05:27.283386 14097 layer_factory.hpp:77] Creating layer inception_4c/relu_pool_proj
I0403 15:05:27.283406 14097 net.cpp:91] Creating Layer inception_4c/relu_pool_proj
I0403 15:05:27.283422 14097 net.cpp:425] inception_4c/relu_pool_proj <- inception_4c/pool_proj
I0403 15:05:27.283443 14097 net.cpp:386] inception_4c/relu_pool_proj -> inception_4c/pool_proj (in-place)
I0403 15:05:27.283641 14097 net.cpp:141] Setting up inception_4c/relu_pool_proj
I0403 15:05:27.283666 14097 net.cpp:148] Top shape: 24 64 14 14 (301056)
I0403 15:05:27.283681 14097 net.cpp:156] Memory required for data: 1063013664
I0403 15:05:27.283695 14097 layer_factory.hpp:77] Creating layer inception_4c/output
I0403 15:05:27.283715 14097 net.cpp:91] Creating Layer inception_4c/output
I0403 15:05:27.283731 14097 net.cpp:425] inception_4c/output <- inception_4c/1x1
I0403 15:05:27.283747 14097 net.cpp:425] inception_4c/output <- inception_4c/3x3
I0403 15:05:27.283763 14097 net.cpp:425] inception_4c/output <- inception_4c/5x5
I0403 15:05:27.283779 14097 net.cpp:425] inception_4c/output <- inception_4c/pool_proj
I0403 15:05:27.283797 14097 net.cpp:399] inception_4c/output -> inception_4c/output
I0403 15:05:27.283846 14097 net.cpp:141] Setting up inception_4c/output
I0403 15:05:27.283870 14097 net.cpp:148] Top shape: 24 512 14 14 (2408448)
I0403 15:05:27.283885 14097 net.cpp:156] Memory required for data: 1072647456
I0403 15:05:27.283900 14097 layer_factory.hpp:77] Creating layer inception_4c/output_inception_4c/output_0_split
I0403 15:05:27.283917 14097 net.cpp:91] Creating Layer inception_4c/output_inception_4c/output_0_split
I0403 15:05:27.283932 14097 net.cpp:425] inception_4c/output_inception_4c/output_0_split <- inception_4c/output
I0403 15:05:27.283952 14097 net.cpp:399] inception_4c/output_inception_4c/output_0_split -> inception_4c/output_inception_4c/output_0_split_0
I0403 15:05:27.283973 14097 net.cpp:399] inception_4c/output_inception_4c/output_0_split -> inception_4c/output_inception_4c/output_0_split_1
I0403 15:05:27.283994 14097 net.cpp:399] inception_4c/output_inception_4c/output_0_split -> inception_4c/output_inception_4c/output_0_split_2
I0403 15:05:27.284014 14097 net.cpp:399] inception_4c/output_inception_4c/output_0_split -> inception_4c/output_inception_4c/output_0_split_3
I0403 15:05:27.284102 14097 net.cpp:141] Setting up inception_4c/output_inception_4c/output_0_split
I0403 15:05:27.284128 14097 net.cpp:148] Top shape: 24 512 14 14 (2408448)
I0403 15:05:27.284144 14097 net.cpp:148] Top shape: 24 512 14 14 (2408448)
I0403 15:05:27.284159 14097 net.cpp:148] Top shape: 24 512 14 14 (2408448)
I0403 15:05:27.284174 14097 net.cpp:148] Top shape: 24 512 14 14 (2408448)
I0403 15:05:27.284188 14097 net.cpp:156] Memory required for data: 1111182624
I0403 15:05:27.284201 14097 layer_factory.hpp:77] Creating layer inception_4d/1x1
I0403 15:05:27.284224 14097 net.cpp:91] Creating Layer inception_4d/1x1
I0403 15:05:27.284241 14097 net.cpp:425] inception_4d/1x1 <- inception_4c/output_inception_4c/output_0_split_0
I0403 15:05:27.284262 14097 net.cpp:399] inception_4d/1x1 -> inception_4d/1x1
I0403 15:05:27.285727 14097 net.cpp:141] Setting up inception_4d/1x1
I0403 15:05:27.285760 14097 net.cpp:148] Top shape: 24 112 14 14 (526848)
I0403 15:05:27.285778 14097 net.cpp:156] Memory required for data: 1113290016
I0403 15:05:27.285796 14097 layer_factory.hpp:77] Creating layer inception_4d/relu_1x1
I0403 15:05:27.285815 14097 net.cpp:91] Creating Layer inception_4d/relu_1x1
I0403 15:05:27.285832 14097 net.cpp:425] inception_4d/relu_1x1 <- inception_4d/1x1
I0403 15:05:27.285862 14097 net.cpp:386] inception_4d/relu_1x1 -> inception_4d/1x1 (in-place)
I0403 15:05:27.286057 14097 net.cpp:141] Setting up inception_4d/relu_1x1
I0403 15:05:27.286082 14097 net.cpp:148] Top shape: 24 112 14 14 (526848)
I0403 15:05:27.286097 14097 net.cpp:156] Memory required for data: 1115397408
I0403 15:05:27.286111 14097 layer_factory.hpp:77] Creating layer inception_4d/3x3_reduce
I0403 15:05:27.286149 14097 net.cpp:91] Creating Layer inception_4d/3x3_reduce
I0403 15:05:27.286166 14097 net.cpp:425] inception_4d/3x3_reduce <- inception_4c/output_inception_4c/output_0_split_1
I0403 15:05:27.286188 14097 net.cpp:399] inception_4d/3x3_reduce -> inception_4d/3x3_reduce
I0403 15:05:27.287788 14097 net.cpp:141] Setting up inception_4d/3x3_reduce
I0403 15:05:27.287817 14097 net.cpp:148] Top shape: 24 144 14 14 (677376)
I0403 15:05:27.287832 14097 net.cpp:156] Memory required for data: 1118106912
I0403 15:05:27.287849 14097 layer_factory.hpp:77] Creating layer inception_4d/relu_3x3_reduce
I0403 15:05:27.287870 14097 net.cpp:91] Creating Layer inception_4d/relu_3x3_reduce
I0403 15:05:27.287888 14097 net.cpp:425] inception_4d/relu_3x3_reduce <- inception_4d/3x3_reduce
I0403 15:05:27.287904 14097 net.cpp:386] inception_4d/relu_3x3_reduce -> inception_4d/3x3_reduce (in-place)
I0403 15:05:27.288199 14097 net.cpp:141] Setting up inception_4d/relu_3x3_reduce
I0403 15:05:27.288226 14097 net.cpp:148] Top shape: 24 144 14 14 (677376)
I0403 15:05:27.288241 14097 net.cpp:156] Memory required for data: 1120816416
I0403 15:05:27.288255 14097 layer_factory.hpp:77] Creating layer inception_4d/3x3
I0403 15:05:27.288280 14097 net.cpp:91] Creating Layer inception_4d/3x3
I0403 15:05:27.288298 14097 net.cpp:425] inception_4d/3x3 <- inception_4d/3x3_reduce
I0403 15:05:27.288317 14097 net.cpp:399] inception_4d/3x3 -> inception_4d/3x3
I0403 15:05:27.292971 14097 net.cpp:141] Setting up inception_4d/3x3
I0403 15:05:27.293002 14097 net.cpp:148] Top shape: 24 288 14 14 (1354752)
I0403 15:05:27.293018 14097 net.cpp:156] Memory required for data: 1126235424
I0403 15:05:27.293036 14097 layer_factory.hpp:77] Creating layer inception_4d/relu_3x3
I0403 15:05:27.293054 14097 net.cpp:91] Creating Layer inception_4d/relu_3x3
I0403 15:05:27.293071 14097 net.cpp:425] inception_4d/relu_3x3 <- inception_4d/3x3
I0403 15:05:27.293089 14097 net.cpp:386] inception_4d/relu_3x3 -> inception_4d/3x3 (in-place)
I0403 15:05:27.293272 14097 net.cpp:141] Setting up inception_4d/relu_3x3
I0403 15:05:27.293297 14097 net.cpp:148] Top shape: 24 288 14 14 (1354752)
I0403 15:05:27.293311 14097 net.cpp:156] Memory required for data: 1131654432
I0403 15:05:27.293325 14097 layer_factory.hpp:77] Creating layer inception_4d/5x5_reduce
I0403 15:05:27.293346 14097 net.cpp:91] Creating Layer inception_4d/5x5_reduce
I0403 15:05:27.293364 14097 net.cpp:425] inception_4d/5x5_reduce <- inception_4c/output_inception_4c/output_0_split_2
I0403 15:05:27.293385 14097 net.cpp:399] inception_4d/5x5_reduce -> inception_4d/5x5_reduce
I0403 15:05:27.294606 14097 net.cpp:141] Setting up inception_4d/5x5_reduce
I0403 15:05:27.294637 14097 net.cpp:148] Top shape: 24 32 14 14 (150528)
I0403 15:05:27.294654 14097 net.cpp:156] Memory required for data: 1132256544
I0403 15:05:27.294673 14097 layer_factory.hpp:77] Creating layer inception_4d/relu_5x5_reduce
I0403 15:05:27.294692 14097 net.cpp:91] Creating Layer inception_4d/relu_5x5_reduce
I0403 15:05:27.294708 14097 net.cpp:425] inception_4d/relu_5x5_reduce <- inception_4d/5x5_reduce
I0403 15:05:27.294728 14097 net.cpp:386] inception_4d/relu_5x5_reduce -> inception_4d/5x5_reduce (in-place)
I0403 15:05:27.294932 14097 net.cpp:141] Setting up inception_4d/relu_5x5_reduce
I0403 15:05:27.294956 14097 net.cpp:148] Top shape: 24 32 14 14 (150528)
I0403 15:05:27.294971 14097 net.cpp:156] Memory required for data: 1132858656
I0403 15:05:27.294986 14097 layer_factory.hpp:77] Creating layer inception_4d/5x5
I0403 15:05:27.295006 14097 net.cpp:91] Creating Layer inception_4d/5x5
I0403 15:05:27.295023 14097 net.cpp:425] inception_4d/5x5 <- inception_4d/5x5_reduce
I0403 15:05:27.295044 14097 net.cpp:399] inception_4d/5x5 -> inception_4d/5x5
I0403 15:05:27.296509 14097 net.cpp:141] Setting up inception_4d/5x5
I0403 15:05:27.296540 14097 net.cpp:148] Top shape: 24 64 14 14 (301056)
I0403 15:05:27.296555 14097 net.cpp:156] Memory required for data: 1134062880
I0403 15:05:27.296574 14097 layer_factory.hpp:77] Creating layer inception_4d/relu_5x5
I0403 15:05:27.296609 14097 net.cpp:91] Creating Layer inception_4d/relu_5x5
I0403 15:05:27.296627 14097 net.cpp:425] inception_4d/relu_5x5 <- inception_4d/5x5
I0403 15:05:27.296644 14097 net.cpp:386] inception_4d/relu_5x5 -> inception_4d/5x5 (in-place)
I0403 15:05:27.296934 14097 net.cpp:141] Setting up inception_4d/relu_5x5
I0403 15:05:27.296960 14097 net.cpp:148] Top shape: 24 64 14 14 (301056)
I0403 15:05:27.296974 14097 net.cpp:156] Memory required for data: 1135267104
I0403 15:05:27.296988 14097 layer_factory.hpp:77] Creating layer inception_4d/pool
I0403 15:05:27.297008 14097 net.cpp:91] Creating Layer inception_4d/pool
I0403 15:05:27.297024 14097 net.cpp:425] inception_4d/pool <- inception_4c/output_inception_4c/output_0_split_3
I0403 15:05:27.297040 14097 net.cpp:399] inception_4d/pool -> inception_4d/pool
I0403 15:05:27.297106 14097 net.cpp:141] Setting up inception_4d/pool
I0403 15:05:27.297128 14097 net.cpp:148] Top shape: 24 512 14 14 (2408448)
I0403 15:05:27.297142 14097 net.cpp:156] Memory required for data: 1144900896
I0403 15:05:27.297157 14097 layer_factory.hpp:77] Creating layer inception_4d/pool_proj
I0403 15:05:27.297176 14097 net.cpp:91] Creating Layer inception_4d/pool_proj
I0403 15:05:27.297193 14097 net.cpp:425] inception_4d/pool_proj <- inception_4d/pool
I0403 15:05:27.297212 14097 net.cpp:399] inception_4d/pool_proj -> inception_4d/pool_proj
I0403 15:05:27.298964 14097 net.cpp:141] Setting up inception_4d/pool_proj
I0403 15:05:27.298993 14097 net.cpp:148] Top shape: 24 64 14 14 (301056)
I0403 15:05:27.299008 14097 net.cpp:156] Memory required for data: 1146105120
I0403 15:05:27.299026 14097 layer_factory.hpp:77] Creating layer inception_4d/relu_pool_proj
I0403 15:05:27.299043 14097 net.cpp:91] Creating Layer inception_4d/relu_pool_proj
I0403 15:05:27.299058 14097 net.cpp:425] inception_4d/relu_pool_proj <- inception_4d/pool_proj
I0403 15:05:27.299077 14097 net.cpp:386] inception_4d/relu_pool_proj -> inception_4d/pool_proj (in-place)
I0403 15:05:27.299257 14097 net.cpp:141] Setting up inception_4d/relu_pool_proj
I0403 15:05:27.299281 14097 net.cpp:148] Top shape: 24 64 14 14 (301056)
I0403 15:05:27.299294 14097 net.cpp:156] Memory required for data: 1147309344
I0403 15:05:27.299307 14097 layer_factory.hpp:77] Creating layer inception_4d/output
I0403 15:05:27.299324 14097 net.cpp:91] Creating Layer inception_4d/output
I0403 15:05:27.299338 14097 net.cpp:425] inception_4d/output <- inception_4d/1x1
I0403 15:05:27.299355 14097 net.cpp:425] inception_4d/output <- inception_4d/3x3
I0403 15:05:27.299370 14097 net.cpp:425] inception_4d/output <- inception_4d/5x5
I0403 15:05:27.299383 14097 net.cpp:425] inception_4d/output <- inception_4d/pool_proj
I0403 15:05:27.299401 14097 net.cpp:399] inception_4d/output -> inception_4d/output
I0403 15:05:27.299446 14097 net.cpp:141] Setting up inception_4d/output
I0403 15:05:27.299471 14097 net.cpp:148] Top shape: 24 528 14 14 (2483712)
I0403 15:05:27.299486 14097 net.cpp:156] Memory required for data: 1157244192
I0403 15:05:27.299499 14097 layer_factory.hpp:77] Creating layer inception_4d/output_inception_4d/output_0_split
I0403 15:05:27.299515 14097 net.cpp:91] Creating Layer inception_4d/output_inception_4d/output_0_split
I0403 15:05:27.299530 14097 net.cpp:425] inception_4d/output_inception_4d/output_0_split <- inception_4d/output
I0403 15:05:27.299556 14097 net.cpp:399] inception_4d/output_inception_4d/output_0_split -> inception_4d/output_inception_4d/output_0_split_0
I0403 15:05:27.299576 14097 net.cpp:399] inception_4d/output_inception_4d/output_0_split -> inception_4d/output_inception_4d/output_0_split_1
I0403 15:05:27.299597 14097 net.cpp:399] inception_4d/output_inception_4d/output_0_split -> inception_4d/output_inception_4d/output_0_split_2
I0403 15:05:27.299615 14097 net.cpp:399] inception_4d/output_inception_4d/output_0_split -> inception_4d/output_inception_4d/output_0_split_3
I0403 15:05:27.299634 14097 net.cpp:399] inception_4d/output_inception_4d/output_0_split -> inception_4d/output_inception_4d/output_0_split_4
I0403 15:05:27.299733 14097 net.cpp:141] Setting up inception_4d/output_inception_4d/output_0_split
I0403 15:05:27.299770 14097 net.cpp:148] Top shape: 24 528 14 14 (2483712)
I0403 15:05:27.299787 14097 net.cpp:148] Top shape: 24 528 14 14 (2483712)
I0403 15:05:27.299803 14097 net.cpp:148] Top shape: 24 528 14 14 (2483712)
I0403 15:05:27.299818 14097 net.cpp:148] Top shape: 24 528 14 14 (2483712)
I0403 15:05:27.299831 14097 net.cpp:148] Top shape: 24 528 14 14 (2483712)
I0403 15:05:27.299844 14097 net.cpp:156] Memory required for data: 1206918432
I0403 15:05:27.299857 14097 layer_factory.hpp:77] Creating layer loss2/ave_pool
I0403 15:05:27.299875 14097 net.cpp:91] Creating Layer loss2/ave_pool
I0403 15:05:27.299890 14097 net.cpp:425] loss2/ave_pool <- inception_4d/output_inception_4d/output_0_split_0
I0403 15:05:27.299907 14097 net.cpp:399] loss2/ave_pool -> loss2/ave_pool
I0403 15:05:27.300212 14097 net.cpp:141] Setting up loss2/ave_pool
I0403 15:05:27.300240 14097 net.cpp:148] Top shape: 24 528 4 4 (202752)
I0403 15:05:27.300256 14097 net.cpp:156] Memory required for data: 1207729440
I0403 15:05:27.300269 14097 layer_factory.hpp:77] Creating layer loss2/conv
I0403 15:05:27.300292 14097 net.cpp:91] Creating Layer loss2/conv
I0403 15:05:27.300307 14097 net.cpp:425] loss2/conv <- loss2/ave_pool
I0403 15:05:27.300326 14097 net.cpp:399] loss2/conv -> loss2/conv
I0403 15:05:27.302211 14097 net.cpp:141] Setting up loss2/conv
I0403 15:05:27.302238 14097 net.cpp:148] Top shape: 24 128 4 4 (49152)
I0403 15:05:27.302253 14097 net.cpp:156] Memory required for data: 1207926048
I0403 15:05:27.302271 14097 layer_factory.hpp:77] Creating layer loss2/relu_conv
I0403 15:05:27.302291 14097 net.cpp:91] Creating Layer loss2/relu_conv
I0403 15:05:27.302307 14097 net.cpp:425] loss2/relu_conv <- loss2/conv
I0403 15:05:27.302325 14097 net.cpp:386] loss2/relu_conv -> loss2/conv (in-place)
I0403 15:05:27.302605 14097 net.cpp:141] Setting up loss2/relu_conv
I0403 15:05:27.302630 14097 net.cpp:148] Top shape: 24 128 4 4 (49152)
I0403 15:05:27.302644 14097 net.cpp:156] Memory required for data: 1208122656
I0403 15:05:27.302659 14097 layer_factory.hpp:77] Creating layer loss2/fc
I0403 15:05:27.302678 14097 net.cpp:91] Creating Layer loss2/fc
I0403 15:05:27.302695 14097 net.cpp:425] loss2/fc <- loss2/conv
I0403 15:05:27.302712 14097 net.cpp:399] loss2/fc -> loss2/fc
I0403 15:05:27.320222 14097 net.cpp:141] Setting up loss2/fc
I0403 15:05:27.320255 14097 net.cpp:148] Top shape: 24 1024 (24576)
I0403 15:05:27.320271 14097 net.cpp:156] Memory required for data: 1208220960
I0403 15:05:27.320289 14097 layer_factory.hpp:77] Creating layer loss2/relu_fc
I0403 15:05:27.320307 14097 net.cpp:91] Creating Layer loss2/relu_fc
I0403 15:05:27.320322 14097 net.cpp:425] loss2/relu_fc <- loss2/fc
I0403 15:05:27.320340 14097 net.cpp:386] loss2/relu_fc -> loss2/fc (in-place)
I0403 15:05:27.320646 14097 net.cpp:141] Setting up loss2/relu_fc
I0403 15:05:27.320670 14097 net.cpp:148] Top shape: 24 1024 (24576)
I0403 15:05:27.320685 14097 net.cpp:156] Memory required for data: 1208319264
I0403 15:05:27.320699 14097 layer_factory.hpp:77] Creating layer loss2/drop_fc
I0403 15:05:27.320718 14097 net.cpp:91] Creating Layer loss2/drop_fc
I0403 15:05:27.320732 14097 net.cpp:425] loss2/drop_fc <- loss2/fc
I0403 15:05:27.320750 14097 net.cpp:386] loss2/drop_fc -> loss2/fc (in-place)
I0403 15:05:27.320798 14097 net.cpp:141] Setting up loss2/drop_fc
I0403 15:05:27.320824 14097 net.cpp:148] Top shape: 24 1024 (24576)
I0403 15:05:27.320838 14097 net.cpp:156] Memory required for data: 1208417568
I0403 15:05:27.320852 14097 layer_factory.hpp:77] Creating layer loss2/classifier_plantvillage
I0403 15:05:27.320868 14097 net.cpp:91] Creating Layer loss2/classifier_plantvillage
I0403 15:05:27.320883 14097 net.cpp:425] loss2/classifier_plantvillage <- loss2/fc
I0403 15:05:27.320904 14097 net.cpp:399] loss2/classifier_plantvillage -> loss2/classifier_plantvillage
I0403 15:05:27.321321 14097 net.cpp:141] Setting up loss2/classifier_plantvillage
I0403 15:05:27.321344 14097 net.cpp:148] Top shape: 24 38 (912)
I0403 15:05:27.321359 14097 net.cpp:156] Memory required for data: 1208421216
I0403 15:05:27.321393 14097 layer_factory.hpp:77] Creating layer loss2/classifier_plantvillage_loss2/classifier_plantvillage_0_split
I0403 15:05:27.321413 14097 net.cpp:91] Creating Layer loss2/classifier_plantvillage_loss2/classifier_plantvillage_0_split
I0403 15:05:27.321430 14097 net.cpp:425] loss2/classifier_plantvillage_loss2/classifier_plantvillage_0_split <- loss2/classifier_plantvillage
I0403 15:05:27.321447 14097 net.cpp:399] loss2/classifier_plantvillage_loss2/classifier_plantvillage_0_split -> loss2/classifier_plantvillage_loss2/classifier_plantvillage_0_split_0
I0403 15:05:27.321467 14097 net.cpp:399] loss2/classifier_plantvillage_loss2/classifier_plantvillage_0_split -> loss2/classifier_plantvillage_loss2/classifier_plantvillage_0_split_1
I0403 15:05:27.321487 14097 net.cpp:399] loss2/classifier_plantvillage_loss2/classifier_plantvillage_0_split -> loss2/classifier_plantvillage_loss2/classifier_plantvillage_0_split_2
I0403 15:05:27.321588 14097 net.cpp:141] Setting up loss2/classifier_plantvillage_loss2/classifier_plantvillage_0_split
I0403 15:05:27.321612 14097 net.cpp:148] Top shape: 24 38 (912)
I0403 15:05:27.321629 14097 net.cpp:148] Top shape: 24 38 (912)
I0403 15:05:27.321643 14097 net.cpp:148] Top shape: 24 38 (912)
I0403 15:05:27.321658 14097 net.cpp:156] Memory required for data: 1208432160
I0403 15:05:27.321673 14097 layer_factory.hpp:77] Creating layer inception_4e/1x1
I0403 15:05:27.321696 14097 net.cpp:91] Creating Layer inception_4e/1x1
I0403 15:05:27.321713 14097 net.cpp:425] inception_4e/1x1 <- inception_4d/output_inception_4d/output_0_split_1
I0403 15:05:27.321732 14097 net.cpp:399] inception_4e/1x1 -> inception_4e/1x1
I0403 15:05:27.323595 14097 net.cpp:141] Setting up inception_4e/1x1
I0403 15:05:27.323623 14097 net.cpp:148] Top shape: 24 256 14 14 (1204224)
I0403 15:05:27.323639 14097 net.cpp:156] Memory required for data: 1213249056
I0403 15:05:27.323657 14097 layer_factory.hpp:77] Creating layer inception_4e/relu_1x1
I0403 15:05:27.323678 14097 net.cpp:91] Creating Layer inception_4e/relu_1x1
I0403 15:05:27.323694 14097 net.cpp:425] inception_4e/relu_1x1 <- inception_4e/1x1
I0403 15:05:27.323711 14097 net.cpp:386] inception_4e/relu_1x1 -> inception_4e/1x1 (in-place)
I0403 15:05:27.324023 14097 net.cpp:141] Setting up inception_4e/relu_1x1
I0403 15:05:27.324049 14097 net.cpp:148] Top shape: 24 256 14 14 (1204224)
I0403 15:05:27.324064 14097 net.cpp:156] Memory required for data: 1218065952
I0403 15:05:27.324079 14097 layer_factory.hpp:77] Creating layer inception_4e/3x3_reduce
I0403 15:05:27.324100 14097 net.cpp:91] Creating Layer inception_4e/3x3_reduce
I0403 15:05:27.324117 14097 net.cpp:425] inception_4e/3x3_reduce <- inception_4d/output_inception_4d/output_0_split_2
I0403 15:05:27.324138 14097 net.cpp:399] inception_4e/3x3_reduce -> inception_4e/3x3_reduce
I0403 15:05:27.326349 14097 net.cpp:141] Setting up inception_4e/3x3_reduce
I0403 15:05:27.326377 14097 net.cpp:148] Top shape: 24 160 14 14 (752640)
I0403 15:05:27.326393 14097 net.cpp:156] Memory required for data: 1221076512
I0403 15:05:27.326411 14097 layer_factory.hpp:77] Creating layer inception_4e/relu_3x3_reduce
I0403 15:05:27.326431 14097 net.cpp:91] Creating Layer inception_4e/relu_3x3_reduce
I0403 15:05:27.326447 14097 net.cpp:425] inception_4e/relu_3x3_reduce <- inception_4e/3x3_reduce
I0403 15:05:27.326464 14097 net.cpp:386] inception_4e/relu_3x3_reduce -> inception_4e/3x3_reduce (in-place)
I0403 15:05:27.326679 14097 net.cpp:141] Setting up inception_4e/relu_3x3_reduce
I0403 15:05:27.326705 14097 net.cpp:148] Top shape: 24 160 14 14 (752640)
I0403 15:05:27.326722 14097 net.cpp:156] Memory required for data: 1224087072
I0403 15:05:27.326737 14097 layer_factory.hpp:77] Creating layer inception_4e/3x3
I0403 15:05:27.326758 14097 net.cpp:91] Creating Layer inception_4e/3x3
I0403 15:05:27.326776 14097 net.cpp:425] inception_4e/3x3 <- inception_4e/3x3_reduce
I0403 15:05:27.326797 14097 net.cpp:399] inception_4e/3x3 -> inception_4e/3x3
I0403 15:05:27.332121 14097 net.cpp:141] Setting up inception_4e/3x3
I0403 15:05:27.332165 14097 net.cpp:148] Top shape: 24 320 14 14 (1505280)
I0403 15:05:27.332181 14097 net.cpp:156] Memory required for data: 1230108192
I0403 15:05:27.332200 14097 layer_factory.hpp:77] Creating layer inception_4e/relu_3x3
I0403 15:05:27.332217 14097 net.cpp:91] Creating Layer inception_4e/relu_3x3
I0403 15:05:27.332233 14097 net.cpp:425] inception_4e/relu_3x3 <- inception_4e/3x3
I0403 15:05:27.332252 14097 net.cpp:386] inception_4e/relu_3x3 -> inception_4e/3x3 (in-place)
I0403 15:05:27.332556 14097 net.cpp:141] Setting up inception_4e/relu_3x3
I0403 15:05:27.332584 14097 net.cpp:148] Top shape: 24 320 14 14 (1505280)
I0403 15:05:27.332599 14097 net.cpp:156] Memory required for data: 1236129312
I0403 15:05:27.332614 14097 layer_factory.hpp:77] Creating layer inception_4e/5x5_reduce
I0403 15:05:27.332638 14097 net.cpp:91] Creating Layer inception_4e/5x5_reduce
I0403 15:05:27.332654 14097 net.cpp:425] inception_4e/5x5_reduce <- inception_4d/output_inception_4d/output_0_split_3
I0403 15:05:27.332674 14097 net.cpp:399] inception_4e/5x5_reduce -> inception_4e/5x5_reduce
I0403 15:05:27.333775 14097 net.cpp:141] Setting up inception_4e/5x5_reduce
I0403 15:05:27.333808 14097 net.cpp:148] Top shape: 24 32 14 14 (150528)
I0403 15:05:27.333823 14097 net.cpp:156] Memory required for data: 1236731424
I0403 15:05:27.333842 14097 layer_factory.hpp:77] Creating layer inception_4e/relu_5x5_reduce
I0403 15:05:27.333883 14097 net.cpp:91] Creating Layer inception_4e/relu_5x5_reduce
I0403 15:05:27.333899 14097 net.cpp:425] inception_4e/relu_5x5_reduce <- inception_4e/5x5_reduce
I0403 15:05:27.333915 14097 net.cpp:386] inception_4e/relu_5x5_reduce -> inception_4e/5x5_reduce (in-place)
I0403 15:05:27.334210 14097 net.cpp:141] Setting up inception_4e/relu_5x5_reduce
I0403 15:05:27.334236 14097 net.cpp:148] Top shape: 24 32 14 14 (150528)
I0403 15:05:27.334251 14097 net.cpp:156] Memory required for data: 1237333536
I0403 15:05:27.334265 14097 layer_factory.hpp:77] Creating layer inception_4e/5x5
I0403 15:05:27.334307 14097 net.cpp:91] Creating Layer inception_4e/5x5
I0403 15:05:27.334326 14097 net.cpp:425] inception_4e/5x5 <- inception_4e/5x5_reduce
I0403 15:05:27.334345 14097 net.cpp:399] inception_4e/5x5 -> inception_4e/5x5
I0403 15:05:27.336216 14097 net.cpp:141] Setting up inception_4e/5x5
I0403 15:05:27.336244 14097 net.cpp:148] Top shape: 24 128 14 14 (602112)
I0403 15:05:27.336261 14097 net.cpp:156] Memory required for data: 1239741984
I0403 15:05:27.336279 14097 layer_factory.hpp:77] Creating layer inception_4e/relu_5x5
I0403 15:05:27.336297 14097 net.cpp:91] Creating Layer inception_4e/relu_5x5
I0403 15:05:27.336313 14097 net.cpp:425] inception_4e/relu_5x5 <- inception_4e/5x5
I0403 15:05:27.336331 14097 net.cpp:386] inception_4e/relu_5x5 -> inception_4e/5x5 (in-place)
I0403 15:05:27.336525 14097 net.cpp:141] Setting up inception_4e/relu_5x5
I0403 15:05:27.336555 14097 net.cpp:148] Top shape: 24 128 14 14 (602112)
I0403 15:05:27.336570 14097 net.cpp:156] Memory required for data: 1242150432
I0403 15:05:27.336583 14097 layer_factory.hpp:77] Creating layer inception_4e/pool
I0403 15:05:27.336602 14097 net.cpp:91] Creating Layer inception_4e/pool
I0403 15:05:27.336618 14097 net.cpp:425] inception_4e/pool <- inception_4d/output_inception_4d/output_0_split_4
I0403 15:05:27.336637 14097 net.cpp:399] inception_4e/pool -> inception_4e/pool
I0403 15:05:27.336709 14097 net.cpp:141] Setting up inception_4e/pool
I0403 15:05:27.336732 14097 net.cpp:148] Top shape: 24 528 14 14 (2483712)
I0403 15:05:27.336747 14097 net.cpp:156] Memory required for data: 1252085280
I0403 15:05:27.336761 14097 layer_factory.hpp:77] Creating layer inception_4e/pool_proj
I0403 15:05:27.336782 14097 net.cpp:91] Creating Layer inception_4e/pool_proj
I0403 15:05:27.336799 14097 net.cpp:425] inception_4e/pool_proj <- inception_4e/pool
I0403 15:05:27.336820 14097 net.cpp:399] inception_4e/pool_proj -> inception_4e/pool_proj
I0403 15:05:27.338377 14097 net.cpp:141] Setting up inception_4e/pool_proj
I0403 15:05:27.338407 14097 net.cpp:148] Top shape: 24 128 14 14 (602112)
I0403 15:05:27.338436 14097 net.cpp:156] Memory required for data: 1254493728
I0403 15:05:27.338455 14097 layer_factory.hpp:77] Creating layer inception_4e/relu_pool_proj
I0403 15:05:27.338474 14097 net.cpp:91] Creating Layer inception_4e/relu_pool_proj
I0403 15:05:27.338490 14097 net.cpp:425] inception_4e/relu_pool_proj <- inception_4e/pool_proj
I0403 15:05:27.338510 14097 net.cpp:386] inception_4e/relu_pool_proj -> inception_4e/pool_proj (in-place)
I0403 15:05:27.338809 14097 net.cpp:141] Setting up inception_4e/relu_pool_proj
I0403 15:05:27.338840 14097 net.cpp:148] Top shape: 24 128 14 14 (602112)
I0403 15:05:27.338855 14097 net.cpp:156] Memory required for data: 1256902176
I0403 15:05:27.338870 14097 layer_factory.hpp:77] Creating layer inception_4e/output
I0403 15:05:27.338886 14097 net.cpp:91] Creating Layer inception_4e/output
I0403 15:05:27.338901 14097 net.cpp:425] inception_4e/output <- inception_4e/1x1
I0403 15:05:27.338918 14097 net.cpp:425] inception_4e/output <- inception_4e/3x3
I0403 15:05:27.338933 14097 net.cpp:425] inception_4e/output <- inception_4e/5x5
I0403 15:05:27.338948 14097 net.cpp:425] inception_4e/output <- inception_4e/pool_proj
I0403 15:05:27.338966 14097 net.cpp:399] inception_4e/output -> inception_4e/output
I0403 15:05:27.339015 14097 net.cpp:141] Setting up inception_4e/output
I0403 15:05:27.339040 14097 net.cpp:148] Top shape: 24 832 14 14 (3913728)
I0403 15:05:27.339053 14097 net.cpp:156] Memory required for data: 1272557088
I0403 15:05:27.339068 14097 layer_factory.hpp:77] Creating layer pool4/3x3_s2
I0403 15:05:27.339088 14097 net.cpp:91] Creating Layer pool4/3x3_s2
I0403 15:05:27.339104 14097 net.cpp:425] pool4/3x3_s2 <- inception_4e/output
I0403 15:05:27.339123 14097 net.cpp:399] pool4/3x3_s2 -> pool4/3x3_s2
I0403 15:05:27.339190 14097 net.cpp:141] Setting up pool4/3x3_s2
I0403 15:05:27.339215 14097 net.cpp:148] Top shape: 24 832 7 7 (978432)
I0403 15:05:27.339229 14097 net.cpp:156] Memory required for data: 1276470816
I0403 15:05:27.339242 14097 layer_factory.hpp:77] Creating layer pool4/3x3_s2_pool4/3x3_s2_0_split
I0403 15:05:27.339259 14097 net.cpp:91] Creating Layer pool4/3x3_s2_pool4/3x3_s2_0_split
I0403 15:05:27.339274 14097 net.cpp:425] pool4/3x3_s2_pool4/3x3_s2_0_split <- pool4/3x3_s2
I0403 15:05:27.339298 14097 net.cpp:399] pool4/3x3_s2_pool4/3x3_s2_0_split -> pool4/3x3_s2_pool4/3x3_s2_0_split_0
I0403 15:05:27.339319 14097 net.cpp:399] pool4/3x3_s2_pool4/3x3_s2_0_split -> pool4/3x3_s2_pool4/3x3_s2_0_split_1
I0403 15:05:27.339352 14097 net.cpp:399] pool4/3x3_s2_pool4/3x3_s2_0_split -> pool4/3x3_s2_pool4/3x3_s2_0_split_2
I0403 15:05:27.339371 14097 net.cpp:399] pool4/3x3_s2_pool4/3x3_s2_0_split -> pool4/3x3_s2_pool4/3x3_s2_0_split_3
I0403 15:05:27.339462 14097 net.cpp:141] Setting up pool4/3x3_s2_pool4/3x3_s2_0_split
I0403 15:05:27.339484 14097 net.cpp:148] Top shape: 24 832 7 7 (978432)
I0403 15:05:27.339506 14097 net.cpp:148] Top shape: 24 832 7 7 (978432)
I0403 15:05:27.339520 14097 net.cpp:148] Top shape: 24 832 7 7 (978432)
I0403 15:05:27.339545 14097 net.cpp:148] Top shape: 24 832 7 7 (978432)
I0403 15:05:27.339560 14097 net.cpp:156] Memory required for data: 1292125728
I0403 15:05:27.339573 14097 layer_factory.hpp:77] Creating layer inception_5a/1x1
I0403 15:05:27.339607 14097 net.cpp:91] Creating Layer inception_5a/1x1
I0403 15:05:27.339624 14097 net.cpp:425] inception_5a/1x1 <- pool4/3x3_s2_pool4/3x3_s2_0_split_0
I0403 15:05:27.339645 14097 net.cpp:399] inception_5a/1x1 -> inception_5a/1x1
I0403 15:05:27.342689 14097 net.cpp:141] Setting up inception_5a/1x1
I0403 15:05:27.342717 14097 net.cpp:148] Top shape: 24 256 7 7 (301056)
I0403 15:05:27.342733 14097 net.cpp:156] Memory required for data: 1293329952
I0403 15:05:27.342751 14097 layer_factory.hpp:77] Creating layer inception_5a/relu_1x1
I0403 15:05:27.342769 14097 net.cpp:91] Creating Layer inception_5a/relu_1x1
I0403 15:05:27.342784 14097 net.cpp:425] inception_5a/relu_1x1 <- inception_5a/1x1
I0403 15:05:27.342803 14097 net.cpp:386] inception_5a/relu_1x1 -> inception_5a/1x1 (in-place)
I0403 15:05:27.343116 14097 net.cpp:141] Setting up inception_5a/relu_1x1
I0403 15:05:27.343142 14097 net.cpp:148] Top shape: 24 256 7 7 (301056)
I0403 15:05:27.343157 14097 net.cpp:156] Memory required for data: 1294534176
I0403 15:05:27.343170 14097 layer_factory.hpp:77] Creating layer inception_5a/3x3_reduce
I0403 15:05:27.343191 14097 net.cpp:91] Creating Layer inception_5a/3x3_reduce
I0403 15:05:27.343209 14097 net.cpp:425] inception_5a/3x3_reduce <- pool4/3x3_s2_pool4/3x3_s2_0_split_1
I0403 15:05:27.343230 14097 net.cpp:399] inception_5a/3x3_reduce -> inception_5a/3x3_reduce
I0403 15:05:27.345814 14097 net.cpp:141] Setting up inception_5a/3x3_reduce
I0403 15:05:27.345844 14097 net.cpp:148] Top shape: 24 160 7 7 (188160)
I0403 15:05:27.345861 14097 net.cpp:156] Memory required for data: 1295286816
I0403 15:05:27.345880 14097 layer_factory.hpp:77] Creating layer inception_5a/relu_3x3_reduce
I0403 15:05:27.345897 14097 net.cpp:91] Creating Layer inception_5a/relu_3x3_reduce
I0403 15:05:27.345912 14097 net.cpp:425] inception_5a/relu_3x3_reduce <- inception_5a/3x3_reduce
I0403 15:05:27.345932 14097 net.cpp:386] inception_5a/relu_3x3_reduce -> inception_5a/3x3_reduce (in-place)
I0403 15:05:27.346117 14097 net.cpp:141] Setting up inception_5a/relu_3x3_reduce
I0403 15:05:27.346143 14097 net.cpp:148] Top shape: 24 160 7 7 (188160)
I0403 15:05:27.346158 14097 net.cpp:156] Memory required for data: 1296039456
I0403 15:05:27.346171 14097 layer_factory.hpp:77] Creating layer inception_5a/3x3
I0403 15:05:27.346192 14097 net.cpp:91] Creating Layer inception_5a/3x3
I0403 15:05:27.346210 14097 net.cpp:425] inception_5a/3x3 <- inception_5a/3x3_reduce
I0403 15:05:27.346231 14097 net.cpp:399] inception_5a/3x3 -> inception_5a/3x3
I0403 15:05:27.351305 14097 net.cpp:141] Setting up inception_5a/3x3
I0403 15:05:27.351333 14097 net.cpp:148] Top shape: 24 320 7 7 (376320)
I0403 15:05:27.351349 14097 net.cpp:156] Memory required for data: 1297544736
I0403 15:05:27.351366 14097 layer_factory.hpp:77] Creating layer inception_5a/relu_3x3
I0403 15:05:27.351387 14097 net.cpp:91] Creating Layer inception_5a/relu_3x3
I0403 15:05:27.351404 14097 net.cpp:425] inception_5a/relu_3x3 <- inception_5a/3x3
I0403 15:05:27.351421 14097 net.cpp:386] inception_5a/relu_3x3 -> inception_5a/3x3 (in-place)
I0403 15:05:27.351721 14097 net.cpp:141] Setting up inception_5a/relu_3x3
I0403 15:05:27.351747 14097 net.cpp:148] Top shape: 24 320 7 7 (376320)
I0403 15:05:27.351761 14097 net.cpp:156] Memory required for data: 1299050016
I0403 15:05:27.351779 14097 layer_factory.hpp:77] Creating layer inception_5a/5x5_reduce
I0403 15:05:27.351801 14097 net.cpp:91] Creating Layer inception_5a/5x5_reduce
I0403 15:05:27.351819 14097 net.cpp:425] inception_5a/5x5_reduce <- pool4/3x3_s2_pool4/3x3_s2_0_split_2
I0403 15:05:27.351840 14097 net.cpp:399] inception_5a/5x5_reduce -> inception_5a/5x5_reduce
I0403 15:05:27.353018 14097 net.cpp:141] Setting up inception_5a/5x5_reduce
I0403 15:05:27.353046 14097 net.cpp:148] Top shape: 24 32 7 7 (37632)
I0403 15:05:27.353061 14097 net.cpp:156] Memory required for data: 1299200544
I0403 15:05:27.353080 14097 layer_factory.hpp:77] Creating layer inception_5a/relu_5x5_reduce
I0403 15:05:27.353099 14097 net.cpp:91] Creating Layer inception_5a/relu_5x5_reduce
I0403 15:05:27.353116 14097 net.cpp:425] inception_5a/relu_5x5_reduce <- inception_5a/5x5_reduce
I0403 15:05:27.353133 14097 net.cpp:386] inception_5a/relu_5x5_reduce -> inception_5a/5x5_reduce (in-place)
I0403 15:05:27.353452 14097 net.cpp:141] Setting up inception_5a/relu_5x5_reduce
I0403 15:05:27.353478 14097 net.cpp:148] Top shape: 24 32 7 7 (37632)
I0403 15:05:27.353493 14097 net.cpp:156] Memory required for data: 1299351072
I0403 15:05:27.353508 14097 layer_factory.hpp:77] Creating layer inception_5a/5x5
I0403 15:05:27.353530 14097 net.cpp:91] Creating Layer inception_5a/5x5
I0403 15:05:27.353564 14097 net.cpp:425] inception_5a/5x5 <- inception_5a/5x5_reduce
I0403 15:05:27.353586 14097 net.cpp:399] inception_5a/5x5 -> inception_5a/5x5
I0403 15:05:27.355340 14097 net.cpp:141] Setting up inception_5a/5x5
I0403 15:05:27.355381 14097 net.cpp:148] Top shape: 24 128 7 7 (150528)
I0403 15:05:27.355397 14097 net.cpp:156] Memory required for data: 1299953184
I0403 15:05:27.355415 14097 layer_factory.hpp:77] Creating layer inception_5a/relu_5x5
I0403 15:05:27.355433 14097 net.cpp:91] Creating Layer inception_5a/relu_5x5
I0403 15:05:27.355453 14097 net.cpp:425] inception_5a/relu_5x5 <- inception_5a/5x5
I0403 15:05:27.355471 14097 net.cpp:386] inception_5a/relu_5x5 -> inception_5a/5x5 (in-place)
I0403 15:05:27.355680 14097 net.cpp:141] Setting up inception_5a/relu_5x5
I0403 15:05:27.355705 14097 net.cpp:148] Top shape: 24 128 7 7 (150528)
I0403 15:05:27.355720 14097 net.cpp:156] Memory required for data: 1300555296
I0403 15:05:27.355732 14097 layer_factory.hpp:77] Creating layer inception_5a/pool
I0403 15:05:27.355752 14097 net.cpp:91] Creating Layer inception_5a/pool
I0403 15:05:27.355768 14097 net.cpp:425] inception_5a/pool <- pool4/3x3_s2_pool4/3x3_s2_0_split_3
I0403 15:05:27.355787 14097 net.cpp:399] inception_5a/pool -> inception_5a/pool
I0403 15:05:27.355859 14097 net.cpp:141] Setting up inception_5a/pool
I0403 15:05:27.355881 14097 net.cpp:148] Top shape: 24 832 7 7 (978432)
I0403 15:05:27.355896 14097 net.cpp:156] Memory required for data: 1304469024
I0403 15:05:27.355909 14097 layer_factory.hpp:77] Creating layer inception_5a/pool_proj
I0403 15:05:27.355931 14097 net.cpp:91] Creating Layer inception_5a/pool_proj
I0403 15:05:27.355948 14097 net.cpp:425] inception_5a/pool_proj <- inception_5a/pool
I0403 15:05:27.355967 14097 net.cpp:399] inception_5a/pool_proj -> inception_5a/pool_proj
I0403 15:05:27.358301 14097 net.cpp:141] Setting up inception_5a/pool_proj
I0403 15:05:27.358331 14097 net.cpp:148] Top shape: 24 128 7 7 (150528)
I0403 15:05:27.358347 14097 net.cpp:156] Memory required for data: 1305071136
I0403 15:05:27.358366 14097 layer_factory.hpp:77] Creating layer inception_5a/relu_pool_proj
I0403 15:05:27.358383 14097 net.cpp:91] Creating Layer inception_5a/relu_pool_proj
I0403 15:05:27.358400 14097 net.cpp:425] inception_5a/relu_pool_proj <- inception_5a/pool_proj
I0403 15:05:27.358420 14097 net.cpp:386] inception_5a/relu_pool_proj -> inception_5a/pool_proj (in-place)
I0403 15:05:27.358736 14097 net.cpp:141] Setting up inception_5a/relu_pool_proj
I0403 15:05:27.358762 14097 net.cpp:148] Top shape: 24 128 7 7 (150528)
I0403 15:05:27.358777 14097 net.cpp:156] Memory required for data: 1305673248
I0403 15:05:27.358790 14097 layer_factory.hpp:77] Creating layer inception_5a/output
I0403 15:05:27.358808 14097 net.cpp:91] Creating Layer inception_5a/output
I0403 15:05:27.358824 14097 net.cpp:425] inception_5a/output <- inception_5a/1x1
I0403 15:05:27.358841 14097 net.cpp:425] inception_5a/output <- inception_5a/3x3
I0403 15:05:27.358856 14097 net.cpp:425] inception_5a/output <- inception_5a/5x5
I0403 15:05:27.358872 14097 net.cpp:425] inception_5a/output <- inception_5a/pool_proj
I0403 15:05:27.358891 14097 net.cpp:399] inception_5a/output -> inception_5a/output
I0403 15:05:27.358942 14097 net.cpp:141] Setting up inception_5a/output
I0403 15:05:27.358964 14097 net.cpp:148] Top shape: 24 832 7 7 (978432)
I0403 15:05:27.358983 14097 net.cpp:156] Memory required for data: 1309586976
I0403 15:05:27.358996 14097 layer_factory.hpp:77] Creating layer inception_5a/output_inception_5a/output_0_split
I0403 15:05:27.359014 14097 net.cpp:91] Creating Layer inception_5a/output_inception_5a/output_0_split
I0403 15:05:27.359028 14097 net.cpp:425] inception_5a/output_inception_5a/output_0_split <- inception_5a/output
I0403 15:05:27.359045 14097 net.cpp:399] inception_5a/output_inception_5a/output_0_split -> inception_5a/output_inception_5a/output_0_split_0
I0403 15:05:27.359064 14097 net.cpp:399] inception_5a/output_inception_5a/output_0_split -> inception_5a/output_inception_5a/output_0_split_1
I0403 15:05:27.359084 14097 net.cpp:399] inception_5a/output_inception_5a/output_0_split -> inception_5a/output_inception_5a/output_0_split_2
I0403 15:05:27.359107 14097 net.cpp:399] inception_5a/output_inception_5a/output_0_split -> inception_5a/output_inception_5a/output_0_split_3
I0403 15:05:27.359222 14097 net.cpp:141] Setting up inception_5a/output_inception_5a/output_0_split
I0403 15:05:27.359246 14097 net.cpp:148] Top shape: 24 832 7 7 (978432)
I0403 15:05:27.359263 14097 net.cpp:148] Top shape: 24 832 7 7 (978432)
I0403 15:05:27.359278 14097 net.cpp:148] Top shape: 24 832 7 7 (978432)
I0403 15:05:27.359292 14097 net.cpp:148] Top shape: 24 832 7 7 (978432)
I0403 15:05:27.359305 14097 net.cpp:156] Memory required for data: 1325241888
I0403 15:05:27.359319 14097 layer_factory.hpp:77] Creating layer inception_5b/1x1
I0403 15:05:27.359343 14097 net.cpp:91] Creating Layer inception_5b/1x1
I0403 15:05:27.359359 14097 net.cpp:425] inception_5b/1x1 <- inception_5a/output_inception_5a/output_0_split_0
I0403 15:05:27.359380 14097 net.cpp:399] inception_5b/1x1 -> inception_5b/1x1
I0403 15:05:27.363215 14097 net.cpp:141] Setting up inception_5b/1x1
I0403 15:05:27.363245 14097 net.cpp:148] Top shape: 24 384 7 7 (451584)
I0403 15:05:27.363263 14097 net.cpp:156] Memory required for data: 1327048224
I0403 15:05:27.363282 14097 layer_factory.hpp:77] Creating layer inception_5b/relu_1x1
I0403 15:05:27.363301 14097 net.cpp:91] Creating Layer inception_5b/relu_1x1
I0403 15:05:27.363317 14097 net.cpp:425] inception_5b/relu_1x1 <- inception_5b/1x1
I0403 15:05:27.363335 14097 net.cpp:386] inception_5b/relu_1x1 -> inception_5b/1x1 (in-place)
I0403 15:05:27.363646 14097 net.cpp:141] Setting up inception_5b/relu_1x1
I0403 15:05:27.363673 14097 net.cpp:148] Top shape: 24 384 7 7 (451584)
I0403 15:05:27.363688 14097 net.cpp:156] Memory required for data: 1328854560
I0403 15:05:27.363703 14097 layer_factory.hpp:77] Creating layer inception_5b/3x3_reduce
I0403 15:05:27.363724 14097 net.cpp:91] Creating Layer inception_5b/3x3_reduce
I0403 15:05:27.363741 14097 net.cpp:425] inception_5b/3x3_reduce <- inception_5a/output_inception_5a/output_0_split_1
I0403 15:05:27.363760 14097 net.cpp:399] inception_5b/3x3_reduce -> inception_5b/3x3_reduce
I0403 15:05:27.366492 14097 net.cpp:141] Setting up inception_5b/3x3_reduce
I0403 15:05:27.366523 14097 net.cpp:148] Top shape: 24 192 7 7 (225792)
I0403 15:05:27.366544 14097 net.cpp:156] Memory required for data: 1329757728
I0403 15:05:27.366564 14097 layer_factory.hpp:77] Creating layer inception_5b/relu_3x3_reduce
I0403 15:05:27.366581 14097 net.cpp:91] Creating Layer inception_5b/relu_3x3_reduce
I0403 15:05:27.366598 14097 net.cpp:425] inception_5b/relu_3x3_reduce <- inception_5b/3x3_reduce
I0403 15:05:27.366617 14097 net.cpp:386] inception_5b/relu_3x3_reduce -> inception_5b/3x3_reduce (in-place)
I0403 15:05:27.366808 14097 net.cpp:141] Setting up inception_5b/relu_3x3_reduce
I0403 15:05:27.366833 14097 net.cpp:148] Top shape: 24 192 7 7 (225792)
I0403 15:05:27.366847 14097 net.cpp:156] Memory required for data: 1330660896
I0403 15:05:27.366861 14097 layer_factory.hpp:77] Creating layer inception_5b/3x3
I0403 15:05:27.366883 14097 net.cpp:91] Creating Layer inception_5b/3x3
I0403 15:05:27.366899 14097 net.cpp:425] inception_5b/3x3 <- inception_5b/3x3_reduce
I0403 15:05:27.366921 14097 net.cpp:399] inception_5b/3x3 -> inception_5b/3x3
I0403 15:05:27.373929 14097 net.cpp:141] Setting up inception_5b/3x3
I0403 15:05:27.373958 14097 net.cpp:148] Top shape: 24 384 7 7 (451584)
I0403 15:05:27.373975 14097 net.cpp:156] Memory required for data: 1332467232
I0403 15:05:27.373993 14097 layer_factory.hpp:77] Creating layer inception_5b/relu_3x3
I0403 15:05:27.374011 14097 net.cpp:91] Creating Layer inception_5b/relu_3x3
I0403 15:05:27.374028 14097 net.cpp:425] inception_5b/relu_3x3 <- inception_5b/3x3
I0403 15:05:27.374048 14097 net.cpp:386] inception_5b/relu_3x3 -> inception_5b/3x3 (in-place)
I0403 15:05:27.374359 14097 net.cpp:141] Setting up inception_5b/relu_3x3
I0403 15:05:27.374387 14097 net.cpp:148] Top shape: 24 384 7 7 (451584)
I0403 15:05:27.374402 14097 net.cpp:156] Memory required for data: 1334273568
I0403 15:05:27.374416 14097 layer_factory.hpp:77] Creating layer inception_5b/5x5_reduce
I0403 15:05:27.374457 14097 net.cpp:91] Creating Layer inception_5b/5x5_reduce
I0403 15:05:27.374476 14097 net.cpp:425] inception_5b/5x5_reduce <- inception_5a/output_inception_5a/output_0_split_2
I0403 15:05:27.374498 14097 net.cpp:399] inception_5b/5x5_reduce -> inception_5b/5x5_reduce
I0403 15:05:27.375830 14097 net.cpp:141] Setting up inception_5b/5x5_reduce
I0403 15:05:27.375862 14097 net.cpp:148] Top shape: 24 48 7 7 (56448)
I0403 15:05:27.375879 14097 net.cpp:156] Memory required for data: 1334499360
I0403 15:05:27.375898 14097 layer_factory.hpp:77] Creating layer inception_5b/relu_5x5_reduce
I0403 15:05:27.375916 14097 net.cpp:91] Creating Layer inception_5b/relu_5x5_reduce
I0403 15:05:27.375932 14097 net.cpp:425] inception_5b/relu_5x5_reduce <- inception_5b/5x5_reduce
I0403 15:05:27.375952 14097 net.cpp:386] inception_5b/relu_5x5_reduce -> inception_5b/5x5_reduce (in-place)
I0403 15:05:27.376337 14097 net.cpp:141] Setting up inception_5b/relu_5x5_reduce
I0403 15:05:27.376363 14097 net.cpp:148] Top shape: 24 48 7 7 (56448)
I0403 15:05:27.376379 14097 net.cpp:156] Memory required for data: 1334725152
I0403 15:05:27.376392 14097 layer_factory.hpp:77] Creating layer inception_5b/5x5
I0403 15:05:27.376413 14097 net.cpp:91] Creating Layer inception_5b/5x5
I0403 15:05:27.376430 14097 net.cpp:425] inception_5b/5x5 <- inception_5b/5x5_reduce
I0403 15:05:27.376449 14097 net.cpp:399] inception_5b/5x5 -> inception_5b/5x5
I0403 15:05:27.378638 14097 net.cpp:141] Setting up inception_5b/5x5
I0403 15:05:27.378667 14097 net.cpp:148] Top shape: 24 128 7 7 (150528)
I0403 15:05:27.378684 14097 net.cpp:156] Memory required for data: 1335327264
I0403 15:05:27.378700 14097 layer_factory.hpp:77] Creating layer inception_5b/relu_5x5
I0403 15:05:27.378718 14097 net.cpp:91] Creating Layer inception_5b/relu_5x5
I0403 15:05:27.378736 14097 net.cpp:425] inception_5b/relu_5x5 <- inception_5b/5x5
I0403 15:05:27.378754 14097 net.cpp:386] inception_5b/relu_5x5 -> inception_5b/5x5 (in-place)
I0403 15:05:27.378954 14097 net.cpp:141] Setting up inception_5b/relu_5x5
I0403 15:05:27.378979 14097 net.cpp:148] Top shape: 24 128 7 7 (150528)
I0403 15:05:27.378994 14097 net.cpp:156] Memory required for data: 1335929376
I0403 15:05:27.379009 14097 layer_factory.hpp:77] Creating layer inception_5b/pool
I0403 15:05:27.379029 14097 net.cpp:91] Creating Layer inception_5b/pool
I0403 15:05:27.379046 14097 net.cpp:425] inception_5b/pool <- inception_5a/output_inception_5a/output_0_split_3
I0403 15:05:27.379065 14097 net.cpp:399] inception_5b/pool -> inception_5b/pool
I0403 15:05:27.379140 14097 net.cpp:141] Setting up inception_5b/pool
I0403 15:05:27.379164 14097 net.cpp:148] Top shape: 24 832 7 7 (978432)
I0403 15:05:27.379179 14097 net.cpp:156] Memory required for data: 1339843104
I0403 15:05:27.379194 14097 layer_factory.hpp:77] Creating layer inception_5b/pool_proj
I0403 15:05:27.379215 14097 net.cpp:91] Creating Layer inception_5b/pool_proj
I0403 15:05:27.379232 14097 net.cpp:425] inception_5b/pool_proj <- inception_5b/pool
I0403 15:05:27.379254 14097 net.cpp:399] inception_5b/pool_proj -> inception_5b/pool_proj
I0403 15:05:27.381680 14097 net.cpp:141] Setting up inception_5b/pool_proj
I0403 15:05:27.381712 14097 net.cpp:148] Top shape: 24 128 7 7 (150528)
I0403 15:05:27.381729 14097 net.cpp:156] Memory required for data: 1340445216
I0403 15:05:27.381747 14097 layer_factory.hpp:77] Creating layer inception_5b/relu_pool_proj
I0403 15:05:27.381767 14097 net.cpp:91] Creating Layer inception_5b/relu_pool_proj
I0403 15:05:27.381783 14097 net.cpp:425] inception_5b/relu_pool_proj <- inception_5b/pool_proj
I0403 15:05:27.381803 14097 net.cpp:386] inception_5b/relu_pool_proj -> inception_5b/pool_proj (in-place)
I0403 15:05:27.382109 14097 net.cpp:141] Setting up inception_5b/relu_pool_proj
I0403 15:05:27.382138 14097 net.cpp:148] Top shape: 24 128 7 7 (150528)
I0403 15:05:27.382154 14097 net.cpp:156] Memory required for data: 1341047328
I0403 15:05:27.382169 14097 layer_factory.hpp:77] Creating layer inception_5b/output
I0403 15:05:27.382186 14097 net.cpp:91] Creating Layer inception_5b/output
I0403 15:05:27.382218 14097 net.cpp:425] inception_5b/output <- inception_5b/1x1
I0403 15:05:27.382236 14097 net.cpp:425] inception_5b/output <- inception_5b/3x3
I0403 15:05:27.382252 14097 net.cpp:425] inception_5b/output <- inception_5b/5x5
I0403 15:05:27.382269 14097 net.cpp:425] inception_5b/output <- inception_5b/pool_proj
I0403 15:05:27.382288 14097 net.cpp:399] inception_5b/output -> inception_5b/output
I0403 15:05:27.382342 14097 net.cpp:141] Setting up inception_5b/output
I0403 15:05:27.382366 14097 net.cpp:148] Top shape: 24 1024 7 7 (1204224)
I0403 15:05:27.382380 14097 net.cpp:156] Memory required for data: 1345864224
I0403 15:05:27.382395 14097 layer_factory.hpp:77] Creating layer pool5/7x7_s1
I0403 15:05:27.382416 14097 net.cpp:91] Creating Layer pool5/7x7_s1
I0403 15:05:27.382433 14097 net.cpp:425] pool5/7x7_s1 <- inception_5b/output
I0403 15:05:27.382452 14097 net.cpp:399] pool5/7x7_s1 -> pool5/7x7_s1
I0403 15:05:27.382683 14097 net.cpp:141] Setting up pool5/7x7_s1
I0403 15:05:27.382709 14097 net.cpp:148] Top shape: 24 1024 1 1 (24576)
I0403 15:05:27.382725 14097 net.cpp:156] Memory required for data: 1345962528
I0403 15:05:27.382740 14097 layer_factory.hpp:77] Creating layer pool5/drop_7x7_s1
I0403 15:05:27.382757 14097 net.cpp:91] Creating Layer pool5/drop_7x7_s1
I0403 15:05:27.382772 14097 net.cpp:425] pool5/drop_7x7_s1 <- pool5/7x7_s1
I0403 15:05:27.382792 14097 net.cpp:386] pool5/drop_7x7_s1 -> pool5/7x7_s1 (in-place)
I0403 15:05:27.382843 14097 net.cpp:141] Setting up pool5/drop_7x7_s1
I0403 15:05:27.382870 14097 net.cpp:148] Top shape: 24 1024 1 1 (24576)
I0403 15:05:27.382885 14097 net.cpp:156] Memory required for data: 1346060832
I0403 15:05:27.382900 14097 layer_factory.hpp:77] Creating layer loss3/classifier_plantvillage
I0403 15:05:27.382920 14097 net.cpp:91] Creating Layer loss3/classifier_plantvillage
I0403 15:05:27.382936 14097 net.cpp:425] loss3/classifier_plantvillage <- pool5/7x7_s1
I0403 15:05:27.382957 14097 net.cpp:399] loss3/classifier_plantvillage -> loss3/classifier_plantvillage
I0403 15:05:27.383397 14097 net.cpp:141] Setting up loss3/classifier_plantvillage
I0403 15:05:27.383426 14097 net.cpp:148] Top shape: 24 38 (912)
I0403 15:05:27.383441 14097 net.cpp:156] Memory required for data: 1346064480
I0403 15:05:27.383460 14097 layer_factory.hpp:77] Creating layer loss3/classifier_plantvillage_loss3/classifier_plantvillage_0_split
I0403 15:05:27.383479 14097 net.cpp:91] Creating Layer loss3/classifier_plantvillage_loss3/classifier_plantvillage_0_split
I0403 15:05:27.383494 14097 net.cpp:425] loss3/classifier_plantvillage_loss3/classifier_plantvillage_0_split <- loss3/classifier_plantvillage
I0403 15:05:27.383512 14097 net.cpp:399] loss3/classifier_plantvillage_loss3/classifier_plantvillage_0_split -> loss3/classifier_plantvillage_loss3/classifier_plantvillage_0_split_0
I0403 15:05:27.383533 14097 net.cpp:399] loss3/classifier_plantvillage_loss3/classifier_plantvillage_0_split -> loss3/classifier_plantvillage_loss3/classifier_plantvillage_0_split_1
I0403 15:05:27.383560 14097 net.cpp:399] loss3/classifier_plantvillage_loss3/classifier_plantvillage_0_split -> loss3/classifier_plantvillage_loss3/classifier_plantvillage_0_split_2
I0403 15:05:27.383582 14097 net.cpp:399] loss3/classifier_plantvillage_loss3/classifier_plantvillage_0_split -> loss3/classifier_plantvillage_loss3/classifier_plantvillage_0_split_3
I0403 15:05:27.383690 14097 net.cpp:141] Setting up loss3/classifier_plantvillage_loss3/classifier_plantvillage_0_split
I0403 15:05:27.383714 14097 net.cpp:148] Top shape: 24 38 (912)
I0403 15:05:27.383731 14097 net.cpp:148] Top shape: 24 38 (912)
I0403 15:05:27.383746 14097 net.cpp:148] Top shape: 24 38 (912)
I0403 15:05:27.383761 14097 net.cpp:148] Top shape: 24 38 (912)
I0403 15:05:27.383775 14097 net.cpp:156] Memory required for data: 1346079072
I0403 15:05:27.383790 14097 layer_factory.hpp:77] Creating layer loss1/loss
I0403 15:05:27.383811 14097 net.cpp:91] Creating Layer loss1/loss
I0403 15:05:27.383828 14097 net.cpp:425] loss1/loss <- loss1/classifier_plantvillage_loss1/classifier_plantvillage_0_split_0
I0403 15:05:27.383862 14097 net.cpp:425] loss1/loss <- label_data_1_split_0
…
