…
I0403 15:24:37.361464 14790 net.cpp:313] The NetState phase (1) differed from the phase (0) specified by a rule in layer data
I0403 15:24:37.362618 14790 net.cpp:49] Initializing net from parameters: 
state {
  phase: TEST
}
layer {
  name: "data"
  type: "Data"
  top: "data"
  top: "label"
  include {
    phase: TEST
  }
  transform_param {
    mirror: false
    crop_size: 224
    mean_file: "/home/mohanty/data/final_dataset/lmdb/color-50-50/mean.binaryproto"
  }
  data_param {
    source: "/home/mohanty/data/final_dataset/lmdb/color-50-50/test_db"
    batch_size: 24
    backend: LMDB
  }
}
layer {
  name: "conv1/7x7_s2"
  type: "Convolution"
  bottom: "data"
  top: "conv1/7x7_s2"
  param {
    lr_mult: 1
    decay_mult: 1
  }
  param {
    lr_mult: 2
    decay_mult: 0
  }
  convolution_param {
    num_output: 64
    pad: 3
    kernel_size: 7
    stride: 2
    weight_filler {
      type: "xavier"
      std: 0.1
    }
    bias_filler {
      type: "constant"
      value: 0.2
    }
  }
}
layer {
  name: "conv1/relu_7x7"
  type: "ReLU"
  bottom: "conv1/7x7_s2"
  top: "conv1/7x7_s2"
}
layer {
  name: "pool1/3x3_s2"
  type: "Pooling"
  bottom: "conv1/7x7_s2"
  top: "pool1/3x3_s2"
  pooling_param {
    pool: MAX
    kernel_size: 3
    stride: 2
  }
}
layer {
  name: "pool1/norm1"
  type: "LRN"
  bottom: "pool1/3x3_s2"
  top: "pool1/norm1"
  lrn_param {
    local_size: 5
    alpha: 0.0001
    beta: 0.75
  }
}
layer {
  name: "conv2/3x3_reduce"
  type: "Convolution"
  bottom: "pool1/norm1"
  top: "conv2/3x3_reduce"
  param {
    lr_mult: 1
    decay_mult: 1
  }
  param {
    lr_mult: 2
    decay_mult: 0
  }
  convolution_param {
    num_output: 64
    kernel_size: 1
    weight_filler {
      type: "xavier"
      std: 0.1
    }
    bias_filler {
      type: "constant"
      value: 0.2
    }
  }
}
layer {
  name: "conv2/relu_3x3_reduce"
  type: "ReLU"
  bottom: "conv2/3x3_reduce"
  top: "conv2/3x3_reduce"
}
layer {
  name: "conv2/3x3"
  type: "Convolution"
  bottom: "conv2/3x3_reduce"
  top: "conv2/3x3"
  param {
    lr_mult: 1
    decay_mult: 1
  }
  param {
    lr_mult: 2
    decay_mult: 0
  }
  convolution_param {
    num_output: 192
    pad: 1
    kernel_size: 3
    weight_filler {
      type: "xavier"
      std: 0.03
    }
    bias_filler {
      type: "constant"
      value: 0.2
    }
  }
}
layer {
  name: "conv2/relu_3x3"
  type: "ReLU"
  bottom: "conv2/3x3"
  top: "conv2/3x3"
}
layer {
  name: "conv2/norm2"
  type: "LRN"
  bottom: "conv2/3x3"
  top: "conv2/norm2"
  lrn_param {
    local_size: 5
    alpha: 0.0001
    beta: 0.75
  }
}
layer {
  name: "pool2/3x3_s2"
  type: "Pooling"
  bottom: "conv2/norm2"
  top: "pool2/3x3_s2"
  pooling_param {
    pool: MAX
    kernel_size: 3
    stride: 2
  }
}
layer {
  name: "inception_3a/1x1"
  type: "Convolution"
  bottom: "pool2/3x3_s2"
  top: "inception_3a/1x1"
  param {
    lr_mult: 1
    decay_mult: 1
  }
  param {
    lr_mult: 2
    decay_mult: 0
  }
  convolution_param {
    num_output: 64
    kernel_size: 1
    weight_filler {
      type: "xavier"
      std: 0.03
    }
    bias_filler {
      type: "constant"
      value: 0.2
    }
  }
}
layer {
  name: "inception_3a/relu_1x1"
  type: "ReLU"
  bottom: "inception_3a/1x1"
  top: "inception_3a/1x1"
}
layer {
  name: "inception_3a/3x3_reduce"
  type: "Convolution"
  bottom: "pool2/3x3_s2"
  top: "inception_3a/3x3_reduce"
  param {
    lr_mult: 1
    decay_mult: 1
  }
  param {
    lr_mult: 2
    decay_mult: 0
  }
  convolution_param {
    num_output: 96
    kernel_size: 1
    weight_filler {
      type: "xavier"
      std: 0.09
    }
    bias_filler {
      type: "constant"
      value: 0.2
    }
  }
}
layer {
  name: "inception_3a/relu_3x3_reduce"
  type: "ReLU"
  bottom: "inception_3a/3x3_reduce"
  top: "inception_3a/3x3_reduce"
}
layer {
  name: "inception_3a/3x3"
  type: "Convolution"
  bottom: "inception_3a/3x3_reduce"
  top: "inception_3a/3x3"
  param {
    lr_mult: 1
    decay_mult: 1
  }
  param {
    lr_mult: 2
    decay_mult: 0
  }
  convolution_param {
    num_output: 128
    pad: 1
    kernel_size: 3
    weight_filler {
      type: "xavier"
      std: 0.03
    }
    bias_filler {
      type: "constant"
      value: 0.2
    }
  }
}
layer {
  name: "inception_3a/relu_3x3"
  type: "ReLU"
  bottom: "inception_3a/3x3"
  top: "inception_3a/3x3"
}
layer {
  name: "inception_3a/5x5_reduce"
  type: "Convolution"
  bottom: "pool2/3x3_s2"
  top: "inception_3a/5x5_reduce"
  param {
    lr_mult: 1
    decay_mult: 1
  }
  param {
    lr_mult: 2
    decay_mult: 0
  }
  convolution_param {
    num_output: 16
    kernel_size: 1
    weight_filler {
      type: "xavier"
      std: 0.2
    }
    bias_filler {
      type: "constant"
      value: 0.2
    }
  }
}
layer {
  name: "inception_3a/relu_5x5_reduce"
  type: "ReLU"
  bottom: "inception_3a/5x5_reduce"
  top: "inception_3a/5x5_reduce"
}
layer {
  name: "inception_3a/5x5"
  type: "Convolution"
  bottom: "inception_3a/5x5_reduce"
  top: "inception_3a/5x5"
  param {
    lr_mult: 1
    decay_mult: 1
  }
  param {
    lr_mult: 2
    decay_mult: 0
  }
  convolution_param {
    num_output: 32
    pad: 2
    kernel_size: 5
    weight_filler {
      type: "xavier"
      std: 0.03
    }
    bias_filler {
      type: "constant"
      value: 0.2
    }
  }
}
layer {
  name: "inception_3a/relu_5x5"
  type: "ReLU"
  bottom: "inception_3a/5x5"
  top: "inception_3a/5x5"
}
layer {
  name: "inception_3a/pool"
  type: "Pooling"
  bottom: "pool2/3x3_s2"
  top: "inception_3a/pool"
  pooling_param {
    pool: MAX
    kernel_size: 3
    stride: 1
    pad: 1
  }
}
layer {
  name: "inception_3a/pool_proj"
  type: "Convolution"
  bottom: "inception_3a/pool"
  top: "inception_3a/pool_proj"
  param {
    lr_mult: 1
    decay_mult: 1
  }
  param {
    lr_mult: 2
    decay_mult: 0
  }
  convolution_param {
    num_output: 32
    kernel_size: 1
    weight_filler {
      type: "xavier"
      std: 0.1
    }
    bias_filler {
      type: "constant"
      value: 0.2
    }
  }
}
layer {
  name: "inception_3a/relu_pool_proj"
  type: "ReLU"
  bottom: "inception_3a/pool_proj"
  top: "inception_3a/pool_proj"
}
layer {
  name: "inception_3a/output"
  type: "Concat"
  bottom: "inception_3a/1x1"
  bottom: "inception_3a/3x3"
  bottom: "inception_3a/5x5"
  bottom: "inception_3a/pool_proj"
  top: "inception_3a/output"
}
layer {
  name: "inception_3b/1x1"
  type: "Convolution"
  bottom: "inception_3a/output"
  top: "inception_3b/1x1"
  param {
    lr_mult: 1
    decay_mult: 1
  }
  param {
    lr_mult: 2
    decay_mult: 0
  }
  convolution_param {
    num_output: 128
    kernel_size: 1
    weight_filler {
      type: "xavier"
      std: 0.03
    }
    bias_filler {
      type: "constant"
      value: 0.2
    }
  }
}
layer {
  name: "inception_3b/relu_1x1"
  type: "ReLU"
  bottom: "inception_3b/1x1"
  top: "inception_3b/1x1"
}
layer {
  name: "inception_3b/3x3_reduce"
  type: "Convolution"
  bottom: "inception_3a/output"
  top: "inception_3b/3x3_reduce"
  param {
    lr_mult: 1
    decay_mult: 1
  }
  param {
    lr_mult: 2
    decay_mult: 0
  }
  convolution_param {
    num_output: 128
    kernel_size: 1
    weight_filler {
      type: "xavier"
      std: 0.09
    }
    bias_filler {
      type: "constant"
      value: 0.2
    }
  }
}
layer {
  name: "inception_3b/relu_3x3_reduce"
  type: "ReLU"
  bottom: "inception_3b/3x3_reduce"
  top: "inception_3b/3x3_reduce"
}
layer {
  name: "inception_3b/3x3"
  type: "Convolution"
  bottom: "inception_3b/3x3_reduce"
  top: "inception_3b/3x3"
  param {
    lr_mult: 1
    decay_mult: 1
  }
  param {
    lr_mult: 2
    decay_mult: 0
  }
  convolution_param {
    num_output: 192
    pad: 1
    kernel_size: 3
    weight_filler {
      type: "xavier"
      std: 0.03
    }
    bias_filler {
      type: "constant"
      value: 0.2
    }
  }
}
layer {
  name: "inception_3b/relu_3x3"
  type: "ReLU"
  bottom: "inception_3b/3x3"
  top: "inception_3b/3x3"
}
layer {
  name: "inception_3b/5x5_reduce"
  type: "Convolution"
  bottom: "inception_3a/output"
  top: "inception_3b/5x5_reduce"
  param {
    lr_mult: 1
    decay_mult: 1
  }
  param {
    lr_mult: 2
    decay_mult: 0
  }
  convolution_param {
    num_output: 32
    kernel_size: 1
    weight_filler {
      type: "xavier"
      std: 0.2
    }
    bias_filler {
      type: "constant"
      value: 0.2
    }
  }
}
layer {
  name: "inception_3b/relu_5x5_reduce"
  type: "ReLU"
  bottom: "inception_3b/5x5_reduce"
  top: "inception_3b/5x5_reduce"
}
layer {
  name: "inception_3b/5x5"
  type: "Convolution"
  bottom: "inception_3b/5x5_reduce"
  top: "inception_3b/5x5"
  param {
    lr_mult: 1
    decay_mult: 1
  }
  param {
    lr_mult: 2
    decay_mult: 0
  }
  convolution_param {
    num_output: 96
    pad: 2
    kernel_size: 5
    weight_filler {
      type: "xavier"
      std: 0.03
    }
    bias_filler {
      type: "constant"
      value: 0.2
    }
  }
}
layer {
  name: "inception_3b/relu_5x5"
  type: "ReLU"
  bottom: "inception_3b/5x5"
  top: "inception_3b/5x5"
}
layer {
  name: "inception_3b/pool"
  type: "Pooling"
  bottom: "inception_3a/output"
  top: "inception_3b/pool"
  pooling_param {
    pool: MAX
    kernel_size: 3
    stride: 1
    pad: 1
  }
}
layer {
  name: "inception_3b/pool_proj"
  type: "Convolution"
  bottom: "inception_3b/pool"
  top: "inception_3b/pool_proj"
  param {
    lr_mult: 1
    decay_mult: 1
  }
  param {
    lr_mult: 2
    decay_mult: 0
  }
  convolution_param {
    num_output: 64
    kernel_size: 1
    weight_filler {
      type: "xavier"
      std: 0.1
    }
    bias_filler {
      type: "constant"
      value: 0.2
    }
  }
}
layer {
  name: "inception_3b/relu_pool_proj"
  type: "ReLU"
  bottom: "inception_3b/pool_proj"
  top: "inception_3b/pool_proj"
}
layer {
  name: "inception_3b/output"
  type: "Concat"
  bottom: "inception_3b/1x1"
  bottom: "inception_3b/3x3"
  bottom: "inception_3b/5x5"
  bottom: "inception_3b/pool_proj"
  top: "inception_3b/output"
}
layer {
  name: "pool3/3x3_s2"
  type: "Pooling"
  bottom: "inception_3b/output"
  top: "pool3/3x3_s2"
  pooling_param {
    pool: MAX
    kernel_size: 3
    stride: 2
  }
}
layer {
  name: "inception_4a/1x1"
  type: "Convolution"
  bottom: "pool3/3x3_s2"
  top: "inception_4a/1x1"
  param {
    lr_mult: 1
    decay_mult: 1
  }
  param {
    lr_mult: 2
    decay_mult: 0
  }
  convolution_param {
    num_output: 192
    kernel_size: 1
    weight_filler {
      type: "xavier"
      std: 0.03
    }
    bias_filler {
      type: "constant"
      value: 0.2
    }
  }
}
layer {
  name: "inception_4a/relu_1x1"
  type: "ReLU"
  bottom: "inception_4a/1x1"
  top: "inception_4a/1x1"
}
layer {
  name: "inception_4a/3x3_reduce"
  type: "Convolution"
  bottom: "pool3/3x3_s2"
  top: "inception_4a/3x3_reduce"
  param {
    lr_mult: 1
    decay_mult: 1
  }
  param {
    lr_mult: 2
    decay_mult: 0
  }
  convolution_param {
    num_output: 96
    kernel_size: 1
    weight_filler {
      type: "xavier"
      std: 0.09
    }
    bias_filler {
      type: "constant"
      value: 0.2
    }
  }
}
layer {
  name: "inception_4a/relu_3x3_reduce"
  type: "ReLU"
  bottom: "inception_4a/3x3_reduce"
  top: "inception_4a/3x3_reduce"
}
layer {
  name: "inception_4a/3x3"
  type: "Convolution"
  bottom: "inception_4a/3x3_reduce"
  top: "inception_4a/3x3"
  param {
    lr_mult: 1
    decay_mult: 1
  }
  param {
    lr_mult: 2
    decay_mult: 0
  }
  convolution_param {
    num_output: 208
    pad: 1
    kernel_size: 3
    weight_filler {
      type: "xavier"
      std: 0.03
    }
    bias_filler {
      type: "constant"
      value: 0.2
    }
  }
}
layer {
  name: "inception_4a/relu_3x3"
  type: "ReLU"
  bottom: "inception_4a/3x3"
  top: "inception_4a/3x3"
}
layer {
  name: "inception_4a/5x5_reduce"
  type: "Convolution"
  bottom: "pool3/3x3_s2"
  top: "inception_4a/5x5_reduce"
  param {
    lr_mult: 1
    decay_mult: 1
  }
  param {
    lr_mult: 2
    decay_mult: 0
  }
  convolution_param {
    num_output: 16
    kernel_size: 1
    weight_filler {
      type: "xavier"
      std: 0.2
    }
    bias_filler {
      type: "constant"
      value: 0.2
    }
  }
}
layer {
  name: "inception_4a/relu_5x5_reduce"
  type: "ReLU"
  bottom: "inception_4a/5x5_reduce"
  top: "inception_4a/5x5_reduce"
}
layer {
  name: "inception_4a/5x5"
  type: "Convolution"
  bottom: "inception_4a/5x5_reduce"
  top: "inception_4a/5x5"
  param {
    lr_mult: 1
    decay_mult: 1
  }
  param {
    lr_mult: 2
    decay_mult: 0
  }
  convolution_param {
    num_output: 48
    pad: 2
    kernel_size: 5
    weight_filler {
      type: "xavier"
      std: 0.03
    }
    bias_filler {
      type: "constant"
      value: 0.2
    }
  }
}
layer {
  name: "inception_4a/relu_5x5"
  type: "ReLU"
  bottom: "inception_4a/5x5"
  top: "inception_4a/5x5"
}
layer {
  name: "inception_4a/pool"
  type: "Pooling"
  bottom: "pool3/3x3_s2"
  top: "inception_4a/pool"
  pooling_param {
    pool: MAX
    kernel_size: 3
    stride: 1
    pad: 1
  }
}
layer {
  name: "inception_4a/pool_proj"
  type: "Convolution"
  bottom: "inception_4a/pool"
  top: "inception_4a/pool_proj"
  param {
    lr_mult: 1
    decay_mult: 1
  }
  param {
    lr_mult: 2
    decay_mult: 0
  }
  convolution_param {
    num_output: 64
    kernel_size: 1
    weight_filler {
      type: "xavier"
      std: 0.1
    }
    bias_filler {
      type: "constant"
      value: 0.2
    }
  }
}
layer {
  name: "inception_4a/relu_pool_proj"
  type: "ReLU"
  bottom: "inception_4a/pool_proj"
  top: "inception_4a/pool_proj"
}
layer {
  name: "inception_4a/output"
  type: "Concat"
  bottom: "inception_4a/1x1"
  bottom: "inception_4a/3x3"
  bottom: "inception_4a/5x5"
  bottom: "inception_4a/pool_proj"
  top: "inception_4a/output"
}
layer {
  name: "loss1/ave_pool"
  type: "Pooling"
  bottom: "inception_4a/output"
  top: "loss1/ave_pool"
  pooling_param {
    pool: AVE
    kernel_size: 5
    stride: 3
  }
}
layer {
  name: "loss1/conv"
  type: "Convolution"
  bottom: "loss1/ave_pool"
  top: "loss1/conv"
  param {
    lr_mult: 1
    decay_mult: 1
  }
  param {
    lr_mult: 2
    decay_mult: 0
  }
  convolution_param {
    num_output: 128
    kernel_size: 1
    weight_filler {
      type: "xavier"
      std: 0.08
    }
    bias_filler {
      type: "constant"
      value: 0.2
    }
  }
}
layer {
  name: "loss1/relu_conv"
  type: "ReLU"
  bottom: "loss1/conv"
  top: "loss1/conv"
}
layer {
  name: "loss1/fc"
  type: "InnerProduct"
  bottom: "loss1/conv"
  top: "loss1/fc"
  param {
    lr_mult: 1
    decay_mult: 1
  }
  param {
    lr_mult: 2
    decay_mult: 0
  }
  inner_product_param {
    num_output: 1024
    weight_filler {
      type: "xavier"
      std: 0.02
    }
    bias_filler {
      type: "constant"
      value: 0.2
    }
  }
}
layer {
  name: "loss1/relu_fc"
  type: "ReLU"
  bottom: "loss1/fc"
  top: "loss1/fc"
}
layer {
  name: "loss1/drop_fc"
  type: "Dropout"
  bottom: "loss1/fc"
  top: "loss1/fc"
  dropout_param {
    dropout_ratio: 0.7
  }
}
layer {
  name: "loss1/classifier_plantvillage"
  type: "InnerProduct"
  bottom: "loss1/fc"
  top: "loss1/classifier_plantvillage"
  param {
    lr_mult: 1
    decay_mult: 1
  }
  param {
    lr_mult: 2
    decay_mult: 0
  }
  inner_product_param {
    num_output: 38
    weight_filler {
      type: "xavier"
      std: 0.0009765625
    }
    bias_filler {
      type: "constant"
      value: 0
    }
  }
}
layer {
  name: "inception_4b/1x1"
  type: "Convolution"
  bottom: "inception_4a/output"
  top: "inception_4b/1x1"
  param {
    lr_mult: 1
    decay_mult: 1
  }
  param {
    lr_mult: 2
    decay_mult: 0
  }
  convolution_param {
    num_output: 160
    kernel_size: 1
    weight_filler {
      type: "xavier"
      std: 0.03
    }
    bias_filler {
      type: "constant"
      value: 0.2
    }
  }
}
layer {
  name: "inception_4b/relu_1x1"
  type: "ReLU"
  bottom: "inception_4b/1x1"
  top: "inception_4b/1x1"
}
layer {
  name: "inception_4b/3x3_reduce"
  type: "Convolution"
  bottom: "inception_4a/output"
  top: "inception_4b/3x3_reduce"
  param {
    lr_mult: 1
    decay_mult: 1
  }
  param {
    lr_mult: 2
    decay_mult: 0
  }
  convolution_param {
    num_output: 112
    kernel_size: 1
    weight_filler {
      type: "xavier"
      std: 0.09
    }
    bias_filler {
      type: "constant"
      value: 0.2
    }
  }
}
layer {
  name: "inception_4b/relu_3x3_reduce"
  type: "ReLU"
  bottom: "inception_4b/3x3_reduce"
  top: "inception_4b/3x3_reduce"
}
layer {
  name: "inception_4b/3x3"
  type: "Convolution"
  bottom: "inception_4b/3x3_reduce"
  top: "inception_4b/3x3"
  param {
    lr_mult: 1
    decay_mult: 1
  }
  param {
    lr_mult: 2
    decay_mult: 0
  }
  convolution_param {
    num_output: 224
    pad: 1
    kernel_size: 3
    weight_filler {
      type: "xavier"
      std: 0.03
    }
    bias_filler {
      type: "constant"
      value: 0.2
    }
  }
}
layer {
  name: "inception_4b/relu_3x3"
  type: "ReLU"
  bottom: "inception_4b/3x3"
  top: "inception_4b/3x3"
}
layer {
  name: "inception_4b/5x5_reduce"
  type: "Convolution"
  bottom: "inception_4a/output"
  top: "inception_4b/5x5_reduce"
  param {
    lr_mult: 1
    decay_mult: 1
  }
  param {
    lr_mult: 2
    decay_mult: 0
  }
  convolution_param {
    num_output: 24
    kernel_size: 1
    weight_filler {
      type: "xavier"
      std: 0.2
    }
    bias_filler {
      type: "constant"
      value: 0.2
    }
  }
}
layer {
  name: "inception_4b/relu_5x5_reduce"
  type: "ReLU"
  bottom: "inception_4b/5x5_reduce"
  top: "inception_4b/5x5_reduce"
}
layer {
  name: "inception_4b/5x5"
  type: "Convolution"
  bottom: "inception_4b/5x5_reduce"
  top: "inception_4b/5x5"
  param {
    lr_mult: 1
    decay_mult: 1
  }
  param {
    lr_mult: 2
    decay_mult: 0
  }
  convolution_param {
    num_output: 64
    pad: 2
    kernel_size: 5
    weight_filler {
      type: "xavier"
      std: 0.03
    }
    bias_filler {
      type: "constant"
      value: 0.2
    }
  }
}
layer {
  name: "inception_4b/relu_5x5"
  type: "ReLU"
  bottom: "inception_4b/5x5"
  top: "inception_4b/5x5"
}
layer {
  name: "inception_4b/pool"
  type: "Pooling"
  bottom: "inception_4a/output"
  top: "inception_4b/pool"
  pooling_param {
    pool: MAX
    kernel_size: 3
    stride: 1
    pad: 1
  }
}
layer {
  name: "inception_4b/pool_proj"
  type: "Convolution"
  bottom: "inception_4b/pool"
  top: "inception_4b/pool_proj"
  param {
    lr_mult: 1
    decay_mult: 1
  }
  param {
    lr_mult: 2
    decay_mult: 0
  }
  convolution_param {
    num_output: 64
    kernel_size: 1
    weight_filler {
      type: "xavier"
      std: 0.1
    }
    bias_filler {
      type: "constant"
      value: 0.2
    }
  }
}
layer {
  name: "inception_4b/relu_pool_proj"
  type: "ReLU"
  bottom: "inception_4b/pool_proj"
  top: "inception_4b/pool_proj"
}
layer {
  name: "inception_4b/output"
  type: "Concat"
  bottom: "inception_4b/1x1"
  bottom: "inception_4b/3x3"
  bottom: "inception_4b/5x5"
  bottom: "inception_4b/pool_proj"
  top: "inception_4b/output"
}
layer {
  name: "inception_4c/1x1"
  type: "Convolution"
  bottom: "inception_4b/output"
  top: "inception_4c/1x1"
  param {
    lr_mult: 1
    decay_mult: 1
  }
  param {
    lr_mult: 2
    decay_mult: 0
  }
  convolution_param {
    num_output: 128
    kernel_size: 1
    weight_filler {
      type: "xavier"
      std: 0.03
    }
    bias_filler {
      type: "constant"
      value: 0.2
    }
  }
}
layer {
  name: "inception_4c/relu_1x1"
  type: "ReLU"
  bottom: "inception_4c/1x1"
  top: "inception_4c/1x1"
}
layer {
  name: "inception_4c/3x3_reduce"
  type: "Convolution"
  bottom: "inception_4b/output"
  top: "inception_4c/3x3_reduce"
  param {
    lr_mult: 1
    decay_mult: 1
  }
  param {
    lr_mult: 2
    decay_mult: 0
  }
  convolution_param {
    num_output: 128
    kernel_size: 1
    weight_filler {
      type: "xavier"
      std: 0.09
    }
    bias_filler {
      type: "constant"
      value: 0.2
    }
  }
}
layer {
  name: "inception_4c/relu_3x3_reduce"
  type: "ReLU"
  bottom: "inception_4c/3x3_reduce"
  top: "inception_4c/3x3_reduce"
}
layer {
  name: "inception_4c/3x3"
  type: "Convolution"
  bottom: "inception_4c/3x3_reduce"
  top: "inception_4c/3x3"
  param {
    lr_mult: 1
    decay_mult: 1
  }
  param {
    lr_mult: 2
    decay_mult: 0
  }
  convolution_param {
    num_output: 256
    pad: 1
    kernel_size: 3
    weight_filler {
      type: "xavier"
      std: 0.03
    }
    bias_filler {
      type: "constant"
      value: 0.2
    }
  }
}
layer {
  name: "inception_4c/relu_3x3"
  type: "ReLU"
  bottom: "inception_4c/3x3"
  top: "inception_4c/3x3"
}
layer {
  name: "inception_4c/5x5_reduce"
  type: "Convolution"
  bottom: "inception_4b/output"
  top: "inception_4c/5x5_reduce"
  param {
    lr_mult: 1
    decay_mult: 1
  }
  param {
    lr_mult: 2
    decay_mult: 0
  }
  convolution_param {
    num_output: 24
    kernel_size: 1
    weight_filler {
      type: "xavier"
      std: 0.2
    }
    bias_filler {
      type: "constant"
      value: 0.2
    }
  }
}
layer {
  name: "inception_4c/relu_5x5_reduce"
  type: "ReLU"
  bottom: "inception_4c/5x5_reduce"
  top: "inception_4c/5x5_reduce"
}
layer {
  name: "inception_4c/5x5"
  type: "Convolution"
  bottom: "inception_4c/5x5_reduce"
  top: "inception_4c/5x5"
  param {
    lr_mult: 1
    decay_mult: 1
  }
  param {
    lr_mult: 2
    decay_mult: 0
  }
  convolution_param {
    num_output: 64
    pad: 2
    kernel_size: 5
    weight_filler {
      type: "xavier"
      std: 0.03
    }
    bias_filler {
      type: "constant"
      value: 0.2
    }
  }
}
layer {
  name: "inception_4c/relu_5x5"
  type: "ReLU"
  bottom: "inception_4c/5x5"
  top: "inception_4c/5x5"
}
layer {
  name: "inception_4c/pool"
  type: "Pooling"
  bottom: "inception_4b/output"
  top: "inception_4c/pool"
  pooling_param {
    pool: MAX
    kernel_size: 3
    stride: 1
    pad: 1
  }
}
layer {
  name: "inception_4c/pool_proj"
  type: "Convolution"
  bottom: "inception_4c/pool"
  top: "inception_4c/pool_proj"
  param {
    lr_mult: 1
    decay_mult: 1
  }
  param {
    lr_mult: 2
    decay_mult: 0
  }
  convolution_param {
    num_output: 64
    kernel_size: 1
    weight_filler {
      type: "xavier"
      std: 0.1
    }
    bias_filler {
      type: "constant"
      value: 0.2
    }
  }
}
layer {
  name: "inception_4c/relu_pool_proj"
  type: "ReLU"
  bottom: "inception_4c/pool_proj"
  top: "inception_4c/pool_proj"
}
layer {
  name: "inception_4c/output"
  type: "Concat"
  bottom: "inception_4c/1x1"
  bottom: "inception_4c/3x3"
  bottom: "inception_4c/5x5"
  bottom: "inception_4c/pool_proj"
  top: "inception_4c/output"
}
layer {
  name: "inception_4d/1x1"
  type: "Convolution"
  bottom: "inception_4c/output"
  top: "inception_4d/1x1"
  param {
    lr_mult: 1
    decay_mult: 1
  }
  param {
    lr_mult: 2
    decay_mult: 0
  }
  convolution_param {
    num_output: 112
    kernel_size: 1
    weight_filler {
      type: "xavier"
      std: 0.03
    }
    bias_filler {
      type: "constant"
      value: 0.2
    }
  }
}
layer {
  name: "inception_4d/relu_1x1"
  type: "ReLU"
  bottom: "inception_4d/1x1"
  top: "inception_4d/1x1"
}
layer {
  name: "inception_4d/3x3_reduce"
  type: "Convolution"
  bottom: "inception_4c/output"
  top: "inception_4d/3x3_reduce"
  param {
    lr_mult: 1
    decay_mult: 1
  }
  param {
    lr_mult: 2
    decay_mult: 0
  }
  convolution_param {
    num_output: 144
    kernel_size: 1
    weight_filler {
      type: "xavier"
      std: 0.09
    }
    bias_filler {
      type: "constant"
      value: 0.2
    }
  }
}
layer {
  name: "inception_4d/relu_3x3_reduce"
  type: "ReLU"
  bottom: "inception_4d/3x3_reduce"
  top: "inception_4d/3x3_reduce"
}
layer {
  name: "inception_4d/3x3"
  type: "Convolution"
  bottom: "inception_4d/3x3_reduce"
  top: "inception_4d/3x3"
  param {
    lr_mult: 1
    decay_mult: 1
  }
  param {
    lr_mult: 2
    decay_mult: 0
  }
  convolution_param {
    num_output: 288
    pad: 1
    kernel_size: 3
    weight_filler {
      type: "xavier"
      std: 0.03
    }
    bias_filler {
      type: "constant"
      value: 0.2
    }
  }
}
layer {
  name: "inception_4d/relu_3x3"
  type: "ReLU"
  bottom: "inception_4d/3x3"
  top: "inception_4d/3x3"
}
layer {
  name: "inception_4d/5x5_reduce"
  type: "Convolution"
  bottom: "inception_4c/output"
  top: "inception_4d/5x5_reduce"
  param {
    lr_mult: 1
    decay_mult: 1
  }
  param {
    lr_mult: 2
    decay_mult: 0
  }
  convolution_param {
    num_output: 32
    kernel_size: 1
    weight_filler {
      type: "xavier"
      std: 0.2
    }
    bias_filler {
      type: "constant"
      value: 0.2
    }
  }
}
layer {
  name: "inception_4d/relu_5x5_reduce"
  type: "ReLU"
  bottom: "inception_4d/5x5_reduce"
  top: "inception_4d/5x5_reduce"
}
layer {
  name: "inception_4d/5x5"
  type: "Convolution"
  bottom: "inception_4d/5x5_reduce"
  top: "inception_4d/5x5"
  param {
    lr_mult: 1
    decay_mult: 1
  }
  param {
    lr_mult: 2
    decay_mult: 0
  }
  convolution_param {
    num_output: 64
    pad: 2
    kernel_size: 5
    weight_filler {
      type: "xavier"
      std: 0.03
    }
    bias_filler {
      type: "constant"
      value: 0.2
    }
  }
}
layer {
  name: "inception_4d/relu_5x5"
  type: "ReLU"
  bottom: "inception_4d/5x5"
  top: "inception_4d/5x5"
}
layer {
  name: "inception_4d/pool"
  type: "Pooling"
  bottom: "inception_4c/output"
  top: "inception_4d/pool"
  pooling_param {
    pool: MAX
    kernel_size: 3
    stride: 1
    pad: 1
  }
}
layer {
  name: "inception_4d/pool_proj"
  type: "Convolution"
  bottom: "inception_4d/pool"
  top: "inception_4d/pool_proj"
  param {
    lr_mult: 1
    decay_mult: 1
  }
  param {
    lr_mult: 2
    decay_mult: 0
  }
  convolution_param {
    num_output: 64
    kernel_size: 1
    weight_filler {
      type: "xavier"
      std: 0.1
    }
    bias_filler {
      type: "constant"
      value: 0.2
    }
  }
}
layer {
  name: "inception_4d/relu_pool_proj"
  type: "ReLU"
  bottom: "inception_4d/pool_proj"
  top: "inception_4d/pool_proj"
}
layer {
  name: "inception_4d/output"
  type: "Concat"
  bottom: "inception_4d/1x1"
  bottom: "inception_4d/3x3"
  bottom: "inception_4d/5x5"
  bottom: "inception_4d/pool_proj"
  top: "inception_4d/output"
}
layer {
  name: "loss2/ave_pool"
  type: "Pooling"
  bottom: "inception_4d/output"
  top: "loss2/ave_pool"
  pooling_param {
    pool: AVE
    kernel_size: 5
    stride: 3
  }
}
layer {
  name: "loss2/conv"
  type: "Convolution"
  bottom: "loss2/ave_pool"
  top: "loss2/conv"
  param {
    lr_mult: 1
    decay_mult: 1
  }
  param {
    lr_mult: 2
    decay_mult: 0
  }
  convolution_param {
    num_output: 128
    kernel_size: 1
    weight_filler {
      type: "xavier"
      std: 0.08
    }
    bias_filler {
      type: "constant"
      value: 0.2
    }
  }
}
layer {
  name: "loss2/relu_conv"
  type: "ReLU"
  bottom: "loss2/conv"
  top: "loss2/conv"
}
layer {
  name: "loss2/fc"
  type: "InnerProduct"
  bottom: "loss2/conv"
  top: "loss2/fc"
  param {
    lr_mult: 1
    decay_mult: 1
  }
  param {
    lr_mult: 2
    decay_mult: 0
  }
  inner_product_param {
    num_output: 1024
    weight_filler {
      type: "xavier"
      std: 0.02
    }
    bias_filler {
      type: "constant"
      value: 0.2
    }
  }
}
layer {
  name: "loss2/relu_fc"
  type: "ReLU"
  bottom: "loss2/fc"
  top: "loss2/fc"
}
layer {
  name: "loss2/drop_fc"
  type: "Dropout"
  bottom: "loss2/fc"
  top: "loss2/fc"
  dropout_param {
    dropout_ratio: 0.7
  }
}
layer {
  name: "loss2/classifier_plantvillage"
  type: "InnerProduct"
  bottom: "loss2/fc"
  top: "loss2/classifier_plantvillage"
  param {
    lr_mult: 1
    decay_mult: 1
  }
  param {
    lr_mult: 2
    decay_mult: 0
  }
  inner_product_param {
    num_output: 38
    weight_filler {
      type: "xavier"
      std: 0.0009765625
    }
    bias_filler {
      type: "constant"
      value: 0
    }
  }
}
layer {
  name: "inception_4e/1x1"
  type: "Convolution"
  bottom: "inception_4d/output"
  top: "inception_4e/1x1"
  param {
    lr_mult: 1
    decay_mult: 1
  }
  param {
    lr_mult: 2
    decay_mult: 0
  }
  convolution_param {
    num_output: 256
    kernel_size: 1
    weight_filler {
      type: "xavier"
      std: 0.03
    }
    bias_filler {
      type: "constant"
      value: 0.2
    }
  }
}
layer {
  name: "inception_4e/relu_1x1"
  type: "ReLU"
  bottom: "inception_4e/1x1"
  top: "inception_4e/1x1"
}
layer {
  name: "inception_4e/3x3_reduce"
  type: "Convolution"
  bottom: "inception_4d/output"
  top: "inception_4e/3x3_reduce"
  param {
    lr_mult: 1
    decay_mult: 1
  }
  param {
    lr_mult: 2
    decay_mult: 0
  }
  convolution_param {
    num_output: 160
    kernel_size: 1
    weight_filler {
      type: "xavier"
      std: 0.09
    }
    bias_filler {
      type: "constant"
      value: 0.2
    }
  }
}
layer {
  name: "inception_4e/relu_3x3_reduce"
  type: "ReLU"
  bottom: "inception_4e/3x3_reduce"
  top: "inception_4e/3x3_reduce"
}
layer {
  name: "inception_4e/3x3"
  type: "Convolution"
  bottom: "inception_4e/3x3_reduce"
  top: "inception_4e/3x3"
  param {
    lr_mult: 1
    decay_mult: 1
  }
  param {
    lr_mult: 2
    decay_mult: 0
  }
  convolution_param {
    num_output: 320
    pad: 1
    kernel_size: 3
    weight_filler {
      type: "xavier"
      std: 0.03
    }
    bias_filler {
      type: "constant"
      value: 0.2
    }
  }
}
layer {
  name: "inception_4e/relu_3x3"
  type: "ReLU"
  bottom: "inception_4e/3x3"
  top: "inception_4e/3x3"
}
layer {
  name: "inception_4e/5x5_reduce"
  type: "Convolution"
  bottom: "inception_4d/output"
  top: "inception_4e/5x5_reduce"
  param {
    lr_mult: 1
    decay_mult: 1
  }
  param {
    lr_mult: 2
    decay_mult: 0
  }
  convolution_param {
    num_output: 32
    kernel_size: 1
    weight_filler {
      type: "xavier"
      std: 0.2
    }
    bias_filler {
      type: "constant"
      value: 0.2
    }
  }
}
layer {
  name: "inception_4e/relu_5x5_reduce"
  type: "ReLU"
  bottom: "inception_4e/5x5_reduce"
  top: "inception_4e/5x5_reduce"
}
layer {
  name: "inception_4e/5x5"
  type: "Convolution"
  bottom: "inception_4e/5x5_reduce"
  top: "inception_4e/5x5"
  p
I0403 15:24:37.363915 14790 layer_factory.hpp:77] Creating layer data
I0403 15:24:37.364503 14790 net.cpp:91] Creating Layer data
I0403 15:24:37.364545 14790 net.cpp:399] data -> data
I0403 15:24:37.364598 14790 net.cpp:399] data -> label
I0403 15:24:37.364632 14790 data_transformer.cpp:25] Loading mean file from: /home/mohanty/data/final_dataset/lmdb/color-50-50/mean.binaryproto
I0403 15:24:37.367789 14793 db_lmdb.cpp:38] Opened lmdb /home/mohanty/data/final_dataset/lmdb/color-50-50/test_db
I0403 15:24:37.377712 14790 data_layer.cpp:41] output data size: 24,3,224,224
I0403 15:24:37.404299 14790 net.cpp:141] Setting up data
I0403 15:24:37.404376 14790 net.cpp:148] Top shape: 24 3 224 224 (3612672)
I0403 15:24:37.404399 14790 net.cpp:148] Top shape: 24 (24)
I0403 15:24:37.404414 14790 net.cpp:156] Memory required for data: 14450784
I0403 15:24:37.404443 14790 layer_factory.hpp:77] Creating layer label_data_1_split
I0403 15:24:37.404469 14790 net.cpp:91] Creating Layer label_data_1_split
I0403 15:24:37.404489 14790 net.cpp:425] label_data_1_split <- label
I0403 15:24:37.404531 14790 net.cpp:399] label_data_1_split -> label_data_1_split_0
I0403 15:24:37.404562 14790 net.cpp:399] label_data_1_split -> label_data_1_split_1
I0403 15:24:37.404584 14790 net.cpp:399] label_data_1_split -> label_data_1_split_2
I0403 15:24:37.404606 14790 net.cpp:399] label_data_1_split -> label_data_1_split_3
I0403 15:24:37.404635 14790 net.cpp:399] label_data_1_split -> label_data_1_split_4
I0403 15:24:37.404656 14790 net.cpp:399] label_data_1_split -> label_data_1_split_5
I0403 15:24:37.404677 14790 net.cpp:399] label_data_1_split -> label_data_1_split_6
I0403 15:24:37.404698 14790 net.cpp:399] label_data_1_split -> label_data_1_split_7
I0403 15:24:37.404717 14790 net.cpp:399] label_data_1_split -> label_data_1_split_8
I0403 15:24:37.404738 14790 net.cpp:399] label_data_1_split -> label_data_1_split_9
I0403 15:24:37.404851 14790 net.cpp:141] Setting up label_data_1_split
I0403 15:24:37.404876 14790 net.cpp:148] Top shape: 24 (24)
I0403 15:24:37.404893 14790 net.cpp:148] Top shape: 24 (24)
I0403 15:24:37.404911 14790 net.cpp:148] Top shape: 24 (24)
I0403 15:24:37.404927 14790 net.cpp:148] Top shape: 24 (24)
I0403 15:24:37.404943 14790 net.cpp:148] Top shape: 24 (24)
I0403 15:24:37.404959 14790 net.cpp:148] Top shape: 24 (24)
I0403 15:24:37.404974 14790 net.cpp:148] Top shape: 24 (24)
I0403 15:24:37.404991 14790 net.cpp:148] Top shape: 24 (24)
I0403 15:24:37.405009 14790 net.cpp:148] Top shape: 24 (24)
I0403 15:24:37.405024 14790 net.cpp:148] Top shape: 24 (24)
I0403 15:24:37.405069 14790 net.cpp:156] Memory required for data: 14451744
I0403 15:24:37.405086 14790 layer_factory.hpp:77] Creating layer conv1/7x7_s2
I0403 15:24:37.405117 14790 net.cpp:91] Creating Layer conv1/7x7_s2
I0403 15:24:37.405134 14790 net.cpp:425] conv1/7x7_s2 <- data
I0403 15:24:37.405153 14790 net.cpp:399] conv1/7x7_s2 -> conv1/7x7_s2
I0403 15:24:37.545958 14790 net.cpp:141] Setting up conv1/7x7_s2
I0403 15:24:37.546026 14790 net.cpp:148] Top shape: 24 64 112 112 (19267584)
I0403 15:24:37.546044 14790 net.cpp:156] Memory required for data: 91522080
I0403 15:24:37.546074 14790 layer_factory.hpp:77] Creating layer conv1/relu_7x7
I0403 15:24:37.546102 14790 net.cpp:91] Creating Layer conv1/relu_7x7
I0403 15:24:37.546119 14790 net.cpp:425] conv1/relu_7x7 <- conv1/7x7_s2
I0403 15:24:37.546140 14790 net.cpp:386] conv1/relu_7x7 -> conv1/7x7_s2 (in-place)
I0403 15:24:37.546418 14790 net.cpp:141] Setting up conv1/relu_7x7
I0403 15:24:37.546444 14790 net.cpp:148] Top shape: 24 64 112 112 (19267584)
I0403 15:24:37.546460 14790 net.cpp:156] Memory required for data: 168592416
I0403 15:24:37.546475 14790 layer_factory.hpp:77] Creating layer pool1/3x3_s2
I0403 15:24:37.546499 14790 net.cpp:91] Creating Layer pool1/3x3_s2
I0403 15:24:37.546522 14790 net.cpp:425] pool1/3x3_s2 <- conv1/7x7_s2
I0403 15:24:37.546545 14790 net.cpp:399] pool1/3x3_s2 -> pool1/3x3_s2
I0403 15:24:37.546622 14790 net.cpp:141] Setting up pool1/3x3_s2
I0403 15:24:37.546646 14790 net.cpp:148] Top shape: 24 64 56 56 (4816896)
I0403 15:24:37.546661 14790 net.cpp:156] Memory required for data: 187860000
I0403 15:24:37.546675 14790 layer_factory.hpp:77] Creating layer pool1/norm1
I0403 15:24:37.546702 14790 net.cpp:91] Creating Layer pool1/norm1
I0403 15:24:37.546720 14790 net.cpp:425] pool1/norm1 <- pool1/3x3_s2
I0403 15:24:37.546741 14790 net.cpp:399] pool1/norm1 -> pool1/norm1
I0403 15:24:37.547037 14790 net.cpp:141] Setting up pool1/norm1
I0403 15:24:37.547065 14790 net.cpp:148] Top shape: 24 64 56 56 (4816896)
I0403 15:24:37.547080 14790 net.cpp:156] Memory required for data: 207127584
I0403 15:24:37.547094 14790 layer_factory.hpp:77] Creating layer conv2/3x3_reduce
I0403 15:24:37.547122 14790 net.cpp:91] Creating Layer conv2/3x3_reduce
I0403 15:24:37.547140 14790 net.cpp:425] conv2/3x3_reduce <- pool1/norm1
I0403 15:24:37.547161 14790 net.cpp:399] conv2/3x3_reduce -> conv2/3x3_reduce
I0403 15:24:37.548599 14790 net.cpp:141] Setting up conv2/3x3_reduce
I0403 15:24:37.548627 14790 net.cpp:148] Top shape: 24 64 56 56 (4816896)
I0403 15:24:37.548643 14790 net.cpp:156] Memory required for data: 226395168
I0403 15:24:37.548666 14790 layer_factory.hpp:77] Creating layer conv2/relu_3x3_reduce
I0403 15:24:37.548686 14790 net.cpp:91] Creating Layer conv2/relu_3x3_reduce
I0403 15:24:37.548702 14790 net.cpp:425] conv2/relu_3x3_reduce <- conv2/3x3_reduce
I0403 15:24:37.548719 14790 net.cpp:386] conv2/relu_3x3_reduce -> conv2/3x3_reduce (in-place)
I0403 15:24:37.549046 14790 net.cpp:141] Setting up conv2/relu_3x3_reduce
I0403 15:24:37.549072 14790 net.cpp:148] Top shape: 24 64 56 56 (4816896)
I0403 15:24:37.549088 14790 net.cpp:156] Memory required for data: 245662752
I0403 15:24:37.549103 14790 layer_factory.hpp:77] Creating layer conv2/3x3
I0403 15:24:37.549129 14790 net.cpp:91] Creating Layer conv2/3x3
I0403 15:24:37.549146 14790 net.cpp:425] conv2/3x3 <- conv2/3x3_reduce
I0403 15:24:37.549165 14790 net.cpp:399] conv2/3x3 -> conv2/3x3
I0403 15:24:37.551440 14790 net.cpp:141] Setting up conv2/3x3
I0403 15:24:37.551471 14790 net.cpp:148] Top shape: 24 192 56 56 (14450688)
I0403 15:24:37.551489 14790 net.cpp:156] Memory required for data: 303465504
I0403 15:24:37.551514 14790 layer_factory.hpp:77] Creating layer conv2/relu_3x3
I0403 15:24:37.551534 14790 net.cpp:91] Creating Layer conv2/relu_3x3
I0403 15:24:37.551550 14790 net.cpp:425] conv2/relu_3x3 <- conv2/3x3
I0403 15:24:37.551568 14790 net.cpp:386] conv2/relu_3x3 -> conv2/3x3 (in-place)
I0403 15:24:37.551745 14790 net.cpp:141] Setting up conv2/relu_3x3
I0403 15:24:37.551770 14790 net.cpp:148] Top shape: 24 192 56 56 (14450688)
I0403 15:24:37.551816 14790 net.cpp:156] Memory required for data: 361268256
I0403 15:24:37.551832 14790 layer_factory.hpp:77] Creating layer conv2/norm2
I0403 15:24:37.551857 14790 net.cpp:91] Creating Layer conv2/norm2
I0403 15:24:37.551874 14790 net.cpp:425] conv2/norm2 <- conv2/3x3
I0403 15:24:37.551892 14790 net.cpp:399] conv2/norm2 -> conv2/norm2
I0403 15:24:37.552191 14790 net.cpp:141] Setting up conv2/norm2
I0403 15:24:37.552218 14790 net.cpp:148] Top shape: 24 192 56 56 (14450688)
I0403 15:24:37.552234 14790 net.cpp:156] Memory required for data: 419071008
I0403 15:24:37.552248 14790 layer_factory.hpp:77] Creating layer pool2/3x3_s2
I0403 15:24:37.552270 14790 net.cpp:91] Creating Layer pool2/3x3_s2
I0403 15:24:37.552287 14790 net.cpp:425] pool2/3x3_s2 <- conv2/norm2
I0403 15:24:37.552304 14790 net.cpp:399] pool2/3x3_s2 -> pool2/3x3_s2
I0403 15:24:37.552357 14790 net.cpp:141] Setting up pool2/3x3_s2
I0403 15:24:37.552381 14790 net.cpp:148] Top shape: 24 192 28 28 (3612672)
I0403 15:24:37.552397 14790 net.cpp:156] Memory required for data: 433521696
I0403 15:24:37.552410 14790 layer_factory.hpp:77] Creating layer pool2/3x3_s2_pool2/3x3_s2_0_split
I0403 15:24:37.552428 14790 net.cpp:91] Creating Layer pool2/3x3_s2_pool2/3x3_s2_0_split
I0403 15:24:37.552443 14790 net.cpp:425] pool2/3x3_s2_pool2/3x3_s2_0_split <- pool2/3x3_s2
I0403 15:24:37.552462 14790 net.cpp:399] pool2/3x3_s2_pool2/3x3_s2_0_split -> pool2/3x3_s2_pool2/3x3_s2_0_split_0
I0403 15:24:37.552482 14790 net.cpp:399] pool2/3x3_s2_pool2/3x3_s2_0_split -> pool2/3x3_s2_pool2/3x3_s2_0_split_1
I0403 15:24:37.552501 14790 net.cpp:399] pool2/3x3_s2_pool2/3x3_s2_0_split -> pool2/3x3_s2_pool2/3x3_s2_0_split_2
I0403 15:24:37.552531 14790 net.cpp:399] pool2/3x3_s2_pool2/3x3_s2_0_split -> pool2/3x3_s2_pool2/3x3_s2_0_split_3
I0403 15:24:37.552603 14790 net.cpp:141] Setting up pool2/3x3_s2_pool2/3x3_s2_0_split
I0403 15:24:37.552628 14790 net.cpp:148] Top shape: 24 192 28 28 (3612672)
I0403 15:24:37.552644 14790 net.cpp:148] Top shape: 24 192 28 28 (3612672)
I0403 15:24:37.552659 14790 net.cpp:148] Top shape: 24 192 28 28 (3612672)
I0403 15:24:37.552676 14790 net.cpp:148] Top shape: 24 192 28 28 (3612672)
I0403 15:24:37.552690 14790 net.cpp:156] Memory required for data: 491324448
I0403 15:24:37.552705 14790 layer_factory.hpp:77] Creating layer inception_3a/1x1
I0403 15:24:37.552726 14790 net.cpp:91] Creating Layer inception_3a/1x1
I0403 15:24:37.552743 14790 net.cpp:425] inception_3a/1x1 <- pool2/3x3_s2_pool2/3x3_s2_0_split_0
I0403 15:24:37.552762 14790 net.cpp:399] inception_3a/1x1 -> inception_3a/1x1
I0403 15:24:37.554286 14790 net.cpp:141] Setting up inception_3a/1x1
I0403 15:24:37.554316 14790 net.cpp:148] Top shape: 24 64 28 28 (1204224)
I0403 15:24:37.554332 14790 net.cpp:156] Memory required for data: 496141344
I0403 15:24:37.554350 14790 layer_factory.hpp:77] Creating layer inception_3a/relu_1x1
I0403 15:24:37.554370 14790 net.cpp:91] Creating Layer inception_3a/relu_1x1
I0403 15:24:37.554388 14790 net.cpp:425] inception_3a/relu_1x1 <- inception_3a/1x1
I0403 15:24:37.554404 14790 net.cpp:386] inception_3a/relu_1x1 -> inception_3a/1x1 (in-place)
I0403 15:24:37.554591 14790 net.cpp:141] Setting up inception_3a/relu_1x1
I0403 15:24:37.554620 14790 net.cpp:148] Top shape: 24 64 28 28 (1204224)
I0403 15:24:37.554636 14790 net.cpp:156] Memory required for data: 500958240
I0403 15:24:37.554651 14790 layer_factory.hpp:77] Creating layer inception_3a/3x3_reduce
I0403 15:24:37.554672 14790 net.cpp:91] Creating Layer inception_3a/3x3_reduce
I0403 15:24:37.554689 14790 net.cpp:425] inception_3a/3x3_reduce <- pool2/3x3_s2_pool2/3x3_s2_0_split_1
I0403 15:24:37.554708 14790 net.cpp:399] inception_3a/3x3_reduce -> inception_3a/3x3_reduce
I0403 15:24:37.556381 14790 net.cpp:141] Setting up inception_3a/3x3_reduce
I0403 15:24:37.556411 14790 net.cpp:148] Top shape: 24 96 28 28 (1806336)
I0403 15:24:37.556427 14790 net.cpp:156] Memory required for data: 508183584
I0403 15:24:37.556449 14790 layer_factory.hpp:77] Creating layer inception_3a/relu_3x3_reduce
I0403 15:24:37.556485 14790 net.cpp:91] Creating Layer inception_3a/relu_3x3_reduce
I0403 15:24:37.556502 14790 net.cpp:425] inception_3a/relu_3x3_reduce <- inception_3a/3x3_reduce
I0403 15:24:37.556527 14790 net.cpp:386] inception_3a/relu_3x3_reduce -> inception_3a/3x3_reduce (in-place)
I0403 15:24:37.556710 14790 net.cpp:141] Setting up inception_3a/relu_3x3_reduce
I0403 15:24:37.556735 14790 net.cpp:148] Top shape: 24 96 28 28 (1806336)
I0403 15:24:37.556749 14790 net.cpp:156] Memory required for data: 515408928
I0403 15:24:37.556764 14790 layer_factory.hpp:77] Creating layer inception_3a/3x3
I0403 15:24:37.556787 14790 net.cpp:91] Creating Layer inception_3a/3x3
I0403 15:24:37.556802 14790 net.cpp:425] inception_3a/3x3 <- inception_3a/3x3_reduce
I0403 15:24:37.556823 14790 net.cpp:399] inception_3a/3x3 -> inception_3a/3x3
I0403 15:24:37.558470 14790 net.cpp:141] Setting up inception_3a/3x3
I0403 15:24:37.558500 14790 net.cpp:148] Top shape: 24 128 28 28 (2408448)
I0403 15:24:37.558521 14790 net.cpp:156] Memory required for data: 525042720
I0403 15:24:37.558540 14790 layer_factory.hpp:77] Creating layer inception_3a/relu_3x3
I0403 15:24:37.558558 14790 net.cpp:91] Creating Layer inception_3a/relu_3x3
I0403 15:24:37.558574 14790 net.cpp:425] inception_3a/relu_3x3 <- inception_3a/3x3
I0403 15:24:37.558593 14790 net.cpp:386] inception_3a/relu_3x3 -> inception_3a/3x3 (in-place)
I0403 15:24:37.558869 14790 net.cpp:141] Setting up inception_3a/relu_3x3
I0403 15:24:37.558897 14790 net.cpp:148] Top shape: 24 128 28 28 (2408448)
I0403 15:24:37.558913 14790 net.cpp:156] Memory required for data: 534676512
I0403 15:24:37.558928 14790 layer_factory.hpp:77] Creating layer inception_3a/5x5_reduce
I0403 15:24:37.558950 14790 net.cpp:91] Creating Layer inception_3a/5x5_reduce
I0403 15:24:37.558969 14790 net.cpp:425] inception_3a/5x5_reduce <- pool2/3x3_s2_pool2/3x3_s2_0_split_2
I0403 15:24:37.558987 14790 net.cpp:399] inception_3a/5x5_reduce -> inception_3a/5x5_reduce
I0403 15:24:37.559942 14790 net.cpp:141] Setting up inception_3a/5x5_reduce
I0403 15:24:37.559973 14790 net.cpp:148] Top shape: 24 16 28 28 (301056)
I0403 15:24:37.559988 14790 net.cpp:156] Memory required for data: 535880736
I0403 15:24:37.560008 14790 layer_factory.hpp:77] Creating layer inception_3a/relu_5x5_reduce
I0403 15:24:37.560024 14790 net.cpp:91] Creating Layer inception_3a/relu_5x5_reduce
I0403 15:24:37.560040 14790 net.cpp:425] inception_3a/relu_5x5_reduce <- inception_3a/5x5_reduce
I0403 15:24:37.560061 14790 net.cpp:386] inception_3a/relu_5x5_reduce -> inception_3a/5x5_reduce (in-place)
I0403 15:24:37.560353 14790 net.cpp:141] Setting up inception_3a/relu_5x5_reduce
I0403 15:24:37.560377 14790 net.cpp:148] Top shape: 24 16 28 28 (301056)
I0403 15:24:37.560394 14790 net.cpp:156] Memory required for data: 537084960
I0403 15:24:37.560407 14790 layer_factory.hpp:77] Creating layer inception_3a/5x5
I0403 15:24:37.560430 14790 net.cpp:91] Creating Layer inception_3a/5x5
I0403 15:24:37.560447 14790 net.cpp:425] inception_3a/5x5 <- inception_3a/5x5_reduce
I0403 15:24:37.560472 14790 net.cpp:399] inception_3a/5x5 -> inception_3a/5x5
I0403 15:24:37.561487 14790 net.cpp:141] Setting up inception_3a/5x5
I0403 15:24:37.561518 14790 net.cpp:148] Top shape: 24 32 28 28 (602112)
I0403 15:24:37.561535 14790 net.cpp:156] Memory required for data: 539493408
I0403 15:24:37.561553 14790 layer_factory.hpp:77] Creating layer inception_3a/relu_5x5
I0403 15:24:37.561573 14790 net.cpp:91] Creating Layer inception_3a/relu_5x5
I0403 15:24:37.561589 14790 net.cpp:425] inception_3a/relu_5x5 <- inception_3a/5x5
I0403 15:24:37.561607 14790 net.cpp:386] inception_3a/relu_5x5 -> inception_3a/5x5 (in-place)
I0403 15:24:37.561780 14790 net.cpp:141] Setting up inception_3a/relu_5x5
I0403 15:24:37.561805 14790 net.cpp:148] Top shape: 24 32 28 28 (602112)
I0403 15:24:37.561820 14790 net.cpp:156] Memory required for data: 541901856
I0403 15:24:37.561833 14790 layer_factory.hpp:77] Creating layer inception_3a/pool
I0403 15:24:37.561851 14790 net.cpp:91] Creating Layer inception_3a/pool
I0403 15:24:37.561866 14790 net.cpp:425] inception_3a/pool <- pool2/3x3_s2_pool2/3x3_s2_0_split_3
I0403 15:24:37.561900 14790 net.cpp:399] inception_3a/pool -> inception_3a/pool
I0403 15:24:37.561957 14790 net.cpp:141] Setting up inception_3a/pool
I0403 15:24:37.561981 14790 net.cpp:148] Top shape: 24 192 28 28 (3612672)
I0403 15:24:37.561995 14790 net.cpp:156] Memory required for data: 556352544
I0403 15:24:37.562010 14790 layer_factory.hpp:77] Creating layer inception_3a/pool_proj
I0403 15:24:37.562034 14790 net.cpp:91] Creating Layer inception_3a/pool_proj
I0403 15:24:37.562052 14790 net.cpp:425] inception_3a/pool_proj <- inception_3a/pool
I0403 15:24:37.562069 14790 net.cpp:399] inception_3a/pool_proj -> inception_3a/pool_proj
I0403 15:24:37.563025 14790 net.cpp:141] Setting up inception_3a/pool_proj
I0403 15:24:37.563052 14790 net.cpp:148] Top shape: 24 32 28 28 (602112)
I0403 15:24:37.563068 14790 net.cpp:156] Memory required for data: 558760992
I0403 15:24:37.563091 14790 layer_factory.hpp:77] Creating layer inception_3a/relu_pool_proj
I0403 15:24:37.563112 14790 net.cpp:91] Creating Layer inception_3a/relu_pool_proj
I0403 15:24:37.563127 14790 net.cpp:425] inception_3a/relu_pool_proj <- inception_3a/pool_proj
I0403 15:24:37.563146 14790 net.cpp:386] inception_3a/relu_pool_proj -> inception_3a/pool_proj (in-place)
I0403 15:24:37.563418 14790 net.cpp:141] Setting up inception_3a/relu_pool_proj
I0403 15:24:37.563446 14790 net.cpp:148] Top shape: 24 32 28 28 (602112)
I0403 15:24:37.563462 14790 net.cpp:156] Memory required for data: 561169440
I0403 15:24:37.563477 14790 layer_factory.hpp:77] Creating layer inception_3a/output
I0403 15:24:37.563495 14790 net.cpp:91] Creating Layer inception_3a/output
I0403 15:24:37.563515 14790 net.cpp:425] inception_3a/output <- inception_3a/1x1
I0403 15:24:37.563532 14790 net.cpp:425] inception_3a/output <- inception_3a/3x3
I0403 15:24:37.563549 14790 net.cpp:425] inception_3a/output <- inception_3a/5x5
I0403 15:24:37.563565 14790 net.cpp:425] inception_3a/output <- inception_3a/pool_proj
I0403 15:24:37.563580 14790 net.cpp:399] inception_3a/output -> inception_3a/output
I0403 15:24:37.563627 14790 net.cpp:141] Setting up inception_3a/output
I0403 15:24:37.563650 14790 net.cpp:148] Top shape: 24 256 28 28 (4816896)
I0403 15:24:37.563664 14790 net.cpp:156] Memory required for data: 580437024
I0403 15:24:37.563678 14790 layer_factory.hpp:77] Creating layer inception_3a/output_inception_3a/output_0_split
I0403 15:24:37.563695 14790 net.cpp:91] Creating Layer inception_3a/output_inception_3a/output_0_split
I0403 15:24:37.563710 14790 net.cpp:425] inception_3a/output_inception_3a/output_0_split <- inception_3a/output
I0403 15:24:37.563735 14790 net.cpp:399] inception_3a/output_inception_3a/output_0_split -> inception_3a/output_inception_3a/output_0_split_0
I0403 15:24:37.563755 14790 net.cpp:399] inception_3a/output_inception_3a/output_0_split -> inception_3a/output_inception_3a/output_0_split_1
I0403 15:24:37.563781 14790 net.cpp:399] inception_3a/output_inception_3a/output_0_split -> inception_3a/output_inception_3a/output_0_split_2
I0403 15:24:37.563802 14790 net.cpp:399] inception_3a/output_inception_3a/output_0_split -> inception_3a/output_inception_3a/output_0_split_3
I0403 15:24:37.563874 14790 net.cpp:141] Setting up inception_3a/output_inception_3a/output_0_split
I0403 15:24:37.563896 14790 net.cpp:148] Top shape: 24 256 28 28 (4816896)
I0403 15:24:37.563915 14790 net.cpp:148] Top shape: 24 256 28 28 (4816896)
I0403 15:24:37.563931 14790 net.cpp:148] Top shape: 24 256 28 28 (4816896)
I0403 15:24:37.563947 14790 net.cpp:148] Top shape: 24 256 28 28 (4816896)
I0403 15:24:37.563961 14790 net.cpp:156] Memory required for data: 657507360
I0403 15:24:37.563974 14790 layer_factory.hpp:77] Creating layer inception_3b/1x1
I0403 15:24:37.563994 14790 net.cpp:91] Creating Layer inception_3b/1x1
I0403 15:24:37.564012 14790 net.cpp:425] inception_3b/1x1 <- inception_3a/output_inception_3a/output_0_split_0
I0403 15:24:37.564031 14790 net.cpp:399] inception_3b/1x1 -> inception_3b/1x1
I0403 15:24:37.565162 14790 net.cpp:141] Setting up inception_3b/1x1
I0403 15:24:37.565201 14790 net.cpp:148] Top shape: 24 128 28 28 (2408448)
I0403 15:24:37.565217 14790 net.cpp:156] Memory required for data: 667141152
I0403 15:24:37.565235 14790 layer_factory.hpp:77] Creating layer inception_3b/relu_1x1
I0403 15:24:37.565255 14790 net.cpp:91] Creating Layer inception_3b/relu_1x1
I0403 15:24:37.565273 14790 net.cpp:425] inception_3b/relu_1x1 <- inception_3b/1x1
I0403 15:24:37.565289 14790 net.cpp:386] inception_3b/relu_1x1 -> inception_3b/1x1 (in-place)
I0403 15:24:37.565462 14790 net.cpp:141] Setting up inception_3b/relu_1x1
I0403 15:24:37.565490 14790 net.cpp:148] Top shape: 24 128 28 28 (2408448)
I0403 15:24:37.565510 14790 net.cpp:156] Memory required for data: 676774944
I0403 15:24:37.565526 14790 layer_factory.hpp:77] Creating layer inception_3b/3x3_reduce
I0403 15:24:37.565549 14790 net.cpp:91] Creating Layer inception_3b/3x3_reduce
I0403 15:24:37.565567 14790 net.cpp:425] inception_3b/3x3_reduce <- inception_3a/output_inception_3a/output_0_split_1
I0403 15:24:37.565584 14790 net.cpp:399] inception_3b/3x3_reduce -> inception_3b/3x3_reduce
I0403 15:24:37.566706 14790 net.cpp:141] Setting up inception_3b/3x3_reduce
I0403 15:24:37.566735 14790 net.cpp:148] Top shape: 24 128 28 28 (2408448)
I0403 15:24:37.566751 14790 net.cpp:156] Memory required for data: 686408736
I0403 15:24:37.566769 14790 layer_factory.hpp:77] Creating layer inception_3b/relu_3x3_reduce
I0403 15:24:37.566789 14790 net.cpp:91] Creating Layer inception_3b/relu_3x3_reduce
I0403 15:24:37.566807 14790 net.cpp:425] inception_3b/relu_3x3_reduce <- inception_3b/3x3_reduce
I0403 15:24:37.566823 14790 net.cpp:386] inception_3b/relu_3x3_reduce -> inception_3b/3x3_reduce (in-place)
I0403 15:24:37.566995 14790 net.cpp:141] Setting up inception_3b/relu_3x3_reduce
I0403 15:24:37.567023 14790 net.cpp:148] Top shape: 24 128 28 28 (2408448)
I0403 15:24:37.567039 14790 net.cpp:156] Memory required for data: 696042528
I0403 15:24:37.567052 14790 layer_factory.hpp:77] Creating layer inception_3b/3x3
I0403 15:24:37.567076 14790 net.cpp:91] Creating Layer inception_3b/3x3
I0403 15:24:37.567095 14790 net.cpp:425] inception_3b/3x3 <- inception_3b/3x3_reduce
I0403 15:24:37.567118 14790 net.cpp:399] inception_3b/3x3 -> inception_3b/3x3
I0403 15:24:37.570020 14790 net.cpp:141] Setting up inception_3b/3x3
I0403 15:24:37.570051 14790 net.cpp:148] Top shape: 24 192 28 28 (3612672)
I0403 15:24:37.570068 14790 net.cpp:156] Memory required for data: 710493216
I0403 15:24:37.570086 14790 layer_factory.hpp:77] Creating layer inception_3b/relu_3x3
I0403 15:24:37.570104 14790 net.cpp:91] Creating Layer inception_3b/relu_3x3
I0403 15:24:37.570119 14790 net.cpp:425] inception_3b/relu_3x3 <- inception_3b/3x3
I0403 15:24:37.570139 14790 net.cpp:386] inception_3b/relu_3x3 -> inception_3b/3x3 (in-place)
I0403 15:24:37.570410 14790 net.cpp:141] Setting up inception_3b/relu_3x3
I0403 15:24:37.570441 14790 net.cpp:148] Top shape: 24 192 28 28 (3612672)
I0403 15:24:37.570456 14790 net.cpp:156] Memory required for data: 724943904
I0403 15:24:37.570472 14790 layer_factory.hpp:77] Creating layer inception_3b/5x5_reduce
I0403 15:24:37.570493 14790 net.cpp:91] Creating Layer inception_3b/5x5_reduce
I0403 15:24:37.570515 14790 net.cpp:425] inception_3b/5x5_reduce <- inception_3a/output_inception_3a/output_0_split_2
I0403 15:24:37.570536 14790 net.cpp:399] inception_3b/5x5_reduce -> inception_3b/5x5_reduce
I0403 15:24:37.571540 14790 net.cpp:141] Setting up inception_3b/5x5_reduce
I0403 15:24:37.571569 14790 net.cpp:148] Top shape: 24 32 28 28 (602112)
I0403 15:24:37.571596 14790 net.cpp:156] Memory required for data: 727352352
I0403 15:24:37.571614 14790 layer_factory.hpp:77] Creating layer inception_3b/relu_5x5_reduce
I0403 15:24:37.571635 14790 net.cpp:91] Creating Layer inception_3b/relu_5x5_reduce
I0403 15:24:37.571651 14790 net.cpp:425] inception_3b/relu_5x5_reduce <- inception_3b/5x5_reduce
I0403 15:24:37.571667 14790 net.cpp:386] inception_3b/relu_5x5_reduce -> inception_3b/5x5_reduce (in-place)
I0403 15:24:37.571846 14790 net.cpp:141] Setting up inception_3b/relu_5x5_reduce
I0403 15:24:37.571883 14790 net.cpp:148] Top shape: 24 32 28 28 (602112)
I0403 15:24:37.571898 14790 net.cpp:156] Memory required for data: 729760800
I0403 15:24:37.571913 14790 layer_factory.hpp:77] Creating layer inception_3b/5x5
I0403 15:24:37.571935 14790 net.cpp:91] Creating Layer inception_3b/5x5
I0403 15:24:37.571952 14790 net.cpp:425] inception_3b/5x5 <- inception_3b/5x5_reduce
I0403 15:24:37.571974 14790 net.cpp:399] inception_3b/5x5 -> inception_3b/5x5
I0403 15:24:37.573958 14790 net.cpp:141] Setting up inception_3b/5x5
I0403 15:24:37.573987 14790 net.cpp:148] Top shape: 24 96 28 28 (1806336)
I0403 15:24:37.574003 14790 net.cpp:156] Memory required for data: 736986144
I0403 15:24:37.574021 14790 layer_factory.hpp:77] Creating layer inception_3b/relu_5x5
I0403 15:24:37.574041 14790 net.cpp:91] Creating Layer inception_3b/relu_5x5
I0403 15:24:37.574059 14790 net.cpp:425] inception_3b/relu_5x5 <- inception_3b/5x5
I0403 15:24:37.574076 14790 net.cpp:386] inception_3b/relu_5x5 -> inception_3b/5x5 (in-place)
I0403 15:24:37.574270 14790 net.cpp:141] Setting up inception_3b/relu_5x5
I0403 15:24:37.574296 14790 net.cpp:148] Top shape: 24 96 28 28 (1806336)
I0403 15:24:37.574311 14790 net.cpp:156] Memory required for data: 744211488
I0403 15:24:37.574326 14790 layer_factory.hpp:77] Creating layer inception_3b/pool
I0403 15:24:37.574342 14790 net.cpp:91] Creating Layer inception_3b/pool
I0403 15:24:37.574358 14790 net.cpp:425] inception_3b/pool <- inception_3a/output_inception_3a/output_0_split_3
I0403 15:24:37.574378 14790 net.cpp:399] inception_3b/pool -> inception_3b/pool
I0403 15:24:37.574434 14790 net.cpp:141] Setting up inception_3b/pool
I0403 15:24:37.574457 14790 net.cpp:148] Top shape: 24 256 28 28 (4816896)
I0403 15:24:37.574471 14790 net.cpp:156] Memory required for data: 763479072
I0403 15:24:37.574486 14790 layer_factory.hpp:77] Creating layer inception_3b/pool_proj
I0403 15:24:37.574517 14790 net.cpp:91] Creating Layer inception_3b/pool_proj
I0403 15:24:37.574537 14790 net.cpp:425] inception_3b/pool_proj <- inception_3b/pool
I0403 15:24:37.574558 14790 net.cpp:399] inception_3b/pool_proj -> inception_3b/pool_proj
I0403 15:24:37.575609 14790 net.cpp:141] Setting up inception_3b/pool_proj
I0403 15:24:37.575636 14790 net.cpp:148] Top shape: 24 64 28 28 (1204224)
I0403 15:24:37.575652 14790 net.cpp:156] Memory required for data: 768295968
I0403 15:24:37.575670 14790 layer_factory.hpp:77] Creating layer inception_3b/relu_pool_proj
I0403 15:24:37.575688 14790 net.cpp:91] Creating Layer inception_3b/relu_pool_proj
I0403 15:24:37.575705 14790 net.cpp:425] inception_3b/relu_pool_proj <- inception_3b/pool_proj
I0403 15:24:37.575723 14790 net.cpp:386] inception_3b/relu_pool_proj -> inception_3b/pool_proj (in-place)
I0403 15:24:37.576120 14790 net.cpp:141] Setting up inception_3b/relu_pool_proj
I0403 15:24:37.576148 14790 net.cpp:148] Top shape: 24 64 28 28 (1204224)
I0403 15:24:37.576165 14790 net.cpp:156] Memory required for data: 773112864
I0403 15:24:37.576179 14790 layer_factory.hpp:77] Creating layer inception_3b/output
I0403 15:24:37.576197 14790 net.cpp:91] Creating Layer inception_3b/output
I0403 15:24:37.576213 14790 net.cpp:425] inception_3b/output <- inception_3b/1x1
I0403 15:24:37.576230 14790 net.cpp:425] inception_3b/output <- inception_3b/3x3
I0403 15:24:37.576246 14790 net.cpp:425] inception_3b/output <- inception_3b/5x5
I0403 15:24:37.576262 14790 net.cpp:425] inception_3b/output <- inception_3b/pool_proj
I0403 15:24:37.576282 14790 net.cpp:399] inception_3b/output -> inception_3b/output
I0403 15:24:37.576325 14790 net.cpp:141] Setting up inception_3b/output
I0403 15:24:37.576349 14790 net.cpp:148] Top shape: 24 480 28 28 (9031680)
I0403 15:24:37.576364 14790 net.cpp:156] Memory required for data: 809239584
I0403 15:24:37.576377 14790 layer_factory.hpp:77] Creating layer pool3/3x3_s2
I0403 15:24:37.576396 14790 net.cpp:91] Creating Layer pool3/3x3_s2
I0403 15:24:37.576412 14790 net.cpp:425] pool3/3x3_s2 <- inception_3b/output
I0403 15:24:37.576431 14790 net.cpp:399] pool3/3x3_s2 -> pool3/3x3_s2
I0403 15:24:37.576503 14790 net.cpp:141] Setting up pool3/3x3_s2
I0403 15:24:37.576530 14790 net.cpp:148] Top shape: 24 480 14 14 (2257920)
I0403 15:24:37.576545 14790 net.cpp:156] Memory required for data: 818271264
I0403 15:24:37.576560 14790 layer_factory.hpp:77] Creating layer pool3/3x3_s2_pool3/3x3_s2_0_split
I0403 15:24:37.576576 14790 net.cpp:91] Creating Layer pool3/3x3_s2_pool3/3x3_s2_0_split
I0403 15:24:37.576591 14790 net.cpp:425] pool3/3x3_s2_pool3/3x3_s2_0_split <- pool3/3x3_s2
I0403 15:24:37.576611 14790 net.cpp:399] pool3/3x3_s2_pool3/3x3_s2_0_split -> pool3/3x3_s2_pool3/3x3_s2_0_split_0
I0403 15:24:37.576630 14790 net.cpp:399] pool3/3x3_s2_pool3/3x3_s2_0_split -> pool3/3x3_s2_pool3/3x3_s2_0_split_1
I0403 15:24:37.576649 14790 net.cpp:399] pool3/3x3_s2_pool3/3x3_s2_0_split -> pool3/3x3_s2_pool3/3x3_s2_0_split_2
I0403 15:24:37.576668 14790 net.cpp:399] pool3/3x3_s2_pool3/3x3_s2_0_split -> pool3/3x3_s2_pool3/3x3_s2_0_split_3
I0403 15:24:37.576745 14790 net.cpp:141] Setting up pool3/3x3_s2_pool3/3x3_s2_0_split
I0403 15:24:37.576767 14790 net.cpp:148] Top shape: 24 480 14 14 (2257920)
I0403 15:24:37.576784 14790 net.cpp:148] Top shape: 24 480 14 14 (2257920)
I0403 15:24:37.576800 14790 net.cpp:148] Top shape: 24 480 14 14 (2257920)
I0403 15:24:37.576815 14790 net.cpp:148] Top shape: 24 480 14 14 (2257920)
I0403 15:24:37.576828 14790 net.cpp:156] Memory required for data: 854397984
I0403 15:24:37.576843 14790 layer_factory.hpp:77] Creating layer inception_4a/1x1
I0403 15:24:37.576864 14790 net.cpp:91] Creating Layer inception_4a/1x1
I0403 15:24:37.576880 14790 net.cpp:425] inception_4a/1x1 <- pool3/3x3_s2_pool3/3x3_s2_0_split_0
I0403 15:24:37.576901 14790 net.cpp:399] inception_4a/1x1 -> inception_4a/1x1
I0403 15:24:37.578452 14790 net.cpp:141] Setting up inception_4a/1x1
I0403 15:24:37.578481 14790 net.cpp:148] Top shape: 24 192 14 14 (903168)
I0403 15:24:37.578496 14790 net.cpp:156] Memory required for data: 858010656
I0403 15:24:37.578521 14790 layer_factory.hpp:77] Creating layer inception_4a/relu_1x1
I0403 15:24:37.578547 14790 net.cpp:91] Creating Layer inception_4a/relu_1x1
I0403 15:24:37.578563 14790 net.cpp:425] inception_4a/relu_1x1 <- inception_4a/1x1
I0403 15:24:37.578583 14790 net.cpp:386] inception_4a/relu_1x1 -> inception_4a/1x1 (in-place)
I0403 15:24:37.578763 14790 net.cpp:141] Setting up inception_4a/relu_1x1
I0403 15:24:37.578788 14790 net.cpp:148] Top shape: 24 192 14 14 (903168)
I0403 15:24:37.578802 14790 net.cpp:156] Memory required for data: 861623328
I0403 15:24:37.578816 14790 layer_factory.hpp:77] Creating layer inception_4a/3x3_reduce
I0403 15:24:37.578838 14790 net.cpp:91] Creating Layer inception_4a/3x3_reduce
I0403 15:24:37.578855 14790 net.cpp:425] inception_4a/3x3_reduce <- pool3/3x3_s2_pool3/3x3_s2_0_split_1
I0403 15:24:37.578876 14790 net.cpp:399] inception_4a/3x3_reduce -> inception_4a/3x3_reduce
I0403 15:24:37.580137 14790 net.cpp:141] Setting up inception_4a/3x3_reduce
I0403 15:24:37.580165 14790 net.cpp:148] Top shape: 24 96 14 14 (451584)
I0403 15:24:37.580180 14790 net.cpp:156] Memory required for data: 863429664
I0403 15:24:37.580205 14790 layer_factory.hpp:77] Creating layer inception_4a/relu_3x3_reduce
I0403 15:24:37.580225 14790 net.cpp:91] Creating Layer inception_4a/relu_3x3_reduce
I0403 15:24:37.580241 14790 net.cpp:425] inception_4a/relu_3x3_reduce <- inception_4a/3x3_reduce
I0403 15:24:37.580260 14790 net.cpp:386] inception_4a/relu_3x3_reduce -> inception_4a/3x3_reduce (in-place)
I0403 15:24:37.580435 14790 net.cpp:141] Setting up inception_4a/relu_3x3_reduce
I0403 15:24:37.580459 14790 net.cpp:148] Top shape: 24 96 14 14 (451584)
I0403 15:24:37.580473 14790 net.cpp:156] Memory required for data: 865236000
I0403 15:24:37.580488 14790 layer_factory.hpp:77] Creating layer inception_4a/3x3
I0403 15:24:37.580513 14790 net.cpp:91] Creating Layer inception_4a/3x3
I0403 15:24:37.580533 14790 net.cpp:425] inception_4a/3x3 <- inception_4a/3x3_reduce
I0403 15:24:37.580552 14790 net.cpp:399] inception_4a/3x3 -> inception_4a/3x3
I0403 15:24:37.583219 14790 net.cpp:141] Setting up inception_4a/3x3
I0403 15:24:37.583246 14790 net.cpp:148] Top shape: 24 208 14 14 (978432)
I0403 15:24:37.583264 14790 net.cpp:156] Memory required for data: 869149728
I0403 15:24:37.583282 14790 layer_factory.hpp:77] Creating layer inception_4a/relu_3x3
I0403 15:24:37.583303 14790 net.cpp:91] Creating Layer inception_4a/relu_3x3
I0403 15:24:37.583320 14790 net.cpp:425] inception_4a/relu_3x3 <- inception_4a/3x3
I0403 15:24:37.583338 14790 net.cpp:386] inception_4a/relu_3x3 -> inception_4a/3x3 (in-place)
I0403 15:24:37.583616 14790 net.cpp:141] Setting up inception_4a/relu_3x3
I0403 15:24:37.583642 14790 net.cpp:148] Top shape: 24 208 14 14 (978432)
I0403 15:24:37.583657 14790 net.cpp:156] Memory required for data: 873063456
I0403 15:24:37.583673 14790 layer_factory.hpp:77] Creating layer inception_4a/5x5_reduce
I0403 15:24:37.583693 14790 net.cpp:91] Creating Layer inception_4a/5x5_reduce
I0403 15:24:37.583711 14790 net.cpp:425] inception_4a/5x5_reduce <- pool3/3x3_s2_pool3/3x3_s2_0_split_2
I0403 15:24:37.583734 14790 net.cpp:399] inception_4a/5x5_reduce -> inception_4a/5x5_reduce
I0403 15:24:37.584756 14790 net.cpp:141] Setting up inception_4a/5x5_reduce
I0403 15:24:37.584784 14790 net.cpp:148] Top shape: 24 16 14 14 (75264)
I0403 15:24:37.584800 14790 net.cpp:156] Memory required for data: 873364512
I0403 15:24:37.584818 14790 layer_factory.hpp:77] Creating layer inception_4a/relu_5x5_reduce
I0403 15:24:37.584839 14790 net.cpp:91] Creating Layer inception_4a/relu_5x5_reduce
I0403 15:24:37.584856 14790 net.cpp:425] inception_4a/relu_5x5_reduce <- inception_4a/5x5_reduce
I0403 15:24:37.584873 14790 net.cpp:386] inception_4a/relu_5x5_reduce -> inception_4a/5x5_reduce (in-place)
I0403 15:24:37.585052 14790 net.cpp:141] Setting up inception_4a/relu_5x5_reduce
I0403 15:24:37.585077 14790 net.cpp:148] Top shape: 24 16 14 14 (75264)
I0403 15:24:37.585091 14790 net.cpp:156] Memory required for data: 873665568
I0403 15:24:37.585105 14790 layer_factory.hpp:77] Creating layer inception_4a/5x5
I0403 15:24:37.585127 14790 net.cpp:91] Creating Layer inception_4a/5x5
I0403 15:24:37.585144 14790 net.cpp:425] inception_4a/5x5 <- inception_4a/5x5_reduce
I0403 15:24:37.585165 14790 net.cpp:399] inception_4a/5x5 -> inception_4a/5x5
I0403 15:24:37.586249 14790 net.cpp:141] Setting up inception_4a/5x5
I0403 15:24:37.586280 14790 net.cpp:148] Top shape: 24 48 14 14 (225792)
I0403 15:24:37.586297 14790 net.cpp:156] Memory required for data: 874568736
I0403 15:24:37.586314 14790 layer_factory.hpp:77] Creating layer inception_4a/relu_5x5
I0403 15:24:37.586333 14790 net.cpp:91] Creating Layer inception_4a/relu_5x5
I0403 15:24:37.586349 14790 net.cpp:425] inception_4a/relu_5x5 <- inception_4a/5x5
I0403 15:24:37.586369 14790 net.cpp:386] inception_4a/relu_5x5 -> inception_4a/5x5 (in-place)
I0403 15:24:37.586551 14790 net.cpp:141] Setting up inception_4a/relu_5x5
I0403 15:24:37.586576 14790 net.cpp:148] Top shape: 24 48 14 14 (225792)
I0403 15:24:37.586591 14790 net.cpp:156] Memory required for data: 875471904
I0403 15:24:37.586606 14790 layer_factory.hpp:77] Creating layer inception_4a/pool
I0403 15:24:37.586623 14790 net.cpp:91] Creating Layer inception_4a/pool
I0403 15:24:37.586639 14790 net.cpp:425] inception_4a/pool <- pool3/3x3_s2_pool3/3x3_s2_0_split_3
I0403 15:24:37.586658 14790 net.cpp:399] inception_4a/pool -> inception_4a/pool
I0403 15:24:37.586720 14790 net.cpp:141] Setting up inception_4a/pool
I0403 15:24:37.586745 14790 net.cpp:148] Top shape: 24 480 14 14 (2257920)
I0403 15:24:37.586758 14790 net.cpp:156] Memory required for data: 884503584
I0403 15:24:37.586772 14790 layer_factory.hpp:77] Creating layer inception_4a/pool_proj
I0403 15:24:37.586794 14790 net.cpp:91] Creating Layer inception_4a/pool_proj
I0403 15:24:37.586812 14790 net.cpp:425] inception_4a/pool_proj <- inception_4a/pool
I0403 15:24:37.586833 14790 net.cpp:399] inception_4a/pool_proj -> inception_4a/pool_proj
I0403 15:24:37.587995 14790 net.cpp:141] Setting up inception_4a/pool_proj
I0403 15:24:37.588022 14790 net.cpp:148] Top shape: 24 64 14 14 (301056)
I0403 15:24:37.588052 14790 net.cpp:156] Memory required for data: 885707808
I0403 15:24:37.588071 14790 layer_factory.hpp:77] Creating layer inception_4a/relu_pool_proj
I0403 15:24:37.588093 14790 net.cpp:91] Creating Layer inception_4a/relu_pool_proj
I0403 15:24:37.588109 14790 net.cpp:425] inception_4a/relu_pool_proj <- inception_4a/pool_proj
I0403 15:24:37.588126 14790 net.cpp:386] inception_4a/relu_pool_proj -> inception_4a/pool_proj (in-place)
I0403 15:24:37.588407 14790 net.cpp:141] Setting up inception_4a/relu_pool_proj
I0403 15:24:37.588433 14790 net.cpp:148] Top shape: 24 64 14 14 (301056)
I0403 15:24:37.588449 14790 net.cpp:156] Memory required for data: 886912032
I0403 15:24:37.588464 14790 layer_factory.hpp:77] Creating layer inception_4a/output
I0403 15:24:37.588480 14790 net.cpp:91] Creating Layer inception_4a/output
I0403 15:24:37.588496 14790 net.cpp:425] inception_4a/output <- inception_4a/1x1
I0403 15:24:37.588517 14790 net.cpp:425] inception_4a/output <- inception_4a/3x3
I0403 15:24:37.588536 14790 net.cpp:425] inception_4a/output <- inception_4a/5x5
I0403 15:24:37.588551 14790 net.cpp:425] inception_4a/output <- inception_4a/pool_proj
I0403 15:24:37.588570 14790 net.cpp:399] inception_4a/output -> inception_4a/output
I0403 15:24:37.588614 14790 net.cpp:141] Setting up inception_4a/output
I0403 15:24:37.588639 14790 net.cpp:148] Top shape: 24 512 14 14 (2408448)
I0403 15:24:37.588654 14790 net.cpp:156] Memory required for data: 896545824
I0403 15:24:37.588670 14790 layer_factory.hpp:77] Creating layer inception_4a/output_inception_4a/output_0_split
I0403 15:24:37.588686 14790 net.cpp:91] Creating Layer inception_4a/output_inception_4a/output_0_split
I0403 15:24:37.588701 14790 net.cpp:425] inception_4a/output_inception_4a/output_0_split <- inception_4a/output
I0403 15:24:37.588721 14790 net.cpp:399] inception_4a/output_inception_4a/output_0_split -> inception_4a/output_inception_4a/output_0_split_0
I0403 15:24:37.588742 14790 net.cpp:399] inception_4a/output_inception_4a/output_0_split -> inception_4a/output_inception_4a/output_0_split_1
I0403 15:24:37.588762 14790 net.cpp:399] inception_4a/output_inception_4a/output_0_split -> inception_4a/output_inception_4a/output_0_split_2
I0403 15:24:37.588781 14790 net.cpp:399] inception_4a/output_inception_4a/output_0_split -> inception_4a/output_inception_4a/output_0_split_3
I0403 15:24:37.588803 14790 net.cpp:399] inception_4a/output_inception_4a/output_0_split -> inception_4a/output_inception_4a/output_0_split_4
I0403 15:24:37.588896 14790 net.cpp:141] Setting up inception_4a/output_inception_4a/output_0_split
I0403 15:24:37.588919 14790 net.cpp:148] Top shape: 24 512 14 14 (2408448)
I0403 15:24:37.588935 14790 net.cpp:148] Top shape: 24 512 14 14 (2408448)
I0403 15:24:37.588950 14790 net.cpp:148] Top shape: 24 512 14 14 (2408448)
I0403 15:24:37.588965 14790 net.cpp:148] Top shape: 24 512 14 14 (2408448)
I0403 15:24:37.588980 14790 net.cpp:148] Top shape: 24 512 14 14 (2408448)
I0403 15:24:37.588994 14790 net.cpp:156] Memory required for data: 944714784
I0403 15:24:37.589009 14790 layer_factory.hpp:77] Creating layer loss1/ave_pool
I0403 15:24:37.589027 14790 net.cpp:91] Creating Layer loss1/ave_pool
I0403 15:24:37.589045 14790 net.cpp:425] loss1/ave_pool <- inception_4a/output_inception_4a/output_0_split_0
I0403 15:24:37.589061 14790 net.cpp:399] loss1/ave_pool -> loss1/ave_pool
I0403 15:24:37.589267 14790 net.cpp:141] Setting up loss1/ave_pool
I0403 15:24:37.589293 14790 net.cpp:148] Top shape: 24 512 4 4 (196608)
I0403 15:24:37.589308 14790 net.cpp:156] Memory required for data: 945501216
I0403 15:24:37.589323 14790 layer_factory.hpp:77] Creating layer loss1/conv
I0403 15:24:37.589344 14790 net.cpp:91] Creating Layer loss1/conv
I0403 15:24:37.589361 14790 net.cpp:425] loss1/conv <- loss1/ave_pool
I0403 15:24:37.589382 14790 net.cpp:399] loss1/conv -> loss1/conv
I0403 15:24:37.590787 14790 net.cpp:141] Setting up loss1/conv
I0403 15:24:37.590816 14790 net.cpp:148] Top shape: 24 128 4 4 (49152)
I0403 15:24:37.590831 14790 net.cpp:156] Memory required for data: 945697824
I0403 15:24:37.590863 14790 layer_factory.hpp:77] Creating layer loss1/relu_conv
I0403 15:24:37.590885 14790 net.cpp:91] Creating Layer loss1/relu_conv
I0403 15:24:37.590903 14790 net.cpp:425] loss1/relu_conv <- loss1/conv
I0403 15:24:37.590919 14790 net.cpp:386] loss1/relu_conv -> loss1/conv (in-place)
I0403 15:24:37.591200 14790 net.cpp:141] Setting up loss1/relu_conv
I0403 15:24:37.591226 14790 net.cpp:148] Top shape: 24 128 4 4 (49152)
I0403 15:24:37.591243 14790 net.cpp:156] Memory required for data: 945894432
I0403 15:24:37.591258 14790 layer_factory.hpp:77] Creating layer loss1/fc
I0403 15:24:37.591282 14790 net.cpp:91] Creating Layer loss1/fc
I0403 15:24:37.591301 14790 net.cpp:425] loss1/fc <- loss1/conv
I0403 15:24:37.591322 14790 net.cpp:399] loss1/fc -> loss1/fc
I0403 15:24:37.609077 14790 net.cpp:141] Setting up loss1/fc
I0403 15:24:37.609109 14790 net.cpp:148] Top shape: 24 1024 (24576)
I0403 15:24:37.609127 14790 net.cpp:156] Memory required for data: 945992736
I0403 15:24:37.609146 14790 layer_factory.hpp:77] Creating layer loss1/relu_fc
I0403 15:24:37.609164 14790 net.cpp:91] Creating Layer loss1/relu_fc
I0403 15:24:37.609180 14790 net.cpp:425] loss1/relu_fc <- loss1/fc
I0403 15:24:37.609200 14790 net.cpp:386] loss1/relu_fc -> loss1/fc (in-place)
I0403 15:24:37.609390 14790 net.cpp:141] Setting up loss1/relu_fc
I0403 15:24:37.609416 14790 net.cpp:148] Top shape: 24 1024 (24576)
I0403 15:24:37.609431 14790 net.cpp:156] Memory required for data: 946091040
I0403 15:24:37.609446 14790 layer_factory.hpp:77] Creating layer loss1/drop_fc
I0403 15:24:37.609472 14790 net.cpp:91] Creating Layer loss1/drop_fc
I0403 15:24:37.609489 14790 net.cpp:425] loss1/drop_fc <- loss1/fc
I0403 15:24:37.609510 14790 net.cpp:386] loss1/drop_fc -> loss1/fc (in-place)
I0403 15:24:37.609561 14790 net.cpp:141] Setting up loss1/drop_fc
I0403 15:24:37.609587 14790 net.cpp:148] Top shape: 24 1024 (24576)
I0403 15:24:37.609602 14790 net.cpp:156] Memory required for data: 946189344
I0403 15:24:37.609617 14790 layer_factory.hpp:77] Creating layer loss1/classifier_plantvillage
I0403 15:24:37.609635 14790 net.cpp:91] Creating Layer loss1/classifier_plantvillage
I0403 15:24:37.609652 14790 net.cpp:425] loss1/classifier_plantvillage <- loss1/fc
I0403 15:24:37.609673 14790 net.cpp:399] loss1/classifier_plantvillage -> loss1/classifier_plantvillage
I0403 15:24:37.610607 14790 net.cpp:141] Setting up loss1/classifier_plantvillage
I0403 15:24:37.610635 14790 net.cpp:148] Top shape: 24 38 (912)
I0403 15:24:37.610651 14790 net.cpp:156] Memory required for data: 946192992
I0403 15:24:37.610668 14790 layer_factory.hpp:77] Creating layer loss1/classifier_plantvillage_loss1/classifier_plantvillage_0_split
I0403 15:24:37.610687 14790 net.cpp:91] Creating Layer loss1/classifier_plantvillage_loss1/classifier_plantvillage_0_split
I0403 15:24:37.610704 14790 net.cpp:425] loss1/classifier_plantvillage_loss1/classifier_plantvillage_0_split <- loss1/classifier_plantvillage
I0403 15:24:37.610723 14790 net.cpp:399] loss1/classifier_plantvillage_loss1/classifier_plantvillage_0_split -> loss1/classifier_plantvillage_loss1/classifier_plantvillage_0_split_0
I0403 15:24:37.610743 14790 net.cpp:399] loss1/classifier_plantvillage_loss1/classifier_plantvillage_0_split -> loss1/classifier_plantvillage_loss1/classifier_plantvillage_0_split_1
I0403 15:24:37.610764 14790 net.cpp:399] loss1/classifier_plantvillage_loss1/classifier_plantvillage_0_split -> loss1/classifier_plantvillage_loss1/classifier_plantvillage_0_split_2
I0403 15:24:37.610831 14790 net.cpp:141] Setting up loss1/classifier_plantvillage_loss1/classifier_plantvillage_0_split
I0403 15:24:37.610853 14790 net.cpp:148] Top shape: 24 38 (912)
I0403 15:24:37.610869 14790 net.cpp:148] Top shape: 24 38 (912)
I0403 15:24:37.610884 14790 net.cpp:148] Top shape: 24 38 (912)
I0403 15:24:37.610898 14790 net.cpp:156] Memory required for data: 946203936
I0403 15:24:37.610911 14790 layer_factory.hpp:77] Creating layer inception_4b/1x1
I0403 15:24:37.610934 14790 net.cpp:91] Creating Layer inception_4b/1x1
I0403 15:24:37.610966 14790 net.cpp:425] inception_4b/1x1 <- inception_4a/output_inception_4a/output_0_split_1
I0403 15:24:37.610986 14790 net.cpp:399] inception_4b/1x1 -> inception_4b/1x1
I0403 15:24:37.612613 14790 net.cpp:141] Setting up inception_4b/1x1
I0403 15:24:37.612642 14790 net.cpp:148] Top shape: 24 160 14 14 (752640)
I0403 15:24:37.612658 14790 net.cpp:156] Memory required for data: 949214496
I0403 15:24:37.612675 14790 layer_factory.hpp:77] Creating layer inception_4b/relu_1x1
I0403 15:24:37.612695 14790 net.cpp:91] Creating Layer inception_4b/relu_1x1
I0403 15:24:37.612712 14790 net.cpp:425] inception_4b/relu_1x1 <- inception_4b/1x1
I0403 15:24:37.612730 14790 net.cpp:386] inception_4b/relu_1x1 -> inception_4b/1x1 (in-place)
I0403 15:24:37.612910 14790 net.cpp:141] Setting up inception_4b/relu_1x1
I0403 15:24:37.612936 14790 net.cpp:148] Top shape: 24 160 14 14 (752640)
I0403 15:24:37.612951 14790 net.cpp:156] Memory required for data: 952225056
I0403 15:24:37.612964 14790 layer_factory.hpp:77] Creating layer inception_4b/3x3_reduce
I0403 15:24:37.612988 14790 net.cpp:91] Creating Layer inception_4b/3x3_reduce
I0403 15:24:37.613006 14790 net.cpp:425] inception_4b/3x3_reduce <- inception_4a/output_inception_4a/output_0_split_2
I0403 15:24:37.613029 14790 net.cpp:399] inception_4b/3x3_reduce -> inception_4b/3x3_reduce
I0403 15:24:37.614362 14790 net.cpp:141] Setting up inception_4b/3x3_reduce
I0403 15:24:37.614393 14790 net.cpp:148] Top shape: 24 112 14 14 (526848)
I0403 15:24:37.614410 14790 net.cpp:156] Memory required for data: 954332448
I0403 15:24:37.614428 14790 layer_factory.hpp:77] Creating layer inception_4b/relu_3x3_reduce
I0403 15:24:37.614447 14790 net.cpp:91] Creating Layer inception_4b/relu_3x3_reduce
I0403 15:24:37.614462 14790 net.cpp:425] inception_4b/relu_3x3_reduce <- inception_4b/3x3_reduce
I0403 15:24:37.614482 14790 net.cpp:386] inception_4b/relu_3x3_reduce -> inception_4b/3x3_reduce (in-place)
I0403 15:24:37.614768 14790 net.cpp:141] Setting up inception_4b/relu_3x3_reduce
I0403 15:24:37.614799 14790 net.cpp:148] Top shape: 24 112 14 14 (526848)
I0403 15:24:37.614814 14790 net.cpp:156] Memory required for data: 956439840
I0403 15:24:37.614830 14790 layer_factory.hpp:77] Creating layer inception_4b/3x3
I0403 15:24:37.614852 14790 net.cpp:91] Creating Layer inception_4b/3x3
I0403 15:24:37.614871 14790 net.cpp:425] inception_4b/3x3 <- inception_4b/3x3_reduce
I0403 15:24:37.614891 14790 net.cpp:399] inception_4b/3x3 -> inception_4b/3x3
I0403 15:24:37.617872 14790 net.cpp:141] Setting up inception_4b/3x3
I0403 15:24:37.617902 14790 net.cpp:148] Top shape: 24 224 14 14 (1053696)
I0403 15:24:37.617918 14790 net.cpp:156] Memory required for data: 960654624
I0403 15:24:37.617935 14790 layer_factory.hpp:77] Creating layer inception_4b/relu_3x3
I0403 15:24:37.617954 14790 net.cpp:91] Creating Layer inception_4b/relu_3x3
I0403 15:24:37.617970 14790 net.cpp:425] inception_4b/relu_3x3 <- inception_4b/3x3
I0403 15:24:37.617990 14790 net.cpp:386] inception_4b/relu_3x3 -> inception_4b/3x3 (in-place)
I0403 15:24:37.618168 14790 net.cpp:141] Setting up inception_4b/relu_3x3
I0403 15:24:37.618194 14790 net.cpp:148] Top shape: 24 224 14 14 (1053696)
I0403 15:24:37.618208 14790 net.cpp:156] Memory required for data: 964869408
I0403 15:24:37.618223 14790 layer_factory.hpp:77] Creating layer inception_4b/5x5_reduce
I0403 15:24:37.618245 14790 net.cpp:91] Creating Layer inception_4b/5x5_reduce
I0403 15:24:37.618264 14790 net.cpp:425] inception_4b/5x5_reduce <- inception_4a/output_inception_4a/output_0_split_3
I0403 15:24:37.618286 14790 net.cpp:399] inception_4b/5x5_reduce -> inception_4b/5x5_reduce
I0403 15:24:37.619376 14790 net.cpp:141] Setting up inception_4b/5x5_reduce
I0403 15:24:37.619406 14790 net.cpp:148] Top shape: 24 24 14 14 (112896)
I0403 15:24:37.619423 14790 net.cpp:156] Memory required for data: 965320992
I0403 15:24:37.619441 14790 layer_factory.hpp:77] Creating layer inception_4b/relu_5x5_reduce
I0403 15:24:37.619459 14790 net.cpp:91] Creating Layer inception_4b/relu_5x5_reduce
I0403 15:24:37.619490 14790 net.cpp:425] inception_4b/relu_5x5_reduce <- inception_4b/5x5_reduce
I0403 15:24:37.619513 14790 net.cpp:386] inception_4b/relu_5x5_reduce -> inception_4b/5x5_reduce (in-place)
I0403 15:24:37.619700 14790 net.cpp:141] Setting up inception_4b/relu_5x5_reduce
I0403 15:24:37.619724 14790 net.cpp:148] Top shape: 24 24 14 14 (112896)
I0403 15:24:37.619740 14790 net.cpp:156] Memory required for data: 965772576
I0403 15:24:37.619755 14790 layer_factory.hpp:77] Creating layer inception_4b/5x5
I0403 15:24:37.619776 14790 net.cpp:91] Creating Layer inception_4b/5x5
I0403 15:24:37.619794 14790 net.cpp:425] inception_4b/5x5 <- inception_4b/5x5_reduce
I0403 15:24:37.619815 14790 net.cpp:399] inception_4b/5x5 -> inception_4b/5x5
I0403 15:24:37.621045 14790 net.cpp:141] Setting up inception_4b/5x5
I0403 15:24:37.621073 14790 net.cpp:148] Top shape: 24 64 14 14 (301056)
I0403 15:24:37.621088 14790 net.cpp:156] Memory required for data: 966976800
I0403 15:24:37.621107 14790 layer_factory.hpp:77] Creating layer inception_4b/relu_5x5
I0403 15:24:37.621127 14790 net.cpp:91] Creating Layer inception_4b/relu_5x5
I0403 15:24:37.621145 14790 net.cpp:425] inception_4b/relu_5x5 <- inception_4b/5x5
I0403 15:24:37.621162 14790 net.cpp:386] inception_4b/relu_5x5 -> inception_4b/5x5 (in-place)
I0403 15:24:37.621454 14790 net.cpp:141] Setting up inception_4b/relu_5x5
I0403 15:24:37.621480 14790 net.cpp:148] Top shape: 24 64 14 14 (301056)
I0403 15:24:37.621495 14790 net.cpp:156] Memory required for data: 968181024
I0403 15:24:37.621515 14790 layer_factory.hpp:77] Creating layer inception_4b/pool
I0403 15:24:37.621536 14790 net.cpp:91] Creating Layer inception_4b/pool
I0403 15:24:37.621554 14790 net.cpp:425] inception_4b/pool <- inception_4a/output_inception_4a/output_0_split_4
I0403 15:24:37.621572 14790 net.cpp:399] inception_4b/pool -> inception_4b/pool
I0403 15:24:37.621636 14790 net.cpp:141] Setting up inception_4b/pool
I0403 15:24:37.621660 14790 net.cpp:148] Top shape: 24 512 14 14 (2408448)
I0403 15:24:37.621675 14790 net.cpp:156] Memory required for data: 977814816
I0403 15:24:37.621690 14790 layer_factory.hpp:77] Creating layer inception_4b/pool_proj
I0403 15:24:37.621711 14790 net.cpp:91] Creating Layer inception_4b/pool_proj
I0403 15:24:37.621729 14790 net.cpp:425] inception_4b/pool_proj <- inception_4b/pool
I0403 15:24:37.621750 14790 net.cpp:399] inception_4b/pool_proj -> inception_4b/pool_proj
I0403 15:24:37.622946 14790 net.cpp:141] Setting up inception_4b/pool_proj
I0403 15:24:37.622972 14790 net.cpp:148] Top shape: 24 64 14 14 (301056)
I0403 15:24:37.622988 14790 net.cpp:156] Memory required for data: 979019040
I0403 15:24:37.623006 14790 layer_factory.hpp:77] Creating layer inception_4b/relu_pool_proj
I0403 15:24:37.623028 14790 net.cpp:91] Creating Layer inception_4b/relu_pool_proj
I0403 15:24:37.623044 14790 net.cpp:425] inception_4b/relu_pool_proj <- inception_4b/pool_proj
I0403 15:24:37.623061 14790 net.cpp:386] inception_4b/relu_pool_proj -> inception_4b/pool_proj (in-place)
I0403 15:24:37.623244 14790 net.cpp:141] Setting up inception_4b/relu_pool_proj
I0403 15:24:37.623270 14790 net.cpp:148] Top shape: 24 64 14 14 (301056)
I0403 15:24:37.623286 14790 net.cpp:156] Memory required for data: 980223264
I0403 15:24:37.623301 14790 layer_factory.hpp:77] Creating layer inception_4b/output
I0403 15:24:37.623317 14790 net.cpp:91] Creating Layer inception_4b/output
I0403 15:24:37.623332 14790 net.cpp:425] inception_4b/output <- inception_4b/1x1
I0403 15:24:37.623348 14790 net.cpp:425] inception_4b/output <- inception_4b/3x3
I0403 15:24:37.623364 14790 net.cpp:425] inception_4b/output <- inception_4b/5x5
I0403 15:24:37.623379 14790 net.cpp:425] inception_4b/output <- inception_4b/pool_proj
I0403 15:24:37.623399 14790 net.cpp:399] inception_4b/output -> inception_4b/output
I0403 15:24:37.623445 14790 net.cpp:141] Setting up inception_4b/output
I0403 15:24:37.623469 14790 net.cpp:148] Top shape: 24 512 14 14 (2408448)
I0403 15:24:37.623484 14790 net.cpp:156] Memory required for data: 989857056
I0403 15:24:37.623517 14790 layer_factory.hpp:77] Creating layer inception_4b/output_inception_4b/output_0_split
I0403 15:24:37.623536 14790 net.cpp:91] Creating Layer inception_4b/output_inception_4b/output_0_split
I0403 15:24:37.623553 14790 net.cpp:425] inception_4b/output_inception_4b/output_0_split <- inception_4b/output
I0403 15:24:37.623570 14790 net.cpp:399] inception_4b/output_inception_4b/output_0_split -> inception_4b/output_inception_4b/output_0_split_0
I0403 15:24:37.623590 14790 net.cpp:399] inception_4b/output_inception_4b/output_0_split -> inception_4b/output_inception_4b/output_0_split_1
I0403 15:24:37.623613 14790 net.cpp:399] inception_4b/output_inception_4b/output_0_split -> inception_4b/output_inception_4b/output_0_split_2
I0403 15:24:37.623634 14790 net.cpp:399] inception_4b/output_inception_4b/output_0_split -> inception_4b/output_inception_4b/output_0_split_3
I0403 15:24:37.623721 14790 net.cpp:141] Setting up inception_4b/output_inception_4b/output_0_split
I0403 15:24:37.623745 14790 net.cpp:148] Top shape: 24 512 14 14 (2408448)
I0403 15:24:37.623761 14790 net.cpp:148] Top shape: 24 512 14 14 (2408448)
I0403 15:24:37.623776 14790 net.cpp:148] Top shape: 24 512 14 14 (2408448)
I0403 15:24:37.623791 14790 net.cpp:148] Top shape: 24 512 14 14 (2408448)
I0403 15:24:37.623805 14790 net.cpp:156] Memory required for data: 1028392224
I0403 15:24:37.623818 14790 layer_factory.hpp:77] Creating layer inception_4c/1x1
I0403 15:24:37.623842 14790 net.cpp:91] Creating Layer inception_4c/1x1
I0403 15:24:37.623858 14790 net.cpp:425] inception_4c/1x1 <- inception_4b/output_inception_4b/output_0_split_0
I0403 15:24:37.623879 14790 net.cpp:399] inception_4c/1x1 -> inception_4c/1x1
I0403 15:24:37.625319 14790 net.cpp:141] Setting up inception_4c/1x1
I0403 15:24:37.625347 14790 net.cpp:148] Top shape: 24 128 14 14 (602112)
I0403 15:24:37.625363 14790 net.cpp:156] Memory required for data: 1030800672
I0403 15:24:37.625381 14790 layer_factory.hpp:77] Creating layer inception_4c/relu_1x1
I0403 15:24:37.625398 14790 net.cpp:91] Creating Layer inception_4c/relu_1x1
I0403 15:24:37.625414 14790 net.cpp:425] inception_4c/relu_1x1 <- inception_4c/1x1
I0403 15:24:37.625433 14790 net.cpp:386] inception_4c/relu_1x1 -> inception_4c/1x1 (in-place)
I0403 15:24:37.625622 14790 net.cpp:141] Setting up inception_4c/relu_1x1
I0403 15:24:37.625645 14790 net.cpp:148] Top shape: 24 128 14 14 (602112)
I0403 15:24:37.625660 14790 net.cpp:156] Memory required for data: 1033209120
I0403 15:24:37.625675 14790 layer_factory.hpp:77] Creating layer inception_4c/3x3_reduce
I0403 15:24:37.625697 14790 net.cpp:91] Creating Layer inception_4c/3x3_reduce
I0403 15:24:37.625715 14790 net.cpp:425] inception_4c/3x3_reduce <- inception_4b/output_inception_4b/output_0_split_1
I0403 15:24:37.625735 14790 net.cpp:399] inception_4c/3x3_reduce -> inception_4c/3x3_reduce
I0403 15:24:37.627666 14790 net.cpp:141] Setting up inception_4c/3x3_reduce
I0403 15:24:37.627694 14790 net.cpp:148] Top shape: 24 128 14 14 (602112)
I0403 15:24:37.627709 14790 net.cpp:156] Memory required for data: 1035617568
I0403 15:24:37.627727 14790 layer_factory.hpp:77] Creating layer inception_4c/relu_3x3_reduce
I0403 15:24:37.627748 14790 net.cpp:91] Creating Layer inception_4c/relu_3x3_reduce
I0403 15:24:37.627763 14790 net.cpp:425] inception_4c/relu_3x3_reduce <- inception_4c/3x3_reduce
I0403 15:24:37.627780 14790 net.cpp:386] inception_4c/relu_3x3_reduce -> inception_4c/3x3_reduce (in-place)
I0403 15:24:37.628059 14790 net.cpp:141] Setting up inception_4c/relu_3x3_reduce
I0403 15:24:37.628084 14790 net.cpp:148] Top shape: 24 128 14 14 (602112)
I0403 15:24:37.628099 14790 net.cpp:156] Memory required for data: 1038026016
I0403 15:24:37.628114 14790 layer_factory.hpp:77] Creating layer inception_4c/3x3
I0403 15:24:37.628136 14790 net.cpp:91] Creating Layer inception_4c/3x3
I0403 15:24:37.628154 14790 net.cpp:425] inception_4c/3x3 <- inception_4c/3x3_reduce
I0403 15:24:37.628175 14790 net.cpp:399] inception_4c/3x3 -> inception_4c/3x3
I0403 15:24:37.631695 14790 net.cpp:141] Setting up inception_4c/3x3
I0403 15:24:37.631734 14790 net.cpp:148] Top shape: 24 256 14 14 (1204224)
I0403 15:24:37.631750 14790 net.cpp:156] Memory required for data: 1042842912
I0403 15:24:37.631780 14790 layer_factory.hpp:77] Creating layer inception_4c/relu_3x3
I0403 15:24:37.631803 14790 net.cpp:91] Creating Layer inception_4c/relu_3x3
I0403 15:24:37.631819 14790 net.cpp:425] inception_4c/relu_3x3 <- inception_4c/3x3
I0403 15:24:37.631835 14790 net.cpp:386] inception_4c/relu_3x3 -> inception_4c/3x3 (in-place)
I0403 15:24:37.632015 14790 net.cpp:141] Setting up inception_4c/relu_3x3
I0403 15:24:37.632042 14790 net.cpp:148] Top shape: 24 256 14 14 (1204224)
I0403 15:24:37.632057 14790 net.cpp:156] Memory required for data: 1047659808
I0403 15:24:37.632071 14790 layer_factory.hpp:77] Creating layer inception_4c/5x5_reduce
I0403 15:24:37.632094 14790 net.cpp:91] Creating Layer inception_4c/5x5_reduce
I0403 15:24:37.632112 14790 net.cpp:425] inception_4c/5x5_reduce <- inception_4b/output_inception_4b/output_0_split_2
I0403 15:24:37.632130 14790 net.cpp:399] inception_4c/5x5_reduce -> inception_4c/5x5_reduce
I0403 15:24:37.633190 14790 net.cpp:141] Setting up inception_4c/5x5_reduce
I0403 15:24:37.633219 14790 net.cpp:148] Top shape: 24 24 14 14 (112896)
I0403 15:24:37.633242 14790 net.cpp:156] Memory required for data: 1048111392
I0403 15:24:37.633261 14790 layer_factory.hpp:77] Creating layer inception_4c/relu_5x5_reduce
I0403 15:24:37.633278 14790 net.cpp:91] Creating Layer inception_4c/relu_5x5_reduce
I0403 15:24:37.633294 14790 net.cpp:425] inception_4c/relu_5x5_reduce <- inception_4c/5x5_reduce
I0403 15:24:37.633311 14790 net.cpp:386] inception_4c/relu_5x5_reduce -> inception_4c/5x5_reduce (in-place)
I0403 15:24:37.633491 14790 net.cpp:141] Setting up inception_4c/relu_5x5_reduce
I0403 15:24:37.633520 14790 net.cpp:148] Top shape: 24 24 14 14 (112896)
I0403 15:24:37.633536 14790 net.cpp:156] Memory required for data: 1048562976
I0403 15:24:37.633551 14790 layer_factory.hpp:77] Creating layer inception_4c/5x5
I0403 15:24:37.633572 14790 net.cpp:91] Creating Layer inception_4c/5x5
I0403 15:24:37.633590 14790 net.cpp:425] inception_4c/5x5 <- inception_4c/5x5_reduce
I0403 15:24:37.633610 14790 net.cpp:399] inception_4c/5x5 -> inception_4c/5x5
I0403 15:24:37.634821 14790 net.cpp:141] Setting up inception_4c/5x5
I0403 15:24:37.634847 14790 net.cpp:148] Top shape: 24 64 14 14 (301056)
I0403 15:24:37.634863 14790 net.cpp:156] Memory required for data: 1049767200
I0403 15:24:37.634881 14790 layer_factory.hpp:77] Creating layer inception_4c/relu_5x5
I0403 15:24:37.634899 14790 net.cpp:91] Creating Layer inception_4c/relu_5x5
I0403 15:24:37.634914 14790 net.cpp:425] inception_4c/relu_5x5 <- inception_4c/5x5
I0403 15:24:37.634932 14790 net.cpp:386] inception_4c/relu_5x5 -> inception_4c/5x5 (in-place)
I0403 15:24:37.635226 14790 net.cpp:141] Setting up inception_4c/relu_5x5
I0403 15:24:37.635252 14790 net.cpp:148] Top shape: 24 64 14 14 (301056)
I0403 15:24:37.635268 14790 net.cpp:156] Memory required for data: 1050971424
I0403 15:24:37.635282 14790 layer_factory.hpp:77] Creating layer inception_4c/pool
I0403 15:24:37.635299 14790 net.cpp:91] Creating Layer inception_4c/pool
I0403 15:24:37.635315 14790 net.cpp:425] inception_4c/pool <- inception_4b/output_inception_4b/output_0_split_3
I0403 15:24:37.635334 14790 net.cpp:399] inception_4c/pool -> inception_4c/pool
I0403 15:24:37.635399 14790 net.cpp:141] Setting up inception_4c/pool
I0403 15:24:37.635421 14790 net.cpp:148] Top shape: 24 512 14 14 (2408448)
I0403 15:24:37.635437 14790 net.cpp:156] Memory required for data: 1060605216
I0403 15:24:37.635450 14790 layer_factory.hpp:77] Creating layer inception_4c/pool_proj
I0403 15:24:37.635474 14790 net.cpp:91] Creating Layer inception_4c/pool_proj
I0403 15:24:37.635491 14790 net.cpp:425] inception_4c/pool_proj <- inception_4c/pool
I0403 15:24:37.635512 14790 net.cpp:399] inception_4c/pool_proj -> inception_4c/pool_proj
I0403 15:24:37.636713 14790 net.cpp:141] Setting up inception_4c/pool_proj
I0403 15:24:37.636740 14790 net.cpp:148] Top shape: 24 64 14 14 (301056)
I0403 15:24:37.636770 14790 net.cpp:156] Memory required for data: 1061809440
I0403 15:24:37.636790 14790 layer_factory.hpp:77] Creating layer inception_4c/relu_pool_proj
I0403 15:24:37.636808 14790 net.cpp:91] Creating Layer inception_4c/relu_pool_proj
I0403 15:24:37.636826 14790 net.cpp:425] inception_4c/relu_pool_proj <- inception_4c/pool_proj
I0403 15:24:37.636842 14790 net.cpp:386] inception_4c/relu_pool_proj -> inception_4c/pool_proj (in-place)
I0403 15:24:37.637023 14790 net.cpp:141] Setting up inception_4c/relu_pool_proj
I0403 15:24:37.637048 14790 net.cpp:148] Top shape: 24 64 14 14 (301056)
I0403 15:24:37.637063 14790 net.cpp:156] Memory required for data: 1063013664
I0403 15:24:37.637076 14790 layer_factory.hpp:77] Creating layer inception_4c/output
I0403 15:24:37.637092 14790 net.cpp:91] Creating Layer inception_4c/output
I0403 15:24:37.637107 14790 net.cpp:425] inception_4c/output <- inception_4c/1x1
I0403 15:24:37.637123 14790 net.cpp:425] inception_4c/output <- inception_4c/3x3
I0403 15:24:37.637140 14790 net.cpp:425] inception_4c/output <- inception_4c/5x5
I0403 15:24:37.637153 14790 net.cpp:425] inception_4c/output <- inception_4c/pool_proj
I0403 15:24:37.637172 14790 net.cpp:399] inception_4c/output -> inception_4c/output
I0403 15:24:37.637217 14790 net.cpp:141] Setting up inception_4c/output
I0403 15:24:37.637241 14790 net.cpp:148] Top shape: 24 512 14 14 (2408448)
I0403 15:24:37.637258 14790 net.cpp:156] Memory required for data: 1072647456
I0403 15:24:37.637271 14790 layer_factory.hpp:77] Creating layer inception_4c/output_inception_4c/output_0_split
I0403 15:24:37.637287 14790 net.cpp:91] Creating Layer inception_4c/output_inception_4c/output_0_split
I0403 15:24:37.637302 14790 net.cpp:425] inception_4c/output_inception_4c/output_0_split <- inception_4c/output
I0403 15:24:37.637318 14790 net.cpp:399] inception_4c/output_inception_4c/output_0_split -> inception_4c/output_inception_4c/output_0_split_0
I0403 15:24:37.637337 14790 net.cpp:399] inception_4c/output_inception_4c/output_0_split -> inception_4c/output_inception_4c/output_0_split_1
I0403 15:24:37.637357 14790 net.cpp:399] inception_4c/output_inception_4c/output_0_split -> inception_4c/output_inception_4c/output_0_split_2
I0403 15:24:37.637379 14790 net.cpp:399] inception_4c/output_inception_4c/output_0_split -> inception_4c/output_inception_4c/output_0_split_3
I0403 15:24:37.637465 14790 net.cpp:141] Setting up inception_4c/output_inception_4c/output_0_split
I0403 15:24:37.637487 14790 net.cpp:148] Top shape: 24 512 14 14 (2408448)
I0403 15:24:37.637502 14790 net.cpp:148] Top shape: 24 512 14 14 (2408448)
I0403 15:24:37.637523 14790 net.cpp:148] Top shape: 24 512 14 14 (2408448)
I0403 15:24:37.637538 14790 net.cpp:148] Top shape: 24 512 14 14 (2408448)
I0403 15:24:37.637552 14790 net.cpp:156] Memory required for data: 1111182624
I0403 15:24:37.637565 14790 layer_factory.hpp:77] Creating layer inception_4d/1x1
I0403 15:24:37.637586 14790 net.cpp:91] Creating Layer inception_4d/1x1
I0403 15:24:37.637603 14790 net.cpp:425] inception_4d/1x1 <- inception_4c/output_inception_4c/output_0_split_0
I0403 15:24:37.637624 14790 net.cpp:399] inception_4d/1x1 -> inception_4d/1x1
I0403 15:24:37.638969 14790 net.cpp:141] Setting up inception_4d/1x1
I0403 15:24:37.638996 14790 net.cpp:148] Top shape: 24 112 14 14 (526848)
I0403 15:24:37.639011 14790 net.cpp:156] Memory required for data: 1113290016
I0403 15:24:37.639029 14790 layer_factory.hpp:77] Creating layer inception_4d/relu_1x1
I0403 15:24:37.639048 14790 net.cpp:91] Creating Layer inception_4d/relu_1x1
I0403 15:24:37.639065 14790 net.cpp:425] inception_4d/relu_1x1 <- inception_4d/1x1
I0403 15:24:37.639081 14790 net.cpp:386] inception_4d/relu_1x1 -> inception_4d/1x1 (in-place)
I0403 15:24:37.639264 14790 net.cpp:141] Setting up inception_4d/relu_1x1
I0403 15:24:37.639292 14790 net.cpp:148] Top shape: 24 112 14 14 (526848)
I0403 15:24:37.639305 14790 net.cpp:156] Memory required for data: 1115397408
I0403 15:24:37.639319 14790 layer_factory.hpp:77] Creating layer inception_4d/3x3_reduce
I0403 15:24:37.639351 14790 net.cpp:91] Creating Layer inception_4d/3x3_reduce
I0403 15:24:37.639369 14790 net.cpp:425] inception_4d/3x3_reduce <- inception_4c/output_inception_4c/output_0_split_1
I0403 15:24:37.639389 14790 net.cpp:399] inception_4d/3x3_reduce -> inception_4d/3x3_reduce
I0403 15:24:37.640867 14790 net.cpp:141] Setting up inception_4d/3x3_reduce
I0403 15:24:37.640894 14790 net.cpp:148] Top shape: 24 144 14 14 (677376)
I0403 15:24:37.640909 14790 net.cpp:156] Memory required for data: 1118106912
I0403 15:24:37.640928 14790 layer_factory.hpp:77] Creating layer inception_4d/relu_3x3_reduce
I0403 15:24:37.640944 14790 net.cpp:91] Creating Layer inception_4d/relu_3x3_reduce
I0403 15:24:37.640959 14790 net.cpp:425] inception_4d/relu_3x3_reduce <- inception_4d/3x3_reduce
I0403 15:24:37.640979 14790 net.cpp:386] inception_4d/relu_3x3_reduce -> inception_4d/3x3_reduce (in-place)
I0403 15:24:37.641259 14790 net.cpp:141] Setting up inception_4d/relu_3x3_reduce
I0403 15:24:37.641285 14790 net.cpp:148] Top shape: 24 144 14 14 (677376)
I0403 15:24:37.641300 14790 net.cpp:156] Memory required for data: 1120816416
I0403 15:24:37.641315 14790 layer_factory.hpp:77] Creating layer inception_4d/3x3
I0403 15:24:37.641336 14790 net.cpp:91] Creating Layer inception_4d/3x3
I0403 15:24:37.641355 14790 net.cpp:425] inception_4d/3x3 <- inception_4d/3x3_reduce
I0403 15:24:37.641374 14790 net.cpp:399] inception_4d/3x3 -> inception_4d/3x3
I0403 15:24:37.645509 14790 net.cpp:141] Setting up inception_4d/3x3
I0403 15:24:37.645539 14790 net.cpp:148] Top shape: 24 288 14 14 (1354752)
I0403 15:24:37.645555 14790 net.cpp:156] Memory required for data: 1126235424
I0403 15:24:37.645573 14790 layer_factory.hpp:77] Creating layer inception_4d/relu_3x3
I0403 15:24:37.645594 14790 net.cpp:91] Creating Layer inception_4d/relu_3x3
I0403 15:24:37.645612 14790 net.cpp:425] inception_4d/relu_3x3 <- inception_4d/3x3
I0403 15:24:37.645632 14790 net.cpp:386] inception_4d/relu_3x3 -> inception_4d/3x3 (in-place)
I0403 15:24:37.645810 14790 net.cpp:141] Setting up inception_4d/relu_3x3
I0403 15:24:37.645838 14790 net.cpp:148] Top shape: 24 288 14 14 (1354752)
I0403 15:24:37.645853 14790 net.cpp:156] Memory required for data: 1131654432
I0403 15:24:37.645866 14790 layer_factory.hpp:77] Creating layer inception_4d/5x5_reduce
I0403 15:24:37.645887 14790 net.cpp:91] Creating Layer inception_4d/5x5_reduce
I0403 15:24:37.645903 14790 net.cpp:425] inception_4d/5x5_reduce <- inception_4c/output_inception_4c/output_0_split_2
I0403 15:24:37.645921 14790 net.cpp:399] inception_4d/5x5_reduce -> inception_4d/5x5_reduce
I0403 15:24:37.647047 14790 net.cpp:141] Setting up inception_4d/5x5_reduce
I0403 15:24:37.647073 14790 net.cpp:148] Top shape: 24 32 14 14 (150528)
I0403 15:24:37.647088 14790 net.cpp:156] Memory required for data: 1132256544
I0403 15:24:37.647105 14790 layer_factory.hpp:77] Creating layer inception_4d/relu_5x5_reduce
I0403 15:24:37.647125 14790 net.cpp:91] Creating Layer inception_4d/relu_5x5_reduce
I0403 15:24:37.647142 14790 net.cpp:425] inception_4d/relu_5x5_reduce <- inception_4d/5x5_reduce
I0403 15:24:37.647159 14790 net.cpp:386] inception_4d/relu_5x5_reduce -> inception_4d/5x5_reduce (in-place)
I0403 15:24:37.647341 14790 net.cpp:141] Setting up inception_4d/relu_5x5_reduce
I0403 15:24:37.647367 14790 net.cpp:148] Top shape: 24 32 14 14 (150528)
I0403 15:24:37.647383 14790 net.cpp:156] Memory required for data: 1132858656
I0403 15:24:37.647397 14790 layer_factory.hpp:77] Creating layer inception_4d/5x5
I0403 15:24:37.647418 14790 net.cpp:91] Creating Layer inception_4d/5x5
I0403 15:24:37.647435 14790 net.cpp:425] inception_4d/5x5 <- inception_4d/5x5_reduce
I0403 15:24:37.647454 14790 net.cpp:399] inception_4d/5x5 -> inception_4d/5x5
I0403 15:24:37.648900 14790 net.cpp:141] Setting up inception_4d/5x5
I0403 15:24:37.648931 14790 net.cpp:148] Top shape: 24 64 14 14 (301056)
I0403 15:24:37.648947 14790 net.cpp:156] Memory required for data: 1134062880
I0403 15:24:37.648964 14790 layer_factory.hpp:77] Creating layer inception_4d/relu_5x5
I0403 15:24:37.648996 14790 net.cpp:91] Creating Layer inception_4d/relu_5x5
I0403 15:24:37.649013 14790 net.cpp:425] inception_4d/relu_5x5 <- inception_4d/5x5
I0403 15:24:37.649030 14790 net.cpp:386] inception_4d/relu_5x5 -> inception_4d/5x5 (in-place)
I0403 15:24:37.649328 14790 net.cpp:141] Setting up inception_4d/relu_5x5
I0403 15:24:37.649356 14790 net.cpp:148] Top shape: 24 64 14 14 (301056)
I0403 15:24:37.649371 14790 net.cpp:156] Memory required for data: 1135267104
I0403 15:24:37.649385 14790 layer_factory.hpp:77] Creating layer inception_4d/pool
I0403 15:24:37.649402 14790 net.cpp:91] Creating Layer inception_4d/pool
I0403 15:24:37.649418 14790 net.cpp:425] inception_4d/pool <- inception_4c/output_inception_4c/output_0_split_3
I0403 15:24:37.649438 14790 net.cpp:399] inception_4d/pool -> inception_4d/pool
I0403 15:24:37.649503 14790 net.cpp:141] Setting up inception_4d/pool
I0403 15:24:37.649530 14790 net.cpp:148] Top shape: 24 512 14 14 (2408448)
I0403 15:24:37.649545 14790 net.cpp:156] Memory required for data: 1144900896
I0403 15:24:37.649559 14790 layer_factory.hpp:77] Creating layer inception_4d/pool_proj
I0403 15:24:37.649580 14790 net.cpp:91] Creating Layer inception_4d/pool_proj
I0403 15:24:37.649597 14790 net.cpp:425] inception_4d/pool_proj <- inception_4d/pool
I0403 15:24:37.649617 14790 net.cpp:399] inception_4d/pool_proj -> inception_4d/pool_proj
I0403 15:24:37.651341 14790 net.cpp:141] Setting up inception_4d/pool_proj
I0403 15:24:37.651370 14790 net.cpp:148] Top shape: 24 64 14 14 (301056)
I0403 15:24:37.651384 14790 net.cpp:156] Memory required for data: 1146105120
I0403 15:24:37.651402 14790 layer_factory.hpp:77] Creating layer inception_4d/relu_pool_proj
I0403 15:24:37.651422 14790 net.cpp:91] Creating Layer inception_4d/relu_pool_proj
I0403 15:24:37.651438 14790 net.cpp:425] inception_4d/relu_pool_proj <- inception_4d/pool_proj
I0403 15:24:37.651455 14790 net.cpp:386] inception_4d/relu_pool_proj -> inception_4d/pool_proj (in-place)
I0403 15:24:37.651641 14790 net.cpp:141] Setting up inception_4d/relu_pool_proj
I0403 15:24:37.651669 14790 net.cpp:148] Top shape: 24 64 14 14 (301056)
I0403 15:24:37.651684 14790 net.cpp:156] Memory required for data: 1147309344
I0403 15:24:37.651697 14790 layer_factory.hpp:77] Creating layer inception_4d/output
I0403 15:24:37.651715 14790 net.cpp:91] Creating Layer inception_4d/output
I0403 15:24:37.651731 14790 net.cpp:425] inception_4d/output <- inception_4d/1x1
I0403 15:24:37.651746 14790 net.cpp:425] inception_4d/output <- inception_4d/3x3
I0403 15:24:37.651762 14790 net.cpp:425] inception_4d/output <- inception_4d/5x5
I0403 15:24:37.651777 14790 net.cpp:425] inception_4d/output <- inception_4d/pool_proj
I0403 15:24:37.651793 14790 net.cpp:399] inception_4d/output -> inception_4d/output
I0403 15:24:37.651839 14790 net.cpp:141] Setting up inception_4d/output
I0403 15:24:37.651862 14790 net.cpp:148] Top shape: 24 528 14 14 (2483712)
I0403 15:24:37.651877 14790 net.cpp:156] Memory required for data: 1157244192
I0403 15:24:37.651891 14790 layer_factory.hpp:77] Creating layer inception_4d/output_inception_4d/output_0_split
I0403 15:24:37.651908 14790 net.cpp:91] Creating Layer inception_4d/output_inception_4d/output_0_split
I0403 15:24:37.651923 14790 net.cpp:425] inception_4d/output_inception_4d/output_0_split <- inception_4d/output
I0403 15:24:37.651942 14790 net.cpp:399] inception_4d/output_inception_4d/output_0_split -> inception_4d/output_inception_4d/output_0_split_0
I0403 15:24:37.651963 14790 net.cpp:399] inception_4d/output_inception_4d/output_0_split -> inception_4d/output_inception_4d/output_0_split_1
I0403 15:24:37.651983 14790 net.cpp:399] inception_4d/output_inception_4d/output_0_split -> inception_4d/output_inception_4d/output_0_split_2
I0403 15:24:37.652007 14790 net.cpp:399] inception_4d/output_inception_4d/output_0_split -> inception_4d/output_inception_4d/output_0_split_3
I0403 15:24:37.652027 14790 net.cpp:399] inception_4d/output_inception_4d/output_0_split -> inception_4d/output_inception_4d/output_0_split_4
I0403 15:24:37.652127 14790 net.cpp:141] Setting up inception_4d/output_inception_4d/output_0_split
I0403 15:24:37.652161 14790 net.cpp:148] Top shape: 24 528 14 14 (2483712)
I0403 15:24:37.652179 14790 net.cpp:148] Top shape: 24 528 14 14 (2483712)
I0403 15:24:37.652194 14790 net.cpp:148] Top shape: 24 528 14 14 (2483712)
I0403 15:24:37.652209 14790 net.cpp:148] Top shape: 24 528 14 14 (2483712)
I0403 15:24:37.652223 14790 net.cpp:148] Top shape: 24 528 14 14 (2483712)
I0403 15:24:37.652235 14790 net.cpp:156] Memory required for data: 1206918432
I0403 15:24:37.652250 14790 layer_factory.hpp:77] Creating layer loss2/ave_pool
I0403 15:24:37.652268 14790 net.cpp:91] Creating Layer loss2/ave_pool
I0403 15:24:37.652284 14790 net.cpp:425] loss2/ave_pool <- inception_4d/output_inception_4d/output_0_split_0
I0403 15:24:37.652304 14790 net.cpp:399] loss2/ave_pool -> loss2/ave_pool
I0403 15:24:37.652614 14790 net.cpp:141] Setting up loss2/ave_pool
I0403 15:24:37.652639 14790 net.cpp:148] Top shape: 24 528 4 4 (202752)
I0403 15:24:37.652655 14790 net.cpp:156] Memory required for data: 1207729440
I0403 15:24:37.652670 14790 layer_factory.hpp:77] Creating layer loss2/conv
I0403 15:24:37.652691 14790 net.cpp:91] Creating Layer loss2/conv
I0403 15:24:37.652709 14790 net.cpp:425] loss2/conv <- loss2/ave_pool
I0403 15:24:37.652729 14790 net.cpp:399] loss2/conv -> loss2/conv
I0403 15:24:37.654592 14790 net.cpp:141] Setting up loss2/conv
I0403 15:24:37.654620 14790 net.cpp:148] Top shape: 24 128 4 4 (49152)
I0403 15:24:37.654638 14790 net.cpp:156] Memory required for data: 1207926048
I0403 15:24:37.654655 14790 layer_factory.hpp:77] Creating layer loss2/relu_conv
I0403 15:24:37.654682 14790 net.cpp:91] Creating Layer loss2/relu_conv
I0403 15:24:37.654697 14790 net.cpp:425] loss2/relu_conv <- loss2/conv
I0403 15:24:37.654716 14790 net.cpp:386] loss2/relu_conv -> loss2/conv (in-place)
I0403 15:24:37.654995 14790 net.cpp:141] Setting up loss2/relu_conv
I0403 15:24:37.655024 14790 net.cpp:148] Top shape: 24 128 4 4 (49152)
I0403 15:24:37.655038 14790 net.cpp:156] Memory required for data: 1208122656
I0403 15:24:37.655052 14790 layer_factory.hpp:77] Creating layer loss2/fc
I0403 15:24:37.655071 14790 net.cpp:91] Creating Layer loss2/fc
I0403 15:24:37.655086 14790 net.cpp:425] loss2/fc <- loss2/conv
I0403 15:24:37.655107 14790 net.cpp:399] loss2/fc -> loss2/fc
I0403 15:24:37.672214 14790 net.cpp:141] Setting up loss2/fc
I0403 15:24:37.672245 14790 net.cpp:148] Top shape: 24 1024 (24576)
I0403 15:24:37.672262 14790 net.cpp:156] Memory required for data: 1208220960
I0403 15:24:37.672282 14790 layer_factory.hpp:77] Creating layer loss2/relu_fc
I0403 15:24:37.672302 14790 net.cpp:91] Creating Layer loss2/relu_fc
I0403 15:24:37.672320 14790 net.cpp:425] loss2/relu_fc <- loss2/fc
I0403 15:24:37.672338 14790 net.cpp:386] loss2/relu_fc -> loss2/fc (in-place)
I0403 15:24:37.672632 14790 net.cpp:141] Setting up loss2/relu_fc
I0403 15:24:37.672657 14790 net.cpp:148] Top shape: 24 1024 (24576)
I0403 15:24:37.672672 14790 net.cpp:156] Memory required for data: 1208319264
I0403 15:24:37.672686 14790 layer_factory.hpp:77] Creating layer loss2/drop_fc
I0403 15:24:37.672706 14790 net.cpp:91] Creating Layer loss2/drop_fc
I0403 15:24:37.672722 14790 net.cpp:425] loss2/drop_fc <- loss2/fc
I0403 15:24:37.672739 14790 net.cpp:386] loss2/drop_fc -> loss2/fc (in-place)
I0403 15:24:37.672788 14790 net.cpp:141] Setting up loss2/drop_fc
I0403 15:24:37.672811 14790 net.cpp:148] Top shape: 24 1024 (24576)
I0403 15:24:37.672824 14790 net.cpp:156] Memory required for data: 1208417568
I0403 15:24:37.672838 14790 layer_factory.hpp:77] Creating layer loss2/classifier_plantvillage
I0403 15:24:37.672857 14790 net.cpp:91] Creating Layer loss2/classifier_plantvillage
I0403 15:24:37.672871 14790 net.cpp:425] loss2/classifier_plantvillage <- loss2/fc
I0403 15:24:37.672891 14790 net.cpp:399] loss2/classifier_plantvillage -> loss2/classifier_plantvillage
I0403 15:24:37.673285 14790 net.cpp:141] Setting up loss2/classifier_plantvillage
I0403 15:24:37.673310 14790 net.cpp:148] Top shape: 24 38 (912)
I0403 15:24:37.673324 14790 net.cpp:156] Memory required for data: 1208421216
I0403 15:24:37.673357 14790 layer_factory.hpp:77] Creating layer loss2/classifier_plantvillage_loss2/classifier_plantvillage_0_split
I0403 15:24:37.673377 14790 net.cpp:91] Creating Layer loss2/classifier_plantvillage_loss2/classifier_plantvillage_0_split
I0403 15:24:37.673391 14790 net.cpp:425] loss2/classifier_plantvillage_loss2/classifier_plantvillage_0_split <- loss2/classifier_plantvillage
I0403 15:24:37.673410 14790 net.cpp:399] loss2/classifier_plantvillage_loss2/classifier_plantvillage_0_split -> loss2/classifier_plantvillage_loss2/classifier_plantvillage_0_split_0
I0403 15:24:37.673431 14790 net.cpp:399] loss2/classifier_plantvillage_loss2/classifier_plantvillage_0_split -> loss2/classifier_plantvillage_loss2/classifier_plantvillage_0_split_1
I0403 15:24:37.673451 14790 net.cpp:399] loss2/classifier_plantvillage_loss2/classifier_plantvillage_0_split -> loss2/classifier_plantvillage_loss2/classifier_plantvillage_0_split_2
I0403 15:24:37.673530 14790 net.cpp:141] Setting up loss2/classifier_plantvillage_loss2/classifier_plantvillage_0_split
I0403 15:24:37.673554 14790 net.cpp:148] Top shape: 24 38 (912)
I0403 15:24:37.673570 14790 net.cpp:148] Top shape: 24 38 (912)
I0403 15:24:37.673585 14790 net.cpp:148] Top shape: 24 38 (912)
I0403 15:24:37.673599 14790 net.cpp:156] Memory required for data: 1208432160
I0403 15:24:37.673612 14790 layer_factory.hpp:77] Creating layer inception_4e/1x1
I0403 15:24:37.673631 14790 net.cpp:91] Creating Layer inception_4e/1x1
I0403 15:24:37.673647 14790 net.cpp:425] inception_4e/1x1 <- inception_4d/output_inception_4d/output_0_split_1
I0403 15:24:37.673665 14790 net.cpp:399] inception_4e/1x1 -> inception_4e/1x1
I0403 15:24:37.675474 14790 net.cpp:141] Setting up inception_4e/1x1
I0403 15:24:37.675501 14790 net.cpp:148] Top shape: 24 256 14 14 (1204224)
I0403 15:24:37.675521 14790 net.cpp:156] Memory required for data: 1213249056
I0403 15:24:37.675539 14790 layer_factory.hpp:77] Creating layer inception_4e/relu_1x1
I0403 15:24:37.675556 14790 net.cpp:91] Creating Layer inception_4e/relu_1x1
I0403 15:24:37.675572 14790 net.cpp:425] inception_4e/relu_1x1 <- inception_4e/1x1
I0403 15:24:37.675590 14790 net.cpp:386] inception_4e/relu_1x1 -> inception_4e/1x1 (in-place)
I0403 15:24:37.675880 14790 net.cpp:141] Setting up inception_4e/relu_1x1
I0403 15:24:37.675905 14790 net.cpp:148] Top shape: 24 256 14 14 (1204224)
I0403 15:24:37.675920 14790 net.cpp:156] Memory required for data: 1218065952
I0403 15:24:37.675935 14790 layer_factory.hpp:77] Creating layer inception_4e/3x3_reduce
I0403 15:24:37.675956 14790 net.cpp:91] Creating Layer inception_4e/3x3_reduce
I0403 15:24:37.675973 14790 net.cpp:425] inception_4e/3x3_reduce <- inception_4d/output_inception_4d/output_0_split_2
I0403 15:24:37.675997 14790 net.cpp:399] inception_4e/3x3_reduce -> inception_4e/3x3_reduce
I0403 15:24:37.678087 14790 net.cpp:141] Setting up inception_4e/3x3_reduce
I0403 15:24:37.678117 14790 net.cpp:148] Top shape: 24 160 14 14 (752640)
I0403 15:24:37.678133 14790 net.cpp:156] Memory required for data: 1221076512
I0403 15:24:37.678150 14790 layer_factory.hpp:77] Creating layer inception_4e/relu_3x3_reduce
I0403 15:24:37.678169 14790 net.cpp:91] Creating Layer inception_4e/relu_3x3_reduce
I0403 15:24:37.678184 14790 net.cpp:425] inception_4e/relu_3x3_reduce <- inception_4e/3x3_reduce
I0403 15:24:37.678201 14790 net.cpp:386] inception_4e/relu_3x3_reduce -> inception_4e/3x3_reduce (in-place)
I0403 15:24:37.678382 14790 net.cpp:141] Setting up inception_4e/relu_3x3_reduce
I0403 15:24:37.678406 14790 net.cpp:148] Top shape: 24 160 14 14 (752640)
I0403 15:24:37.678421 14790 net.cpp:156] Memory required for data: 1224087072
I0403 15:24:37.678436 14790 layer_factory.hpp:77] Creating layer inception_4e/3x3
I0403 15:24:37.678455 14790 net.cpp:91] Creating Layer inception_4e/3x3
I0403 15:24:37.678472 14790 net.cpp:425] inception_4e/3x3 <- inception_4e/3x3_reduce
I0403 15:24:37.678494 14790 net.cpp:399] inception_4e/3x3 -> inception_4e/3x3
I0403 15:24:37.683349 14790 net.cpp:141] Setting up inception_4e/3x3
I0403 15:24:37.683390 14790 net.cpp:148] Top shape: 24 320 14 14 (1505280)
I0403 15:24:37.683406 14790 net.cpp:156] Memory required for data: 1230108192
I0403 15:24:37.683423 14790 layer_factory.hpp:77] Creating layer inception_4e/relu_3x3
I0403 15:24:37.683440 14790 net.cpp:91] Creating Layer inception_4e/relu_3x3
I0403 15:24:37.683457 14790 net.cpp:425] inception_4e/relu_3x3 <- inception_4e/3x3
I0403 15:24:37.683476 14790 net.cpp:386] inception_4e/relu_3x3 -> inception_4e/3x3 (in-place)
I0403 15:24:37.683773 14790 net.cpp:141] Setting up inception_4e/relu_3x3
I0403 15:24:37.683799 14790 net.cpp:148] Top shape: 24 320 14 14 (1505280)
I0403 15:24:37.683814 14790 net.cpp:156] Memory required for data: 1236129312
I0403 15:24:37.683827 14790 layer_factory.hpp:77] Creating layer inception_4e/5x5_reduce
I0403 15:24:37.683852 14790 net.cpp:91] Creating Layer inception_4e/5x5_reduce
I0403 15:24:37.683871 14790 net.cpp:425] inception_4e/5x5_reduce <- inception_4d/output_inception_4d/output_0_split_3
I0403 15:24:37.683892 14790 net.cpp:399] inception_4e/5x5_reduce -> inception_4e/5x5_reduce
I0403 15:24:37.684939 14790 net.cpp:141] Setting up inception_4e/5x5_reduce
I0403 15:24:37.684968 14790 net.cpp:148] Top shape: 24 32 14 14 (150528)
I0403 15:24:37.684984 14790 net.cpp:156] Memory required for data: 1236731424
I0403 15:24:37.685003 14790 layer_factory.hpp:77] Creating layer inception_4e/relu_5x5_reduce
I0403 15:24:37.685021 14790 net.cpp:91] Creating Layer inception_4e/relu_5x5_reduce
I0403 15:24:37.685037 14790 net.cpp:425] inception_4e/relu_5x5_reduce <- inception_4e/5x5_reduce
I0403 15:24:37.685053 14790 net.cpp:386] inception_4e/relu_5x5_reduce -> inception_4e/5x5_reduce (in-place)
I0403 15:24:37.685346 14790 net.cpp:141] Setting up inception_4e/relu_5x5_reduce
I0403 15:24:37.685374 14790 net.cpp:148] Top shape: 24 32 14 14 (150528)
I0403 15:24:37.685389 14790 net.cpp:156] Memory required for data: 1237333536
I0403 15:24:37.685405 14790 layer_factory.hpp:77] Creating layer inception_4e/5x5
I0403 15:24:37.685442 14790 net.cpp:91] Creating Layer inception_4e/5x5
I0403 15:24:37.685461 14790 net.cpp:425] inception_4e/5x5 <- inception_4e/5x5_reduce
I0403 15:24:37.685480 14790 net.cpp:399] inception_4e/5x5 -> inception_4e/5x5
I0403 15:24:37.687270 14790 net.cpp:141] Setting up inception_4e/5x5
I0403 15:24:37.687297 14790 net.cpp:148] Top shape: 24 128 14 14 (602112)
I0403 15:24:37.687312 14790 net.cpp:156] Memory required for data: 1239741984
I0403 15:24:37.687330 14790 layer_factory.hpp:77] Creating layer inception_4e/relu_5x5
I0403 15:24:37.687350 14790 net.cpp:91] Creating Layer inception_4e/relu_5x5
I0403 15:24:37.687366 14790 net.cpp:425] inception_4e/relu_5x5 <- inception_4e/5x5
I0403 15:24:37.687382 14790 net.cpp:386] inception_4e/relu_5x5 -> inception_4e/5x5 (in-place)
I0403 15:24:37.687580 14790 net.cpp:141] Setting up inception_4e/relu_5x5
I0403 15:24:37.687607 14790 net.cpp:148] Top shape: 24 128 14 14 (602112)
I0403 15:24:37.687623 14790 net.cpp:156] Memory required for data: 1242150432
I0403 15:24:37.687636 14790 layer_factory.hpp:77] Creating layer inception_4e/pool
I0403 15:24:37.687654 14790 net.cpp:91] Creating Layer inception_4e/pool
I0403 15:24:37.687670 14790 net.cpp:425] inception_4e/pool <- inception_4d/output_inception_4d/output_0_split_4
I0403 15:24:37.687690 14790 net.cpp:399] inception_4e/pool -> inception_4e/pool
I0403 15:24:37.687757 14790 net.cpp:141] Setting up inception_4e/pool
I0403 15:24:37.687780 14790 net.cpp:148] Top shape: 24 528 14 14 (2483712)
I0403 15:24:37.687794 14790 net.cpp:156] Memory required for data: 1252085280
I0403 15:24:37.687809 14790 layer_factory.hpp:77] Creating layer inception_4e/pool_proj
I0403 15:24:37.687830 14790 net.cpp:91] Creating Layer inception_4e/pool_proj
I0403 15:24:37.687846 14790 net.cpp:425] inception_4e/pool_proj <- inception_4e/pool
I0403 15:24:37.687866 14790 net.cpp:399] inception_4e/pool_proj -> inception_4e/pool_proj
I0403 15:24:37.689334 14790 net.cpp:141] Setting up inception_4e/pool_proj
I0403 15:24:37.689362 14790 net.cpp:148] Top shape: 24 128 14 14 (602112)
I0403 15:24:37.689389 14790 net.cpp:156] Memory required for data: 1254493728
I0403 15:24:37.689409 14790 layer_factory.hpp:77] Creating layer inception_4e/relu_pool_proj
I0403 15:24:37.689429 14790 net.cpp:91] Creating Layer inception_4e/relu_pool_proj
I0403 15:24:37.689445 14790 net.cpp:425] inception_4e/relu_pool_proj <- inception_4e/pool_proj
I0403 15:24:37.689461 14790 net.cpp:386] inception_4e/relu_pool_proj -> inception_4e/pool_proj (in-place)
I0403 15:24:37.689754 14790 net.cpp:141] Setting up inception_4e/relu_pool_proj
I0403 15:24:37.689779 14790 net.cpp:148] Top shape: 24 128 14 14 (602112)
I0403 15:24:37.689795 14790 net.cpp:156] Memory required for data: 1256902176
I0403 15:24:37.689810 14790 layer_factory.hpp:77] Creating layer inception_4e/output
I0403 15:24:37.689829 14790 net.cpp:91] Creating Layer inception_4e/output
I0403 15:24:37.689846 14790 net.cpp:425] inception_4e/output <- inception_4e/1x1
I0403 15:24:37.689862 14790 net.cpp:425] inception_4e/output <- inception_4e/3x3
I0403 15:24:37.689877 14790 net.cpp:425] inception_4e/output <- inception_4e/5x5
I0403 15:24:37.689893 14790 net.cpp:425] inception_4e/output <- inception_4e/pool_proj
I0403 15:24:37.689909 14790 net.cpp:399] inception_4e/output -> inception_4e/output
I0403 15:24:37.689959 14790 net.cpp:141] Setting up inception_4e/output
I0403 15:24:37.689981 14790 net.cpp:148] Top shape: 24 832 14 14 (3913728)
I0403 15:24:37.689996 14790 net.cpp:156] Memory required for data: 1272557088
I0403 15:24:37.690008 14790 layer_factory.hpp:77] Creating layer pool4/3x3_s2
I0403 15:24:37.690026 14790 net.cpp:91] Creating Layer pool4/3x3_s2
I0403 15:24:37.690042 14790 net.cpp:425] pool4/3x3_s2 <- inception_4e/output
I0403 15:24:37.690062 14790 net.cpp:399] pool4/3x3_s2 -> pool4/3x3_s2
I0403 15:24:37.690125 14790 net.cpp:141] Setting up pool4/3x3_s2
I0403 15:24:37.690151 14790 net.cpp:148] Top shape: 24 832 7 7 (978432)
I0403 15:24:37.690166 14790 net.cpp:156] Memory required for data: 1276470816
I0403 15:24:37.690181 14790 layer_factory.hpp:77] Creating layer pool4/3x3_s2_pool4/3x3_s2_0_split
I0403 15:24:37.690196 14790 net.cpp:91] Creating Layer pool4/3x3_s2_pool4/3x3_s2_0_split
I0403 15:24:37.690212 14790 net.cpp:425] pool4/3x3_s2_pool4/3x3_s2_0_split <- pool4/3x3_s2
I0403 15:24:37.690228 14790 net.cpp:399] pool4/3x3_s2_pool4/3x3_s2_0_split -> pool4/3x3_s2_pool4/3x3_s2_0_split_0
I0403 15:24:37.690249 14790 net.cpp:399] pool4/3x3_s2_pool4/3x3_s2_0_split -> pool4/3x3_s2_pool4/3x3_s2_0_split_1
I0403 15:24:37.690271 14790 net.cpp:399] pool4/3x3_s2_pool4/3x3_s2_0_split -> pool4/3x3_s2_pool4/3x3_s2_0_split_2
I0403 15:24:37.690290 14790 net.cpp:399] pool4/3x3_s2_pool4/3x3_s2_0_split -> pool4/3x3_s2_pool4/3x3_s2_0_split_3
I0403 15:24:37.690381 14790 net.cpp:141] Setting up pool4/3x3_s2_pool4/3x3_s2_0_split
I0403 15:24:37.690403 14790 net.cpp:148] Top shape: 24 832 7 7 (978432)
I0403 15:24:37.690418 14790 net.cpp:148] Top shape: 24 832 7 7 (978432)
I0403 15:24:37.690433 14790 net.cpp:148] Top shape: 24 832 7 7 (978432)
I0403 15:24:37.690448 14790 net.cpp:148] Top shape: 24 832 7 7 (978432)
I0403 15:24:37.690461 14790 net.cpp:156] Memory required for data: 1292125728
I0403 15:24:37.690474 14790 layer_factory.hpp:77] Creating layer inception_5a/1x1
I0403 15:24:37.690496 14790 net.cpp:91] Creating Layer inception_5a/1x1
I0403 15:24:37.690521 14790 net.cpp:425] inception_5a/1x1 <- pool4/3x3_s2_pool4/3x3_s2_0_split_0
I0403 15:24:37.690541 14790 net.cpp:399] inception_5a/1x1 -> inception_5a/1x1
I0403 15:24:37.693328 14790 net.cpp:141] Setting up inception_5a/1x1
I0403 15:24:37.693356 14790 net.cpp:148] Top shape: 24 256 7 7 (301056)
I0403 15:24:37.693372 14790 net.cpp:156] Memory required for data: 1293329952
I0403 15:24:37.693389 14790 layer_factory.hpp:77] Creating layer inception_5a/relu_1x1
I0403 15:24:37.693409 14790 net.cpp:91] Creating Layer inception_5a/relu_1x1
I0403 15:24:37.693426 14790 net.cpp:425] inception_5a/relu_1x1 <- inception_5a/1x1
I0403 15:24:37.693442 14790 net.cpp:386] inception_5a/relu_1x1 -> inception_5a/1x1 (in-place)
I0403 15:24:37.693753 14790 net.cpp:141] Setting up inception_5a/relu_1x1
I0403 15:24:37.693778 14790 net.cpp:148] Top shape: 24 256 7 7 (301056)
I0403 15:24:37.693792 14790 net.cpp:156] Memory required for data: 1294534176
I0403 15:24:37.693807 14790 layer_factory.hpp:77] Creating layer inception_5a/3x3_reduce
I0403 15:24:37.693830 14790 net.cpp:91] Creating Layer inception_5a/3x3_reduce
I0403 15:24:37.693847 14790 net.cpp:425] inception_5a/3x3_reduce <- pool4/3x3_s2_pool4/3x3_s2_0_split_1
I0403 15:24:37.693866 14790 net.cpp:399] inception_5a/3x3_reduce -> inception_5a/3x3_reduce
I0403 15:24:37.696444 14790 net.cpp:141] Setting up inception_5a/3x3_reduce
I0403 15:24:37.696471 14790 net.cpp:148] Top shape: 24 160 7 7 (188160)
I0403 15:24:37.696487 14790 net.cpp:156] Memory required for data: 1295286816
I0403 15:24:37.696509 14790 layer_factory.hpp:77] Creating layer inception_5a/relu_3x3_reduce
I0403 15:24:37.696532 14790 net.cpp:91] Creating Layer inception_5a/relu_3x3_reduce
I0403 15:24:37.696548 14790 net.cpp:425] inception_5a/relu_3x3_reduce <- inception_5a/3x3_reduce
I0403 15:24:37.696565 14790 net.cpp:386] inception_5a/relu_3x3_reduce -> inception_5a/3x3_reduce (in-place)
I0403 15:24:37.696749 14790 net.cpp:141] Setting up inception_5a/relu_3x3_reduce
I0403 15:24:37.696774 14790 net.cpp:148] Top shape: 24 160 7 7 (188160)
I0403 15:24:37.696789 14790 net.cpp:156] Memory required for data: 1296039456
I0403 15:24:37.696804 14790 layer_factory.hpp:77] Creating layer inception_5a/3x3
I0403 15:24:37.696827 14790 net.cpp:91] Creating Layer inception_5a/3x3
I0403 15:24:37.696844 14790 net.cpp:425] inception_5a/3x3 <- inception_5a/3x3_reduce
I0403 15:24:37.696862 14790 net.cpp:399] inception_5a/3x3 -> inception_5a/3x3
I0403 15:24:37.701822 14790 net.cpp:141] Setting up inception_5a/3x3
I0403 15:24:37.701851 14790 net.cpp:148] Top shape: 24 320 7 7 (376320)
I0403 15:24:37.701867 14790 net.cpp:156] Memory required for data: 1297544736
I0403 15:24:37.701885 14790 layer_factory.hpp:77] Creating layer inception_5a/relu_3x3
I0403 15:24:37.701903 14790 net.cpp:91] Creating Layer inception_5a/relu_3x3
I0403 15:24:37.701920 14790 net.cpp:425] inception_5a/relu_3x3 <- inception_5a/3x3
I0403 15:24:37.701937 14790 net.cpp:386] inception_5a/relu_3x3 -> inception_5a/3x3 (in-place)
I0403 15:24:37.702224 14790 net.cpp:141] Setting up inception_5a/relu_3x3
I0403 15:24:37.702251 14790 net.cpp:148] Top shape: 24 320 7 7 (376320)
I0403 15:24:37.702268 14790 net.cpp:156] Memory required for data: 1299050016
I0403 15:24:37.702283 14790 layer_factory.hpp:77] Creating layer inception_5a/5x5_reduce
I0403 15:24:37.702303 14790 net.cpp:91] Creating Layer inception_5a/5x5_reduce
I0403 15:24:37.702321 14790 net.cpp:425] inception_5a/5x5_reduce <- pool4/3x3_s2_pool4/3x3_s2_0_split_2
I0403 15:24:37.702340 14790 net.cpp:399] inception_5a/5x5_reduce -> inception_5a/5x5_reduce
I0403 15:24:37.703490 14790 net.cpp:141] Setting up inception_5a/5x5_reduce
I0403 15:24:37.703524 14790 net.cpp:148] Top shape: 24 32 7 7 (37632)
I0403 15:24:37.703541 14790 net.cpp:156] Memory required for data: 1299200544
I0403 15:24:37.703559 14790 layer_factory.hpp:77] Creating layer inception_5a/relu_5x5_reduce
I0403 15:24:37.703577 14790 net.cpp:91] Creating Layer inception_5a/relu_5x5_reduce
I0403 15:24:37.703593 14790 net.cpp:425] inception_5a/relu_5x5_reduce <- inception_5a/5x5_reduce
I0403 15:24:37.703613 14790 net.cpp:386] inception_5a/relu_5x5_reduce -> inception_5a/5x5_reduce (in-place)
I0403 15:24:37.703907 14790 net.cpp:141] Setting up inception_5a/relu_5x5_reduce
I0403 15:24:37.703935 14790 net.cpp:148] Top shape: 24 32 7 7 (37632)
I0403 15:24:37.703951 14790 net.cpp:156] Memory required for data: 1299351072
I0403 15:24:37.703965 14790 layer_factory.hpp:77] Creating layer inception_5a/5x5
I0403 15:24:37.703987 14790 net.cpp:91] Creating Layer inception_5a/5x5
I0403 15:24:37.704005 14790 net.cpp:425] inception_5a/5x5 <- inception_5a/5x5_reduce
I0403 15:24:37.704023 14790 net.cpp:399] inception_5a/5x5 -> inception_5a/5x5
I0403 15:24:37.705747 14790 net.cpp:141] Setting up inception_5a/5x5
I0403 15:24:37.705786 14790 net.cpp:148] Top shape: 24 128 7 7 (150528)
I0403 15:24:37.705806 14790 net.cpp:156] Memory required for data: 1299953184
I0403 15:24:37.705824 14790 layer_factory.hpp:77] Creating layer inception_5a/relu_5x5
I0403 15:24:37.705842 14790 net.cpp:91] Creating Layer inception_5a/relu_5x5
I0403 15:24:37.705857 14790 net.cpp:425] inception_5a/relu_5x5 <- inception_5a/5x5
I0403 15:24:37.705873 14790 net.cpp:386] inception_5a/relu_5x5 -> inception_5a/5x5 (in-place)
I0403 15:24:37.706064 14790 net.cpp:141] Setting up inception_5a/relu_5x5
I0403 15:24:37.706090 14790 net.cpp:148] Top shape: 24 128 7 7 (150528)
I0403 15:24:37.706105 14790 net.cpp:156] Memory required for data: 1300555296
I0403 15:24:37.706120 14790 layer_factory.hpp:77] Creating layer inception_5a/pool
I0403 15:24:37.706135 14790 net.cpp:91] Creating Layer inception_5a/pool
I0403 15:24:37.706151 14790 net.cpp:425] inception_5a/pool <- pool4/3x3_s2_pool4/3x3_s2_0_split_3
I0403 15:24:37.706171 14790 net.cpp:399] inception_5a/pool -> inception_5a/pool
I0403 15:24:37.706239 14790 net.cpp:141] Setting up inception_5a/pool
I0403 15:24:37.706266 14790 net.cpp:148] Top shape: 24 832 7 7 (978432)
I0403 15:24:37.706281 14790 net.cpp:156] Memory required for data: 1304469024
I0403 15:24:37.706295 14790 layer_factory.hpp:77] Creating layer inception_5a/pool_proj
I0403 15:24:37.706315 14790 net.cpp:91] Creating Layer inception_5a/pool_proj
I0403 15:24:37.706331 14790 net.cpp:425] inception_5a/pool_proj <- inception_5a/pool
I0403 15:24:37.706351 14790 net.cpp:399] inception_5a/pool_proj -> inception_5a/pool_proj
I0403 15:24:37.708606 14790 net.cpp:141] Setting up inception_5a/pool_proj
I0403 15:24:37.708633 14790 net.cpp:148] Top shape: 24 128 7 7 (150528)
I0403 15:24:37.708648 14790 net.cpp:156] Memory required for data: 1305071136
I0403 15:24:37.708667 14790 layer_factory.hpp:77] Creating layer inception_5a/relu_pool_proj
I0403 15:24:37.708685 14790 net.cpp:91] Creating Layer inception_5a/relu_pool_proj
I0403 15:24:37.708703 14790 net.cpp:425] inception_5a/relu_pool_proj <- inception_5a/pool_proj
I0403 15:24:37.708719 14790 net.cpp:386] inception_5a/relu_pool_proj -> inception_5a/pool_proj (in-place)
I0403 15:24:37.709010 14790 net.cpp:141] Setting up inception_5a/relu_pool_proj
I0403 15:24:37.709036 14790 net.cpp:148] Top shape: 24 128 7 7 (150528)
I0403 15:24:37.709050 14790 net.cpp:156] Memory required for data: 1305673248
I0403 15:24:37.709065 14790 layer_factory.hpp:77] Creating layer inception_5a/output
I0403 15:24:37.709084 14790 net.cpp:91] Creating Layer inception_5a/output
I0403 15:24:37.709100 14790 net.cpp:425] inception_5a/output <- inception_5a/1x1
I0403 15:24:37.709116 14790 net.cpp:425] inception_5a/output <- inception_5a/3x3
I0403 15:24:37.709131 14790 net.cpp:425] inception_5a/output <- inception_5a/5x5
I0403 15:24:37.709147 14790 net.cpp:425] inception_5a/output <- inception_5a/pool_proj
I0403 15:24:37.709163 14790 net.cpp:399] inception_5a/output -> inception_5a/output
I0403 15:24:37.709213 14790 net.cpp:141] Setting up inception_5a/output
I0403 15:24:37.709249 14790 net.cpp:148] Top shape: 24 832 7 7 (978432)
I0403 15:24:37.709264 14790 net.cpp:156] Memory required for data: 1309586976
I0403 15:24:37.709278 14790 layer_factory.hpp:77] Creating layer inception_5a/output_inception_5a/output_0_split
I0403 15:24:37.709295 14790 net.cpp:91] Creating Layer inception_5a/output_inception_5a/output_0_split
I0403 15:24:37.709311 14790 net.cpp:425] inception_5a/output_inception_5a/output_0_split <- inception_5a/output
I0403 15:24:37.709329 14790 net.cpp:399] inception_5a/output_inception_5a/output_0_split -> inception_5a/output_inception_5a/output_0_split_0
I0403 15:24:37.709350 14790 net.cpp:399] inception_5a/output_inception_5a/output_0_split -> inception_5a/output_inception_5a/output_0_split_1
I0403 15:24:37.709370 14790 net.cpp:399] inception_5a/output_inception_5a/output_0_split -> inception_5a/output_inception_5a/output_0_split_2
I0403 15:24:37.709390 14790 net.cpp:399] inception_5a/output_inception_5a/output_0_split -> inception_5a/output_inception_5a/output_0_split_3
I0403 15:24:37.709509 14790 net.cpp:141] Setting up inception_5a/output_inception_5a/output_0_split
I0403 15:24:37.709547 14790 net.cpp:148] Top shape: 24 832 7 7 (978432)
I0403 15:24:37.709563 14790 net.cpp:148] Top shape: 24 832 7 7 (978432)
I0403 15:24:37.709578 14790 net.cpp:148] Top shape: 24 832 7 7 (978432)
I0403 15:24:37.709594 14790 net.cpp:148] Top shape: 24 832 7 7 (978432)
I0403 15:24:37.709606 14790 net.cpp:156] Memory required for data: 1325241888
I0403 15:24:37.709620 14790 layer_factory.hpp:77] Creating layer inception_5b/1x1
I0403 15:24:37.709642 14790 net.cpp:91] Creating Layer inception_5b/1x1
I0403 15:24:37.709659 14790 net.cpp:425] inception_5b/1x1 <- inception_5a/output_inception_5a/output_0_split_0
I0403 15:24:37.709678 14790 net.cpp:399] inception_5b/1x1 -> inception_5b/1x1
I0403 15:24:37.713340 14790 net.cpp:141] Setting up inception_5b/1x1
I0403 15:24:37.713369 14790 net.cpp:148] Top shape: 24 384 7 7 (451584)
I0403 15:24:37.713384 14790 net.cpp:156] Memory required for data: 1327048224
I0403 15:24:37.713402 14790 layer_factory.hpp:77] Creating layer inception_5b/relu_1x1
I0403 15:24:37.713421 14790 net.cpp:91] Creating Layer inception_5b/relu_1x1
I0403 15:24:37.713438 14790 net.cpp:425] inception_5b/relu_1x1 <- inception_5b/1x1
I0403 15:24:37.713455 14790 net.cpp:386] inception_5b/relu_1x1 -> inception_5b/1x1 (in-place)
I0403 15:24:37.713759 14790 net.cpp:141] Setting up inception_5b/relu_1x1
I0403 15:24:37.713784 14790 net.cpp:148] Top shape: 24 384 7 7 (451584)
I0403 15:24:37.713799 14790 net.cpp:156] Memory required for data: 1328854560
I0403 15:24:37.713814 14790 layer_factory.hpp:77] Creating layer inception_5b/3x3_reduce
I0403 15:24:37.713835 14790 net.cpp:91] Creating Layer inception_5b/3x3_reduce
I0403 15:24:37.713852 14790 net.cpp:425] inception_5b/3x3_reduce <- inception_5a/output_inception_5a/output_0_split_1
I0403 15:24:37.713873 14790 net.cpp:399] inception_5b/3x3_reduce -> inception_5b/3x3_reduce
I0403 15:24:37.716477 14790 net.cpp:141] Setting up inception_5b/3x3_reduce
I0403 15:24:37.716509 14790 net.cpp:148] Top shape: 24 192 7 7 (225792)
I0403 15:24:37.716526 14790 net.cpp:156] Memory required for data: 1329757728
I0403 15:24:37.716545 14790 layer_factory.hpp:77] Creating layer inception_5b/relu_3x3_reduce
I0403 15:24:37.716565 14790 net.cpp:91] Creating Layer inception_5b/relu_3x3_reduce
I0403 15:24:37.716583 14790 net.cpp:425] inception_5b/relu_3x3_reduce <- inception_5b/3x3_reduce
I0403 15:24:37.716598 14790 net.cpp:386] inception_5b/relu_3x3_reduce -> inception_5b/3x3_reduce (in-place)
I0403 15:24:37.716785 14790 net.cpp:141] Setting up inception_5b/relu_3x3_reduce
I0403 15:24:37.716811 14790 net.cpp:148] Top shape: 24 192 7 7 (225792)
I0403 15:24:37.716826 14790 net.cpp:156] Memory required for data: 1330660896
I0403 15:24:37.716840 14790 layer_factory.hpp:77] Creating layer inception_5b/3x3
I0403 15:24:37.716861 14790 net.cpp:91] Creating Layer inception_5b/3x3
I0403 15:24:37.716879 14790 net.cpp:425] inception_5b/3x3 <- inception_5b/3x3_reduce
I0403 15:24:37.716897 14790 net.cpp:399] inception_5b/3x3 -> inception_5b/3x3
I0403 15:24:37.723423 14790 net.cpp:141] Setting up inception_5b/3x3
I0403 15:24:37.723450 14790 net.cpp:148] Top shape: 24 384 7 7 (451584)
I0403 15:24:37.723466 14790 net.cpp:156] Memory required for data: 1332467232
I0403 15:24:37.723484 14790 layer_factory.hpp:77] Creating layer inception_5b/relu_3x3
I0403 15:24:37.723510 14790 net.cpp:91] Creating Layer inception_5b/relu_3x3
I0403 15:24:37.723528 14790 net.cpp:425] inception_5b/relu_3x3 <- inception_5b/3x3
I0403 15:24:37.723546 14790 net.cpp:386] inception_5b/relu_3x3 -> inception_5b/3x3 (in-place)
I0403 15:24:37.723842 14790 net.cpp:141] Setting up inception_5b/relu_3x3
I0403 15:24:37.723867 14790 net.cpp:148] Top shape: 24 384 7 7 (451584)
I0403 15:24:37.723882 14790 net.cpp:156] Memory required for data: 1334273568
I0403 15:24:37.723897 14790 layer_factory.hpp:77] Creating layer inception_5b/5x5_reduce
I0403 15:24:37.723933 14790 net.cpp:91] Creating Layer inception_5b/5x5_reduce
I0403 15:24:37.723953 14790 net.cpp:425] inception_5b/5x5_reduce <- inception_5a/output_inception_5a/output_0_split_2
I0403 15:24:37.723975 14790 net.cpp:399] inception_5b/5x5_reduce -> inception_5b/5x5_reduce
I0403 15:24:37.725241 14790 net.cpp:141] Setting up inception_5b/5x5_reduce
I0403 15:24:37.725270 14790 net.cpp:148] Top shape: 24 48 7 7 (56448)
I0403 15:24:37.725284 14790 net.cpp:156] Memory required for data: 1334499360
I0403 15:24:37.725302 14790 layer_factory.hpp:77] Creating layer inception_5b/relu_5x5_reduce
I0403 15:24:37.725322 14790 net.cpp:91] Creating Layer inception_5b/relu_5x5_reduce
I0403 15:24:37.725338 14790 net.cpp:425] inception_5b/relu_5x5_reduce <- inception_5b/5x5_reduce
I0403 15:24:37.725355 14790 net.cpp:386] inception_5b/relu_5x5_reduce -> inception_5b/5x5_reduce (in-place)
I0403 15:24:37.725728 14790 net.cpp:141] Setting up inception_5b/relu_5x5_reduce
I0403 15:24:37.725754 14790 net.cpp:148] Top shape: 24 48 7 7 (56448)
I0403 15:24:37.725769 14790 net.cpp:156] Memory required for data: 1334725152
I0403 15:24:37.725783 14790 layer_factory.hpp:77] Creating layer inception_5b/5x5
I0403 15:24:37.725802 14790 net.cpp:91] Creating Layer inception_5b/5x5
I0403 15:24:37.725818 14790 net.cpp:425] inception_5b/5x5 <- inception_5b/5x5_reduce
I0403 15:24:37.725837 14790 net.cpp:399] inception_5b/5x5 -> inception_5b/5x5
I0403 15:24:37.727882 14790 net.cpp:141] Setting up inception_5b/5x5
I0403 15:24:37.727910 14790 net.cpp:148] Top shape: 24 128 7 7 (150528)
I0403 15:24:37.727924 14790 net.cpp:156] Memory required for data: 1335327264
I0403 15:24:37.727942 14790 layer_factory.hpp:77] Creating layer inception_5b/relu_5x5
I0403 15:24:37.727962 14790 net.cpp:91] Creating Layer inception_5b/relu_5x5
I0403 15:24:37.727978 14790 net.cpp:425] inception_5b/relu_5x5 <- inception_5b/5x5
I0403 15:24:37.727995 14790 net.cpp:386] inception_5b/relu_5x5 -> inception_5b/5x5 (in-place)
I0403 15:24:37.728188 14790 net.cpp:141] Setting up inception_5b/relu_5x5
I0403 15:24:37.728212 14790 net.cpp:148] Top shape: 24 128 7 7 (150528)
I0403 15:24:37.728226 14790 net.cpp:156] Memory required for data: 1335929376
I0403 15:24:37.728240 14790 layer_factory.hpp:77] Creating layer inception_5b/pool
I0403 15:24:37.728257 14790 net.cpp:91] Creating Layer inception_5b/pool
I0403 15:24:37.728273 14790 net.cpp:425] inception_5b/pool <- inception_5a/output_inception_5a/output_0_split_3
I0403 15:24:37.728293 14790 net.cpp:399] inception_5b/pool -> inception_5b/pool
I0403 15:24:37.728364 14790 net.cpp:141] Setting up inception_5b/pool
I0403 15:24:37.728387 14790 net.cpp:148] Top shape: 24 832 7 7 (978432)
I0403 15:24:37.728402 14790 net.cpp:156] Memory required for data: 1339843104
I0403 15:24:37.728415 14790 layer_factory.hpp:77] Creating layer inception_5b/pool_proj
I0403 15:24:37.728438 14790 net.cpp:91] Creating Layer inception_5b/pool_proj
I0403 15:24:37.728456 14790 net.cpp:425] inception_5b/pool_proj <- inception_5b/pool
I0403 15:24:37.728473 14790 net.cpp:399] inception_5b/pool_proj -> inception_5b/pool_proj
I0403 15:24:37.730736 14790 net.cpp:141] Setting up inception_5b/pool_proj
I0403 15:24:37.730764 14790 net.cpp:148] Top shape: 24 128 7 7 (150528)
I0403 15:24:37.730779 14790 net.cpp:156] Memory required for data: 1340445216
I0403 15:24:37.730798 14790 layer_factory.hpp:77] Creating layer inception_5b/relu_pool_proj
I0403 15:24:37.730816 14790 net.cpp:91] Creating Layer inception_5b/relu_pool_proj
I0403 15:24:37.730834 14790 net.cpp:425] inception_5b/relu_pool_proj <- inception_5b/pool_proj
I0403 15:24:37.730850 14790 net.cpp:386] inception_5b/relu_pool_proj -> inception_5b/pool_proj (in-place)
I0403 15:24:37.731145 14790 net.cpp:141] Setting up inception_5b/relu_pool_proj
I0403 15:24:37.731171 14790 net.cpp:148] Top shape: 24 128 7 7 (150528)
I0403 15:24:37.731185 14790 net.cpp:156] Memory required for data: 1341047328
I0403 15:24:37.731199 14790 layer_factory.hpp:77] Creating layer inception_5b/output
I0403 15:24:37.731218 14790 net.cpp:91] Creating Layer inception_5b/output
I0403 15:24:37.731247 14790 net.cpp:425] inception_5b/output <- inception_5b/1x1
I0403 15:24:37.731267 14790 net.cpp:425] inception_5b/output <- inception_5b/3x3
I0403 15:24:37.731283 14790 net.cpp:425] inception_5b/output <- inception_5b/5x5
I0403 15:24:37.731297 14790 net.cpp:425] inception_5b/output <- inception_5b/pool_proj
I0403 15:24:37.731313 14790 net.cpp:399] inception_5b/output -> inception_5b/output
I0403 15:24:37.731365 14790 net.cpp:141] Setting up inception_5b/output
I0403 15:24:37.731389 14790 net.cpp:148] Top shape: 24 1024 7 7 (1204224)
I0403 15:24:37.731403 14790 net.cpp:156] Memory required for data: 1345864224
I0403 15:24:37.731417 14790 layer_factory.hpp:77] Creating layer pool5/7x7_s1
I0403 15:24:37.731434 14790 net.cpp:91] Creating Layer pool5/7x7_s1
I0403 15:24:37.731449 14790 net.cpp:425] pool5/7x7_s1 <- inception_5b/output
I0403 15:24:37.731468 14790 net.cpp:399] pool5/7x7_s1 -> pool5/7x7_s1
I0403 15:24:37.731686 14790 net.cpp:141] Setting up pool5/7x7_s1
I0403 15:24:37.731714 14790 net.cpp:148] Top shape: 24 1024 1 1 (24576)
I0403 15:24:37.731729 14790 net.cpp:156] Memory required for data: 1345962528
I0403 15:24:37.731744 14790 layer_factory.hpp:77] Creating layer pool5/drop_7x7_s1
I0403 15:24:37.731760 14790 net.cpp:91] Creating Layer pool5/drop_7x7_s1
I0403 15:24:37.731776 14790 net.cpp:425] pool5/drop_7x7_s1 <- pool5/7x7_s1
I0403 15:24:37.731792 14790 net.cpp:386] pool5/drop_7x7_s1 -> pool5/7x7_s1 (in-place)
I0403 15:24:37.731842 14790 net.cpp:141] Setting up pool5/drop_7x7_s1
I0403 15:24:37.731865 14790 net.cpp:148] Top shape: 24 1024 1 1 (24576)
I0403 15:24:37.731880 14790 net.cpp:156] Memory required for data: 1346060832
I0403 15:24:37.731894 14790 layer_factory.hpp:77] Creating layer loss3/classifier_plantvillage
I0403 15:24:37.731914 14790 net.cpp:91] Creating Layer loss3/classifier_plantvillage
I0403 15:24:37.731930 14790 net.cpp:425] loss3/classifier_plantvillage <- pool5/7x7_s1
I0403 15:24:37.731948 14790 net.cpp:399] loss3/classifier_plantvillage -> loss3/classifier_plantvillage
I0403 15:24:37.732367 14790 net.cpp:141] Setting up loss3/classifier_plantvillage
I0403 15:24:37.732391 14790 net.cpp:148] Top shape: 24 38 (912)
I0403 15:24:37.732405 14790 net.cpp:156] Memory required for data: 1346064480
I0403 15:24:37.732422 14790 layer_factory.hpp:77] Creating layer loss3/classifier_plantvillage_loss3/classifier_plantvillage_0_split
I0403 15:24:37.732440 14790 net.cpp:91] Creating Layer loss3/classifier_plantvillage_loss3/classifier_plantvillage_0_split
I0403 15:24:37.732456 14790 net.cpp:425] loss3/classifier_plantvillage_loss3/classifier_plantvillage_0_split <- loss3/classifier_plantvillage
I0403 15:24:37.732476 14790 net.cpp:399] loss3/classifier_plantvillage_loss3/classifier_plantvillage_0_split -> loss3/classifier_plantvillage_loss3/classifier_plantvillage_0_split_0
I0403 15:24:37.732496 14790 net.cpp:399] loss3/classifier_plantvillage_loss3/classifier_plantvillage_0_split -> loss3/classifier_plantvillage_loss3/classifier_plantvillage_0_split_1
I0403 15:24:37.732522 14790 net.cpp:399] loss3/classifier_plantvillage_loss3/classifier_plantvillage_0_split -> loss3/classifier_plantvillage_loss3/classifier_plantvillage_0_split_2
I0403 15:24:37.732542 14790 net.cpp:399] loss3/classifier_plantvillage_loss3/classifier_plantvillage_0_split -> loss3/classifier_plantvillage_loss3/classifier_plantvillage_0_split_3
I0403 15:24:37.732645 14790 net.cpp:141] Setting up loss3/classifier_plantvillage_loss3/classifier_plantvillage_0_split
I0403 15:24:37.732669 14790 net.cpp:148] Top shape: 24 38 (912)
I0403 15:24:37.732686 14790 net.cpp:148] Top shape: 24 38 (912)
I0403 15:24:37.732700 14790 net.cpp:148] Top shape: 24 38 (912)
I0403 15:24:37.732715 14790 net.cpp:148] Top shape: 24 38 (912)
I0403 15:24:37.732728 14790 net.cpp:156] Memory required for data: 1346079072
I0403 15:24:37.732743 14790 layer_factory.hpp:77] Creating layer loss1/loss
I0403 15:24:37.732763 14790 net.cpp:91] Creating Layer loss1/loss
I0403 15:24:37.732779 14790 net.cpp:425] loss1/loss <- loss1/classifier_plantvillage_loss1/classifier_plantvillage_0_split_0
I0403 15:24:37.732808 14790 net.cpp:425] loss1/loss <- label_data_1_split_0
…
