…
I0403 15:42:07.889827 15963 net.cpp:313] The NetState phase (1) differed from the phase (0) specified by a rule in layer data
I0403 15:42:07.890957 15963 net.cpp:49] Initializing net from parameters: 
state {
  phase: TEST
}
layer {
  name: "data"
  type: "Data"
  top: "data"
  top: "label"
  include {
    phase: TEST
  }
  transform_param {
    mirror: false
    crop_size: 224
    mean_file: "/home/mohanty/data/final_dataset/lmdb/color-50-50/mean.binaryproto"
  }
  data_param {
    source: "/home/mohanty/data/final_dataset/lmdb/color-50-50/test_db"
    batch_size: 24
    backend: LMDB
  }
}
layer {
  name: "conv1/7x7_s2"
  type: "Convolution"
  bottom: "data"
  top: "conv1/7x7_s2"
  param {
    lr_mult: 1
    decay_mult: 1
  }
  param {
    lr_mult: 2
    decay_mult: 0
  }
  convolution_param {
    num_output: 64
    pad: 3
    kernel_size: 7
    stride: 2
    weight_filler {
      type: "xavier"
      std: 0.1
    }
    bias_filler {
      type: "constant"
      value: 0.2
    }
  }
}
layer {
  name: "conv1/relu_7x7"
  type: "ReLU"
  bottom: "conv1/7x7_s2"
  top: "conv1/7x7_s2"
}
layer {
  name: "pool1/3x3_s2"
  type: "Pooling"
  bottom: "conv1/7x7_s2"
  top: "pool1/3x3_s2"
  pooling_param {
    pool: MAX
    kernel_size: 3
    stride: 2
  }
}
layer {
  name: "pool1/norm1"
  type: "LRN"
  bottom: "pool1/3x3_s2"
  top: "pool1/norm1"
  lrn_param {
    local_size: 5
    alpha: 0.0001
    beta: 0.75
  }
}
layer {
  name: "conv2/3x3_reduce"
  type: "Convolution"
  bottom: "pool1/norm1"
  top: "conv2/3x3_reduce"
  param {
    lr_mult: 1
    decay_mult: 1
  }
  param {
    lr_mult: 2
    decay_mult: 0
  }
  convolution_param {
    num_output: 64
    kernel_size: 1
    weight_filler {
      type: "xavier"
      std: 0.1
    }
    bias_filler {
      type: "constant"
      value: 0.2
    }
  }
}
layer {
  name: "conv2/relu_3x3_reduce"
  type: "ReLU"
  bottom: "conv2/3x3_reduce"
  top: "conv2/3x3_reduce"
}
layer {
  name: "conv2/3x3"
  type: "Convolution"
  bottom: "conv2/3x3_reduce"
  top: "conv2/3x3"
  param {
    lr_mult: 1
    decay_mult: 1
  }
  param {
    lr_mult: 2
    decay_mult: 0
  }
  convolution_param {
    num_output: 192
    pad: 1
    kernel_size: 3
    weight_filler {
      type: "xavier"
      std: 0.03
    }
    bias_filler {
      type: "constant"
      value: 0.2
    }
  }
}
layer {
  name: "conv2/relu_3x3"
  type: "ReLU"
  bottom: "conv2/3x3"
  top: "conv2/3x3"
}
layer {
  name: "conv2/norm2"
  type: "LRN"
  bottom: "conv2/3x3"
  top: "conv2/norm2"
  lrn_param {
    local_size: 5
    alpha: 0.0001
    beta: 0.75
  }
}
layer {
  name: "pool2/3x3_s2"
  type: "Pooling"
  bottom: "conv2/norm2"
  top: "pool2/3x3_s2"
  pooling_param {
    pool: MAX
    kernel_size: 3
    stride: 2
  }
}
layer {
  name: "inception_3a/1x1"
  type: "Convolution"
  bottom: "pool2/3x3_s2"
  top: "inception_3a/1x1"
  param {
    lr_mult: 1
    decay_mult: 1
  }
  param {
    lr_mult: 2
    decay_mult: 0
  }
  convolution_param {
    num_output: 64
    kernel_size: 1
    weight_filler {
      type: "xavier"
      std: 0.03
    }
    bias_filler {
      type: "constant"
      value: 0.2
    }
  }
}
layer {
  name: "inception_3a/relu_1x1"
  type: "ReLU"
  bottom: "inception_3a/1x1"
  top: "inception_3a/1x1"
}
layer {
  name: "inception_3a/3x3_reduce"
  type: "Convolution"
  bottom: "pool2/3x3_s2"
  top: "inception_3a/3x3_reduce"
  param {
    lr_mult: 1
    decay_mult: 1
  }
  param {
    lr_mult: 2
    decay_mult: 0
  }
  convolution_param {
    num_output: 96
    kernel_size: 1
    weight_filler {
      type: "xavier"
      std: 0.09
    }
    bias_filler {
      type: "constant"
      value: 0.2
    }
  }
}
layer {
  name: "inception_3a/relu_3x3_reduce"
  type: "ReLU"
  bottom: "inception_3a/3x3_reduce"
  top: "inception_3a/3x3_reduce"
}
layer {
  name: "inception_3a/3x3"
  type: "Convolution"
  bottom: "inception_3a/3x3_reduce"
  top: "inception_3a/3x3"
  param {
    lr_mult: 1
    decay_mult: 1
  }
  param {
    lr_mult: 2
    decay_mult: 0
  }
  convolution_param {
    num_output: 128
    pad: 1
    kernel_size: 3
    weight_filler {
      type: "xavier"
      std: 0.03
    }
    bias_filler {
      type: "constant"
      value: 0.2
    }
  }
}
layer {
  name: "inception_3a/relu_3x3"
  type: "ReLU"
  bottom: "inception_3a/3x3"
  top: "inception_3a/3x3"
}
layer {
  name: "inception_3a/5x5_reduce"
  type: "Convolution"
  bottom: "pool2/3x3_s2"
  top: "inception_3a/5x5_reduce"
  param {
    lr_mult: 1
    decay_mult: 1
  }
  param {
    lr_mult: 2
    decay_mult: 0
  }
  convolution_param {
    num_output: 16
    kernel_size: 1
    weight_filler {
      type: "xavier"
      std: 0.2
    }
    bias_filler {
      type: "constant"
      value: 0.2
    }
  }
}
layer {
  name: "inception_3a/relu_5x5_reduce"
  type: "ReLU"
  bottom: "inception_3a/5x5_reduce"
  top: "inception_3a/5x5_reduce"
}
layer {
  name: "inception_3a/5x5"
  type: "Convolution"
  bottom: "inception_3a/5x5_reduce"
  top: "inception_3a/5x5"
  param {
    lr_mult: 1
    decay_mult: 1
  }
  param {
    lr_mult: 2
    decay_mult: 0
  }
  convolution_param {
    num_output: 32
    pad: 2
    kernel_size: 5
    weight_filler {
      type: "xavier"
      std: 0.03
    }
    bias_filler {
      type: "constant"
      value: 0.2
    }
  }
}
layer {
  name: "inception_3a/relu_5x5"
  type: "ReLU"
  bottom: "inception_3a/5x5"
  top: "inception_3a/5x5"
}
layer {
  name: "inception_3a/pool"
  type: "Pooling"
  bottom: "pool2/3x3_s2"
  top: "inception_3a/pool"
  pooling_param {
    pool: MAX
    kernel_size: 3
    stride: 1
    pad: 1
  }
}
layer {
  name: "inception_3a/pool_proj"
  type: "Convolution"
  bottom: "inception_3a/pool"
  top: "inception_3a/pool_proj"
  param {
    lr_mult: 1
    decay_mult: 1
  }
  param {
    lr_mult: 2
    decay_mult: 0
  }
  convolution_param {
    num_output: 32
    kernel_size: 1
    weight_filler {
      type: "xavier"
      std: 0.1
    }
    bias_filler {
      type: "constant"
      value: 0.2
    }
  }
}
layer {
  name: "inception_3a/relu_pool_proj"
  type: "ReLU"
  bottom: "inception_3a/pool_proj"
  top: "inception_3a/pool_proj"
}
layer {
  name: "inception_3a/output"
  type: "Concat"
  bottom: "inception_3a/1x1"
  bottom: "inception_3a/3x3"
  bottom: "inception_3a/5x5"
  bottom: "inception_3a/pool_proj"
  top: "inception_3a/output"
}
layer {
  name: "inception_3b/1x1"
  type: "Convolution"
  bottom: "inception_3a/output"
  top: "inception_3b/1x1"
  param {
    lr_mult: 1
    decay_mult: 1
  }
  param {
    lr_mult: 2
    decay_mult: 0
  }
  convolution_param {
    num_output: 128
    kernel_size: 1
    weight_filler {
      type: "xavier"
      std: 0.03
    }
    bias_filler {
      type: "constant"
      value: 0.2
    }
  }
}
layer {
  name: "inception_3b/relu_1x1"
  type: "ReLU"
  bottom: "inception_3b/1x1"
  top: "inception_3b/1x1"
}
layer {
  name: "inception_3b/3x3_reduce"
  type: "Convolution"
  bottom: "inception_3a/output"
  top: "inception_3b/3x3_reduce"
  param {
    lr_mult: 1
    decay_mult: 1
  }
  param {
    lr_mult: 2
    decay_mult: 0
  }
  convolution_param {
    num_output: 128
    kernel_size: 1
    weight_filler {
      type: "xavier"
      std: 0.09
    }
    bias_filler {
      type: "constant"
      value: 0.2
    }
  }
}
layer {
  name: "inception_3b/relu_3x3_reduce"
  type: "ReLU"
  bottom: "inception_3b/3x3_reduce"
  top: "inception_3b/3x3_reduce"
}
layer {
  name: "inception_3b/3x3"
  type: "Convolution"
  bottom: "inception_3b/3x3_reduce"
  top: "inception_3b/3x3"
  param {
    lr_mult: 1
    decay_mult: 1
  }
  param {
    lr_mult: 2
    decay_mult: 0
  }
  convolution_param {
    num_output: 192
    pad: 1
    kernel_size: 3
    weight_filler {
      type: "xavier"
      std: 0.03
    }
    bias_filler {
      type: "constant"
      value: 0.2
    }
  }
}
layer {
  name: "inception_3b/relu_3x3"
  type: "ReLU"
  bottom: "inception_3b/3x3"
  top: "inception_3b/3x3"
}
layer {
  name: "inception_3b/5x5_reduce"
  type: "Convolution"
  bottom: "inception_3a/output"
  top: "inception_3b/5x5_reduce"
  param {
    lr_mult: 1
    decay_mult: 1
  }
  param {
    lr_mult: 2
    decay_mult: 0
  }
  convolution_param {
    num_output: 32
    kernel_size: 1
    weight_filler {
      type: "xavier"
      std: 0.2
    }
    bias_filler {
      type: "constant"
      value: 0.2
    }
  }
}
layer {
  name: "inception_3b/relu_5x5_reduce"
  type: "ReLU"
  bottom: "inception_3b/5x5_reduce"
  top: "inception_3b/5x5_reduce"
}
layer {
  name: "inception_3b/5x5"
  type: "Convolution"
  bottom: "inception_3b/5x5_reduce"
  top: "inception_3b/5x5"
  param {
    lr_mult: 1
    decay_mult: 1
  }
  param {
    lr_mult: 2
    decay_mult: 0
  }
  convolution_param {
    num_output: 96
    pad: 2
    kernel_size: 5
    weight_filler {
      type: "xavier"
      std: 0.03
    }
    bias_filler {
      type: "constant"
      value: 0.2
    }
  }
}
layer {
  name: "inception_3b/relu_5x5"
  type: "ReLU"
  bottom: "inception_3b/5x5"
  top: "inception_3b/5x5"
}
layer {
  name: "inception_3b/pool"
  type: "Pooling"
  bottom: "inception_3a/output"
  top: "inception_3b/pool"
  pooling_param {
    pool: MAX
    kernel_size: 3
    stride: 1
    pad: 1
  }
}
layer {
  name: "inception_3b/pool_proj"
  type: "Convolution"
  bottom: "inception_3b/pool"
  top: "inception_3b/pool_proj"
  param {
    lr_mult: 1
    decay_mult: 1
  }
  param {
    lr_mult: 2
    decay_mult: 0
  }
  convolution_param {
    num_output: 64
    kernel_size: 1
    weight_filler {
      type: "xavier"
      std: 0.1
    }
    bias_filler {
      type: "constant"
      value: 0.2
    }
  }
}
layer {
  name: "inception_3b/relu_pool_proj"
  type: "ReLU"
  bottom: "inception_3b/pool_proj"
  top: "inception_3b/pool_proj"
}
layer {
  name: "inception_3b/output"
  type: "Concat"
  bottom: "inception_3b/1x1"
  bottom: "inception_3b/3x3"
  bottom: "inception_3b/5x5"
  bottom: "inception_3b/pool_proj"
  top: "inception_3b/output"
}
layer {
  name: "pool3/3x3_s2"
  type: "Pooling"
  bottom: "inception_3b/output"
  top: "pool3/3x3_s2"
  pooling_param {
    pool: MAX
    kernel_size: 3
    stride: 2
  }
}
layer {
  name: "inception_4a/1x1"
  type: "Convolution"
  bottom: "pool3/3x3_s2"
  top: "inception_4a/1x1"
  param {
    lr_mult: 1
    decay_mult: 1
  }
  param {
    lr_mult: 2
    decay_mult: 0
  }
  convolution_param {
    num_output: 192
    kernel_size: 1
    weight_filler {
      type: "xavier"
      std: 0.03
    }
    bias_filler {
      type: "constant"
      value: 0.2
    }
  }
}
layer {
  name: "inception_4a/relu_1x1"
  type: "ReLU"
  bottom: "inception_4a/1x1"
  top: "inception_4a/1x1"
}
layer {
  name: "inception_4a/3x3_reduce"
  type: "Convolution"
  bottom: "pool3/3x3_s2"
  top: "inception_4a/3x3_reduce"
  param {
    lr_mult: 1
    decay_mult: 1
  }
  param {
    lr_mult: 2
    decay_mult: 0
  }
  convolution_param {
    num_output: 96
    kernel_size: 1
    weight_filler {
      type: "xavier"
      std: 0.09
    }
    bias_filler {
      type: "constant"
      value: 0.2
    }
  }
}
layer {
  name: "inception_4a/relu_3x3_reduce"
  type: "ReLU"
  bottom: "inception_4a/3x3_reduce"
  top: "inception_4a/3x3_reduce"
}
layer {
  name: "inception_4a/3x3"
  type: "Convolution"
  bottom: "inception_4a/3x3_reduce"
  top: "inception_4a/3x3"
  param {
    lr_mult: 1
    decay_mult: 1
  }
  param {
    lr_mult: 2
    decay_mult: 0
  }
  convolution_param {
    num_output: 208
    pad: 1
    kernel_size: 3
    weight_filler {
      type: "xavier"
      std: 0.03
    }
    bias_filler {
      type: "constant"
      value: 0.2
    }
  }
}
layer {
  name: "inception_4a/relu_3x3"
  type: "ReLU"
  bottom: "inception_4a/3x3"
  top: "inception_4a/3x3"
}
layer {
  name: "inception_4a/5x5_reduce"
  type: "Convolution"
  bottom: "pool3/3x3_s2"
  top: "inception_4a/5x5_reduce"
  param {
    lr_mult: 1
    decay_mult: 1
  }
  param {
    lr_mult: 2
    decay_mult: 0
  }
  convolution_param {
    num_output: 16
    kernel_size: 1
    weight_filler {
      type: "xavier"
      std: 0.2
    }
    bias_filler {
      type: "constant"
      value: 0.2
    }
  }
}
layer {
  name: "inception_4a/relu_5x5_reduce"
  type: "ReLU"
  bottom: "inception_4a/5x5_reduce"
  top: "inception_4a/5x5_reduce"
}
layer {
  name: "inception_4a/5x5"
  type: "Convolution"
  bottom: "inception_4a/5x5_reduce"
  top: "inception_4a/5x5"
  param {
    lr_mult: 1
    decay_mult: 1
  }
  param {
    lr_mult: 2
    decay_mult: 0
  }
  convolution_param {
    num_output: 48
    pad: 2
    kernel_size: 5
    weight_filler {
      type: "xavier"
      std: 0.03
    }
    bias_filler {
      type: "constant"
      value: 0.2
    }
  }
}
layer {
  name: "inception_4a/relu_5x5"
  type: "ReLU"
  bottom: "inception_4a/5x5"
  top: "inception_4a/5x5"
}
layer {
  name: "inception_4a/pool"
  type: "Pooling"
  bottom: "pool3/3x3_s2"
  top: "inception_4a/pool"
  pooling_param {
    pool: MAX
    kernel_size: 3
    stride: 1
    pad: 1
  }
}
layer {
  name: "inception_4a/pool_proj"
  type: "Convolution"
  bottom: "inception_4a/pool"
  top: "inception_4a/pool_proj"
  param {
    lr_mult: 1
    decay_mult: 1
  }
  param {
    lr_mult: 2
    decay_mult: 0
  }
  convolution_param {
    num_output: 64
    kernel_size: 1
    weight_filler {
      type: "xavier"
      std: 0.1
    }
    bias_filler {
      type: "constant"
      value: 0.2
    }
  }
}
layer {
  name: "inception_4a/relu_pool_proj"
  type: "ReLU"
  bottom: "inception_4a/pool_proj"
  top: "inception_4a/pool_proj"
}
layer {
  name: "inception_4a/output"
  type: "Concat"
  bottom: "inception_4a/1x1"
  bottom: "inception_4a/3x3"
  bottom: "inception_4a/5x5"
  bottom: "inception_4a/pool_proj"
  top: "inception_4a/output"
}
layer {
  name: "loss1/ave_pool"
  type: "Pooling"
  bottom: "inception_4a/output"
  top: "loss1/ave_pool"
  pooling_param {
    pool: AVE
    kernel_size: 5
    stride: 3
  }
}
layer {
  name: "loss1/conv"
  type: "Convolution"
  bottom: "loss1/ave_pool"
  top: "loss1/conv"
  param {
    lr_mult: 1
    decay_mult: 1
  }
  param {
    lr_mult: 2
    decay_mult: 0
  }
  convolution_param {
    num_output: 128
    kernel_size: 1
    weight_filler {
      type: "xavier"
      std: 0.08
    }
    bias_filler {
      type: "constant"
      value: 0.2
    }
  }
}
layer {
  name: "loss1/relu_conv"
  type: "ReLU"
  bottom: "loss1/conv"
  top: "loss1/conv"
}
layer {
  name: "loss1/fc"
  type: "InnerProduct"
  bottom: "loss1/conv"
  top: "loss1/fc"
  param {
    lr_mult: 1
    decay_mult: 1
  }
  param {
    lr_mult: 2
    decay_mult: 0
  }
  inner_product_param {
    num_output: 1024
    weight_filler {
      type: "xavier"
      std: 0.02
    }
    bias_filler {
      type: "constant"
      value: 0.2
    }
  }
}
layer {
  name: "loss1/relu_fc"
  type: "ReLU"
  bottom: "loss1/fc"
  top: "loss1/fc"
}
layer {
  name: "loss1/drop_fc"
  type: "Dropout"
  bottom: "loss1/fc"
  top: "loss1/fc"
  dropout_param {
    dropout_ratio: 0.7
  }
}
layer {
  name: "loss1/classifier_plantvillage"
  type: "InnerProduct"
  bottom: "loss1/fc"
  top: "loss1/classifier_plantvillage"
  param {
    lr_mult: 1
    decay_mult: 1
  }
  param {
    lr_mult: 2
    decay_mult: 0
  }
  inner_product_param {
    num_output: 38
    weight_filler {
      type: "xavier"
      std: 0.0009765625
    }
    bias_filler {
      type: "constant"
      value: 0
    }
  }
}
layer {
  name: "inception_4b/1x1"
  type: "Convolution"
  bottom: "inception_4a/output"
  top: "inception_4b/1x1"
  param {
    lr_mult: 1
    decay_mult: 1
  }
  param {
    lr_mult: 2
    decay_mult: 0
  }
  convolution_param {
    num_output: 160
    kernel_size: 1
    weight_filler {
      type: "xavier"
      std: 0.03
    }
    bias_filler {
      type: "constant"
      value: 0.2
    }
  }
}
layer {
  name: "inception_4b/relu_1x1"
  type: "ReLU"
  bottom: "inception_4b/1x1"
  top: "inception_4b/1x1"
}
layer {
  name: "inception_4b/3x3_reduce"
  type: "Convolution"
  bottom: "inception_4a/output"
  top: "inception_4b/3x3_reduce"
  param {
    lr_mult: 1
    decay_mult: 1
  }
  param {
    lr_mult: 2
    decay_mult: 0
  }
  convolution_param {
    num_output: 112
    kernel_size: 1
    weight_filler {
      type: "xavier"
      std: 0.09
    }
    bias_filler {
      type: "constant"
      value: 0.2
    }
  }
}
layer {
  name: "inception_4b/relu_3x3_reduce"
  type: "ReLU"
  bottom: "inception_4b/3x3_reduce"
  top: "inception_4b/3x3_reduce"
}
layer {
  name: "inception_4b/3x3"
  type: "Convolution"
  bottom: "inception_4b/3x3_reduce"
  top: "inception_4b/3x3"
  param {
    lr_mult: 1
    decay_mult: 1
  }
  param {
    lr_mult: 2
    decay_mult: 0
  }
  convolution_param {
    num_output: 224
    pad: 1
    kernel_size: 3
    weight_filler {
      type: "xavier"
      std: 0.03
    }
    bias_filler {
      type: "constant"
      value: 0.2
    }
  }
}
layer {
  name: "inception_4b/relu_3x3"
  type: "ReLU"
  bottom: "inception_4b/3x3"
  top: "inception_4b/3x3"
}
layer {
  name: "inception_4b/5x5_reduce"
  type: "Convolution"
  bottom: "inception_4a/output"
  top: "inception_4b/5x5_reduce"
  param {
    lr_mult: 1
    decay_mult: 1
  }
  param {
    lr_mult: 2
    decay_mult: 0
  }
  convolution_param {
    num_output: 24
    kernel_size: 1
    weight_filler {
      type: "xavier"
      std: 0.2
    }
    bias_filler {
      type: "constant"
      value: 0.2
    }
  }
}
layer {
  name: "inception_4b/relu_5x5_reduce"
  type: "ReLU"
  bottom: "inception_4b/5x5_reduce"
  top: "inception_4b/5x5_reduce"
}
layer {
  name: "inception_4b/5x5"
  type: "Convolution"
  bottom: "inception_4b/5x5_reduce"
  top: "inception_4b/5x5"
  param {
    lr_mult: 1
    decay_mult: 1
  }
  param {
    lr_mult: 2
    decay_mult: 0
  }
  convolution_param {
    num_output: 64
    pad: 2
    kernel_size: 5
    weight_filler {
      type: "xavier"
      std: 0.03
    }
    bias_filler {
      type: "constant"
      value: 0.2
    }
  }
}
layer {
  name: "inception_4b/relu_5x5"
  type: "ReLU"
  bottom: "inception_4b/5x5"
  top: "inception_4b/5x5"
}
layer {
  name: "inception_4b/pool"
  type: "Pooling"
  bottom: "inception_4a/output"
  top: "inception_4b/pool"
  pooling_param {
    pool: MAX
    kernel_size: 3
    stride: 1
    pad: 1
  }
}
layer {
  name: "inception_4b/pool_proj"
  type: "Convolution"
  bottom: "inception_4b/pool"
  top: "inception_4b/pool_proj"
  param {
    lr_mult: 1
    decay_mult: 1
  }
  param {
    lr_mult: 2
    decay_mult: 0
  }
  convolution_param {
    num_output: 64
    kernel_size: 1
    weight_filler {
      type: "xavier"
      std: 0.1
    }
    bias_filler {
      type: "constant"
      value: 0.2
    }
  }
}
layer {
  name: "inception_4b/relu_pool_proj"
  type: "ReLU"
  bottom: "inception_4b/pool_proj"
  top: "inception_4b/pool_proj"
}
layer {
  name: "inception_4b/output"
  type: "Concat"
  bottom: "inception_4b/1x1"
  bottom: "inception_4b/3x3"
  bottom: "inception_4b/5x5"
  bottom: "inception_4b/pool_proj"
  top: "inception_4b/output"
}
layer {
  name: "inception_4c/1x1"
  type: "Convolution"
  bottom: "inception_4b/output"
  top: "inception_4c/1x1"
  param {
    lr_mult: 1
    decay_mult: 1
  }
  param {
    lr_mult: 2
    decay_mult: 0
  }
  convolution_param {
    num_output: 128
    kernel_size: 1
    weight_filler {
      type: "xavier"
      std: 0.03
    }
    bias_filler {
      type: "constant"
      value: 0.2
    }
  }
}
layer {
  name: "inception_4c/relu_1x1"
  type: "ReLU"
  bottom: "inception_4c/1x1"
  top: "inception_4c/1x1"
}
layer {
  name: "inception_4c/3x3_reduce"
  type: "Convolution"
  bottom: "inception_4b/output"
  top: "inception_4c/3x3_reduce"
  param {
    lr_mult: 1
    decay_mult: 1
  }
  param {
    lr_mult: 2
    decay_mult: 0
  }
  convolution_param {
    num_output: 128
    kernel_size: 1
    weight_filler {
      type: "xavier"
      std: 0.09
    }
    bias_filler {
      type: "constant"
      value: 0.2
    }
  }
}
layer {
  name: "inception_4c/relu_3x3_reduce"
  type: "ReLU"
  bottom: "inception_4c/3x3_reduce"
  top: "inception_4c/3x3_reduce"
}
layer {
  name: "inception_4c/3x3"
  type: "Convolution"
  bottom: "inception_4c/3x3_reduce"
  top: "inception_4c/3x3"
  param {
    lr_mult: 1
    decay_mult: 1
  }
  param {
    lr_mult: 2
    decay_mult: 0
  }
  convolution_param {
    num_output: 256
    pad: 1
    kernel_size: 3
    weight_filler {
      type: "xavier"
      std: 0.03
    }
    bias_filler {
      type: "constant"
      value: 0.2
    }
  }
}
layer {
  name: "inception_4c/relu_3x3"
  type: "ReLU"
  bottom: "inception_4c/3x3"
  top: "inception_4c/3x3"
}
layer {
  name: "inception_4c/5x5_reduce"
  type: "Convolution"
  bottom: "inception_4b/output"
  top: "inception_4c/5x5_reduce"
  param {
    lr_mult: 1
    decay_mult: 1
  }
  param {
    lr_mult: 2
    decay_mult: 0
  }
  convolution_param {
    num_output: 24
    kernel_size: 1
    weight_filler {
      type: "xavier"
      std: 0.2
    }
    bias_filler {
      type: "constant"
      value: 0.2
    }
  }
}
layer {
  name: "inception_4c/relu_5x5_reduce"
  type: "ReLU"
  bottom: "inception_4c/5x5_reduce"
  top: "inception_4c/5x5_reduce"
}
layer {
  name: "inception_4c/5x5"
  type: "Convolution"
  bottom: "inception_4c/5x5_reduce"
  top: "inception_4c/5x5"
  param {
    lr_mult: 1
    decay_mult: 1
  }
  param {
    lr_mult: 2
    decay_mult: 0
  }
  convolution_param {
    num_output: 64
    pad: 2
    kernel_size: 5
    weight_filler {
      type: "xavier"
      std: 0.03
    }
    bias_filler {
      type: "constant"
      value: 0.2
    }
  }
}
layer {
  name: "inception_4c/relu_5x5"
  type: "ReLU"
  bottom: "inception_4c/5x5"
  top: "inception_4c/5x5"
}
layer {
  name: "inception_4c/pool"
  type: "Pooling"
  bottom: "inception_4b/output"
  top: "inception_4c/pool"
  pooling_param {
    pool: MAX
    kernel_size: 3
    stride: 1
    pad: 1
  }
}
layer {
  name: "inception_4c/pool_proj"
  type: "Convolution"
  bottom: "inception_4c/pool"
  top: "inception_4c/pool_proj"
  param {
    lr_mult: 1
    decay_mult: 1
  }
  param {
    lr_mult: 2
    decay_mult: 0
  }
  convolution_param {
    num_output: 64
    kernel_size: 1
    weight_filler {
      type: "xavier"
      std: 0.1
    }
    bias_filler {
      type: "constant"
      value: 0.2
    }
  }
}
layer {
  name: "inception_4c/relu_pool_proj"
  type: "ReLU"
  bottom: "inception_4c/pool_proj"
  top: "inception_4c/pool_proj"
}
layer {
  name: "inception_4c/output"
  type: "Concat"
  bottom: "inception_4c/1x1"
  bottom: "inception_4c/3x3"
  bottom: "inception_4c/5x5"
  bottom: "inception_4c/pool_proj"
  top: "inception_4c/output"
}
layer {
  name: "inception_4d/1x1"
  type: "Convolution"
  bottom: "inception_4c/output"
  top: "inception_4d/1x1"
  param {
    lr_mult: 1
    decay_mult: 1
  }
  param {
    lr_mult: 2
    decay_mult: 0
  }
  convolution_param {
    num_output: 112
    kernel_size: 1
    weight_filler {
      type: "xavier"
      std: 0.03
    }
    bias_filler {
      type: "constant"
      value: 0.2
    }
  }
}
layer {
  name: "inception_4d/relu_1x1"
  type: "ReLU"
  bottom: "inception_4d/1x1"
  top: "inception_4d/1x1"
}
layer {
  name: "inception_4d/3x3_reduce"
  type: "Convolution"
  bottom: "inception_4c/output"
  top: "inception_4d/3x3_reduce"
  param {
    lr_mult: 1
    decay_mult: 1
  }
  param {
    lr_mult: 2
    decay_mult: 0
  }
  convolution_param {
    num_output: 144
    kernel_size: 1
    weight_filler {
      type: "xavier"
      std: 0.09
    }
    bias_filler {
      type: "constant"
      value: 0.2
    }
  }
}
layer {
  name: "inception_4d/relu_3x3_reduce"
  type: "ReLU"
  bottom: "inception_4d/3x3_reduce"
  top: "inception_4d/3x3_reduce"
}
layer {
  name: "inception_4d/3x3"
  type: "Convolution"
  bottom: "inception_4d/3x3_reduce"
  top: "inception_4d/3x3"
  param {
    lr_mult: 1
    decay_mult: 1
  }
  param {
    lr_mult: 2
    decay_mult: 0
  }
  convolution_param {
    num_output: 288
    pad: 1
    kernel_size: 3
    weight_filler {
      type: "xavier"
      std: 0.03
    }
    bias_filler {
      type: "constant"
      value: 0.2
    }
  }
}
layer {
  name: "inception_4d/relu_3x3"
  type: "ReLU"
  bottom: "inception_4d/3x3"
  top: "inception_4d/3x3"
}
layer {
  name: "inception_4d/5x5_reduce"
  type: "Convolution"
  bottom: "inception_4c/output"
  top: "inception_4d/5x5_reduce"
  param {
    lr_mult: 1
    decay_mult: 1
  }
  param {
    lr_mult: 2
    decay_mult: 0
  }
  convolution_param {
    num_output: 32
    kernel_size: 1
    weight_filler {
      type: "xavier"
      std: 0.2
    }
    bias_filler {
      type: "constant"
      value: 0.2
    }
  }
}
layer {
  name: "inception_4d/relu_5x5_reduce"
  type: "ReLU"
  bottom: "inception_4d/5x5_reduce"
  top: "inception_4d/5x5_reduce"
}
layer {
  name: "inception_4d/5x5"
  type: "Convolution"
  bottom: "inception_4d/5x5_reduce"
  top: "inception_4d/5x5"
  param {
    lr_mult: 1
    decay_mult: 1
  }
  param {
    lr_mult: 2
    decay_mult: 0
  }
  convolution_param {
    num_output: 64
    pad: 2
    kernel_size: 5
    weight_filler {
      type: "xavier"
      std: 0.03
    }
    bias_filler {
      type: "constant"
      value: 0.2
    }
  }
}
layer {
  name: "inception_4d/relu_5x5"
  type: "ReLU"
  bottom: "inception_4d/5x5"
  top: "inception_4d/5x5"
}
layer {
  name: "inception_4d/pool"
  type: "Pooling"
  bottom: "inception_4c/output"
  top: "inception_4d/pool"
  pooling_param {
    pool: MAX
    kernel_size: 3
    stride: 1
    pad: 1
  }
}
layer {
  name: "inception_4d/pool_proj"
  type: "Convolution"
  bottom: "inception_4d/pool"
  top: "inception_4d/pool_proj"
  param {
    lr_mult: 1
    decay_mult: 1
  }
  param {
    lr_mult: 2
    decay_mult: 0
  }
  convolution_param {
    num_output: 64
    kernel_size: 1
    weight_filler {
      type: "xavier"
      std: 0.1
    }
    bias_filler {
      type: "constant"
      value: 0.2
    }
  }
}
layer {
  name: "inception_4d/relu_pool_proj"
  type: "ReLU"
  bottom: "inception_4d/pool_proj"
  top: "inception_4d/pool_proj"
}
layer {
  name: "inception_4d/output"
  type: "Concat"
  bottom: "inception_4d/1x1"
  bottom: "inception_4d/3x3"
  bottom: "inception_4d/5x5"
  bottom: "inception_4d/pool_proj"
  top: "inception_4d/output"
}
layer {
  name: "loss2/ave_pool"
  type: "Pooling"
  bottom: "inception_4d/output"
  top: "loss2/ave_pool"
  pooling_param {
    pool: AVE
    kernel_size: 5
    stride: 3
  }
}
layer {
  name: "loss2/conv"
  type: "Convolution"
  bottom: "loss2/ave_pool"
  top: "loss2/conv"
  param {
    lr_mult: 1
    decay_mult: 1
  }
  param {
    lr_mult: 2
    decay_mult: 0
  }
  convolution_param {
    num_output: 128
    kernel_size: 1
    weight_filler {
      type: "xavier"
      std: 0.08
    }
    bias_filler {
      type: "constant"
      value: 0.2
    }
  }
}
layer {
  name: "loss2/relu_conv"
  type: "ReLU"
  bottom: "loss2/conv"
  top: "loss2/conv"
}
layer {
  name: "loss2/fc"
  type: "InnerProduct"
  bottom: "loss2/conv"
  top: "loss2/fc"
  param {
    lr_mult: 1
    decay_mult: 1
  }
  param {
    lr_mult: 2
    decay_mult: 0
  }
  inner_product_param {
    num_output: 1024
    weight_filler {
      type: "xavier"
      std: 0.02
    }
    bias_filler {
      type: "constant"
      value: 0.2
    }
  }
}
layer {
  name: "loss2/relu_fc"
  type: "ReLU"
  bottom: "loss2/fc"
  top: "loss2/fc"
}
layer {
  name: "loss2/drop_fc"
  type: "Dropout"
  bottom: "loss2/fc"
  top: "loss2/fc"
  dropout_param {
    dropout_ratio: 0.7
  }
}
layer {
  name: "loss2/classifier_plantvillage"
  type: "InnerProduct"
  bottom: "loss2/fc"
  top: "loss2/classifier_plantvillage"
  param {
    lr_mult: 1
    decay_mult: 1
  }
  param {
    lr_mult: 2
    decay_mult: 0
  }
  inner_product_param {
    num_output: 38
    weight_filler {
      type: "xavier"
      std: 0.0009765625
    }
    bias_filler {
      type: "constant"
      value: 0
    }
  }
}
layer {
  name: "inception_4e/1x1"
  type: "Convolution"
  bottom: "inception_4d/output"
  top: "inception_4e/1x1"
  param {
    lr_mult: 1
    decay_mult: 1
  }
  param {
    lr_mult: 2
    decay_mult: 0
  }
  convolution_param {
    num_output: 256
    kernel_size: 1
    weight_filler {
      type: "xavier"
      std: 0.03
    }
    bias_filler {
      type: "constant"
      value: 0.2
    }
  }
}
layer {
  name: "inception_4e/relu_1x1"
  type: "ReLU"
  bottom: "inception_4e/1x1"
  top: "inception_4e/1x1"
}
layer {
  name: "inception_4e/3x3_reduce"
  type: "Convolution"
  bottom: "inception_4d/output"
  top: "inception_4e/3x3_reduce"
  param {
    lr_mult: 1
    decay_mult: 1
  }
  param {
    lr_mult: 2
    decay_mult: 0
  }
  convolution_param {
    num_output: 160
    kernel_size: 1
    weight_filler {
      type: "xavier"
      std: 0.09
    }
    bias_filler {
      type: "constant"
      value: 0.2
    }
  }
}
layer {
  name: "inception_4e/relu_3x3_reduce"
  type: "ReLU"
  bottom: "inception_4e/3x3_reduce"
  top: "inception_4e/3x3_reduce"
}
layer {
  name: "inception_4e/3x3"
  type: "Convolution"
  bottom: "inception_4e/3x3_reduce"
  top: "inception_4e/3x3"
  param {
    lr_mult: 1
    decay_mult: 1
  }
  param {
    lr_mult: 2
    decay_mult: 0
  }
  convolution_param {
    num_output: 320
    pad: 1
    kernel_size: 3
    weight_filler {
      type: "xavier"
      std: 0.03
    }
    bias_filler {
      type: "constant"
      value: 0.2
    }
  }
}
layer {
  name: "inception_4e/relu_3x3"
  type: "ReLU"
  bottom: "inception_4e/3x3"
  top: "inception_4e/3x3"
}
layer {
  name: "inception_4e/5x5_reduce"
  type: "Convolution"
  bottom: "inception_4d/output"
  top: "inception_4e/5x5_reduce"
  param {
    lr_mult: 1
    decay_mult: 1
  }
  param {
    lr_mult: 2
    decay_mult: 0
  }
  convolution_param {
    num_output: 32
    kernel_size: 1
    weight_filler {
      type: "xavier"
      std: 0.2
    }
    bias_filler {
      type: "constant"
      value: 0.2
    }
  }
}
layer {
  name: "inception_4e/relu_5x5_reduce"
  type: "ReLU"
  bottom: "inception_4e/5x5_reduce"
  top: "inception_4e/5x5_reduce"
}
layer {
  name: "inception_4e/5x5"
  type: "Convolution"
  bottom: "inception_4e/5x5_reduce"
  top: "inception_4e/5x5"
  p
I0403 15:42:07.892279 15963 layer_factory.hpp:77] Creating layer data
I0403 15:42:07.892909 15963 net.cpp:91] Creating Layer data
I0403 15:42:07.892941 15963 net.cpp:399] data -> data
I0403 15:42:07.892992 15963 net.cpp:399] data -> label
I0403 15:42:07.893029 15963 data_transformer.cpp:25] Loading mean file from: /home/mohanty/data/final_dataset/lmdb/color-50-50/mean.binaryproto
I0403 15:42:07.895769 15965 db_lmdb.cpp:38] Opened lmdb /home/mohanty/data/final_dataset/lmdb/color-50-50/test_db
I0403 15:42:07.906746 15963 data_layer.cpp:41] output data size: 24,3,224,224
I0403 15:42:07.935063 15963 net.cpp:141] Setting up data
I0403 15:42:07.935148 15963 net.cpp:148] Top shape: 24 3 224 224 (3612672)
I0403 15:42:07.935173 15963 net.cpp:148] Top shape: 24 (24)
I0403 15:42:07.935187 15963 net.cpp:156] Memory required for data: 14450784
I0403 15:42:07.935216 15963 layer_factory.hpp:77] Creating layer label_data_1_split
I0403 15:42:07.935243 15963 net.cpp:91] Creating Layer label_data_1_split
I0403 15:42:07.935266 15963 net.cpp:425] label_data_1_split <- label
I0403 15:42:07.935298 15963 net.cpp:399] label_data_1_split -> label_data_1_split_0
I0403 15:42:07.935328 15963 net.cpp:399] label_data_1_split -> label_data_1_split_1
I0403 15:42:07.935349 15963 net.cpp:399] label_data_1_split -> label_data_1_split_2
I0403 15:42:07.935371 15963 net.cpp:399] label_data_1_split -> label_data_1_split_3
I0403 15:42:07.935392 15963 net.cpp:399] label_data_1_split -> label_data_1_split_4
I0403 15:42:07.935413 15963 net.cpp:399] label_data_1_split -> label_data_1_split_5
I0403 15:42:07.935434 15963 net.cpp:399] label_data_1_split -> label_data_1_split_6
I0403 15:42:07.935456 15963 net.cpp:399] label_data_1_split -> label_data_1_split_7
I0403 15:42:07.935477 15963 net.cpp:399] label_data_1_split -> label_data_1_split_8
I0403 15:42:07.935497 15963 net.cpp:399] label_data_1_split -> label_data_1_split_9
I0403 15:42:07.935622 15963 net.cpp:141] Setting up label_data_1_split
I0403 15:42:07.935647 15963 net.cpp:148] Top shape: 24 (24)
I0403 15:42:07.935665 15963 net.cpp:148] Top shape: 24 (24)
I0403 15:42:07.935683 15963 net.cpp:148] Top shape: 24 (24)
I0403 15:42:07.935699 15963 net.cpp:148] Top shape: 24 (24)
I0403 15:42:07.935715 15963 net.cpp:148] Top shape: 24 (24)
I0403 15:42:07.935732 15963 net.cpp:148] Top shape: 24 (24)
I0403 15:42:07.935748 15963 net.cpp:148] Top shape: 24 (24)
I0403 15:42:07.935765 15963 net.cpp:148] Top shape: 24 (24)
I0403 15:42:07.935781 15963 net.cpp:148] Top shape: 24 (24)
I0403 15:42:07.935798 15963 net.cpp:148] Top shape: 24 (24)
I0403 15:42:07.935855 15963 net.cpp:156] Memory required for data: 14451744
I0403 15:42:07.935873 15963 layer_factory.hpp:77] Creating layer conv1/7x7_s2
I0403 15:42:07.935905 15963 net.cpp:91] Creating Layer conv1/7x7_s2
I0403 15:42:07.935925 15963 net.cpp:425] conv1/7x7_s2 <- data
I0403 15:42:07.935945 15963 net.cpp:399] conv1/7x7_s2 -> conv1/7x7_s2
I0403 15:42:08.082960 15963 net.cpp:141] Setting up conv1/7x7_s2
I0403 15:42:08.083029 15963 net.cpp:148] Top shape: 24 64 112 112 (19267584)
I0403 15:42:08.083048 15963 net.cpp:156] Memory required for data: 91522080
I0403 15:42:08.083081 15963 layer_factory.hpp:77] Creating layer conv1/relu_7x7
I0403 15:42:08.083109 15963 net.cpp:91] Creating Layer conv1/relu_7x7
I0403 15:42:08.083128 15963 net.cpp:425] conv1/relu_7x7 <- conv1/7x7_s2
I0403 15:42:08.083148 15963 net.cpp:386] conv1/relu_7x7 -> conv1/7x7_s2 (in-place)
I0403 15:42:08.083418 15963 net.cpp:141] Setting up conv1/relu_7x7
I0403 15:42:08.083446 15963 net.cpp:148] Top shape: 24 64 112 112 (19267584)
I0403 15:42:08.083463 15963 net.cpp:156] Memory required for data: 168592416
I0403 15:42:08.083479 15963 layer_factory.hpp:77] Creating layer pool1/3x3_s2
I0403 15:42:08.083505 15963 net.cpp:91] Creating Layer pool1/3x3_s2
I0403 15:42:08.083524 15963 net.cpp:425] pool1/3x3_s2 <- conv1/7x7_s2
I0403 15:42:08.083549 15963 net.cpp:399] pool1/3x3_s2 -> pool1/3x3_s2
I0403 15:42:08.083628 15963 net.cpp:141] Setting up pool1/3x3_s2
I0403 15:42:08.083654 15963 net.cpp:148] Top shape: 24 64 56 56 (4816896)
I0403 15:42:08.083670 15963 net.cpp:156] Memory required for data: 187860000
I0403 15:42:08.083685 15963 layer_factory.hpp:77] Creating layer pool1/norm1
I0403 15:42:08.083711 15963 net.cpp:91] Creating Layer pool1/norm1
I0403 15:42:08.083729 15963 net.cpp:425] pool1/norm1 <- pool1/3x3_s2
I0403 15:42:08.083748 15963 net.cpp:399] pool1/norm1 -> pool1/norm1
I0403 15:42:08.084051 15963 net.cpp:141] Setting up pool1/norm1
I0403 15:42:08.084080 15963 net.cpp:148] Top shape: 24 64 56 56 (4816896)
I0403 15:42:08.084097 15963 net.cpp:156] Memory required for data: 207127584
I0403 15:42:08.084115 15963 layer_factory.hpp:77] Creating layer conv2/3x3_reduce
I0403 15:42:08.084141 15963 net.cpp:91] Creating Layer conv2/3x3_reduce
I0403 15:42:08.084158 15963 net.cpp:425] conv2/3x3_reduce <- pool1/norm1
I0403 15:42:08.084177 15963 net.cpp:399] conv2/3x3_reduce -> conv2/3x3_reduce
I0403 15:42:08.085685 15963 net.cpp:141] Setting up conv2/3x3_reduce
I0403 15:42:08.085717 15963 net.cpp:148] Top shape: 24 64 56 56 (4816896)
I0403 15:42:08.085734 15963 net.cpp:156] Memory required for data: 226395168
I0403 15:42:08.085757 15963 layer_factory.hpp:77] Creating layer conv2/relu_3x3_reduce
I0403 15:42:08.085777 15963 net.cpp:91] Creating Layer conv2/relu_3x3_reduce
I0403 15:42:08.085793 15963 net.cpp:425] conv2/relu_3x3_reduce <- conv2/3x3_reduce
I0403 15:42:08.085814 15963 net.cpp:386] conv2/relu_3x3_reduce -> conv2/3x3_reduce (in-place)
I0403 15:42:08.086107 15963 net.cpp:141] Setting up conv2/relu_3x3_reduce
I0403 15:42:08.086135 15963 net.cpp:148] Top shape: 24 64 56 56 (4816896)
I0403 15:42:08.086153 15963 net.cpp:156] Memory required for data: 245662752
I0403 15:42:08.086168 15963 layer_factory.hpp:77] Creating layer conv2/3x3
I0403 15:42:08.086194 15963 net.cpp:91] Creating Layer conv2/3x3
I0403 15:42:08.086212 15963 net.cpp:425] conv2/3x3 <- conv2/3x3_reduce
I0403 15:42:08.086235 15963 net.cpp:399] conv2/3x3 -> conv2/3x3
I0403 15:42:08.088693 15963 net.cpp:141] Setting up conv2/3x3
I0403 15:42:08.088726 15963 net.cpp:148] Top shape: 24 192 56 56 (14450688)
I0403 15:42:08.088743 15963 net.cpp:156] Memory required for data: 303465504
I0403 15:42:08.088765 15963 layer_factory.hpp:77] Creating layer conv2/relu_3x3
I0403 15:42:08.088788 15963 net.cpp:91] Creating Layer conv2/relu_3x3
I0403 15:42:08.088805 15963 net.cpp:425] conv2/relu_3x3 <- conv2/3x3
I0403 15:42:08.088825 15963 net.cpp:386] conv2/relu_3x3 -> conv2/3x3 (in-place)
I0403 15:42:08.089010 15963 net.cpp:141] Setting up conv2/relu_3x3
I0403 15:42:08.089040 15963 net.cpp:148] Top shape: 24 192 56 56 (14450688)
I0403 15:42:08.089097 15963 net.cpp:156] Memory required for data: 361268256
I0403 15:42:08.089114 15963 layer_factory.hpp:77] Creating layer conv2/norm2
I0403 15:42:08.089133 15963 net.cpp:91] Creating Layer conv2/norm2
I0403 15:42:08.089150 15963 net.cpp:425] conv2/norm2 <- conv2/3x3
I0403 15:42:08.089172 15963 net.cpp:399] conv2/norm2 -> conv2/norm2
I0403 15:42:08.089503 15963 net.cpp:141] Setting up conv2/norm2
I0403 15:42:08.089530 15963 net.cpp:148] Top shape: 24 192 56 56 (14450688)
I0403 15:42:08.089552 15963 net.cpp:156] Memory required for data: 419071008
I0403 15:42:08.089570 15963 layer_factory.hpp:77] Creating layer pool2/3x3_s2
I0403 15:42:08.089588 15963 net.cpp:91] Creating Layer pool2/3x3_s2
I0403 15:42:08.089606 15963 net.cpp:425] pool2/3x3_s2 <- conv2/norm2
I0403 15:42:08.089627 15963 net.cpp:399] pool2/3x3_s2 -> pool2/3x3_s2
I0403 15:42:08.089682 15963 net.cpp:141] Setting up pool2/3x3_s2
I0403 15:42:08.089706 15963 net.cpp:148] Top shape: 24 192 28 28 (3612672)
I0403 15:42:08.089721 15963 net.cpp:156] Memory required for data: 433521696
I0403 15:42:08.089737 15963 layer_factory.hpp:77] Creating layer pool2/3x3_s2_pool2/3x3_s2_0_split
I0403 15:42:08.089758 15963 net.cpp:91] Creating Layer pool2/3x3_s2_pool2/3x3_s2_0_split
I0403 15:42:08.089776 15963 net.cpp:425] pool2/3x3_s2_pool2/3x3_s2_0_split <- pool2/3x3_s2
I0403 15:42:08.089794 15963 net.cpp:399] pool2/3x3_s2_pool2/3x3_s2_0_split -> pool2/3x3_s2_pool2/3x3_s2_0_split_0
I0403 15:42:08.089818 15963 net.cpp:399] pool2/3x3_s2_pool2/3x3_s2_0_split -> pool2/3x3_s2_pool2/3x3_s2_0_split_1
I0403 15:42:08.089839 15963 net.cpp:399] pool2/3x3_s2_pool2/3x3_s2_0_split -> pool2/3x3_s2_pool2/3x3_s2_0_split_2
I0403 15:42:08.089859 15963 net.cpp:399] pool2/3x3_s2_pool2/3x3_s2_0_split -> pool2/3x3_s2_pool2/3x3_s2_0_split_3
I0403 15:42:08.089932 15963 net.cpp:141] Setting up pool2/3x3_s2_pool2/3x3_s2_0_split
I0403 15:42:08.089956 15963 net.cpp:148] Top shape: 24 192 28 28 (3612672)
I0403 15:42:08.089974 15963 net.cpp:148] Top shape: 24 192 28 28 (3612672)
I0403 15:42:08.089990 15963 net.cpp:148] Top shape: 24 192 28 28 (3612672)
I0403 15:42:08.090008 15963 net.cpp:148] Top shape: 24 192 28 28 (3612672)
I0403 15:42:08.090021 15963 net.cpp:156] Memory required for data: 491324448
I0403 15:42:08.090036 15963 layer_factory.hpp:77] Creating layer inception_3a/1x1
I0403 15:42:08.090060 15963 net.cpp:91] Creating Layer inception_3a/1x1
I0403 15:42:08.090077 15963 net.cpp:425] inception_3a/1x1 <- pool2/3x3_s2_pool2/3x3_s2_0_split_0
I0403 15:42:08.090100 15963 net.cpp:399] inception_3a/1x1 -> inception_3a/1x1
I0403 15:42:08.091733 15963 net.cpp:141] Setting up inception_3a/1x1
I0403 15:42:08.091763 15963 net.cpp:148] Top shape: 24 64 28 28 (1204224)
I0403 15:42:08.091780 15963 net.cpp:156] Memory required for data: 496141344
I0403 15:42:08.091800 15963 layer_factory.hpp:77] Creating layer inception_3a/relu_1x1
I0403 15:42:08.091822 15963 net.cpp:91] Creating Layer inception_3a/relu_1x1
I0403 15:42:08.091840 15963 net.cpp:425] inception_3a/relu_1x1 <- inception_3a/1x1
I0403 15:42:08.091859 15963 net.cpp:386] inception_3a/relu_1x1 -> inception_3a/1x1 (in-place)
I0403 15:42:08.092047 15963 net.cpp:141] Setting up inception_3a/relu_1x1
I0403 15:42:08.092074 15963 net.cpp:148] Top shape: 24 64 28 28 (1204224)
I0403 15:42:08.092090 15963 net.cpp:156] Memory required for data: 500958240
I0403 15:42:08.092105 15963 layer_factory.hpp:77] Creating layer inception_3a/3x3_reduce
I0403 15:42:08.092129 15963 net.cpp:91] Creating Layer inception_3a/3x3_reduce
I0403 15:42:08.092149 15963 net.cpp:425] inception_3a/3x3_reduce <- pool2/3x3_s2_pool2/3x3_s2_0_split_1
I0403 15:42:08.092170 15963 net.cpp:399] inception_3a/3x3_reduce -> inception_3a/3x3_reduce
I0403 15:42:08.093963 15963 net.cpp:141] Setting up inception_3a/3x3_reduce
I0403 15:42:08.093994 15963 net.cpp:148] Top shape: 24 96 28 28 (1806336)
I0403 15:42:08.094012 15963 net.cpp:156] Memory required for data: 508183584
I0403 15:42:08.094034 15963 layer_factory.hpp:77] Creating layer inception_3a/relu_3x3_reduce
I0403 15:42:08.094074 15963 net.cpp:91] Creating Layer inception_3a/relu_3x3_reduce
I0403 15:42:08.094094 15963 net.cpp:425] inception_3a/relu_3x3_reduce <- inception_3a/3x3_reduce
I0403 15:42:08.094112 15963 net.cpp:386] inception_3a/relu_3x3_reduce -> inception_3a/3x3_reduce (in-place)
I0403 15:42:08.094306 15963 net.cpp:141] Setting up inception_3a/relu_3x3_reduce
I0403 15:42:08.094332 15963 net.cpp:148] Top shape: 24 96 28 28 (1806336)
I0403 15:42:08.094349 15963 net.cpp:156] Memory required for data: 515408928
I0403 15:42:08.094364 15963 layer_factory.hpp:77] Creating layer inception_3a/3x3
I0403 15:42:08.094388 15963 net.cpp:91] Creating Layer inception_3a/3x3
I0403 15:42:08.094408 15963 net.cpp:425] inception_3a/3x3 <- inception_3a/3x3_reduce
I0403 15:42:08.094431 15963 net.cpp:399] inception_3a/3x3 -> inception_3a/3x3
I0403 15:42:08.096186 15963 net.cpp:141] Setting up inception_3a/3x3
I0403 15:42:08.096216 15963 net.cpp:148] Top shape: 24 128 28 28 (2408448)
I0403 15:42:08.096233 15963 net.cpp:156] Memory required for data: 525042720
I0403 15:42:08.096252 15963 layer_factory.hpp:77] Creating layer inception_3a/relu_3x3
I0403 15:42:08.096279 15963 net.cpp:91] Creating Layer inception_3a/relu_3x3
I0403 15:42:08.096297 15963 net.cpp:425] inception_3a/relu_3x3 <- inception_3a/3x3
I0403 15:42:08.096317 15963 net.cpp:386] inception_3a/relu_3x3 -> inception_3a/3x3 (in-place)
I0403 15:42:08.096609 15963 net.cpp:141] Setting up inception_3a/relu_3x3
I0403 15:42:08.096637 15963 net.cpp:148] Top shape: 24 128 28 28 (2408448)
I0403 15:42:08.096653 15963 net.cpp:156] Memory required for data: 534676512
I0403 15:42:08.096669 15963 layer_factory.hpp:77] Creating layer inception_3a/5x5_reduce
I0403 15:42:08.096693 15963 net.cpp:91] Creating Layer inception_3a/5x5_reduce
I0403 15:42:08.096711 15963 net.cpp:425] inception_3a/5x5_reduce <- pool2/3x3_s2_pool2/3x3_s2_0_split_2
I0403 15:42:08.096735 15963 net.cpp:399] inception_3a/5x5_reduce -> inception_3a/5x5_reduce
I0403 15:42:08.097753 15963 net.cpp:141] Setting up inception_3a/5x5_reduce
I0403 15:42:08.097781 15963 net.cpp:148] Top shape: 24 16 28 28 (301056)
I0403 15:42:08.097798 15963 net.cpp:156] Memory required for data: 535880736
I0403 15:42:08.097818 15963 layer_factory.hpp:77] Creating layer inception_3a/relu_5x5_reduce
I0403 15:42:08.097841 15963 net.cpp:91] Creating Layer inception_3a/relu_5x5_reduce
I0403 15:42:08.097858 15963 net.cpp:425] inception_3a/relu_5x5_reduce <- inception_3a/5x5_reduce
I0403 15:42:08.097877 15963 net.cpp:386] inception_3a/relu_5x5_reduce -> inception_3a/5x5_reduce (in-place)
I0403 15:42:08.098188 15963 net.cpp:141] Setting up inception_3a/relu_5x5_reduce
I0403 15:42:08.098218 15963 net.cpp:148] Top shape: 24 16 28 28 (301056)
I0403 15:42:08.098235 15963 net.cpp:156] Memory required for data: 537084960
I0403 15:42:08.098251 15963 layer_factory.hpp:77] Creating layer inception_3a/5x5
I0403 15:42:08.098278 15963 net.cpp:91] Creating Layer inception_3a/5x5
I0403 15:42:08.098296 15963 net.cpp:425] inception_3a/5x5 <- inception_3a/5x5_reduce
I0403 15:42:08.098316 15963 net.cpp:399] inception_3a/5x5 -> inception_3a/5x5
I0403 15:42:08.099391 15963 net.cpp:141] Setting up inception_3a/5x5
I0403 15:42:08.099421 15963 net.cpp:148] Top shape: 24 32 28 28 (602112)
I0403 15:42:08.099437 15963 net.cpp:156] Memory required for data: 539493408
I0403 15:42:08.099457 15963 layer_factory.hpp:77] Creating layer inception_3a/relu_5x5
I0403 15:42:08.099483 15963 net.cpp:91] Creating Layer inception_3a/relu_5x5
I0403 15:42:08.099503 15963 net.cpp:425] inception_3a/relu_5x5 <- inception_3a/5x5
I0403 15:42:08.099520 15963 net.cpp:386] inception_3a/relu_5x5 -> inception_3a/5x5 (in-place)
I0403 15:42:08.099709 15963 net.cpp:141] Setting up inception_3a/relu_5x5
I0403 15:42:08.099735 15963 net.cpp:148] Top shape: 24 32 28 28 (602112)
I0403 15:42:08.099751 15963 net.cpp:156] Memory required for data: 541901856
I0403 15:42:08.099767 15963 layer_factory.hpp:77] Creating layer inception_3a/pool
I0403 15:42:08.099788 15963 net.cpp:91] Creating Layer inception_3a/pool
I0403 15:42:08.099807 15963 net.cpp:425] inception_3a/pool <- pool2/3x3_s2_pool2/3x3_s2_0_split_3
I0403 15:42:08.099841 15963 net.cpp:399] inception_3a/pool -> inception_3a/pool
I0403 15:42:08.099905 15963 net.cpp:141] Setting up inception_3a/pool
I0403 15:42:08.099930 15963 net.cpp:148] Top shape: 24 192 28 28 (3612672)
I0403 15:42:08.099946 15963 net.cpp:156] Memory required for data: 556352544
I0403 15:42:08.099961 15963 layer_factory.hpp:77] Creating layer inception_3a/pool_proj
I0403 15:42:08.099984 15963 net.cpp:91] Creating Layer inception_3a/pool_proj
I0403 15:42:08.100003 15963 net.cpp:425] inception_3a/pool_proj <- inception_3a/pool
I0403 15:42:08.100025 15963 net.cpp:399] inception_3a/pool_proj -> inception_3a/pool_proj
I0403 15:42:08.101049 15963 net.cpp:141] Setting up inception_3a/pool_proj
I0403 15:42:08.101081 15963 net.cpp:148] Top shape: 24 32 28 28 (602112)
I0403 15:42:08.101099 15963 net.cpp:156] Memory required for data: 558760992
I0403 15:42:08.101122 15963 layer_factory.hpp:77] Creating layer inception_3a/relu_pool_proj
I0403 15:42:08.101145 15963 net.cpp:91] Creating Layer inception_3a/relu_pool_proj
I0403 15:42:08.101162 15963 net.cpp:425] inception_3a/relu_pool_proj <- inception_3a/pool_proj
I0403 15:42:08.101181 15963 net.cpp:386] inception_3a/relu_pool_proj -> inception_3a/pool_proj (in-place)
I0403 15:42:08.101472 15963 net.cpp:141] Setting up inception_3a/relu_pool_proj
I0403 15:42:08.101500 15963 net.cpp:148] Top shape: 24 32 28 28 (602112)
I0403 15:42:08.101517 15963 net.cpp:156] Memory required for data: 561169440
I0403 15:42:08.101533 15963 layer_factory.hpp:77] Creating layer inception_3a/output
I0403 15:42:08.101572 15963 net.cpp:91] Creating Layer inception_3a/output
I0403 15:42:08.101590 15963 net.cpp:425] inception_3a/output <- inception_3a/1x1
I0403 15:42:08.101608 15963 net.cpp:425] inception_3a/output <- inception_3a/3x3
I0403 15:42:08.101624 15963 net.cpp:425] inception_3a/output <- inception_3a/5x5
I0403 15:42:08.101641 15963 net.cpp:425] inception_3a/output <- inception_3a/pool_proj
I0403 15:42:08.101658 15963 net.cpp:399] inception_3a/output -> inception_3a/output
I0403 15:42:08.101706 15963 net.cpp:141] Setting up inception_3a/output
I0403 15:42:08.101732 15963 net.cpp:148] Top shape: 24 256 28 28 (4816896)
I0403 15:42:08.101748 15963 net.cpp:156] Memory required for data: 580437024
I0403 15:42:08.101763 15963 layer_factory.hpp:77] Creating layer inception_3a/output_inception_3a/output_0_split
I0403 15:42:08.101780 15963 net.cpp:91] Creating Layer inception_3a/output_inception_3a/output_0_split
I0403 15:42:08.101796 15963 net.cpp:425] inception_3a/output_inception_3a/output_0_split <- inception_3a/output
I0403 15:42:08.101827 15963 net.cpp:399] inception_3a/output_inception_3a/output_0_split -> inception_3a/output_inception_3a/output_0_split_0
I0403 15:42:08.101848 15963 net.cpp:399] inception_3a/output_inception_3a/output_0_split -> inception_3a/output_inception_3a/output_0_split_1
I0403 15:42:08.101871 15963 net.cpp:399] inception_3a/output_inception_3a/output_0_split -> inception_3a/output_inception_3a/output_0_split_2
I0403 15:42:08.101892 15963 net.cpp:399] inception_3a/output_inception_3a/output_0_split -> inception_3a/output_inception_3a/output_0_split_3
I0403 15:42:08.101968 15963 net.cpp:141] Setting up inception_3a/output_inception_3a/output_0_split
I0403 15:42:08.101990 15963 net.cpp:148] Top shape: 24 256 28 28 (4816896)
I0403 15:42:08.102007 15963 net.cpp:148] Top shape: 24 256 28 28 (4816896)
I0403 15:42:08.102023 15963 net.cpp:148] Top shape: 24 256 28 28 (4816896)
I0403 15:42:08.102040 15963 net.cpp:148] Top shape: 24 256 28 28 (4816896)
I0403 15:42:08.102053 15963 net.cpp:156] Memory required for data: 657507360
I0403 15:42:08.102068 15963 layer_factory.hpp:77] Creating layer inception_3b/1x1
I0403 15:42:08.102094 15963 net.cpp:91] Creating Layer inception_3b/1x1
I0403 15:42:08.102113 15963 net.cpp:425] inception_3b/1x1 <- inception_3a/output_inception_3a/output_0_split_0
I0403 15:42:08.102133 15963 net.cpp:399] inception_3b/1x1 -> inception_3b/1x1
I0403 15:42:08.103307 15963 net.cpp:141] Setting up inception_3b/1x1
I0403 15:42:08.103348 15963 net.cpp:148] Top shape: 24 128 28 28 (2408448)
I0403 15:42:08.103368 15963 net.cpp:156] Memory required for data: 667141152
I0403 15:42:08.103386 15963 layer_factory.hpp:77] Creating layer inception_3b/relu_1x1
I0403 15:42:08.103406 15963 net.cpp:91] Creating Layer inception_3b/relu_1x1
I0403 15:42:08.103423 15963 net.cpp:425] inception_3b/relu_1x1 <- inception_3b/1x1
I0403 15:42:08.103443 15963 net.cpp:386] inception_3b/relu_1x1 -> inception_3b/1x1 (in-place)
I0403 15:42:08.103631 15963 net.cpp:141] Setting up inception_3b/relu_1x1
I0403 15:42:08.103657 15963 net.cpp:148] Top shape: 24 128 28 28 (2408448)
I0403 15:42:08.103672 15963 net.cpp:156] Memory required for data: 676774944
I0403 15:42:08.103688 15963 layer_factory.hpp:77] Creating layer inception_3b/3x3_reduce
I0403 15:42:08.103711 15963 net.cpp:91] Creating Layer inception_3b/3x3_reduce
I0403 15:42:08.103729 15963 net.cpp:425] inception_3b/3x3_reduce <- inception_3a/output_inception_3a/output_0_split_1
I0403 15:42:08.103750 15963 net.cpp:399] inception_3b/3x3_reduce -> inception_3b/3x3_reduce
I0403 15:42:08.104913 15963 net.cpp:141] Setting up inception_3b/3x3_reduce
I0403 15:42:08.104943 15963 net.cpp:148] Top shape: 24 128 28 28 (2408448)
I0403 15:42:08.104959 15963 net.cpp:156] Memory required for data: 686408736
I0403 15:42:08.104979 15963 layer_factory.hpp:77] Creating layer inception_3b/relu_3x3_reduce
I0403 15:42:08.104996 15963 net.cpp:91] Creating Layer inception_3b/relu_3x3_reduce
I0403 15:42:08.105013 15963 net.cpp:425] inception_3b/relu_3x3_reduce <- inception_3b/3x3_reduce
I0403 15:42:08.105033 15963 net.cpp:386] inception_3b/relu_3x3_reduce -> inception_3b/3x3_reduce (in-place)
I0403 15:42:08.105204 15963 net.cpp:141] Setting up inception_3b/relu_3x3_reduce
I0403 15:42:08.105229 15963 net.cpp:148] Top shape: 24 128 28 28 (2408448)
I0403 15:42:08.105244 15963 net.cpp:156] Memory required for data: 696042528
I0403 15:42:08.105258 15963 layer_factory.hpp:77] Creating layer inception_3b/3x3
I0403 15:42:08.105284 15963 net.cpp:91] Creating Layer inception_3b/3x3
I0403 15:42:08.105304 15963 net.cpp:425] inception_3b/3x3 <- inception_3b/3x3_reduce
I0403 15:42:08.105322 15963 net.cpp:399] inception_3b/3x3 -> inception_3b/3x3
I0403 15:42:08.108233 15963 net.cpp:141] Setting up inception_3b/3x3
I0403 15:42:08.108261 15963 net.cpp:148] Top shape: 24 192 28 28 (3612672)
I0403 15:42:08.108278 15963 net.cpp:156] Memory required for data: 710493216
I0403 15:42:08.108295 15963 layer_factory.hpp:77] Creating layer inception_3b/relu_3x3
I0403 15:42:08.108317 15963 net.cpp:91] Creating Layer inception_3b/relu_3x3
I0403 15:42:08.108335 15963 net.cpp:425] inception_3b/relu_3x3 <- inception_3b/3x3
I0403 15:42:08.108351 15963 net.cpp:386] inception_3b/relu_3x3 -> inception_3b/3x3 (in-place)
I0403 15:42:08.108629 15963 net.cpp:141] Setting up inception_3b/relu_3x3
I0403 15:42:08.108655 15963 net.cpp:148] Top shape: 24 192 28 28 (3612672)
I0403 15:42:08.108670 15963 net.cpp:156] Memory required for data: 724943904
I0403 15:42:08.108686 15963 layer_factory.hpp:77] Creating layer inception_3b/5x5_reduce
I0403 15:42:08.108708 15963 net.cpp:91] Creating Layer inception_3b/5x5_reduce
I0403 15:42:08.108726 15963 net.cpp:425] inception_3b/5x5_reduce <- inception_3a/output_inception_3a/output_0_split_2
I0403 15:42:08.108748 15963 net.cpp:399] inception_3b/5x5_reduce -> inception_3b/5x5_reduce
I0403 15:42:08.109735 15963 net.cpp:141] Setting up inception_3b/5x5_reduce
I0403 15:42:08.109762 15963 net.cpp:148] Top shape: 24 32 28 28 (602112)
I0403 15:42:08.109778 15963 net.cpp:156] Memory required for data: 727352352
I0403 15:42:08.109797 15963 layer_factory.hpp:77] Creating layer inception_3b/relu_5x5_reduce
I0403 15:42:08.109817 15963 net.cpp:91] Creating Layer inception_3b/relu_5x5_reduce
I0403 15:42:08.109834 15963 net.cpp:425] inception_3b/relu_5x5_reduce <- inception_3b/5x5_reduce
I0403 15:42:08.109853 15963 net.cpp:386] inception_3b/relu_5x5_reduce -> inception_3b/5x5_reduce (in-place)
I0403 15:42:08.110029 15963 net.cpp:141] Setting up inception_3b/relu_5x5_reduce
I0403 15:42:08.110066 15963 net.cpp:148] Top shape: 24 32 28 28 (602112)
I0403 15:42:08.110082 15963 net.cpp:156] Memory required for data: 729760800
I0403 15:42:08.110097 15963 layer_factory.hpp:77] Creating layer inception_3b/5x5
I0403 15:42:08.110121 15963 net.cpp:91] Creating Layer inception_3b/5x5
I0403 15:42:08.110138 15963 net.cpp:425] inception_3b/5x5 <- inception_3b/5x5_reduce
I0403 15:42:08.110157 15963 net.cpp:399] inception_3b/5x5 -> inception_3b/5x5
I0403 15:42:08.112126 15963 net.cpp:141] Setting up inception_3b/5x5
I0403 15:42:08.112157 15963 net.cpp:148] Top shape: 24 96 28 28 (1806336)
I0403 15:42:08.112174 15963 net.cpp:156] Memory required for data: 736986144
I0403 15:42:08.112192 15963 layer_factory.hpp:77] Creating layer inception_3b/relu_5x5
I0403 15:42:08.112210 15963 net.cpp:91] Creating Layer inception_3b/relu_5x5
I0403 15:42:08.112226 15963 net.cpp:425] inception_3b/relu_5x5 <- inception_3b/5x5
I0403 15:42:08.112246 15963 net.cpp:386] inception_3b/relu_5x5 -> inception_3b/5x5 (in-place)
I0403 15:42:08.112437 15963 net.cpp:141] Setting up inception_3b/relu_5x5
I0403 15:42:08.112462 15963 net.cpp:148] Top shape: 24 96 28 28 (1806336)
I0403 15:42:08.112478 15963 net.cpp:156] Memory required for data: 744211488
I0403 15:42:08.112491 15963 layer_factory.hpp:77] Creating layer inception_3b/pool
I0403 15:42:08.112509 15963 net.cpp:91] Creating Layer inception_3b/pool
I0403 15:42:08.112525 15963 net.cpp:425] inception_3b/pool <- inception_3a/output_inception_3a/output_0_split_3
I0403 15:42:08.112548 15963 net.cpp:399] inception_3b/pool -> inception_3b/pool
I0403 15:42:08.112608 15963 net.cpp:141] Setting up inception_3b/pool
I0403 15:42:08.112632 15963 net.cpp:148] Top shape: 24 256 28 28 (4816896)
I0403 15:42:08.112646 15963 net.cpp:156] Memory required for data: 763479072
I0403 15:42:08.112660 15963 layer_factory.hpp:77] Creating layer inception_3b/pool_proj
I0403 15:42:08.112685 15963 net.cpp:91] Creating Layer inception_3b/pool_proj
I0403 15:42:08.112704 15963 net.cpp:425] inception_3b/pool_proj <- inception_3b/pool
I0403 15:42:08.112725 15963 net.cpp:399] inception_3b/pool_proj -> inception_3b/pool_proj
I0403 15:42:08.113778 15963 net.cpp:141] Setting up inception_3b/pool_proj
I0403 15:42:08.113806 15963 net.cpp:148] Top shape: 24 64 28 28 (1204224)
I0403 15:42:08.113822 15963 net.cpp:156] Memory required for data: 768295968
I0403 15:42:08.113840 15963 layer_factory.hpp:77] Creating layer inception_3b/relu_pool_proj
I0403 15:42:08.113862 15963 net.cpp:91] Creating Layer inception_3b/relu_pool_proj
I0403 15:42:08.113879 15963 net.cpp:425] inception_3b/relu_pool_proj <- inception_3b/pool_proj
I0403 15:42:08.113898 15963 net.cpp:386] inception_3b/relu_pool_proj -> inception_3b/pool_proj (in-place)
I0403 15:42:08.114286 15963 net.cpp:141] Setting up inception_3b/relu_pool_proj
I0403 15:42:08.114312 15963 net.cpp:148] Top shape: 24 64 28 28 (1204224)
I0403 15:42:08.114327 15963 net.cpp:156] Memory required for data: 773112864
I0403 15:42:08.114342 15963 layer_factory.hpp:77] Creating layer inception_3b/output
I0403 15:42:08.114362 15963 net.cpp:91] Creating Layer inception_3b/output
I0403 15:42:08.114378 15963 net.cpp:425] inception_3b/output <- inception_3b/1x1
I0403 15:42:08.114395 15963 net.cpp:425] inception_3b/output <- inception_3b/3x3
I0403 15:42:08.114411 15963 net.cpp:425] inception_3b/output <- inception_3b/5x5
I0403 15:42:08.114428 15963 net.cpp:425] inception_3b/output <- inception_3b/pool_proj
I0403 15:42:08.114444 15963 net.cpp:399] inception_3b/output -> inception_3b/output
I0403 15:42:08.114490 15963 net.cpp:141] Setting up inception_3b/output
I0403 15:42:08.114513 15963 net.cpp:148] Top shape: 24 480 28 28 (9031680)
I0403 15:42:08.114527 15963 net.cpp:156] Memory required for data: 809239584
I0403 15:42:08.114567 15963 layer_factory.hpp:77] Creating layer pool3/3x3_s2
I0403 15:42:08.114589 15963 net.cpp:91] Creating Layer pool3/3x3_s2
I0403 15:42:08.114606 15963 net.cpp:425] pool3/3x3_s2 <- inception_3b/output
I0403 15:42:08.114639 15963 net.cpp:399] pool3/3x3_s2 -> pool3/3x3_s2
I0403 15:42:08.114717 15963 net.cpp:141] Setting up pool3/3x3_s2
I0403 15:42:08.114742 15963 net.cpp:148] Top shape: 24 480 14 14 (2257920)
I0403 15:42:08.114758 15963 net.cpp:156] Memory required for data: 818271264
I0403 15:42:08.114774 15963 layer_factory.hpp:77] Creating layer pool3/3x3_s2_pool3/3x3_s2_0_split
I0403 15:42:08.114792 15963 net.cpp:91] Creating Layer pool3/3x3_s2_pool3/3x3_s2_0_split
I0403 15:42:08.114809 15963 net.cpp:425] pool3/3x3_s2_pool3/3x3_s2_0_split <- pool3/3x3_s2
I0403 15:42:08.114830 15963 net.cpp:399] pool3/3x3_s2_pool3/3x3_s2_0_split -> pool3/3x3_s2_pool3/3x3_s2_0_split_0
I0403 15:42:08.114851 15963 net.cpp:399] pool3/3x3_s2_pool3/3x3_s2_0_split -> pool3/3x3_s2_pool3/3x3_s2_0_split_1
I0403 15:42:08.114872 15963 net.cpp:399] pool3/3x3_s2_pool3/3x3_s2_0_split -> pool3/3x3_s2_pool3/3x3_s2_0_split_2
I0403 15:42:08.114907 15963 net.cpp:399] pool3/3x3_s2_pool3/3x3_s2_0_split -> pool3/3x3_s2_pool3/3x3_s2_0_split_3
I0403 15:42:08.114985 15963 net.cpp:141] Setting up pool3/3x3_s2_pool3/3x3_s2_0_split
I0403 15:42:08.115010 15963 net.cpp:148] Top shape: 24 480 14 14 (2257920)
I0403 15:42:08.115026 15963 net.cpp:148] Top shape: 24 480 14 14 (2257920)
I0403 15:42:08.115042 15963 net.cpp:148] Top shape: 24 480 14 14 (2257920)
I0403 15:42:08.115058 15963 net.cpp:148] Top shape: 24 480 14 14 (2257920)
I0403 15:42:08.115072 15963 net.cpp:156] Memory required for data: 854397984
I0403 15:42:08.115087 15963 layer_factory.hpp:77] Creating layer inception_4a/1x1
I0403 15:42:08.115111 15963 net.cpp:91] Creating Layer inception_4a/1x1
I0403 15:42:08.115129 15963 net.cpp:425] inception_4a/1x1 <- pool3/3x3_s2_pool3/3x3_s2_0_split_0
I0403 15:42:08.115149 15963 net.cpp:399] inception_4a/1x1 -> inception_4a/1x1
I0403 15:42:08.116773 15963 net.cpp:141] Setting up inception_4a/1x1
I0403 15:42:08.116803 15963 net.cpp:148] Top shape: 24 192 14 14 (903168)
I0403 15:42:08.116821 15963 net.cpp:156] Memory required for data: 858010656
I0403 15:42:08.116839 15963 layer_factory.hpp:77] Creating layer inception_4a/relu_1x1
I0403 15:42:08.116858 15963 net.cpp:91] Creating Layer inception_4a/relu_1x1
I0403 15:42:08.116874 15963 net.cpp:425] inception_4a/relu_1x1 <- inception_4a/1x1
I0403 15:42:08.116895 15963 net.cpp:386] inception_4a/relu_1x1 -> inception_4a/1x1 (in-place)
I0403 15:42:08.117079 15963 net.cpp:141] Setting up inception_4a/relu_1x1
I0403 15:42:08.117105 15963 net.cpp:148] Top shape: 24 192 14 14 (903168)
I0403 15:42:08.117120 15963 net.cpp:156] Memory required for data: 861623328
I0403 15:42:08.117136 15963 layer_factory.hpp:77] Creating layer inception_4a/3x3_reduce
I0403 15:42:08.117158 15963 net.cpp:91] Creating Layer inception_4a/3x3_reduce
I0403 15:42:08.117177 15963 net.cpp:425] inception_4a/3x3_reduce <- pool3/3x3_s2_pool3/3x3_s2_0_split_1
I0403 15:42:08.117198 15963 net.cpp:399] inception_4a/3x3_reduce -> inception_4a/3x3_reduce
I0403 15:42:08.118507 15963 net.cpp:141] Setting up inception_4a/3x3_reduce
I0403 15:42:08.118542 15963 net.cpp:148] Top shape: 24 96 14 14 (451584)
I0403 15:42:08.118561 15963 net.cpp:156] Memory required for data: 863429664
I0403 15:42:08.118583 15963 layer_factory.hpp:77] Creating layer inception_4a/relu_3x3_reduce
I0403 15:42:08.118607 15963 net.cpp:91] Creating Layer inception_4a/relu_3x3_reduce
I0403 15:42:08.118624 15963 net.cpp:425] inception_4a/relu_3x3_reduce <- inception_4a/3x3_reduce
I0403 15:42:08.118643 15963 net.cpp:386] inception_4a/relu_3x3_reduce -> inception_4a/3x3_reduce (in-place)
I0403 15:42:08.118824 15963 net.cpp:141] Setting up inception_4a/relu_3x3_reduce
I0403 15:42:08.118849 15963 net.cpp:148] Top shape: 24 96 14 14 (451584)
I0403 15:42:08.118865 15963 net.cpp:156] Memory required for data: 865236000
I0403 15:42:08.118880 15963 layer_factory.hpp:77] Creating layer inception_4a/3x3
I0403 15:42:08.118903 15963 net.cpp:91] Creating Layer inception_4a/3x3
I0403 15:42:08.118921 15963 net.cpp:425] inception_4a/3x3 <- inception_4a/3x3_reduce
I0403 15:42:08.118943 15963 net.cpp:399] inception_4a/3x3 -> inception_4a/3x3
I0403 15:42:08.121714 15963 net.cpp:141] Setting up inception_4a/3x3
I0403 15:42:08.121743 15963 net.cpp:148] Top shape: 24 208 14 14 (978432)
I0403 15:42:08.121760 15963 net.cpp:156] Memory required for data: 869149728
I0403 15:42:08.121778 15963 layer_factory.hpp:77] Creating layer inception_4a/relu_3x3
I0403 15:42:08.121798 15963 net.cpp:91] Creating Layer inception_4a/relu_3x3
I0403 15:42:08.121814 15963 net.cpp:425] inception_4a/relu_3x3 <- inception_4a/3x3
I0403 15:42:08.121834 15963 net.cpp:386] inception_4a/relu_3x3 -> inception_4a/3x3 (in-place)
I0403 15:42:08.122119 15963 net.cpp:141] Setting up inception_4a/relu_3x3
I0403 15:42:08.122148 15963 net.cpp:148] Top shape: 24 208 14 14 (978432)
I0403 15:42:08.122162 15963 net.cpp:156] Memory required for data: 873063456
I0403 15:42:08.122179 15963 layer_factory.hpp:77] Creating layer inception_4a/5x5_reduce
I0403 15:42:08.122202 15963 net.cpp:91] Creating Layer inception_4a/5x5_reduce
I0403 15:42:08.122221 15963 net.cpp:425] inception_4a/5x5_reduce <- pool3/3x3_s2_pool3/3x3_s2_0_split_2
I0403 15:42:08.122242 15963 net.cpp:399] inception_4a/5x5_reduce -> inception_4a/5x5_reduce
I0403 15:42:08.123297 15963 net.cpp:141] Setting up inception_4a/5x5_reduce
I0403 15:42:08.123327 15963 net.cpp:148] Top shape: 24 16 14 14 (75264)
I0403 15:42:08.123342 15963 net.cpp:156] Memory required for data: 873364512
I0403 15:42:08.123360 15963 layer_factory.hpp:77] Creating layer inception_4a/relu_5x5_reduce
I0403 15:42:08.123381 15963 net.cpp:91] Creating Layer inception_4a/relu_5x5_reduce
I0403 15:42:08.123399 15963 net.cpp:425] inception_4a/relu_5x5_reduce <- inception_4a/5x5_reduce
I0403 15:42:08.123417 15963 net.cpp:386] inception_4a/relu_5x5_reduce -> inception_4a/5x5_reduce (in-place)
I0403 15:42:08.123606 15963 net.cpp:141] Setting up inception_4a/relu_5x5_reduce
I0403 15:42:08.123633 15963 net.cpp:148] Top shape: 24 16 14 14 (75264)
I0403 15:42:08.123648 15963 net.cpp:156] Memory required for data: 873665568
I0403 15:42:08.123663 15963 layer_factory.hpp:77] Creating layer inception_4a/5x5
I0403 15:42:08.123687 15963 net.cpp:91] Creating Layer inception_4a/5x5
I0403 15:42:08.123704 15963 net.cpp:425] inception_4a/5x5 <- inception_4a/5x5_reduce
I0403 15:42:08.123724 15963 net.cpp:399] inception_4a/5x5 -> inception_4a/5x5
I0403 15:42:08.124847 15963 net.cpp:141] Setting up inception_4a/5x5
I0403 15:42:08.124876 15963 net.cpp:148] Top shape: 24 48 14 14 (225792)
I0403 15:42:08.124891 15963 net.cpp:156] Memory required for data: 874568736
I0403 15:42:08.124910 15963 layer_factory.hpp:77] Creating layer inception_4a/relu_5x5
I0403 15:42:08.124932 15963 net.cpp:91] Creating Layer inception_4a/relu_5x5
I0403 15:42:08.124948 15963 net.cpp:425] inception_4a/relu_5x5 <- inception_4a/5x5
I0403 15:42:08.124966 15963 net.cpp:386] inception_4a/relu_5x5 -> inception_4a/5x5 (in-place)
I0403 15:42:08.125154 15963 net.cpp:141] Setting up inception_4a/relu_5x5
I0403 15:42:08.125181 15963 net.cpp:148] Top shape: 24 48 14 14 (225792)
I0403 15:42:08.125197 15963 net.cpp:156] Memory required for data: 875471904
I0403 15:42:08.125212 15963 layer_factory.hpp:77] Creating layer inception_4a/pool
I0403 15:42:08.125231 15963 net.cpp:91] Creating Layer inception_4a/pool
I0403 15:42:08.125247 15963 net.cpp:425] inception_4a/pool <- pool3/3x3_s2_pool3/3x3_s2_0_split_3
I0403 15:42:08.125269 15963 net.cpp:399] inception_4a/pool -> inception_4a/pool
I0403 15:42:08.125332 15963 net.cpp:141] Setting up inception_4a/pool
I0403 15:42:08.125360 15963 net.cpp:148] Top shape: 24 480 14 14 (2257920)
I0403 15:42:08.125375 15963 net.cpp:156] Memory required for data: 884503584
I0403 15:42:08.125390 15963 layer_factory.hpp:77] Creating layer inception_4a/pool_proj
I0403 15:42:08.125411 15963 net.cpp:91] Creating Layer inception_4a/pool_proj
I0403 15:42:08.125427 15963 net.cpp:425] inception_4a/pool_proj <- inception_4a/pool
I0403 15:42:08.125449 15963 net.cpp:399] inception_4a/pool_proj -> inception_4a/pool_proj
I0403 15:42:08.126658 15963 net.cpp:141] Setting up inception_4a/pool_proj
I0403 15:42:08.126691 15963 net.cpp:148] Top shape: 24 64 14 14 (301056)
I0403 15:42:08.126723 15963 net.cpp:156] Memory required for data: 885707808
I0403 15:42:08.126742 15963 layer_factory.hpp:77] Creating layer inception_4a/relu_pool_proj
I0403 15:42:08.126761 15963 net.cpp:91] Creating Layer inception_4a/relu_pool_proj
I0403 15:42:08.126778 15963 net.cpp:425] inception_4a/relu_pool_proj <- inception_4a/pool_proj
I0403 15:42:08.126796 15963 net.cpp:386] inception_4a/relu_pool_proj -> inception_4a/pool_proj (in-place)
I0403 15:42:08.127087 15963 net.cpp:141] Setting up inception_4a/relu_pool_proj
I0403 15:42:08.127116 15963 net.cpp:148] Top shape: 24 64 14 14 (301056)
I0403 15:42:08.127133 15963 net.cpp:156] Memory required for data: 886912032
I0403 15:42:08.127149 15963 layer_factory.hpp:77] Creating layer inception_4a/output
I0403 15:42:08.127167 15963 net.cpp:91] Creating Layer inception_4a/output
I0403 15:42:08.127183 15963 net.cpp:425] inception_4a/output <- inception_4a/1x1
I0403 15:42:08.127200 15963 net.cpp:425] inception_4a/output <- inception_4a/3x3
I0403 15:42:08.127218 15963 net.cpp:425] inception_4a/output <- inception_4a/5x5
I0403 15:42:08.127233 15963 net.cpp:425] inception_4a/output <- inception_4a/pool_proj
I0403 15:42:08.127251 15963 net.cpp:399] inception_4a/output -> inception_4a/output
I0403 15:42:08.127300 15963 net.cpp:141] Setting up inception_4a/output
I0403 15:42:08.127322 15963 net.cpp:148] Top shape: 24 512 14 14 (2408448)
I0403 15:42:08.127337 15963 net.cpp:156] Memory required for data: 896545824
I0403 15:42:08.127352 15963 layer_factory.hpp:77] Creating layer inception_4a/output_inception_4a/output_0_split
I0403 15:42:08.127373 15963 net.cpp:91] Creating Layer inception_4a/output_inception_4a/output_0_split
I0403 15:42:08.127390 15963 net.cpp:425] inception_4a/output_inception_4a/output_0_split <- inception_4a/output
I0403 15:42:08.127408 15963 net.cpp:399] inception_4a/output_inception_4a/output_0_split -> inception_4a/output_inception_4a/output_0_split_0
I0403 15:42:08.127429 15963 net.cpp:399] inception_4a/output_inception_4a/output_0_split -> inception_4a/output_inception_4a/output_0_split_1
I0403 15:42:08.127450 15963 net.cpp:399] inception_4a/output_inception_4a/output_0_split -> inception_4a/output_inception_4a/output_0_split_2
I0403 15:42:08.127473 15963 net.cpp:399] inception_4a/output_inception_4a/output_0_split -> inception_4a/output_inception_4a/output_0_split_3
I0403 15:42:08.127496 15963 net.cpp:399] inception_4a/output_inception_4a/output_0_split -> inception_4a/output_inception_4a/output_0_split_4
I0403 15:42:08.127599 15963 net.cpp:141] Setting up inception_4a/output_inception_4a/output_0_split
I0403 15:42:08.127624 15963 net.cpp:148] Top shape: 24 512 14 14 (2408448)
I0403 15:42:08.127640 15963 net.cpp:148] Top shape: 24 512 14 14 (2408448)
I0403 15:42:08.127656 15963 net.cpp:148] Top shape: 24 512 14 14 (2408448)
I0403 15:42:08.127672 15963 net.cpp:148] Top shape: 24 512 14 14 (2408448)
I0403 15:42:08.127688 15963 net.cpp:148] Top shape: 24 512 14 14 (2408448)
I0403 15:42:08.127703 15963 net.cpp:156] Memory required for data: 944714784
I0403 15:42:08.127718 15963 layer_factory.hpp:77] Creating layer loss1/ave_pool
I0403 15:42:08.127739 15963 net.cpp:91] Creating Layer loss1/ave_pool
I0403 15:42:08.127756 15963 net.cpp:425] loss1/ave_pool <- inception_4a/output_inception_4a/output_0_split_0
I0403 15:42:08.127775 15963 net.cpp:399] loss1/ave_pool -> loss1/ave_pool
I0403 15:42:08.127987 15963 net.cpp:141] Setting up loss1/ave_pool
I0403 15:42:08.128016 15963 net.cpp:148] Top shape: 24 512 4 4 (196608)
I0403 15:42:08.128033 15963 net.cpp:156] Memory required for data: 945501216
I0403 15:42:08.128048 15963 layer_factory.hpp:77] Creating layer loss1/conv
I0403 15:42:08.128072 15963 net.cpp:91] Creating Layer loss1/conv
I0403 15:42:08.128089 15963 net.cpp:425] loss1/conv <- loss1/ave_pool
I0403 15:42:08.128108 15963 net.cpp:399] loss1/conv -> loss1/conv
I0403 15:42:08.129565 15963 net.cpp:141] Setting up loss1/conv
I0403 15:42:08.129595 15963 net.cpp:148] Top shape: 24 128 4 4 (49152)
I0403 15:42:08.129611 15963 net.cpp:156] Memory required for data: 945697824
I0403 15:42:08.129644 15963 layer_factory.hpp:77] Creating layer loss1/relu_conv
I0403 15:42:08.129664 15963 net.cpp:91] Creating Layer loss1/relu_conv
I0403 15:42:08.129683 15963 net.cpp:425] loss1/relu_conv <- loss1/conv
I0403 15:42:08.129703 15963 net.cpp:386] loss1/relu_conv -> loss1/conv (in-place)
I0403 15:42:08.129989 15963 net.cpp:141] Setting up loss1/relu_conv
I0403 15:42:08.130017 15963 net.cpp:148] Top shape: 24 128 4 4 (49152)
I0403 15:42:08.130033 15963 net.cpp:156] Memory required for data: 945894432
I0403 15:42:08.130048 15963 layer_factory.hpp:77] Creating layer loss1/fc
I0403 15:42:08.130070 15963 net.cpp:91] Creating Layer loss1/fc
I0403 15:42:08.130091 15963 net.cpp:425] loss1/fc <- loss1/conv
I0403 15:42:08.130111 15963 net.cpp:399] loss1/fc -> loss1/fc
I0403 15:42:08.148443 15963 net.cpp:141] Setting up loss1/fc
I0403 15:42:08.148478 15963 net.cpp:148] Top shape: 24 1024 (24576)
I0403 15:42:08.148494 15963 net.cpp:156] Memory required for data: 945992736
I0403 15:42:08.148514 15963 layer_factory.hpp:77] Creating layer loss1/relu_fc
I0403 15:42:08.148542 15963 net.cpp:91] Creating Layer loss1/relu_fc
I0403 15:42:08.148562 15963 net.cpp:425] loss1/relu_fc <- loss1/fc
I0403 15:42:08.148581 15963 net.cpp:386] loss1/relu_fc -> loss1/fc (in-place)
I0403 15:42:08.148798 15963 net.cpp:141] Setting up loss1/relu_fc
I0403 15:42:08.148824 15963 net.cpp:148] Top shape: 24 1024 (24576)
I0403 15:42:08.148839 15963 net.cpp:156] Memory required for data: 946091040
I0403 15:42:08.148854 15963 layer_factory.hpp:77] Creating layer loss1/drop_fc
I0403 15:42:08.148882 15963 net.cpp:91] Creating Layer loss1/drop_fc
I0403 15:42:08.148901 15963 net.cpp:425] loss1/drop_fc <- loss1/fc
I0403 15:42:08.148922 15963 net.cpp:386] loss1/drop_fc -> loss1/fc (in-place)
I0403 15:42:08.148977 15963 net.cpp:141] Setting up loss1/drop_fc
I0403 15:42:08.148999 15963 net.cpp:148] Top shape: 24 1024 (24576)
I0403 15:42:08.149015 15963 net.cpp:156] Memory required for data: 946189344
I0403 15:42:08.149030 15963 layer_factory.hpp:77] Creating layer loss1/classifier_plantvillage
I0403 15:42:08.149055 15963 net.cpp:91] Creating Layer loss1/classifier_plantvillage
I0403 15:42:08.149072 15963 net.cpp:425] loss1/classifier_plantvillage <- loss1/fc
I0403 15:42:08.149096 15963 net.cpp:399] loss1/classifier_plantvillage -> loss1/classifier_plantvillage
I0403 15:42:08.150079 15963 net.cpp:141] Setting up loss1/classifier_plantvillage
I0403 15:42:08.150110 15963 net.cpp:148] Top shape: 24 38 (912)
I0403 15:42:08.150126 15963 net.cpp:156] Memory required for data: 946192992
I0403 15:42:08.150146 15963 layer_factory.hpp:77] Creating layer loss1/classifier_plantvillage_loss1/classifier_plantvillage_0_split
I0403 15:42:08.150164 15963 net.cpp:91] Creating Layer loss1/classifier_plantvillage_loss1/classifier_plantvillage_0_split
I0403 15:42:08.150182 15963 net.cpp:425] loss1/classifier_plantvillage_loss1/classifier_plantvillage_0_split <- loss1/classifier_plantvillage
I0403 15:42:08.150202 15963 net.cpp:399] loss1/classifier_plantvillage_loss1/classifier_plantvillage_0_split -> loss1/classifier_plantvillage_loss1/classifier_plantvillage_0_split_0
I0403 15:42:08.150224 15963 net.cpp:399] loss1/classifier_plantvillage_loss1/classifier_plantvillage_0_split -> loss1/classifier_plantvillage_loss1/classifier_plantvillage_0_split_1
I0403 15:42:08.150245 15963 net.cpp:399] loss1/classifier_plantvillage_loss1/classifier_plantvillage_0_split -> loss1/classifier_plantvillage_loss1/classifier_plantvillage_0_split_2
I0403 15:42:08.150315 15963 net.cpp:141] Setting up loss1/classifier_plantvillage_loss1/classifier_plantvillage_0_split
I0403 15:42:08.150338 15963 net.cpp:148] Top shape: 24 38 (912)
I0403 15:42:08.150354 15963 net.cpp:148] Top shape: 24 38 (912)
I0403 15:42:08.150370 15963 net.cpp:148] Top shape: 24 38 (912)
I0403 15:42:08.150384 15963 net.cpp:156] Memory required for data: 946203936
I0403 15:42:08.150400 15963 layer_factory.hpp:77] Creating layer inception_4b/1x1
I0403 15:42:08.150424 15963 net.cpp:91] Creating Layer inception_4b/1x1
I0403 15:42:08.150465 15963 net.cpp:425] inception_4b/1x1 <- inception_4a/output_inception_4a/output_0_split_1
I0403 15:42:08.150486 15963 net.cpp:399] inception_4b/1x1 -> inception_4b/1x1
I0403 15:42:08.152221 15963 net.cpp:141] Setting up inception_4b/1x1
I0403 15:42:08.152251 15963 net.cpp:148] Top shape: 24 160 14 14 (752640)
I0403 15:42:08.152266 15963 net.cpp:156] Memory required for data: 949214496
I0403 15:42:08.152286 15963 layer_factory.hpp:77] Creating layer inception_4b/relu_1x1
I0403 15:42:08.152307 15963 net.cpp:91] Creating Layer inception_4b/relu_1x1
I0403 15:42:08.152324 15963 net.cpp:425] inception_4b/relu_1x1 <- inception_4b/1x1
I0403 15:42:08.152343 15963 net.cpp:386] inception_4b/relu_1x1 -> inception_4b/1x1 (in-place)
I0403 15:42:08.152529 15963 net.cpp:141] Setting up inception_4b/relu_1x1
I0403 15:42:08.152560 15963 net.cpp:148] Top shape: 24 160 14 14 (752640)
I0403 15:42:08.152576 15963 net.cpp:156] Memory required for data: 952225056
I0403 15:42:08.152591 15963 layer_factory.hpp:77] Creating layer inception_4b/3x3_reduce
I0403 15:42:08.152614 15963 net.cpp:91] Creating Layer inception_4b/3x3_reduce
I0403 15:42:08.152634 15963 net.cpp:425] inception_4b/3x3_reduce <- inception_4a/output_inception_4a/output_0_split_2
I0403 15:42:08.152654 15963 net.cpp:399] inception_4b/3x3_reduce -> inception_4b/3x3_reduce
I0403 15:42:08.154054 15963 net.cpp:141] Setting up inception_4b/3x3_reduce
I0403 15:42:08.154083 15963 net.cpp:148] Top shape: 24 112 14 14 (526848)
I0403 15:42:08.154099 15963 net.cpp:156] Memory required for data: 954332448
I0403 15:42:08.154119 15963 layer_factory.hpp:77] Creating layer inception_4b/relu_3x3_reduce
I0403 15:42:08.154139 15963 net.cpp:91] Creating Layer inception_4b/relu_3x3_reduce
I0403 15:42:08.154156 15963 net.cpp:425] inception_4b/relu_3x3_reduce <- inception_4b/3x3_reduce
I0403 15:42:08.154175 15963 net.cpp:386] inception_4b/relu_3x3_reduce -> inception_4b/3x3_reduce (in-place)
I0403 15:42:08.154464 15963 net.cpp:141] Setting up inception_4b/relu_3x3_reduce
I0403 15:42:08.154491 15963 net.cpp:148] Top shape: 24 112 14 14 (526848)
I0403 15:42:08.154507 15963 net.cpp:156] Memory required for data: 956439840
I0403 15:42:08.154522 15963 layer_factory.hpp:77] Creating layer inception_4b/3x3
I0403 15:42:08.154558 15963 net.cpp:91] Creating Layer inception_4b/3x3
I0403 15:42:08.154579 15963 net.cpp:425] inception_4b/3x3 <- inception_4b/3x3_reduce
I0403 15:42:08.154602 15963 net.cpp:399] inception_4b/3x3 -> inception_4b/3x3
I0403 15:42:08.157698 15963 net.cpp:141] Setting up inception_4b/3x3
I0403 15:42:08.157734 15963 net.cpp:148] Top shape: 24 224 14 14 (1053696)
I0403 15:42:08.157752 15963 net.cpp:156] Memory required for data: 960654624
I0403 15:42:08.157771 15963 layer_factory.hpp:77] Creating layer inception_4b/relu_3x3
I0403 15:42:08.157790 15963 net.cpp:91] Creating Layer inception_4b/relu_3x3
I0403 15:42:08.157806 15963 net.cpp:425] inception_4b/relu_3x3 <- inception_4b/3x3
I0403 15:42:08.157827 15963 net.cpp:386] inception_4b/relu_3x3 -> inception_4b/3x3 (in-place)
I0403 15:42:08.158016 15963 net.cpp:141] Setting up inception_4b/relu_3x3
I0403 15:42:08.158042 15963 net.cpp:148] Top shape: 24 224 14 14 (1053696)
I0403 15:42:08.158057 15963 net.cpp:156] Memory required for data: 964869408
I0403 15:42:08.158072 15963 layer_factory.hpp:77] Creating layer inception_4b/5x5_reduce
I0403 15:42:08.158095 15963 net.cpp:91] Creating Layer inception_4b/5x5_reduce
I0403 15:42:08.158114 15963 net.cpp:425] inception_4b/5x5_reduce <- inception_4a/output_inception_4a/output_0_split_3
I0403 15:42:08.158138 15963 net.cpp:399] inception_4b/5x5_reduce -> inception_4b/5x5_reduce
I0403 15:42:08.159299 15963 net.cpp:141] Setting up inception_4b/5x5_reduce
I0403 15:42:08.159328 15963 net.cpp:148] Top shape: 24 24 14 14 (112896)
I0403 15:42:08.159346 15963 net.cpp:156] Memory required for data: 965320992
I0403 15:42:08.159365 15963 layer_factory.hpp:77] Creating layer inception_4b/relu_5x5_reduce
I0403 15:42:08.159389 15963 net.cpp:91] Creating Layer inception_4b/relu_5x5_reduce
I0403 15:42:08.159421 15963 net.cpp:425] inception_4b/relu_5x5_reduce <- inception_4b/5x5_reduce
I0403 15:42:08.159442 15963 net.cpp:386] inception_4b/relu_5x5_reduce -> inception_4b/5x5_reduce (in-place)
I0403 15:42:08.159642 15963 net.cpp:141] Setting up inception_4b/relu_5x5_reduce
I0403 15:42:08.159672 15963 net.cpp:148] Top shape: 24 24 14 14 (112896)
I0403 15:42:08.159689 15963 net.cpp:156] Memory required for data: 965772576
I0403 15:42:08.159704 15963 layer_factory.hpp:77] Creating layer inception_4b/5x5
I0403 15:42:08.159729 15963 net.cpp:91] Creating Layer inception_4b/5x5
I0403 15:42:08.159747 15963 net.cpp:425] inception_4b/5x5 <- inception_4b/5x5_reduce
I0403 15:42:08.159767 15963 net.cpp:399] inception_4b/5x5 -> inception_4b/5x5
I0403 15:42:08.161087 15963 net.cpp:141] Setting up inception_4b/5x5
I0403 15:42:08.161116 15963 net.cpp:148] Top shape: 24 64 14 14 (301056)
I0403 15:42:08.161134 15963 net.cpp:156] Memory required for data: 966976800
I0403 15:42:08.161152 15963 layer_factory.hpp:77] Creating layer inception_4b/relu_5x5
I0403 15:42:08.161175 15963 net.cpp:91] Creating Layer inception_4b/relu_5x5
I0403 15:42:08.161193 15963 net.cpp:425] inception_4b/relu_5x5 <- inception_4b/5x5
I0403 15:42:08.161211 15963 net.cpp:386] inception_4b/relu_5x5 -> inception_4b/5x5 (in-place)
I0403 15:42:08.161525 15963 net.cpp:141] Setting up inception_4b/relu_5x5
I0403 15:42:08.161558 15963 net.cpp:148] Top shape: 24 64 14 14 (301056)
I0403 15:42:08.161576 15963 net.cpp:156] Memory required for data: 968181024
I0403 15:42:08.161592 15963 layer_factory.hpp:77] Creating layer inception_4b/pool
I0403 15:42:08.161612 15963 net.cpp:91] Creating Layer inception_4b/pool
I0403 15:42:08.161629 15963 net.cpp:425] inception_4b/pool <- inception_4a/output_inception_4a/output_0_split_4
I0403 15:42:08.161653 15963 net.cpp:399] inception_4b/pool -> inception_4b/pool
I0403 15:42:08.161722 15963 net.cpp:141] Setting up inception_4b/pool
I0403 15:42:08.161748 15963 net.cpp:148] Top shape: 24 512 14 14 (2408448)
I0403 15:42:08.161764 15963 net.cpp:156] Memory required for data: 977814816
I0403 15:42:08.161779 15963 layer_factory.hpp:77] Creating layer inception_4b/pool_proj
I0403 15:42:08.161803 15963 net.cpp:91] Creating Layer inception_4b/pool_proj
I0403 15:42:08.161823 15963 net.cpp:425] inception_4b/pool_proj <- inception_4b/pool
I0403 15:42:08.161844 15963 net.cpp:399] inception_4b/pool_proj -> inception_4b/pool_proj
I0403 15:42:08.163139 15963 net.cpp:141] Setting up inception_4b/pool_proj
I0403 15:42:08.163168 15963 net.cpp:148] Top shape: 24 64 14 14 (301056)
I0403 15:42:08.163185 15963 net.cpp:156] Memory required for data: 979019040
I0403 15:42:08.163205 15963 layer_factory.hpp:77] Creating layer inception_4b/relu_pool_proj
I0403 15:42:08.163228 15963 net.cpp:91] Creating Layer inception_4b/relu_pool_proj
I0403 15:42:08.163247 15963 net.cpp:425] inception_4b/relu_pool_proj <- inception_4b/pool_proj
I0403 15:42:08.163266 15963 net.cpp:386] inception_4b/relu_pool_proj -> inception_4b/pool_proj (in-place)
I0403 15:42:08.163458 15963 net.cpp:141] Setting up inception_4b/relu_pool_proj
I0403 15:42:08.163486 15963 net.cpp:148] Top shape: 24 64 14 14 (301056)
I0403 15:42:08.163501 15963 net.cpp:156] Memory required for data: 980223264
I0403 15:42:08.163516 15963 layer_factory.hpp:77] Creating layer inception_4b/output
I0403 15:42:08.163543 15963 net.cpp:91] Creating Layer inception_4b/output
I0403 15:42:08.163563 15963 net.cpp:425] inception_4b/output <- inception_4b/1x1
I0403 15:42:08.163581 15963 net.cpp:425] inception_4b/output <- inception_4b/3x3
I0403 15:42:08.163599 15963 net.cpp:425] inception_4b/output <- inception_4b/5x5
I0403 15:42:08.163617 15963 net.cpp:425] inception_4b/output <- inception_4b/pool_proj
I0403 15:42:08.163636 15963 net.cpp:399] inception_4b/output -> inception_4b/output
I0403 15:42:08.163687 15963 net.cpp:141] Setting up inception_4b/output
I0403 15:42:08.163712 15963 net.cpp:148] Top shape: 24 512 14 14 (2408448)
I0403 15:42:08.163727 15963 net.cpp:156] Memory required for data: 989857056
I0403 15:42:08.163758 15963 layer_factory.hpp:77] Creating layer inception_4b/output_inception_4b/output_0_split
I0403 15:42:08.163777 15963 net.cpp:91] Creating Layer inception_4b/output_inception_4b/output_0_split
I0403 15:42:08.163794 15963 net.cpp:425] inception_4b/output_inception_4b/output_0_split <- inception_4b/output
I0403 15:42:08.163816 15963 net.cpp:399] inception_4b/output_inception_4b/output_0_split -> inception_4b/output_inception_4b/output_0_split_0
I0403 15:42:08.163839 15963 net.cpp:399] inception_4b/output_inception_4b/output_0_split -> inception_4b/output_inception_4b/output_0_split_1
I0403 15:42:08.163861 15963 net.cpp:399] inception_4b/output_inception_4b/output_0_split -> inception_4b/output_inception_4b/output_0_split_2
I0403 15:42:08.163883 15963 net.cpp:399] inception_4b/output_inception_4b/output_0_split -> inception_4b/output_inception_4b/output_0_split_3
I0403 15:42:08.163975 15963 net.cpp:141] Setting up inception_4b/output_inception_4b/output_0_split
I0403 15:42:08.163998 15963 net.cpp:148] Top shape: 24 512 14 14 (2408448)
I0403 15:42:08.164016 15963 net.cpp:148] Top shape: 24 512 14 14 (2408448)
I0403 15:42:08.164033 15963 net.cpp:148] Top shape: 24 512 14 14 (2408448)
I0403 15:42:08.164050 15963 net.cpp:148] Top shape: 24 512 14 14 (2408448)
I0403 15:42:08.164064 15963 net.cpp:156] Memory required for data: 1028392224
I0403 15:42:08.164080 15963 layer_factory.hpp:77] Creating layer inception_4c/1x1
I0403 15:42:08.164105 15963 net.cpp:91] Creating Layer inception_4c/1x1
I0403 15:42:08.164124 15963 net.cpp:425] inception_4c/1x1 <- inception_4b/output_inception_4b/output_0_split_0
I0403 15:42:08.164150 15963 net.cpp:399] inception_4c/1x1 -> inception_4c/1x1
I0403 15:42:08.165701 15963 net.cpp:141] Setting up inception_4c/1x1
I0403 15:42:08.165731 15963 net.cpp:148] Top shape: 24 128 14 14 (602112)
I0403 15:42:08.165748 15963 net.cpp:156] Memory required for data: 1030800672
I0403 15:42:08.165768 15963 layer_factory.hpp:77] Creating layer inception_4c/relu_1x1
I0403 15:42:08.165791 15963 net.cpp:91] Creating Layer inception_4c/relu_1x1
I0403 15:42:08.165812 15963 net.cpp:425] inception_4c/relu_1x1 <- inception_4c/1x1
I0403 15:42:08.165830 15963 net.cpp:386] inception_4c/relu_1x1 -> inception_4c/1x1 (in-place)
I0403 15:42:08.166023 15963 net.cpp:141] Setting up inception_4c/relu_1x1
I0403 15:42:08.166049 15963 net.cpp:148] Top shape: 24 128 14 14 (602112)
I0403 15:42:08.166065 15963 net.cpp:156] Memory required for data: 1033209120
I0403 15:42:08.166081 15963 layer_factory.hpp:77] Creating layer inception_4c/3x3_reduce
I0403 15:42:08.166105 15963 net.cpp:91] Creating Layer inception_4c/3x3_reduce
I0403 15:42:08.166124 15963 net.cpp:425] inception_4c/3x3_reduce <- inception_4b/output_inception_4b/output_0_split_1
I0403 15:42:08.166147 15963 net.cpp:399] inception_4c/3x3_reduce -> inception_4c/3x3_reduce
I0403 15:42:08.168234 15963 net.cpp:141] Setting up inception_4c/3x3_reduce
I0403 15:42:08.168265 15963 net.cpp:148] Top shape: 24 128 14 14 (602112)
I0403 15:42:08.168282 15963 net.cpp:156] Memory required for data: 1035617568
I0403 15:42:08.168301 15963 layer_factory.hpp:77] Creating layer inception_4c/relu_3x3_reduce
I0403 15:42:08.168321 15963 net.cpp:91] Creating Layer inception_4c/relu_3x3_reduce
I0403 15:42:08.168339 15963 net.cpp:425] inception_4c/relu_3x3_reduce <- inception_4c/3x3_reduce
I0403 15:42:08.168364 15963 net.cpp:386] inception_4c/relu_3x3_reduce -> inception_4c/3x3_reduce (in-place)
I0403 15:42:08.168673 15963 net.cpp:141] Setting up inception_4c/relu_3x3_reduce
I0403 15:42:08.168701 15963 net.cpp:148] Top shape: 24 128 14 14 (602112)
I0403 15:42:08.168718 15963 net.cpp:156] Memory required for data: 1038026016
I0403 15:42:08.168733 15963 layer_factory.hpp:77] Creating layer inception_4c/3x3
I0403 15:42:08.168758 15963 net.cpp:91] Creating Layer inception_4c/3x3
I0403 15:42:08.168778 15963 net.cpp:425] inception_4c/3x3 <- inception_4c/3x3_reduce
I0403 15:42:08.168802 15963 net.cpp:399] inception_4c/3x3 -> inception_4c/3x3
I0403 15:42:08.172677 15963 net.cpp:141] Setting up inception_4c/3x3
I0403 15:42:08.172721 15963 net.cpp:148] Top shape: 24 256 14 14 (1204224)
I0403 15:42:08.172739 15963 net.cpp:156] Memory required for data: 1042842912
I0403 15:42:08.172775 15963 layer_factory.hpp:77] Creating layer inception_4c/relu_3x3
I0403 15:42:08.172799 15963 net.cpp:91] Creating Layer inception_4c/relu_3x3
I0403 15:42:08.172817 15963 net.cpp:425] inception_4c/relu_3x3 <- inception_4c/3x3
I0403 15:42:08.172837 15963 net.cpp:386] inception_4c/relu_3x3 -> inception_4c/3x3 (in-place)
I0403 15:42:08.173032 15963 net.cpp:141] Setting up inception_4c/relu_3x3
I0403 15:42:08.173059 15963 net.cpp:148] Top shape: 24 256 14 14 (1204224)
I0403 15:42:08.173076 15963 net.cpp:156] Memory required for data: 1047659808
I0403 15:42:08.173091 15963 layer_factory.hpp:77] Creating layer inception_4c/5x5_reduce
I0403 15:42:08.173115 15963 net.cpp:91] Creating Layer inception_4c/5x5_reduce
I0403 15:42:08.173133 15963 net.cpp:425] inception_4c/5x5_reduce <- inception_4b/output_inception_4b/output_0_split_2
I0403 15:42:08.173157 15963 net.cpp:399] inception_4c/5x5_reduce -> inception_4c/5x5_reduce
I0403 15:42:08.174326 15963 net.cpp:141] Setting up inception_4c/5x5_reduce
I0403 15:42:08.174356 15963 net.cpp:148] Top shape: 24 24 14 14 (112896)
I0403 15:42:08.174373 15963 net.cpp:156] Memory required for data: 1048111392
I0403 15:42:08.174393 15963 layer_factory.hpp:77] Creating layer inception_4c/relu_5x5_reduce
I0403 15:42:08.174414 15963 net.cpp:91] Creating Layer inception_4c/relu_5x5_reduce
I0403 15:42:08.174433 15963 net.cpp:425] inception_4c/relu_5x5_reduce <- inception_4c/5x5_reduce
I0403 15:42:08.174451 15963 net.cpp:386] inception_4c/relu_5x5_reduce -> inception_4c/5x5_reduce (in-place)
I0403 15:42:08.174661 15963 net.cpp:141] Setting up inception_4c/relu_5x5_reduce
I0403 15:42:08.174691 15963 net.cpp:148] Top shape: 24 24 14 14 (112896)
I0403 15:42:08.174708 15963 net.cpp:156] Memory required for data: 1048562976
I0403 15:42:08.174731 15963 layer_factory.hpp:77] Creating layer inception_4c/5x5
I0403 15:42:08.174759 15963 net.cpp:91] Creating Layer inception_4c/5x5
I0403 15:42:08.174778 15963 net.cpp:425] inception_4c/5x5 <- inception_4c/5x5_reduce
I0403 15:42:08.174800 15963 net.cpp:399] inception_4c/5x5 -> inception_4c/5x5
I0403 15:42:08.176131 15963 net.cpp:141] Setting up inception_4c/5x5
I0403 15:42:08.176161 15963 net.cpp:148] Top shape: 24 64 14 14 (301056)
I0403 15:42:08.176177 15963 net.cpp:156] Memory required for data: 1049767200
I0403 15:42:08.176197 15963 layer_factory.hpp:77] Creating layer inception_4c/relu_5x5
I0403 15:42:08.176218 15963 net.cpp:91] Creating Layer inception_4c/relu_5x5
I0403 15:42:08.176236 15963 net.cpp:425] inception_4c/relu_5x5 <- inception_4c/5x5
I0403 15:42:08.176254 15963 net.cpp:386] inception_4c/relu_5x5 -> inception_4c/5x5 (in-place)
I0403 15:42:08.176568 15963 net.cpp:141] Setting up inception_4c/relu_5x5
I0403 15:42:08.176596 15963 net.cpp:148] Top shape: 24 64 14 14 (301056)
I0403 15:42:08.176614 15963 net.cpp:156] Memory required for data: 1050971424
I0403 15:42:08.176628 15963 layer_factory.hpp:77] Creating layer inception_4c/pool
I0403 15:42:08.176653 15963 net.cpp:91] Creating Layer inception_4c/pool
I0403 15:42:08.176672 15963 net.cpp:425] inception_4c/pool <- inception_4b/output_inception_4b/output_0_split_3
I0403 15:42:08.176692 15963 net.cpp:399] inception_4c/pool -> inception_4c/pool
I0403 15:42:08.176762 15963 net.cpp:141] Setting up inception_4c/pool
I0403 15:42:08.176789 15963 net.cpp:148] Top shape: 24 512 14 14 (2408448)
I0403 15:42:08.176803 15963 net.cpp:156] Memory required for data: 1060605216
I0403 15:42:08.176820 15963 layer_factory.hpp:77] Creating layer inception_4c/pool_proj
I0403 15:42:08.176843 15963 net.cpp:91] Creating Layer inception_4c/pool_proj
I0403 15:42:08.176862 15963 net.cpp:425] inception_4c/pool_proj <- inception_4c/pool
I0403 15:42:08.176883 15963 net.cpp:399] inception_4c/pool_proj -> inception_4c/pool_proj
I0403 15:42:08.178202 15963 net.cpp:141] Setting up inception_4c/pool_proj
I0403 15:42:08.178232 15963 net.cpp:148] Top shape: 24 64 14 14 (301056)
I0403 15:42:08.178264 15963 net.cpp:156] Memory required for data: 1061809440
I0403 15:42:08.178285 15963 layer_factory.hpp:77] Creating layer inception_4c/relu_pool_proj
I0403 15:42:08.178308 15963 net.cpp:91] Creating Layer inception_4c/relu_pool_proj
I0403 15:42:08.178325 15963 net.cpp:425] inception_4c/relu_pool_proj <- inception_4c/pool_proj
I0403 15:42:08.178344 15963 net.cpp:386] inception_4c/relu_pool_proj -> inception_4c/pool_proj (in-place)
I0403 15:42:08.178542 15963 net.cpp:141] Setting up inception_4c/relu_pool_proj
I0403 15:42:08.178570 15963 net.cpp:148] Top shape: 24 64 14 14 (301056)
I0403 15:42:08.178586 15963 net.cpp:156] Memory required for data: 1063013664
I0403 15:42:08.178601 15963 layer_factory.hpp:77] Creating layer inception_4c/output
I0403 15:42:08.178622 15963 net.cpp:91] Creating Layer inception_4c/output
I0403 15:42:08.178640 15963 net.cpp:425] inception_4c/output <- inception_4c/1x1
I0403 15:42:08.178658 15963 net.cpp:425] inception_4c/output <- inception_4c/3x3
I0403 15:42:08.178675 15963 net.cpp:425] inception_4c/output <- inception_4c/5x5
I0403 15:42:08.178692 15963 net.cpp:425] inception_4c/output <- inception_4c/pool_proj
I0403 15:42:08.178710 15963 net.cpp:399] inception_4c/output -> inception_4c/output
I0403 15:42:08.178763 15963 net.cpp:141] Setting up inception_4c/output
I0403 15:42:08.178788 15963 net.cpp:148] Top shape: 24 512 14 14 (2408448)
I0403 15:42:08.178804 15963 net.cpp:156] Memory required for data: 1072647456
I0403 15:42:08.178819 15963 layer_factory.hpp:77] Creating layer inception_4c/output_inception_4c/output_0_split
I0403 15:42:08.178838 15963 net.cpp:91] Creating Layer inception_4c/output_inception_4c/output_0_split
I0403 15:42:08.178854 15963 net.cpp:425] inception_4c/output_inception_4c/output_0_split <- inception_4c/output
I0403 15:42:08.178875 15963 net.cpp:399] inception_4c/output_inception_4c/output_0_split -> inception_4c/output_inception_4c/output_0_split_0
I0403 15:42:08.178897 15963 net.cpp:399] inception_4c/output_inception_4c/output_0_split -> inception_4c/output_inception_4c/output_0_split_1
I0403 15:42:08.178920 15963 net.cpp:399] inception_4c/output_inception_4c/output_0_split -> inception_4c/output_inception_4c/output_0_split_2
I0403 15:42:08.178941 15963 net.cpp:399] inception_4c/output_inception_4c/output_0_split -> inception_4c/output_inception_4c/output_0_split_3
I0403 15:42:08.179036 15963 net.cpp:141] Setting up inception_4c/output_inception_4c/output_0_split
I0403 15:42:08.179076 15963 net.cpp:148] Top shape: 24 512 14 14 (2408448)
I0403 15:42:08.179095 15963 net.cpp:148] Top shape: 24 512 14 14 (2408448)
I0403 15:42:08.179111 15963 net.cpp:148] Top shape: 24 512 14 14 (2408448)
I0403 15:42:08.179141 15963 net.cpp:148] Top shape: 24 512 14 14 (2408448)
I0403 15:42:08.179154 15963 net.cpp:156] Memory required for data: 1111182624
I0403 15:42:08.179168 15963 layer_factory.hpp:77] Creating layer inception_4d/1x1
I0403 15:42:08.179190 15963 net.cpp:91] Creating Layer inception_4d/1x1
I0403 15:42:08.179208 15963 net.cpp:425] inception_4d/1x1 <- inception_4c/output_inception_4c/output_0_split_0
I0403 15:42:08.179229 15963 net.cpp:399] inception_4d/1x1 -> inception_4d/1x1
I0403 15:42:08.180636 15963 net.cpp:141] Setting up inception_4d/1x1
I0403 15:42:08.180666 15963 net.cpp:148] Top shape: 24 112 14 14 (526848)
I0403 15:42:08.180683 15963 net.cpp:156] Memory required for data: 1113290016
I0403 15:42:08.180701 15963 layer_factory.hpp:77] Creating layer inception_4d/relu_1x1
I0403 15:42:08.180721 15963 net.cpp:91] Creating Layer inception_4d/relu_1x1
I0403 15:42:08.180737 15963 net.cpp:425] inception_4d/relu_1x1 <- inception_4d/1x1
I0403 15:42:08.180757 15963 net.cpp:386] inception_4d/relu_1x1 -> inception_4d/1x1 (in-place)
I0403 15:42:08.180944 15963 net.cpp:141] Setting up inception_4d/relu_1x1
I0403 15:42:08.180969 15963 net.cpp:148] Top shape: 24 112 14 14 (526848)
I0403 15:42:08.180985 15963 net.cpp:156] Memory required for data: 1115397408
I0403 15:42:08.180999 15963 layer_factory.hpp:77] Creating layer inception_4d/3x3_reduce
I0403 15:42:08.181036 15963 net.cpp:91] Creating Layer inception_4d/3x3_reduce
I0403 15:42:08.181056 15963 net.cpp:425] inception_4d/3x3_reduce <- inception_4c/output_inception_4c/output_0_split_1
I0403 15:42:08.181077 15963 net.cpp:399] inception_4d/3x3_reduce -> inception_4d/3x3_reduce
I0403 15:42:08.182603 15963 net.cpp:141] Setting up inception_4d/3x3_reduce
I0403 15:42:08.182633 15963 net.cpp:148] Top shape: 24 144 14 14 (677376)
I0403 15:42:08.182651 15963 net.cpp:156] Memory required for data: 1118106912
I0403 15:42:08.182669 15963 layer_factory.hpp:77] Creating layer inception_4d/relu_3x3_reduce
I0403 15:42:08.182688 15963 net.cpp:91] Creating Layer inception_4d/relu_3x3_reduce
I0403 15:42:08.182705 15963 net.cpp:425] inception_4d/relu_3x3_reduce <- inception_4d/3x3_reduce
I0403 15:42:08.182723 15963 net.cpp:386] inception_4d/relu_3x3_reduce -> inception_4d/3x3_reduce (in-place)
I0403 15:42:08.183012 15963 net.cpp:141] Setting up inception_4d/relu_3x3_reduce
I0403 15:42:08.183039 15963 net.cpp:148] Top shape: 24 144 14 14 (677376)
I0403 15:42:08.183055 15963 net.cpp:156] Memory required for data: 1120816416
I0403 15:42:08.183071 15963 layer_factory.hpp:77] Creating layer inception_4d/3x3
I0403 15:42:08.183094 15963 net.cpp:91] Creating Layer inception_4d/3x3
I0403 15:42:08.183111 15963 net.cpp:425] inception_4d/3x3 <- inception_4d/3x3_reduce
I0403 15:42:08.183130 15963 net.cpp:399] inception_4d/3x3 -> inception_4d/3x3
I0403 15:42:08.187430 15963 net.cpp:141] Setting up inception_4d/3x3
I0403 15:42:08.187459 15963 net.cpp:148] Top shape: 24 288 14 14 (1354752)
I0403 15:42:08.187474 15963 net.cpp:156] Memory required for data: 1126235424
I0403 15:42:08.187494 15963 layer_factory.hpp:77] Creating layer inception_4d/relu_3x3
I0403 15:42:08.187512 15963 net.cpp:91] Creating Layer inception_4d/relu_3x3
I0403 15:42:08.187528 15963 net.cpp:425] inception_4d/relu_3x3 <- inception_4d/3x3
I0403 15:42:08.187554 15963 net.cpp:386] inception_4d/relu_3x3 -> inception_4d/3x3 (in-place)
I0403 15:42:08.187741 15963 net.cpp:141] Setting up inception_4d/relu_3x3
I0403 15:42:08.187765 15963 net.cpp:148] Top shape: 24 288 14 14 (1354752)
I0403 15:42:08.187780 15963 net.cpp:156] Memory required for data: 1131654432
I0403 15:42:08.187795 15963 layer_factory.hpp:77] Creating layer inception_4d/5x5_reduce
I0403 15:42:08.187818 15963 net.cpp:91] Creating Layer inception_4d/5x5_reduce
I0403 15:42:08.187835 15963 net.cpp:425] inception_4d/5x5_reduce <- inception_4c/output_inception_4c/output_0_split_2
I0403 15:42:08.187856 15963 net.cpp:399] inception_4d/5x5_reduce -> inception_4d/5x5_reduce
I0403 15:42:08.189016 15963 net.cpp:141] Setting up inception_4d/5x5_reduce
I0403 15:42:08.189046 15963 net.cpp:148] Top shape: 24 32 14 14 (150528)
I0403 15:42:08.189062 15963 net.cpp:156] Memory required for data: 1132256544
I0403 15:42:08.189081 15963 layer_factory.hpp:77] Creating layer inception_4d/relu_5x5_reduce
I0403 15:42:08.189100 15963 net.cpp:91] Creating Layer inception_4d/relu_5x5_reduce
I0403 15:42:08.189116 15963 net.cpp:425] inception_4d/relu_5x5_reduce <- inception_4d/5x5_reduce
I0403 15:42:08.189138 15963 net.cpp:386] inception_4d/relu_5x5_reduce -> inception_4d/5x5_reduce (in-place)
I0403 15:42:08.189327 15963 net.cpp:141] Setting up inception_4d/relu_5x5_reduce
I0403 15:42:08.189352 15963 net.cpp:148] Top shape: 24 32 14 14 (150528)
I0403 15:42:08.189366 15963 net.cpp:156] Memory required for data: 1132858656
I0403 15:42:08.189380 15963 layer_factory.hpp:77] Creating layer inception_4d/5x5
I0403 15:42:08.189402 15963 net.cpp:91] Creating Layer inception_4d/5x5
I0403 15:42:08.189420 15963 net.cpp:425] inception_4d/5x5 <- inception_4d/5x5_reduce
I0403 15:42:08.189441 15963 net.cpp:399] inception_4d/5x5 -> inception_4d/5x5
I0403 15:42:08.190989 15963 net.cpp:141] Setting up inception_4d/5x5
I0403 15:42:08.191017 15963 net.cpp:148] Top shape: 24 64 14 14 (301056)
I0403 15:42:08.191035 15963 net.cpp:156] Memory required for data: 1134062880
I0403 15:42:08.191053 15963 layer_factory.hpp:77] Creating layer inception_4d/relu_5x5
I0403 15:42:08.191089 15963 net.cpp:91] Creating Layer inception_4d/relu_5x5
I0403 15:42:08.191107 15963 net.cpp:425] inception_4d/relu_5x5 <- inception_4d/5x5
I0403 15:42:08.191126 15963 net.cpp:386] inception_4d/relu_5x5 -> inception_4d/5x5 (in-place)
I0403 15:42:08.191447 15963 net.cpp:141] Setting up inception_4d/relu_5x5
I0403 15:42:08.191473 15963 net.cpp:148] Top shape: 24 64 14 14 (301056)
I0403 15:42:08.191489 15963 net.cpp:156] Memory required for data: 1135267104
I0403 15:42:08.191504 15963 layer_factory.hpp:77] Creating layer inception_4d/pool
I0403 15:42:08.191524 15963 net.cpp:91] Creating Layer inception_4d/pool
I0403 15:42:08.191562 15963 net.cpp:425] inception_4d/pool <- inception_4c/output_inception_4c/output_0_split_3
I0403 15:42:08.191584 15963 net.cpp:399] inception_4d/pool -> inception_4d/pool
I0403 15:42:08.191671 15963 net.cpp:141] Setting up inception_4d/pool
I0403 15:42:08.191696 15963 net.cpp:148] Top shape: 24 512 14 14 (2408448)
I0403 15:42:08.191712 15963 net.cpp:156] Memory required for data: 1144900896
I0403 15:42:08.191728 15963 layer_factory.hpp:77] Creating layer inception_4d/pool_proj
I0403 15:42:08.191751 15963 net.cpp:91] Creating Layer inception_4d/pool_proj
I0403 15:42:08.191771 15963 net.cpp:425] inception_4d/pool_proj <- inception_4d/pool
I0403 15:42:08.191793 15963 net.cpp:399] inception_4d/pool_proj -> inception_4d/pool_proj
I0403 15:42:08.193681 15963 net.cpp:141] Setting up inception_4d/pool_proj
I0403 15:42:08.193711 15963 net.cpp:148] Top shape: 24 64 14 14 (301056)
I0403 15:42:08.193727 15963 net.cpp:156] Memory required for data: 1146105120
I0403 15:42:08.193745 15963 layer_factory.hpp:77] Creating layer inception_4d/relu_pool_proj
I0403 15:42:08.193764 15963 net.cpp:91] Creating Layer inception_4d/relu_pool_proj
I0403 15:42:08.193783 15963 net.cpp:425] inception_4d/relu_pool_proj <- inception_4d/pool_proj
I0403 15:42:08.193802 15963 net.cpp:386] inception_4d/relu_pool_proj -> inception_4d/pool_proj (in-place)
I0403 15:42:08.193994 15963 net.cpp:141] Setting up inception_4d/relu_pool_proj
I0403 15:42:08.194020 15963 net.cpp:148] Top shape: 24 64 14 14 (301056)
I0403 15:42:08.194036 15963 net.cpp:156] Memory required for data: 1147309344
I0403 15:42:08.194051 15963 layer_factory.hpp:77] Creating layer inception_4d/output
I0403 15:42:08.194070 15963 net.cpp:91] Creating Layer inception_4d/output
I0403 15:42:08.194087 15963 net.cpp:425] inception_4d/output <- inception_4d/1x1
I0403 15:42:08.194104 15963 net.cpp:425] inception_4d/output <- inception_4d/3x3
I0403 15:42:08.194121 15963 net.cpp:425] inception_4d/output <- inception_4d/5x5
I0403 15:42:08.194139 15963 net.cpp:425] inception_4d/output <- inception_4d/pool_proj
I0403 15:42:08.194156 15963 net.cpp:399] inception_4d/output -> inception_4d/output
I0403 15:42:08.194205 15963 net.cpp:141] Setting up inception_4d/output
I0403 15:42:08.194231 15963 net.cpp:148] Top shape: 24 528 14 14 (2483712)
I0403 15:42:08.194247 15963 net.cpp:156] Memory required for data: 1157244192
I0403 15:42:08.194262 15963 layer_factory.hpp:77] Creating layer inception_4d/output_inception_4d/output_0_split
I0403 15:42:08.194280 15963 net.cpp:91] Creating Layer inception_4d/output_inception_4d/output_0_split
I0403 15:42:08.194298 15963 net.cpp:425] inception_4d/output_inception_4d/output_0_split <- inception_4d/output
I0403 15:42:08.194319 15963 net.cpp:399] inception_4d/output_inception_4d/output_0_split -> inception_4d/output_inception_4d/output_0_split_0
I0403 15:42:08.194340 15963 net.cpp:399] inception_4d/output_inception_4d/output_0_split -> inception_4d/output_inception_4d/output_0_split_1
I0403 15:42:08.194362 15963 net.cpp:399] inception_4d/output_inception_4d/output_0_split -> inception_4d/output_inception_4d/output_0_split_2
I0403 15:42:08.194385 15963 net.cpp:399] inception_4d/output_inception_4d/output_0_split -> inception_4d/output_inception_4d/output_0_split_3
I0403 15:42:08.194406 15963 net.cpp:399] inception_4d/output_inception_4d/output_0_split -> inception_4d/output_inception_4d/output_0_split_4
I0403 15:42:08.194512 15963 net.cpp:141] Setting up inception_4d/output_inception_4d/output_0_split
I0403 15:42:08.194561 15963 net.cpp:148] Top shape: 24 528 14 14 (2483712)
I0403 15:42:08.194583 15963 net.cpp:148] Top shape: 24 528 14 14 (2483712)
I0403 15:42:08.194600 15963 net.cpp:148] Top shape: 24 528 14 14 (2483712)
I0403 15:42:08.194615 15963 net.cpp:148] Top shape: 24 528 14 14 (2483712)
I0403 15:42:08.194631 15963 net.cpp:148] Top shape: 24 528 14 14 (2483712)
I0403 15:42:08.194645 15963 net.cpp:156] Memory required for data: 1206918432
I0403 15:42:08.194660 15963 layer_factory.hpp:77] Creating layer loss2/ave_pool
I0403 15:42:08.194679 15963 net.cpp:91] Creating Layer loss2/ave_pool
I0403 15:42:08.194695 15963 net.cpp:425] loss2/ave_pool <- inception_4d/output_inception_4d/output_0_split_0
I0403 15:42:08.194716 15963 net.cpp:399] loss2/ave_pool -> loss2/ave_pool
I0403 15:42:08.195044 15963 net.cpp:141] Setting up loss2/ave_pool
I0403 15:42:08.195071 15963 net.cpp:148] Top shape: 24 528 4 4 (202752)
I0403 15:42:08.195087 15963 net.cpp:156] Memory required for data: 1207729440
I0403 15:42:08.195103 15963 layer_factory.hpp:77] Creating layer loss2/conv
I0403 15:42:08.195127 15963 net.cpp:91] Creating Layer loss2/conv
I0403 15:42:08.195144 15963 net.cpp:425] loss2/conv <- loss2/ave_pool
I0403 15:42:08.195169 15963 net.cpp:399] loss2/conv -> loss2/conv
I0403 15:42:08.197151 15963 net.cpp:141] Setting up loss2/conv
I0403 15:42:08.197180 15963 net.cpp:148] Top shape: 24 128 4 4 (49152)
I0403 15:42:08.197197 15963 net.cpp:156] Memory required for data: 1207926048
I0403 15:42:08.197216 15963 layer_factory.hpp:77] Creating layer loss2/relu_conv
I0403 15:42:08.197238 15963 net.cpp:91] Creating Layer loss2/relu_conv
I0403 15:42:08.197255 15963 net.cpp:425] loss2/relu_conv <- loss2/conv
I0403 15:42:08.197273 15963 net.cpp:386] loss2/relu_conv -> loss2/conv (in-place)
I0403 15:42:08.197572 15963 net.cpp:141] Setting up loss2/relu_conv
I0403 15:42:08.197599 15963 net.cpp:148] Top shape: 24 128 4 4 (49152)
I0403 15:42:08.197615 15963 net.cpp:156] Memory required for data: 1208122656
I0403 15:42:08.197630 15963 layer_factory.hpp:77] Creating layer loss2/fc
I0403 15:42:08.197654 15963 net.cpp:91] Creating Layer loss2/fc
I0403 15:42:08.197671 15963 net.cpp:425] loss2/fc <- loss2/conv
I0403 15:42:08.197690 15963 net.cpp:399] loss2/fc -> loss2/fc
I0403 15:42:08.215971 15963 net.cpp:141] Setting up loss2/fc
I0403 15:42:08.216006 15963 net.cpp:148] Top shape: 24 1024 (24576)
I0403 15:42:08.216022 15963 net.cpp:156] Memory required for data: 1208220960
I0403 15:42:08.216040 15963 layer_factory.hpp:77] Creating layer loss2/relu_fc
I0403 15:42:08.216059 15963 net.cpp:91] Creating Layer loss2/relu_fc
I0403 15:42:08.216075 15963 net.cpp:425] loss2/relu_fc <- loss2/fc
I0403 15:42:08.216096 15963 net.cpp:386] loss2/relu_fc -> loss2/fc (in-place)
I0403 15:42:08.216408 15963 net.cpp:141] Setting up loss2/relu_fc
I0403 15:42:08.216434 15963 net.cpp:148] Top shape: 24 1024 (24576)
I0403 15:42:08.216449 15963 net.cpp:156] Memory required for data: 1208319264
I0403 15:42:08.216464 15963 layer_factory.hpp:77] Creating layer loss2/drop_fc
I0403 15:42:08.216482 15963 net.cpp:91] Creating Layer loss2/drop_fc
I0403 15:42:08.216498 15963 net.cpp:425] loss2/drop_fc <- loss2/fc
I0403 15:42:08.216519 15963 net.cpp:386] loss2/drop_fc -> loss2/fc (in-place)
I0403 15:42:08.216577 15963 net.cpp:141] Setting up loss2/drop_fc
I0403 15:42:08.216603 15963 net.cpp:148] Top shape: 24 1024 (24576)
I0403 15:42:08.216619 15963 net.cpp:156] Memory required for data: 1208417568
I0403 15:42:08.216634 15963 layer_factory.hpp:77] Creating layer loss2/classifier_plantvillage
I0403 15:42:08.216652 15963 net.cpp:91] Creating Layer loss2/classifier_plantvillage
I0403 15:42:08.216670 15963 net.cpp:425] loss2/classifier_plantvillage <- loss2/fc
I0403 15:42:08.216691 15963 net.cpp:399] loss2/classifier_plantvillage -> loss2/classifier_plantvillage
I0403 15:42:08.217097 15963 net.cpp:141] Setting up loss2/classifier_plantvillage
I0403 15:42:08.217123 15963 net.cpp:148] Top shape: 24 38 (912)
I0403 15:42:08.217139 15963 net.cpp:156] Memory required for data: 1208421216
I0403 15:42:08.217175 15963 layer_factory.hpp:77] Creating layer loss2/classifier_plantvillage_loss2/classifier_plantvillage_0_split
I0403 15:42:08.217193 15963 net.cpp:91] Creating Layer loss2/classifier_plantvillage_loss2/classifier_plantvillage_0_split
I0403 15:42:08.217211 15963 net.cpp:425] loss2/classifier_plantvillage_loss2/classifier_plantvillage_0_split <- loss2/classifier_plantvillage
I0403 15:42:08.217227 15963 net.cpp:399] loss2/classifier_plantvillage_loss2/classifier_plantvillage_0_split -> loss2/classifier_plantvillage_loss2/classifier_plantvillage_0_split_0
I0403 15:42:08.217247 15963 net.cpp:399] loss2/classifier_plantvillage_loss2/classifier_plantvillage_0_split -> loss2/classifier_plantvillage_loss2/classifier_plantvillage_0_split_1
I0403 15:42:08.217275 15963 net.cpp:399] loss2/classifier_plantvillage_loss2/classifier_plantvillage_0_split -> loss2/classifier_plantvillage_loss2/classifier_plantvillage_0_split_2
I0403 15:42:08.217355 15963 net.cpp:141] Setting up loss2/classifier_plantvillage_loss2/classifier_plantvillage_0_split
I0403 15:42:08.217378 15963 net.cpp:148] Top shape: 24 38 (912)
I0403 15:42:08.217394 15963 net.cpp:148] Top shape: 24 38 (912)
I0403 15:42:08.217411 15963 net.cpp:148] Top shape: 24 38 (912)
I0403 15:42:08.217424 15963 net.cpp:156] Memory required for data: 1208432160
I0403 15:42:08.217438 15963 layer_factory.hpp:77] Creating layer inception_4e/1x1
I0403 15:42:08.217459 15963 net.cpp:91] Creating Layer inception_4e/1x1
I0403 15:42:08.217475 15963 net.cpp:425] inception_4e/1x1 <- inception_4d/output_inception_4d/output_0_split_1
I0403 15:42:08.217497 15963 net.cpp:399] inception_4e/1x1 -> inception_4e/1x1
I0403 15:42:08.219338 15963 net.cpp:141] Setting up inception_4e/1x1
I0403 15:42:08.219367 15963 net.cpp:148] Top shape: 24 256 14 14 (1204224)
I0403 15:42:08.219382 15963 net.cpp:156] Memory required for data: 1213249056
I0403 15:42:08.219399 15963 layer_factory.hpp:77] Creating layer inception_4e/relu_1x1
I0403 15:42:08.219419 15963 net.cpp:91] Creating Layer inception_4e/relu_1x1
I0403 15:42:08.219436 15963 net.cpp:425] inception_4e/relu_1x1 <- inception_4e/1x1
I0403 15:42:08.219455 15963 net.cpp:386] inception_4e/relu_1x1 -> inception_4e/1x1 (in-place)
I0403 15:42:08.219758 15963 net.cpp:141] Setting up inception_4e/relu_1x1
I0403 15:42:08.219784 15963 net.cpp:148] Top shape: 24 256 14 14 (1204224)
I0403 15:42:08.219799 15963 net.cpp:156] Memory required for data: 1218065952
I0403 15:42:08.219815 15963 layer_factory.hpp:77] Creating layer inception_4e/3x3_reduce
I0403 15:42:08.219840 15963 net.cpp:91] Creating Layer inception_4e/3x3_reduce
I0403 15:42:08.219856 15963 net.cpp:425] inception_4e/3x3_reduce <- inception_4d/output_inception_4d/output_0_split_2
I0403 15:42:08.219876 15963 net.cpp:399] inception_4e/3x3_reduce -> inception_4e/3x3_reduce
I0403 15:42:08.222038 15963 net.cpp:141] Setting up inception_4e/3x3_reduce
I0403 15:42:08.222066 15963 net.cpp:148] Top shape: 24 160 14 14 (752640)
I0403 15:42:08.222082 15963 net.cpp:156] Memory required for data: 1221076512
I0403 15:42:08.222102 15963 layer_factory.hpp:77] Creating layer inception_4e/relu_3x3_reduce
I0403 15:42:08.222122 15963 net.cpp:91] Creating Layer inception_4e/relu_3x3_reduce
I0403 15:42:08.222141 15963 net.cpp:425] inception_4e/relu_3x3_reduce <- inception_4e/3x3_reduce
I0403 15:42:08.222158 15963 net.cpp:386] inception_4e/relu_3x3_reduce -> inception_4e/3x3_reduce (in-place)
I0403 15:42:08.222347 15963 net.cpp:141] Setting up inception_4e/relu_3x3_reduce
I0403 15:42:08.222371 15963 net.cpp:148] Top shape: 24 160 14 14 (752640)
I0403 15:42:08.222386 15963 net.cpp:156] Memory required for data: 1224087072
I0403 15:42:08.222401 15963 layer_factory.hpp:77] Creating layer inception_4e/3x3
I0403 15:42:08.222425 15963 net.cpp:91] Creating Layer inception_4e/3x3
I0403 15:42:08.222442 15963 net.cpp:425] inception_4e/3x3 <- inception_4e/3x3_reduce
I0403 15:42:08.222461 15963 net.cpp:399] inception_4e/3x3 -> inception_4e/3x3
I0403 15:42:08.227605 15963 net.cpp:141] Setting up inception_4e/3x3
I0403 15:42:08.227650 15963 net.cpp:148] Top shape: 24 320 14 14 (1505280)
I0403 15:42:08.227669 15963 net.cpp:156] Memory required for data: 1230108192
I0403 15:42:08.227687 15963 layer_factory.hpp:77] Creating layer inception_4e/relu_3x3
I0403 15:42:08.227706 15963 net.cpp:91] Creating Layer inception_4e/relu_3x3
I0403 15:42:08.227723 15963 net.cpp:425] inception_4e/relu_3x3 <- inception_4e/3x3
I0403 15:42:08.227743 15963 net.cpp:386] inception_4e/relu_3x3 -> inception_4e/3x3 (in-place)
I0403 15:42:08.228051 15963 net.cpp:141] Setting up inception_4e/relu_3x3
I0403 15:42:08.228080 15963 net.cpp:148] Top shape: 24 320 14 14 (1505280)
I0403 15:42:08.228097 15963 net.cpp:156] Memory required for data: 1236129312
I0403 15:42:08.228113 15963 layer_factory.hpp:77] Creating layer inception_4e/5x5_reduce
I0403 15:42:08.228137 15963 net.cpp:91] Creating Layer inception_4e/5x5_reduce
I0403 15:42:08.228157 15963 net.cpp:425] inception_4e/5x5_reduce <- inception_4d/output_inception_4d/output_0_split_3
I0403 15:42:08.228176 15963 net.cpp:399] inception_4e/5x5_reduce -> inception_4e/5x5_reduce
I0403 15:42:08.229301 15963 net.cpp:141] Setting up inception_4e/5x5_reduce
I0403 15:42:08.229329 15963 net.cpp:148] Top shape: 24 32 14 14 (150528)
I0403 15:42:08.229346 15963 net.cpp:156] Memory required for data: 1236731424
I0403 15:42:08.229365 15963 layer_factory.hpp:77] Creating layer inception_4e/relu_5x5_reduce
I0403 15:42:08.229387 15963 net.cpp:91] Creating Layer inception_4e/relu_5x5_reduce
I0403 15:42:08.229404 15963 net.cpp:425] inception_4e/relu_5x5_reduce <- inception_4e/5x5_reduce
I0403 15:42:08.229423 15963 net.cpp:386] inception_4e/relu_5x5_reduce -> inception_4e/5x5_reduce (in-place)
I0403 15:42:08.229742 15963 net.cpp:141] Setting up inception_4e/relu_5x5_reduce
I0403 15:42:08.229768 15963 net.cpp:148] Top shape: 24 32 14 14 (150528)
I0403 15:42:08.229784 15963 net.cpp:156] Memory required for data: 1237333536
I0403 15:42:08.229800 15963 layer_factory.hpp:77] Creating layer inception_4e/5x5
I0403 15:42:08.229840 15963 net.cpp:91] Creating Layer inception_4e/5x5
I0403 15:42:08.229859 15963 net.cpp:425] inception_4e/5x5 <- inception_4e/5x5_reduce
I0403 15:42:08.229882 15963 net.cpp:399] inception_4e/5x5 -> inception_4e/5x5
I0403 15:42:08.231892 15963 net.cpp:141] Setting up inception_4e/5x5
I0403 15:42:08.231926 15963 net.cpp:148] Top shape: 24 128 14 14 (602112)
I0403 15:42:08.231945 15963 net.cpp:156] Memory required for data: 1239741984
I0403 15:42:08.231967 15963 layer_factory.hpp:77] Creating layer inception_4e/relu_5x5
I0403 15:42:08.231987 15963 net.cpp:91] Creating Layer inception_4e/relu_5x5
I0403 15:42:08.232005 15963 net.cpp:425] inception_4e/relu_5x5 <- inception_4e/5x5
I0403 15:42:08.232025 15963 net.cpp:386] inception_4e/relu_5x5 -> inception_4e/5x5 (in-place)
I0403 15:42:08.232239 15963 net.cpp:141] Setting up inception_4e/relu_5x5
I0403 15:42:08.232277 15963 net.cpp:148] Top shape: 24 128 14 14 (602112)
I0403 15:42:08.232293 15963 net.cpp:156] Memory required for data: 1242150432
I0403 15:42:08.232308 15963 layer_factory.hpp:77] Creating layer inception_4e/pool
I0403 15:42:08.232329 15963 net.cpp:91] Creating Layer inception_4e/pool
I0403 15:42:08.232347 15963 net.cpp:425] inception_4e/pool <- inception_4d/output_inception_4d/output_0_split_4
I0403 15:42:08.232365 15963 net.cpp:399] inception_4e/pool -> inception_4e/pool
I0403 15:42:08.232439 15963 net.cpp:141] Setting up inception_4e/pool
I0403 15:42:08.232465 15963 net.cpp:148] Top shape: 24 528 14 14 (2483712)
I0403 15:42:08.232481 15963 net.cpp:156] Memory required for data: 1252085280
I0403 15:42:08.232496 15963 layer_factory.hpp:77] Creating layer inception_4e/pool_proj
I0403 15:42:08.232518 15963 net.cpp:91] Creating Layer inception_4e/pool_proj
I0403 15:42:08.232542 15963 net.cpp:425] inception_4e/pool_proj <- inception_4e/pool
I0403 15:42:08.232566 15963 net.cpp:399] inception_4e/pool_proj -> inception_4e/pool_proj
I0403 15:42:08.234141 15963 net.cpp:141] Setting up inception_4e/pool_proj
I0403 15:42:08.234171 15963 net.cpp:148] Top shape: 24 128 14 14 (602112)
I0403 15:42:08.234201 15963 net.cpp:156] Memory required for data: 1254493728
I0403 15:42:08.234222 15963 layer_factory.hpp:77] Creating layer inception_4e/relu_pool_proj
I0403 15:42:08.234241 15963 net.cpp:91] Creating Layer inception_4e/relu_pool_proj
I0403 15:42:08.234258 15963 net.cpp:425] inception_4e/relu_pool_proj <- inception_4e/pool_proj
I0403 15:42:08.234278 15963 net.cpp:386] inception_4e/relu_pool_proj -> inception_4e/pool_proj (in-place)
I0403 15:42:08.234598 15963 net.cpp:141] Setting up inception_4e/relu_pool_proj
I0403 15:42:08.234627 15963 net.cpp:148] Top shape: 24 128 14 14 (602112)
I0403 15:42:08.234642 15963 net.cpp:156] Memory required for data: 1256902176
I0403 15:42:08.234658 15963 layer_factory.hpp:77] Creating layer inception_4e/output
I0403 15:42:08.234676 15963 net.cpp:91] Creating Layer inception_4e/output
I0403 15:42:08.234694 15963 net.cpp:425] inception_4e/output <- inception_4e/1x1
I0403 15:42:08.234711 15963 net.cpp:425] inception_4e/output <- inception_4e/3x3
I0403 15:42:08.234729 15963 net.cpp:425] inception_4e/output <- inception_4e/5x5
I0403 15:42:08.234745 15963 net.cpp:425] inception_4e/output <- inception_4e/pool_proj
I0403 15:42:08.234766 15963 net.cpp:399] inception_4e/output -> inception_4e/output
I0403 15:42:08.234817 15963 net.cpp:141] Setting up inception_4e/output
I0403 15:42:08.234845 15963 net.cpp:148] Top shape: 24 832 14 14 (3913728)
I0403 15:42:08.234861 15963 net.cpp:156] Memory required for data: 1272557088
I0403 15:42:08.234876 15963 layer_factory.hpp:77] Creating layer pool4/3x3_s2
I0403 15:42:08.234894 15963 net.cpp:91] Creating Layer pool4/3x3_s2
I0403 15:42:08.234911 15963 net.cpp:425] pool4/3x3_s2 <- inception_4e/output
I0403 15:42:08.234932 15963 net.cpp:399] pool4/3x3_s2 -> pool4/3x3_s2
I0403 15:42:08.235010 15963 net.cpp:141] Setting up pool4/3x3_s2
I0403 15:42:08.235035 15963 net.cpp:148] Top shape: 24 832 7 7 (978432)
I0403 15:42:08.235050 15963 net.cpp:156] Memory required for data: 1276470816
I0403 15:42:08.235064 15963 layer_factory.hpp:77] Creating layer pool4/3x3_s2_pool4/3x3_s2_0_split
I0403 15:42:08.235081 15963 net.cpp:91] Creating Layer pool4/3x3_s2_pool4/3x3_s2_0_split
I0403 15:42:08.235098 15963 net.cpp:425] pool4/3x3_s2_pool4/3x3_s2_0_split <- pool4/3x3_s2
I0403 15:42:08.235118 15963 net.cpp:399] pool4/3x3_s2_pool4/3x3_s2_0_split -> pool4/3x3_s2_pool4/3x3_s2_0_split_0
I0403 15:42:08.235141 15963 net.cpp:399] pool4/3x3_s2_pool4/3x3_s2_0_split -> pool4/3x3_s2_pool4/3x3_s2_0_split_1
I0403 15:42:08.235162 15963 net.cpp:399] pool4/3x3_s2_pool4/3x3_s2_0_split -> pool4/3x3_s2_pool4/3x3_s2_0_split_2
I0403 15:42:08.235184 15963 net.cpp:399] pool4/3x3_s2_pool4/3x3_s2_0_split -> pool4/3x3_s2_pool4/3x3_s2_0_split_3
I0403 15:42:08.235281 15963 net.cpp:141] Setting up pool4/3x3_s2_pool4/3x3_s2_0_split
I0403 15:42:08.235306 15963 net.cpp:148] Top shape: 24 832 7 7 (978432)
I0403 15:42:08.235323 15963 net.cpp:148] Top shape: 24 832 7 7 (978432)
I0403 15:42:08.235347 15963 net.cpp:148] Top shape: 24 832 7 7 (978432)
I0403 15:42:08.235363 15963 net.cpp:148] Top shape: 24 832 7 7 (978432)
I0403 15:42:08.235378 15963 net.cpp:156] Memory required for data: 1292125728
I0403 15:42:08.235394 15963 layer_factory.hpp:77] Creating layer inception_5a/1x1
I0403 15:42:08.235416 15963 net.cpp:91] Creating Layer inception_5a/1x1
I0403 15:42:08.235435 15963 net.cpp:425] inception_5a/1x1 <- pool4/3x3_s2_pool4/3x3_s2_0_split_0
I0403 15:42:08.235455 15963 net.cpp:399] inception_5a/1x1 -> inception_5a/1x1
I0403 15:42:08.238443 15963 net.cpp:141] Setting up inception_5a/1x1
I0403 15:42:08.238474 15963 net.cpp:148] Top shape: 24 256 7 7 (301056)
I0403 15:42:08.238490 15963 net.cpp:156] Memory required for data: 1293329952
I0403 15:42:08.238509 15963 layer_factory.hpp:77] Creating layer inception_5a/relu_1x1
I0403 15:42:08.238531 15963 net.cpp:91] Creating Layer inception_5a/relu_1x1
I0403 15:42:08.238557 15963 net.cpp:425] inception_5a/relu_1x1 <- inception_5a/1x1
I0403 15:42:08.238577 15963 net.cpp:386] inception_5a/relu_1x1 -> inception_5a/1x1 (in-place)
I0403 15:42:08.238900 15963 net.cpp:141] Setting up inception_5a/relu_1x1
I0403 15:42:08.238927 15963 net.cpp:148] Top shape: 24 256 7 7 (301056)
I0403 15:42:08.238943 15963 net.cpp:156] Memory required for data: 1294534176
I0403 15:42:08.238960 15963 layer_factory.hpp:77] Creating layer inception_5a/3x3_reduce
I0403 15:42:08.238983 15963 net.cpp:91] Creating Layer inception_5a/3x3_reduce
I0403 15:42:08.239001 15963 net.cpp:425] inception_5a/3x3_reduce <- pool4/3x3_s2_pool4/3x3_s2_0_split_1
I0403 15:42:08.239023 15963 net.cpp:399] inception_5a/3x3_reduce -> inception_5a/3x3_reduce
I0403 15:42:08.241614 15963 net.cpp:141] Setting up inception_5a/3x3_reduce
I0403 15:42:08.241647 15963 net.cpp:148] Top shape: 24 160 7 7 (188160)
I0403 15:42:08.241662 15963 net.cpp:156] Memory required for data: 1295286816
I0403 15:42:08.241682 15963 layer_factory.hpp:77] Creating layer inception_5a/relu_3x3_reduce
I0403 15:42:08.241700 15963 net.cpp:91] Creating Layer inception_5a/relu_3x3_reduce
I0403 15:42:08.241716 15963 net.cpp:425] inception_5a/relu_3x3_reduce <- inception_5a/3x3_reduce
I0403 15:42:08.241737 15963 net.cpp:386] inception_5a/relu_3x3_reduce -> inception_5a/3x3_reduce (in-place)
I0403 15:42:08.241931 15963 net.cpp:141] Setting up inception_5a/relu_3x3_reduce
I0403 15:42:08.241957 15963 net.cpp:148] Top shape: 24 160 7 7 (188160)
I0403 15:42:08.241972 15963 net.cpp:156] Memory required for data: 1296039456
I0403 15:42:08.241988 15963 layer_factory.hpp:77] Creating layer inception_5a/3x3
I0403 15:42:08.242012 15963 net.cpp:91] Creating Layer inception_5a/3x3
I0403 15:42:08.242044 15963 net.cpp:425] inception_5a/3x3 <- inception_5a/3x3_reduce
I0403 15:42:08.242068 15963 net.cpp:399] inception_5a/3x3 -> inception_5a/3x3
I0403 15:42:08.247514 15963 net.cpp:141] Setting up inception_5a/3x3
I0403 15:42:08.247553 15963 net.cpp:148] Top shape: 24 320 7 7 (376320)
I0403 15:42:08.247572 15963 net.cpp:156] Memory required for data: 1297544736
I0403 15:42:08.247591 15963 layer_factory.hpp:77] Creating layer inception_5a/relu_3x3
I0403 15:42:08.247613 15963 net.cpp:91] Creating Layer inception_5a/relu_3x3
I0403 15:42:08.247632 15963 net.cpp:425] inception_5a/relu_3x3 <- inception_5a/3x3
I0403 15:42:08.247650 15963 net.cpp:386] inception_5a/relu_3x3 -> inception_5a/3x3 (in-place)
I0403 15:42:08.247962 15963 net.cpp:141] Setting up inception_5a/relu_3x3
I0403 15:42:08.247990 15963 net.cpp:148] Top shape: 24 320 7 7 (376320)
I0403 15:42:08.248008 15963 net.cpp:156] Memory required for data: 1299050016
I0403 15:42:08.248023 15963 layer_factory.hpp:77] Creating layer inception_5a/5x5_reduce
I0403 15:42:08.248047 15963 net.cpp:91] Creating Layer inception_5a/5x5_reduce
I0403 15:42:08.248066 15963 net.cpp:425] inception_5a/5x5_reduce <- pool4/3x3_s2_pool4/3x3_s2_0_split_2
I0403 15:42:08.248090 15963 net.cpp:399] inception_5a/5x5_reduce -> inception_5a/5x5_reduce
I0403 15:42:08.249358 15963 net.cpp:141] Setting up inception_5a/5x5_reduce
I0403 15:42:08.249392 15963 net.cpp:148] Top shape: 24 32 7 7 (37632)
I0403 15:42:08.249409 15963 net.cpp:156] Memory required for data: 1299200544
I0403 15:42:08.249429 15963 layer_factory.hpp:77] Creating layer inception_5a/relu_5x5_reduce
I0403 15:42:08.249449 15963 net.cpp:91] Creating Layer inception_5a/relu_5x5_reduce
I0403 15:42:08.249465 15963 net.cpp:425] inception_5a/relu_5x5_reduce <- inception_5a/5x5_reduce
I0403 15:42:08.249485 15963 net.cpp:386] inception_5a/relu_5x5_reduce -> inception_5a/5x5_reduce (in-place)
I0403 15:42:08.249812 15963 net.cpp:141] Setting up inception_5a/relu_5x5_reduce
I0403 15:42:08.249841 15963 net.cpp:148] Top shape: 24 32 7 7 (37632)
I0403 15:42:08.249857 15963 net.cpp:156] Memory required for data: 1299351072
I0403 15:42:08.249873 15963 layer_factory.hpp:77] Creating layer inception_5a/5x5
I0403 15:42:08.249897 15963 net.cpp:91] Creating Layer inception_5a/5x5
I0403 15:42:08.249917 15963 net.cpp:425] inception_5a/5x5 <- inception_5a/5x5_reduce
I0403 15:42:08.249938 15963 net.cpp:399] inception_5a/5x5 -> inception_5a/5x5
I0403 15:42:08.251797 15963 net.cpp:141] Setting up inception_5a/5x5
I0403 15:42:08.251842 15963 net.cpp:148] Top shape: 24 128 7 7 (150528)
I0403 15:42:08.251859 15963 net.cpp:156] Memory required for data: 1299953184
I0403 15:42:08.251879 15963 layer_factory.hpp:77] Creating layer inception_5a/relu_5x5
I0403 15:42:08.251898 15963 net.cpp:91] Creating Layer inception_5a/relu_5x5
I0403 15:42:08.251915 15963 net.cpp:425] inception_5a/relu_5x5 <- inception_5a/5x5
I0403 15:42:08.251940 15963 net.cpp:386] inception_5a/relu_5x5 -> inception_5a/5x5 (in-place)
I0403 15:42:08.252145 15963 net.cpp:141] Setting up inception_5a/relu_5x5
I0403 15:42:08.252172 15963 net.cpp:148] Top shape: 24 128 7 7 (150528)
I0403 15:42:08.252189 15963 net.cpp:156] Memory required for data: 1300555296
I0403 15:42:08.252207 15963 layer_factory.hpp:77] Creating layer inception_5a/pool
I0403 15:42:08.252228 15963 net.cpp:91] Creating Layer inception_5a/pool
I0403 15:42:08.252246 15963 net.cpp:425] inception_5a/pool <- pool4/3x3_s2_pool4/3x3_s2_0_split_3
I0403 15:42:08.252266 15963 net.cpp:399] inception_5a/pool -> inception_5a/pool
I0403 15:42:08.252343 15963 net.cpp:141] Setting up inception_5a/pool
I0403 15:42:08.252370 15963 net.cpp:148] Top shape: 24 832 7 7 (978432)
I0403 15:42:08.252385 15963 net.cpp:156] Memory required for data: 1304469024
I0403 15:42:08.252401 15963 layer_factory.hpp:77] Creating layer inception_5a/pool_proj
I0403 15:42:08.252424 15963 net.cpp:91] Creating Layer inception_5a/pool_proj
I0403 15:42:08.252444 15963 net.cpp:425] inception_5a/pool_proj <- inception_5a/pool
I0403 15:42:08.252467 15963 net.cpp:399] inception_5a/pool_proj -> inception_5a/pool_proj
I0403 15:42:08.254962 15963 net.cpp:141] Setting up inception_5a/pool_proj
I0403 15:42:08.254994 15963 net.cpp:148] Top shape: 24 128 7 7 (150528)
I0403 15:42:08.255012 15963 net.cpp:156] Memory required for data: 1305071136
I0403 15:42:08.255031 15963 layer_factory.hpp:77] Creating layer inception_5a/relu_pool_proj
I0403 15:42:08.255050 15963 net.cpp:91] Creating Layer inception_5a/relu_pool_proj
I0403 15:42:08.255069 15963 net.cpp:425] inception_5a/relu_pool_proj <- inception_5a/pool_proj
I0403 15:42:08.255089 15963 net.cpp:386] inception_5a/relu_pool_proj -> inception_5a/pool_proj (in-place)
I0403 15:42:08.255408 15963 net.cpp:141] Setting up inception_5a/relu_pool_proj
I0403 15:42:08.255435 15963 net.cpp:148] Top shape: 24 128 7 7 (150528)
I0403 15:42:08.255451 15963 net.cpp:156] Memory required for data: 1305673248
I0403 15:42:08.255470 15963 layer_factory.hpp:77] Creating layer inception_5a/output
I0403 15:42:08.255489 15963 net.cpp:91] Creating Layer inception_5a/output
I0403 15:42:08.255507 15963 net.cpp:425] inception_5a/output <- inception_5a/1x1
I0403 15:42:08.255524 15963 net.cpp:425] inception_5a/output <- inception_5a/3x3
I0403 15:42:08.255547 15963 net.cpp:425] inception_5a/output <- inception_5a/5x5
I0403 15:42:08.255565 15963 net.cpp:425] inception_5a/output <- inception_5a/pool_proj
I0403 15:42:08.255587 15963 net.cpp:399] inception_5a/output -> inception_5a/output
I0403 15:42:08.255650 15963 net.cpp:141] Setting up inception_5a/output
I0403 15:42:08.255681 15963 net.cpp:148] Top shape: 24 832 7 7 (978432)
I0403 15:42:08.255697 15963 net.cpp:156] Memory required for data: 1309586976
I0403 15:42:08.255712 15963 layer_factory.hpp:77] Creating layer inception_5a/output_inception_5a/output_0_split
I0403 15:42:08.255733 15963 net.cpp:91] Creating Layer inception_5a/output_inception_5a/output_0_split
I0403 15:42:08.255760 15963 net.cpp:425] inception_5a/output_inception_5a/output_0_split <- inception_5a/output
I0403 15:42:08.255784 15963 net.cpp:399] inception_5a/output_inception_5a/output_0_split -> inception_5a/output_inception_5a/output_0_split_0
I0403 15:42:08.255813 15963 net.cpp:399] inception_5a/output_inception_5a/output_0_split -> inception_5a/output_inception_5a/output_0_split_1
I0403 15:42:08.255836 15963 net.cpp:399] inception_5a/output_inception_5a/output_0_split -> inception_5a/output_inception_5a/output_0_split_2
I0403 15:42:08.255858 15963 net.cpp:399] inception_5a/output_inception_5a/output_0_split -> inception_5a/output_inception_5a/output_0_split_3
I0403 15:42:08.255981 15963 net.cpp:141] Setting up inception_5a/output_inception_5a/output_0_split
I0403 15:42:08.256007 15963 net.cpp:148] Top shape: 24 832 7 7 (978432)
I0403 15:42:08.256024 15963 net.cpp:148] Top shape: 24 832 7 7 (978432)
I0403 15:42:08.256042 15963 net.cpp:148] Top shape: 24 832 7 7 (978432)
I0403 15:42:08.256058 15963 net.cpp:148] Top shape: 24 832 7 7 (978432)
I0403 15:42:08.256073 15963 net.cpp:156] Memory required for data: 1325241888
I0403 15:42:08.256095 15963 layer_factory.hpp:77] Creating layer inception_5b/1x1
I0403 15:42:08.256120 15963 net.cpp:91] Creating Layer inception_5b/1x1
I0403 15:42:08.256141 15963 net.cpp:425] inception_5b/1x1 <- inception_5a/output_inception_5a/output_0_split_0
I0403 15:42:08.256163 15963 net.cpp:399] inception_5b/1x1 -> inception_5b/1x1
I0403 15:42:08.260890 15963 net.cpp:141] Setting up inception_5b/1x1
I0403 15:42:08.260922 15963 net.cpp:148] Top shape: 24 384 7 7 (451584)
I0403 15:42:08.260939 15963 net.cpp:156] Memory required for data: 1327048224
I0403 15:42:08.260958 15963 layer_factory.hpp:77] Creating layer inception_5b/relu_1x1
I0403 15:42:08.260978 15963 net.cpp:91] Creating Layer inception_5b/relu_1x1
I0403 15:42:08.260995 15963 net.cpp:425] inception_5b/relu_1x1 <- inception_5b/1x1
I0403 15:42:08.261016 15963 net.cpp:386] inception_5b/relu_1x1 -> inception_5b/1x1 (in-place)
I0403 15:42:08.261344 15963 net.cpp:141] Setting up inception_5b/relu_1x1
I0403 15:42:08.261373 15963 net.cpp:148] Top shape: 24 384 7 7 (451584)
I0403 15:42:08.261389 15963 net.cpp:156] Memory required for data: 1328854560
I0403 15:42:08.261405 15963 layer_factory.hpp:77] Creating layer inception_5b/3x3_reduce
I0403 15:42:08.261430 15963 net.cpp:91] Creating Layer inception_5b/3x3_reduce
I0403 15:42:08.261450 15963 net.cpp:425] inception_5b/3x3_reduce <- inception_5a/output_inception_5a/output_0_split_1
I0403 15:42:08.261474 15963 net.cpp:399] inception_5b/3x3_reduce -> inception_5b/3x3_reduce
I0403 15:42:08.264317 15963 net.cpp:141] Setting up inception_5b/3x3_reduce
I0403 15:42:08.264348 15963 net.cpp:148] Top shape: 24 192 7 7 (225792)
I0403 15:42:08.264366 15963 net.cpp:156] Memory required for data: 1329757728
I0403 15:42:08.264386 15963 layer_factory.hpp:77] Creating layer inception_5b/relu_3x3_reduce
I0403 15:42:08.264405 15963 net.cpp:91] Creating Layer inception_5b/relu_3x3_reduce
I0403 15:42:08.264422 15963 net.cpp:425] inception_5b/relu_3x3_reduce <- inception_5b/3x3_reduce
I0403 15:42:08.264443 15963 net.cpp:386] inception_5b/relu_3x3_reduce -> inception_5b/3x3_reduce (in-place)
I0403 15:42:08.264668 15963 net.cpp:141] Setting up inception_5b/relu_3x3_reduce
I0403 15:42:08.264696 15963 net.cpp:148] Top shape: 24 192 7 7 (225792)
I0403 15:42:08.264713 15963 net.cpp:156] Memory required for data: 1330660896
I0403 15:42:08.264727 15963 layer_factory.hpp:77] Creating layer inception_5b/3x3
I0403 15:42:08.264751 15963 net.cpp:91] Creating Layer inception_5b/3x3
I0403 15:42:08.264770 15963 net.cpp:425] inception_5b/3x3 <- inception_5b/3x3_reduce
I0403 15:42:08.264794 15963 net.cpp:399] inception_5b/3x3 -> inception_5b/3x3
I0403 15:42:08.271672 15963 net.cpp:141] Setting up inception_5b/3x3
I0403 15:42:08.271699 15963 net.cpp:148] Top shape: 24 384 7 7 (451584)
I0403 15:42:08.271715 15963 net.cpp:156] Memory required for data: 1332467232
I0403 15:42:08.271733 15963 layer_factory.hpp:77] Creating layer inception_5b/relu_3x3
I0403 15:42:08.271751 15963 net.cpp:91] Creating Layer inception_5b/relu_3x3
I0403 15:42:08.271767 15963 net.cpp:425] inception_5b/relu_3x3 <- inception_5b/3x3
I0403 15:42:08.271788 15963 net.cpp:386] inception_5b/relu_3x3 -> inception_5b/3x3 (in-place)
I0403 15:42:08.272091 15963 net.cpp:141] Setting up inception_5b/relu_3x3
I0403 15:42:08.272117 15963 net.cpp:148] Top shape: 24 384 7 7 (451584)
I0403 15:42:08.272132 15963 net.cpp:156] Memory required for data: 1334273568
I0403 15:42:08.272148 15963 layer_factory.hpp:77] Creating layer inception_5b/5x5_reduce
I0403 15:42:08.272188 15963 net.cpp:91] Creating Layer inception_5b/5x5_reduce
I0403 15:42:08.272207 15963 net.cpp:425] inception_5b/5x5_reduce <- inception_5a/output_inception_5a/output_0_split_2
I0403 15:42:08.272230 15963 net.cpp:399] inception_5b/5x5_reduce -> inception_5b/5x5_reduce
I0403 15:42:08.273563 15963 net.cpp:141] Setting up inception_5b/5x5_reduce
I0403 15:42:08.273591 15963 net.cpp:148] Top shape: 24 48 7 7 (56448)
I0403 15:42:08.273607 15963 net.cpp:156] Memory required for data: 1334499360
I0403 15:42:08.273625 15963 layer_factory.hpp:77] Creating layer inception_5b/relu_5x5_reduce
I0403 15:42:08.273644 15963 net.cpp:91] Creating Layer inception_5b/relu_5x5_reduce
I0403 15:42:08.273661 15963 net.cpp:425] inception_5b/relu_5x5_reduce <- inception_5b/5x5_reduce
I0403 15:42:08.273681 15963 net.cpp:386] inception_5b/relu_5x5_reduce -> inception_5b/5x5_reduce (in-place)
I0403 15:42:08.274058 15963 net.cpp:141] Setting up inception_5b/relu_5x5_reduce
I0403 15:42:08.274085 15963 net.cpp:148] Top shape: 24 48 7 7 (56448)
I0403 15:42:08.274101 15963 net.cpp:156] Memory required for data: 1334725152
I0403 15:42:08.274116 15963 layer_factory.hpp:77] Creating layer inception_5b/5x5
I0403 15:42:08.274137 15963 net.cpp:91] Creating Layer inception_5b/5x5
I0403 15:42:08.274153 15963 net.cpp:425] inception_5b/5x5 <- inception_5b/5x5_reduce
I0403 15:42:08.274173 15963 net.cpp:399] inception_5b/5x5 -> inception_5b/5x5
I0403 15:42:08.276288 15963 net.cpp:141] Setting up inception_5b/5x5
I0403 15:42:08.276316 15963 net.cpp:148] Top shape: 24 128 7 7 (150528)
I0403 15:42:08.276332 15963 net.cpp:156] Memory required for data: 1335327264
I0403 15:42:08.276351 15963 layer_factory.hpp:77] Creating layer inception_5b/relu_5x5
I0403 15:42:08.276372 15963 net.cpp:91] Creating Layer inception_5b/relu_5x5
I0403 15:42:08.276391 15963 net.cpp:425] inception_5b/relu_5x5 <- inception_5b/5x5
I0403 15:42:08.276408 15963 net.cpp:386] inception_5b/relu_5x5 -> inception_5b/5x5 (in-place)
I0403 15:42:08.276626 15963 net.cpp:141] Setting up inception_5b/relu_5x5
I0403 15:42:08.276665 15963 net.cpp:148] Top shape: 24 128 7 7 (150528)
I0403 15:42:08.276681 15963 net.cpp:156] Memory required for data: 1335929376
I0403 15:42:08.276696 15963 layer_factory.hpp:77] Creating layer inception_5b/pool
I0403 15:42:08.276717 15963 net.cpp:91] Creating Layer inception_5b/pool
I0403 15:42:08.276736 15963 net.cpp:425] inception_5b/pool <- inception_5a/output_inception_5a/output_0_split_3
I0403 15:42:08.276753 15963 net.cpp:399] inception_5b/pool -> inception_5b/pool
I0403 15:42:08.276829 15963 net.cpp:141] Setting up inception_5b/pool
I0403 15:42:08.276854 15963 net.cpp:148] Top shape: 24 832 7 7 (978432)
I0403 15:42:08.276870 15963 net.cpp:156] Memory required for data: 1339843104
I0403 15:42:08.276885 15963 layer_factory.hpp:77] Creating layer inception_5b/pool_proj
I0403 15:42:08.276907 15963 net.cpp:91] Creating Layer inception_5b/pool_proj
I0403 15:42:08.276937 15963 net.cpp:425] inception_5b/pool_proj <- inception_5b/pool
I0403 15:42:08.276957 15963 net.cpp:399] inception_5b/pool_proj -> inception_5b/pool_proj
I0403 15:42:08.279381 15963 net.cpp:141] Setting up inception_5b/pool_proj
I0403 15:42:08.279410 15963 net.cpp:148] Top shape: 24 128 7 7 (150528)
I0403 15:42:08.279427 15963 net.cpp:156] Memory required for data: 1340445216
I0403 15:42:08.279444 15963 layer_factory.hpp:77] Creating layer inception_5b/relu_pool_proj
I0403 15:42:08.279463 15963 net.cpp:91] Creating Layer inception_5b/relu_pool_proj
I0403 15:42:08.279479 15963 net.cpp:425] inception_5b/relu_pool_proj <- inception_5b/pool_proj
I0403 15:42:08.279498 15963 net.cpp:386] inception_5b/relu_pool_proj -> inception_5b/pool_proj (in-place)
I0403 15:42:08.279805 15963 net.cpp:141] Setting up inception_5b/relu_pool_proj
I0403 15:42:08.279831 15963 net.cpp:148] Top shape: 24 128 7 7 (150528)
I0403 15:42:08.279846 15963 net.cpp:156] Memory required for data: 1341047328
I0403 15:42:08.279861 15963 layer_factory.hpp:77] Creating layer inception_5b/output
I0403 15:42:08.279880 15963 net.cpp:91] Creating Layer inception_5b/output
I0403 15:42:08.279911 15963 net.cpp:425] inception_5b/output <- inception_5b/1x1
I0403 15:42:08.279928 15963 net.cpp:425] inception_5b/output <- inception_5b/3x3
I0403 15:42:08.279945 15963 net.cpp:425] inception_5b/output <- inception_5b/5x5
I0403 15:42:08.279961 15963 net.cpp:425] inception_5b/output <- inception_5b/pool_proj
I0403 15:42:08.279981 15963 net.cpp:399] inception_5b/output -> inception_5b/output
I0403 15:42:08.280033 15963 net.cpp:141] Setting up inception_5b/output
I0403 15:42:08.280060 15963 net.cpp:148] Top shape: 24 1024 7 7 (1204224)
I0403 15:42:08.280074 15963 net.cpp:156] Memory required for data: 1345864224
I0403 15:42:08.280089 15963 layer_factory.hpp:77] Creating layer pool5/7x7_s1
I0403 15:42:08.280107 15963 net.cpp:91] Creating Layer pool5/7x7_s1
I0403 15:42:08.280123 15963 net.cpp:425] pool5/7x7_s1 <- inception_5b/output
I0403 15:42:08.280143 15963 net.cpp:399] pool5/7x7_s1 -> pool5/7x7_s1
I0403 15:42:08.280362 15963 net.cpp:141] Setting up pool5/7x7_s1
I0403 15:42:08.280387 15963 net.cpp:148] Top shape: 24 1024 1 1 (24576)
I0403 15:42:08.280402 15963 net.cpp:156] Memory required for data: 1345962528
I0403 15:42:08.280417 15963 layer_factory.hpp:77] Creating layer pool5/drop_7x7_s1
I0403 15:42:08.280434 15963 net.cpp:91] Creating Layer pool5/drop_7x7_s1
I0403 15:42:08.280450 15963 net.cpp:425] pool5/drop_7x7_s1 <- pool5/7x7_s1
I0403 15:42:08.280470 15963 net.cpp:386] pool5/drop_7x7_s1 -> pool5/7x7_s1 (in-place)
I0403 15:42:08.280520 15963 net.cpp:141] Setting up pool5/drop_7x7_s1
I0403 15:42:08.280552 15963 net.cpp:148] Top shape: 24 1024 1 1 (24576)
I0403 15:42:08.280570 15963 net.cpp:156] Memory required for data: 1346060832
I0403 15:42:08.280583 15963 layer_factory.hpp:77] Creating layer loss3/classifier_plantvillage
I0403 15:42:08.280602 15963 net.cpp:91] Creating Layer loss3/classifier_plantvillage
I0403 15:42:08.280632 15963 net.cpp:425] loss3/classifier_plantvillage <- pool5/7x7_s1
I0403 15:42:08.280652 15963 net.cpp:399] loss3/classifier_plantvillage -> loss3/classifier_plantvillage
I0403 15:42:08.281105 15963 net.cpp:141] Setting up loss3/classifier_plantvillage
I0403 15:42:08.281128 15963 net.cpp:148] Top shape: 24 38 (912)
I0403 15:42:08.281142 15963 net.cpp:156] Memory required for data: 1346064480
I0403 15:42:08.281160 15963 layer_factory.hpp:77] Creating layer loss3/classifier_plantvillage_loss3/classifier_plantvillage_0_split
I0403 15:42:08.281182 15963 net.cpp:91] Creating Layer loss3/classifier_plantvillage_loss3/classifier_plantvillage_0_split
I0403 15:42:08.281198 15963 net.cpp:425] loss3/classifier_plantvillage_loss3/classifier_plantvillage_0_split <- loss3/classifier_plantvillage
I0403 15:42:08.281216 15963 net.cpp:399] loss3/classifier_plantvillage_loss3/classifier_plantvillage_0_split -> loss3/classifier_plantvillage_loss3/classifier_plantvillage_0_split_0
I0403 15:42:08.281242 15963 net.cpp:399] loss3/classifier_plantvillage_loss3/classifier_plantvillage_0_split -> loss3/classifier_plantvillage_loss3/classifier_plantvillage_0_split_1
I0403 15:42:08.281262 15963 net.cpp:399] loss3/classifier_plantvillage_loss3/classifier_plantvillage_0_split -> loss3/classifier_plantvillage_loss3/classifier_plantvillage_0_split_2
I0403 15:42:08.281282 15963 net.cpp:399] loss3/classifier_plantvillage_loss3/classifier_plantvillage_0_split -> loss3/classifier_plantvillage_loss3/classifier_plantvillage_0_split_3
I0403 15:42:08.281385 15963 net.cpp:141] Setting up loss3/classifier_plantvillage_loss3/classifier_plantvillage_0_split
I0403 15:42:08.281409 15963 net.cpp:148] Top shape: 24 38 (912)
I0403 15:42:08.281424 15963 net.cpp:148] Top shape: 24 38 (912)
I0403 15:42:08.281440 15963 net.cpp:148] Top shape: 24 38 (912)
I0403 15:42:08.281455 15963 net.cpp:148] Top shape: 24 38 (912)
I0403 15:42:08.281468 15963 net.cpp:156] Memory required for data: 1346079072
I0403 15:42:08.281483 15963 layer_factory.hpp:77] Creating layer loss1/loss
I0403 15:42:08.281504 15963 net.cpp:91] Creating Layer loss1/loss
I0403 15:42:08.281522 15963 net.cpp:425] loss1/loss <- loss1/classifier_plantvillage_loss1/classifier_plantvillage_0_split_0
I0403 15:42:08.281559 15963 net.cpp:425] loss1/loss <- label_data_1_split_0
…
