…
I0403 15:29:52.260610 15178 net.cpp:313] The NetState phase (1) differed from the phase (0) specified by a rule in layer data
I0403 15:29:52.261735 15178 net.cpp:49] Initializing net from parameters: 
state {
  phase: TEST
}
layer {
  name: "data"
  type: "Data"
  top: "data"
  top: "label"
  include {
    phase: TEST
  }
  transform_param {
    mirror: false
    crop_size: 224
    mean_file: "/home/mohanty/data/final_dataset/lmdb/color-50-50/mean.binaryproto"
  }
  data_param {
    source: "/home/mohanty/data/final_dataset/lmdb/color-50-50/test_db"
    batch_size: 24
    backend: LMDB
  }
}
layer {
  name: "conv1/7x7_s2"
  type: "Convolution"
  bottom: "data"
  top: "conv1/7x7_s2"
  param {
    lr_mult: 1
    decay_mult: 1
  }
  param {
    lr_mult: 2
    decay_mult: 0
  }
  convolution_param {
    num_output: 64
    pad: 3
    kernel_size: 7
    stride: 2
    weight_filler {
      type: "xavier"
      std: 0.1
    }
    bias_filler {
      type: "constant"
      value: 0.2
    }
  }
}
layer {
  name: "conv1/relu_7x7"
  type: "ReLU"
  bottom: "conv1/7x7_s2"
  top: "conv1/7x7_s2"
}
layer {
  name: "pool1/3x3_s2"
  type: "Pooling"
  bottom: "conv1/7x7_s2"
  top: "pool1/3x3_s2"
  pooling_param {
    pool: MAX
    kernel_size: 3
    stride: 2
  }
}
layer {
  name: "pool1/norm1"
  type: "LRN"
  bottom: "pool1/3x3_s2"
  top: "pool1/norm1"
  lrn_param {
    local_size: 5
    alpha: 0.0001
    beta: 0.75
  }
}
layer {
  name: "conv2/3x3_reduce"
  type: "Convolution"
  bottom: "pool1/norm1"
  top: "conv2/3x3_reduce"
  param {
    lr_mult: 1
    decay_mult: 1
  }
  param {
    lr_mult: 2
    decay_mult: 0
  }
  convolution_param {
    num_output: 64
    kernel_size: 1
    weight_filler {
      type: "xavier"
      std: 0.1
    }
    bias_filler {
      type: "constant"
      value: 0.2
    }
  }
}
layer {
  name: "conv2/relu_3x3_reduce"
  type: "ReLU"
  bottom: "conv2/3x3_reduce"
  top: "conv2/3x3_reduce"
}
layer {
  name: "conv2/3x3"
  type: "Convolution"
  bottom: "conv2/3x3_reduce"
  top: "conv2/3x3"
  param {
    lr_mult: 1
    decay_mult: 1
  }
  param {
    lr_mult: 2
    decay_mult: 0
  }
  convolution_param {
    num_output: 192
    pad: 1
    kernel_size: 3
    weight_filler {
      type: "xavier"
      std: 0.03
    }
    bias_filler {
      type: "constant"
      value: 0.2
    }
  }
}
layer {
  name: "conv2/relu_3x3"
  type: "ReLU"
  bottom: "conv2/3x3"
  top: "conv2/3x3"
}
layer {
  name: "conv2/norm2"
  type: "LRN"
  bottom: "conv2/3x3"
  top: "conv2/norm2"
  lrn_param {
    local_size: 5
    alpha: 0.0001
    beta: 0.75
  }
}
layer {
  name: "pool2/3x3_s2"
  type: "Pooling"
  bottom: "conv2/norm2"
  top: "pool2/3x3_s2"
  pooling_param {
    pool: MAX
    kernel_size: 3
    stride: 2
  }
}
layer {
  name: "inception_3a/1x1"
  type: "Convolution"
  bottom: "pool2/3x3_s2"
  top: "inception_3a/1x1"
  param {
    lr_mult: 1
    decay_mult: 1
  }
  param {
    lr_mult: 2
    decay_mult: 0
  }
  convolution_param {
    num_output: 64
    kernel_size: 1
    weight_filler {
      type: "xavier"
      std: 0.03
    }
    bias_filler {
      type: "constant"
      value: 0.2
    }
  }
}
layer {
  name: "inception_3a/relu_1x1"
  type: "ReLU"
  bottom: "inception_3a/1x1"
  top: "inception_3a/1x1"
}
layer {
  name: "inception_3a/3x3_reduce"
  type: "Convolution"
  bottom: "pool2/3x3_s2"
  top: "inception_3a/3x3_reduce"
  param {
    lr_mult: 1
    decay_mult: 1
  }
  param {
    lr_mult: 2
    decay_mult: 0
  }
  convolution_param {
    num_output: 96
    kernel_size: 1
    weight_filler {
      type: "xavier"
      std: 0.09
    }
    bias_filler {
      type: "constant"
      value: 0.2
    }
  }
}
layer {
  name: "inception_3a/relu_3x3_reduce"
  type: "ReLU"
  bottom: "inception_3a/3x3_reduce"
  top: "inception_3a/3x3_reduce"
}
layer {
  name: "inception_3a/3x3"
  type: "Convolution"
  bottom: "inception_3a/3x3_reduce"
  top: "inception_3a/3x3"
  param {
    lr_mult: 1
    decay_mult: 1
  }
  param {
    lr_mult: 2
    decay_mult: 0
  }
  convolution_param {
    num_output: 128
    pad: 1
    kernel_size: 3
    weight_filler {
      type: "xavier"
      std: 0.03
    }
    bias_filler {
      type: "constant"
      value: 0.2
    }
  }
}
layer {
  name: "inception_3a/relu_3x3"
  type: "ReLU"
  bottom: "inception_3a/3x3"
  top: "inception_3a/3x3"
}
layer {
  name: "inception_3a/5x5_reduce"
  type: "Convolution"
  bottom: "pool2/3x3_s2"
  top: "inception_3a/5x5_reduce"
  param {
    lr_mult: 1
    decay_mult: 1
  }
  param {
    lr_mult: 2
    decay_mult: 0
  }
  convolution_param {
    num_output: 16
    kernel_size: 1
    weight_filler {
      type: "xavier"
      std: 0.2
    }
    bias_filler {
      type: "constant"
      value: 0.2
    }
  }
}
layer {
  name: "inception_3a/relu_5x5_reduce"
  type: "ReLU"
  bottom: "inception_3a/5x5_reduce"
  top: "inception_3a/5x5_reduce"
}
layer {
  name: "inception_3a/5x5"
  type: "Convolution"
  bottom: "inception_3a/5x5_reduce"
  top: "inception_3a/5x5"
  param {
    lr_mult: 1
    decay_mult: 1
  }
  param {
    lr_mult: 2
    decay_mult: 0
  }
  convolution_param {
    num_output: 32
    pad: 2
    kernel_size: 5
    weight_filler {
      type: "xavier"
      std: 0.03
    }
    bias_filler {
      type: "constant"
      value: 0.2
    }
  }
}
layer {
  name: "inception_3a/relu_5x5"
  type: "ReLU"
  bottom: "inception_3a/5x5"
  top: "inception_3a/5x5"
}
layer {
  name: "inception_3a/pool"
  type: "Pooling"
  bottom: "pool2/3x3_s2"
  top: "inception_3a/pool"
  pooling_param {
    pool: MAX
    kernel_size: 3
    stride: 1
    pad: 1
  }
}
layer {
  name: "inception_3a/pool_proj"
  type: "Convolution"
  bottom: "inception_3a/pool"
  top: "inception_3a/pool_proj"
  param {
    lr_mult: 1
    decay_mult: 1
  }
  param {
    lr_mult: 2
    decay_mult: 0
  }
  convolution_param {
    num_output: 32
    kernel_size: 1
    weight_filler {
      type: "xavier"
      std: 0.1
    }
    bias_filler {
      type: "constant"
      value: 0.2
    }
  }
}
layer {
  name: "inception_3a/relu_pool_proj"
  type: "ReLU"
  bottom: "inception_3a/pool_proj"
  top: "inception_3a/pool_proj"
}
layer {
  name: "inception_3a/output"
  type: "Concat"
  bottom: "inception_3a/1x1"
  bottom: "inception_3a/3x3"
  bottom: "inception_3a/5x5"
  bottom: "inception_3a/pool_proj"
  top: "inception_3a/output"
}
layer {
  name: "inception_3b/1x1"
  type: "Convolution"
  bottom: "inception_3a/output"
  top: "inception_3b/1x1"
  param {
    lr_mult: 1
    decay_mult: 1
  }
  param {
    lr_mult: 2
    decay_mult: 0
  }
  convolution_param {
    num_output: 128
    kernel_size: 1
    weight_filler {
      type: "xavier"
      std: 0.03
    }
    bias_filler {
      type: "constant"
      value: 0.2
    }
  }
}
layer {
  name: "inception_3b/relu_1x1"
  type: "ReLU"
  bottom: "inception_3b/1x1"
  top: "inception_3b/1x1"
}
layer {
  name: "inception_3b/3x3_reduce"
  type: "Convolution"
  bottom: "inception_3a/output"
  top: "inception_3b/3x3_reduce"
  param {
    lr_mult: 1
    decay_mult: 1
  }
  param {
    lr_mult: 2
    decay_mult: 0
  }
  convolution_param {
    num_output: 128
    kernel_size: 1
    weight_filler {
      type: "xavier"
      std: 0.09
    }
    bias_filler {
      type: "constant"
      value: 0.2
    }
  }
}
layer {
  name: "inception_3b/relu_3x3_reduce"
  type: "ReLU"
  bottom: "inception_3b/3x3_reduce"
  top: "inception_3b/3x3_reduce"
}
layer {
  name: "inception_3b/3x3"
  type: "Convolution"
  bottom: "inception_3b/3x3_reduce"
  top: "inception_3b/3x3"
  param {
    lr_mult: 1
    decay_mult: 1
  }
  param {
    lr_mult: 2
    decay_mult: 0
  }
  convolution_param {
    num_output: 192
    pad: 1
    kernel_size: 3
    weight_filler {
      type: "xavier"
      std: 0.03
    }
    bias_filler {
      type: "constant"
      value: 0.2
    }
  }
}
layer {
  name: "inception_3b/relu_3x3"
  type: "ReLU"
  bottom: "inception_3b/3x3"
  top: "inception_3b/3x3"
}
layer {
  name: "inception_3b/5x5_reduce"
  type: "Convolution"
  bottom: "inception_3a/output"
  top: "inception_3b/5x5_reduce"
  param {
    lr_mult: 1
    decay_mult: 1
  }
  param {
    lr_mult: 2
    decay_mult: 0
  }
  convolution_param {
    num_output: 32
    kernel_size: 1
    weight_filler {
      type: "xavier"
      std: 0.2
    }
    bias_filler {
      type: "constant"
      value: 0.2
    }
  }
}
layer {
  name: "inception_3b/relu_5x5_reduce"
  type: "ReLU"
  bottom: "inception_3b/5x5_reduce"
  top: "inception_3b/5x5_reduce"
}
layer {
  name: "inception_3b/5x5"
  type: "Convolution"
  bottom: "inception_3b/5x5_reduce"
  top: "inception_3b/5x5"
  param {
    lr_mult: 1
    decay_mult: 1
  }
  param {
    lr_mult: 2
    decay_mult: 0
  }
  convolution_param {
    num_output: 96
    pad: 2
    kernel_size: 5
    weight_filler {
      type: "xavier"
      std: 0.03
    }
    bias_filler {
      type: "constant"
      value: 0.2
    }
  }
}
layer {
  name: "inception_3b/relu_5x5"
  type: "ReLU"
  bottom: "inception_3b/5x5"
  top: "inception_3b/5x5"
}
layer {
  name: "inception_3b/pool"
  type: "Pooling"
  bottom: "inception_3a/output"
  top: "inception_3b/pool"
  pooling_param {
    pool: MAX
    kernel_size: 3
    stride: 1
    pad: 1
  }
}
layer {
  name: "inception_3b/pool_proj"
  type: "Convolution"
  bottom: "inception_3b/pool"
  top: "inception_3b/pool_proj"
  param {
    lr_mult: 1
    decay_mult: 1
  }
  param {
    lr_mult: 2
    decay_mult: 0
  }
  convolution_param {
    num_output: 64
    kernel_size: 1
    weight_filler {
      type: "xavier"
      std: 0.1
    }
    bias_filler {
      type: "constant"
      value: 0.2
    }
  }
}
layer {
  name: "inception_3b/relu_pool_proj"
  type: "ReLU"
  bottom: "inception_3b/pool_proj"
  top: "inception_3b/pool_proj"
}
layer {
  name: "inception_3b/output"
  type: "Concat"
  bottom: "inception_3b/1x1"
  bottom: "inception_3b/3x3"
  bottom: "inception_3b/5x5"
  bottom: "inception_3b/pool_proj"
  top: "inception_3b/output"
}
layer {
  name: "pool3/3x3_s2"
  type: "Pooling"
  bottom: "inception_3b/output"
  top: "pool3/3x3_s2"
  pooling_param {
    pool: MAX
    kernel_size: 3
    stride: 2
  }
}
layer {
  name: "inception_4a/1x1"
  type: "Convolution"
  bottom: "pool3/3x3_s2"
  top: "inception_4a/1x1"
  param {
    lr_mult: 1
    decay_mult: 1
  }
  param {
    lr_mult: 2
    decay_mult: 0
  }
  convolution_param {
    num_output: 192
    kernel_size: 1
    weight_filler {
      type: "xavier"
      std: 0.03
    }
    bias_filler {
      type: "constant"
      value: 0.2
    }
  }
}
layer {
  name: "inception_4a/relu_1x1"
  type: "ReLU"
  bottom: "inception_4a/1x1"
  top: "inception_4a/1x1"
}
layer {
  name: "inception_4a/3x3_reduce"
  type: "Convolution"
  bottom: "pool3/3x3_s2"
  top: "inception_4a/3x3_reduce"
  param {
    lr_mult: 1
    decay_mult: 1
  }
  param {
    lr_mult: 2
    decay_mult: 0
  }
  convolution_param {
    num_output: 96
    kernel_size: 1
    weight_filler {
      type: "xavier"
      std: 0.09
    }
    bias_filler {
      type: "constant"
      value: 0.2
    }
  }
}
layer {
  name: "inception_4a/relu_3x3_reduce"
  type: "ReLU"
  bottom: "inception_4a/3x3_reduce"
  top: "inception_4a/3x3_reduce"
}
layer {
  name: "inception_4a/3x3"
  type: "Convolution"
  bottom: "inception_4a/3x3_reduce"
  top: "inception_4a/3x3"
  param {
    lr_mult: 1
    decay_mult: 1
  }
  param {
    lr_mult: 2
    decay_mult: 0
  }
  convolution_param {
    num_output: 208
    pad: 1
    kernel_size: 3
    weight_filler {
      type: "xavier"
      std: 0.03
    }
    bias_filler {
      type: "constant"
      value: 0.2
    }
  }
}
layer {
  name: "inception_4a/relu_3x3"
  type: "ReLU"
  bottom: "inception_4a/3x3"
  top: "inception_4a/3x3"
}
layer {
  name: "inception_4a/5x5_reduce"
  type: "Convolution"
  bottom: "pool3/3x3_s2"
  top: "inception_4a/5x5_reduce"
  param {
    lr_mult: 1
    decay_mult: 1
  }
  param {
    lr_mult: 2
    decay_mult: 0
  }
  convolution_param {
    num_output: 16
    kernel_size: 1
    weight_filler {
      type: "xavier"
      std: 0.2
    }
    bias_filler {
      type: "constant"
      value: 0.2
    }
  }
}
layer {
  name: "inception_4a/relu_5x5_reduce"
  type: "ReLU"
  bottom: "inception_4a/5x5_reduce"
  top: "inception_4a/5x5_reduce"
}
layer {
  name: "inception_4a/5x5"
  type: "Convolution"
  bottom: "inception_4a/5x5_reduce"
  top: "inception_4a/5x5"
  param {
    lr_mult: 1
    decay_mult: 1
  }
  param {
    lr_mult: 2
    decay_mult: 0
  }
  convolution_param {
    num_output: 48
    pad: 2
    kernel_size: 5
    weight_filler {
      type: "xavier"
      std: 0.03
    }
    bias_filler {
      type: "constant"
      value: 0.2
    }
  }
}
layer {
  name: "inception_4a/relu_5x5"
  type: "ReLU"
  bottom: "inception_4a/5x5"
  top: "inception_4a/5x5"
}
layer {
  name: "inception_4a/pool"
  type: "Pooling"
  bottom: "pool3/3x3_s2"
  top: "inception_4a/pool"
  pooling_param {
    pool: MAX
    kernel_size: 3
    stride: 1
    pad: 1
  }
}
layer {
  name: "inception_4a/pool_proj"
  type: "Convolution"
  bottom: "inception_4a/pool"
  top: "inception_4a/pool_proj"
  param {
    lr_mult: 1
    decay_mult: 1
  }
  param {
    lr_mult: 2
    decay_mult: 0
  }
  convolution_param {
    num_output: 64
    kernel_size: 1
    weight_filler {
      type: "xavier"
      std: 0.1
    }
    bias_filler {
      type: "constant"
      value: 0.2
    }
  }
}
layer {
  name: "inception_4a/relu_pool_proj"
  type: "ReLU"
  bottom: "inception_4a/pool_proj"
  top: "inception_4a/pool_proj"
}
layer {
  name: "inception_4a/output"
  type: "Concat"
  bottom: "inception_4a/1x1"
  bottom: "inception_4a/3x3"
  bottom: "inception_4a/5x5"
  bottom: "inception_4a/pool_proj"
  top: "inception_4a/output"
}
layer {
  name: "loss1/ave_pool"
  type: "Pooling"
  bottom: "inception_4a/output"
  top: "loss1/ave_pool"
  pooling_param {
    pool: AVE
    kernel_size: 5
    stride: 3
  }
}
layer {
  name: "loss1/conv"
  type: "Convolution"
  bottom: "loss1/ave_pool"
  top: "loss1/conv"
  param {
    lr_mult: 1
    decay_mult: 1
  }
  param {
    lr_mult: 2
    decay_mult: 0
  }
  convolution_param {
    num_output: 128
    kernel_size: 1
    weight_filler {
      type: "xavier"
      std: 0.08
    }
    bias_filler {
      type: "constant"
      value: 0.2
    }
  }
}
layer {
  name: "loss1/relu_conv"
  type: "ReLU"
  bottom: "loss1/conv"
  top: "loss1/conv"
}
layer {
  name: "loss1/fc"
  type: "InnerProduct"
  bottom: "loss1/conv"
  top: "loss1/fc"
  param {
    lr_mult: 1
    decay_mult: 1
  }
  param {
    lr_mult: 2
    decay_mult: 0
  }
  inner_product_param {
    num_output: 1024
    weight_filler {
      type: "xavier"
      std: 0.02
    }
    bias_filler {
      type: "constant"
      value: 0.2
    }
  }
}
layer {
  name: "loss1/relu_fc"
  type: "ReLU"
  bottom: "loss1/fc"
  top: "loss1/fc"
}
layer {
  name: "loss1/drop_fc"
  type: "Dropout"
  bottom: "loss1/fc"
  top: "loss1/fc"
  dropout_param {
    dropout_ratio: 0.7
  }
}
layer {
  name: "loss1/classifier_plantvillage"
  type: "InnerProduct"
  bottom: "loss1/fc"
  top: "loss1/classifier_plantvillage"
  param {
    lr_mult: 1
    decay_mult: 1
  }
  param {
    lr_mult: 2
    decay_mult: 0
  }
  inner_product_param {
    num_output: 38
    weight_filler {
      type: "xavier"
      std: 0.0009765625
    }
    bias_filler {
      type: "constant"
      value: 0
    }
  }
}
layer {
  name: "inception_4b/1x1"
  type: "Convolution"
  bottom: "inception_4a/output"
  top: "inception_4b/1x1"
  param {
    lr_mult: 1
    decay_mult: 1
  }
  param {
    lr_mult: 2
    decay_mult: 0
  }
  convolution_param {
    num_output: 160
    kernel_size: 1
    weight_filler {
      type: "xavier"
      std: 0.03
    }
    bias_filler {
      type: "constant"
      value: 0.2
    }
  }
}
layer {
  name: "inception_4b/relu_1x1"
  type: "ReLU"
  bottom: "inception_4b/1x1"
  top: "inception_4b/1x1"
}
layer {
  name: "inception_4b/3x3_reduce"
  type: "Convolution"
  bottom: "inception_4a/output"
  top: "inception_4b/3x3_reduce"
  param {
    lr_mult: 1
    decay_mult: 1
  }
  param {
    lr_mult: 2
    decay_mult: 0
  }
  convolution_param {
    num_output: 112
    kernel_size: 1
    weight_filler {
      type: "xavier"
      std: 0.09
    }
    bias_filler {
      type: "constant"
      value: 0.2
    }
  }
}
layer {
  name: "inception_4b/relu_3x3_reduce"
  type: "ReLU"
  bottom: "inception_4b/3x3_reduce"
  top: "inception_4b/3x3_reduce"
}
layer {
  name: "inception_4b/3x3"
  type: "Convolution"
  bottom: "inception_4b/3x3_reduce"
  top: "inception_4b/3x3"
  param {
    lr_mult: 1
    decay_mult: 1
  }
  param {
    lr_mult: 2
    decay_mult: 0
  }
  convolution_param {
    num_output: 224
    pad: 1
    kernel_size: 3
    weight_filler {
      type: "xavier"
      std: 0.03
    }
    bias_filler {
      type: "constant"
      value: 0.2
    }
  }
}
layer {
  name: "inception_4b/relu_3x3"
  type: "ReLU"
  bottom: "inception_4b/3x3"
  top: "inception_4b/3x3"
}
layer {
  name: "inception_4b/5x5_reduce"
  type: "Convolution"
  bottom: "inception_4a/output"
  top: "inception_4b/5x5_reduce"
  param {
    lr_mult: 1
    decay_mult: 1
  }
  param {
    lr_mult: 2
    decay_mult: 0
  }
  convolution_param {
    num_output: 24
    kernel_size: 1
    weight_filler {
      type: "xavier"
      std: 0.2
    }
    bias_filler {
      type: "constant"
      value: 0.2
    }
  }
}
layer {
  name: "inception_4b/relu_5x5_reduce"
  type: "ReLU"
  bottom: "inception_4b/5x5_reduce"
  top: "inception_4b/5x5_reduce"
}
layer {
  name: "inception_4b/5x5"
  type: "Convolution"
  bottom: "inception_4b/5x5_reduce"
  top: "inception_4b/5x5"
  param {
    lr_mult: 1
    decay_mult: 1
  }
  param {
    lr_mult: 2
    decay_mult: 0
  }
  convolution_param {
    num_output: 64
    pad: 2
    kernel_size: 5
    weight_filler {
      type: "xavier"
      std: 0.03
    }
    bias_filler {
      type: "constant"
      value: 0.2
    }
  }
}
layer {
  name: "inception_4b/relu_5x5"
  type: "ReLU"
  bottom: "inception_4b/5x5"
  top: "inception_4b/5x5"
}
layer {
  name: "inception_4b/pool"
  type: "Pooling"
  bottom: "inception_4a/output"
  top: "inception_4b/pool"
  pooling_param {
    pool: MAX
    kernel_size: 3
    stride: 1
    pad: 1
  }
}
layer {
  name: "inception_4b/pool_proj"
  type: "Convolution"
  bottom: "inception_4b/pool"
  top: "inception_4b/pool_proj"
  param {
    lr_mult: 1
    decay_mult: 1
  }
  param {
    lr_mult: 2
    decay_mult: 0
  }
  convolution_param {
    num_output: 64
    kernel_size: 1
    weight_filler {
      type: "xavier"
      std: 0.1
    }
    bias_filler {
      type: "constant"
      value: 0.2
    }
  }
}
layer {
  name: "inception_4b/relu_pool_proj"
  type: "ReLU"
  bottom: "inception_4b/pool_proj"
  top: "inception_4b/pool_proj"
}
layer {
  name: "inception_4b/output"
  type: "Concat"
  bottom: "inception_4b/1x1"
  bottom: "inception_4b/3x3"
  bottom: "inception_4b/5x5"
  bottom: "inception_4b/pool_proj"
  top: "inception_4b/output"
}
layer {
  name: "inception_4c/1x1"
  type: "Convolution"
  bottom: "inception_4b/output"
  top: "inception_4c/1x1"
  param {
    lr_mult: 1
    decay_mult: 1
  }
  param {
    lr_mult: 2
    decay_mult: 0
  }
  convolution_param {
    num_output: 128
    kernel_size: 1
    weight_filler {
      type: "xavier"
      std: 0.03
    }
    bias_filler {
      type: "constant"
      value: 0.2
    }
  }
}
layer {
  name: "inception_4c/relu_1x1"
  type: "ReLU"
  bottom: "inception_4c/1x1"
  top: "inception_4c/1x1"
}
layer {
  name: "inception_4c/3x3_reduce"
  type: "Convolution"
  bottom: "inception_4b/output"
  top: "inception_4c/3x3_reduce"
  param {
    lr_mult: 1
    decay_mult: 1
  }
  param {
    lr_mult: 2
    decay_mult: 0
  }
  convolution_param {
    num_output: 128
    kernel_size: 1
    weight_filler {
      type: "xavier"
      std: 0.09
    }
    bias_filler {
      type: "constant"
      value: 0.2
    }
  }
}
layer {
  name: "inception_4c/relu_3x3_reduce"
  type: "ReLU"
  bottom: "inception_4c/3x3_reduce"
  top: "inception_4c/3x3_reduce"
}
layer {
  name: "inception_4c/3x3"
  type: "Convolution"
  bottom: "inception_4c/3x3_reduce"
  top: "inception_4c/3x3"
  param {
    lr_mult: 1
    decay_mult: 1
  }
  param {
    lr_mult: 2
    decay_mult: 0
  }
  convolution_param {
    num_output: 256
    pad: 1
    kernel_size: 3
    weight_filler {
      type: "xavier"
      std: 0.03
    }
    bias_filler {
      type: "constant"
      value: 0.2
    }
  }
}
layer {
  name: "inception_4c/relu_3x3"
  type: "ReLU"
  bottom: "inception_4c/3x3"
  top: "inception_4c/3x3"
}
layer {
  name: "inception_4c/5x5_reduce"
  type: "Convolution"
  bottom: "inception_4b/output"
  top: "inception_4c/5x5_reduce"
  param {
    lr_mult: 1
    decay_mult: 1
  }
  param {
    lr_mult: 2
    decay_mult: 0
  }
  convolution_param {
    num_output: 24
    kernel_size: 1
    weight_filler {
      type: "xavier"
      std: 0.2
    }
    bias_filler {
      type: "constant"
      value: 0.2
    }
  }
}
layer {
  name: "inception_4c/relu_5x5_reduce"
  type: "ReLU"
  bottom: "inception_4c/5x5_reduce"
  top: "inception_4c/5x5_reduce"
}
layer {
  name: "inception_4c/5x5"
  type: "Convolution"
  bottom: "inception_4c/5x5_reduce"
  top: "inception_4c/5x5"
  param {
    lr_mult: 1
    decay_mult: 1
  }
  param {
    lr_mult: 2
    decay_mult: 0
  }
  convolution_param {
    num_output: 64
    pad: 2
    kernel_size: 5
    weight_filler {
      type: "xavier"
      std: 0.03
    }
    bias_filler {
      type: "constant"
      value: 0.2
    }
  }
}
layer {
  name: "inception_4c/relu_5x5"
  type: "ReLU"
  bottom: "inception_4c/5x5"
  top: "inception_4c/5x5"
}
layer {
  name: "inception_4c/pool"
  type: "Pooling"
  bottom: "inception_4b/output"
  top: "inception_4c/pool"
  pooling_param {
    pool: MAX
    kernel_size: 3
    stride: 1
    pad: 1
  }
}
layer {
  name: "inception_4c/pool_proj"
  type: "Convolution"
  bottom: "inception_4c/pool"
  top: "inception_4c/pool_proj"
  param {
    lr_mult: 1
    decay_mult: 1
  }
  param {
    lr_mult: 2
    decay_mult: 0
  }
  convolution_param {
    num_output: 64
    kernel_size: 1
    weight_filler {
      type: "xavier"
      std: 0.1
    }
    bias_filler {
      type: "constant"
      value: 0.2
    }
  }
}
layer {
  name: "inception_4c/relu_pool_proj"
  type: "ReLU"
  bottom: "inception_4c/pool_proj"
  top: "inception_4c/pool_proj"
}
layer {
  name: "inception_4c/output"
  type: "Concat"
  bottom: "inception_4c/1x1"
  bottom: "inception_4c/3x3"
  bottom: "inception_4c/5x5"
  bottom: "inception_4c/pool_proj"
  top: "inception_4c/output"
}
layer {
  name: "inception_4d/1x1"
  type: "Convolution"
  bottom: "inception_4c/output"
  top: "inception_4d/1x1"
  param {
    lr_mult: 1
    decay_mult: 1
  }
  param {
    lr_mult: 2
    decay_mult: 0
  }
  convolution_param {
    num_output: 112
    kernel_size: 1
    weight_filler {
      type: "xavier"
      std: 0.03
    }
    bias_filler {
      type: "constant"
      value: 0.2
    }
  }
}
layer {
  name: "inception_4d/relu_1x1"
  type: "ReLU"
  bottom: "inception_4d/1x1"
  top: "inception_4d/1x1"
}
layer {
  name: "inception_4d/3x3_reduce"
  type: "Convolution"
  bottom: "inception_4c/output"
  top: "inception_4d/3x3_reduce"
  param {
    lr_mult: 1
    decay_mult: 1
  }
  param {
    lr_mult: 2
    decay_mult: 0
  }
  convolution_param {
    num_output: 144
    kernel_size: 1
    weight_filler {
      type: "xavier"
      std: 0.09
    }
    bias_filler {
      type: "constant"
      value: 0.2
    }
  }
}
layer {
  name: "inception_4d/relu_3x3_reduce"
  type: "ReLU"
  bottom: "inception_4d/3x3_reduce"
  top: "inception_4d/3x3_reduce"
}
layer {
  name: "inception_4d/3x3"
  type: "Convolution"
  bottom: "inception_4d/3x3_reduce"
  top: "inception_4d/3x3"
  param {
    lr_mult: 1
    decay_mult: 1
  }
  param {
    lr_mult: 2
    decay_mult: 0
  }
  convolution_param {
    num_output: 288
    pad: 1
    kernel_size: 3
    weight_filler {
      type: "xavier"
      std: 0.03
    }
    bias_filler {
      type: "constant"
      value: 0.2
    }
  }
}
layer {
  name: "inception_4d/relu_3x3"
  type: "ReLU"
  bottom: "inception_4d/3x3"
  top: "inception_4d/3x3"
}
layer {
  name: "inception_4d/5x5_reduce"
  type: "Convolution"
  bottom: "inception_4c/output"
  top: "inception_4d/5x5_reduce"
  param {
    lr_mult: 1
    decay_mult: 1
  }
  param {
    lr_mult: 2
    decay_mult: 0
  }
  convolution_param {
    num_output: 32
    kernel_size: 1
    weight_filler {
      type: "xavier"
      std: 0.2
    }
    bias_filler {
      type: "constant"
      value: 0.2
    }
  }
}
layer {
  name: "inception_4d/relu_5x5_reduce"
  type: "ReLU"
  bottom: "inception_4d/5x5_reduce"
  top: "inception_4d/5x5_reduce"
}
layer {
  name: "inception_4d/5x5"
  type: "Convolution"
  bottom: "inception_4d/5x5_reduce"
  top: "inception_4d/5x5"
  param {
    lr_mult: 1
    decay_mult: 1
  }
  param {
    lr_mult: 2
    decay_mult: 0
  }
  convolution_param {
    num_output: 64
    pad: 2
    kernel_size: 5
    weight_filler {
      type: "xavier"
      std: 0.03
    }
    bias_filler {
      type: "constant"
      value: 0.2
    }
  }
}
layer {
  name: "inception_4d/relu_5x5"
  type: "ReLU"
  bottom: "inception_4d/5x5"
  top: "inception_4d/5x5"
}
layer {
  name: "inception_4d/pool"
  type: "Pooling"
  bottom: "inception_4c/output"
  top: "inception_4d/pool"
  pooling_param {
    pool: MAX
    kernel_size: 3
    stride: 1
    pad: 1
  }
}
layer {
  name: "inception_4d/pool_proj"
  type: "Convolution"
  bottom: "inception_4d/pool"
  top: "inception_4d/pool_proj"
  param {
    lr_mult: 1
    decay_mult: 1
  }
  param {
    lr_mult: 2
    decay_mult: 0
  }
  convolution_param {
    num_output: 64
    kernel_size: 1
    weight_filler {
      type: "xavier"
      std: 0.1
    }
    bias_filler {
      type: "constant"
      value: 0.2
    }
  }
}
layer {
  name: "inception_4d/relu_pool_proj"
  type: "ReLU"
  bottom: "inception_4d/pool_proj"
  top: "inception_4d/pool_proj"
}
layer {
  name: "inception_4d/output"
  type: "Concat"
  bottom: "inception_4d/1x1"
  bottom: "inception_4d/3x3"
  bottom: "inception_4d/5x5"
  bottom: "inception_4d/pool_proj"
  top: "inception_4d/output"
}
layer {
  name: "loss2/ave_pool"
  type: "Pooling"
  bottom: "inception_4d/output"
  top: "loss2/ave_pool"
  pooling_param {
    pool: AVE
    kernel_size: 5
    stride: 3
  }
}
layer {
  name: "loss2/conv"
  type: "Convolution"
  bottom: "loss2/ave_pool"
  top: "loss2/conv"
  param {
    lr_mult: 1
    decay_mult: 1
  }
  param {
    lr_mult: 2
    decay_mult: 0
  }
  convolution_param {
    num_output: 128
    kernel_size: 1
    weight_filler {
      type: "xavier"
      std: 0.08
    }
    bias_filler {
      type: "constant"
      value: 0.2
    }
  }
}
layer {
  name: "loss2/relu_conv"
  type: "ReLU"
  bottom: "loss2/conv"
  top: "loss2/conv"
}
layer {
  name: "loss2/fc"
  type: "InnerProduct"
  bottom: "loss2/conv"
  top: "loss2/fc"
  param {
    lr_mult: 1
    decay_mult: 1
  }
  param {
    lr_mult: 2
    decay_mult: 0
  }
  inner_product_param {
    num_output: 1024
    weight_filler {
      type: "xavier"
      std: 0.02
    }
    bias_filler {
      type: "constant"
      value: 0.2
    }
  }
}
layer {
  name: "loss2/relu_fc"
  type: "ReLU"
  bottom: "loss2/fc"
  top: "loss2/fc"
}
layer {
  name: "loss2/drop_fc"
  type: "Dropout"
  bottom: "loss2/fc"
  top: "loss2/fc"
  dropout_param {
    dropout_ratio: 0.7
  }
}
layer {
  name: "loss2/classifier_plantvillage"
  type: "InnerProduct"
  bottom: "loss2/fc"
  top: "loss2/classifier_plantvillage"
  param {
    lr_mult: 1
    decay_mult: 1
  }
  param {
    lr_mult: 2
    decay_mult: 0
  }
  inner_product_param {
    num_output: 38
    weight_filler {
      type: "xavier"
      std: 0.0009765625
    }
    bias_filler {
      type: "constant"
      value: 0
    }
  }
}
layer {
  name: "inception_4e/1x1"
  type: "Convolution"
  bottom: "inception_4d/output"
  top: "inception_4e/1x1"
  param {
    lr_mult: 1
    decay_mult: 1
  }
  param {
    lr_mult: 2
    decay_mult: 0
  }
  convolution_param {
    num_output: 256
    kernel_size: 1
    weight_filler {
      type: "xavier"
      std: 0.03
    }
    bias_filler {
      type: "constant"
      value: 0.2
    }
  }
}
layer {
  name: "inception_4e/relu_1x1"
  type: "ReLU"
  bottom: "inception_4e/1x1"
  top: "inception_4e/1x1"
}
layer {
  name: "inception_4e/3x3_reduce"
  type: "Convolution"
  bottom: "inception_4d/output"
  top: "inception_4e/3x3_reduce"
  param {
    lr_mult: 1
    decay_mult: 1
  }
  param {
    lr_mult: 2
    decay_mult: 0
  }
  convolution_param {
    num_output: 160
    kernel_size: 1
    weight_filler {
      type: "xavier"
      std: 0.09
    }
    bias_filler {
      type: "constant"
      value: 0.2
    }
  }
}
layer {
  name: "inception_4e/relu_3x3_reduce"
  type: "ReLU"
  bottom: "inception_4e/3x3_reduce"
  top: "inception_4e/3x3_reduce"
}
layer {
  name: "inception_4e/3x3"
  type: "Convolution"
  bottom: "inception_4e/3x3_reduce"
  top: "inception_4e/3x3"
  param {
    lr_mult: 1
    decay_mult: 1
  }
  param {
    lr_mult: 2
    decay_mult: 0
  }
  convolution_param {
    num_output: 320
    pad: 1
    kernel_size: 3
    weight_filler {
      type: "xavier"
      std: 0.03
    }
    bias_filler {
      type: "constant"
      value: 0.2
    }
  }
}
layer {
  name: "inception_4e/relu_3x3"
  type: "ReLU"
  bottom: "inception_4e/3x3"
  top: "inception_4e/3x3"
}
layer {
  name: "inception_4e/5x5_reduce"
  type: "Convolution"
  bottom: "inception_4d/output"
  top: "inception_4e/5x5_reduce"
  param {
    lr_mult: 1
    decay_mult: 1
  }
  param {
    lr_mult: 2
    decay_mult: 0
  }
  convolution_param {
    num_output: 32
    kernel_size: 1
    weight_filler {
      type: "xavier"
      std: 0.2
    }
    bias_filler {
      type: "constant"
      value: 0.2
    }
  }
}
layer {
  name: "inception_4e/relu_5x5_reduce"
  type: "ReLU"
  bottom: "inception_4e/5x5_reduce"
  top: "inception_4e/5x5_reduce"
}
layer {
  name: "inception_4e/5x5"
  type: "Convolution"
  bottom: "inception_4e/5x5_reduce"
  top: "inception_4e/5x5"
  p
I0403 15:29:52.262987 15178 layer_factory.hpp:77] Creating layer data
I0403 15:29:52.263581 15178 net.cpp:91] Creating Layer data
I0403 15:29:52.263613 15178 net.cpp:399] data -> data
I0403 15:29:52.263664 15178 net.cpp:399] data -> label
I0403 15:29:52.263700 15178 data_transformer.cpp:25] Loading mean file from: /home/mohanty/data/final_dataset/lmdb/color-50-50/mean.binaryproto
I0403 15:29:52.266248 15181 db_lmdb.cpp:38] Opened lmdb /home/mohanty/data/final_dataset/lmdb/color-50-50/test_db
I0403 15:29:52.277166 15178 data_layer.cpp:41] output data size: 24,3,224,224
I0403 15:29:52.304383 15178 net.cpp:141] Setting up data
I0403 15:29:52.304452 15178 net.cpp:148] Top shape: 24 3 224 224 (3612672)
I0403 15:29:52.304474 15178 net.cpp:148] Top shape: 24 (24)
I0403 15:29:52.304489 15178 net.cpp:156] Memory required for data: 14450784
I0403 15:29:52.304515 15178 layer_factory.hpp:77] Creating layer label_data_1_split
I0403 15:29:52.304551 15178 net.cpp:91] Creating Layer label_data_1_split
I0403 15:29:52.304574 15178 net.cpp:425] label_data_1_split <- label
I0403 15:29:52.304605 15178 net.cpp:399] label_data_1_split -> label_data_1_split_0
I0403 15:29:52.304633 15178 net.cpp:399] label_data_1_split -> label_data_1_split_1
I0403 15:29:52.304654 15178 net.cpp:399] label_data_1_split -> label_data_1_split_2
I0403 15:29:52.304675 15178 net.cpp:399] label_data_1_split -> label_data_1_split_3
I0403 15:29:52.304694 15178 net.cpp:399] label_data_1_split -> label_data_1_split_4
I0403 15:29:52.304713 15178 net.cpp:399] label_data_1_split -> label_data_1_split_5
I0403 15:29:52.304733 15178 net.cpp:399] label_data_1_split -> label_data_1_split_6
I0403 15:29:52.304752 15178 net.cpp:399] label_data_1_split -> label_data_1_split_7
I0403 15:29:52.304771 15178 net.cpp:399] label_data_1_split -> label_data_1_split_8
I0403 15:29:52.304791 15178 net.cpp:399] label_data_1_split -> label_data_1_split_9
I0403 15:29:52.304909 15178 net.cpp:141] Setting up label_data_1_split
I0403 15:29:52.304934 15178 net.cpp:148] Top shape: 24 (24)
I0403 15:29:52.304949 15178 net.cpp:148] Top shape: 24 (24)
I0403 15:29:52.304965 15178 net.cpp:148] Top shape: 24 (24)
I0403 15:29:52.304980 15178 net.cpp:148] Top shape: 24 (24)
I0403 15:29:52.304994 15178 net.cpp:148] Top shape: 24 (24)
I0403 15:29:52.305009 15178 net.cpp:148] Top shape: 24 (24)
I0403 15:29:52.305024 15178 net.cpp:148] Top shape: 24 (24)
I0403 15:29:52.305039 15178 net.cpp:148] Top shape: 24 (24)
I0403 15:29:52.305055 15178 net.cpp:148] Top shape: 24 (24)
I0403 15:29:52.305069 15178 net.cpp:148] Top shape: 24 (24)
I0403 15:29:52.305121 15178 net.cpp:156] Memory required for data: 14451744
I0403 15:29:52.305137 15178 layer_factory.hpp:77] Creating layer conv1/7x7_s2
I0403 15:29:52.305168 15178 net.cpp:91] Creating Layer conv1/7x7_s2
I0403 15:29:52.305187 15178 net.cpp:425] conv1/7x7_s2 <- data
I0403 15:29:52.305207 15178 net.cpp:399] conv1/7x7_s2 -> conv1/7x7_s2
I0403 15:29:52.448411 15178 net.cpp:141] Setting up conv1/7x7_s2
I0403 15:29:52.448480 15178 net.cpp:148] Top shape: 24 64 112 112 (19267584)
I0403 15:29:52.448498 15178 net.cpp:156] Memory required for data: 91522080
I0403 15:29:52.448529 15178 layer_factory.hpp:77] Creating layer conv1/relu_7x7
I0403 15:29:52.448561 15178 net.cpp:91] Creating Layer conv1/relu_7x7
I0403 15:29:52.448580 15178 net.cpp:425] conv1/relu_7x7 <- conv1/7x7_s2
I0403 15:29:52.448598 15178 net.cpp:386] conv1/relu_7x7 -> conv1/7x7_s2 (in-place)
I0403 15:29:52.448853 15178 net.cpp:141] Setting up conv1/relu_7x7
I0403 15:29:52.448881 15178 net.cpp:148] Top shape: 24 64 112 112 (19267584)
I0403 15:29:52.448896 15178 net.cpp:156] Memory required for data: 168592416
I0403 15:29:52.448911 15178 layer_factory.hpp:77] Creating layer pool1/3x3_s2
I0403 15:29:52.448935 15178 net.cpp:91] Creating Layer pool1/3x3_s2
I0403 15:29:52.448953 15178 net.cpp:425] pool1/3x3_s2 <- conv1/7x7_s2
I0403 15:29:52.448972 15178 net.cpp:399] pool1/3x3_s2 -> pool1/3x3_s2
I0403 15:29:52.449048 15178 net.cpp:141] Setting up pool1/3x3_s2
I0403 15:29:52.449071 15178 net.cpp:148] Top shape: 24 64 56 56 (4816896)
I0403 15:29:52.449085 15178 net.cpp:156] Memory required for data: 187860000
I0403 15:29:52.449100 15178 layer_factory.hpp:77] Creating layer pool1/norm1
I0403 15:29:52.449123 15178 net.cpp:91] Creating Layer pool1/norm1
I0403 15:29:52.449141 15178 net.cpp:425] pool1/norm1 <- pool1/3x3_s2
I0403 15:29:52.449157 15178 net.cpp:399] pool1/norm1 -> pool1/norm1
I0403 15:29:52.449446 15178 net.cpp:141] Setting up pool1/norm1
I0403 15:29:52.449473 15178 net.cpp:148] Top shape: 24 64 56 56 (4816896)
I0403 15:29:52.449488 15178 net.cpp:156] Memory required for data: 207127584
I0403 15:29:52.449503 15178 layer_factory.hpp:77] Creating layer conv2/3x3_reduce
I0403 15:29:52.449527 15178 net.cpp:91] Creating Layer conv2/3x3_reduce
I0403 15:29:52.449549 15178 net.cpp:425] conv2/3x3_reduce <- pool1/norm1
I0403 15:29:52.449569 15178 net.cpp:399] conv2/3x3_reduce -> conv2/3x3_reduce
I0403 15:29:52.450960 15178 net.cpp:141] Setting up conv2/3x3_reduce
I0403 15:29:52.450990 15178 net.cpp:148] Top shape: 24 64 56 56 (4816896)
I0403 15:29:52.451007 15178 net.cpp:156] Memory required for data: 226395168
I0403 15:29:52.451028 15178 layer_factory.hpp:77] Creating layer conv2/relu_3x3_reduce
I0403 15:29:52.451048 15178 net.cpp:91] Creating Layer conv2/relu_3x3_reduce
I0403 15:29:52.451063 15178 net.cpp:425] conv2/relu_3x3_reduce <- conv2/3x3_reduce
I0403 15:29:52.451081 15178 net.cpp:386] conv2/relu_3x3_reduce -> conv2/3x3_reduce (in-place)
I0403 15:29:52.451336 15178 net.cpp:141] Setting up conv2/relu_3x3_reduce
I0403 15:29:52.451364 15178 net.cpp:148] Top shape: 24 64 56 56 (4816896)
I0403 15:29:52.451378 15178 net.cpp:156] Memory required for data: 245662752
I0403 15:29:52.451392 15178 layer_factory.hpp:77] Creating layer conv2/3x3
I0403 15:29:52.451414 15178 net.cpp:91] Creating Layer conv2/3x3
I0403 15:29:52.451432 15178 net.cpp:425] conv2/3x3 <- conv2/3x3_reduce
I0403 15:29:52.451450 15178 net.cpp:399] conv2/3x3 -> conv2/3x3
I0403 15:29:52.453848 15178 net.cpp:141] Setting up conv2/3x3
I0403 15:29:52.453881 15178 net.cpp:148] Top shape: 24 192 56 56 (14450688)
I0403 15:29:52.453898 15178 net.cpp:156] Memory required for data: 303465504
I0403 15:29:52.453919 15178 layer_factory.hpp:77] Creating layer conv2/relu_3x3
I0403 15:29:52.453939 15178 net.cpp:91] Creating Layer conv2/relu_3x3
I0403 15:29:52.453954 15178 net.cpp:425] conv2/relu_3x3 <- conv2/3x3
I0403 15:29:52.453975 15178 net.cpp:386] conv2/relu_3x3 -> conv2/3x3 (in-place)
I0403 15:29:52.454157 15178 net.cpp:141] Setting up conv2/relu_3x3
I0403 15:29:52.454182 15178 net.cpp:148] Top shape: 24 192 56 56 (14450688)
I0403 15:29:52.454234 15178 net.cpp:156] Memory required for data: 361268256
I0403 15:29:52.454251 15178 layer_factory.hpp:77] Creating layer conv2/norm2
I0403 15:29:52.454270 15178 net.cpp:91] Creating Layer conv2/norm2
I0403 15:29:52.454288 15178 net.cpp:425] conv2/norm2 <- conv2/3x3
I0403 15:29:52.454304 15178 net.cpp:399] conv2/norm2 -> conv2/norm2
I0403 15:29:52.454624 15178 net.cpp:141] Setting up conv2/norm2
I0403 15:29:52.454654 15178 net.cpp:148] Top shape: 24 192 56 56 (14450688)
I0403 15:29:52.454670 15178 net.cpp:156] Memory required for data: 419071008
I0403 15:29:52.454685 15178 layer_factory.hpp:77] Creating layer pool2/3x3_s2
I0403 15:29:52.454704 15178 net.cpp:91] Creating Layer pool2/3x3_s2
I0403 15:29:52.454718 15178 net.cpp:425] pool2/3x3_s2 <- conv2/norm2
I0403 15:29:52.454737 15178 net.cpp:399] pool2/3x3_s2 -> pool2/3x3_s2
I0403 15:29:52.454793 15178 net.cpp:141] Setting up pool2/3x3_s2
I0403 15:29:52.454818 15178 net.cpp:148] Top shape: 24 192 28 28 (3612672)
I0403 15:29:52.454833 15178 net.cpp:156] Memory required for data: 433521696
I0403 15:29:52.454846 15178 layer_factory.hpp:77] Creating layer pool2/3x3_s2_pool2/3x3_s2_0_split
I0403 15:29:52.454866 15178 net.cpp:91] Creating Layer pool2/3x3_s2_pool2/3x3_s2_0_split
I0403 15:29:52.454882 15178 net.cpp:425] pool2/3x3_s2_pool2/3x3_s2_0_split <- pool2/3x3_s2
I0403 15:29:52.454900 15178 net.cpp:399] pool2/3x3_s2_pool2/3x3_s2_0_split -> pool2/3x3_s2_pool2/3x3_s2_0_split_0
I0403 15:29:52.454918 15178 net.cpp:399] pool2/3x3_s2_pool2/3x3_s2_0_split -> pool2/3x3_s2_pool2/3x3_s2_0_split_1
I0403 15:29:52.454938 15178 net.cpp:399] pool2/3x3_s2_pool2/3x3_s2_0_split -> pool2/3x3_s2_pool2/3x3_s2_0_split_2
I0403 15:29:52.454957 15178 net.cpp:399] pool2/3x3_s2_pool2/3x3_s2_0_split -> pool2/3x3_s2_pool2/3x3_s2_0_split_3
I0403 15:29:52.455029 15178 net.cpp:141] Setting up pool2/3x3_s2_pool2/3x3_s2_0_split
I0403 15:29:52.455051 15178 net.cpp:148] Top shape: 24 192 28 28 (3612672)
I0403 15:29:52.455067 15178 net.cpp:148] Top shape: 24 192 28 28 (3612672)
I0403 15:29:52.455082 15178 net.cpp:148] Top shape: 24 192 28 28 (3612672)
I0403 15:29:52.455097 15178 net.cpp:148] Top shape: 24 192 28 28 (3612672)
I0403 15:29:52.455111 15178 net.cpp:156] Memory required for data: 491324448
I0403 15:29:52.455124 15178 layer_factory.hpp:77] Creating layer inception_3a/1x1
I0403 15:29:52.455147 15178 net.cpp:91] Creating Layer inception_3a/1x1
I0403 15:29:52.455163 15178 net.cpp:425] inception_3a/1x1 <- pool2/3x3_s2_pool2/3x3_s2_0_split_0
I0403 15:29:52.455184 15178 net.cpp:399] inception_3a/1x1 -> inception_3a/1x1
I0403 15:29:52.456794 15178 net.cpp:141] Setting up inception_3a/1x1
I0403 15:29:52.456826 15178 net.cpp:148] Top shape: 24 64 28 28 (1204224)
I0403 15:29:52.456843 15178 net.cpp:156] Memory required for data: 496141344
I0403 15:29:52.456862 15178 layer_factory.hpp:77] Creating layer inception_3a/relu_1x1
I0403 15:29:52.456881 15178 net.cpp:91] Creating Layer inception_3a/relu_1x1
I0403 15:29:52.456895 15178 net.cpp:425] inception_3a/relu_1x1 <- inception_3a/1x1
I0403 15:29:52.456914 15178 net.cpp:386] inception_3a/relu_1x1 -> inception_3a/1x1 (in-place)
I0403 15:29:52.457142 15178 net.cpp:141] Setting up inception_3a/relu_1x1
I0403 15:29:52.457170 15178 net.cpp:148] Top shape: 24 64 28 28 (1204224)
I0403 15:29:52.457185 15178 net.cpp:156] Memory required for data: 500958240
I0403 15:29:52.457200 15178 layer_factory.hpp:77] Creating layer inception_3a/3x3_reduce
I0403 15:29:52.457221 15178 net.cpp:91] Creating Layer inception_3a/3x3_reduce
I0403 15:29:52.457238 15178 net.cpp:425] inception_3a/3x3_reduce <- pool2/3x3_s2_pool2/3x3_s2_0_split_1
I0403 15:29:52.457258 15178 net.cpp:399] inception_3a/3x3_reduce -> inception_3a/3x3_reduce
I0403 15:29:52.459045 15178 net.cpp:141] Setting up inception_3a/3x3_reduce
I0403 15:29:52.459077 15178 net.cpp:148] Top shape: 24 96 28 28 (1806336)
I0403 15:29:52.459095 15178 net.cpp:156] Memory required for data: 508183584
I0403 15:29:52.459117 15178 layer_factory.hpp:77] Creating layer inception_3a/relu_3x3_reduce
I0403 15:29:52.459156 15178 net.cpp:91] Creating Layer inception_3a/relu_3x3_reduce
I0403 15:29:52.459174 15178 net.cpp:425] inception_3a/relu_3x3_reduce <- inception_3a/3x3_reduce
I0403 15:29:52.459192 15178 net.cpp:386] inception_3a/relu_3x3_reduce -> inception_3a/3x3_reduce (in-place)
I0403 15:29:52.459394 15178 net.cpp:141] Setting up inception_3a/relu_3x3_reduce
I0403 15:29:52.459420 15178 net.cpp:148] Top shape: 24 96 28 28 (1806336)
I0403 15:29:52.459435 15178 net.cpp:156] Memory required for data: 515408928
I0403 15:29:52.459450 15178 layer_factory.hpp:77] Creating layer inception_3a/3x3
I0403 15:29:52.459475 15178 net.cpp:91] Creating Layer inception_3a/3x3
I0403 15:29:52.459492 15178 net.cpp:425] inception_3a/3x3 <- inception_3a/3x3_reduce
I0403 15:29:52.459512 15178 net.cpp:399] inception_3a/3x3 -> inception_3a/3x3
I0403 15:29:52.461215 15178 net.cpp:141] Setting up inception_3a/3x3
I0403 15:29:52.461243 15178 net.cpp:148] Top shape: 24 128 28 28 (2408448)
I0403 15:29:52.461259 15178 net.cpp:156] Memory required for data: 525042720
I0403 15:29:52.461278 15178 layer_factory.hpp:77] Creating layer inception_3a/relu_3x3
I0403 15:29:52.461297 15178 net.cpp:91] Creating Layer inception_3a/relu_3x3
I0403 15:29:52.461313 15178 net.cpp:425] inception_3a/relu_3x3 <- inception_3a/3x3
I0403 15:29:52.461331 15178 net.cpp:386] inception_3a/relu_3x3 -> inception_3a/3x3 (in-place)
I0403 15:29:52.461614 15178 net.cpp:141] Setting up inception_3a/relu_3x3
I0403 15:29:52.461642 15178 net.cpp:148] Top shape: 24 128 28 28 (2408448)
I0403 15:29:52.461658 15178 net.cpp:156] Memory required for data: 534676512
I0403 15:29:52.461671 15178 layer_factory.hpp:77] Creating layer inception_3a/5x5_reduce
I0403 15:29:52.461694 15178 net.cpp:91] Creating Layer inception_3a/5x5_reduce
I0403 15:29:52.461711 15178 net.cpp:425] inception_3a/5x5_reduce <- pool2/3x3_s2_pool2/3x3_s2_0_split_2
I0403 15:29:52.461732 15178 net.cpp:399] inception_3a/5x5_reduce -> inception_3a/5x5_reduce
I0403 15:29:52.462712 15178 net.cpp:141] Setting up inception_3a/5x5_reduce
I0403 15:29:52.462740 15178 net.cpp:148] Top shape: 24 16 28 28 (301056)
I0403 15:29:52.462756 15178 net.cpp:156] Memory required for data: 535880736
I0403 15:29:52.462774 15178 layer_factory.hpp:77] Creating layer inception_3a/relu_5x5_reduce
I0403 15:29:52.462795 15178 net.cpp:91] Creating Layer inception_3a/relu_5x5_reduce
I0403 15:29:52.462810 15178 net.cpp:425] inception_3a/relu_5x5_reduce <- inception_3a/5x5_reduce
I0403 15:29:52.462831 15178 net.cpp:386] inception_3a/relu_5x5_reduce -> inception_3a/5x5_reduce (in-place)
I0403 15:29:52.463124 15178 net.cpp:141] Setting up inception_3a/relu_5x5_reduce
I0403 15:29:52.463151 15178 net.cpp:148] Top shape: 24 16 28 28 (301056)
I0403 15:29:52.463166 15178 net.cpp:156] Memory required for data: 537084960
I0403 15:29:52.463181 15178 layer_factory.hpp:77] Creating layer inception_3a/5x5
I0403 15:29:52.463203 15178 net.cpp:91] Creating Layer inception_3a/5x5
I0403 15:29:52.463222 15178 net.cpp:425] inception_3a/5x5 <- inception_3a/5x5_reduce
I0403 15:29:52.463243 15178 net.cpp:399] inception_3a/5x5 -> inception_3a/5x5
I0403 15:29:52.464280 15178 net.cpp:141] Setting up inception_3a/5x5
I0403 15:29:52.464308 15178 net.cpp:148] Top shape: 24 32 28 28 (602112)
I0403 15:29:52.464323 15178 net.cpp:156] Memory required for data: 539493408
I0403 15:29:52.464342 15178 layer_factory.hpp:77] Creating layer inception_3a/relu_5x5
I0403 15:29:52.464361 15178 net.cpp:91] Creating Layer inception_3a/relu_5x5
I0403 15:29:52.464377 15178 net.cpp:425] inception_3a/relu_5x5 <- inception_3a/5x5
I0403 15:29:52.464396 15178 net.cpp:386] inception_3a/relu_5x5 -> inception_3a/5x5 (in-place)
I0403 15:29:52.464593 15178 net.cpp:141] Setting up inception_3a/relu_5x5
I0403 15:29:52.464619 15178 net.cpp:148] Top shape: 24 32 28 28 (602112)
I0403 15:29:52.464635 15178 net.cpp:156] Memory required for data: 541901856
I0403 15:29:52.464649 15178 layer_factory.hpp:77] Creating layer inception_3a/pool
I0403 15:29:52.464670 15178 net.cpp:91] Creating Layer inception_3a/pool
I0403 15:29:52.464689 15178 net.cpp:425] inception_3a/pool <- pool2/3x3_s2_pool2/3x3_s2_0_split_3
I0403 15:29:52.464721 15178 net.cpp:399] inception_3a/pool -> inception_3a/pool
I0403 15:29:52.464786 15178 net.cpp:141] Setting up inception_3a/pool
I0403 15:29:52.464809 15178 net.cpp:148] Top shape: 24 192 28 28 (3612672)
I0403 15:29:52.464824 15178 net.cpp:156] Memory required for data: 556352544
I0403 15:29:52.464838 15178 layer_factory.hpp:77] Creating layer inception_3a/pool_proj
I0403 15:29:52.464860 15178 net.cpp:91] Creating Layer inception_3a/pool_proj
I0403 15:29:52.464879 15178 net.cpp:425] inception_3a/pool_proj <- inception_3a/pool
I0403 15:29:52.464900 15178 net.cpp:399] inception_3a/pool_proj -> inception_3a/pool_proj
I0403 15:29:52.465931 15178 net.cpp:141] Setting up inception_3a/pool_proj
I0403 15:29:52.465963 15178 net.cpp:148] Top shape: 24 32 28 28 (602112)
I0403 15:29:52.465981 15178 net.cpp:156] Memory required for data: 558760992
I0403 15:29:52.466003 15178 layer_factory.hpp:77] Creating layer inception_3a/relu_pool_proj
I0403 15:29:52.466027 15178 net.cpp:91] Creating Layer inception_3a/relu_pool_proj
I0403 15:29:52.466043 15178 net.cpp:425] inception_3a/relu_pool_proj <- inception_3a/pool_proj
I0403 15:29:52.466061 15178 net.cpp:386] inception_3a/relu_pool_proj -> inception_3a/pool_proj (in-place)
I0403 15:29:52.466353 15178 net.cpp:141] Setting up inception_3a/relu_pool_proj
I0403 15:29:52.466382 15178 net.cpp:148] Top shape: 24 32 28 28 (602112)
I0403 15:29:52.466397 15178 net.cpp:156] Memory required for data: 561169440
I0403 15:29:52.466411 15178 layer_factory.hpp:77] Creating layer inception_3a/output
I0403 15:29:52.466429 15178 net.cpp:91] Creating Layer inception_3a/output
I0403 15:29:52.466445 15178 net.cpp:425] inception_3a/output <- inception_3a/1x1
I0403 15:29:52.466461 15178 net.cpp:425] inception_3a/output <- inception_3a/3x3
I0403 15:29:52.466477 15178 net.cpp:425] inception_3a/output <- inception_3a/5x5
I0403 15:29:52.466493 15178 net.cpp:425] inception_3a/output <- inception_3a/pool_proj
I0403 15:29:52.466512 15178 net.cpp:399] inception_3a/output -> inception_3a/output
I0403 15:29:52.466567 15178 net.cpp:141] Setting up inception_3a/output
I0403 15:29:52.466593 15178 net.cpp:148] Top shape: 24 256 28 28 (4816896)
I0403 15:29:52.466611 15178 net.cpp:156] Memory required for data: 580437024
I0403 15:29:52.466626 15178 layer_factory.hpp:77] Creating layer inception_3a/output_inception_3a/output_0_split
I0403 15:29:52.466645 15178 net.cpp:91] Creating Layer inception_3a/output_inception_3a/output_0_split
I0403 15:29:52.466660 15178 net.cpp:425] inception_3a/output_inception_3a/output_0_split <- inception_3a/output
I0403 15:29:52.466677 15178 net.cpp:399] inception_3a/output_inception_3a/output_0_split -> inception_3a/output_inception_3a/output_0_split_0
I0403 15:29:52.466697 15178 net.cpp:399] inception_3a/output_inception_3a/output_0_split -> inception_3a/output_inception_3a/output_0_split_1
I0403 15:29:52.466723 15178 net.cpp:399] inception_3a/output_inception_3a/output_0_split -> inception_3a/output_inception_3a/output_0_split_2
I0403 15:29:52.466745 15178 net.cpp:399] inception_3a/output_inception_3a/output_0_split -> inception_3a/output_inception_3a/output_0_split_3
I0403 15:29:52.466827 15178 net.cpp:141] Setting up inception_3a/output_inception_3a/output_0_split
I0403 15:29:52.466853 15178 net.cpp:148] Top shape: 24 256 28 28 (4816896)
I0403 15:29:52.466871 15178 net.cpp:148] Top shape: 24 256 28 28 (4816896)
I0403 15:29:52.466886 15178 net.cpp:148] Top shape: 24 256 28 28 (4816896)
I0403 15:29:52.466902 15178 net.cpp:148] Top shape: 24 256 28 28 (4816896)
I0403 15:29:52.466917 15178 net.cpp:156] Memory required for data: 657507360
I0403 15:29:52.466930 15178 layer_factory.hpp:77] Creating layer inception_3b/1x1
I0403 15:29:52.466953 15178 net.cpp:91] Creating Layer inception_3b/1x1
I0403 15:29:52.466971 15178 net.cpp:425] inception_3b/1x1 <- inception_3a/output_inception_3a/output_0_split_0
I0403 15:29:52.466990 15178 net.cpp:399] inception_3b/1x1 -> inception_3b/1x1
I0403 15:29:52.468185 15178 net.cpp:141] Setting up inception_3b/1x1
I0403 15:29:52.468230 15178 net.cpp:148] Top shape: 24 128 28 28 (2408448)
I0403 15:29:52.468247 15178 net.cpp:156] Memory required for data: 667141152
I0403 15:29:52.468266 15178 layer_factory.hpp:77] Creating layer inception_3b/relu_1x1
I0403 15:29:52.468286 15178 net.cpp:91] Creating Layer inception_3b/relu_1x1
I0403 15:29:52.468303 15178 net.cpp:425] inception_3b/relu_1x1 <- inception_3b/1x1
I0403 15:29:52.468323 15178 net.cpp:386] inception_3b/relu_1x1 -> inception_3b/1x1 (in-place)
I0403 15:29:52.468505 15178 net.cpp:141] Setting up inception_3b/relu_1x1
I0403 15:29:52.468533 15178 net.cpp:148] Top shape: 24 128 28 28 (2408448)
I0403 15:29:52.468554 15178 net.cpp:156] Memory required for data: 676774944
I0403 15:29:52.468569 15178 layer_factory.hpp:77] Creating layer inception_3b/3x3_reduce
I0403 15:29:52.468591 15178 net.cpp:91] Creating Layer inception_3b/3x3_reduce
I0403 15:29:52.468611 15178 net.cpp:425] inception_3b/3x3_reduce <- inception_3a/output_inception_3a/output_0_split_1
I0403 15:29:52.468633 15178 net.cpp:399] inception_3b/3x3_reduce -> inception_3b/3x3_reduce
I0403 15:29:52.469820 15178 net.cpp:141] Setting up inception_3b/3x3_reduce
I0403 15:29:52.469853 15178 net.cpp:148] Top shape: 24 128 28 28 (2408448)
I0403 15:29:52.469871 15178 net.cpp:156] Memory required for data: 686408736
I0403 15:29:52.469889 15178 layer_factory.hpp:77] Creating layer inception_3b/relu_3x3_reduce
I0403 15:29:52.469908 15178 net.cpp:91] Creating Layer inception_3b/relu_3x3_reduce
I0403 15:29:52.469924 15178 net.cpp:425] inception_3b/relu_3x3_reduce <- inception_3b/3x3_reduce
I0403 15:29:52.469941 15178 net.cpp:386] inception_3b/relu_3x3_reduce -> inception_3b/3x3_reduce (in-place)
I0403 15:29:52.470124 15178 net.cpp:141] Setting up inception_3b/relu_3x3_reduce
I0403 15:29:52.470149 15178 net.cpp:148] Top shape: 24 128 28 28 (2408448)
I0403 15:29:52.470165 15178 net.cpp:156] Memory required for data: 696042528
I0403 15:29:52.470180 15178 layer_factory.hpp:77] Creating layer inception_3b/3x3
I0403 15:29:52.470206 15178 net.cpp:91] Creating Layer inception_3b/3x3
I0403 15:29:52.470223 15178 net.cpp:425] inception_3b/3x3 <- inception_3b/3x3_reduce
I0403 15:29:52.470245 15178 net.cpp:399] inception_3b/3x3 -> inception_3b/3x3
I0403 15:29:52.473243 15178 net.cpp:141] Setting up inception_3b/3x3
I0403 15:29:52.473285 15178 net.cpp:148] Top shape: 24 192 28 28 (3612672)
I0403 15:29:52.473301 15178 net.cpp:156] Memory required for data: 710493216
I0403 15:29:52.473320 15178 layer_factory.hpp:77] Creating layer inception_3b/relu_3x3
I0403 15:29:52.473338 15178 net.cpp:91] Creating Layer inception_3b/relu_3x3
I0403 15:29:52.473354 15178 net.cpp:425] inception_3b/relu_3x3 <- inception_3b/3x3
I0403 15:29:52.473374 15178 net.cpp:386] inception_3b/relu_3x3 -> inception_3b/3x3 (in-place)
I0403 15:29:52.473675 15178 net.cpp:141] Setting up inception_3b/relu_3x3
I0403 15:29:52.473702 15178 net.cpp:148] Top shape: 24 192 28 28 (3612672)
I0403 15:29:52.473717 15178 net.cpp:156] Memory required for data: 724943904
I0403 15:29:52.473732 15178 layer_factory.hpp:77] Creating layer inception_3b/5x5_reduce
I0403 15:29:52.473754 15178 net.cpp:91] Creating Layer inception_3b/5x5_reduce
I0403 15:29:52.473772 15178 net.cpp:425] inception_3b/5x5_reduce <- inception_3a/output_inception_3a/output_0_split_2
I0403 15:29:52.473794 15178 net.cpp:399] inception_3b/5x5_reduce -> inception_3b/5x5_reduce
I0403 15:29:52.474808 15178 net.cpp:141] Setting up inception_3b/5x5_reduce
I0403 15:29:52.474836 15178 net.cpp:148] Top shape: 24 32 28 28 (602112)
I0403 15:29:52.474853 15178 net.cpp:156] Memory required for data: 727352352
I0403 15:29:52.474869 15178 layer_factory.hpp:77] Creating layer inception_3b/relu_5x5_reduce
I0403 15:29:52.474887 15178 net.cpp:91] Creating Layer inception_3b/relu_5x5_reduce
I0403 15:29:52.474903 15178 net.cpp:425] inception_3b/relu_5x5_reduce <- inception_3b/5x5_reduce
I0403 15:29:52.474922 15178 net.cpp:386] inception_3b/relu_5x5_reduce -> inception_3b/5x5_reduce (in-place)
I0403 15:29:52.475106 15178 net.cpp:141] Setting up inception_3b/relu_5x5_reduce
I0403 15:29:52.475142 15178 net.cpp:148] Top shape: 24 32 28 28 (602112)
I0403 15:29:52.475158 15178 net.cpp:156] Memory required for data: 729760800
I0403 15:29:52.475173 15178 layer_factory.hpp:77] Creating layer inception_3b/5x5
I0403 15:29:52.475195 15178 net.cpp:91] Creating Layer inception_3b/5x5
I0403 15:29:52.475214 15178 net.cpp:425] inception_3b/5x5 <- inception_3b/5x5_reduce
I0403 15:29:52.475234 15178 net.cpp:399] inception_3b/5x5 -> inception_3b/5x5
I0403 15:29:52.477272 15178 net.cpp:141] Setting up inception_3b/5x5
I0403 15:29:52.477304 15178 net.cpp:148] Top shape: 24 96 28 28 (1806336)
I0403 15:29:52.477321 15178 net.cpp:156] Memory required for data: 736986144
I0403 15:29:52.477340 15178 layer_factory.hpp:77] Creating layer inception_3b/relu_5x5
I0403 15:29:52.477360 15178 net.cpp:91] Creating Layer inception_3b/relu_5x5
I0403 15:29:52.477375 15178 net.cpp:425] inception_3b/relu_5x5 <- inception_3b/5x5
I0403 15:29:52.477392 15178 net.cpp:386] inception_3b/relu_5x5 -> inception_3b/5x5 (in-place)
I0403 15:29:52.477610 15178 net.cpp:141] Setting up inception_3b/relu_5x5
I0403 15:29:52.477638 15178 net.cpp:148] Top shape: 24 96 28 28 (1806336)
I0403 15:29:52.477653 15178 net.cpp:156] Memory required for data: 744211488
I0403 15:29:52.477666 15178 layer_factory.hpp:77] Creating layer inception_3b/pool
I0403 15:29:52.477684 15178 net.cpp:91] Creating Layer inception_3b/pool
I0403 15:29:52.477700 15178 net.cpp:425] inception_3b/pool <- inception_3a/output_inception_3a/output_0_split_3
I0403 15:29:52.477717 15178 net.cpp:399] inception_3b/pool -> inception_3b/pool
I0403 15:29:52.477774 15178 net.cpp:141] Setting up inception_3b/pool
I0403 15:29:52.477800 15178 net.cpp:148] Top shape: 24 256 28 28 (4816896)
I0403 15:29:52.477816 15178 net.cpp:156] Memory required for data: 763479072
I0403 15:29:52.477831 15178 layer_factory.hpp:77] Creating layer inception_3b/pool_proj
I0403 15:29:52.477852 15178 net.cpp:91] Creating Layer inception_3b/pool_proj
I0403 15:29:52.477869 15178 net.cpp:425] inception_3b/pool_proj <- inception_3b/pool
I0403 15:29:52.477887 15178 net.cpp:399] inception_3b/pool_proj -> inception_3b/pool_proj
I0403 15:29:52.479001 15178 net.cpp:141] Setting up inception_3b/pool_proj
I0403 15:29:52.479028 15178 net.cpp:148] Top shape: 24 64 28 28 (1204224)
I0403 15:29:52.479044 15178 net.cpp:156] Memory required for data: 768295968
I0403 15:29:52.479063 15178 layer_factory.hpp:77] Creating layer inception_3b/relu_pool_proj
I0403 15:29:52.479084 15178 net.cpp:91] Creating Layer inception_3b/relu_pool_proj
I0403 15:29:52.479099 15178 net.cpp:425] inception_3b/relu_pool_proj <- inception_3b/pool_proj
I0403 15:29:52.479116 15178 net.cpp:386] inception_3b/relu_pool_proj -> inception_3b/pool_proj (in-place)
I0403 15:29:52.479526 15178 net.cpp:141] Setting up inception_3b/relu_pool_proj
I0403 15:29:52.479557 15178 net.cpp:148] Top shape: 24 64 28 28 (1204224)
I0403 15:29:52.479575 15178 net.cpp:156] Memory required for data: 773112864
I0403 15:29:52.479590 15178 layer_factory.hpp:77] Creating layer inception_3b/output
I0403 15:29:52.479607 15178 net.cpp:91] Creating Layer inception_3b/output
I0403 15:29:52.479624 15178 net.cpp:425] inception_3b/output <- inception_3b/1x1
I0403 15:29:52.479640 15178 net.cpp:425] inception_3b/output <- inception_3b/3x3
I0403 15:29:52.479655 15178 net.cpp:425] inception_3b/output <- inception_3b/5x5
I0403 15:29:52.479671 15178 net.cpp:425] inception_3b/output <- inception_3b/pool_proj
I0403 15:29:52.479691 15178 net.cpp:399] inception_3b/output -> inception_3b/output
I0403 15:29:52.479737 15178 net.cpp:141] Setting up inception_3b/output
I0403 15:29:52.479761 15178 net.cpp:148] Top shape: 24 480 28 28 (9031680)
I0403 15:29:52.479775 15178 net.cpp:156] Memory required for data: 809239584
I0403 15:29:52.479789 15178 layer_factory.hpp:77] Creating layer pool3/3x3_s2
I0403 15:29:52.479806 15178 net.cpp:91] Creating Layer pool3/3x3_s2
I0403 15:29:52.479821 15178 net.cpp:425] pool3/3x3_s2 <- inception_3b/output
I0403 15:29:52.479841 15178 net.cpp:399] pool3/3x3_s2 -> pool3/3x3_s2
I0403 15:29:52.479914 15178 net.cpp:141] Setting up pool3/3x3_s2
I0403 15:29:52.479938 15178 net.cpp:148] Top shape: 24 480 14 14 (2257920)
I0403 15:29:52.479954 15178 net.cpp:156] Memory required for data: 818271264
I0403 15:29:52.479969 15178 layer_factory.hpp:77] Creating layer pool3/3x3_s2_pool3/3x3_s2_0_split
I0403 15:29:52.479989 15178 net.cpp:91] Creating Layer pool3/3x3_s2_pool3/3x3_s2_0_split
I0403 15:29:52.480005 15178 net.cpp:425] pool3/3x3_s2_pool3/3x3_s2_0_split <- pool3/3x3_s2
I0403 15:29:52.480021 15178 net.cpp:399] pool3/3x3_s2_pool3/3x3_s2_0_split -> pool3/3x3_s2_pool3/3x3_s2_0_split_0
I0403 15:29:52.480041 15178 net.cpp:399] pool3/3x3_s2_pool3/3x3_s2_0_split -> pool3/3x3_s2_pool3/3x3_s2_0_split_1
I0403 15:29:52.480063 15178 net.cpp:399] pool3/3x3_s2_pool3/3x3_s2_0_split -> pool3/3x3_s2_pool3/3x3_s2_0_split_2
I0403 15:29:52.480082 15178 net.cpp:399] pool3/3x3_s2_pool3/3x3_s2_0_split -> pool3/3x3_s2_pool3/3x3_s2_0_split_3
I0403 15:29:52.480159 15178 net.cpp:141] Setting up pool3/3x3_s2_pool3/3x3_s2_0_split
I0403 15:29:52.480183 15178 net.cpp:148] Top shape: 24 480 14 14 (2257920)
I0403 15:29:52.480200 15178 net.cpp:148] Top shape: 24 480 14 14 (2257920)
I0403 15:29:52.480214 15178 net.cpp:148] Top shape: 24 480 14 14 (2257920)
I0403 15:29:52.480229 15178 net.cpp:148] Top shape: 24 480 14 14 (2257920)
I0403 15:29:52.480242 15178 net.cpp:156] Memory required for data: 854397984
I0403 15:29:52.480257 15178 layer_factory.hpp:77] Creating layer inception_4a/1x1
I0403 15:29:52.480278 15178 net.cpp:91] Creating Layer inception_4a/1x1
I0403 15:29:52.480295 15178 net.cpp:425] inception_4a/1x1 <- pool3/3x3_s2_pool3/3x3_s2_0_split_0
I0403 15:29:52.480316 15178 net.cpp:399] inception_4a/1x1 -> inception_4a/1x1
I0403 15:29:52.481936 15178 net.cpp:141] Setting up inception_4a/1x1
I0403 15:29:52.481966 15178 net.cpp:148] Top shape: 24 192 14 14 (903168)
I0403 15:29:52.481981 15178 net.cpp:156] Memory required for data: 858010656
I0403 15:29:52.481999 15178 layer_factory.hpp:77] Creating layer inception_4a/relu_1x1
I0403 15:29:52.482020 15178 net.cpp:91] Creating Layer inception_4a/relu_1x1
I0403 15:29:52.482038 15178 net.cpp:425] inception_4a/relu_1x1 <- inception_4a/1x1
I0403 15:29:52.482054 15178 net.cpp:386] inception_4a/relu_1x1 -> inception_4a/1x1 (in-place)
I0403 15:29:52.482239 15178 net.cpp:141] Setting up inception_4a/relu_1x1
I0403 15:29:52.482266 15178 net.cpp:148] Top shape: 24 192 14 14 (903168)
I0403 15:29:52.482282 15178 net.cpp:156] Memory required for data: 861623328
I0403 15:29:52.482297 15178 layer_factory.hpp:77] Creating layer inception_4a/3x3_reduce
I0403 15:29:52.482319 15178 net.cpp:91] Creating Layer inception_4a/3x3_reduce
I0403 15:29:52.482337 15178 net.cpp:425] inception_4a/3x3_reduce <- pool3/3x3_s2_pool3/3x3_s2_0_split_1
I0403 15:29:52.482355 15178 net.cpp:399] inception_4a/3x3_reduce -> inception_4a/3x3_reduce
I0403 15:29:52.483697 15178 net.cpp:141] Setting up inception_4a/3x3_reduce
I0403 15:29:52.483726 15178 net.cpp:148] Top shape: 24 96 14 14 (451584)
I0403 15:29:52.483741 15178 net.cpp:156] Memory required for data: 863429664
I0403 15:29:52.483767 15178 layer_factory.hpp:77] Creating layer inception_4a/relu_3x3_reduce
I0403 15:29:52.483790 15178 net.cpp:91] Creating Layer inception_4a/relu_3x3_reduce
I0403 15:29:52.483808 15178 net.cpp:425] inception_4a/relu_3x3_reduce <- inception_4a/3x3_reduce
I0403 15:29:52.483825 15178 net.cpp:386] inception_4a/relu_3x3_reduce -> inception_4a/3x3_reduce (in-place)
I0403 15:29:52.484011 15178 net.cpp:141] Setting up inception_4a/relu_3x3_reduce
I0403 15:29:52.484036 15178 net.cpp:148] Top shape: 24 96 14 14 (451584)
I0403 15:29:52.484050 15178 net.cpp:156] Memory required for data: 865236000
I0403 15:29:52.484064 15178 layer_factory.hpp:77] Creating layer inception_4a/3x3
I0403 15:29:52.484087 15178 net.cpp:91] Creating Layer inception_4a/3x3
I0403 15:29:52.484104 15178 net.cpp:425] inception_4a/3x3 <- inception_4a/3x3_reduce
I0403 15:29:52.484122 15178 net.cpp:399] inception_4a/3x3 -> inception_4a/3x3
I0403 15:29:52.486835 15178 net.cpp:141] Setting up inception_4a/3x3
I0403 15:29:52.486865 15178 net.cpp:148] Top shape: 24 208 14 14 (978432)
I0403 15:29:52.486881 15178 net.cpp:156] Memory required for data: 869149728
I0403 15:29:52.486899 15178 layer_factory.hpp:77] Creating layer inception_4a/relu_3x3
I0403 15:29:52.486917 15178 net.cpp:91] Creating Layer inception_4a/relu_3x3
I0403 15:29:52.486932 15178 net.cpp:425] inception_4a/relu_3x3 <- inception_4a/3x3
I0403 15:29:52.486948 15178 net.cpp:386] inception_4a/relu_3x3 -> inception_4a/3x3 (in-place)
I0403 15:29:52.487226 15178 net.cpp:141] Setting up inception_4a/relu_3x3
I0403 15:29:52.487253 15178 net.cpp:148] Top shape: 24 208 14 14 (978432)
I0403 15:29:52.487268 15178 net.cpp:156] Memory required for data: 873063456
I0403 15:29:52.487283 15178 layer_factory.hpp:77] Creating layer inception_4a/5x5_reduce
I0403 15:29:52.487304 15178 net.cpp:91] Creating Layer inception_4a/5x5_reduce
I0403 15:29:52.487321 15178 net.cpp:425] inception_4a/5x5_reduce <- pool3/3x3_s2_pool3/3x3_s2_0_split_2
I0403 15:29:52.487339 15178 net.cpp:399] inception_4a/5x5_reduce -> inception_4a/5x5_reduce
I0403 15:29:52.488376 15178 net.cpp:141] Setting up inception_4a/5x5_reduce
I0403 15:29:52.488405 15178 net.cpp:148] Top shape: 24 16 14 14 (75264)
I0403 15:29:52.488421 15178 net.cpp:156] Memory required for data: 873364512
I0403 15:29:52.488440 15178 layer_factory.hpp:77] Creating layer inception_4a/relu_5x5_reduce
I0403 15:29:52.488457 15178 net.cpp:91] Creating Layer inception_4a/relu_5x5_reduce
I0403 15:29:52.488473 15178 net.cpp:425] inception_4a/relu_5x5_reduce <- inception_4a/5x5_reduce
I0403 15:29:52.488492 15178 net.cpp:386] inception_4a/relu_5x5_reduce -> inception_4a/5x5_reduce (in-place)
I0403 15:29:52.488688 15178 net.cpp:141] Setting up inception_4a/relu_5x5_reduce
I0403 15:29:52.488714 15178 net.cpp:148] Top shape: 24 16 14 14 (75264)
I0403 15:29:52.488729 15178 net.cpp:156] Memory required for data: 873665568
I0403 15:29:52.488742 15178 layer_factory.hpp:77] Creating layer inception_4a/5x5
I0403 15:29:52.488764 15178 net.cpp:91] Creating Layer inception_4a/5x5
I0403 15:29:52.488780 15178 net.cpp:425] inception_4a/5x5 <- inception_4a/5x5_reduce
I0403 15:29:52.488801 15178 net.cpp:399] inception_4a/5x5 -> inception_4a/5x5
I0403 15:29:52.489882 15178 net.cpp:141] Setting up inception_4a/5x5
I0403 15:29:52.489909 15178 net.cpp:148] Top shape: 24 48 14 14 (225792)
I0403 15:29:52.489924 15178 net.cpp:156] Memory required for data: 874568736
I0403 15:29:52.489943 15178 layer_factory.hpp:77] Creating layer inception_4a/relu_5x5
I0403 15:29:52.489964 15178 net.cpp:91] Creating Layer inception_4a/relu_5x5
I0403 15:29:52.489981 15178 net.cpp:425] inception_4a/relu_5x5 <- inception_4a/5x5
I0403 15:29:52.489998 15178 net.cpp:386] inception_4a/relu_5x5 -> inception_4a/5x5 (in-place)
I0403 15:29:52.490175 15178 net.cpp:141] Setting up inception_4a/relu_5x5
I0403 15:29:52.490201 15178 net.cpp:148] Top shape: 24 48 14 14 (225792)
I0403 15:29:52.490217 15178 net.cpp:156] Memory required for data: 875471904
I0403 15:29:52.490231 15178 layer_factory.hpp:77] Creating layer inception_4a/pool
I0403 15:29:52.490247 15178 net.cpp:91] Creating Layer inception_4a/pool
I0403 15:29:52.490262 15178 net.cpp:425] inception_4a/pool <- pool3/3x3_s2_pool3/3x3_s2_0_split_3
I0403 15:29:52.490279 15178 net.cpp:399] inception_4a/pool -> inception_4a/pool
I0403 15:29:52.490340 15178 net.cpp:141] Setting up inception_4a/pool
I0403 15:29:52.490362 15178 net.cpp:148] Top shape: 24 480 14 14 (2257920)
I0403 15:29:52.490376 15178 net.cpp:156] Memory required for data: 884503584
I0403 15:29:52.490391 15178 layer_factory.hpp:77] Creating layer inception_4a/pool_proj
I0403 15:29:52.490411 15178 net.cpp:91] Creating Layer inception_4a/pool_proj
I0403 15:29:52.490428 15178 net.cpp:425] inception_4a/pool_proj <- inception_4a/pool
I0403 15:29:52.490448 15178 net.cpp:399] inception_4a/pool_proj -> inception_4a/pool_proj
I0403 15:29:52.491624 15178 net.cpp:141] Setting up inception_4a/pool_proj
I0403 15:29:52.491653 15178 net.cpp:148] Top shape: 24 64 14 14 (301056)
I0403 15:29:52.491683 15178 net.cpp:156] Memory required for data: 885707808
I0403 15:29:52.491703 15178 layer_factory.hpp:77] Creating layer inception_4a/relu_pool_proj
I0403 15:29:52.491724 15178 net.cpp:91] Creating Layer inception_4a/relu_pool_proj
I0403 15:29:52.491741 15178 net.cpp:425] inception_4a/relu_pool_proj <- inception_4a/pool_proj
I0403 15:29:52.491758 15178 net.cpp:386] inception_4a/relu_pool_proj -> inception_4a/pool_proj (in-place)
I0403 15:29:52.492038 15178 net.cpp:141] Setting up inception_4a/relu_pool_proj
I0403 15:29:52.492063 15178 net.cpp:148] Top shape: 24 64 14 14 (301056)
I0403 15:29:52.492079 15178 net.cpp:156] Memory required for data: 886912032
I0403 15:29:52.492092 15178 layer_factory.hpp:77] Creating layer inception_4a/output
I0403 15:29:52.492112 15178 net.cpp:91] Creating Layer inception_4a/output
I0403 15:29:52.492128 15178 net.cpp:425] inception_4a/output <- inception_4a/1x1
I0403 15:29:52.492144 15178 net.cpp:425] inception_4a/output <- inception_4a/3x3
I0403 15:29:52.492161 15178 net.cpp:425] inception_4a/output <- inception_4a/5x5
I0403 15:29:52.492175 15178 net.cpp:425] inception_4a/output <- inception_4a/pool_proj
I0403 15:29:52.492192 15178 net.cpp:399] inception_4a/output -> inception_4a/output
I0403 15:29:52.492238 15178 net.cpp:141] Setting up inception_4a/output
I0403 15:29:52.492261 15178 net.cpp:148] Top shape: 24 512 14 14 (2408448)
I0403 15:29:52.492275 15178 net.cpp:156] Memory required for data: 896545824
I0403 15:29:52.492290 15178 layer_factory.hpp:77] Creating layer inception_4a/output_inception_4a/output_0_split
I0403 15:29:52.492305 15178 net.cpp:91] Creating Layer inception_4a/output_inception_4a/output_0_split
I0403 15:29:52.492321 15178 net.cpp:425] inception_4a/output_inception_4a/output_0_split <- inception_4a/output
I0403 15:29:52.492339 15178 net.cpp:399] inception_4a/output_inception_4a/output_0_split -> inception_4a/output_inception_4a/output_0_split_0
I0403 15:29:52.492360 15178 net.cpp:399] inception_4a/output_inception_4a/output_0_split -> inception_4a/output_inception_4a/output_0_split_1
I0403 15:29:52.492380 15178 net.cpp:399] inception_4a/output_inception_4a/output_0_split -> inception_4a/output_inception_4a/output_0_split_2
I0403 15:29:52.492399 15178 net.cpp:399] inception_4a/output_inception_4a/output_0_split -> inception_4a/output_inception_4a/output_0_split_3
I0403 15:29:52.492419 15178 net.cpp:399] inception_4a/output_inception_4a/output_0_split -> inception_4a/output_inception_4a/output_0_split_4
I0403 15:29:52.492517 15178 net.cpp:141] Setting up inception_4a/output_inception_4a/output_0_split
I0403 15:29:52.492544 15178 net.cpp:148] Top shape: 24 512 14 14 (2408448)
I0403 15:29:52.492563 15178 net.cpp:148] Top shape: 24 512 14 14 (2408448)
I0403 15:29:52.492579 15178 net.cpp:148] Top shape: 24 512 14 14 (2408448)
I0403 15:29:52.492594 15178 net.cpp:148] Top shape: 24 512 14 14 (2408448)
I0403 15:29:52.492609 15178 net.cpp:148] Top shape: 24 512 14 14 (2408448)
I0403 15:29:52.492620 15178 net.cpp:156] Memory required for data: 944714784
I0403 15:29:52.492635 15178 layer_factory.hpp:77] Creating layer loss1/ave_pool
I0403 15:29:52.492651 15178 net.cpp:91] Creating Layer loss1/ave_pool
I0403 15:29:52.492667 15178 net.cpp:425] loss1/ave_pool <- inception_4a/output_inception_4a/output_0_split_0
I0403 15:29:52.492687 15178 net.cpp:399] loss1/ave_pool -> loss1/ave_pool
I0403 15:29:52.492892 15178 net.cpp:141] Setting up loss1/ave_pool
I0403 15:29:52.492918 15178 net.cpp:148] Top shape: 24 512 4 4 (196608)
I0403 15:29:52.492931 15178 net.cpp:156] Memory required for data: 945501216
I0403 15:29:52.492945 15178 layer_factory.hpp:77] Creating layer loss1/conv
I0403 15:29:52.492967 15178 net.cpp:91] Creating Layer loss1/conv
I0403 15:29:52.492985 15178 net.cpp:425] loss1/conv <- loss1/ave_pool
I0403 15:29:52.493005 15178 net.cpp:399] loss1/conv -> loss1/conv
I0403 15:29:52.494457 15178 net.cpp:141] Setting up loss1/conv
I0403 15:29:52.494488 15178 net.cpp:148] Top shape: 24 128 4 4 (49152)
I0403 15:29:52.494504 15178 net.cpp:156] Memory required for data: 945697824
I0403 15:29:52.494542 15178 layer_factory.hpp:77] Creating layer loss1/relu_conv
I0403 15:29:52.494563 15178 net.cpp:91] Creating Layer loss1/relu_conv
I0403 15:29:52.494580 15178 net.cpp:425] loss1/relu_conv <- loss1/conv
I0403 15:29:52.494601 15178 net.cpp:386] loss1/relu_conv -> loss1/conv (in-place)
I0403 15:29:52.494887 15178 net.cpp:141] Setting up loss1/relu_conv
I0403 15:29:52.494916 15178 net.cpp:148] Top shape: 24 128 4 4 (49152)
I0403 15:29:52.494933 15178 net.cpp:156] Memory required for data: 945894432
I0403 15:29:52.494947 15178 layer_factory.hpp:77] Creating layer loss1/fc
I0403 15:29:52.494971 15178 net.cpp:91] Creating Layer loss1/fc
I0403 15:29:52.494989 15178 net.cpp:425] loss1/fc <- loss1/conv
I0403 15:29:52.495010 15178 net.cpp:399] loss1/fc -> loss1/fc
I0403 15:29:52.513453 15178 net.cpp:141] Setting up loss1/fc
I0403 15:29:52.513489 15178 net.cpp:148] Top shape: 24 1024 (24576)
I0403 15:29:52.513505 15178 net.cpp:156] Memory required for data: 945992736
I0403 15:29:52.513525 15178 layer_factory.hpp:77] Creating layer loss1/relu_fc
I0403 15:29:52.513547 15178 net.cpp:91] Creating Layer loss1/relu_fc
I0403 15:29:52.513576 15178 net.cpp:425] loss1/relu_fc <- loss1/fc
I0403 15:29:52.513593 15178 net.cpp:386] loss1/relu_fc -> loss1/fc (in-place)
I0403 15:29:52.513789 15178 net.cpp:141] Setting up loss1/relu_fc
I0403 15:29:52.513815 15178 net.cpp:148] Top shape: 24 1024 (24576)
I0403 15:29:52.513831 15178 net.cpp:156] Memory required for data: 946091040
I0403 15:29:52.513845 15178 layer_factory.hpp:77] Creating layer loss1/drop_fc
I0403 15:29:52.513870 15178 net.cpp:91] Creating Layer loss1/drop_fc
I0403 15:29:52.513888 15178 net.cpp:425] loss1/drop_fc <- loss1/fc
I0403 15:29:52.513906 15178 net.cpp:386] loss1/drop_fc -> loss1/fc (in-place)
I0403 15:29:52.513958 15178 net.cpp:141] Setting up loss1/drop_fc
I0403 15:29:52.513981 15178 net.cpp:148] Top shape: 24 1024 (24576)
I0403 15:29:52.513995 15178 net.cpp:156] Memory required for data: 946189344
I0403 15:29:52.514010 15178 layer_factory.hpp:77] Creating layer loss1/classifier_plantvillage
I0403 15:29:52.514031 15178 net.cpp:91] Creating Layer loss1/classifier_plantvillage
I0403 15:29:52.514047 15178 net.cpp:425] loss1/classifier_plantvillage <- loss1/fc
I0403 15:29:52.514065 15178 net.cpp:399] loss1/classifier_plantvillage -> loss1/classifier_plantvillage
I0403 15:29:52.514976 15178 net.cpp:141] Setting up loss1/classifier_plantvillage
I0403 15:29:52.515005 15178 net.cpp:148] Top shape: 24 38 (912)
I0403 15:29:52.515022 15178 net.cpp:156] Memory required for data: 946192992
I0403 15:29:52.515039 15178 layer_factory.hpp:77] Creating layer loss1/classifier_plantvillage_loss1/classifier_plantvillage_0_split
I0403 15:29:52.515058 15178 net.cpp:91] Creating Layer loss1/classifier_plantvillage_loss1/classifier_plantvillage_0_split
I0403 15:29:52.515071 15178 net.cpp:425] loss1/classifier_plantvillage_loss1/classifier_plantvillage_0_split <- loss1/classifier_plantvillage
I0403 15:29:52.515089 15178 net.cpp:399] loss1/classifier_plantvillage_loss1/classifier_plantvillage_0_split -> loss1/classifier_plantvillage_loss1/classifier_plantvillage_0_split_0
I0403 15:29:52.515107 15178 net.cpp:399] loss1/classifier_plantvillage_loss1/classifier_plantvillage_0_split -> loss1/classifier_plantvillage_loss1/classifier_plantvillage_0_split_1
I0403 15:29:52.515130 15178 net.cpp:399] loss1/classifier_plantvillage_loss1/classifier_plantvillage_0_split -> loss1/classifier_plantvillage_loss1/classifier_plantvillage_0_split_2
I0403 15:29:52.515197 15178 net.cpp:141] Setting up loss1/classifier_plantvillage_loss1/classifier_plantvillage_0_split
I0403 15:29:52.515219 15178 net.cpp:148] Top shape: 24 38 (912)
I0403 15:29:52.515235 15178 net.cpp:148] Top shape: 24 38 (912)
I0403 15:29:52.515250 15178 net.cpp:148] Top shape: 24 38 (912)
I0403 15:29:52.515264 15178 net.cpp:156] Memory required for data: 946203936
I0403 15:29:52.515277 15178 layer_factory.hpp:77] Creating layer inception_4b/1x1
I0403 15:29:52.515296 15178 net.cpp:91] Creating Layer inception_4b/1x1
I0403 15:29:52.515331 15178 net.cpp:425] inception_4b/1x1 <- inception_4a/output_inception_4a/output_0_split_1
I0403 15:29:52.515352 15178 net.cpp:399] inception_4b/1x1 -> inception_4b/1x1
I0403 15:29:52.517004 15178 net.cpp:141] Setting up inception_4b/1x1
I0403 15:29:52.517035 15178 net.cpp:148] Top shape: 24 160 14 14 (752640)
I0403 15:29:52.517050 15178 net.cpp:156] Memory required for data: 949214496
I0403 15:29:52.517067 15178 layer_factory.hpp:77] Creating layer inception_4b/relu_1x1
I0403 15:29:52.517084 15178 net.cpp:91] Creating Layer inception_4b/relu_1x1
I0403 15:29:52.517101 15178 net.cpp:425] inception_4b/relu_1x1 <- inception_4b/1x1
I0403 15:29:52.517119 15178 net.cpp:386] inception_4b/relu_1x1 -> inception_4b/1x1 (in-place)
I0403 15:29:52.517303 15178 net.cpp:141] Setting up inception_4b/relu_1x1
I0403 15:29:52.517328 15178 net.cpp:148] Top shape: 24 160 14 14 (752640)
I0403 15:29:52.517343 15178 net.cpp:156] Memory required for data: 952225056
I0403 15:29:52.517356 15178 layer_factory.hpp:77] Creating layer inception_4b/3x3_reduce
I0403 15:29:52.517379 15178 net.cpp:91] Creating Layer inception_4b/3x3_reduce
I0403 15:29:52.517395 15178 net.cpp:425] inception_4b/3x3_reduce <- inception_4a/output_inception_4a/output_0_split_2
I0403 15:29:52.517416 15178 net.cpp:399] inception_4b/3x3_reduce -> inception_4b/3x3_reduce
I0403 15:29:52.518808 15178 net.cpp:141] Setting up inception_4b/3x3_reduce
I0403 15:29:52.518836 15178 net.cpp:148] Top shape: 24 112 14 14 (526848)
I0403 15:29:52.518852 15178 net.cpp:156] Memory required for data: 954332448
I0403 15:29:52.518869 15178 layer_factory.hpp:77] Creating layer inception_4b/relu_3x3_reduce
I0403 15:29:52.518889 15178 net.cpp:91] Creating Layer inception_4b/relu_3x3_reduce
I0403 15:29:52.518905 15178 net.cpp:425] inception_4b/relu_3x3_reduce <- inception_4b/3x3_reduce
I0403 15:29:52.518923 15178 net.cpp:386] inception_4b/relu_3x3_reduce -> inception_4b/3x3_reduce (in-place)
I0403 15:29:52.519207 15178 net.cpp:141] Setting up inception_4b/relu_3x3_reduce
I0403 15:29:52.519233 15178 net.cpp:148] Top shape: 24 112 14 14 (526848)
I0403 15:29:52.519248 15178 net.cpp:156] Memory required for data: 956439840
I0403 15:29:52.519261 15178 layer_factory.hpp:77] Creating layer inception_4b/3x3
I0403 15:29:52.519282 15178 net.cpp:91] Creating Layer inception_4b/3x3
I0403 15:29:52.519299 15178 net.cpp:425] inception_4b/3x3 <- inception_4b/3x3_reduce
I0403 15:29:52.519321 15178 net.cpp:399] inception_4b/3x3 -> inception_4b/3x3
I0403 15:29:52.522263 15178 net.cpp:141] Setting up inception_4b/3x3
I0403 15:29:52.522290 15178 net.cpp:148] Top shape: 24 224 14 14 (1053696)
I0403 15:29:52.522306 15178 net.cpp:156] Memory required for data: 960654624
I0403 15:29:52.522323 15178 layer_factory.hpp:77] Creating layer inception_4b/relu_3x3
I0403 15:29:52.522343 15178 net.cpp:91] Creating Layer inception_4b/relu_3x3
I0403 15:29:52.522359 15178 net.cpp:425] inception_4b/relu_3x3 <- inception_4b/3x3
I0403 15:29:52.522375 15178 net.cpp:386] inception_4b/relu_3x3 -> inception_4b/3x3 (in-place)
I0403 15:29:52.522555 15178 net.cpp:141] Setting up inception_4b/relu_3x3
I0403 15:29:52.522583 15178 net.cpp:148] Top shape: 24 224 14 14 (1053696)
I0403 15:29:52.522598 15178 net.cpp:156] Memory required for data: 964869408
I0403 15:29:52.522613 15178 layer_factory.hpp:77] Creating layer inception_4b/5x5_reduce
I0403 15:29:52.522634 15178 net.cpp:91] Creating Layer inception_4b/5x5_reduce
I0403 15:29:52.522650 15178 net.cpp:425] inception_4b/5x5_reduce <- inception_4a/output_inception_4a/output_0_split_3
I0403 15:29:52.522667 15178 net.cpp:399] inception_4b/5x5_reduce -> inception_4b/5x5_reduce
I0403 15:29:52.523758 15178 net.cpp:141] Setting up inception_4b/5x5_reduce
I0403 15:29:52.523785 15178 net.cpp:148] Top shape: 24 24 14 14 (112896)
I0403 15:29:52.523800 15178 net.cpp:156] Memory required for data: 965320992
I0403 15:29:52.523818 15178 layer_factory.hpp:77] Creating layer inception_4b/relu_5x5_reduce
I0403 15:29:52.523835 15178 net.cpp:91] Creating Layer inception_4b/relu_5x5_reduce
I0403 15:29:52.523865 15178 net.cpp:425] inception_4b/relu_5x5_reduce <- inception_4b/5x5_reduce
I0403 15:29:52.523885 15178 net.cpp:386] inception_4b/relu_5x5_reduce -> inception_4b/5x5_reduce (in-place)
I0403 15:29:52.524061 15178 net.cpp:141] Setting up inception_4b/relu_5x5_reduce
I0403 15:29:52.524085 15178 net.cpp:148] Top shape: 24 24 14 14 (112896)
I0403 15:29:52.524099 15178 net.cpp:156] Memory required for data: 965772576
I0403 15:29:52.524113 15178 layer_factory.hpp:77] Creating layer inception_4b/5x5
I0403 15:29:52.524133 15178 net.cpp:91] Creating Layer inception_4b/5x5
I0403 15:29:52.524150 15178 net.cpp:425] inception_4b/5x5 <- inception_4b/5x5_reduce
I0403 15:29:52.524170 15178 net.cpp:399] inception_4b/5x5 -> inception_4b/5x5
I0403 15:29:52.525372 15178 net.cpp:141] Setting up inception_4b/5x5
I0403 15:29:52.525399 15178 net.cpp:148] Top shape: 24 64 14 14 (301056)
I0403 15:29:52.525414 15178 net.cpp:156] Memory required for data: 966976800
I0403 15:29:52.525432 15178 layer_factory.hpp:77] Creating layer inception_4b/relu_5x5
I0403 15:29:52.525449 15178 net.cpp:91] Creating Layer inception_4b/relu_5x5
I0403 15:29:52.525463 15178 net.cpp:425] inception_4b/relu_5x5 <- inception_4b/5x5
I0403 15:29:52.525485 15178 net.cpp:386] inception_4b/relu_5x5 -> inception_4b/5x5 (in-place)
I0403 15:29:52.525777 15178 net.cpp:141] Setting up inception_4b/relu_5x5
I0403 15:29:52.525802 15178 net.cpp:148] Top shape: 24 64 14 14 (301056)
I0403 15:29:52.525816 15178 net.cpp:156] Memory required for data: 968181024
I0403 15:29:52.525830 15178 layer_factory.hpp:77] Creating layer inception_4b/pool
I0403 15:29:52.525847 15178 net.cpp:91] Creating Layer inception_4b/pool
I0403 15:29:52.525862 15178 net.cpp:425] inception_4b/pool <- inception_4a/output_inception_4a/output_0_split_4
I0403 15:29:52.525884 15178 net.cpp:399] inception_4b/pool -> inception_4b/pool
I0403 15:29:52.525948 15178 net.cpp:141] Setting up inception_4b/pool
I0403 15:29:52.525970 15178 net.cpp:148] Top shape: 24 512 14 14 (2408448)
I0403 15:29:52.525985 15178 net.cpp:156] Memory required for data: 977814816
I0403 15:29:52.525997 15178 layer_factory.hpp:77] Creating layer inception_4b/pool_proj
I0403 15:29:52.526020 15178 net.cpp:91] Creating Layer inception_4b/pool_proj
I0403 15:29:52.526036 15178 net.cpp:425] inception_4b/pool_proj <- inception_4b/pool
I0403 15:29:52.526053 15178 net.cpp:399] inception_4b/pool_proj -> inception_4b/pool_proj
I0403 15:29:52.527228 15178 net.cpp:141] Setting up inception_4b/pool_proj
I0403 15:29:52.527256 15178 net.cpp:148] Top shape: 24 64 14 14 (301056)
I0403 15:29:52.527281 15178 net.cpp:156] Memory required for data: 979019040
I0403 15:29:52.527302 15178 layer_factory.hpp:77] Creating layer inception_4b/relu_pool_proj
I0403 15:29:52.527319 15178 net.cpp:91] Creating Layer inception_4b/relu_pool_proj
I0403 15:29:52.527334 15178 net.cpp:425] inception_4b/relu_pool_proj <- inception_4b/pool_proj
I0403 15:29:52.527354 15178 net.cpp:386] inception_4b/relu_pool_proj -> inception_4b/pool_proj (in-place)
I0403 15:29:52.527534 15178 net.cpp:141] Setting up inception_4b/relu_pool_proj
I0403 15:29:52.527575 15178 net.cpp:148] Top shape: 24 64 14 14 (301056)
I0403 15:29:52.527588 15178 net.cpp:156] Memory required for data: 980223264
I0403 15:29:52.527601 15178 layer_factory.hpp:77] Creating layer inception_4b/output
I0403 15:29:52.527621 15178 net.cpp:91] Creating Layer inception_4b/output
I0403 15:29:52.527636 15178 net.cpp:425] inception_4b/output <- inception_4b/1x1
I0403 15:29:52.527652 15178 net.cpp:425] inception_4b/output <- inception_4b/3x3
I0403 15:29:52.527667 15178 net.cpp:425] inception_4b/output <- inception_4b/5x5
I0403 15:29:52.527681 15178 net.cpp:425] inception_4b/output <- inception_4b/pool_proj
I0403 15:29:52.527698 15178 net.cpp:399] inception_4b/output -> inception_4b/output
I0403 15:29:52.527742 15178 net.cpp:141] Setting up inception_4b/output
I0403 15:29:52.527765 15178 net.cpp:148] Top shape: 24 512 14 14 (2408448)
I0403 15:29:52.527779 15178 net.cpp:156] Memory required for data: 989857056
I0403 15:29:52.527807 15178 layer_factory.hpp:77] Creating layer inception_4b/output_inception_4b/output_0_split
I0403 15:29:52.527824 15178 net.cpp:91] Creating Layer inception_4b/output_inception_4b/output_0_split
I0403 15:29:52.527838 15178 net.cpp:425] inception_4b/output_inception_4b/output_0_split <- inception_4b/output
I0403 15:29:52.527858 15178 net.cpp:399] inception_4b/output_inception_4b/output_0_split -> inception_4b/output_inception_4b/output_0_split_0
I0403 15:29:52.527878 15178 net.cpp:399] inception_4b/output_inception_4b/output_0_split -> inception_4b/output_inception_4b/output_0_split_1
I0403 15:29:52.527896 15178 net.cpp:399] inception_4b/output_inception_4b/output_0_split -> inception_4b/output_inception_4b/output_0_split_2
I0403 15:29:52.527915 15178 net.cpp:399] inception_4b/output_inception_4b/output_0_split -> inception_4b/output_inception_4b/output_0_split_3
I0403 15:29:52.527994 15178 net.cpp:141] Setting up inception_4b/output_inception_4b/output_0_split
I0403 15:29:52.528019 15178 net.cpp:148] Top shape: 24 512 14 14 (2408448)
I0403 15:29:52.528035 15178 net.cpp:148] Top shape: 24 512 14 14 (2408448)
I0403 15:29:52.528049 15178 net.cpp:148] Top shape: 24 512 14 14 (2408448)
I0403 15:29:52.528064 15178 net.cpp:148] Top shape: 24 512 14 14 (2408448)
I0403 15:29:52.528076 15178 net.cpp:156] Memory required for data: 1028392224
I0403 15:29:52.528090 15178 layer_factory.hpp:77] Creating layer inception_4c/1x1
I0403 15:29:52.528113 15178 net.cpp:91] Creating Layer inception_4c/1x1
I0403 15:29:52.528131 15178 net.cpp:425] inception_4c/1x1 <- inception_4b/output_inception_4b/output_0_split_0
I0403 15:29:52.528147 15178 net.cpp:399] inception_4c/1x1 -> inception_4c/1x1
I0403 15:29:52.529542 15178 net.cpp:141] Setting up inception_4c/1x1
I0403 15:29:52.529569 15178 net.cpp:148] Top shape: 24 128 14 14 (602112)
I0403 15:29:52.529584 15178 net.cpp:156] Memory required for data: 1030800672
I0403 15:29:52.529602 15178 layer_factory.hpp:77] Creating layer inception_4c/relu_1x1
I0403 15:29:52.529623 15178 net.cpp:91] Creating Layer inception_4c/relu_1x1
I0403 15:29:52.529638 15178 net.cpp:425] inception_4c/relu_1x1 <- inception_4c/1x1
I0403 15:29:52.529654 15178 net.cpp:386] inception_4c/relu_1x1 -> inception_4c/1x1 (in-place)
I0403 15:29:52.529829 15178 net.cpp:141] Setting up inception_4c/relu_1x1
I0403 15:29:52.529856 15178 net.cpp:148] Top shape: 24 128 14 14 (602112)
I0403 15:29:52.529870 15178 net.cpp:156] Memory required for data: 1033209120
I0403 15:29:52.529884 15178 layer_factory.hpp:77] Creating layer inception_4c/3x3_reduce
I0403 15:29:52.529904 15178 net.cpp:91] Creating Layer inception_4c/3x3_reduce
I0403 15:29:52.529922 15178 net.cpp:425] inception_4c/3x3_reduce <- inception_4b/output_inception_4b/output_0_split_1
I0403 15:29:52.529939 15178 net.cpp:399] inception_4c/3x3_reduce -> inception_4c/3x3_reduce
I0403 15:29:52.531848 15178 net.cpp:141] Setting up inception_4c/3x3_reduce
I0403 15:29:52.531882 15178 net.cpp:148] Top shape: 24 128 14 14 (602112)
I0403 15:29:52.531898 15178 net.cpp:156] Memory required for data: 1035617568
I0403 15:29:52.531915 15178 layer_factory.hpp:77] Creating layer inception_4c/relu_3x3_reduce
I0403 15:29:52.531932 15178 net.cpp:91] Creating Layer inception_4c/relu_3x3_reduce
I0403 15:29:52.531947 15178 net.cpp:425] inception_4c/relu_3x3_reduce <- inception_4c/3x3_reduce
I0403 15:29:52.531966 15178 net.cpp:386] inception_4c/relu_3x3_reduce -> inception_4c/3x3_reduce (in-place)
I0403 15:29:52.532244 15178 net.cpp:141] Setting up inception_4c/relu_3x3_reduce
I0403 15:29:52.532284 15178 net.cpp:148] Top shape: 24 128 14 14 (602112)
I0403 15:29:52.532300 15178 net.cpp:156] Memory required for data: 1038026016
I0403 15:29:52.532315 15178 layer_factory.hpp:77] Creating layer inception_4c/3x3
I0403 15:29:52.532336 15178 net.cpp:91] Creating Layer inception_4c/3x3
I0403 15:29:52.532354 15178 net.cpp:425] inception_4c/3x3 <- inception_4c/3x3_reduce
I0403 15:29:52.532372 15178 net.cpp:399] inception_4c/3x3 -> inception_4c/3x3
I0403 15:29:52.535909 15178 net.cpp:141] Setting up inception_4c/3x3
I0403 15:29:52.535949 15178 net.cpp:148] Top shape: 24 256 14 14 (1204224)
I0403 15:29:52.535965 15178 net.cpp:156] Memory required for data: 1042842912
I0403 15:29:52.535997 15178 layer_factory.hpp:77] Creating layer inception_4c/relu_3x3
I0403 15:29:52.536017 15178 net.cpp:91] Creating Layer inception_4c/relu_3x3
I0403 15:29:52.536032 15178 net.cpp:425] inception_4c/relu_3x3 <- inception_4c/3x3
I0403 15:29:52.536051 15178 net.cpp:386] inception_4c/relu_3x3 -> inception_4c/3x3 (in-place)
I0403 15:29:52.536233 15178 net.cpp:141] Setting up inception_4c/relu_3x3
I0403 15:29:52.536257 15178 net.cpp:148] Top shape: 24 256 14 14 (1204224)
I0403 15:29:52.536272 15178 net.cpp:156] Memory required for data: 1047659808
I0403 15:29:52.536284 15178 layer_factory.hpp:77] Creating layer inception_4c/5x5_reduce
I0403 15:29:52.536306 15178 net.cpp:91] Creating Layer inception_4c/5x5_reduce
I0403 15:29:52.536322 15178 net.cpp:425] inception_4c/5x5_reduce <- inception_4b/output_inception_4b/output_0_split_2
I0403 15:29:52.536342 15178 net.cpp:399] inception_4c/5x5_reduce -> inception_4c/5x5_reduce
I0403 15:29:52.537427 15178 net.cpp:141] Setting up inception_4c/5x5_reduce
I0403 15:29:52.537456 15178 net.cpp:148] Top shape: 24 24 14 14 (112896)
I0403 15:29:52.537472 15178 net.cpp:156] Memory required for data: 1048111392
I0403 15:29:52.537490 15178 layer_factory.hpp:77] Creating layer inception_4c/relu_5x5_reduce
I0403 15:29:52.537508 15178 net.cpp:91] Creating Layer inception_4c/relu_5x5_reduce
I0403 15:29:52.537523 15178 net.cpp:425] inception_4c/relu_5x5_reduce <- inception_4c/5x5_reduce
I0403 15:29:52.537546 15178 net.cpp:386] inception_4c/relu_5x5_reduce -> inception_4c/5x5_reduce (in-place)
I0403 15:29:52.537739 15178 net.cpp:141] Setting up inception_4c/relu_5x5_reduce
I0403 15:29:52.537762 15178 net.cpp:148] Top shape: 24 24 14 14 (112896)
I0403 15:29:52.537776 15178 net.cpp:156] Memory required for data: 1048562976
I0403 15:29:52.537791 15178 layer_factory.hpp:77] Creating layer inception_4c/5x5
I0403 15:29:52.537811 15178 net.cpp:91] Creating Layer inception_4c/5x5
I0403 15:29:52.537827 15178 net.cpp:425] inception_4c/5x5 <- inception_4c/5x5_reduce
I0403 15:29:52.537847 15178 net.cpp:399] inception_4c/5x5 -> inception_4c/5x5
I0403 15:29:52.539052 15178 net.cpp:141] Setting up inception_4c/5x5
I0403 15:29:52.539079 15178 net.cpp:148] Top shape: 24 64 14 14 (301056)
I0403 15:29:52.539093 15178 net.cpp:156] Memory required for data: 1049767200
I0403 15:29:52.539110 15178 layer_factory.hpp:77] Creating layer inception_4c/relu_5x5
I0403 15:29:52.539129 15178 net.cpp:91] Creating Layer inception_4c/relu_5x5
I0403 15:29:52.539145 15178 net.cpp:425] inception_4c/relu_5x5 <- inception_4c/5x5
I0403 15:29:52.539162 15178 net.cpp:386] inception_4c/relu_5x5 -> inception_4c/5x5 (in-place)
I0403 15:29:52.539460 15178 net.cpp:141] Setting up inception_4c/relu_5x5
I0403 15:29:52.539487 15178 net.cpp:148] Top shape: 24 64 14 14 (301056)
I0403 15:29:52.539502 15178 net.cpp:156] Memory required for data: 1050971424
I0403 15:29:52.539516 15178 layer_factory.hpp:77] Creating layer inception_4c/pool
I0403 15:29:52.539541 15178 net.cpp:91] Creating Layer inception_4c/pool
I0403 15:29:52.539571 15178 net.cpp:425] inception_4c/pool <- inception_4b/output_inception_4b/output_0_split_3
I0403 15:29:52.539587 15178 net.cpp:399] inception_4c/pool -> inception_4c/pool
I0403 15:29:52.539651 15178 net.cpp:141] Setting up inception_4c/pool
I0403 15:29:52.539674 15178 net.cpp:148] Top shape: 24 512 14 14 (2408448)
I0403 15:29:52.539688 15178 net.cpp:156] Memory required for data: 1060605216
I0403 15:29:52.539702 15178 layer_factory.hpp:77] Creating layer inception_4c/pool_proj
I0403 15:29:52.539723 15178 net.cpp:91] Creating Layer inception_4c/pool_proj
I0403 15:29:52.539741 15178 net.cpp:425] inception_4c/pool_proj <- inception_4c/pool
I0403 15:29:52.539759 15178 net.cpp:399] inception_4c/pool_proj -> inception_4c/pool_proj
I0403 15:29:52.540964 15178 net.cpp:141] Setting up inception_4c/pool_proj
I0403 15:29:52.540992 15178 net.cpp:148] Top shape: 24 64 14 14 (301056)
I0403 15:29:52.541019 15178 net.cpp:156] Memory required for data: 1061809440
I0403 15:29:52.541038 15178 layer_factory.hpp:77] Creating layer inception_4c/relu_pool_proj
I0403 15:29:52.541054 15178 net.cpp:91] Creating Layer inception_4c/relu_pool_proj
I0403 15:29:52.541069 15178 net.cpp:425] inception_4c/relu_pool_proj <- inception_4c/pool_proj
I0403 15:29:52.541087 15178 net.cpp:386] inception_4c/relu_pool_proj -> inception_4c/pool_proj (in-place)
I0403 15:29:52.541266 15178 net.cpp:141] Setting up inception_4c/relu_pool_proj
I0403 15:29:52.541290 15178 net.cpp:148] Top shape: 24 64 14 14 (301056)
I0403 15:29:52.541304 15178 net.cpp:156] Memory required for data: 1063013664
I0403 15:29:52.541318 15178 layer_factory.hpp:77] Creating layer inception_4c/output
I0403 15:29:52.541337 15178 net.cpp:91] Creating Layer inception_4c/output
I0403 15:29:52.541352 15178 net.cpp:425] inception_4c/output <- inception_4c/1x1
I0403 15:29:52.541368 15178 net.cpp:425] inception_4c/output <- inception_4c/3x3
I0403 15:29:52.541384 15178 net.cpp:425] inception_4c/output <- inception_4c/5x5
I0403 15:29:52.541399 15178 net.cpp:425] inception_4c/output <- inception_4c/pool_proj
I0403 15:29:52.541414 15178 net.cpp:399] inception_4c/output -> inception_4c/output
I0403 15:29:52.541458 15178 net.cpp:141] Setting up inception_4c/output
I0403 15:29:52.541482 15178 net.cpp:148] Top shape: 24 512 14 14 (2408448)
I0403 15:29:52.541497 15178 net.cpp:156] Memory required for data: 1072647456
I0403 15:29:52.541510 15178 layer_factory.hpp:77] Creating layer inception_4c/output_inception_4c/output_0_split
I0403 15:29:52.541527 15178 net.cpp:91] Creating Layer inception_4c/output_inception_4c/output_0_split
I0403 15:29:52.541544 15178 net.cpp:425] inception_4c/output_inception_4c/output_0_split <- inception_4c/output
I0403 15:29:52.541564 15178 net.cpp:399] inception_4c/output_inception_4c/output_0_split -> inception_4c/output_inception_4c/output_0_split_0
I0403 15:29:52.541585 15178 net.cpp:399] inception_4c/output_inception_4c/output_0_split -> inception_4c/output_inception_4c/output_0_split_1
I0403 15:29:52.541605 15178 net.cpp:399] inception_4c/output_inception_4c/output_0_split -> inception_4c/output_inception_4c/output_0_split_2
I0403 15:29:52.541625 15178 net.cpp:399] inception_4c/output_inception_4c/output_0_split -> inception_4c/output_inception_4c/output_0_split_3
I0403 15:29:52.541707 15178 net.cpp:141] Setting up inception_4c/output_inception_4c/output_0_split
I0403 15:29:52.541733 15178 net.cpp:148] Top shape: 24 512 14 14 (2408448)
I0403 15:29:52.541749 15178 net.cpp:148] Top shape: 24 512 14 14 (2408448)
I0403 15:29:52.541764 15178 net.cpp:148] Top shape: 24 512 14 14 (2408448)
I0403 15:29:52.541777 15178 net.cpp:148] Top shape: 24 512 14 14 (2408448)
I0403 15:29:52.541790 15178 net.cpp:156] Memory required for data: 1111182624
I0403 15:29:52.541803 15178 layer_factory.hpp:77] Creating layer inception_4d/1x1
I0403 15:29:52.541824 15178 net.cpp:91] Creating Layer inception_4d/1x1
I0403 15:29:52.541841 15178 net.cpp:425] inception_4d/1x1 <- inception_4c/output_inception_4c/output_0_split_0
I0403 15:29:52.541858 15178 net.cpp:399] inception_4d/1x1 -> inception_4d/1x1
I0403 15:29:52.543229 15178 net.cpp:141] Setting up inception_4d/1x1
I0403 15:29:52.543259 15178 net.cpp:148] Top shape: 24 112 14 14 (526848)
I0403 15:29:52.543274 15178 net.cpp:156] Memory required for data: 1113290016
I0403 15:29:52.543292 15178 layer_factory.hpp:77] Creating layer inception_4d/relu_1x1
I0403 15:29:52.543309 15178 net.cpp:91] Creating Layer inception_4d/relu_1x1
I0403 15:29:52.543324 15178 net.cpp:425] inception_4d/relu_1x1 <- inception_4d/1x1
I0403 15:29:52.543340 15178 net.cpp:386] inception_4d/relu_1x1 -> inception_4d/1x1 (in-place)
I0403 15:29:52.543524 15178 net.cpp:141] Setting up inception_4d/relu_1x1
I0403 15:29:52.543555 15178 net.cpp:148] Top shape: 24 112 14 14 (526848)
I0403 15:29:52.543570 15178 net.cpp:156] Memory required for data: 1115397408
I0403 15:29:52.543586 15178 layer_factory.hpp:77] Creating layer inception_4d/3x3_reduce
I0403 15:29:52.543619 15178 net.cpp:91] Creating Layer inception_4d/3x3_reduce
I0403 15:29:52.543637 15178 net.cpp:425] inception_4d/3x3_reduce <- inception_4c/output_inception_4c/output_0_split_1
I0403 15:29:52.543659 15178 net.cpp:399] inception_4d/3x3_reduce -> inception_4d/3x3_reduce
I0403 15:29:52.545125 15178 net.cpp:141] Setting up inception_4d/3x3_reduce
I0403 15:29:52.545150 15178 net.cpp:148] Top shape: 24 144 14 14 (677376)
I0403 15:29:52.545166 15178 net.cpp:156] Memory required for data: 1118106912
I0403 15:29:52.545182 15178 layer_factory.hpp:77] Creating layer inception_4d/relu_3x3_reduce
I0403 15:29:52.545202 15178 net.cpp:91] Creating Layer inception_4d/relu_3x3_reduce
I0403 15:29:52.545217 15178 net.cpp:425] inception_4d/relu_3x3_reduce <- inception_4d/3x3_reduce
I0403 15:29:52.545233 15178 net.cpp:386] inception_4d/relu_3x3_reduce -> inception_4d/3x3_reduce (in-place)
I0403 15:29:52.545512 15178 net.cpp:141] Setting up inception_4d/relu_3x3_reduce
I0403 15:29:52.545562 15178 net.cpp:148] Top shape: 24 144 14 14 (677376)
I0403 15:29:52.545580 15178 net.cpp:156] Memory required for data: 1120816416
I0403 15:29:52.545604 15178 layer_factory.hpp:77] Creating layer inception_4d/3x3
I0403 15:29:52.545626 15178 net.cpp:91] Creating Layer inception_4d/3x3
I0403 15:29:52.545644 15178 net.cpp:425] inception_4d/3x3 <- inception_4d/3x3_reduce
I0403 15:29:52.545666 15178 net.cpp:399] inception_4d/3x3 -> inception_4d/3x3
I0403 15:29:52.549975 15178 net.cpp:141] Setting up inception_4d/3x3
I0403 15:29:52.550007 15178 net.cpp:148] Top shape: 24 288 14 14 (1354752)
I0403 15:29:52.550024 15178 net.cpp:156] Memory required for data: 1126235424
I0403 15:29:52.550041 15178 layer_factory.hpp:77] Creating layer inception_4d/relu_3x3
I0403 15:29:52.550060 15178 net.cpp:91] Creating Layer inception_4d/relu_3x3
I0403 15:29:52.550076 15178 net.cpp:425] inception_4d/relu_3x3 <- inception_4d/3x3
I0403 15:29:52.550094 15178 net.cpp:386] inception_4d/relu_3x3 -> inception_4d/3x3 (in-place)
I0403 15:29:52.550289 15178 net.cpp:141] Setting up inception_4d/relu_3x3
I0403 15:29:52.550315 15178 net.cpp:148] Top shape: 24 288 14 14 (1354752)
I0403 15:29:52.550331 15178 net.cpp:156] Memory required for data: 1131654432
I0403 15:29:52.550345 15178 layer_factory.hpp:77] Creating layer inception_4d/5x5_reduce
I0403 15:29:52.550367 15178 net.cpp:91] Creating Layer inception_4d/5x5_reduce
I0403 15:29:52.550385 15178 net.cpp:425] inception_4d/5x5_reduce <- inception_4c/output_inception_4c/output_0_split_2
I0403 15:29:52.550407 15178 net.cpp:399] inception_4d/5x5_reduce -> inception_4d/5x5_reduce
I0403 15:29:52.551614 15178 net.cpp:141] Setting up inception_4d/5x5_reduce
I0403 15:29:52.551643 15178 net.cpp:148] Top shape: 24 32 14 14 (150528)
I0403 15:29:52.551661 15178 net.cpp:156] Memory required for data: 1132256544
I0403 15:29:52.551678 15178 layer_factory.hpp:77] Creating layer inception_4d/relu_5x5_reduce
I0403 15:29:52.551697 15178 net.cpp:91] Creating Layer inception_4d/relu_5x5_reduce
I0403 15:29:52.551712 15178 net.cpp:425] inception_4d/relu_5x5_reduce <- inception_4d/5x5_reduce
I0403 15:29:52.551729 15178 net.cpp:386] inception_4d/relu_5x5_reduce -> inception_4d/5x5_reduce (in-place)
I0403 15:29:52.551918 15178 net.cpp:141] Setting up inception_4d/relu_5x5_reduce
I0403 15:29:52.551942 15178 net.cpp:148] Top shape: 24 32 14 14 (150528)
I0403 15:29:52.551957 15178 net.cpp:156] Memory required for data: 1132858656
I0403 15:29:52.551971 15178 layer_factory.hpp:77] Creating layer inception_4d/5x5
I0403 15:29:52.551993 15178 net.cpp:91] Creating Layer inception_4d/5x5
I0403 15:29:52.552011 15178 net.cpp:425] inception_4d/5x5 <- inception_4d/5x5_reduce
I0403 15:29:52.552031 15178 net.cpp:399] inception_4d/5x5 -> inception_4d/5x5
I0403 15:29:52.553541 15178 net.cpp:141] Setting up inception_4d/5x5
I0403 15:29:52.553568 15178 net.cpp:148] Top shape: 24 64 14 14 (301056)
I0403 15:29:52.553585 15178 net.cpp:156] Memory required for data: 1134062880
I0403 15:29:52.553602 15178 layer_factory.hpp:77] Creating layer inception_4d/relu_5x5
I0403 15:29:52.553637 15178 net.cpp:91] Creating Layer inception_4d/relu_5x5
I0403 15:29:52.553654 15178 net.cpp:425] inception_4d/relu_5x5 <- inception_4d/5x5
I0403 15:29:52.553671 15178 net.cpp:386] inception_4d/relu_5x5 -> inception_4d/5x5 (in-place)
I0403 15:29:52.553972 15178 net.cpp:141] Setting up inception_4d/relu_5x5
I0403 15:29:52.553997 15178 net.cpp:148] Top shape: 24 64 14 14 (301056)
I0403 15:29:52.554013 15178 net.cpp:156] Memory required for data: 1135267104
I0403 15:29:52.554026 15178 layer_factory.hpp:77] Creating layer inception_4d/pool
I0403 15:29:52.554044 15178 net.cpp:91] Creating Layer inception_4d/pool
I0403 15:29:52.554060 15178 net.cpp:425] inception_4d/pool <- inception_4c/output_inception_4c/output_0_split_3
I0403 15:29:52.554081 15178 net.cpp:399] inception_4d/pool -> inception_4d/pool
I0403 15:29:52.554148 15178 net.cpp:141] Setting up inception_4d/pool
I0403 15:29:52.554172 15178 net.cpp:148] Top shape: 24 512 14 14 (2408448)
I0403 15:29:52.554188 15178 net.cpp:156] Memory required for data: 1144900896
I0403 15:29:52.554200 15178 layer_factory.hpp:77] Creating layer inception_4d/pool_proj
I0403 15:29:52.554221 15178 net.cpp:91] Creating Layer inception_4d/pool_proj
I0403 15:29:52.554239 15178 net.cpp:425] inception_4d/pool_proj <- inception_4d/pool
I0403 15:29:52.554258 15178 net.cpp:399] inception_4d/pool_proj -> inception_4d/pool_proj
I0403 15:29:52.556058 15178 net.cpp:141] Setting up inception_4d/pool_proj
I0403 15:29:52.556090 15178 net.cpp:148] Top shape: 24 64 14 14 (301056)
I0403 15:29:52.556107 15178 net.cpp:156] Memory required for data: 1146105120
I0403 15:29:52.556125 15178 layer_factory.hpp:77] Creating layer inception_4d/relu_pool_proj
I0403 15:29:52.556143 15178 net.cpp:91] Creating Layer inception_4d/relu_pool_proj
I0403 15:29:52.556159 15178 net.cpp:425] inception_4d/relu_pool_proj <- inception_4d/pool_proj
I0403 15:29:52.556179 15178 net.cpp:386] inception_4d/relu_pool_proj -> inception_4d/pool_proj (in-place)
I0403 15:29:52.556381 15178 net.cpp:141] Setting up inception_4d/relu_pool_proj
I0403 15:29:52.556407 15178 net.cpp:148] Top shape: 24 64 14 14 (301056)
I0403 15:29:52.556422 15178 net.cpp:156] Memory required for data: 1147309344
I0403 15:29:52.556437 15178 layer_factory.hpp:77] Creating layer inception_4d/output
I0403 15:29:52.556453 15178 net.cpp:91] Creating Layer inception_4d/output
I0403 15:29:52.556468 15178 net.cpp:425] inception_4d/output <- inception_4d/1x1
I0403 15:29:52.556484 15178 net.cpp:425] inception_4d/output <- inception_4d/3x3
I0403 15:29:52.556500 15178 net.cpp:425] inception_4d/output <- inception_4d/5x5
I0403 15:29:52.556516 15178 net.cpp:425] inception_4d/output <- inception_4d/pool_proj
I0403 15:29:52.556540 15178 net.cpp:399] inception_4d/output -> inception_4d/output
I0403 15:29:52.556601 15178 net.cpp:141] Setting up inception_4d/output
I0403 15:29:52.556627 15178 net.cpp:148] Top shape: 24 528 14 14 (2483712)
I0403 15:29:52.556641 15178 net.cpp:156] Memory required for data: 1157244192
I0403 15:29:52.556655 15178 layer_factory.hpp:77] Creating layer inception_4d/output_inception_4d/output_0_split
I0403 15:29:52.556673 15178 net.cpp:91] Creating Layer inception_4d/output_inception_4d/output_0_split
I0403 15:29:52.556687 15178 net.cpp:425] inception_4d/output_inception_4d/output_0_split <- inception_4d/output
I0403 15:29:52.556704 15178 net.cpp:399] inception_4d/output_inception_4d/output_0_split -> inception_4d/output_inception_4d/output_0_split_0
I0403 15:29:52.556726 15178 net.cpp:399] inception_4d/output_inception_4d/output_0_split -> inception_4d/output_inception_4d/output_0_split_1
I0403 15:29:52.556747 15178 net.cpp:399] inception_4d/output_inception_4d/output_0_split -> inception_4d/output_inception_4d/output_0_split_2
I0403 15:29:52.556767 15178 net.cpp:399] inception_4d/output_inception_4d/output_0_split -> inception_4d/output_inception_4d/output_0_split_3
I0403 15:29:52.556787 15178 net.cpp:399] inception_4d/output_inception_4d/output_0_split -> inception_4d/output_inception_4d/output_0_split_4
I0403 15:29:52.556890 15178 net.cpp:141] Setting up inception_4d/output_inception_4d/output_0_split
I0403 15:29:52.556926 15178 net.cpp:148] Top shape: 24 528 14 14 (2483712)
I0403 15:29:52.556944 15178 net.cpp:148] Top shape: 24 528 14 14 (2483712)
I0403 15:29:52.556960 15178 net.cpp:148] Top shape: 24 528 14 14 (2483712)
I0403 15:29:52.556974 15178 net.cpp:148] Top shape: 24 528 14 14 (2483712)
I0403 15:29:52.556989 15178 net.cpp:148] Top shape: 24 528 14 14 (2483712)
I0403 15:29:52.557003 15178 net.cpp:156] Memory required for data: 1206918432
I0403 15:29:52.557016 15178 layer_factory.hpp:77] Creating layer loss2/ave_pool
I0403 15:29:52.557034 15178 net.cpp:91] Creating Layer loss2/ave_pool
I0403 15:29:52.557049 15178 net.cpp:425] loss2/ave_pool <- inception_4d/output_inception_4d/output_0_split_0
I0403 15:29:52.557065 15178 net.cpp:399] loss2/ave_pool -> loss2/ave_pool
I0403 15:29:52.557387 15178 net.cpp:141] Setting up loss2/ave_pool
I0403 15:29:52.557416 15178 net.cpp:148] Top shape: 24 528 4 4 (202752)
I0403 15:29:52.557432 15178 net.cpp:156] Memory required for data: 1207729440
I0403 15:29:52.557446 15178 layer_factory.hpp:77] Creating layer loss2/conv
I0403 15:29:52.557468 15178 net.cpp:91] Creating Layer loss2/conv
I0403 15:29:52.557487 15178 net.cpp:425] loss2/conv <- loss2/ave_pool
I0403 15:29:52.557504 15178 net.cpp:399] loss2/conv -> loss2/conv
I0403 15:29:52.559403 15178 net.cpp:141] Setting up loss2/conv
I0403 15:29:52.559432 15178 net.cpp:148] Top shape: 24 128 4 4 (49152)
I0403 15:29:52.559448 15178 net.cpp:156] Memory required for data: 1207926048
I0403 15:29:52.559464 15178 layer_factory.hpp:77] Creating layer loss2/relu_conv
I0403 15:29:52.559483 15178 net.cpp:91] Creating Layer loss2/relu_conv
I0403 15:29:52.559497 15178 net.cpp:425] loss2/relu_conv <- loss2/conv
I0403 15:29:52.559516 15178 net.cpp:386] loss2/relu_conv -> loss2/conv (in-place)
I0403 15:29:52.559806 15178 net.cpp:141] Setting up loss2/relu_conv
I0403 15:29:52.559833 15178 net.cpp:148] Top shape: 24 128 4 4 (49152)
I0403 15:29:52.559847 15178 net.cpp:156] Memory required for data: 1208122656
I0403 15:29:52.559861 15178 layer_factory.hpp:77] Creating layer loss2/fc
I0403 15:29:52.559880 15178 net.cpp:91] Creating Layer loss2/fc
I0403 15:29:52.559895 15178 net.cpp:425] loss2/fc <- loss2/conv
I0403 15:29:52.559916 15178 net.cpp:399] loss2/fc -> loss2/fc
I0403 15:29:52.577268 15178 net.cpp:141] Setting up loss2/fc
I0403 15:29:52.577301 15178 net.cpp:148] Top shape: 24 1024 (24576)
I0403 15:29:52.577316 15178 net.cpp:156] Memory required for data: 1208220960
I0403 15:29:52.577333 15178 layer_factory.hpp:77] Creating layer loss2/relu_fc
I0403 15:29:52.577350 15178 net.cpp:91] Creating Layer loss2/relu_fc
I0403 15:29:52.577365 15178 net.cpp:425] loss2/relu_fc <- loss2/fc
I0403 15:29:52.577381 15178 net.cpp:386] loss2/relu_fc -> loss2/fc (in-place)
I0403 15:29:52.577679 15178 net.cpp:141] Setting up loss2/relu_fc
I0403 15:29:52.577705 15178 net.cpp:148] Top shape: 24 1024 (24576)
I0403 15:29:52.577720 15178 net.cpp:156] Memory required for data: 1208319264
I0403 15:29:52.577733 15178 layer_factory.hpp:77] Creating layer loss2/drop_fc
I0403 15:29:52.577750 15178 net.cpp:91] Creating Layer loss2/drop_fc
I0403 15:29:52.577765 15178 net.cpp:425] loss2/drop_fc <- loss2/fc
I0403 15:29:52.577783 15178 net.cpp:386] loss2/drop_fc -> loss2/fc (in-place)
I0403 15:29:52.577832 15178 net.cpp:141] Setting up loss2/drop_fc
I0403 15:29:52.577854 15178 net.cpp:148] Top shape: 24 1024 (24576)
I0403 15:29:52.577868 15178 net.cpp:156] Memory required for data: 1208417568
I0403 15:29:52.577882 15178 layer_factory.hpp:77] Creating layer loss2/classifier_plantvillage
I0403 15:29:52.577903 15178 net.cpp:91] Creating Layer loss2/classifier_plantvillage
I0403 15:29:52.577919 15178 net.cpp:425] loss2/classifier_plantvillage <- loss2/fc
I0403 15:29:52.577939 15178 net.cpp:399] loss2/classifier_plantvillage -> loss2/classifier_plantvillage
I0403 15:29:52.578330 15178 net.cpp:141] Setting up loss2/classifier_plantvillage
I0403 15:29:52.578354 15178 net.cpp:148] Top shape: 24 38 (912)
I0403 15:29:52.578368 15178 net.cpp:156] Memory required for data: 1208421216
I0403 15:29:52.578403 15178 layer_factory.hpp:77] Creating layer loss2/classifier_plantvillage_loss2/classifier_plantvillage_0_split
I0403 15:29:52.578421 15178 net.cpp:91] Creating Layer loss2/classifier_plantvillage_loss2/classifier_plantvillage_0_split
I0403 15:29:52.578436 15178 net.cpp:425] loss2/classifier_plantvillage_loss2/classifier_plantvillage_0_split <- loss2/classifier_plantvillage
I0403 15:29:52.578455 15178 net.cpp:399] loss2/classifier_plantvillage_loss2/classifier_plantvillage_0_split -> loss2/classifier_plantvillage_loss2/classifier_plantvillage_0_split_0
I0403 15:29:52.578475 15178 net.cpp:399] loss2/classifier_plantvillage_loss2/classifier_plantvillage_0_split -> loss2/classifier_plantvillage_loss2/classifier_plantvillage_0_split_1
I0403 15:29:52.578496 15178 net.cpp:399] loss2/classifier_plantvillage_loss2/classifier_plantvillage_0_split -> loss2/classifier_plantvillage_loss2/classifier_plantvillage_0_split_2
I0403 15:29:52.578578 15178 net.cpp:141] Setting up loss2/classifier_plantvillage_loss2/classifier_plantvillage_0_split
I0403 15:29:52.578600 15178 net.cpp:148] Top shape: 24 38 (912)
I0403 15:29:52.578616 15178 net.cpp:148] Top shape: 24 38 (912)
I0403 15:29:52.578630 15178 net.cpp:148] Top shape: 24 38 (912)
I0403 15:29:52.578642 15178 net.cpp:156] Memory required for data: 1208432160
I0403 15:29:52.578656 15178 layer_factory.hpp:77] Creating layer inception_4e/1x1
I0403 15:29:52.578677 15178 net.cpp:91] Creating Layer inception_4e/1x1
I0403 15:29:52.578693 15178 net.cpp:425] inception_4e/1x1 <- inception_4d/output_inception_4d/output_0_split_1
I0403 15:29:52.578711 15178 net.cpp:399] inception_4e/1x1 -> inception_4e/1x1
I0403 15:29:52.580482 15178 net.cpp:141] Setting up inception_4e/1x1
I0403 15:29:52.580510 15178 net.cpp:148] Top shape: 24 256 14 14 (1204224)
I0403 15:29:52.580525 15178 net.cpp:156] Memory required for data: 1213249056
I0403 15:29:52.580548 15178 layer_factory.hpp:77] Creating layer inception_4e/relu_1x1
I0403 15:29:52.580569 15178 net.cpp:91] Creating Layer inception_4e/relu_1x1
I0403 15:29:52.580585 15178 net.cpp:425] inception_4e/relu_1x1 <- inception_4e/1x1
I0403 15:29:52.580601 15178 net.cpp:386] inception_4e/relu_1x1 -> inception_4e/1x1 (in-place)
I0403 15:29:52.580890 15178 net.cpp:141] Setting up inception_4e/relu_1x1
I0403 15:29:52.580915 15178 net.cpp:148] Top shape: 24 256 14 14 (1204224)
I0403 15:29:52.580930 15178 net.cpp:156] Memory required for data: 1218065952
I0403 15:29:52.580945 15178 layer_factory.hpp:77] Creating layer inception_4e/3x3_reduce
I0403 15:29:52.580965 15178 net.cpp:91] Creating Layer inception_4e/3x3_reduce
I0403 15:29:52.580981 15178 net.cpp:425] inception_4e/3x3_reduce <- inception_4d/output_inception_4d/output_0_split_2
I0403 15:29:52.581002 15178 net.cpp:399] inception_4e/3x3_reduce -> inception_4e/3x3_reduce
I0403 15:29:52.583135 15178 net.cpp:141] Setting up inception_4e/3x3_reduce
I0403 15:29:52.583163 15178 net.cpp:148] Top shape: 24 160 14 14 (752640)
I0403 15:29:52.583179 15178 net.cpp:156] Memory required for data: 1221076512
I0403 15:29:52.583196 15178 layer_factory.hpp:77] Creating layer inception_4e/relu_3x3_reduce
I0403 15:29:52.583214 15178 net.cpp:91] Creating Layer inception_4e/relu_3x3_reduce
I0403 15:29:52.583230 15178 net.cpp:425] inception_4e/relu_3x3_reduce <- inception_4e/3x3_reduce
I0403 15:29:52.583248 15178 net.cpp:386] inception_4e/relu_3x3_reduce -> inception_4e/3x3_reduce (in-place)
I0403 15:29:52.583430 15178 net.cpp:141] Setting up inception_4e/relu_3x3_reduce
I0403 15:29:52.583453 15178 net.cpp:148] Top shape: 24 160 14 14 (752640)
I0403 15:29:52.583467 15178 net.cpp:156] Memory required for data: 1224087072
I0403 15:29:52.583482 15178 layer_factory.hpp:77] Creating layer inception_4e/3x3
I0403 15:29:52.583503 15178 net.cpp:91] Creating Layer inception_4e/3x3
I0403 15:29:52.583518 15178 net.cpp:425] inception_4e/3x3 <- inception_4e/3x3_reduce
I0403 15:29:52.583541 15178 net.cpp:399] inception_4e/3x3 -> inception_4e/3x3
I0403 15:29:52.588450 15178 net.cpp:141] Setting up inception_4e/3x3
I0403 15:29:52.588490 15178 net.cpp:148] Top shape: 24 320 14 14 (1505280)
I0403 15:29:52.588505 15178 net.cpp:156] Memory required for data: 1230108192
I0403 15:29:52.588523 15178 layer_factory.hpp:77] Creating layer inception_4e/relu_3x3
I0403 15:29:52.588546 15178 net.cpp:91] Creating Layer inception_4e/relu_3x3
I0403 15:29:52.588563 15178 net.cpp:425] inception_4e/relu_3x3 <- inception_4e/3x3
I0403 15:29:52.588582 15178 net.cpp:386] inception_4e/relu_3x3 -> inception_4e/3x3 (in-place)
I0403 15:29:52.588879 15178 net.cpp:141] Setting up inception_4e/relu_3x3
I0403 15:29:52.588907 15178 net.cpp:148] Top shape: 24 320 14 14 (1505280)
I0403 15:29:52.588922 15178 net.cpp:156] Memory required for data: 1236129312
I0403 15:29:52.588937 15178 layer_factory.hpp:77] Creating layer inception_4e/5x5_reduce
I0403 15:29:52.588959 15178 net.cpp:91] Creating Layer inception_4e/5x5_reduce
I0403 15:29:52.588976 15178 net.cpp:425] inception_4e/5x5_reduce <- inception_4d/output_inception_4d/output_0_split_3
I0403 15:29:52.588994 15178 net.cpp:399] inception_4e/5x5_reduce -> inception_4e/5x5_reduce
I0403 15:29:52.590044 15178 net.cpp:141] Setting up inception_4e/5x5_reduce
I0403 15:29:52.590071 15178 net.cpp:148] Top shape: 24 32 14 14 (150528)
I0403 15:29:52.590085 15178 net.cpp:156] Memory required for data: 1236731424
I0403 15:29:52.590103 15178 layer_factory.hpp:77] Creating layer inception_4e/relu_5x5_reduce
I0403 15:29:52.590122 15178 net.cpp:91] Creating Layer inception_4e/relu_5x5_reduce
I0403 15:29:52.590138 15178 net.cpp:425] inception_4e/relu_5x5_reduce <- inception_4e/5x5_reduce
I0403 15:29:52.590154 15178 net.cpp:386] inception_4e/relu_5x5_reduce -> inception_4e/5x5_reduce (in-place)
I0403 15:29:52.590446 15178 net.cpp:141] Setting up inception_4e/relu_5x5_reduce
I0403 15:29:52.590471 15178 net.cpp:148] Top shape: 24 32 14 14 (150528)
I0403 15:29:52.590487 15178 net.cpp:156] Memory required for data: 1237333536
I0403 15:29:52.590499 15178 layer_factory.hpp:77] Creating layer inception_4e/5x5
I0403 15:29:52.590539 15178 net.cpp:91] Creating Layer inception_4e/5x5
I0403 15:29:52.590559 15178 net.cpp:425] inception_4e/5x5 <- inception_4e/5x5_reduce
I0403 15:29:52.590579 15178 net.cpp:399] inception_4e/5x5 -> inception_4e/5x5
I0403 15:29:52.592403 15178 net.cpp:141] Setting up inception_4e/5x5
I0403 15:29:52.592432 15178 net.cpp:148] Top shape: 24 128 14 14 (602112)
I0403 15:29:52.592449 15178 net.cpp:156] Memory required for data: 1239741984
I0403 15:29:52.592468 15178 layer_factory.hpp:77] Creating layer inception_4e/relu_5x5
I0403 15:29:52.592484 15178 net.cpp:91] Creating Layer inception_4e/relu_5x5
I0403 15:29:52.592499 15178 net.cpp:425] inception_4e/relu_5x5 <- inception_4e/5x5
I0403 15:29:52.592517 15178 net.cpp:386] inception_4e/relu_5x5 -> inception_4e/5x5 (in-place)
I0403 15:29:52.592715 15178 net.cpp:141] Setting up inception_4e/relu_5x5
I0403 15:29:52.592738 15178 net.cpp:148] Top shape: 24 128 14 14 (602112)
I0403 15:29:52.592752 15178 net.cpp:156] Memory required for data: 1242150432
I0403 15:29:52.592766 15178 layer_factory.hpp:77] Creating layer inception_4e/pool
I0403 15:29:52.592782 15178 net.cpp:91] Creating Layer inception_4e/pool
I0403 15:29:52.592797 15178 net.cpp:425] inception_4e/pool <- inception_4d/output_inception_4d/output_0_split_4
I0403 15:29:52.592816 15178 net.cpp:399] inception_4e/pool -> inception_4e/pool
I0403 15:29:52.592885 15178 net.cpp:141] Setting up inception_4e/pool
I0403 15:29:52.592908 15178 net.cpp:148] Top shape: 24 528 14 14 (2483712)
I0403 15:29:52.592922 15178 net.cpp:156] Memory required for data: 1252085280
I0403 15:29:52.592936 15178 layer_factory.hpp:77] Creating layer inception_4e/pool_proj
I0403 15:29:52.592957 15178 net.cpp:91] Creating Layer inception_4e/pool_proj
I0403 15:29:52.592974 15178 net.cpp:425] inception_4e/pool_proj <- inception_4e/pool
I0403 15:29:52.592993 15178 net.cpp:399] inception_4e/pool_proj -> inception_4e/pool_proj
I0403 15:29:52.594458 15178 net.cpp:141] Setting up inception_4e/pool_proj
I0403 15:29:52.594487 15178 net.cpp:148] Top shape: 24 128 14 14 (602112)
I0403 15:29:52.594517 15178 net.cpp:156] Memory required for data: 1254493728
I0403 15:29:52.594539 15178 layer_factory.hpp:77] Creating layer inception_4e/relu_pool_proj
I0403 15:29:52.594558 15178 net.cpp:91] Creating Layer inception_4e/relu_pool_proj
I0403 15:29:52.594574 15178 net.cpp:425] inception_4e/relu_pool_proj <- inception_4e/pool_proj
I0403 15:29:52.594594 15178 net.cpp:386] inception_4e/relu_pool_proj -> inception_4e/pool_proj (in-place)
I0403 15:29:52.594879 15178 net.cpp:141] Setting up inception_4e/relu_pool_proj
I0403 15:29:52.594907 15178 net.cpp:148] Top shape: 24 128 14 14 (602112)
I0403 15:29:52.594923 15178 net.cpp:156] Memory required for data: 1256902176
I0403 15:29:52.594936 15178 layer_factory.hpp:77] Creating layer inception_4e/output
I0403 15:29:52.594954 15178 net.cpp:91] Creating Layer inception_4e/output
I0403 15:29:52.594967 15178 net.cpp:425] inception_4e/output <- inception_4e/1x1
I0403 15:29:52.594982 15178 net.cpp:425] inception_4e/output <- inception_4e/3x3
I0403 15:29:52.594997 15178 net.cpp:425] inception_4e/output <- inception_4e/5x5
I0403 15:29:52.595012 15178 net.cpp:425] inception_4e/output <- inception_4e/pool_proj
I0403 15:29:52.595031 15178 net.cpp:399] inception_4e/output -> inception_4e/output
I0403 15:29:52.595077 15178 net.cpp:141] Setting up inception_4e/output
I0403 15:29:52.595100 15178 net.cpp:148] Top shape: 24 832 14 14 (3913728)
I0403 15:29:52.595114 15178 net.cpp:156] Memory required for data: 1272557088
I0403 15:29:52.595127 15178 layer_factory.hpp:77] Creating layer pool4/3x3_s2
I0403 15:29:52.595145 15178 net.cpp:91] Creating Layer pool4/3x3_s2
I0403 15:29:52.595161 15178 net.cpp:425] pool4/3x3_s2 <- inception_4e/output
I0403 15:29:52.595178 15178 net.cpp:399] pool4/3x3_s2 -> pool4/3x3_s2
I0403 15:29:52.595245 15178 net.cpp:141] Setting up pool4/3x3_s2
I0403 15:29:52.595268 15178 net.cpp:148] Top shape: 24 832 7 7 (978432)
I0403 15:29:52.595281 15178 net.cpp:156] Memory required for data: 1276470816
I0403 15:29:52.595294 15178 layer_factory.hpp:77] Creating layer pool4/3x3_s2_pool4/3x3_s2_0_split
I0403 15:29:52.595310 15178 net.cpp:91] Creating Layer pool4/3x3_s2_pool4/3x3_s2_0_split
I0403 15:29:52.595324 15178 net.cpp:425] pool4/3x3_s2_pool4/3x3_s2_0_split <- pool4/3x3_s2
I0403 15:29:52.595342 15178 net.cpp:399] pool4/3x3_s2_pool4/3x3_s2_0_split -> pool4/3x3_s2_pool4/3x3_s2_0_split_0
I0403 15:29:52.595361 15178 net.cpp:399] pool4/3x3_s2_pool4/3x3_s2_0_split -> pool4/3x3_s2_pool4/3x3_s2_0_split_1
I0403 15:29:52.595381 15178 net.cpp:399] pool4/3x3_s2_pool4/3x3_s2_0_split -> pool4/3x3_s2_pool4/3x3_s2_0_split_2
I0403 15:29:52.595399 15178 net.cpp:399] pool4/3x3_s2_pool4/3x3_s2_0_split -> pool4/3x3_s2_pool4/3x3_s2_0_split_3
I0403 15:29:52.595485 15178 net.cpp:141] Setting up pool4/3x3_s2_pool4/3x3_s2_0_split
I0403 15:29:52.595510 15178 net.cpp:148] Top shape: 24 832 7 7 (978432)
I0403 15:29:52.595525 15178 net.cpp:148] Top shape: 24 832 7 7 (978432)
I0403 15:29:52.595551 15178 net.cpp:148] Top shape: 24 832 7 7 (978432)
I0403 15:29:52.595567 15178 net.cpp:148] Top shape: 24 832 7 7 (978432)
I0403 15:29:52.595580 15178 net.cpp:156] Memory required for data: 1292125728
I0403 15:29:52.595594 15178 layer_factory.hpp:77] Creating layer inception_5a/1x1
I0403 15:29:52.595614 15178 net.cpp:91] Creating Layer inception_5a/1x1
I0403 15:29:52.595631 15178 net.cpp:425] inception_5a/1x1 <- pool4/3x3_s2_pool4/3x3_s2_0_split_0
I0403 15:29:52.595651 15178 net.cpp:399] inception_5a/1x1 -> inception_5a/1x1
I0403 15:29:52.598466 15178 net.cpp:141] Setting up inception_5a/1x1
I0403 15:29:52.598495 15178 net.cpp:148] Top shape: 24 256 7 7 (301056)
I0403 15:29:52.598510 15178 net.cpp:156] Memory required for data: 1293329952
I0403 15:29:52.598528 15178 layer_factory.hpp:77] Creating layer inception_5a/relu_1x1
I0403 15:29:52.598551 15178 net.cpp:91] Creating Layer inception_5a/relu_1x1
I0403 15:29:52.598567 15178 net.cpp:425] inception_5a/relu_1x1 <- inception_5a/1x1
I0403 15:29:52.598587 15178 net.cpp:386] inception_5a/relu_1x1 -> inception_5a/1x1 (in-place)
I0403 15:29:52.598893 15178 net.cpp:141] Setting up inception_5a/relu_1x1
I0403 15:29:52.598919 15178 net.cpp:148] Top shape: 24 256 7 7 (301056)
I0403 15:29:52.598933 15178 net.cpp:156] Memory required for data: 1294534176
I0403 15:29:52.598948 15178 layer_factory.hpp:77] Creating layer inception_5a/3x3_reduce
I0403 15:29:52.598968 15178 net.cpp:91] Creating Layer inception_5a/3x3_reduce
I0403 15:29:52.598985 15178 net.cpp:425] inception_5a/3x3_reduce <- pool4/3x3_s2_pool4/3x3_s2_0_split_1
I0403 15:29:52.599006 15178 net.cpp:399] inception_5a/3x3_reduce -> inception_5a/3x3_reduce
I0403 15:29:52.601420 15178 net.cpp:141] Setting up inception_5a/3x3_reduce
I0403 15:29:52.601450 15178 net.cpp:148] Top shape: 24 160 7 7 (188160)
I0403 15:29:52.601466 15178 net.cpp:156] Memory required for data: 1295286816
I0403 15:29:52.601485 15178 layer_factory.hpp:77] Creating layer inception_5a/relu_3x3_reduce
I0403 15:29:52.601506 15178 net.cpp:91] Creating Layer inception_5a/relu_3x3_reduce
I0403 15:29:52.601523 15178 net.cpp:425] inception_5a/relu_3x3_reduce <- inception_5a/3x3_reduce
I0403 15:29:52.601544 15178 net.cpp:386] inception_5a/relu_3x3_reduce -> inception_5a/3x3_reduce (in-place)
I0403 15:29:52.601742 15178 net.cpp:141] Setting up inception_5a/relu_3x3_reduce
I0403 15:29:52.601768 15178 net.cpp:148] Top shape: 24 160 7 7 (188160)
I0403 15:29:52.601780 15178 net.cpp:156] Memory required for data: 1296039456
I0403 15:29:52.601794 15178 layer_factory.hpp:77] Creating layer inception_5a/3x3
I0403 15:29:52.601815 15178 net.cpp:91] Creating Layer inception_5a/3x3
I0403 15:29:52.601832 15178 net.cpp:425] inception_5a/3x3 <- inception_5a/3x3_reduce
I0403 15:29:52.601853 15178 net.cpp:399] inception_5a/3x3 -> inception_5a/3x3
I0403 15:29:52.606947 15178 net.cpp:141] Setting up inception_5a/3x3
I0403 15:29:52.606978 15178 net.cpp:148] Top shape: 24 320 7 7 (376320)
I0403 15:29:52.606995 15178 net.cpp:156] Memory required for data: 1297544736
I0403 15:29:52.607013 15178 layer_factory.hpp:77] Creating layer inception_5a/relu_3x3
I0403 15:29:52.607031 15178 net.cpp:91] Creating Layer inception_5a/relu_3x3
I0403 15:29:52.607048 15178 net.cpp:425] inception_5a/relu_3x3 <- inception_5a/3x3
I0403 15:29:52.607066 15178 net.cpp:386] inception_5a/relu_3x3 -> inception_5a/3x3 (in-place)
I0403 15:29:52.607362 15178 net.cpp:141] Setting up inception_5a/relu_3x3
I0403 15:29:52.607388 15178 net.cpp:148] Top shape: 24 320 7 7 (376320)
I0403 15:29:52.607404 15178 net.cpp:156] Memory required for data: 1299050016
I0403 15:29:52.607419 15178 layer_factory.hpp:77] Creating layer inception_5a/5x5_reduce
I0403 15:29:52.607441 15178 net.cpp:91] Creating Layer inception_5a/5x5_reduce
I0403 15:29:52.607458 15178 net.cpp:425] inception_5a/5x5_reduce <- pool4/3x3_s2_pool4/3x3_s2_0_split_2
I0403 15:29:52.607480 15178 net.cpp:399] inception_5a/5x5_reduce -> inception_5a/5x5_reduce
I0403 15:29:52.608669 15178 net.cpp:141] Setting up inception_5a/5x5_reduce
I0403 15:29:52.608698 15178 net.cpp:148] Top shape: 24 32 7 7 (37632)
I0403 15:29:52.608713 15178 net.cpp:156] Memory required for data: 1299200544
I0403 15:29:52.608731 15178 layer_factory.hpp:77] Creating layer inception_5a/relu_5x5_reduce
I0403 15:29:52.608749 15178 net.cpp:91] Creating Layer inception_5a/relu_5x5_reduce
I0403 15:29:52.608764 15178 net.cpp:425] inception_5a/relu_5x5_reduce <- inception_5a/5x5_reduce
I0403 15:29:52.608783 15178 net.cpp:386] inception_5a/relu_5x5_reduce -> inception_5a/5x5_reduce (in-place)
I0403 15:29:52.609087 15178 net.cpp:141] Setting up inception_5a/relu_5x5_reduce
I0403 15:29:52.609113 15178 net.cpp:148] Top shape: 24 32 7 7 (37632)
I0403 15:29:52.609128 15178 net.cpp:156] Memory required for data: 1299351072
I0403 15:29:52.609143 15178 layer_factory.hpp:77] Creating layer inception_5a/5x5
I0403 15:29:52.609164 15178 net.cpp:91] Creating Layer inception_5a/5x5
I0403 15:29:52.609181 15178 net.cpp:425] inception_5a/5x5 <- inception_5a/5x5_reduce
I0403 15:29:52.609201 15178 net.cpp:399] inception_5a/5x5 -> inception_5a/5x5
I0403 15:29:52.610950 15178 net.cpp:141] Setting up inception_5a/5x5
I0403 15:29:52.610991 15178 net.cpp:148] Top shape: 24 128 7 7 (150528)
I0403 15:29:52.611008 15178 net.cpp:156] Memory required for data: 1299953184
I0403 15:29:52.611027 15178 layer_factory.hpp:77] Creating layer inception_5a/relu_5x5
I0403 15:29:52.611044 15178 net.cpp:91] Creating Layer inception_5a/relu_5x5
I0403 15:29:52.611060 15178 net.cpp:425] inception_5a/relu_5x5 <- inception_5a/5x5
I0403 15:29:52.611079 15178 net.cpp:386] inception_5a/relu_5x5 -> inception_5a/5x5 (in-place)
I0403 15:29:52.611285 15178 net.cpp:141] Setting up inception_5a/relu_5x5
I0403 15:29:52.611310 15178 net.cpp:148] Top shape: 24 128 7 7 (150528)
I0403 15:29:52.611325 15178 net.cpp:156] Memory required for data: 1300555296
I0403 15:29:52.611340 15178 layer_factory.hpp:77] Creating layer inception_5a/pool
I0403 15:29:52.611357 15178 net.cpp:91] Creating Layer inception_5a/pool
I0403 15:29:52.611372 15178 net.cpp:425] inception_5a/pool <- pool4/3x3_s2_pool4/3x3_s2_0_split_3
I0403 15:29:52.611393 15178 net.cpp:399] inception_5a/pool -> inception_5a/pool
I0403 15:29:52.611469 15178 net.cpp:141] Setting up inception_5a/pool
I0403 15:29:52.611493 15178 net.cpp:148] Top shape: 24 832 7 7 (978432)
I0403 15:29:52.611507 15178 net.cpp:156] Memory required for data: 1304469024
I0403 15:29:52.611521 15178 layer_factory.hpp:77] Creating layer inception_5a/pool_proj
I0403 15:29:52.611559 15178 net.cpp:91] Creating Layer inception_5a/pool_proj
I0403 15:29:52.611577 15178 net.cpp:425] inception_5a/pool_proj <- inception_5a/pool
I0403 15:29:52.611598 15178 net.cpp:399] inception_5a/pool_proj -> inception_5a/pool_proj
I0403 15:29:52.613890 15178 net.cpp:141] Setting up inception_5a/pool_proj
I0403 15:29:52.613924 15178 net.cpp:148] Top shape: 24 128 7 7 (150528)
I0403 15:29:52.613940 15178 net.cpp:156] Memory required for data: 1305071136
I0403 15:29:52.613958 15178 layer_factory.hpp:77] Creating layer inception_5a/relu_pool_proj
I0403 15:29:52.613976 15178 net.cpp:91] Creating Layer inception_5a/relu_pool_proj
I0403 15:29:52.613991 15178 net.cpp:425] inception_5a/relu_pool_proj <- inception_5a/pool_proj
I0403 15:29:52.614007 15178 net.cpp:386] inception_5a/relu_pool_proj -> inception_5a/pool_proj (in-place)
I0403 15:29:52.614306 15178 net.cpp:141] Setting up inception_5a/relu_pool_proj
I0403 15:29:52.614336 15178 net.cpp:148] Top shape: 24 128 7 7 (150528)
I0403 15:29:52.614351 15178 net.cpp:156] Memory required for data: 1305673248
I0403 15:29:52.614365 15178 layer_factory.hpp:77] Creating layer inception_5a/output
I0403 15:29:52.614382 15178 net.cpp:91] Creating Layer inception_5a/output
I0403 15:29:52.614398 15178 net.cpp:425] inception_5a/output <- inception_5a/1x1
I0403 15:29:52.614414 15178 net.cpp:425] inception_5a/output <- inception_5a/3x3
I0403 15:29:52.614430 15178 net.cpp:425] inception_5a/output <- inception_5a/5x5
I0403 15:29:52.614445 15178 net.cpp:425] inception_5a/output <- inception_5a/pool_proj
I0403 15:29:52.614461 15178 net.cpp:399] inception_5a/output -> inception_5a/output
I0403 15:29:52.614512 15178 net.cpp:141] Setting up inception_5a/output
I0403 15:29:52.614540 15178 net.cpp:148] Top shape: 24 832 7 7 (978432)
I0403 15:29:52.614557 15178 net.cpp:156] Memory required for data: 1309586976
I0403 15:29:52.614570 15178 layer_factory.hpp:77] Creating layer inception_5a/output_inception_5a/output_0_split
I0403 15:29:52.614589 15178 net.cpp:91] Creating Layer inception_5a/output_inception_5a/output_0_split
I0403 15:29:52.614605 15178 net.cpp:425] inception_5a/output_inception_5a/output_0_split <- inception_5a/output
I0403 15:29:52.614624 15178 net.cpp:399] inception_5a/output_inception_5a/output_0_split -> inception_5a/output_inception_5a/output_0_split_0
I0403 15:29:52.614642 15178 net.cpp:399] inception_5a/output_inception_5a/output_0_split -> inception_5a/output_inception_5a/output_0_split_1
I0403 15:29:52.614661 15178 net.cpp:399] inception_5a/output_inception_5a/output_0_split -> inception_5a/output_inception_5a/output_0_split_2
I0403 15:29:52.614681 15178 net.cpp:399] inception_5a/output_inception_5a/output_0_split -> inception_5a/output_inception_5a/output_0_split_3
I0403 15:29:52.614796 15178 net.cpp:141] Setting up inception_5a/output_inception_5a/output_0_split
I0403 15:29:52.614820 15178 net.cpp:148] Top shape: 24 832 7 7 (978432)
I0403 15:29:52.614836 15178 net.cpp:148] Top shape: 24 832 7 7 (978432)
I0403 15:29:52.614851 15178 net.cpp:148] Top shape: 24 832 7 7 (978432)
I0403 15:29:52.614866 15178 net.cpp:148] Top shape: 24 832 7 7 (978432)
I0403 15:29:52.614879 15178 net.cpp:156] Memory required for data: 1325241888
I0403 15:29:52.614893 15178 layer_factory.hpp:77] Creating layer inception_5b/1x1
I0403 15:29:52.614914 15178 net.cpp:91] Creating Layer inception_5b/1x1
I0403 15:29:52.614931 15178 net.cpp:425] inception_5b/1x1 <- inception_5a/output_inception_5a/output_0_split_0
I0403 15:29:52.614953 15178 net.cpp:399] inception_5b/1x1 -> inception_5b/1x1
I0403 15:29:52.618779 15178 net.cpp:141] Setting up inception_5b/1x1
I0403 15:29:52.618809 15178 net.cpp:148] Top shape: 24 384 7 7 (451584)
I0403 15:29:52.618825 15178 net.cpp:156] Memory required for data: 1327048224
I0403 15:29:52.618844 15178 layer_factory.hpp:77] Creating layer inception_5b/relu_1x1
I0403 15:29:52.618865 15178 net.cpp:91] Creating Layer inception_5b/relu_1x1
I0403 15:29:52.618882 15178 net.cpp:425] inception_5b/relu_1x1 <- inception_5b/1x1
I0403 15:29:52.618898 15178 net.cpp:386] inception_5b/relu_1x1 -> inception_5b/1x1 (in-place)
I0403 15:29:52.619210 15178 net.cpp:141] Setting up inception_5b/relu_1x1
I0403 15:29:52.619236 15178 net.cpp:148] Top shape: 24 384 7 7 (451584)
I0403 15:29:52.619251 15178 net.cpp:156] Memory required for data: 1328854560
I0403 15:29:52.619266 15178 layer_factory.hpp:77] Creating layer inception_5b/3x3_reduce
I0403 15:29:52.619289 15178 net.cpp:91] Creating Layer inception_5b/3x3_reduce
I0403 15:29:52.619307 15178 net.cpp:425] inception_5b/3x3_reduce <- inception_5a/output_inception_5a/output_0_split_1
I0403 15:29:52.619325 15178 net.cpp:399] inception_5b/3x3_reduce -> inception_5b/3x3_reduce
I0403 15:29:52.622087 15178 net.cpp:141] Setting up inception_5b/3x3_reduce
I0403 15:29:52.622117 15178 net.cpp:148] Top shape: 24 192 7 7 (225792)
I0403 15:29:52.622133 15178 net.cpp:156] Memory required for data: 1329757728
I0403 15:29:52.622150 15178 layer_factory.hpp:77] Creating layer inception_5b/relu_3x3_reduce
I0403 15:29:52.622169 15178 net.cpp:91] Creating Layer inception_5b/relu_3x3_reduce
I0403 15:29:52.622184 15178 net.cpp:425] inception_5b/relu_3x3_reduce <- inception_5b/3x3_reduce
I0403 15:29:52.622200 15178 net.cpp:386] inception_5b/relu_3x3_reduce -> inception_5b/3x3_reduce (in-place)
I0403 15:29:52.622387 15178 net.cpp:141] Setting up inception_5b/relu_3x3_reduce
I0403 15:29:52.622411 15178 net.cpp:148] Top shape: 24 192 7 7 (225792)
I0403 15:29:52.622426 15178 net.cpp:156] Memory required for data: 1330660896
I0403 15:29:52.622439 15178 layer_factory.hpp:77] Creating layer inception_5b/3x3
I0403 15:29:52.622460 15178 net.cpp:91] Creating Layer inception_5b/3x3
I0403 15:29:52.622478 15178 net.cpp:425] inception_5b/3x3 <- inception_5b/3x3_reduce
I0403 15:29:52.622498 15178 net.cpp:399] inception_5b/3x3 -> inception_5b/3x3
I0403 15:29:52.629082 15178 net.cpp:141] Setting up inception_5b/3x3
I0403 15:29:52.629112 15178 net.cpp:148] Top shape: 24 384 7 7 (451584)
I0403 15:29:52.629129 15178 net.cpp:156] Memory required for data: 1332467232
I0403 15:29:52.629147 15178 layer_factory.hpp:77] Creating layer inception_5b/relu_3x3
I0403 15:29:52.629164 15178 net.cpp:91] Creating Layer inception_5b/relu_3x3
I0403 15:29:52.629180 15178 net.cpp:425] inception_5b/relu_3x3 <- inception_5b/3x3
I0403 15:29:52.629196 15178 net.cpp:386] inception_5b/relu_3x3 -> inception_5b/3x3 (in-place)
I0403 15:29:52.629492 15178 net.cpp:141] Setting up inception_5b/relu_3x3
I0403 15:29:52.629519 15178 net.cpp:148] Top shape: 24 384 7 7 (451584)
I0403 15:29:52.629534 15178 net.cpp:156] Memory required for data: 1334273568
I0403 15:29:52.629555 15178 layer_factory.hpp:77] Creating layer inception_5b/5x5_reduce
I0403 15:29:52.629593 15178 net.cpp:91] Creating Layer inception_5b/5x5_reduce
I0403 15:29:52.629611 15178 net.cpp:425] inception_5b/5x5_reduce <- inception_5a/output_inception_5a/output_0_split_2
I0403 15:29:52.629629 15178 net.cpp:399] inception_5b/5x5_reduce -> inception_5b/5x5_reduce
I0403 15:29:52.630908 15178 net.cpp:141] Setting up inception_5b/5x5_reduce
I0403 15:29:52.630939 15178 net.cpp:148] Top shape: 24 48 7 7 (56448)
I0403 15:29:52.630954 15178 net.cpp:156] Memory required for data: 1334499360
I0403 15:29:52.630971 15178 layer_factory.hpp:77] Creating layer inception_5b/relu_5x5_reduce
I0403 15:29:52.630988 15178 net.cpp:91] Creating Layer inception_5b/relu_5x5_reduce
I0403 15:29:52.631003 15178 net.cpp:425] inception_5b/relu_5x5_reduce <- inception_5b/5x5_reduce
I0403 15:29:52.631022 15178 net.cpp:386] inception_5b/relu_5x5_reduce -> inception_5b/5x5_reduce (in-place)
I0403 15:29:52.631386 15178 net.cpp:141] Setting up inception_5b/relu_5x5_reduce
I0403 15:29:52.631412 15178 net.cpp:148] Top shape: 24 48 7 7 (56448)
I0403 15:29:52.631427 15178 net.cpp:156] Memory required for data: 1334725152
I0403 15:29:52.631440 15178 layer_factory.hpp:77] Creating layer inception_5b/5x5
I0403 15:29:52.631459 15178 net.cpp:91] Creating Layer inception_5b/5x5
I0403 15:29:52.631474 15178 net.cpp:425] inception_5b/5x5 <- inception_5b/5x5_reduce
I0403 15:29:52.631492 15178 net.cpp:399] inception_5b/5x5 -> inception_5b/5x5
I0403 15:29:52.633509 15178 net.cpp:141] Setting up inception_5b/5x5
I0403 15:29:52.633540 15178 net.cpp:148] Top shape: 24 128 7 7 (150528)
I0403 15:29:52.633556 15178 net.cpp:156] Memory required for data: 1335327264
I0403 15:29:52.633575 15178 layer_factory.hpp:77] Creating layer inception_5b/relu_5x5
I0403 15:29:52.633592 15178 net.cpp:91] Creating Layer inception_5b/relu_5x5
I0403 15:29:52.633607 15178 net.cpp:425] inception_5b/relu_5x5 <- inception_5b/5x5
I0403 15:29:52.633626 15178 net.cpp:386] inception_5b/relu_5x5 -> inception_5b/5x5 (in-place)
I0403 15:29:52.633817 15178 net.cpp:141] Setting up inception_5b/relu_5x5
I0403 15:29:52.633841 15178 net.cpp:148] Top shape: 24 128 7 7 (150528)
I0403 15:29:52.633854 15178 net.cpp:156] Memory required for data: 1335929376
I0403 15:29:52.633868 15178 layer_factory.hpp:77] Creating layer inception_5b/pool
I0403 15:29:52.633887 15178 net.cpp:91] Creating Layer inception_5b/pool
I0403 15:29:52.633903 15178 net.cpp:425] inception_5b/pool <- inception_5a/output_inception_5a/output_0_split_3
I0403 15:29:52.633919 15178 net.cpp:399] inception_5b/pool -> inception_5b/pool
I0403 15:29:52.633992 15178 net.cpp:141] Setting up inception_5b/pool
I0403 15:29:52.634016 15178 net.cpp:148] Top shape: 24 832 7 7 (978432)
I0403 15:29:52.634028 15178 net.cpp:156] Memory required for data: 1339843104
I0403 15:29:52.634042 15178 layer_factory.hpp:77] Creating layer inception_5b/pool_proj
I0403 15:29:52.634063 15178 net.cpp:91] Creating Layer inception_5b/pool_proj
I0403 15:29:52.634079 15178 net.cpp:425] inception_5b/pool_proj <- inception_5b/pool
I0403 15:29:52.634099 15178 net.cpp:399] inception_5b/pool_proj -> inception_5b/pool_proj
I0403 15:29:52.636394 15178 net.cpp:141] Setting up inception_5b/pool_proj
I0403 15:29:52.636425 15178 net.cpp:148] Top shape: 24 128 7 7 (150528)
I0403 15:29:52.636441 15178 net.cpp:156] Memory required for data: 1340445216
I0403 15:29:52.636459 15178 layer_factory.hpp:77] Creating layer inception_5b/relu_pool_proj
I0403 15:29:52.636477 15178 net.cpp:91] Creating Layer inception_5b/relu_pool_proj
I0403 15:29:52.636493 15178 net.cpp:425] inception_5b/relu_pool_proj <- inception_5b/pool_proj
I0403 15:29:52.636512 15178 net.cpp:386] inception_5b/relu_pool_proj -> inception_5b/pool_proj (in-place)
I0403 15:29:52.636804 15178 net.cpp:141] Setting up inception_5b/relu_pool_proj
I0403 15:29:52.636831 15178 net.cpp:148] Top shape: 24 128 7 7 (150528)
I0403 15:29:52.636847 15178 net.cpp:156] Memory required for data: 1341047328
I0403 15:29:52.636862 15178 layer_factory.hpp:77] Creating layer inception_5b/output
I0403 15:29:52.636876 15178 net.cpp:91] Creating Layer inception_5b/output
I0403 15:29:52.636907 15178 net.cpp:425] inception_5b/output <- inception_5b/1x1
I0403 15:29:52.636924 15178 net.cpp:425] inception_5b/output <- inception_5b/3x3
I0403 15:29:52.636940 15178 net.cpp:425] inception_5b/output <- inception_5b/5x5
I0403 15:29:52.636955 15178 net.cpp:425] inception_5b/output <- inception_5b/pool_proj
I0403 15:29:52.636973 15178 net.cpp:399] inception_5b/output -> inception_5b/output
I0403 15:29:52.637023 15178 net.cpp:141] Setting up inception_5b/output
I0403 15:29:52.637047 15178 net.cpp:148] Top shape: 24 1024 7 7 (1204224)
I0403 15:29:52.637060 15178 net.cpp:156] Memory required for data: 1345864224
I0403 15:29:52.637073 15178 layer_factory.hpp:77] Creating layer pool5/7x7_s1
I0403 15:29:52.637094 15178 net.cpp:91] Creating Layer pool5/7x7_s1
I0403 15:29:52.637109 15178 net.cpp:425] pool5/7x7_s1 <- inception_5b/output
I0403 15:29:52.637126 15178 net.cpp:399] pool5/7x7_s1 -> pool5/7x7_s1
I0403 15:29:52.637352 15178 net.cpp:141] Setting up pool5/7x7_s1
I0403 15:29:52.637377 15178 net.cpp:148] Top shape: 24 1024 1 1 (24576)
I0403 15:29:52.637392 15178 net.cpp:156] Memory required for data: 1345962528
I0403 15:29:52.637406 15178 layer_factory.hpp:77] Creating layer pool5/drop_7x7_s1
I0403 15:29:52.637423 15178 net.cpp:91] Creating Layer pool5/drop_7x7_s1
I0403 15:29:52.637439 15178 net.cpp:425] pool5/drop_7x7_s1 <- pool5/7x7_s1
I0403 15:29:52.637457 15178 net.cpp:386] pool5/drop_7x7_s1 -> pool5/7x7_s1 (in-place)
I0403 15:29:52.637506 15178 net.cpp:141] Setting up pool5/drop_7x7_s1
I0403 15:29:52.637529 15178 net.cpp:148] Top shape: 24 1024 1 1 (24576)
I0403 15:29:52.637560 15178 net.cpp:156] Memory required for data: 1346060832
I0403 15:29:52.637575 15178 layer_factory.hpp:77] Creating layer loss3/classifier_plantvillage
I0403 15:29:52.637595 15178 net.cpp:91] Creating Layer loss3/classifier_plantvillage
I0403 15:29:52.637611 15178 net.cpp:425] loss3/classifier_plantvillage <- pool5/7x7_s1
I0403 15:29:52.637631 15178 net.cpp:399] loss3/classifier_plantvillage -> loss3/classifier_plantvillage
I0403 15:29:52.638048 15178 net.cpp:141] Setting up loss3/classifier_plantvillage
I0403 15:29:52.638072 15178 net.cpp:148] Top shape: 24 38 (912)
I0403 15:29:52.638085 15178 net.cpp:156] Memory required for data: 1346064480
I0403 15:29:52.638103 15178 layer_factory.hpp:77] Creating layer loss3/classifier_plantvillage_loss3/classifier_plantvillage_0_split
I0403 15:29:52.638121 15178 net.cpp:91] Creating Layer loss3/classifier_plantvillage_loss3/classifier_plantvillage_0_split
I0403 15:29:52.638137 15178 net.cpp:425] loss3/classifier_plantvillage_loss3/classifier_plantvillage_0_split <- loss3/classifier_plantvillage
I0403 15:29:52.638154 15178 net.cpp:399] loss3/classifier_plantvillage_loss3/classifier_plantvillage_0_split -> loss3/classifier_plantvillage_loss3/classifier_plantvillage_0_split_0
I0403 15:29:52.638172 15178 net.cpp:399] loss3/classifier_plantvillage_loss3/classifier_plantvillage_0_split -> loss3/classifier_plantvillage_loss3/classifier_plantvillage_0_split_1
I0403 15:29:52.638191 15178 net.cpp:399] loss3/classifier_plantvillage_loss3/classifier_plantvillage_0_split -> loss3/classifier_plantvillage_loss3/classifier_plantvillage_0_split_2
I0403 15:29:52.638212 15178 net.cpp:399] loss3/classifier_plantvillage_loss3/classifier_plantvillage_0_split -> loss3/classifier_plantvillage_loss3/classifier_plantvillage_0_split_3
I0403 15:29:52.638314 15178 net.cpp:141] Setting up loss3/classifier_plantvillage_loss3/classifier_plantvillage_0_split
I0403 15:29:52.638335 15178 net.cpp:148] Top shape: 24 38 (912)
I0403 15:29:52.638350 15178 net.cpp:148] Top shape: 24 38 (912)
I0403 15:29:52.638363 15178 net.cpp:148] Top shape: 24 38 (912)
I0403 15:29:52.638377 15178 net.cpp:148] Top shape: 24 38 (912)
I0403 15:29:52.638389 15178 net.cpp:156] Memory required for data: 1346079072
I0403 15:29:52.638402 15178 layer_factory.hpp:77] Creating layer loss1/loss
I0403 15:29:52.638422 15178 net.cpp:91] Creating Layer loss1/loss
I0403 15:29:52.638438 15178 net.cpp:425] loss1/loss <- loss1/classifier_plantvillage_loss1/classifier_plantvillage_0_split_0
I0403 15:29:52.638468 15178 net.cpp:425] loss1/loss <- label_data_1_split_0
…
