…
I0403 15:00:10.676043 13993 net.cpp:313] The NetState phase (1) differed from the phase (0) specified by a rule in layer data
I0403 15:00:10.677253 13993 net.cpp:49] Initializing net from parameters: 
state {
  phase: TEST
}
layer {
  name: "data"
  type: "Data"
  top: "data"
  top: "label"
  include {
    phase: TEST
  }
  transform_param {
    mirror: false
    crop_size: 224
    mean_file: "/home/mohanty/data/final_dataset/lmdb/color-50-50/mean.binaryproto"
  }
  data_param {
    source: "/home/mohanty/data/final_dataset/lmdb/color-50-50/test_db"
    batch_size: 24
    backend: LMDB
  }
}
layer {
  name: "conv1/7x7_s2"
  type: "Convolution"
  bottom: "data"
  top: "conv1/7x7_s2"
  param {
    lr_mult: 1
    decay_mult: 1
  }
  param {
    lr_mult: 2
    decay_mult: 0
  }
  convolution_param {
    num_output: 64
    pad: 3
    kernel_size: 7
    stride: 2
    weight_filler {
      type: "xavier"
      std: 0.1
    }
    bias_filler {
      type: "constant"
      value: 0.2
    }
  }
}
layer {
  name: "conv1/relu_7x7"
  type: "ReLU"
  bottom: "conv1/7x7_s2"
  top: "conv1/7x7_s2"
}
layer {
  name: "pool1/3x3_s2"
  type: "Pooling"
  bottom: "conv1/7x7_s2"
  top: "pool1/3x3_s2"
  pooling_param {
    pool: MAX
    kernel_size: 3
    stride: 2
  }
}
layer {
  name: "pool1/norm1"
  type: "LRN"
  bottom: "pool1/3x3_s2"
  top: "pool1/norm1"
  lrn_param {
    local_size: 5
    alpha: 0.0001
    beta: 0.75
  }
}
layer {
  name: "conv2/3x3_reduce"
  type: "Convolution"
  bottom: "pool1/norm1"
  top: "conv2/3x3_reduce"
  param {
    lr_mult: 1
    decay_mult: 1
  }
  param {
    lr_mult: 2
    decay_mult: 0
  }
  convolution_param {
    num_output: 64
    kernel_size: 1
    weight_filler {
      type: "xavier"
      std: 0.1
    }
    bias_filler {
      type: "constant"
      value: 0.2
    }
  }
}
layer {
  name: "conv2/relu_3x3_reduce"
  type: "ReLU"
  bottom: "conv2/3x3_reduce"
  top: "conv2/3x3_reduce"
}
layer {
  name: "conv2/3x3"
  type: "Convolution"
  bottom: "conv2/3x3_reduce"
  top: "conv2/3x3"
  param {
    lr_mult: 1
    decay_mult: 1
  }
  param {
    lr_mult: 2
    decay_mult: 0
  }
  convolution_param {
    num_output: 192
    pad: 1
    kernel_size: 3
    weight_filler {
      type: "xavier"
      std: 0.03
    }
    bias_filler {
      type: "constant"
      value: 0.2
    }
  }
}
layer {
  name: "conv2/relu_3x3"
  type: "ReLU"
  bottom: "conv2/3x3"
  top: "conv2/3x3"
}
layer {
  name: "conv2/norm2"
  type: "LRN"
  bottom: "conv2/3x3"
  top: "conv2/norm2"
  lrn_param {
    local_size: 5
    alpha: 0.0001
    beta: 0.75
  }
}
layer {
  name: "pool2/3x3_s2"
  type: "Pooling"
  bottom: "conv2/norm2"
  top: "pool2/3x3_s2"
  pooling_param {
    pool: MAX
    kernel_size: 3
    stride: 2
  }
}
layer {
  name: "inception_3a/1x1"
  type: "Convolution"
  bottom: "pool2/3x3_s2"
  top: "inception_3a/1x1"
  param {
    lr_mult: 1
    decay_mult: 1
  }
  param {
    lr_mult: 2
    decay_mult: 0
  }
  convolution_param {
    num_output: 64
    kernel_size: 1
    weight_filler {
      type: "xavier"
      std: 0.03
    }
    bias_filler {
      type: "constant"
      value: 0.2
    }
  }
}
layer {
  name: "inception_3a/relu_1x1"
  type: "ReLU"
  bottom: "inception_3a/1x1"
  top: "inception_3a/1x1"
}
layer {
  name: "inception_3a/3x3_reduce"
  type: "Convolution"
  bottom: "pool2/3x3_s2"
  top: "inception_3a/3x3_reduce"
  param {
    lr_mult: 1
    decay_mult: 1
  }
  param {
    lr_mult: 2
    decay_mult: 0
  }
  convolution_param {
    num_output: 96
    kernel_size: 1
    weight_filler {
      type: "xavier"
      std: 0.09
    }
    bias_filler {
      type: "constant"
      value: 0.2
    }
  }
}
layer {
  name: "inception_3a/relu_3x3_reduce"
  type: "ReLU"
  bottom: "inception_3a/3x3_reduce"
  top: "inception_3a/3x3_reduce"
}
layer {
  name: "inception_3a/3x3"
  type: "Convolution"
  bottom: "inception_3a/3x3_reduce"
  top: "inception_3a/3x3"
  param {
    lr_mult: 1
    decay_mult: 1
  }
  param {
    lr_mult: 2
    decay_mult: 0
  }
  convolution_param {
    num_output: 128
    pad: 1
    kernel_size: 3
    weight_filler {
      type: "xavier"
      std: 0.03
    }
    bias_filler {
      type: "constant"
      value: 0.2
    }
  }
}
layer {
  name: "inception_3a/relu_3x3"
  type: "ReLU"
  bottom: "inception_3a/3x3"
  top: "inception_3a/3x3"
}
layer {
  name: "inception_3a/5x5_reduce"
  type: "Convolution"
  bottom: "pool2/3x3_s2"
  top: "inception_3a/5x5_reduce"
  param {
    lr_mult: 1
    decay_mult: 1
  }
  param {
    lr_mult: 2
    decay_mult: 0
  }
  convolution_param {
    num_output: 16
    kernel_size: 1
    weight_filler {
      type: "xavier"
      std: 0.2
    }
    bias_filler {
      type: "constant"
      value: 0.2
    }
  }
}
layer {
  name: "inception_3a/relu_5x5_reduce"
  type: "ReLU"
  bottom: "inception_3a/5x5_reduce"
  top: "inception_3a/5x5_reduce"
}
layer {
  name: "inception_3a/5x5"
  type: "Convolution"
  bottom: "inception_3a/5x5_reduce"
  top: "inception_3a/5x5"
  param {
    lr_mult: 1
    decay_mult: 1
  }
  param {
    lr_mult: 2
    decay_mult: 0
  }
  convolution_param {
    num_output: 32
    pad: 2
    kernel_size: 5
    weight_filler {
      type: "xavier"
      std: 0.03
    }
    bias_filler {
      type: "constant"
      value: 0.2
    }
  }
}
layer {
  name: "inception_3a/relu_5x5"
  type: "ReLU"
  bottom: "inception_3a/5x5"
  top: "inception_3a/5x5"
}
layer {
  name: "inception_3a/pool"
  type: "Pooling"
  bottom: "pool2/3x3_s2"
  top: "inception_3a/pool"
  pooling_param {
    pool: MAX
    kernel_size: 3
    stride: 1
    pad: 1
  }
}
layer {
  name: "inception_3a/pool_proj"
  type: "Convolution"
  bottom: "inception_3a/pool"
  top: "inception_3a/pool_proj"
  param {
    lr_mult: 1
    decay_mult: 1
  }
  param {
    lr_mult: 2
    decay_mult: 0
  }
  convolution_param {
    num_output: 32
    kernel_size: 1
    weight_filler {
      type: "xavier"
      std: 0.1
    }
    bias_filler {
      type: "constant"
      value: 0.2
    }
  }
}
layer {
  name: "inception_3a/relu_pool_proj"
  type: "ReLU"
  bottom: "inception_3a/pool_proj"
  top: "inception_3a/pool_proj"
}
layer {
  name: "inception_3a/output"
  type: "Concat"
  bottom: "inception_3a/1x1"
  bottom: "inception_3a/3x3"
  bottom: "inception_3a/5x5"
  bottom: "inception_3a/pool_proj"
  top: "inception_3a/output"
}
layer {
  name: "inception_3b/1x1"
  type: "Convolution"
  bottom: "inception_3a/output"
  top: "inception_3b/1x1"
  param {
    lr_mult: 1
    decay_mult: 1
  }
  param {
    lr_mult: 2
    decay_mult: 0
  }
  convolution_param {
    num_output: 128
    kernel_size: 1
    weight_filler {
      type: "xavier"
      std: 0.03
    }
    bias_filler {
      type: "constant"
      value: 0.2
    }
  }
}
layer {
  name: "inception_3b/relu_1x1"
  type: "ReLU"
  bottom: "inception_3b/1x1"
  top: "inception_3b/1x1"
}
layer {
  name: "inception_3b/3x3_reduce"
  type: "Convolution"
  bottom: "inception_3a/output"
  top: "inception_3b/3x3_reduce"
  param {
    lr_mult: 1
    decay_mult: 1
  }
  param {
    lr_mult: 2
    decay_mult: 0
  }
  convolution_param {
    num_output: 128
    kernel_size: 1
    weight_filler {
      type: "xavier"
      std: 0.09
    }
    bias_filler {
      type: "constant"
      value: 0.2
    }
  }
}
layer {
  name: "inception_3b/relu_3x3_reduce"
  type: "ReLU"
  bottom: "inception_3b/3x3_reduce"
  top: "inception_3b/3x3_reduce"
}
layer {
  name: "inception_3b/3x3"
  type: "Convolution"
  bottom: "inception_3b/3x3_reduce"
  top: "inception_3b/3x3"
  param {
    lr_mult: 1
    decay_mult: 1
  }
  param {
    lr_mult: 2
    decay_mult: 0
  }
  convolution_param {
    num_output: 192
    pad: 1
    kernel_size: 3
    weight_filler {
      type: "xavier"
      std: 0.03
    }
    bias_filler {
      type: "constant"
      value: 0.2
    }
  }
}
layer {
  name: "inception_3b/relu_3x3"
  type: "ReLU"
  bottom: "inception_3b/3x3"
  top: "inception_3b/3x3"
}
layer {
  name: "inception_3b/5x5_reduce"
  type: "Convolution"
  bottom: "inception_3a/output"
  top: "inception_3b/5x5_reduce"
  param {
    lr_mult: 1
    decay_mult: 1
  }
  param {
    lr_mult: 2
    decay_mult: 0
  }
  convolution_param {
    num_output: 32
    kernel_size: 1
    weight_filler {
      type: "xavier"
      std: 0.2
    }
    bias_filler {
      type: "constant"
      value: 0.2
    }
  }
}
layer {
  name: "inception_3b/relu_5x5_reduce"
  type: "ReLU"
  bottom: "inception_3b/5x5_reduce"
  top: "inception_3b/5x5_reduce"
}
layer {
  name: "inception_3b/5x5"
  type: "Convolution"
  bottom: "inception_3b/5x5_reduce"
  top: "inception_3b/5x5"
  param {
    lr_mult: 1
    decay_mult: 1
  }
  param {
    lr_mult: 2
    decay_mult: 0
  }
  convolution_param {
    num_output: 96
    pad: 2
    kernel_size: 5
    weight_filler {
      type: "xavier"
      std: 0.03
    }
    bias_filler {
      type: "constant"
      value: 0.2
    }
  }
}
layer {
  name: "inception_3b/relu_5x5"
  type: "ReLU"
  bottom: "inception_3b/5x5"
  top: "inception_3b/5x5"
}
layer {
  name: "inception_3b/pool"
  type: "Pooling"
  bottom: "inception_3a/output"
  top: "inception_3b/pool"
  pooling_param {
    pool: MAX
    kernel_size: 3
    stride: 1
    pad: 1
  }
}
layer {
  name: "inception_3b/pool_proj"
  type: "Convolution"
  bottom: "inception_3b/pool"
  top: "inception_3b/pool_proj"
  param {
    lr_mult: 1
    decay_mult: 1
  }
  param {
    lr_mult: 2
    decay_mult: 0
  }
  convolution_param {
    num_output: 64
    kernel_size: 1
    weight_filler {
      type: "xavier"
      std: 0.1
    }
    bias_filler {
      type: "constant"
      value: 0.2
    }
  }
}
layer {
  name: "inception_3b/relu_pool_proj"
  type: "ReLU"
  bottom: "inception_3b/pool_proj"
  top: "inception_3b/pool_proj"
}
layer {
  name: "inception_3b/output"
  type: "Concat"
  bottom: "inception_3b/1x1"
  bottom: "inception_3b/3x3"
  bottom: "inception_3b/5x5"
  bottom: "inception_3b/pool_proj"
  top: "inception_3b/output"
}
layer {
  name: "pool3/3x3_s2"
  type: "Pooling"
  bottom: "inception_3b/output"
  top: "pool3/3x3_s2"
  pooling_param {
    pool: MAX
    kernel_size: 3
    stride: 2
  }
}
layer {
  name: "inception_4a/1x1"
  type: "Convolution"
  bottom: "pool3/3x3_s2"
  top: "inception_4a/1x1"
  param {
    lr_mult: 1
    decay_mult: 1
  }
  param {
    lr_mult: 2
    decay_mult: 0
  }
  convolution_param {
    num_output: 192
    kernel_size: 1
    weight_filler {
      type: "xavier"
      std: 0.03
    }
    bias_filler {
      type: "constant"
      value: 0.2
    }
  }
}
layer {
  name: "inception_4a/relu_1x1"
  type: "ReLU"
  bottom: "inception_4a/1x1"
  top: "inception_4a/1x1"
}
layer {
  name: "inception_4a/3x3_reduce"
  type: "Convolution"
  bottom: "pool3/3x3_s2"
  top: "inception_4a/3x3_reduce"
  param {
    lr_mult: 1
    decay_mult: 1
  }
  param {
    lr_mult: 2
    decay_mult: 0
  }
  convolution_param {
    num_output: 96
    kernel_size: 1
    weight_filler {
      type: "xavier"
      std: 0.09
    }
    bias_filler {
      type: "constant"
      value: 0.2
    }
  }
}
layer {
  name: "inception_4a/relu_3x3_reduce"
  type: "ReLU"
  bottom: "inception_4a/3x3_reduce"
  top: "inception_4a/3x3_reduce"
}
layer {
  name: "inception_4a/3x3"
  type: "Convolution"
  bottom: "inception_4a/3x3_reduce"
  top: "inception_4a/3x3"
  param {
    lr_mult: 1
    decay_mult: 1
  }
  param {
    lr_mult: 2
    decay_mult: 0
  }
  convolution_param {
    num_output: 208
    pad: 1
    kernel_size: 3
    weight_filler {
      type: "xavier"
      std: 0.03
    }
    bias_filler {
      type: "constant"
      value: 0.2
    }
  }
}
layer {
  name: "inception_4a/relu_3x3"
  type: "ReLU"
  bottom: "inception_4a/3x3"
  top: "inception_4a/3x3"
}
layer {
  name: "inception_4a/5x5_reduce"
  type: "Convolution"
  bottom: "pool3/3x3_s2"
  top: "inception_4a/5x5_reduce"
  param {
    lr_mult: 1
    decay_mult: 1
  }
  param {
    lr_mult: 2
    decay_mult: 0
  }
  convolution_param {
    num_output: 16
    kernel_size: 1
    weight_filler {
      type: "xavier"
      std: 0.2
    }
    bias_filler {
      type: "constant"
      value: 0.2
    }
  }
}
layer {
  name: "inception_4a/relu_5x5_reduce"
  type: "ReLU"
  bottom: "inception_4a/5x5_reduce"
  top: "inception_4a/5x5_reduce"
}
layer {
  name: "inception_4a/5x5"
  type: "Convolution"
  bottom: "inception_4a/5x5_reduce"
  top: "inception_4a/5x5"
  param {
    lr_mult: 1
    decay_mult: 1
  }
  param {
    lr_mult: 2
    decay_mult: 0
  }
  convolution_param {
    num_output: 48
    pad: 2
    kernel_size: 5
    weight_filler {
      type: "xavier"
      std: 0.03
    }
    bias_filler {
      type: "constant"
      value: 0.2
    }
  }
}
layer {
  name: "inception_4a/relu_5x5"
  type: "ReLU"
  bottom: "inception_4a/5x5"
  top: "inception_4a/5x5"
}
layer {
  name: "inception_4a/pool"
  type: "Pooling"
  bottom: "pool3/3x3_s2"
  top: "inception_4a/pool"
  pooling_param {
    pool: MAX
    kernel_size: 3
    stride: 1
    pad: 1
  }
}
layer {
  name: "inception_4a/pool_proj"
  type: "Convolution"
  bottom: "inception_4a/pool"
  top: "inception_4a/pool_proj"
  param {
    lr_mult: 1
    decay_mult: 1
  }
  param {
    lr_mult: 2
    decay_mult: 0
  }
  convolution_param {
    num_output: 64
    kernel_size: 1
    weight_filler {
      type: "xavier"
      std: 0.1
    }
    bias_filler {
      type: "constant"
      value: 0.2
    }
  }
}
layer {
  name: "inception_4a/relu_pool_proj"
  type: "ReLU"
  bottom: "inception_4a/pool_proj"
  top: "inception_4a/pool_proj"
}
layer {
  name: "inception_4a/output"
  type: "Concat"
  bottom: "inception_4a/1x1"
  bottom: "inception_4a/3x3"
  bottom: "inception_4a/5x5"
  bottom: "inception_4a/pool_proj"
  top: "inception_4a/output"
}
layer {
  name: "loss1/ave_pool"
  type: "Pooling"
  bottom: "inception_4a/output"
  top: "loss1/ave_pool"
  pooling_param {
    pool: AVE
    kernel_size: 5
    stride: 3
  }
}
layer {
  name: "loss1/conv"
  type: "Convolution"
  bottom: "loss1/ave_pool"
  top: "loss1/conv"
  param {
    lr_mult: 1
    decay_mult: 1
  }
  param {
    lr_mult: 2
    decay_mult: 0
  }
  convolution_param {
    num_output: 128
    kernel_size: 1
    weight_filler {
      type: "xavier"
      std: 0.08
    }
    bias_filler {
      type: "constant"
      value: 0.2
    }
  }
}
layer {
  name: "loss1/relu_conv"
  type: "ReLU"
  bottom: "loss1/conv"
  top: "loss1/conv"
}
layer {
  name: "loss1/fc"
  type: "InnerProduct"
  bottom: "loss1/conv"
  top: "loss1/fc"
  param {
    lr_mult: 1
    decay_mult: 1
  }
  param {
    lr_mult: 2
    decay_mult: 0
  }
  inner_product_param {
    num_output: 1024
    weight_filler {
      type: "xavier"
      std: 0.02
    }
    bias_filler {
      type: "constant"
      value: 0.2
    }
  }
}
layer {
  name: "loss1/relu_fc"
  type: "ReLU"
  bottom: "loss1/fc"
  top: "loss1/fc"
}
layer {
  name: "loss1/drop_fc"
  type: "Dropout"
  bottom: "loss1/fc"
  top: "loss1/fc"
  dropout_param {
    dropout_ratio: 0.7
  }
}
layer {
  name: "loss1/classifier_plantvillage"
  type: "InnerProduct"
  bottom: "loss1/fc"
  top: "loss1/classifier_plantvillage"
  param {
    lr_mult: 1
    decay_mult: 1
  }
  param {
    lr_mult: 2
    decay_mult: 0
  }
  inner_product_param {
    num_output: 38
    weight_filler {
      type: "xavier"
      std: 0.0009765625
    }
    bias_filler {
      type: "constant"
      value: 0
    }
  }
}
layer {
  name: "inception_4b/1x1"
  type: "Convolution"
  bottom: "inception_4a/output"
  top: "inception_4b/1x1"
  param {
    lr_mult: 1
    decay_mult: 1
  }
  param {
    lr_mult: 2
    decay_mult: 0
  }
  convolution_param {
    num_output: 160
    kernel_size: 1
    weight_filler {
      type: "xavier"
      std: 0.03
    }
    bias_filler {
      type: "constant"
      value: 0.2
    }
  }
}
layer {
  name: "inception_4b/relu_1x1"
  type: "ReLU"
  bottom: "inception_4b/1x1"
  top: "inception_4b/1x1"
}
layer {
  name: "inception_4b/3x3_reduce"
  type: "Convolution"
  bottom: "inception_4a/output"
  top: "inception_4b/3x3_reduce"
  param {
    lr_mult: 1
    decay_mult: 1
  }
  param {
    lr_mult: 2
    decay_mult: 0
  }
  convolution_param {
    num_output: 112
    kernel_size: 1
    weight_filler {
      type: "xavier"
      std: 0.09
    }
    bias_filler {
      type: "constant"
      value: 0.2
    }
  }
}
layer {
  name: "inception_4b/relu_3x3_reduce"
  type: "ReLU"
  bottom: "inception_4b/3x3_reduce"
  top: "inception_4b/3x3_reduce"
}
layer {
  name: "inception_4b/3x3"
  type: "Convolution"
  bottom: "inception_4b/3x3_reduce"
  top: "inception_4b/3x3"
  param {
    lr_mult: 1
    decay_mult: 1
  }
  param {
    lr_mult: 2
    decay_mult: 0
  }
  convolution_param {
    num_output: 224
    pad: 1
    kernel_size: 3
    weight_filler {
      type: "xavier"
      std: 0.03
    }
    bias_filler {
      type: "constant"
      value: 0.2
    }
  }
}
layer {
  name: "inception_4b/relu_3x3"
  type: "ReLU"
  bottom: "inception_4b/3x3"
  top: "inception_4b/3x3"
}
layer {
  name: "inception_4b/5x5_reduce"
  type: "Convolution"
  bottom: "inception_4a/output"
  top: "inception_4b/5x5_reduce"
  param {
    lr_mult: 1
    decay_mult: 1
  }
  param {
    lr_mult: 2
    decay_mult: 0
  }
  convolution_param {
    num_output: 24
    kernel_size: 1
    weight_filler {
      type: "xavier"
      std: 0.2
    }
    bias_filler {
      type: "constant"
      value: 0.2
    }
  }
}
layer {
  name: "inception_4b/relu_5x5_reduce"
  type: "ReLU"
  bottom: "inception_4b/5x5_reduce"
  top: "inception_4b/5x5_reduce"
}
layer {
  name: "inception_4b/5x5"
  type: "Convolution"
  bottom: "inception_4b/5x5_reduce"
  top: "inception_4b/5x5"
  param {
    lr_mult: 1
    decay_mult: 1
  }
  param {
    lr_mult: 2
    decay_mult: 0
  }
  convolution_param {
    num_output: 64
    pad: 2
    kernel_size: 5
    weight_filler {
      type: "xavier"
      std: 0.03
    }
    bias_filler {
      type: "constant"
      value: 0.2
    }
  }
}
layer {
  name: "inception_4b/relu_5x5"
  type: "ReLU"
  bottom: "inception_4b/5x5"
  top: "inception_4b/5x5"
}
layer {
  name: "inception_4b/pool"
  type: "Pooling"
  bottom: "inception_4a/output"
  top: "inception_4b/pool"
  pooling_param {
    pool: MAX
    kernel_size: 3
    stride: 1
    pad: 1
  }
}
layer {
  name: "inception_4b/pool_proj"
  type: "Convolution"
  bottom: "inception_4b/pool"
  top: "inception_4b/pool_proj"
  param {
    lr_mult: 1
    decay_mult: 1
  }
  param {
    lr_mult: 2
    decay_mult: 0
  }
  convolution_param {
    num_output: 64
    kernel_size: 1
    weight_filler {
      type: "xavier"
      std: 0.1
    }
    bias_filler {
      type: "constant"
      value: 0.2
    }
  }
}
layer {
  name: "inception_4b/relu_pool_proj"
  type: "ReLU"
  bottom: "inception_4b/pool_proj"
  top: "inception_4b/pool_proj"
}
layer {
  name: "inception_4b/output"
  type: "Concat"
  bottom: "inception_4b/1x1"
  bottom: "inception_4b/3x3"
  bottom: "inception_4b/5x5"
  bottom: "inception_4b/pool_proj"
  top: "inception_4b/output"
}
layer {
  name: "inception_4c/1x1"
  type: "Convolution"
  bottom: "inception_4b/output"
  top: "inception_4c/1x1"
  param {
    lr_mult: 1
    decay_mult: 1
  }
  param {
    lr_mult: 2
    decay_mult: 0
  }
  convolution_param {
    num_output: 128
    kernel_size: 1
    weight_filler {
      type: "xavier"
      std: 0.03
    }
    bias_filler {
      type: "constant"
      value: 0.2
    }
  }
}
layer {
  name: "inception_4c/relu_1x1"
  type: "ReLU"
  bottom: "inception_4c/1x1"
  top: "inception_4c/1x1"
}
layer {
  name: "inception_4c/3x3_reduce"
  type: "Convolution"
  bottom: "inception_4b/output"
  top: "inception_4c/3x3_reduce"
  param {
    lr_mult: 1
    decay_mult: 1
  }
  param {
    lr_mult: 2
    decay_mult: 0
  }
  convolution_param {
    num_output: 128
    kernel_size: 1
    weight_filler {
      type: "xavier"
      std: 0.09
    }
    bias_filler {
      type: "constant"
      value: 0.2
    }
  }
}
layer {
  name: "inception_4c/relu_3x3_reduce"
  type: "ReLU"
  bottom: "inception_4c/3x3_reduce"
  top: "inception_4c/3x3_reduce"
}
layer {
  name: "inception_4c/3x3"
  type: "Convolution"
  bottom: "inception_4c/3x3_reduce"
  top: "inception_4c/3x3"
  param {
    lr_mult: 1
    decay_mult: 1
  }
  param {
    lr_mult: 2
    decay_mult: 0
  }
  convolution_param {
    num_output: 256
    pad: 1
    kernel_size: 3
    weight_filler {
      type: "xavier"
      std: 0.03
    }
    bias_filler {
      type: "constant"
      value: 0.2
    }
  }
}
layer {
  name: "inception_4c/relu_3x3"
  type: "ReLU"
  bottom: "inception_4c/3x3"
  top: "inception_4c/3x3"
}
layer {
  name: "inception_4c/5x5_reduce"
  type: "Convolution"
  bottom: "inception_4b/output"
  top: "inception_4c/5x5_reduce"
  param {
    lr_mult: 1
    decay_mult: 1
  }
  param {
    lr_mult: 2
    decay_mult: 0
  }
  convolution_param {
    num_output: 24
    kernel_size: 1
    weight_filler {
      type: "xavier"
      std: 0.2
    }
    bias_filler {
      type: "constant"
      value: 0.2
    }
  }
}
layer {
  name: "inception_4c/relu_5x5_reduce"
  type: "ReLU"
  bottom: "inception_4c/5x5_reduce"
  top: "inception_4c/5x5_reduce"
}
layer {
  name: "inception_4c/5x5"
  type: "Convolution"
  bottom: "inception_4c/5x5_reduce"
  top: "inception_4c/5x5"
  param {
    lr_mult: 1
    decay_mult: 1
  }
  param {
    lr_mult: 2
    decay_mult: 0
  }
  convolution_param {
    num_output: 64
    pad: 2
    kernel_size: 5
    weight_filler {
      type: "xavier"
      std: 0.03
    }
    bias_filler {
      type: "constant"
      value: 0.2
    }
  }
}
layer {
  name: "inception_4c/relu_5x5"
  type: "ReLU"
  bottom: "inception_4c/5x5"
  top: "inception_4c/5x5"
}
layer {
  name: "inception_4c/pool"
  type: "Pooling"
  bottom: "inception_4b/output"
  top: "inception_4c/pool"
  pooling_param {
    pool: MAX
    kernel_size: 3
    stride: 1
    pad: 1
  }
}
layer {
  name: "inception_4c/pool_proj"
  type: "Convolution"
  bottom: "inception_4c/pool"
  top: "inception_4c/pool_proj"
  param {
    lr_mult: 1
    decay_mult: 1
  }
  param {
    lr_mult: 2
    decay_mult: 0
  }
  convolution_param {
    num_output: 64
    kernel_size: 1
    weight_filler {
      type: "xavier"
      std: 0.1
    }
    bias_filler {
      type: "constant"
      value: 0.2
    }
  }
}
layer {
  name: "inception_4c/relu_pool_proj"
  type: "ReLU"
  bottom: "inception_4c/pool_proj"
  top: "inception_4c/pool_proj"
}
layer {
  name: "inception_4c/output"
  type: "Concat"
  bottom: "inception_4c/1x1"
  bottom: "inception_4c/3x3"
  bottom: "inception_4c/5x5"
  bottom: "inception_4c/pool_proj"
  top: "inception_4c/output"
}
layer {
  name: "inception_4d/1x1"
  type: "Convolution"
  bottom: "inception_4c/output"
  top: "inception_4d/1x1"
  param {
    lr_mult: 1
    decay_mult: 1
  }
  param {
    lr_mult: 2
    decay_mult: 0
  }
  convolution_param {
    num_output: 112
    kernel_size: 1
    weight_filler {
      type: "xavier"
      std: 0.03
    }
    bias_filler {
      type: "constant"
      value: 0.2
    }
  }
}
layer {
  name: "inception_4d/relu_1x1"
  type: "ReLU"
  bottom: "inception_4d/1x1"
  top: "inception_4d/1x1"
}
layer {
  name: "inception_4d/3x3_reduce"
  type: "Convolution"
  bottom: "inception_4c/output"
  top: "inception_4d/3x3_reduce"
  param {
    lr_mult: 1
    decay_mult: 1
  }
  param {
    lr_mult: 2
    decay_mult: 0
  }
  convolution_param {
    num_output: 144
    kernel_size: 1
    weight_filler {
      type: "xavier"
      std: 0.09
    }
    bias_filler {
      type: "constant"
      value: 0.2
    }
  }
}
layer {
  name: "inception_4d/relu_3x3_reduce"
  type: "ReLU"
  bottom: "inception_4d/3x3_reduce"
  top: "inception_4d/3x3_reduce"
}
layer {
  name: "inception_4d/3x3"
  type: "Convolution"
  bottom: "inception_4d/3x3_reduce"
  top: "inception_4d/3x3"
  param {
    lr_mult: 1
    decay_mult: 1
  }
  param {
    lr_mult: 2
    decay_mult: 0
  }
  convolution_param {
    num_output: 288
    pad: 1
    kernel_size: 3
    weight_filler {
      type: "xavier"
      std: 0.03
    }
    bias_filler {
      type: "constant"
      value: 0.2
    }
  }
}
layer {
  name: "inception_4d/relu_3x3"
  type: "ReLU"
  bottom: "inception_4d/3x3"
  top: "inception_4d/3x3"
}
layer {
  name: "inception_4d/5x5_reduce"
  type: "Convolution"
  bottom: "inception_4c/output"
  top: "inception_4d/5x5_reduce"
  param {
    lr_mult: 1
    decay_mult: 1
  }
  param {
    lr_mult: 2
    decay_mult: 0
  }
  convolution_param {
    num_output: 32
    kernel_size: 1
    weight_filler {
      type: "xavier"
      std: 0.2
    }
    bias_filler {
      type: "constant"
      value: 0.2
    }
  }
}
layer {
  name: "inception_4d/relu_5x5_reduce"
  type: "ReLU"
  bottom: "inception_4d/5x5_reduce"
  top: "inception_4d/5x5_reduce"
}
layer {
  name: "inception_4d/5x5"
  type: "Convolution"
  bottom: "inception_4d/5x5_reduce"
  top: "inception_4d/5x5"
  param {
    lr_mult: 1
    decay_mult: 1
  }
  param {
    lr_mult: 2
    decay_mult: 0
  }
  convolution_param {
    num_output: 64
    pad: 2
    kernel_size: 5
    weight_filler {
      type: "xavier"
      std: 0.03
    }
    bias_filler {
      type: "constant"
      value: 0.2
    }
  }
}
layer {
  name: "inception_4d/relu_5x5"
  type: "ReLU"
  bottom: "inception_4d/5x5"
  top: "inception_4d/5x5"
}
layer {
  name: "inception_4d/pool"
  type: "Pooling"
  bottom: "inception_4c/output"
  top: "inception_4d/pool"
  pooling_param {
    pool: MAX
    kernel_size: 3
    stride: 1
    pad: 1
  }
}
layer {
  name: "inception_4d/pool_proj"
  type: "Convolution"
  bottom: "inception_4d/pool"
  top: "inception_4d/pool_proj"
  param {
    lr_mult: 1
    decay_mult: 1
  }
  param {
    lr_mult: 2
    decay_mult: 0
  }
  convolution_param {
    num_output: 64
    kernel_size: 1
    weight_filler {
      type: "xavier"
      std: 0.1
    }
    bias_filler {
      type: "constant"
      value: 0.2
    }
  }
}
layer {
  name: "inception_4d/relu_pool_proj"
  type: "ReLU"
  bottom: "inception_4d/pool_proj"
  top: "inception_4d/pool_proj"
}
layer {
  name: "inception_4d/output"
  type: "Concat"
  bottom: "inception_4d/1x1"
  bottom: "inception_4d/3x3"
  bottom: "inception_4d/5x5"
  bottom: "inception_4d/pool_proj"
  top: "inception_4d/output"
}
layer {
  name: "loss2/ave_pool"
  type: "Pooling"
  bottom: "inception_4d/output"
  top: "loss2/ave_pool"
  pooling_param {
    pool: AVE
    kernel_size: 5
    stride: 3
  }
}
layer {
  name: "loss2/conv"
  type: "Convolution"
  bottom: "loss2/ave_pool"
  top: "loss2/conv"
  param {
    lr_mult: 1
    decay_mult: 1
  }
  param {
    lr_mult: 2
    decay_mult: 0
  }
  convolution_param {
    num_output: 128
    kernel_size: 1
    weight_filler {
      type: "xavier"
      std: 0.08
    }
    bias_filler {
      type: "constant"
      value: 0.2
    }
  }
}
layer {
  name: "loss2/relu_conv"
  type: "ReLU"
  bottom: "loss2/conv"
  top: "loss2/conv"
}
layer {
  name: "loss2/fc"
  type: "InnerProduct"
  bottom: "loss2/conv"
  top: "loss2/fc"
  param {
    lr_mult: 1
    decay_mult: 1
  }
  param {
    lr_mult: 2
    decay_mult: 0
  }
  inner_product_param {
    num_output: 1024
    weight_filler {
      type: "xavier"
      std: 0.02
    }
    bias_filler {
      type: "constant"
      value: 0.2
    }
  }
}
layer {
  name: "loss2/relu_fc"
  type: "ReLU"
  bottom: "loss2/fc"
  top: "loss2/fc"
}
layer {
  name: "loss2/drop_fc"
  type: "Dropout"
  bottom: "loss2/fc"
  top: "loss2/fc"
  dropout_param {
    dropout_ratio: 0.7
  }
}
layer {
  name: "loss2/classifier_plantvillage"
  type: "InnerProduct"
  bottom: "loss2/fc"
  top: "loss2/classifier_plantvillage"
  param {
    lr_mult: 1
    decay_mult: 1
  }
  param {
    lr_mult: 2
    decay_mult: 0
  }
  inner_product_param {
    num_output: 38
    weight_filler {
      type: "xavier"
      std: 0.0009765625
    }
    bias_filler {
      type: "constant"
      value: 0
    }
  }
}
layer {
  name: "inception_4e/1x1"
  type: "Convolution"
  bottom: "inception_4d/output"
  top: "inception_4e/1x1"
  param {
    lr_mult: 1
    decay_mult: 1
  }
  param {
    lr_mult: 2
    decay_mult: 0
  }
  convolution_param {
    num_output: 256
    kernel_size: 1
    weight_filler {
      type: "xavier"
      std: 0.03
    }
    bias_filler {
      type: "constant"
      value: 0.2
    }
  }
}
layer {
  name: "inception_4e/relu_1x1"
  type: "ReLU"
  bottom: "inception_4e/1x1"
  top: "inception_4e/1x1"
}
layer {
  name: "inception_4e/3x3_reduce"
  type: "Convolution"
  bottom: "inception_4d/output"
  top: "inception_4e/3x3_reduce"
  param {
    lr_mult: 1
    decay_mult: 1
  }
  param {
    lr_mult: 2
    decay_mult: 0
  }
  convolution_param {
    num_output: 160
    kernel_size: 1
    weight_filler {
      type: "xavier"
      std: 0.09
    }
    bias_filler {
      type: "constant"
      value: 0.2
    }
  }
}
layer {
  name: "inception_4e/relu_3x3_reduce"
  type: "ReLU"
  bottom: "inception_4e/3x3_reduce"
  top: "inception_4e/3x3_reduce"
}
layer {
  name: "inception_4e/3x3"
  type: "Convolution"
  bottom: "inception_4e/3x3_reduce"
  top: "inception_4e/3x3"
  param {
    lr_mult: 1
    decay_mult: 1
  }
  param {
    lr_mult: 2
    decay_mult: 0
  }
  convolution_param {
    num_output: 320
    pad: 1
    kernel_size: 3
    weight_filler {
      type: "xavier"
      std: 0.03
    }
    bias_filler {
      type: "constant"
      value: 0.2
    }
  }
}
layer {
  name: "inception_4e/relu_3x3"
  type: "ReLU"
  bottom: "inception_4e/3x3"
  top: "inception_4e/3x3"
}
layer {
  name: "inception_4e/5x5_reduce"
  type: "Convolution"
  bottom: "inception_4d/output"
  top: "inception_4e/5x5_reduce"
  param {
    lr_mult: 1
    decay_mult: 1
  }
  param {
    lr_mult: 2
    decay_mult: 0
  }
  convolution_param {
    num_output: 32
    kernel_size: 1
    weight_filler {
      type: "xavier"
      std: 0.2
    }
    bias_filler {
      type: "constant"
      value: 0.2
    }
  }
}
layer {
  name: "inception_4e/relu_5x5_reduce"
  type: "ReLU"
  bottom: "inception_4e/5x5_reduce"
  top: "inception_4e/5x5_reduce"
}
layer {
  name: "inception_4e/5x5"
  type: "Convolution"
  bottom: "inception_4e/5x5_reduce"
  top: "inception_4e/5x5"
  p
I0403 15:00:10.678728 13993 layer_factory.hpp:77] Creating layer data
I0403 15:00:10.679349 13993 net.cpp:91] Creating Layer data
I0403 15:00:10.679383 13993 net.cpp:399] data -> data
I0403 15:00:10.679433 13993 net.cpp:399] data -> label
I0403 15:00:10.679471 13993 data_transformer.cpp:25] Loading mean file from: /home/mohanty/data/final_dataset/lmdb/color-50-50/mean.binaryproto
I0403 15:00:10.701184 13998 db_lmdb.cpp:38] Opened lmdb /home/mohanty/data/final_dataset/lmdb/color-50-50/test_db
I0403 15:00:10.703243 13993 data_layer.cpp:41] output data size: 24,3,224,224
I0403 15:00:10.730340 13993 net.cpp:141] Setting up data
I0403 15:00:10.730413 13993 net.cpp:148] Top shape: 24 3 224 224 (3612672)
I0403 15:00:10.730437 13993 net.cpp:148] Top shape: 24 (24)
I0403 15:00:10.730451 13993 net.cpp:156] Memory required for data: 14450784
I0403 15:00:10.730479 13993 layer_factory.hpp:77] Creating layer label_data_1_split
I0403 15:00:10.730505 13993 net.cpp:91] Creating Layer label_data_1_split
I0403 15:00:10.730523 13993 net.cpp:425] label_data_1_split <- label
I0403 15:00:10.730559 13993 net.cpp:399] label_data_1_split -> label_data_1_split_0
I0403 15:00:10.730588 13993 net.cpp:399] label_data_1_split -> label_data_1_split_1
I0403 15:00:10.730609 13993 net.cpp:399] label_data_1_split -> label_data_1_split_2
I0403 15:00:10.730629 13993 net.cpp:399] label_data_1_split -> label_data_1_split_3
I0403 15:00:10.730649 13993 net.cpp:399] label_data_1_split -> label_data_1_split_4
I0403 15:00:10.730669 13993 net.cpp:399] label_data_1_split -> label_data_1_split_5
I0403 15:00:10.730689 13993 net.cpp:399] label_data_1_split -> label_data_1_split_6
I0403 15:00:10.730708 13993 net.cpp:399] label_data_1_split -> label_data_1_split_7
I0403 15:00:10.730727 13993 net.cpp:399] label_data_1_split -> label_data_1_split_8
I0403 15:00:10.730747 13993 net.cpp:399] label_data_1_split -> label_data_1_split_9
I0403 15:00:10.730865 13993 net.cpp:141] Setting up label_data_1_split
I0403 15:00:10.730890 13993 net.cpp:148] Top shape: 24 (24)
I0403 15:00:10.730907 13993 net.cpp:148] Top shape: 24 (24)
I0403 15:00:10.730923 13993 net.cpp:148] Top shape: 24 (24)
I0403 15:00:10.730938 13993 net.cpp:148] Top shape: 24 (24)
I0403 15:00:10.730954 13993 net.cpp:148] Top shape: 24 (24)
I0403 15:00:10.730969 13993 net.cpp:148] Top shape: 24 (24)
I0403 15:00:10.730984 13993 net.cpp:148] Top shape: 24 (24)
I0403 15:00:10.731000 13993 net.cpp:148] Top shape: 24 (24)
I0403 15:00:10.731015 13993 net.cpp:148] Top shape: 24 (24)
I0403 15:00:10.731030 13993 net.cpp:148] Top shape: 24 (24)
I0403 15:00:10.731076 13993 net.cpp:156] Memory required for data: 14451744
I0403 15:00:10.731092 13993 layer_factory.hpp:77] Creating layer conv1/7x7_s2
I0403 15:00:10.731123 13993 net.cpp:91] Creating Layer conv1/7x7_s2
I0403 15:00:10.731142 13993 net.cpp:425] conv1/7x7_s2 <- data
I0403 15:00:10.731163 13993 net.cpp:399] conv1/7x7_s2 -> conv1/7x7_s2
I0403 15:00:10.872413 13993 net.cpp:141] Setting up conv1/7x7_s2
I0403 15:00:10.872488 13993 net.cpp:148] Top shape: 24 64 112 112 (19267584)
I0403 15:00:10.872506 13993 net.cpp:156] Memory required for data: 91522080
I0403 15:00:10.872540 13993 layer_factory.hpp:77] Creating layer conv1/relu_7x7
I0403 15:00:10.872568 13993 net.cpp:91] Creating Layer conv1/relu_7x7
I0403 15:00:10.872586 13993 net.cpp:425] conv1/relu_7x7 <- conv1/7x7_s2
I0403 15:00:10.872606 13993 net.cpp:386] conv1/relu_7x7 -> conv1/7x7_s2 (in-place)
I0403 15:00:10.872858 13993 net.cpp:141] Setting up conv1/relu_7x7
I0403 15:00:10.872884 13993 net.cpp:148] Top shape: 24 64 112 112 (19267584)
I0403 15:00:10.872900 13993 net.cpp:156] Memory required for data: 168592416
I0403 15:00:10.872913 13993 layer_factory.hpp:77] Creating layer pool1/3x3_s2
I0403 15:00:10.872936 13993 net.cpp:91] Creating Layer pool1/3x3_s2
I0403 15:00:10.872953 13993 net.cpp:425] pool1/3x3_s2 <- conv1/7x7_s2
I0403 15:00:10.872970 13993 net.cpp:399] pool1/3x3_s2 -> pool1/3x3_s2
I0403 15:00:10.873041 13993 net.cpp:141] Setting up pool1/3x3_s2
I0403 15:00:10.873065 13993 net.cpp:148] Top shape: 24 64 56 56 (4816896)
I0403 15:00:10.873080 13993 net.cpp:156] Memory required for data: 187860000
I0403 15:00:10.873093 13993 layer_factory.hpp:77] Creating layer pool1/norm1
I0403 15:00:10.873116 13993 net.cpp:91] Creating Layer pool1/norm1
I0403 15:00:10.873132 13993 net.cpp:425] pool1/norm1 <- pool1/3x3_s2
I0403 15:00:10.873149 13993 net.cpp:399] pool1/norm1 -> pool1/norm1
I0403 15:00:10.873430 13993 net.cpp:141] Setting up pool1/norm1
I0403 15:00:10.873456 13993 net.cpp:148] Top shape: 24 64 56 56 (4816896)
I0403 15:00:10.873471 13993 net.cpp:156] Memory required for data: 207127584
I0403 15:00:10.873486 13993 layer_factory.hpp:77] Creating layer conv2/3x3_reduce
I0403 15:00:10.873509 13993 net.cpp:91] Creating Layer conv2/3x3_reduce
I0403 15:00:10.873525 13993 net.cpp:425] conv2/3x3_reduce <- pool1/norm1
I0403 15:00:10.873548 13993 net.cpp:399] conv2/3x3_reduce -> conv2/3x3_reduce
I0403 15:00:10.874951 13993 net.cpp:141] Setting up conv2/3x3_reduce
I0403 15:00:10.874980 13993 net.cpp:148] Top shape: 24 64 56 56 (4816896)
I0403 15:00:10.874996 13993 net.cpp:156] Memory required for data: 226395168
I0403 15:00:10.875017 13993 layer_factory.hpp:77] Creating layer conv2/relu_3x3_reduce
I0403 15:00:10.875036 13993 net.cpp:91] Creating Layer conv2/relu_3x3_reduce
I0403 15:00:10.875051 13993 net.cpp:425] conv2/relu_3x3_reduce <- conv2/3x3_reduce
I0403 15:00:10.875067 13993 net.cpp:386] conv2/relu_3x3_reduce -> conv2/3x3_reduce (in-place)
I0403 15:00:10.875313 13993 net.cpp:141] Setting up conv2/relu_3x3_reduce
I0403 15:00:10.875339 13993 net.cpp:148] Top shape: 24 64 56 56 (4816896)
I0403 15:00:10.875355 13993 net.cpp:156] Memory required for data: 245662752
I0403 15:00:10.875368 13993 layer_factory.hpp:77] Creating layer conv2/3x3
I0403 15:00:10.875391 13993 net.cpp:91] Creating Layer conv2/3x3
I0403 15:00:10.875406 13993 net.cpp:425] conv2/3x3 <- conv2/3x3_reduce
I0403 15:00:10.875423 13993 net.cpp:399] conv2/3x3 -> conv2/3x3
I0403 15:00:10.877689 13993 net.cpp:141] Setting up conv2/3x3
I0403 15:00:10.877719 13993 net.cpp:148] Top shape: 24 192 56 56 (14450688)
I0403 15:00:10.877735 13993 net.cpp:156] Memory required for data: 303465504
I0403 15:00:10.877756 13993 layer_factory.hpp:77] Creating layer conv2/relu_3x3
I0403 15:00:10.877774 13993 net.cpp:91] Creating Layer conv2/relu_3x3
I0403 15:00:10.877789 13993 net.cpp:425] conv2/relu_3x3 <- conv2/3x3
I0403 15:00:10.877805 13993 net.cpp:386] conv2/relu_3x3 -> conv2/3x3 (in-place)
I0403 15:00:10.877962 13993 net.cpp:141] Setting up conv2/relu_3x3
I0403 15:00:10.877987 13993 net.cpp:148] Top shape: 24 192 56 56 (14450688)
I0403 15:00:10.878031 13993 net.cpp:156] Memory required for data: 361268256
I0403 15:00:10.878047 13993 layer_factory.hpp:77] Creating layer conv2/norm2
I0403 15:00:10.878065 13993 net.cpp:91] Creating Layer conv2/norm2
I0403 15:00:10.878082 13993 net.cpp:425] conv2/norm2 <- conv2/3x3
I0403 15:00:10.878098 13993 net.cpp:399] conv2/norm2 -> conv2/norm2
I0403 15:00:10.878376 13993 net.cpp:141] Setting up conv2/norm2
I0403 15:00:10.878401 13993 net.cpp:148] Top shape: 24 192 56 56 (14450688)
I0403 15:00:10.878417 13993 net.cpp:156] Memory required for data: 419071008
I0403 15:00:10.878432 13993 layer_factory.hpp:77] Creating layer pool2/3x3_s2
I0403 15:00:10.878448 13993 net.cpp:91] Creating Layer pool2/3x3_s2
I0403 15:00:10.878463 13993 net.cpp:425] pool2/3x3_s2 <- conv2/norm2
I0403 15:00:10.878479 13993 net.cpp:399] pool2/3x3_s2 -> pool2/3x3_s2
I0403 15:00:10.878527 13993 net.cpp:141] Setting up pool2/3x3_s2
I0403 15:00:10.878554 13993 net.cpp:148] Top shape: 24 192 28 28 (3612672)
I0403 15:00:10.878571 13993 net.cpp:156] Memory required for data: 433521696
I0403 15:00:10.878584 13993 layer_factory.hpp:77] Creating layer pool2/3x3_s2_pool2/3x3_s2_0_split
I0403 15:00:10.878600 13993 net.cpp:91] Creating Layer pool2/3x3_s2_pool2/3x3_s2_0_split
I0403 15:00:10.878614 13993 net.cpp:425] pool2/3x3_s2_pool2/3x3_s2_0_split <- pool2/3x3_s2
I0403 15:00:10.878630 13993 net.cpp:399] pool2/3x3_s2_pool2/3x3_s2_0_split -> pool2/3x3_s2_pool2/3x3_s2_0_split_0
I0403 15:00:10.878648 13993 net.cpp:399] pool2/3x3_s2_pool2/3x3_s2_0_split -> pool2/3x3_s2_pool2/3x3_s2_0_split_1
I0403 15:00:10.878667 13993 net.cpp:399] pool2/3x3_s2_pool2/3x3_s2_0_split -> pool2/3x3_s2_pool2/3x3_s2_0_split_2
I0403 15:00:10.878685 13993 net.cpp:399] pool2/3x3_s2_pool2/3x3_s2_0_split -> pool2/3x3_s2_pool2/3x3_s2_0_split_3
I0403 15:00:10.878747 13993 net.cpp:141] Setting up pool2/3x3_s2_pool2/3x3_s2_0_split
I0403 15:00:10.878769 13993 net.cpp:148] Top shape: 24 192 28 28 (3612672)
I0403 15:00:10.878785 13993 net.cpp:148] Top shape: 24 192 28 28 (3612672)
I0403 15:00:10.878800 13993 net.cpp:148] Top shape: 24 192 28 28 (3612672)
I0403 15:00:10.878814 13993 net.cpp:148] Top shape: 24 192 28 28 (3612672)
I0403 15:00:10.878828 13993 net.cpp:156] Memory required for data: 491324448
I0403 15:00:10.878840 13993 layer_factory.hpp:77] Creating layer inception_3a/1x1
I0403 15:00:10.878859 13993 net.cpp:91] Creating Layer inception_3a/1x1
I0403 15:00:10.878875 13993 net.cpp:425] inception_3a/1x1 <- pool2/3x3_s2_pool2/3x3_s2_0_split_0
I0403 15:00:10.878893 13993 net.cpp:399] inception_3a/1x1 -> inception_3a/1x1
I0403 15:00:10.880381 13993 net.cpp:141] Setting up inception_3a/1x1
I0403 15:00:10.880409 13993 net.cpp:148] Top shape: 24 64 28 28 (1204224)
I0403 15:00:10.880425 13993 net.cpp:156] Memory required for data: 496141344
I0403 15:00:10.880444 13993 layer_factory.hpp:77] Creating layer inception_3a/relu_1x1
I0403 15:00:10.880461 13993 net.cpp:91] Creating Layer inception_3a/relu_1x1
I0403 15:00:10.880475 13993 net.cpp:425] inception_3a/relu_1x1 <- inception_3a/1x1
I0403 15:00:10.880497 13993 net.cpp:386] inception_3a/relu_1x1 -> inception_3a/1x1 (in-place)
I0403 15:00:10.880671 13993 net.cpp:141] Setting up inception_3a/relu_1x1
I0403 15:00:10.880695 13993 net.cpp:148] Top shape: 24 64 28 28 (1204224)
I0403 15:00:10.880710 13993 net.cpp:156] Memory required for data: 500958240
I0403 15:00:10.880724 13993 layer_factory.hpp:77] Creating layer inception_3a/3x3_reduce
I0403 15:00:10.880745 13993 net.cpp:91] Creating Layer inception_3a/3x3_reduce
I0403 15:00:10.880761 13993 net.cpp:425] inception_3a/3x3_reduce <- pool2/3x3_s2_pool2/3x3_s2_0_split_1
I0403 15:00:10.880782 13993 net.cpp:399] inception_3a/3x3_reduce -> inception_3a/3x3_reduce
I0403 15:00:10.882522 13993 net.cpp:141] Setting up inception_3a/3x3_reduce
I0403 15:00:10.882555 13993 net.cpp:148] Top shape: 24 96 28 28 (1806336)
I0403 15:00:10.882572 13993 net.cpp:156] Memory required for data: 508183584
I0403 15:00:10.882594 13993 layer_factory.hpp:77] Creating layer inception_3a/relu_3x3_reduce
I0403 15:00:10.882632 13993 net.cpp:91] Creating Layer inception_3a/relu_3x3_reduce
I0403 15:00:10.882649 13993 net.cpp:425] inception_3a/relu_3x3_reduce <- inception_3a/3x3_reduce
I0403 15:00:10.882666 13993 net.cpp:386] inception_3a/relu_3x3_reduce -> inception_3a/3x3_reduce (in-place)
I0403 15:00:10.882846 13993 net.cpp:141] Setting up inception_3a/relu_3x3_reduce
I0403 15:00:10.882871 13993 net.cpp:148] Top shape: 24 96 28 28 (1806336)
I0403 15:00:10.882886 13993 net.cpp:156] Memory required for data: 515408928
I0403 15:00:10.882900 13993 layer_factory.hpp:77] Creating layer inception_3a/3x3
I0403 15:00:10.882923 13993 net.cpp:91] Creating Layer inception_3a/3x3
I0403 15:00:10.882941 13993 net.cpp:425] inception_3a/3x3 <- inception_3a/3x3_reduce
I0403 15:00:10.882961 13993 net.cpp:399] inception_3a/3x3 -> inception_3a/3x3
I0403 15:00:10.884668 13993 net.cpp:141] Setting up inception_3a/3x3
I0403 15:00:10.884697 13993 net.cpp:148] Top shape: 24 128 28 28 (2408448)
I0403 15:00:10.884712 13993 net.cpp:156] Memory required for data: 525042720
I0403 15:00:10.884730 13993 layer_factory.hpp:77] Creating layer inception_3a/relu_3x3
I0403 15:00:10.884750 13993 net.cpp:91] Creating Layer inception_3a/relu_3x3
I0403 15:00:10.884766 13993 net.cpp:425] inception_3a/relu_3x3 <- inception_3a/3x3
I0403 15:00:10.884783 13993 net.cpp:386] inception_3a/relu_3x3 -> inception_3a/3x3 (in-place)
I0403 15:00:10.885057 13993 net.cpp:141] Setting up inception_3a/relu_3x3
I0403 15:00:10.885083 13993 net.cpp:148] Top shape: 24 128 28 28 (2408448)
I0403 15:00:10.885098 13993 net.cpp:156] Memory required for data: 534676512
I0403 15:00:10.885113 13993 layer_factory.hpp:77] Creating layer inception_3a/5x5_reduce
I0403 15:00:10.885135 13993 net.cpp:91] Creating Layer inception_3a/5x5_reduce
I0403 15:00:10.885152 13993 net.cpp:425] inception_3a/5x5_reduce <- pool2/3x3_s2_pool2/3x3_s2_0_split_2
I0403 15:00:10.885172 13993 net.cpp:399] inception_3a/5x5_reduce -> inception_3a/5x5_reduce
I0403 15:00:10.886126 13993 net.cpp:141] Setting up inception_3a/5x5_reduce
I0403 15:00:10.886154 13993 net.cpp:148] Top shape: 24 16 28 28 (301056)
I0403 15:00:10.886169 13993 net.cpp:156] Memory required for data: 535880736
I0403 15:00:10.886188 13993 layer_factory.hpp:77] Creating layer inception_3a/relu_5x5_reduce
I0403 15:00:10.886206 13993 net.cpp:91] Creating Layer inception_3a/relu_5x5_reduce
I0403 15:00:10.886222 13993 net.cpp:425] inception_3a/relu_5x5_reduce <- inception_3a/5x5_reduce
I0403 15:00:10.886240 13993 net.cpp:386] inception_3a/relu_5x5_reduce -> inception_3a/5x5_reduce (in-place)
I0403 15:00:10.886546 13993 net.cpp:141] Setting up inception_3a/relu_5x5_reduce
I0403 15:00:10.886575 13993 net.cpp:148] Top shape: 24 16 28 28 (301056)
I0403 15:00:10.886590 13993 net.cpp:156] Memory required for data: 537084960
I0403 15:00:10.886605 13993 layer_factory.hpp:77] Creating layer inception_3a/5x5
I0403 15:00:10.886626 13993 net.cpp:91] Creating Layer inception_3a/5x5
I0403 15:00:10.886642 13993 net.cpp:425] inception_3a/5x5 <- inception_3a/5x5_reduce
I0403 15:00:10.886661 13993 net.cpp:399] inception_3a/5x5 -> inception_3a/5x5
I0403 15:00:10.887668 13993 net.cpp:141] Setting up inception_3a/5x5
I0403 15:00:10.887696 13993 net.cpp:148] Top shape: 24 32 28 28 (602112)
I0403 15:00:10.887711 13993 net.cpp:156] Memory required for data: 539493408
I0403 15:00:10.887728 13993 layer_factory.hpp:77] Creating layer inception_3a/relu_5x5
I0403 15:00:10.887748 13993 net.cpp:91] Creating Layer inception_3a/relu_5x5
I0403 15:00:10.887764 13993 net.cpp:425] inception_3a/relu_5x5 <- inception_3a/5x5
I0403 15:00:10.887781 13993 net.cpp:386] inception_3a/relu_5x5 -> inception_3a/5x5 (in-place)
I0403 15:00:10.887953 13993 net.cpp:141] Setting up inception_3a/relu_5x5
I0403 15:00:10.887980 13993 net.cpp:148] Top shape: 24 32 28 28 (602112)
I0403 15:00:10.887996 13993 net.cpp:156] Memory required for data: 541901856
I0403 15:00:10.888010 13993 layer_factory.hpp:77] Creating layer inception_3a/pool
I0403 15:00:10.888026 13993 net.cpp:91] Creating Layer inception_3a/pool
I0403 15:00:10.888041 13993 net.cpp:425] inception_3a/pool <- pool2/3x3_s2_pool2/3x3_s2_0_split_3
I0403 15:00:10.888073 13993 net.cpp:399] inception_3a/pool -> inception_3a/pool
I0403 15:00:10.888131 13993 net.cpp:141] Setting up inception_3a/pool
I0403 15:00:10.888155 13993 net.cpp:148] Top shape: 24 192 28 28 (3612672)
I0403 15:00:10.888169 13993 net.cpp:156] Memory required for data: 556352544
I0403 15:00:10.888182 13993 layer_factory.hpp:77] Creating layer inception_3a/pool_proj
I0403 15:00:10.888203 13993 net.cpp:91] Creating Layer inception_3a/pool_proj
I0403 15:00:10.888221 13993 net.cpp:425] inception_3a/pool_proj <- inception_3a/pool
I0403 15:00:10.888242 13993 net.cpp:399] inception_3a/pool_proj -> inception_3a/pool_proj
I0403 15:00:10.889199 13993 net.cpp:141] Setting up inception_3a/pool_proj
I0403 15:00:10.889226 13993 net.cpp:148] Top shape: 24 32 28 28 (602112)
I0403 15:00:10.889242 13993 net.cpp:156] Memory required for data: 558760992
I0403 15:00:10.889263 13993 layer_factory.hpp:77] Creating layer inception_3a/relu_pool_proj
I0403 15:00:10.889284 13993 net.cpp:91] Creating Layer inception_3a/relu_pool_proj
I0403 15:00:10.889299 13993 net.cpp:425] inception_3a/relu_pool_proj <- inception_3a/pool_proj
I0403 15:00:10.889317 13993 net.cpp:386] inception_3a/relu_pool_proj -> inception_3a/pool_proj (in-place)
I0403 15:00:10.889593 13993 net.cpp:141] Setting up inception_3a/relu_pool_proj
I0403 15:00:10.889619 13993 net.cpp:148] Top shape: 24 32 28 28 (602112)
I0403 15:00:10.889634 13993 net.cpp:156] Memory required for data: 561169440
I0403 15:00:10.889648 13993 layer_factory.hpp:77] Creating layer inception_3a/output
I0403 15:00:10.889664 13993 net.cpp:91] Creating Layer inception_3a/output
I0403 15:00:10.889679 13993 net.cpp:425] inception_3a/output <- inception_3a/1x1
I0403 15:00:10.889698 13993 net.cpp:425] inception_3a/output <- inception_3a/3x3
I0403 15:00:10.889714 13993 net.cpp:425] inception_3a/output <- inception_3a/5x5
I0403 15:00:10.889729 13993 net.cpp:425] inception_3a/output <- inception_3a/pool_proj
I0403 15:00:10.889745 13993 net.cpp:399] inception_3a/output -> inception_3a/output
I0403 15:00:10.889791 13993 net.cpp:141] Setting up inception_3a/output
I0403 15:00:10.889814 13993 net.cpp:148] Top shape: 24 256 28 28 (4816896)
I0403 15:00:10.889828 13993 net.cpp:156] Memory required for data: 580437024
I0403 15:00:10.889842 13993 layer_factory.hpp:77] Creating layer inception_3a/output_inception_3a/output_0_split
I0403 15:00:10.889858 13993 net.cpp:91] Creating Layer inception_3a/output_inception_3a/output_0_split
I0403 15:00:10.889873 13993 net.cpp:425] inception_3a/output_inception_3a/output_0_split <- inception_3a/output
I0403 15:00:10.889890 13993 net.cpp:399] inception_3a/output_inception_3a/output_0_split -> inception_3a/output_inception_3a/output_0_split_0
I0403 15:00:10.889910 13993 net.cpp:399] inception_3a/output_inception_3a/output_0_split -> inception_3a/output_inception_3a/output_0_split_1
I0403 15:00:10.889932 13993 net.cpp:399] inception_3a/output_inception_3a/output_0_split -> inception_3a/output_inception_3a/output_0_split_2
I0403 15:00:10.889955 13993 net.cpp:399] inception_3a/output_inception_3a/output_0_split -> inception_3a/output_inception_3a/output_0_split_3
I0403 15:00:10.890030 13993 net.cpp:141] Setting up inception_3a/output_inception_3a/output_0_split
I0403 15:00:10.890053 13993 net.cpp:148] Top shape: 24 256 28 28 (4816896)
I0403 15:00:10.890069 13993 net.cpp:148] Top shape: 24 256 28 28 (4816896)
I0403 15:00:10.890084 13993 net.cpp:148] Top shape: 24 256 28 28 (4816896)
I0403 15:00:10.890099 13993 net.cpp:148] Top shape: 24 256 28 28 (4816896)
I0403 15:00:10.890111 13993 net.cpp:156] Memory required for data: 657507360
I0403 15:00:10.890125 13993 layer_factory.hpp:77] Creating layer inception_3b/1x1
I0403 15:00:10.890146 13993 net.cpp:91] Creating Layer inception_3b/1x1
I0403 15:00:10.890162 13993 net.cpp:425] inception_3b/1x1 <- inception_3a/output_inception_3a/output_0_split_0
I0403 15:00:10.890182 13993 net.cpp:399] inception_3b/1x1 -> inception_3b/1x1
I0403 15:00:10.891309 13993 net.cpp:141] Setting up inception_3b/1x1
I0403 15:00:10.891348 13993 net.cpp:148] Top shape: 24 128 28 28 (2408448)
I0403 15:00:10.891365 13993 net.cpp:156] Memory required for data: 667141152
I0403 15:00:10.891381 13993 layer_factory.hpp:77] Creating layer inception_3b/relu_1x1
I0403 15:00:10.891398 13993 net.cpp:91] Creating Layer inception_3b/relu_1x1
I0403 15:00:10.891418 13993 net.cpp:425] inception_3b/relu_1x1 <- inception_3b/1x1
I0403 15:00:10.891435 13993 net.cpp:386] inception_3b/relu_1x1 -> inception_3b/1x1 (in-place)
I0403 15:00:10.891608 13993 net.cpp:141] Setting up inception_3b/relu_1x1
I0403 15:00:10.891634 13993 net.cpp:148] Top shape: 24 128 28 28 (2408448)
I0403 15:00:10.891649 13993 net.cpp:156] Memory required for data: 676774944
I0403 15:00:10.891662 13993 layer_factory.hpp:77] Creating layer inception_3b/3x3_reduce
I0403 15:00:10.891683 13993 net.cpp:91] Creating Layer inception_3b/3x3_reduce
I0403 15:00:10.891700 13993 net.cpp:425] inception_3b/3x3_reduce <- inception_3a/output_inception_3a/output_0_split_1
I0403 15:00:10.891721 13993 net.cpp:399] inception_3b/3x3_reduce -> inception_3b/3x3_reduce
I0403 15:00:10.892848 13993 net.cpp:141] Setting up inception_3b/3x3_reduce
I0403 15:00:10.892876 13993 net.cpp:148] Top shape: 24 128 28 28 (2408448)
I0403 15:00:10.892891 13993 net.cpp:156] Memory required for data: 686408736
I0403 15:00:10.892909 13993 layer_factory.hpp:77] Creating layer inception_3b/relu_3x3_reduce
I0403 15:00:10.892925 13993 net.cpp:91] Creating Layer inception_3b/relu_3x3_reduce
I0403 15:00:10.892941 13993 net.cpp:425] inception_3b/relu_3x3_reduce <- inception_3b/3x3_reduce
I0403 15:00:10.892959 13993 net.cpp:386] inception_3b/relu_3x3_reduce -> inception_3b/3x3_reduce (in-place)
I0403 15:00:10.893136 13993 net.cpp:141] Setting up inception_3b/relu_3x3_reduce
I0403 15:00:10.893159 13993 net.cpp:148] Top shape: 24 128 28 28 (2408448)
I0403 15:00:10.893173 13993 net.cpp:156] Memory required for data: 696042528
I0403 15:00:10.893187 13993 layer_factory.hpp:77] Creating layer inception_3b/3x3
I0403 15:00:10.893213 13993 net.cpp:91] Creating Layer inception_3b/3x3
I0403 15:00:10.893231 13993 net.cpp:425] inception_3b/3x3 <- inception_3b/3x3_reduce
I0403 15:00:10.893249 13993 net.cpp:399] inception_3b/3x3 -> inception_3b/3x3
I0403 15:00:10.896132 13993 net.cpp:141] Setting up inception_3b/3x3
I0403 15:00:10.896160 13993 net.cpp:148] Top shape: 24 192 28 28 (3612672)
I0403 15:00:10.896175 13993 net.cpp:156] Memory required for data: 710493216
I0403 15:00:10.896193 13993 layer_factory.hpp:77] Creating layer inception_3b/relu_3x3
I0403 15:00:10.896212 13993 net.cpp:91] Creating Layer inception_3b/relu_3x3
I0403 15:00:10.896229 13993 net.cpp:425] inception_3b/relu_3x3 <- inception_3b/3x3
I0403 15:00:10.896245 13993 net.cpp:386] inception_3b/relu_3x3 -> inception_3b/3x3 (in-place)
I0403 15:00:10.896519 13993 net.cpp:141] Setting up inception_3b/relu_3x3
I0403 15:00:10.896550 13993 net.cpp:148] Top shape: 24 192 28 28 (3612672)
I0403 15:00:10.896565 13993 net.cpp:156] Memory required for data: 724943904
I0403 15:00:10.896579 13993 layer_factory.hpp:77] Creating layer inception_3b/5x5_reduce
I0403 15:00:10.896602 13993 net.cpp:91] Creating Layer inception_3b/5x5_reduce
I0403 15:00:10.896620 13993 net.cpp:425] inception_3b/5x5_reduce <- inception_3a/output_inception_3a/output_0_split_2
I0403 15:00:10.896642 13993 net.cpp:399] inception_3b/5x5_reduce -> inception_3b/5x5_reduce
I0403 15:00:10.897676 13993 net.cpp:141] Setting up inception_3b/5x5_reduce
I0403 15:00:10.897704 13993 net.cpp:148] Top shape: 24 32 28 28 (602112)
I0403 15:00:10.897721 13993 net.cpp:156] Memory required for data: 727352352
I0403 15:00:10.897738 13993 layer_factory.hpp:77] Creating layer inception_3b/relu_5x5_reduce
I0403 15:00:10.897759 13993 net.cpp:91] Creating Layer inception_3b/relu_5x5_reduce
I0403 15:00:10.897776 13993 net.cpp:425] inception_3b/relu_5x5_reduce <- inception_3b/5x5_reduce
I0403 15:00:10.897794 13993 net.cpp:386] inception_3b/relu_5x5_reduce -> inception_3b/5x5_reduce (in-place)
I0403 15:00:10.897979 13993 net.cpp:141] Setting up inception_3b/relu_5x5_reduce
I0403 15:00:10.898020 13993 net.cpp:148] Top shape: 24 32 28 28 (602112)
I0403 15:00:10.898036 13993 net.cpp:156] Memory required for data: 729760800
I0403 15:00:10.898051 13993 layer_factory.hpp:77] Creating layer inception_3b/5x5
I0403 15:00:10.898072 13993 net.cpp:91] Creating Layer inception_3b/5x5
I0403 15:00:10.898090 13993 net.cpp:425] inception_3b/5x5 <- inception_3b/5x5_reduce
I0403 15:00:10.898109 13993 net.cpp:399] inception_3b/5x5 -> inception_3b/5x5
I0403 15:00:10.900115 13993 net.cpp:141] Setting up inception_3b/5x5
I0403 15:00:10.900146 13993 net.cpp:148] Top shape: 24 96 28 28 (1806336)
I0403 15:00:10.900161 13993 net.cpp:156] Memory required for data: 736986144
I0403 15:00:10.900179 13993 layer_factory.hpp:77] Creating layer inception_3b/relu_5x5
I0403 15:00:10.900197 13993 net.cpp:91] Creating Layer inception_3b/relu_5x5
I0403 15:00:10.900213 13993 net.cpp:425] inception_3b/relu_5x5 <- inception_3b/5x5
I0403 15:00:10.900233 13993 net.cpp:386] inception_3b/relu_5x5 -> inception_3b/5x5 (in-place)
I0403 15:00:10.900447 13993 net.cpp:141] Setting up inception_3b/relu_5x5
I0403 15:00:10.900475 13993 net.cpp:148] Top shape: 24 96 28 28 (1806336)
I0403 15:00:10.900490 13993 net.cpp:156] Memory required for data: 744211488
I0403 15:00:10.900506 13993 layer_factory.hpp:77] Creating layer inception_3b/pool
I0403 15:00:10.900524 13993 net.cpp:91] Creating Layer inception_3b/pool
I0403 15:00:10.900557 13993 net.cpp:425] inception_3b/pool <- inception_3a/output_inception_3a/output_0_split_3
I0403 15:00:10.900578 13993 net.cpp:399] inception_3b/pool -> inception_3b/pool
I0403 15:00:10.900634 13993 net.cpp:141] Setting up inception_3b/pool
I0403 15:00:10.900656 13993 net.cpp:148] Top shape: 24 256 28 28 (4816896)
I0403 15:00:10.900671 13993 net.cpp:156] Memory required for data: 763479072
I0403 15:00:10.900684 13993 layer_factory.hpp:77] Creating layer inception_3b/pool_proj
I0403 15:00:10.900707 13993 net.cpp:91] Creating Layer inception_3b/pool_proj
I0403 15:00:10.900724 13993 net.cpp:425] inception_3b/pool_proj <- inception_3b/pool
I0403 15:00:10.900745 13993 net.cpp:399] inception_3b/pool_proj -> inception_3b/pool_proj
I0403 15:00:10.901818 13993 net.cpp:141] Setting up inception_3b/pool_proj
I0403 15:00:10.901849 13993 net.cpp:148] Top shape: 24 64 28 28 (1204224)
I0403 15:00:10.901865 13993 net.cpp:156] Memory required for data: 768295968
I0403 15:00:10.901883 13993 layer_factory.hpp:77] Creating layer inception_3b/relu_pool_proj
I0403 15:00:10.901901 13993 net.cpp:91] Creating Layer inception_3b/relu_pool_proj
I0403 15:00:10.901917 13993 net.cpp:425] inception_3b/relu_pool_proj <- inception_3b/pool_proj
I0403 15:00:10.901934 13993 net.cpp:386] inception_3b/relu_pool_proj -> inception_3b/pool_proj (in-place)
I0403 15:00:10.902345 13993 net.cpp:141] Setting up inception_3b/relu_pool_proj
I0403 15:00:10.902374 13993 net.cpp:148] Top shape: 24 64 28 28 (1204224)
I0403 15:00:10.902389 13993 net.cpp:156] Memory required for data: 773112864
I0403 15:00:10.902402 13993 layer_factory.hpp:77] Creating layer inception_3b/output
I0403 15:00:10.902422 13993 net.cpp:91] Creating Layer inception_3b/output
I0403 15:00:10.902438 13993 net.cpp:425] inception_3b/output <- inception_3b/1x1
I0403 15:00:10.902454 13993 net.cpp:425] inception_3b/output <- inception_3b/3x3
I0403 15:00:10.902469 13993 net.cpp:425] inception_3b/output <- inception_3b/5x5
I0403 15:00:10.902484 13993 net.cpp:425] inception_3b/output <- inception_3b/pool_proj
I0403 15:00:10.902501 13993 net.cpp:399] inception_3b/output -> inception_3b/output
I0403 15:00:10.902551 13993 net.cpp:141] Setting up inception_3b/output
I0403 15:00:10.902575 13993 net.cpp:148] Top shape: 24 480 28 28 (9031680)
I0403 15:00:10.902590 13993 net.cpp:156] Memory required for data: 809239584
I0403 15:00:10.902604 13993 layer_factory.hpp:77] Creating layer pool3/3x3_s2
I0403 15:00:10.902621 13993 net.cpp:91] Creating Layer pool3/3x3_s2
I0403 15:00:10.902637 13993 net.cpp:425] pool3/3x3_s2 <- inception_3b/output
I0403 15:00:10.902657 13993 net.cpp:399] pool3/3x3_s2 -> pool3/3x3_s2
I0403 15:00:10.902729 13993 net.cpp:141] Setting up pool3/3x3_s2
I0403 15:00:10.902753 13993 net.cpp:148] Top shape: 24 480 14 14 (2257920)
I0403 15:00:10.902767 13993 net.cpp:156] Memory required for data: 818271264
I0403 15:00:10.902781 13993 layer_factory.hpp:77] Creating layer pool3/3x3_s2_pool3/3x3_s2_0_split
I0403 15:00:10.902801 13993 net.cpp:91] Creating Layer pool3/3x3_s2_pool3/3x3_s2_0_split
I0403 15:00:10.902817 13993 net.cpp:425] pool3/3x3_s2_pool3/3x3_s2_0_split <- pool3/3x3_s2
I0403 15:00:10.902837 13993 net.cpp:399] pool3/3x3_s2_pool3/3x3_s2_0_split -> pool3/3x3_s2_pool3/3x3_s2_0_split_0
I0403 15:00:10.902856 13993 net.cpp:399] pool3/3x3_s2_pool3/3x3_s2_0_split -> pool3/3x3_s2_pool3/3x3_s2_0_split_1
I0403 15:00:10.902875 13993 net.cpp:399] pool3/3x3_s2_pool3/3x3_s2_0_split -> pool3/3x3_s2_pool3/3x3_s2_0_split_2
I0403 15:00:10.902894 13993 net.cpp:399] pool3/3x3_s2_pool3/3x3_s2_0_split -> pool3/3x3_s2_pool3/3x3_s2_0_split_3
I0403 15:00:10.902968 13993 net.cpp:141] Setting up pool3/3x3_s2_pool3/3x3_s2_0_split
I0403 15:00:10.902994 13993 net.cpp:148] Top shape: 24 480 14 14 (2257920)
I0403 15:00:10.903012 13993 net.cpp:148] Top shape: 24 480 14 14 (2257920)
I0403 15:00:10.903028 13993 net.cpp:148] Top shape: 24 480 14 14 (2257920)
I0403 15:00:10.903041 13993 net.cpp:148] Top shape: 24 480 14 14 (2257920)
I0403 15:00:10.903054 13993 net.cpp:156] Memory required for data: 854397984
I0403 15:00:10.903069 13993 layer_factory.hpp:77] Creating layer inception_4a/1x1
I0403 15:00:10.903090 13993 net.cpp:91] Creating Layer inception_4a/1x1
I0403 15:00:10.903108 13993 net.cpp:425] inception_4a/1x1 <- pool3/3x3_s2_pool3/3x3_s2_0_split_0
I0403 15:00:10.903126 13993 net.cpp:399] inception_4a/1x1 -> inception_4a/1x1
I0403 15:00:10.904780 13993 net.cpp:141] Setting up inception_4a/1x1
I0403 15:00:10.904814 13993 net.cpp:148] Top shape: 24 192 14 14 (903168)
I0403 15:00:10.904831 13993 net.cpp:156] Memory required for data: 858010656
I0403 15:00:10.904850 13993 layer_factory.hpp:77] Creating layer inception_4a/relu_1x1
I0403 15:00:10.904870 13993 net.cpp:91] Creating Layer inception_4a/relu_1x1
I0403 15:00:10.904886 13993 net.cpp:425] inception_4a/relu_1x1 <- inception_4a/1x1
I0403 15:00:10.904908 13993 net.cpp:386] inception_4a/relu_1x1 -> inception_4a/1x1 (in-place)
I0403 15:00:10.905094 13993 net.cpp:141] Setting up inception_4a/relu_1x1
I0403 15:00:10.905120 13993 net.cpp:148] Top shape: 24 192 14 14 (903168)
I0403 15:00:10.905135 13993 net.cpp:156] Memory required for data: 861623328
I0403 15:00:10.905150 13993 layer_factory.hpp:77] Creating layer inception_4a/3x3_reduce
I0403 15:00:10.905174 13993 net.cpp:91] Creating Layer inception_4a/3x3_reduce
I0403 15:00:10.905192 13993 net.cpp:425] inception_4a/3x3_reduce <- pool3/3x3_s2_pool3/3x3_s2_0_split_1
I0403 15:00:10.905215 13993 net.cpp:399] inception_4a/3x3_reduce -> inception_4a/3x3_reduce
I0403 15:00:10.906548 13993 net.cpp:141] Setting up inception_4a/3x3_reduce
I0403 15:00:10.906579 13993 net.cpp:148] Top shape: 24 96 14 14 (451584)
I0403 15:00:10.906595 13993 net.cpp:156] Memory required for data: 863429664
I0403 15:00:10.906621 13993 layer_factory.hpp:77] Creating layer inception_4a/relu_3x3_reduce
I0403 15:00:10.906642 13993 net.cpp:91] Creating Layer inception_4a/relu_3x3_reduce
I0403 15:00:10.906659 13993 net.cpp:425] inception_4a/relu_3x3_reduce <- inception_4a/3x3_reduce
I0403 15:00:10.906677 13993 net.cpp:386] inception_4a/relu_3x3_reduce -> inception_4a/3x3_reduce (in-place)
I0403 15:00:10.906860 13993 net.cpp:141] Setting up inception_4a/relu_3x3_reduce
I0403 15:00:10.906888 13993 net.cpp:148] Top shape: 24 96 14 14 (451584)
I0403 15:00:10.906903 13993 net.cpp:156] Memory required for data: 865236000
I0403 15:00:10.906918 13993 layer_factory.hpp:77] Creating layer inception_4a/3x3
I0403 15:00:10.906940 13993 net.cpp:91] Creating Layer inception_4a/3x3
I0403 15:00:10.906958 13993 net.cpp:425] inception_4a/3x3 <- inception_4a/3x3_reduce
I0403 15:00:10.906981 13993 net.cpp:399] inception_4a/3x3 -> inception_4a/3x3
I0403 15:00:10.909795 13993 net.cpp:141] Setting up inception_4a/3x3
I0403 15:00:10.909826 13993 net.cpp:148] Top shape: 24 208 14 14 (978432)
I0403 15:00:10.909842 13993 net.cpp:156] Memory required for data: 869149728
I0403 15:00:10.909860 13993 layer_factory.hpp:77] Creating layer inception_4a/relu_3x3
I0403 15:00:10.909879 13993 net.cpp:91] Creating Layer inception_4a/relu_3x3
I0403 15:00:10.909896 13993 net.cpp:425] inception_4a/relu_3x3 <- inception_4a/3x3
I0403 15:00:10.909916 13993 net.cpp:386] inception_4a/relu_3x3 -> inception_4a/3x3 (in-place)
I0403 15:00:10.910207 13993 net.cpp:141] Setting up inception_4a/relu_3x3
I0403 15:00:10.910234 13993 net.cpp:148] Top shape: 24 208 14 14 (978432)
I0403 15:00:10.910249 13993 net.cpp:156] Memory required for data: 873063456
I0403 15:00:10.910265 13993 layer_factory.hpp:77] Creating layer inception_4a/5x5_reduce
I0403 15:00:10.910289 13993 net.cpp:91] Creating Layer inception_4a/5x5_reduce
I0403 15:00:10.910306 13993 net.cpp:425] inception_4a/5x5_reduce <- pool3/3x3_s2_pool3/3x3_s2_0_split_2
I0403 15:00:10.910328 13993 net.cpp:399] inception_4a/5x5_reduce -> inception_4a/5x5_reduce
I0403 15:00:10.911408 13993 net.cpp:141] Setting up inception_4a/5x5_reduce
I0403 15:00:10.911438 13993 net.cpp:148] Top shape: 24 16 14 14 (75264)
I0403 15:00:10.911453 13993 net.cpp:156] Memory required for data: 873364512
I0403 15:00:10.911473 13993 layer_factory.hpp:77] Creating layer inception_4a/relu_5x5_reduce
I0403 15:00:10.911494 13993 net.cpp:91] Creating Layer inception_4a/relu_5x5_reduce
I0403 15:00:10.911510 13993 net.cpp:425] inception_4a/relu_5x5_reduce <- inception_4a/5x5_reduce
I0403 15:00:10.911528 13993 net.cpp:386] inception_4a/relu_5x5_reduce -> inception_4a/5x5_reduce (in-place)
I0403 15:00:10.911716 13993 net.cpp:141] Setting up inception_4a/relu_5x5_reduce
I0403 15:00:10.911746 13993 net.cpp:148] Top shape: 24 16 14 14 (75264)
I0403 15:00:10.911763 13993 net.cpp:156] Memory required for data: 873665568
I0403 15:00:10.911777 13993 layer_factory.hpp:77] Creating layer inception_4a/5x5
I0403 15:00:10.911798 13993 net.cpp:91] Creating Layer inception_4a/5x5
I0403 15:00:10.911814 13993 net.cpp:425] inception_4a/5x5 <- inception_4a/5x5_reduce
I0403 15:00:10.911836 13993 net.cpp:399] inception_4a/5x5 -> inception_4a/5x5
I0403 15:00:10.912981 13993 net.cpp:141] Setting up inception_4a/5x5
I0403 15:00:10.913010 13993 net.cpp:148] Top shape: 24 48 14 14 (225792)
I0403 15:00:10.913027 13993 net.cpp:156] Memory required for data: 874568736
I0403 15:00:10.913045 13993 layer_factory.hpp:77] Creating layer inception_4a/relu_5x5
I0403 15:00:10.913066 13993 net.cpp:91] Creating Layer inception_4a/relu_5x5
I0403 15:00:10.913084 13993 net.cpp:425] inception_4a/relu_5x5 <- inception_4a/5x5
I0403 15:00:10.913103 13993 net.cpp:386] inception_4a/relu_5x5 -> inception_4a/5x5 (in-place)
I0403 15:00:10.913290 13993 net.cpp:141] Setting up inception_4a/relu_5x5
I0403 15:00:10.913316 13993 net.cpp:148] Top shape: 24 48 14 14 (225792)
I0403 15:00:10.913331 13993 net.cpp:156] Memory required for data: 875471904
I0403 15:00:10.913346 13993 layer_factory.hpp:77] Creating layer inception_4a/pool
I0403 15:00:10.913362 13993 net.cpp:91] Creating Layer inception_4a/pool
I0403 15:00:10.913379 13993 net.cpp:425] inception_4a/pool <- pool3/3x3_s2_pool3/3x3_s2_0_split_3
I0403 15:00:10.913399 13993 net.cpp:399] inception_4a/pool -> inception_4a/pool
I0403 15:00:10.913463 13993 net.cpp:141] Setting up inception_4a/pool
I0403 15:00:10.913487 13993 net.cpp:148] Top shape: 24 480 14 14 (2257920)
I0403 15:00:10.913502 13993 net.cpp:156] Memory required for data: 884503584
I0403 15:00:10.913516 13993 layer_factory.hpp:77] Creating layer inception_4a/pool_proj
I0403 15:00:10.913545 13993 net.cpp:91] Creating Layer inception_4a/pool_proj
I0403 15:00:10.913566 13993 net.cpp:425] inception_4a/pool_proj <- inception_4a/pool
I0403 15:00:10.913585 13993 net.cpp:399] inception_4a/pool_proj -> inception_4a/pool_proj
I0403 15:00:10.914824 13993 net.cpp:141] Setting up inception_4a/pool_proj
I0403 15:00:10.914855 13993 net.cpp:148] Top shape: 24 64 14 14 (301056)
I0403 15:00:10.914887 13993 net.cpp:156] Memory required for data: 885707808
I0403 15:00:10.914908 13993 layer_factory.hpp:77] Creating layer inception_4a/relu_pool_proj
I0403 15:00:10.914927 13993 net.cpp:91] Creating Layer inception_4a/relu_pool_proj
I0403 15:00:10.914944 13993 net.cpp:425] inception_4a/relu_pool_proj <- inception_4a/pool_proj
I0403 15:00:10.914966 13993 net.cpp:386] inception_4a/relu_pool_proj -> inception_4a/pool_proj (in-place)
I0403 15:00:10.915262 13993 net.cpp:141] Setting up inception_4a/relu_pool_proj
I0403 15:00:10.915294 13993 net.cpp:148] Top shape: 24 64 14 14 (301056)
I0403 15:00:10.915312 13993 net.cpp:156] Memory required for data: 886912032
I0403 15:00:10.915326 13993 layer_factory.hpp:77] Creating layer inception_4a/output
I0403 15:00:10.915344 13993 net.cpp:91] Creating Layer inception_4a/output
I0403 15:00:10.915360 13993 net.cpp:425] inception_4a/output <- inception_4a/1x1
I0403 15:00:10.915376 13993 net.cpp:425] inception_4a/output <- inception_4a/3x3
I0403 15:00:10.915392 13993 net.cpp:425] inception_4a/output <- inception_4a/5x5
I0403 15:00:10.915408 13993 net.cpp:425] inception_4a/output <- inception_4a/pool_proj
I0403 15:00:10.915427 13993 net.cpp:399] inception_4a/output -> inception_4a/output
I0403 15:00:10.915474 13993 net.cpp:141] Setting up inception_4a/output
I0403 15:00:10.915498 13993 net.cpp:148] Top shape: 24 512 14 14 (2408448)
I0403 15:00:10.915513 13993 net.cpp:156] Memory required for data: 896545824
I0403 15:00:10.915527 13993 layer_factory.hpp:77] Creating layer inception_4a/output_inception_4a/output_0_split
I0403 15:00:10.915555 13993 net.cpp:91] Creating Layer inception_4a/output_inception_4a/output_0_split
I0403 15:00:10.915575 13993 net.cpp:425] inception_4a/output_inception_4a/output_0_split <- inception_4a/output
I0403 15:00:10.915592 13993 net.cpp:399] inception_4a/output_inception_4a/output_0_split -> inception_4a/output_inception_4a/output_0_split_0
I0403 15:00:10.915613 13993 net.cpp:399] inception_4a/output_inception_4a/output_0_split -> inception_4a/output_inception_4a/output_0_split_1
I0403 15:00:10.915637 13993 net.cpp:399] inception_4a/output_inception_4a/output_0_split -> inception_4a/output_inception_4a/output_0_split_2
I0403 15:00:10.915659 13993 net.cpp:399] inception_4a/output_inception_4a/output_0_split -> inception_4a/output_inception_4a/output_0_split_3
I0403 15:00:10.915679 13993 net.cpp:399] inception_4a/output_inception_4a/output_0_split -> inception_4a/output_inception_4a/output_0_split_4
I0403 15:00:10.915776 13993 net.cpp:141] Setting up inception_4a/output_inception_4a/output_0_split
I0403 15:00:10.915801 13993 net.cpp:148] Top shape: 24 512 14 14 (2408448)
I0403 15:00:10.915817 13993 net.cpp:148] Top shape: 24 512 14 14 (2408448)
I0403 15:00:10.915833 13993 net.cpp:148] Top shape: 24 512 14 14 (2408448)
I0403 15:00:10.915848 13993 net.cpp:148] Top shape: 24 512 14 14 (2408448)
I0403 15:00:10.915863 13993 net.cpp:148] Top shape: 24 512 14 14 (2408448)
I0403 15:00:10.915877 13993 net.cpp:156] Memory required for data: 944714784
I0403 15:00:10.915891 13993 layer_factory.hpp:77] Creating layer loss1/ave_pool
I0403 15:00:10.915910 13993 net.cpp:91] Creating Layer loss1/ave_pool
I0403 15:00:10.915926 13993 net.cpp:425] loss1/ave_pool <- inception_4a/output_inception_4a/output_0_split_0
I0403 15:00:10.915946 13993 net.cpp:399] loss1/ave_pool -> loss1/ave_pool
I0403 15:00:10.916164 13993 net.cpp:141] Setting up loss1/ave_pool
I0403 15:00:10.916193 13993 net.cpp:148] Top shape: 24 512 4 4 (196608)
I0403 15:00:10.916210 13993 net.cpp:156] Memory required for data: 945501216
I0403 15:00:10.916225 13993 layer_factory.hpp:77] Creating layer loss1/conv
I0403 15:00:10.916249 13993 net.cpp:91] Creating Layer loss1/conv
I0403 15:00:10.916267 13993 net.cpp:425] loss1/conv <- loss1/ave_pool
I0403 15:00:10.916287 13993 net.cpp:399] loss1/conv -> loss1/conv
I0403 15:00:10.917781 13993 net.cpp:141] Setting up loss1/conv
I0403 15:00:10.917810 13993 net.cpp:148] Top shape: 24 128 4 4 (49152)
I0403 15:00:10.917825 13993 net.cpp:156] Memory required for data: 945697824
I0403 15:00:10.917860 13993 layer_factory.hpp:77] Creating layer loss1/relu_conv
I0403 15:00:10.917878 13993 net.cpp:91] Creating Layer loss1/relu_conv
I0403 15:00:10.917894 13993 net.cpp:425] loss1/relu_conv <- loss1/conv
I0403 15:00:10.917914 13993 net.cpp:386] loss1/relu_conv -> loss1/conv (in-place)
I0403 15:00:10.918206 13993 net.cpp:141] Setting up loss1/relu_conv
I0403 15:00:10.918233 13993 net.cpp:148] Top shape: 24 128 4 4 (49152)
I0403 15:00:10.918248 13993 net.cpp:156] Memory required for data: 945894432
I0403 15:00:10.918264 13993 layer_factory.hpp:77] Creating layer loss1/fc
I0403 15:00:10.918288 13993 net.cpp:91] Creating Layer loss1/fc
I0403 15:00:10.918305 13993 net.cpp:425] loss1/fc <- loss1/conv
I0403 15:00:10.918326 13993 net.cpp:399] loss1/fc -> loss1/fc
I0403 15:00:10.936303 13993 net.cpp:141] Setting up loss1/fc
I0403 15:00:10.936355 13993 net.cpp:148] Top shape: 24 1024 (24576)
I0403 15:00:10.936370 13993 net.cpp:156] Memory required for data: 945992736
I0403 15:00:10.936389 13993 layer_factory.hpp:77] Creating layer loss1/relu_fc
I0403 15:00:10.936408 13993 net.cpp:91] Creating Layer loss1/relu_fc
I0403 15:00:10.936424 13993 net.cpp:425] loss1/relu_fc <- loss1/fc
I0403 15:00:10.936442 13993 net.cpp:386] loss1/relu_fc -> loss1/fc (in-place)
I0403 15:00:10.936653 13993 net.cpp:141] Setting up loss1/relu_fc
I0403 15:00:10.936678 13993 net.cpp:148] Top shape: 24 1024 (24576)
I0403 15:00:10.936693 13993 net.cpp:156] Memory required for data: 946091040
I0403 15:00:10.936707 13993 layer_factory.hpp:77] Creating layer loss1/drop_fc
I0403 15:00:10.936735 13993 net.cpp:91] Creating Layer loss1/drop_fc
I0403 15:00:10.936753 13993 net.cpp:425] loss1/drop_fc <- loss1/fc
I0403 15:00:10.936771 13993 net.cpp:386] loss1/drop_fc -> loss1/fc (in-place)
I0403 15:00:10.936823 13993 net.cpp:141] Setting up loss1/drop_fc
I0403 15:00:10.936846 13993 net.cpp:148] Top shape: 24 1024 (24576)
I0403 15:00:10.936866 13993 net.cpp:156] Memory required for data: 946189344
I0403 15:00:10.936880 13993 layer_factory.hpp:77] Creating layer loss1/classifier_plantvillage
I0403 15:00:10.936899 13993 net.cpp:91] Creating Layer loss1/classifier_plantvillage
I0403 15:00:10.936913 13993 net.cpp:425] loss1/classifier_plantvillage <- loss1/fc
I0403 15:00:10.936933 13993 net.cpp:399] loss1/classifier_plantvillage -> loss1/classifier_plantvillage
I0403 15:00:10.937858 13993 net.cpp:141] Setting up loss1/classifier_plantvillage
I0403 15:00:10.937886 13993 net.cpp:148] Top shape: 24 38 (912)
I0403 15:00:10.937901 13993 net.cpp:156] Memory required for data: 946192992
I0403 15:00:10.937918 13993 layer_factory.hpp:77] Creating layer loss1/classifier_plantvillage_loss1/classifier_plantvillage_0_split
I0403 15:00:10.937937 13993 net.cpp:91] Creating Layer loss1/classifier_plantvillage_loss1/classifier_plantvillage_0_split
I0403 15:00:10.937952 13993 net.cpp:425] loss1/classifier_plantvillage_loss1/classifier_plantvillage_0_split <- loss1/classifier_plantvillage
I0403 15:00:10.937971 13993 net.cpp:399] loss1/classifier_plantvillage_loss1/classifier_plantvillage_0_split -> loss1/classifier_plantvillage_loss1/classifier_plantvillage_0_split_0
I0403 15:00:10.937993 13993 net.cpp:399] loss1/classifier_plantvillage_loss1/classifier_plantvillage_0_split -> loss1/classifier_plantvillage_loss1/classifier_plantvillage_0_split_1
I0403 15:00:10.938012 13993 net.cpp:399] loss1/classifier_plantvillage_loss1/classifier_plantvillage_0_split -> loss1/classifier_plantvillage_loss1/classifier_plantvillage_0_split_2
I0403 15:00:10.938076 13993 net.cpp:141] Setting up loss1/classifier_plantvillage_loss1/classifier_plantvillage_0_split
I0403 15:00:10.938099 13993 net.cpp:148] Top shape: 24 38 (912)
I0403 15:00:10.938115 13993 net.cpp:148] Top shape: 24 38 (912)
I0403 15:00:10.938129 13993 net.cpp:148] Top shape: 24 38 (912)
I0403 15:00:10.938143 13993 net.cpp:156] Memory required for data: 946203936
I0403 15:00:10.938156 13993 layer_factory.hpp:77] Creating layer inception_4b/1x1
I0403 15:00:10.938179 13993 net.cpp:91] Creating Layer inception_4b/1x1
I0403 15:00:10.938226 13993 net.cpp:425] inception_4b/1x1 <- inception_4a/output_inception_4a/output_0_split_1
I0403 15:00:10.938246 13993 net.cpp:399] inception_4b/1x1 -> inception_4b/1x1
I0403 15:00:10.939934 13993 net.cpp:141] Setting up inception_4b/1x1
I0403 15:00:10.939962 13993 net.cpp:148] Top shape: 24 160 14 14 (752640)
I0403 15:00:10.939978 13993 net.cpp:156] Memory required for data: 949214496
I0403 15:00:10.939996 13993 layer_factory.hpp:77] Creating layer inception_4b/relu_1x1
I0403 15:00:10.940016 13993 net.cpp:91] Creating Layer inception_4b/relu_1x1
I0403 15:00:10.940033 13993 net.cpp:425] inception_4b/relu_1x1 <- inception_4b/1x1
I0403 15:00:10.940050 13993 net.cpp:386] inception_4b/relu_1x1 -> inception_4b/1x1 (in-place)
I0403 15:00:10.940228 13993 net.cpp:141] Setting up inception_4b/relu_1x1
I0403 15:00:10.940253 13993 net.cpp:148] Top shape: 24 160 14 14 (752640)
I0403 15:00:10.940271 13993 net.cpp:156] Memory required for data: 952225056
I0403 15:00:10.940286 13993 layer_factory.hpp:77] Creating layer inception_4b/3x3_reduce
I0403 15:00:10.940305 13993 net.cpp:91] Creating Layer inception_4b/3x3_reduce
I0403 15:00:10.940321 13993 net.cpp:425] inception_4b/3x3_reduce <- inception_4a/output_inception_4a/output_0_split_2
I0403 15:00:10.940345 13993 net.cpp:399] inception_4b/3x3_reduce -> inception_4b/3x3_reduce
I0403 15:00:10.941709 13993 net.cpp:141] Setting up inception_4b/3x3_reduce
I0403 15:00:10.941736 13993 net.cpp:148] Top shape: 24 112 14 14 (526848)
I0403 15:00:10.941751 13993 net.cpp:156] Memory required for data: 954332448
I0403 15:00:10.941769 13993 layer_factory.hpp:77] Creating layer inception_4b/relu_3x3_reduce
I0403 15:00:10.941789 13993 net.cpp:91] Creating Layer inception_4b/relu_3x3_reduce
I0403 15:00:10.941805 13993 net.cpp:425] inception_4b/relu_3x3_reduce <- inception_4b/3x3_reduce
I0403 15:00:10.941823 13993 net.cpp:386] inception_4b/relu_3x3_reduce -> inception_4b/3x3_reduce (in-place)
I0403 15:00:10.942103 13993 net.cpp:141] Setting up inception_4b/relu_3x3_reduce
I0403 15:00:10.942129 13993 net.cpp:148] Top shape: 24 112 14 14 (526848)
I0403 15:00:10.942144 13993 net.cpp:156] Memory required for data: 956439840
I0403 15:00:10.942157 13993 layer_factory.hpp:77] Creating layer inception_4b/3x3
I0403 15:00:10.942179 13993 net.cpp:91] Creating Layer inception_4b/3x3
I0403 15:00:10.942196 13993 net.cpp:425] inception_4b/3x3 <- inception_4b/3x3_reduce
I0403 15:00:10.942217 13993 net.cpp:399] inception_4b/3x3 -> inception_4b/3x3
I0403 15:00:10.945243 13993 net.cpp:141] Setting up inception_4b/3x3
I0403 15:00:10.945276 13993 net.cpp:148] Top shape: 24 224 14 14 (1053696)
I0403 15:00:10.945291 13993 net.cpp:156] Memory required for data: 960654624
I0403 15:00:10.945309 13993 layer_factory.hpp:77] Creating layer inception_4b/relu_3x3
I0403 15:00:10.945327 13993 net.cpp:91] Creating Layer inception_4b/relu_3x3
I0403 15:00:10.945348 13993 net.cpp:425] inception_4b/relu_3x3 <- inception_4b/3x3
I0403 15:00:10.945368 13993 net.cpp:386] inception_4b/relu_3x3 -> inception_4b/3x3 (in-place)
I0403 15:00:10.945569 13993 net.cpp:141] Setting up inception_4b/relu_3x3
I0403 15:00:10.945595 13993 net.cpp:148] Top shape: 24 224 14 14 (1053696)
I0403 15:00:10.945610 13993 net.cpp:156] Memory required for data: 964869408
I0403 15:00:10.945624 13993 layer_factory.hpp:77] Creating layer inception_4b/5x5_reduce
I0403 15:00:10.945648 13993 net.cpp:91] Creating Layer inception_4b/5x5_reduce
I0403 15:00:10.945667 13993 net.cpp:425] inception_4b/5x5_reduce <- inception_4a/output_inception_4a/output_0_split_3
I0403 15:00:10.945688 13993 net.cpp:399] inception_4b/5x5_reduce -> inception_4b/5x5_reduce
I0403 15:00:10.946818 13993 net.cpp:141] Setting up inception_4b/5x5_reduce
I0403 15:00:10.946847 13993 net.cpp:148] Top shape: 24 24 14 14 (112896)
I0403 15:00:10.946862 13993 net.cpp:156] Memory required for data: 965320992
I0403 15:00:10.946882 13993 layer_factory.hpp:77] Creating layer inception_4b/relu_5x5_reduce
I0403 15:00:10.946902 13993 net.cpp:91] Creating Layer inception_4b/relu_5x5_reduce
I0403 15:00:10.946933 13993 net.cpp:425] inception_4b/relu_5x5_reduce <- inception_4b/5x5_reduce
I0403 15:00:10.946952 13993 net.cpp:386] inception_4b/relu_5x5_reduce -> inception_4b/5x5_reduce (in-place)
I0403 15:00:10.947141 13993 net.cpp:141] Setting up inception_4b/relu_5x5_reduce
I0403 15:00:10.947168 13993 net.cpp:148] Top shape: 24 24 14 14 (112896)
I0403 15:00:10.947185 13993 net.cpp:156] Memory required for data: 965772576
I0403 15:00:10.947199 13993 layer_factory.hpp:77] Creating layer inception_4b/5x5
I0403 15:00:10.947224 13993 net.cpp:91] Creating Layer inception_4b/5x5
I0403 15:00:10.947242 13993 net.cpp:425] inception_4b/5x5 <- inception_4b/5x5_reduce
I0403 15:00:10.947262 13993 net.cpp:399] inception_4b/5x5 -> inception_4b/5x5
I0403 15:00:10.948529 13993 net.cpp:141] Setting up inception_4b/5x5
I0403 15:00:10.948562 13993 net.cpp:148] Top shape: 24 64 14 14 (301056)
I0403 15:00:10.948578 13993 net.cpp:156] Memory required for data: 966976800
I0403 15:00:10.948596 13993 layer_factory.hpp:77] Creating layer inception_4b/relu_5x5
I0403 15:00:10.948617 13993 net.cpp:91] Creating Layer inception_4b/relu_5x5
I0403 15:00:10.948634 13993 net.cpp:425] inception_4b/relu_5x5 <- inception_4b/5x5
I0403 15:00:10.948652 13993 net.cpp:386] inception_4b/relu_5x5 -> inception_4b/5x5 (in-place)
I0403 15:00:10.948947 13993 net.cpp:141] Setting up inception_4b/relu_5x5
I0403 15:00:10.948974 13993 net.cpp:148] Top shape: 24 64 14 14 (301056)
I0403 15:00:10.948989 13993 net.cpp:156] Memory required for data: 968181024
I0403 15:00:10.949003 13993 layer_factory.hpp:77] Creating layer inception_4b/pool
I0403 15:00:10.949021 13993 net.cpp:91] Creating Layer inception_4b/pool
I0403 15:00:10.949038 13993 net.cpp:425] inception_4b/pool <- inception_4a/output_inception_4a/output_0_split_4
I0403 15:00:10.949056 13993 net.cpp:399] inception_4b/pool -> inception_4b/pool
I0403 15:00:10.949120 13993 net.cpp:141] Setting up inception_4b/pool
I0403 15:00:10.949143 13993 net.cpp:148] Top shape: 24 512 14 14 (2408448)
I0403 15:00:10.949157 13993 net.cpp:156] Memory required for data: 977814816
I0403 15:00:10.949172 13993 layer_factory.hpp:77] Creating layer inception_4b/pool_proj
I0403 15:00:10.949193 13993 net.cpp:91] Creating Layer inception_4b/pool_proj
I0403 15:00:10.949211 13993 net.cpp:425] inception_4b/pool_proj <- inception_4b/pool
I0403 15:00:10.949229 13993 net.cpp:399] inception_4b/pool_proj -> inception_4b/pool_proj
I0403 15:00:10.950441 13993 net.cpp:141] Setting up inception_4b/pool_proj
I0403 15:00:10.950469 13993 net.cpp:148] Top shape: 24 64 14 14 (301056)
I0403 15:00:10.950484 13993 net.cpp:156] Memory required for data: 979019040
I0403 15:00:10.950502 13993 layer_factory.hpp:77] Creating layer inception_4b/relu_pool_proj
I0403 15:00:10.950522 13993 net.cpp:91] Creating Layer inception_4b/relu_pool_proj
I0403 15:00:10.950544 13993 net.cpp:425] inception_4b/relu_pool_proj <- inception_4b/pool_proj
I0403 15:00:10.950563 13993 net.cpp:386] inception_4b/relu_pool_proj -> inception_4b/pool_proj (in-place)
I0403 15:00:10.950742 13993 net.cpp:141] Setting up inception_4b/relu_pool_proj
I0403 15:00:10.950769 13993 net.cpp:148] Top shape: 24 64 14 14 (301056)
I0403 15:00:10.950784 13993 net.cpp:156] Memory required for data: 980223264
I0403 15:00:10.950798 13993 layer_factory.hpp:77] Creating layer inception_4b/output
I0403 15:00:10.950814 13993 net.cpp:91] Creating Layer inception_4b/output
I0403 15:00:10.950829 13993 net.cpp:425] inception_4b/output <- inception_4b/1x1
I0403 15:00:10.950845 13993 net.cpp:425] inception_4b/output <- inception_4b/3x3
I0403 15:00:10.950860 13993 net.cpp:425] inception_4b/output <- inception_4b/5x5
I0403 15:00:10.950875 13993 net.cpp:425] inception_4b/output <- inception_4b/pool_proj
I0403 15:00:10.950891 13993 net.cpp:399] inception_4b/output -> inception_4b/output
I0403 15:00:10.950938 13993 net.cpp:141] Setting up inception_4b/output
I0403 15:00:10.950960 13993 net.cpp:148] Top shape: 24 512 14 14 (2408448)
I0403 15:00:10.950974 13993 net.cpp:156] Memory required for data: 989857056
I0403 15:00:10.951004 13993 layer_factory.hpp:77] Creating layer inception_4b/output_inception_4b/output_0_split
I0403 15:00:10.951025 13993 net.cpp:91] Creating Layer inception_4b/output_inception_4b/output_0_split
I0403 15:00:10.951041 13993 net.cpp:425] inception_4b/output_inception_4b/output_0_split <- inception_4b/output
I0403 15:00:10.951058 13993 net.cpp:399] inception_4b/output_inception_4b/output_0_split -> inception_4b/output_inception_4b/output_0_split_0
I0403 15:00:10.951077 13993 net.cpp:399] inception_4b/output_inception_4b/output_0_split -> inception_4b/output_inception_4b/output_0_split_1
I0403 15:00:10.951097 13993 net.cpp:399] inception_4b/output_inception_4b/output_0_split -> inception_4b/output_inception_4b/output_0_split_2
I0403 15:00:10.951115 13993 net.cpp:399] inception_4b/output_inception_4b/output_0_split -> inception_4b/output_inception_4b/output_0_split_3
I0403 15:00:10.951200 13993 net.cpp:141] Setting up inception_4b/output_inception_4b/output_0_split
I0403 15:00:10.951222 13993 net.cpp:148] Top shape: 24 512 14 14 (2408448)
I0403 15:00:10.951238 13993 net.cpp:148] Top shape: 24 512 14 14 (2408448)
I0403 15:00:10.951252 13993 net.cpp:148] Top shape: 24 512 14 14 (2408448)
I0403 15:00:10.951267 13993 net.cpp:148] Top shape: 24 512 14 14 (2408448)
I0403 15:00:10.951279 13993 net.cpp:156] Memory required for data: 1028392224
I0403 15:00:10.951293 13993 layer_factory.hpp:77] Creating layer inception_4c/1x1
I0403 15:00:10.951314 13993 net.cpp:91] Creating Layer inception_4c/1x1
I0403 15:00:10.951331 13993 net.cpp:425] inception_4c/1x1 <- inception_4b/output_inception_4b/output_0_split_0
I0403 15:00:10.951352 13993 net.cpp:399] inception_4c/1x1 -> inception_4c/1x1
I0403 15:00:10.952787 13993 net.cpp:141] Setting up inception_4c/1x1
I0403 15:00:10.952819 13993 net.cpp:148] Top shape: 24 128 14 14 (602112)
I0403 15:00:10.952836 13993 net.cpp:156] Memory required for data: 1030800672
I0403 15:00:10.952853 13993 layer_factory.hpp:77] Creating layer inception_4c/relu_1x1
I0403 15:00:10.952870 13993 net.cpp:91] Creating Layer inception_4c/relu_1x1
I0403 15:00:10.952885 13993 net.cpp:425] inception_4c/relu_1x1 <- inception_4c/1x1
I0403 15:00:10.952901 13993 net.cpp:386] inception_4c/relu_1x1 -> inception_4c/1x1 (in-place)
I0403 15:00:10.953084 13993 net.cpp:141] Setting up inception_4c/relu_1x1
I0403 15:00:10.953109 13993 net.cpp:148] Top shape: 24 128 14 14 (602112)
I0403 15:00:10.953124 13993 net.cpp:156] Memory required for data: 1033209120
I0403 15:00:10.953136 13993 layer_factory.hpp:77] Creating layer inception_4c/3x3_reduce
I0403 15:00:10.953158 13993 net.cpp:91] Creating Layer inception_4c/3x3_reduce
I0403 15:00:10.953176 13993 net.cpp:425] inception_4c/3x3_reduce <- inception_4b/output_inception_4b/output_0_split_1
I0403 15:00:10.953197 13993 net.cpp:399] inception_4c/3x3_reduce -> inception_4c/3x3_reduce
I0403 15:00:10.955143 13993 net.cpp:141] Setting up inception_4c/3x3_reduce
I0403 15:00:10.955173 13993 net.cpp:148] Top shape: 24 128 14 14 (602112)
I0403 15:00:10.955188 13993 net.cpp:156] Memory required for data: 1035617568
I0403 15:00:10.955205 13993 layer_factory.hpp:77] Creating layer inception_4c/relu_3x3_reduce
I0403 15:00:10.955225 13993 net.cpp:91] Creating Layer inception_4c/relu_3x3_reduce
I0403 15:00:10.955242 13993 net.cpp:425] inception_4c/relu_3x3_reduce <- inception_4c/3x3_reduce
I0403 15:00:10.955258 13993 net.cpp:386] inception_4c/relu_3x3_reduce -> inception_4c/3x3_reduce (in-place)
I0403 15:00:10.955548 13993 net.cpp:141] Setting up inception_4c/relu_3x3_reduce
I0403 15:00:10.955574 13993 net.cpp:148] Top shape: 24 128 14 14 (602112)
I0403 15:00:10.955588 13993 net.cpp:156] Memory required for data: 1038026016
I0403 15:00:10.955602 13993 layer_factory.hpp:77] Creating layer inception_4c/3x3
I0403 15:00:10.955624 13993 net.cpp:91] Creating Layer inception_4c/3x3
I0403 15:00:10.955641 13993 net.cpp:425] inception_4c/3x3 <- inception_4c/3x3_reduce
I0403 15:00:10.955664 13993 net.cpp:399] inception_4c/3x3 -> inception_4c/3x3
I0403 15:00:10.959250 13993 net.cpp:141] Setting up inception_4c/3x3
I0403 15:00:10.959291 13993 net.cpp:148] Top shape: 24 256 14 14 (1204224)
I0403 15:00:10.959307 13993 net.cpp:156] Memory required for data: 1042842912
I0403 15:00:10.959341 13993 layer_factory.hpp:77] Creating layer inception_4c/relu_3x3
I0403 15:00:10.959363 13993 net.cpp:91] Creating Layer inception_4c/relu_3x3
I0403 15:00:10.959380 13993 net.cpp:425] inception_4c/relu_3x3 <- inception_4c/3x3
I0403 15:00:10.959398 13993 net.cpp:386] inception_4c/relu_3x3 -> inception_4c/3x3 (in-place)
I0403 15:00:10.959585 13993 net.cpp:141] Setting up inception_4c/relu_3x3
I0403 15:00:10.959610 13993 net.cpp:148] Top shape: 24 256 14 14 (1204224)
I0403 15:00:10.959625 13993 net.cpp:156] Memory required for data: 1047659808
I0403 15:00:10.959638 13993 layer_factory.hpp:77] Creating layer inception_4c/5x5_reduce
I0403 15:00:10.959661 13993 net.cpp:91] Creating Layer inception_4c/5x5_reduce
I0403 15:00:10.959677 13993 net.cpp:425] inception_4c/5x5_reduce <- inception_4b/output_inception_4b/output_0_split_2
I0403 15:00:10.959697 13993 net.cpp:399] inception_4c/5x5_reduce -> inception_4c/5x5_reduce
I0403 15:00:10.960798 13993 net.cpp:141] Setting up inception_4c/5x5_reduce
I0403 15:00:10.960824 13993 net.cpp:148] Top shape: 24 24 14 14 (112896)
I0403 15:00:10.960839 13993 net.cpp:156] Memory required for data: 1048111392
I0403 15:00:10.960857 13993 layer_factory.hpp:77] Creating layer inception_4c/relu_5x5_reduce
I0403 15:00:10.960876 13993 net.cpp:91] Creating Layer inception_4c/relu_5x5_reduce
I0403 15:00:10.960893 13993 net.cpp:425] inception_4c/relu_5x5_reduce <- inception_4c/5x5_reduce
I0403 15:00:10.960909 13993 net.cpp:386] inception_4c/relu_5x5_reduce -> inception_4c/5x5_reduce (in-place)
I0403 15:00:10.961093 13993 net.cpp:141] Setting up inception_4c/relu_5x5_reduce
I0403 15:00:10.961118 13993 net.cpp:148] Top shape: 24 24 14 14 (112896)
I0403 15:00:10.961133 13993 net.cpp:156] Memory required for data: 1048562976
I0403 15:00:10.961146 13993 layer_factory.hpp:77] Creating layer inception_4c/5x5
I0403 15:00:10.961169 13993 net.cpp:91] Creating Layer inception_4c/5x5
I0403 15:00:10.961186 13993 net.cpp:425] inception_4c/5x5 <- inception_4c/5x5_reduce
I0403 15:00:10.961205 13993 net.cpp:399] inception_4c/5x5 -> inception_4c/5x5
I0403 15:00:10.962445 13993 net.cpp:141] Setting up inception_4c/5x5
I0403 15:00:10.962474 13993 net.cpp:148] Top shape: 24 64 14 14 (301056)
I0403 15:00:10.962491 13993 net.cpp:156] Memory required for data: 1049767200
I0403 15:00:10.962509 13993 layer_factory.hpp:77] Creating layer inception_4c/relu_5x5
I0403 15:00:10.962527 13993 net.cpp:91] Creating Layer inception_4c/relu_5x5
I0403 15:00:10.962548 13993 net.cpp:425] inception_4c/relu_5x5 <- inception_4c/5x5
I0403 15:00:10.962566 13993 net.cpp:386] inception_4c/relu_5x5 -> inception_4c/5x5 (in-place)
I0403 15:00:10.962857 13993 net.cpp:141] Setting up inception_4c/relu_5x5
I0403 15:00:10.962884 13993 net.cpp:148] Top shape: 24 64 14 14 (301056)
I0403 15:00:10.962900 13993 net.cpp:156] Memory required for data: 1050971424
I0403 15:00:10.962914 13993 layer_factory.hpp:77] Creating layer inception_4c/pool
I0403 15:00:10.962931 13993 net.cpp:91] Creating Layer inception_4c/pool
I0403 15:00:10.962946 13993 net.cpp:425] inception_4c/pool <- inception_4b/output_inception_4b/output_0_split_3
I0403 15:00:10.962965 13993 net.cpp:399] inception_4c/pool -> inception_4c/pool
I0403 15:00:10.963029 13993 net.cpp:141] Setting up inception_4c/pool
I0403 15:00:10.963052 13993 net.cpp:148] Top shape: 24 512 14 14 (2408448)
I0403 15:00:10.963068 13993 net.cpp:156] Memory required for data: 1060605216
I0403 15:00:10.963080 13993 layer_factory.hpp:77] Creating layer inception_4c/pool_proj
I0403 15:00:10.963101 13993 net.cpp:91] Creating Layer inception_4c/pool_proj
I0403 15:00:10.963119 13993 net.cpp:425] inception_4c/pool_proj <- inception_4c/pool
I0403 15:00:10.963140 13993 net.cpp:399] inception_4c/pool_proj -> inception_4c/pool_proj
I0403 15:00:10.964360 13993 net.cpp:141] Setting up inception_4c/pool_proj
I0403 15:00:10.964387 13993 net.cpp:148] Top shape: 24 64 14 14 (301056)
I0403 15:00:10.964416 13993 net.cpp:156] Memory required for data: 1061809440
I0403 15:00:10.964434 13993 layer_factory.hpp:77] Creating layer inception_4c/relu_pool_proj
I0403 15:00:10.964454 13993 net.cpp:91] Creating Layer inception_4c/relu_pool_proj
I0403 15:00:10.964471 13993 net.cpp:425] inception_4c/relu_pool_proj <- inception_4c/pool_proj
I0403 15:00:10.964488 13993 net.cpp:386] inception_4c/relu_pool_proj -> inception_4c/pool_proj (in-place)
I0403 15:00:10.964676 13993 net.cpp:141] Setting up inception_4c/relu_pool_proj
I0403 15:00:10.964704 13993 net.cpp:148] Top shape: 24 64 14 14 (301056)
I0403 15:00:10.964720 13993 net.cpp:156] Memory required for data: 1063013664
I0403 15:00:10.964733 13993 layer_factory.hpp:77] Creating layer inception_4c/output
I0403 15:00:10.964750 13993 net.cpp:91] Creating Layer inception_4c/output
I0403 15:00:10.964763 13993 net.cpp:425] inception_4c/output <- inception_4c/1x1
I0403 15:00:10.964779 13993 net.cpp:425] inception_4c/output <- inception_4c/3x3
I0403 15:00:10.964794 13993 net.cpp:425] inception_4c/output <- inception_4c/5x5
I0403 15:00:10.964809 13993 net.cpp:425] inception_4c/output <- inception_4c/pool_proj
I0403 15:00:10.964824 13993 net.cpp:399] inception_4c/output -> inception_4c/output
I0403 15:00:10.964869 13993 net.cpp:141] Setting up inception_4c/output
I0403 15:00:10.964891 13993 net.cpp:148] Top shape: 24 512 14 14 (2408448)
I0403 15:00:10.964905 13993 net.cpp:156] Memory required for data: 1072647456
I0403 15:00:10.964918 13993 layer_factory.hpp:77] Creating layer inception_4c/output_inception_4c/output_0_split
I0403 15:00:10.964934 13993 net.cpp:91] Creating Layer inception_4c/output_inception_4c/output_0_split
I0403 15:00:10.964951 13993 net.cpp:425] inception_4c/output_inception_4c/output_0_split <- inception_4c/output
I0403 15:00:10.964968 13993 net.cpp:399] inception_4c/output_inception_4c/output_0_split -> inception_4c/output_inception_4c/output_0_split_0
I0403 15:00:10.964987 13993 net.cpp:399] inception_4c/output_inception_4c/output_0_split -> inception_4c/output_inception_4c/output_0_split_1
I0403 15:00:10.965005 13993 net.cpp:399] inception_4c/output_inception_4c/output_0_split -> inception_4c/output_inception_4c/output_0_split_2
I0403 15:00:10.965024 13993 net.cpp:399] inception_4c/output_inception_4c/output_0_split -> inception_4c/output_inception_4c/output_0_split_3
I0403 15:00:10.965106 13993 net.cpp:141] Setting up inception_4c/output_inception_4c/output_0_split
I0403 15:00:10.965128 13993 net.cpp:148] Top shape: 24 512 14 14 (2408448)
I0403 15:00:10.965143 13993 net.cpp:148] Top shape: 24 512 14 14 (2408448)
I0403 15:00:10.965157 13993 net.cpp:148] Top shape: 24 512 14 14 (2408448)
I0403 15:00:10.965172 13993 net.cpp:148] Top shape: 24 512 14 14 (2408448)
I0403 15:00:10.965183 13993 net.cpp:156] Memory required for data: 1111182624
I0403 15:00:10.965196 13993 layer_factory.hpp:77] Creating layer inception_4d/1x1
I0403 15:00:10.965219 13993 net.cpp:91] Creating Layer inception_4d/1x1
I0403 15:00:10.965235 13993 net.cpp:425] inception_4d/1x1 <- inception_4c/output_inception_4c/output_0_split_0
I0403 15:00:10.965255 13993 net.cpp:399] inception_4d/1x1 -> inception_4d/1x1
I0403 15:00:10.966608 13993 net.cpp:141] Setting up inception_4d/1x1
I0403 15:00:10.966635 13993 net.cpp:148] Top shape: 24 112 14 14 (526848)
I0403 15:00:10.966650 13993 net.cpp:156] Memory required for data: 1113290016
I0403 15:00:10.966666 13993 layer_factory.hpp:77] Creating layer inception_4d/relu_1x1
I0403 15:00:10.966683 13993 net.cpp:91] Creating Layer inception_4d/relu_1x1
I0403 15:00:10.966697 13993 net.cpp:425] inception_4d/relu_1x1 <- inception_4d/1x1
I0403 15:00:10.966718 13993 net.cpp:386] inception_4d/relu_1x1 -> inception_4d/1x1 (in-place)
I0403 15:00:10.966897 13993 net.cpp:141] Setting up inception_4d/relu_1x1
I0403 15:00:10.966922 13993 net.cpp:148] Top shape: 24 112 14 14 (526848)
I0403 15:00:10.966934 13993 net.cpp:156] Memory required for data: 1115397408
I0403 15:00:10.966948 13993 layer_factory.hpp:77] Creating layer inception_4d/3x3_reduce
I0403 15:00:10.966984 13993 net.cpp:91] Creating Layer inception_4d/3x3_reduce
I0403 15:00:10.967002 13993 net.cpp:425] inception_4d/3x3_reduce <- inception_4c/output_inception_4c/output_0_split_1
I0403 15:00:10.967022 13993 net.cpp:399] inception_4d/3x3_reduce -> inception_4d/3x3_reduce
I0403 15:00:10.968489 13993 net.cpp:141] Setting up inception_4d/3x3_reduce
I0403 15:00:10.968518 13993 net.cpp:148] Top shape: 24 144 14 14 (677376)
I0403 15:00:10.968533 13993 net.cpp:156] Memory required for data: 1118106912
I0403 15:00:10.968559 13993 layer_factory.hpp:77] Creating layer inception_4d/relu_3x3_reduce
I0403 15:00:10.968576 13993 net.cpp:91] Creating Layer inception_4d/relu_3x3_reduce
I0403 15:00:10.968591 13993 net.cpp:425] inception_4d/relu_3x3_reduce <- inception_4d/3x3_reduce
I0403 15:00:10.968610 13993 net.cpp:386] inception_4d/relu_3x3_reduce -> inception_4d/3x3_reduce (in-place)
I0403 15:00:10.968890 13993 net.cpp:141] Setting up inception_4d/relu_3x3_reduce
I0403 15:00:10.968917 13993 net.cpp:148] Top shape: 24 144 14 14 (677376)
I0403 15:00:10.968933 13993 net.cpp:156] Memory required for data: 1120816416
I0403 15:00:10.968946 13993 layer_factory.hpp:77] Creating layer inception_4d/3x3
I0403 15:00:10.968967 13993 net.cpp:91] Creating Layer inception_4d/3x3
I0403 15:00:10.968984 13993 net.cpp:425] inception_4d/3x3 <- inception_4d/3x3_reduce
I0403 15:00:10.969002 13993 net.cpp:399] inception_4d/3x3 -> inception_4d/3x3
I0403 15:00:10.973121 13993 net.cpp:141] Setting up inception_4d/3x3
I0403 15:00:10.973150 13993 net.cpp:148] Top shape: 24 288 14 14 (1354752)
I0403 15:00:10.973165 13993 net.cpp:156] Memory required for data: 1126235424
I0403 15:00:10.973182 13993 layer_factory.hpp:77] Creating layer inception_4d/relu_3x3
I0403 15:00:10.973198 13993 net.cpp:91] Creating Layer inception_4d/relu_3x3
I0403 15:00:10.973213 13993 net.cpp:425] inception_4d/relu_3x3 <- inception_4d/3x3
I0403 15:00:10.973232 13993 net.cpp:386] inception_4d/relu_3x3 -> inception_4d/3x3 (in-place)
I0403 15:00:10.973408 13993 net.cpp:141] Setting up inception_4d/relu_3x3
I0403 15:00:10.973431 13993 net.cpp:148] Top shape: 24 288 14 14 (1354752)
I0403 15:00:10.973445 13993 net.cpp:156] Memory required for data: 1131654432
I0403 15:00:10.973459 13993 layer_factory.hpp:77] Creating layer inception_4d/5x5_reduce
I0403 15:00:10.973481 13993 net.cpp:91] Creating Layer inception_4d/5x5_reduce
I0403 15:00:10.973500 13993 net.cpp:425] inception_4d/5x5_reduce <- inception_4c/output_inception_4c/output_0_split_2
I0403 15:00:10.973520 13993 net.cpp:399] inception_4d/5x5_reduce -> inception_4d/5x5_reduce
I0403 15:00:10.974654 13993 net.cpp:141] Setting up inception_4d/5x5_reduce
I0403 15:00:10.974681 13993 net.cpp:148] Top shape: 24 32 14 14 (150528)
I0403 15:00:10.974696 13993 net.cpp:156] Memory required for data: 1132256544
I0403 15:00:10.974714 13993 layer_factory.hpp:77] Creating layer inception_4d/relu_5x5_reduce
I0403 15:00:10.974730 13993 net.cpp:91] Creating Layer inception_4d/relu_5x5_reduce
I0403 15:00:10.974745 13993 net.cpp:425] inception_4d/relu_5x5_reduce <- inception_4d/5x5_reduce
I0403 15:00:10.974762 13993 net.cpp:386] inception_4d/relu_5x5_reduce -> inception_4d/5x5_reduce (in-place)
I0403 15:00:10.974943 13993 net.cpp:141] Setting up inception_4d/relu_5x5_reduce
I0403 15:00:10.974967 13993 net.cpp:148] Top shape: 24 32 14 14 (150528)
I0403 15:00:10.974982 13993 net.cpp:156] Memory required for data: 1132858656
I0403 15:00:10.974995 13993 layer_factory.hpp:77] Creating layer inception_4d/5x5
I0403 15:00:10.975015 13993 net.cpp:91] Creating Layer inception_4d/5x5
I0403 15:00:10.975033 13993 net.cpp:425] inception_4d/5x5 <- inception_4d/5x5_reduce
I0403 15:00:10.975054 13993 net.cpp:399] inception_4d/5x5 -> inception_4d/5x5
I0403 15:00:10.976502 13993 net.cpp:141] Setting up inception_4d/5x5
I0403 15:00:10.976529 13993 net.cpp:148] Top shape: 24 64 14 14 (301056)
I0403 15:00:10.976552 13993 net.cpp:156] Memory required for data: 1134062880
I0403 15:00:10.976569 13993 layer_factory.hpp:77] Creating layer inception_4d/relu_5x5
I0403 15:00:10.976604 13993 net.cpp:91] Creating Layer inception_4d/relu_5x5
I0403 15:00:10.976621 13993 net.cpp:425] inception_4d/relu_5x5 <- inception_4d/5x5
I0403 15:00:10.976637 13993 net.cpp:386] inception_4d/relu_5x5 -> inception_4d/5x5 (in-place)
I0403 15:00:10.976929 13993 net.cpp:141] Setting up inception_4d/relu_5x5
I0403 15:00:10.976955 13993 net.cpp:148] Top shape: 24 64 14 14 (301056)
I0403 15:00:10.976969 13993 net.cpp:156] Memory required for data: 1135267104
I0403 15:00:10.976984 13993 layer_factory.hpp:77] Creating layer inception_4d/pool
I0403 15:00:10.977001 13993 net.cpp:91] Creating Layer inception_4d/pool
I0403 15:00:10.977017 13993 net.cpp:425] inception_4d/pool <- inception_4c/output_inception_4c/output_0_split_3
I0403 15:00:10.977035 13993 net.cpp:399] inception_4d/pool -> inception_4d/pool
I0403 15:00:10.977100 13993 net.cpp:141] Setting up inception_4d/pool
I0403 15:00:10.977123 13993 net.cpp:148] Top shape: 24 512 14 14 (2408448)
I0403 15:00:10.977138 13993 net.cpp:156] Memory required for data: 1144900896
I0403 15:00:10.977151 13993 layer_factory.hpp:77] Creating layer inception_4d/pool_proj
I0403 15:00:10.977172 13993 net.cpp:91] Creating Layer inception_4d/pool_proj
I0403 15:00:10.977188 13993 net.cpp:425] inception_4d/pool_proj <- inception_4d/pool
I0403 15:00:10.977210 13993 net.cpp:399] inception_4d/pool_proj -> inception_4d/pool_proj
I0403 15:00:10.978935 13993 net.cpp:141] Setting up inception_4d/pool_proj
I0403 15:00:10.978962 13993 net.cpp:148] Top shape: 24 64 14 14 (301056)
I0403 15:00:10.978977 13993 net.cpp:156] Memory required for data: 1146105120
I0403 15:00:10.978994 13993 layer_factory.hpp:77] Creating layer inception_4d/relu_pool_proj
I0403 15:00:10.979012 13993 net.cpp:91] Creating Layer inception_4d/relu_pool_proj
I0403 15:00:10.979027 13993 net.cpp:425] inception_4d/relu_pool_proj <- inception_4d/pool_proj
I0403 15:00:10.979045 13993 net.cpp:386] inception_4d/relu_pool_proj -> inception_4d/pool_proj (in-place)
I0403 15:00:10.979223 13993 net.cpp:141] Setting up inception_4d/relu_pool_proj
I0403 15:00:10.979246 13993 net.cpp:148] Top shape: 24 64 14 14 (301056)
I0403 15:00:10.979259 13993 net.cpp:156] Memory required for data: 1147309344
I0403 15:00:10.979276 13993 layer_factory.hpp:77] Creating layer inception_4d/output
I0403 15:00:10.979292 13993 net.cpp:91] Creating Layer inception_4d/output
I0403 15:00:10.979306 13993 net.cpp:425] inception_4d/output <- inception_4d/1x1
I0403 15:00:10.979324 13993 net.cpp:425] inception_4d/output <- inception_4d/3x3
I0403 15:00:10.979339 13993 net.cpp:425] inception_4d/output <- inception_4d/5x5
I0403 15:00:10.979354 13993 net.cpp:425] inception_4d/output <- inception_4d/pool_proj
I0403 15:00:10.979370 13993 net.cpp:399] inception_4d/output -> inception_4d/output
I0403 15:00:10.979418 13993 net.cpp:141] Setting up inception_4d/output
I0403 15:00:10.979440 13993 net.cpp:148] Top shape: 24 528 14 14 (2483712)
I0403 15:00:10.979454 13993 net.cpp:156] Memory required for data: 1157244192
I0403 15:00:10.979466 13993 layer_factory.hpp:77] Creating layer inception_4d/output_inception_4d/output_0_split
I0403 15:00:10.979482 13993 net.cpp:91] Creating Layer inception_4d/output_inception_4d/output_0_split
I0403 15:00:10.979497 13993 net.cpp:425] inception_4d/output_inception_4d/output_0_split <- inception_4d/output
I0403 15:00:10.979516 13993 net.cpp:399] inception_4d/output_inception_4d/output_0_split -> inception_4d/output_inception_4d/output_0_split_0
I0403 15:00:10.979539 13993 net.cpp:399] inception_4d/output_inception_4d/output_0_split -> inception_4d/output_inception_4d/output_0_split_1
I0403 15:00:10.979562 13993 net.cpp:399] inception_4d/output_inception_4d/output_0_split -> inception_4d/output_inception_4d/output_0_split_2
I0403 15:00:10.979581 13993 net.cpp:399] inception_4d/output_inception_4d/output_0_split -> inception_4d/output_inception_4d/output_0_split_3
I0403 15:00:10.979600 13993 net.cpp:399] inception_4d/output_inception_4d/output_0_split -> inception_4d/output_inception_4d/output_0_split_4
I0403 15:00:10.979702 13993 net.cpp:141] Setting up inception_4d/output_inception_4d/output_0_split
I0403 15:00:10.979737 13993 net.cpp:148] Top shape: 24 528 14 14 (2483712)
I0403 15:00:10.979753 13993 net.cpp:148] Top shape: 24 528 14 14 (2483712)
I0403 15:00:10.979768 13993 net.cpp:148] Top shape: 24 528 14 14 (2483712)
I0403 15:00:10.979782 13993 net.cpp:148] Top shape: 24 528 14 14 (2483712)
I0403 15:00:10.979796 13993 net.cpp:148] Top shape: 24 528 14 14 (2483712)
I0403 15:00:10.979809 13993 net.cpp:156] Memory required for data: 1206918432
I0403 15:00:10.979821 13993 layer_factory.hpp:77] Creating layer loss2/ave_pool
I0403 15:00:10.979838 13993 net.cpp:91] Creating Layer loss2/ave_pool
I0403 15:00:10.979852 13993 net.cpp:425] loss2/ave_pool <- inception_4d/output_inception_4d/output_0_split_0
I0403 15:00:10.979871 13993 net.cpp:399] loss2/ave_pool -> loss2/ave_pool
I0403 15:00:10.980178 13993 net.cpp:141] Setting up loss2/ave_pool
I0403 15:00:10.980203 13993 net.cpp:148] Top shape: 24 528 4 4 (202752)
I0403 15:00:10.980217 13993 net.cpp:156] Memory required for data: 1207729440
I0403 15:00:10.980232 13993 layer_factory.hpp:77] Creating layer loss2/conv
I0403 15:00:10.980252 13993 net.cpp:91] Creating Layer loss2/conv
I0403 15:00:10.980269 13993 net.cpp:425] loss2/conv <- loss2/ave_pool
I0403 15:00:10.980289 13993 net.cpp:399] loss2/conv -> loss2/conv
I0403 15:00:10.982202 13993 net.cpp:141] Setting up loss2/conv
I0403 15:00:10.982229 13993 net.cpp:148] Top shape: 24 128 4 4 (49152)
I0403 15:00:10.982244 13993 net.cpp:156] Memory required for data: 1207926048
I0403 15:00:10.982262 13993 layer_factory.hpp:77] Creating layer loss2/relu_conv
I0403 15:00:10.982282 13993 net.cpp:91] Creating Layer loss2/relu_conv
I0403 15:00:10.982300 13993 net.cpp:425] loss2/relu_conv <- loss2/conv
I0403 15:00:10.982316 13993 net.cpp:386] loss2/relu_conv -> loss2/conv (in-place)
I0403 15:00:10.982610 13993 net.cpp:141] Setting up loss2/relu_conv
I0403 15:00:10.982636 13993 net.cpp:148] Top shape: 24 128 4 4 (49152)
I0403 15:00:10.982651 13993 net.cpp:156] Memory required for data: 1208122656
I0403 15:00:10.982666 13993 layer_factory.hpp:77] Creating layer loss2/fc
I0403 15:00:10.982686 13993 net.cpp:91] Creating Layer loss2/fc
I0403 15:00:10.982703 13993 net.cpp:425] loss2/fc <- loss2/conv
I0403 15:00:10.982723 13993 net.cpp:399] loss2/fc -> loss2/fc
I0403 15:00:11.000651 13993 net.cpp:141] Setting up loss2/fc
I0403 15:00:11.000694 13993 net.cpp:148] Top shape: 24 1024 (24576)
I0403 15:00:11.000708 13993 net.cpp:156] Memory required for data: 1208220960
I0403 15:00:11.000727 13993 layer_factory.hpp:77] Creating layer loss2/relu_fc
I0403 15:00:11.000746 13993 net.cpp:91] Creating Layer loss2/relu_fc
I0403 15:00:11.000761 13993 net.cpp:425] loss2/relu_fc <- loss2/fc
I0403 15:00:11.000780 13993 net.cpp:386] loss2/relu_fc -> loss2/fc (in-place)
I0403 15:00:11.001091 13993 net.cpp:141] Setting up loss2/relu_fc
I0403 15:00:11.001117 13993 net.cpp:148] Top shape: 24 1024 (24576)
I0403 15:00:11.001132 13993 net.cpp:156] Memory required for data: 1208319264
I0403 15:00:11.001147 13993 layer_factory.hpp:77] Creating layer loss2/drop_fc
I0403 15:00:11.001164 13993 net.cpp:91] Creating Layer loss2/drop_fc
I0403 15:00:11.001179 13993 net.cpp:425] loss2/drop_fc <- loss2/fc
I0403 15:00:11.001199 13993 net.cpp:386] loss2/drop_fc -> loss2/fc (in-place)
I0403 15:00:11.001246 13993 net.cpp:141] Setting up loss2/drop_fc
I0403 15:00:11.001271 13993 net.cpp:148] Top shape: 24 1024 (24576)
I0403 15:00:11.001286 13993 net.cpp:156] Memory required for data: 1208417568
I0403 15:00:11.001301 13993 layer_factory.hpp:77] Creating layer loss2/classifier_plantvillage
I0403 15:00:11.001318 13993 net.cpp:91] Creating Layer loss2/classifier_plantvillage
I0403 15:00:11.001333 13993 net.cpp:425] loss2/classifier_plantvillage <- loss2/fc
I0403 15:00:11.001354 13993 net.cpp:399] loss2/classifier_plantvillage -> loss2/classifier_plantvillage
I0403 15:00:11.001775 13993 net.cpp:141] Setting up loss2/classifier_plantvillage
I0403 15:00:11.001799 13993 net.cpp:148] Top shape: 24 38 (912)
I0403 15:00:11.001813 13993 net.cpp:156] Memory required for data: 1208421216
I0403 15:00:11.001852 13993 layer_factory.hpp:77] Creating layer loss2/classifier_plantvillage_loss2/classifier_plantvillage_0_split
I0403 15:00:11.001873 13993 net.cpp:91] Creating Layer loss2/classifier_plantvillage_loss2/classifier_plantvillage_0_split
I0403 15:00:11.001889 13993 net.cpp:425] loss2/classifier_plantvillage_loss2/classifier_plantvillage_0_split <- loss2/classifier_plantvillage
I0403 15:00:11.001906 13993 net.cpp:399] loss2/classifier_plantvillage_loss2/classifier_plantvillage_0_split -> loss2/classifier_plantvillage_loss2/classifier_plantvillage_0_split_0
I0403 15:00:11.001927 13993 net.cpp:399] loss2/classifier_plantvillage_loss2/classifier_plantvillage_0_split -> loss2/classifier_plantvillage_loss2/classifier_plantvillage_0_split_1
I0403 15:00:11.001948 13993 net.cpp:399] loss2/classifier_plantvillage_loss2/classifier_plantvillage_0_split -> loss2/classifier_plantvillage_loss2/classifier_plantvillage_0_split_2
I0403 15:00:11.002025 13993 net.cpp:141] Setting up loss2/classifier_plantvillage_loss2/classifier_plantvillage_0_split
I0403 15:00:11.002048 13993 net.cpp:148] Top shape: 24 38 (912)
I0403 15:00:11.002063 13993 net.cpp:148] Top shape: 24 38 (912)
I0403 15:00:11.002079 13993 net.cpp:148] Top shape: 24 38 (912)
I0403 15:00:11.002091 13993 net.cpp:156] Memory required for data: 1208432160
I0403 15:00:11.002105 13993 layer_factory.hpp:77] Creating layer inception_4e/1x1
I0403 15:00:11.002127 13993 net.cpp:91] Creating Layer inception_4e/1x1
I0403 15:00:11.002145 13993 net.cpp:425] inception_4e/1x1 <- inception_4d/output_inception_4d/output_0_split_1
I0403 15:00:11.002163 13993 net.cpp:399] inception_4e/1x1 -> inception_4e/1x1
I0403 15:00:11.004017 13993 net.cpp:141] Setting up inception_4e/1x1
I0403 15:00:11.004047 13993 net.cpp:148] Top shape: 24 256 14 14 (1204224)
I0403 15:00:11.004063 13993 net.cpp:156] Memory required for data: 1213249056
I0403 15:00:11.004081 13993 layer_factory.hpp:77] Creating layer inception_4e/relu_1x1
I0403 15:00:11.004099 13993 net.cpp:91] Creating Layer inception_4e/relu_1x1
I0403 15:00:11.004114 13993 net.cpp:425] inception_4e/relu_1x1 <- inception_4e/1x1
I0403 15:00:11.004130 13993 net.cpp:386] inception_4e/relu_1x1 -> inception_4e/1x1 (in-place)
I0403 15:00:11.004431 13993 net.cpp:141] Setting up inception_4e/relu_1x1
I0403 15:00:11.004459 13993 net.cpp:148] Top shape: 24 256 14 14 (1204224)
I0403 15:00:11.004474 13993 net.cpp:156] Memory required for data: 1218065952
I0403 15:00:11.004489 13993 layer_factory.hpp:77] Creating layer inception_4e/3x3_reduce
I0403 15:00:11.004508 13993 net.cpp:91] Creating Layer inception_4e/3x3_reduce
I0403 15:00:11.004524 13993 net.cpp:425] inception_4e/3x3_reduce <- inception_4d/output_inception_4d/output_0_split_2
I0403 15:00:11.004559 13993 net.cpp:399] inception_4e/3x3_reduce -> inception_4e/3x3_reduce
I0403 15:00:11.006759 13993 net.cpp:141] Setting up inception_4e/3x3_reduce
I0403 15:00:11.006788 13993 net.cpp:148] Top shape: 24 160 14 14 (752640)
I0403 15:00:11.006803 13993 net.cpp:156] Memory required for data: 1221076512
I0403 15:00:11.006820 13993 layer_factory.hpp:77] Creating layer inception_4e/relu_3x3_reduce
I0403 15:00:11.006840 13993 net.cpp:91] Creating Layer inception_4e/relu_3x3_reduce
I0403 15:00:11.006857 13993 net.cpp:425] inception_4e/relu_3x3_reduce <- inception_4e/3x3_reduce
I0403 15:00:11.006875 13993 net.cpp:386] inception_4e/relu_3x3_reduce -> inception_4e/3x3_reduce (in-place)
I0403 15:00:11.007061 13993 net.cpp:141] Setting up inception_4e/relu_3x3_reduce
I0403 15:00:11.007088 13993 net.cpp:148] Top shape: 24 160 14 14 (752640)
I0403 15:00:11.007103 13993 net.cpp:156] Memory required for data: 1224087072
I0403 15:00:11.007117 13993 layer_factory.hpp:77] Creating layer inception_4e/3x3
I0403 15:00:11.007138 13993 net.cpp:91] Creating Layer inception_4e/3x3
I0403 15:00:11.007155 13993 net.cpp:425] inception_4e/3x3 <- inception_4e/3x3_reduce
I0403 15:00:11.007174 13993 net.cpp:399] inception_4e/3x3 -> inception_4e/3x3
I0403 15:00:11.012217 13993 net.cpp:141] Setting up inception_4e/3x3
I0403 15:00:11.012261 13993 net.cpp:148] Top shape: 24 320 14 14 (1505280)
I0403 15:00:11.012279 13993 net.cpp:156] Memory required for data: 1230108192
I0403 15:00:11.012296 13993 layer_factory.hpp:77] Creating layer inception_4e/relu_3x3
I0403 15:00:11.012315 13993 net.cpp:91] Creating Layer inception_4e/relu_3x3
I0403 15:00:11.012331 13993 net.cpp:425] inception_4e/relu_3x3 <- inception_4e/3x3
I0403 15:00:11.012347 13993 net.cpp:386] inception_4e/relu_3x3 -> inception_4e/3x3 (in-place)
I0403 15:00:11.012655 13993 net.cpp:141] Setting up inception_4e/relu_3x3
I0403 15:00:11.012681 13993 net.cpp:148] Top shape: 24 320 14 14 (1505280)
I0403 15:00:11.012696 13993 net.cpp:156] Memory required for data: 1236129312
I0403 15:00:11.012711 13993 layer_factory.hpp:77] Creating layer inception_4e/5x5_reduce
I0403 15:00:11.012733 13993 net.cpp:91] Creating Layer inception_4e/5x5_reduce
I0403 15:00:11.012751 13993 net.cpp:425] inception_4e/5x5_reduce <- inception_4d/output_inception_4d/output_0_split_3
I0403 15:00:11.012773 13993 net.cpp:399] inception_4e/5x5_reduce -> inception_4e/5x5_reduce
I0403 15:00:11.013859 13993 net.cpp:141] Setting up inception_4e/5x5_reduce
I0403 15:00:11.013887 13993 net.cpp:148] Top shape: 24 32 14 14 (150528)
I0403 15:00:11.013902 13993 net.cpp:156] Memory required for data: 1236731424
I0403 15:00:11.013919 13993 layer_factory.hpp:77] Creating layer inception_4e/relu_5x5_reduce
I0403 15:00:11.013938 13993 net.cpp:91] Creating Layer inception_4e/relu_5x5_reduce
I0403 15:00:11.013955 13993 net.cpp:425] inception_4e/relu_5x5_reduce <- inception_4e/5x5_reduce
I0403 15:00:11.013972 13993 net.cpp:386] inception_4e/relu_5x5_reduce -> inception_4e/5x5_reduce (in-place)
I0403 15:00:11.014272 13993 net.cpp:141] Setting up inception_4e/relu_5x5_reduce
I0403 15:00:11.014298 13993 net.cpp:148] Top shape: 24 32 14 14 (150528)
I0403 15:00:11.014312 13993 net.cpp:156] Memory required for data: 1237333536
I0403 15:00:11.014327 13993 layer_factory.hpp:77] Creating layer inception_4e/5x5
I0403 15:00:11.014367 13993 net.cpp:91] Creating Layer inception_4e/5x5
I0403 15:00:11.014386 13993 net.cpp:425] inception_4e/5x5 <- inception_4e/5x5_reduce
I0403 15:00:11.014407 13993 net.cpp:399] inception_4e/5x5 -> inception_4e/5x5
I0403 15:00:11.016350 13993 net.cpp:141] Setting up inception_4e/5x5
I0403 15:00:11.016378 13993 net.cpp:148] Top shape: 24 128 14 14 (602112)
I0403 15:00:11.016394 13993 net.cpp:156] Memory required for data: 1239741984
I0403 15:00:11.016412 13993 layer_factory.hpp:77] Creating layer inception_4e/relu_5x5
I0403 15:00:11.016433 13993 net.cpp:91] Creating Layer inception_4e/relu_5x5
I0403 15:00:11.016448 13993 net.cpp:425] inception_4e/relu_5x5 <- inception_4e/5x5
I0403 15:00:11.016465 13993 net.cpp:386] inception_4e/relu_5x5 -> inception_4e/5x5 (in-place)
I0403 15:00:11.016669 13993 net.cpp:141] Setting up inception_4e/relu_5x5
I0403 15:00:11.016695 13993 net.cpp:148] Top shape: 24 128 14 14 (602112)
I0403 15:00:11.016708 13993 net.cpp:156] Memory required for data: 1242150432
I0403 15:00:11.016722 13993 layer_factory.hpp:77] Creating layer inception_4e/pool
I0403 15:00:11.016741 13993 net.cpp:91] Creating Layer inception_4e/pool
I0403 15:00:11.016758 13993 net.cpp:425] inception_4e/pool <- inception_4d/output_inception_4d/output_0_split_4
I0403 15:00:11.016775 13993 net.cpp:399] inception_4e/pool -> inception_4e/pool
I0403 15:00:11.016846 13993 net.cpp:141] Setting up inception_4e/pool
I0403 15:00:11.016870 13993 net.cpp:148] Top shape: 24 528 14 14 (2483712)
I0403 15:00:11.016885 13993 net.cpp:156] Memory required for data: 1252085280
I0403 15:00:11.016897 13993 layer_factory.hpp:77] Creating layer inception_4e/pool_proj
I0403 15:00:11.016919 13993 net.cpp:91] Creating Layer inception_4e/pool_proj
I0403 15:00:11.016935 13993 net.cpp:425] inception_4e/pool_proj <- inception_4e/pool
I0403 15:00:11.016957 13993 net.cpp:399] inception_4e/pool_proj -> inception_4e/pool_proj
I0403 15:00:11.018467 13993 net.cpp:141] Setting up inception_4e/pool_proj
I0403 15:00:11.018496 13993 net.cpp:148] Top shape: 24 128 14 14 (602112)
I0403 15:00:11.018525 13993 net.cpp:156] Memory required for data: 1254493728
I0403 15:00:11.018551 13993 layer_factory.hpp:77] Creating layer inception_4e/relu_pool_proj
I0403 15:00:11.018576 13993 net.cpp:91] Creating Layer inception_4e/relu_pool_proj
I0403 15:00:11.018594 13993 net.cpp:425] inception_4e/relu_pool_proj <- inception_4e/pool_proj
I0403 15:00:11.018610 13993 net.cpp:386] inception_4e/relu_pool_proj -> inception_4e/pool_proj (in-place)
I0403 15:00:11.018905 13993 net.cpp:141] Setting up inception_4e/relu_pool_proj
I0403 15:00:11.018931 13993 net.cpp:148] Top shape: 24 128 14 14 (602112)
I0403 15:00:11.018946 13993 net.cpp:156] Memory required for data: 1256902176
I0403 15:00:11.018960 13993 layer_factory.hpp:77] Creating layer inception_4e/output
I0403 15:00:11.018977 13993 net.cpp:91] Creating Layer inception_4e/output
I0403 15:00:11.018992 13993 net.cpp:425] inception_4e/output <- inception_4e/1x1
I0403 15:00:11.019008 13993 net.cpp:425] inception_4e/output <- inception_4e/3x3
I0403 15:00:11.019023 13993 net.cpp:425] inception_4e/output <- inception_4e/5x5
I0403 15:00:11.019039 13993 net.cpp:425] inception_4e/output <- inception_4e/pool_proj
I0403 15:00:11.019057 13993 net.cpp:399] inception_4e/output -> inception_4e/output
I0403 15:00:11.019106 13993 net.cpp:141] Setting up inception_4e/output
I0403 15:00:11.019132 13993 net.cpp:148] Top shape: 24 832 14 14 (3913728)
I0403 15:00:11.019147 13993 net.cpp:156] Memory required for data: 1272557088
I0403 15:00:11.019161 13993 layer_factory.hpp:77] Creating layer pool4/3x3_s2
I0403 15:00:11.019178 13993 net.cpp:91] Creating Layer pool4/3x3_s2
I0403 15:00:11.019193 13993 net.cpp:425] pool4/3x3_s2 <- inception_4e/output
I0403 15:00:11.019214 13993 net.cpp:399] pool4/3x3_s2 -> pool4/3x3_s2
I0403 15:00:11.019281 13993 net.cpp:141] Setting up pool4/3x3_s2
I0403 15:00:11.019304 13993 net.cpp:148] Top shape: 24 832 7 7 (978432)
I0403 15:00:11.019318 13993 net.cpp:156] Memory required for data: 1276470816
I0403 15:00:11.019331 13993 layer_factory.hpp:77] Creating layer pool4/3x3_s2_pool4/3x3_s2_0_split
I0403 15:00:11.019351 13993 net.cpp:91] Creating Layer pool4/3x3_s2_pool4/3x3_s2_0_split
I0403 15:00:11.019366 13993 net.cpp:425] pool4/3x3_s2_pool4/3x3_s2_0_split <- pool4/3x3_s2
I0403 15:00:11.019382 13993 net.cpp:399] pool4/3x3_s2_pool4/3x3_s2_0_split -> pool4/3x3_s2_pool4/3x3_s2_0_split_0
I0403 15:00:11.019402 13993 net.cpp:399] pool4/3x3_s2_pool4/3x3_s2_0_split -> pool4/3x3_s2_pool4/3x3_s2_0_split_1
I0403 15:00:11.019421 13993 net.cpp:399] pool4/3x3_s2_pool4/3x3_s2_0_split -> pool4/3x3_s2_pool4/3x3_s2_0_split_2
I0403 15:00:11.019440 13993 net.cpp:399] pool4/3x3_s2_pool4/3x3_s2_0_split -> pool4/3x3_s2_pool4/3x3_s2_0_split_3
I0403 15:00:11.019531 13993 net.cpp:141] Setting up pool4/3x3_s2_pool4/3x3_s2_0_split
I0403 15:00:11.019561 13993 net.cpp:148] Top shape: 24 832 7 7 (978432)
I0403 15:00:11.019577 13993 net.cpp:148] Top shape: 24 832 7 7 (978432)
I0403 15:00:11.019592 13993 net.cpp:148] Top shape: 24 832 7 7 (978432)
I0403 15:00:11.019606 13993 net.cpp:148] Top shape: 24 832 7 7 (978432)
I0403 15:00:11.019619 13993 net.cpp:156] Memory required for data: 1292125728
I0403 15:00:11.019632 13993 layer_factory.hpp:77] Creating layer inception_5a/1x1
I0403 15:00:11.019654 13993 net.cpp:91] Creating Layer inception_5a/1x1
I0403 15:00:11.019671 13993 net.cpp:425] inception_5a/1x1 <- pool4/3x3_s2_pool4/3x3_s2_0_split_0
I0403 15:00:11.019692 13993 net.cpp:399] inception_5a/1x1 -> inception_5a/1x1
I0403 15:00:11.022591 13993 net.cpp:141] Setting up inception_5a/1x1
I0403 15:00:11.022620 13993 net.cpp:148] Top shape: 24 256 7 7 (301056)
I0403 15:00:11.022635 13993 net.cpp:156] Memory required for data: 1293329952
I0403 15:00:11.022652 13993 layer_factory.hpp:77] Creating layer inception_5a/relu_1x1
I0403 15:00:11.022672 13993 net.cpp:91] Creating Layer inception_5a/relu_1x1
I0403 15:00:11.022688 13993 net.cpp:425] inception_5a/relu_1x1 <- inception_5a/1x1
I0403 15:00:11.022706 13993 net.cpp:386] inception_5a/relu_1x1 -> inception_5a/1x1 (in-place)
I0403 15:00:11.023025 13993 net.cpp:141] Setting up inception_5a/relu_1x1
I0403 15:00:11.023051 13993 net.cpp:148] Top shape: 24 256 7 7 (301056)
I0403 15:00:11.023066 13993 net.cpp:156] Memory required for data: 1294534176
I0403 15:00:11.023082 13993 layer_factory.hpp:77] Creating layer inception_5a/3x3_reduce
I0403 15:00:11.023103 13993 net.cpp:91] Creating Layer inception_5a/3x3_reduce
I0403 15:00:11.023120 13993 net.cpp:425] inception_5a/3x3_reduce <- pool4/3x3_s2_pool4/3x3_s2_0_split_1
I0403 15:00:11.023141 13993 net.cpp:399] inception_5a/3x3_reduce -> inception_5a/3x3_reduce
I0403 15:00:11.025634 13993 net.cpp:141] Setting up inception_5a/3x3_reduce
I0403 15:00:11.025665 13993 net.cpp:148] Top shape: 24 160 7 7 (188160)
I0403 15:00:11.025681 13993 net.cpp:156] Memory required for data: 1295286816
I0403 15:00:11.025698 13993 layer_factory.hpp:77] Creating layer inception_5a/relu_3x3_reduce
I0403 15:00:11.025717 13993 net.cpp:91] Creating Layer inception_5a/relu_3x3_reduce
I0403 15:00:11.025732 13993 net.cpp:425] inception_5a/relu_3x3_reduce <- inception_5a/3x3_reduce
I0403 15:00:11.025751 13993 net.cpp:386] inception_5a/relu_3x3_reduce -> inception_5a/3x3_reduce (in-place)
I0403 15:00:11.025940 13993 net.cpp:141] Setting up inception_5a/relu_3x3_reduce
I0403 15:00:11.025965 13993 net.cpp:148] Top shape: 24 160 7 7 (188160)
I0403 15:00:11.025980 13993 net.cpp:156] Memory required for data: 1296039456
I0403 15:00:11.025995 13993 layer_factory.hpp:77] Creating layer inception_5a/3x3
I0403 15:00:11.026015 13993 net.cpp:91] Creating Layer inception_5a/3x3
I0403 15:00:11.026033 13993 net.cpp:425] inception_5a/3x3 <- inception_5a/3x3_reduce
I0403 15:00:11.026056 13993 net.cpp:399] inception_5a/3x3 -> inception_5a/3x3
I0403 15:00:11.031169 13993 net.cpp:141] Setting up inception_5a/3x3
I0403 15:00:11.031198 13993 net.cpp:148] Top shape: 24 320 7 7 (376320)
I0403 15:00:11.031214 13993 net.cpp:156] Memory required for data: 1297544736
I0403 15:00:11.031231 13993 layer_factory.hpp:77] Creating layer inception_5a/relu_3x3
I0403 15:00:11.031251 13993 net.cpp:91] Creating Layer inception_5a/relu_3x3
I0403 15:00:11.031267 13993 net.cpp:425] inception_5a/relu_3x3 <- inception_5a/3x3
I0403 15:00:11.031285 13993 net.cpp:386] inception_5a/relu_3x3 -> inception_5a/3x3 (in-place)
I0403 15:00:11.031589 13993 net.cpp:141] Setting up inception_5a/relu_3x3
I0403 15:00:11.031615 13993 net.cpp:148] Top shape: 24 320 7 7 (376320)
I0403 15:00:11.031630 13993 net.cpp:156] Memory required for data: 1299050016
I0403 15:00:11.031644 13993 layer_factory.hpp:77] Creating layer inception_5a/5x5_reduce
I0403 15:00:11.031666 13993 net.cpp:91] Creating Layer inception_5a/5x5_reduce
I0403 15:00:11.031683 13993 net.cpp:425] inception_5a/5x5_reduce <- pool4/3x3_s2_pool4/3x3_s2_0_split_2
I0403 15:00:11.031704 13993 net.cpp:399] inception_5a/5x5_reduce -> inception_5a/5x5_reduce
I0403 15:00:11.032891 13993 net.cpp:141] Setting up inception_5a/5x5_reduce
I0403 15:00:11.032918 13993 net.cpp:148] Top shape: 24 32 7 7 (37632)
I0403 15:00:11.032933 13993 net.cpp:156] Memory required for data: 1299200544
I0403 15:00:11.032951 13993 layer_factory.hpp:77] Creating layer inception_5a/relu_5x5_reduce
I0403 15:00:11.032971 13993 net.cpp:91] Creating Layer inception_5a/relu_5x5_reduce
I0403 15:00:11.032987 13993 net.cpp:425] inception_5a/relu_5x5_reduce <- inception_5a/5x5_reduce
I0403 15:00:11.033004 13993 net.cpp:386] inception_5a/relu_5x5_reduce -> inception_5a/5x5_reduce (in-place)
I0403 15:00:11.033306 13993 net.cpp:141] Setting up inception_5a/relu_5x5_reduce
I0403 15:00:11.033331 13993 net.cpp:148] Top shape: 24 32 7 7 (37632)
I0403 15:00:11.033346 13993 net.cpp:156] Memory required for data: 1299351072
I0403 15:00:11.033360 13993 layer_factory.hpp:77] Creating layer inception_5a/5x5
I0403 15:00:11.033382 13993 net.cpp:91] Creating Layer inception_5a/5x5
I0403 15:00:11.033401 13993 net.cpp:425] inception_5a/5x5 <- inception_5a/5x5_reduce
I0403 15:00:11.033419 13993 net.cpp:399] inception_5a/5x5 -> inception_5a/5x5
I0403 15:00:11.035161 13993 net.cpp:141] Setting up inception_5a/5x5
I0403 15:00:11.035202 13993 net.cpp:148] Top shape: 24 128 7 7 (150528)
I0403 15:00:11.035218 13993 net.cpp:156] Memory required for data: 1299953184
I0403 15:00:11.035248 13993 layer_factory.hpp:77] Creating layer inception_5a/relu_5x5
I0403 15:00:11.035270 13993 net.cpp:91] Creating Layer inception_5a/relu_5x5
I0403 15:00:11.035287 13993 net.cpp:425] inception_5a/relu_5x5 <- inception_5a/5x5
I0403 15:00:11.035305 13993 net.cpp:386] inception_5a/relu_5x5 -> inception_5a/5x5 (in-place)
I0403 15:00:11.035501 13993 net.cpp:141] Setting up inception_5a/relu_5x5
I0403 15:00:11.035526 13993 net.cpp:148] Top shape: 24 128 7 7 (150528)
I0403 15:00:11.035558 13993 net.cpp:156] Memory required for data: 1300555296
I0403 15:00:11.035574 13993 layer_factory.hpp:77] Creating layer inception_5a/pool
I0403 15:00:11.035593 13993 net.cpp:91] Creating Layer inception_5a/pool
I0403 15:00:11.035609 13993 net.cpp:425] inception_5a/pool <- pool4/3x3_s2_pool4/3x3_s2_0_split_3
I0403 15:00:11.035627 13993 net.cpp:399] inception_5a/pool -> inception_5a/pool
I0403 15:00:11.035698 13993 net.cpp:141] Setting up inception_5a/pool
I0403 15:00:11.035724 13993 net.cpp:148] Top shape: 24 832 7 7 (978432)
I0403 15:00:11.035739 13993 net.cpp:156] Memory required for data: 1304469024
I0403 15:00:11.035753 13993 layer_factory.hpp:77] Creating layer inception_5a/pool_proj
I0403 15:00:11.035774 13993 net.cpp:91] Creating Layer inception_5a/pool_proj
I0403 15:00:11.035792 13993 net.cpp:425] inception_5a/pool_proj <- inception_5a/pool
I0403 15:00:11.035812 13993 net.cpp:399] inception_5a/pool_proj -> inception_5a/pool_proj
I0403 15:00:11.038087 13993 net.cpp:141] Setting up inception_5a/pool_proj
I0403 15:00:11.038115 13993 net.cpp:148] Top shape: 24 128 7 7 (150528)
I0403 15:00:11.038130 13993 net.cpp:156] Memory required for data: 1305071136
I0403 15:00:11.038147 13993 layer_factory.hpp:77] Creating layer inception_5a/relu_pool_proj
I0403 15:00:11.038166 13993 net.cpp:91] Creating Layer inception_5a/relu_pool_proj
I0403 15:00:11.038180 13993 net.cpp:425] inception_5a/relu_pool_proj <- inception_5a/pool_proj
I0403 15:00:11.038198 13993 net.cpp:386] inception_5a/relu_pool_proj -> inception_5a/pool_proj (in-place)
I0403 15:00:11.038491 13993 net.cpp:141] Setting up inception_5a/relu_pool_proj
I0403 15:00:11.038516 13993 net.cpp:148] Top shape: 24 128 7 7 (150528)
I0403 15:00:11.038530 13993 net.cpp:156] Memory required for data: 1305673248
I0403 15:00:11.038550 13993 layer_factory.hpp:77] Creating layer inception_5a/output
I0403 15:00:11.038568 13993 net.cpp:91] Creating Layer inception_5a/output
I0403 15:00:11.038583 13993 net.cpp:425] inception_5a/output <- inception_5a/1x1
I0403 15:00:11.038599 13993 net.cpp:425] inception_5a/output <- inception_5a/3x3
I0403 15:00:11.038614 13993 net.cpp:425] inception_5a/output <- inception_5a/5x5
I0403 15:00:11.038630 13993 net.cpp:425] inception_5a/output <- inception_5a/pool_proj
I0403 15:00:11.038647 13993 net.cpp:399] inception_5a/output -> inception_5a/output
I0403 15:00:11.038697 13993 net.cpp:141] Setting up inception_5a/output
I0403 15:00:11.038720 13993 net.cpp:148] Top shape: 24 832 7 7 (978432)
I0403 15:00:11.038735 13993 net.cpp:156] Memory required for data: 1309586976
I0403 15:00:11.038749 13993 layer_factory.hpp:77] Creating layer inception_5a/output_inception_5a/output_0_split
I0403 15:00:11.038765 13993 net.cpp:91] Creating Layer inception_5a/output_inception_5a/output_0_split
I0403 15:00:11.038779 13993 net.cpp:425] inception_5a/output_inception_5a/output_0_split <- inception_5a/output
I0403 15:00:11.038795 13993 net.cpp:399] inception_5a/output_inception_5a/output_0_split -> inception_5a/output_inception_5a/output_0_split_0
I0403 15:00:11.038816 13993 net.cpp:399] inception_5a/output_inception_5a/output_0_split -> inception_5a/output_inception_5a/output_0_split_1
I0403 15:00:11.038837 13993 net.cpp:399] inception_5a/output_inception_5a/output_0_split -> inception_5a/output_inception_5a/output_0_split_2
I0403 15:00:11.038856 13993 net.cpp:399] inception_5a/output_inception_5a/output_0_split -> inception_5a/output_inception_5a/output_0_split_3
I0403 15:00:11.038966 13993 net.cpp:141] Setting up inception_5a/output_inception_5a/output_0_split
I0403 15:00:11.038990 13993 net.cpp:148] Top shape: 24 832 7 7 (978432)
I0403 15:00:11.039005 13993 net.cpp:148] Top shape: 24 832 7 7 (978432)
I0403 15:00:11.039019 13993 net.cpp:148] Top shape: 24 832 7 7 (978432)
I0403 15:00:11.039033 13993 net.cpp:148] Top shape: 24 832 7 7 (978432)
I0403 15:00:11.039047 13993 net.cpp:156] Memory required for data: 1325241888
I0403 15:00:11.039060 13993 layer_factory.hpp:77] Creating layer inception_5b/1x1
I0403 15:00:11.039082 13993 net.cpp:91] Creating Layer inception_5b/1x1
I0403 15:00:11.039099 13993 net.cpp:425] inception_5b/1x1 <- inception_5a/output_inception_5a/output_0_split_0
I0403 15:00:11.039119 13993 net.cpp:399] inception_5b/1x1 -> inception_5b/1x1
I0403 15:00:11.042932 13993 net.cpp:141] Setting up inception_5b/1x1
I0403 15:00:11.042966 13993 net.cpp:148] Top shape: 24 384 7 7 (451584)
I0403 15:00:11.042984 13993 net.cpp:156] Memory required for data: 1327048224
I0403 15:00:11.043001 13993 layer_factory.hpp:77] Creating layer inception_5b/relu_1x1
I0403 15:00:11.043018 13993 net.cpp:91] Creating Layer inception_5b/relu_1x1
I0403 15:00:11.043035 13993 net.cpp:425] inception_5b/relu_1x1 <- inception_5b/1x1
I0403 15:00:11.043053 13993 net.cpp:386] inception_5b/relu_1x1 -> inception_5b/1x1 (in-place)
I0403 15:00:11.043365 13993 net.cpp:141] Setting up inception_5b/relu_1x1
I0403 15:00:11.043392 13993 net.cpp:148] Top shape: 24 384 7 7 (451584)
I0403 15:00:11.043408 13993 net.cpp:156] Memory required for data: 1328854560
I0403 15:00:11.043422 13993 layer_factory.hpp:77] Creating layer inception_5b/3x3_reduce
I0403 15:00:11.043444 13993 net.cpp:91] Creating Layer inception_5b/3x3_reduce
I0403 15:00:11.043462 13993 net.cpp:425] inception_5b/3x3_reduce <- inception_5a/output_inception_5a/output_0_split_1
I0403 15:00:11.043480 13993 net.cpp:399] inception_5b/3x3_reduce -> inception_5b/3x3_reduce
I0403 15:00:11.046188 13993 net.cpp:141] Setting up inception_5b/3x3_reduce
I0403 15:00:11.046218 13993 net.cpp:148] Top shape: 24 192 7 7 (225792)
I0403 15:00:11.046233 13993 net.cpp:156] Memory required for data: 1329757728
I0403 15:00:11.046252 13993 layer_factory.hpp:77] Creating layer inception_5b/relu_3x3_reduce
I0403 15:00:11.046268 13993 net.cpp:91] Creating Layer inception_5b/relu_3x3_reduce
I0403 15:00:11.046283 13993 net.cpp:425] inception_5b/relu_3x3_reduce <- inception_5b/3x3_reduce
I0403 15:00:11.046303 13993 net.cpp:386] inception_5b/relu_3x3_reduce -> inception_5b/3x3_reduce (in-place)
I0403 15:00:11.046494 13993 net.cpp:141] Setting up inception_5b/relu_3x3_reduce
I0403 15:00:11.046520 13993 net.cpp:148] Top shape: 24 192 7 7 (225792)
I0403 15:00:11.046535 13993 net.cpp:156] Memory required for data: 1330660896
I0403 15:00:11.046556 13993 layer_factory.hpp:77] Creating layer inception_5b/3x3
I0403 15:00:11.046581 13993 net.cpp:91] Creating Layer inception_5b/3x3
I0403 15:00:11.046599 13993 net.cpp:425] inception_5b/3x3 <- inception_5b/3x3_reduce
I0403 15:00:11.046622 13993 net.cpp:399] inception_5b/3x3 -> inception_5b/3x3
I0403 15:00:11.053369 13993 net.cpp:141] Setting up inception_5b/3x3
I0403 15:00:11.053396 13993 net.cpp:148] Top shape: 24 384 7 7 (451584)
I0403 15:00:11.053412 13993 net.cpp:156] Memory required for data: 1332467232
I0403 15:00:11.053431 13993 layer_factory.hpp:77] Creating layer inception_5b/relu_3x3
I0403 15:00:11.053447 13993 net.cpp:91] Creating Layer inception_5b/relu_3x3
I0403 15:00:11.053463 13993 net.cpp:425] inception_5b/relu_3x3 <- inception_5b/3x3
I0403 15:00:11.053483 13993 net.cpp:386] inception_5b/relu_3x3 -> inception_5b/3x3 (in-place)
I0403 15:00:11.053796 13993 net.cpp:141] Setting up inception_5b/relu_3x3
I0403 15:00:11.053822 13993 net.cpp:148] Top shape: 24 384 7 7 (451584)
I0403 15:00:11.053836 13993 net.cpp:156] Memory required for data: 1334273568
I0403 15:00:11.053850 13993 layer_factory.hpp:77] Creating layer inception_5b/5x5_reduce
I0403 15:00:11.053889 13993 net.cpp:91] Creating Layer inception_5b/5x5_reduce
I0403 15:00:11.053908 13993 net.cpp:425] inception_5b/5x5_reduce <- inception_5a/output_inception_5a/output_0_split_2
I0403 15:00:11.053931 13993 net.cpp:399] inception_5b/5x5_reduce -> inception_5b/5x5_reduce
I0403 15:00:11.055218 13993 net.cpp:141] Setting up inception_5b/5x5_reduce
I0403 15:00:11.055248 13993 net.cpp:148] Top shape: 24 48 7 7 (56448)
I0403 15:00:11.055263 13993 net.cpp:156] Memory required for data: 1334499360
I0403 15:00:11.055280 13993 layer_factory.hpp:77] Creating layer inception_5b/relu_5x5_reduce
I0403 15:00:11.055297 13993 net.cpp:91] Creating Layer inception_5b/relu_5x5_reduce
I0403 15:00:11.055317 13993 net.cpp:425] inception_5b/relu_5x5_reduce <- inception_5b/5x5_reduce
I0403 15:00:11.055333 13993 net.cpp:386] inception_5b/relu_5x5_reduce -> inception_5b/5x5_reduce (in-place)
I0403 15:00:11.055716 13993 net.cpp:141] Setting up inception_5b/relu_5x5_reduce
I0403 15:00:11.055742 13993 net.cpp:148] Top shape: 24 48 7 7 (56448)
I0403 15:00:11.055757 13993 net.cpp:156] Memory required for data: 1334725152
I0403 15:00:11.055770 13993 layer_factory.hpp:77] Creating layer inception_5b/5x5
I0403 15:00:11.055790 13993 net.cpp:91] Creating Layer inception_5b/5x5
I0403 15:00:11.055807 13993 net.cpp:425] inception_5b/5x5 <- inception_5b/5x5_reduce
I0403 15:00:11.055826 13993 net.cpp:399] inception_5b/5x5 -> inception_5b/5x5
I0403 15:00:11.057898 13993 net.cpp:141] Setting up inception_5b/5x5
I0403 15:00:11.057925 13993 net.cpp:148] Top shape: 24 128 7 7 (150528)
I0403 15:00:11.057940 13993 net.cpp:156] Memory required for data: 1335327264
I0403 15:00:11.057957 13993 layer_factory.hpp:77] Creating layer inception_5b/relu_5x5
I0403 15:00:11.057988 13993 net.cpp:91] Creating Layer inception_5b/relu_5x5
I0403 15:00:11.058004 13993 net.cpp:425] inception_5b/relu_5x5 <- inception_5b/5x5
I0403 15:00:11.058022 13993 net.cpp:386] inception_5b/relu_5x5 -> inception_5b/5x5 (in-place)
I0403 15:00:11.058210 13993 net.cpp:141] Setting up inception_5b/relu_5x5
I0403 15:00:11.058236 13993 net.cpp:148] Top shape: 24 128 7 7 (150528)
I0403 15:00:11.058250 13993 net.cpp:156] Memory required for data: 1335929376
I0403 15:00:11.058264 13993 layer_factory.hpp:77] Creating layer inception_5b/pool
I0403 15:00:11.058281 13993 net.cpp:91] Creating Layer inception_5b/pool
I0403 15:00:11.058296 13993 net.cpp:425] inception_5b/pool <- inception_5a/output_inception_5a/output_0_split_3
I0403 15:00:11.058313 13993 net.cpp:399] inception_5b/pool -> inception_5b/pool
I0403 15:00:11.058384 13993 net.cpp:141] Setting up inception_5b/pool
I0403 15:00:11.058408 13993 net.cpp:148] Top shape: 24 832 7 7 (978432)
I0403 15:00:11.058420 13993 net.cpp:156] Memory required for data: 1339843104
I0403 15:00:11.058434 13993 layer_factory.hpp:77] Creating layer inception_5b/pool_proj
I0403 15:00:11.058454 13993 net.cpp:91] Creating Layer inception_5b/pool_proj
I0403 15:00:11.058470 13993 net.cpp:425] inception_5b/pool_proj <- inception_5b/pool
I0403 15:00:11.058491 13993 net.cpp:399] inception_5b/pool_proj -> inception_5b/pool_proj
I0403 15:00:11.060766 13993 net.cpp:141] Setting up inception_5b/pool_proj
I0403 15:00:11.060796 13993 net.cpp:148] Top shape: 24 128 7 7 (150528)
I0403 15:00:11.060811 13993 net.cpp:156] Memory required for data: 1340445216
I0403 15:00:11.060827 13993 layer_factory.hpp:77] Creating layer inception_5b/relu_pool_proj
I0403 15:00:11.060847 13993 net.cpp:91] Creating Layer inception_5b/relu_pool_proj
I0403 15:00:11.060863 13993 net.cpp:425] inception_5b/relu_pool_proj <- inception_5b/pool_proj
I0403 15:00:11.060879 13993 net.cpp:386] inception_5b/relu_pool_proj -> inception_5b/pool_proj (in-place)
I0403 15:00:11.061170 13993 net.cpp:141] Setting up inception_5b/relu_pool_proj
I0403 15:00:11.061195 13993 net.cpp:148] Top shape: 24 128 7 7 (150528)
I0403 15:00:11.061210 13993 net.cpp:156] Memory required for data: 1341047328
I0403 15:00:11.061224 13993 layer_factory.hpp:77] Creating layer inception_5b/output
I0403 15:00:11.061240 13993 net.cpp:91] Creating Layer inception_5b/output
I0403 15:00:11.061271 13993 net.cpp:425] inception_5b/output <- inception_5b/1x1
I0403 15:00:11.061288 13993 net.cpp:425] inception_5b/output <- inception_5b/3x3
I0403 15:00:11.061305 13993 net.cpp:425] inception_5b/output <- inception_5b/5x5
I0403 15:00:11.061318 13993 net.cpp:425] inception_5b/output <- inception_5b/pool_proj
I0403 15:00:11.061337 13993 net.cpp:399] inception_5b/output -> inception_5b/output
I0403 15:00:11.061388 13993 net.cpp:141] Setting up inception_5b/output
I0403 15:00:11.061413 13993 net.cpp:148] Top shape: 24 1024 7 7 (1204224)
I0403 15:00:11.061427 13993 net.cpp:156] Memory required for data: 1345864224
I0403 15:00:11.061441 13993 layer_factory.hpp:77] Creating layer pool5/7x7_s1
I0403 15:00:11.061456 13993 net.cpp:91] Creating Layer pool5/7x7_s1
I0403 15:00:11.061471 13993 net.cpp:425] pool5/7x7_s1 <- inception_5b/output
I0403 15:00:11.061493 13993 net.cpp:399] pool5/7x7_s1 -> pool5/7x7_s1
I0403 15:00:11.061736 13993 net.cpp:141] Setting up pool5/7x7_s1
I0403 15:00:11.061765 13993 net.cpp:148] Top shape: 24 1024 1 1 (24576)
I0403 15:00:11.061781 13993 net.cpp:156] Memory required for data: 1345962528
I0403 15:00:11.061797 13993 layer_factory.hpp:77] Creating layer pool5/drop_7x7_s1
I0403 15:00:11.061817 13993 net.cpp:91] Creating Layer pool5/drop_7x7_s1
I0403 15:00:11.061835 13993 net.cpp:425] pool5/drop_7x7_s1 <- pool5/7x7_s1
I0403 15:00:11.061852 13993 net.cpp:386] pool5/drop_7x7_s1 -> pool5/7x7_s1 (in-place)
I0403 15:00:11.061903 13993 net.cpp:141] Setting up pool5/drop_7x7_s1
I0403 15:00:11.061929 13993 net.cpp:148] Top shape: 24 1024 1 1 (24576)
I0403 15:00:11.061944 13993 net.cpp:156] Memory required for data: 1346060832
I0403 15:00:11.061959 13993 layer_factory.hpp:77] Creating layer loss3/classifier_plantvillage
I0403 15:00:11.061977 13993 net.cpp:91] Creating Layer loss3/classifier_plantvillage
I0403 15:00:11.061995 13993 net.cpp:425] loss3/classifier_plantvillage <- pool5/7x7_s1
I0403 15:00:11.062016 13993 net.cpp:399] loss3/classifier_plantvillage -> loss3/classifier_plantvillage
I0403 15:00:11.062499 13993 net.cpp:141] Setting up loss3/classifier_plantvillage
I0403 15:00:11.062523 13993 net.cpp:148] Top shape: 24 38 (912)
I0403 15:00:11.062541 13993 net.cpp:156] Memory required for data: 1346064480
I0403 15:00:11.062561 13993 layer_factory.hpp:77] Creating layer loss3/classifier_plantvillage_loss3/classifier_plantvillage_0_split
I0403 15:00:11.062578 13993 net.cpp:91] Creating Layer loss3/classifier_plantvillage_loss3/classifier_plantvillage_0_split
I0403 15:00:11.062594 13993 net.cpp:425] loss3/classifier_plantvillage_loss3/classifier_plantvillage_0_split <- loss3/classifier_plantvillage
I0403 15:00:11.062610 13993 net.cpp:399] loss3/classifier_plantvillage_loss3/classifier_plantvillage_0_split -> loss3/classifier_plantvillage_loss3/classifier_plantvillage_0_split_0
I0403 15:00:11.062633 13993 net.cpp:399] loss3/classifier_plantvillage_loss3/classifier_plantvillage_0_split -> loss3/classifier_plantvillage_loss3/classifier_plantvillage_0_split_1
I0403 15:00:11.062654 13993 net.cpp:399] loss3/classifier_plantvillage_loss3/classifier_plantvillage_0_split -> loss3/classifier_plantvillage_loss3/classifier_plantvillage_0_split_2
I0403 15:00:11.062674 13993 net.cpp:399] loss3/classifier_plantvillage_loss3/classifier_plantvillage_0_split -> loss3/classifier_plantvillage_loss3/classifier_plantvillage_0_split_3
I0403 15:00:11.062782 13993 net.cpp:141] Setting up loss3/classifier_plantvillage_loss3/classifier_plantvillage_0_split
I0403 15:00:11.062806 13993 net.cpp:148] Top shape: 24 38 (912)
I0403 15:00:11.062829 13993 net.cpp:148] Top shape: 24 38 (912)
I0403 15:00:11.062844 13993 net.cpp:148] Top shape: 24 38 (912)
I0403 15:00:11.062878 13993 net.cpp:148] Top shape: 24 38 (912)
I0403 15:00:11.062892 13993 net.cpp:156] Memory required for data: 1346079072
I0403 15:00:11.062906 13993 layer_factory.hpp:77] Creating layer loss1/loss
I0403 15:00:11.062932 13993 net.cpp:91] Creating Layer loss1/loss
I0403 15:00:11.062952 13993 net.cpp:425] loss1/loss <- loss1/classifier_plantvillage_loss1/classifier_plantvillage_0_split_0
I0403 15:00:11.062985 13993 net.cpp:425] loss1/loss <- label_data_1_split_0
…
