…
I0403 15:26:22.456106 14956 net.cpp:313] The NetState phase (1) differed from the phase (0) specified by a rule in layer data
I0403 15:26:22.457204 14956 net.cpp:49] Initializing net from parameters: 
state {
  phase: TEST
}
layer {
  name: "data"
  type: "Data"
  top: "data"
  top: "label"
  include {
    phase: TEST
  }
  transform_param {
    mirror: false
    crop_size: 224
    mean_file: "/home/mohanty/data/final_dataset/lmdb/color-50-50/mean.binaryproto"
  }
  data_param {
    source: "/home/mohanty/data/final_dataset/lmdb/color-50-50/test_db"
    batch_size: 24
    backend: LMDB
  }
}
layer {
  name: "conv1/7x7_s2"
  type: "Convolution"
  bottom: "data"
  top: "conv1/7x7_s2"
  param {
    lr_mult: 1
    decay_mult: 1
  }
  param {
    lr_mult: 2
    decay_mult: 0
  }
  convolution_param {
    num_output: 64
    pad: 3
    kernel_size: 7
    stride: 2
    weight_filler {
      type: "xavier"
      std: 0.1
    }
    bias_filler {
      type: "constant"
      value: 0.2
    }
  }
}
layer {
  name: "conv1/relu_7x7"
  type: "ReLU"
  bottom: "conv1/7x7_s2"
  top: "conv1/7x7_s2"
}
layer {
  name: "pool1/3x3_s2"
  type: "Pooling"
  bottom: "conv1/7x7_s2"
  top: "pool1/3x3_s2"
  pooling_param {
    pool: MAX
    kernel_size: 3
    stride: 2
  }
}
layer {
  name: "pool1/norm1"
  type: "LRN"
  bottom: "pool1/3x3_s2"
  top: "pool1/norm1"
  lrn_param {
    local_size: 5
    alpha: 0.0001
    beta: 0.75
  }
}
layer {
  name: "conv2/3x3_reduce"
  type: "Convolution"
  bottom: "pool1/norm1"
  top: "conv2/3x3_reduce"
  param {
    lr_mult: 1
    decay_mult: 1
  }
  param {
    lr_mult: 2
    decay_mult: 0
  }
  convolution_param {
    num_output: 64
    kernel_size: 1
    weight_filler {
      type: "xavier"
      std: 0.1
    }
    bias_filler {
      type: "constant"
      value: 0.2
    }
  }
}
layer {
  name: "conv2/relu_3x3_reduce"
  type: "ReLU"
  bottom: "conv2/3x3_reduce"
  top: "conv2/3x3_reduce"
}
layer {
  name: "conv2/3x3"
  type: "Convolution"
  bottom: "conv2/3x3_reduce"
  top: "conv2/3x3"
  param {
    lr_mult: 1
    decay_mult: 1
  }
  param {
    lr_mult: 2
    decay_mult: 0
  }
  convolution_param {
    num_output: 192
    pad: 1
    kernel_size: 3
    weight_filler {
      type: "xavier"
      std: 0.03
    }
    bias_filler {
      type: "constant"
      value: 0.2
    }
  }
}
layer {
  name: "conv2/relu_3x3"
  type: "ReLU"
  bottom: "conv2/3x3"
  top: "conv2/3x3"
}
layer {
  name: "conv2/norm2"
  type: "LRN"
  bottom: "conv2/3x3"
  top: "conv2/norm2"
  lrn_param {
    local_size: 5
    alpha: 0.0001
    beta: 0.75
  }
}
layer {
  name: "pool2/3x3_s2"
  type: "Pooling"
  bottom: "conv2/norm2"
  top: "pool2/3x3_s2"
  pooling_param {
    pool: MAX
    kernel_size: 3
    stride: 2
  }
}
layer {
  name: "inception_3a/1x1"
  type: "Convolution"
  bottom: "pool2/3x3_s2"
  top: "inception_3a/1x1"
  param {
    lr_mult: 1
    decay_mult: 1
  }
  param {
    lr_mult: 2
    decay_mult: 0
  }
  convolution_param {
    num_output: 64
    kernel_size: 1
    weight_filler {
      type: "xavier"
      std: 0.03
    }
    bias_filler {
      type: "constant"
      value: 0.2
    }
  }
}
layer {
  name: "inception_3a/relu_1x1"
  type: "ReLU"
  bottom: "inception_3a/1x1"
  top: "inception_3a/1x1"
}
layer {
  name: "inception_3a/3x3_reduce"
  type: "Convolution"
  bottom: "pool2/3x3_s2"
  top: "inception_3a/3x3_reduce"
  param {
    lr_mult: 1
    decay_mult: 1
  }
  param {
    lr_mult: 2
    decay_mult: 0
  }
  convolution_param {
    num_output: 96
    kernel_size: 1
    weight_filler {
      type: "xavier"
      std: 0.09
    }
    bias_filler {
      type: "constant"
      value: 0.2
    }
  }
}
layer {
  name: "inception_3a/relu_3x3_reduce"
  type: "ReLU"
  bottom: "inception_3a/3x3_reduce"
  top: "inception_3a/3x3_reduce"
}
layer {
  name: "inception_3a/3x3"
  type: "Convolution"
  bottom: "inception_3a/3x3_reduce"
  top: "inception_3a/3x3"
  param {
    lr_mult: 1
    decay_mult: 1
  }
  param {
    lr_mult: 2
    decay_mult: 0
  }
  convolution_param {
    num_output: 128
    pad: 1
    kernel_size: 3
    weight_filler {
      type: "xavier"
      std: 0.03
    }
    bias_filler {
      type: "constant"
      value: 0.2
    }
  }
}
layer {
  name: "inception_3a/relu_3x3"
  type: "ReLU"
  bottom: "inception_3a/3x3"
  top: "inception_3a/3x3"
}
layer {
  name: "inception_3a/5x5_reduce"
  type: "Convolution"
  bottom: "pool2/3x3_s2"
  top: "inception_3a/5x5_reduce"
  param {
    lr_mult: 1
    decay_mult: 1
  }
  param {
    lr_mult: 2
    decay_mult: 0
  }
  convolution_param {
    num_output: 16
    kernel_size: 1
    weight_filler {
      type: "xavier"
      std: 0.2
    }
    bias_filler {
      type: "constant"
      value: 0.2
    }
  }
}
layer {
  name: "inception_3a/relu_5x5_reduce"
  type: "ReLU"
  bottom: "inception_3a/5x5_reduce"
  top: "inception_3a/5x5_reduce"
}
layer {
  name: "inception_3a/5x5"
  type: "Convolution"
  bottom: "inception_3a/5x5_reduce"
  top: "inception_3a/5x5"
  param {
    lr_mult: 1
    decay_mult: 1
  }
  param {
    lr_mult: 2
    decay_mult: 0
  }
  convolution_param {
    num_output: 32
    pad: 2
    kernel_size: 5
    weight_filler {
      type: "xavier"
      std: 0.03
    }
    bias_filler {
      type: "constant"
      value: 0.2
    }
  }
}
layer {
  name: "inception_3a/relu_5x5"
  type: "ReLU"
  bottom: "inception_3a/5x5"
  top: "inception_3a/5x5"
}
layer {
  name: "inception_3a/pool"
  type: "Pooling"
  bottom: "pool2/3x3_s2"
  top: "inception_3a/pool"
  pooling_param {
    pool: MAX
    kernel_size: 3
    stride: 1
    pad: 1
  }
}
layer {
  name: "inception_3a/pool_proj"
  type: "Convolution"
  bottom: "inception_3a/pool"
  top: "inception_3a/pool_proj"
  param {
    lr_mult: 1
    decay_mult: 1
  }
  param {
    lr_mult: 2
    decay_mult: 0
  }
  convolution_param {
    num_output: 32
    kernel_size: 1
    weight_filler {
      type: "xavier"
      std: 0.1
    }
    bias_filler {
      type: "constant"
      value: 0.2
    }
  }
}
layer {
  name: "inception_3a/relu_pool_proj"
  type: "ReLU"
  bottom: "inception_3a/pool_proj"
  top: "inception_3a/pool_proj"
}
layer {
  name: "inception_3a/output"
  type: "Concat"
  bottom: "inception_3a/1x1"
  bottom: "inception_3a/3x3"
  bottom: "inception_3a/5x5"
  bottom: "inception_3a/pool_proj"
  top: "inception_3a/output"
}
layer {
  name: "inception_3b/1x1"
  type: "Convolution"
  bottom: "inception_3a/output"
  top: "inception_3b/1x1"
  param {
    lr_mult: 1
    decay_mult: 1
  }
  param {
    lr_mult: 2
    decay_mult: 0
  }
  convolution_param {
    num_output: 128
    kernel_size: 1
    weight_filler {
      type: "xavier"
      std: 0.03
    }
    bias_filler {
      type: "constant"
      value: 0.2
    }
  }
}
layer {
  name: "inception_3b/relu_1x1"
  type: "ReLU"
  bottom: "inception_3b/1x1"
  top: "inception_3b/1x1"
}
layer {
  name: "inception_3b/3x3_reduce"
  type: "Convolution"
  bottom: "inception_3a/output"
  top: "inception_3b/3x3_reduce"
  param {
    lr_mult: 1
    decay_mult: 1
  }
  param {
    lr_mult: 2
    decay_mult: 0
  }
  convolution_param {
    num_output: 128
    kernel_size: 1
    weight_filler {
      type: "xavier"
      std: 0.09
    }
    bias_filler {
      type: "constant"
      value: 0.2
    }
  }
}
layer {
  name: "inception_3b/relu_3x3_reduce"
  type: "ReLU"
  bottom: "inception_3b/3x3_reduce"
  top: "inception_3b/3x3_reduce"
}
layer {
  name: "inception_3b/3x3"
  type: "Convolution"
  bottom: "inception_3b/3x3_reduce"
  top: "inception_3b/3x3"
  param {
    lr_mult: 1
    decay_mult: 1
  }
  param {
    lr_mult: 2
    decay_mult: 0
  }
  convolution_param {
    num_output: 192
    pad: 1
    kernel_size: 3
    weight_filler {
      type: "xavier"
      std: 0.03
    }
    bias_filler {
      type: "constant"
      value: 0.2
    }
  }
}
layer {
  name: "inception_3b/relu_3x3"
  type: "ReLU"
  bottom: "inception_3b/3x3"
  top: "inception_3b/3x3"
}
layer {
  name: "inception_3b/5x5_reduce"
  type: "Convolution"
  bottom: "inception_3a/output"
  top: "inception_3b/5x5_reduce"
  param {
    lr_mult: 1
    decay_mult: 1
  }
  param {
    lr_mult: 2
    decay_mult: 0
  }
  convolution_param {
    num_output: 32
    kernel_size: 1
    weight_filler {
      type: "xavier"
      std: 0.2
    }
    bias_filler {
      type: "constant"
      value: 0.2
    }
  }
}
layer {
  name: "inception_3b/relu_5x5_reduce"
  type: "ReLU"
  bottom: "inception_3b/5x5_reduce"
  top: "inception_3b/5x5_reduce"
}
layer {
  name: "inception_3b/5x5"
  type: "Convolution"
  bottom: "inception_3b/5x5_reduce"
  top: "inception_3b/5x5"
  param {
    lr_mult: 1
    decay_mult: 1
  }
  param {
    lr_mult: 2
    decay_mult: 0
  }
  convolution_param {
    num_output: 96
    pad: 2
    kernel_size: 5
    weight_filler {
      type: "xavier"
      std: 0.03
    }
    bias_filler {
      type: "constant"
      value: 0.2
    }
  }
}
layer {
  name: "inception_3b/relu_5x5"
  type: "ReLU"
  bottom: "inception_3b/5x5"
  top: "inception_3b/5x5"
}
layer {
  name: "inception_3b/pool"
  type: "Pooling"
  bottom: "inception_3a/output"
  top: "inception_3b/pool"
  pooling_param {
    pool: MAX
    kernel_size: 3
    stride: 1
    pad: 1
  }
}
layer {
  name: "inception_3b/pool_proj"
  type: "Convolution"
  bottom: "inception_3b/pool"
  top: "inception_3b/pool_proj"
  param {
    lr_mult: 1
    decay_mult: 1
  }
  param {
    lr_mult: 2
    decay_mult: 0
  }
  convolution_param {
    num_output: 64
    kernel_size: 1
    weight_filler {
      type: "xavier"
      std: 0.1
    }
    bias_filler {
      type: "constant"
      value: 0.2
    }
  }
}
layer {
  name: "inception_3b/relu_pool_proj"
  type: "ReLU"
  bottom: "inception_3b/pool_proj"
  top: "inception_3b/pool_proj"
}
layer {
  name: "inception_3b/output"
  type: "Concat"
  bottom: "inception_3b/1x1"
  bottom: "inception_3b/3x3"
  bottom: "inception_3b/5x5"
  bottom: "inception_3b/pool_proj"
  top: "inception_3b/output"
}
layer {
  name: "pool3/3x3_s2"
  type: "Pooling"
  bottom: "inception_3b/output"
  top: "pool3/3x3_s2"
  pooling_param {
    pool: MAX
    kernel_size: 3
    stride: 2
  }
}
layer {
  name: "inception_4a/1x1"
  type: "Convolution"
  bottom: "pool3/3x3_s2"
  top: "inception_4a/1x1"
  param {
    lr_mult: 1
    decay_mult: 1
  }
  param {
    lr_mult: 2
    decay_mult: 0
  }
  convolution_param {
    num_output: 192
    kernel_size: 1
    weight_filler {
      type: "xavier"
      std: 0.03
    }
    bias_filler {
      type: "constant"
      value: 0.2
    }
  }
}
layer {
  name: "inception_4a/relu_1x1"
  type: "ReLU"
  bottom: "inception_4a/1x1"
  top: "inception_4a/1x1"
}
layer {
  name: "inception_4a/3x3_reduce"
  type: "Convolution"
  bottom: "pool3/3x3_s2"
  top: "inception_4a/3x3_reduce"
  param {
    lr_mult: 1
    decay_mult: 1
  }
  param {
    lr_mult: 2
    decay_mult: 0
  }
  convolution_param {
    num_output: 96
    kernel_size: 1
    weight_filler {
      type: "xavier"
      std: 0.09
    }
    bias_filler {
      type: "constant"
      value: 0.2
    }
  }
}
layer {
  name: "inception_4a/relu_3x3_reduce"
  type: "ReLU"
  bottom: "inception_4a/3x3_reduce"
  top: "inception_4a/3x3_reduce"
}
layer {
  name: "inception_4a/3x3"
  type: "Convolution"
  bottom: "inception_4a/3x3_reduce"
  top: "inception_4a/3x3"
  param {
    lr_mult: 1
    decay_mult: 1
  }
  param {
    lr_mult: 2
    decay_mult: 0
  }
  convolution_param {
    num_output: 208
    pad: 1
    kernel_size: 3
    weight_filler {
      type: "xavier"
      std: 0.03
    }
    bias_filler {
      type: "constant"
      value: 0.2
    }
  }
}
layer {
  name: "inception_4a/relu_3x3"
  type: "ReLU"
  bottom: "inception_4a/3x3"
  top: "inception_4a/3x3"
}
layer {
  name: "inception_4a/5x5_reduce"
  type: "Convolution"
  bottom: "pool3/3x3_s2"
  top: "inception_4a/5x5_reduce"
  param {
    lr_mult: 1
    decay_mult: 1
  }
  param {
    lr_mult: 2
    decay_mult: 0
  }
  convolution_param {
    num_output: 16
    kernel_size: 1
    weight_filler {
      type: "xavier"
      std: 0.2
    }
    bias_filler {
      type: "constant"
      value: 0.2
    }
  }
}
layer {
  name: "inception_4a/relu_5x5_reduce"
  type: "ReLU"
  bottom: "inception_4a/5x5_reduce"
  top: "inception_4a/5x5_reduce"
}
layer {
  name: "inception_4a/5x5"
  type: "Convolution"
  bottom: "inception_4a/5x5_reduce"
  top: "inception_4a/5x5"
  param {
    lr_mult: 1
    decay_mult: 1
  }
  param {
    lr_mult: 2
    decay_mult: 0
  }
  convolution_param {
    num_output: 48
    pad: 2
    kernel_size: 5
    weight_filler {
      type: "xavier"
      std: 0.03
    }
    bias_filler {
      type: "constant"
      value: 0.2
    }
  }
}
layer {
  name: "inception_4a/relu_5x5"
  type: "ReLU"
  bottom: "inception_4a/5x5"
  top: "inception_4a/5x5"
}
layer {
  name: "inception_4a/pool"
  type: "Pooling"
  bottom: "pool3/3x3_s2"
  top: "inception_4a/pool"
  pooling_param {
    pool: MAX
    kernel_size: 3
    stride: 1
    pad: 1
  }
}
layer {
  name: "inception_4a/pool_proj"
  type: "Convolution"
  bottom: "inception_4a/pool"
  top: "inception_4a/pool_proj"
  param {
    lr_mult: 1
    decay_mult: 1
  }
  param {
    lr_mult: 2
    decay_mult: 0
  }
  convolution_param {
    num_output: 64
    kernel_size: 1
    weight_filler {
      type: "xavier"
      std: 0.1
    }
    bias_filler {
      type: "constant"
      value: 0.2
    }
  }
}
layer {
  name: "inception_4a/relu_pool_proj"
  type: "ReLU"
  bottom: "inception_4a/pool_proj"
  top: "inception_4a/pool_proj"
}
layer {
  name: "inception_4a/output"
  type: "Concat"
  bottom: "inception_4a/1x1"
  bottom: "inception_4a/3x3"
  bottom: "inception_4a/5x5"
  bottom: "inception_4a/pool_proj"
  top: "inception_4a/output"
}
layer {
  name: "loss1/ave_pool"
  type: "Pooling"
  bottom: "inception_4a/output"
  top: "loss1/ave_pool"
  pooling_param {
    pool: AVE
    kernel_size: 5
    stride: 3
  }
}
layer {
  name: "loss1/conv"
  type: "Convolution"
  bottom: "loss1/ave_pool"
  top: "loss1/conv"
  param {
    lr_mult: 1
    decay_mult: 1
  }
  param {
    lr_mult: 2
    decay_mult: 0
  }
  convolution_param {
    num_output: 128
    kernel_size: 1
    weight_filler {
      type: "xavier"
      std: 0.08
    }
    bias_filler {
      type: "constant"
      value: 0.2
    }
  }
}
layer {
  name: "loss1/relu_conv"
  type: "ReLU"
  bottom: "loss1/conv"
  top: "loss1/conv"
}
layer {
  name: "loss1/fc"
  type: "InnerProduct"
  bottom: "loss1/conv"
  top: "loss1/fc"
  param {
    lr_mult: 1
    decay_mult: 1
  }
  param {
    lr_mult: 2
    decay_mult: 0
  }
  inner_product_param {
    num_output: 1024
    weight_filler {
      type: "xavier"
      std: 0.02
    }
    bias_filler {
      type: "constant"
      value: 0.2
    }
  }
}
layer {
  name: "loss1/relu_fc"
  type: "ReLU"
  bottom: "loss1/fc"
  top: "loss1/fc"
}
layer {
  name: "loss1/drop_fc"
  type: "Dropout"
  bottom: "loss1/fc"
  top: "loss1/fc"
  dropout_param {
    dropout_ratio: 0.7
  }
}
layer {
  name: "loss1/classifier_plantvillage"
  type: "InnerProduct"
  bottom: "loss1/fc"
  top: "loss1/classifier_plantvillage"
  param {
    lr_mult: 1
    decay_mult: 1
  }
  param {
    lr_mult: 2
    decay_mult: 0
  }
  inner_product_param {
    num_output: 38
    weight_filler {
      type: "xavier"
      std: 0.0009765625
    }
    bias_filler {
      type: "constant"
      value: 0
    }
  }
}
layer {
  name: "inception_4b/1x1"
  type: "Convolution"
  bottom: "inception_4a/output"
  top: "inception_4b/1x1"
  param {
    lr_mult: 1
    decay_mult: 1
  }
  param {
    lr_mult: 2
    decay_mult: 0
  }
  convolution_param {
    num_output: 160
    kernel_size: 1
    weight_filler {
      type: "xavier"
      std: 0.03
    }
    bias_filler {
      type: "constant"
      value: 0.2
    }
  }
}
layer {
  name: "inception_4b/relu_1x1"
  type: "ReLU"
  bottom: "inception_4b/1x1"
  top: "inception_4b/1x1"
}
layer {
  name: "inception_4b/3x3_reduce"
  type: "Convolution"
  bottom: "inception_4a/output"
  top: "inception_4b/3x3_reduce"
  param {
    lr_mult: 1
    decay_mult: 1
  }
  param {
    lr_mult: 2
    decay_mult: 0
  }
  convolution_param {
    num_output: 112
    kernel_size: 1
    weight_filler {
      type: "xavier"
      std: 0.09
    }
    bias_filler {
      type: "constant"
      value: 0.2
    }
  }
}
layer {
  name: "inception_4b/relu_3x3_reduce"
  type: "ReLU"
  bottom: "inception_4b/3x3_reduce"
  top: "inception_4b/3x3_reduce"
}
layer {
  name: "inception_4b/3x3"
  type: "Convolution"
  bottom: "inception_4b/3x3_reduce"
  top: "inception_4b/3x3"
  param {
    lr_mult: 1
    decay_mult: 1
  }
  param {
    lr_mult: 2
    decay_mult: 0
  }
  convolution_param {
    num_output: 224
    pad: 1
    kernel_size: 3
    weight_filler {
      type: "xavier"
      std: 0.03
    }
    bias_filler {
      type: "constant"
      value: 0.2
    }
  }
}
layer {
  name: "inception_4b/relu_3x3"
  type: "ReLU"
  bottom: "inception_4b/3x3"
  top: "inception_4b/3x3"
}
layer {
  name: "inception_4b/5x5_reduce"
  type: "Convolution"
  bottom: "inception_4a/output"
  top: "inception_4b/5x5_reduce"
  param {
    lr_mult: 1
    decay_mult: 1
  }
  param {
    lr_mult: 2
    decay_mult: 0
  }
  convolution_param {
    num_output: 24
    kernel_size: 1
    weight_filler {
      type: "xavier"
      std: 0.2
    }
    bias_filler {
      type: "constant"
      value: 0.2
    }
  }
}
layer {
  name: "inception_4b/relu_5x5_reduce"
  type: "ReLU"
  bottom: "inception_4b/5x5_reduce"
  top: "inception_4b/5x5_reduce"
}
layer {
  name: "inception_4b/5x5"
  type: "Convolution"
  bottom: "inception_4b/5x5_reduce"
  top: "inception_4b/5x5"
  param {
    lr_mult: 1
    decay_mult: 1
  }
  param {
    lr_mult: 2
    decay_mult: 0
  }
  convolution_param {
    num_output: 64
    pad: 2
    kernel_size: 5
    weight_filler {
      type: "xavier"
      std: 0.03
    }
    bias_filler {
      type: "constant"
      value: 0.2
    }
  }
}
layer {
  name: "inception_4b/relu_5x5"
  type: "ReLU"
  bottom: "inception_4b/5x5"
  top: "inception_4b/5x5"
}
layer {
  name: "inception_4b/pool"
  type: "Pooling"
  bottom: "inception_4a/output"
  top: "inception_4b/pool"
  pooling_param {
    pool: MAX
    kernel_size: 3
    stride: 1
    pad: 1
  }
}
layer {
  name: "inception_4b/pool_proj"
  type: "Convolution"
  bottom: "inception_4b/pool"
  top: "inception_4b/pool_proj"
  param {
    lr_mult: 1
    decay_mult: 1
  }
  param {
    lr_mult: 2
    decay_mult: 0
  }
  convolution_param {
    num_output: 64
    kernel_size: 1
    weight_filler {
      type: "xavier"
      std: 0.1
    }
    bias_filler {
      type: "constant"
      value: 0.2
    }
  }
}
layer {
  name: "inception_4b/relu_pool_proj"
  type: "ReLU"
  bottom: "inception_4b/pool_proj"
  top: "inception_4b/pool_proj"
}
layer {
  name: "inception_4b/output"
  type: "Concat"
  bottom: "inception_4b/1x1"
  bottom: "inception_4b/3x3"
  bottom: "inception_4b/5x5"
  bottom: "inception_4b/pool_proj"
  top: "inception_4b/output"
}
layer {
  name: "inception_4c/1x1"
  type: "Convolution"
  bottom: "inception_4b/output"
  top: "inception_4c/1x1"
  param {
    lr_mult: 1
    decay_mult: 1
  }
  param {
    lr_mult: 2
    decay_mult: 0
  }
  convolution_param {
    num_output: 128
    kernel_size: 1
    weight_filler {
      type: "xavier"
      std: 0.03
    }
    bias_filler {
      type: "constant"
      value: 0.2
    }
  }
}
layer {
  name: "inception_4c/relu_1x1"
  type: "ReLU"
  bottom: "inception_4c/1x1"
  top: "inception_4c/1x1"
}
layer {
  name: "inception_4c/3x3_reduce"
  type: "Convolution"
  bottom: "inception_4b/output"
  top: "inception_4c/3x3_reduce"
  param {
    lr_mult: 1
    decay_mult: 1
  }
  param {
    lr_mult: 2
    decay_mult: 0
  }
  convolution_param {
    num_output: 128
    kernel_size: 1
    weight_filler {
      type: "xavier"
      std: 0.09
    }
    bias_filler {
      type: "constant"
      value: 0.2
    }
  }
}
layer {
  name: "inception_4c/relu_3x3_reduce"
  type: "ReLU"
  bottom: "inception_4c/3x3_reduce"
  top: "inception_4c/3x3_reduce"
}
layer {
  name: "inception_4c/3x3"
  type: "Convolution"
  bottom: "inception_4c/3x3_reduce"
  top: "inception_4c/3x3"
  param {
    lr_mult: 1
    decay_mult: 1
  }
  param {
    lr_mult: 2
    decay_mult: 0
  }
  convolution_param {
    num_output: 256
    pad: 1
    kernel_size: 3
    weight_filler {
      type: "xavier"
      std: 0.03
    }
    bias_filler {
      type: "constant"
      value: 0.2
    }
  }
}
layer {
  name: "inception_4c/relu_3x3"
  type: "ReLU"
  bottom: "inception_4c/3x3"
  top: "inception_4c/3x3"
}
layer {
  name: "inception_4c/5x5_reduce"
  type: "Convolution"
  bottom: "inception_4b/output"
  top: "inception_4c/5x5_reduce"
  param {
    lr_mult: 1
    decay_mult: 1
  }
  param {
    lr_mult: 2
    decay_mult: 0
  }
  convolution_param {
    num_output: 24
    kernel_size: 1
    weight_filler {
      type: "xavier"
      std: 0.2
    }
    bias_filler {
      type: "constant"
      value: 0.2
    }
  }
}
layer {
  name: "inception_4c/relu_5x5_reduce"
  type: "ReLU"
  bottom: "inception_4c/5x5_reduce"
  top: "inception_4c/5x5_reduce"
}
layer {
  name: "inception_4c/5x5"
  type: "Convolution"
  bottom: "inception_4c/5x5_reduce"
  top: "inception_4c/5x5"
  param {
    lr_mult: 1
    decay_mult: 1
  }
  param {
    lr_mult: 2
    decay_mult: 0
  }
  convolution_param {
    num_output: 64
    pad: 2
    kernel_size: 5
    weight_filler {
      type: "xavier"
      std: 0.03
    }
    bias_filler {
      type: "constant"
      value: 0.2
    }
  }
}
layer {
  name: "inception_4c/relu_5x5"
  type: "ReLU"
  bottom: "inception_4c/5x5"
  top: "inception_4c/5x5"
}
layer {
  name: "inception_4c/pool"
  type: "Pooling"
  bottom: "inception_4b/output"
  top: "inception_4c/pool"
  pooling_param {
    pool: MAX
    kernel_size: 3
    stride: 1
    pad: 1
  }
}
layer {
  name: "inception_4c/pool_proj"
  type: "Convolution"
  bottom: "inception_4c/pool"
  top: "inception_4c/pool_proj"
  param {
    lr_mult: 1
    decay_mult: 1
  }
  param {
    lr_mult: 2
    decay_mult: 0
  }
  convolution_param {
    num_output: 64
    kernel_size: 1
    weight_filler {
      type: "xavier"
      std: 0.1
    }
    bias_filler {
      type: "constant"
      value: 0.2
    }
  }
}
layer {
  name: "inception_4c/relu_pool_proj"
  type: "ReLU"
  bottom: "inception_4c/pool_proj"
  top: "inception_4c/pool_proj"
}
layer {
  name: "inception_4c/output"
  type: "Concat"
  bottom: "inception_4c/1x1"
  bottom: "inception_4c/3x3"
  bottom: "inception_4c/5x5"
  bottom: "inception_4c/pool_proj"
  top: "inception_4c/output"
}
layer {
  name: "inception_4d/1x1"
  type: "Convolution"
  bottom: "inception_4c/output"
  top: "inception_4d/1x1"
  param {
    lr_mult: 1
    decay_mult: 1
  }
  param {
    lr_mult: 2
    decay_mult: 0
  }
  convolution_param {
    num_output: 112
    kernel_size: 1
    weight_filler {
      type: "xavier"
      std: 0.03
    }
    bias_filler {
      type: "constant"
      value: 0.2
    }
  }
}
layer {
  name: "inception_4d/relu_1x1"
  type: "ReLU"
  bottom: "inception_4d/1x1"
  top: "inception_4d/1x1"
}
layer {
  name: "inception_4d/3x3_reduce"
  type: "Convolution"
  bottom: "inception_4c/output"
  top: "inception_4d/3x3_reduce"
  param {
    lr_mult: 1
    decay_mult: 1
  }
  param {
    lr_mult: 2
    decay_mult: 0
  }
  convolution_param {
    num_output: 144
    kernel_size: 1
    weight_filler {
      type: "xavier"
      std: 0.09
    }
    bias_filler {
      type: "constant"
      value: 0.2
    }
  }
}
layer {
  name: "inception_4d/relu_3x3_reduce"
  type: "ReLU"
  bottom: "inception_4d/3x3_reduce"
  top: "inception_4d/3x3_reduce"
}
layer {
  name: "inception_4d/3x3"
  type: "Convolution"
  bottom: "inception_4d/3x3_reduce"
  top: "inception_4d/3x3"
  param {
    lr_mult: 1
    decay_mult: 1
  }
  param {
    lr_mult: 2
    decay_mult: 0
  }
  convolution_param {
    num_output: 288
    pad: 1
    kernel_size: 3
    weight_filler {
      type: "xavier"
      std: 0.03
    }
    bias_filler {
      type: "constant"
      value: 0.2
    }
  }
}
layer {
  name: "inception_4d/relu_3x3"
  type: "ReLU"
  bottom: "inception_4d/3x3"
  top: "inception_4d/3x3"
}
layer {
  name: "inception_4d/5x5_reduce"
  type: "Convolution"
  bottom: "inception_4c/output"
  top: "inception_4d/5x5_reduce"
  param {
    lr_mult: 1
    decay_mult: 1
  }
  param {
    lr_mult: 2
    decay_mult: 0
  }
  convolution_param {
    num_output: 32
    kernel_size: 1
    weight_filler {
      type: "xavier"
      std: 0.2
    }
    bias_filler {
      type: "constant"
      value: 0.2
    }
  }
}
layer {
  name: "inception_4d/relu_5x5_reduce"
  type: "ReLU"
  bottom: "inception_4d/5x5_reduce"
  top: "inception_4d/5x5_reduce"
}
layer {
  name: "inception_4d/5x5"
  type: "Convolution"
  bottom: "inception_4d/5x5_reduce"
  top: "inception_4d/5x5"
  param {
    lr_mult: 1
    decay_mult: 1
  }
  param {
    lr_mult: 2
    decay_mult: 0
  }
  convolution_param {
    num_output: 64
    pad: 2
    kernel_size: 5
    weight_filler {
      type: "xavier"
      std: 0.03
    }
    bias_filler {
      type: "constant"
      value: 0.2
    }
  }
}
layer {
  name: "inception_4d/relu_5x5"
  type: "ReLU"
  bottom: "inception_4d/5x5"
  top: "inception_4d/5x5"
}
layer {
  name: "inception_4d/pool"
  type: "Pooling"
  bottom: "inception_4c/output"
  top: "inception_4d/pool"
  pooling_param {
    pool: MAX
    kernel_size: 3
    stride: 1
    pad: 1
  }
}
layer {
  name: "inception_4d/pool_proj"
  type: "Convolution"
  bottom: "inception_4d/pool"
  top: "inception_4d/pool_proj"
  param {
    lr_mult: 1
    decay_mult: 1
  }
  param {
    lr_mult: 2
    decay_mult: 0
  }
  convolution_param {
    num_output: 64
    kernel_size: 1
    weight_filler {
      type: "xavier"
      std: 0.1
    }
    bias_filler {
      type: "constant"
      value: 0.2
    }
  }
}
layer {
  name: "inception_4d/relu_pool_proj"
  type: "ReLU"
  bottom: "inception_4d/pool_proj"
  top: "inception_4d/pool_proj"
}
layer {
  name: "inception_4d/output"
  type: "Concat"
  bottom: "inception_4d/1x1"
  bottom: "inception_4d/3x3"
  bottom: "inception_4d/5x5"
  bottom: "inception_4d/pool_proj"
  top: "inception_4d/output"
}
layer {
  name: "loss2/ave_pool"
  type: "Pooling"
  bottom: "inception_4d/output"
  top: "loss2/ave_pool"
  pooling_param {
    pool: AVE
    kernel_size: 5
    stride: 3
  }
}
layer {
  name: "loss2/conv"
  type: "Convolution"
  bottom: "loss2/ave_pool"
  top: "loss2/conv"
  param {
    lr_mult: 1
    decay_mult: 1
  }
  param {
    lr_mult: 2
    decay_mult: 0
  }
  convolution_param {
    num_output: 128
    kernel_size: 1
    weight_filler {
      type: "xavier"
      std: 0.08
    }
    bias_filler {
      type: "constant"
      value: 0.2
    }
  }
}
layer {
  name: "loss2/relu_conv"
  type: "ReLU"
  bottom: "loss2/conv"
  top: "loss2/conv"
}
layer {
  name: "loss2/fc"
  type: "InnerProduct"
  bottom: "loss2/conv"
  top: "loss2/fc"
  param {
    lr_mult: 1
    decay_mult: 1
  }
  param {
    lr_mult: 2
    decay_mult: 0
  }
  inner_product_param {
    num_output: 1024
    weight_filler {
      type: "xavier"
      std: 0.02
    }
    bias_filler {
      type: "constant"
      value: 0.2
    }
  }
}
layer {
  name: "loss2/relu_fc"
  type: "ReLU"
  bottom: "loss2/fc"
  top: "loss2/fc"
}
layer {
  name: "loss2/drop_fc"
  type: "Dropout"
  bottom: "loss2/fc"
  top: "loss2/fc"
  dropout_param {
    dropout_ratio: 0.7
  }
}
layer {
  name: "loss2/classifier_plantvillage"
  type: "InnerProduct"
  bottom: "loss2/fc"
  top: "loss2/classifier_plantvillage"
  param {
    lr_mult: 1
    decay_mult: 1
  }
  param {
    lr_mult: 2
    decay_mult: 0
  }
  inner_product_param {
    num_output: 38
    weight_filler {
      type: "xavier"
      std: 0.0009765625
    }
    bias_filler {
      type: "constant"
      value: 0
    }
  }
}
layer {
  name: "inception_4e/1x1"
  type: "Convolution"
  bottom: "inception_4d/output"
  top: "inception_4e/1x1"
  param {
    lr_mult: 1
    decay_mult: 1
  }
  param {
    lr_mult: 2
    decay_mult: 0
  }
  convolution_param {
    num_output: 256
    kernel_size: 1
    weight_filler {
      type: "xavier"
      std: 0.03
    }
    bias_filler {
      type: "constant"
      value: 0.2
    }
  }
}
layer {
  name: "inception_4e/relu_1x1"
  type: "ReLU"
  bottom: "inception_4e/1x1"
  top: "inception_4e/1x1"
}
layer {
  name: "inception_4e/3x3_reduce"
  type: "Convolution"
  bottom: "inception_4d/output"
  top: "inception_4e/3x3_reduce"
  param {
    lr_mult: 1
    decay_mult: 1
  }
  param {
    lr_mult: 2
    decay_mult: 0
  }
  convolution_param {
    num_output: 160
    kernel_size: 1
    weight_filler {
      type: "xavier"
      std: 0.09
    }
    bias_filler {
      type: "constant"
      value: 0.2
    }
  }
}
layer {
  name: "inception_4e/relu_3x3_reduce"
  type: "ReLU"
  bottom: "inception_4e/3x3_reduce"
  top: "inception_4e/3x3_reduce"
}
layer {
  name: "inception_4e/3x3"
  type: "Convolution"
  bottom: "inception_4e/3x3_reduce"
  top: "inception_4e/3x3"
  param {
    lr_mult: 1
    decay_mult: 1
  }
  param {
    lr_mult: 2
    decay_mult: 0
  }
  convolution_param {
    num_output: 320
    pad: 1
    kernel_size: 3
    weight_filler {
      type: "xavier"
      std: 0.03
    }
    bias_filler {
      type: "constant"
      value: 0.2
    }
  }
}
layer {
  name: "inception_4e/relu_3x3"
  type: "ReLU"
  bottom: "inception_4e/3x3"
  top: "inception_4e/3x3"
}
layer {
  name: "inception_4e/5x5_reduce"
  type: "Convolution"
  bottom: "inception_4d/output"
  top: "inception_4e/5x5_reduce"
  param {
    lr_mult: 1
    decay_mult: 1
  }
  param {
    lr_mult: 2
    decay_mult: 0
  }
  convolution_param {
    num_output: 32
    kernel_size: 1
    weight_filler {
      type: "xavier"
      std: 0.2
    }
    bias_filler {
      type: "constant"
      value: 0.2
    }
  }
}
layer {
  name: "inception_4e/relu_5x5_reduce"
  type: "ReLU"
  bottom: "inception_4e/5x5_reduce"
  top: "inception_4e/5x5_reduce"
}
layer {
  name: "inception_4e/5x5"
  type: "Convolution"
  bottom: "inception_4e/5x5_reduce"
  top: "inception_4e/5x5"
  p
I0403 15:26:22.458515 14956 layer_factory.hpp:77] Creating layer data
I0403 15:26:22.459085 14956 net.cpp:91] Creating Layer data
I0403 15:26:22.459115 14956 net.cpp:399] data -> data
I0403 15:26:22.459164 14956 net.cpp:399] data -> label
I0403 15:26:22.459199 14956 data_transformer.cpp:25] Loading mean file from: /home/mohanty/data/final_dataset/lmdb/color-50-50/mean.binaryproto
I0403 15:26:22.461871 14959 db_lmdb.cpp:38] Opened lmdb /home/mohanty/data/final_dataset/lmdb/color-50-50/test_db
I0403 15:26:22.472097 14956 data_layer.cpp:41] output data size: 24,3,224,224
I0403 15:26:22.498380 14956 net.cpp:141] Setting up data
I0403 15:26:22.498458 14956 net.cpp:148] Top shape: 24 3 224 224 (3612672)
I0403 15:26:22.498479 14956 net.cpp:148] Top shape: 24 (24)
I0403 15:26:22.498493 14956 net.cpp:156] Memory required for data: 14450784
I0403 15:26:22.498523 14956 layer_factory.hpp:77] Creating layer label_data_1_split
I0403 15:26:22.498549 14956 net.cpp:91] Creating Layer label_data_1_split
I0403 15:26:22.498566 14956 net.cpp:425] label_data_1_split <- label
I0403 15:26:22.498595 14956 net.cpp:399] label_data_1_split -> label_data_1_split_0
I0403 15:26:22.498621 14956 net.cpp:399] label_data_1_split -> label_data_1_split_1
I0403 15:26:22.498641 14956 net.cpp:399] label_data_1_split -> label_data_1_split_2
I0403 15:26:22.498661 14956 net.cpp:399] label_data_1_split -> label_data_1_split_3
I0403 15:26:22.498679 14956 net.cpp:399] label_data_1_split -> label_data_1_split_4
I0403 15:26:22.498697 14956 net.cpp:399] label_data_1_split -> label_data_1_split_5
I0403 15:26:22.498715 14956 net.cpp:399] label_data_1_split -> label_data_1_split_6
I0403 15:26:22.498733 14956 net.cpp:399] label_data_1_split -> label_data_1_split_7
I0403 15:26:22.498751 14956 net.cpp:399] label_data_1_split -> label_data_1_split_8
I0403 15:26:22.498769 14956 net.cpp:399] label_data_1_split -> label_data_1_split_9
I0403 15:26:22.498880 14956 net.cpp:141] Setting up label_data_1_split
I0403 15:26:22.498903 14956 net.cpp:148] Top shape: 24 (24)
I0403 15:26:22.498919 14956 net.cpp:148] Top shape: 24 (24)
I0403 15:26:22.498932 14956 net.cpp:148] Top shape: 24 (24)
I0403 15:26:22.498945 14956 net.cpp:148] Top shape: 24 (24)
I0403 15:26:22.498960 14956 net.cpp:148] Top shape: 24 (24)
I0403 15:26:22.498973 14956 net.cpp:148] Top shape: 24 (24)
I0403 15:26:22.498987 14956 net.cpp:148] Top shape: 24 (24)
I0403 15:26:22.499001 14956 net.cpp:148] Top shape: 24 (24)
I0403 15:26:22.499016 14956 net.cpp:148] Top shape: 24 (24)
I0403 15:26:22.499032 14956 net.cpp:148] Top shape: 24 (24)
I0403 15:26:22.499083 14956 net.cpp:156] Memory required for data: 14451744
I0403 15:26:22.499096 14956 layer_factory.hpp:77] Creating layer conv1/7x7_s2
I0403 15:26:22.499126 14956 net.cpp:91] Creating Layer conv1/7x7_s2
I0403 15:26:22.499143 14956 net.cpp:425] conv1/7x7_s2 <- data
I0403 15:26:22.499161 14956 net.cpp:399] conv1/7x7_s2 -> conv1/7x7_s2
I0403 15:26:22.635196 14956 net.cpp:141] Setting up conv1/7x7_s2
I0403 15:26:22.635273 14956 net.cpp:148] Top shape: 24 64 112 112 (19267584)
I0403 15:26:22.635290 14956 net.cpp:156] Memory required for data: 91522080
I0403 15:26:22.635320 14956 layer_factory.hpp:77] Creating layer conv1/relu_7x7
I0403 15:26:22.635346 14956 net.cpp:91] Creating Layer conv1/relu_7x7
I0403 15:26:22.635365 14956 net.cpp:425] conv1/relu_7x7 <- conv1/7x7_s2
I0403 15:26:22.635382 14956 net.cpp:386] conv1/relu_7x7 -> conv1/7x7_s2 (in-place)
I0403 15:26:22.635649 14956 net.cpp:141] Setting up conv1/relu_7x7
I0403 15:26:22.635675 14956 net.cpp:148] Top shape: 24 64 112 112 (19267584)
I0403 15:26:22.635690 14956 net.cpp:156] Memory required for data: 168592416
I0403 15:26:22.635704 14956 layer_factory.hpp:77] Creating layer pool1/3x3_s2
I0403 15:26:22.635731 14956 net.cpp:91] Creating Layer pool1/3x3_s2
I0403 15:26:22.635751 14956 net.cpp:425] pool1/3x3_s2 <- conv1/7x7_s2
I0403 15:26:22.635768 14956 net.cpp:399] pool1/3x3_s2 -> pool1/3x3_s2
I0403 15:26:22.635850 14956 net.cpp:141] Setting up pool1/3x3_s2
I0403 15:26:22.635876 14956 net.cpp:148] Top shape: 24 64 56 56 (4816896)
I0403 15:26:22.635893 14956 net.cpp:156] Memory required for data: 187860000
I0403 15:26:22.635908 14956 layer_factory.hpp:77] Creating layer pool1/norm1
I0403 15:26:22.635933 14956 net.cpp:91] Creating Layer pool1/norm1
I0403 15:26:22.635951 14956 net.cpp:425] pool1/norm1 <- pool1/3x3_s2
I0403 15:26:22.635968 14956 net.cpp:399] pool1/norm1 -> pool1/norm1
I0403 15:26:22.636265 14956 net.cpp:141] Setting up pool1/norm1
I0403 15:26:22.636294 14956 net.cpp:148] Top shape: 24 64 56 56 (4816896)
I0403 15:26:22.636310 14956 net.cpp:156] Memory required for data: 207127584
I0403 15:26:22.636325 14956 layer_factory.hpp:77] Creating layer conv2/3x3_reduce
I0403 15:26:22.636348 14956 net.cpp:91] Creating Layer conv2/3x3_reduce
I0403 15:26:22.636364 14956 net.cpp:425] conv2/3x3_reduce <- pool1/norm1
I0403 15:26:22.636384 14956 net.cpp:399] conv2/3x3_reduce -> conv2/3x3_reduce
I0403 15:26:22.637804 14956 net.cpp:141] Setting up conv2/3x3_reduce
I0403 15:26:22.637832 14956 net.cpp:148] Top shape: 24 64 56 56 (4816896)
I0403 15:26:22.637847 14956 net.cpp:156] Memory required for data: 226395168
I0403 15:26:22.637867 14956 layer_factory.hpp:77] Creating layer conv2/relu_3x3_reduce
I0403 15:26:22.637886 14956 net.cpp:91] Creating Layer conv2/relu_3x3_reduce
I0403 15:26:22.637900 14956 net.cpp:425] conv2/relu_3x3_reduce <- conv2/3x3_reduce
I0403 15:26:22.637919 14956 net.cpp:386] conv2/relu_3x3_reduce -> conv2/3x3_reduce (in-place)
I0403 15:26:22.638183 14956 net.cpp:141] Setting up conv2/relu_3x3_reduce
I0403 15:26:22.638209 14956 net.cpp:148] Top shape: 24 64 56 56 (4816896)
I0403 15:26:22.638223 14956 net.cpp:156] Memory required for data: 245662752
I0403 15:26:22.638237 14956 layer_factory.hpp:77] Creating layer conv2/3x3
I0403 15:26:22.638262 14956 net.cpp:91] Creating Layer conv2/3x3
I0403 15:26:22.638278 14956 net.cpp:425] conv2/3x3 <- conv2/3x3_reduce
I0403 15:26:22.638300 14956 net.cpp:399] conv2/3x3 -> conv2/3x3
I0403 15:26:22.640609 14956 net.cpp:141] Setting up conv2/3x3
I0403 15:26:22.640640 14956 net.cpp:148] Top shape: 24 192 56 56 (14450688)
I0403 15:26:22.640655 14956 net.cpp:156] Memory required for data: 303465504
I0403 15:26:22.640676 14956 layer_factory.hpp:77] Creating layer conv2/relu_3x3
I0403 15:26:22.640697 14956 net.cpp:91] Creating Layer conv2/relu_3x3
I0403 15:26:22.640713 14956 net.cpp:425] conv2/relu_3x3 <- conv2/3x3
I0403 15:26:22.640730 14956 net.cpp:386] conv2/relu_3x3 -> conv2/3x3 (in-place)
I0403 15:26:22.640940 14956 net.cpp:141] Setting up conv2/relu_3x3
I0403 15:26:22.640967 14956 net.cpp:148] Top shape: 24 192 56 56 (14450688)
I0403 15:26:22.641021 14956 net.cpp:156] Memory required for data: 361268256
I0403 15:26:22.641037 14956 layer_factory.hpp:77] Creating layer conv2/norm2
I0403 15:26:22.641054 14956 net.cpp:91] Creating Layer conv2/norm2
I0403 15:26:22.641069 14956 net.cpp:425] conv2/norm2 <- conv2/3x3
I0403 15:26:22.641089 14956 net.cpp:399] conv2/norm2 -> conv2/norm2
I0403 15:26:22.641398 14956 net.cpp:141] Setting up conv2/norm2
I0403 15:26:22.641424 14956 net.cpp:148] Top shape: 24 192 56 56 (14450688)
I0403 15:26:22.641439 14956 net.cpp:156] Memory required for data: 419071008
I0403 15:26:22.641453 14956 layer_factory.hpp:77] Creating layer pool2/3x3_s2
I0403 15:26:22.641469 14956 net.cpp:91] Creating Layer pool2/3x3_s2
I0403 15:26:22.641484 14956 net.cpp:425] pool2/3x3_s2 <- conv2/norm2
I0403 15:26:22.641504 14956 net.cpp:399] pool2/3x3_s2 -> pool2/3x3_s2
I0403 15:26:22.641559 14956 net.cpp:141] Setting up pool2/3x3_s2
I0403 15:26:22.641582 14956 net.cpp:148] Top shape: 24 192 28 28 (3612672)
I0403 15:26:22.641595 14956 net.cpp:156] Memory required for data: 433521696
I0403 15:26:22.641609 14956 layer_factory.hpp:77] Creating layer pool2/3x3_s2_pool2/3x3_s2_0_split
I0403 15:26:22.641628 14956 net.cpp:91] Creating Layer pool2/3x3_s2_pool2/3x3_s2_0_split
I0403 15:26:22.641644 14956 net.cpp:425] pool2/3x3_s2_pool2/3x3_s2_0_split <- pool2/3x3_s2
I0403 15:26:22.641659 14956 net.cpp:399] pool2/3x3_s2_pool2/3x3_s2_0_split -> pool2/3x3_s2_pool2/3x3_s2_0_split_0
I0403 15:26:22.641680 14956 net.cpp:399] pool2/3x3_s2_pool2/3x3_s2_0_split -> pool2/3x3_s2_pool2/3x3_s2_0_split_1
I0403 15:26:22.641700 14956 net.cpp:399] pool2/3x3_s2_pool2/3x3_s2_0_split -> pool2/3x3_s2_pool2/3x3_s2_0_split_2
I0403 15:26:22.641719 14956 net.cpp:399] pool2/3x3_s2_pool2/3x3_s2_0_split -> pool2/3x3_s2_pool2/3x3_s2_0_split_3
I0403 15:26:22.641788 14956 net.cpp:141] Setting up pool2/3x3_s2_pool2/3x3_s2_0_split
I0403 15:26:22.641810 14956 net.cpp:148] Top shape: 24 192 28 28 (3612672)
I0403 15:26:22.641825 14956 net.cpp:148] Top shape: 24 192 28 28 (3612672)
I0403 15:26:22.641840 14956 net.cpp:148] Top shape: 24 192 28 28 (3612672)
I0403 15:26:22.641855 14956 net.cpp:148] Top shape: 24 192 28 28 (3612672)
I0403 15:26:22.641868 14956 net.cpp:156] Memory required for data: 491324448
I0403 15:26:22.641881 14956 layer_factory.hpp:77] Creating layer inception_3a/1x1
I0403 15:26:22.641903 14956 net.cpp:91] Creating Layer inception_3a/1x1
I0403 15:26:22.641919 14956 net.cpp:425] inception_3a/1x1 <- pool2/3x3_s2_pool2/3x3_s2_0_split_0
I0403 15:26:22.641943 14956 net.cpp:399] inception_3a/1x1 -> inception_3a/1x1
I0403 15:26:22.643474 14956 net.cpp:141] Setting up inception_3a/1x1
I0403 15:26:22.643502 14956 net.cpp:148] Top shape: 24 64 28 28 (1204224)
I0403 15:26:22.643518 14956 net.cpp:156] Memory required for data: 496141344
I0403 15:26:22.643539 14956 layer_factory.hpp:77] Creating layer inception_3a/relu_1x1
I0403 15:26:22.643561 14956 net.cpp:91] Creating Layer inception_3a/relu_1x1
I0403 15:26:22.643579 14956 net.cpp:425] inception_3a/relu_1x1 <- inception_3a/1x1
I0403 15:26:22.643595 14956 net.cpp:386] inception_3a/relu_1x1 -> inception_3a/1x1 (in-place)
I0403 15:26:22.643764 14956 net.cpp:141] Setting up inception_3a/relu_1x1
I0403 15:26:22.643789 14956 net.cpp:148] Top shape: 24 64 28 28 (1204224)
I0403 15:26:22.643802 14956 net.cpp:156] Memory required for data: 500958240
I0403 15:26:22.643816 14956 layer_factory.hpp:77] Creating layer inception_3a/3x3_reduce
I0403 15:26:22.643838 14956 net.cpp:91] Creating Layer inception_3a/3x3_reduce
I0403 15:26:22.643854 14956 net.cpp:425] inception_3a/3x3_reduce <- pool2/3x3_s2_pool2/3x3_s2_0_split_1
I0403 15:26:22.643875 14956 net.cpp:399] inception_3a/3x3_reduce -> inception_3a/3x3_reduce
I0403 15:26:22.645591 14956 net.cpp:141] Setting up inception_3a/3x3_reduce
I0403 15:26:22.645620 14956 net.cpp:148] Top shape: 24 96 28 28 (1806336)
I0403 15:26:22.645635 14956 net.cpp:156] Memory required for data: 508183584
I0403 15:26:22.645655 14956 layer_factory.hpp:77] Creating layer inception_3a/relu_3x3_reduce
I0403 15:26:22.645694 14956 net.cpp:91] Creating Layer inception_3a/relu_3x3_reduce
I0403 15:26:22.645712 14956 net.cpp:425] inception_3a/relu_3x3_reduce <- inception_3a/3x3_reduce
I0403 15:26:22.645730 14956 net.cpp:386] inception_3a/relu_3x3_reduce -> inception_3a/3x3_reduce (in-place)
I0403 15:26:22.645908 14956 net.cpp:141] Setting up inception_3a/relu_3x3_reduce
I0403 15:26:22.645933 14956 net.cpp:148] Top shape: 24 96 28 28 (1806336)
I0403 15:26:22.645946 14956 net.cpp:156] Memory required for data: 515408928
I0403 15:26:22.645961 14956 layer_factory.hpp:77] Creating layer inception_3a/3x3
I0403 15:26:22.645982 14956 net.cpp:91] Creating Layer inception_3a/3x3
I0403 15:26:22.645998 14956 net.cpp:425] inception_3a/3x3 <- inception_3a/3x3_reduce
I0403 15:26:22.646019 14956 net.cpp:399] inception_3a/3x3 -> inception_3a/3x3
I0403 15:26:22.647649 14956 net.cpp:141] Setting up inception_3a/3x3
I0403 15:26:22.647676 14956 net.cpp:148] Top shape: 24 128 28 28 (2408448)
I0403 15:26:22.647691 14956 net.cpp:156] Memory required for data: 525042720
I0403 15:26:22.647709 14956 layer_factory.hpp:77] Creating layer inception_3a/relu_3x3
I0403 15:26:22.647729 14956 net.cpp:91] Creating Layer inception_3a/relu_3x3
I0403 15:26:22.647747 14956 net.cpp:425] inception_3a/relu_3x3 <- inception_3a/3x3
I0403 15:26:22.647763 14956 net.cpp:386] inception_3a/relu_3x3 -> inception_3a/3x3 (in-place)
I0403 15:26:22.648032 14956 net.cpp:141] Setting up inception_3a/relu_3x3
I0403 15:26:22.648058 14956 net.cpp:148] Top shape: 24 128 28 28 (2408448)
I0403 15:26:22.648073 14956 net.cpp:156] Memory required for data: 534676512
I0403 15:26:22.648087 14956 layer_factory.hpp:77] Creating layer inception_3a/5x5_reduce
I0403 15:26:22.648109 14956 net.cpp:91] Creating Layer inception_3a/5x5_reduce
I0403 15:26:22.648126 14956 net.cpp:425] inception_3a/5x5_reduce <- pool2/3x3_s2_pool2/3x3_s2_0_split_2
I0403 15:26:22.648146 14956 net.cpp:399] inception_3a/5x5_reduce -> inception_3a/5x5_reduce
I0403 15:26:22.649123 14956 net.cpp:141] Setting up inception_3a/5x5_reduce
I0403 15:26:22.649152 14956 net.cpp:148] Top shape: 24 16 28 28 (301056)
I0403 15:26:22.649166 14956 net.cpp:156] Memory required for data: 535880736
I0403 15:26:22.649184 14956 layer_factory.hpp:77] Creating layer inception_3a/relu_5x5_reduce
I0403 15:26:22.649204 14956 net.cpp:91] Creating Layer inception_3a/relu_5x5_reduce
I0403 15:26:22.649219 14956 net.cpp:425] inception_3a/relu_5x5_reduce <- inception_3a/5x5_reduce
I0403 15:26:22.649236 14956 net.cpp:386] inception_3a/relu_5x5_reduce -> inception_3a/5x5_reduce (in-place)
I0403 15:26:22.649523 14956 net.cpp:141] Setting up inception_3a/relu_5x5_reduce
I0403 15:26:22.649556 14956 net.cpp:148] Top shape: 24 16 28 28 (301056)
I0403 15:26:22.649572 14956 net.cpp:156] Memory required for data: 537084960
I0403 15:26:22.649586 14956 layer_factory.hpp:77] Creating layer inception_3a/5x5
I0403 15:26:22.649607 14956 net.cpp:91] Creating Layer inception_3a/5x5
I0403 15:26:22.649624 14956 net.cpp:425] inception_3a/5x5 <- inception_3a/5x5_reduce
I0403 15:26:22.649642 14956 net.cpp:399] inception_3a/5x5 -> inception_3a/5x5
I0403 15:26:22.650641 14956 net.cpp:141] Setting up inception_3a/5x5
I0403 15:26:22.650668 14956 net.cpp:148] Top shape: 24 32 28 28 (602112)
I0403 15:26:22.650684 14956 net.cpp:156] Memory required for data: 539493408
I0403 15:26:22.650701 14956 layer_factory.hpp:77] Creating layer inception_3a/relu_5x5
I0403 15:26:22.650722 14956 net.cpp:91] Creating Layer inception_3a/relu_5x5
I0403 15:26:22.650738 14956 net.cpp:425] inception_3a/relu_5x5 <- inception_3a/5x5
I0403 15:26:22.650754 14956 net.cpp:386] inception_3a/relu_5x5 -> inception_3a/5x5 (in-place)
I0403 15:26:22.650921 14956 net.cpp:141] Setting up inception_3a/relu_5x5
I0403 15:26:22.650945 14956 net.cpp:148] Top shape: 24 32 28 28 (602112)
I0403 15:26:22.650959 14956 net.cpp:156] Memory required for data: 541901856
I0403 15:26:22.650974 14956 layer_factory.hpp:77] Creating layer inception_3a/pool
I0403 15:26:22.650992 14956 net.cpp:91] Creating Layer inception_3a/pool
I0403 15:26:22.651007 14956 net.cpp:425] inception_3a/pool <- pool2/3x3_s2_pool2/3x3_s2_0_split_3
I0403 15:26:22.651039 14956 net.cpp:399] inception_3a/pool -> inception_3a/pool
I0403 15:26:22.651098 14956 net.cpp:141] Setting up inception_3a/pool
I0403 15:26:22.651121 14956 net.cpp:148] Top shape: 24 192 28 28 (3612672)
I0403 15:26:22.651135 14956 net.cpp:156] Memory required for data: 556352544
I0403 15:26:22.651149 14956 layer_factory.hpp:77] Creating layer inception_3a/pool_proj
I0403 15:26:22.651170 14956 net.cpp:91] Creating Layer inception_3a/pool_proj
I0403 15:26:22.651187 14956 net.cpp:425] inception_3a/pool_proj <- inception_3a/pool
I0403 15:26:22.651211 14956 net.cpp:399] inception_3a/pool_proj -> inception_3a/pool_proj
I0403 15:26:22.652166 14956 net.cpp:141] Setting up inception_3a/pool_proj
I0403 15:26:22.652196 14956 net.cpp:148] Top shape: 24 32 28 28 (602112)
I0403 15:26:22.652212 14956 net.cpp:156] Memory required for data: 558760992
I0403 15:26:22.652233 14956 layer_factory.hpp:77] Creating layer inception_3a/relu_pool_proj
I0403 15:26:22.652254 14956 net.cpp:91] Creating Layer inception_3a/relu_pool_proj
I0403 15:26:22.652272 14956 net.cpp:425] inception_3a/relu_pool_proj <- inception_3a/pool_proj
I0403 15:26:22.652289 14956 net.cpp:386] inception_3a/relu_pool_proj -> inception_3a/pool_proj (in-place)
I0403 15:26:22.652566 14956 net.cpp:141] Setting up inception_3a/relu_pool_proj
I0403 15:26:22.652602 14956 net.cpp:148] Top shape: 24 32 28 28 (602112)
I0403 15:26:22.652616 14956 net.cpp:156] Memory required for data: 561169440
I0403 15:26:22.652631 14956 layer_factory.hpp:77] Creating layer inception_3a/output
I0403 15:26:22.652649 14956 net.cpp:91] Creating Layer inception_3a/output
I0403 15:26:22.652664 14956 net.cpp:425] inception_3a/output <- inception_3a/1x1
I0403 15:26:22.652680 14956 net.cpp:425] inception_3a/output <- inception_3a/3x3
I0403 15:26:22.652695 14956 net.cpp:425] inception_3a/output <- inception_3a/5x5
I0403 15:26:22.652710 14956 net.cpp:425] inception_3a/output <- inception_3a/pool_proj
I0403 15:26:22.652726 14956 net.cpp:399] inception_3a/output -> inception_3a/output
I0403 15:26:22.652773 14956 net.cpp:141] Setting up inception_3a/output
I0403 15:26:22.652796 14956 net.cpp:148] Top shape: 24 256 28 28 (4816896)
I0403 15:26:22.652811 14956 net.cpp:156] Memory required for data: 580437024
I0403 15:26:22.652824 14956 layer_factory.hpp:77] Creating layer inception_3a/output_inception_3a/output_0_split
I0403 15:26:22.652840 14956 net.cpp:91] Creating Layer inception_3a/output_inception_3a/output_0_split
I0403 15:26:22.652854 14956 net.cpp:425] inception_3a/output_inception_3a/output_0_split <- inception_3a/output
I0403 15:26:22.652874 14956 net.cpp:399] inception_3a/output_inception_3a/output_0_split -> inception_3a/output_inception_3a/output_0_split_0
I0403 15:26:22.652895 14956 net.cpp:399] inception_3a/output_inception_3a/output_0_split -> inception_3a/output_inception_3a/output_0_split_1
I0403 15:26:22.652915 14956 net.cpp:399] inception_3a/output_inception_3a/output_0_split -> inception_3a/output_inception_3a/output_0_split_2
I0403 15:26:22.652935 14956 net.cpp:399] inception_3a/output_inception_3a/output_0_split -> inception_3a/output_inception_3a/output_0_split_3
I0403 15:26:22.653007 14956 net.cpp:141] Setting up inception_3a/output_inception_3a/output_0_split
I0403 15:26:22.653030 14956 net.cpp:148] Top shape: 24 256 28 28 (4816896)
I0403 15:26:22.653046 14956 net.cpp:148] Top shape: 24 256 28 28 (4816896)
I0403 15:26:22.653061 14956 net.cpp:148] Top shape: 24 256 28 28 (4816896)
I0403 15:26:22.653075 14956 net.cpp:148] Top shape: 24 256 28 28 (4816896)
I0403 15:26:22.653087 14956 net.cpp:156] Memory required for data: 657507360
I0403 15:26:22.653101 14956 layer_factory.hpp:77] Creating layer inception_3b/1x1
I0403 15:26:22.653123 14956 net.cpp:91] Creating Layer inception_3b/1x1
I0403 15:26:22.653139 14956 net.cpp:425] inception_3b/1x1 <- inception_3a/output_inception_3a/output_0_split_0
I0403 15:26:22.653161 14956 net.cpp:399] inception_3b/1x1 -> inception_3b/1x1
I0403 15:26:22.654358 14956 net.cpp:141] Setting up inception_3b/1x1
I0403 15:26:22.654398 14956 net.cpp:148] Top shape: 24 128 28 28 (2408448)
I0403 15:26:22.654415 14956 net.cpp:156] Memory required for data: 667141152
I0403 15:26:22.654433 14956 layer_factory.hpp:77] Creating layer inception_3b/relu_1x1
I0403 15:26:22.654451 14956 net.cpp:91] Creating Layer inception_3b/relu_1x1
I0403 15:26:22.654466 14956 net.cpp:425] inception_3b/relu_1x1 <- inception_3b/1x1
I0403 15:26:22.654486 14956 net.cpp:386] inception_3b/relu_1x1 -> inception_3b/1x1 (in-place)
I0403 15:26:22.654677 14956 net.cpp:141] Setting up inception_3b/relu_1x1
I0403 15:26:22.654703 14956 net.cpp:148] Top shape: 24 128 28 28 (2408448)
I0403 15:26:22.654718 14956 net.cpp:156] Memory required for data: 676774944
I0403 15:26:22.654732 14956 layer_factory.hpp:77] Creating layer inception_3b/3x3_reduce
I0403 15:26:22.654754 14956 net.cpp:91] Creating Layer inception_3b/3x3_reduce
I0403 15:26:22.654773 14956 net.cpp:425] inception_3b/3x3_reduce <- inception_3a/output_inception_3a/output_0_split_1
I0403 15:26:22.654798 14956 net.cpp:399] inception_3b/3x3_reduce -> inception_3b/3x3_reduce
I0403 15:26:22.655951 14956 net.cpp:141] Setting up inception_3b/3x3_reduce
I0403 15:26:22.655980 14956 net.cpp:148] Top shape: 24 128 28 28 (2408448)
I0403 15:26:22.655995 14956 net.cpp:156] Memory required for data: 686408736
I0403 15:26:22.656014 14956 layer_factory.hpp:77] Creating layer inception_3b/relu_3x3_reduce
I0403 15:26:22.656033 14956 net.cpp:91] Creating Layer inception_3b/relu_3x3_reduce
I0403 15:26:22.656049 14956 net.cpp:425] inception_3b/relu_3x3_reduce <- inception_3b/3x3_reduce
I0403 15:26:22.656067 14956 net.cpp:386] inception_3b/relu_3x3_reduce -> inception_3b/3x3_reduce (in-place)
I0403 15:26:22.656242 14956 net.cpp:141] Setting up inception_3b/relu_3x3_reduce
I0403 15:26:22.656270 14956 net.cpp:148] Top shape: 24 128 28 28 (2408448)
I0403 15:26:22.656283 14956 net.cpp:156] Memory required for data: 696042528
I0403 15:26:22.656308 14956 layer_factory.hpp:77] Creating layer inception_3b/3x3
I0403 15:26:22.656334 14956 net.cpp:91] Creating Layer inception_3b/3x3
I0403 15:26:22.656352 14956 net.cpp:425] inception_3b/3x3 <- inception_3b/3x3_reduce
I0403 15:26:22.656370 14956 net.cpp:399] inception_3b/3x3 -> inception_3b/3x3
I0403 15:26:22.659363 14956 net.cpp:141] Setting up inception_3b/3x3
I0403 15:26:22.659391 14956 net.cpp:148] Top shape: 24 192 28 28 (3612672)
I0403 15:26:22.659407 14956 net.cpp:156] Memory required for data: 710493216
I0403 15:26:22.659437 14956 layer_factory.hpp:77] Creating layer inception_3b/relu_3x3
I0403 15:26:22.659459 14956 net.cpp:91] Creating Layer inception_3b/relu_3x3
I0403 15:26:22.659476 14956 net.cpp:425] inception_3b/relu_3x3 <- inception_3b/3x3
I0403 15:26:22.659494 14956 net.cpp:386] inception_3b/relu_3x3 -> inception_3b/3x3 (in-place)
I0403 15:26:22.659804 14956 net.cpp:141] Setting up inception_3b/relu_3x3
I0403 15:26:22.659844 14956 net.cpp:148] Top shape: 24 192 28 28 (3612672)
I0403 15:26:22.659865 14956 net.cpp:156] Memory required for data: 724943904
I0403 15:26:22.659880 14956 layer_factory.hpp:77] Creating layer inception_3b/5x5_reduce
I0403 15:26:22.659903 14956 net.cpp:91] Creating Layer inception_3b/5x5_reduce
I0403 15:26:22.659920 14956 net.cpp:425] inception_3b/5x5_reduce <- inception_3a/output_inception_3a/output_0_split_2
I0403 15:26:22.659942 14956 net.cpp:399] inception_3b/5x5_reduce -> inception_3b/5x5_reduce
I0403 15:26:22.660964 14956 net.cpp:141] Setting up inception_3b/5x5_reduce
I0403 15:26:22.660991 14956 net.cpp:148] Top shape: 24 32 28 28 (602112)
I0403 15:26:22.661007 14956 net.cpp:156] Memory required for data: 727352352
I0403 15:26:22.661026 14956 layer_factory.hpp:77] Creating layer inception_3b/relu_5x5_reduce
I0403 15:26:22.661046 14956 net.cpp:91] Creating Layer inception_3b/relu_5x5_reduce
I0403 15:26:22.661063 14956 net.cpp:425] inception_3b/relu_5x5_reduce <- inception_3b/5x5_reduce
I0403 15:26:22.661080 14956 net.cpp:386] inception_3b/relu_5x5_reduce -> inception_3b/5x5_reduce (in-place)
I0403 15:26:22.661262 14956 net.cpp:141] Setting up inception_3b/relu_5x5_reduce
I0403 15:26:22.661300 14956 net.cpp:148] Top shape: 24 32 28 28 (602112)
I0403 15:26:22.661315 14956 net.cpp:156] Memory required for data: 729760800
I0403 15:26:22.661329 14956 layer_factory.hpp:77] Creating layer inception_3b/5x5
I0403 15:26:22.661353 14956 net.cpp:91] Creating Layer inception_3b/5x5
I0403 15:26:22.661371 14956 net.cpp:425] inception_3b/5x5 <- inception_3b/5x5_reduce
I0403 15:26:22.661391 14956 net.cpp:399] inception_3b/5x5 -> inception_3b/5x5
I0403 15:26:22.663446 14956 net.cpp:141] Setting up inception_3b/5x5
I0403 15:26:22.663477 14956 net.cpp:148] Top shape: 24 96 28 28 (1806336)
I0403 15:26:22.663494 14956 net.cpp:156] Memory required for data: 736986144
I0403 15:26:22.663512 14956 layer_factory.hpp:77] Creating layer inception_3b/relu_5x5
I0403 15:26:22.663532 14956 net.cpp:91] Creating Layer inception_3b/relu_5x5
I0403 15:26:22.663552 14956 net.cpp:425] inception_3b/relu_5x5 <- inception_3b/5x5
I0403 15:26:22.663573 14956 net.cpp:386] inception_3b/relu_5x5 -> inception_3b/5x5 (in-place)
I0403 15:26:22.663769 14956 net.cpp:141] Setting up inception_3b/relu_5x5
I0403 15:26:22.663794 14956 net.cpp:148] Top shape: 24 96 28 28 (1806336)
I0403 15:26:22.663810 14956 net.cpp:156] Memory required for data: 744211488
I0403 15:26:22.663823 14956 layer_factory.hpp:77] Creating layer inception_3b/pool
I0403 15:26:22.663841 14956 net.cpp:91] Creating Layer inception_3b/pool
I0403 15:26:22.663856 14956 net.cpp:425] inception_3b/pool <- inception_3a/output_inception_3a/output_0_split_3
I0403 15:26:22.663874 14956 net.cpp:399] inception_3b/pool -> inception_3b/pool
I0403 15:26:22.663933 14956 net.cpp:141] Setting up inception_3b/pool
I0403 15:26:22.663957 14956 net.cpp:148] Top shape: 24 256 28 28 (4816896)
I0403 15:26:22.663971 14956 net.cpp:156] Memory required for data: 763479072
I0403 15:26:22.663985 14956 layer_factory.hpp:77] Creating layer inception_3b/pool_proj
I0403 15:26:22.664007 14956 net.cpp:91] Creating Layer inception_3b/pool_proj
I0403 15:26:22.664026 14956 net.cpp:425] inception_3b/pool_proj <- inception_3b/pool
I0403 15:26:22.664047 14956 net.cpp:399] inception_3b/pool_proj -> inception_3b/pool_proj
I0403 15:26:22.665129 14956 net.cpp:141] Setting up inception_3b/pool_proj
I0403 15:26:22.665158 14956 net.cpp:148] Top shape: 24 64 28 28 (1204224)
I0403 15:26:22.665174 14956 net.cpp:156] Memory required for data: 768295968
I0403 15:26:22.665191 14956 layer_factory.hpp:77] Creating layer inception_3b/relu_pool_proj
I0403 15:26:22.665211 14956 net.cpp:91] Creating Layer inception_3b/relu_pool_proj
I0403 15:26:22.665228 14956 net.cpp:425] inception_3b/relu_pool_proj <- inception_3b/pool_proj
I0403 15:26:22.665268 14956 net.cpp:386] inception_3b/relu_pool_proj -> inception_3b/pool_proj (in-place)
I0403 15:26:22.665698 14956 net.cpp:141] Setting up inception_3b/relu_pool_proj
I0403 15:26:22.665724 14956 net.cpp:148] Top shape: 24 64 28 28 (1204224)
I0403 15:26:22.665746 14956 net.cpp:156] Memory required for data: 773112864
I0403 15:26:22.665761 14956 layer_factory.hpp:77] Creating layer inception_3b/output
I0403 15:26:22.665779 14956 net.cpp:91] Creating Layer inception_3b/output
I0403 15:26:22.665794 14956 net.cpp:425] inception_3b/output <- inception_3b/1x1
I0403 15:26:22.665810 14956 net.cpp:425] inception_3b/output <- inception_3b/3x3
I0403 15:26:22.665825 14956 net.cpp:425] inception_3b/output <- inception_3b/5x5
I0403 15:26:22.665841 14956 net.cpp:425] inception_3b/output <- inception_3b/pool_proj
I0403 15:26:22.665858 14956 net.cpp:399] inception_3b/output -> inception_3b/output
I0403 15:26:22.665904 14956 net.cpp:141] Setting up inception_3b/output
I0403 15:26:22.665927 14956 net.cpp:148] Top shape: 24 480 28 28 (9031680)
I0403 15:26:22.665942 14956 net.cpp:156] Memory required for data: 809239584
I0403 15:26:22.665956 14956 layer_factory.hpp:77] Creating layer pool3/3x3_s2
I0403 15:26:22.665973 14956 net.cpp:91] Creating Layer pool3/3x3_s2
I0403 15:26:22.665992 14956 net.cpp:425] pool3/3x3_s2 <- inception_3b/output
I0403 15:26:22.666009 14956 net.cpp:399] pool3/3x3_s2 -> pool3/3x3_s2
I0403 15:26:22.666085 14956 net.cpp:141] Setting up pool3/3x3_s2
I0403 15:26:22.666110 14956 net.cpp:148] Top shape: 24 480 14 14 (2257920)
I0403 15:26:22.666124 14956 net.cpp:156] Memory required for data: 818271264
I0403 15:26:22.666138 14956 layer_factory.hpp:77] Creating layer pool3/3x3_s2_pool3/3x3_s2_0_split
I0403 15:26:22.666155 14956 net.cpp:91] Creating Layer pool3/3x3_s2_pool3/3x3_s2_0_split
I0403 15:26:22.666169 14956 net.cpp:425] pool3/3x3_s2_pool3/3x3_s2_0_split <- pool3/3x3_s2
I0403 15:26:22.666188 14956 net.cpp:399] pool3/3x3_s2_pool3/3x3_s2_0_split -> pool3/3x3_s2_pool3/3x3_s2_0_split_0
I0403 15:26:22.666208 14956 net.cpp:399] pool3/3x3_s2_pool3/3x3_s2_0_split -> pool3/3x3_s2_pool3/3x3_s2_0_split_1
I0403 15:26:22.666229 14956 net.cpp:399] pool3/3x3_s2_pool3/3x3_s2_0_split -> pool3/3x3_s2_pool3/3x3_s2_0_split_2
I0403 15:26:22.666246 14956 net.cpp:399] pool3/3x3_s2_pool3/3x3_s2_0_split -> pool3/3x3_s2_pool3/3x3_s2_0_split_3
I0403 15:26:22.666327 14956 net.cpp:141] Setting up pool3/3x3_s2_pool3/3x3_s2_0_split
I0403 15:26:22.666350 14956 net.cpp:148] Top shape: 24 480 14 14 (2257920)
I0403 15:26:22.666366 14956 net.cpp:148] Top shape: 24 480 14 14 (2257920)
I0403 15:26:22.666381 14956 net.cpp:148] Top shape: 24 480 14 14 (2257920)
I0403 15:26:22.666395 14956 net.cpp:148] Top shape: 24 480 14 14 (2257920)
I0403 15:26:22.666409 14956 net.cpp:156] Memory required for data: 854397984
I0403 15:26:22.666422 14956 layer_factory.hpp:77] Creating layer inception_4a/1x1
I0403 15:26:22.666446 14956 net.cpp:91] Creating Layer inception_4a/1x1
I0403 15:26:22.666463 14956 net.cpp:425] inception_4a/1x1 <- pool3/3x3_s2_pool3/3x3_s2_0_split_0
I0403 15:26:22.666482 14956 net.cpp:399] inception_4a/1x1 -> inception_4a/1x1
I0403 15:26:22.668093 14956 net.cpp:141] Setting up inception_4a/1x1
I0403 15:26:22.668124 14956 net.cpp:148] Top shape: 24 192 14 14 (903168)
I0403 15:26:22.668140 14956 net.cpp:156] Memory required for data: 858010656
I0403 15:26:22.668159 14956 layer_factory.hpp:77] Creating layer inception_4a/relu_1x1
I0403 15:26:22.668176 14956 net.cpp:91] Creating Layer inception_4a/relu_1x1
I0403 15:26:22.668192 14956 net.cpp:425] inception_4a/relu_1x1 <- inception_4a/1x1
I0403 15:26:22.668211 14956 net.cpp:386] inception_4a/relu_1x1 -> inception_4a/1x1 (in-place)
I0403 15:26:22.668391 14956 net.cpp:141] Setting up inception_4a/relu_1x1
I0403 15:26:22.668416 14956 net.cpp:148] Top shape: 24 192 14 14 (903168)
I0403 15:26:22.668431 14956 net.cpp:156] Memory required for data: 861623328
I0403 15:26:22.668445 14956 layer_factory.hpp:77] Creating layer inception_4a/3x3_reduce
I0403 15:26:22.668467 14956 net.cpp:91] Creating Layer inception_4a/3x3_reduce
I0403 15:26:22.668485 14956 net.cpp:425] inception_4a/3x3_reduce <- pool3/3x3_s2_pool3/3x3_s2_0_split_1
I0403 15:26:22.668506 14956 net.cpp:399] inception_4a/3x3_reduce -> inception_4a/3x3_reduce
I0403 15:26:22.669806 14956 net.cpp:141] Setting up inception_4a/3x3_reduce
I0403 15:26:22.669836 14956 net.cpp:148] Top shape: 24 96 14 14 (451584)
I0403 15:26:22.669852 14956 net.cpp:156] Memory required for data: 863429664
I0403 15:26:22.669874 14956 layer_factory.hpp:77] Creating layer inception_4a/relu_3x3_reduce
I0403 15:26:22.669896 14956 net.cpp:91] Creating Layer inception_4a/relu_3x3_reduce
I0403 15:26:22.669914 14956 net.cpp:425] inception_4a/relu_3x3_reduce <- inception_4a/3x3_reduce
I0403 15:26:22.669931 14956 net.cpp:386] inception_4a/relu_3x3_reduce -> inception_4a/3x3_reduce (in-place)
I0403 15:26:22.670112 14956 net.cpp:141] Setting up inception_4a/relu_3x3_reduce
I0403 15:26:22.670137 14956 net.cpp:148] Top shape: 24 96 14 14 (451584)
I0403 15:26:22.670152 14956 net.cpp:156] Memory required for data: 865236000
I0403 15:26:22.670167 14956 layer_factory.hpp:77] Creating layer inception_4a/3x3
I0403 15:26:22.670189 14956 net.cpp:91] Creating Layer inception_4a/3x3
I0403 15:26:22.670207 14956 net.cpp:425] inception_4a/3x3 <- inception_4a/3x3_reduce
I0403 15:26:22.670228 14956 net.cpp:399] inception_4a/3x3 -> inception_4a/3x3
I0403 15:26:22.673064 14956 net.cpp:141] Setting up inception_4a/3x3
I0403 15:26:22.673092 14956 net.cpp:148] Top shape: 24 208 14 14 (978432)
I0403 15:26:22.673107 14956 net.cpp:156] Memory required for data: 869149728
I0403 15:26:22.673125 14956 layer_factory.hpp:77] Creating layer inception_4a/relu_3x3
I0403 15:26:22.673141 14956 net.cpp:91] Creating Layer inception_4a/relu_3x3
I0403 15:26:22.673159 14956 net.cpp:425] inception_4a/relu_3x3 <- inception_4a/3x3
I0403 15:26:22.673177 14956 net.cpp:386] inception_4a/relu_3x3 -> inception_4a/3x3 (in-place)
I0403 15:26:22.673449 14956 net.cpp:141] Setting up inception_4a/relu_3x3
I0403 15:26:22.673475 14956 net.cpp:148] Top shape: 24 208 14 14 (978432)
I0403 15:26:22.673490 14956 net.cpp:156] Memory required for data: 873063456
I0403 15:26:22.673502 14956 layer_factory.hpp:77] Creating layer inception_4a/5x5_reduce
I0403 15:26:22.673526 14956 net.cpp:91] Creating Layer inception_4a/5x5_reduce
I0403 15:26:22.673547 14956 net.cpp:425] inception_4a/5x5_reduce <- pool3/3x3_s2_pool3/3x3_s2_0_split_2
I0403 15:26:22.673568 14956 net.cpp:399] inception_4a/5x5_reduce -> inception_4a/5x5_reduce
I0403 15:26:22.674576 14956 net.cpp:141] Setting up inception_4a/5x5_reduce
I0403 15:26:22.674602 14956 net.cpp:148] Top shape: 24 16 14 14 (75264)
I0403 15:26:22.674618 14956 net.cpp:156] Memory required for data: 873364512
I0403 15:26:22.674634 14956 layer_factory.hpp:77] Creating layer inception_4a/relu_5x5_reduce
I0403 15:26:22.674654 14956 net.cpp:91] Creating Layer inception_4a/relu_5x5_reduce
I0403 15:26:22.674669 14956 net.cpp:425] inception_4a/relu_5x5_reduce <- inception_4a/5x5_reduce
I0403 15:26:22.674686 14956 net.cpp:386] inception_4a/relu_5x5_reduce -> inception_4a/5x5_reduce (in-place)
I0403 15:26:22.674857 14956 net.cpp:141] Setting up inception_4a/relu_5x5_reduce
I0403 15:26:22.674880 14956 net.cpp:148] Top shape: 24 16 14 14 (75264)
I0403 15:26:22.674895 14956 net.cpp:156] Memory required for data: 873665568
I0403 15:26:22.674908 14956 layer_factory.hpp:77] Creating layer inception_4a/5x5
I0403 15:26:22.674931 14956 net.cpp:91] Creating Layer inception_4a/5x5
I0403 15:26:22.674947 14956 net.cpp:425] inception_4a/5x5 <- inception_4a/5x5_reduce
I0403 15:26:22.674963 14956 net.cpp:399] inception_4a/5x5 -> inception_4a/5x5
I0403 15:26:22.676018 14956 net.cpp:141] Setting up inception_4a/5x5
I0403 15:26:22.676044 14956 net.cpp:148] Top shape: 24 48 14 14 (225792)
I0403 15:26:22.676064 14956 net.cpp:156] Memory required for data: 874568736
I0403 15:26:22.676080 14956 layer_factory.hpp:77] Creating layer inception_4a/relu_5x5
I0403 15:26:22.676098 14956 net.cpp:91] Creating Layer inception_4a/relu_5x5
I0403 15:26:22.676113 14956 net.cpp:425] inception_4a/relu_5x5 <- inception_4a/5x5
I0403 15:26:22.676131 14956 net.cpp:386] inception_4a/relu_5x5 -> inception_4a/5x5 (in-place)
I0403 15:26:22.676311 14956 net.cpp:141] Setting up inception_4a/relu_5x5
I0403 15:26:22.676337 14956 net.cpp:148] Top shape: 24 48 14 14 (225792)
I0403 15:26:22.676352 14956 net.cpp:156] Memory required for data: 875471904
I0403 15:26:22.676367 14956 layer_factory.hpp:77] Creating layer inception_4a/pool
I0403 15:26:22.676383 14956 net.cpp:91] Creating Layer inception_4a/pool
I0403 15:26:22.676398 14956 net.cpp:425] inception_4a/pool <- pool3/3x3_s2_pool3/3x3_s2_0_split_3
I0403 15:26:22.676416 14956 net.cpp:399] inception_4a/pool -> inception_4a/pool
I0403 15:26:22.676476 14956 net.cpp:141] Setting up inception_4a/pool
I0403 15:26:22.676501 14956 net.cpp:148] Top shape: 24 480 14 14 (2257920)
I0403 15:26:22.676514 14956 net.cpp:156] Memory required for data: 884503584
I0403 15:26:22.676528 14956 layer_factory.hpp:77] Creating layer inception_4a/pool_proj
I0403 15:26:22.676551 14956 net.cpp:91] Creating Layer inception_4a/pool_proj
I0403 15:26:22.676569 14956 net.cpp:425] inception_4a/pool_proj <- inception_4a/pool
I0403 15:26:22.676596 14956 net.cpp:399] inception_4a/pool_proj -> inception_4a/pool_proj
I0403 15:26:22.677732 14956 net.cpp:141] Setting up inception_4a/pool_proj
I0403 15:26:22.677763 14956 net.cpp:148] Top shape: 24 64 14 14 (301056)
I0403 15:26:22.677796 14956 net.cpp:156] Memory required for data: 885707808
I0403 15:26:22.677815 14956 layer_factory.hpp:77] Creating layer inception_4a/relu_pool_proj
I0403 15:26:22.677834 14956 net.cpp:91] Creating Layer inception_4a/relu_pool_proj
I0403 15:26:22.677848 14956 net.cpp:425] inception_4a/relu_pool_proj <- inception_4a/pool_proj
I0403 15:26:22.677865 14956 net.cpp:386] inception_4a/relu_pool_proj -> inception_4a/pool_proj (in-place)
I0403 15:26:22.678135 14956 net.cpp:141] Setting up inception_4a/relu_pool_proj
I0403 15:26:22.678164 14956 net.cpp:148] Top shape: 24 64 14 14 (301056)
I0403 15:26:22.678179 14956 net.cpp:156] Memory required for data: 886912032
I0403 15:26:22.678194 14956 layer_factory.hpp:77] Creating layer inception_4a/output
I0403 15:26:22.678210 14956 net.cpp:91] Creating Layer inception_4a/output
I0403 15:26:22.678225 14956 net.cpp:425] inception_4a/output <- inception_4a/1x1
I0403 15:26:22.678239 14956 net.cpp:425] inception_4a/output <- inception_4a/3x3
I0403 15:26:22.678254 14956 net.cpp:425] inception_4a/output <- inception_4a/5x5
I0403 15:26:22.678270 14956 net.cpp:425] inception_4a/output <- inception_4a/pool_proj
I0403 15:26:22.678287 14956 net.cpp:399] inception_4a/output -> inception_4a/output
I0403 15:26:22.678331 14956 net.cpp:141] Setting up inception_4a/output
I0403 15:26:22.678354 14956 net.cpp:148] Top shape: 24 512 14 14 (2408448)
I0403 15:26:22.678369 14956 net.cpp:156] Memory required for data: 896545824
I0403 15:26:22.678381 14956 layer_factory.hpp:77] Creating layer inception_4a/output_inception_4a/output_0_split
I0403 15:26:22.678400 14956 net.cpp:91] Creating Layer inception_4a/output_inception_4a/output_0_split
I0403 15:26:22.678416 14956 net.cpp:425] inception_4a/output_inception_4a/output_0_split <- inception_4a/output
I0403 15:26:22.678431 14956 net.cpp:399] inception_4a/output_inception_4a/output_0_split -> inception_4a/output_inception_4a/output_0_split_0
I0403 15:26:22.678450 14956 net.cpp:399] inception_4a/output_inception_4a/output_0_split -> inception_4a/output_inception_4a/output_0_split_1
I0403 15:26:22.678468 14956 net.cpp:399] inception_4a/output_inception_4a/output_0_split -> inception_4a/output_inception_4a/output_0_split_2
I0403 15:26:22.678490 14956 net.cpp:399] inception_4a/output_inception_4a/output_0_split -> inception_4a/output_inception_4a/output_0_split_3
I0403 15:26:22.678510 14956 net.cpp:399] inception_4a/output_inception_4a/output_0_split -> inception_4a/output_inception_4a/output_0_split_4
I0403 15:26:22.678604 14956 net.cpp:141] Setting up inception_4a/output_inception_4a/output_0_split
I0403 15:26:22.678628 14956 net.cpp:148] Top shape: 24 512 14 14 (2408448)
I0403 15:26:22.678643 14956 net.cpp:148] Top shape: 24 512 14 14 (2408448)
I0403 15:26:22.678658 14956 net.cpp:148] Top shape: 24 512 14 14 (2408448)
I0403 15:26:22.678671 14956 net.cpp:148] Top shape: 24 512 14 14 (2408448)
I0403 15:26:22.678685 14956 net.cpp:148] Top shape: 24 512 14 14 (2408448)
I0403 15:26:22.678699 14956 net.cpp:156] Memory required for data: 944714784
I0403 15:26:22.678711 14956 layer_factory.hpp:77] Creating layer loss1/ave_pool
I0403 15:26:22.678730 14956 net.cpp:91] Creating Layer loss1/ave_pool
I0403 15:26:22.678745 14956 net.cpp:425] loss1/ave_pool <- inception_4a/output_inception_4a/output_0_split_0
I0403 15:26:22.678762 14956 net.cpp:399] loss1/ave_pool -> loss1/ave_pool
I0403 15:26:22.678959 14956 net.cpp:141] Setting up loss1/ave_pool
I0403 15:26:22.678987 14956 net.cpp:148] Top shape: 24 512 4 4 (196608)
I0403 15:26:22.679003 14956 net.cpp:156] Memory required for data: 945501216
I0403 15:26:22.679016 14956 layer_factory.hpp:77] Creating layer loss1/conv
I0403 15:26:22.679038 14956 net.cpp:91] Creating Layer loss1/conv
I0403 15:26:22.679054 14956 net.cpp:425] loss1/conv <- loss1/ave_pool
I0403 15:26:22.679071 14956 net.cpp:399] loss1/conv -> loss1/conv
I0403 15:26:22.680439 14956 net.cpp:141] Setting up loss1/conv
I0403 15:26:22.680465 14956 net.cpp:148] Top shape: 24 128 4 4 (49152)
I0403 15:26:22.680481 14956 net.cpp:156] Memory required for data: 945697824
I0403 15:26:22.680512 14956 layer_factory.hpp:77] Creating layer loss1/relu_conv
I0403 15:26:22.680533 14956 net.cpp:91] Creating Layer loss1/relu_conv
I0403 15:26:22.680553 14956 net.cpp:425] loss1/relu_conv <- loss1/conv
I0403 15:26:22.680570 14956 net.cpp:386] loss1/relu_conv -> loss1/conv (in-place)
I0403 15:26:22.680855 14956 net.cpp:141] Setting up loss1/relu_conv
I0403 15:26:22.680879 14956 net.cpp:148] Top shape: 24 128 4 4 (49152)
I0403 15:26:22.680893 14956 net.cpp:156] Memory required for data: 945894432
I0403 15:26:22.680907 14956 layer_factory.hpp:77] Creating layer loss1/fc
I0403 15:26:22.680932 14956 net.cpp:91] Creating Layer loss1/fc
I0403 15:26:22.680948 14956 net.cpp:425] loss1/fc <- loss1/conv
I0403 15:26:22.680965 14956 net.cpp:399] loss1/fc -> loss1/fc
I0403 15:26:22.698226 14956 net.cpp:141] Setting up loss1/fc
I0403 15:26:22.698256 14956 net.cpp:148] Top shape: 24 1024 (24576)
I0403 15:26:22.698271 14956 net.cpp:156] Memory required for data: 945992736
I0403 15:26:22.698288 14956 layer_factory.hpp:77] Creating layer loss1/relu_fc
I0403 15:26:22.698308 14956 net.cpp:91] Creating Layer loss1/relu_fc
I0403 15:26:22.698323 14956 net.cpp:425] loss1/relu_fc <- loss1/fc
I0403 15:26:22.698343 14956 net.cpp:386] loss1/relu_fc -> loss1/fc (in-place)
I0403 15:26:22.698521 14956 net.cpp:141] Setting up loss1/relu_fc
I0403 15:26:22.698549 14956 net.cpp:148] Top shape: 24 1024 (24576)
I0403 15:26:22.698565 14956 net.cpp:156] Memory required for data: 946091040
I0403 15:26:22.698577 14956 layer_factory.hpp:77] Creating layer loss1/drop_fc
I0403 15:26:22.698601 14956 net.cpp:91] Creating Layer loss1/drop_fc
I0403 15:26:22.698618 14956 net.cpp:425] loss1/drop_fc <- loss1/fc
I0403 15:26:22.698637 14956 net.cpp:386] loss1/drop_fc -> loss1/fc (in-place)
I0403 15:26:22.698684 14956 net.cpp:141] Setting up loss1/drop_fc
I0403 15:26:22.698706 14956 net.cpp:148] Top shape: 24 1024 (24576)
I0403 15:26:22.698720 14956 net.cpp:156] Memory required for data: 946189344
I0403 15:26:22.698734 14956 layer_factory.hpp:77] Creating layer loss1/classifier_plantvillage
I0403 15:26:22.698755 14956 net.cpp:91] Creating Layer loss1/classifier_plantvillage
I0403 15:26:22.698771 14956 net.cpp:425] loss1/classifier_plantvillage <- loss1/fc
I0403 15:26:22.698791 14956 net.cpp:399] loss1/classifier_plantvillage -> loss1/classifier_plantvillage
I0403 15:26:22.699683 14956 net.cpp:141] Setting up loss1/classifier_plantvillage
I0403 15:26:22.699712 14956 net.cpp:148] Top shape: 24 38 (912)
I0403 15:26:22.699728 14956 net.cpp:156] Memory required for data: 946192992
I0403 15:26:22.699745 14956 layer_factory.hpp:77] Creating layer loss1/classifier_plantvillage_loss1/classifier_plantvillage_0_split
I0403 15:26:22.699762 14956 net.cpp:91] Creating Layer loss1/classifier_plantvillage_loss1/classifier_plantvillage_0_split
I0403 15:26:22.699777 14956 net.cpp:425] loss1/classifier_plantvillage_loss1/classifier_plantvillage_0_split <- loss1/classifier_plantvillage
I0403 15:26:22.699795 14956 net.cpp:399] loss1/classifier_plantvillage_loss1/classifier_plantvillage_0_split -> loss1/classifier_plantvillage_loss1/classifier_plantvillage_0_split_0
I0403 15:26:22.699816 14956 net.cpp:399] loss1/classifier_plantvillage_loss1/classifier_plantvillage_0_split -> loss1/classifier_plantvillage_loss1/classifier_plantvillage_0_split_1
I0403 15:26:22.699836 14956 net.cpp:399] loss1/classifier_plantvillage_loss1/classifier_plantvillage_0_split -> loss1/classifier_plantvillage_loss1/classifier_plantvillage_0_split_2
I0403 15:26:22.699899 14956 net.cpp:141] Setting up loss1/classifier_plantvillage_loss1/classifier_plantvillage_0_split
I0403 15:26:22.699921 14956 net.cpp:148] Top shape: 24 38 (912)
I0403 15:26:22.699937 14956 net.cpp:148] Top shape: 24 38 (912)
I0403 15:26:22.699952 14956 net.cpp:148] Top shape: 24 38 (912)
I0403 15:26:22.699965 14956 net.cpp:156] Memory required for data: 946203936
I0403 15:26:22.699977 14956 layer_factory.hpp:77] Creating layer inception_4b/1x1
I0403 15:26:22.699997 14956 net.cpp:91] Creating Layer inception_4b/1x1
I0403 15:26:22.700029 14956 net.cpp:425] inception_4b/1x1 <- inception_4a/output_inception_4a/output_0_split_1
I0403 15:26:22.700048 14956 net.cpp:399] inception_4b/1x1 -> inception_4b/1x1
I0403 15:26:22.701724 14956 net.cpp:141] Setting up inception_4b/1x1
I0403 15:26:22.701752 14956 net.cpp:148] Top shape: 24 160 14 14 (752640)
I0403 15:26:22.701767 14956 net.cpp:156] Memory required for data: 949214496
I0403 15:26:22.701784 14956 layer_factory.hpp:77] Creating layer inception_4b/relu_1x1
I0403 15:26:22.701804 14956 net.cpp:91] Creating Layer inception_4b/relu_1x1
I0403 15:26:22.701822 14956 net.cpp:425] inception_4b/relu_1x1 <- inception_4b/1x1
I0403 15:26:22.701838 14956 net.cpp:386] inception_4b/relu_1x1 -> inception_4b/1x1 (in-place)
I0403 15:26:22.702015 14956 net.cpp:141] Setting up inception_4b/relu_1x1
I0403 15:26:22.702040 14956 net.cpp:148] Top shape: 24 160 14 14 (752640)
I0403 15:26:22.702055 14956 net.cpp:156] Memory required for data: 952225056
I0403 15:26:22.702069 14956 layer_factory.hpp:77] Creating layer inception_4b/3x3_reduce
I0403 15:26:22.702092 14956 net.cpp:91] Creating Layer inception_4b/3x3_reduce
I0403 15:26:22.702110 14956 net.cpp:425] inception_4b/3x3_reduce <- inception_4a/output_inception_4a/output_0_split_2
I0403 15:26:22.702127 14956 net.cpp:399] inception_4b/3x3_reduce -> inception_4b/3x3_reduce
I0403 15:26:22.703490 14956 net.cpp:141] Setting up inception_4b/3x3_reduce
I0403 15:26:22.703518 14956 net.cpp:148] Top shape: 24 112 14 14 (526848)
I0403 15:26:22.703533 14956 net.cpp:156] Memory required for data: 954332448
I0403 15:26:22.703557 14956 layer_factory.hpp:77] Creating layer inception_4b/relu_3x3_reduce
I0403 15:26:22.703577 14956 net.cpp:91] Creating Layer inception_4b/relu_3x3_reduce
I0403 15:26:22.703593 14956 net.cpp:425] inception_4b/relu_3x3_reduce <- inception_4b/3x3_reduce
I0403 15:26:22.703610 14956 net.cpp:386] inception_4b/relu_3x3_reduce -> inception_4b/3x3_reduce (in-place)
I0403 15:26:22.703897 14956 net.cpp:141] Setting up inception_4b/relu_3x3_reduce
I0403 15:26:22.703923 14956 net.cpp:148] Top shape: 24 112 14 14 (526848)
I0403 15:26:22.703938 14956 net.cpp:156] Memory required for data: 956439840
I0403 15:26:22.703953 14956 layer_factory.hpp:77] Creating layer inception_4b/3x3
I0403 15:26:22.703974 14956 net.cpp:91] Creating Layer inception_4b/3x3
I0403 15:26:22.703991 14956 net.cpp:425] inception_4b/3x3 <- inception_4b/3x3_reduce
I0403 15:26:22.704011 14956 net.cpp:399] inception_4b/3x3 -> inception_4b/3x3
I0403 15:26:22.707005 14956 net.cpp:141] Setting up inception_4b/3x3
I0403 15:26:22.707036 14956 net.cpp:148] Top shape: 24 224 14 14 (1053696)
I0403 15:26:22.707052 14956 net.cpp:156] Memory required for data: 960654624
I0403 15:26:22.707069 14956 layer_factory.hpp:77] Creating layer inception_4b/relu_3x3
I0403 15:26:22.707087 14956 net.cpp:91] Creating Layer inception_4b/relu_3x3
I0403 15:26:22.707103 14956 net.cpp:425] inception_4b/relu_3x3 <- inception_4b/3x3
I0403 15:26:22.707120 14956 net.cpp:386] inception_4b/relu_3x3 -> inception_4b/3x3 (in-place)
I0403 15:26:22.707300 14956 net.cpp:141] Setting up inception_4b/relu_3x3
I0403 15:26:22.707325 14956 net.cpp:148] Top shape: 24 224 14 14 (1053696)
I0403 15:26:22.707340 14956 net.cpp:156] Memory required for data: 964869408
I0403 15:26:22.707353 14956 layer_factory.hpp:77] Creating layer inception_4b/5x5_reduce
I0403 15:26:22.707375 14956 net.cpp:91] Creating Layer inception_4b/5x5_reduce
I0403 15:26:22.707391 14956 net.cpp:425] inception_4b/5x5_reduce <- inception_4a/output_inception_4a/output_0_split_3
I0403 15:26:22.707413 14956 net.cpp:399] inception_4b/5x5_reduce -> inception_4b/5x5_reduce
I0403 15:26:22.708508 14956 net.cpp:141] Setting up inception_4b/5x5_reduce
I0403 15:26:22.708534 14956 net.cpp:148] Top shape: 24 24 14 14 (112896)
I0403 15:26:22.708555 14956 net.cpp:156] Memory required for data: 965320992
I0403 15:26:22.708575 14956 layer_factory.hpp:77] Creating layer inception_4b/relu_5x5_reduce
I0403 15:26:22.708603 14956 net.cpp:91] Creating Layer inception_4b/relu_5x5_reduce
I0403 15:26:22.708633 14956 net.cpp:425] inception_4b/relu_5x5_reduce <- inception_4b/5x5_reduce
I0403 15:26:22.708652 14956 net.cpp:386] inception_4b/relu_5x5_reduce -> inception_4b/5x5_reduce (in-place)
I0403 15:26:22.708832 14956 net.cpp:141] Setting up inception_4b/relu_5x5_reduce
I0403 15:26:22.708859 14956 net.cpp:148] Top shape: 24 24 14 14 (112896)
I0403 15:26:22.708875 14956 net.cpp:156] Memory required for data: 965772576
I0403 15:26:22.708889 14956 layer_factory.hpp:77] Creating layer inception_4b/5x5
I0403 15:26:22.708910 14956 net.cpp:91] Creating Layer inception_4b/5x5
I0403 15:26:22.708927 14956 net.cpp:425] inception_4b/5x5 <- inception_4b/5x5_reduce
I0403 15:26:22.708945 14956 net.cpp:399] inception_4b/5x5 -> inception_4b/5x5
I0403 15:26:22.710177 14956 net.cpp:141] Setting up inception_4b/5x5
I0403 15:26:22.710204 14956 net.cpp:148] Top shape: 24 64 14 14 (301056)
I0403 15:26:22.710219 14956 net.cpp:156] Memory required for data: 966976800
I0403 15:26:22.710237 14956 layer_factory.hpp:77] Creating layer inception_4b/relu_5x5
I0403 15:26:22.710256 14956 net.cpp:91] Creating Layer inception_4b/relu_5x5
I0403 15:26:22.710273 14956 net.cpp:425] inception_4b/relu_5x5 <- inception_4b/5x5
I0403 15:26:22.710290 14956 net.cpp:386] inception_4b/relu_5x5 -> inception_4b/5x5 (in-place)
I0403 15:26:22.710578 14956 net.cpp:141] Setting up inception_4b/relu_5x5
I0403 15:26:22.710604 14956 net.cpp:148] Top shape: 24 64 14 14 (301056)
I0403 15:26:22.710618 14956 net.cpp:156] Memory required for data: 968181024
I0403 15:26:22.710633 14956 layer_factory.hpp:77] Creating layer inception_4b/pool
I0403 15:26:22.710650 14956 net.cpp:91] Creating Layer inception_4b/pool
I0403 15:26:22.710669 14956 net.cpp:425] inception_4b/pool <- inception_4a/output_inception_4a/output_0_split_4
I0403 15:26:22.710686 14956 net.cpp:399] inception_4b/pool -> inception_4b/pool
I0403 15:26:22.710752 14956 net.cpp:141] Setting up inception_4b/pool
I0403 15:26:22.710774 14956 net.cpp:148] Top shape: 24 512 14 14 (2408448)
I0403 15:26:22.710788 14956 net.cpp:156] Memory required for data: 977814816
I0403 15:26:22.710803 14956 layer_factory.hpp:77] Creating layer inception_4b/pool_proj
I0403 15:26:22.710824 14956 net.cpp:91] Creating Layer inception_4b/pool_proj
I0403 15:26:22.710840 14956 net.cpp:425] inception_4b/pool_proj <- inception_4b/pool
I0403 15:26:22.710860 14956 net.cpp:399] inception_4b/pool_proj -> inception_4b/pool_proj
I0403 15:26:22.712057 14956 net.cpp:141] Setting up inception_4b/pool_proj
I0403 15:26:22.712085 14956 net.cpp:148] Top shape: 24 64 14 14 (301056)
I0403 15:26:22.712100 14956 net.cpp:156] Memory required for data: 979019040
I0403 15:26:22.712117 14956 layer_factory.hpp:77] Creating layer inception_4b/relu_pool_proj
I0403 15:26:22.712142 14956 net.cpp:91] Creating Layer inception_4b/relu_pool_proj
I0403 15:26:22.712159 14956 net.cpp:425] inception_4b/relu_pool_proj <- inception_4b/pool_proj
I0403 15:26:22.712177 14956 net.cpp:386] inception_4b/relu_pool_proj -> inception_4b/pool_proj (in-place)
I0403 15:26:22.712362 14956 net.cpp:141] Setting up inception_4b/relu_pool_proj
I0403 15:26:22.712386 14956 net.cpp:148] Top shape: 24 64 14 14 (301056)
I0403 15:26:22.712400 14956 net.cpp:156] Memory required for data: 980223264
I0403 15:26:22.712414 14956 layer_factory.hpp:77] Creating layer inception_4b/output
I0403 15:26:22.712432 14956 net.cpp:91] Creating Layer inception_4b/output
I0403 15:26:22.712448 14956 net.cpp:425] inception_4b/output <- inception_4b/1x1
I0403 15:26:22.712465 14956 net.cpp:425] inception_4b/output <- inception_4b/3x3
I0403 15:26:22.712479 14956 net.cpp:425] inception_4b/output <- inception_4b/5x5
I0403 15:26:22.712496 14956 net.cpp:425] inception_4b/output <- inception_4b/pool_proj
I0403 15:26:22.712512 14956 net.cpp:399] inception_4b/output -> inception_4b/output
I0403 15:26:22.712561 14956 net.cpp:141] Setting up inception_4b/output
I0403 15:26:22.712594 14956 net.cpp:148] Top shape: 24 512 14 14 (2408448)
I0403 15:26:22.712610 14956 net.cpp:156] Memory required for data: 989857056
I0403 15:26:22.712637 14956 layer_factory.hpp:77] Creating layer inception_4b/output_inception_4b/output_0_split
I0403 15:26:22.712656 14956 net.cpp:91] Creating Layer inception_4b/output_inception_4b/output_0_split
I0403 15:26:22.712671 14956 net.cpp:425] inception_4b/output_inception_4b/output_0_split <- inception_4b/output
I0403 15:26:22.712689 14956 net.cpp:399] inception_4b/output_inception_4b/output_0_split -> inception_4b/output_inception_4b/output_0_split_0
I0403 15:26:22.712710 14956 net.cpp:399] inception_4b/output_inception_4b/output_0_split -> inception_4b/output_inception_4b/output_0_split_1
I0403 15:26:22.712729 14956 net.cpp:399] inception_4b/output_inception_4b/output_0_split -> inception_4b/output_inception_4b/output_0_split_2
I0403 15:26:22.712749 14956 net.cpp:399] inception_4b/output_inception_4b/output_0_split -> inception_4b/output_inception_4b/output_0_split_3
I0403 15:26:22.712837 14956 net.cpp:141] Setting up inception_4b/output_inception_4b/output_0_split
I0403 15:26:22.712860 14956 net.cpp:148] Top shape: 24 512 14 14 (2408448)
I0403 15:26:22.712877 14956 net.cpp:148] Top shape: 24 512 14 14 (2408448)
I0403 15:26:22.712891 14956 net.cpp:148] Top shape: 24 512 14 14 (2408448)
I0403 15:26:22.712905 14956 net.cpp:148] Top shape: 24 512 14 14 (2408448)
I0403 15:26:22.712918 14956 net.cpp:156] Memory required for data: 1028392224
I0403 15:26:22.712932 14956 layer_factory.hpp:77] Creating layer inception_4c/1x1
I0403 15:26:22.712954 14956 net.cpp:91] Creating Layer inception_4c/1x1
I0403 15:26:22.712970 14956 net.cpp:425] inception_4c/1x1 <- inception_4b/output_inception_4b/output_0_split_0
I0403 15:26:22.712992 14956 net.cpp:399] inception_4c/1x1 -> inception_4c/1x1
I0403 15:26:22.714421 14956 net.cpp:141] Setting up inception_4c/1x1
I0403 15:26:22.714452 14956 net.cpp:148] Top shape: 24 128 14 14 (602112)
I0403 15:26:22.714468 14956 net.cpp:156] Memory required for data: 1030800672
I0403 15:26:22.714485 14956 layer_factory.hpp:77] Creating layer inception_4c/relu_1x1
I0403 15:26:22.714504 14956 net.cpp:91] Creating Layer inception_4c/relu_1x1
I0403 15:26:22.714519 14956 net.cpp:425] inception_4c/relu_1x1 <- inception_4c/1x1
I0403 15:26:22.714548 14956 net.cpp:386] inception_4c/relu_1x1 -> inception_4c/1x1 (in-place)
I0403 15:26:22.714735 14956 net.cpp:141] Setting up inception_4c/relu_1x1
I0403 15:26:22.714759 14956 net.cpp:148] Top shape: 24 128 14 14 (602112)
I0403 15:26:22.714773 14956 net.cpp:156] Memory required for data: 1033209120
I0403 15:26:22.714787 14956 layer_factory.hpp:77] Creating layer inception_4c/3x3_reduce
I0403 15:26:22.714808 14956 net.cpp:91] Creating Layer inception_4c/3x3_reduce
I0403 15:26:22.714825 14956 net.cpp:425] inception_4c/3x3_reduce <- inception_4b/output_inception_4b/output_0_split_1
I0403 15:26:22.714845 14956 net.cpp:399] inception_4c/3x3_reduce -> inception_4c/3x3_reduce
I0403 15:26:22.716810 14956 net.cpp:141] Setting up inception_4c/3x3_reduce
I0403 15:26:22.716838 14956 net.cpp:148] Top shape: 24 128 14 14 (602112)
I0403 15:26:22.716853 14956 net.cpp:156] Memory required for data: 1035617568
I0403 15:26:22.716871 14956 layer_factory.hpp:77] Creating layer inception_4c/relu_3x3_reduce
I0403 15:26:22.716889 14956 net.cpp:91] Creating Layer inception_4c/relu_3x3_reduce
I0403 15:26:22.716904 14956 net.cpp:425] inception_4c/relu_3x3_reduce <- inception_4c/3x3_reduce
I0403 15:26:22.716923 14956 net.cpp:386] inception_4c/relu_3x3_reduce -> inception_4c/3x3_reduce (in-place)
I0403 15:26:22.717212 14956 net.cpp:141] Setting up inception_4c/relu_3x3_reduce
I0403 15:26:22.717238 14956 net.cpp:148] Top shape: 24 128 14 14 (602112)
I0403 15:26:22.717253 14956 net.cpp:156] Memory required for data: 1038026016
I0403 15:26:22.717268 14956 layer_factory.hpp:77] Creating layer inception_4c/3x3
I0403 15:26:22.717291 14956 net.cpp:91] Creating Layer inception_4c/3x3
I0403 15:26:22.717309 14956 net.cpp:425] inception_4c/3x3 <- inception_4c/3x3_reduce
I0403 15:26:22.717330 14956 net.cpp:399] inception_4c/3x3 -> inception_4c/3x3
I0403 15:26:22.720947 14956 net.cpp:141] Setting up inception_4c/3x3
I0403 15:26:22.720986 14956 net.cpp:148] Top shape: 24 256 14 14 (1204224)
I0403 15:26:22.721004 14956 net.cpp:156] Memory required for data: 1042842912
I0403 15:26:22.721034 14956 layer_factory.hpp:77] Creating layer inception_4c/relu_3x3
I0403 15:26:22.721055 14956 net.cpp:91] Creating Layer inception_4c/relu_3x3
I0403 15:26:22.721071 14956 net.cpp:425] inception_4c/relu_3x3 <- inception_4c/3x3
I0403 15:26:22.721087 14956 net.cpp:386] inception_4c/relu_3x3 -> inception_4c/3x3 (in-place)
I0403 15:26:22.721263 14956 net.cpp:141] Setting up inception_4c/relu_3x3
I0403 15:26:22.721287 14956 net.cpp:148] Top shape: 24 256 14 14 (1204224)
I0403 15:26:22.721302 14956 net.cpp:156] Memory required for data: 1047659808
I0403 15:26:22.721315 14956 layer_factory.hpp:77] Creating layer inception_4c/5x5_reduce
I0403 15:26:22.721336 14956 net.cpp:91] Creating Layer inception_4c/5x5_reduce
I0403 15:26:22.721354 14956 net.cpp:425] inception_4c/5x5_reduce <- inception_4b/output_inception_4b/output_0_split_2
I0403 15:26:22.721374 14956 net.cpp:399] inception_4c/5x5_reduce -> inception_4c/5x5_reduce
I0403 15:26:22.722437 14956 net.cpp:141] Setting up inception_4c/5x5_reduce
I0403 15:26:22.722463 14956 net.cpp:148] Top shape: 24 24 14 14 (112896)
I0403 15:26:22.722478 14956 net.cpp:156] Memory required for data: 1048111392
I0403 15:26:22.722494 14956 layer_factory.hpp:77] Creating layer inception_4c/relu_5x5_reduce
I0403 15:26:22.722514 14956 net.cpp:91] Creating Layer inception_4c/relu_5x5_reduce
I0403 15:26:22.722530 14956 net.cpp:425] inception_4c/relu_5x5_reduce <- inception_4c/5x5_reduce
I0403 15:26:22.722553 14956 net.cpp:386] inception_4c/relu_5x5_reduce -> inception_4c/5x5_reduce (in-place)
I0403 15:26:22.722734 14956 net.cpp:141] Setting up inception_4c/relu_5x5_reduce
I0403 15:26:22.722760 14956 net.cpp:148] Top shape: 24 24 14 14 (112896)
I0403 15:26:22.722775 14956 net.cpp:156] Memory required for data: 1048562976
I0403 15:26:22.722790 14956 layer_factory.hpp:77] Creating layer inception_4c/5x5
I0403 15:26:22.722810 14956 net.cpp:91] Creating Layer inception_4c/5x5
I0403 15:26:22.722826 14956 net.cpp:425] inception_4c/5x5 <- inception_4c/5x5_reduce
I0403 15:26:22.722844 14956 net.cpp:399] inception_4c/5x5 -> inception_4c/5x5
I0403 15:26:22.724046 14956 net.cpp:141] Setting up inception_4c/5x5
I0403 15:26:22.724072 14956 net.cpp:148] Top shape: 24 64 14 14 (301056)
I0403 15:26:22.724087 14956 net.cpp:156] Memory required for data: 1049767200
I0403 15:26:22.724104 14956 layer_factory.hpp:77] Creating layer inception_4c/relu_5x5
I0403 15:26:22.724123 14956 net.cpp:91] Creating Layer inception_4c/relu_5x5
I0403 15:26:22.724139 14956 net.cpp:425] inception_4c/relu_5x5 <- inception_4c/5x5
I0403 15:26:22.724156 14956 net.cpp:386] inception_4c/relu_5x5 -> inception_4c/5x5 (in-place)
I0403 15:26:22.724439 14956 net.cpp:141] Setting up inception_4c/relu_5x5
I0403 15:26:22.724464 14956 net.cpp:148] Top shape: 24 64 14 14 (301056)
I0403 15:26:22.724478 14956 net.cpp:156] Memory required for data: 1050971424
I0403 15:26:22.724493 14956 layer_factory.hpp:77] Creating layer inception_4c/pool
I0403 15:26:22.724511 14956 net.cpp:91] Creating Layer inception_4c/pool
I0403 15:26:22.724526 14956 net.cpp:425] inception_4c/pool <- inception_4b/output_inception_4b/output_0_split_3
I0403 15:26:22.724555 14956 net.cpp:399] inception_4c/pool -> inception_4c/pool
I0403 15:26:22.724622 14956 net.cpp:141] Setting up inception_4c/pool
I0403 15:26:22.724645 14956 net.cpp:148] Top shape: 24 512 14 14 (2408448)
I0403 15:26:22.724658 14956 net.cpp:156] Memory required for data: 1060605216
I0403 15:26:22.724673 14956 layer_factory.hpp:77] Creating layer inception_4c/pool_proj
I0403 15:26:22.724692 14956 net.cpp:91] Creating Layer inception_4c/pool_proj
I0403 15:26:22.724709 14956 net.cpp:425] inception_4c/pool_proj <- inception_4c/pool
I0403 15:26:22.724728 14956 net.cpp:399] inception_4c/pool_proj -> inception_4c/pool_proj
I0403 15:26:22.725921 14956 net.cpp:141] Setting up inception_4c/pool_proj
I0403 15:26:22.725949 14956 net.cpp:148] Top shape: 24 64 14 14 (301056)
I0403 15:26:22.725976 14956 net.cpp:156] Memory required for data: 1061809440
I0403 15:26:22.725996 14956 layer_factory.hpp:77] Creating layer inception_4c/relu_pool_proj
I0403 15:26:22.726016 14956 net.cpp:91] Creating Layer inception_4c/relu_pool_proj
I0403 15:26:22.726032 14956 net.cpp:425] inception_4c/relu_pool_proj <- inception_4c/pool_proj
I0403 15:26:22.726048 14956 net.cpp:386] inception_4c/relu_pool_proj -> inception_4c/pool_proj (in-place)
I0403 15:26:22.726230 14956 net.cpp:141] Setting up inception_4c/relu_pool_proj
I0403 15:26:22.726254 14956 net.cpp:148] Top shape: 24 64 14 14 (301056)
I0403 15:26:22.726269 14956 net.cpp:156] Memory required for data: 1063013664
I0403 15:26:22.726282 14956 layer_factory.hpp:77] Creating layer inception_4c/output
I0403 15:26:22.726300 14956 net.cpp:91] Creating Layer inception_4c/output
I0403 15:26:22.726315 14956 net.cpp:425] inception_4c/output <- inception_4c/1x1
I0403 15:26:22.726331 14956 net.cpp:425] inception_4c/output <- inception_4c/3x3
I0403 15:26:22.726346 14956 net.cpp:425] inception_4c/output <- inception_4c/5x5
I0403 15:26:22.726361 14956 net.cpp:425] inception_4c/output <- inception_4c/pool_proj
I0403 15:26:22.726378 14956 net.cpp:399] inception_4c/output -> inception_4c/output
I0403 15:26:22.726424 14956 net.cpp:141] Setting up inception_4c/output
I0403 15:26:22.726446 14956 net.cpp:148] Top shape: 24 512 14 14 (2408448)
I0403 15:26:22.726460 14956 net.cpp:156] Memory required for data: 1072647456
I0403 15:26:22.726474 14956 layer_factory.hpp:77] Creating layer inception_4c/output_inception_4c/output_0_split
I0403 15:26:22.726490 14956 net.cpp:91] Creating Layer inception_4c/output_inception_4c/output_0_split
I0403 15:26:22.726503 14956 net.cpp:425] inception_4c/output_inception_4c/output_0_split <- inception_4c/output
I0403 15:26:22.726521 14956 net.cpp:399] inception_4c/output_inception_4c/output_0_split -> inception_4c/output_inception_4c/output_0_split_0
I0403 15:26:22.726546 14956 net.cpp:399] inception_4c/output_inception_4c/output_0_split -> inception_4c/output_inception_4c/output_0_split_1
I0403 15:26:22.726567 14956 net.cpp:399] inception_4c/output_inception_4c/output_0_split -> inception_4c/output_inception_4c/output_0_split_2
I0403 15:26:22.726585 14956 net.cpp:399] inception_4c/output_inception_4c/output_0_split -> inception_4c/output_inception_4c/output_0_split_3
I0403 15:26:22.726671 14956 net.cpp:141] Setting up inception_4c/output_inception_4c/output_0_split
I0403 15:26:22.726694 14956 net.cpp:148] Top shape: 24 512 14 14 (2408448)
I0403 15:26:22.726709 14956 net.cpp:148] Top shape: 24 512 14 14 (2408448)
I0403 15:26:22.726723 14956 net.cpp:148] Top shape: 24 512 14 14 (2408448)
I0403 15:26:22.726737 14956 net.cpp:148] Top shape: 24 512 14 14 (2408448)
I0403 15:26:22.726752 14956 net.cpp:156] Memory required for data: 1111182624
I0403 15:26:22.726764 14956 layer_factory.hpp:77] Creating layer inception_4d/1x1
I0403 15:26:22.726784 14956 net.cpp:91] Creating Layer inception_4d/1x1
I0403 15:26:22.726800 14956 net.cpp:425] inception_4d/1x1 <- inception_4c/output_inception_4c/output_0_split_0
I0403 15:26:22.726819 14956 net.cpp:399] inception_4d/1x1 -> inception_4d/1x1
I0403 15:26:22.728183 14956 net.cpp:141] Setting up inception_4d/1x1
I0403 15:26:22.728214 14956 net.cpp:148] Top shape: 24 112 14 14 (526848)
I0403 15:26:22.728229 14956 net.cpp:156] Memory required for data: 1113290016
I0403 15:26:22.728246 14956 layer_factory.hpp:77] Creating layer inception_4d/relu_1x1
I0403 15:26:22.728265 14956 net.cpp:91] Creating Layer inception_4d/relu_1x1
I0403 15:26:22.728281 14956 net.cpp:425] inception_4d/relu_1x1 <- inception_4d/1x1
I0403 15:26:22.728308 14956 net.cpp:386] inception_4d/relu_1x1 -> inception_4d/1x1 (in-place)
I0403 15:26:22.728498 14956 net.cpp:141] Setting up inception_4d/relu_1x1
I0403 15:26:22.728523 14956 net.cpp:148] Top shape: 24 112 14 14 (526848)
I0403 15:26:22.728539 14956 net.cpp:156] Memory required for data: 1115397408
I0403 15:26:22.728556 14956 layer_factory.hpp:77] Creating layer inception_4d/3x3_reduce
I0403 15:26:22.728600 14956 net.cpp:91] Creating Layer inception_4d/3x3_reduce
I0403 15:26:22.728617 14956 net.cpp:425] inception_4d/3x3_reduce <- inception_4c/output_inception_4c/output_0_split_1
I0403 15:26:22.728638 14956 net.cpp:399] inception_4d/3x3_reduce -> inception_4d/3x3_reduce
I0403 15:26:22.730108 14956 net.cpp:141] Setting up inception_4d/3x3_reduce
I0403 15:26:22.730136 14956 net.cpp:148] Top shape: 24 144 14 14 (677376)
I0403 15:26:22.730151 14956 net.cpp:156] Memory required for data: 1118106912
I0403 15:26:22.730168 14956 layer_factory.hpp:77] Creating layer inception_4d/relu_3x3_reduce
I0403 15:26:22.730185 14956 net.cpp:91] Creating Layer inception_4d/relu_3x3_reduce
I0403 15:26:22.730201 14956 net.cpp:425] inception_4d/relu_3x3_reduce <- inception_4d/3x3_reduce
I0403 15:26:22.730216 14956 net.cpp:386] inception_4d/relu_3x3_reduce -> inception_4d/3x3_reduce (in-place)
I0403 15:26:22.730499 14956 net.cpp:141] Setting up inception_4d/relu_3x3_reduce
I0403 15:26:22.730525 14956 net.cpp:148] Top shape: 24 144 14 14 (677376)
I0403 15:26:22.730545 14956 net.cpp:156] Memory required for data: 1120816416
I0403 15:26:22.730561 14956 layer_factory.hpp:77] Creating layer inception_4d/3x3
I0403 15:26:22.730582 14956 net.cpp:91] Creating Layer inception_4d/3x3
I0403 15:26:22.730599 14956 net.cpp:425] inception_4d/3x3 <- inception_4d/3x3_reduce
I0403 15:26:22.730618 14956 net.cpp:399] inception_4d/3x3 -> inception_4d/3x3
I0403 15:26:22.734789 14956 net.cpp:141] Setting up inception_4d/3x3
I0403 15:26:22.734817 14956 net.cpp:148] Top shape: 24 288 14 14 (1354752)
I0403 15:26:22.734832 14956 net.cpp:156] Memory required for data: 1126235424
I0403 15:26:22.734848 14956 layer_factory.hpp:77] Creating layer inception_4d/relu_3x3
I0403 15:26:22.734865 14956 net.cpp:91] Creating Layer inception_4d/relu_3x3
I0403 15:26:22.734880 14956 net.cpp:425] inception_4d/relu_3x3 <- inception_4d/3x3
I0403 15:26:22.734899 14956 net.cpp:386] inception_4d/relu_3x3 -> inception_4d/3x3 (in-place)
I0403 15:26:22.735077 14956 net.cpp:141] Setting up inception_4d/relu_3x3
I0403 15:26:22.735100 14956 net.cpp:148] Top shape: 24 288 14 14 (1354752)
I0403 15:26:22.735116 14956 net.cpp:156] Memory required for data: 1131654432
I0403 15:26:22.735128 14956 layer_factory.hpp:77] Creating layer inception_4d/5x5_reduce
I0403 15:26:22.735149 14956 net.cpp:91] Creating Layer inception_4d/5x5_reduce
I0403 15:26:22.735167 14956 net.cpp:425] inception_4d/5x5_reduce <- inception_4c/output_inception_4c/output_0_split_2
I0403 15:26:22.735186 14956 net.cpp:399] inception_4d/5x5_reduce -> inception_4d/5x5_reduce
I0403 15:26:22.736316 14956 net.cpp:141] Setting up inception_4d/5x5_reduce
I0403 15:26:22.736342 14956 net.cpp:148] Top shape: 24 32 14 14 (150528)
I0403 15:26:22.736357 14956 net.cpp:156] Memory required for data: 1132256544
I0403 15:26:22.736374 14956 layer_factory.hpp:77] Creating layer inception_4d/relu_5x5_reduce
I0403 15:26:22.736392 14956 net.cpp:91] Creating Layer inception_4d/relu_5x5_reduce
I0403 15:26:22.736405 14956 net.cpp:425] inception_4d/relu_5x5_reduce <- inception_4d/5x5_reduce
I0403 15:26:22.736424 14956 net.cpp:386] inception_4d/relu_5x5_reduce -> inception_4d/5x5_reduce (in-place)
I0403 15:26:22.736609 14956 net.cpp:141] Setting up inception_4d/relu_5x5_reduce
I0403 15:26:22.736634 14956 net.cpp:148] Top shape: 24 32 14 14 (150528)
I0403 15:26:22.736649 14956 net.cpp:156] Memory required for data: 1132858656
I0403 15:26:22.736661 14956 layer_factory.hpp:77] Creating layer inception_4d/5x5
I0403 15:26:22.736682 14956 net.cpp:91] Creating Layer inception_4d/5x5
I0403 15:26:22.736698 14956 net.cpp:425] inception_4d/5x5 <- inception_4d/5x5_reduce
I0403 15:26:22.736718 14956 net.cpp:399] inception_4d/5x5 -> inception_4d/5x5
I0403 15:26:22.738140 14956 net.cpp:141] Setting up inception_4d/5x5
I0403 15:26:22.738168 14956 net.cpp:148] Top shape: 24 64 14 14 (301056)
I0403 15:26:22.738181 14956 net.cpp:156] Memory required for data: 1134062880
I0403 15:26:22.738199 14956 layer_factory.hpp:77] Creating layer inception_4d/relu_5x5
I0403 15:26:22.738239 14956 net.cpp:91] Creating Layer inception_4d/relu_5x5
I0403 15:26:22.738255 14956 net.cpp:425] inception_4d/relu_5x5 <- inception_4d/5x5
I0403 15:26:22.738272 14956 net.cpp:386] inception_4d/relu_5x5 -> inception_4d/5x5 (in-place)
I0403 15:26:22.738564 14956 net.cpp:141] Setting up inception_4d/relu_5x5
I0403 15:26:22.738590 14956 net.cpp:148] Top shape: 24 64 14 14 (301056)
I0403 15:26:22.738603 14956 net.cpp:156] Memory required for data: 1135267104
I0403 15:26:22.738617 14956 layer_factory.hpp:77] Creating layer inception_4d/pool
I0403 15:26:22.738636 14956 net.cpp:91] Creating Layer inception_4d/pool
I0403 15:26:22.738651 14956 net.cpp:425] inception_4d/pool <- inception_4c/output_inception_4c/output_0_split_3
I0403 15:26:22.738668 14956 net.cpp:399] inception_4d/pool -> inception_4d/pool
I0403 15:26:22.738735 14956 net.cpp:141] Setting up inception_4d/pool
I0403 15:26:22.738759 14956 net.cpp:148] Top shape: 24 512 14 14 (2408448)
I0403 15:26:22.738772 14956 net.cpp:156] Memory required for data: 1144900896
I0403 15:26:22.738786 14956 layer_factory.hpp:77] Creating layer inception_4d/pool_proj
I0403 15:26:22.738806 14956 net.cpp:91] Creating Layer inception_4d/pool_proj
I0403 15:26:22.738823 14956 net.cpp:425] inception_4d/pool_proj <- inception_4d/pool
I0403 15:26:22.738842 14956 net.cpp:399] inception_4d/pool_proj -> inception_4d/pool_proj
I0403 15:26:22.740615 14956 net.cpp:141] Setting up inception_4d/pool_proj
I0403 15:26:22.740644 14956 net.cpp:148] Top shape: 24 64 14 14 (301056)
I0403 15:26:22.740659 14956 net.cpp:156] Memory required for data: 1146105120
I0403 15:26:22.740677 14956 layer_factory.hpp:77] Creating layer inception_4d/relu_pool_proj
I0403 15:26:22.740695 14956 net.cpp:91] Creating Layer inception_4d/relu_pool_proj
I0403 15:26:22.740710 14956 net.cpp:425] inception_4d/relu_pool_proj <- inception_4d/pool_proj
I0403 15:26:22.740730 14956 net.cpp:386] inception_4d/relu_pool_proj -> inception_4d/pool_proj (in-place)
I0403 15:26:22.740917 14956 net.cpp:141] Setting up inception_4d/relu_pool_proj
I0403 15:26:22.740942 14956 net.cpp:148] Top shape: 24 64 14 14 (301056)
I0403 15:26:22.740957 14956 net.cpp:156] Memory required for data: 1147309344
I0403 15:26:22.740969 14956 layer_factory.hpp:77] Creating layer inception_4d/output
I0403 15:26:22.740989 14956 net.cpp:91] Creating Layer inception_4d/output
I0403 15:26:22.741005 14956 net.cpp:425] inception_4d/output <- inception_4d/1x1
I0403 15:26:22.741021 14956 net.cpp:425] inception_4d/output <- inception_4d/3x3
I0403 15:26:22.741037 14956 net.cpp:425] inception_4d/output <- inception_4d/5x5
I0403 15:26:22.741053 14956 net.cpp:425] inception_4d/output <- inception_4d/pool_proj
I0403 15:26:22.741070 14956 net.cpp:399] inception_4d/output -> inception_4d/output
I0403 15:26:22.741117 14956 net.cpp:141] Setting up inception_4d/output
I0403 15:26:22.741140 14956 net.cpp:148] Top shape: 24 528 14 14 (2483712)
I0403 15:26:22.741154 14956 net.cpp:156] Memory required for data: 1157244192
I0403 15:26:22.741168 14956 layer_factory.hpp:77] Creating layer inception_4d/output_inception_4d/output_0_split
I0403 15:26:22.741185 14956 net.cpp:91] Creating Layer inception_4d/output_inception_4d/output_0_split
I0403 15:26:22.741200 14956 net.cpp:425] inception_4d/output_inception_4d/output_0_split <- inception_4d/output
I0403 15:26:22.741219 14956 net.cpp:399] inception_4d/output_inception_4d/output_0_split -> inception_4d/output_inception_4d/output_0_split_0
I0403 15:26:22.741240 14956 net.cpp:399] inception_4d/output_inception_4d/output_0_split -> inception_4d/output_inception_4d/output_0_split_1
I0403 15:26:22.741261 14956 net.cpp:399] inception_4d/output_inception_4d/output_0_split -> inception_4d/output_inception_4d/output_0_split_2
I0403 15:26:22.741281 14956 net.cpp:399] inception_4d/output_inception_4d/output_0_split -> inception_4d/output_inception_4d/output_0_split_3
I0403 15:26:22.741299 14956 net.cpp:399] inception_4d/output_inception_4d/output_0_split -> inception_4d/output_inception_4d/output_0_split_4
I0403 15:26:22.741403 14956 net.cpp:141] Setting up inception_4d/output_inception_4d/output_0_split
I0403 15:26:22.741438 14956 net.cpp:148] Top shape: 24 528 14 14 (2483712)
I0403 15:26:22.741457 14956 net.cpp:148] Top shape: 24 528 14 14 (2483712)
I0403 15:26:22.741474 14956 net.cpp:148] Top shape: 24 528 14 14 (2483712)
I0403 15:26:22.741488 14956 net.cpp:148] Top shape: 24 528 14 14 (2483712)
I0403 15:26:22.741503 14956 net.cpp:148] Top shape: 24 528 14 14 (2483712)
I0403 15:26:22.741516 14956 net.cpp:156] Memory required for data: 1206918432
I0403 15:26:22.741530 14956 layer_factory.hpp:77] Creating layer loss2/ave_pool
I0403 15:26:22.741552 14956 net.cpp:91] Creating Layer loss2/ave_pool
I0403 15:26:22.741569 14956 net.cpp:425] loss2/ave_pool <- inception_4d/output_inception_4d/output_0_split_0
I0403 15:26:22.741590 14956 net.cpp:399] loss2/ave_pool -> loss2/ave_pool
I0403 15:26:22.741904 14956 net.cpp:141] Setting up loss2/ave_pool
I0403 15:26:22.741930 14956 net.cpp:148] Top shape: 24 528 4 4 (202752)
I0403 15:26:22.741945 14956 net.cpp:156] Memory required for data: 1207729440
I0403 15:26:22.741958 14956 layer_factory.hpp:77] Creating layer loss2/conv
I0403 15:26:22.741981 14956 net.cpp:91] Creating Layer loss2/conv
I0403 15:26:22.741998 14956 net.cpp:425] loss2/conv <- loss2/ave_pool
I0403 15:26:22.742018 14956 net.cpp:399] loss2/conv -> loss2/conv
I0403 15:26:22.743923 14956 net.cpp:141] Setting up loss2/conv
I0403 15:26:22.743952 14956 net.cpp:148] Top shape: 24 128 4 4 (49152)
I0403 15:26:22.743968 14956 net.cpp:156] Memory required for data: 1207926048
I0403 15:26:22.743985 14956 layer_factory.hpp:77] Creating layer loss2/relu_conv
I0403 15:26:22.744006 14956 net.cpp:91] Creating Layer loss2/relu_conv
I0403 15:26:22.744022 14956 net.cpp:425] loss2/relu_conv <- loss2/conv
I0403 15:26:22.744040 14956 net.cpp:386] loss2/relu_conv -> loss2/conv (in-place)
I0403 15:26:22.744328 14956 net.cpp:141] Setting up loss2/relu_conv
I0403 15:26:22.744354 14956 net.cpp:148] Top shape: 24 128 4 4 (49152)
I0403 15:26:22.744369 14956 net.cpp:156] Memory required for data: 1208122656
I0403 15:26:22.744382 14956 layer_factory.hpp:77] Creating layer loss2/fc
I0403 15:26:22.744402 14956 net.cpp:91] Creating Layer loss2/fc
I0403 15:26:22.744420 14956 net.cpp:425] loss2/fc <- loss2/conv
I0403 15:26:22.744441 14956 net.cpp:399] loss2/fc -> loss2/fc
I0403 15:26:22.762081 14956 net.cpp:141] Setting up loss2/fc
I0403 15:26:22.762112 14956 net.cpp:148] Top shape: 24 1024 (24576)
I0403 15:26:22.762127 14956 net.cpp:156] Memory required for data: 1208220960
I0403 15:26:22.762145 14956 layer_factory.hpp:77] Creating layer loss2/relu_fc
I0403 15:26:22.762162 14956 net.cpp:91] Creating Layer loss2/relu_fc
I0403 15:26:22.762177 14956 net.cpp:425] loss2/relu_fc <- loss2/fc
I0403 15:26:22.762197 14956 net.cpp:386] loss2/relu_fc -> loss2/fc (in-place)
I0403 15:26:22.762493 14956 net.cpp:141] Setting up loss2/relu_fc
I0403 15:26:22.762518 14956 net.cpp:148] Top shape: 24 1024 (24576)
I0403 15:26:22.762533 14956 net.cpp:156] Memory required for data: 1208319264
I0403 15:26:22.762552 14956 layer_factory.hpp:77] Creating layer loss2/drop_fc
I0403 15:26:22.762569 14956 net.cpp:91] Creating Layer loss2/drop_fc
I0403 15:26:22.762584 14956 net.cpp:425] loss2/drop_fc <- loss2/fc
I0403 15:26:22.762603 14956 net.cpp:386] loss2/drop_fc -> loss2/fc (in-place)
I0403 15:26:22.762650 14956 net.cpp:141] Setting up loss2/drop_fc
I0403 15:26:22.762675 14956 net.cpp:148] Top shape: 24 1024 (24576)
I0403 15:26:22.762688 14956 net.cpp:156] Memory required for data: 1208417568
I0403 15:26:22.762702 14956 layer_factory.hpp:77] Creating layer loss2/classifier_plantvillage
I0403 15:26:22.762719 14956 net.cpp:91] Creating Layer loss2/classifier_plantvillage
I0403 15:26:22.762733 14956 net.cpp:425] loss2/classifier_plantvillage <- loss2/fc
I0403 15:26:22.762754 14956 net.cpp:399] loss2/classifier_plantvillage -> loss2/classifier_plantvillage
I0403 15:26:22.763142 14956 net.cpp:141] Setting up loss2/classifier_plantvillage
I0403 15:26:22.763169 14956 net.cpp:148] Top shape: 24 38 (912)
I0403 15:26:22.763183 14956 net.cpp:156] Memory required for data: 1208421216
I0403 15:26:22.763219 14956 layer_factory.hpp:77] Creating layer loss2/classifier_plantvillage_loss2/classifier_plantvillage_0_split
I0403 15:26:22.763238 14956 net.cpp:91] Creating Layer loss2/classifier_plantvillage_loss2/classifier_plantvillage_0_split
I0403 15:26:22.763253 14956 net.cpp:425] loss2/classifier_plantvillage_loss2/classifier_plantvillage_0_split <- loss2/classifier_plantvillage
I0403 15:26:22.763270 14956 net.cpp:399] loss2/classifier_plantvillage_loss2/classifier_plantvillage_0_split -> loss2/classifier_plantvillage_loss2/classifier_plantvillage_0_split_0
I0403 15:26:22.763289 14956 net.cpp:399] loss2/classifier_plantvillage_loss2/classifier_plantvillage_0_split -> loss2/classifier_plantvillage_loss2/classifier_plantvillage_0_split_1
I0403 15:26:22.763311 14956 net.cpp:399] loss2/classifier_plantvillage_loss2/classifier_plantvillage_0_split -> loss2/classifier_plantvillage_loss2/classifier_plantvillage_0_split_2
I0403 15:26:22.763387 14956 net.cpp:141] Setting up loss2/classifier_plantvillage_loss2/classifier_plantvillage_0_split
I0403 15:26:22.763411 14956 net.cpp:148] Top shape: 24 38 (912)
I0403 15:26:22.763424 14956 net.cpp:148] Top shape: 24 38 (912)
I0403 15:26:22.763439 14956 net.cpp:148] Top shape: 24 38 (912)
I0403 15:26:22.763452 14956 net.cpp:156] Memory required for data: 1208432160
I0403 15:26:22.763464 14956 layer_factory.hpp:77] Creating layer inception_4e/1x1
I0403 15:26:22.763484 14956 net.cpp:91] Creating Layer inception_4e/1x1
I0403 15:26:22.763499 14956 net.cpp:425] inception_4e/1x1 <- inception_4d/output_inception_4d/output_0_split_1
I0403 15:26:22.763519 14956 net.cpp:399] inception_4e/1x1 -> inception_4e/1x1
I0403 15:26:22.765296 14956 net.cpp:141] Setting up inception_4e/1x1
I0403 15:26:22.765323 14956 net.cpp:148] Top shape: 24 256 14 14 (1204224)
I0403 15:26:22.765338 14956 net.cpp:156] Memory required for data: 1213249056
I0403 15:26:22.765355 14956 layer_factory.hpp:77] Creating layer inception_4e/relu_1x1
I0403 15:26:22.765374 14956 net.cpp:91] Creating Layer inception_4e/relu_1x1
I0403 15:26:22.765390 14956 net.cpp:425] inception_4e/relu_1x1 <- inception_4e/1x1
I0403 15:26:22.765406 14956 net.cpp:386] inception_4e/relu_1x1 -> inception_4e/1x1 (in-place)
I0403 15:26:22.765703 14956 net.cpp:141] Setting up inception_4e/relu_1x1
I0403 15:26:22.765728 14956 net.cpp:148] Top shape: 24 256 14 14 (1204224)
I0403 15:26:22.765743 14956 net.cpp:156] Memory required for data: 1218065952
I0403 15:26:22.765756 14956 layer_factory.hpp:77] Creating layer inception_4e/3x3_reduce
I0403 15:26:22.765779 14956 net.cpp:91] Creating Layer inception_4e/3x3_reduce
I0403 15:26:22.765796 14956 net.cpp:425] inception_4e/3x3_reduce <- inception_4d/output_inception_4d/output_0_split_2
I0403 15:26:22.765815 14956 net.cpp:399] inception_4e/3x3_reduce -> inception_4e/3x3_reduce
I0403 15:26:22.767886 14956 net.cpp:141] Setting up inception_4e/3x3_reduce
I0403 15:26:22.767913 14956 net.cpp:148] Top shape: 24 160 14 14 (752640)
I0403 15:26:22.767930 14956 net.cpp:156] Memory required for data: 1221076512
I0403 15:26:22.767947 14956 layer_factory.hpp:77] Creating layer inception_4e/relu_3x3_reduce
I0403 15:26:22.767966 14956 net.cpp:91] Creating Layer inception_4e/relu_3x3_reduce
I0403 15:26:22.767983 14956 net.cpp:425] inception_4e/relu_3x3_reduce <- inception_4e/3x3_reduce
I0403 15:26:22.767998 14956 net.cpp:386] inception_4e/relu_3x3_reduce -> inception_4e/3x3_reduce (in-place)
I0403 15:26:22.768180 14956 net.cpp:141] Setting up inception_4e/relu_3x3_reduce
I0403 15:26:22.768208 14956 net.cpp:148] Top shape: 24 160 14 14 (752640)
I0403 15:26:22.768223 14956 net.cpp:156] Memory required for data: 1224087072
I0403 15:26:22.768235 14956 layer_factory.hpp:77] Creating layer inception_4e/3x3
I0403 15:26:22.768256 14956 net.cpp:91] Creating Layer inception_4e/3x3
I0403 15:26:22.768273 14956 net.cpp:425] inception_4e/3x3 <- inception_4e/3x3_reduce
I0403 15:26:22.768291 14956 net.cpp:399] inception_4e/3x3 -> inception_4e/3x3
I0403 15:26:22.773195 14956 net.cpp:141] Setting up inception_4e/3x3
I0403 15:26:22.773238 14956 net.cpp:148] Top shape: 24 320 14 14 (1505280)
I0403 15:26:22.773255 14956 net.cpp:156] Memory required for data: 1230108192
I0403 15:26:22.773272 14956 layer_factory.hpp:77] Creating layer inception_4e/relu_3x3
I0403 15:26:22.773289 14956 net.cpp:91] Creating Layer inception_4e/relu_3x3
I0403 15:26:22.773304 14956 net.cpp:425] inception_4e/relu_3x3 <- inception_4e/3x3
I0403 15:26:22.773324 14956 net.cpp:386] inception_4e/relu_3x3 -> inception_4e/3x3 (in-place)
I0403 15:26:22.773620 14956 net.cpp:141] Setting up inception_4e/relu_3x3
I0403 15:26:22.773648 14956 net.cpp:148] Top shape: 24 320 14 14 (1505280)
I0403 15:26:22.773663 14956 net.cpp:156] Memory required for data: 1236129312
I0403 15:26:22.773676 14956 layer_factory.hpp:77] Creating layer inception_4e/5x5_reduce
I0403 15:26:22.773699 14956 net.cpp:91] Creating Layer inception_4e/5x5_reduce
I0403 15:26:22.773715 14956 net.cpp:425] inception_4e/5x5_reduce <- inception_4d/output_inception_4d/output_0_split_3
I0403 15:26:22.773736 14956 net.cpp:399] inception_4e/5x5_reduce -> inception_4e/5x5_reduce
I0403 15:26:22.774786 14956 net.cpp:141] Setting up inception_4e/5x5_reduce
I0403 15:26:22.774813 14956 net.cpp:148] Top shape: 24 32 14 14 (150528)
I0403 15:26:22.774828 14956 net.cpp:156] Memory required for data: 1236731424
I0403 15:26:22.774844 14956 layer_factory.hpp:77] Creating layer inception_4e/relu_5x5_reduce
I0403 15:26:22.774864 14956 net.cpp:91] Creating Layer inception_4e/relu_5x5_reduce
I0403 15:26:22.774881 14956 net.cpp:425] inception_4e/relu_5x5_reduce <- inception_4e/5x5_reduce
I0403 15:26:22.774899 14956 net.cpp:386] inception_4e/relu_5x5_reduce -> inception_4e/5x5_reduce (in-place)
I0403 15:26:22.775187 14956 net.cpp:141] Setting up inception_4e/relu_5x5_reduce
I0403 15:26:22.775213 14956 net.cpp:148] Top shape: 24 32 14 14 (150528)
I0403 15:26:22.775226 14956 net.cpp:156] Memory required for data: 1237333536
I0403 15:26:22.775240 14956 layer_factory.hpp:77] Creating layer inception_4e/5x5
I0403 15:26:22.775276 14956 net.cpp:91] Creating Layer inception_4e/5x5
I0403 15:26:22.775295 14956 net.cpp:425] inception_4e/5x5 <- inception_4e/5x5_reduce
I0403 15:26:22.775315 14956 net.cpp:399] inception_4e/5x5 -> inception_4e/5x5
I0403 15:26:22.777115 14956 net.cpp:141] Setting up inception_4e/5x5
I0403 15:26:22.777143 14956 net.cpp:148] Top shape: 24 128 14 14 (602112)
I0403 15:26:22.777158 14956 net.cpp:156] Memory required for data: 1239741984
I0403 15:26:22.777174 14956 layer_factory.hpp:77] Creating layer inception_4e/relu_5x5
I0403 15:26:22.777191 14956 net.cpp:91] Creating Layer inception_4e/relu_5x5
I0403 15:26:22.777207 14956 net.cpp:425] inception_4e/relu_5x5 <- inception_4e/5x5
I0403 15:26:22.777225 14956 net.cpp:386] inception_4e/relu_5x5 -> inception_4e/5x5 (in-place)
I0403 15:26:22.777416 14956 net.cpp:141] Setting up inception_4e/relu_5x5
I0403 15:26:22.777441 14956 net.cpp:148] Top shape: 24 128 14 14 (602112)
I0403 15:26:22.777454 14956 net.cpp:156] Memory required for data: 1242150432
I0403 15:26:22.777468 14956 layer_factory.hpp:77] Creating layer inception_4e/pool
I0403 15:26:22.777487 14956 net.cpp:91] Creating Layer inception_4e/pool
I0403 15:26:22.777503 14956 net.cpp:425] inception_4e/pool <- inception_4d/output_inception_4d/output_0_split_4
I0403 15:26:22.777519 14956 net.cpp:399] inception_4e/pool -> inception_4e/pool
I0403 15:26:22.777591 14956 net.cpp:141] Setting up inception_4e/pool
I0403 15:26:22.777616 14956 net.cpp:148] Top shape: 24 528 14 14 (2483712)
I0403 15:26:22.777629 14956 net.cpp:156] Memory required for data: 1252085280
I0403 15:26:22.777643 14956 layer_factory.hpp:77] Creating layer inception_4e/pool_proj
I0403 15:26:22.777663 14956 net.cpp:91] Creating Layer inception_4e/pool_proj
I0403 15:26:22.777679 14956 net.cpp:425] inception_4e/pool_proj <- inception_4e/pool
I0403 15:26:22.777698 14956 net.cpp:399] inception_4e/pool_proj -> inception_4e/pool_proj
I0403 15:26:22.779172 14956 net.cpp:141] Setting up inception_4e/pool_proj
I0403 15:26:22.779199 14956 net.cpp:148] Top shape: 24 128 14 14 (602112)
I0403 15:26:22.779227 14956 net.cpp:156] Memory required for data: 1254493728
I0403 15:26:22.779245 14956 layer_factory.hpp:77] Creating layer inception_4e/relu_pool_proj
I0403 15:26:22.779263 14956 net.cpp:91] Creating Layer inception_4e/relu_pool_proj
I0403 15:26:22.779278 14956 net.cpp:425] inception_4e/relu_pool_proj <- inception_4e/pool_proj
I0403 15:26:22.779297 14956 net.cpp:386] inception_4e/relu_pool_proj -> inception_4e/pool_proj (in-place)
I0403 15:26:22.779597 14956 net.cpp:141] Setting up inception_4e/relu_pool_proj
I0403 15:26:22.779621 14956 net.cpp:148] Top shape: 24 128 14 14 (602112)
I0403 15:26:22.779634 14956 net.cpp:156] Memory required for data: 1256902176
I0403 15:26:22.779649 14956 layer_factory.hpp:77] Creating layer inception_4e/output
I0403 15:26:22.779664 14956 net.cpp:91] Creating Layer inception_4e/output
I0403 15:26:22.779678 14956 net.cpp:425] inception_4e/output <- inception_4e/1x1
I0403 15:26:22.779693 14956 net.cpp:425] inception_4e/output <- inception_4e/3x3
I0403 15:26:22.779709 14956 net.cpp:425] inception_4e/output <- inception_4e/5x5
I0403 15:26:22.779724 14956 net.cpp:425] inception_4e/output <- inception_4e/pool_proj
I0403 15:26:22.779742 14956 net.cpp:399] inception_4e/output -> inception_4e/output
I0403 15:26:22.779791 14956 net.cpp:141] Setting up inception_4e/output
I0403 15:26:22.779815 14956 net.cpp:148] Top shape: 24 832 14 14 (3913728)
I0403 15:26:22.779830 14956 net.cpp:156] Memory required for data: 1272557088
I0403 15:26:22.779844 14956 layer_factory.hpp:77] Creating layer pool4/3x3_s2
I0403 15:26:22.779860 14956 net.cpp:91] Creating Layer pool4/3x3_s2
I0403 15:26:22.779875 14956 net.cpp:425] pool4/3x3_s2 <- inception_4e/output
I0403 15:26:22.779891 14956 net.cpp:399] pool4/3x3_s2 -> pool4/3x3_s2
I0403 15:26:22.779960 14956 net.cpp:141] Setting up pool4/3x3_s2
I0403 15:26:22.779983 14956 net.cpp:148] Top shape: 24 832 7 7 (978432)
I0403 15:26:22.779997 14956 net.cpp:156] Memory required for data: 1276470816
I0403 15:26:22.780010 14956 layer_factory.hpp:77] Creating layer pool4/3x3_s2_pool4/3x3_s2_0_split
I0403 15:26:22.780028 14956 net.cpp:91] Creating Layer pool4/3x3_s2_pool4/3x3_s2_0_split
I0403 15:26:22.780043 14956 net.cpp:425] pool4/3x3_s2_pool4/3x3_s2_0_split <- pool4/3x3_s2
I0403 15:26:22.780060 14956 net.cpp:399] pool4/3x3_s2_pool4/3x3_s2_0_split -> pool4/3x3_s2_pool4/3x3_s2_0_split_0
I0403 15:26:22.780078 14956 net.cpp:399] pool4/3x3_s2_pool4/3x3_s2_0_split -> pool4/3x3_s2_pool4/3x3_s2_0_split_1
I0403 15:26:22.780098 14956 net.cpp:399] pool4/3x3_s2_pool4/3x3_s2_0_split -> pool4/3x3_s2_pool4/3x3_s2_0_split_2
I0403 15:26:22.780122 14956 net.cpp:399] pool4/3x3_s2_pool4/3x3_s2_0_split -> pool4/3x3_s2_pool4/3x3_s2_0_split_3
I0403 15:26:22.780211 14956 net.cpp:141] Setting up pool4/3x3_s2_pool4/3x3_s2_0_split
I0403 15:26:22.780233 14956 net.cpp:148] Top shape: 24 832 7 7 (978432)
I0403 15:26:22.780248 14956 net.cpp:148] Top shape: 24 832 7 7 (978432)
I0403 15:26:22.780264 14956 net.cpp:148] Top shape: 24 832 7 7 (978432)
I0403 15:26:22.780279 14956 net.cpp:148] Top shape: 24 832 7 7 (978432)
I0403 15:26:22.780292 14956 net.cpp:156] Memory required for data: 1292125728
I0403 15:26:22.780304 14956 layer_factory.hpp:77] Creating layer inception_5a/1x1
I0403 15:26:22.780325 14956 net.cpp:91] Creating Layer inception_5a/1x1
I0403 15:26:22.780341 14956 net.cpp:425] inception_5a/1x1 <- pool4/3x3_s2_pool4/3x3_s2_0_split_0
I0403 15:26:22.780361 14956 net.cpp:399] inception_5a/1x1 -> inception_5a/1x1
I0403 15:26:22.783110 14956 net.cpp:141] Setting up inception_5a/1x1
I0403 15:26:22.783138 14956 net.cpp:148] Top shape: 24 256 7 7 (301056)
I0403 15:26:22.783152 14956 net.cpp:156] Memory required for data: 1293329952
I0403 15:26:22.783170 14956 layer_factory.hpp:77] Creating layer inception_5a/relu_1x1
I0403 15:26:22.783188 14956 net.cpp:91] Creating Layer inception_5a/relu_1x1
I0403 15:26:22.783203 14956 net.cpp:425] inception_5a/relu_1x1 <- inception_5a/1x1
I0403 15:26:22.783220 14956 net.cpp:386] inception_5a/relu_1x1 -> inception_5a/1x1 (in-place)
I0403 15:26:22.783515 14956 net.cpp:141] Setting up inception_5a/relu_1x1
I0403 15:26:22.783545 14956 net.cpp:148] Top shape: 24 256 7 7 (301056)
I0403 15:26:22.783560 14956 net.cpp:156] Memory required for data: 1294534176
I0403 15:26:22.783573 14956 layer_factory.hpp:77] Creating layer inception_5a/3x3_reduce
I0403 15:26:22.783593 14956 net.cpp:91] Creating Layer inception_5a/3x3_reduce
I0403 15:26:22.783609 14956 net.cpp:425] inception_5a/3x3_reduce <- pool4/3x3_s2_pool4/3x3_s2_0_split_1
I0403 15:26:22.783629 14956 net.cpp:399] inception_5a/3x3_reduce -> inception_5a/3x3_reduce
I0403 15:26:22.785984 14956 net.cpp:141] Setting up inception_5a/3x3_reduce
I0403 15:26:22.786010 14956 net.cpp:148] Top shape: 24 160 7 7 (188160)
I0403 15:26:22.786026 14956 net.cpp:156] Memory required for data: 1295286816
I0403 15:26:22.786042 14956 layer_factory.hpp:77] Creating layer inception_5a/relu_3x3_reduce
I0403 15:26:22.786058 14956 net.cpp:91] Creating Layer inception_5a/relu_3x3_reduce
I0403 15:26:22.786073 14956 net.cpp:425] inception_5a/relu_3x3_reduce <- inception_5a/3x3_reduce
I0403 15:26:22.786095 14956 net.cpp:386] inception_5a/relu_3x3_reduce -> inception_5a/3x3_reduce (in-place)
I0403 15:26:22.786285 14956 net.cpp:141] Setting up inception_5a/relu_3x3_reduce
I0403 15:26:22.786309 14956 net.cpp:148] Top shape: 24 160 7 7 (188160)
I0403 15:26:22.786324 14956 net.cpp:156] Memory required for data: 1296039456
I0403 15:26:22.786337 14956 layer_factory.hpp:77] Creating layer inception_5a/3x3
I0403 15:26:22.786358 14956 net.cpp:91] Creating Layer inception_5a/3x3
I0403 15:26:22.786375 14956 net.cpp:425] inception_5a/3x3 <- inception_5a/3x3_reduce
I0403 15:26:22.786397 14956 net.cpp:399] inception_5a/3x3 -> inception_5a/3x3
I0403 15:26:22.791195 14956 net.cpp:141] Setting up inception_5a/3x3
I0403 15:26:22.791221 14956 net.cpp:148] Top shape: 24 320 7 7 (376320)
I0403 15:26:22.791235 14956 net.cpp:156] Memory required for data: 1297544736
I0403 15:26:22.791252 14956 layer_factory.hpp:77] Creating layer inception_5a/relu_3x3
I0403 15:26:22.791271 14956 net.cpp:91] Creating Layer inception_5a/relu_3x3
I0403 15:26:22.791287 14956 net.cpp:425] inception_5a/relu_3x3 <- inception_5a/3x3
I0403 15:26:22.791303 14956 net.cpp:386] inception_5a/relu_3x3 -> inception_5a/3x3 (in-place)
I0403 15:26:22.791589 14956 net.cpp:141] Setting up inception_5a/relu_3x3
I0403 15:26:22.791613 14956 net.cpp:148] Top shape: 24 320 7 7 (376320)
I0403 15:26:22.791627 14956 net.cpp:156] Memory required for data: 1299050016
I0403 15:26:22.791640 14956 layer_factory.hpp:77] Creating layer inception_5a/5x5_reduce
I0403 15:26:22.791661 14956 net.cpp:91] Creating Layer inception_5a/5x5_reduce
I0403 15:26:22.791678 14956 net.cpp:425] inception_5a/5x5_reduce <- pool4/3x3_s2_pool4/3x3_s2_0_split_2
I0403 15:26:22.791699 14956 net.cpp:399] inception_5a/5x5_reduce -> inception_5a/5x5_reduce
I0403 15:26:22.792822 14956 net.cpp:141] Setting up inception_5a/5x5_reduce
I0403 15:26:22.792850 14956 net.cpp:148] Top shape: 24 32 7 7 (37632)
I0403 15:26:22.792865 14956 net.cpp:156] Memory required for data: 1299200544
I0403 15:26:22.792882 14956 layer_factory.hpp:77] Creating layer inception_5a/relu_5x5_reduce
I0403 15:26:22.792899 14956 net.cpp:91] Creating Layer inception_5a/relu_5x5_reduce
I0403 15:26:22.792913 14956 net.cpp:425] inception_5a/relu_5x5_reduce <- inception_5a/5x5_reduce
I0403 15:26:22.792929 14956 net.cpp:386] inception_5a/relu_5x5_reduce -> inception_5a/5x5_reduce (in-place)
I0403 15:26:22.793220 14956 net.cpp:141] Setting up inception_5a/relu_5x5_reduce
I0403 15:26:22.793244 14956 net.cpp:148] Top shape: 24 32 7 7 (37632)
I0403 15:26:22.793259 14956 net.cpp:156] Memory required for data: 1299351072
I0403 15:26:22.793273 14956 layer_factory.hpp:77] Creating layer inception_5a/5x5
I0403 15:26:22.793294 14956 net.cpp:91] Creating Layer inception_5a/5x5
I0403 15:26:22.793310 14956 net.cpp:425] inception_5a/5x5 <- inception_5a/5x5_reduce
I0403 15:26:22.793330 14956 net.cpp:399] inception_5a/5x5 -> inception_5a/5x5
I0403 15:26:22.794986 14956 net.cpp:141] Setting up inception_5a/5x5
I0403 15:26:22.795023 14956 net.cpp:148] Top shape: 24 128 7 7 (150528)
I0403 15:26:22.795038 14956 net.cpp:156] Memory required for data: 1299953184
I0403 15:26:22.795055 14956 layer_factory.hpp:77] Creating layer inception_5a/relu_5x5
I0403 15:26:22.795074 14956 net.cpp:91] Creating Layer inception_5a/relu_5x5
I0403 15:26:22.795090 14956 net.cpp:425] inception_5a/relu_5x5 <- inception_5a/5x5
I0403 15:26:22.795105 14956 net.cpp:386] inception_5a/relu_5x5 -> inception_5a/5x5 (in-place)
I0403 15:26:22.795289 14956 net.cpp:141] Setting up inception_5a/relu_5x5
I0403 15:26:22.795315 14956 net.cpp:148] Top shape: 24 128 7 7 (150528)
I0403 15:26:22.795330 14956 net.cpp:156] Memory required for data: 1300555296
I0403 15:26:22.795343 14956 layer_factory.hpp:77] Creating layer inception_5a/pool
I0403 15:26:22.795359 14956 net.cpp:91] Creating Layer inception_5a/pool
I0403 15:26:22.795374 14956 net.cpp:425] inception_5a/pool <- pool4/3x3_s2_pool4/3x3_s2_0_split_3
I0403 15:26:22.795390 14956 net.cpp:399] inception_5a/pool -> inception_5a/pool
I0403 15:26:22.795459 14956 net.cpp:141] Setting up inception_5a/pool
I0403 15:26:22.795481 14956 net.cpp:148] Top shape: 24 832 7 7 (978432)
I0403 15:26:22.795495 14956 net.cpp:156] Memory required for data: 1304469024
I0403 15:26:22.795507 14956 layer_factory.hpp:77] Creating layer inception_5a/pool_proj
I0403 15:26:22.795527 14956 net.cpp:91] Creating Layer inception_5a/pool_proj
I0403 15:26:22.795548 14956 net.cpp:425] inception_5a/pool_proj <- inception_5a/pool
I0403 15:26:22.795569 14956 net.cpp:399] inception_5a/pool_proj -> inception_5a/pool_proj
I0403 15:26:22.797868 14956 net.cpp:141] Setting up inception_5a/pool_proj
I0403 15:26:22.797895 14956 net.cpp:148] Top shape: 24 128 7 7 (150528)
I0403 15:26:22.797910 14956 net.cpp:156] Memory required for data: 1305071136
I0403 15:26:22.797927 14956 layer_factory.hpp:77] Creating layer inception_5a/relu_pool_proj
I0403 15:26:22.797945 14956 net.cpp:91] Creating Layer inception_5a/relu_pool_proj
I0403 15:26:22.797963 14956 net.cpp:425] inception_5a/relu_pool_proj <- inception_5a/pool_proj
I0403 15:26:22.797981 14956 net.cpp:386] inception_5a/relu_pool_proj -> inception_5a/pool_proj (in-place)
I0403 15:26:22.798264 14956 net.cpp:141] Setting up inception_5a/relu_pool_proj
I0403 15:26:22.798288 14956 net.cpp:148] Top shape: 24 128 7 7 (150528)
I0403 15:26:22.798302 14956 net.cpp:156] Memory required for data: 1305673248
I0403 15:26:22.798316 14956 layer_factory.hpp:77] Creating layer inception_5a/output
I0403 15:26:22.798332 14956 net.cpp:91] Creating Layer inception_5a/output
I0403 15:26:22.798347 14956 net.cpp:425] inception_5a/output <- inception_5a/1x1
I0403 15:26:22.798363 14956 net.cpp:425] inception_5a/output <- inception_5a/3x3
I0403 15:26:22.798378 14956 net.cpp:425] inception_5a/output <- inception_5a/5x5
I0403 15:26:22.798393 14956 net.cpp:425] inception_5a/output <- inception_5a/pool_proj
I0403 15:26:22.798415 14956 net.cpp:399] inception_5a/output -> inception_5a/output
I0403 15:26:22.798465 14956 net.cpp:141] Setting up inception_5a/output
I0403 15:26:22.798490 14956 net.cpp:148] Top shape: 24 832 7 7 (978432)
I0403 15:26:22.798504 14956 net.cpp:156] Memory required for data: 1309586976
I0403 15:26:22.798518 14956 layer_factory.hpp:77] Creating layer inception_5a/output_inception_5a/output_0_split
I0403 15:26:22.798534 14956 net.cpp:91] Creating Layer inception_5a/output_inception_5a/output_0_split
I0403 15:26:22.798554 14956 net.cpp:425] inception_5a/output_inception_5a/output_0_split <- inception_5a/output
I0403 15:26:22.798570 14956 net.cpp:399] inception_5a/output_inception_5a/output_0_split -> inception_5a/output_inception_5a/output_0_split_0
I0403 15:26:22.798595 14956 net.cpp:399] inception_5a/output_inception_5a/output_0_split -> inception_5a/output_inception_5a/output_0_split_1
I0403 15:26:22.798614 14956 net.cpp:399] inception_5a/output_inception_5a/output_0_split -> inception_5a/output_inception_5a/output_0_split_2
I0403 15:26:22.798634 14956 net.cpp:399] inception_5a/output_inception_5a/output_0_split -> inception_5a/output_inception_5a/output_0_split_3
I0403 15:26:22.798741 14956 net.cpp:141] Setting up inception_5a/output_inception_5a/output_0_split
I0403 15:26:22.798765 14956 net.cpp:148] Top shape: 24 832 7 7 (978432)
I0403 15:26:22.798779 14956 net.cpp:148] Top shape: 24 832 7 7 (978432)
I0403 15:26:22.798794 14956 net.cpp:148] Top shape: 24 832 7 7 (978432)
I0403 15:26:22.798809 14956 net.cpp:148] Top shape: 24 832 7 7 (978432)
I0403 15:26:22.798821 14956 net.cpp:156] Memory required for data: 1325241888
I0403 15:26:22.798835 14956 layer_factory.hpp:77] Creating layer inception_5b/1x1
I0403 15:26:22.798856 14956 net.cpp:91] Creating Layer inception_5b/1x1
I0403 15:26:22.798871 14956 net.cpp:425] inception_5b/1x1 <- inception_5a/output_inception_5a/output_0_split_0
I0403 15:26:22.798892 14956 net.cpp:399] inception_5b/1x1 -> inception_5b/1x1
I0403 15:26:22.802572 14956 net.cpp:141] Setting up inception_5b/1x1
I0403 15:26:22.802599 14956 net.cpp:148] Top shape: 24 384 7 7 (451584)
I0403 15:26:22.802614 14956 net.cpp:156] Memory required for data: 1327048224
I0403 15:26:22.802631 14956 layer_factory.hpp:77] Creating layer inception_5b/relu_1x1
I0403 15:26:22.802649 14956 net.cpp:91] Creating Layer inception_5b/relu_1x1
I0403 15:26:22.802664 14956 net.cpp:425] inception_5b/relu_1x1 <- inception_5b/1x1
I0403 15:26:22.802683 14956 net.cpp:386] inception_5b/relu_1x1 -> inception_5b/1x1 (in-place)
I0403 15:26:22.802980 14956 net.cpp:141] Setting up inception_5b/relu_1x1
I0403 15:26:22.803005 14956 net.cpp:148] Top shape: 24 384 7 7 (451584)
I0403 15:26:22.803020 14956 net.cpp:156] Memory required for data: 1328854560
I0403 15:26:22.803033 14956 layer_factory.hpp:77] Creating layer inception_5b/3x3_reduce
I0403 15:26:22.803053 14956 net.cpp:91] Creating Layer inception_5b/3x3_reduce
I0403 15:26:22.803071 14956 net.cpp:425] inception_5b/3x3_reduce <- inception_5a/output_inception_5a/output_0_split_1
I0403 15:26:22.803092 14956 net.cpp:399] inception_5b/3x3_reduce -> inception_5b/3x3_reduce
I0403 15:26:22.805727 14956 net.cpp:141] Setting up inception_5b/3x3_reduce
I0403 15:26:22.805753 14956 net.cpp:148] Top shape: 24 192 7 7 (225792)
I0403 15:26:22.805769 14956 net.cpp:156] Memory required for data: 1329757728
I0403 15:26:22.805786 14956 layer_factory.hpp:77] Creating layer inception_5b/relu_3x3_reduce
I0403 15:26:22.805804 14956 net.cpp:91] Creating Layer inception_5b/relu_3x3_reduce
I0403 15:26:22.805819 14956 net.cpp:425] inception_5b/relu_3x3_reduce <- inception_5b/3x3_reduce
I0403 15:26:22.805838 14956 net.cpp:386] inception_5b/relu_3x3_reduce -> inception_5b/3x3_reduce (in-place)
I0403 15:26:22.806022 14956 net.cpp:141] Setting up inception_5b/relu_3x3_reduce
I0403 15:26:22.806046 14956 net.cpp:148] Top shape: 24 192 7 7 (225792)
I0403 15:26:22.806061 14956 net.cpp:156] Memory required for data: 1330660896
I0403 15:26:22.806074 14956 layer_factory.hpp:77] Creating layer inception_5b/3x3
I0403 15:26:22.806095 14956 net.cpp:91] Creating Layer inception_5b/3x3
I0403 15:26:22.806113 14956 net.cpp:425] inception_5b/3x3 <- inception_5b/3x3_reduce
I0403 15:26:22.806133 14956 net.cpp:399] inception_5b/3x3 -> inception_5b/3x3
I0403 15:26:22.812705 14956 net.cpp:141] Setting up inception_5b/3x3
I0403 15:26:22.812732 14956 net.cpp:148] Top shape: 24 384 7 7 (451584)
I0403 15:26:22.812747 14956 net.cpp:156] Memory required for data: 1332467232
I0403 15:26:22.812764 14956 layer_factory.hpp:77] Creating layer inception_5b/relu_3x3
I0403 15:26:22.812783 14956 net.cpp:91] Creating Layer inception_5b/relu_3x3
I0403 15:26:22.812800 14956 net.cpp:425] inception_5b/relu_3x3 <- inception_5b/3x3
I0403 15:26:22.812816 14956 net.cpp:386] inception_5b/relu_3x3 -> inception_5b/3x3 (in-place)
I0403 15:26:22.813112 14956 net.cpp:141] Setting up inception_5b/relu_3x3
I0403 15:26:22.813136 14956 net.cpp:148] Top shape: 24 384 7 7 (451584)
I0403 15:26:22.813150 14956 net.cpp:156] Memory required for data: 1334273568
I0403 15:26:22.813164 14956 layer_factory.hpp:77] Creating layer inception_5b/5x5_reduce
I0403 15:26:22.813201 14956 net.cpp:91] Creating Layer inception_5b/5x5_reduce
I0403 15:26:22.813220 14956 net.cpp:425] inception_5b/5x5_reduce <- inception_5a/output_inception_5a/output_0_split_2
I0403 15:26:22.813241 14956 net.cpp:399] inception_5b/5x5_reduce -> inception_5b/5x5_reduce
I0403 15:26:22.814522 14956 net.cpp:141] Setting up inception_5b/5x5_reduce
I0403 15:26:22.814558 14956 net.cpp:148] Top shape: 24 48 7 7 (56448)
I0403 15:26:22.814574 14956 net.cpp:156] Memory required for data: 1334499360
I0403 15:26:22.814590 14956 layer_factory.hpp:77] Creating layer inception_5b/relu_5x5_reduce
I0403 15:26:22.814606 14956 net.cpp:91] Creating Layer inception_5b/relu_5x5_reduce
I0403 15:26:22.814620 14956 net.cpp:425] inception_5b/relu_5x5_reduce <- inception_5b/5x5_reduce
I0403 15:26:22.814638 14956 net.cpp:386] inception_5b/relu_5x5_reduce -> inception_5b/5x5_reduce (in-place)
I0403 15:26:22.815001 14956 net.cpp:141] Setting up inception_5b/relu_5x5_reduce
I0403 15:26:22.815026 14956 net.cpp:148] Top shape: 24 48 7 7 (56448)
I0403 15:26:22.815040 14956 net.cpp:156] Memory required for data: 1334725152
I0403 15:26:22.815054 14956 layer_factory.hpp:77] Creating layer inception_5b/5x5
I0403 15:26:22.815073 14956 net.cpp:91] Creating Layer inception_5b/5x5
I0403 15:26:22.815088 14956 net.cpp:425] inception_5b/5x5 <- inception_5b/5x5_reduce
I0403 15:26:22.815105 14956 net.cpp:399] inception_5b/5x5 -> inception_5b/5x5
I0403 15:26:22.817061 14956 net.cpp:141] Setting up inception_5b/5x5
I0403 15:26:22.817087 14956 net.cpp:148] Top shape: 24 128 7 7 (150528)
I0403 15:26:22.817101 14956 net.cpp:156] Memory required for data: 1335327264
I0403 15:26:22.817117 14956 layer_factory.hpp:77] Creating layer inception_5b/relu_5x5
I0403 15:26:22.817137 14956 net.cpp:91] Creating Layer inception_5b/relu_5x5
I0403 15:26:22.817152 14956 net.cpp:425] inception_5b/relu_5x5 <- inception_5b/5x5
I0403 15:26:22.817167 14956 net.cpp:386] inception_5b/relu_5x5 -> inception_5b/5x5 (in-place)
I0403 15:26:22.817355 14956 net.cpp:141] Setting up inception_5b/relu_5x5
I0403 15:26:22.817378 14956 net.cpp:148] Top shape: 24 128 7 7 (150528)
I0403 15:26:22.817392 14956 net.cpp:156] Memory required for data: 1335929376
I0403 15:26:22.817405 14956 layer_factory.hpp:77] Creating layer inception_5b/pool
I0403 15:26:22.817423 14956 net.cpp:91] Creating Layer inception_5b/pool
I0403 15:26:22.817438 14956 net.cpp:425] inception_5b/pool <- inception_5a/output_inception_5a/output_0_split_3
I0403 15:26:22.817456 14956 net.cpp:399] inception_5b/pool -> inception_5b/pool
I0403 15:26:22.817525 14956 net.cpp:141] Setting up inception_5b/pool
I0403 15:26:22.817551 14956 net.cpp:148] Top shape: 24 832 7 7 (978432)
I0403 15:26:22.817566 14956 net.cpp:156] Memory required for data: 1339843104
I0403 15:26:22.817579 14956 layer_factory.hpp:77] Creating layer inception_5b/pool_proj
I0403 15:26:22.817600 14956 net.cpp:91] Creating Layer inception_5b/pool_proj
I0403 15:26:22.817615 14956 net.cpp:425] inception_5b/pool_proj <- inception_5b/pool
I0403 15:26:22.817636 14956 net.cpp:399] inception_5b/pool_proj -> inception_5b/pool_proj
I0403 15:26:22.819844 14956 net.cpp:141] Setting up inception_5b/pool_proj
I0403 15:26:22.819871 14956 net.cpp:148] Top shape: 24 128 7 7 (150528)
I0403 15:26:22.819886 14956 net.cpp:156] Memory required for data: 1340445216
I0403 15:26:22.819903 14956 layer_factory.hpp:77] Creating layer inception_5b/relu_pool_proj
I0403 15:26:22.819921 14956 net.cpp:91] Creating Layer inception_5b/relu_pool_proj
I0403 15:26:22.819936 14956 net.cpp:425] inception_5b/relu_pool_proj <- inception_5b/pool_proj
I0403 15:26:22.819953 14956 net.cpp:386] inception_5b/relu_pool_proj -> inception_5b/pool_proj (in-place)
I0403 15:26:22.820237 14956 net.cpp:141] Setting up inception_5b/relu_pool_proj
I0403 15:26:22.820262 14956 net.cpp:148] Top shape: 24 128 7 7 (150528)
I0403 15:26:22.820276 14956 net.cpp:156] Memory required for data: 1341047328
I0403 15:26:22.820291 14956 layer_factory.hpp:77] Creating layer inception_5b/output
I0403 15:26:22.820307 14956 net.cpp:91] Creating Layer inception_5b/output
I0403 15:26:22.820334 14956 net.cpp:425] inception_5b/output <- inception_5b/1x1
I0403 15:26:22.820350 14956 net.cpp:425] inception_5b/output <- inception_5b/3x3
I0403 15:26:22.820366 14956 net.cpp:425] inception_5b/output <- inception_5b/5x5
I0403 15:26:22.820381 14956 net.cpp:425] inception_5b/output <- inception_5b/pool_proj
I0403 15:26:22.820404 14956 net.cpp:399] inception_5b/output -> inception_5b/output
I0403 15:26:22.820453 14956 net.cpp:141] Setting up inception_5b/output
I0403 15:26:22.820478 14956 net.cpp:148] Top shape: 24 1024 7 7 (1204224)
I0403 15:26:22.820492 14956 net.cpp:156] Memory required for data: 1345864224
I0403 15:26:22.820505 14956 layer_factory.hpp:77] Creating layer pool5/7x7_s1
I0403 15:26:22.820521 14956 net.cpp:91] Creating Layer pool5/7x7_s1
I0403 15:26:22.820539 14956 net.cpp:425] pool5/7x7_s1 <- inception_5b/output
I0403 15:26:22.820569 14956 net.cpp:399] pool5/7x7_s1 -> pool5/7x7_s1
I0403 15:26:22.820776 14956 net.cpp:141] Setting up pool5/7x7_s1
I0403 15:26:22.820801 14956 net.cpp:148] Top shape: 24 1024 1 1 (24576)
I0403 15:26:22.820814 14956 net.cpp:156] Memory required for data: 1345962528
I0403 15:26:22.820827 14956 layer_factory.hpp:77] Creating layer pool5/drop_7x7_s1
I0403 15:26:22.820849 14956 net.cpp:91] Creating Layer pool5/drop_7x7_s1
I0403 15:26:22.820863 14956 net.cpp:425] pool5/drop_7x7_s1 <- pool5/7x7_s1
I0403 15:26:22.820880 14956 net.cpp:386] pool5/drop_7x7_s1 -> pool5/7x7_s1 (in-place)
I0403 15:26:22.820930 14956 net.cpp:141] Setting up pool5/drop_7x7_s1
I0403 15:26:22.820950 14956 net.cpp:148] Top shape: 24 1024 1 1 (24576)
I0403 15:26:22.820963 14956 net.cpp:156] Memory required for data: 1346060832
I0403 15:26:22.820976 14956 layer_factory.hpp:77] Creating layer loss3/classifier_plantvillage
I0403 15:26:22.820992 14956 net.cpp:91] Creating Layer loss3/classifier_plantvillage
I0403 15:26:22.821007 14956 net.cpp:425] loss3/classifier_plantvillage <- pool5/7x7_s1
I0403 15:26:22.821025 14956 net.cpp:399] loss3/classifier_plantvillage -> loss3/classifier_plantvillage
I0403 15:26:22.821430 14956 net.cpp:141] Setting up loss3/classifier_plantvillage
I0403 15:26:22.821454 14956 net.cpp:148] Top shape: 24 38 (912)
I0403 15:26:22.821466 14956 net.cpp:156] Memory required for data: 1346064480
I0403 15:26:22.821483 14956 layer_factory.hpp:77] Creating layer loss3/classifier_plantvillage_loss3/classifier_plantvillage_0_split
I0403 15:26:22.821503 14956 net.cpp:91] Creating Layer loss3/classifier_plantvillage_loss3/classifier_plantvillage_0_split
I0403 15:26:22.821519 14956 net.cpp:425] loss3/classifier_plantvillage_loss3/classifier_plantvillage_0_split <- loss3/classifier_plantvillage
I0403 15:26:22.821540 14956 net.cpp:399] loss3/classifier_plantvillage_loss3/classifier_plantvillage_0_split -> loss3/classifier_plantvillage_loss3/classifier_plantvillage_0_split_0
I0403 15:26:22.821563 14956 net.cpp:399] loss3/classifier_plantvillage_loss3/classifier_plantvillage_0_split -> loss3/classifier_plantvillage_loss3/classifier_plantvillage_0_split_1
I0403 15:26:22.821580 14956 net.cpp:399] loss3/classifier_plantvillage_loss3/classifier_plantvillage_0_split -> loss3/classifier_plantvillage_loss3/classifier_plantvillage_0_split_2
I0403 15:26:22.821599 14956 net.cpp:399] loss3/classifier_plantvillage_loss3/classifier_plantvillage_0_split -> loss3/classifier_plantvillage_loss3/classifier_plantvillage_0_split_3
I0403 15:26:22.821694 14956 net.cpp:141] Setting up loss3/classifier_plantvillage_loss3/classifier_plantvillage_0_split
I0403 15:26:22.821715 14956 net.cpp:148] Top shape: 24 38 (912)
I0403 15:26:22.821730 14956 net.cpp:148] Top shape: 24 38 (912)
I0403 15:26:22.821743 14956 net.cpp:148] Top shape: 24 38 (912)
I0403 15:26:22.821756 14956 net.cpp:148] Top shape: 24 38 (912)
I0403 15:26:22.821769 14956 net.cpp:156] Memory required for data: 1346079072
I0403 15:26:22.821781 14956 layer_factory.hpp:77] Creating layer loss1/loss
I0403 15:26:22.821802 14956 net.cpp:91] Creating Layer loss1/loss
I0403 15:26:22.821817 14956 net.cpp:425] loss1/loss <- loss1/classifier_plantvillage_loss1/classifier_plantvillage_0_split_0
I0403 15:26:22.821846 14956 net.cpp:425] loss1/loss <- label_data_1_split_0
…
