…
I0403 15:43:53.619854 15994 net.cpp:313] The NetState phase (1) differed from the phase (0) specified by a rule in layer data
I0403 15:43:53.620993 15994 net.cpp:49] Initializing net from parameters: 
state {
  phase: TEST
}
layer {
  name: "data"
  type: "Data"
  top: "data"
  top: "label"
  include {
    phase: TEST
  }
  transform_param {
    mirror: false
    crop_size: 224
    mean_file: "/home/mohanty/data/final_dataset/lmdb/color-50-50/mean.binaryproto"
  }
  data_param {
    source: "/home/mohanty/data/final_dataset/lmdb/color-50-50/test_db"
    batch_size: 24
    backend: LMDB
  }
}
layer {
  name: "conv1/7x7_s2"
  type: "Convolution"
  bottom: "data"
  top: "conv1/7x7_s2"
  param {
    lr_mult: 1
    decay_mult: 1
  }
  param {
    lr_mult: 2
    decay_mult: 0
  }
  convolution_param {
    num_output: 64
    pad: 3
    kernel_size: 7
    stride: 2
    weight_filler {
      type: "xavier"
      std: 0.1
    }
    bias_filler {
      type: "constant"
      value: 0.2
    }
  }
}
layer {
  name: "conv1/relu_7x7"
  type: "ReLU"
  bottom: "conv1/7x7_s2"
  top: "conv1/7x7_s2"
}
layer {
  name: "pool1/3x3_s2"
  type: "Pooling"
  bottom: "conv1/7x7_s2"
  top: "pool1/3x3_s2"
  pooling_param {
    pool: MAX
    kernel_size: 3
    stride: 2
  }
}
layer {
  name: "pool1/norm1"
  type: "LRN"
  bottom: "pool1/3x3_s2"
  top: "pool1/norm1"
  lrn_param {
    local_size: 5
    alpha: 0.0001
    beta: 0.75
  }
}
layer {
  name: "conv2/3x3_reduce"
  type: "Convolution"
  bottom: "pool1/norm1"
  top: "conv2/3x3_reduce"
  param {
    lr_mult: 1
    decay_mult: 1
  }
  param {
    lr_mult: 2
    decay_mult: 0
  }
  convolution_param {
    num_output: 64
    kernel_size: 1
    weight_filler {
      type: "xavier"
      std: 0.1
    }
    bias_filler {
      type: "constant"
      value: 0.2
    }
  }
}
layer {
  name: "conv2/relu_3x3_reduce"
  type: "ReLU"
  bottom: "conv2/3x3_reduce"
  top: "conv2/3x3_reduce"
}
layer {
  name: "conv2/3x3"
  type: "Convolution"
  bottom: "conv2/3x3_reduce"
  top: "conv2/3x3"
  param {
    lr_mult: 1
    decay_mult: 1
  }
  param {
    lr_mult: 2
    decay_mult: 0
  }
  convolution_param {
    num_output: 192
    pad: 1
    kernel_size: 3
    weight_filler {
      type: "xavier"
      std: 0.03
    }
    bias_filler {
      type: "constant"
      value: 0.2
    }
  }
}
layer {
  name: "conv2/relu_3x3"
  type: "ReLU"
  bottom: "conv2/3x3"
  top: "conv2/3x3"
}
layer {
  name: "conv2/norm2"
  type: "LRN"
  bottom: "conv2/3x3"
  top: "conv2/norm2"
  lrn_param {
    local_size: 5
    alpha: 0.0001
    beta: 0.75
  }
}
layer {
  name: "pool2/3x3_s2"
  type: "Pooling"
  bottom: "conv2/norm2"
  top: "pool2/3x3_s2"
  pooling_param {
    pool: MAX
    kernel_size: 3
    stride: 2
  }
}
layer {
  name: "inception_3a/1x1"
  type: "Convolution"
  bottom: "pool2/3x3_s2"
  top: "inception_3a/1x1"
  param {
    lr_mult: 1
    decay_mult: 1
  }
  param {
    lr_mult: 2
    decay_mult: 0
  }
  convolution_param {
    num_output: 64
    kernel_size: 1
    weight_filler {
      type: "xavier"
      std: 0.03
    }
    bias_filler {
      type: "constant"
      value: 0.2
    }
  }
}
layer {
  name: "inception_3a/relu_1x1"
  type: "ReLU"
  bottom: "inception_3a/1x1"
  top: "inception_3a/1x1"
}
layer {
  name: "inception_3a/3x3_reduce"
  type: "Convolution"
  bottom: "pool2/3x3_s2"
  top: "inception_3a/3x3_reduce"
  param {
    lr_mult: 1
    decay_mult: 1
  }
  param {
    lr_mult: 2
    decay_mult: 0
  }
  convolution_param {
    num_output: 96
    kernel_size: 1
    weight_filler {
      type: "xavier"
      std: 0.09
    }
    bias_filler {
      type: "constant"
      value: 0.2
    }
  }
}
layer {
  name: "inception_3a/relu_3x3_reduce"
  type: "ReLU"
  bottom: "inception_3a/3x3_reduce"
  top: "inception_3a/3x3_reduce"
}
layer {
  name: "inception_3a/3x3"
  type: "Convolution"
  bottom: "inception_3a/3x3_reduce"
  top: "inception_3a/3x3"
  param {
    lr_mult: 1
    decay_mult: 1
  }
  param {
    lr_mult: 2
    decay_mult: 0
  }
  convolution_param {
    num_output: 128
    pad: 1
    kernel_size: 3
    weight_filler {
      type: "xavier"
      std: 0.03
    }
    bias_filler {
      type: "constant"
      value: 0.2
    }
  }
}
layer {
  name: "inception_3a/relu_3x3"
  type: "ReLU"
  bottom: "inception_3a/3x3"
  top: "inception_3a/3x3"
}
layer {
  name: "inception_3a/5x5_reduce"
  type: "Convolution"
  bottom: "pool2/3x3_s2"
  top: "inception_3a/5x5_reduce"
  param {
    lr_mult: 1
    decay_mult: 1
  }
  param {
    lr_mult: 2
    decay_mult: 0
  }
  convolution_param {
    num_output: 16
    kernel_size: 1
    weight_filler {
      type: "xavier"
      std: 0.2
    }
    bias_filler {
      type: "constant"
      value: 0.2
    }
  }
}
layer {
  name: "inception_3a/relu_5x5_reduce"
  type: "ReLU"
  bottom: "inception_3a/5x5_reduce"
  top: "inception_3a/5x5_reduce"
}
layer {
  name: "inception_3a/5x5"
  type: "Convolution"
  bottom: "inception_3a/5x5_reduce"
  top: "inception_3a/5x5"
  param {
    lr_mult: 1
    decay_mult: 1
  }
  param {
    lr_mult: 2
    decay_mult: 0
  }
  convolution_param {
    num_output: 32
    pad: 2
    kernel_size: 5
    weight_filler {
      type: "xavier"
      std: 0.03
    }
    bias_filler {
      type: "constant"
      value: 0.2
    }
  }
}
layer {
  name: "inception_3a/relu_5x5"
  type: "ReLU"
  bottom: "inception_3a/5x5"
  top: "inception_3a/5x5"
}
layer {
  name: "inception_3a/pool"
  type: "Pooling"
  bottom: "pool2/3x3_s2"
  top: "inception_3a/pool"
  pooling_param {
    pool: MAX
    kernel_size: 3
    stride: 1
    pad: 1
  }
}
layer {
  name: "inception_3a/pool_proj"
  type: "Convolution"
  bottom: "inception_3a/pool"
  top: "inception_3a/pool_proj"
  param {
    lr_mult: 1
    decay_mult: 1
  }
  param {
    lr_mult: 2
    decay_mult: 0
  }
  convolution_param {
    num_output: 32
    kernel_size: 1
    weight_filler {
      type: "xavier"
      std: 0.1
    }
    bias_filler {
      type: "constant"
      value: 0.2
    }
  }
}
layer {
  name: "inception_3a/relu_pool_proj"
  type: "ReLU"
  bottom: "inception_3a/pool_proj"
  top: "inception_3a/pool_proj"
}
layer {
  name: "inception_3a/output"
  type: "Concat"
  bottom: "inception_3a/1x1"
  bottom: "inception_3a/3x3"
  bottom: "inception_3a/5x5"
  bottom: "inception_3a/pool_proj"
  top: "inception_3a/output"
}
layer {
  name: "inception_3b/1x1"
  type: "Convolution"
  bottom: "inception_3a/output"
  top: "inception_3b/1x1"
  param {
    lr_mult: 1
    decay_mult: 1
  }
  param {
    lr_mult: 2
    decay_mult: 0
  }
  convolution_param {
    num_output: 128
    kernel_size: 1
    weight_filler {
      type: "xavier"
      std: 0.03
    }
    bias_filler {
      type: "constant"
      value: 0.2
    }
  }
}
layer {
  name: "inception_3b/relu_1x1"
  type: "ReLU"
  bottom: "inception_3b/1x1"
  top: "inception_3b/1x1"
}
layer {
  name: "inception_3b/3x3_reduce"
  type: "Convolution"
  bottom: "inception_3a/output"
  top: "inception_3b/3x3_reduce"
  param {
    lr_mult: 1
    decay_mult: 1
  }
  param {
    lr_mult: 2
    decay_mult: 0
  }
  convolution_param {
    num_output: 128
    kernel_size: 1
    weight_filler {
      type: "xavier"
      std: 0.09
    }
    bias_filler {
      type: "constant"
      value: 0.2
    }
  }
}
layer {
  name: "inception_3b/relu_3x3_reduce"
  type: "ReLU"
  bottom: "inception_3b/3x3_reduce"
  top: "inception_3b/3x3_reduce"
}
layer {
  name: "inception_3b/3x3"
  type: "Convolution"
  bottom: "inception_3b/3x3_reduce"
  top: "inception_3b/3x3"
  param {
    lr_mult: 1
    decay_mult: 1
  }
  param {
    lr_mult: 2
    decay_mult: 0
  }
  convolution_param {
    num_output: 192
    pad: 1
    kernel_size: 3
    weight_filler {
      type: "xavier"
      std: 0.03
    }
    bias_filler {
      type: "constant"
      value: 0.2
    }
  }
}
layer {
  name: "inception_3b/relu_3x3"
  type: "ReLU"
  bottom: "inception_3b/3x3"
  top: "inception_3b/3x3"
}
layer {
  name: "inception_3b/5x5_reduce"
  type: "Convolution"
  bottom: "inception_3a/output"
  top: "inception_3b/5x5_reduce"
  param {
    lr_mult: 1
    decay_mult: 1
  }
  param {
    lr_mult: 2
    decay_mult: 0
  }
  convolution_param {
    num_output: 32
    kernel_size: 1
    weight_filler {
      type: "xavier"
      std: 0.2
    }
    bias_filler {
      type: "constant"
      value: 0.2
    }
  }
}
layer {
  name: "inception_3b/relu_5x5_reduce"
  type: "ReLU"
  bottom: "inception_3b/5x5_reduce"
  top: "inception_3b/5x5_reduce"
}
layer {
  name: "inception_3b/5x5"
  type: "Convolution"
  bottom: "inception_3b/5x5_reduce"
  top: "inception_3b/5x5"
  param {
    lr_mult: 1
    decay_mult: 1
  }
  param {
    lr_mult: 2
    decay_mult: 0
  }
  convolution_param {
    num_output: 96
    pad: 2
    kernel_size: 5
    weight_filler {
      type: "xavier"
      std: 0.03
    }
    bias_filler {
      type: "constant"
      value: 0.2
    }
  }
}
layer {
  name: "inception_3b/relu_5x5"
  type: "ReLU"
  bottom: "inception_3b/5x5"
  top: "inception_3b/5x5"
}
layer {
  name: "inception_3b/pool"
  type: "Pooling"
  bottom: "inception_3a/output"
  top: "inception_3b/pool"
  pooling_param {
    pool: MAX
    kernel_size: 3
    stride: 1
    pad: 1
  }
}
layer {
  name: "inception_3b/pool_proj"
  type: "Convolution"
  bottom: "inception_3b/pool"
  top: "inception_3b/pool_proj"
  param {
    lr_mult: 1
    decay_mult: 1
  }
  param {
    lr_mult: 2
    decay_mult: 0
  }
  convolution_param {
    num_output: 64
    kernel_size: 1
    weight_filler {
      type: "xavier"
      std: 0.1
    }
    bias_filler {
      type: "constant"
      value: 0.2
    }
  }
}
layer {
  name: "inception_3b/relu_pool_proj"
  type: "ReLU"
  bottom: "inception_3b/pool_proj"
  top: "inception_3b/pool_proj"
}
layer {
  name: "inception_3b/output"
  type: "Concat"
  bottom: "inception_3b/1x1"
  bottom: "inception_3b/3x3"
  bottom: "inception_3b/5x5"
  bottom: "inception_3b/pool_proj"
  top: "inception_3b/output"
}
layer {
  name: "pool3/3x3_s2"
  type: "Pooling"
  bottom: "inception_3b/output"
  top: "pool3/3x3_s2"
  pooling_param {
    pool: MAX
    kernel_size: 3
    stride: 2
  }
}
layer {
  name: "inception_4a/1x1"
  type: "Convolution"
  bottom: "pool3/3x3_s2"
  top: "inception_4a/1x1"
  param {
    lr_mult: 1
    decay_mult: 1
  }
  param {
    lr_mult: 2
    decay_mult: 0
  }
  convolution_param {
    num_output: 192
    kernel_size: 1
    weight_filler {
      type: "xavier"
      std: 0.03
    }
    bias_filler {
      type: "constant"
      value: 0.2
    }
  }
}
layer {
  name: "inception_4a/relu_1x1"
  type: "ReLU"
  bottom: "inception_4a/1x1"
  top: "inception_4a/1x1"
}
layer {
  name: "inception_4a/3x3_reduce"
  type: "Convolution"
  bottom: "pool3/3x3_s2"
  top: "inception_4a/3x3_reduce"
  param {
    lr_mult: 1
    decay_mult: 1
  }
  param {
    lr_mult: 2
    decay_mult: 0
  }
  convolution_param {
    num_output: 96
    kernel_size: 1
    weight_filler {
      type: "xavier"
      std: 0.09
    }
    bias_filler {
      type: "constant"
      value: 0.2
    }
  }
}
layer {
  name: "inception_4a/relu_3x3_reduce"
  type: "ReLU"
  bottom: "inception_4a/3x3_reduce"
  top: "inception_4a/3x3_reduce"
}
layer {
  name: "inception_4a/3x3"
  type: "Convolution"
  bottom: "inception_4a/3x3_reduce"
  top: "inception_4a/3x3"
  param {
    lr_mult: 1
    decay_mult: 1
  }
  param {
    lr_mult: 2
    decay_mult: 0
  }
  convolution_param {
    num_output: 208
    pad: 1
    kernel_size: 3
    weight_filler {
      type: "xavier"
      std: 0.03
    }
    bias_filler {
      type: "constant"
      value: 0.2
    }
  }
}
layer {
  name: "inception_4a/relu_3x3"
  type: "ReLU"
  bottom: "inception_4a/3x3"
  top: "inception_4a/3x3"
}
layer {
  name: "inception_4a/5x5_reduce"
  type: "Convolution"
  bottom: "pool3/3x3_s2"
  top: "inception_4a/5x5_reduce"
  param {
    lr_mult: 1
    decay_mult: 1
  }
  param {
    lr_mult: 2
    decay_mult: 0
  }
  convolution_param {
    num_output: 16
    kernel_size: 1
    weight_filler {
      type: "xavier"
      std: 0.2
    }
    bias_filler {
      type: "constant"
      value: 0.2
    }
  }
}
layer {
  name: "inception_4a/relu_5x5_reduce"
  type: "ReLU"
  bottom: "inception_4a/5x5_reduce"
  top: "inception_4a/5x5_reduce"
}
layer {
  name: "inception_4a/5x5"
  type: "Convolution"
  bottom: "inception_4a/5x5_reduce"
  top: "inception_4a/5x5"
  param {
    lr_mult: 1
    decay_mult: 1
  }
  param {
    lr_mult: 2
    decay_mult: 0
  }
  convolution_param {
    num_output: 48
    pad: 2
    kernel_size: 5
    weight_filler {
      type: "xavier"
      std: 0.03
    }
    bias_filler {
      type: "constant"
      value: 0.2
    }
  }
}
layer {
  name: "inception_4a/relu_5x5"
  type: "ReLU"
  bottom: "inception_4a/5x5"
  top: "inception_4a/5x5"
}
layer {
  name: "inception_4a/pool"
  type: "Pooling"
  bottom: "pool3/3x3_s2"
  top: "inception_4a/pool"
  pooling_param {
    pool: MAX
    kernel_size: 3
    stride: 1
    pad: 1
  }
}
layer {
  name: "inception_4a/pool_proj"
  type: "Convolution"
  bottom: "inception_4a/pool"
  top: "inception_4a/pool_proj"
  param {
    lr_mult: 1
    decay_mult: 1
  }
  param {
    lr_mult: 2
    decay_mult: 0
  }
  convolution_param {
    num_output: 64
    kernel_size: 1
    weight_filler {
      type: "xavier"
      std: 0.1
    }
    bias_filler {
      type: "constant"
      value: 0.2
    }
  }
}
layer {
  name: "inception_4a/relu_pool_proj"
  type: "ReLU"
  bottom: "inception_4a/pool_proj"
  top: "inception_4a/pool_proj"
}
layer {
  name: "inception_4a/output"
  type: "Concat"
  bottom: "inception_4a/1x1"
  bottom: "inception_4a/3x3"
  bottom: "inception_4a/5x5"
  bottom: "inception_4a/pool_proj"
  top: "inception_4a/output"
}
layer {
  name: "loss1/ave_pool"
  type: "Pooling"
  bottom: "inception_4a/output"
  top: "loss1/ave_pool"
  pooling_param {
    pool: AVE
    kernel_size: 5
    stride: 3
  }
}
layer {
  name: "loss1/conv"
  type: "Convolution"
  bottom: "loss1/ave_pool"
  top: "loss1/conv"
  param {
    lr_mult: 1
    decay_mult: 1
  }
  param {
    lr_mult: 2
    decay_mult: 0
  }
  convolution_param {
    num_output: 128
    kernel_size: 1
    weight_filler {
      type: "xavier"
      std: 0.08
    }
    bias_filler {
      type: "constant"
      value: 0.2
    }
  }
}
layer {
  name: "loss1/relu_conv"
  type: "ReLU"
  bottom: "loss1/conv"
  top: "loss1/conv"
}
layer {
  name: "loss1/fc"
  type: "InnerProduct"
  bottom: "loss1/conv"
  top: "loss1/fc"
  param {
    lr_mult: 1
    decay_mult: 1
  }
  param {
    lr_mult: 2
    decay_mult: 0
  }
  inner_product_param {
    num_output: 1024
    weight_filler {
      type: "xavier"
      std: 0.02
    }
    bias_filler {
      type: "constant"
      value: 0.2
    }
  }
}
layer {
  name: "loss1/relu_fc"
  type: "ReLU"
  bottom: "loss1/fc"
  top: "loss1/fc"
}
layer {
  name: "loss1/drop_fc"
  type: "Dropout"
  bottom: "loss1/fc"
  top: "loss1/fc"
  dropout_param {
    dropout_ratio: 0.7
  }
}
layer {
  name: "loss1/classifier_plantvillage"
  type: "InnerProduct"
  bottom: "loss1/fc"
  top: "loss1/classifier_plantvillage"
  param {
    lr_mult: 1
    decay_mult: 1
  }
  param {
    lr_mult: 2
    decay_mult: 0
  }
  inner_product_param {
    num_output: 38
    weight_filler {
      type: "xavier"
      std: 0.0009765625
    }
    bias_filler {
      type: "constant"
      value: 0
    }
  }
}
layer {
  name: "inception_4b/1x1"
  type: "Convolution"
  bottom: "inception_4a/output"
  top: "inception_4b/1x1"
  param {
    lr_mult: 1
    decay_mult: 1
  }
  param {
    lr_mult: 2
    decay_mult: 0
  }
  convolution_param {
    num_output: 160
    kernel_size: 1
    weight_filler {
      type: "xavier"
      std: 0.03
    }
    bias_filler {
      type: "constant"
      value: 0.2
    }
  }
}
layer {
  name: "inception_4b/relu_1x1"
  type: "ReLU"
  bottom: "inception_4b/1x1"
  top: "inception_4b/1x1"
}
layer {
  name: "inception_4b/3x3_reduce"
  type: "Convolution"
  bottom: "inception_4a/output"
  top: "inception_4b/3x3_reduce"
  param {
    lr_mult: 1
    decay_mult: 1
  }
  param {
    lr_mult: 2
    decay_mult: 0
  }
  convolution_param {
    num_output: 112
    kernel_size: 1
    weight_filler {
      type: "xavier"
      std: 0.09
    }
    bias_filler {
      type: "constant"
      value: 0.2
    }
  }
}
layer {
  name: "inception_4b/relu_3x3_reduce"
  type: "ReLU"
  bottom: "inception_4b/3x3_reduce"
  top: "inception_4b/3x3_reduce"
}
layer {
  name: "inception_4b/3x3"
  type: "Convolution"
  bottom: "inception_4b/3x3_reduce"
  top: "inception_4b/3x3"
  param {
    lr_mult: 1
    decay_mult: 1
  }
  param {
    lr_mult: 2
    decay_mult: 0
  }
  convolution_param {
    num_output: 224
    pad: 1
    kernel_size: 3
    weight_filler {
      type: "xavier"
      std: 0.03
    }
    bias_filler {
      type: "constant"
      value: 0.2
    }
  }
}
layer {
  name: "inception_4b/relu_3x3"
  type: "ReLU"
  bottom: "inception_4b/3x3"
  top: "inception_4b/3x3"
}
layer {
  name: "inception_4b/5x5_reduce"
  type: "Convolution"
  bottom: "inception_4a/output"
  top: "inception_4b/5x5_reduce"
  param {
    lr_mult: 1
    decay_mult: 1
  }
  param {
    lr_mult: 2
    decay_mult: 0
  }
  convolution_param {
    num_output: 24
    kernel_size: 1
    weight_filler {
      type: "xavier"
      std: 0.2
    }
    bias_filler {
      type: "constant"
      value: 0.2
    }
  }
}
layer {
  name: "inception_4b/relu_5x5_reduce"
  type: "ReLU"
  bottom: "inception_4b/5x5_reduce"
  top: "inception_4b/5x5_reduce"
}
layer {
  name: "inception_4b/5x5"
  type: "Convolution"
  bottom: "inception_4b/5x5_reduce"
  top: "inception_4b/5x5"
  param {
    lr_mult: 1
    decay_mult: 1
  }
  param {
    lr_mult: 2
    decay_mult: 0
  }
  convolution_param {
    num_output: 64
    pad: 2
    kernel_size: 5
    weight_filler {
      type: "xavier"
      std: 0.03
    }
    bias_filler {
      type: "constant"
      value: 0.2
    }
  }
}
layer {
  name: "inception_4b/relu_5x5"
  type: "ReLU"
  bottom: "inception_4b/5x5"
  top: "inception_4b/5x5"
}
layer {
  name: "inception_4b/pool"
  type: "Pooling"
  bottom: "inception_4a/output"
  top: "inception_4b/pool"
  pooling_param {
    pool: MAX
    kernel_size: 3
    stride: 1
    pad: 1
  }
}
layer {
  name: "inception_4b/pool_proj"
  type: "Convolution"
  bottom: "inception_4b/pool"
  top: "inception_4b/pool_proj"
  param {
    lr_mult: 1
    decay_mult: 1
  }
  param {
    lr_mult: 2
    decay_mult: 0
  }
  convolution_param {
    num_output: 64
    kernel_size: 1
    weight_filler {
      type: "xavier"
      std: 0.1
    }
    bias_filler {
      type: "constant"
      value: 0.2
    }
  }
}
layer {
  name: "inception_4b/relu_pool_proj"
  type: "ReLU"
  bottom: "inception_4b/pool_proj"
  top: "inception_4b/pool_proj"
}
layer {
  name: "inception_4b/output"
  type: "Concat"
  bottom: "inception_4b/1x1"
  bottom: "inception_4b/3x3"
  bottom: "inception_4b/5x5"
  bottom: "inception_4b/pool_proj"
  top: "inception_4b/output"
}
layer {
  name: "inception_4c/1x1"
  type: "Convolution"
  bottom: "inception_4b/output"
  top: "inception_4c/1x1"
  param {
    lr_mult: 1
    decay_mult: 1
  }
  param {
    lr_mult: 2
    decay_mult: 0
  }
  convolution_param {
    num_output: 128
    kernel_size: 1
    weight_filler {
      type: "xavier"
      std: 0.03
    }
    bias_filler {
      type: "constant"
      value: 0.2
    }
  }
}
layer {
  name: "inception_4c/relu_1x1"
  type: "ReLU"
  bottom: "inception_4c/1x1"
  top: "inception_4c/1x1"
}
layer {
  name: "inception_4c/3x3_reduce"
  type: "Convolution"
  bottom: "inception_4b/output"
  top: "inception_4c/3x3_reduce"
  param {
    lr_mult: 1
    decay_mult: 1
  }
  param {
    lr_mult: 2
    decay_mult: 0
  }
  convolution_param {
    num_output: 128
    kernel_size: 1
    weight_filler {
      type: "xavier"
      std: 0.09
    }
    bias_filler {
      type: "constant"
      value: 0.2
    }
  }
}
layer {
  name: "inception_4c/relu_3x3_reduce"
  type: "ReLU"
  bottom: "inception_4c/3x3_reduce"
  top: "inception_4c/3x3_reduce"
}
layer {
  name: "inception_4c/3x3"
  type: "Convolution"
  bottom: "inception_4c/3x3_reduce"
  top: "inception_4c/3x3"
  param {
    lr_mult: 1
    decay_mult: 1
  }
  param {
    lr_mult: 2
    decay_mult: 0
  }
  convolution_param {
    num_output: 256
    pad: 1
    kernel_size: 3
    weight_filler {
      type: "xavier"
      std: 0.03
    }
    bias_filler {
      type: "constant"
      value: 0.2
    }
  }
}
layer {
  name: "inception_4c/relu_3x3"
  type: "ReLU"
  bottom: "inception_4c/3x3"
  top: "inception_4c/3x3"
}
layer {
  name: "inception_4c/5x5_reduce"
  type: "Convolution"
  bottom: "inception_4b/output"
  top: "inception_4c/5x5_reduce"
  param {
    lr_mult: 1
    decay_mult: 1
  }
  param {
    lr_mult: 2
    decay_mult: 0
  }
  convolution_param {
    num_output: 24
    kernel_size: 1
    weight_filler {
      type: "xavier"
      std: 0.2
    }
    bias_filler {
      type: "constant"
      value: 0.2
    }
  }
}
layer {
  name: "inception_4c/relu_5x5_reduce"
  type: "ReLU"
  bottom: "inception_4c/5x5_reduce"
  top: "inception_4c/5x5_reduce"
}
layer {
  name: "inception_4c/5x5"
  type: "Convolution"
  bottom: "inception_4c/5x5_reduce"
  top: "inception_4c/5x5"
  param {
    lr_mult: 1
    decay_mult: 1
  }
  param {
    lr_mult: 2
    decay_mult: 0
  }
  convolution_param {
    num_output: 64
    pad: 2
    kernel_size: 5
    weight_filler {
      type: "xavier"
      std: 0.03
    }
    bias_filler {
      type: "constant"
      value: 0.2
    }
  }
}
layer {
  name: "inception_4c/relu_5x5"
  type: "ReLU"
  bottom: "inception_4c/5x5"
  top: "inception_4c/5x5"
}
layer {
  name: "inception_4c/pool"
  type: "Pooling"
  bottom: "inception_4b/output"
  top: "inception_4c/pool"
  pooling_param {
    pool: MAX
    kernel_size: 3
    stride: 1
    pad: 1
  }
}
layer {
  name: "inception_4c/pool_proj"
  type: "Convolution"
  bottom: "inception_4c/pool"
  top: "inception_4c/pool_proj"
  param {
    lr_mult: 1
    decay_mult: 1
  }
  param {
    lr_mult: 2
    decay_mult: 0
  }
  convolution_param {
    num_output: 64
    kernel_size: 1
    weight_filler {
      type: "xavier"
      std: 0.1
    }
    bias_filler {
      type: "constant"
      value: 0.2
    }
  }
}
layer {
  name: "inception_4c/relu_pool_proj"
  type: "ReLU"
  bottom: "inception_4c/pool_proj"
  top: "inception_4c/pool_proj"
}
layer {
  name: "inception_4c/output"
  type: "Concat"
  bottom: "inception_4c/1x1"
  bottom: "inception_4c/3x3"
  bottom: "inception_4c/5x5"
  bottom: "inception_4c/pool_proj"
  top: "inception_4c/output"
}
layer {
  name: "inception_4d/1x1"
  type: "Convolution"
  bottom: "inception_4c/output"
  top: "inception_4d/1x1"
  param {
    lr_mult: 1
    decay_mult: 1
  }
  param {
    lr_mult: 2
    decay_mult: 0
  }
  convolution_param {
    num_output: 112
    kernel_size: 1
    weight_filler {
      type: "xavier"
      std: 0.03
    }
    bias_filler {
      type: "constant"
      value: 0.2
    }
  }
}
layer {
  name: "inception_4d/relu_1x1"
  type: "ReLU"
  bottom: "inception_4d/1x1"
  top: "inception_4d/1x1"
}
layer {
  name: "inception_4d/3x3_reduce"
  type: "Convolution"
  bottom: "inception_4c/output"
  top: "inception_4d/3x3_reduce"
  param {
    lr_mult: 1
    decay_mult: 1
  }
  param {
    lr_mult: 2
    decay_mult: 0
  }
  convolution_param {
    num_output: 144
    kernel_size: 1
    weight_filler {
      type: "xavier"
      std: 0.09
    }
    bias_filler {
      type: "constant"
      value: 0.2
    }
  }
}
layer {
  name: "inception_4d/relu_3x3_reduce"
  type: "ReLU"
  bottom: "inception_4d/3x3_reduce"
  top: "inception_4d/3x3_reduce"
}
layer {
  name: "inception_4d/3x3"
  type: "Convolution"
  bottom: "inception_4d/3x3_reduce"
  top: "inception_4d/3x3"
  param {
    lr_mult: 1
    decay_mult: 1
  }
  param {
    lr_mult: 2
    decay_mult: 0
  }
  convolution_param {
    num_output: 288
    pad: 1
    kernel_size: 3
    weight_filler {
      type: "xavier"
      std: 0.03
    }
    bias_filler {
      type: "constant"
      value: 0.2
    }
  }
}
layer {
  name: "inception_4d/relu_3x3"
  type: "ReLU"
  bottom: "inception_4d/3x3"
  top: "inception_4d/3x3"
}
layer {
  name: "inception_4d/5x5_reduce"
  type: "Convolution"
  bottom: "inception_4c/output"
  top: "inception_4d/5x5_reduce"
  param {
    lr_mult: 1
    decay_mult: 1
  }
  param {
    lr_mult: 2
    decay_mult: 0
  }
  convolution_param {
    num_output: 32
    kernel_size: 1
    weight_filler {
      type: "xavier"
      std: 0.2
    }
    bias_filler {
      type: "constant"
      value: 0.2
    }
  }
}
layer {
  name: "inception_4d/relu_5x5_reduce"
  type: "ReLU"
  bottom: "inception_4d/5x5_reduce"
  top: "inception_4d/5x5_reduce"
}
layer {
  name: "inception_4d/5x5"
  type: "Convolution"
  bottom: "inception_4d/5x5_reduce"
  top: "inception_4d/5x5"
  param {
    lr_mult: 1
    decay_mult: 1
  }
  param {
    lr_mult: 2
    decay_mult: 0
  }
  convolution_param {
    num_output: 64
    pad: 2
    kernel_size: 5
    weight_filler {
      type: "xavier"
      std: 0.03
    }
    bias_filler {
      type: "constant"
      value: 0.2
    }
  }
}
layer {
  name: "inception_4d/relu_5x5"
  type: "ReLU"
  bottom: "inception_4d/5x5"
  top: "inception_4d/5x5"
}
layer {
  name: "inception_4d/pool"
  type: "Pooling"
  bottom: "inception_4c/output"
  top: "inception_4d/pool"
  pooling_param {
    pool: MAX
    kernel_size: 3
    stride: 1
    pad: 1
  }
}
layer {
  name: "inception_4d/pool_proj"
  type: "Convolution"
  bottom: "inception_4d/pool"
  top: "inception_4d/pool_proj"
  param {
    lr_mult: 1
    decay_mult: 1
  }
  param {
    lr_mult: 2
    decay_mult: 0
  }
  convolution_param {
    num_output: 64
    kernel_size: 1
    weight_filler {
      type: "xavier"
      std: 0.1
    }
    bias_filler {
      type: "constant"
      value: 0.2
    }
  }
}
layer {
  name: "inception_4d/relu_pool_proj"
  type: "ReLU"
  bottom: "inception_4d/pool_proj"
  top: "inception_4d/pool_proj"
}
layer {
  name: "inception_4d/output"
  type: "Concat"
  bottom: "inception_4d/1x1"
  bottom: "inception_4d/3x3"
  bottom: "inception_4d/5x5"
  bottom: "inception_4d/pool_proj"
  top: "inception_4d/output"
}
layer {
  name: "loss2/ave_pool"
  type: "Pooling"
  bottom: "inception_4d/output"
  top: "loss2/ave_pool"
  pooling_param {
    pool: AVE
    kernel_size: 5
    stride: 3
  }
}
layer {
  name: "loss2/conv"
  type: "Convolution"
  bottom: "loss2/ave_pool"
  top: "loss2/conv"
  param {
    lr_mult: 1
    decay_mult: 1
  }
  param {
    lr_mult: 2
    decay_mult: 0
  }
  convolution_param {
    num_output: 128
    kernel_size: 1
    weight_filler {
      type: "xavier"
      std: 0.08
    }
    bias_filler {
      type: "constant"
      value: 0.2
    }
  }
}
layer {
  name: "loss2/relu_conv"
  type: "ReLU"
  bottom: "loss2/conv"
  top: "loss2/conv"
}
layer {
  name: "loss2/fc"
  type: "InnerProduct"
  bottom: "loss2/conv"
  top: "loss2/fc"
  param {
    lr_mult: 1
    decay_mult: 1
  }
  param {
    lr_mult: 2
    decay_mult: 0
  }
  inner_product_param {
    num_output: 1024
    weight_filler {
      type: "xavier"
      std: 0.02
    }
    bias_filler {
      type: "constant"
      value: 0.2
    }
  }
}
layer {
  name: "loss2/relu_fc"
  type: "ReLU"
  bottom: "loss2/fc"
  top: "loss2/fc"
}
layer {
  name: "loss2/drop_fc"
  type: "Dropout"
  bottom: "loss2/fc"
  top: "loss2/fc"
  dropout_param {
    dropout_ratio: 0.7
  }
}
layer {
  name: "loss2/classifier_plantvillage"
  type: "InnerProduct"
  bottom: "loss2/fc"
  top: "loss2/classifier_plantvillage"
  param {
    lr_mult: 1
    decay_mult: 1
  }
  param {
    lr_mult: 2
    decay_mult: 0
  }
  inner_product_param {
    num_output: 38
    weight_filler {
      type: "xavier"
      std: 0.0009765625
    }
    bias_filler {
      type: "constant"
      value: 0
    }
  }
}
layer {
  name: "inception_4e/1x1"
  type: "Convolution"
  bottom: "inception_4d/output"
  top: "inception_4e/1x1"
  param {
    lr_mult: 1
    decay_mult: 1
  }
  param {
    lr_mult: 2
    decay_mult: 0
  }
  convolution_param {
    num_output: 256
    kernel_size: 1
    weight_filler {
      type: "xavier"
      std: 0.03
    }
    bias_filler {
      type: "constant"
      value: 0.2
    }
  }
}
layer {
  name: "inception_4e/relu_1x1"
  type: "ReLU"
  bottom: "inception_4e/1x1"
  top: "inception_4e/1x1"
}
layer {
  name: "inception_4e/3x3_reduce"
  type: "Convolution"
  bottom: "inception_4d/output"
  top: "inception_4e/3x3_reduce"
  param {
    lr_mult: 1
    decay_mult: 1
  }
  param {
    lr_mult: 2
    decay_mult: 0
  }
  convolution_param {
    num_output: 160
    kernel_size: 1
    weight_filler {
      type: "xavier"
      std: 0.09
    }
    bias_filler {
      type: "constant"
      value: 0.2
    }
  }
}
layer {
  name: "inception_4e/relu_3x3_reduce"
  type: "ReLU"
  bottom: "inception_4e/3x3_reduce"
  top: "inception_4e/3x3_reduce"
}
layer {
  name: "inception_4e/3x3"
  type: "Convolution"
  bottom: "inception_4e/3x3_reduce"
  top: "inception_4e/3x3"
  param {
    lr_mult: 1
    decay_mult: 1
  }
  param {
    lr_mult: 2
    decay_mult: 0
  }
  convolution_param {
    num_output: 320
    pad: 1
    kernel_size: 3
    weight_filler {
      type: "xavier"
      std: 0.03
    }
    bias_filler {
      type: "constant"
      value: 0.2
    }
  }
}
layer {
  name: "inception_4e/relu_3x3"
  type: "ReLU"
  bottom: "inception_4e/3x3"
  top: "inception_4e/3x3"
}
layer {
  name: "inception_4e/5x5_reduce"
  type: "Convolution"
  bottom: "inception_4d/output"
  top: "inception_4e/5x5_reduce"
  param {
    lr_mult: 1
    decay_mult: 1
  }
  param {
    lr_mult: 2
    decay_mult: 0
  }
  convolution_param {
    num_output: 32
    kernel_size: 1
    weight_filler {
      type: "xavier"
      std: 0.2
    }
    bias_filler {
      type: "constant"
      value: 0.2
    }
  }
}
layer {
  name: "inception_4e/relu_5x5_reduce"
  type: "ReLU"
  bottom: "inception_4e/5x5_reduce"
  top: "inception_4e/5x5_reduce"
}
layer {
  name: "inception_4e/5x5"
  type: "Convolution"
  bottom: "inception_4e/5x5_reduce"
  top: "inception_4e/5x5"
  p
I0403 15:43:53.622264 15994 layer_factory.hpp:77] Creating layer data
I0403 15:43:53.622877 15994 net.cpp:91] Creating Layer data
I0403 15:43:53.622910 15994 net.cpp:399] data -> data
I0403 15:43:53.622961 15994 net.cpp:399] data -> label
I0403 15:43:53.622997 15994 data_transformer.cpp:25] Loading mean file from: /home/mohanty/data/final_dataset/lmdb/color-50-50/mean.binaryproto
I0403 15:43:53.625869 15998 db_lmdb.cpp:38] Opened lmdb /home/mohanty/data/final_dataset/lmdb/color-50-50/test_db
I0403 15:43:53.636380 15994 data_layer.cpp:41] output data size: 24,3,224,224
I0403 15:43:53.663264 15994 net.cpp:141] Setting up data
I0403 15:43:53.663343 15994 net.cpp:148] Top shape: 24 3 224 224 (3612672)
I0403 15:43:53.663367 15994 net.cpp:148] Top shape: 24 (24)
I0403 15:43:53.663383 15994 net.cpp:156] Memory required for data: 14450784
I0403 15:43:53.663411 15994 layer_factory.hpp:77] Creating layer label_data_1_split
I0403 15:43:53.663437 15994 net.cpp:91] Creating Layer label_data_1_split
I0403 15:43:53.663455 15994 net.cpp:425] label_data_1_split <- label
I0403 15:43:53.663487 15994 net.cpp:399] label_data_1_split -> label_data_1_split_0
I0403 15:43:53.663516 15994 net.cpp:399] label_data_1_split -> label_data_1_split_1
I0403 15:43:53.663540 15994 net.cpp:399] label_data_1_split -> label_data_1_split_2
I0403 15:43:53.663563 15994 net.cpp:399] label_data_1_split -> label_data_1_split_3
I0403 15:43:53.663583 15994 net.cpp:399] label_data_1_split -> label_data_1_split_4
I0403 15:43:53.663604 15994 net.cpp:399] label_data_1_split -> label_data_1_split_5
I0403 15:43:53.663625 15994 net.cpp:399] label_data_1_split -> label_data_1_split_6
I0403 15:43:53.663645 15994 net.cpp:399] label_data_1_split -> label_data_1_split_7
I0403 15:43:53.663667 15994 net.cpp:399] label_data_1_split -> label_data_1_split_8
I0403 15:43:53.663687 15994 net.cpp:399] label_data_1_split -> label_data_1_split_9
I0403 15:43:53.663797 15994 net.cpp:141] Setting up label_data_1_split
I0403 15:43:53.663822 15994 net.cpp:148] Top shape: 24 (24)
I0403 15:43:53.663841 15994 net.cpp:148] Top shape: 24 (24)
I0403 15:43:53.663856 15994 net.cpp:148] Top shape: 24 (24)
I0403 15:43:53.663871 15994 net.cpp:148] Top shape: 24 (24)
I0403 15:43:53.663887 15994 net.cpp:148] Top shape: 24 (24)
I0403 15:43:53.663900 15994 net.cpp:148] Top shape: 24 (24)
I0403 15:43:53.663916 15994 net.cpp:148] Top shape: 24 (24)
I0403 15:43:53.663931 15994 net.cpp:148] Top shape: 24 (24)
I0403 15:43:53.663947 15994 net.cpp:148] Top shape: 24 (24)
I0403 15:43:53.663962 15994 net.cpp:148] Top shape: 24 (24)
I0403 15:43:53.664016 15994 net.cpp:156] Memory required for data: 14451744
I0403 15:43:53.664032 15994 layer_factory.hpp:77] Creating layer conv1/7x7_s2
I0403 15:43:53.664063 15994 net.cpp:91] Creating Layer conv1/7x7_s2
I0403 15:43:53.664083 15994 net.cpp:425] conv1/7x7_s2 <- data
I0403 15:43:53.664103 15994 net.cpp:399] conv1/7x7_s2 -> conv1/7x7_s2
I0403 15:43:53.805840 15994 net.cpp:141] Setting up conv1/7x7_s2
I0403 15:43:53.805915 15994 net.cpp:148] Top shape: 24 64 112 112 (19267584)
I0403 15:43:53.805932 15994 net.cpp:156] Memory required for data: 91522080
I0403 15:43:53.805963 15994 layer_factory.hpp:77] Creating layer conv1/relu_7x7
I0403 15:43:53.805989 15994 net.cpp:91] Creating Layer conv1/relu_7x7
I0403 15:43:53.806007 15994 net.cpp:425] conv1/relu_7x7 <- conv1/7x7_s2
I0403 15:43:53.806025 15994 net.cpp:386] conv1/relu_7x7 -> conv1/7x7_s2 (in-place)
I0403 15:43:53.806279 15994 net.cpp:141] Setting up conv1/relu_7x7
I0403 15:43:53.806306 15994 net.cpp:148] Top shape: 24 64 112 112 (19267584)
I0403 15:43:53.806323 15994 net.cpp:156] Memory required for data: 168592416
I0403 15:43:53.806337 15994 layer_factory.hpp:77] Creating layer pool1/3x3_s2
I0403 15:43:53.806361 15994 net.cpp:91] Creating Layer pool1/3x3_s2
I0403 15:43:53.806380 15994 net.cpp:425] pool1/3x3_s2 <- conv1/7x7_s2
I0403 15:43:53.806397 15994 net.cpp:399] pool1/3x3_s2 -> pool1/3x3_s2
I0403 15:43:53.806470 15994 net.cpp:141] Setting up pool1/3x3_s2
I0403 15:43:53.806495 15994 net.cpp:148] Top shape: 24 64 56 56 (4816896)
I0403 15:43:53.806510 15994 net.cpp:156] Memory required for data: 187860000
I0403 15:43:53.806524 15994 layer_factory.hpp:77] Creating layer pool1/norm1
I0403 15:43:53.806555 15994 net.cpp:91] Creating Layer pool1/norm1
I0403 15:43:53.806572 15994 net.cpp:425] pool1/norm1 <- pool1/3x3_s2
I0403 15:43:53.806589 15994 net.cpp:399] pool1/norm1 -> pool1/norm1
I0403 15:43:53.806871 15994 net.cpp:141] Setting up pool1/norm1
I0403 15:43:53.806900 15994 net.cpp:148] Top shape: 24 64 56 56 (4816896)
I0403 15:43:53.806915 15994 net.cpp:156] Memory required for data: 207127584
I0403 15:43:53.806929 15994 layer_factory.hpp:77] Creating layer conv2/3x3_reduce
I0403 15:43:53.806953 15994 net.cpp:91] Creating Layer conv2/3x3_reduce
I0403 15:43:53.806970 15994 net.cpp:425] conv2/3x3_reduce <- pool1/norm1
I0403 15:43:53.806988 15994 net.cpp:399] conv2/3x3_reduce -> conv2/3x3_reduce
I0403 15:43:53.808418 15994 net.cpp:141] Setting up conv2/3x3_reduce
I0403 15:43:53.808450 15994 net.cpp:148] Top shape: 24 64 56 56 (4816896)
I0403 15:43:53.808470 15994 net.cpp:156] Memory required for data: 226395168
I0403 15:43:53.808491 15994 layer_factory.hpp:77] Creating layer conv2/relu_3x3_reduce
I0403 15:43:53.808509 15994 net.cpp:91] Creating Layer conv2/relu_3x3_reduce
I0403 15:43:53.808526 15994 net.cpp:425] conv2/relu_3x3_reduce <- conv2/3x3_reduce
I0403 15:43:53.808550 15994 net.cpp:386] conv2/relu_3x3_reduce -> conv2/3x3_reduce (in-place)
I0403 15:43:53.808823 15994 net.cpp:141] Setting up conv2/relu_3x3_reduce
I0403 15:43:53.808854 15994 net.cpp:148] Top shape: 24 64 56 56 (4816896)
I0403 15:43:53.808871 15994 net.cpp:156] Memory required for data: 245662752
I0403 15:43:53.808887 15994 layer_factory.hpp:77] Creating layer conv2/3x3
I0403 15:43:53.808910 15994 net.cpp:91] Creating Layer conv2/3x3
I0403 15:43:53.808928 15994 net.cpp:425] conv2/3x3 <- conv2/3x3_reduce
I0403 15:43:53.808948 15994 net.cpp:399] conv2/3x3 -> conv2/3x3
I0403 15:43:53.811384 15994 net.cpp:141] Setting up conv2/3x3
I0403 15:43:53.811419 15994 net.cpp:148] Top shape: 24 192 56 56 (14450688)
I0403 15:43:53.811436 15994 net.cpp:156] Memory required for data: 303465504
I0403 15:43:53.811458 15994 layer_factory.hpp:77] Creating layer conv2/relu_3x3
I0403 15:43:53.811478 15994 net.cpp:91] Creating Layer conv2/relu_3x3
I0403 15:43:53.811496 15994 net.cpp:425] conv2/relu_3x3 <- conv2/3x3
I0403 15:43:53.811514 15994 net.cpp:386] conv2/relu_3x3 -> conv2/3x3 (in-place)
I0403 15:43:53.811699 15994 net.cpp:141] Setting up conv2/relu_3x3
I0403 15:43:53.811728 15994 net.cpp:148] Top shape: 24 192 56 56 (14450688)
I0403 15:43:53.811774 15994 net.cpp:156] Memory required for data: 361268256
I0403 15:43:53.811791 15994 layer_factory.hpp:77] Creating layer conv2/norm2
I0403 15:43:53.811815 15994 net.cpp:91] Creating Layer conv2/norm2
I0403 15:43:53.811832 15994 net.cpp:425] conv2/norm2 <- conv2/3x3
I0403 15:43:53.811851 15994 net.cpp:399] conv2/norm2 -> conv2/norm2
I0403 15:43:53.812160 15994 net.cpp:141] Setting up conv2/norm2
I0403 15:43:53.812188 15994 net.cpp:148] Top shape: 24 192 56 56 (14450688)
I0403 15:43:53.812204 15994 net.cpp:156] Memory required for data: 419071008
I0403 15:43:53.812219 15994 layer_factory.hpp:77] Creating layer pool2/3x3_s2
I0403 15:43:53.812239 15994 net.cpp:91] Creating Layer pool2/3x3_s2
I0403 15:43:53.812258 15994 net.cpp:425] pool2/3x3_s2 <- conv2/norm2
I0403 15:43:53.812278 15994 net.cpp:399] pool2/3x3_s2 -> pool2/3x3_s2
I0403 15:43:53.812331 15994 net.cpp:141] Setting up pool2/3x3_s2
I0403 15:43:53.812355 15994 net.cpp:148] Top shape: 24 192 28 28 (3612672)
I0403 15:43:53.812371 15994 net.cpp:156] Memory required for data: 433521696
I0403 15:43:53.812386 15994 layer_factory.hpp:77] Creating layer pool2/3x3_s2_pool2/3x3_s2_0_split
I0403 15:43:53.812405 15994 net.cpp:91] Creating Layer pool2/3x3_s2_pool2/3x3_s2_0_split
I0403 15:43:53.812422 15994 net.cpp:425] pool2/3x3_s2_pool2/3x3_s2_0_split <- pool2/3x3_s2
I0403 15:43:53.812439 15994 net.cpp:399] pool2/3x3_s2_pool2/3x3_s2_0_split -> pool2/3x3_s2_pool2/3x3_s2_0_split_0
I0403 15:43:53.812458 15994 net.cpp:399] pool2/3x3_s2_pool2/3x3_s2_0_split -> pool2/3x3_s2_pool2/3x3_s2_0_split_1
I0403 15:43:53.812477 15994 net.cpp:399] pool2/3x3_s2_pool2/3x3_s2_0_split -> pool2/3x3_s2_pool2/3x3_s2_0_split_2
I0403 15:43:53.812497 15994 net.cpp:399] pool2/3x3_s2_pool2/3x3_s2_0_split -> pool2/3x3_s2_pool2/3x3_s2_0_split_3
I0403 15:43:53.812572 15994 net.cpp:141] Setting up pool2/3x3_s2_pool2/3x3_s2_0_split
I0403 15:43:53.812594 15994 net.cpp:148] Top shape: 24 192 28 28 (3612672)
I0403 15:43:53.812610 15994 net.cpp:148] Top shape: 24 192 28 28 (3612672)
I0403 15:43:53.812625 15994 net.cpp:148] Top shape: 24 192 28 28 (3612672)
I0403 15:43:53.812641 15994 net.cpp:148] Top shape: 24 192 28 28 (3612672)
I0403 15:43:53.812654 15994 net.cpp:156] Memory required for data: 491324448
I0403 15:43:53.812669 15994 layer_factory.hpp:77] Creating layer inception_3a/1x1
I0403 15:43:53.812690 15994 net.cpp:91] Creating Layer inception_3a/1x1
I0403 15:43:53.812707 15994 net.cpp:425] inception_3a/1x1 <- pool2/3x3_s2_pool2/3x3_s2_0_split_0
I0403 15:43:53.812727 15994 net.cpp:399] inception_3a/1x1 -> inception_3a/1x1
I0403 15:43:53.814230 15994 net.cpp:141] Setting up inception_3a/1x1
I0403 15:43:53.814262 15994 net.cpp:148] Top shape: 24 64 28 28 (1204224)
I0403 15:43:53.814280 15994 net.cpp:156] Memory required for data: 496141344
I0403 15:43:53.814296 15994 layer_factory.hpp:77] Creating layer inception_3a/relu_1x1
I0403 15:43:53.814314 15994 net.cpp:91] Creating Layer inception_3a/relu_1x1
I0403 15:43:53.814328 15994 net.cpp:425] inception_3a/relu_1x1 <- inception_3a/1x1
I0403 15:43:53.814347 15994 net.cpp:386] inception_3a/relu_1x1 -> inception_3a/1x1 (in-place)
I0403 15:43:53.814512 15994 net.cpp:141] Setting up inception_3a/relu_1x1
I0403 15:43:53.814546 15994 net.cpp:148] Top shape: 24 64 28 28 (1204224)
I0403 15:43:53.814563 15994 net.cpp:156] Memory required for data: 500958240
I0403 15:43:53.814577 15994 layer_factory.hpp:77] Creating layer inception_3a/3x3_reduce
I0403 15:43:53.814599 15994 net.cpp:91] Creating Layer inception_3a/3x3_reduce
I0403 15:43:53.814615 15994 net.cpp:425] inception_3a/3x3_reduce <- pool2/3x3_s2_pool2/3x3_s2_0_split_1
I0403 15:43:53.814635 15994 net.cpp:399] inception_3a/3x3_reduce -> inception_3a/3x3_reduce
I0403 15:43:53.816278 15994 net.cpp:141] Setting up inception_3a/3x3_reduce
I0403 15:43:53.816309 15994 net.cpp:148] Top shape: 24 96 28 28 (1806336)
I0403 15:43:53.816326 15994 net.cpp:156] Memory required for data: 508183584
I0403 15:43:53.816347 15994 layer_factory.hpp:77] Creating layer inception_3a/relu_3x3_reduce
I0403 15:43:53.816383 15994 net.cpp:91] Creating Layer inception_3a/relu_3x3_reduce
I0403 15:43:53.816401 15994 net.cpp:425] inception_3a/relu_3x3_reduce <- inception_3a/3x3_reduce
I0403 15:43:53.816416 15994 net.cpp:386] inception_3a/relu_3x3_reduce -> inception_3a/3x3_reduce (in-place)
I0403 15:43:53.816597 15994 net.cpp:141] Setting up inception_3a/relu_3x3_reduce
I0403 15:43:53.816622 15994 net.cpp:148] Top shape: 24 96 28 28 (1806336)
I0403 15:43:53.816635 15994 net.cpp:156] Memory required for data: 515408928
I0403 15:43:53.816649 15994 layer_factory.hpp:77] Creating layer inception_3a/3x3
I0403 15:43:53.816673 15994 net.cpp:91] Creating Layer inception_3a/3x3
I0403 15:43:53.816689 15994 net.cpp:425] inception_3a/3x3 <- inception_3a/3x3_reduce
I0403 15:43:53.816706 15994 net.cpp:399] inception_3a/3x3 -> inception_3a/3x3
I0403 15:43:53.818274 15994 net.cpp:141] Setting up inception_3a/3x3
I0403 15:43:53.818302 15994 net.cpp:148] Top shape: 24 128 28 28 (2408448)
I0403 15:43:53.818320 15994 net.cpp:156] Memory required for data: 525042720
I0403 15:43:53.818337 15994 layer_factory.hpp:77] Creating layer inception_3a/relu_3x3
I0403 15:43:53.818356 15994 net.cpp:91] Creating Layer inception_3a/relu_3x3
I0403 15:43:53.818372 15994 net.cpp:425] inception_3a/relu_3x3 <- inception_3a/3x3
I0403 15:43:53.818392 15994 net.cpp:386] inception_3a/relu_3x3 -> inception_3a/3x3 (in-place)
I0403 15:43:53.818655 15994 net.cpp:141] Setting up inception_3a/relu_3x3
I0403 15:43:53.818682 15994 net.cpp:148] Top shape: 24 128 28 28 (2408448)
I0403 15:43:53.818697 15994 net.cpp:156] Memory required for data: 534676512
I0403 15:43:53.818711 15994 layer_factory.hpp:77] Creating layer inception_3a/5x5_reduce
I0403 15:43:53.818733 15994 net.cpp:91] Creating Layer inception_3a/5x5_reduce
I0403 15:43:53.818753 15994 net.cpp:425] inception_3a/5x5_reduce <- pool2/3x3_s2_pool2/3x3_s2_0_split_2
I0403 15:43:53.818773 15994 net.cpp:399] inception_3a/5x5_reduce -> inception_3a/5x5_reduce
I0403 15:43:53.819686 15994 net.cpp:141] Setting up inception_3a/5x5_reduce
I0403 15:43:53.819715 15994 net.cpp:148] Top shape: 24 16 28 28 (301056)
I0403 15:43:53.819730 15994 net.cpp:156] Memory required for data: 535880736
I0403 15:43:53.819746 15994 layer_factory.hpp:77] Creating layer inception_3a/relu_5x5_reduce
I0403 15:43:53.819762 15994 net.cpp:91] Creating Layer inception_3a/relu_5x5_reduce
I0403 15:43:53.819777 15994 net.cpp:425] inception_3a/relu_5x5_reduce <- inception_3a/5x5_reduce
I0403 15:43:53.819797 15994 net.cpp:386] inception_3a/relu_5x5_reduce -> inception_3a/5x5_reduce (in-place)
I0403 15:43:53.820083 15994 net.cpp:141] Setting up inception_3a/relu_5x5_reduce
I0403 15:43:53.820108 15994 net.cpp:148] Top shape: 24 16 28 28 (301056)
I0403 15:43:53.820122 15994 net.cpp:156] Memory required for data: 537084960
I0403 15:43:53.820137 15994 layer_factory.hpp:77] Creating layer inception_3a/5x5
I0403 15:43:53.820158 15994 net.cpp:91] Creating Layer inception_3a/5x5
I0403 15:43:53.820174 15994 net.cpp:425] inception_3a/5x5 <- inception_3a/5x5_reduce
I0403 15:43:53.820194 15994 net.cpp:399] inception_3a/5x5 -> inception_3a/5x5
I0403 15:43:53.821161 15994 net.cpp:141] Setting up inception_3a/5x5
I0403 15:43:53.821187 15994 net.cpp:148] Top shape: 24 32 28 28 (602112)
I0403 15:43:53.821200 15994 net.cpp:156] Memory required for data: 539493408
I0403 15:43:53.821218 15994 layer_factory.hpp:77] Creating layer inception_3a/relu_5x5
I0403 15:43:53.821235 15994 net.cpp:91] Creating Layer inception_3a/relu_5x5
I0403 15:43:53.821250 15994 net.cpp:425] inception_3a/relu_5x5 <- inception_3a/5x5
I0403 15:43:53.821271 15994 net.cpp:386] inception_3a/relu_5x5 -> inception_3a/5x5 (in-place)
I0403 15:43:53.821435 15994 net.cpp:141] Setting up inception_3a/relu_5x5
I0403 15:43:53.821458 15994 net.cpp:148] Top shape: 24 32 28 28 (602112)
I0403 15:43:53.821472 15994 net.cpp:156] Memory required for data: 541901856
I0403 15:43:53.821486 15994 layer_factory.hpp:77] Creating layer inception_3a/pool
I0403 15:43:53.821506 15994 net.cpp:91] Creating Layer inception_3a/pool
I0403 15:43:53.821521 15994 net.cpp:425] inception_3a/pool <- pool2/3x3_s2_pool2/3x3_s2_0_split_3
I0403 15:43:53.821557 15994 net.cpp:399] inception_3a/pool -> inception_3a/pool
I0403 15:43:53.821615 15994 net.cpp:141] Setting up inception_3a/pool
I0403 15:43:53.821637 15994 net.cpp:148] Top shape: 24 192 28 28 (3612672)
I0403 15:43:53.821651 15994 net.cpp:156] Memory required for data: 556352544
I0403 15:43:53.821665 15994 layer_factory.hpp:77] Creating layer inception_3a/pool_proj
I0403 15:43:53.821686 15994 net.cpp:91] Creating Layer inception_3a/pool_proj
I0403 15:43:53.821703 15994 net.cpp:425] inception_3a/pool_proj <- inception_3a/pool
I0403 15:43:53.821722 15994 net.cpp:399] inception_3a/pool_proj -> inception_3a/pool_proj
I0403 15:43:53.822643 15994 net.cpp:141] Setting up inception_3a/pool_proj
I0403 15:43:53.822674 15994 net.cpp:148] Top shape: 24 32 28 28 (602112)
I0403 15:43:53.822690 15994 net.cpp:156] Memory required for data: 558760992
I0403 15:43:53.822711 15994 layer_factory.hpp:77] Creating layer inception_3a/relu_pool_proj
I0403 15:43:53.822729 15994 net.cpp:91] Creating Layer inception_3a/relu_pool_proj
I0403 15:43:53.822744 15994 net.cpp:425] inception_3a/relu_pool_proj <- inception_3a/pool_proj
I0403 15:43:53.822763 15994 net.cpp:386] inception_3a/relu_pool_proj -> inception_3a/pool_proj (in-place)
I0403 15:43:53.823050 15994 net.cpp:141] Setting up inception_3a/relu_pool_proj
I0403 15:43:53.823076 15994 net.cpp:148] Top shape: 24 32 28 28 (602112)
I0403 15:43:53.823091 15994 net.cpp:156] Memory required for data: 561169440
I0403 15:43:53.823104 15994 layer_factory.hpp:77] Creating layer inception_3a/output
I0403 15:43:53.823122 15994 net.cpp:91] Creating Layer inception_3a/output
I0403 15:43:53.823137 15994 net.cpp:425] inception_3a/output <- inception_3a/1x1
I0403 15:43:53.823153 15994 net.cpp:425] inception_3a/output <- inception_3a/3x3
I0403 15:43:53.823168 15994 net.cpp:425] inception_3a/output <- inception_3a/5x5
I0403 15:43:53.823184 15994 net.cpp:425] inception_3a/output <- inception_3a/pool_proj
I0403 15:43:53.823202 15994 net.cpp:399] inception_3a/output -> inception_3a/output
I0403 15:43:53.823247 15994 net.cpp:141] Setting up inception_3a/output
I0403 15:43:53.823284 15994 net.cpp:148] Top shape: 24 256 28 28 (4816896)
I0403 15:43:53.823299 15994 net.cpp:156] Memory required for data: 580437024
I0403 15:43:53.823312 15994 layer_factory.hpp:77] Creating layer inception_3a/output_inception_3a/output_0_split
I0403 15:43:53.823328 15994 net.cpp:91] Creating Layer inception_3a/output_inception_3a/output_0_split
I0403 15:43:53.823343 15994 net.cpp:425] inception_3a/output_inception_3a/output_0_split <- inception_3a/output
I0403 15:43:53.823359 15994 net.cpp:399] inception_3a/output_inception_3a/output_0_split -> inception_3a/output_inception_3a/output_0_split_0
I0403 15:43:53.823379 15994 net.cpp:399] inception_3a/output_inception_3a/output_0_split -> inception_3a/output_inception_3a/output_0_split_1
I0403 15:43:53.823401 15994 net.cpp:399] inception_3a/output_inception_3a/output_0_split -> inception_3a/output_inception_3a/output_0_split_2
I0403 15:43:53.823422 15994 net.cpp:399] inception_3a/output_inception_3a/output_0_split -> inception_3a/output_inception_3a/output_0_split_3
I0403 15:43:53.823493 15994 net.cpp:141] Setting up inception_3a/output_inception_3a/output_0_split
I0403 15:43:53.823518 15994 net.cpp:148] Top shape: 24 256 28 28 (4816896)
I0403 15:43:53.823534 15994 net.cpp:148] Top shape: 24 256 28 28 (4816896)
I0403 15:43:53.823554 15994 net.cpp:148] Top shape: 24 256 28 28 (4816896)
I0403 15:43:53.823570 15994 net.cpp:148] Top shape: 24 256 28 28 (4816896)
I0403 15:43:53.823581 15994 net.cpp:156] Memory required for data: 657507360
I0403 15:43:53.823596 15994 layer_factory.hpp:77] Creating layer inception_3b/1x1
I0403 15:43:53.823616 15994 net.cpp:91] Creating Layer inception_3b/1x1
I0403 15:43:53.823632 15994 net.cpp:425] inception_3b/1x1 <- inception_3a/output_inception_3a/output_0_split_0
I0403 15:43:53.823649 15994 net.cpp:399] inception_3b/1x1 -> inception_3b/1x1
I0403 15:43:53.824784 15994 net.cpp:141] Setting up inception_3b/1x1
I0403 15:43:53.824826 15994 net.cpp:148] Top shape: 24 128 28 28 (2408448)
I0403 15:43:53.824844 15994 net.cpp:156] Memory required for data: 667141152
I0403 15:43:53.824864 15994 layer_factory.hpp:77] Creating layer inception_3b/relu_1x1
I0403 15:43:53.824882 15994 net.cpp:91] Creating Layer inception_3b/relu_1x1
I0403 15:43:53.824898 15994 net.cpp:425] inception_3b/relu_1x1 <- inception_3b/1x1
I0403 15:43:53.824919 15994 net.cpp:386] inception_3b/relu_1x1 -> inception_3b/1x1 (in-place)
I0403 15:43:53.825091 15994 net.cpp:141] Setting up inception_3b/relu_1x1
I0403 15:43:53.825117 15994 net.cpp:148] Top shape: 24 128 28 28 (2408448)
I0403 15:43:53.825132 15994 net.cpp:156] Memory required for data: 676774944
I0403 15:43:53.825147 15994 layer_factory.hpp:77] Creating layer inception_3b/3x3_reduce
I0403 15:43:53.825170 15994 net.cpp:91] Creating Layer inception_3b/3x3_reduce
I0403 15:43:53.825187 15994 net.cpp:425] inception_3b/3x3_reduce <- inception_3a/output_inception_3a/output_0_split_1
I0403 15:43:53.825208 15994 net.cpp:399] inception_3b/3x3_reduce -> inception_3b/3x3_reduce
I0403 15:43:53.826333 15994 net.cpp:141] Setting up inception_3b/3x3_reduce
I0403 15:43:53.826364 15994 net.cpp:148] Top shape: 24 128 28 28 (2408448)
I0403 15:43:53.826382 15994 net.cpp:156] Memory required for data: 686408736
I0403 15:43:53.826400 15994 layer_factory.hpp:77] Creating layer inception_3b/relu_3x3_reduce
I0403 15:43:53.826419 15994 net.cpp:91] Creating Layer inception_3b/relu_3x3_reduce
I0403 15:43:53.826436 15994 net.cpp:425] inception_3b/relu_3x3_reduce <- inception_3b/3x3_reduce
I0403 15:43:53.826452 15994 net.cpp:386] inception_3b/relu_3x3_reduce -> inception_3b/3x3_reduce (in-place)
I0403 15:43:53.826647 15994 net.cpp:141] Setting up inception_3b/relu_3x3_reduce
I0403 15:43:53.826670 15994 net.cpp:148] Top shape: 24 128 28 28 (2408448)
I0403 15:43:53.826683 15994 net.cpp:156] Memory required for data: 696042528
I0403 15:43:53.826697 15994 layer_factory.hpp:77] Creating layer inception_3b/3x3
I0403 15:43:53.826721 15994 net.cpp:91] Creating Layer inception_3b/3x3
I0403 15:43:53.826738 15994 net.cpp:425] inception_3b/3x3 <- inception_3b/3x3_reduce
I0403 15:43:53.826758 15994 net.cpp:399] inception_3b/3x3 -> inception_3b/3x3
I0403 15:43:53.829635 15994 net.cpp:141] Setting up inception_3b/3x3
I0403 15:43:53.829663 15994 net.cpp:148] Top shape: 24 192 28 28 (3612672)
I0403 15:43:53.829679 15994 net.cpp:156] Memory required for data: 710493216
I0403 15:43:53.829696 15994 layer_factory.hpp:77] Creating layer inception_3b/relu_3x3
I0403 15:43:53.829715 15994 net.cpp:91] Creating Layer inception_3b/relu_3x3
I0403 15:43:53.829730 15994 net.cpp:425] inception_3b/relu_3x3 <- inception_3b/3x3
I0403 15:43:53.829749 15994 net.cpp:386] inception_3b/relu_3x3 -> inception_3b/3x3 (in-place)
I0403 15:43:53.830020 15994 net.cpp:141] Setting up inception_3b/relu_3x3
I0403 15:43:53.830046 15994 net.cpp:148] Top shape: 24 192 28 28 (3612672)
I0403 15:43:53.830061 15994 net.cpp:156] Memory required for data: 724943904
I0403 15:43:53.830076 15994 layer_factory.hpp:77] Creating layer inception_3b/5x5_reduce
I0403 15:43:53.830096 15994 net.cpp:91] Creating Layer inception_3b/5x5_reduce
I0403 15:43:53.830113 15994 net.cpp:425] inception_3b/5x5_reduce <- inception_3a/output_inception_3a/output_0_split_2
I0403 15:43:53.830135 15994 net.cpp:399] inception_3b/5x5_reduce -> inception_3b/5x5_reduce
I0403 15:43:53.831095 15994 net.cpp:141] Setting up inception_3b/5x5_reduce
I0403 15:43:53.831122 15994 net.cpp:148] Top shape: 24 32 28 28 (602112)
I0403 15:43:53.831138 15994 net.cpp:156] Memory required for data: 727352352
I0403 15:43:53.831156 15994 layer_factory.hpp:77] Creating layer inception_3b/relu_5x5_reduce
I0403 15:43:53.831174 15994 net.cpp:91] Creating Layer inception_3b/relu_5x5_reduce
I0403 15:43:53.831192 15994 net.cpp:425] inception_3b/relu_5x5_reduce <- inception_3b/5x5_reduce
I0403 15:43:53.831212 15994 net.cpp:386] inception_3b/relu_5x5_reduce -> inception_3b/5x5_reduce (in-place)
I0403 15:43:53.831379 15994 net.cpp:141] Setting up inception_3b/relu_5x5_reduce
I0403 15:43:53.831415 15994 net.cpp:148] Top shape: 24 32 28 28 (602112)
I0403 15:43:53.831430 15994 net.cpp:156] Memory required for data: 729760800
I0403 15:43:53.831444 15994 layer_factory.hpp:77] Creating layer inception_3b/5x5
I0403 15:43:53.831465 15994 net.cpp:91] Creating Layer inception_3b/5x5
I0403 15:43:53.831481 15994 net.cpp:425] inception_3b/5x5 <- inception_3b/5x5_reduce
I0403 15:43:53.831502 15994 net.cpp:399] inception_3b/5x5 -> inception_3b/5x5
I0403 15:43:53.833413 15994 net.cpp:141] Setting up inception_3b/5x5
I0403 15:43:53.833446 15994 net.cpp:148] Top shape: 24 96 28 28 (1806336)
I0403 15:43:53.833461 15994 net.cpp:156] Memory required for data: 736986144
I0403 15:43:53.833480 15994 layer_factory.hpp:77] Creating layer inception_3b/relu_5x5
I0403 15:43:53.833498 15994 net.cpp:91] Creating Layer inception_3b/relu_5x5
I0403 15:43:53.833513 15994 net.cpp:425] inception_3b/relu_5x5 <- inception_3b/5x5
I0403 15:43:53.833529 15994 net.cpp:386] inception_3b/relu_5x5 -> inception_3b/5x5 (in-place)
I0403 15:43:53.833724 15994 net.cpp:141] Setting up inception_3b/relu_5x5
I0403 15:43:53.833748 15994 net.cpp:148] Top shape: 24 96 28 28 (1806336)
I0403 15:43:53.833763 15994 net.cpp:156] Memory required for data: 744211488
I0403 15:43:53.833776 15994 layer_factory.hpp:77] Creating layer inception_3b/pool
I0403 15:43:53.833794 15994 net.cpp:91] Creating Layer inception_3b/pool
I0403 15:43:53.833809 15994 net.cpp:425] inception_3b/pool <- inception_3a/output_inception_3a/output_0_split_3
I0403 15:43:53.833835 15994 net.cpp:399] inception_3b/pool -> inception_3b/pool
I0403 15:43:53.833889 15994 net.cpp:141] Setting up inception_3b/pool
I0403 15:43:53.833912 15994 net.cpp:148] Top shape: 24 256 28 28 (4816896)
I0403 15:43:53.833927 15994 net.cpp:156] Memory required for data: 763479072
I0403 15:43:53.833941 15994 layer_factory.hpp:77] Creating layer inception_3b/pool_proj
I0403 15:43:53.833962 15994 net.cpp:91] Creating Layer inception_3b/pool_proj
I0403 15:43:53.833979 15994 net.cpp:425] inception_3b/pool_proj <- inception_3b/pool
I0403 15:43:53.833997 15994 net.cpp:399] inception_3b/pool_proj -> inception_3b/pool_proj
I0403 15:43:53.835034 15994 net.cpp:141] Setting up inception_3b/pool_proj
I0403 15:43:53.835062 15994 net.cpp:148] Top shape: 24 64 28 28 (1204224)
I0403 15:43:53.835078 15994 net.cpp:156] Memory required for data: 768295968
I0403 15:43:53.835095 15994 layer_factory.hpp:77] Creating layer inception_3b/relu_pool_proj
I0403 15:43:53.835114 15994 net.cpp:91] Creating Layer inception_3b/relu_pool_proj
I0403 15:43:53.835130 15994 net.cpp:425] inception_3b/relu_pool_proj <- inception_3b/pool_proj
I0403 15:43:53.835147 15994 net.cpp:386] inception_3b/relu_pool_proj -> inception_3b/pool_proj (in-place)
I0403 15:43:53.835527 15994 net.cpp:141] Setting up inception_3b/relu_pool_proj
I0403 15:43:53.835558 15994 net.cpp:148] Top shape: 24 64 28 28 (1204224)
I0403 15:43:53.835575 15994 net.cpp:156] Memory required for data: 773112864
I0403 15:43:53.835590 15994 layer_factory.hpp:77] Creating layer inception_3b/output
I0403 15:43:53.835607 15994 net.cpp:91] Creating Layer inception_3b/output
I0403 15:43:53.835621 15994 net.cpp:425] inception_3b/output <- inception_3b/1x1
I0403 15:43:53.835638 15994 net.cpp:425] inception_3b/output <- inception_3b/3x3
I0403 15:43:53.835652 15994 net.cpp:425] inception_3b/output <- inception_3b/5x5
I0403 15:43:53.835667 15994 net.cpp:425] inception_3b/output <- inception_3b/pool_proj
I0403 15:43:53.835686 15994 net.cpp:399] inception_3b/output -> inception_3b/output
I0403 15:43:53.835731 15994 net.cpp:141] Setting up inception_3b/output
I0403 15:43:53.835752 15994 net.cpp:148] Top shape: 24 480 28 28 (9031680)
I0403 15:43:53.835765 15994 net.cpp:156] Memory required for data: 809239584
I0403 15:43:53.835779 15994 layer_factory.hpp:77] Creating layer pool3/3x3_s2
I0403 15:43:53.835795 15994 net.cpp:91] Creating Layer pool3/3x3_s2
I0403 15:43:53.835810 15994 net.cpp:425] pool3/3x3_s2 <- inception_3b/output
I0403 15:43:53.835829 15994 net.cpp:399] pool3/3x3_s2 -> pool3/3x3_s2
I0403 15:43:53.835896 15994 net.cpp:141] Setting up pool3/3x3_s2
I0403 15:43:53.835918 15994 net.cpp:148] Top shape: 24 480 14 14 (2257920)
I0403 15:43:53.835932 15994 net.cpp:156] Memory required for data: 818271264
I0403 15:43:53.835947 15994 layer_factory.hpp:77] Creating layer pool3/3x3_s2_pool3/3x3_s2_0_split
I0403 15:43:53.835965 15994 net.cpp:91] Creating Layer pool3/3x3_s2_pool3/3x3_s2_0_split
I0403 15:43:53.835980 15994 net.cpp:425] pool3/3x3_s2_pool3/3x3_s2_0_split <- pool3/3x3_s2
I0403 15:43:53.835996 15994 net.cpp:399] pool3/3x3_s2_pool3/3x3_s2_0_split -> pool3/3x3_s2_pool3/3x3_s2_0_split_0
I0403 15:43:53.836014 15994 net.cpp:399] pool3/3x3_s2_pool3/3x3_s2_0_split -> pool3/3x3_s2_pool3/3x3_s2_0_split_1
I0403 15:43:53.836036 15994 net.cpp:399] pool3/3x3_s2_pool3/3x3_s2_0_split -> pool3/3x3_s2_pool3/3x3_s2_0_split_2
I0403 15:43:53.836055 15994 net.cpp:399] pool3/3x3_s2_pool3/3x3_s2_0_split -> pool3/3x3_s2_pool3/3x3_s2_0_split_3
I0403 15:43:53.836127 15994 net.cpp:141] Setting up pool3/3x3_s2_pool3/3x3_s2_0_split
I0403 15:43:53.836148 15994 net.cpp:148] Top shape: 24 480 14 14 (2257920)
I0403 15:43:53.836164 15994 net.cpp:148] Top shape: 24 480 14 14 (2257920)
I0403 15:43:53.836179 15994 net.cpp:148] Top shape: 24 480 14 14 (2257920)
I0403 15:43:53.836192 15994 net.cpp:148] Top shape: 24 480 14 14 (2257920)
I0403 15:43:53.836205 15994 net.cpp:156] Memory required for data: 854397984
I0403 15:43:53.836220 15994 layer_factory.hpp:77] Creating layer inception_4a/1x1
I0403 15:43:53.836252 15994 net.cpp:91] Creating Layer inception_4a/1x1
I0403 15:43:53.836271 15994 net.cpp:425] inception_4a/1x1 <- pool3/3x3_s2_pool3/3x3_s2_0_split_0
I0403 15:43:53.836290 15994 net.cpp:399] inception_4a/1x1 -> inception_4a/1x1
I0403 15:43:53.837805 15994 net.cpp:141] Setting up inception_4a/1x1
I0403 15:43:53.837833 15994 net.cpp:148] Top shape: 24 192 14 14 (903168)
I0403 15:43:53.837849 15994 net.cpp:156] Memory required for data: 858010656
I0403 15:43:53.837867 15994 layer_factory.hpp:77] Creating layer inception_4a/relu_1x1
I0403 15:43:53.837888 15994 net.cpp:91] Creating Layer inception_4a/relu_1x1
I0403 15:43:53.837905 15994 net.cpp:425] inception_4a/relu_1x1 <- inception_4a/1x1
I0403 15:43:53.837921 15994 net.cpp:386] inception_4a/relu_1x1 -> inception_4a/1x1 (in-place)
I0403 15:43:53.838093 15994 net.cpp:141] Setting up inception_4a/relu_1x1
I0403 15:43:53.838119 15994 net.cpp:148] Top shape: 24 192 14 14 (903168)
I0403 15:43:53.838134 15994 net.cpp:156] Memory required for data: 861623328
I0403 15:43:53.838148 15994 layer_factory.hpp:77] Creating layer inception_4a/3x3_reduce
I0403 15:43:53.838170 15994 net.cpp:91] Creating Layer inception_4a/3x3_reduce
I0403 15:43:53.838186 15994 net.cpp:425] inception_4a/3x3_reduce <- pool3/3x3_s2_pool3/3x3_s2_0_split_1
I0403 15:43:53.838203 15994 net.cpp:399] inception_4a/3x3_reduce -> inception_4a/3x3_reduce
I0403 15:43:53.839418 15994 net.cpp:141] Setting up inception_4a/3x3_reduce
I0403 15:43:53.839447 15994 net.cpp:148] Top shape: 24 96 14 14 (451584)
I0403 15:43:53.839463 15994 net.cpp:156] Memory required for data: 863429664
I0403 15:43:53.839486 15994 layer_factory.hpp:77] Creating layer inception_4a/relu_3x3_reduce
I0403 15:43:53.839507 15994 net.cpp:91] Creating Layer inception_4a/relu_3x3_reduce
I0403 15:43:53.839524 15994 net.cpp:425] inception_4a/relu_3x3_reduce <- inception_4a/3x3_reduce
I0403 15:43:53.839545 15994 net.cpp:386] inception_4a/relu_3x3_reduce -> inception_4a/3x3_reduce (in-place)
I0403 15:43:53.839715 15994 net.cpp:141] Setting up inception_4a/relu_3x3_reduce
I0403 15:43:53.839737 15994 net.cpp:148] Top shape: 24 96 14 14 (451584)
I0403 15:43:53.839752 15994 net.cpp:156] Memory required for data: 865236000
I0403 15:43:53.839766 15994 layer_factory.hpp:77] Creating layer inception_4a/3x3
I0403 15:43:53.839787 15994 net.cpp:91] Creating Layer inception_4a/3x3
I0403 15:43:53.839804 15994 net.cpp:425] inception_4a/3x3 <- inception_4a/3x3_reduce
I0403 15:43:53.839823 15994 net.cpp:399] inception_4a/3x3 -> inception_4a/3x3
I0403 15:43:53.842417 15994 net.cpp:141] Setting up inception_4a/3x3
I0403 15:43:53.842447 15994 net.cpp:148] Top shape: 24 208 14 14 (978432)
I0403 15:43:53.842463 15994 net.cpp:156] Memory required for data: 869149728
I0403 15:43:53.842481 15994 layer_factory.hpp:77] Creating layer inception_4a/relu_3x3
I0403 15:43:53.842500 15994 net.cpp:91] Creating Layer inception_4a/relu_3x3
I0403 15:43:53.842515 15994 net.cpp:425] inception_4a/relu_3x3 <- inception_4a/3x3
I0403 15:43:53.842533 15994 net.cpp:386] inception_4a/relu_3x3 -> inception_4a/3x3 (in-place)
I0403 15:43:53.842811 15994 net.cpp:141] Setting up inception_4a/relu_3x3
I0403 15:43:53.842840 15994 net.cpp:148] Top shape: 24 208 14 14 (978432)
I0403 15:43:53.842856 15994 net.cpp:156] Memory required for data: 873063456
I0403 15:43:53.842871 15994 layer_factory.hpp:77] Creating layer inception_4a/5x5_reduce
I0403 15:43:53.842893 15994 net.cpp:91] Creating Layer inception_4a/5x5_reduce
I0403 15:43:53.842911 15994 net.cpp:425] inception_4a/5x5_reduce <- pool3/3x3_s2_pool3/3x3_s2_0_split_2
I0403 15:43:53.842931 15994 net.cpp:399] inception_4a/5x5_reduce -> inception_4a/5x5_reduce
I0403 15:43:53.843925 15994 net.cpp:141] Setting up inception_4a/5x5_reduce
I0403 15:43:53.843952 15994 net.cpp:148] Top shape: 24 16 14 14 (75264)
I0403 15:43:53.843966 15994 net.cpp:156] Memory required for data: 873364512
I0403 15:43:53.843983 15994 layer_factory.hpp:77] Creating layer inception_4a/relu_5x5_reduce
I0403 15:43:53.844002 15994 net.cpp:91] Creating Layer inception_4a/relu_5x5_reduce
I0403 15:43:53.844017 15994 net.cpp:425] inception_4a/relu_5x5_reduce <- inception_4a/5x5_reduce
I0403 15:43:53.844035 15994 net.cpp:386] inception_4a/relu_5x5_reduce -> inception_4a/5x5_reduce (in-place)
I0403 15:43:53.844205 15994 net.cpp:141] Setting up inception_4a/relu_5x5_reduce
I0403 15:43:53.844229 15994 net.cpp:148] Top shape: 24 16 14 14 (75264)
I0403 15:43:53.844244 15994 net.cpp:156] Memory required for data: 873665568
I0403 15:43:53.844257 15994 layer_factory.hpp:77] Creating layer inception_4a/5x5
I0403 15:43:53.844282 15994 net.cpp:91] Creating Layer inception_4a/5x5
I0403 15:43:53.844298 15994 net.cpp:425] inception_4a/5x5 <- inception_4a/5x5_reduce
I0403 15:43:53.844318 15994 net.cpp:399] inception_4a/5x5 -> inception_4a/5x5
I0403 15:43:53.845371 15994 net.cpp:141] Setting up inception_4a/5x5
I0403 15:43:53.845398 15994 net.cpp:148] Top shape: 24 48 14 14 (225792)
I0403 15:43:53.845413 15994 net.cpp:156] Memory required for data: 874568736
I0403 15:43:53.845432 15994 layer_factory.hpp:77] Creating layer inception_4a/relu_5x5
I0403 15:43:53.845453 15994 net.cpp:91] Creating Layer inception_4a/relu_5x5
I0403 15:43:53.845470 15994 net.cpp:425] inception_4a/relu_5x5 <- inception_4a/5x5
I0403 15:43:53.845487 15994 net.cpp:386] inception_4a/relu_5x5 -> inception_4a/5x5 (in-place)
I0403 15:43:53.845664 15994 net.cpp:141] Setting up inception_4a/relu_5x5
I0403 15:43:53.845690 15994 net.cpp:148] Top shape: 24 48 14 14 (225792)
I0403 15:43:53.845705 15994 net.cpp:156] Memory required for data: 875471904
I0403 15:43:53.845718 15994 layer_factory.hpp:77] Creating layer inception_4a/pool
I0403 15:43:53.845734 15994 net.cpp:91] Creating Layer inception_4a/pool
I0403 15:43:53.845749 15994 net.cpp:425] inception_4a/pool <- pool3/3x3_s2_pool3/3x3_s2_0_split_3
I0403 15:43:53.845765 15994 net.cpp:399] inception_4a/pool -> inception_4a/pool
I0403 15:43:53.845825 15994 net.cpp:141] Setting up inception_4a/pool
I0403 15:43:53.845847 15994 net.cpp:148] Top shape: 24 480 14 14 (2257920)
I0403 15:43:53.845861 15994 net.cpp:156] Memory required for data: 884503584
I0403 15:43:53.845875 15994 layer_factory.hpp:77] Creating layer inception_4a/pool_proj
I0403 15:43:53.845896 15994 net.cpp:91] Creating Layer inception_4a/pool_proj
I0403 15:43:53.845913 15994 net.cpp:425] inception_4a/pool_proj <- inception_4a/pool
I0403 15:43:53.845934 15994 net.cpp:399] inception_4a/pool_proj -> inception_4a/pool_proj
I0403 15:43:53.847079 15994 net.cpp:141] Setting up inception_4a/pool_proj
I0403 15:43:53.847108 15994 net.cpp:148] Top shape: 24 64 14 14 (301056)
I0403 15:43:53.847139 15994 net.cpp:156] Memory required for data: 885707808
I0403 15:43:53.847158 15994 layer_factory.hpp:77] Creating layer inception_4a/relu_pool_proj
I0403 15:43:53.847179 15994 net.cpp:91] Creating Layer inception_4a/relu_pool_proj
I0403 15:43:53.847198 15994 net.cpp:425] inception_4a/relu_pool_proj <- inception_4a/pool_proj
I0403 15:43:53.847215 15994 net.cpp:386] inception_4a/relu_pool_proj -> inception_4a/pool_proj (in-place)
I0403 15:43:53.847486 15994 net.cpp:141] Setting up inception_4a/relu_pool_proj
I0403 15:43:53.847513 15994 net.cpp:148] Top shape: 24 64 14 14 (301056)
I0403 15:43:53.847528 15994 net.cpp:156] Memory required for data: 886912032
I0403 15:43:53.847548 15994 layer_factory.hpp:77] Creating layer inception_4a/output
I0403 15:43:53.847573 15994 net.cpp:91] Creating Layer inception_4a/output
I0403 15:43:53.847589 15994 net.cpp:425] inception_4a/output <- inception_4a/1x1
I0403 15:43:53.847604 15994 net.cpp:425] inception_4a/output <- inception_4a/3x3
I0403 15:43:53.847620 15994 net.cpp:425] inception_4a/output <- inception_4a/5x5
I0403 15:43:53.847633 15994 net.cpp:425] inception_4a/output <- inception_4a/pool_proj
I0403 15:43:53.847650 15994 net.cpp:399] inception_4a/output -> inception_4a/output
I0403 15:43:53.847694 15994 net.cpp:141] Setting up inception_4a/output
I0403 15:43:53.847717 15994 net.cpp:148] Top shape: 24 512 14 14 (2408448)
I0403 15:43:53.847730 15994 net.cpp:156] Memory required for data: 896545824
I0403 15:43:53.847744 15994 layer_factory.hpp:77] Creating layer inception_4a/output_inception_4a/output_0_split
I0403 15:43:53.847761 15994 net.cpp:91] Creating Layer inception_4a/output_inception_4a/output_0_split
I0403 15:43:53.847776 15994 net.cpp:425] inception_4a/output_inception_4a/output_0_split <- inception_4a/output
I0403 15:43:53.847795 15994 net.cpp:399] inception_4a/output_inception_4a/output_0_split -> inception_4a/output_inception_4a/output_0_split_0
I0403 15:43:53.847815 15994 net.cpp:399] inception_4a/output_inception_4a/output_0_split -> inception_4a/output_inception_4a/output_0_split_1
I0403 15:43:53.847834 15994 net.cpp:399] inception_4a/output_inception_4a/output_0_split -> inception_4a/output_inception_4a/output_0_split_2
I0403 15:43:53.847854 15994 net.cpp:399] inception_4a/output_inception_4a/output_0_split -> inception_4a/output_inception_4a/output_0_split_3
I0403 15:43:53.847872 15994 net.cpp:399] inception_4a/output_inception_4a/output_0_split -> inception_4a/output_inception_4a/output_0_split_4
I0403 15:43:53.847965 15994 net.cpp:141] Setting up inception_4a/output_inception_4a/output_0_split
I0403 15:43:53.847987 15994 net.cpp:148] Top shape: 24 512 14 14 (2408448)
I0403 15:43:53.848002 15994 net.cpp:148] Top shape: 24 512 14 14 (2408448)
I0403 15:43:53.848017 15994 net.cpp:148] Top shape: 24 512 14 14 (2408448)
I0403 15:43:53.848031 15994 net.cpp:148] Top shape: 24 512 14 14 (2408448)
I0403 15:43:53.848045 15994 net.cpp:148] Top shape: 24 512 14 14 (2408448)
I0403 15:43:53.848058 15994 net.cpp:156] Memory required for data: 944714784
I0403 15:43:53.848073 15994 layer_factory.hpp:77] Creating layer loss1/ave_pool
I0403 15:43:53.848088 15994 net.cpp:91] Creating Layer loss1/ave_pool
I0403 15:43:53.848104 15994 net.cpp:425] loss1/ave_pool <- inception_4a/output_inception_4a/output_0_split_0
I0403 15:43:53.848122 15994 net.cpp:399] loss1/ave_pool -> loss1/ave_pool
I0403 15:43:53.848320 15994 net.cpp:141] Setting up loss1/ave_pool
I0403 15:43:53.848345 15994 net.cpp:148] Top shape: 24 512 4 4 (196608)
I0403 15:43:53.848359 15994 net.cpp:156] Memory required for data: 945501216
I0403 15:43:53.848372 15994 layer_factory.hpp:77] Creating layer loss1/conv
I0403 15:43:53.848393 15994 net.cpp:91] Creating Layer loss1/conv
I0403 15:43:53.848410 15994 net.cpp:425] loss1/conv <- loss1/ave_pool
I0403 15:43:53.848430 15994 net.cpp:399] loss1/conv -> loss1/conv
I0403 15:43:53.849788 15994 net.cpp:141] Setting up loss1/conv
I0403 15:43:53.849818 15994 net.cpp:148] Top shape: 24 128 4 4 (49152)
I0403 15:43:53.849835 15994 net.cpp:156] Memory required for data: 945697824
I0403 15:43:53.849867 15994 layer_factory.hpp:77] Creating layer loss1/relu_conv
I0403 15:43:53.849887 15994 net.cpp:91] Creating Layer loss1/relu_conv
I0403 15:43:53.849903 15994 net.cpp:425] loss1/relu_conv <- loss1/conv
I0403 15:43:53.849923 15994 net.cpp:386] loss1/relu_conv -> loss1/conv (in-place)
I0403 15:43:53.850195 15994 net.cpp:141] Setting up loss1/relu_conv
I0403 15:43:53.850224 15994 net.cpp:148] Top shape: 24 128 4 4 (49152)
I0403 15:43:53.850241 15994 net.cpp:156] Memory required for data: 945894432
I0403 15:43:53.850255 15994 layer_factory.hpp:77] Creating layer loss1/fc
I0403 15:43:53.850278 15994 net.cpp:91] Creating Layer loss1/fc
I0403 15:43:53.850296 15994 net.cpp:425] loss1/fc <- loss1/conv
I0403 15:43:53.850316 15994 net.cpp:399] loss1/fc -> loss1/fc
I0403 15:43:53.867903 15994 net.cpp:141] Setting up loss1/fc
I0403 15:43:53.867938 15994 net.cpp:148] Top shape: 24 1024 (24576)
I0403 15:43:53.867955 15994 net.cpp:156] Memory required for data: 945992736
I0403 15:43:53.867974 15994 layer_factory.hpp:77] Creating layer loss1/relu_fc
I0403 15:43:53.867995 15994 net.cpp:91] Creating Layer loss1/relu_fc
I0403 15:43:53.868012 15994 net.cpp:425] loss1/relu_fc <- loss1/fc
I0403 15:43:53.868031 15994 net.cpp:386] loss1/relu_fc -> loss1/fc (in-place)
I0403 15:43:53.868224 15994 net.cpp:141] Setting up loss1/relu_fc
I0403 15:43:53.868252 15994 net.cpp:148] Top shape: 24 1024 (24576)
I0403 15:43:53.868271 15994 net.cpp:156] Memory required for data: 946091040
I0403 15:43:53.868286 15994 layer_factory.hpp:77] Creating layer loss1/drop_fc
I0403 15:43:53.868312 15994 net.cpp:91] Creating Layer loss1/drop_fc
I0403 15:43:53.868330 15994 net.cpp:425] loss1/drop_fc <- loss1/fc
I0403 15:43:53.868346 15994 net.cpp:386] loss1/drop_fc -> loss1/fc (in-place)
I0403 15:43:53.868399 15994 net.cpp:141] Setting up loss1/drop_fc
I0403 15:43:53.868422 15994 net.cpp:148] Top shape: 24 1024 (24576)
I0403 15:43:53.868437 15994 net.cpp:156] Memory required for data: 946189344
I0403 15:43:53.868451 15994 layer_factory.hpp:77] Creating layer loss1/classifier_plantvillage
I0403 15:43:53.868473 15994 net.cpp:91] Creating Layer loss1/classifier_plantvillage
I0403 15:43:53.868489 15994 net.cpp:425] loss1/classifier_plantvillage <- loss1/fc
I0403 15:43:53.868506 15994 net.cpp:399] loss1/classifier_plantvillage -> loss1/classifier_plantvillage
I0403 15:43:53.869436 15994 net.cpp:141] Setting up loss1/classifier_plantvillage
I0403 15:43:53.869468 15994 net.cpp:148] Top shape: 24 38 (912)
I0403 15:43:53.869485 15994 net.cpp:156] Memory required for data: 946192992
I0403 15:43:53.869503 15994 layer_factory.hpp:77] Creating layer loss1/classifier_plantvillage_loss1/classifier_plantvillage_0_split
I0403 15:43:53.869521 15994 net.cpp:91] Creating Layer loss1/classifier_plantvillage_loss1/classifier_plantvillage_0_split
I0403 15:43:53.869542 15994 net.cpp:425] loss1/classifier_plantvillage_loss1/classifier_plantvillage_0_split <- loss1/classifier_plantvillage
I0403 15:43:53.869562 15994 net.cpp:399] loss1/classifier_plantvillage_loss1/classifier_plantvillage_0_split -> loss1/classifier_plantvillage_loss1/classifier_plantvillage_0_split_0
I0403 15:43:53.869583 15994 net.cpp:399] loss1/classifier_plantvillage_loss1/classifier_plantvillage_0_split -> loss1/classifier_plantvillage_loss1/classifier_plantvillage_0_split_1
I0403 15:43:53.869607 15994 net.cpp:399] loss1/classifier_plantvillage_loss1/classifier_plantvillage_0_split -> loss1/classifier_plantvillage_loss1/classifier_plantvillage_0_split_2
I0403 15:43:53.869673 15994 net.cpp:141] Setting up loss1/classifier_plantvillage_loss1/classifier_plantvillage_0_split
I0403 15:43:53.869696 15994 net.cpp:148] Top shape: 24 38 (912)
I0403 15:43:53.869714 15994 net.cpp:148] Top shape: 24 38 (912)
I0403 15:43:53.869729 15994 net.cpp:148] Top shape: 24 38 (912)
I0403 15:43:53.869741 15994 net.cpp:156] Memory required for data: 946203936
I0403 15:43:53.869755 15994 layer_factory.hpp:77] Creating layer inception_4b/1x1
I0403 15:43:53.869776 15994 net.cpp:91] Creating Layer inception_4b/1x1
I0403 15:43:53.869817 15994 net.cpp:425] inception_4b/1x1 <- inception_4a/output_inception_4a/output_0_split_1
I0403 15:43:53.869839 15994 net.cpp:399] inception_4b/1x1 -> inception_4b/1x1
I0403 15:43:53.871497 15994 net.cpp:141] Setting up inception_4b/1x1
I0403 15:43:53.871529 15994 net.cpp:148] Top shape: 24 160 14 14 (752640)
I0403 15:43:53.871551 15994 net.cpp:156] Memory required for data: 949214496
I0403 15:43:53.871570 15994 layer_factory.hpp:77] Creating layer inception_4b/relu_1x1
I0403 15:43:53.871588 15994 net.cpp:91] Creating Layer inception_4b/relu_1x1
I0403 15:43:53.871603 15994 net.cpp:425] inception_4b/relu_1x1 <- inception_4b/1x1
I0403 15:43:53.871623 15994 net.cpp:386] inception_4b/relu_1x1 -> inception_4b/1x1 (in-place)
I0403 15:43:53.871804 15994 net.cpp:141] Setting up inception_4b/relu_1x1
I0403 15:43:53.871829 15994 net.cpp:148] Top shape: 24 160 14 14 (752640)
I0403 15:43:53.871843 15994 net.cpp:156] Memory required for data: 952225056
I0403 15:43:53.871857 15994 layer_factory.hpp:77] Creating layer inception_4b/3x3_reduce
I0403 15:43:53.871879 15994 net.cpp:91] Creating Layer inception_4b/3x3_reduce
I0403 15:43:53.871896 15994 net.cpp:425] inception_4b/3x3_reduce <- inception_4a/output_inception_4a/output_0_split_2
I0403 15:43:53.871919 15994 net.cpp:399] inception_4b/3x3_reduce -> inception_4b/3x3_reduce
I0403 15:43:53.873281 15994 net.cpp:141] Setting up inception_4b/3x3_reduce
I0403 15:43:53.873311 15994 net.cpp:148] Top shape: 24 112 14 14 (526848)
I0403 15:43:53.873327 15994 net.cpp:156] Memory required for data: 954332448
I0403 15:43:53.873345 15994 layer_factory.hpp:77] Creating layer inception_4b/relu_3x3_reduce
I0403 15:43:53.873366 15994 net.cpp:91] Creating Layer inception_4b/relu_3x3_reduce
I0403 15:43:53.873385 15994 net.cpp:425] inception_4b/relu_3x3_reduce <- inception_4b/3x3_reduce
I0403 15:43:53.873404 15994 net.cpp:386] inception_4b/relu_3x3_reduce -> inception_4b/3x3_reduce (in-place)
I0403 15:43:53.873694 15994 net.cpp:141] Setting up inception_4b/relu_3x3_reduce
I0403 15:43:53.873723 15994 net.cpp:148] Top shape: 24 112 14 14 (526848)
I0403 15:43:53.873739 15994 net.cpp:156] Memory required for data: 956439840
I0403 15:43:53.873752 15994 layer_factory.hpp:77] Creating layer inception_4b/3x3
I0403 15:43:53.873775 15994 net.cpp:91] Creating Layer inception_4b/3x3
I0403 15:43:53.873795 15994 net.cpp:425] inception_4b/3x3 <- inception_4b/3x3_reduce
I0403 15:43:53.873816 15994 net.cpp:399] inception_4b/3x3 -> inception_4b/3x3
I0403 15:43:53.876998 15994 net.cpp:141] Setting up inception_4b/3x3
I0403 15:43:53.877028 15994 net.cpp:148] Top shape: 24 224 14 14 (1053696)
I0403 15:43:53.877045 15994 net.cpp:156] Memory required for data: 960654624
I0403 15:43:53.877063 15994 layer_factory.hpp:77] Creating layer inception_4b/relu_3x3
I0403 15:43:53.877085 15994 net.cpp:91] Creating Layer inception_4b/relu_3x3
I0403 15:43:53.877102 15994 net.cpp:425] inception_4b/relu_3x3 <- inception_4b/3x3
I0403 15:43:53.877120 15994 net.cpp:386] inception_4b/relu_3x3 -> inception_4b/3x3 (in-place)
I0403 15:43:53.877302 15994 net.cpp:141] Setting up inception_4b/relu_3x3
I0403 15:43:53.877331 15994 net.cpp:148] Top shape: 24 224 14 14 (1053696)
I0403 15:43:53.877347 15994 net.cpp:156] Memory required for data: 964869408
I0403 15:43:53.877362 15994 layer_factory.hpp:77] Creating layer inception_4b/5x5_reduce
I0403 15:43:53.877383 15994 net.cpp:91] Creating Layer inception_4b/5x5_reduce
I0403 15:43:53.877400 15994 net.cpp:425] inception_4b/5x5_reduce <- inception_4a/output_inception_4a/output_0_split_3
I0403 15:43:53.877419 15994 net.cpp:399] inception_4b/5x5_reduce -> inception_4b/5x5_reduce
I0403 15:43:53.878512 15994 net.cpp:141] Setting up inception_4b/5x5_reduce
I0403 15:43:53.878545 15994 net.cpp:148] Top shape: 24 24 14 14 (112896)
I0403 15:43:53.878563 15994 net.cpp:156] Memory required for data: 965320992
I0403 15:43:53.878582 15994 layer_factory.hpp:77] Creating layer inception_4b/relu_5x5_reduce
I0403 15:43:53.878600 15994 net.cpp:91] Creating Layer inception_4b/relu_5x5_reduce
I0403 15:43:53.878631 15994 net.cpp:425] inception_4b/relu_5x5_reduce <- inception_4b/5x5_reduce
I0403 15:43:53.878654 15994 net.cpp:386] inception_4b/relu_5x5_reduce -> inception_4b/5x5_reduce (in-place)
I0403 15:43:53.878844 15994 net.cpp:141] Setting up inception_4b/relu_5x5_reduce
I0403 15:43:53.878870 15994 net.cpp:148] Top shape: 24 24 14 14 (112896)
I0403 15:43:53.878886 15994 net.cpp:156] Memory required for data: 965772576
I0403 15:43:53.878901 15994 layer_factory.hpp:77] Creating layer inception_4b/5x5
I0403 15:43:53.878923 15994 net.cpp:91] Creating Layer inception_4b/5x5
I0403 15:43:53.878942 15994 net.cpp:425] inception_4b/5x5 <- inception_4b/5x5_reduce
I0403 15:43:53.878964 15994 net.cpp:399] inception_4b/5x5 -> inception_4b/5x5
I0403 15:43:53.880198 15994 net.cpp:141] Setting up inception_4b/5x5
I0403 15:43:53.880226 15994 net.cpp:148] Top shape: 24 64 14 14 (301056)
I0403 15:43:53.880244 15994 net.cpp:156] Memory required for data: 966976800
I0403 15:43:53.880260 15994 layer_factory.hpp:77] Creating layer inception_4b/relu_5x5
I0403 15:43:53.880278 15994 net.cpp:91] Creating Layer inception_4b/relu_5x5
I0403 15:43:53.880295 15994 net.cpp:425] inception_4b/relu_5x5 <- inception_4b/5x5
I0403 15:43:53.880314 15994 net.cpp:386] inception_4b/relu_5x5 -> inception_4b/5x5 (in-place)
I0403 15:43:53.880604 15994 net.cpp:141] Setting up inception_4b/relu_5x5
I0403 15:43:53.880632 15994 net.cpp:148] Top shape: 24 64 14 14 (301056)
I0403 15:43:53.880648 15994 net.cpp:156] Memory required for data: 968181024
I0403 15:43:53.880662 15994 layer_factory.hpp:77] Creating layer inception_4b/pool
I0403 15:43:53.880681 15994 net.cpp:91] Creating Layer inception_4b/pool
I0403 15:43:53.880697 15994 net.cpp:425] inception_4b/pool <- inception_4a/output_inception_4a/output_0_split_4
I0403 15:43:53.880717 15994 net.cpp:399] inception_4b/pool -> inception_4b/pool
I0403 15:43:53.880784 15994 net.cpp:141] Setting up inception_4b/pool
I0403 15:43:53.880806 15994 net.cpp:148] Top shape: 24 512 14 14 (2408448)
I0403 15:43:53.880820 15994 net.cpp:156] Memory required for data: 977814816
I0403 15:43:53.880836 15994 layer_factory.hpp:77] Creating layer inception_4b/pool_proj
I0403 15:43:53.880858 15994 net.cpp:91] Creating Layer inception_4b/pool_proj
I0403 15:43:53.880875 15994 net.cpp:425] inception_4b/pool_proj <- inception_4b/pool
I0403 15:43:53.880893 15994 net.cpp:399] inception_4b/pool_proj -> inception_4b/pool_proj
I0403 15:43:53.882097 15994 net.cpp:141] Setting up inception_4b/pool_proj
I0403 15:43:53.882127 15994 net.cpp:148] Top shape: 24 64 14 14 (301056)
I0403 15:43:53.882143 15994 net.cpp:156] Memory required for data: 979019040
I0403 15:43:53.882161 15994 layer_factory.hpp:77] Creating layer inception_4b/relu_pool_proj
I0403 15:43:53.882179 15994 net.cpp:91] Creating Layer inception_4b/relu_pool_proj
I0403 15:43:53.882194 15994 net.cpp:425] inception_4b/relu_pool_proj <- inception_4b/pool_proj
I0403 15:43:53.882215 15994 net.cpp:386] inception_4b/relu_pool_proj -> inception_4b/pool_proj (in-place)
I0403 15:43:53.882396 15994 net.cpp:141] Setting up inception_4b/relu_pool_proj
I0403 15:43:53.882421 15994 net.cpp:148] Top shape: 24 64 14 14 (301056)
I0403 15:43:53.882436 15994 net.cpp:156] Memory required for data: 980223264
I0403 15:43:53.882449 15994 layer_factory.hpp:77] Creating layer inception_4b/output
I0403 15:43:53.882469 15994 net.cpp:91] Creating Layer inception_4b/output
I0403 15:43:53.882485 15994 net.cpp:425] inception_4b/output <- inception_4b/1x1
I0403 15:43:53.882501 15994 net.cpp:425] inception_4b/output <- inception_4b/3x3
I0403 15:43:53.882518 15994 net.cpp:425] inception_4b/output <- inception_4b/5x5
I0403 15:43:53.882532 15994 net.cpp:425] inception_4b/output <- inception_4b/pool_proj
I0403 15:43:53.882555 15994 net.cpp:399] inception_4b/output -> inception_4b/output
I0403 15:43:53.882606 15994 net.cpp:141] Setting up inception_4b/output
I0403 15:43:53.882628 15994 net.cpp:148] Top shape: 24 512 14 14 (2408448)
I0403 15:43:53.882643 15994 net.cpp:156] Memory required for data: 989857056
I0403 15:43:53.882671 15994 layer_factory.hpp:77] Creating layer inception_4b/output_inception_4b/output_0_split
I0403 15:43:53.882688 15994 net.cpp:91] Creating Layer inception_4b/output_inception_4b/output_0_split
I0403 15:43:53.882704 15994 net.cpp:425] inception_4b/output_inception_4b/output_0_split <- inception_4b/output
I0403 15:43:53.882724 15994 net.cpp:399] inception_4b/output_inception_4b/output_0_split -> inception_4b/output_inception_4b/output_0_split_0
I0403 15:43:53.882745 15994 net.cpp:399] inception_4b/output_inception_4b/output_0_split -> inception_4b/output_inception_4b/output_0_split_1
I0403 15:43:53.882764 15994 net.cpp:399] inception_4b/output_inception_4b/output_0_split -> inception_4b/output_inception_4b/output_0_split_2
I0403 15:43:53.882786 15994 net.cpp:399] inception_4b/output_inception_4b/output_0_split -> inception_4b/output_inception_4b/output_0_split_3
I0403 15:43:53.882866 15994 net.cpp:141] Setting up inception_4b/output_inception_4b/output_0_split
I0403 15:43:53.882891 15994 net.cpp:148] Top shape: 24 512 14 14 (2408448)
I0403 15:43:53.882908 15994 net.cpp:148] Top shape: 24 512 14 14 (2408448)
I0403 15:43:53.882923 15994 net.cpp:148] Top shape: 24 512 14 14 (2408448)
I0403 15:43:53.882938 15994 net.cpp:148] Top shape: 24 512 14 14 (2408448)
I0403 15:43:53.882951 15994 net.cpp:156] Memory required for data: 1028392224
I0403 15:43:53.882964 15994 layer_factory.hpp:77] Creating layer inception_4c/1x1
I0403 15:43:53.882987 15994 net.cpp:91] Creating Layer inception_4c/1x1
I0403 15:43:53.883005 15994 net.cpp:425] inception_4c/1x1 <- inception_4b/output_inception_4b/output_0_split_0
I0403 15:43:53.883023 15994 net.cpp:399] inception_4c/1x1 -> inception_4c/1x1
I0403 15:43:53.884462 15994 net.cpp:141] Setting up inception_4c/1x1
I0403 15:43:53.884491 15994 net.cpp:148] Top shape: 24 128 14 14 (602112)
I0403 15:43:53.884508 15994 net.cpp:156] Memory required for data: 1030800672
I0403 15:43:53.884527 15994 layer_factory.hpp:77] Creating layer inception_4c/relu_1x1
I0403 15:43:53.884560 15994 net.cpp:91] Creating Layer inception_4c/relu_1x1
I0403 15:43:53.884580 15994 net.cpp:425] inception_4c/relu_1x1 <- inception_4c/1x1
I0403 15:43:53.884598 15994 net.cpp:386] inception_4c/relu_1x1 -> inception_4c/1x1 (in-place)
I0403 15:43:53.884785 15994 net.cpp:141] Setting up inception_4c/relu_1x1
I0403 15:43:53.884812 15994 net.cpp:148] Top shape: 24 128 14 14 (602112)
I0403 15:43:53.884827 15994 net.cpp:156] Memory required for data: 1033209120
I0403 15:43:53.884841 15994 layer_factory.hpp:77] Creating layer inception_4c/3x3_reduce
I0403 15:43:53.884862 15994 net.cpp:91] Creating Layer inception_4c/3x3_reduce
I0403 15:43:53.884879 15994 net.cpp:425] inception_4c/3x3_reduce <- inception_4b/output_inception_4b/output_0_split_1
I0403 15:43:53.884897 15994 net.cpp:399] inception_4c/3x3_reduce -> inception_4c/3x3_reduce
I0403 15:43:53.886940 15994 net.cpp:141] Setting up inception_4c/3x3_reduce
I0403 15:43:53.886971 15994 net.cpp:148] Top shape: 24 128 14 14 (602112)
I0403 15:43:53.886989 15994 net.cpp:156] Memory required for data: 1035617568
I0403 15:43:53.887008 15994 layer_factory.hpp:77] Creating layer inception_4c/relu_3x3_reduce
I0403 15:43:53.887028 15994 net.cpp:91] Creating Layer inception_4c/relu_3x3_reduce
I0403 15:43:53.887044 15994 net.cpp:425] inception_4c/relu_3x3_reduce <- inception_4c/3x3_reduce
I0403 15:43:53.887064 15994 net.cpp:386] inception_4c/relu_3x3_reduce -> inception_4c/3x3_reduce (in-place)
I0403 15:43:53.887353 15994 net.cpp:141] Setting up inception_4c/relu_3x3_reduce
I0403 15:43:53.887382 15994 net.cpp:148] Top shape: 24 128 14 14 (602112)
I0403 15:43:53.887398 15994 net.cpp:156] Memory required for data: 1038026016
I0403 15:43:53.887411 15994 layer_factory.hpp:77] Creating layer inception_4c/3x3
I0403 15:43:53.887435 15994 net.cpp:91] Creating Layer inception_4c/3x3
I0403 15:43:53.887452 15994 net.cpp:425] inception_4c/3x3 <- inception_4c/3x3_reduce
I0403 15:43:53.887471 15994 net.cpp:399] inception_4c/3x3 -> inception_4c/3x3
I0403 15:43:53.891149 15994 net.cpp:141] Setting up inception_4c/3x3
I0403 15:43:53.891192 15994 net.cpp:148] Top shape: 24 256 14 14 (1204224)
I0403 15:43:53.891209 15994 net.cpp:156] Memory required for data: 1042842912
I0403 15:43:53.891243 15994 layer_factory.hpp:77] Creating layer inception_4c/relu_3x3
I0403 15:43:53.891268 15994 net.cpp:91] Creating Layer inception_4c/relu_3x3
I0403 15:43:53.891285 15994 net.cpp:425] inception_4c/relu_3x3 <- inception_4c/3x3
I0403 15:43:53.891305 15994 net.cpp:386] inception_4c/relu_3x3 -> inception_4c/3x3 (in-place)
I0403 15:43:53.891490 15994 net.cpp:141] Setting up inception_4c/relu_3x3
I0403 15:43:53.891517 15994 net.cpp:148] Top shape: 24 256 14 14 (1204224)
I0403 15:43:53.891532 15994 net.cpp:156] Memory required for data: 1047659808
I0403 15:43:53.891553 15994 layer_factory.hpp:77] Creating layer inception_4c/5x5_reduce
I0403 15:43:53.891578 15994 net.cpp:91] Creating Layer inception_4c/5x5_reduce
I0403 15:43:53.891595 15994 net.cpp:425] inception_4c/5x5_reduce <- inception_4b/output_inception_4b/output_0_split_2
I0403 15:43:53.891618 15994 net.cpp:399] inception_4c/5x5_reduce -> inception_4c/5x5_reduce
I0403 15:43:53.892746 15994 net.cpp:141] Setting up inception_4c/5x5_reduce
I0403 15:43:53.892776 15994 net.cpp:148] Top shape: 24 24 14 14 (112896)
I0403 15:43:53.892792 15994 net.cpp:156] Memory required for data: 1048111392
I0403 15:43:53.892810 15994 layer_factory.hpp:77] Creating layer inception_4c/relu_5x5_reduce
I0403 15:43:53.892829 15994 net.cpp:91] Creating Layer inception_4c/relu_5x5_reduce
I0403 15:43:53.892845 15994 net.cpp:425] inception_4c/relu_5x5_reduce <- inception_4c/5x5_reduce
I0403 15:43:53.892865 15994 net.cpp:386] inception_4c/relu_5x5_reduce -> inception_4c/5x5_reduce (in-place)
I0403 15:43:53.893052 15994 net.cpp:141] Setting up inception_4c/relu_5x5_reduce
I0403 15:43:53.893079 15994 net.cpp:148] Top shape: 24 24 14 14 (112896)
I0403 15:43:53.893095 15994 net.cpp:156] Memory required for data: 1048562976
I0403 15:43:53.893110 15994 layer_factory.hpp:77] Creating layer inception_4c/5x5
I0403 15:43:53.893131 15994 net.cpp:91] Creating Layer inception_4c/5x5
I0403 15:43:53.893149 15994 net.cpp:425] inception_4c/5x5 <- inception_4c/5x5_reduce
I0403 15:43:53.893170 15994 net.cpp:399] inception_4c/5x5 -> inception_4c/5x5
I0403 15:43:53.894413 15994 net.cpp:141] Setting up inception_4c/5x5
I0403 15:43:53.894443 15994 net.cpp:148] Top shape: 24 64 14 14 (301056)
I0403 15:43:53.894457 15994 net.cpp:156] Memory required for data: 1049767200
I0403 15:43:53.894475 15994 layer_factory.hpp:77] Creating layer inception_4c/relu_5x5
I0403 15:43:53.894495 15994 net.cpp:91] Creating Layer inception_4c/relu_5x5
I0403 15:43:53.894515 15994 net.cpp:425] inception_4c/relu_5x5 <- inception_4c/5x5
I0403 15:43:53.894532 15994 net.cpp:386] inception_4c/relu_5x5 -> inception_4c/5x5 (in-place)
I0403 15:43:53.894872 15994 net.cpp:141] Setting up inception_4c/relu_5x5
I0403 15:43:53.894901 15994 net.cpp:148] Top shape: 24 64 14 14 (301056)
I0403 15:43:53.894917 15994 net.cpp:156] Memory required for data: 1050971424
I0403 15:43:53.894932 15994 layer_factory.hpp:77] Creating layer inception_4c/pool
I0403 15:43:53.894953 15994 net.cpp:91] Creating Layer inception_4c/pool
I0403 15:43:53.894970 15994 net.cpp:425] inception_4c/pool <- inception_4b/output_inception_4b/output_0_split_3
I0403 15:43:53.894990 15994 net.cpp:399] inception_4c/pool -> inception_4c/pool
I0403 15:43:53.895058 15994 net.cpp:141] Setting up inception_4c/pool
I0403 15:43:53.895083 15994 net.cpp:148] Top shape: 24 512 14 14 (2408448)
I0403 15:43:53.895100 15994 net.cpp:156] Memory required for data: 1060605216
I0403 15:43:53.895114 15994 layer_factory.hpp:77] Creating layer inception_4c/pool_proj
I0403 15:43:53.895136 15994 net.cpp:91] Creating Layer inception_4c/pool_proj
I0403 15:43:53.895153 15994 net.cpp:425] inception_4c/pool_proj <- inception_4c/pool
I0403 15:43:53.895174 15994 net.cpp:399] inception_4c/pool_proj -> inception_4c/pool_proj
I0403 15:43:53.896411 15994 net.cpp:141] Setting up inception_4c/pool_proj
I0403 15:43:53.896440 15994 net.cpp:148] Top shape: 24 64 14 14 (301056)
I0403 15:43:53.896471 15994 net.cpp:156] Memory required for data: 1061809440
I0403 15:43:53.896492 15994 layer_factory.hpp:77] Creating layer inception_4c/relu_pool_proj
I0403 15:43:53.896510 15994 net.cpp:91] Creating Layer inception_4c/relu_pool_proj
I0403 15:43:53.896528 15994 net.cpp:425] inception_4c/relu_pool_proj <- inception_4c/pool_proj
I0403 15:43:53.896553 15994 net.cpp:386] inception_4c/relu_pool_proj -> inception_4c/pool_proj (in-place)
I0403 15:43:53.896739 15994 net.cpp:141] Setting up inception_4c/relu_pool_proj
I0403 15:43:53.896766 15994 net.cpp:148] Top shape: 24 64 14 14 (301056)
I0403 15:43:53.896782 15994 net.cpp:156] Memory required for data: 1063013664
I0403 15:43:53.896796 15994 layer_factory.hpp:77] Creating layer inception_4c/output
I0403 15:43:53.896814 15994 net.cpp:91] Creating Layer inception_4c/output
I0403 15:43:53.896834 15994 net.cpp:425] inception_4c/output <- inception_4c/1x1
I0403 15:43:53.896852 15994 net.cpp:425] inception_4c/output <- inception_4c/3x3
I0403 15:43:53.896867 15994 net.cpp:425] inception_4c/output <- inception_4c/5x5
I0403 15:43:53.896883 15994 net.cpp:425] inception_4c/output <- inception_4c/pool_proj
I0403 15:43:53.896899 15994 net.cpp:399] inception_4c/output -> inception_4c/output
I0403 15:43:53.896944 15994 net.cpp:141] Setting up inception_4c/output
I0403 15:43:53.896970 15994 net.cpp:148] Top shape: 24 512 14 14 (2408448)
I0403 15:43:53.896984 15994 net.cpp:156] Memory required for data: 1072647456
I0403 15:43:53.896998 15994 layer_factory.hpp:77] Creating layer inception_4c/output_inception_4c/output_0_split
I0403 15:43:53.897014 15994 net.cpp:91] Creating Layer inception_4c/output_inception_4c/output_0_split
I0403 15:43:53.897029 15994 net.cpp:425] inception_4c/output_inception_4c/output_0_split <- inception_4c/output
I0403 15:43:53.897047 15994 net.cpp:399] inception_4c/output_inception_4c/output_0_split -> inception_4c/output_inception_4c/output_0_split_0
I0403 15:43:53.897068 15994 net.cpp:399] inception_4c/output_inception_4c/output_0_split -> inception_4c/output_inception_4c/output_0_split_1
I0403 15:43:53.897089 15994 net.cpp:399] inception_4c/output_inception_4c/output_0_split -> inception_4c/output_inception_4c/output_0_split_2
I0403 15:43:53.897109 15994 net.cpp:399] inception_4c/output_inception_4c/output_0_split -> inception_4c/output_inception_4c/output_0_split_3
I0403 15:43:53.897192 15994 net.cpp:141] Setting up inception_4c/output_inception_4c/output_0_split
I0403 15:43:53.897218 15994 net.cpp:148] Top shape: 24 512 14 14 (2408448)
I0403 15:43:53.897235 15994 net.cpp:148] Top shape: 24 512 14 14 (2408448)
I0403 15:43:53.897250 15994 net.cpp:148] Top shape: 24 512 14 14 (2408448)
I0403 15:43:53.897266 15994 net.cpp:148] Top shape: 24 512 14 14 (2408448)
I0403 15:43:53.897279 15994 net.cpp:156] Memory required for data: 1111182624
I0403 15:43:53.897295 15994 layer_factory.hpp:77] Creating layer inception_4d/1x1
I0403 15:43:53.897316 15994 net.cpp:91] Creating Layer inception_4d/1x1
I0403 15:43:53.897335 15994 net.cpp:425] inception_4d/1x1 <- inception_4c/output_inception_4c/output_0_split_0
I0403 15:43:53.897352 15994 net.cpp:399] inception_4d/1x1 -> inception_4d/1x1
I0403 15:43:53.898766 15994 net.cpp:141] Setting up inception_4d/1x1
I0403 15:43:53.898797 15994 net.cpp:148] Top shape: 24 112 14 14 (526848)
I0403 15:43:53.898814 15994 net.cpp:156] Memory required for data: 1113290016
I0403 15:43:53.898844 15994 layer_factory.hpp:77] Creating layer inception_4d/relu_1x1
I0403 15:43:53.898862 15994 net.cpp:91] Creating Layer inception_4d/relu_1x1
I0403 15:43:53.898879 15994 net.cpp:425] inception_4d/relu_1x1 <- inception_4d/1x1
I0403 15:43:53.898895 15994 net.cpp:386] inception_4d/relu_1x1 -> inception_4d/1x1 (in-place)
I0403 15:43:53.899076 15994 net.cpp:141] Setting up inception_4d/relu_1x1
I0403 15:43:53.899103 15994 net.cpp:148] Top shape: 24 112 14 14 (526848)
I0403 15:43:53.899118 15994 net.cpp:156] Memory required for data: 1115397408
I0403 15:43:53.899132 15994 layer_factory.hpp:77] Creating layer inception_4d/3x3_reduce
I0403 15:43:53.899166 15994 net.cpp:91] Creating Layer inception_4d/3x3_reduce
I0403 15:43:53.899184 15994 net.cpp:425] inception_4d/3x3_reduce <- inception_4c/output_inception_4c/output_0_split_1
I0403 15:43:53.899204 15994 net.cpp:399] inception_4d/3x3_reduce -> inception_4d/3x3_reduce
I0403 15:43:53.900676 15994 net.cpp:141] Setting up inception_4d/3x3_reduce
I0403 15:43:53.900703 15994 net.cpp:148] Top shape: 24 144 14 14 (677376)
I0403 15:43:53.900719 15994 net.cpp:156] Memory required for data: 1118106912
I0403 15:43:53.900737 15994 layer_factory.hpp:77] Creating layer inception_4d/relu_3x3_reduce
I0403 15:43:53.900756 15994 net.cpp:91] Creating Layer inception_4d/relu_3x3_reduce
I0403 15:43:53.900774 15994 net.cpp:425] inception_4d/relu_3x3_reduce <- inception_4d/3x3_reduce
I0403 15:43:53.900789 15994 net.cpp:386] inception_4d/relu_3x3_reduce -> inception_4d/3x3_reduce (in-place)
I0403 15:43:53.901068 15994 net.cpp:141] Setting up inception_4d/relu_3x3_reduce
I0403 15:43:53.901095 15994 net.cpp:148] Top shape: 24 144 14 14 (677376)
I0403 15:43:53.901109 15994 net.cpp:156] Memory required for data: 1120816416
I0403 15:43:53.901124 15994 layer_factory.hpp:77] Creating layer inception_4d/3x3
I0403 15:43:53.901145 15994 net.cpp:91] Creating Layer inception_4d/3x3
I0403 15:43:53.901162 15994 net.cpp:425] inception_4d/3x3 <- inception_4d/3x3_reduce
I0403 15:43:53.901182 15994 net.cpp:399] inception_4d/3x3 -> inception_4d/3x3
I0403 15:43:53.905385 15994 net.cpp:141] Setting up inception_4d/3x3
I0403 15:43:53.905416 15994 net.cpp:148] Top shape: 24 288 14 14 (1354752)
I0403 15:43:53.905432 15994 net.cpp:156] Memory required for data: 1126235424
I0403 15:43:53.905450 15994 layer_factory.hpp:77] Creating layer inception_4d/relu_3x3
I0403 15:43:53.905468 15994 net.cpp:91] Creating Layer inception_4d/relu_3x3
I0403 15:43:53.905484 15994 net.cpp:425] inception_4d/relu_3x3 <- inception_4d/3x3
I0403 15:43:53.905503 15994 net.cpp:386] inception_4d/relu_3x3 -> inception_4d/3x3 (in-place)
I0403 15:43:53.905704 15994 net.cpp:141] Setting up inception_4d/relu_3x3
I0403 15:43:53.905730 15994 net.cpp:148] Top shape: 24 288 14 14 (1354752)
I0403 15:43:53.905745 15994 net.cpp:156] Memory required for data: 1131654432
I0403 15:43:53.905758 15994 layer_factory.hpp:77] Creating layer inception_4d/5x5_reduce
I0403 15:43:53.905781 15994 net.cpp:91] Creating Layer inception_4d/5x5_reduce
I0403 15:43:53.905797 15994 net.cpp:425] inception_4d/5x5_reduce <- inception_4c/output_inception_4c/output_0_split_2
I0403 15:43:53.905818 15994 net.cpp:399] inception_4d/5x5_reduce -> inception_4d/5x5_reduce
I0403 15:43:53.906981 15994 net.cpp:141] Setting up inception_4d/5x5_reduce
I0403 15:43:53.907012 15994 net.cpp:148] Top shape: 24 32 14 14 (150528)
I0403 15:43:53.907028 15994 net.cpp:156] Memory required for data: 1132256544
I0403 15:43:53.907047 15994 layer_factory.hpp:77] Creating layer inception_4d/relu_5x5_reduce
I0403 15:43:53.907065 15994 net.cpp:91] Creating Layer inception_4d/relu_5x5_reduce
I0403 15:43:53.907081 15994 net.cpp:425] inception_4d/relu_5x5_reduce <- inception_4d/5x5_reduce
I0403 15:43:53.907097 15994 net.cpp:386] inception_4d/relu_5x5_reduce -> inception_4d/5x5_reduce (in-place)
I0403 15:43:53.907279 15994 net.cpp:141] Setting up inception_4d/relu_5x5_reduce
I0403 15:43:53.907305 15994 net.cpp:148] Top shape: 24 32 14 14 (150528)
I0403 15:43:53.907320 15994 net.cpp:156] Memory required for data: 1132858656
I0403 15:43:53.907333 15994 layer_factory.hpp:77] Creating layer inception_4d/5x5
I0403 15:43:53.907356 15994 net.cpp:91] Creating Layer inception_4d/5x5
I0403 15:43:53.907371 15994 net.cpp:425] inception_4d/5x5 <- inception_4d/5x5_reduce
I0403 15:43:53.907390 15994 net.cpp:399] inception_4d/5x5 -> inception_4d/5x5
I0403 15:43:53.908833 15994 net.cpp:141] Setting up inception_4d/5x5
I0403 15:43:53.908860 15994 net.cpp:148] Top shape: 24 64 14 14 (301056)
I0403 15:43:53.908876 15994 net.cpp:156] Memory required for data: 1134062880
I0403 15:43:53.908905 15994 layer_factory.hpp:77] Creating layer inception_4d/relu_5x5
I0403 15:43:53.908939 15994 net.cpp:91] Creating Layer inception_4d/relu_5x5
I0403 15:43:53.908967 15994 net.cpp:425] inception_4d/relu_5x5 <- inception_4d/5x5
I0403 15:43:53.908985 15994 net.cpp:386] inception_4d/relu_5x5 -> inception_4d/5x5 (in-place)
I0403 15:43:53.909277 15994 net.cpp:141] Setting up inception_4d/relu_5x5
I0403 15:43:53.909304 15994 net.cpp:148] Top shape: 24 64 14 14 (301056)
I0403 15:43:53.909319 15994 net.cpp:156] Memory required for data: 1135267104
I0403 15:43:53.909333 15994 layer_factory.hpp:77] Creating layer inception_4d/pool
I0403 15:43:53.909350 15994 net.cpp:91] Creating Layer inception_4d/pool
I0403 15:43:53.909365 15994 net.cpp:425] inception_4d/pool <- inception_4c/output_inception_4c/output_0_split_3
I0403 15:43:53.909384 15994 net.cpp:399] inception_4d/pool -> inception_4d/pool
I0403 15:43:53.909449 15994 net.cpp:141] Setting up inception_4d/pool
I0403 15:43:53.909474 15994 net.cpp:148] Top shape: 24 512 14 14 (2408448)
I0403 15:43:53.909487 15994 net.cpp:156] Memory required for data: 1144900896
I0403 15:43:53.909500 15994 layer_factory.hpp:77] Creating layer inception_4d/pool_proj
I0403 15:43:53.909523 15994 net.cpp:91] Creating Layer inception_4d/pool_proj
I0403 15:43:53.909543 15994 net.cpp:425] inception_4d/pool_proj <- inception_4d/pool
I0403 15:43:53.909562 15994 net.cpp:399] inception_4d/pool_proj -> inception_4d/pool_proj
I0403 15:43:53.911339 15994 net.cpp:141] Setting up inception_4d/pool_proj
I0403 15:43:53.911371 15994 net.cpp:148] Top shape: 24 64 14 14 (301056)
I0403 15:43:53.911388 15994 net.cpp:156] Memory required for data: 1146105120
I0403 15:43:53.911406 15994 layer_factory.hpp:77] Creating layer inception_4d/relu_pool_proj
I0403 15:43:53.911425 15994 net.cpp:91] Creating Layer inception_4d/relu_pool_proj
I0403 15:43:53.911442 15994 net.cpp:425] inception_4d/relu_pool_proj <- inception_4d/pool_proj
I0403 15:43:53.911461 15994 net.cpp:386] inception_4d/relu_pool_proj -> inception_4d/pool_proj (in-place)
I0403 15:43:53.911654 15994 net.cpp:141] Setting up inception_4d/relu_pool_proj
I0403 15:43:53.911680 15994 net.cpp:148] Top shape: 24 64 14 14 (301056)
I0403 15:43:53.911695 15994 net.cpp:156] Memory required for data: 1147309344
I0403 15:43:53.911711 15994 layer_factory.hpp:77] Creating layer inception_4d/output
I0403 15:43:53.911727 15994 net.cpp:91] Creating Layer inception_4d/output
I0403 15:43:53.911743 15994 net.cpp:425] inception_4d/output <- inception_4d/1x1
I0403 15:43:53.911761 15994 net.cpp:425] inception_4d/output <- inception_4d/3x3
I0403 15:43:53.911777 15994 net.cpp:425] inception_4d/output <- inception_4d/5x5
I0403 15:43:53.911792 15994 net.cpp:425] inception_4d/output <- inception_4d/pool_proj
I0403 15:43:53.911811 15994 net.cpp:399] inception_4d/output -> inception_4d/output
I0403 15:43:53.911857 15994 net.cpp:141] Setting up inception_4d/output
I0403 15:43:53.911882 15994 net.cpp:148] Top shape: 24 528 14 14 (2483712)
I0403 15:43:53.911897 15994 net.cpp:156] Memory required for data: 1157244192
I0403 15:43:53.911911 15994 layer_factory.hpp:77] Creating layer inception_4d/output_inception_4d/output_0_split
I0403 15:43:53.911928 15994 net.cpp:91] Creating Layer inception_4d/output_inception_4d/output_0_split
I0403 15:43:53.911943 15994 net.cpp:425] inception_4d/output_inception_4d/output_0_split <- inception_4d/output
I0403 15:43:53.911959 15994 net.cpp:399] inception_4d/output_inception_4d/output_0_split -> inception_4d/output_inception_4d/output_0_split_0
I0403 15:43:53.911981 15994 net.cpp:399] inception_4d/output_inception_4d/output_0_split -> inception_4d/output_inception_4d/output_0_split_1
I0403 15:43:53.912003 15994 net.cpp:399] inception_4d/output_inception_4d/output_0_split -> inception_4d/output_inception_4d/output_0_split_2
I0403 15:43:53.912024 15994 net.cpp:399] inception_4d/output_inception_4d/output_0_split -> inception_4d/output_inception_4d/output_0_split_3
I0403 15:43:53.912044 15994 net.cpp:399] inception_4d/output_inception_4d/output_0_split -> inception_4d/output_inception_4d/output_0_split_4
I0403 15:43:53.912142 15994 net.cpp:141] Setting up inception_4d/output_inception_4d/output_0_split
I0403 15:43:53.912178 15994 net.cpp:148] Top shape: 24 528 14 14 (2483712)
I0403 15:43:53.912194 15994 net.cpp:148] Top shape: 24 528 14 14 (2483712)
I0403 15:43:53.912216 15994 net.cpp:148] Top shape: 24 528 14 14 (2483712)
I0403 15:43:53.912231 15994 net.cpp:148] Top shape: 24 528 14 14 (2483712)
I0403 15:43:53.912245 15994 net.cpp:148] Top shape: 24 528 14 14 (2483712)
I0403 15:43:53.912259 15994 net.cpp:156] Memory required for data: 1206918432
I0403 15:43:53.912273 15994 layer_factory.hpp:77] Creating layer loss2/ave_pool
I0403 15:43:53.912289 15994 net.cpp:91] Creating Layer loss2/ave_pool
I0403 15:43:53.912304 15994 net.cpp:425] loss2/ave_pool <- inception_4d/output_inception_4d/output_0_split_0
I0403 15:43:53.912322 15994 net.cpp:399] loss2/ave_pool -> loss2/ave_pool
I0403 15:43:53.912647 15994 net.cpp:141] Setting up loss2/ave_pool
I0403 15:43:53.912677 15994 net.cpp:148] Top shape: 24 528 4 4 (202752)
I0403 15:43:53.912691 15994 net.cpp:156] Memory required for data: 1207729440
I0403 15:43:53.912706 15994 layer_factory.hpp:77] Creating layer loss2/conv
I0403 15:43:53.912729 15994 net.cpp:91] Creating Layer loss2/conv
I0403 15:43:53.912747 15994 net.cpp:425] loss2/conv <- loss2/ave_pool
I0403 15:43:53.912765 15994 net.cpp:399] loss2/conv -> loss2/conv
I0403 15:43:53.914753 15994 net.cpp:141] Setting up loss2/conv
I0403 15:43:53.914783 15994 net.cpp:148] Top shape: 24 128 4 4 (49152)
I0403 15:43:53.914800 15994 net.cpp:156] Memory required for data: 1207926048
I0403 15:43:53.914819 15994 layer_factory.hpp:77] Creating layer loss2/relu_conv
I0403 15:43:53.914849 15994 net.cpp:91] Creating Layer loss2/relu_conv
I0403 15:43:53.914865 15994 net.cpp:425] loss2/relu_conv <- loss2/conv
I0403 15:43:53.914890 15994 net.cpp:386] loss2/relu_conv -> loss2/conv (in-place)
I0403 15:43:53.915175 15994 net.cpp:141] Setting up loss2/relu_conv
I0403 15:43:53.915201 15994 net.cpp:148] Top shape: 24 128 4 4 (49152)
I0403 15:43:53.915216 15994 net.cpp:156] Memory required for data: 1208122656
I0403 15:43:53.915230 15994 layer_factory.hpp:77] Creating layer loss2/fc
I0403 15:43:53.915248 15994 net.cpp:91] Creating Layer loss2/fc
I0403 15:43:53.915263 15994 net.cpp:425] loss2/fc <- loss2/conv
I0403 15:43:53.915283 15994 net.cpp:399] loss2/fc -> loss2/fc
I0403 15:43:53.932790 15994 net.cpp:141] Setting up loss2/fc
I0403 15:43:53.932821 15994 net.cpp:148] Top shape: 24 1024 (24576)
I0403 15:43:53.932837 15994 net.cpp:156] Memory required for data: 1208220960
I0403 15:43:53.932857 15994 layer_factory.hpp:77] Creating layer loss2/relu_fc
I0403 15:43:53.932874 15994 net.cpp:91] Creating Layer loss2/relu_fc
I0403 15:43:53.932890 15994 net.cpp:425] loss2/relu_fc <- loss2/fc
I0403 15:43:53.932907 15994 net.cpp:386] loss2/relu_fc -> loss2/fc (in-place)
I0403 15:43:53.933200 15994 net.cpp:141] Setting up loss2/relu_fc
I0403 15:43:53.933228 15994 net.cpp:148] Top shape: 24 1024 (24576)
I0403 15:43:53.933243 15994 net.cpp:156] Memory required for data: 1208319264
I0403 15:43:53.933256 15994 layer_factory.hpp:77] Creating layer loss2/drop_fc
I0403 15:43:53.933272 15994 net.cpp:91] Creating Layer loss2/drop_fc
I0403 15:43:53.933289 15994 net.cpp:425] loss2/drop_fc <- loss2/fc
I0403 15:43:53.933305 15994 net.cpp:386] loss2/drop_fc -> loss2/fc (in-place)
I0403 15:43:53.933353 15994 net.cpp:141] Setting up loss2/drop_fc
I0403 15:43:53.933377 15994 net.cpp:148] Top shape: 24 1024 (24576)
I0403 15:43:53.933390 15994 net.cpp:156] Memory required for data: 1208417568
I0403 15:43:53.933403 15994 layer_factory.hpp:77] Creating layer loss2/classifier_plantvillage
I0403 15:43:53.933423 15994 net.cpp:91] Creating Layer loss2/classifier_plantvillage
I0403 15:43:53.933437 15994 net.cpp:425] loss2/classifier_plantvillage <- loss2/fc
I0403 15:43:53.933455 15994 net.cpp:399] loss2/classifier_plantvillage -> loss2/classifier_plantvillage
I0403 15:43:53.933853 15994 net.cpp:141] Setting up loss2/classifier_plantvillage
I0403 15:43:53.933878 15994 net.cpp:148] Top shape: 24 38 (912)
I0403 15:43:53.933892 15994 net.cpp:156] Memory required for data: 1208421216
I0403 15:43:53.933926 15994 layer_factory.hpp:77] Creating layer loss2/classifier_plantvillage_loss2/classifier_plantvillage_0_split
I0403 15:43:53.933944 15994 net.cpp:91] Creating Layer loss2/classifier_plantvillage_loss2/classifier_plantvillage_0_split
I0403 15:43:53.933959 15994 net.cpp:425] loss2/classifier_plantvillage_loss2/classifier_plantvillage_0_split <- loss2/classifier_plantvillage
I0403 15:43:53.933979 15994 net.cpp:399] loss2/classifier_plantvillage_loss2/classifier_plantvillage_0_split -> loss2/classifier_plantvillage_loss2/classifier_plantvillage_0_split_0
I0403 15:43:53.934000 15994 net.cpp:399] loss2/classifier_plantvillage_loss2/classifier_plantvillage_0_split -> loss2/classifier_plantvillage_loss2/classifier_plantvillage_0_split_1
I0403 15:43:53.934018 15994 net.cpp:399] loss2/classifier_plantvillage_loss2/classifier_plantvillage_0_split -> loss2/classifier_plantvillage_loss2/classifier_plantvillage_0_split_2
I0403 15:43:53.934094 15994 net.cpp:141] Setting up loss2/classifier_plantvillage_loss2/classifier_plantvillage_0_split
I0403 15:43:53.934116 15994 net.cpp:148] Top shape: 24 38 (912)
I0403 15:43:53.934131 15994 net.cpp:148] Top shape: 24 38 (912)
I0403 15:43:53.934145 15994 net.cpp:148] Top shape: 24 38 (912)
I0403 15:43:53.934159 15994 net.cpp:156] Memory required for data: 1208432160
I0403 15:43:53.934171 15994 layer_factory.hpp:77] Creating layer inception_4e/1x1
I0403 15:43:53.934192 15994 net.cpp:91] Creating Layer inception_4e/1x1
I0403 15:43:53.934209 15994 net.cpp:425] inception_4e/1x1 <- inception_4d/output_inception_4d/output_0_split_1
I0403 15:43:53.934226 15994 net.cpp:399] inception_4e/1x1 -> inception_4e/1x1
I0403 15:43:53.936040 15994 net.cpp:141] Setting up inception_4e/1x1
I0403 15:43:53.936069 15994 net.cpp:148] Top shape: 24 256 14 14 (1204224)
I0403 15:43:53.936084 15994 net.cpp:156] Memory required for data: 1213249056
I0403 15:43:53.936102 15994 layer_factory.hpp:77] Creating layer inception_4e/relu_1x1
I0403 15:43:53.936122 15994 net.cpp:91] Creating Layer inception_4e/relu_1x1
I0403 15:43:53.936139 15994 net.cpp:425] inception_4e/relu_1x1 <- inception_4e/1x1
I0403 15:43:53.936157 15994 net.cpp:386] inception_4e/relu_1x1 -> inception_4e/1x1 (in-place)
I0403 15:43:53.936455 15994 net.cpp:141] Setting up inception_4e/relu_1x1
I0403 15:43:53.936481 15994 net.cpp:148] Top shape: 24 256 14 14 (1204224)
I0403 15:43:53.936496 15994 net.cpp:156] Memory required for data: 1218065952
I0403 15:43:53.936508 15994 layer_factory.hpp:77] Creating layer inception_4e/3x3_reduce
I0403 15:43:53.936530 15994 net.cpp:91] Creating Layer inception_4e/3x3_reduce
I0403 15:43:53.936552 15994 net.cpp:425] inception_4e/3x3_reduce <- inception_4d/output_inception_4d/output_0_split_2
I0403 15:43:53.936573 15994 net.cpp:399] inception_4e/3x3_reduce -> inception_4e/3x3_reduce
I0403 15:43:53.938668 15994 net.cpp:141] Setting up inception_4e/3x3_reduce
I0403 15:43:53.938697 15994 net.cpp:148] Top shape: 24 160 14 14 (752640)
I0403 15:43:53.938714 15994 net.cpp:156] Memory required for data: 1221076512
I0403 15:43:53.938732 15994 layer_factory.hpp:77] Creating layer inception_4e/relu_3x3_reduce
I0403 15:43:53.938751 15994 net.cpp:91] Creating Layer inception_4e/relu_3x3_reduce
I0403 15:43:53.938768 15994 net.cpp:425] inception_4e/relu_3x3_reduce <- inception_4e/3x3_reduce
I0403 15:43:53.938789 15994 net.cpp:386] inception_4e/relu_3x3_reduce -> inception_4e/3x3_reduce (in-place)
I0403 15:43:53.938982 15994 net.cpp:141] Setting up inception_4e/relu_3x3_reduce
I0403 15:43:53.939007 15994 net.cpp:148] Top shape: 24 160 14 14 (752640)
I0403 15:43:53.939020 15994 net.cpp:156] Memory required for data: 1224087072
I0403 15:43:53.939034 15994 layer_factory.hpp:77] Creating layer inception_4e/3x3
I0403 15:43:53.939054 15994 net.cpp:91] Creating Layer inception_4e/3x3
I0403 15:43:53.939071 15994 net.cpp:425] inception_4e/3x3 <- inception_4e/3x3_reduce
I0403 15:43:53.939090 15994 net.cpp:399] inception_4e/3x3 -> inception_4e/3x3
I0403 15:43:53.944044 15994 net.cpp:141] Setting up inception_4e/3x3
I0403 15:43:53.944085 15994 net.cpp:148] Top shape: 24 320 14 14 (1505280)
I0403 15:43:53.944103 15994 net.cpp:156] Memory required for data: 1230108192
I0403 15:43:53.944120 15994 layer_factory.hpp:77] Creating layer inception_4e/relu_3x3
I0403 15:43:53.944140 15994 net.cpp:91] Creating Layer inception_4e/relu_3x3
I0403 15:43:53.944157 15994 net.cpp:425] inception_4e/relu_3x3 <- inception_4e/3x3
I0403 15:43:53.944174 15994 net.cpp:386] inception_4e/relu_3x3 -> inception_4e/3x3 (in-place)
I0403 15:43:53.944466 15994 net.cpp:141] Setting up inception_4e/relu_3x3
I0403 15:43:53.944494 15994 net.cpp:148] Top shape: 24 320 14 14 (1505280)
I0403 15:43:53.944509 15994 net.cpp:156] Memory required for data: 1236129312
I0403 15:43:53.944524 15994 layer_factory.hpp:77] Creating layer inception_4e/5x5_reduce
I0403 15:43:53.944555 15994 net.cpp:91] Creating Layer inception_4e/5x5_reduce
I0403 15:43:53.944574 15994 net.cpp:425] inception_4e/5x5_reduce <- inception_4d/output_inception_4d/output_0_split_3
I0403 15:43:53.944593 15994 net.cpp:399] inception_4e/5x5_reduce -> inception_4e/5x5_reduce
I0403 15:43:53.945643 15994 net.cpp:141] Setting up inception_4e/5x5_reduce
I0403 15:43:53.945672 15994 net.cpp:148] Top shape: 24 32 14 14 (150528)
I0403 15:43:53.945688 15994 net.cpp:156] Memory required for data: 1236731424
I0403 15:43:53.945705 15994 layer_factory.hpp:77] Creating layer inception_4e/relu_5x5_reduce
I0403 15:43:53.945724 15994 net.cpp:91] Creating Layer inception_4e/relu_5x5_reduce
I0403 15:43:53.945740 15994 net.cpp:425] inception_4e/relu_5x5_reduce <- inception_4e/5x5_reduce
I0403 15:43:53.945756 15994 net.cpp:386] inception_4e/relu_5x5_reduce -> inception_4e/5x5_reduce (in-place)
I0403 15:43:53.946046 15994 net.cpp:141] Setting up inception_4e/relu_5x5_reduce
I0403 15:43:53.946071 15994 net.cpp:148] Top shape: 24 32 14 14 (150528)
I0403 15:43:53.946085 15994 net.cpp:156] Memory required for data: 1237333536
I0403 15:43:53.946099 15994 layer_factory.hpp:77] Creating layer inception_4e/5x5
I0403 15:43:53.946136 15994 net.cpp:91] Creating Layer inception_4e/5x5
I0403 15:43:53.946156 15994 net.cpp:425] inception_4e/5x5 <- inception_4e/5x5_reduce
I0403 15:43:53.946173 15994 net.cpp:399] inception_4e/5x5 -> inception_4e/5x5
I0403 15:43:53.948045 15994 net.cpp:141] Setting up inception_4e/5x5
I0403 15:43:53.948073 15994 net.cpp:148] Top shape: 24 128 14 14 (602112)
I0403 15:43:53.948088 15994 net.cpp:156] Memory required for data: 1239741984
I0403 15:43:53.948107 15994 layer_factory.hpp:77] Creating layer inception_4e/relu_5x5
I0403 15:43:53.948125 15994 net.cpp:91] Creating Layer inception_4e/relu_5x5
I0403 15:43:53.948139 15994 net.cpp:425] inception_4e/relu_5x5 <- inception_4e/5x5
I0403 15:43:53.948158 15994 net.cpp:386] inception_4e/relu_5x5 -> inception_4e/5x5 (in-place)
I0403 15:43:53.948350 15994 net.cpp:141] Setting up inception_4e/relu_5x5
I0403 15:43:53.948374 15994 net.cpp:148] Top shape: 24 128 14 14 (602112)
I0403 15:43:53.948388 15994 net.cpp:156] Memory required for data: 1242150432
I0403 15:43:53.948401 15994 layer_factory.hpp:77] Creating layer inception_4e/pool
I0403 15:43:53.948420 15994 net.cpp:91] Creating Layer inception_4e/pool
I0403 15:43:53.948434 15994 net.cpp:425] inception_4e/pool <- inception_4d/output_inception_4d/output_0_split_4
I0403 15:43:53.948457 15994 net.cpp:399] inception_4e/pool -> inception_4e/pool
I0403 15:43:53.948525 15994 net.cpp:141] Setting up inception_4e/pool
I0403 15:43:53.948552 15994 net.cpp:148] Top shape: 24 528 14 14 (2483712)
I0403 15:43:53.948567 15994 net.cpp:156] Memory required for data: 1252085280
I0403 15:43:53.948585 15994 layer_factory.hpp:77] Creating layer inception_4e/pool_proj
I0403 15:43:53.948607 15994 net.cpp:91] Creating Layer inception_4e/pool_proj
I0403 15:43:53.948623 15994 net.cpp:425] inception_4e/pool_proj <- inception_4e/pool
I0403 15:43:53.948642 15994 net.cpp:399] inception_4e/pool_proj -> inception_4e/pool_proj
I0403 15:43:53.950170 15994 net.cpp:141] Setting up inception_4e/pool_proj
I0403 15:43:53.950201 15994 net.cpp:148] Top shape: 24 128 14 14 (602112)
I0403 15:43:53.950232 15994 net.cpp:156] Memory required for data: 1254493728
I0403 15:43:53.950250 15994 layer_factory.hpp:77] Creating layer inception_4e/relu_pool_proj
I0403 15:43:53.950268 15994 net.cpp:91] Creating Layer inception_4e/relu_pool_proj
I0403 15:43:53.950284 15994 net.cpp:425] inception_4e/relu_pool_proj <- inception_4e/pool_proj
I0403 15:43:53.950304 15994 net.cpp:386] inception_4e/relu_pool_proj -> inception_4e/pool_proj (in-place)
I0403 15:43:53.950616 15994 net.cpp:141] Setting up inception_4e/relu_pool_proj
I0403 15:43:53.950645 15994 net.cpp:148] Top shape: 24 128 14 14 (602112)
I0403 15:43:53.950661 15994 net.cpp:156] Memory required for data: 1256902176
I0403 15:43:53.950676 15994 layer_factory.hpp:77] Creating layer inception_4e/output
I0403 15:43:53.950693 15994 net.cpp:91] Creating Layer inception_4e/output
I0403 15:43:53.950708 15994 net.cpp:425] inception_4e/output <- inception_4e/1x1
I0403 15:43:53.950724 15994 net.cpp:425] inception_4e/output <- inception_4e/3x3
I0403 15:43:53.950741 15994 net.cpp:425] inception_4e/output <- inception_4e/5x5
I0403 15:43:53.950757 15994 net.cpp:425] inception_4e/output <- inception_4e/pool_proj
I0403 15:43:53.950774 15994 net.cpp:399] inception_4e/output -> inception_4e/output
I0403 15:43:53.950827 15994 net.cpp:141] Setting up inception_4e/output
I0403 15:43:53.950862 15994 net.cpp:148] Top shape: 24 832 14 14 (3913728)
I0403 15:43:53.950876 15994 net.cpp:156] Memory required for data: 1272557088
I0403 15:43:53.950891 15994 layer_factory.hpp:77] Creating layer pool4/3x3_s2
I0403 15:43:53.950909 15994 net.cpp:91] Creating Layer pool4/3x3_s2
I0403 15:43:53.950925 15994 net.cpp:425] pool4/3x3_s2 <- inception_4e/output
I0403 15:43:53.950944 15994 net.cpp:399] pool4/3x3_s2 -> pool4/3x3_s2
I0403 15:43:53.951014 15994 net.cpp:141] Setting up pool4/3x3_s2
I0403 15:43:53.951038 15994 net.cpp:148] Top shape: 24 832 7 7 (978432)
I0403 15:43:53.951052 15994 net.cpp:156] Memory required for data: 1276470816
I0403 15:43:53.951066 15994 layer_factory.hpp:77] Creating layer pool4/3x3_s2_pool4/3x3_s2_0_split
I0403 15:43:53.951082 15994 net.cpp:91] Creating Layer pool4/3x3_s2_pool4/3x3_s2_0_split
I0403 15:43:53.951097 15994 net.cpp:425] pool4/3x3_s2_pool4/3x3_s2_0_split <- pool4/3x3_s2
I0403 15:43:53.951117 15994 net.cpp:399] pool4/3x3_s2_pool4/3x3_s2_0_split -> pool4/3x3_s2_pool4/3x3_s2_0_split_0
I0403 15:43:53.951138 15994 net.cpp:399] pool4/3x3_s2_pool4/3x3_s2_0_split -> pool4/3x3_s2_pool4/3x3_s2_0_split_1
I0403 15:43:53.951158 15994 net.cpp:399] pool4/3x3_s2_pool4/3x3_s2_0_split -> pool4/3x3_s2_pool4/3x3_s2_0_split_2
I0403 15:43:53.951176 15994 net.cpp:399] pool4/3x3_s2_pool4/3x3_s2_0_split -> pool4/3x3_s2_pool4/3x3_s2_0_split_3
I0403 15:43:53.951267 15994 net.cpp:141] Setting up pool4/3x3_s2_pool4/3x3_s2_0_split
I0403 15:43:53.951292 15994 net.cpp:148] Top shape: 24 832 7 7 (978432)
I0403 15:43:53.951309 15994 net.cpp:148] Top shape: 24 832 7 7 (978432)
I0403 15:43:53.951325 15994 net.cpp:148] Top shape: 24 832 7 7 (978432)
I0403 15:43:53.951339 15994 net.cpp:148] Top shape: 24 832 7 7 (978432)
I0403 15:43:53.951352 15994 net.cpp:156] Memory required for data: 1292125728
I0403 15:43:53.951366 15994 layer_factory.hpp:77] Creating layer inception_5a/1x1
I0403 15:43:53.951388 15994 net.cpp:91] Creating Layer inception_5a/1x1
I0403 15:43:53.951406 15994 net.cpp:425] inception_5a/1x1 <- pool4/3x3_s2_pool4/3x3_s2_0_split_0
I0403 15:43:53.951426 15994 net.cpp:399] inception_5a/1x1 -> inception_5a/1x1
I0403 15:43:53.954308 15994 net.cpp:141] Setting up inception_5a/1x1
I0403 15:43:53.954339 15994 net.cpp:148] Top shape: 24 256 7 7 (301056)
I0403 15:43:53.954355 15994 net.cpp:156] Memory required for data: 1293329952
I0403 15:43:53.954373 15994 layer_factory.hpp:77] Creating layer inception_5a/relu_1x1
I0403 15:43:53.954391 15994 net.cpp:91] Creating Layer inception_5a/relu_1x1
I0403 15:43:53.954407 15994 net.cpp:425] inception_5a/relu_1x1 <- inception_5a/1x1
I0403 15:43:53.954427 15994 net.cpp:386] inception_5a/relu_1x1 -> inception_5a/1x1 (in-place)
I0403 15:43:53.954773 15994 net.cpp:141] Setting up inception_5a/relu_1x1
I0403 15:43:53.954802 15994 net.cpp:148] Top shape: 24 256 7 7 (301056)
I0403 15:43:53.954818 15994 net.cpp:156] Memory required for data: 1294534176
I0403 15:43:53.954833 15994 layer_factory.hpp:77] Creating layer inception_5a/3x3_reduce
I0403 15:43:53.954867 15994 net.cpp:91] Creating Layer inception_5a/3x3_reduce
I0403 15:43:53.954885 15994 net.cpp:425] inception_5a/3x3_reduce <- pool4/3x3_s2_pool4/3x3_s2_0_split_1
I0403 15:43:53.954907 15994 net.cpp:399] inception_5a/3x3_reduce -> inception_5a/3x3_reduce
I0403 15:43:53.957417 15994 net.cpp:141] Setting up inception_5a/3x3_reduce
I0403 15:43:53.957448 15994 net.cpp:148] Top shape: 24 160 7 7 (188160)
I0403 15:43:53.957464 15994 net.cpp:156] Memory required for data: 1295286816
I0403 15:43:53.957484 15994 layer_factory.hpp:77] Creating layer inception_5a/relu_3x3_reduce
I0403 15:43:53.957504 15994 net.cpp:91] Creating Layer inception_5a/relu_3x3_reduce
I0403 15:43:53.957522 15994 net.cpp:425] inception_5a/relu_3x3_reduce <- inception_5a/3x3_reduce
I0403 15:43:53.957545 15994 net.cpp:386] inception_5a/relu_3x3_reduce -> inception_5a/3x3_reduce (in-place)
I0403 15:43:53.957738 15994 net.cpp:141] Setting up inception_5a/relu_3x3_reduce
I0403 15:43:53.957768 15994 net.cpp:148] Top shape: 24 160 7 7 (188160)
I0403 15:43:53.957785 15994 net.cpp:156] Memory required for data: 1296039456
I0403 15:43:53.957801 15994 layer_factory.hpp:77] Creating layer inception_5a/3x3
I0403 15:43:53.957825 15994 net.cpp:91] Creating Layer inception_5a/3x3
I0403 15:43:53.957842 15994 net.cpp:425] inception_5a/3x3 <- inception_5a/3x3_reduce
I0403 15:43:53.957866 15994 net.cpp:399] inception_5a/3x3 -> inception_5a/3x3
I0403 15:43:53.962996 15994 net.cpp:141] Setting up inception_5a/3x3
I0403 15:43:53.963029 15994 net.cpp:148] Top shape: 24 320 7 7 (376320)
I0403 15:43:53.963045 15994 net.cpp:156] Memory required for data: 1297544736
I0403 15:43:53.963064 15994 layer_factory.hpp:77] Creating layer inception_5a/relu_3x3
I0403 15:43:53.963084 15994 net.cpp:91] Creating Layer inception_5a/relu_3x3
I0403 15:43:53.963101 15994 net.cpp:425] inception_5a/relu_3x3 <- inception_5a/3x3
I0403 15:43:53.963120 15994 net.cpp:386] inception_5a/relu_3x3 -> inception_5a/3x3 (in-place)
I0403 15:43:53.963419 15994 net.cpp:141] Setting up inception_5a/relu_3x3
I0403 15:43:53.963449 15994 net.cpp:148] Top shape: 24 320 7 7 (376320)
I0403 15:43:53.963465 15994 net.cpp:156] Memory required for data: 1299050016
I0403 15:43:53.963480 15994 layer_factory.hpp:77] Creating layer inception_5a/5x5_reduce
I0403 15:43:53.963506 15994 net.cpp:91] Creating Layer inception_5a/5x5_reduce
I0403 15:43:53.963526 15994 net.cpp:425] inception_5a/5x5_reduce <- pool4/3x3_s2_pool4/3x3_s2_0_split_2
I0403 15:43:53.963551 15994 net.cpp:399] inception_5a/5x5_reduce -> inception_5a/5x5_reduce
I0403 15:43:53.964756 15994 net.cpp:141] Setting up inception_5a/5x5_reduce
I0403 15:43:53.964786 15994 net.cpp:148] Top shape: 24 32 7 7 (37632)
I0403 15:43:53.964802 15994 net.cpp:156] Memory required for data: 1299200544
I0403 15:43:53.964821 15994 layer_factory.hpp:77] Creating layer inception_5a/relu_5x5_reduce
I0403 15:43:53.964838 15994 net.cpp:91] Creating Layer inception_5a/relu_5x5_reduce
I0403 15:43:53.964855 15994 net.cpp:425] inception_5a/relu_5x5_reduce <- inception_5a/5x5_reduce
I0403 15:43:53.964875 15994 net.cpp:386] inception_5a/relu_5x5_reduce -> inception_5a/5x5_reduce (in-place)
I0403 15:43:53.965179 15994 net.cpp:141] Setting up inception_5a/relu_5x5_reduce
I0403 15:43:53.965206 15994 net.cpp:148] Top shape: 24 32 7 7 (37632)
I0403 15:43:53.965221 15994 net.cpp:156] Memory required for data: 1299351072
I0403 15:43:53.965236 15994 layer_factory.hpp:77] Creating layer inception_5a/5x5
I0403 15:43:53.965260 15994 net.cpp:91] Creating Layer inception_5a/5x5
I0403 15:43:53.965279 15994 net.cpp:425] inception_5a/5x5 <- inception_5a/5x5_reduce
I0403 15:43:53.965303 15994 net.cpp:399] inception_5a/5x5 -> inception_5a/5x5
I0403 15:43:53.967080 15994 net.cpp:141] Setting up inception_5a/5x5
I0403 15:43:53.967133 15994 net.cpp:148] Top shape: 24 128 7 7 (150528)
I0403 15:43:53.967151 15994 net.cpp:156] Memory required for data: 1299953184
I0403 15:43:53.967170 15994 layer_factory.hpp:77] Creating layer inception_5a/relu_5x5
I0403 15:43:53.967190 15994 net.cpp:91] Creating Layer inception_5a/relu_5x5
I0403 15:43:53.967205 15994 net.cpp:425] inception_5a/relu_5x5 <- inception_5a/5x5
I0403 15:43:53.967223 15994 net.cpp:386] inception_5a/relu_5x5 -> inception_5a/5x5 (in-place)
I0403 15:43:53.967417 15994 net.cpp:141] Setting up inception_5a/relu_5x5
I0403 15:43:53.967444 15994 net.cpp:148] Top shape: 24 128 7 7 (150528)
I0403 15:43:53.967459 15994 net.cpp:156] Memory required for data: 1300555296
I0403 15:43:53.967475 15994 layer_factory.hpp:77] Creating layer inception_5a/pool
I0403 15:43:53.967494 15994 net.cpp:91] Creating Layer inception_5a/pool
I0403 15:43:53.967509 15994 net.cpp:425] inception_5a/pool <- pool4/3x3_s2_pool4/3x3_s2_0_split_3
I0403 15:43:53.967530 15994 net.cpp:399] inception_5a/pool -> inception_5a/pool
I0403 15:43:53.967604 15994 net.cpp:141] Setting up inception_5a/pool
I0403 15:43:53.967628 15994 net.cpp:148] Top shape: 24 832 7 7 (978432)
I0403 15:43:53.967643 15994 net.cpp:156] Memory required for data: 1304469024
I0403 15:43:53.967656 15994 layer_factory.hpp:77] Creating layer inception_5a/pool_proj
I0403 15:43:53.967682 15994 net.cpp:91] Creating Layer inception_5a/pool_proj
I0403 15:43:53.967700 15994 net.cpp:425] inception_5a/pool_proj <- inception_5a/pool
I0403 15:43:53.967720 15994 net.cpp:399] inception_5a/pool_proj -> inception_5a/pool_proj
I0403 15:43:53.970036 15994 net.cpp:141] Setting up inception_5a/pool_proj
I0403 15:43:53.970069 15994 net.cpp:148] Top shape: 24 128 7 7 (150528)
I0403 15:43:53.970087 15994 net.cpp:156] Memory required for data: 1305071136
I0403 15:43:53.970104 15994 layer_factory.hpp:77] Creating layer inception_5a/relu_pool_proj
I0403 15:43:53.970124 15994 net.cpp:91] Creating Layer inception_5a/relu_pool_proj
I0403 15:43:53.970140 15994 net.cpp:425] inception_5a/relu_pool_proj <- inception_5a/pool_proj
I0403 15:43:53.970157 15994 net.cpp:386] inception_5a/relu_pool_proj -> inception_5a/pool_proj (in-place)
I0403 15:43:53.970458 15994 net.cpp:141] Setting up inception_5a/relu_pool_proj
I0403 15:43:53.970487 15994 net.cpp:148] Top shape: 24 128 7 7 (150528)
I0403 15:43:53.970505 15994 net.cpp:156] Memory required for data: 1305673248
I0403 15:43:53.970520 15994 layer_factory.hpp:77] Creating layer inception_5a/output
I0403 15:43:53.970542 15994 net.cpp:91] Creating Layer inception_5a/output
I0403 15:43:53.970573 15994 net.cpp:425] inception_5a/output <- inception_5a/1x1
I0403 15:43:53.970592 15994 net.cpp:425] inception_5a/output <- inception_5a/3x3
I0403 15:43:53.970608 15994 net.cpp:425] inception_5a/output <- inception_5a/5x5
I0403 15:43:53.970626 15994 net.cpp:425] inception_5a/output <- inception_5a/pool_proj
I0403 15:43:53.970643 15994 net.cpp:399] inception_5a/output -> inception_5a/output
I0403 15:43:53.970696 15994 net.cpp:141] Setting up inception_5a/output
I0403 15:43:53.970721 15994 net.cpp:148] Top shape: 24 832 7 7 (978432)
I0403 15:43:53.970734 15994 net.cpp:156] Memory required for data: 1309586976
I0403 15:43:53.970748 15994 layer_factory.hpp:77] Creating layer inception_5a/output_inception_5a/output_0_split
I0403 15:43:53.970768 15994 net.cpp:91] Creating Layer inception_5a/output_inception_5a/output_0_split
I0403 15:43:53.970784 15994 net.cpp:425] inception_5a/output_inception_5a/output_0_split <- inception_5a/output
I0403 15:43:53.970803 15994 net.cpp:399] inception_5a/output_inception_5a/output_0_split -> inception_5a/output_inception_5a/output_0_split_0
I0403 15:43:53.970829 15994 net.cpp:399] inception_5a/output_inception_5a/output_0_split -> inception_5a/output_inception_5a/output_0_split_1
I0403 15:43:53.970860 15994 net.cpp:399] inception_5a/output_inception_5a/output_0_split -> inception_5a/output_inception_5a/output_0_split_2
I0403 15:43:53.970890 15994 net.cpp:399] inception_5a/output_inception_5a/output_0_split -> inception_5a/output_inception_5a/output_0_split_3
I0403 15:43:53.971002 15994 net.cpp:141] Setting up inception_5a/output_inception_5a/output_0_split
I0403 15:43:53.971025 15994 net.cpp:148] Top shape: 24 832 7 7 (978432)
I0403 15:43:53.971042 15994 net.cpp:148] Top shape: 24 832 7 7 (978432)
I0403 15:43:53.971056 15994 net.cpp:148] Top shape: 24 832 7 7 (978432)
I0403 15:43:53.971071 15994 net.cpp:148] Top shape: 24 832 7 7 (978432)
I0403 15:43:53.971083 15994 net.cpp:156] Memory required for data: 1325241888
I0403 15:43:53.971097 15994 layer_factory.hpp:77] Creating layer inception_5b/1x1
I0403 15:43:53.971119 15994 net.cpp:91] Creating Layer inception_5b/1x1
I0403 15:43:53.971137 15994 net.cpp:425] inception_5b/1x1 <- inception_5a/output_inception_5a/output_0_split_0
I0403 15:43:53.971156 15994 net.cpp:399] inception_5b/1x1 -> inception_5b/1x1
I0403 15:43:53.975019 15994 net.cpp:141] Setting up inception_5b/1x1
I0403 15:43:53.975049 15994 net.cpp:148] Top shape: 24 384 7 7 (451584)
I0403 15:43:53.975065 15994 net.cpp:156] Memory required for data: 1327048224
I0403 15:43:53.975083 15994 layer_factory.hpp:77] Creating layer inception_5b/relu_1x1
I0403 15:43:53.975105 15994 net.cpp:91] Creating Layer inception_5b/relu_1x1
I0403 15:43:53.975121 15994 net.cpp:425] inception_5b/relu_1x1 <- inception_5b/1x1
I0403 15:43:53.975139 15994 net.cpp:386] inception_5b/relu_1x1 -> inception_5b/1x1 (in-place)
I0403 15:43:53.975445 15994 net.cpp:141] Setting up inception_5b/relu_1x1
I0403 15:43:53.975472 15994 net.cpp:148] Top shape: 24 384 7 7 (451584)
I0403 15:43:53.975487 15994 net.cpp:156] Memory required for data: 1328854560
I0403 15:43:53.975502 15994 layer_factory.hpp:77] Creating layer inception_5b/3x3_reduce
I0403 15:43:53.975527 15994 net.cpp:91] Creating Layer inception_5b/3x3_reduce
I0403 15:43:53.975549 15994 net.cpp:425] inception_5b/3x3_reduce <- inception_5a/output_inception_5a/output_0_split_1
I0403 15:43:53.975570 15994 net.cpp:399] inception_5b/3x3_reduce -> inception_5b/3x3_reduce
I0403 15:43:53.978284 15994 net.cpp:141] Setting up inception_5b/3x3_reduce
I0403 15:43:53.978317 15994 net.cpp:148] Top shape: 24 192 7 7 (225792)
I0403 15:43:53.978333 15994 net.cpp:156] Memory required for data: 1329757728
I0403 15:43:53.978351 15994 layer_factory.hpp:77] Creating layer inception_5b/relu_3x3_reduce
I0403 15:43:53.978370 15994 net.cpp:91] Creating Layer inception_5b/relu_3x3_reduce
I0403 15:43:53.978387 15994 net.cpp:425] inception_5b/relu_3x3_reduce <- inception_5b/3x3_reduce
I0403 15:43:53.978405 15994 net.cpp:386] inception_5b/relu_3x3_reduce -> inception_5b/3x3_reduce (in-place)
I0403 15:43:53.978621 15994 net.cpp:141] Setting up inception_5b/relu_3x3_reduce
I0403 15:43:53.978648 15994 net.cpp:148] Top shape: 24 192 7 7 (225792)
I0403 15:43:53.978662 15994 net.cpp:156] Memory required for data: 1330660896
I0403 15:43:53.978677 15994 layer_factory.hpp:77] Creating layer inception_5b/3x3
I0403 15:43:53.978699 15994 net.cpp:91] Creating Layer inception_5b/3x3
I0403 15:43:53.978718 15994 net.cpp:425] inception_5b/3x3 <- inception_5b/3x3_reduce
I0403 15:43:53.978739 15994 net.cpp:399] inception_5b/3x3 -> inception_5b/3x3
I0403 15:43:53.985517 15994 net.cpp:141] Setting up inception_5b/3x3
I0403 15:43:53.985553 15994 net.cpp:148] Top shape: 24 384 7 7 (451584)
I0403 15:43:53.985572 15994 net.cpp:156] Memory required for data: 1332467232
I0403 15:43:53.985590 15994 layer_factory.hpp:77] Creating layer inception_5b/relu_3x3
I0403 15:43:53.985610 15994 net.cpp:91] Creating Layer inception_5b/relu_3x3
I0403 15:43:53.985626 15994 net.cpp:425] inception_5b/relu_3x3 <- inception_5b/3x3
I0403 15:43:53.985644 15994 net.cpp:386] inception_5b/relu_3x3 -> inception_5b/3x3 (in-place)
I0403 15:43:53.985944 15994 net.cpp:141] Setting up inception_5b/relu_3x3
I0403 15:43:53.985973 15994 net.cpp:148] Top shape: 24 384 7 7 (451584)
I0403 15:43:53.985988 15994 net.cpp:156] Memory required for data: 1334273568
I0403 15:43:53.986002 15994 layer_factory.hpp:77] Creating layer inception_5b/5x5_reduce
I0403 15:43:53.986042 15994 net.cpp:91] Creating Layer inception_5b/5x5_reduce
I0403 15:43:53.986062 15994 net.cpp:425] inception_5b/5x5_reduce <- inception_5a/output_inception_5a/output_0_split_2
I0403 15:43:53.986080 15994 net.cpp:399] inception_5b/5x5_reduce -> inception_5b/5x5_reduce
I0403 15:43:53.987398 15994 net.cpp:141] Setting up inception_5b/5x5_reduce
I0403 15:43:53.987428 15994 net.cpp:148] Top shape: 24 48 7 7 (56448)
I0403 15:43:53.987444 15994 net.cpp:156] Memory required for data: 1334499360
I0403 15:43:53.987463 15994 layer_factory.hpp:77] Creating layer inception_5b/relu_5x5_reduce
I0403 15:43:53.987479 15994 net.cpp:91] Creating Layer inception_5b/relu_5x5_reduce
I0403 15:43:53.987495 15994 net.cpp:425] inception_5b/relu_5x5_reduce <- inception_5b/5x5_reduce
I0403 15:43:53.987512 15994 net.cpp:386] inception_5b/relu_5x5_reduce -> inception_5b/5x5_reduce (in-place)
I0403 15:43:53.987881 15994 net.cpp:141] Setting up inception_5b/relu_5x5_reduce
I0403 15:43:53.987908 15994 net.cpp:148] Top shape: 24 48 7 7 (56448)
I0403 15:43:53.987925 15994 net.cpp:156] Memory required for data: 1334725152
I0403 15:43:53.987941 15994 layer_factory.hpp:77] Creating layer inception_5b/5x5
I0403 15:43:53.987959 15994 net.cpp:91] Creating Layer inception_5b/5x5
I0403 15:43:53.987975 15994 net.cpp:425] inception_5b/5x5 <- inception_5b/5x5_reduce
I0403 15:43:53.987993 15994 net.cpp:399] inception_5b/5x5 -> inception_5b/5x5
I0403 15:43:53.990041 15994 net.cpp:141] Setting up inception_5b/5x5
I0403 15:43:53.990068 15994 net.cpp:148] Top shape: 24 128 7 7 (150528)
I0403 15:43:53.990084 15994 net.cpp:156] Memory required for data: 1335327264
I0403 15:43:53.990103 15994 layer_factory.hpp:77] Creating layer inception_5b/relu_5x5
I0403 15:43:53.990120 15994 net.cpp:91] Creating Layer inception_5b/relu_5x5
I0403 15:43:53.990135 15994 net.cpp:425] inception_5b/relu_5x5 <- inception_5b/5x5
I0403 15:43:53.990154 15994 net.cpp:386] inception_5b/relu_5x5 -> inception_5b/5x5 (in-place)
I0403 15:43:53.990342 15994 net.cpp:141] Setting up inception_5b/relu_5x5
I0403 15:43:53.990366 15994 net.cpp:148] Top shape: 24 128 7 7 (150528)
I0403 15:43:53.990381 15994 net.cpp:156] Memory required for data: 1335929376
I0403 15:43:53.990394 15994 layer_factory.hpp:77] Creating layer inception_5b/pool
I0403 15:43:53.990413 15994 net.cpp:91] Creating Layer inception_5b/pool
I0403 15:43:53.990429 15994 net.cpp:425] inception_5b/pool <- inception_5a/output_inception_5a/output_0_split_3
I0403 15:43:53.990447 15994 net.cpp:399] inception_5b/pool -> inception_5b/pool
I0403 15:43:53.990519 15994 net.cpp:141] Setting up inception_5b/pool
I0403 15:43:53.990557 15994 net.cpp:148] Top shape: 24 832 7 7 (978432)
I0403 15:43:53.990573 15994 net.cpp:156] Memory required for data: 1339843104
I0403 15:43:53.990586 15994 layer_factory.hpp:77] Creating layer inception_5b/pool_proj
I0403 15:43:53.990608 15994 net.cpp:91] Creating Layer inception_5b/pool_proj
I0403 15:43:53.990625 15994 net.cpp:425] inception_5b/pool_proj <- inception_5b/pool
I0403 15:43:53.990648 15994 net.cpp:399] inception_5b/pool_proj -> inception_5b/pool_proj
I0403 15:43:53.992920 15994 net.cpp:141] Setting up inception_5b/pool_proj
I0403 15:43:53.992951 15994 net.cpp:148] Top shape: 24 128 7 7 (150528)
I0403 15:43:53.992969 15994 net.cpp:156] Memory required for data: 1340445216
I0403 15:43:53.992986 15994 layer_factory.hpp:77] Creating layer inception_5b/relu_pool_proj
I0403 15:43:53.993005 15994 net.cpp:91] Creating Layer inception_5b/relu_pool_proj
I0403 15:43:53.993021 15994 net.cpp:425] inception_5b/relu_pool_proj <- inception_5b/pool_proj
I0403 15:43:53.993041 15994 net.cpp:386] inception_5b/relu_pool_proj -> inception_5b/pool_proj (in-place)
I0403 15:43:53.993336 15994 net.cpp:141] Setting up inception_5b/relu_pool_proj
I0403 15:43:53.993366 15994 net.cpp:148] Top shape: 24 128 7 7 (150528)
I0403 15:43:53.993382 15994 net.cpp:156] Memory required for data: 1341047328
I0403 15:43:53.993397 15994 layer_factory.hpp:77] Creating layer inception_5b/output
I0403 15:43:53.993415 15994 net.cpp:91] Creating Layer inception_5b/output
I0403 15:43:53.993445 15994 net.cpp:425] inception_5b/output <- inception_5b/1x1
I0403 15:43:53.993464 15994 net.cpp:425] inception_5b/output <- inception_5b/3x3
I0403 15:43:53.993480 15994 net.cpp:425] inception_5b/output <- inception_5b/5x5
I0403 15:43:53.993495 15994 net.cpp:425] inception_5b/output <- inception_5b/pool_proj
I0403 15:43:53.993515 15994 net.cpp:399] inception_5b/output -> inception_5b/output
I0403 15:43:53.993568 15994 net.cpp:141] Setting up inception_5b/output
I0403 15:43:53.993593 15994 net.cpp:148] Top shape: 24 1024 7 7 (1204224)
I0403 15:43:53.993608 15994 net.cpp:156] Memory required for data: 1345864224
I0403 15:43:53.993623 15994 layer_factory.hpp:77] Creating layer pool5/7x7_s1
I0403 15:43:53.993643 15994 net.cpp:91] Creating Layer pool5/7x7_s1
I0403 15:43:53.993660 15994 net.cpp:425] pool5/7x7_s1 <- inception_5b/output
I0403 15:43:53.993679 15994 net.cpp:399] pool5/7x7_s1 -> pool5/7x7_s1
I0403 15:43:53.993890 15994 net.cpp:141] Setting up pool5/7x7_s1
I0403 15:43:53.993918 15994 net.cpp:148] Top shape: 24 1024 1 1 (24576)
I0403 15:43:53.993932 15994 net.cpp:156] Memory required for data: 1345962528
I0403 15:43:53.993945 15994 layer_factory.hpp:77] Creating layer pool5/drop_7x7_s1
I0403 15:43:53.993963 15994 net.cpp:91] Creating Layer pool5/drop_7x7_s1
I0403 15:43:53.993978 15994 net.cpp:425] pool5/drop_7x7_s1 <- pool5/7x7_s1
I0403 15:43:53.993995 15994 net.cpp:386] pool5/drop_7x7_s1 -> pool5/7x7_s1 (in-place)
I0403 15:43:53.994045 15994 net.cpp:141] Setting up pool5/drop_7x7_s1
I0403 15:43:53.994066 15994 net.cpp:148] Top shape: 24 1024 1 1 (24576)
I0403 15:43:53.994079 15994 net.cpp:156] Memory required for data: 1346060832
I0403 15:43:53.994093 15994 layer_factory.hpp:77] Creating layer loss3/classifier_plantvillage
I0403 15:43:53.994113 15994 net.cpp:91] Creating Layer loss3/classifier_plantvillage
I0403 15:43:53.994129 15994 net.cpp:425] loss3/classifier_plantvillage <- pool5/7x7_s1
I0403 15:43:53.994148 15994 net.cpp:399] loss3/classifier_plantvillage -> loss3/classifier_plantvillage
I0403 15:43:53.994591 15994 net.cpp:141] Setting up loss3/classifier_plantvillage
I0403 15:43:53.994616 15994 net.cpp:148] Top shape: 24 38 (912)
I0403 15:43:53.994632 15994 net.cpp:156] Memory required for data: 1346064480
I0403 15:43:53.994648 15994 layer_factory.hpp:77] Creating layer loss3/classifier_plantvillage_loss3/classifier_plantvillage_0_split
I0403 15:43:53.994669 15994 net.cpp:91] Creating Layer loss3/classifier_plantvillage_loss3/classifier_plantvillage_0_split
I0403 15:43:53.994685 15994 net.cpp:425] loss3/classifier_plantvillage_loss3/classifier_plantvillage_0_split <- loss3/classifier_plantvillage
I0403 15:43:53.994702 15994 net.cpp:399] loss3/classifier_plantvillage_loss3/classifier_plantvillage_0_split -> loss3/classifier_plantvillage_loss3/classifier_plantvillage_0_split_0
I0403 15:43:53.994721 15994 net.cpp:399] loss3/classifier_plantvillage_loss3/classifier_plantvillage_0_split -> loss3/classifier_plantvillage_loss3/classifier_plantvillage_0_split_1
I0403 15:43:53.994741 15994 net.cpp:399] loss3/classifier_plantvillage_loss3/classifier_plantvillage_0_split -> loss3/classifier_plantvillage_loss3/classifier_plantvillage_0_split_2
I0403 15:43:53.994760 15994 net.cpp:399] loss3/classifier_plantvillage_loss3/classifier_plantvillage_0_split -> loss3/classifier_plantvillage_loss3/classifier_plantvillage_0_split_3
I0403 15:43:53.994886 15994 net.cpp:141] Setting up loss3/classifier_plantvillage_loss3/classifier_plantvillage_0_split
I0403 15:43:53.994910 15994 net.cpp:148] Top shape: 24 38 (912)
I0403 15:43:53.994925 15994 net.cpp:148] Top shape: 24 38 (912)
I0403 15:43:53.994940 15994 net.cpp:148] Top shape: 24 38 (912)
I0403 15:43:53.994954 15994 net.cpp:148] Top shape: 24 38 (912)
I0403 15:43:53.994967 15994 net.cpp:156] Memory required for data: 1346079072
I0403 15:43:53.994981 15994 layer_factory.hpp:77] Creating layer loss1/loss
I0403 15:43:53.995002 15994 net.cpp:91] Creating Layer loss1/loss
I0403 15:43:53.995018 15994 net.cpp:425] loss1/loss <- loss1/classifier_plantvillage_loss1/classifier_plantvillage_0_split_0
I0403 15:43:53.995048 15994 net.cpp:425] loss1/loss <- label_data_1_split_0
…
