…
I0403 15:12:26.880686 14223 net.cpp:313] The NetState phase (1) differed from the phase (0) specified by a rule in layer data
I0403 15:12:26.881809 14223 net.cpp:49] Initializing net from parameters: 
state {
  phase: TEST
}
layer {
  name: "data"
  type: "Data"
  top: "data"
  top: "label"
  include {
    phase: TEST
  }
  transform_param {
    mirror: false
    crop_size: 224
    mean_file: "/home/mohanty/data/final_dataset/lmdb/color-50-50/mean.binaryproto"
  }
  data_param {
    source: "/home/mohanty/data/final_dataset/lmdb/color-50-50/test_db"
    batch_size: 24
    backend: LMDB
  }
}
layer {
  name: "conv1/7x7_s2"
  type: "Convolution"
  bottom: "data"
  top: "conv1/7x7_s2"
  param {
    lr_mult: 1
    decay_mult: 1
  }
  param {
    lr_mult: 2
    decay_mult: 0
  }
  convolution_param {
    num_output: 64
    pad: 3
    kernel_size: 7
    stride: 2
    weight_filler {
      type: "xavier"
      std: 0.1
    }
    bias_filler {
      type: "constant"
      value: 0.2
    }
  }
}
layer {
  name: "conv1/relu_7x7"
  type: "ReLU"
  bottom: "conv1/7x7_s2"
  top: "conv1/7x7_s2"
}
layer {
  name: "pool1/3x3_s2"
  type: "Pooling"
  bottom: "conv1/7x7_s2"
  top: "pool1/3x3_s2"
  pooling_param {
    pool: MAX
    kernel_size: 3
    stride: 2
  }
}
layer {
  name: "pool1/norm1"
  type: "LRN"
  bottom: "pool1/3x3_s2"
  top: "pool1/norm1"
  lrn_param {
    local_size: 5
    alpha: 0.0001
    beta: 0.75
  }
}
layer {
  name: "conv2/3x3_reduce"
  type: "Convolution"
  bottom: "pool1/norm1"
  top: "conv2/3x3_reduce"
  param {
    lr_mult: 1
    decay_mult: 1
  }
  param {
    lr_mult: 2
    decay_mult: 0
  }
  convolution_param {
    num_output: 64
    kernel_size: 1
    weight_filler {
      type: "xavier"
      std: 0.1
    }
    bias_filler {
      type: "constant"
      value: 0.2
    }
  }
}
layer {
  name: "conv2/relu_3x3_reduce"
  type: "ReLU"
  bottom: "conv2/3x3_reduce"
  top: "conv2/3x3_reduce"
}
layer {
  name: "conv2/3x3"
  type: "Convolution"
  bottom: "conv2/3x3_reduce"
  top: "conv2/3x3"
  param {
    lr_mult: 1
    decay_mult: 1
  }
  param {
    lr_mult: 2
    decay_mult: 0
  }
  convolution_param {
    num_output: 192
    pad: 1
    kernel_size: 3
    weight_filler {
      type: "xavier"
      std: 0.03
    }
    bias_filler {
      type: "constant"
      value: 0.2
    }
  }
}
layer {
  name: "conv2/relu_3x3"
  type: "ReLU"
  bottom: "conv2/3x3"
  top: "conv2/3x3"
}
layer {
  name: "conv2/norm2"
  type: "LRN"
  bottom: "conv2/3x3"
  top: "conv2/norm2"
  lrn_param {
    local_size: 5
    alpha: 0.0001
    beta: 0.75
  }
}
layer {
  name: "pool2/3x3_s2"
  type: "Pooling"
  bottom: "conv2/norm2"
  top: "pool2/3x3_s2"
  pooling_param {
    pool: MAX
    kernel_size: 3
    stride: 2
  }
}
layer {
  name: "inception_3a/1x1"
  type: "Convolution"
  bottom: "pool2/3x3_s2"
  top: "inception_3a/1x1"
  param {
    lr_mult: 1
    decay_mult: 1
  }
  param {
    lr_mult: 2
    decay_mult: 0
  }
  convolution_param {
    num_output: 64
    kernel_size: 1
    weight_filler {
      type: "xavier"
      std: 0.03
    }
    bias_filler {
      type: "constant"
      value: 0.2
    }
  }
}
layer {
  name: "inception_3a/relu_1x1"
  type: "ReLU"
  bottom: "inception_3a/1x1"
  top: "inception_3a/1x1"
}
layer {
  name: "inception_3a/3x3_reduce"
  type: "Convolution"
  bottom: "pool2/3x3_s2"
  top: "inception_3a/3x3_reduce"
  param {
    lr_mult: 1
    decay_mult: 1
  }
  param {
    lr_mult: 2
    decay_mult: 0
  }
  convolution_param {
    num_output: 96
    kernel_size: 1
    weight_filler {
      type: "xavier"
      std: 0.09
    }
    bias_filler {
      type: "constant"
      value: 0.2
    }
  }
}
layer {
  name: "inception_3a/relu_3x3_reduce"
  type: "ReLU"
  bottom: "inception_3a/3x3_reduce"
  top: "inception_3a/3x3_reduce"
}
layer {
  name: "inception_3a/3x3"
  type: "Convolution"
  bottom: "inception_3a/3x3_reduce"
  top: "inception_3a/3x3"
  param {
    lr_mult: 1
    decay_mult: 1
  }
  param {
    lr_mult: 2
    decay_mult: 0
  }
  convolution_param {
    num_output: 128
    pad: 1
    kernel_size: 3
    weight_filler {
      type: "xavier"
      std: 0.03
    }
    bias_filler {
      type: "constant"
      value: 0.2
    }
  }
}
layer {
  name: "inception_3a/relu_3x3"
  type: "ReLU"
  bottom: "inception_3a/3x3"
  top: "inception_3a/3x3"
}
layer {
  name: "inception_3a/5x5_reduce"
  type: "Convolution"
  bottom: "pool2/3x3_s2"
  top: "inception_3a/5x5_reduce"
  param {
    lr_mult: 1
    decay_mult: 1
  }
  param {
    lr_mult: 2
    decay_mult: 0
  }
  convolution_param {
    num_output: 16
    kernel_size: 1
    weight_filler {
      type: "xavier"
      std: 0.2
    }
    bias_filler {
      type: "constant"
      value: 0.2
    }
  }
}
layer {
  name: "inception_3a/relu_5x5_reduce"
  type: "ReLU"
  bottom: "inception_3a/5x5_reduce"
  top: "inception_3a/5x5_reduce"
}
layer {
  name: "inception_3a/5x5"
  type: "Convolution"
  bottom: "inception_3a/5x5_reduce"
  top: "inception_3a/5x5"
  param {
    lr_mult: 1
    decay_mult: 1
  }
  param {
    lr_mult: 2
    decay_mult: 0
  }
  convolution_param {
    num_output: 32
    pad: 2
    kernel_size: 5
    weight_filler {
      type: "xavier"
      std: 0.03
    }
    bias_filler {
      type: "constant"
      value: 0.2
    }
  }
}
layer {
  name: "inception_3a/relu_5x5"
  type: "ReLU"
  bottom: "inception_3a/5x5"
  top: "inception_3a/5x5"
}
layer {
  name: "inception_3a/pool"
  type: "Pooling"
  bottom: "pool2/3x3_s2"
  top: "inception_3a/pool"
  pooling_param {
    pool: MAX
    kernel_size: 3
    stride: 1
    pad: 1
  }
}
layer {
  name: "inception_3a/pool_proj"
  type: "Convolution"
  bottom: "inception_3a/pool"
  top: "inception_3a/pool_proj"
  param {
    lr_mult: 1
    decay_mult: 1
  }
  param {
    lr_mult: 2
    decay_mult: 0
  }
  convolution_param {
    num_output: 32
    kernel_size: 1
    weight_filler {
      type: "xavier"
      std: 0.1
    }
    bias_filler {
      type: "constant"
      value: 0.2
    }
  }
}
layer {
  name: "inception_3a/relu_pool_proj"
  type: "ReLU"
  bottom: "inception_3a/pool_proj"
  top: "inception_3a/pool_proj"
}
layer {
  name: "inception_3a/output"
  type: "Concat"
  bottom: "inception_3a/1x1"
  bottom: "inception_3a/3x3"
  bottom: "inception_3a/5x5"
  bottom: "inception_3a/pool_proj"
  top: "inception_3a/output"
}
layer {
  name: "inception_3b/1x1"
  type: "Convolution"
  bottom: "inception_3a/output"
  top: "inception_3b/1x1"
  param {
    lr_mult: 1
    decay_mult: 1
  }
  param {
    lr_mult: 2
    decay_mult: 0
  }
  convolution_param {
    num_output: 128
    kernel_size: 1
    weight_filler {
      type: "xavier"
      std: 0.03
    }
    bias_filler {
      type: "constant"
      value: 0.2
    }
  }
}
layer {
  name: "inception_3b/relu_1x1"
  type: "ReLU"
  bottom: "inception_3b/1x1"
  top: "inception_3b/1x1"
}
layer {
  name: "inception_3b/3x3_reduce"
  type: "Convolution"
  bottom: "inception_3a/output"
  top: "inception_3b/3x3_reduce"
  param {
    lr_mult: 1
    decay_mult: 1
  }
  param {
    lr_mult: 2
    decay_mult: 0
  }
  convolution_param {
    num_output: 128
    kernel_size: 1
    weight_filler {
      type: "xavier"
      std: 0.09
    }
    bias_filler {
      type: "constant"
      value: 0.2
    }
  }
}
layer {
  name: "inception_3b/relu_3x3_reduce"
  type: "ReLU"
  bottom: "inception_3b/3x3_reduce"
  top: "inception_3b/3x3_reduce"
}
layer {
  name: "inception_3b/3x3"
  type: "Convolution"
  bottom: "inception_3b/3x3_reduce"
  top: "inception_3b/3x3"
  param {
    lr_mult: 1
    decay_mult: 1
  }
  param {
    lr_mult: 2
    decay_mult: 0
  }
  convolution_param {
    num_output: 192
    pad: 1
    kernel_size: 3
    weight_filler {
      type: "xavier"
      std: 0.03
    }
    bias_filler {
      type: "constant"
      value: 0.2
    }
  }
}
layer {
  name: "inception_3b/relu_3x3"
  type: "ReLU"
  bottom: "inception_3b/3x3"
  top: "inception_3b/3x3"
}
layer {
  name: "inception_3b/5x5_reduce"
  type: "Convolution"
  bottom: "inception_3a/output"
  top: "inception_3b/5x5_reduce"
  param {
    lr_mult: 1
    decay_mult: 1
  }
  param {
    lr_mult: 2
    decay_mult: 0
  }
  convolution_param {
    num_output: 32
    kernel_size: 1
    weight_filler {
      type: "xavier"
      std: 0.2
    }
    bias_filler {
      type: "constant"
      value: 0.2
    }
  }
}
layer {
  name: "inception_3b/relu_5x5_reduce"
  type: "ReLU"
  bottom: "inception_3b/5x5_reduce"
  top: "inception_3b/5x5_reduce"
}
layer {
  name: "inception_3b/5x5"
  type: "Convolution"
  bottom: "inception_3b/5x5_reduce"
  top: "inception_3b/5x5"
  param {
    lr_mult: 1
    decay_mult: 1
  }
  param {
    lr_mult: 2
    decay_mult: 0
  }
  convolution_param {
    num_output: 96
    pad: 2
    kernel_size: 5
    weight_filler {
      type: "xavier"
      std: 0.03
    }
    bias_filler {
      type: "constant"
      value: 0.2
    }
  }
}
layer {
  name: "inception_3b/relu_5x5"
  type: "ReLU"
  bottom: "inception_3b/5x5"
  top: "inception_3b/5x5"
}
layer {
  name: "inception_3b/pool"
  type: "Pooling"
  bottom: "inception_3a/output"
  top: "inception_3b/pool"
  pooling_param {
    pool: MAX
    kernel_size: 3
    stride: 1
    pad: 1
  }
}
layer {
  name: "inception_3b/pool_proj"
  type: "Convolution"
  bottom: "inception_3b/pool"
  top: "inception_3b/pool_proj"
  param {
    lr_mult: 1
    decay_mult: 1
  }
  param {
    lr_mult: 2
    decay_mult: 0
  }
  convolution_param {
    num_output: 64
    kernel_size: 1
    weight_filler {
      type: "xavier"
      std: 0.1
    }
    bias_filler {
      type: "constant"
      value: 0.2
    }
  }
}
layer {
  name: "inception_3b/relu_pool_proj"
  type: "ReLU"
  bottom: "inception_3b/pool_proj"
  top: "inception_3b/pool_proj"
}
layer {
  name: "inception_3b/output"
  type: "Concat"
  bottom: "inception_3b/1x1"
  bottom: "inception_3b/3x3"
  bottom: "inception_3b/5x5"
  bottom: "inception_3b/pool_proj"
  top: "inception_3b/output"
}
layer {
  name: "pool3/3x3_s2"
  type: "Pooling"
  bottom: "inception_3b/output"
  top: "pool3/3x3_s2"
  pooling_param {
    pool: MAX
    kernel_size: 3
    stride: 2
  }
}
layer {
  name: "inception_4a/1x1"
  type: "Convolution"
  bottom: "pool3/3x3_s2"
  top: "inception_4a/1x1"
  param {
    lr_mult: 1
    decay_mult: 1
  }
  param {
    lr_mult: 2
    decay_mult: 0
  }
  convolution_param {
    num_output: 192
    kernel_size: 1
    weight_filler {
      type: "xavier"
      std: 0.03
    }
    bias_filler {
      type: "constant"
      value: 0.2
    }
  }
}
layer {
  name: "inception_4a/relu_1x1"
  type: "ReLU"
  bottom: "inception_4a/1x1"
  top: "inception_4a/1x1"
}
layer {
  name: "inception_4a/3x3_reduce"
  type: "Convolution"
  bottom: "pool3/3x3_s2"
  top: "inception_4a/3x3_reduce"
  param {
    lr_mult: 1
    decay_mult: 1
  }
  param {
    lr_mult: 2
    decay_mult: 0
  }
  convolution_param {
    num_output: 96
    kernel_size: 1
    weight_filler {
      type: "xavier"
      std: 0.09
    }
    bias_filler {
      type: "constant"
      value: 0.2
    }
  }
}
layer {
  name: "inception_4a/relu_3x3_reduce"
  type: "ReLU"
  bottom: "inception_4a/3x3_reduce"
  top: "inception_4a/3x3_reduce"
}
layer {
  name: "inception_4a/3x3"
  type: "Convolution"
  bottom: "inception_4a/3x3_reduce"
  top: "inception_4a/3x3"
  param {
    lr_mult: 1
    decay_mult: 1
  }
  param {
    lr_mult: 2
    decay_mult: 0
  }
  convolution_param {
    num_output: 208
    pad: 1
    kernel_size: 3
    weight_filler {
      type: "xavier"
      std: 0.03
    }
    bias_filler {
      type: "constant"
      value: 0.2
    }
  }
}
layer {
  name: "inception_4a/relu_3x3"
  type: "ReLU"
  bottom: "inception_4a/3x3"
  top: "inception_4a/3x3"
}
layer {
  name: "inception_4a/5x5_reduce"
  type: "Convolution"
  bottom: "pool3/3x3_s2"
  top: "inception_4a/5x5_reduce"
  param {
    lr_mult: 1
    decay_mult: 1
  }
  param {
    lr_mult: 2
    decay_mult: 0
  }
  convolution_param {
    num_output: 16
    kernel_size: 1
    weight_filler {
      type: "xavier"
      std: 0.2
    }
    bias_filler {
      type: "constant"
      value: 0.2
    }
  }
}
layer {
  name: "inception_4a/relu_5x5_reduce"
  type: "ReLU"
  bottom: "inception_4a/5x5_reduce"
  top: "inception_4a/5x5_reduce"
}
layer {
  name: "inception_4a/5x5"
  type: "Convolution"
  bottom: "inception_4a/5x5_reduce"
  top: "inception_4a/5x5"
  param {
    lr_mult: 1
    decay_mult: 1
  }
  param {
    lr_mult: 2
    decay_mult: 0
  }
  convolution_param {
    num_output: 48
    pad: 2
    kernel_size: 5
    weight_filler {
      type: "xavier"
      std: 0.03
    }
    bias_filler {
      type: "constant"
      value: 0.2
    }
  }
}
layer {
  name: "inception_4a/relu_5x5"
  type: "ReLU"
  bottom: "inception_4a/5x5"
  top: "inception_4a/5x5"
}
layer {
  name: "inception_4a/pool"
  type: "Pooling"
  bottom: "pool3/3x3_s2"
  top: "inception_4a/pool"
  pooling_param {
    pool: MAX
    kernel_size: 3
    stride: 1
    pad: 1
  }
}
layer {
  name: "inception_4a/pool_proj"
  type: "Convolution"
  bottom: "inception_4a/pool"
  top: "inception_4a/pool_proj"
  param {
    lr_mult: 1
    decay_mult: 1
  }
  param {
    lr_mult: 2
    decay_mult: 0
  }
  convolution_param {
    num_output: 64
    kernel_size: 1
    weight_filler {
      type: "xavier"
      std: 0.1
    }
    bias_filler {
      type: "constant"
      value: 0.2
    }
  }
}
layer {
  name: "inception_4a/relu_pool_proj"
  type: "ReLU"
  bottom: "inception_4a/pool_proj"
  top: "inception_4a/pool_proj"
}
layer {
  name: "inception_4a/output"
  type: "Concat"
  bottom: "inception_4a/1x1"
  bottom: "inception_4a/3x3"
  bottom: "inception_4a/5x5"
  bottom: "inception_4a/pool_proj"
  top: "inception_4a/output"
}
layer {
  name: "loss1/ave_pool"
  type: "Pooling"
  bottom: "inception_4a/output"
  top: "loss1/ave_pool"
  pooling_param {
    pool: AVE
    kernel_size: 5
    stride: 3
  }
}
layer {
  name: "loss1/conv"
  type: "Convolution"
  bottom: "loss1/ave_pool"
  top: "loss1/conv"
  param {
    lr_mult: 1
    decay_mult: 1
  }
  param {
    lr_mult: 2
    decay_mult: 0
  }
  convolution_param {
    num_output: 128
    kernel_size: 1
    weight_filler {
      type: "xavier"
      std: 0.08
    }
    bias_filler {
      type: "constant"
      value: 0.2
    }
  }
}
layer {
  name: "loss1/relu_conv"
  type: "ReLU"
  bottom: "loss1/conv"
  top: "loss1/conv"
}
layer {
  name: "loss1/fc"
  type: "InnerProduct"
  bottom: "loss1/conv"
  top: "loss1/fc"
  param {
    lr_mult: 1
    decay_mult: 1
  }
  param {
    lr_mult: 2
    decay_mult: 0
  }
  inner_product_param {
    num_output: 1024
    weight_filler {
      type: "xavier"
      std: 0.02
    }
    bias_filler {
      type: "constant"
      value: 0.2
    }
  }
}
layer {
  name: "loss1/relu_fc"
  type: "ReLU"
  bottom: "loss1/fc"
  top: "loss1/fc"
}
layer {
  name: "loss1/drop_fc"
  type: "Dropout"
  bottom: "loss1/fc"
  top: "loss1/fc"
  dropout_param {
    dropout_ratio: 0.7
  }
}
layer {
  name: "loss1/classifier_plantvillage"
  type: "InnerProduct"
  bottom: "loss1/fc"
  top: "loss1/classifier_plantvillage"
  param {
    lr_mult: 1
    decay_mult: 1
  }
  param {
    lr_mult: 2
    decay_mult: 0
  }
  inner_product_param {
    num_output: 38
    weight_filler {
      type: "xavier"
      std: 0.0009765625
    }
    bias_filler {
      type: "constant"
      value: 0
    }
  }
}
layer {
  name: "inception_4b/1x1"
  type: "Convolution"
  bottom: "inception_4a/output"
  top: "inception_4b/1x1"
  param {
    lr_mult: 1
    decay_mult: 1
  }
  param {
    lr_mult: 2
    decay_mult: 0
  }
  convolution_param {
    num_output: 160
    kernel_size: 1
    weight_filler {
      type: "xavier"
      std: 0.03
    }
    bias_filler {
      type: "constant"
      value: 0.2
    }
  }
}
layer {
  name: "inception_4b/relu_1x1"
  type: "ReLU"
  bottom: "inception_4b/1x1"
  top: "inception_4b/1x1"
}
layer {
  name: "inception_4b/3x3_reduce"
  type: "Convolution"
  bottom: "inception_4a/output"
  top: "inception_4b/3x3_reduce"
  param {
    lr_mult: 1
    decay_mult: 1
  }
  param {
    lr_mult: 2
    decay_mult: 0
  }
  convolution_param {
    num_output: 112
    kernel_size: 1
    weight_filler {
      type: "xavier"
      std: 0.09
    }
    bias_filler {
      type: "constant"
      value: 0.2
    }
  }
}
layer {
  name: "inception_4b/relu_3x3_reduce"
  type: "ReLU"
  bottom: "inception_4b/3x3_reduce"
  top: "inception_4b/3x3_reduce"
}
layer {
  name: "inception_4b/3x3"
  type: "Convolution"
  bottom: "inception_4b/3x3_reduce"
  top: "inception_4b/3x3"
  param {
    lr_mult: 1
    decay_mult: 1
  }
  param {
    lr_mult: 2
    decay_mult: 0
  }
  convolution_param {
    num_output: 224
    pad: 1
    kernel_size: 3
    weight_filler {
      type: "xavier"
      std: 0.03
    }
    bias_filler {
      type: "constant"
      value: 0.2
    }
  }
}
layer {
  name: "inception_4b/relu_3x3"
  type: "ReLU"
  bottom: "inception_4b/3x3"
  top: "inception_4b/3x3"
}
layer {
  name: "inception_4b/5x5_reduce"
  type: "Convolution"
  bottom: "inception_4a/output"
  top: "inception_4b/5x5_reduce"
  param {
    lr_mult: 1
    decay_mult: 1
  }
  param {
    lr_mult: 2
    decay_mult: 0
  }
  convolution_param {
    num_output: 24
    kernel_size: 1
    weight_filler {
      type: "xavier"
      std: 0.2
    }
    bias_filler {
      type: "constant"
      value: 0.2
    }
  }
}
layer {
  name: "inception_4b/relu_5x5_reduce"
  type: "ReLU"
  bottom: "inception_4b/5x5_reduce"
  top: "inception_4b/5x5_reduce"
}
layer {
  name: "inception_4b/5x5"
  type: "Convolution"
  bottom: "inception_4b/5x5_reduce"
  top: "inception_4b/5x5"
  param {
    lr_mult: 1
    decay_mult: 1
  }
  param {
    lr_mult: 2
    decay_mult: 0
  }
  convolution_param {
    num_output: 64
    pad: 2
    kernel_size: 5
    weight_filler {
      type: "xavier"
      std: 0.03
    }
    bias_filler {
      type: "constant"
      value: 0.2
    }
  }
}
layer {
  name: "inception_4b/relu_5x5"
  type: "ReLU"
  bottom: "inception_4b/5x5"
  top: "inception_4b/5x5"
}
layer {
  name: "inception_4b/pool"
  type: "Pooling"
  bottom: "inception_4a/output"
  top: "inception_4b/pool"
  pooling_param {
    pool: MAX
    kernel_size: 3
    stride: 1
    pad: 1
  }
}
layer {
  name: "inception_4b/pool_proj"
  type: "Convolution"
  bottom: "inception_4b/pool"
  top: "inception_4b/pool_proj"
  param {
    lr_mult: 1
    decay_mult: 1
  }
  param {
    lr_mult: 2
    decay_mult: 0
  }
  convolution_param {
    num_output: 64
    kernel_size: 1
    weight_filler {
      type: "xavier"
      std: 0.1
    }
    bias_filler {
      type: "constant"
      value: 0.2
    }
  }
}
layer {
  name: "inception_4b/relu_pool_proj"
  type: "ReLU"
  bottom: "inception_4b/pool_proj"
  top: "inception_4b/pool_proj"
}
layer {
  name: "inception_4b/output"
  type: "Concat"
  bottom: "inception_4b/1x1"
  bottom: "inception_4b/3x3"
  bottom: "inception_4b/5x5"
  bottom: "inception_4b/pool_proj"
  top: "inception_4b/output"
}
layer {
  name: "inception_4c/1x1"
  type: "Convolution"
  bottom: "inception_4b/output"
  top: "inception_4c/1x1"
  param {
    lr_mult: 1
    decay_mult: 1
  }
  param {
    lr_mult: 2
    decay_mult: 0
  }
  convolution_param {
    num_output: 128
    kernel_size: 1
    weight_filler {
      type: "xavier"
      std: 0.03
    }
    bias_filler {
      type: "constant"
      value: 0.2
    }
  }
}
layer {
  name: "inception_4c/relu_1x1"
  type: "ReLU"
  bottom: "inception_4c/1x1"
  top: "inception_4c/1x1"
}
layer {
  name: "inception_4c/3x3_reduce"
  type: "Convolution"
  bottom: "inception_4b/output"
  top: "inception_4c/3x3_reduce"
  param {
    lr_mult: 1
    decay_mult: 1
  }
  param {
    lr_mult: 2
    decay_mult: 0
  }
  convolution_param {
    num_output: 128
    kernel_size: 1
    weight_filler {
      type: "xavier"
      std: 0.09
    }
    bias_filler {
      type: "constant"
      value: 0.2
    }
  }
}
layer {
  name: "inception_4c/relu_3x3_reduce"
  type: "ReLU"
  bottom: "inception_4c/3x3_reduce"
  top: "inception_4c/3x3_reduce"
}
layer {
  name: "inception_4c/3x3"
  type: "Convolution"
  bottom: "inception_4c/3x3_reduce"
  top: "inception_4c/3x3"
  param {
    lr_mult: 1
    decay_mult: 1
  }
  param {
    lr_mult: 2
    decay_mult: 0
  }
  convolution_param {
    num_output: 256
    pad: 1
    kernel_size: 3
    weight_filler {
      type: "xavier"
      std: 0.03
    }
    bias_filler {
      type: "constant"
      value: 0.2
    }
  }
}
layer {
  name: "inception_4c/relu_3x3"
  type: "ReLU"
  bottom: "inception_4c/3x3"
  top: "inception_4c/3x3"
}
layer {
  name: "inception_4c/5x5_reduce"
  type: "Convolution"
  bottom: "inception_4b/output"
  top: "inception_4c/5x5_reduce"
  param {
    lr_mult: 1
    decay_mult: 1
  }
  param {
    lr_mult: 2
    decay_mult: 0
  }
  convolution_param {
    num_output: 24
    kernel_size: 1
    weight_filler {
      type: "xavier"
      std: 0.2
    }
    bias_filler {
      type: "constant"
      value: 0.2
    }
  }
}
layer {
  name: "inception_4c/relu_5x5_reduce"
  type: "ReLU"
  bottom: "inception_4c/5x5_reduce"
  top: "inception_4c/5x5_reduce"
}
layer {
  name: "inception_4c/5x5"
  type: "Convolution"
  bottom: "inception_4c/5x5_reduce"
  top: "inception_4c/5x5"
  param {
    lr_mult: 1
    decay_mult: 1
  }
  param {
    lr_mult: 2
    decay_mult: 0
  }
  convolution_param {
    num_output: 64
    pad: 2
    kernel_size: 5
    weight_filler {
      type: "xavier"
      std: 0.03
    }
    bias_filler {
      type: "constant"
      value: 0.2
    }
  }
}
layer {
  name: "inception_4c/relu_5x5"
  type: "ReLU"
  bottom: "inception_4c/5x5"
  top: "inception_4c/5x5"
}
layer {
  name: "inception_4c/pool"
  type: "Pooling"
  bottom: "inception_4b/output"
  top: "inception_4c/pool"
  pooling_param {
    pool: MAX
    kernel_size: 3
    stride: 1
    pad: 1
  }
}
layer {
  name: "inception_4c/pool_proj"
  type: "Convolution"
  bottom: "inception_4c/pool"
  top: "inception_4c/pool_proj"
  param {
    lr_mult: 1
    decay_mult: 1
  }
  param {
    lr_mult: 2
    decay_mult: 0
  }
  convolution_param {
    num_output: 64
    kernel_size: 1
    weight_filler {
      type: "xavier"
      std: 0.1
    }
    bias_filler {
      type: "constant"
      value: 0.2
    }
  }
}
layer {
  name: "inception_4c/relu_pool_proj"
  type: "ReLU"
  bottom: "inception_4c/pool_proj"
  top: "inception_4c/pool_proj"
}
layer {
  name: "inception_4c/output"
  type: "Concat"
  bottom: "inception_4c/1x1"
  bottom: "inception_4c/3x3"
  bottom: "inception_4c/5x5"
  bottom: "inception_4c/pool_proj"
  top: "inception_4c/output"
}
layer {
  name: "inception_4d/1x1"
  type: "Convolution"
  bottom: "inception_4c/output"
  top: "inception_4d/1x1"
  param {
    lr_mult: 1
    decay_mult: 1
  }
  param {
    lr_mult: 2
    decay_mult: 0
  }
  convolution_param {
    num_output: 112
    kernel_size: 1
    weight_filler {
      type: "xavier"
      std: 0.03
    }
    bias_filler {
      type: "constant"
      value: 0.2
    }
  }
}
layer {
  name: "inception_4d/relu_1x1"
  type: "ReLU"
  bottom: "inception_4d/1x1"
  top: "inception_4d/1x1"
}
layer {
  name: "inception_4d/3x3_reduce"
  type: "Convolution"
  bottom: "inception_4c/output"
  top: "inception_4d/3x3_reduce"
  param {
    lr_mult: 1
    decay_mult: 1
  }
  param {
    lr_mult: 2
    decay_mult: 0
  }
  convolution_param {
    num_output: 144
    kernel_size: 1
    weight_filler {
      type: "xavier"
      std: 0.09
    }
    bias_filler {
      type: "constant"
      value: 0.2
    }
  }
}
layer {
  name: "inception_4d/relu_3x3_reduce"
  type: "ReLU"
  bottom: "inception_4d/3x3_reduce"
  top: "inception_4d/3x3_reduce"
}
layer {
  name: "inception_4d/3x3"
  type: "Convolution"
  bottom: "inception_4d/3x3_reduce"
  top: "inception_4d/3x3"
  param {
    lr_mult: 1
    decay_mult: 1
  }
  param {
    lr_mult: 2
    decay_mult: 0
  }
  convolution_param {
    num_output: 288
    pad: 1
    kernel_size: 3
    weight_filler {
      type: "xavier"
      std: 0.03
    }
    bias_filler {
      type: "constant"
      value: 0.2
    }
  }
}
layer {
  name: "inception_4d/relu_3x3"
  type: "ReLU"
  bottom: "inception_4d/3x3"
  top: "inception_4d/3x3"
}
layer {
  name: "inception_4d/5x5_reduce"
  type: "Convolution"
  bottom: "inception_4c/output"
  top: "inception_4d/5x5_reduce"
  param {
    lr_mult: 1
    decay_mult: 1
  }
  param {
    lr_mult: 2
    decay_mult: 0
  }
  convolution_param {
    num_output: 32
    kernel_size: 1
    weight_filler {
      type: "xavier"
      std: 0.2
    }
    bias_filler {
      type: "constant"
      value: 0.2
    }
  }
}
layer {
  name: "inception_4d/relu_5x5_reduce"
  type: "ReLU"
  bottom: "inception_4d/5x5_reduce"
  top: "inception_4d/5x5_reduce"
}
layer {
  name: "inception_4d/5x5"
  type: "Convolution"
  bottom: "inception_4d/5x5_reduce"
  top: "inception_4d/5x5"
  param {
    lr_mult: 1
    decay_mult: 1
  }
  param {
    lr_mult: 2
    decay_mult: 0
  }
  convolution_param {
    num_output: 64
    pad: 2
    kernel_size: 5
    weight_filler {
      type: "xavier"
      std: 0.03
    }
    bias_filler {
      type: "constant"
      value: 0.2
    }
  }
}
layer {
  name: "inception_4d/relu_5x5"
  type: "ReLU"
  bottom: "inception_4d/5x5"
  top: "inception_4d/5x5"
}
layer {
  name: "inception_4d/pool"
  type: "Pooling"
  bottom: "inception_4c/output"
  top: "inception_4d/pool"
  pooling_param {
    pool: MAX
    kernel_size: 3
    stride: 1
    pad: 1
  }
}
layer {
  name: "inception_4d/pool_proj"
  type: "Convolution"
  bottom: "inception_4d/pool"
  top: "inception_4d/pool_proj"
  param {
    lr_mult: 1
    decay_mult: 1
  }
  param {
    lr_mult: 2
    decay_mult: 0
  }
  convolution_param {
    num_output: 64
    kernel_size: 1
    weight_filler {
      type: "xavier"
      std: 0.1
    }
    bias_filler {
      type: "constant"
      value: 0.2
    }
  }
}
layer {
  name: "inception_4d/relu_pool_proj"
  type: "ReLU"
  bottom: "inception_4d/pool_proj"
  top: "inception_4d/pool_proj"
}
layer {
  name: "inception_4d/output"
  type: "Concat"
  bottom: "inception_4d/1x1"
  bottom: "inception_4d/3x3"
  bottom: "inception_4d/5x5"
  bottom: "inception_4d/pool_proj"
  top: "inception_4d/output"
}
layer {
  name: "loss2/ave_pool"
  type: "Pooling"
  bottom: "inception_4d/output"
  top: "loss2/ave_pool"
  pooling_param {
    pool: AVE
    kernel_size: 5
    stride: 3
  }
}
layer {
  name: "loss2/conv"
  type: "Convolution"
  bottom: "loss2/ave_pool"
  top: "loss2/conv"
  param {
    lr_mult: 1
    decay_mult: 1
  }
  param {
    lr_mult: 2
    decay_mult: 0
  }
  convolution_param {
    num_output: 128
    kernel_size: 1
    weight_filler {
      type: "xavier"
      std: 0.08
    }
    bias_filler {
      type: "constant"
      value: 0.2
    }
  }
}
layer {
  name: "loss2/relu_conv"
  type: "ReLU"
  bottom: "loss2/conv"
  top: "loss2/conv"
}
layer {
  name: "loss2/fc"
  type: "InnerProduct"
  bottom: "loss2/conv"
  top: "loss2/fc"
  param {
    lr_mult: 1
    decay_mult: 1
  }
  param {
    lr_mult: 2
    decay_mult: 0
  }
  inner_product_param {
    num_output: 1024
    weight_filler {
      type: "xavier"
      std: 0.02
    }
    bias_filler {
      type: "constant"
      value: 0.2
    }
  }
}
layer {
  name: "loss2/relu_fc"
  type: "ReLU"
  bottom: "loss2/fc"
  top: "loss2/fc"
}
layer {
  name: "loss2/drop_fc"
  type: "Dropout"
  bottom: "loss2/fc"
  top: "loss2/fc"
  dropout_param {
    dropout_ratio: 0.7
  }
}
layer {
  name: "loss2/classifier_plantvillage"
  type: "InnerProduct"
  bottom: "loss2/fc"
  top: "loss2/classifier_plantvillage"
  param {
    lr_mult: 1
    decay_mult: 1
  }
  param {
    lr_mult: 2
    decay_mult: 0
  }
  inner_product_param {
    num_output: 38
    weight_filler {
      type: "xavier"
      std: 0.0009765625
    }
    bias_filler {
      type: "constant"
      value: 0
    }
  }
}
layer {
  name: "inception_4e/1x1"
  type: "Convolution"
  bottom: "inception_4d/output"
  top: "inception_4e/1x1"
  param {
    lr_mult: 1
    decay_mult: 1
  }
  param {
    lr_mult: 2
    decay_mult: 0
  }
  convolution_param {
    num_output: 256
    kernel_size: 1
    weight_filler {
      type: "xavier"
      std: 0.03
    }
    bias_filler {
      type: "constant"
      value: 0.2
    }
  }
}
layer {
  name: "inception_4e/relu_1x1"
  type: "ReLU"
  bottom: "inception_4e/1x1"
  top: "inception_4e/1x1"
}
layer {
  name: "inception_4e/3x3_reduce"
  type: "Convolution"
  bottom: "inception_4d/output"
  top: "inception_4e/3x3_reduce"
  param {
    lr_mult: 1
    decay_mult: 1
  }
  param {
    lr_mult: 2
    decay_mult: 0
  }
  convolution_param {
    num_output: 160
    kernel_size: 1
    weight_filler {
      type: "xavier"
      std: 0.09
    }
    bias_filler {
      type: "constant"
      value: 0.2
    }
  }
}
layer {
  name: "inception_4e/relu_3x3_reduce"
  type: "ReLU"
  bottom: "inception_4e/3x3_reduce"
  top: "inception_4e/3x3_reduce"
}
layer {
  name: "inception_4e/3x3"
  type: "Convolution"
  bottom: "inception_4e/3x3_reduce"
  top: "inception_4e/3x3"
  param {
    lr_mult: 1
    decay_mult: 1
  }
  param {
    lr_mult: 2
    decay_mult: 0
  }
  convolution_param {
    num_output: 320
    pad: 1
    kernel_size: 3
    weight_filler {
      type: "xavier"
      std: 0.03
    }
    bias_filler {
      type: "constant"
      value: 0.2
    }
  }
}
layer {
  name: "inception_4e/relu_3x3"
  type: "ReLU"
  bottom: "inception_4e/3x3"
  top: "inception_4e/3x3"
}
layer {
  name: "inception_4e/5x5_reduce"
  type: "Convolution"
  bottom: "inception_4d/output"
  top: "inception_4e/5x5_reduce"
  param {
    lr_mult: 1
    decay_mult: 1
  }
  param {
    lr_mult: 2
    decay_mult: 0
  }
  convolution_param {
    num_output: 32
    kernel_size: 1
    weight_filler {
      type: "xavier"
      std: 0.2
    }
    bias_filler {
      type: "constant"
      value: 0.2
    }
  }
}
layer {
  name: "inception_4e/relu_5x5_reduce"
  type: "ReLU"
  bottom: "inception_4e/5x5_reduce"
  top: "inception_4e/5x5_reduce"
}
layer {
  name: "inception_4e/5x5"
  type: "Convolution"
  bottom: "inception_4e/5x5_reduce"
  top: "inception_4e/5x5"
  p
I0403 15:12:26.883080 14223 layer_factory.hpp:77] Creating layer data
I0403 15:12:26.883682 14223 net.cpp:91] Creating Layer data
I0403 15:12:26.883711 14223 net.cpp:399] data -> data
I0403 15:12:26.883765 14223 net.cpp:399] data -> label
I0403 15:12:26.883802 14223 data_transformer.cpp:25] Loading mean file from: /home/mohanty/data/final_dataset/lmdb/color-50-50/mean.binaryproto
I0403 15:12:26.888968 14228 db_lmdb.cpp:38] Opened lmdb /home/mohanty/data/final_dataset/lmdb/color-50-50/test_db
I0403 15:12:26.897274 14223 data_layer.cpp:41] output data size: 24,3,224,224
I0403 15:12:26.923640 14223 net.cpp:141] Setting up data
I0403 15:12:26.923717 14223 net.cpp:148] Top shape: 24 3 224 224 (3612672)
I0403 15:12:26.923740 14223 net.cpp:148] Top shape: 24 (24)
I0403 15:12:26.923758 14223 net.cpp:156] Memory required for data: 14450784
I0403 15:12:26.923784 14223 layer_factory.hpp:77] Creating layer label_data_1_split
I0403 15:12:26.923810 14223 net.cpp:91] Creating Layer label_data_1_split
I0403 15:12:26.923828 14223 net.cpp:425] label_data_1_split <- label
I0403 15:12:26.923861 14223 net.cpp:399] label_data_1_split -> label_data_1_split_0
I0403 15:12:26.923888 14223 net.cpp:399] label_data_1_split -> label_data_1_split_1
I0403 15:12:26.923909 14223 net.cpp:399] label_data_1_split -> label_data_1_split_2
I0403 15:12:26.923930 14223 net.cpp:399] label_data_1_split -> label_data_1_split_3
I0403 15:12:26.923949 14223 net.cpp:399] label_data_1_split -> label_data_1_split_4
I0403 15:12:26.923969 14223 net.cpp:399] label_data_1_split -> label_data_1_split_5
I0403 15:12:26.923988 14223 net.cpp:399] label_data_1_split -> label_data_1_split_6
I0403 15:12:26.924010 14223 net.cpp:399] label_data_1_split -> label_data_1_split_7
I0403 15:12:26.924029 14223 net.cpp:399] label_data_1_split -> label_data_1_split_8
I0403 15:12:26.924048 14223 net.cpp:399] label_data_1_split -> label_data_1_split_9
I0403 15:12:26.924160 14223 net.cpp:141] Setting up label_data_1_split
I0403 15:12:26.924183 14223 net.cpp:148] Top shape: 24 (24)
I0403 15:12:26.924199 14223 net.cpp:148] Top shape: 24 (24)
I0403 15:12:26.924216 14223 net.cpp:148] Top shape: 24 (24)
I0403 15:12:26.924232 14223 net.cpp:148] Top shape: 24 (24)
I0403 15:12:26.924247 14223 net.cpp:148] Top shape: 24 (24)
I0403 15:12:26.924263 14223 net.cpp:148] Top shape: 24 (24)
I0403 15:12:26.924278 14223 net.cpp:148] Top shape: 24 (24)
I0403 15:12:26.924294 14223 net.cpp:148] Top shape: 24 (24)
I0403 15:12:26.924310 14223 net.cpp:148] Top shape: 24 (24)
I0403 15:12:26.924325 14223 net.cpp:148] Top shape: 24 (24)
I0403 15:12:26.924372 14223 net.cpp:156] Memory required for data: 14451744
I0403 15:12:26.924388 14223 layer_factory.hpp:77] Creating layer conv1/7x7_s2
I0403 15:12:26.924419 14223 net.cpp:91] Creating Layer conv1/7x7_s2
I0403 15:12:26.924437 14223 net.cpp:425] conv1/7x7_s2 <- data
I0403 15:12:26.924456 14223 net.cpp:399] conv1/7x7_s2 -> conv1/7x7_s2
I0403 15:12:27.065807 14223 net.cpp:141] Setting up conv1/7x7_s2
I0403 15:12:27.065883 14223 net.cpp:148] Top shape: 24 64 112 112 (19267584)
I0403 15:12:27.065901 14223 net.cpp:156] Memory required for data: 91522080
I0403 15:12:27.065965 14223 layer_factory.hpp:77] Creating layer conv1/relu_7x7
I0403 15:12:27.066006 14223 net.cpp:91] Creating Layer conv1/relu_7x7
I0403 15:12:27.066025 14223 net.cpp:425] conv1/relu_7x7 <- conv1/7x7_s2
I0403 15:12:27.066043 14223 net.cpp:386] conv1/relu_7x7 -> conv1/7x7_s2 (in-place)
I0403 15:12:27.066328 14223 net.cpp:141] Setting up conv1/relu_7x7
I0403 15:12:27.066365 14223 net.cpp:148] Top shape: 24 64 112 112 (19267584)
I0403 15:12:27.066380 14223 net.cpp:156] Memory required for data: 168592416
I0403 15:12:27.066395 14223 layer_factory.hpp:77] Creating layer pool1/3x3_s2
I0403 15:12:27.066422 14223 net.cpp:91] Creating Layer pool1/3x3_s2
I0403 15:12:27.066440 14223 net.cpp:425] pool1/3x3_s2 <- conv1/7x7_s2
I0403 15:12:27.066459 14223 net.cpp:399] pool1/3x3_s2 -> pool1/3x3_s2
I0403 15:12:27.066540 14223 net.cpp:141] Setting up pool1/3x3_s2
I0403 15:12:27.066565 14223 net.cpp:148] Top shape: 24 64 56 56 (4816896)
I0403 15:12:27.066578 14223 net.cpp:156] Memory required for data: 187860000
I0403 15:12:27.066593 14223 layer_factory.hpp:77] Creating layer pool1/norm1
I0403 15:12:27.066617 14223 net.cpp:91] Creating Layer pool1/norm1
I0403 15:12:27.066634 14223 net.cpp:425] pool1/norm1 <- pool1/3x3_s2
I0403 15:12:27.066654 14223 net.cpp:399] pool1/norm1 -> pool1/norm1
I0403 15:12:27.066953 14223 net.cpp:141] Setting up pool1/norm1
I0403 15:12:27.066979 14223 net.cpp:148] Top shape: 24 64 56 56 (4816896)
I0403 15:12:27.066994 14223 net.cpp:156] Memory required for data: 207127584
I0403 15:12:27.067009 14223 layer_factory.hpp:77] Creating layer conv2/3x3_reduce
I0403 15:12:27.067036 14223 net.cpp:91] Creating Layer conv2/3x3_reduce
I0403 15:12:27.067052 14223 net.cpp:425] conv2/3x3_reduce <- pool1/norm1
I0403 15:12:27.067073 14223 net.cpp:399] conv2/3x3_reduce -> conv2/3x3_reduce
I0403 15:12:27.068497 14223 net.cpp:141] Setting up conv2/3x3_reduce
I0403 15:12:27.068532 14223 net.cpp:148] Top shape: 24 64 56 56 (4816896)
I0403 15:12:27.068549 14223 net.cpp:156] Memory required for data: 226395168
I0403 15:12:27.068572 14223 layer_factory.hpp:77] Creating layer conv2/relu_3x3_reduce
I0403 15:12:27.068598 14223 net.cpp:91] Creating Layer conv2/relu_3x3_reduce
I0403 15:12:27.068614 14223 net.cpp:425] conv2/relu_3x3_reduce <- conv2/3x3_reduce
I0403 15:12:27.068634 14223 net.cpp:386] conv2/relu_3x3_reduce -> conv2/3x3_reduce (in-place)
I0403 15:12:27.068897 14223 net.cpp:141] Setting up conv2/relu_3x3_reduce
I0403 15:12:27.068927 14223 net.cpp:148] Top shape: 24 64 56 56 (4816896)
I0403 15:12:27.068943 14223 net.cpp:156] Memory required for data: 245662752
I0403 15:12:27.068958 14223 layer_factory.hpp:77] Creating layer conv2/3x3
I0403 15:12:27.068982 14223 net.cpp:91] Creating Layer conv2/3x3
I0403 15:12:27.069000 14223 net.cpp:425] conv2/3x3 <- conv2/3x3_reduce
I0403 15:12:27.069020 14223 net.cpp:399] conv2/3x3 -> conv2/3x3
I0403 15:12:27.071372 14223 net.cpp:141] Setting up conv2/3x3
I0403 15:12:27.071405 14223 net.cpp:148] Top shape: 24 192 56 56 (14450688)
I0403 15:12:27.071424 14223 net.cpp:156] Memory required for data: 303465504
I0403 15:12:27.071445 14223 layer_factory.hpp:77] Creating layer conv2/relu_3x3
I0403 15:12:27.071465 14223 net.cpp:91] Creating Layer conv2/relu_3x3
I0403 15:12:27.071480 14223 net.cpp:425] conv2/relu_3x3 <- conv2/3x3
I0403 15:12:27.071503 14223 net.cpp:386] conv2/relu_3x3 -> conv2/3x3 (in-place)
I0403 15:12:27.071688 14223 net.cpp:141] Setting up conv2/relu_3x3
I0403 15:12:27.071713 14223 net.cpp:148] Top shape: 24 192 56 56 (14450688)
I0403 15:12:27.071774 14223 net.cpp:156] Memory required for data: 361268256
I0403 15:12:27.071791 14223 layer_factory.hpp:77] Creating layer conv2/norm2
I0403 15:12:27.071812 14223 net.cpp:91] Creating Layer conv2/norm2
I0403 15:12:27.071830 14223 net.cpp:425] conv2/norm2 <- conv2/3x3
I0403 15:12:27.071849 14223 net.cpp:399] conv2/norm2 -> conv2/norm2
I0403 15:12:27.072160 14223 net.cpp:141] Setting up conv2/norm2
I0403 15:12:27.072188 14223 net.cpp:148] Top shape: 24 192 56 56 (14450688)
I0403 15:12:27.072204 14223 net.cpp:156] Memory required for data: 419071008
I0403 15:12:27.072221 14223 layer_factory.hpp:77] Creating layer pool2/3x3_s2
I0403 15:12:27.072242 14223 net.cpp:91] Creating Layer pool2/3x3_s2
I0403 15:12:27.072258 14223 net.cpp:425] pool2/3x3_s2 <- conv2/norm2
I0403 15:12:27.072283 14223 net.cpp:399] pool2/3x3_s2 -> pool2/3x3_s2
I0403 15:12:27.072338 14223 net.cpp:141] Setting up pool2/3x3_s2
I0403 15:12:27.072362 14223 net.cpp:148] Top shape: 24 192 28 28 (3612672)
I0403 15:12:27.072377 14223 net.cpp:156] Memory required for data: 433521696
I0403 15:12:27.072392 14223 layer_factory.hpp:77] Creating layer pool2/3x3_s2_pool2/3x3_s2_0_split
I0403 15:12:27.072412 14223 net.cpp:91] Creating Layer pool2/3x3_s2_pool2/3x3_s2_0_split
I0403 15:12:27.072429 14223 net.cpp:425] pool2/3x3_s2_pool2/3x3_s2_0_split <- pool2/3x3_s2
I0403 15:12:27.072448 14223 net.cpp:399] pool2/3x3_s2_pool2/3x3_s2_0_split -> pool2/3x3_s2_pool2/3x3_s2_0_split_0
I0403 15:12:27.072468 14223 net.cpp:399] pool2/3x3_s2_pool2/3x3_s2_0_split -> pool2/3x3_s2_pool2/3x3_s2_0_split_1
I0403 15:12:27.072489 14223 net.cpp:399] pool2/3x3_s2_pool2/3x3_s2_0_split -> pool2/3x3_s2_pool2/3x3_s2_0_split_2
I0403 15:12:27.072513 14223 net.cpp:399] pool2/3x3_s2_pool2/3x3_s2_0_split -> pool2/3x3_s2_pool2/3x3_s2_0_split_3
I0403 15:12:27.072589 14223 net.cpp:141] Setting up pool2/3x3_s2_pool2/3x3_s2_0_split
I0403 15:12:27.072613 14223 net.cpp:148] Top shape: 24 192 28 28 (3612672)
I0403 15:12:27.072630 14223 net.cpp:148] Top shape: 24 192 28 28 (3612672)
I0403 15:12:27.072646 14223 net.cpp:148] Top shape: 24 192 28 28 (3612672)
I0403 15:12:27.072661 14223 net.cpp:148] Top shape: 24 192 28 28 (3612672)
I0403 15:12:27.072675 14223 net.cpp:156] Memory required for data: 491324448
I0403 15:12:27.072690 14223 layer_factory.hpp:77] Creating layer inception_3a/1x1
I0403 15:12:27.072713 14223 net.cpp:91] Creating Layer inception_3a/1x1
I0403 15:12:27.072731 14223 net.cpp:425] inception_3a/1x1 <- pool2/3x3_s2_pool2/3x3_s2_0_split_0
I0403 15:12:27.072752 14223 net.cpp:399] inception_3a/1x1 -> inception_3a/1x1
I0403 15:12:27.074334 14223 net.cpp:141] Setting up inception_3a/1x1
I0403 15:12:27.074367 14223 net.cpp:148] Top shape: 24 64 28 28 (1204224)
I0403 15:12:27.074383 14223 net.cpp:156] Memory required for data: 496141344
I0403 15:12:27.074403 14223 layer_factory.hpp:77] Creating layer inception_3a/relu_1x1
I0403 15:12:27.074421 14223 net.cpp:91] Creating Layer inception_3a/relu_1x1
I0403 15:12:27.074437 14223 net.cpp:425] inception_3a/relu_1x1 <- inception_3a/1x1
I0403 15:12:27.074455 14223 net.cpp:386] inception_3a/relu_1x1 -> inception_3a/1x1 (in-place)
I0403 15:12:27.074641 14223 net.cpp:141] Setting up inception_3a/relu_1x1
I0403 15:12:27.074667 14223 net.cpp:148] Top shape: 24 64 28 28 (1204224)
I0403 15:12:27.074682 14223 net.cpp:156] Memory required for data: 500958240
I0403 15:12:27.074697 14223 layer_factory.hpp:77] Creating layer inception_3a/3x3_reduce
I0403 15:12:27.074719 14223 net.cpp:91] Creating Layer inception_3a/3x3_reduce
I0403 15:12:27.074736 14223 net.cpp:425] inception_3a/3x3_reduce <- pool2/3x3_s2_pool2/3x3_s2_0_split_1
I0403 15:12:27.074758 14223 net.cpp:399] inception_3a/3x3_reduce -> inception_3a/3x3_reduce
I0403 15:12:27.076422 14223 net.cpp:141] Setting up inception_3a/3x3_reduce
I0403 15:12:27.076453 14223 net.cpp:148] Top shape: 24 96 28 28 (1806336)
I0403 15:12:27.076469 14223 net.cpp:156] Memory required for data: 508183584
I0403 15:12:27.076491 14223 layer_factory.hpp:77] Creating layer inception_3a/relu_3x3_reduce
I0403 15:12:27.076539 14223 net.cpp:91] Creating Layer inception_3a/relu_3x3_reduce
I0403 15:12:27.076563 14223 net.cpp:425] inception_3a/relu_3x3_reduce <- inception_3a/3x3_reduce
I0403 15:12:27.076581 14223 net.cpp:386] inception_3a/relu_3x3_reduce -> inception_3a/3x3_reduce (in-place)
I0403 15:12:27.076759 14223 net.cpp:141] Setting up inception_3a/relu_3x3_reduce
I0403 15:12:27.076784 14223 net.cpp:148] Top shape: 24 96 28 28 (1806336)
I0403 15:12:27.076799 14223 net.cpp:156] Memory required for data: 515408928
I0403 15:12:27.076813 14223 layer_factory.hpp:77] Creating layer inception_3a/3x3
I0403 15:12:27.076838 14223 net.cpp:91] Creating Layer inception_3a/3x3
I0403 15:12:27.076854 14223 net.cpp:425] inception_3a/3x3 <- inception_3a/3x3_reduce
I0403 15:12:27.076874 14223 net.cpp:399] inception_3a/3x3 -> inception_3a/3x3
I0403 15:12:27.078510 14223 net.cpp:141] Setting up inception_3a/3x3
I0403 15:12:27.078537 14223 net.cpp:148] Top shape: 24 128 28 28 (2408448)
I0403 15:12:27.078553 14223 net.cpp:156] Memory required for data: 525042720
I0403 15:12:27.078572 14223 layer_factory.hpp:77] Creating layer inception_3a/relu_3x3
I0403 15:12:27.078590 14223 net.cpp:91] Creating Layer inception_3a/relu_3x3
I0403 15:12:27.078606 14223 net.cpp:425] inception_3a/relu_3x3 <- inception_3a/3x3
I0403 15:12:27.078625 14223 net.cpp:386] inception_3a/relu_3x3 -> inception_3a/3x3 (in-place)
I0403 15:12:27.078908 14223 net.cpp:141] Setting up inception_3a/relu_3x3
I0403 15:12:27.078934 14223 net.cpp:148] Top shape: 24 128 28 28 (2408448)
I0403 15:12:27.078949 14223 net.cpp:156] Memory required for data: 534676512
I0403 15:12:27.078964 14223 layer_factory.hpp:77] Creating layer inception_3a/5x5_reduce
I0403 15:12:27.078987 14223 net.cpp:91] Creating Layer inception_3a/5x5_reduce
I0403 15:12:27.079005 14223 net.cpp:425] inception_3a/5x5_reduce <- pool2/3x3_s2_pool2/3x3_s2_0_split_2
I0403 15:12:27.079025 14223 net.cpp:399] inception_3a/5x5_reduce -> inception_3a/5x5_reduce
I0403 15:12:27.079984 14223 net.cpp:141] Setting up inception_3a/5x5_reduce
I0403 15:12:27.080011 14223 net.cpp:148] Top shape: 24 16 28 28 (301056)
I0403 15:12:27.080026 14223 net.cpp:156] Memory required for data: 535880736
I0403 15:12:27.080045 14223 layer_factory.hpp:77] Creating layer inception_3a/relu_5x5_reduce
I0403 15:12:27.080063 14223 net.cpp:91] Creating Layer inception_3a/relu_5x5_reduce
I0403 15:12:27.080080 14223 net.cpp:425] inception_3a/relu_5x5_reduce <- inception_3a/5x5_reduce
I0403 15:12:27.080098 14223 net.cpp:386] inception_3a/relu_5x5_reduce -> inception_3a/5x5_reduce (in-place)
I0403 15:12:27.080401 14223 net.cpp:141] Setting up inception_3a/relu_5x5_reduce
I0403 15:12:27.080427 14223 net.cpp:148] Top shape: 24 16 28 28 (301056)
I0403 15:12:27.080442 14223 net.cpp:156] Memory required for data: 537084960
I0403 15:12:27.080457 14223 layer_factory.hpp:77] Creating layer inception_3a/5x5
I0403 15:12:27.080479 14223 net.cpp:91] Creating Layer inception_3a/5x5
I0403 15:12:27.080497 14223 net.cpp:425] inception_3a/5x5 <- inception_3a/5x5_reduce
I0403 15:12:27.080523 14223 net.cpp:399] inception_3a/5x5 -> inception_3a/5x5
I0403 15:12:27.081524 14223 net.cpp:141] Setting up inception_3a/5x5
I0403 15:12:27.081554 14223 net.cpp:148] Top shape: 24 32 28 28 (602112)
I0403 15:12:27.081569 14223 net.cpp:156] Memory required for data: 539493408
I0403 15:12:27.081588 14223 layer_factory.hpp:77] Creating layer inception_3a/relu_5x5
I0403 15:12:27.081605 14223 net.cpp:91] Creating Layer inception_3a/relu_5x5
I0403 15:12:27.081622 14223 net.cpp:425] inception_3a/relu_5x5 <- inception_3a/5x5
I0403 15:12:27.081641 14223 net.cpp:386] inception_3a/relu_5x5 -> inception_3a/5x5 (in-place)
I0403 15:12:27.081811 14223 net.cpp:141] Setting up inception_3a/relu_5x5
I0403 15:12:27.081835 14223 net.cpp:148] Top shape: 24 32 28 28 (602112)
I0403 15:12:27.081851 14223 net.cpp:156] Memory required for data: 541901856
I0403 15:12:27.081864 14223 layer_factory.hpp:77] Creating layer inception_3a/pool
I0403 15:12:27.081884 14223 net.cpp:91] Creating Layer inception_3a/pool
I0403 15:12:27.081902 14223 net.cpp:425] inception_3a/pool <- pool2/3x3_s2_pool2/3x3_s2_0_split_3
I0403 15:12:27.081933 14223 net.cpp:399] inception_3a/pool -> inception_3a/pool
I0403 15:12:27.081991 14223 net.cpp:141] Setting up inception_3a/pool
I0403 15:12:27.082015 14223 net.cpp:148] Top shape: 24 192 28 28 (3612672)
I0403 15:12:27.082029 14223 net.cpp:156] Memory required for data: 556352544
I0403 15:12:27.082043 14223 layer_factory.hpp:77] Creating layer inception_3a/pool_proj
I0403 15:12:27.082065 14223 net.cpp:91] Creating Layer inception_3a/pool_proj
I0403 15:12:27.082082 14223 net.cpp:425] inception_3a/pool_proj <- inception_3a/pool
I0403 15:12:27.082104 14223 net.cpp:399] inception_3a/pool_proj -> inception_3a/pool_proj
I0403 15:12:27.083067 14223 net.cpp:141] Setting up inception_3a/pool_proj
I0403 15:12:27.083094 14223 net.cpp:148] Top shape: 24 32 28 28 (602112)
I0403 15:12:27.083111 14223 net.cpp:156] Memory required for data: 558760992
I0403 15:12:27.083134 14223 layer_factory.hpp:77] Creating layer inception_3a/relu_pool_proj
I0403 15:12:27.083163 14223 net.cpp:91] Creating Layer inception_3a/relu_pool_proj
I0403 15:12:27.083179 14223 net.cpp:425] inception_3a/relu_pool_proj <- inception_3a/pool_proj
I0403 15:12:27.083201 14223 net.cpp:386] inception_3a/relu_pool_proj -> inception_3a/pool_proj (in-place)
I0403 15:12:27.083487 14223 net.cpp:141] Setting up inception_3a/relu_pool_proj
I0403 15:12:27.083533 14223 net.cpp:148] Top shape: 24 32 28 28 (602112)
I0403 15:12:27.083551 14223 net.cpp:156] Memory required for data: 561169440
I0403 15:12:27.083566 14223 layer_factory.hpp:77] Creating layer inception_3a/output
I0403 15:12:27.083590 14223 net.cpp:91] Creating Layer inception_3a/output
I0403 15:12:27.083607 14223 net.cpp:425] inception_3a/output <- inception_3a/1x1
I0403 15:12:27.083626 14223 net.cpp:425] inception_3a/output <- inception_3a/3x3
I0403 15:12:27.083643 14223 net.cpp:425] inception_3a/output <- inception_3a/5x5
I0403 15:12:27.083662 14223 net.cpp:425] inception_3a/output <- inception_3a/pool_proj
I0403 15:12:27.083683 14223 net.cpp:399] inception_3a/output -> inception_3a/output
I0403 15:12:27.083731 14223 net.cpp:141] Setting up inception_3a/output
I0403 15:12:27.083758 14223 net.cpp:148] Top shape: 24 256 28 28 (4816896)
I0403 15:12:27.083775 14223 net.cpp:156] Memory required for data: 580437024
I0403 15:12:27.083791 14223 layer_factory.hpp:77] Creating layer inception_3a/output_inception_3a/output_0_split
I0403 15:12:27.083808 14223 net.cpp:91] Creating Layer inception_3a/output_inception_3a/output_0_split
I0403 15:12:27.083823 14223 net.cpp:425] inception_3a/output_inception_3a/output_0_split <- inception_3a/output
I0403 15:12:27.083842 14223 net.cpp:399] inception_3a/output_inception_3a/output_0_split -> inception_3a/output_inception_3a/output_0_split_0
I0403 15:12:27.083871 14223 net.cpp:399] inception_3a/output_inception_3a/output_0_split -> inception_3a/output_inception_3a/output_0_split_1
I0403 15:12:27.083896 14223 net.cpp:399] inception_3a/output_inception_3a/output_0_split -> inception_3a/output_inception_3a/output_0_split_2
I0403 15:12:27.083920 14223 net.cpp:399] inception_3a/output_inception_3a/output_0_split -> inception_3a/output_inception_3a/output_0_split_3
I0403 15:12:27.083997 14223 net.cpp:141] Setting up inception_3a/output_inception_3a/output_0_split
I0403 15:12:27.084022 14223 net.cpp:148] Top shape: 24 256 28 28 (4816896)
I0403 15:12:27.084040 14223 net.cpp:148] Top shape: 24 256 28 28 (4816896)
I0403 15:12:27.084056 14223 net.cpp:148] Top shape: 24 256 28 28 (4816896)
I0403 15:12:27.084072 14223 net.cpp:148] Top shape: 24 256 28 28 (4816896)
I0403 15:12:27.084087 14223 net.cpp:156] Memory required for data: 657507360
I0403 15:12:27.084102 14223 layer_factory.hpp:77] Creating layer inception_3b/1x1
I0403 15:12:27.084125 14223 net.cpp:91] Creating Layer inception_3b/1x1
I0403 15:12:27.084143 14223 net.cpp:425] inception_3b/1x1 <- inception_3a/output_inception_3a/output_0_split_0
I0403 15:12:27.084162 14223 net.cpp:399] inception_3b/1x1 -> inception_3b/1x1
I0403 15:12:27.085345 14223 net.cpp:141] Setting up inception_3b/1x1
I0403 15:12:27.085386 14223 net.cpp:148] Top shape: 24 128 28 28 (2408448)
I0403 15:12:27.085403 14223 net.cpp:156] Memory required for data: 667141152
I0403 15:12:27.085425 14223 layer_factory.hpp:77] Creating layer inception_3b/relu_1x1
I0403 15:12:27.085444 14223 net.cpp:91] Creating Layer inception_3b/relu_1x1
I0403 15:12:27.085461 14223 net.cpp:425] inception_3b/relu_1x1 <- inception_3b/1x1
I0403 15:12:27.085479 14223 net.cpp:386] inception_3b/relu_1x1 -> inception_3b/1x1 (in-place)
I0403 15:12:27.085664 14223 net.cpp:141] Setting up inception_3b/relu_1x1
I0403 15:12:27.085690 14223 net.cpp:148] Top shape: 24 128 28 28 (2408448)
I0403 15:12:27.085705 14223 net.cpp:156] Memory required for data: 676774944
I0403 15:12:27.085721 14223 layer_factory.hpp:77] Creating layer inception_3b/3x3_reduce
I0403 15:12:27.085743 14223 net.cpp:91] Creating Layer inception_3b/3x3_reduce
I0403 15:12:27.085762 14223 net.cpp:425] inception_3b/3x3_reduce <- inception_3a/output_inception_3a/output_0_split_1
I0403 15:12:27.085784 14223 net.cpp:399] inception_3b/3x3_reduce -> inception_3b/3x3_reduce
I0403 15:12:27.086966 14223 net.cpp:141] Setting up inception_3b/3x3_reduce
I0403 15:12:27.086997 14223 net.cpp:148] Top shape: 24 128 28 28 (2408448)
I0403 15:12:27.087014 14223 net.cpp:156] Memory required for data: 686408736
I0403 15:12:27.087033 14223 layer_factory.hpp:77] Creating layer inception_3b/relu_3x3_reduce
I0403 15:12:27.087052 14223 net.cpp:91] Creating Layer inception_3b/relu_3x3_reduce
I0403 15:12:27.087069 14223 net.cpp:425] inception_3b/relu_3x3_reduce <- inception_3b/3x3_reduce
I0403 15:12:27.087087 14223 net.cpp:386] inception_3b/relu_3x3_reduce -> inception_3b/3x3_reduce (in-place)
I0403 15:12:27.087271 14223 net.cpp:141] Setting up inception_3b/relu_3x3_reduce
I0403 15:12:27.087298 14223 net.cpp:148] Top shape: 24 128 28 28 (2408448)
I0403 15:12:27.087313 14223 net.cpp:156] Memory required for data: 696042528
I0403 15:12:27.087328 14223 layer_factory.hpp:77] Creating layer inception_3b/3x3
I0403 15:12:27.087354 14223 net.cpp:91] Creating Layer inception_3b/3x3
I0403 15:12:27.087373 14223 net.cpp:425] inception_3b/3x3 <- inception_3b/3x3_reduce
I0403 15:12:27.087396 14223 net.cpp:399] inception_3b/3x3 -> inception_3b/3x3
I0403 15:12:27.090356 14223 net.cpp:141] Setting up inception_3b/3x3
I0403 15:12:27.090387 14223 net.cpp:148] Top shape: 24 192 28 28 (3612672)
I0403 15:12:27.090404 14223 net.cpp:156] Memory required for data: 710493216
I0403 15:12:27.090422 14223 layer_factory.hpp:77] Creating layer inception_3b/relu_3x3
I0403 15:12:27.090442 14223 net.cpp:91] Creating Layer inception_3b/relu_3x3
I0403 15:12:27.090459 14223 net.cpp:425] inception_3b/relu_3x3 <- inception_3b/3x3
I0403 15:12:27.090479 14223 net.cpp:386] inception_3b/relu_3x3 -> inception_3b/3x3 (in-place)
I0403 15:12:27.090775 14223 net.cpp:141] Setting up inception_3b/relu_3x3
I0403 15:12:27.090802 14223 net.cpp:148] Top shape: 24 192 28 28 (3612672)
I0403 15:12:27.090817 14223 net.cpp:156] Memory required for data: 724943904
I0403 15:12:27.090833 14223 layer_factory.hpp:77] Creating layer inception_3b/5x5_reduce
I0403 15:12:27.090857 14223 net.cpp:91] Creating Layer inception_3b/5x5_reduce
I0403 15:12:27.090875 14223 net.cpp:425] inception_3b/5x5_reduce <- inception_3a/output_inception_3a/output_0_split_2
I0403 15:12:27.090905 14223 net.cpp:399] inception_3b/5x5_reduce -> inception_3b/5x5_reduce
I0403 15:12:27.091912 14223 net.cpp:141] Setting up inception_3b/5x5_reduce
I0403 15:12:27.091941 14223 net.cpp:148] Top shape: 24 32 28 28 (602112)
I0403 15:12:27.091958 14223 net.cpp:156] Memory required for data: 727352352
I0403 15:12:27.091979 14223 layer_factory.hpp:77] Creating layer inception_3b/relu_5x5_reduce
I0403 15:12:27.091997 14223 net.cpp:91] Creating Layer inception_3b/relu_5x5_reduce
I0403 15:12:27.092013 14223 net.cpp:425] inception_3b/relu_5x5_reduce <- inception_3b/5x5_reduce
I0403 15:12:27.092033 14223 net.cpp:386] inception_3b/relu_5x5_reduce -> inception_3b/5x5_reduce (in-place)
I0403 15:12:27.092211 14223 net.cpp:141] Setting up inception_3b/relu_5x5_reduce
I0403 15:12:27.092273 14223 net.cpp:148] Top shape: 24 32 28 28 (602112)
I0403 15:12:27.092290 14223 net.cpp:156] Memory required for data: 729760800
I0403 15:12:27.092306 14223 layer_factory.hpp:77] Creating layer inception_3b/5x5
I0403 15:12:27.092331 14223 net.cpp:91] Creating Layer inception_3b/5x5
I0403 15:12:27.092350 14223 net.cpp:425] inception_3b/5x5 <- inception_3b/5x5_reduce
I0403 15:12:27.092372 14223 net.cpp:399] inception_3b/5x5 -> inception_3b/5x5
I0403 15:12:27.094393 14223 net.cpp:141] Setting up inception_3b/5x5
I0403 15:12:27.094426 14223 net.cpp:148] Top shape: 24 96 28 28 (1806336)
I0403 15:12:27.094445 14223 net.cpp:156] Memory required for data: 736986144
I0403 15:12:27.094465 14223 layer_factory.hpp:77] Creating layer inception_3b/relu_5x5
I0403 15:12:27.094483 14223 net.cpp:91] Creating Layer inception_3b/relu_5x5
I0403 15:12:27.094499 14223 net.cpp:425] inception_3b/relu_5x5 <- inception_3b/5x5
I0403 15:12:27.094532 14223 net.cpp:386] inception_3b/relu_5x5 -> inception_3b/5x5 (in-place)
I0403 15:12:27.094738 14223 net.cpp:141] Setting up inception_3b/relu_5x5
I0403 15:12:27.094764 14223 net.cpp:148] Top shape: 24 96 28 28 (1806336)
I0403 15:12:27.094780 14223 net.cpp:156] Memory required for data: 744211488
I0403 15:12:27.094795 14223 layer_factory.hpp:77] Creating layer inception_3b/pool
I0403 15:12:27.094813 14223 net.cpp:91] Creating Layer inception_3b/pool
I0403 15:12:27.094830 14223 net.cpp:425] inception_3b/pool <- inception_3a/output_inception_3a/output_0_split_3
I0403 15:12:27.094848 14223 net.cpp:399] inception_3b/pool -> inception_3b/pool
I0403 15:12:27.094905 14223 net.cpp:141] Setting up inception_3b/pool
I0403 15:12:27.094933 14223 net.cpp:148] Top shape: 24 256 28 28 (4816896)
I0403 15:12:27.094949 14223 net.cpp:156] Memory required for data: 763479072
I0403 15:12:27.094964 14223 layer_factory.hpp:77] Creating layer inception_3b/pool_proj
I0403 15:12:27.094996 14223 net.cpp:91] Creating Layer inception_3b/pool_proj
I0403 15:12:27.095015 14223 net.cpp:425] inception_3b/pool_proj <- inception_3b/pool
I0403 15:12:27.095033 14223 net.cpp:399] inception_3b/pool_proj -> inception_3b/pool_proj
I0403 15:12:27.096120 14223 net.cpp:141] Setting up inception_3b/pool_proj
I0403 15:12:27.096150 14223 net.cpp:148] Top shape: 24 64 28 28 (1204224)
I0403 15:12:27.096166 14223 net.cpp:156] Memory required for data: 768295968
I0403 15:12:27.096186 14223 layer_factory.hpp:77] Creating layer inception_3b/relu_pool_proj
I0403 15:12:27.096209 14223 net.cpp:91] Creating Layer inception_3b/relu_pool_proj
I0403 15:12:27.096227 14223 net.cpp:425] inception_3b/relu_pool_proj <- inception_3b/pool_proj
I0403 15:12:27.096246 14223 net.cpp:386] inception_3b/relu_pool_proj -> inception_3b/pool_proj (in-place)
I0403 15:12:27.096664 14223 net.cpp:141] Setting up inception_3b/relu_pool_proj
I0403 15:12:27.096693 14223 net.cpp:148] Top shape: 24 64 28 28 (1204224)
I0403 15:12:27.096709 14223 net.cpp:156] Memory required for data: 773112864
I0403 15:12:27.096724 14223 layer_factory.hpp:77] Creating layer inception_3b/output
I0403 15:12:27.096742 14223 net.cpp:91] Creating Layer inception_3b/output
I0403 15:12:27.096758 14223 net.cpp:425] inception_3b/output <- inception_3b/1x1
I0403 15:12:27.096776 14223 net.cpp:425] inception_3b/output <- inception_3b/3x3
I0403 15:12:27.096792 14223 net.cpp:425] inception_3b/output <- inception_3b/5x5
I0403 15:12:27.096808 14223 net.cpp:425] inception_3b/output <- inception_3b/pool_proj
I0403 15:12:27.096829 14223 net.cpp:399] inception_3b/output -> inception_3b/output
I0403 15:12:27.096874 14223 net.cpp:141] Setting up inception_3b/output
I0403 15:12:27.096900 14223 net.cpp:148] Top shape: 24 480 28 28 (9031680)
I0403 15:12:27.096915 14223 net.cpp:156] Memory required for data: 809239584
I0403 15:12:27.096930 14223 layer_factory.hpp:77] Creating layer pool3/3x3_s2
I0403 15:12:27.096948 14223 net.cpp:91] Creating Layer pool3/3x3_s2
I0403 15:12:27.096966 14223 net.cpp:425] pool3/3x3_s2 <- inception_3b/output
I0403 15:12:27.096987 14223 net.cpp:399] pool3/3x3_s2 -> pool3/3x3_s2
I0403 15:12:27.097062 14223 net.cpp:141] Setting up pool3/3x3_s2
I0403 15:12:27.097086 14223 net.cpp:148] Top shape: 24 480 14 14 (2257920)
I0403 15:12:27.097101 14223 net.cpp:156] Memory required for data: 818271264
I0403 15:12:27.097116 14223 layer_factory.hpp:77] Creating layer pool3/3x3_s2_pool3/3x3_s2_0_split
I0403 15:12:27.097136 14223 net.cpp:91] Creating Layer pool3/3x3_s2_pool3/3x3_s2_0_split
I0403 15:12:27.097152 14223 net.cpp:425] pool3/3x3_s2_pool3/3x3_s2_0_split <- pool3/3x3_s2
I0403 15:12:27.097170 14223 net.cpp:399] pool3/3x3_s2_pool3/3x3_s2_0_split -> pool3/3x3_s2_pool3/3x3_s2_0_split_0
I0403 15:12:27.097190 14223 net.cpp:399] pool3/3x3_s2_pool3/3x3_s2_0_split -> pool3/3x3_s2_pool3/3x3_s2_0_split_1
I0403 15:12:27.097213 14223 net.cpp:399] pool3/3x3_s2_pool3/3x3_s2_0_split -> pool3/3x3_s2_pool3/3x3_s2_0_split_2
I0403 15:12:27.097234 14223 net.cpp:399] pool3/3x3_s2_pool3/3x3_s2_0_split -> pool3/3x3_s2_pool3/3x3_s2_0_split_3
I0403 15:12:27.097313 14223 net.cpp:141] Setting up pool3/3x3_s2_pool3/3x3_s2_0_split
I0403 15:12:27.097337 14223 net.cpp:148] Top shape: 24 480 14 14 (2257920)
I0403 15:12:27.097354 14223 net.cpp:148] Top shape: 24 480 14 14 (2257920)
I0403 15:12:27.097369 14223 net.cpp:148] Top shape: 24 480 14 14 (2257920)
I0403 15:12:27.097385 14223 net.cpp:148] Top shape: 24 480 14 14 (2257920)
I0403 15:12:27.097399 14223 net.cpp:156] Memory required for data: 854397984
I0403 15:12:27.097414 14223 layer_factory.hpp:77] Creating layer inception_4a/1x1
I0403 15:12:27.097436 14223 net.cpp:91] Creating Layer inception_4a/1x1
I0403 15:12:27.097453 14223 net.cpp:425] inception_4a/1x1 <- pool3/3x3_s2_pool3/3x3_s2_0_split_0
I0403 15:12:27.097476 14223 net.cpp:399] inception_4a/1x1 -> inception_4a/1x1
I0403 15:12:27.099078 14223 net.cpp:141] Setting up inception_4a/1x1
I0403 15:12:27.099107 14223 net.cpp:148] Top shape: 24 192 14 14 (903168)
I0403 15:12:27.099123 14223 net.cpp:156] Memory required for data: 858010656
I0403 15:12:27.099140 14223 layer_factory.hpp:77] Creating layer inception_4a/relu_1x1
I0403 15:12:27.099161 14223 net.cpp:91] Creating Layer inception_4a/relu_1x1
I0403 15:12:27.099179 14223 net.cpp:425] inception_4a/relu_1x1 <- inception_4a/1x1
I0403 15:12:27.099196 14223 net.cpp:386] inception_4a/relu_1x1 -> inception_4a/1x1 (in-place)
I0403 15:12:27.099385 14223 net.cpp:141] Setting up inception_4a/relu_1x1
I0403 15:12:27.099413 14223 net.cpp:148] Top shape: 24 192 14 14 (903168)
I0403 15:12:27.099428 14223 net.cpp:156] Memory required for data: 861623328
I0403 15:12:27.099443 14223 layer_factory.hpp:77] Creating layer inception_4a/3x3_reduce
I0403 15:12:27.099467 14223 net.cpp:91] Creating Layer inception_4a/3x3_reduce
I0403 15:12:27.099484 14223 net.cpp:425] inception_4a/3x3_reduce <- pool3/3x3_s2_pool3/3x3_s2_0_split_1
I0403 15:12:27.099503 14223 net.cpp:399] inception_4a/3x3_reduce -> inception_4a/3x3_reduce
I0403 15:12:27.100791 14223 net.cpp:141] Setting up inception_4a/3x3_reduce
I0403 15:12:27.100819 14223 net.cpp:148] Top shape: 24 96 14 14 (451584)
I0403 15:12:27.100836 14223 net.cpp:156] Memory required for data: 863429664
I0403 15:12:27.100860 14223 layer_factory.hpp:77] Creating layer inception_4a/relu_3x3_reduce
I0403 15:12:27.100883 14223 net.cpp:91] Creating Layer inception_4a/relu_3x3_reduce
I0403 15:12:27.100900 14223 net.cpp:425] inception_4a/relu_3x3_reduce <- inception_4a/3x3_reduce
I0403 15:12:27.100919 14223 net.cpp:386] inception_4a/relu_3x3_reduce -> inception_4a/3x3_reduce (in-place)
I0403 15:12:27.101094 14223 net.cpp:141] Setting up inception_4a/relu_3x3_reduce
I0403 15:12:27.101124 14223 net.cpp:148] Top shape: 24 96 14 14 (451584)
I0403 15:12:27.101138 14223 net.cpp:156] Memory required for data: 865236000
I0403 15:12:27.101153 14223 layer_factory.hpp:77] Creating layer inception_4a/3x3
I0403 15:12:27.101181 14223 net.cpp:91] Creating Layer inception_4a/3x3
I0403 15:12:27.101198 14223 net.cpp:425] inception_4a/3x3 <- inception_4a/3x3_reduce
I0403 15:12:27.101217 14223 net.cpp:399] inception_4a/3x3 -> inception_4a/3x3
I0403 15:12:27.103955 14223 net.cpp:141] Setting up inception_4a/3x3
I0403 15:12:27.103986 14223 net.cpp:148] Top shape: 24 208 14 14 (978432)
I0403 15:12:27.104002 14223 net.cpp:156] Memory required for data: 869149728
I0403 15:12:27.104022 14223 layer_factory.hpp:77] Creating layer inception_4a/relu_3x3
I0403 15:12:27.104039 14223 net.cpp:91] Creating Layer inception_4a/relu_3x3
I0403 15:12:27.104055 14223 net.cpp:425] inception_4a/relu_3x3 <- inception_4a/3x3
I0403 15:12:27.104073 14223 net.cpp:386] inception_4a/relu_3x3 -> inception_4a/3x3 (in-place)
I0403 15:12:27.104356 14223 net.cpp:141] Setting up inception_4a/relu_3x3
I0403 15:12:27.104383 14223 net.cpp:148] Top shape: 24 208 14 14 (978432)
I0403 15:12:27.104399 14223 net.cpp:156] Memory required for data: 873063456
I0403 15:12:27.104415 14223 layer_factory.hpp:77] Creating layer inception_4a/5x5_reduce
I0403 15:12:27.104439 14223 net.cpp:91] Creating Layer inception_4a/5x5_reduce
I0403 15:12:27.104455 14223 net.cpp:425] inception_4a/5x5_reduce <- pool3/3x3_s2_pool3/3x3_s2_0_split_2
I0403 15:12:27.104475 14223 net.cpp:399] inception_4a/5x5_reduce -> inception_4a/5x5_reduce
I0403 15:12:27.105511 14223 net.cpp:141] Setting up inception_4a/5x5_reduce
I0403 15:12:27.105540 14223 net.cpp:148] Top shape: 24 16 14 14 (75264)
I0403 15:12:27.105556 14223 net.cpp:156] Memory required for data: 873364512
I0403 15:12:27.105574 14223 layer_factory.hpp:77] Creating layer inception_4a/relu_5x5_reduce
I0403 15:12:27.105592 14223 net.cpp:91] Creating Layer inception_4a/relu_5x5_reduce
I0403 15:12:27.105608 14223 net.cpp:425] inception_4a/relu_5x5_reduce <- inception_4a/5x5_reduce
I0403 15:12:27.105628 14223 net.cpp:386] inception_4a/relu_5x5_reduce -> inception_4a/5x5_reduce (in-place)
I0403 15:12:27.105806 14223 net.cpp:141] Setting up inception_4a/relu_5x5_reduce
I0403 15:12:27.105831 14223 net.cpp:148] Top shape: 24 16 14 14 (75264)
I0403 15:12:27.105846 14223 net.cpp:156] Memory required for data: 873665568
I0403 15:12:27.105861 14223 layer_factory.hpp:77] Creating layer inception_4a/5x5
I0403 15:12:27.105883 14223 net.cpp:91] Creating Layer inception_4a/5x5
I0403 15:12:27.105901 14223 net.cpp:425] inception_4a/5x5 <- inception_4a/5x5_reduce
I0403 15:12:27.105921 14223 net.cpp:399] inception_4a/5x5 -> inception_4a/5x5
I0403 15:12:27.107002 14223 net.cpp:141] Setting up inception_4a/5x5
I0403 15:12:27.107029 14223 net.cpp:148] Top shape: 24 48 14 14 (225792)
I0403 15:12:27.107045 14223 net.cpp:156] Memory required for data: 874568736
I0403 15:12:27.107064 14223 layer_factory.hpp:77] Creating layer inception_4a/relu_5x5
I0403 15:12:27.107084 14223 net.cpp:91] Creating Layer inception_4a/relu_5x5
I0403 15:12:27.107100 14223 net.cpp:425] inception_4a/relu_5x5 <- inception_4a/5x5
I0403 15:12:27.107118 14223 net.cpp:386] inception_4a/relu_5x5 -> inception_4a/5x5 (in-place)
I0403 15:12:27.107309 14223 net.cpp:141] Setting up inception_4a/relu_5x5
I0403 15:12:27.107333 14223 net.cpp:148] Top shape: 24 48 14 14 (225792)
I0403 15:12:27.107352 14223 net.cpp:156] Memory required for data: 875471904
I0403 15:12:27.107372 14223 layer_factory.hpp:77] Creating layer inception_4a/pool
I0403 15:12:27.107390 14223 net.cpp:91] Creating Layer inception_4a/pool
I0403 15:12:27.107406 14223 net.cpp:425] inception_4a/pool <- pool3/3x3_s2_pool3/3x3_s2_0_split_3
I0403 15:12:27.107424 14223 net.cpp:399] inception_4a/pool -> inception_4a/pool
I0403 15:12:27.107486 14223 net.cpp:141] Setting up inception_4a/pool
I0403 15:12:27.107518 14223 net.cpp:148] Top shape: 24 480 14 14 (2257920)
I0403 15:12:27.107534 14223 net.cpp:156] Memory required for data: 884503584
I0403 15:12:27.107548 14223 layer_factory.hpp:77] Creating layer inception_4a/pool_proj
I0403 15:12:27.107573 14223 net.cpp:91] Creating Layer inception_4a/pool_proj
I0403 15:12:27.107590 14223 net.cpp:425] inception_4a/pool_proj <- inception_4a/pool
I0403 15:12:27.107614 14223 net.cpp:399] inception_4a/pool_proj -> inception_4a/pool_proj
I0403 15:12:27.108806 14223 net.cpp:141] Setting up inception_4a/pool_proj
I0403 15:12:27.108835 14223 net.cpp:148] Top shape: 24 64 14 14 (301056)
I0403 15:12:27.108875 14223 net.cpp:156] Memory required for data: 885707808
I0403 15:12:27.108896 14223 layer_factory.hpp:77] Creating layer inception_4a/relu_pool_proj
I0403 15:12:27.108918 14223 net.cpp:91] Creating Layer inception_4a/relu_pool_proj
I0403 15:12:27.108937 14223 net.cpp:425] inception_4a/relu_pool_proj <- inception_4a/pool_proj
I0403 15:12:27.108955 14223 net.cpp:386] inception_4a/relu_pool_proj -> inception_4a/pool_proj (in-place)
I0403 15:12:27.109256 14223 net.cpp:141] Setting up inception_4a/relu_pool_proj
I0403 15:12:27.109292 14223 net.cpp:148] Top shape: 24 64 14 14 (301056)
I0403 15:12:27.109308 14223 net.cpp:156] Memory required for data: 886912032
I0403 15:12:27.109323 14223 layer_factory.hpp:77] Creating layer inception_4a/output
I0403 15:12:27.109341 14223 net.cpp:91] Creating Layer inception_4a/output
I0403 15:12:27.109357 14223 net.cpp:425] inception_4a/output <- inception_4a/1x1
I0403 15:12:27.109377 14223 net.cpp:425] inception_4a/output <- inception_4a/3x3
I0403 15:12:27.109395 14223 net.cpp:425] inception_4a/output <- inception_4a/5x5
I0403 15:12:27.109412 14223 net.cpp:425] inception_4a/output <- inception_4a/pool_proj
I0403 15:12:27.109431 14223 net.cpp:399] inception_4a/output -> inception_4a/output
I0403 15:12:27.109478 14223 net.cpp:141] Setting up inception_4a/output
I0403 15:12:27.109501 14223 net.cpp:148] Top shape: 24 512 14 14 (2408448)
I0403 15:12:27.109522 14223 net.cpp:156] Memory required for data: 896545824
I0403 15:12:27.109537 14223 layer_factory.hpp:77] Creating layer inception_4a/output_inception_4a/output_0_split
I0403 15:12:27.109555 14223 net.cpp:91] Creating Layer inception_4a/output_inception_4a/output_0_split
I0403 15:12:27.109571 14223 net.cpp:425] inception_4a/output_inception_4a/output_0_split <- inception_4a/output
I0403 15:12:27.109592 14223 net.cpp:399] inception_4a/output_inception_4a/output_0_split -> inception_4a/output_inception_4a/output_0_split_0
I0403 15:12:27.109614 14223 net.cpp:399] inception_4a/output_inception_4a/output_0_split -> inception_4a/output_inception_4a/output_0_split_1
I0403 15:12:27.109637 14223 net.cpp:399] inception_4a/output_inception_4a/output_0_split -> inception_4a/output_inception_4a/output_0_split_2
I0403 15:12:27.109658 14223 net.cpp:399] inception_4a/output_inception_4a/output_0_split -> inception_4a/output_inception_4a/output_0_split_3
I0403 15:12:27.109678 14223 net.cpp:399] inception_4a/output_inception_4a/output_0_split -> inception_4a/output_inception_4a/output_0_split_4
I0403 15:12:27.109774 14223 net.cpp:141] Setting up inception_4a/output_inception_4a/output_0_split
I0403 15:12:27.109798 14223 net.cpp:148] Top shape: 24 512 14 14 (2408448)
I0403 15:12:27.109815 14223 net.cpp:148] Top shape: 24 512 14 14 (2408448)
I0403 15:12:27.109830 14223 net.cpp:148] Top shape: 24 512 14 14 (2408448)
I0403 15:12:27.109846 14223 net.cpp:148] Top shape: 24 512 14 14 (2408448)
I0403 15:12:27.109863 14223 net.cpp:148] Top shape: 24 512 14 14 (2408448)
I0403 15:12:27.109875 14223 net.cpp:156] Memory required for data: 944714784
I0403 15:12:27.109891 14223 layer_factory.hpp:77] Creating layer loss1/ave_pool
I0403 15:12:27.109910 14223 net.cpp:91] Creating Layer loss1/ave_pool
I0403 15:12:27.109925 14223 net.cpp:425] loss1/ave_pool <- inception_4a/output_inception_4a/output_0_split_0
I0403 15:12:27.109946 14223 net.cpp:399] loss1/ave_pool -> loss1/ave_pool
I0403 15:12:27.110152 14223 net.cpp:141] Setting up loss1/ave_pool
I0403 15:12:27.110178 14223 net.cpp:148] Top shape: 24 512 4 4 (196608)
I0403 15:12:27.110193 14223 net.cpp:156] Memory required for data: 945501216
I0403 15:12:27.110208 14223 layer_factory.hpp:77] Creating layer loss1/conv
I0403 15:12:27.110231 14223 net.cpp:91] Creating Layer loss1/conv
I0403 15:12:27.110249 14223 net.cpp:425] loss1/conv <- loss1/ave_pool
I0403 15:12:27.110278 14223 net.cpp:399] loss1/conv -> loss1/conv
I0403 15:12:27.111726 14223 net.cpp:141] Setting up loss1/conv
I0403 15:12:27.111757 14223 net.cpp:148] Top shape: 24 128 4 4 (49152)
I0403 15:12:27.111773 14223 net.cpp:156] Memory required for data: 945697824
I0403 15:12:27.111807 14223 layer_factory.hpp:77] Creating layer loss1/relu_conv
I0403 15:12:27.111829 14223 net.cpp:91] Creating Layer loss1/relu_conv
I0403 15:12:27.111845 14223 net.cpp:425] loss1/relu_conv <- loss1/conv
I0403 15:12:27.111861 14223 net.cpp:386] loss1/relu_conv -> loss1/conv (in-place)
I0403 15:12:27.112146 14223 net.cpp:141] Setting up loss1/relu_conv
I0403 15:12:27.112175 14223 net.cpp:148] Top shape: 24 128 4 4 (49152)
I0403 15:12:27.112192 14223 net.cpp:156] Memory required for data: 945894432
I0403 15:12:27.112207 14223 layer_factory.hpp:77] Creating layer loss1/fc
I0403 15:12:27.112231 14223 net.cpp:91] Creating Layer loss1/fc
I0403 15:12:27.112249 14223 net.cpp:425] loss1/fc <- loss1/conv
I0403 15:12:27.112273 14223 net.cpp:399] loss1/fc -> loss1/fc
I0403 15:12:27.130812 14223 net.cpp:141] Setting up loss1/fc
I0403 15:12:27.130879 14223 net.cpp:148] Top shape: 24 1024 (24576)
I0403 15:12:27.130897 14223 net.cpp:156] Memory required for data: 945992736
I0403 15:12:27.130918 14223 layer_factory.hpp:77] Creating layer loss1/relu_fc
I0403 15:12:27.130939 14223 net.cpp:91] Creating Layer loss1/relu_fc
I0403 15:12:27.130955 14223 net.cpp:425] loss1/relu_fc <- loss1/fc
I0403 15:12:27.130975 14223 net.cpp:386] loss1/relu_fc -> loss1/fc (in-place)
I0403 15:12:27.131207 14223 net.cpp:141] Setting up loss1/relu_fc
I0403 15:12:27.131235 14223 net.cpp:148] Top shape: 24 1024 (24576)
I0403 15:12:27.131253 14223 net.cpp:156] Memory required for data: 946091040
I0403 15:12:27.131268 14223 layer_factory.hpp:77] Creating layer loss1/drop_fc
I0403 15:12:27.131297 14223 net.cpp:91] Creating Layer loss1/drop_fc
I0403 15:12:27.131316 14223 net.cpp:425] loss1/drop_fc <- loss1/fc
I0403 15:12:27.131336 14223 net.cpp:386] loss1/drop_fc -> loss1/fc (in-place)
I0403 15:12:27.131393 14223 net.cpp:141] Setting up loss1/drop_fc
I0403 15:12:27.131417 14223 net.cpp:148] Top shape: 24 1024 (24576)
I0403 15:12:27.131433 14223 net.cpp:156] Memory required for data: 946189344
I0403 15:12:27.131448 14223 layer_factory.hpp:77] Creating layer loss1/classifier_plantvillage
I0403 15:12:27.131472 14223 net.cpp:91] Creating Layer loss1/classifier_plantvillage
I0403 15:12:27.131490 14223 net.cpp:425] loss1/classifier_plantvillage <- loss1/fc
I0403 15:12:27.131515 14223 net.cpp:399] loss1/classifier_plantvillage -> loss1/classifier_plantvillage
I0403 15:12:27.132496 14223 net.cpp:141] Setting up loss1/classifier_plantvillage
I0403 15:12:27.132534 14223 net.cpp:148] Top shape: 24 38 (912)
I0403 15:12:27.132552 14223 net.cpp:156] Memory required for data: 946192992
I0403 15:12:27.132572 14223 layer_factory.hpp:77] Creating layer loss1/classifier_plantvillage_loss1/classifier_plantvillage_0_split
I0403 15:12:27.132593 14223 net.cpp:91] Creating Layer loss1/classifier_plantvillage_loss1/classifier_plantvillage_0_split
I0403 15:12:27.132611 14223 net.cpp:425] loss1/classifier_plantvillage_loss1/classifier_plantvillage_0_split <- loss1/classifier_plantvillage
I0403 15:12:27.132629 14223 net.cpp:399] loss1/classifier_plantvillage_loss1/classifier_plantvillage_0_split -> loss1/classifier_plantvillage_loss1/classifier_plantvillage_0_split_0
I0403 15:12:27.132650 14223 net.cpp:399] loss1/classifier_plantvillage_loss1/classifier_plantvillage_0_split -> loss1/classifier_plantvillage_loss1/classifier_plantvillage_0_split_1
I0403 15:12:27.132673 14223 net.cpp:399] loss1/classifier_plantvillage_loss1/classifier_plantvillage_0_split -> loss1/classifier_plantvillage_loss1/classifier_plantvillage_0_split_2
I0403 15:12:27.132742 14223 net.cpp:141] Setting up loss1/classifier_plantvillage_loss1/classifier_plantvillage_0_split
I0403 15:12:27.132767 14223 net.cpp:148] Top shape: 24 38 (912)
I0403 15:12:27.132784 14223 net.cpp:148] Top shape: 24 38 (912)
I0403 15:12:27.132800 14223 net.cpp:148] Top shape: 24 38 (912)
I0403 15:12:27.132815 14223 net.cpp:156] Memory required for data: 946203936
I0403 15:12:27.132832 14223 layer_factory.hpp:77] Creating layer inception_4b/1x1
I0403 15:12:27.132854 14223 net.cpp:91] Creating Layer inception_4b/1x1
I0403 15:12:27.132897 14223 net.cpp:425] inception_4b/1x1 <- inception_4a/output_inception_4a/output_0_split_1
I0403 15:12:27.132922 14223 net.cpp:399] inception_4b/1x1 -> inception_4b/1x1
I0403 15:12:27.134711 14223 net.cpp:141] Setting up inception_4b/1x1
I0403 15:12:27.134742 14223 net.cpp:148] Top shape: 24 160 14 14 (752640)
I0403 15:12:27.134758 14223 net.cpp:156] Memory required for data: 949214496
I0403 15:12:27.134778 14223 layer_factory.hpp:77] Creating layer inception_4b/relu_1x1
I0403 15:12:27.134796 14223 net.cpp:91] Creating Layer inception_4b/relu_1x1
I0403 15:12:27.134812 14223 net.cpp:425] inception_4b/relu_1x1 <- inception_4b/1x1
I0403 15:12:27.134834 14223 net.cpp:386] inception_4b/relu_1x1 -> inception_4b/1x1 (in-place)
I0403 15:12:27.135016 14223 net.cpp:141] Setting up inception_4b/relu_1x1
I0403 15:12:27.135042 14223 net.cpp:148] Top shape: 24 160 14 14 (752640)
I0403 15:12:27.135057 14223 net.cpp:156] Memory required for data: 952225056
I0403 15:12:27.135072 14223 layer_factory.hpp:77] Creating layer inception_4b/3x3_reduce
I0403 15:12:27.135095 14223 net.cpp:91] Creating Layer inception_4b/3x3_reduce
I0403 15:12:27.135113 14223 net.cpp:425] inception_4b/3x3_reduce <- inception_4a/output_inception_4a/output_0_split_2
I0403 15:12:27.135135 14223 net.cpp:399] inception_4b/3x3_reduce -> inception_4b/3x3_reduce
I0403 15:12:27.136534 14223 net.cpp:141] Setting up inception_4b/3x3_reduce
I0403 15:12:27.136562 14223 net.cpp:148] Top shape: 24 112 14 14 (526848)
I0403 15:12:27.136579 14223 net.cpp:156] Memory required for data: 954332448
I0403 15:12:27.136597 14223 layer_factory.hpp:77] Creating layer inception_4b/relu_3x3_reduce
I0403 15:12:27.136618 14223 net.cpp:91] Creating Layer inception_4b/relu_3x3_reduce
I0403 15:12:27.136636 14223 net.cpp:425] inception_4b/relu_3x3_reduce <- inception_4b/3x3_reduce
I0403 15:12:27.136653 14223 net.cpp:386] inception_4b/relu_3x3_reduce -> inception_4b/3x3_reduce (in-place)
I0403 15:12:27.136942 14223 net.cpp:141] Setting up inception_4b/relu_3x3_reduce
I0403 15:12:27.136970 14223 net.cpp:148] Top shape: 24 112 14 14 (526848)
I0403 15:12:27.136986 14223 net.cpp:156] Memory required for data: 956439840
I0403 15:12:27.137001 14223 layer_factory.hpp:77] Creating layer inception_4b/3x3
I0403 15:12:27.137027 14223 net.cpp:91] Creating Layer inception_4b/3x3
I0403 15:12:27.137044 14223 net.cpp:425] inception_4b/3x3 <- inception_4b/3x3_reduce
I0403 15:12:27.137068 14223 net.cpp:399] inception_4b/3x3 -> inception_4b/3x3
I0403 15:12:27.140136 14223 net.cpp:141] Setting up inception_4b/3x3
I0403 15:12:27.140166 14223 net.cpp:148] Top shape: 24 224 14 14 (1053696)
I0403 15:12:27.140182 14223 net.cpp:156] Memory required for data: 960654624
I0403 15:12:27.140200 14223 layer_factory.hpp:77] Creating layer inception_4b/relu_3x3
I0403 15:12:27.140223 14223 net.cpp:91] Creating Layer inception_4b/relu_3x3
I0403 15:12:27.140239 14223 net.cpp:425] inception_4b/relu_3x3 <- inception_4b/3x3
I0403 15:12:27.140259 14223 net.cpp:386] inception_4b/relu_3x3 -> inception_4b/3x3 (in-place)
I0403 15:12:27.140444 14223 net.cpp:141] Setting up inception_4b/relu_3x3
I0403 15:12:27.140471 14223 net.cpp:148] Top shape: 24 224 14 14 (1053696)
I0403 15:12:27.140488 14223 net.cpp:156] Memory required for data: 964869408
I0403 15:12:27.140503 14223 layer_factory.hpp:77] Creating layer inception_4b/5x5_reduce
I0403 15:12:27.140532 14223 net.cpp:91] Creating Layer inception_4b/5x5_reduce
I0403 15:12:27.140550 14223 net.cpp:425] inception_4b/5x5_reduce <- inception_4a/output_inception_4a/output_0_split_3
I0403 15:12:27.140570 14223 net.cpp:399] inception_4b/5x5_reduce -> inception_4b/5x5_reduce
I0403 15:12:27.141702 14223 net.cpp:141] Setting up inception_4b/5x5_reduce
I0403 15:12:27.141732 14223 net.cpp:148] Top shape: 24 24 14 14 (112896)
I0403 15:12:27.141749 14223 net.cpp:156] Memory required for data: 965320992
I0403 15:12:27.141767 14223 layer_factory.hpp:77] Creating layer inception_4b/relu_5x5_reduce
I0403 15:12:27.141787 14223 net.cpp:91] Creating Layer inception_4b/relu_5x5_reduce
I0403 15:12:27.141818 14223 net.cpp:425] inception_4b/relu_5x5_reduce <- inception_4b/5x5_reduce
I0403 15:12:27.141839 14223 net.cpp:386] inception_4b/relu_5x5_reduce -> inception_4b/5x5_reduce (in-place)
I0403 15:12:27.142021 14223 net.cpp:141] Setting up inception_4b/relu_5x5_reduce
I0403 15:12:27.142046 14223 net.cpp:148] Top shape: 24 24 14 14 (112896)
I0403 15:12:27.142061 14223 net.cpp:156] Memory required for data: 965772576
I0403 15:12:27.142076 14223 layer_factory.hpp:77] Creating layer inception_4b/5x5
I0403 15:12:27.142098 14223 net.cpp:91] Creating Layer inception_4b/5x5
I0403 15:12:27.142115 14223 net.cpp:425] inception_4b/5x5 <- inception_4b/5x5_reduce
I0403 15:12:27.142138 14223 net.cpp:399] inception_4b/5x5 -> inception_4b/5x5
I0403 15:12:27.143359 14223 net.cpp:141] Setting up inception_4b/5x5
I0403 15:12:27.143389 14223 net.cpp:148] Top shape: 24 64 14 14 (301056)
I0403 15:12:27.143406 14223 net.cpp:156] Memory required for data: 966976800
I0403 15:12:27.143424 14223 layer_factory.hpp:77] Creating layer inception_4b/relu_5x5
I0403 15:12:27.143442 14223 net.cpp:91] Creating Layer inception_4b/relu_5x5
I0403 15:12:27.143458 14223 net.cpp:425] inception_4b/relu_5x5 <- inception_4b/5x5
I0403 15:12:27.143479 14223 net.cpp:386] inception_4b/relu_5x5 -> inception_4b/5x5 (in-place)
I0403 15:12:27.143769 14223 net.cpp:141] Setting up inception_4b/relu_5x5
I0403 15:12:27.143797 14223 net.cpp:148] Top shape: 24 64 14 14 (301056)
I0403 15:12:27.143813 14223 net.cpp:156] Memory required for data: 968181024
I0403 15:12:27.143828 14223 layer_factory.hpp:77] Creating layer inception_4b/pool
I0403 15:12:27.143846 14223 net.cpp:91] Creating Layer inception_4b/pool
I0403 15:12:27.143863 14223 net.cpp:425] inception_4b/pool <- inception_4a/output_inception_4a/output_0_split_4
I0403 15:12:27.143887 14223 net.cpp:399] inception_4b/pool -> inception_4b/pool
I0403 15:12:27.143954 14223 net.cpp:141] Setting up inception_4b/pool
I0403 15:12:27.143977 14223 net.cpp:148] Top shape: 24 512 14 14 (2408448)
I0403 15:12:27.143991 14223 net.cpp:156] Memory required for data: 977814816
I0403 15:12:27.144006 14223 layer_factory.hpp:77] Creating layer inception_4b/pool_proj
I0403 15:12:27.144029 14223 net.cpp:91] Creating Layer inception_4b/pool_proj
I0403 15:12:27.144047 14223 net.cpp:425] inception_4b/pool_proj <- inception_4b/pool
I0403 15:12:27.144067 14223 net.cpp:399] inception_4b/pool_proj -> inception_4b/pool_proj
I0403 15:12:27.145284 14223 net.cpp:141] Setting up inception_4b/pool_proj
I0403 15:12:27.145313 14223 net.cpp:148] Top shape: 24 64 14 14 (301056)
I0403 15:12:27.145328 14223 net.cpp:156] Memory required for data: 979019040
I0403 15:12:27.145346 14223 layer_factory.hpp:77] Creating layer inception_4b/relu_pool_proj
I0403 15:12:27.145364 14223 net.cpp:91] Creating Layer inception_4b/relu_pool_proj
I0403 15:12:27.145380 14223 net.cpp:425] inception_4b/relu_pool_proj <- inception_4b/pool_proj
I0403 15:12:27.145401 14223 net.cpp:386] inception_4b/relu_pool_proj -> inception_4b/pool_proj (in-place)
I0403 15:12:27.145586 14223 net.cpp:141] Setting up inception_4b/relu_pool_proj
I0403 15:12:27.145612 14223 net.cpp:148] Top shape: 24 64 14 14 (301056)
I0403 15:12:27.145627 14223 net.cpp:156] Memory required for data: 980223264
I0403 15:12:27.145642 14223 layer_factory.hpp:77] Creating layer inception_4b/output
I0403 15:12:27.145661 14223 net.cpp:91] Creating Layer inception_4b/output
I0403 15:12:27.145678 14223 net.cpp:425] inception_4b/output <- inception_4b/1x1
I0403 15:12:27.145695 14223 net.cpp:425] inception_4b/output <- inception_4b/3x3
I0403 15:12:27.145712 14223 net.cpp:425] inception_4b/output <- inception_4b/5x5
I0403 15:12:27.145728 14223 net.cpp:425] inception_4b/output <- inception_4b/pool_proj
I0403 15:12:27.145745 14223 net.cpp:399] inception_4b/output -> inception_4b/output
I0403 15:12:27.145792 14223 net.cpp:141] Setting up inception_4b/output
I0403 15:12:27.145817 14223 net.cpp:148] Top shape: 24 512 14 14 (2408448)
I0403 15:12:27.145833 14223 net.cpp:156] Memory required for data: 989857056
I0403 15:12:27.145862 14223 layer_factory.hpp:77] Creating layer inception_4b/output_inception_4b/output_0_split
I0403 15:12:27.145881 14223 net.cpp:91] Creating Layer inception_4b/output_inception_4b/output_0_split
I0403 15:12:27.145897 14223 net.cpp:425] inception_4b/output_inception_4b/output_0_split <- inception_4b/output
I0403 15:12:27.145916 14223 net.cpp:399] inception_4b/output_inception_4b/output_0_split -> inception_4b/output_inception_4b/output_0_split_0
I0403 15:12:27.145938 14223 net.cpp:399] inception_4b/output_inception_4b/output_0_split -> inception_4b/output_inception_4b/output_0_split_1
I0403 15:12:27.145959 14223 net.cpp:399] inception_4b/output_inception_4b/output_0_split -> inception_4b/output_inception_4b/output_0_split_2
I0403 15:12:27.145979 14223 net.cpp:399] inception_4b/output_inception_4b/output_0_split -> inception_4b/output_inception_4b/output_0_split_3
I0403 15:12:27.146061 14223 net.cpp:141] Setting up inception_4b/output_inception_4b/output_0_split
I0403 15:12:27.146087 14223 net.cpp:148] Top shape: 24 512 14 14 (2408448)
I0403 15:12:27.146105 14223 net.cpp:148] Top shape: 24 512 14 14 (2408448)
I0403 15:12:27.146119 14223 net.cpp:148] Top shape: 24 512 14 14 (2408448)
I0403 15:12:27.146136 14223 net.cpp:148] Top shape: 24 512 14 14 (2408448)
I0403 15:12:27.146148 14223 net.cpp:156] Memory required for data: 1028392224
I0403 15:12:27.146163 14223 layer_factory.hpp:77] Creating layer inception_4c/1x1
I0403 15:12:27.146186 14223 net.cpp:91] Creating Layer inception_4c/1x1
I0403 15:12:27.146204 14223 net.cpp:425] inception_4c/1x1 <- inception_4b/output_inception_4b/output_0_split_0
I0403 15:12:27.146224 14223 net.cpp:399] inception_4c/1x1 -> inception_4c/1x1
I0403 15:12:27.147660 14223 net.cpp:141] Setting up inception_4c/1x1
I0403 15:12:27.147687 14223 net.cpp:148] Top shape: 24 128 14 14 (602112)
I0403 15:12:27.147703 14223 net.cpp:156] Memory required for data: 1030800672
I0403 15:12:27.147722 14223 layer_factory.hpp:77] Creating layer inception_4c/relu_1x1
I0403 15:12:27.147742 14223 net.cpp:91] Creating Layer inception_4c/relu_1x1
I0403 15:12:27.147758 14223 net.cpp:425] inception_4c/relu_1x1 <- inception_4c/1x1
I0403 15:12:27.147776 14223 net.cpp:386] inception_4c/relu_1x1 -> inception_4c/1x1 (in-place)
I0403 15:12:27.147958 14223 net.cpp:141] Setting up inception_4c/relu_1x1
I0403 15:12:27.147984 14223 net.cpp:148] Top shape: 24 128 14 14 (602112)
I0403 15:12:27.148000 14223 net.cpp:156] Memory required for data: 1033209120
I0403 15:12:27.148015 14223 layer_factory.hpp:77] Creating layer inception_4c/3x3_reduce
I0403 15:12:27.148041 14223 net.cpp:91] Creating Layer inception_4c/3x3_reduce
I0403 15:12:27.148058 14223 net.cpp:425] inception_4c/3x3_reduce <- inception_4b/output_inception_4b/output_0_split_1
I0403 15:12:27.148077 14223 net.cpp:399] inception_4c/3x3_reduce -> inception_4c/3x3_reduce
I0403 15:12:27.150023 14223 net.cpp:141] Setting up inception_4c/3x3_reduce
I0403 15:12:27.150053 14223 net.cpp:148] Top shape: 24 128 14 14 (602112)
I0403 15:12:27.150070 14223 net.cpp:156] Memory required for data: 1035617568
I0403 15:12:27.150089 14223 layer_factory.hpp:77] Creating layer inception_4c/relu_3x3_reduce
I0403 15:12:27.150106 14223 net.cpp:91] Creating Layer inception_4c/relu_3x3_reduce
I0403 15:12:27.150122 14223 net.cpp:425] inception_4c/relu_3x3_reduce <- inception_4c/3x3_reduce
I0403 15:12:27.150142 14223 net.cpp:386] inception_4c/relu_3x3_reduce -> inception_4c/3x3_reduce (in-place)
I0403 15:12:27.150434 14223 net.cpp:141] Setting up inception_4c/relu_3x3_reduce
I0403 15:12:27.150461 14223 net.cpp:148] Top shape: 24 128 14 14 (602112)
I0403 15:12:27.150477 14223 net.cpp:156] Memory required for data: 1038026016
I0403 15:12:27.150492 14223 layer_factory.hpp:77] Creating layer inception_4c/3x3
I0403 15:12:27.150521 14223 net.cpp:91] Creating Layer inception_4c/3x3
I0403 15:12:27.150540 14223 net.cpp:425] inception_4c/3x3 <- inception_4c/3x3_reduce
I0403 15:12:27.150559 14223 net.cpp:399] inception_4c/3x3 -> inception_4c/3x3
I0403 15:12:27.154117 14223 net.cpp:141] Setting up inception_4c/3x3
I0403 15:12:27.154156 14223 net.cpp:148] Top shape: 24 256 14 14 (1204224)
I0403 15:12:27.154172 14223 net.cpp:156] Memory required for data: 1042842912
I0403 15:12:27.154206 14223 layer_factory.hpp:77] Creating layer inception_4c/relu_3x3
I0403 15:12:27.154227 14223 net.cpp:91] Creating Layer inception_4c/relu_3x3
I0403 15:12:27.154242 14223 net.cpp:425] inception_4c/relu_3x3 <- inception_4c/3x3
I0403 15:12:27.154261 14223 net.cpp:386] inception_4c/relu_3x3 -> inception_4c/3x3 (in-place)
I0403 15:12:27.154443 14223 net.cpp:141] Setting up inception_4c/relu_3x3
I0403 15:12:27.154467 14223 net.cpp:148] Top shape: 24 256 14 14 (1204224)
I0403 15:12:27.154481 14223 net.cpp:156] Memory required for data: 1047659808
I0403 15:12:27.154495 14223 layer_factory.hpp:77] Creating layer inception_4c/5x5_reduce
I0403 15:12:27.154530 14223 net.cpp:91] Creating Layer inception_4c/5x5_reduce
I0403 15:12:27.154548 14223 net.cpp:425] inception_4c/5x5_reduce <- inception_4b/output_inception_4b/output_0_split_2
I0403 15:12:27.154575 14223 net.cpp:399] inception_4c/5x5_reduce -> inception_4c/5x5_reduce
I0403 15:12:27.155642 14223 net.cpp:141] Setting up inception_4c/5x5_reduce
I0403 15:12:27.155671 14223 net.cpp:148] Top shape: 24 24 14 14 (112896)
I0403 15:12:27.155688 14223 net.cpp:156] Memory required for data: 1048111392
I0403 15:12:27.155705 14223 layer_factory.hpp:77] Creating layer inception_4c/relu_5x5_reduce
I0403 15:12:27.155724 14223 net.cpp:91] Creating Layer inception_4c/relu_5x5_reduce
I0403 15:12:27.155740 14223 net.cpp:425] inception_4c/relu_5x5_reduce <- inception_4c/5x5_reduce
I0403 15:12:27.155758 14223 net.cpp:386] inception_4c/relu_5x5_reduce -> inception_4c/5x5_reduce (in-place)
I0403 15:12:27.155938 14223 net.cpp:141] Setting up inception_4c/relu_5x5_reduce
I0403 15:12:27.155962 14223 net.cpp:148] Top shape: 24 24 14 14 (112896)
I0403 15:12:27.155977 14223 net.cpp:156] Memory required for data: 1048562976
I0403 15:12:27.155990 14223 layer_factory.hpp:77] Creating layer inception_4c/5x5
I0403 15:12:27.156013 14223 net.cpp:91] Creating Layer inception_4c/5x5
I0403 15:12:27.156029 14223 net.cpp:425] inception_4c/5x5 <- inception_4c/5x5_reduce
I0403 15:12:27.156052 14223 net.cpp:399] inception_4c/5x5 -> inception_4c/5x5
I0403 15:12:27.157269 14223 net.cpp:141] Setting up inception_4c/5x5
I0403 15:12:27.157295 14223 net.cpp:148] Top shape: 24 64 14 14 (301056)
I0403 15:12:27.157310 14223 net.cpp:156] Memory required for data: 1049767200
I0403 15:12:27.157328 14223 layer_factory.hpp:77] Creating layer inception_4c/relu_5x5
I0403 15:12:27.157348 14223 net.cpp:91] Creating Layer inception_4c/relu_5x5
I0403 15:12:27.157366 14223 net.cpp:425] inception_4c/relu_5x5 <- inception_4c/5x5
I0403 15:12:27.157382 14223 net.cpp:386] inception_4c/relu_5x5 -> inception_4c/5x5 (in-place)
I0403 15:12:27.157667 14223 net.cpp:141] Setting up inception_4c/relu_5x5
I0403 15:12:27.157693 14223 net.cpp:148] Top shape: 24 64 14 14 (301056)
I0403 15:12:27.157707 14223 net.cpp:156] Memory required for data: 1050971424
I0403 15:12:27.157722 14223 layer_factory.hpp:77] Creating layer inception_4c/pool
I0403 15:12:27.157742 14223 net.cpp:91] Creating Layer inception_4c/pool
I0403 15:12:27.157758 14223 net.cpp:425] inception_4c/pool <- inception_4b/output_inception_4b/output_0_split_3
I0403 15:12:27.157776 14223 net.cpp:399] inception_4c/pool -> inception_4c/pool
I0403 15:12:27.157840 14223 net.cpp:141] Setting up inception_4c/pool
I0403 15:12:27.157863 14223 net.cpp:148] Top shape: 24 512 14 14 (2408448)
I0403 15:12:27.157878 14223 net.cpp:156] Memory required for data: 1060605216
I0403 15:12:27.157892 14223 layer_factory.hpp:77] Creating layer inception_4c/pool_proj
I0403 15:12:27.157914 14223 net.cpp:91] Creating Layer inception_4c/pool_proj
I0403 15:12:27.157932 14223 net.cpp:425] inception_4c/pool_proj <- inception_4c/pool
I0403 15:12:27.157951 14223 net.cpp:399] inception_4c/pool_proj -> inception_4c/pool_proj
I0403 15:12:27.159137 14223 net.cpp:141] Setting up inception_4c/pool_proj
I0403 15:12:27.159163 14223 net.cpp:148] Top shape: 24 64 14 14 (301056)
I0403 15:12:27.159191 14223 net.cpp:156] Memory required for data: 1061809440
I0403 15:12:27.159210 14223 layer_factory.hpp:77] Creating layer inception_4c/relu_pool_proj
I0403 15:12:27.159229 14223 net.cpp:91] Creating Layer inception_4c/relu_pool_proj
I0403 15:12:27.159243 14223 net.cpp:425] inception_4c/relu_pool_proj <- inception_4c/pool_proj
I0403 15:12:27.159262 14223 net.cpp:386] inception_4c/relu_pool_proj -> inception_4c/pool_proj (in-place)
I0403 15:12:27.159440 14223 net.cpp:141] Setting up inception_4c/relu_pool_proj
I0403 15:12:27.159464 14223 net.cpp:148] Top shape: 24 64 14 14 (301056)
I0403 15:12:27.159478 14223 net.cpp:156] Memory required for data: 1063013664
I0403 15:12:27.159492 14223 layer_factory.hpp:77] Creating layer inception_4c/output
I0403 15:12:27.159515 14223 net.cpp:91] Creating Layer inception_4c/output
I0403 15:12:27.159535 14223 net.cpp:425] inception_4c/output <- inception_4c/1x1
I0403 15:12:27.159551 14223 net.cpp:425] inception_4c/output <- inception_4c/3x3
I0403 15:12:27.159567 14223 net.cpp:425] inception_4c/output <- inception_4c/5x5
I0403 15:12:27.159582 14223 net.cpp:425] inception_4c/output <- inception_4c/pool_proj
I0403 15:12:27.159600 14223 net.cpp:399] inception_4c/output -> inception_4c/output
I0403 15:12:27.159643 14223 net.cpp:141] Setting up inception_4c/output
I0403 15:12:27.159668 14223 net.cpp:148] Top shape: 24 512 14 14 (2408448)
I0403 15:12:27.159683 14223 net.cpp:156] Memory required for data: 1072647456
I0403 15:12:27.159709 14223 layer_factory.hpp:77] Creating layer inception_4c/output_inception_4c/output_0_split
I0403 15:12:27.159726 14223 net.cpp:91] Creating Layer inception_4c/output_inception_4c/output_0_split
I0403 15:12:27.159741 14223 net.cpp:425] inception_4c/output_inception_4c/output_0_split <- inception_4c/output
I0403 15:12:27.159765 14223 net.cpp:399] inception_4c/output_inception_4c/output_0_split -> inception_4c/output_inception_4c/output_0_split_0
I0403 15:12:27.159785 14223 net.cpp:399] inception_4c/output_inception_4c/output_0_split -> inception_4c/output_inception_4c/output_0_split_1
I0403 15:12:27.159806 14223 net.cpp:399] inception_4c/output_inception_4c/output_0_split -> inception_4c/output_inception_4c/output_0_split_2
I0403 15:12:27.159826 14223 net.cpp:399] inception_4c/output_inception_4c/output_0_split -> inception_4c/output_inception_4c/output_0_split_3
I0403 15:12:27.159910 14223 net.cpp:141] Setting up inception_4c/output_inception_4c/output_0_split
I0403 15:12:27.159936 14223 net.cpp:148] Top shape: 24 512 14 14 (2408448)
I0403 15:12:27.159953 14223 net.cpp:148] Top shape: 24 512 14 14 (2408448)
I0403 15:12:27.159970 14223 net.cpp:148] Top shape: 24 512 14 14 (2408448)
I0403 15:12:27.159984 14223 net.cpp:148] Top shape: 24 512 14 14 (2408448)
I0403 15:12:27.159998 14223 net.cpp:156] Memory required for data: 1111182624
I0403 15:12:27.160013 14223 layer_factory.hpp:77] Creating layer inception_4d/1x1
I0403 15:12:27.160035 14223 net.cpp:91] Creating Layer inception_4d/1x1
I0403 15:12:27.160053 14223 net.cpp:425] inception_4d/1x1 <- inception_4c/output_inception_4c/output_0_split_0
I0403 15:12:27.160071 14223 net.cpp:399] inception_4d/1x1 -> inception_4d/1x1
I0403 15:12:27.161464 14223 net.cpp:141] Setting up inception_4d/1x1
I0403 15:12:27.161494 14223 net.cpp:148] Top shape: 24 112 14 14 (526848)
I0403 15:12:27.161516 14223 net.cpp:156] Memory required for data: 1113290016
I0403 15:12:27.161535 14223 layer_factory.hpp:77] Creating layer inception_4d/relu_1x1
I0403 15:12:27.161553 14223 net.cpp:91] Creating Layer inception_4d/relu_1x1
I0403 15:12:27.161568 14223 net.cpp:425] inception_4d/relu_1x1 <- inception_4d/1x1
I0403 15:12:27.161586 14223 net.cpp:386] inception_4d/relu_1x1 -> inception_4d/1x1 (in-place)
I0403 15:12:27.161763 14223 net.cpp:141] Setting up inception_4d/relu_1x1
I0403 15:12:27.161789 14223 net.cpp:148] Top shape: 24 112 14 14 (526848)
I0403 15:12:27.161805 14223 net.cpp:156] Memory required for data: 1115397408
I0403 15:12:27.161819 14223 layer_factory.hpp:77] Creating layer inception_4d/3x3_reduce
I0403 15:12:27.161854 14223 net.cpp:91] Creating Layer inception_4d/3x3_reduce
I0403 15:12:27.161873 14223 net.cpp:425] inception_4d/3x3_reduce <- inception_4c/output_inception_4c/output_0_split_1
I0403 15:12:27.161892 14223 net.cpp:399] inception_4d/3x3_reduce -> inception_4d/3x3_reduce
I0403 15:12:27.163359 14223 net.cpp:141] Setting up inception_4d/3x3_reduce
I0403 15:12:27.163385 14223 net.cpp:148] Top shape: 24 144 14 14 (677376)
I0403 15:12:27.163401 14223 net.cpp:156] Memory required for data: 1118106912
I0403 15:12:27.163419 14223 layer_factory.hpp:77] Creating layer inception_4d/relu_3x3_reduce
I0403 15:12:27.163439 14223 net.cpp:91] Creating Layer inception_4d/relu_3x3_reduce
I0403 15:12:27.163455 14223 net.cpp:425] inception_4d/relu_3x3_reduce <- inception_4d/3x3_reduce
I0403 15:12:27.163472 14223 net.cpp:386] inception_4d/relu_3x3_reduce -> inception_4d/3x3_reduce (in-place)
I0403 15:12:27.163759 14223 net.cpp:141] Setting up inception_4d/relu_3x3_reduce
I0403 15:12:27.163784 14223 net.cpp:148] Top shape: 24 144 14 14 (677376)
I0403 15:12:27.163800 14223 net.cpp:156] Memory required for data: 1120816416
I0403 15:12:27.163815 14223 layer_factory.hpp:77] Creating layer inception_4d/3x3
I0403 15:12:27.163838 14223 net.cpp:91] Creating Layer inception_4d/3x3
I0403 15:12:27.163856 14223 net.cpp:425] inception_4d/3x3 <- inception_4d/3x3_reduce
I0403 15:12:27.163877 14223 net.cpp:399] inception_4d/3x3 -> inception_4d/3x3
I0403 15:12:27.168021 14223 net.cpp:141] Setting up inception_4d/3x3
I0403 15:12:27.168050 14223 net.cpp:148] Top shape: 24 288 14 14 (1354752)
I0403 15:12:27.168064 14223 net.cpp:156] Memory required for data: 1126235424
I0403 15:12:27.168084 14223 layer_factory.hpp:77] Creating layer inception_4d/relu_3x3
I0403 15:12:27.168103 14223 net.cpp:91] Creating Layer inception_4d/relu_3x3
I0403 15:12:27.168122 14223 net.cpp:425] inception_4d/relu_3x3 <- inception_4d/3x3
I0403 15:12:27.168138 14223 net.cpp:386] inception_4d/relu_3x3 -> inception_4d/3x3 (in-place)
I0403 15:12:27.168321 14223 net.cpp:141] Setting up inception_4d/relu_3x3
I0403 15:12:27.168346 14223 net.cpp:148] Top shape: 24 288 14 14 (1354752)
I0403 15:12:27.168359 14223 net.cpp:156] Memory required for data: 1131654432
I0403 15:12:27.168375 14223 layer_factory.hpp:77] Creating layer inception_4d/5x5_reduce
I0403 15:12:27.168395 14223 net.cpp:91] Creating Layer inception_4d/5x5_reduce
I0403 15:12:27.168413 14223 net.cpp:425] inception_4d/5x5_reduce <- inception_4c/output_inception_4c/output_0_split_2
I0403 15:12:27.168434 14223 net.cpp:399] inception_4d/5x5_reduce -> inception_4d/5x5_reduce
I0403 15:12:27.169625 14223 net.cpp:141] Setting up inception_4d/5x5_reduce
I0403 15:12:27.169654 14223 net.cpp:148] Top shape: 24 32 14 14 (150528)
I0403 15:12:27.169672 14223 net.cpp:156] Memory required for data: 1132256544
I0403 15:12:27.169690 14223 layer_factory.hpp:77] Creating layer inception_4d/relu_5x5_reduce
I0403 15:12:27.169709 14223 net.cpp:91] Creating Layer inception_4d/relu_5x5_reduce
I0403 15:12:27.169734 14223 net.cpp:425] inception_4d/relu_5x5_reduce <- inception_4d/5x5_reduce
I0403 15:12:27.169751 14223 net.cpp:386] inception_4d/relu_5x5_reduce -> inception_4d/5x5_reduce (in-place)
I0403 15:12:27.169939 14223 net.cpp:141] Setting up inception_4d/relu_5x5_reduce
I0403 15:12:27.169965 14223 net.cpp:148] Top shape: 24 32 14 14 (150528)
I0403 15:12:27.169978 14223 net.cpp:156] Memory required for data: 1132858656
I0403 15:12:27.169993 14223 layer_factory.hpp:77] Creating layer inception_4d/5x5
I0403 15:12:27.170016 14223 net.cpp:91] Creating Layer inception_4d/5x5
I0403 15:12:27.170033 14223 net.cpp:425] inception_4d/5x5 <- inception_4d/5x5_reduce
I0403 15:12:27.170055 14223 net.cpp:399] inception_4d/5x5 -> inception_4d/5x5
I0403 15:12:27.171550 14223 net.cpp:141] Setting up inception_4d/5x5
I0403 15:12:27.171576 14223 net.cpp:148] Top shape: 24 64 14 14 (301056)
I0403 15:12:27.171592 14223 net.cpp:156] Memory required for data: 1134062880
I0403 15:12:27.171612 14223 layer_factory.hpp:77] Creating layer inception_4d/relu_5x5
I0403 15:12:27.171646 14223 net.cpp:91] Creating Layer inception_4d/relu_5x5
I0403 15:12:27.171664 14223 net.cpp:425] inception_4d/relu_5x5 <- inception_4d/5x5
I0403 15:12:27.171682 14223 net.cpp:386] inception_4d/relu_5x5 -> inception_4d/5x5 (in-place)
I0403 15:12:27.171988 14223 net.cpp:141] Setting up inception_4d/relu_5x5
I0403 15:12:27.172014 14223 net.cpp:148] Top shape: 24 64 14 14 (301056)
I0403 15:12:27.172030 14223 net.cpp:156] Memory required for data: 1135267104
I0403 15:12:27.172045 14223 layer_factory.hpp:77] Creating layer inception_4d/pool
I0403 15:12:27.172062 14223 net.cpp:91] Creating Layer inception_4d/pool
I0403 15:12:27.172080 14223 net.cpp:425] inception_4d/pool <- inception_4c/output_inception_4c/output_0_split_3
I0403 15:12:27.172101 14223 net.cpp:399] inception_4d/pool -> inception_4d/pool
I0403 15:12:27.172168 14223 net.cpp:141] Setting up inception_4d/pool
I0403 15:12:27.172193 14223 net.cpp:148] Top shape: 24 512 14 14 (2408448)
I0403 15:12:27.172206 14223 net.cpp:156] Memory required for data: 1144900896
I0403 15:12:27.172221 14223 layer_factory.hpp:77] Creating layer inception_4d/pool_proj
I0403 15:12:27.172243 14223 net.cpp:91] Creating Layer inception_4d/pool_proj
I0403 15:12:27.172261 14223 net.cpp:425] inception_4d/pool_proj <- inception_4d/pool
I0403 15:12:27.172281 14223 net.cpp:399] inception_4d/pool_proj -> inception_4d/pool_proj
I0403 15:12:27.174054 14223 net.cpp:141] Setting up inception_4d/pool_proj
I0403 15:12:27.174083 14223 net.cpp:148] Top shape: 24 64 14 14 (301056)
I0403 15:12:27.174099 14223 net.cpp:156] Memory required for data: 1146105120
I0403 15:12:27.174119 14223 layer_factory.hpp:77] Creating layer inception_4d/relu_pool_proj
I0403 15:12:27.174139 14223 net.cpp:91] Creating Layer inception_4d/relu_pool_proj
I0403 15:12:27.174155 14223 net.cpp:425] inception_4d/relu_pool_proj <- inception_4d/pool_proj
I0403 15:12:27.174172 14223 net.cpp:386] inception_4d/relu_pool_proj -> inception_4d/pool_proj (in-place)
I0403 15:12:27.174360 14223 net.cpp:141] Setting up inception_4d/relu_pool_proj
I0403 15:12:27.174383 14223 net.cpp:148] Top shape: 24 64 14 14 (301056)
I0403 15:12:27.174398 14223 net.cpp:156] Memory required for data: 1147309344
I0403 15:12:27.174413 14223 layer_factory.hpp:77] Creating layer inception_4d/output
I0403 15:12:27.174430 14223 net.cpp:91] Creating Layer inception_4d/output
I0403 15:12:27.174446 14223 net.cpp:425] inception_4d/output <- inception_4d/1x1
I0403 15:12:27.174463 14223 net.cpp:425] inception_4d/output <- inception_4d/3x3
I0403 15:12:27.174479 14223 net.cpp:425] inception_4d/output <- inception_4d/5x5
I0403 15:12:27.174496 14223 net.cpp:425] inception_4d/output <- inception_4d/pool_proj
I0403 15:12:27.174530 14223 net.cpp:399] inception_4d/output -> inception_4d/output
I0403 15:12:27.174579 14223 net.cpp:141] Setting up inception_4d/output
I0403 15:12:27.174605 14223 net.cpp:148] Top shape: 24 528 14 14 (2483712)
I0403 15:12:27.174620 14223 net.cpp:156] Memory required for data: 1157244192
I0403 15:12:27.174636 14223 layer_factory.hpp:77] Creating layer inception_4d/output_inception_4d/output_0_split
I0403 15:12:27.174654 14223 net.cpp:91] Creating Layer inception_4d/output_inception_4d/output_0_split
I0403 15:12:27.174669 14223 net.cpp:425] inception_4d/output_inception_4d/output_0_split <- inception_4d/output
I0403 15:12:27.174686 14223 net.cpp:399] inception_4d/output_inception_4d/output_0_split -> inception_4d/output_inception_4d/output_0_split_0
I0403 15:12:27.174712 14223 net.cpp:399] inception_4d/output_inception_4d/output_0_split -> inception_4d/output_inception_4d/output_0_split_1
I0403 15:12:27.174734 14223 net.cpp:399] inception_4d/output_inception_4d/output_0_split -> inception_4d/output_inception_4d/output_0_split_2
I0403 15:12:27.174756 14223 net.cpp:399] inception_4d/output_inception_4d/output_0_split -> inception_4d/output_inception_4d/output_0_split_3
I0403 15:12:27.174775 14223 net.cpp:399] inception_4d/output_inception_4d/output_0_split -> inception_4d/output_inception_4d/output_0_split_4
I0403 15:12:27.174878 14223 net.cpp:141] Setting up inception_4d/output_inception_4d/output_0_split
I0403 15:12:27.174922 14223 net.cpp:148] Top shape: 24 528 14 14 (2483712)
I0403 15:12:27.174939 14223 net.cpp:148] Top shape: 24 528 14 14 (2483712)
I0403 15:12:27.174958 14223 net.cpp:148] Top shape: 24 528 14 14 (2483712)
I0403 15:12:27.174974 14223 net.cpp:148] Top shape: 24 528 14 14 (2483712)
I0403 15:12:27.174989 14223 net.cpp:148] Top shape: 24 528 14 14 (2483712)
I0403 15:12:27.175004 14223 net.cpp:156] Memory required for data: 1206918432
I0403 15:12:27.175017 14223 layer_factory.hpp:77] Creating layer loss2/ave_pool
I0403 15:12:27.175035 14223 net.cpp:91] Creating Layer loss2/ave_pool
I0403 15:12:27.175051 14223 net.cpp:425] loss2/ave_pool <- inception_4d/output_inception_4d/output_0_split_0
I0403 15:12:27.175070 14223 net.cpp:399] loss2/ave_pool -> loss2/ave_pool
I0403 15:12:27.175380 14223 net.cpp:141] Setting up loss2/ave_pool
I0403 15:12:27.175408 14223 net.cpp:148] Top shape: 24 528 4 4 (202752)
I0403 15:12:27.175425 14223 net.cpp:156] Memory required for data: 1207729440
I0403 15:12:27.175441 14223 layer_factory.hpp:77] Creating layer loss2/conv
I0403 15:12:27.175462 14223 net.cpp:91] Creating Layer loss2/conv
I0403 15:12:27.175480 14223 net.cpp:425] loss2/conv <- loss2/ave_pool
I0403 15:12:27.175499 14223 net.cpp:399] loss2/conv -> loss2/conv
I0403 15:12:27.177402 14223 net.cpp:141] Setting up loss2/conv
I0403 15:12:27.177430 14223 net.cpp:148] Top shape: 24 128 4 4 (49152)
I0403 15:12:27.177446 14223 net.cpp:156] Memory required for data: 1207926048
I0403 15:12:27.177464 14223 layer_factory.hpp:77] Creating layer loss2/relu_conv
I0403 15:12:27.177482 14223 net.cpp:91] Creating Layer loss2/relu_conv
I0403 15:12:27.177500 14223 net.cpp:425] loss2/relu_conv <- loss2/conv
I0403 15:12:27.177526 14223 net.cpp:386] loss2/relu_conv -> loss2/conv (in-place)
I0403 15:12:27.177815 14223 net.cpp:141] Setting up loss2/relu_conv
I0403 15:12:27.177841 14223 net.cpp:148] Top shape: 24 128 4 4 (49152)
I0403 15:12:27.177857 14223 net.cpp:156] Memory required for data: 1208122656
I0403 15:12:27.177871 14223 layer_factory.hpp:77] Creating layer loss2/fc
I0403 15:12:27.177891 14223 net.cpp:91] Creating Layer loss2/fc
I0403 15:12:27.177906 14223 net.cpp:425] loss2/fc <- loss2/conv
I0403 15:12:27.177928 14223 net.cpp:399] loss2/fc -> loss2/fc
I0403 15:12:27.195657 14223 net.cpp:141] Setting up loss2/fc
I0403 15:12:27.195690 14223 net.cpp:148] Top shape: 24 1024 (24576)
I0403 15:12:27.195706 14223 net.cpp:156] Memory required for data: 1208220960
I0403 15:12:27.195724 14223 layer_factory.hpp:77] Creating layer loss2/relu_fc
I0403 15:12:27.195742 14223 net.cpp:91] Creating Layer loss2/relu_fc
I0403 15:12:27.195758 14223 net.cpp:425] loss2/relu_fc <- loss2/fc
I0403 15:12:27.195775 14223 net.cpp:386] loss2/relu_fc -> loss2/fc (in-place)
I0403 15:12:27.196064 14223 net.cpp:141] Setting up loss2/relu_fc
I0403 15:12:27.196094 14223 net.cpp:148] Top shape: 24 1024 (24576)
I0403 15:12:27.196110 14223 net.cpp:156] Memory required for data: 1208319264
I0403 15:12:27.196123 14223 layer_factory.hpp:77] Creating layer loss2/drop_fc
I0403 15:12:27.196141 14223 net.cpp:91] Creating Layer loss2/drop_fc
I0403 15:12:27.196156 14223 net.cpp:425] loss2/drop_fc <- loss2/fc
I0403 15:12:27.196172 14223 net.cpp:386] loss2/drop_fc -> loss2/fc (in-place)
I0403 15:12:27.196223 14223 net.cpp:141] Setting up loss2/drop_fc
I0403 15:12:27.196244 14223 net.cpp:148] Top shape: 24 1024 (24576)
I0403 15:12:27.196259 14223 net.cpp:156] Memory required for data: 1208417568
I0403 15:12:27.196274 14223 layer_factory.hpp:77] Creating layer loss2/classifier_plantvillage
I0403 15:12:27.196300 14223 net.cpp:91] Creating Layer loss2/classifier_plantvillage
I0403 15:12:27.196326 14223 net.cpp:425] loss2/classifier_plantvillage <- loss2/fc
I0403 15:12:27.196353 14223 net.cpp:399] loss2/classifier_plantvillage -> loss2/classifier_plantvillage
I0403 15:12:27.196776 14223 net.cpp:141] Setting up loss2/classifier_plantvillage
I0403 15:12:27.196802 14223 net.cpp:148] Top shape: 24 38 (912)
I0403 15:12:27.196827 14223 net.cpp:156] Memory required for data: 1208421216
I0403 15:12:27.196863 14223 layer_factory.hpp:77] Creating layer loss2/classifier_plantvillage_loss2/classifier_plantvillage_0_split
I0403 15:12:27.196883 14223 net.cpp:91] Creating Layer loss2/classifier_plantvillage_loss2/classifier_plantvillage_0_split
I0403 15:12:27.196899 14223 net.cpp:425] loss2/classifier_plantvillage_loss2/classifier_plantvillage_0_split <- loss2/classifier_plantvillage
I0403 15:12:27.196920 14223 net.cpp:399] loss2/classifier_plantvillage_loss2/classifier_plantvillage_0_split -> loss2/classifier_plantvillage_loss2/classifier_plantvillage_0_split_0
I0403 15:12:27.196943 14223 net.cpp:399] loss2/classifier_plantvillage_loss2/classifier_plantvillage_0_split -> loss2/classifier_plantvillage_loss2/classifier_plantvillage_0_split_1
I0403 15:12:27.196964 14223 net.cpp:399] loss2/classifier_plantvillage_loss2/classifier_plantvillage_0_split -> loss2/classifier_plantvillage_loss2/classifier_plantvillage_0_split_2
I0403 15:12:27.197043 14223 net.cpp:141] Setting up loss2/classifier_plantvillage_loss2/classifier_plantvillage_0_split
I0403 15:12:27.197067 14223 net.cpp:148] Top shape: 24 38 (912)
I0403 15:12:27.197083 14223 net.cpp:148] Top shape: 24 38 (912)
I0403 15:12:27.197098 14223 net.cpp:148] Top shape: 24 38 (912)
I0403 15:12:27.197113 14223 net.cpp:156] Memory required for data: 1208432160
I0403 15:12:27.197129 14223 layer_factory.hpp:77] Creating layer inception_4e/1x1
I0403 15:12:27.197150 14223 net.cpp:91] Creating Layer inception_4e/1x1
I0403 15:12:27.197168 14223 net.cpp:425] inception_4e/1x1 <- inception_4d/output_inception_4d/output_0_split_1
I0403 15:12:27.197187 14223 net.cpp:399] inception_4e/1x1 -> inception_4e/1x1
I0403 15:12:27.199069 14223 net.cpp:141] Setting up inception_4e/1x1
I0403 15:12:27.199097 14223 net.cpp:148] Top shape: 24 256 14 14 (1204224)
I0403 15:12:27.199112 14223 net.cpp:156] Memory required for data: 1213249056
I0403 15:12:27.199131 14223 layer_factory.hpp:77] Creating layer inception_4e/relu_1x1
I0403 15:12:27.199153 14223 net.cpp:91] Creating Layer inception_4e/relu_1x1
I0403 15:12:27.199170 14223 net.cpp:425] inception_4e/relu_1x1 <- inception_4e/1x1
I0403 15:12:27.199188 14223 net.cpp:386] inception_4e/relu_1x1 -> inception_4e/1x1 (in-place)
I0403 15:12:27.199489 14223 net.cpp:141] Setting up inception_4e/relu_1x1
I0403 15:12:27.199522 14223 net.cpp:148] Top shape: 24 256 14 14 (1204224)
I0403 15:12:27.199538 14223 net.cpp:156] Memory required for data: 1218065952
I0403 15:12:27.199553 14223 layer_factory.hpp:77] Creating layer inception_4e/3x3_reduce
I0403 15:12:27.199576 14223 net.cpp:91] Creating Layer inception_4e/3x3_reduce
I0403 15:12:27.199594 14223 net.cpp:425] inception_4e/3x3_reduce <- inception_4d/output_inception_4d/output_0_split_2
I0403 15:12:27.199615 14223 net.cpp:399] inception_4e/3x3_reduce -> inception_4e/3x3_reduce
I0403 15:12:27.201740 14223 net.cpp:141] Setting up inception_4e/3x3_reduce
I0403 15:12:27.201768 14223 net.cpp:148] Top shape: 24 160 14 14 (752640)
I0403 15:12:27.201783 14223 net.cpp:156] Memory required for data: 1221076512
I0403 15:12:27.201802 14223 layer_factory.hpp:77] Creating layer inception_4e/relu_3x3_reduce
I0403 15:12:27.201820 14223 net.cpp:91] Creating Layer inception_4e/relu_3x3_reduce
I0403 15:12:27.201836 14223 net.cpp:425] inception_4e/relu_3x3_reduce <- inception_4e/3x3_reduce
I0403 15:12:27.201856 14223 net.cpp:386] inception_4e/relu_3x3_reduce -> inception_4e/3x3_reduce (in-place)
I0403 15:12:27.202040 14223 net.cpp:141] Setting up inception_4e/relu_3x3_reduce
I0403 15:12:27.202065 14223 net.cpp:148] Top shape: 24 160 14 14 (752640)
I0403 15:12:27.202080 14223 net.cpp:156] Memory required for data: 1224087072
I0403 15:12:27.202095 14223 layer_factory.hpp:77] Creating layer inception_4e/3x3
I0403 15:12:27.202116 14223 net.cpp:91] Creating Layer inception_4e/3x3
I0403 15:12:27.202133 14223 net.cpp:425] inception_4e/3x3 <- inception_4e/3x3_reduce
I0403 15:12:27.202157 14223 net.cpp:399] inception_4e/3x3 -> inception_4e/3x3
I0403 15:12:27.207204 14223 net.cpp:141] Setting up inception_4e/3x3
I0403 15:12:27.207248 14223 net.cpp:148] Top shape: 24 320 14 14 (1505280)
I0403 15:12:27.207276 14223 net.cpp:156] Memory required for data: 1230108192
I0403 15:12:27.207296 14223 layer_factory.hpp:77] Creating layer inception_4e/relu_3x3
I0403 15:12:27.207317 14223 net.cpp:91] Creating Layer inception_4e/relu_3x3
I0403 15:12:27.207335 14223 net.cpp:425] inception_4e/relu_3x3 <- inception_4e/3x3
I0403 15:12:27.207353 14223 net.cpp:386] inception_4e/relu_3x3 -> inception_4e/3x3 (in-place)
I0403 15:12:27.207674 14223 net.cpp:141] Setting up inception_4e/relu_3x3
I0403 15:12:27.207705 14223 net.cpp:148] Top shape: 24 320 14 14 (1505280)
I0403 15:12:27.207721 14223 net.cpp:156] Memory required for data: 1236129312
I0403 15:12:27.207736 14223 layer_factory.hpp:77] Creating layer inception_4e/5x5_reduce
I0403 15:12:27.207756 14223 net.cpp:91] Creating Layer inception_4e/5x5_reduce
I0403 15:12:27.207773 14223 net.cpp:425] inception_4e/5x5_reduce <- inception_4d/output_inception_4d/output_0_split_3
I0403 15:12:27.207795 14223 net.cpp:399] inception_4e/5x5_reduce -> inception_4e/5x5_reduce
I0403 15:12:27.208875 14223 net.cpp:141] Setting up inception_4e/5x5_reduce
I0403 15:12:27.208904 14223 net.cpp:148] Top shape: 24 32 14 14 (150528)
I0403 15:12:27.208920 14223 net.cpp:156] Memory required for data: 1236731424
I0403 15:12:27.208938 14223 layer_factory.hpp:77] Creating layer inception_4e/relu_5x5_reduce
I0403 15:12:27.208958 14223 net.cpp:91] Creating Layer inception_4e/relu_5x5_reduce
I0403 15:12:27.208976 14223 net.cpp:425] inception_4e/relu_5x5_reduce <- inception_4e/5x5_reduce
I0403 15:12:27.208993 14223 net.cpp:386] inception_4e/relu_5x5_reduce -> inception_4e/5x5_reduce (in-place)
I0403 15:12:27.209373 14223 net.cpp:141] Setting up inception_4e/relu_5x5_reduce
I0403 15:12:27.209399 14223 net.cpp:148] Top shape: 24 32 14 14 (150528)
I0403 15:12:27.209414 14223 net.cpp:156] Memory required for data: 1237333536
I0403 15:12:27.209429 14223 layer_factory.hpp:77] Creating layer inception_4e/5x5
I0403 15:12:27.209468 14223 net.cpp:91] Creating Layer inception_4e/5x5
I0403 15:12:27.209488 14223 net.cpp:425] inception_4e/5x5 <- inception_4e/5x5_reduce
I0403 15:12:27.209514 14223 net.cpp:399] inception_4e/5x5 -> inception_4e/5x5
I0403 15:12:27.211381 14223 net.cpp:141] Setting up inception_4e/5x5
I0403 15:12:27.211410 14223 net.cpp:148] Top shape: 24 128 14 14 (602112)
I0403 15:12:27.211427 14223 net.cpp:156] Memory required for data: 1239741984
I0403 15:12:27.211447 14223 layer_factory.hpp:77] Creating layer inception_4e/relu_5x5
I0403 15:12:27.211465 14223 net.cpp:91] Creating Layer inception_4e/relu_5x5
I0403 15:12:27.211482 14223 net.cpp:425] inception_4e/relu_5x5 <- inception_4e/5x5
I0403 15:12:27.211501 14223 net.cpp:386] inception_4e/relu_5x5 -> inception_4e/5x5 (in-place)
I0403 15:12:27.211705 14223 net.cpp:141] Setting up inception_4e/relu_5x5
I0403 15:12:27.211730 14223 net.cpp:148] Top shape: 24 128 14 14 (602112)
I0403 15:12:27.211745 14223 net.cpp:156] Memory required for data: 1242150432
I0403 15:12:27.211760 14223 layer_factory.hpp:77] Creating layer inception_4e/pool
I0403 15:12:27.211778 14223 net.cpp:91] Creating Layer inception_4e/pool
I0403 15:12:27.211796 14223 net.cpp:425] inception_4e/pool <- inception_4d/output_inception_4d/output_0_split_4
I0403 15:12:27.211815 14223 net.cpp:399] inception_4e/pool -> inception_4e/pool
I0403 15:12:27.211889 14223 net.cpp:141] Setting up inception_4e/pool
I0403 15:12:27.211913 14223 net.cpp:148] Top shape: 24 528 14 14 (2483712)
I0403 15:12:27.211928 14223 net.cpp:156] Memory required for data: 1252085280
I0403 15:12:27.211942 14223 layer_factory.hpp:77] Creating layer inception_4e/pool_proj
I0403 15:12:27.211966 14223 net.cpp:91] Creating Layer inception_4e/pool_proj
I0403 15:12:27.211984 14223 net.cpp:425] inception_4e/pool_proj <- inception_4e/pool
I0403 15:12:27.212003 14223 net.cpp:399] inception_4e/pool_proj -> inception_4e/pool_proj
I0403 15:12:27.213516 14223 net.cpp:141] Setting up inception_4e/pool_proj
I0403 15:12:27.213546 14223 net.cpp:148] Top shape: 24 128 14 14 (602112)
I0403 15:12:27.213577 14223 net.cpp:156] Memory required for data: 1254493728
I0403 15:12:27.213596 14223 layer_factory.hpp:77] Creating layer inception_4e/relu_pool_proj
I0403 15:12:27.213615 14223 net.cpp:91] Creating Layer inception_4e/relu_pool_proj
I0403 15:12:27.213632 14223 net.cpp:425] inception_4e/relu_pool_proj <- inception_4e/pool_proj
I0403 15:12:27.213652 14223 net.cpp:386] inception_4e/relu_pool_proj -> inception_4e/pool_proj (in-place)
I0403 15:12:27.213949 14223 net.cpp:141] Setting up inception_4e/relu_pool_proj
I0403 15:12:27.213979 14223 net.cpp:148] Top shape: 24 128 14 14 (602112)
I0403 15:12:27.213994 14223 net.cpp:156] Memory required for data: 1256902176
I0403 15:12:27.214009 14223 layer_factory.hpp:77] Creating layer inception_4e/output
I0403 15:12:27.214026 14223 net.cpp:91] Creating Layer inception_4e/output
I0403 15:12:27.214041 14223 net.cpp:425] inception_4e/output <- inception_4e/1x1
I0403 15:12:27.214058 14223 net.cpp:425] inception_4e/output <- inception_4e/3x3
I0403 15:12:27.214074 14223 net.cpp:425] inception_4e/output <- inception_4e/5x5
I0403 15:12:27.214090 14223 net.cpp:425] inception_4e/output <- inception_4e/pool_proj
I0403 15:12:27.214107 14223 net.cpp:399] inception_4e/output -> inception_4e/output
I0403 15:12:27.214159 14223 net.cpp:141] Setting up inception_4e/output
I0403 15:12:27.214182 14223 net.cpp:148] Top shape: 24 832 14 14 (3913728)
I0403 15:12:27.214197 14223 net.cpp:156] Memory required for data: 1272557088
I0403 15:12:27.214211 14223 layer_factory.hpp:77] Creating layer pool4/3x3_s2
I0403 15:12:27.214231 14223 net.cpp:91] Creating Layer pool4/3x3_s2
I0403 15:12:27.214248 14223 net.cpp:425] pool4/3x3_s2 <- inception_4e/output
I0403 15:12:27.214267 14223 net.cpp:399] pool4/3x3_s2 -> pool4/3x3_s2
I0403 15:12:27.214336 14223 net.cpp:141] Setting up pool4/3x3_s2
I0403 15:12:27.214360 14223 net.cpp:148] Top shape: 24 832 7 7 (978432)
I0403 15:12:27.214375 14223 net.cpp:156] Memory required for data: 1276470816
I0403 15:12:27.214390 14223 layer_factory.hpp:77] Creating layer pool4/3x3_s2_pool4/3x3_s2_0_split
I0403 15:12:27.214407 14223 net.cpp:91] Creating Layer pool4/3x3_s2_pool4/3x3_s2_0_split
I0403 15:12:27.214423 14223 net.cpp:425] pool4/3x3_s2_pool4/3x3_s2_0_split <- pool4/3x3_s2
I0403 15:12:27.214443 14223 net.cpp:399] pool4/3x3_s2_pool4/3x3_s2_0_split -> pool4/3x3_s2_pool4/3x3_s2_0_split_0
I0403 15:12:27.214464 14223 net.cpp:399] pool4/3x3_s2_pool4/3x3_s2_0_split -> pool4/3x3_s2_pool4/3x3_s2_0_split_1
I0403 15:12:27.214483 14223 net.cpp:399] pool4/3x3_s2_pool4/3x3_s2_0_split -> pool4/3x3_s2_pool4/3x3_s2_0_split_2
I0403 15:12:27.214516 14223 net.cpp:399] pool4/3x3_s2_pool4/3x3_s2_0_split -> pool4/3x3_s2_pool4/3x3_s2_0_split_3
I0403 15:12:27.214617 14223 net.cpp:141] Setting up pool4/3x3_s2_pool4/3x3_s2_0_split
I0403 15:12:27.214643 14223 net.cpp:148] Top shape: 24 832 7 7 (978432)
I0403 15:12:27.214660 14223 net.cpp:148] Top shape: 24 832 7 7 (978432)
I0403 15:12:27.214675 14223 net.cpp:148] Top shape: 24 832 7 7 (978432)
I0403 15:12:27.214691 14223 net.cpp:148] Top shape: 24 832 7 7 (978432)
I0403 15:12:27.214704 14223 net.cpp:156] Memory required for data: 1292125728
I0403 15:12:27.214720 14223 layer_factory.hpp:77] Creating layer inception_5a/1x1
I0403 15:12:27.214741 14223 net.cpp:91] Creating Layer inception_5a/1x1
I0403 15:12:27.214759 14223 net.cpp:425] inception_5a/1x1 <- pool4/3x3_s2_pool4/3x3_s2_0_split_0
I0403 15:12:27.214777 14223 net.cpp:399] inception_5a/1x1 -> inception_5a/1x1
I0403 15:12:27.217636 14223 net.cpp:141] Setting up inception_5a/1x1
I0403 15:12:27.217665 14223 net.cpp:148] Top shape: 24 256 7 7 (301056)
I0403 15:12:27.217681 14223 net.cpp:156] Memory required for data: 1293329952
I0403 15:12:27.217700 14223 layer_factory.hpp:77] Creating layer inception_5a/relu_1x1
I0403 15:12:27.217717 14223 net.cpp:91] Creating Layer inception_5a/relu_1x1
I0403 15:12:27.217733 14223 net.cpp:425] inception_5a/relu_1x1 <- inception_5a/1x1
I0403 15:12:27.217753 14223 net.cpp:386] inception_5a/relu_1x1 -> inception_5a/1x1 (in-place)
I0403 15:12:27.218065 14223 net.cpp:141] Setting up inception_5a/relu_1x1
I0403 15:12:27.218091 14223 net.cpp:148] Top shape: 24 256 7 7 (301056)
I0403 15:12:27.218106 14223 net.cpp:156] Memory required for data: 1294534176
I0403 15:12:27.218122 14223 layer_factory.hpp:77] Creating layer inception_5a/3x3_reduce
I0403 15:12:27.218143 14223 net.cpp:91] Creating Layer inception_5a/3x3_reduce
I0403 15:12:27.218161 14223 net.cpp:425] inception_5a/3x3_reduce <- pool4/3x3_s2_pool4/3x3_s2_0_split_1
I0403 15:12:27.218183 14223 net.cpp:399] inception_5a/3x3_reduce -> inception_5a/3x3_reduce
I0403 15:12:27.220652 14223 net.cpp:141] Setting up inception_5a/3x3_reduce
I0403 15:12:27.220681 14223 net.cpp:148] Top shape: 24 160 7 7 (188160)
I0403 15:12:27.220696 14223 net.cpp:156] Memory required for data: 1295286816
I0403 15:12:27.220715 14223 layer_factory.hpp:77] Creating layer inception_5a/relu_3x3_reduce
I0403 15:12:27.220737 14223 net.cpp:91] Creating Layer inception_5a/relu_3x3_reduce
I0403 15:12:27.220755 14223 net.cpp:425] inception_5a/relu_3x3_reduce <- inception_5a/3x3_reduce
I0403 15:12:27.220773 14223 net.cpp:386] inception_5a/relu_3x3_reduce -> inception_5a/3x3_reduce (in-place)
I0403 15:12:27.220962 14223 net.cpp:141] Setting up inception_5a/relu_3x3_reduce
I0403 15:12:27.220986 14223 net.cpp:148] Top shape: 24 160 7 7 (188160)
I0403 15:12:27.221001 14223 net.cpp:156] Memory required for data: 1296039456
I0403 15:12:27.221017 14223 layer_factory.hpp:77] Creating layer inception_5a/3x3
I0403 15:12:27.221040 14223 net.cpp:91] Creating Layer inception_5a/3x3
I0403 15:12:27.221058 14223 net.cpp:425] inception_5a/3x3 <- inception_5a/3x3_reduce
I0403 15:12:27.221079 14223 net.cpp:399] inception_5a/3x3 -> inception_5a/3x3
I0403 15:12:27.226297 14223 net.cpp:141] Setting up inception_5a/3x3
I0403 15:12:27.226330 14223 net.cpp:148] Top shape: 24 320 7 7 (376320)
I0403 15:12:27.226346 14223 net.cpp:156] Memory required for data: 1297544736
I0403 15:12:27.226366 14223 layer_factory.hpp:77] Creating layer inception_5a/relu_3x3
I0403 15:12:27.226385 14223 net.cpp:91] Creating Layer inception_5a/relu_3x3
I0403 15:12:27.226402 14223 net.cpp:425] inception_5a/relu_3x3 <- inception_5a/3x3
I0403 15:12:27.226423 14223 net.cpp:386] inception_5a/relu_3x3 -> inception_5a/3x3 (in-place)
I0403 15:12:27.226733 14223 net.cpp:141] Setting up inception_5a/relu_3x3
I0403 15:12:27.226763 14223 net.cpp:148] Top shape: 24 320 7 7 (376320)
I0403 15:12:27.226778 14223 net.cpp:156] Memory required for data: 1299050016
I0403 15:12:27.226794 14223 layer_factory.hpp:77] Creating layer inception_5a/5x5_reduce
I0403 15:12:27.226819 14223 net.cpp:91] Creating Layer inception_5a/5x5_reduce
I0403 15:12:27.226837 14223 net.cpp:425] inception_5a/5x5_reduce <- pool4/3x3_s2_pool4/3x3_s2_0_split_2
I0403 15:12:27.226857 14223 net.cpp:399] inception_5a/5x5_reduce -> inception_5a/5x5_reduce
I0403 15:12:27.228066 14223 net.cpp:141] Setting up inception_5a/5x5_reduce
I0403 15:12:27.228096 14223 net.cpp:148] Top shape: 24 32 7 7 (37632)
I0403 15:12:27.228112 14223 net.cpp:156] Memory required for data: 1299200544
I0403 15:12:27.228132 14223 layer_factory.hpp:77] Creating layer inception_5a/relu_5x5_reduce
I0403 15:12:27.228150 14223 net.cpp:91] Creating Layer inception_5a/relu_5x5_reduce
I0403 15:12:27.228168 14223 net.cpp:425] inception_5a/relu_5x5_reduce <- inception_5a/5x5_reduce
I0403 15:12:27.228188 14223 net.cpp:386] inception_5a/relu_5x5_reduce -> inception_5a/5x5_reduce (in-place)
I0403 15:12:27.228497 14223 net.cpp:141] Setting up inception_5a/relu_5x5_reduce
I0403 15:12:27.228529 14223 net.cpp:148] Top shape: 24 32 7 7 (37632)
I0403 15:12:27.228545 14223 net.cpp:156] Memory required for data: 1299351072
I0403 15:12:27.228561 14223 layer_factory.hpp:77] Creating layer inception_5a/5x5
I0403 15:12:27.228585 14223 net.cpp:91] Creating Layer inception_5a/5x5
I0403 15:12:27.228602 14223 net.cpp:425] inception_5a/5x5 <- inception_5a/5x5_reduce
I0403 15:12:27.228626 14223 net.cpp:399] inception_5a/5x5 -> inception_5a/5x5
I0403 15:12:27.230403 14223 net.cpp:141] Setting up inception_5a/5x5
I0403 15:12:27.230448 14223 net.cpp:148] Top shape: 24 128 7 7 (150528)
I0403 15:12:27.230465 14223 net.cpp:156] Memory required for data: 1299953184
I0403 15:12:27.230484 14223 layer_factory.hpp:77] Creating layer inception_5a/relu_5x5
I0403 15:12:27.230504 14223 net.cpp:91] Creating Layer inception_5a/relu_5x5
I0403 15:12:27.230527 14223 net.cpp:425] inception_5a/relu_5x5 <- inception_5a/5x5
I0403 15:12:27.230550 14223 net.cpp:386] inception_5a/relu_5x5 -> inception_5a/5x5 (in-place)
I0403 15:12:27.230748 14223 net.cpp:141] Setting up inception_5a/relu_5x5
I0403 15:12:27.230773 14223 net.cpp:148] Top shape: 24 128 7 7 (150528)
I0403 15:12:27.230788 14223 net.cpp:156] Memory required for data: 1300555296
I0403 15:12:27.230803 14223 layer_factory.hpp:77] Creating layer inception_5a/pool
I0403 15:12:27.230821 14223 net.cpp:91] Creating Layer inception_5a/pool
I0403 15:12:27.230837 14223 net.cpp:425] inception_5a/pool <- pool4/3x3_s2_pool4/3x3_s2_0_split_3
I0403 15:12:27.230859 14223 net.cpp:399] inception_5a/pool -> inception_5a/pool
I0403 15:12:27.230936 14223 net.cpp:141] Setting up inception_5a/pool
I0403 15:12:27.230960 14223 net.cpp:148] Top shape: 24 832 7 7 (978432)
I0403 15:12:27.230975 14223 net.cpp:156] Memory required for data: 1304469024
I0403 15:12:27.230990 14223 layer_factory.hpp:77] Creating layer inception_5a/pool_proj
I0403 15:12:27.231014 14223 net.cpp:91] Creating Layer inception_5a/pool_proj
I0403 15:12:27.231032 14223 net.cpp:425] inception_5a/pool_proj <- inception_5a/pool
I0403 15:12:27.231052 14223 net.cpp:399] inception_5a/pool_proj -> inception_5a/pool_proj
I0403 15:12:27.233404 14223 net.cpp:141] Setting up inception_5a/pool_proj
I0403 15:12:27.233438 14223 net.cpp:148] Top shape: 24 128 7 7 (150528)
I0403 15:12:27.233454 14223 net.cpp:156] Memory required for data: 1305071136
I0403 15:12:27.233474 14223 layer_factory.hpp:77] Creating layer inception_5a/relu_pool_proj
I0403 15:12:27.233492 14223 net.cpp:91] Creating Layer inception_5a/relu_pool_proj
I0403 15:12:27.233516 14223 net.cpp:425] inception_5a/relu_pool_proj <- inception_5a/pool_proj
I0403 15:12:27.233536 14223 net.cpp:386] inception_5a/relu_pool_proj -> inception_5a/pool_proj (in-place)
I0403 15:12:27.233841 14223 net.cpp:141] Setting up inception_5a/relu_pool_proj
I0403 15:12:27.233883 14223 net.cpp:148] Top shape: 24 128 7 7 (150528)
I0403 15:12:27.233901 14223 net.cpp:156] Memory required for data: 1305673248
I0403 15:12:27.233916 14223 layer_factory.hpp:77] Creating layer inception_5a/output
I0403 15:12:27.233934 14223 net.cpp:91] Creating Layer inception_5a/output
I0403 15:12:27.233952 14223 net.cpp:425] inception_5a/output <- inception_5a/1x1
I0403 15:12:27.233968 14223 net.cpp:425] inception_5a/output <- inception_5a/3x3
I0403 15:12:27.233985 14223 net.cpp:425] inception_5a/output <- inception_5a/5x5
I0403 15:12:27.234004 14223 net.cpp:425] inception_5a/output <- inception_5a/pool_proj
I0403 15:12:27.234021 14223 net.cpp:399] inception_5a/output -> inception_5a/output
I0403 15:12:27.234078 14223 net.cpp:141] Setting up inception_5a/output
I0403 15:12:27.234103 14223 net.cpp:148] Top shape: 24 832 7 7 (978432)
I0403 15:12:27.234118 14223 net.cpp:156] Memory required for data: 1309586976
I0403 15:12:27.234134 14223 layer_factory.hpp:77] Creating layer inception_5a/output_inception_5a/output_0_split
I0403 15:12:27.234154 14223 net.cpp:91] Creating Layer inception_5a/output_inception_5a/output_0_split
I0403 15:12:27.234172 14223 net.cpp:425] inception_5a/output_inception_5a/output_0_split <- inception_5a/output
I0403 15:12:27.234203 14223 net.cpp:399] inception_5a/output_inception_5a/output_0_split -> inception_5a/output_inception_5a/output_0_split_0
I0403 15:12:27.234225 14223 net.cpp:399] inception_5a/output_inception_5a/output_0_split -> inception_5a/output_inception_5a/output_0_split_1
I0403 15:12:27.234246 14223 net.cpp:399] inception_5a/output_inception_5a/output_0_split -> inception_5a/output_inception_5a/output_0_split_2
I0403 15:12:27.234267 14223 net.cpp:399] inception_5a/output_inception_5a/output_0_split -> inception_5a/output_inception_5a/output_0_split_3
I0403 15:12:27.234386 14223 net.cpp:141] Setting up inception_5a/output_inception_5a/output_0_split
I0403 15:12:27.234411 14223 net.cpp:148] Top shape: 24 832 7 7 (978432)
I0403 15:12:27.234427 14223 net.cpp:148] Top shape: 24 832 7 7 (978432)
I0403 15:12:27.234442 14223 net.cpp:148] Top shape: 24 832 7 7 (978432)
I0403 15:12:27.234458 14223 net.cpp:148] Top shape: 24 832 7 7 (978432)
I0403 15:12:27.234472 14223 net.cpp:156] Memory required for data: 1325241888
I0403 15:12:27.234488 14223 layer_factory.hpp:77] Creating layer inception_5b/1x1
I0403 15:12:27.234521 14223 net.cpp:91] Creating Layer inception_5b/1x1
I0403 15:12:27.234542 14223 net.cpp:425] inception_5b/1x1 <- inception_5a/output_inception_5a/output_0_split_0
I0403 15:12:27.234565 14223 net.cpp:399] inception_5b/1x1 -> inception_5b/1x1
I0403 15:12:27.238463 14223 net.cpp:141] Setting up inception_5b/1x1
I0403 15:12:27.238493 14223 net.cpp:148] Top shape: 24 384 7 7 (451584)
I0403 15:12:27.238517 14223 net.cpp:156] Memory required for data: 1327048224
I0403 15:12:27.238538 14223 layer_factory.hpp:77] Creating layer inception_5b/relu_1x1
I0403 15:12:27.238560 14223 net.cpp:91] Creating Layer inception_5b/relu_1x1
I0403 15:12:27.238579 14223 net.cpp:425] inception_5b/relu_1x1 <- inception_5b/1x1
I0403 15:12:27.238596 14223 net.cpp:386] inception_5b/relu_1x1 -> inception_5b/1x1 (in-place)
I0403 15:12:27.238912 14223 net.cpp:141] Setting up inception_5b/relu_1x1
I0403 15:12:27.238940 14223 net.cpp:148] Top shape: 24 384 7 7 (451584)
I0403 15:12:27.238955 14223 net.cpp:156] Memory required for data: 1328854560
I0403 15:12:27.238970 14223 layer_factory.hpp:77] Creating layer inception_5b/3x3_reduce
I0403 15:12:27.238996 14223 net.cpp:91] Creating Layer inception_5b/3x3_reduce
I0403 15:12:27.239015 14223 net.cpp:425] inception_5b/3x3_reduce <- inception_5a/output_inception_5a/output_0_split_1
I0403 15:12:27.239035 14223 net.cpp:399] inception_5b/3x3_reduce -> inception_5b/3x3_reduce
I0403 15:12:27.241714 14223 net.cpp:141] Setting up inception_5b/3x3_reduce
I0403 15:12:27.241744 14223 net.cpp:148] Top shape: 24 192 7 7 (225792)
I0403 15:12:27.241761 14223 net.cpp:156] Memory required for data: 1329757728
I0403 15:12:27.241780 14223 layer_factory.hpp:77] Creating layer inception_5b/relu_3x3_reduce
I0403 15:12:27.241796 14223 net.cpp:91] Creating Layer inception_5b/relu_3x3_reduce
I0403 15:12:27.241812 14223 net.cpp:425] inception_5b/relu_3x3_reduce <- inception_5b/3x3_reduce
I0403 15:12:27.241829 14223 net.cpp:386] inception_5b/relu_3x3_reduce -> inception_5b/3x3_reduce (in-place)
I0403 15:12:27.242017 14223 net.cpp:141] Setting up inception_5b/relu_3x3_reduce
I0403 15:12:27.242041 14223 net.cpp:148] Top shape: 24 192 7 7 (225792)
I0403 15:12:27.242056 14223 net.cpp:156] Memory required for data: 1330660896
I0403 15:12:27.242071 14223 layer_factory.hpp:77] Creating layer inception_5b/3x3
I0403 15:12:27.242092 14223 net.cpp:91] Creating Layer inception_5b/3x3
I0403 15:12:27.242110 14223 net.cpp:425] inception_5b/3x3 <- inception_5b/3x3_reduce
I0403 15:12:27.242131 14223 net.cpp:399] inception_5b/3x3 -> inception_5b/3x3
I0403 15:12:27.248692 14223 net.cpp:141] Setting up inception_5b/3x3
I0403 15:12:27.248723 14223 net.cpp:148] Top shape: 24 384 7 7 (451584)
I0403 15:12:27.248740 14223 net.cpp:156] Memory required for data: 1332467232
I0403 15:12:27.248759 14223 layer_factory.hpp:77] Creating layer inception_5b/relu_3x3
I0403 15:12:27.248776 14223 net.cpp:91] Creating Layer inception_5b/relu_3x3
I0403 15:12:27.248792 14223 net.cpp:425] inception_5b/relu_3x3 <- inception_5b/3x3
I0403 15:12:27.248811 14223 net.cpp:386] inception_5b/relu_3x3 -> inception_5b/3x3 (in-place)
I0403 15:12:27.249109 14223 net.cpp:141] Setting up inception_5b/relu_3x3
I0403 15:12:27.249137 14223 net.cpp:148] Top shape: 24 384 7 7 (451584)
I0403 15:12:27.249153 14223 net.cpp:156] Memory required for data: 1334273568
I0403 15:12:27.249168 14223 layer_factory.hpp:77] Creating layer inception_5b/5x5_reduce
I0403 15:12:27.249207 14223 net.cpp:91] Creating Layer inception_5b/5x5_reduce
I0403 15:12:27.249227 14223 net.cpp:425] inception_5b/5x5_reduce <- inception_5a/output_inception_5a/output_0_split_2
I0403 15:12:27.249246 14223 net.cpp:399] inception_5b/5x5_reduce -> inception_5b/5x5_reduce
I0403 15:12:27.250530 14223 net.cpp:141] Setting up inception_5b/5x5_reduce
I0403 15:12:27.250560 14223 net.cpp:148] Top shape: 24 48 7 7 (56448)
I0403 15:12:27.250577 14223 net.cpp:156] Memory required for data: 1334499360
I0403 15:12:27.250597 14223 layer_factory.hpp:77] Creating layer inception_5b/relu_5x5_reduce
I0403 15:12:27.250614 14223 net.cpp:91] Creating Layer inception_5b/relu_5x5_reduce
I0403 15:12:27.250630 14223 net.cpp:425] inception_5b/relu_5x5_reduce <- inception_5b/5x5_reduce
I0403 15:12:27.250651 14223 net.cpp:386] inception_5b/relu_5x5_reduce -> inception_5b/5x5_reduce (in-place)
I0403 15:12:27.251034 14223 net.cpp:141] Setting up inception_5b/relu_5x5_reduce
I0403 15:12:27.251060 14223 net.cpp:148] Top shape: 24 48 7 7 (56448)
I0403 15:12:27.251076 14223 net.cpp:156] Memory required for data: 1334725152
I0403 15:12:27.251091 14223 layer_factory.hpp:77] Creating layer inception_5b/5x5
I0403 15:12:27.251111 14223 net.cpp:91] Creating Layer inception_5b/5x5
I0403 15:12:27.251127 14223 net.cpp:425] inception_5b/5x5 <- inception_5b/5x5_reduce
I0403 15:12:27.251147 14223 net.cpp:399] inception_5b/5x5 -> inception_5b/5x5
I0403 15:12:27.253186 14223 net.cpp:141] Setting up inception_5b/5x5
I0403 15:12:27.253213 14223 net.cpp:148] Top shape: 24 128 7 7 (150528)
I0403 15:12:27.253228 14223 net.cpp:156] Memory required for data: 1335327264
I0403 15:12:27.253247 14223 layer_factory.hpp:77] Creating layer inception_5b/relu_5x5
I0403 15:12:27.253264 14223 net.cpp:91] Creating Layer inception_5b/relu_5x5
I0403 15:12:27.253280 14223 net.cpp:425] inception_5b/relu_5x5 <- inception_5b/5x5
I0403 15:12:27.253299 14223 net.cpp:386] inception_5b/relu_5x5 -> inception_5b/5x5 (in-place)
I0403 15:12:27.253497 14223 net.cpp:141] Setting up inception_5b/relu_5x5
I0403 15:12:27.253525 14223 net.cpp:148] Top shape: 24 128 7 7 (150528)
I0403 15:12:27.253540 14223 net.cpp:156] Memory required for data: 1335929376
I0403 15:12:27.253554 14223 layer_factory.hpp:77] Creating layer inception_5b/pool
I0403 15:12:27.253574 14223 net.cpp:91] Creating Layer inception_5b/pool
I0403 15:12:27.253590 14223 net.cpp:425] inception_5b/pool <- inception_5a/output_inception_5a/output_0_split_3
I0403 15:12:27.253608 14223 net.cpp:399] inception_5b/pool -> inception_5b/pool
I0403 15:12:27.253679 14223 net.cpp:141] Setting up inception_5b/pool
I0403 15:12:27.253702 14223 net.cpp:148] Top shape: 24 832 7 7 (978432)
I0403 15:12:27.253716 14223 net.cpp:156] Memory required for data: 1339843104
I0403 15:12:27.253731 14223 layer_factory.hpp:77] Creating layer inception_5b/pool_proj
I0403 15:12:27.253752 14223 net.cpp:91] Creating Layer inception_5b/pool_proj
I0403 15:12:27.253769 14223 net.cpp:425] inception_5b/pool_proj <- inception_5b/pool
I0403 15:12:27.253790 14223 net.cpp:399] inception_5b/pool_proj -> inception_5b/pool_proj
I0403 15:12:27.256037 14223 net.cpp:141] Setting up inception_5b/pool_proj
I0403 15:12:27.256068 14223 net.cpp:148] Top shape: 24 128 7 7 (150528)
I0403 15:12:27.256085 14223 net.cpp:156] Memory required for data: 1340445216
I0403 15:12:27.256103 14223 layer_factory.hpp:77] Creating layer inception_5b/relu_pool_proj
I0403 15:12:27.256121 14223 net.cpp:91] Creating Layer inception_5b/relu_pool_proj
I0403 15:12:27.256136 14223 net.cpp:425] inception_5b/relu_pool_proj <- inception_5b/pool_proj
I0403 15:12:27.256156 14223 net.cpp:386] inception_5b/relu_pool_proj -> inception_5b/pool_proj (in-place)
I0403 15:12:27.256443 14223 net.cpp:141] Setting up inception_5b/relu_pool_proj
I0403 15:12:27.256471 14223 net.cpp:148] Top shape: 24 128 7 7 (150528)
I0403 15:12:27.256487 14223 net.cpp:156] Memory required for data: 1341047328
I0403 15:12:27.256501 14223 layer_factory.hpp:77] Creating layer inception_5b/output
I0403 15:12:27.256525 14223 net.cpp:91] Creating Layer inception_5b/output
I0403 15:12:27.256556 14223 net.cpp:425] inception_5b/output <- inception_5b/1x1
I0403 15:12:27.256574 14223 net.cpp:425] inception_5b/output <- inception_5b/3x3
I0403 15:12:27.256590 14223 net.cpp:425] inception_5b/output <- inception_5b/5x5
I0403 15:12:27.256606 14223 net.cpp:425] inception_5b/output <- inception_5b/pool_proj
I0403 15:12:27.256626 14223 net.cpp:399] inception_5b/output -> inception_5b/output
I0403 15:12:27.256677 14223 net.cpp:141] Setting up inception_5b/output
I0403 15:12:27.256700 14223 net.cpp:148] Top shape: 24 1024 7 7 (1204224)
I0403 15:12:27.256714 14223 net.cpp:156] Memory required for data: 1345864224
I0403 15:12:27.256729 14223 layer_factory.hpp:77] Creating layer pool5/7x7_s1
I0403 15:12:27.256749 14223 net.cpp:91] Creating Layer pool5/7x7_s1
I0403 15:12:27.256767 14223 net.cpp:425] pool5/7x7_s1 <- inception_5b/output
I0403 15:12:27.256784 14223 net.cpp:399] pool5/7x7_s1 -> pool5/7x7_s1
I0403 15:12:27.256994 14223 net.cpp:141] Setting up pool5/7x7_s1
I0403 15:12:27.257020 14223 net.cpp:148] Top shape: 24 1024 1 1 (24576)
I0403 15:12:27.257035 14223 net.cpp:156] Memory required for data: 1345962528
I0403 15:12:27.257050 14223 layer_factory.hpp:77] Creating layer pool5/drop_7x7_s1
I0403 15:12:27.257067 14223 net.cpp:91] Creating Layer pool5/drop_7x7_s1
I0403 15:12:27.257083 14223 net.cpp:425] pool5/drop_7x7_s1 <- pool5/7x7_s1
I0403 15:12:27.257102 14223 net.cpp:386] pool5/drop_7x7_s1 -> pool5/7x7_s1 (in-place)
I0403 15:12:27.257151 14223 net.cpp:141] Setting up pool5/drop_7x7_s1
I0403 15:12:27.257174 14223 net.cpp:148] Top shape: 24 1024 1 1 (24576)
I0403 15:12:27.257195 14223 net.cpp:156] Memory required for data: 1346060832
I0403 15:12:27.257210 14223 layer_factory.hpp:77] Creating layer loss3/classifier_plantvillage
I0403 15:12:27.257230 14223 net.cpp:91] Creating Layer loss3/classifier_plantvillage
I0403 15:12:27.257248 14223 net.cpp:425] loss3/classifier_plantvillage <- pool5/7x7_s1
I0403 15:12:27.257268 14223 net.cpp:399] loss3/classifier_plantvillage -> loss3/classifier_plantvillage
I0403 15:12:27.257689 14223 net.cpp:141] Setting up loss3/classifier_plantvillage
I0403 15:12:27.257714 14223 net.cpp:148] Top shape: 24 38 (912)
I0403 15:12:27.257728 14223 net.cpp:156] Memory required for data: 1346064480
I0403 15:12:27.257746 14223 layer_factory.hpp:77] Creating layer loss3/classifier_plantvillage_loss3/classifier_plantvillage_0_split
I0403 15:12:27.257766 14223 net.cpp:91] Creating Layer loss3/classifier_plantvillage_loss3/classifier_plantvillage_0_split
I0403 15:12:27.257783 14223 net.cpp:425] loss3/classifier_plantvillage_loss3/classifier_plantvillage_0_split <- loss3/classifier_plantvillage
I0403 15:12:27.257802 14223 net.cpp:399] loss3/classifier_plantvillage_loss3/classifier_plantvillage_0_split -> loss3/classifier_plantvillage_loss3/classifier_plantvillage_0_split_0
I0403 15:12:27.257820 14223 net.cpp:399] loss3/classifier_plantvillage_loss3/classifier_plantvillage_0_split -> loss3/classifier_plantvillage_loss3/classifier_plantvillage_0_split_1
I0403 15:12:27.257840 14223 net.cpp:399] loss3/classifier_plantvillage_loss3/classifier_plantvillage_0_split -> loss3/classifier_plantvillage_loss3/classifier_plantvillage_0_split_2
I0403 15:12:27.257860 14223 net.cpp:399] loss3/classifier_plantvillage_loss3/classifier_plantvillage_0_split -> loss3/classifier_plantvillage_loss3/classifier_plantvillage_0_split_3
I0403 15:12:27.257959 14223 net.cpp:141] Setting up loss3/classifier_plantvillage_loss3/classifier_plantvillage_0_split
I0403 15:12:27.257982 14223 net.cpp:148] Top shape: 24 38 (912)
I0403 15:12:27.257997 14223 net.cpp:148] Top shape: 24 38 (912)
I0403 15:12:27.258013 14223 net.cpp:148] Top shape: 24 38 (912)
I0403 15:12:27.258028 14223 net.cpp:148] Top shape: 24 38 (912)
I0403 15:12:27.258040 14223 net.cpp:156] Memory required for data: 1346079072
I0403 15:12:27.258054 14223 layer_factory.hpp:77] Creating layer loss1/loss
I0403 15:12:27.258074 14223 net.cpp:91] Creating Layer loss1/loss
I0403 15:12:27.258091 14223 net.cpp:425] loss1/loss <- loss1/classifier_plantvillage_loss1/classifier_plantvillage_0_split_0
I0403 15:12:27.258121 14223 net.cpp:425] loss1/loss <- label_data_1_split_0
…
