…
I0403 15:15:55.435061 14291 net.cpp:313] The NetState phase (1) differed from the phase (0) specified by a rule in layer data
I0403 15:15:55.436210 14291 net.cpp:49] Initializing net from parameters: 
state {
  phase: TEST
}
layer {
  name: "data"
  type: "Data"
  top: "data"
  top: "label"
  include {
    phase: TEST
  }
  transform_param {
    mirror: false
    crop_size: 224
    mean_file: "/home/mohanty/data/final_dataset/lmdb/color-50-50/mean.binaryproto"
  }
  data_param {
    source: "/home/mohanty/data/final_dataset/lmdb/color-50-50/test_db"
    batch_size: 24
    backend: LMDB
  }
}
layer {
  name: "conv1/7x7_s2"
  type: "Convolution"
  bottom: "data"
  top: "conv1/7x7_s2"
  param {
    lr_mult: 1
    decay_mult: 1
  }
  param {
    lr_mult: 2
    decay_mult: 0
  }
  convolution_param {
    num_output: 64
    pad: 3
    kernel_size: 7
    stride: 2
    weight_filler {
      type: "xavier"
      std: 0.1
    }
    bias_filler {
      type: "constant"
      value: 0.2
    }
  }
}
layer {
  name: "conv1/relu_7x7"
  type: "ReLU"
  bottom: "conv1/7x7_s2"
  top: "conv1/7x7_s2"
}
layer {
  name: "pool1/3x3_s2"
  type: "Pooling"
  bottom: "conv1/7x7_s2"
  top: "pool1/3x3_s2"
  pooling_param {
    pool: MAX
    kernel_size: 3
    stride: 2
  }
}
layer {
  name: "pool1/norm1"
  type: "LRN"
  bottom: "pool1/3x3_s2"
  top: "pool1/norm1"
  lrn_param {
    local_size: 5
    alpha: 0.0001
    beta: 0.75
  }
}
layer {
  name: "conv2/3x3_reduce"
  type: "Convolution"
  bottom: "pool1/norm1"
  top: "conv2/3x3_reduce"
  param {
    lr_mult: 1
    decay_mult: 1
  }
  param {
    lr_mult: 2
    decay_mult: 0
  }
  convolution_param {
    num_output: 64
    kernel_size: 1
    weight_filler {
      type: "xavier"
      std: 0.1
    }
    bias_filler {
      type: "constant"
      value: 0.2
    }
  }
}
layer {
  name: "conv2/relu_3x3_reduce"
  type: "ReLU"
  bottom: "conv2/3x3_reduce"
  top: "conv2/3x3_reduce"
}
layer {
  name: "conv2/3x3"
  type: "Convolution"
  bottom: "conv2/3x3_reduce"
  top: "conv2/3x3"
  param {
    lr_mult: 1
    decay_mult: 1
  }
  param {
    lr_mult: 2
    decay_mult: 0
  }
  convolution_param {
    num_output: 192
    pad: 1
    kernel_size: 3
    weight_filler {
      type: "xavier"
      std: 0.03
    }
    bias_filler {
      type: "constant"
      value: 0.2
    }
  }
}
layer {
  name: "conv2/relu_3x3"
  type: "ReLU"
  bottom: "conv2/3x3"
  top: "conv2/3x3"
}
layer {
  name: "conv2/norm2"
  type: "LRN"
  bottom: "conv2/3x3"
  top: "conv2/norm2"
  lrn_param {
    local_size: 5
    alpha: 0.0001
    beta: 0.75
  }
}
layer {
  name: "pool2/3x3_s2"
  type: "Pooling"
  bottom: "conv2/norm2"
  top: "pool2/3x3_s2"
  pooling_param {
    pool: MAX
    kernel_size: 3
    stride: 2
  }
}
layer {
  name: "inception_3a/1x1"
  type: "Convolution"
  bottom: "pool2/3x3_s2"
  top: "inception_3a/1x1"
  param {
    lr_mult: 1
    decay_mult: 1
  }
  param {
    lr_mult: 2
    decay_mult: 0
  }
  convolution_param {
    num_output: 64
    kernel_size: 1
    weight_filler {
      type: "xavier"
      std: 0.03
    }
    bias_filler {
      type: "constant"
      value: 0.2
    }
  }
}
layer {
  name: "inception_3a/relu_1x1"
  type: "ReLU"
  bottom: "inception_3a/1x1"
  top: "inception_3a/1x1"
}
layer {
  name: "inception_3a/3x3_reduce"
  type: "Convolution"
  bottom: "pool2/3x3_s2"
  top: "inception_3a/3x3_reduce"
  param {
    lr_mult: 1
    decay_mult: 1
  }
  param {
    lr_mult: 2
    decay_mult: 0
  }
  convolution_param {
    num_output: 96
    kernel_size: 1
    weight_filler {
      type: "xavier"
      std: 0.09
    }
    bias_filler {
      type: "constant"
      value: 0.2
    }
  }
}
layer {
  name: "inception_3a/relu_3x3_reduce"
  type: "ReLU"
  bottom: "inception_3a/3x3_reduce"
  top: "inception_3a/3x3_reduce"
}
layer {
  name: "inception_3a/3x3"
  type: "Convolution"
  bottom: "inception_3a/3x3_reduce"
  top: "inception_3a/3x3"
  param {
    lr_mult: 1
    decay_mult: 1
  }
  param {
    lr_mult: 2
    decay_mult: 0
  }
  convolution_param {
    num_output: 128
    pad: 1
    kernel_size: 3
    weight_filler {
      type: "xavier"
      std: 0.03
    }
    bias_filler {
      type: "constant"
      value: 0.2
    }
  }
}
layer {
  name: "inception_3a/relu_3x3"
  type: "ReLU"
  bottom: "inception_3a/3x3"
  top: "inception_3a/3x3"
}
layer {
  name: "inception_3a/5x5_reduce"
  type: "Convolution"
  bottom: "pool2/3x3_s2"
  top: "inception_3a/5x5_reduce"
  param {
    lr_mult: 1
    decay_mult: 1
  }
  param {
    lr_mult: 2
    decay_mult: 0
  }
  convolution_param {
    num_output: 16
    kernel_size: 1
    weight_filler {
      type: "xavier"
      std: 0.2
    }
    bias_filler {
      type: "constant"
      value: 0.2
    }
  }
}
layer {
  name: "inception_3a/relu_5x5_reduce"
  type: "ReLU"
  bottom: "inception_3a/5x5_reduce"
  top: "inception_3a/5x5_reduce"
}
layer {
  name: "inception_3a/5x5"
  type: "Convolution"
  bottom: "inception_3a/5x5_reduce"
  top: "inception_3a/5x5"
  param {
    lr_mult: 1
    decay_mult: 1
  }
  param {
    lr_mult: 2
    decay_mult: 0
  }
  convolution_param {
    num_output: 32
    pad: 2
    kernel_size: 5
    weight_filler {
      type: "xavier"
      std: 0.03
    }
    bias_filler {
      type: "constant"
      value: 0.2
    }
  }
}
layer {
  name: "inception_3a/relu_5x5"
  type: "ReLU"
  bottom: "inception_3a/5x5"
  top: "inception_3a/5x5"
}
layer {
  name: "inception_3a/pool"
  type: "Pooling"
  bottom: "pool2/3x3_s2"
  top: "inception_3a/pool"
  pooling_param {
    pool: MAX
    kernel_size: 3
    stride: 1
    pad: 1
  }
}
layer {
  name: "inception_3a/pool_proj"
  type: "Convolution"
  bottom: "inception_3a/pool"
  top: "inception_3a/pool_proj"
  param {
    lr_mult: 1
    decay_mult: 1
  }
  param {
    lr_mult: 2
    decay_mult: 0
  }
  convolution_param {
    num_output: 32
    kernel_size: 1
    weight_filler {
      type: "xavier"
      std: 0.1
    }
    bias_filler {
      type: "constant"
      value: 0.2
    }
  }
}
layer {
  name: "inception_3a/relu_pool_proj"
  type: "ReLU"
  bottom: "inception_3a/pool_proj"
  top: "inception_3a/pool_proj"
}
layer {
  name: "inception_3a/output"
  type: "Concat"
  bottom: "inception_3a/1x1"
  bottom: "inception_3a/3x3"
  bottom: "inception_3a/5x5"
  bottom: "inception_3a/pool_proj"
  top: "inception_3a/output"
}
layer {
  name: "inception_3b/1x1"
  type: "Convolution"
  bottom: "inception_3a/output"
  top: "inception_3b/1x1"
  param {
    lr_mult: 1
    decay_mult: 1
  }
  param {
    lr_mult: 2
    decay_mult: 0
  }
  convolution_param {
    num_output: 128
    kernel_size: 1
    weight_filler {
      type: "xavier"
      std: 0.03
    }
    bias_filler {
      type: "constant"
      value: 0.2
    }
  }
}
layer {
  name: "inception_3b/relu_1x1"
  type: "ReLU"
  bottom: "inception_3b/1x1"
  top: "inception_3b/1x1"
}
layer {
  name: "inception_3b/3x3_reduce"
  type: "Convolution"
  bottom: "inception_3a/output"
  top: "inception_3b/3x3_reduce"
  param {
    lr_mult: 1
    decay_mult: 1
  }
  param {
    lr_mult: 2
    decay_mult: 0
  }
  convolution_param {
    num_output: 128
    kernel_size: 1
    weight_filler {
      type: "xavier"
      std: 0.09
    }
    bias_filler {
      type: "constant"
      value: 0.2
    }
  }
}
layer {
  name: "inception_3b/relu_3x3_reduce"
  type: "ReLU"
  bottom: "inception_3b/3x3_reduce"
  top: "inception_3b/3x3_reduce"
}
layer {
  name: "inception_3b/3x3"
  type: "Convolution"
  bottom: "inception_3b/3x3_reduce"
  top: "inception_3b/3x3"
  param {
    lr_mult: 1
    decay_mult: 1
  }
  param {
    lr_mult: 2
    decay_mult: 0
  }
  convolution_param {
    num_output: 192
    pad: 1
    kernel_size: 3
    weight_filler {
      type: "xavier"
      std: 0.03
    }
    bias_filler {
      type: "constant"
      value: 0.2
    }
  }
}
layer {
  name: "inception_3b/relu_3x3"
  type: "ReLU"
  bottom: "inception_3b/3x3"
  top: "inception_3b/3x3"
}
layer {
  name: "inception_3b/5x5_reduce"
  type: "Convolution"
  bottom: "inception_3a/output"
  top: "inception_3b/5x5_reduce"
  param {
    lr_mult: 1
    decay_mult: 1
  }
  param {
    lr_mult: 2
    decay_mult: 0
  }
  convolution_param {
    num_output: 32
    kernel_size: 1
    weight_filler {
      type: "xavier"
      std: 0.2
    }
    bias_filler {
      type: "constant"
      value: 0.2
    }
  }
}
layer {
  name: "inception_3b/relu_5x5_reduce"
  type: "ReLU"
  bottom: "inception_3b/5x5_reduce"
  top: "inception_3b/5x5_reduce"
}
layer {
  name: "inception_3b/5x5"
  type: "Convolution"
  bottom: "inception_3b/5x5_reduce"
  top: "inception_3b/5x5"
  param {
    lr_mult: 1
    decay_mult: 1
  }
  param {
    lr_mult: 2
    decay_mult: 0
  }
  convolution_param {
    num_output: 96
    pad: 2
    kernel_size: 5
    weight_filler {
      type: "xavier"
      std: 0.03
    }
    bias_filler {
      type: "constant"
      value: 0.2
    }
  }
}
layer {
  name: "inception_3b/relu_5x5"
  type: "ReLU"
  bottom: "inception_3b/5x5"
  top: "inception_3b/5x5"
}
layer {
  name: "inception_3b/pool"
  type: "Pooling"
  bottom: "inception_3a/output"
  top: "inception_3b/pool"
  pooling_param {
    pool: MAX
    kernel_size: 3
    stride: 1
    pad: 1
  }
}
layer {
  name: "inception_3b/pool_proj"
  type: "Convolution"
  bottom: "inception_3b/pool"
  top: "inception_3b/pool_proj"
  param {
    lr_mult: 1
    decay_mult: 1
  }
  param {
    lr_mult: 2
    decay_mult: 0
  }
  convolution_param {
    num_output: 64
    kernel_size: 1
    weight_filler {
      type: "xavier"
      std: 0.1
    }
    bias_filler {
      type: "constant"
      value: 0.2
    }
  }
}
layer {
  name: "inception_3b/relu_pool_proj"
  type: "ReLU"
  bottom: "inception_3b/pool_proj"
  top: "inception_3b/pool_proj"
}
layer {
  name: "inception_3b/output"
  type: "Concat"
  bottom: "inception_3b/1x1"
  bottom: "inception_3b/3x3"
  bottom: "inception_3b/5x5"
  bottom: "inception_3b/pool_proj"
  top: "inception_3b/output"
}
layer {
  name: "pool3/3x3_s2"
  type: "Pooling"
  bottom: "inception_3b/output"
  top: "pool3/3x3_s2"
  pooling_param {
    pool: MAX
    kernel_size: 3
    stride: 2
  }
}
layer {
  name: "inception_4a/1x1"
  type: "Convolution"
  bottom: "pool3/3x3_s2"
  top: "inception_4a/1x1"
  param {
    lr_mult: 1
    decay_mult: 1
  }
  param {
    lr_mult: 2
    decay_mult: 0
  }
  convolution_param {
    num_output: 192
    kernel_size: 1
    weight_filler {
      type: "xavier"
      std: 0.03
    }
    bias_filler {
      type: "constant"
      value: 0.2
    }
  }
}
layer {
  name: "inception_4a/relu_1x1"
  type: "ReLU"
  bottom: "inception_4a/1x1"
  top: "inception_4a/1x1"
}
layer {
  name: "inception_4a/3x3_reduce"
  type: "Convolution"
  bottom: "pool3/3x3_s2"
  top: "inception_4a/3x3_reduce"
  param {
    lr_mult: 1
    decay_mult: 1
  }
  param {
    lr_mult: 2
    decay_mult: 0
  }
  convolution_param {
    num_output: 96
    kernel_size: 1
    weight_filler {
      type: "xavier"
      std: 0.09
    }
    bias_filler {
      type: "constant"
      value: 0.2
    }
  }
}
layer {
  name: "inception_4a/relu_3x3_reduce"
  type: "ReLU"
  bottom: "inception_4a/3x3_reduce"
  top: "inception_4a/3x3_reduce"
}
layer {
  name: "inception_4a/3x3"
  type: "Convolution"
  bottom: "inception_4a/3x3_reduce"
  top: "inception_4a/3x3"
  param {
    lr_mult: 1
    decay_mult: 1
  }
  param {
    lr_mult: 2
    decay_mult: 0
  }
  convolution_param {
    num_output: 208
    pad: 1
    kernel_size: 3
    weight_filler {
      type: "xavier"
      std: 0.03
    }
    bias_filler {
      type: "constant"
      value: 0.2
    }
  }
}
layer {
  name: "inception_4a/relu_3x3"
  type: "ReLU"
  bottom: "inception_4a/3x3"
  top: "inception_4a/3x3"
}
layer {
  name: "inception_4a/5x5_reduce"
  type: "Convolution"
  bottom: "pool3/3x3_s2"
  top: "inception_4a/5x5_reduce"
  param {
    lr_mult: 1
    decay_mult: 1
  }
  param {
    lr_mult: 2
    decay_mult: 0
  }
  convolution_param {
    num_output: 16
    kernel_size: 1
    weight_filler {
      type: "xavier"
      std: 0.2
    }
    bias_filler {
      type: "constant"
      value: 0.2
    }
  }
}
layer {
  name: "inception_4a/relu_5x5_reduce"
  type: "ReLU"
  bottom: "inception_4a/5x5_reduce"
  top: "inception_4a/5x5_reduce"
}
layer {
  name: "inception_4a/5x5"
  type: "Convolution"
  bottom: "inception_4a/5x5_reduce"
  top: "inception_4a/5x5"
  param {
    lr_mult: 1
    decay_mult: 1
  }
  param {
    lr_mult: 2
    decay_mult: 0
  }
  convolution_param {
    num_output: 48
    pad: 2
    kernel_size: 5
    weight_filler {
      type: "xavier"
      std: 0.03
    }
    bias_filler {
      type: "constant"
      value: 0.2
    }
  }
}
layer {
  name: "inception_4a/relu_5x5"
  type: "ReLU"
  bottom: "inception_4a/5x5"
  top: "inception_4a/5x5"
}
layer {
  name: "inception_4a/pool"
  type: "Pooling"
  bottom: "pool3/3x3_s2"
  top: "inception_4a/pool"
  pooling_param {
    pool: MAX
    kernel_size: 3
    stride: 1
    pad: 1
  }
}
layer {
  name: "inception_4a/pool_proj"
  type: "Convolution"
  bottom: "inception_4a/pool"
  top: "inception_4a/pool_proj"
  param {
    lr_mult: 1
    decay_mult: 1
  }
  param {
    lr_mult: 2
    decay_mult: 0
  }
  convolution_param {
    num_output: 64
    kernel_size: 1
    weight_filler {
      type: "xavier"
      std: 0.1
    }
    bias_filler {
      type: "constant"
      value: 0.2
    }
  }
}
layer {
  name: "inception_4a/relu_pool_proj"
  type: "ReLU"
  bottom: "inception_4a/pool_proj"
  top: "inception_4a/pool_proj"
}
layer {
  name: "inception_4a/output"
  type: "Concat"
  bottom: "inception_4a/1x1"
  bottom: "inception_4a/3x3"
  bottom: "inception_4a/5x5"
  bottom: "inception_4a/pool_proj"
  top: "inception_4a/output"
}
layer {
  name: "loss1/ave_pool"
  type: "Pooling"
  bottom: "inception_4a/output"
  top: "loss1/ave_pool"
  pooling_param {
    pool: AVE
    kernel_size: 5
    stride: 3
  }
}
layer {
  name: "loss1/conv"
  type: "Convolution"
  bottom: "loss1/ave_pool"
  top: "loss1/conv"
  param {
    lr_mult: 1
    decay_mult: 1
  }
  param {
    lr_mult: 2
    decay_mult: 0
  }
  convolution_param {
    num_output: 128
    kernel_size: 1
    weight_filler {
      type: "xavier"
      std: 0.08
    }
    bias_filler {
      type: "constant"
      value: 0.2
    }
  }
}
layer {
  name: "loss1/relu_conv"
  type: "ReLU"
  bottom: "loss1/conv"
  top: "loss1/conv"
}
layer {
  name: "loss1/fc"
  type: "InnerProduct"
  bottom: "loss1/conv"
  top: "loss1/fc"
  param {
    lr_mult: 1
    decay_mult: 1
  }
  param {
    lr_mult: 2
    decay_mult: 0
  }
  inner_product_param {
    num_output: 1024
    weight_filler {
      type: "xavier"
      std: 0.02
    }
    bias_filler {
      type: "constant"
      value: 0.2
    }
  }
}
layer {
  name: "loss1/relu_fc"
  type: "ReLU"
  bottom: "loss1/fc"
  top: "loss1/fc"
}
layer {
  name: "loss1/drop_fc"
  type: "Dropout"
  bottom: "loss1/fc"
  top: "loss1/fc"
  dropout_param {
    dropout_ratio: 0.7
  }
}
layer {
  name: "loss1/classifier_plantvillage"
  type: "InnerProduct"
  bottom: "loss1/fc"
  top: "loss1/classifier_plantvillage"
  param {
    lr_mult: 1
    decay_mult: 1
  }
  param {
    lr_mult: 2
    decay_mult: 0
  }
  inner_product_param {
    num_output: 38
    weight_filler {
      type: "xavier"
      std: 0.0009765625
    }
    bias_filler {
      type: "constant"
      value: 0
    }
  }
}
layer {
  name: "inception_4b/1x1"
  type: "Convolution"
  bottom: "inception_4a/output"
  top: "inception_4b/1x1"
  param {
    lr_mult: 1
    decay_mult: 1
  }
  param {
    lr_mult: 2
    decay_mult: 0
  }
  convolution_param {
    num_output: 160
    kernel_size: 1
    weight_filler {
      type: "xavier"
      std: 0.03
    }
    bias_filler {
      type: "constant"
      value: 0.2
    }
  }
}
layer {
  name: "inception_4b/relu_1x1"
  type: "ReLU"
  bottom: "inception_4b/1x1"
  top: "inception_4b/1x1"
}
layer {
  name: "inception_4b/3x3_reduce"
  type: "Convolution"
  bottom: "inception_4a/output"
  top: "inception_4b/3x3_reduce"
  param {
    lr_mult: 1
    decay_mult: 1
  }
  param {
    lr_mult: 2
    decay_mult: 0
  }
  convolution_param {
    num_output: 112
    kernel_size: 1
    weight_filler {
      type: "xavier"
      std: 0.09
    }
    bias_filler {
      type: "constant"
      value: 0.2
    }
  }
}
layer {
  name: "inception_4b/relu_3x3_reduce"
  type: "ReLU"
  bottom: "inception_4b/3x3_reduce"
  top: "inception_4b/3x3_reduce"
}
layer {
  name: "inception_4b/3x3"
  type: "Convolution"
  bottom: "inception_4b/3x3_reduce"
  top: "inception_4b/3x3"
  param {
    lr_mult: 1
    decay_mult: 1
  }
  param {
    lr_mult: 2
    decay_mult: 0
  }
  convolution_param {
    num_output: 224
    pad: 1
    kernel_size: 3
    weight_filler {
      type: "xavier"
      std: 0.03
    }
    bias_filler {
      type: "constant"
      value: 0.2
    }
  }
}
layer {
  name: "inception_4b/relu_3x3"
  type: "ReLU"
  bottom: "inception_4b/3x3"
  top: "inception_4b/3x3"
}
layer {
  name: "inception_4b/5x5_reduce"
  type: "Convolution"
  bottom: "inception_4a/output"
  top: "inception_4b/5x5_reduce"
  param {
    lr_mult: 1
    decay_mult: 1
  }
  param {
    lr_mult: 2
    decay_mult: 0
  }
  convolution_param {
    num_output: 24
    kernel_size: 1
    weight_filler {
      type: "xavier"
      std: 0.2
    }
    bias_filler {
      type: "constant"
      value: 0.2
    }
  }
}
layer {
  name: "inception_4b/relu_5x5_reduce"
  type: "ReLU"
  bottom: "inception_4b/5x5_reduce"
  top: "inception_4b/5x5_reduce"
}
layer {
  name: "inception_4b/5x5"
  type: "Convolution"
  bottom: "inception_4b/5x5_reduce"
  top: "inception_4b/5x5"
  param {
    lr_mult: 1
    decay_mult: 1
  }
  param {
    lr_mult: 2
    decay_mult: 0
  }
  convolution_param {
    num_output: 64
    pad: 2
    kernel_size: 5
    weight_filler {
      type: "xavier"
      std: 0.03
    }
    bias_filler {
      type: "constant"
      value: 0.2
    }
  }
}
layer {
  name: "inception_4b/relu_5x5"
  type: "ReLU"
  bottom: "inception_4b/5x5"
  top: "inception_4b/5x5"
}
layer {
  name: "inception_4b/pool"
  type: "Pooling"
  bottom: "inception_4a/output"
  top: "inception_4b/pool"
  pooling_param {
    pool: MAX
    kernel_size: 3
    stride: 1
    pad: 1
  }
}
layer {
  name: "inception_4b/pool_proj"
  type: "Convolution"
  bottom: "inception_4b/pool"
  top: "inception_4b/pool_proj"
  param {
    lr_mult: 1
    decay_mult: 1
  }
  param {
    lr_mult: 2
    decay_mult: 0
  }
  convolution_param {
    num_output: 64
    kernel_size: 1
    weight_filler {
      type: "xavier"
      std: 0.1
    }
    bias_filler {
      type: "constant"
      value: 0.2
    }
  }
}
layer {
  name: "inception_4b/relu_pool_proj"
  type: "ReLU"
  bottom: "inception_4b/pool_proj"
  top: "inception_4b/pool_proj"
}
layer {
  name: "inception_4b/output"
  type: "Concat"
  bottom: "inception_4b/1x1"
  bottom: "inception_4b/3x3"
  bottom: "inception_4b/5x5"
  bottom: "inception_4b/pool_proj"
  top: "inception_4b/output"
}
layer {
  name: "inception_4c/1x1"
  type: "Convolution"
  bottom: "inception_4b/output"
  top: "inception_4c/1x1"
  param {
    lr_mult: 1
    decay_mult: 1
  }
  param {
    lr_mult: 2
    decay_mult: 0
  }
  convolution_param {
    num_output: 128
    kernel_size: 1
    weight_filler {
      type: "xavier"
      std: 0.03
    }
    bias_filler {
      type: "constant"
      value: 0.2
    }
  }
}
layer {
  name: "inception_4c/relu_1x1"
  type: "ReLU"
  bottom: "inception_4c/1x1"
  top: "inception_4c/1x1"
}
layer {
  name: "inception_4c/3x3_reduce"
  type: "Convolution"
  bottom: "inception_4b/output"
  top: "inception_4c/3x3_reduce"
  param {
    lr_mult: 1
    decay_mult: 1
  }
  param {
    lr_mult: 2
    decay_mult: 0
  }
  convolution_param {
    num_output: 128
    kernel_size: 1
    weight_filler {
      type: "xavier"
      std: 0.09
    }
    bias_filler {
      type: "constant"
      value: 0.2
    }
  }
}
layer {
  name: "inception_4c/relu_3x3_reduce"
  type: "ReLU"
  bottom: "inception_4c/3x3_reduce"
  top: "inception_4c/3x3_reduce"
}
layer {
  name: "inception_4c/3x3"
  type: "Convolution"
  bottom: "inception_4c/3x3_reduce"
  top: "inception_4c/3x3"
  param {
    lr_mult: 1
    decay_mult: 1
  }
  param {
    lr_mult: 2
    decay_mult: 0
  }
  convolution_param {
    num_output: 256
    pad: 1
    kernel_size: 3
    weight_filler {
      type: "xavier"
      std: 0.03
    }
    bias_filler {
      type: "constant"
      value: 0.2
    }
  }
}
layer {
  name: "inception_4c/relu_3x3"
  type: "ReLU"
  bottom: "inception_4c/3x3"
  top: "inception_4c/3x3"
}
layer {
  name: "inception_4c/5x5_reduce"
  type: "Convolution"
  bottom: "inception_4b/output"
  top: "inception_4c/5x5_reduce"
  param {
    lr_mult: 1
    decay_mult: 1
  }
  param {
    lr_mult: 2
    decay_mult: 0
  }
  convolution_param {
    num_output: 24
    kernel_size: 1
    weight_filler {
      type: "xavier"
      std: 0.2
    }
    bias_filler {
      type: "constant"
      value: 0.2
    }
  }
}
layer {
  name: "inception_4c/relu_5x5_reduce"
  type: "ReLU"
  bottom: "inception_4c/5x5_reduce"
  top: "inception_4c/5x5_reduce"
}
layer {
  name: "inception_4c/5x5"
  type: "Convolution"
  bottom: "inception_4c/5x5_reduce"
  top: "inception_4c/5x5"
  param {
    lr_mult: 1
    decay_mult: 1
  }
  param {
    lr_mult: 2
    decay_mult: 0
  }
  convolution_param {
    num_output: 64
    pad: 2
    kernel_size: 5
    weight_filler {
      type: "xavier"
      std: 0.03
    }
    bias_filler {
      type: "constant"
      value: 0.2
    }
  }
}
layer {
  name: "inception_4c/relu_5x5"
  type: "ReLU"
  bottom: "inception_4c/5x5"
  top: "inception_4c/5x5"
}
layer {
  name: "inception_4c/pool"
  type: "Pooling"
  bottom: "inception_4b/output"
  top: "inception_4c/pool"
  pooling_param {
    pool: MAX
    kernel_size: 3
    stride: 1
    pad: 1
  }
}
layer {
  name: "inception_4c/pool_proj"
  type: "Convolution"
  bottom: "inception_4c/pool"
  top: "inception_4c/pool_proj"
  param {
    lr_mult: 1
    decay_mult: 1
  }
  param {
    lr_mult: 2
    decay_mult: 0
  }
  convolution_param {
    num_output: 64
    kernel_size: 1
    weight_filler {
      type: "xavier"
      std: 0.1
    }
    bias_filler {
      type: "constant"
      value: 0.2
    }
  }
}
layer {
  name: "inception_4c/relu_pool_proj"
  type: "ReLU"
  bottom: "inception_4c/pool_proj"
  top: "inception_4c/pool_proj"
}
layer {
  name: "inception_4c/output"
  type: "Concat"
  bottom: "inception_4c/1x1"
  bottom: "inception_4c/3x3"
  bottom: "inception_4c/5x5"
  bottom: "inception_4c/pool_proj"
  top: "inception_4c/output"
}
layer {
  name: "inception_4d/1x1"
  type: "Convolution"
  bottom: "inception_4c/output"
  top: "inception_4d/1x1"
  param {
    lr_mult: 1
    decay_mult: 1
  }
  param {
    lr_mult: 2
    decay_mult: 0
  }
  convolution_param {
    num_output: 112
    kernel_size: 1
    weight_filler {
      type: "xavier"
      std: 0.03
    }
    bias_filler {
      type: "constant"
      value: 0.2
    }
  }
}
layer {
  name: "inception_4d/relu_1x1"
  type: "ReLU"
  bottom: "inception_4d/1x1"
  top: "inception_4d/1x1"
}
layer {
  name: "inception_4d/3x3_reduce"
  type: "Convolution"
  bottom: "inception_4c/output"
  top: "inception_4d/3x3_reduce"
  param {
    lr_mult: 1
    decay_mult: 1
  }
  param {
    lr_mult: 2
    decay_mult: 0
  }
  convolution_param {
    num_output: 144
    kernel_size: 1
    weight_filler {
      type: "xavier"
      std: 0.09
    }
    bias_filler {
      type: "constant"
      value: 0.2
    }
  }
}
layer {
  name: "inception_4d/relu_3x3_reduce"
  type: "ReLU"
  bottom: "inception_4d/3x3_reduce"
  top: "inception_4d/3x3_reduce"
}
layer {
  name: "inception_4d/3x3"
  type: "Convolution"
  bottom: "inception_4d/3x3_reduce"
  top: "inception_4d/3x3"
  param {
    lr_mult: 1
    decay_mult: 1
  }
  param {
    lr_mult: 2
    decay_mult: 0
  }
  convolution_param {
    num_output: 288
    pad: 1
    kernel_size: 3
    weight_filler {
      type: "xavier"
      std: 0.03
    }
    bias_filler {
      type: "constant"
      value: 0.2
    }
  }
}
layer {
  name: "inception_4d/relu_3x3"
  type: "ReLU"
  bottom: "inception_4d/3x3"
  top: "inception_4d/3x3"
}
layer {
  name: "inception_4d/5x5_reduce"
  type: "Convolution"
  bottom: "inception_4c/output"
  top: "inception_4d/5x5_reduce"
  param {
    lr_mult: 1
    decay_mult: 1
  }
  param {
    lr_mult: 2
    decay_mult: 0
  }
  convolution_param {
    num_output: 32
    kernel_size: 1
    weight_filler {
      type: "xavier"
      std: 0.2
    }
    bias_filler {
      type: "constant"
      value: 0.2
    }
  }
}
layer {
  name: "inception_4d/relu_5x5_reduce"
  type: "ReLU"
  bottom: "inception_4d/5x5_reduce"
  top: "inception_4d/5x5_reduce"
}
layer {
  name: "inception_4d/5x5"
  type: "Convolution"
  bottom: "inception_4d/5x5_reduce"
  top: "inception_4d/5x5"
  param {
    lr_mult: 1
    decay_mult: 1
  }
  param {
    lr_mult: 2
    decay_mult: 0
  }
  convolution_param {
    num_output: 64
    pad: 2
    kernel_size: 5
    weight_filler {
      type: "xavier"
      std: 0.03
    }
    bias_filler {
      type: "constant"
      value: 0.2
    }
  }
}
layer {
  name: "inception_4d/relu_5x5"
  type: "ReLU"
  bottom: "inception_4d/5x5"
  top: "inception_4d/5x5"
}
layer {
  name: "inception_4d/pool"
  type: "Pooling"
  bottom: "inception_4c/output"
  top: "inception_4d/pool"
  pooling_param {
    pool: MAX
    kernel_size: 3
    stride: 1
    pad: 1
  }
}
layer {
  name: "inception_4d/pool_proj"
  type: "Convolution"
  bottom: "inception_4d/pool"
  top: "inception_4d/pool_proj"
  param {
    lr_mult: 1
    decay_mult: 1
  }
  param {
    lr_mult: 2
    decay_mult: 0
  }
  convolution_param {
    num_output: 64
    kernel_size: 1
    weight_filler {
      type: "xavier"
      std: 0.1
    }
    bias_filler {
      type: "constant"
      value: 0.2
    }
  }
}
layer {
  name: "inception_4d/relu_pool_proj"
  type: "ReLU"
  bottom: "inception_4d/pool_proj"
  top: "inception_4d/pool_proj"
}
layer {
  name: "inception_4d/output"
  type: "Concat"
  bottom: "inception_4d/1x1"
  bottom: "inception_4d/3x3"
  bottom: "inception_4d/5x5"
  bottom: "inception_4d/pool_proj"
  top: "inception_4d/output"
}
layer {
  name: "loss2/ave_pool"
  type: "Pooling"
  bottom: "inception_4d/output"
  top: "loss2/ave_pool"
  pooling_param {
    pool: AVE
    kernel_size: 5
    stride: 3
  }
}
layer {
  name: "loss2/conv"
  type: "Convolution"
  bottom: "loss2/ave_pool"
  top: "loss2/conv"
  param {
    lr_mult: 1
    decay_mult: 1
  }
  param {
    lr_mult: 2
    decay_mult: 0
  }
  convolution_param {
    num_output: 128
    kernel_size: 1
    weight_filler {
      type: "xavier"
      std: 0.08
    }
    bias_filler {
      type: "constant"
      value: 0.2
    }
  }
}
layer {
  name: "loss2/relu_conv"
  type: "ReLU"
  bottom: "loss2/conv"
  top: "loss2/conv"
}
layer {
  name: "loss2/fc"
  type: "InnerProduct"
  bottom: "loss2/conv"
  top: "loss2/fc"
  param {
    lr_mult: 1
    decay_mult: 1
  }
  param {
    lr_mult: 2
    decay_mult: 0
  }
  inner_product_param {
    num_output: 1024
    weight_filler {
      type: "xavier"
      std: 0.02
    }
    bias_filler {
      type: "constant"
      value: 0.2
    }
  }
}
layer {
  name: "loss2/relu_fc"
  type: "ReLU"
  bottom: "loss2/fc"
  top: "loss2/fc"
}
layer {
  name: "loss2/drop_fc"
  type: "Dropout"
  bottom: "loss2/fc"
  top: "loss2/fc"
  dropout_param {
    dropout_ratio: 0.7
  }
}
layer {
  name: "loss2/classifier_plantvillage"
  type: "InnerProduct"
  bottom: "loss2/fc"
  top: "loss2/classifier_plantvillage"
  param {
    lr_mult: 1
    decay_mult: 1
  }
  param {
    lr_mult: 2
    decay_mult: 0
  }
  inner_product_param {
    num_output: 38
    weight_filler {
      type: "xavier"
      std: 0.0009765625
    }
    bias_filler {
      type: "constant"
      value: 0
    }
  }
}
layer {
  name: "inception_4e/1x1"
  type: "Convolution"
  bottom: "inception_4d/output"
  top: "inception_4e/1x1"
  param {
    lr_mult: 1
    decay_mult: 1
  }
  param {
    lr_mult: 2
    decay_mult: 0
  }
  convolution_param {
    num_output: 256
    kernel_size: 1
    weight_filler {
      type: "xavier"
      std: 0.03
    }
    bias_filler {
      type: "constant"
      value: 0.2
    }
  }
}
layer {
  name: "inception_4e/relu_1x1"
  type: "ReLU"
  bottom: "inception_4e/1x1"
  top: "inception_4e/1x1"
}
layer {
  name: "inception_4e/3x3_reduce"
  type: "Convolution"
  bottom: "inception_4d/output"
  top: "inception_4e/3x3_reduce"
  param {
    lr_mult: 1
    decay_mult: 1
  }
  param {
    lr_mult: 2
    decay_mult: 0
  }
  convolution_param {
    num_output: 160
    kernel_size: 1
    weight_filler {
      type: "xavier"
      std: 0.09
    }
    bias_filler {
      type: "constant"
      value: 0.2
    }
  }
}
layer {
  name: "inception_4e/relu_3x3_reduce"
  type: "ReLU"
  bottom: "inception_4e/3x3_reduce"
  top: "inception_4e/3x3_reduce"
}
layer {
  name: "inception_4e/3x3"
  type: "Convolution"
  bottom: "inception_4e/3x3_reduce"
  top: "inception_4e/3x3"
  param {
    lr_mult: 1
    decay_mult: 1
  }
  param {
    lr_mult: 2
    decay_mult: 0
  }
  convolution_param {
    num_output: 320
    pad: 1
    kernel_size: 3
    weight_filler {
      type: "xavier"
      std: 0.03
    }
    bias_filler {
      type: "constant"
      value: 0.2
    }
  }
}
layer {
  name: "inception_4e/relu_3x3"
  type: "ReLU"
  bottom: "inception_4e/3x3"
  top: "inception_4e/3x3"
}
layer {
  name: "inception_4e/5x5_reduce"
  type: "Convolution"
  bottom: "inception_4d/output"
  top: "inception_4e/5x5_reduce"
  param {
    lr_mult: 1
    decay_mult: 1
  }
  param {
    lr_mult: 2
    decay_mult: 0
  }
  convolution_param {
    num_output: 32
    kernel_size: 1
    weight_filler {
      type: "xavier"
      std: 0.2
    }
    bias_filler {
      type: "constant"
      value: 0.2
    }
  }
}
layer {
  name: "inception_4e/relu_5x5_reduce"
  type: "ReLU"
  bottom: "inception_4e/5x5_reduce"
  top: "inception_4e/5x5_reduce"
}
layer {
  name: "inception_4e/5x5"
  type: "Convolution"
  bottom: "inception_4e/5x5_reduce"
  top: "inception_4e/5x5"
  p
I0403 15:15:55.437513 14291 layer_factory.hpp:77] Creating layer data
I0403 15:15:55.438133 14291 net.cpp:91] Creating Layer data
I0403 15:15:55.438163 14291 net.cpp:399] data -> data
I0403 15:15:55.438215 14291 net.cpp:399] data -> label
I0403 15:15:55.438252 14291 data_transformer.cpp:25] Loading mean file from: /home/mohanty/data/final_dataset/lmdb/color-50-50/mean.binaryproto
I0403 15:15:55.441082 14293 db_lmdb.cpp:38] Opened lmdb /home/mohanty/data/final_dataset/lmdb/color-50-50/test_db
I0403 15:15:55.451905 14291 data_layer.cpp:41] output data size: 24,3,224,224
I0403 15:15:55.478926 14291 net.cpp:141] Setting up data
I0403 15:15:55.478981 14291 net.cpp:148] Top shape: 24 3 224 224 (3612672)
I0403 15:15:55.479007 14291 net.cpp:148] Top shape: 24 (24)
I0403 15:15:55.479022 14291 net.cpp:156] Memory required for data: 14450784
I0403 15:15:55.479050 14291 layer_factory.hpp:77] Creating layer label_data_1_split
I0403 15:15:55.479079 14291 net.cpp:91] Creating Layer label_data_1_split
I0403 15:15:55.479099 14291 net.cpp:425] label_data_1_split <- label
I0403 15:15:55.479130 14291 net.cpp:399] label_data_1_split -> label_data_1_split_0
I0403 15:15:55.479158 14291 net.cpp:399] label_data_1_split -> label_data_1_split_1
I0403 15:15:55.479181 14291 net.cpp:399] label_data_1_split -> label_data_1_split_2
I0403 15:15:55.479202 14291 net.cpp:399] label_data_1_split -> label_data_1_split_3
I0403 15:15:55.479223 14291 net.cpp:399] label_data_1_split -> label_data_1_split_4
I0403 15:15:55.479243 14291 net.cpp:399] label_data_1_split -> label_data_1_split_5
I0403 15:15:55.479264 14291 net.cpp:399] label_data_1_split -> label_data_1_split_6
I0403 15:15:55.479285 14291 net.cpp:399] label_data_1_split -> label_data_1_split_7
I0403 15:15:55.479305 14291 net.cpp:399] label_data_1_split -> label_data_1_split_8
I0403 15:15:55.479326 14291 net.cpp:399] label_data_1_split -> label_data_1_split_9
I0403 15:15:55.479444 14291 net.cpp:141] Setting up label_data_1_split
I0403 15:15:55.479467 14291 net.cpp:148] Top shape: 24 (24)
I0403 15:15:55.479485 14291 net.cpp:148] Top shape: 24 (24)
I0403 15:15:55.479501 14291 net.cpp:148] Top shape: 24 (24)
I0403 15:15:55.479517 14291 net.cpp:148] Top shape: 24 (24)
I0403 15:15:55.479533 14291 net.cpp:148] Top shape: 24 (24)
I0403 15:15:55.479555 14291 net.cpp:148] Top shape: 24 (24)
I0403 15:15:55.479573 14291 net.cpp:148] Top shape: 24 (24)
I0403 15:15:55.479588 14291 net.cpp:148] Top shape: 24 (24)
I0403 15:15:55.479604 14291 net.cpp:148] Top shape: 24 (24)
I0403 15:15:55.479619 14291 net.cpp:148] Top shape: 24 (24)
I0403 15:15:55.479651 14291 net.cpp:156] Memory required for data: 14451744
I0403 15:15:55.479668 14291 layer_factory.hpp:77] Creating layer conv1/7x7_s2
I0403 15:15:55.479701 14291 net.cpp:91] Creating Layer conv1/7x7_s2
I0403 15:15:55.479720 14291 net.cpp:425] conv1/7x7_s2 <- data
I0403 15:15:55.479739 14291 net.cpp:399] conv1/7x7_s2 -> conv1/7x7_s2
I0403 15:15:55.621165 14291 net.cpp:141] Setting up conv1/7x7_s2
I0403 15:15:55.621244 14291 net.cpp:148] Top shape: 24 64 112 112 (19267584)
I0403 15:15:55.621263 14291 net.cpp:156] Memory required for data: 91522080
I0403 15:15:55.621294 14291 layer_factory.hpp:77] Creating layer conv1/relu_7x7
I0403 15:15:55.621321 14291 net.cpp:91] Creating Layer conv1/relu_7x7
I0403 15:15:55.621340 14291 net.cpp:425] conv1/relu_7x7 <- conv1/7x7_s2
I0403 15:15:55.621359 14291 net.cpp:386] conv1/relu_7x7 -> conv1/7x7_s2 (in-place)
I0403 15:15:55.621644 14291 net.cpp:141] Setting up conv1/relu_7x7
I0403 15:15:55.621672 14291 net.cpp:148] Top shape: 24 64 112 112 (19267584)
I0403 15:15:55.621688 14291 net.cpp:156] Memory required for data: 168592416
I0403 15:15:55.621704 14291 layer_factory.hpp:77] Creating layer pool1/3x3_s2
I0403 15:15:55.621731 14291 net.cpp:91] Creating Layer pool1/3x3_s2
I0403 15:15:55.621749 14291 net.cpp:425] pool1/3x3_s2 <- conv1/7x7_s2
I0403 15:15:55.621768 14291 net.cpp:399] pool1/3x3_s2 -> pool1/3x3_s2
I0403 15:15:55.621847 14291 net.cpp:141] Setting up pool1/3x3_s2
I0403 15:15:55.621872 14291 net.cpp:148] Top shape: 24 64 56 56 (4816896)
I0403 15:15:55.621887 14291 net.cpp:156] Memory required for data: 187860000
I0403 15:15:55.621902 14291 layer_factory.hpp:77] Creating layer pool1/norm1
I0403 15:15:55.621928 14291 net.cpp:91] Creating Layer pool1/norm1
I0403 15:15:55.621948 14291 net.cpp:425] pool1/norm1 <- pool1/3x3_s2
I0403 15:15:55.621964 14291 net.cpp:399] pool1/norm1 -> pool1/norm1
I0403 15:15:55.622272 14291 net.cpp:141] Setting up pool1/norm1
I0403 15:15:55.622299 14291 net.cpp:148] Top shape: 24 64 56 56 (4816896)
I0403 15:15:55.622315 14291 net.cpp:156] Memory required for data: 207127584
I0403 15:15:55.622330 14291 layer_factory.hpp:77] Creating layer conv2/3x3_reduce
I0403 15:15:55.622357 14291 net.cpp:91] Creating Layer conv2/3x3_reduce
I0403 15:15:55.622375 14291 net.cpp:425] conv2/3x3_reduce <- pool1/norm1
I0403 15:15:55.622398 14291 net.cpp:399] conv2/3x3_reduce -> conv2/3x3_reduce
I0403 15:15:55.623838 14291 net.cpp:141] Setting up conv2/3x3_reduce
I0403 15:15:55.623870 14291 net.cpp:148] Top shape: 24 64 56 56 (4816896)
I0403 15:15:55.623888 14291 net.cpp:156] Memory required for data: 226395168
I0403 15:15:55.623910 14291 layer_factory.hpp:77] Creating layer conv2/relu_3x3_reduce
I0403 15:15:55.623929 14291 net.cpp:91] Creating Layer conv2/relu_3x3_reduce
I0403 15:15:55.623945 14291 net.cpp:425] conv2/relu_3x3_reduce <- conv2/3x3_reduce
I0403 15:15:55.623965 14291 net.cpp:386] conv2/relu_3x3_reduce -> conv2/3x3_reduce (in-place)
I0403 15:15:55.624241 14291 net.cpp:141] Setting up conv2/relu_3x3_reduce
I0403 15:15:55.624272 14291 net.cpp:148] Top shape: 24 64 56 56 (4816896)
I0403 15:15:55.624290 14291 net.cpp:156] Memory required for data: 245662752
I0403 15:15:55.624306 14291 layer_factory.hpp:77] Creating layer conv2/3x3
I0403 15:15:55.624331 14291 net.cpp:91] Creating Layer conv2/3x3
I0403 15:15:55.624351 14291 net.cpp:425] conv2/3x3 <- conv2/3x3_reduce
I0403 15:15:55.624372 14291 net.cpp:399] conv2/3x3 -> conv2/3x3
I0403 15:15:55.626775 14291 net.cpp:141] Setting up conv2/3x3
I0403 15:15:55.626807 14291 net.cpp:148] Top shape: 24 192 56 56 (14450688)
I0403 15:15:55.626824 14291 net.cpp:156] Memory required for data: 303465504
I0403 15:15:55.626847 14291 layer_factory.hpp:77] Creating layer conv2/relu_3x3
I0403 15:15:55.626866 14291 net.cpp:91] Creating Layer conv2/relu_3x3
I0403 15:15:55.626883 14291 net.cpp:425] conv2/relu_3x3 <- conv2/3x3
I0403 15:15:55.626904 14291 net.cpp:386] conv2/relu_3x3 -> conv2/3x3 (in-place)
I0403 15:15:55.627084 14291 net.cpp:141] Setting up conv2/relu_3x3
I0403 15:15:55.627110 14291 net.cpp:148] Top shape: 24 192 56 56 (14450688)
I0403 15:15:55.627164 14291 net.cpp:156] Memory required for data: 361268256
I0403 15:15:55.627180 14291 layer_factory.hpp:77] Creating layer conv2/norm2
I0403 15:15:55.627202 14291 net.cpp:91] Creating Layer conv2/norm2
I0403 15:15:55.627219 14291 net.cpp:425] conv2/norm2 <- conv2/3x3
I0403 15:15:55.627239 14291 net.cpp:399] conv2/norm2 -> conv2/norm2
I0403 15:15:55.627559 14291 net.cpp:141] Setting up conv2/norm2
I0403 15:15:55.627591 14291 net.cpp:148] Top shape: 24 192 56 56 (14450688)
I0403 15:15:55.627609 14291 net.cpp:156] Memory required for data: 419071008
I0403 15:15:55.627624 14291 layer_factory.hpp:77] Creating layer pool2/3x3_s2
I0403 15:15:55.627641 14291 net.cpp:91] Creating Layer pool2/3x3_s2
I0403 15:15:55.627657 14291 net.cpp:425] pool2/3x3_s2 <- conv2/norm2
I0403 15:15:55.627678 14291 net.cpp:399] pool2/3x3_s2 -> pool2/3x3_s2
I0403 15:15:55.627734 14291 net.cpp:141] Setting up pool2/3x3_s2
I0403 15:15:55.627758 14291 net.cpp:148] Top shape: 24 192 28 28 (3612672)
I0403 15:15:55.627773 14291 net.cpp:156] Memory required for data: 433521696
I0403 15:15:55.627787 14291 layer_factory.hpp:77] Creating layer pool2/3x3_s2_pool2/3x3_s2_0_split
I0403 15:15:55.627809 14291 net.cpp:91] Creating Layer pool2/3x3_s2_pool2/3x3_s2_0_split
I0403 15:15:55.627825 14291 net.cpp:425] pool2/3x3_s2_pool2/3x3_s2_0_split <- pool2/3x3_s2
I0403 15:15:55.627845 14291 net.cpp:399] pool2/3x3_s2_pool2/3x3_s2_0_split -> pool2/3x3_s2_pool2/3x3_s2_0_split_0
I0403 15:15:55.627864 14291 net.cpp:399] pool2/3x3_s2_pool2/3x3_s2_0_split -> pool2/3x3_s2_pool2/3x3_s2_0_split_1
I0403 15:15:55.627884 14291 net.cpp:399] pool2/3x3_s2_pool2/3x3_s2_0_split -> pool2/3x3_s2_pool2/3x3_s2_0_split_2
I0403 15:15:55.627907 14291 net.cpp:399] pool2/3x3_s2_pool2/3x3_s2_0_split -> pool2/3x3_s2_pool2/3x3_s2_0_split_3
I0403 15:15:55.627980 14291 net.cpp:141] Setting up pool2/3x3_s2_pool2/3x3_s2_0_split
I0403 15:15:55.628003 14291 net.cpp:148] Top shape: 24 192 28 28 (3612672)
I0403 15:15:55.628021 14291 net.cpp:148] Top shape: 24 192 28 28 (3612672)
I0403 15:15:55.628036 14291 net.cpp:148] Top shape: 24 192 28 28 (3612672)
I0403 15:15:55.628051 14291 net.cpp:148] Top shape: 24 192 28 28 (3612672)
I0403 15:15:55.628065 14291 net.cpp:156] Memory required for data: 491324448
I0403 15:15:55.628079 14291 layer_factory.hpp:77] Creating layer inception_3a/1x1
I0403 15:15:55.628103 14291 net.cpp:91] Creating Layer inception_3a/1x1
I0403 15:15:55.628120 14291 net.cpp:425] inception_3a/1x1 <- pool2/3x3_s2_pool2/3x3_s2_0_split_0
I0403 15:15:55.628141 14291 net.cpp:399] inception_3a/1x1 -> inception_3a/1x1
I0403 15:15:55.629716 14291 net.cpp:141] Setting up inception_3a/1x1
I0403 15:15:55.629747 14291 net.cpp:148] Top shape: 24 64 28 28 (1204224)
I0403 15:15:55.629763 14291 net.cpp:156] Memory required for data: 496141344
I0403 15:15:55.629782 14291 layer_factory.hpp:77] Creating layer inception_3a/relu_1x1
I0403 15:15:55.629801 14291 net.cpp:91] Creating Layer inception_3a/relu_1x1
I0403 15:15:55.629818 14291 net.cpp:425] inception_3a/relu_1x1 <- inception_3a/1x1
I0403 15:15:55.629838 14291 net.cpp:386] inception_3a/relu_1x1 -> inception_3a/1x1 (in-place)
I0403 15:15:55.630023 14291 net.cpp:141] Setting up inception_3a/relu_1x1
I0403 15:15:55.630051 14291 net.cpp:148] Top shape: 24 64 28 28 (1204224)
I0403 15:15:55.630067 14291 net.cpp:156] Memory required for data: 500958240
I0403 15:15:55.630082 14291 layer_factory.hpp:77] Creating layer inception_3a/3x3_reduce
I0403 15:15:55.630105 14291 net.cpp:91] Creating Layer inception_3a/3x3_reduce
I0403 15:15:55.630123 14291 net.cpp:425] inception_3a/3x3_reduce <- pool2/3x3_s2_pool2/3x3_s2_0_split_1
I0403 15:15:55.630144 14291 net.cpp:399] inception_3a/3x3_reduce -> inception_3a/3x3_reduce
I0403 15:15:55.631917 14291 net.cpp:141] Setting up inception_3a/3x3_reduce
I0403 15:15:55.631949 14291 net.cpp:148] Top shape: 24 96 28 28 (1806336)
I0403 15:15:55.631966 14291 net.cpp:156] Memory required for data: 508183584
I0403 15:15:55.631989 14291 layer_factory.hpp:77] Creating layer inception_3a/relu_3x3_reduce
I0403 15:15:55.632026 14291 net.cpp:91] Creating Layer inception_3a/relu_3x3_reduce
I0403 15:15:55.632045 14291 net.cpp:425] inception_3a/relu_3x3_reduce <- inception_3a/3x3_reduce
I0403 15:15:55.632063 14291 net.cpp:386] inception_3a/relu_3x3_reduce -> inception_3a/3x3_reduce (in-place)
I0403 15:15:55.632251 14291 net.cpp:141] Setting up inception_3a/relu_3x3_reduce
I0403 15:15:55.632280 14291 net.cpp:148] Top shape: 24 96 28 28 (1806336)
I0403 15:15:55.632297 14291 net.cpp:156] Memory required for data: 515408928
I0403 15:15:55.632313 14291 layer_factory.hpp:77] Creating layer inception_3a/3x3
I0403 15:15:55.632336 14291 net.cpp:91] Creating Layer inception_3a/3x3
I0403 15:15:55.632354 14291 net.cpp:425] inception_3a/3x3 <- inception_3a/3x3_reduce
I0403 15:15:55.632372 14291 net.cpp:399] inception_3a/3x3 -> inception_3a/3x3
I0403 15:15:55.634062 14291 net.cpp:141] Setting up inception_3a/3x3
I0403 15:15:55.634089 14291 net.cpp:148] Top shape: 24 128 28 28 (2408448)
I0403 15:15:55.634104 14291 net.cpp:156] Memory required for data: 525042720
I0403 15:15:55.634122 14291 layer_factory.hpp:77] Creating layer inception_3a/relu_3x3
I0403 15:15:55.634140 14291 net.cpp:91] Creating Layer inception_3a/relu_3x3
I0403 15:15:55.634157 14291 net.cpp:425] inception_3a/relu_3x3 <- inception_3a/3x3
I0403 15:15:55.634178 14291 net.cpp:386] inception_3a/relu_3x3 -> inception_3a/3x3 (in-place)
I0403 15:15:55.634454 14291 net.cpp:141] Setting up inception_3a/relu_3x3
I0403 15:15:55.634479 14291 net.cpp:148] Top shape: 24 128 28 28 (2408448)
I0403 15:15:55.634495 14291 net.cpp:156] Memory required for data: 534676512
I0403 15:15:55.634510 14291 layer_factory.hpp:77] Creating layer inception_3a/5x5_reduce
I0403 15:15:55.634531 14291 net.cpp:91] Creating Layer inception_3a/5x5_reduce
I0403 15:15:55.634560 14291 net.cpp:425] inception_3a/5x5_reduce <- pool2/3x3_s2_pool2/3x3_s2_0_split_2
I0403 15:15:55.634584 14291 net.cpp:399] inception_3a/5x5_reduce -> inception_3a/5x5_reduce
I0403 15:15:55.635529 14291 net.cpp:141] Setting up inception_3a/5x5_reduce
I0403 15:15:55.635561 14291 net.cpp:148] Top shape: 24 16 28 28 (301056)
I0403 15:15:55.635577 14291 net.cpp:156] Memory required for data: 535880736
I0403 15:15:55.635596 14291 layer_factory.hpp:77] Creating layer inception_3a/relu_5x5_reduce
I0403 15:15:55.635615 14291 net.cpp:91] Creating Layer inception_3a/relu_5x5_reduce
I0403 15:15:55.635632 14291 net.cpp:425] inception_3a/relu_5x5_reduce <- inception_3a/5x5_reduce
I0403 15:15:55.635650 14291 net.cpp:386] inception_3a/relu_5x5_reduce -> inception_3a/5x5_reduce (in-place)
I0403 15:15:55.635944 14291 net.cpp:141] Setting up inception_3a/relu_5x5_reduce
I0403 15:15:55.635970 14291 net.cpp:148] Top shape: 24 16 28 28 (301056)
I0403 15:15:55.635985 14291 net.cpp:156] Memory required for data: 537084960
I0403 15:15:55.636000 14291 layer_factory.hpp:77] Creating layer inception_3a/5x5
I0403 15:15:55.636023 14291 net.cpp:91] Creating Layer inception_3a/5x5
I0403 15:15:55.636041 14291 net.cpp:425] inception_3a/5x5 <- inception_3a/5x5_reduce
I0403 15:15:55.636064 14291 net.cpp:399] inception_3a/5x5 -> inception_3a/5x5
I0403 15:15:55.637068 14291 net.cpp:141] Setting up inception_3a/5x5
I0403 15:15:55.637096 14291 net.cpp:148] Top shape: 24 32 28 28 (602112)
I0403 15:15:55.637111 14291 net.cpp:156] Memory required for data: 539493408
I0403 15:15:55.637130 14291 layer_factory.hpp:77] Creating layer inception_3a/relu_5x5
I0403 15:15:55.637150 14291 net.cpp:91] Creating Layer inception_3a/relu_5x5
I0403 15:15:55.637166 14291 net.cpp:425] inception_3a/relu_5x5 <- inception_3a/5x5
I0403 15:15:55.637184 14291 net.cpp:386] inception_3a/relu_5x5 -> inception_3a/5x5 (in-place)
I0403 15:15:55.637356 14291 net.cpp:141] Setting up inception_3a/relu_5x5
I0403 15:15:55.637379 14291 net.cpp:148] Top shape: 24 32 28 28 (602112)
I0403 15:15:55.637394 14291 net.cpp:156] Memory required for data: 541901856
I0403 15:15:55.637409 14291 layer_factory.hpp:77] Creating layer inception_3a/pool
I0403 15:15:55.637429 14291 net.cpp:91] Creating Layer inception_3a/pool
I0403 15:15:55.637446 14291 net.cpp:425] inception_3a/pool <- pool2/3x3_s2_pool2/3x3_s2_0_split_3
I0403 15:15:55.637480 14291 net.cpp:399] inception_3a/pool -> inception_3a/pool
I0403 15:15:55.637543 14291 net.cpp:141] Setting up inception_3a/pool
I0403 15:15:55.637567 14291 net.cpp:148] Top shape: 24 192 28 28 (3612672)
I0403 15:15:55.637581 14291 net.cpp:156] Memory required for data: 556352544
I0403 15:15:55.637596 14291 layer_factory.hpp:77] Creating layer inception_3a/pool_proj
I0403 15:15:55.637617 14291 net.cpp:91] Creating Layer inception_3a/pool_proj
I0403 15:15:55.637634 14291 net.cpp:425] inception_3a/pool_proj <- inception_3a/pool
I0403 15:15:55.637656 14291 net.cpp:399] inception_3a/pool_proj -> inception_3a/pool_proj
I0403 15:15:55.638604 14291 net.cpp:141] Setting up inception_3a/pool_proj
I0403 15:15:55.638634 14291 net.cpp:148] Top shape: 24 32 28 28 (602112)
I0403 15:15:55.638650 14291 net.cpp:156] Memory required for data: 558760992
I0403 15:15:55.638671 14291 layer_factory.hpp:77] Creating layer inception_3a/relu_pool_proj
I0403 15:15:55.638692 14291 net.cpp:91] Creating Layer inception_3a/relu_pool_proj
I0403 15:15:55.638710 14291 net.cpp:425] inception_3a/relu_pool_proj <- inception_3a/pool_proj
I0403 15:15:55.638727 14291 net.cpp:386] inception_3a/relu_pool_proj -> inception_3a/pool_proj (in-place)
I0403 15:15:55.638995 14291 net.cpp:141] Setting up inception_3a/relu_pool_proj
I0403 15:15:55.639022 14291 net.cpp:148] Top shape: 24 32 28 28 (602112)
I0403 15:15:55.639037 14291 net.cpp:156] Memory required for data: 561169440
I0403 15:15:55.639052 14291 layer_factory.hpp:77] Creating layer inception_3a/output
I0403 15:15:55.639070 14291 net.cpp:91] Creating Layer inception_3a/output
I0403 15:15:55.639084 14291 net.cpp:425] inception_3a/output <- inception_3a/1x1
I0403 15:15:55.639101 14291 net.cpp:425] inception_3a/output <- inception_3a/3x3
I0403 15:15:55.639117 14291 net.cpp:425] inception_3a/output <- inception_3a/5x5
I0403 15:15:55.639133 14291 net.cpp:425] inception_3a/output <- inception_3a/pool_proj
I0403 15:15:55.639152 14291 net.cpp:399] inception_3a/output -> inception_3a/output
I0403 15:15:55.639197 14291 net.cpp:141] Setting up inception_3a/output
I0403 15:15:55.639222 14291 net.cpp:148] Top shape: 24 256 28 28 (4816896)
I0403 15:15:55.639237 14291 net.cpp:156] Memory required for data: 580437024
I0403 15:15:55.639253 14291 layer_factory.hpp:77] Creating layer inception_3a/output_inception_3a/output_0_split
I0403 15:15:55.639271 14291 net.cpp:91] Creating Layer inception_3a/output_inception_3a/output_0_split
I0403 15:15:55.639286 14291 net.cpp:425] inception_3a/output_inception_3a/output_0_split <- inception_3a/output
I0403 15:15:55.639302 14291 net.cpp:399] inception_3a/output_inception_3a/output_0_split -> inception_3a/output_inception_3a/output_0_split_0
I0403 15:15:55.639323 14291 net.cpp:399] inception_3a/output_inception_3a/output_0_split -> inception_3a/output_inception_3a/output_0_split_1
I0403 15:15:55.639346 14291 net.cpp:399] inception_3a/output_inception_3a/output_0_split -> inception_3a/output_inception_3a/output_0_split_2
I0403 15:15:55.639367 14291 net.cpp:399] inception_3a/output_inception_3a/output_0_split -> inception_3a/output_inception_3a/output_0_split_3
I0403 15:15:55.639444 14291 net.cpp:141] Setting up inception_3a/output_inception_3a/output_0_split
I0403 15:15:55.639470 14291 net.cpp:148] Top shape: 24 256 28 28 (4816896)
I0403 15:15:55.639488 14291 net.cpp:148] Top shape: 24 256 28 28 (4816896)
I0403 15:15:55.639504 14291 net.cpp:148] Top shape: 24 256 28 28 (4816896)
I0403 15:15:55.639519 14291 net.cpp:148] Top shape: 24 256 28 28 (4816896)
I0403 15:15:55.639533 14291 net.cpp:156] Memory required for data: 657507360
I0403 15:15:55.639567 14291 layer_factory.hpp:77] Creating layer inception_3b/1x1
I0403 15:15:55.639591 14291 net.cpp:91] Creating Layer inception_3b/1x1
I0403 15:15:55.639610 14291 net.cpp:425] inception_3b/1x1 <- inception_3a/output_inception_3a/output_0_split_0
I0403 15:15:55.639631 14291 net.cpp:399] inception_3b/1x1 -> inception_3b/1x1
I0403 15:15:55.640784 14291 net.cpp:141] Setting up inception_3b/1x1
I0403 15:15:55.640826 14291 net.cpp:148] Top shape: 24 128 28 28 (2408448)
I0403 15:15:55.640843 14291 net.cpp:156] Memory required for data: 667141152
I0403 15:15:55.640862 14291 layer_factory.hpp:77] Creating layer inception_3b/relu_1x1
I0403 15:15:55.640882 14291 net.cpp:91] Creating Layer inception_3b/relu_1x1
I0403 15:15:55.640897 14291 net.cpp:425] inception_3b/relu_1x1 <- inception_3b/1x1
I0403 15:15:55.640918 14291 net.cpp:386] inception_3b/relu_1x1 -> inception_3b/1x1 (in-place)
I0403 15:15:55.641093 14291 net.cpp:141] Setting up inception_3b/relu_1x1
I0403 15:15:55.641119 14291 net.cpp:148] Top shape: 24 128 28 28 (2408448)
I0403 15:15:55.641132 14291 net.cpp:156] Memory required for data: 676774944
I0403 15:15:55.641147 14291 layer_factory.hpp:77] Creating layer inception_3b/3x3_reduce
I0403 15:15:55.641170 14291 net.cpp:91] Creating Layer inception_3b/3x3_reduce
I0403 15:15:55.641187 14291 net.cpp:425] inception_3b/3x3_reduce <- inception_3a/output_inception_3a/output_0_split_1
I0403 15:15:55.641208 14291 net.cpp:399] inception_3b/3x3_reduce -> inception_3b/3x3_reduce
I0403 15:15:55.642359 14291 net.cpp:141] Setting up inception_3b/3x3_reduce
I0403 15:15:55.642390 14291 net.cpp:148] Top shape: 24 128 28 28 (2408448)
I0403 15:15:55.642407 14291 net.cpp:156] Memory required for data: 686408736
I0403 15:15:55.642426 14291 layer_factory.hpp:77] Creating layer inception_3b/relu_3x3_reduce
I0403 15:15:55.642444 14291 net.cpp:91] Creating Layer inception_3b/relu_3x3_reduce
I0403 15:15:55.642460 14291 net.cpp:425] inception_3b/relu_3x3_reduce <- inception_3b/3x3_reduce
I0403 15:15:55.642480 14291 net.cpp:386] inception_3b/relu_3x3_reduce -> inception_3b/3x3_reduce (in-place)
I0403 15:15:55.642663 14291 net.cpp:141] Setting up inception_3b/relu_3x3_reduce
I0403 15:15:55.642688 14291 net.cpp:148] Top shape: 24 128 28 28 (2408448)
I0403 15:15:55.642704 14291 net.cpp:156] Memory required for data: 696042528
I0403 15:15:55.642719 14291 layer_factory.hpp:77] Creating layer inception_3b/3x3
I0403 15:15:55.642745 14291 net.cpp:91] Creating Layer inception_3b/3x3
I0403 15:15:55.642763 14291 net.cpp:425] inception_3b/3x3 <- inception_3b/3x3_reduce
I0403 15:15:55.642782 14291 net.cpp:399] inception_3b/3x3 -> inception_3b/3x3
I0403 15:15:55.645764 14291 net.cpp:141] Setting up inception_3b/3x3
I0403 15:15:55.645794 14291 net.cpp:148] Top shape: 24 192 28 28 (3612672)
I0403 15:15:55.645810 14291 net.cpp:156] Memory required for data: 710493216
I0403 15:15:55.645829 14291 layer_factory.hpp:77] Creating layer inception_3b/relu_3x3
I0403 15:15:55.645848 14291 net.cpp:91] Creating Layer inception_3b/relu_3x3
I0403 15:15:55.645864 14291 net.cpp:425] inception_3b/relu_3x3 <- inception_3b/3x3
I0403 15:15:55.645884 14291 net.cpp:386] inception_3b/relu_3x3 -> inception_3b/3x3 (in-place)
I0403 15:15:55.646169 14291 net.cpp:141] Setting up inception_3b/relu_3x3
I0403 15:15:55.646196 14291 net.cpp:148] Top shape: 24 192 28 28 (3612672)
I0403 15:15:55.646212 14291 net.cpp:156] Memory required for data: 724943904
I0403 15:15:55.646227 14291 layer_factory.hpp:77] Creating layer inception_3b/5x5_reduce
I0403 15:15:55.646250 14291 net.cpp:91] Creating Layer inception_3b/5x5_reduce
I0403 15:15:55.646270 14291 net.cpp:425] inception_3b/5x5_reduce <- inception_3a/output_inception_3a/output_0_split_2
I0403 15:15:55.646293 14291 net.cpp:399] inception_3b/5x5_reduce -> inception_3b/5x5_reduce
I0403 15:15:55.647306 14291 net.cpp:141] Setting up inception_3b/5x5_reduce
I0403 15:15:55.647336 14291 net.cpp:148] Top shape: 24 32 28 28 (602112)
I0403 15:15:55.647351 14291 net.cpp:156] Memory required for data: 727352352
I0403 15:15:55.647369 14291 layer_factory.hpp:77] Creating layer inception_3b/relu_5x5_reduce
I0403 15:15:55.647389 14291 net.cpp:91] Creating Layer inception_3b/relu_5x5_reduce
I0403 15:15:55.647405 14291 net.cpp:425] inception_3b/relu_5x5_reduce <- inception_3b/5x5_reduce
I0403 15:15:55.647426 14291 net.cpp:386] inception_3b/relu_5x5_reduce -> inception_3b/5x5_reduce (in-place)
I0403 15:15:55.647610 14291 net.cpp:141] Setting up inception_3b/relu_5x5_reduce
I0403 15:15:55.647649 14291 net.cpp:148] Top shape: 24 32 28 28 (602112)
I0403 15:15:55.647665 14291 net.cpp:156] Memory required for data: 729760800
I0403 15:15:55.647680 14291 layer_factory.hpp:77] Creating layer inception_3b/5x5
I0403 15:15:55.647702 14291 net.cpp:91] Creating Layer inception_3b/5x5
I0403 15:15:55.647722 14291 net.cpp:425] inception_3b/5x5 <- inception_3b/5x5_reduce
I0403 15:15:55.647742 14291 net.cpp:399] inception_3b/5x5 -> inception_3b/5x5
I0403 15:15:55.649745 14291 net.cpp:141] Setting up inception_3b/5x5
I0403 15:15:55.649777 14291 net.cpp:148] Top shape: 24 96 28 28 (1806336)
I0403 15:15:55.649793 14291 net.cpp:156] Memory required for data: 736986144
I0403 15:15:55.649812 14291 layer_factory.hpp:77] Creating layer inception_3b/relu_5x5
I0403 15:15:55.649830 14291 net.cpp:91] Creating Layer inception_3b/relu_5x5
I0403 15:15:55.649847 14291 net.cpp:425] inception_3b/relu_5x5 <- inception_3b/5x5
I0403 15:15:55.649865 14291 net.cpp:386] inception_3b/relu_5x5 -> inception_3b/5x5 (in-place)
I0403 15:15:55.650063 14291 net.cpp:141] Setting up inception_3b/relu_5x5
I0403 15:15:55.650087 14291 net.cpp:148] Top shape: 24 96 28 28 (1806336)
I0403 15:15:55.650104 14291 net.cpp:156] Memory required for data: 744211488
I0403 15:15:55.650118 14291 layer_factory.hpp:77] Creating layer inception_3b/pool
I0403 15:15:55.650136 14291 net.cpp:91] Creating Layer inception_3b/pool
I0403 15:15:55.650152 14291 net.cpp:425] inception_3b/pool <- inception_3a/output_inception_3a/output_0_split_3
I0403 15:15:55.650171 14291 net.cpp:399] inception_3b/pool -> inception_3b/pool
I0403 15:15:55.650228 14291 net.cpp:141] Setting up inception_3b/pool
I0403 15:15:55.650254 14291 net.cpp:148] Top shape: 24 256 28 28 (4816896)
I0403 15:15:55.650270 14291 net.cpp:156] Memory required for data: 763479072
I0403 15:15:55.650285 14291 layer_factory.hpp:77] Creating layer inception_3b/pool_proj
I0403 15:15:55.650307 14291 net.cpp:91] Creating Layer inception_3b/pool_proj
I0403 15:15:55.650324 14291 net.cpp:425] inception_3b/pool_proj <- inception_3b/pool
I0403 15:15:55.650343 14291 net.cpp:399] inception_3b/pool_proj -> inception_3b/pool_proj
I0403 15:15:55.651417 14291 net.cpp:141] Setting up inception_3b/pool_proj
I0403 15:15:55.651445 14291 net.cpp:148] Top shape: 24 64 28 28 (1204224)
I0403 15:15:55.651460 14291 net.cpp:156] Memory required for data: 768295968
I0403 15:15:55.651479 14291 layer_factory.hpp:77] Creating layer inception_3b/relu_pool_proj
I0403 15:15:55.651500 14291 net.cpp:91] Creating Layer inception_3b/relu_pool_proj
I0403 15:15:55.651517 14291 net.cpp:425] inception_3b/relu_pool_proj <- inception_3b/pool_proj
I0403 15:15:55.651540 14291 net.cpp:386] inception_3b/relu_pool_proj -> inception_3b/pool_proj (in-place)
I0403 15:15:55.651943 14291 net.cpp:141] Setting up inception_3b/relu_pool_proj
I0403 15:15:55.651970 14291 net.cpp:148] Top shape: 24 64 28 28 (1204224)
I0403 15:15:55.651986 14291 net.cpp:156] Memory required for data: 773112864
I0403 15:15:55.652001 14291 layer_factory.hpp:77] Creating layer inception_3b/output
I0403 15:15:55.652019 14291 net.cpp:91] Creating Layer inception_3b/output
I0403 15:15:55.652034 14291 net.cpp:425] inception_3b/output <- inception_3b/1x1
I0403 15:15:55.652051 14291 net.cpp:425] inception_3b/output <- inception_3b/3x3
I0403 15:15:55.652067 14291 net.cpp:425] inception_3b/output <- inception_3b/5x5
I0403 15:15:55.652083 14291 net.cpp:425] inception_3b/output <- inception_3b/pool_proj
I0403 15:15:55.652102 14291 net.cpp:399] inception_3b/output -> inception_3b/output
I0403 15:15:55.652150 14291 net.cpp:141] Setting up inception_3b/output
I0403 15:15:55.652173 14291 net.cpp:148] Top shape: 24 480 28 28 (9031680)
I0403 15:15:55.652189 14291 net.cpp:156] Memory required for data: 809239584
I0403 15:15:55.652204 14291 layer_factory.hpp:77] Creating layer pool3/3x3_s2
I0403 15:15:55.652220 14291 net.cpp:91] Creating Layer pool3/3x3_s2
I0403 15:15:55.652235 14291 net.cpp:425] pool3/3x3_s2 <- inception_3b/output
I0403 15:15:55.652261 14291 net.cpp:399] pool3/3x3_s2 -> pool3/3x3_s2
I0403 15:15:55.652334 14291 net.cpp:141] Setting up pool3/3x3_s2
I0403 15:15:55.652357 14291 net.cpp:148] Top shape: 24 480 14 14 (2257920)
I0403 15:15:55.652372 14291 net.cpp:156] Memory required for data: 818271264
I0403 15:15:55.652387 14291 layer_factory.hpp:77] Creating layer pool3/3x3_s2_pool3/3x3_s2_0_split
I0403 15:15:55.652407 14291 net.cpp:91] Creating Layer pool3/3x3_s2_pool3/3x3_s2_0_split
I0403 15:15:55.652423 14291 net.cpp:425] pool3/3x3_s2_pool3/3x3_s2_0_split <- pool3/3x3_s2
I0403 15:15:55.652441 14291 net.cpp:399] pool3/3x3_s2_pool3/3x3_s2_0_split -> pool3/3x3_s2_pool3/3x3_s2_0_split_0
I0403 15:15:55.652463 14291 net.cpp:399] pool3/3x3_s2_pool3/3x3_s2_0_split -> pool3/3x3_s2_pool3/3x3_s2_0_split_1
I0403 15:15:55.652484 14291 net.cpp:399] pool3/3x3_s2_pool3/3x3_s2_0_split -> pool3/3x3_s2_pool3/3x3_s2_0_split_2
I0403 15:15:55.652504 14291 net.cpp:399] pool3/3x3_s2_pool3/3x3_s2_0_split -> pool3/3x3_s2_pool3/3x3_s2_0_split_3
I0403 15:15:55.652587 14291 net.cpp:141] Setting up pool3/3x3_s2_pool3/3x3_s2_0_split
I0403 15:15:55.652611 14291 net.cpp:148] Top shape: 24 480 14 14 (2257920)
I0403 15:15:55.652627 14291 net.cpp:148] Top shape: 24 480 14 14 (2257920)
I0403 15:15:55.652642 14291 net.cpp:148] Top shape: 24 480 14 14 (2257920)
I0403 15:15:55.652658 14291 net.cpp:148] Top shape: 24 480 14 14 (2257920)
I0403 15:15:55.652673 14291 net.cpp:156] Memory required for data: 854397984
I0403 15:15:55.652688 14291 layer_factory.hpp:77] Creating layer inception_4a/1x1
I0403 15:15:55.652709 14291 net.cpp:91] Creating Layer inception_4a/1x1
I0403 15:15:55.652726 14291 net.cpp:425] inception_4a/1x1 <- pool3/3x3_s2_pool3/3x3_s2_0_split_0
I0403 15:15:55.652747 14291 net.cpp:399] inception_4a/1x1 -> inception_4a/1x1
I0403 15:15:55.654340 14291 net.cpp:141] Setting up inception_4a/1x1
I0403 15:15:55.654369 14291 net.cpp:148] Top shape: 24 192 14 14 (903168)
I0403 15:15:55.654387 14291 net.cpp:156] Memory required for data: 858010656
I0403 15:15:55.654407 14291 layer_factory.hpp:77] Creating layer inception_4a/relu_1x1
I0403 15:15:55.654424 14291 net.cpp:91] Creating Layer inception_4a/relu_1x1
I0403 15:15:55.654440 14291 net.cpp:425] inception_4a/relu_1x1 <- inception_4a/1x1
I0403 15:15:55.654458 14291 net.cpp:386] inception_4a/relu_1x1 -> inception_4a/1x1 (in-place)
I0403 15:15:55.654649 14291 net.cpp:141] Setting up inception_4a/relu_1x1
I0403 15:15:55.654677 14291 net.cpp:148] Top shape: 24 192 14 14 (903168)
I0403 15:15:55.654693 14291 net.cpp:156] Memory required for data: 861623328
I0403 15:15:55.654708 14291 layer_factory.hpp:77] Creating layer inception_4a/3x3_reduce
I0403 15:15:55.654731 14291 net.cpp:91] Creating Layer inception_4a/3x3_reduce
I0403 15:15:55.654748 14291 net.cpp:425] inception_4a/3x3_reduce <- pool3/3x3_s2_pool3/3x3_s2_0_split_1
I0403 15:15:55.654767 14291 net.cpp:399] inception_4a/3x3_reduce -> inception_4a/3x3_reduce
I0403 15:15:55.656078 14291 net.cpp:141] Setting up inception_4a/3x3_reduce
I0403 15:15:55.656108 14291 net.cpp:148] Top shape: 24 96 14 14 (451584)
I0403 15:15:55.656124 14291 net.cpp:156] Memory required for data: 863429664
I0403 15:15:55.656150 14291 layer_factory.hpp:77] Creating layer inception_4a/relu_3x3_reduce
I0403 15:15:55.656173 14291 net.cpp:91] Creating Layer inception_4a/relu_3x3_reduce
I0403 15:15:55.656191 14291 net.cpp:425] inception_4a/relu_3x3_reduce <- inception_4a/3x3_reduce
I0403 15:15:55.656209 14291 net.cpp:386] inception_4a/relu_3x3_reduce -> inception_4a/3x3_reduce (in-place)
I0403 15:15:55.656394 14291 net.cpp:141] Setting up inception_4a/relu_3x3_reduce
I0403 15:15:55.656422 14291 net.cpp:148] Top shape: 24 96 14 14 (451584)
I0403 15:15:55.656440 14291 net.cpp:156] Memory required for data: 865236000
I0403 15:15:55.656455 14291 layer_factory.hpp:77] Creating layer inception_4a/3x3
I0403 15:15:55.656477 14291 net.cpp:91] Creating Layer inception_4a/3x3
I0403 15:15:55.656496 14291 net.cpp:425] inception_4a/3x3 <- inception_4a/3x3_reduce
I0403 15:15:55.656515 14291 net.cpp:399] inception_4a/3x3 -> inception_4a/3x3
I0403 15:15:55.659324 14291 net.cpp:141] Setting up inception_4a/3x3
I0403 15:15:55.659355 14291 net.cpp:148] Top shape: 24 208 14 14 (978432)
I0403 15:15:55.659373 14291 net.cpp:156] Memory required for data: 869149728
I0403 15:15:55.659391 14291 layer_factory.hpp:77] Creating layer inception_4a/relu_3x3
I0403 15:15:55.659410 14291 net.cpp:91] Creating Layer inception_4a/relu_3x3
I0403 15:15:55.659426 14291 net.cpp:425] inception_4a/relu_3x3 <- inception_4a/3x3
I0403 15:15:55.659446 14291 net.cpp:386] inception_4a/relu_3x3 -> inception_4a/3x3 (in-place)
I0403 15:15:55.659731 14291 net.cpp:141] Setting up inception_4a/relu_3x3
I0403 15:15:55.659761 14291 net.cpp:148] Top shape: 24 208 14 14 (978432)
I0403 15:15:55.659777 14291 net.cpp:156] Memory required for data: 873063456
I0403 15:15:55.659792 14291 layer_factory.hpp:77] Creating layer inception_4a/5x5_reduce
I0403 15:15:55.659814 14291 net.cpp:91] Creating Layer inception_4a/5x5_reduce
I0403 15:15:55.659832 14291 net.cpp:425] inception_4a/5x5_reduce <- pool3/3x3_s2_pool3/3x3_s2_0_split_2
I0403 15:15:55.659855 14291 net.cpp:399] inception_4a/5x5_reduce -> inception_4a/5x5_reduce
I0403 15:15:55.660909 14291 net.cpp:141] Setting up inception_4a/5x5_reduce
I0403 15:15:55.660936 14291 net.cpp:148] Top shape: 24 16 14 14 (75264)
I0403 15:15:55.660953 14291 net.cpp:156] Memory required for data: 873364512
I0403 15:15:55.660971 14291 layer_factory.hpp:77] Creating layer inception_4a/relu_5x5_reduce
I0403 15:15:55.660990 14291 net.cpp:91] Creating Layer inception_4a/relu_5x5_reduce
I0403 15:15:55.661007 14291 net.cpp:425] inception_4a/relu_5x5_reduce <- inception_4a/5x5_reduce
I0403 15:15:55.661027 14291 net.cpp:386] inception_4a/relu_5x5_reduce -> inception_4a/5x5_reduce (in-place)
I0403 15:15:55.661211 14291 net.cpp:141] Setting up inception_4a/relu_5x5_reduce
I0403 15:15:55.661237 14291 net.cpp:148] Top shape: 24 16 14 14 (75264)
I0403 15:15:55.661252 14291 net.cpp:156] Memory required for data: 873665568
I0403 15:15:55.661269 14291 layer_factory.hpp:77] Creating layer inception_4a/5x5
I0403 15:15:55.661293 14291 net.cpp:91] Creating Layer inception_4a/5x5
I0403 15:15:55.661310 14291 net.cpp:425] inception_4a/5x5 <- inception_4a/5x5_reduce
I0403 15:15:55.661331 14291 net.cpp:399] inception_4a/5x5 -> inception_4a/5x5
I0403 15:15:55.662456 14291 net.cpp:141] Setting up inception_4a/5x5
I0403 15:15:55.662484 14291 net.cpp:148] Top shape: 24 48 14 14 (225792)
I0403 15:15:55.662502 14291 net.cpp:156] Memory required for data: 874568736
I0403 15:15:55.662519 14291 layer_factory.hpp:77] Creating layer inception_4a/relu_5x5
I0403 15:15:55.662549 14291 net.cpp:91] Creating Layer inception_4a/relu_5x5
I0403 15:15:55.662569 14291 net.cpp:425] inception_4a/relu_5x5 <- inception_4a/5x5
I0403 15:15:55.662585 14291 net.cpp:386] inception_4a/relu_5x5 -> inception_4a/5x5 (in-place)
I0403 15:15:55.662768 14291 net.cpp:141] Setting up inception_4a/relu_5x5
I0403 15:15:55.662796 14291 net.cpp:148] Top shape: 24 48 14 14 (225792)
I0403 15:15:55.662811 14291 net.cpp:156] Memory required for data: 875471904
I0403 15:15:55.662827 14291 layer_factory.hpp:77] Creating layer inception_4a/pool
I0403 15:15:55.662844 14291 net.cpp:91] Creating Layer inception_4a/pool
I0403 15:15:55.662860 14291 net.cpp:425] inception_4a/pool <- pool3/3x3_s2_pool3/3x3_s2_0_split_3
I0403 15:15:55.662878 14291 net.cpp:399] inception_4a/pool -> inception_4a/pool
I0403 15:15:55.662941 14291 net.cpp:141] Setting up inception_4a/pool
I0403 15:15:55.662966 14291 net.cpp:148] Top shape: 24 480 14 14 (2257920)
I0403 15:15:55.662979 14291 net.cpp:156] Memory required for data: 884503584
I0403 15:15:55.662994 14291 layer_factory.hpp:77] Creating layer inception_4a/pool_proj
I0403 15:15:55.663017 14291 net.cpp:91] Creating Layer inception_4a/pool_proj
I0403 15:15:55.663034 14291 net.cpp:425] inception_4a/pool_proj <- inception_4a/pool
I0403 15:15:55.663055 14291 net.cpp:399] inception_4a/pool_proj -> inception_4a/pool_proj
I0403 15:15:55.664261 14291 net.cpp:141] Setting up inception_4a/pool_proj
I0403 15:15:55.664294 14291 net.cpp:148] Top shape: 24 64 14 14 (301056)
I0403 15:15:55.664324 14291 net.cpp:156] Memory required for data: 885707808
I0403 15:15:55.664343 14291 layer_factory.hpp:77] Creating layer inception_4a/relu_pool_proj
I0403 15:15:55.664366 14291 net.cpp:91] Creating Layer inception_4a/relu_pool_proj
I0403 15:15:55.664384 14291 net.cpp:425] inception_4a/relu_pool_proj <- inception_4a/pool_proj
I0403 15:15:55.664403 14291 net.cpp:386] inception_4a/relu_pool_proj -> inception_4a/pool_proj (in-place)
I0403 15:15:55.664705 14291 net.cpp:141] Setting up inception_4a/relu_pool_proj
I0403 15:15:55.664731 14291 net.cpp:148] Top shape: 24 64 14 14 (301056)
I0403 15:15:55.664746 14291 net.cpp:156] Memory required for data: 886912032
I0403 15:15:55.664762 14291 layer_factory.hpp:77] Creating layer inception_4a/output
I0403 15:15:55.664783 14291 net.cpp:91] Creating Layer inception_4a/output
I0403 15:15:55.664799 14291 net.cpp:425] inception_4a/output <- inception_4a/1x1
I0403 15:15:55.664815 14291 net.cpp:425] inception_4a/output <- inception_4a/3x3
I0403 15:15:55.664832 14291 net.cpp:425] inception_4a/output <- inception_4a/5x5
I0403 15:15:55.664849 14291 net.cpp:425] inception_4a/output <- inception_4a/pool_proj
I0403 15:15:55.664866 14291 net.cpp:399] inception_4a/output -> inception_4a/output
I0403 15:15:55.664913 14291 net.cpp:141] Setting up inception_4a/output
I0403 15:15:55.664937 14291 net.cpp:148] Top shape: 24 512 14 14 (2408448)
I0403 15:15:55.664952 14291 net.cpp:156] Memory required for data: 896545824
I0403 15:15:55.664966 14291 layer_factory.hpp:77] Creating layer inception_4a/output_inception_4a/output_0_split
I0403 15:15:55.664983 14291 net.cpp:91] Creating Layer inception_4a/output_inception_4a/output_0_split
I0403 15:15:55.665000 14291 net.cpp:425] inception_4a/output_inception_4a/output_0_split <- inception_4a/output
I0403 15:15:55.665020 14291 net.cpp:399] inception_4a/output_inception_4a/output_0_split -> inception_4a/output_inception_4a/output_0_split_0
I0403 15:15:55.665043 14291 net.cpp:399] inception_4a/output_inception_4a/output_0_split -> inception_4a/output_inception_4a/output_0_split_1
I0403 15:15:55.665065 14291 net.cpp:399] inception_4a/output_inception_4a/output_0_split -> inception_4a/output_inception_4a/output_0_split_2
I0403 15:15:55.665086 14291 net.cpp:399] inception_4a/output_inception_4a/output_0_split -> inception_4a/output_inception_4a/output_0_split_3
I0403 15:15:55.665108 14291 net.cpp:399] inception_4a/output_inception_4a/output_0_split -> inception_4a/output_inception_4a/output_0_split_4
I0403 15:15:55.665205 14291 net.cpp:141] Setting up inception_4a/output_inception_4a/output_0_split
I0403 15:15:55.665230 14291 net.cpp:148] Top shape: 24 512 14 14 (2408448)
I0403 15:15:55.665246 14291 net.cpp:148] Top shape: 24 512 14 14 (2408448)
I0403 15:15:55.665262 14291 net.cpp:148] Top shape: 24 512 14 14 (2408448)
I0403 15:15:55.665277 14291 net.cpp:148] Top shape: 24 512 14 14 (2408448)
I0403 15:15:55.665292 14291 net.cpp:148] Top shape: 24 512 14 14 (2408448)
I0403 15:15:55.665307 14291 net.cpp:156] Memory required for data: 944714784
I0403 15:15:55.665320 14291 layer_factory.hpp:77] Creating layer loss1/ave_pool
I0403 15:15:55.665338 14291 net.cpp:91] Creating Layer loss1/ave_pool
I0403 15:15:55.665354 14291 net.cpp:425] loss1/ave_pool <- inception_4a/output_inception_4a/output_0_split_0
I0403 15:15:55.665374 14291 net.cpp:399] loss1/ave_pool -> loss1/ave_pool
I0403 15:15:55.665591 14291 net.cpp:141] Setting up loss1/ave_pool
I0403 15:15:55.665617 14291 net.cpp:148] Top shape: 24 512 4 4 (196608)
I0403 15:15:55.665633 14291 net.cpp:156] Memory required for data: 945501216
I0403 15:15:55.665648 14291 layer_factory.hpp:77] Creating layer loss1/conv
I0403 15:15:55.665671 14291 net.cpp:91] Creating Layer loss1/conv
I0403 15:15:55.665689 14291 net.cpp:425] loss1/conv <- loss1/ave_pool
I0403 15:15:55.665709 14291 net.cpp:399] loss1/conv -> loss1/conv
I0403 15:15:55.667162 14291 net.cpp:141] Setting up loss1/conv
I0403 15:15:55.667191 14291 net.cpp:148] Top shape: 24 128 4 4 (49152)
I0403 15:15:55.667207 14291 net.cpp:156] Memory required for data: 945697824
I0403 15:15:55.667242 14291 layer_factory.hpp:77] Creating layer loss1/relu_conv
I0403 15:15:55.667260 14291 net.cpp:91] Creating Layer loss1/relu_conv
I0403 15:15:55.667278 14291 net.cpp:425] loss1/relu_conv <- loss1/conv
I0403 15:15:55.667297 14291 net.cpp:386] loss1/relu_conv -> loss1/conv (in-place)
I0403 15:15:55.667598 14291 net.cpp:141] Setting up loss1/relu_conv
I0403 15:15:55.667625 14291 net.cpp:148] Top shape: 24 128 4 4 (49152)
I0403 15:15:55.667640 14291 net.cpp:156] Memory required for data: 945894432
I0403 15:15:55.667656 14291 layer_factory.hpp:77] Creating layer loss1/fc
I0403 15:15:55.667680 14291 net.cpp:91] Creating Layer loss1/fc
I0403 15:15:55.667698 14291 net.cpp:425] loss1/fc <- loss1/conv
I0403 15:15:55.667719 14291 net.cpp:399] loss1/fc -> loss1/fc
I0403 15:15:55.685962 14291 net.cpp:141] Setting up loss1/fc
I0403 15:15:55.686018 14291 net.cpp:148] Top shape: 24 1024 (24576)
I0403 15:15:55.686035 14291 net.cpp:156] Memory required for data: 945992736
I0403 15:15:55.686055 14291 layer_factory.hpp:77] Creating layer loss1/relu_fc
I0403 15:15:55.686075 14291 net.cpp:91] Creating Layer loss1/relu_fc
I0403 15:15:55.686092 14291 net.cpp:425] loss1/relu_fc <- loss1/fc
I0403 15:15:55.686111 14291 net.cpp:386] loss1/relu_fc -> loss1/fc (in-place)
I0403 15:15:55.686326 14291 net.cpp:141] Setting up loss1/relu_fc
I0403 15:15:55.686354 14291 net.cpp:148] Top shape: 24 1024 (24576)
I0403 15:15:55.686370 14291 net.cpp:156] Memory required for data: 946091040
I0403 15:15:55.686385 14291 layer_factory.hpp:77] Creating layer loss1/drop_fc
I0403 15:15:55.686414 14291 net.cpp:91] Creating Layer loss1/drop_fc
I0403 15:15:55.686434 14291 net.cpp:425] loss1/drop_fc <- loss1/fc
I0403 15:15:55.686451 14291 net.cpp:386] loss1/drop_fc -> loss1/fc (in-place)
I0403 15:15:55.686506 14291 net.cpp:141] Setting up loss1/drop_fc
I0403 15:15:55.686530 14291 net.cpp:148] Top shape: 24 1024 (24576)
I0403 15:15:55.686550 14291 net.cpp:156] Memory required for data: 946189344
I0403 15:15:55.686565 14291 layer_factory.hpp:77] Creating layer loss1/classifier_plantvillage
I0403 15:15:55.686589 14291 net.cpp:91] Creating Layer loss1/classifier_plantvillage
I0403 15:15:55.686606 14291 net.cpp:425] loss1/classifier_plantvillage <- loss1/fc
I0403 15:15:55.686625 14291 net.cpp:399] loss1/classifier_plantvillage -> loss1/classifier_plantvillage
I0403 15:15:55.687598 14291 net.cpp:141] Setting up loss1/classifier_plantvillage
I0403 15:15:55.687630 14291 net.cpp:148] Top shape: 24 38 (912)
I0403 15:15:55.687649 14291 net.cpp:156] Memory required for data: 946192992
I0403 15:15:55.687666 14291 layer_factory.hpp:77] Creating layer loss1/classifier_plantvillage_loss1/classifier_plantvillage_0_split
I0403 15:15:55.687686 14291 net.cpp:91] Creating Layer loss1/classifier_plantvillage_loss1/classifier_plantvillage_0_split
I0403 15:15:55.687703 14291 net.cpp:425] loss1/classifier_plantvillage_loss1/classifier_plantvillage_0_split <- loss1/classifier_plantvillage
I0403 15:15:55.687722 14291 net.cpp:399] loss1/classifier_plantvillage_loss1/classifier_plantvillage_0_split -> loss1/classifier_plantvillage_loss1/classifier_plantvillage_0_split_0
I0403 15:15:55.687746 14291 net.cpp:399] loss1/classifier_plantvillage_loss1/classifier_plantvillage_0_split -> loss1/classifier_plantvillage_loss1/classifier_plantvillage_0_split_1
I0403 15:15:55.687769 14291 net.cpp:399] loss1/classifier_plantvillage_loss1/classifier_plantvillage_0_split -> loss1/classifier_plantvillage_loss1/classifier_plantvillage_0_split_2
I0403 15:15:55.687840 14291 net.cpp:141] Setting up loss1/classifier_plantvillage_loss1/classifier_plantvillage_0_split
I0403 15:15:55.687865 14291 net.cpp:148] Top shape: 24 38 (912)
I0403 15:15:55.687883 14291 net.cpp:148] Top shape: 24 38 (912)
I0403 15:15:55.687901 14291 net.cpp:148] Top shape: 24 38 (912)
I0403 15:15:55.687914 14291 net.cpp:156] Memory required for data: 946203936
I0403 15:15:55.687929 14291 layer_factory.hpp:77] Creating layer inception_4b/1x1
I0403 15:15:55.687952 14291 net.cpp:91] Creating Layer inception_4b/1x1
I0403 15:15:55.687999 14291 net.cpp:425] inception_4b/1x1 <- inception_4a/output_inception_4a/output_0_split_1
I0403 15:15:55.688022 14291 net.cpp:399] inception_4b/1x1 -> inception_4b/1x1
I0403 15:15:55.689816 14291 net.cpp:141] Setting up inception_4b/1x1
I0403 15:15:55.689848 14291 net.cpp:148] Top shape: 24 160 14 14 (752640)
I0403 15:15:55.689867 14291 net.cpp:156] Memory required for data: 949214496
I0403 15:15:55.689887 14291 layer_factory.hpp:77] Creating layer inception_4b/relu_1x1
I0403 15:15:55.689906 14291 net.cpp:91] Creating Layer inception_4b/relu_1x1
I0403 15:15:55.689924 14291 net.cpp:425] inception_4b/relu_1x1 <- inception_4b/1x1
I0403 15:15:55.689944 14291 net.cpp:386] inception_4b/relu_1x1 -> inception_4b/1x1 (in-place)
I0403 15:15:55.690138 14291 net.cpp:141] Setting up inception_4b/relu_1x1
I0403 15:15:55.690165 14291 net.cpp:148] Top shape: 24 160 14 14 (752640)
I0403 15:15:55.690181 14291 net.cpp:156] Memory required for data: 952225056
I0403 15:15:55.690196 14291 layer_factory.hpp:77] Creating layer inception_4b/3x3_reduce
I0403 15:15:55.690219 14291 net.cpp:91] Creating Layer inception_4b/3x3_reduce
I0403 15:15:55.690237 14291 net.cpp:425] inception_4b/3x3_reduce <- inception_4a/output_inception_4a/output_0_split_2
I0403 15:15:55.690263 14291 net.cpp:399] inception_4b/3x3_reduce -> inception_4b/3x3_reduce
I0403 15:15:55.691722 14291 net.cpp:141] Setting up inception_4b/3x3_reduce
I0403 15:15:55.691753 14291 net.cpp:148] Top shape: 24 112 14 14 (526848)
I0403 15:15:55.691771 14291 net.cpp:156] Memory required for data: 954332448
I0403 15:15:55.691792 14291 layer_factory.hpp:77] Creating layer inception_4b/relu_3x3_reduce
I0403 15:15:55.691813 14291 net.cpp:91] Creating Layer inception_4b/relu_3x3_reduce
I0403 15:15:55.691833 14291 net.cpp:425] inception_4b/relu_3x3_reduce <- inception_4b/3x3_reduce
I0403 15:15:55.691853 14291 net.cpp:386] inception_4b/relu_3x3_reduce -> inception_4b/3x3_reduce (in-place)
I0403 15:15:55.692157 14291 net.cpp:141] Setting up inception_4b/relu_3x3_reduce
I0403 15:15:55.692184 14291 net.cpp:148] Top shape: 24 112 14 14 (526848)
I0403 15:15:55.692200 14291 net.cpp:156] Memory required for data: 956439840
I0403 15:15:55.692216 14291 layer_factory.hpp:77] Creating layer inception_4b/3x3
I0403 15:15:55.692239 14291 net.cpp:91] Creating Layer inception_4b/3x3
I0403 15:15:55.692258 14291 net.cpp:425] inception_4b/3x3 <- inception_4b/3x3_reduce
I0403 15:15:55.692281 14291 net.cpp:399] inception_4b/3x3 -> inception_4b/3x3
I0403 15:15:55.695462 14291 net.cpp:141] Setting up inception_4b/3x3
I0403 15:15:55.695497 14291 net.cpp:148] Top shape: 24 224 14 14 (1053696)
I0403 15:15:55.695515 14291 net.cpp:156] Memory required for data: 960654624
I0403 15:15:55.695540 14291 layer_factory.hpp:77] Creating layer inception_4b/relu_3x3
I0403 15:15:55.695561 14291 net.cpp:91] Creating Layer inception_4b/relu_3x3
I0403 15:15:55.695579 14291 net.cpp:425] inception_4b/relu_3x3 <- inception_4b/3x3
I0403 15:15:55.695596 14291 net.cpp:386] inception_4b/relu_3x3 -> inception_4b/3x3 (in-place)
I0403 15:15:55.695792 14291 net.cpp:141] Setting up inception_4b/relu_3x3
I0403 15:15:55.695822 14291 net.cpp:148] Top shape: 24 224 14 14 (1053696)
I0403 15:15:55.695838 14291 net.cpp:156] Memory required for data: 964869408
I0403 15:15:55.695854 14291 layer_factory.hpp:77] Creating layer inception_4b/5x5_reduce
I0403 15:15:55.695878 14291 net.cpp:91] Creating Layer inception_4b/5x5_reduce
I0403 15:15:55.695897 14291 net.cpp:425] inception_4b/5x5_reduce <- inception_4a/output_inception_4a/output_0_split_3
I0403 15:15:55.695919 14291 net.cpp:399] inception_4b/5x5_reduce -> inception_4b/5x5_reduce
I0403 15:15:55.697073 14291 net.cpp:141] Setting up inception_4b/5x5_reduce
I0403 15:15:55.697103 14291 net.cpp:148] Top shape: 24 24 14 14 (112896)
I0403 15:15:55.697119 14291 net.cpp:156] Memory required for data: 965320992
I0403 15:15:55.697139 14291 layer_factory.hpp:77] Creating layer inception_4b/relu_5x5_reduce
I0403 15:15:55.697161 14291 net.cpp:91] Creating Layer inception_4b/relu_5x5_reduce
I0403 15:15:55.697193 14291 net.cpp:425] inception_4b/relu_5x5_reduce <- inception_4b/5x5_reduce
I0403 15:15:55.697213 14291 net.cpp:386] inception_4b/relu_5x5_reduce -> inception_4b/5x5_reduce (in-place)
I0403 15:15:55.697408 14291 net.cpp:141] Setting up inception_4b/relu_5x5_reduce
I0403 15:15:55.697435 14291 net.cpp:148] Top shape: 24 24 14 14 (112896)
I0403 15:15:55.697450 14291 net.cpp:156] Memory required for data: 965772576
I0403 15:15:55.697466 14291 layer_factory.hpp:77] Creating layer inception_4b/5x5
I0403 15:15:55.697490 14291 net.cpp:91] Creating Layer inception_4b/5x5
I0403 15:15:55.697509 14291 net.cpp:425] inception_4b/5x5 <- inception_4b/5x5_reduce
I0403 15:15:55.697531 14291 net.cpp:399] inception_4b/5x5 -> inception_4b/5x5
I0403 15:15:55.698850 14291 net.cpp:141] Setting up inception_4b/5x5
I0403 15:15:55.698879 14291 net.cpp:148] Top shape: 24 64 14 14 (301056)
I0403 15:15:55.698897 14291 net.cpp:156] Memory required for data: 966976800
I0403 15:15:55.698917 14291 layer_factory.hpp:77] Creating layer inception_4b/relu_5x5
I0403 15:15:55.698938 14291 net.cpp:91] Creating Layer inception_4b/relu_5x5
I0403 15:15:55.698956 14291 net.cpp:425] inception_4b/relu_5x5 <- inception_4b/5x5
I0403 15:15:55.698979 14291 net.cpp:386] inception_4b/relu_5x5 -> inception_4b/5x5 (in-place)
I0403 15:15:55.699282 14291 net.cpp:141] Setting up inception_4b/relu_5x5
I0403 15:15:55.699312 14291 net.cpp:148] Top shape: 24 64 14 14 (301056)
I0403 15:15:55.699329 14291 net.cpp:156] Memory required for data: 968181024
I0403 15:15:55.699345 14291 layer_factory.hpp:77] Creating layer inception_4b/pool
I0403 15:15:55.699364 14291 net.cpp:91] Creating Layer inception_4b/pool
I0403 15:15:55.699383 14291 net.cpp:425] inception_4b/pool <- inception_4a/output_inception_4a/output_0_split_4
I0403 15:15:55.699404 14291 net.cpp:399] inception_4b/pool -> inception_4b/pool
I0403 15:15:55.699476 14291 net.cpp:141] Setting up inception_4b/pool
I0403 15:15:55.699501 14291 net.cpp:148] Top shape: 24 512 14 14 (2408448)
I0403 15:15:55.699518 14291 net.cpp:156] Memory required for data: 977814816
I0403 15:15:55.699539 14291 layer_factory.hpp:77] Creating layer inception_4b/pool_proj
I0403 15:15:55.699568 14291 net.cpp:91] Creating Layer inception_4b/pool_proj
I0403 15:15:55.699587 14291 net.cpp:425] inception_4b/pool_proj <- inception_4b/pool
I0403 15:15:55.699607 14291 net.cpp:399] inception_4b/pool_proj -> inception_4b/pool_proj
I0403 15:15:55.700888 14291 net.cpp:141] Setting up inception_4b/pool_proj
I0403 15:15:55.700919 14291 net.cpp:148] Top shape: 24 64 14 14 (301056)
I0403 15:15:55.700937 14291 net.cpp:156] Memory required for data: 979019040
I0403 15:15:55.700958 14291 layer_factory.hpp:77] Creating layer inception_4b/relu_pool_proj
I0403 15:15:55.700978 14291 net.cpp:91] Creating Layer inception_4b/relu_pool_proj
I0403 15:15:55.700995 14291 net.cpp:425] inception_4b/relu_pool_proj <- inception_4b/pool_proj
I0403 15:15:55.701015 14291 net.cpp:386] inception_4b/relu_pool_proj -> inception_4b/pool_proj (in-place)
I0403 15:15:55.701210 14291 net.cpp:141] Setting up inception_4b/relu_pool_proj
I0403 15:15:55.701236 14291 net.cpp:148] Top shape: 24 64 14 14 (301056)
I0403 15:15:55.701251 14291 net.cpp:156] Memory required for data: 980223264
I0403 15:15:55.701269 14291 layer_factory.hpp:77] Creating layer inception_4b/output
I0403 15:15:55.701292 14291 net.cpp:91] Creating Layer inception_4b/output
I0403 15:15:55.701308 14291 net.cpp:425] inception_4b/output <- inception_4b/1x1
I0403 15:15:55.701326 14291 net.cpp:425] inception_4b/output <- inception_4b/3x3
I0403 15:15:55.701344 14291 net.cpp:425] inception_4b/output <- inception_4b/5x5
I0403 15:15:55.701361 14291 net.cpp:425] inception_4b/output <- inception_4b/pool_proj
I0403 15:15:55.701380 14291 net.cpp:399] inception_4b/output -> inception_4b/output
I0403 15:15:55.701431 14291 net.cpp:141] Setting up inception_4b/output
I0403 15:15:55.701454 14291 net.cpp:148] Top shape: 24 512 14 14 (2408448)
I0403 15:15:55.701469 14291 net.cpp:156] Memory required for data: 989857056
I0403 15:15:55.701500 14291 layer_factory.hpp:77] Creating layer inception_4b/output_inception_4b/output_0_split
I0403 15:15:55.701519 14291 net.cpp:91] Creating Layer inception_4b/output_inception_4b/output_0_split
I0403 15:15:55.701540 14291 net.cpp:425] inception_4b/output_inception_4b/output_0_split <- inception_4b/output
I0403 15:15:55.701565 14291 net.cpp:399] inception_4b/output_inception_4b/output_0_split -> inception_4b/output_inception_4b/output_0_split_0
I0403 15:15:55.701587 14291 net.cpp:399] inception_4b/output_inception_4b/output_0_split -> inception_4b/output_inception_4b/output_0_split_1
I0403 15:15:55.701609 14291 net.cpp:399] inception_4b/output_inception_4b/output_0_split -> inception_4b/output_inception_4b/output_0_split_2
I0403 15:15:55.701632 14291 net.cpp:399] inception_4b/output_inception_4b/output_0_split -> inception_4b/output_inception_4b/output_0_split_3
I0403 15:15:55.701717 14291 net.cpp:141] Setting up inception_4b/output_inception_4b/output_0_split
I0403 15:15:55.701745 14291 net.cpp:148] Top shape: 24 512 14 14 (2408448)
I0403 15:15:55.701764 14291 net.cpp:148] Top shape: 24 512 14 14 (2408448)
I0403 15:15:55.701781 14291 net.cpp:148] Top shape: 24 512 14 14 (2408448)
I0403 15:15:55.701797 14291 net.cpp:148] Top shape: 24 512 14 14 (2408448)
I0403 15:15:55.701812 14291 net.cpp:156] Memory required for data: 1028392224
I0403 15:15:55.701827 14291 layer_factory.hpp:77] Creating layer inception_4c/1x1
I0403 15:15:55.701851 14291 net.cpp:91] Creating Layer inception_4c/1x1
I0403 15:15:55.701871 14291 net.cpp:425] inception_4c/1x1 <- inception_4b/output_inception_4b/output_0_split_0
I0403 15:15:55.701890 14291 net.cpp:399] inception_4c/1x1 -> inception_4c/1x1
I0403 15:15:55.703415 14291 net.cpp:141] Setting up inception_4c/1x1
I0403 15:15:55.703445 14291 net.cpp:148] Top shape: 24 128 14 14 (602112)
I0403 15:15:55.703462 14291 net.cpp:156] Memory required for data: 1030800672
I0403 15:15:55.703482 14291 layer_factory.hpp:77] Creating layer inception_4c/relu_1x1
I0403 15:15:55.703507 14291 net.cpp:91] Creating Layer inception_4c/relu_1x1
I0403 15:15:55.703526 14291 net.cpp:425] inception_4c/relu_1x1 <- inception_4c/1x1
I0403 15:15:55.703552 14291 net.cpp:386] inception_4c/relu_1x1 -> inception_4c/1x1 (in-place)
I0403 15:15:55.703748 14291 net.cpp:141] Setting up inception_4c/relu_1x1
I0403 15:15:55.703778 14291 net.cpp:148] Top shape: 24 128 14 14 (602112)
I0403 15:15:55.703796 14291 net.cpp:156] Memory required for data: 1033209120
I0403 15:15:55.703814 14291 layer_factory.hpp:77] Creating layer inception_4c/3x3_reduce
I0403 15:15:55.703837 14291 net.cpp:91] Creating Layer inception_4c/3x3_reduce
I0403 15:15:55.703856 14291 net.cpp:425] inception_4c/3x3_reduce <- inception_4b/output_inception_4b/output_0_split_1
I0403 15:15:55.703877 14291 net.cpp:399] inception_4c/3x3_reduce -> inception_4c/3x3_reduce
I0403 15:15:55.705960 14291 net.cpp:141] Setting up inception_4c/3x3_reduce
I0403 15:15:55.705993 14291 net.cpp:148] Top shape: 24 128 14 14 (602112)
I0403 15:15:55.706012 14291 net.cpp:156] Memory required for data: 1035617568
I0403 15:15:55.706032 14291 layer_factory.hpp:77] Creating layer inception_4c/relu_3x3_reduce
I0403 15:15:55.706051 14291 net.cpp:91] Creating Layer inception_4c/relu_3x3_reduce
I0403 15:15:55.706068 14291 net.cpp:425] inception_4c/relu_3x3_reduce <- inception_4c/3x3_reduce
I0403 15:15:55.706089 14291 net.cpp:386] inception_4c/relu_3x3_reduce -> inception_4c/3x3_reduce (in-place)
I0403 15:15:55.706393 14291 net.cpp:141] Setting up inception_4c/relu_3x3_reduce
I0403 15:15:55.706425 14291 net.cpp:148] Top shape: 24 128 14 14 (602112)
I0403 15:15:55.706442 14291 net.cpp:156] Memory required for data: 1038026016
I0403 15:15:55.706459 14291 layer_factory.hpp:77] Creating layer inception_4c/3x3
I0403 15:15:55.706485 14291 net.cpp:91] Creating Layer inception_4c/3x3
I0403 15:15:55.706506 14291 net.cpp:425] inception_4c/3x3 <- inception_4c/3x3_reduce
I0403 15:15:55.706524 14291 net.cpp:399] inception_4c/3x3 -> inception_4c/3x3
I0403 15:15:55.710302 14291 net.cpp:141] Setting up inception_4c/3x3
I0403 15:15:55.710343 14291 net.cpp:148] Top shape: 24 256 14 14 (1204224)
I0403 15:15:55.710361 14291 net.cpp:156] Memory required for data: 1042842912
I0403 15:15:55.710394 14291 layer_factory.hpp:77] Creating layer inception_4c/relu_3x3
I0403 15:15:55.710417 14291 net.cpp:91] Creating Layer inception_4c/relu_3x3
I0403 15:15:55.710434 14291 net.cpp:425] inception_4c/relu_3x3 <- inception_4c/3x3
I0403 15:15:55.710454 14291 net.cpp:386] inception_4c/relu_3x3 -> inception_4c/3x3 (in-place)
I0403 15:15:55.710645 14291 net.cpp:141] Setting up inception_4c/relu_3x3
I0403 15:15:55.710670 14291 net.cpp:148] Top shape: 24 256 14 14 (1204224)
I0403 15:15:55.710685 14291 net.cpp:156] Memory required for data: 1047659808
I0403 15:15:55.710700 14291 layer_factory.hpp:77] Creating layer inception_4c/5x5_reduce
I0403 15:15:55.710722 14291 net.cpp:91] Creating Layer inception_4c/5x5_reduce
I0403 15:15:55.710741 14291 net.cpp:425] inception_4c/5x5_reduce <- inception_4b/output_inception_4b/output_0_split_2
I0403 15:15:55.710762 14291 net.cpp:399] inception_4c/5x5_reduce -> inception_4c/5x5_reduce
I0403 15:15:55.711850 14291 net.cpp:141] Setting up inception_4c/5x5_reduce
I0403 15:15:55.711879 14291 net.cpp:148] Top shape: 24 24 14 14 (112896)
I0403 15:15:55.711894 14291 net.cpp:156] Memory required for data: 1048111392
I0403 15:15:55.711911 14291 layer_factory.hpp:77] Creating layer inception_4c/relu_5x5_reduce
I0403 15:15:55.711930 14291 net.cpp:91] Creating Layer inception_4c/relu_5x5_reduce
I0403 15:15:55.711946 14291 net.cpp:425] inception_4c/relu_5x5_reduce <- inception_4c/5x5_reduce
I0403 15:15:55.711966 14291 net.cpp:386] inception_4c/relu_5x5_reduce -> inception_4c/5x5_reduce (in-place)
I0403 15:15:55.712148 14291 net.cpp:141] Setting up inception_4c/relu_5x5_reduce
I0403 15:15:55.712172 14291 net.cpp:148] Top shape: 24 24 14 14 (112896)
I0403 15:15:55.712187 14291 net.cpp:156] Memory required for data: 1048562976
I0403 15:15:55.712201 14291 layer_factory.hpp:77] Creating layer inception_4c/5x5
I0403 15:15:55.712224 14291 net.cpp:91] Creating Layer inception_4c/5x5
I0403 15:15:55.712241 14291 net.cpp:425] inception_4c/5x5 <- inception_4c/5x5_reduce
I0403 15:15:55.712261 14291 net.cpp:399] inception_4c/5x5 -> inception_4c/5x5
I0403 15:15:55.713541 14291 net.cpp:141] Setting up inception_4c/5x5
I0403 15:15:55.713568 14291 net.cpp:148] Top shape: 24 64 14 14 (301056)
I0403 15:15:55.713583 14291 net.cpp:156] Memory required for data: 1049767200
I0403 15:15:55.713601 14291 layer_factory.hpp:77] Creating layer inception_4c/relu_5x5
I0403 15:15:55.713623 14291 net.cpp:91] Creating Layer inception_4c/relu_5x5
I0403 15:15:55.713639 14291 net.cpp:425] inception_4c/relu_5x5 <- inception_4c/5x5
I0403 15:15:55.713655 14291 net.cpp:386] inception_4c/relu_5x5 -> inception_4c/5x5 (in-place)
I0403 15:15:55.713945 14291 net.cpp:141] Setting up inception_4c/relu_5x5
I0403 15:15:55.713973 14291 net.cpp:148] Top shape: 24 64 14 14 (301056)
I0403 15:15:55.713987 14291 net.cpp:156] Memory required for data: 1050971424
I0403 15:15:55.714001 14291 layer_factory.hpp:77] Creating layer inception_4c/pool
I0403 15:15:55.714022 14291 net.cpp:91] Creating Layer inception_4c/pool
I0403 15:15:55.714040 14291 net.cpp:425] inception_4c/pool <- inception_4b/output_inception_4b/output_0_split_3
I0403 15:15:55.714057 14291 net.cpp:399] inception_4c/pool -> inception_4c/pool
I0403 15:15:55.714123 14291 net.cpp:141] Setting up inception_4c/pool
I0403 15:15:55.714148 14291 net.cpp:148] Top shape: 24 512 14 14 (2408448)
I0403 15:15:55.714161 14291 net.cpp:156] Memory required for data: 1060605216
I0403 15:15:55.714176 14291 layer_factory.hpp:77] Creating layer inception_4c/pool_proj
I0403 15:15:55.714197 14291 net.cpp:91] Creating Layer inception_4c/pool_proj
I0403 15:15:55.714215 14291 net.cpp:425] inception_4c/pool_proj <- inception_4c/pool
I0403 15:15:55.714234 14291 net.cpp:399] inception_4c/pool_proj -> inception_4c/pool_proj
I0403 15:15:55.715471 14291 net.cpp:141] Setting up inception_4c/pool_proj
I0403 15:15:55.715499 14291 net.cpp:148] Top shape: 24 64 14 14 (301056)
I0403 15:15:55.715528 14291 net.cpp:156] Memory required for data: 1061809440
I0403 15:15:55.715553 14291 layer_factory.hpp:77] Creating layer inception_4c/relu_pool_proj
I0403 15:15:55.715571 14291 net.cpp:91] Creating Layer inception_4c/relu_pool_proj
I0403 15:15:55.715587 14291 net.cpp:425] inception_4c/relu_pool_proj <- inception_4c/pool_proj
I0403 15:15:55.715606 14291 net.cpp:386] inception_4c/relu_pool_proj -> inception_4c/pool_proj (in-place)
I0403 15:15:55.715790 14291 net.cpp:141] Setting up inception_4c/relu_pool_proj
I0403 15:15:55.715813 14291 net.cpp:148] Top shape: 24 64 14 14 (301056)
I0403 15:15:55.715828 14291 net.cpp:156] Memory required for data: 1063013664
I0403 15:15:55.715843 14291 layer_factory.hpp:77] Creating layer inception_4c/output
I0403 15:15:55.715862 14291 net.cpp:91] Creating Layer inception_4c/output
I0403 15:15:55.715878 14291 net.cpp:425] inception_4c/output <- inception_4c/1x1
I0403 15:15:55.715894 14291 net.cpp:425] inception_4c/output <- inception_4c/3x3
I0403 15:15:55.715911 14291 net.cpp:425] inception_4c/output <- inception_4c/5x5
I0403 15:15:55.715927 14291 net.cpp:425] inception_4c/output <- inception_4c/pool_proj
I0403 15:15:55.715944 14291 net.cpp:399] inception_4c/output -> inception_4c/output
I0403 15:15:55.715991 14291 net.cpp:141] Setting up inception_4c/output
I0403 15:15:55.716014 14291 net.cpp:148] Top shape: 24 512 14 14 (2408448)
I0403 15:15:55.716028 14291 net.cpp:156] Memory required for data: 1072647456
I0403 15:15:55.716042 14291 layer_factory.hpp:77] Creating layer inception_4c/output_inception_4c/output_0_split
I0403 15:15:55.716059 14291 net.cpp:91] Creating Layer inception_4c/output_inception_4c/output_0_split
I0403 15:15:55.716074 14291 net.cpp:425] inception_4c/output_inception_4c/output_0_split <- inception_4c/output
I0403 15:15:55.716094 14291 net.cpp:399] inception_4c/output_inception_4c/output_0_split -> inception_4c/output_inception_4c/output_0_split_0
I0403 15:15:55.716114 14291 net.cpp:399] inception_4c/output_inception_4c/output_0_split -> inception_4c/output_inception_4c/output_0_split_1
I0403 15:15:55.716135 14291 net.cpp:399] inception_4c/output_inception_4c/output_0_split -> inception_4c/output_inception_4c/output_0_split_2
I0403 15:15:55.716156 14291 net.cpp:399] inception_4c/output_inception_4c/output_0_split -> inception_4c/output_inception_4c/output_0_split_3
I0403 15:15:55.716239 14291 net.cpp:141] Setting up inception_4c/output_inception_4c/output_0_split
I0403 15:15:55.716267 14291 net.cpp:148] Top shape: 24 512 14 14 (2408448)
I0403 15:15:55.716285 14291 net.cpp:148] Top shape: 24 512 14 14 (2408448)
I0403 15:15:55.716300 14291 net.cpp:148] Top shape: 24 512 14 14 (2408448)
I0403 15:15:55.716315 14291 net.cpp:148] Top shape: 24 512 14 14 (2408448)
I0403 15:15:55.716328 14291 net.cpp:156] Memory required for data: 1111182624
I0403 15:15:55.716342 14291 layer_factory.hpp:77] Creating layer inception_4d/1x1
I0403 15:15:55.716364 14291 net.cpp:91] Creating Layer inception_4d/1x1
I0403 15:15:55.716382 14291 net.cpp:425] inception_4d/1x1 <- inception_4c/output_inception_4c/output_0_split_0
I0403 15:15:55.716399 14291 net.cpp:399] inception_4d/1x1 -> inception_4d/1x1
I0403 15:15:55.717790 14291 net.cpp:141] Setting up inception_4d/1x1
I0403 15:15:55.717820 14291 net.cpp:148] Top shape: 24 112 14 14 (526848)
I0403 15:15:55.717838 14291 net.cpp:156] Memory required for data: 1113290016
I0403 15:15:55.717854 14291 layer_factory.hpp:77] Creating layer inception_4d/relu_1x1
I0403 15:15:55.717872 14291 net.cpp:91] Creating Layer inception_4d/relu_1x1
I0403 15:15:55.717888 14291 net.cpp:425] inception_4d/relu_1x1 <- inception_4d/1x1
I0403 15:15:55.717905 14291 net.cpp:386] inception_4d/relu_1x1 -> inception_4d/1x1 (in-place)
I0403 15:15:55.718092 14291 net.cpp:141] Setting up inception_4d/relu_1x1
I0403 15:15:55.718117 14291 net.cpp:148] Top shape: 24 112 14 14 (526848)
I0403 15:15:55.718132 14291 net.cpp:156] Memory required for data: 1115397408
I0403 15:15:55.718147 14291 layer_factory.hpp:77] Creating layer inception_4d/3x3_reduce
I0403 15:15:55.718184 14291 net.cpp:91] Creating Layer inception_4d/3x3_reduce
I0403 15:15:55.718202 14291 net.cpp:425] inception_4d/3x3_reduce <- inception_4c/output_inception_4c/output_0_split_1
I0403 15:15:55.718224 14291 net.cpp:399] inception_4d/3x3_reduce -> inception_4d/3x3_reduce
I0403 15:15:55.719733 14291 net.cpp:141] Setting up inception_4d/3x3_reduce
I0403 15:15:55.719760 14291 net.cpp:148] Top shape: 24 144 14 14 (677376)
I0403 15:15:55.719776 14291 net.cpp:156] Memory required for data: 1118106912
I0403 15:15:55.719794 14291 layer_factory.hpp:77] Creating layer inception_4d/relu_3x3_reduce
I0403 15:15:55.719815 14291 net.cpp:91] Creating Layer inception_4d/relu_3x3_reduce
I0403 15:15:55.719831 14291 net.cpp:425] inception_4d/relu_3x3_reduce <- inception_4d/3x3_reduce
I0403 15:15:55.719848 14291 net.cpp:386] inception_4d/relu_3x3_reduce -> inception_4d/3x3_reduce (in-place)
I0403 15:15:55.720139 14291 net.cpp:141] Setting up inception_4d/relu_3x3_reduce
I0403 15:15:55.720165 14291 net.cpp:148] Top shape: 24 144 14 14 (677376)
I0403 15:15:55.720180 14291 net.cpp:156] Memory required for data: 1120816416
I0403 15:15:55.720196 14291 layer_factory.hpp:77] Creating layer inception_4d/3x3
I0403 15:15:55.720217 14291 net.cpp:91] Creating Layer inception_4d/3x3
I0403 15:15:55.720234 14291 net.cpp:425] inception_4d/3x3 <- inception_4d/3x3_reduce
I0403 15:15:55.720255 14291 net.cpp:399] inception_4d/3x3 -> inception_4d/3x3
I0403 15:15:55.724493 14291 net.cpp:141] Setting up inception_4d/3x3
I0403 15:15:55.724525 14291 net.cpp:148] Top shape: 24 288 14 14 (1354752)
I0403 15:15:55.724552 14291 net.cpp:156] Memory required for data: 1126235424
I0403 15:15:55.724573 14291 layer_factory.hpp:77] Creating layer inception_4d/relu_3x3
I0403 15:15:55.724591 14291 net.cpp:91] Creating Layer inception_4d/relu_3x3
I0403 15:15:55.724607 14291 net.cpp:425] inception_4d/relu_3x3 <- inception_4d/3x3
I0403 15:15:55.724627 14291 net.cpp:386] inception_4d/relu_3x3 -> inception_4d/3x3 (in-place)
I0403 15:15:55.724828 14291 net.cpp:141] Setting up inception_4d/relu_3x3
I0403 15:15:55.724854 14291 net.cpp:148] Top shape: 24 288 14 14 (1354752)
I0403 15:15:55.724869 14291 net.cpp:156] Memory required for data: 1131654432
I0403 15:15:55.724884 14291 layer_factory.hpp:77] Creating layer inception_4d/5x5_reduce
I0403 15:15:55.724907 14291 net.cpp:91] Creating Layer inception_4d/5x5_reduce
I0403 15:15:55.724925 14291 net.cpp:425] inception_4d/5x5_reduce <- inception_4c/output_inception_4c/output_0_split_2
I0403 15:15:55.724947 14291 net.cpp:399] inception_4d/5x5_reduce -> inception_4d/5x5_reduce
I0403 15:15:55.726111 14291 net.cpp:141] Setting up inception_4d/5x5_reduce
I0403 15:15:55.726141 14291 net.cpp:148] Top shape: 24 32 14 14 (150528)
I0403 15:15:55.726157 14291 net.cpp:156] Memory required for data: 1132256544
I0403 15:15:55.726176 14291 layer_factory.hpp:77] Creating layer inception_4d/relu_5x5_reduce
I0403 15:15:55.726194 14291 net.cpp:91] Creating Layer inception_4d/relu_5x5_reduce
I0403 15:15:55.726212 14291 net.cpp:425] inception_4d/relu_5x5_reduce <- inception_4d/5x5_reduce
I0403 15:15:55.726228 14291 net.cpp:386] inception_4d/relu_5x5_reduce -> inception_4d/5x5_reduce (in-place)
I0403 15:15:55.726415 14291 net.cpp:141] Setting up inception_4d/relu_5x5_reduce
I0403 15:15:55.726440 14291 net.cpp:148] Top shape: 24 32 14 14 (150528)
I0403 15:15:55.726454 14291 net.cpp:156] Memory required for data: 1132858656
I0403 15:15:55.726469 14291 layer_factory.hpp:77] Creating layer inception_4d/5x5
I0403 15:15:55.726491 14291 net.cpp:91] Creating Layer inception_4d/5x5
I0403 15:15:55.726508 14291 net.cpp:425] inception_4d/5x5 <- inception_4d/5x5_reduce
I0403 15:15:55.726528 14291 net.cpp:399] inception_4d/5x5 -> inception_4d/5x5
I0403 15:15:55.728102 14291 net.cpp:141] Setting up inception_4d/5x5
I0403 15:15:55.728130 14291 net.cpp:148] Top shape: 24 64 14 14 (301056)
I0403 15:15:55.728147 14291 net.cpp:156] Memory required for data: 1134062880
I0403 15:15:55.728166 14291 layer_factory.hpp:77] Creating layer inception_4d/relu_5x5
I0403 15:15:55.728201 14291 net.cpp:91] Creating Layer inception_4d/relu_5x5
I0403 15:15:55.728220 14291 net.cpp:425] inception_4d/relu_5x5 <- inception_4d/5x5
I0403 15:15:55.728238 14291 net.cpp:386] inception_4d/relu_5x5 -> inception_4d/5x5 (in-place)
I0403 15:15:55.728552 14291 net.cpp:141] Setting up inception_4d/relu_5x5
I0403 15:15:55.728579 14291 net.cpp:148] Top shape: 24 64 14 14 (301056)
I0403 15:15:55.728595 14291 net.cpp:156] Memory required for data: 1135267104
I0403 15:15:55.728610 14291 layer_factory.hpp:77] Creating layer inception_4d/pool
I0403 15:15:55.728631 14291 net.cpp:91] Creating Layer inception_4d/pool
I0403 15:15:55.728647 14291 net.cpp:425] inception_4d/pool <- inception_4c/output_inception_4c/output_0_split_3
I0403 15:15:55.728667 14291 net.cpp:399] inception_4d/pool -> inception_4d/pool
I0403 15:15:55.728735 14291 net.cpp:141] Setting up inception_4d/pool
I0403 15:15:55.728760 14291 net.cpp:148] Top shape: 24 512 14 14 (2408448)
I0403 15:15:55.728773 14291 net.cpp:156] Memory required for data: 1144900896
I0403 15:15:55.728788 14291 layer_factory.hpp:77] Creating layer inception_4d/pool_proj
I0403 15:15:55.728811 14291 net.cpp:91] Creating Layer inception_4d/pool_proj
I0403 15:15:55.728828 14291 net.cpp:425] inception_4d/pool_proj <- inception_4d/pool
I0403 15:15:55.728849 14291 net.cpp:399] inception_4d/pool_proj -> inception_4d/pool_proj
I0403 15:15:55.730654 14291 net.cpp:141] Setting up inception_4d/pool_proj
I0403 15:15:55.730686 14291 net.cpp:148] Top shape: 24 64 14 14 (301056)
I0403 15:15:55.730703 14291 net.cpp:156] Memory required for data: 1146105120
I0403 15:15:55.730721 14291 layer_factory.hpp:77] Creating layer inception_4d/relu_pool_proj
I0403 15:15:55.730739 14291 net.cpp:91] Creating Layer inception_4d/relu_pool_proj
I0403 15:15:55.730756 14291 net.cpp:425] inception_4d/relu_pool_proj <- inception_4d/pool_proj
I0403 15:15:55.730777 14291 net.cpp:386] inception_4d/relu_pool_proj -> inception_4d/pool_proj (in-place)
I0403 15:15:55.730968 14291 net.cpp:141] Setting up inception_4d/relu_pool_proj
I0403 15:15:55.730994 14291 net.cpp:148] Top shape: 24 64 14 14 (301056)
I0403 15:15:55.731009 14291 net.cpp:156] Memory required for data: 1147309344
I0403 15:15:55.731024 14291 layer_factory.hpp:77] Creating layer inception_4d/output
I0403 15:15:55.731041 14291 net.cpp:91] Creating Layer inception_4d/output
I0403 15:15:55.731057 14291 net.cpp:425] inception_4d/output <- inception_4d/1x1
I0403 15:15:55.731075 14291 net.cpp:425] inception_4d/output <- inception_4d/3x3
I0403 15:15:55.731091 14291 net.cpp:425] inception_4d/output <- inception_4d/5x5
I0403 15:15:55.731107 14291 net.cpp:425] inception_4d/output <- inception_4d/pool_proj
I0403 15:15:55.731127 14291 net.cpp:399] inception_4d/output -> inception_4d/output
I0403 15:15:55.731176 14291 net.cpp:141] Setting up inception_4d/output
I0403 15:15:55.731202 14291 net.cpp:148] Top shape: 24 528 14 14 (2483712)
I0403 15:15:55.731218 14291 net.cpp:156] Memory required for data: 1157244192
I0403 15:15:55.731233 14291 layer_factory.hpp:77] Creating layer inception_4d/output_inception_4d/output_0_split
I0403 15:15:55.731251 14291 net.cpp:91] Creating Layer inception_4d/output_inception_4d/output_0_split
I0403 15:15:55.731269 14291 net.cpp:425] inception_4d/output_inception_4d/output_0_split <- inception_4d/output
I0403 15:15:55.731289 14291 net.cpp:399] inception_4d/output_inception_4d/output_0_split -> inception_4d/output_inception_4d/output_0_split_0
I0403 15:15:55.731312 14291 net.cpp:399] inception_4d/output_inception_4d/output_0_split -> inception_4d/output_inception_4d/output_0_split_1
I0403 15:15:55.731333 14291 net.cpp:399] inception_4d/output_inception_4d/output_0_split -> inception_4d/output_inception_4d/output_0_split_2
I0403 15:15:55.731353 14291 net.cpp:399] inception_4d/output_inception_4d/output_0_split -> inception_4d/output_inception_4d/output_0_split_3
I0403 15:15:55.731374 14291 net.cpp:399] inception_4d/output_inception_4d/output_0_split -> inception_4d/output_inception_4d/output_0_split_4
I0403 15:15:55.731479 14291 net.cpp:141] Setting up inception_4d/output_inception_4d/output_0_split
I0403 15:15:55.731518 14291 net.cpp:148] Top shape: 24 528 14 14 (2483712)
I0403 15:15:55.731539 14291 net.cpp:148] Top shape: 24 528 14 14 (2483712)
I0403 15:15:55.731557 14291 net.cpp:148] Top shape: 24 528 14 14 (2483712)
I0403 15:15:55.731573 14291 net.cpp:148] Top shape: 24 528 14 14 (2483712)
I0403 15:15:55.731590 14291 net.cpp:148] Top shape: 24 528 14 14 (2483712)
I0403 15:15:55.731603 14291 net.cpp:156] Memory required for data: 1206918432
I0403 15:15:55.731617 14291 layer_factory.hpp:77] Creating layer loss2/ave_pool
I0403 15:15:55.731636 14291 net.cpp:91] Creating Layer loss2/ave_pool
I0403 15:15:55.731652 14291 net.cpp:425] loss2/ave_pool <- inception_4d/output_inception_4d/output_0_split_0
I0403 15:15:55.731669 14291 net.cpp:399] loss2/ave_pool -> loss2/ave_pool
I0403 15:15:55.731998 14291 net.cpp:141] Setting up loss2/ave_pool
I0403 15:15:55.732028 14291 net.cpp:148] Top shape: 24 528 4 4 (202752)
I0403 15:15:55.732045 14291 net.cpp:156] Memory required for data: 1207729440
I0403 15:15:55.732060 14291 layer_factory.hpp:77] Creating layer loss2/conv
I0403 15:15:55.732084 14291 net.cpp:91] Creating Layer loss2/conv
I0403 15:15:55.732101 14291 net.cpp:425] loss2/conv <- loss2/ave_pool
I0403 15:15:55.732121 14291 net.cpp:399] loss2/conv -> loss2/conv
I0403 15:15:55.734060 14291 net.cpp:141] Setting up loss2/conv
I0403 15:15:55.734089 14291 net.cpp:148] Top shape: 24 128 4 4 (49152)
I0403 15:15:55.734104 14291 net.cpp:156] Memory required for data: 1207926048
I0403 15:15:55.734123 14291 layer_factory.hpp:77] Creating layer loss2/relu_conv
I0403 15:15:55.734146 14291 net.cpp:91] Creating Layer loss2/relu_conv
I0403 15:15:55.734164 14291 net.cpp:425] loss2/relu_conv <- loss2/conv
I0403 15:15:55.734181 14291 net.cpp:386] loss2/relu_conv -> loss2/conv (in-place)
I0403 15:15:55.734473 14291 net.cpp:141] Setting up loss2/relu_conv
I0403 15:15:55.734500 14291 net.cpp:148] Top shape: 24 128 4 4 (49152)
I0403 15:15:55.734515 14291 net.cpp:156] Memory required for data: 1208122656
I0403 15:15:55.734530 14291 layer_factory.hpp:77] Creating layer loss2/fc
I0403 15:15:55.734565 14291 net.cpp:91] Creating Layer loss2/fc
I0403 15:15:55.734586 14291 net.cpp:425] loss2/fc <- loss2/conv
I0403 15:15:55.734606 14291 net.cpp:399] loss2/fc -> loss2/fc
I0403 15:15:55.752738 14291 net.cpp:141] Setting up loss2/fc
I0403 15:15:55.752770 14291 net.cpp:148] Top shape: 24 1024 (24576)
I0403 15:15:55.752786 14291 net.cpp:156] Memory required for data: 1208220960
I0403 15:15:55.752805 14291 layer_factory.hpp:77] Creating layer loss2/relu_fc
I0403 15:15:55.752825 14291 net.cpp:91] Creating Layer loss2/relu_fc
I0403 15:15:55.752841 14291 net.cpp:425] loss2/relu_fc <- loss2/fc
I0403 15:15:55.752862 14291 net.cpp:386] loss2/relu_fc -> loss2/fc (in-place)
I0403 15:15:55.753196 14291 net.cpp:141] Setting up loss2/relu_fc
I0403 15:15:55.753226 14291 net.cpp:148] Top shape: 24 1024 (24576)
I0403 15:15:55.753242 14291 net.cpp:156] Memory required for data: 1208319264
I0403 15:15:55.753257 14291 layer_factory.hpp:77] Creating layer loss2/drop_fc
I0403 15:15:55.753274 14291 net.cpp:91] Creating Layer loss2/drop_fc
I0403 15:15:55.753290 14291 net.cpp:425] loss2/drop_fc <- loss2/fc
I0403 15:15:55.753310 14291 net.cpp:386] loss2/drop_fc -> loss2/fc (in-place)
I0403 15:15:55.753362 14291 net.cpp:141] Setting up loss2/drop_fc
I0403 15:15:55.753384 14291 net.cpp:148] Top shape: 24 1024 (24576)
I0403 15:15:55.753403 14291 net.cpp:156] Memory required for data: 1208417568
I0403 15:15:55.753417 14291 layer_factory.hpp:77] Creating layer loss2/classifier_plantvillage
I0403 15:15:55.753437 14291 net.cpp:91] Creating Layer loss2/classifier_plantvillage
I0403 15:15:55.753453 14291 net.cpp:425] loss2/classifier_plantvillage <- loss2/fc
I0403 15:15:55.753475 14291 net.cpp:399] loss2/classifier_plantvillage -> loss2/classifier_plantvillage
I0403 15:15:55.753904 14291 net.cpp:141] Setting up loss2/classifier_plantvillage
I0403 15:15:55.753929 14291 net.cpp:148] Top shape: 24 38 (912)
I0403 15:15:55.753944 14291 net.cpp:156] Memory required for data: 1208421216
I0403 15:15:55.753983 14291 layer_factory.hpp:77] Creating layer loss2/classifier_plantvillage_loss2/classifier_plantvillage_0_split
I0403 15:15:55.754005 14291 net.cpp:91] Creating Layer loss2/classifier_plantvillage_loss2/classifier_plantvillage_0_split
I0403 15:15:55.754024 14291 net.cpp:425] loss2/classifier_plantvillage_loss2/classifier_plantvillage_0_split <- loss2/classifier_plantvillage
I0403 15:15:55.754041 14291 net.cpp:399] loss2/classifier_plantvillage_loss2/classifier_plantvillage_0_split -> loss2/classifier_plantvillage_loss2/classifier_plantvillage_0_split_0
I0403 15:15:55.754062 14291 net.cpp:399] loss2/classifier_plantvillage_loss2/classifier_plantvillage_0_split -> loss2/classifier_plantvillage_loss2/classifier_plantvillage_0_split_1
I0403 15:15:55.754084 14291 net.cpp:399] loss2/classifier_plantvillage_loss2/classifier_plantvillage_0_split -> loss2/classifier_plantvillage_loss2/classifier_plantvillage_0_split_2
I0403 15:15:55.754165 14291 net.cpp:141] Setting up loss2/classifier_plantvillage_loss2/classifier_plantvillage_0_split
I0403 15:15:55.754189 14291 net.cpp:148] Top shape: 24 38 (912)
I0403 15:15:55.754205 14291 net.cpp:148] Top shape: 24 38 (912)
I0403 15:15:55.754220 14291 net.cpp:148] Top shape: 24 38 (912)
I0403 15:15:55.754235 14291 net.cpp:156] Memory required for data: 1208432160
I0403 15:15:55.754248 14291 layer_factory.hpp:77] Creating layer inception_4e/1x1
I0403 15:15:55.754274 14291 net.cpp:91] Creating Layer inception_4e/1x1
I0403 15:15:55.754292 14291 net.cpp:425] inception_4e/1x1 <- inception_4d/output_inception_4d/output_0_split_1
I0403 15:15:55.754312 14291 net.cpp:399] inception_4e/1x1 -> inception_4e/1x1
I0403 15:15:55.756218 14291 net.cpp:141] Setting up inception_4e/1x1
I0403 15:15:55.756247 14291 net.cpp:148] Top shape: 24 256 14 14 (1204224)
I0403 15:15:55.756266 14291 net.cpp:156] Memory required for data: 1213249056
I0403 15:15:55.756284 14291 layer_factory.hpp:77] Creating layer inception_4e/relu_1x1
I0403 15:15:55.756306 14291 net.cpp:91] Creating Layer inception_4e/relu_1x1
I0403 15:15:55.756324 14291 net.cpp:425] inception_4e/relu_1x1 <- inception_4e/1x1
I0403 15:15:55.756340 14291 net.cpp:386] inception_4e/relu_1x1 -> inception_4e/1x1 (in-place)
I0403 15:15:55.756650 14291 net.cpp:141] Setting up inception_4e/relu_1x1
I0403 15:15:55.756677 14291 net.cpp:148] Top shape: 24 256 14 14 (1204224)
I0403 15:15:55.756693 14291 net.cpp:156] Memory required for data: 1218065952
I0403 15:15:55.756708 14291 layer_factory.hpp:77] Creating layer inception_4e/3x3_reduce
I0403 15:15:55.756731 14291 net.cpp:91] Creating Layer inception_4e/3x3_reduce
I0403 15:15:55.756749 14291 net.cpp:425] inception_4e/3x3_reduce <- inception_4d/output_inception_4d/output_0_split_2
I0403 15:15:55.756772 14291 net.cpp:399] inception_4e/3x3_reduce -> inception_4e/3x3_reduce
I0403 15:15:55.758962 14291 net.cpp:141] Setting up inception_4e/3x3_reduce
I0403 15:15:55.758992 14291 net.cpp:148] Top shape: 24 160 14 14 (752640)
I0403 15:15:55.759008 14291 net.cpp:156] Memory required for data: 1221076512
I0403 15:15:55.759027 14291 layer_factory.hpp:77] Creating layer inception_4e/relu_3x3_reduce
I0403 15:15:55.759047 14291 net.cpp:91] Creating Layer inception_4e/relu_3x3_reduce
I0403 15:15:55.759063 14291 net.cpp:425] inception_4e/relu_3x3_reduce <- inception_4e/3x3_reduce
I0403 15:15:55.759083 14291 net.cpp:386] inception_4e/relu_3x3_reduce -> inception_4e/3x3_reduce (in-place)
I0403 15:15:55.759276 14291 net.cpp:141] Setting up inception_4e/relu_3x3_reduce
I0403 15:15:55.759302 14291 net.cpp:148] Top shape: 24 160 14 14 (752640)
I0403 15:15:55.759317 14291 net.cpp:156] Memory required for data: 1224087072
I0403 15:15:55.759333 14291 layer_factory.hpp:77] Creating layer inception_4e/3x3
I0403 15:15:55.759356 14291 net.cpp:91] Creating Layer inception_4e/3x3
I0403 15:15:55.759373 14291 net.cpp:425] inception_4e/3x3 <- inception_4e/3x3_reduce
I0403 15:15:55.759395 14291 net.cpp:399] inception_4e/3x3 -> inception_4e/3x3
I0403 15:15:55.764531 14291 net.cpp:141] Setting up inception_4e/3x3
I0403 15:15:55.764585 14291 net.cpp:148] Top shape: 24 320 14 14 (1505280)
I0403 15:15:55.764601 14291 net.cpp:156] Memory required for data: 1230108192
I0403 15:15:55.764621 14291 layer_factory.hpp:77] Creating layer inception_4e/relu_3x3
I0403 15:15:55.764642 14291 net.cpp:91] Creating Layer inception_4e/relu_3x3
I0403 15:15:55.764659 14291 net.cpp:425] inception_4e/relu_3x3 <- inception_4e/3x3
I0403 15:15:55.764677 14291 net.cpp:386] inception_4e/relu_3x3 -> inception_4e/3x3 (in-place)
I0403 15:15:55.764986 14291 net.cpp:141] Setting up inception_4e/relu_3x3
I0403 15:15:55.765017 14291 net.cpp:148] Top shape: 24 320 14 14 (1505280)
I0403 15:15:55.765033 14291 net.cpp:156] Memory required for data: 1236129312
I0403 15:15:55.765048 14291 layer_factory.hpp:77] Creating layer inception_4e/5x5_reduce
I0403 15:15:55.765071 14291 net.cpp:91] Creating Layer inception_4e/5x5_reduce
I0403 15:15:55.765089 14291 net.cpp:425] inception_4e/5x5_reduce <- inception_4d/output_inception_4d/output_0_split_3
I0403 15:15:55.765110 14291 net.cpp:399] inception_4e/5x5_reduce -> inception_4e/5x5_reduce
I0403 15:15:55.766219 14291 net.cpp:141] Setting up inception_4e/5x5_reduce
I0403 15:15:55.766248 14291 net.cpp:148] Top shape: 24 32 14 14 (150528)
I0403 15:15:55.766268 14291 net.cpp:156] Memory required for data: 1236731424
I0403 15:15:55.766286 14291 layer_factory.hpp:77] Creating layer inception_4e/relu_5x5_reduce
I0403 15:15:55.766307 14291 net.cpp:91] Creating Layer inception_4e/relu_5x5_reduce
I0403 15:15:55.766324 14291 net.cpp:425] inception_4e/relu_5x5_reduce <- inception_4e/5x5_reduce
I0403 15:15:55.766342 14291 net.cpp:386] inception_4e/relu_5x5_reduce -> inception_4e/5x5_reduce (in-place)
I0403 15:15:55.766655 14291 net.cpp:141] Setting up inception_4e/relu_5x5_reduce
I0403 15:15:55.766681 14291 net.cpp:148] Top shape: 24 32 14 14 (150528)
I0403 15:15:55.766697 14291 net.cpp:156] Memory required for data: 1237333536
I0403 15:15:55.766712 14291 layer_factory.hpp:77] Creating layer inception_4e/5x5
I0403 15:15:55.766752 14291 net.cpp:91] Creating Layer inception_4e/5x5
I0403 15:15:55.766772 14291 net.cpp:425] inception_4e/5x5 <- inception_4e/5x5_reduce
I0403 15:15:55.766791 14291 net.cpp:399] inception_4e/5x5 -> inception_4e/5x5
I0403 15:15:55.768707 14291 net.cpp:141] Setting up inception_4e/5x5
I0403 15:15:55.768738 14291 net.cpp:148] Top shape: 24 128 14 14 (602112)
I0403 15:15:55.768754 14291 net.cpp:156] Memory required for data: 1239741984
I0403 15:15:55.768774 14291 layer_factory.hpp:77] Creating layer inception_4e/relu_5x5
I0403 15:15:55.768792 14291 net.cpp:91] Creating Layer inception_4e/relu_5x5
I0403 15:15:55.768808 14291 net.cpp:425] inception_4e/relu_5x5 <- inception_4e/5x5
I0403 15:15:55.768828 14291 net.cpp:386] inception_4e/relu_5x5 -> inception_4e/5x5 (in-place)
I0403 15:15:55.769032 14291 net.cpp:141] Setting up inception_4e/relu_5x5
I0403 15:15:55.769058 14291 net.cpp:148] Top shape: 24 128 14 14 (602112)
I0403 15:15:55.769073 14291 net.cpp:156] Memory required for data: 1242150432
I0403 15:15:55.769088 14291 layer_factory.hpp:77] Creating layer inception_4e/pool
I0403 15:15:55.769106 14291 net.cpp:91] Creating Layer inception_4e/pool
I0403 15:15:55.769122 14291 net.cpp:425] inception_4e/pool <- inception_4d/output_inception_4d/output_0_split_4
I0403 15:15:55.769143 14291 net.cpp:399] inception_4e/pool -> inception_4e/pool
I0403 15:15:55.769230 14291 net.cpp:141] Setting up inception_4e/pool
I0403 15:15:55.769255 14291 net.cpp:148] Top shape: 24 528 14 14 (2483712)
I0403 15:15:55.769271 14291 net.cpp:156] Memory required for data: 1252085280
I0403 15:15:55.769286 14291 layer_factory.hpp:77] Creating layer inception_4e/pool_proj
I0403 15:15:55.769309 14291 net.cpp:91] Creating Layer inception_4e/pool_proj
I0403 15:15:55.769328 14291 net.cpp:425] inception_4e/pool_proj <- inception_4e/pool
I0403 15:15:55.769351 14291 net.cpp:399] inception_4e/pool_proj -> inception_4e/pool_proj
I0403 15:15:55.770920 14291 net.cpp:141] Setting up inception_4e/pool_proj
I0403 15:15:55.770952 14291 net.cpp:148] Top shape: 24 128 14 14 (602112)
I0403 15:15:55.770983 14291 net.cpp:156] Memory required for data: 1254493728
I0403 15:15:55.771003 14291 layer_factory.hpp:77] Creating layer inception_4e/relu_pool_proj
I0403 15:15:55.771023 14291 net.cpp:91] Creating Layer inception_4e/relu_pool_proj
I0403 15:15:55.771040 14291 net.cpp:425] inception_4e/relu_pool_proj <- inception_4e/pool_proj
I0403 15:15:55.771060 14291 net.cpp:386] inception_4e/relu_pool_proj -> inception_4e/pool_proj (in-place)
I0403 15:15:55.771363 14291 net.cpp:141] Setting up inception_4e/relu_pool_proj
I0403 15:15:55.771391 14291 net.cpp:148] Top shape: 24 128 14 14 (602112)
I0403 15:15:55.771407 14291 net.cpp:156] Memory required for data: 1256902176
I0403 15:15:55.771422 14291 layer_factory.hpp:77] Creating layer inception_4e/output
I0403 15:15:55.771440 14291 net.cpp:91] Creating Layer inception_4e/output
I0403 15:15:55.771456 14291 net.cpp:425] inception_4e/output <- inception_4e/1x1
I0403 15:15:55.771472 14291 net.cpp:425] inception_4e/output <- inception_4e/3x3
I0403 15:15:55.771488 14291 net.cpp:425] inception_4e/output <- inception_4e/5x5
I0403 15:15:55.771505 14291 net.cpp:425] inception_4e/output <- inception_4e/pool_proj
I0403 15:15:55.771524 14291 net.cpp:399] inception_4e/output -> inception_4e/output
I0403 15:15:55.771580 14291 net.cpp:141] Setting up inception_4e/output
I0403 15:15:55.771603 14291 net.cpp:148] Top shape: 24 832 14 14 (3913728)
I0403 15:15:55.771618 14291 net.cpp:156] Memory required for data: 1272557088
I0403 15:15:55.771633 14291 layer_factory.hpp:77] Creating layer pool4/3x3_s2
I0403 15:15:55.771653 14291 net.cpp:91] Creating Layer pool4/3x3_s2
I0403 15:15:55.771670 14291 net.cpp:425] pool4/3x3_s2 <- inception_4e/output
I0403 15:15:55.771688 14291 net.cpp:399] pool4/3x3_s2 -> pool4/3x3_s2
I0403 15:15:55.771759 14291 net.cpp:141] Setting up pool4/3x3_s2
I0403 15:15:55.771782 14291 net.cpp:148] Top shape: 24 832 7 7 (978432)
I0403 15:15:55.771797 14291 net.cpp:156] Memory required for data: 1276470816
I0403 15:15:55.771811 14291 layer_factory.hpp:77] Creating layer pool4/3x3_s2_pool4/3x3_s2_0_split
I0403 15:15:55.771828 14291 net.cpp:91] Creating Layer pool4/3x3_s2_pool4/3x3_s2_0_split
I0403 15:15:55.771844 14291 net.cpp:425] pool4/3x3_s2_pool4/3x3_s2_0_split <- pool4/3x3_s2
I0403 15:15:55.771863 14291 net.cpp:399] pool4/3x3_s2_pool4/3x3_s2_0_split -> pool4/3x3_s2_pool4/3x3_s2_0_split_0
I0403 15:15:55.771884 14291 net.cpp:399] pool4/3x3_s2_pool4/3x3_s2_0_split -> pool4/3x3_s2_pool4/3x3_s2_0_split_1
I0403 15:15:55.771905 14291 net.cpp:399] pool4/3x3_s2_pool4/3x3_s2_0_split -> pool4/3x3_s2_pool4/3x3_s2_0_split_2
I0403 15:15:55.771926 14291 net.cpp:399] pool4/3x3_s2_pool4/3x3_s2_0_split -> pool4/3x3_s2_pool4/3x3_s2_0_split_3
I0403 15:15:55.772018 14291 net.cpp:141] Setting up pool4/3x3_s2_pool4/3x3_s2_0_split
I0403 15:15:55.772042 14291 net.cpp:148] Top shape: 24 832 7 7 (978432)
I0403 15:15:55.772058 14291 net.cpp:148] Top shape: 24 832 7 7 (978432)
I0403 15:15:55.772074 14291 net.cpp:148] Top shape: 24 832 7 7 (978432)
I0403 15:15:55.772089 14291 net.cpp:148] Top shape: 24 832 7 7 (978432)
I0403 15:15:55.772104 14291 net.cpp:156] Memory required for data: 1292125728
I0403 15:15:55.772117 14291 layer_factory.hpp:77] Creating layer inception_5a/1x1
I0403 15:15:55.772140 14291 net.cpp:91] Creating Layer inception_5a/1x1
I0403 15:15:55.772158 14291 net.cpp:425] inception_5a/1x1 <- pool4/3x3_s2_pool4/3x3_s2_0_split_0
I0403 15:15:55.772179 14291 net.cpp:399] inception_5a/1x1 -> inception_5a/1x1
I0403 15:15:55.775122 14291 net.cpp:141] Setting up inception_5a/1x1
I0403 15:15:55.775152 14291 net.cpp:148] Top shape: 24 256 7 7 (301056)
I0403 15:15:55.775169 14291 net.cpp:156] Memory required for data: 1293329952
I0403 15:15:55.775187 14291 layer_factory.hpp:77] Creating layer inception_5a/relu_1x1
I0403 15:15:55.775207 14291 net.cpp:91] Creating Layer inception_5a/relu_1x1
I0403 15:15:55.775223 14291 net.cpp:425] inception_5a/relu_1x1 <- inception_5a/1x1
I0403 15:15:55.775243 14291 net.cpp:386] inception_5a/relu_1x1 -> inception_5a/1x1 (in-place)
I0403 15:15:55.775573 14291 net.cpp:141] Setting up inception_5a/relu_1x1
I0403 15:15:55.775599 14291 net.cpp:148] Top shape: 24 256 7 7 (301056)
I0403 15:15:55.775614 14291 net.cpp:156] Memory required for data: 1294534176
I0403 15:15:55.775630 14291 layer_factory.hpp:77] Creating layer inception_5a/3x3_reduce
I0403 15:15:55.775653 14291 net.cpp:91] Creating Layer inception_5a/3x3_reduce
I0403 15:15:55.775671 14291 net.cpp:425] inception_5a/3x3_reduce <- pool4/3x3_s2_pool4/3x3_s2_0_split_1
I0403 15:15:55.775694 14291 net.cpp:399] inception_5a/3x3_reduce -> inception_5a/3x3_reduce
I0403 15:15:55.778213 14291 net.cpp:141] Setting up inception_5a/3x3_reduce
I0403 15:15:55.778242 14291 net.cpp:148] Top shape: 24 160 7 7 (188160)
I0403 15:15:55.778260 14291 net.cpp:156] Memory required for data: 1295286816
I0403 15:15:55.778280 14291 layer_factory.hpp:77] Creating layer inception_5a/relu_3x3_reduce
I0403 15:15:55.778301 14291 net.cpp:91] Creating Layer inception_5a/relu_3x3_reduce
I0403 15:15:55.778319 14291 net.cpp:425] inception_5a/relu_3x3_reduce <- inception_5a/3x3_reduce
I0403 15:15:55.778337 14291 net.cpp:386] inception_5a/relu_3x3_reduce -> inception_5a/3x3_reduce (in-place)
I0403 15:15:55.778532 14291 net.cpp:141] Setting up inception_5a/relu_3x3_reduce
I0403 15:15:55.778563 14291 net.cpp:148] Top shape: 24 160 7 7 (188160)
I0403 15:15:55.778580 14291 net.cpp:156] Memory required for data: 1296039456
I0403 15:15:55.778595 14291 layer_factory.hpp:77] Creating layer inception_5a/3x3
I0403 15:15:55.778619 14291 net.cpp:91] Creating Layer inception_5a/3x3
I0403 15:15:55.778637 14291 net.cpp:425] inception_5a/3x3 <- inception_5a/3x3_reduce
I0403 15:15:55.778658 14291 net.cpp:399] inception_5a/3x3 -> inception_5a/3x3
I0403 15:15:55.783826 14291 net.cpp:141] Setting up inception_5a/3x3
I0403 15:15:55.783856 14291 net.cpp:148] Top shape: 24 320 7 7 (376320)
I0403 15:15:55.783874 14291 net.cpp:156] Memory required for data: 1297544736
I0403 15:15:55.783891 14291 layer_factory.hpp:77] Creating layer inception_5a/relu_3x3
I0403 15:15:55.783911 14291 net.cpp:91] Creating Layer inception_5a/relu_3x3
I0403 15:15:55.783927 14291 net.cpp:425] inception_5a/relu_3x3 <- inception_5a/3x3
I0403 15:15:55.783948 14291 net.cpp:386] inception_5a/relu_3x3 -> inception_5a/3x3 (in-place)
I0403 15:15:55.784255 14291 net.cpp:141] Setting up inception_5a/relu_3x3
I0403 15:15:55.784283 14291 net.cpp:148] Top shape: 24 320 7 7 (376320)
I0403 15:15:55.784299 14291 net.cpp:156] Memory required for data: 1299050016
I0403 15:15:55.784314 14291 layer_factory.hpp:77] Creating layer inception_5a/5x5_reduce
I0403 15:15:55.784338 14291 net.cpp:91] Creating Layer inception_5a/5x5_reduce
I0403 15:15:55.784356 14291 net.cpp:425] inception_5a/5x5_reduce <- pool4/3x3_s2_pool4/3x3_s2_0_split_2
I0403 15:15:55.784379 14291 net.cpp:399] inception_5a/5x5_reduce -> inception_5a/5x5_reduce
I0403 15:15:55.785615 14291 net.cpp:141] Setting up inception_5a/5x5_reduce
I0403 15:15:55.785645 14291 net.cpp:148] Top shape: 24 32 7 7 (37632)
I0403 15:15:55.785662 14291 net.cpp:156] Memory required for data: 1299200544
I0403 15:15:55.785681 14291 layer_factory.hpp:77] Creating layer inception_5a/relu_5x5_reduce
I0403 15:15:55.785703 14291 net.cpp:91] Creating Layer inception_5a/relu_5x5_reduce
I0403 15:15:55.785722 14291 net.cpp:425] inception_5a/relu_5x5_reduce <- inception_5a/5x5_reduce
I0403 15:15:55.785739 14291 net.cpp:386] inception_5a/relu_5x5_reduce -> inception_5a/5x5_reduce (in-place)
I0403 15:15:55.786059 14291 net.cpp:141] Setting up inception_5a/relu_5x5_reduce
I0403 15:15:55.786087 14291 net.cpp:148] Top shape: 24 32 7 7 (37632)
I0403 15:15:55.786103 14291 net.cpp:156] Memory required for data: 1299351072
I0403 15:15:55.786118 14291 layer_factory.hpp:77] Creating layer inception_5a/5x5
I0403 15:15:55.786142 14291 net.cpp:91] Creating Layer inception_5a/5x5
I0403 15:15:55.786161 14291 net.cpp:425] inception_5a/5x5 <- inception_5a/5x5_reduce
I0403 15:15:55.786183 14291 net.cpp:399] inception_5a/5x5 -> inception_5a/5x5
I0403 15:15:55.788024 14291 net.cpp:141] Setting up inception_5a/5x5
I0403 15:15:55.788069 14291 net.cpp:148] Top shape: 24 128 7 7 (150528)
I0403 15:15:55.788087 14291 net.cpp:156] Memory required for data: 1299953184
I0403 15:15:55.788106 14291 layer_factory.hpp:77] Creating layer inception_5a/relu_5x5
I0403 15:15:55.788125 14291 net.cpp:91] Creating Layer inception_5a/relu_5x5
I0403 15:15:55.788142 14291 net.cpp:425] inception_5a/relu_5x5 <- inception_5a/5x5
I0403 15:15:55.788162 14291 net.cpp:386] inception_5a/relu_5x5 -> inception_5a/5x5 (in-place)
I0403 15:15:55.788367 14291 net.cpp:141] Setting up inception_5a/relu_5x5
I0403 15:15:55.788394 14291 net.cpp:148] Top shape: 24 128 7 7 (150528)
I0403 15:15:55.788409 14291 net.cpp:156] Memory required for data: 1300555296
I0403 15:15:55.788424 14291 layer_factory.hpp:77] Creating layer inception_5a/pool
I0403 15:15:55.788445 14291 net.cpp:91] Creating Layer inception_5a/pool
I0403 15:15:55.788463 14291 net.cpp:425] inception_5a/pool <- pool4/3x3_s2_pool4/3x3_s2_0_split_3
I0403 15:15:55.788482 14291 net.cpp:399] inception_5a/pool -> inception_5a/pool
I0403 15:15:55.788564 14291 net.cpp:141] Setting up inception_5a/pool
I0403 15:15:55.788589 14291 net.cpp:148] Top shape: 24 832 7 7 (978432)
I0403 15:15:55.788604 14291 net.cpp:156] Memory required for data: 1304469024
I0403 15:15:55.788619 14291 layer_factory.hpp:77] Creating layer inception_5a/pool_proj
I0403 15:15:55.788642 14291 net.cpp:91] Creating Layer inception_5a/pool_proj
I0403 15:15:55.788661 14291 net.cpp:425] inception_5a/pool_proj <- inception_5a/pool
I0403 15:15:55.788682 14291 net.cpp:399] inception_5a/pool_proj -> inception_5a/pool_proj
I0403 15:15:55.791074 14291 net.cpp:141] Setting up inception_5a/pool_proj
I0403 15:15:55.791106 14291 net.cpp:148] Top shape: 24 128 7 7 (150528)
I0403 15:15:55.791122 14291 net.cpp:156] Memory required for data: 1305071136
I0403 15:15:55.791141 14291 layer_factory.hpp:77] Creating layer inception_5a/relu_pool_proj
I0403 15:15:55.791160 14291 net.cpp:91] Creating Layer inception_5a/relu_pool_proj
I0403 15:15:55.791177 14291 net.cpp:425] inception_5a/relu_pool_proj <- inception_5a/pool_proj
I0403 15:15:55.791196 14291 net.cpp:386] inception_5a/relu_pool_proj -> inception_5a/pool_proj (in-place)
I0403 15:15:55.791515 14291 net.cpp:141] Setting up inception_5a/relu_pool_proj
I0403 15:15:55.791551 14291 net.cpp:148] Top shape: 24 128 7 7 (150528)
I0403 15:15:55.791569 14291 net.cpp:156] Memory required for data: 1305673248
I0403 15:15:55.791585 14291 layer_factory.hpp:77] Creating layer inception_5a/output
I0403 15:15:55.791604 14291 net.cpp:91] Creating Layer inception_5a/output
I0403 15:15:55.791620 14291 net.cpp:425] inception_5a/output <- inception_5a/1x1
I0403 15:15:55.791637 14291 net.cpp:425] inception_5a/output <- inception_5a/3x3
I0403 15:15:55.791654 14291 net.cpp:425] inception_5a/output <- inception_5a/5x5
I0403 15:15:55.791671 14291 net.cpp:425] inception_5a/output <- inception_5a/pool_proj
I0403 15:15:55.791688 14291 net.cpp:399] inception_5a/output -> inception_5a/output
I0403 15:15:55.791754 14291 net.cpp:141] Setting up inception_5a/output
I0403 15:15:55.791779 14291 net.cpp:148] Top shape: 24 832 7 7 (978432)
I0403 15:15:55.791792 14291 net.cpp:156] Memory required for data: 1309586976
I0403 15:15:55.791807 14291 layer_factory.hpp:77] Creating layer inception_5a/output_inception_5a/output_0_split
I0403 15:15:55.791826 14291 net.cpp:91] Creating Layer inception_5a/output_inception_5a/output_0_split
I0403 15:15:55.791843 14291 net.cpp:425] inception_5a/output_inception_5a/output_0_split <- inception_5a/output
I0403 15:15:55.791862 14291 net.cpp:399] inception_5a/output_inception_5a/output_0_split -> inception_5a/output_inception_5a/output_0_split_0
I0403 15:15:55.791882 14291 net.cpp:399] inception_5a/output_inception_5a/output_0_split -> inception_5a/output_inception_5a/output_0_split_1
I0403 15:15:55.791903 14291 net.cpp:399] inception_5a/output_inception_5a/output_0_split -> inception_5a/output_inception_5a/output_0_split_2
I0403 15:15:55.791925 14291 net.cpp:399] inception_5a/output_inception_5a/output_0_split -> inception_5a/output_inception_5a/output_0_split_3
I0403 15:15:55.792042 14291 net.cpp:141] Setting up inception_5a/output_inception_5a/output_0_split
I0403 15:15:55.792065 14291 net.cpp:148] Top shape: 24 832 7 7 (978432)
I0403 15:15:55.792083 14291 net.cpp:148] Top shape: 24 832 7 7 (978432)
I0403 15:15:55.792098 14291 net.cpp:148] Top shape: 24 832 7 7 (978432)
I0403 15:15:55.792112 14291 net.cpp:148] Top shape: 24 832 7 7 (978432)
I0403 15:15:55.792126 14291 net.cpp:156] Memory required for data: 1325241888
I0403 15:15:55.792141 14291 layer_factory.hpp:77] Creating layer inception_5b/1x1
I0403 15:15:55.792163 14291 net.cpp:91] Creating Layer inception_5b/1x1
I0403 15:15:55.792181 14291 net.cpp:425] inception_5b/1x1 <- inception_5a/output_inception_5a/output_0_split_0
I0403 15:15:55.792202 14291 net.cpp:399] inception_5b/1x1 -> inception_5b/1x1
I0403 15:15:55.796095 14291 net.cpp:141] Setting up inception_5b/1x1
I0403 15:15:55.796125 14291 net.cpp:148] Top shape: 24 384 7 7 (451584)
I0403 15:15:55.796141 14291 net.cpp:156] Memory required for data: 1327048224
I0403 15:15:55.796164 14291 layer_factory.hpp:77] Creating layer inception_5b/relu_1x1
I0403 15:15:55.796182 14291 net.cpp:91] Creating Layer inception_5b/relu_1x1
I0403 15:15:55.796200 14291 net.cpp:425] inception_5b/relu_1x1 <- inception_5b/1x1
I0403 15:15:55.796216 14291 net.cpp:386] inception_5b/relu_1x1 -> inception_5b/1x1 (in-place)
I0403 15:15:55.796557 14291 net.cpp:141] Setting up inception_5b/relu_1x1
I0403 15:15:55.796586 14291 net.cpp:148] Top shape: 24 384 7 7 (451584)
I0403 15:15:55.796602 14291 net.cpp:156] Memory required for data: 1328854560
I0403 15:15:55.796617 14291 layer_factory.hpp:77] Creating layer inception_5b/3x3_reduce
I0403 15:15:55.796644 14291 net.cpp:91] Creating Layer inception_5b/3x3_reduce
I0403 15:15:55.796664 14291 net.cpp:425] inception_5b/3x3_reduce <- inception_5a/output_inception_5a/output_0_split_1
I0403 15:15:55.796684 14291 net.cpp:399] inception_5b/3x3_reduce -> inception_5b/3x3_reduce
I0403 15:15:55.799502 14291 net.cpp:141] Setting up inception_5b/3x3_reduce
I0403 15:15:55.799535 14291 net.cpp:148] Top shape: 24 192 7 7 (225792)
I0403 15:15:55.799557 14291 net.cpp:156] Memory required for data: 1329757728
I0403 15:15:55.799576 14291 layer_factory.hpp:77] Creating layer inception_5b/relu_3x3_reduce
I0403 15:15:55.799595 14291 net.cpp:91] Creating Layer inception_5b/relu_3x3_reduce
I0403 15:15:55.799612 14291 net.cpp:425] inception_5b/relu_3x3_reduce <- inception_5b/3x3_reduce
I0403 15:15:55.799629 14291 net.cpp:386] inception_5b/relu_3x3_reduce -> inception_5b/3x3_reduce (in-place)
I0403 15:15:55.799829 14291 net.cpp:141] Setting up inception_5b/relu_3x3_reduce
I0403 15:15:55.799854 14291 net.cpp:148] Top shape: 24 192 7 7 (225792)
I0403 15:15:55.799870 14291 net.cpp:156] Memory required for data: 1330660896
I0403 15:15:55.799885 14291 layer_factory.hpp:77] Creating layer inception_5b/3x3
I0403 15:15:55.799907 14291 net.cpp:91] Creating Layer inception_5b/3x3
I0403 15:15:55.799926 14291 net.cpp:425] inception_5b/3x3 <- inception_5b/3x3_reduce
I0403 15:15:55.799947 14291 net.cpp:399] inception_5b/3x3 -> inception_5b/3x3
I0403 15:15:55.806835 14291 net.cpp:141] Setting up inception_5b/3x3
I0403 15:15:55.806866 14291 net.cpp:148] Top shape: 24 384 7 7 (451584)
I0403 15:15:55.806882 14291 net.cpp:156] Memory required for data: 1332467232
I0403 15:15:55.806901 14291 layer_factory.hpp:77] Creating layer inception_5b/relu_3x3
I0403 15:15:55.806920 14291 net.cpp:91] Creating Layer inception_5b/relu_3x3
I0403 15:15:55.806936 14291 net.cpp:425] inception_5b/relu_3x3 <- inception_5b/3x3
I0403 15:15:55.806956 14291 net.cpp:386] inception_5b/relu_3x3 -> inception_5b/3x3 (in-place)
I0403 15:15:55.807255 14291 net.cpp:141] Setting up inception_5b/relu_3x3
I0403 15:15:55.807284 14291 net.cpp:148] Top shape: 24 384 7 7 (451584)
I0403 15:15:55.807301 14291 net.cpp:156] Memory required for data: 1334273568
I0403 15:15:55.807314 14291 layer_factory.hpp:77] Creating layer inception_5b/5x5_reduce
I0403 15:15:55.807353 14291 net.cpp:91] Creating Layer inception_5b/5x5_reduce
I0403 15:15:55.807373 14291 net.cpp:425] inception_5b/5x5_reduce <- inception_5a/output_inception_5a/output_0_split_2
I0403 15:15:55.807394 14291 net.cpp:399] inception_5b/5x5_reduce -> inception_5b/5x5_reduce
I0403 15:15:55.808671 14291 net.cpp:141] Setting up inception_5b/5x5_reduce
I0403 15:15:55.808701 14291 net.cpp:148] Top shape: 24 48 7 7 (56448)
I0403 15:15:55.808718 14291 net.cpp:156] Memory required for data: 1334499360
I0403 15:15:55.808737 14291 layer_factory.hpp:77] Creating layer inception_5b/relu_5x5_reduce
I0403 15:15:55.808754 14291 net.cpp:91] Creating Layer inception_5b/relu_5x5_reduce
I0403 15:15:55.808770 14291 net.cpp:425] inception_5b/relu_5x5_reduce <- inception_5b/5x5_reduce
I0403 15:15:55.808789 14291 net.cpp:386] inception_5b/relu_5x5_reduce -> inception_5b/5x5_reduce (in-place)
I0403 15:15:55.809161 14291 net.cpp:141] Setting up inception_5b/relu_5x5_reduce
I0403 15:15:55.809187 14291 net.cpp:148] Top shape: 24 48 7 7 (56448)
I0403 15:15:55.809203 14291 net.cpp:156] Memory required for data: 1334725152
I0403 15:15:55.809217 14291 layer_factory.hpp:77] Creating layer inception_5b/5x5
I0403 15:15:55.809237 14291 net.cpp:91] Creating Layer inception_5b/5x5
I0403 15:15:55.809253 14291 net.cpp:425] inception_5b/5x5 <- inception_5b/5x5_reduce
I0403 15:15:55.809273 14291 net.cpp:399] inception_5b/5x5 -> inception_5b/5x5
I0403 15:15:55.811347 14291 net.cpp:141] Setting up inception_5b/5x5
I0403 15:15:55.811374 14291 net.cpp:148] Top shape: 24 128 7 7 (150528)
I0403 15:15:55.811390 14291 net.cpp:156] Memory required for data: 1335327264
I0403 15:15:55.811408 14291 layer_factory.hpp:77] Creating layer inception_5b/relu_5x5
I0403 15:15:55.811425 14291 net.cpp:91] Creating Layer inception_5b/relu_5x5
I0403 15:15:55.811441 14291 net.cpp:425] inception_5b/relu_5x5 <- inception_5b/5x5
I0403 15:15:55.811461 14291 net.cpp:386] inception_5b/relu_5x5 -> inception_5b/5x5 (in-place)
I0403 15:15:55.811661 14291 net.cpp:141] Setting up inception_5b/relu_5x5
I0403 15:15:55.811686 14291 net.cpp:148] Top shape: 24 128 7 7 (150528)
I0403 15:15:55.811700 14291 net.cpp:156] Memory required for data: 1335929376
I0403 15:15:55.811715 14291 layer_factory.hpp:77] Creating layer inception_5b/pool
I0403 15:15:55.811735 14291 net.cpp:91] Creating Layer inception_5b/pool
I0403 15:15:55.811753 14291 net.cpp:425] inception_5b/pool <- inception_5a/output_inception_5a/output_0_split_3
I0403 15:15:55.811770 14291 net.cpp:399] inception_5b/pool -> inception_5b/pool
I0403 15:15:55.811844 14291 net.cpp:141] Setting up inception_5b/pool
I0403 15:15:55.811867 14291 net.cpp:148] Top shape: 24 832 7 7 (978432)
I0403 15:15:55.811882 14291 net.cpp:156] Memory required for data: 1339843104
I0403 15:15:55.811895 14291 layer_factory.hpp:77] Creating layer inception_5b/pool_proj
I0403 15:15:55.811918 14291 net.cpp:91] Creating Layer inception_5b/pool_proj
I0403 15:15:55.811935 14291 net.cpp:425] inception_5b/pool_proj <- inception_5b/pool
I0403 15:15:55.811955 14291 net.cpp:399] inception_5b/pool_proj -> inception_5b/pool_proj
I0403 15:15:55.814302 14291 net.cpp:141] Setting up inception_5b/pool_proj
I0403 15:15:55.814333 14291 net.cpp:148] Top shape: 24 128 7 7 (150528)
I0403 15:15:55.814350 14291 net.cpp:156] Memory required for data: 1340445216
I0403 15:15:55.814368 14291 layer_factory.hpp:77] Creating layer inception_5b/relu_pool_proj
I0403 15:15:55.814388 14291 net.cpp:91] Creating Layer inception_5b/relu_pool_proj
I0403 15:15:55.814404 14291 net.cpp:425] inception_5b/relu_pool_proj <- inception_5b/pool_proj
I0403 15:15:55.814424 14291 net.cpp:386] inception_5b/relu_pool_proj -> inception_5b/pool_proj (in-place)
I0403 15:15:55.814735 14291 net.cpp:141] Setting up inception_5b/relu_pool_proj
I0403 15:15:55.814764 14291 net.cpp:148] Top shape: 24 128 7 7 (150528)
I0403 15:15:55.814780 14291 net.cpp:156] Memory required for data: 1341047328
I0403 15:15:55.814795 14291 layer_factory.hpp:77] Creating layer inception_5b/output
I0403 15:15:55.814812 14291 net.cpp:91] Creating Layer inception_5b/output
I0403 15:15:55.814842 14291 net.cpp:425] inception_5b/output <- inception_5b/1x1
I0403 15:15:55.814860 14291 net.cpp:425] inception_5b/output <- inception_5b/3x3
I0403 15:15:55.814877 14291 net.cpp:425] inception_5b/output <- inception_5b/5x5
I0403 15:15:55.814893 14291 net.cpp:425] inception_5b/output <- inception_5b/pool_proj
I0403 15:15:55.814913 14291 net.cpp:399] inception_5b/output -> inception_5b/output
I0403 15:15:55.814965 14291 net.cpp:141] Setting up inception_5b/output
I0403 15:15:55.814987 14291 net.cpp:148] Top shape: 24 1024 7 7 (1204224)
I0403 15:15:55.815002 14291 net.cpp:156] Memory required for data: 1345864224
I0403 15:15:55.815016 14291 layer_factory.hpp:77] Creating layer pool5/7x7_s1
I0403 15:15:55.815037 14291 net.cpp:91] Creating Layer pool5/7x7_s1
I0403 15:15:55.815054 14291 net.cpp:425] pool5/7x7_s1 <- inception_5b/output
I0403 15:15:55.815073 14291 net.cpp:399] pool5/7x7_s1 -> pool5/7x7_s1
I0403 15:15:55.815289 14291 net.cpp:141] Setting up pool5/7x7_s1
I0403 15:15:55.815315 14291 net.cpp:148] Top shape: 24 1024 1 1 (24576)
I0403 15:15:55.815330 14291 net.cpp:156] Memory required for data: 1345962528
I0403 15:15:55.815346 14291 layer_factory.hpp:77] Creating layer pool5/drop_7x7_s1
I0403 15:15:55.815362 14291 net.cpp:91] Creating Layer pool5/drop_7x7_s1
I0403 15:15:55.815379 14291 net.cpp:425] pool5/drop_7x7_s1 <- pool5/7x7_s1
I0403 15:15:55.815398 14291 net.cpp:386] pool5/drop_7x7_s1 -> pool5/7x7_s1 (in-place)
I0403 15:15:55.815449 14291 net.cpp:141] Setting up pool5/drop_7x7_s1
I0403 15:15:55.815472 14291 net.cpp:148] Top shape: 24 1024 1 1 (24576)
I0403 15:15:55.815487 14291 net.cpp:156] Memory required for data: 1346060832
I0403 15:15:55.815501 14291 layer_factory.hpp:77] Creating layer loss3/classifier_plantvillage
I0403 15:15:55.815522 14291 net.cpp:91] Creating Layer loss3/classifier_plantvillage
I0403 15:15:55.815543 14291 net.cpp:425] loss3/classifier_plantvillage <- pool5/7x7_s1
I0403 15:15:55.815567 14291 net.cpp:399] loss3/classifier_plantvillage -> loss3/classifier_plantvillage
I0403 15:15:55.815996 14291 net.cpp:141] Setting up loss3/classifier_plantvillage
I0403 15:15:55.816023 14291 net.cpp:148] Top shape: 24 38 (912)
I0403 15:15:55.816038 14291 net.cpp:156] Memory required for data: 1346064480
I0403 15:15:55.816056 14291 layer_factory.hpp:77] Creating layer loss3/classifier_plantvillage_loss3/classifier_plantvillage_0_split
I0403 15:15:55.816074 14291 net.cpp:91] Creating Layer loss3/classifier_plantvillage_loss3/classifier_plantvillage_0_split
I0403 15:15:55.816090 14291 net.cpp:425] loss3/classifier_plantvillage_loss3/classifier_plantvillage_0_split <- loss3/classifier_plantvillage
I0403 15:15:55.816108 14291 net.cpp:399] loss3/classifier_plantvillage_loss3/classifier_plantvillage_0_split -> loss3/classifier_plantvillage_loss3/classifier_plantvillage_0_split_0
I0403 15:15:55.816128 14291 net.cpp:399] loss3/classifier_plantvillage_loss3/classifier_plantvillage_0_split -> loss3/classifier_plantvillage_loss3/classifier_plantvillage_0_split_1
I0403 15:15:55.816148 14291 net.cpp:399] loss3/classifier_plantvillage_loss3/classifier_plantvillage_0_split -> loss3/classifier_plantvillage_loss3/classifier_plantvillage_0_split_2
I0403 15:15:55.816171 14291 net.cpp:399] loss3/classifier_plantvillage_loss3/classifier_plantvillage_0_split -> loss3/classifier_plantvillage_loss3/classifier_plantvillage_0_split_3
I0403 15:15:55.816272 14291 net.cpp:141] Setting up loss3/classifier_plantvillage_loss3/classifier_plantvillage_0_split
I0403 15:15:55.816295 14291 net.cpp:148] Top shape: 24 38 (912)
I0403 15:15:55.816311 14291 net.cpp:148] Top shape: 24 38 (912)
I0403 15:15:55.816326 14291 net.cpp:148] Top shape: 24 38 (912)
I0403 15:15:55.816341 14291 net.cpp:148] Top shape: 24 38 (912)
I0403 15:15:55.816354 14291 net.cpp:156] Memory required for data: 1346079072
I0403 15:15:55.816368 14291 layer_factory.hpp:77] Creating layer loss1/loss
I0403 15:15:55.816390 14291 net.cpp:91] Creating Layer loss1/loss
I0403 15:15:55.816407 14291 net.cpp:425] loss1/loss <- loss1/classifier_plantvillage_loss1/classifier_plantvillage_0_split_0
I0403 15:15:55.816438 14291 net.cpp:425] loss1/loss <- label_data_1_split_0
…
