…
I0403 15:21:08.693167 14623 net.cpp:313] The NetState phase (1) differed from the phase (0) specified by a rule in layer data
I0403 15:21:08.694286 14623 net.cpp:49] Initializing net from parameters: 
state {
  phase: TEST
}
layer {
  name: "data"
  type: "Data"
  top: "data"
  top: "label"
  include {
    phase: TEST
  }
  transform_param {
    mirror: false
    crop_size: 224
    mean_file: "/home/mohanty/data/final_dataset/lmdb/color-50-50/mean.binaryproto"
  }
  data_param {
    source: "/home/mohanty/data/final_dataset/lmdb/color-50-50/test_db"
    batch_size: 24
    backend: LMDB
  }
}
layer {
  name: "conv1/7x7_s2"
  type: "Convolution"
  bottom: "data"
  top: "conv1/7x7_s2"
  param {
    lr_mult: 1
    decay_mult: 1
  }
  param {
    lr_mult: 2
    decay_mult: 0
  }
  convolution_param {
    num_output: 64
    pad: 3
    kernel_size: 7
    stride: 2
    weight_filler {
      type: "xavier"
      std: 0.1
    }
    bias_filler {
      type: "constant"
      value: 0.2
    }
  }
}
layer {
  name: "conv1/relu_7x7"
  type: "ReLU"
  bottom: "conv1/7x7_s2"
  top: "conv1/7x7_s2"
}
layer {
  name: "pool1/3x3_s2"
  type: "Pooling"
  bottom: "conv1/7x7_s2"
  top: "pool1/3x3_s2"
  pooling_param {
    pool: MAX
    kernel_size: 3
    stride: 2
  }
}
layer {
  name: "pool1/norm1"
  type: "LRN"
  bottom: "pool1/3x3_s2"
  top: "pool1/norm1"
  lrn_param {
    local_size: 5
    alpha: 0.0001
    beta: 0.75
  }
}
layer {
  name: "conv2/3x3_reduce"
  type: "Convolution"
  bottom: "pool1/norm1"
  top: "conv2/3x3_reduce"
  param {
    lr_mult: 1
    decay_mult: 1
  }
  param {
    lr_mult: 2
    decay_mult: 0
  }
  convolution_param {
    num_output: 64
    kernel_size: 1
    weight_filler {
      type: "xavier"
      std: 0.1
    }
    bias_filler {
      type: "constant"
      value: 0.2
    }
  }
}
layer {
  name: "conv2/relu_3x3_reduce"
  type: "ReLU"
  bottom: "conv2/3x3_reduce"
  top: "conv2/3x3_reduce"
}
layer {
  name: "conv2/3x3"
  type: "Convolution"
  bottom: "conv2/3x3_reduce"
  top: "conv2/3x3"
  param {
    lr_mult: 1
    decay_mult: 1
  }
  param {
    lr_mult: 2
    decay_mult: 0
  }
  convolution_param {
    num_output: 192
    pad: 1
    kernel_size: 3
    weight_filler {
      type: "xavier"
      std: 0.03
    }
    bias_filler {
      type: "constant"
      value: 0.2
    }
  }
}
layer {
  name: "conv2/relu_3x3"
  type: "ReLU"
  bottom: "conv2/3x3"
  top: "conv2/3x3"
}
layer {
  name: "conv2/norm2"
  type: "LRN"
  bottom: "conv2/3x3"
  top: "conv2/norm2"
  lrn_param {
    local_size: 5
    alpha: 0.0001
    beta: 0.75
  }
}
layer {
  name: "pool2/3x3_s2"
  type: "Pooling"
  bottom: "conv2/norm2"
  top: "pool2/3x3_s2"
  pooling_param {
    pool: MAX
    kernel_size: 3
    stride: 2
  }
}
layer {
  name: "inception_3a/1x1"
  type: "Convolution"
  bottom: "pool2/3x3_s2"
  top: "inception_3a/1x1"
  param {
    lr_mult: 1
    decay_mult: 1
  }
  param {
    lr_mult: 2
    decay_mult: 0
  }
  convolution_param {
    num_output: 64
    kernel_size: 1
    weight_filler {
      type: "xavier"
      std: 0.03
    }
    bias_filler {
      type: "constant"
      value: 0.2
    }
  }
}
layer {
  name: "inception_3a/relu_1x1"
  type: "ReLU"
  bottom: "inception_3a/1x1"
  top: "inception_3a/1x1"
}
layer {
  name: "inception_3a/3x3_reduce"
  type: "Convolution"
  bottom: "pool2/3x3_s2"
  top: "inception_3a/3x3_reduce"
  param {
    lr_mult: 1
    decay_mult: 1
  }
  param {
    lr_mult: 2
    decay_mult: 0
  }
  convolution_param {
    num_output: 96
    kernel_size: 1
    weight_filler {
      type: "xavier"
      std: 0.09
    }
    bias_filler {
      type: "constant"
      value: 0.2
    }
  }
}
layer {
  name: "inception_3a/relu_3x3_reduce"
  type: "ReLU"
  bottom: "inception_3a/3x3_reduce"
  top: "inception_3a/3x3_reduce"
}
layer {
  name: "inception_3a/3x3"
  type: "Convolution"
  bottom: "inception_3a/3x3_reduce"
  top: "inception_3a/3x3"
  param {
    lr_mult: 1
    decay_mult: 1
  }
  param {
    lr_mult: 2
    decay_mult: 0
  }
  convolution_param {
    num_output: 128
    pad: 1
    kernel_size: 3
    weight_filler {
      type: "xavier"
      std: 0.03
    }
    bias_filler {
      type: "constant"
      value: 0.2
    }
  }
}
layer {
  name: "inception_3a/relu_3x3"
  type: "ReLU"
  bottom: "inception_3a/3x3"
  top: "inception_3a/3x3"
}
layer {
  name: "inception_3a/5x5_reduce"
  type: "Convolution"
  bottom: "pool2/3x3_s2"
  top: "inception_3a/5x5_reduce"
  param {
    lr_mult: 1
    decay_mult: 1
  }
  param {
    lr_mult: 2
    decay_mult: 0
  }
  convolution_param {
    num_output: 16
    kernel_size: 1
    weight_filler {
      type: "xavier"
      std: 0.2
    }
    bias_filler {
      type: "constant"
      value: 0.2
    }
  }
}
layer {
  name: "inception_3a/relu_5x5_reduce"
  type: "ReLU"
  bottom: "inception_3a/5x5_reduce"
  top: "inception_3a/5x5_reduce"
}
layer {
  name: "inception_3a/5x5"
  type: "Convolution"
  bottom: "inception_3a/5x5_reduce"
  top: "inception_3a/5x5"
  param {
    lr_mult: 1
    decay_mult: 1
  }
  param {
    lr_mult: 2
    decay_mult: 0
  }
  convolution_param {
    num_output: 32
    pad: 2
    kernel_size: 5
    weight_filler {
      type: "xavier"
      std: 0.03
    }
    bias_filler {
      type: "constant"
      value: 0.2
    }
  }
}
layer {
  name: "inception_3a/relu_5x5"
  type: "ReLU"
  bottom: "inception_3a/5x5"
  top: "inception_3a/5x5"
}
layer {
  name: "inception_3a/pool"
  type: "Pooling"
  bottom: "pool2/3x3_s2"
  top: "inception_3a/pool"
  pooling_param {
    pool: MAX
    kernel_size: 3
    stride: 1
    pad: 1
  }
}
layer {
  name: "inception_3a/pool_proj"
  type: "Convolution"
  bottom: "inception_3a/pool"
  top: "inception_3a/pool_proj"
  param {
    lr_mult: 1
    decay_mult: 1
  }
  param {
    lr_mult: 2
    decay_mult: 0
  }
  convolution_param {
    num_output: 32
    kernel_size: 1
    weight_filler {
      type: "xavier"
      std: 0.1
    }
    bias_filler {
      type: "constant"
      value: 0.2
    }
  }
}
layer {
  name: "inception_3a/relu_pool_proj"
  type: "ReLU"
  bottom: "inception_3a/pool_proj"
  top: "inception_3a/pool_proj"
}
layer {
  name: "inception_3a/output"
  type: "Concat"
  bottom: "inception_3a/1x1"
  bottom: "inception_3a/3x3"
  bottom: "inception_3a/5x5"
  bottom: "inception_3a/pool_proj"
  top: "inception_3a/output"
}
layer {
  name: "inception_3b/1x1"
  type: "Convolution"
  bottom: "inception_3a/output"
  top: "inception_3b/1x1"
  param {
    lr_mult: 1
    decay_mult: 1
  }
  param {
    lr_mult: 2
    decay_mult: 0
  }
  convolution_param {
    num_output: 128
    kernel_size: 1
    weight_filler {
      type: "xavier"
      std: 0.03
    }
    bias_filler {
      type: "constant"
      value: 0.2
    }
  }
}
layer {
  name: "inception_3b/relu_1x1"
  type: "ReLU"
  bottom: "inception_3b/1x1"
  top: "inception_3b/1x1"
}
layer {
  name: "inception_3b/3x3_reduce"
  type: "Convolution"
  bottom: "inception_3a/output"
  top: "inception_3b/3x3_reduce"
  param {
    lr_mult: 1
    decay_mult: 1
  }
  param {
    lr_mult: 2
    decay_mult: 0
  }
  convolution_param {
    num_output: 128
    kernel_size: 1
    weight_filler {
      type: "xavier"
      std: 0.09
    }
    bias_filler {
      type: "constant"
      value: 0.2
    }
  }
}
layer {
  name: "inception_3b/relu_3x3_reduce"
  type: "ReLU"
  bottom: "inception_3b/3x3_reduce"
  top: "inception_3b/3x3_reduce"
}
layer {
  name: "inception_3b/3x3"
  type: "Convolution"
  bottom: "inception_3b/3x3_reduce"
  top: "inception_3b/3x3"
  param {
    lr_mult: 1
    decay_mult: 1
  }
  param {
    lr_mult: 2
    decay_mult: 0
  }
  convolution_param {
    num_output: 192
    pad: 1
    kernel_size: 3
    weight_filler {
      type: "xavier"
      std: 0.03
    }
    bias_filler {
      type: "constant"
      value: 0.2
    }
  }
}
layer {
  name: "inception_3b/relu_3x3"
  type: "ReLU"
  bottom: "inception_3b/3x3"
  top: "inception_3b/3x3"
}
layer {
  name: "inception_3b/5x5_reduce"
  type: "Convolution"
  bottom: "inception_3a/output"
  top: "inception_3b/5x5_reduce"
  param {
    lr_mult: 1
    decay_mult: 1
  }
  param {
    lr_mult: 2
    decay_mult: 0
  }
  convolution_param {
    num_output: 32
    kernel_size: 1
    weight_filler {
      type: "xavier"
      std: 0.2
    }
    bias_filler {
      type: "constant"
      value: 0.2
    }
  }
}
layer {
  name: "inception_3b/relu_5x5_reduce"
  type: "ReLU"
  bottom: "inception_3b/5x5_reduce"
  top: "inception_3b/5x5_reduce"
}
layer {
  name: "inception_3b/5x5"
  type: "Convolution"
  bottom: "inception_3b/5x5_reduce"
  top: "inception_3b/5x5"
  param {
    lr_mult: 1
    decay_mult: 1
  }
  param {
    lr_mult: 2
    decay_mult: 0
  }
  convolution_param {
    num_output: 96
    pad: 2
    kernel_size: 5
    weight_filler {
      type: "xavier"
      std: 0.03
    }
    bias_filler {
      type: "constant"
      value: 0.2
    }
  }
}
layer {
  name: "inception_3b/relu_5x5"
  type: "ReLU"
  bottom: "inception_3b/5x5"
  top: "inception_3b/5x5"
}
layer {
  name: "inception_3b/pool"
  type: "Pooling"
  bottom: "inception_3a/output"
  top: "inception_3b/pool"
  pooling_param {
    pool: MAX
    kernel_size: 3
    stride: 1
    pad: 1
  }
}
layer {
  name: "inception_3b/pool_proj"
  type: "Convolution"
  bottom: "inception_3b/pool"
  top: "inception_3b/pool_proj"
  param {
    lr_mult: 1
    decay_mult: 1
  }
  param {
    lr_mult: 2
    decay_mult: 0
  }
  convolution_param {
    num_output: 64
    kernel_size: 1
    weight_filler {
      type: "xavier"
      std: 0.1
    }
    bias_filler {
      type: "constant"
      value: 0.2
    }
  }
}
layer {
  name: "inception_3b/relu_pool_proj"
  type: "ReLU"
  bottom: "inception_3b/pool_proj"
  top: "inception_3b/pool_proj"
}
layer {
  name: "inception_3b/output"
  type: "Concat"
  bottom: "inception_3b/1x1"
  bottom: "inception_3b/3x3"
  bottom: "inception_3b/5x5"
  bottom: "inception_3b/pool_proj"
  top: "inception_3b/output"
}
layer {
  name: "pool3/3x3_s2"
  type: "Pooling"
  bottom: "inception_3b/output"
  top: "pool3/3x3_s2"
  pooling_param {
    pool: MAX
    kernel_size: 3
    stride: 2
  }
}
layer {
  name: "inception_4a/1x1"
  type: "Convolution"
  bottom: "pool3/3x3_s2"
  top: "inception_4a/1x1"
  param {
    lr_mult: 1
    decay_mult: 1
  }
  param {
    lr_mult: 2
    decay_mult: 0
  }
  convolution_param {
    num_output: 192
    kernel_size: 1
    weight_filler {
      type: "xavier"
      std: 0.03
    }
    bias_filler {
      type: "constant"
      value: 0.2
    }
  }
}
layer {
  name: "inception_4a/relu_1x1"
  type: "ReLU"
  bottom: "inception_4a/1x1"
  top: "inception_4a/1x1"
}
layer {
  name: "inception_4a/3x3_reduce"
  type: "Convolution"
  bottom: "pool3/3x3_s2"
  top: "inception_4a/3x3_reduce"
  param {
    lr_mult: 1
    decay_mult: 1
  }
  param {
    lr_mult: 2
    decay_mult: 0
  }
  convolution_param {
    num_output: 96
    kernel_size: 1
    weight_filler {
      type: "xavier"
      std: 0.09
    }
    bias_filler {
      type: "constant"
      value: 0.2
    }
  }
}
layer {
  name: "inception_4a/relu_3x3_reduce"
  type: "ReLU"
  bottom: "inception_4a/3x3_reduce"
  top: "inception_4a/3x3_reduce"
}
layer {
  name: "inception_4a/3x3"
  type: "Convolution"
  bottom: "inception_4a/3x3_reduce"
  top: "inception_4a/3x3"
  param {
    lr_mult: 1
    decay_mult: 1
  }
  param {
    lr_mult: 2
    decay_mult: 0
  }
  convolution_param {
    num_output: 208
    pad: 1
    kernel_size: 3
    weight_filler {
      type: "xavier"
      std: 0.03
    }
    bias_filler {
      type: "constant"
      value: 0.2
    }
  }
}
layer {
  name: "inception_4a/relu_3x3"
  type: "ReLU"
  bottom: "inception_4a/3x3"
  top: "inception_4a/3x3"
}
layer {
  name: "inception_4a/5x5_reduce"
  type: "Convolution"
  bottom: "pool3/3x3_s2"
  top: "inception_4a/5x5_reduce"
  param {
    lr_mult: 1
    decay_mult: 1
  }
  param {
    lr_mult: 2
    decay_mult: 0
  }
  convolution_param {
    num_output: 16
    kernel_size: 1
    weight_filler {
      type: "xavier"
      std: 0.2
    }
    bias_filler {
      type: "constant"
      value: 0.2
    }
  }
}
layer {
  name: "inception_4a/relu_5x5_reduce"
  type: "ReLU"
  bottom: "inception_4a/5x5_reduce"
  top: "inception_4a/5x5_reduce"
}
layer {
  name: "inception_4a/5x5"
  type: "Convolution"
  bottom: "inception_4a/5x5_reduce"
  top: "inception_4a/5x5"
  param {
    lr_mult: 1
    decay_mult: 1
  }
  param {
    lr_mult: 2
    decay_mult: 0
  }
  convolution_param {
    num_output: 48
    pad: 2
    kernel_size: 5
    weight_filler {
      type: "xavier"
      std: 0.03
    }
    bias_filler {
      type: "constant"
      value: 0.2
    }
  }
}
layer {
  name: "inception_4a/relu_5x5"
  type: "ReLU"
  bottom: "inception_4a/5x5"
  top: "inception_4a/5x5"
}
layer {
  name: "inception_4a/pool"
  type: "Pooling"
  bottom: "pool3/3x3_s2"
  top: "inception_4a/pool"
  pooling_param {
    pool: MAX
    kernel_size: 3
    stride: 1
    pad: 1
  }
}
layer {
  name: "inception_4a/pool_proj"
  type: "Convolution"
  bottom: "inception_4a/pool"
  top: "inception_4a/pool_proj"
  param {
    lr_mult: 1
    decay_mult: 1
  }
  param {
    lr_mult: 2
    decay_mult: 0
  }
  convolution_param {
    num_output: 64
    kernel_size: 1
    weight_filler {
      type: "xavier"
      std: 0.1
    }
    bias_filler {
      type: "constant"
      value: 0.2
    }
  }
}
layer {
  name: "inception_4a/relu_pool_proj"
  type: "ReLU"
  bottom: "inception_4a/pool_proj"
  top: "inception_4a/pool_proj"
}
layer {
  name: "inception_4a/output"
  type: "Concat"
  bottom: "inception_4a/1x1"
  bottom: "inception_4a/3x3"
  bottom: "inception_4a/5x5"
  bottom: "inception_4a/pool_proj"
  top: "inception_4a/output"
}
layer {
  name: "loss1/ave_pool"
  type: "Pooling"
  bottom: "inception_4a/output"
  top: "loss1/ave_pool"
  pooling_param {
    pool: AVE
    kernel_size: 5
    stride: 3
  }
}
layer {
  name: "loss1/conv"
  type: "Convolution"
  bottom: "loss1/ave_pool"
  top: "loss1/conv"
  param {
    lr_mult: 1
    decay_mult: 1
  }
  param {
    lr_mult: 2
    decay_mult: 0
  }
  convolution_param {
    num_output: 128
    kernel_size: 1
    weight_filler {
      type: "xavier"
      std: 0.08
    }
    bias_filler {
      type: "constant"
      value: 0.2
    }
  }
}
layer {
  name: "loss1/relu_conv"
  type: "ReLU"
  bottom: "loss1/conv"
  top: "loss1/conv"
}
layer {
  name: "loss1/fc"
  type: "InnerProduct"
  bottom: "loss1/conv"
  top: "loss1/fc"
  param {
    lr_mult: 1
    decay_mult: 1
  }
  param {
    lr_mult: 2
    decay_mult: 0
  }
  inner_product_param {
    num_output: 1024
    weight_filler {
      type: "xavier"
      std: 0.02
    }
    bias_filler {
      type: "constant"
      value: 0.2
    }
  }
}
layer {
  name: "loss1/relu_fc"
  type: "ReLU"
  bottom: "loss1/fc"
  top: "loss1/fc"
}
layer {
  name: "loss1/drop_fc"
  type: "Dropout"
  bottom: "loss1/fc"
  top: "loss1/fc"
  dropout_param {
    dropout_ratio: 0.7
  }
}
layer {
  name: "loss1/classifier_plantvillage"
  type: "InnerProduct"
  bottom: "loss1/fc"
  top: "loss1/classifier_plantvillage"
  param {
    lr_mult: 1
    decay_mult: 1
  }
  param {
    lr_mult: 2
    decay_mult: 0
  }
  inner_product_param {
    num_output: 38
    weight_filler {
      type: "xavier"
      std: 0.0009765625
    }
    bias_filler {
      type: "constant"
      value: 0
    }
  }
}
layer {
  name: "inception_4b/1x1"
  type: "Convolution"
  bottom: "inception_4a/output"
  top: "inception_4b/1x1"
  param {
    lr_mult: 1
    decay_mult: 1
  }
  param {
    lr_mult: 2
    decay_mult: 0
  }
  convolution_param {
    num_output: 160
    kernel_size: 1
    weight_filler {
      type: "xavier"
      std: 0.03
    }
    bias_filler {
      type: "constant"
      value: 0.2
    }
  }
}
layer {
  name: "inception_4b/relu_1x1"
  type: "ReLU"
  bottom: "inception_4b/1x1"
  top: "inception_4b/1x1"
}
layer {
  name: "inception_4b/3x3_reduce"
  type: "Convolution"
  bottom: "inception_4a/output"
  top: "inception_4b/3x3_reduce"
  param {
    lr_mult: 1
    decay_mult: 1
  }
  param {
    lr_mult: 2
    decay_mult: 0
  }
  convolution_param {
    num_output: 112
    kernel_size: 1
    weight_filler {
      type: "xavier"
      std: 0.09
    }
    bias_filler {
      type: "constant"
      value: 0.2
    }
  }
}
layer {
  name: "inception_4b/relu_3x3_reduce"
  type: "ReLU"
  bottom: "inception_4b/3x3_reduce"
  top: "inception_4b/3x3_reduce"
}
layer {
  name: "inception_4b/3x3"
  type: "Convolution"
  bottom: "inception_4b/3x3_reduce"
  top: "inception_4b/3x3"
  param {
    lr_mult: 1
    decay_mult: 1
  }
  param {
    lr_mult: 2
    decay_mult: 0
  }
  convolution_param {
    num_output: 224
    pad: 1
    kernel_size: 3
    weight_filler {
      type: "xavier"
      std: 0.03
    }
    bias_filler {
      type: "constant"
      value: 0.2
    }
  }
}
layer {
  name: "inception_4b/relu_3x3"
  type: "ReLU"
  bottom: "inception_4b/3x3"
  top: "inception_4b/3x3"
}
layer {
  name: "inception_4b/5x5_reduce"
  type: "Convolution"
  bottom: "inception_4a/output"
  top: "inception_4b/5x5_reduce"
  param {
    lr_mult: 1
    decay_mult: 1
  }
  param {
    lr_mult: 2
    decay_mult: 0
  }
  convolution_param {
    num_output: 24
    kernel_size: 1
    weight_filler {
      type: "xavier"
      std: 0.2
    }
    bias_filler {
      type: "constant"
      value: 0.2
    }
  }
}
layer {
  name: "inception_4b/relu_5x5_reduce"
  type: "ReLU"
  bottom: "inception_4b/5x5_reduce"
  top: "inception_4b/5x5_reduce"
}
layer {
  name: "inception_4b/5x5"
  type: "Convolution"
  bottom: "inception_4b/5x5_reduce"
  top: "inception_4b/5x5"
  param {
    lr_mult: 1
    decay_mult: 1
  }
  param {
    lr_mult: 2
    decay_mult: 0
  }
  convolution_param {
    num_output: 64
    pad: 2
    kernel_size: 5
    weight_filler {
      type: "xavier"
      std: 0.03
    }
    bias_filler {
      type: "constant"
      value: 0.2
    }
  }
}
layer {
  name: "inception_4b/relu_5x5"
  type: "ReLU"
  bottom: "inception_4b/5x5"
  top: "inception_4b/5x5"
}
layer {
  name: "inception_4b/pool"
  type: "Pooling"
  bottom: "inception_4a/output"
  top: "inception_4b/pool"
  pooling_param {
    pool: MAX
    kernel_size: 3
    stride: 1
    pad: 1
  }
}
layer {
  name: "inception_4b/pool_proj"
  type: "Convolution"
  bottom: "inception_4b/pool"
  top: "inception_4b/pool_proj"
  param {
    lr_mult: 1
    decay_mult: 1
  }
  param {
    lr_mult: 2
    decay_mult: 0
  }
  convolution_param {
    num_output: 64
    kernel_size: 1
    weight_filler {
      type: "xavier"
      std: 0.1
    }
    bias_filler {
      type: "constant"
      value: 0.2
    }
  }
}
layer {
  name: "inception_4b/relu_pool_proj"
  type: "ReLU"
  bottom: "inception_4b/pool_proj"
  top: "inception_4b/pool_proj"
}
layer {
  name: "inception_4b/output"
  type: "Concat"
  bottom: "inception_4b/1x1"
  bottom: "inception_4b/3x3"
  bottom: "inception_4b/5x5"
  bottom: "inception_4b/pool_proj"
  top: "inception_4b/output"
}
layer {
  name: "inception_4c/1x1"
  type: "Convolution"
  bottom: "inception_4b/output"
  top: "inception_4c/1x1"
  param {
    lr_mult: 1
    decay_mult: 1
  }
  param {
    lr_mult: 2
    decay_mult: 0
  }
  convolution_param {
    num_output: 128
    kernel_size: 1
    weight_filler {
      type: "xavier"
      std: 0.03
    }
    bias_filler {
      type: "constant"
      value: 0.2
    }
  }
}
layer {
  name: "inception_4c/relu_1x1"
  type: "ReLU"
  bottom: "inception_4c/1x1"
  top: "inception_4c/1x1"
}
layer {
  name: "inception_4c/3x3_reduce"
  type: "Convolution"
  bottom: "inception_4b/output"
  top: "inception_4c/3x3_reduce"
  param {
    lr_mult: 1
    decay_mult: 1
  }
  param {
    lr_mult: 2
    decay_mult: 0
  }
  convolution_param {
    num_output: 128
    kernel_size: 1
    weight_filler {
      type: "xavier"
      std: 0.09
    }
    bias_filler {
      type: "constant"
      value: 0.2
    }
  }
}
layer {
  name: "inception_4c/relu_3x3_reduce"
  type: "ReLU"
  bottom: "inception_4c/3x3_reduce"
  top: "inception_4c/3x3_reduce"
}
layer {
  name: "inception_4c/3x3"
  type: "Convolution"
  bottom: "inception_4c/3x3_reduce"
  top: "inception_4c/3x3"
  param {
    lr_mult: 1
    decay_mult: 1
  }
  param {
    lr_mult: 2
    decay_mult: 0
  }
  convolution_param {
    num_output: 256
    pad: 1
    kernel_size: 3
    weight_filler {
      type: "xavier"
      std: 0.03
    }
    bias_filler {
      type: "constant"
      value: 0.2
    }
  }
}
layer {
  name: "inception_4c/relu_3x3"
  type: "ReLU"
  bottom: "inception_4c/3x3"
  top: "inception_4c/3x3"
}
layer {
  name: "inception_4c/5x5_reduce"
  type: "Convolution"
  bottom: "inception_4b/output"
  top: "inception_4c/5x5_reduce"
  param {
    lr_mult: 1
    decay_mult: 1
  }
  param {
    lr_mult: 2
    decay_mult: 0
  }
  convolution_param {
    num_output: 24
    kernel_size: 1
    weight_filler {
      type: "xavier"
      std: 0.2
    }
    bias_filler {
      type: "constant"
      value: 0.2
    }
  }
}
layer {
  name: "inception_4c/relu_5x5_reduce"
  type: "ReLU"
  bottom: "inception_4c/5x5_reduce"
  top: "inception_4c/5x5_reduce"
}
layer {
  name: "inception_4c/5x5"
  type: "Convolution"
  bottom: "inception_4c/5x5_reduce"
  top: "inception_4c/5x5"
  param {
    lr_mult: 1
    decay_mult: 1
  }
  param {
    lr_mult: 2
    decay_mult: 0
  }
  convolution_param {
    num_output: 64
    pad: 2
    kernel_size: 5
    weight_filler {
      type: "xavier"
      std: 0.03
    }
    bias_filler {
      type: "constant"
      value: 0.2
    }
  }
}
layer {
  name: "inception_4c/relu_5x5"
  type: "ReLU"
  bottom: "inception_4c/5x5"
  top: "inception_4c/5x5"
}
layer {
  name: "inception_4c/pool"
  type: "Pooling"
  bottom: "inception_4b/output"
  top: "inception_4c/pool"
  pooling_param {
    pool: MAX
    kernel_size: 3
    stride: 1
    pad: 1
  }
}
layer {
  name: "inception_4c/pool_proj"
  type: "Convolution"
  bottom: "inception_4c/pool"
  top: "inception_4c/pool_proj"
  param {
    lr_mult: 1
    decay_mult: 1
  }
  param {
    lr_mult: 2
    decay_mult: 0
  }
  convolution_param {
    num_output: 64
    kernel_size: 1
    weight_filler {
      type: "xavier"
      std: 0.1
    }
    bias_filler {
      type: "constant"
      value: 0.2
    }
  }
}
layer {
  name: "inception_4c/relu_pool_proj"
  type: "ReLU"
  bottom: "inception_4c/pool_proj"
  top: "inception_4c/pool_proj"
}
layer {
  name: "inception_4c/output"
  type: "Concat"
  bottom: "inception_4c/1x1"
  bottom: "inception_4c/3x3"
  bottom: "inception_4c/5x5"
  bottom: "inception_4c/pool_proj"
  top: "inception_4c/output"
}
layer {
  name: "inception_4d/1x1"
  type: "Convolution"
  bottom: "inception_4c/output"
  top: "inception_4d/1x1"
  param {
    lr_mult: 1
    decay_mult: 1
  }
  param {
    lr_mult: 2
    decay_mult: 0
  }
  convolution_param {
    num_output: 112
    kernel_size: 1
    weight_filler {
      type: "xavier"
      std: 0.03
    }
    bias_filler {
      type: "constant"
      value: 0.2
    }
  }
}
layer {
  name: "inception_4d/relu_1x1"
  type: "ReLU"
  bottom: "inception_4d/1x1"
  top: "inception_4d/1x1"
}
layer {
  name: "inception_4d/3x3_reduce"
  type: "Convolution"
  bottom: "inception_4c/output"
  top: "inception_4d/3x3_reduce"
  param {
    lr_mult: 1
    decay_mult: 1
  }
  param {
    lr_mult: 2
    decay_mult: 0
  }
  convolution_param {
    num_output: 144
    kernel_size: 1
    weight_filler {
      type: "xavier"
      std: 0.09
    }
    bias_filler {
      type: "constant"
      value: 0.2
    }
  }
}
layer {
  name: "inception_4d/relu_3x3_reduce"
  type: "ReLU"
  bottom: "inception_4d/3x3_reduce"
  top: "inception_4d/3x3_reduce"
}
layer {
  name: "inception_4d/3x3"
  type: "Convolution"
  bottom: "inception_4d/3x3_reduce"
  top: "inception_4d/3x3"
  param {
    lr_mult: 1
    decay_mult: 1
  }
  param {
    lr_mult: 2
    decay_mult: 0
  }
  convolution_param {
    num_output: 288
    pad: 1
    kernel_size: 3
    weight_filler {
      type: "xavier"
      std: 0.03
    }
    bias_filler {
      type: "constant"
      value: 0.2
    }
  }
}
layer {
  name: "inception_4d/relu_3x3"
  type: "ReLU"
  bottom: "inception_4d/3x3"
  top: "inception_4d/3x3"
}
layer {
  name: "inception_4d/5x5_reduce"
  type: "Convolution"
  bottom: "inception_4c/output"
  top: "inception_4d/5x5_reduce"
  param {
    lr_mult: 1
    decay_mult: 1
  }
  param {
    lr_mult: 2
    decay_mult: 0
  }
  convolution_param {
    num_output: 32
    kernel_size: 1
    weight_filler {
      type: "xavier"
      std: 0.2
    }
    bias_filler {
      type: "constant"
      value: 0.2
    }
  }
}
layer {
  name: "inception_4d/relu_5x5_reduce"
  type: "ReLU"
  bottom: "inception_4d/5x5_reduce"
  top: "inception_4d/5x5_reduce"
}
layer {
  name: "inception_4d/5x5"
  type: "Convolution"
  bottom: "inception_4d/5x5_reduce"
  top: "inception_4d/5x5"
  param {
    lr_mult: 1
    decay_mult: 1
  }
  param {
    lr_mult: 2
    decay_mult: 0
  }
  convolution_param {
    num_output: 64
    pad: 2
    kernel_size: 5
    weight_filler {
      type: "xavier"
      std: 0.03
    }
    bias_filler {
      type: "constant"
      value: 0.2
    }
  }
}
layer {
  name: "inception_4d/relu_5x5"
  type: "ReLU"
  bottom: "inception_4d/5x5"
  top: "inception_4d/5x5"
}
layer {
  name: "inception_4d/pool"
  type: "Pooling"
  bottom: "inception_4c/output"
  top: "inception_4d/pool"
  pooling_param {
    pool: MAX
    kernel_size: 3
    stride: 1
    pad: 1
  }
}
layer {
  name: "inception_4d/pool_proj"
  type: "Convolution"
  bottom: "inception_4d/pool"
  top: "inception_4d/pool_proj"
  param {
    lr_mult: 1
    decay_mult: 1
  }
  param {
    lr_mult: 2
    decay_mult: 0
  }
  convolution_param {
    num_output: 64
    kernel_size: 1
    weight_filler {
      type: "xavier"
      std: 0.1
    }
    bias_filler {
      type: "constant"
      value: 0.2
    }
  }
}
layer {
  name: "inception_4d/relu_pool_proj"
  type: "ReLU"
  bottom: "inception_4d/pool_proj"
  top: "inception_4d/pool_proj"
}
layer {
  name: "inception_4d/output"
  type: "Concat"
  bottom: "inception_4d/1x1"
  bottom: "inception_4d/3x3"
  bottom: "inception_4d/5x5"
  bottom: "inception_4d/pool_proj"
  top: "inception_4d/output"
}
layer {
  name: "loss2/ave_pool"
  type: "Pooling"
  bottom: "inception_4d/output"
  top: "loss2/ave_pool"
  pooling_param {
    pool: AVE
    kernel_size: 5
    stride: 3
  }
}
layer {
  name: "loss2/conv"
  type: "Convolution"
  bottom: "loss2/ave_pool"
  top: "loss2/conv"
  param {
    lr_mult: 1
    decay_mult: 1
  }
  param {
    lr_mult: 2
    decay_mult: 0
  }
  convolution_param {
    num_output: 128
    kernel_size: 1
    weight_filler {
      type: "xavier"
      std: 0.08
    }
    bias_filler {
      type: "constant"
      value: 0.2
    }
  }
}
layer {
  name: "loss2/relu_conv"
  type: "ReLU"
  bottom: "loss2/conv"
  top: "loss2/conv"
}
layer {
  name: "loss2/fc"
  type: "InnerProduct"
  bottom: "loss2/conv"
  top: "loss2/fc"
  param {
    lr_mult: 1
    decay_mult: 1
  }
  param {
    lr_mult: 2
    decay_mult: 0
  }
  inner_product_param {
    num_output: 1024
    weight_filler {
      type: "xavier"
      std: 0.02
    }
    bias_filler {
      type: "constant"
      value: 0.2
    }
  }
}
layer {
  name: "loss2/relu_fc"
  type: "ReLU"
  bottom: "loss2/fc"
  top: "loss2/fc"
}
layer {
  name: "loss2/drop_fc"
  type: "Dropout"
  bottom: "loss2/fc"
  top: "loss2/fc"
  dropout_param {
    dropout_ratio: 0.7
  }
}
layer {
  name: "loss2/classifier_plantvillage"
  type: "InnerProduct"
  bottom: "loss2/fc"
  top: "loss2/classifier_plantvillage"
  param {
    lr_mult: 1
    decay_mult: 1
  }
  param {
    lr_mult: 2
    decay_mult: 0
  }
  inner_product_param {
    num_output: 38
    weight_filler {
      type: "xavier"
      std: 0.0009765625
    }
    bias_filler {
      type: "constant"
      value: 0
    }
  }
}
layer {
  name: "inception_4e/1x1"
  type: "Convolution"
  bottom: "inception_4d/output"
  top: "inception_4e/1x1"
  param {
    lr_mult: 1
    decay_mult: 1
  }
  param {
    lr_mult: 2
    decay_mult: 0
  }
  convolution_param {
    num_output: 256
    kernel_size: 1
    weight_filler {
      type: "xavier"
      std: 0.03
    }
    bias_filler {
      type: "constant"
      value: 0.2
    }
  }
}
layer {
  name: "inception_4e/relu_1x1"
  type: "ReLU"
  bottom: "inception_4e/1x1"
  top: "inception_4e/1x1"
}
layer {
  name: "inception_4e/3x3_reduce"
  type: "Convolution"
  bottom: "inception_4d/output"
  top: "inception_4e/3x3_reduce"
  param {
    lr_mult: 1
    decay_mult: 1
  }
  param {
    lr_mult: 2
    decay_mult: 0
  }
  convolution_param {
    num_output: 160
    kernel_size: 1
    weight_filler {
      type: "xavier"
      std: 0.09
    }
    bias_filler {
      type: "constant"
      value: 0.2
    }
  }
}
layer {
  name: "inception_4e/relu_3x3_reduce"
  type: "ReLU"
  bottom: "inception_4e/3x3_reduce"
  top: "inception_4e/3x3_reduce"
}
layer {
  name: "inception_4e/3x3"
  type: "Convolution"
  bottom: "inception_4e/3x3_reduce"
  top: "inception_4e/3x3"
  param {
    lr_mult: 1
    decay_mult: 1
  }
  param {
    lr_mult: 2
    decay_mult: 0
  }
  convolution_param {
    num_output: 320
    pad: 1
    kernel_size: 3
    weight_filler {
      type: "xavier"
      std: 0.03
    }
    bias_filler {
      type: "constant"
      value: 0.2
    }
  }
}
layer {
  name: "inception_4e/relu_3x3"
  type: "ReLU"
  bottom: "inception_4e/3x3"
  top: "inception_4e/3x3"
}
layer {
  name: "inception_4e/5x5_reduce"
  type: "Convolution"
  bottom: "inception_4d/output"
  top: "inception_4e/5x5_reduce"
  param {
    lr_mult: 1
    decay_mult: 1
  }
  param {
    lr_mult: 2
    decay_mult: 0
  }
  convolution_param {
    num_output: 32
    kernel_size: 1
    weight_filler {
      type: "xavier"
      std: 0.2
    }
    bias_filler {
      type: "constant"
      value: 0.2
    }
  }
}
layer {
  name: "inception_4e/relu_5x5_reduce"
  type: "ReLU"
  bottom: "inception_4e/5x5_reduce"
  top: "inception_4e/5x5_reduce"
}
layer {
  name: "inception_4e/5x5"
  type: "Convolution"
  bottom: "inception_4e/5x5_reduce"
  top: "inception_4e/5x5"
  p
I0403 15:21:08.695555 14623 layer_factory.hpp:77] Creating layer data
I0403 15:21:08.696142 14623 net.cpp:91] Creating Layer data
I0403 15:21:08.696176 14623 net.cpp:399] data -> data
I0403 15:21:08.696224 14623 net.cpp:399] data -> label
I0403 15:21:08.696260 14623 data_transformer.cpp:25] Loading mean file from: /home/mohanty/data/final_dataset/lmdb/color-50-50/mean.binaryproto
I0403 15:21:08.699259 14626 db_lmdb.cpp:38] Opened lmdb /home/mohanty/data/final_dataset/lmdb/color-50-50/test_db
I0403 15:21:08.709332 14623 data_layer.cpp:41] output data size: 24,3,224,224
I0403 15:21:08.735893 14623 net.cpp:141] Setting up data
I0403 15:21:08.735961 14623 net.cpp:148] Top shape: 24 3 224 224 (3612672)
I0403 15:21:08.735982 14623 net.cpp:148] Top shape: 24 (24)
I0403 15:21:08.735997 14623 net.cpp:156] Memory required for data: 14450784
I0403 15:21:08.736024 14623 layer_factory.hpp:77] Creating layer label_data_1_split
I0403 15:21:08.736049 14623 net.cpp:91] Creating Layer label_data_1_split
I0403 15:21:08.736068 14623 net.cpp:425] label_data_1_split <- label
I0403 15:21:08.736099 14623 net.cpp:399] label_data_1_split -> label_data_1_split_0
I0403 15:21:08.736127 14623 net.cpp:399] label_data_1_split -> label_data_1_split_1
I0403 15:21:08.736148 14623 net.cpp:399] label_data_1_split -> label_data_1_split_2
I0403 15:21:08.736167 14623 net.cpp:399] label_data_1_split -> label_data_1_split_3
I0403 15:21:08.736186 14623 net.cpp:399] label_data_1_split -> label_data_1_split_4
I0403 15:21:08.736205 14623 net.cpp:399] label_data_1_split -> label_data_1_split_5
I0403 15:21:08.736224 14623 net.cpp:399] label_data_1_split -> label_data_1_split_6
I0403 15:21:08.736243 14623 net.cpp:399] label_data_1_split -> label_data_1_split_7
I0403 15:21:08.736263 14623 net.cpp:399] label_data_1_split -> label_data_1_split_8
I0403 15:21:08.736282 14623 net.cpp:399] label_data_1_split -> label_data_1_split_9
I0403 15:21:08.736392 14623 net.cpp:141] Setting up label_data_1_split
I0403 15:21:08.736415 14623 net.cpp:148] Top shape: 24 (24)
I0403 15:21:08.736431 14623 net.cpp:148] Top shape: 24 (24)
I0403 15:21:08.736445 14623 net.cpp:148] Top shape: 24 (24)
I0403 15:21:08.736460 14623 net.cpp:148] Top shape: 24 (24)
I0403 15:21:08.736475 14623 net.cpp:148] Top shape: 24 (24)
I0403 15:21:08.736490 14623 net.cpp:148] Top shape: 24 (24)
I0403 15:21:08.736507 14623 net.cpp:148] Top shape: 24 (24)
I0403 15:21:08.736524 14623 net.cpp:148] Top shape: 24 (24)
I0403 15:21:08.736539 14623 net.cpp:148] Top shape: 24 (24)
I0403 15:21:08.736555 14623 net.cpp:148] Top shape: 24 (24)
I0403 15:21:08.736608 14623 net.cpp:156] Memory required for data: 14451744
I0403 15:21:08.736624 14623 layer_factory.hpp:77] Creating layer conv1/7x7_s2
I0403 15:21:08.736654 14623 net.cpp:91] Creating Layer conv1/7x7_s2
I0403 15:21:08.736672 14623 net.cpp:425] conv1/7x7_s2 <- data
I0403 15:21:08.736691 14623 net.cpp:399] conv1/7x7_s2 -> conv1/7x7_s2
I0403 15:21:08.875614 14623 net.cpp:141] Setting up conv1/7x7_s2
I0403 15:21:08.875679 14623 net.cpp:148] Top shape: 24 64 112 112 (19267584)
I0403 15:21:08.875695 14623 net.cpp:156] Memory required for data: 91522080
I0403 15:21:08.875725 14623 layer_factory.hpp:77] Creating layer conv1/relu_7x7
I0403 15:21:08.875751 14623 net.cpp:91] Creating Layer conv1/relu_7x7
I0403 15:21:08.875769 14623 net.cpp:425] conv1/relu_7x7 <- conv1/7x7_s2
I0403 15:21:08.875787 14623 net.cpp:386] conv1/relu_7x7 -> conv1/7x7_s2 (in-place)
I0403 15:21:08.876039 14623 net.cpp:141] Setting up conv1/relu_7x7
I0403 15:21:08.876066 14623 net.cpp:148] Top shape: 24 64 112 112 (19267584)
I0403 15:21:08.876082 14623 net.cpp:156] Memory required for data: 168592416
I0403 15:21:08.876097 14623 layer_factory.hpp:77] Creating layer pool1/3x3_s2
I0403 15:21:08.876122 14623 net.cpp:91] Creating Layer pool1/3x3_s2
I0403 15:21:08.876139 14623 net.cpp:425] pool1/3x3_s2 <- conv1/7x7_s2
I0403 15:21:08.876157 14623 net.cpp:399] pool1/3x3_s2 -> pool1/3x3_s2
I0403 15:21:08.876230 14623 net.cpp:141] Setting up pool1/3x3_s2
I0403 15:21:08.876252 14623 net.cpp:148] Top shape: 24 64 56 56 (4816896)
I0403 15:21:08.876267 14623 net.cpp:156] Memory required for data: 187860000
I0403 15:21:08.876282 14623 layer_factory.hpp:77] Creating layer pool1/norm1
I0403 15:21:08.876307 14623 net.cpp:91] Creating Layer pool1/norm1
I0403 15:21:08.876324 14623 net.cpp:425] pool1/norm1 <- pool1/3x3_s2
I0403 15:21:08.876341 14623 net.cpp:399] pool1/norm1 -> pool1/norm1
I0403 15:21:08.876626 14623 net.cpp:141] Setting up pool1/norm1
I0403 15:21:08.876652 14623 net.cpp:148] Top shape: 24 64 56 56 (4816896)
I0403 15:21:08.876668 14623 net.cpp:156] Memory required for data: 207127584
I0403 15:21:08.876682 14623 layer_factory.hpp:77] Creating layer conv2/3x3_reduce
I0403 15:21:08.876706 14623 net.cpp:91] Creating Layer conv2/3x3_reduce
I0403 15:21:08.876723 14623 net.cpp:425] conv2/3x3_reduce <- pool1/norm1
I0403 15:21:08.876740 14623 net.cpp:399] conv2/3x3_reduce -> conv2/3x3_reduce
I0403 15:21:08.878092 14623 net.cpp:141] Setting up conv2/3x3_reduce
I0403 15:21:08.878120 14623 net.cpp:148] Top shape: 24 64 56 56 (4816896)
I0403 15:21:08.878136 14623 net.cpp:156] Memory required for data: 226395168
I0403 15:21:08.878156 14623 layer_factory.hpp:77] Creating layer conv2/relu_3x3_reduce
I0403 15:21:08.878175 14623 net.cpp:91] Creating Layer conv2/relu_3x3_reduce
I0403 15:21:08.878191 14623 net.cpp:425] conv2/relu_3x3_reduce <- conv2/3x3_reduce
I0403 15:21:08.878208 14623 net.cpp:386] conv2/relu_3x3_reduce -> conv2/3x3_reduce (in-place)
I0403 15:21:08.878486 14623 net.cpp:141] Setting up conv2/relu_3x3_reduce
I0403 15:21:08.878512 14623 net.cpp:148] Top shape: 24 64 56 56 (4816896)
I0403 15:21:08.878527 14623 net.cpp:156] Memory required for data: 245662752
I0403 15:21:08.878547 14623 layer_factory.hpp:77] Creating layer conv2/3x3
I0403 15:21:08.878569 14623 net.cpp:91] Creating Layer conv2/3x3
I0403 15:21:08.878587 14623 net.cpp:425] conv2/3x3 <- conv2/3x3_reduce
I0403 15:21:08.878607 14623 net.cpp:399] conv2/3x3 -> conv2/3x3
I0403 15:21:08.880890 14623 net.cpp:141] Setting up conv2/3x3
I0403 15:21:08.880919 14623 net.cpp:148] Top shape: 24 192 56 56 (14450688)
I0403 15:21:08.880935 14623 net.cpp:156] Memory required for data: 303465504
I0403 15:21:08.880959 14623 layer_factory.hpp:77] Creating layer conv2/relu_3x3
I0403 15:21:08.880978 14623 net.cpp:91] Creating Layer conv2/relu_3x3
I0403 15:21:08.880993 14623 net.cpp:425] conv2/relu_3x3 <- conv2/3x3
I0403 15:21:08.881009 14623 net.cpp:386] conv2/relu_3x3 -> conv2/3x3 (in-place)
I0403 15:21:08.881186 14623 net.cpp:141] Setting up conv2/relu_3x3
I0403 15:21:08.881213 14623 net.cpp:148] Top shape: 24 192 56 56 (14450688)
I0403 15:21:08.881268 14623 net.cpp:156] Memory required for data: 361268256
I0403 15:21:08.881283 14623 layer_factory.hpp:77] Creating layer conv2/norm2
I0403 15:21:08.881300 14623 net.cpp:91] Creating Layer conv2/norm2
I0403 15:21:08.881316 14623 net.cpp:425] conv2/norm2 <- conv2/3x3
I0403 15:21:08.881336 14623 net.cpp:399] conv2/norm2 -> conv2/norm2
I0403 15:21:08.881644 14623 net.cpp:141] Setting up conv2/norm2
I0403 15:21:08.881671 14623 net.cpp:148] Top shape: 24 192 56 56 (14450688)
I0403 15:21:08.881690 14623 net.cpp:156] Memory required for data: 419071008
I0403 15:21:08.881705 14623 layer_factory.hpp:77] Creating layer pool2/3x3_s2
I0403 15:21:08.881726 14623 net.cpp:91] Creating Layer pool2/3x3_s2
I0403 15:21:08.881742 14623 net.cpp:425] pool2/3x3_s2 <- conv2/norm2
I0403 15:21:08.881762 14623 net.cpp:399] pool2/3x3_s2 -> pool2/3x3_s2
I0403 15:21:08.881819 14623 net.cpp:141] Setting up pool2/3x3_s2
I0403 15:21:08.881841 14623 net.cpp:148] Top shape: 24 192 28 28 (3612672)
I0403 15:21:08.881856 14623 net.cpp:156] Memory required for data: 433521696
I0403 15:21:08.881870 14623 layer_factory.hpp:77] Creating layer pool2/3x3_s2_pool2/3x3_s2_0_split
I0403 15:21:08.881886 14623 net.cpp:91] Creating Layer pool2/3x3_s2_pool2/3x3_s2_0_split
I0403 15:21:08.881901 14623 net.cpp:425] pool2/3x3_s2_pool2/3x3_s2_0_split <- pool2/3x3_s2
I0403 15:21:08.881919 14623 net.cpp:399] pool2/3x3_s2_pool2/3x3_s2_0_split -> pool2/3x3_s2_pool2/3x3_s2_0_split_0
I0403 15:21:08.881940 14623 net.cpp:399] pool2/3x3_s2_pool2/3x3_s2_0_split -> pool2/3x3_s2_pool2/3x3_s2_0_split_1
I0403 15:21:08.881960 14623 net.cpp:399] pool2/3x3_s2_pool2/3x3_s2_0_split -> pool2/3x3_s2_pool2/3x3_s2_0_split_2
I0403 15:21:08.881979 14623 net.cpp:399] pool2/3x3_s2_pool2/3x3_s2_0_split -> pool2/3x3_s2_pool2/3x3_s2_0_split_3
I0403 15:21:08.882050 14623 net.cpp:141] Setting up pool2/3x3_s2_pool2/3x3_s2_0_split
I0403 15:21:08.882071 14623 net.cpp:148] Top shape: 24 192 28 28 (3612672)
I0403 15:21:08.882086 14623 net.cpp:148] Top shape: 24 192 28 28 (3612672)
I0403 15:21:08.882102 14623 net.cpp:148] Top shape: 24 192 28 28 (3612672)
I0403 15:21:08.882117 14623 net.cpp:148] Top shape: 24 192 28 28 (3612672)
I0403 15:21:08.882129 14623 net.cpp:156] Memory required for data: 491324448
I0403 15:21:08.882143 14623 layer_factory.hpp:77] Creating layer inception_3a/1x1
I0403 15:21:08.882166 14623 net.cpp:91] Creating Layer inception_3a/1x1
I0403 15:21:08.882184 14623 net.cpp:425] inception_3a/1x1 <- pool2/3x3_s2_pool2/3x3_s2_0_split_0
I0403 15:21:08.882201 14623 net.cpp:399] inception_3a/1x1 -> inception_3a/1x1
I0403 15:21:08.883756 14623 net.cpp:141] Setting up inception_3a/1x1
I0403 15:21:08.883785 14623 net.cpp:148] Top shape: 24 64 28 28 (1204224)
I0403 15:21:08.883801 14623 net.cpp:156] Memory required for data: 496141344
I0403 15:21:08.883821 14623 layer_factory.hpp:77] Creating layer inception_3a/relu_1x1
I0403 15:21:08.883841 14623 net.cpp:91] Creating Layer inception_3a/relu_1x1
I0403 15:21:08.883857 14623 net.cpp:425] inception_3a/relu_1x1 <- inception_3a/1x1
I0403 15:21:08.883874 14623 net.cpp:386] inception_3a/relu_1x1 -> inception_3a/1x1 (in-place)
I0403 15:21:08.884047 14623 net.cpp:141] Setting up inception_3a/relu_1x1
I0403 15:21:08.884073 14623 net.cpp:148] Top shape: 24 64 28 28 (1204224)
I0403 15:21:08.884088 14623 net.cpp:156] Memory required for data: 500958240
I0403 15:21:08.884104 14623 layer_factory.hpp:77] Creating layer inception_3a/3x3_reduce
I0403 15:21:08.884125 14623 net.cpp:91] Creating Layer inception_3a/3x3_reduce
I0403 15:21:08.884142 14623 net.cpp:425] inception_3a/3x3_reduce <- pool2/3x3_s2_pool2/3x3_s2_0_split_1
I0403 15:21:08.884160 14623 net.cpp:399] inception_3a/3x3_reduce -> inception_3a/3x3_reduce
I0403 15:21:08.885924 14623 net.cpp:141] Setting up inception_3a/3x3_reduce
I0403 15:21:08.885954 14623 net.cpp:148] Top shape: 24 96 28 28 (1806336)
I0403 15:21:08.885970 14623 net.cpp:156] Memory required for data: 508183584
I0403 15:21:08.885994 14623 layer_factory.hpp:77] Creating layer inception_3a/relu_3x3_reduce
I0403 15:21:08.886029 14623 net.cpp:91] Creating Layer inception_3a/relu_3x3_reduce
I0403 15:21:08.886046 14623 net.cpp:425] inception_3a/relu_3x3_reduce <- inception_3a/3x3_reduce
I0403 15:21:08.886064 14623 net.cpp:386] inception_3a/relu_3x3_reduce -> inception_3a/3x3_reduce (in-place)
I0403 15:21:08.886245 14623 net.cpp:141] Setting up inception_3a/relu_3x3_reduce
I0403 15:21:08.886270 14623 net.cpp:148] Top shape: 24 96 28 28 (1806336)
I0403 15:21:08.886284 14623 net.cpp:156] Memory required for data: 515408928
I0403 15:21:08.886298 14623 layer_factory.hpp:77] Creating layer inception_3a/3x3
I0403 15:21:08.886322 14623 net.cpp:91] Creating Layer inception_3a/3x3
I0403 15:21:08.886338 14623 net.cpp:425] inception_3a/3x3 <- inception_3a/3x3_reduce
I0403 15:21:08.886358 14623 net.cpp:399] inception_3a/3x3 -> inception_3a/3x3
I0403 15:21:08.888011 14623 net.cpp:141] Setting up inception_3a/3x3
I0403 15:21:08.888043 14623 net.cpp:148] Top shape: 24 128 28 28 (2408448)
I0403 15:21:08.888061 14623 net.cpp:156] Memory required for data: 525042720
I0403 15:21:08.888078 14623 layer_factory.hpp:77] Creating layer inception_3a/relu_3x3
I0403 15:21:08.888098 14623 net.cpp:91] Creating Layer inception_3a/relu_3x3
I0403 15:21:08.888115 14623 net.cpp:425] inception_3a/relu_3x3 <- inception_3a/3x3
I0403 15:21:08.888133 14623 net.cpp:386] inception_3a/relu_3x3 -> inception_3a/3x3 (in-place)
I0403 15:21:08.888406 14623 net.cpp:141] Setting up inception_3a/relu_3x3
I0403 15:21:08.888432 14623 net.cpp:148] Top shape: 24 128 28 28 (2408448)
I0403 15:21:08.888447 14623 net.cpp:156] Memory required for data: 534676512
I0403 15:21:08.888460 14623 layer_factory.hpp:77] Creating layer inception_3a/5x5_reduce
I0403 15:21:08.888484 14623 net.cpp:91] Creating Layer inception_3a/5x5_reduce
I0403 15:21:08.888501 14623 net.cpp:425] inception_3a/5x5_reduce <- pool2/3x3_s2_pool2/3x3_s2_0_split_2
I0403 15:21:08.888520 14623 net.cpp:399] inception_3a/5x5_reduce -> inception_3a/5x5_reduce
I0403 15:21:08.889472 14623 net.cpp:141] Setting up inception_3a/5x5_reduce
I0403 15:21:08.889500 14623 net.cpp:148] Top shape: 24 16 28 28 (301056)
I0403 15:21:08.889515 14623 net.cpp:156] Memory required for data: 535880736
I0403 15:21:08.889533 14623 layer_factory.hpp:77] Creating layer inception_3a/relu_5x5_reduce
I0403 15:21:08.889559 14623 net.cpp:91] Creating Layer inception_3a/relu_5x5_reduce
I0403 15:21:08.889577 14623 net.cpp:425] inception_3a/relu_5x5_reduce <- inception_3a/5x5_reduce
I0403 15:21:08.889595 14623 net.cpp:386] inception_3a/relu_5x5_reduce -> inception_3a/5x5_reduce (in-place)
I0403 15:21:08.889883 14623 net.cpp:141] Setting up inception_3a/relu_5x5_reduce
I0403 15:21:08.889911 14623 net.cpp:148] Top shape: 24 16 28 28 (301056)
I0403 15:21:08.889926 14623 net.cpp:156] Memory required for data: 537084960
I0403 15:21:08.889940 14623 layer_factory.hpp:77] Creating layer inception_3a/5x5
I0403 15:21:08.889962 14623 net.cpp:91] Creating Layer inception_3a/5x5
I0403 15:21:08.889979 14623 net.cpp:425] inception_3a/5x5 <- inception_3a/5x5_reduce
I0403 15:21:08.889997 14623 net.cpp:399] inception_3a/5x5 -> inception_3a/5x5
I0403 15:21:08.891005 14623 net.cpp:141] Setting up inception_3a/5x5
I0403 15:21:08.891032 14623 net.cpp:148] Top shape: 24 32 28 28 (602112)
I0403 15:21:08.891048 14623 net.cpp:156] Memory required for data: 539493408
I0403 15:21:08.891067 14623 layer_factory.hpp:77] Creating layer inception_3a/relu_5x5
I0403 15:21:08.891088 14623 net.cpp:91] Creating Layer inception_3a/relu_5x5
I0403 15:21:08.891104 14623 net.cpp:425] inception_3a/relu_5x5 <- inception_3a/5x5
I0403 15:21:08.891121 14623 net.cpp:386] inception_3a/relu_5x5 -> inception_3a/5x5 (in-place)
I0403 15:21:08.891289 14623 net.cpp:141] Setting up inception_3a/relu_5x5
I0403 15:21:08.891316 14623 net.cpp:148] Top shape: 24 32 28 28 (602112)
I0403 15:21:08.891331 14623 net.cpp:156] Memory required for data: 541901856
I0403 15:21:08.891345 14623 layer_factory.hpp:77] Creating layer inception_3a/pool
I0403 15:21:08.891362 14623 net.cpp:91] Creating Layer inception_3a/pool
I0403 15:21:08.891378 14623 net.cpp:425] inception_3a/pool <- pool2/3x3_s2_pool2/3x3_s2_0_split_3
I0403 15:21:08.891414 14623 net.cpp:399] inception_3a/pool -> inception_3a/pool
I0403 15:21:08.891472 14623 net.cpp:141] Setting up inception_3a/pool
I0403 15:21:08.891495 14623 net.cpp:148] Top shape: 24 192 28 28 (3612672)
I0403 15:21:08.891510 14623 net.cpp:156] Memory required for data: 556352544
I0403 15:21:08.891525 14623 layer_factory.hpp:77] Creating layer inception_3a/pool_proj
I0403 15:21:08.891551 14623 net.cpp:91] Creating Layer inception_3a/pool_proj
I0403 15:21:08.891569 14623 net.cpp:425] inception_3a/pool_proj <- inception_3a/pool
I0403 15:21:08.891590 14623 net.cpp:399] inception_3a/pool_proj -> inception_3a/pool_proj
I0403 15:21:08.892549 14623 net.cpp:141] Setting up inception_3a/pool_proj
I0403 15:21:08.892578 14623 net.cpp:148] Top shape: 24 32 28 28 (602112)
I0403 15:21:08.892593 14623 net.cpp:156] Memory required for data: 558760992
I0403 15:21:08.892616 14623 layer_factory.hpp:77] Creating layer inception_3a/relu_pool_proj
I0403 15:21:08.892637 14623 net.cpp:91] Creating Layer inception_3a/relu_pool_proj
I0403 15:21:08.892652 14623 net.cpp:425] inception_3a/relu_pool_proj <- inception_3a/pool_proj
I0403 15:21:08.892669 14623 net.cpp:386] inception_3a/relu_pool_proj -> inception_3a/pool_proj (in-place)
I0403 15:21:08.892941 14623 net.cpp:141] Setting up inception_3a/relu_pool_proj
I0403 15:21:08.892967 14623 net.cpp:148] Top shape: 24 32 28 28 (602112)
I0403 15:21:08.892982 14623 net.cpp:156] Memory required for data: 561169440
I0403 15:21:08.892997 14623 layer_factory.hpp:77] Creating layer inception_3a/output
I0403 15:21:08.893016 14623 net.cpp:91] Creating Layer inception_3a/output
I0403 15:21:08.893033 14623 net.cpp:425] inception_3a/output <- inception_3a/1x1
I0403 15:21:08.893049 14623 net.cpp:425] inception_3a/output <- inception_3a/3x3
I0403 15:21:08.893064 14623 net.cpp:425] inception_3a/output <- inception_3a/5x5
I0403 15:21:08.893079 14623 net.cpp:425] inception_3a/output <- inception_3a/pool_proj
I0403 15:21:08.893095 14623 net.cpp:399] inception_3a/output -> inception_3a/output
I0403 15:21:08.893142 14623 net.cpp:141] Setting up inception_3a/output
I0403 15:21:08.893164 14623 net.cpp:148] Top shape: 24 256 28 28 (4816896)
I0403 15:21:08.893178 14623 net.cpp:156] Memory required for data: 580437024
I0403 15:21:08.893193 14623 layer_factory.hpp:77] Creating layer inception_3a/output_inception_3a/output_0_split
I0403 15:21:08.893209 14623 net.cpp:91] Creating Layer inception_3a/output_inception_3a/output_0_split
I0403 15:21:08.893224 14623 net.cpp:425] inception_3a/output_inception_3a/output_0_split <- inception_3a/output
I0403 15:21:08.893244 14623 net.cpp:399] inception_3a/output_inception_3a/output_0_split -> inception_3a/output_inception_3a/output_0_split_0
I0403 15:21:08.893263 14623 net.cpp:399] inception_3a/output_inception_3a/output_0_split -> inception_3a/output_inception_3a/output_0_split_1
I0403 15:21:08.893287 14623 net.cpp:399] inception_3a/output_inception_3a/output_0_split -> inception_3a/output_inception_3a/output_0_split_2
I0403 15:21:08.893308 14623 net.cpp:399] inception_3a/output_inception_3a/output_0_split -> inception_3a/output_inception_3a/output_0_split_3
I0403 15:21:08.893380 14623 net.cpp:141] Setting up inception_3a/output_inception_3a/output_0_split
I0403 15:21:08.893402 14623 net.cpp:148] Top shape: 24 256 28 28 (4816896)
I0403 15:21:08.893419 14623 net.cpp:148] Top shape: 24 256 28 28 (4816896)
I0403 15:21:08.893435 14623 net.cpp:148] Top shape: 24 256 28 28 (4816896)
I0403 15:21:08.893450 14623 net.cpp:148] Top shape: 24 256 28 28 (4816896)
I0403 15:21:08.893463 14623 net.cpp:156] Memory required for data: 657507360
I0403 15:21:08.893477 14623 layer_factory.hpp:77] Creating layer inception_3b/1x1
I0403 15:21:08.893499 14623 net.cpp:91] Creating Layer inception_3b/1x1
I0403 15:21:08.893517 14623 net.cpp:425] inception_3b/1x1 <- inception_3a/output_inception_3a/output_0_split_0
I0403 15:21:08.893540 14623 net.cpp:399] inception_3b/1x1 -> inception_3b/1x1
I0403 15:21:08.894667 14623 net.cpp:141] Setting up inception_3b/1x1
I0403 15:21:08.894706 14623 net.cpp:148] Top shape: 24 128 28 28 (2408448)
I0403 15:21:08.894723 14623 net.cpp:156] Memory required for data: 667141152
I0403 15:21:08.894742 14623 layer_factory.hpp:77] Creating layer inception_3b/relu_1x1
I0403 15:21:08.894762 14623 net.cpp:91] Creating Layer inception_3b/relu_1x1
I0403 15:21:08.894779 14623 net.cpp:425] inception_3b/relu_1x1 <- inception_3b/1x1
I0403 15:21:08.894796 14623 net.cpp:386] inception_3b/relu_1x1 -> inception_3b/1x1 (in-place)
I0403 15:21:08.894973 14623 net.cpp:141] Setting up inception_3b/relu_1x1
I0403 15:21:08.894996 14623 net.cpp:148] Top shape: 24 128 28 28 (2408448)
I0403 15:21:08.895011 14623 net.cpp:156] Memory required for data: 676774944
I0403 15:21:08.895025 14623 layer_factory.hpp:77] Creating layer inception_3b/3x3_reduce
I0403 15:21:08.895048 14623 net.cpp:91] Creating Layer inception_3b/3x3_reduce
I0403 15:21:08.895066 14623 net.cpp:425] inception_3b/3x3_reduce <- inception_3a/output_inception_3a/output_0_split_1
I0403 15:21:08.895084 14623 net.cpp:399] inception_3b/3x3_reduce -> inception_3b/3x3_reduce
I0403 15:21:08.896215 14623 net.cpp:141] Setting up inception_3b/3x3_reduce
I0403 15:21:08.896242 14623 net.cpp:148] Top shape: 24 128 28 28 (2408448)
I0403 15:21:08.896257 14623 net.cpp:156] Memory required for data: 686408736
I0403 15:21:08.896275 14623 layer_factory.hpp:77] Creating layer inception_3b/relu_3x3_reduce
I0403 15:21:08.896292 14623 net.cpp:91] Creating Layer inception_3b/relu_3x3_reduce
I0403 15:21:08.896308 14623 net.cpp:425] inception_3b/relu_3x3_reduce <- inception_3b/3x3_reduce
I0403 15:21:08.896327 14623 net.cpp:386] inception_3b/relu_3x3_reduce -> inception_3b/3x3_reduce (in-place)
I0403 15:21:08.896499 14623 net.cpp:141] Setting up inception_3b/relu_3x3_reduce
I0403 15:21:08.896523 14623 net.cpp:148] Top shape: 24 128 28 28 (2408448)
I0403 15:21:08.896543 14623 net.cpp:156] Memory required for data: 696042528
I0403 15:21:08.896559 14623 layer_factory.hpp:77] Creating layer inception_3b/3x3
I0403 15:21:08.896587 14623 net.cpp:91] Creating Layer inception_3b/3x3
I0403 15:21:08.896605 14623 net.cpp:425] inception_3b/3x3 <- inception_3b/3x3_reduce
I0403 15:21:08.896626 14623 net.cpp:399] inception_3b/3x3 -> inception_3b/3x3
I0403 15:21:08.899518 14623 net.cpp:141] Setting up inception_3b/3x3
I0403 15:21:08.899550 14623 net.cpp:148] Top shape: 24 192 28 28 (3612672)
I0403 15:21:08.899566 14623 net.cpp:156] Memory required for data: 710493216
I0403 15:21:08.899585 14623 layer_factory.hpp:77] Creating layer inception_3b/relu_3x3
I0403 15:21:08.899605 14623 net.cpp:91] Creating Layer inception_3b/relu_3x3
I0403 15:21:08.899621 14623 net.cpp:425] inception_3b/relu_3x3 <- inception_3b/3x3
I0403 15:21:08.899638 14623 net.cpp:386] inception_3b/relu_3x3 -> inception_3b/3x3 (in-place)
I0403 15:21:08.899915 14623 net.cpp:141] Setting up inception_3b/relu_3x3
I0403 15:21:08.899941 14623 net.cpp:148] Top shape: 24 192 28 28 (3612672)
I0403 15:21:08.899956 14623 net.cpp:156] Memory required for data: 724943904
I0403 15:21:08.899971 14623 layer_factory.hpp:77] Creating layer inception_3b/5x5_reduce
I0403 15:21:08.899993 14623 net.cpp:91] Creating Layer inception_3b/5x5_reduce
I0403 15:21:08.900013 14623 net.cpp:425] inception_3b/5x5_reduce <- inception_3a/output_inception_3a/output_0_split_2
I0403 15:21:08.900032 14623 net.cpp:399] inception_3b/5x5_reduce -> inception_3b/5x5_reduce
I0403 15:21:08.901028 14623 net.cpp:141] Setting up inception_3b/5x5_reduce
I0403 15:21:08.901057 14623 net.cpp:148] Top shape: 24 32 28 28 (602112)
I0403 15:21:08.901072 14623 net.cpp:156] Memory required for data: 727352352
I0403 15:21:08.901089 14623 layer_factory.hpp:77] Creating layer inception_3b/relu_5x5_reduce
I0403 15:21:08.901109 14623 net.cpp:91] Creating Layer inception_3b/relu_5x5_reduce
I0403 15:21:08.901126 14623 net.cpp:425] inception_3b/relu_5x5_reduce <- inception_3b/5x5_reduce
I0403 15:21:08.901144 14623 net.cpp:386] inception_3b/relu_5x5_reduce -> inception_3b/5x5_reduce (in-place)
I0403 15:21:08.901317 14623 net.cpp:141] Setting up inception_3b/relu_5x5_reduce
I0403 15:21:08.901357 14623 net.cpp:148] Top shape: 24 32 28 28 (602112)
I0403 15:21:08.901373 14623 net.cpp:156] Memory required for data: 729760800
I0403 15:21:08.901388 14623 layer_factory.hpp:77] Creating layer inception_3b/5x5
I0403 15:21:08.901410 14623 net.cpp:91] Creating Layer inception_3b/5x5
I0403 15:21:08.901428 14623 net.cpp:425] inception_3b/5x5 <- inception_3b/5x5_reduce
I0403 15:21:08.901446 14623 net.cpp:399] inception_3b/5x5 -> inception_3b/5x5
I0403 15:21:08.903414 14623 net.cpp:141] Setting up inception_3b/5x5
I0403 15:21:08.903444 14623 net.cpp:148] Top shape: 24 96 28 28 (1806336)
I0403 15:21:08.903458 14623 net.cpp:156] Memory required for data: 736986144
I0403 15:21:08.903477 14623 layer_factory.hpp:77] Creating layer inception_3b/relu_5x5
I0403 15:21:08.903494 14623 net.cpp:91] Creating Layer inception_3b/relu_5x5
I0403 15:21:08.903509 14623 net.cpp:425] inception_3b/relu_5x5 <- inception_3b/5x5
I0403 15:21:08.903530 14623 net.cpp:386] inception_3b/relu_5x5 -> inception_3b/5x5 (in-place)
I0403 15:21:08.903735 14623 net.cpp:141] Setting up inception_3b/relu_5x5
I0403 15:21:08.903760 14623 net.cpp:148] Top shape: 24 96 28 28 (1806336)
I0403 15:21:08.903775 14623 net.cpp:156] Memory required for data: 744211488
I0403 15:21:08.903790 14623 layer_factory.hpp:77] Creating layer inception_3b/pool
I0403 15:21:08.903807 14623 net.cpp:91] Creating Layer inception_3b/pool
I0403 15:21:08.903823 14623 net.cpp:425] inception_3b/pool <- inception_3a/output_inception_3a/output_0_split_3
I0403 15:21:08.903841 14623 net.cpp:399] inception_3b/pool -> inception_3b/pool
I0403 15:21:08.903895 14623 net.cpp:141] Setting up inception_3b/pool
I0403 15:21:08.903918 14623 net.cpp:148] Top shape: 24 256 28 28 (4816896)
I0403 15:21:08.903934 14623 net.cpp:156] Memory required for data: 763479072
I0403 15:21:08.903947 14623 layer_factory.hpp:77] Creating layer inception_3b/pool_proj
I0403 15:21:08.903969 14623 net.cpp:91] Creating Layer inception_3b/pool_proj
I0403 15:21:08.903986 14623 net.cpp:425] inception_3b/pool_proj <- inception_3b/pool
I0403 15:21:08.904006 14623 net.cpp:399] inception_3b/pool_proj -> inception_3b/pool_proj
I0403 15:21:08.905050 14623 net.cpp:141] Setting up inception_3b/pool_proj
I0403 15:21:08.905079 14623 net.cpp:148] Top shape: 24 64 28 28 (1204224)
I0403 15:21:08.905095 14623 net.cpp:156] Memory required for data: 768295968
I0403 15:21:08.905113 14623 layer_factory.hpp:77] Creating layer inception_3b/relu_pool_proj
I0403 15:21:08.905130 14623 net.cpp:91] Creating Layer inception_3b/relu_pool_proj
I0403 15:21:08.905146 14623 net.cpp:425] inception_3b/relu_pool_proj <- inception_3b/pool_proj
I0403 15:21:08.905165 14623 net.cpp:386] inception_3b/relu_pool_proj -> inception_3b/pool_proj (in-place)
I0403 15:21:08.905571 14623 net.cpp:141] Setting up inception_3b/relu_pool_proj
I0403 15:21:08.905611 14623 net.cpp:148] Top shape: 24 64 28 28 (1204224)
I0403 15:21:08.905632 14623 net.cpp:156] Memory required for data: 773112864
I0403 15:21:08.905648 14623 layer_factory.hpp:77] Creating layer inception_3b/output
I0403 15:21:08.905665 14623 net.cpp:91] Creating Layer inception_3b/output
I0403 15:21:08.905680 14623 net.cpp:425] inception_3b/output <- inception_3b/1x1
I0403 15:21:08.905697 14623 net.cpp:425] inception_3b/output <- inception_3b/3x3
I0403 15:21:08.905714 14623 net.cpp:425] inception_3b/output <- inception_3b/5x5
I0403 15:21:08.905730 14623 net.cpp:425] inception_3b/output <- inception_3b/pool_proj
I0403 15:21:08.905746 14623 net.cpp:399] inception_3b/output -> inception_3b/output
I0403 15:21:08.905792 14623 net.cpp:141] Setting up inception_3b/output
I0403 15:21:08.905815 14623 net.cpp:148] Top shape: 24 480 28 28 (9031680)
I0403 15:21:08.905830 14623 net.cpp:156] Memory required for data: 809239584
I0403 15:21:08.905845 14623 layer_factory.hpp:77] Creating layer pool3/3x3_s2
I0403 15:21:08.905865 14623 net.cpp:91] Creating Layer pool3/3x3_s2
I0403 15:21:08.905894 14623 net.cpp:425] pool3/3x3_s2 <- inception_3b/output
I0403 15:21:08.905911 14623 net.cpp:399] pool3/3x3_s2 -> pool3/3x3_s2
I0403 15:21:08.905984 14623 net.cpp:141] Setting up pool3/3x3_s2
I0403 15:21:08.906008 14623 net.cpp:148] Top shape: 24 480 14 14 (2257920)
I0403 15:21:08.906023 14623 net.cpp:156] Memory required for data: 818271264
I0403 15:21:08.906038 14623 layer_factory.hpp:77] Creating layer pool3/3x3_s2_pool3/3x3_s2_0_split
I0403 15:21:08.906054 14623 net.cpp:91] Creating Layer pool3/3x3_s2_pool3/3x3_s2_0_split
I0403 15:21:08.906069 14623 net.cpp:425] pool3/3x3_s2_pool3/3x3_s2_0_split <- pool3/3x3_s2
I0403 15:21:08.906088 14623 net.cpp:399] pool3/3x3_s2_pool3/3x3_s2_0_split -> pool3/3x3_s2_pool3/3x3_s2_0_split_0
I0403 15:21:08.906108 14623 net.cpp:399] pool3/3x3_s2_pool3/3x3_s2_0_split -> pool3/3x3_s2_pool3/3x3_s2_0_split_1
I0403 15:21:08.906127 14623 net.cpp:399] pool3/3x3_s2_pool3/3x3_s2_0_split -> pool3/3x3_s2_pool3/3x3_s2_0_split_2
I0403 15:21:08.906147 14623 net.cpp:399] pool3/3x3_s2_pool3/3x3_s2_0_split -> pool3/3x3_s2_pool3/3x3_s2_0_split_3
I0403 15:21:08.906221 14623 net.cpp:141] Setting up pool3/3x3_s2_pool3/3x3_s2_0_split
I0403 15:21:08.906246 14623 net.cpp:148] Top shape: 24 480 14 14 (2257920)
I0403 15:21:08.906263 14623 net.cpp:148] Top shape: 24 480 14 14 (2257920)
I0403 15:21:08.906278 14623 net.cpp:148] Top shape: 24 480 14 14 (2257920)
I0403 15:21:08.906293 14623 net.cpp:148] Top shape: 24 480 14 14 (2257920)
I0403 15:21:08.906306 14623 net.cpp:156] Memory required for data: 854397984
I0403 15:21:08.906321 14623 layer_factory.hpp:77] Creating layer inception_4a/1x1
I0403 15:21:08.906342 14623 net.cpp:91] Creating Layer inception_4a/1x1
I0403 15:21:08.906359 14623 net.cpp:425] inception_4a/1x1 <- pool3/3x3_s2_pool3/3x3_s2_0_split_0
I0403 15:21:08.906378 14623 net.cpp:399] inception_4a/1x1 -> inception_4a/1x1
I0403 15:21:08.907939 14623 net.cpp:141] Setting up inception_4a/1x1
I0403 15:21:08.907966 14623 net.cpp:148] Top shape: 24 192 14 14 (903168)
I0403 15:21:08.907981 14623 net.cpp:156] Memory required for data: 858010656
I0403 15:21:08.907999 14623 layer_factory.hpp:77] Creating layer inception_4a/relu_1x1
I0403 15:21:08.908017 14623 net.cpp:91] Creating Layer inception_4a/relu_1x1
I0403 15:21:08.908032 14623 net.cpp:425] inception_4a/relu_1x1 <- inception_4a/1x1
I0403 15:21:08.908051 14623 net.cpp:386] inception_4a/relu_1x1 -> inception_4a/1x1 (in-place)
I0403 15:21:08.908227 14623 net.cpp:141] Setting up inception_4a/relu_1x1
I0403 15:21:08.908252 14623 net.cpp:148] Top shape: 24 192 14 14 (903168)
I0403 15:21:08.908267 14623 net.cpp:156] Memory required for data: 861623328
I0403 15:21:08.908282 14623 layer_factory.hpp:77] Creating layer inception_4a/3x3_reduce
I0403 15:21:08.908303 14623 net.cpp:91] Creating Layer inception_4a/3x3_reduce
I0403 15:21:08.908319 14623 net.cpp:425] inception_4a/3x3_reduce <- pool3/3x3_s2_pool3/3x3_s2_0_split_1
I0403 15:21:08.908340 14623 net.cpp:399] inception_4a/3x3_reduce -> inception_4a/3x3_reduce
I0403 15:21:08.909610 14623 net.cpp:141] Setting up inception_4a/3x3_reduce
I0403 15:21:08.909638 14623 net.cpp:148] Top shape: 24 96 14 14 (451584)
I0403 15:21:08.909654 14623 net.cpp:156] Memory required for data: 863429664
I0403 15:21:08.909682 14623 layer_factory.hpp:77] Creating layer inception_4a/relu_3x3_reduce
I0403 15:21:08.909701 14623 net.cpp:91] Creating Layer inception_4a/relu_3x3_reduce
I0403 15:21:08.909718 14623 net.cpp:425] inception_4a/relu_3x3_reduce <- inception_4a/3x3_reduce
I0403 15:21:08.909734 14623 net.cpp:386] inception_4a/relu_3x3_reduce -> inception_4a/3x3_reduce (in-place)
I0403 15:21:08.909909 14623 net.cpp:141] Setting up inception_4a/relu_3x3_reduce
I0403 15:21:08.909934 14623 net.cpp:148] Top shape: 24 96 14 14 (451584)
I0403 15:21:08.909948 14623 net.cpp:156] Memory required for data: 865236000
I0403 15:21:08.909963 14623 layer_factory.hpp:77] Creating layer inception_4a/3x3
I0403 15:21:08.909986 14623 net.cpp:91] Creating Layer inception_4a/3x3
I0403 15:21:08.910003 14623 net.cpp:425] inception_4a/3x3 <- inception_4a/3x3_reduce
I0403 15:21:08.910024 14623 net.cpp:399] inception_4a/3x3 -> inception_4a/3x3
I0403 15:21:08.912690 14623 net.cpp:141] Setting up inception_4a/3x3
I0403 15:21:08.912719 14623 net.cpp:148] Top shape: 24 208 14 14 (978432)
I0403 15:21:08.912735 14623 net.cpp:156] Memory required for data: 869149728
I0403 15:21:08.912753 14623 layer_factory.hpp:77] Creating layer inception_4a/relu_3x3
I0403 15:21:08.912772 14623 net.cpp:91] Creating Layer inception_4a/relu_3x3
I0403 15:21:08.912789 14623 net.cpp:425] inception_4a/relu_3x3 <- inception_4a/3x3
I0403 15:21:08.912806 14623 net.cpp:386] inception_4a/relu_3x3 -> inception_4a/3x3 (in-place)
I0403 15:21:08.913092 14623 net.cpp:141] Setting up inception_4a/relu_3x3
I0403 15:21:08.913118 14623 net.cpp:148] Top shape: 24 208 14 14 (978432)
I0403 15:21:08.913133 14623 net.cpp:156] Memory required for data: 873063456
I0403 15:21:08.913147 14623 layer_factory.hpp:77] Creating layer inception_4a/5x5_reduce
I0403 15:21:08.913169 14623 net.cpp:91] Creating Layer inception_4a/5x5_reduce
I0403 15:21:08.913187 14623 net.cpp:425] inception_4a/5x5_reduce <- pool3/3x3_s2_pool3/3x3_s2_0_split_2
I0403 15:21:08.913208 14623 net.cpp:399] inception_4a/5x5_reduce -> inception_4a/5x5_reduce
I0403 15:21:08.914230 14623 net.cpp:141] Setting up inception_4a/5x5_reduce
I0403 15:21:08.914258 14623 net.cpp:148] Top shape: 24 16 14 14 (75264)
I0403 15:21:08.914273 14623 net.cpp:156] Memory required for data: 873364512
I0403 15:21:08.914290 14623 layer_factory.hpp:77] Creating layer inception_4a/relu_5x5_reduce
I0403 15:21:08.914309 14623 net.cpp:91] Creating Layer inception_4a/relu_5x5_reduce
I0403 15:21:08.914326 14623 net.cpp:425] inception_4a/relu_5x5_reduce <- inception_4a/5x5_reduce
I0403 15:21:08.914345 14623 net.cpp:386] inception_4a/relu_5x5_reduce -> inception_4a/5x5_reduce (in-place)
I0403 15:21:08.914518 14623 net.cpp:141] Setting up inception_4a/relu_5x5_reduce
I0403 15:21:08.914551 14623 net.cpp:148] Top shape: 24 16 14 14 (75264)
I0403 15:21:08.914568 14623 net.cpp:156] Memory required for data: 873665568
I0403 15:21:08.914583 14623 layer_factory.hpp:77] Creating layer inception_4a/5x5
I0403 15:21:08.914604 14623 net.cpp:91] Creating Layer inception_4a/5x5
I0403 15:21:08.914623 14623 net.cpp:425] inception_4a/5x5 <- inception_4a/5x5_reduce
I0403 15:21:08.914643 14623 net.cpp:399] inception_4a/5x5 -> inception_4a/5x5
I0403 15:21:08.915735 14623 net.cpp:141] Setting up inception_4a/5x5
I0403 15:21:08.915763 14623 net.cpp:148] Top shape: 24 48 14 14 (225792)
I0403 15:21:08.915781 14623 net.cpp:156] Memory required for data: 874568736
I0403 15:21:08.915798 14623 layer_factory.hpp:77] Creating layer inception_4a/relu_5x5
I0403 15:21:08.915815 14623 net.cpp:91] Creating Layer inception_4a/relu_5x5
I0403 15:21:08.915832 14623 net.cpp:425] inception_4a/relu_5x5 <- inception_4a/5x5
I0403 15:21:08.915850 14623 net.cpp:386] inception_4a/relu_5x5 -> inception_4a/5x5 (in-place)
I0403 15:21:08.916026 14623 net.cpp:141] Setting up inception_4a/relu_5x5
I0403 15:21:08.916051 14623 net.cpp:148] Top shape: 24 48 14 14 (225792)
I0403 15:21:08.916066 14623 net.cpp:156] Memory required for data: 875471904
I0403 15:21:08.916081 14623 layer_factory.hpp:77] Creating layer inception_4a/pool
I0403 15:21:08.916098 14623 net.cpp:91] Creating Layer inception_4a/pool
I0403 15:21:08.916113 14623 net.cpp:425] inception_4a/pool <- pool3/3x3_s2_pool3/3x3_s2_0_split_3
I0403 15:21:08.916133 14623 net.cpp:399] inception_4a/pool -> inception_4a/pool
I0403 15:21:08.916194 14623 net.cpp:141] Setting up inception_4a/pool
I0403 15:21:08.916218 14623 net.cpp:148] Top shape: 24 480 14 14 (2257920)
I0403 15:21:08.916231 14623 net.cpp:156] Memory required for data: 884503584
I0403 15:21:08.916245 14623 layer_factory.hpp:77] Creating layer inception_4a/pool_proj
I0403 15:21:08.916271 14623 net.cpp:91] Creating Layer inception_4a/pool_proj
I0403 15:21:08.916288 14623 net.cpp:425] inception_4a/pool_proj <- inception_4a/pool
I0403 15:21:08.916306 14623 net.cpp:399] inception_4a/pool_proj -> inception_4a/pool_proj
I0403 15:21:08.917469 14623 net.cpp:141] Setting up inception_4a/pool_proj
I0403 15:21:08.917500 14623 net.cpp:148] Top shape: 24 64 14 14 (301056)
I0403 15:21:08.917529 14623 net.cpp:156] Memory required for data: 885707808
I0403 15:21:08.917554 14623 layer_factory.hpp:77] Creating layer inception_4a/relu_pool_proj
I0403 15:21:08.917574 14623 net.cpp:91] Creating Layer inception_4a/relu_pool_proj
I0403 15:21:08.917590 14623 net.cpp:425] inception_4a/relu_pool_proj <- inception_4a/pool_proj
I0403 15:21:08.917611 14623 net.cpp:386] inception_4a/relu_pool_proj -> inception_4a/pool_proj (in-place)
I0403 15:21:08.917891 14623 net.cpp:141] Setting up inception_4a/relu_pool_proj
I0403 15:21:08.917919 14623 net.cpp:148] Top shape: 24 64 14 14 (301056)
I0403 15:21:08.917935 14623 net.cpp:156] Memory required for data: 886912032
I0403 15:21:08.917950 14623 layer_factory.hpp:77] Creating layer inception_4a/output
I0403 15:21:08.917968 14623 net.cpp:91] Creating Layer inception_4a/output
I0403 15:21:08.917984 14623 net.cpp:425] inception_4a/output <- inception_4a/1x1
I0403 15:21:08.917999 14623 net.cpp:425] inception_4a/output <- inception_4a/3x3
I0403 15:21:08.918015 14623 net.cpp:425] inception_4a/output <- inception_4a/5x5
I0403 15:21:08.918030 14623 net.cpp:425] inception_4a/output <- inception_4a/pool_proj
I0403 15:21:08.918051 14623 net.cpp:399] inception_4a/output -> inception_4a/output
I0403 15:21:08.918093 14623 net.cpp:141] Setting up inception_4a/output
I0403 15:21:08.918117 14623 net.cpp:148] Top shape: 24 512 14 14 (2408448)
I0403 15:21:08.918131 14623 net.cpp:156] Memory required for data: 896545824
I0403 15:21:08.918145 14623 layer_factory.hpp:77] Creating layer inception_4a/output_inception_4a/output_0_split
I0403 15:21:08.918164 14623 net.cpp:91] Creating Layer inception_4a/output_inception_4a/output_0_split
I0403 15:21:08.918181 14623 net.cpp:425] inception_4a/output_inception_4a/output_0_split <- inception_4a/output
I0403 15:21:08.918198 14623 net.cpp:399] inception_4a/output_inception_4a/output_0_split -> inception_4a/output_inception_4a/output_0_split_0
I0403 15:21:08.918220 14623 net.cpp:399] inception_4a/output_inception_4a/output_0_split -> inception_4a/output_inception_4a/output_0_split_1
I0403 15:21:08.918241 14623 net.cpp:399] inception_4a/output_inception_4a/output_0_split -> inception_4a/output_inception_4a/output_0_split_2
I0403 15:21:08.918261 14623 net.cpp:399] inception_4a/output_inception_4a/output_0_split -> inception_4a/output_inception_4a/output_0_split_3
I0403 15:21:08.918280 14623 net.cpp:399] inception_4a/output_inception_4a/output_0_split -> inception_4a/output_inception_4a/output_0_split_4
I0403 15:21:08.918372 14623 net.cpp:141] Setting up inception_4a/output_inception_4a/output_0_split
I0403 15:21:08.918395 14623 net.cpp:148] Top shape: 24 512 14 14 (2408448)
I0403 15:21:08.918411 14623 net.cpp:148] Top shape: 24 512 14 14 (2408448)
I0403 15:21:08.918426 14623 net.cpp:148] Top shape: 24 512 14 14 (2408448)
I0403 15:21:08.918442 14623 net.cpp:148] Top shape: 24 512 14 14 (2408448)
I0403 15:21:08.918457 14623 net.cpp:148] Top shape: 24 512 14 14 (2408448)
I0403 15:21:08.918470 14623 net.cpp:156] Memory required for data: 944714784
I0403 15:21:08.918484 14623 layer_factory.hpp:77] Creating layer loss1/ave_pool
I0403 15:21:08.918504 14623 net.cpp:91] Creating Layer loss1/ave_pool
I0403 15:21:08.918521 14623 net.cpp:425] loss1/ave_pool <- inception_4a/output_inception_4a/output_0_split_0
I0403 15:21:08.918543 14623 net.cpp:399] loss1/ave_pool -> loss1/ave_pool
I0403 15:21:08.918748 14623 net.cpp:141] Setting up loss1/ave_pool
I0403 15:21:08.918776 14623 net.cpp:148] Top shape: 24 512 4 4 (196608)
I0403 15:21:08.918792 14623 net.cpp:156] Memory required for data: 945501216
I0403 15:21:08.918807 14623 layer_factory.hpp:77] Creating layer loss1/conv
I0403 15:21:08.918828 14623 net.cpp:91] Creating Layer loss1/conv
I0403 15:21:08.918846 14623 net.cpp:425] loss1/conv <- loss1/ave_pool
I0403 15:21:08.918864 14623 net.cpp:399] loss1/conv -> loss1/conv
I0403 15:21:08.920255 14623 net.cpp:141] Setting up loss1/conv
I0403 15:21:08.920282 14623 net.cpp:148] Top shape: 24 128 4 4 (49152)
I0403 15:21:08.920297 14623 net.cpp:156] Memory required for data: 945697824
I0403 15:21:08.920330 14623 layer_factory.hpp:77] Creating layer loss1/relu_conv
I0403 15:21:08.920351 14623 net.cpp:91] Creating Layer loss1/relu_conv
I0403 15:21:08.920367 14623 net.cpp:425] loss1/relu_conv <- loss1/conv
I0403 15:21:08.920383 14623 net.cpp:386] loss1/relu_conv -> loss1/conv (in-place)
I0403 15:21:08.920660 14623 net.cpp:141] Setting up loss1/relu_conv
I0403 15:21:08.920686 14623 net.cpp:148] Top shape: 24 128 4 4 (49152)
I0403 15:21:08.920701 14623 net.cpp:156] Memory required for data: 945894432
I0403 15:21:08.920716 14623 layer_factory.hpp:77] Creating layer loss1/fc
I0403 15:21:08.920740 14623 net.cpp:91] Creating Layer loss1/fc
I0403 15:21:08.920758 14623 net.cpp:425] loss1/fc <- loss1/conv
I0403 15:21:08.920776 14623 net.cpp:399] loss1/fc -> loss1/fc
I0403 15:21:08.938165 14623 net.cpp:141] Setting up loss1/fc
I0403 15:21:08.938199 14623 net.cpp:148] Top shape: 24 1024 (24576)
I0403 15:21:08.938215 14623 net.cpp:156] Memory required for data: 945992736
I0403 15:21:08.938232 14623 layer_factory.hpp:77] Creating layer loss1/relu_fc
I0403 15:21:08.938251 14623 net.cpp:91] Creating Layer loss1/relu_fc
I0403 15:21:08.938267 14623 net.cpp:425] loss1/relu_fc <- loss1/fc
I0403 15:21:08.938287 14623 net.cpp:386] loss1/relu_fc -> loss1/fc (in-place)
I0403 15:21:08.938472 14623 net.cpp:141] Setting up loss1/relu_fc
I0403 15:21:08.938494 14623 net.cpp:148] Top shape: 24 1024 (24576)
I0403 15:21:08.938508 14623 net.cpp:156] Memory required for data: 946091040
I0403 15:21:08.938522 14623 layer_factory.hpp:77] Creating layer loss1/drop_fc
I0403 15:21:08.938550 14623 net.cpp:91] Creating Layer loss1/drop_fc
I0403 15:21:08.938568 14623 net.cpp:425] loss1/drop_fc <- loss1/fc
I0403 15:21:08.938588 14623 net.cpp:386] loss1/drop_fc -> loss1/fc (in-place)
I0403 15:21:08.938637 14623 net.cpp:141] Setting up loss1/drop_fc
I0403 15:21:08.938663 14623 net.cpp:148] Top shape: 24 1024 (24576)
I0403 15:21:08.938678 14623 net.cpp:156] Memory required for data: 946189344
I0403 15:21:08.938693 14623 layer_factory.hpp:77] Creating layer loss1/classifier_plantvillage
I0403 15:21:08.938709 14623 net.cpp:91] Creating Layer loss1/classifier_plantvillage
I0403 15:21:08.938724 14623 net.cpp:425] loss1/classifier_plantvillage <- loss1/fc
I0403 15:21:08.938745 14623 net.cpp:399] loss1/classifier_plantvillage -> loss1/classifier_plantvillage
I0403 15:21:08.939640 14623 net.cpp:141] Setting up loss1/classifier_plantvillage
I0403 15:21:08.939666 14623 net.cpp:148] Top shape: 24 38 (912)
I0403 15:21:08.939682 14623 net.cpp:156] Memory required for data: 946192992
I0403 15:21:08.939698 14623 layer_factory.hpp:77] Creating layer loss1/classifier_plantvillage_loss1/classifier_plantvillage_0_split
I0403 15:21:08.939716 14623 net.cpp:91] Creating Layer loss1/classifier_plantvillage_loss1/classifier_plantvillage_0_split
I0403 15:21:08.939731 14623 net.cpp:425] loss1/classifier_plantvillage_loss1/classifier_plantvillage_0_split <- loss1/classifier_plantvillage
I0403 15:21:08.939750 14623 net.cpp:399] loss1/classifier_plantvillage_loss1/classifier_plantvillage_0_split -> loss1/classifier_plantvillage_loss1/classifier_plantvillage_0_split_0
I0403 15:21:08.939771 14623 net.cpp:399] loss1/classifier_plantvillage_loss1/classifier_plantvillage_0_split -> loss1/classifier_plantvillage_loss1/classifier_plantvillage_0_split_1
I0403 15:21:08.939791 14623 net.cpp:399] loss1/classifier_plantvillage_loss1/classifier_plantvillage_0_split -> loss1/classifier_plantvillage_loss1/classifier_plantvillage_0_split_2
I0403 15:21:08.939857 14623 net.cpp:141] Setting up loss1/classifier_plantvillage_loss1/classifier_plantvillage_0_split
I0403 15:21:08.939878 14623 net.cpp:148] Top shape: 24 38 (912)
I0403 15:21:08.939894 14623 net.cpp:148] Top shape: 24 38 (912)
I0403 15:21:08.939909 14623 net.cpp:148] Top shape: 24 38 (912)
I0403 15:21:08.939923 14623 net.cpp:156] Memory required for data: 946203936
I0403 15:21:08.939936 14623 layer_factory.hpp:77] Creating layer inception_4b/1x1
I0403 15:21:08.939957 14623 net.cpp:91] Creating Layer inception_4b/1x1
I0403 15:21:08.939990 14623 net.cpp:425] inception_4b/1x1 <- inception_4a/output_inception_4a/output_0_split_1
I0403 15:21:08.940011 14623 net.cpp:399] inception_4b/1x1 -> inception_4b/1x1
I0403 15:21:08.941633 14623 net.cpp:141] Setting up inception_4b/1x1
I0403 15:21:08.941660 14623 net.cpp:148] Top shape: 24 160 14 14 (752640)
I0403 15:21:08.941675 14623 net.cpp:156] Memory required for data: 949214496
I0403 15:21:08.941692 14623 layer_factory.hpp:77] Creating layer inception_4b/relu_1x1
I0403 15:21:08.941711 14623 net.cpp:91] Creating Layer inception_4b/relu_1x1
I0403 15:21:08.941727 14623 net.cpp:425] inception_4b/relu_1x1 <- inception_4b/1x1
I0403 15:21:08.941745 14623 net.cpp:386] inception_4b/relu_1x1 -> inception_4b/1x1 (in-place)
I0403 15:21:08.941917 14623 net.cpp:141] Setting up inception_4b/relu_1x1
I0403 15:21:08.941943 14623 net.cpp:148] Top shape: 24 160 14 14 (752640)
I0403 15:21:08.941958 14623 net.cpp:156] Memory required for data: 952225056
I0403 15:21:08.941972 14623 layer_factory.hpp:77] Creating layer inception_4b/3x3_reduce
I0403 15:21:08.941993 14623 net.cpp:91] Creating Layer inception_4b/3x3_reduce
I0403 15:21:08.942011 14623 net.cpp:425] inception_4b/3x3_reduce <- inception_4a/output_inception_4a/output_0_split_2
I0403 15:21:08.942029 14623 net.cpp:399] inception_4b/3x3_reduce -> inception_4b/3x3_reduce
I0403 15:21:08.943341 14623 net.cpp:141] Setting up inception_4b/3x3_reduce
I0403 15:21:08.943372 14623 net.cpp:148] Top shape: 24 112 14 14 (526848)
I0403 15:21:08.943388 14623 net.cpp:156] Memory required for data: 954332448
I0403 15:21:08.943406 14623 layer_factory.hpp:77] Creating layer inception_4b/relu_3x3_reduce
I0403 15:21:08.943424 14623 net.cpp:91] Creating Layer inception_4b/relu_3x3_reduce
I0403 15:21:08.943439 14623 net.cpp:425] inception_4b/relu_3x3_reduce <- inception_4b/3x3_reduce
I0403 15:21:08.943456 14623 net.cpp:386] inception_4b/relu_3x3_reduce -> inception_4b/3x3_reduce (in-place)
I0403 15:21:08.943743 14623 net.cpp:141] Setting up inception_4b/relu_3x3_reduce
I0403 15:21:08.943771 14623 net.cpp:148] Top shape: 24 112 14 14 (526848)
I0403 15:21:08.943786 14623 net.cpp:156] Memory required for data: 956439840
I0403 15:21:08.943800 14623 layer_factory.hpp:77] Creating layer inception_4b/3x3
I0403 15:21:08.943822 14623 net.cpp:91] Creating Layer inception_4b/3x3
I0403 15:21:08.943840 14623 net.cpp:425] inception_4b/3x3 <- inception_4b/3x3_reduce
I0403 15:21:08.943858 14623 net.cpp:399] inception_4b/3x3 -> inception_4b/3x3
I0403 15:21:08.946780 14623 net.cpp:141] Setting up inception_4b/3x3
I0403 15:21:08.946807 14623 net.cpp:148] Top shape: 24 224 14 14 (1053696)
I0403 15:21:08.946822 14623 net.cpp:156] Memory required for data: 960654624
I0403 15:21:08.946841 14623 layer_factory.hpp:77] Creating layer inception_4b/relu_3x3
I0403 15:21:08.946858 14623 net.cpp:91] Creating Layer inception_4b/relu_3x3
I0403 15:21:08.946873 14623 net.cpp:425] inception_4b/relu_3x3 <- inception_4b/3x3
I0403 15:21:08.946892 14623 net.cpp:386] inception_4b/relu_3x3 -> inception_4b/3x3 (in-place)
I0403 15:21:08.947065 14623 net.cpp:141] Setting up inception_4b/relu_3x3
I0403 15:21:08.947089 14623 net.cpp:148] Top shape: 24 224 14 14 (1053696)
I0403 15:21:08.947104 14623 net.cpp:156] Memory required for data: 964869408
I0403 15:21:08.947118 14623 layer_factory.hpp:77] Creating layer inception_4b/5x5_reduce
I0403 15:21:08.947144 14623 net.cpp:91] Creating Layer inception_4b/5x5_reduce
I0403 15:21:08.947160 14623 net.cpp:425] inception_4b/5x5_reduce <- inception_4a/output_inception_4a/output_0_split_3
I0403 15:21:08.947180 14623 net.cpp:399] inception_4b/5x5_reduce -> inception_4b/5x5_reduce
I0403 15:21:08.948231 14623 net.cpp:141] Setting up inception_4b/5x5_reduce
I0403 15:21:08.948257 14623 net.cpp:148] Top shape: 24 24 14 14 (112896)
I0403 15:21:08.948273 14623 net.cpp:156] Memory required for data: 965320992
I0403 15:21:08.948290 14623 layer_factory.hpp:77] Creating layer inception_4b/relu_5x5_reduce
I0403 15:21:08.948310 14623 net.cpp:91] Creating Layer inception_4b/relu_5x5_reduce
I0403 15:21:08.948340 14623 net.cpp:425] inception_4b/relu_5x5_reduce <- inception_4b/5x5_reduce
I0403 15:21:08.948359 14623 net.cpp:386] inception_4b/relu_5x5_reduce -> inception_4b/5x5_reduce (in-place)
I0403 15:21:08.948534 14623 net.cpp:141] Setting up inception_4b/relu_5x5_reduce
I0403 15:21:08.948566 14623 net.cpp:148] Top shape: 24 24 14 14 (112896)
I0403 15:21:08.948582 14623 net.cpp:156] Memory required for data: 965772576
I0403 15:21:08.948596 14623 layer_factory.hpp:77] Creating layer inception_4b/5x5
I0403 15:21:08.948617 14623 net.cpp:91] Creating Layer inception_4b/5x5
I0403 15:21:08.948635 14623 net.cpp:425] inception_4b/5x5 <- inception_4b/5x5_reduce
I0403 15:21:08.948653 14623 net.cpp:399] inception_4b/5x5 -> inception_4b/5x5
I0403 15:21:08.949841 14623 net.cpp:141] Setting up inception_4b/5x5
I0403 15:21:08.949867 14623 net.cpp:148] Top shape: 24 64 14 14 (301056)
I0403 15:21:08.949882 14623 net.cpp:156] Memory required for data: 966976800
I0403 15:21:08.949899 14623 layer_factory.hpp:77] Creating layer inception_4b/relu_5x5
I0403 15:21:08.949918 14623 net.cpp:91] Creating Layer inception_4b/relu_5x5
I0403 15:21:08.949935 14623 net.cpp:425] inception_4b/relu_5x5 <- inception_4b/5x5
I0403 15:21:08.949952 14623 net.cpp:386] inception_4b/relu_5x5 -> inception_4b/5x5 (in-place)
I0403 15:21:08.950228 14623 net.cpp:141] Setting up inception_4b/relu_5x5
I0403 15:21:08.950253 14623 net.cpp:148] Top shape: 24 64 14 14 (301056)
I0403 15:21:08.950268 14623 net.cpp:156] Memory required for data: 968181024
I0403 15:21:08.950284 14623 layer_factory.hpp:77] Creating layer inception_4b/pool
I0403 15:21:08.950305 14623 net.cpp:91] Creating Layer inception_4b/pool
I0403 15:21:08.950322 14623 net.cpp:425] inception_4b/pool <- inception_4a/output_inception_4a/output_0_split_4
I0403 15:21:08.950341 14623 net.cpp:399] inception_4b/pool -> inception_4b/pool
I0403 15:21:08.950407 14623 net.cpp:141] Setting up inception_4b/pool
I0403 15:21:08.950429 14623 net.cpp:148] Top shape: 24 512 14 14 (2408448)
I0403 15:21:08.950443 14623 net.cpp:156] Memory required for data: 977814816
I0403 15:21:08.950458 14623 layer_factory.hpp:77] Creating layer inception_4b/pool_proj
I0403 15:21:08.950479 14623 net.cpp:91] Creating Layer inception_4b/pool_proj
I0403 15:21:08.950496 14623 net.cpp:425] inception_4b/pool_proj <- inception_4b/pool
I0403 15:21:08.950516 14623 net.cpp:399] inception_4b/pool_proj -> inception_4b/pool_proj
I0403 15:21:08.951685 14623 net.cpp:141] Setting up inception_4b/pool_proj
I0403 15:21:08.951712 14623 net.cpp:148] Top shape: 24 64 14 14 (301056)
I0403 15:21:08.951727 14623 net.cpp:156] Memory required for data: 979019040
I0403 15:21:08.951745 14623 layer_factory.hpp:77] Creating layer inception_4b/relu_pool_proj
I0403 15:21:08.951764 14623 net.cpp:91] Creating Layer inception_4b/relu_pool_proj
I0403 15:21:08.951781 14623 net.cpp:425] inception_4b/relu_pool_proj <- inception_4b/pool_proj
I0403 15:21:08.951797 14623 net.cpp:386] inception_4b/relu_pool_proj -> inception_4b/pool_proj (in-place)
I0403 15:21:08.951970 14623 net.cpp:141] Setting up inception_4b/relu_pool_proj
I0403 15:21:08.951997 14623 net.cpp:148] Top shape: 24 64 14 14 (301056)
I0403 15:21:08.952013 14623 net.cpp:156] Memory required for data: 980223264
I0403 15:21:08.952026 14623 layer_factory.hpp:77] Creating layer inception_4b/output
I0403 15:21:08.952042 14623 net.cpp:91] Creating Layer inception_4b/output
I0403 15:21:08.952057 14623 net.cpp:425] inception_4b/output <- inception_4b/1x1
I0403 15:21:08.952072 14623 net.cpp:425] inception_4b/output <- inception_4b/3x3
I0403 15:21:08.952087 14623 net.cpp:425] inception_4b/output <- inception_4b/5x5
I0403 15:21:08.952102 14623 net.cpp:425] inception_4b/output <- inception_4b/pool_proj
I0403 15:21:08.952119 14623 net.cpp:399] inception_4b/output -> inception_4b/output
I0403 15:21:08.952163 14623 net.cpp:141] Setting up inception_4b/output
I0403 15:21:08.952185 14623 net.cpp:148] Top shape: 24 512 14 14 (2408448)
I0403 15:21:08.952199 14623 net.cpp:156] Memory required for data: 989857056
I0403 15:21:08.952229 14623 layer_factory.hpp:77] Creating layer inception_4b/output_inception_4b/output_0_split
I0403 15:21:08.952247 14623 net.cpp:91] Creating Layer inception_4b/output_inception_4b/output_0_split
I0403 15:21:08.952263 14623 net.cpp:425] inception_4b/output_inception_4b/output_0_split <- inception_4b/output
I0403 15:21:08.952280 14623 net.cpp:399] inception_4b/output_inception_4b/output_0_split -> inception_4b/output_inception_4b/output_0_split_0
I0403 15:21:08.952298 14623 net.cpp:399] inception_4b/output_inception_4b/output_0_split -> inception_4b/output_inception_4b/output_0_split_1
I0403 15:21:08.952317 14623 net.cpp:399] inception_4b/output_inception_4b/output_0_split -> inception_4b/output_inception_4b/output_0_split_2
I0403 15:21:08.952339 14623 net.cpp:399] inception_4b/output_inception_4b/output_0_split -> inception_4b/output_inception_4b/output_0_split_3
I0403 15:21:08.952422 14623 net.cpp:141] Setting up inception_4b/output_inception_4b/output_0_split
I0403 15:21:08.952445 14623 net.cpp:148] Top shape: 24 512 14 14 (2408448)
I0403 15:21:08.952461 14623 net.cpp:148] Top shape: 24 512 14 14 (2408448)
I0403 15:21:08.952476 14623 net.cpp:148] Top shape: 24 512 14 14 (2408448)
I0403 15:21:08.952489 14623 net.cpp:148] Top shape: 24 512 14 14 (2408448)
I0403 15:21:08.952502 14623 net.cpp:156] Memory required for data: 1028392224
I0403 15:21:08.952517 14623 layer_factory.hpp:77] Creating layer inception_4c/1x1
I0403 15:21:08.952541 14623 net.cpp:91] Creating Layer inception_4c/1x1
I0403 15:21:08.952559 14623 net.cpp:425] inception_4c/1x1 <- inception_4b/output_inception_4b/output_0_split_0
I0403 15:21:08.952582 14623 net.cpp:399] inception_4c/1x1 -> inception_4c/1x1
I0403 15:21:08.953965 14623 net.cpp:141] Setting up inception_4c/1x1
I0403 15:21:08.953994 14623 net.cpp:148] Top shape: 24 128 14 14 (602112)
I0403 15:21:08.954010 14623 net.cpp:156] Memory required for data: 1030800672
I0403 15:21:08.954028 14623 layer_factory.hpp:77] Creating layer inception_4c/relu_1x1
I0403 15:21:08.954046 14623 net.cpp:91] Creating Layer inception_4c/relu_1x1
I0403 15:21:08.954061 14623 net.cpp:425] inception_4c/relu_1x1 <- inception_4c/1x1
I0403 15:21:08.954082 14623 net.cpp:386] inception_4c/relu_1x1 -> inception_4c/1x1 (in-place)
I0403 15:21:08.954257 14623 net.cpp:141] Setting up inception_4c/relu_1x1
I0403 15:21:08.954280 14623 net.cpp:148] Top shape: 24 128 14 14 (602112)
I0403 15:21:08.954295 14623 net.cpp:156] Memory required for data: 1033209120
I0403 15:21:08.954309 14623 layer_factory.hpp:77] Creating layer inception_4c/3x3_reduce
I0403 15:21:08.954330 14623 net.cpp:91] Creating Layer inception_4c/3x3_reduce
I0403 15:21:08.954347 14623 net.cpp:425] inception_4c/3x3_reduce <- inception_4b/output_inception_4b/output_0_split_1
I0403 15:21:08.954370 14623 net.cpp:399] inception_4c/3x3_reduce -> inception_4c/3x3_reduce
I0403 15:21:08.956279 14623 net.cpp:141] Setting up inception_4c/3x3_reduce
I0403 15:21:08.956307 14623 net.cpp:148] Top shape: 24 128 14 14 (602112)
I0403 15:21:08.956322 14623 net.cpp:156] Memory required for data: 1035617568
I0403 15:21:08.956339 14623 layer_factory.hpp:77] Creating layer inception_4c/relu_3x3_reduce
I0403 15:21:08.956360 14623 net.cpp:91] Creating Layer inception_4c/relu_3x3_reduce
I0403 15:21:08.956377 14623 net.cpp:425] inception_4c/relu_3x3_reduce <- inception_4c/3x3_reduce
I0403 15:21:08.956393 14623 net.cpp:386] inception_4c/relu_3x3_reduce -> inception_4c/3x3_reduce (in-place)
I0403 15:21:08.956672 14623 net.cpp:141] Setting up inception_4c/relu_3x3_reduce
I0403 15:21:08.956698 14623 net.cpp:148] Top shape: 24 128 14 14 (602112)
I0403 15:21:08.956713 14623 net.cpp:156] Memory required for data: 1038026016
I0403 15:21:08.956727 14623 layer_factory.hpp:77] Creating layer inception_4c/3x3
I0403 15:21:08.956753 14623 net.cpp:91] Creating Layer inception_4c/3x3
I0403 15:21:08.956769 14623 net.cpp:425] inception_4c/3x3 <- inception_4c/3x3_reduce
I0403 15:21:08.956790 14623 net.cpp:399] inception_4c/3x3 -> inception_4c/3x3
I0403 15:21:08.960299 14623 net.cpp:141] Setting up inception_4c/3x3
I0403 15:21:08.960338 14623 net.cpp:148] Top shape: 24 256 14 14 (1204224)
I0403 15:21:08.960355 14623 net.cpp:156] Memory required for data: 1042842912
I0403 15:21:08.960386 14623 layer_factory.hpp:77] Creating layer inception_4c/relu_3x3
I0403 15:21:08.960407 14623 net.cpp:91] Creating Layer inception_4c/relu_3x3
I0403 15:21:08.960423 14623 net.cpp:425] inception_4c/relu_3x3 <- inception_4c/3x3
I0403 15:21:08.960439 14623 net.cpp:386] inception_4c/relu_3x3 -> inception_4c/3x3 (in-place)
I0403 15:21:08.960620 14623 net.cpp:141] Setting up inception_4c/relu_3x3
I0403 15:21:08.960645 14623 net.cpp:148] Top shape: 24 256 14 14 (1204224)
I0403 15:21:08.960659 14623 net.cpp:156] Memory required for data: 1047659808
I0403 15:21:08.960674 14623 layer_factory.hpp:77] Creating layer inception_4c/5x5_reduce
I0403 15:21:08.960695 14623 net.cpp:91] Creating Layer inception_4c/5x5_reduce
I0403 15:21:08.960712 14623 net.cpp:425] inception_4c/5x5_reduce <- inception_4b/output_inception_4b/output_0_split_2
I0403 15:21:08.960733 14623 net.cpp:399] inception_4c/5x5_reduce -> inception_4c/5x5_reduce
I0403 15:21:08.961797 14623 net.cpp:141] Setting up inception_4c/5x5_reduce
I0403 15:21:08.961824 14623 net.cpp:148] Top shape: 24 24 14 14 (112896)
I0403 15:21:08.961839 14623 net.cpp:156] Memory required for data: 1048111392
I0403 15:21:08.961856 14623 layer_factory.hpp:77] Creating layer inception_4c/relu_5x5_reduce
I0403 15:21:08.961877 14623 net.cpp:91] Creating Layer inception_4c/relu_5x5_reduce
I0403 15:21:08.961894 14623 net.cpp:425] inception_4c/relu_5x5_reduce <- inception_4c/5x5_reduce
I0403 15:21:08.961910 14623 net.cpp:386] inception_4c/relu_5x5_reduce -> inception_4c/5x5_reduce (in-place)
I0403 15:21:08.962092 14623 net.cpp:141] Setting up inception_4c/relu_5x5_reduce
I0403 15:21:08.962118 14623 net.cpp:148] Top shape: 24 24 14 14 (112896)
I0403 15:21:08.962133 14623 net.cpp:156] Memory required for data: 1048562976
I0403 15:21:08.962147 14623 layer_factory.hpp:77] Creating layer inception_4c/5x5
I0403 15:21:08.962169 14623 net.cpp:91] Creating Layer inception_4c/5x5
I0403 15:21:08.962185 14623 net.cpp:425] inception_4c/5x5 <- inception_4c/5x5_reduce
I0403 15:21:08.962203 14623 net.cpp:399] inception_4c/5x5 -> inception_4c/5x5
I0403 15:21:08.963407 14623 net.cpp:141] Setting up inception_4c/5x5
I0403 15:21:08.963434 14623 net.cpp:148] Top shape: 24 64 14 14 (301056)
I0403 15:21:08.963450 14623 net.cpp:156] Memory required for data: 1049767200
I0403 15:21:08.963469 14623 layer_factory.hpp:77] Creating layer inception_4c/relu_5x5
I0403 15:21:08.963485 14623 net.cpp:91] Creating Layer inception_4c/relu_5x5
I0403 15:21:08.963500 14623 net.cpp:425] inception_4c/relu_5x5 <- inception_4c/5x5
I0403 15:21:08.963518 14623 net.cpp:386] inception_4c/relu_5x5 -> inception_4c/5x5 (in-place)
I0403 15:21:08.963801 14623 net.cpp:141] Setting up inception_4c/relu_5x5
I0403 15:21:08.963829 14623 net.cpp:148] Top shape: 24 64 14 14 (301056)
I0403 15:21:08.963845 14623 net.cpp:156] Memory required for data: 1050971424
I0403 15:21:08.963860 14623 layer_factory.hpp:77] Creating layer inception_4c/pool
I0403 15:21:08.963876 14623 net.cpp:91] Creating Layer inception_4c/pool
I0403 15:21:08.963892 14623 net.cpp:425] inception_4c/pool <- inception_4b/output_inception_4b/output_0_split_3
I0403 15:21:08.963912 14623 net.cpp:399] inception_4c/pool -> inception_4c/pool
I0403 15:21:08.963974 14623 net.cpp:141] Setting up inception_4c/pool
I0403 15:21:08.963999 14623 net.cpp:148] Top shape: 24 512 14 14 (2408448)
I0403 15:21:08.964012 14623 net.cpp:156] Memory required for data: 1060605216
I0403 15:21:08.964025 14623 layer_factory.hpp:77] Creating layer inception_4c/pool_proj
I0403 15:21:08.964046 14623 net.cpp:91] Creating Layer inception_4c/pool_proj
I0403 15:21:08.964066 14623 net.cpp:425] inception_4c/pool_proj <- inception_4c/pool
I0403 15:21:08.964083 14623 net.cpp:399] inception_4c/pool_proj -> inception_4c/pool_proj
I0403 15:21:08.965271 14623 net.cpp:141] Setting up inception_4c/pool_proj
I0403 15:21:08.965298 14623 net.cpp:148] Top shape: 24 64 14 14 (301056)
I0403 15:21:08.965327 14623 net.cpp:156] Memory required for data: 1061809440
I0403 15:21:08.965344 14623 layer_factory.hpp:77] Creating layer inception_4c/relu_pool_proj
I0403 15:21:08.965364 14623 net.cpp:91] Creating Layer inception_4c/relu_pool_proj
I0403 15:21:08.965381 14623 net.cpp:425] inception_4c/relu_pool_proj <- inception_4c/pool_proj
I0403 15:21:08.965399 14623 net.cpp:386] inception_4c/relu_pool_proj -> inception_4c/pool_proj (in-place)
I0403 15:21:08.965591 14623 net.cpp:141] Setting up inception_4c/relu_pool_proj
I0403 15:21:08.965618 14623 net.cpp:148] Top shape: 24 64 14 14 (301056)
I0403 15:21:08.965633 14623 net.cpp:156] Memory required for data: 1063013664
I0403 15:21:08.965647 14623 layer_factory.hpp:77] Creating layer inception_4c/output
I0403 15:21:08.965663 14623 net.cpp:91] Creating Layer inception_4c/output
I0403 15:21:08.965678 14623 net.cpp:425] inception_4c/output <- inception_4c/1x1
I0403 15:21:08.965694 14623 net.cpp:425] inception_4c/output <- inception_4c/3x3
I0403 15:21:08.965710 14623 net.cpp:425] inception_4c/output <- inception_4c/5x5
I0403 15:21:08.965725 14623 net.cpp:425] inception_4c/output <- inception_4c/pool_proj
I0403 15:21:08.965741 14623 net.cpp:399] inception_4c/output -> inception_4c/output
I0403 15:21:08.965787 14623 net.cpp:141] Setting up inception_4c/output
I0403 15:21:08.965809 14623 net.cpp:148] Top shape: 24 512 14 14 (2408448)
I0403 15:21:08.965824 14623 net.cpp:156] Memory required for data: 1072647456
I0403 15:21:08.965838 14623 layer_factory.hpp:77] Creating layer inception_4c/output_inception_4c/output_0_split
I0403 15:21:08.965857 14623 net.cpp:91] Creating Layer inception_4c/output_inception_4c/output_0_split
I0403 15:21:08.965873 14623 net.cpp:425] inception_4c/output_inception_4c/output_0_split <- inception_4c/output
I0403 15:21:08.965888 14623 net.cpp:399] inception_4c/output_inception_4c/output_0_split -> inception_4c/output_inception_4c/output_0_split_0
I0403 15:21:08.965908 14623 net.cpp:399] inception_4c/output_inception_4c/output_0_split -> inception_4c/output_inception_4c/output_0_split_1
I0403 15:21:08.965927 14623 net.cpp:399] inception_4c/output_inception_4c/output_0_split -> inception_4c/output_inception_4c/output_0_split_2
I0403 15:21:08.965947 14623 net.cpp:399] inception_4c/output_inception_4c/output_0_split -> inception_4c/output_inception_4c/output_0_split_3
I0403 15:21:08.966032 14623 net.cpp:141] Setting up inception_4c/output_inception_4c/output_0_split
I0403 15:21:08.966053 14623 net.cpp:148] Top shape: 24 512 14 14 (2408448)
I0403 15:21:08.966069 14623 net.cpp:148] Top shape: 24 512 14 14 (2408448)
I0403 15:21:08.966084 14623 net.cpp:148] Top shape: 24 512 14 14 (2408448)
I0403 15:21:08.966099 14623 net.cpp:148] Top shape: 24 512 14 14 (2408448)
I0403 15:21:08.966110 14623 net.cpp:156] Memory required for data: 1111182624
I0403 15:21:08.966125 14623 layer_factory.hpp:77] Creating layer inception_4d/1x1
I0403 15:21:08.966145 14623 net.cpp:91] Creating Layer inception_4d/1x1
I0403 15:21:08.966163 14623 net.cpp:425] inception_4d/1x1 <- inception_4c/output_inception_4c/output_0_split_0
I0403 15:21:08.966183 14623 net.cpp:399] inception_4d/1x1 -> inception_4d/1x1
I0403 15:21:08.967530 14623 net.cpp:141] Setting up inception_4d/1x1
I0403 15:21:08.967561 14623 net.cpp:148] Top shape: 24 112 14 14 (526848)
I0403 15:21:08.967578 14623 net.cpp:156] Memory required for data: 1113290016
I0403 15:21:08.967595 14623 layer_factory.hpp:77] Creating layer inception_4d/relu_1x1
I0403 15:21:08.967612 14623 net.cpp:91] Creating Layer inception_4d/relu_1x1
I0403 15:21:08.967628 14623 net.cpp:425] inception_4d/relu_1x1 <- inception_4d/1x1
I0403 15:21:08.967646 14623 net.cpp:386] inception_4d/relu_1x1 -> inception_4d/1x1 (in-place)
I0403 15:21:08.967825 14623 net.cpp:141] Setting up inception_4d/relu_1x1
I0403 15:21:08.967849 14623 net.cpp:148] Top shape: 24 112 14 14 (526848)
I0403 15:21:08.967864 14623 net.cpp:156] Memory required for data: 1115397408
I0403 15:21:08.967878 14623 layer_factory.hpp:77] Creating layer inception_4d/3x3_reduce
I0403 15:21:08.967926 14623 net.cpp:91] Creating Layer inception_4d/3x3_reduce
I0403 15:21:08.967943 14623 net.cpp:425] inception_4d/3x3_reduce <- inception_4c/output_inception_4c/output_0_split_1
I0403 15:21:08.967964 14623 net.cpp:399] inception_4d/3x3_reduce -> inception_4d/3x3_reduce
I0403 15:21:08.969460 14623 net.cpp:141] Setting up inception_4d/3x3_reduce
I0403 15:21:08.969493 14623 net.cpp:148] Top shape: 24 144 14 14 (677376)
I0403 15:21:08.969509 14623 net.cpp:156] Memory required for data: 1118106912
I0403 15:21:08.969527 14623 layer_factory.hpp:77] Creating layer inception_4d/relu_3x3_reduce
I0403 15:21:08.969552 14623 net.cpp:91] Creating Layer inception_4d/relu_3x3_reduce
I0403 15:21:08.969569 14623 net.cpp:425] inception_4d/relu_3x3_reduce <- inception_4d/3x3_reduce
I0403 15:21:08.969588 14623 net.cpp:386] inception_4d/relu_3x3_reduce -> inception_4d/3x3_reduce (in-place)
I0403 15:21:08.969877 14623 net.cpp:141] Setting up inception_4d/relu_3x3_reduce
I0403 15:21:08.969905 14623 net.cpp:148] Top shape: 24 144 14 14 (677376)
I0403 15:21:08.969920 14623 net.cpp:156] Memory required for data: 1120816416
I0403 15:21:08.969935 14623 layer_factory.hpp:77] Creating layer inception_4d/3x3
I0403 15:21:08.969956 14623 net.cpp:91] Creating Layer inception_4d/3x3
I0403 15:21:08.969975 14623 net.cpp:425] inception_4d/3x3 <- inception_4d/3x3_reduce
I0403 15:21:08.969995 14623 net.cpp:399] inception_4d/3x3 -> inception_4d/3x3
I0403 15:21:08.974228 14623 net.cpp:141] Setting up inception_4d/3x3
I0403 15:21:08.974256 14623 net.cpp:148] Top shape: 24 288 14 14 (1354752)
I0403 15:21:08.974272 14623 net.cpp:156] Memory required for data: 1126235424
I0403 15:21:08.974288 14623 layer_factory.hpp:77] Creating layer inception_4d/relu_3x3
I0403 15:21:08.974308 14623 net.cpp:91] Creating Layer inception_4d/relu_3x3
I0403 15:21:08.974324 14623 net.cpp:425] inception_4d/relu_3x3 <- inception_4d/3x3
I0403 15:21:08.974340 14623 net.cpp:386] inception_4d/relu_3x3 -> inception_4d/3x3 (in-place)
I0403 15:21:08.974519 14623 net.cpp:141] Setting up inception_4d/relu_3x3
I0403 15:21:08.974573 14623 net.cpp:148] Top shape: 24 288 14 14 (1354752)
I0403 15:21:08.974591 14623 net.cpp:156] Memory required for data: 1131654432
I0403 15:21:08.974604 14623 layer_factory.hpp:77] Creating layer inception_4d/5x5_reduce
I0403 15:21:08.974627 14623 net.cpp:91] Creating Layer inception_4d/5x5_reduce
I0403 15:21:08.974647 14623 net.cpp:425] inception_4d/5x5_reduce <- inception_4c/output_inception_4c/output_0_split_2
I0403 15:21:08.974665 14623 net.cpp:399] inception_4d/5x5_reduce -> inception_4d/5x5_reduce
I0403 15:21:08.975814 14623 net.cpp:141] Setting up inception_4d/5x5_reduce
I0403 15:21:08.975841 14623 net.cpp:148] Top shape: 24 32 14 14 (150528)
I0403 15:21:08.975857 14623 net.cpp:156] Memory required for data: 1132256544
I0403 15:21:08.975873 14623 layer_factory.hpp:77] Creating layer inception_4d/relu_5x5_reduce
I0403 15:21:08.975891 14623 net.cpp:91] Creating Layer inception_4d/relu_5x5_reduce
I0403 15:21:08.975908 14623 net.cpp:425] inception_4d/relu_5x5_reduce <- inception_4d/5x5_reduce
I0403 15:21:08.975926 14623 net.cpp:386] inception_4d/relu_5x5_reduce -> inception_4d/5x5_reduce (in-place)
I0403 15:21:08.976109 14623 net.cpp:141] Setting up inception_4d/relu_5x5_reduce
I0403 15:21:08.976133 14623 net.cpp:148] Top shape: 24 32 14 14 (150528)
I0403 15:21:08.976147 14623 net.cpp:156] Memory required for data: 1132858656
I0403 15:21:08.976161 14623 layer_factory.hpp:77] Creating layer inception_4d/5x5
I0403 15:21:08.976183 14623 net.cpp:91] Creating Layer inception_4d/5x5
I0403 15:21:08.976200 14623 net.cpp:425] inception_4d/5x5 <- inception_4d/5x5_reduce
I0403 15:21:08.976223 14623 net.cpp:399] inception_4d/5x5 -> inception_4d/5x5
I0403 15:21:08.977689 14623 net.cpp:141] Setting up inception_4d/5x5
I0403 15:21:08.977718 14623 net.cpp:148] Top shape: 24 64 14 14 (301056)
I0403 15:21:08.977735 14623 net.cpp:156] Memory required for data: 1134062880
I0403 15:21:08.977752 14623 layer_factory.hpp:77] Creating layer inception_4d/relu_5x5
I0403 15:21:08.977785 14623 net.cpp:91] Creating Layer inception_4d/relu_5x5
I0403 15:21:08.977802 14623 net.cpp:425] inception_4d/relu_5x5 <- inception_4d/5x5
I0403 15:21:08.977818 14623 net.cpp:386] inception_4d/relu_5x5 -> inception_4d/5x5 (in-place)
I0403 15:21:08.978124 14623 net.cpp:141] Setting up inception_4d/relu_5x5
I0403 15:21:08.978152 14623 net.cpp:148] Top shape: 24 64 14 14 (301056)
I0403 15:21:08.978168 14623 net.cpp:156] Memory required for data: 1135267104
I0403 15:21:08.978183 14623 layer_factory.hpp:77] Creating layer inception_4d/pool
I0403 15:21:08.978201 14623 net.cpp:91] Creating Layer inception_4d/pool
I0403 15:21:08.978217 14623 net.cpp:425] inception_4d/pool <- inception_4c/output_inception_4c/output_0_split_3
I0403 15:21:08.978235 14623 net.cpp:399] inception_4d/pool -> inception_4d/pool
I0403 15:21:08.978312 14623 net.cpp:141] Setting up inception_4d/pool
I0403 15:21:08.978334 14623 net.cpp:148] Top shape: 24 512 14 14 (2408448)
I0403 15:21:08.978348 14623 net.cpp:156] Memory required for data: 1144900896
I0403 15:21:08.978363 14623 layer_factory.hpp:77] Creating layer inception_4d/pool_proj
I0403 15:21:08.978384 14623 net.cpp:91] Creating Layer inception_4d/pool_proj
I0403 15:21:08.978400 14623 net.cpp:425] inception_4d/pool_proj <- inception_4d/pool
I0403 15:21:08.978420 14623 net.cpp:399] inception_4d/pool_proj -> inception_4d/pool_proj
I0403 15:21:08.980124 14623 net.cpp:141] Setting up inception_4d/pool_proj
I0403 15:21:08.980154 14623 net.cpp:148] Top shape: 24 64 14 14 (301056)
I0403 15:21:08.980170 14623 net.cpp:156] Memory required for data: 1146105120
I0403 15:21:08.980187 14623 layer_factory.hpp:77] Creating layer inception_4d/relu_pool_proj
I0403 15:21:08.980207 14623 net.cpp:91] Creating Layer inception_4d/relu_pool_proj
I0403 15:21:08.980223 14623 net.cpp:425] inception_4d/relu_pool_proj <- inception_4d/pool_proj
I0403 15:21:08.980240 14623 net.cpp:386] inception_4d/relu_pool_proj -> inception_4d/pool_proj (in-place)
I0403 15:21:08.980422 14623 net.cpp:141] Setting up inception_4d/relu_pool_proj
I0403 15:21:08.980446 14623 net.cpp:148] Top shape: 24 64 14 14 (301056)
I0403 15:21:08.980461 14623 net.cpp:156] Memory required for data: 1147309344
I0403 15:21:08.980475 14623 layer_factory.hpp:77] Creating layer inception_4d/output
I0403 15:21:08.980494 14623 net.cpp:91] Creating Layer inception_4d/output
I0403 15:21:08.980510 14623 net.cpp:425] inception_4d/output <- inception_4d/1x1
I0403 15:21:08.980526 14623 net.cpp:425] inception_4d/output <- inception_4d/3x3
I0403 15:21:08.980547 14623 net.cpp:425] inception_4d/output <- inception_4d/5x5
I0403 15:21:08.980564 14623 net.cpp:425] inception_4d/output <- inception_4d/pool_proj
I0403 15:21:08.980581 14623 net.cpp:399] inception_4d/output -> inception_4d/output
I0403 15:21:08.980628 14623 net.cpp:141] Setting up inception_4d/output
I0403 15:21:08.980651 14623 net.cpp:148] Top shape: 24 528 14 14 (2483712)
I0403 15:21:08.980664 14623 net.cpp:156] Memory required for data: 1157244192
I0403 15:21:08.980679 14623 layer_factory.hpp:77] Creating layer inception_4d/output_inception_4d/output_0_split
I0403 15:21:08.980695 14623 net.cpp:91] Creating Layer inception_4d/output_inception_4d/output_0_split
I0403 15:21:08.980710 14623 net.cpp:425] inception_4d/output_inception_4d/output_0_split <- inception_4d/output
I0403 15:21:08.980728 14623 net.cpp:399] inception_4d/output_inception_4d/output_0_split -> inception_4d/output_inception_4d/output_0_split_0
I0403 15:21:08.980748 14623 net.cpp:399] inception_4d/output_inception_4d/output_0_split -> inception_4d/output_inception_4d/output_0_split_1
I0403 15:21:08.980768 14623 net.cpp:399] inception_4d/output_inception_4d/output_0_split -> inception_4d/output_inception_4d/output_0_split_2
I0403 15:21:08.980787 14623 net.cpp:399] inception_4d/output_inception_4d/output_0_split -> inception_4d/output_inception_4d/output_0_split_3
I0403 15:21:08.980813 14623 net.cpp:399] inception_4d/output_inception_4d/output_0_split -> inception_4d/output_inception_4d/output_0_split_4
I0403 15:21:08.980911 14623 net.cpp:141] Setting up inception_4d/output_inception_4d/output_0_split
I0403 15:21:08.980947 14623 net.cpp:148] Top shape: 24 528 14 14 (2483712)
I0403 15:21:08.980963 14623 net.cpp:148] Top shape: 24 528 14 14 (2483712)
I0403 15:21:08.980978 14623 net.cpp:148] Top shape: 24 528 14 14 (2483712)
I0403 15:21:08.980993 14623 net.cpp:148] Top shape: 24 528 14 14 (2483712)
I0403 15:21:08.981008 14623 net.cpp:148] Top shape: 24 528 14 14 (2483712)
I0403 15:21:08.981020 14623 net.cpp:156] Memory required for data: 1206918432
I0403 15:21:08.981034 14623 layer_factory.hpp:77] Creating layer loss2/ave_pool
I0403 15:21:08.981050 14623 net.cpp:91] Creating Layer loss2/ave_pool
I0403 15:21:08.981065 14623 net.cpp:425] loss2/ave_pool <- inception_4d/output_inception_4d/output_0_split_0
I0403 15:21:08.981086 14623 net.cpp:399] loss2/ave_pool -> loss2/ave_pool
I0403 15:21:08.981387 14623 net.cpp:141] Setting up loss2/ave_pool
I0403 15:21:08.981413 14623 net.cpp:148] Top shape: 24 528 4 4 (202752)
I0403 15:21:08.981428 14623 net.cpp:156] Memory required for data: 1207729440
I0403 15:21:08.981442 14623 layer_factory.hpp:77] Creating layer loss2/conv
I0403 15:21:08.981463 14623 net.cpp:91] Creating Layer loss2/conv
I0403 15:21:08.981480 14623 net.cpp:425] loss2/conv <- loss2/ave_pool
I0403 15:21:08.981500 14623 net.cpp:399] loss2/conv -> loss2/conv
I0403 15:21:08.983333 14623 net.cpp:141] Setting up loss2/conv
I0403 15:21:08.983361 14623 net.cpp:148] Top shape: 24 128 4 4 (49152)
I0403 15:21:08.983376 14623 net.cpp:156] Memory required for data: 1207926048
I0403 15:21:08.983393 14623 layer_factory.hpp:77] Creating layer loss2/relu_conv
I0403 15:21:08.983413 14623 net.cpp:91] Creating Layer loss2/relu_conv
I0403 15:21:08.983429 14623 net.cpp:425] loss2/relu_conv <- loss2/conv
I0403 15:21:08.983446 14623 net.cpp:386] loss2/relu_conv -> loss2/conv (in-place)
I0403 15:21:08.983731 14623 net.cpp:141] Setting up loss2/relu_conv
I0403 15:21:08.983755 14623 net.cpp:148] Top shape: 24 128 4 4 (49152)
I0403 15:21:08.983772 14623 net.cpp:156] Memory required for data: 1208122656
I0403 15:21:08.983785 14623 layer_factory.hpp:77] Creating layer loss2/fc
I0403 15:21:08.983805 14623 net.cpp:91] Creating Layer loss2/fc
I0403 15:21:08.983821 14623 net.cpp:425] loss2/fc <- loss2/conv
I0403 15:21:08.983842 14623 net.cpp:399] loss2/fc -> loss2/fc
I0403 15:21:09.000957 14623 net.cpp:141] Setting up loss2/fc
I0403 15:21:09.000988 14623 net.cpp:148] Top shape: 24 1024 (24576)
I0403 15:21:09.001004 14623 net.cpp:156] Memory required for data: 1208220960
I0403 15:21:09.001022 14623 layer_factory.hpp:77] Creating layer loss2/relu_fc
I0403 15:21:09.001041 14623 net.cpp:91] Creating Layer loss2/relu_fc
I0403 15:21:09.001057 14623 net.cpp:425] loss2/relu_fc <- loss2/fc
I0403 15:21:09.001076 14623 net.cpp:386] loss2/relu_fc -> loss2/fc (in-place)
I0403 15:21:09.001366 14623 net.cpp:141] Setting up loss2/relu_fc
I0403 15:21:09.001391 14623 net.cpp:148] Top shape: 24 1024 (24576)
I0403 15:21:09.001406 14623 net.cpp:156] Memory required for data: 1208319264
I0403 15:21:09.001420 14623 layer_factory.hpp:77] Creating layer loss2/drop_fc
I0403 15:21:09.001437 14623 net.cpp:91] Creating Layer loss2/drop_fc
I0403 15:21:09.001452 14623 net.cpp:425] loss2/drop_fc <- loss2/fc
I0403 15:21:09.001471 14623 net.cpp:386] loss2/drop_fc -> loss2/fc (in-place)
I0403 15:21:09.001523 14623 net.cpp:141] Setting up loss2/drop_fc
I0403 15:21:09.001549 14623 net.cpp:148] Top shape: 24 1024 (24576)
I0403 15:21:09.001564 14623 net.cpp:156] Memory required for data: 1208417568
I0403 15:21:09.001579 14623 layer_factory.hpp:77] Creating layer loss2/classifier_plantvillage
I0403 15:21:09.001595 14623 net.cpp:91] Creating Layer loss2/classifier_plantvillage
I0403 15:21:09.001610 14623 net.cpp:425] loss2/classifier_plantvillage <- loss2/fc
I0403 15:21:09.001631 14623 net.cpp:399] loss2/classifier_plantvillage -> loss2/classifier_plantvillage
I0403 15:21:09.002027 14623 net.cpp:141] Setting up loss2/classifier_plantvillage
I0403 15:21:09.002050 14623 net.cpp:148] Top shape: 24 38 (912)
I0403 15:21:09.002064 14623 net.cpp:156] Memory required for data: 1208421216
I0403 15:21:09.002099 14623 layer_factory.hpp:77] Creating layer loss2/classifier_plantvillage_loss2/classifier_plantvillage_0_split
I0403 15:21:09.002121 14623 net.cpp:91] Creating Layer loss2/classifier_plantvillage_loss2/classifier_plantvillage_0_split
I0403 15:21:09.002137 14623 net.cpp:425] loss2/classifier_plantvillage_loss2/classifier_plantvillage_0_split <- loss2/classifier_plantvillage
I0403 15:21:09.002156 14623 net.cpp:399] loss2/classifier_plantvillage_loss2/classifier_plantvillage_0_split -> loss2/classifier_plantvillage_loss2/classifier_plantvillage_0_split_0
I0403 15:21:09.002177 14623 net.cpp:399] loss2/classifier_plantvillage_loss2/classifier_plantvillage_0_split -> loss2/classifier_plantvillage_loss2/classifier_plantvillage_0_split_1
I0403 15:21:09.002197 14623 net.cpp:399] loss2/classifier_plantvillage_loss2/classifier_plantvillage_0_split -> loss2/classifier_plantvillage_loss2/classifier_plantvillage_0_split_2
I0403 15:21:09.002270 14623 net.cpp:141] Setting up loss2/classifier_plantvillage_loss2/classifier_plantvillage_0_split
I0403 15:21:09.002292 14623 net.cpp:148] Top shape: 24 38 (912)
I0403 15:21:09.002308 14623 net.cpp:148] Top shape: 24 38 (912)
I0403 15:21:09.002323 14623 net.cpp:148] Top shape: 24 38 (912)
I0403 15:21:09.002336 14623 net.cpp:156] Memory required for data: 1208432160
I0403 15:21:09.002351 14623 layer_factory.hpp:77] Creating layer inception_4e/1x1
I0403 15:21:09.002372 14623 net.cpp:91] Creating Layer inception_4e/1x1
I0403 15:21:09.002388 14623 net.cpp:425] inception_4e/1x1 <- inception_4d/output_inception_4d/output_0_split_1
I0403 15:21:09.002406 14623 net.cpp:399] inception_4e/1x1 -> inception_4e/1x1
I0403 15:21:09.004206 14623 net.cpp:141] Setting up inception_4e/1x1
I0403 15:21:09.004235 14623 net.cpp:148] Top shape: 24 256 14 14 (1204224)
I0403 15:21:09.004252 14623 net.cpp:156] Memory required for data: 1213249056
I0403 15:21:09.004271 14623 layer_factory.hpp:77] Creating layer inception_4e/relu_1x1
I0403 15:21:09.004288 14623 net.cpp:91] Creating Layer inception_4e/relu_1x1
I0403 15:21:09.004303 14623 net.cpp:425] inception_4e/relu_1x1 <- inception_4e/1x1
I0403 15:21:09.004320 14623 net.cpp:386] inception_4e/relu_1x1 -> inception_4e/1x1 (in-place)
I0403 15:21:09.004623 14623 net.cpp:141] Setting up inception_4e/relu_1x1
I0403 15:21:09.004652 14623 net.cpp:148] Top shape: 24 256 14 14 (1204224)
I0403 15:21:09.004667 14623 net.cpp:156] Memory required for data: 1218065952
I0403 15:21:09.004681 14623 layer_factory.hpp:77] Creating layer inception_4e/3x3_reduce
I0403 15:21:09.004703 14623 net.cpp:91] Creating Layer inception_4e/3x3_reduce
I0403 15:21:09.004719 14623 net.cpp:425] inception_4e/3x3_reduce <- inception_4d/output_inception_4d/output_0_split_2
I0403 15:21:09.004739 14623 net.cpp:399] inception_4e/3x3_reduce -> inception_4e/3x3_reduce
I0403 15:21:09.006811 14623 net.cpp:141] Setting up inception_4e/3x3_reduce
I0403 15:21:09.006839 14623 net.cpp:148] Top shape: 24 160 14 14 (752640)
I0403 15:21:09.006855 14623 net.cpp:156] Memory required for data: 1221076512
I0403 15:21:09.006872 14623 layer_factory.hpp:77] Creating layer inception_4e/relu_3x3_reduce
I0403 15:21:09.006894 14623 net.cpp:91] Creating Layer inception_4e/relu_3x3_reduce
I0403 15:21:09.006911 14623 net.cpp:425] inception_4e/relu_3x3_reduce <- inception_4e/3x3_reduce
I0403 15:21:09.006927 14623 net.cpp:386] inception_4e/relu_3x3_reduce -> inception_4e/3x3_reduce (in-place)
I0403 15:21:09.007107 14623 net.cpp:141] Setting up inception_4e/relu_3x3_reduce
I0403 15:21:09.007131 14623 net.cpp:148] Top shape: 24 160 14 14 (752640)
I0403 15:21:09.007146 14623 net.cpp:156] Memory required for data: 1224087072
I0403 15:21:09.007160 14623 layer_factory.hpp:77] Creating layer inception_4e/3x3
I0403 15:21:09.007181 14623 net.cpp:91] Creating Layer inception_4e/3x3
I0403 15:21:09.007199 14623 net.cpp:425] inception_4e/3x3 <- inception_4e/3x3_reduce
I0403 15:21:09.007220 14623 net.cpp:399] inception_4e/3x3 -> inception_4e/3x3
I0403 15:21:09.012061 14623 net.cpp:141] Setting up inception_4e/3x3
I0403 15:21:09.012104 14623 net.cpp:148] Top shape: 24 320 14 14 (1505280)
I0403 15:21:09.012122 14623 net.cpp:156] Memory required for data: 1230108192
I0403 15:21:09.012140 14623 layer_factory.hpp:77] Creating layer inception_4e/relu_3x3
I0403 15:21:09.012157 14623 net.cpp:91] Creating Layer inception_4e/relu_3x3
I0403 15:21:09.012174 14623 net.cpp:425] inception_4e/relu_3x3 <- inception_4e/3x3
I0403 15:21:09.012193 14623 net.cpp:386] inception_4e/relu_3x3 -> inception_4e/3x3 (in-place)
I0403 15:21:09.012486 14623 net.cpp:141] Setting up inception_4e/relu_3x3
I0403 15:21:09.012512 14623 net.cpp:148] Top shape: 24 320 14 14 (1505280)
I0403 15:21:09.012527 14623 net.cpp:156] Memory required for data: 1236129312
I0403 15:21:09.012545 14623 layer_factory.hpp:77] Creating layer inception_4e/5x5_reduce
I0403 15:21:09.012570 14623 net.cpp:91] Creating Layer inception_4e/5x5_reduce
I0403 15:21:09.012588 14623 net.cpp:425] inception_4e/5x5_reduce <- inception_4d/output_inception_4d/output_0_split_3
I0403 15:21:09.012609 14623 net.cpp:399] inception_4e/5x5_reduce -> inception_4e/5x5_reduce
I0403 15:21:09.013653 14623 net.cpp:141] Setting up inception_4e/5x5_reduce
I0403 15:21:09.013681 14623 net.cpp:148] Top shape: 24 32 14 14 (150528)
I0403 15:21:09.013697 14623 net.cpp:156] Memory required for data: 1236731424
I0403 15:21:09.013715 14623 layer_factory.hpp:77] Creating layer inception_4e/relu_5x5_reduce
I0403 15:21:09.013733 14623 net.cpp:91] Creating Layer inception_4e/relu_5x5_reduce
I0403 15:21:09.013748 14623 net.cpp:425] inception_4e/relu_5x5_reduce <- inception_4e/5x5_reduce
I0403 15:21:09.013766 14623 net.cpp:386] inception_4e/relu_5x5_reduce -> inception_4e/5x5_reduce (in-place)
I0403 15:21:09.014055 14623 net.cpp:141] Setting up inception_4e/relu_5x5_reduce
I0403 15:21:09.014082 14623 net.cpp:148] Top shape: 24 32 14 14 (150528)
I0403 15:21:09.014098 14623 net.cpp:156] Memory required for data: 1237333536
I0403 15:21:09.014113 14623 layer_factory.hpp:77] Creating layer inception_4e/5x5
I0403 15:21:09.014148 14623 net.cpp:91] Creating Layer inception_4e/5x5
I0403 15:21:09.014168 14623 net.cpp:425] inception_4e/5x5 <- inception_4e/5x5_reduce
I0403 15:21:09.014189 14623 net.cpp:399] inception_4e/5x5 -> inception_4e/5x5
I0403 15:21:09.015985 14623 net.cpp:141] Setting up inception_4e/5x5
I0403 15:21:09.016012 14623 net.cpp:148] Top shape: 24 128 14 14 (602112)
I0403 15:21:09.016027 14623 net.cpp:156] Memory required for data: 1239741984
I0403 15:21:09.016047 14623 layer_factory.hpp:77] Creating layer inception_4e/relu_5x5
I0403 15:21:09.016067 14623 net.cpp:91] Creating Layer inception_4e/relu_5x5
I0403 15:21:09.016083 14623 net.cpp:425] inception_4e/relu_5x5 <- inception_4e/5x5
I0403 15:21:09.016098 14623 net.cpp:386] inception_4e/relu_5x5 -> inception_4e/5x5 (in-place)
I0403 15:21:09.016290 14623 net.cpp:141] Setting up inception_4e/relu_5x5
I0403 15:21:09.016317 14623 net.cpp:148] Top shape: 24 128 14 14 (602112)
I0403 15:21:09.016332 14623 net.cpp:156] Memory required for data: 1242150432
I0403 15:21:09.016346 14623 layer_factory.hpp:77] Creating layer inception_4e/pool
I0403 15:21:09.016365 14623 net.cpp:91] Creating Layer inception_4e/pool
I0403 15:21:09.016379 14623 net.cpp:425] inception_4e/pool <- inception_4d/output_inception_4d/output_0_split_4
I0403 15:21:09.016398 14623 net.cpp:399] inception_4e/pool -> inception_4e/pool
I0403 15:21:09.016466 14623 net.cpp:141] Setting up inception_4e/pool
I0403 15:21:09.016489 14623 net.cpp:148] Top shape: 24 528 14 14 (2483712)
I0403 15:21:09.016504 14623 net.cpp:156] Memory required for data: 1252085280
I0403 15:21:09.016517 14623 layer_factory.hpp:77] Creating layer inception_4e/pool_proj
I0403 15:21:09.016542 14623 net.cpp:91] Creating Layer inception_4e/pool_proj
I0403 15:21:09.016561 14623 net.cpp:425] inception_4e/pool_proj <- inception_4e/pool
I0403 15:21:09.016583 14623 net.cpp:399] inception_4e/pool_proj -> inception_4e/pool_proj
I0403 15:21:09.018041 14623 net.cpp:141] Setting up inception_4e/pool_proj
I0403 15:21:09.018069 14623 net.cpp:148] Top shape: 24 128 14 14 (602112)
I0403 15:21:09.018097 14623 net.cpp:156] Memory required for data: 1254493728
I0403 15:21:09.018116 14623 layer_factory.hpp:77] Creating layer inception_4e/relu_pool_proj
I0403 15:21:09.018136 14623 net.cpp:91] Creating Layer inception_4e/relu_pool_proj
I0403 15:21:09.018153 14623 net.cpp:425] inception_4e/relu_pool_proj <- inception_4e/pool_proj
I0403 15:21:09.018170 14623 net.cpp:386] inception_4e/relu_pool_proj -> inception_4e/pool_proj (in-place)
I0403 15:21:09.018455 14623 net.cpp:141] Setting up inception_4e/relu_pool_proj
I0403 15:21:09.018479 14623 net.cpp:148] Top shape: 24 128 14 14 (602112)
I0403 15:21:09.018494 14623 net.cpp:156] Memory required for data: 1256902176
I0403 15:21:09.018509 14623 layer_factory.hpp:77] Creating layer inception_4e/output
I0403 15:21:09.018527 14623 net.cpp:91] Creating Layer inception_4e/output
I0403 15:21:09.018546 14623 net.cpp:425] inception_4e/output <- inception_4e/1x1
I0403 15:21:09.018568 14623 net.cpp:425] inception_4e/output <- inception_4e/3x3
I0403 15:21:09.018584 14623 net.cpp:425] inception_4e/output <- inception_4e/5x5
I0403 15:21:09.018600 14623 net.cpp:425] inception_4e/output <- inception_4e/pool_proj
I0403 15:21:09.018616 14623 net.cpp:399] inception_4e/output -> inception_4e/output
I0403 15:21:09.018663 14623 net.cpp:141] Setting up inception_4e/output
I0403 15:21:09.018689 14623 net.cpp:148] Top shape: 24 832 14 14 (3913728)
I0403 15:21:09.018704 14623 net.cpp:156] Memory required for data: 1272557088
I0403 15:21:09.018719 14623 layer_factory.hpp:77] Creating layer pool4/3x3_s2
I0403 15:21:09.018736 14623 net.cpp:91] Creating Layer pool4/3x3_s2
I0403 15:21:09.018751 14623 net.cpp:425] pool4/3x3_s2 <- inception_4e/output
I0403 15:21:09.018770 14623 net.cpp:399] pool4/3x3_s2 -> pool4/3x3_s2
I0403 15:21:09.018836 14623 net.cpp:141] Setting up pool4/3x3_s2
I0403 15:21:09.018862 14623 net.cpp:148] Top shape: 24 832 7 7 (978432)
I0403 15:21:09.018877 14623 net.cpp:156] Memory required for data: 1276470816
I0403 15:21:09.018889 14623 layer_factory.hpp:77] Creating layer pool4/3x3_s2_pool4/3x3_s2_0_split
I0403 15:21:09.018905 14623 net.cpp:91] Creating Layer pool4/3x3_s2_pool4/3x3_s2_0_split
I0403 15:21:09.018920 14623 net.cpp:425] pool4/3x3_s2_pool4/3x3_s2_0_split <- pool4/3x3_s2
I0403 15:21:09.018936 14623 net.cpp:399] pool4/3x3_s2_pool4/3x3_s2_0_split -> pool4/3x3_s2_pool4/3x3_s2_0_split_0
I0403 15:21:09.018956 14623 net.cpp:399] pool4/3x3_s2_pool4/3x3_s2_0_split -> pool4/3x3_s2_pool4/3x3_s2_0_split_1
I0403 15:21:09.018977 14623 net.cpp:399] pool4/3x3_s2_pool4/3x3_s2_0_split -> pool4/3x3_s2_pool4/3x3_s2_0_split_2
I0403 15:21:09.018997 14623 net.cpp:399] pool4/3x3_s2_pool4/3x3_s2_0_split -> pool4/3x3_s2_pool4/3x3_s2_0_split_3
I0403 15:21:09.019089 14623 net.cpp:141] Setting up pool4/3x3_s2_pool4/3x3_s2_0_split
I0403 15:21:09.019112 14623 net.cpp:148] Top shape: 24 832 7 7 (978432)
I0403 15:21:09.019127 14623 net.cpp:148] Top shape: 24 832 7 7 (978432)
I0403 15:21:09.019142 14623 net.cpp:148] Top shape: 24 832 7 7 (978432)
I0403 15:21:09.019157 14623 net.cpp:148] Top shape: 24 832 7 7 (978432)
I0403 15:21:09.019170 14623 net.cpp:156] Memory required for data: 1292125728
I0403 15:21:09.019184 14623 layer_factory.hpp:77] Creating layer inception_5a/1x1
I0403 15:21:09.019206 14623 net.cpp:91] Creating Layer inception_5a/1x1
I0403 15:21:09.019222 14623 net.cpp:425] inception_5a/1x1 <- pool4/3x3_s2_pool4/3x3_s2_0_split_0
I0403 15:21:09.019243 14623 net.cpp:399] inception_5a/1x1 -> inception_5a/1x1
I0403 15:21:09.022073 14623 net.cpp:141] Setting up inception_5a/1x1
I0403 15:21:09.022102 14623 net.cpp:148] Top shape: 24 256 7 7 (301056)
I0403 15:21:09.022117 14623 net.cpp:156] Memory required for data: 1293329952
I0403 15:21:09.022135 14623 layer_factory.hpp:77] Creating layer inception_5a/relu_1x1
I0403 15:21:09.022156 14623 net.cpp:91] Creating Layer inception_5a/relu_1x1
I0403 15:21:09.022171 14623 net.cpp:425] inception_5a/relu_1x1 <- inception_5a/1x1
I0403 15:21:09.022188 14623 net.cpp:386] inception_5a/relu_1x1 -> inception_5a/1x1 (in-place)
I0403 15:21:09.022500 14623 net.cpp:141] Setting up inception_5a/relu_1x1
I0403 15:21:09.022524 14623 net.cpp:148] Top shape: 24 256 7 7 (301056)
I0403 15:21:09.022544 14623 net.cpp:156] Memory required for data: 1294534176
I0403 15:21:09.022560 14623 layer_factory.hpp:77] Creating layer inception_5a/3x3_reduce
I0403 15:21:09.022584 14623 net.cpp:91] Creating Layer inception_5a/3x3_reduce
I0403 15:21:09.022603 14623 net.cpp:425] inception_5a/3x3_reduce <- pool4/3x3_s2_pool4/3x3_s2_0_split_1
I0403 15:21:09.022622 14623 net.cpp:399] inception_5a/3x3_reduce -> inception_5a/3x3_reduce
I0403 15:21:09.025003 14623 net.cpp:141] Setting up inception_5a/3x3_reduce
I0403 15:21:09.025032 14623 net.cpp:148] Top shape: 24 160 7 7 (188160)
I0403 15:21:09.025048 14623 net.cpp:156] Memory required for data: 1295286816
I0403 15:21:09.025064 14623 layer_factory.hpp:77] Creating layer inception_5a/relu_3x3_reduce
I0403 15:21:09.025084 14623 net.cpp:91] Creating Layer inception_5a/relu_3x3_reduce
I0403 15:21:09.025102 14623 net.cpp:425] inception_5a/relu_3x3_reduce <- inception_5a/3x3_reduce
I0403 15:21:09.025120 14623 net.cpp:386] inception_5a/relu_3x3_reduce -> inception_5a/3x3_reduce (in-place)
I0403 15:21:09.025300 14623 net.cpp:141] Setting up inception_5a/relu_3x3_reduce
I0403 15:21:09.025324 14623 net.cpp:148] Top shape: 24 160 7 7 (188160)
I0403 15:21:09.025338 14623 net.cpp:156] Memory required for data: 1296039456
I0403 15:21:09.025352 14623 layer_factory.hpp:77] Creating layer inception_5a/3x3
I0403 15:21:09.025374 14623 net.cpp:91] Creating Layer inception_5a/3x3
I0403 15:21:09.025391 14623 net.cpp:425] inception_5a/3x3 <- inception_5a/3x3_reduce
I0403 15:21:09.025413 14623 net.cpp:399] inception_5a/3x3 -> inception_5a/3x3
I0403 15:21:09.030320 14623 net.cpp:141] Setting up inception_5a/3x3
I0403 15:21:09.030349 14623 net.cpp:148] Top shape: 24 320 7 7 (376320)
I0403 15:21:09.030364 14623 net.cpp:156] Memory required for data: 1297544736
I0403 15:21:09.030382 14623 layer_factory.hpp:77] Creating layer inception_5a/relu_3x3
I0403 15:21:09.030402 14623 net.cpp:91] Creating Layer inception_5a/relu_3x3
I0403 15:21:09.030418 14623 net.cpp:425] inception_5a/relu_3x3 <- inception_5a/3x3
I0403 15:21:09.030436 14623 net.cpp:386] inception_5a/relu_3x3 -> inception_5a/3x3 (in-place)
I0403 15:21:09.030732 14623 net.cpp:141] Setting up inception_5a/relu_3x3
I0403 15:21:09.030758 14623 net.cpp:148] Top shape: 24 320 7 7 (376320)
I0403 15:21:09.030773 14623 net.cpp:156] Memory required for data: 1299050016
I0403 15:21:09.030788 14623 layer_factory.hpp:77] Creating layer inception_5a/5x5_reduce
I0403 15:21:09.030809 14623 net.cpp:91] Creating Layer inception_5a/5x5_reduce
I0403 15:21:09.030827 14623 net.cpp:425] inception_5a/5x5_reduce <- pool4/3x3_s2_pool4/3x3_s2_0_split_2
I0403 15:21:09.030848 14623 net.cpp:399] inception_5a/5x5_reduce -> inception_5a/5x5_reduce
I0403 15:21:09.031986 14623 net.cpp:141] Setting up inception_5a/5x5_reduce
I0403 15:21:09.032014 14623 net.cpp:148] Top shape: 24 32 7 7 (37632)
I0403 15:21:09.032030 14623 net.cpp:156] Memory required for data: 1299200544
I0403 15:21:09.032049 14623 layer_factory.hpp:77] Creating layer inception_5a/relu_5x5_reduce
I0403 15:21:09.032068 14623 net.cpp:91] Creating Layer inception_5a/relu_5x5_reduce
I0403 15:21:09.032085 14623 net.cpp:425] inception_5a/relu_5x5_reduce <- inception_5a/5x5_reduce
I0403 15:21:09.032102 14623 net.cpp:386] inception_5a/relu_5x5_reduce -> inception_5a/5x5_reduce (in-place)
I0403 15:21:09.032393 14623 net.cpp:141] Setting up inception_5a/relu_5x5_reduce
I0403 15:21:09.032418 14623 net.cpp:148] Top shape: 24 32 7 7 (37632)
I0403 15:21:09.032433 14623 net.cpp:156] Memory required for data: 1299351072
I0403 15:21:09.032447 14623 layer_factory.hpp:77] Creating layer inception_5a/5x5
I0403 15:21:09.032471 14623 net.cpp:91] Creating Layer inception_5a/5x5
I0403 15:21:09.032488 14623 net.cpp:425] inception_5a/5x5 <- inception_5a/5x5_reduce
I0403 15:21:09.032507 14623 net.cpp:399] inception_5a/5x5 -> inception_5a/5x5
I0403 15:21:09.034194 14623 net.cpp:141] Setting up inception_5a/5x5
I0403 15:21:09.034232 14623 net.cpp:148] Top shape: 24 128 7 7 (150528)
I0403 15:21:09.034247 14623 net.cpp:156] Memory required for data: 1299953184
I0403 15:21:09.034277 14623 layer_factory.hpp:77] Creating layer inception_5a/relu_5x5
I0403 15:21:09.034298 14623 net.cpp:91] Creating Layer inception_5a/relu_5x5
I0403 15:21:09.034315 14623 net.cpp:425] inception_5a/relu_5x5 <- inception_5a/5x5
I0403 15:21:09.034332 14623 net.cpp:386] inception_5a/relu_5x5 -> inception_5a/5x5 (in-place)
I0403 15:21:09.034524 14623 net.cpp:141] Setting up inception_5a/relu_5x5
I0403 15:21:09.034574 14623 net.cpp:148] Top shape: 24 128 7 7 (150528)
I0403 15:21:09.034591 14623 net.cpp:156] Memory required for data: 1300555296
I0403 15:21:09.034606 14623 layer_factory.hpp:77] Creating layer inception_5a/pool
I0403 15:21:09.034623 14623 net.cpp:91] Creating Layer inception_5a/pool
I0403 15:21:09.034639 14623 net.cpp:425] inception_5a/pool <- pool4/3x3_s2_pool4/3x3_s2_0_split_3
I0403 15:21:09.034658 14623 net.cpp:399] inception_5a/pool -> inception_5a/pool
I0403 15:21:09.034728 14623 net.cpp:141] Setting up inception_5a/pool
I0403 15:21:09.034750 14623 net.cpp:148] Top shape: 24 832 7 7 (978432)
I0403 15:21:09.034765 14623 net.cpp:156] Memory required for data: 1304469024
I0403 15:21:09.034777 14623 layer_factory.hpp:77] Creating layer inception_5a/pool_proj
I0403 15:21:09.034800 14623 net.cpp:91] Creating Layer inception_5a/pool_proj
I0403 15:21:09.034816 14623 net.cpp:425] inception_5a/pool_proj <- inception_5a/pool
I0403 15:21:09.034835 14623 net.cpp:399] inception_5a/pool_proj -> inception_5a/pool_proj
I0403 15:21:09.037068 14623 net.cpp:141] Setting up inception_5a/pool_proj
I0403 15:21:09.037096 14623 net.cpp:148] Top shape: 24 128 7 7 (150528)
I0403 15:21:09.037111 14623 net.cpp:156] Memory required for data: 1305071136
I0403 15:21:09.037128 14623 layer_factory.hpp:77] Creating layer inception_5a/relu_pool_proj
I0403 15:21:09.037148 14623 net.cpp:91] Creating Layer inception_5a/relu_pool_proj
I0403 15:21:09.037165 14623 net.cpp:425] inception_5a/relu_pool_proj <- inception_5a/pool_proj
I0403 15:21:09.037183 14623 net.cpp:386] inception_5a/relu_pool_proj -> inception_5a/pool_proj (in-place)
I0403 15:21:09.037475 14623 net.cpp:141] Setting up inception_5a/relu_pool_proj
I0403 15:21:09.037502 14623 net.cpp:148] Top shape: 24 128 7 7 (150528)
I0403 15:21:09.037515 14623 net.cpp:156] Memory required for data: 1305673248
I0403 15:21:09.037529 14623 layer_factory.hpp:77] Creating layer inception_5a/output
I0403 15:21:09.037551 14623 net.cpp:91] Creating Layer inception_5a/output
I0403 15:21:09.037569 14623 net.cpp:425] inception_5a/output <- inception_5a/1x1
I0403 15:21:09.037585 14623 net.cpp:425] inception_5a/output <- inception_5a/3x3
I0403 15:21:09.037600 14623 net.cpp:425] inception_5a/output <- inception_5a/5x5
I0403 15:21:09.037616 14623 net.cpp:425] inception_5a/output <- inception_5a/pool_proj
I0403 15:21:09.037636 14623 net.cpp:399] inception_5a/output -> inception_5a/output
I0403 15:21:09.037686 14623 net.cpp:141] Setting up inception_5a/output
I0403 15:21:09.037709 14623 net.cpp:148] Top shape: 24 832 7 7 (978432)
I0403 15:21:09.037724 14623 net.cpp:156] Memory required for data: 1309586976
I0403 15:21:09.037737 14623 layer_factory.hpp:77] Creating layer inception_5a/output_inception_5a/output_0_split
I0403 15:21:09.037753 14623 net.cpp:91] Creating Layer inception_5a/output_inception_5a/output_0_split
I0403 15:21:09.037767 14623 net.cpp:425] inception_5a/output_inception_5a/output_0_split <- inception_5a/output
I0403 15:21:09.037786 14623 net.cpp:399] inception_5a/output_inception_5a/output_0_split -> inception_5a/output_inception_5a/output_0_split_0
I0403 15:21:09.037806 14623 net.cpp:399] inception_5a/output_inception_5a/output_0_split -> inception_5a/output_inception_5a/output_0_split_1
I0403 15:21:09.037827 14623 net.cpp:399] inception_5a/output_inception_5a/output_0_split -> inception_5a/output_inception_5a/output_0_split_2
I0403 15:21:09.037847 14623 net.cpp:399] inception_5a/output_inception_5a/output_0_split -> inception_5a/output_inception_5a/output_0_split_3
I0403 15:21:09.037957 14623 net.cpp:141] Setting up inception_5a/output_inception_5a/output_0_split
I0403 15:21:09.037981 14623 net.cpp:148] Top shape: 24 832 7 7 (978432)
I0403 15:21:09.037995 14623 net.cpp:148] Top shape: 24 832 7 7 (978432)
I0403 15:21:09.038010 14623 net.cpp:148] Top shape: 24 832 7 7 (978432)
I0403 15:21:09.038025 14623 net.cpp:148] Top shape: 24 832 7 7 (978432)
I0403 15:21:09.038038 14623 net.cpp:156] Memory required for data: 1325241888
I0403 15:21:09.038053 14623 layer_factory.hpp:77] Creating layer inception_5b/1x1
I0403 15:21:09.038074 14623 net.cpp:91] Creating Layer inception_5b/1x1
I0403 15:21:09.038091 14623 net.cpp:425] inception_5b/1x1 <- inception_5a/output_inception_5a/output_0_split_0
I0403 15:21:09.038110 14623 net.cpp:399] inception_5b/1x1 -> inception_5b/1x1
I0403 15:21:09.041812 14623 net.cpp:141] Setting up inception_5b/1x1
I0403 15:21:09.041841 14623 net.cpp:148] Top shape: 24 384 7 7 (451584)
I0403 15:21:09.041857 14623 net.cpp:156] Memory required for data: 1327048224
I0403 15:21:09.041874 14623 layer_factory.hpp:77] Creating layer inception_5b/relu_1x1
I0403 15:21:09.041893 14623 net.cpp:91] Creating Layer inception_5b/relu_1x1
I0403 15:21:09.041910 14623 net.cpp:425] inception_5b/relu_1x1 <- inception_5b/1x1
I0403 15:21:09.041926 14623 net.cpp:386] inception_5b/relu_1x1 -> inception_5b/1x1 (in-place)
I0403 15:21:09.042224 14623 net.cpp:141] Setting up inception_5b/relu_1x1
I0403 15:21:09.042250 14623 net.cpp:148] Top shape: 24 384 7 7 (451584)
I0403 15:21:09.042264 14623 net.cpp:156] Memory required for data: 1328854560
I0403 15:21:09.042279 14623 layer_factory.hpp:77] Creating layer inception_5b/3x3_reduce
I0403 15:21:09.042300 14623 net.cpp:91] Creating Layer inception_5b/3x3_reduce
I0403 15:21:09.042317 14623 net.cpp:425] inception_5b/3x3_reduce <- inception_5a/output_inception_5a/output_0_split_1
I0403 15:21:09.042338 14623 net.cpp:399] inception_5b/3x3_reduce -> inception_5b/3x3_reduce
I0403 15:21:09.044932 14623 net.cpp:141] Setting up inception_5b/3x3_reduce
I0403 15:21:09.044960 14623 net.cpp:148] Top shape: 24 192 7 7 (225792)
I0403 15:21:09.044976 14623 net.cpp:156] Memory required for data: 1329757728
I0403 15:21:09.044993 14623 layer_factory.hpp:77] Creating layer inception_5b/relu_3x3_reduce
I0403 15:21:09.045011 14623 net.cpp:91] Creating Layer inception_5b/relu_3x3_reduce
I0403 15:21:09.045027 14623 net.cpp:425] inception_5b/relu_3x3_reduce <- inception_5b/3x3_reduce
I0403 15:21:09.045045 14623 net.cpp:386] inception_5b/relu_3x3_reduce -> inception_5b/3x3_reduce (in-place)
I0403 15:21:09.045230 14623 net.cpp:141] Setting up inception_5b/relu_3x3_reduce
I0403 15:21:09.045254 14623 net.cpp:148] Top shape: 24 192 7 7 (225792)
I0403 15:21:09.045269 14623 net.cpp:156] Memory required for data: 1330660896
I0403 15:21:09.045282 14623 layer_factory.hpp:77] Creating layer inception_5b/3x3
I0403 15:21:09.045303 14623 net.cpp:91] Creating Layer inception_5b/3x3
I0403 15:21:09.045320 14623 net.cpp:425] inception_5b/3x3 <- inception_5b/3x3_reduce
I0403 15:21:09.045342 14623 net.cpp:399] inception_5b/3x3 -> inception_5b/3x3
I0403 15:21:09.051893 14623 net.cpp:141] Setting up inception_5b/3x3
I0403 15:21:09.051921 14623 net.cpp:148] Top shape: 24 384 7 7 (451584)
I0403 15:21:09.051936 14623 net.cpp:156] Memory required for data: 1332467232
I0403 15:21:09.051954 14623 layer_factory.hpp:77] Creating layer inception_5b/relu_3x3
I0403 15:21:09.051976 14623 net.cpp:91] Creating Layer inception_5b/relu_3x3
I0403 15:21:09.051992 14623 net.cpp:425] inception_5b/relu_3x3 <- inception_5b/3x3
I0403 15:21:09.052009 14623 net.cpp:386] inception_5b/relu_3x3 -> inception_5b/3x3 (in-place)
I0403 15:21:09.052300 14623 net.cpp:141] Setting up inception_5b/relu_3x3
I0403 15:21:09.052325 14623 net.cpp:148] Top shape: 24 384 7 7 (451584)
I0403 15:21:09.052340 14623 net.cpp:156] Memory required for data: 1334273568
I0403 15:21:09.052355 14623 layer_factory.hpp:77] Creating layer inception_5b/5x5_reduce
I0403 15:21:09.052391 14623 net.cpp:91] Creating Layer inception_5b/5x5_reduce
I0403 15:21:09.052408 14623 net.cpp:425] inception_5b/5x5_reduce <- inception_5a/output_inception_5a/output_0_split_2
I0403 15:21:09.052430 14623 net.cpp:399] inception_5b/5x5_reduce -> inception_5b/5x5_reduce
I0403 15:21:09.053683 14623 net.cpp:141] Setting up inception_5b/5x5_reduce
I0403 15:21:09.053711 14623 net.cpp:148] Top shape: 24 48 7 7 (56448)
I0403 15:21:09.053727 14623 net.cpp:156] Memory required for data: 1334499360
I0403 15:21:09.053745 14623 layer_factory.hpp:77] Creating layer inception_5b/relu_5x5_reduce
I0403 15:21:09.053764 14623 net.cpp:91] Creating Layer inception_5b/relu_5x5_reduce
I0403 15:21:09.053781 14623 net.cpp:425] inception_5b/relu_5x5_reduce <- inception_5b/5x5_reduce
I0403 15:21:09.053799 14623 net.cpp:386] inception_5b/relu_5x5_reduce -> inception_5b/5x5_reduce (in-place)
I0403 15:21:09.054162 14623 net.cpp:141] Setting up inception_5b/relu_5x5_reduce
I0403 15:21:09.054188 14623 net.cpp:148] Top shape: 24 48 7 7 (56448)
I0403 15:21:09.054203 14623 net.cpp:156] Memory required for data: 1334725152
I0403 15:21:09.054217 14623 layer_factory.hpp:77] Creating layer inception_5b/5x5
I0403 15:21:09.054237 14623 net.cpp:91] Creating Layer inception_5b/5x5
I0403 15:21:09.054255 14623 net.cpp:425] inception_5b/5x5 <- inception_5b/5x5_reduce
I0403 15:21:09.054272 14623 net.cpp:399] inception_5b/5x5 -> inception_5b/5x5
I0403 15:21:09.056282 14623 net.cpp:141] Setting up inception_5b/5x5
I0403 15:21:09.056308 14623 net.cpp:148] Top shape: 24 128 7 7 (150528)
I0403 15:21:09.056324 14623 net.cpp:156] Memory required for data: 1335327264
I0403 15:21:09.056341 14623 layer_factory.hpp:77] Creating layer inception_5b/relu_5x5
I0403 15:21:09.056361 14623 net.cpp:91] Creating Layer inception_5b/relu_5x5
I0403 15:21:09.056378 14623 net.cpp:425] inception_5b/relu_5x5 <- inception_5b/5x5
I0403 15:21:09.056396 14623 net.cpp:386] inception_5b/relu_5x5 -> inception_5b/5x5 (in-place)
I0403 15:21:09.056588 14623 net.cpp:141] Setting up inception_5b/relu_5x5
I0403 15:21:09.056615 14623 net.cpp:148] Top shape: 24 128 7 7 (150528)
I0403 15:21:09.056632 14623 net.cpp:156] Memory required for data: 1335929376
I0403 15:21:09.056645 14623 layer_factory.hpp:77] Creating layer inception_5b/pool
I0403 15:21:09.056663 14623 net.cpp:91] Creating Layer inception_5b/pool
I0403 15:21:09.056679 14623 net.cpp:425] inception_5b/pool <- inception_5a/output_inception_5a/output_0_split_3
I0403 15:21:09.056699 14623 net.cpp:399] inception_5b/pool -> inception_5b/pool
I0403 15:21:09.056768 14623 net.cpp:141] Setting up inception_5b/pool
I0403 15:21:09.056792 14623 net.cpp:148] Top shape: 24 832 7 7 (978432)
I0403 15:21:09.056805 14623 net.cpp:156] Memory required for data: 1339843104
I0403 15:21:09.056819 14623 layer_factory.hpp:77] Creating layer inception_5b/pool_proj
I0403 15:21:09.056840 14623 net.cpp:91] Creating Layer inception_5b/pool_proj
I0403 15:21:09.056859 14623 net.cpp:425] inception_5b/pool_proj <- inception_5b/pool
I0403 15:21:09.056876 14623 net.cpp:399] inception_5b/pool_proj -> inception_5b/pool_proj
I0403 15:21:09.059123 14623 net.cpp:141] Setting up inception_5b/pool_proj
I0403 15:21:09.059152 14623 net.cpp:148] Top shape: 24 128 7 7 (150528)
I0403 15:21:09.059168 14623 net.cpp:156] Memory required for data: 1340445216
I0403 15:21:09.059187 14623 layer_factory.hpp:77] Creating layer inception_5b/relu_pool_proj
I0403 15:21:09.059207 14623 net.cpp:91] Creating Layer inception_5b/relu_pool_proj
I0403 15:21:09.059226 14623 net.cpp:425] inception_5b/relu_pool_proj <- inception_5b/pool_proj
I0403 15:21:09.059245 14623 net.cpp:386] inception_5b/relu_pool_proj -> inception_5b/pool_proj (in-place)
I0403 15:21:09.059542 14623 net.cpp:141] Setting up inception_5b/relu_pool_proj
I0403 15:21:09.059568 14623 net.cpp:148] Top shape: 24 128 7 7 (150528)
I0403 15:21:09.059583 14623 net.cpp:156] Memory required for data: 1341047328
I0403 15:21:09.059598 14623 layer_factory.hpp:77] Creating layer inception_5b/output
I0403 15:21:09.059617 14623 net.cpp:91] Creating Layer inception_5b/output
I0403 15:21:09.059646 14623 net.cpp:425] inception_5b/output <- inception_5b/1x1
I0403 15:21:09.059664 14623 net.cpp:425] inception_5b/output <- inception_5b/3x3
I0403 15:21:09.059679 14623 net.cpp:425] inception_5b/output <- inception_5b/5x5
I0403 15:21:09.059695 14623 net.cpp:425] inception_5b/output <- inception_5b/pool_proj
I0403 15:21:09.059712 14623 net.cpp:399] inception_5b/output -> inception_5b/output
I0403 15:21:09.059762 14623 net.cpp:141] Setting up inception_5b/output
I0403 15:21:09.059787 14623 net.cpp:148] Top shape: 24 1024 7 7 (1204224)
I0403 15:21:09.059803 14623 net.cpp:156] Memory required for data: 1345864224
I0403 15:21:09.059816 14623 layer_factory.hpp:77] Creating layer pool5/7x7_s1
I0403 15:21:09.059833 14623 net.cpp:91] Creating Layer pool5/7x7_s1
I0403 15:21:09.059849 14623 net.cpp:425] pool5/7x7_s1 <- inception_5b/output
I0403 15:21:09.059867 14623 net.cpp:399] pool5/7x7_s1 -> pool5/7x7_s1
I0403 15:21:09.060078 14623 net.cpp:141] Setting up pool5/7x7_s1
I0403 15:21:09.060103 14623 net.cpp:148] Top shape: 24 1024 1 1 (24576)
I0403 15:21:09.060117 14623 net.cpp:156] Memory required for data: 1345962528
I0403 15:21:09.060132 14623 layer_factory.hpp:77] Creating layer pool5/drop_7x7_s1
I0403 15:21:09.060151 14623 net.cpp:91] Creating Layer pool5/drop_7x7_s1
I0403 15:21:09.060168 14623 net.cpp:425] pool5/drop_7x7_s1 <- pool5/7x7_s1
I0403 15:21:09.060184 14623 net.cpp:386] pool5/drop_7x7_s1 -> pool5/7x7_s1 (in-place)
I0403 15:21:09.060235 14623 net.cpp:141] Setting up pool5/drop_7x7_s1
I0403 15:21:09.060256 14623 net.cpp:148] Top shape: 24 1024 1 1 (24576)
I0403 15:21:09.060271 14623 net.cpp:156] Memory required for data: 1346060832
I0403 15:21:09.060284 14623 layer_factory.hpp:77] Creating layer loss3/classifier_plantvillage
I0403 15:21:09.060302 14623 net.cpp:91] Creating Layer loss3/classifier_plantvillage
I0403 15:21:09.060320 14623 net.cpp:425] loss3/classifier_plantvillage <- pool5/7x7_s1
I0403 15:21:09.060338 14623 net.cpp:399] loss3/classifier_plantvillage -> loss3/classifier_plantvillage
I0403 15:21:09.060757 14623 net.cpp:141] Setting up loss3/classifier_plantvillage
I0403 15:21:09.060781 14623 net.cpp:148] Top shape: 24 38 (912)
I0403 15:21:09.060796 14623 net.cpp:156] Memory required for data: 1346064480
I0403 15:21:09.060813 14623 layer_factory.hpp:77] Creating layer loss3/classifier_plantvillage_loss3/classifier_plantvillage_0_split
I0403 15:21:09.060830 14623 net.cpp:91] Creating Layer loss3/classifier_plantvillage_loss3/classifier_plantvillage_0_split
I0403 15:21:09.060845 14623 net.cpp:425] loss3/classifier_plantvillage_loss3/classifier_plantvillage_0_split <- loss3/classifier_plantvillage
I0403 15:21:09.060865 14623 net.cpp:399] loss3/classifier_plantvillage_loss3/classifier_plantvillage_0_split -> loss3/classifier_plantvillage_loss3/classifier_plantvillage_0_split_0
I0403 15:21:09.060886 14623 net.cpp:399] loss3/classifier_plantvillage_loss3/classifier_plantvillage_0_split -> loss3/classifier_plantvillage_loss3/classifier_plantvillage_0_split_1
I0403 15:21:09.060906 14623 net.cpp:399] loss3/classifier_plantvillage_loss3/classifier_plantvillage_0_split -> loss3/classifier_plantvillage_loss3/classifier_plantvillage_0_split_2
I0403 15:21:09.060926 14623 net.cpp:399] loss3/classifier_plantvillage_loss3/classifier_plantvillage_0_split -> loss3/classifier_plantvillage_loss3/classifier_plantvillage_0_split_3
I0403 15:21:09.061025 14623 net.cpp:141] Setting up loss3/classifier_plantvillage_loss3/classifier_plantvillage_0_split
I0403 15:21:09.061048 14623 net.cpp:148] Top shape: 24 38 (912)
I0403 15:21:09.061064 14623 net.cpp:148] Top shape: 24 38 (912)
I0403 15:21:09.061079 14623 net.cpp:148] Top shape: 24 38 (912)
I0403 15:21:09.061092 14623 net.cpp:148] Top shape: 24 38 (912)
I0403 15:21:09.061106 14623 net.cpp:156] Memory required for data: 1346079072
I0403 15:21:09.061120 14623 layer_factory.hpp:77] Creating layer loss1/loss
I0403 15:21:09.061143 14623 net.cpp:91] Creating Layer loss1/loss
I0403 15:21:09.061161 14623 net.cpp:425] loss1/loss <- loss1/classifier_plantvillage_loss1/classifier_plantvillage_0_split_0
I0403 15:21:09.061192 14623 net.cpp:425] loss1/loss <- label_data_1_split_0
…
