…
I0403 15:17:40.514605 14313 net.cpp:313] The NetState phase (1) differed from the phase (0) specified by a rule in layer data
I0403 15:17:40.515722 14313 net.cpp:49] Initializing net from parameters: 
state {
  phase: TEST
}
layer {
  name: "data"
  type: "Data"
  top: "data"
  top: "label"
  include {
    phase: TEST
  }
  transform_param {
    mirror: false
    crop_size: 224
    mean_file: "/home/mohanty/data/final_dataset/lmdb/color-50-50/mean.binaryproto"
  }
  data_param {
    source: "/home/mohanty/data/final_dataset/lmdb/color-50-50/test_db"
    batch_size: 24
    backend: LMDB
  }
}
layer {
  name: "conv1/7x7_s2"
  type: "Convolution"
  bottom: "data"
  top: "conv1/7x7_s2"
  param {
    lr_mult: 1
    decay_mult: 1
  }
  param {
    lr_mult: 2
    decay_mult: 0
  }
  convolution_param {
    num_output: 64
    pad: 3
    kernel_size: 7
    stride: 2
    weight_filler {
      type: "xavier"
      std: 0.1
    }
    bias_filler {
      type: "constant"
      value: 0.2
    }
  }
}
layer {
  name: "conv1/relu_7x7"
  type: "ReLU"
  bottom: "conv1/7x7_s2"
  top: "conv1/7x7_s2"
}
layer {
  name: "pool1/3x3_s2"
  type: "Pooling"
  bottom: "conv1/7x7_s2"
  top: "pool1/3x3_s2"
  pooling_param {
    pool: MAX
    kernel_size: 3
    stride: 2
  }
}
layer {
  name: "pool1/norm1"
  type: "LRN"
  bottom: "pool1/3x3_s2"
  top: "pool1/norm1"
  lrn_param {
    local_size: 5
    alpha: 0.0001
    beta: 0.75
  }
}
layer {
  name: "conv2/3x3_reduce"
  type: "Convolution"
  bottom: "pool1/norm1"
  top: "conv2/3x3_reduce"
  param {
    lr_mult: 1
    decay_mult: 1
  }
  param {
    lr_mult: 2
    decay_mult: 0
  }
  convolution_param {
    num_output: 64
    kernel_size: 1
    weight_filler {
      type: "xavier"
      std: 0.1
    }
    bias_filler {
      type: "constant"
      value: 0.2
    }
  }
}
layer {
  name: "conv2/relu_3x3_reduce"
  type: "ReLU"
  bottom: "conv2/3x3_reduce"
  top: "conv2/3x3_reduce"
}
layer {
  name: "conv2/3x3"
  type: "Convolution"
  bottom: "conv2/3x3_reduce"
  top: "conv2/3x3"
  param {
    lr_mult: 1
    decay_mult: 1
  }
  param {
    lr_mult: 2
    decay_mult: 0
  }
  convolution_param {
    num_output: 192
    pad: 1
    kernel_size: 3
    weight_filler {
      type: "xavier"
      std: 0.03
    }
    bias_filler {
      type: "constant"
      value: 0.2
    }
  }
}
layer {
  name: "conv2/relu_3x3"
  type: "ReLU"
  bottom: "conv2/3x3"
  top: "conv2/3x3"
}
layer {
  name: "conv2/norm2"
  type: "LRN"
  bottom: "conv2/3x3"
  top: "conv2/norm2"
  lrn_param {
    local_size: 5
    alpha: 0.0001
    beta: 0.75
  }
}
layer {
  name: "pool2/3x3_s2"
  type: "Pooling"
  bottom: "conv2/norm2"
  top: "pool2/3x3_s2"
  pooling_param {
    pool: MAX
    kernel_size: 3
    stride: 2
  }
}
layer {
  name: "inception_3a/1x1"
  type: "Convolution"
  bottom: "pool2/3x3_s2"
  top: "inception_3a/1x1"
  param {
    lr_mult: 1
    decay_mult: 1
  }
  param {
    lr_mult: 2
    decay_mult: 0
  }
  convolution_param {
    num_output: 64
    kernel_size: 1
    weight_filler {
      type: "xavier"
      std: 0.03
    }
    bias_filler {
      type: "constant"
      value: 0.2
    }
  }
}
layer {
  name: "inception_3a/relu_1x1"
  type: "ReLU"
  bottom: "inception_3a/1x1"
  top: "inception_3a/1x1"
}
layer {
  name: "inception_3a/3x3_reduce"
  type: "Convolution"
  bottom: "pool2/3x3_s2"
  top: "inception_3a/3x3_reduce"
  param {
    lr_mult: 1
    decay_mult: 1
  }
  param {
    lr_mult: 2
    decay_mult: 0
  }
  convolution_param {
    num_output: 96
    kernel_size: 1
    weight_filler {
      type: "xavier"
      std: 0.09
    }
    bias_filler {
      type: "constant"
      value: 0.2
    }
  }
}
layer {
  name: "inception_3a/relu_3x3_reduce"
  type: "ReLU"
  bottom: "inception_3a/3x3_reduce"
  top: "inception_3a/3x3_reduce"
}
layer {
  name: "inception_3a/3x3"
  type: "Convolution"
  bottom: "inception_3a/3x3_reduce"
  top: "inception_3a/3x3"
  param {
    lr_mult: 1
    decay_mult: 1
  }
  param {
    lr_mult: 2
    decay_mult: 0
  }
  convolution_param {
    num_output: 128
    pad: 1
    kernel_size: 3
    weight_filler {
      type: "xavier"
      std: 0.03
    }
    bias_filler {
      type: "constant"
      value: 0.2
    }
  }
}
layer {
  name: "inception_3a/relu_3x3"
  type: "ReLU"
  bottom: "inception_3a/3x3"
  top: "inception_3a/3x3"
}
layer {
  name: "inception_3a/5x5_reduce"
  type: "Convolution"
  bottom: "pool2/3x3_s2"
  top: "inception_3a/5x5_reduce"
  param {
    lr_mult: 1
    decay_mult: 1
  }
  param {
    lr_mult: 2
    decay_mult: 0
  }
  convolution_param {
    num_output: 16
    kernel_size: 1
    weight_filler {
      type: "xavier"
      std: 0.2
    }
    bias_filler {
      type: "constant"
      value: 0.2
    }
  }
}
layer {
  name: "inception_3a/relu_5x5_reduce"
  type: "ReLU"
  bottom: "inception_3a/5x5_reduce"
  top: "inception_3a/5x5_reduce"
}
layer {
  name: "inception_3a/5x5"
  type: "Convolution"
  bottom: "inception_3a/5x5_reduce"
  top: "inception_3a/5x5"
  param {
    lr_mult: 1
    decay_mult: 1
  }
  param {
    lr_mult: 2
    decay_mult: 0
  }
  convolution_param {
    num_output: 32
    pad: 2
    kernel_size: 5
    weight_filler {
      type: "xavier"
      std: 0.03
    }
    bias_filler {
      type: "constant"
      value: 0.2
    }
  }
}
layer {
  name: "inception_3a/relu_5x5"
  type: "ReLU"
  bottom: "inception_3a/5x5"
  top: "inception_3a/5x5"
}
layer {
  name: "inception_3a/pool"
  type: "Pooling"
  bottom: "pool2/3x3_s2"
  top: "inception_3a/pool"
  pooling_param {
    pool: MAX
    kernel_size: 3
    stride: 1
    pad: 1
  }
}
layer {
  name: "inception_3a/pool_proj"
  type: "Convolution"
  bottom: "inception_3a/pool"
  top: "inception_3a/pool_proj"
  param {
    lr_mult: 1
    decay_mult: 1
  }
  param {
    lr_mult: 2
    decay_mult: 0
  }
  convolution_param {
    num_output: 32
    kernel_size: 1
    weight_filler {
      type: "xavier"
      std: 0.1
    }
    bias_filler {
      type: "constant"
      value: 0.2
    }
  }
}
layer {
  name: "inception_3a/relu_pool_proj"
  type: "ReLU"
  bottom: "inception_3a/pool_proj"
  top: "inception_3a/pool_proj"
}
layer {
  name: "inception_3a/output"
  type: "Concat"
  bottom: "inception_3a/1x1"
  bottom: "inception_3a/3x3"
  bottom: "inception_3a/5x5"
  bottom: "inception_3a/pool_proj"
  top: "inception_3a/output"
}
layer {
  name: "inception_3b/1x1"
  type: "Convolution"
  bottom: "inception_3a/output"
  top: "inception_3b/1x1"
  param {
    lr_mult: 1
    decay_mult: 1
  }
  param {
    lr_mult: 2
    decay_mult: 0
  }
  convolution_param {
    num_output: 128
    kernel_size: 1
    weight_filler {
      type: "xavier"
      std: 0.03
    }
    bias_filler {
      type: "constant"
      value: 0.2
    }
  }
}
layer {
  name: "inception_3b/relu_1x1"
  type: "ReLU"
  bottom: "inception_3b/1x1"
  top: "inception_3b/1x1"
}
layer {
  name: "inception_3b/3x3_reduce"
  type: "Convolution"
  bottom: "inception_3a/output"
  top: "inception_3b/3x3_reduce"
  param {
    lr_mult: 1
    decay_mult: 1
  }
  param {
    lr_mult: 2
    decay_mult: 0
  }
  convolution_param {
    num_output: 128
    kernel_size: 1
    weight_filler {
      type: "xavier"
      std: 0.09
    }
    bias_filler {
      type: "constant"
      value: 0.2
    }
  }
}
layer {
  name: "inception_3b/relu_3x3_reduce"
  type: "ReLU"
  bottom: "inception_3b/3x3_reduce"
  top: "inception_3b/3x3_reduce"
}
layer {
  name: "inception_3b/3x3"
  type: "Convolution"
  bottom: "inception_3b/3x3_reduce"
  top: "inception_3b/3x3"
  param {
    lr_mult: 1
    decay_mult: 1
  }
  param {
    lr_mult: 2
    decay_mult: 0
  }
  convolution_param {
    num_output: 192
    pad: 1
    kernel_size: 3
    weight_filler {
      type: "xavier"
      std: 0.03
    }
    bias_filler {
      type: "constant"
      value: 0.2
    }
  }
}
layer {
  name: "inception_3b/relu_3x3"
  type: "ReLU"
  bottom: "inception_3b/3x3"
  top: "inception_3b/3x3"
}
layer {
  name: "inception_3b/5x5_reduce"
  type: "Convolution"
  bottom: "inception_3a/output"
  top: "inception_3b/5x5_reduce"
  param {
    lr_mult: 1
    decay_mult: 1
  }
  param {
    lr_mult: 2
    decay_mult: 0
  }
  convolution_param {
    num_output: 32
    kernel_size: 1
    weight_filler {
      type: "xavier"
      std: 0.2
    }
    bias_filler {
      type: "constant"
      value: 0.2
    }
  }
}
layer {
  name: "inception_3b/relu_5x5_reduce"
  type: "ReLU"
  bottom: "inception_3b/5x5_reduce"
  top: "inception_3b/5x5_reduce"
}
layer {
  name: "inception_3b/5x5"
  type: "Convolution"
  bottom: "inception_3b/5x5_reduce"
  top: "inception_3b/5x5"
  param {
    lr_mult: 1
    decay_mult: 1
  }
  param {
    lr_mult: 2
    decay_mult: 0
  }
  convolution_param {
    num_output: 96
    pad: 2
    kernel_size: 5
    weight_filler {
      type: "xavier"
      std: 0.03
    }
    bias_filler {
      type: "constant"
      value: 0.2
    }
  }
}
layer {
  name: "inception_3b/relu_5x5"
  type: "ReLU"
  bottom: "inception_3b/5x5"
  top: "inception_3b/5x5"
}
layer {
  name: "inception_3b/pool"
  type: "Pooling"
  bottom: "inception_3a/output"
  top: "inception_3b/pool"
  pooling_param {
    pool: MAX
    kernel_size: 3
    stride: 1
    pad: 1
  }
}
layer {
  name: "inception_3b/pool_proj"
  type: "Convolution"
  bottom: "inception_3b/pool"
  top: "inception_3b/pool_proj"
  param {
    lr_mult: 1
    decay_mult: 1
  }
  param {
    lr_mult: 2
    decay_mult: 0
  }
  convolution_param {
    num_output: 64
    kernel_size: 1
    weight_filler {
      type: "xavier"
      std: 0.1
    }
    bias_filler {
      type: "constant"
      value: 0.2
    }
  }
}
layer {
  name: "inception_3b/relu_pool_proj"
  type: "ReLU"
  bottom: "inception_3b/pool_proj"
  top: "inception_3b/pool_proj"
}
layer {
  name: "inception_3b/output"
  type: "Concat"
  bottom: "inception_3b/1x1"
  bottom: "inception_3b/3x3"
  bottom: "inception_3b/5x5"
  bottom: "inception_3b/pool_proj"
  top: "inception_3b/output"
}
layer {
  name: "pool3/3x3_s2"
  type: "Pooling"
  bottom: "inception_3b/output"
  top: "pool3/3x3_s2"
  pooling_param {
    pool: MAX
    kernel_size: 3
    stride: 2
  }
}
layer {
  name: "inception_4a/1x1"
  type: "Convolution"
  bottom: "pool3/3x3_s2"
  top: "inception_4a/1x1"
  param {
    lr_mult: 1
    decay_mult: 1
  }
  param {
    lr_mult: 2
    decay_mult: 0
  }
  convolution_param {
    num_output: 192
    kernel_size: 1
    weight_filler {
      type: "xavier"
      std: 0.03
    }
    bias_filler {
      type: "constant"
      value: 0.2
    }
  }
}
layer {
  name: "inception_4a/relu_1x1"
  type: "ReLU"
  bottom: "inception_4a/1x1"
  top: "inception_4a/1x1"
}
layer {
  name: "inception_4a/3x3_reduce"
  type: "Convolution"
  bottom: "pool3/3x3_s2"
  top: "inception_4a/3x3_reduce"
  param {
    lr_mult: 1
    decay_mult: 1
  }
  param {
    lr_mult: 2
    decay_mult: 0
  }
  convolution_param {
    num_output: 96
    kernel_size: 1
    weight_filler {
      type: "xavier"
      std: 0.09
    }
    bias_filler {
      type: "constant"
      value: 0.2
    }
  }
}
layer {
  name: "inception_4a/relu_3x3_reduce"
  type: "ReLU"
  bottom: "inception_4a/3x3_reduce"
  top: "inception_4a/3x3_reduce"
}
layer {
  name: "inception_4a/3x3"
  type: "Convolution"
  bottom: "inception_4a/3x3_reduce"
  top: "inception_4a/3x3"
  param {
    lr_mult: 1
    decay_mult: 1
  }
  param {
    lr_mult: 2
    decay_mult: 0
  }
  convolution_param {
    num_output: 208
    pad: 1
    kernel_size: 3
    weight_filler {
      type: "xavier"
      std: 0.03
    }
    bias_filler {
      type: "constant"
      value: 0.2
    }
  }
}
layer {
  name: "inception_4a/relu_3x3"
  type: "ReLU"
  bottom: "inception_4a/3x3"
  top: "inception_4a/3x3"
}
layer {
  name: "inception_4a/5x5_reduce"
  type: "Convolution"
  bottom: "pool3/3x3_s2"
  top: "inception_4a/5x5_reduce"
  param {
    lr_mult: 1
    decay_mult: 1
  }
  param {
    lr_mult: 2
    decay_mult: 0
  }
  convolution_param {
    num_output: 16
    kernel_size: 1
    weight_filler {
      type: "xavier"
      std: 0.2
    }
    bias_filler {
      type: "constant"
      value: 0.2
    }
  }
}
layer {
  name: "inception_4a/relu_5x5_reduce"
  type: "ReLU"
  bottom: "inception_4a/5x5_reduce"
  top: "inception_4a/5x5_reduce"
}
layer {
  name: "inception_4a/5x5"
  type: "Convolution"
  bottom: "inception_4a/5x5_reduce"
  top: "inception_4a/5x5"
  param {
    lr_mult: 1
    decay_mult: 1
  }
  param {
    lr_mult: 2
    decay_mult: 0
  }
  convolution_param {
    num_output: 48
    pad: 2
    kernel_size: 5
    weight_filler {
      type: "xavier"
      std: 0.03
    }
    bias_filler {
      type: "constant"
      value: 0.2
    }
  }
}
layer {
  name: "inception_4a/relu_5x5"
  type: "ReLU"
  bottom: "inception_4a/5x5"
  top: "inception_4a/5x5"
}
layer {
  name: "inception_4a/pool"
  type: "Pooling"
  bottom: "pool3/3x3_s2"
  top: "inception_4a/pool"
  pooling_param {
    pool: MAX
    kernel_size: 3
    stride: 1
    pad: 1
  }
}
layer {
  name: "inception_4a/pool_proj"
  type: "Convolution"
  bottom: "inception_4a/pool"
  top: "inception_4a/pool_proj"
  param {
    lr_mult: 1
    decay_mult: 1
  }
  param {
    lr_mult: 2
    decay_mult: 0
  }
  convolution_param {
    num_output: 64
    kernel_size: 1
    weight_filler {
      type: "xavier"
      std: 0.1
    }
    bias_filler {
      type: "constant"
      value: 0.2
    }
  }
}
layer {
  name: "inception_4a/relu_pool_proj"
  type: "ReLU"
  bottom: "inception_4a/pool_proj"
  top: "inception_4a/pool_proj"
}
layer {
  name: "inception_4a/output"
  type: "Concat"
  bottom: "inception_4a/1x1"
  bottom: "inception_4a/3x3"
  bottom: "inception_4a/5x5"
  bottom: "inception_4a/pool_proj"
  top: "inception_4a/output"
}
layer {
  name: "loss1/ave_pool"
  type: "Pooling"
  bottom: "inception_4a/output"
  top: "loss1/ave_pool"
  pooling_param {
    pool: AVE
    kernel_size: 5
    stride: 3
  }
}
layer {
  name: "loss1/conv"
  type: "Convolution"
  bottom: "loss1/ave_pool"
  top: "loss1/conv"
  param {
    lr_mult: 1
    decay_mult: 1
  }
  param {
    lr_mult: 2
    decay_mult: 0
  }
  convolution_param {
    num_output: 128
    kernel_size: 1
    weight_filler {
      type: "xavier"
      std: 0.08
    }
    bias_filler {
      type: "constant"
      value: 0.2
    }
  }
}
layer {
  name: "loss1/relu_conv"
  type: "ReLU"
  bottom: "loss1/conv"
  top: "loss1/conv"
}
layer {
  name: "loss1/fc"
  type: "InnerProduct"
  bottom: "loss1/conv"
  top: "loss1/fc"
  param {
    lr_mult: 1
    decay_mult: 1
  }
  param {
    lr_mult: 2
    decay_mult: 0
  }
  inner_product_param {
    num_output: 1024
    weight_filler {
      type: "xavier"
      std: 0.02
    }
    bias_filler {
      type: "constant"
      value: 0.2
    }
  }
}
layer {
  name: "loss1/relu_fc"
  type: "ReLU"
  bottom: "loss1/fc"
  top: "loss1/fc"
}
layer {
  name: "loss1/drop_fc"
  type: "Dropout"
  bottom: "loss1/fc"
  top: "loss1/fc"
  dropout_param {
    dropout_ratio: 0.7
  }
}
layer {
  name: "loss1/classifier_plantvillage"
  type: "InnerProduct"
  bottom: "loss1/fc"
  top: "loss1/classifier_plantvillage"
  param {
    lr_mult: 1
    decay_mult: 1
  }
  param {
    lr_mult: 2
    decay_mult: 0
  }
  inner_product_param {
    num_output: 38
    weight_filler {
      type: "xavier"
      std: 0.0009765625
    }
    bias_filler {
      type: "constant"
      value: 0
    }
  }
}
layer {
  name: "inception_4b/1x1"
  type: "Convolution"
  bottom: "inception_4a/output"
  top: "inception_4b/1x1"
  param {
    lr_mult: 1
    decay_mult: 1
  }
  param {
    lr_mult: 2
    decay_mult: 0
  }
  convolution_param {
    num_output: 160
    kernel_size: 1
    weight_filler {
      type: "xavier"
      std: 0.03
    }
    bias_filler {
      type: "constant"
      value: 0.2
    }
  }
}
layer {
  name: "inception_4b/relu_1x1"
  type: "ReLU"
  bottom: "inception_4b/1x1"
  top: "inception_4b/1x1"
}
layer {
  name: "inception_4b/3x3_reduce"
  type: "Convolution"
  bottom: "inception_4a/output"
  top: "inception_4b/3x3_reduce"
  param {
    lr_mult: 1
    decay_mult: 1
  }
  param {
    lr_mult: 2
    decay_mult: 0
  }
  convolution_param {
    num_output: 112
    kernel_size: 1
    weight_filler {
      type: "xavier"
      std: 0.09
    }
    bias_filler {
      type: "constant"
      value: 0.2
    }
  }
}
layer {
  name: "inception_4b/relu_3x3_reduce"
  type: "ReLU"
  bottom: "inception_4b/3x3_reduce"
  top: "inception_4b/3x3_reduce"
}
layer {
  name: "inception_4b/3x3"
  type: "Convolution"
  bottom: "inception_4b/3x3_reduce"
  top: "inception_4b/3x3"
  param {
    lr_mult: 1
    decay_mult: 1
  }
  param {
    lr_mult: 2
    decay_mult: 0
  }
  convolution_param {
    num_output: 224
    pad: 1
    kernel_size: 3
    weight_filler {
      type: "xavier"
      std: 0.03
    }
    bias_filler {
      type: "constant"
      value: 0.2
    }
  }
}
layer {
  name: "inception_4b/relu_3x3"
  type: "ReLU"
  bottom: "inception_4b/3x3"
  top: "inception_4b/3x3"
}
layer {
  name: "inception_4b/5x5_reduce"
  type: "Convolution"
  bottom: "inception_4a/output"
  top: "inception_4b/5x5_reduce"
  param {
    lr_mult: 1
    decay_mult: 1
  }
  param {
    lr_mult: 2
    decay_mult: 0
  }
  convolution_param {
    num_output: 24
    kernel_size: 1
    weight_filler {
      type: "xavier"
      std: 0.2
    }
    bias_filler {
      type: "constant"
      value: 0.2
    }
  }
}
layer {
  name: "inception_4b/relu_5x5_reduce"
  type: "ReLU"
  bottom: "inception_4b/5x5_reduce"
  top: "inception_4b/5x5_reduce"
}
layer {
  name: "inception_4b/5x5"
  type: "Convolution"
  bottom: "inception_4b/5x5_reduce"
  top: "inception_4b/5x5"
  param {
    lr_mult: 1
    decay_mult: 1
  }
  param {
    lr_mult: 2
    decay_mult: 0
  }
  convolution_param {
    num_output: 64
    pad: 2
    kernel_size: 5
    weight_filler {
      type: "xavier"
      std: 0.03
    }
    bias_filler {
      type: "constant"
      value: 0.2
    }
  }
}
layer {
  name: "inception_4b/relu_5x5"
  type: "ReLU"
  bottom: "inception_4b/5x5"
  top: "inception_4b/5x5"
}
layer {
  name: "inception_4b/pool"
  type: "Pooling"
  bottom: "inception_4a/output"
  top: "inception_4b/pool"
  pooling_param {
    pool: MAX
    kernel_size: 3
    stride: 1
    pad: 1
  }
}
layer {
  name: "inception_4b/pool_proj"
  type: "Convolution"
  bottom: "inception_4b/pool"
  top: "inception_4b/pool_proj"
  param {
    lr_mult: 1
    decay_mult: 1
  }
  param {
    lr_mult: 2
    decay_mult: 0
  }
  convolution_param {
    num_output: 64
    kernel_size: 1
    weight_filler {
      type: "xavier"
      std: 0.1
    }
    bias_filler {
      type: "constant"
      value: 0.2
    }
  }
}
layer {
  name: "inception_4b/relu_pool_proj"
  type: "ReLU"
  bottom: "inception_4b/pool_proj"
  top: "inception_4b/pool_proj"
}
layer {
  name: "inception_4b/output"
  type: "Concat"
  bottom: "inception_4b/1x1"
  bottom: "inception_4b/3x3"
  bottom: "inception_4b/5x5"
  bottom: "inception_4b/pool_proj"
  top: "inception_4b/output"
}
layer {
  name: "inception_4c/1x1"
  type: "Convolution"
  bottom: "inception_4b/output"
  top: "inception_4c/1x1"
  param {
    lr_mult: 1
    decay_mult: 1
  }
  param {
    lr_mult: 2
    decay_mult: 0
  }
  convolution_param {
    num_output: 128
    kernel_size: 1
    weight_filler {
      type: "xavier"
      std: 0.03
    }
    bias_filler {
      type: "constant"
      value: 0.2
    }
  }
}
layer {
  name: "inception_4c/relu_1x1"
  type: "ReLU"
  bottom: "inception_4c/1x1"
  top: "inception_4c/1x1"
}
layer {
  name: "inception_4c/3x3_reduce"
  type: "Convolution"
  bottom: "inception_4b/output"
  top: "inception_4c/3x3_reduce"
  param {
    lr_mult: 1
    decay_mult: 1
  }
  param {
    lr_mult: 2
    decay_mult: 0
  }
  convolution_param {
    num_output: 128
    kernel_size: 1
    weight_filler {
      type: "xavier"
      std: 0.09
    }
    bias_filler {
      type: "constant"
      value: 0.2
    }
  }
}
layer {
  name: "inception_4c/relu_3x3_reduce"
  type: "ReLU"
  bottom: "inception_4c/3x3_reduce"
  top: "inception_4c/3x3_reduce"
}
layer {
  name: "inception_4c/3x3"
  type: "Convolution"
  bottom: "inception_4c/3x3_reduce"
  top: "inception_4c/3x3"
  param {
    lr_mult: 1
    decay_mult: 1
  }
  param {
    lr_mult: 2
    decay_mult: 0
  }
  convolution_param {
    num_output: 256
    pad: 1
    kernel_size: 3
    weight_filler {
      type: "xavier"
      std: 0.03
    }
    bias_filler {
      type: "constant"
      value: 0.2
    }
  }
}
layer {
  name: "inception_4c/relu_3x3"
  type: "ReLU"
  bottom: "inception_4c/3x3"
  top: "inception_4c/3x3"
}
layer {
  name: "inception_4c/5x5_reduce"
  type: "Convolution"
  bottom: "inception_4b/output"
  top: "inception_4c/5x5_reduce"
  param {
    lr_mult: 1
    decay_mult: 1
  }
  param {
    lr_mult: 2
    decay_mult: 0
  }
  convolution_param {
    num_output: 24
    kernel_size: 1
    weight_filler {
      type: "xavier"
      std: 0.2
    }
    bias_filler {
      type: "constant"
      value: 0.2
    }
  }
}
layer {
  name: "inception_4c/relu_5x5_reduce"
  type: "ReLU"
  bottom: "inception_4c/5x5_reduce"
  top: "inception_4c/5x5_reduce"
}
layer {
  name: "inception_4c/5x5"
  type: "Convolution"
  bottom: "inception_4c/5x5_reduce"
  top: "inception_4c/5x5"
  param {
    lr_mult: 1
    decay_mult: 1
  }
  param {
    lr_mult: 2
    decay_mult: 0
  }
  convolution_param {
    num_output: 64
    pad: 2
    kernel_size: 5
    weight_filler {
      type: "xavier"
      std: 0.03
    }
    bias_filler {
      type: "constant"
      value: 0.2
    }
  }
}
layer {
  name: "inception_4c/relu_5x5"
  type: "ReLU"
  bottom: "inception_4c/5x5"
  top: "inception_4c/5x5"
}
layer {
  name: "inception_4c/pool"
  type: "Pooling"
  bottom: "inception_4b/output"
  top: "inception_4c/pool"
  pooling_param {
    pool: MAX
    kernel_size: 3
    stride: 1
    pad: 1
  }
}
layer {
  name: "inception_4c/pool_proj"
  type: "Convolution"
  bottom: "inception_4c/pool"
  top: "inception_4c/pool_proj"
  param {
    lr_mult: 1
    decay_mult: 1
  }
  param {
    lr_mult: 2
    decay_mult: 0
  }
  convolution_param {
    num_output: 64
    kernel_size: 1
    weight_filler {
      type: "xavier"
      std: 0.1
    }
    bias_filler {
      type: "constant"
      value: 0.2
    }
  }
}
layer {
  name: "inception_4c/relu_pool_proj"
  type: "ReLU"
  bottom: "inception_4c/pool_proj"
  top: "inception_4c/pool_proj"
}
layer {
  name: "inception_4c/output"
  type: "Concat"
  bottom: "inception_4c/1x1"
  bottom: "inception_4c/3x3"
  bottom: "inception_4c/5x5"
  bottom: "inception_4c/pool_proj"
  top: "inception_4c/output"
}
layer {
  name: "inception_4d/1x1"
  type: "Convolution"
  bottom: "inception_4c/output"
  top: "inception_4d/1x1"
  param {
    lr_mult: 1
    decay_mult: 1
  }
  param {
    lr_mult: 2
    decay_mult: 0
  }
  convolution_param {
    num_output: 112
    kernel_size: 1
    weight_filler {
      type: "xavier"
      std: 0.03
    }
    bias_filler {
      type: "constant"
      value: 0.2
    }
  }
}
layer {
  name: "inception_4d/relu_1x1"
  type: "ReLU"
  bottom: "inception_4d/1x1"
  top: "inception_4d/1x1"
}
layer {
  name: "inception_4d/3x3_reduce"
  type: "Convolution"
  bottom: "inception_4c/output"
  top: "inception_4d/3x3_reduce"
  param {
    lr_mult: 1
    decay_mult: 1
  }
  param {
    lr_mult: 2
    decay_mult: 0
  }
  convolution_param {
    num_output: 144
    kernel_size: 1
    weight_filler {
      type: "xavier"
      std: 0.09
    }
    bias_filler {
      type: "constant"
      value: 0.2
    }
  }
}
layer {
  name: "inception_4d/relu_3x3_reduce"
  type: "ReLU"
  bottom: "inception_4d/3x3_reduce"
  top: "inception_4d/3x3_reduce"
}
layer {
  name: "inception_4d/3x3"
  type: "Convolution"
  bottom: "inception_4d/3x3_reduce"
  top: "inception_4d/3x3"
  param {
    lr_mult: 1
    decay_mult: 1
  }
  param {
    lr_mult: 2
    decay_mult: 0
  }
  convolution_param {
    num_output: 288
    pad: 1
    kernel_size: 3
    weight_filler {
      type: "xavier"
      std: 0.03
    }
    bias_filler {
      type: "constant"
      value: 0.2
    }
  }
}
layer {
  name: "inception_4d/relu_3x3"
  type: "ReLU"
  bottom: "inception_4d/3x3"
  top: "inception_4d/3x3"
}
layer {
  name: "inception_4d/5x5_reduce"
  type: "Convolution"
  bottom: "inception_4c/output"
  top: "inception_4d/5x5_reduce"
  param {
    lr_mult: 1
    decay_mult: 1
  }
  param {
    lr_mult: 2
    decay_mult: 0
  }
  convolution_param {
    num_output: 32
    kernel_size: 1
    weight_filler {
      type: "xavier"
      std: 0.2
    }
    bias_filler {
      type: "constant"
      value: 0.2
    }
  }
}
layer {
  name: "inception_4d/relu_5x5_reduce"
  type: "ReLU"
  bottom: "inception_4d/5x5_reduce"
  top: "inception_4d/5x5_reduce"
}
layer {
  name: "inception_4d/5x5"
  type: "Convolution"
  bottom: "inception_4d/5x5_reduce"
  top: "inception_4d/5x5"
  param {
    lr_mult: 1
    decay_mult: 1
  }
  param {
    lr_mult: 2
    decay_mult: 0
  }
  convolution_param {
    num_output: 64
    pad: 2
    kernel_size: 5
    weight_filler {
      type: "xavier"
      std: 0.03
    }
    bias_filler {
      type: "constant"
      value: 0.2
    }
  }
}
layer {
  name: "inception_4d/relu_5x5"
  type: "ReLU"
  bottom: "inception_4d/5x5"
  top: "inception_4d/5x5"
}
layer {
  name: "inception_4d/pool"
  type: "Pooling"
  bottom: "inception_4c/output"
  top: "inception_4d/pool"
  pooling_param {
    pool: MAX
    kernel_size: 3
    stride: 1
    pad: 1
  }
}
layer {
  name: "inception_4d/pool_proj"
  type: "Convolution"
  bottom: "inception_4d/pool"
  top: "inception_4d/pool_proj"
  param {
    lr_mult: 1
    decay_mult: 1
  }
  param {
    lr_mult: 2
    decay_mult: 0
  }
  convolution_param {
    num_output: 64
    kernel_size: 1
    weight_filler {
      type: "xavier"
      std: 0.1
    }
    bias_filler {
      type: "constant"
      value: 0.2
    }
  }
}
layer {
  name: "inception_4d/relu_pool_proj"
  type: "ReLU"
  bottom: "inception_4d/pool_proj"
  top: "inception_4d/pool_proj"
}
layer {
  name: "inception_4d/output"
  type: "Concat"
  bottom: "inception_4d/1x1"
  bottom: "inception_4d/3x3"
  bottom: "inception_4d/5x5"
  bottom: "inception_4d/pool_proj"
  top: "inception_4d/output"
}
layer {
  name: "loss2/ave_pool"
  type: "Pooling"
  bottom: "inception_4d/output"
  top: "loss2/ave_pool"
  pooling_param {
    pool: AVE
    kernel_size: 5
    stride: 3
  }
}
layer {
  name: "loss2/conv"
  type: "Convolution"
  bottom: "loss2/ave_pool"
  top: "loss2/conv"
  param {
    lr_mult: 1
    decay_mult: 1
  }
  param {
    lr_mult: 2
    decay_mult: 0
  }
  convolution_param {
    num_output: 128
    kernel_size: 1
    weight_filler {
      type: "xavier"
      std: 0.08
    }
    bias_filler {
      type: "constant"
      value: 0.2
    }
  }
}
layer {
  name: "loss2/relu_conv"
  type: "ReLU"
  bottom: "loss2/conv"
  top: "loss2/conv"
}
layer {
  name: "loss2/fc"
  type: "InnerProduct"
  bottom: "loss2/conv"
  top: "loss2/fc"
  param {
    lr_mult: 1
    decay_mult: 1
  }
  param {
    lr_mult: 2
    decay_mult: 0
  }
  inner_product_param {
    num_output: 1024
    weight_filler {
      type: "xavier"
      std: 0.02
    }
    bias_filler {
      type: "constant"
      value: 0.2
    }
  }
}
layer {
  name: "loss2/relu_fc"
  type: "ReLU"
  bottom: "loss2/fc"
  top: "loss2/fc"
}
layer {
  name: "loss2/drop_fc"
  type: "Dropout"
  bottom: "loss2/fc"
  top: "loss2/fc"
  dropout_param {
    dropout_ratio: 0.7
  }
}
layer {
  name: "loss2/classifier_plantvillage"
  type: "InnerProduct"
  bottom: "loss2/fc"
  top: "loss2/classifier_plantvillage"
  param {
    lr_mult: 1
    decay_mult: 1
  }
  param {
    lr_mult: 2
    decay_mult: 0
  }
  inner_product_param {
    num_output: 38
    weight_filler {
      type: "xavier"
      std: 0.0009765625
    }
    bias_filler {
      type: "constant"
      value: 0
    }
  }
}
layer {
  name: "inception_4e/1x1"
  type: "Convolution"
  bottom: "inception_4d/output"
  top: "inception_4e/1x1"
  param {
    lr_mult: 1
    decay_mult: 1
  }
  param {
    lr_mult: 2
    decay_mult: 0
  }
  convolution_param {
    num_output: 256
    kernel_size: 1
    weight_filler {
      type: "xavier"
      std: 0.03
    }
    bias_filler {
      type: "constant"
      value: 0.2
    }
  }
}
layer {
  name: "inception_4e/relu_1x1"
  type: "ReLU"
  bottom: "inception_4e/1x1"
  top: "inception_4e/1x1"
}
layer {
  name: "inception_4e/3x3_reduce"
  type: "Convolution"
  bottom: "inception_4d/output"
  top: "inception_4e/3x3_reduce"
  param {
    lr_mult: 1
    decay_mult: 1
  }
  param {
    lr_mult: 2
    decay_mult: 0
  }
  convolution_param {
    num_output: 160
    kernel_size: 1
    weight_filler {
      type: "xavier"
      std: 0.09
    }
    bias_filler {
      type: "constant"
      value: 0.2
    }
  }
}
layer {
  name: "inception_4e/relu_3x3_reduce"
  type: "ReLU"
  bottom: "inception_4e/3x3_reduce"
  top: "inception_4e/3x3_reduce"
}
layer {
  name: "inception_4e/3x3"
  type: "Convolution"
  bottom: "inception_4e/3x3_reduce"
  top: "inception_4e/3x3"
  param {
    lr_mult: 1
    decay_mult: 1
  }
  param {
    lr_mult: 2
    decay_mult: 0
  }
  convolution_param {
    num_output: 320
    pad: 1
    kernel_size: 3
    weight_filler {
      type: "xavier"
      std: 0.03
    }
    bias_filler {
      type: "constant"
      value: 0.2
    }
  }
}
layer {
  name: "inception_4e/relu_3x3"
  type: "ReLU"
  bottom: "inception_4e/3x3"
  top: "inception_4e/3x3"
}
layer {
  name: "inception_4e/5x5_reduce"
  type: "Convolution"
  bottom: "inception_4d/output"
  top: "inception_4e/5x5_reduce"
  param {
    lr_mult: 1
    decay_mult: 1
  }
  param {
    lr_mult: 2
    decay_mult: 0
  }
  convolution_param {
    num_output: 32
    kernel_size: 1
    weight_filler {
      type: "xavier"
      std: 0.2
    }
    bias_filler {
      type: "constant"
      value: 0.2
    }
  }
}
layer {
  name: "inception_4e/relu_5x5_reduce"
  type: "ReLU"
  bottom: "inception_4e/5x5_reduce"
  top: "inception_4e/5x5_reduce"
}
layer {
  name: "inception_4e/5x5"
  type: "Convolution"
  bottom: "inception_4e/5x5_reduce"
  top: "inception_4e/5x5"
  p
I0403 15:17:40.517076 14313 layer_factory.hpp:77] Creating layer data
I0403 15:17:40.517678 14313 net.cpp:91] Creating Layer data
I0403 15:17:40.517706 14313 net.cpp:399] data -> data
I0403 15:17:40.517755 14313 net.cpp:399] data -> label
I0403 15:17:40.517788 14313 data_transformer.cpp:25] Loading mean file from: /home/mohanty/data/final_dataset/lmdb/color-50-50/mean.binaryproto
I0403 15:17:40.521139 14316 db_lmdb.cpp:38] Opened lmdb /home/mohanty/data/final_dataset/lmdb/color-50-50/test_db
I0403 15:17:40.531064 14313 data_layer.cpp:41] output data size: 24,3,224,224
I0403 15:17:40.557725 14313 net.cpp:141] Setting up data
I0403 15:17:40.557801 14313 net.cpp:148] Top shape: 24 3 224 224 (3612672)
I0403 15:17:40.557823 14313 net.cpp:148] Top shape: 24 (24)
I0403 15:17:40.557839 14313 net.cpp:156] Memory required for data: 14450784
I0403 15:17:40.557867 14313 layer_factory.hpp:77] Creating layer label_data_1_split
I0403 15:17:40.557891 14313 net.cpp:91] Creating Layer label_data_1_split
I0403 15:17:40.557909 14313 net.cpp:425] label_data_1_split <- label
I0403 15:17:40.557940 14313 net.cpp:399] label_data_1_split -> label_data_1_split_0
I0403 15:17:40.557966 14313 net.cpp:399] label_data_1_split -> label_data_1_split_1
I0403 15:17:40.557987 14313 net.cpp:399] label_data_1_split -> label_data_1_split_2
I0403 15:17:40.558008 14313 net.cpp:399] label_data_1_split -> label_data_1_split_3
I0403 15:17:40.558028 14313 net.cpp:399] label_data_1_split -> label_data_1_split_4
I0403 15:17:40.558048 14313 net.cpp:399] label_data_1_split -> label_data_1_split_5
I0403 15:17:40.558068 14313 net.cpp:399] label_data_1_split -> label_data_1_split_6
I0403 15:17:40.558089 14313 net.cpp:399] label_data_1_split -> label_data_1_split_7
I0403 15:17:40.558109 14313 net.cpp:399] label_data_1_split -> label_data_1_split_8
I0403 15:17:40.558130 14313 net.cpp:399] label_data_1_split -> label_data_1_split_9
I0403 15:17:40.558244 14313 net.cpp:141] Setting up label_data_1_split
I0403 15:17:40.558270 14313 net.cpp:148] Top shape: 24 (24)
I0403 15:17:40.558286 14313 net.cpp:148] Top shape: 24 (24)
I0403 15:17:40.558302 14313 net.cpp:148] Top shape: 24 (24)
I0403 15:17:40.558317 14313 net.cpp:148] Top shape: 24 (24)
I0403 15:17:40.558333 14313 net.cpp:148] Top shape: 24 (24)
I0403 15:17:40.558348 14313 net.cpp:148] Top shape: 24 (24)
I0403 15:17:40.558363 14313 net.cpp:148] Top shape: 24 (24)
I0403 15:17:40.558378 14313 net.cpp:148] Top shape: 24 (24)
I0403 15:17:40.558393 14313 net.cpp:148] Top shape: 24 (24)
I0403 15:17:40.558408 14313 net.cpp:148] Top shape: 24 (24)
I0403 15:17:40.558459 14313 net.cpp:156] Memory required for data: 14451744
I0403 15:17:40.558475 14313 layer_factory.hpp:77] Creating layer conv1/7x7_s2
I0403 15:17:40.558506 14313 net.cpp:91] Creating Layer conv1/7x7_s2
I0403 15:17:40.558523 14313 net.cpp:425] conv1/7x7_s2 <- data
I0403 15:17:40.558547 14313 net.cpp:399] conv1/7x7_s2 -> conv1/7x7_s2
I0403 15:17:40.698851 14313 net.cpp:141] Setting up conv1/7x7_s2
I0403 15:17:40.698930 14313 net.cpp:148] Top shape: 24 64 112 112 (19267584)
I0403 15:17:40.698950 14313 net.cpp:156] Memory required for data: 91522080
I0403 15:17:40.698981 14313 layer_factory.hpp:77] Creating layer conv1/relu_7x7
I0403 15:17:40.699007 14313 net.cpp:91] Creating Layer conv1/relu_7x7
I0403 15:17:40.699025 14313 net.cpp:425] conv1/relu_7x7 <- conv1/7x7_s2
I0403 15:17:40.699048 14313 net.cpp:386] conv1/relu_7x7 -> conv1/7x7_s2 (in-place)
I0403 15:17:40.699412 14313 net.cpp:141] Setting up conv1/relu_7x7
I0403 15:17:40.699442 14313 net.cpp:148] Top shape: 24 64 112 112 (19267584)
I0403 15:17:40.699460 14313 net.cpp:156] Memory required for data: 168592416
I0403 15:17:40.699475 14313 layer_factory.hpp:77] Creating layer pool1/3x3_s2
I0403 15:17:40.699498 14313 net.cpp:91] Creating Layer pool1/3x3_s2
I0403 15:17:40.699517 14313 net.cpp:425] pool1/3x3_s2 <- conv1/7x7_s2
I0403 15:17:40.699550 14313 net.cpp:399] pool1/3x3_s2 -> pool1/3x3_s2
I0403 15:17:40.699630 14313 net.cpp:141] Setting up pool1/3x3_s2
I0403 15:17:40.699657 14313 net.cpp:148] Top shape: 24 64 56 56 (4816896)
I0403 15:17:40.699673 14313 net.cpp:156] Memory required for data: 187860000
I0403 15:17:40.699688 14313 layer_factory.hpp:77] Creating layer pool1/norm1
I0403 15:17:40.699712 14313 net.cpp:91] Creating Layer pool1/norm1
I0403 15:17:40.699729 14313 net.cpp:425] pool1/norm1 <- pool1/3x3_s2
I0403 15:17:40.699750 14313 net.cpp:399] pool1/norm1 -> pool1/norm1
I0403 15:17:40.700054 14313 net.cpp:141] Setting up pool1/norm1
I0403 15:17:40.700083 14313 net.cpp:148] Top shape: 24 64 56 56 (4816896)
I0403 15:17:40.700098 14313 net.cpp:156] Memory required for data: 207127584
I0403 15:17:40.700114 14313 layer_factory.hpp:77] Creating layer conv2/3x3_reduce
I0403 15:17:40.700141 14313 net.cpp:91] Creating Layer conv2/3x3_reduce
I0403 15:17:40.700160 14313 net.cpp:425] conv2/3x3_reduce <- pool1/norm1
I0403 15:17:40.700181 14313 net.cpp:399] conv2/3x3_reduce -> conv2/3x3_reduce
I0403 15:17:40.701650 14313 net.cpp:141] Setting up conv2/3x3_reduce
I0403 15:17:40.701680 14313 net.cpp:148] Top shape: 24 64 56 56 (4816896)
I0403 15:17:40.701696 14313 net.cpp:156] Memory required for data: 226395168
I0403 15:17:40.701717 14313 layer_factory.hpp:77] Creating layer conv2/relu_3x3_reduce
I0403 15:17:40.701740 14313 net.cpp:91] Creating Layer conv2/relu_3x3_reduce
I0403 15:17:40.701757 14313 net.cpp:425] conv2/relu_3x3_reduce <- conv2/3x3_reduce
I0403 15:17:40.701774 14313 net.cpp:386] conv2/relu_3x3_reduce -> conv2/3x3_reduce (in-place)
I0403 15:17:40.702051 14313 net.cpp:141] Setting up conv2/relu_3x3_reduce
I0403 15:17:40.702078 14313 net.cpp:148] Top shape: 24 64 56 56 (4816896)
I0403 15:17:40.702093 14313 net.cpp:156] Memory required for data: 245662752
I0403 15:17:40.702108 14313 layer_factory.hpp:77] Creating layer conv2/3x3
I0403 15:17:40.702136 14313 net.cpp:91] Creating Layer conv2/3x3
I0403 15:17:40.702153 14313 net.cpp:425] conv2/3x3 <- conv2/3x3_reduce
I0403 15:17:40.702173 14313 net.cpp:399] conv2/3x3 -> conv2/3x3
I0403 15:17:40.704597 14313 net.cpp:141] Setting up conv2/3x3
I0403 15:17:40.704628 14313 net.cpp:148] Top shape: 24 192 56 56 (14450688)
I0403 15:17:40.704645 14313 net.cpp:156] Memory required for data: 303465504
I0403 15:17:40.704666 14313 layer_factory.hpp:77] Creating layer conv2/relu_3x3
I0403 15:17:40.704687 14313 net.cpp:91] Creating Layer conv2/relu_3x3
I0403 15:17:40.704704 14313 net.cpp:425] conv2/relu_3x3 <- conv2/3x3
I0403 15:17:40.704722 14313 net.cpp:386] conv2/relu_3x3 -> conv2/3x3 (in-place)
I0403 15:17:40.704907 14313 net.cpp:141] Setting up conv2/relu_3x3
I0403 15:17:40.704934 14313 net.cpp:148] Top shape: 24 192 56 56 (14450688)
I0403 15:17:40.704982 14313 net.cpp:156] Memory required for data: 361268256
I0403 15:17:40.704998 14313 layer_factory.hpp:77] Creating layer conv2/norm2
I0403 15:17:40.705016 14313 net.cpp:91] Creating Layer conv2/norm2
I0403 15:17:40.705032 14313 net.cpp:425] conv2/norm2 <- conv2/3x3
I0403 15:17:40.705054 14313 net.cpp:399] conv2/norm2 -> conv2/norm2
I0403 15:17:40.705369 14313 net.cpp:141] Setting up conv2/norm2
I0403 15:17:40.705396 14313 net.cpp:148] Top shape: 24 192 56 56 (14450688)
I0403 15:17:40.705412 14313 net.cpp:156] Memory required for data: 419071008
I0403 15:17:40.705427 14313 layer_factory.hpp:77] Creating layer pool2/3x3_s2
I0403 15:17:40.705446 14313 net.cpp:91] Creating Layer pool2/3x3_s2
I0403 15:17:40.705461 14313 net.cpp:425] pool2/3x3_s2 <- conv2/norm2
I0403 15:17:40.705482 14313 net.cpp:399] pool2/3x3_s2 -> pool2/3x3_s2
I0403 15:17:40.705543 14313 net.cpp:141] Setting up pool2/3x3_s2
I0403 15:17:40.705579 14313 net.cpp:148] Top shape: 24 192 28 28 (3612672)
I0403 15:17:40.705595 14313 net.cpp:156] Memory required for data: 433521696
I0403 15:17:40.705610 14313 layer_factory.hpp:77] Creating layer pool2/3x3_s2_pool2/3x3_s2_0_split
I0403 15:17:40.705628 14313 net.cpp:91] Creating Layer pool2/3x3_s2_pool2/3x3_s2_0_split
I0403 15:17:40.705643 14313 net.cpp:425] pool2/3x3_s2_pool2/3x3_s2_0_split <- pool2/3x3_s2
I0403 15:17:40.705664 14313 net.cpp:399] pool2/3x3_s2_pool2/3x3_s2_0_split -> pool2/3x3_s2_pool2/3x3_s2_0_split_0
I0403 15:17:40.705687 14313 net.cpp:399] pool2/3x3_s2_pool2/3x3_s2_0_split -> pool2/3x3_s2_pool2/3x3_s2_0_split_1
I0403 15:17:40.705708 14313 net.cpp:399] pool2/3x3_s2_pool2/3x3_s2_0_split -> pool2/3x3_s2_pool2/3x3_s2_0_split_2
I0403 15:17:40.705727 14313 net.cpp:399] pool2/3x3_s2_pool2/3x3_s2_0_split -> pool2/3x3_s2_pool2/3x3_s2_0_split_3
I0403 15:17:40.705801 14313 net.cpp:141] Setting up pool2/3x3_s2_pool2/3x3_s2_0_split
I0403 15:17:40.705826 14313 net.cpp:148] Top shape: 24 192 28 28 (3612672)
I0403 15:17:40.705844 14313 net.cpp:148] Top shape: 24 192 28 28 (3612672)
I0403 15:17:40.705860 14313 net.cpp:148] Top shape: 24 192 28 28 (3612672)
I0403 15:17:40.705876 14313 net.cpp:148] Top shape: 24 192 28 28 (3612672)
I0403 15:17:40.705890 14313 net.cpp:156] Memory required for data: 491324448
I0403 15:17:40.705905 14313 layer_factory.hpp:77] Creating layer inception_3a/1x1
I0403 15:17:40.705929 14313 net.cpp:91] Creating Layer inception_3a/1x1
I0403 15:17:40.705946 14313 net.cpp:425] inception_3a/1x1 <- pool2/3x3_s2_pool2/3x3_s2_0_split_0
I0403 15:17:40.705966 14313 net.cpp:399] inception_3a/1x1 -> inception_3a/1x1
I0403 15:17:40.707623 14313 net.cpp:141] Setting up inception_3a/1x1
I0403 15:17:40.707654 14313 net.cpp:148] Top shape: 24 64 28 28 (1204224)
I0403 15:17:40.707670 14313 net.cpp:156] Memory required for data: 496141344
I0403 15:17:40.707690 14313 layer_factory.hpp:77] Creating layer inception_3a/relu_1x1
I0403 15:17:40.707715 14313 net.cpp:91] Creating Layer inception_3a/relu_1x1
I0403 15:17:40.707731 14313 net.cpp:425] inception_3a/relu_1x1 <- inception_3a/1x1
I0403 15:17:40.707749 14313 net.cpp:386] inception_3a/relu_1x1 -> inception_3a/1x1 (in-place)
I0403 15:17:40.707972 14313 net.cpp:141] Setting up inception_3a/relu_1x1
I0403 15:17:40.708000 14313 net.cpp:148] Top shape: 24 64 28 28 (1204224)
I0403 15:17:40.708017 14313 net.cpp:156] Memory required for data: 500958240
I0403 15:17:40.708032 14313 layer_factory.hpp:77] Creating layer inception_3a/3x3_reduce
I0403 15:17:40.708055 14313 net.cpp:91] Creating Layer inception_3a/3x3_reduce
I0403 15:17:40.708073 14313 net.cpp:425] inception_3a/3x3_reduce <- pool2/3x3_s2_pool2/3x3_s2_0_split_1
I0403 15:17:40.708093 14313 net.cpp:399] inception_3a/3x3_reduce -> inception_3a/3x3_reduce
I0403 15:17:40.709933 14313 net.cpp:141] Setting up inception_3a/3x3_reduce
I0403 15:17:40.709964 14313 net.cpp:148] Top shape: 24 96 28 28 (1806336)
I0403 15:17:40.709980 14313 net.cpp:156] Memory required for data: 508183584
I0403 15:17:40.710002 14313 layer_factory.hpp:77] Creating layer inception_3a/relu_3x3_reduce
I0403 15:17:40.710042 14313 net.cpp:91] Creating Layer inception_3a/relu_3x3_reduce
I0403 15:17:40.710062 14313 net.cpp:425] inception_3a/relu_3x3_reduce <- inception_3a/3x3_reduce
I0403 15:17:40.710083 14313 net.cpp:386] inception_3a/relu_3x3_reduce -> inception_3a/3x3_reduce (in-place)
I0403 15:17:40.710283 14313 net.cpp:141] Setting up inception_3a/relu_3x3_reduce
I0403 15:17:40.710309 14313 net.cpp:148] Top shape: 24 96 28 28 (1806336)
I0403 15:17:40.710325 14313 net.cpp:156] Memory required for data: 515408928
I0403 15:17:40.710340 14313 layer_factory.hpp:77] Creating layer inception_3a/3x3
I0403 15:17:40.710363 14313 net.cpp:91] Creating Layer inception_3a/3x3
I0403 15:17:40.710382 14313 net.cpp:425] inception_3a/3x3 <- inception_3a/3x3_reduce
I0403 15:17:40.710407 14313 net.cpp:399] inception_3a/3x3 -> inception_3a/3x3
I0403 15:17:40.712146 14313 net.cpp:141] Setting up inception_3a/3x3
I0403 15:17:40.712177 14313 net.cpp:148] Top shape: 24 128 28 28 (2408448)
I0403 15:17:40.712194 14313 net.cpp:156] Memory required for data: 525042720
I0403 15:17:40.712213 14313 layer_factory.hpp:77] Creating layer inception_3a/relu_3x3
I0403 15:17:40.712232 14313 net.cpp:91] Creating Layer inception_3a/relu_3x3
I0403 15:17:40.712249 14313 net.cpp:425] inception_3a/relu_3x3 <- inception_3a/3x3
I0403 15:17:40.712268 14313 net.cpp:386] inception_3a/relu_3x3 -> inception_3a/3x3 (in-place)
I0403 15:17:40.712559 14313 net.cpp:141] Setting up inception_3a/relu_3x3
I0403 15:17:40.712589 14313 net.cpp:148] Top shape: 24 128 28 28 (2408448)
I0403 15:17:40.712606 14313 net.cpp:156] Memory required for data: 534676512
I0403 15:17:40.712622 14313 layer_factory.hpp:77] Creating layer inception_3a/5x5_reduce
I0403 15:17:40.712646 14313 net.cpp:91] Creating Layer inception_3a/5x5_reduce
I0403 15:17:40.712663 14313 net.cpp:425] inception_3a/5x5_reduce <- pool2/3x3_s2_pool2/3x3_s2_0_split_2
I0403 15:17:40.712684 14313 net.cpp:399] inception_3a/5x5_reduce -> inception_3a/5x5_reduce
I0403 15:17:40.713704 14313 net.cpp:141] Setting up inception_3a/5x5_reduce
I0403 15:17:40.713737 14313 net.cpp:148] Top shape: 24 16 28 28 (301056)
I0403 15:17:40.713753 14313 net.cpp:156] Memory required for data: 535880736
I0403 15:17:40.713773 14313 layer_factory.hpp:77] Creating layer inception_3a/relu_5x5_reduce
I0403 15:17:40.713791 14313 net.cpp:91] Creating Layer inception_3a/relu_5x5_reduce
I0403 15:17:40.713807 14313 net.cpp:425] inception_3a/relu_5x5_reduce <- inception_3a/5x5_reduce
I0403 15:17:40.713827 14313 net.cpp:386] inception_3a/relu_5x5_reduce -> inception_3a/5x5_reduce (in-place)
I0403 15:17:40.714140 14313 net.cpp:141] Setting up inception_3a/relu_5x5_reduce
I0403 15:17:40.714167 14313 net.cpp:148] Top shape: 24 16 28 28 (301056)
I0403 15:17:40.714184 14313 net.cpp:156] Memory required for data: 537084960
I0403 15:17:40.714200 14313 layer_factory.hpp:77] Creating layer inception_3a/5x5
I0403 15:17:40.714223 14313 net.cpp:91] Creating Layer inception_3a/5x5
I0403 15:17:40.714241 14313 net.cpp:425] inception_3a/5x5 <- inception_3a/5x5_reduce
I0403 15:17:40.714264 14313 net.cpp:399] inception_3a/5x5 -> inception_3a/5x5
I0403 15:17:40.715332 14313 net.cpp:141] Setting up inception_3a/5x5
I0403 15:17:40.715361 14313 net.cpp:148] Top shape: 24 32 28 28 (602112)
I0403 15:17:40.715378 14313 net.cpp:156] Memory required for data: 539493408
I0403 15:17:40.715397 14313 layer_factory.hpp:77] Creating layer inception_3a/relu_5x5
I0403 15:17:40.715420 14313 net.cpp:91] Creating Layer inception_3a/relu_5x5
I0403 15:17:40.715436 14313 net.cpp:425] inception_3a/relu_5x5 <- inception_3a/5x5
I0403 15:17:40.715453 14313 net.cpp:386] inception_3a/relu_5x5 -> inception_3a/5x5 (in-place)
I0403 15:17:40.715641 14313 net.cpp:141] Setting up inception_3a/relu_5x5
I0403 15:17:40.715668 14313 net.cpp:148] Top shape: 24 32 28 28 (602112)
I0403 15:17:40.715685 14313 net.cpp:156] Memory required for data: 541901856
I0403 15:17:40.715700 14313 layer_factory.hpp:77] Creating layer inception_3a/pool
I0403 15:17:40.715718 14313 net.cpp:91] Creating Layer inception_3a/pool
I0403 15:17:40.715734 14313 net.cpp:425] inception_3a/pool <- pool2/3x3_s2_pool2/3x3_s2_0_split_3
I0403 15:17:40.715771 14313 net.cpp:399] inception_3a/pool -> inception_3a/pool
I0403 15:17:40.715832 14313 net.cpp:141] Setting up inception_3a/pool
I0403 15:17:40.715857 14313 net.cpp:148] Top shape: 24 192 28 28 (3612672)
I0403 15:17:40.715873 14313 net.cpp:156] Memory required for data: 556352544
I0403 15:17:40.715888 14313 layer_factory.hpp:77] Creating layer inception_3a/pool_proj
I0403 15:17:40.715910 14313 net.cpp:91] Creating Layer inception_3a/pool_proj
I0403 15:17:40.715929 14313 net.cpp:425] inception_3a/pool_proj <- inception_3a/pool
I0403 15:17:40.715951 14313 net.cpp:399] inception_3a/pool_proj -> inception_3a/pool_proj
I0403 15:17:40.716965 14313 net.cpp:141] Setting up inception_3a/pool_proj
I0403 15:17:40.716995 14313 net.cpp:148] Top shape: 24 32 28 28 (602112)
I0403 15:17:40.717010 14313 net.cpp:156] Memory required for data: 558760992
I0403 15:17:40.717036 14313 layer_factory.hpp:77] Creating layer inception_3a/relu_pool_proj
I0403 15:17:40.717056 14313 net.cpp:91] Creating Layer inception_3a/relu_pool_proj
I0403 15:17:40.717072 14313 net.cpp:425] inception_3a/relu_pool_proj <- inception_3a/pool_proj
I0403 15:17:40.717092 14313 net.cpp:386] inception_3a/relu_pool_proj -> inception_3a/pool_proj (in-place)
I0403 15:17:40.717382 14313 net.cpp:141] Setting up inception_3a/relu_pool_proj
I0403 15:17:40.717412 14313 net.cpp:148] Top shape: 24 32 28 28 (602112)
I0403 15:17:40.717429 14313 net.cpp:156] Memory required for data: 561169440
I0403 15:17:40.717444 14313 layer_factory.hpp:77] Creating layer inception_3a/output
I0403 15:17:40.717463 14313 net.cpp:91] Creating Layer inception_3a/output
I0403 15:17:40.717479 14313 net.cpp:425] inception_3a/output <- inception_3a/1x1
I0403 15:17:40.717496 14313 net.cpp:425] inception_3a/output <- inception_3a/3x3
I0403 15:17:40.717514 14313 net.cpp:425] inception_3a/output <- inception_3a/5x5
I0403 15:17:40.717530 14313 net.cpp:425] inception_3a/output <- inception_3a/pool_proj
I0403 15:17:40.717553 14313 net.cpp:399] inception_3a/output -> inception_3a/output
I0403 15:17:40.717604 14313 net.cpp:141] Setting up inception_3a/output
I0403 15:17:40.717628 14313 net.cpp:148] Top shape: 24 256 28 28 (4816896)
I0403 15:17:40.717643 14313 net.cpp:156] Memory required for data: 580437024
I0403 15:17:40.717659 14313 layer_factory.hpp:77] Creating layer inception_3a/output_inception_3a/output_0_split
I0403 15:17:40.717676 14313 net.cpp:91] Creating Layer inception_3a/output_inception_3a/output_0_split
I0403 15:17:40.717696 14313 net.cpp:425] inception_3a/output_inception_3a/output_0_split <- inception_3a/output
I0403 15:17:40.717715 14313 net.cpp:399] inception_3a/output_inception_3a/output_0_split -> inception_3a/output_inception_3a/output_0_split_0
I0403 15:17:40.717736 14313 net.cpp:399] inception_3a/output_inception_3a/output_0_split -> inception_3a/output_inception_3a/output_0_split_1
I0403 15:17:40.717761 14313 net.cpp:399] inception_3a/output_inception_3a/output_0_split -> inception_3a/output_inception_3a/output_0_split_2
I0403 15:17:40.717784 14313 net.cpp:399] inception_3a/output_inception_3a/output_0_split -> inception_3a/output_inception_3a/output_0_split_3
I0403 15:17:40.717861 14313 net.cpp:141] Setting up inception_3a/output_inception_3a/output_0_split
I0403 15:17:40.717885 14313 net.cpp:148] Top shape: 24 256 28 28 (4816896)
I0403 15:17:40.717902 14313 net.cpp:148] Top shape: 24 256 28 28 (4816896)
I0403 15:17:40.717918 14313 net.cpp:148] Top shape: 24 256 28 28 (4816896)
I0403 15:17:40.717934 14313 net.cpp:148] Top shape: 24 256 28 28 (4816896)
I0403 15:17:40.717948 14313 net.cpp:156] Memory required for data: 657507360
I0403 15:17:40.717963 14313 layer_factory.hpp:77] Creating layer inception_3b/1x1
I0403 15:17:40.717986 14313 net.cpp:91] Creating Layer inception_3b/1x1
I0403 15:17:40.718004 14313 net.cpp:425] inception_3b/1x1 <- inception_3a/output_inception_3a/output_0_split_0
I0403 15:17:40.718027 14313 net.cpp:399] inception_3b/1x1 -> inception_3b/1x1
I0403 15:17:40.719216 14313 net.cpp:141] Setting up inception_3b/1x1
I0403 15:17:40.719259 14313 net.cpp:148] Top shape: 24 128 28 28 (2408448)
I0403 15:17:40.719275 14313 net.cpp:156] Memory required for data: 667141152
I0403 15:17:40.719295 14313 layer_factory.hpp:77] Creating layer inception_3b/relu_1x1
I0403 15:17:40.719316 14313 net.cpp:91] Creating Layer inception_3b/relu_1x1
I0403 15:17:40.719333 14313 net.cpp:425] inception_3b/relu_1x1 <- inception_3b/1x1
I0403 15:17:40.719352 14313 net.cpp:386] inception_3b/relu_1x1 -> inception_3b/1x1 (in-place)
I0403 15:17:40.719539 14313 net.cpp:141] Setting up inception_3b/relu_1x1
I0403 15:17:40.719568 14313 net.cpp:148] Top shape: 24 128 28 28 (2408448)
I0403 15:17:40.719584 14313 net.cpp:156] Memory required for data: 676774944
I0403 15:17:40.719599 14313 layer_factory.hpp:77] Creating layer inception_3b/3x3_reduce
I0403 15:17:40.719622 14313 net.cpp:91] Creating Layer inception_3b/3x3_reduce
I0403 15:17:40.719640 14313 net.cpp:425] inception_3b/3x3_reduce <- inception_3a/output_inception_3a/output_0_split_1
I0403 15:17:40.719660 14313 net.cpp:399] inception_3b/3x3_reduce -> inception_3b/3x3_reduce
I0403 15:17:40.720859 14313 net.cpp:141] Setting up inception_3b/3x3_reduce
I0403 15:17:40.720887 14313 net.cpp:148] Top shape: 24 128 28 28 (2408448)
I0403 15:17:40.720903 14313 net.cpp:156] Memory required for data: 686408736
I0403 15:17:40.720922 14313 layer_factory.hpp:77] Creating layer inception_3b/relu_3x3_reduce
I0403 15:17:40.720944 14313 net.cpp:91] Creating Layer inception_3b/relu_3x3_reduce
I0403 15:17:40.720962 14313 net.cpp:425] inception_3b/relu_3x3_reduce <- inception_3b/3x3_reduce
I0403 15:17:40.720979 14313 net.cpp:386] inception_3b/relu_3x3_reduce -> inception_3b/3x3_reduce (in-place)
I0403 15:17:40.721164 14313 net.cpp:141] Setting up inception_3b/relu_3x3_reduce
I0403 15:17:40.721190 14313 net.cpp:148] Top shape: 24 128 28 28 (2408448)
I0403 15:17:40.721205 14313 net.cpp:156] Memory required for data: 696042528
I0403 15:17:40.721220 14313 layer_factory.hpp:77] Creating layer inception_3b/3x3
I0403 15:17:40.721247 14313 net.cpp:91] Creating Layer inception_3b/3x3
I0403 15:17:40.721268 14313 net.cpp:425] inception_3b/3x3 <- inception_3b/3x3_reduce
I0403 15:17:40.721292 14313 net.cpp:399] inception_3b/3x3 -> inception_3b/3x3
I0403 15:17:40.724344 14313 net.cpp:141] Setting up inception_3b/3x3
I0403 15:17:40.724375 14313 net.cpp:148] Top shape: 24 192 28 28 (3612672)
I0403 15:17:40.724392 14313 net.cpp:156] Memory required for data: 710493216
I0403 15:17:40.724411 14313 layer_factory.hpp:77] Creating layer inception_3b/relu_3x3
I0403 15:17:40.724431 14313 net.cpp:91] Creating Layer inception_3b/relu_3x3
I0403 15:17:40.724447 14313 net.cpp:425] inception_3b/relu_3x3 <- inception_3b/3x3
I0403 15:17:40.724465 14313 net.cpp:386] inception_3b/relu_3x3 -> inception_3b/3x3 (in-place)
I0403 15:17:40.724766 14313 net.cpp:141] Setting up inception_3b/relu_3x3
I0403 15:17:40.724797 14313 net.cpp:148] Top shape: 24 192 28 28 (3612672)
I0403 15:17:40.724813 14313 net.cpp:156] Memory required for data: 724943904
I0403 15:17:40.724828 14313 layer_factory.hpp:77] Creating layer inception_3b/5x5_reduce
I0403 15:17:40.724850 14313 net.cpp:91] Creating Layer inception_3b/5x5_reduce
I0403 15:17:40.724869 14313 net.cpp:425] inception_3b/5x5_reduce <- inception_3a/output_inception_3a/output_0_split_2
I0403 15:17:40.724889 14313 net.cpp:399] inception_3b/5x5_reduce -> inception_3b/5x5_reduce
I0403 15:17:40.725914 14313 net.cpp:141] Setting up inception_3b/5x5_reduce
I0403 15:17:40.725944 14313 net.cpp:148] Top shape: 24 32 28 28 (602112)
I0403 15:17:40.725960 14313 net.cpp:156] Memory required for data: 727352352
I0403 15:17:40.725980 14313 layer_factory.hpp:77] Creating layer inception_3b/relu_5x5_reduce
I0403 15:17:40.725997 14313 net.cpp:91] Creating Layer inception_3b/relu_5x5_reduce
I0403 15:17:40.726013 14313 net.cpp:425] inception_3b/relu_5x5_reduce <- inception_3b/5x5_reduce
I0403 15:17:40.726030 14313 net.cpp:386] inception_3b/relu_5x5_reduce -> inception_3b/5x5_reduce (in-place)
I0403 15:17:40.726213 14313 net.cpp:141] Setting up inception_3b/relu_5x5_reduce
I0403 15:17:40.726253 14313 net.cpp:148] Top shape: 24 32 28 28 (602112)
I0403 15:17:40.726270 14313 net.cpp:156] Memory required for data: 729760800
I0403 15:17:40.726285 14313 layer_factory.hpp:77] Creating layer inception_3b/5x5
I0403 15:17:40.726307 14313 net.cpp:91] Creating Layer inception_3b/5x5
I0403 15:17:40.726325 14313 net.cpp:425] inception_3b/5x5 <- inception_3b/5x5_reduce
I0403 15:17:40.726344 14313 net.cpp:399] inception_3b/5x5 -> inception_3b/5x5
I0403 15:17:40.728407 14313 net.cpp:141] Setting up inception_3b/5x5
I0403 15:17:40.728437 14313 net.cpp:148] Top shape: 24 96 28 28 (1806336)
I0403 15:17:40.728454 14313 net.cpp:156] Memory required for data: 736986144
I0403 15:17:40.728474 14313 layer_factory.hpp:77] Creating layer inception_3b/relu_5x5
I0403 15:17:40.728495 14313 net.cpp:91] Creating Layer inception_3b/relu_5x5
I0403 15:17:40.728513 14313 net.cpp:425] inception_3b/relu_5x5 <- inception_3b/5x5
I0403 15:17:40.728531 14313 net.cpp:386] inception_3b/relu_5x5 -> inception_3b/5x5 (in-place)
I0403 15:17:40.728741 14313 net.cpp:141] Setting up inception_3b/relu_5x5
I0403 15:17:40.728768 14313 net.cpp:148] Top shape: 24 96 28 28 (1806336)
I0403 15:17:40.728785 14313 net.cpp:156] Memory required for data: 744211488
I0403 15:17:40.728799 14313 layer_factory.hpp:77] Creating layer inception_3b/pool
I0403 15:17:40.728818 14313 net.cpp:91] Creating Layer inception_3b/pool
I0403 15:17:40.728834 14313 net.cpp:425] inception_3b/pool <- inception_3a/output_inception_3a/output_0_split_3
I0403 15:17:40.728852 14313 net.cpp:399] inception_3b/pool -> inception_3b/pool
I0403 15:17:40.728911 14313 net.cpp:141] Setting up inception_3b/pool
I0403 15:17:40.728935 14313 net.cpp:148] Top shape: 24 256 28 28 (4816896)
I0403 15:17:40.728950 14313 net.cpp:156] Memory required for data: 763479072
I0403 15:17:40.728965 14313 layer_factory.hpp:77] Creating layer inception_3b/pool_proj
I0403 15:17:40.728988 14313 net.cpp:91] Creating Layer inception_3b/pool_proj
I0403 15:17:40.729007 14313 net.cpp:425] inception_3b/pool_proj <- inception_3b/pool
I0403 15:17:40.729028 14313 net.cpp:399] inception_3b/pool_proj -> inception_3b/pool_proj
I0403 15:17:40.730137 14313 net.cpp:141] Setting up inception_3b/pool_proj
I0403 15:17:40.730168 14313 net.cpp:148] Top shape: 24 64 28 28 (1204224)
I0403 15:17:40.730185 14313 net.cpp:156] Memory required for data: 768295968
I0403 15:17:40.730204 14313 layer_factory.hpp:77] Creating layer inception_3b/relu_pool_proj
I0403 15:17:40.730222 14313 net.cpp:91] Creating Layer inception_3b/relu_pool_proj
I0403 15:17:40.730239 14313 net.cpp:425] inception_3b/relu_pool_proj <- inception_3b/pool_proj
I0403 15:17:40.730260 14313 net.cpp:386] inception_3b/relu_pool_proj -> inception_3b/pool_proj (in-place)
I0403 15:17:40.730672 14313 net.cpp:141] Setting up inception_3b/relu_pool_proj
I0403 15:17:40.730702 14313 net.cpp:148] Top shape: 24 64 28 28 (1204224)
I0403 15:17:40.730718 14313 net.cpp:156] Memory required for data: 773112864
I0403 15:17:40.730733 14313 layer_factory.hpp:77] Creating layer inception_3b/output
I0403 15:17:40.730751 14313 net.cpp:91] Creating Layer inception_3b/output
I0403 15:17:40.730768 14313 net.cpp:425] inception_3b/output <- inception_3b/1x1
I0403 15:17:40.730785 14313 net.cpp:425] inception_3b/output <- inception_3b/3x3
I0403 15:17:40.730803 14313 net.cpp:425] inception_3b/output <- inception_3b/5x5
I0403 15:17:40.730818 14313 net.cpp:425] inception_3b/output <- inception_3b/pool_proj
I0403 15:17:40.730836 14313 net.cpp:399] inception_3b/output -> inception_3b/output
I0403 15:17:40.730885 14313 net.cpp:141] Setting up inception_3b/output
I0403 15:17:40.730908 14313 net.cpp:148] Top shape: 24 480 28 28 (9031680)
I0403 15:17:40.730923 14313 net.cpp:156] Memory required for data: 809239584
I0403 15:17:40.730938 14313 layer_factory.hpp:77] Creating layer pool3/3x3_s2
I0403 15:17:40.730960 14313 net.cpp:91] Creating Layer pool3/3x3_s2
I0403 15:17:40.730978 14313 net.cpp:425] pool3/3x3_s2 <- inception_3b/output
I0403 15:17:40.730995 14313 net.cpp:399] pool3/3x3_s2 -> pool3/3x3_s2
I0403 15:17:40.731072 14313 net.cpp:141] Setting up pool3/3x3_s2
I0403 15:17:40.731097 14313 net.cpp:148] Top shape: 24 480 14 14 (2257920)
I0403 15:17:40.731113 14313 net.cpp:156] Memory required for data: 818271264
I0403 15:17:40.731128 14313 layer_factory.hpp:77] Creating layer pool3/3x3_s2_pool3/3x3_s2_0_split
I0403 15:17:40.731145 14313 net.cpp:91] Creating Layer pool3/3x3_s2_pool3/3x3_s2_0_split
I0403 15:17:40.731163 14313 net.cpp:425] pool3/3x3_s2_pool3/3x3_s2_0_split <- pool3/3x3_s2
I0403 15:17:40.731183 14313 net.cpp:399] pool3/3x3_s2_pool3/3x3_s2_0_split -> pool3/3x3_s2_pool3/3x3_s2_0_split_0
I0403 15:17:40.731204 14313 net.cpp:399] pool3/3x3_s2_pool3/3x3_s2_0_split -> pool3/3x3_s2_pool3/3x3_s2_0_split_1
I0403 15:17:40.731225 14313 net.cpp:399] pool3/3x3_s2_pool3/3x3_s2_0_split -> pool3/3x3_s2_pool3/3x3_s2_0_split_2
I0403 15:17:40.731256 14313 net.cpp:399] pool3/3x3_s2_pool3/3x3_s2_0_split -> pool3/3x3_s2_pool3/3x3_s2_0_split_3
I0403 15:17:40.731335 14313 net.cpp:141] Setting up pool3/3x3_s2_pool3/3x3_s2_0_split
I0403 15:17:40.731362 14313 net.cpp:148] Top shape: 24 480 14 14 (2257920)
I0403 15:17:40.731379 14313 net.cpp:148] Top shape: 24 480 14 14 (2257920)
I0403 15:17:40.731395 14313 net.cpp:148] Top shape: 24 480 14 14 (2257920)
I0403 15:17:40.731411 14313 net.cpp:148] Top shape: 24 480 14 14 (2257920)
I0403 15:17:40.731426 14313 net.cpp:156] Memory required for data: 854397984
I0403 15:17:40.731441 14313 layer_factory.hpp:77] Creating layer inception_4a/1x1
I0403 15:17:40.731465 14313 net.cpp:91] Creating Layer inception_4a/1x1
I0403 15:17:40.731483 14313 net.cpp:425] inception_4a/1x1 <- pool3/3x3_s2_pool3/3x3_s2_0_split_0
I0403 15:17:40.731505 14313 net.cpp:399] inception_4a/1x1 -> inception_4a/1x1
I0403 15:17:40.733160 14313 net.cpp:141] Setting up inception_4a/1x1
I0403 15:17:40.733188 14313 net.cpp:148] Top shape: 24 192 14 14 (903168)
I0403 15:17:40.733203 14313 net.cpp:156] Memory required for data: 858010656
I0403 15:17:40.733225 14313 layer_factory.hpp:77] Creating layer inception_4a/relu_1x1
I0403 15:17:40.733247 14313 net.cpp:91] Creating Layer inception_4a/relu_1x1
I0403 15:17:40.733266 14313 net.cpp:425] inception_4a/relu_1x1 <- inception_4a/1x1
I0403 15:17:40.733284 14313 net.cpp:386] inception_4a/relu_1x1 -> inception_4a/1x1 (in-place)
I0403 15:17:40.733469 14313 net.cpp:141] Setting up inception_4a/relu_1x1
I0403 15:17:40.733494 14313 net.cpp:148] Top shape: 24 192 14 14 (903168)
I0403 15:17:40.733510 14313 net.cpp:156] Memory required for data: 861623328
I0403 15:17:40.733525 14313 layer_factory.hpp:77] Creating layer inception_4a/3x3_reduce
I0403 15:17:40.733552 14313 net.cpp:91] Creating Layer inception_4a/3x3_reduce
I0403 15:17:40.733572 14313 net.cpp:425] inception_4a/3x3_reduce <- pool3/3x3_s2_pool3/3x3_s2_0_split_1
I0403 15:17:40.733594 14313 net.cpp:399] inception_4a/3x3_reduce -> inception_4a/3x3_reduce
I0403 15:17:40.734946 14313 net.cpp:141] Setting up inception_4a/3x3_reduce
I0403 15:17:40.734975 14313 net.cpp:148] Top shape: 24 96 14 14 (451584)
I0403 15:17:40.734992 14313 net.cpp:156] Memory required for data: 863429664
I0403 15:17:40.735018 14313 layer_factory.hpp:77] Creating layer inception_4a/relu_3x3_reduce
I0403 15:17:40.735038 14313 net.cpp:91] Creating Layer inception_4a/relu_3x3_reduce
I0403 15:17:40.735055 14313 net.cpp:425] inception_4a/relu_3x3_reduce <- inception_4a/3x3_reduce
I0403 15:17:40.735075 14313 net.cpp:386] inception_4a/relu_3x3_reduce -> inception_4a/3x3_reduce (in-place)
I0403 15:17:40.735258 14313 net.cpp:141] Setting up inception_4a/relu_3x3_reduce
I0403 15:17:40.735285 14313 net.cpp:148] Top shape: 24 96 14 14 (451584)
I0403 15:17:40.735299 14313 net.cpp:156] Memory required for data: 865236000
I0403 15:17:40.735314 14313 layer_factory.hpp:77] Creating layer inception_4a/3x3
I0403 15:17:40.735337 14313 net.cpp:91] Creating Layer inception_4a/3x3
I0403 15:17:40.735355 14313 net.cpp:425] inception_4a/3x3 <- inception_4a/3x3_reduce
I0403 15:17:40.735376 14313 net.cpp:399] inception_4a/3x3 -> inception_4a/3x3
I0403 15:17:40.738193 14313 net.cpp:141] Setting up inception_4a/3x3
I0403 15:17:40.738222 14313 net.cpp:148] Top shape: 24 208 14 14 (978432)
I0403 15:17:40.738240 14313 net.cpp:156] Memory required for data: 869149728
I0403 15:17:40.738258 14313 layer_factory.hpp:77] Creating layer inception_4a/relu_3x3
I0403 15:17:40.738279 14313 net.cpp:91] Creating Layer inception_4a/relu_3x3
I0403 15:17:40.738298 14313 net.cpp:425] inception_4a/relu_3x3 <- inception_4a/3x3
I0403 15:17:40.738318 14313 net.cpp:386] inception_4a/relu_3x3 -> inception_4a/3x3 (in-place)
I0403 15:17:40.738620 14313 net.cpp:141] Setting up inception_4a/relu_3x3
I0403 15:17:40.738647 14313 net.cpp:148] Top shape: 24 208 14 14 (978432)
I0403 15:17:40.738663 14313 net.cpp:156] Memory required for data: 873063456
I0403 15:17:40.738679 14313 layer_factory.hpp:77] Creating layer inception_4a/5x5_reduce
I0403 15:17:40.738703 14313 net.cpp:91] Creating Layer inception_4a/5x5_reduce
I0403 15:17:40.738721 14313 net.cpp:425] inception_4a/5x5_reduce <- pool3/3x3_s2_pool3/3x3_s2_0_split_2
I0403 15:17:40.738744 14313 net.cpp:399] inception_4a/5x5_reduce -> inception_4a/5x5_reduce
I0403 15:17:40.739823 14313 net.cpp:141] Setting up inception_4a/5x5_reduce
I0403 15:17:40.739852 14313 net.cpp:148] Top shape: 24 16 14 14 (75264)
I0403 15:17:40.739874 14313 net.cpp:156] Memory required for data: 873364512
I0403 15:17:40.739893 14313 layer_factory.hpp:77] Creating layer inception_4a/relu_5x5_reduce
I0403 15:17:40.739915 14313 net.cpp:91] Creating Layer inception_4a/relu_5x5_reduce
I0403 15:17:40.739933 14313 net.cpp:425] inception_4a/relu_5x5_reduce <- inception_4a/5x5_reduce
I0403 15:17:40.739951 14313 net.cpp:386] inception_4a/relu_5x5_reduce -> inception_4a/5x5_reduce (in-place)
I0403 15:17:40.740141 14313 net.cpp:141] Setting up inception_4a/relu_5x5_reduce
I0403 15:17:40.740170 14313 net.cpp:148] Top shape: 24 16 14 14 (75264)
I0403 15:17:40.740185 14313 net.cpp:156] Memory required for data: 873665568
I0403 15:17:40.740200 14313 layer_factory.hpp:77] Creating layer inception_4a/5x5
I0403 15:17:40.740226 14313 net.cpp:91] Creating Layer inception_4a/5x5
I0403 15:17:40.740245 14313 net.cpp:425] inception_4a/5x5 <- inception_4a/5x5_reduce
I0403 15:17:40.740267 14313 net.cpp:399] inception_4a/5x5 -> inception_4a/5x5
I0403 15:17:40.741410 14313 net.cpp:141] Setting up inception_4a/5x5
I0403 15:17:40.741441 14313 net.cpp:148] Top shape: 24 48 14 14 (225792)
I0403 15:17:40.741456 14313 net.cpp:156] Memory required for data: 874568736
I0403 15:17:40.741475 14313 layer_factory.hpp:77] Creating layer inception_4a/relu_5x5
I0403 15:17:40.741494 14313 net.cpp:91] Creating Layer inception_4a/relu_5x5
I0403 15:17:40.741511 14313 net.cpp:425] inception_4a/relu_5x5 <- inception_4a/5x5
I0403 15:17:40.741531 14313 net.cpp:386] inception_4a/relu_5x5 -> inception_4a/5x5 (in-place)
I0403 15:17:40.741727 14313 net.cpp:141] Setting up inception_4a/relu_5x5
I0403 15:17:40.741753 14313 net.cpp:148] Top shape: 24 48 14 14 (225792)
I0403 15:17:40.741770 14313 net.cpp:156] Memory required for data: 875471904
I0403 15:17:40.741786 14313 layer_factory.hpp:77] Creating layer inception_4a/pool
I0403 15:17:40.741806 14313 net.cpp:91] Creating Layer inception_4a/pool
I0403 15:17:40.741824 14313 net.cpp:425] inception_4a/pool <- pool3/3x3_s2_pool3/3x3_s2_0_split_3
I0403 15:17:40.741842 14313 net.cpp:399] inception_4a/pool -> inception_4a/pool
I0403 15:17:40.741905 14313 net.cpp:141] Setting up inception_4a/pool
I0403 15:17:40.741930 14313 net.cpp:148] Top shape: 24 480 14 14 (2257920)
I0403 15:17:40.741945 14313 net.cpp:156] Memory required for data: 884503584
I0403 15:17:40.741961 14313 layer_factory.hpp:77] Creating layer inception_4a/pool_proj
I0403 15:17:40.741982 14313 net.cpp:91] Creating Layer inception_4a/pool_proj
I0403 15:17:40.742002 14313 net.cpp:425] inception_4a/pool_proj <- inception_4a/pool
I0403 15:17:40.742023 14313 net.cpp:399] inception_4a/pool_proj -> inception_4a/pool_proj
I0403 15:17:40.743257 14313 net.cpp:141] Setting up inception_4a/pool_proj
I0403 15:17:40.743285 14313 net.cpp:148] Top shape: 24 64 14 14 (301056)
I0403 15:17:40.743327 14313 net.cpp:156] Memory required for data: 885707808
I0403 15:17:40.743347 14313 layer_factory.hpp:77] Creating layer inception_4a/relu_pool_proj
I0403 15:17:40.743366 14313 net.cpp:91] Creating Layer inception_4a/relu_pool_proj
I0403 15:17:40.743383 14313 net.cpp:425] inception_4a/relu_pool_proj <- inception_4a/pool_proj
I0403 15:17:40.743404 14313 net.cpp:386] inception_4a/relu_pool_proj -> inception_4a/pool_proj (in-place)
I0403 15:17:40.743710 14313 net.cpp:141] Setting up inception_4a/relu_pool_proj
I0403 15:17:40.743737 14313 net.cpp:148] Top shape: 24 64 14 14 (301056)
I0403 15:17:40.743753 14313 net.cpp:156] Memory required for data: 886912032
I0403 15:17:40.743769 14313 layer_factory.hpp:77] Creating layer inception_4a/output
I0403 15:17:40.743788 14313 net.cpp:91] Creating Layer inception_4a/output
I0403 15:17:40.743803 14313 net.cpp:425] inception_4a/output <- inception_4a/1x1
I0403 15:17:40.743821 14313 net.cpp:425] inception_4a/output <- inception_4a/3x3
I0403 15:17:40.743837 14313 net.cpp:425] inception_4a/output <- inception_4a/5x5
I0403 15:17:40.743854 14313 net.cpp:425] inception_4a/output <- inception_4a/pool_proj
I0403 15:17:40.743875 14313 net.cpp:399] inception_4a/output -> inception_4a/output
I0403 15:17:40.743921 14313 net.cpp:141] Setting up inception_4a/output
I0403 15:17:40.743950 14313 net.cpp:148] Top shape: 24 512 14 14 (2408448)
I0403 15:17:40.743966 14313 net.cpp:156] Memory required for data: 896545824
I0403 15:17:40.743983 14313 layer_factory.hpp:77] Creating layer inception_4a/output_inception_4a/output_0_split
I0403 15:17:40.743999 14313 net.cpp:91] Creating Layer inception_4a/output_inception_4a/output_0_split
I0403 15:17:40.744015 14313 net.cpp:425] inception_4a/output_inception_4a/output_0_split <- inception_4a/output
I0403 15:17:40.744034 14313 net.cpp:399] inception_4a/output_inception_4a/output_0_split -> inception_4a/output_inception_4a/output_0_split_0
I0403 15:17:40.744057 14313 net.cpp:399] inception_4a/output_inception_4a/output_0_split -> inception_4a/output_inception_4a/output_0_split_1
I0403 15:17:40.744081 14313 net.cpp:399] inception_4a/output_inception_4a/output_0_split -> inception_4a/output_inception_4a/output_0_split_2
I0403 15:17:40.744102 14313 net.cpp:399] inception_4a/output_inception_4a/output_0_split -> inception_4a/output_inception_4a/output_0_split_3
I0403 15:17:40.744122 14313 net.cpp:399] inception_4a/output_inception_4a/output_0_split -> inception_4a/output_inception_4a/output_0_split_4
I0403 15:17:40.744217 14313 net.cpp:141] Setting up inception_4a/output_inception_4a/output_0_split
I0403 15:17:40.744241 14313 net.cpp:148] Top shape: 24 512 14 14 (2408448)
I0403 15:17:40.744261 14313 net.cpp:148] Top shape: 24 512 14 14 (2408448)
I0403 15:17:40.744278 14313 net.cpp:148] Top shape: 24 512 14 14 (2408448)
I0403 15:17:40.744294 14313 net.cpp:148] Top shape: 24 512 14 14 (2408448)
I0403 15:17:40.744310 14313 net.cpp:148] Top shape: 24 512 14 14 (2408448)
I0403 15:17:40.744324 14313 net.cpp:156] Memory required for data: 944714784
I0403 15:17:40.744339 14313 layer_factory.hpp:77] Creating layer loss1/ave_pool
I0403 15:17:40.744357 14313 net.cpp:91] Creating Layer loss1/ave_pool
I0403 15:17:40.744374 14313 net.cpp:425] loss1/ave_pool <- inception_4a/output_inception_4a/output_0_split_0
I0403 15:17:40.744392 14313 net.cpp:399] loss1/ave_pool -> loss1/ave_pool
I0403 15:17:40.744624 14313 net.cpp:141] Setting up loss1/ave_pool
I0403 15:17:40.744652 14313 net.cpp:148] Top shape: 24 512 4 4 (196608)
I0403 15:17:40.744668 14313 net.cpp:156] Memory required for data: 945501216
I0403 15:17:40.744684 14313 layer_factory.hpp:77] Creating layer loss1/conv
I0403 15:17:40.744706 14313 net.cpp:91] Creating Layer loss1/conv
I0403 15:17:40.744725 14313 net.cpp:425] loss1/conv <- loss1/ave_pool
I0403 15:17:40.744747 14313 net.cpp:399] loss1/conv -> loss1/conv
I0403 15:17:40.746235 14313 net.cpp:141] Setting up loss1/conv
I0403 15:17:40.746266 14313 net.cpp:148] Top shape: 24 128 4 4 (49152)
I0403 15:17:40.746282 14313 net.cpp:156] Memory required for data: 945697824
I0403 15:17:40.746318 14313 layer_factory.hpp:77] Creating layer loss1/relu_conv
I0403 15:17:40.746341 14313 net.cpp:91] Creating Layer loss1/relu_conv
I0403 15:17:40.746359 14313 net.cpp:425] loss1/relu_conv <- loss1/conv
I0403 15:17:40.746377 14313 net.cpp:386] loss1/relu_conv -> loss1/conv (in-place)
I0403 15:17:40.746680 14313 net.cpp:141] Setting up loss1/relu_conv
I0403 15:17:40.746709 14313 net.cpp:148] Top shape: 24 128 4 4 (49152)
I0403 15:17:40.746726 14313 net.cpp:156] Memory required for data: 945894432
I0403 15:17:40.746742 14313 layer_factory.hpp:77] Creating layer loss1/fc
I0403 15:17:40.746768 14313 net.cpp:91] Creating Layer loss1/fc
I0403 15:17:40.746788 14313 net.cpp:425] loss1/fc <- loss1/conv
I0403 15:17:40.746808 14313 net.cpp:399] loss1/fc -> loss1/fc
I0403 15:17:40.765641 14313 net.cpp:141] Setting up loss1/fc
I0403 15:17:40.765678 14313 net.cpp:148] Top shape: 24 1024 (24576)
I0403 15:17:40.765694 14313 net.cpp:156] Memory required for data: 945992736
I0403 15:17:40.765715 14313 layer_factory.hpp:77] Creating layer loss1/relu_fc
I0403 15:17:40.765738 14313 net.cpp:91] Creating Layer loss1/relu_fc
I0403 15:17:40.765755 14313 net.cpp:425] loss1/relu_fc <- loss1/fc
I0403 15:17:40.765777 14313 net.cpp:386] loss1/relu_fc -> loss1/fc (in-place)
I0403 15:17:40.766010 14313 net.cpp:141] Setting up loss1/relu_fc
I0403 15:17:40.766036 14313 net.cpp:148] Top shape: 24 1024 (24576)
I0403 15:17:40.766050 14313 net.cpp:156] Memory required for data: 946091040
I0403 15:17:40.766067 14313 layer_factory.hpp:77] Creating layer loss1/drop_fc
I0403 15:17:40.766096 14313 net.cpp:91] Creating Layer loss1/drop_fc
I0403 15:17:40.766115 14313 net.cpp:425] loss1/drop_fc <- loss1/fc
I0403 15:17:40.766134 14313 net.cpp:386] loss1/drop_fc -> loss1/fc (in-place)
I0403 15:17:40.766187 14313 net.cpp:141] Setting up loss1/drop_fc
I0403 15:17:40.766216 14313 net.cpp:148] Top shape: 24 1024 (24576)
I0403 15:17:40.766232 14313 net.cpp:156] Memory required for data: 946189344
I0403 15:17:40.766248 14313 layer_factory.hpp:77] Creating layer loss1/classifier_plantvillage
I0403 15:17:40.766269 14313 net.cpp:91] Creating Layer loss1/classifier_plantvillage
I0403 15:17:40.766286 14313 net.cpp:425] loss1/classifier_plantvillage <- loss1/fc
I0403 15:17:40.766307 14313 net.cpp:399] loss1/classifier_plantvillage -> loss1/classifier_plantvillage
I0403 15:17:40.767302 14313 net.cpp:141] Setting up loss1/classifier_plantvillage
I0403 15:17:40.767331 14313 net.cpp:148] Top shape: 24 38 (912)
I0403 15:17:40.767349 14313 net.cpp:156] Memory required for data: 946192992
I0403 15:17:40.767370 14313 layer_factory.hpp:77] Creating layer loss1/classifier_plantvillage_loss1/classifier_plantvillage_0_split
I0403 15:17:40.767391 14313 net.cpp:91] Creating Layer loss1/classifier_plantvillage_loss1/classifier_plantvillage_0_split
I0403 15:17:40.767410 14313 net.cpp:425] loss1/classifier_plantvillage_loss1/classifier_plantvillage_0_split <- loss1/classifier_plantvillage
I0403 15:17:40.767428 14313 net.cpp:399] loss1/classifier_plantvillage_loss1/classifier_plantvillage_0_split -> loss1/classifier_plantvillage_loss1/classifier_plantvillage_0_split_0
I0403 15:17:40.767449 14313 net.cpp:399] loss1/classifier_plantvillage_loss1/classifier_plantvillage_0_split -> loss1/classifier_plantvillage_loss1/classifier_plantvillage_0_split_1
I0403 15:17:40.767472 14313 net.cpp:399] loss1/classifier_plantvillage_loss1/classifier_plantvillage_0_split -> loss1/classifier_plantvillage_loss1/classifier_plantvillage_0_split_2
I0403 15:17:40.767545 14313 net.cpp:141] Setting up loss1/classifier_plantvillage_loss1/classifier_plantvillage_0_split
I0403 15:17:40.767571 14313 net.cpp:148] Top shape: 24 38 (912)
I0403 15:17:40.767590 14313 net.cpp:148] Top shape: 24 38 (912)
I0403 15:17:40.767606 14313 net.cpp:148] Top shape: 24 38 (912)
I0403 15:17:40.767621 14313 net.cpp:156] Memory required for data: 946203936
I0403 15:17:40.767637 14313 layer_factory.hpp:77] Creating layer inception_4b/1x1
I0403 15:17:40.767658 14313 net.cpp:91] Creating Layer inception_4b/1x1
I0403 15:17:40.767694 14313 net.cpp:425] inception_4b/1x1 <- inception_4a/output_inception_4a/output_0_split_1
I0403 15:17:40.767720 14313 net.cpp:399] inception_4b/1x1 -> inception_4b/1x1
I0403 15:17:40.769496 14313 net.cpp:141] Setting up inception_4b/1x1
I0403 15:17:40.769526 14313 net.cpp:148] Top shape: 24 160 14 14 (752640)
I0403 15:17:40.769546 14313 net.cpp:156] Memory required for data: 949214496
I0403 15:17:40.769564 14313 layer_factory.hpp:77] Creating layer inception_4b/relu_1x1
I0403 15:17:40.769585 14313 net.cpp:91] Creating Layer inception_4b/relu_1x1
I0403 15:17:40.769603 14313 net.cpp:425] inception_4b/relu_1x1 <- inception_4b/1x1
I0403 15:17:40.769620 14313 net.cpp:386] inception_4b/relu_1x1 -> inception_4b/1x1 (in-place)
I0403 15:17:40.769807 14313 net.cpp:141] Setting up inception_4b/relu_1x1
I0403 15:17:40.769834 14313 net.cpp:148] Top shape: 24 160 14 14 (752640)
I0403 15:17:40.769850 14313 net.cpp:156] Memory required for data: 952225056
I0403 15:17:40.769865 14313 layer_factory.hpp:77] Creating layer inception_4b/3x3_reduce
I0403 15:17:40.769887 14313 net.cpp:91] Creating Layer inception_4b/3x3_reduce
I0403 15:17:40.769906 14313 net.cpp:425] inception_4b/3x3_reduce <- inception_4a/output_inception_4a/output_0_split_2
I0403 15:17:40.769924 14313 net.cpp:399] inception_4b/3x3_reduce -> inception_4b/3x3_reduce
I0403 15:17:40.771319 14313 net.cpp:141] Setting up inception_4b/3x3_reduce
I0403 15:17:40.771350 14313 net.cpp:148] Top shape: 24 112 14 14 (526848)
I0403 15:17:40.771368 14313 net.cpp:156] Memory required for data: 954332448
I0403 15:17:40.771386 14313 layer_factory.hpp:77] Creating layer inception_4b/relu_3x3_reduce
I0403 15:17:40.771404 14313 net.cpp:91] Creating Layer inception_4b/relu_3x3_reduce
I0403 15:17:40.771421 14313 net.cpp:425] inception_4b/relu_3x3_reduce <- inception_4b/3x3_reduce
I0403 15:17:40.771441 14313 net.cpp:386] inception_4b/relu_3x3_reduce -> inception_4b/3x3_reduce (in-place)
I0403 15:17:40.771736 14313 net.cpp:141] Setting up inception_4b/relu_3x3_reduce
I0403 15:17:40.771764 14313 net.cpp:148] Top shape: 24 112 14 14 (526848)
I0403 15:17:40.771781 14313 net.cpp:156] Memory required for data: 956439840
I0403 15:17:40.771796 14313 layer_factory.hpp:77] Creating layer inception_4b/3x3
I0403 15:17:40.771819 14313 net.cpp:91] Creating Layer inception_4b/3x3
I0403 15:17:40.771837 14313 net.cpp:425] inception_4b/3x3 <- inception_4b/3x3_reduce
I0403 15:17:40.771857 14313 net.cpp:399] inception_4b/3x3 -> inception_4b/3x3
I0403 15:17:40.774899 14313 net.cpp:141] Setting up inception_4b/3x3
I0403 15:17:40.774929 14313 net.cpp:148] Top shape: 24 224 14 14 (1053696)
I0403 15:17:40.774943 14313 net.cpp:156] Memory required for data: 960654624
I0403 15:17:40.774962 14313 layer_factory.hpp:77] Creating layer inception_4b/relu_3x3
I0403 15:17:40.774982 14313 net.cpp:91] Creating Layer inception_4b/relu_3x3
I0403 15:17:40.774999 14313 net.cpp:425] inception_4b/relu_3x3 <- inception_4b/3x3
I0403 15:17:40.775017 14313 net.cpp:386] inception_4b/relu_3x3 -> inception_4b/3x3 (in-place)
I0403 15:17:40.775198 14313 net.cpp:141] Setting up inception_4b/relu_3x3
I0403 15:17:40.775223 14313 net.cpp:148] Top shape: 24 224 14 14 (1053696)
I0403 15:17:40.775238 14313 net.cpp:156] Memory required for data: 964869408
I0403 15:17:40.775252 14313 layer_factory.hpp:77] Creating layer inception_4b/5x5_reduce
I0403 15:17:40.775274 14313 net.cpp:91] Creating Layer inception_4b/5x5_reduce
I0403 15:17:40.775295 14313 net.cpp:425] inception_4b/5x5_reduce <- inception_4a/output_inception_4a/output_0_split_3
I0403 15:17:40.775315 14313 net.cpp:399] inception_4b/5x5_reduce -> inception_4b/5x5_reduce
I0403 15:17:40.776403 14313 net.cpp:141] Setting up inception_4b/5x5_reduce
I0403 15:17:40.776430 14313 net.cpp:148] Top shape: 24 24 14 14 (112896)
I0403 15:17:40.776445 14313 net.cpp:156] Memory required for data: 965320992
I0403 15:17:40.776463 14313 layer_factory.hpp:77] Creating layer inception_4b/relu_5x5_reduce
I0403 15:17:40.776484 14313 net.cpp:91] Creating Layer inception_4b/relu_5x5_reduce
I0403 15:17:40.776515 14313 net.cpp:425] inception_4b/relu_5x5_reduce <- inception_4b/5x5_reduce
I0403 15:17:40.776533 14313 net.cpp:386] inception_4b/relu_5x5_reduce -> inception_4b/5x5_reduce (in-place)
I0403 15:17:40.776721 14313 net.cpp:141] Setting up inception_4b/relu_5x5_reduce
I0403 15:17:40.776746 14313 net.cpp:148] Top shape: 24 24 14 14 (112896)
I0403 15:17:40.776760 14313 net.cpp:156] Memory required for data: 965772576
I0403 15:17:40.776777 14313 layer_factory.hpp:77] Creating layer inception_4b/5x5
I0403 15:17:40.776799 14313 net.cpp:91] Creating Layer inception_4b/5x5
I0403 15:17:40.776818 14313 net.cpp:425] inception_4b/5x5 <- inception_4b/5x5_reduce
I0403 15:17:40.776839 14313 net.cpp:399] inception_4b/5x5 -> inception_4b/5x5
I0403 15:17:40.778059 14313 net.cpp:141] Setting up inception_4b/5x5
I0403 15:17:40.778086 14313 net.cpp:148] Top shape: 24 64 14 14 (301056)
I0403 15:17:40.778101 14313 net.cpp:156] Memory required for data: 966976800
I0403 15:17:40.778120 14313 layer_factory.hpp:77] Creating layer inception_4b/relu_5x5
I0403 15:17:40.778141 14313 net.cpp:91] Creating Layer inception_4b/relu_5x5
I0403 15:17:40.778156 14313 net.cpp:425] inception_4b/relu_5x5 <- inception_4b/5x5
I0403 15:17:40.778173 14313 net.cpp:386] inception_4b/relu_5x5 -> inception_4b/5x5 (in-place)
I0403 15:17:40.778456 14313 net.cpp:141] Setting up inception_4b/relu_5x5
I0403 15:17:40.778482 14313 net.cpp:148] Top shape: 24 64 14 14 (301056)
I0403 15:17:40.778497 14313 net.cpp:156] Memory required for data: 968181024
I0403 15:17:40.778512 14313 layer_factory.hpp:77] Creating layer inception_4b/pool
I0403 15:17:40.778532 14313 net.cpp:91] Creating Layer inception_4b/pool
I0403 15:17:40.778553 14313 net.cpp:425] inception_4b/pool <- inception_4a/output_inception_4a/output_0_split_4
I0403 15:17:40.778573 14313 net.cpp:399] inception_4b/pool -> inception_4b/pool
I0403 15:17:40.778650 14313 net.cpp:141] Setting up inception_4b/pool
I0403 15:17:40.778672 14313 net.cpp:148] Top shape: 24 512 14 14 (2408448)
I0403 15:17:40.778687 14313 net.cpp:156] Memory required for data: 977814816
I0403 15:17:40.778700 14313 layer_factory.hpp:77] Creating layer inception_4b/pool_proj
I0403 15:17:40.778723 14313 net.cpp:91] Creating Layer inception_4b/pool_proj
I0403 15:17:40.778739 14313 net.cpp:425] inception_4b/pool_proj <- inception_4b/pool
I0403 15:17:40.778759 14313 net.cpp:399] inception_4b/pool_proj -> inception_4b/pool_proj
I0403 15:17:40.779965 14313 net.cpp:141] Setting up inception_4b/pool_proj
I0403 15:17:40.779995 14313 net.cpp:148] Top shape: 24 64 14 14 (301056)
I0403 15:17:40.780011 14313 net.cpp:156] Memory required for data: 979019040
I0403 15:17:40.780030 14313 layer_factory.hpp:77] Creating layer inception_4b/relu_pool_proj
I0403 15:17:40.780047 14313 net.cpp:91] Creating Layer inception_4b/relu_pool_proj
I0403 15:17:40.780063 14313 net.cpp:425] inception_4b/relu_pool_proj <- inception_4b/pool_proj
I0403 15:17:40.780079 14313 net.cpp:386] inception_4b/relu_pool_proj -> inception_4b/pool_proj (in-place)
I0403 15:17:40.780261 14313 net.cpp:141] Setting up inception_4b/relu_pool_proj
I0403 15:17:40.780287 14313 net.cpp:148] Top shape: 24 64 14 14 (301056)
I0403 15:17:40.780302 14313 net.cpp:156] Memory required for data: 980223264
I0403 15:17:40.780316 14313 layer_factory.hpp:77] Creating layer inception_4b/output
I0403 15:17:40.780333 14313 net.cpp:91] Creating Layer inception_4b/output
I0403 15:17:40.780349 14313 net.cpp:425] inception_4b/output <- inception_4b/1x1
I0403 15:17:40.780364 14313 net.cpp:425] inception_4b/output <- inception_4b/3x3
I0403 15:17:40.780380 14313 net.cpp:425] inception_4b/output <- inception_4b/5x5
I0403 15:17:40.780396 14313 net.cpp:425] inception_4b/output <- inception_4b/pool_proj
I0403 15:17:40.780416 14313 net.cpp:399] inception_4b/output -> inception_4b/output
I0403 15:17:40.780462 14313 net.cpp:141] Setting up inception_4b/output
I0403 15:17:40.780483 14313 net.cpp:148] Top shape: 24 512 14 14 (2408448)
I0403 15:17:40.780498 14313 net.cpp:156] Memory required for data: 989857056
I0403 15:17:40.780529 14313 layer_factory.hpp:77] Creating layer inception_4b/output_inception_4b/output_0_split
I0403 15:17:40.780553 14313 net.cpp:91] Creating Layer inception_4b/output_inception_4b/output_0_split
I0403 15:17:40.780571 14313 net.cpp:425] inception_4b/output_inception_4b/output_0_split <- inception_4b/output
I0403 15:17:40.780589 14313 net.cpp:399] inception_4b/output_inception_4b/output_0_split -> inception_4b/output_inception_4b/output_0_split_0
I0403 15:17:40.780611 14313 net.cpp:399] inception_4b/output_inception_4b/output_0_split -> inception_4b/output_inception_4b/output_0_split_1
I0403 15:17:40.780632 14313 net.cpp:399] inception_4b/output_inception_4b/output_0_split -> inception_4b/output_inception_4b/output_0_split_2
I0403 15:17:40.780652 14313 net.cpp:399] inception_4b/output_inception_4b/output_0_split -> inception_4b/output_inception_4b/output_0_split_3
I0403 15:17:40.780735 14313 net.cpp:141] Setting up inception_4b/output_inception_4b/output_0_split
I0403 15:17:40.780757 14313 net.cpp:148] Top shape: 24 512 14 14 (2408448)
I0403 15:17:40.780773 14313 net.cpp:148] Top shape: 24 512 14 14 (2408448)
I0403 15:17:40.780788 14313 net.cpp:148] Top shape: 24 512 14 14 (2408448)
I0403 15:17:40.780803 14313 net.cpp:148] Top shape: 24 512 14 14 (2408448)
I0403 15:17:40.780817 14313 net.cpp:156] Memory required for data: 1028392224
I0403 15:17:40.780832 14313 layer_factory.hpp:77] Creating layer inception_4c/1x1
I0403 15:17:40.780853 14313 net.cpp:91] Creating Layer inception_4c/1x1
I0403 15:17:40.780869 14313 net.cpp:425] inception_4c/1x1 <- inception_4b/output_inception_4b/output_0_split_0
I0403 15:17:40.780890 14313 net.cpp:399] inception_4c/1x1 -> inception_4c/1x1
I0403 15:17:40.782330 14313 net.cpp:141] Setting up inception_4c/1x1
I0403 15:17:40.782358 14313 net.cpp:148] Top shape: 24 128 14 14 (602112)
I0403 15:17:40.782373 14313 net.cpp:156] Memory required for data: 1030800672
I0403 15:17:40.782392 14313 layer_factory.hpp:77] Creating layer inception_4c/relu_1x1
I0403 15:17:40.782409 14313 net.cpp:91] Creating Layer inception_4c/relu_1x1
I0403 15:17:40.782425 14313 net.cpp:425] inception_4c/relu_1x1 <- inception_4c/1x1
I0403 15:17:40.782445 14313 net.cpp:386] inception_4c/relu_1x1 -> inception_4c/1x1 (in-place)
I0403 15:17:40.782629 14313 net.cpp:141] Setting up inception_4c/relu_1x1
I0403 15:17:40.782655 14313 net.cpp:148] Top shape: 24 128 14 14 (602112)
I0403 15:17:40.782668 14313 net.cpp:156] Memory required for data: 1033209120
I0403 15:17:40.782683 14313 layer_factory.hpp:77] Creating layer inception_4c/3x3_reduce
I0403 15:17:40.782704 14313 net.cpp:91] Creating Layer inception_4c/3x3_reduce
I0403 15:17:40.782722 14313 net.cpp:425] inception_4c/3x3_reduce <- inception_4b/output_inception_4b/output_0_split_1
I0403 15:17:40.782742 14313 net.cpp:399] inception_4c/3x3_reduce -> inception_4c/3x3_reduce
I0403 15:17:40.784715 14313 net.cpp:141] Setting up inception_4c/3x3_reduce
I0403 15:17:40.784744 14313 net.cpp:148] Top shape: 24 128 14 14 (602112)
I0403 15:17:40.784759 14313 net.cpp:156] Memory required for data: 1035617568
I0403 15:17:40.784777 14313 layer_factory.hpp:77] Creating layer inception_4c/relu_3x3_reduce
I0403 15:17:40.784797 14313 net.cpp:91] Creating Layer inception_4c/relu_3x3_reduce
I0403 15:17:40.784814 14313 net.cpp:425] inception_4c/relu_3x3_reduce <- inception_4c/3x3_reduce
I0403 15:17:40.784832 14313 net.cpp:386] inception_4c/relu_3x3_reduce -> inception_4c/3x3_reduce (in-place)
I0403 15:17:40.785120 14313 net.cpp:141] Setting up inception_4c/relu_3x3_reduce
I0403 15:17:40.785145 14313 net.cpp:148] Top shape: 24 128 14 14 (602112)
I0403 15:17:40.785161 14313 net.cpp:156] Memory required for data: 1038026016
I0403 15:17:40.785176 14313 layer_factory.hpp:77] Creating layer inception_4c/3x3
I0403 15:17:40.785197 14313 net.cpp:91] Creating Layer inception_4c/3x3
I0403 15:17:40.785214 14313 net.cpp:425] inception_4c/3x3 <- inception_4c/3x3_reduce
I0403 15:17:40.785236 14313 net.cpp:399] inception_4c/3x3 -> inception_4c/3x3
I0403 15:17:40.788839 14313 net.cpp:141] Setting up inception_4c/3x3
I0403 15:17:40.788883 14313 net.cpp:148] Top shape: 24 256 14 14 (1204224)
I0403 15:17:40.788902 14313 net.cpp:156] Memory required for data: 1042842912
I0403 15:17:40.788934 14313 layer_factory.hpp:77] Creating layer inception_4c/relu_3x3
I0403 15:17:40.788954 14313 net.cpp:91] Creating Layer inception_4c/relu_3x3
I0403 15:17:40.788971 14313 net.cpp:425] inception_4c/relu_3x3 <- inception_4c/3x3
I0403 15:17:40.788988 14313 net.cpp:386] inception_4c/relu_3x3 -> inception_4c/3x3 (in-place)
I0403 15:17:40.789172 14313 net.cpp:141] Setting up inception_4c/relu_3x3
I0403 15:17:40.789197 14313 net.cpp:148] Top shape: 24 256 14 14 (1204224)
I0403 15:17:40.789211 14313 net.cpp:156] Memory required for data: 1047659808
I0403 15:17:40.789225 14313 layer_factory.hpp:77] Creating layer inception_4c/5x5_reduce
I0403 15:17:40.789249 14313 net.cpp:91] Creating Layer inception_4c/5x5_reduce
I0403 15:17:40.789269 14313 net.cpp:425] inception_4c/5x5_reduce <- inception_4b/output_inception_4b/output_0_split_2
I0403 15:17:40.789288 14313 net.cpp:399] inception_4c/5x5_reduce -> inception_4c/5x5_reduce
I0403 15:17:40.790421 14313 net.cpp:141] Setting up inception_4c/5x5_reduce
I0403 15:17:40.790451 14313 net.cpp:148] Top shape: 24 24 14 14 (112896)
I0403 15:17:40.790467 14313 net.cpp:156] Memory required for data: 1048111392
I0403 15:17:40.790485 14313 layer_factory.hpp:77] Creating layer inception_4c/relu_5x5_reduce
I0403 15:17:40.790506 14313 net.cpp:91] Creating Layer inception_4c/relu_5x5_reduce
I0403 15:17:40.790524 14313 net.cpp:425] inception_4c/relu_5x5_reduce <- inception_4c/5x5_reduce
I0403 15:17:40.790545 14313 net.cpp:386] inception_4c/relu_5x5_reduce -> inception_4c/5x5_reduce (in-place)
I0403 15:17:40.790740 14313 net.cpp:141] Setting up inception_4c/relu_5x5_reduce
I0403 15:17:40.790765 14313 net.cpp:148] Top shape: 24 24 14 14 (112896)
I0403 15:17:40.790779 14313 net.cpp:156] Memory required for data: 1048562976
I0403 15:17:40.790793 14313 layer_factory.hpp:77] Creating layer inception_4c/5x5
I0403 15:17:40.790815 14313 net.cpp:91] Creating Layer inception_4c/5x5
I0403 15:17:40.790833 14313 net.cpp:425] inception_4c/5x5 <- inception_4c/5x5_reduce
I0403 15:17:40.790854 14313 net.cpp:399] inception_4c/5x5 -> inception_4c/5x5
I0403 15:17:40.792131 14313 net.cpp:141] Setting up inception_4c/5x5
I0403 15:17:40.792161 14313 net.cpp:148] Top shape: 24 64 14 14 (301056)
I0403 15:17:40.792177 14313 net.cpp:156] Memory required for data: 1049767200
I0403 15:17:40.792196 14313 layer_factory.hpp:77] Creating layer inception_4c/relu_5x5
I0403 15:17:40.792215 14313 net.cpp:91] Creating Layer inception_4c/relu_5x5
I0403 15:17:40.792232 14313 net.cpp:425] inception_4c/relu_5x5 <- inception_4c/5x5
I0403 15:17:40.792251 14313 net.cpp:386] inception_4c/relu_5x5 -> inception_4c/5x5 (in-place)
I0403 15:17:40.792554 14313 net.cpp:141] Setting up inception_4c/relu_5x5
I0403 15:17:40.792583 14313 net.cpp:148] Top shape: 24 64 14 14 (301056)
I0403 15:17:40.792600 14313 net.cpp:156] Memory required for data: 1050971424
I0403 15:17:40.792614 14313 layer_factory.hpp:77] Creating layer inception_4c/pool
I0403 15:17:40.792632 14313 net.cpp:91] Creating Layer inception_4c/pool
I0403 15:17:40.792649 14313 net.cpp:425] inception_4c/pool <- inception_4b/output_inception_4b/output_0_split_3
I0403 15:17:40.792670 14313 net.cpp:399] inception_4c/pool -> inception_4c/pool
I0403 15:17:40.792735 14313 net.cpp:141] Setting up inception_4c/pool
I0403 15:17:40.792762 14313 net.cpp:148] Top shape: 24 512 14 14 (2408448)
I0403 15:17:40.792776 14313 net.cpp:156] Memory required for data: 1060605216
I0403 15:17:40.792791 14313 layer_factory.hpp:77] Creating layer inception_4c/pool_proj
I0403 15:17:40.792814 14313 net.cpp:91] Creating Layer inception_4c/pool_proj
I0403 15:17:40.792832 14313 net.cpp:425] inception_4c/pool_proj <- inception_4c/pool
I0403 15:17:40.792851 14313 net.cpp:399] inception_4c/pool_proj -> inception_4c/pool_proj
I0403 15:17:40.794106 14313 net.cpp:141] Setting up inception_4c/pool_proj
I0403 15:17:40.794137 14313 net.cpp:148] Top shape: 24 64 14 14 (301056)
I0403 15:17:40.794167 14313 net.cpp:156] Memory required for data: 1061809440
I0403 15:17:40.794186 14313 layer_factory.hpp:77] Creating layer inception_4c/relu_pool_proj
I0403 15:17:40.794205 14313 net.cpp:91] Creating Layer inception_4c/relu_pool_proj
I0403 15:17:40.794221 14313 net.cpp:425] inception_4c/relu_pool_proj <- inception_4c/pool_proj
I0403 15:17:40.794239 14313 net.cpp:386] inception_4c/relu_pool_proj -> inception_4c/pool_proj (in-place)
I0403 15:17:40.794428 14313 net.cpp:141] Setting up inception_4c/relu_pool_proj
I0403 15:17:40.794456 14313 net.cpp:148] Top shape: 24 64 14 14 (301056)
I0403 15:17:40.794471 14313 net.cpp:156] Memory required for data: 1063013664
I0403 15:17:40.794486 14313 layer_factory.hpp:77] Creating layer inception_4c/output
I0403 15:17:40.794503 14313 net.cpp:91] Creating Layer inception_4c/output
I0403 15:17:40.794518 14313 net.cpp:425] inception_4c/output <- inception_4c/1x1
I0403 15:17:40.794535 14313 net.cpp:425] inception_4c/output <- inception_4c/3x3
I0403 15:17:40.794564 14313 net.cpp:425] inception_4c/output <- inception_4c/5x5
I0403 15:17:40.794582 14313 net.cpp:425] inception_4c/output <- inception_4c/pool_proj
I0403 15:17:40.794602 14313 net.cpp:399] inception_4c/output -> inception_4c/output
I0403 15:17:40.794651 14313 net.cpp:141] Setting up inception_4c/output
I0403 15:17:40.794674 14313 net.cpp:148] Top shape: 24 512 14 14 (2408448)
I0403 15:17:40.794689 14313 net.cpp:156] Memory required for data: 1072647456
I0403 15:17:40.794704 14313 layer_factory.hpp:77] Creating layer inception_4c/output_inception_4c/output_0_split
I0403 15:17:40.794723 14313 net.cpp:91] Creating Layer inception_4c/output_inception_4c/output_0_split
I0403 15:17:40.794739 14313 net.cpp:425] inception_4c/output_inception_4c/output_0_split <- inception_4c/output
I0403 15:17:40.794757 14313 net.cpp:399] inception_4c/output_inception_4c/output_0_split -> inception_4c/output_inception_4c/output_0_split_0
I0403 15:17:40.794778 14313 net.cpp:399] inception_4c/output_inception_4c/output_0_split -> inception_4c/output_inception_4c/output_0_split_1
I0403 15:17:40.794802 14313 net.cpp:399] inception_4c/output_inception_4c/output_0_split -> inception_4c/output_inception_4c/output_0_split_2
I0403 15:17:40.794823 14313 net.cpp:399] inception_4c/output_inception_4c/output_0_split -> inception_4c/output_inception_4c/output_0_split_3
I0403 15:17:40.794909 14313 net.cpp:141] Setting up inception_4c/output_inception_4c/output_0_split
I0403 15:17:40.794934 14313 net.cpp:148] Top shape: 24 512 14 14 (2408448)
I0403 15:17:40.794950 14313 net.cpp:148] Top shape: 24 512 14 14 (2408448)
I0403 15:17:40.794965 14313 net.cpp:148] Top shape: 24 512 14 14 (2408448)
I0403 15:17:40.794981 14313 net.cpp:148] Top shape: 24 512 14 14 (2408448)
I0403 15:17:40.794994 14313 net.cpp:156] Memory required for data: 1111182624
I0403 15:17:40.795009 14313 layer_factory.hpp:77] Creating layer inception_4d/1x1
I0403 15:17:40.795032 14313 net.cpp:91] Creating Layer inception_4d/1x1
I0403 15:17:40.795049 14313 net.cpp:425] inception_4d/1x1 <- inception_4c/output_inception_4c/output_0_split_0
I0403 15:17:40.795070 14313 net.cpp:399] inception_4d/1x1 -> inception_4d/1x1
I0403 15:17:40.796496 14313 net.cpp:141] Setting up inception_4d/1x1
I0403 15:17:40.796525 14313 net.cpp:148] Top shape: 24 112 14 14 (526848)
I0403 15:17:40.796545 14313 net.cpp:156] Memory required for data: 1113290016
I0403 15:17:40.796564 14313 layer_factory.hpp:77] Creating layer inception_4d/relu_1x1
I0403 15:17:40.796588 14313 net.cpp:91] Creating Layer inception_4d/relu_1x1
I0403 15:17:40.796607 14313 net.cpp:425] inception_4d/relu_1x1 <- inception_4d/1x1
I0403 15:17:40.796623 14313 net.cpp:386] inception_4d/relu_1x1 -> inception_4d/1x1 (in-place)
I0403 15:17:40.796814 14313 net.cpp:141] Setting up inception_4d/relu_1x1
I0403 15:17:40.796839 14313 net.cpp:148] Top shape: 24 112 14 14 (526848)
I0403 15:17:40.796854 14313 net.cpp:156] Memory required for data: 1115397408
I0403 15:17:40.796869 14313 layer_factory.hpp:77] Creating layer inception_4d/3x3_reduce
I0403 15:17:40.796907 14313 net.cpp:91] Creating Layer inception_4d/3x3_reduce
I0403 15:17:40.796926 14313 net.cpp:425] inception_4d/3x3_reduce <- inception_4c/output_inception_4c/output_0_split_1
I0403 15:17:40.796947 14313 net.cpp:399] inception_4d/3x3_reduce -> inception_4d/3x3_reduce
I0403 15:17:40.798508 14313 net.cpp:141] Setting up inception_4d/3x3_reduce
I0403 15:17:40.798540 14313 net.cpp:148] Top shape: 24 144 14 14 (677376)
I0403 15:17:40.798557 14313 net.cpp:156] Memory required for data: 1118106912
I0403 15:17:40.798576 14313 layer_factory.hpp:77] Creating layer inception_4d/relu_3x3_reduce
I0403 15:17:40.798595 14313 net.cpp:91] Creating Layer inception_4d/relu_3x3_reduce
I0403 15:17:40.798611 14313 net.cpp:425] inception_4d/relu_3x3_reduce <- inception_4d/3x3_reduce
I0403 15:17:40.798631 14313 net.cpp:386] inception_4d/relu_3x3_reduce -> inception_4d/3x3_reduce (in-place)
I0403 15:17:40.798931 14313 net.cpp:141] Setting up inception_4d/relu_3x3_reduce
I0403 15:17:40.798959 14313 net.cpp:148] Top shape: 24 144 14 14 (677376)
I0403 15:17:40.798974 14313 net.cpp:156] Memory required for data: 1120816416
I0403 15:17:40.798988 14313 layer_factory.hpp:77] Creating layer inception_4d/3x3
I0403 15:17:40.799010 14313 net.cpp:91] Creating Layer inception_4d/3x3
I0403 15:17:40.799029 14313 net.cpp:425] inception_4d/3x3 <- inception_4d/3x3_reduce
I0403 15:17:40.799051 14313 net.cpp:399] inception_4d/3x3 -> inception_4d/3x3
I0403 15:17:40.803428 14313 net.cpp:141] Setting up inception_4d/3x3
I0403 15:17:40.803458 14313 net.cpp:148] Top shape: 24 288 14 14 (1354752)
I0403 15:17:40.803473 14313 net.cpp:156] Memory required for data: 1126235424
I0403 15:17:40.803493 14313 layer_factory.hpp:77] Creating layer inception_4d/relu_3x3
I0403 15:17:40.803514 14313 net.cpp:91] Creating Layer inception_4d/relu_3x3
I0403 15:17:40.803530 14313 net.cpp:425] inception_4d/relu_3x3 <- inception_4d/3x3
I0403 15:17:40.803552 14313 net.cpp:386] inception_4d/relu_3x3 -> inception_4d/3x3 (in-place)
I0403 15:17:40.803742 14313 net.cpp:141] Setting up inception_4d/relu_3x3
I0403 15:17:40.803772 14313 net.cpp:148] Top shape: 24 288 14 14 (1354752)
I0403 15:17:40.803787 14313 net.cpp:156] Memory required for data: 1131654432
I0403 15:17:40.803802 14313 layer_factory.hpp:77] Creating layer inception_4d/5x5_reduce
I0403 15:17:40.803825 14313 net.cpp:91] Creating Layer inception_4d/5x5_reduce
I0403 15:17:40.803843 14313 net.cpp:425] inception_4d/5x5_reduce <- inception_4c/output_inception_4c/output_0_split_2
I0403 15:17:40.803863 14313 net.cpp:399] inception_4d/5x5_reduce -> inception_4d/5x5_reduce
I0403 15:17:40.805053 14313 net.cpp:141] Setting up inception_4d/5x5_reduce
I0403 15:17:40.805081 14313 net.cpp:148] Top shape: 24 32 14 14 (150528)
I0403 15:17:40.805096 14313 net.cpp:156] Memory required for data: 1132256544
I0403 15:17:40.805114 14313 layer_factory.hpp:77] Creating layer inception_4d/relu_5x5_reduce
I0403 15:17:40.805135 14313 net.cpp:91] Creating Layer inception_4d/relu_5x5_reduce
I0403 15:17:40.805152 14313 net.cpp:425] inception_4d/relu_5x5_reduce <- inception_4d/5x5_reduce
I0403 15:17:40.805171 14313 net.cpp:386] inception_4d/relu_5x5_reduce -> inception_4d/5x5_reduce (in-place)
I0403 15:17:40.805364 14313 net.cpp:141] Setting up inception_4d/relu_5x5_reduce
I0403 15:17:40.805389 14313 net.cpp:148] Top shape: 24 32 14 14 (150528)
I0403 15:17:40.805404 14313 net.cpp:156] Memory required for data: 1132858656
I0403 15:17:40.805419 14313 layer_factory.hpp:77] Creating layer inception_4d/5x5
I0403 15:17:40.805443 14313 net.cpp:91] Creating Layer inception_4d/5x5
I0403 15:17:40.805460 14313 net.cpp:425] inception_4d/5x5 <- inception_4d/5x5_reduce
I0403 15:17:40.805480 14313 net.cpp:399] inception_4d/5x5 -> inception_4d/5x5
I0403 15:17:40.812180 14313 net.cpp:141] Setting up inception_4d/5x5
I0403 15:17:40.812216 14313 net.cpp:148] Top shape: 24 64 14 14 (301056)
I0403 15:17:40.812232 14313 net.cpp:156] Memory required for data: 1134062880
I0403 15:17:40.812252 14313 layer_factory.hpp:77] Creating layer inception_4d/relu_5x5
I0403 15:17:40.812288 14313 net.cpp:91] Creating Layer inception_4d/relu_5x5
I0403 15:17:40.812305 14313 net.cpp:425] inception_4d/relu_5x5 <- inception_4d/5x5
I0403 15:17:40.812325 14313 net.cpp:386] inception_4d/relu_5x5 -> inception_4d/5x5 (in-place)
I0403 15:17:40.812640 14313 net.cpp:141] Setting up inception_4d/relu_5x5
I0403 15:17:40.812669 14313 net.cpp:148] Top shape: 24 64 14 14 (301056)
I0403 15:17:40.812685 14313 net.cpp:156] Memory required for data: 1135267104
I0403 15:17:40.812700 14313 layer_factory.hpp:77] Creating layer inception_4d/pool
I0403 15:17:40.812717 14313 net.cpp:91] Creating Layer inception_4d/pool
I0403 15:17:40.812733 14313 net.cpp:425] inception_4d/pool <- inception_4c/output_inception_4c/output_0_split_3
I0403 15:17:40.812757 14313 net.cpp:399] inception_4d/pool -> inception_4d/pool
I0403 15:17:40.812822 14313 net.cpp:141] Setting up inception_4d/pool
I0403 15:17:40.812846 14313 net.cpp:148] Top shape: 24 512 14 14 (2408448)
I0403 15:17:40.812861 14313 net.cpp:156] Memory required for data: 1144900896
I0403 15:17:40.812875 14313 layer_factory.hpp:77] Creating layer inception_4d/pool_proj
I0403 15:17:40.812897 14313 net.cpp:91] Creating Layer inception_4d/pool_proj
I0403 15:17:40.812916 14313 net.cpp:425] inception_4d/pool_proj <- inception_4d/pool
I0403 15:17:40.812935 14313 net.cpp:399] inception_4d/pool_proj -> inception_4d/pool_proj
I0403 15:17:40.814802 14313 net.cpp:141] Setting up inception_4d/pool_proj
I0403 15:17:40.814833 14313 net.cpp:148] Top shape: 24 64 14 14 (301056)
I0403 15:17:40.814849 14313 net.cpp:156] Memory required for data: 1146105120
I0403 15:17:40.814867 14313 layer_factory.hpp:77] Creating layer inception_4d/relu_pool_proj
I0403 15:17:40.814888 14313 net.cpp:91] Creating Layer inception_4d/relu_pool_proj
I0403 15:17:40.814905 14313 net.cpp:425] inception_4d/relu_pool_proj <- inception_4d/pool_proj
I0403 15:17:40.814924 14313 net.cpp:386] inception_4d/relu_pool_proj -> inception_4d/pool_proj (in-place)
I0403 15:17:40.815109 14313 net.cpp:141] Setting up inception_4d/relu_pool_proj
I0403 15:17:40.815136 14313 net.cpp:148] Top shape: 24 64 14 14 (301056)
I0403 15:17:40.815152 14313 net.cpp:156] Memory required for data: 1147309344
I0403 15:17:40.815167 14313 layer_factory.hpp:77] Creating layer inception_4d/output
I0403 15:17:40.815183 14313 net.cpp:91] Creating Layer inception_4d/output
I0403 15:17:40.815199 14313 net.cpp:425] inception_4d/output <- inception_4d/1x1
I0403 15:17:40.815215 14313 net.cpp:425] inception_4d/output <- inception_4d/3x3
I0403 15:17:40.815232 14313 net.cpp:425] inception_4d/output <- inception_4d/5x5
I0403 15:17:40.815248 14313 net.cpp:425] inception_4d/output <- inception_4d/pool_proj
I0403 15:17:40.815268 14313 net.cpp:399] inception_4d/output -> inception_4d/output
I0403 15:17:40.815316 14313 net.cpp:141] Setting up inception_4d/output
I0403 15:17:40.815340 14313 net.cpp:148] Top shape: 24 528 14 14 (2483712)
I0403 15:17:40.815353 14313 net.cpp:156] Memory required for data: 1157244192
I0403 15:17:40.815368 14313 layer_factory.hpp:77] Creating layer inception_4d/output_inception_4d/output_0_split
I0403 15:17:40.815387 14313 net.cpp:91] Creating Layer inception_4d/output_inception_4d/output_0_split
I0403 15:17:40.815404 14313 net.cpp:425] inception_4d/output_inception_4d/output_0_split <- inception_4d/output
I0403 15:17:40.815423 14313 net.cpp:399] inception_4d/output_inception_4d/output_0_split -> inception_4d/output_inception_4d/output_0_split_0
I0403 15:17:40.815441 14313 net.cpp:399] inception_4d/output_inception_4d/output_0_split -> inception_4d/output_inception_4d/output_0_split_1
I0403 15:17:40.815462 14313 net.cpp:399] inception_4d/output_inception_4d/output_0_split -> inception_4d/output_inception_4d/output_0_split_2
I0403 15:17:40.815497 14313 net.cpp:399] inception_4d/output_inception_4d/output_0_split -> inception_4d/output_inception_4d/output_0_split_3
I0403 15:17:40.815520 14313 net.cpp:399] inception_4d/output_inception_4d/output_0_split -> inception_4d/output_inception_4d/output_0_split_4
I0403 15:17:40.815631 14313 net.cpp:141] Setting up inception_4d/output_inception_4d/output_0_split
I0403 15:17:40.815668 14313 net.cpp:148] Top shape: 24 528 14 14 (2483712)
I0403 15:17:40.815686 14313 net.cpp:148] Top shape: 24 528 14 14 (2483712)
I0403 15:17:40.815701 14313 net.cpp:148] Top shape: 24 528 14 14 (2483712)
I0403 15:17:40.815717 14313 net.cpp:148] Top shape: 24 528 14 14 (2483712)
I0403 15:17:40.815732 14313 net.cpp:148] Top shape: 24 528 14 14 (2483712)
I0403 15:17:40.815747 14313 net.cpp:156] Memory required for data: 1206918432
I0403 15:17:40.815762 14313 layer_factory.hpp:77] Creating layer loss2/ave_pool
I0403 15:17:40.815784 14313 net.cpp:91] Creating Layer loss2/ave_pool
I0403 15:17:40.815803 14313 net.cpp:425] loss2/ave_pool <- inception_4d/output_inception_4d/output_0_split_0
I0403 15:17:40.815820 14313 net.cpp:399] loss2/ave_pool -> loss2/ave_pool
I0403 15:17:40.816177 14313 net.cpp:141] Setting up loss2/ave_pool
I0403 15:17:40.816205 14313 net.cpp:148] Top shape: 24 528 4 4 (202752)
I0403 15:17:40.816220 14313 net.cpp:156] Memory required for data: 1207729440
I0403 15:17:40.816236 14313 layer_factory.hpp:77] Creating layer loss2/conv
I0403 15:17:40.816258 14313 net.cpp:91] Creating Layer loss2/conv
I0403 15:17:40.816277 14313 net.cpp:425] loss2/conv <- loss2/ave_pool
I0403 15:17:40.816299 14313 net.cpp:399] loss2/conv -> loss2/conv
I0403 15:17:40.818251 14313 net.cpp:141] Setting up loss2/conv
I0403 15:17:40.818284 14313 net.cpp:148] Top shape: 24 128 4 4 (49152)
I0403 15:17:40.818300 14313 net.cpp:156] Memory required for data: 1207926048
I0403 15:17:40.818320 14313 layer_factory.hpp:77] Creating layer loss2/relu_conv
I0403 15:17:40.818338 14313 net.cpp:91] Creating Layer loss2/relu_conv
I0403 15:17:40.818354 14313 net.cpp:425] loss2/relu_conv <- loss2/conv
I0403 15:17:40.818375 14313 net.cpp:386] loss2/relu_conv -> loss2/conv (in-place)
I0403 15:17:40.818673 14313 net.cpp:141] Setting up loss2/relu_conv
I0403 15:17:40.818702 14313 net.cpp:148] Top shape: 24 128 4 4 (49152)
I0403 15:17:40.818719 14313 net.cpp:156] Memory required for data: 1208122656
I0403 15:17:40.818734 14313 layer_factory.hpp:77] Creating layer loss2/fc
I0403 15:17:40.818753 14313 net.cpp:91] Creating Layer loss2/fc
I0403 15:17:40.818770 14313 net.cpp:425] loss2/fc <- loss2/conv
I0403 15:17:40.818791 14313 net.cpp:399] loss2/fc -> loss2/fc
I0403 15:17:40.836973 14313 net.cpp:141] Setting up loss2/fc
I0403 15:17:40.837028 14313 net.cpp:148] Top shape: 24 1024 (24576)
I0403 15:17:40.837045 14313 net.cpp:156] Memory required for data: 1208220960
I0403 15:17:40.837065 14313 layer_factory.hpp:77] Creating layer loss2/relu_fc
I0403 15:17:40.837085 14313 net.cpp:91] Creating Layer loss2/relu_fc
I0403 15:17:40.837101 14313 net.cpp:425] loss2/relu_fc <- loss2/fc
I0403 15:17:40.837121 14313 net.cpp:386] loss2/relu_fc -> loss2/fc (in-place)
I0403 15:17:40.837455 14313 net.cpp:141] Setting up loss2/relu_fc
I0403 15:17:40.837481 14313 net.cpp:148] Top shape: 24 1024 (24576)
I0403 15:17:40.837497 14313 net.cpp:156] Memory required for data: 1208319264
I0403 15:17:40.837512 14313 layer_factory.hpp:77] Creating layer loss2/drop_fc
I0403 15:17:40.837533 14313 net.cpp:91] Creating Layer loss2/drop_fc
I0403 15:17:40.837555 14313 net.cpp:425] loss2/drop_fc <- loss2/fc
I0403 15:17:40.837574 14313 net.cpp:386] loss2/drop_fc -> loss2/fc (in-place)
I0403 15:17:40.837628 14313 net.cpp:141] Setting up loss2/drop_fc
I0403 15:17:40.837652 14313 net.cpp:148] Top shape: 24 1024 (24576)
I0403 15:17:40.837667 14313 net.cpp:156] Memory required for data: 1208417568
I0403 15:17:40.837682 14313 layer_factory.hpp:77] Creating layer loss2/classifier_plantvillage
I0403 15:17:40.837703 14313 net.cpp:91] Creating Layer loss2/classifier_plantvillage
I0403 15:17:40.837721 14313 net.cpp:425] loss2/classifier_plantvillage <- loss2/fc
I0403 15:17:40.837740 14313 net.cpp:399] loss2/classifier_plantvillage -> loss2/classifier_plantvillage
I0403 15:17:40.838166 14313 net.cpp:141] Setting up loss2/classifier_plantvillage
I0403 15:17:40.838191 14313 net.cpp:148] Top shape: 24 38 (912)
I0403 15:17:40.838207 14313 net.cpp:156] Memory required for data: 1208421216
I0403 15:17:40.838254 14313 layer_factory.hpp:77] Creating layer loss2/classifier_plantvillage_loss2/classifier_plantvillage_0_split
I0403 15:17:40.838275 14313 net.cpp:91] Creating Layer loss2/classifier_plantvillage_loss2/classifier_plantvillage_0_split
I0403 15:17:40.838291 14313 net.cpp:425] loss2/classifier_plantvillage_loss2/classifier_plantvillage_0_split <- loss2/classifier_plantvillage
I0403 15:17:40.838315 14313 net.cpp:399] loss2/classifier_plantvillage_loss2/classifier_plantvillage_0_split -> loss2/classifier_plantvillage_loss2/classifier_plantvillage_0_split_0
I0403 15:17:40.838337 14313 net.cpp:399] loss2/classifier_plantvillage_loss2/classifier_plantvillage_0_split -> loss2/classifier_plantvillage_loss2/classifier_plantvillage_0_split_1
I0403 15:17:40.838358 14313 net.cpp:399] loss2/classifier_plantvillage_loss2/classifier_plantvillage_0_split -> loss2/classifier_plantvillage_loss2/classifier_plantvillage_0_split_2
I0403 15:17:40.838438 14313 net.cpp:141] Setting up loss2/classifier_plantvillage_loss2/classifier_plantvillage_0_split
I0403 15:17:40.838464 14313 net.cpp:148] Top shape: 24 38 (912)
I0403 15:17:40.838481 14313 net.cpp:148] Top shape: 24 38 (912)
I0403 15:17:40.838497 14313 net.cpp:148] Top shape: 24 38 (912)
I0403 15:17:40.838511 14313 net.cpp:156] Memory required for data: 1208432160
I0403 15:17:40.838526 14313 layer_factory.hpp:77] Creating layer inception_4e/1x1
I0403 15:17:40.838554 14313 net.cpp:91] Creating Layer inception_4e/1x1
I0403 15:17:40.838574 14313 net.cpp:425] inception_4e/1x1 <- inception_4d/output_inception_4d/output_0_split_1
I0403 15:17:40.838603 14313 net.cpp:399] inception_4e/1x1 -> inception_4e/1x1
I0403 15:17:40.840517 14313 net.cpp:141] Setting up inception_4e/1x1
I0403 15:17:40.840553 14313 net.cpp:148] Top shape: 24 256 14 14 (1204224)
I0403 15:17:40.840569 14313 net.cpp:156] Memory required for data: 1213249056
I0403 15:17:40.840589 14313 layer_factory.hpp:77] Creating layer inception_4e/relu_1x1
I0403 15:17:40.840607 14313 net.cpp:91] Creating Layer inception_4e/relu_1x1
I0403 15:17:40.840625 14313 net.cpp:425] inception_4e/relu_1x1 <- inception_4e/1x1
I0403 15:17:40.840644 14313 net.cpp:386] inception_4e/relu_1x1 -> inception_4e/1x1 (in-place)
I0403 15:17:40.840952 14313 net.cpp:141] Setting up inception_4e/relu_1x1
I0403 15:17:40.840981 14313 net.cpp:148] Top shape: 24 256 14 14 (1204224)
I0403 15:17:40.840998 14313 net.cpp:156] Memory required for data: 1218065952
I0403 15:17:40.841013 14313 layer_factory.hpp:77] Creating layer inception_4e/3x3_reduce
I0403 15:17:40.841037 14313 net.cpp:91] Creating Layer inception_4e/3x3_reduce
I0403 15:17:40.841054 14313 net.cpp:425] inception_4e/3x3_reduce <- inception_4d/output_inception_4d/output_0_split_2
I0403 15:17:40.841074 14313 net.cpp:399] inception_4e/3x3_reduce -> inception_4e/3x3_reduce
I0403 15:17:40.843286 14313 net.cpp:141] Setting up inception_4e/3x3_reduce
I0403 15:17:40.843318 14313 net.cpp:148] Top shape: 24 160 14 14 (752640)
I0403 15:17:40.843335 14313 net.cpp:156] Memory required for data: 1221076512
I0403 15:17:40.843354 14313 layer_factory.hpp:77] Creating layer inception_4e/relu_3x3_reduce
I0403 15:17:40.843374 14313 net.cpp:91] Creating Layer inception_4e/relu_3x3_reduce
I0403 15:17:40.843389 14313 net.cpp:425] inception_4e/relu_3x3_reduce <- inception_4e/3x3_reduce
I0403 15:17:40.843407 14313 net.cpp:386] inception_4e/relu_3x3_reduce -> inception_4e/3x3_reduce (in-place)
I0403 15:17:40.843606 14313 net.cpp:141] Setting up inception_4e/relu_3x3_reduce
I0403 15:17:40.843632 14313 net.cpp:148] Top shape: 24 160 14 14 (752640)
I0403 15:17:40.843648 14313 net.cpp:156] Memory required for data: 1224087072
I0403 15:17:40.843663 14313 layer_factory.hpp:77] Creating layer inception_4e/3x3
I0403 15:17:40.843685 14313 net.cpp:91] Creating Layer inception_4e/3x3
I0403 15:17:40.843704 14313 net.cpp:425] inception_4e/3x3 <- inception_4e/3x3_reduce
I0403 15:17:40.843726 14313 net.cpp:399] inception_4e/3x3 -> inception_4e/3x3
I0403 15:17:40.849239 14313 net.cpp:141] Setting up inception_4e/3x3
I0403 15:17:40.849283 14313 net.cpp:148] Top shape: 24 320 14 14 (1505280)
I0403 15:17:40.849300 14313 net.cpp:156] Memory required for data: 1230108192
I0403 15:17:40.849319 14313 layer_factory.hpp:77] Creating layer inception_4e/relu_3x3
I0403 15:17:40.849337 14313 net.cpp:91] Creating Layer inception_4e/relu_3x3
I0403 15:17:40.849357 14313 net.cpp:425] inception_4e/relu_3x3 <- inception_4e/3x3
I0403 15:17:40.849375 14313 net.cpp:386] inception_4e/relu_3x3 -> inception_4e/3x3 (in-place)
I0403 15:17:40.849689 14313 net.cpp:141] Setting up inception_4e/relu_3x3
I0403 15:17:40.849715 14313 net.cpp:148] Top shape: 24 320 14 14 (1505280)
I0403 15:17:40.849731 14313 net.cpp:156] Memory required for data: 1236129312
I0403 15:17:40.849746 14313 layer_factory.hpp:77] Creating layer inception_4e/5x5_reduce
I0403 15:17:40.849769 14313 net.cpp:91] Creating Layer inception_4e/5x5_reduce
I0403 15:17:40.849789 14313 net.cpp:425] inception_4e/5x5_reduce <- inception_4d/output_inception_4d/output_0_split_3
I0403 15:17:40.849812 14313 net.cpp:399] inception_4e/5x5_reduce -> inception_4e/5x5_reduce
I0403 15:17:40.850965 14313 net.cpp:141] Setting up inception_4e/5x5_reduce
I0403 15:17:40.850996 14313 net.cpp:148] Top shape: 24 32 14 14 (150528)
I0403 15:17:40.851014 14313 net.cpp:156] Memory required for data: 1236731424
I0403 15:17:40.851033 14313 layer_factory.hpp:77] Creating layer inception_4e/relu_5x5_reduce
I0403 15:17:40.851052 14313 net.cpp:91] Creating Layer inception_4e/relu_5x5_reduce
I0403 15:17:40.851069 14313 net.cpp:425] inception_4e/relu_5x5_reduce <- inception_4e/5x5_reduce
I0403 15:17:40.851092 14313 net.cpp:386] inception_4e/relu_5x5_reduce -> inception_4e/5x5_reduce (in-place)
I0403 15:17:40.851410 14313 net.cpp:141] Setting up inception_4e/relu_5x5_reduce
I0403 15:17:40.851440 14313 net.cpp:148] Top shape: 24 32 14 14 (150528)
I0403 15:17:40.851457 14313 net.cpp:156] Memory required for data: 1237333536
I0403 15:17:40.851478 14313 layer_factory.hpp:77] Creating layer inception_4e/5x5
I0403 15:17:40.851522 14313 net.cpp:91] Creating Layer inception_4e/5x5
I0403 15:17:40.851547 14313 net.cpp:425] inception_4e/5x5 <- inception_4e/5x5_reduce
I0403 15:17:40.851570 14313 net.cpp:399] inception_4e/5x5 -> inception_4e/5x5
I0403 15:17:40.853552 14313 net.cpp:141] Setting up inception_4e/5x5
I0403 15:17:40.853581 14313 net.cpp:148] Top shape: 24 128 14 14 (602112)
I0403 15:17:40.853600 14313 net.cpp:156] Memory required for data: 1239741984
I0403 15:17:40.853620 14313 layer_factory.hpp:77] Creating layer inception_4e/relu_5x5
I0403 15:17:40.853641 14313 net.cpp:91] Creating Layer inception_4e/relu_5x5
I0403 15:17:40.853659 14313 net.cpp:425] inception_4e/relu_5x5 <- inception_4e/5x5
I0403 15:17:40.853677 14313 net.cpp:386] inception_4e/relu_5x5 -> inception_4e/5x5 (in-place)
I0403 15:17:40.853904 14313 net.cpp:141] Setting up inception_4e/relu_5x5
I0403 15:17:40.853934 14313 net.cpp:148] Top shape: 24 128 14 14 (602112)
I0403 15:17:40.853950 14313 net.cpp:156] Memory required for data: 1242150432
I0403 15:17:40.853965 14313 layer_factory.hpp:77] Creating layer inception_4e/pool
I0403 15:17:40.853986 14313 net.cpp:91] Creating Layer inception_4e/pool
I0403 15:17:40.854001 14313 net.cpp:425] inception_4e/pool <- inception_4d/output_inception_4d/output_0_split_4
I0403 15:17:40.854023 14313 net.cpp:399] inception_4e/pool -> inception_4e/pool
I0403 15:17:40.854099 14313 net.cpp:141] Setting up inception_4e/pool
I0403 15:17:40.854125 14313 net.cpp:148] Top shape: 24 528 14 14 (2483712)
I0403 15:17:40.854140 14313 net.cpp:156] Memory required for data: 1252085280
I0403 15:17:40.854156 14313 layer_factory.hpp:77] Creating layer inception_4e/pool_proj
I0403 15:17:40.854181 14313 net.cpp:91] Creating Layer inception_4e/pool_proj
I0403 15:17:40.854199 14313 net.cpp:425] inception_4e/pool_proj <- inception_4e/pool
I0403 15:17:40.854218 14313 net.cpp:399] inception_4e/pool_proj -> inception_4e/pool_proj
I0403 15:17:40.855855 14313 net.cpp:141] Setting up inception_4e/pool_proj
I0403 15:17:40.855885 14313 net.cpp:148] Top shape: 24 128 14 14 (602112)
I0403 15:17:40.855917 14313 net.cpp:156] Memory required for data: 1254493728
I0403 15:17:40.855938 14313 layer_factory.hpp:77] Creating layer inception_4e/relu_pool_proj
I0403 15:17:40.855962 14313 net.cpp:91] Creating Layer inception_4e/relu_pool_proj
I0403 15:17:40.855980 14313 net.cpp:425] inception_4e/relu_pool_proj <- inception_4e/pool_proj
I0403 15:17:40.855999 14313 net.cpp:386] inception_4e/relu_pool_proj -> inception_4e/pool_proj (in-place)
I0403 15:17:40.856309 14313 net.cpp:141] Setting up inception_4e/relu_pool_proj
I0403 15:17:40.856338 14313 net.cpp:148] Top shape: 24 128 14 14 (602112)
I0403 15:17:40.856353 14313 net.cpp:156] Memory required for data: 1256902176
I0403 15:17:40.856369 14313 layer_factory.hpp:77] Creating layer inception_4e/output
I0403 15:17:40.856389 14313 net.cpp:91] Creating Layer inception_4e/output
I0403 15:17:40.856406 14313 net.cpp:425] inception_4e/output <- inception_4e/1x1
I0403 15:17:40.856426 14313 net.cpp:425] inception_4e/output <- inception_4e/3x3
I0403 15:17:40.856442 14313 net.cpp:425] inception_4e/output <- inception_4e/5x5
I0403 15:17:40.856459 14313 net.cpp:425] inception_4e/output <- inception_4e/pool_proj
I0403 15:17:40.856477 14313 net.cpp:399] inception_4e/output -> inception_4e/output
I0403 15:17:40.856531 14313 net.cpp:141] Setting up inception_4e/output
I0403 15:17:40.856561 14313 net.cpp:148] Top shape: 24 832 14 14 (3913728)
I0403 15:17:40.856577 14313 net.cpp:156] Memory required for data: 1272557088
I0403 15:17:40.856592 14313 layer_factory.hpp:77] Creating layer pool4/3x3_s2
I0403 15:17:40.856611 14313 net.cpp:91] Creating Layer pool4/3x3_s2
I0403 15:17:40.856626 14313 net.cpp:425] pool4/3x3_s2 <- inception_4e/output
I0403 15:17:40.856648 14313 net.cpp:399] pool4/3x3_s2 -> pool4/3x3_s2
I0403 15:17:40.856719 14313 net.cpp:141] Setting up pool4/3x3_s2
I0403 15:17:40.856745 14313 net.cpp:148] Top shape: 24 832 7 7 (978432)
I0403 15:17:40.856760 14313 net.cpp:156] Memory required for data: 1276470816
I0403 15:17:40.856775 14313 layer_factory.hpp:77] Creating layer pool4/3x3_s2_pool4/3x3_s2_0_split
I0403 15:17:40.856796 14313 net.cpp:91] Creating Layer pool4/3x3_s2_pool4/3x3_s2_0_split
I0403 15:17:40.856814 14313 net.cpp:425] pool4/3x3_s2_pool4/3x3_s2_0_split <- pool4/3x3_s2
I0403 15:17:40.856834 14313 net.cpp:399] pool4/3x3_s2_pool4/3x3_s2_0_split -> pool4/3x3_s2_pool4/3x3_s2_0_split_0
I0403 15:17:40.856858 14313 net.cpp:399] pool4/3x3_s2_pool4/3x3_s2_0_split -> pool4/3x3_s2_pool4/3x3_s2_0_split_1
I0403 15:17:40.856879 14313 net.cpp:399] pool4/3x3_s2_pool4/3x3_s2_0_split -> pool4/3x3_s2_pool4/3x3_s2_0_split_2
I0403 15:17:40.856900 14313 net.cpp:399] pool4/3x3_s2_pool4/3x3_s2_0_split -> pool4/3x3_s2_pool4/3x3_s2_0_split_3
I0403 15:17:40.856995 14313 net.cpp:141] Setting up pool4/3x3_s2_pool4/3x3_s2_0_split
I0403 15:17:40.857019 14313 net.cpp:148] Top shape: 24 832 7 7 (978432)
I0403 15:17:40.857036 14313 net.cpp:148] Top shape: 24 832 7 7 (978432)
I0403 15:17:40.857053 14313 net.cpp:148] Top shape: 24 832 7 7 (978432)
I0403 15:17:40.857069 14313 net.cpp:148] Top shape: 24 832 7 7 (978432)
I0403 15:17:40.857084 14313 net.cpp:156] Memory required for data: 1292125728
I0403 15:17:40.857100 14313 layer_factory.hpp:77] Creating layer inception_5a/1x1
I0403 15:17:40.857122 14313 net.cpp:91] Creating Layer inception_5a/1x1
I0403 15:17:40.857141 14313 net.cpp:425] inception_5a/1x1 <- pool4/3x3_s2_pool4/3x3_s2_0_split_0
I0403 15:17:40.857164 14313 net.cpp:399] inception_5a/1x1 -> inception_5a/1x1
I0403 15:17:40.860225 14313 net.cpp:141] Setting up inception_5a/1x1
I0403 15:17:40.860260 14313 net.cpp:148] Top shape: 24 256 7 7 (301056)
I0403 15:17:40.860276 14313 net.cpp:156] Memory required for data: 1293329952
I0403 15:17:40.860296 14313 layer_factory.hpp:77] Creating layer inception_5a/relu_1x1
I0403 15:17:40.860316 14313 net.cpp:91] Creating Layer inception_5a/relu_1x1
I0403 15:17:40.860332 14313 net.cpp:425] inception_5a/relu_1x1 <- inception_5a/1x1
I0403 15:17:40.860352 14313 net.cpp:386] inception_5a/relu_1x1 -> inception_5a/1x1 (in-place)
I0403 15:17:40.860702 14313 net.cpp:141] Setting up inception_5a/relu_1x1
I0403 15:17:40.860733 14313 net.cpp:148] Top shape: 24 256 7 7 (301056)
I0403 15:17:40.860750 14313 net.cpp:156] Memory required for data: 1294534176
I0403 15:17:40.860766 14313 layer_factory.hpp:77] Creating layer inception_5a/3x3_reduce
I0403 15:17:40.860790 14313 net.cpp:91] Creating Layer inception_5a/3x3_reduce
I0403 15:17:40.860808 14313 net.cpp:425] inception_5a/3x3_reduce <- pool4/3x3_s2_pool4/3x3_s2_0_split_1
I0403 15:17:40.860829 14313 net.cpp:399] inception_5a/3x3_reduce -> inception_5a/3x3_reduce
I0403 15:17:40.863423 14313 net.cpp:141] Setting up inception_5a/3x3_reduce
I0403 15:17:40.863452 14313 net.cpp:148] Top shape: 24 160 7 7 (188160)
I0403 15:17:40.863468 14313 net.cpp:156] Memory required for data: 1295286816
I0403 15:17:40.863487 14313 layer_factory.hpp:77] Creating layer inception_5a/relu_3x3_reduce
I0403 15:17:40.863507 14313 net.cpp:91] Creating Layer inception_5a/relu_3x3_reduce
I0403 15:17:40.863525 14313 net.cpp:425] inception_5a/relu_3x3_reduce <- inception_5a/3x3_reduce
I0403 15:17:40.863548 14313 net.cpp:386] inception_5a/relu_3x3_reduce -> inception_5a/3x3_reduce (in-place)
I0403 15:17:40.863744 14313 net.cpp:141] Setting up inception_5a/relu_3x3_reduce
I0403 15:17:40.863770 14313 net.cpp:148] Top shape: 24 160 7 7 (188160)
I0403 15:17:40.863788 14313 net.cpp:156] Memory required for data: 1296039456
I0403 15:17:40.863803 14313 layer_factory.hpp:77] Creating layer inception_5a/3x3
I0403 15:17:40.863823 14313 net.cpp:91] Creating Layer inception_5a/3x3
I0403 15:17:40.863840 14313 net.cpp:425] inception_5a/3x3 <- inception_5a/3x3_reduce
I0403 15:17:40.863863 14313 net.cpp:399] inception_5a/3x3 -> inception_5a/3x3
I0403 15:17:40.869103 14313 net.cpp:141] Setting up inception_5a/3x3
I0403 15:17:40.869134 14313 net.cpp:148] Top shape: 24 320 7 7 (376320)
I0403 15:17:40.869150 14313 net.cpp:156] Memory required for data: 1297544736
I0403 15:17:40.869169 14313 layer_factory.hpp:77] Creating layer inception_5a/relu_3x3
I0403 15:17:40.869189 14313 net.cpp:91] Creating Layer inception_5a/relu_3x3
I0403 15:17:40.869207 14313 net.cpp:425] inception_5a/relu_3x3 <- inception_5a/3x3
I0403 15:17:40.869225 14313 net.cpp:386] inception_5a/relu_3x3 -> inception_5a/3x3 (in-place)
I0403 15:17:40.869534 14313 net.cpp:141] Setting up inception_5a/relu_3x3
I0403 15:17:40.869565 14313 net.cpp:148] Top shape: 24 320 7 7 (376320)
I0403 15:17:40.869580 14313 net.cpp:156] Memory required for data: 1299050016
I0403 15:17:40.869595 14313 layer_factory.hpp:77] Creating layer inception_5a/5x5_reduce
I0403 15:17:40.869619 14313 net.cpp:91] Creating Layer inception_5a/5x5_reduce
I0403 15:17:40.869637 14313 net.cpp:425] inception_5a/5x5_reduce <- pool4/3x3_s2_pool4/3x3_s2_0_split_2
I0403 15:17:40.869657 14313 net.cpp:399] inception_5a/5x5_reduce -> inception_5a/5x5_reduce
I0403 15:17:40.870837 14313 net.cpp:141] Setting up inception_5a/5x5_reduce
I0403 15:17:40.870868 14313 net.cpp:148] Top shape: 24 32 7 7 (37632)
I0403 15:17:40.870884 14313 net.cpp:156] Memory required for data: 1299200544
I0403 15:17:40.870903 14313 layer_factory.hpp:77] Creating layer inception_5a/relu_5x5_reduce
I0403 15:17:40.870921 14313 net.cpp:91] Creating Layer inception_5a/relu_5x5_reduce
I0403 15:17:40.870937 14313 net.cpp:425] inception_5a/relu_5x5_reduce <- inception_5a/5x5_reduce
I0403 15:17:40.870954 14313 net.cpp:386] inception_5a/relu_5x5_reduce -> inception_5a/5x5_reduce (in-place)
I0403 15:17:40.871254 14313 net.cpp:141] Setting up inception_5a/relu_5x5_reduce
I0403 15:17:40.871282 14313 net.cpp:148] Top shape: 24 32 7 7 (37632)
I0403 15:17:40.871299 14313 net.cpp:156] Memory required for data: 1299351072
I0403 15:17:40.871315 14313 layer_factory.hpp:77] Creating layer inception_5a/5x5
I0403 15:17:40.871336 14313 net.cpp:91] Creating Layer inception_5a/5x5
I0403 15:17:40.871354 14313 net.cpp:425] inception_5a/5x5 <- inception_5a/5x5_reduce
I0403 15:17:40.871372 14313 net.cpp:399] inception_5a/5x5 -> inception_5a/5x5
I0403 15:17:40.873111 14313 net.cpp:141] Setting up inception_5a/5x5
I0403 15:17:40.873152 14313 net.cpp:148] Top shape: 24 128 7 7 (150528)
I0403 15:17:40.873167 14313 net.cpp:156] Memory required for data: 1299953184
I0403 15:17:40.873185 14313 layer_factory.hpp:77] Creating layer inception_5a/relu_5x5
I0403 15:17:40.873205 14313 net.cpp:91] Creating Layer inception_5a/relu_5x5
I0403 15:17:40.873222 14313 net.cpp:425] inception_5a/relu_5x5 <- inception_5a/5x5
I0403 15:17:40.873240 14313 net.cpp:386] inception_5a/relu_5x5 -> inception_5a/5x5 (in-place)
I0403 15:17:40.873433 14313 net.cpp:141] Setting up inception_5a/relu_5x5
I0403 15:17:40.873459 14313 net.cpp:148] Top shape: 24 128 7 7 (150528)
I0403 15:17:40.873474 14313 net.cpp:156] Memory required for data: 1300555296
I0403 15:17:40.873488 14313 layer_factory.hpp:77] Creating layer inception_5a/pool
I0403 15:17:40.873505 14313 net.cpp:91] Creating Layer inception_5a/pool
I0403 15:17:40.873522 14313 net.cpp:425] inception_5a/pool <- pool4/3x3_s2_pool4/3x3_s2_0_split_3
I0403 15:17:40.873545 14313 net.cpp:399] inception_5a/pool -> inception_5a/pool
I0403 15:17:40.873618 14313 net.cpp:141] Setting up inception_5a/pool
I0403 15:17:40.873641 14313 net.cpp:148] Top shape: 24 832 7 7 (978432)
I0403 15:17:40.873656 14313 net.cpp:156] Memory required for data: 1304469024
I0403 15:17:40.873670 14313 layer_factory.hpp:77] Creating layer inception_5a/pool_proj
I0403 15:17:40.873693 14313 net.cpp:91] Creating Layer inception_5a/pool_proj
I0403 15:17:40.873710 14313 net.cpp:425] inception_5a/pool_proj <- inception_5a/pool
I0403 15:17:40.873729 14313 net.cpp:399] inception_5a/pool_proj -> inception_5a/pool_proj
I0403 15:17:40.876066 14313 net.cpp:141] Setting up inception_5a/pool_proj
I0403 15:17:40.876096 14313 net.cpp:148] Top shape: 24 128 7 7 (150528)
I0403 15:17:40.876111 14313 net.cpp:156] Memory required for data: 1305071136
I0403 15:17:40.876128 14313 layer_factory.hpp:77] Creating layer inception_5a/relu_pool_proj
I0403 15:17:40.876148 14313 net.cpp:91] Creating Layer inception_5a/relu_pool_proj
I0403 15:17:40.876165 14313 net.cpp:425] inception_5a/relu_pool_proj <- inception_5a/pool_proj
I0403 15:17:40.876183 14313 net.cpp:386] inception_5a/relu_pool_proj -> inception_5a/pool_proj (in-place)
I0403 15:17:40.876471 14313 net.cpp:141] Setting up inception_5a/relu_pool_proj
I0403 15:17:40.876497 14313 net.cpp:148] Top shape: 24 128 7 7 (150528)
I0403 15:17:40.876512 14313 net.cpp:156] Memory required for data: 1305673248
I0403 15:17:40.876525 14313 layer_factory.hpp:77] Creating layer inception_5a/output
I0403 15:17:40.876549 14313 net.cpp:91] Creating Layer inception_5a/output
I0403 15:17:40.876565 14313 net.cpp:425] inception_5a/output <- inception_5a/1x1
I0403 15:17:40.876581 14313 net.cpp:425] inception_5a/output <- inception_5a/3x3
I0403 15:17:40.876597 14313 net.cpp:425] inception_5a/output <- inception_5a/5x5
I0403 15:17:40.876613 14313 net.cpp:425] inception_5a/output <- inception_5a/pool_proj
I0403 15:17:40.876631 14313 net.cpp:399] inception_5a/output -> inception_5a/output
I0403 15:17:40.876680 14313 net.cpp:141] Setting up inception_5a/output
I0403 15:17:40.876703 14313 net.cpp:148] Top shape: 24 832 7 7 (978432)
I0403 15:17:40.876718 14313 net.cpp:156] Memory required for data: 1309586976
I0403 15:17:40.876732 14313 layer_factory.hpp:77] Creating layer inception_5a/output_inception_5a/output_0_split
I0403 15:17:40.876749 14313 net.cpp:91] Creating Layer inception_5a/output_inception_5a/output_0_split
I0403 15:17:40.876763 14313 net.cpp:425] inception_5a/output_inception_5a/output_0_split <- inception_5a/output
I0403 15:17:40.876783 14313 net.cpp:399] inception_5a/output_inception_5a/output_0_split -> inception_5a/output_inception_5a/output_0_split_0
I0403 15:17:40.876803 14313 net.cpp:399] inception_5a/output_inception_5a/output_0_split -> inception_5a/output_inception_5a/output_0_split_1
I0403 15:17:40.876823 14313 net.cpp:399] inception_5a/output_inception_5a/output_0_split -> inception_5a/output_inception_5a/output_0_split_2
I0403 15:17:40.876843 14313 net.cpp:399] inception_5a/output_inception_5a/output_0_split -> inception_5a/output_inception_5a/output_0_split_3
I0403 15:17:40.876951 14313 net.cpp:141] Setting up inception_5a/output_inception_5a/output_0_split
I0403 15:17:40.876977 14313 net.cpp:148] Top shape: 24 832 7 7 (978432)
I0403 15:17:40.876994 14313 net.cpp:148] Top shape: 24 832 7 7 (978432)
I0403 15:17:40.877008 14313 net.cpp:148] Top shape: 24 832 7 7 (978432)
I0403 15:17:40.877023 14313 net.cpp:148] Top shape: 24 832 7 7 (978432)
I0403 15:17:40.877038 14313 net.cpp:156] Memory required for data: 1325241888
I0403 15:17:40.877050 14313 layer_factory.hpp:77] Creating layer inception_5b/1x1
I0403 15:17:40.877073 14313 net.cpp:91] Creating Layer inception_5b/1x1
I0403 15:17:40.877089 14313 net.cpp:425] inception_5b/1x1 <- inception_5a/output_inception_5a/output_0_split_0
I0403 15:17:40.877109 14313 net.cpp:399] inception_5b/1x1 -> inception_5b/1x1
I0403 15:17:40.880806 14313 net.cpp:141] Setting up inception_5b/1x1
I0403 15:17:40.880834 14313 net.cpp:148] Top shape: 24 384 7 7 (451584)
I0403 15:17:40.880849 14313 net.cpp:156] Memory required for data: 1327048224
I0403 15:17:40.880867 14313 layer_factory.hpp:77] Creating layer inception_5b/relu_1x1
I0403 15:17:40.880887 14313 net.cpp:91] Creating Layer inception_5b/relu_1x1
I0403 15:17:40.880903 14313 net.cpp:425] inception_5b/relu_1x1 <- inception_5b/1x1
I0403 15:17:40.880920 14313 net.cpp:386] inception_5b/relu_1x1 -> inception_5b/1x1 (in-place)
I0403 15:17:40.881218 14313 net.cpp:141] Setting up inception_5b/relu_1x1
I0403 15:17:40.881243 14313 net.cpp:148] Top shape: 24 384 7 7 (451584)
I0403 15:17:40.881258 14313 net.cpp:156] Memory required for data: 1328854560
I0403 15:17:40.881273 14313 layer_factory.hpp:77] Creating layer inception_5b/3x3_reduce
I0403 15:17:40.881294 14313 net.cpp:91] Creating Layer inception_5b/3x3_reduce
I0403 15:17:40.881311 14313 net.cpp:425] inception_5b/3x3_reduce <- inception_5a/output_inception_5a/output_0_split_1
I0403 15:17:40.881333 14313 net.cpp:399] inception_5b/3x3_reduce -> inception_5b/3x3_reduce
I0403 15:17:40.883939 14313 net.cpp:141] Setting up inception_5b/3x3_reduce
I0403 15:17:40.883966 14313 net.cpp:148] Top shape: 24 192 7 7 (225792)
I0403 15:17:40.883982 14313 net.cpp:156] Memory required for data: 1329757728
I0403 15:17:40.883999 14313 layer_factory.hpp:77] Creating layer inception_5b/relu_3x3_reduce
I0403 15:17:40.884019 14313 net.cpp:91] Creating Layer inception_5b/relu_3x3_reduce
I0403 15:17:40.884037 14313 net.cpp:425] inception_5b/relu_3x3_reduce <- inception_5b/3x3_reduce
I0403 15:17:40.884053 14313 net.cpp:386] inception_5b/relu_3x3_reduce -> inception_5b/3x3_reduce (in-place)
I0403 15:17:40.884243 14313 net.cpp:141] Setting up inception_5b/relu_3x3_reduce
I0403 15:17:40.884268 14313 net.cpp:148] Top shape: 24 192 7 7 (225792)
I0403 15:17:40.884281 14313 net.cpp:156] Memory required for data: 1330660896
I0403 15:17:40.884299 14313 layer_factory.hpp:77] Creating layer inception_5b/3x3
I0403 15:17:40.884320 14313 net.cpp:91] Creating Layer inception_5b/3x3
I0403 15:17:40.884337 14313 net.cpp:425] inception_5b/3x3 <- inception_5b/3x3_reduce
I0403 15:17:40.884356 14313 net.cpp:399] inception_5b/3x3 -> inception_5b/3x3
I0403 15:17:40.890903 14313 net.cpp:141] Setting up inception_5b/3x3
I0403 15:17:40.890931 14313 net.cpp:148] Top shape: 24 384 7 7 (451584)
I0403 15:17:40.890946 14313 net.cpp:156] Memory required for data: 1332467232
I0403 15:17:40.890964 14313 layer_factory.hpp:77] Creating layer inception_5b/relu_3x3
I0403 15:17:40.890985 14313 net.cpp:91] Creating Layer inception_5b/relu_3x3
I0403 15:17:40.891001 14313 net.cpp:425] inception_5b/relu_3x3 <- inception_5b/3x3
I0403 15:17:40.891017 14313 net.cpp:386] inception_5b/relu_3x3 -> inception_5b/3x3 (in-place)
I0403 15:17:40.891309 14313 net.cpp:141] Setting up inception_5b/relu_3x3
I0403 15:17:40.891335 14313 net.cpp:148] Top shape: 24 384 7 7 (451584)
I0403 15:17:40.891350 14313 net.cpp:156] Memory required for data: 1334273568
I0403 15:17:40.891363 14313 layer_factory.hpp:77] Creating layer inception_5b/5x5_reduce
I0403 15:17:40.891401 14313 net.cpp:91] Creating Layer inception_5b/5x5_reduce
I0403 15:17:40.891418 14313 net.cpp:425] inception_5b/5x5_reduce <- inception_5a/output_inception_5a/output_0_split_2
I0403 15:17:40.891439 14313 net.cpp:399] inception_5b/5x5_reduce -> inception_5b/5x5_reduce
I0403 15:17:40.892694 14313 net.cpp:141] Setting up inception_5b/5x5_reduce
I0403 15:17:40.892721 14313 net.cpp:148] Top shape: 24 48 7 7 (56448)
I0403 15:17:40.892736 14313 net.cpp:156] Memory required for data: 1334499360
I0403 15:17:40.892753 14313 layer_factory.hpp:77] Creating layer inception_5b/relu_5x5_reduce
I0403 15:17:40.892772 14313 net.cpp:91] Creating Layer inception_5b/relu_5x5_reduce
I0403 15:17:40.892789 14313 net.cpp:425] inception_5b/relu_5x5_reduce <- inception_5b/5x5_reduce
I0403 15:17:40.892805 14313 net.cpp:386] inception_5b/relu_5x5_reduce -> inception_5b/5x5_reduce (in-place)
I0403 15:17:40.893172 14313 net.cpp:141] Setting up inception_5b/relu_5x5_reduce
I0403 15:17:40.893198 14313 net.cpp:148] Top shape: 24 48 7 7 (56448)
I0403 15:17:40.893213 14313 net.cpp:156] Memory required for data: 1334725152
I0403 15:17:40.893226 14313 layer_factory.hpp:77] Creating layer inception_5b/5x5
I0403 15:17:40.893245 14313 net.cpp:91] Creating Layer inception_5b/5x5
I0403 15:17:40.893262 14313 net.cpp:425] inception_5b/5x5 <- inception_5b/5x5_reduce
I0403 15:17:40.893280 14313 net.cpp:399] inception_5b/5x5 -> inception_5b/5x5
I0403 15:17:40.895328 14313 net.cpp:141] Setting up inception_5b/5x5
I0403 15:17:40.895359 14313 net.cpp:148] Top shape: 24 128 7 7 (150528)
I0403 15:17:40.895373 14313 net.cpp:156] Memory required for data: 1335327264
I0403 15:17:40.895392 14313 layer_factory.hpp:77] Creating layer inception_5b/relu_5x5
I0403 15:17:40.895409 14313 net.cpp:91] Creating Layer inception_5b/relu_5x5
I0403 15:17:40.895424 14313 net.cpp:425] inception_5b/relu_5x5 <- inception_5b/5x5
I0403 15:17:40.895442 14313 net.cpp:386] inception_5b/relu_5x5 -> inception_5b/5x5 (in-place)
I0403 15:17:40.895639 14313 net.cpp:141] Setting up inception_5b/relu_5x5
I0403 15:17:40.895665 14313 net.cpp:148] Top shape: 24 128 7 7 (150528)
I0403 15:17:40.895680 14313 net.cpp:156] Memory required for data: 1335929376
I0403 15:17:40.895694 14313 layer_factory.hpp:77] Creating layer inception_5b/pool
I0403 15:17:40.895711 14313 net.cpp:91] Creating Layer inception_5b/pool
I0403 15:17:40.895727 14313 net.cpp:425] inception_5b/pool <- inception_5a/output_inception_5a/output_0_split_3
I0403 15:17:40.895747 14313 net.cpp:399] inception_5b/pool -> inception_5b/pool
I0403 15:17:40.895817 14313 net.cpp:141] Setting up inception_5b/pool
I0403 15:17:40.895846 14313 net.cpp:148] Top shape: 24 832 7 7 (978432)
I0403 15:17:40.895860 14313 net.cpp:156] Memory required for data: 1339843104
I0403 15:17:40.895874 14313 layer_factory.hpp:77] Creating layer inception_5b/pool_proj
I0403 15:17:40.895895 14313 net.cpp:91] Creating Layer inception_5b/pool_proj
I0403 15:17:40.895912 14313 net.cpp:425] inception_5b/pool_proj <- inception_5b/pool
I0403 15:17:40.895931 14313 net.cpp:399] inception_5b/pool_proj -> inception_5b/pool_proj
I0403 15:17:40.898186 14313 net.cpp:141] Setting up inception_5b/pool_proj
I0403 15:17:40.898214 14313 net.cpp:148] Top shape: 24 128 7 7 (150528)
I0403 15:17:40.898229 14313 net.cpp:156] Memory required for data: 1340445216
I0403 15:17:40.898247 14313 layer_factory.hpp:77] Creating layer inception_5b/relu_pool_proj
I0403 15:17:40.898267 14313 net.cpp:91] Creating Layer inception_5b/relu_pool_proj
I0403 15:17:40.898283 14313 net.cpp:425] inception_5b/relu_pool_proj <- inception_5b/pool_proj
I0403 15:17:40.898301 14313 net.cpp:386] inception_5b/relu_pool_proj -> inception_5b/pool_proj (in-place)
I0403 15:17:40.898598 14313 net.cpp:141] Setting up inception_5b/relu_pool_proj
I0403 15:17:40.898624 14313 net.cpp:148] Top shape: 24 128 7 7 (150528)
I0403 15:17:40.898638 14313 net.cpp:156] Memory required for data: 1341047328
I0403 15:17:40.898653 14313 layer_factory.hpp:77] Creating layer inception_5b/output
I0403 15:17:40.898671 14313 net.cpp:91] Creating Layer inception_5b/output
I0403 15:17:40.898700 14313 net.cpp:425] inception_5b/output <- inception_5b/1x1
I0403 15:17:40.898717 14313 net.cpp:425] inception_5b/output <- inception_5b/3x3
I0403 15:17:40.898733 14313 net.cpp:425] inception_5b/output <- inception_5b/5x5
I0403 15:17:40.898749 14313 net.cpp:425] inception_5b/output <- inception_5b/pool_proj
I0403 15:17:40.898766 14313 net.cpp:399] inception_5b/output -> inception_5b/output
I0403 15:17:40.898820 14313 net.cpp:141] Setting up inception_5b/output
I0403 15:17:40.898844 14313 net.cpp:148] Top shape: 24 1024 7 7 (1204224)
I0403 15:17:40.898857 14313 net.cpp:156] Memory required for data: 1345864224
I0403 15:17:40.898871 14313 layer_factory.hpp:77] Creating layer pool5/7x7_s1
I0403 15:17:40.898887 14313 net.cpp:91] Creating Layer pool5/7x7_s1
I0403 15:17:40.898903 14313 net.cpp:425] pool5/7x7_s1 <- inception_5b/output
I0403 15:17:40.898922 14313 net.cpp:399] pool5/7x7_s1 -> pool5/7x7_s1
I0403 15:17:40.899134 14313 net.cpp:141] Setting up pool5/7x7_s1
I0403 15:17:40.899159 14313 net.cpp:148] Top shape: 24 1024 1 1 (24576)
I0403 15:17:40.899173 14313 net.cpp:156] Memory required for data: 1345962528
I0403 15:17:40.899188 14313 layer_factory.hpp:77] Creating layer pool5/drop_7x7_s1
I0403 15:17:40.899206 14313 net.cpp:91] Creating Layer pool5/drop_7x7_s1
I0403 15:17:40.899222 14313 net.cpp:425] pool5/drop_7x7_s1 <- pool5/7x7_s1
I0403 15:17:40.899240 14313 net.cpp:386] pool5/drop_7x7_s1 -> pool5/7x7_s1 (in-place)
I0403 15:17:40.899291 14313 net.cpp:141] Setting up pool5/drop_7x7_s1
I0403 15:17:40.899314 14313 net.cpp:148] Top shape: 24 1024 1 1 (24576)
I0403 15:17:40.899328 14313 net.cpp:156] Memory required for data: 1346060832
I0403 15:17:40.899343 14313 layer_factory.hpp:77] Creating layer loss3/classifier_plantvillage
I0403 15:17:40.899363 14313 net.cpp:91] Creating Layer loss3/classifier_plantvillage
I0403 15:17:40.899379 14313 net.cpp:425] loss3/classifier_plantvillage <- pool5/7x7_s1
I0403 15:17:40.899397 14313 net.cpp:399] loss3/classifier_plantvillage -> loss3/classifier_plantvillage
I0403 15:17:40.899844 14313 net.cpp:141] Setting up loss3/classifier_plantvillage
I0403 15:17:40.899869 14313 net.cpp:148] Top shape: 24 38 (912)
I0403 15:17:40.899883 14313 net.cpp:156] Memory required for data: 1346064480
I0403 15:17:40.899902 14313 layer_factory.hpp:77] Creating layer loss3/classifier_plantvillage_loss3/classifier_plantvillage_0_split
I0403 15:17:40.899920 14313 net.cpp:91] Creating Layer loss3/classifier_plantvillage_loss3/classifier_plantvillage_0_split
I0403 15:17:40.899935 14313 net.cpp:425] loss3/classifier_plantvillage_loss3/classifier_plantvillage_0_split <- loss3/classifier_plantvillage
I0403 15:17:40.899956 14313 net.cpp:399] loss3/classifier_plantvillage_loss3/classifier_plantvillage_0_split -> loss3/classifier_plantvillage_loss3/classifier_plantvillage_0_split_0
I0403 15:17:40.899978 14313 net.cpp:399] loss3/classifier_plantvillage_loss3/classifier_plantvillage_0_split -> loss3/classifier_plantvillage_loss3/classifier_plantvillage_0_split_1
I0403 15:17:40.899998 14313 net.cpp:399] loss3/classifier_plantvillage_loss3/classifier_plantvillage_0_split -> loss3/classifier_plantvillage_loss3/classifier_plantvillage_0_split_2
I0403 15:17:40.900018 14313 net.cpp:399] loss3/classifier_plantvillage_loss3/classifier_plantvillage_0_split -> loss3/classifier_plantvillage_loss3/classifier_plantvillage_0_split_3
I0403 15:17:40.900120 14313 net.cpp:141] Setting up loss3/classifier_plantvillage_loss3/classifier_plantvillage_0_split
I0403 15:17:40.900142 14313 net.cpp:148] Top shape: 24 38 (912)
I0403 15:17:40.900158 14313 net.cpp:148] Top shape: 24 38 (912)
I0403 15:17:40.900174 14313 net.cpp:148] Top shape: 24 38 (912)
I0403 15:17:40.900188 14313 net.cpp:148] Top shape: 24 38 (912)
I0403 15:17:40.900202 14313 net.cpp:156] Memory required for data: 1346079072
I0403 15:17:40.900216 14313 layer_factory.hpp:77] Creating layer loss1/loss
I0403 15:17:40.900238 14313 net.cpp:91] Creating Layer loss1/loss
I0403 15:17:40.900254 14313 net.cpp:425] loss1/loss <- loss1/classifier_plantvillage_loss1/classifier_plantvillage_0_split_0
I0403 15:17:40.900285 14313 net.cpp:425] loss1/loss <- label_data_1_split_0
…
