…
I0403 15:45:38.822666 16026 net.cpp:313] The NetState phase (1) differed from the phase (0) specified by a rule in layer data
I0403 15:45:38.823797 16026 net.cpp:49] Initializing net from parameters: 
state {
  phase: TEST
}
layer {
  name: "data"
  type: "Data"
  top: "data"
  top: "label"
  include {
    phase: TEST
  }
  transform_param {
    mirror: false
    crop_size: 224
    mean_file: "/home/mohanty/data/final_dataset/lmdb/color-50-50/mean.binaryproto"
  }
  data_param {
    source: "/home/mohanty/data/final_dataset/lmdb/color-50-50/test_db"
    batch_size: 24
    backend: LMDB
  }
}
layer {
  name: "conv1/7x7_s2"
  type: "Convolution"
  bottom: "data"
  top: "conv1/7x7_s2"
  param {
    lr_mult: 1
    decay_mult: 1
  }
  param {
    lr_mult: 2
    decay_mult: 0
  }
  convolution_param {
    num_output: 64
    pad: 3
    kernel_size: 7
    stride: 2
    weight_filler {
      type: "xavier"
      std: 0.1
    }
    bias_filler {
      type: "constant"
      value: 0.2
    }
  }
}
layer {
  name: "conv1/relu_7x7"
  type: "ReLU"
  bottom: "conv1/7x7_s2"
  top: "conv1/7x7_s2"
}
layer {
  name: "pool1/3x3_s2"
  type: "Pooling"
  bottom: "conv1/7x7_s2"
  top: "pool1/3x3_s2"
  pooling_param {
    pool: MAX
    kernel_size: 3
    stride: 2
  }
}
layer {
  name: "pool1/norm1"
  type: "LRN"
  bottom: "pool1/3x3_s2"
  top: "pool1/norm1"
  lrn_param {
    local_size: 5
    alpha: 0.0001
    beta: 0.75
  }
}
layer {
  name: "conv2/3x3_reduce"
  type: "Convolution"
  bottom: "pool1/norm1"
  top: "conv2/3x3_reduce"
  param {
    lr_mult: 1
    decay_mult: 1
  }
  param {
    lr_mult: 2
    decay_mult: 0
  }
  convolution_param {
    num_output: 64
    kernel_size: 1
    weight_filler {
      type: "xavier"
      std: 0.1
    }
    bias_filler {
      type: "constant"
      value: 0.2
    }
  }
}
layer {
  name: "conv2/relu_3x3_reduce"
  type: "ReLU"
  bottom: "conv2/3x3_reduce"
  top: "conv2/3x3_reduce"
}
layer {
  name: "conv2/3x3"
  type: "Convolution"
  bottom: "conv2/3x3_reduce"
  top: "conv2/3x3"
  param {
    lr_mult: 1
    decay_mult: 1
  }
  param {
    lr_mult: 2
    decay_mult: 0
  }
  convolution_param {
    num_output: 192
    pad: 1
    kernel_size: 3
    weight_filler {
      type: "xavier"
      std: 0.03
    }
    bias_filler {
      type: "constant"
      value: 0.2
    }
  }
}
layer {
  name: "conv2/relu_3x3"
  type: "ReLU"
  bottom: "conv2/3x3"
  top: "conv2/3x3"
}
layer {
  name: "conv2/norm2"
  type: "LRN"
  bottom: "conv2/3x3"
  top: "conv2/norm2"
  lrn_param {
    local_size: 5
    alpha: 0.0001
    beta: 0.75
  }
}
layer {
  name: "pool2/3x3_s2"
  type: "Pooling"
  bottom: "conv2/norm2"
  top: "pool2/3x3_s2"
  pooling_param {
    pool: MAX
    kernel_size: 3
    stride: 2
  }
}
layer {
  name: "inception_3a/1x1"
  type: "Convolution"
  bottom: "pool2/3x3_s2"
  top: "inception_3a/1x1"
  param {
    lr_mult: 1
    decay_mult: 1
  }
  param {
    lr_mult: 2
    decay_mult: 0
  }
  convolution_param {
    num_output: 64
    kernel_size: 1
    weight_filler {
      type: "xavier"
      std: 0.03
    }
    bias_filler {
      type: "constant"
      value: 0.2
    }
  }
}
layer {
  name: "inception_3a/relu_1x1"
  type: "ReLU"
  bottom: "inception_3a/1x1"
  top: "inception_3a/1x1"
}
layer {
  name: "inception_3a/3x3_reduce"
  type: "Convolution"
  bottom: "pool2/3x3_s2"
  top: "inception_3a/3x3_reduce"
  param {
    lr_mult: 1
    decay_mult: 1
  }
  param {
    lr_mult: 2
    decay_mult: 0
  }
  convolution_param {
    num_output: 96
    kernel_size: 1
    weight_filler {
      type: "xavier"
      std: 0.09
    }
    bias_filler {
      type: "constant"
      value: 0.2
    }
  }
}
layer {
  name: "inception_3a/relu_3x3_reduce"
  type: "ReLU"
  bottom: "inception_3a/3x3_reduce"
  top: "inception_3a/3x3_reduce"
}
layer {
  name: "inception_3a/3x3"
  type: "Convolution"
  bottom: "inception_3a/3x3_reduce"
  top: "inception_3a/3x3"
  param {
    lr_mult: 1
    decay_mult: 1
  }
  param {
    lr_mult: 2
    decay_mult: 0
  }
  convolution_param {
    num_output: 128
    pad: 1
    kernel_size: 3
    weight_filler {
      type: "xavier"
      std: 0.03
    }
    bias_filler {
      type: "constant"
      value: 0.2
    }
  }
}
layer {
  name: "inception_3a/relu_3x3"
  type: "ReLU"
  bottom: "inception_3a/3x3"
  top: "inception_3a/3x3"
}
layer {
  name: "inception_3a/5x5_reduce"
  type: "Convolution"
  bottom: "pool2/3x3_s2"
  top: "inception_3a/5x5_reduce"
  param {
    lr_mult: 1
    decay_mult: 1
  }
  param {
    lr_mult: 2
    decay_mult: 0
  }
  convolution_param {
    num_output: 16
    kernel_size: 1
    weight_filler {
      type: "xavier"
      std: 0.2
    }
    bias_filler {
      type: "constant"
      value: 0.2
    }
  }
}
layer {
  name: "inception_3a/relu_5x5_reduce"
  type: "ReLU"
  bottom: "inception_3a/5x5_reduce"
  top: "inception_3a/5x5_reduce"
}
layer {
  name: "inception_3a/5x5"
  type: "Convolution"
  bottom: "inception_3a/5x5_reduce"
  top: "inception_3a/5x5"
  param {
    lr_mult: 1
    decay_mult: 1
  }
  param {
    lr_mult: 2
    decay_mult: 0
  }
  convolution_param {
    num_output: 32
    pad: 2
    kernel_size: 5
    weight_filler {
      type: "xavier"
      std: 0.03
    }
    bias_filler {
      type: "constant"
      value: 0.2
    }
  }
}
layer {
  name: "inception_3a/relu_5x5"
  type: "ReLU"
  bottom: "inception_3a/5x5"
  top: "inception_3a/5x5"
}
layer {
  name: "inception_3a/pool"
  type: "Pooling"
  bottom: "pool2/3x3_s2"
  top: "inception_3a/pool"
  pooling_param {
    pool: MAX
    kernel_size: 3
    stride: 1
    pad: 1
  }
}
layer {
  name: "inception_3a/pool_proj"
  type: "Convolution"
  bottom: "inception_3a/pool"
  top: "inception_3a/pool_proj"
  param {
    lr_mult: 1
    decay_mult: 1
  }
  param {
    lr_mult: 2
    decay_mult: 0
  }
  convolution_param {
    num_output: 32
    kernel_size: 1
    weight_filler {
      type: "xavier"
      std: 0.1
    }
    bias_filler {
      type: "constant"
      value: 0.2
    }
  }
}
layer {
  name: "inception_3a/relu_pool_proj"
  type: "ReLU"
  bottom: "inception_3a/pool_proj"
  top: "inception_3a/pool_proj"
}
layer {
  name: "inception_3a/output"
  type: "Concat"
  bottom: "inception_3a/1x1"
  bottom: "inception_3a/3x3"
  bottom: "inception_3a/5x5"
  bottom: "inception_3a/pool_proj"
  top: "inception_3a/output"
}
layer {
  name: "inception_3b/1x1"
  type: "Convolution"
  bottom: "inception_3a/output"
  top: "inception_3b/1x1"
  param {
    lr_mult: 1
    decay_mult: 1
  }
  param {
    lr_mult: 2
    decay_mult: 0
  }
  convolution_param {
    num_output: 128
    kernel_size: 1
    weight_filler {
      type: "xavier"
      std: 0.03
    }
    bias_filler {
      type: "constant"
      value: 0.2
    }
  }
}
layer {
  name: "inception_3b/relu_1x1"
  type: "ReLU"
  bottom: "inception_3b/1x1"
  top: "inception_3b/1x1"
}
layer {
  name: "inception_3b/3x3_reduce"
  type: "Convolution"
  bottom: "inception_3a/output"
  top: "inception_3b/3x3_reduce"
  param {
    lr_mult: 1
    decay_mult: 1
  }
  param {
    lr_mult: 2
    decay_mult: 0
  }
  convolution_param {
    num_output: 128
    kernel_size: 1
    weight_filler {
      type: "xavier"
      std: 0.09
    }
    bias_filler {
      type: "constant"
      value: 0.2
    }
  }
}
layer {
  name: "inception_3b/relu_3x3_reduce"
  type: "ReLU"
  bottom: "inception_3b/3x3_reduce"
  top: "inception_3b/3x3_reduce"
}
layer {
  name: "inception_3b/3x3"
  type: "Convolution"
  bottom: "inception_3b/3x3_reduce"
  top: "inception_3b/3x3"
  param {
    lr_mult: 1
    decay_mult: 1
  }
  param {
    lr_mult: 2
    decay_mult: 0
  }
  convolution_param {
    num_output: 192
    pad: 1
    kernel_size: 3
    weight_filler {
      type: "xavier"
      std: 0.03
    }
    bias_filler {
      type: "constant"
      value: 0.2
    }
  }
}
layer {
  name: "inception_3b/relu_3x3"
  type: "ReLU"
  bottom: "inception_3b/3x3"
  top: "inception_3b/3x3"
}
layer {
  name: "inception_3b/5x5_reduce"
  type: "Convolution"
  bottom: "inception_3a/output"
  top: "inception_3b/5x5_reduce"
  param {
    lr_mult: 1
    decay_mult: 1
  }
  param {
    lr_mult: 2
    decay_mult: 0
  }
  convolution_param {
    num_output: 32
    kernel_size: 1
    weight_filler {
      type: "xavier"
      std: 0.2
    }
    bias_filler {
      type: "constant"
      value: 0.2
    }
  }
}
layer {
  name: "inception_3b/relu_5x5_reduce"
  type: "ReLU"
  bottom: "inception_3b/5x5_reduce"
  top: "inception_3b/5x5_reduce"
}
layer {
  name: "inception_3b/5x5"
  type: "Convolution"
  bottom: "inception_3b/5x5_reduce"
  top: "inception_3b/5x5"
  param {
    lr_mult: 1
    decay_mult: 1
  }
  param {
    lr_mult: 2
    decay_mult: 0
  }
  convolution_param {
    num_output: 96
    pad: 2
    kernel_size: 5
    weight_filler {
      type: "xavier"
      std: 0.03
    }
    bias_filler {
      type: "constant"
      value: 0.2
    }
  }
}
layer {
  name: "inception_3b/relu_5x5"
  type: "ReLU"
  bottom: "inception_3b/5x5"
  top: "inception_3b/5x5"
}
layer {
  name: "inception_3b/pool"
  type: "Pooling"
  bottom: "inception_3a/output"
  top: "inception_3b/pool"
  pooling_param {
    pool: MAX
    kernel_size: 3
    stride: 1
    pad: 1
  }
}
layer {
  name: "inception_3b/pool_proj"
  type: "Convolution"
  bottom: "inception_3b/pool"
  top: "inception_3b/pool_proj"
  param {
    lr_mult: 1
    decay_mult: 1
  }
  param {
    lr_mult: 2
    decay_mult: 0
  }
  convolution_param {
    num_output: 64
    kernel_size: 1
    weight_filler {
      type: "xavier"
      std: 0.1
    }
    bias_filler {
      type: "constant"
      value: 0.2
    }
  }
}
layer {
  name: "inception_3b/relu_pool_proj"
  type: "ReLU"
  bottom: "inception_3b/pool_proj"
  top: "inception_3b/pool_proj"
}
layer {
  name: "inception_3b/output"
  type: "Concat"
  bottom: "inception_3b/1x1"
  bottom: "inception_3b/3x3"
  bottom: "inception_3b/5x5"
  bottom: "inception_3b/pool_proj"
  top: "inception_3b/output"
}
layer {
  name: "pool3/3x3_s2"
  type: "Pooling"
  bottom: "inception_3b/output"
  top: "pool3/3x3_s2"
  pooling_param {
    pool: MAX
    kernel_size: 3
    stride: 2
  }
}
layer {
  name: "inception_4a/1x1"
  type: "Convolution"
  bottom: "pool3/3x3_s2"
  top: "inception_4a/1x1"
  param {
    lr_mult: 1
    decay_mult: 1
  }
  param {
    lr_mult: 2
    decay_mult: 0
  }
  convolution_param {
    num_output: 192
    kernel_size: 1
    weight_filler {
      type: "xavier"
      std: 0.03
    }
    bias_filler {
      type: "constant"
      value: 0.2
    }
  }
}
layer {
  name: "inception_4a/relu_1x1"
  type: "ReLU"
  bottom: "inception_4a/1x1"
  top: "inception_4a/1x1"
}
layer {
  name: "inception_4a/3x3_reduce"
  type: "Convolution"
  bottom: "pool3/3x3_s2"
  top: "inception_4a/3x3_reduce"
  param {
    lr_mult: 1
    decay_mult: 1
  }
  param {
    lr_mult: 2
    decay_mult: 0
  }
  convolution_param {
    num_output: 96
    kernel_size: 1
    weight_filler {
      type: "xavier"
      std: 0.09
    }
    bias_filler {
      type: "constant"
      value: 0.2
    }
  }
}
layer {
  name: "inception_4a/relu_3x3_reduce"
  type: "ReLU"
  bottom: "inception_4a/3x3_reduce"
  top: "inception_4a/3x3_reduce"
}
layer {
  name: "inception_4a/3x3"
  type: "Convolution"
  bottom: "inception_4a/3x3_reduce"
  top: "inception_4a/3x3"
  param {
    lr_mult: 1
    decay_mult: 1
  }
  param {
    lr_mult: 2
    decay_mult: 0
  }
  convolution_param {
    num_output: 208
    pad: 1
    kernel_size: 3
    weight_filler {
      type: "xavier"
      std: 0.03
    }
    bias_filler {
      type: "constant"
      value: 0.2
    }
  }
}
layer {
  name: "inception_4a/relu_3x3"
  type: "ReLU"
  bottom: "inception_4a/3x3"
  top: "inception_4a/3x3"
}
layer {
  name: "inception_4a/5x5_reduce"
  type: "Convolution"
  bottom: "pool3/3x3_s2"
  top: "inception_4a/5x5_reduce"
  param {
    lr_mult: 1
    decay_mult: 1
  }
  param {
    lr_mult: 2
    decay_mult: 0
  }
  convolution_param {
    num_output: 16
    kernel_size: 1
    weight_filler {
      type: "xavier"
      std: 0.2
    }
    bias_filler {
      type: "constant"
      value: 0.2
    }
  }
}
layer {
  name: "inception_4a/relu_5x5_reduce"
  type: "ReLU"
  bottom: "inception_4a/5x5_reduce"
  top: "inception_4a/5x5_reduce"
}
layer {
  name: "inception_4a/5x5"
  type: "Convolution"
  bottom: "inception_4a/5x5_reduce"
  top: "inception_4a/5x5"
  param {
    lr_mult: 1
    decay_mult: 1
  }
  param {
    lr_mult: 2
    decay_mult: 0
  }
  convolution_param {
    num_output: 48
    pad: 2
    kernel_size: 5
    weight_filler {
      type: "xavier"
      std: 0.03
    }
    bias_filler {
      type: "constant"
      value: 0.2
    }
  }
}
layer {
  name: "inception_4a/relu_5x5"
  type: "ReLU"
  bottom: "inception_4a/5x5"
  top: "inception_4a/5x5"
}
layer {
  name: "inception_4a/pool"
  type: "Pooling"
  bottom: "pool3/3x3_s2"
  top: "inception_4a/pool"
  pooling_param {
    pool: MAX
    kernel_size: 3
    stride: 1
    pad: 1
  }
}
layer {
  name: "inception_4a/pool_proj"
  type: "Convolution"
  bottom: "inception_4a/pool"
  top: "inception_4a/pool_proj"
  param {
    lr_mult: 1
    decay_mult: 1
  }
  param {
    lr_mult: 2
    decay_mult: 0
  }
  convolution_param {
    num_output: 64
    kernel_size: 1
    weight_filler {
      type: "xavier"
      std: 0.1
    }
    bias_filler {
      type: "constant"
      value: 0.2
    }
  }
}
layer {
  name: "inception_4a/relu_pool_proj"
  type: "ReLU"
  bottom: "inception_4a/pool_proj"
  top: "inception_4a/pool_proj"
}
layer {
  name: "inception_4a/output"
  type: "Concat"
  bottom: "inception_4a/1x1"
  bottom: "inception_4a/3x3"
  bottom: "inception_4a/5x5"
  bottom: "inception_4a/pool_proj"
  top: "inception_4a/output"
}
layer {
  name: "loss1/ave_pool"
  type: "Pooling"
  bottom: "inception_4a/output"
  top: "loss1/ave_pool"
  pooling_param {
    pool: AVE
    kernel_size: 5
    stride: 3
  }
}
layer {
  name: "loss1/conv"
  type: "Convolution"
  bottom: "loss1/ave_pool"
  top: "loss1/conv"
  param {
    lr_mult: 1
    decay_mult: 1
  }
  param {
    lr_mult: 2
    decay_mult: 0
  }
  convolution_param {
    num_output: 128
    kernel_size: 1
    weight_filler {
      type: "xavier"
      std: 0.08
    }
    bias_filler {
      type: "constant"
      value: 0.2
    }
  }
}
layer {
  name: "loss1/relu_conv"
  type: "ReLU"
  bottom: "loss1/conv"
  top: "loss1/conv"
}
layer {
  name: "loss1/fc"
  type: "InnerProduct"
  bottom: "loss1/conv"
  top: "loss1/fc"
  param {
    lr_mult: 1
    decay_mult: 1
  }
  param {
    lr_mult: 2
    decay_mult: 0
  }
  inner_product_param {
    num_output: 1024
    weight_filler {
      type: "xavier"
      std: 0.02
    }
    bias_filler {
      type: "constant"
      value: 0.2
    }
  }
}
layer {
  name: "loss1/relu_fc"
  type: "ReLU"
  bottom: "loss1/fc"
  top: "loss1/fc"
}
layer {
  name: "loss1/drop_fc"
  type: "Dropout"
  bottom: "loss1/fc"
  top: "loss1/fc"
  dropout_param {
    dropout_ratio: 0.7
  }
}
layer {
  name: "loss1/classifier_plantvillage"
  type: "InnerProduct"
  bottom: "loss1/fc"
  top: "loss1/classifier_plantvillage"
  param {
    lr_mult: 1
    decay_mult: 1
  }
  param {
    lr_mult: 2
    decay_mult: 0
  }
  inner_product_param {
    num_output: 38
    weight_filler {
      type: "xavier"
      std: 0.0009765625
    }
    bias_filler {
      type: "constant"
      value: 0
    }
  }
}
layer {
  name: "inception_4b/1x1"
  type: "Convolution"
  bottom: "inception_4a/output"
  top: "inception_4b/1x1"
  param {
    lr_mult: 1
    decay_mult: 1
  }
  param {
    lr_mult: 2
    decay_mult: 0
  }
  convolution_param {
    num_output: 160
    kernel_size: 1
    weight_filler {
      type: "xavier"
      std: 0.03
    }
    bias_filler {
      type: "constant"
      value: 0.2
    }
  }
}
layer {
  name: "inception_4b/relu_1x1"
  type: "ReLU"
  bottom: "inception_4b/1x1"
  top: "inception_4b/1x1"
}
layer {
  name: "inception_4b/3x3_reduce"
  type: "Convolution"
  bottom: "inception_4a/output"
  top: "inception_4b/3x3_reduce"
  param {
    lr_mult: 1
    decay_mult: 1
  }
  param {
    lr_mult: 2
    decay_mult: 0
  }
  convolution_param {
    num_output: 112
    kernel_size: 1
    weight_filler {
      type: "xavier"
      std: 0.09
    }
    bias_filler {
      type: "constant"
      value: 0.2
    }
  }
}
layer {
  name: "inception_4b/relu_3x3_reduce"
  type: "ReLU"
  bottom: "inception_4b/3x3_reduce"
  top: "inception_4b/3x3_reduce"
}
layer {
  name: "inception_4b/3x3"
  type: "Convolution"
  bottom: "inception_4b/3x3_reduce"
  top: "inception_4b/3x3"
  param {
    lr_mult: 1
    decay_mult: 1
  }
  param {
    lr_mult: 2
    decay_mult: 0
  }
  convolution_param {
    num_output: 224
    pad: 1
    kernel_size: 3
    weight_filler {
      type: "xavier"
      std: 0.03
    }
    bias_filler {
      type: "constant"
      value: 0.2
    }
  }
}
layer {
  name: "inception_4b/relu_3x3"
  type: "ReLU"
  bottom: "inception_4b/3x3"
  top: "inception_4b/3x3"
}
layer {
  name: "inception_4b/5x5_reduce"
  type: "Convolution"
  bottom: "inception_4a/output"
  top: "inception_4b/5x5_reduce"
  param {
    lr_mult: 1
    decay_mult: 1
  }
  param {
    lr_mult: 2
    decay_mult: 0
  }
  convolution_param {
    num_output: 24
    kernel_size: 1
    weight_filler {
      type: "xavier"
      std: 0.2
    }
    bias_filler {
      type: "constant"
      value: 0.2
    }
  }
}
layer {
  name: "inception_4b/relu_5x5_reduce"
  type: "ReLU"
  bottom: "inception_4b/5x5_reduce"
  top: "inception_4b/5x5_reduce"
}
layer {
  name: "inception_4b/5x5"
  type: "Convolution"
  bottom: "inception_4b/5x5_reduce"
  top: "inception_4b/5x5"
  param {
    lr_mult: 1
    decay_mult: 1
  }
  param {
    lr_mult: 2
    decay_mult: 0
  }
  convolution_param {
    num_output: 64
    pad: 2
    kernel_size: 5
    weight_filler {
      type: "xavier"
      std: 0.03
    }
    bias_filler {
      type: "constant"
      value: 0.2
    }
  }
}
layer {
  name: "inception_4b/relu_5x5"
  type: "ReLU"
  bottom: "inception_4b/5x5"
  top: "inception_4b/5x5"
}
layer {
  name: "inception_4b/pool"
  type: "Pooling"
  bottom: "inception_4a/output"
  top: "inception_4b/pool"
  pooling_param {
    pool: MAX
    kernel_size: 3
    stride: 1
    pad: 1
  }
}
layer {
  name: "inception_4b/pool_proj"
  type: "Convolution"
  bottom: "inception_4b/pool"
  top: "inception_4b/pool_proj"
  param {
    lr_mult: 1
    decay_mult: 1
  }
  param {
    lr_mult: 2
    decay_mult: 0
  }
  convolution_param {
    num_output: 64
    kernel_size: 1
    weight_filler {
      type: "xavier"
      std: 0.1
    }
    bias_filler {
      type: "constant"
      value: 0.2
    }
  }
}
layer {
  name: "inception_4b/relu_pool_proj"
  type: "ReLU"
  bottom: "inception_4b/pool_proj"
  top: "inception_4b/pool_proj"
}
layer {
  name: "inception_4b/output"
  type: "Concat"
  bottom: "inception_4b/1x1"
  bottom: "inception_4b/3x3"
  bottom: "inception_4b/5x5"
  bottom: "inception_4b/pool_proj"
  top: "inception_4b/output"
}
layer {
  name: "inception_4c/1x1"
  type: "Convolution"
  bottom: "inception_4b/output"
  top: "inception_4c/1x1"
  param {
    lr_mult: 1
    decay_mult: 1
  }
  param {
    lr_mult: 2
    decay_mult: 0
  }
  convolution_param {
    num_output: 128
    kernel_size: 1
    weight_filler {
      type: "xavier"
      std: 0.03
    }
    bias_filler {
      type: "constant"
      value: 0.2
    }
  }
}
layer {
  name: "inception_4c/relu_1x1"
  type: "ReLU"
  bottom: "inception_4c/1x1"
  top: "inception_4c/1x1"
}
layer {
  name: "inception_4c/3x3_reduce"
  type: "Convolution"
  bottom: "inception_4b/output"
  top: "inception_4c/3x3_reduce"
  param {
    lr_mult: 1
    decay_mult: 1
  }
  param {
    lr_mult: 2
    decay_mult: 0
  }
  convolution_param {
    num_output: 128
    kernel_size: 1
    weight_filler {
      type: "xavier"
      std: 0.09
    }
    bias_filler {
      type: "constant"
      value: 0.2
    }
  }
}
layer {
  name: "inception_4c/relu_3x3_reduce"
  type: "ReLU"
  bottom: "inception_4c/3x3_reduce"
  top: "inception_4c/3x3_reduce"
}
layer {
  name: "inception_4c/3x3"
  type: "Convolution"
  bottom: "inception_4c/3x3_reduce"
  top: "inception_4c/3x3"
  param {
    lr_mult: 1
    decay_mult: 1
  }
  param {
    lr_mult: 2
    decay_mult: 0
  }
  convolution_param {
    num_output: 256
    pad: 1
    kernel_size: 3
    weight_filler {
      type: "xavier"
      std: 0.03
    }
    bias_filler {
      type: "constant"
      value: 0.2
    }
  }
}
layer {
  name: "inception_4c/relu_3x3"
  type: "ReLU"
  bottom: "inception_4c/3x3"
  top: "inception_4c/3x3"
}
layer {
  name: "inception_4c/5x5_reduce"
  type: "Convolution"
  bottom: "inception_4b/output"
  top: "inception_4c/5x5_reduce"
  param {
    lr_mult: 1
    decay_mult: 1
  }
  param {
    lr_mult: 2
    decay_mult: 0
  }
  convolution_param {
    num_output: 24
    kernel_size: 1
    weight_filler {
      type: "xavier"
      std: 0.2
    }
    bias_filler {
      type: "constant"
      value: 0.2
    }
  }
}
layer {
  name: "inception_4c/relu_5x5_reduce"
  type: "ReLU"
  bottom: "inception_4c/5x5_reduce"
  top: "inception_4c/5x5_reduce"
}
layer {
  name: "inception_4c/5x5"
  type: "Convolution"
  bottom: "inception_4c/5x5_reduce"
  top: "inception_4c/5x5"
  param {
    lr_mult: 1
    decay_mult: 1
  }
  param {
    lr_mult: 2
    decay_mult: 0
  }
  convolution_param {
    num_output: 64
    pad: 2
    kernel_size: 5
    weight_filler {
      type: "xavier"
      std: 0.03
    }
    bias_filler {
      type: "constant"
      value: 0.2
    }
  }
}
layer {
  name: "inception_4c/relu_5x5"
  type: "ReLU"
  bottom: "inception_4c/5x5"
  top: "inception_4c/5x5"
}
layer {
  name: "inception_4c/pool"
  type: "Pooling"
  bottom: "inception_4b/output"
  top: "inception_4c/pool"
  pooling_param {
    pool: MAX
    kernel_size: 3
    stride: 1
    pad: 1
  }
}
layer {
  name: "inception_4c/pool_proj"
  type: "Convolution"
  bottom: "inception_4c/pool"
  top: "inception_4c/pool_proj"
  param {
    lr_mult: 1
    decay_mult: 1
  }
  param {
    lr_mult: 2
    decay_mult: 0
  }
  convolution_param {
    num_output: 64
    kernel_size: 1
    weight_filler {
      type: "xavier"
      std: 0.1
    }
    bias_filler {
      type: "constant"
      value: 0.2
    }
  }
}
layer {
  name: "inception_4c/relu_pool_proj"
  type: "ReLU"
  bottom: "inception_4c/pool_proj"
  top: "inception_4c/pool_proj"
}
layer {
  name: "inception_4c/output"
  type: "Concat"
  bottom: "inception_4c/1x1"
  bottom: "inception_4c/3x3"
  bottom: "inception_4c/5x5"
  bottom: "inception_4c/pool_proj"
  top: "inception_4c/output"
}
layer {
  name: "inception_4d/1x1"
  type: "Convolution"
  bottom: "inception_4c/output"
  top: "inception_4d/1x1"
  param {
    lr_mult: 1
    decay_mult: 1
  }
  param {
    lr_mult: 2
    decay_mult: 0
  }
  convolution_param {
    num_output: 112
    kernel_size: 1
    weight_filler {
      type: "xavier"
      std: 0.03
    }
    bias_filler {
      type: "constant"
      value: 0.2
    }
  }
}
layer {
  name: "inception_4d/relu_1x1"
  type: "ReLU"
  bottom: "inception_4d/1x1"
  top: "inception_4d/1x1"
}
layer {
  name: "inception_4d/3x3_reduce"
  type: "Convolution"
  bottom: "inception_4c/output"
  top: "inception_4d/3x3_reduce"
  param {
    lr_mult: 1
    decay_mult: 1
  }
  param {
    lr_mult: 2
    decay_mult: 0
  }
  convolution_param {
    num_output: 144
    kernel_size: 1
    weight_filler {
      type: "xavier"
      std: 0.09
    }
    bias_filler {
      type: "constant"
      value: 0.2
    }
  }
}
layer {
  name: "inception_4d/relu_3x3_reduce"
  type: "ReLU"
  bottom: "inception_4d/3x3_reduce"
  top: "inception_4d/3x3_reduce"
}
layer {
  name: "inception_4d/3x3"
  type: "Convolution"
  bottom: "inception_4d/3x3_reduce"
  top: "inception_4d/3x3"
  param {
    lr_mult: 1
    decay_mult: 1
  }
  param {
    lr_mult: 2
    decay_mult: 0
  }
  convolution_param {
    num_output: 288
    pad: 1
    kernel_size: 3
    weight_filler {
      type: "xavier"
      std: 0.03
    }
    bias_filler {
      type: "constant"
      value: 0.2
    }
  }
}
layer {
  name: "inception_4d/relu_3x3"
  type: "ReLU"
  bottom: "inception_4d/3x3"
  top: "inception_4d/3x3"
}
layer {
  name: "inception_4d/5x5_reduce"
  type: "Convolution"
  bottom: "inception_4c/output"
  top: "inception_4d/5x5_reduce"
  param {
    lr_mult: 1
    decay_mult: 1
  }
  param {
    lr_mult: 2
    decay_mult: 0
  }
  convolution_param {
    num_output: 32
    kernel_size: 1
    weight_filler {
      type: "xavier"
      std: 0.2
    }
    bias_filler {
      type: "constant"
      value: 0.2
    }
  }
}
layer {
  name: "inception_4d/relu_5x5_reduce"
  type: "ReLU"
  bottom: "inception_4d/5x5_reduce"
  top: "inception_4d/5x5_reduce"
}
layer {
  name: "inception_4d/5x5"
  type: "Convolution"
  bottom: "inception_4d/5x5_reduce"
  top: "inception_4d/5x5"
  param {
    lr_mult: 1
    decay_mult: 1
  }
  param {
    lr_mult: 2
    decay_mult: 0
  }
  convolution_param {
    num_output: 64
    pad: 2
    kernel_size: 5
    weight_filler {
      type: "xavier"
      std: 0.03
    }
    bias_filler {
      type: "constant"
      value: 0.2
    }
  }
}
layer {
  name: "inception_4d/relu_5x5"
  type: "ReLU"
  bottom: "inception_4d/5x5"
  top: "inception_4d/5x5"
}
layer {
  name: "inception_4d/pool"
  type: "Pooling"
  bottom: "inception_4c/output"
  top: "inception_4d/pool"
  pooling_param {
    pool: MAX
    kernel_size: 3
    stride: 1
    pad: 1
  }
}
layer {
  name: "inception_4d/pool_proj"
  type: "Convolution"
  bottom: "inception_4d/pool"
  top: "inception_4d/pool_proj"
  param {
    lr_mult: 1
    decay_mult: 1
  }
  param {
    lr_mult: 2
    decay_mult: 0
  }
  convolution_param {
    num_output: 64
    kernel_size: 1
    weight_filler {
      type: "xavier"
      std: 0.1
    }
    bias_filler {
      type: "constant"
      value: 0.2
    }
  }
}
layer {
  name: "inception_4d/relu_pool_proj"
  type: "ReLU"
  bottom: "inception_4d/pool_proj"
  top: "inception_4d/pool_proj"
}
layer {
  name: "inception_4d/output"
  type: "Concat"
  bottom: "inception_4d/1x1"
  bottom: "inception_4d/3x3"
  bottom: "inception_4d/5x5"
  bottom: "inception_4d/pool_proj"
  top: "inception_4d/output"
}
layer {
  name: "loss2/ave_pool"
  type: "Pooling"
  bottom: "inception_4d/output"
  top: "loss2/ave_pool"
  pooling_param {
    pool: AVE
    kernel_size: 5
    stride: 3
  }
}
layer {
  name: "loss2/conv"
  type: "Convolution"
  bottom: "loss2/ave_pool"
  top: "loss2/conv"
  param {
    lr_mult: 1
    decay_mult: 1
  }
  param {
    lr_mult: 2
    decay_mult: 0
  }
  convolution_param {
    num_output: 128
    kernel_size: 1
    weight_filler {
      type: "xavier"
      std: 0.08
    }
    bias_filler {
      type: "constant"
      value: 0.2
    }
  }
}
layer {
  name: "loss2/relu_conv"
  type: "ReLU"
  bottom: "loss2/conv"
  top: "loss2/conv"
}
layer {
  name: "loss2/fc"
  type: "InnerProduct"
  bottom: "loss2/conv"
  top: "loss2/fc"
  param {
    lr_mult: 1
    decay_mult: 1
  }
  param {
    lr_mult: 2
    decay_mult: 0
  }
  inner_product_param {
    num_output: 1024
    weight_filler {
      type: "xavier"
      std: 0.02
    }
    bias_filler {
      type: "constant"
      value: 0.2
    }
  }
}
layer {
  name: "loss2/relu_fc"
  type: "ReLU"
  bottom: "loss2/fc"
  top: "loss2/fc"
}
layer {
  name: "loss2/drop_fc"
  type: "Dropout"
  bottom: "loss2/fc"
  top: "loss2/fc"
  dropout_param {
    dropout_ratio: 0.7
  }
}
layer {
  name: "loss2/classifier_plantvillage"
  type: "InnerProduct"
  bottom: "loss2/fc"
  top: "loss2/classifier_plantvillage"
  param {
    lr_mult: 1
    decay_mult: 1
  }
  param {
    lr_mult: 2
    decay_mult: 0
  }
  inner_product_param {
    num_output: 38
    weight_filler {
      type: "xavier"
      std: 0.0009765625
    }
    bias_filler {
      type: "constant"
      value: 0
    }
  }
}
layer {
  name: "inception_4e/1x1"
  type: "Convolution"
  bottom: "inception_4d/output"
  top: "inception_4e/1x1"
  param {
    lr_mult: 1
    decay_mult: 1
  }
  param {
    lr_mult: 2
    decay_mult: 0
  }
  convolution_param {
    num_output: 256
    kernel_size: 1
    weight_filler {
      type: "xavier"
      std: 0.03
    }
    bias_filler {
      type: "constant"
      value: 0.2
    }
  }
}
layer {
  name: "inception_4e/relu_1x1"
  type: "ReLU"
  bottom: "inception_4e/1x1"
  top: "inception_4e/1x1"
}
layer {
  name: "inception_4e/3x3_reduce"
  type: "Convolution"
  bottom: "inception_4d/output"
  top: "inception_4e/3x3_reduce"
  param {
    lr_mult: 1
    decay_mult: 1
  }
  param {
    lr_mult: 2
    decay_mult: 0
  }
  convolution_param {
    num_output: 160
    kernel_size: 1
    weight_filler {
      type: "xavier"
      std: 0.09
    }
    bias_filler {
      type: "constant"
      value: 0.2
    }
  }
}
layer {
  name: "inception_4e/relu_3x3_reduce"
  type: "ReLU"
  bottom: "inception_4e/3x3_reduce"
  top: "inception_4e/3x3_reduce"
}
layer {
  name: "inception_4e/3x3"
  type: "Convolution"
  bottom: "inception_4e/3x3_reduce"
  top: "inception_4e/3x3"
  param {
    lr_mult: 1
    decay_mult: 1
  }
  param {
    lr_mult: 2
    decay_mult: 0
  }
  convolution_param {
    num_output: 320
    pad: 1
    kernel_size: 3
    weight_filler {
      type: "xavier"
      std: 0.03
    }
    bias_filler {
      type: "constant"
      value: 0.2
    }
  }
}
layer {
  name: "inception_4e/relu_3x3"
  type: "ReLU"
  bottom: "inception_4e/3x3"
  top: "inception_4e/3x3"
}
layer {
  name: "inception_4e/5x5_reduce"
  type: "Convolution"
  bottom: "inception_4d/output"
  top: "inception_4e/5x5_reduce"
  param {
    lr_mult: 1
    decay_mult: 1
  }
  param {
    lr_mult: 2
    decay_mult: 0
  }
  convolution_param {
    num_output: 32
    kernel_size: 1
    weight_filler {
      type: "xavier"
      std: 0.2
    }
    bias_filler {
      type: "constant"
      value: 0.2
    }
  }
}
layer {
  name: "inception_4e/relu_5x5_reduce"
  type: "ReLU"
  bottom: "inception_4e/5x5_reduce"
  top: "inception_4e/5x5_reduce"
}
layer {
  name: "inception_4e/5x5"
  type: "Convolution"
  bottom: "inception_4e/5x5_reduce"
  top: "inception_4e/5x5"
  p
I0403 15:45:38.825098 16026 layer_factory.hpp:77] Creating layer data
I0403 15:45:38.825690 16026 net.cpp:91] Creating Layer data
I0403 15:45:38.825721 16026 net.cpp:399] data -> data
I0403 15:45:38.825773 16026 net.cpp:399] data -> label
I0403 15:45:38.825808 16026 data_transformer.cpp:25] Loading mean file from: /home/mohanty/data/final_dataset/lmdb/color-50-50/mean.binaryproto
I0403 15:45:38.828488 16029 db_lmdb.cpp:38] Opened lmdb /home/mohanty/data/final_dataset/lmdb/color-50-50/test_db
I0403 15:45:38.839321 16026 data_layer.cpp:41] output data size: 24,3,224,224
I0403 15:45:38.866530 16026 net.cpp:141] Setting up data
I0403 15:45:38.866617 16026 net.cpp:148] Top shape: 24 3 224 224 (3612672)
I0403 15:45:38.866639 16026 net.cpp:148] Top shape: 24 (24)
I0403 15:45:38.866655 16026 net.cpp:156] Memory required for data: 14450784
I0403 15:45:38.866684 16026 layer_factory.hpp:77] Creating layer label_data_1_split
I0403 15:45:38.866711 16026 net.cpp:91] Creating Layer label_data_1_split
I0403 15:45:38.866729 16026 net.cpp:425] label_data_1_split <- label
I0403 15:45:38.866760 16026 net.cpp:399] label_data_1_split -> label_data_1_split_0
I0403 15:45:38.866788 16026 net.cpp:399] label_data_1_split -> label_data_1_split_1
I0403 15:45:38.866809 16026 net.cpp:399] label_data_1_split -> label_data_1_split_2
I0403 15:45:38.866832 16026 net.cpp:399] label_data_1_split -> label_data_1_split_3
I0403 15:45:38.866852 16026 net.cpp:399] label_data_1_split -> label_data_1_split_4
I0403 15:45:38.866869 16026 net.cpp:399] label_data_1_split -> label_data_1_split_5
I0403 15:45:38.866889 16026 net.cpp:399] label_data_1_split -> label_data_1_split_6
I0403 15:45:38.866909 16026 net.cpp:399] label_data_1_split -> label_data_1_split_7
I0403 15:45:38.866930 16026 net.cpp:399] label_data_1_split -> label_data_1_split_8
I0403 15:45:38.866951 16026 net.cpp:399] label_data_1_split -> label_data_1_split_9
I0403 15:45:38.867064 16026 net.cpp:141] Setting up label_data_1_split
I0403 15:45:38.867089 16026 net.cpp:148] Top shape: 24 (24)
I0403 15:45:38.867105 16026 net.cpp:148] Top shape: 24 (24)
I0403 15:45:38.867120 16026 net.cpp:148] Top shape: 24 (24)
I0403 15:45:38.867141 16026 net.cpp:148] Top shape: 24 (24)
I0403 15:45:38.867156 16026 net.cpp:148] Top shape: 24 (24)
I0403 15:45:38.867172 16026 net.cpp:148] Top shape: 24 (24)
I0403 15:45:38.867187 16026 net.cpp:148] Top shape: 24 (24)
I0403 15:45:38.867202 16026 net.cpp:148] Top shape: 24 (24)
I0403 15:45:38.867215 16026 net.cpp:148] Top shape: 24 (24)
I0403 15:45:38.867231 16026 net.cpp:148] Top shape: 24 (24)
I0403 15:45:38.867279 16026 net.cpp:156] Memory required for data: 14451744
I0403 15:45:38.867293 16026 layer_factory.hpp:77] Creating layer conv1/7x7_s2
I0403 15:45:38.867324 16026 net.cpp:91] Creating Layer conv1/7x7_s2
I0403 15:45:38.867341 16026 net.cpp:425] conv1/7x7_s2 <- data
I0403 15:45:38.867360 16026 net.cpp:399] conv1/7x7_s2 -> conv1/7x7_s2
I0403 15:45:39.007405 16026 net.cpp:141] Setting up conv1/7x7_s2
I0403 15:45:39.007482 16026 net.cpp:148] Top shape: 24 64 112 112 (19267584)
I0403 15:45:39.007498 16026 net.cpp:156] Memory required for data: 91522080
I0403 15:45:39.007529 16026 layer_factory.hpp:77] Creating layer conv1/relu_7x7
I0403 15:45:39.007562 16026 net.cpp:91] Creating Layer conv1/relu_7x7
I0403 15:45:39.007581 16026 net.cpp:425] conv1/relu_7x7 <- conv1/7x7_s2
I0403 15:45:39.007603 16026 net.cpp:386] conv1/relu_7x7 -> conv1/7x7_s2 (in-place)
I0403 15:45:39.007884 16026 net.cpp:141] Setting up conv1/relu_7x7
I0403 15:45:39.007912 16026 net.cpp:148] Top shape: 24 64 112 112 (19267584)
I0403 15:45:39.007927 16026 net.cpp:156] Memory required for data: 168592416
I0403 15:45:39.007942 16026 layer_factory.hpp:77] Creating layer pool1/3x3_s2
I0403 15:45:39.007971 16026 net.cpp:91] Creating Layer pool1/3x3_s2
I0403 15:45:39.007988 16026 net.cpp:425] pool1/3x3_s2 <- conv1/7x7_s2
I0403 15:45:39.008008 16026 net.cpp:399] pool1/3x3_s2 -> pool1/3x3_s2
I0403 15:45:39.008087 16026 net.cpp:141] Setting up pool1/3x3_s2
I0403 15:45:39.008112 16026 net.cpp:148] Top shape: 24 64 56 56 (4816896)
I0403 15:45:39.008127 16026 net.cpp:156] Memory required for data: 187860000
I0403 15:45:39.008142 16026 layer_factory.hpp:77] Creating layer pool1/norm1
I0403 15:45:39.008167 16026 net.cpp:91] Creating Layer pool1/norm1
I0403 15:45:39.008185 16026 net.cpp:425] pool1/norm1 <- pool1/3x3_s2
I0403 15:45:39.008203 16026 net.cpp:399] pool1/norm1 -> pool1/norm1
I0403 15:45:39.008581 16026 net.cpp:141] Setting up pool1/norm1
I0403 15:45:39.008610 16026 net.cpp:148] Top shape: 24 64 56 56 (4816896)
I0403 15:45:39.008635 16026 net.cpp:156] Memory required for data: 207127584
I0403 15:45:39.008651 16026 layer_factory.hpp:77] Creating layer conv2/3x3_reduce
I0403 15:45:39.008677 16026 net.cpp:91] Creating Layer conv2/3x3_reduce
I0403 15:45:39.008694 16026 net.cpp:425] conv2/3x3_reduce <- pool1/norm1
I0403 15:45:39.008716 16026 net.cpp:399] conv2/3x3_reduce -> conv2/3x3_reduce
I0403 15:45:39.010224 16026 net.cpp:141] Setting up conv2/3x3_reduce
I0403 15:45:39.010256 16026 net.cpp:148] Top shape: 24 64 56 56 (4816896)
I0403 15:45:39.010272 16026 net.cpp:156] Memory required for data: 226395168
I0403 15:45:39.010293 16026 layer_factory.hpp:77] Creating layer conv2/relu_3x3_reduce
I0403 15:45:39.010313 16026 net.cpp:91] Creating Layer conv2/relu_3x3_reduce
I0403 15:45:39.010329 16026 net.cpp:425] conv2/relu_3x3_reduce <- conv2/3x3_reduce
I0403 15:45:39.010349 16026 net.cpp:386] conv2/relu_3x3_reduce -> conv2/3x3_reduce (in-place)
I0403 15:45:39.010625 16026 net.cpp:141] Setting up conv2/relu_3x3_reduce
I0403 15:45:39.010651 16026 net.cpp:148] Top shape: 24 64 56 56 (4816896)
I0403 15:45:39.010668 16026 net.cpp:156] Memory required for data: 245662752
I0403 15:45:39.010682 16026 layer_factory.hpp:77] Creating layer conv2/3x3
I0403 15:45:39.010705 16026 net.cpp:91] Creating Layer conv2/3x3
I0403 15:45:39.010723 16026 net.cpp:425] conv2/3x3 <- conv2/3x3_reduce
I0403 15:45:39.010746 16026 net.cpp:399] conv2/3x3 -> conv2/3x3
I0403 15:45:39.013137 16026 net.cpp:141] Setting up conv2/3x3
I0403 15:45:39.013169 16026 net.cpp:148] Top shape: 24 192 56 56 (14450688)
I0403 15:45:39.013187 16026 net.cpp:156] Memory required for data: 303465504
I0403 15:45:39.013208 16026 layer_factory.hpp:77] Creating layer conv2/relu_3x3
I0403 15:45:39.013229 16026 net.cpp:91] Creating Layer conv2/relu_3x3
I0403 15:45:39.013245 16026 net.cpp:425] conv2/relu_3x3 <- conv2/3x3
I0403 15:45:39.013303 16026 net.cpp:386] conv2/relu_3x3 -> conv2/3x3 (in-place)
I0403 15:45:39.013489 16026 net.cpp:141] Setting up conv2/relu_3x3
I0403 15:45:39.013517 16026 net.cpp:148] Top shape: 24 192 56 56 (14450688)
I0403 15:45:39.013572 16026 net.cpp:156] Memory required for data: 361268256
I0403 15:45:39.013589 16026 layer_factory.hpp:77] Creating layer conv2/norm2
I0403 15:45:39.013609 16026 net.cpp:91] Creating Layer conv2/norm2
I0403 15:45:39.013628 16026 net.cpp:425] conv2/norm2 <- conv2/3x3
I0403 15:45:39.013646 16026 net.cpp:399] conv2/norm2 -> conv2/norm2
I0403 15:45:39.013962 16026 net.cpp:141] Setting up conv2/norm2
I0403 15:45:39.013993 16026 net.cpp:148] Top shape: 24 192 56 56 (14450688)
I0403 15:45:39.014011 16026 net.cpp:156] Memory required for data: 419071008
I0403 15:45:39.014027 16026 layer_factory.hpp:77] Creating layer pool2/3x3_s2
I0403 15:45:39.014045 16026 net.cpp:91] Creating Layer pool2/3x3_s2
I0403 15:45:39.014061 16026 net.cpp:425] pool2/3x3_s2 <- conv2/norm2
I0403 15:45:39.014078 16026 net.cpp:399] pool2/3x3_s2 -> pool2/3x3_s2
I0403 15:45:39.014134 16026 net.cpp:141] Setting up pool2/3x3_s2
I0403 15:45:39.014158 16026 net.cpp:148] Top shape: 24 192 28 28 (3612672)
I0403 15:45:39.014173 16026 net.cpp:156] Memory required for data: 433521696
I0403 15:45:39.014188 16026 layer_factory.hpp:77] Creating layer pool2/3x3_s2_pool2/3x3_s2_0_split
I0403 15:45:39.014207 16026 net.cpp:91] Creating Layer pool2/3x3_s2_pool2/3x3_s2_0_split
I0403 15:45:39.014225 16026 net.cpp:425] pool2/3x3_s2_pool2/3x3_s2_0_split <- pool2/3x3_s2
I0403 15:45:39.014241 16026 net.cpp:399] pool2/3x3_s2_pool2/3x3_s2_0_split -> pool2/3x3_s2_pool2/3x3_s2_0_split_0
I0403 15:45:39.014261 16026 net.cpp:399] pool2/3x3_s2_pool2/3x3_s2_0_split -> pool2/3x3_s2_pool2/3x3_s2_0_split_1
I0403 15:45:39.014281 16026 net.cpp:399] pool2/3x3_s2_pool2/3x3_s2_0_split -> pool2/3x3_s2_pool2/3x3_s2_0_split_2
I0403 15:45:39.014304 16026 net.cpp:399] pool2/3x3_s2_pool2/3x3_s2_0_split -> pool2/3x3_s2_pool2/3x3_s2_0_split_3
I0403 15:45:39.014377 16026 net.cpp:141] Setting up pool2/3x3_s2_pool2/3x3_s2_0_split
I0403 15:45:39.014401 16026 net.cpp:148] Top shape: 24 192 28 28 (3612672)
I0403 15:45:39.014417 16026 net.cpp:148] Top shape: 24 192 28 28 (3612672)
I0403 15:45:39.014433 16026 net.cpp:148] Top shape: 24 192 28 28 (3612672)
I0403 15:45:39.014449 16026 net.cpp:148] Top shape: 24 192 28 28 (3612672)
I0403 15:45:39.014463 16026 net.cpp:156] Memory required for data: 491324448
I0403 15:45:39.014477 16026 layer_factory.hpp:77] Creating layer inception_3a/1x1
I0403 15:45:39.014500 16026 net.cpp:91] Creating Layer inception_3a/1x1
I0403 15:45:39.014518 16026 net.cpp:425] inception_3a/1x1 <- pool2/3x3_s2_pool2/3x3_s2_0_split_0
I0403 15:45:39.014549 16026 net.cpp:399] inception_3a/1x1 -> inception_3a/1x1
I0403 15:45:39.016207 16026 net.cpp:141] Setting up inception_3a/1x1
I0403 15:45:39.016250 16026 net.cpp:148] Top shape: 24 64 28 28 (1204224)
I0403 15:45:39.016270 16026 net.cpp:156] Memory required for data: 496141344
I0403 15:45:39.016291 16026 layer_factory.hpp:77] Creating layer inception_3a/relu_1x1
I0403 15:45:39.016310 16026 net.cpp:91] Creating Layer inception_3a/relu_1x1
I0403 15:45:39.016327 16026 net.cpp:425] inception_3a/relu_1x1 <- inception_3a/1x1
I0403 15:45:39.016348 16026 net.cpp:386] inception_3a/relu_1x1 -> inception_3a/1x1 (in-place)
I0403 15:45:39.016535 16026 net.cpp:141] Setting up inception_3a/relu_1x1
I0403 15:45:39.016564 16026 net.cpp:148] Top shape: 24 64 28 28 (1204224)
I0403 15:45:39.016579 16026 net.cpp:156] Memory required for data: 500958240
I0403 15:45:39.016595 16026 layer_factory.hpp:77] Creating layer inception_3a/3x3_reduce
I0403 15:45:39.016618 16026 net.cpp:91] Creating Layer inception_3a/3x3_reduce
I0403 15:45:39.016635 16026 net.cpp:425] inception_3a/3x3_reduce <- pool2/3x3_s2_pool2/3x3_s2_0_split_1
I0403 15:45:39.016656 16026 net.cpp:399] inception_3a/3x3_reduce -> inception_3a/3x3_reduce
I0403 15:45:39.018394 16026 net.cpp:141] Setting up inception_3a/3x3_reduce
I0403 15:45:39.018425 16026 net.cpp:148] Top shape: 24 96 28 28 (1806336)
I0403 15:45:39.018441 16026 net.cpp:156] Memory required for data: 508183584
I0403 15:45:39.018465 16026 layer_factory.hpp:77] Creating layer inception_3a/relu_3x3_reduce
I0403 15:45:39.018504 16026 net.cpp:91] Creating Layer inception_3a/relu_3x3_reduce
I0403 15:45:39.018524 16026 net.cpp:425] inception_3a/relu_3x3_reduce <- inception_3a/3x3_reduce
I0403 15:45:39.018548 16026 net.cpp:386] inception_3a/relu_3x3_reduce -> inception_3a/3x3_reduce (in-place)
I0403 15:45:39.018733 16026 net.cpp:141] Setting up inception_3a/relu_3x3_reduce
I0403 15:45:39.018762 16026 net.cpp:148] Top shape: 24 96 28 28 (1806336)
I0403 15:45:39.018779 16026 net.cpp:156] Memory required for data: 515408928
I0403 15:45:39.018795 16026 layer_factory.hpp:77] Creating layer inception_3a/3x3
I0403 15:45:39.018818 16026 net.cpp:91] Creating Layer inception_3a/3x3
I0403 15:45:39.018836 16026 net.cpp:425] inception_3a/3x3 <- inception_3a/3x3_reduce
I0403 15:45:39.018856 16026 net.cpp:399] inception_3a/3x3 -> inception_3a/3x3
I0403 15:45:39.020540 16026 net.cpp:141] Setting up inception_3a/3x3
I0403 15:45:39.020570 16026 net.cpp:148] Top shape: 24 128 28 28 (2408448)
I0403 15:45:39.020586 16026 net.cpp:156] Memory required for data: 525042720
I0403 15:45:39.020606 16026 layer_factory.hpp:77] Creating layer inception_3a/relu_3x3
I0403 15:45:39.020627 16026 net.cpp:91] Creating Layer inception_3a/relu_3x3
I0403 15:45:39.020645 16026 net.cpp:425] inception_3a/relu_3x3 <- inception_3a/3x3
I0403 15:45:39.020663 16026 net.cpp:386] inception_3a/relu_3x3 -> inception_3a/3x3 (in-place)
I0403 15:45:39.020937 16026 net.cpp:141] Setting up inception_3a/relu_3x3
I0403 15:45:39.020964 16026 net.cpp:148] Top shape: 24 128 28 28 (2408448)
I0403 15:45:39.020980 16026 net.cpp:156] Memory required for data: 534676512
I0403 15:45:39.020995 16026 layer_factory.hpp:77] Creating layer inception_3a/5x5_reduce
I0403 15:45:39.021018 16026 net.cpp:91] Creating Layer inception_3a/5x5_reduce
I0403 15:45:39.021034 16026 net.cpp:425] inception_3a/5x5_reduce <- pool2/3x3_s2_pool2/3x3_s2_0_split_2
I0403 15:45:39.021055 16026 net.cpp:399] inception_3a/5x5_reduce -> inception_3a/5x5_reduce
I0403 15:45:39.022027 16026 net.cpp:141] Setting up inception_3a/5x5_reduce
I0403 15:45:39.022058 16026 net.cpp:148] Top shape: 24 16 28 28 (301056)
I0403 15:45:39.022073 16026 net.cpp:156] Memory required for data: 535880736
I0403 15:45:39.022091 16026 layer_factory.hpp:77] Creating layer inception_3a/relu_5x5_reduce
I0403 15:45:39.022112 16026 net.cpp:91] Creating Layer inception_3a/relu_5x5_reduce
I0403 15:45:39.022130 16026 net.cpp:425] inception_3a/relu_5x5_reduce <- inception_3a/5x5_reduce
I0403 15:45:39.022147 16026 net.cpp:386] inception_3a/relu_5x5_reduce -> inception_3a/5x5_reduce (in-place)
I0403 15:45:39.022464 16026 net.cpp:141] Setting up inception_3a/relu_5x5_reduce
I0403 15:45:39.022491 16026 net.cpp:148] Top shape: 24 16 28 28 (301056)
I0403 15:45:39.022508 16026 net.cpp:156] Memory required for data: 537084960
I0403 15:45:39.022523 16026 layer_factory.hpp:77] Creating layer inception_3a/5x5
I0403 15:45:39.022563 16026 net.cpp:91] Creating Layer inception_3a/5x5
I0403 15:45:39.022581 16026 net.cpp:425] inception_3a/5x5 <- inception_3a/5x5_reduce
I0403 15:45:39.022603 16026 net.cpp:399] inception_3a/5x5 -> inception_3a/5x5
I0403 15:45:39.023628 16026 net.cpp:141] Setting up inception_3a/5x5
I0403 15:45:39.023659 16026 net.cpp:148] Top shape: 24 32 28 28 (602112)
I0403 15:45:39.023677 16026 net.cpp:156] Memory required for data: 539493408
I0403 15:45:39.023696 16026 layer_factory.hpp:77] Creating layer inception_3a/relu_5x5
I0403 15:45:39.023715 16026 net.cpp:91] Creating Layer inception_3a/relu_5x5
I0403 15:45:39.023731 16026 net.cpp:425] inception_3a/relu_5x5 <- inception_3a/5x5
I0403 15:45:39.023751 16026 net.cpp:386] inception_3a/relu_5x5 -> inception_3a/5x5 (in-place)
I0403 15:45:39.023926 16026 net.cpp:141] Setting up inception_3a/relu_5x5
I0403 15:45:39.023952 16026 net.cpp:148] Top shape: 24 32 28 28 (602112)
I0403 15:45:39.023967 16026 net.cpp:156] Memory required for data: 541901856
I0403 15:45:39.023983 16026 layer_factory.hpp:77] Creating layer inception_3a/pool
I0403 15:45:39.024000 16026 net.cpp:91] Creating Layer inception_3a/pool
I0403 15:45:39.024016 16026 net.cpp:425] inception_3a/pool <- pool2/3x3_s2_pool2/3x3_s2_0_split_3
I0403 15:45:39.024054 16026 net.cpp:399] inception_3a/pool -> inception_3a/pool
I0403 15:45:39.024116 16026 net.cpp:141] Setting up inception_3a/pool
I0403 15:45:39.024140 16026 net.cpp:148] Top shape: 24 192 28 28 (3612672)
I0403 15:45:39.024155 16026 net.cpp:156] Memory required for data: 556352544
I0403 15:45:39.024169 16026 layer_factory.hpp:77] Creating layer inception_3a/pool_proj
I0403 15:45:39.024193 16026 net.cpp:91] Creating Layer inception_3a/pool_proj
I0403 15:45:39.024210 16026 net.cpp:425] inception_3a/pool_proj <- inception_3a/pool
I0403 15:45:39.024232 16026 net.cpp:399] inception_3a/pool_proj -> inception_3a/pool_proj
I0403 15:45:39.025214 16026 net.cpp:141] Setting up inception_3a/pool_proj
I0403 15:45:39.025244 16026 net.cpp:148] Top shape: 24 32 28 28 (602112)
I0403 15:45:39.025261 16026 net.cpp:156] Memory required for data: 558760992
I0403 15:45:39.025286 16026 layer_factory.hpp:77] Creating layer inception_3a/relu_pool_proj
I0403 15:45:39.025310 16026 net.cpp:91] Creating Layer inception_3a/relu_pool_proj
I0403 15:45:39.025327 16026 net.cpp:425] inception_3a/relu_pool_proj <- inception_3a/pool_proj
I0403 15:45:39.025346 16026 net.cpp:386] inception_3a/relu_pool_proj -> inception_3a/pool_proj (in-place)
I0403 15:45:39.025627 16026 net.cpp:141] Setting up inception_3a/relu_pool_proj
I0403 15:45:39.025655 16026 net.cpp:148] Top shape: 24 32 28 28 (602112)
I0403 15:45:39.025672 16026 net.cpp:156] Memory required for data: 561169440
I0403 15:45:39.025687 16026 layer_factory.hpp:77] Creating layer inception_3a/output
I0403 15:45:39.025707 16026 net.cpp:91] Creating Layer inception_3a/output
I0403 15:45:39.025722 16026 net.cpp:425] inception_3a/output <- inception_3a/1x1
I0403 15:45:39.025739 16026 net.cpp:425] inception_3a/output <- inception_3a/3x3
I0403 15:45:39.025755 16026 net.cpp:425] inception_3a/output <- inception_3a/5x5
I0403 15:45:39.025771 16026 net.cpp:425] inception_3a/output <- inception_3a/pool_proj
I0403 15:45:39.025792 16026 net.cpp:399] inception_3a/output -> inception_3a/output
I0403 15:45:39.025840 16026 net.cpp:141] Setting up inception_3a/output
I0403 15:45:39.025867 16026 net.cpp:148] Top shape: 24 256 28 28 (4816896)
I0403 15:45:39.025884 16026 net.cpp:156] Memory required for data: 580437024
I0403 15:45:39.025899 16026 layer_factory.hpp:77] Creating layer inception_3a/output_inception_3a/output_0_split
I0403 15:45:39.025916 16026 net.cpp:91] Creating Layer inception_3a/output_inception_3a/output_0_split
I0403 15:45:39.025933 16026 net.cpp:425] inception_3a/output_inception_3a/output_0_split <- inception_3a/output
I0403 15:45:39.025949 16026 net.cpp:399] inception_3a/output_inception_3a/output_0_split -> inception_3a/output_inception_3a/output_0_split_0
I0403 15:45:39.025972 16026 net.cpp:399] inception_3a/output_inception_3a/output_0_split -> inception_3a/output_inception_3a/output_0_split_1
I0403 15:45:39.025996 16026 net.cpp:399] inception_3a/output_inception_3a/output_0_split -> inception_3a/output_inception_3a/output_0_split_2
I0403 15:45:39.026017 16026 net.cpp:399] inception_3a/output_inception_3a/output_0_split -> inception_3a/output_inception_3a/output_0_split_3
I0403 15:45:39.026092 16026 net.cpp:141] Setting up inception_3a/output_inception_3a/output_0_split
I0403 15:45:39.026118 16026 net.cpp:148] Top shape: 24 256 28 28 (4816896)
I0403 15:45:39.026134 16026 net.cpp:148] Top shape: 24 256 28 28 (4816896)
I0403 15:45:39.026149 16026 net.cpp:148] Top shape: 24 256 28 28 (4816896)
I0403 15:45:39.026165 16026 net.cpp:148] Top shape: 24 256 28 28 (4816896)
I0403 15:45:39.026177 16026 net.cpp:156] Memory required for data: 657507360
I0403 15:45:39.026192 16026 layer_factory.hpp:77] Creating layer inception_3b/1x1
I0403 15:45:39.026214 16026 net.cpp:91] Creating Layer inception_3b/1x1
I0403 15:45:39.026232 16026 net.cpp:425] inception_3b/1x1 <- inception_3a/output_inception_3a/output_0_split_0
I0403 15:45:39.026252 16026 net.cpp:399] inception_3b/1x1 -> inception_3b/1x1
I0403 15:45:39.027395 16026 net.cpp:141] Setting up inception_3b/1x1
I0403 15:45:39.027437 16026 net.cpp:148] Top shape: 24 128 28 28 (2408448)
I0403 15:45:39.027454 16026 net.cpp:156] Memory required for data: 667141152
I0403 15:45:39.027473 16026 layer_factory.hpp:77] Creating layer inception_3b/relu_1x1
I0403 15:45:39.027493 16026 net.cpp:91] Creating Layer inception_3b/relu_1x1
I0403 15:45:39.027509 16026 net.cpp:425] inception_3b/relu_1x1 <- inception_3b/1x1
I0403 15:45:39.027526 16026 net.cpp:386] inception_3b/relu_1x1 -> inception_3b/1x1 (in-place)
I0403 15:45:39.027704 16026 net.cpp:141] Setting up inception_3b/relu_1x1
I0403 15:45:39.027729 16026 net.cpp:148] Top shape: 24 128 28 28 (2408448)
I0403 15:45:39.027743 16026 net.cpp:156] Memory required for data: 676774944
I0403 15:45:39.027757 16026 layer_factory.hpp:77] Creating layer inception_3b/3x3_reduce
I0403 15:45:39.027779 16026 net.cpp:91] Creating Layer inception_3b/3x3_reduce
I0403 15:45:39.027796 16026 net.cpp:425] inception_3b/3x3_reduce <- inception_3a/output_inception_3a/output_0_split_1
I0403 15:45:39.027817 16026 net.cpp:399] inception_3b/3x3_reduce -> inception_3b/3x3_reduce
I0403 15:45:39.028952 16026 net.cpp:141] Setting up inception_3b/3x3_reduce
I0403 15:45:39.028983 16026 net.cpp:148] Top shape: 24 128 28 28 (2408448)
I0403 15:45:39.029011 16026 net.cpp:156] Memory required for data: 686408736
I0403 15:45:39.029031 16026 layer_factory.hpp:77] Creating layer inception_3b/relu_3x3_reduce
I0403 15:45:39.029047 16026 net.cpp:91] Creating Layer inception_3b/relu_3x3_reduce
I0403 15:45:39.029062 16026 net.cpp:425] inception_3b/relu_3x3_reduce <- inception_3b/3x3_reduce
I0403 15:45:39.029083 16026 net.cpp:386] inception_3b/relu_3x3_reduce -> inception_3b/3x3_reduce (in-place)
I0403 15:45:39.029254 16026 net.cpp:141] Setting up inception_3b/relu_3x3_reduce
I0403 15:45:39.029281 16026 net.cpp:148] Top shape: 24 128 28 28 (2408448)
I0403 15:45:39.029296 16026 net.cpp:156] Memory required for data: 696042528
I0403 15:45:39.029312 16026 layer_factory.hpp:77] Creating layer inception_3b/3x3
I0403 15:45:39.029337 16026 net.cpp:91] Creating Layer inception_3b/3x3
I0403 15:45:39.029355 16026 net.cpp:425] inception_3b/3x3 <- inception_3b/3x3_reduce
I0403 15:45:39.029372 16026 net.cpp:399] inception_3b/3x3 -> inception_3b/3x3
I0403 15:45:39.032336 16026 net.cpp:141] Setting up inception_3b/3x3
I0403 15:45:39.032367 16026 net.cpp:148] Top shape: 24 192 28 28 (3612672)
I0403 15:45:39.032385 16026 net.cpp:156] Memory required for data: 710493216
I0403 15:45:39.032405 16026 layer_factory.hpp:77] Creating layer inception_3b/relu_3x3
I0403 15:45:39.032425 16026 net.cpp:91] Creating Layer inception_3b/relu_3x3
I0403 15:45:39.032446 16026 net.cpp:425] inception_3b/relu_3x3 <- inception_3b/3x3
I0403 15:45:39.032464 16026 net.cpp:386] inception_3b/relu_3x3 -> inception_3b/3x3 (in-place)
I0403 15:45:39.032762 16026 net.cpp:141] Setting up inception_3b/relu_3x3
I0403 15:45:39.032788 16026 net.cpp:148] Top shape: 24 192 28 28 (3612672)
I0403 15:45:39.032804 16026 net.cpp:156] Memory required for data: 724943904
I0403 15:45:39.032817 16026 layer_factory.hpp:77] Creating layer inception_3b/5x5_reduce
I0403 15:45:39.032841 16026 net.cpp:91] Creating Layer inception_3b/5x5_reduce
I0403 15:45:39.032858 16026 net.cpp:425] inception_3b/5x5_reduce <- inception_3a/output_inception_3a/output_0_split_2
I0403 15:45:39.032879 16026 net.cpp:399] inception_3b/5x5_reduce -> inception_3b/5x5_reduce
I0403 15:45:39.033862 16026 net.cpp:141] Setting up inception_3b/5x5_reduce
I0403 15:45:39.033892 16026 net.cpp:148] Top shape: 24 32 28 28 (602112)
I0403 15:45:39.033908 16026 net.cpp:156] Memory required for data: 727352352
I0403 15:45:39.033927 16026 layer_factory.hpp:77] Creating layer inception_3b/relu_5x5_reduce
I0403 15:45:39.033946 16026 net.cpp:91] Creating Layer inception_3b/relu_5x5_reduce
I0403 15:45:39.033962 16026 net.cpp:425] inception_3b/relu_5x5_reduce <- inception_3b/5x5_reduce
I0403 15:45:39.033982 16026 net.cpp:386] inception_3b/relu_5x5_reduce -> inception_3b/5x5_reduce (in-place)
I0403 15:45:39.034153 16026 net.cpp:141] Setting up inception_3b/relu_5x5_reduce
I0403 15:45:39.034190 16026 net.cpp:148] Top shape: 24 32 28 28 (602112)
I0403 15:45:39.034206 16026 net.cpp:156] Memory required for data: 729760800
I0403 15:45:39.034220 16026 layer_factory.hpp:77] Creating layer inception_3b/5x5
I0403 15:45:39.034242 16026 net.cpp:91] Creating Layer inception_3b/5x5
I0403 15:45:39.034262 16026 net.cpp:425] inception_3b/5x5 <- inception_3b/5x5_reduce
I0403 15:45:39.034284 16026 net.cpp:399] inception_3b/5x5 -> inception_3b/5x5
I0403 15:45:39.036268 16026 net.cpp:141] Setting up inception_3b/5x5
I0403 15:45:39.036300 16026 net.cpp:148] Top shape: 24 96 28 28 (1806336)
I0403 15:45:39.036319 16026 net.cpp:156] Memory required for data: 736986144
I0403 15:45:39.036336 16026 layer_factory.hpp:77] Creating layer inception_3b/relu_5x5
I0403 15:45:39.036355 16026 net.cpp:91] Creating Layer inception_3b/relu_5x5
I0403 15:45:39.036373 16026 net.cpp:425] inception_3b/relu_5x5 <- inception_3b/5x5
I0403 15:45:39.036394 16026 net.cpp:386] inception_3b/relu_5x5 -> inception_3b/5x5 (in-place)
I0403 15:45:39.036598 16026 net.cpp:141] Setting up inception_3b/relu_5x5
I0403 15:45:39.036623 16026 net.cpp:148] Top shape: 24 96 28 28 (1806336)
I0403 15:45:39.036636 16026 net.cpp:156] Memory required for data: 744211488
I0403 15:45:39.036649 16026 layer_factory.hpp:77] Creating layer inception_3b/pool
I0403 15:45:39.036666 16026 net.cpp:91] Creating Layer inception_3b/pool
I0403 15:45:39.036681 16026 net.cpp:425] inception_3b/pool <- inception_3a/output_inception_3a/output_0_split_3
I0403 15:45:39.036697 16026 net.cpp:399] inception_3b/pool -> inception_3b/pool
I0403 15:45:39.036751 16026 net.cpp:141] Setting up inception_3b/pool
I0403 15:45:39.036773 16026 net.cpp:148] Top shape: 24 256 28 28 (4816896)
I0403 15:45:39.036787 16026 net.cpp:156] Memory required for data: 763479072
I0403 15:45:39.036800 16026 layer_factory.hpp:77] Creating layer inception_3b/pool_proj
I0403 15:45:39.036823 16026 net.cpp:91] Creating Layer inception_3b/pool_proj
I0403 15:45:39.036839 16026 net.cpp:425] inception_3b/pool_proj <- inception_3b/pool
I0403 15:45:39.036857 16026 net.cpp:399] inception_3b/pool_proj -> inception_3b/pool_proj
I0403 15:45:39.037870 16026 net.cpp:141] Setting up inception_3b/pool_proj
I0403 15:45:39.037897 16026 net.cpp:148] Top shape: 24 64 28 28 (1204224)
I0403 15:45:39.037914 16026 net.cpp:156] Memory required for data: 768295968
I0403 15:45:39.037931 16026 layer_factory.hpp:77] Creating layer inception_3b/relu_pool_proj
I0403 15:45:39.037950 16026 net.cpp:91] Creating Layer inception_3b/relu_pool_proj
I0403 15:45:39.037966 16026 net.cpp:425] inception_3b/relu_pool_proj <- inception_3b/pool_proj
I0403 15:45:39.037982 16026 net.cpp:386] inception_3b/relu_pool_proj -> inception_3b/pool_proj (in-place)
I0403 15:45:39.038362 16026 net.cpp:141] Setting up inception_3b/relu_pool_proj
I0403 15:45:39.038386 16026 net.cpp:148] Top shape: 24 64 28 28 (1204224)
I0403 15:45:39.038400 16026 net.cpp:156] Memory required for data: 773112864
I0403 15:45:39.038415 16026 layer_factory.hpp:77] Creating layer inception_3b/output
I0403 15:45:39.038434 16026 net.cpp:91] Creating Layer inception_3b/output
I0403 15:45:39.038450 16026 net.cpp:425] inception_3b/output <- inception_3b/1x1
I0403 15:45:39.038467 16026 net.cpp:425] inception_3b/output <- inception_3b/3x3
I0403 15:45:39.038483 16026 net.cpp:425] inception_3b/output <- inception_3b/5x5
I0403 15:45:39.038498 16026 net.cpp:425] inception_3b/output <- inception_3b/pool_proj
I0403 15:45:39.038514 16026 net.cpp:399] inception_3b/output -> inception_3b/output
I0403 15:45:39.038559 16026 net.cpp:141] Setting up inception_3b/output
I0403 15:45:39.038583 16026 net.cpp:148] Top shape: 24 480 28 28 (9031680)
I0403 15:45:39.038597 16026 net.cpp:156] Memory required for data: 809239584
I0403 15:45:39.038610 16026 layer_factory.hpp:77] Creating layer pool3/3x3_s2
I0403 15:45:39.038627 16026 net.cpp:91] Creating Layer pool3/3x3_s2
I0403 15:45:39.038642 16026 net.cpp:425] pool3/3x3_s2 <- inception_3b/output
I0403 15:45:39.038664 16026 net.cpp:399] pool3/3x3_s2 -> pool3/3x3_s2
I0403 15:45:39.038733 16026 net.cpp:141] Setting up pool3/3x3_s2
I0403 15:45:39.038758 16026 net.cpp:148] Top shape: 24 480 14 14 (2257920)
I0403 15:45:39.038771 16026 net.cpp:156] Memory required for data: 818271264
I0403 15:45:39.038785 16026 layer_factory.hpp:77] Creating layer pool3/3x3_s2_pool3/3x3_s2_0_split
I0403 15:45:39.038801 16026 net.cpp:91] Creating Layer pool3/3x3_s2_pool3/3x3_s2_0_split
I0403 15:45:39.038815 16026 net.cpp:425] pool3/3x3_s2_pool3/3x3_s2_0_split <- pool3/3x3_s2
I0403 15:45:39.038831 16026 net.cpp:399] pool3/3x3_s2_pool3/3x3_s2_0_split -> pool3/3x3_s2_pool3/3x3_s2_0_split_0
I0403 15:45:39.038849 16026 net.cpp:399] pool3/3x3_s2_pool3/3x3_s2_0_split -> pool3/3x3_s2_pool3/3x3_s2_0_split_1
I0403 15:45:39.038871 16026 net.cpp:399] pool3/3x3_s2_pool3/3x3_s2_0_split -> pool3/3x3_s2_pool3/3x3_s2_0_split_2
I0403 15:45:39.038889 16026 net.cpp:399] pool3/3x3_s2_pool3/3x3_s2_0_split -> pool3/3x3_s2_pool3/3x3_s2_0_split_3
I0403 15:45:39.038962 16026 net.cpp:141] Setting up pool3/3x3_s2_pool3/3x3_s2_0_split
I0403 15:45:39.038985 16026 net.cpp:148] Top shape: 24 480 14 14 (2257920)
I0403 15:45:39.039000 16026 net.cpp:148] Top shape: 24 480 14 14 (2257920)
I0403 15:45:39.039013 16026 net.cpp:148] Top shape: 24 480 14 14 (2257920)
I0403 15:45:39.039028 16026 net.cpp:148] Top shape: 24 480 14 14 (2257920)
I0403 15:45:39.039041 16026 net.cpp:156] Memory required for data: 854397984
I0403 15:45:39.039053 16026 layer_factory.hpp:77] Creating layer inception_4a/1x1
I0403 15:45:39.039074 16026 net.cpp:91] Creating Layer inception_4a/1x1
I0403 15:45:39.039090 16026 net.cpp:425] inception_4a/1x1 <- pool3/3x3_s2_pool3/3x3_s2_0_split_0
I0403 15:45:39.039110 16026 net.cpp:399] inception_4a/1x1 -> inception_4a/1x1
I0403 15:45:39.040674 16026 net.cpp:141] Setting up inception_4a/1x1
I0403 15:45:39.040704 16026 net.cpp:148] Top shape: 24 192 14 14 (903168)
I0403 15:45:39.040719 16026 net.cpp:156] Memory required for data: 858010656
I0403 15:45:39.040738 16026 layer_factory.hpp:77] Creating layer inception_4a/relu_1x1
I0403 15:45:39.040758 16026 net.cpp:91] Creating Layer inception_4a/relu_1x1
I0403 15:45:39.040776 16026 net.cpp:425] inception_4a/relu_1x1 <- inception_4a/1x1
I0403 15:45:39.040793 16026 net.cpp:386] inception_4a/relu_1x1 -> inception_4a/1x1 (in-place)
I0403 15:45:39.040964 16026 net.cpp:141] Setting up inception_4a/relu_1x1
I0403 15:45:39.040992 16026 net.cpp:148] Top shape: 24 192 14 14 (903168)
I0403 15:45:39.041007 16026 net.cpp:156] Memory required for data: 861623328
I0403 15:45:39.041023 16026 layer_factory.hpp:77] Creating layer inception_4a/3x3_reduce
I0403 15:45:39.041046 16026 net.cpp:91] Creating Layer inception_4a/3x3_reduce
I0403 15:45:39.041064 16026 net.cpp:425] inception_4a/3x3_reduce <- pool3/3x3_s2_pool3/3x3_s2_0_split_1
I0403 15:45:39.041086 16026 net.cpp:399] inception_4a/3x3_reduce -> inception_4a/3x3_reduce
I0403 15:45:39.042336 16026 net.cpp:141] Setting up inception_4a/3x3_reduce
I0403 15:45:39.042364 16026 net.cpp:148] Top shape: 24 96 14 14 (451584)
I0403 15:45:39.042381 16026 net.cpp:156] Memory required for data: 863429664
I0403 15:45:39.042405 16026 layer_factory.hpp:77] Creating layer inception_4a/relu_3x3_reduce
I0403 15:45:39.042428 16026 net.cpp:91] Creating Layer inception_4a/relu_3x3_reduce
I0403 15:45:39.042443 16026 net.cpp:425] inception_4a/relu_3x3_reduce <- inception_4a/3x3_reduce
I0403 15:45:39.042459 16026 net.cpp:386] inception_4a/relu_3x3_reduce -> inception_4a/3x3_reduce (in-place)
I0403 15:45:39.042637 16026 net.cpp:141] Setting up inception_4a/relu_3x3_reduce
I0403 15:45:39.042664 16026 net.cpp:148] Top shape: 24 96 14 14 (451584)
I0403 15:45:39.042678 16026 net.cpp:156] Memory required for data: 865236000
I0403 15:45:39.042692 16026 layer_factory.hpp:77] Creating layer inception_4a/3x3
I0403 15:45:39.042713 16026 net.cpp:91] Creating Layer inception_4a/3x3
I0403 15:45:39.042731 16026 net.cpp:425] inception_4a/3x3 <- inception_4a/3x3_reduce
I0403 15:45:39.042747 16026 net.cpp:399] inception_4a/3x3 -> inception_4a/3x3
I0403 15:45:39.045519 16026 net.cpp:141] Setting up inception_4a/3x3
I0403 15:45:39.045554 16026 net.cpp:148] Top shape: 24 208 14 14 (978432)
I0403 15:45:39.045572 16026 net.cpp:156] Memory required for data: 869149728
I0403 15:45:39.045590 16026 layer_factory.hpp:77] Creating layer inception_4a/relu_3x3
I0403 15:45:39.045608 16026 net.cpp:91] Creating Layer inception_4a/relu_3x3
I0403 15:45:39.045622 16026 net.cpp:425] inception_4a/relu_3x3 <- inception_4a/3x3
I0403 15:45:39.045641 16026 net.cpp:386] inception_4a/relu_3x3 -> inception_4a/3x3 (in-place)
I0403 15:45:39.045907 16026 net.cpp:141] Setting up inception_4a/relu_3x3
I0403 15:45:39.045935 16026 net.cpp:148] Top shape: 24 208 14 14 (978432)
I0403 15:45:39.045950 16026 net.cpp:156] Memory required for data: 873063456
I0403 15:45:39.045964 16026 layer_factory.hpp:77] Creating layer inception_4a/5x5_reduce
I0403 15:45:39.045986 16026 net.cpp:91] Creating Layer inception_4a/5x5_reduce
I0403 15:45:39.046003 16026 net.cpp:425] inception_4a/5x5_reduce <- pool3/3x3_s2_pool3/3x3_s2_0_split_2
I0403 15:45:39.046021 16026 net.cpp:399] inception_4a/5x5_reduce -> inception_4a/5x5_reduce
I0403 15:45:39.047008 16026 net.cpp:141] Setting up inception_4a/5x5_reduce
I0403 15:45:39.047039 16026 net.cpp:148] Top shape: 24 16 14 14 (75264)
I0403 15:45:39.047055 16026 net.cpp:156] Memory required for data: 873364512
I0403 15:45:39.047075 16026 layer_factory.hpp:77] Creating layer inception_4a/relu_5x5_reduce
I0403 15:45:39.047092 16026 net.cpp:91] Creating Layer inception_4a/relu_5x5_reduce
I0403 15:45:39.047109 16026 net.cpp:425] inception_4a/relu_5x5_reduce <- inception_4a/5x5_reduce
I0403 15:45:39.047132 16026 net.cpp:386] inception_4a/relu_5x5_reduce -> inception_4a/5x5_reduce (in-place)
I0403 15:45:39.047302 16026 net.cpp:141] Setting up inception_4a/relu_5x5_reduce
I0403 15:45:39.047325 16026 net.cpp:148] Top shape: 24 16 14 14 (75264)
I0403 15:45:39.047339 16026 net.cpp:156] Memory required for data: 873665568
I0403 15:45:39.047353 16026 layer_factory.hpp:77] Creating layer inception_4a/5x5
I0403 15:45:39.047374 16026 net.cpp:91] Creating Layer inception_4a/5x5
I0403 15:45:39.047390 16026 net.cpp:425] inception_4a/5x5 <- inception_4a/5x5_reduce
I0403 15:45:39.047410 16026 net.cpp:399] inception_4a/5x5 -> inception_4a/5x5
I0403 15:45:39.048459 16026 net.cpp:141] Setting up inception_4a/5x5
I0403 15:45:39.048486 16026 net.cpp:148] Top shape: 24 48 14 14 (225792)
I0403 15:45:39.048502 16026 net.cpp:156] Memory required for data: 874568736
I0403 15:45:39.048519 16026 layer_factory.hpp:77] Creating layer inception_4a/relu_5x5
I0403 15:45:39.048544 16026 net.cpp:91] Creating Layer inception_4a/relu_5x5
I0403 15:45:39.048563 16026 net.cpp:425] inception_4a/relu_5x5 <- inception_4a/5x5
I0403 15:45:39.048580 16026 net.cpp:386] inception_4a/relu_5x5 -> inception_4a/5x5 (in-place)
I0403 15:45:39.048753 16026 net.cpp:141] Setting up inception_4a/relu_5x5
I0403 15:45:39.048776 16026 net.cpp:148] Top shape: 24 48 14 14 (225792)
I0403 15:45:39.048790 16026 net.cpp:156] Memory required for data: 875471904
I0403 15:45:39.048804 16026 layer_factory.hpp:77] Creating layer inception_4a/pool
I0403 15:45:39.048823 16026 net.cpp:91] Creating Layer inception_4a/pool
I0403 15:45:39.048840 16026 net.cpp:425] inception_4a/pool <- pool3/3x3_s2_pool3/3x3_s2_0_split_3
I0403 15:45:39.048858 16026 net.cpp:399] inception_4a/pool -> inception_4a/pool
I0403 15:45:39.048916 16026 net.cpp:141] Setting up inception_4a/pool
I0403 15:45:39.048939 16026 net.cpp:148] Top shape: 24 480 14 14 (2257920)
I0403 15:45:39.048952 16026 net.cpp:156] Memory required for data: 884503584
I0403 15:45:39.048966 16026 layer_factory.hpp:77] Creating layer inception_4a/pool_proj
I0403 15:45:39.048987 16026 net.cpp:91] Creating Layer inception_4a/pool_proj
I0403 15:45:39.049005 16026 net.cpp:425] inception_4a/pool_proj <- inception_4a/pool
I0403 15:45:39.049024 16026 net.cpp:399] inception_4a/pool_proj -> inception_4a/pool_proj
I0403 15:45:39.050142 16026 net.cpp:141] Setting up inception_4a/pool_proj
I0403 15:45:39.050169 16026 net.cpp:148] Top shape: 24 64 14 14 (301056)
I0403 15:45:39.050200 16026 net.cpp:156] Memory required for data: 885707808
I0403 15:45:39.050220 16026 layer_factory.hpp:77] Creating layer inception_4a/relu_pool_proj
I0403 15:45:39.050242 16026 net.cpp:91] Creating Layer inception_4a/relu_pool_proj
I0403 15:45:39.050259 16026 net.cpp:425] inception_4a/relu_pool_proj <- inception_4a/pool_proj
I0403 15:45:39.050276 16026 net.cpp:386] inception_4a/relu_pool_proj -> inception_4a/pool_proj (in-place)
I0403 15:45:39.050554 16026 net.cpp:141] Setting up inception_4a/relu_pool_proj
I0403 15:45:39.050578 16026 net.cpp:148] Top shape: 24 64 14 14 (301056)
I0403 15:45:39.050592 16026 net.cpp:156] Memory required for data: 886912032
I0403 15:45:39.050606 16026 layer_factory.hpp:77] Creating layer inception_4a/output
I0403 15:45:39.050626 16026 net.cpp:91] Creating Layer inception_4a/output
I0403 15:45:39.050640 16026 net.cpp:425] inception_4a/output <- inception_4a/1x1
I0403 15:45:39.050657 16026 net.cpp:425] inception_4a/output <- inception_4a/3x3
I0403 15:45:39.050673 16026 net.cpp:425] inception_4a/output <- inception_4a/5x5
I0403 15:45:39.050688 16026 net.cpp:425] inception_4a/output <- inception_4a/pool_proj
I0403 15:45:39.050704 16026 net.cpp:399] inception_4a/output -> inception_4a/output
I0403 15:45:39.050748 16026 net.cpp:141] Setting up inception_4a/output
I0403 15:45:39.050770 16026 net.cpp:148] Top shape: 24 512 14 14 (2408448)
I0403 15:45:39.050783 16026 net.cpp:156] Memory required for data: 896545824
I0403 15:45:39.050797 16026 layer_factory.hpp:77] Creating layer inception_4a/output_inception_4a/output_0_split
I0403 15:45:39.050813 16026 net.cpp:91] Creating Layer inception_4a/output_inception_4a/output_0_split
I0403 15:45:39.050827 16026 net.cpp:425] inception_4a/output_inception_4a/output_0_split <- inception_4a/output
I0403 15:45:39.050848 16026 net.cpp:399] inception_4a/output_inception_4a/output_0_split -> inception_4a/output_inception_4a/output_0_split_0
I0403 15:45:39.050868 16026 net.cpp:399] inception_4a/output_inception_4a/output_0_split -> inception_4a/output_inception_4a/output_0_split_1
I0403 15:45:39.050887 16026 net.cpp:399] inception_4a/output_inception_4a/output_0_split -> inception_4a/output_inception_4a/output_0_split_2
I0403 15:45:39.050907 16026 net.cpp:399] inception_4a/output_inception_4a/output_0_split -> inception_4a/output_inception_4a/output_0_split_3
I0403 15:45:39.050926 16026 net.cpp:399] inception_4a/output_inception_4a/output_0_split -> inception_4a/output_inception_4a/output_0_split_4
I0403 15:45:39.051017 16026 net.cpp:141] Setting up inception_4a/output_inception_4a/output_0_split
I0403 15:45:39.051039 16026 net.cpp:148] Top shape: 24 512 14 14 (2408448)
I0403 15:45:39.051054 16026 net.cpp:148] Top shape: 24 512 14 14 (2408448)
I0403 15:45:39.051069 16026 net.cpp:148] Top shape: 24 512 14 14 (2408448)
I0403 15:45:39.051084 16026 net.cpp:148] Top shape: 24 512 14 14 (2408448)
I0403 15:45:39.051098 16026 net.cpp:148] Top shape: 24 512 14 14 (2408448)
I0403 15:45:39.051111 16026 net.cpp:156] Memory required for data: 944714784
I0403 15:45:39.051126 16026 layer_factory.hpp:77] Creating layer loss1/ave_pool
I0403 15:45:39.051141 16026 net.cpp:91] Creating Layer loss1/ave_pool
I0403 15:45:39.051156 16026 net.cpp:425] loss1/ave_pool <- inception_4a/output_inception_4a/output_0_split_0
I0403 15:45:39.051177 16026 net.cpp:399] loss1/ave_pool -> loss1/ave_pool
I0403 15:45:39.051373 16026 net.cpp:141] Setting up loss1/ave_pool
I0403 15:45:39.051398 16026 net.cpp:148] Top shape: 24 512 4 4 (196608)
I0403 15:45:39.051411 16026 net.cpp:156] Memory required for data: 945501216
I0403 15:45:39.051424 16026 layer_factory.hpp:77] Creating layer loss1/conv
I0403 15:45:39.051445 16026 net.cpp:91] Creating Layer loss1/conv
I0403 15:45:39.051462 16026 net.cpp:425] loss1/conv <- loss1/ave_pool
I0403 15:45:39.051481 16026 net.cpp:399] loss1/conv -> loss1/conv
I0403 15:45:39.052850 16026 net.cpp:141] Setting up loss1/conv
I0403 15:45:39.052880 16026 net.cpp:148] Top shape: 24 128 4 4 (49152)
I0403 15:45:39.052897 16026 net.cpp:156] Memory required for data: 945697824
I0403 15:45:39.052932 16026 layer_factory.hpp:77] Creating layer loss1/relu_conv
I0403 15:45:39.052950 16026 net.cpp:91] Creating Layer loss1/relu_conv
I0403 15:45:39.052966 16026 net.cpp:425] loss1/relu_conv <- loss1/conv
I0403 15:45:39.052986 16026 net.cpp:386] loss1/relu_conv -> loss1/conv (in-place)
I0403 15:45:39.053263 16026 net.cpp:141] Setting up loss1/relu_conv
I0403 15:45:39.053290 16026 net.cpp:148] Top shape: 24 128 4 4 (49152)
I0403 15:45:39.053305 16026 net.cpp:156] Memory required for data: 945894432
I0403 15:45:39.053319 16026 layer_factory.hpp:77] Creating layer loss1/fc
I0403 15:45:39.053341 16026 net.cpp:91] Creating Layer loss1/fc
I0403 15:45:39.053359 16026 net.cpp:425] loss1/fc <- loss1/conv
I0403 15:45:39.053377 16026 net.cpp:399] loss1/fc -> loss1/fc
I0403 15:45:39.070667 16026 net.cpp:141] Setting up loss1/fc
I0403 15:45:39.070700 16026 net.cpp:148] Top shape: 24 1024 (24576)
I0403 15:45:39.070716 16026 net.cpp:156] Memory required for data: 945992736
I0403 15:45:39.070734 16026 layer_factory.hpp:77] Creating layer loss1/relu_fc
I0403 15:45:39.070755 16026 net.cpp:91] Creating Layer loss1/relu_fc
I0403 15:45:39.070773 16026 net.cpp:425] loss1/relu_fc <- loss1/fc
I0403 15:45:39.070791 16026 net.cpp:386] loss1/relu_fc -> loss1/fc (in-place)
I0403 15:45:39.070968 16026 net.cpp:141] Setting up loss1/relu_fc
I0403 15:45:39.070991 16026 net.cpp:148] Top shape: 24 1024 (24576)
I0403 15:45:39.071007 16026 net.cpp:156] Memory required for data: 946091040
I0403 15:45:39.071019 16026 layer_factory.hpp:77] Creating layer loss1/drop_fc
I0403 15:45:39.071044 16026 net.cpp:91] Creating Layer loss1/drop_fc
I0403 15:45:39.071061 16026 net.cpp:425] loss1/drop_fc <- loss1/fc
I0403 15:45:39.071080 16026 net.cpp:386] loss1/drop_fc -> loss1/fc (in-place)
I0403 15:45:39.071128 16026 net.cpp:141] Setting up loss1/drop_fc
I0403 15:45:39.071151 16026 net.cpp:148] Top shape: 24 1024 (24576)
I0403 15:45:39.071164 16026 net.cpp:156] Memory required for data: 946189344
I0403 15:45:39.071178 16026 layer_factory.hpp:77] Creating layer loss1/classifier_plantvillage
I0403 15:45:39.071199 16026 net.cpp:91] Creating Layer loss1/classifier_plantvillage
I0403 15:45:39.071215 16026 net.cpp:425] loss1/classifier_plantvillage <- loss1/fc
I0403 15:45:39.071233 16026 net.cpp:399] loss1/classifier_plantvillage -> loss1/classifier_plantvillage
I0403 15:45:39.072131 16026 net.cpp:141] Setting up loss1/classifier_plantvillage
I0403 15:45:39.072159 16026 net.cpp:148] Top shape: 24 38 (912)
I0403 15:45:39.072175 16026 net.cpp:156] Memory required for data: 946192992
I0403 15:45:39.072191 16026 layer_factory.hpp:77] Creating layer loss1/classifier_plantvillage_loss1/classifier_plantvillage_0_split
I0403 15:45:39.072211 16026 net.cpp:91] Creating Layer loss1/classifier_plantvillage_loss1/classifier_plantvillage_0_split
I0403 15:45:39.072227 16026 net.cpp:425] loss1/classifier_plantvillage_loss1/classifier_plantvillage_0_split <- loss1/classifier_plantvillage
I0403 15:45:39.072243 16026 net.cpp:399] loss1/classifier_plantvillage_loss1/classifier_plantvillage_0_split -> loss1/classifier_plantvillage_loss1/classifier_plantvillage_0_split_0
I0403 15:45:39.072266 16026 net.cpp:399] loss1/classifier_plantvillage_loss1/classifier_plantvillage_0_split -> loss1/classifier_plantvillage_loss1/classifier_plantvillage_0_split_1
I0403 15:45:39.072285 16026 net.cpp:399] loss1/classifier_plantvillage_loss1/classifier_plantvillage_0_split -> loss1/classifier_plantvillage_loss1/classifier_plantvillage_0_split_2
I0403 15:45:39.072350 16026 net.cpp:141] Setting up loss1/classifier_plantvillage_loss1/classifier_plantvillage_0_split
I0403 15:45:39.072371 16026 net.cpp:148] Top shape: 24 38 (912)
I0403 15:45:39.072386 16026 net.cpp:148] Top shape: 24 38 (912)
I0403 15:45:39.072401 16026 net.cpp:148] Top shape: 24 38 (912)
I0403 15:45:39.072412 16026 net.cpp:156] Memory required for data: 946203936
I0403 15:45:39.072427 16026 layer_factory.hpp:77] Creating layer inception_4b/1x1
I0403 15:45:39.072448 16026 net.cpp:91] Creating Layer inception_4b/1x1
I0403 15:45:39.072479 16026 net.cpp:425] inception_4b/1x1 <- inception_4a/output_inception_4a/output_0_split_1
I0403 15:45:39.072499 16026 net.cpp:399] inception_4b/1x1 -> inception_4b/1x1
I0403 15:45:39.074120 16026 net.cpp:141] Setting up inception_4b/1x1
I0403 15:45:39.074152 16026 net.cpp:148] Top shape: 24 160 14 14 (752640)
I0403 15:45:39.074170 16026 net.cpp:156] Memory required for data: 949214496
I0403 15:45:39.074200 16026 layer_factory.hpp:77] Creating layer inception_4b/relu_1x1
I0403 15:45:39.074218 16026 net.cpp:91] Creating Layer inception_4b/relu_1x1
I0403 15:45:39.074234 16026 net.cpp:425] inception_4b/relu_1x1 <- inception_4b/1x1
I0403 15:45:39.074254 16026 net.cpp:386] inception_4b/relu_1x1 -> inception_4b/1x1 (in-place)
I0403 15:45:39.074427 16026 net.cpp:141] Setting up inception_4b/relu_1x1
I0403 15:45:39.074451 16026 net.cpp:148] Top shape: 24 160 14 14 (752640)
I0403 15:45:39.074466 16026 net.cpp:156] Memory required for data: 952225056
I0403 15:45:39.074481 16026 layer_factory.hpp:77] Creating layer inception_4b/3x3_reduce
I0403 15:45:39.074506 16026 net.cpp:91] Creating Layer inception_4b/3x3_reduce
I0403 15:45:39.074524 16026 net.cpp:425] inception_4b/3x3_reduce <- inception_4a/output_inception_4a/output_0_split_2
I0403 15:45:39.074554 16026 net.cpp:399] inception_4b/3x3_reduce -> inception_4b/3x3_reduce
I0403 15:45:39.075896 16026 net.cpp:141] Setting up inception_4b/3x3_reduce
I0403 15:45:39.075924 16026 net.cpp:148] Top shape: 24 112 14 14 (526848)
I0403 15:45:39.075944 16026 net.cpp:156] Memory required for data: 954332448
I0403 15:45:39.075966 16026 layer_factory.hpp:77] Creating layer inception_4b/relu_3x3_reduce
I0403 15:45:39.075989 16026 net.cpp:91] Creating Layer inception_4b/relu_3x3_reduce
I0403 15:45:39.076005 16026 net.cpp:425] inception_4b/relu_3x3_reduce <- inception_4b/3x3_reduce
I0403 15:45:39.076023 16026 net.cpp:386] inception_4b/relu_3x3_reduce -> inception_4b/3x3_reduce (in-place)
I0403 15:45:39.076316 16026 net.cpp:141] Setting up inception_4b/relu_3x3_reduce
I0403 15:45:39.076344 16026 net.cpp:148] Top shape: 24 112 14 14 (526848)
I0403 15:45:39.076370 16026 net.cpp:156] Memory required for data: 956439840
I0403 15:45:39.076383 16026 layer_factory.hpp:77] Creating layer inception_4b/3x3
I0403 15:45:39.076403 16026 net.cpp:91] Creating Layer inception_4b/3x3
I0403 15:45:39.076422 16026 net.cpp:425] inception_4b/3x3 <- inception_4b/3x3_reduce
I0403 15:45:39.076443 16026 net.cpp:399] inception_4b/3x3 -> inception_4b/3x3
I0403 15:45:39.079435 16026 net.cpp:141] Setting up inception_4b/3x3
I0403 15:45:39.079466 16026 net.cpp:148] Top shape: 24 224 14 14 (1053696)
I0403 15:45:39.079483 16026 net.cpp:156] Memory required for data: 960654624
I0403 15:45:39.079501 16026 layer_factory.hpp:77] Creating layer inception_4b/relu_3x3
I0403 15:45:39.079521 16026 net.cpp:91] Creating Layer inception_4b/relu_3x3
I0403 15:45:39.079545 16026 net.cpp:425] inception_4b/relu_3x3 <- inception_4b/3x3
I0403 15:45:39.079566 16026 net.cpp:386] inception_4b/relu_3x3 -> inception_4b/3x3 (in-place)
I0403 15:45:39.079746 16026 net.cpp:141] Setting up inception_4b/relu_3x3
I0403 15:45:39.079772 16026 net.cpp:148] Top shape: 24 224 14 14 (1053696)
I0403 15:45:39.079787 16026 net.cpp:156] Memory required for data: 964869408
I0403 15:45:39.079802 16026 layer_factory.hpp:77] Creating layer inception_4b/5x5_reduce
I0403 15:45:39.079824 16026 net.cpp:91] Creating Layer inception_4b/5x5_reduce
I0403 15:45:39.079843 16026 net.cpp:425] inception_4b/5x5_reduce <- inception_4a/output_inception_4a/output_0_split_3
I0403 15:45:39.079864 16026 net.cpp:399] inception_4b/5x5_reduce -> inception_4b/5x5_reduce
I0403 15:45:39.080953 16026 net.cpp:141] Setting up inception_4b/5x5_reduce
I0403 15:45:39.080982 16026 net.cpp:148] Top shape: 24 24 14 14 (112896)
I0403 15:45:39.080998 16026 net.cpp:156] Memory required for data: 965320992
I0403 15:45:39.081017 16026 layer_factory.hpp:77] Creating layer inception_4b/relu_5x5_reduce
I0403 15:45:39.081037 16026 net.cpp:91] Creating Layer inception_4b/relu_5x5_reduce
I0403 15:45:39.081068 16026 net.cpp:425] inception_4b/relu_5x5_reduce <- inception_4b/5x5_reduce
I0403 15:45:39.081094 16026 net.cpp:386] inception_4b/relu_5x5_reduce -> inception_4b/5x5_reduce (in-place)
I0403 15:45:39.081280 16026 net.cpp:141] Setting up inception_4b/relu_5x5_reduce
I0403 15:45:39.081305 16026 net.cpp:148] Top shape: 24 24 14 14 (112896)
I0403 15:45:39.081320 16026 net.cpp:156] Memory required for data: 965772576
I0403 15:45:39.081333 16026 layer_factory.hpp:77] Creating layer inception_4b/5x5
I0403 15:45:39.081354 16026 net.cpp:91] Creating Layer inception_4b/5x5
I0403 15:45:39.081372 16026 net.cpp:425] inception_4b/5x5 <- inception_4b/5x5_reduce
I0403 15:45:39.081393 16026 net.cpp:399] inception_4b/5x5 -> inception_4b/5x5
I0403 15:45:39.082631 16026 net.cpp:141] Setting up inception_4b/5x5
I0403 15:45:39.082662 16026 net.cpp:148] Top shape: 24 64 14 14 (301056)
I0403 15:45:39.082679 16026 net.cpp:156] Memory required for data: 966976800
I0403 15:45:39.082697 16026 layer_factory.hpp:77] Creating layer inception_4b/relu_5x5
I0403 15:45:39.082716 16026 net.cpp:91] Creating Layer inception_4b/relu_5x5
I0403 15:45:39.082733 16026 net.cpp:425] inception_4b/relu_5x5 <- inception_4b/5x5
I0403 15:45:39.082752 16026 net.cpp:386] inception_4b/relu_5x5 -> inception_4b/5x5 (in-place)
I0403 15:45:39.083034 16026 net.cpp:141] Setting up inception_4b/relu_5x5
I0403 15:45:39.083061 16026 net.cpp:148] Top shape: 24 64 14 14 (301056)
I0403 15:45:39.083077 16026 net.cpp:156] Memory required for data: 968181024
I0403 15:45:39.083092 16026 layer_factory.hpp:77] Creating layer inception_4b/pool
I0403 15:45:39.083109 16026 net.cpp:91] Creating Layer inception_4b/pool
I0403 15:45:39.083125 16026 net.cpp:425] inception_4b/pool <- inception_4a/output_inception_4a/output_0_split_4
I0403 15:45:39.083147 16026 net.cpp:399] inception_4b/pool -> inception_4b/pool
I0403 15:45:39.083209 16026 net.cpp:141] Setting up inception_4b/pool
I0403 15:45:39.083235 16026 net.cpp:148] Top shape: 24 512 14 14 (2408448)
I0403 15:45:39.083250 16026 net.cpp:156] Memory required for data: 977814816
I0403 15:45:39.083266 16026 layer_factory.hpp:77] Creating layer inception_4b/pool_proj
I0403 15:45:39.083286 16026 net.cpp:91] Creating Layer inception_4b/pool_proj
I0403 15:45:39.083302 16026 net.cpp:425] inception_4b/pool_proj <- inception_4b/pool
I0403 15:45:39.083323 16026 net.cpp:399] inception_4b/pool_proj -> inception_4b/pool_proj
I0403 15:45:39.084530 16026 net.cpp:141] Setting up inception_4b/pool_proj
I0403 15:45:39.084581 16026 net.cpp:148] Top shape: 24 64 14 14 (301056)
I0403 15:45:39.084599 16026 net.cpp:156] Memory required for data: 979019040
I0403 15:45:39.084617 16026 layer_factory.hpp:77] Creating layer inception_4b/relu_pool_proj
I0403 15:45:39.084637 16026 net.cpp:91] Creating Layer inception_4b/relu_pool_proj
I0403 15:45:39.084658 16026 net.cpp:425] inception_4b/relu_pool_proj <- inception_4b/pool_proj
I0403 15:45:39.084676 16026 net.cpp:386] inception_4b/relu_pool_proj -> inception_4b/pool_proj (in-place)
I0403 15:45:39.084858 16026 net.cpp:141] Setting up inception_4b/relu_pool_proj
I0403 15:45:39.084883 16026 net.cpp:148] Top shape: 24 64 14 14 (301056)
I0403 15:45:39.084897 16026 net.cpp:156] Memory required for data: 980223264
I0403 15:45:39.084921 16026 layer_factory.hpp:77] Creating layer inception_4b/output
I0403 15:45:39.084941 16026 net.cpp:91] Creating Layer inception_4b/output
I0403 15:45:39.084957 16026 net.cpp:425] inception_4b/output <- inception_4b/1x1
I0403 15:45:39.084972 16026 net.cpp:425] inception_4b/output <- inception_4b/3x3
I0403 15:45:39.084988 16026 net.cpp:425] inception_4b/output <- inception_4b/5x5
I0403 15:45:39.085005 16026 net.cpp:425] inception_4b/output <- inception_4b/pool_proj
I0403 15:45:39.085021 16026 net.cpp:399] inception_4b/output -> inception_4b/output
I0403 15:45:39.085067 16026 net.cpp:141] Setting up inception_4b/output
I0403 15:45:39.085090 16026 net.cpp:148] Top shape: 24 512 14 14 (2408448)
I0403 15:45:39.085104 16026 net.cpp:156] Memory required for data: 989857056
I0403 15:45:39.085134 16026 layer_factory.hpp:77] Creating layer inception_4b/output_inception_4b/output_0_split
I0403 15:45:39.085151 16026 net.cpp:91] Creating Layer inception_4b/output_inception_4b/output_0_split
I0403 15:45:39.085166 16026 net.cpp:425] inception_4b/output_inception_4b/output_0_split <- inception_4b/output
I0403 15:45:39.085186 16026 net.cpp:399] inception_4b/output_inception_4b/output_0_split -> inception_4b/output_inception_4b/output_0_split_0
I0403 15:45:39.085207 16026 net.cpp:399] inception_4b/output_inception_4b/output_0_split -> inception_4b/output_inception_4b/output_0_split_1
I0403 15:45:39.085227 16026 net.cpp:399] inception_4b/output_inception_4b/output_0_split -> inception_4b/output_inception_4b/output_0_split_2
I0403 15:45:39.085247 16026 net.cpp:399] inception_4b/output_inception_4b/output_0_split -> inception_4b/output_inception_4b/output_0_split_3
I0403 15:45:39.085333 16026 net.cpp:141] Setting up inception_4b/output_inception_4b/output_0_split
I0403 15:45:39.085358 16026 net.cpp:148] Top shape: 24 512 14 14 (2408448)
I0403 15:45:39.085376 16026 net.cpp:148] Top shape: 24 512 14 14 (2408448)
I0403 15:45:39.085391 16026 net.cpp:148] Top shape: 24 512 14 14 (2408448)
I0403 15:45:39.085405 16026 net.cpp:148] Top shape: 24 512 14 14 (2408448)
I0403 15:45:39.085418 16026 net.cpp:156] Memory required for data: 1028392224
I0403 15:45:39.085433 16026 layer_factory.hpp:77] Creating layer inception_4c/1x1
I0403 15:45:39.085455 16026 net.cpp:91] Creating Layer inception_4c/1x1
I0403 15:45:39.085472 16026 net.cpp:425] inception_4c/1x1 <- inception_4b/output_inception_4b/output_0_split_0
I0403 15:45:39.085491 16026 net.cpp:399] inception_4c/1x1 -> inception_4c/1x1
I0403 15:45:39.086935 16026 net.cpp:141] Setting up inception_4c/1x1
I0403 15:45:39.086963 16026 net.cpp:148] Top shape: 24 128 14 14 (602112)
I0403 15:45:39.086980 16026 net.cpp:156] Memory required for data: 1030800672
I0403 15:45:39.086999 16026 layer_factory.hpp:77] Creating layer inception_4c/relu_1x1
I0403 15:45:39.087020 16026 net.cpp:91] Creating Layer inception_4c/relu_1x1
I0403 15:45:39.087038 16026 net.cpp:425] inception_4c/relu_1x1 <- inception_4c/1x1
I0403 15:45:39.087057 16026 net.cpp:386] inception_4c/relu_1x1 -> inception_4c/1x1 (in-place)
I0403 15:45:39.087239 16026 net.cpp:141] Setting up inception_4c/relu_1x1
I0403 15:45:39.087270 16026 net.cpp:148] Top shape: 24 128 14 14 (602112)
I0403 15:45:39.087285 16026 net.cpp:156] Memory required for data: 1033209120
I0403 15:45:39.087301 16026 layer_factory.hpp:77] Creating layer inception_4c/3x3_reduce
I0403 15:45:39.087323 16026 net.cpp:91] Creating Layer inception_4c/3x3_reduce
I0403 15:45:39.087342 16026 net.cpp:425] inception_4c/3x3_reduce <- inception_4b/output_inception_4b/output_0_split_1
I0403 15:45:39.087359 16026 net.cpp:399] inception_4c/3x3_reduce -> inception_4c/3x3_reduce
I0403 15:45:39.089315 16026 net.cpp:141] Setting up inception_4c/3x3_reduce
I0403 15:45:39.089347 16026 net.cpp:148] Top shape: 24 128 14 14 (602112)
I0403 15:45:39.089365 16026 net.cpp:156] Memory required for data: 1035617568
I0403 15:45:39.089382 16026 layer_factory.hpp:77] Creating layer inception_4c/relu_3x3_reduce
I0403 15:45:39.089401 16026 net.cpp:91] Creating Layer inception_4c/relu_3x3_reduce
I0403 15:45:39.089418 16026 net.cpp:425] inception_4c/relu_3x3_reduce <- inception_4c/3x3_reduce
I0403 15:45:39.089437 16026 net.cpp:386] inception_4c/relu_3x3_reduce -> inception_4c/3x3_reduce (in-place)
I0403 15:45:39.089735 16026 net.cpp:141] Setting up inception_4c/relu_3x3_reduce
I0403 15:45:39.089761 16026 net.cpp:148] Top shape: 24 128 14 14 (602112)
I0403 15:45:39.089777 16026 net.cpp:156] Memory required for data: 1038026016
I0403 15:45:39.089793 16026 layer_factory.hpp:77] Creating layer inception_4c/3x3
I0403 15:45:39.089818 16026 net.cpp:91] Creating Layer inception_4c/3x3
I0403 15:45:39.089838 16026 net.cpp:425] inception_4c/3x3 <- inception_4c/3x3_reduce
I0403 15:45:39.089859 16026 net.cpp:399] inception_4c/3x3 -> inception_4c/3x3
I0403 15:45:39.093492 16026 net.cpp:141] Setting up inception_4c/3x3
I0403 15:45:39.093533 16026 net.cpp:148] Top shape: 24 256 14 14 (1204224)
I0403 15:45:39.093556 16026 net.cpp:156] Memory required for data: 1042842912
I0403 15:45:39.093588 16026 layer_factory.hpp:77] Creating layer inception_4c/relu_3x3
I0403 15:45:39.093611 16026 net.cpp:91] Creating Layer inception_4c/relu_3x3
I0403 15:45:39.093628 16026 net.cpp:425] inception_4c/relu_3x3 <- inception_4c/3x3
I0403 15:45:39.093649 16026 net.cpp:386] inception_4c/relu_3x3 -> inception_4c/3x3 (in-place)
I0403 15:45:39.093832 16026 net.cpp:141] Setting up inception_4c/relu_3x3
I0403 15:45:39.093857 16026 net.cpp:148] Top shape: 24 256 14 14 (1204224)
I0403 15:45:39.093871 16026 net.cpp:156] Memory required for data: 1047659808
I0403 15:45:39.093886 16026 layer_factory.hpp:77] Creating layer inception_4c/5x5_reduce
I0403 15:45:39.093910 16026 net.cpp:91] Creating Layer inception_4c/5x5_reduce
I0403 15:45:39.093930 16026 net.cpp:425] inception_4c/5x5_reduce <- inception_4b/output_inception_4b/output_0_split_2
I0403 15:45:39.093951 16026 net.cpp:399] inception_4c/5x5_reduce -> inception_4c/5x5_reduce
I0403 15:45:39.095057 16026 net.cpp:141] Setting up inception_4c/5x5_reduce
I0403 15:45:39.095085 16026 net.cpp:148] Top shape: 24 24 14 14 (112896)
I0403 15:45:39.095103 16026 net.cpp:156] Memory required for data: 1048111392
I0403 15:45:39.095121 16026 layer_factory.hpp:77] Creating layer inception_4c/relu_5x5_reduce
I0403 15:45:39.095140 16026 net.cpp:91] Creating Layer inception_4c/relu_5x5_reduce
I0403 15:45:39.095157 16026 net.cpp:425] inception_4c/relu_5x5_reduce <- inception_4c/5x5_reduce
I0403 15:45:39.095177 16026 net.cpp:386] inception_4c/relu_5x5_reduce -> inception_4c/5x5_reduce (in-place)
I0403 15:45:39.095363 16026 net.cpp:141] Setting up inception_4c/relu_5x5_reduce
I0403 15:45:39.095389 16026 net.cpp:148] Top shape: 24 24 14 14 (112896)
I0403 15:45:39.095404 16026 net.cpp:156] Memory required for data: 1048562976
I0403 15:45:39.095419 16026 layer_factory.hpp:77] Creating layer inception_4c/5x5
I0403 15:45:39.095443 16026 net.cpp:91] Creating Layer inception_4c/5x5
I0403 15:45:39.095460 16026 net.cpp:425] inception_4c/5x5 <- inception_4c/5x5_reduce
I0403 15:45:39.095481 16026 net.cpp:399] inception_4c/5x5 -> inception_4c/5x5
I0403 15:45:39.096735 16026 net.cpp:141] Setting up inception_4c/5x5
I0403 15:45:39.096762 16026 net.cpp:148] Top shape: 24 64 14 14 (301056)
I0403 15:45:39.096778 16026 net.cpp:156] Memory required for data: 1049767200
I0403 15:45:39.096796 16026 layer_factory.hpp:77] Creating layer inception_4c/relu_5x5
I0403 15:45:39.096818 16026 net.cpp:91] Creating Layer inception_4c/relu_5x5
I0403 15:45:39.096837 16026 net.cpp:425] inception_4c/relu_5x5 <- inception_4c/5x5
I0403 15:45:39.096855 16026 net.cpp:386] inception_4c/relu_5x5 -> inception_4c/5x5 (in-place)
I0403 15:45:39.097141 16026 net.cpp:141] Setting up inception_4c/relu_5x5
I0403 15:45:39.097167 16026 net.cpp:148] Top shape: 24 64 14 14 (301056)
I0403 15:45:39.097182 16026 net.cpp:156] Memory required for data: 1050971424
I0403 15:45:39.097198 16026 layer_factory.hpp:77] Creating layer inception_4c/pool
I0403 15:45:39.097218 16026 net.cpp:91] Creating Layer inception_4c/pool
I0403 15:45:39.097236 16026 net.cpp:425] inception_4c/pool <- inception_4b/output_inception_4b/output_0_split_3
I0403 15:45:39.097254 16026 net.cpp:399] inception_4c/pool -> inception_4c/pool
I0403 15:45:39.097324 16026 net.cpp:141] Setting up inception_4c/pool
I0403 15:45:39.097348 16026 net.cpp:148] Top shape: 24 512 14 14 (2408448)
I0403 15:45:39.097363 16026 net.cpp:156] Memory required for data: 1060605216
I0403 15:45:39.097378 16026 layer_factory.hpp:77] Creating layer inception_4c/pool_proj
I0403 15:45:39.097398 16026 net.cpp:91] Creating Layer inception_4c/pool_proj
I0403 15:45:39.097415 16026 net.cpp:425] inception_4c/pool_proj <- inception_4c/pool
I0403 15:45:39.097435 16026 net.cpp:399] inception_4c/pool_proj -> inception_4c/pool_proj
I0403 15:45:39.098664 16026 net.cpp:141] Setting up inception_4c/pool_proj
I0403 15:45:39.098693 16026 net.cpp:148] Top shape: 24 64 14 14 (301056)
I0403 15:45:39.098726 16026 net.cpp:156] Memory required for data: 1061809440
I0403 15:45:39.098744 16026 layer_factory.hpp:77] Creating layer inception_4c/relu_pool_proj
I0403 15:45:39.098764 16026 net.cpp:91] Creating Layer inception_4c/relu_pool_proj
I0403 15:45:39.098781 16026 net.cpp:425] inception_4c/relu_pool_proj <- inception_4c/pool_proj
I0403 15:45:39.098803 16026 net.cpp:386] inception_4c/relu_pool_proj -> inception_4c/pool_proj (in-place)
I0403 15:45:39.098986 16026 net.cpp:141] Setting up inception_4c/relu_pool_proj
I0403 15:45:39.099012 16026 net.cpp:148] Top shape: 24 64 14 14 (301056)
I0403 15:45:39.099027 16026 net.cpp:156] Memory required for data: 1063013664
I0403 15:45:39.099042 16026 layer_factory.hpp:77] Creating layer inception_4c/output
I0403 15:45:39.099058 16026 net.cpp:91] Creating Layer inception_4c/output
I0403 15:45:39.099073 16026 net.cpp:425] inception_4c/output <- inception_4c/1x1
I0403 15:45:39.099089 16026 net.cpp:425] inception_4c/output <- inception_4c/3x3
I0403 15:45:39.099105 16026 net.cpp:425] inception_4c/output <- inception_4c/5x5
I0403 15:45:39.099122 16026 net.cpp:425] inception_4c/output <- inception_4c/pool_proj
I0403 15:45:39.099140 16026 net.cpp:399] inception_4c/output -> inception_4c/output
I0403 15:45:39.099190 16026 net.cpp:141] Setting up inception_4c/output
I0403 15:45:39.099213 16026 net.cpp:148] Top shape: 24 512 14 14 (2408448)
I0403 15:45:39.099227 16026 net.cpp:156] Memory required for data: 1072647456
I0403 15:45:39.099241 16026 layer_factory.hpp:77] Creating layer inception_4c/output_inception_4c/output_0_split
I0403 15:45:39.099269 16026 net.cpp:91] Creating Layer inception_4c/output_inception_4c/output_0_split
I0403 15:45:39.099284 16026 net.cpp:425] inception_4c/output_inception_4c/output_0_split <- inception_4c/output
I0403 15:45:39.099304 16026 net.cpp:399] inception_4c/output_inception_4c/output_0_split -> inception_4c/output_inception_4c/output_0_split_0
I0403 15:45:39.099324 16026 net.cpp:399] inception_4c/output_inception_4c/output_0_split -> inception_4c/output_inception_4c/output_0_split_1
I0403 15:45:39.099345 16026 net.cpp:399] inception_4c/output_inception_4c/output_0_split -> inception_4c/output_inception_4c/output_0_split_2
I0403 15:45:39.099365 16026 net.cpp:399] inception_4c/output_inception_4c/output_0_split -> inception_4c/output_inception_4c/output_0_split_3
I0403 15:45:39.099453 16026 net.cpp:141] Setting up inception_4c/output_inception_4c/output_0_split
I0403 15:45:39.099478 16026 net.cpp:148] Top shape: 24 512 14 14 (2408448)
I0403 15:45:39.099495 16026 net.cpp:148] Top shape: 24 512 14 14 (2408448)
I0403 15:45:39.099511 16026 net.cpp:148] Top shape: 24 512 14 14 (2408448)
I0403 15:45:39.099525 16026 net.cpp:148] Top shape: 24 512 14 14 (2408448)
I0403 15:45:39.099544 16026 net.cpp:156] Memory required for data: 1111182624
I0403 15:45:39.099567 16026 layer_factory.hpp:77] Creating layer inception_4d/1x1
I0403 15:45:39.099591 16026 net.cpp:91] Creating Layer inception_4d/1x1
I0403 15:45:39.099606 16026 net.cpp:425] inception_4d/1x1 <- inception_4c/output_inception_4c/output_0_split_0
I0403 15:45:39.099625 16026 net.cpp:399] inception_4d/1x1 -> inception_4d/1x1
I0403 15:45:39.101014 16026 net.cpp:141] Setting up inception_4d/1x1
I0403 15:45:39.101043 16026 net.cpp:148] Top shape: 24 112 14 14 (526848)
I0403 15:45:39.101060 16026 net.cpp:156] Memory required for data: 1113290016
I0403 15:45:39.101078 16026 layer_factory.hpp:77] Creating layer inception_4d/relu_1x1
I0403 15:45:39.101100 16026 net.cpp:91] Creating Layer inception_4d/relu_1x1
I0403 15:45:39.101117 16026 net.cpp:425] inception_4d/relu_1x1 <- inception_4d/1x1
I0403 15:45:39.101135 16026 net.cpp:386] inception_4d/relu_1x1 -> inception_4d/1x1 (in-place)
I0403 15:45:39.101321 16026 net.cpp:141] Setting up inception_4d/relu_1x1
I0403 15:45:39.101348 16026 net.cpp:148] Top shape: 24 112 14 14 (526848)
I0403 15:45:39.101363 16026 net.cpp:156] Memory required for data: 1115397408
I0403 15:45:39.101378 16026 layer_factory.hpp:77] Creating layer inception_4d/3x3_reduce
I0403 15:45:39.101416 16026 net.cpp:91] Creating Layer inception_4d/3x3_reduce
I0403 15:45:39.101436 16026 net.cpp:425] inception_4d/3x3_reduce <- inception_4c/output_inception_4c/output_0_split_1
I0403 15:45:39.101459 16026 net.cpp:399] inception_4d/3x3_reduce -> inception_4d/3x3_reduce
I0403 15:45:39.102993 16026 net.cpp:141] Setting up inception_4d/3x3_reduce
I0403 15:45:39.103023 16026 net.cpp:148] Top shape: 24 144 14 14 (677376)
I0403 15:45:39.103039 16026 net.cpp:156] Memory required for data: 1118106912
I0403 15:45:39.103057 16026 layer_factory.hpp:77] Creating layer inception_4d/relu_3x3_reduce
I0403 15:45:39.103078 16026 net.cpp:91] Creating Layer inception_4d/relu_3x3_reduce
I0403 15:45:39.103096 16026 net.cpp:425] inception_4d/relu_3x3_reduce <- inception_4d/3x3_reduce
I0403 15:45:39.103114 16026 net.cpp:386] inception_4d/relu_3x3_reduce -> inception_4d/3x3_reduce (in-place)
I0403 15:45:39.103409 16026 net.cpp:141] Setting up inception_4d/relu_3x3_reduce
I0403 15:45:39.103435 16026 net.cpp:148] Top shape: 24 144 14 14 (677376)
I0403 15:45:39.103451 16026 net.cpp:156] Memory required for data: 1120816416
I0403 15:45:39.103466 16026 layer_factory.hpp:77] Creating layer inception_4d/3x3
I0403 15:45:39.103488 16026 net.cpp:91] Creating Layer inception_4d/3x3
I0403 15:45:39.103507 16026 net.cpp:425] inception_4d/3x3 <- inception_4d/3x3_reduce
I0403 15:45:39.103528 16026 net.cpp:399] inception_4d/3x3 -> inception_4d/3x3
I0403 15:45:39.107945 16026 net.cpp:141] Setting up inception_4d/3x3
I0403 15:45:39.107981 16026 net.cpp:148] Top shape: 24 288 14 14 (1354752)
I0403 15:45:39.108000 16026 net.cpp:156] Memory required for data: 1126235424
I0403 15:45:39.108017 16026 layer_factory.hpp:77] Creating layer inception_4d/relu_3x3
I0403 15:45:39.108036 16026 net.cpp:91] Creating Layer inception_4d/relu_3x3
I0403 15:45:39.108053 16026 net.cpp:425] inception_4d/relu_3x3 <- inception_4d/3x3
I0403 15:45:39.108069 16026 net.cpp:386] inception_4d/relu_3x3 -> inception_4d/3x3 (in-place)
I0403 15:45:39.108256 16026 net.cpp:141] Setting up inception_4d/relu_3x3
I0403 15:45:39.108283 16026 net.cpp:148] Top shape: 24 288 14 14 (1354752)
I0403 15:45:39.108297 16026 net.cpp:156] Memory required for data: 1131654432
I0403 15:45:39.108311 16026 layer_factory.hpp:77] Creating layer inception_4d/5x5_reduce
I0403 15:45:39.108332 16026 net.cpp:91] Creating Layer inception_4d/5x5_reduce
I0403 15:45:39.108350 16026 net.cpp:425] inception_4d/5x5_reduce <- inception_4c/output_inception_4c/output_0_split_2
I0403 15:45:39.108371 16026 net.cpp:399] inception_4d/5x5_reduce -> inception_4d/5x5_reduce
I0403 15:45:39.109527 16026 net.cpp:141] Setting up inception_4d/5x5_reduce
I0403 15:45:39.109562 16026 net.cpp:148] Top shape: 24 32 14 14 (150528)
I0403 15:45:39.109581 16026 net.cpp:156] Memory required for data: 1132256544
I0403 15:45:39.109601 16026 layer_factory.hpp:77] Creating layer inception_4d/relu_5x5_reduce
I0403 15:45:39.109618 16026 net.cpp:91] Creating Layer inception_4d/relu_5x5_reduce
I0403 15:45:39.109633 16026 net.cpp:425] inception_4d/relu_5x5_reduce <- inception_4d/5x5_reduce
I0403 15:45:39.109653 16026 net.cpp:386] inception_4d/relu_5x5_reduce -> inception_4d/5x5_reduce (in-place)
I0403 15:45:39.109841 16026 net.cpp:141] Setting up inception_4d/relu_5x5_reduce
I0403 15:45:39.109868 16026 net.cpp:148] Top shape: 24 32 14 14 (150528)
I0403 15:45:39.109882 16026 net.cpp:156] Memory required for data: 1132858656
I0403 15:45:39.109899 16026 layer_factory.hpp:77] Creating layer inception_4d/5x5
I0403 15:45:39.109920 16026 net.cpp:91] Creating Layer inception_4d/5x5
I0403 15:45:39.109938 16026 net.cpp:425] inception_4d/5x5 <- inception_4d/5x5_reduce
I0403 15:45:39.109959 16026 net.cpp:399] inception_4d/5x5 -> inception_4d/5x5
I0403 15:45:39.111452 16026 net.cpp:141] Setting up inception_4d/5x5
I0403 15:45:39.111480 16026 net.cpp:148] Top shape: 24 64 14 14 (301056)
I0403 15:45:39.111498 16026 net.cpp:156] Memory required for data: 1134062880
I0403 15:45:39.111517 16026 layer_factory.hpp:77] Creating layer inception_4d/relu_5x5
I0403 15:45:39.111554 16026 net.cpp:91] Creating Layer inception_4d/relu_5x5
I0403 15:45:39.111583 16026 net.cpp:425] inception_4d/relu_5x5 <- inception_4d/5x5
I0403 15:45:39.111603 16026 net.cpp:386] inception_4d/relu_5x5 -> inception_4d/5x5 (in-place)
I0403 15:45:39.111907 16026 net.cpp:141] Setting up inception_4d/relu_5x5
I0403 15:45:39.111932 16026 net.cpp:148] Top shape: 24 64 14 14 (301056)
I0403 15:45:39.111948 16026 net.cpp:156] Memory required for data: 1135267104
I0403 15:45:39.111961 16026 layer_factory.hpp:77] Creating layer inception_4d/pool
I0403 15:45:39.111979 16026 net.cpp:91] Creating Layer inception_4d/pool
I0403 15:45:39.111994 16026 net.cpp:425] inception_4d/pool <- inception_4c/output_inception_4c/output_0_split_3
I0403 15:45:39.112015 16026 net.cpp:399] inception_4d/pool -> inception_4d/pool
I0403 15:45:39.112082 16026 net.cpp:141] Setting up inception_4d/pool
I0403 15:45:39.112107 16026 net.cpp:148] Top shape: 24 512 14 14 (2408448)
I0403 15:45:39.112120 16026 net.cpp:156] Memory required for data: 1144900896
I0403 15:45:39.112134 16026 layer_factory.hpp:77] Creating layer inception_4d/pool_proj
I0403 15:45:39.112157 16026 net.cpp:91] Creating Layer inception_4d/pool_proj
I0403 15:45:39.112174 16026 net.cpp:425] inception_4d/pool_proj <- inception_4d/pool
I0403 15:45:39.112192 16026 net.cpp:399] inception_4d/pool_proj -> inception_4d/pool_proj
I0403 15:45:39.113982 16026 net.cpp:141] Setting up inception_4d/pool_proj
I0403 15:45:39.114014 16026 net.cpp:148] Top shape: 24 64 14 14 (301056)
I0403 15:45:39.114032 16026 net.cpp:156] Memory required for data: 1146105120
I0403 15:45:39.114050 16026 layer_factory.hpp:77] Creating layer inception_4d/relu_pool_proj
I0403 15:45:39.114068 16026 net.cpp:91] Creating Layer inception_4d/relu_pool_proj
I0403 15:45:39.114085 16026 net.cpp:425] inception_4d/relu_pool_proj <- inception_4d/pool_proj
I0403 15:45:39.114101 16026 net.cpp:386] inception_4d/relu_pool_proj -> inception_4d/pool_proj (in-place)
I0403 15:45:39.114302 16026 net.cpp:141] Setting up inception_4d/relu_pool_proj
I0403 15:45:39.114326 16026 net.cpp:148] Top shape: 24 64 14 14 (301056)
I0403 15:45:39.114341 16026 net.cpp:156] Memory required for data: 1147309344
I0403 15:45:39.114354 16026 layer_factory.hpp:77] Creating layer inception_4d/output
I0403 15:45:39.114370 16026 net.cpp:91] Creating Layer inception_4d/output
I0403 15:45:39.114384 16026 net.cpp:425] inception_4d/output <- inception_4d/1x1
I0403 15:45:39.114399 16026 net.cpp:425] inception_4d/output <- inception_4d/3x3
I0403 15:45:39.114414 16026 net.cpp:425] inception_4d/output <- inception_4d/5x5
I0403 15:45:39.114429 16026 net.cpp:425] inception_4d/output <- inception_4d/pool_proj
I0403 15:45:39.114447 16026 net.cpp:399] inception_4d/output -> inception_4d/output
I0403 15:45:39.114493 16026 net.cpp:141] Setting up inception_4d/output
I0403 15:45:39.114518 16026 net.cpp:148] Top shape: 24 528 14 14 (2483712)
I0403 15:45:39.114532 16026 net.cpp:156] Memory required for data: 1157244192
I0403 15:45:39.114559 16026 layer_factory.hpp:77] Creating layer inception_4d/output_inception_4d/output_0_split
I0403 15:45:39.114578 16026 net.cpp:91] Creating Layer inception_4d/output_inception_4d/output_0_split
I0403 15:45:39.114593 16026 net.cpp:425] inception_4d/output_inception_4d/output_0_split <- inception_4d/output
I0403 15:45:39.114614 16026 net.cpp:399] inception_4d/output_inception_4d/output_0_split -> inception_4d/output_inception_4d/output_0_split_0
I0403 15:45:39.114634 16026 net.cpp:399] inception_4d/output_inception_4d/output_0_split -> inception_4d/output_inception_4d/output_0_split_1
I0403 15:45:39.114655 16026 net.cpp:399] inception_4d/output_inception_4d/output_0_split -> inception_4d/output_inception_4d/output_0_split_2
I0403 15:45:39.114675 16026 net.cpp:399] inception_4d/output_inception_4d/output_0_split -> inception_4d/output_inception_4d/output_0_split_3
I0403 15:45:39.114693 16026 net.cpp:399] inception_4d/output_inception_4d/output_0_split -> inception_4d/output_inception_4d/output_0_split_4
I0403 15:45:39.114795 16026 net.cpp:141] Setting up inception_4d/output_inception_4d/output_0_split
I0403 15:45:39.114841 16026 net.cpp:148] Top shape: 24 528 14 14 (2483712)
I0403 15:45:39.114858 16026 net.cpp:148] Top shape: 24 528 14 14 (2483712)
I0403 15:45:39.114886 16026 net.cpp:148] Top shape: 24 528 14 14 (2483712)
I0403 15:45:39.114902 16026 net.cpp:148] Top shape: 24 528 14 14 (2483712)
I0403 15:45:39.114917 16026 net.cpp:148] Top shape: 24 528 14 14 (2483712)
I0403 15:45:39.114931 16026 net.cpp:156] Memory required for data: 1206918432
I0403 15:45:39.114948 16026 layer_factory.hpp:77] Creating layer loss2/ave_pool
I0403 15:45:39.114969 16026 net.cpp:91] Creating Layer loss2/ave_pool
I0403 15:45:39.114987 16026 net.cpp:425] loss2/ave_pool <- inception_4d/output_inception_4d/output_0_split_0
I0403 15:45:39.115006 16026 net.cpp:399] loss2/ave_pool -> loss2/ave_pool
I0403 15:45:39.115334 16026 net.cpp:141] Setting up loss2/ave_pool
I0403 15:45:39.115362 16026 net.cpp:148] Top shape: 24 528 4 4 (202752)
I0403 15:45:39.115377 16026 net.cpp:156] Memory required for data: 1207729440
I0403 15:45:39.115391 16026 layer_factory.hpp:77] Creating layer loss2/conv
I0403 15:45:39.115411 16026 net.cpp:91] Creating Layer loss2/conv
I0403 15:45:39.115428 16026 net.cpp:425] loss2/conv <- loss2/ave_pool
I0403 15:45:39.115447 16026 net.cpp:399] loss2/conv -> loss2/conv
I0403 15:45:39.117316 16026 net.cpp:141] Setting up loss2/conv
I0403 15:45:39.117344 16026 net.cpp:148] Top shape: 24 128 4 4 (49152)
I0403 15:45:39.117359 16026 net.cpp:156] Memory required for data: 1207926048
I0403 15:45:39.117377 16026 layer_factory.hpp:77] Creating layer loss2/relu_conv
I0403 15:45:39.117398 16026 net.cpp:91] Creating Layer loss2/relu_conv
I0403 15:45:39.117414 16026 net.cpp:425] loss2/relu_conv <- loss2/conv
I0403 15:45:39.117434 16026 net.cpp:386] loss2/relu_conv -> loss2/conv (in-place)
I0403 15:45:39.117717 16026 net.cpp:141] Setting up loss2/relu_conv
I0403 15:45:39.117743 16026 net.cpp:148] Top shape: 24 128 4 4 (49152)
I0403 15:45:39.117758 16026 net.cpp:156] Memory required for data: 1208122656
I0403 15:45:39.117774 16026 layer_factory.hpp:77] Creating layer loss2/fc
I0403 15:45:39.117796 16026 net.cpp:91] Creating Layer loss2/fc
I0403 15:45:39.117815 16026 net.cpp:425] loss2/fc <- loss2/conv
I0403 15:45:39.117833 16026 net.cpp:399] loss2/fc -> loss2/fc
I0403 15:45:39.135262 16026 net.cpp:141] Setting up loss2/fc
I0403 15:45:39.135295 16026 net.cpp:148] Top shape: 24 1024 (24576)
I0403 15:45:39.135311 16026 net.cpp:156] Memory required for data: 1208220960
I0403 15:45:39.135329 16026 layer_factory.hpp:77] Creating layer loss2/relu_fc
I0403 15:45:39.135349 16026 net.cpp:91] Creating Layer loss2/relu_fc
I0403 15:45:39.135365 16026 net.cpp:425] loss2/relu_fc <- loss2/fc
I0403 15:45:39.135383 16026 net.cpp:386] loss2/relu_fc -> loss2/fc (in-place)
I0403 15:45:39.135679 16026 net.cpp:141] Setting up loss2/relu_fc
I0403 15:45:39.135707 16026 net.cpp:148] Top shape: 24 1024 (24576)
I0403 15:45:39.135723 16026 net.cpp:156] Memory required for data: 1208319264
I0403 15:45:39.135738 16026 layer_factory.hpp:77] Creating layer loss2/drop_fc
I0403 15:45:39.135757 16026 net.cpp:91] Creating Layer loss2/drop_fc
I0403 15:45:39.135774 16026 net.cpp:425] loss2/drop_fc <- loss2/fc
I0403 15:45:39.135793 16026 net.cpp:386] loss2/drop_fc -> loss2/fc (in-place)
I0403 15:45:39.135840 16026 net.cpp:141] Setting up loss2/drop_fc
I0403 15:45:39.135862 16026 net.cpp:148] Top shape: 24 1024 (24576)
I0403 15:45:39.135876 16026 net.cpp:156] Memory required for data: 1208417568
I0403 15:45:39.135890 16026 layer_factory.hpp:77] Creating layer loss2/classifier_plantvillage
I0403 15:45:39.135910 16026 net.cpp:91] Creating Layer loss2/classifier_plantvillage
I0403 15:45:39.135926 16026 net.cpp:425] loss2/classifier_plantvillage <- loss2/fc
I0403 15:45:39.135946 16026 net.cpp:399] loss2/classifier_plantvillage -> loss2/classifier_plantvillage
I0403 15:45:39.136332 16026 net.cpp:141] Setting up loss2/classifier_plantvillage
I0403 15:45:39.136356 16026 net.cpp:148] Top shape: 24 38 (912)
I0403 15:45:39.136371 16026 net.cpp:156] Memory required for data: 1208421216
I0403 15:45:39.136404 16026 layer_factory.hpp:77] Creating layer loss2/classifier_plantvillage_loss2/classifier_plantvillage_0_split
I0403 15:45:39.136425 16026 net.cpp:91] Creating Layer loss2/classifier_plantvillage_loss2/classifier_plantvillage_0_split
I0403 15:45:39.136441 16026 net.cpp:425] loss2/classifier_plantvillage_loss2/classifier_plantvillage_0_split <- loss2/classifier_plantvillage
I0403 15:45:39.136458 16026 net.cpp:399] loss2/classifier_plantvillage_loss2/classifier_plantvillage_0_split -> loss2/classifier_plantvillage_loss2/classifier_plantvillage_0_split_0
I0403 15:45:39.136477 16026 net.cpp:399] loss2/classifier_plantvillage_loss2/classifier_plantvillage_0_split -> loss2/classifier_plantvillage_loss2/classifier_plantvillage_0_split_1
I0403 15:45:39.136497 16026 net.cpp:399] loss2/classifier_plantvillage_loss2/classifier_plantvillage_0_split -> loss2/classifier_plantvillage_loss2/classifier_plantvillage_0_split_2
I0403 15:45:39.136595 16026 net.cpp:141] Setting up loss2/classifier_plantvillage_loss2/classifier_plantvillage_0_split
I0403 15:45:39.136627 16026 net.cpp:148] Top shape: 24 38 (912)
I0403 15:45:39.136642 16026 net.cpp:148] Top shape: 24 38 (912)
I0403 15:45:39.136656 16026 net.cpp:148] Top shape: 24 38 (912)
I0403 15:45:39.136669 16026 net.cpp:156] Memory required for data: 1208432160
I0403 15:45:39.136683 16026 layer_factory.hpp:77] Creating layer inception_4e/1x1
I0403 15:45:39.136703 16026 net.cpp:91] Creating Layer inception_4e/1x1
I0403 15:45:39.136718 16026 net.cpp:425] inception_4e/1x1 <- inception_4d/output_inception_4d/output_0_split_1
I0403 15:45:39.136736 16026 net.cpp:399] inception_4e/1x1 -> inception_4e/1x1
I0403 15:45:39.138525 16026 net.cpp:141] Setting up inception_4e/1x1
I0403 15:45:39.138556 16026 net.cpp:148] Top shape: 24 256 14 14 (1204224)
I0403 15:45:39.138573 16026 net.cpp:156] Memory required for data: 1213249056
I0403 15:45:39.138592 16026 layer_factory.hpp:77] Creating layer inception_4e/relu_1x1
I0403 15:45:39.138612 16026 net.cpp:91] Creating Layer inception_4e/relu_1x1
I0403 15:45:39.138628 16026 net.cpp:425] inception_4e/relu_1x1 <- inception_4e/1x1
I0403 15:45:39.138644 16026 net.cpp:386] inception_4e/relu_1x1 -> inception_4e/1x1 (in-place)
I0403 15:45:39.138945 16026 net.cpp:141] Setting up inception_4e/relu_1x1
I0403 15:45:39.138970 16026 net.cpp:148] Top shape: 24 256 14 14 (1204224)
I0403 15:45:39.138985 16026 net.cpp:156] Memory required for data: 1218065952
I0403 15:45:39.138999 16026 layer_factory.hpp:77] Creating layer inception_4e/3x3_reduce
I0403 15:45:39.139021 16026 net.cpp:91] Creating Layer inception_4e/3x3_reduce
I0403 15:45:39.139039 16026 net.cpp:425] inception_4e/3x3_reduce <- inception_4d/output_inception_4d/output_0_split_2
I0403 15:45:39.139060 16026 net.cpp:399] inception_4e/3x3_reduce -> inception_4e/3x3_reduce
I0403 15:45:39.141160 16026 net.cpp:141] Setting up inception_4e/3x3_reduce
I0403 15:45:39.141190 16026 net.cpp:148] Top shape: 24 160 14 14 (752640)
I0403 15:45:39.141204 16026 net.cpp:156] Memory required for data: 1221076512
I0403 15:45:39.141222 16026 layer_factory.hpp:77] Creating layer inception_4e/relu_3x3_reduce
I0403 15:45:39.141242 16026 net.cpp:91] Creating Layer inception_4e/relu_3x3_reduce
I0403 15:45:39.141258 16026 net.cpp:425] inception_4e/relu_3x3_reduce <- inception_4e/3x3_reduce
I0403 15:45:39.141274 16026 net.cpp:386] inception_4e/relu_3x3_reduce -> inception_4e/3x3_reduce (in-place)
I0403 15:45:39.141458 16026 net.cpp:141] Setting up inception_4e/relu_3x3_reduce
I0403 15:45:39.141481 16026 net.cpp:148] Top shape: 24 160 14 14 (752640)
I0403 15:45:39.141495 16026 net.cpp:156] Memory required for data: 1224087072
I0403 15:45:39.141510 16026 layer_factory.hpp:77] Creating layer inception_4e/3x3
I0403 15:45:39.141530 16026 net.cpp:91] Creating Layer inception_4e/3x3
I0403 15:45:39.141551 16026 net.cpp:425] inception_4e/3x3 <- inception_4e/3x3_reduce
I0403 15:45:39.141572 16026 net.cpp:399] inception_4e/3x3 -> inception_4e/3x3
I0403 15:45:39.146487 16026 net.cpp:141] Setting up inception_4e/3x3
I0403 15:45:39.146529 16026 net.cpp:148] Top shape: 24 320 14 14 (1505280)
I0403 15:45:39.146564 16026 net.cpp:156] Memory required for data: 1230108192
I0403 15:45:39.146582 16026 layer_factory.hpp:77] Creating layer inception_4e/relu_3x3
I0403 15:45:39.146603 16026 net.cpp:91] Creating Layer inception_4e/relu_3x3
I0403 15:45:39.146621 16026 net.cpp:425] inception_4e/relu_3x3 <- inception_4e/3x3
I0403 15:45:39.146639 16026 net.cpp:386] inception_4e/relu_3x3 -> inception_4e/3x3 (in-place)
I0403 15:45:39.146935 16026 net.cpp:141] Setting up inception_4e/relu_3x3
I0403 15:45:39.146965 16026 net.cpp:148] Top shape: 24 320 14 14 (1505280)
I0403 15:45:39.146981 16026 net.cpp:156] Memory required for data: 1236129312
I0403 15:45:39.146994 16026 layer_factory.hpp:77] Creating layer inception_4e/5x5_reduce
I0403 15:45:39.147017 16026 net.cpp:91] Creating Layer inception_4e/5x5_reduce
I0403 15:45:39.147035 16026 net.cpp:425] inception_4e/5x5_reduce <- inception_4d/output_inception_4d/output_0_split_3
I0403 15:45:39.147055 16026 net.cpp:399] inception_4e/5x5_reduce -> inception_4e/5x5_reduce
I0403 15:45:39.148104 16026 net.cpp:141] Setting up inception_4e/5x5_reduce
I0403 15:45:39.148130 16026 net.cpp:148] Top shape: 24 32 14 14 (150528)
I0403 15:45:39.148145 16026 net.cpp:156] Memory required for data: 1236731424
I0403 15:45:39.148162 16026 layer_factory.hpp:77] Creating layer inception_4e/relu_5x5_reduce
I0403 15:45:39.148180 16026 net.cpp:91] Creating Layer inception_4e/relu_5x5_reduce
I0403 15:45:39.148195 16026 net.cpp:425] inception_4e/relu_5x5_reduce <- inception_4e/5x5_reduce
I0403 15:45:39.148213 16026 net.cpp:386] inception_4e/relu_5x5_reduce -> inception_4e/5x5_reduce (in-place)
I0403 15:45:39.148505 16026 net.cpp:141] Setting up inception_4e/relu_5x5_reduce
I0403 15:45:39.148531 16026 net.cpp:148] Top shape: 24 32 14 14 (150528)
I0403 15:45:39.148550 16026 net.cpp:156] Memory required for data: 1237333536
I0403 15:45:39.148564 16026 layer_factory.hpp:77] Creating layer inception_4e/5x5
I0403 15:45:39.148602 16026 net.cpp:91] Creating Layer inception_4e/5x5
I0403 15:45:39.148620 16026 net.cpp:425] inception_4e/5x5 <- inception_4e/5x5_reduce
I0403 15:45:39.148639 16026 net.cpp:399] inception_4e/5x5 -> inception_4e/5x5
I0403 15:45:39.150485 16026 net.cpp:141] Setting up inception_4e/5x5
I0403 15:45:39.150513 16026 net.cpp:148] Top shape: 24 128 14 14 (602112)
I0403 15:45:39.150528 16026 net.cpp:156] Memory required for data: 1239741984
I0403 15:45:39.150552 16026 layer_factory.hpp:77] Creating layer inception_4e/relu_5x5
I0403 15:45:39.150573 16026 net.cpp:91] Creating Layer inception_4e/relu_5x5
I0403 15:45:39.150588 16026 net.cpp:425] inception_4e/relu_5x5 <- inception_4e/5x5
I0403 15:45:39.150606 16026 net.cpp:386] inception_4e/relu_5x5 -> inception_4e/5x5 (in-place)
I0403 15:45:39.150801 16026 net.cpp:141] Setting up inception_4e/relu_5x5
I0403 15:45:39.150826 16026 net.cpp:148] Top shape: 24 128 14 14 (602112)
I0403 15:45:39.150841 16026 net.cpp:156] Memory required for data: 1242150432
I0403 15:45:39.150856 16026 layer_factory.hpp:77] Creating layer inception_4e/pool
I0403 15:45:39.150876 16026 net.cpp:91] Creating Layer inception_4e/pool
I0403 15:45:39.150893 16026 net.cpp:425] inception_4e/pool <- inception_4d/output_inception_4d/output_0_split_4
I0403 15:45:39.150910 16026 net.cpp:399] inception_4e/pool -> inception_4e/pool
I0403 15:45:39.150980 16026 net.cpp:141] Setting up inception_4e/pool
I0403 15:45:39.151005 16026 net.cpp:148] Top shape: 24 528 14 14 (2483712)
I0403 15:45:39.151018 16026 net.cpp:156] Memory required for data: 1252085280
I0403 15:45:39.151033 16026 layer_factory.hpp:77] Creating layer inception_4e/pool_proj
I0403 15:45:39.151054 16026 net.cpp:91] Creating Layer inception_4e/pool_proj
I0403 15:45:39.151073 16026 net.cpp:425] inception_4e/pool_proj <- inception_4e/pool
I0403 15:45:39.151093 16026 net.cpp:399] inception_4e/pool_proj -> inception_4e/pool_proj
I0403 15:45:39.152570 16026 net.cpp:141] Setting up inception_4e/pool_proj
I0403 15:45:39.152601 16026 net.cpp:148] Top shape: 24 128 14 14 (602112)
I0403 15:45:39.152632 16026 net.cpp:156] Memory required for data: 1254493728
I0403 15:45:39.152652 16026 layer_factory.hpp:77] Creating layer inception_4e/relu_pool_proj
I0403 15:45:39.152669 16026 net.cpp:91] Creating Layer inception_4e/relu_pool_proj
I0403 15:45:39.152685 16026 net.cpp:425] inception_4e/relu_pool_proj <- inception_4e/pool_proj
I0403 15:45:39.152704 16026 net.cpp:386] inception_4e/relu_pool_proj -> inception_4e/pool_proj (in-place)
I0403 15:45:39.152997 16026 net.cpp:141] Setting up inception_4e/relu_pool_proj
I0403 15:45:39.153026 16026 net.cpp:148] Top shape: 24 128 14 14 (602112)
I0403 15:45:39.153041 16026 net.cpp:156] Memory required for data: 1256902176
I0403 15:45:39.153055 16026 layer_factory.hpp:77] Creating layer inception_4e/output
I0403 15:45:39.153071 16026 net.cpp:91] Creating Layer inception_4e/output
I0403 15:45:39.153085 16026 net.cpp:425] inception_4e/output <- inception_4e/1x1
I0403 15:45:39.153101 16026 net.cpp:425] inception_4e/output <- inception_4e/3x3
I0403 15:45:39.153116 16026 net.cpp:425] inception_4e/output <- inception_4e/5x5
I0403 15:45:39.153131 16026 net.cpp:425] inception_4e/output <- inception_4e/pool_proj
I0403 15:45:39.153146 16026 net.cpp:399] inception_4e/output -> inception_4e/output
I0403 15:45:39.153195 16026 net.cpp:141] Setting up inception_4e/output
I0403 15:45:39.153218 16026 net.cpp:148] Top shape: 24 832 14 14 (3913728)
I0403 15:45:39.153231 16026 net.cpp:156] Memory required for data: 1272557088
I0403 15:45:39.153245 16026 layer_factory.hpp:77] Creating layer pool4/3x3_s2
I0403 15:45:39.153265 16026 net.cpp:91] Creating Layer pool4/3x3_s2
I0403 15:45:39.153281 16026 net.cpp:425] pool4/3x3_s2 <- inception_4e/output
I0403 15:45:39.153298 16026 net.cpp:399] pool4/3x3_s2 -> pool4/3x3_s2
I0403 15:45:39.153363 16026 net.cpp:141] Setting up pool4/3x3_s2
I0403 15:45:39.153386 16026 net.cpp:148] Top shape: 24 832 7 7 (978432)
I0403 15:45:39.153400 16026 net.cpp:156] Memory required for data: 1276470816
I0403 15:45:39.153414 16026 layer_factory.hpp:77] Creating layer pool4/3x3_s2_pool4/3x3_s2_0_split
I0403 15:45:39.153429 16026 net.cpp:91] Creating Layer pool4/3x3_s2_pool4/3x3_s2_0_split
I0403 15:45:39.153445 16026 net.cpp:425] pool4/3x3_s2_pool4/3x3_s2_0_split <- pool4/3x3_s2
I0403 15:45:39.153462 16026 net.cpp:399] pool4/3x3_s2_pool4/3x3_s2_0_split -> pool4/3x3_s2_pool4/3x3_s2_0_split_0
I0403 15:45:39.153482 16026 net.cpp:399] pool4/3x3_s2_pool4/3x3_s2_0_split -> pool4/3x3_s2_pool4/3x3_s2_0_split_1
I0403 15:45:39.153501 16026 net.cpp:399] pool4/3x3_s2_pool4/3x3_s2_0_split -> pool4/3x3_s2_pool4/3x3_s2_0_split_2
I0403 15:45:39.153520 16026 net.cpp:399] pool4/3x3_s2_pool4/3x3_s2_0_split -> pool4/3x3_s2_pool4/3x3_s2_0_split_3
I0403 15:45:39.153614 16026 net.cpp:141] Setting up pool4/3x3_s2_pool4/3x3_s2_0_split
I0403 15:45:39.153638 16026 net.cpp:148] Top shape: 24 832 7 7 (978432)
I0403 15:45:39.153655 16026 net.cpp:148] Top shape: 24 832 7 7 (978432)
I0403 15:45:39.153669 16026 net.cpp:148] Top shape: 24 832 7 7 (978432)
I0403 15:45:39.153683 16026 net.cpp:148] Top shape: 24 832 7 7 (978432)
I0403 15:45:39.153697 16026 net.cpp:156] Memory required for data: 1292125728
I0403 15:45:39.153709 16026 layer_factory.hpp:77] Creating layer inception_5a/1x1
I0403 15:45:39.153730 16026 net.cpp:91] Creating Layer inception_5a/1x1
I0403 15:45:39.153748 16026 net.cpp:425] inception_5a/1x1 <- pool4/3x3_s2_pool4/3x3_s2_0_split_0
I0403 15:45:39.153765 16026 net.cpp:399] inception_5a/1x1 -> inception_5a/1x1
I0403 15:45:39.156601 16026 net.cpp:141] Setting up inception_5a/1x1
I0403 15:45:39.156630 16026 net.cpp:148] Top shape: 24 256 7 7 (301056)
I0403 15:45:39.156647 16026 net.cpp:156] Memory required for data: 1293329952
I0403 15:45:39.156666 16026 layer_factory.hpp:77] Creating layer inception_5a/relu_1x1
I0403 15:45:39.156683 16026 net.cpp:91] Creating Layer inception_5a/relu_1x1
I0403 15:45:39.156699 16026 net.cpp:425] inception_5a/relu_1x1 <- inception_5a/1x1
I0403 15:45:39.156719 16026 net.cpp:386] inception_5a/relu_1x1 -> inception_5a/1x1 (in-place)
I0403 15:45:39.157024 16026 net.cpp:141] Setting up inception_5a/relu_1x1
I0403 15:45:39.157050 16026 net.cpp:148] Top shape: 24 256 7 7 (301056)
I0403 15:45:39.157065 16026 net.cpp:156] Memory required for data: 1294534176
I0403 15:45:39.157078 16026 layer_factory.hpp:77] Creating layer inception_5a/3x3_reduce
I0403 15:45:39.157100 16026 net.cpp:91] Creating Layer inception_5a/3x3_reduce
I0403 15:45:39.157117 16026 net.cpp:425] inception_5a/3x3_reduce <- pool4/3x3_s2_pool4/3x3_s2_0_split_1
I0403 15:45:39.157137 16026 net.cpp:399] inception_5a/3x3_reduce -> inception_5a/3x3_reduce
I0403 15:45:39.159543 16026 net.cpp:141] Setting up inception_5a/3x3_reduce
I0403 15:45:39.159574 16026 net.cpp:148] Top shape: 24 160 7 7 (188160)
I0403 15:45:39.159591 16026 net.cpp:156] Memory required for data: 1295286816
I0403 15:45:39.159610 16026 layer_factory.hpp:77] Creating layer inception_5a/relu_3x3_reduce
I0403 15:45:39.159629 16026 net.cpp:91] Creating Layer inception_5a/relu_3x3_reduce
I0403 15:45:39.159646 16026 net.cpp:425] inception_5a/relu_3x3_reduce <- inception_5a/3x3_reduce
I0403 15:45:39.159664 16026 net.cpp:386] inception_5a/relu_3x3_reduce -> inception_5a/3x3_reduce (in-place)
I0403 15:45:39.159852 16026 net.cpp:141] Setting up inception_5a/relu_3x3_reduce
I0403 15:45:39.159878 16026 net.cpp:148] Top shape: 24 160 7 7 (188160)
I0403 15:45:39.159894 16026 net.cpp:156] Memory required for data: 1296039456
I0403 15:45:39.159909 16026 layer_factory.hpp:77] Creating layer inception_5a/3x3
I0403 15:45:39.159930 16026 net.cpp:91] Creating Layer inception_5a/3x3
I0403 15:45:39.159948 16026 net.cpp:425] inception_5a/3x3 <- inception_5a/3x3_reduce
I0403 15:45:39.159970 16026 net.cpp:399] inception_5a/3x3 -> inception_5a/3x3
I0403 15:45:39.164950 16026 net.cpp:141] Setting up inception_5a/3x3
I0403 15:45:39.164981 16026 net.cpp:148] Top shape: 24 320 7 7 (376320)
I0403 15:45:39.164996 16026 net.cpp:156] Memory required for data: 1297544736
I0403 15:45:39.165014 16026 layer_factory.hpp:77] Creating layer inception_5a/relu_3x3
I0403 15:45:39.165031 16026 net.cpp:91] Creating Layer inception_5a/relu_3x3
I0403 15:45:39.165047 16026 net.cpp:425] inception_5a/relu_3x3 <- inception_5a/3x3
I0403 15:45:39.165067 16026 net.cpp:386] inception_5a/relu_3x3 -> inception_5a/3x3 (in-place)
I0403 15:45:39.165364 16026 net.cpp:141] Setting up inception_5a/relu_3x3
I0403 15:45:39.165390 16026 net.cpp:148] Top shape: 24 320 7 7 (376320)
I0403 15:45:39.165403 16026 net.cpp:156] Memory required for data: 1299050016
I0403 15:45:39.165416 16026 layer_factory.hpp:77] Creating layer inception_5a/5x5_reduce
I0403 15:45:39.165438 16026 net.cpp:91] Creating Layer inception_5a/5x5_reduce
I0403 15:45:39.165455 16026 net.cpp:425] inception_5a/5x5_reduce <- pool4/3x3_s2_pool4/3x3_s2_0_split_2
I0403 15:45:39.165488 16026 net.cpp:399] inception_5a/5x5_reduce -> inception_5a/5x5_reduce
I0403 15:45:39.166677 16026 net.cpp:141] Setting up inception_5a/5x5_reduce
I0403 15:45:39.166709 16026 net.cpp:148] Top shape: 24 32 7 7 (37632)
I0403 15:45:39.166726 16026 net.cpp:156] Memory required for data: 1299200544
I0403 15:45:39.166745 16026 layer_factory.hpp:77] Creating layer inception_5a/relu_5x5_reduce
I0403 15:45:39.166765 16026 net.cpp:91] Creating Layer inception_5a/relu_5x5_reduce
I0403 15:45:39.166782 16026 net.cpp:425] inception_5a/relu_5x5_reduce <- inception_5a/5x5_reduce
I0403 15:45:39.166798 16026 net.cpp:386] inception_5a/relu_5x5_reduce -> inception_5a/5x5_reduce (in-place)
I0403 15:45:39.167106 16026 net.cpp:141] Setting up inception_5a/relu_5x5_reduce
I0403 15:45:39.167132 16026 net.cpp:148] Top shape: 24 32 7 7 (37632)
I0403 15:45:39.167146 16026 net.cpp:156] Memory required for data: 1299351072
I0403 15:45:39.167161 16026 layer_factory.hpp:77] Creating layer inception_5a/5x5
I0403 15:45:39.167183 16026 net.cpp:91] Creating Layer inception_5a/5x5
I0403 15:45:39.167201 16026 net.cpp:425] inception_5a/5x5 <- inception_5a/5x5_reduce
I0403 15:45:39.167220 16026 net.cpp:399] inception_5a/5x5 -> inception_5a/5x5
I0403 15:45:39.168954 16026 net.cpp:141] Setting up inception_5a/5x5
I0403 15:45:39.168995 16026 net.cpp:148] Top shape: 24 128 7 7 (150528)
I0403 15:45:39.169013 16026 net.cpp:156] Memory required for data: 1299953184
I0403 15:45:39.169031 16026 layer_factory.hpp:77] Creating layer inception_5a/relu_5x5
I0403 15:45:39.169049 16026 net.cpp:91] Creating Layer inception_5a/relu_5x5
I0403 15:45:39.169065 16026 net.cpp:425] inception_5a/relu_5x5 <- inception_5a/5x5
I0403 15:45:39.169085 16026 net.cpp:386] inception_5a/relu_5x5 -> inception_5a/5x5 (in-place)
I0403 15:45:39.169281 16026 net.cpp:141] Setting up inception_5a/relu_5x5
I0403 15:45:39.169306 16026 net.cpp:148] Top shape: 24 128 7 7 (150528)
I0403 15:45:39.169320 16026 net.cpp:156] Memory required for data: 1300555296
I0403 15:45:39.169334 16026 layer_factory.hpp:77] Creating layer inception_5a/pool
I0403 15:45:39.169354 16026 net.cpp:91] Creating Layer inception_5a/pool
I0403 15:45:39.169370 16026 net.cpp:425] inception_5a/pool <- pool4/3x3_s2_pool4/3x3_s2_0_split_3
I0403 15:45:39.169387 16026 net.cpp:399] inception_5a/pool -> inception_5a/pool
I0403 15:45:39.169459 16026 net.cpp:141] Setting up inception_5a/pool
I0403 15:45:39.169482 16026 net.cpp:148] Top shape: 24 832 7 7 (978432)
I0403 15:45:39.169497 16026 net.cpp:156] Memory required for data: 1304469024
I0403 15:45:39.169510 16026 layer_factory.hpp:77] Creating layer inception_5a/pool_proj
I0403 15:45:39.169533 16026 net.cpp:91] Creating Layer inception_5a/pool_proj
I0403 15:45:39.169554 16026 net.cpp:425] inception_5a/pool_proj <- inception_5a/pool
I0403 15:45:39.169576 16026 net.cpp:399] inception_5a/pool_proj -> inception_5a/pool_proj
I0403 15:45:39.171888 16026 net.cpp:141] Setting up inception_5a/pool_proj
I0403 15:45:39.171924 16026 net.cpp:148] Top shape: 24 128 7 7 (150528)
I0403 15:45:39.171941 16026 net.cpp:156] Memory required for data: 1305071136
I0403 15:45:39.171959 16026 layer_factory.hpp:77] Creating layer inception_5a/relu_pool_proj
I0403 15:45:39.171977 16026 net.cpp:91] Creating Layer inception_5a/relu_pool_proj
I0403 15:45:39.171993 16026 net.cpp:425] inception_5a/relu_pool_proj <- inception_5a/pool_proj
I0403 15:45:39.172011 16026 net.cpp:386] inception_5a/relu_pool_proj -> inception_5a/pool_proj (in-place)
I0403 15:45:39.172307 16026 net.cpp:141] Setting up inception_5a/relu_pool_proj
I0403 15:45:39.172335 16026 net.cpp:148] Top shape: 24 128 7 7 (150528)
I0403 15:45:39.172351 16026 net.cpp:156] Memory required for data: 1305673248
I0403 15:45:39.172365 16026 layer_factory.hpp:77] Creating layer inception_5a/output
I0403 15:45:39.172382 16026 net.cpp:91] Creating Layer inception_5a/output
I0403 15:45:39.172397 16026 net.cpp:425] inception_5a/output <- inception_5a/1x1
I0403 15:45:39.172412 16026 net.cpp:425] inception_5a/output <- inception_5a/3x3
I0403 15:45:39.172430 16026 net.cpp:425] inception_5a/output <- inception_5a/5x5
I0403 15:45:39.172444 16026 net.cpp:425] inception_5a/output <- inception_5a/pool_proj
I0403 15:45:39.172463 16026 net.cpp:399] inception_5a/output -> inception_5a/output
I0403 15:45:39.172513 16026 net.cpp:141] Setting up inception_5a/output
I0403 15:45:39.172539 16026 net.cpp:148] Top shape: 24 832 7 7 (978432)
I0403 15:45:39.172555 16026 net.cpp:156] Memory required for data: 1309586976
I0403 15:45:39.172569 16026 layer_factory.hpp:77] Creating layer inception_5a/output_inception_5a/output_0_split
I0403 15:45:39.172590 16026 net.cpp:91] Creating Layer inception_5a/output_inception_5a/output_0_split
I0403 15:45:39.172605 16026 net.cpp:425] inception_5a/output_inception_5a/output_0_split <- inception_5a/output
I0403 15:45:39.172622 16026 net.cpp:399] inception_5a/output_inception_5a/output_0_split -> inception_5a/output_inception_5a/output_0_split_0
I0403 15:45:39.172641 16026 net.cpp:399] inception_5a/output_inception_5a/output_0_split -> inception_5a/output_inception_5a/output_0_split_1
I0403 15:45:39.172662 16026 net.cpp:399] inception_5a/output_inception_5a/output_0_split -> inception_5a/output_inception_5a/output_0_split_2
I0403 15:45:39.172688 16026 net.cpp:399] inception_5a/output_inception_5a/output_0_split -> inception_5a/output_inception_5a/output_0_split_3
I0403 15:45:39.172802 16026 net.cpp:141] Setting up inception_5a/output_inception_5a/output_0_split
I0403 15:45:39.172826 16026 net.cpp:148] Top shape: 24 832 7 7 (978432)
I0403 15:45:39.172840 16026 net.cpp:148] Top shape: 24 832 7 7 (978432)
I0403 15:45:39.172855 16026 net.cpp:148] Top shape: 24 832 7 7 (978432)
I0403 15:45:39.172870 16026 net.cpp:148] Top shape: 24 832 7 7 (978432)
I0403 15:45:39.172883 16026 net.cpp:156] Memory required for data: 1325241888
I0403 15:45:39.172899 16026 layer_factory.hpp:77] Creating layer inception_5b/1x1
I0403 15:45:39.172920 16026 net.cpp:91] Creating Layer inception_5b/1x1
I0403 15:45:39.172937 16026 net.cpp:425] inception_5b/1x1 <- inception_5a/output_inception_5a/output_0_split_0
I0403 15:45:39.172958 16026 net.cpp:399] inception_5b/1x1 -> inception_5b/1x1
I0403 15:45:39.176837 16026 net.cpp:141] Setting up inception_5b/1x1
I0403 15:45:39.176872 16026 net.cpp:148] Top shape: 24 384 7 7 (451584)
I0403 15:45:39.176889 16026 net.cpp:156] Memory required for data: 1327048224
I0403 15:45:39.176908 16026 layer_factory.hpp:77] Creating layer inception_5b/relu_1x1
I0403 15:45:39.176926 16026 net.cpp:91] Creating Layer inception_5b/relu_1x1
I0403 15:45:39.176942 16026 net.cpp:425] inception_5b/relu_1x1 <- inception_5b/1x1
I0403 15:45:39.176959 16026 net.cpp:386] inception_5b/relu_1x1 -> inception_5b/1x1 (in-place)
I0403 15:45:39.177264 16026 net.cpp:141] Setting up inception_5b/relu_1x1
I0403 15:45:39.177292 16026 net.cpp:148] Top shape: 24 384 7 7 (451584)
I0403 15:45:39.177309 16026 net.cpp:156] Memory required for data: 1328854560
I0403 15:45:39.177322 16026 layer_factory.hpp:77] Creating layer inception_5b/3x3_reduce
I0403 15:45:39.177345 16026 net.cpp:91] Creating Layer inception_5b/3x3_reduce
I0403 15:45:39.177361 16026 net.cpp:425] inception_5b/3x3_reduce <- inception_5a/output_inception_5a/output_0_split_1
I0403 15:45:39.177381 16026 net.cpp:399] inception_5b/3x3_reduce -> inception_5b/3x3_reduce
I0403 15:45:39.180099 16026 net.cpp:141] Setting up inception_5b/3x3_reduce
I0403 15:45:39.180132 16026 net.cpp:148] Top shape: 24 192 7 7 (225792)
I0403 15:45:39.180150 16026 net.cpp:156] Memory required for data: 1329757728
I0403 15:45:39.180168 16026 layer_factory.hpp:77] Creating layer inception_5b/relu_3x3_reduce
I0403 15:45:39.180187 16026 net.cpp:91] Creating Layer inception_5b/relu_3x3_reduce
I0403 15:45:39.180204 16026 net.cpp:425] inception_5b/relu_3x3_reduce <- inception_5b/3x3_reduce
I0403 15:45:39.180224 16026 net.cpp:386] inception_5b/relu_3x3_reduce -> inception_5b/3x3_reduce (in-place)
I0403 15:45:39.180424 16026 net.cpp:141] Setting up inception_5b/relu_3x3_reduce
I0403 15:45:39.180450 16026 net.cpp:148] Top shape: 24 192 7 7 (225792)
I0403 15:45:39.180466 16026 net.cpp:156] Memory required for data: 1330660896
I0403 15:45:39.180481 16026 layer_factory.hpp:77] Creating layer inception_5b/3x3
I0403 15:45:39.180505 16026 net.cpp:91] Creating Layer inception_5b/3x3
I0403 15:45:39.180523 16026 net.cpp:425] inception_5b/3x3 <- inception_5b/3x3_reduce
I0403 15:45:39.180552 16026 net.cpp:399] inception_5b/3x3 -> inception_5b/3x3
I0403 15:45:39.187331 16026 net.cpp:141] Setting up inception_5b/3x3
I0403 15:45:39.187364 16026 net.cpp:148] Top shape: 24 384 7 7 (451584)
I0403 15:45:39.187382 16026 net.cpp:156] Memory required for data: 1332467232
I0403 15:45:39.187402 16026 layer_factory.hpp:77] Creating layer inception_5b/relu_3x3
I0403 15:45:39.187420 16026 net.cpp:91] Creating Layer inception_5b/relu_3x3
I0403 15:45:39.187436 16026 net.cpp:425] inception_5b/relu_3x3 <- inception_5b/3x3
I0403 15:45:39.187455 16026 net.cpp:386] inception_5b/relu_3x3 -> inception_5b/3x3 (in-place)
I0403 15:45:39.187760 16026 net.cpp:141] Setting up inception_5b/relu_3x3
I0403 15:45:39.187788 16026 net.cpp:148] Top shape: 24 384 7 7 (451584)
I0403 15:45:39.187804 16026 net.cpp:156] Memory required for data: 1334273568
I0403 15:45:39.187819 16026 layer_factory.hpp:77] Creating layer inception_5b/5x5_reduce
I0403 15:45:39.187860 16026 net.cpp:91] Creating Layer inception_5b/5x5_reduce
I0403 15:45:39.187878 16026 net.cpp:425] inception_5b/5x5_reduce <- inception_5a/output_inception_5a/output_0_split_2
I0403 15:45:39.187897 16026 net.cpp:399] inception_5b/5x5_reduce -> inception_5b/5x5_reduce
I0403 15:45:39.189177 16026 net.cpp:141] Setting up inception_5b/5x5_reduce
I0403 15:45:39.189208 16026 net.cpp:148] Top shape: 24 48 7 7 (56448)
I0403 15:45:39.189227 16026 net.cpp:156] Memory required for data: 1334499360
I0403 15:45:39.189246 16026 layer_factory.hpp:77] Creating layer inception_5b/relu_5x5_reduce
I0403 15:45:39.189267 16026 net.cpp:91] Creating Layer inception_5b/relu_5x5_reduce
I0403 15:45:39.189283 16026 net.cpp:425] inception_5b/relu_5x5_reduce <- inception_5b/5x5_reduce
I0403 15:45:39.189303 16026 net.cpp:386] inception_5b/relu_5x5_reduce -> inception_5b/5x5_reduce (in-place)
I0403 15:45:39.189687 16026 net.cpp:141] Setting up inception_5b/relu_5x5_reduce
I0403 15:45:39.189715 16026 net.cpp:148] Top shape: 24 48 7 7 (56448)
I0403 15:45:39.189731 16026 net.cpp:156] Memory required for data: 1334725152
I0403 15:45:39.189745 16026 layer_factory.hpp:77] Creating layer inception_5b/5x5
I0403 15:45:39.189765 16026 net.cpp:91] Creating Layer inception_5b/5x5
I0403 15:45:39.189782 16026 net.cpp:425] inception_5b/5x5 <- inception_5b/5x5_reduce
I0403 15:45:39.189801 16026 net.cpp:399] inception_5b/5x5 -> inception_5b/5x5
I0403 15:45:39.191890 16026 net.cpp:141] Setting up inception_5b/5x5
I0403 15:45:39.191918 16026 net.cpp:148] Top shape: 24 128 7 7 (150528)
I0403 15:45:39.191936 16026 net.cpp:156] Memory required for data: 1335327264
I0403 15:45:39.191956 16026 layer_factory.hpp:77] Creating layer inception_5b/relu_5x5
I0403 15:45:39.191973 16026 net.cpp:91] Creating Layer inception_5b/relu_5x5
I0403 15:45:39.191989 16026 net.cpp:425] inception_5b/relu_5x5 <- inception_5b/5x5
I0403 15:45:39.192009 16026 net.cpp:386] inception_5b/relu_5x5 -> inception_5b/5x5 (in-place)
I0403 15:45:39.192205 16026 net.cpp:141] Setting up inception_5b/relu_5x5
I0403 15:45:39.192231 16026 net.cpp:148] Top shape: 24 128 7 7 (150528)
I0403 15:45:39.192246 16026 net.cpp:156] Memory required for data: 1335929376
I0403 15:45:39.192262 16026 layer_factory.hpp:77] Creating layer inception_5b/pool
I0403 15:45:39.192282 16026 net.cpp:91] Creating Layer inception_5b/pool
I0403 15:45:39.192301 16026 net.cpp:425] inception_5b/pool <- inception_5a/output_inception_5a/output_0_split_3
I0403 15:45:39.192319 16026 net.cpp:399] inception_5b/pool -> inception_5b/pool
I0403 15:45:39.192394 16026 net.cpp:141] Setting up inception_5b/pool
I0403 15:45:39.192420 16026 net.cpp:148] Top shape: 24 832 7 7 (978432)
I0403 15:45:39.192435 16026 net.cpp:156] Memory required for data: 1339843104
I0403 15:45:39.192448 16026 layer_factory.hpp:77] Creating layer inception_5b/pool_proj
I0403 15:45:39.192471 16026 net.cpp:91] Creating Layer inception_5b/pool_proj
I0403 15:45:39.192489 16026 net.cpp:425] inception_5b/pool_proj <- inception_5b/pool
I0403 15:45:39.192510 16026 net.cpp:399] inception_5b/pool_proj -> inception_5b/pool_proj
I0403 15:45:39.194892 16026 net.cpp:141] Setting up inception_5b/pool_proj
I0403 15:45:39.194926 16026 net.cpp:148] Top shape: 24 128 7 7 (150528)
I0403 15:45:39.194943 16026 net.cpp:156] Memory required for data: 1340445216
I0403 15:45:39.194962 16026 layer_factory.hpp:77] Creating layer inception_5b/relu_pool_proj
I0403 15:45:39.194982 16026 net.cpp:91] Creating Layer inception_5b/relu_pool_proj
I0403 15:45:39.194998 16026 net.cpp:425] inception_5b/relu_pool_proj <- inception_5b/pool_proj
I0403 15:45:39.195019 16026 net.cpp:386] inception_5b/relu_pool_proj -> inception_5b/pool_proj (in-place)
I0403 15:45:39.195323 16026 net.cpp:141] Setting up inception_5b/relu_pool_proj
I0403 15:45:39.195351 16026 net.cpp:148] Top shape: 24 128 7 7 (150528)
I0403 15:45:39.195366 16026 net.cpp:156] Memory required for data: 1341047328
I0403 15:45:39.195381 16026 layer_factory.hpp:77] Creating layer inception_5b/output
I0403 15:45:39.195399 16026 net.cpp:91] Creating Layer inception_5b/output
I0403 15:45:39.195428 16026 net.cpp:425] inception_5b/output <- inception_5b/1x1
I0403 15:45:39.195446 16026 net.cpp:425] inception_5b/output <- inception_5b/3x3
I0403 15:45:39.195462 16026 net.cpp:425] inception_5b/output <- inception_5b/5x5
I0403 15:45:39.195478 16026 net.cpp:425] inception_5b/output <- inception_5b/pool_proj
I0403 15:45:39.195495 16026 net.cpp:399] inception_5b/output -> inception_5b/output
I0403 15:45:39.195554 16026 net.cpp:141] Setting up inception_5b/output
I0403 15:45:39.195577 16026 net.cpp:148] Top shape: 24 1024 7 7 (1204224)
I0403 15:45:39.195591 16026 net.cpp:156] Memory required for data: 1345864224
I0403 15:45:39.195605 16026 layer_factory.hpp:77] Creating layer pool5/7x7_s1
I0403 15:45:39.195626 16026 net.cpp:91] Creating Layer pool5/7x7_s1
I0403 15:45:39.195641 16026 net.cpp:425] pool5/7x7_s1 <- inception_5b/output
I0403 15:45:39.195658 16026 net.cpp:399] pool5/7x7_s1 -> pool5/7x7_s1
I0403 15:45:39.195878 16026 net.cpp:141] Setting up pool5/7x7_s1
I0403 15:45:39.195904 16026 net.cpp:148] Top shape: 24 1024 1 1 (24576)
I0403 15:45:39.195917 16026 net.cpp:156] Memory required for data: 1345962528
I0403 15:45:39.195932 16026 layer_factory.hpp:77] Creating layer pool5/drop_7x7_s1
I0403 15:45:39.195950 16026 net.cpp:91] Creating Layer pool5/drop_7x7_s1
I0403 15:45:39.195966 16026 net.cpp:425] pool5/drop_7x7_s1 <- pool5/7x7_s1
I0403 15:45:39.195983 16026 net.cpp:386] pool5/drop_7x7_s1 -> pool5/7x7_s1 (in-place)
I0403 15:45:39.196033 16026 net.cpp:141] Setting up pool5/drop_7x7_s1
I0403 15:45:39.196058 16026 net.cpp:148] Top shape: 24 1024 1 1 (24576)
I0403 15:45:39.196074 16026 net.cpp:156] Memory required for data: 1346060832
I0403 15:45:39.196089 16026 layer_factory.hpp:77] Creating layer loss3/classifier_plantvillage
I0403 15:45:39.196107 16026 net.cpp:91] Creating Layer loss3/classifier_plantvillage
I0403 15:45:39.196122 16026 net.cpp:425] loss3/classifier_plantvillage <- pool5/7x7_s1
I0403 15:45:39.196142 16026 net.cpp:399] loss3/classifier_plantvillage -> loss3/classifier_plantvillage
I0403 15:45:39.196579 16026 net.cpp:141] Setting up loss3/classifier_plantvillage
I0403 15:45:39.196604 16026 net.cpp:148] Top shape: 24 38 (912)
I0403 15:45:39.196619 16026 net.cpp:156] Memory required for data: 1346064480
I0403 15:45:39.196637 16026 layer_factory.hpp:77] Creating layer loss3/classifier_plantvillage_loss3/classifier_plantvillage_0_split
I0403 15:45:39.196660 16026 net.cpp:91] Creating Layer loss3/classifier_plantvillage_loss3/classifier_plantvillage_0_split
I0403 15:45:39.196677 16026 net.cpp:425] loss3/classifier_plantvillage_loss3/classifier_plantvillage_0_split <- loss3/classifier_plantvillage
I0403 15:45:39.196694 16026 net.cpp:399] loss3/classifier_plantvillage_loss3/classifier_plantvillage_0_split -> loss3/classifier_plantvillage_loss3/classifier_plantvillage_0_split_0
I0403 15:45:39.196713 16026 net.cpp:399] loss3/classifier_plantvillage_loss3/classifier_plantvillage_0_split -> loss3/classifier_plantvillage_loss3/classifier_plantvillage_0_split_1
I0403 15:45:39.196735 16026 net.cpp:399] loss3/classifier_plantvillage_loss3/classifier_plantvillage_0_split -> loss3/classifier_plantvillage_loss3/classifier_plantvillage_0_split_2
I0403 15:45:39.196756 16026 net.cpp:399] loss3/classifier_plantvillage_loss3/classifier_plantvillage_0_split -> loss3/classifier_plantvillage_loss3/classifier_plantvillage_0_split_3
I0403 15:45:39.196858 16026 net.cpp:141] Setting up loss3/classifier_plantvillage_loss3/classifier_plantvillage_0_split
I0403 15:45:39.196882 16026 net.cpp:148] Top shape: 24 38 (912)
I0403 15:45:39.196897 16026 net.cpp:148] Top shape: 24 38 (912)
I0403 15:45:39.196912 16026 net.cpp:148] Top shape: 24 38 (912)
I0403 15:45:39.196925 16026 net.cpp:148] Top shape: 24 38 (912)
I0403 15:45:39.196939 16026 net.cpp:156] Memory required for data: 1346079072
I0403 15:45:39.196954 16026 layer_factory.hpp:77] Creating layer loss1/loss
I0403 15:45:39.196974 16026 net.cpp:91] Creating Layer loss1/loss
I0403 15:45:39.196991 16026 net.cpp:425] loss1/loss <- loss1/classifier_plantvillage_loss1/classifier_plantvillage_0_split_0
I0403 15:45:39.197022 16026 net.cpp:425] loss1/loss <- label_data_1_split_0
…
