…
I0403 15:40:21.775538 15901 net.cpp:313] The NetState phase (1) differed from the phase (0) specified by a rule in layer data
I0403 15:40:21.776644 15901 net.cpp:49] Initializing net from parameters: 
state {
  phase: TEST
}
layer {
  name: "data"
  type: "Data"
  top: "data"
  top: "label"
  include {
    phase: TEST
  }
  transform_param {
    mirror: false
    crop_size: 224
    mean_file: "/home/mohanty/data/final_dataset/lmdb/color-50-50/mean.binaryproto"
  }
  data_param {
    source: "/home/mohanty/data/final_dataset/lmdb/color-50-50/test_db"
    batch_size: 24
    backend: LMDB
  }
}
layer {
  name: "conv1/7x7_s2"
  type: "Convolution"
  bottom: "data"
  top: "conv1/7x7_s2"
  param {
    lr_mult: 1
    decay_mult: 1
  }
  param {
    lr_mult: 2
    decay_mult: 0
  }
  convolution_param {
    num_output: 64
    pad: 3
    kernel_size: 7
    stride: 2
    weight_filler {
      type: "xavier"
      std: 0.1
    }
    bias_filler {
      type: "constant"
      value: 0.2
    }
  }
}
layer {
  name: "conv1/relu_7x7"
  type: "ReLU"
  bottom: "conv1/7x7_s2"
  top: "conv1/7x7_s2"
}
layer {
  name: "pool1/3x3_s2"
  type: "Pooling"
  bottom: "conv1/7x7_s2"
  top: "pool1/3x3_s2"
  pooling_param {
    pool: MAX
    kernel_size: 3
    stride: 2
  }
}
layer {
  name: "pool1/norm1"
  type: "LRN"
  bottom: "pool1/3x3_s2"
  top: "pool1/norm1"
  lrn_param {
    local_size: 5
    alpha: 0.0001
    beta: 0.75
  }
}
layer {
  name: "conv2/3x3_reduce"
  type: "Convolution"
  bottom: "pool1/norm1"
  top: "conv2/3x3_reduce"
  param {
    lr_mult: 1
    decay_mult: 1
  }
  param {
    lr_mult: 2
    decay_mult: 0
  }
  convolution_param {
    num_output: 64
    kernel_size: 1
    weight_filler {
      type: "xavier"
      std: 0.1
    }
    bias_filler {
      type: "constant"
      value: 0.2
    }
  }
}
layer {
  name: "conv2/relu_3x3_reduce"
  type: "ReLU"
  bottom: "conv2/3x3_reduce"
  top: "conv2/3x3_reduce"
}
layer {
  name: "conv2/3x3"
  type: "Convolution"
  bottom: "conv2/3x3_reduce"
  top: "conv2/3x3"
  param {
    lr_mult: 1
    decay_mult: 1
  }
  param {
    lr_mult: 2
    decay_mult: 0
  }
  convolution_param {
    num_output: 192
    pad: 1
    kernel_size: 3
    weight_filler {
      type: "xavier"
      std: 0.03
    }
    bias_filler {
      type: "constant"
      value: 0.2
    }
  }
}
layer {
  name: "conv2/relu_3x3"
  type: "ReLU"
  bottom: "conv2/3x3"
  top: "conv2/3x3"
}
layer {
  name: "conv2/norm2"
  type: "LRN"
  bottom: "conv2/3x3"
  top: "conv2/norm2"
  lrn_param {
    local_size: 5
    alpha: 0.0001
    beta: 0.75
  }
}
layer {
  name: "pool2/3x3_s2"
  type: "Pooling"
  bottom: "conv2/norm2"
  top: "pool2/3x3_s2"
  pooling_param {
    pool: MAX
    kernel_size: 3
    stride: 2
  }
}
layer {
  name: "inception_3a/1x1"
  type: "Convolution"
  bottom: "pool2/3x3_s2"
  top: "inception_3a/1x1"
  param {
    lr_mult: 1
    decay_mult: 1
  }
  param {
    lr_mult: 2
    decay_mult: 0
  }
  convolution_param {
    num_output: 64
    kernel_size: 1
    weight_filler {
      type: "xavier"
      std: 0.03
    }
    bias_filler {
      type: "constant"
      value: 0.2
    }
  }
}
layer {
  name: "inception_3a/relu_1x1"
  type: "ReLU"
  bottom: "inception_3a/1x1"
  top: "inception_3a/1x1"
}
layer {
  name: "inception_3a/3x3_reduce"
  type: "Convolution"
  bottom: "pool2/3x3_s2"
  top: "inception_3a/3x3_reduce"
  param {
    lr_mult: 1
    decay_mult: 1
  }
  param {
    lr_mult: 2
    decay_mult: 0
  }
  convolution_param {
    num_output: 96
    kernel_size: 1
    weight_filler {
      type: "xavier"
      std: 0.09
    }
    bias_filler {
      type: "constant"
      value: 0.2
    }
  }
}
layer {
  name: "inception_3a/relu_3x3_reduce"
  type: "ReLU"
  bottom: "inception_3a/3x3_reduce"
  top: "inception_3a/3x3_reduce"
}
layer {
  name: "inception_3a/3x3"
  type: "Convolution"
  bottom: "inception_3a/3x3_reduce"
  top: "inception_3a/3x3"
  param {
    lr_mult: 1
    decay_mult: 1
  }
  param {
    lr_mult: 2
    decay_mult: 0
  }
  convolution_param {
    num_output: 128
    pad: 1
    kernel_size: 3
    weight_filler {
      type: "xavier"
      std: 0.03
    }
    bias_filler {
      type: "constant"
      value: 0.2
    }
  }
}
layer {
  name: "inception_3a/relu_3x3"
  type: "ReLU"
  bottom: "inception_3a/3x3"
  top: "inception_3a/3x3"
}
layer {
  name: "inception_3a/5x5_reduce"
  type: "Convolution"
  bottom: "pool2/3x3_s2"
  top: "inception_3a/5x5_reduce"
  param {
    lr_mult: 1
    decay_mult: 1
  }
  param {
    lr_mult: 2
    decay_mult: 0
  }
  convolution_param {
    num_output: 16
    kernel_size: 1
    weight_filler {
      type: "xavier"
      std: 0.2
    }
    bias_filler {
      type: "constant"
      value: 0.2
    }
  }
}
layer {
  name: "inception_3a/relu_5x5_reduce"
  type: "ReLU"
  bottom: "inception_3a/5x5_reduce"
  top: "inception_3a/5x5_reduce"
}
layer {
  name: "inception_3a/5x5"
  type: "Convolution"
  bottom: "inception_3a/5x5_reduce"
  top: "inception_3a/5x5"
  param {
    lr_mult: 1
    decay_mult: 1
  }
  param {
    lr_mult: 2
    decay_mult: 0
  }
  convolution_param {
    num_output: 32
    pad: 2
    kernel_size: 5
    weight_filler {
      type: "xavier"
      std: 0.03
    }
    bias_filler {
      type: "constant"
      value: 0.2
    }
  }
}
layer {
  name: "inception_3a/relu_5x5"
  type: "ReLU"
  bottom: "inception_3a/5x5"
  top: "inception_3a/5x5"
}
layer {
  name: "inception_3a/pool"
  type: "Pooling"
  bottom: "pool2/3x3_s2"
  top: "inception_3a/pool"
  pooling_param {
    pool: MAX
    kernel_size: 3
    stride: 1
    pad: 1
  }
}
layer {
  name: "inception_3a/pool_proj"
  type: "Convolution"
  bottom: "inception_3a/pool"
  top: "inception_3a/pool_proj"
  param {
    lr_mult: 1
    decay_mult: 1
  }
  param {
    lr_mult: 2
    decay_mult: 0
  }
  convolution_param {
    num_output: 32
    kernel_size: 1
    weight_filler {
      type: "xavier"
      std: 0.1
    }
    bias_filler {
      type: "constant"
      value: 0.2
    }
  }
}
layer {
  name: "inception_3a/relu_pool_proj"
  type: "ReLU"
  bottom: "inception_3a/pool_proj"
  top: "inception_3a/pool_proj"
}
layer {
  name: "inception_3a/output"
  type: "Concat"
  bottom: "inception_3a/1x1"
  bottom: "inception_3a/3x3"
  bottom: "inception_3a/5x5"
  bottom: "inception_3a/pool_proj"
  top: "inception_3a/output"
}
layer {
  name: "inception_3b/1x1"
  type: "Convolution"
  bottom: "inception_3a/output"
  top: "inception_3b/1x1"
  param {
    lr_mult: 1
    decay_mult: 1
  }
  param {
    lr_mult: 2
    decay_mult: 0
  }
  convolution_param {
    num_output: 128
    kernel_size: 1
    weight_filler {
      type: "xavier"
      std: 0.03
    }
    bias_filler {
      type: "constant"
      value: 0.2
    }
  }
}
layer {
  name: "inception_3b/relu_1x1"
  type: "ReLU"
  bottom: "inception_3b/1x1"
  top: "inception_3b/1x1"
}
layer {
  name: "inception_3b/3x3_reduce"
  type: "Convolution"
  bottom: "inception_3a/output"
  top: "inception_3b/3x3_reduce"
  param {
    lr_mult: 1
    decay_mult: 1
  }
  param {
    lr_mult: 2
    decay_mult: 0
  }
  convolution_param {
    num_output: 128
    kernel_size: 1
    weight_filler {
      type: "xavier"
      std: 0.09
    }
    bias_filler {
      type: "constant"
      value: 0.2
    }
  }
}
layer {
  name: "inception_3b/relu_3x3_reduce"
  type: "ReLU"
  bottom: "inception_3b/3x3_reduce"
  top: "inception_3b/3x3_reduce"
}
layer {
  name: "inception_3b/3x3"
  type: "Convolution"
  bottom: "inception_3b/3x3_reduce"
  top: "inception_3b/3x3"
  param {
    lr_mult: 1
    decay_mult: 1
  }
  param {
    lr_mult: 2
    decay_mult: 0
  }
  convolution_param {
    num_output: 192
    pad: 1
    kernel_size: 3
    weight_filler {
      type: "xavier"
      std: 0.03
    }
    bias_filler {
      type: "constant"
      value: 0.2
    }
  }
}
layer {
  name: "inception_3b/relu_3x3"
  type: "ReLU"
  bottom: "inception_3b/3x3"
  top: "inception_3b/3x3"
}
layer {
  name: "inception_3b/5x5_reduce"
  type: "Convolution"
  bottom: "inception_3a/output"
  top: "inception_3b/5x5_reduce"
  param {
    lr_mult: 1
    decay_mult: 1
  }
  param {
    lr_mult: 2
    decay_mult: 0
  }
  convolution_param {
    num_output: 32
    kernel_size: 1
    weight_filler {
      type: "xavier"
      std: 0.2
    }
    bias_filler {
      type: "constant"
      value: 0.2
    }
  }
}
layer {
  name: "inception_3b/relu_5x5_reduce"
  type: "ReLU"
  bottom: "inception_3b/5x5_reduce"
  top: "inception_3b/5x5_reduce"
}
layer {
  name: "inception_3b/5x5"
  type: "Convolution"
  bottom: "inception_3b/5x5_reduce"
  top: "inception_3b/5x5"
  param {
    lr_mult: 1
    decay_mult: 1
  }
  param {
    lr_mult: 2
    decay_mult: 0
  }
  convolution_param {
    num_output: 96
    pad: 2
    kernel_size: 5
    weight_filler {
      type: "xavier"
      std: 0.03
    }
    bias_filler {
      type: "constant"
      value: 0.2
    }
  }
}
layer {
  name: "inception_3b/relu_5x5"
  type: "ReLU"
  bottom: "inception_3b/5x5"
  top: "inception_3b/5x5"
}
layer {
  name: "inception_3b/pool"
  type: "Pooling"
  bottom: "inception_3a/output"
  top: "inception_3b/pool"
  pooling_param {
    pool: MAX
    kernel_size: 3
    stride: 1
    pad: 1
  }
}
layer {
  name: "inception_3b/pool_proj"
  type: "Convolution"
  bottom: "inception_3b/pool"
  top: "inception_3b/pool_proj"
  param {
    lr_mult: 1
    decay_mult: 1
  }
  param {
    lr_mult: 2
    decay_mult: 0
  }
  convolution_param {
    num_output: 64
    kernel_size: 1
    weight_filler {
      type: "xavier"
      std: 0.1
    }
    bias_filler {
      type: "constant"
      value: 0.2
    }
  }
}
layer {
  name: "inception_3b/relu_pool_proj"
  type: "ReLU"
  bottom: "inception_3b/pool_proj"
  top: "inception_3b/pool_proj"
}
layer {
  name: "inception_3b/output"
  type: "Concat"
  bottom: "inception_3b/1x1"
  bottom: "inception_3b/3x3"
  bottom: "inception_3b/5x5"
  bottom: "inception_3b/pool_proj"
  top: "inception_3b/output"
}
layer {
  name: "pool3/3x3_s2"
  type: "Pooling"
  bottom: "inception_3b/output"
  top: "pool3/3x3_s2"
  pooling_param {
    pool: MAX
    kernel_size: 3
    stride: 2
  }
}
layer {
  name: "inception_4a/1x1"
  type: "Convolution"
  bottom: "pool3/3x3_s2"
  top: "inception_4a/1x1"
  param {
    lr_mult: 1
    decay_mult: 1
  }
  param {
    lr_mult: 2
    decay_mult: 0
  }
  convolution_param {
    num_output: 192
    kernel_size: 1
    weight_filler {
      type: "xavier"
      std: 0.03
    }
    bias_filler {
      type: "constant"
      value: 0.2
    }
  }
}
layer {
  name: "inception_4a/relu_1x1"
  type: "ReLU"
  bottom: "inception_4a/1x1"
  top: "inception_4a/1x1"
}
layer {
  name: "inception_4a/3x3_reduce"
  type: "Convolution"
  bottom: "pool3/3x3_s2"
  top: "inception_4a/3x3_reduce"
  param {
    lr_mult: 1
    decay_mult: 1
  }
  param {
    lr_mult: 2
    decay_mult: 0
  }
  convolution_param {
    num_output: 96
    kernel_size: 1
    weight_filler {
      type: "xavier"
      std: 0.09
    }
    bias_filler {
      type: "constant"
      value: 0.2
    }
  }
}
layer {
  name: "inception_4a/relu_3x3_reduce"
  type: "ReLU"
  bottom: "inception_4a/3x3_reduce"
  top: "inception_4a/3x3_reduce"
}
layer {
  name: "inception_4a/3x3"
  type: "Convolution"
  bottom: "inception_4a/3x3_reduce"
  top: "inception_4a/3x3"
  param {
    lr_mult: 1
    decay_mult: 1
  }
  param {
    lr_mult: 2
    decay_mult: 0
  }
  convolution_param {
    num_output: 208
    pad: 1
    kernel_size: 3
    weight_filler {
      type: "xavier"
      std: 0.03
    }
    bias_filler {
      type: "constant"
      value: 0.2
    }
  }
}
layer {
  name: "inception_4a/relu_3x3"
  type: "ReLU"
  bottom: "inception_4a/3x3"
  top: "inception_4a/3x3"
}
layer {
  name: "inception_4a/5x5_reduce"
  type: "Convolution"
  bottom: "pool3/3x3_s2"
  top: "inception_4a/5x5_reduce"
  param {
    lr_mult: 1
    decay_mult: 1
  }
  param {
    lr_mult: 2
    decay_mult: 0
  }
  convolution_param {
    num_output: 16
    kernel_size: 1
    weight_filler {
      type: "xavier"
      std: 0.2
    }
    bias_filler {
      type: "constant"
      value: 0.2
    }
  }
}
layer {
  name: "inception_4a/relu_5x5_reduce"
  type: "ReLU"
  bottom: "inception_4a/5x5_reduce"
  top: "inception_4a/5x5_reduce"
}
layer {
  name: "inception_4a/5x5"
  type: "Convolution"
  bottom: "inception_4a/5x5_reduce"
  top: "inception_4a/5x5"
  param {
    lr_mult: 1
    decay_mult: 1
  }
  param {
    lr_mult: 2
    decay_mult: 0
  }
  convolution_param {
    num_output: 48
    pad: 2
    kernel_size: 5
    weight_filler {
      type: "xavier"
      std: 0.03
    }
    bias_filler {
      type: "constant"
      value: 0.2
    }
  }
}
layer {
  name: "inception_4a/relu_5x5"
  type: "ReLU"
  bottom: "inception_4a/5x5"
  top: "inception_4a/5x5"
}
layer {
  name: "inception_4a/pool"
  type: "Pooling"
  bottom: "pool3/3x3_s2"
  top: "inception_4a/pool"
  pooling_param {
    pool: MAX
    kernel_size: 3
    stride: 1
    pad: 1
  }
}
layer {
  name: "inception_4a/pool_proj"
  type: "Convolution"
  bottom: "inception_4a/pool"
  top: "inception_4a/pool_proj"
  param {
    lr_mult: 1
    decay_mult: 1
  }
  param {
    lr_mult: 2
    decay_mult: 0
  }
  convolution_param {
    num_output: 64
    kernel_size: 1
    weight_filler {
      type: "xavier"
      std: 0.1
    }
    bias_filler {
      type: "constant"
      value: 0.2
    }
  }
}
layer {
  name: "inception_4a/relu_pool_proj"
  type: "ReLU"
  bottom: "inception_4a/pool_proj"
  top: "inception_4a/pool_proj"
}
layer {
  name: "inception_4a/output"
  type: "Concat"
  bottom: "inception_4a/1x1"
  bottom: "inception_4a/3x3"
  bottom: "inception_4a/5x5"
  bottom: "inception_4a/pool_proj"
  top: "inception_4a/output"
}
layer {
  name: "loss1/ave_pool"
  type: "Pooling"
  bottom: "inception_4a/output"
  top: "loss1/ave_pool"
  pooling_param {
    pool: AVE
    kernel_size: 5
    stride: 3
  }
}
layer {
  name: "loss1/conv"
  type: "Convolution"
  bottom: "loss1/ave_pool"
  top: "loss1/conv"
  param {
    lr_mult: 1
    decay_mult: 1
  }
  param {
    lr_mult: 2
    decay_mult: 0
  }
  convolution_param {
    num_output: 128
    kernel_size: 1
    weight_filler {
      type: "xavier"
      std: 0.08
    }
    bias_filler {
      type: "constant"
      value: 0.2
    }
  }
}
layer {
  name: "loss1/relu_conv"
  type: "ReLU"
  bottom: "loss1/conv"
  top: "loss1/conv"
}
layer {
  name: "loss1/fc"
  type: "InnerProduct"
  bottom: "loss1/conv"
  top: "loss1/fc"
  param {
    lr_mult: 1
    decay_mult: 1
  }
  param {
    lr_mult: 2
    decay_mult: 0
  }
  inner_product_param {
    num_output: 1024
    weight_filler {
      type: "xavier"
      std: 0.02
    }
    bias_filler {
      type: "constant"
      value: 0.2
    }
  }
}
layer {
  name: "loss1/relu_fc"
  type: "ReLU"
  bottom: "loss1/fc"
  top: "loss1/fc"
}
layer {
  name: "loss1/drop_fc"
  type: "Dropout"
  bottom: "loss1/fc"
  top: "loss1/fc"
  dropout_param {
    dropout_ratio: 0.7
  }
}
layer {
  name: "loss1/classifier_plantvillage"
  type: "InnerProduct"
  bottom: "loss1/fc"
  top: "loss1/classifier_plantvillage"
  param {
    lr_mult: 1
    decay_mult: 1
  }
  param {
    lr_mult: 2
    decay_mult: 0
  }
  inner_product_param {
    num_output: 38
    weight_filler {
      type: "xavier"
      std: 0.0009765625
    }
    bias_filler {
      type: "constant"
      value: 0
    }
  }
}
layer {
  name: "inception_4b/1x1"
  type: "Convolution"
  bottom: "inception_4a/output"
  top: "inception_4b/1x1"
  param {
    lr_mult: 1
    decay_mult: 1
  }
  param {
    lr_mult: 2
    decay_mult: 0
  }
  convolution_param {
    num_output: 160
    kernel_size: 1
    weight_filler {
      type: "xavier"
      std: 0.03
    }
    bias_filler {
      type: "constant"
      value: 0.2
    }
  }
}
layer {
  name: "inception_4b/relu_1x1"
  type: "ReLU"
  bottom: "inception_4b/1x1"
  top: "inception_4b/1x1"
}
layer {
  name: "inception_4b/3x3_reduce"
  type: "Convolution"
  bottom: "inception_4a/output"
  top: "inception_4b/3x3_reduce"
  param {
    lr_mult: 1
    decay_mult: 1
  }
  param {
    lr_mult: 2
    decay_mult: 0
  }
  convolution_param {
    num_output: 112
    kernel_size: 1
    weight_filler {
      type: "xavier"
      std: 0.09
    }
    bias_filler {
      type: "constant"
      value: 0.2
    }
  }
}
layer {
  name: "inception_4b/relu_3x3_reduce"
  type: "ReLU"
  bottom: "inception_4b/3x3_reduce"
  top: "inception_4b/3x3_reduce"
}
layer {
  name: "inception_4b/3x3"
  type: "Convolution"
  bottom: "inception_4b/3x3_reduce"
  top: "inception_4b/3x3"
  param {
    lr_mult: 1
    decay_mult: 1
  }
  param {
    lr_mult: 2
    decay_mult: 0
  }
  convolution_param {
    num_output: 224
    pad: 1
    kernel_size: 3
    weight_filler {
      type: "xavier"
      std: 0.03
    }
    bias_filler {
      type: "constant"
      value: 0.2
    }
  }
}
layer {
  name: "inception_4b/relu_3x3"
  type: "ReLU"
  bottom: "inception_4b/3x3"
  top: "inception_4b/3x3"
}
layer {
  name: "inception_4b/5x5_reduce"
  type: "Convolution"
  bottom: "inception_4a/output"
  top: "inception_4b/5x5_reduce"
  param {
    lr_mult: 1
    decay_mult: 1
  }
  param {
    lr_mult: 2
    decay_mult: 0
  }
  convolution_param {
    num_output: 24
    kernel_size: 1
    weight_filler {
      type: "xavier"
      std: 0.2
    }
    bias_filler {
      type: "constant"
      value: 0.2
    }
  }
}
layer {
  name: "inception_4b/relu_5x5_reduce"
  type: "ReLU"
  bottom: "inception_4b/5x5_reduce"
  top: "inception_4b/5x5_reduce"
}
layer {
  name: "inception_4b/5x5"
  type: "Convolution"
  bottom: "inception_4b/5x5_reduce"
  top: "inception_4b/5x5"
  param {
    lr_mult: 1
    decay_mult: 1
  }
  param {
    lr_mult: 2
    decay_mult: 0
  }
  convolution_param {
    num_output: 64
    pad: 2
    kernel_size: 5
    weight_filler {
      type: "xavier"
      std: 0.03
    }
    bias_filler {
      type: "constant"
      value: 0.2
    }
  }
}
layer {
  name: "inception_4b/relu_5x5"
  type: "ReLU"
  bottom: "inception_4b/5x5"
  top: "inception_4b/5x5"
}
layer {
  name: "inception_4b/pool"
  type: "Pooling"
  bottom: "inception_4a/output"
  top: "inception_4b/pool"
  pooling_param {
    pool: MAX
    kernel_size: 3
    stride: 1
    pad: 1
  }
}
layer {
  name: "inception_4b/pool_proj"
  type: "Convolution"
  bottom: "inception_4b/pool"
  top: "inception_4b/pool_proj"
  param {
    lr_mult: 1
    decay_mult: 1
  }
  param {
    lr_mult: 2
    decay_mult: 0
  }
  convolution_param {
    num_output: 64
    kernel_size: 1
    weight_filler {
      type: "xavier"
      std: 0.1
    }
    bias_filler {
      type: "constant"
      value: 0.2
    }
  }
}
layer {
  name: "inception_4b/relu_pool_proj"
  type: "ReLU"
  bottom: "inception_4b/pool_proj"
  top: "inception_4b/pool_proj"
}
layer {
  name: "inception_4b/output"
  type: "Concat"
  bottom: "inception_4b/1x1"
  bottom: "inception_4b/3x3"
  bottom: "inception_4b/5x5"
  bottom: "inception_4b/pool_proj"
  top: "inception_4b/output"
}
layer {
  name: "inception_4c/1x1"
  type: "Convolution"
  bottom: "inception_4b/output"
  top: "inception_4c/1x1"
  param {
    lr_mult: 1
    decay_mult: 1
  }
  param {
    lr_mult: 2
    decay_mult: 0
  }
  convolution_param {
    num_output: 128
    kernel_size: 1
    weight_filler {
      type: "xavier"
      std: 0.03
    }
    bias_filler {
      type: "constant"
      value: 0.2
    }
  }
}
layer {
  name: "inception_4c/relu_1x1"
  type: "ReLU"
  bottom: "inception_4c/1x1"
  top: "inception_4c/1x1"
}
layer {
  name: "inception_4c/3x3_reduce"
  type: "Convolution"
  bottom: "inception_4b/output"
  top: "inception_4c/3x3_reduce"
  param {
    lr_mult: 1
    decay_mult: 1
  }
  param {
    lr_mult: 2
    decay_mult: 0
  }
  convolution_param {
    num_output: 128
    kernel_size: 1
    weight_filler {
      type: "xavier"
      std: 0.09
    }
    bias_filler {
      type: "constant"
      value: 0.2
    }
  }
}
layer {
  name: "inception_4c/relu_3x3_reduce"
  type: "ReLU"
  bottom: "inception_4c/3x3_reduce"
  top: "inception_4c/3x3_reduce"
}
layer {
  name: "inception_4c/3x3"
  type: "Convolution"
  bottom: "inception_4c/3x3_reduce"
  top: "inception_4c/3x3"
  param {
    lr_mult: 1
    decay_mult: 1
  }
  param {
    lr_mult: 2
    decay_mult: 0
  }
  convolution_param {
    num_output: 256
    pad: 1
    kernel_size: 3
    weight_filler {
      type: "xavier"
      std: 0.03
    }
    bias_filler {
      type: "constant"
      value: 0.2
    }
  }
}
layer {
  name: "inception_4c/relu_3x3"
  type: "ReLU"
  bottom: "inception_4c/3x3"
  top: "inception_4c/3x3"
}
layer {
  name: "inception_4c/5x5_reduce"
  type: "Convolution"
  bottom: "inception_4b/output"
  top: "inception_4c/5x5_reduce"
  param {
    lr_mult: 1
    decay_mult: 1
  }
  param {
    lr_mult: 2
    decay_mult: 0
  }
  convolution_param {
    num_output: 24
    kernel_size: 1
    weight_filler {
      type: "xavier"
      std: 0.2
    }
    bias_filler {
      type: "constant"
      value: 0.2
    }
  }
}
layer {
  name: "inception_4c/relu_5x5_reduce"
  type: "ReLU"
  bottom: "inception_4c/5x5_reduce"
  top: "inception_4c/5x5_reduce"
}
layer {
  name: "inception_4c/5x5"
  type: "Convolution"
  bottom: "inception_4c/5x5_reduce"
  top: "inception_4c/5x5"
  param {
    lr_mult: 1
    decay_mult: 1
  }
  param {
    lr_mult: 2
    decay_mult: 0
  }
  convolution_param {
    num_output: 64
    pad: 2
    kernel_size: 5
    weight_filler {
      type: "xavier"
      std: 0.03
    }
    bias_filler {
      type: "constant"
      value: 0.2
    }
  }
}
layer {
  name: "inception_4c/relu_5x5"
  type: "ReLU"
  bottom: "inception_4c/5x5"
  top: "inception_4c/5x5"
}
layer {
  name: "inception_4c/pool"
  type: "Pooling"
  bottom: "inception_4b/output"
  top: "inception_4c/pool"
  pooling_param {
    pool: MAX
    kernel_size: 3
    stride: 1
    pad: 1
  }
}
layer {
  name: "inception_4c/pool_proj"
  type: "Convolution"
  bottom: "inception_4c/pool"
  top: "inception_4c/pool_proj"
  param {
    lr_mult: 1
    decay_mult: 1
  }
  param {
    lr_mult: 2
    decay_mult: 0
  }
  convolution_param {
    num_output: 64
    kernel_size: 1
    weight_filler {
      type: "xavier"
      std: 0.1
    }
    bias_filler {
      type: "constant"
      value: 0.2
    }
  }
}
layer {
  name: "inception_4c/relu_pool_proj"
  type: "ReLU"
  bottom: "inception_4c/pool_proj"
  top: "inception_4c/pool_proj"
}
layer {
  name: "inception_4c/output"
  type: "Concat"
  bottom: "inception_4c/1x1"
  bottom: "inception_4c/3x3"
  bottom: "inception_4c/5x5"
  bottom: "inception_4c/pool_proj"
  top: "inception_4c/output"
}
layer {
  name: "inception_4d/1x1"
  type: "Convolution"
  bottom: "inception_4c/output"
  top: "inception_4d/1x1"
  param {
    lr_mult: 1
    decay_mult: 1
  }
  param {
    lr_mult: 2
    decay_mult: 0
  }
  convolution_param {
    num_output: 112
    kernel_size: 1
    weight_filler {
      type: "xavier"
      std: 0.03
    }
    bias_filler {
      type: "constant"
      value: 0.2
    }
  }
}
layer {
  name: "inception_4d/relu_1x1"
  type: "ReLU"
  bottom: "inception_4d/1x1"
  top: "inception_4d/1x1"
}
layer {
  name: "inception_4d/3x3_reduce"
  type: "Convolution"
  bottom: "inception_4c/output"
  top: "inception_4d/3x3_reduce"
  param {
    lr_mult: 1
    decay_mult: 1
  }
  param {
    lr_mult: 2
    decay_mult: 0
  }
  convolution_param {
    num_output: 144
    kernel_size: 1
    weight_filler {
      type: "xavier"
      std: 0.09
    }
    bias_filler {
      type: "constant"
      value: 0.2
    }
  }
}
layer {
  name: "inception_4d/relu_3x3_reduce"
  type: "ReLU"
  bottom: "inception_4d/3x3_reduce"
  top: "inception_4d/3x3_reduce"
}
layer {
  name: "inception_4d/3x3"
  type: "Convolution"
  bottom: "inception_4d/3x3_reduce"
  top: "inception_4d/3x3"
  param {
    lr_mult: 1
    decay_mult: 1
  }
  param {
    lr_mult: 2
    decay_mult: 0
  }
  convolution_param {
    num_output: 288
    pad: 1
    kernel_size: 3
    weight_filler {
      type: "xavier"
      std: 0.03
    }
    bias_filler {
      type: "constant"
      value: 0.2
    }
  }
}
layer {
  name: "inception_4d/relu_3x3"
  type: "ReLU"
  bottom: "inception_4d/3x3"
  top: "inception_4d/3x3"
}
layer {
  name: "inception_4d/5x5_reduce"
  type: "Convolution"
  bottom: "inception_4c/output"
  top: "inception_4d/5x5_reduce"
  param {
    lr_mult: 1
    decay_mult: 1
  }
  param {
    lr_mult: 2
    decay_mult: 0
  }
  convolution_param {
    num_output: 32
    kernel_size: 1
    weight_filler {
      type: "xavier"
      std: 0.2
    }
    bias_filler {
      type: "constant"
      value: 0.2
    }
  }
}
layer {
  name: "inception_4d/relu_5x5_reduce"
  type: "ReLU"
  bottom: "inception_4d/5x5_reduce"
  top: "inception_4d/5x5_reduce"
}
layer {
  name: "inception_4d/5x5"
  type: "Convolution"
  bottom: "inception_4d/5x5_reduce"
  top: "inception_4d/5x5"
  param {
    lr_mult: 1
    decay_mult: 1
  }
  param {
    lr_mult: 2
    decay_mult: 0
  }
  convolution_param {
    num_output: 64
    pad: 2
    kernel_size: 5
    weight_filler {
      type: "xavier"
      std: 0.03
    }
    bias_filler {
      type: "constant"
      value: 0.2
    }
  }
}
layer {
  name: "inception_4d/relu_5x5"
  type: "ReLU"
  bottom: "inception_4d/5x5"
  top: "inception_4d/5x5"
}
layer {
  name: "inception_4d/pool"
  type: "Pooling"
  bottom: "inception_4c/output"
  top: "inception_4d/pool"
  pooling_param {
    pool: MAX
    kernel_size: 3
    stride: 1
    pad: 1
  }
}
layer {
  name: "inception_4d/pool_proj"
  type: "Convolution"
  bottom: "inception_4d/pool"
  top: "inception_4d/pool_proj"
  param {
    lr_mult: 1
    decay_mult: 1
  }
  param {
    lr_mult: 2
    decay_mult: 0
  }
  convolution_param {
    num_output: 64
    kernel_size: 1
    weight_filler {
      type: "xavier"
      std: 0.1
    }
    bias_filler {
      type: "constant"
      value: 0.2
    }
  }
}
layer {
  name: "inception_4d/relu_pool_proj"
  type: "ReLU"
  bottom: "inception_4d/pool_proj"
  top: "inception_4d/pool_proj"
}
layer {
  name: "inception_4d/output"
  type: "Concat"
  bottom: "inception_4d/1x1"
  bottom: "inception_4d/3x3"
  bottom: "inception_4d/5x5"
  bottom: "inception_4d/pool_proj"
  top: "inception_4d/output"
}
layer {
  name: "loss2/ave_pool"
  type: "Pooling"
  bottom: "inception_4d/output"
  top: "loss2/ave_pool"
  pooling_param {
    pool: AVE
    kernel_size: 5
    stride: 3
  }
}
layer {
  name: "loss2/conv"
  type: "Convolution"
  bottom: "loss2/ave_pool"
  top: "loss2/conv"
  param {
    lr_mult: 1
    decay_mult: 1
  }
  param {
    lr_mult: 2
    decay_mult: 0
  }
  convolution_param {
    num_output: 128
    kernel_size: 1
    weight_filler {
      type: "xavier"
      std: 0.08
    }
    bias_filler {
      type: "constant"
      value: 0.2
    }
  }
}
layer {
  name: "loss2/relu_conv"
  type: "ReLU"
  bottom: "loss2/conv"
  top: "loss2/conv"
}
layer {
  name: "loss2/fc"
  type: "InnerProduct"
  bottom: "loss2/conv"
  top: "loss2/fc"
  param {
    lr_mult: 1
    decay_mult: 1
  }
  param {
    lr_mult: 2
    decay_mult: 0
  }
  inner_product_param {
    num_output: 1024
    weight_filler {
      type: "xavier"
      std: 0.02
    }
    bias_filler {
      type: "constant"
      value: 0.2
    }
  }
}
layer {
  name: "loss2/relu_fc"
  type: "ReLU"
  bottom: "loss2/fc"
  top: "loss2/fc"
}
layer {
  name: "loss2/drop_fc"
  type: "Dropout"
  bottom: "loss2/fc"
  top: "loss2/fc"
  dropout_param {
    dropout_ratio: 0.7
  }
}
layer {
  name: "loss2/classifier_plantvillage"
  type: "InnerProduct"
  bottom: "loss2/fc"
  top: "loss2/classifier_plantvillage"
  param {
    lr_mult: 1
    decay_mult: 1
  }
  param {
    lr_mult: 2
    decay_mult: 0
  }
  inner_product_param {
    num_output: 38
    weight_filler {
      type: "xavier"
      std: 0.0009765625
    }
    bias_filler {
      type: "constant"
      value: 0
    }
  }
}
layer {
  name: "inception_4e/1x1"
  type: "Convolution"
  bottom: "inception_4d/output"
  top: "inception_4e/1x1"
  param {
    lr_mult: 1
    decay_mult: 1
  }
  param {
    lr_mult: 2
    decay_mult: 0
  }
  convolution_param {
    num_output: 256
    kernel_size: 1
    weight_filler {
      type: "xavier"
      std: 0.03
    }
    bias_filler {
      type: "constant"
      value: 0.2
    }
  }
}
layer {
  name: "inception_4e/relu_1x1"
  type: "ReLU"
  bottom: "inception_4e/1x1"
  top: "inception_4e/1x1"
}
layer {
  name: "inception_4e/3x3_reduce"
  type: "Convolution"
  bottom: "inception_4d/output"
  top: "inception_4e/3x3_reduce"
  param {
    lr_mult: 1
    decay_mult: 1
  }
  param {
    lr_mult: 2
    decay_mult: 0
  }
  convolution_param {
    num_output: 160
    kernel_size: 1
    weight_filler {
      type: "xavier"
      std: 0.09
    }
    bias_filler {
      type: "constant"
      value: 0.2
    }
  }
}
layer {
  name: "inception_4e/relu_3x3_reduce"
  type: "ReLU"
  bottom: "inception_4e/3x3_reduce"
  top: "inception_4e/3x3_reduce"
}
layer {
  name: "inception_4e/3x3"
  type: "Convolution"
  bottom: "inception_4e/3x3_reduce"
  top: "inception_4e/3x3"
  param {
    lr_mult: 1
    decay_mult: 1
  }
  param {
    lr_mult: 2
    decay_mult: 0
  }
  convolution_param {
    num_output: 320
    pad: 1
    kernel_size: 3
    weight_filler {
      type: "xavier"
      std: 0.03
    }
    bias_filler {
      type: "constant"
      value: 0.2
    }
  }
}
layer {
  name: "inception_4e/relu_3x3"
  type: "ReLU"
  bottom: "inception_4e/3x3"
  top: "inception_4e/3x3"
}
layer {
  name: "inception_4e/5x5_reduce"
  type: "Convolution"
  bottom: "inception_4d/output"
  top: "inception_4e/5x5_reduce"
  param {
    lr_mult: 1
    decay_mult: 1
  }
  param {
    lr_mult: 2
    decay_mult: 0
  }
  convolution_param {
    num_output: 32
    kernel_size: 1
    weight_filler {
      type: "xavier"
      std: 0.2
    }
    bias_filler {
      type: "constant"
      value: 0.2
    }
  }
}
layer {
  name: "inception_4e/relu_5x5_reduce"
  type: "ReLU"
  bottom: "inception_4e/5x5_reduce"
  top: "inception_4e/5x5_reduce"
}
layer {
  name: "inception_4e/5x5"
  type: "Convolution"
  bottom: "inception_4e/5x5_reduce"
  top: "inception_4e/5x5"
  p
I0403 15:40:21.778133 15901 layer_factory.hpp:77] Creating layer data
I0403 15:40:21.778698 15901 net.cpp:91] Creating Layer data
I0403 15:40:21.778729 15901 net.cpp:399] data -> data
I0403 15:40:21.778779 15901 net.cpp:399] data -> label
I0403 15:40:21.778813 15901 data_transformer.cpp:25] Loading mean file from: /home/mohanty/data/final_dataset/lmdb/color-50-50/mean.binaryproto
I0403 15:40:21.781375 15903 db_lmdb.cpp:38] Opened lmdb /home/mohanty/data/final_dataset/lmdb/color-50-50/test_db
I0403 15:40:21.791976 15901 data_layer.cpp:41] output data size: 24,3,224,224
I0403 15:40:21.818539 15901 net.cpp:141] Setting up data
I0403 15:40:21.818619 15901 net.cpp:148] Top shape: 24 3 224 224 (3612672)
I0403 15:40:21.818641 15901 net.cpp:148] Top shape: 24 (24)
I0403 15:40:21.818655 15901 net.cpp:156] Memory required for data: 14450784
I0403 15:40:21.818681 15901 layer_factory.hpp:77] Creating layer label_data_1_split
I0403 15:40:21.818707 15901 net.cpp:91] Creating Layer label_data_1_split
I0403 15:40:21.818724 15901 net.cpp:425] label_data_1_split <- label
I0403 15:40:21.818754 15901 net.cpp:399] label_data_1_split -> label_data_1_split_0
I0403 15:40:21.818781 15901 net.cpp:399] label_data_1_split -> label_data_1_split_1
I0403 15:40:21.818800 15901 net.cpp:399] label_data_1_split -> label_data_1_split_2
I0403 15:40:21.818819 15901 net.cpp:399] label_data_1_split -> label_data_1_split_3
I0403 15:40:21.818838 15901 net.cpp:399] label_data_1_split -> label_data_1_split_4
I0403 15:40:21.818856 15901 net.cpp:399] label_data_1_split -> label_data_1_split_5
I0403 15:40:21.818876 15901 net.cpp:399] label_data_1_split -> label_data_1_split_6
I0403 15:40:21.818893 15901 net.cpp:399] label_data_1_split -> label_data_1_split_7
I0403 15:40:21.818912 15901 net.cpp:399] label_data_1_split -> label_data_1_split_8
I0403 15:40:21.818930 15901 net.cpp:399] label_data_1_split -> label_data_1_split_9
I0403 15:40:21.819039 15901 net.cpp:141] Setting up label_data_1_split
I0403 15:40:21.819061 15901 net.cpp:148] Top shape: 24 (24)
I0403 15:40:21.819077 15901 net.cpp:148] Top shape: 24 (24)
I0403 15:40:21.819092 15901 net.cpp:148] Top shape: 24 (24)
I0403 15:40:21.819108 15901 net.cpp:148] Top shape: 24 (24)
I0403 15:40:21.819121 15901 net.cpp:148] Top shape: 24 (24)
I0403 15:40:21.819135 15901 net.cpp:148] Top shape: 24 (24)
I0403 15:40:21.819149 15901 net.cpp:148] Top shape: 24 (24)
I0403 15:40:21.819164 15901 net.cpp:148] Top shape: 24 (24)
I0403 15:40:21.819178 15901 net.cpp:148] Top shape: 24 (24)
I0403 15:40:21.819193 15901 net.cpp:148] Top shape: 24 (24)
I0403 15:40:21.819233 15901 net.cpp:156] Memory required for data: 14451744
I0403 15:40:21.819248 15901 layer_factory.hpp:77] Creating layer conv1/7x7_s2
I0403 15:40:21.819278 15901 net.cpp:91] Creating Layer conv1/7x7_s2
I0403 15:40:21.819298 15901 net.cpp:425] conv1/7x7_s2 <- data
I0403 15:40:21.819315 15901 net.cpp:399] conv1/7x7_s2 -> conv1/7x7_s2
I0403 15:40:22.177199 15901 net.cpp:141] Setting up conv1/7x7_s2
I0403 15:40:22.177261 15901 net.cpp:148] Top shape: 24 64 112 112 (19267584)
I0403 15:40:22.177279 15901 net.cpp:156] Memory required for data: 91522080
I0403 15:40:22.177311 15901 layer_factory.hpp:77] Creating layer conv1/relu_7x7
I0403 15:40:22.177337 15901 net.cpp:91] Creating Layer conv1/relu_7x7
I0403 15:40:22.177356 15901 net.cpp:425] conv1/relu_7x7 <- conv1/7x7_s2
I0403 15:40:22.177374 15901 net.cpp:386] conv1/relu_7x7 -> conv1/7x7_s2 (in-place)
I0403 15:40:22.177631 15901 net.cpp:141] Setting up conv1/relu_7x7
I0403 15:40:22.177657 15901 net.cpp:148] Top shape: 24 64 112 112 (19267584)
I0403 15:40:22.177673 15901 net.cpp:156] Memory required for data: 168592416
I0403 15:40:22.177687 15901 layer_factory.hpp:77] Creating layer pool1/3x3_s2
I0403 15:40:22.177711 15901 net.cpp:91] Creating Layer pool1/3x3_s2
I0403 15:40:22.177729 15901 net.cpp:425] pool1/3x3_s2 <- conv1/7x7_s2
I0403 15:40:22.177747 15901 net.cpp:399] pool1/3x3_s2 -> pool1/3x3_s2
I0403 15:40:22.177819 15901 net.cpp:141] Setting up pool1/3x3_s2
I0403 15:40:22.177842 15901 net.cpp:148] Top shape: 24 64 56 56 (4816896)
I0403 15:40:22.177856 15901 net.cpp:156] Memory required for data: 187860000
I0403 15:40:22.177870 15901 layer_factory.hpp:77] Creating layer pool1/norm1
I0403 15:40:22.177894 15901 net.cpp:91] Creating Layer pool1/norm1
I0403 15:40:22.177911 15901 net.cpp:425] pool1/norm1 <- pool1/3x3_s2
I0403 15:40:22.177928 15901 net.cpp:399] pool1/norm1 -> pool1/norm1
I0403 15:40:22.178203 15901 net.cpp:141] Setting up pool1/norm1
I0403 15:40:22.178231 15901 net.cpp:148] Top shape: 24 64 56 56 (4816896)
I0403 15:40:22.178246 15901 net.cpp:156] Memory required for data: 207127584
I0403 15:40:22.178261 15901 layer_factory.hpp:77] Creating layer conv2/3x3_reduce
I0403 15:40:22.178284 15901 net.cpp:91] Creating Layer conv2/3x3_reduce
I0403 15:40:22.178300 15901 net.cpp:425] conv2/3x3_reduce <- pool1/norm1
I0403 15:40:22.178318 15901 net.cpp:399] conv2/3x3_reduce -> conv2/3x3_reduce
I0403 15:40:22.179697 15901 net.cpp:141] Setting up conv2/3x3_reduce
I0403 15:40:22.179725 15901 net.cpp:148] Top shape: 24 64 56 56 (4816896)
I0403 15:40:22.179741 15901 net.cpp:156] Memory required for data: 226395168
I0403 15:40:22.179762 15901 layer_factory.hpp:77] Creating layer conv2/relu_3x3_reduce
I0403 15:40:22.179781 15901 net.cpp:91] Creating Layer conv2/relu_3x3_reduce
I0403 15:40:22.179798 15901 net.cpp:425] conv2/relu_3x3_reduce <- conv2/3x3_reduce
I0403 15:40:22.179816 15901 net.cpp:386] conv2/relu_3x3_reduce -> conv2/3x3_reduce (in-place)
I0403 15:40:22.180070 15901 net.cpp:141] Setting up conv2/relu_3x3_reduce
I0403 15:40:22.180097 15901 net.cpp:148] Top shape: 24 64 56 56 (4816896)
I0403 15:40:22.180112 15901 net.cpp:156] Memory required for data: 245662752
I0403 15:40:22.180127 15901 layer_factory.hpp:77] Creating layer conv2/3x3
I0403 15:40:22.180150 15901 net.cpp:91] Creating Layer conv2/3x3
I0403 15:40:22.180166 15901 net.cpp:425] conv2/3x3 <- conv2/3x3_reduce
I0403 15:40:22.180184 15901 net.cpp:399] conv2/3x3 -> conv2/3x3
I0403 15:40:22.182492 15901 net.cpp:141] Setting up conv2/3x3
I0403 15:40:22.182530 15901 net.cpp:148] Top shape: 24 192 56 56 (14450688)
I0403 15:40:22.182548 15901 net.cpp:156] Memory required for data: 303465504
I0403 15:40:22.182570 15901 layer_factory.hpp:77] Creating layer conv2/relu_3x3
I0403 15:40:22.182590 15901 net.cpp:91] Creating Layer conv2/relu_3x3
I0403 15:40:22.182605 15901 net.cpp:425] conv2/relu_3x3 <- conv2/3x3
I0403 15:40:22.182626 15901 net.cpp:386] conv2/relu_3x3 -> conv2/3x3 (in-place)
I0403 15:40:22.182803 15901 net.cpp:141] Setting up conv2/relu_3x3
I0403 15:40:22.182829 15901 net.cpp:148] Top shape: 24 192 56 56 (14450688)
I0403 15:40:22.182869 15901 net.cpp:156] Memory required for data: 361268256
I0403 15:40:22.182885 15901 layer_factory.hpp:77] Creating layer conv2/norm2
I0403 15:40:22.182906 15901 net.cpp:91] Creating Layer conv2/norm2
I0403 15:40:22.182924 15901 net.cpp:425] conv2/norm2 <- conv2/3x3
I0403 15:40:22.182943 15901 net.cpp:399] conv2/norm2 -> conv2/norm2
I0403 15:40:22.183256 15901 net.cpp:141] Setting up conv2/norm2
I0403 15:40:22.183285 15901 net.cpp:148] Top shape: 24 192 56 56 (14450688)
I0403 15:40:22.183301 15901 net.cpp:156] Memory required for data: 419071008
I0403 15:40:22.183316 15901 layer_factory.hpp:77] Creating layer pool2/3x3_s2
I0403 15:40:22.183333 15901 net.cpp:91] Creating Layer pool2/3x3_s2
I0403 15:40:22.183348 15901 net.cpp:425] pool2/3x3_s2 <- conv2/norm2
I0403 15:40:22.183367 15901 net.cpp:399] pool2/3x3_s2 -> pool2/3x3_s2
I0403 15:40:22.183425 15901 net.cpp:141] Setting up pool2/3x3_s2
I0403 15:40:22.183449 15901 net.cpp:148] Top shape: 24 192 28 28 (3612672)
I0403 15:40:22.183464 15901 net.cpp:156] Memory required for data: 433521696
I0403 15:40:22.183478 15901 layer_factory.hpp:77] Creating layer pool2/3x3_s2_pool2/3x3_s2_0_split
I0403 15:40:22.183500 15901 net.cpp:91] Creating Layer pool2/3x3_s2_pool2/3x3_s2_0_split
I0403 15:40:22.183521 15901 net.cpp:425] pool2/3x3_s2_pool2/3x3_s2_0_split <- pool2/3x3_s2
I0403 15:40:22.183539 15901 net.cpp:399] pool2/3x3_s2_pool2/3x3_s2_0_split -> pool2/3x3_s2_pool2/3x3_s2_0_split_0
I0403 15:40:22.183559 15901 net.cpp:399] pool2/3x3_s2_pool2/3x3_s2_0_split -> pool2/3x3_s2_pool2/3x3_s2_0_split_1
I0403 15:40:22.183578 15901 net.cpp:399] pool2/3x3_s2_pool2/3x3_s2_0_split -> pool2/3x3_s2_pool2/3x3_s2_0_split_2
I0403 15:40:22.183600 15901 net.cpp:399] pool2/3x3_s2_pool2/3x3_s2_0_split -> pool2/3x3_s2_pool2/3x3_s2_0_split_3
I0403 15:40:22.183675 15901 net.cpp:141] Setting up pool2/3x3_s2_pool2/3x3_s2_0_split
I0403 15:40:22.183697 15901 net.cpp:148] Top shape: 24 192 28 28 (3612672)
I0403 15:40:22.183713 15901 net.cpp:148] Top shape: 24 192 28 28 (3612672)
I0403 15:40:22.183729 15901 net.cpp:148] Top shape: 24 192 28 28 (3612672)
I0403 15:40:22.183744 15901 net.cpp:148] Top shape: 24 192 28 28 (3612672)
I0403 15:40:22.183758 15901 net.cpp:156] Memory required for data: 491324448
I0403 15:40:22.183773 15901 layer_factory.hpp:77] Creating layer inception_3a/1x1
I0403 15:40:22.183794 15901 net.cpp:91] Creating Layer inception_3a/1x1
I0403 15:40:22.183811 15901 net.cpp:425] inception_3a/1x1 <- pool2/3x3_s2_pool2/3x3_s2_0_split_0
I0403 15:40:22.183832 15901 net.cpp:399] inception_3a/1x1 -> inception_3a/1x1
I0403 15:40:22.185386 15901 net.cpp:141] Setting up inception_3a/1x1
I0403 15:40:22.185415 15901 net.cpp:148] Top shape: 24 64 28 28 (1204224)
I0403 15:40:22.185432 15901 net.cpp:156] Memory required for data: 496141344
I0403 15:40:22.185451 15901 layer_factory.hpp:77] Creating layer inception_3a/relu_1x1
I0403 15:40:22.185468 15901 net.cpp:91] Creating Layer inception_3a/relu_1x1
I0403 15:40:22.185484 15901 net.cpp:425] inception_3a/relu_1x1 <- inception_3a/1x1
I0403 15:40:22.185503 15901 net.cpp:386] inception_3a/relu_1x1 -> inception_3a/1x1 (in-place)
I0403 15:40:22.185683 15901 net.cpp:141] Setting up inception_3a/relu_1x1
I0403 15:40:22.185709 15901 net.cpp:148] Top shape: 24 64 28 28 (1204224)
I0403 15:40:22.185724 15901 net.cpp:156] Memory required for data: 500958240
I0403 15:40:22.185739 15901 layer_factory.hpp:77] Creating layer inception_3a/3x3_reduce
I0403 15:40:22.185761 15901 net.cpp:91] Creating Layer inception_3a/3x3_reduce
I0403 15:40:22.185777 15901 net.cpp:425] inception_3a/3x3_reduce <- pool2/3x3_s2_pool2/3x3_s2_0_split_1
I0403 15:40:22.185798 15901 net.cpp:399] inception_3a/3x3_reduce -> inception_3a/3x3_reduce
I0403 15:40:22.187512 15901 net.cpp:141] Setting up inception_3a/3x3_reduce
I0403 15:40:22.187544 15901 net.cpp:148] Top shape: 24 96 28 28 (1806336)
I0403 15:40:22.187561 15901 net.cpp:156] Memory required for data: 508183584
I0403 15:40:22.187583 15901 layer_factory.hpp:77] Creating layer inception_3a/relu_3x3_reduce
I0403 15:40:22.187621 15901 net.cpp:91] Creating Layer inception_3a/relu_3x3_reduce
I0403 15:40:22.187640 15901 net.cpp:425] inception_3a/relu_3x3_reduce <- inception_3a/3x3_reduce
I0403 15:40:22.187657 15901 net.cpp:386] inception_3a/relu_3x3_reduce -> inception_3a/3x3_reduce (in-place)
I0403 15:40:22.187837 15901 net.cpp:141] Setting up inception_3a/relu_3x3_reduce
I0403 15:40:22.187865 15901 net.cpp:148] Top shape: 24 96 28 28 (1806336)
I0403 15:40:22.187881 15901 net.cpp:156] Memory required for data: 515408928
I0403 15:40:22.187896 15901 layer_factory.hpp:77] Creating layer inception_3a/3x3
I0403 15:40:22.187919 15901 net.cpp:91] Creating Layer inception_3a/3x3
I0403 15:40:22.187937 15901 net.cpp:425] inception_3a/3x3 <- inception_3a/3x3_reduce
I0403 15:40:22.187955 15901 net.cpp:399] inception_3a/3x3 -> inception_3a/3x3
I0403 15:40:22.189631 15901 net.cpp:141] Setting up inception_3a/3x3
I0403 15:40:22.189661 15901 net.cpp:148] Top shape: 24 128 28 28 (2408448)
I0403 15:40:22.189677 15901 net.cpp:156] Memory required for data: 525042720
I0403 15:40:22.189694 15901 layer_factory.hpp:77] Creating layer inception_3a/relu_3x3
I0403 15:40:22.189713 15901 net.cpp:91] Creating Layer inception_3a/relu_3x3
I0403 15:40:22.189728 15901 net.cpp:425] inception_3a/relu_3x3 <- inception_3a/3x3
I0403 15:40:22.189748 15901 net.cpp:386] inception_3a/relu_3x3 -> inception_3a/3x3 (in-place)
I0403 15:40:22.190026 15901 net.cpp:141] Setting up inception_3a/relu_3x3
I0403 15:40:22.190052 15901 net.cpp:148] Top shape: 24 128 28 28 (2408448)
I0403 15:40:22.190068 15901 net.cpp:156] Memory required for data: 534676512
I0403 15:40:22.190081 15901 layer_factory.hpp:77] Creating layer inception_3a/5x5_reduce
I0403 15:40:22.190105 15901 net.cpp:91] Creating Layer inception_3a/5x5_reduce
I0403 15:40:22.190124 15901 net.cpp:425] inception_3a/5x5_reduce <- pool2/3x3_s2_pool2/3x3_s2_0_split_2
I0403 15:40:22.190145 15901 net.cpp:399] inception_3a/5x5_reduce -> inception_3a/5x5_reduce
I0403 15:40:22.191114 15901 net.cpp:141] Setting up inception_3a/5x5_reduce
I0403 15:40:22.191143 15901 net.cpp:148] Top shape: 24 16 28 28 (301056)
I0403 15:40:22.191159 15901 net.cpp:156] Memory required for data: 535880736
I0403 15:40:22.191177 15901 layer_factory.hpp:77] Creating layer inception_3a/relu_5x5_reduce
I0403 15:40:22.191197 15901 net.cpp:91] Creating Layer inception_3a/relu_5x5_reduce
I0403 15:40:22.191215 15901 net.cpp:425] inception_3a/relu_5x5_reduce <- inception_3a/5x5_reduce
I0403 15:40:22.191232 15901 net.cpp:386] inception_3a/relu_5x5_reduce -> inception_3a/5x5_reduce (in-place)
I0403 15:40:22.191527 15901 net.cpp:141] Setting up inception_3a/relu_5x5_reduce
I0403 15:40:22.191555 15901 net.cpp:148] Top shape: 24 16 28 28 (301056)
I0403 15:40:22.191570 15901 net.cpp:156] Memory required for data: 537084960
I0403 15:40:22.191584 15901 layer_factory.hpp:77] Creating layer inception_3a/5x5
I0403 15:40:22.191606 15901 net.cpp:91] Creating Layer inception_3a/5x5
I0403 15:40:22.191627 15901 net.cpp:425] inception_3a/5x5 <- inception_3a/5x5_reduce
I0403 15:40:22.191645 15901 net.cpp:399] inception_3a/5x5 -> inception_3a/5x5
I0403 15:40:22.192670 15901 net.cpp:141] Setting up inception_3a/5x5
I0403 15:40:22.192698 15901 net.cpp:148] Top shape: 24 32 28 28 (602112)
I0403 15:40:22.192715 15901 net.cpp:156] Memory required for data: 539493408
I0403 15:40:22.192734 15901 layer_factory.hpp:77] Creating layer inception_3a/relu_5x5
I0403 15:40:22.192751 15901 net.cpp:91] Creating Layer inception_3a/relu_5x5
I0403 15:40:22.192767 15901 net.cpp:425] inception_3a/relu_5x5 <- inception_3a/5x5
I0403 15:40:22.192786 15901 net.cpp:386] inception_3a/relu_5x5 -> inception_3a/5x5 (in-place)
I0403 15:40:22.192961 15901 net.cpp:141] Setting up inception_3a/relu_5x5
I0403 15:40:22.192986 15901 net.cpp:148] Top shape: 24 32 28 28 (602112)
I0403 15:40:22.193001 15901 net.cpp:156] Memory required for data: 541901856
I0403 15:40:22.193016 15901 layer_factory.hpp:77] Creating layer inception_3a/pool
I0403 15:40:22.193039 15901 net.cpp:91] Creating Layer inception_3a/pool
I0403 15:40:22.193055 15901 net.cpp:425] inception_3a/pool <- pool2/3x3_s2_pool2/3x3_s2_0_split_3
I0403 15:40:22.193089 15901 net.cpp:399] inception_3a/pool -> inception_3a/pool
I0403 15:40:22.193148 15901 net.cpp:141] Setting up inception_3a/pool
I0403 15:40:22.193172 15901 net.cpp:148] Top shape: 24 192 28 28 (3612672)
I0403 15:40:22.193187 15901 net.cpp:156] Memory required for data: 556352544
I0403 15:40:22.193202 15901 layer_factory.hpp:77] Creating layer inception_3a/pool_proj
I0403 15:40:22.193224 15901 net.cpp:91] Creating Layer inception_3a/pool_proj
I0403 15:40:22.193241 15901 net.cpp:425] inception_3a/pool_proj <- inception_3a/pool
I0403 15:40:22.193264 15901 net.cpp:399] inception_3a/pool_proj -> inception_3a/pool_proj
I0403 15:40:22.194232 15901 net.cpp:141] Setting up inception_3a/pool_proj
I0403 15:40:22.194263 15901 net.cpp:148] Top shape: 24 32 28 28 (602112)
I0403 15:40:22.194279 15901 net.cpp:156] Memory required for data: 558760992
I0403 15:40:22.194303 15901 layer_factory.hpp:77] Creating layer inception_3a/relu_pool_proj
I0403 15:40:22.194324 15901 net.cpp:91] Creating Layer inception_3a/relu_pool_proj
I0403 15:40:22.194340 15901 net.cpp:425] inception_3a/relu_pool_proj <- inception_3a/pool_proj
I0403 15:40:22.194357 15901 net.cpp:386] inception_3a/relu_pool_proj -> inception_3a/pool_proj (in-place)
I0403 15:40:22.194650 15901 net.cpp:141] Setting up inception_3a/relu_pool_proj
I0403 15:40:22.194677 15901 net.cpp:148] Top shape: 24 32 28 28 (602112)
I0403 15:40:22.194694 15901 net.cpp:156] Memory required for data: 561169440
I0403 15:40:22.194708 15901 layer_factory.hpp:77] Creating layer inception_3a/output
I0403 15:40:22.194726 15901 net.cpp:91] Creating Layer inception_3a/output
I0403 15:40:22.194742 15901 net.cpp:425] inception_3a/output <- inception_3a/1x1
I0403 15:40:22.194758 15901 net.cpp:425] inception_3a/output <- inception_3a/3x3
I0403 15:40:22.194774 15901 net.cpp:425] inception_3a/output <- inception_3a/5x5
I0403 15:40:22.194789 15901 net.cpp:425] inception_3a/output <- inception_3a/pool_proj
I0403 15:40:22.194809 15901 net.cpp:399] inception_3a/output -> inception_3a/output
I0403 15:40:22.194855 15901 net.cpp:141] Setting up inception_3a/output
I0403 15:40:22.194881 15901 net.cpp:148] Top shape: 24 256 28 28 (4816896)
I0403 15:40:22.194897 15901 net.cpp:156] Memory required for data: 580437024
I0403 15:40:22.194911 15901 layer_factory.hpp:77] Creating layer inception_3a/output_inception_3a/output_0_split
I0403 15:40:22.194929 15901 net.cpp:91] Creating Layer inception_3a/output_inception_3a/output_0_split
I0403 15:40:22.194944 15901 net.cpp:425] inception_3a/output_inception_3a/output_0_split <- inception_3a/output
I0403 15:40:22.194960 15901 net.cpp:399] inception_3a/output_inception_3a/output_0_split -> inception_3a/output_inception_3a/output_0_split_0
I0403 15:40:22.194983 15901 net.cpp:399] inception_3a/output_inception_3a/output_0_split -> inception_3a/output_inception_3a/output_0_split_1
I0403 15:40:22.195006 15901 net.cpp:399] inception_3a/output_inception_3a/output_0_split -> inception_3a/output_inception_3a/output_0_split_2
I0403 15:40:22.195027 15901 net.cpp:399] inception_3a/output_inception_3a/output_0_split -> inception_3a/output_inception_3a/output_0_split_3
I0403 15:40:22.195103 15901 net.cpp:141] Setting up inception_3a/output_inception_3a/output_0_split
I0403 15:40:22.195128 15901 net.cpp:148] Top shape: 24 256 28 28 (4816896)
I0403 15:40:22.195147 15901 net.cpp:148] Top shape: 24 256 28 28 (4816896)
I0403 15:40:22.195161 15901 net.cpp:148] Top shape: 24 256 28 28 (4816896)
I0403 15:40:22.195176 15901 net.cpp:148] Top shape: 24 256 28 28 (4816896)
I0403 15:40:22.195189 15901 net.cpp:156] Memory required for data: 657507360
I0403 15:40:22.195204 15901 layer_factory.hpp:77] Creating layer inception_3b/1x1
I0403 15:40:22.195226 15901 net.cpp:91] Creating Layer inception_3b/1x1
I0403 15:40:22.195243 15901 net.cpp:425] inception_3b/1x1 <- inception_3a/output_inception_3a/output_0_split_0
I0403 15:40:22.195264 15901 net.cpp:399] inception_3b/1x1 -> inception_3b/1x1
I0403 15:40:22.196411 15901 net.cpp:141] Setting up inception_3b/1x1
I0403 15:40:22.196455 15901 net.cpp:148] Top shape: 24 128 28 28 (2408448)
I0403 15:40:22.196472 15901 net.cpp:156] Memory required for data: 667141152
I0403 15:40:22.196491 15901 layer_factory.hpp:77] Creating layer inception_3b/relu_1x1
I0403 15:40:22.196512 15901 net.cpp:91] Creating Layer inception_3b/relu_1x1
I0403 15:40:22.196530 15901 net.cpp:425] inception_3b/relu_1x1 <- inception_3b/1x1
I0403 15:40:22.196552 15901 net.cpp:386] inception_3b/relu_1x1 -> inception_3b/1x1 (in-place)
I0403 15:40:22.196728 15901 net.cpp:141] Setting up inception_3b/relu_1x1
I0403 15:40:22.196754 15901 net.cpp:148] Top shape: 24 128 28 28 (2408448)
I0403 15:40:22.196769 15901 net.cpp:156] Memory required for data: 676774944
I0403 15:40:22.196784 15901 layer_factory.hpp:77] Creating layer inception_3b/3x3_reduce
I0403 15:40:22.196806 15901 net.cpp:91] Creating Layer inception_3b/3x3_reduce
I0403 15:40:22.196825 15901 net.cpp:425] inception_3b/3x3_reduce <- inception_3a/output_inception_3a/output_0_split_1
I0403 15:40:22.196846 15901 net.cpp:399] inception_3b/3x3_reduce -> inception_3b/3x3_reduce
I0403 15:40:22.197999 15901 net.cpp:141] Setting up inception_3b/3x3_reduce
I0403 15:40:22.198030 15901 net.cpp:148] Top shape: 24 128 28 28 (2408448)
I0403 15:40:22.198046 15901 net.cpp:156] Memory required for data: 686408736
I0403 15:40:22.198065 15901 layer_factory.hpp:77] Creating layer inception_3b/relu_3x3_reduce
I0403 15:40:22.198083 15901 net.cpp:91] Creating Layer inception_3b/relu_3x3_reduce
I0403 15:40:22.198099 15901 net.cpp:425] inception_3b/relu_3x3_reduce <- inception_3b/3x3_reduce
I0403 15:40:22.198118 15901 net.cpp:386] inception_3b/relu_3x3_reduce -> inception_3b/3x3_reduce (in-place)
I0403 15:40:22.198292 15901 net.cpp:141] Setting up inception_3b/relu_3x3_reduce
I0403 15:40:22.198318 15901 net.cpp:148] Top shape: 24 128 28 28 (2408448)
I0403 15:40:22.198333 15901 net.cpp:156] Memory required for data: 696042528
I0403 15:40:22.198348 15901 layer_factory.hpp:77] Creating layer inception_3b/3x3
I0403 15:40:22.198374 15901 net.cpp:91] Creating Layer inception_3b/3x3
I0403 15:40:22.198391 15901 net.cpp:425] inception_3b/3x3 <- inception_3b/3x3_reduce
I0403 15:40:22.198410 15901 net.cpp:399] inception_3b/3x3 -> inception_3b/3x3
I0403 15:40:22.201411 15901 net.cpp:141] Setting up inception_3b/3x3
I0403 15:40:22.201438 15901 net.cpp:148] Top shape: 24 192 28 28 (3612672)
I0403 15:40:22.201453 15901 net.cpp:156] Memory required for data: 710493216
I0403 15:40:22.201472 15901 layer_factory.hpp:77] Creating layer inception_3b/relu_3x3
I0403 15:40:22.201488 15901 net.cpp:91] Creating Layer inception_3b/relu_3x3
I0403 15:40:22.201503 15901 net.cpp:425] inception_3b/relu_3x3 <- inception_3b/3x3
I0403 15:40:22.201527 15901 net.cpp:386] inception_3b/relu_3x3 -> inception_3b/3x3 (in-place)
I0403 15:40:22.201797 15901 net.cpp:141] Setting up inception_3b/relu_3x3
I0403 15:40:22.201823 15901 net.cpp:148] Top shape: 24 192 28 28 (3612672)
I0403 15:40:22.201838 15901 net.cpp:156] Memory required for data: 724943904
I0403 15:40:22.201851 15901 layer_factory.hpp:77] Creating layer inception_3b/5x5_reduce
I0403 15:40:22.201874 15901 net.cpp:91] Creating Layer inception_3b/5x5_reduce
I0403 15:40:22.201890 15901 net.cpp:425] inception_3b/5x5_reduce <- inception_3a/output_inception_3a/output_0_split_2
I0403 15:40:22.201912 15901 net.cpp:399] inception_3b/5x5_reduce -> inception_3b/5x5_reduce
I0403 15:40:22.202883 15901 net.cpp:141] Setting up inception_3b/5x5_reduce
I0403 15:40:22.202910 15901 net.cpp:148] Top shape: 24 32 28 28 (602112)
I0403 15:40:22.202925 15901 net.cpp:156] Memory required for data: 727352352
I0403 15:40:22.202942 15901 layer_factory.hpp:77] Creating layer inception_3b/relu_5x5_reduce
I0403 15:40:22.202960 15901 net.cpp:91] Creating Layer inception_3b/relu_5x5_reduce
I0403 15:40:22.202975 15901 net.cpp:425] inception_3b/relu_5x5_reduce <- inception_3b/5x5_reduce
I0403 15:40:22.202994 15901 net.cpp:386] inception_3b/relu_5x5_reduce -> inception_3b/5x5_reduce (in-place)
I0403 15:40:22.203164 15901 net.cpp:141] Setting up inception_3b/relu_5x5_reduce
I0403 15:40:22.203200 15901 net.cpp:148] Top shape: 24 32 28 28 (602112)
I0403 15:40:22.203217 15901 net.cpp:156] Memory required for data: 729760800
I0403 15:40:22.203230 15901 layer_factory.hpp:77] Creating layer inception_3b/5x5
I0403 15:40:22.203251 15901 net.cpp:91] Creating Layer inception_3b/5x5
I0403 15:40:22.203269 15901 net.cpp:425] inception_3b/5x5 <- inception_3b/5x5_reduce
I0403 15:40:22.203289 15901 net.cpp:399] inception_3b/5x5 -> inception_3b/5x5
I0403 15:40:22.205241 15901 net.cpp:141] Setting up inception_3b/5x5
I0403 15:40:22.205272 15901 net.cpp:148] Top shape: 24 96 28 28 (1806336)
I0403 15:40:22.205288 15901 net.cpp:156] Memory required for data: 736986144
I0403 15:40:22.205307 15901 layer_factory.hpp:77] Creating layer inception_3b/relu_5x5
I0403 15:40:22.205324 15901 net.cpp:91] Creating Layer inception_3b/relu_5x5
I0403 15:40:22.205339 15901 net.cpp:425] inception_3b/relu_5x5 <- inception_3b/5x5
I0403 15:40:22.205356 15901 net.cpp:386] inception_3b/relu_5x5 -> inception_3b/5x5 (in-place)
I0403 15:40:22.205549 15901 net.cpp:141] Setting up inception_3b/relu_5x5
I0403 15:40:22.205574 15901 net.cpp:148] Top shape: 24 96 28 28 (1806336)
I0403 15:40:22.205588 15901 net.cpp:156] Memory required for data: 744211488
I0403 15:40:22.205602 15901 layer_factory.hpp:77] Creating layer inception_3b/pool
I0403 15:40:22.205620 15901 net.cpp:91] Creating Layer inception_3b/pool
I0403 15:40:22.205634 15901 net.cpp:425] inception_3b/pool <- inception_3a/output_inception_3a/output_0_split_3
I0403 15:40:22.205651 15901 net.cpp:399] inception_3b/pool -> inception_3b/pool
I0403 15:40:22.205705 15901 net.cpp:141] Setting up inception_3b/pool
I0403 15:40:22.205731 15901 net.cpp:148] Top shape: 24 256 28 28 (4816896)
I0403 15:40:22.205745 15901 net.cpp:156] Memory required for data: 763479072
I0403 15:40:22.205760 15901 layer_factory.hpp:77] Creating layer inception_3b/pool_proj
I0403 15:40:22.205781 15901 net.cpp:91] Creating Layer inception_3b/pool_proj
I0403 15:40:22.205798 15901 net.cpp:425] inception_3b/pool_proj <- inception_3b/pool
I0403 15:40:22.205816 15901 net.cpp:399] inception_3b/pool_proj -> inception_3b/pool_proj
I0403 15:40:22.206854 15901 net.cpp:141] Setting up inception_3b/pool_proj
I0403 15:40:22.206881 15901 net.cpp:148] Top shape: 24 64 28 28 (1204224)
I0403 15:40:22.206897 15901 net.cpp:156] Memory required for data: 768295968
I0403 15:40:22.206915 15901 layer_factory.hpp:77] Creating layer inception_3b/relu_pool_proj
I0403 15:40:22.206935 15901 net.cpp:91] Creating Layer inception_3b/relu_pool_proj
I0403 15:40:22.206951 15901 net.cpp:425] inception_3b/relu_pool_proj <- inception_3b/pool_proj
I0403 15:40:22.206969 15901 net.cpp:386] inception_3b/relu_pool_proj -> inception_3b/pool_proj (in-place)
I0403 15:40:22.207355 15901 net.cpp:141] Setting up inception_3b/relu_pool_proj
I0403 15:40:22.207381 15901 net.cpp:148] Top shape: 24 64 28 28 (1204224)
I0403 15:40:22.207396 15901 net.cpp:156] Memory required for data: 773112864
I0403 15:40:22.207411 15901 layer_factory.hpp:77] Creating layer inception_3b/output
I0403 15:40:22.207427 15901 net.cpp:91] Creating Layer inception_3b/output
I0403 15:40:22.207442 15901 net.cpp:425] inception_3b/output <- inception_3b/1x1
I0403 15:40:22.207460 15901 net.cpp:425] inception_3b/output <- inception_3b/3x3
I0403 15:40:22.207478 15901 net.cpp:425] inception_3b/output <- inception_3b/5x5
I0403 15:40:22.207494 15901 net.cpp:425] inception_3b/output <- inception_3b/pool_proj
I0403 15:40:22.207515 15901 net.cpp:399] inception_3b/output -> inception_3b/output
I0403 15:40:22.207561 15901 net.cpp:141] Setting up inception_3b/output
I0403 15:40:22.207583 15901 net.cpp:148] Top shape: 24 480 28 28 (9031680)
I0403 15:40:22.207597 15901 net.cpp:156] Memory required for data: 809239584
I0403 15:40:22.207612 15901 layer_factory.hpp:77] Creating layer pool3/3x3_s2
I0403 15:40:22.207628 15901 net.cpp:91] Creating Layer pool3/3x3_s2
I0403 15:40:22.207643 15901 net.cpp:425] pool3/3x3_s2 <- inception_3b/output
I0403 15:40:22.207661 15901 net.cpp:399] pool3/3x3_s2 -> pool3/3x3_s2
I0403 15:40:22.207732 15901 net.cpp:141] Setting up pool3/3x3_s2
I0403 15:40:22.207756 15901 net.cpp:148] Top shape: 24 480 14 14 (2257920)
I0403 15:40:22.207769 15901 net.cpp:156] Memory required for data: 818271264
I0403 15:40:22.207783 15901 layer_factory.hpp:77] Creating layer pool3/3x3_s2_pool3/3x3_s2_0_split
I0403 15:40:22.207803 15901 net.cpp:91] Creating Layer pool3/3x3_s2_pool3/3x3_s2_0_split
I0403 15:40:22.207818 15901 net.cpp:425] pool3/3x3_s2_pool3/3x3_s2_0_split <- pool3/3x3_s2
I0403 15:40:22.207834 15901 net.cpp:399] pool3/3x3_s2_pool3/3x3_s2_0_split -> pool3/3x3_s2_pool3/3x3_s2_0_split_0
I0403 15:40:22.207856 15901 net.cpp:399] pool3/3x3_s2_pool3/3x3_s2_0_split -> pool3/3x3_s2_pool3/3x3_s2_0_split_1
I0403 15:40:22.207875 15901 net.cpp:399] pool3/3x3_s2_pool3/3x3_s2_0_split -> pool3/3x3_s2_pool3/3x3_s2_0_split_2
I0403 15:40:22.207893 15901 net.cpp:399] pool3/3x3_s2_pool3/3x3_s2_0_split -> pool3/3x3_s2_pool3/3x3_s2_0_split_3
I0403 15:40:22.207967 15901 net.cpp:141] Setting up pool3/3x3_s2_pool3/3x3_s2_0_split
I0403 15:40:22.207990 15901 net.cpp:148] Top shape: 24 480 14 14 (2257920)
I0403 15:40:22.208005 15901 net.cpp:148] Top shape: 24 480 14 14 (2257920)
I0403 15:40:22.208020 15901 net.cpp:148] Top shape: 24 480 14 14 (2257920)
I0403 15:40:22.208035 15901 net.cpp:148] Top shape: 24 480 14 14 (2257920)
I0403 15:40:22.208050 15901 net.cpp:156] Memory required for data: 854397984
I0403 15:40:22.208062 15901 layer_factory.hpp:77] Creating layer inception_4a/1x1
I0403 15:40:22.208083 15901 net.cpp:91] Creating Layer inception_4a/1x1
I0403 15:40:22.208101 15901 net.cpp:425] inception_4a/1x1 <- pool3/3x3_s2_pool3/3x3_s2_0_split_0
I0403 15:40:22.208122 15901 net.cpp:399] inception_4a/1x1 -> inception_4a/1x1
I0403 15:40:22.209679 15901 net.cpp:141] Setting up inception_4a/1x1
I0403 15:40:22.209709 15901 net.cpp:148] Top shape: 24 192 14 14 (903168)
I0403 15:40:22.209725 15901 net.cpp:156] Memory required for data: 858010656
I0403 15:40:22.209743 15901 layer_factory.hpp:77] Creating layer inception_4a/relu_1x1
I0403 15:40:22.209759 15901 net.cpp:91] Creating Layer inception_4a/relu_1x1
I0403 15:40:22.209775 15901 net.cpp:425] inception_4a/relu_1x1 <- inception_4a/1x1
I0403 15:40:22.209791 15901 net.cpp:386] inception_4a/relu_1x1 -> inception_4a/1x1 (in-place)
I0403 15:40:22.209965 15901 net.cpp:141] Setting up inception_4a/relu_1x1
I0403 15:40:22.209992 15901 net.cpp:148] Top shape: 24 192 14 14 (903168)
I0403 15:40:22.210008 15901 net.cpp:156] Memory required for data: 861623328
I0403 15:40:22.210022 15901 layer_factory.hpp:77] Creating layer inception_4a/3x3_reduce
I0403 15:40:22.210043 15901 net.cpp:91] Creating Layer inception_4a/3x3_reduce
I0403 15:40:22.210059 15901 net.cpp:425] inception_4a/3x3_reduce <- pool3/3x3_s2_pool3/3x3_s2_0_split_1
I0403 15:40:22.210078 15901 net.cpp:399] inception_4a/3x3_reduce -> inception_4a/3x3_reduce
I0403 15:40:22.211391 15901 net.cpp:141] Setting up inception_4a/3x3_reduce
I0403 15:40:22.211419 15901 net.cpp:148] Top shape: 24 96 14 14 (451584)
I0403 15:40:22.211436 15901 net.cpp:156] Memory required for data: 863429664
I0403 15:40:22.211465 15901 layer_factory.hpp:77] Creating layer inception_4a/relu_3x3_reduce
I0403 15:40:22.211486 15901 net.cpp:91] Creating Layer inception_4a/relu_3x3_reduce
I0403 15:40:22.211503 15901 net.cpp:425] inception_4a/relu_3x3_reduce <- inception_4a/3x3_reduce
I0403 15:40:22.211525 15901 net.cpp:386] inception_4a/relu_3x3_reduce -> inception_4a/3x3_reduce (in-place)
I0403 15:40:22.211702 15901 net.cpp:141] Setting up inception_4a/relu_3x3_reduce
I0403 15:40:22.211730 15901 net.cpp:148] Top shape: 24 96 14 14 (451584)
I0403 15:40:22.211746 15901 net.cpp:156] Memory required for data: 865236000
I0403 15:40:22.211761 15901 layer_factory.hpp:77] Creating layer inception_4a/3x3
I0403 15:40:22.211783 15901 net.cpp:91] Creating Layer inception_4a/3x3
I0403 15:40:22.211801 15901 net.cpp:425] inception_4a/3x3 <- inception_4a/3x3_reduce
I0403 15:40:22.211819 15901 net.cpp:399] inception_4a/3x3 -> inception_4a/3x3
I0403 15:40:22.214548 15901 net.cpp:141] Setting up inception_4a/3x3
I0403 15:40:22.214579 15901 net.cpp:148] Top shape: 24 208 14 14 (978432)
I0403 15:40:22.214596 15901 net.cpp:156] Memory required for data: 869149728
I0403 15:40:22.214614 15901 layer_factory.hpp:77] Creating layer inception_4a/relu_3x3
I0403 15:40:22.214632 15901 net.cpp:91] Creating Layer inception_4a/relu_3x3
I0403 15:40:22.214648 15901 net.cpp:425] inception_4a/relu_3x3 <- inception_4a/3x3
I0403 15:40:22.214668 15901 net.cpp:386] inception_4a/relu_3x3 -> inception_4a/3x3 (in-place)
I0403 15:40:22.214948 15901 net.cpp:141] Setting up inception_4a/relu_3x3
I0403 15:40:22.214977 15901 net.cpp:148] Top shape: 24 208 14 14 (978432)
I0403 15:40:22.214992 15901 net.cpp:156] Memory required for data: 873063456
I0403 15:40:22.215006 15901 layer_factory.hpp:77] Creating layer inception_4a/5x5_reduce
I0403 15:40:22.215029 15901 net.cpp:91] Creating Layer inception_4a/5x5_reduce
I0403 15:40:22.215046 15901 net.cpp:425] inception_4a/5x5_reduce <- pool3/3x3_s2_pool3/3x3_s2_0_split_2
I0403 15:40:22.215070 15901 net.cpp:399] inception_4a/5x5_reduce -> inception_4a/5x5_reduce
I0403 15:40:22.216099 15901 net.cpp:141] Setting up inception_4a/5x5_reduce
I0403 15:40:22.216127 15901 net.cpp:148] Top shape: 24 16 14 14 (75264)
I0403 15:40:22.216143 15901 net.cpp:156] Memory required for data: 873364512
I0403 15:40:22.216161 15901 layer_factory.hpp:77] Creating layer inception_4a/relu_5x5_reduce
I0403 15:40:22.216181 15901 net.cpp:91] Creating Layer inception_4a/relu_5x5_reduce
I0403 15:40:22.216197 15901 net.cpp:425] inception_4a/relu_5x5_reduce <- inception_4a/5x5_reduce
I0403 15:40:22.216217 15901 net.cpp:386] inception_4a/relu_5x5_reduce -> inception_4a/5x5_reduce (in-place)
I0403 15:40:22.216395 15901 net.cpp:141] Setting up inception_4a/relu_5x5_reduce
I0403 15:40:22.216420 15901 net.cpp:148] Top shape: 24 16 14 14 (75264)
I0403 15:40:22.216435 15901 net.cpp:156] Memory required for data: 873665568
I0403 15:40:22.216450 15901 layer_factory.hpp:77] Creating layer inception_4a/5x5
I0403 15:40:22.216472 15901 net.cpp:91] Creating Layer inception_4a/5x5
I0403 15:40:22.216490 15901 net.cpp:425] inception_4a/5x5 <- inception_4a/5x5_reduce
I0403 15:40:22.216516 15901 net.cpp:399] inception_4a/5x5 -> inception_4a/5x5
I0403 15:40:22.217614 15901 net.cpp:141] Setting up inception_4a/5x5
I0403 15:40:22.217643 15901 net.cpp:148] Top shape: 24 48 14 14 (225792)
I0403 15:40:22.217658 15901 net.cpp:156] Memory required for data: 874568736
I0403 15:40:22.217676 15901 layer_factory.hpp:77] Creating layer inception_4a/relu_5x5
I0403 15:40:22.217697 15901 net.cpp:91] Creating Layer inception_4a/relu_5x5
I0403 15:40:22.217715 15901 net.cpp:425] inception_4a/relu_5x5 <- inception_4a/5x5
I0403 15:40:22.217731 15901 net.cpp:386] inception_4a/relu_5x5 -> inception_4a/5x5 (in-place)
I0403 15:40:22.217911 15901 net.cpp:141] Setting up inception_4a/relu_5x5
I0403 15:40:22.217938 15901 net.cpp:148] Top shape: 24 48 14 14 (225792)
I0403 15:40:22.217953 15901 net.cpp:156] Memory required for data: 875471904
I0403 15:40:22.217968 15901 layer_factory.hpp:77] Creating layer inception_4a/pool
I0403 15:40:22.217986 15901 net.cpp:91] Creating Layer inception_4a/pool
I0403 15:40:22.218001 15901 net.cpp:425] inception_4a/pool <- pool3/3x3_s2_pool3/3x3_s2_0_split_3
I0403 15:40:22.218019 15901 net.cpp:399] inception_4a/pool -> inception_4a/pool
I0403 15:40:22.218086 15901 net.cpp:141] Setting up inception_4a/pool
I0403 15:40:22.218109 15901 net.cpp:148] Top shape: 24 480 14 14 (2257920)
I0403 15:40:22.218124 15901 net.cpp:156] Memory required for data: 884503584
I0403 15:40:22.218138 15901 layer_factory.hpp:77] Creating layer inception_4a/pool_proj
I0403 15:40:22.218160 15901 net.cpp:91] Creating Layer inception_4a/pool_proj
I0403 15:40:22.218178 15901 net.cpp:425] inception_4a/pool_proj <- inception_4a/pool
I0403 15:40:22.218199 15901 net.cpp:399] inception_4a/pool_proj -> inception_4a/pool_proj
I0403 15:40:22.219372 15901 net.cpp:141] Setting up inception_4a/pool_proj
I0403 15:40:22.219401 15901 net.cpp:148] Top shape: 24 64 14 14 (301056)
I0403 15:40:22.219431 15901 net.cpp:156] Memory required for data: 885707808
I0403 15:40:22.219451 15901 layer_factory.hpp:77] Creating layer inception_4a/relu_pool_proj
I0403 15:40:22.219472 15901 net.cpp:91] Creating Layer inception_4a/relu_pool_proj
I0403 15:40:22.219491 15901 net.cpp:425] inception_4a/relu_pool_proj <- inception_4a/pool_proj
I0403 15:40:22.219511 15901 net.cpp:386] inception_4a/relu_pool_proj -> inception_4a/pool_proj (in-place)
I0403 15:40:22.219796 15901 net.cpp:141] Setting up inception_4a/relu_pool_proj
I0403 15:40:22.219823 15901 net.cpp:148] Top shape: 24 64 14 14 (301056)
I0403 15:40:22.219840 15901 net.cpp:156] Memory required for data: 886912032
I0403 15:40:22.219853 15901 layer_factory.hpp:77] Creating layer inception_4a/output
I0403 15:40:22.219872 15901 net.cpp:91] Creating Layer inception_4a/output
I0403 15:40:22.219889 15901 net.cpp:425] inception_4a/output <- inception_4a/1x1
I0403 15:40:22.219907 15901 net.cpp:425] inception_4a/output <- inception_4a/3x3
I0403 15:40:22.219923 15901 net.cpp:425] inception_4a/output <- inception_4a/5x5
I0403 15:40:22.219939 15901 net.cpp:425] inception_4a/output <- inception_4a/pool_proj
I0403 15:40:22.219956 15901 net.cpp:399] inception_4a/output -> inception_4a/output
I0403 15:40:22.220003 15901 net.cpp:141] Setting up inception_4a/output
I0403 15:40:22.220026 15901 net.cpp:148] Top shape: 24 512 14 14 (2408448)
I0403 15:40:22.220041 15901 net.cpp:156] Memory required for data: 896545824
I0403 15:40:22.220055 15901 layer_factory.hpp:77] Creating layer inception_4a/output_inception_4a/output_0_split
I0403 15:40:22.220073 15901 net.cpp:91] Creating Layer inception_4a/output_inception_4a/output_0_split
I0403 15:40:22.220088 15901 net.cpp:425] inception_4a/output_inception_4a/output_0_split <- inception_4a/output
I0403 15:40:22.220108 15901 net.cpp:399] inception_4a/output_inception_4a/output_0_split -> inception_4a/output_inception_4a/output_0_split_0
I0403 15:40:22.220130 15901 net.cpp:399] inception_4a/output_inception_4a/output_0_split -> inception_4a/output_inception_4a/output_0_split_1
I0403 15:40:22.220151 15901 net.cpp:399] inception_4a/output_inception_4a/output_0_split -> inception_4a/output_inception_4a/output_0_split_2
I0403 15:40:22.220171 15901 net.cpp:399] inception_4a/output_inception_4a/output_0_split -> inception_4a/output_inception_4a/output_0_split_3
I0403 15:40:22.220196 15901 net.cpp:399] inception_4a/output_inception_4a/output_0_split -> inception_4a/output_inception_4a/output_0_split_4
I0403 15:40:22.220288 15901 net.cpp:141] Setting up inception_4a/output_inception_4a/output_0_split
I0403 15:40:22.220311 15901 net.cpp:148] Top shape: 24 512 14 14 (2408448)
I0403 15:40:22.220327 15901 net.cpp:148] Top shape: 24 512 14 14 (2408448)
I0403 15:40:22.220343 15901 net.cpp:148] Top shape: 24 512 14 14 (2408448)
I0403 15:40:22.220358 15901 net.cpp:148] Top shape: 24 512 14 14 (2408448)
I0403 15:40:22.220374 15901 net.cpp:148] Top shape: 24 512 14 14 (2408448)
I0403 15:40:22.220387 15901 net.cpp:156] Memory required for data: 944714784
I0403 15:40:22.220402 15901 layer_factory.hpp:77] Creating layer loss1/ave_pool
I0403 15:40:22.220419 15901 net.cpp:91] Creating Layer loss1/ave_pool
I0403 15:40:22.220434 15901 net.cpp:425] loss1/ave_pool <- inception_4a/output_inception_4a/output_0_split_0
I0403 15:40:22.220454 15901 net.cpp:399] loss1/ave_pool -> loss1/ave_pool
I0403 15:40:22.220669 15901 net.cpp:141] Setting up loss1/ave_pool
I0403 15:40:22.220695 15901 net.cpp:148] Top shape: 24 512 4 4 (196608)
I0403 15:40:22.220710 15901 net.cpp:156] Memory required for data: 945501216
I0403 15:40:22.220723 15901 layer_factory.hpp:77] Creating layer loss1/conv
I0403 15:40:22.220746 15901 net.cpp:91] Creating Layer loss1/conv
I0403 15:40:22.220764 15901 net.cpp:425] loss1/conv <- loss1/ave_pool
I0403 15:40:22.220782 15901 net.cpp:399] loss1/conv -> loss1/conv
I0403 15:40:22.222210 15901 net.cpp:141] Setting up loss1/conv
I0403 15:40:22.222239 15901 net.cpp:148] Top shape: 24 128 4 4 (49152)
I0403 15:40:22.222255 15901 net.cpp:156] Memory required for data: 945697824
I0403 15:40:22.222290 15901 layer_factory.hpp:77] Creating layer loss1/relu_conv
I0403 15:40:22.222309 15901 net.cpp:91] Creating Layer loss1/relu_conv
I0403 15:40:22.222326 15901 net.cpp:425] loss1/relu_conv <- loss1/conv
I0403 15:40:22.222344 15901 net.cpp:386] loss1/relu_conv -> loss1/conv (in-place)
I0403 15:40:22.222632 15901 net.cpp:141] Setting up loss1/relu_conv
I0403 15:40:22.222659 15901 net.cpp:148] Top shape: 24 128 4 4 (49152)
I0403 15:40:22.222674 15901 net.cpp:156] Memory required for data: 945894432
I0403 15:40:22.222689 15901 layer_factory.hpp:77] Creating layer loss1/fc
I0403 15:40:22.222712 15901 net.cpp:91] Creating Layer loss1/fc
I0403 15:40:22.222730 15901 net.cpp:425] loss1/fc <- loss1/conv
I0403 15:40:22.222751 15901 net.cpp:399] loss1/fc -> loss1/fc
I0403 15:40:22.240638 15901 net.cpp:141] Setting up loss1/fc
I0403 15:40:22.240674 15901 net.cpp:148] Top shape: 24 1024 (24576)
I0403 15:40:22.240689 15901 net.cpp:156] Memory required for data: 945992736
I0403 15:40:22.240706 15901 layer_factory.hpp:77] Creating layer loss1/relu_fc
I0403 15:40:22.240723 15901 net.cpp:91] Creating Layer loss1/relu_fc
I0403 15:40:22.240739 15901 net.cpp:425] loss1/relu_fc <- loss1/fc
I0403 15:40:22.240756 15901 net.cpp:386] loss1/relu_fc -> loss1/fc (in-place)
I0403 15:40:22.240931 15901 net.cpp:141] Setting up loss1/relu_fc
I0403 15:40:22.240957 15901 net.cpp:148] Top shape: 24 1024 (24576)
I0403 15:40:22.240972 15901 net.cpp:156] Memory required for data: 946091040
I0403 15:40:22.240986 15901 layer_factory.hpp:77] Creating layer loss1/drop_fc
I0403 15:40:22.241010 15901 net.cpp:91] Creating Layer loss1/drop_fc
I0403 15:40:22.241026 15901 net.cpp:425] loss1/drop_fc <- loss1/fc
I0403 15:40:22.241042 15901 net.cpp:386] loss1/drop_fc -> loss1/fc (in-place)
I0403 15:40:22.241092 15901 net.cpp:141] Setting up loss1/drop_fc
I0403 15:40:22.241114 15901 net.cpp:148] Top shape: 24 1024 (24576)
I0403 15:40:22.241128 15901 net.cpp:156] Memory required for data: 946189344
I0403 15:40:22.241142 15901 layer_factory.hpp:77] Creating layer loss1/classifier_plantvillage
I0403 15:40:22.241163 15901 net.cpp:91] Creating Layer loss1/classifier_plantvillage
I0403 15:40:22.241178 15901 net.cpp:425] loss1/classifier_plantvillage <- loss1/fc
I0403 15:40:22.241195 15901 net.cpp:399] loss1/classifier_plantvillage -> loss1/classifier_plantvillage
I0403 15:40:22.242087 15901 net.cpp:141] Setting up loss1/classifier_plantvillage
I0403 15:40:22.242116 15901 net.cpp:148] Top shape: 24 38 (912)
I0403 15:40:22.242131 15901 net.cpp:156] Memory required for data: 946192992
I0403 15:40:22.242148 15901 layer_factory.hpp:77] Creating layer loss1/classifier_plantvillage_loss1/classifier_plantvillage_0_split
I0403 15:40:22.242166 15901 net.cpp:91] Creating Layer loss1/classifier_plantvillage_loss1/classifier_plantvillage_0_split
I0403 15:40:22.242180 15901 net.cpp:425] loss1/classifier_plantvillage_loss1/classifier_plantvillage_0_split <- loss1/classifier_plantvillage
I0403 15:40:22.242197 15901 net.cpp:399] loss1/classifier_plantvillage_loss1/classifier_plantvillage_0_split -> loss1/classifier_plantvillage_loss1/classifier_plantvillage_0_split_0
I0403 15:40:22.242218 15901 net.cpp:399] loss1/classifier_plantvillage_loss1/classifier_plantvillage_0_split -> loss1/classifier_plantvillage_loss1/classifier_plantvillage_0_split_1
I0403 15:40:22.242239 15901 net.cpp:399] loss1/classifier_plantvillage_loss1/classifier_plantvillage_0_split -> loss1/classifier_plantvillage_loss1/classifier_plantvillage_0_split_2
I0403 15:40:22.242303 15901 net.cpp:141] Setting up loss1/classifier_plantvillage_loss1/classifier_plantvillage_0_split
I0403 15:40:22.242326 15901 net.cpp:148] Top shape: 24 38 (912)
I0403 15:40:22.242342 15901 net.cpp:148] Top shape: 24 38 (912)
I0403 15:40:22.242357 15901 net.cpp:148] Top shape: 24 38 (912)
I0403 15:40:22.242369 15901 net.cpp:156] Memory required for data: 946203936
I0403 15:40:22.242383 15901 layer_factory.hpp:77] Creating layer inception_4b/1x1
I0403 15:40:22.242401 15901 net.cpp:91] Creating Layer inception_4b/1x1
I0403 15:40:22.242431 15901 net.cpp:425] inception_4b/1x1 <- inception_4a/output_inception_4a/output_0_split_1
I0403 15:40:22.242452 15901 net.cpp:399] inception_4b/1x1 -> inception_4b/1x1
I0403 15:40:22.244047 15901 net.cpp:141] Setting up inception_4b/1x1
I0403 15:40:22.244074 15901 net.cpp:148] Top shape: 24 160 14 14 (752640)
I0403 15:40:22.244089 15901 net.cpp:156] Memory required for data: 949214496
I0403 15:40:22.244107 15901 layer_factory.hpp:77] Creating layer inception_4b/relu_1x1
I0403 15:40:22.244123 15901 net.cpp:91] Creating Layer inception_4b/relu_1x1
I0403 15:40:22.244138 15901 net.cpp:425] inception_4b/relu_1x1 <- inception_4b/1x1
I0403 15:40:22.244156 15901 net.cpp:386] inception_4b/relu_1x1 -> inception_4b/1x1 (in-place)
I0403 15:40:22.244329 15901 net.cpp:141] Setting up inception_4b/relu_1x1
I0403 15:40:22.244352 15901 net.cpp:148] Top shape: 24 160 14 14 (752640)
I0403 15:40:22.244367 15901 net.cpp:156] Memory required for data: 952225056
I0403 15:40:22.244380 15901 layer_factory.hpp:77] Creating layer inception_4b/3x3_reduce
I0403 15:40:22.244401 15901 net.cpp:91] Creating Layer inception_4b/3x3_reduce
I0403 15:40:22.244418 15901 net.cpp:425] inception_4b/3x3_reduce <- inception_4a/output_inception_4a/output_0_split_2
I0403 15:40:22.244439 15901 net.cpp:399] inception_4b/3x3_reduce -> inception_4b/3x3_reduce
I0403 15:40:22.245748 15901 net.cpp:141] Setting up inception_4b/3x3_reduce
I0403 15:40:22.245774 15901 net.cpp:148] Top shape: 24 112 14 14 (526848)
I0403 15:40:22.245790 15901 net.cpp:156] Memory required for data: 954332448
I0403 15:40:22.245806 15901 layer_factory.hpp:77] Creating layer inception_4b/relu_3x3_reduce
I0403 15:40:22.245831 15901 net.cpp:91] Creating Layer inception_4b/relu_3x3_reduce
I0403 15:40:22.245847 15901 net.cpp:425] inception_4b/relu_3x3_reduce <- inception_4b/3x3_reduce
I0403 15:40:22.245863 15901 net.cpp:386] inception_4b/relu_3x3_reduce -> inception_4b/3x3_reduce (in-place)
I0403 15:40:22.246136 15901 net.cpp:141] Setting up inception_4b/relu_3x3_reduce
I0403 15:40:22.246162 15901 net.cpp:148] Top shape: 24 112 14 14 (526848)
I0403 15:40:22.246176 15901 net.cpp:156] Memory required for data: 956439840
I0403 15:40:22.246191 15901 layer_factory.hpp:77] Creating layer inception_4b/3x3
I0403 15:40:22.246212 15901 net.cpp:91] Creating Layer inception_4b/3x3
I0403 15:40:22.246228 15901 net.cpp:425] inception_4b/3x3 <- inception_4b/3x3_reduce
I0403 15:40:22.246248 15901 net.cpp:399] inception_4b/3x3 -> inception_4b/3x3
I0403 15:40:22.249136 15901 net.cpp:141] Setting up inception_4b/3x3
I0403 15:40:22.249167 15901 net.cpp:148] Top shape: 24 224 14 14 (1053696)
I0403 15:40:22.249183 15901 net.cpp:156] Memory required for data: 960654624
I0403 15:40:22.249200 15901 layer_factory.hpp:77] Creating layer inception_4b/relu_3x3
I0403 15:40:22.249217 15901 net.cpp:91] Creating Layer inception_4b/relu_3x3
I0403 15:40:22.249233 15901 net.cpp:425] inception_4b/relu_3x3 <- inception_4b/3x3
I0403 15:40:22.249248 15901 net.cpp:386] inception_4b/relu_3x3 -> inception_4b/3x3 (in-place)
I0403 15:40:22.249425 15901 net.cpp:141] Setting up inception_4b/relu_3x3
I0403 15:40:22.249451 15901 net.cpp:148] Top shape: 24 224 14 14 (1053696)
I0403 15:40:22.249466 15901 net.cpp:156] Memory required for data: 964869408
I0403 15:40:22.249480 15901 layer_factory.hpp:77] Creating layer inception_4b/5x5_reduce
I0403 15:40:22.249501 15901 net.cpp:91] Creating Layer inception_4b/5x5_reduce
I0403 15:40:22.249523 15901 net.cpp:425] inception_4b/5x5_reduce <- inception_4a/output_inception_4a/output_0_split_3
I0403 15:40:22.249544 15901 net.cpp:399] inception_4b/5x5_reduce -> inception_4b/5x5_reduce
I0403 15:40:22.250594 15901 net.cpp:141] Setting up inception_4b/5x5_reduce
I0403 15:40:22.250622 15901 net.cpp:148] Top shape: 24 24 14 14 (112896)
I0403 15:40:22.250636 15901 net.cpp:156] Memory required for data: 965320992
I0403 15:40:22.250653 15901 layer_factory.hpp:77] Creating layer inception_4b/relu_5x5_reduce
I0403 15:40:22.250672 15901 net.cpp:91] Creating Layer inception_4b/relu_5x5_reduce
I0403 15:40:22.250701 15901 net.cpp:425] inception_4b/relu_5x5_reduce <- inception_4b/5x5_reduce
I0403 15:40:22.250720 15901 net.cpp:386] inception_4b/relu_5x5_reduce -> inception_4b/5x5_reduce (in-place)
I0403 15:40:22.250896 15901 net.cpp:141] Setting up inception_4b/relu_5x5_reduce
I0403 15:40:22.250921 15901 net.cpp:148] Top shape: 24 24 14 14 (112896)
I0403 15:40:22.250934 15901 net.cpp:156] Memory required for data: 965772576
I0403 15:40:22.250948 15901 layer_factory.hpp:77] Creating layer inception_4b/5x5
I0403 15:40:22.250969 15901 net.cpp:91] Creating Layer inception_4b/5x5
I0403 15:40:22.250987 15901 net.cpp:425] inception_4b/5x5 <- inception_4b/5x5_reduce
I0403 15:40:22.251008 15901 net.cpp:399] inception_4b/5x5 -> inception_4b/5x5
I0403 15:40:22.252193 15901 net.cpp:141] Setting up inception_4b/5x5
I0403 15:40:22.252220 15901 net.cpp:148] Top shape: 24 64 14 14 (301056)
I0403 15:40:22.252235 15901 net.cpp:156] Memory required for data: 966976800
I0403 15:40:22.252252 15901 layer_factory.hpp:77] Creating layer inception_4b/relu_5x5
I0403 15:40:22.252269 15901 net.cpp:91] Creating Layer inception_4b/relu_5x5
I0403 15:40:22.252285 15901 net.cpp:425] inception_4b/relu_5x5 <- inception_4b/5x5
I0403 15:40:22.252302 15901 net.cpp:386] inception_4b/relu_5x5 -> inception_4b/5x5 (in-place)
I0403 15:40:22.252581 15901 net.cpp:141] Setting up inception_4b/relu_5x5
I0403 15:40:22.252607 15901 net.cpp:148] Top shape: 24 64 14 14 (301056)
I0403 15:40:22.252621 15901 net.cpp:156] Memory required for data: 968181024
I0403 15:40:22.252635 15901 layer_factory.hpp:77] Creating layer inception_4b/pool
I0403 15:40:22.252652 15901 net.cpp:91] Creating Layer inception_4b/pool
I0403 15:40:22.252667 15901 net.cpp:425] inception_4b/pool <- inception_4a/output_inception_4a/output_0_split_4
I0403 15:40:22.252687 15901 net.cpp:399] inception_4b/pool -> inception_4b/pool
I0403 15:40:22.252750 15901 net.cpp:141] Setting up inception_4b/pool
I0403 15:40:22.252774 15901 net.cpp:148] Top shape: 24 512 14 14 (2408448)
I0403 15:40:22.252787 15901 net.cpp:156] Memory required for data: 977814816
I0403 15:40:22.252801 15901 layer_factory.hpp:77] Creating layer inception_4b/pool_proj
I0403 15:40:22.252823 15901 net.cpp:91] Creating Layer inception_4b/pool_proj
I0403 15:40:22.252840 15901 net.cpp:425] inception_4b/pool_proj <- inception_4b/pool
I0403 15:40:22.252858 15901 net.cpp:399] inception_4b/pool_proj -> inception_4b/pool_proj
I0403 15:40:22.254015 15901 net.cpp:141] Setting up inception_4b/pool_proj
I0403 15:40:22.254042 15901 net.cpp:148] Top shape: 24 64 14 14 (301056)
I0403 15:40:22.254057 15901 net.cpp:156] Memory required for data: 979019040
I0403 15:40:22.254075 15901 layer_factory.hpp:77] Creating layer inception_4b/relu_pool_proj
I0403 15:40:22.254091 15901 net.cpp:91] Creating Layer inception_4b/relu_pool_proj
I0403 15:40:22.254106 15901 net.cpp:425] inception_4b/relu_pool_proj <- inception_4b/pool_proj
I0403 15:40:22.254124 15901 net.cpp:386] inception_4b/relu_pool_proj -> inception_4b/pool_proj (in-place)
I0403 15:40:22.254298 15901 net.cpp:141] Setting up inception_4b/relu_pool_proj
I0403 15:40:22.254323 15901 net.cpp:148] Top shape: 24 64 14 14 (301056)
I0403 15:40:22.254338 15901 net.cpp:156] Memory required for data: 980223264
I0403 15:40:22.254351 15901 layer_factory.hpp:77] Creating layer inception_4b/output
I0403 15:40:22.254370 15901 net.cpp:91] Creating Layer inception_4b/output
I0403 15:40:22.254386 15901 net.cpp:425] inception_4b/output <- inception_4b/1x1
I0403 15:40:22.254401 15901 net.cpp:425] inception_4b/output <- inception_4b/3x3
I0403 15:40:22.254416 15901 net.cpp:425] inception_4b/output <- inception_4b/5x5
I0403 15:40:22.254431 15901 net.cpp:425] inception_4b/output <- inception_4b/pool_proj
I0403 15:40:22.254447 15901 net.cpp:399] inception_4b/output -> inception_4b/output
I0403 15:40:22.254492 15901 net.cpp:141] Setting up inception_4b/output
I0403 15:40:22.254523 15901 net.cpp:148] Top shape: 24 512 14 14 (2408448)
I0403 15:40:22.254540 15901 net.cpp:156] Memory required for data: 989857056
I0403 15:40:22.254567 15901 layer_factory.hpp:77] Creating layer inception_4b/output_inception_4b/output_0_split
I0403 15:40:22.254585 15901 net.cpp:91] Creating Layer inception_4b/output_inception_4b/output_0_split
I0403 15:40:22.254600 15901 net.cpp:425] inception_4b/output_inception_4b/output_0_split <- inception_4b/output
I0403 15:40:22.254618 15901 net.cpp:399] inception_4b/output_inception_4b/output_0_split -> inception_4b/output_inception_4b/output_0_split_0
I0403 15:40:22.254638 15901 net.cpp:399] inception_4b/output_inception_4b/output_0_split -> inception_4b/output_inception_4b/output_0_split_1
I0403 15:40:22.254657 15901 net.cpp:399] inception_4b/output_inception_4b/output_0_split -> inception_4b/output_inception_4b/output_0_split_2
I0403 15:40:22.254675 15901 net.cpp:399] inception_4b/output_inception_4b/output_0_split -> inception_4b/output_inception_4b/output_0_split_3
I0403 15:40:22.254753 15901 net.cpp:141] Setting up inception_4b/output_inception_4b/output_0_split
I0403 15:40:22.254778 15901 net.cpp:148] Top shape: 24 512 14 14 (2408448)
I0403 15:40:22.254794 15901 net.cpp:148] Top shape: 24 512 14 14 (2408448)
I0403 15:40:22.254808 15901 net.cpp:148] Top shape: 24 512 14 14 (2408448)
I0403 15:40:22.254822 15901 net.cpp:148] Top shape: 24 512 14 14 (2408448)
I0403 15:40:22.254835 15901 net.cpp:156] Memory required for data: 1028392224
I0403 15:40:22.254849 15901 layer_factory.hpp:77] Creating layer inception_4c/1x1
I0403 15:40:22.254870 15901 net.cpp:91] Creating Layer inception_4c/1x1
I0403 15:40:22.254886 15901 net.cpp:425] inception_4c/1x1 <- inception_4b/output_inception_4b/output_0_split_0
I0403 15:40:22.254905 15901 net.cpp:399] inception_4c/1x1 -> inception_4c/1x1
I0403 15:40:22.256299 15901 net.cpp:141] Setting up inception_4c/1x1
I0403 15:40:22.256325 15901 net.cpp:148] Top shape: 24 128 14 14 (602112)
I0403 15:40:22.256340 15901 net.cpp:156] Memory required for data: 1030800672
I0403 15:40:22.256356 15901 layer_factory.hpp:77] Creating layer inception_4c/relu_1x1
I0403 15:40:22.256379 15901 net.cpp:91] Creating Layer inception_4c/relu_1x1
I0403 15:40:22.256397 15901 net.cpp:425] inception_4c/relu_1x1 <- inception_4c/1x1
I0403 15:40:22.256412 15901 net.cpp:386] inception_4c/relu_1x1 -> inception_4c/1x1 (in-place)
I0403 15:40:22.256592 15901 net.cpp:141] Setting up inception_4c/relu_1x1
I0403 15:40:22.256618 15901 net.cpp:148] Top shape: 24 128 14 14 (602112)
I0403 15:40:22.256633 15901 net.cpp:156] Memory required for data: 1033209120
I0403 15:40:22.256649 15901 layer_factory.hpp:77] Creating layer inception_4c/3x3_reduce
I0403 15:40:22.256669 15901 net.cpp:91] Creating Layer inception_4c/3x3_reduce
I0403 15:40:22.256686 15901 net.cpp:425] inception_4c/3x3_reduce <- inception_4b/output_inception_4b/output_0_split_1
I0403 15:40:22.256703 15901 net.cpp:399] inception_4c/3x3_reduce -> inception_4c/3x3_reduce
I0403 15:40:22.258612 15901 net.cpp:141] Setting up inception_4c/3x3_reduce
I0403 15:40:22.258642 15901 net.cpp:148] Top shape: 24 128 14 14 (602112)
I0403 15:40:22.258659 15901 net.cpp:156] Memory required for data: 1035617568
I0403 15:40:22.258677 15901 layer_factory.hpp:77] Creating layer inception_4c/relu_3x3_reduce
I0403 15:40:22.258694 15901 net.cpp:91] Creating Layer inception_4c/relu_3x3_reduce
I0403 15:40:22.258709 15901 net.cpp:425] inception_4c/relu_3x3_reduce <- inception_4c/3x3_reduce
I0403 15:40:22.258728 15901 net.cpp:386] inception_4c/relu_3x3_reduce -> inception_4c/3x3_reduce (in-place)
I0403 15:40:22.259011 15901 net.cpp:141] Setting up inception_4c/relu_3x3_reduce
I0403 15:40:22.259038 15901 net.cpp:148] Top shape: 24 128 14 14 (602112)
I0403 15:40:22.259054 15901 net.cpp:156] Memory required for data: 1038026016
I0403 15:40:22.259069 15901 layer_factory.hpp:77] Creating layer inception_4c/3x3
I0403 15:40:22.259091 15901 net.cpp:91] Creating Layer inception_4c/3x3
I0403 15:40:22.259109 15901 net.cpp:425] inception_4c/3x3 <- inception_4c/3x3_reduce
I0403 15:40:22.259126 15901 net.cpp:399] inception_4c/3x3 -> inception_4c/3x3
I0403 15:40:22.262733 15901 net.cpp:141] Setting up inception_4c/3x3
I0403 15:40:22.262774 15901 net.cpp:148] Top shape: 24 256 14 14 (1204224)
I0403 15:40:22.262791 15901 net.cpp:156] Memory required for data: 1042842912
I0403 15:40:22.262822 15901 layer_factory.hpp:77] Creating layer inception_4c/relu_3x3
I0403 15:40:22.262842 15901 net.cpp:91] Creating Layer inception_4c/relu_3x3
I0403 15:40:22.262859 15901 net.cpp:425] inception_4c/relu_3x3 <- inception_4c/3x3
I0403 15:40:22.262878 15901 net.cpp:386] inception_4c/relu_3x3 -> inception_4c/3x3 (in-place)
I0403 15:40:22.263059 15901 net.cpp:141] Setting up inception_4c/relu_3x3
I0403 15:40:22.263084 15901 net.cpp:148] Top shape: 24 256 14 14 (1204224)
I0403 15:40:22.263099 15901 net.cpp:156] Memory required for data: 1047659808
I0403 15:40:22.263113 15901 layer_factory.hpp:77] Creating layer inception_4c/5x5_reduce
I0403 15:40:22.263136 15901 net.cpp:91] Creating Layer inception_4c/5x5_reduce
I0403 15:40:22.263154 15901 net.cpp:425] inception_4c/5x5_reduce <- inception_4b/output_inception_4b/output_0_split_2
I0403 15:40:22.263175 15901 net.cpp:399] inception_4c/5x5_reduce -> inception_4c/5x5_reduce
I0403 15:40:22.264261 15901 net.cpp:141] Setting up inception_4c/5x5_reduce
I0403 15:40:22.264287 15901 net.cpp:148] Top shape: 24 24 14 14 (112896)
I0403 15:40:22.264303 15901 net.cpp:156] Memory required for data: 1048111392
I0403 15:40:22.264320 15901 layer_factory.hpp:77] Creating layer inception_4c/relu_5x5_reduce
I0403 15:40:22.264338 15901 net.cpp:91] Creating Layer inception_4c/relu_5x5_reduce
I0403 15:40:22.264356 15901 net.cpp:425] inception_4c/relu_5x5_reduce <- inception_4c/5x5_reduce
I0403 15:40:22.264374 15901 net.cpp:386] inception_4c/relu_5x5_reduce -> inception_4c/5x5_reduce (in-place)
I0403 15:40:22.264569 15901 net.cpp:141] Setting up inception_4c/relu_5x5_reduce
I0403 15:40:22.264593 15901 net.cpp:148] Top shape: 24 24 14 14 (112896)
I0403 15:40:22.264608 15901 net.cpp:156] Memory required for data: 1048562976
I0403 15:40:22.264622 15901 layer_factory.hpp:77] Creating layer inception_4c/5x5
I0403 15:40:22.264644 15901 net.cpp:91] Creating Layer inception_4c/5x5
I0403 15:40:22.264662 15901 net.cpp:425] inception_4c/5x5 <- inception_4c/5x5_reduce
I0403 15:40:22.264681 15901 net.cpp:399] inception_4c/5x5 -> inception_4c/5x5
I0403 15:40:22.265918 15901 net.cpp:141] Setting up inception_4c/5x5
I0403 15:40:22.265946 15901 net.cpp:148] Top shape: 24 64 14 14 (301056)
I0403 15:40:22.265961 15901 net.cpp:156] Memory required for data: 1049767200
I0403 15:40:22.265980 15901 layer_factory.hpp:77] Creating layer inception_4c/relu_5x5
I0403 15:40:22.265998 15901 net.cpp:91] Creating Layer inception_4c/relu_5x5
I0403 15:40:22.266016 15901 net.cpp:425] inception_4c/relu_5x5 <- inception_4c/5x5
I0403 15:40:22.266032 15901 net.cpp:386] inception_4c/relu_5x5 -> inception_4c/5x5 (in-place)
I0403 15:40:22.266317 15901 net.cpp:141] Setting up inception_4c/relu_5x5
I0403 15:40:22.266345 15901 net.cpp:148] Top shape: 24 64 14 14 (301056)
I0403 15:40:22.266360 15901 net.cpp:156] Memory required for data: 1050971424
I0403 15:40:22.266374 15901 layer_factory.hpp:77] Creating layer inception_4c/pool
I0403 15:40:22.266394 15901 net.cpp:91] Creating Layer inception_4c/pool
I0403 15:40:22.266412 15901 net.cpp:425] inception_4c/pool <- inception_4b/output_inception_4b/output_0_split_3
I0403 15:40:22.266429 15901 net.cpp:399] inception_4c/pool -> inception_4c/pool
I0403 15:40:22.266494 15901 net.cpp:141] Setting up inception_4c/pool
I0403 15:40:22.266521 15901 net.cpp:148] Top shape: 24 512 14 14 (2408448)
I0403 15:40:22.266537 15901 net.cpp:156] Memory required for data: 1060605216
I0403 15:40:22.266552 15901 layer_factory.hpp:77] Creating layer inception_4c/pool_proj
I0403 15:40:22.266574 15901 net.cpp:91] Creating Layer inception_4c/pool_proj
I0403 15:40:22.266592 15901 net.cpp:425] inception_4c/pool_proj <- inception_4c/pool
I0403 15:40:22.266612 15901 net.cpp:399] inception_4c/pool_proj -> inception_4c/pool_proj
I0403 15:40:22.267833 15901 net.cpp:141] Setting up inception_4c/pool_proj
I0403 15:40:22.267861 15901 net.cpp:148] Top shape: 24 64 14 14 (301056)
I0403 15:40:22.267890 15901 net.cpp:156] Memory required for data: 1061809440
I0403 15:40:22.267910 15901 layer_factory.hpp:77] Creating layer inception_4c/relu_pool_proj
I0403 15:40:22.267927 15901 net.cpp:91] Creating Layer inception_4c/relu_pool_proj
I0403 15:40:22.267943 15901 net.cpp:425] inception_4c/relu_pool_proj <- inception_4c/pool_proj
I0403 15:40:22.267966 15901 net.cpp:386] inception_4c/relu_pool_proj -> inception_4c/pool_proj (in-place)
I0403 15:40:22.268147 15901 net.cpp:141] Setting up inception_4c/relu_pool_proj
I0403 15:40:22.268172 15901 net.cpp:148] Top shape: 24 64 14 14 (301056)
I0403 15:40:22.268187 15901 net.cpp:156] Memory required for data: 1063013664
I0403 15:40:22.268201 15901 layer_factory.hpp:77] Creating layer inception_4c/output
I0403 15:40:22.268220 15901 net.cpp:91] Creating Layer inception_4c/output
I0403 15:40:22.268236 15901 net.cpp:425] inception_4c/output <- inception_4c/1x1
I0403 15:40:22.268252 15901 net.cpp:425] inception_4c/output <- inception_4c/3x3
I0403 15:40:22.268267 15901 net.cpp:425] inception_4c/output <- inception_4c/5x5
I0403 15:40:22.268282 15901 net.cpp:425] inception_4c/output <- inception_4c/pool_proj
I0403 15:40:22.268301 15901 net.cpp:399] inception_4c/output -> inception_4c/output
I0403 15:40:22.268347 15901 net.cpp:141] Setting up inception_4c/output
I0403 15:40:22.268370 15901 net.cpp:148] Top shape: 24 512 14 14 (2408448)
I0403 15:40:22.268384 15901 net.cpp:156] Memory required for data: 1072647456
I0403 15:40:22.268399 15901 layer_factory.hpp:77] Creating layer inception_4c/output_inception_4c/output_0_split
I0403 15:40:22.268414 15901 net.cpp:91] Creating Layer inception_4c/output_inception_4c/output_0_split
I0403 15:40:22.268429 15901 net.cpp:425] inception_4c/output_inception_4c/output_0_split <- inception_4c/output
I0403 15:40:22.268448 15901 net.cpp:399] inception_4c/output_inception_4c/output_0_split -> inception_4c/output_inception_4c/output_0_split_0
I0403 15:40:22.268470 15901 net.cpp:399] inception_4c/output_inception_4c/output_0_split -> inception_4c/output_inception_4c/output_0_split_1
I0403 15:40:22.268488 15901 net.cpp:399] inception_4c/output_inception_4c/output_0_split -> inception_4c/output_inception_4c/output_0_split_2
I0403 15:40:22.268512 15901 net.cpp:399] inception_4c/output_inception_4c/output_0_split -> inception_4c/output_inception_4c/output_0_split_3
I0403 15:40:22.268597 15901 net.cpp:141] Setting up inception_4c/output_inception_4c/output_0_split
I0403 15:40:22.268625 15901 net.cpp:148] Top shape: 24 512 14 14 (2408448)
I0403 15:40:22.268641 15901 net.cpp:148] Top shape: 24 512 14 14 (2408448)
I0403 15:40:22.268656 15901 net.cpp:148] Top shape: 24 512 14 14 (2408448)
I0403 15:40:22.268671 15901 net.cpp:148] Top shape: 24 512 14 14 (2408448)
I0403 15:40:22.268683 15901 net.cpp:156] Memory required for data: 1111182624
I0403 15:40:22.268698 15901 layer_factory.hpp:77] Creating layer inception_4d/1x1
I0403 15:40:22.268719 15901 net.cpp:91] Creating Layer inception_4d/1x1
I0403 15:40:22.268736 15901 net.cpp:425] inception_4d/1x1 <- inception_4c/output_inception_4c/output_0_split_0
I0403 15:40:22.268754 15901 net.cpp:399] inception_4d/1x1 -> inception_4d/1x1
I0403 15:40:22.270129 15901 net.cpp:141] Setting up inception_4d/1x1
I0403 15:40:22.270159 15901 net.cpp:148] Top shape: 24 112 14 14 (526848)
I0403 15:40:22.270175 15901 net.cpp:156] Memory required for data: 1113290016
I0403 15:40:22.270195 15901 layer_factory.hpp:77] Creating layer inception_4d/relu_1x1
I0403 15:40:22.270212 15901 net.cpp:91] Creating Layer inception_4d/relu_1x1
I0403 15:40:22.270227 15901 net.cpp:425] inception_4d/relu_1x1 <- inception_4d/1x1
I0403 15:40:22.270243 15901 net.cpp:386] inception_4d/relu_1x1 -> inception_4d/1x1 (in-place)
I0403 15:40:22.270428 15901 net.cpp:141] Setting up inception_4d/relu_1x1
I0403 15:40:22.270453 15901 net.cpp:148] Top shape: 24 112 14 14 (526848)
I0403 15:40:22.270467 15901 net.cpp:156] Memory required for data: 1115397408
I0403 15:40:22.270481 15901 layer_factory.hpp:77] Creating layer inception_4d/3x3_reduce
I0403 15:40:22.270521 15901 net.cpp:91] Creating Layer inception_4d/3x3_reduce
I0403 15:40:22.270540 15901 net.cpp:425] inception_4d/3x3_reduce <- inception_4c/output_inception_4c/output_0_split_1
I0403 15:40:22.270562 15901 net.cpp:399] inception_4d/3x3_reduce -> inception_4d/3x3_reduce
I0403 15:40:22.272073 15901 net.cpp:141] Setting up inception_4d/3x3_reduce
I0403 15:40:22.272101 15901 net.cpp:148] Top shape: 24 144 14 14 (677376)
I0403 15:40:22.272116 15901 net.cpp:156] Memory required for data: 1118106912
I0403 15:40:22.272133 15901 layer_factory.hpp:77] Creating layer inception_4d/relu_3x3_reduce
I0403 15:40:22.272153 15901 net.cpp:91] Creating Layer inception_4d/relu_3x3_reduce
I0403 15:40:22.272169 15901 net.cpp:425] inception_4d/relu_3x3_reduce <- inception_4d/3x3_reduce
I0403 15:40:22.272186 15901 net.cpp:386] inception_4d/relu_3x3_reduce -> inception_4d/3x3_reduce (in-place)
I0403 15:40:22.272477 15901 net.cpp:141] Setting up inception_4d/relu_3x3_reduce
I0403 15:40:22.272502 15901 net.cpp:148] Top shape: 24 144 14 14 (677376)
I0403 15:40:22.272523 15901 net.cpp:156] Memory required for data: 1120816416
I0403 15:40:22.272537 15901 layer_factory.hpp:77] Creating layer inception_4d/3x3
I0403 15:40:22.272559 15901 net.cpp:91] Creating Layer inception_4d/3x3
I0403 15:40:22.272578 15901 net.cpp:425] inception_4d/3x3 <- inception_4d/3x3_reduce
I0403 15:40:22.272596 15901 net.cpp:399] inception_4d/3x3 -> inception_4d/3x3
I0403 15:40:22.276875 15901 net.cpp:141] Setting up inception_4d/3x3
I0403 15:40:22.276906 15901 net.cpp:148] Top shape: 24 288 14 14 (1354752)
I0403 15:40:22.276923 15901 net.cpp:156] Memory required for data: 1126235424
I0403 15:40:22.276942 15901 layer_factory.hpp:77] Creating layer inception_4d/relu_3x3
I0403 15:40:22.276962 15901 net.cpp:91] Creating Layer inception_4d/relu_3x3
I0403 15:40:22.276978 15901 net.cpp:425] inception_4d/relu_3x3 <- inception_4d/3x3
I0403 15:40:22.276998 15901 net.cpp:386] inception_4d/relu_3x3 -> inception_4d/3x3 (in-place)
I0403 15:40:22.277214 15901 net.cpp:141] Setting up inception_4d/relu_3x3
I0403 15:40:22.277240 15901 net.cpp:148] Top shape: 24 288 14 14 (1354752)
I0403 15:40:22.277253 15901 net.cpp:156] Memory required for data: 1131654432
I0403 15:40:22.277268 15901 layer_factory.hpp:77] Creating layer inception_4d/5x5_reduce
I0403 15:40:22.277289 15901 net.cpp:91] Creating Layer inception_4d/5x5_reduce
I0403 15:40:22.277307 15901 net.cpp:425] inception_4d/5x5_reduce <- inception_4c/output_inception_4c/output_0_split_2
I0403 15:40:22.277328 15901 net.cpp:399] inception_4d/5x5_reduce -> inception_4d/5x5_reduce
I0403 15:40:22.278455 15901 net.cpp:141] Setting up inception_4d/5x5_reduce
I0403 15:40:22.278484 15901 net.cpp:148] Top shape: 24 32 14 14 (150528)
I0403 15:40:22.278501 15901 net.cpp:156] Memory required for data: 1132256544
I0403 15:40:22.278523 15901 layer_factory.hpp:77] Creating layer inception_4d/relu_5x5_reduce
I0403 15:40:22.278542 15901 net.cpp:91] Creating Layer inception_4d/relu_5x5_reduce
I0403 15:40:22.278558 15901 net.cpp:425] inception_4d/relu_5x5_reduce <- inception_4d/5x5_reduce
I0403 15:40:22.278573 15901 net.cpp:386] inception_4d/relu_5x5_reduce -> inception_4d/5x5_reduce (in-place)
I0403 15:40:22.278760 15901 net.cpp:141] Setting up inception_4d/relu_5x5_reduce
I0403 15:40:22.278784 15901 net.cpp:148] Top shape: 24 32 14 14 (150528)
I0403 15:40:22.278798 15901 net.cpp:156] Memory required for data: 1132858656
I0403 15:40:22.278811 15901 layer_factory.hpp:77] Creating layer inception_4d/5x5
I0403 15:40:22.278832 15901 net.cpp:91] Creating Layer inception_4d/5x5
I0403 15:40:22.278849 15901 net.cpp:425] inception_4d/5x5 <- inception_4d/5x5_reduce
I0403 15:40:22.278869 15901 net.cpp:399] inception_4d/5x5 -> inception_4d/5x5
I0403 15:40:22.280290 15901 net.cpp:141] Setting up inception_4d/5x5
I0403 15:40:22.280318 15901 net.cpp:148] Top shape: 24 64 14 14 (301056)
I0403 15:40:22.280333 15901 net.cpp:156] Memory required for data: 1134062880
I0403 15:40:22.280351 15901 layer_factory.hpp:77] Creating layer inception_4d/relu_5x5
I0403 15:40:22.280385 15901 net.cpp:91] Creating Layer inception_4d/relu_5x5
I0403 15:40:22.280402 15901 net.cpp:425] inception_4d/relu_5x5 <- inception_4d/5x5
I0403 15:40:22.280418 15901 net.cpp:386] inception_4d/relu_5x5 -> inception_4d/5x5 (in-place)
I0403 15:40:22.280712 15901 net.cpp:141] Setting up inception_4d/relu_5x5
I0403 15:40:22.280737 15901 net.cpp:148] Top shape: 24 64 14 14 (301056)
I0403 15:40:22.280752 15901 net.cpp:156] Memory required for data: 1135267104
I0403 15:40:22.280767 15901 layer_factory.hpp:77] Creating layer inception_4d/pool
I0403 15:40:22.280786 15901 net.cpp:91] Creating Layer inception_4d/pool
I0403 15:40:22.280803 15901 net.cpp:425] inception_4d/pool <- inception_4c/output_inception_4c/output_0_split_3
I0403 15:40:22.280820 15901 net.cpp:399] inception_4d/pool -> inception_4d/pool
I0403 15:40:22.280885 15901 net.cpp:141] Setting up inception_4d/pool
I0403 15:40:22.280908 15901 net.cpp:148] Top shape: 24 512 14 14 (2408448)
I0403 15:40:22.280923 15901 net.cpp:156] Memory required for data: 1144900896
I0403 15:40:22.280936 15901 layer_factory.hpp:77] Creating layer inception_4d/pool_proj
I0403 15:40:22.280958 15901 net.cpp:91] Creating Layer inception_4d/pool_proj
I0403 15:40:22.280974 15901 net.cpp:425] inception_4d/pool_proj <- inception_4d/pool
I0403 15:40:22.280994 15901 net.cpp:399] inception_4d/pool_proj -> inception_4d/pool_proj
I0403 15:40:22.282717 15901 net.cpp:141] Setting up inception_4d/pool_proj
I0403 15:40:22.282747 15901 net.cpp:148] Top shape: 24 64 14 14 (301056)
I0403 15:40:22.282763 15901 net.cpp:156] Memory required for data: 1146105120
I0403 15:40:22.282780 15901 layer_factory.hpp:77] Creating layer inception_4d/relu_pool_proj
I0403 15:40:22.282799 15901 net.cpp:91] Creating Layer inception_4d/relu_pool_proj
I0403 15:40:22.282814 15901 net.cpp:425] inception_4d/relu_pool_proj <- inception_4d/pool_proj
I0403 15:40:22.282835 15901 net.cpp:386] inception_4d/relu_pool_proj -> inception_4d/pool_proj (in-place)
I0403 15:40:22.283017 15901 net.cpp:141] Setting up inception_4d/relu_pool_proj
I0403 15:40:22.283042 15901 net.cpp:148] Top shape: 24 64 14 14 (301056)
I0403 15:40:22.283056 15901 net.cpp:156] Memory required for data: 1147309344
I0403 15:40:22.283069 15901 layer_factory.hpp:77] Creating layer inception_4d/output
I0403 15:40:22.283087 15901 net.cpp:91] Creating Layer inception_4d/output
I0403 15:40:22.283102 15901 net.cpp:425] inception_4d/output <- inception_4d/1x1
I0403 15:40:22.283116 15901 net.cpp:425] inception_4d/output <- inception_4d/3x3
I0403 15:40:22.283133 15901 net.cpp:425] inception_4d/output <- inception_4d/5x5
I0403 15:40:22.283146 15901 net.cpp:425] inception_4d/output <- inception_4d/pool_proj
I0403 15:40:22.283165 15901 net.cpp:399] inception_4d/output -> inception_4d/output
I0403 15:40:22.283210 15901 net.cpp:141] Setting up inception_4d/output
I0403 15:40:22.283236 15901 net.cpp:148] Top shape: 24 528 14 14 (2483712)
I0403 15:40:22.283251 15901 net.cpp:156] Memory required for data: 1157244192
I0403 15:40:22.283264 15901 layer_factory.hpp:77] Creating layer inception_4d/output_inception_4d/output_0_split
I0403 15:40:22.283280 15901 net.cpp:91] Creating Layer inception_4d/output_inception_4d/output_0_split
I0403 15:40:22.283296 15901 net.cpp:425] inception_4d/output_inception_4d/output_0_split <- inception_4d/output
I0403 15:40:22.283316 15901 net.cpp:399] inception_4d/output_inception_4d/output_0_split -> inception_4d/output_inception_4d/output_0_split_0
I0403 15:40:22.283337 15901 net.cpp:399] inception_4d/output_inception_4d/output_0_split -> inception_4d/output_inception_4d/output_0_split_1
I0403 15:40:22.283357 15901 net.cpp:399] inception_4d/output_inception_4d/output_0_split -> inception_4d/output_inception_4d/output_0_split_2
I0403 15:40:22.283376 15901 net.cpp:399] inception_4d/output_inception_4d/output_0_split -> inception_4d/output_inception_4d/output_0_split_3
I0403 15:40:22.283396 15901 net.cpp:399] inception_4d/output_inception_4d/output_0_split -> inception_4d/output_inception_4d/output_0_split_4
I0403 15:40:22.283493 15901 net.cpp:141] Setting up inception_4d/output_inception_4d/output_0_split
I0403 15:40:22.283532 15901 net.cpp:148] Top shape: 24 528 14 14 (2483712)
I0403 15:40:22.283550 15901 net.cpp:148] Top shape: 24 528 14 14 (2483712)
I0403 15:40:22.283565 15901 net.cpp:148] Top shape: 24 528 14 14 (2483712)
I0403 15:40:22.283581 15901 net.cpp:148] Top shape: 24 528 14 14 (2483712)
I0403 15:40:22.283594 15901 net.cpp:148] Top shape: 24 528 14 14 (2483712)
I0403 15:40:22.283607 15901 net.cpp:156] Memory required for data: 1206918432
I0403 15:40:22.283620 15901 layer_factory.hpp:77] Creating layer loss2/ave_pool
I0403 15:40:22.283638 15901 net.cpp:91] Creating Layer loss2/ave_pool
I0403 15:40:22.283653 15901 net.cpp:425] loss2/ave_pool <- inception_4d/output_inception_4d/output_0_split_0
I0403 15:40:22.283670 15901 net.cpp:399] loss2/ave_pool -> loss2/ave_pool
I0403 15:40:22.283972 15901 net.cpp:141] Setting up loss2/ave_pool
I0403 15:40:22.283999 15901 net.cpp:148] Top shape: 24 528 4 4 (202752)
I0403 15:40:22.284015 15901 net.cpp:156] Memory required for data: 1207729440
I0403 15:40:22.284029 15901 layer_factory.hpp:77] Creating layer loss2/conv
I0403 15:40:22.284050 15901 net.cpp:91] Creating Layer loss2/conv
I0403 15:40:22.284067 15901 net.cpp:425] loss2/conv <- loss2/ave_pool
I0403 15:40:22.284085 15901 net.cpp:399] loss2/conv -> loss2/conv
I0403 15:40:22.285955 15901 net.cpp:141] Setting up loss2/conv
I0403 15:40:22.285984 15901 net.cpp:148] Top shape: 24 128 4 4 (49152)
I0403 15:40:22.285998 15901 net.cpp:156] Memory required for data: 1207926048
I0403 15:40:22.286016 15901 layer_factory.hpp:77] Creating layer loss2/relu_conv
I0403 15:40:22.286036 15901 net.cpp:91] Creating Layer loss2/relu_conv
I0403 15:40:22.286052 15901 net.cpp:425] loss2/relu_conv <- loss2/conv
I0403 15:40:22.286069 15901 net.cpp:386] loss2/relu_conv -> loss2/conv (in-place)
I0403 15:40:22.286351 15901 net.cpp:141] Setting up loss2/relu_conv
I0403 15:40:22.286377 15901 net.cpp:148] Top shape: 24 128 4 4 (49152)
I0403 15:40:22.286391 15901 net.cpp:156] Memory required for data: 1208122656
I0403 15:40:22.286406 15901 layer_factory.hpp:77] Creating layer loss2/fc
I0403 15:40:22.286425 15901 net.cpp:91] Creating Layer loss2/fc
I0403 15:40:22.286442 15901 net.cpp:425] loss2/fc <- loss2/conv
I0403 15:40:22.286460 15901 net.cpp:399] loss2/fc -> loss2/fc
I0403 15:40:22.303700 15901 net.cpp:141] Setting up loss2/fc
I0403 15:40:22.303732 15901 net.cpp:148] Top shape: 24 1024 (24576)
I0403 15:40:22.303747 15901 net.cpp:156] Memory required for data: 1208220960
I0403 15:40:22.303766 15901 layer_factory.hpp:77] Creating layer loss2/relu_fc
I0403 15:40:22.303782 15901 net.cpp:91] Creating Layer loss2/relu_fc
I0403 15:40:22.303797 15901 net.cpp:425] loss2/relu_fc <- loss2/fc
I0403 15:40:22.303817 15901 net.cpp:386] loss2/relu_fc -> loss2/fc (in-place)
I0403 15:40:22.304111 15901 net.cpp:141] Setting up loss2/relu_fc
I0403 15:40:22.304136 15901 net.cpp:148] Top shape: 24 1024 (24576)
I0403 15:40:22.304149 15901 net.cpp:156] Memory required for data: 1208319264
I0403 15:40:22.304163 15901 layer_factory.hpp:77] Creating layer loss2/drop_fc
I0403 15:40:22.304180 15901 net.cpp:91] Creating Layer loss2/drop_fc
I0403 15:40:22.304195 15901 net.cpp:425] loss2/drop_fc <- loss2/fc
I0403 15:40:22.304214 15901 net.cpp:386] loss2/drop_fc -> loss2/fc (in-place)
I0403 15:40:22.304261 15901 net.cpp:141] Setting up loss2/drop_fc
I0403 15:40:22.304286 15901 net.cpp:148] Top shape: 24 1024 (24576)
I0403 15:40:22.304301 15901 net.cpp:156] Memory required for data: 1208417568
I0403 15:40:22.304314 15901 layer_factory.hpp:77] Creating layer loss2/classifier_plantvillage
I0403 15:40:22.304332 15901 net.cpp:91] Creating Layer loss2/classifier_plantvillage
I0403 15:40:22.304347 15901 net.cpp:425] loss2/classifier_plantvillage <- loss2/fc
I0403 15:40:22.304370 15901 net.cpp:399] loss2/classifier_plantvillage -> loss2/classifier_plantvillage
I0403 15:40:22.304772 15901 net.cpp:141] Setting up loss2/classifier_plantvillage
I0403 15:40:22.304797 15901 net.cpp:148] Top shape: 24 38 (912)
I0403 15:40:22.304811 15901 net.cpp:156] Memory required for data: 1208421216
I0403 15:40:22.304844 15901 layer_factory.hpp:77] Creating layer loss2/classifier_plantvillage_loss2/classifier_plantvillage_0_split
I0403 15:40:22.304865 15901 net.cpp:91] Creating Layer loss2/classifier_plantvillage_loss2/classifier_plantvillage_0_split
I0403 15:40:22.304882 15901 net.cpp:425] loss2/classifier_plantvillage_loss2/classifier_plantvillage_0_split <- loss2/classifier_plantvillage
I0403 15:40:22.304898 15901 net.cpp:399] loss2/classifier_plantvillage_loss2/classifier_plantvillage_0_split -> loss2/classifier_plantvillage_loss2/classifier_plantvillage_0_split_0
I0403 15:40:22.304918 15901 net.cpp:399] loss2/classifier_plantvillage_loss2/classifier_plantvillage_0_split -> loss2/classifier_plantvillage_loss2/classifier_plantvillage_0_split_1
I0403 15:40:22.304936 15901 net.cpp:399] loss2/classifier_plantvillage_loss2/classifier_plantvillage_0_split -> loss2/classifier_plantvillage_loss2/classifier_plantvillage_0_split_2
I0403 15:40:22.305013 15901 net.cpp:141] Setting up loss2/classifier_plantvillage_loss2/classifier_plantvillage_0_split
I0403 15:40:22.305035 15901 net.cpp:148] Top shape: 24 38 (912)
I0403 15:40:22.305050 15901 net.cpp:148] Top shape: 24 38 (912)
I0403 15:40:22.305065 15901 net.cpp:148] Top shape: 24 38 (912)
I0403 15:40:22.305078 15901 net.cpp:156] Memory required for data: 1208432160
I0403 15:40:22.305091 15901 layer_factory.hpp:77] Creating layer inception_4e/1x1
I0403 15:40:22.305111 15901 net.cpp:91] Creating Layer inception_4e/1x1
I0403 15:40:22.305129 15901 net.cpp:425] inception_4e/1x1 <- inception_4d/output_inception_4d/output_0_split_1
I0403 15:40:22.305146 15901 net.cpp:399] inception_4e/1x1 -> inception_4e/1x1
I0403 15:40:22.306907 15901 net.cpp:141] Setting up inception_4e/1x1
I0403 15:40:22.306934 15901 net.cpp:148] Top shape: 24 256 14 14 (1204224)
I0403 15:40:22.306949 15901 net.cpp:156] Memory required for data: 1213249056
I0403 15:40:22.306967 15901 layer_factory.hpp:77] Creating layer inception_4e/relu_1x1
I0403 15:40:22.306988 15901 net.cpp:91] Creating Layer inception_4e/relu_1x1
I0403 15:40:22.307003 15901 net.cpp:425] inception_4e/relu_1x1 <- inception_4e/1x1
I0403 15:40:22.307020 15901 net.cpp:386] inception_4e/relu_1x1 -> inception_4e/1x1 (in-place)
I0403 15:40:22.307307 15901 net.cpp:141] Setting up inception_4e/relu_1x1
I0403 15:40:22.307333 15901 net.cpp:148] Top shape: 24 256 14 14 (1204224)
I0403 15:40:22.307348 15901 net.cpp:156] Memory required for data: 1218065952
I0403 15:40:22.307363 15901 layer_factory.hpp:77] Creating layer inception_4e/3x3_reduce
I0403 15:40:22.307384 15901 net.cpp:91] Creating Layer inception_4e/3x3_reduce
I0403 15:40:22.307400 15901 net.cpp:425] inception_4e/3x3_reduce <- inception_4d/output_inception_4d/output_0_split_2
I0403 15:40:22.307421 15901 net.cpp:399] inception_4e/3x3_reduce -> inception_4e/3x3_reduce
I0403 15:40:22.309502 15901 net.cpp:141] Setting up inception_4e/3x3_reduce
I0403 15:40:22.309533 15901 net.cpp:148] Top shape: 24 160 14 14 (752640)
I0403 15:40:22.309550 15901 net.cpp:156] Memory required for data: 1221076512
I0403 15:40:22.309566 15901 layer_factory.hpp:77] Creating layer inception_4e/relu_3x3_reduce
I0403 15:40:22.309584 15901 net.cpp:91] Creating Layer inception_4e/relu_3x3_reduce
I0403 15:40:22.309599 15901 net.cpp:425] inception_4e/relu_3x3_reduce <- inception_4e/3x3_reduce
I0403 15:40:22.309617 15901 net.cpp:386] inception_4e/relu_3x3_reduce -> inception_4e/3x3_reduce (in-place)
I0403 15:40:22.309798 15901 net.cpp:141] Setting up inception_4e/relu_3x3_reduce
I0403 15:40:22.309823 15901 net.cpp:148] Top shape: 24 160 14 14 (752640)
I0403 15:40:22.309837 15901 net.cpp:156] Memory required for data: 1224087072
I0403 15:40:22.309851 15901 layer_factory.hpp:77] Creating layer inception_4e/3x3
I0403 15:40:22.309871 15901 net.cpp:91] Creating Layer inception_4e/3x3
I0403 15:40:22.309888 15901 net.cpp:425] inception_4e/3x3 <- inception_4e/3x3_reduce
I0403 15:40:22.309908 15901 net.cpp:399] inception_4e/3x3 -> inception_4e/3x3
I0403 15:40:22.314793 15901 net.cpp:141] Setting up inception_4e/3x3
I0403 15:40:22.314836 15901 net.cpp:148] Top shape: 24 320 14 14 (1505280)
I0403 15:40:22.314852 15901 net.cpp:156] Memory required for data: 1230108192
I0403 15:40:22.314870 15901 layer_factory.hpp:77] Creating layer inception_4e/relu_3x3
I0403 15:40:22.314890 15901 net.cpp:91] Creating Layer inception_4e/relu_3x3
I0403 15:40:22.314906 15901 net.cpp:425] inception_4e/relu_3x3 <- inception_4e/3x3
I0403 15:40:22.314924 15901 net.cpp:386] inception_4e/relu_3x3 -> inception_4e/3x3 (in-place)
I0403 15:40:22.315217 15901 net.cpp:141] Setting up inception_4e/relu_3x3
I0403 15:40:22.315245 15901 net.cpp:148] Top shape: 24 320 14 14 (1505280)
I0403 15:40:22.315260 15901 net.cpp:156] Memory required for data: 1236129312
I0403 15:40:22.315274 15901 layer_factory.hpp:77] Creating layer inception_4e/5x5_reduce
I0403 15:40:22.315296 15901 net.cpp:91] Creating Layer inception_4e/5x5_reduce
I0403 15:40:22.315315 15901 net.cpp:425] inception_4e/5x5_reduce <- inception_4d/output_inception_4d/output_0_split_3
I0403 15:40:22.315332 15901 net.cpp:399] inception_4e/5x5_reduce -> inception_4e/5x5_reduce
I0403 15:40:22.316632 15901 net.cpp:141] Setting up inception_4e/5x5_reduce
I0403 15:40:22.316660 15901 net.cpp:148] Top shape: 24 32 14 14 (150528)
I0403 15:40:22.316676 15901 net.cpp:156] Memory required for data: 1236731424
I0403 15:40:22.316694 15901 layer_factory.hpp:77] Creating layer inception_4e/relu_5x5_reduce
I0403 15:40:22.316715 15901 net.cpp:91] Creating Layer inception_4e/relu_5x5_reduce
I0403 15:40:22.316732 15901 net.cpp:425] inception_4e/relu_5x5_reduce <- inception_4e/5x5_reduce
I0403 15:40:22.316750 15901 net.cpp:386] inception_4e/relu_5x5_reduce -> inception_4e/5x5_reduce (in-place)
I0403 15:40:22.317052 15901 net.cpp:141] Setting up inception_4e/relu_5x5_reduce
I0403 15:40:22.317078 15901 net.cpp:148] Top shape: 24 32 14 14 (150528)
I0403 15:40:22.317093 15901 net.cpp:156] Memory required for data: 1237333536
I0403 15:40:22.317108 15901 layer_factory.hpp:77] Creating layer inception_4e/5x5
I0403 15:40:22.317147 15901 net.cpp:91] Creating Layer inception_4e/5x5
I0403 15:40:22.317165 15901 net.cpp:425] inception_4e/5x5 <- inception_4e/5x5_reduce
I0403 15:40:22.317184 15901 net.cpp:399] inception_4e/5x5 -> inception_4e/5x5
I0403 15:40:22.319046 15901 net.cpp:141] Setting up inception_4e/5x5
I0403 15:40:22.319078 15901 net.cpp:148] Top shape: 24 128 14 14 (602112)
I0403 15:40:22.319095 15901 net.cpp:156] Memory required for data: 1239741984
I0403 15:40:22.319113 15901 layer_factory.hpp:77] Creating layer inception_4e/relu_5x5
I0403 15:40:22.319130 15901 net.cpp:91] Creating Layer inception_4e/relu_5x5
I0403 15:40:22.319146 15901 net.cpp:425] inception_4e/relu_5x5 <- inception_4e/5x5
I0403 15:40:22.319164 15901 net.cpp:386] inception_4e/relu_5x5 -> inception_4e/5x5 (in-place)
I0403 15:40:22.319355 15901 net.cpp:141] Setting up inception_4e/relu_5x5
I0403 15:40:22.319378 15901 net.cpp:148] Top shape: 24 128 14 14 (602112)
I0403 15:40:22.319392 15901 net.cpp:156] Memory required for data: 1242150432
I0403 15:40:22.319406 15901 layer_factory.hpp:77] Creating layer inception_4e/pool
I0403 15:40:22.319423 15901 net.cpp:91] Creating Layer inception_4e/pool
I0403 15:40:22.319439 15901 net.cpp:425] inception_4e/pool <- inception_4d/output_inception_4d/output_0_split_4
I0403 15:40:22.319458 15901 net.cpp:399] inception_4e/pool -> inception_4e/pool
I0403 15:40:22.319535 15901 net.cpp:141] Setting up inception_4e/pool
I0403 15:40:22.319557 15901 net.cpp:148] Top shape: 24 528 14 14 (2483712)
I0403 15:40:22.319571 15901 net.cpp:156] Memory required for data: 1252085280
I0403 15:40:22.319583 15901 layer_factory.hpp:77] Creating layer inception_4e/pool_proj
I0403 15:40:22.319604 15901 net.cpp:91] Creating Layer inception_4e/pool_proj
I0403 15:40:22.319622 15901 net.cpp:425] inception_4e/pool_proj <- inception_4e/pool
I0403 15:40:22.319640 15901 net.cpp:399] inception_4e/pool_proj -> inception_4e/pool_proj
I0403 15:40:22.321132 15901 net.cpp:141] Setting up inception_4e/pool_proj
I0403 15:40:22.321162 15901 net.cpp:148] Top shape: 24 128 14 14 (602112)
I0403 15:40:22.321190 15901 net.cpp:156] Memory required for data: 1254493728
I0403 15:40:22.321209 15901 layer_factory.hpp:77] Creating layer inception_4e/relu_pool_proj
I0403 15:40:22.321226 15901 net.cpp:91] Creating Layer inception_4e/relu_pool_proj
I0403 15:40:22.321243 15901 net.cpp:425] inception_4e/relu_pool_proj <- inception_4e/pool_proj
I0403 15:40:22.321260 15901 net.cpp:386] inception_4e/relu_pool_proj -> inception_4e/pool_proj (in-place)
I0403 15:40:22.321548 15901 net.cpp:141] Setting up inception_4e/relu_pool_proj
I0403 15:40:22.321576 15901 net.cpp:148] Top shape: 24 128 14 14 (602112)
I0403 15:40:22.321591 15901 net.cpp:156] Memory required for data: 1256902176
I0403 15:40:22.321605 15901 layer_factory.hpp:77] Creating layer inception_4e/output
I0403 15:40:22.321622 15901 net.cpp:91] Creating Layer inception_4e/output
I0403 15:40:22.321637 15901 net.cpp:425] inception_4e/output <- inception_4e/1x1
I0403 15:40:22.321652 15901 net.cpp:425] inception_4e/output <- inception_4e/3x3
I0403 15:40:22.321667 15901 net.cpp:425] inception_4e/output <- inception_4e/5x5
I0403 15:40:22.321682 15901 net.cpp:425] inception_4e/output <- inception_4e/pool_proj
I0403 15:40:22.321701 15901 net.cpp:399] inception_4e/output -> inception_4e/output
I0403 15:40:22.321748 15901 net.cpp:141] Setting up inception_4e/output
I0403 15:40:22.321771 15901 net.cpp:148] Top shape: 24 832 14 14 (3913728)
I0403 15:40:22.321785 15901 net.cpp:156] Memory required for data: 1272557088
I0403 15:40:22.321799 15901 layer_factory.hpp:77] Creating layer pool4/3x3_s2
I0403 15:40:22.321817 15901 net.cpp:91] Creating Layer pool4/3x3_s2
I0403 15:40:22.321833 15901 net.cpp:425] pool4/3x3_s2 <- inception_4e/output
I0403 15:40:22.321851 15901 net.cpp:399] pool4/3x3_s2 -> pool4/3x3_s2
I0403 15:40:22.321919 15901 net.cpp:141] Setting up pool4/3x3_s2
I0403 15:40:22.321941 15901 net.cpp:148] Top shape: 24 832 7 7 (978432)
I0403 15:40:22.321955 15901 net.cpp:156] Memory required for data: 1276470816
I0403 15:40:22.321967 15901 layer_factory.hpp:77] Creating layer pool4/3x3_s2_pool4/3x3_s2_0_split
I0403 15:40:22.321984 15901 net.cpp:91] Creating Layer pool4/3x3_s2_pool4/3x3_s2_0_split
I0403 15:40:22.321998 15901 net.cpp:425] pool4/3x3_s2_pool4/3x3_s2_0_split <- pool4/3x3_s2
I0403 15:40:22.322017 15901 net.cpp:399] pool4/3x3_s2_pool4/3x3_s2_0_split -> pool4/3x3_s2_pool4/3x3_s2_0_split_0
I0403 15:40:22.322036 15901 net.cpp:399] pool4/3x3_s2_pool4/3x3_s2_0_split -> pool4/3x3_s2_pool4/3x3_s2_0_split_1
I0403 15:40:22.322055 15901 net.cpp:399] pool4/3x3_s2_pool4/3x3_s2_0_split -> pool4/3x3_s2_pool4/3x3_s2_0_split_2
I0403 15:40:22.322073 15901 net.cpp:399] pool4/3x3_s2_pool4/3x3_s2_0_split -> pool4/3x3_s2_pool4/3x3_s2_0_split_3
I0403 15:40:22.322166 15901 net.cpp:141] Setting up pool4/3x3_s2_pool4/3x3_s2_0_split
I0403 15:40:22.322188 15901 net.cpp:148] Top shape: 24 832 7 7 (978432)
I0403 15:40:22.322204 15901 net.cpp:148] Top shape: 24 832 7 7 (978432)
I0403 15:40:22.322218 15901 net.cpp:148] Top shape: 24 832 7 7 (978432)
I0403 15:40:22.322233 15901 net.cpp:148] Top shape: 24 832 7 7 (978432)
I0403 15:40:22.322247 15901 net.cpp:156] Memory required for data: 1292125728
I0403 15:40:22.322259 15901 layer_factory.hpp:77] Creating layer inception_5a/1x1
I0403 15:40:22.322279 15901 net.cpp:91] Creating Layer inception_5a/1x1
I0403 15:40:22.322299 15901 net.cpp:425] inception_5a/1x1 <- pool4/3x3_s2_pool4/3x3_s2_0_split_0
I0403 15:40:22.322319 15901 net.cpp:399] inception_5a/1x1 -> inception_5a/1x1
I0403 15:40:22.325120 15901 net.cpp:141] Setting up inception_5a/1x1
I0403 15:40:22.325148 15901 net.cpp:148] Top shape: 24 256 7 7 (301056)
I0403 15:40:22.325163 15901 net.cpp:156] Memory required for data: 1293329952
I0403 15:40:22.325181 15901 layer_factory.hpp:77] Creating layer inception_5a/relu_1x1
I0403 15:40:22.325197 15901 net.cpp:91] Creating Layer inception_5a/relu_1x1
I0403 15:40:22.325213 15901 net.cpp:425] inception_5a/relu_1x1 <- inception_5a/1x1
I0403 15:40:22.325232 15901 net.cpp:386] inception_5a/relu_1x1 -> inception_5a/1x1 (in-place)
I0403 15:40:22.325541 15901 net.cpp:141] Setting up inception_5a/relu_1x1
I0403 15:40:22.325567 15901 net.cpp:148] Top shape: 24 256 7 7 (301056)
I0403 15:40:22.325580 15901 net.cpp:156] Memory required for data: 1294534176
I0403 15:40:22.325595 15901 layer_factory.hpp:77] Creating layer inception_5a/3x3_reduce
I0403 15:40:22.325616 15901 net.cpp:91] Creating Layer inception_5a/3x3_reduce
I0403 15:40:22.325634 15901 net.cpp:425] inception_5a/3x3_reduce <- pool4/3x3_s2_pool4/3x3_s2_0_split_1
I0403 15:40:22.325654 15901 net.cpp:399] inception_5a/3x3_reduce -> inception_5a/3x3_reduce
I0403 15:40:22.328068 15901 net.cpp:141] Setting up inception_5a/3x3_reduce
I0403 15:40:22.328095 15901 net.cpp:148] Top shape: 24 160 7 7 (188160)
I0403 15:40:22.328110 15901 net.cpp:156] Memory required for data: 1295286816
I0403 15:40:22.328130 15901 layer_factory.hpp:77] Creating layer inception_5a/relu_3x3_reduce
I0403 15:40:22.328148 15901 net.cpp:91] Creating Layer inception_5a/relu_3x3_reduce
I0403 15:40:22.328164 15901 net.cpp:425] inception_5a/relu_3x3_reduce <- inception_5a/3x3_reduce
I0403 15:40:22.328179 15901 net.cpp:386] inception_5a/relu_3x3_reduce -> inception_5a/3x3_reduce (in-place)
I0403 15:40:22.328363 15901 net.cpp:141] Setting up inception_5a/relu_3x3_reduce
I0403 15:40:22.328388 15901 net.cpp:148] Top shape: 24 160 7 7 (188160)
I0403 15:40:22.328402 15901 net.cpp:156] Memory required for data: 1296039456
I0403 15:40:22.328416 15901 layer_factory.hpp:77] Creating layer inception_5a/3x3
I0403 15:40:22.328438 15901 net.cpp:91] Creating Layer inception_5a/3x3
I0403 15:40:22.328455 15901 net.cpp:425] inception_5a/3x3 <- inception_5a/3x3_reduce
I0403 15:40:22.328475 15901 net.cpp:399] inception_5a/3x3 -> inception_5a/3x3
I0403 15:40:22.333449 15901 net.cpp:141] Setting up inception_5a/3x3
I0403 15:40:22.333477 15901 net.cpp:148] Top shape: 24 320 7 7 (376320)
I0403 15:40:22.333492 15901 net.cpp:156] Memory required for data: 1297544736
I0403 15:40:22.333513 15901 layer_factory.hpp:77] Creating layer inception_5a/relu_3x3
I0403 15:40:22.333531 15901 net.cpp:91] Creating Layer inception_5a/relu_3x3
I0403 15:40:22.333546 15901 net.cpp:425] inception_5a/relu_3x3 <- inception_5a/3x3
I0403 15:40:22.333564 15901 net.cpp:386] inception_5a/relu_3x3 -> inception_5a/3x3 (in-place)
I0403 15:40:22.333842 15901 net.cpp:141] Setting up inception_5a/relu_3x3
I0403 15:40:22.333868 15901 net.cpp:148] Top shape: 24 320 7 7 (376320)
I0403 15:40:22.333881 15901 net.cpp:156] Memory required for data: 1299050016
I0403 15:40:22.333895 15901 layer_factory.hpp:77] Creating layer inception_5a/5x5_reduce
I0403 15:40:22.333917 15901 net.cpp:91] Creating Layer inception_5a/5x5_reduce
I0403 15:40:22.333935 15901 net.cpp:425] inception_5a/5x5_reduce <- pool4/3x3_s2_pool4/3x3_s2_0_split_2
I0403 15:40:22.333953 15901 net.cpp:399] inception_5a/5x5_reduce -> inception_5a/5x5_reduce
I0403 15:40:22.335078 15901 net.cpp:141] Setting up inception_5a/5x5_reduce
I0403 15:40:22.335105 15901 net.cpp:148] Top shape: 24 32 7 7 (37632)
I0403 15:40:22.335120 15901 net.cpp:156] Memory required for data: 1299200544
I0403 15:40:22.335137 15901 layer_factory.hpp:77] Creating layer inception_5a/relu_5x5_reduce
I0403 15:40:22.335156 15901 net.cpp:91] Creating Layer inception_5a/relu_5x5_reduce
I0403 15:40:22.335171 15901 net.cpp:425] inception_5a/relu_5x5_reduce <- inception_5a/5x5_reduce
I0403 15:40:22.335187 15901 net.cpp:386] inception_5a/relu_5x5_reduce -> inception_5a/5x5_reduce (in-place)
I0403 15:40:22.335469 15901 net.cpp:141] Setting up inception_5a/relu_5x5_reduce
I0403 15:40:22.335494 15901 net.cpp:148] Top shape: 24 32 7 7 (37632)
I0403 15:40:22.335512 15901 net.cpp:156] Memory required for data: 1299351072
I0403 15:40:22.335528 15901 layer_factory.hpp:77] Creating layer inception_5a/5x5
I0403 15:40:22.335549 15901 net.cpp:91] Creating Layer inception_5a/5x5
I0403 15:40:22.335566 15901 net.cpp:425] inception_5a/5x5 <- inception_5a/5x5_reduce
I0403 15:40:22.335585 15901 net.cpp:399] inception_5a/5x5 -> inception_5a/5x5
I0403 15:40:22.337227 15901 net.cpp:141] Setting up inception_5a/5x5
I0403 15:40:22.337265 15901 net.cpp:148] Top shape: 24 128 7 7 (150528)
I0403 15:40:22.337280 15901 net.cpp:156] Memory required for data: 1299953184
I0403 15:40:22.337298 15901 layer_factory.hpp:77] Creating layer inception_5a/relu_5x5
I0403 15:40:22.337316 15901 net.cpp:91] Creating Layer inception_5a/relu_5x5
I0403 15:40:22.337330 15901 net.cpp:425] inception_5a/relu_5x5 <- inception_5a/5x5
I0403 15:40:22.337349 15901 net.cpp:386] inception_5a/relu_5x5 -> inception_5a/5x5 (in-place)
I0403 15:40:22.337533 15901 net.cpp:141] Setting up inception_5a/relu_5x5
I0403 15:40:22.337558 15901 net.cpp:148] Top shape: 24 128 7 7 (150528)
I0403 15:40:22.337570 15901 net.cpp:156] Memory required for data: 1300555296
I0403 15:40:22.337584 15901 layer_factory.hpp:77] Creating layer inception_5a/pool
I0403 15:40:22.337602 15901 net.cpp:91] Creating Layer inception_5a/pool
I0403 15:40:22.337618 15901 net.cpp:425] inception_5a/pool <- pool4/3x3_s2_pool4/3x3_s2_0_split_3
I0403 15:40:22.337635 15901 net.cpp:399] inception_5a/pool -> inception_5a/pool
I0403 15:40:22.337703 15901 net.cpp:141] Setting up inception_5a/pool
I0403 15:40:22.337725 15901 net.cpp:148] Top shape: 24 832 7 7 (978432)
I0403 15:40:22.337739 15901 net.cpp:156] Memory required for data: 1304469024
I0403 15:40:22.337752 15901 layer_factory.hpp:77] Creating layer inception_5a/pool_proj
I0403 15:40:22.337772 15901 net.cpp:91] Creating Layer inception_5a/pool_proj
I0403 15:40:22.337787 15901 net.cpp:425] inception_5a/pool_proj <- inception_5a/pool
I0403 15:40:22.337806 15901 net.cpp:399] inception_5a/pool_proj -> inception_5a/pool_proj
I0403 15:40:22.340025 15901 net.cpp:141] Setting up inception_5a/pool_proj
I0403 15:40:22.340054 15901 net.cpp:148] Top shape: 24 128 7 7 (150528)
I0403 15:40:22.340068 15901 net.cpp:156] Memory required for data: 1305071136
I0403 15:40:22.340085 15901 layer_factory.hpp:77] Creating layer inception_5a/relu_pool_proj
I0403 15:40:22.340102 15901 net.cpp:91] Creating Layer inception_5a/relu_pool_proj
I0403 15:40:22.340116 15901 net.cpp:425] inception_5a/relu_pool_proj <- inception_5a/pool_proj
I0403 15:40:22.340134 15901 net.cpp:386] inception_5a/relu_pool_proj -> inception_5a/pool_proj (in-place)
I0403 15:40:22.340431 15901 net.cpp:141] Setting up inception_5a/relu_pool_proj
I0403 15:40:22.340458 15901 net.cpp:148] Top shape: 24 128 7 7 (150528)
I0403 15:40:22.340473 15901 net.cpp:156] Memory required for data: 1305673248
I0403 15:40:22.340487 15901 layer_factory.hpp:77] Creating layer inception_5a/output
I0403 15:40:22.340503 15901 net.cpp:91] Creating Layer inception_5a/output
I0403 15:40:22.340524 15901 net.cpp:425] inception_5a/output <- inception_5a/1x1
I0403 15:40:22.340539 15901 net.cpp:425] inception_5a/output <- inception_5a/3x3
I0403 15:40:22.340567 15901 net.cpp:425] inception_5a/output <- inception_5a/5x5
I0403 15:40:22.340582 15901 net.cpp:425] inception_5a/output <- inception_5a/pool_proj
I0403 15:40:22.340597 15901 net.cpp:399] inception_5a/output -> inception_5a/output
I0403 15:40:22.340647 15901 net.cpp:141] Setting up inception_5a/output
I0403 15:40:22.340669 15901 net.cpp:148] Top shape: 24 832 7 7 (978432)
I0403 15:40:22.340682 15901 net.cpp:156] Memory required for data: 1309586976
I0403 15:40:22.340695 15901 layer_factory.hpp:77] Creating layer inception_5a/output_inception_5a/output_0_split
I0403 15:40:22.340713 15901 net.cpp:91] Creating Layer inception_5a/output_inception_5a/output_0_split
I0403 15:40:22.340728 15901 net.cpp:425] inception_5a/output_inception_5a/output_0_split <- inception_5a/output
I0403 15:40:22.340744 15901 net.cpp:399] inception_5a/output_inception_5a/output_0_split -> inception_5a/output_inception_5a/output_0_split_0
I0403 15:40:22.340762 15901 net.cpp:399] inception_5a/output_inception_5a/output_0_split -> inception_5a/output_inception_5a/output_0_split_1
I0403 15:40:22.340780 15901 net.cpp:399] inception_5a/output_inception_5a/output_0_split -> inception_5a/output_inception_5a/output_0_split_2
I0403 15:40:22.340801 15901 net.cpp:399] inception_5a/output_inception_5a/output_0_split -> inception_5a/output_inception_5a/output_0_split_3
I0403 15:40:22.340909 15901 net.cpp:141] Setting up inception_5a/output_inception_5a/output_0_split
I0403 15:40:22.340931 15901 net.cpp:148] Top shape: 24 832 7 7 (978432)
I0403 15:40:22.340946 15901 net.cpp:148] Top shape: 24 832 7 7 (978432)
I0403 15:40:22.340961 15901 net.cpp:148] Top shape: 24 832 7 7 (978432)
I0403 15:40:22.340975 15901 net.cpp:148] Top shape: 24 832 7 7 (978432)
I0403 15:40:22.340988 15901 net.cpp:156] Memory required for data: 1325241888
I0403 15:40:22.341001 15901 layer_factory.hpp:77] Creating layer inception_5b/1x1
I0403 15:40:22.341022 15901 net.cpp:91] Creating Layer inception_5b/1x1
I0403 15:40:22.341038 15901 net.cpp:425] inception_5b/1x1 <- inception_5a/output_inception_5a/output_0_split_0
I0403 15:40:22.341058 15901 net.cpp:399] inception_5b/1x1 -> inception_5b/1x1
I0403 15:40:22.344645 15901 net.cpp:141] Setting up inception_5b/1x1
I0403 15:40:22.344676 15901 net.cpp:148] Top shape: 24 384 7 7 (451584)
I0403 15:40:22.344691 15901 net.cpp:156] Memory required for data: 1327048224
I0403 15:40:22.344708 15901 layer_factory.hpp:77] Creating layer inception_5b/relu_1x1
I0403 15:40:22.344727 15901 net.cpp:91] Creating Layer inception_5b/relu_1x1
I0403 15:40:22.344741 15901 net.cpp:425] inception_5b/relu_1x1 <- inception_5b/1x1
I0403 15:40:22.344759 15901 net.cpp:386] inception_5b/relu_1x1 -> inception_5b/1x1 (in-place)
I0403 15:40:22.345047 15901 net.cpp:141] Setting up inception_5b/relu_1x1
I0403 15:40:22.345074 15901 net.cpp:148] Top shape: 24 384 7 7 (451584)
I0403 15:40:22.345090 15901 net.cpp:156] Memory required for data: 1328854560
I0403 15:40:22.345103 15901 layer_factory.hpp:77] Creating layer inception_5b/3x3_reduce
I0403 15:40:22.345124 15901 net.cpp:91] Creating Layer inception_5b/3x3_reduce
I0403 15:40:22.345140 15901 net.cpp:425] inception_5b/3x3_reduce <- inception_5a/output_inception_5a/output_0_split_1
I0403 15:40:22.345158 15901 net.cpp:399] inception_5b/3x3_reduce -> inception_5b/3x3_reduce
I0403 15:40:22.347714 15901 net.cpp:141] Setting up inception_5b/3x3_reduce
I0403 15:40:22.347744 15901 net.cpp:148] Top shape: 24 192 7 7 (225792)
I0403 15:40:22.347760 15901 net.cpp:156] Memory required for data: 1329757728
I0403 15:40:22.347779 15901 layer_factory.hpp:77] Creating layer inception_5b/relu_3x3_reduce
I0403 15:40:22.347795 15901 net.cpp:91] Creating Layer inception_5b/relu_3x3_reduce
I0403 15:40:22.347810 15901 net.cpp:425] inception_5b/relu_3x3_reduce <- inception_5b/3x3_reduce
I0403 15:40:22.347826 15901 net.cpp:386] inception_5b/relu_3x3_reduce -> inception_5b/3x3_reduce (in-place)
I0403 15:40:22.348007 15901 net.cpp:141] Setting up inception_5b/relu_3x3_reduce
I0403 15:40:22.348031 15901 net.cpp:148] Top shape: 24 192 7 7 (225792)
I0403 15:40:22.348044 15901 net.cpp:156] Memory required for data: 1330660896
I0403 15:40:22.348057 15901 layer_factory.hpp:77] Creating layer inception_5b/3x3
I0403 15:40:22.348078 15901 net.cpp:91] Creating Layer inception_5b/3x3
I0403 15:40:22.348095 15901 net.cpp:425] inception_5b/3x3 <- inception_5b/3x3_reduce
I0403 15:40:22.348115 15901 net.cpp:399] inception_5b/3x3 -> inception_5b/3x3
I0403 15:40:22.354502 15901 net.cpp:141] Setting up inception_5b/3x3
I0403 15:40:22.354539 15901 net.cpp:148] Top shape: 24 384 7 7 (451584)
I0403 15:40:22.354554 15901 net.cpp:156] Memory required for data: 1332467232
I0403 15:40:22.354571 15901 layer_factory.hpp:77] Creating layer inception_5b/relu_3x3
I0403 15:40:22.354588 15901 net.cpp:91] Creating Layer inception_5b/relu_3x3
I0403 15:40:22.354603 15901 net.cpp:425] inception_5b/relu_3x3 <- inception_5b/3x3
I0403 15:40:22.354620 15901 net.cpp:386] inception_5b/relu_3x3 -> inception_5b/3x3 (in-place)
I0403 15:40:22.354904 15901 net.cpp:141] Setting up inception_5b/relu_3x3
I0403 15:40:22.354931 15901 net.cpp:148] Top shape: 24 384 7 7 (451584)
I0403 15:40:22.354945 15901 net.cpp:156] Memory required for data: 1334273568
I0403 15:40:22.354959 15901 layer_factory.hpp:77] Creating layer inception_5b/5x5_reduce
I0403 15:40:22.354993 15901 net.cpp:91] Creating Layer inception_5b/5x5_reduce
I0403 15:40:22.355011 15901 net.cpp:425] inception_5b/5x5_reduce <- inception_5a/output_inception_5a/output_0_split_2
I0403 15:40:22.355036 15901 net.cpp:399] inception_5b/5x5_reduce -> inception_5b/5x5_reduce
I0403 15:40:22.356248 15901 net.cpp:141] Setting up inception_5b/5x5_reduce
I0403 15:40:22.356276 15901 net.cpp:148] Top shape: 24 48 7 7 (56448)
I0403 15:40:22.356292 15901 net.cpp:156] Memory required for data: 1334499360
I0403 15:40:22.356310 15901 layer_factory.hpp:77] Creating layer inception_5b/relu_5x5_reduce
I0403 15:40:22.356328 15901 net.cpp:91] Creating Layer inception_5b/relu_5x5_reduce
I0403 15:40:22.356343 15901 net.cpp:425] inception_5b/relu_5x5_reduce <- inception_5b/5x5_reduce
I0403 15:40:22.356360 15901 net.cpp:386] inception_5b/relu_5x5_reduce -> inception_5b/5x5_reduce (in-place)
I0403 15:40:22.356719 15901 net.cpp:141] Setting up inception_5b/relu_5x5_reduce
I0403 15:40:22.356745 15901 net.cpp:148] Top shape: 24 48 7 7 (56448)
I0403 15:40:22.356758 15901 net.cpp:156] Memory required for data: 1334725152
I0403 15:40:22.356771 15901 layer_factory.hpp:77] Creating layer inception_5b/5x5
I0403 15:40:22.356791 15901 net.cpp:91] Creating Layer inception_5b/5x5
I0403 15:40:22.356807 15901 net.cpp:425] inception_5b/5x5 <- inception_5b/5x5_reduce
I0403 15:40:22.356824 15901 net.cpp:399] inception_5b/5x5 -> inception_5b/5x5
I0403 15:40:22.358779 15901 net.cpp:141] Setting up inception_5b/5x5
I0403 15:40:22.358805 15901 net.cpp:148] Top shape: 24 128 7 7 (150528)
I0403 15:40:22.358819 15901 net.cpp:156] Memory required for data: 1335327264
I0403 15:40:22.358837 15901 layer_factory.hpp:77] Creating layer inception_5b/relu_5x5
I0403 15:40:22.358853 15901 net.cpp:91] Creating Layer inception_5b/relu_5x5
I0403 15:40:22.358870 15901 net.cpp:425] inception_5b/relu_5x5 <- inception_5b/5x5
I0403 15:40:22.358887 15901 net.cpp:386] inception_5b/relu_5x5 -> inception_5b/5x5 (in-place)
I0403 15:40:22.359073 15901 net.cpp:141] Setting up inception_5b/relu_5x5
I0403 15:40:22.359097 15901 net.cpp:148] Top shape: 24 128 7 7 (150528)
I0403 15:40:22.359110 15901 net.cpp:156] Memory required for data: 1335929376
I0403 15:40:22.359124 15901 layer_factory.hpp:77] Creating layer inception_5b/pool
I0403 15:40:22.359143 15901 net.cpp:91] Creating Layer inception_5b/pool
I0403 15:40:22.359158 15901 net.cpp:425] inception_5b/pool <- inception_5a/output_inception_5a/output_0_split_3
I0403 15:40:22.359175 15901 net.cpp:399] inception_5b/pool -> inception_5b/pool
I0403 15:40:22.359243 15901 net.cpp:141] Setting up inception_5b/pool
I0403 15:40:22.359266 15901 net.cpp:148] Top shape: 24 832 7 7 (978432)
I0403 15:40:22.359280 15901 net.cpp:156] Memory required for data: 1339843104
I0403 15:40:22.359295 15901 layer_factory.hpp:77] Creating layer inception_5b/pool_proj
I0403 15:40:22.359315 15901 net.cpp:91] Creating Layer inception_5b/pool_proj
I0403 15:40:22.359333 15901 net.cpp:425] inception_5b/pool_proj <- inception_5b/pool
I0403 15:40:22.359351 15901 net.cpp:399] inception_5b/pool_proj -> inception_5b/pool_proj
I0403 15:40:22.361620 15901 net.cpp:141] Setting up inception_5b/pool_proj
I0403 15:40:22.361650 15901 net.cpp:148] Top shape: 24 128 7 7 (150528)
I0403 15:40:22.361666 15901 net.cpp:156] Memory required for data: 1340445216
I0403 15:40:22.361683 15901 layer_factory.hpp:77] Creating layer inception_5b/relu_pool_proj
I0403 15:40:22.361699 15901 net.cpp:91] Creating Layer inception_5b/relu_pool_proj
I0403 15:40:22.361714 15901 net.cpp:425] inception_5b/relu_pool_proj <- inception_5b/pool_proj
I0403 15:40:22.361732 15901 net.cpp:386] inception_5b/relu_pool_proj -> inception_5b/pool_proj (in-place)
I0403 15:40:22.362025 15901 net.cpp:141] Setting up inception_5b/relu_pool_proj
I0403 15:40:22.362051 15901 net.cpp:148] Top shape: 24 128 7 7 (150528)
I0403 15:40:22.362067 15901 net.cpp:156] Memory required for data: 1341047328
I0403 15:40:22.362081 15901 layer_factory.hpp:77] Creating layer inception_5b/output
I0403 15:40:22.362097 15901 net.cpp:91] Creating Layer inception_5b/output
I0403 15:40:22.362124 15901 net.cpp:425] inception_5b/output <- inception_5b/1x1
I0403 15:40:22.362141 15901 net.cpp:425] inception_5b/output <- inception_5b/3x3
I0403 15:40:22.362156 15901 net.cpp:425] inception_5b/output <- inception_5b/5x5
I0403 15:40:22.362172 15901 net.cpp:425] inception_5b/output <- inception_5b/pool_proj
I0403 15:40:22.362190 15901 net.cpp:399] inception_5b/output -> inception_5b/output
I0403 15:40:22.362241 15901 net.cpp:141] Setting up inception_5b/output
I0403 15:40:22.362262 15901 net.cpp:148] Top shape: 24 1024 7 7 (1204224)
I0403 15:40:22.362275 15901 net.cpp:156] Memory required for data: 1345864224
I0403 15:40:22.362292 15901 layer_factory.hpp:77] Creating layer pool5/7x7_s1
I0403 15:40:22.362311 15901 net.cpp:91] Creating Layer pool5/7x7_s1
I0403 15:40:22.362328 15901 net.cpp:425] pool5/7x7_s1 <- inception_5b/output
I0403 15:40:22.362344 15901 net.cpp:399] pool5/7x7_s1 -> pool5/7x7_s1
I0403 15:40:22.362553 15901 net.cpp:141] Setting up pool5/7x7_s1
I0403 15:40:22.362577 15901 net.cpp:148] Top shape: 24 1024 1 1 (24576)
I0403 15:40:22.362591 15901 net.cpp:156] Memory required for data: 1345962528
I0403 15:40:22.362604 15901 layer_factory.hpp:77] Creating layer pool5/drop_7x7_s1
I0403 15:40:22.362622 15901 net.cpp:91] Creating Layer pool5/drop_7x7_s1
I0403 15:40:22.362637 15901 net.cpp:425] pool5/drop_7x7_s1 <- pool5/7x7_s1
I0403 15:40:22.362653 15901 net.cpp:386] pool5/drop_7x7_s1 -> pool5/7x7_s1 (in-place)
I0403 15:40:22.362700 15901 net.cpp:141] Setting up pool5/drop_7x7_s1
I0403 15:40:22.362725 15901 net.cpp:148] Top shape: 24 1024 1 1 (24576)
I0403 15:40:22.362740 15901 net.cpp:156] Memory required for data: 1346060832
I0403 15:40:22.362752 15901 layer_factory.hpp:77] Creating layer loss3/classifier_plantvillage
I0403 15:40:22.362769 15901 net.cpp:91] Creating Layer loss3/classifier_plantvillage
I0403 15:40:22.362783 15901 net.cpp:425] loss3/classifier_plantvillage <- pool5/7x7_s1
I0403 15:40:22.362802 15901 net.cpp:399] loss3/classifier_plantvillage -> loss3/classifier_plantvillage
I0403 15:40:22.363206 15901 net.cpp:141] Setting up loss3/classifier_plantvillage
I0403 15:40:22.363231 15901 net.cpp:148] Top shape: 24 38 (912)
I0403 15:40:22.363246 15901 net.cpp:156] Memory required for data: 1346064480
I0403 15:40:22.363263 15901 layer_factory.hpp:77] Creating layer loss3/classifier_plantvillage_loss3/classifier_plantvillage_0_split
I0403 15:40:22.363279 15901 net.cpp:91] Creating Layer loss3/classifier_plantvillage_loss3/classifier_plantvillage_0_split
I0403 15:40:22.363296 15901 net.cpp:425] loss3/classifier_plantvillage_loss3/classifier_plantvillage_0_split <- loss3/classifier_plantvillage
I0403 15:40:22.363312 15901 net.cpp:399] loss3/classifier_plantvillage_loss3/classifier_plantvillage_0_split -> loss3/classifier_plantvillage_loss3/classifier_plantvillage_0_split_0
I0403 15:40:22.363329 15901 net.cpp:399] loss3/classifier_plantvillage_loss3/classifier_plantvillage_0_split -> loss3/classifier_plantvillage_loss3/classifier_plantvillage_0_split_1
I0403 15:40:22.363348 15901 net.cpp:399] loss3/classifier_plantvillage_loss3/classifier_plantvillage_0_split -> loss3/classifier_plantvillage_loss3/classifier_plantvillage_0_split_2
I0403 15:40:22.363368 15901 net.cpp:399] loss3/classifier_plantvillage_loss3/classifier_plantvillage_0_split -> loss3/classifier_plantvillage_loss3/classifier_plantvillage_0_split_3
I0403 15:40:22.363463 15901 net.cpp:141] Setting up loss3/classifier_plantvillage_loss3/classifier_plantvillage_0_split
I0403 15:40:22.363486 15901 net.cpp:148] Top shape: 24 38 (912)
I0403 15:40:22.363500 15901 net.cpp:148] Top shape: 24 38 (912)
I0403 15:40:22.363533 15901 net.cpp:148] Top shape: 24 38 (912)
I0403 15:40:22.363548 15901 net.cpp:148] Top shape: 24 38 (912)
I0403 15:40:22.363561 15901 net.cpp:156] Memory required for data: 1346079072
I0403 15:40:22.363575 15901 layer_factory.hpp:77] Creating layer loss1/loss
I0403 15:40:22.363595 15901 net.cpp:91] Creating Layer loss1/loss
I0403 15:40:22.363612 15901 net.cpp:425] loss1/loss <- loss1/classifier_plantvillage_loss1/classifier_plantvillage_0_split_0
I0403 15:40:22.363642 15901 net.cpp:425] loss1/loss <- label_data_1_split_0
…
