…
I0403 15:03:41.708878 14058 net.cpp:313] The NetState phase (1) differed from the phase (0) specified by a rule in layer data
I0403 15:03:41.710010 14058 net.cpp:49] Initializing net from parameters: 
state {
  phase: TEST
}
layer {
  name: "data"
  type: "Data"
  top: "data"
  top: "label"
  include {
    phase: TEST
  }
  transform_param {
    mirror: false
    crop_size: 224
    mean_file: "/home/mohanty/data/final_dataset/lmdb/color-50-50/mean.binaryproto"
  }
  data_param {
    source: "/home/mohanty/data/final_dataset/lmdb/color-50-50/test_db"
    batch_size: 24
    backend: LMDB
  }
}
layer {
  name: "conv1/7x7_s2"
  type: "Convolution"
  bottom: "data"
  top: "conv1/7x7_s2"
  param {
    lr_mult: 1
    decay_mult: 1
  }
  param {
    lr_mult: 2
    decay_mult: 0
  }
  convolution_param {
    num_output: 64
    pad: 3
    kernel_size: 7
    stride: 2
    weight_filler {
      type: "xavier"
      std: 0.1
    }
    bias_filler {
      type: "constant"
      value: 0.2
    }
  }
}
layer {
  name: "conv1/relu_7x7"
  type: "ReLU"
  bottom: "conv1/7x7_s2"
  top: "conv1/7x7_s2"
}
layer {
  name: "pool1/3x3_s2"
  type: "Pooling"
  bottom: "conv1/7x7_s2"
  top: "pool1/3x3_s2"
  pooling_param {
    pool: MAX
    kernel_size: 3
    stride: 2
  }
}
layer {
  name: "pool1/norm1"
  type: "LRN"
  bottom: "pool1/3x3_s2"
  top: "pool1/norm1"
  lrn_param {
    local_size: 5
    alpha: 0.0001
    beta: 0.75
  }
}
layer {
  name: "conv2/3x3_reduce"
  type: "Convolution"
  bottom: "pool1/norm1"
  top: "conv2/3x3_reduce"
  param {
    lr_mult: 1
    decay_mult: 1
  }
  param {
    lr_mult: 2
    decay_mult: 0
  }
  convolution_param {
    num_output: 64
    kernel_size: 1
    weight_filler {
      type: "xavier"
      std: 0.1
    }
    bias_filler {
      type: "constant"
      value: 0.2
    }
  }
}
layer {
  name: "conv2/relu_3x3_reduce"
  type: "ReLU"
  bottom: "conv2/3x3_reduce"
  top: "conv2/3x3_reduce"
}
layer {
  name: "conv2/3x3"
  type: "Convolution"
  bottom: "conv2/3x3_reduce"
  top: "conv2/3x3"
  param {
    lr_mult: 1
    decay_mult: 1
  }
  param {
    lr_mult: 2
    decay_mult: 0
  }
  convolution_param {
    num_output: 192
    pad: 1
    kernel_size: 3
    weight_filler {
      type: "xavier"
      std: 0.03
    }
    bias_filler {
      type: "constant"
      value: 0.2
    }
  }
}
layer {
  name: "conv2/relu_3x3"
  type: "ReLU"
  bottom: "conv2/3x3"
  top: "conv2/3x3"
}
layer {
  name: "conv2/norm2"
  type: "LRN"
  bottom: "conv2/3x3"
  top: "conv2/norm2"
  lrn_param {
    local_size: 5
    alpha: 0.0001
    beta: 0.75
  }
}
layer {
  name: "pool2/3x3_s2"
  type: "Pooling"
  bottom: "conv2/norm2"
  top: "pool2/3x3_s2"
  pooling_param {
    pool: MAX
    kernel_size: 3
    stride: 2
  }
}
layer {
  name: "inception_3a/1x1"
  type: "Convolution"
  bottom: "pool2/3x3_s2"
  top: "inception_3a/1x1"
  param {
    lr_mult: 1
    decay_mult: 1
  }
  param {
    lr_mult: 2
    decay_mult: 0
  }
  convolution_param {
    num_output: 64
    kernel_size: 1
    weight_filler {
      type: "xavier"
      std: 0.03
    }
    bias_filler {
      type: "constant"
      value: 0.2
    }
  }
}
layer {
  name: "inception_3a/relu_1x1"
  type: "ReLU"
  bottom: "inception_3a/1x1"
  top: "inception_3a/1x1"
}
layer {
  name: "inception_3a/3x3_reduce"
  type: "Convolution"
  bottom: "pool2/3x3_s2"
  top: "inception_3a/3x3_reduce"
  param {
    lr_mult: 1
    decay_mult: 1
  }
  param {
    lr_mult: 2
    decay_mult: 0
  }
  convolution_param {
    num_output: 96
    kernel_size: 1
    weight_filler {
      type: "xavier"
      std: 0.09
    }
    bias_filler {
      type: "constant"
      value: 0.2
    }
  }
}
layer {
  name: "inception_3a/relu_3x3_reduce"
  type: "ReLU"
  bottom: "inception_3a/3x3_reduce"
  top: "inception_3a/3x3_reduce"
}
layer {
  name: "inception_3a/3x3"
  type: "Convolution"
  bottom: "inception_3a/3x3_reduce"
  top: "inception_3a/3x3"
  param {
    lr_mult: 1
    decay_mult: 1
  }
  param {
    lr_mult: 2
    decay_mult: 0
  }
  convolution_param {
    num_output: 128
    pad: 1
    kernel_size: 3
    weight_filler {
      type: "xavier"
      std: 0.03
    }
    bias_filler {
      type: "constant"
      value: 0.2
    }
  }
}
layer {
  name: "inception_3a/relu_3x3"
  type: "ReLU"
  bottom: "inception_3a/3x3"
  top: "inception_3a/3x3"
}
layer {
  name: "inception_3a/5x5_reduce"
  type: "Convolution"
  bottom: "pool2/3x3_s2"
  top: "inception_3a/5x5_reduce"
  param {
    lr_mult: 1
    decay_mult: 1
  }
  param {
    lr_mult: 2
    decay_mult: 0
  }
  convolution_param {
    num_output: 16
    kernel_size: 1
    weight_filler {
      type: "xavier"
      std: 0.2
    }
    bias_filler {
      type: "constant"
      value: 0.2
    }
  }
}
layer {
  name: "inception_3a/relu_5x5_reduce"
  type: "ReLU"
  bottom: "inception_3a/5x5_reduce"
  top: "inception_3a/5x5_reduce"
}
layer {
  name: "inception_3a/5x5"
  type: "Convolution"
  bottom: "inception_3a/5x5_reduce"
  top: "inception_3a/5x5"
  param {
    lr_mult: 1
    decay_mult: 1
  }
  param {
    lr_mult: 2
    decay_mult: 0
  }
  convolution_param {
    num_output: 32
    pad: 2
    kernel_size: 5
    weight_filler {
      type: "xavier"
      std: 0.03
    }
    bias_filler {
      type: "constant"
      value: 0.2
    }
  }
}
layer {
  name: "inception_3a/relu_5x5"
  type: "ReLU"
  bottom: "inception_3a/5x5"
  top: "inception_3a/5x5"
}
layer {
  name: "inception_3a/pool"
  type: "Pooling"
  bottom: "pool2/3x3_s2"
  top: "inception_3a/pool"
  pooling_param {
    pool: MAX
    kernel_size: 3
    stride: 1
    pad: 1
  }
}
layer {
  name: "inception_3a/pool_proj"
  type: "Convolution"
  bottom: "inception_3a/pool"
  top: "inception_3a/pool_proj"
  param {
    lr_mult: 1
    decay_mult: 1
  }
  param {
    lr_mult: 2
    decay_mult: 0
  }
  convolution_param {
    num_output: 32
    kernel_size: 1
    weight_filler {
      type: "xavier"
      std: 0.1
    }
    bias_filler {
      type: "constant"
      value: 0.2
    }
  }
}
layer {
  name: "inception_3a/relu_pool_proj"
  type: "ReLU"
  bottom: "inception_3a/pool_proj"
  top: "inception_3a/pool_proj"
}
layer {
  name: "inception_3a/output"
  type: "Concat"
  bottom: "inception_3a/1x1"
  bottom: "inception_3a/3x3"
  bottom: "inception_3a/5x5"
  bottom: "inception_3a/pool_proj"
  top: "inception_3a/output"
}
layer {
  name: "inception_3b/1x1"
  type: "Convolution"
  bottom: "inception_3a/output"
  top: "inception_3b/1x1"
  param {
    lr_mult: 1
    decay_mult: 1
  }
  param {
    lr_mult: 2
    decay_mult: 0
  }
  convolution_param {
    num_output: 128
    kernel_size: 1
    weight_filler {
      type: "xavier"
      std: 0.03
    }
    bias_filler {
      type: "constant"
      value: 0.2
    }
  }
}
layer {
  name: "inception_3b/relu_1x1"
  type: "ReLU"
  bottom: "inception_3b/1x1"
  top: "inception_3b/1x1"
}
layer {
  name: "inception_3b/3x3_reduce"
  type: "Convolution"
  bottom: "inception_3a/output"
  top: "inception_3b/3x3_reduce"
  param {
    lr_mult: 1
    decay_mult: 1
  }
  param {
    lr_mult: 2
    decay_mult: 0
  }
  convolution_param {
    num_output: 128
    kernel_size: 1
    weight_filler {
      type: "xavier"
      std: 0.09
    }
    bias_filler {
      type: "constant"
      value: 0.2
    }
  }
}
layer {
  name: "inception_3b/relu_3x3_reduce"
  type: "ReLU"
  bottom: "inception_3b/3x3_reduce"
  top: "inception_3b/3x3_reduce"
}
layer {
  name: "inception_3b/3x3"
  type: "Convolution"
  bottom: "inception_3b/3x3_reduce"
  top: "inception_3b/3x3"
  param {
    lr_mult: 1
    decay_mult: 1
  }
  param {
    lr_mult: 2
    decay_mult: 0
  }
  convolution_param {
    num_output: 192
    pad: 1
    kernel_size: 3
    weight_filler {
      type: "xavier"
      std: 0.03
    }
    bias_filler {
      type: "constant"
      value: 0.2
    }
  }
}
layer {
  name: "inception_3b/relu_3x3"
  type: "ReLU"
  bottom: "inception_3b/3x3"
  top: "inception_3b/3x3"
}
layer {
  name: "inception_3b/5x5_reduce"
  type: "Convolution"
  bottom: "inception_3a/output"
  top: "inception_3b/5x5_reduce"
  param {
    lr_mult: 1
    decay_mult: 1
  }
  param {
    lr_mult: 2
    decay_mult: 0
  }
  convolution_param {
    num_output: 32
    kernel_size: 1
    weight_filler {
      type: "xavier"
      std: 0.2
    }
    bias_filler {
      type: "constant"
      value: 0.2
    }
  }
}
layer {
  name: "inception_3b/relu_5x5_reduce"
  type: "ReLU"
  bottom: "inception_3b/5x5_reduce"
  top: "inception_3b/5x5_reduce"
}
layer {
  name: "inception_3b/5x5"
  type: "Convolution"
  bottom: "inception_3b/5x5_reduce"
  top: "inception_3b/5x5"
  param {
    lr_mult: 1
    decay_mult: 1
  }
  param {
    lr_mult: 2
    decay_mult: 0
  }
  convolution_param {
    num_output: 96
    pad: 2
    kernel_size: 5
    weight_filler {
      type: "xavier"
      std: 0.03
    }
    bias_filler {
      type: "constant"
      value: 0.2
    }
  }
}
layer {
  name: "inception_3b/relu_5x5"
  type: "ReLU"
  bottom: "inception_3b/5x5"
  top: "inception_3b/5x5"
}
layer {
  name: "inception_3b/pool"
  type: "Pooling"
  bottom: "inception_3a/output"
  top: "inception_3b/pool"
  pooling_param {
    pool: MAX
    kernel_size: 3
    stride: 1
    pad: 1
  }
}
layer {
  name: "inception_3b/pool_proj"
  type: "Convolution"
  bottom: "inception_3b/pool"
  top: "inception_3b/pool_proj"
  param {
    lr_mult: 1
    decay_mult: 1
  }
  param {
    lr_mult: 2
    decay_mult: 0
  }
  convolution_param {
    num_output: 64
    kernel_size: 1
    weight_filler {
      type: "xavier"
      std: 0.1
    }
    bias_filler {
      type: "constant"
      value: 0.2
    }
  }
}
layer {
  name: "inception_3b/relu_pool_proj"
  type: "ReLU"
  bottom: "inception_3b/pool_proj"
  top: "inception_3b/pool_proj"
}
layer {
  name: "inception_3b/output"
  type: "Concat"
  bottom: "inception_3b/1x1"
  bottom: "inception_3b/3x3"
  bottom: "inception_3b/5x5"
  bottom: "inception_3b/pool_proj"
  top: "inception_3b/output"
}
layer {
  name: "pool3/3x3_s2"
  type: "Pooling"
  bottom: "inception_3b/output"
  top: "pool3/3x3_s2"
  pooling_param {
    pool: MAX
    kernel_size: 3
    stride: 2
  }
}
layer {
  name: "inception_4a/1x1"
  type: "Convolution"
  bottom: "pool3/3x3_s2"
  top: "inception_4a/1x1"
  param {
    lr_mult: 1
    decay_mult: 1
  }
  param {
    lr_mult: 2
    decay_mult: 0
  }
  convolution_param {
    num_output: 192
    kernel_size: 1
    weight_filler {
      type: "xavier"
      std: 0.03
    }
    bias_filler {
      type: "constant"
      value: 0.2
    }
  }
}
layer {
  name: "inception_4a/relu_1x1"
  type: "ReLU"
  bottom: "inception_4a/1x1"
  top: "inception_4a/1x1"
}
layer {
  name: "inception_4a/3x3_reduce"
  type: "Convolution"
  bottom: "pool3/3x3_s2"
  top: "inception_4a/3x3_reduce"
  param {
    lr_mult: 1
    decay_mult: 1
  }
  param {
    lr_mult: 2
    decay_mult: 0
  }
  convolution_param {
    num_output: 96
    kernel_size: 1
    weight_filler {
      type: "xavier"
      std: 0.09
    }
    bias_filler {
      type: "constant"
      value: 0.2
    }
  }
}
layer {
  name: "inception_4a/relu_3x3_reduce"
  type: "ReLU"
  bottom: "inception_4a/3x3_reduce"
  top: "inception_4a/3x3_reduce"
}
layer {
  name: "inception_4a/3x3"
  type: "Convolution"
  bottom: "inception_4a/3x3_reduce"
  top: "inception_4a/3x3"
  param {
    lr_mult: 1
    decay_mult: 1
  }
  param {
    lr_mult: 2
    decay_mult: 0
  }
  convolution_param {
    num_output: 208
    pad: 1
    kernel_size: 3
    weight_filler {
      type: "xavier"
      std: 0.03
    }
    bias_filler {
      type: "constant"
      value: 0.2
    }
  }
}
layer {
  name: "inception_4a/relu_3x3"
  type: "ReLU"
  bottom: "inception_4a/3x3"
  top: "inception_4a/3x3"
}
layer {
  name: "inception_4a/5x5_reduce"
  type: "Convolution"
  bottom: "pool3/3x3_s2"
  top: "inception_4a/5x5_reduce"
  param {
    lr_mult: 1
    decay_mult: 1
  }
  param {
    lr_mult: 2
    decay_mult: 0
  }
  convolution_param {
    num_output: 16
    kernel_size: 1
    weight_filler {
      type: "xavier"
      std: 0.2
    }
    bias_filler {
      type: "constant"
      value: 0.2
    }
  }
}
layer {
  name: "inception_4a/relu_5x5_reduce"
  type: "ReLU"
  bottom: "inception_4a/5x5_reduce"
  top: "inception_4a/5x5_reduce"
}
layer {
  name: "inception_4a/5x5"
  type: "Convolution"
  bottom: "inception_4a/5x5_reduce"
  top: "inception_4a/5x5"
  param {
    lr_mult: 1
    decay_mult: 1
  }
  param {
    lr_mult: 2
    decay_mult: 0
  }
  convolution_param {
    num_output: 48
    pad: 2
    kernel_size: 5
    weight_filler {
      type: "xavier"
      std: 0.03
    }
    bias_filler {
      type: "constant"
      value: 0.2
    }
  }
}
layer {
  name: "inception_4a/relu_5x5"
  type: "ReLU"
  bottom: "inception_4a/5x5"
  top: "inception_4a/5x5"
}
layer {
  name: "inception_4a/pool"
  type: "Pooling"
  bottom: "pool3/3x3_s2"
  top: "inception_4a/pool"
  pooling_param {
    pool: MAX
    kernel_size: 3
    stride: 1
    pad: 1
  }
}
layer {
  name: "inception_4a/pool_proj"
  type: "Convolution"
  bottom: "inception_4a/pool"
  top: "inception_4a/pool_proj"
  param {
    lr_mult: 1
    decay_mult: 1
  }
  param {
    lr_mult: 2
    decay_mult: 0
  }
  convolution_param {
    num_output: 64
    kernel_size: 1
    weight_filler {
      type: "xavier"
      std: 0.1
    }
    bias_filler {
      type: "constant"
      value: 0.2
    }
  }
}
layer {
  name: "inception_4a/relu_pool_proj"
  type: "ReLU"
  bottom: "inception_4a/pool_proj"
  top: "inception_4a/pool_proj"
}
layer {
  name: "inception_4a/output"
  type: "Concat"
  bottom: "inception_4a/1x1"
  bottom: "inception_4a/3x3"
  bottom: "inception_4a/5x5"
  bottom: "inception_4a/pool_proj"
  top: "inception_4a/output"
}
layer {
  name: "loss1/ave_pool"
  type: "Pooling"
  bottom: "inception_4a/output"
  top: "loss1/ave_pool"
  pooling_param {
    pool: AVE
    kernel_size: 5
    stride: 3
  }
}
layer {
  name: "loss1/conv"
  type: "Convolution"
  bottom: "loss1/ave_pool"
  top: "loss1/conv"
  param {
    lr_mult: 1
    decay_mult: 1
  }
  param {
    lr_mult: 2
    decay_mult: 0
  }
  convolution_param {
    num_output: 128
    kernel_size: 1
    weight_filler {
      type: "xavier"
      std: 0.08
    }
    bias_filler {
      type: "constant"
      value: 0.2
    }
  }
}
layer {
  name: "loss1/relu_conv"
  type: "ReLU"
  bottom: "loss1/conv"
  top: "loss1/conv"
}
layer {
  name: "loss1/fc"
  type: "InnerProduct"
  bottom: "loss1/conv"
  top: "loss1/fc"
  param {
    lr_mult: 1
    decay_mult: 1
  }
  param {
    lr_mult: 2
    decay_mult: 0
  }
  inner_product_param {
    num_output: 1024
    weight_filler {
      type: "xavier"
      std: 0.02
    }
    bias_filler {
      type: "constant"
      value: 0.2
    }
  }
}
layer {
  name: "loss1/relu_fc"
  type: "ReLU"
  bottom: "loss1/fc"
  top: "loss1/fc"
}
layer {
  name: "loss1/drop_fc"
  type: "Dropout"
  bottom: "loss1/fc"
  top: "loss1/fc"
  dropout_param {
    dropout_ratio: 0.7
  }
}
layer {
  name: "loss1/classifier_plantvillage"
  type: "InnerProduct"
  bottom: "loss1/fc"
  top: "loss1/classifier_plantvillage"
  param {
    lr_mult: 1
    decay_mult: 1
  }
  param {
    lr_mult: 2
    decay_mult: 0
  }
  inner_product_param {
    num_output: 38
    weight_filler {
      type: "xavier"
      std: 0.0009765625
    }
    bias_filler {
      type: "constant"
      value: 0
    }
  }
}
layer {
  name: "inception_4b/1x1"
  type: "Convolution"
  bottom: "inception_4a/output"
  top: "inception_4b/1x1"
  param {
    lr_mult: 1
    decay_mult: 1
  }
  param {
    lr_mult: 2
    decay_mult: 0
  }
  convolution_param {
    num_output: 160
    kernel_size: 1
    weight_filler {
      type: "xavier"
      std: 0.03
    }
    bias_filler {
      type: "constant"
      value: 0.2
    }
  }
}
layer {
  name: "inception_4b/relu_1x1"
  type: "ReLU"
  bottom: "inception_4b/1x1"
  top: "inception_4b/1x1"
}
layer {
  name: "inception_4b/3x3_reduce"
  type: "Convolution"
  bottom: "inception_4a/output"
  top: "inception_4b/3x3_reduce"
  param {
    lr_mult: 1
    decay_mult: 1
  }
  param {
    lr_mult: 2
    decay_mult: 0
  }
  convolution_param {
    num_output: 112
    kernel_size: 1
    weight_filler {
      type: "xavier"
      std: 0.09
    }
    bias_filler {
      type: "constant"
      value: 0.2
    }
  }
}
layer {
  name: "inception_4b/relu_3x3_reduce"
  type: "ReLU"
  bottom: "inception_4b/3x3_reduce"
  top: "inception_4b/3x3_reduce"
}
layer {
  name: "inception_4b/3x3"
  type: "Convolution"
  bottom: "inception_4b/3x3_reduce"
  top: "inception_4b/3x3"
  param {
    lr_mult: 1
    decay_mult: 1
  }
  param {
    lr_mult: 2
    decay_mult: 0
  }
  convolution_param {
    num_output: 224
    pad: 1
    kernel_size: 3
    weight_filler {
      type: "xavier"
      std: 0.03
    }
    bias_filler {
      type: "constant"
      value: 0.2
    }
  }
}
layer {
  name: "inception_4b/relu_3x3"
  type: "ReLU"
  bottom: "inception_4b/3x3"
  top: "inception_4b/3x3"
}
layer {
  name: "inception_4b/5x5_reduce"
  type: "Convolution"
  bottom: "inception_4a/output"
  top: "inception_4b/5x5_reduce"
  param {
    lr_mult: 1
    decay_mult: 1
  }
  param {
    lr_mult: 2
    decay_mult: 0
  }
  convolution_param {
    num_output: 24
    kernel_size: 1
    weight_filler {
      type: "xavier"
      std: 0.2
    }
    bias_filler {
      type: "constant"
      value: 0.2
    }
  }
}
layer {
  name: "inception_4b/relu_5x5_reduce"
  type: "ReLU"
  bottom: "inception_4b/5x5_reduce"
  top: "inception_4b/5x5_reduce"
}
layer {
  name: "inception_4b/5x5"
  type: "Convolution"
  bottom: "inception_4b/5x5_reduce"
  top: "inception_4b/5x5"
  param {
    lr_mult: 1
    decay_mult: 1
  }
  param {
    lr_mult: 2
    decay_mult: 0
  }
  convolution_param {
    num_output: 64
    pad: 2
    kernel_size: 5
    weight_filler {
      type: "xavier"
      std: 0.03
    }
    bias_filler {
      type: "constant"
      value: 0.2
    }
  }
}
layer {
  name: "inception_4b/relu_5x5"
  type: "ReLU"
  bottom: "inception_4b/5x5"
  top: "inception_4b/5x5"
}
layer {
  name: "inception_4b/pool"
  type: "Pooling"
  bottom: "inception_4a/output"
  top: "inception_4b/pool"
  pooling_param {
    pool: MAX
    kernel_size: 3
    stride: 1
    pad: 1
  }
}
layer {
  name: "inception_4b/pool_proj"
  type: "Convolution"
  bottom: "inception_4b/pool"
  top: "inception_4b/pool_proj"
  param {
    lr_mult: 1
    decay_mult: 1
  }
  param {
    lr_mult: 2
    decay_mult: 0
  }
  convolution_param {
    num_output: 64
    kernel_size: 1
    weight_filler {
      type: "xavier"
      std: 0.1
    }
    bias_filler {
      type: "constant"
      value: 0.2
    }
  }
}
layer {
  name: "inception_4b/relu_pool_proj"
  type: "ReLU"
  bottom: "inception_4b/pool_proj"
  top: "inception_4b/pool_proj"
}
layer {
  name: "inception_4b/output"
  type: "Concat"
  bottom: "inception_4b/1x1"
  bottom: "inception_4b/3x3"
  bottom: "inception_4b/5x5"
  bottom: "inception_4b/pool_proj"
  top: "inception_4b/output"
}
layer {
  name: "inception_4c/1x1"
  type: "Convolution"
  bottom: "inception_4b/output"
  top: "inception_4c/1x1"
  param {
    lr_mult: 1
    decay_mult: 1
  }
  param {
    lr_mult: 2
    decay_mult: 0
  }
  convolution_param {
    num_output: 128
    kernel_size: 1
    weight_filler {
      type: "xavier"
      std: 0.03
    }
    bias_filler {
      type: "constant"
      value: 0.2
    }
  }
}
layer {
  name: "inception_4c/relu_1x1"
  type: "ReLU"
  bottom: "inception_4c/1x1"
  top: "inception_4c/1x1"
}
layer {
  name: "inception_4c/3x3_reduce"
  type: "Convolution"
  bottom: "inception_4b/output"
  top: "inception_4c/3x3_reduce"
  param {
    lr_mult: 1
    decay_mult: 1
  }
  param {
    lr_mult: 2
    decay_mult: 0
  }
  convolution_param {
    num_output: 128
    kernel_size: 1
    weight_filler {
      type: "xavier"
      std: 0.09
    }
    bias_filler {
      type: "constant"
      value: 0.2
    }
  }
}
layer {
  name: "inception_4c/relu_3x3_reduce"
  type: "ReLU"
  bottom: "inception_4c/3x3_reduce"
  top: "inception_4c/3x3_reduce"
}
layer {
  name: "inception_4c/3x3"
  type: "Convolution"
  bottom: "inception_4c/3x3_reduce"
  top: "inception_4c/3x3"
  param {
    lr_mult: 1
    decay_mult: 1
  }
  param {
    lr_mult: 2
    decay_mult: 0
  }
  convolution_param {
    num_output: 256
    pad: 1
    kernel_size: 3
    weight_filler {
      type: "xavier"
      std: 0.03
    }
    bias_filler {
      type: "constant"
      value: 0.2
    }
  }
}
layer {
  name: "inception_4c/relu_3x3"
  type: "ReLU"
  bottom: "inception_4c/3x3"
  top: "inception_4c/3x3"
}
layer {
  name: "inception_4c/5x5_reduce"
  type: "Convolution"
  bottom: "inception_4b/output"
  top: "inception_4c/5x5_reduce"
  param {
    lr_mult: 1
    decay_mult: 1
  }
  param {
    lr_mult: 2
    decay_mult: 0
  }
  convolution_param {
    num_output: 24
    kernel_size: 1
    weight_filler {
      type: "xavier"
      std: 0.2
    }
    bias_filler {
      type: "constant"
      value: 0.2
    }
  }
}
layer {
  name: "inception_4c/relu_5x5_reduce"
  type: "ReLU"
  bottom: "inception_4c/5x5_reduce"
  top: "inception_4c/5x5_reduce"
}
layer {
  name: "inception_4c/5x5"
  type: "Convolution"
  bottom: "inception_4c/5x5_reduce"
  top: "inception_4c/5x5"
  param {
    lr_mult: 1
    decay_mult: 1
  }
  param {
    lr_mult: 2
    decay_mult: 0
  }
  convolution_param {
    num_output: 64
    pad: 2
    kernel_size: 5
    weight_filler {
      type: "xavier"
      std: 0.03
    }
    bias_filler {
      type: "constant"
      value: 0.2
    }
  }
}
layer {
  name: "inception_4c/relu_5x5"
  type: "ReLU"
  bottom: "inception_4c/5x5"
  top: "inception_4c/5x5"
}
layer {
  name: "inception_4c/pool"
  type: "Pooling"
  bottom: "inception_4b/output"
  top: "inception_4c/pool"
  pooling_param {
    pool: MAX
    kernel_size: 3
    stride: 1
    pad: 1
  }
}
layer {
  name: "inception_4c/pool_proj"
  type: "Convolution"
  bottom: "inception_4c/pool"
  top: "inception_4c/pool_proj"
  param {
    lr_mult: 1
    decay_mult: 1
  }
  param {
    lr_mult: 2
    decay_mult: 0
  }
  convolution_param {
    num_output: 64
    kernel_size: 1
    weight_filler {
      type: "xavier"
      std: 0.1
    }
    bias_filler {
      type: "constant"
      value: 0.2
    }
  }
}
layer {
  name: "inception_4c/relu_pool_proj"
  type: "ReLU"
  bottom: "inception_4c/pool_proj"
  top: "inception_4c/pool_proj"
}
layer {
  name: "inception_4c/output"
  type: "Concat"
  bottom: "inception_4c/1x1"
  bottom: "inception_4c/3x3"
  bottom: "inception_4c/5x5"
  bottom: "inception_4c/pool_proj"
  top: "inception_4c/output"
}
layer {
  name: "inception_4d/1x1"
  type: "Convolution"
  bottom: "inception_4c/output"
  top: "inception_4d/1x1"
  param {
    lr_mult: 1
    decay_mult: 1
  }
  param {
    lr_mult: 2
    decay_mult: 0
  }
  convolution_param {
    num_output: 112
    kernel_size: 1
    weight_filler {
      type: "xavier"
      std: 0.03
    }
    bias_filler {
      type: "constant"
      value: 0.2
    }
  }
}
layer {
  name: "inception_4d/relu_1x1"
  type: "ReLU"
  bottom: "inception_4d/1x1"
  top: "inception_4d/1x1"
}
layer {
  name: "inception_4d/3x3_reduce"
  type: "Convolution"
  bottom: "inception_4c/output"
  top: "inception_4d/3x3_reduce"
  param {
    lr_mult: 1
    decay_mult: 1
  }
  param {
    lr_mult: 2
    decay_mult: 0
  }
  convolution_param {
    num_output: 144
    kernel_size: 1
    weight_filler {
      type: "xavier"
      std: 0.09
    }
    bias_filler {
      type: "constant"
      value: 0.2
    }
  }
}
layer {
  name: "inception_4d/relu_3x3_reduce"
  type: "ReLU"
  bottom: "inception_4d/3x3_reduce"
  top: "inception_4d/3x3_reduce"
}
layer {
  name: "inception_4d/3x3"
  type: "Convolution"
  bottom: "inception_4d/3x3_reduce"
  top: "inception_4d/3x3"
  param {
    lr_mult: 1
    decay_mult: 1
  }
  param {
    lr_mult: 2
    decay_mult: 0
  }
  convolution_param {
    num_output: 288
    pad: 1
    kernel_size: 3
    weight_filler {
      type: "xavier"
      std: 0.03
    }
    bias_filler {
      type: "constant"
      value: 0.2
    }
  }
}
layer {
  name: "inception_4d/relu_3x3"
  type: "ReLU"
  bottom: "inception_4d/3x3"
  top: "inception_4d/3x3"
}
layer {
  name: "inception_4d/5x5_reduce"
  type: "Convolution"
  bottom: "inception_4c/output"
  top: "inception_4d/5x5_reduce"
  param {
    lr_mult: 1
    decay_mult: 1
  }
  param {
    lr_mult: 2
    decay_mult: 0
  }
  convolution_param {
    num_output: 32
    kernel_size: 1
    weight_filler {
      type: "xavier"
      std: 0.2
    }
    bias_filler {
      type: "constant"
      value: 0.2
    }
  }
}
layer {
  name: "inception_4d/relu_5x5_reduce"
  type: "ReLU"
  bottom: "inception_4d/5x5_reduce"
  top: "inception_4d/5x5_reduce"
}
layer {
  name: "inception_4d/5x5"
  type: "Convolution"
  bottom: "inception_4d/5x5_reduce"
  top: "inception_4d/5x5"
  param {
    lr_mult: 1
    decay_mult: 1
  }
  param {
    lr_mult: 2
    decay_mult: 0
  }
  convolution_param {
    num_output: 64
    pad: 2
    kernel_size: 5
    weight_filler {
      type: "xavier"
      std: 0.03
    }
    bias_filler {
      type: "constant"
      value: 0.2
    }
  }
}
layer {
  name: "inception_4d/relu_5x5"
  type: "ReLU"
  bottom: "inception_4d/5x5"
  top: "inception_4d/5x5"
}
layer {
  name: "inception_4d/pool"
  type: "Pooling"
  bottom: "inception_4c/output"
  top: "inception_4d/pool"
  pooling_param {
    pool: MAX
    kernel_size: 3
    stride: 1
    pad: 1
  }
}
layer {
  name: "inception_4d/pool_proj"
  type: "Convolution"
  bottom: "inception_4d/pool"
  top: "inception_4d/pool_proj"
  param {
    lr_mult: 1
    decay_mult: 1
  }
  param {
    lr_mult: 2
    decay_mult: 0
  }
  convolution_param {
    num_output: 64
    kernel_size: 1
    weight_filler {
      type: "xavier"
      std: 0.1
    }
    bias_filler {
      type: "constant"
      value: 0.2
    }
  }
}
layer {
  name: "inception_4d/relu_pool_proj"
  type: "ReLU"
  bottom: "inception_4d/pool_proj"
  top: "inception_4d/pool_proj"
}
layer {
  name: "inception_4d/output"
  type: "Concat"
  bottom: "inception_4d/1x1"
  bottom: "inception_4d/3x3"
  bottom: "inception_4d/5x5"
  bottom: "inception_4d/pool_proj"
  top: "inception_4d/output"
}
layer {
  name: "loss2/ave_pool"
  type: "Pooling"
  bottom: "inception_4d/output"
  top: "loss2/ave_pool"
  pooling_param {
    pool: AVE
    kernel_size: 5
    stride: 3
  }
}
layer {
  name: "loss2/conv"
  type: "Convolution"
  bottom: "loss2/ave_pool"
  top: "loss2/conv"
  param {
    lr_mult: 1
    decay_mult: 1
  }
  param {
    lr_mult: 2
    decay_mult: 0
  }
  convolution_param {
    num_output: 128
    kernel_size: 1
    weight_filler {
      type: "xavier"
      std: 0.08
    }
    bias_filler {
      type: "constant"
      value: 0.2
    }
  }
}
layer {
  name: "loss2/relu_conv"
  type: "ReLU"
  bottom: "loss2/conv"
  top: "loss2/conv"
}
layer {
  name: "loss2/fc"
  type: "InnerProduct"
  bottom: "loss2/conv"
  top: "loss2/fc"
  param {
    lr_mult: 1
    decay_mult: 1
  }
  param {
    lr_mult: 2
    decay_mult: 0
  }
  inner_product_param {
    num_output: 1024
    weight_filler {
      type: "xavier"
      std: 0.02
    }
    bias_filler {
      type: "constant"
      value: 0.2
    }
  }
}
layer {
  name: "loss2/relu_fc"
  type: "ReLU"
  bottom: "loss2/fc"
  top: "loss2/fc"
}
layer {
  name: "loss2/drop_fc"
  type: "Dropout"
  bottom: "loss2/fc"
  top: "loss2/fc"
  dropout_param {
    dropout_ratio: 0.7
  }
}
layer {
  name: "loss2/classifier_plantvillage"
  type: "InnerProduct"
  bottom: "loss2/fc"
  top: "loss2/classifier_plantvillage"
  param {
    lr_mult: 1
    decay_mult: 1
  }
  param {
    lr_mult: 2
    decay_mult: 0
  }
  inner_product_param {
    num_output: 38
    weight_filler {
      type: "xavier"
      std: 0.0009765625
    }
    bias_filler {
      type: "constant"
      value: 0
    }
  }
}
layer {
  name: "inception_4e/1x1"
  type: "Convolution"
  bottom: "inception_4d/output"
  top: "inception_4e/1x1"
  param {
    lr_mult: 1
    decay_mult: 1
  }
  param {
    lr_mult: 2
    decay_mult: 0
  }
  convolution_param {
    num_output: 256
    kernel_size: 1
    weight_filler {
      type: "xavier"
      std: 0.03
    }
    bias_filler {
      type: "constant"
      value: 0.2
    }
  }
}
layer {
  name: "inception_4e/relu_1x1"
  type: "ReLU"
  bottom: "inception_4e/1x1"
  top: "inception_4e/1x1"
}
layer {
  name: "inception_4e/3x3_reduce"
  type: "Convolution"
  bottom: "inception_4d/output"
  top: "inception_4e/3x3_reduce"
  param {
    lr_mult: 1
    decay_mult: 1
  }
  param {
    lr_mult: 2
    decay_mult: 0
  }
  convolution_param {
    num_output: 160
    kernel_size: 1
    weight_filler {
      type: "xavier"
      std: 0.09
    }
    bias_filler {
      type: "constant"
      value: 0.2
    }
  }
}
layer {
  name: "inception_4e/relu_3x3_reduce"
  type: "ReLU"
  bottom: "inception_4e/3x3_reduce"
  top: "inception_4e/3x3_reduce"
}
layer {
  name: "inception_4e/3x3"
  type: "Convolution"
  bottom: "inception_4e/3x3_reduce"
  top: "inception_4e/3x3"
  param {
    lr_mult: 1
    decay_mult: 1
  }
  param {
    lr_mult: 2
    decay_mult: 0
  }
  convolution_param {
    num_output: 320
    pad: 1
    kernel_size: 3
    weight_filler {
      type: "xavier"
      std: 0.03
    }
    bias_filler {
      type: "constant"
      value: 0.2
    }
  }
}
layer {
  name: "inception_4e/relu_3x3"
  type: "ReLU"
  bottom: "inception_4e/3x3"
  top: "inception_4e/3x3"
}
layer {
  name: "inception_4e/5x5_reduce"
  type: "Convolution"
  bottom: "inception_4d/output"
  top: "inception_4e/5x5_reduce"
  param {
    lr_mult: 1
    decay_mult: 1
  }
  param {
    lr_mult: 2
    decay_mult: 0
  }
  convolution_param {
    num_output: 32
    kernel_size: 1
    weight_filler {
      type: "xavier"
      std: 0.2
    }
    bias_filler {
      type: "constant"
      value: 0.2
    }
  }
}
layer {
  name: "inception_4e/relu_5x5_reduce"
  type: "ReLU"
  bottom: "inception_4e/5x5_reduce"
  top: "inception_4e/5x5_reduce"
}
layer {
  name: "inception_4e/5x5"
  type: "Convolution"
  bottom: "inception_4e/5x5_reduce"
  top: "inception_4e/5x5"
  p
I0403 15:03:41.711308 14058 layer_factory.hpp:77] Creating layer data
I0403 15:03:41.711918 14058 net.cpp:91] Creating Layer data
I0403 15:03:41.711952 14058 net.cpp:399] data -> data
I0403 15:03:41.712004 14058 net.cpp:399] data -> label
I0403 15:03:41.712041 14058 data_transformer.cpp:25] Loading mean file from: /home/mohanty/data/final_dataset/lmdb/color-50-50/mean.binaryproto
I0403 15:03:41.719051 14063 db_lmdb.cpp:38] Opened lmdb /home/mohanty/data/final_dataset/lmdb/color-50-50/test_db
I0403 15:03:41.725880 14058 data_layer.cpp:41] output data size: 24,3,224,224
I0403 15:03:41.752460 14058 net.cpp:141] Setting up data
I0403 15:03:41.752539 14058 net.cpp:148] Top shape: 24 3 224 224 (3612672)
I0403 15:03:41.752573 14058 net.cpp:148] Top shape: 24 (24)
I0403 15:03:41.752588 14058 net.cpp:156] Memory required for data: 14450784
I0403 15:03:41.752615 14058 layer_factory.hpp:77] Creating layer label_data_1_split
I0403 15:03:41.752642 14058 net.cpp:91] Creating Layer label_data_1_split
I0403 15:03:41.752660 14058 net.cpp:425] label_data_1_split <- label
I0403 15:03:41.752692 14058 net.cpp:399] label_data_1_split -> label_data_1_split_0
I0403 15:03:41.752722 14058 net.cpp:399] label_data_1_split -> label_data_1_split_1
I0403 15:03:41.752743 14058 net.cpp:399] label_data_1_split -> label_data_1_split_2
I0403 15:03:41.752763 14058 net.cpp:399] label_data_1_split -> label_data_1_split_3
I0403 15:03:41.752781 14058 net.cpp:399] label_data_1_split -> label_data_1_split_4
I0403 15:03:41.752801 14058 net.cpp:399] label_data_1_split -> label_data_1_split_5
I0403 15:03:41.752821 14058 net.cpp:399] label_data_1_split -> label_data_1_split_6
I0403 15:03:41.752842 14058 net.cpp:399] label_data_1_split -> label_data_1_split_7
I0403 15:03:41.752861 14058 net.cpp:399] label_data_1_split -> label_data_1_split_8
I0403 15:03:41.752882 14058 net.cpp:399] label_data_1_split -> label_data_1_split_9
I0403 15:03:41.753000 14058 net.cpp:141] Setting up label_data_1_split
I0403 15:03:41.753023 14058 net.cpp:148] Top shape: 24 (24)
I0403 15:03:41.753041 14058 net.cpp:148] Top shape: 24 (24)
I0403 15:03:41.753057 14058 net.cpp:148] Top shape: 24 (24)
I0403 15:03:41.753072 14058 net.cpp:148] Top shape: 24 (24)
I0403 15:03:41.753087 14058 net.cpp:148] Top shape: 24 (24)
I0403 15:03:41.753103 14058 net.cpp:148] Top shape: 24 (24)
I0403 15:03:41.753118 14058 net.cpp:148] Top shape: 24 (24)
I0403 15:03:41.753134 14058 net.cpp:148] Top shape: 24 (24)
I0403 15:03:41.753149 14058 net.cpp:148] Top shape: 24 (24)
I0403 15:03:41.753165 14058 net.cpp:148] Top shape: 24 (24)
I0403 15:03:41.753212 14058 net.cpp:156] Memory required for data: 14451744
I0403 15:03:41.753228 14058 layer_factory.hpp:77] Creating layer conv1/7x7_s2
I0403 15:03:41.753260 14058 net.cpp:91] Creating Layer conv1/7x7_s2
I0403 15:03:41.753278 14058 net.cpp:425] conv1/7x7_s2 <- data
I0403 15:03:41.753298 14058 net.cpp:399] conv1/7x7_s2 -> conv1/7x7_s2
I0403 15:03:41.896935 14058 net.cpp:141] Setting up conv1/7x7_s2
I0403 15:03:41.897019 14058 net.cpp:148] Top shape: 24 64 112 112 (19267584)
I0403 15:03:41.897037 14058 net.cpp:156] Memory required for data: 91522080
I0403 15:03:41.897069 14058 layer_factory.hpp:77] Creating layer conv1/relu_7x7
I0403 15:03:41.897097 14058 net.cpp:91] Creating Layer conv1/relu_7x7
I0403 15:03:41.897116 14058 net.cpp:425] conv1/relu_7x7 <- conv1/7x7_s2
I0403 15:03:41.897136 14058 net.cpp:386] conv1/relu_7x7 -> conv1/7x7_s2 (in-place)
I0403 15:03:41.897409 14058 net.cpp:141] Setting up conv1/relu_7x7
I0403 15:03:41.897439 14058 net.cpp:148] Top shape: 24 64 112 112 (19267584)
I0403 15:03:41.897454 14058 net.cpp:156] Memory required for data: 168592416
I0403 15:03:41.897469 14058 layer_factory.hpp:77] Creating layer pool1/3x3_s2
I0403 15:03:41.897495 14058 net.cpp:91] Creating Layer pool1/3x3_s2
I0403 15:03:41.897513 14058 net.cpp:425] pool1/3x3_s2 <- conv1/7x7_s2
I0403 15:03:41.897532 14058 net.cpp:399] pool1/3x3_s2 -> pool1/3x3_s2
I0403 15:03:41.897619 14058 net.cpp:141] Setting up pool1/3x3_s2
I0403 15:03:41.897644 14058 net.cpp:148] Top shape: 24 64 56 56 (4816896)
I0403 15:03:41.897660 14058 net.cpp:156] Memory required for data: 187860000
I0403 15:03:41.897675 14058 layer_factory.hpp:77] Creating layer pool1/norm1
I0403 15:03:41.897699 14058 net.cpp:91] Creating Layer pool1/norm1
I0403 15:03:41.897718 14058 net.cpp:425] pool1/norm1 <- pool1/3x3_s2
I0403 15:03:41.897737 14058 net.cpp:399] pool1/norm1 -> pool1/norm1
I0403 15:03:41.898035 14058 net.cpp:141] Setting up pool1/norm1
I0403 15:03:41.898063 14058 net.cpp:148] Top shape: 24 64 56 56 (4816896)
I0403 15:03:41.898079 14058 net.cpp:156] Memory required for data: 207127584
I0403 15:03:41.898094 14058 layer_factory.hpp:77] Creating layer conv2/3x3_reduce
I0403 15:03:41.898120 14058 net.cpp:91] Creating Layer conv2/3x3_reduce
I0403 15:03:41.898138 14058 net.cpp:425] conv2/3x3_reduce <- pool1/norm1
I0403 15:03:41.898156 14058 net.cpp:399] conv2/3x3_reduce -> conv2/3x3_reduce
I0403 15:03:41.899603 14058 net.cpp:141] Setting up conv2/3x3_reduce
I0403 15:03:41.899636 14058 net.cpp:148] Top shape: 24 64 56 56 (4816896)
I0403 15:03:41.899654 14058 net.cpp:156] Memory required for data: 226395168
I0403 15:03:41.899677 14058 layer_factory.hpp:77] Creating layer conv2/relu_3x3_reduce
I0403 15:03:41.899699 14058 net.cpp:91] Creating Layer conv2/relu_3x3_reduce
I0403 15:03:41.899715 14058 net.cpp:425] conv2/relu_3x3_reduce <- conv2/3x3_reduce
I0403 15:03:41.899736 14058 net.cpp:386] conv2/relu_3x3_reduce -> conv2/3x3_reduce (in-place)
I0403 15:03:41.900023 14058 net.cpp:141] Setting up conv2/relu_3x3_reduce
I0403 15:03:41.900051 14058 net.cpp:148] Top shape: 24 64 56 56 (4816896)
I0403 15:03:41.900068 14058 net.cpp:156] Memory required for data: 245662752
I0403 15:03:41.900082 14058 layer_factory.hpp:77] Creating layer conv2/3x3
I0403 15:03:41.900107 14058 net.cpp:91] Creating Layer conv2/3x3
I0403 15:03:41.900126 14058 net.cpp:425] conv2/3x3 <- conv2/3x3_reduce
I0403 15:03:41.900149 14058 net.cpp:399] conv2/3x3 -> conv2/3x3
I0403 15:03:41.902703 14058 net.cpp:141] Setting up conv2/3x3
I0403 15:03:41.902735 14058 net.cpp:148] Top shape: 24 192 56 56 (14450688)
I0403 15:03:41.902752 14058 net.cpp:156] Memory required for data: 303465504
I0403 15:03:41.902775 14058 layer_factory.hpp:77] Creating layer conv2/relu_3x3
I0403 15:03:41.902794 14058 net.cpp:91] Creating Layer conv2/relu_3x3
I0403 15:03:41.902811 14058 net.cpp:425] conv2/relu_3x3 <- conv2/3x3
I0403 15:03:41.902832 14058 net.cpp:386] conv2/relu_3x3 -> conv2/3x3 (in-place)
I0403 15:03:41.903017 14058 net.cpp:141] Setting up conv2/relu_3x3
I0403 15:03:41.903044 14058 net.cpp:148] Top shape: 24 192 56 56 (14450688)
I0403 15:03:41.903095 14058 net.cpp:156] Memory required for data: 361268256
I0403 15:03:41.903112 14058 layer_factory.hpp:77] Creating layer conv2/norm2
I0403 15:03:41.903134 14058 net.cpp:91] Creating Layer conv2/norm2
I0403 15:03:41.903152 14058 net.cpp:425] conv2/norm2 <- conv2/3x3
I0403 15:03:41.903170 14058 net.cpp:399] conv2/norm2 -> conv2/norm2
I0403 15:03:41.903487 14058 net.cpp:141] Setting up conv2/norm2
I0403 15:03:41.903517 14058 net.cpp:148] Top shape: 24 192 56 56 (14450688)
I0403 15:03:41.903535 14058 net.cpp:156] Memory required for data: 419071008
I0403 15:03:41.903556 14058 layer_factory.hpp:77] Creating layer pool2/3x3_s2
I0403 15:03:41.903575 14058 net.cpp:91] Creating Layer pool2/3x3_s2
I0403 15:03:41.903602 14058 net.cpp:425] pool2/3x3_s2 <- conv2/norm2
I0403 15:03:41.903620 14058 net.cpp:399] pool2/3x3_s2 -> pool2/3x3_s2
I0403 15:03:41.903676 14058 net.cpp:141] Setting up pool2/3x3_s2
I0403 15:03:41.903702 14058 net.cpp:148] Top shape: 24 192 28 28 (3612672)
I0403 15:03:41.903717 14058 net.cpp:156] Memory required for data: 433521696
I0403 15:03:41.903733 14058 layer_factory.hpp:77] Creating layer pool2/3x3_s2_pool2/3x3_s2_0_split
I0403 15:03:41.903753 14058 net.cpp:91] Creating Layer pool2/3x3_s2_pool2/3x3_s2_0_split
I0403 15:03:41.903769 14058 net.cpp:425] pool2/3x3_s2_pool2/3x3_s2_0_split <- pool2/3x3_s2
I0403 15:03:41.903787 14058 net.cpp:399] pool2/3x3_s2_pool2/3x3_s2_0_split -> pool2/3x3_s2_pool2/3x3_s2_0_split_0
I0403 15:03:41.903807 14058 net.cpp:399] pool2/3x3_s2_pool2/3x3_s2_0_split -> pool2/3x3_s2_pool2/3x3_s2_0_split_1
I0403 15:03:41.903827 14058 net.cpp:399] pool2/3x3_s2_pool2/3x3_s2_0_split -> pool2/3x3_s2_pool2/3x3_s2_0_split_2
I0403 15:03:41.903851 14058 net.cpp:399] pool2/3x3_s2_pool2/3x3_s2_0_split -> pool2/3x3_s2_pool2/3x3_s2_0_split_3
I0403 15:03:41.903924 14058 net.cpp:141] Setting up pool2/3x3_s2_pool2/3x3_s2_0_split
I0403 15:03:41.903949 14058 net.cpp:148] Top shape: 24 192 28 28 (3612672)
I0403 15:03:41.903965 14058 net.cpp:148] Top shape: 24 192 28 28 (3612672)
I0403 15:03:41.903981 14058 net.cpp:148] Top shape: 24 192 28 28 (3612672)
I0403 15:03:41.903998 14058 net.cpp:148] Top shape: 24 192 28 28 (3612672)
I0403 15:03:41.904012 14058 net.cpp:156] Memory required for data: 491324448
I0403 15:03:41.904026 14058 layer_factory.hpp:77] Creating layer inception_3a/1x1
I0403 15:03:41.904049 14058 net.cpp:91] Creating Layer inception_3a/1x1
I0403 15:03:41.904067 14058 net.cpp:425] inception_3a/1x1 <- pool2/3x3_s2_pool2/3x3_s2_0_split_0
I0403 15:03:41.904135 14058 net.cpp:399] inception_3a/1x1 -> inception_3a/1x1
I0403 15:03:41.905776 14058 net.cpp:141] Setting up inception_3a/1x1
I0403 15:03:41.905812 14058 net.cpp:148] Top shape: 24 64 28 28 (1204224)
I0403 15:03:41.905832 14058 net.cpp:156] Memory required for data: 496141344
I0403 15:03:41.905894 14058 layer_factory.hpp:77] Creating layer inception_3a/relu_1x1
I0403 15:03:41.905920 14058 net.cpp:91] Creating Layer inception_3a/relu_1x1
I0403 15:03:41.905941 14058 net.cpp:425] inception_3a/relu_1x1 <- inception_3a/1x1
I0403 15:03:41.905962 14058 net.cpp:386] inception_3a/relu_1x1 -> inception_3a/1x1 (in-place)
I0403 15:03:41.906147 14058 net.cpp:141] Setting up inception_3a/relu_1x1
I0403 15:03:41.906175 14058 net.cpp:148] Top shape: 24 64 28 28 (1204224)
I0403 15:03:41.906193 14058 net.cpp:156] Memory required for data: 500958240
I0403 15:03:41.906208 14058 layer_factory.hpp:77] Creating layer inception_3a/3x3_reduce
I0403 15:03:41.906232 14058 net.cpp:91] Creating Layer inception_3a/3x3_reduce
I0403 15:03:41.906250 14058 net.cpp:425] inception_3a/3x3_reduce <- pool2/3x3_s2_pool2/3x3_s2_0_split_1
I0403 15:03:41.906276 14058 net.cpp:399] inception_3a/3x3_reduce -> inception_3a/3x3_reduce
I0403 15:03:41.908118 14058 net.cpp:141] Setting up inception_3a/3x3_reduce
I0403 15:03:41.908150 14058 net.cpp:148] Top shape: 24 96 28 28 (1806336)
I0403 15:03:41.908169 14058 net.cpp:156] Memory required for data: 508183584
I0403 15:03:41.908190 14058 layer_factory.hpp:77] Creating layer inception_3a/relu_3x3_reduce
I0403 15:03:41.908229 14058 net.cpp:91] Creating Layer inception_3a/relu_3x3_reduce
I0403 15:03:41.908248 14058 net.cpp:425] inception_3a/relu_3x3_reduce <- inception_3a/3x3_reduce
I0403 15:03:41.908268 14058 net.cpp:386] inception_3a/relu_3x3_reduce -> inception_3a/3x3_reduce (in-place)
I0403 15:03:41.908452 14058 net.cpp:141] Setting up inception_3a/relu_3x3_reduce
I0403 15:03:41.908480 14058 net.cpp:148] Top shape: 24 96 28 28 (1806336)
I0403 15:03:41.908498 14058 net.cpp:156] Memory required for data: 515408928
I0403 15:03:41.908512 14058 layer_factory.hpp:77] Creating layer inception_3a/3x3
I0403 15:03:41.908535 14058 net.cpp:91] Creating Layer inception_3a/3x3
I0403 15:03:41.908557 14058 net.cpp:425] inception_3a/3x3 <- inception_3a/3x3_reduce
I0403 15:03:41.908576 14058 net.cpp:399] inception_3a/3x3 -> inception_3a/3x3
I0403 15:03:41.910308 14058 net.cpp:141] Setting up inception_3a/3x3
I0403 15:03:41.910338 14058 net.cpp:148] Top shape: 24 128 28 28 (2408448)
I0403 15:03:41.910356 14058 net.cpp:156] Memory required for data: 525042720
I0403 15:03:41.910375 14058 layer_factory.hpp:77] Creating layer inception_3a/relu_3x3
I0403 15:03:41.910394 14058 net.cpp:91] Creating Layer inception_3a/relu_3x3
I0403 15:03:41.910415 14058 net.cpp:425] inception_3a/relu_3x3 <- inception_3a/3x3
I0403 15:03:41.910434 14058 net.cpp:386] inception_3a/relu_3x3 -> inception_3a/3x3 (in-place)
I0403 15:03:41.910715 14058 net.cpp:141] Setting up inception_3a/relu_3x3
I0403 15:03:41.910743 14058 net.cpp:148] Top shape: 24 128 28 28 (2408448)
I0403 15:03:41.910760 14058 net.cpp:156] Memory required for data: 534676512
I0403 15:03:41.910776 14058 layer_factory.hpp:77] Creating layer inception_3a/5x5_reduce
I0403 15:03:41.910800 14058 net.cpp:91] Creating Layer inception_3a/5x5_reduce
I0403 15:03:41.910818 14058 net.cpp:425] inception_3a/5x5_reduce <- pool2/3x3_s2_pool2/3x3_s2_0_split_2
I0403 15:03:41.910840 14058 net.cpp:399] inception_3a/5x5_reduce -> inception_3a/5x5_reduce
I0403 15:03:41.911882 14058 net.cpp:141] Setting up inception_3a/5x5_reduce
I0403 15:03:41.911912 14058 net.cpp:148] Top shape: 24 16 28 28 (301056)
I0403 15:03:41.911929 14058 net.cpp:156] Memory required for data: 535880736
I0403 15:03:41.911949 14058 layer_factory.hpp:77] Creating layer inception_3a/relu_5x5_reduce
I0403 15:03:41.911970 14058 net.cpp:91] Creating Layer inception_3a/relu_5x5_reduce
I0403 15:03:41.911988 14058 net.cpp:425] inception_3a/relu_5x5_reduce <- inception_3a/5x5_reduce
I0403 15:03:41.912006 14058 net.cpp:386] inception_3a/relu_5x5_reduce -> inception_3a/5x5_reduce (in-place)
I0403 15:03:41.912313 14058 net.cpp:141] Setting up inception_3a/relu_5x5_reduce
I0403 15:03:41.912341 14058 net.cpp:148] Top shape: 24 16 28 28 (301056)
I0403 15:03:41.912356 14058 net.cpp:156] Memory required for data: 537084960
I0403 15:03:41.912372 14058 layer_factory.hpp:77] Creating layer inception_3a/5x5
I0403 15:03:41.912395 14058 net.cpp:91] Creating Layer inception_3a/5x5
I0403 15:03:41.912412 14058 net.cpp:425] inception_3a/5x5 <- inception_3a/5x5_reduce
I0403 15:03:41.912433 14058 net.cpp:399] inception_3a/5x5 -> inception_3a/5x5
I0403 15:03:41.913533 14058 net.cpp:141] Setting up inception_3a/5x5
I0403 15:03:41.913569 14058 net.cpp:148] Top shape: 24 32 28 28 (602112)
I0403 15:03:41.913589 14058 net.cpp:156] Memory required for data: 539493408
I0403 15:03:41.913609 14058 layer_factory.hpp:77] Creating layer inception_3a/relu_5x5
I0403 15:03:41.913628 14058 net.cpp:91] Creating Layer inception_3a/relu_5x5
I0403 15:03:41.913645 14058 net.cpp:425] inception_3a/relu_5x5 <- inception_3a/5x5
I0403 15:03:41.913666 14058 net.cpp:386] inception_3a/relu_5x5 -> inception_3a/5x5 (in-place)
I0403 15:03:41.913844 14058 net.cpp:141] Setting up inception_3a/relu_5x5
I0403 15:03:41.913872 14058 net.cpp:148] Top shape: 24 32 28 28 (602112)
I0403 15:03:41.913887 14058 net.cpp:156] Memory required for data: 541901856
I0403 15:03:41.913904 14058 layer_factory.hpp:77] Creating layer inception_3a/pool
I0403 15:03:41.913923 14058 net.cpp:91] Creating Layer inception_3a/pool
I0403 15:03:41.913939 14058 net.cpp:425] inception_3a/pool <- pool2/3x3_s2_pool2/3x3_s2_0_split_3
I0403 15:03:41.913976 14058 net.cpp:399] inception_3a/pool -> inception_3a/pool
I0403 15:03:41.914041 14058 net.cpp:141] Setting up inception_3a/pool
I0403 15:03:41.914067 14058 net.cpp:148] Top shape: 24 192 28 28 (3612672)
I0403 15:03:41.914082 14058 net.cpp:156] Memory required for data: 556352544
I0403 15:03:41.914096 14058 layer_factory.hpp:77] Creating layer inception_3a/pool_proj
I0403 15:03:41.914119 14058 net.cpp:91] Creating Layer inception_3a/pool_proj
I0403 15:03:41.914139 14058 net.cpp:425] inception_3a/pool_proj <- inception_3a/pool
I0403 15:03:41.914161 14058 net.cpp:399] inception_3a/pool_proj -> inception_3a/pool_proj
I0403 15:03:41.915197 14058 net.cpp:141] Setting up inception_3a/pool_proj
I0403 15:03:41.915228 14058 net.cpp:148] Top shape: 24 32 28 28 (602112)
I0403 15:03:41.915246 14058 net.cpp:156] Memory required for data: 558760992
I0403 15:03:41.915272 14058 layer_factory.hpp:77] Creating layer inception_3a/relu_pool_proj
I0403 15:03:41.915297 14058 net.cpp:91] Creating Layer inception_3a/relu_pool_proj
I0403 15:03:41.915315 14058 net.cpp:425] inception_3a/relu_pool_proj <- inception_3a/pool_proj
I0403 15:03:41.915335 14058 net.cpp:386] inception_3a/relu_pool_proj -> inception_3a/pool_proj (in-place)
I0403 15:03:41.915628 14058 net.cpp:141] Setting up inception_3a/relu_pool_proj
I0403 15:03:41.915657 14058 net.cpp:148] Top shape: 24 32 28 28 (602112)
I0403 15:03:41.915673 14058 net.cpp:156] Memory required for data: 561169440
I0403 15:03:41.915689 14058 layer_factory.hpp:77] Creating layer inception_3a/output
I0403 15:03:41.915709 14058 net.cpp:91] Creating Layer inception_3a/output
I0403 15:03:41.915726 14058 net.cpp:425] inception_3a/output <- inception_3a/1x1
I0403 15:03:41.915745 14058 net.cpp:425] inception_3a/output <- inception_3a/3x3
I0403 15:03:41.915761 14058 net.cpp:425] inception_3a/output <- inception_3a/5x5
I0403 15:03:41.915778 14058 net.cpp:425] inception_3a/output <- inception_3a/pool_proj
I0403 15:03:41.915798 14058 net.cpp:399] inception_3a/output -> inception_3a/output
I0403 15:03:41.915848 14058 net.cpp:141] Setting up inception_3a/output
I0403 15:03:41.915876 14058 net.cpp:148] Top shape: 24 256 28 28 (4816896)
I0403 15:03:41.915894 14058 net.cpp:156] Memory required for data: 580437024
I0403 15:03:41.915910 14058 layer_factory.hpp:77] Creating layer inception_3a/output_inception_3a/output_0_split
I0403 15:03:41.915930 14058 net.cpp:91] Creating Layer inception_3a/output_inception_3a/output_0_split
I0403 15:03:41.915946 14058 net.cpp:425] inception_3a/output_inception_3a/output_0_split <- inception_3a/output
I0403 15:03:41.915963 14058 net.cpp:399] inception_3a/output_inception_3a/output_0_split -> inception_3a/output_inception_3a/output_0_split_0
I0403 15:03:41.915988 14058 net.cpp:399] inception_3a/output_inception_3a/output_0_split -> inception_3a/output_inception_3a/output_0_split_1
I0403 15:03:41.916024 14058 net.cpp:399] inception_3a/output_inception_3a/output_0_split -> inception_3a/output_inception_3a/output_0_split_2
I0403 15:03:41.916048 14058 net.cpp:399] inception_3a/output_inception_3a/output_0_split -> inception_3a/output_inception_3a/output_0_split_3
I0403 15:03:41.916123 14058 net.cpp:141] Setting up inception_3a/output_inception_3a/output_0_split
I0403 15:03:41.916151 14058 net.cpp:148] Top shape: 24 256 28 28 (4816896)
I0403 15:03:41.916169 14058 net.cpp:148] Top shape: 24 256 28 28 (4816896)
I0403 15:03:41.916187 14058 net.cpp:148] Top shape: 24 256 28 28 (4816896)
I0403 15:03:41.916203 14058 net.cpp:148] Top shape: 24 256 28 28 (4816896)
I0403 15:03:41.916218 14058 net.cpp:156] Memory required for data: 657507360
I0403 15:03:41.916234 14058 layer_factory.hpp:77] Creating layer inception_3b/1x1
I0403 15:03:41.916257 14058 net.cpp:91] Creating Layer inception_3b/1x1
I0403 15:03:41.916276 14058 net.cpp:425] inception_3b/1x1 <- inception_3a/output_inception_3a/output_0_split_0
I0403 15:03:41.916297 14058 net.cpp:399] inception_3b/1x1 -> inception_3b/1x1
I0403 15:03:41.917459 14058 net.cpp:141] Setting up inception_3b/1x1
I0403 15:03:41.917502 14058 net.cpp:148] Top shape: 24 128 28 28 (2408448)
I0403 15:03:41.917520 14058 net.cpp:156] Memory required for data: 667141152
I0403 15:03:41.917541 14058 layer_factory.hpp:77] Creating layer inception_3b/relu_1x1
I0403 15:03:41.917562 14058 net.cpp:91] Creating Layer inception_3b/relu_1x1
I0403 15:03:41.917577 14058 net.cpp:425] inception_3b/relu_1x1 <- inception_3b/1x1
I0403 15:03:41.917594 14058 net.cpp:386] inception_3b/relu_1x1 -> inception_3b/1x1 (in-place)
I0403 15:03:41.917778 14058 net.cpp:141] Setting up inception_3b/relu_1x1
I0403 15:03:41.917804 14058 net.cpp:148] Top shape: 24 128 28 28 (2408448)
I0403 15:03:41.917819 14058 net.cpp:156] Memory required for data: 676774944
I0403 15:03:41.917834 14058 layer_factory.hpp:77] Creating layer inception_3b/3x3_reduce
I0403 15:03:41.917857 14058 net.cpp:91] Creating Layer inception_3b/3x3_reduce
I0403 15:03:41.917876 14058 net.cpp:425] inception_3b/3x3_reduce <- inception_3a/output_inception_3a/output_0_split_1
I0403 15:03:41.917897 14058 net.cpp:399] inception_3b/3x3_reduce -> inception_3b/3x3_reduce
I0403 15:03:41.919061 14058 net.cpp:141] Setting up inception_3b/3x3_reduce
I0403 15:03:41.919095 14058 net.cpp:148] Top shape: 24 128 28 28 (2408448)
I0403 15:03:41.919111 14058 net.cpp:156] Memory required for data: 686408736
I0403 15:03:41.919131 14058 layer_factory.hpp:77] Creating layer inception_3b/relu_3x3_reduce
I0403 15:03:41.919148 14058 net.cpp:91] Creating Layer inception_3b/relu_3x3_reduce
I0403 15:03:41.919164 14058 net.cpp:425] inception_3b/relu_3x3_reduce <- inception_3b/3x3_reduce
I0403 15:03:41.919184 14058 net.cpp:386] inception_3b/relu_3x3_reduce -> inception_3b/3x3_reduce (in-place)
I0403 15:03:41.919361 14058 net.cpp:141] Setting up inception_3b/relu_3x3_reduce
I0403 15:03:41.919386 14058 net.cpp:148] Top shape: 24 128 28 28 (2408448)
I0403 15:03:41.919401 14058 net.cpp:156] Memory required for data: 696042528
I0403 15:03:41.919416 14058 layer_factory.hpp:77] Creating layer inception_3b/3x3
I0403 15:03:41.919442 14058 net.cpp:91] Creating Layer inception_3b/3x3
I0403 15:03:41.919461 14058 net.cpp:425] inception_3b/3x3 <- inception_3b/3x3_reduce
I0403 15:03:41.919481 14058 net.cpp:399] inception_3b/3x3 -> inception_3b/3x3
I0403 15:03:41.922468 14058 net.cpp:141] Setting up inception_3b/3x3
I0403 15:03:41.922499 14058 net.cpp:148] Top shape: 24 192 28 28 (3612672)
I0403 15:03:41.922516 14058 net.cpp:156] Memory required for data: 710493216
I0403 15:03:41.922540 14058 layer_factory.hpp:77] Creating layer inception_3b/relu_3x3
I0403 15:03:41.922560 14058 net.cpp:91] Creating Layer inception_3b/relu_3x3
I0403 15:03:41.922586 14058 net.cpp:425] inception_3b/relu_3x3 <- inception_3b/3x3
I0403 15:03:41.922605 14058 net.cpp:386] inception_3b/relu_3x3 -> inception_3b/3x3 (in-place)
I0403 15:03:41.922897 14058 net.cpp:141] Setting up inception_3b/relu_3x3
I0403 15:03:41.922924 14058 net.cpp:148] Top shape: 24 192 28 28 (3612672)
I0403 15:03:41.922940 14058 net.cpp:156] Memory required for data: 724943904
I0403 15:03:41.922955 14058 layer_factory.hpp:77] Creating layer inception_3b/5x5_reduce
I0403 15:03:41.922979 14058 net.cpp:91] Creating Layer inception_3b/5x5_reduce
I0403 15:03:41.922997 14058 net.cpp:425] inception_3b/5x5_reduce <- inception_3a/output_inception_3a/output_0_split_2
I0403 15:03:41.923018 14058 net.cpp:399] inception_3b/5x5_reduce -> inception_3b/5x5_reduce
I0403 15:03:41.924020 14058 net.cpp:141] Setting up inception_3b/5x5_reduce
I0403 15:03:41.924049 14058 net.cpp:148] Top shape: 24 32 28 28 (602112)
I0403 15:03:41.924065 14058 net.cpp:156] Memory required for data: 727352352
I0403 15:03:41.924082 14058 layer_factory.hpp:77] Creating layer inception_3b/relu_5x5_reduce
I0403 15:03:41.924100 14058 net.cpp:91] Creating Layer inception_3b/relu_5x5_reduce
I0403 15:03:41.924114 14058 net.cpp:425] inception_3b/relu_5x5_reduce <- inception_3b/5x5_reduce
I0403 15:03:41.924134 14058 net.cpp:386] inception_3b/relu_5x5_reduce -> inception_3b/5x5_reduce (in-place)
I0403 15:03:41.924304 14058 net.cpp:141] Setting up inception_3b/relu_5x5_reduce
I0403 15:03:41.924340 14058 net.cpp:148] Top shape: 24 32 28 28 (602112)
I0403 15:03:41.924355 14058 net.cpp:156] Memory required for data: 729760800
I0403 15:03:41.924370 14058 layer_factory.hpp:77] Creating layer inception_3b/5x5
I0403 15:03:41.924391 14058 net.cpp:91] Creating Layer inception_3b/5x5
I0403 15:03:41.924407 14058 net.cpp:425] inception_3b/5x5 <- inception_3b/5x5_reduce
I0403 15:03:41.924427 14058 net.cpp:399] inception_3b/5x5 -> inception_3b/5x5
I0403 15:03:41.926352 14058 net.cpp:141] Setting up inception_3b/5x5
I0403 15:03:41.926383 14058 net.cpp:148] Top shape: 24 96 28 28 (1806336)
I0403 15:03:41.926399 14058 net.cpp:156] Memory required for data: 736986144
I0403 15:03:41.926419 14058 layer_factory.hpp:77] Creating layer inception_3b/relu_5x5
I0403 15:03:41.926436 14058 net.cpp:91] Creating Layer inception_3b/relu_5x5
I0403 15:03:41.926452 14058 net.cpp:425] inception_3b/relu_5x5 <- inception_3b/5x5
I0403 15:03:41.926472 14058 net.cpp:386] inception_3b/relu_5x5 -> inception_3b/5x5 (in-place)
I0403 15:03:41.926661 14058 net.cpp:141] Setting up inception_3b/relu_5x5
I0403 15:03:41.926687 14058 net.cpp:148] Top shape: 24 96 28 28 (1806336)
I0403 15:03:41.926703 14058 net.cpp:156] Memory required for data: 744211488
I0403 15:03:41.926717 14058 layer_factory.hpp:77] Creating layer inception_3b/pool
I0403 15:03:41.926734 14058 net.cpp:91] Creating Layer inception_3b/pool
I0403 15:03:41.926750 14058 net.cpp:425] inception_3b/pool <- inception_3a/output_inception_3a/output_0_split_3
I0403 15:03:41.926769 14058 net.cpp:399] inception_3b/pool -> inception_3b/pool
I0403 15:03:41.926822 14058 net.cpp:141] Setting up inception_3b/pool
I0403 15:03:41.926846 14058 net.cpp:148] Top shape: 24 256 28 28 (4816896)
I0403 15:03:41.926862 14058 net.cpp:156] Memory required for data: 763479072
I0403 15:03:41.926875 14058 layer_factory.hpp:77] Creating layer inception_3b/pool_proj
I0403 15:03:41.926898 14058 net.cpp:91] Creating Layer inception_3b/pool_proj
I0403 15:03:41.926915 14058 net.cpp:425] inception_3b/pool_proj <- inception_3b/pool
I0403 15:03:41.926934 14058 net.cpp:399] inception_3b/pool_proj -> inception_3b/pool_proj
I0403 15:03:41.927961 14058 net.cpp:141] Setting up inception_3b/pool_proj
I0403 15:03:41.927989 14058 net.cpp:148] Top shape: 24 64 28 28 (1204224)
I0403 15:03:41.928004 14058 net.cpp:156] Memory required for data: 768295968
I0403 15:03:41.928020 14058 layer_factory.hpp:77] Creating layer inception_3b/relu_pool_proj
I0403 15:03:41.928040 14058 net.cpp:91] Creating Layer inception_3b/relu_pool_proj
I0403 15:03:41.928056 14058 net.cpp:425] inception_3b/relu_pool_proj <- inception_3b/pool_proj
I0403 15:03:41.928073 14058 net.cpp:386] inception_3b/relu_pool_proj -> inception_3b/pool_proj (in-place)
I0403 15:03:41.928458 14058 net.cpp:141] Setting up inception_3b/relu_pool_proj
I0403 15:03:41.928483 14058 net.cpp:148] Top shape: 24 64 28 28 (1204224)
I0403 15:03:41.928498 14058 net.cpp:156] Memory required for data: 773112864
I0403 15:03:41.928511 14058 layer_factory.hpp:77] Creating layer inception_3b/output
I0403 15:03:41.928527 14058 net.cpp:91] Creating Layer inception_3b/output
I0403 15:03:41.928550 14058 net.cpp:425] inception_3b/output <- inception_3b/1x1
I0403 15:03:41.928567 14058 net.cpp:425] inception_3b/output <- inception_3b/3x3
I0403 15:03:41.928582 14058 net.cpp:425] inception_3b/output <- inception_3b/5x5
I0403 15:03:41.928597 14058 net.cpp:425] inception_3b/output <- inception_3b/pool_proj
I0403 15:03:41.928614 14058 net.cpp:399] inception_3b/output -> inception_3b/output
I0403 15:03:41.928655 14058 net.cpp:141] Setting up inception_3b/output
I0403 15:03:41.928679 14058 net.cpp:148] Top shape: 24 480 28 28 (9031680)
I0403 15:03:41.928695 14058 net.cpp:156] Memory required for data: 809239584
I0403 15:03:41.928709 14058 layer_factory.hpp:77] Creating layer pool3/3x3_s2
I0403 15:03:41.928725 14058 net.cpp:91] Creating Layer pool3/3x3_s2
I0403 15:03:41.928740 14058 net.cpp:425] pool3/3x3_s2 <- inception_3b/output
I0403 15:03:41.928758 14058 net.cpp:399] pool3/3x3_s2 -> pool3/3x3_s2
I0403 15:03:41.928828 14058 net.cpp:141] Setting up pool3/3x3_s2
I0403 15:03:41.928853 14058 net.cpp:148] Top shape: 24 480 14 14 (2257920)
I0403 15:03:41.928869 14058 net.cpp:156] Memory required for data: 818271264
I0403 15:03:41.928882 14058 layer_factory.hpp:77] Creating layer pool3/3x3_s2_pool3/3x3_s2_0_split
I0403 15:03:41.928899 14058 net.cpp:91] Creating Layer pool3/3x3_s2_pool3/3x3_s2_0_split
I0403 15:03:41.928912 14058 net.cpp:425] pool3/3x3_s2_pool3/3x3_s2_0_split <- pool3/3x3_s2
I0403 15:03:41.928928 14058 net.cpp:399] pool3/3x3_s2_pool3/3x3_s2_0_split -> pool3/3x3_s2_pool3/3x3_s2_0_split_0
I0403 15:03:41.928947 14058 net.cpp:399] pool3/3x3_s2_pool3/3x3_s2_0_split -> pool3/3x3_s2_pool3/3x3_s2_0_split_1
I0403 15:03:41.928967 14058 net.cpp:399] pool3/3x3_s2_pool3/3x3_s2_0_split -> pool3/3x3_s2_pool3/3x3_s2_0_split_2
I0403 15:03:41.928987 14058 net.cpp:399] pool3/3x3_s2_pool3/3x3_s2_0_split -> pool3/3x3_s2_pool3/3x3_s2_0_split_3
I0403 15:03:41.929064 14058 net.cpp:141] Setting up pool3/3x3_s2_pool3/3x3_s2_0_split
I0403 15:03:41.929085 14058 net.cpp:148] Top shape: 24 480 14 14 (2257920)
I0403 15:03:41.929100 14058 net.cpp:148] Top shape: 24 480 14 14 (2257920)
I0403 15:03:41.929116 14058 net.cpp:148] Top shape: 24 480 14 14 (2257920)
I0403 15:03:41.929131 14058 net.cpp:148] Top shape: 24 480 14 14 (2257920)
I0403 15:03:41.929143 14058 net.cpp:156] Memory required for data: 854397984
I0403 15:03:41.929157 14058 layer_factory.hpp:77] Creating layer inception_4a/1x1
I0403 15:03:41.929177 14058 net.cpp:91] Creating Layer inception_4a/1x1
I0403 15:03:41.929194 14058 net.cpp:425] inception_4a/1x1 <- pool3/3x3_s2_pool3/3x3_s2_0_split_0
I0403 15:03:41.929214 14058 net.cpp:399] inception_4a/1x1 -> inception_4a/1x1
I0403 15:03:41.930749 14058 net.cpp:141] Setting up inception_4a/1x1
I0403 15:03:41.930778 14058 net.cpp:148] Top shape: 24 192 14 14 (903168)
I0403 15:03:41.930794 14058 net.cpp:156] Memory required for data: 858010656
I0403 15:03:41.930811 14058 layer_factory.hpp:77] Creating layer inception_4a/relu_1x1
I0403 15:03:41.930831 14058 net.cpp:91] Creating Layer inception_4a/relu_1x1
I0403 15:03:41.930847 14058 net.cpp:425] inception_4a/relu_1x1 <- inception_4a/1x1
I0403 15:03:41.930863 14058 net.cpp:386] inception_4a/relu_1x1 -> inception_4a/1x1 (in-place)
I0403 15:03:41.931031 14058 net.cpp:141] Setting up inception_4a/relu_1x1
I0403 15:03:41.931058 14058 net.cpp:148] Top shape: 24 192 14 14 (903168)
I0403 15:03:41.931073 14058 net.cpp:156] Memory required for data: 861623328
I0403 15:03:41.931087 14058 layer_factory.hpp:77] Creating layer inception_4a/3x3_reduce
I0403 15:03:41.931109 14058 net.cpp:91] Creating Layer inception_4a/3x3_reduce
I0403 15:03:41.931125 14058 net.cpp:425] inception_4a/3x3_reduce <- pool3/3x3_s2_pool3/3x3_s2_0_split_1
I0403 15:03:41.931145 14058 net.cpp:399] inception_4a/3x3_reduce -> inception_4a/3x3_reduce
I0403 15:03:41.932368 14058 net.cpp:141] Setting up inception_4a/3x3_reduce
I0403 15:03:41.932395 14058 net.cpp:148] Top shape: 24 96 14 14 (451584)
I0403 15:03:41.932410 14058 net.cpp:156] Memory required for data: 863429664
I0403 15:03:41.932435 14058 layer_factory.hpp:77] Creating layer inception_4a/relu_3x3_reduce
I0403 15:03:41.932458 14058 net.cpp:91] Creating Layer inception_4a/relu_3x3_reduce
I0403 15:03:41.932476 14058 net.cpp:425] inception_4a/relu_3x3_reduce <- inception_4a/3x3_reduce
I0403 15:03:41.932492 14058 net.cpp:386] inception_4a/relu_3x3_reduce -> inception_4a/3x3_reduce (in-place)
I0403 15:03:41.932667 14058 net.cpp:141] Setting up inception_4a/relu_3x3_reduce
I0403 15:03:41.932693 14058 net.cpp:148] Top shape: 24 96 14 14 (451584)
I0403 15:03:41.932708 14058 net.cpp:156] Memory required for data: 865236000
I0403 15:03:41.932721 14058 layer_factory.hpp:77] Creating layer inception_4a/3x3
I0403 15:03:41.932744 14058 net.cpp:91] Creating Layer inception_4a/3x3
I0403 15:03:41.932760 14058 net.cpp:425] inception_4a/3x3 <- inception_4a/3x3_reduce
I0403 15:03:41.932778 14058 net.cpp:399] inception_4a/3x3 -> inception_4a/3x3
I0403 15:03:41.935375 14058 net.cpp:141] Setting up inception_4a/3x3
I0403 15:03:41.935406 14058 net.cpp:148] Top shape: 24 208 14 14 (978432)
I0403 15:03:41.935423 14058 net.cpp:156] Memory required for data: 869149728
I0403 15:03:41.935442 14058 layer_factory.hpp:77] Creating layer inception_4a/relu_3x3
I0403 15:03:41.935459 14058 net.cpp:91] Creating Layer inception_4a/relu_3x3
I0403 15:03:41.935474 14058 net.cpp:425] inception_4a/relu_3x3 <- inception_4a/3x3
I0403 15:03:41.935492 14058 net.cpp:386] inception_4a/relu_3x3 -> inception_4a/3x3 (in-place)
I0403 15:03:41.935768 14058 net.cpp:141] Setting up inception_4a/relu_3x3
I0403 15:03:41.935796 14058 net.cpp:148] Top shape: 24 208 14 14 (978432)
I0403 15:03:41.935812 14058 net.cpp:156] Memory required for data: 873063456
I0403 15:03:41.935827 14058 layer_factory.hpp:77] Creating layer inception_4a/5x5_reduce
I0403 15:03:41.935848 14058 net.cpp:91] Creating Layer inception_4a/5x5_reduce
I0403 15:03:41.935865 14058 net.cpp:425] inception_4a/5x5_reduce <- pool3/3x3_s2_pool3/3x3_s2_0_split_2
I0403 15:03:41.935883 14058 net.cpp:399] inception_4a/5x5_reduce -> inception_4a/5x5_reduce
I0403 15:03:41.936868 14058 net.cpp:141] Setting up inception_4a/5x5_reduce
I0403 15:03:41.936898 14058 net.cpp:148] Top shape: 24 16 14 14 (75264)
I0403 15:03:41.936915 14058 net.cpp:156] Memory required for data: 873364512
I0403 15:03:41.936934 14058 layer_factory.hpp:77] Creating layer inception_4a/relu_5x5_reduce
I0403 15:03:41.936952 14058 net.cpp:91] Creating Layer inception_4a/relu_5x5_reduce
I0403 15:03:41.936969 14058 net.cpp:425] inception_4a/relu_5x5_reduce <- inception_4a/5x5_reduce
I0403 15:03:41.936988 14058 net.cpp:386] inception_4a/relu_5x5_reduce -> inception_4a/5x5_reduce (in-place)
I0403 15:03:41.937165 14058 net.cpp:141] Setting up inception_4a/relu_5x5_reduce
I0403 15:03:41.937189 14058 net.cpp:148] Top shape: 24 16 14 14 (75264)
I0403 15:03:41.937203 14058 net.cpp:156] Memory required for data: 873665568
I0403 15:03:41.937217 14058 layer_factory.hpp:77] Creating layer inception_4a/5x5
I0403 15:03:41.937238 14058 net.cpp:91] Creating Layer inception_4a/5x5
I0403 15:03:41.937254 14058 net.cpp:425] inception_4a/5x5 <- inception_4a/5x5_reduce
I0403 15:03:41.937275 14058 net.cpp:399] inception_4a/5x5 -> inception_4a/5x5
I0403 15:03:41.938326 14058 net.cpp:141] Setting up inception_4a/5x5
I0403 15:03:41.938354 14058 net.cpp:148] Top shape: 24 48 14 14 (225792)
I0403 15:03:41.938370 14058 net.cpp:156] Memory required for data: 874568736
I0403 15:03:41.938388 14058 layer_factory.hpp:77] Creating layer inception_4a/relu_5x5
I0403 15:03:41.938410 14058 net.cpp:91] Creating Layer inception_4a/relu_5x5
I0403 15:03:41.938427 14058 net.cpp:425] inception_4a/relu_5x5 <- inception_4a/5x5
I0403 15:03:41.938443 14058 net.cpp:386] inception_4a/relu_5x5 -> inception_4a/5x5 (in-place)
I0403 15:03:41.938619 14058 net.cpp:141] Setting up inception_4a/relu_5x5
I0403 15:03:41.938643 14058 net.cpp:148] Top shape: 24 48 14 14 (225792)
I0403 15:03:41.938658 14058 net.cpp:156] Memory required for data: 875471904
I0403 15:03:41.938671 14058 layer_factory.hpp:77] Creating layer inception_4a/pool
I0403 15:03:41.938690 14058 net.cpp:91] Creating Layer inception_4a/pool
I0403 15:03:41.938706 14058 net.cpp:425] inception_4a/pool <- pool3/3x3_s2_pool3/3x3_s2_0_split_3
I0403 15:03:41.938724 14058 net.cpp:399] inception_4a/pool -> inception_4a/pool
I0403 15:03:41.938784 14058 net.cpp:141] Setting up inception_4a/pool
I0403 15:03:41.938807 14058 net.cpp:148] Top shape: 24 480 14 14 (2257920)
I0403 15:03:41.938822 14058 net.cpp:156] Memory required for data: 884503584
I0403 15:03:41.938835 14058 layer_factory.hpp:77] Creating layer inception_4a/pool_proj
I0403 15:03:41.938856 14058 net.cpp:91] Creating Layer inception_4a/pool_proj
I0403 15:03:41.938874 14058 net.cpp:425] inception_4a/pool_proj <- inception_4a/pool
I0403 15:03:41.938894 14058 net.cpp:399] inception_4a/pool_proj -> inception_4a/pool_proj
I0403 15:03:41.940031 14058 net.cpp:141] Setting up inception_4a/pool_proj
I0403 15:03:41.940059 14058 net.cpp:148] Top shape: 24 64 14 14 (301056)
I0403 15:03:41.940090 14058 net.cpp:156] Memory required for data: 885707808
I0403 15:03:41.940110 14058 layer_factory.hpp:77] Creating layer inception_4a/relu_pool_proj
I0403 15:03:41.940131 14058 net.cpp:91] Creating Layer inception_4a/relu_pool_proj
I0403 15:03:41.940150 14058 net.cpp:425] inception_4a/relu_pool_proj <- inception_4a/pool_proj
I0403 15:03:41.940168 14058 net.cpp:386] inception_4a/relu_pool_proj -> inception_4a/pool_proj (in-place)
I0403 15:03:41.940445 14058 net.cpp:141] Setting up inception_4a/relu_pool_proj
I0403 15:03:41.940472 14058 net.cpp:148] Top shape: 24 64 14 14 (301056)
I0403 15:03:41.940487 14058 net.cpp:156] Memory required for data: 886912032
I0403 15:03:41.940503 14058 layer_factory.hpp:77] Creating layer inception_4a/output
I0403 15:03:41.940524 14058 net.cpp:91] Creating Layer inception_4a/output
I0403 15:03:41.940546 14058 net.cpp:425] inception_4a/output <- inception_4a/1x1
I0403 15:03:41.940562 14058 net.cpp:425] inception_4a/output <- inception_4a/3x3
I0403 15:03:41.940577 14058 net.cpp:425] inception_4a/output <- inception_4a/5x5
I0403 15:03:41.940593 14058 net.cpp:425] inception_4a/output <- inception_4a/pool_proj
I0403 15:03:41.940609 14058 net.cpp:399] inception_4a/output -> inception_4a/output
I0403 15:03:41.940654 14058 net.cpp:141] Setting up inception_4a/output
I0403 15:03:41.940676 14058 net.cpp:148] Top shape: 24 512 14 14 (2408448)
I0403 15:03:41.940690 14058 net.cpp:156] Memory required for data: 896545824
I0403 15:03:41.940704 14058 layer_factory.hpp:77] Creating layer inception_4a/output_inception_4a/output_0_split
I0403 15:03:41.940721 14058 net.cpp:91] Creating Layer inception_4a/output_inception_4a/output_0_split
I0403 15:03:41.940734 14058 net.cpp:425] inception_4a/output_inception_4a/output_0_split <- inception_4a/output
I0403 15:03:41.940753 14058 net.cpp:399] inception_4a/output_inception_4a/output_0_split -> inception_4a/output_inception_4a/output_0_split_0
I0403 15:03:41.940773 14058 net.cpp:399] inception_4a/output_inception_4a/output_0_split -> inception_4a/output_inception_4a/output_0_split_1
I0403 15:03:41.940793 14058 net.cpp:399] inception_4a/output_inception_4a/output_0_split -> inception_4a/output_inception_4a/output_0_split_2
I0403 15:03:41.940811 14058 net.cpp:399] inception_4a/output_inception_4a/output_0_split -> inception_4a/output_inception_4a/output_0_split_3
I0403 15:03:41.940830 14058 net.cpp:399] inception_4a/output_inception_4a/output_0_split -> inception_4a/output_inception_4a/output_0_split_4
I0403 15:03:41.940918 14058 net.cpp:141] Setting up inception_4a/output_inception_4a/output_0_split
I0403 15:03:41.940940 14058 net.cpp:148] Top shape: 24 512 14 14 (2408448)
I0403 15:03:41.940958 14058 net.cpp:148] Top shape: 24 512 14 14 (2408448)
I0403 15:03:41.940974 14058 net.cpp:148] Top shape: 24 512 14 14 (2408448)
I0403 15:03:41.940989 14058 net.cpp:148] Top shape: 24 512 14 14 (2408448)
I0403 15:03:41.941004 14058 net.cpp:148] Top shape: 24 512 14 14 (2408448)
I0403 15:03:41.941017 14058 net.cpp:156] Memory required for data: 944714784
I0403 15:03:41.941031 14058 layer_factory.hpp:77] Creating layer loss1/ave_pool
I0403 15:03:41.941047 14058 net.cpp:91] Creating Layer loss1/ave_pool
I0403 15:03:41.941062 14058 net.cpp:425] loss1/ave_pool <- inception_4a/output_inception_4a/output_0_split_0
I0403 15:03:41.941081 14058 net.cpp:399] loss1/ave_pool -> loss1/ave_pool
I0403 15:03:41.941279 14058 net.cpp:141] Setting up loss1/ave_pool
I0403 15:03:41.941304 14058 net.cpp:148] Top shape: 24 512 4 4 (196608)
I0403 15:03:41.941318 14058 net.cpp:156] Memory required for data: 945501216
I0403 15:03:41.941332 14058 layer_factory.hpp:77] Creating layer loss1/conv
I0403 15:03:41.941354 14058 net.cpp:91] Creating Layer loss1/conv
I0403 15:03:41.941370 14058 net.cpp:425] loss1/conv <- loss1/ave_pool
I0403 15:03:41.941390 14058 net.cpp:399] loss1/conv -> loss1/conv
I0403 15:03:41.942764 14058 net.cpp:141] Setting up loss1/conv
I0403 15:03:41.942795 14058 net.cpp:148] Top shape: 24 128 4 4 (49152)
I0403 15:03:41.942811 14058 net.cpp:156] Memory required for data: 945697824
I0403 15:03:41.942845 14058 layer_factory.hpp:77] Creating layer loss1/relu_conv
I0403 15:03:41.942867 14058 net.cpp:91] Creating Layer loss1/relu_conv
I0403 15:03:41.942883 14058 net.cpp:425] loss1/relu_conv <- loss1/conv
I0403 15:03:41.942901 14058 net.cpp:386] loss1/relu_conv -> loss1/conv (in-place)
I0403 15:03:41.943176 14058 net.cpp:141] Setting up loss1/relu_conv
I0403 15:03:41.943205 14058 net.cpp:148] Top shape: 24 128 4 4 (49152)
I0403 15:03:41.943222 14058 net.cpp:156] Memory required for data: 945894432
I0403 15:03:41.943238 14058 layer_factory.hpp:77] Creating layer loss1/fc
I0403 15:03:41.943259 14058 net.cpp:91] Creating Layer loss1/fc
I0403 15:03:41.943276 14058 net.cpp:425] loss1/fc <- loss1/conv
I0403 15:03:41.943297 14058 net.cpp:399] loss1/fc -> loss1/fc
I0403 15:03:41.960705 14058 net.cpp:141] Setting up loss1/fc
I0403 15:03:41.960737 14058 net.cpp:148] Top shape: 24 1024 (24576)
I0403 15:03:41.960754 14058 net.cpp:156] Memory required for data: 945992736
I0403 15:03:41.960774 14058 layer_factory.hpp:77] Creating layer loss1/relu_fc
I0403 15:03:41.960798 14058 net.cpp:91] Creating Layer loss1/relu_fc
I0403 15:03:41.960816 14058 net.cpp:425] loss1/relu_fc <- loss1/fc
I0403 15:03:41.960834 14058 net.cpp:386] loss1/relu_fc -> loss1/fc (in-place)
I0403 15:03:41.961030 14058 net.cpp:141] Setting up loss1/relu_fc
I0403 15:03:41.961057 14058 net.cpp:148] Top shape: 24 1024 (24576)
I0403 15:03:41.961074 14058 net.cpp:156] Memory required for data: 946091040
I0403 15:03:41.961091 14058 layer_factory.hpp:77] Creating layer loss1/drop_fc
I0403 15:03:41.961118 14058 net.cpp:91] Creating Layer loss1/drop_fc
I0403 15:03:41.961138 14058 net.cpp:425] loss1/drop_fc <- loss1/fc
I0403 15:03:41.961159 14058 net.cpp:386] loss1/drop_fc -> loss1/fc (in-place)
I0403 15:03:41.961211 14058 net.cpp:141] Setting up loss1/drop_fc
I0403 15:03:41.961236 14058 net.cpp:148] Top shape: 24 1024 (24576)
I0403 15:03:41.961251 14058 net.cpp:156] Memory required for data: 946189344
I0403 15:03:41.961269 14058 layer_factory.hpp:77] Creating layer loss1/classifier_plantvillage
I0403 15:03:41.961292 14058 net.cpp:91] Creating Layer loss1/classifier_plantvillage
I0403 15:03:41.961310 14058 net.cpp:425] loss1/classifier_plantvillage <- loss1/fc
I0403 15:03:41.961329 14058 net.cpp:399] loss1/classifier_plantvillage -> loss1/classifier_plantvillage
I0403 15:03:41.962261 14058 net.cpp:141] Setting up loss1/classifier_plantvillage
I0403 15:03:41.962290 14058 net.cpp:148] Top shape: 24 38 (912)
I0403 15:03:41.962304 14058 net.cpp:156] Memory required for data: 946192992
I0403 15:03:41.962323 14058 layer_factory.hpp:77] Creating layer loss1/classifier_plantvillage_loss1/classifier_plantvillage_0_split
I0403 15:03:41.962343 14058 net.cpp:91] Creating Layer loss1/classifier_plantvillage_loss1/classifier_plantvillage_0_split
I0403 15:03:41.962360 14058 net.cpp:425] loss1/classifier_plantvillage_loss1/classifier_plantvillage_0_split <- loss1/classifier_plantvillage
I0403 15:03:41.962378 14058 net.cpp:399] loss1/classifier_plantvillage_loss1/classifier_plantvillage_0_split -> loss1/classifier_plantvillage_loss1/classifier_plantvillage_0_split_0
I0403 15:03:41.962399 14058 net.cpp:399] loss1/classifier_plantvillage_loss1/classifier_plantvillage_0_split -> loss1/classifier_plantvillage_loss1/classifier_plantvillage_0_split_1
I0403 15:03:41.962420 14058 net.cpp:399] loss1/classifier_plantvillage_loss1/classifier_plantvillage_0_split -> loss1/classifier_plantvillage_loss1/classifier_plantvillage_0_split_2
I0403 15:03:41.962487 14058 net.cpp:141] Setting up loss1/classifier_plantvillage_loss1/classifier_plantvillage_0_split
I0403 15:03:41.962510 14058 net.cpp:148] Top shape: 24 38 (912)
I0403 15:03:41.962527 14058 net.cpp:148] Top shape: 24 38 (912)
I0403 15:03:41.962546 14058 net.cpp:148] Top shape: 24 38 (912)
I0403 15:03:41.962561 14058 net.cpp:156] Memory required for data: 946203936
I0403 15:03:41.962575 14058 layer_factory.hpp:77] Creating layer inception_4b/1x1
I0403 15:03:41.962599 14058 net.cpp:91] Creating Layer inception_4b/1x1
I0403 15:03:41.962631 14058 net.cpp:425] inception_4b/1x1 <- inception_4a/output_inception_4a/output_0_split_1
I0403 15:03:41.962651 14058 net.cpp:399] inception_4b/1x1 -> inception_4b/1x1
I0403 15:03:41.964308 14058 net.cpp:141] Setting up inception_4b/1x1
I0403 15:03:41.964340 14058 net.cpp:148] Top shape: 24 160 14 14 (752640)
I0403 15:03:41.964359 14058 net.cpp:156] Memory required for data: 949214496
I0403 15:03:41.964377 14058 layer_factory.hpp:77] Creating layer inception_4b/relu_1x1
I0403 15:03:41.964396 14058 net.cpp:91] Creating Layer inception_4b/relu_1x1
I0403 15:03:41.964412 14058 net.cpp:425] inception_4b/relu_1x1 <- inception_4b/1x1
I0403 15:03:41.964433 14058 net.cpp:386] inception_4b/relu_1x1 -> inception_4b/1x1 (in-place)
I0403 15:03:41.964628 14058 net.cpp:141] Setting up inception_4b/relu_1x1
I0403 15:03:41.964654 14058 net.cpp:148] Top shape: 24 160 14 14 (752640)
I0403 15:03:41.964671 14058 net.cpp:156] Memory required for data: 952225056
I0403 15:03:41.964686 14058 layer_factory.hpp:77] Creating layer inception_4b/3x3_reduce
I0403 15:03:41.964707 14058 net.cpp:91] Creating Layer inception_4b/3x3_reduce
I0403 15:03:41.964727 14058 net.cpp:425] inception_4b/3x3_reduce <- inception_4a/output_inception_4a/output_0_split_2
I0403 15:03:41.964748 14058 net.cpp:399] inception_4b/3x3_reduce -> inception_4b/3x3_reduce
I0403 15:03:41.966104 14058 net.cpp:141] Setting up inception_4b/3x3_reduce
I0403 15:03:41.966133 14058 net.cpp:148] Top shape: 24 112 14 14 (526848)
I0403 15:03:41.966150 14058 net.cpp:156] Memory required for data: 954332448
I0403 15:03:41.966168 14058 layer_factory.hpp:77] Creating layer inception_4b/relu_3x3_reduce
I0403 15:03:41.966187 14058 net.cpp:91] Creating Layer inception_4b/relu_3x3_reduce
I0403 15:03:41.966203 14058 net.cpp:425] inception_4b/relu_3x3_reduce <- inception_4b/3x3_reduce
I0403 15:03:41.966223 14058 net.cpp:386] inception_4b/relu_3x3_reduce -> inception_4b/3x3_reduce (in-place)
I0403 15:03:41.966508 14058 net.cpp:141] Setting up inception_4b/relu_3x3_reduce
I0403 15:03:41.966536 14058 net.cpp:148] Top shape: 24 112 14 14 (526848)
I0403 15:03:41.966557 14058 net.cpp:156] Memory required for data: 956439840
I0403 15:03:41.966573 14058 layer_factory.hpp:77] Creating layer inception_4b/3x3
I0403 15:03:41.966595 14058 net.cpp:91] Creating Layer inception_4b/3x3
I0403 15:03:41.966614 14058 net.cpp:425] inception_4b/3x3 <- inception_4b/3x3_reduce
I0403 15:03:41.966635 14058 net.cpp:399] inception_4b/3x3 -> inception_4b/3x3
I0403 15:03:41.969614 14058 net.cpp:141] Setting up inception_4b/3x3
I0403 15:03:41.969645 14058 net.cpp:148] Top shape: 24 224 14 14 (1053696)
I0403 15:03:41.969662 14058 net.cpp:156] Memory required for data: 960654624
I0403 15:03:41.969681 14058 layer_factory.hpp:77] Creating layer inception_4b/relu_3x3
I0403 15:03:41.969702 14058 net.cpp:91] Creating Layer inception_4b/relu_3x3
I0403 15:03:41.969722 14058 net.cpp:425] inception_4b/relu_3x3 <- inception_4b/3x3
I0403 15:03:41.969740 14058 net.cpp:386] inception_4b/relu_3x3 -> inception_4b/3x3 (in-place)
I0403 15:03:41.969921 14058 net.cpp:141] Setting up inception_4b/relu_3x3
I0403 15:03:41.969947 14058 net.cpp:148] Top shape: 24 224 14 14 (1053696)
I0403 15:03:41.969962 14058 net.cpp:156] Memory required for data: 964869408
I0403 15:03:41.969979 14058 layer_factory.hpp:77] Creating layer inception_4b/5x5_reduce
I0403 15:03:41.970001 14058 net.cpp:91] Creating Layer inception_4b/5x5_reduce
I0403 15:03:41.970021 14058 net.cpp:425] inception_4b/5x5_reduce <- inception_4a/output_inception_4a/output_0_split_3
I0403 15:03:41.970042 14058 net.cpp:399] inception_4b/5x5_reduce -> inception_4b/5x5_reduce
I0403 15:03:41.971138 14058 net.cpp:141] Setting up inception_4b/5x5_reduce
I0403 15:03:41.971168 14058 net.cpp:148] Top shape: 24 24 14 14 (112896)
I0403 15:03:41.971184 14058 net.cpp:156] Memory required for data: 965320992
I0403 15:03:41.971202 14058 layer_factory.hpp:77] Creating layer inception_4b/relu_5x5_reduce
I0403 15:03:41.971221 14058 net.cpp:91] Creating Layer inception_4b/relu_5x5_reduce
I0403 15:03:41.971254 14058 net.cpp:425] inception_4b/relu_5x5_reduce <- inception_4b/5x5_reduce
I0403 15:03:41.971279 14058 net.cpp:386] inception_4b/relu_5x5_reduce -> inception_4b/5x5_reduce (in-place)
I0403 15:03:41.971464 14058 net.cpp:141] Setting up inception_4b/relu_5x5_reduce
I0403 15:03:41.971492 14058 net.cpp:148] Top shape: 24 24 14 14 (112896)
I0403 15:03:41.971508 14058 net.cpp:156] Memory required for data: 965772576
I0403 15:03:41.971524 14058 layer_factory.hpp:77] Creating layer inception_4b/5x5
I0403 15:03:41.971550 14058 net.cpp:91] Creating Layer inception_4b/5x5
I0403 15:03:41.971570 14058 net.cpp:425] inception_4b/5x5 <- inception_4b/5x5_reduce
I0403 15:03:41.971591 14058 net.cpp:399] inception_4b/5x5 -> inception_4b/5x5
I0403 15:03:41.972832 14058 net.cpp:141] Setting up inception_4b/5x5
I0403 15:03:41.972863 14058 net.cpp:148] Top shape: 24 64 14 14 (301056)
I0403 15:03:41.972880 14058 net.cpp:156] Memory required for data: 966976800
I0403 15:03:41.972899 14058 layer_factory.hpp:77] Creating layer inception_4b/relu_5x5
I0403 15:03:41.972918 14058 net.cpp:91] Creating Layer inception_4b/relu_5x5
I0403 15:03:41.972934 14058 net.cpp:425] inception_4b/relu_5x5 <- inception_4b/5x5
I0403 15:03:41.972954 14058 net.cpp:386] inception_4b/relu_5x5 -> inception_4b/5x5 (in-place)
I0403 15:03:41.973239 14058 net.cpp:141] Setting up inception_4b/relu_5x5
I0403 15:03:41.973273 14058 net.cpp:148] Top shape: 24 64 14 14 (301056)
I0403 15:03:41.973290 14058 net.cpp:156] Memory required for data: 968181024
I0403 15:03:41.973306 14058 layer_factory.hpp:77] Creating layer inception_4b/pool
I0403 15:03:41.973325 14058 net.cpp:91] Creating Layer inception_4b/pool
I0403 15:03:41.973343 14058 net.cpp:425] inception_4b/pool <- inception_4a/output_inception_4a/output_0_split_4
I0403 15:03:41.973363 14058 net.cpp:399] inception_4b/pool -> inception_4b/pool
I0403 15:03:41.973428 14058 net.cpp:141] Setting up inception_4b/pool
I0403 15:03:41.973453 14058 net.cpp:148] Top shape: 24 512 14 14 (2408448)
I0403 15:03:41.973469 14058 net.cpp:156] Memory required for data: 977814816
I0403 15:03:41.973484 14058 layer_factory.hpp:77] Creating layer inception_4b/pool_proj
I0403 15:03:41.973502 14058 net.cpp:91] Creating Layer inception_4b/pool_proj
I0403 15:03:41.973518 14058 net.cpp:425] inception_4b/pool_proj <- inception_4b/pool
I0403 15:03:41.973542 14058 net.cpp:399] inception_4b/pool_proj -> inception_4b/pool_proj
I0403 15:03:41.974745 14058 net.cpp:141] Setting up inception_4b/pool_proj
I0403 15:03:41.974776 14058 net.cpp:148] Top shape: 24 64 14 14 (301056)
I0403 15:03:41.974793 14058 net.cpp:156] Memory required for data: 979019040
I0403 15:03:41.974812 14058 layer_factory.hpp:77] Creating layer inception_4b/relu_pool_proj
I0403 15:03:41.974830 14058 net.cpp:91] Creating Layer inception_4b/relu_pool_proj
I0403 15:03:41.974848 14058 net.cpp:425] inception_4b/relu_pool_proj <- inception_4b/pool_proj
I0403 15:03:41.974869 14058 net.cpp:386] inception_4b/relu_pool_proj -> inception_4b/pool_proj (in-place)
I0403 15:03:41.975049 14058 net.cpp:141] Setting up inception_4b/relu_pool_proj
I0403 15:03:41.975075 14058 net.cpp:148] Top shape: 24 64 14 14 (301056)
I0403 15:03:41.975090 14058 net.cpp:156] Memory required for data: 980223264
I0403 15:03:41.975106 14058 layer_factory.hpp:77] Creating layer inception_4b/output
I0403 15:03:41.975122 14058 net.cpp:91] Creating Layer inception_4b/output
I0403 15:03:41.975138 14058 net.cpp:425] inception_4b/output <- inception_4b/1x1
I0403 15:03:41.975162 14058 net.cpp:425] inception_4b/output <- inception_4b/3x3
I0403 15:03:41.975180 14058 net.cpp:425] inception_4b/output <- inception_4b/5x5
I0403 15:03:41.975198 14058 net.cpp:425] inception_4b/output <- inception_4b/pool_proj
I0403 15:03:41.975215 14058 net.cpp:399] inception_4b/output -> inception_4b/output
I0403 15:03:41.975262 14058 net.cpp:141] Setting up inception_4b/output
I0403 15:03:41.975286 14058 net.cpp:148] Top shape: 24 512 14 14 (2408448)
I0403 15:03:41.975301 14058 net.cpp:156] Memory required for data: 989857056
I0403 15:03:41.975329 14058 layer_factory.hpp:77] Creating layer inception_4b/output_inception_4b/output_0_split
I0403 15:03:41.975347 14058 net.cpp:91] Creating Layer inception_4b/output_inception_4b/output_0_split
I0403 15:03:41.975363 14058 net.cpp:425] inception_4b/output_inception_4b/output_0_split <- inception_4b/output
I0403 15:03:41.975383 14058 net.cpp:399] inception_4b/output_inception_4b/output_0_split -> inception_4b/output_inception_4b/output_0_split_0
I0403 15:03:41.975404 14058 net.cpp:399] inception_4b/output_inception_4b/output_0_split -> inception_4b/output_inception_4b/output_0_split_1
I0403 15:03:41.975424 14058 net.cpp:399] inception_4b/output_inception_4b/output_0_split -> inception_4b/output_inception_4b/output_0_split_2
I0403 15:03:41.975442 14058 net.cpp:399] inception_4b/output_inception_4b/output_0_split -> inception_4b/output_inception_4b/output_0_split_3
I0403 15:03:41.975527 14058 net.cpp:141] Setting up inception_4b/output_inception_4b/output_0_split
I0403 15:03:41.975566 14058 net.cpp:148] Top shape: 24 512 14 14 (2408448)
I0403 15:03:41.975585 14058 net.cpp:148] Top shape: 24 512 14 14 (2408448)
I0403 15:03:41.975601 14058 net.cpp:148] Top shape: 24 512 14 14 (2408448)
I0403 15:03:41.975625 14058 net.cpp:148] Top shape: 24 512 14 14 (2408448)
I0403 15:03:41.975638 14058 net.cpp:156] Memory required for data: 1028392224
I0403 15:03:41.975652 14058 layer_factory.hpp:77] Creating layer inception_4c/1x1
I0403 15:03:41.975674 14058 net.cpp:91] Creating Layer inception_4c/1x1
I0403 15:03:41.975692 14058 net.cpp:425] inception_4c/1x1 <- inception_4b/output_inception_4b/output_0_split_0
I0403 15:03:41.975710 14058 net.cpp:399] inception_4c/1x1 -> inception_4c/1x1
I0403 15:03:41.977152 14058 net.cpp:141] Setting up inception_4c/1x1
I0403 15:03:41.977181 14058 net.cpp:148] Top shape: 24 128 14 14 (602112)
I0403 15:03:41.977198 14058 net.cpp:156] Memory required for data: 1030800672
I0403 15:03:41.977216 14058 layer_factory.hpp:77] Creating layer inception_4c/relu_1x1
I0403 15:03:41.977239 14058 net.cpp:91] Creating Layer inception_4c/relu_1x1
I0403 15:03:41.977257 14058 net.cpp:425] inception_4c/relu_1x1 <- inception_4c/1x1
I0403 15:03:41.977277 14058 net.cpp:386] inception_4c/relu_1x1 -> inception_4c/1x1 (in-place)
I0403 15:03:41.977458 14058 net.cpp:141] Setting up inception_4c/relu_1x1
I0403 15:03:41.977485 14058 net.cpp:148] Top shape: 24 128 14 14 (602112)
I0403 15:03:41.977501 14058 net.cpp:156] Memory required for data: 1033209120
I0403 15:03:41.977515 14058 layer_factory.hpp:77] Creating layer inception_4c/3x3_reduce
I0403 15:03:41.977541 14058 net.cpp:91] Creating Layer inception_4c/3x3_reduce
I0403 15:03:41.977560 14058 net.cpp:425] inception_4c/3x3_reduce <- inception_4b/output_inception_4b/output_0_split_1
I0403 15:03:41.977579 14058 net.cpp:399] inception_4c/3x3_reduce -> inception_4c/3x3_reduce
I0403 15:03:41.979517 14058 net.cpp:141] Setting up inception_4c/3x3_reduce
I0403 15:03:41.979554 14058 net.cpp:148] Top shape: 24 128 14 14 (602112)
I0403 15:03:41.979573 14058 net.cpp:156] Memory required for data: 1035617568
I0403 15:03:41.979591 14058 layer_factory.hpp:77] Creating layer inception_4c/relu_3x3_reduce
I0403 15:03:41.979609 14058 net.cpp:91] Creating Layer inception_4c/relu_3x3_reduce
I0403 15:03:41.979626 14058 net.cpp:425] inception_4c/relu_3x3_reduce <- inception_4c/3x3_reduce
I0403 15:03:41.979647 14058 net.cpp:386] inception_4c/relu_3x3_reduce -> inception_4c/3x3_reduce (in-place)
I0403 15:03:41.979935 14058 net.cpp:141] Setting up inception_4c/relu_3x3_reduce
I0403 15:03:41.979964 14058 net.cpp:148] Top shape: 24 128 14 14 (602112)
I0403 15:03:41.979979 14058 net.cpp:156] Memory required for data: 1038026016
I0403 15:03:41.979992 14058 layer_factory.hpp:77] Creating layer inception_4c/3x3
I0403 15:03:41.980016 14058 net.cpp:91] Creating Layer inception_4c/3x3
I0403 15:03:41.980034 14058 net.cpp:425] inception_4c/3x3 <- inception_4c/3x3_reduce
I0403 15:03:41.980056 14058 net.cpp:399] inception_4c/3x3 -> inception_4c/3x3
I0403 15:03:41.983685 14058 net.cpp:141] Setting up inception_4c/3x3
I0403 15:03:41.983731 14058 net.cpp:148] Top shape: 24 256 14 14 (1204224)
I0403 15:03:41.983749 14058 net.cpp:156] Memory required for data: 1042842912
I0403 15:03:41.983783 14058 layer_factory.hpp:77] Creating layer inception_4c/relu_3x3
I0403 15:03:41.983803 14058 net.cpp:91] Creating Layer inception_4c/relu_3x3
I0403 15:03:41.983819 14058 net.cpp:425] inception_4c/relu_3x3 <- inception_4c/3x3
I0403 15:03:41.983839 14058 net.cpp:386] inception_4c/relu_3x3 -> inception_4c/3x3 (in-place)
I0403 15:03:41.984022 14058 net.cpp:141] Setting up inception_4c/relu_3x3
I0403 15:03:41.984047 14058 net.cpp:148] Top shape: 24 256 14 14 (1204224)
I0403 15:03:41.984062 14058 net.cpp:156] Memory required for data: 1047659808
I0403 15:03:41.984077 14058 layer_factory.hpp:77] Creating layer inception_4c/5x5_reduce
I0403 15:03:41.984100 14058 net.cpp:91] Creating Layer inception_4c/5x5_reduce
I0403 15:03:41.984117 14058 net.cpp:425] inception_4c/5x5_reduce <- inception_4b/output_inception_4b/output_0_split_2
I0403 15:03:41.984138 14058 net.cpp:399] inception_4c/5x5_reduce -> inception_4c/5x5_reduce
I0403 15:03:41.985263 14058 net.cpp:141] Setting up inception_4c/5x5_reduce
I0403 15:03:41.985293 14058 net.cpp:148] Top shape: 24 24 14 14 (112896)
I0403 15:03:41.985309 14058 net.cpp:156] Memory required for data: 1048111392
I0403 15:03:41.985328 14058 layer_factory.hpp:77] Creating layer inception_4c/relu_5x5_reduce
I0403 15:03:41.985347 14058 net.cpp:91] Creating Layer inception_4c/relu_5x5_reduce
I0403 15:03:41.985363 14058 net.cpp:425] inception_4c/relu_5x5_reduce <- inception_4c/5x5_reduce
I0403 15:03:41.985383 14058 net.cpp:386] inception_4c/relu_5x5_reduce -> inception_4c/5x5_reduce (in-place)
I0403 15:03:41.985574 14058 net.cpp:141] Setting up inception_4c/relu_5x5_reduce
I0403 15:03:41.985600 14058 net.cpp:148] Top shape: 24 24 14 14 (112896)
I0403 15:03:41.985616 14058 net.cpp:156] Memory required for data: 1048562976
I0403 15:03:41.985630 14058 layer_factory.hpp:77] Creating layer inception_4c/5x5
I0403 15:03:41.985652 14058 net.cpp:91] Creating Layer inception_4c/5x5
I0403 15:03:41.985671 14058 net.cpp:425] inception_4c/5x5 <- inception_4c/5x5_reduce
I0403 15:03:41.985692 14058 net.cpp:399] inception_4c/5x5 -> inception_4c/5x5
I0403 15:03:41.986951 14058 net.cpp:141] Setting up inception_4c/5x5
I0403 15:03:41.986981 14058 net.cpp:148] Top shape: 24 64 14 14 (301056)
I0403 15:03:41.986999 14058 net.cpp:156] Memory required for data: 1049767200
I0403 15:03:41.987016 14058 layer_factory.hpp:77] Creating layer inception_4c/relu_5x5
I0403 15:03:41.987038 14058 net.cpp:91] Creating Layer inception_4c/relu_5x5
I0403 15:03:41.987057 14058 net.cpp:425] inception_4c/relu_5x5 <- inception_4c/5x5
I0403 15:03:41.987074 14058 net.cpp:386] inception_4c/relu_5x5 -> inception_4c/5x5 (in-place)
I0403 15:03:41.987368 14058 net.cpp:141] Setting up inception_4c/relu_5x5
I0403 15:03:41.987396 14058 net.cpp:148] Top shape: 24 64 14 14 (301056)
I0403 15:03:41.987414 14058 net.cpp:156] Memory required for data: 1050971424
I0403 15:03:41.987429 14058 layer_factory.hpp:77] Creating layer inception_4c/pool
I0403 15:03:41.987449 14058 net.cpp:91] Creating Layer inception_4c/pool
I0403 15:03:41.987468 14058 net.cpp:425] inception_4c/pool <- inception_4b/output_inception_4b/output_0_split_3
I0403 15:03:41.987488 14058 net.cpp:399] inception_4c/pool -> inception_4c/pool
I0403 15:03:41.987560 14058 net.cpp:141] Setting up inception_4c/pool
I0403 15:03:41.987586 14058 net.cpp:148] Top shape: 24 512 14 14 (2408448)
I0403 15:03:41.987602 14058 net.cpp:156] Memory required for data: 1060605216
I0403 15:03:41.987618 14058 layer_factory.hpp:77] Creating layer inception_4c/pool_proj
I0403 15:03:41.987640 14058 net.cpp:91] Creating Layer inception_4c/pool_proj
I0403 15:03:41.987658 14058 net.cpp:425] inception_4c/pool_proj <- inception_4c/pool
I0403 15:03:41.987679 14058 net.cpp:399] inception_4c/pool_proj -> inception_4c/pool_proj
I0403 15:03:41.988922 14058 net.cpp:141] Setting up inception_4c/pool_proj
I0403 15:03:41.988955 14058 net.cpp:148] Top shape: 24 64 14 14 (301056)
I0403 15:03:41.988986 14058 net.cpp:156] Memory required for data: 1061809440
I0403 15:03:41.989007 14058 layer_factory.hpp:77] Creating layer inception_4c/relu_pool_proj
I0403 15:03:41.989025 14058 net.cpp:91] Creating Layer inception_4c/relu_pool_proj
I0403 15:03:41.989042 14058 net.cpp:425] inception_4c/relu_pool_proj <- inception_4c/pool_proj
I0403 15:03:41.989063 14058 net.cpp:386] inception_4c/relu_pool_proj -> inception_4c/pool_proj (in-place)
I0403 15:03:41.989249 14058 net.cpp:141] Setting up inception_4c/relu_pool_proj
I0403 15:03:41.989277 14058 net.cpp:148] Top shape: 24 64 14 14 (301056)
I0403 15:03:41.989295 14058 net.cpp:156] Memory required for data: 1063013664
I0403 15:03:41.989310 14058 layer_factory.hpp:77] Creating layer inception_4c/output
I0403 15:03:41.989326 14058 net.cpp:91] Creating Layer inception_4c/output
I0403 15:03:41.989341 14058 net.cpp:425] inception_4c/output <- inception_4c/1x1
I0403 15:03:41.989357 14058 net.cpp:425] inception_4c/output <- inception_4c/3x3
I0403 15:03:41.989373 14058 net.cpp:425] inception_4c/output <- inception_4c/5x5
I0403 15:03:41.989388 14058 net.cpp:425] inception_4c/output <- inception_4c/pool_proj
I0403 15:03:41.989408 14058 net.cpp:399] inception_4c/output -> inception_4c/output
I0403 15:03:41.989457 14058 net.cpp:141] Setting up inception_4c/output
I0403 15:03:41.989480 14058 net.cpp:148] Top shape: 24 512 14 14 (2408448)
I0403 15:03:41.989495 14058 net.cpp:156] Memory required for data: 1072647456
I0403 15:03:41.989509 14058 layer_factory.hpp:77] Creating layer inception_4c/output_inception_4c/output_0_split
I0403 15:03:41.989526 14058 net.cpp:91] Creating Layer inception_4c/output_inception_4c/output_0_split
I0403 15:03:41.989547 14058 net.cpp:425] inception_4c/output_inception_4c/output_0_split <- inception_4c/output
I0403 15:03:41.989567 14058 net.cpp:399] inception_4c/output_inception_4c/output_0_split -> inception_4c/output_inception_4c/output_0_split_0
I0403 15:03:41.989588 14058 net.cpp:399] inception_4c/output_inception_4c/output_0_split -> inception_4c/output_inception_4c/output_0_split_1
I0403 15:03:41.989609 14058 net.cpp:399] inception_4c/output_inception_4c/output_0_split -> inception_4c/output_inception_4c/output_0_split_2
I0403 15:03:41.989629 14058 net.cpp:399] inception_4c/output_inception_4c/output_0_split -> inception_4c/output_inception_4c/output_0_split_3
I0403 15:03:41.989716 14058 net.cpp:141] Setting up inception_4c/output_inception_4c/output_0_split
I0403 15:03:41.989743 14058 net.cpp:148] Top shape: 24 512 14 14 (2408448)
I0403 15:03:41.989761 14058 net.cpp:148] Top shape: 24 512 14 14 (2408448)
I0403 15:03:41.989778 14058 net.cpp:148] Top shape: 24 512 14 14 (2408448)
I0403 15:03:41.989792 14058 net.cpp:148] Top shape: 24 512 14 14 (2408448)
I0403 15:03:41.989805 14058 net.cpp:156] Memory required for data: 1111182624
I0403 15:03:41.989820 14058 layer_factory.hpp:77] Creating layer inception_4d/1x1
I0403 15:03:41.989842 14058 net.cpp:91] Creating Layer inception_4d/1x1
I0403 15:03:41.989859 14058 net.cpp:425] inception_4d/1x1 <- inception_4c/output_inception_4c/output_0_split_0
I0403 15:03:41.989878 14058 net.cpp:399] inception_4d/1x1 -> inception_4d/1x1
I0403 15:03:41.991255 14058 net.cpp:141] Setting up inception_4d/1x1
I0403 15:03:41.991284 14058 net.cpp:148] Top shape: 24 112 14 14 (526848)
I0403 15:03:41.991302 14058 net.cpp:156] Memory required for data: 1113290016
I0403 15:03:41.991318 14058 layer_factory.hpp:77] Creating layer inception_4d/relu_1x1
I0403 15:03:41.991341 14058 net.cpp:91] Creating Layer inception_4d/relu_1x1
I0403 15:03:41.991360 14058 net.cpp:425] inception_4d/relu_1x1 <- inception_4d/1x1
I0403 15:03:41.991379 14058 net.cpp:386] inception_4d/relu_1x1 -> inception_4d/1x1 (in-place)
I0403 15:03:41.991569 14058 net.cpp:141] Setting up inception_4d/relu_1x1
I0403 15:03:41.991595 14058 net.cpp:148] Top shape: 24 112 14 14 (526848)
I0403 15:03:41.991610 14058 net.cpp:156] Memory required for data: 1115397408
I0403 15:03:41.991626 14058 layer_factory.hpp:77] Creating layer inception_4d/3x3_reduce
I0403 15:03:41.991662 14058 net.cpp:91] Creating Layer inception_4d/3x3_reduce
I0403 15:03:41.991683 14058 net.cpp:425] inception_4d/3x3_reduce <- inception_4c/output_inception_4c/output_0_split_1
I0403 15:03:41.991703 14058 net.cpp:399] inception_4d/3x3_reduce -> inception_4d/3x3_reduce
I0403 15:03:41.993218 14058 net.cpp:141] Setting up inception_4d/3x3_reduce
I0403 15:03:41.993248 14058 net.cpp:148] Top shape: 24 144 14 14 (677376)
I0403 15:03:41.993266 14058 net.cpp:156] Memory required for data: 1118106912
I0403 15:03:41.993285 14058 layer_factory.hpp:77] Creating layer inception_4d/relu_3x3_reduce
I0403 15:03:41.993307 14058 net.cpp:91] Creating Layer inception_4d/relu_3x3_reduce
I0403 15:03:41.993325 14058 net.cpp:425] inception_4d/relu_3x3_reduce <- inception_4d/3x3_reduce
I0403 15:03:41.993342 14058 net.cpp:386] inception_4d/relu_3x3_reduce -> inception_4d/3x3_reduce (in-place)
I0403 15:03:41.993659 14058 net.cpp:141] Setting up inception_4d/relu_3x3_reduce
I0403 15:03:41.993686 14058 net.cpp:148] Top shape: 24 144 14 14 (677376)
I0403 15:03:41.993702 14058 net.cpp:156] Memory required for data: 1120816416
I0403 15:03:41.993717 14058 layer_factory.hpp:77] Creating layer inception_4d/3x3
I0403 15:03:41.993741 14058 net.cpp:91] Creating Layer inception_4d/3x3
I0403 15:03:41.993759 14058 net.cpp:425] inception_4d/3x3 <- inception_4d/3x3_reduce
I0403 15:03:41.993782 14058 net.cpp:399] inception_4d/3x3 -> inception_4d/3x3
I0403 15:03:41.998078 14058 net.cpp:141] Setting up inception_4d/3x3
I0403 15:03:41.998114 14058 net.cpp:148] Top shape: 24 288 14 14 (1354752)
I0403 15:03:41.998144 14058 net.cpp:156] Memory required for data: 1126235424
I0403 15:03:41.998167 14058 layer_factory.hpp:77] Creating layer inception_4d/relu_3x3
I0403 15:03:41.998186 14058 net.cpp:91] Creating Layer inception_4d/relu_3x3
I0403 15:03:41.998203 14058 net.cpp:425] inception_4d/relu_3x3 <- inception_4d/3x3
I0403 15:03:41.998221 14058 net.cpp:386] inception_4d/relu_3x3 -> inception_4d/3x3 (in-place)
I0403 15:03:41.998417 14058 net.cpp:141] Setting up inception_4d/relu_3x3
I0403 15:03:41.998442 14058 net.cpp:148] Top shape: 24 288 14 14 (1354752)
I0403 15:03:41.998457 14058 net.cpp:156] Memory required for data: 1131654432
I0403 15:03:41.998471 14058 layer_factory.hpp:77] Creating layer inception_4d/5x5_reduce
I0403 15:03:41.998494 14058 net.cpp:91] Creating Layer inception_4d/5x5_reduce
I0403 15:03:41.998512 14058 net.cpp:425] inception_4d/5x5_reduce <- inception_4c/output_inception_4c/output_0_split_2
I0403 15:03:41.998533 14058 net.cpp:399] inception_4d/5x5_reduce -> inception_4d/5x5_reduce
I0403 15:03:41.999711 14058 net.cpp:141] Setting up inception_4d/5x5_reduce
I0403 15:03:41.999743 14058 net.cpp:148] Top shape: 24 32 14 14 (150528)
I0403 15:03:41.999760 14058 net.cpp:156] Memory required for data: 1132256544
I0403 15:03:41.999785 14058 layer_factory.hpp:77] Creating layer inception_4d/relu_5x5_reduce
I0403 15:03:41.999804 14058 net.cpp:91] Creating Layer inception_4d/relu_5x5_reduce
I0403 15:03:41.999821 14058 net.cpp:425] inception_4d/relu_5x5_reduce <- inception_4d/5x5_reduce
I0403 15:03:41.999840 14058 net.cpp:386] inception_4d/relu_5x5_reduce -> inception_4d/5x5_reduce (in-place)
I0403 15:03:42.000036 14058 net.cpp:141] Setting up inception_4d/relu_5x5_reduce
I0403 15:03:42.000061 14058 net.cpp:148] Top shape: 24 32 14 14 (150528)
I0403 15:03:42.000077 14058 net.cpp:156] Memory required for data: 1132858656
I0403 15:03:42.000090 14058 layer_factory.hpp:77] Creating layer inception_4d/5x5
I0403 15:03:42.000113 14058 net.cpp:91] Creating Layer inception_4d/5x5
I0403 15:03:42.000131 14058 net.cpp:425] inception_4d/5x5 <- inception_4d/5x5_reduce
I0403 15:03:42.000176 14058 net.cpp:399] inception_4d/5x5 -> inception_4d/5x5
I0403 15:03:42.001719 14058 net.cpp:141] Setting up inception_4d/5x5
I0403 15:03:42.001749 14058 net.cpp:148] Top shape: 24 64 14 14 (301056)
I0403 15:03:42.001767 14058 net.cpp:156] Memory required for data: 1134062880
I0403 15:03:42.001786 14058 layer_factory.hpp:77] Creating layer inception_4d/relu_5x5
I0403 15:03:42.001822 14058 net.cpp:91] Creating Layer inception_4d/relu_5x5
I0403 15:03:42.001839 14058 net.cpp:425] inception_4d/relu_5x5 <- inception_4d/5x5
I0403 15:03:42.001859 14058 net.cpp:386] inception_4d/relu_5x5 -> inception_4d/5x5 (in-place)
I0403 15:03:42.002161 14058 net.cpp:141] Setting up inception_4d/relu_5x5
I0403 15:03:42.002187 14058 net.cpp:148] Top shape: 24 64 14 14 (301056)
I0403 15:03:42.002202 14058 net.cpp:156] Memory required for data: 1135267104
I0403 15:03:42.002218 14058 layer_factory.hpp:77] Creating layer inception_4d/pool
I0403 15:03:42.002235 14058 net.cpp:91] Creating Layer inception_4d/pool
I0403 15:03:42.002251 14058 net.cpp:425] inception_4d/pool <- inception_4c/output_inception_4c/output_0_split_3
I0403 15:03:42.002282 14058 net.cpp:399] inception_4d/pool -> inception_4d/pool
I0403 15:03:42.002357 14058 net.cpp:141] Setting up inception_4d/pool
I0403 15:03:42.002380 14058 net.cpp:148] Top shape: 24 512 14 14 (2408448)
I0403 15:03:42.002394 14058 net.cpp:156] Memory required for data: 1144900896
I0403 15:03:42.002409 14058 layer_factory.hpp:77] Creating layer inception_4d/pool_proj
I0403 15:03:42.002434 14058 net.cpp:91] Creating Layer inception_4d/pool_proj
I0403 15:03:42.002456 14058 net.cpp:425] inception_4d/pool_proj <- inception_4d/pool
I0403 15:03:42.002476 14058 net.cpp:399] inception_4d/pool_proj -> inception_4d/pool_proj
I0403 15:03:42.004318 14058 net.cpp:141] Setting up inception_4d/pool_proj
I0403 15:03:42.004354 14058 net.cpp:148] Top shape: 24 64 14 14 (301056)
I0403 15:03:42.004372 14058 net.cpp:156] Memory required for data: 1146105120
I0403 15:03:42.004392 14058 layer_factory.hpp:77] Creating layer inception_4d/relu_pool_proj
I0403 15:03:42.004412 14058 net.cpp:91] Creating Layer inception_4d/relu_pool_proj
I0403 15:03:42.004441 14058 net.cpp:425] inception_4d/relu_pool_proj <- inception_4d/pool_proj
I0403 15:03:42.004459 14058 net.cpp:386] inception_4d/relu_pool_proj -> inception_4d/pool_proj (in-place)
I0403 15:03:42.004660 14058 net.cpp:141] Setting up inception_4d/relu_pool_proj
I0403 15:03:42.004688 14058 net.cpp:148] Top shape: 24 64 14 14 (301056)
I0403 15:03:42.004703 14058 net.cpp:156] Memory required for data: 1147309344
I0403 15:03:42.004719 14058 layer_factory.hpp:77] Creating layer inception_4d/output
I0403 15:03:42.004736 14058 net.cpp:91] Creating Layer inception_4d/output
I0403 15:03:42.004752 14058 net.cpp:425] inception_4d/output <- inception_4d/1x1
I0403 15:03:42.004770 14058 net.cpp:425] inception_4d/output <- inception_4d/3x3
I0403 15:03:42.004786 14058 net.cpp:425] inception_4d/output <- inception_4d/5x5
I0403 15:03:42.004803 14058 net.cpp:425] inception_4d/output <- inception_4d/pool_proj
I0403 15:03:42.004823 14058 net.cpp:399] inception_4d/output -> inception_4d/output
I0403 15:03:42.004879 14058 net.cpp:141] Setting up inception_4d/output
I0403 15:03:42.004906 14058 net.cpp:148] Top shape: 24 528 14 14 (2483712)
I0403 15:03:42.004923 14058 net.cpp:156] Memory required for data: 1157244192
I0403 15:03:42.004938 14058 layer_factory.hpp:77] Creating layer inception_4d/output_inception_4d/output_0_split
I0403 15:03:42.004956 14058 net.cpp:91] Creating Layer inception_4d/output_inception_4d/output_0_split
I0403 15:03:42.004971 14058 net.cpp:425] inception_4d/output_inception_4d/output_0_split <- inception_4d/output
I0403 15:03:42.004992 14058 net.cpp:399] inception_4d/output_inception_4d/output_0_split -> inception_4d/output_inception_4d/output_0_split_0
I0403 15:03:42.005012 14058 net.cpp:399] inception_4d/output_inception_4d/output_0_split -> inception_4d/output_inception_4d/output_0_split_1
I0403 15:03:42.005033 14058 net.cpp:399] inception_4d/output_inception_4d/output_0_split -> inception_4d/output_inception_4d/output_0_split_2
I0403 15:03:42.005053 14058 net.cpp:399] inception_4d/output_inception_4d/output_0_split -> inception_4d/output_inception_4d/output_0_split_3
I0403 15:03:42.005072 14058 net.cpp:399] inception_4d/output_inception_4d/output_0_split -> inception_4d/output_inception_4d/output_0_split_4
I0403 15:03:42.005172 14058 net.cpp:141] Setting up inception_4d/output_inception_4d/output_0_split
I0403 15:03:42.005210 14058 net.cpp:148] Top shape: 24 528 14 14 (2483712)
I0403 15:03:42.005228 14058 net.cpp:148] Top shape: 24 528 14 14 (2483712)
I0403 15:03:42.005242 14058 net.cpp:148] Top shape: 24 528 14 14 (2483712)
I0403 15:03:42.005259 14058 net.cpp:148] Top shape: 24 528 14 14 (2483712)
I0403 15:03:42.005273 14058 net.cpp:148] Top shape: 24 528 14 14 (2483712)
I0403 15:03:42.005286 14058 net.cpp:156] Memory required for data: 1206918432
I0403 15:03:42.005311 14058 layer_factory.hpp:77] Creating layer loss2/ave_pool
I0403 15:03:42.005331 14058 net.cpp:91] Creating Layer loss2/ave_pool
I0403 15:03:42.005347 14058 net.cpp:425] loss2/ave_pool <- inception_4d/output_inception_4d/output_0_split_0
I0403 15:03:42.005367 14058 net.cpp:399] loss2/ave_pool -> loss2/ave_pool
I0403 15:03:42.005686 14058 net.cpp:141] Setting up loss2/ave_pool
I0403 15:03:42.005713 14058 net.cpp:148] Top shape: 24 528 4 4 (202752)
I0403 15:03:42.005729 14058 net.cpp:156] Memory required for data: 1207729440
I0403 15:03:42.005743 14058 layer_factory.hpp:77] Creating layer loss2/conv
I0403 15:03:42.005765 14058 net.cpp:91] Creating Layer loss2/conv
I0403 15:03:42.005784 14058 net.cpp:425] loss2/conv <- loss2/ave_pool
I0403 15:03:42.005803 14058 net.cpp:399] loss2/conv -> loss2/conv
I0403 15:03:42.007742 14058 net.cpp:141] Setting up loss2/conv
I0403 15:03:42.007782 14058 net.cpp:148] Top shape: 24 128 4 4 (49152)
I0403 15:03:42.007797 14058 net.cpp:156] Memory required for data: 1207926048
I0403 15:03:42.007817 14058 layer_factory.hpp:77] Creating layer loss2/relu_conv
I0403 15:03:42.007836 14058 net.cpp:91] Creating Layer loss2/relu_conv
I0403 15:03:42.007853 14058 net.cpp:425] loss2/relu_conv <- loss2/conv
I0403 15:03:42.007871 14058 net.cpp:386] loss2/relu_conv -> loss2/conv (in-place)
I0403 15:03:42.008153 14058 net.cpp:141] Setting up loss2/relu_conv
I0403 15:03:42.008179 14058 net.cpp:148] Top shape: 24 128 4 4 (49152)
I0403 15:03:42.008195 14058 net.cpp:156] Memory required for data: 1208122656
I0403 15:03:42.008209 14058 layer_factory.hpp:77] Creating layer loss2/fc
I0403 15:03:42.008234 14058 net.cpp:91] Creating Layer loss2/fc
I0403 15:03:42.008252 14058 net.cpp:425] loss2/fc <- loss2/conv
I0403 15:03:42.008270 14058 net.cpp:399] loss2/fc -> loss2/fc
I0403 15:03:42.025764 14058 net.cpp:141] Setting up loss2/fc
I0403 15:03:42.025799 14058 net.cpp:148] Top shape: 24 1024 (24576)
I0403 15:03:42.025815 14058 net.cpp:156] Memory required for data: 1208220960
I0403 15:03:42.025832 14058 layer_factory.hpp:77] Creating layer loss2/relu_fc
I0403 15:03:42.025851 14058 net.cpp:91] Creating Layer loss2/relu_fc
I0403 15:03:42.025867 14058 net.cpp:425] loss2/relu_fc <- loss2/fc
I0403 15:03:42.025887 14058 net.cpp:386] loss2/relu_fc -> loss2/fc (in-place)
I0403 15:03:42.026170 14058 net.cpp:141] Setting up loss2/relu_fc
I0403 15:03:42.026198 14058 net.cpp:148] Top shape: 24 1024 (24576)
I0403 15:03:42.026214 14058 net.cpp:156] Memory required for data: 1208319264
I0403 15:03:42.026228 14058 layer_factory.hpp:77] Creating layer loss2/drop_fc
I0403 15:03:42.026245 14058 net.cpp:91] Creating Layer loss2/drop_fc
I0403 15:03:42.026262 14058 net.cpp:425] loss2/drop_fc <- loss2/fc
I0403 15:03:42.026280 14058 net.cpp:386] loss2/drop_fc -> loss2/fc (in-place)
I0403 15:03:42.026329 14058 net.cpp:141] Setting up loss2/drop_fc
I0403 15:03:42.026353 14058 net.cpp:148] Top shape: 24 1024 (24576)
I0403 15:03:42.026367 14058 net.cpp:156] Memory required for data: 1208417568
I0403 15:03:42.026381 14058 layer_factory.hpp:77] Creating layer loss2/classifier_plantvillage
I0403 15:03:42.026402 14058 net.cpp:91] Creating Layer loss2/classifier_plantvillage
I0403 15:03:42.026418 14058 net.cpp:425] loss2/classifier_plantvillage <- loss2/fc
I0403 15:03:42.026439 14058 net.cpp:399] loss2/classifier_plantvillage -> loss2/classifier_plantvillage
I0403 15:03:42.026834 14058 net.cpp:141] Setting up loss2/classifier_plantvillage
I0403 15:03:42.026859 14058 net.cpp:148] Top shape: 24 38 (912)
I0403 15:03:42.026873 14058 net.cpp:156] Memory required for data: 1208421216
I0403 15:03:42.026907 14058 layer_factory.hpp:77] Creating layer loss2/classifier_plantvillage_loss2/classifier_plantvillage_0_split
I0403 15:03:42.026929 14058 net.cpp:91] Creating Layer loss2/classifier_plantvillage_loss2/classifier_plantvillage_0_split
I0403 15:03:42.026947 14058 net.cpp:425] loss2/classifier_plantvillage_loss2/classifier_plantvillage_0_split <- loss2/classifier_plantvillage
I0403 15:03:42.026962 14058 net.cpp:399] loss2/classifier_plantvillage_loss2/classifier_plantvillage_0_split -> loss2/classifier_plantvillage_loss2/classifier_plantvillage_0_split_0
I0403 15:03:42.026983 14058 net.cpp:399] loss2/classifier_plantvillage_loss2/classifier_plantvillage_0_split -> loss2/classifier_plantvillage_loss2/classifier_plantvillage_0_split_1
I0403 15:03:42.027003 14058 net.cpp:399] loss2/classifier_plantvillage_loss2/classifier_plantvillage_0_split -> loss2/classifier_plantvillage_loss2/classifier_plantvillage_0_split_2
I0403 15:03:42.027077 14058 net.cpp:141] Setting up loss2/classifier_plantvillage_loss2/classifier_plantvillage_0_split
I0403 15:03:42.027101 14058 net.cpp:148] Top shape: 24 38 (912)
I0403 15:03:42.027117 14058 net.cpp:148] Top shape: 24 38 (912)
I0403 15:03:42.027132 14058 net.cpp:148] Top shape: 24 38 (912)
I0403 15:03:42.027144 14058 net.cpp:156] Memory required for data: 1208432160
I0403 15:03:42.027158 14058 layer_factory.hpp:77] Creating layer inception_4e/1x1
I0403 15:03:42.027178 14058 net.cpp:91] Creating Layer inception_4e/1x1
I0403 15:03:42.027194 14058 net.cpp:425] inception_4e/1x1 <- inception_4d/output_inception_4d/output_0_split_1
I0403 15:03:42.027214 14058 net.cpp:399] inception_4e/1x1 -> inception_4e/1x1
I0403 15:03:42.028972 14058 net.cpp:141] Setting up inception_4e/1x1
I0403 15:03:42.029000 14058 net.cpp:148] Top shape: 24 256 14 14 (1204224)
I0403 15:03:42.029018 14058 net.cpp:156] Memory required for data: 1213249056
I0403 15:03:42.029036 14058 layer_factory.hpp:77] Creating layer inception_4e/relu_1x1
I0403 15:03:42.029057 14058 net.cpp:91] Creating Layer inception_4e/relu_1x1
I0403 15:03:42.029074 14058 net.cpp:425] inception_4e/relu_1x1 <- inception_4e/1x1
I0403 15:03:42.029093 14058 net.cpp:386] inception_4e/relu_1x1 -> inception_4e/1x1 (in-place)
I0403 15:03:42.029379 14058 net.cpp:141] Setting up inception_4e/relu_1x1
I0403 15:03:42.029405 14058 net.cpp:148] Top shape: 24 256 14 14 (1204224)
I0403 15:03:42.029422 14058 net.cpp:156] Memory required for data: 1218065952
I0403 15:03:42.029438 14058 layer_factory.hpp:77] Creating layer inception_4e/3x3_reduce
I0403 15:03:42.029460 14058 net.cpp:91] Creating Layer inception_4e/3x3_reduce
I0403 15:03:42.029479 14058 net.cpp:425] inception_4e/3x3_reduce <- inception_4d/output_inception_4d/output_0_split_2
I0403 15:03:42.029500 14058 net.cpp:399] inception_4e/3x3_reduce -> inception_4e/3x3_reduce
I0403 15:03:42.031572 14058 net.cpp:141] Setting up inception_4e/3x3_reduce
I0403 15:03:42.031601 14058 net.cpp:148] Top shape: 24 160 14 14 (752640)
I0403 15:03:42.031617 14058 net.cpp:156] Memory required for data: 1221076512
I0403 15:03:42.031636 14058 layer_factory.hpp:77] Creating layer inception_4e/relu_3x3_reduce
I0403 15:03:42.031657 14058 net.cpp:91] Creating Layer inception_4e/relu_3x3_reduce
I0403 15:03:42.031677 14058 net.cpp:425] inception_4e/relu_3x3_reduce <- inception_4e/3x3_reduce
I0403 15:03:42.031694 14058 net.cpp:386] inception_4e/relu_3x3_reduce -> inception_4e/3x3_reduce (in-place)
I0403 15:03:42.031873 14058 net.cpp:141] Setting up inception_4e/relu_3x3_reduce
I0403 15:03:42.031899 14058 net.cpp:148] Top shape: 24 160 14 14 (752640)
I0403 15:03:42.031914 14058 net.cpp:156] Memory required for data: 1224087072
I0403 15:03:42.031929 14058 layer_factory.hpp:77] Creating layer inception_4e/3x3
I0403 15:03:42.031952 14058 net.cpp:91] Creating Layer inception_4e/3x3
I0403 15:03:42.031970 14058 net.cpp:425] inception_4e/3x3 <- inception_4e/3x3_reduce
I0403 15:03:42.031991 14058 net.cpp:399] inception_4e/3x3 -> inception_4e/3x3
I0403 15:03:42.036871 14058 net.cpp:141] Setting up inception_4e/3x3
I0403 15:03:42.036912 14058 net.cpp:148] Top shape: 24 320 14 14 (1505280)
I0403 15:03:42.036929 14058 net.cpp:156] Memory required for data: 1230108192
I0403 15:03:42.036948 14058 layer_factory.hpp:77] Creating layer inception_4e/relu_3x3
I0403 15:03:42.036969 14058 net.cpp:91] Creating Layer inception_4e/relu_3x3
I0403 15:03:42.036986 14058 net.cpp:425] inception_4e/relu_3x3 <- inception_4e/3x3
I0403 15:03:42.037004 14058 net.cpp:386] inception_4e/relu_3x3 -> inception_4e/3x3 (in-place)
I0403 15:03:42.037299 14058 net.cpp:141] Setting up inception_4e/relu_3x3
I0403 15:03:42.037325 14058 net.cpp:148] Top shape: 24 320 14 14 (1505280)
I0403 15:03:42.037340 14058 net.cpp:156] Memory required for data: 1236129312
I0403 15:03:42.037354 14058 layer_factory.hpp:77] Creating layer inception_4e/5x5_reduce
I0403 15:03:42.037379 14058 net.cpp:91] Creating Layer inception_4e/5x5_reduce
I0403 15:03:42.037395 14058 net.cpp:425] inception_4e/5x5_reduce <- inception_4d/output_inception_4d/output_0_split_3
I0403 15:03:42.037413 14058 net.cpp:399] inception_4e/5x5_reduce -> inception_4e/5x5_reduce
I0403 15:03:42.038453 14058 net.cpp:141] Setting up inception_4e/5x5_reduce
I0403 15:03:42.038480 14058 net.cpp:148] Top shape: 24 32 14 14 (150528)
I0403 15:03:42.038494 14058 net.cpp:156] Memory required for data: 1236731424
I0403 15:03:42.038512 14058 layer_factory.hpp:77] Creating layer inception_4e/relu_5x5_reduce
I0403 15:03:42.038529 14058 net.cpp:91] Creating Layer inception_4e/relu_5x5_reduce
I0403 15:03:42.038550 14058 net.cpp:425] inception_4e/relu_5x5_reduce <- inception_4e/5x5_reduce
I0403 15:03:42.038569 14058 net.cpp:386] inception_4e/relu_5x5_reduce -> inception_4e/5x5_reduce (in-place)
I0403 15:03:42.038988 14058 net.cpp:141] Setting up inception_4e/relu_5x5_reduce
I0403 15:03:42.039016 14058 net.cpp:148] Top shape: 24 32 14 14 (150528)
I0403 15:03:42.039034 14058 net.cpp:156] Memory required for data: 1237333536
I0403 15:03:42.039049 14058 layer_factory.hpp:77] Creating layer inception_4e/5x5
I0403 15:03:42.039101 14058 net.cpp:91] Creating Layer inception_4e/5x5
I0403 15:03:42.039124 14058 net.cpp:425] inception_4e/5x5 <- inception_4e/5x5_reduce
I0403 15:03:42.039151 14058 net.cpp:399] inception_4e/5x5 -> inception_4e/5x5
I0403 15:03:42.041029 14058 net.cpp:141] Setting up inception_4e/5x5
I0403 15:03:42.041059 14058 net.cpp:148] Top shape: 24 128 14 14 (602112)
I0403 15:03:42.041074 14058 net.cpp:156] Memory required for data: 1239741984
I0403 15:03:42.041093 14058 layer_factory.hpp:77] Creating layer inception_4e/relu_5x5
I0403 15:03:42.041112 14058 net.cpp:91] Creating Layer inception_4e/relu_5x5
I0403 15:03:42.041129 14058 net.cpp:425] inception_4e/relu_5x5 <- inception_4e/5x5
I0403 15:03:42.041148 14058 net.cpp:386] inception_4e/relu_5x5 -> inception_4e/5x5 (in-place)
I0403 15:03:42.041347 14058 net.cpp:141] Setting up inception_4e/relu_5x5
I0403 15:03:42.041371 14058 net.cpp:148] Top shape: 24 128 14 14 (602112)
I0403 15:03:42.041385 14058 net.cpp:156] Memory required for data: 1242150432
I0403 15:03:42.041400 14058 layer_factory.hpp:77] Creating layer inception_4e/pool
I0403 15:03:42.041420 14058 net.cpp:91] Creating Layer inception_4e/pool
I0403 15:03:42.041436 14058 net.cpp:425] inception_4e/pool <- inception_4d/output_inception_4d/output_0_split_4
I0403 15:03:42.041455 14058 net.cpp:399] inception_4e/pool -> inception_4e/pool
I0403 15:03:42.041524 14058 net.cpp:141] Setting up inception_4e/pool
I0403 15:03:42.041553 14058 net.cpp:148] Top shape: 24 528 14 14 (2483712)
I0403 15:03:42.041568 14058 net.cpp:156] Memory required for data: 1252085280
I0403 15:03:42.041582 14058 layer_factory.hpp:77] Creating layer inception_4e/pool_proj
I0403 15:03:42.041604 14058 net.cpp:91] Creating Layer inception_4e/pool_proj
I0403 15:03:42.041620 14058 net.cpp:425] inception_4e/pool_proj <- inception_4e/pool
I0403 15:03:42.041640 14058 net.cpp:399] inception_4e/pool_proj -> inception_4e/pool_proj
I0403 15:03:42.043150 14058 net.cpp:141] Setting up inception_4e/pool_proj
I0403 15:03:42.043184 14058 net.cpp:148] Top shape: 24 128 14 14 (602112)
I0403 15:03:42.043215 14058 net.cpp:156] Memory required for data: 1254493728
I0403 15:03:42.043236 14058 layer_factory.hpp:77] Creating layer inception_4e/relu_pool_proj
I0403 15:03:42.043254 14058 net.cpp:91] Creating Layer inception_4e/relu_pool_proj
I0403 15:03:42.043272 14058 net.cpp:425] inception_4e/relu_pool_proj <- inception_4e/pool_proj
I0403 15:03:42.043288 14058 net.cpp:386] inception_4e/relu_pool_proj -> inception_4e/pool_proj (in-place)
I0403 15:03:42.043586 14058 net.cpp:141] Setting up inception_4e/relu_pool_proj
I0403 15:03:42.043624 14058 net.cpp:148] Top shape: 24 128 14 14 (602112)
I0403 15:03:42.043640 14058 net.cpp:156] Memory required for data: 1256902176
I0403 15:03:42.043655 14058 layer_factory.hpp:77] Creating layer inception_4e/output
I0403 15:03:42.043673 14058 net.cpp:91] Creating Layer inception_4e/output
I0403 15:03:42.043687 14058 net.cpp:425] inception_4e/output <- inception_4e/1x1
I0403 15:03:42.043704 14058 net.cpp:425] inception_4e/output <- inception_4e/3x3
I0403 15:03:42.043720 14058 net.cpp:425] inception_4e/output <- inception_4e/5x5
I0403 15:03:42.043736 14058 net.cpp:425] inception_4e/output <- inception_4e/pool_proj
I0403 15:03:42.043752 14058 net.cpp:399] inception_4e/output -> inception_4e/output
I0403 15:03:42.043802 14058 net.cpp:141] Setting up inception_4e/output
I0403 15:03:42.043826 14058 net.cpp:148] Top shape: 24 832 14 14 (3913728)
I0403 15:03:42.043840 14058 net.cpp:156] Memory required for data: 1272557088
I0403 15:03:42.043854 14058 layer_factory.hpp:77] Creating layer pool4/3x3_s2
I0403 15:03:42.043874 14058 net.cpp:91] Creating Layer pool4/3x3_s2
I0403 15:03:42.043891 14058 net.cpp:425] pool4/3x3_s2 <- inception_4e/output
I0403 15:03:42.043910 14058 net.cpp:399] pool4/3x3_s2 -> pool4/3x3_s2
I0403 15:03:42.043977 14058 net.cpp:141] Setting up pool4/3x3_s2
I0403 15:03:42.043999 14058 net.cpp:148] Top shape: 24 832 7 7 (978432)
I0403 15:03:42.044014 14058 net.cpp:156] Memory required for data: 1276470816
I0403 15:03:42.044028 14058 layer_factory.hpp:77] Creating layer pool4/3x3_s2_pool4/3x3_s2_0_split
I0403 15:03:42.044045 14058 net.cpp:91] Creating Layer pool4/3x3_s2_pool4/3x3_s2_0_split
I0403 15:03:42.044061 14058 net.cpp:425] pool4/3x3_s2_pool4/3x3_s2_0_split <- pool4/3x3_s2
I0403 15:03:42.044080 14058 net.cpp:399] pool4/3x3_s2_pool4/3x3_s2_0_split -> pool4/3x3_s2_pool4/3x3_s2_0_split_0
I0403 15:03:42.044100 14058 net.cpp:399] pool4/3x3_s2_pool4/3x3_s2_0_split -> pool4/3x3_s2_pool4/3x3_s2_0_split_1
I0403 15:03:42.044121 14058 net.cpp:399] pool4/3x3_s2_pool4/3x3_s2_0_split -> pool4/3x3_s2_pool4/3x3_s2_0_split_2
I0403 15:03:42.044140 14058 net.cpp:399] pool4/3x3_s2_pool4/3x3_s2_0_split -> pool4/3x3_s2_pool4/3x3_s2_0_split_3
I0403 15:03:42.044230 14058 net.cpp:141] Setting up pool4/3x3_s2_pool4/3x3_s2_0_split
I0403 15:03:42.044255 14058 net.cpp:148] Top shape: 24 832 7 7 (978432)
I0403 15:03:42.044272 14058 net.cpp:148] Top shape: 24 832 7 7 (978432)
I0403 15:03:42.044287 14058 net.cpp:148] Top shape: 24 832 7 7 (978432)
I0403 15:03:42.044302 14058 net.cpp:148] Top shape: 24 832 7 7 (978432)
I0403 15:03:42.044317 14058 net.cpp:156] Memory required for data: 1292125728
I0403 15:03:42.044330 14058 layer_factory.hpp:77] Creating layer inception_5a/1x1
I0403 15:03:42.044353 14058 net.cpp:91] Creating Layer inception_5a/1x1
I0403 15:03:42.044370 14058 net.cpp:425] inception_5a/1x1 <- pool4/3x3_s2_pool4/3x3_s2_0_split_0
I0403 15:03:42.044389 14058 net.cpp:399] inception_5a/1x1 -> inception_5a/1x1
I0403 15:03:42.047267 14058 net.cpp:141] Setting up inception_5a/1x1
I0403 15:03:42.047298 14058 net.cpp:148] Top shape: 24 256 7 7 (301056)
I0403 15:03:42.047317 14058 net.cpp:156] Memory required for data: 1293329952
I0403 15:03:42.047335 14058 layer_factory.hpp:77] Creating layer inception_5a/relu_1x1
I0403 15:03:42.047354 14058 net.cpp:91] Creating Layer inception_5a/relu_1x1
I0403 15:03:42.047371 14058 net.cpp:425] inception_5a/relu_1x1 <- inception_5a/1x1
I0403 15:03:42.047392 14058 net.cpp:386] inception_5a/relu_1x1 -> inception_5a/1x1 (in-place)
I0403 15:03:42.047718 14058 net.cpp:141] Setting up inception_5a/relu_1x1
I0403 15:03:42.047744 14058 net.cpp:148] Top shape: 24 256 7 7 (301056)
I0403 15:03:42.047760 14058 net.cpp:156] Memory required for data: 1294534176
I0403 15:03:42.047773 14058 layer_factory.hpp:77] Creating layer inception_5a/3x3_reduce
I0403 15:03:42.047796 14058 net.cpp:91] Creating Layer inception_5a/3x3_reduce
I0403 15:03:42.047813 14058 net.cpp:425] inception_5a/3x3_reduce <- pool4/3x3_s2_pool4/3x3_s2_0_split_1
I0403 15:03:42.047835 14058 net.cpp:399] inception_5a/3x3_reduce -> inception_5a/3x3_reduce
I0403 15:03:42.050294 14058 net.cpp:141] Setting up inception_5a/3x3_reduce
I0403 15:03:42.050328 14058 net.cpp:148] Top shape: 24 160 7 7 (188160)
I0403 15:03:42.050345 14058 net.cpp:156] Memory required for data: 1295286816
I0403 15:03:42.050364 14058 layer_factory.hpp:77] Creating layer inception_5a/relu_3x3_reduce
I0403 15:03:42.050384 14058 net.cpp:91] Creating Layer inception_5a/relu_3x3_reduce
I0403 15:03:42.050400 14058 net.cpp:425] inception_5a/relu_3x3_reduce <- inception_5a/3x3_reduce
I0403 15:03:42.050417 14058 net.cpp:386] inception_5a/relu_3x3_reduce -> inception_5a/3x3_reduce (in-place)
I0403 15:03:42.050609 14058 net.cpp:141] Setting up inception_5a/relu_3x3_reduce
I0403 15:03:42.050637 14058 net.cpp:148] Top shape: 24 160 7 7 (188160)
I0403 15:03:42.050652 14058 net.cpp:156] Memory required for data: 1296039456
I0403 15:03:42.050668 14058 layer_factory.hpp:77] Creating layer inception_5a/3x3
I0403 15:03:42.050690 14058 net.cpp:91] Creating Layer inception_5a/3x3
I0403 15:03:42.050707 14058 net.cpp:425] inception_5a/3x3 <- inception_5a/3x3_reduce
I0403 15:03:42.050729 14058 net.cpp:399] inception_5a/3x3 -> inception_5a/3x3
I0403 15:03:42.055763 14058 net.cpp:141] Setting up inception_5a/3x3
I0403 15:03:42.055794 14058 net.cpp:148] Top shape: 24 320 7 7 (376320)
I0403 15:03:42.055810 14058 net.cpp:156] Memory required for data: 1297544736
I0403 15:03:42.055830 14058 layer_factory.hpp:77] Creating layer inception_5a/relu_3x3
I0403 15:03:42.055848 14058 net.cpp:91] Creating Layer inception_5a/relu_3x3
I0403 15:03:42.055866 14058 net.cpp:425] inception_5a/relu_3x3 <- inception_5a/3x3
I0403 15:03:42.055886 14058 net.cpp:386] inception_5a/relu_3x3 -> inception_5a/3x3 (in-place)
I0403 15:03:42.056182 14058 net.cpp:141] Setting up inception_5a/relu_3x3
I0403 15:03:42.056210 14058 net.cpp:148] Top shape: 24 320 7 7 (376320)
I0403 15:03:42.056226 14058 net.cpp:156] Memory required for data: 1299050016
I0403 15:03:42.056241 14058 layer_factory.hpp:77] Creating layer inception_5a/5x5_reduce
I0403 15:03:42.056265 14058 net.cpp:91] Creating Layer inception_5a/5x5_reduce
I0403 15:03:42.056284 14058 net.cpp:425] inception_5a/5x5_reduce <- pool4/3x3_s2_pool4/3x3_s2_0_split_2
I0403 15:03:42.056308 14058 net.cpp:399] inception_5a/5x5_reduce -> inception_5a/5x5_reduce
I0403 15:03:42.057492 14058 net.cpp:141] Setting up inception_5a/5x5_reduce
I0403 15:03:42.057524 14058 net.cpp:148] Top shape: 24 32 7 7 (37632)
I0403 15:03:42.057548 14058 net.cpp:156] Memory required for data: 1299200544
I0403 15:03:42.057567 14058 layer_factory.hpp:77] Creating layer inception_5a/relu_5x5_reduce
I0403 15:03:42.057590 14058 net.cpp:91] Creating Layer inception_5a/relu_5x5_reduce
I0403 15:03:42.057608 14058 net.cpp:425] inception_5a/relu_5x5_reduce <- inception_5a/5x5_reduce
I0403 15:03:42.057626 14058 net.cpp:386] inception_5a/relu_5x5_reduce -> inception_5a/5x5_reduce (in-place)
I0403 15:03:42.057927 14058 net.cpp:141] Setting up inception_5a/relu_5x5_reduce
I0403 15:03:42.057955 14058 net.cpp:148] Top shape: 24 32 7 7 (37632)
I0403 15:03:42.057971 14058 net.cpp:156] Memory required for data: 1299351072
I0403 15:03:42.057986 14058 layer_factory.hpp:77] Creating layer inception_5a/5x5
I0403 15:03:42.058008 14058 net.cpp:91] Creating Layer inception_5a/5x5
I0403 15:03:42.058027 14058 net.cpp:425] inception_5a/5x5 <- inception_5a/5x5_reduce
I0403 15:03:42.058049 14058 net.cpp:399] inception_5a/5x5 -> inception_5a/5x5
I0403 15:03:42.059782 14058 net.cpp:141] Setting up inception_5a/5x5
I0403 15:03:42.059823 14058 net.cpp:148] Top shape: 24 128 7 7 (150528)
I0403 15:03:42.059840 14058 net.cpp:156] Memory required for data: 1299953184
I0403 15:03:42.059859 14058 layer_factory.hpp:77] Creating layer inception_5a/relu_5x5
I0403 15:03:42.059878 14058 net.cpp:91] Creating Layer inception_5a/relu_5x5
I0403 15:03:42.059896 14058 net.cpp:425] inception_5a/relu_5x5 <- inception_5a/5x5
I0403 15:03:42.059916 14058 net.cpp:386] inception_5a/relu_5x5 -> inception_5a/5x5 (in-place)
I0403 15:03:42.060106 14058 net.cpp:141] Setting up inception_5a/relu_5x5
I0403 15:03:42.060132 14058 net.cpp:148] Top shape: 24 128 7 7 (150528)
I0403 15:03:42.060148 14058 net.cpp:156] Memory required for data: 1300555296
I0403 15:03:42.060163 14058 layer_factory.hpp:77] Creating layer inception_5a/pool
I0403 15:03:42.060183 14058 net.cpp:91] Creating Layer inception_5a/pool
I0403 15:03:42.060200 14058 net.cpp:425] inception_5a/pool <- pool4/3x3_s2_pool4/3x3_s2_0_split_3
I0403 15:03:42.060220 14058 net.cpp:399] inception_5a/pool -> inception_5a/pool
I0403 15:03:42.060291 14058 net.cpp:141] Setting up inception_5a/pool
I0403 15:03:42.060315 14058 net.cpp:148] Top shape: 24 832 7 7 (978432)
I0403 15:03:42.060331 14058 net.cpp:156] Memory required for data: 1304469024
I0403 15:03:42.060348 14058 layer_factory.hpp:77] Creating layer inception_5a/pool_proj
I0403 15:03:42.060372 14058 net.cpp:91] Creating Layer inception_5a/pool_proj
I0403 15:03:42.060391 14058 net.cpp:425] inception_5a/pool_proj <- inception_5a/pool
I0403 15:03:42.060413 14058 net.cpp:399] inception_5a/pool_proj -> inception_5a/pool_proj
I0403 15:03:42.062759 14058 net.cpp:141] Setting up inception_5a/pool_proj
I0403 15:03:42.062793 14058 net.cpp:148] Top shape: 24 128 7 7 (150528)
I0403 15:03:42.062811 14058 net.cpp:156] Memory required for data: 1305071136
I0403 15:03:42.062829 14058 layer_factory.hpp:77] Creating layer inception_5a/relu_pool_proj
I0403 15:03:42.062849 14058 net.cpp:91] Creating Layer inception_5a/relu_pool_proj
I0403 15:03:42.062867 14058 net.cpp:425] inception_5a/relu_pool_proj <- inception_5a/pool_proj
I0403 15:03:42.062888 14058 net.cpp:386] inception_5a/relu_pool_proj -> inception_5a/pool_proj (in-place)
I0403 15:03:42.063186 14058 net.cpp:141] Setting up inception_5a/relu_pool_proj
I0403 15:03:42.063215 14058 net.cpp:148] Top shape: 24 128 7 7 (150528)
I0403 15:03:42.063233 14058 net.cpp:156] Memory required for data: 1305673248
I0403 15:03:42.063249 14058 layer_factory.hpp:77] Creating layer inception_5a/output
I0403 15:03:42.063267 14058 net.cpp:91] Creating Layer inception_5a/output
I0403 15:03:42.063282 14058 net.cpp:425] inception_5a/output <- inception_5a/1x1
I0403 15:03:42.063302 14058 net.cpp:425] inception_5a/output <- inception_5a/3x3
I0403 15:03:42.063318 14058 net.cpp:425] inception_5a/output <- inception_5a/5x5
I0403 15:03:42.063335 14058 net.cpp:425] inception_5a/output <- inception_5a/pool_proj
I0403 15:03:42.063354 14058 net.cpp:399] inception_5a/output -> inception_5a/output
I0403 15:03:42.063406 14058 net.cpp:141] Setting up inception_5a/output
I0403 15:03:42.063431 14058 net.cpp:148] Top shape: 24 832 7 7 (978432)
I0403 15:03:42.063446 14058 net.cpp:156] Memory required for data: 1309586976
I0403 15:03:42.063460 14058 layer_factory.hpp:77] Creating layer inception_5a/output_inception_5a/output_0_split
I0403 15:03:42.063482 14058 net.cpp:91] Creating Layer inception_5a/output_inception_5a/output_0_split
I0403 15:03:42.063498 14058 net.cpp:425] inception_5a/output_inception_5a/output_0_split <- inception_5a/output
I0403 15:03:42.063516 14058 net.cpp:399] inception_5a/output_inception_5a/output_0_split -> inception_5a/output_inception_5a/output_0_split_0
I0403 15:03:42.063540 14058 net.cpp:399] inception_5a/output_inception_5a/output_0_split -> inception_5a/output_inception_5a/output_0_split_1
I0403 15:03:42.063562 14058 net.cpp:399] inception_5a/output_inception_5a/output_0_split -> inception_5a/output_inception_5a/output_0_split_2
I0403 15:03:42.063587 14058 net.cpp:399] inception_5a/output_inception_5a/output_0_split -> inception_5a/output_inception_5a/output_0_split_3
I0403 15:03:42.063700 14058 net.cpp:141] Setting up inception_5a/output_inception_5a/output_0_split
I0403 15:03:42.063724 14058 net.cpp:148] Top shape: 24 832 7 7 (978432)
I0403 15:03:42.063740 14058 net.cpp:148] Top shape: 24 832 7 7 (978432)
I0403 15:03:42.063755 14058 net.cpp:148] Top shape: 24 832 7 7 (978432)
I0403 15:03:42.063771 14058 net.cpp:148] Top shape: 24 832 7 7 (978432)
I0403 15:03:42.063783 14058 net.cpp:156] Memory required for data: 1325241888
I0403 15:03:42.063797 14058 layer_factory.hpp:77] Creating layer inception_5b/1x1
I0403 15:03:42.063819 14058 net.cpp:91] Creating Layer inception_5b/1x1
I0403 15:03:42.063838 14058 net.cpp:425] inception_5b/1x1 <- inception_5a/output_inception_5a/output_0_split_0
I0403 15:03:42.063858 14058 net.cpp:399] inception_5b/1x1 -> inception_5b/1x1
I0403 15:03:42.067667 14058 net.cpp:141] Setting up inception_5b/1x1
I0403 15:03:42.067699 14058 net.cpp:148] Top shape: 24 384 7 7 (451584)
I0403 15:03:42.067718 14058 net.cpp:156] Memory required for data: 1327048224
I0403 15:03:42.067736 14058 layer_factory.hpp:77] Creating layer inception_5b/relu_1x1
I0403 15:03:42.067756 14058 net.cpp:91] Creating Layer inception_5b/relu_1x1
I0403 15:03:42.067775 14058 net.cpp:425] inception_5b/relu_1x1 <- inception_5b/1x1
I0403 15:03:42.067792 14058 net.cpp:386] inception_5b/relu_1x1 -> inception_5b/1x1 (in-place)
I0403 15:03:42.068096 14058 net.cpp:141] Setting up inception_5b/relu_1x1
I0403 15:03:42.068126 14058 net.cpp:148] Top shape: 24 384 7 7 (451584)
I0403 15:03:42.068142 14058 net.cpp:156] Memory required for data: 1328854560
I0403 15:03:42.068158 14058 layer_factory.hpp:77] Creating layer inception_5b/3x3_reduce
I0403 15:03:42.068181 14058 net.cpp:91] Creating Layer inception_5b/3x3_reduce
I0403 15:03:42.068199 14058 net.cpp:425] inception_5b/3x3_reduce <- inception_5a/output_inception_5a/output_0_split_1
I0403 15:03:42.068219 14058 net.cpp:399] inception_5b/3x3_reduce -> inception_5b/3x3_reduce
I0403 15:03:42.070912 14058 net.cpp:141] Setting up inception_5b/3x3_reduce
I0403 15:03:42.070943 14058 net.cpp:148] Top shape: 24 192 7 7 (225792)
I0403 15:03:42.070962 14058 net.cpp:156] Memory required for data: 1329757728
I0403 15:03:42.070981 14058 layer_factory.hpp:77] Creating layer inception_5b/relu_3x3_reduce
I0403 15:03:42.071002 14058 net.cpp:91] Creating Layer inception_5b/relu_3x3_reduce
I0403 15:03:42.071018 14058 net.cpp:425] inception_5b/relu_3x3_reduce <- inception_5b/3x3_reduce
I0403 15:03:42.071040 14058 net.cpp:386] inception_5b/relu_3x3_reduce -> inception_5b/3x3_reduce (in-place)
I0403 15:03:42.071233 14058 net.cpp:141] Setting up inception_5b/relu_3x3_reduce
I0403 15:03:42.071260 14058 net.cpp:148] Top shape: 24 192 7 7 (225792)
I0403 15:03:42.071276 14058 net.cpp:156] Memory required for data: 1330660896
I0403 15:03:42.071293 14058 layer_factory.hpp:77] Creating layer inception_5b/3x3
I0403 15:03:42.071316 14058 net.cpp:91] Creating Layer inception_5b/3x3
I0403 15:03:42.071336 14058 net.cpp:425] inception_5b/3x3 <- inception_5b/3x3_reduce
I0403 15:03:42.071360 14058 net.cpp:399] inception_5b/3x3 -> inception_5b/3x3
I0403 15:03:42.078104 14058 net.cpp:141] Setting up inception_5b/3x3
I0403 15:03:42.078136 14058 net.cpp:148] Top shape: 24 384 7 7 (451584)
I0403 15:03:42.078155 14058 net.cpp:156] Memory required for data: 1332467232
I0403 15:03:42.078174 14058 layer_factory.hpp:77] Creating layer inception_5b/relu_3x3
I0403 15:03:42.078194 14058 net.cpp:91] Creating Layer inception_5b/relu_3x3
I0403 15:03:42.078212 14058 net.cpp:425] inception_5b/relu_3x3 <- inception_5b/3x3
I0403 15:03:42.078233 14058 net.cpp:386] inception_5b/relu_3x3 -> inception_5b/3x3 (in-place)
I0403 15:03:42.078532 14058 net.cpp:141] Setting up inception_5b/relu_3x3
I0403 15:03:42.078567 14058 net.cpp:148] Top shape: 24 384 7 7 (451584)
I0403 15:03:42.078583 14058 net.cpp:156] Memory required for data: 1334273568
I0403 15:03:42.078598 14058 layer_factory.hpp:77] Creating layer inception_5b/5x5_reduce
I0403 15:03:42.078639 14058 net.cpp:91] Creating Layer inception_5b/5x5_reduce
I0403 15:03:42.078658 14058 net.cpp:425] inception_5b/5x5_reduce <- inception_5a/output_inception_5a/output_0_split_2
I0403 15:03:42.078677 14058 net.cpp:399] inception_5b/5x5_reduce -> inception_5b/5x5_reduce
I0403 15:03:42.079962 14058 net.cpp:141] Setting up inception_5b/5x5_reduce
I0403 15:03:42.079993 14058 net.cpp:148] Top shape: 24 48 7 7 (56448)
I0403 15:03:42.080011 14058 net.cpp:156] Memory required for data: 1334499360
I0403 15:03:42.080031 14058 layer_factory.hpp:77] Creating layer inception_5b/relu_5x5_reduce
I0403 15:03:42.080050 14058 net.cpp:91] Creating Layer inception_5b/relu_5x5_reduce
I0403 15:03:42.080068 14058 net.cpp:425] inception_5b/relu_5x5_reduce <- inception_5b/5x5_reduce
I0403 15:03:42.080086 14058 net.cpp:386] inception_5b/relu_5x5_reduce -> inception_5b/5x5_reduce (in-place)
I0403 15:03:42.080461 14058 net.cpp:141] Setting up inception_5b/relu_5x5_reduce
I0403 15:03:42.080489 14058 net.cpp:148] Top shape: 24 48 7 7 (56448)
I0403 15:03:42.080507 14058 net.cpp:156] Memory required for data: 1334725152
I0403 15:03:42.080523 14058 layer_factory.hpp:77] Creating layer inception_5b/5x5
I0403 15:03:42.080557 14058 net.cpp:91] Creating Layer inception_5b/5x5
I0403 15:03:42.080576 14058 net.cpp:425] inception_5b/5x5 <- inception_5b/5x5_reduce
I0403 15:03:42.080595 14058 net.cpp:399] inception_5b/5x5 -> inception_5b/5x5
I0403 15:03:42.082645 14058 net.cpp:141] Setting up inception_5b/5x5
I0403 15:03:42.082674 14058 net.cpp:148] Top shape: 24 128 7 7 (150528)
I0403 15:03:42.082690 14058 net.cpp:156] Memory required for data: 1335327264
I0403 15:03:42.082708 14058 layer_factory.hpp:77] Creating layer inception_5b/relu_5x5
I0403 15:03:42.082726 14058 net.cpp:91] Creating Layer inception_5b/relu_5x5
I0403 15:03:42.082742 14058 net.cpp:425] inception_5b/relu_5x5 <- inception_5b/5x5
I0403 15:03:42.082762 14058 net.cpp:386] inception_5b/relu_5x5 -> inception_5b/5x5 (in-place)
I0403 15:03:42.082952 14058 net.cpp:141] Setting up inception_5b/relu_5x5
I0403 15:03:42.082976 14058 net.cpp:148] Top shape: 24 128 7 7 (150528)
I0403 15:03:42.082993 14058 net.cpp:156] Memory required for data: 1335929376
I0403 15:03:42.083008 14058 layer_factory.hpp:77] Creating layer inception_5b/pool
I0403 15:03:42.083029 14058 net.cpp:91] Creating Layer inception_5b/pool
I0403 15:03:42.083045 14058 net.cpp:425] inception_5b/pool <- inception_5a/output_inception_5a/output_0_split_3
I0403 15:03:42.083065 14058 net.cpp:399] inception_5b/pool -> inception_5b/pool
I0403 15:03:42.083138 14058 net.cpp:141] Setting up inception_5b/pool
I0403 15:03:42.083161 14058 net.cpp:148] Top shape: 24 832 7 7 (978432)
I0403 15:03:42.083176 14058 net.cpp:156] Memory required for data: 1339843104
I0403 15:03:42.083190 14058 layer_factory.hpp:77] Creating layer inception_5b/pool_proj
I0403 15:03:42.083214 14058 net.cpp:91] Creating Layer inception_5b/pool_proj
I0403 15:03:42.083230 14058 net.cpp:425] inception_5b/pool_proj <- inception_5b/pool
I0403 15:03:42.083259 14058 net.cpp:399] inception_5b/pool_proj -> inception_5b/pool_proj
I0403 15:03:42.085525 14058 net.cpp:141] Setting up inception_5b/pool_proj
I0403 15:03:42.085562 14058 net.cpp:148] Top shape: 24 128 7 7 (150528)
I0403 15:03:42.085580 14058 net.cpp:156] Memory required for data: 1340445216
I0403 15:03:42.085600 14058 layer_factory.hpp:77] Creating layer inception_5b/relu_pool_proj
I0403 15:03:42.085618 14058 net.cpp:91] Creating Layer inception_5b/relu_pool_proj
I0403 15:03:42.085635 14058 net.cpp:425] inception_5b/relu_pool_proj <- inception_5b/pool_proj
I0403 15:03:42.085654 14058 net.cpp:386] inception_5b/relu_pool_proj -> inception_5b/pool_proj (in-place)
I0403 15:03:42.085943 14058 net.cpp:141] Setting up inception_5b/relu_pool_proj
I0403 15:03:42.085970 14058 net.cpp:148] Top shape: 24 128 7 7 (150528)
I0403 15:03:42.085984 14058 net.cpp:156] Memory required for data: 1341047328
I0403 15:03:42.085999 14058 layer_factory.hpp:77] Creating layer inception_5b/output
I0403 15:03:42.086015 14058 net.cpp:91] Creating Layer inception_5b/output
I0403 15:03:42.086045 14058 net.cpp:425] inception_5b/output <- inception_5b/1x1
I0403 15:03:42.086062 14058 net.cpp:425] inception_5b/output <- inception_5b/3x3
I0403 15:03:42.086078 14058 net.cpp:425] inception_5b/output <- inception_5b/5x5
I0403 15:03:42.086094 14058 net.cpp:425] inception_5b/output <- inception_5b/pool_proj
I0403 15:03:42.086112 14058 net.cpp:399] inception_5b/output -> inception_5b/output
I0403 15:03:42.086163 14058 net.cpp:141] Setting up inception_5b/output
I0403 15:03:42.086185 14058 net.cpp:148] Top shape: 24 1024 7 7 (1204224)
I0403 15:03:42.086199 14058 net.cpp:156] Memory required for data: 1345864224
I0403 15:03:42.086213 14058 layer_factory.hpp:77] Creating layer pool5/7x7_s1
I0403 15:03:42.086232 14058 net.cpp:91] Creating Layer pool5/7x7_s1
I0403 15:03:42.086248 14058 net.cpp:425] pool5/7x7_s1 <- inception_5b/output
I0403 15:03:42.086266 14058 net.cpp:399] pool5/7x7_s1 -> pool5/7x7_s1
I0403 15:03:42.086477 14058 net.cpp:141] Setting up pool5/7x7_s1
I0403 15:03:42.086501 14058 net.cpp:148] Top shape: 24 1024 1 1 (24576)
I0403 15:03:42.086515 14058 net.cpp:156] Memory required for data: 1345962528
I0403 15:03:42.086529 14058 layer_factory.hpp:77] Creating layer pool5/drop_7x7_s1
I0403 15:03:42.086551 14058 net.cpp:91] Creating Layer pool5/drop_7x7_s1
I0403 15:03:42.086566 14058 net.cpp:425] pool5/drop_7x7_s1 <- pool5/7x7_s1
I0403 15:03:42.086585 14058 net.cpp:386] pool5/drop_7x7_s1 -> pool5/7x7_s1 (in-place)
I0403 15:03:42.086633 14058 net.cpp:141] Setting up pool5/drop_7x7_s1
I0403 15:03:42.086658 14058 net.cpp:148] Top shape: 24 1024 1 1 (24576)
I0403 15:03:42.086674 14058 net.cpp:156] Memory required for data: 1346060832
I0403 15:03:42.086688 14058 layer_factory.hpp:77] Creating layer loss3/classifier_plantvillage
I0403 15:03:42.086705 14058 net.cpp:91] Creating Layer loss3/classifier_plantvillage
I0403 15:03:42.086720 14058 net.cpp:425] loss3/classifier_plantvillage <- pool5/7x7_s1
I0403 15:03:42.086740 14058 net.cpp:399] loss3/classifier_plantvillage -> loss3/classifier_plantvillage
I0403 15:03:42.087158 14058 net.cpp:141] Setting up loss3/classifier_plantvillage
I0403 15:03:42.087182 14058 net.cpp:148] Top shape: 24 38 (912)
I0403 15:03:42.087196 14058 net.cpp:156] Memory required for data: 1346064480
I0403 15:03:42.087213 14058 layer_factory.hpp:77] Creating layer loss3/classifier_plantvillage_loss3/classifier_plantvillage_0_split
I0403 15:03:42.087232 14058 net.cpp:91] Creating Layer loss3/classifier_plantvillage_loss3/classifier_plantvillage_0_split
I0403 15:03:42.087249 14058 net.cpp:425] loss3/classifier_plantvillage_loss3/classifier_plantvillage_0_split <- loss3/classifier_plantvillage
I0403 15:03:42.087266 14058 net.cpp:399] loss3/classifier_plantvillage_loss3/classifier_plantvillage_0_split -> loss3/classifier_plantvillage_loss3/classifier_plantvillage_0_split_0
I0403 15:03:42.087285 14058 net.cpp:399] loss3/classifier_plantvillage_loss3/classifier_plantvillage_0_split -> loss3/classifier_plantvillage_loss3/classifier_plantvillage_0_split_1
I0403 15:03:42.087307 14058 net.cpp:399] loss3/classifier_plantvillage_loss3/classifier_plantvillage_0_split -> loss3/classifier_plantvillage_loss3/classifier_plantvillage_0_split_2
I0403 15:03:42.087328 14058 net.cpp:399] loss3/classifier_plantvillage_loss3/classifier_plantvillage_0_split -> loss3/classifier_plantvillage_loss3/classifier_plantvillage_0_split_3
I0403 15:03:42.087430 14058 net.cpp:141] Setting up loss3/classifier_plantvillage_loss3/classifier_plantvillage_0_split
I0403 15:03:42.087451 14058 net.cpp:148] Top shape: 24 38 (912)
I0403 15:03:42.087467 14058 net.cpp:148] Top shape: 24 38 (912)
I0403 15:03:42.087481 14058 net.cpp:148] Top shape: 24 38 (912)
I0403 15:03:42.087496 14058 net.cpp:148] Top shape: 24 38 (912)
I0403 15:03:42.087509 14058 net.cpp:156] Memory required for data: 1346079072
I0403 15:03:42.087522 14058 layer_factory.hpp:77] Creating layer loss1/loss
I0403 15:03:42.087545 14058 net.cpp:91] Creating Layer loss1/loss
I0403 15:03:42.087564 14058 net.cpp:425] loss1/loss <- loss1/classifier_plantvillage_loss1/classifier_plantvillage_0_split_0
I0403 15:03:42.087594 14058 net.cpp:425] loss1/loss <- label_data_1_split_0
…
