…
I0403 15:22:52.432453 14699 net.cpp:313] The NetState phase (1) differed from the phase (0) specified by a rule in layer data
I0403 15:22:52.433603 14699 net.cpp:49] Initializing net from parameters: 
state {
  phase: TEST
}
layer {
  name: "data"
  type: "Data"
  top: "data"
  top: "label"
  include {
    phase: TEST
  }
  transform_param {
    mirror: false
    crop_size: 224
    mean_file: "/home/mohanty/data/final_dataset/lmdb/color-50-50/mean.binaryproto"
  }
  data_param {
    source: "/home/mohanty/data/final_dataset/lmdb/color-50-50/test_db"
    batch_size: 24
    backend: LMDB
  }
}
layer {
  name: "conv1/7x7_s2"
  type: "Convolution"
  bottom: "data"
  top: "conv1/7x7_s2"
  param {
    lr_mult: 1
    decay_mult: 1
  }
  param {
    lr_mult: 2
    decay_mult: 0
  }
  convolution_param {
    num_output: 64
    pad: 3
    kernel_size: 7
    stride: 2
    weight_filler {
      type: "xavier"
      std: 0.1
    }
    bias_filler {
      type: "constant"
      value: 0.2
    }
  }
}
layer {
  name: "conv1/relu_7x7"
  type: "ReLU"
  bottom: "conv1/7x7_s2"
  top: "conv1/7x7_s2"
}
layer {
  name: "pool1/3x3_s2"
  type: "Pooling"
  bottom: "conv1/7x7_s2"
  top: "pool1/3x3_s2"
  pooling_param {
    pool: MAX
    kernel_size: 3
    stride: 2
  }
}
layer {
  name: "pool1/norm1"
  type: "LRN"
  bottom: "pool1/3x3_s2"
  top: "pool1/norm1"
  lrn_param {
    local_size: 5
    alpha: 0.0001
    beta: 0.75
  }
}
layer {
  name: "conv2/3x3_reduce"
  type: "Convolution"
  bottom: "pool1/norm1"
  top: "conv2/3x3_reduce"
  param {
    lr_mult: 1
    decay_mult: 1
  }
  param {
    lr_mult: 2
    decay_mult: 0
  }
  convolution_param {
    num_output: 64
    kernel_size: 1
    weight_filler {
      type: "xavier"
      std: 0.1
    }
    bias_filler {
      type: "constant"
      value: 0.2
    }
  }
}
layer {
  name: "conv2/relu_3x3_reduce"
  type: "ReLU"
  bottom: "conv2/3x3_reduce"
  top: "conv2/3x3_reduce"
}
layer {
  name: "conv2/3x3"
  type: "Convolution"
  bottom: "conv2/3x3_reduce"
  top: "conv2/3x3"
  param {
    lr_mult: 1
    decay_mult: 1
  }
  param {
    lr_mult: 2
    decay_mult: 0
  }
  convolution_param {
    num_output: 192
    pad: 1
    kernel_size: 3
    weight_filler {
      type: "xavier"
      std: 0.03
    }
    bias_filler {
      type: "constant"
      value: 0.2
    }
  }
}
layer {
  name: "conv2/relu_3x3"
  type: "ReLU"
  bottom: "conv2/3x3"
  top: "conv2/3x3"
}
layer {
  name: "conv2/norm2"
  type: "LRN"
  bottom: "conv2/3x3"
  top: "conv2/norm2"
  lrn_param {
    local_size: 5
    alpha: 0.0001
    beta: 0.75
  }
}
layer {
  name: "pool2/3x3_s2"
  type: "Pooling"
  bottom: "conv2/norm2"
  top: "pool2/3x3_s2"
  pooling_param {
    pool: MAX
    kernel_size: 3
    stride: 2
  }
}
layer {
  name: "inception_3a/1x1"
  type: "Convolution"
  bottom: "pool2/3x3_s2"
  top: "inception_3a/1x1"
  param {
    lr_mult: 1
    decay_mult: 1
  }
  param {
    lr_mult: 2
    decay_mult: 0
  }
  convolution_param {
    num_output: 64
    kernel_size: 1
    weight_filler {
      type: "xavier"
      std: 0.03
    }
    bias_filler {
      type: "constant"
      value: 0.2
    }
  }
}
layer {
  name: "inception_3a/relu_1x1"
  type: "ReLU"
  bottom: "inception_3a/1x1"
  top: "inception_3a/1x1"
}
layer {
  name: "inception_3a/3x3_reduce"
  type: "Convolution"
  bottom: "pool2/3x3_s2"
  top: "inception_3a/3x3_reduce"
  param {
    lr_mult: 1
    decay_mult: 1
  }
  param {
    lr_mult: 2
    decay_mult: 0
  }
  convolution_param {
    num_output: 96
    kernel_size: 1
    weight_filler {
      type: "xavier"
      std: 0.09
    }
    bias_filler {
      type: "constant"
      value: 0.2
    }
  }
}
layer {
  name: "inception_3a/relu_3x3_reduce"
  type: "ReLU"
  bottom: "inception_3a/3x3_reduce"
  top: "inception_3a/3x3_reduce"
}
layer {
  name: "inception_3a/3x3"
  type: "Convolution"
  bottom: "inception_3a/3x3_reduce"
  top: "inception_3a/3x3"
  param {
    lr_mult: 1
    decay_mult: 1
  }
  param {
    lr_mult: 2
    decay_mult: 0
  }
  convolution_param {
    num_output: 128
    pad: 1
    kernel_size: 3
    weight_filler {
      type: "xavier"
      std: 0.03
    }
    bias_filler {
      type: "constant"
      value: 0.2
    }
  }
}
layer {
  name: "inception_3a/relu_3x3"
  type: "ReLU"
  bottom: "inception_3a/3x3"
  top: "inception_3a/3x3"
}
layer {
  name: "inception_3a/5x5_reduce"
  type: "Convolution"
  bottom: "pool2/3x3_s2"
  top: "inception_3a/5x5_reduce"
  param {
    lr_mult: 1
    decay_mult: 1
  }
  param {
    lr_mult: 2
    decay_mult: 0
  }
  convolution_param {
    num_output: 16
    kernel_size: 1
    weight_filler {
      type: "xavier"
      std: 0.2
    }
    bias_filler {
      type: "constant"
      value: 0.2
    }
  }
}
layer {
  name: "inception_3a/relu_5x5_reduce"
  type: "ReLU"
  bottom: "inception_3a/5x5_reduce"
  top: "inception_3a/5x5_reduce"
}
layer {
  name: "inception_3a/5x5"
  type: "Convolution"
  bottom: "inception_3a/5x5_reduce"
  top: "inception_3a/5x5"
  param {
    lr_mult: 1
    decay_mult: 1
  }
  param {
    lr_mult: 2
    decay_mult: 0
  }
  convolution_param {
    num_output: 32
    pad: 2
    kernel_size: 5
    weight_filler {
      type: "xavier"
      std: 0.03
    }
    bias_filler {
      type: "constant"
      value: 0.2
    }
  }
}
layer {
  name: "inception_3a/relu_5x5"
  type: "ReLU"
  bottom: "inception_3a/5x5"
  top: "inception_3a/5x5"
}
layer {
  name: "inception_3a/pool"
  type: "Pooling"
  bottom: "pool2/3x3_s2"
  top: "inception_3a/pool"
  pooling_param {
    pool: MAX
    kernel_size: 3
    stride: 1
    pad: 1
  }
}
layer {
  name: "inception_3a/pool_proj"
  type: "Convolution"
  bottom: "inception_3a/pool"
  top: "inception_3a/pool_proj"
  param {
    lr_mult: 1
    decay_mult: 1
  }
  param {
    lr_mult: 2
    decay_mult: 0
  }
  convolution_param {
    num_output: 32
    kernel_size: 1
    weight_filler {
      type: "xavier"
      std: 0.1
    }
    bias_filler {
      type: "constant"
      value: 0.2
    }
  }
}
layer {
  name: "inception_3a/relu_pool_proj"
  type: "ReLU"
  bottom: "inception_3a/pool_proj"
  top: "inception_3a/pool_proj"
}
layer {
  name: "inception_3a/output"
  type: "Concat"
  bottom: "inception_3a/1x1"
  bottom: "inception_3a/3x3"
  bottom: "inception_3a/5x5"
  bottom: "inception_3a/pool_proj"
  top: "inception_3a/output"
}
layer {
  name: "inception_3b/1x1"
  type: "Convolution"
  bottom: "inception_3a/output"
  top: "inception_3b/1x1"
  param {
    lr_mult: 1
    decay_mult: 1
  }
  param {
    lr_mult: 2
    decay_mult: 0
  }
  convolution_param {
    num_output: 128
    kernel_size: 1
    weight_filler {
      type: "xavier"
      std: 0.03
    }
    bias_filler {
      type: "constant"
      value: 0.2
    }
  }
}
layer {
  name: "inception_3b/relu_1x1"
  type: "ReLU"
  bottom: "inception_3b/1x1"
  top: "inception_3b/1x1"
}
layer {
  name: "inception_3b/3x3_reduce"
  type: "Convolution"
  bottom: "inception_3a/output"
  top: "inception_3b/3x3_reduce"
  param {
    lr_mult: 1
    decay_mult: 1
  }
  param {
    lr_mult: 2
    decay_mult: 0
  }
  convolution_param {
    num_output: 128
    kernel_size: 1
    weight_filler {
      type: "xavier"
      std: 0.09
    }
    bias_filler {
      type: "constant"
      value: 0.2
    }
  }
}
layer {
  name: "inception_3b/relu_3x3_reduce"
  type: "ReLU"
  bottom: "inception_3b/3x3_reduce"
  top: "inception_3b/3x3_reduce"
}
layer {
  name: "inception_3b/3x3"
  type: "Convolution"
  bottom: "inception_3b/3x3_reduce"
  top: "inception_3b/3x3"
  param {
    lr_mult: 1
    decay_mult: 1
  }
  param {
    lr_mult: 2
    decay_mult: 0
  }
  convolution_param {
    num_output: 192
    pad: 1
    kernel_size: 3
    weight_filler {
      type: "xavier"
      std: 0.03
    }
    bias_filler {
      type: "constant"
      value: 0.2
    }
  }
}
layer {
  name: "inception_3b/relu_3x3"
  type: "ReLU"
  bottom: "inception_3b/3x3"
  top: "inception_3b/3x3"
}
layer {
  name: "inception_3b/5x5_reduce"
  type: "Convolution"
  bottom: "inception_3a/output"
  top: "inception_3b/5x5_reduce"
  param {
    lr_mult: 1
    decay_mult: 1
  }
  param {
    lr_mult: 2
    decay_mult: 0
  }
  convolution_param {
    num_output: 32
    kernel_size: 1
    weight_filler {
      type: "xavier"
      std: 0.2
    }
    bias_filler {
      type: "constant"
      value: 0.2
    }
  }
}
layer {
  name: "inception_3b/relu_5x5_reduce"
  type: "ReLU"
  bottom: "inception_3b/5x5_reduce"
  top: "inception_3b/5x5_reduce"
}
layer {
  name: "inception_3b/5x5"
  type: "Convolution"
  bottom: "inception_3b/5x5_reduce"
  top: "inception_3b/5x5"
  param {
    lr_mult: 1
    decay_mult: 1
  }
  param {
    lr_mult: 2
    decay_mult: 0
  }
  convolution_param {
    num_output: 96
    pad: 2
    kernel_size: 5
    weight_filler {
      type: "xavier"
      std: 0.03
    }
    bias_filler {
      type: "constant"
      value: 0.2
    }
  }
}
layer {
  name: "inception_3b/relu_5x5"
  type: "ReLU"
  bottom: "inception_3b/5x5"
  top: "inception_3b/5x5"
}
layer {
  name: "inception_3b/pool"
  type: "Pooling"
  bottom: "inception_3a/output"
  top: "inception_3b/pool"
  pooling_param {
    pool: MAX
    kernel_size: 3
    stride: 1
    pad: 1
  }
}
layer {
  name: "inception_3b/pool_proj"
  type: "Convolution"
  bottom: "inception_3b/pool"
  top: "inception_3b/pool_proj"
  param {
    lr_mult: 1
    decay_mult: 1
  }
  param {
    lr_mult: 2
    decay_mult: 0
  }
  convolution_param {
    num_output: 64
    kernel_size: 1
    weight_filler {
      type: "xavier"
      std: 0.1
    }
    bias_filler {
      type: "constant"
      value: 0.2
    }
  }
}
layer {
  name: "inception_3b/relu_pool_proj"
  type: "ReLU"
  bottom: "inception_3b/pool_proj"
  top: "inception_3b/pool_proj"
}
layer {
  name: "inception_3b/output"
  type: "Concat"
  bottom: "inception_3b/1x1"
  bottom: "inception_3b/3x3"
  bottom: "inception_3b/5x5"
  bottom: "inception_3b/pool_proj"
  top: "inception_3b/output"
}
layer {
  name: "pool3/3x3_s2"
  type: "Pooling"
  bottom: "inception_3b/output"
  top: "pool3/3x3_s2"
  pooling_param {
    pool: MAX
    kernel_size: 3
    stride: 2
  }
}
layer {
  name: "inception_4a/1x1"
  type: "Convolution"
  bottom: "pool3/3x3_s2"
  top: "inception_4a/1x1"
  param {
    lr_mult: 1
    decay_mult: 1
  }
  param {
    lr_mult: 2
    decay_mult: 0
  }
  convolution_param {
    num_output: 192
    kernel_size: 1
    weight_filler {
      type: "xavier"
      std: 0.03
    }
    bias_filler {
      type: "constant"
      value: 0.2
    }
  }
}
layer {
  name: "inception_4a/relu_1x1"
  type: "ReLU"
  bottom: "inception_4a/1x1"
  top: "inception_4a/1x1"
}
layer {
  name: "inception_4a/3x3_reduce"
  type: "Convolution"
  bottom: "pool3/3x3_s2"
  top: "inception_4a/3x3_reduce"
  param {
    lr_mult: 1
    decay_mult: 1
  }
  param {
    lr_mult: 2
    decay_mult: 0
  }
  convolution_param {
    num_output: 96
    kernel_size: 1
    weight_filler {
      type: "xavier"
      std: 0.09
    }
    bias_filler {
      type: "constant"
      value: 0.2
    }
  }
}
layer {
  name: "inception_4a/relu_3x3_reduce"
  type: "ReLU"
  bottom: "inception_4a/3x3_reduce"
  top: "inception_4a/3x3_reduce"
}
layer {
  name: "inception_4a/3x3"
  type: "Convolution"
  bottom: "inception_4a/3x3_reduce"
  top: "inception_4a/3x3"
  param {
    lr_mult: 1
    decay_mult: 1
  }
  param {
    lr_mult: 2
    decay_mult: 0
  }
  convolution_param {
    num_output: 208
    pad: 1
    kernel_size: 3
    weight_filler {
      type: "xavier"
      std: 0.03
    }
    bias_filler {
      type: "constant"
      value: 0.2
    }
  }
}
layer {
  name: "inception_4a/relu_3x3"
  type: "ReLU"
  bottom: "inception_4a/3x3"
  top: "inception_4a/3x3"
}
layer {
  name: "inception_4a/5x5_reduce"
  type: "Convolution"
  bottom: "pool3/3x3_s2"
  top: "inception_4a/5x5_reduce"
  param {
    lr_mult: 1
    decay_mult: 1
  }
  param {
    lr_mult: 2
    decay_mult: 0
  }
  convolution_param {
    num_output: 16
    kernel_size: 1
    weight_filler {
      type: "xavier"
      std: 0.2
    }
    bias_filler {
      type: "constant"
      value: 0.2
    }
  }
}
layer {
  name: "inception_4a/relu_5x5_reduce"
  type: "ReLU"
  bottom: "inception_4a/5x5_reduce"
  top: "inception_4a/5x5_reduce"
}
layer {
  name: "inception_4a/5x5"
  type: "Convolution"
  bottom: "inception_4a/5x5_reduce"
  top: "inception_4a/5x5"
  param {
    lr_mult: 1
    decay_mult: 1
  }
  param {
    lr_mult: 2
    decay_mult: 0
  }
  convolution_param {
    num_output: 48
    pad: 2
    kernel_size: 5
    weight_filler {
      type: "xavier"
      std: 0.03
    }
    bias_filler {
      type: "constant"
      value: 0.2
    }
  }
}
layer {
  name: "inception_4a/relu_5x5"
  type: "ReLU"
  bottom: "inception_4a/5x5"
  top: "inception_4a/5x5"
}
layer {
  name: "inception_4a/pool"
  type: "Pooling"
  bottom: "pool3/3x3_s2"
  top: "inception_4a/pool"
  pooling_param {
    pool: MAX
    kernel_size: 3
    stride: 1
    pad: 1
  }
}
layer {
  name: "inception_4a/pool_proj"
  type: "Convolution"
  bottom: "inception_4a/pool"
  top: "inception_4a/pool_proj"
  param {
    lr_mult: 1
    decay_mult: 1
  }
  param {
    lr_mult: 2
    decay_mult: 0
  }
  convolution_param {
    num_output: 64
    kernel_size: 1
    weight_filler {
      type: "xavier"
      std: 0.1
    }
    bias_filler {
      type: "constant"
      value: 0.2
    }
  }
}
layer {
  name: "inception_4a/relu_pool_proj"
  type: "ReLU"
  bottom: "inception_4a/pool_proj"
  top: "inception_4a/pool_proj"
}
layer {
  name: "inception_4a/output"
  type: "Concat"
  bottom: "inception_4a/1x1"
  bottom: "inception_4a/3x3"
  bottom: "inception_4a/5x5"
  bottom: "inception_4a/pool_proj"
  top: "inception_4a/output"
}
layer {
  name: "loss1/ave_pool"
  type: "Pooling"
  bottom: "inception_4a/output"
  top: "loss1/ave_pool"
  pooling_param {
    pool: AVE
    kernel_size: 5
    stride: 3
  }
}
layer {
  name: "loss1/conv"
  type: "Convolution"
  bottom: "loss1/ave_pool"
  top: "loss1/conv"
  param {
    lr_mult: 1
    decay_mult: 1
  }
  param {
    lr_mult: 2
    decay_mult: 0
  }
  convolution_param {
    num_output: 128
    kernel_size: 1
    weight_filler {
      type: "xavier"
      std: 0.08
    }
    bias_filler {
      type: "constant"
      value: 0.2
    }
  }
}
layer {
  name: "loss1/relu_conv"
  type: "ReLU"
  bottom: "loss1/conv"
  top: "loss1/conv"
}
layer {
  name: "loss1/fc"
  type: "InnerProduct"
  bottom: "loss1/conv"
  top: "loss1/fc"
  param {
    lr_mult: 1
    decay_mult: 1
  }
  param {
    lr_mult: 2
    decay_mult: 0
  }
  inner_product_param {
    num_output: 1024
    weight_filler {
      type: "xavier"
      std: 0.02
    }
    bias_filler {
      type: "constant"
      value: 0.2
    }
  }
}
layer {
  name: "loss1/relu_fc"
  type: "ReLU"
  bottom: "loss1/fc"
  top: "loss1/fc"
}
layer {
  name: "loss1/drop_fc"
  type: "Dropout"
  bottom: "loss1/fc"
  top: "loss1/fc"
  dropout_param {
    dropout_ratio: 0.7
  }
}
layer {
  name: "loss1/classifier_plantvillage"
  type: "InnerProduct"
  bottom: "loss1/fc"
  top: "loss1/classifier_plantvillage"
  param {
    lr_mult: 1
    decay_mult: 1
  }
  param {
    lr_mult: 2
    decay_mult: 0
  }
  inner_product_param {
    num_output: 38
    weight_filler {
      type: "xavier"
      std: 0.0009765625
    }
    bias_filler {
      type: "constant"
      value: 0
    }
  }
}
layer {
  name: "inception_4b/1x1"
  type: "Convolution"
  bottom: "inception_4a/output"
  top: "inception_4b/1x1"
  param {
    lr_mult: 1
    decay_mult: 1
  }
  param {
    lr_mult: 2
    decay_mult: 0
  }
  convolution_param {
    num_output: 160
    kernel_size: 1
    weight_filler {
      type: "xavier"
      std: 0.03
    }
    bias_filler {
      type: "constant"
      value: 0.2
    }
  }
}
layer {
  name: "inception_4b/relu_1x1"
  type: "ReLU"
  bottom: "inception_4b/1x1"
  top: "inception_4b/1x1"
}
layer {
  name: "inception_4b/3x3_reduce"
  type: "Convolution"
  bottom: "inception_4a/output"
  top: "inception_4b/3x3_reduce"
  param {
    lr_mult: 1
    decay_mult: 1
  }
  param {
    lr_mult: 2
    decay_mult: 0
  }
  convolution_param {
    num_output: 112
    kernel_size: 1
    weight_filler {
      type: "xavier"
      std: 0.09
    }
    bias_filler {
      type: "constant"
      value: 0.2
    }
  }
}
layer {
  name: "inception_4b/relu_3x3_reduce"
  type: "ReLU"
  bottom: "inception_4b/3x3_reduce"
  top: "inception_4b/3x3_reduce"
}
layer {
  name: "inception_4b/3x3"
  type: "Convolution"
  bottom: "inception_4b/3x3_reduce"
  top: "inception_4b/3x3"
  param {
    lr_mult: 1
    decay_mult: 1
  }
  param {
    lr_mult: 2
    decay_mult: 0
  }
  convolution_param {
    num_output: 224
    pad: 1
    kernel_size: 3
    weight_filler {
      type: "xavier"
      std: 0.03
    }
    bias_filler {
      type: "constant"
      value: 0.2
    }
  }
}
layer {
  name: "inception_4b/relu_3x3"
  type: "ReLU"
  bottom: "inception_4b/3x3"
  top: "inception_4b/3x3"
}
layer {
  name: "inception_4b/5x5_reduce"
  type: "Convolution"
  bottom: "inception_4a/output"
  top: "inception_4b/5x5_reduce"
  param {
    lr_mult: 1
    decay_mult: 1
  }
  param {
    lr_mult: 2
    decay_mult: 0
  }
  convolution_param {
    num_output: 24
    kernel_size: 1
    weight_filler {
      type: "xavier"
      std: 0.2
    }
    bias_filler {
      type: "constant"
      value: 0.2
    }
  }
}
layer {
  name: "inception_4b/relu_5x5_reduce"
  type: "ReLU"
  bottom: "inception_4b/5x5_reduce"
  top: "inception_4b/5x5_reduce"
}
layer {
  name: "inception_4b/5x5"
  type: "Convolution"
  bottom: "inception_4b/5x5_reduce"
  top: "inception_4b/5x5"
  param {
    lr_mult: 1
    decay_mult: 1
  }
  param {
    lr_mult: 2
    decay_mult: 0
  }
  convolution_param {
    num_output: 64
    pad: 2
    kernel_size: 5
    weight_filler {
      type: "xavier"
      std: 0.03
    }
    bias_filler {
      type: "constant"
      value: 0.2
    }
  }
}
layer {
  name: "inception_4b/relu_5x5"
  type: "ReLU"
  bottom: "inception_4b/5x5"
  top: "inception_4b/5x5"
}
layer {
  name: "inception_4b/pool"
  type: "Pooling"
  bottom: "inception_4a/output"
  top: "inception_4b/pool"
  pooling_param {
    pool: MAX
    kernel_size: 3
    stride: 1
    pad: 1
  }
}
layer {
  name: "inception_4b/pool_proj"
  type: "Convolution"
  bottom: "inception_4b/pool"
  top: "inception_4b/pool_proj"
  param {
    lr_mult: 1
    decay_mult: 1
  }
  param {
    lr_mult: 2
    decay_mult: 0
  }
  convolution_param {
    num_output: 64
    kernel_size: 1
    weight_filler {
      type: "xavier"
      std: 0.1
    }
    bias_filler {
      type: "constant"
      value: 0.2
    }
  }
}
layer {
  name: "inception_4b/relu_pool_proj"
  type: "ReLU"
  bottom: "inception_4b/pool_proj"
  top: "inception_4b/pool_proj"
}
layer {
  name: "inception_4b/output"
  type: "Concat"
  bottom: "inception_4b/1x1"
  bottom: "inception_4b/3x3"
  bottom: "inception_4b/5x5"
  bottom: "inception_4b/pool_proj"
  top: "inception_4b/output"
}
layer {
  name: "inception_4c/1x1"
  type: "Convolution"
  bottom: "inception_4b/output"
  top: "inception_4c/1x1"
  param {
    lr_mult: 1
    decay_mult: 1
  }
  param {
    lr_mult: 2
    decay_mult: 0
  }
  convolution_param {
    num_output: 128
    kernel_size: 1
    weight_filler {
      type: "xavier"
      std: 0.03
    }
    bias_filler {
      type: "constant"
      value: 0.2
    }
  }
}
layer {
  name: "inception_4c/relu_1x1"
  type: "ReLU"
  bottom: "inception_4c/1x1"
  top: "inception_4c/1x1"
}
layer {
  name: "inception_4c/3x3_reduce"
  type: "Convolution"
  bottom: "inception_4b/output"
  top: "inception_4c/3x3_reduce"
  param {
    lr_mult: 1
    decay_mult: 1
  }
  param {
    lr_mult: 2
    decay_mult: 0
  }
  convolution_param {
    num_output: 128
    kernel_size: 1
    weight_filler {
      type: "xavier"
      std: 0.09
    }
    bias_filler {
      type: "constant"
      value: 0.2
    }
  }
}
layer {
  name: "inception_4c/relu_3x3_reduce"
  type: "ReLU"
  bottom: "inception_4c/3x3_reduce"
  top: "inception_4c/3x3_reduce"
}
layer {
  name: "inception_4c/3x3"
  type: "Convolution"
  bottom: "inception_4c/3x3_reduce"
  top: "inception_4c/3x3"
  param {
    lr_mult: 1
    decay_mult: 1
  }
  param {
    lr_mult: 2
    decay_mult: 0
  }
  convolution_param {
    num_output: 256
    pad: 1
    kernel_size: 3
    weight_filler {
      type: "xavier"
      std: 0.03
    }
    bias_filler {
      type: "constant"
      value: 0.2
    }
  }
}
layer {
  name: "inception_4c/relu_3x3"
  type: "ReLU"
  bottom: "inception_4c/3x3"
  top: "inception_4c/3x3"
}
layer {
  name: "inception_4c/5x5_reduce"
  type: "Convolution"
  bottom: "inception_4b/output"
  top: "inception_4c/5x5_reduce"
  param {
    lr_mult: 1
    decay_mult: 1
  }
  param {
    lr_mult: 2
    decay_mult: 0
  }
  convolution_param {
    num_output: 24
    kernel_size: 1
    weight_filler {
      type: "xavier"
      std: 0.2
    }
    bias_filler {
      type: "constant"
      value: 0.2
    }
  }
}
layer {
  name: "inception_4c/relu_5x5_reduce"
  type: "ReLU"
  bottom: "inception_4c/5x5_reduce"
  top: "inception_4c/5x5_reduce"
}
layer {
  name: "inception_4c/5x5"
  type: "Convolution"
  bottom: "inception_4c/5x5_reduce"
  top: "inception_4c/5x5"
  param {
    lr_mult: 1
    decay_mult: 1
  }
  param {
    lr_mult: 2
    decay_mult: 0
  }
  convolution_param {
    num_output: 64
    pad: 2
    kernel_size: 5
    weight_filler {
      type: "xavier"
      std: 0.03
    }
    bias_filler {
      type: "constant"
      value: 0.2
    }
  }
}
layer {
  name: "inception_4c/relu_5x5"
  type: "ReLU"
  bottom: "inception_4c/5x5"
  top: "inception_4c/5x5"
}
layer {
  name: "inception_4c/pool"
  type: "Pooling"
  bottom: "inception_4b/output"
  top: "inception_4c/pool"
  pooling_param {
    pool: MAX
    kernel_size: 3
    stride: 1
    pad: 1
  }
}
layer {
  name: "inception_4c/pool_proj"
  type: "Convolution"
  bottom: "inception_4c/pool"
  top: "inception_4c/pool_proj"
  param {
    lr_mult: 1
    decay_mult: 1
  }
  param {
    lr_mult: 2
    decay_mult: 0
  }
  convolution_param {
    num_output: 64
    kernel_size: 1
    weight_filler {
      type: "xavier"
      std: 0.1
    }
    bias_filler {
      type: "constant"
      value: 0.2
    }
  }
}
layer {
  name: "inception_4c/relu_pool_proj"
  type: "ReLU"
  bottom: "inception_4c/pool_proj"
  top: "inception_4c/pool_proj"
}
layer {
  name: "inception_4c/output"
  type: "Concat"
  bottom: "inception_4c/1x1"
  bottom: "inception_4c/3x3"
  bottom: "inception_4c/5x5"
  bottom: "inception_4c/pool_proj"
  top: "inception_4c/output"
}
layer {
  name: "inception_4d/1x1"
  type: "Convolution"
  bottom: "inception_4c/output"
  top: "inception_4d/1x1"
  param {
    lr_mult: 1
    decay_mult: 1
  }
  param {
    lr_mult: 2
    decay_mult: 0
  }
  convolution_param {
    num_output: 112
    kernel_size: 1
    weight_filler {
      type: "xavier"
      std: 0.03
    }
    bias_filler {
      type: "constant"
      value: 0.2
    }
  }
}
layer {
  name: "inception_4d/relu_1x1"
  type: "ReLU"
  bottom: "inception_4d/1x1"
  top: "inception_4d/1x1"
}
layer {
  name: "inception_4d/3x3_reduce"
  type: "Convolution"
  bottom: "inception_4c/output"
  top: "inception_4d/3x3_reduce"
  param {
    lr_mult: 1
    decay_mult: 1
  }
  param {
    lr_mult: 2
    decay_mult: 0
  }
  convolution_param {
    num_output: 144
    kernel_size: 1
    weight_filler {
      type: "xavier"
      std: 0.09
    }
    bias_filler {
      type: "constant"
      value: 0.2
    }
  }
}
layer {
  name: "inception_4d/relu_3x3_reduce"
  type: "ReLU"
  bottom: "inception_4d/3x3_reduce"
  top: "inception_4d/3x3_reduce"
}
layer {
  name: "inception_4d/3x3"
  type: "Convolution"
  bottom: "inception_4d/3x3_reduce"
  top: "inception_4d/3x3"
  param {
    lr_mult: 1
    decay_mult: 1
  }
  param {
    lr_mult: 2
    decay_mult: 0
  }
  convolution_param {
    num_output: 288
    pad: 1
    kernel_size: 3
    weight_filler {
      type: "xavier"
      std: 0.03
    }
    bias_filler {
      type: "constant"
      value: 0.2
    }
  }
}
layer {
  name: "inception_4d/relu_3x3"
  type: "ReLU"
  bottom: "inception_4d/3x3"
  top: "inception_4d/3x3"
}
layer {
  name: "inception_4d/5x5_reduce"
  type: "Convolution"
  bottom: "inception_4c/output"
  top: "inception_4d/5x5_reduce"
  param {
    lr_mult: 1
    decay_mult: 1
  }
  param {
    lr_mult: 2
    decay_mult: 0
  }
  convolution_param {
    num_output: 32
    kernel_size: 1
    weight_filler {
      type: "xavier"
      std: 0.2
    }
    bias_filler {
      type: "constant"
      value: 0.2
    }
  }
}
layer {
  name: "inception_4d/relu_5x5_reduce"
  type: "ReLU"
  bottom: "inception_4d/5x5_reduce"
  top: "inception_4d/5x5_reduce"
}
layer {
  name: "inception_4d/5x5"
  type: "Convolution"
  bottom: "inception_4d/5x5_reduce"
  top: "inception_4d/5x5"
  param {
    lr_mult: 1
    decay_mult: 1
  }
  param {
    lr_mult: 2
    decay_mult: 0
  }
  convolution_param {
    num_output: 64
    pad: 2
    kernel_size: 5
    weight_filler {
      type: "xavier"
      std: 0.03
    }
    bias_filler {
      type: "constant"
      value: 0.2
    }
  }
}
layer {
  name: "inception_4d/relu_5x5"
  type: "ReLU"
  bottom: "inception_4d/5x5"
  top: "inception_4d/5x5"
}
layer {
  name: "inception_4d/pool"
  type: "Pooling"
  bottom: "inception_4c/output"
  top: "inception_4d/pool"
  pooling_param {
    pool: MAX
    kernel_size: 3
    stride: 1
    pad: 1
  }
}
layer {
  name: "inception_4d/pool_proj"
  type: "Convolution"
  bottom: "inception_4d/pool"
  top: "inception_4d/pool_proj"
  param {
    lr_mult: 1
    decay_mult: 1
  }
  param {
    lr_mult: 2
    decay_mult: 0
  }
  convolution_param {
    num_output: 64
    kernel_size: 1
    weight_filler {
      type: "xavier"
      std: 0.1
    }
    bias_filler {
      type: "constant"
      value: 0.2
    }
  }
}
layer {
  name: "inception_4d/relu_pool_proj"
  type: "ReLU"
  bottom: "inception_4d/pool_proj"
  top: "inception_4d/pool_proj"
}
layer {
  name: "inception_4d/output"
  type: "Concat"
  bottom: "inception_4d/1x1"
  bottom: "inception_4d/3x3"
  bottom: "inception_4d/5x5"
  bottom: "inception_4d/pool_proj"
  top: "inception_4d/output"
}
layer {
  name: "loss2/ave_pool"
  type: "Pooling"
  bottom: "inception_4d/output"
  top: "loss2/ave_pool"
  pooling_param {
    pool: AVE
    kernel_size: 5
    stride: 3
  }
}
layer {
  name: "loss2/conv"
  type: "Convolution"
  bottom: "loss2/ave_pool"
  top: "loss2/conv"
  param {
    lr_mult: 1
    decay_mult: 1
  }
  param {
    lr_mult: 2
    decay_mult: 0
  }
  convolution_param {
    num_output: 128
    kernel_size: 1
    weight_filler {
      type: "xavier"
      std: 0.08
    }
    bias_filler {
      type: "constant"
      value: 0.2
    }
  }
}
layer {
  name: "loss2/relu_conv"
  type: "ReLU"
  bottom: "loss2/conv"
  top: "loss2/conv"
}
layer {
  name: "loss2/fc"
  type: "InnerProduct"
  bottom: "loss2/conv"
  top: "loss2/fc"
  param {
    lr_mult: 1
    decay_mult: 1
  }
  param {
    lr_mult: 2
    decay_mult: 0
  }
  inner_product_param {
    num_output: 1024
    weight_filler {
      type: "xavier"
      std: 0.02
    }
    bias_filler {
      type: "constant"
      value: 0.2
    }
  }
}
layer {
  name: "loss2/relu_fc"
  type: "ReLU"
  bottom: "loss2/fc"
  top: "loss2/fc"
}
layer {
  name: "loss2/drop_fc"
  type: "Dropout"
  bottom: "loss2/fc"
  top: "loss2/fc"
  dropout_param {
    dropout_ratio: 0.7
  }
}
layer {
  name: "loss2/classifier_plantvillage"
  type: "InnerProduct"
  bottom: "loss2/fc"
  top: "loss2/classifier_plantvillage"
  param {
    lr_mult: 1
    decay_mult: 1
  }
  param {
    lr_mult: 2
    decay_mult: 0
  }
  inner_product_param {
    num_output: 38
    weight_filler {
      type: "xavier"
      std: 0.0009765625
    }
    bias_filler {
      type: "constant"
      value: 0
    }
  }
}
layer {
  name: "inception_4e/1x1"
  type: "Convolution"
  bottom: "inception_4d/output"
  top: "inception_4e/1x1"
  param {
    lr_mult: 1
    decay_mult: 1
  }
  param {
    lr_mult: 2
    decay_mult: 0
  }
  convolution_param {
    num_output: 256
    kernel_size: 1
    weight_filler {
      type: "xavier"
      std: 0.03
    }
    bias_filler {
      type: "constant"
      value: 0.2
    }
  }
}
layer {
  name: "inception_4e/relu_1x1"
  type: "ReLU"
  bottom: "inception_4e/1x1"
  top: "inception_4e/1x1"
}
layer {
  name: "inception_4e/3x3_reduce"
  type: "Convolution"
  bottom: "inception_4d/output"
  top: "inception_4e/3x3_reduce"
  param {
    lr_mult: 1
    decay_mult: 1
  }
  param {
    lr_mult: 2
    decay_mult: 0
  }
  convolution_param {
    num_output: 160
    kernel_size: 1
    weight_filler {
      type: "xavier"
      std: 0.09
    }
    bias_filler {
      type: "constant"
      value: 0.2
    }
  }
}
layer {
  name: "inception_4e/relu_3x3_reduce"
  type: "ReLU"
  bottom: "inception_4e/3x3_reduce"
  top: "inception_4e/3x3_reduce"
}
layer {
  name: "inception_4e/3x3"
  type: "Convolution"
  bottom: "inception_4e/3x3_reduce"
  top: "inception_4e/3x3"
  param {
    lr_mult: 1
    decay_mult: 1
  }
  param {
    lr_mult: 2
    decay_mult: 0
  }
  convolution_param {
    num_output: 320
    pad: 1
    kernel_size: 3
    weight_filler {
      type: "xavier"
      std: 0.03
    }
    bias_filler {
      type: "constant"
      value: 0.2
    }
  }
}
layer {
  name: "inception_4e/relu_3x3"
  type: "ReLU"
  bottom: "inception_4e/3x3"
  top: "inception_4e/3x3"
}
layer {
  name: "inception_4e/5x5_reduce"
  type: "Convolution"
  bottom: "inception_4d/output"
  top: "inception_4e/5x5_reduce"
  param {
    lr_mult: 1
    decay_mult: 1
  }
  param {
    lr_mult: 2
    decay_mult: 0
  }
  convolution_param {
    num_output: 32
    kernel_size: 1
    weight_filler {
      type: "xavier"
      std: 0.2
    }
    bias_filler {
      type: "constant"
      value: 0.2
    }
  }
}
layer {
  name: "inception_4e/relu_5x5_reduce"
  type: "ReLU"
  bottom: "inception_4e/5x5_reduce"
  top: "inception_4e/5x5_reduce"
}
layer {
  name: "inception_4e/5x5"
  type: "Convolution"
  bottom: "inception_4e/5x5_reduce"
  top: "inception_4e/5x5"
  p
I0403 15:22:52.435011 14699 layer_factory.hpp:77] Creating layer data
I0403 15:22:52.435613 14699 net.cpp:91] Creating Layer data
I0403 15:22:52.435647 14699 net.cpp:399] data -> data
I0403 15:22:52.435695 14699 net.cpp:399] data -> label
I0403 15:22:52.435731 14699 data_transformer.cpp:25] Loading mean file from: /home/mohanty/data/final_dataset/lmdb/color-50-50/mean.binaryproto
I0403 15:22:52.438390 14702 db_lmdb.cpp:38] Opened lmdb /home/mohanty/data/final_dataset/lmdb/color-50-50/test_db
I0403 15:22:52.449106 14699 data_layer.cpp:41] output data size: 24,3,224,224
I0403 15:22:52.476943 14699 net.cpp:141] Setting up data
I0403 15:22:52.477015 14699 net.cpp:148] Top shape: 24 3 224 224 (3612672)
I0403 15:22:52.477037 14699 net.cpp:148] Top shape: 24 (24)
I0403 15:22:52.477054 14699 net.cpp:156] Memory required for data: 14450784
I0403 15:22:52.477083 14699 layer_factory.hpp:77] Creating layer label_data_1_split
I0403 15:22:52.477110 14699 net.cpp:91] Creating Layer label_data_1_split
I0403 15:22:52.477129 14699 net.cpp:425] label_data_1_split <- label
I0403 15:22:52.477162 14699 net.cpp:399] label_data_1_split -> label_data_1_split_0
I0403 15:22:52.477191 14699 net.cpp:399] label_data_1_split -> label_data_1_split_1
I0403 15:22:52.477215 14699 net.cpp:399] label_data_1_split -> label_data_1_split_2
I0403 15:22:52.477236 14699 net.cpp:399] label_data_1_split -> label_data_1_split_3
I0403 15:22:52.477267 14699 net.cpp:399] label_data_1_split -> label_data_1_split_4
I0403 15:22:52.477288 14699 net.cpp:399] label_data_1_split -> label_data_1_split_5
I0403 15:22:52.477309 14699 net.cpp:399] label_data_1_split -> label_data_1_split_6
I0403 15:22:52.477331 14699 net.cpp:399] label_data_1_split -> label_data_1_split_7
I0403 15:22:52.477352 14699 net.cpp:399] label_data_1_split -> label_data_1_split_8
I0403 15:22:52.477372 14699 net.cpp:399] label_data_1_split -> label_data_1_split_9
I0403 15:22:52.477488 14699 net.cpp:141] Setting up label_data_1_split
I0403 15:22:52.477511 14699 net.cpp:148] Top shape: 24 (24)
I0403 15:22:52.477530 14699 net.cpp:148] Top shape: 24 (24)
I0403 15:22:52.477561 14699 net.cpp:148] Top shape: 24 (24)
I0403 15:22:52.477578 14699 net.cpp:148] Top shape: 24 (24)
I0403 15:22:52.477593 14699 net.cpp:148] Top shape: 24 (24)
I0403 15:22:52.477608 14699 net.cpp:148] Top shape: 24 (24)
I0403 15:22:52.477624 14699 net.cpp:148] Top shape: 24 (24)
I0403 15:22:52.477640 14699 net.cpp:148] Top shape: 24 (24)
I0403 15:22:52.477655 14699 net.cpp:148] Top shape: 24 (24)
I0403 15:22:52.477671 14699 net.cpp:148] Top shape: 24 (24)
I0403 15:22:52.477717 14699 net.cpp:156] Memory required for data: 14451744
I0403 15:22:52.477733 14699 layer_factory.hpp:77] Creating layer conv1/7x7_s2
I0403 15:22:52.477766 14699 net.cpp:91] Creating Layer conv1/7x7_s2
I0403 15:22:52.477784 14699 net.cpp:425] conv1/7x7_s2 <- data
I0403 15:22:52.477804 14699 net.cpp:399] conv1/7x7_s2 -> conv1/7x7_s2
I0403 15:22:52.621732 14699 net.cpp:141] Setting up conv1/7x7_s2
I0403 15:22:52.621799 14699 net.cpp:148] Top shape: 24 64 112 112 (19267584)
I0403 15:22:52.621817 14699 net.cpp:156] Memory required for data: 91522080
I0403 15:22:52.621850 14699 layer_factory.hpp:77] Creating layer conv1/relu_7x7
I0403 15:22:52.621876 14699 net.cpp:91] Creating Layer conv1/relu_7x7
I0403 15:22:52.621896 14699 net.cpp:425] conv1/relu_7x7 <- conv1/7x7_s2
I0403 15:22:52.621914 14699 net.cpp:386] conv1/relu_7x7 -> conv1/7x7_s2 (in-place)
I0403 15:22:52.622220 14699 net.cpp:141] Setting up conv1/relu_7x7
I0403 15:22:52.622246 14699 net.cpp:148] Top shape: 24 64 112 112 (19267584)
I0403 15:22:52.622262 14699 net.cpp:156] Memory required for data: 168592416
I0403 15:22:52.622278 14699 layer_factory.hpp:77] Creating layer pool1/3x3_s2
I0403 15:22:52.622303 14699 net.cpp:91] Creating Layer pool1/3x3_s2
I0403 15:22:52.622321 14699 net.cpp:425] pool1/3x3_s2 <- conv1/7x7_s2
I0403 15:22:52.622340 14699 net.cpp:399] pool1/3x3_s2 -> pool1/3x3_s2
I0403 15:22:52.622416 14699 net.cpp:141] Setting up pool1/3x3_s2
I0403 15:22:52.622439 14699 net.cpp:148] Top shape: 24 64 56 56 (4816896)
I0403 15:22:52.622455 14699 net.cpp:156] Memory required for data: 187860000
I0403 15:22:52.622470 14699 layer_factory.hpp:77] Creating layer pool1/norm1
I0403 15:22:52.622495 14699 net.cpp:91] Creating Layer pool1/norm1
I0403 15:22:52.622512 14699 net.cpp:425] pool1/norm1 <- pool1/3x3_s2
I0403 15:22:52.622529 14699 net.cpp:399] pool1/norm1 -> pool1/norm1
I0403 15:22:52.622822 14699 net.cpp:141] Setting up pool1/norm1
I0403 15:22:52.622848 14699 net.cpp:148] Top shape: 24 64 56 56 (4816896)
I0403 15:22:52.622865 14699 net.cpp:156] Memory required for data: 207127584
I0403 15:22:52.622880 14699 layer_factory.hpp:77] Creating layer conv2/3x3_reduce
I0403 15:22:52.622905 14699 net.cpp:91] Creating Layer conv2/3x3_reduce
I0403 15:22:52.622922 14699 net.cpp:425] conv2/3x3_reduce <- pool1/norm1
I0403 15:22:52.622941 14699 net.cpp:399] conv2/3x3_reduce -> conv2/3x3_reduce
I0403 15:22:52.624342 14699 net.cpp:141] Setting up conv2/3x3_reduce
I0403 15:22:52.624372 14699 net.cpp:148] Top shape: 24 64 56 56 (4816896)
I0403 15:22:52.624388 14699 net.cpp:156] Memory required for data: 226395168
I0403 15:22:52.624410 14699 layer_factory.hpp:77] Creating layer conv2/relu_3x3_reduce
I0403 15:22:52.624429 14699 net.cpp:91] Creating Layer conv2/relu_3x3_reduce
I0403 15:22:52.624445 14699 net.cpp:425] conv2/relu_3x3_reduce <- conv2/3x3_reduce
I0403 15:22:52.624464 14699 net.cpp:386] conv2/relu_3x3_reduce -> conv2/3x3_reduce (in-place)
I0403 15:22:52.624735 14699 net.cpp:141] Setting up conv2/relu_3x3_reduce
I0403 15:22:52.624763 14699 net.cpp:148] Top shape: 24 64 56 56 (4816896)
I0403 15:22:52.624778 14699 net.cpp:156] Memory required for data: 245662752
I0403 15:22:52.624793 14699 layer_factory.hpp:77] Creating layer conv2/3x3
I0403 15:22:52.624817 14699 net.cpp:91] Creating Layer conv2/3x3
I0403 15:22:52.624835 14699 net.cpp:425] conv2/3x3 <- conv2/3x3_reduce
I0403 15:22:52.624861 14699 net.cpp:399] conv2/3x3 -> conv2/3x3
I0403 15:22:52.627301 14699 net.cpp:141] Setting up conv2/3x3
I0403 15:22:52.627333 14699 net.cpp:148] Top shape: 24 192 56 56 (14450688)
I0403 15:22:52.627351 14699 net.cpp:156] Memory required for data: 303465504
I0403 15:22:52.627377 14699 layer_factory.hpp:77] Creating layer conv2/relu_3x3
I0403 15:22:52.627398 14699 net.cpp:91] Creating Layer conv2/relu_3x3
I0403 15:22:52.627415 14699 net.cpp:425] conv2/relu_3x3 <- conv2/3x3
I0403 15:22:52.627434 14699 net.cpp:386] conv2/relu_3x3 -> conv2/3x3 (in-place)
I0403 15:22:52.627621 14699 net.cpp:141] Setting up conv2/relu_3x3
I0403 15:22:52.627650 14699 net.cpp:148] Top shape: 24 192 56 56 (14450688)
I0403 15:22:52.627698 14699 net.cpp:156] Memory required for data: 361268256
I0403 15:22:52.627715 14699 layer_factory.hpp:77] Creating layer conv2/norm2
I0403 15:22:52.627737 14699 net.cpp:91] Creating Layer conv2/norm2
I0403 15:22:52.627754 14699 net.cpp:425] conv2/norm2 <- conv2/3x3
I0403 15:22:52.627773 14699 net.cpp:399] conv2/norm2 -> conv2/norm2
I0403 15:22:52.628084 14699 net.cpp:141] Setting up conv2/norm2
I0403 15:22:52.628111 14699 net.cpp:148] Top shape: 24 192 56 56 (14450688)
I0403 15:22:52.628128 14699 net.cpp:156] Memory required for data: 419071008
I0403 15:22:52.628142 14699 layer_factory.hpp:77] Creating layer pool2/3x3_s2
I0403 15:22:52.628164 14699 net.cpp:91] Creating Layer pool2/3x3_s2
I0403 15:22:52.628180 14699 net.cpp:425] pool2/3x3_s2 <- conv2/norm2
I0403 15:22:52.628198 14699 net.cpp:399] pool2/3x3_s2 -> pool2/3x3_s2
I0403 15:22:52.628252 14699 net.cpp:141] Setting up pool2/3x3_s2
I0403 15:22:52.628275 14699 net.cpp:148] Top shape: 24 192 28 28 (3612672)
I0403 15:22:52.628290 14699 net.cpp:156] Memory required for data: 433521696
I0403 15:22:52.628305 14699 layer_factory.hpp:77] Creating layer pool2/3x3_s2_pool2/3x3_s2_0_split
I0403 15:22:52.628322 14699 net.cpp:91] Creating Layer pool2/3x3_s2_pool2/3x3_s2_0_split
I0403 15:22:52.628339 14699 net.cpp:425] pool2/3x3_s2_pool2/3x3_s2_0_split <- pool2/3x3_s2
I0403 15:22:52.628358 14699 net.cpp:399] pool2/3x3_s2_pool2/3x3_s2_0_split -> pool2/3x3_s2_pool2/3x3_s2_0_split_0
I0403 15:22:52.628378 14699 net.cpp:399] pool2/3x3_s2_pool2/3x3_s2_0_split -> pool2/3x3_s2_pool2/3x3_s2_0_split_1
I0403 15:22:52.628398 14699 net.cpp:399] pool2/3x3_s2_pool2/3x3_s2_0_split -> pool2/3x3_s2_pool2/3x3_s2_0_split_2
I0403 15:22:52.628418 14699 net.cpp:399] pool2/3x3_s2_pool2/3x3_s2_0_split -> pool2/3x3_s2_pool2/3x3_s2_0_split_3
I0403 15:22:52.628490 14699 net.cpp:141] Setting up pool2/3x3_s2_pool2/3x3_s2_0_split
I0403 15:22:52.628514 14699 net.cpp:148] Top shape: 24 192 28 28 (3612672)
I0403 15:22:52.628530 14699 net.cpp:148] Top shape: 24 192 28 28 (3612672)
I0403 15:22:52.628551 14699 net.cpp:148] Top shape: 24 192 28 28 (3612672)
I0403 15:22:52.628568 14699 net.cpp:148] Top shape: 24 192 28 28 (3612672)
I0403 15:22:52.628583 14699 net.cpp:156] Memory required for data: 491324448
I0403 15:22:52.628597 14699 layer_factory.hpp:77] Creating layer inception_3a/1x1
I0403 15:22:52.628623 14699 net.cpp:91] Creating Layer inception_3a/1x1
I0403 15:22:52.628640 14699 net.cpp:425] inception_3a/1x1 <- pool2/3x3_s2_pool2/3x3_s2_0_split_0
I0403 15:22:52.628659 14699 net.cpp:399] inception_3a/1x1 -> inception_3a/1x1
I0403 15:22:52.630306 14699 net.cpp:141] Setting up inception_3a/1x1
I0403 15:22:52.630336 14699 net.cpp:148] Top shape: 24 64 28 28 (1204224)
I0403 15:22:52.630353 14699 net.cpp:156] Memory required for data: 496141344
I0403 15:22:52.630373 14699 layer_factory.hpp:77] Creating layer inception_3a/relu_1x1
I0403 15:22:52.630394 14699 net.cpp:91] Creating Layer inception_3a/relu_1x1
I0403 15:22:52.630411 14699 net.cpp:425] inception_3a/relu_1x1 <- inception_3a/1x1
I0403 15:22:52.630429 14699 net.cpp:386] inception_3a/relu_1x1 -> inception_3a/1x1 (in-place)
I0403 15:22:52.630611 14699 net.cpp:141] Setting up inception_3a/relu_1x1
I0403 15:22:52.630640 14699 net.cpp:148] Top shape: 24 64 28 28 (1204224)
I0403 15:22:52.630656 14699 net.cpp:156] Memory required for data: 500958240
I0403 15:22:52.630671 14699 layer_factory.hpp:77] Creating layer inception_3a/3x3_reduce
I0403 15:22:52.630693 14699 net.cpp:91] Creating Layer inception_3a/3x3_reduce
I0403 15:22:52.630710 14699 net.cpp:425] inception_3a/3x3_reduce <- pool2/3x3_s2_pool2/3x3_s2_0_split_1
I0403 15:22:52.630729 14699 net.cpp:399] inception_3a/3x3_reduce -> inception_3a/3x3_reduce
I0403 15:22:52.632460 14699 net.cpp:141] Setting up inception_3a/3x3_reduce
I0403 15:22:52.632490 14699 net.cpp:148] Top shape: 24 96 28 28 (1806336)
I0403 15:22:52.632508 14699 net.cpp:156] Memory required for data: 508183584
I0403 15:22:52.632532 14699 layer_factory.hpp:77] Creating layer inception_3a/relu_3x3_reduce
I0403 15:22:52.632572 14699 net.cpp:91] Creating Layer inception_3a/relu_3x3_reduce
I0403 15:22:52.632591 14699 net.cpp:425] inception_3a/relu_3x3_reduce <- inception_3a/3x3_reduce
I0403 15:22:52.632608 14699 net.cpp:386] inception_3a/relu_3x3_reduce -> inception_3a/3x3_reduce (in-place)
I0403 15:22:52.632793 14699 net.cpp:141] Setting up inception_3a/relu_3x3_reduce
I0403 15:22:52.632818 14699 net.cpp:148] Top shape: 24 96 28 28 (1806336)
I0403 15:22:52.632834 14699 net.cpp:156] Memory required for data: 515408928
I0403 15:22:52.632850 14699 layer_factory.hpp:77] Creating layer inception_3a/3x3
I0403 15:22:52.632874 14699 net.cpp:91] Creating Layer inception_3a/3x3
I0403 15:22:52.632891 14699 net.cpp:425] inception_3a/3x3 <- inception_3a/3x3_reduce
I0403 15:22:52.632912 14699 net.cpp:399] inception_3a/3x3 -> inception_3a/3x3
I0403 15:22:52.634601 14699 net.cpp:141] Setting up inception_3a/3x3
I0403 15:22:52.634630 14699 net.cpp:148] Top shape: 24 128 28 28 (2408448)
I0403 15:22:52.634646 14699 net.cpp:156] Memory required for data: 525042720
I0403 15:22:52.634665 14699 layer_factory.hpp:77] Creating layer inception_3a/relu_3x3
I0403 15:22:52.634687 14699 net.cpp:91] Creating Layer inception_3a/relu_3x3
I0403 15:22:52.634704 14699 net.cpp:425] inception_3a/relu_3x3 <- inception_3a/3x3
I0403 15:22:52.634721 14699 net.cpp:386] inception_3a/relu_3x3 -> inception_3a/3x3 (in-place)
I0403 15:22:52.635004 14699 net.cpp:141] Setting up inception_3a/relu_3x3
I0403 15:22:52.635030 14699 net.cpp:148] Top shape: 24 128 28 28 (2408448)
I0403 15:22:52.635046 14699 net.cpp:156] Memory required for data: 534676512
I0403 15:22:52.635061 14699 layer_factory.hpp:77] Creating layer inception_3a/5x5_reduce
I0403 15:22:52.635083 14699 net.cpp:91] Creating Layer inception_3a/5x5_reduce
I0403 15:22:52.635102 14699 net.cpp:425] inception_3a/5x5_reduce <- pool2/3x3_s2_pool2/3x3_s2_0_split_2
I0403 15:22:52.635120 14699 net.cpp:399] inception_3a/5x5_reduce -> inception_3a/5x5_reduce
I0403 15:22:52.636121 14699 net.cpp:141] Setting up inception_3a/5x5_reduce
I0403 15:22:52.636150 14699 net.cpp:148] Top shape: 24 16 28 28 (301056)
I0403 15:22:52.636168 14699 net.cpp:156] Memory required for data: 535880736
I0403 15:22:52.636186 14699 layer_factory.hpp:77] Creating layer inception_3a/relu_5x5_reduce
I0403 15:22:52.636205 14699 net.cpp:91] Creating Layer inception_3a/relu_5x5_reduce
I0403 15:22:52.636221 14699 net.cpp:425] inception_3a/relu_5x5_reduce <- inception_3a/5x5_reduce
I0403 15:22:52.636242 14699 net.cpp:386] inception_3a/relu_5x5_reduce -> inception_3a/5x5_reduce (in-place)
I0403 15:22:52.636545 14699 net.cpp:141] Setting up inception_3a/relu_5x5_reduce
I0403 15:22:52.636574 14699 net.cpp:148] Top shape: 24 16 28 28 (301056)
I0403 15:22:52.636590 14699 net.cpp:156] Memory required for data: 537084960
I0403 15:22:52.636606 14699 layer_factory.hpp:77] Creating layer inception_3a/5x5
I0403 15:22:52.636628 14699 net.cpp:91] Creating Layer inception_3a/5x5
I0403 15:22:52.636646 14699 net.cpp:425] inception_3a/5x5 <- inception_3a/5x5_reduce
I0403 15:22:52.636667 14699 net.cpp:399] inception_3a/5x5 -> inception_3a/5x5
I0403 15:22:52.637708 14699 net.cpp:141] Setting up inception_3a/5x5
I0403 15:22:52.637737 14699 net.cpp:148] Top shape: 24 32 28 28 (602112)
I0403 15:22:52.637753 14699 net.cpp:156] Memory required for data: 539493408
I0403 15:22:52.637771 14699 layer_factory.hpp:77] Creating layer inception_3a/relu_5x5
I0403 15:22:52.637792 14699 net.cpp:91] Creating Layer inception_3a/relu_5x5
I0403 15:22:52.637810 14699 net.cpp:425] inception_3a/relu_5x5 <- inception_3a/5x5
I0403 15:22:52.637828 14699 net.cpp:386] inception_3a/relu_5x5 -> inception_3a/5x5 (in-place)
I0403 15:22:52.638008 14699 net.cpp:141] Setting up inception_3a/relu_5x5
I0403 15:22:52.638036 14699 net.cpp:148] Top shape: 24 32 28 28 (602112)
I0403 15:22:52.638052 14699 net.cpp:156] Memory required for data: 541901856
I0403 15:22:52.638067 14699 layer_factory.hpp:77] Creating layer inception_3a/pool
I0403 15:22:52.638085 14699 net.cpp:91] Creating Layer inception_3a/pool
I0403 15:22:52.638101 14699 net.cpp:425] inception_3a/pool <- pool2/3x3_s2_pool2/3x3_s2_0_split_3
I0403 15:22:52.638137 14699 net.cpp:399] inception_3a/pool -> inception_3a/pool
I0403 15:22:52.638198 14699 net.cpp:141] Setting up inception_3a/pool
I0403 15:22:52.638221 14699 net.cpp:148] Top shape: 24 192 28 28 (3612672)
I0403 15:22:52.638236 14699 net.cpp:156] Memory required for data: 556352544
I0403 15:22:52.638252 14699 layer_factory.hpp:77] Creating layer inception_3a/pool_proj
I0403 15:22:52.638274 14699 net.cpp:91] Creating Layer inception_3a/pool_proj
I0403 15:22:52.638295 14699 net.cpp:425] inception_3a/pool_proj <- inception_3a/pool
I0403 15:22:52.638314 14699 net.cpp:399] inception_3a/pool_proj -> inception_3a/pool_proj
I0403 15:22:52.639298 14699 net.cpp:141] Setting up inception_3a/pool_proj
I0403 15:22:52.639327 14699 net.cpp:148] Top shape: 24 32 28 28 (602112)
I0403 15:22:52.639343 14699 net.cpp:156] Memory required for data: 558760992
I0403 15:22:52.639367 14699 layer_factory.hpp:77] Creating layer inception_3a/relu_pool_proj
I0403 15:22:52.639389 14699 net.cpp:91] Creating Layer inception_3a/relu_pool_proj
I0403 15:22:52.639405 14699 net.cpp:425] inception_3a/relu_pool_proj <- inception_3a/pool_proj
I0403 15:22:52.639425 14699 net.cpp:386] inception_3a/relu_pool_proj -> inception_3a/pool_proj (in-place)
I0403 15:22:52.639706 14699 net.cpp:141] Setting up inception_3a/relu_pool_proj
I0403 15:22:52.639732 14699 net.cpp:148] Top shape: 24 32 28 28 (602112)
I0403 15:22:52.639749 14699 net.cpp:156] Memory required for data: 561169440
I0403 15:22:52.639765 14699 layer_factory.hpp:77] Creating layer inception_3a/output
I0403 15:22:52.639785 14699 net.cpp:91] Creating Layer inception_3a/output
I0403 15:22:52.639801 14699 net.cpp:425] inception_3a/output <- inception_3a/1x1
I0403 15:22:52.639817 14699 net.cpp:425] inception_3a/output <- inception_3a/3x3
I0403 15:22:52.639833 14699 net.cpp:425] inception_3a/output <- inception_3a/5x5
I0403 15:22:52.639850 14699 net.cpp:425] inception_3a/output <- inception_3a/pool_proj
I0403 15:22:52.639868 14699 net.cpp:399] inception_3a/output -> inception_3a/output
I0403 15:22:52.639916 14699 net.cpp:141] Setting up inception_3a/output
I0403 15:22:52.639940 14699 net.cpp:148] Top shape: 24 256 28 28 (4816896)
I0403 15:22:52.639955 14699 net.cpp:156] Memory required for data: 580437024
I0403 15:22:52.639969 14699 layer_factory.hpp:77] Creating layer inception_3a/output_inception_3a/output_0_split
I0403 15:22:52.639986 14699 net.cpp:91] Creating Layer inception_3a/output_inception_3a/output_0_split
I0403 15:22:52.640002 14699 net.cpp:425] inception_3a/output_inception_3a/output_0_split <- inception_3a/output
I0403 15:22:52.640023 14699 net.cpp:399] inception_3a/output_inception_3a/output_0_split -> inception_3a/output_inception_3a/output_0_split_0
I0403 15:22:52.640044 14699 net.cpp:399] inception_3a/output_inception_3a/output_0_split -> inception_3a/output_inception_3a/output_0_split_1
I0403 15:22:52.640069 14699 net.cpp:399] inception_3a/output_inception_3a/output_0_split -> inception_3a/output_inception_3a/output_0_split_2
I0403 15:22:52.640090 14699 net.cpp:399] inception_3a/output_inception_3a/output_0_split -> inception_3a/output_inception_3a/output_0_split_3
I0403 15:22:52.640164 14699 net.cpp:141] Setting up inception_3a/output_inception_3a/output_0_split
I0403 15:22:52.640187 14699 net.cpp:148] Top shape: 24 256 28 28 (4816896)
I0403 15:22:52.640208 14699 net.cpp:148] Top shape: 24 256 28 28 (4816896)
I0403 15:22:52.640224 14699 net.cpp:148] Top shape: 24 256 28 28 (4816896)
I0403 15:22:52.640240 14699 net.cpp:148] Top shape: 24 256 28 28 (4816896)
I0403 15:22:52.640254 14699 net.cpp:156] Memory required for data: 657507360
I0403 15:22:52.640269 14699 layer_factory.hpp:77] Creating layer inception_3b/1x1
I0403 15:22:52.640288 14699 net.cpp:91] Creating Layer inception_3b/1x1
I0403 15:22:52.640305 14699 net.cpp:425] inception_3b/1x1 <- inception_3a/output_inception_3a/output_0_split_0
I0403 15:22:52.640326 14699 net.cpp:399] inception_3b/1x1 -> inception_3b/1x1
I0403 15:22:52.641486 14699 net.cpp:141] Setting up inception_3b/1x1
I0403 15:22:52.641526 14699 net.cpp:148] Top shape: 24 128 28 28 (2408448)
I0403 15:22:52.641548 14699 net.cpp:156] Memory required for data: 667141152
I0403 15:22:52.641568 14699 layer_factory.hpp:77] Creating layer inception_3b/relu_1x1
I0403 15:22:52.641590 14699 net.cpp:91] Creating Layer inception_3b/relu_1x1
I0403 15:22:52.641608 14699 net.cpp:425] inception_3b/relu_1x1 <- inception_3b/1x1
I0403 15:22:52.641625 14699 net.cpp:386] inception_3b/relu_1x1 -> inception_3b/1x1 (in-place)
I0403 15:22:52.641805 14699 net.cpp:141] Setting up inception_3b/relu_1x1
I0403 15:22:52.641831 14699 net.cpp:148] Top shape: 24 128 28 28 (2408448)
I0403 15:22:52.641846 14699 net.cpp:156] Memory required for data: 676774944
I0403 15:22:52.641861 14699 layer_factory.hpp:77] Creating layer inception_3b/3x3_reduce
I0403 15:22:52.641885 14699 net.cpp:91] Creating Layer inception_3b/3x3_reduce
I0403 15:22:52.641903 14699 net.cpp:425] inception_3b/3x3_reduce <- inception_3a/output_inception_3a/output_0_split_1
I0403 15:22:52.641922 14699 net.cpp:399] inception_3b/3x3_reduce -> inception_3b/3x3_reduce
I0403 15:22:52.643075 14699 net.cpp:141] Setting up inception_3b/3x3_reduce
I0403 15:22:52.643103 14699 net.cpp:148] Top shape: 24 128 28 28 (2408448)
I0403 15:22:52.643120 14699 net.cpp:156] Memory required for data: 686408736
I0403 15:22:52.643138 14699 layer_factory.hpp:77] Creating layer inception_3b/relu_3x3_reduce
I0403 15:22:52.643159 14699 net.cpp:91] Creating Layer inception_3b/relu_3x3_reduce
I0403 15:22:52.643177 14699 net.cpp:425] inception_3b/relu_3x3_reduce <- inception_3b/3x3_reduce
I0403 15:22:52.643193 14699 net.cpp:386] inception_3b/relu_3x3_reduce -> inception_3b/3x3_reduce (in-place)
I0403 15:22:52.643369 14699 net.cpp:141] Setting up inception_3b/relu_3x3_reduce
I0403 15:22:52.643398 14699 net.cpp:148] Top shape: 24 128 28 28 (2408448)
I0403 15:22:52.643414 14699 net.cpp:156] Memory required for data: 696042528
I0403 15:22:52.643429 14699 layer_factory.hpp:77] Creating layer inception_3b/3x3
I0403 15:22:52.643455 14699 net.cpp:91] Creating Layer inception_3b/3x3
I0403 15:22:52.643472 14699 net.cpp:425] inception_3b/3x3 <- inception_3b/3x3_reduce
I0403 15:22:52.643494 14699 net.cpp:399] inception_3b/3x3 -> inception_3b/3x3
I0403 15:22:52.646464 14699 net.cpp:141] Setting up inception_3b/3x3
I0403 15:22:52.646493 14699 net.cpp:148] Top shape: 24 192 28 28 (3612672)
I0403 15:22:52.646509 14699 net.cpp:156] Memory required for data: 710493216
I0403 15:22:52.646528 14699 layer_factory.hpp:77] Creating layer inception_3b/relu_3x3
I0403 15:22:52.646553 14699 net.cpp:91] Creating Layer inception_3b/relu_3x3
I0403 15:22:52.646571 14699 net.cpp:425] inception_3b/relu_3x3 <- inception_3b/3x3
I0403 15:22:52.646589 14699 net.cpp:386] inception_3b/relu_3x3 -> inception_3b/3x3 (in-place)
I0403 15:22:52.646864 14699 net.cpp:141] Setting up inception_3b/relu_3x3
I0403 15:22:52.646893 14699 net.cpp:148] Top shape: 24 192 28 28 (3612672)
I0403 15:22:52.646908 14699 net.cpp:156] Memory required for data: 724943904
I0403 15:22:52.646922 14699 layer_factory.hpp:77] Creating layer inception_3b/5x5_reduce
I0403 15:22:52.646947 14699 net.cpp:91] Creating Layer inception_3b/5x5_reduce
I0403 15:22:52.646965 14699 net.cpp:425] inception_3b/5x5_reduce <- inception_3a/output_inception_3a/output_0_split_2
I0403 15:22:52.646984 14699 net.cpp:399] inception_3b/5x5_reduce -> inception_3b/5x5_reduce
I0403 15:22:52.647974 14699 net.cpp:141] Setting up inception_3b/5x5_reduce
I0403 15:22:52.648002 14699 net.cpp:148] Top shape: 24 32 28 28 (602112)
I0403 15:22:52.648018 14699 net.cpp:156] Memory required for data: 727352352
I0403 15:22:52.648036 14699 layer_factory.hpp:77] Creating layer inception_3b/relu_5x5_reduce
I0403 15:22:52.648057 14699 net.cpp:91] Creating Layer inception_3b/relu_5x5_reduce
I0403 15:22:52.648075 14699 net.cpp:425] inception_3b/relu_5x5_reduce <- inception_3b/5x5_reduce
I0403 15:22:52.648092 14699 net.cpp:386] inception_3b/relu_5x5_reduce -> inception_3b/5x5_reduce (in-place)
I0403 15:22:52.648265 14699 net.cpp:141] Setting up inception_3b/relu_5x5_reduce
I0403 15:22:52.648303 14699 net.cpp:148] Top shape: 24 32 28 28 (602112)
I0403 15:22:52.648319 14699 net.cpp:156] Memory required for data: 729760800
I0403 15:22:52.648334 14699 layer_factory.hpp:77] Creating layer inception_3b/5x5
I0403 15:22:52.648356 14699 net.cpp:91] Creating Layer inception_3b/5x5
I0403 15:22:52.648373 14699 net.cpp:425] inception_3b/5x5 <- inception_3b/5x5_reduce
I0403 15:22:52.648394 14699 net.cpp:399] inception_3b/5x5 -> inception_3b/5x5
I0403 15:22:52.650413 14699 net.cpp:141] Setting up inception_3b/5x5
I0403 15:22:52.650444 14699 net.cpp:148] Top shape: 24 96 28 28 (1806336)
I0403 15:22:52.650460 14699 net.cpp:156] Memory required for data: 736986144
I0403 15:22:52.650477 14699 layer_factory.hpp:77] Creating layer inception_3b/relu_5x5
I0403 15:22:52.650499 14699 net.cpp:91] Creating Layer inception_3b/relu_5x5
I0403 15:22:52.650516 14699 net.cpp:425] inception_3b/relu_5x5 <- inception_3b/5x5
I0403 15:22:52.650534 14699 net.cpp:386] inception_3b/relu_5x5 -> inception_3b/5x5 (in-place)
I0403 15:22:52.650730 14699 net.cpp:141] Setting up inception_3b/relu_5x5
I0403 15:22:52.650755 14699 net.cpp:148] Top shape: 24 96 28 28 (1806336)
I0403 15:22:52.650769 14699 net.cpp:156] Memory required for data: 744211488
I0403 15:22:52.650785 14699 layer_factory.hpp:77] Creating layer inception_3b/pool
I0403 15:22:52.650802 14699 net.cpp:91] Creating Layer inception_3b/pool
I0403 15:22:52.650818 14699 net.cpp:425] inception_3b/pool <- inception_3a/output_inception_3a/output_0_split_3
I0403 15:22:52.650836 14699 net.cpp:399] inception_3b/pool -> inception_3b/pool
I0403 15:22:52.650892 14699 net.cpp:141] Setting up inception_3b/pool
I0403 15:22:52.650915 14699 net.cpp:148] Top shape: 24 256 28 28 (4816896)
I0403 15:22:52.650929 14699 net.cpp:156] Memory required for data: 763479072
I0403 15:22:52.650943 14699 layer_factory.hpp:77] Creating layer inception_3b/pool_proj
I0403 15:22:52.650965 14699 net.cpp:91] Creating Layer inception_3b/pool_proj
I0403 15:22:52.650982 14699 net.cpp:425] inception_3b/pool_proj <- inception_3b/pool
I0403 15:22:52.651003 14699 net.cpp:399] inception_3b/pool_proj -> inception_3b/pool_proj
I0403 15:22:52.652055 14699 net.cpp:141] Setting up inception_3b/pool_proj
I0403 15:22:52.652082 14699 net.cpp:148] Top shape: 24 64 28 28 (1204224)
I0403 15:22:52.652098 14699 net.cpp:156] Memory required for data: 768295968
I0403 15:22:52.652117 14699 layer_factory.hpp:77] Creating layer inception_3b/relu_pool_proj
I0403 15:22:52.652135 14699 net.cpp:91] Creating Layer inception_3b/relu_pool_proj
I0403 15:22:52.652151 14699 net.cpp:425] inception_3b/relu_pool_proj <- inception_3b/pool_proj
I0403 15:22:52.652174 14699 net.cpp:386] inception_3b/relu_pool_proj -> inception_3b/pool_proj (in-place)
I0403 15:22:52.652561 14699 net.cpp:141] Setting up inception_3b/relu_pool_proj
I0403 15:22:52.652590 14699 net.cpp:148] Top shape: 24 64 28 28 (1204224)
I0403 15:22:52.652606 14699 net.cpp:156] Memory required for data: 773112864
I0403 15:22:52.652621 14699 layer_factory.hpp:77] Creating layer inception_3b/output
I0403 15:22:52.652639 14699 net.cpp:91] Creating Layer inception_3b/output
I0403 15:22:52.652654 14699 net.cpp:425] inception_3b/output <- inception_3b/1x1
I0403 15:22:52.652672 14699 net.cpp:425] inception_3b/output <- inception_3b/3x3
I0403 15:22:52.652688 14699 net.cpp:425] inception_3b/output <- inception_3b/5x5
I0403 15:22:52.652704 14699 net.cpp:425] inception_3b/output <- inception_3b/pool_proj
I0403 15:22:52.652724 14699 net.cpp:399] inception_3b/output -> inception_3b/output
I0403 15:22:52.652767 14699 net.cpp:141] Setting up inception_3b/output
I0403 15:22:52.652791 14699 net.cpp:148] Top shape: 24 480 28 28 (9031680)
I0403 15:22:52.652804 14699 net.cpp:156] Memory required for data: 809239584
I0403 15:22:52.652819 14699 layer_factory.hpp:77] Creating layer pool3/3x3_s2
I0403 15:22:52.652839 14699 net.cpp:91] Creating Layer pool3/3x3_s2
I0403 15:22:52.652856 14699 net.cpp:425] pool3/3x3_s2 <- inception_3b/output
I0403 15:22:52.652873 14699 net.cpp:399] pool3/3x3_s2 -> pool3/3x3_s2
I0403 15:22:52.652946 14699 net.cpp:141] Setting up pool3/3x3_s2
I0403 15:22:52.652971 14699 net.cpp:148] Top shape: 24 480 14 14 (2257920)
I0403 15:22:52.652986 14699 net.cpp:156] Memory required for data: 818271264
I0403 15:22:52.652999 14699 layer_factory.hpp:77] Creating layer pool3/3x3_s2_pool3/3x3_s2_0_split
I0403 15:22:52.653015 14699 net.cpp:91] Creating Layer pool3/3x3_s2_pool3/3x3_s2_0_split
I0403 15:22:52.653030 14699 net.cpp:425] pool3/3x3_s2_pool3/3x3_s2_0_split <- pool3/3x3_s2
I0403 15:22:52.653049 14699 net.cpp:399] pool3/3x3_s2_pool3/3x3_s2_0_split -> pool3/3x3_s2_pool3/3x3_s2_0_split_0
I0403 15:22:52.653070 14699 net.cpp:399] pool3/3x3_s2_pool3/3x3_s2_0_split -> pool3/3x3_s2_pool3/3x3_s2_0_split_1
I0403 15:22:52.653090 14699 net.cpp:399] pool3/3x3_s2_pool3/3x3_s2_0_split -> pool3/3x3_s2_pool3/3x3_s2_0_split_2
I0403 15:22:52.653110 14699 net.cpp:399] pool3/3x3_s2_pool3/3x3_s2_0_split -> pool3/3x3_s2_pool3/3x3_s2_0_split_3
I0403 15:22:52.653184 14699 net.cpp:141] Setting up pool3/3x3_s2_pool3/3x3_s2_0_split
I0403 15:22:52.653208 14699 net.cpp:148] Top shape: 24 480 14 14 (2257920)
I0403 15:22:52.653224 14699 net.cpp:148] Top shape: 24 480 14 14 (2257920)
I0403 15:22:52.653240 14699 net.cpp:148] Top shape: 24 480 14 14 (2257920)
I0403 15:22:52.653255 14699 net.cpp:148] Top shape: 24 480 14 14 (2257920)
I0403 15:22:52.653270 14699 net.cpp:156] Memory required for data: 854397984
I0403 15:22:52.653282 14699 layer_factory.hpp:77] Creating layer inception_4a/1x1
I0403 15:22:52.653304 14699 net.cpp:91] Creating Layer inception_4a/1x1
I0403 15:22:52.653321 14699 net.cpp:425] inception_4a/1x1 <- pool3/3x3_s2_pool3/3x3_s2_0_split_0
I0403 15:22:52.653342 14699 net.cpp:399] inception_4a/1x1 -> inception_4a/1x1
I0403 15:22:52.654902 14699 net.cpp:141] Setting up inception_4a/1x1
I0403 15:22:52.654930 14699 net.cpp:148] Top shape: 24 192 14 14 (903168)
I0403 15:22:52.654947 14699 net.cpp:156] Memory required for data: 858010656
I0403 15:22:52.654964 14699 layer_factory.hpp:77] Creating layer inception_4a/relu_1x1
I0403 15:22:52.654983 14699 net.cpp:91] Creating Layer inception_4a/relu_1x1
I0403 15:22:52.654999 14699 net.cpp:425] inception_4a/relu_1x1 <- inception_4a/1x1
I0403 15:22:52.655017 14699 net.cpp:386] inception_4a/relu_1x1 -> inception_4a/1x1 (in-place)
I0403 15:22:52.655194 14699 net.cpp:141] Setting up inception_4a/relu_1x1
I0403 15:22:52.655217 14699 net.cpp:148] Top shape: 24 192 14 14 (903168)
I0403 15:22:52.655232 14699 net.cpp:156] Memory required for data: 861623328
I0403 15:22:52.655246 14699 layer_factory.hpp:77] Creating layer inception_4a/3x3_reduce
I0403 15:22:52.655268 14699 net.cpp:91] Creating Layer inception_4a/3x3_reduce
I0403 15:22:52.655285 14699 net.cpp:425] inception_4a/3x3_reduce <- pool3/3x3_s2_pool3/3x3_s2_0_split_1
I0403 15:22:52.655306 14699 net.cpp:399] inception_4a/3x3_reduce -> inception_4a/3x3_reduce
I0403 15:22:52.656586 14699 net.cpp:141] Setting up inception_4a/3x3_reduce
I0403 15:22:52.656615 14699 net.cpp:148] Top shape: 24 96 14 14 (451584)
I0403 15:22:52.656630 14699 net.cpp:156] Memory required for data: 863429664
I0403 15:22:52.656654 14699 layer_factory.hpp:77] Creating layer inception_4a/relu_3x3_reduce
I0403 15:22:52.656675 14699 net.cpp:91] Creating Layer inception_4a/relu_3x3_reduce
I0403 15:22:52.656692 14699 net.cpp:425] inception_4a/relu_3x3_reduce <- inception_4a/3x3_reduce
I0403 15:22:52.656709 14699 net.cpp:386] inception_4a/relu_3x3_reduce -> inception_4a/3x3_reduce (in-place)
I0403 15:22:52.656888 14699 net.cpp:141] Setting up inception_4a/relu_3x3_reduce
I0403 15:22:52.656911 14699 net.cpp:148] Top shape: 24 96 14 14 (451584)
I0403 15:22:52.656926 14699 net.cpp:156] Memory required for data: 865236000
I0403 15:22:52.656940 14699 layer_factory.hpp:77] Creating layer inception_4a/3x3
I0403 15:22:52.656962 14699 net.cpp:91] Creating Layer inception_4a/3x3
I0403 15:22:52.656980 14699 net.cpp:425] inception_4a/3x3 <- inception_4a/3x3_reduce
I0403 15:22:52.657001 14699 net.cpp:399] inception_4a/3x3 -> inception_4a/3x3
I0403 15:22:52.659678 14699 net.cpp:141] Setting up inception_4a/3x3
I0403 15:22:52.659708 14699 net.cpp:148] Top shape: 24 208 14 14 (978432)
I0403 15:22:52.659724 14699 net.cpp:156] Memory required for data: 869149728
I0403 15:22:52.659754 14699 layer_factory.hpp:77] Creating layer inception_4a/relu_3x3
I0403 15:22:52.659775 14699 net.cpp:91] Creating Layer inception_4a/relu_3x3
I0403 15:22:52.659791 14699 net.cpp:425] inception_4a/relu_3x3 <- inception_4a/3x3
I0403 15:22:52.659809 14699 net.cpp:386] inception_4a/relu_3x3 -> inception_4a/3x3 (in-place)
I0403 15:22:52.660086 14699 net.cpp:141] Setting up inception_4a/relu_3x3
I0403 15:22:52.660112 14699 net.cpp:148] Top shape: 24 208 14 14 (978432)
I0403 15:22:52.660127 14699 net.cpp:156] Memory required for data: 873063456
I0403 15:22:52.660142 14699 layer_factory.hpp:77] Creating layer inception_4a/5x5_reduce
I0403 15:22:52.660166 14699 net.cpp:91] Creating Layer inception_4a/5x5_reduce
I0403 15:22:52.660182 14699 net.cpp:425] inception_4a/5x5_reduce <- pool3/3x3_s2_pool3/3x3_s2_0_split_2
I0403 15:22:52.660203 14699 net.cpp:399] inception_4a/5x5_reduce -> inception_4a/5x5_reduce
I0403 15:22:52.661214 14699 net.cpp:141] Setting up inception_4a/5x5_reduce
I0403 15:22:52.661242 14699 net.cpp:148] Top shape: 24 16 14 14 (75264)
I0403 15:22:52.661257 14699 net.cpp:156] Memory required for data: 873364512
I0403 15:22:52.661275 14699 layer_factory.hpp:77] Creating layer inception_4a/relu_5x5_reduce
I0403 15:22:52.661296 14699 net.cpp:91] Creating Layer inception_4a/relu_5x5_reduce
I0403 15:22:52.661314 14699 net.cpp:425] inception_4a/relu_5x5_reduce <- inception_4a/5x5_reduce
I0403 15:22:52.661330 14699 net.cpp:386] inception_4a/relu_5x5_reduce -> inception_4a/5x5_reduce (in-place)
I0403 15:22:52.661504 14699 net.cpp:141] Setting up inception_4a/relu_5x5_reduce
I0403 15:22:52.661531 14699 net.cpp:148] Top shape: 24 16 14 14 (75264)
I0403 15:22:52.661552 14699 net.cpp:156] Memory required for data: 873665568
I0403 15:22:52.661568 14699 layer_factory.hpp:77] Creating layer inception_4a/5x5
I0403 15:22:52.661591 14699 net.cpp:91] Creating Layer inception_4a/5x5
I0403 15:22:52.661607 14699 net.cpp:425] inception_4a/5x5 <- inception_4a/5x5_reduce
I0403 15:22:52.661626 14699 net.cpp:399] inception_4a/5x5 -> inception_4a/5x5
I0403 15:22:52.662732 14699 net.cpp:141] Setting up inception_4a/5x5
I0403 15:22:52.662762 14699 net.cpp:148] Top shape: 24 48 14 14 (225792)
I0403 15:22:52.662781 14699 net.cpp:156] Memory required for data: 874568736
I0403 15:22:52.662798 14699 layer_factory.hpp:77] Creating layer inception_4a/relu_5x5
I0403 15:22:52.662817 14699 net.cpp:91] Creating Layer inception_4a/relu_5x5
I0403 15:22:52.662832 14699 net.cpp:425] inception_4a/relu_5x5 <- inception_4a/5x5
I0403 15:22:52.662850 14699 net.cpp:386] inception_4a/relu_5x5 -> inception_4a/5x5 (in-place)
I0403 15:22:52.663030 14699 net.cpp:141] Setting up inception_4a/relu_5x5
I0403 15:22:52.663055 14699 net.cpp:148] Top shape: 24 48 14 14 (225792)
I0403 15:22:52.663069 14699 net.cpp:156] Memory required for data: 875471904
I0403 15:22:52.663084 14699 layer_factory.hpp:77] Creating layer inception_4a/pool
I0403 15:22:52.663101 14699 net.cpp:91] Creating Layer inception_4a/pool
I0403 15:22:52.663117 14699 net.cpp:425] inception_4a/pool <- pool3/3x3_s2_pool3/3x3_s2_0_split_3
I0403 15:22:52.663137 14699 net.cpp:399] inception_4a/pool -> inception_4a/pool
I0403 15:22:52.663198 14699 net.cpp:141] Setting up inception_4a/pool
I0403 15:22:52.663220 14699 net.cpp:148] Top shape: 24 480 14 14 (2257920)
I0403 15:22:52.663235 14699 net.cpp:156] Memory required for data: 884503584
I0403 15:22:52.663249 14699 layer_factory.hpp:77] Creating layer inception_4a/pool_proj
I0403 15:22:52.663272 14699 net.cpp:91] Creating Layer inception_4a/pool_proj
I0403 15:22:52.663288 14699 net.cpp:425] inception_4a/pool_proj <- inception_4a/pool
I0403 15:22:52.663307 14699 net.cpp:399] inception_4a/pool_proj -> inception_4a/pool_proj
I0403 15:22:52.664469 14699 net.cpp:141] Setting up inception_4a/pool_proj
I0403 15:22:52.664497 14699 net.cpp:148] Top shape: 24 64 14 14 (301056)
I0403 15:22:52.664528 14699 net.cpp:156] Memory required for data: 885707808
I0403 15:22:52.664554 14699 layer_factory.hpp:77] Creating layer inception_4a/relu_pool_proj
I0403 15:22:52.664572 14699 net.cpp:91] Creating Layer inception_4a/relu_pool_proj
I0403 15:22:52.664588 14699 net.cpp:425] inception_4a/relu_pool_proj <- inception_4a/pool_proj
I0403 15:22:52.664608 14699 net.cpp:386] inception_4a/relu_pool_proj -> inception_4a/pool_proj (in-place)
I0403 15:22:52.664891 14699 net.cpp:141] Setting up inception_4a/relu_pool_proj
I0403 15:22:52.664916 14699 net.cpp:148] Top shape: 24 64 14 14 (301056)
I0403 15:22:52.664932 14699 net.cpp:156] Memory required for data: 886912032
I0403 15:22:52.664947 14699 layer_factory.hpp:77] Creating layer inception_4a/output
I0403 15:22:52.664964 14699 net.cpp:91] Creating Layer inception_4a/output
I0403 15:22:52.664979 14699 net.cpp:425] inception_4a/output <- inception_4a/1x1
I0403 15:22:52.664995 14699 net.cpp:425] inception_4a/output <- inception_4a/3x3
I0403 15:22:52.665011 14699 net.cpp:425] inception_4a/output <- inception_4a/5x5
I0403 15:22:52.665027 14699 net.cpp:425] inception_4a/output <- inception_4a/pool_proj
I0403 15:22:52.665047 14699 net.cpp:399] inception_4a/output -> inception_4a/output
I0403 15:22:52.665091 14699 net.cpp:141] Setting up inception_4a/output
I0403 15:22:52.665113 14699 net.cpp:148] Top shape: 24 512 14 14 (2408448)
I0403 15:22:52.665128 14699 net.cpp:156] Memory required for data: 896545824
I0403 15:22:52.665143 14699 layer_factory.hpp:77] Creating layer inception_4a/output_inception_4a/output_0_split
I0403 15:22:52.665163 14699 net.cpp:91] Creating Layer inception_4a/output_inception_4a/output_0_split
I0403 15:22:52.665179 14699 net.cpp:425] inception_4a/output_inception_4a/output_0_split <- inception_4a/output
I0403 15:22:52.665199 14699 net.cpp:399] inception_4a/output_inception_4a/output_0_split -> inception_4a/output_inception_4a/output_0_split_0
I0403 15:22:52.665220 14699 net.cpp:399] inception_4a/output_inception_4a/output_0_split -> inception_4a/output_inception_4a/output_0_split_1
I0403 15:22:52.665241 14699 net.cpp:399] inception_4a/output_inception_4a/output_0_split -> inception_4a/output_inception_4a/output_0_split_2
I0403 15:22:52.665261 14699 net.cpp:399] inception_4a/output_inception_4a/output_0_split -> inception_4a/output_inception_4a/output_0_split_3
I0403 15:22:52.665280 14699 net.cpp:399] inception_4a/output_inception_4a/output_0_split -> inception_4a/output_inception_4a/output_0_split_4
I0403 15:22:52.665385 14699 net.cpp:141] Setting up inception_4a/output_inception_4a/output_0_split
I0403 15:22:52.665408 14699 net.cpp:148] Top shape: 24 512 14 14 (2408448)
I0403 15:22:52.665426 14699 net.cpp:148] Top shape: 24 512 14 14 (2408448)
I0403 15:22:52.665441 14699 net.cpp:148] Top shape: 24 512 14 14 (2408448)
I0403 15:22:52.665457 14699 net.cpp:148] Top shape: 24 512 14 14 (2408448)
I0403 15:22:52.665473 14699 net.cpp:148] Top shape: 24 512 14 14 (2408448)
I0403 15:22:52.665488 14699 net.cpp:156] Memory required for data: 944714784
I0403 15:22:52.665501 14699 layer_factory.hpp:77] Creating layer loss1/ave_pool
I0403 15:22:52.665521 14699 net.cpp:91] Creating Layer loss1/ave_pool
I0403 15:22:52.665549 14699 net.cpp:425] loss1/ave_pool <- inception_4a/output_inception_4a/output_0_split_0
I0403 15:22:52.665571 14699 net.cpp:399] loss1/ave_pool -> loss1/ave_pool
I0403 15:22:52.665794 14699 net.cpp:141] Setting up loss1/ave_pool
I0403 15:22:52.665820 14699 net.cpp:148] Top shape: 24 512 4 4 (196608)
I0403 15:22:52.665835 14699 net.cpp:156] Memory required for data: 945501216
I0403 15:22:52.665850 14699 layer_factory.hpp:77] Creating layer loss1/conv
I0403 15:22:52.665873 14699 net.cpp:91] Creating Layer loss1/conv
I0403 15:22:52.665889 14699 net.cpp:425] loss1/conv <- loss1/ave_pool
I0403 15:22:52.665910 14699 net.cpp:399] loss1/conv -> loss1/conv
I0403 15:22:52.667315 14699 net.cpp:141] Setting up loss1/conv
I0403 15:22:52.667342 14699 net.cpp:148] Top shape: 24 128 4 4 (49152)
I0403 15:22:52.667358 14699 net.cpp:156] Memory required for data: 945697824
I0403 15:22:52.667390 14699 layer_factory.hpp:77] Creating layer loss1/relu_conv
I0403 15:22:52.667412 14699 net.cpp:91] Creating Layer loss1/relu_conv
I0403 15:22:52.667429 14699 net.cpp:425] loss1/relu_conv <- loss1/conv
I0403 15:22:52.667448 14699 net.cpp:386] loss1/relu_conv -> loss1/conv (in-place)
I0403 15:22:52.667732 14699 net.cpp:141] Setting up loss1/relu_conv
I0403 15:22:52.667758 14699 net.cpp:148] Top shape: 24 128 4 4 (49152)
I0403 15:22:52.667773 14699 net.cpp:156] Memory required for data: 945894432
I0403 15:22:52.667788 14699 layer_factory.hpp:77] Creating layer loss1/fc
I0403 15:22:52.667814 14699 net.cpp:91] Creating Layer loss1/fc
I0403 15:22:52.667831 14699 net.cpp:425] loss1/fc <- loss1/conv
I0403 15:22:52.667850 14699 net.cpp:399] loss1/fc -> loss1/fc
I0403 15:22:52.685699 14699 net.cpp:141] Setting up loss1/fc
I0403 15:22:52.685732 14699 net.cpp:148] Top shape: 24 1024 (24576)
I0403 15:22:52.685750 14699 net.cpp:156] Memory required for data: 945992736
I0403 15:22:52.685768 14699 layer_factory.hpp:77] Creating layer loss1/relu_fc
I0403 15:22:52.685788 14699 net.cpp:91] Creating Layer loss1/relu_fc
I0403 15:22:52.685806 14699 net.cpp:425] loss1/relu_fc <- loss1/fc
I0403 15:22:52.685825 14699 net.cpp:386] loss1/relu_fc -> loss1/fc (in-place)
I0403 15:22:52.686012 14699 net.cpp:141] Setting up loss1/relu_fc
I0403 15:22:52.686036 14699 net.cpp:148] Top shape: 24 1024 (24576)
I0403 15:22:52.686051 14699 net.cpp:156] Memory required for data: 946091040
I0403 15:22:52.686066 14699 layer_factory.hpp:77] Creating layer loss1/drop_fc
I0403 15:22:52.686095 14699 net.cpp:91] Creating Layer loss1/drop_fc
I0403 15:22:52.686112 14699 net.cpp:425] loss1/drop_fc <- loss1/fc
I0403 15:22:52.686130 14699 net.cpp:386] loss1/drop_fc -> loss1/fc (in-place)
I0403 15:22:52.686179 14699 net.cpp:141] Setting up loss1/drop_fc
I0403 15:22:52.686205 14699 net.cpp:148] Top shape: 24 1024 (24576)
I0403 15:22:52.686221 14699 net.cpp:156] Memory required for data: 946189344
I0403 15:22:52.686236 14699 layer_factory.hpp:77] Creating layer loss1/classifier_plantvillage
I0403 15:22:52.686264 14699 net.cpp:91] Creating Layer loss1/classifier_plantvillage
I0403 15:22:52.686280 14699 net.cpp:425] loss1/classifier_plantvillage <- loss1/fc
I0403 15:22:52.686302 14699 net.cpp:399] loss1/classifier_plantvillage -> loss1/classifier_plantvillage
I0403 15:22:52.687224 14699 net.cpp:141] Setting up loss1/classifier_plantvillage
I0403 15:22:52.687252 14699 net.cpp:148] Top shape: 24 38 (912)
I0403 15:22:52.687268 14699 net.cpp:156] Memory required for data: 946192992
I0403 15:22:52.687285 14699 layer_factory.hpp:77] Creating layer loss1/classifier_plantvillage_loss1/classifier_plantvillage_0_split
I0403 15:22:52.687304 14699 net.cpp:91] Creating Layer loss1/classifier_plantvillage_loss1/classifier_plantvillage_0_split
I0403 15:22:52.687319 14699 net.cpp:425] loss1/classifier_plantvillage_loss1/classifier_plantvillage_0_split <- loss1/classifier_plantvillage
I0403 15:22:52.687338 14699 net.cpp:399] loss1/classifier_plantvillage_loss1/classifier_plantvillage_0_split -> loss1/classifier_plantvillage_loss1/classifier_plantvillage_0_split_0
I0403 15:22:52.687361 14699 net.cpp:399] loss1/classifier_plantvillage_loss1/classifier_plantvillage_0_split -> loss1/classifier_plantvillage_loss1/classifier_plantvillage_0_split_1
I0403 15:22:52.687381 14699 net.cpp:399] loss1/classifier_plantvillage_loss1/classifier_plantvillage_0_split -> loss1/classifier_plantvillage_loss1/classifier_plantvillage_0_split_2
I0403 15:22:52.687448 14699 net.cpp:141] Setting up loss1/classifier_plantvillage_loss1/classifier_plantvillage_0_split
I0403 15:22:52.687471 14699 net.cpp:148] Top shape: 24 38 (912)
I0403 15:22:52.687487 14699 net.cpp:148] Top shape: 24 38 (912)
I0403 15:22:52.687502 14699 net.cpp:148] Top shape: 24 38 (912)
I0403 15:22:52.687516 14699 net.cpp:156] Memory required for data: 946203936
I0403 15:22:52.687530 14699 layer_factory.hpp:77] Creating layer inception_4b/1x1
I0403 15:22:52.687557 14699 net.cpp:91] Creating Layer inception_4b/1x1
I0403 15:22:52.687592 14699 net.cpp:425] inception_4b/1x1 <- inception_4a/output_inception_4a/output_0_split_1
I0403 15:22:52.687613 14699 net.cpp:399] inception_4b/1x1 -> inception_4b/1x1
I0403 15:22:52.689240 14699 net.cpp:141] Setting up inception_4b/1x1
I0403 15:22:52.689278 14699 net.cpp:148] Top shape: 24 160 14 14 (752640)
I0403 15:22:52.689294 14699 net.cpp:156] Memory required for data: 949214496
I0403 15:22:52.689312 14699 layer_factory.hpp:77] Creating layer inception_4b/relu_1x1
I0403 15:22:52.689332 14699 net.cpp:91] Creating Layer inception_4b/relu_1x1
I0403 15:22:52.689349 14699 net.cpp:425] inception_4b/relu_1x1 <- inception_4b/1x1
I0403 15:22:52.689366 14699 net.cpp:386] inception_4b/relu_1x1 -> inception_4b/1x1 (in-place)
I0403 15:22:52.689548 14699 net.cpp:141] Setting up inception_4b/relu_1x1
I0403 15:22:52.689575 14699 net.cpp:148] Top shape: 24 160 14 14 (752640)
I0403 15:22:52.689591 14699 net.cpp:156] Memory required for data: 952225056
I0403 15:22:52.689610 14699 layer_factory.hpp:77] Creating layer inception_4b/3x3_reduce
I0403 15:22:52.689635 14699 net.cpp:91] Creating Layer inception_4b/3x3_reduce
I0403 15:22:52.689652 14699 net.cpp:425] inception_4b/3x3_reduce <- inception_4a/output_inception_4a/output_0_split_2
I0403 15:22:52.689671 14699 net.cpp:399] inception_4b/3x3_reduce -> inception_4b/3x3_reduce
I0403 15:22:52.691023 14699 net.cpp:141] Setting up inception_4b/3x3_reduce
I0403 15:22:52.691053 14699 net.cpp:148] Top shape: 24 112 14 14 (526848)
I0403 15:22:52.691071 14699 net.cpp:156] Memory required for data: 954332448
I0403 15:22:52.691088 14699 layer_factory.hpp:77] Creating layer inception_4b/relu_3x3_reduce
I0403 15:22:52.691107 14699 net.cpp:91] Creating Layer inception_4b/relu_3x3_reduce
I0403 15:22:52.691123 14699 net.cpp:425] inception_4b/relu_3x3_reduce <- inception_4b/3x3_reduce
I0403 15:22:52.691140 14699 net.cpp:386] inception_4b/relu_3x3_reduce -> inception_4b/3x3_reduce (in-place)
I0403 15:22:52.691418 14699 net.cpp:141] Setting up inception_4b/relu_3x3_reduce
I0403 15:22:52.691447 14699 net.cpp:148] Top shape: 24 112 14 14 (526848)
I0403 15:22:52.691463 14699 net.cpp:156] Memory required for data: 956439840
I0403 15:22:52.691478 14699 layer_factory.hpp:77] Creating layer inception_4b/3x3
I0403 15:22:52.691499 14699 net.cpp:91] Creating Layer inception_4b/3x3
I0403 15:22:52.691517 14699 net.cpp:425] inception_4b/3x3 <- inception_4b/3x3_reduce
I0403 15:22:52.691540 14699 net.cpp:399] inception_4b/3x3 -> inception_4b/3x3
I0403 15:22:52.694522 14699 net.cpp:141] Setting up inception_4b/3x3
I0403 15:22:52.694555 14699 net.cpp:148] Top shape: 24 224 14 14 (1053696)
I0403 15:22:52.694572 14699 net.cpp:156] Memory required for data: 960654624
I0403 15:22:52.694591 14699 layer_factory.hpp:77] Creating layer inception_4b/relu_3x3
I0403 15:22:52.694609 14699 net.cpp:91] Creating Layer inception_4b/relu_3x3
I0403 15:22:52.694625 14699 net.cpp:425] inception_4b/relu_3x3 <- inception_4b/3x3
I0403 15:22:52.694645 14699 net.cpp:386] inception_4b/relu_3x3 -> inception_4b/3x3 (in-place)
I0403 15:22:52.694829 14699 net.cpp:141] Setting up inception_4b/relu_3x3
I0403 15:22:52.694854 14699 net.cpp:148] Top shape: 24 224 14 14 (1053696)
I0403 15:22:52.694869 14699 net.cpp:156] Memory required for data: 964869408
I0403 15:22:52.694883 14699 layer_factory.hpp:77] Creating layer inception_4b/5x5_reduce
I0403 15:22:52.694905 14699 net.cpp:91] Creating Layer inception_4b/5x5_reduce
I0403 15:22:52.694921 14699 net.cpp:425] inception_4b/5x5_reduce <- inception_4a/output_inception_4a/output_0_split_3
I0403 15:22:52.694944 14699 net.cpp:399] inception_4b/5x5_reduce -> inception_4b/5x5_reduce
I0403 15:22:52.696056 14699 net.cpp:141] Setting up inception_4b/5x5_reduce
I0403 15:22:52.696085 14699 net.cpp:148] Top shape: 24 24 14 14 (112896)
I0403 15:22:52.696105 14699 net.cpp:156] Memory required for data: 965320992
I0403 15:22:52.696123 14699 layer_factory.hpp:77] Creating layer inception_4b/relu_5x5_reduce
I0403 15:22:52.696142 14699 net.cpp:91] Creating Layer inception_4b/relu_5x5_reduce
I0403 15:22:52.696173 14699 net.cpp:425] inception_4b/relu_5x5_reduce <- inception_4b/5x5_reduce
I0403 15:22:52.696192 14699 net.cpp:386] inception_4b/relu_5x5_reduce -> inception_4b/5x5_reduce (in-place)
I0403 15:22:52.696375 14699 net.cpp:141] Setting up inception_4b/relu_5x5_reduce
I0403 15:22:52.696403 14699 net.cpp:148] Top shape: 24 24 14 14 (112896)
I0403 15:22:52.696419 14699 net.cpp:156] Memory required for data: 965772576
I0403 15:22:52.696434 14699 layer_factory.hpp:77] Creating layer inception_4b/5x5
I0403 15:22:52.696455 14699 net.cpp:91] Creating Layer inception_4b/5x5
I0403 15:22:52.696472 14699 net.cpp:425] inception_4b/5x5 <- inception_4b/5x5_reduce
I0403 15:22:52.696491 14699 net.cpp:399] inception_4b/5x5 -> inception_4b/5x5
I0403 15:22:52.697732 14699 net.cpp:141] Setting up inception_4b/5x5
I0403 15:22:52.697759 14699 net.cpp:148] Top shape: 24 64 14 14 (301056)
I0403 15:22:52.697775 14699 net.cpp:156] Memory required for data: 966976800
I0403 15:22:52.697793 14699 layer_factory.hpp:77] Creating layer inception_4b/relu_5x5
I0403 15:22:52.697813 14699 net.cpp:91] Creating Layer inception_4b/relu_5x5
I0403 15:22:52.697829 14699 net.cpp:425] inception_4b/relu_5x5 <- inception_4b/5x5
I0403 15:22:52.697845 14699 net.cpp:386] inception_4b/relu_5x5 -> inception_4b/5x5 (in-place)
I0403 15:22:52.698125 14699 net.cpp:141] Setting up inception_4b/relu_5x5
I0403 15:22:52.698150 14699 net.cpp:148] Top shape: 24 64 14 14 (301056)
I0403 15:22:52.698165 14699 net.cpp:156] Memory required for data: 968181024
I0403 15:22:52.698179 14699 layer_factory.hpp:77] Creating layer inception_4b/pool
I0403 15:22:52.698199 14699 net.cpp:91] Creating Layer inception_4b/pool
I0403 15:22:52.698215 14699 net.cpp:425] inception_4b/pool <- inception_4a/output_inception_4a/output_0_split_4
I0403 15:22:52.698232 14699 net.cpp:399] inception_4b/pool -> inception_4b/pool
I0403 15:22:52.698299 14699 net.cpp:141] Setting up inception_4b/pool
I0403 15:22:52.698323 14699 net.cpp:148] Top shape: 24 512 14 14 (2408448)
I0403 15:22:52.698336 14699 net.cpp:156] Memory required for data: 977814816
I0403 15:22:52.698350 14699 layer_factory.hpp:77] Creating layer inception_4b/pool_proj
I0403 15:22:52.698372 14699 net.cpp:91] Creating Layer inception_4b/pool_proj
I0403 15:22:52.698390 14699 net.cpp:425] inception_4b/pool_proj <- inception_4b/pool
I0403 15:22:52.698410 14699 net.cpp:399] inception_4b/pool_proj -> inception_4b/pool_proj
I0403 15:22:52.699589 14699 net.cpp:141] Setting up inception_4b/pool_proj
I0403 15:22:52.699615 14699 net.cpp:148] Top shape: 24 64 14 14 (301056)
I0403 15:22:52.699630 14699 net.cpp:156] Memory required for data: 979019040
I0403 15:22:52.699647 14699 layer_factory.hpp:77] Creating layer inception_4b/relu_pool_proj
I0403 15:22:52.699666 14699 net.cpp:91] Creating Layer inception_4b/relu_pool_proj
I0403 15:22:52.699682 14699 net.cpp:425] inception_4b/relu_pool_proj <- inception_4b/pool_proj
I0403 15:22:52.699699 14699 net.cpp:386] inception_4b/relu_pool_proj -> inception_4b/pool_proj (in-place)
I0403 15:22:52.699874 14699 net.cpp:141] Setting up inception_4b/relu_pool_proj
I0403 15:22:52.699898 14699 net.cpp:148] Top shape: 24 64 14 14 (301056)
I0403 15:22:52.699911 14699 net.cpp:156] Memory required for data: 980223264
I0403 15:22:52.699926 14699 layer_factory.hpp:77] Creating layer inception_4b/output
I0403 15:22:52.699944 14699 net.cpp:91] Creating Layer inception_4b/output
I0403 15:22:52.699957 14699 net.cpp:425] inception_4b/output <- inception_4b/1x1
I0403 15:22:52.699973 14699 net.cpp:425] inception_4b/output <- inception_4b/3x3
I0403 15:22:52.699990 14699 net.cpp:425] inception_4b/output <- inception_4b/5x5
I0403 15:22:52.700004 14699 net.cpp:425] inception_4b/output <- inception_4b/pool_proj
I0403 15:22:52.700023 14699 net.cpp:399] inception_4b/output -> inception_4b/output
I0403 15:22:52.700067 14699 net.cpp:141] Setting up inception_4b/output
I0403 15:22:52.700089 14699 net.cpp:148] Top shape: 24 512 14 14 (2408448)
I0403 15:22:52.700106 14699 net.cpp:156] Memory required for data: 989857056
I0403 15:22:52.700135 14699 layer_factory.hpp:77] Creating layer inception_4b/output_inception_4b/output_0_split
I0403 15:22:52.700152 14699 net.cpp:91] Creating Layer inception_4b/output_inception_4b/output_0_split
I0403 15:22:52.700167 14699 net.cpp:425] inception_4b/output_inception_4b/output_0_split <- inception_4b/output
I0403 15:22:52.700184 14699 net.cpp:399] inception_4b/output_inception_4b/output_0_split -> inception_4b/output_inception_4b/output_0_split_0
I0403 15:22:52.700203 14699 net.cpp:399] inception_4b/output_inception_4b/output_0_split -> inception_4b/output_inception_4b/output_0_split_1
I0403 15:22:52.700223 14699 net.cpp:399] inception_4b/output_inception_4b/output_0_split -> inception_4b/output_inception_4b/output_0_split_2
I0403 15:22:52.700244 14699 net.cpp:399] inception_4b/output_inception_4b/output_0_split -> inception_4b/output_inception_4b/output_0_split_3
I0403 15:22:52.700328 14699 net.cpp:141] Setting up inception_4b/output_inception_4b/output_0_split
I0403 15:22:52.700350 14699 net.cpp:148] Top shape: 24 512 14 14 (2408448)
I0403 15:22:52.700366 14699 net.cpp:148] Top shape: 24 512 14 14 (2408448)
I0403 15:22:52.700381 14699 net.cpp:148] Top shape: 24 512 14 14 (2408448)
I0403 15:22:52.700395 14699 net.cpp:148] Top shape: 24 512 14 14 (2408448)
I0403 15:22:52.700408 14699 net.cpp:156] Memory required for data: 1028392224
I0403 15:22:52.700423 14699 layer_factory.hpp:77] Creating layer inception_4c/1x1
I0403 15:22:52.700443 14699 net.cpp:91] Creating Layer inception_4c/1x1
I0403 15:22:52.700460 14699 net.cpp:425] inception_4c/1x1 <- inception_4b/output_inception_4b/output_0_split_0
I0403 15:22:52.700480 14699 net.cpp:399] inception_4c/1x1 -> inception_4c/1x1
I0403 15:22:52.701884 14699 net.cpp:141] Setting up inception_4c/1x1
I0403 15:22:52.701911 14699 net.cpp:148] Top shape: 24 128 14 14 (602112)
I0403 15:22:52.701926 14699 net.cpp:156] Memory required for data: 1030800672
I0403 15:22:52.701944 14699 layer_factory.hpp:77] Creating layer inception_4c/relu_1x1
I0403 15:22:52.701962 14699 net.cpp:91] Creating Layer inception_4c/relu_1x1
I0403 15:22:52.701978 14699 net.cpp:425] inception_4c/relu_1x1 <- inception_4c/1x1
I0403 15:22:52.701997 14699 net.cpp:386] inception_4c/relu_1x1 -> inception_4c/1x1 (in-place)
I0403 15:22:52.702172 14699 net.cpp:141] Setting up inception_4c/relu_1x1
I0403 15:22:52.702195 14699 net.cpp:148] Top shape: 24 128 14 14 (602112)
I0403 15:22:52.702209 14699 net.cpp:156] Memory required for data: 1033209120
I0403 15:22:52.702224 14699 layer_factory.hpp:77] Creating layer inception_4c/3x3_reduce
I0403 15:22:52.702244 14699 net.cpp:91] Creating Layer inception_4c/3x3_reduce
I0403 15:22:52.702261 14699 net.cpp:425] inception_4c/3x3_reduce <- inception_4b/output_inception_4b/output_0_split_1
I0403 15:22:52.702280 14699 net.cpp:399] inception_4c/3x3_reduce -> inception_4c/3x3_reduce
I0403 15:22:52.704177 14699 net.cpp:141] Setting up inception_4c/3x3_reduce
I0403 15:22:52.704205 14699 net.cpp:148] Top shape: 24 128 14 14 (602112)
I0403 15:22:52.704221 14699 net.cpp:156] Memory required for data: 1035617568
I0403 15:22:52.704238 14699 layer_factory.hpp:77] Creating layer inception_4c/relu_3x3_reduce
I0403 15:22:52.704257 14699 net.cpp:91] Creating Layer inception_4c/relu_3x3_reduce
I0403 15:22:52.704275 14699 net.cpp:425] inception_4c/relu_3x3_reduce <- inception_4c/3x3_reduce
I0403 15:22:52.704291 14699 net.cpp:386] inception_4c/relu_3x3_reduce -> inception_4c/3x3_reduce (in-place)
I0403 15:22:52.704576 14699 net.cpp:141] Setting up inception_4c/relu_3x3_reduce
I0403 15:22:52.704601 14699 net.cpp:148] Top shape: 24 128 14 14 (602112)
I0403 15:22:52.704614 14699 net.cpp:156] Memory required for data: 1038026016
I0403 15:22:52.704629 14699 layer_factory.hpp:77] Creating layer inception_4c/3x3
I0403 15:22:52.704651 14699 net.cpp:91] Creating Layer inception_4c/3x3
I0403 15:22:52.704668 14699 net.cpp:425] inception_4c/3x3 <- inception_4c/3x3_reduce
I0403 15:22:52.704689 14699 net.cpp:399] inception_4c/3x3 -> inception_4c/3x3
I0403 15:22:52.708206 14699 net.cpp:141] Setting up inception_4c/3x3
I0403 15:22:52.708246 14699 net.cpp:148] Top shape: 24 256 14 14 (1204224)
I0403 15:22:52.708262 14699 net.cpp:156] Memory required for data: 1042842912
I0403 15:22:52.708293 14699 layer_factory.hpp:77] Creating layer inception_4c/relu_3x3
I0403 15:22:52.708314 14699 net.cpp:91] Creating Layer inception_4c/relu_3x3
I0403 15:22:52.708331 14699 net.cpp:425] inception_4c/relu_3x3 <- inception_4c/3x3
I0403 15:22:52.708348 14699 net.cpp:386] inception_4c/relu_3x3 -> inception_4c/3x3 (in-place)
I0403 15:22:52.708521 14699 net.cpp:141] Setting up inception_4c/relu_3x3
I0403 15:22:52.708551 14699 net.cpp:148] Top shape: 24 256 14 14 (1204224)
I0403 15:22:52.708569 14699 net.cpp:156] Memory required for data: 1047659808
I0403 15:22:52.708582 14699 layer_factory.hpp:77] Creating layer inception_4c/5x5_reduce
I0403 15:22:52.708601 14699 net.cpp:91] Creating Layer inception_4c/5x5_reduce
I0403 15:22:52.708618 14699 net.cpp:425] inception_4c/5x5_reduce <- inception_4b/output_inception_4b/output_0_split_2
I0403 15:22:52.708639 14699 net.cpp:399] inception_4c/5x5_reduce -> inception_4c/5x5_reduce
I0403 15:22:52.709712 14699 net.cpp:141] Setting up inception_4c/5x5_reduce
I0403 15:22:52.709738 14699 net.cpp:148] Top shape: 24 24 14 14 (112896)
I0403 15:22:52.709754 14699 net.cpp:156] Memory required for data: 1048111392
I0403 15:22:52.709771 14699 layer_factory.hpp:77] Creating layer inception_4c/relu_5x5_reduce
I0403 15:22:52.709792 14699 net.cpp:91] Creating Layer inception_4c/relu_5x5_reduce
I0403 15:22:52.709808 14699 net.cpp:425] inception_4c/relu_5x5_reduce <- inception_4c/5x5_reduce
I0403 15:22:52.709825 14699 net.cpp:386] inception_4c/relu_5x5_reduce -> inception_4c/5x5_reduce (in-place)
I0403 15:22:52.710005 14699 net.cpp:141] Setting up inception_4c/relu_5x5_reduce
I0403 15:22:52.710031 14699 net.cpp:148] Top shape: 24 24 14 14 (112896)
I0403 15:22:52.710047 14699 net.cpp:156] Memory required for data: 1048562976
I0403 15:22:52.710060 14699 layer_factory.hpp:77] Creating layer inception_4c/5x5
I0403 15:22:52.710081 14699 net.cpp:91] Creating Layer inception_4c/5x5
I0403 15:22:52.710098 14699 net.cpp:425] inception_4c/5x5 <- inception_4c/5x5_reduce
I0403 15:22:52.710116 14699 net.cpp:399] inception_4c/5x5 -> inception_4c/5x5
I0403 15:22:52.711324 14699 net.cpp:141] Setting up inception_4c/5x5
I0403 15:22:52.711354 14699 net.cpp:148] Top shape: 24 64 14 14 (301056)
I0403 15:22:52.711369 14699 net.cpp:156] Memory required for data: 1049767200
I0403 15:22:52.711386 14699 layer_factory.hpp:77] Creating layer inception_4c/relu_5x5
I0403 15:22:52.711405 14699 net.cpp:91] Creating Layer inception_4c/relu_5x5
I0403 15:22:52.711419 14699 net.cpp:425] inception_4c/relu_5x5 <- inception_4c/5x5
I0403 15:22:52.711438 14699 net.cpp:386] inception_4c/relu_5x5 -> inception_4c/5x5 (in-place)
I0403 15:22:52.711719 14699 net.cpp:141] Setting up inception_4c/relu_5x5
I0403 15:22:52.711746 14699 net.cpp:148] Top shape: 24 64 14 14 (301056)
I0403 15:22:52.711761 14699 net.cpp:156] Memory required for data: 1050971424
I0403 15:22:52.711776 14699 layer_factory.hpp:77] Creating layer inception_4c/pool
I0403 15:22:52.711791 14699 net.cpp:91] Creating Layer inception_4c/pool
I0403 15:22:52.711807 14699 net.cpp:425] inception_4c/pool <- inception_4b/output_inception_4b/output_0_split_3
I0403 15:22:52.711827 14699 net.cpp:399] inception_4c/pool -> inception_4c/pool
I0403 15:22:52.711890 14699 net.cpp:141] Setting up inception_4c/pool
I0403 15:22:52.711913 14699 net.cpp:148] Top shape: 24 512 14 14 (2408448)
I0403 15:22:52.711927 14699 net.cpp:156] Memory required for data: 1060605216
I0403 15:22:52.711941 14699 layer_factory.hpp:77] Creating layer inception_4c/pool_proj
I0403 15:22:52.711963 14699 net.cpp:91] Creating Layer inception_4c/pool_proj
I0403 15:22:52.711980 14699 net.cpp:425] inception_4c/pool_proj <- inception_4c/pool
I0403 15:22:52.711998 14699 net.cpp:399] inception_4c/pool_proj -> inception_4c/pool_proj
I0403 15:22:52.713188 14699 net.cpp:141] Setting up inception_4c/pool_proj
I0403 15:22:52.713215 14699 net.cpp:148] Top shape: 24 64 14 14 (301056)
I0403 15:22:52.713244 14699 net.cpp:156] Memory required for data: 1061809440
I0403 15:22:52.713263 14699 layer_factory.hpp:77] Creating layer inception_4c/relu_pool_proj
I0403 15:22:52.713284 14699 net.cpp:91] Creating Layer inception_4c/relu_pool_proj
I0403 15:22:52.713300 14699 net.cpp:425] inception_4c/relu_pool_proj <- inception_4c/pool_proj
I0403 15:22:52.713317 14699 net.cpp:386] inception_4c/relu_pool_proj -> inception_4c/pool_proj (in-place)
I0403 15:22:52.713495 14699 net.cpp:141] Setting up inception_4c/relu_pool_proj
I0403 15:22:52.713521 14699 net.cpp:148] Top shape: 24 64 14 14 (301056)
I0403 15:22:52.713539 14699 net.cpp:156] Memory required for data: 1063013664
I0403 15:22:52.713556 14699 layer_factory.hpp:77] Creating layer inception_4c/output
I0403 15:22:52.713572 14699 net.cpp:91] Creating Layer inception_4c/output
I0403 15:22:52.713588 14699 net.cpp:425] inception_4c/output <- inception_4c/1x1
I0403 15:22:52.713604 14699 net.cpp:425] inception_4c/output <- inception_4c/3x3
I0403 15:22:52.713627 14699 net.cpp:425] inception_4c/output <- inception_4c/5x5
I0403 15:22:52.713642 14699 net.cpp:425] inception_4c/output <- inception_4c/pool_proj
I0403 15:22:52.713659 14699 net.cpp:399] inception_4c/output -> inception_4c/output
I0403 15:22:52.713706 14699 net.cpp:141] Setting up inception_4c/output
I0403 15:22:52.713728 14699 net.cpp:148] Top shape: 24 512 14 14 (2408448)
I0403 15:22:52.713742 14699 net.cpp:156] Memory required for data: 1072647456
I0403 15:22:52.713757 14699 layer_factory.hpp:77] Creating layer inception_4c/output_inception_4c/output_0_split
I0403 15:22:52.713774 14699 net.cpp:91] Creating Layer inception_4c/output_inception_4c/output_0_split
I0403 15:22:52.713790 14699 net.cpp:425] inception_4c/output_inception_4c/output_0_split <- inception_4c/output
I0403 15:22:52.713806 14699 net.cpp:399] inception_4c/output_inception_4c/output_0_split -> inception_4c/output_inception_4c/output_0_split_0
I0403 15:22:52.713826 14699 net.cpp:399] inception_4c/output_inception_4c/output_0_split -> inception_4c/output_inception_4c/output_0_split_1
I0403 15:22:52.713846 14699 net.cpp:399] inception_4c/output_inception_4c/output_0_split -> inception_4c/output_inception_4c/output_0_split_2
I0403 15:22:52.713868 14699 net.cpp:399] inception_4c/output_inception_4c/output_0_split -> inception_4c/output_inception_4c/output_0_split_3
I0403 15:22:52.713953 14699 net.cpp:141] Setting up inception_4c/output_inception_4c/output_0_split
I0403 15:22:52.713974 14699 net.cpp:148] Top shape: 24 512 14 14 (2408448)
I0403 15:22:52.713989 14699 net.cpp:148] Top shape: 24 512 14 14 (2408448)
I0403 15:22:52.714004 14699 net.cpp:148] Top shape: 24 512 14 14 (2408448)
I0403 15:22:52.714020 14699 net.cpp:148] Top shape: 24 512 14 14 (2408448)
I0403 15:22:52.714032 14699 net.cpp:156] Memory required for data: 1111182624
I0403 15:22:52.714046 14699 layer_factory.hpp:77] Creating layer inception_4d/1x1
I0403 15:22:52.714067 14699 net.cpp:91] Creating Layer inception_4d/1x1
I0403 15:22:52.714084 14699 net.cpp:425] inception_4d/1x1 <- inception_4c/output_inception_4c/output_0_split_0
I0403 15:22:52.714104 14699 net.cpp:399] inception_4d/1x1 -> inception_4d/1x1
I0403 15:22:52.715451 14699 net.cpp:141] Setting up inception_4d/1x1
I0403 15:22:52.715477 14699 net.cpp:148] Top shape: 24 112 14 14 (526848)
I0403 15:22:52.715492 14699 net.cpp:156] Memory required for data: 1113290016
I0403 15:22:52.715510 14699 layer_factory.hpp:77] Creating layer inception_4d/relu_1x1
I0403 15:22:52.715528 14699 net.cpp:91] Creating Layer inception_4d/relu_1x1
I0403 15:22:52.715565 14699 net.cpp:425] inception_4d/relu_1x1 <- inception_4d/1x1
I0403 15:22:52.715587 14699 net.cpp:386] inception_4d/relu_1x1 -> inception_4d/1x1 (in-place)
I0403 15:22:52.715764 14699 net.cpp:141] Setting up inception_4d/relu_1x1
I0403 15:22:52.715787 14699 net.cpp:148] Top shape: 24 112 14 14 (526848)
I0403 15:22:52.715801 14699 net.cpp:156] Memory required for data: 1115397408
I0403 15:22:52.715816 14699 layer_factory.hpp:77] Creating layer inception_4d/3x3_reduce
I0403 15:22:52.715852 14699 net.cpp:91] Creating Layer inception_4d/3x3_reduce
I0403 15:22:52.715869 14699 net.cpp:425] inception_4d/3x3_reduce <- inception_4c/output_inception_4c/output_0_split_1
I0403 15:22:52.715890 14699 net.cpp:399] inception_4d/3x3_reduce -> inception_4d/3x3_reduce
I0403 15:22:52.717365 14699 net.cpp:141] Setting up inception_4d/3x3_reduce
I0403 15:22:52.717392 14699 net.cpp:148] Top shape: 24 144 14 14 (677376)
I0403 15:22:52.717409 14699 net.cpp:156] Memory required for data: 1118106912
I0403 15:22:52.717427 14699 layer_factory.hpp:77] Creating layer inception_4d/relu_3x3_reduce
I0403 15:22:52.717444 14699 net.cpp:91] Creating Layer inception_4d/relu_3x3_reduce
I0403 15:22:52.717460 14699 net.cpp:425] inception_4d/relu_3x3_reduce <- inception_4d/3x3_reduce
I0403 15:22:52.717479 14699 net.cpp:386] inception_4d/relu_3x3_reduce -> inception_4d/3x3_reduce (in-place)
I0403 15:22:52.717761 14699 net.cpp:141] Setting up inception_4d/relu_3x3_reduce
I0403 15:22:52.717789 14699 net.cpp:148] Top shape: 24 144 14 14 (677376)
I0403 15:22:52.717804 14699 net.cpp:156] Memory required for data: 1120816416
I0403 15:22:52.717819 14699 layer_factory.hpp:77] Creating layer inception_4d/3x3
I0403 15:22:52.717840 14699 net.cpp:91] Creating Layer inception_4d/3x3
I0403 15:22:52.717857 14699 net.cpp:425] inception_4d/3x3 <- inception_4d/3x3_reduce
I0403 15:22:52.717875 14699 net.cpp:399] inception_4d/3x3 -> inception_4d/3x3
I0403 15:22:52.722020 14699 net.cpp:141] Setting up inception_4d/3x3
I0403 15:22:52.722048 14699 net.cpp:148] Top shape: 24 288 14 14 (1354752)
I0403 15:22:52.722064 14699 net.cpp:156] Memory required for data: 1126235424
I0403 15:22:52.722081 14699 layer_factory.hpp:77] Creating layer inception_4d/relu_3x3
I0403 15:22:52.722101 14699 net.cpp:91] Creating Layer inception_4d/relu_3x3
I0403 15:22:52.722117 14699 net.cpp:425] inception_4d/relu_3x3 <- inception_4d/3x3
I0403 15:22:52.722134 14699 net.cpp:386] inception_4d/relu_3x3 -> inception_4d/3x3 (in-place)
I0403 15:22:52.722312 14699 net.cpp:141] Setting up inception_4d/relu_3x3
I0403 15:22:52.722335 14699 net.cpp:148] Top shape: 24 288 14 14 (1354752)
I0403 15:22:52.722350 14699 net.cpp:156] Memory required for data: 1131654432
I0403 15:22:52.722364 14699 layer_factory.hpp:77] Creating layer inception_4d/5x5_reduce
I0403 15:22:52.722388 14699 net.cpp:91] Creating Layer inception_4d/5x5_reduce
I0403 15:22:52.722404 14699 net.cpp:425] inception_4d/5x5_reduce <- inception_4c/output_inception_4c/output_0_split_2
I0403 15:22:52.722422 14699 net.cpp:399] inception_4d/5x5_reduce -> inception_4d/5x5_reduce
I0403 15:22:52.723548 14699 net.cpp:141] Setting up inception_4d/5x5_reduce
I0403 15:22:52.723577 14699 net.cpp:148] Top shape: 24 32 14 14 (150528)
I0403 15:22:52.723592 14699 net.cpp:156] Memory required for data: 1132256544
I0403 15:22:52.723610 14699 layer_factory.hpp:77] Creating layer inception_4d/relu_5x5_reduce
I0403 15:22:52.723630 14699 net.cpp:91] Creating Layer inception_4d/relu_5x5_reduce
I0403 15:22:52.723647 14699 net.cpp:425] inception_4d/relu_5x5_reduce <- inception_4d/5x5_reduce
I0403 15:22:52.723664 14699 net.cpp:386] inception_4d/relu_5x5_reduce -> inception_4d/5x5_reduce (in-place)
I0403 15:22:52.723845 14699 net.cpp:141] Setting up inception_4d/relu_5x5_reduce
I0403 15:22:52.723870 14699 net.cpp:148] Top shape: 24 32 14 14 (150528)
I0403 15:22:52.723886 14699 net.cpp:156] Memory required for data: 1132858656
I0403 15:22:52.723901 14699 layer_factory.hpp:77] Creating layer inception_4d/5x5
I0403 15:22:52.723919 14699 net.cpp:91] Creating Layer inception_4d/5x5
I0403 15:22:52.723937 14699 net.cpp:425] inception_4d/5x5 <- inception_4d/5x5_reduce
I0403 15:22:52.723956 14699 net.cpp:399] inception_4d/5x5 -> inception_4d/5x5
I0403 15:22:52.725406 14699 net.cpp:141] Setting up inception_4d/5x5
I0403 15:22:52.725435 14699 net.cpp:148] Top shape: 24 64 14 14 (301056)
I0403 15:22:52.725451 14699 net.cpp:156] Memory required for data: 1134062880
I0403 15:22:52.725469 14699 layer_factory.hpp:77] Creating layer inception_4d/relu_5x5
I0403 15:22:52.725500 14699 net.cpp:91] Creating Layer inception_4d/relu_5x5
I0403 15:22:52.725517 14699 net.cpp:425] inception_4d/relu_5x5 <- inception_4d/5x5
I0403 15:22:52.725534 14699 net.cpp:386] inception_4d/relu_5x5 -> inception_4d/5x5 (in-place)
I0403 15:22:52.725850 14699 net.cpp:141] Setting up inception_4d/relu_5x5
I0403 15:22:52.725878 14699 net.cpp:148] Top shape: 24 64 14 14 (301056)
I0403 15:22:52.725894 14699 net.cpp:156] Memory required for data: 1135267104
I0403 15:22:52.725908 14699 layer_factory.hpp:77] Creating layer inception_4d/pool
I0403 15:22:52.725925 14699 net.cpp:91] Creating Layer inception_4d/pool
I0403 15:22:52.725940 14699 net.cpp:425] inception_4d/pool <- inception_4c/output_inception_4c/output_0_split_3
I0403 15:22:52.725958 14699 net.cpp:399] inception_4d/pool -> inception_4d/pool
I0403 15:22:52.726023 14699 net.cpp:141] Setting up inception_4d/pool
I0403 15:22:52.726047 14699 net.cpp:148] Top shape: 24 512 14 14 (2408448)
I0403 15:22:52.726060 14699 net.cpp:156] Memory required for data: 1144900896
I0403 15:22:52.726074 14699 layer_factory.hpp:77] Creating layer inception_4d/pool_proj
I0403 15:22:52.726095 14699 net.cpp:91] Creating Layer inception_4d/pool_proj
I0403 15:22:52.726114 14699 net.cpp:425] inception_4d/pool_proj <- inception_4d/pool
I0403 15:22:52.726133 14699 net.cpp:399] inception_4d/pool_proj -> inception_4d/pool_proj
I0403 15:22:52.727874 14699 net.cpp:141] Setting up inception_4d/pool_proj
I0403 15:22:52.727902 14699 net.cpp:148] Top shape: 24 64 14 14 (301056)
I0403 15:22:52.727917 14699 net.cpp:156] Memory required for data: 1146105120
I0403 15:22:52.727936 14699 layer_factory.hpp:77] Creating layer inception_4d/relu_pool_proj
I0403 15:22:52.727955 14699 net.cpp:91] Creating Layer inception_4d/relu_pool_proj
I0403 15:22:52.727972 14699 net.cpp:425] inception_4d/relu_pool_proj <- inception_4d/pool_proj
I0403 15:22:52.727989 14699 net.cpp:386] inception_4d/relu_pool_proj -> inception_4d/pool_proj (in-place)
I0403 15:22:52.728168 14699 net.cpp:141] Setting up inception_4d/relu_pool_proj
I0403 15:22:52.728193 14699 net.cpp:148] Top shape: 24 64 14 14 (301056)
I0403 15:22:52.728206 14699 net.cpp:156] Memory required for data: 1147309344
I0403 15:22:52.728220 14699 layer_factory.hpp:77] Creating layer inception_4d/output
I0403 15:22:52.728240 14699 net.cpp:91] Creating Layer inception_4d/output
I0403 15:22:52.728255 14699 net.cpp:425] inception_4d/output <- inception_4d/1x1
I0403 15:22:52.728281 14699 net.cpp:425] inception_4d/output <- inception_4d/3x3
I0403 15:22:52.728297 14699 net.cpp:425] inception_4d/output <- inception_4d/5x5
I0403 15:22:52.728313 14699 net.cpp:425] inception_4d/output <- inception_4d/pool_proj
I0403 15:22:52.728330 14699 net.cpp:399] inception_4d/output -> inception_4d/output
I0403 15:22:52.728377 14699 net.cpp:141] Setting up inception_4d/output
I0403 15:22:52.728399 14699 net.cpp:148] Top shape: 24 528 14 14 (2483712)
I0403 15:22:52.728413 14699 net.cpp:156] Memory required for data: 1157244192
I0403 15:22:52.728427 14699 layer_factory.hpp:77] Creating layer inception_4d/output_inception_4d/output_0_split
I0403 15:22:52.728445 14699 net.cpp:91] Creating Layer inception_4d/output_inception_4d/output_0_split
I0403 15:22:52.728459 14699 net.cpp:425] inception_4d/output_inception_4d/output_0_split <- inception_4d/output
I0403 15:22:52.728478 14699 net.cpp:399] inception_4d/output_inception_4d/output_0_split -> inception_4d/output_inception_4d/output_0_split_0
I0403 15:22:52.728500 14699 net.cpp:399] inception_4d/output_inception_4d/output_0_split -> inception_4d/output_inception_4d/output_0_split_1
I0403 15:22:52.728519 14699 net.cpp:399] inception_4d/output_inception_4d/output_0_split -> inception_4d/output_inception_4d/output_0_split_2
I0403 15:22:52.728548 14699 net.cpp:399] inception_4d/output_inception_4d/output_0_split -> inception_4d/output_inception_4d/output_0_split_3
I0403 15:22:52.728577 14699 net.cpp:399] inception_4d/output_inception_4d/output_0_split -> inception_4d/output_inception_4d/output_0_split_4
I0403 15:22:52.728677 14699 net.cpp:141] Setting up inception_4d/output_inception_4d/output_0_split
I0403 15:22:52.728713 14699 net.cpp:148] Top shape: 24 528 14 14 (2483712)
I0403 15:22:52.728729 14699 net.cpp:148] Top shape: 24 528 14 14 (2483712)
I0403 15:22:52.728744 14699 net.cpp:148] Top shape: 24 528 14 14 (2483712)
I0403 15:22:52.728760 14699 net.cpp:148] Top shape: 24 528 14 14 (2483712)
I0403 15:22:52.728775 14699 net.cpp:148] Top shape: 24 528 14 14 (2483712)
I0403 15:22:52.728787 14699 net.cpp:156] Memory required for data: 1206918432
I0403 15:22:52.728801 14699 layer_factory.hpp:77] Creating layer loss2/ave_pool
I0403 15:22:52.728818 14699 net.cpp:91] Creating Layer loss2/ave_pool
I0403 15:22:52.728833 14699 net.cpp:425] loss2/ave_pool <- inception_4d/output_inception_4d/output_0_split_0
I0403 15:22:52.728853 14699 net.cpp:399] loss2/ave_pool -> loss2/ave_pool
I0403 15:22:52.729158 14699 net.cpp:141] Setting up loss2/ave_pool
I0403 15:22:52.729183 14699 net.cpp:148] Top shape: 24 528 4 4 (202752)
I0403 15:22:52.729198 14699 net.cpp:156] Memory required for data: 1207729440
I0403 15:22:52.729212 14699 layer_factory.hpp:77] Creating layer loss2/conv
I0403 15:22:52.729233 14699 net.cpp:91] Creating Layer loss2/conv
I0403 15:22:52.729250 14699 net.cpp:425] loss2/conv <- loss2/ave_pool
I0403 15:22:52.729270 14699 net.cpp:399] loss2/conv -> loss2/conv
I0403 15:22:52.731142 14699 net.cpp:141] Setting up loss2/conv
I0403 15:22:52.731173 14699 net.cpp:148] Top shape: 24 128 4 4 (49152)
I0403 15:22:52.731189 14699 net.cpp:156] Memory required for data: 1207926048
I0403 15:22:52.731206 14699 layer_factory.hpp:77] Creating layer loss2/relu_conv
I0403 15:22:52.731225 14699 net.cpp:91] Creating Layer loss2/relu_conv
I0403 15:22:52.731240 14699 net.cpp:425] loss2/relu_conv <- loss2/conv
I0403 15:22:52.731259 14699 net.cpp:386] loss2/relu_conv -> loss2/conv (in-place)
I0403 15:22:52.731540 14699 net.cpp:141] Setting up loss2/relu_conv
I0403 15:22:52.731567 14699 net.cpp:148] Top shape: 24 128 4 4 (49152)
I0403 15:22:52.731585 14699 net.cpp:156] Memory required for data: 1208122656
I0403 15:22:52.731598 14699 layer_factory.hpp:77] Creating layer loss2/fc
I0403 15:22:52.731616 14699 net.cpp:91] Creating Layer loss2/fc
I0403 15:22:52.731632 14699 net.cpp:425] loss2/fc <- loss2/conv
I0403 15:22:52.731654 14699 net.cpp:399] loss2/fc -> loss2/fc
I0403 15:22:52.748841 14699 net.cpp:141] Setting up loss2/fc
I0403 15:22:52.748870 14699 net.cpp:148] Top shape: 24 1024 (24576)
I0403 15:22:52.748885 14699 net.cpp:156] Memory required for data: 1208220960
I0403 15:22:52.748903 14699 layer_factory.hpp:77] Creating layer loss2/relu_fc
I0403 15:22:52.748922 14699 net.cpp:91] Creating Layer loss2/relu_fc
I0403 15:22:52.748939 14699 net.cpp:425] loss2/relu_fc <- loss2/fc
I0403 15:22:52.748955 14699 net.cpp:386] loss2/relu_fc -> loss2/fc (in-place)
I0403 15:22:52.749250 14699 net.cpp:141] Setting up loss2/relu_fc
I0403 15:22:52.749275 14699 net.cpp:148] Top shape: 24 1024 (24576)
I0403 15:22:52.749290 14699 net.cpp:156] Memory required for data: 1208319264
I0403 15:22:52.749305 14699 layer_factory.hpp:77] Creating layer loss2/drop_fc
I0403 15:22:52.749325 14699 net.cpp:91] Creating Layer loss2/drop_fc
I0403 15:22:52.749341 14699 net.cpp:425] loss2/drop_fc <- loss2/fc
I0403 15:22:52.749357 14699 net.cpp:386] loss2/drop_fc -> loss2/fc (in-place)
I0403 15:22:52.749407 14699 net.cpp:141] Setting up loss2/drop_fc
I0403 15:22:52.749428 14699 net.cpp:148] Top shape: 24 1024 (24576)
I0403 15:22:52.749442 14699 net.cpp:156] Memory required for data: 1208417568
I0403 15:22:52.749456 14699 layer_factory.hpp:77] Creating layer loss2/classifier_plantvillage
I0403 15:22:52.749474 14699 net.cpp:91] Creating Layer loss2/classifier_plantvillage
I0403 15:22:52.749490 14699 net.cpp:425] loss2/classifier_plantvillage <- loss2/fc
I0403 15:22:52.749511 14699 net.cpp:399] loss2/classifier_plantvillage -> loss2/classifier_plantvillage
I0403 15:22:52.749905 14699 net.cpp:141] Setting up loss2/classifier_plantvillage
I0403 15:22:52.749929 14699 net.cpp:148] Top shape: 24 38 (912)
I0403 15:22:52.749944 14699 net.cpp:156] Memory required for data: 1208421216
I0403 15:22:52.749977 14699 layer_factory.hpp:77] Creating layer loss2/classifier_plantvillage_loss2/classifier_plantvillage_0_split
I0403 15:22:52.749996 14699 net.cpp:91] Creating Layer loss2/classifier_plantvillage_loss2/classifier_plantvillage_0_split
I0403 15:22:52.750011 14699 net.cpp:425] loss2/classifier_plantvillage_loss2/classifier_plantvillage_0_split <- loss2/classifier_plantvillage
I0403 15:22:52.750030 14699 net.cpp:399] loss2/classifier_plantvillage_loss2/classifier_plantvillage_0_split -> loss2/classifier_plantvillage_loss2/classifier_plantvillage_0_split_0
I0403 15:22:52.750051 14699 net.cpp:399] loss2/classifier_plantvillage_loss2/classifier_plantvillage_0_split -> loss2/classifier_plantvillage_loss2/classifier_plantvillage_0_split_1
I0403 15:22:52.750072 14699 net.cpp:399] loss2/classifier_plantvillage_loss2/classifier_plantvillage_0_split -> loss2/classifier_plantvillage_loss2/classifier_plantvillage_0_split_2
I0403 15:22:52.750145 14699 net.cpp:141] Setting up loss2/classifier_plantvillage_loss2/classifier_plantvillage_0_split
I0403 15:22:52.750169 14699 net.cpp:148] Top shape: 24 38 (912)
I0403 15:22:52.750183 14699 net.cpp:148] Top shape: 24 38 (912)
I0403 15:22:52.750200 14699 net.cpp:148] Top shape: 24 38 (912)
I0403 15:22:52.750212 14699 net.cpp:156] Memory required for data: 1208432160
I0403 15:22:52.750227 14699 layer_factory.hpp:77] Creating layer inception_4e/1x1
I0403 15:22:52.750248 14699 net.cpp:91] Creating Layer inception_4e/1x1
I0403 15:22:52.750264 14699 net.cpp:425] inception_4e/1x1 <- inception_4d/output_inception_4d/output_0_split_1
I0403 15:22:52.750289 14699 net.cpp:399] inception_4e/1x1 -> inception_4e/1x1
I0403 15:22:52.752060 14699 net.cpp:141] Setting up inception_4e/1x1
I0403 15:22:52.752089 14699 net.cpp:148] Top shape: 24 256 14 14 (1204224)
I0403 15:22:52.752106 14699 net.cpp:156] Memory required for data: 1213249056
I0403 15:22:52.752123 14699 layer_factory.hpp:77] Creating layer inception_4e/relu_1x1
I0403 15:22:52.752141 14699 net.cpp:91] Creating Layer inception_4e/relu_1x1
I0403 15:22:52.752156 14699 net.cpp:425] inception_4e/relu_1x1 <- inception_4e/1x1
I0403 15:22:52.752176 14699 net.cpp:386] inception_4e/relu_1x1 -> inception_4e/1x1 (in-place)
I0403 15:22:52.752462 14699 net.cpp:141] Setting up inception_4e/relu_1x1
I0403 15:22:52.752490 14699 net.cpp:148] Top shape: 24 256 14 14 (1204224)
I0403 15:22:52.752506 14699 net.cpp:156] Memory required for data: 1218065952
I0403 15:22:52.752519 14699 layer_factory.hpp:77] Creating layer inception_4e/3x3_reduce
I0403 15:22:52.752544 14699 net.cpp:91] Creating Layer inception_4e/3x3_reduce
I0403 15:22:52.752563 14699 net.cpp:425] inception_4e/3x3_reduce <- inception_4d/output_inception_4d/output_0_split_2
I0403 15:22:52.752583 14699 net.cpp:399] inception_4e/3x3_reduce -> inception_4e/3x3_reduce
I0403 15:22:52.754655 14699 net.cpp:141] Setting up inception_4e/3x3_reduce
I0403 15:22:52.754683 14699 net.cpp:148] Top shape: 24 160 14 14 (752640)
I0403 15:22:52.754698 14699 net.cpp:156] Memory required for data: 1221076512
I0403 15:22:52.754716 14699 layer_factory.hpp:77] Creating layer inception_4e/relu_3x3_reduce
I0403 15:22:52.754735 14699 net.cpp:91] Creating Layer inception_4e/relu_3x3_reduce
I0403 15:22:52.754752 14699 net.cpp:425] inception_4e/relu_3x3_reduce <- inception_4e/3x3_reduce
I0403 15:22:52.754770 14699 net.cpp:386] inception_4e/relu_3x3_reduce -> inception_4e/3x3_reduce (in-place)
I0403 15:22:52.754951 14699 net.cpp:141] Setting up inception_4e/relu_3x3_reduce
I0403 15:22:52.754974 14699 net.cpp:148] Top shape: 24 160 14 14 (752640)
I0403 15:22:52.754988 14699 net.cpp:156] Memory required for data: 1224087072
I0403 15:22:52.755002 14699 layer_factory.hpp:77] Creating layer inception_4e/3x3
I0403 15:22:52.755023 14699 net.cpp:91] Creating Layer inception_4e/3x3
I0403 15:22:52.755040 14699 net.cpp:425] inception_4e/3x3 <- inception_4e/3x3_reduce
I0403 15:22:52.755060 14699 net.cpp:399] inception_4e/3x3 -> inception_4e/3x3
I0403 15:22:52.759958 14699 net.cpp:141] Setting up inception_4e/3x3
I0403 15:22:52.759999 14699 net.cpp:148] Top shape: 24 320 14 14 (1505280)
I0403 15:22:52.760015 14699 net.cpp:156] Memory required for data: 1230108192
I0403 15:22:52.760035 14699 layer_factory.hpp:77] Creating layer inception_4e/relu_3x3
I0403 15:22:52.760051 14699 net.cpp:91] Creating Layer inception_4e/relu_3x3
I0403 15:22:52.760067 14699 net.cpp:425] inception_4e/relu_3x3 <- inception_4e/3x3
I0403 15:22:52.760087 14699 net.cpp:386] inception_4e/relu_3x3 -> inception_4e/3x3 (in-place)
I0403 15:22:52.760399 14699 net.cpp:141] Setting up inception_4e/relu_3x3
I0403 15:22:52.760426 14699 net.cpp:148] Top shape: 24 320 14 14 (1505280)
I0403 15:22:52.760440 14699 net.cpp:156] Memory required for data: 1236129312
I0403 15:22:52.760454 14699 layer_factory.hpp:77] Creating layer inception_4e/5x5_reduce
I0403 15:22:52.760478 14699 net.cpp:91] Creating Layer inception_4e/5x5_reduce
I0403 15:22:52.760495 14699 net.cpp:425] inception_4e/5x5_reduce <- inception_4d/output_inception_4d/output_0_split_3
I0403 15:22:52.760516 14699 net.cpp:399] inception_4e/5x5_reduce -> inception_4e/5x5_reduce
I0403 15:22:52.761575 14699 net.cpp:141] Setting up inception_4e/5x5_reduce
I0403 15:22:52.761605 14699 net.cpp:148] Top shape: 24 32 14 14 (150528)
I0403 15:22:52.761620 14699 net.cpp:156] Memory required for data: 1236731424
I0403 15:22:52.761638 14699 layer_factory.hpp:77] Creating layer inception_4e/relu_5x5_reduce
I0403 15:22:52.761656 14699 net.cpp:91] Creating Layer inception_4e/relu_5x5_reduce
I0403 15:22:52.761672 14699 net.cpp:425] inception_4e/relu_5x5_reduce <- inception_4e/5x5_reduce
I0403 15:22:52.761688 14699 net.cpp:386] inception_4e/relu_5x5_reduce -> inception_4e/5x5_reduce (in-place)
I0403 15:22:52.761976 14699 net.cpp:141] Setting up inception_4e/relu_5x5_reduce
I0403 15:22:52.762002 14699 net.cpp:148] Top shape: 24 32 14 14 (150528)
I0403 15:22:52.762018 14699 net.cpp:156] Memory required for data: 1237333536
I0403 15:22:52.762032 14699 layer_factory.hpp:77] Creating layer inception_4e/5x5
I0403 15:22:52.762069 14699 net.cpp:91] Creating Layer inception_4e/5x5
I0403 15:22:52.762089 14699 net.cpp:425] inception_4e/5x5 <- inception_4e/5x5_reduce
I0403 15:22:52.762107 14699 net.cpp:399] inception_4e/5x5 -> inception_4e/5x5
I0403 15:22:52.763923 14699 net.cpp:141] Setting up inception_4e/5x5
I0403 15:22:52.763950 14699 net.cpp:148] Top shape: 24 128 14 14 (602112)
I0403 15:22:52.763965 14699 net.cpp:156] Memory required for data: 1239741984
I0403 15:22:52.763983 14699 layer_factory.hpp:77] Creating layer inception_4e/relu_5x5
I0403 15:22:52.764004 14699 net.cpp:91] Creating Layer inception_4e/relu_5x5
I0403 15:22:52.764020 14699 net.cpp:425] inception_4e/relu_5x5 <- inception_4e/5x5
I0403 15:22:52.764037 14699 net.cpp:386] inception_4e/relu_5x5 -> inception_4e/5x5 (in-place)
I0403 15:22:52.764230 14699 net.cpp:141] Setting up inception_4e/relu_5x5
I0403 15:22:52.764255 14699 net.cpp:148] Top shape: 24 128 14 14 (602112)
I0403 15:22:52.764269 14699 net.cpp:156] Memory required for data: 1242150432
I0403 15:22:52.764284 14699 layer_factory.hpp:77] Creating layer inception_4e/pool
I0403 15:22:52.764302 14699 net.cpp:91] Creating Layer inception_4e/pool
I0403 15:22:52.764317 14699 net.cpp:425] inception_4e/pool <- inception_4d/output_inception_4d/output_0_split_4
I0403 15:22:52.764335 14699 net.cpp:399] inception_4e/pool -> inception_4e/pool
I0403 15:22:52.764403 14699 net.cpp:141] Setting up inception_4e/pool
I0403 15:22:52.764426 14699 net.cpp:148] Top shape: 24 528 14 14 (2483712)
I0403 15:22:52.764441 14699 net.cpp:156] Memory required for data: 1252085280
I0403 15:22:52.764454 14699 layer_factory.hpp:77] Creating layer inception_4e/pool_proj
I0403 15:22:52.764475 14699 net.cpp:91] Creating Layer inception_4e/pool_proj
I0403 15:22:52.764492 14699 net.cpp:425] inception_4e/pool_proj <- inception_4e/pool
I0403 15:22:52.764513 14699 net.cpp:399] inception_4e/pool_proj -> inception_4e/pool_proj
I0403 15:22:52.766031 14699 net.cpp:141] Setting up inception_4e/pool_proj
I0403 15:22:52.766058 14699 net.cpp:148] Top shape: 24 128 14 14 (602112)
I0403 15:22:52.766088 14699 net.cpp:156] Memory required for data: 1254493728
I0403 15:22:52.766108 14699 layer_factory.hpp:77] Creating layer inception_4e/relu_pool_proj
I0403 15:22:52.766129 14699 net.cpp:91] Creating Layer inception_4e/relu_pool_proj
I0403 15:22:52.766145 14699 net.cpp:425] inception_4e/relu_pool_proj <- inception_4e/pool_proj
I0403 15:22:52.766161 14699 net.cpp:386] inception_4e/relu_pool_proj -> inception_4e/pool_proj (in-place)
I0403 15:22:52.766448 14699 net.cpp:141] Setting up inception_4e/relu_pool_proj
I0403 15:22:52.766474 14699 net.cpp:148] Top shape: 24 128 14 14 (602112)
I0403 15:22:52.766489 14699 net.cpp:156] Memory required for data: 1256902176
I0403 15:22:52.766502 14699 layer_factory.hpp:77] Creating layer inception_4e/output
I0403 15:22:52.766521 14699 net.cpp:91] Creating Layer inception_4e/output
I0403 15:22:52.766541 14699 net.cpp:425] inception_4e/output <- inception_4e/1x1
I0403 15:22:52.766558 14699 net.cpp:425] inception_4e/output <- inception_4e/3x3
I0403 15:22:52.766574 14699 net.cpp:425] inception_4e/output <- inception_4e/5x5
I0403 15:22:52.766590 14699 net.cpp:425] inception_4e/output <- inception_4e/pool_proj
I0403 15:22:52.766607 14699 net.cpp:399] inception_4e/output -> inception_4e/output
I0403 15:22:52.766654 14699 net.cpp:141] Setting up inception_4e/output
I0403 15:22:52.766680 14699 net.cpp:148] Top shape: 24 832 14 14 (3913728)
I0403 15:22:52.766695 14699 net.cpp:156] Memory required for data: 1272557088
I0403 15:22:52.766710 14699 layer_factory.hpp:77] Creating layer pool4/3x3_s2
I0403 15:22:52.766726 14699 net.cpp:91] Creating Layer pool4/3x3_s2
I0403 15:22:52.766741 14699 net.cpp:425] pool4/3x3_s2 <- inception_4e/output
I0403 15:22:52.766762 14699 net.cpp:399] pool4/3x3_s2 -> pool4/3x3_s2
I0403 15:22:52.766829 14699 net.cpp:141] Setting up pool4/3x3_s2
I0403 15:22:52.766855 14699 net.cpp:148] Top shape: 24 832 7 7 (978432)
I0403 15:22:52.766870 14699 net.cpp:156] Memory required for data: 1276470816
I0403 15:22:52.766883 14699 layer_factory.hpp:77] Creating layer pool4/3x3_s2_pool4/3x3_s2_0_split
I0403 15:22:52.766899 14699 net.cpp:91] Creating Layer pool4/3x3_s2_pool4/3x3_s2_0_split
I0403 15:22:52.766913 14699 net.cpp:425] pool4/3x3_s2_pool4/3x3_s2_0_split <- pool4/3x3_s2
I0403 15:22:52.766929 14699 net.cpp:399] pool4/3x3_s2_pool4/3x3_s2_0_split -> pool4/3x3_s2_pool4/3x3_s2_0_split_0
I0403 15:22:52.766948 14699 net.cpp:399] pool4/3x3_s2_pool4/3x3_s2_0_split -> pool4/3x3_s2_pool4/3x3_s2_0_split_1
I0403 15:22:52.766969 14699 net.cpp:399] pool4/3x3_s2_pool4/3x3_s2_0_split -> pool4/3x3_s2_pool4/3x3_s2_0_split_2
I0403 15:22:52.766990 14699 net.cpp:399] pool4/3x3_s2_pool4/3x3_s2_0_split -> pool4/3x3_s2_pool4/3x3_s2_0_split_3
I0403 15:22:52.767081 14699 net.cpp:141] Setting up pool4/3x3_s2_pool4/3x3_s2_0_split
I0403 15:22:52.767103 14699 net.cpp:148] Top shape: 24 832 7 7 (978432)
I0403 15:22:52.767119 14699 net.cpp:148] Top shape: 24 832 7 7 (978432)
I0403 15:22:52.767134 14699 net.cpp:148] Top shape: 24 832 7 7 (978432)
I0403 15:22:52.767149 14699 net.cpp:148] Top shape: 24 832 7 7 (978432)
I0403 15:22:52.767163 14699 net.cpp:156] Memory required for data: 1292125728
I0403 15:22:52.767176 14699 layer_factory.hpp:77] Creating layer inception_5a/1x1
I0403 15:22:52.767197 14699 net.cpp:91] Creating Layer inception_5a/1x1
I0403 15:22:52.767215 14699 net.cpp:425] inception_5a/1x1 <- pool4/3x3_s2_pool4/3x3_s2_0_split_0
I0403 15:22:52.767235 14699 net.cpp:399] inception_5a/1x1 -> inception_5a/1x1
I0403 15:22:52.770026 14699 net.cpp:141] Setting up inception_5a/1x1
I0403 15:22:52.770053 14699 net.cpp:148] Top shape: 24 256 7 7 (301056)
I0403 15:22:52.770069 14699 net.cpp:156] Memory required for data: 1293329952
I0403 15:22:52.770087 14699 layer_factory.hpp:77] Creating layer inception_5a/relu_1x1
I0403 15:22:52.770107 14699 net.cpp:91] Creating Layer inception_5a/relu_1x1
I0403 15:22:52.770124 14699 net.cpp:425] inception_5a/relu_1x1 <- inception_5a/1x1
I0403 15:22:52.770141 14699 net.cpp:386] inception_5a/relu_1x1 -> inception_5a/1x1 (in-place)
I0403 15:22:52.770457 14699 net.cpp:141] Setting up inception_5a/relu_1x1
I0403 15:22:52.770481 14699 net.cpp:148] Top shape: 24 256 7 7 (301056)
I0403 15:22:52.770496 14699 net.cpp:156] Memory required for data: 1294534176
I0403 15:22:52.770510 14699 layer_factory.hpp:77] Creating layer inception_5a/3x3_reduce
I0403 15:22:52.770534 14699 net.cpp:91] Creating Layer inception_5a/3x3_reduce
I0403 15:22:52.770555 14699 net.cpp:425] inception_5a/3x3_reduce <- pool4/3x3_s2_pool4/3x3_s2_0_split_1
I0403 15:22:52.770576 14699 net.cpp:399] inception_5a/3x3_reduce -> inception_5a/3x3_reduce
I0403 15:22:52.772991 14699 net.cpp:141] Setting up inception_5a/3x3_reduce
I0403 15:22:52.773020 14699 net.cpp:148] Top shape: 24 160 7 7 (188160)
I0403 15:22:52.773035 14699 net.cpp:156] Memory required for data: 1295286816
I0403 15:22:52.773052 14699 layer_factory.hpp:77] Creating layer inception_5a/relu_3x3_reduce
I0403 15:22:52.773072 14699 net.cpp:91] Creating Layer inception_5a/relu_3x3_reduce
I0403 15:22:52.773089 14699 net.cpp:425] inception_5a/relu_3x3_reduce <- inception_5a/3x3_reduce
I0403 15:22:52.773107 14699 net.cpp:386] inception_5a/relu_3x3_reduce -> inception_5a/3x3_reduce (in-place)
I0403 15:22:52.773288 14699 net.cpp:141] Setting up inception_5a/relu_3x3_reduce
I0403 15:22:52.773313 14699 net.cpp:148] Top shape: 24 160 7 7 (188160)
I0403 15:22:52.773326 14699 net.cpp:156] Memory required for data: 1296039456
I0403 15:22:52.773340 14699 layer_factory.hpp:77] Creating layer inception_5a/3x3
I0403 15:22:52.773362 14699 net.cpp:91] Creating Layer inception_5a/3x3
I0403 15:22:52.773378 14699 net.cpp:425] inception_5a/3x3 <- inception_5a/3x3_reduce
I0403 15:22:52.773401 14699 net.cpp:399] inception_5a/3x3 -> inception_5a/3x3
I0403 15:22:52.778319 14699 net.cpp:141] Setting up inception_5a/3x3
I0403 15:22:52.778347 14699 net.cpp:148] Top shape: 24 320 7 7 (376320)
I0403 15:22:52.778363 14699 net.cpp:156] Memory required for data: 1297544736
I0403 15:22:52.778381 14699 layer_factory.hpp:77] Creating layer inception_5a/relu_3x3
I0403 15:22:52.778400 14699 net.cpp:91] Creating Layer inception_5a/relu_3x3
I0403 15:22:52.778416 14699 net.cpp:425] inception_5a/relu_3x3 <- inception_5a/3x3
I0403 15:22:52.778434 14699 net.cpp:386] inception_5a/relu_3x3 -> inception_5a/3x3 (in-place)
I0403 15:22:52.778725 14699 net.cpp:141] Setting up inception_5a/relu_3x3
I0403 15:22:52.778751 14699 net.cpp:148] Top shape: 24 320 7 7 (376320)
I0403 15:22:52.778766 14699 net.cpp:156] Memory required for data: 1299050016
I0403 15:22:52.778780 14699 layer_factory.hpp:77] Creating layer inception_5a/5x5_reduce
I0403 15:22:52.778802 14699 net.cpp:91] Creating Layer inception_5a/5x5_reduce
I0403 15:22:52.778820 14699 net.cpp:425] inception_5a/5x5_reduce <- pool4/3x3_s2_pool4/3x3_s2_0_split_2
I0403 15:22:52.778839 14699 net.cpp:399] inception_5a/5x5_reduce -> inception_5a/5x5_reduce
I0403 15:22:52.779989 14699 net.cpp:141] Setting up inception_5a/5x5_reduce
I0403 15:22:52.780016 14699 net.cpp:148] Top shape: 24 32 7 7 (37632)
I0403 15:22:52.780031 14699 net.cpp:156] Memory required for data: 1299200544
I0403 15:22:52.780050 14699 layer_factory.hpp:77] Creating layer inception_5a/relu_5x5_reduce
I0403 15:22:52.780069 14699 net.cpp:91] Creating Layer inception_5a/relu_5x5_reduce
I0403 15:22:52.780086 14699 net.cpp:425] inception_5a/relu_5x5_reduce <- inception_5a/5x5_reduce
I0403 15:22:52.780102 14699 net.cpp:386] inception_5a/relu_5x5_reduce -> inception_5a/5x5_reduce (in-place)
I0403 15:22:52.780401 14699 net.cpp:141] Setting up inception_5a/relu_5x5_reduce
I0403 15:22:52.780431 14699 net.cpp:148] Top shape: 24 32 7 7 (37632)
I0403 15:22:52.780447 14699 net.cpp:156] Memory required for data: 1299351072
I0403 15:22:52.780460 14699 layer_factory.hpp:77] Creating layer inception_5a/5x5
I0403 15:22:52.780483 14699 net.cpp:91] Creating Layer inception_5a/5x5
I0403 15:22:52.780499 14699 net.cpp:425] inception_5a/5x5 <- inception_5a/5x5_reduce
I0403 15:22:52.780517 14699 net.cpp:399] inception_5a/5x5 -> inception_5a/5x5
I0403 15:22:52.782204 14699 net.cpp:141] Setting up inception_5a/5x5
I0403 15:22:52.782243 14699 net.cpp:148] Top shape: 24 128 7 7 (150528)
I0403 15:22:52.782258 14699 net.cpp:156] Memory required for data: 1299953184
I0403 15:22:52.782275 14699 layer_factory.hpp:77] Creating layer inception_5a/relu_5x5
I0403 15:22:52.782295 14699 net.cpp:91] Creating Layer inception_5a/relu_5x5
I0403 15:22:52.782312 14699 net.cpp:425] inception_5a/relu_5x5 <- inception_5a/5x5
I0403 15:22:52.782330 14699 net.cpp:386] inception_5a/relu_5x5 -> inception_5a/5x5 (in-place)
I0403 15:22:52.782516 14699 net.cpp:141] Setting up inception_5a/relu_5x5
I0403 15:22:52.782546 14699 net.cpp:148] Top shape: 24 128 7 7 (150528)
I0403 15:22:52.782562 14699 net.cpp:156] Memory required for data: 1300555296
I0403 15:22:52.782578 14699 layer_factory.hpp:77] Creating layer inception_5a/pool
I0403 15:22:52.782595 14699 net.cpp:91] Creating Layer inception_5a/pool
I0403 15:22:52.782610 14699 net.cpp:425] inception_5a/pool <- pool4/3x3_s2_pool4/3x3_s2_0_split_3
I0403 15:22:52.782630 14699 net.cpp:399] inception_5a/pool -> inception_5a/pool
I0403 15:22:52.782701 14699 net.cpp:141] Setting up inception_5a/pool
I0403 15:22:52.782722 14699 net.cpp:148] Top shape: 24 832 7 7 (978432)
I0403 15:22:52.782737 14699 net.cpp:156] Memory required for data: 1304469024
I0403 15:22:52.782752 14699 layer_factory.hpp:77] Creating layer inception_5a/pool_proj
I0403 15:22:52.782773 14699 net.cpp:91] Creating Layer inception_5a/pool_proj
I0403 15:22:52.782789 14699 net.cpp:425] inception_5a/pool_proj <- inception_5a/pool
I0403 15:22:52.782809 14699 net.cpp:399] inception_5a/pool_proj -> inception_5a/pool_proj
I0403 15:22:52.785058 14699 net.cpp:141] Setting up inception_5a/pool_proj
I0403 15:22:52.785086 14699 net.cpp:148] Top shape: 24 128 7 7 (150528)
I0403 15:22:52.785101 14699 net.cpp:156] Memory required for data: 1305071136
I0403 15:22:52.785118 14699 layer_factory.hpp:77] Creating layer inception_5a/relu_pool_proj
I0403 15:22:52.785140 14699 net.cpp:91] Creating Layer inception_5a/relu_pool_proj
I0403 15:22:52.785156 14699 net.cpp:425] inception_5a/relu_pool_proj <- inception_5a/pool_proj
I0403 15:22:52.785172 14699 net.cpp:386] inception_5a/relu_pool_proj -> inception_5a/pool_proj (in-place)
I0403 15:22:52.785475 14699 net.cpp:141] Setting up inception_5a/relu_pool_proj
I0403 15:22:52.785501 14699 net.cpp:148] Top shape: 24 128 7 7 (150528)
I0403 15:22:52.785516 14699 net.cpp:156] Memory required for data: 1305673248
I0403 15:22:52.785531 14699 layer_factory.hpp:77] Creating layer inception_5a/output
I0403 15:22:52.785565 14699 net.cpp:91] Creating Layer inception_5a/output
I0403 15:22:52.785583 14699 net.cpp:425] inception_5a/output <- inception_5a/1x1
I0403 15:22:52.785599 14699 net.cpp:425] inception_5a/output <- inception_5a/3x3
I0403 15:22:52.785614 14699 net.cpp:425] inception_5a/output <- inception_5a/5x5
I0403 15:22:52.785630 14699 net.cpp:425] inception_5a/output <- inception_5a/pool_proj
I0403 15:22:52.785650 14699 net.cpp:399] inception_5a/output -> inception_5a/output
I0403 15:22:52.785702 14699 net.cpp:141] Setting up inception_5a/output
I0403 15:22:52.785725 14699 net.cpp:148] Top shape: 24 832 7 7 (978432)
I0403 15:22:52.785739 14699 net.cpp:156] Memory required for data: 1309586976
I0403 15:22:52.785754 14699 layer_factory.hpp:77] Creating layer inception_5a/output_inception_5a/output_0_split
I0403 15:22:52.785770 14699 net.cpp:91] Creating Layer inception_5a/output_inception_5a/output_0_split
I0403 15:22:52.785785 14699 net.cpp:425] inception_5a/output_inception_5a/output_0_split <- inception_5a/output
I0403 15:22:52.785804 14699 net.cpp:399] inception_5a/output_inception_5a/output_0_split -> inception_5a/output_inception_5a/output_0_split_0
I0403 15:22:52.785825 14699 net.cpp:399] inception_5a/output_inception_5a/output_0_split -> inception_5a/output_inception_5a/output_0_split_1
I0403 15:22:52.785845 14699 net.cpp:399] inception_5a/output_inception_5a/output_0_split -> inception_5a/output_inception_5a/output_0_split_2
I0403 15:22:52.785864 14699 net.cpp:399] inception_5a/output_inception_5a/output_0_split -> inception_5a/output_inception_5a/output_0_split_3
I0403 15:22:52.785974 14699 net.cpp:141] Setting up inception_5a/output_inception_5a/output_0_split
I0403 15:22:52.786000 14699 net.cpp:148] Top shape: 24 832 7 7 (978432)
I0403 15:22:52.786017 14699 net.cpp:148] Top shape: 24 832 7 7 (978432)
I0403 15:22:52.786032 14699 net.cpp:148] Top shape: 24 832 7 7 (978432)
I0403 15:22:52.786046 14699 net.cpp:148] Top shape: 24 832 7 7 (978432)
I0403 15:22:52.786059 14699 net.cpp:156] Memory required for data: 1325241888
I0403 15:22:52.786073 14699 layer_factory.hpp:77] Creating layer inception_5b/1x1
I0403 15:22:52.786094 14699 net.cpp:91] Creating Layer inception_5b/1x1
I0403 15:22:52.786111 14699 net.cpp:425] inception_5b/1x1 <- inception_5a/output_inception_5a/output_0_split_0
I0403 15:22:52.786129 14699 net.cpp:399] inception_5b/1x1 -> inception_5b/1x1
I0403 15:22:52.789803 14699 net.cpp:141] Setting up inception_5b/1x1
I0403 15:22:52.789830 14699 net.cpp:148] Top shape: 24 384 7 7 (451584)
I0403 15:22:52.789845 14699 net.cpp:156] Memory required for data: 1327048224
I0403 15:22:52.789863 14699 layer_factory.hpp:77] Creating layer inception_5b/relu_1x1
I0403 15:22:52.789883 14699 net.cpp:91] Creating Layer inception_5b/relu_1x1
I0403 15:22:52.789901 14699 net.cpp:425] inception_5b/relu_1x1 <- inception_5b/1x1
I0403 15:22:52.789916 14699 net.cpp:386] inception_5b/relu_1x1 -> inception_5b/1x1 (in-place)
I0403 15:22:52.790215 14699 net.cpp:141] Setting up inception_5b/relu_1x1
I0403 15:22:52.790241 14699 net.cpp:148] Top shape: 24 384 7 7 (451584)
I0403 15:22:52.790256 14699 net.cpp:156] Memory required for data: 1328854560
I0403 15:22:52.790278 14699 layer_factory.hpp:77] Creating layer inception_5b/3x3_reduce
I0403 15:22:52.790299 14699 net.cpp:91] Creating Layer inception_5b/3x3_reduce
I0403 15:22:52.790316 14699 net.cpp:425] inception_5b/3x3_reduce <- inception_5a/output_inception_5a/output_0_split_1
I0403 15:22:52.790340 14699 net.cpp:399] inception_5b/3x3_reduce -> inception_5b/3x3_reduce
I0403 15:22:52.792973 14699 net.cpp:141] Setting up inception_5b/3x3_reduce
I0403 15:22:52.793002 14699 net.cpp:148] Top shape: 24 192 7 7 (225792)
I0403 15:22:52.793018 14699 net.cpp:156] Memory required for data: 1329757728
I0403 15:22:52.793036 14699 layer_factory.hpp:77] Creating layer inception_5b/relu_3x3_reduce
I0403 15:22:52.793056 14699 net.cpp:91] Creating Layer inception_5b/relu_3x3_reduce
I0403 15:22:52.793073 14699 net.cpp:425] inception_5b/relu_3x3_reduce <- inception_5b/3x3_reduce
I0403 15:22:52.793090 14699 net.cpp:386] inception_5b/relu_3x3_reduce -> inception_5b/3x3_reduce (in-place)
I0403 15:22:52.793275 14699 net.cpp:141] Setting up inception_5b/relu_3x3_reduce
I0403 15:22:52.793299 14699 net.cpp:148] Top shape: 24 192 7 7 (225792)
I0403 15:22:52.793316 14699 net.cpp:156] Memory required for data: 1330660896
I0403 15:22:52.793331 14699 layer_factory.hpp:77] Creating layer inception_5b/3x3
I0403 15:22:52.793349 14699 net.cpp:91] Creating Layer inception_5b/3x3
I0403 15:22:52.793366 14699 net.cpp:425] inception_5b/3x3 <- inception_5b/3x3_reduce
I0403 15:22:52.793386 14699 net.cpp:399] inception_5b/3x3 -> inception_5b/3x3
I0403 15:22:52.799994 14699 net.cpp:141] Setting up inception_5b/3x3
I0403 15:22:52.800022 14699 net.cpp:148] Top shape: 24 384 7 7 (451584)
I0403 15:22:52.800039 14699 net.cpp:156] Memory required for data: 1332467232
I0403 15:22:52.800055 14699 layer_factory.hpp:77] Creating layer inception_5b/relu_3x3
I0403 15:22:52.800076 14699 net.cpp:91] Creating Layer inception_5b/relu_3x3
I0403 15:22:52.800093 14699 net.cpp:425] inception_5b/relu_3x3 <- inception_5b/3x3
I0403 15:22:52.800110 14699 net.cpp:386] inception_5b/relu_3x3 -> inception_5b/3x3 (in-place)
I0403 15:22:52.800415 14699 net.cpp:141] Setting up inception_5b/relu_3x3
I0403 15:22:52.800441 14699 net.cpp:148] Top shape: 24 384 7 7 (451584)
I0403 15:22:52.800456 14699 net.cpp:156] Memory required for data: 1334273568
I0403 15:22:52.800469 14699 layer_factory.hpp:77] Creating layer inception_5b/5x5_reduce
I0403 15:22:52.800506 14699 net.cpp:91] Creating Layer inception_5b/5x5_reduce
I0403 15:22:52.800525 14699 net.cpp:425] inception_5b/5x5_reduce <- inception_5a/output_inception_5a/output_0_split_2
I0403 15:22:52.800551 14699 net.cpp:399] inception_5b/5x5_reduce -> inception_5b/5x5_reduce
I0403 15:22:52.801826 14699 net.cpp:141] Setting up inception_5b/5x5_reduce
I0403 15:22:52.801852 14699 net.cpp:148] Top shape: 24 48 7 7 (56448)
I0403 15:22:52.801867 14699 net.cpp:156] Memory required for data: 1334499360
I0403 15:22:52.801885 14699 layer_factory.hpp:77] Creating layer inception_5b/relu_5x5_reduce
I0403 15:22:52.801905 14699 net.cpp:91] Creating Layer inception_5b/relu_5x5_reduce
I0403 15:22:52.801923 14699 net.cpp:425] inception_5b/relu_5x5_reduce <- inception_5b/5x5_reduce
I0403 15:22:52.801939 14699 net.cpp:386] inception_5b/relu_5x5_reduce -> inception_5b/5x5_reduce (in-place)
I0403 15:22:52.802312 14699 net.cpp:141] Setting up inception_5b/relu_5x5_reduce
I0403 15:22:52.802337 14699 net.cpp:148] Top shape: 24 48 7 7 (56448)
I0403 15:22:52.802352 14699 net.cpp:156] Memory required for data: 1334725152
I0403 15:22:52.802367 14699 layer_factory.hpp:77] Creating layer inception_5b/5x5
I0403 15:22:52.802387 14699 net.cpp:91] Creating Layer inception_5b/5x5
I0403 15:22:52.802403 14699 net.cpp:425] inception_5b/5x5 <- inception_5b/5x5_reduce
I0403 15:22:52.802422 14699 net.cpp:399] inception_5b/5x5 -> inception_5b/5x5
I0403 15:22:52.804524 14699 net.cpp:141] Setting up inception_5b/5x5
I0403 15:22:52.804555 14699 net.cpp:148] Top shape: 24 128 7 7 (150528)
I0403 15:22:52.804574 14699 net.cpp:156] Memory required for data: 1335327264
I0403 15:22:52.804591 14699 layer_factory.hpp:77] Creating layer inception_5b/relu_5x5
I0403 15:22:52.804611 14699 net.cpp:91] Creating Layer inception_5b/relu_5x5
I0403 15:22:52.804628 14699 net.cpp:425] inception_5b/relu_5x5 <- inception_5b/5x5
I0403 15:22:52.804646 14699 net.cpp:386] inception_5b/relu_5x5 -> inception_5b/5x5 (in-place)
I0403 15:22:52.804837 14699 net.cpp:141] Setting up inception_5b/relu_5x5
I0403 15:22:52.804862 14699 net.cpp:148] Top shape: 24 128 7 7 (150528)
I0403 15:22:52.804879 14699 net.cpp:156] Memory required for data: 1335929376
I0403 15:22:52.804895 14699 layer_factory.hpp:77] Creating layer inception_5b/pool
I0403 15:22:52.804913 14699 net.cpp:91] Creating Layer inception_5b/pool
I0403 15:22:52.804927 14699 net.cpp:425] inception_5b/pool <- inception_5a/output_inception_5a/output_0_split_3
I0403 15:22:52.804947 14699 net.cpp:399] inception_5b/pool -> inception_5b/pool
I0403 15:22:52.805018 14699 net.cpp:141] Setting up inception_5b/pool
I0403 15:22:52.805042 14699 net.cpp:148] Top shape: 24 832 7 7 (978432)
I0403 15:22:52.805057 14699 net.cpp:156] Memory required for data: 1339843104
I0403 15:22:52.805070 14699 layer_factory.hpp:77] Creating layer inception_5b/pool_proj
I0403 15:22:52.805094 14699 net.cpp:91] Creating Layer inception_5b/pool_proj
I0403 15:22:52.805111 14699 net.cpp:425] inception_5b/pool_proj <- inception_5b/pool
I0403 15:22:52.805130 14699 net.cpp:399] inception_5b/pool_proj -> inception_5b/pool_proj
I0403 15:22:52.807412 14699 net.cpp:141] Setting up inception_5b/pool_proj
I0403 15:22:52.807440 14699 net.cpp:148] Top shape: 24 128 7 7 (150528)
I0403 15:22:52.807456 14699 net.cpp:156] Memory required for data: 1340445216
I0403 15:22:52.807474 14699 layer_factory.hpp:77] Creating layer inception_5b/relu_pool_proj
I0403 15:22:52.807493 14699 net.cpp:91] Creating Layer inception_5b/relu_pool_proj
I0403 15:22:52.807510 14699 net.cpp:425] inception_5b/relu_pool_proj <- inception_5b/pool_proj
I0403 15:22:52.807528 14699 net.cpp:386] inception_5b/relu_pool_proj -> inception_5b/pool_proj (in-place)
I0403 15:22:52.807828 14699 net.cpp:141] Setting up inception_5b/relu_pool_proj
I0403 15:22:52.807854 14699 net.cpp:148] Top shape: 24 128 7 7 (150528)
I0403 15:22:52.807869 14699 net.cpp:156] Memory required for data: 1341047328
I0403 15:22:52.807883 14699 layer_factory.hpp:77] Creating layer inception_5b/output
I0403 15:22:52.807904 14699 net.cpp:91] Creating Layer inception_5b/output
I0403 15:22:52.807934 14699 net.cpp:425] inception_5b/output <- inception_5b/1x1
I0403 15:22:52.807950 14699 net.cpp:425] inception_5b/output <- inception_5b/3x3
I0403 15:22:52.807966 14699 net.cpp:425] inception_5b/output <- inception_5b/5x5
I0403 15:22:52.807983 14699 net.cpp:425] inception_5b/output <- inception_5b/pool_proj
I0403 15:22:52.807999 14699 net.cpp:399] inception_5b/output -> inception_5b/output
I0403 15:22:52.808053 14699 net.cpp:141] Setting up inception_5b/output
I0403 15:22:52.808075 14699 net.cpp:148] Top shape: 24 1024 7 7 (1204224)
I0403 15:22:52.808090 14699 net.cpp:156] Memory required for data: 1345864224
I0403 15:22:52.808104 14699 layer_factory.hpp:77] Creating layer pool5/7x7_s1
I0403 15:22:52.808121 14699 net.cpp:91] Creating Layer pool5/7x7_s1
I0403 15:22:52.808148 14699 net.cpp:425] pool5/7x7_s1 <- inception_5b/output
I0403 15:22:52.808168 14699 net.cpp:399] pool5/7x7_s1 -> pool5/7x7_s1
I0403 15:22:52.808382 14699 net.cpp:141] Setting up pool5/7x7_s1
I0403 15:22:52.808408 14699 net.cpp:148] Top shape: 24 1024 1 1 (24576)
I0403 15:22:52.808429 14699 net.cpp:156] Memory required for data: 1345962528
I0403 15:22:52.808444 14699 layer_factory.hpp:77] Creating layer pool5/drop_7x7_s1
I0403 15:22:52.808464 14699 net.cpp:91] Creating Layer pool5/drop_7x7_s1
I0403 15:22:52.808480 14699 net.cpp:425] pool5/drop_7x7_s1 <- pool5/7x7_s1
I0403 15:22:52.808496 14699 net.cpp:386] pool5/drop_7x7_s1 -> pool5/7x7_s1 (in-place)
I0403 15:22:52.808552 14699 net.cpp:141] Setting up pool5/drop_7x7_s1
I0403 15:22:52.808574 14699 net.cpp:148] Top shape: 24 1024 1 1 (24576)
I0403 15:22:52.808588 14699 net.cpp:156] Memory required for data: 1346060832
I0403 15:22:52.808603 14699 layer_factory.hpp:77] Creating layer loss3/classifier_plantvillage
I0403 15:22:52.808622 14699 net.cpp:91] Creating Layer loss3/classifier_plantvillage
I0403 15:22:52.808640 14699 net.cpp:425] loss3/classifier_plantvillage <- pool5/7x7_s1
I0403 15:22:52.808656 14699 net.cpp:399] loss3/classifier_plantvillage -> loss3/classifier_plantvillage
I0403 15:22:52.809083 14699 net.cpp:141] Setting up loss3/classifier_plantvillage
I0403 15:22:52.809108 14699 net.cpp:148] Top shape: 24 38 (912)
I0403 15:22:52.809121 14699 net.cpp:156] Memory required for data: 1346064480
I0403 15:22:52.809139 14699 layer_factory.hpp:77] Creating layer loss3/classifier_plantvillage_loss3/classifier_plantvillage_0_split
I0403 15:22:52.809156 14699 net.cpp:91] Creating Layer loss3/classifier_plantvillage_loss3/classifier_plantvillage_0_split
I0403 15:22:52.809171 14699 net.cpp:425] loss3/classifier_plantvillage_loss3/classifier_plantvillage_0_split <- loss3/classifier_plantvillage
I0403 15:22:52.809191 14699 net.cpp:399] loss3/classifier_plantvillage_loss3/classifier_plantvillage_0_split -> loss3/classifier_plantvillage_loss3/classifier_plantvillage_0_split_0
I0403 15:22:52.809212 14699 net.cpp:399] loss3/classifier_plantvillage_loss3/classifier_plantvillage_0_split -> loss3/classifier_plantvillage_loss3/classifier_plantvillage_0_split_1
I0403 15:22:52.809231 14699 net.cpp:399] loss3/classifier_plantvillage_loss3/classifier_plantvillage_0_split -> loss3/classifier_plantvillage_loss3/classifier_plantvillage_0_split_2
I0403 15:22:52.809252 14699 net.cpp:399] loss3/classifier_plantvillage_loss3/classifier_plantvillage_0_split -> loss3/classifier_plantvillage_loss3/classifier_plantvillage_0_split_3
I0403 15:22:52.809355 14699 net.cpp:141] Setting up loss3/classifier_plantvillage_loss3/classifier_plantvillage_0_split
I0403 15:22:52.809378 14699 net.cpp:148] Top shape: 24 38 (912)
I0403 15:22:52.809396 14699 net.cpp:148] Top shape: 24 38 (912)
I0403 15:22:52.809411 14699 net.cpp:148] Top shape: 24 38 (912)
I0403 15:22:52.809425 14699 net.cpp:148] Top shape: 24 38 (912)
I0403 15:22:52.809439 14699 net.cpp:156] Memory required for data: 1346079072
I0403 15:22:52.809453 14699 layer_factory.hpp:77] Creating layer loss1/loss
I0403 15:22:52.809473 14699 net.cpp:91] Creating Layer loss1/loss
I0403 15:22:52.809489 14699 net.cpp:425] loss1/loss <- loss1/classifier_plantvillage_loss1/classifier_plantvillage_0_split_0
I0403 15:22:52.809520 14699 net.cpp:425] loss1/loss <- label_data_1_split_0
…
