…
I0403 15:01:56.080181 14030 net.cpp:313] The NetState phase (1) differed from the phase (0) specified by a rule in layer data
I0403 15:01:56.081351 14030 net.cpp:49] Initializing net from parameters: 
state {
  phase: TEST
}
layer {
  name: "data"
  type: "Data"
  top: "data"
  top: "label"
  include {
    phase: TEST
  }
  transform_param {
    mirror: false
    crop_size: 224
    mean_file: "/home/mohanty/data/final_dataset/lmdb/color-50-50/mean.binaryproto"
  }
  data_param {
    source: "/home/mohanty/data/final_dataset/lmdb/color-50-50/test_db"
    batch_size: 24
    backend: LMDB
  }
}
layer {
  name: "conv1/7x7_s2"
  type: "Convolution"
  bottom: "data"
  top: "conv1/7x7_s2"
  param {
    lr_mult: 1
    decay_mult: 1
  }
  param {
    lr_mult: 2
    decay_mult: 0
  }
  convolution_param {
    num_output: 64
    pad: 3
    kernel_size: 7
    stride: 2
    weight_filler {
      type: "xavier"
      std: 0.1
    }
    bias_filler {
      type: "constant"
      value: 0.2
    }
  }
}
layer {
  name: "conv1/relu_7x7"
  type: "ReLU"
  bottom: "conv1/7x7_s2"
  top: "conv1/7x7_s2"
}
layer {
  name: "pool1/3x3_s2"
  type: "Pooling"
  bottom: "conv1/7x7_s2"
  top: "pool1/3x3_s2"
  pooling_param {
    pool: MAX
    kernel_size: 3
    stride: 2
  }
}
layer {
  name: "pool1/norm1"
  type: "LRN"
  bottom: "pool1/3x3_s2"
  top: "pool1/norm1"
  lrn_param {
    local_size: 5
    alpha: 0.0001
    beta: 0.75
  }
}
layer {
  name: "conv2/3x3_reduce"
  type: "Convolution"
  bottom: "pool1/norm1"
  top: "conv2/3x3_reduce"
  param {
    lr_mult: 1
    decay_mult: 1
  }
  param {
    lr_mult: 2
    decay_mult: 0
  }
  convolution_param {
    num_output: 64
    kernel_size: 1
    weight_filler {
      type: "xavier"
      std: 0.1
    }
    bias_filler {
      type: "constant"
      value: 0.2
    }
  }
}
layer {
  name: "conv2/relu_3x3_reduce"
  type: "ReLU"
  bottom: "conv2/3x3_reduce"
  top: "conv2/3x3_reduce"
}
layer {
  name: "conv2/3x3"
  type: "Convolution"
  bottom: "conv2/3x3_reduce"
  top: "conv2/3x3"
  param {
    lr_mult: 1
    decay_mult: 1
  }
  param {
    lr_mult: 2
    decay_mult: 0
  }
  convolution_param {
    num_output: 192
    pad: 1
    kernel_size: 3
    weight_filler {
      type: "xavier"
      std: 0.03
    }
    bias_filler {
      type: "constant"
      value: 0.2
    }
  }
}
layer {
  name: "conv2/relu_3x3"
  type: "ReLU"
  bottom: "conv2/3x3"
  top: "conv2/3x3"
}
layer {
  name: "conv2/norm2"
  type: "LRN"
  bottom: "conv2/3x3"
  top: "conv2/norm2"
  lrn_param {
    local_size: 5
    alpha: 0.0001
    beta: 0.75
  }
}
layer {
  name: "pool2/3x3_s2"
  type: "Pooling"
  bottom: "conv2/norm2"
  top: "pool2/3x3_s2"
  pooling_param {
    pool: MAX
    kernel_size: 3
    stride: 2
  }
}
layer {
  name: "inception_3a/1x1"
  type: "Convolution"
  bottom: "pool2/3x3_s2"
  top: "inception_3a/1x1"
  param {
    lr_mult: 1
    decay_mult: 1
  }
  param {
    lr_mult: 2
    decay_mult: 0
  }
  convolution_param {
    num_output: 64
    kernel_size: 1
    weight_filler {
      type: "xavier"
      std: 0.03
    }
    bias_filler {
      type: "constant"
      value: 0.2
    }
  }
}
layer {
  name: "inception_3a/relu_1x1"
  type: "ReLU"
  bottom: "inception_3a/1x1"
  top: "inception_3a/1x1"
}
layer {
  name: "inception_3a/3x3_reduce"
  type: "Convolution"
  bottom: "pool2/3x3_s2"
  top: "inception_3a/3x3_reduce"
  param {
    lr_mult: 1
    decay_mult: 1
  }
  param {
    lr_mult: 2
    decay_mult: 0
  }
  convolution_param {
    num_output: 96
    kernel_size: 1
    weight_filler {
      type: "xavier"
      std: 0.09
    }
    bias_filler {
      type: "constant"
      value: 0.2
    }
  }
}
layer {
  name: "inception_3a/relu_3x3_reduce"
  type: "ReLU"
  bottom: "inception_3a/3x3_reduce"
  top: "inception_3a/3x3_reduce"
}
layer {
  name: "inception_3a/3x3"
  type: "Convolution"
  bottom: "inception_3a/3x3_reduce"
  top: "inception_3a/3x3"
  param {
    lr_mult: 1
    decay_mult: 1
  }
  param {
    lr_mult: 2
    decay_mult: 0
  }
  convolution_param {
    num_output: 128
    pad: 1
    kernel_size: 3
    weight_filler {
      type: "xavier"
      std: 0.03
    }
    bias_filler {
      type: "constant"
      value: 0.2
    }
  }
}
layer {
  name: "inception_3a/relu_3x3"
  type: "ReLU"
  bottom: "inception_3a/3x3"
  top: "inception_3a/3x3"
}
layer {
  name: "inception_3a/5x5_reduce"
  type: "Convolution"
  bottom: "pool2/3x3_s2"
  top: "inception_3a/5x5_reduce"
  param {
    lr_mult: 1
    decay_mult: 1
  }
  param {
    lr_mult: 2
    decay_mult: 0
  }
  convolution_param {
    num_output: 16
    kernel_size: 1
    weight_filler {
      type: "xavier"
      std: 0.2
    }
    bias_filler {
      type: "constant"
      value: 0.2
    }
  }
}
layer {
  name: "inception_3a/relu_5x5_reduce"
  type: "ReLU"
  bottom: "inception_3a/5x5_reduce"
  top: "inception_3a/5x5_reduce"
}
layer {
  name: "inception_3a/5x5"
  type: "Convolution"
  bottom: "inception_3a/5x5_reduce"
  top: "inception_3a/5x5"
  param {
    lr_mult: 1
    decay_mult: 1
  }
  param {
    lr_mult: 2
    decay_mult: 0
  }
  convolution_param {
    num_output: 32
    pad: 2
    kernel_size: 5
    weight_filler {
      type: "xavier"
      std: 0.03
    }
    bias_filler {
      type: "constant"
      value: 0.2
    }
  }
}
layer {
  name: "inception_3a/relu_5x5"
  type: "ReLU"
  bottom: "inception_3a/5x5"
  top: "inception_3a/5x5"
}
layer {
  name: "inception_3a/pool"
  type: "Pooling"
  bottom: "pool2/3x3_s2"
  top: "inception_3a/pool"
  pooling_param {
    pool: MAX
    kernel_size: 3
    stride: 1
    pad: 1
  }
}
layer {
  name: "inception_3a/pool_proj"
  type: "Convolution"
  bottom: "inception_3a/pool"
  top: "inception_3a/pool_proj"
  param {
    lr_mult: 1
    decay_mult: 1
  }
  param {
    lr_mult: 2
    decay_mult: 0
  }
  convolution_param {
    num_output: 32
    kernel_size: 1
    weight_filler {
      type: "xavier"
      std: 0.1
    }
    bias_filler {
      type: "constant"
      value: 0.2
    }
  }
}
layer {
  name: "inception_3a/relu_pool_proj"
  type: "ReLU"
  bottom: "inception_3a/pool_proj"
  top: "inception_3a/pool_proj"
}
layer {
  name: "inception_3a/output"
  type: "Concat"
  bottom: "inception_3a/1x1"
  bottom: "inception_3a/3x3"
  bottom: "inception_3a/5x5"
  bottom: "inception_3a/pool_proj"
  top: "inception_3a/output"
}
layer {
  name: "inception_3b/1x1"
  type: "Convolution"
  bottom: "inception_3a/output"
  top: "inception_3b/1x1"
  param {
    lr_mult: 1
    decay_mult: 1
  }
  param {
    lr_mult: 2
    decay_mult: 0
  }
  convolution_param {
    num_output: 128
    kernel_size: 1
    weight_filler {
      type: "xavier"
      std: 0.03
    }
    bias_filler {
      type: "constant"
      value: 0.2
    }
  }
}
layer {
  name: "inception_3b/relu_1x1"
  type: "ReLU"
  bottom: "inception_3b/1x1"
  top: "inception_3b/1x1"
}
layer {
  name: "inception_3b/3x3_reduce"
  type: "Convolution"
  bottom: "inception_3a/output"
  top: "inception_3b/3x3_reduce"
  param {
    lr_mult: 1
    decay_mult: 1
  }
  param {
    lr_mult: 2
    decay_mult: 0
  }
  convolution_param {
    num_output: 128
    kernel_size: 1
    weight_filler {
      type: "xavier"
      std: 0.09
    }
    bias_filler {
      type: "constant"
      value: 0.2
    }
  }
}
layer {
  name: "inception_3b/relu_3x3_reduce"
  type: "ReLU"
  bottom: "inception_3b/3x3_reduce"
  top: "inception_3b/3x3_reduce"
}
layer {
  name: "inception_3b/3x3"
  type: "Convolution"
  bottom: "inception_3b/3x3_reduce"
  top: "inception_3b/3x3"
  param {
    lr_mult: 1
    decay_mult: 1
  }
  param {
    lr_mult: 2
    decay_mult: 0
  }
  convolution_param {
    num_output: 192
    pad: 1
    kernel_size: 3
    weight_filler {
      type: "xavier"
      std: 0.03
    }
    bias_filler {
      type: "constant"
      value: 0.2
    }
  }
}
layer {
  name: "inception_3b/relu_3x3"
  type: "ReLU"
  bottom: "inception_3b/3x3"
  top: "inception_3b/3x3"
}
layer {
  name: "inception_3b/5x5_reduce"
  type: "Convolution"
  bottom: "inception_3a/output"
  top: "inception_3b/5x5_reduce"
  param {
    lr_mult: 1
    decay_mult: 1
  }
  param {
    lr_mult: 2
    decay_mult: 0
  }
  convolution_param {
    num_output: 32
    kernel_size: 1
    weight_filler {
      type: "xavier"
      std: 0.2
    }
    bias_filler {
      type: "constant"
      value: 0.2
    }
  }
}
layer {
  name: "inception_3b/relu_5x5_reduce"
  type: "ReLU"
  bottom: "inception_3b/5x5_reduce"
  top: "inception_3b/5x5_reduce"
}
layer {
  name: "inception_3b/5x5"
  type: "Convolution"
  bottom: "inception_3b/5x5_reduce"
  top: "inception_3b/5x5"
  param {
    lr_mult: 1
    decay_mult: 1
  }
  param {
    lr_mult: 2
    decay_mult: 0
  }
  convolution_param {
    num_output: 96
    pad: 2
    kernel_size: 5
    weight_filler {
      type: "xavier"
      std: 0.03
    }
    bias_filler {
      type: "constant"
      value: 0.2
    }
  }
}
layer {
  name: "inception_3b/relu_5x5"
  type: "ReLU"
  bottom: "inception_3b/5x5"
  top: "inception_3b/5x5"
}
layer {
  name: "inception_3b/pool"
  type: "Pooling"
  bottom: "inception_3a/output"
  top: "inception_3b/pool"
  pooling_param {
    pool: MAX
    kernel_size: 3
    stride: 1
    pad: 1
  }
}
layer {
  name: "inception_3b/pool_proj"
  type: "Convolution"
  bottom: "inception_3b/pool"
  top: "inception_3b/pool_proj"
  param {
    lr_mult: 1
    decay_mult: 1
  }
  param {
    lr_mult: 2
    decay_mult: 0
  }
  convolution_param {
    num_output: 64
    kernel_size: 1
    weight_filler {
      type: "xavier"
      std: 0.1
    }
    bias_filler {
      type: "constant"
      value: 0.2
    }
  }
}
layer {
  name: "inception_3b/relu_pool_proj"
  type: "ReLU"
  bottom: "inception_3b/pool_proj"
  top: "inception_3b/pool_proj"
}
layer {
  name: "inception_3b/output"
  type: "Concat"
  bottom: "inception_3b/1x1"
  bottom: "inception_3b/3x3"
  bottom: "inception_3b/5x5"
  bottom: "inception_3b/pool_proj"
  top: "inception_3b/output"
}
layer {
  name: "pool3/3x3_s2"
  type: "Pooling"
  bottom: "inception_3b/output"
  top: "pool3/3x3_s2"
  pooling_param {
    pool: MAX
    kernel_size: 3
    stride: 2
  }
}
layer {
  name: "inception_4a/1x1"
  type: "Convolution"
  bottom: "pool3/3x3_s2"
  top: "inception_4a/1x1"
  param {
    lr_mult: 1
    decay_mult: 1
  }
  param {
    lr_mult: 2
    decay_mult: 0
  }
  convolution_param {
    num_output: 192
    kernel_size: 1
    weight_filler {
      type: "xavier"
      std: 0.03
    }
    bias_filler {
      type: "constant"
      value: 0.2
    }
  }
}
layer {
  name: "inception_4a/relu_1x1"
  type: "ReLU"
  bottom: "inception_4a/1x1"
  top: "inception_4a/1x1"
}
layer {
  name: "inception_4a/3x3_reduce"
  type: "Convolution"
  bottom: "pool3/3x3_s2"
  top: "inception_4a/3x3_reduce"
  param {
    lr_mult: 1
    decay_mult: 1
  }
  param {
    lr_mult: 2
    decay_mult: 0
  }
  convolution_param {
    num_output: 96
    kernel_size: 1
    weight_filler {
      type: "xavier"
      std: 0.09
    }
    bias_filler {
      type: "constant"
      value: 0.2
    }
  }
}
layer {
  name: "inception_4a/relu_3x3_reduce"
  type: "ReLU"
  bottom: "inception_4a/3x3_reduce"
  top: "inception_4a/3x3_reduce"
}
layer {
  name: "inception_4a/3x3"
  type: "Convolution"
  bottom: "inception_4a/3x3_reduce"
  top: "inception_4a/3x3"
  param {
    lr_mult: 1
    decay_mult: 1
  }
  param {
    lr_mult: 2
    decay_mult: 0
  }
  convolution_param {
    num_output: 208
    pad: 1
    kernel_size: 3
    weight_filler {
      type: "xavier"
      std: 0.03
    }
    bias_filler {
      type: "constant"
      value: 0.2
    }
  }
}
layer {
  name: "inception_4a/relu_3x3"
  type: "ReLU"
  bottom: "inception_4a/3x3"
  top: "inception_4a/3x3"
}
layer {
  name: "inception_4a/5x5_reduce"
  type: "Convolution"
  bottom: "pool3/3x3_s2"
  top: "inception_4a/5x5_reduce"
  param {
    lr_mult: 1
    decay_mult: 1
  }
  param {
    lr_mult: 2
    decay_mult: 0
  }
  convolution_param {
    num_output: 16
    kernel_size: 1
    weight_filler {
      type: "xavier"
      std: 0.2
    }
    bias_filler {
      type: "constant"
      value: 0.2
    }
  }
}
layer {
  name: "inception_4a/relu_5x5_reduce"
  type: "ReLU"
  bottom: "inception_4a/5x5_reduce"
  top: "inception_4a/5x5_reduce"
}
layer {
  name: "inception_4a/5x5"
  type: "Convolution"
  bottom: "inception_4a/5x5_reduce"
  top: "inception_4a/5x5"
  param {
    lr_mult: 1
    decay_mult: 1
  }
  param {
    lr_mult: 2
    decay_mult: 0
  }
  convolution_param {
    num_output: 48
    pad: 2
    kernel_size: 5
    weight_filler {
      type: "xavier"
      std: 0.03
    }
    bias_filler {
      type: "constant"
      value: 0.2
    }
  }
}
layer {
  name: "inception_4a/relu_5x5"
  type: "ReLU"
  bottom: "inception_4a/5x5"
  top: "inception_4a/5x5"
}
layer {
  name: "inception_4a/pool"
  type: "Pooling"
  bottom: "pool3/3x3_s2"
  top: "inception_4a/pool"
  pooling_param {
    pool: MAX
    kernel_size: 3
    stride: 1
    pad: 1
  }
}
layer {
  name: "inception_4a/pool_proj"
  type: "Convolution"
  bottom: "inception_4a/pool"
  top: "inception_4a/pool_proj"
  param {
    lr_mult: 1
    decay_mult: 1
  }
  param {
    lr_mult: 2
    decay_mult: 0
  }
  convolution_param {
    num_output: 64
    kernel_size: 1
    weight_filler {
      type: "xavier"
      std: 0.1
    }
    bias_filler {
      type: "constant"
      value: 0.2
    }
  }
}
layer {
  name: "inception_4a/relu_pool_proj"
  type: "ReLU"
  bottom: "inception_4a/pool_proj"
  top: "inception_4a/pool_proj"
}
layer {
  name: "inception_4a/output"
  type: "Concat"
  bottom: "inception_4a/1x1"
  bottom: "inception_4a/3x3"
  bottom: "inception_4a/5x5"
  bottom: "inception_4a/pool_proj"
  top: "inception_4a/output"
}
layer {
  name: "loss1/ave_pool"
  type: "Pooling"
  bottom: "inception_4a/output"
  top: "loss1/ave_pool"
  pooling_param {
    pool: AVE
    kernel_size: 5
    stride: 3
  }
}
layer {
  name: "loss1/conv"
  type: "Convolution"
  bottom: "loss1/ave_pool"
  top: "loss1/conv"
  param {
    lr_mult: 1
    decay_mult: 1
  }
  param {
    lr_mult: 2
    decay_mult: 0
  }
  convolution_param {
    num_output: 128
    kernel_size: 1
    weight_filler {
      type: "xavier"
      std: 0.08
    }
    bias_filler {
      type: "constant"
      value: 0.2
    }
  }
}
layer {
  name: "loss1/relu_conv"
  type: "ReLU"
  bottom: "loss1/conv"
  top: "loss1/conv"
}
layer {
  name: "loss1/fc"
  type: "InnerProduct"
  bottom: "loss1/conv"
  top: "loss1/fc"
  param {
    lr_mult: 1
    decay_mult: 1
  }
  param {
    lr_mult: 2
    decay_mult: 0
  }
  inner_product_param {
    num_output: 1024
    weight_filler {
      type: "xavier"
      std: 0.02
    }
    bias_filler {
      type: "constant"
      value: 0.2
    }
  }
}
layer {
  name: "loss1/relu_fc"
  type: "ReLU"
  bottom: "loss1/fc"
  top: "loss1/fc"
}
layer {
  name: "loss1/drop_fc"
  type: "Dropout"
  bottom: "loss1/fc"
  top: "loss1/fc"
  dropout_param {
    dropout_ratio: 0.7
  }
}
layer {
  name: "loss1/classifier_plantvillage"
  type: "InnerProduct"
  bottom: "loss1/fc"
  top: "loss1/classifier_plantvillage"
  param {
    lr_mult: 1
    decay_mult: 1
  }
  param {
    lr_mult: 2
    decay_mult: 0
  }
  inner_product_param {
    num_output: 38
    weight_filler {
      type: "xavier"
      std: 0.0009765625
    }
    bias_filler {
      type: "constant"
      value: 0
    }
  }
}
layer {
  name: "inception_4b/1x1"
  type: "Convolution"
  bottom: "inception_4a/output"
  top: "inception_4b/1x1"
  param {
    lr_mult: 1
    decay_mult: 1
  }
  param {
    lr_mult: 2
    decay_mult: 0
  }
  convolution_param {
    num_output: 160
    kernel_size: 1
    weight_filler {
      type: "xavier"
      std: 0.03
    }
    bias_filler {
      type: "constant"
      value: 0.2
    }
  }
}
layer {
  name: "inception_4b/relu_1x1"
  type: "ReLU"
  bottom: "inception_4b/1x1"
  top: "inception_4b/1x1"
}
layer {
  name: "inception_4b/3x3_reduce"
  type: "Convolution"
  bottom: "inception_4a/output"
  top: "inception_4b/3x3_reduce"
  param {
    lr_mult: 1
    decay_mult: 1
  }
  param {
    lr_mult: 2
    decay_mult: 0
  }
  convolution_param {
    num_output: 112
    kernel_size: 1
    weight_filler {
      type: "xavier"
      std: 0.09
    }
    bias_filler {
      type: "constant"
      value: 0.2
    }
  }
}
layer {
  name: "inception_4b/relu_3x3_reduce"
  type: "ReLU"
  bottom: "inception_4b/3x3_reduce"
  top: "inception_4b/3x3_reduce"
}
layer {
  name: "inception_4b/3x3"
  type: "Convolution"
  bottom: "inception_4b/3x3_reduce"
  top: "inception_4b/3x3"
  param {
    lr_mult: 1
    decay_mult: 1
  }
  param {
    lr_mult: 2
    decay_mult: 0
  }
  convolution_param {
    num_output: 224
    pad: 1
    kernel_size: 3
    weight_filler {
      type: "xavier"
      std: 0.03
    }
    bias_filler {
      type: "constant"
      value: 0.2
    }
  }
}
layer {
  name: "inception_4b/relu_3x3"
  type: "ReLU"
  bottom: "inception_4b/3x3"
  top: "inception_4b/3x3"
}
layer {
  name: "inception_4b/5x5_reduce"
  type: "Convolution"
  bottom: "inception_4a/output"
  top: "inception_4b/5x5_reduce"
  param {
    lr_mult: 1
    decay_mult: 1
  }
  param {
    lr_mult: 2
    decay_mult: 0
  }
  convolution_param {
    num_output: 24
    kernel_size: 1
    weight_filler {
      type: "xavier"
      std: 0.2
    }
    bias_filler {
      type: "constant"
      value: 0.2
    }
  }
}
layer {
  name: "inception_4b/relu_5x5_reduce"
  type: "ReLU"
  bottom: "inception_4b/5x5_reduce"
  top: "inception_4b/5x5_reduce"
}
layer {
  name: "inception_4b/5x5"
  type: "Convolution"
  bottom: "inception_4b/5x5_reduce"
  top: "inception_4b/5x5"
  param {
    lr_mult: 1
    decay_mult: 1
  }
  param {
    lr_mult: 2
    decay_mult: 0
  }
  convolution_param {
    num_output: 64
    pad: 2
    kernel_size: 5
    weight_filler {
      type: "xavier"
      std: 0.03
    }
    bias_filler {
      type: "constant"
      value: 0.2
    }
  }
}
layer {
  name: "inception_4b/relu_5x5"
  type: "ReLU"
  bottom: "inception_4b/5x5"
  top: "inception_4b/5x5"
}
layer {
  name: "inception_4b/pool"
  type: "Pooling"
  bottom: "inception_4a/output"
  top: "inception_4b/pool"
  pooling_param {
    pool: MAX
    kernel_size: 3
    stride: 1
    pad: 1
  }
}
layer {
  name: "inception_4b/pool_proj"
  type: "Convolution"
  bottom: "inception_4b/pool"
  top: "inception_4b/pool_proj"
  param {
    lr_mult: 1
    decay_mult: 1
  }
  param {
    lr_mult: 2
    decay_mult: 0
  }
  convolution_param {
    num_output: 64
    kernel_size: 1
    weight_filler {
      type: "xavier"
      std: 0.1
    }
    bias_filler {
      type: "constant"
      value: 0.2
    }
  }
}
layer {
  name: "inception_4b/relu_pool_proj"
  type: "ReLU"
  bottom: "inception_4b/pool_proj"
  top: "inception_4b/pool_proj"
}
layer {
  name: "inception_4b/output"
  type: "Concat"
  bottom: "inception_4b/1x1"
  bottom: "inception_4b/3x3"
  bottom: "inception_4b/5x5"
  bottom: "inception_4b/pool_proj"
  top: "inception_4b/output"
}
layer {
  name: "inception_4c/1x1"
  type: "Convolution"
  bottom: "inception_4b/output"
  top: "inception_4c/1x1"
  param {
    lr_mult: 1
    decay_mult: 1
  }
  param {
    lr_mult: 2
    decay_mult: 0
  }
  convolution_param {
    num_output: 128
    kernel_size: 1
    weight_filler {
      type: "xavier"
      std: 0.03
    }
    bias_filler {
      type: "constant"
      value: 0.2
    }
  }
}
layer {
  name: "inception_4c/relu_1x1"
  type: "ReLU"
  bottom: "inception_4c/1x1"
  top: "inception_4c/1x1"
}
layer {
  name: "inception_4c/3x3_reduce"
  type: "Convolution"
  bottom: "inception_4b/output"
  top: "inception_4c/3x3_reduce"
  param {
    lr_mult: 1
    decay_mult: 1
  }
  param {
    lr_mult: 2
    decay_mult: 0
  }
  convolution_param {
    num_output: 128
    kernel_size: 1
    weight_filler {
      type: "xavier"
      std: 0.09
    }
    bias_filler {
      type: "constant"
      value: 0.2
    }
  }
}
layer {
  name: "inception_4c/relu_3x3_reduce"
  type: "ReLU"
  bottom: "inception_4c/3x3_reduce"
  top: "inception_4c/3x3_reduce"
}
layer {
  name: "inception_4c/3x3"
  type: "Convolution"
  bottom: "inception_4c/3x3_reduce"
  top: "inception_4c/3x3"
  param {
    lr_mult: 1
    decay_mult: 1
  }
  param {
    lr_mult: 2
    decay_mult: 0
  }
  convolution_param {
    num_output: 256
    pad: 1
    kernel_size: 3
    weight_filler {
      type: "xavier"
      std: 0.03
    }
    bias_filler {
      type: "constant"
      value: 0.2
    }
  }
}
layer {
  name: "inception_4c/relu_3x3"
  type: "ReLU"
  bottom: "inception_4c/3x3"
  top: "inception_4c/3x3"
}
layer {
  name: "inception_4c/5x5_reduce"
  type: "Convolution"
  bottom: "inception_4b/output"
  top: "inception_4c/5x5_reduce"
  param {
    lr_mult: 1
    decay_mult: 1
  }
  param {
    lr_mult: 2
    decay_mult: 0
  }
  convolution_param {
    num_output: 24
    kernel_size: 1
    weight_filler {
      type: "xavier"
      std: 0.2
    }
    bias_filler {
      type: "constant"
      value: 0.2
    }
  }
}
layer {
  name: "inception_4c/relu_5x5_reduce"
  type: "ReLU"
  bottom: "inception_4c/5x5_reduce"
  top: "inception_4c/5x5_reduce"
}
layer {
  name: "inception_4c/5x5"
  type: "Convolution"
  bottom: "inception_4c/5x5_reduce"
  top: "inception_4c/5x5"
  param {
    lr_mult: 1
    decay_mult: 1
  }
  param {
    lr_mult: 2
    decay_mult: 0
  }
  convolution_param {
    num_output: 64
    pad: 2
    kernel_size: 5
    weight_filler {
      type: "xavier"
      std: 0.03
    }
    bias_filler {
      type: "constant"
      value: 0.2
    }
  }
}
layer {
  name: "inception_4c/relu_5x5"
  type: "ReLU"
  bottom: "inception_4c/5x5"
  top: "inception_4c/5x5"
}
layer {
  name: "inception_4c/pool"
  type: "Pooling"
  bottom: "inception_4b/output"
  top: "inception_4c/pool"
  pooling_param {
    pool: MAX
    kernel_size: 3
    stride: 1
    pad: 1
  }
}
layer {
  name: "inception_4c/pool_proj"
  type: "Convolution"
  bottom: "inception_4c/pool"
  top: "inception_4c/pool_proj"
  param {
    lr_mult: 1
    decay_mult: 1
  }
  param {
    lr_mult: 2
    decay_mult: 0
  }
  convolution_param {
    num_output: 64
    kernel_size: 1
    weight_filler {
      type: "xavier"
      std: 0.1
    }
    bias_filler {
      type: "constant"
      value: 0.2
    }
  }
}
layer {
  name: "inception_4c/relu_pool_proj"
  type: "ReLU"
  bottom: "inception_4c/pool_proj"
  top: "inception_4c/pool_proj"
}
layer {
  name: "inception_4c/output"
  type: "Concat"
  bottom: "inception_4c/1x1"
  bottom: "inception_4c/3x3"
  bottom: "inception_4c/5x5"
  bottom: "inception_4c/pool_proj"
  top: "inception_4c/output"
}
layer {
  name: "inception_4d/1x1"
  type: "Convolution"
  bottom: "inception_4c/output"
  top: "inception_4d/1x1"
  param {
    lr_mult: 1
    decay_mult: 1
  }
  param {
    lr_mult: 2
    decay_mult: 0
  }
  convolution_param {
    num_output: 112
    kernel_size: 1
    weight_filler {
      type: "xavier"
      std: 0.03
    }
    bias_filler {
      type: "constant"
      value: 0.2
    }
  }
}
layer {
  name: "inception_4d/relu_1x1"
  type: "ReLU"
  bottom: "inception_4d/1x1"
  top: "inception_4d/1x1"
}
layer {
  name: "inception_4d/3x3_reduce"
  type: "Convolution"
  bottom: "inception_4c/output"
  top: "inception_4d/3x3_reduce"
  param {
    lr_mult: 1
    decay_mult: 1
  }
  param {
    lr_mult: 2
    decay_mult: 0
  }
  convolution_param {
    num_output: 144
    kernel_size: 1
    weight_filler {
      type: "xavier"
      std: 0.09
    }
    bias_filler {
      type: "constant"
      value: 0.2
    }
  }
}
layer {
  name: "inception_4d/relu_3x3_reduce"
  type: "ReLU"
  bottom: "inception_4d/3x3_reduce"
  top: "inception_4d/3x3_reduce"
}
layer {
  name: "inception_4d/3x3"
  type: "Convolution"
  bottom: "inception_4d/3x3_reduce"
  top: "inception_4d/3x3"
  param {
    lr_mult: 1
    decay_mult: 1
  }
  param {
    lr_mult: 2
    decay_mult: 0
  }
  convolution_param {
    num_output: 288
    pad: 1
    kernel_size: 3
    weight_filler {
      type: "xavier"
      std: 0.03
    }
    bias_filler {
      type: "constant"
      value: 0.2
    }
  }
}
layer {
  name: "inception_4d/relu_3x3"
  type: "ReLU"
  bottom: "inception_4d/3x3"
  top: "inception_4d/3x3"
}
layer {
  name: "inception_4d/5x5_reduce"
  type: "Convolution"
  bottom: "inception_4c/output"
  top: "inception_4d/5x5_reduce"
  param {
    lr_mult: 1
    decay_mult: 1
  }
  param {
    lr_mult: 2
    decay_mult: 0
  }
  convolution_param {
    num_output: 32
    kernel_size: 1
    weight_filler {
      type: "xavier"
      std: 0.2
    }
    bias_filler {
      type: "constant"
      value: 0.2
    }
  }
}
layer {
  name: "inception_4d/relu_5x5_reduce"
  type: "ReLU"
  bottom: "inception_4d/5x5_reduce"
  top: "inception_4d/5x5_reduce"
}
layer {
  name: "inception_4d/5x5"
  type: "Convolution"
  bottom: "inception_4d/5x5_reduce"
  top: "inception_4d/5x5"
  param {
    lr_mult: 1
    decay_mult: 1
  }
  param {
    lr_mult: 2
    decay_mult: 0
  }
  convolution_param {
    num_output: 64
    pad: 2
    kernel_size: 5
    weight_filler {
      type: "xavier"
      std: 0.03
    }
    bias_filler {
      type: "constant"
      value: 0.2
    }
  }
}
layer {
  name: "inception_4d/relu_5x5"
  type: "ReLU"
  bottom: "inception_4d/5x5"
  top: "inception_4d/5x5"
}
layer {
  name: "inception_4d/pool"
  type: "Pooling"
  bottom: "inception_4c/output"
  top: "inception_4d/pool"
  pooling_param {
    pool: MAX
    kernel_size: 3
    stride: 1
    pad: 1
  }
}
layer {
  name: "inception_4d/pool_proj"
  type: "Convolution"
  bottom: "inception_4d/pool"
  top: "inception_4d/pool_proj"
  param {
    lr_mult: 1
    decay_mult: 1
  }
  param {
    lr_mult: 2
    decay_mult: 0
  }
  convolution_param {
    num_output: 64
    kernel_size: 1
    weight_filler {
      type: "xavier"
      std: 0.1
    }
    bias_filler {
      type: "constant"
      value: 0.2
    }
  }
}
layer {
  name: "inception_4d/relu_pool_proj"
  type: "ReLU"
  bottom: "inception_4d/pool_proj"
  top: "inception_4d/pool_proj"
}
layer {
  name: "inception_4d/output"
  type: "Concat"
  bottom: "inception_4d/1x1"
  bottom: "inception_4d/3x3"
  bottom: "inception_4d/5x5"
  bottom: "inception_4d/pool_proj"
  top: "inception_4d/output"
}
layer {
  name: "loss2/ave_pool"
  type: "Pooling"
  bottom: "inception_4d/output"
  top: "loss2/ave_pool"
  pooling_param {
    pool: AVE
    kernel_size: 5
    stride: 3
  }
}
layer {
  name: "loss2/conv"
  type: "Convolution"
  bottom: "loss2/ave_pool"
  top: "loss2/conv"
  param {
    lr_mult: 1
    decay_mult: 1
  }
  param {
    lr_mult: 2
    decay_mult: 0
  }
  convolution_param {
    num_output: 128
    kernel_size: 1
    weight_filler {
      type: "xavier"
      std: 0.08
    }
    bias_filler {
      type: "constant"
      value: 0.2
    }
  }
}
layer {
  name: "loss2/relu_conv"
  type: "ReLU"
  bottom: "loss2/conv"
  top: "loss2/conv"
}
layer {
  name: "loss2/fc"
  type: "InnerProduct"
  bottom: "loss2/conv"
  top: "loss2/fc"
  param {
    lr_mult: 1
    decay_mult: 1
  }
  param {
    lr_mult: 2
    decay_mult: 0
  }
  inner_product_param {
    num_output: 1024
    weight_filler {
      type: "xavier"
      std: 0.02
    }
    bias_filler {
      type: "constant"
      value: 0.2
    }
  }
}
layer {
  name: "loss2/relu_fc"
  type: "ReLU"
  bottom: "loss2/fc"
  top: "loss2/fc"
}
layer {
  name: "loss2/drop_fc"
  type: "Dropout"
  bottom: "loss2/fc"
  top: "loss2/fc"
  dropout_param {
    dropout_ratio: 0.7
  }
}
layer {
  name: "loss2/classifier_plantvillage"
  type: "InnerProduct"
  bottom: "loss2/fc"
  top: "loss2/classifier_plantvillage"
  param {
    lr_mult: 1
    decay_mult: 1
  }
  param {
    lr_mult: 2
    decay_mult: 0
  }
  inner_product_param {
    num_output: 38
    weight_filler {
      type: "xavier"
      std: 0.0009765625
    }
    bias_filler {
      type: "constant"
      value: 0
    }
  }
}
layer {
  name: "inception_4e/1x1"
  type: "Convolution"
  bottom: "inception_4d/output"
  top: "inception_4e/1x1"
  param {
    lr_mult: 1
    decay_mult: 1
  }
  param {
    lr_mult: 2
    decay_mult: 0
  }
  convolution_param {
    num_output: 256
    kernel_size: 1
    weight_filler {
      type: "xavier"
      std: 0.03
    }
    bias_filler {
      type: "constant"
      value: 0.2
    }
  }
}
layer {
  name: "inception_4e/relu_1x1"
  type: "ReLU"
  bottom: "inception_4e/1x1"
  top: "inception_4e/1x1"
}
layer {
  name: "inception_4e/3x3_reduce"
  type: "Convolution"
  bottom: "inception_4d/output"
  top: "inception_4e/3x3_reduce"
  param {
    lr_mult: 1
    decay_mult: 1
  }
  param {
    lr_mult: 2
    decay_mult: 0
  }
  convolution_param {
    num_output: 160
    kernel_size: 1
    weight_filler {
      type: "xavier"
      std: 0.09
    }
    bias_filler {
      type: "constant"
      value: 0.2
    }
  }
}
layer {
  name: "inception_4e/relu_3x3_reduce"
  type: "ReLU"
  bottom: "inception_4e/3x3_reduce"
  top: "inception_4e/3x3_reduce"
}
layer {
  name: "inception_4e/3x3"
  type: "Convolution"
  bottom: "inception_4e/3x3_reduce"
  top: "inception_4e/3x3"
  param {
    lr_mult: 1
    decay_mult: 1
  }
  param {
    lr_mult: 2
    decay_mult: 0
  }
  convolution_param {
    num_output: 320
    pad: 1
    kernel_size: 3
    weight_filler {
      type: "xavier"
      std: 0.03
    }
    bias_filler {
      type: "constant"
      value: 0.2
    }
  }
}
layer {
  name: "inception_4e/relu_3x3"
  type: "ReLU"
  bottom: "inception_4e/3x3"
  top: "inception_4e/3x3"
}
layer {
  name: "inception_4e/5x5_reduce"
  type: "Convolution"
  bottom: "inception_4d/output"
  top: "inception_4e/5x5_reduce"
  param {
    lr_mult: 1
    decay_mult: 1
  }
  param {
    lr_mult: 2
    decay_mult: 0
  }
  convolution_param {
    num_output: 32
    kernel_size: 1
    weight_filler {
      type: "xavier"
      std: 0.2
    }
    bias_filler {
      type: "constant"
      value: 0.2
    }
  }
}
layer {
  name: "inception_4e/relu_5x5_reduce"
  type: "ReLU"
  bottom: "inception_4e/5x5_reduce"
  top: "inception_4e/5x5_reduce"
}
layer {
  name: "inception_4e/5x5"
  type: "Convolution"
  bottom: "inception_4e/5x5_reduce"
  top: "inception_4e/5x5"
  p
I0403 15:01:56.082747 14030 layer_factory.hpp:77] Creating layer data
I0403 15:01:56.083364 14030 net.cpp:91] Creating Layer data
I0403 15:01:56.083395 14030 net.cpp:399] data -> data
I0403 15:01:56.083446 14030 net.cpp:399] data -> label
I0403 15:01:56.083483 14030 data_transformer.cpp:25] Loading mean file from: /home/mohanty/data/final_dataset/lmdb/color-50-50/mean.binaryproto
I0403 15:01:56.088886 14034 db_lmdb.cpp:38] Opened lmdb /home/mohanty/data/final_dataset/lmdb/color-50-50/test_db
I0403 15:01:56.097393 14030 data_layer.cpp:41] output data size: 24,3,224,224
I0403 15:01:56.124635 14030 net.cpp:141] Setting up data
I0403 15:01:56.124723 14030 net.cpp:148] Top shape: 24 3 224 224 (3612672)
I0403 15:01:56.124747 14030 net.cpp:148] Top shape: 24 (24)
I0403 15:01:56.124764 14030 net.cpp:156] Memory required for data: 14450784
I0403 15:01:56.124795 14030 layer_factory.hpp:77] Creating layer label_data_1_split
I0403 15:01:56.124825 14030 net.cpp:91] Creating Layer label_data_1_split
I0403 15:01:56.124845 14030 net.cpp:425] label_data_1_split <- label
I0403 15:01:56.124879 14030 net.cpp:399] label_data_1_split -> label_data_1_split_0
I0403 15:01:56.124909 14030 net.cpp:399] label_data_1_split -> label_data_1_split_1
I0403 15:01:56.124933 14030 net.cpp:399] label_data_1_split -> label_data_1_split_2
I0403 15:01:56.124956 14030 net.cpp:399] label_data_1_split -> label_data_1_split_3
I0403 15:01:56.124977 14030 net.cpp:399] label_data_1_split -> label_data_1_split_4
I0403 15:01:56.124999 14030 net.cpp:399] label_data_1_split -> label_data_1_split_5
I0403 15:01:56.125020 14030 net.cpp:399] label_data_1_split -> label_data_1_split_6
I0403 15:01:56.125041 14030 net.cpp:399] label_data_1_split -> label_data_1_split_7
I0403 15:01:56.125062 14030 net.cpp:399] label_data_1_split -> label_data_1_split_8
I0403 15:01:56.125084 14030 net.cpp:399] label_data_1_split -> label_data_1_split_9
I0403 15:01:56.125205 14030 net.cpp:141] Setting up label_data_1_split
I0403 15:01:56.125229 14030 net.cpp:148] Top shape: 24 (24)
I0403 15:01:56.125248 14030 net.cpp:148] Top shape: 24 (24)
I0403 15:01:56.125267 14030 net.cpp:148] Top shape: 24 (24)
I0403 15:01:56.125284 14030 net.cpp:148] Top shape: 24 (24)
I0403 15:01:56.125301 14030 net.cpp:148] Top shape: 24 (24)
I0403 15:01:56.125318 14030 net.cpp:148] Top shape: 24 (24)
I0403 15:01:56.125334 14030 net.cpp:148] Top shape: 24 (24)
I0403 15:01:56.125350 14030 net.cpp:148] Top shape: 24 (24)
I0403 15:01:56.125366 14030 net.cpp:148] Top shape: 24 (24)
I0403 15:01:56.125383 14030 net.cpp:148] Top shape: 24 (24)
I0403 15:01:56.125432 14030 net.cpp:156] Memory required for data: 14451744
I0403 15:01:56.125449 14030 layer_factory.hpp:77] Creating layer conv1/7x7_s2
I0403 15:01:56.125491 14030 net.cpp:91] Creating Layer conv1/7x7_s2
I0403 15:01:56.125510 14030 net.cpp:425] conv1/7x7_s2 <- data
I0403 15:01:56.125530 14030 net.cpp:399] conv1/7x7_s2 -> conv1/7x7_s2
I0403 15:01:56.267941 14030 net.cpp:141] Setting up conv1/7x7_s2
I0403 15:01:56.268012 14030 net.cpp:148] Top shape: 24 64 112 112 (19267584)
I0403 15:01:56.268029 14030 net.cpp:156] Memory required for data: 91522080
I0403 15:01:56.268061 14030 layer_factory.hpp:77] Creating layer conv1/relu_7x7
I0403 15:01:56.268090 14030 net.cpp:91] Creating Layer conv1/relu_7x7
I0403 15:01:56.268108 14030 net.cpp:425] conv1/relu_7x7 <- conv1/7x7_s2
I0403 15:01:56.268129 14030 net.cpp:386] conv1/relu_7x7 -> conv1/7x7_s2 (in-place)
I0403 15:01:56.268398 14030 net.cpp:141] Setting up conv1/relu_7x7
I0403 15:01:56.268425 14030 net.cpp:148] Top shape: 24 64 112 112 (19267584)
I0403 15:01:56.268441 14030 net.cpp:156] Memory required for data: 168592416
I0403 15:01:56.268457 14030 layer_factory.hpp:77] Creating layer pool1/3x3_s2
I0403 15:01:56.268483 14030 net.cpp:91] Creating Layer pool1/3x3_s2
I0403 15:01:56.268502 14030 net.cpp:425] pool1/3x3_s2 <- conv1/7x7_s2
I0403 15:01:56.268522 14030 net.cpp:399] pool1/3x3_s2 -> pool1/3x3_s2
I0403 15:01:56.268604 14030 net.cpp:141] Setting up pool1/3x3_s2
I0403 15:01:56.268630 14030 net.cpp:148] Top shape: 24 64 56 56 (4816896)
I0403 15:01:56.268646 14030 net.cpp:156] Memory required for data: 187860000
I0403 15:01:56.268661 14030 layer_factory.hpp:77] Creating layer pool1/norm1
I0403 15:01:56.268687 14030 net.cpp:91] Creating Layer pool1/norm1
I0403 15:01:56.268704 14030 net.cpp:425] pool1/norm1 <- pool1/3x3_s2
I0403 15:01:56.268723 14030 net.cpp:399] pool1/norm1 -> pool1/norm1
I0403 15:01:56.269021 14030 net.cpp:141] Setting up pool1/norm1
I0403 15:01:56.269049 14030 net.cpp:148] Top shape: 24 64 56 56 (4816896)
I0403 15:01:56.269065 14030 net.cpp:156] Memory required for data: 207127584
I0403 15:01:56.269080 14030 layer_factory.hpp:77] Creating layer conv2/3x3_reduce
I0403 15:01:56.269106 14030 net.cpp:91] Creating Layer conv2/3x3_reduce
I0403 15:01:56.269124 14030 net.cpp:425] conv2/3x3_reduce <- pool1/norm1
I0403 15:01:56.269143 14030 net.cpp:399] conv2/3x3_reduce -> conv2/3x3_reduce
I0403 15:01:56.270560 14030 net.cpp:141] Setting up conv2/3x3_reduce
I0403 15:01:56.270593 14030 net.cpp:148] Top shape: 24 64 56 56 (4816896)
I0403 15:01:56.270612 14030 net.cpp:156] Memory required for data: 226395168
I0403 15:01:56.270635 14030 layer_factory.hpp:77] Creating layer conv2/relu_3x3_reduce
I0403 15:01:56.270656 14030 net.cpp:91] Creating Layer conv2/relu_3x3_reduce
I0403 15:01:56.270674 14030 net.cpp:425] conv2/relu_3x3_reduce <- conv2/3x3_reduce
I0403 15:01:56.270694 14030 net.cpp:386] conv2/relu_3x3_reduce -> conv2/3x3_reduce (in-place)
I0403 15:01:56.270954 14030 net.cpp:141] Setting up conv2/relu_3x3_reduce
I0403 15:01:56.270982 14030 net.cpp:148] Top shape: 24 64 56 56 (4816896)
I0403 15:01:56.270998 14030 net.cpp:156] Memory required for data: 245662752
I0403 15:01:56.271013 14030 layer_factory.hpp:77] Creating layer conv2/3x3
I0403 15:01:56.271036 14030 net.cpp:91] Creating Layer conv2/3x3
I0403 15:01:56.271055 14030 net.cpp:425] conv2/3x3 <- conv2/3x3_reduce
I0403 15:01:56.271075 14030 net.cpp:399] conv2/3x3 -> conv2/3x3
I0403 15:01:56.273529 14030 net.cpp:141] Setting up conv2/3x3
I0403 15:01:56.273571 14030 net.cpp:148] Top shape: 24 192 56 56 (14450688)
I0403 15:01:56.273591 14030 net.cpp:156] Memory required for data: 303465504
I0403 15:01:56.273615 14030 layer_factory.hpp:77] Creating layer conv2/relu_3x3
I0403 15:01:56.273638 14030 net.cpp:91] Creating Layer conv2/relu_3x3
I0403 15:01:56.273654 14030 net.cpp:425] conv2/relu_3x3 <- conv2/3x3
I0403 15:01:56.273676 14030 net.cpp:386] conv2/relu_3x3 -> conv2/3x3 (in-place)
I0403 15:01:56.273860 14030 net.cpp:141] Setting up conv2/relu_3x3
I0403 15:01:56.273891 14030 net.cpp:148] Top shape: 24 192 56 56 (14450688)
I0403 15:01:56.273942 14030 net.cpp:156] Memory required for data: 361268256
I0403 15:01:56.273960 14030 layer_factory.hpp:77] Creating layer conv2/norm2
I0403 15:01:56.273983 14030 net.cpp:91] Creating Layer conv2/norm2
I0403 15:01:56.274003 14030 net.cpp:425] conv2/norm2 <- conv2/3x3
I0403 15:01:56.274020 14030 net.cpp:399] conv2/norm2 -> conv2/norm2
I0403 15:01:56.274343 14030 net.cpp:141] Setting up conv2/norm2
I0403 15:01:56.274374 14030 net.cpp:148] Top shape: 24 192 56 56 (14450688)
I0403 15:01:56.274389 14030 net.cpp:156] Memory required for data: 419071008
I0403 15:01:56.274406 14030 layer_factory.hpp:77] Creating layer pool2/3x3_s2
I0403 15:01:56.274427 14030 net.cpp:91] Creating Layer pool2/3x3_s2
I0403 15:01:56.274446 14030 net.cpp:425] pool2/3x3_s2 <- conv2/norm2
I0403 15:01:56.274463 14030 net.cpp:399] pool2/3x3_s2 -> pool2/3x3_s2
I0403 15:01:56.274520 14030 net.cpp:141] Setting up pool2/3x3_s2
I0403 15:01:56.274557 14030 net.cpp:148] Top shape: 24 192 28 28 (3612672)
I0403 15:01:56.274575 14030 net.cpp:156] Memory required for data: 433521696
I0403 15:01:56.274591 14030 layer_factory.hpp:77] Creating layer pool2/3x3_s2_pool2/3x3_s2_0_split
I0403 15:01:56.274610 14030 net.cpp:91] Creating Layer pool2/3x3_s2_pool2/3x3_s2_0_split
I0403 15:01:56.274626 14030 net.cpp:425] pool2/3x3_s2_pool2/3x3_s2_0_split <- pool2/3x3_s2
I0403 15:01:56.274647 14030 net.cpp:399] pool2/3x3_s2_pool2/3x3_s2_0_split -> pool2/3x3_s2_pool2/3x3_s2_0_split_0
I0403 15:01:56.274669 14030 net.cpp:399] pool2/3x3_s2_pool2/3x3_s2_0_split -> pool2/3x3_s2_pool2/3x3_s2_0_split_1
I0403 15:01:56.274690 14030 net.cpp:399] pool2/3x3_s2_pool2/3x3_s2_0_split -> pool2/3x3_s2_pool2/3x3_s2_0_split_2
I0403 15:01:56.274711 14030 net.cpp:399] pool2/3x3_s2_pool2/3x3_s2_0_split -> pool2/3x3_s2_pool2/3x3_s2_0_split_3
I0403 15:01:56.274785 14030 net.cpp:141] Setting up pool2/3x3_s2_pool2/3x3_s2_0_split
I0403 15:01:56.274811 14030 net.cpp:148] Top shape: 24 192 28 28 (3612672)
I0403 15:01:56.274827 14030 net.cpp:148] Top shape: 24 192 28 28 (3612672)
I0403 15:01:56.274843 14030 net.cpp:148] Top shape: 24 192 28 28 (3612672)
I0403 15:01:56.274859 14030 net.cpp:148] Top shape: 24 192 28 28 (3612672)
I0403 15:01:56.274873 14030 net.cpp:156] Memory required for data: 491324448
I0403 15:01:56.274888 14030 layer_factory.hpp:77] Creating layer inception_3a/1x1
I0403 15:01:56.274912 14030 net.cpp:91] Creating Layer inception_3a/1x1
I0403 15:01:56.274931 14030 net.cpp:425] inception_3a/1x1 <- pool2/3x3_s2_pool2/3x3_s2_0_split_0
I0403 15:01:56.274953 14030 net.cpp:399] inception_3a/1x1 -> inception_3a/1x1
I0403 15:01:56.276623 14030 net.cpp:141] Setting up inception_3a/1x1
I0403 15:01:56.276655 14030 net.cpp:148] Top shape: 24 64 28 28 (1204224)
I0403 15:01:56.276677 14030 net.cpp:156] Memory required for data: 496141344
I0403 15:01:56.276698 14030 layer_factory.hpp:77] Creating layer inception_3a/relu_1x1
I0403 15:01:56.276720 14030 net.cpp:91] Creating Layer inception_3a/relu_1x1
I0403 15:01:56.276737 14030 net.cpp:425] inception_3a/relu_1x1 <- inception_3a/1x1
I0403 15:01:56.276757 14030 net.cpp:386] inception_3a/relu_1x1 -> inception_3a/1x1 (in-place)
I0403 15:01:56.277007 14030 net.cpp:141] Setting up inception_3a/relu_1x1
I0403 15:01:56.277039 14030 net.cpp:148] Top shape: 24 64 28 28 (1204224)
I0403 15:01:56.277057 14030 net.cpp:156] Memory required for data: 500958240
I0403 15:01:56.277073 14030 layer_factory.hpp:77] Creating layer inception_3a/3x3_reduce
I0403 15:01:56.277098 14030 net.cpp:91] Creating Layer inception_3a/3x3_reduce
I0403 15:01:56.277119 14030 net.cpp:425] inception_3a/3x3_reduce <- pool2/3x3_s2_pool2/3x3_s2_0_split_1
I0403 15:01:56.277149 14030 net.cpp:399] inception_3a/3x3_reduce -> inception_3a/3x3_reduce
I0403 15:01:56.278923 14030 net.cpp:141] Setting up inception_3a/3x3_reduce
I0403 15:01:56.278955 14030 net.cpp:148] Top shape: 24 96 28 28 (1806336)
I0403 15:01:56.278972 14030 net.cpp:156] Memory required for data: 508183584
I0403 15:01:56.278996 14030 layer_factory.hpp:77] Creating layer inception_3a/relu_3x3_reduce
I0403 15:01:56.279041 14030 net.cpp:91] Creating Layer inception_3a/relu_3x3_reduce
I0403 15:01:56.279062 14030 net.cpp:425] inception_3a/relu_3x3_reduce <- inception_3a/3x3_reduce
I0403 15:01:56.279083 14030 net.cpp:386] inception_3a/relu_3x3_reduce -> inception_3a/3x3_reduce (in-place)
I0403 15:01:56.279273 14030 net.cpp:141] Setting up inception_3a/relu_3x3_reduce
I0403 15:01:56.279300 14030 net.cpp:148] Top shape: 24 96 28 28 (1806336)
I0403 15:01:56.279316 14030 net.cpp:156] Memory required for data: 515408928
I0403 15:01:56.279331 14030 layer_factory.hpp:77] Creating layer inception_3a/3x3
I0403 15:01:56.279356 14030 net.cpp:91] Creating Layer inception_3a/3x3
I0403 15:01:56.279373 14030 net.cpp:425] inception_3a/3x3 <- inception_3a/3x3_reduce
I0403 15:01:56.279397 14030 net.cpp:399] inception_3a/3x3 -> inception_3a/3x3
I0403 15:01:56.281123 14030 net.cpp:141] Setting up inception_3a/3x3
I0403 15:01:56.281158 14030 net.cpp:148] Top shape: 24 128 28 28 (2408448)
I0403 15:01:56.281177 14030 net.cpp:156] Memory required for data: 525042720
I0403 15:01:56.281198 14030 layer_factory.hpp:77] Creating layer inception_3a/relu_3x3
I0403 15:01:56.281219 14030 net.cpp:91] Creating Layer inception_3a/relu_3x3
I0403 15:01:56.281236 14030 net.cpp:425] inception_3a/relu_3x3 <- inception_3a/3x3
I0403 15:01:56.281255 14030 net.cpp:386] inception_3a/relu_3x3 -> inception_3a/3x3 (in-place)
I0403 15:01:56.281543 14030 net.cpp:141] Setting up inception_3a/relu_3x3
I0403 15:01:56.281575 14030 net.cpp:148] Top shape: 24 128 28 28 (2408448)
I0403 15:01:56.281594 14030 net.cpp:156] Memory required for data: 534676512
I0403 15:01:56.281610 14030 layer_factory.hpp:77] Creating layer inception_3a/5x5_reduce
I0403 15:01:56.281635 14030 net.cpp:91] Creating Layer inception_3a/5x5_reduce
I0403 15:01:56.281652 14030 net.cpp:425] inception_3a/5x5_reduce <- pool2/3x3_s2_pool2/3x3_s2_0_split_2
I0403 15:01:56.281673 14030 net.cpp:399] inception_3a/5x5_reduce -> inception_3a/5x5_reduce
I0403 15:01:56.282685 14030 net.cpp:141] Setting up inception_3a/5x5_reduce
I0403 15:01:56.282716 14030 net.cpp:148] Top shape: 24 16 28 28 (301056)
I0403 15:01:56.282733 14030 net.cpp:156] Memory required for data: 535880736
I0403 15:01:56.282753 14030 layer_factory.hpp:77] Creating layer inception_3a/relu_5x5_reduce
I0403 15:01:56.282771 14030 net.cpp:91] Creating Layer inception_3a/relu_5x5_reduce
I0403 15:01:56.282788 14030 net.cpp:425] inception_3a/relu_5x5_reduce <- inception_3a/5x5_reduce
I0403 15:01:56.282809 14030 net.cpp:386] inception_3a/relu_5x5_reduce -> inception_3a/5x5_reduce (in-place)
I0403 15:01:56.283121 14030 net.cpp:141] Setting up inception_3a/relu_5x5_reduce
I0403 15:01:56.283150 14030 net.cpp:148] Top shape: 24 16 28 28 (301056)
I0403 15:01:56.283169 14030 net.cpp:156] Memory required for data: 537084960
I0403 15:01:56.283185 14030 layer_factory.hpp:77] Creating layer inception_3a/5x5
I0403 15:01:56.283207 14030 net.cpp:91] Creating Layer inception_3a/5x5
I0403 15:01:56.283227 14030 net.cpp:425] inception_3a/5x5 <- inception_3a/5x5_reduce
I0403 15:01:56.283252 14030 net.cpp:399] inception_3a/5x5 -> inception_3a/5x5
I0403 15:01:56.284306 14030 net.cpp:141] Setting up inception_3a/5x5
I0403 15:01:56.284337 14030 net.cpp:148] Top shape: 24 32 28 28 (602112)
I0403 15:01:56.284355 14030 net.cpp:156] Memory required for data: 539493408
I0403 15:01:56.284375 14030 layer_factory.hpp:77] Creating layer inception_3a/relu_5x5
I0403 15:01:56.284395 14030 net.cpp:91] Creating Layer inception_3a/relu_5x5
I0403 15:01:56.284412 14030 net.cpp:425] inception_3a/relu_5x5 <- inception_3a/5x5
I0403 15:01:56.284431 14030 net.cpp:386] inception_3a/relu_5x5 -> inception_3a/5x5 (in-place)
I0403 15:01:56.284627 14030 net.cpp:141] Setting up inception_3a/relu_5x5
I0403 15:01:56.284657 14030 net.cpp:148] Top shape: 24 32 28 28 (602112)
I0403 15:01:56.284674 14030 net.cpp:156] Memory required for data: 541901856
I0403 15:01:56.284690 14030 layer_factory.hpp:77] Creating layer inception_3a/pool
I0403 15:01:56.284710 14030 net.cpp:91] Creating Layer inception_3a/pool
I0403 15:01:56.284728 14030 net.cpp:425] inception_3a/pool <- pool2/3x3_s2_pool2/3x3_s2_0_split_3
I0403 15:01:56.284765 14030 net.cpp:399] inception_3a/pool -> inception_3a/pool
I0403 15:01:56.284826 14030 net.cpp:141] Setting up inception_3a/pool
I0403 15:01:56.284853 14030 net.cpp:148] Top shape: 24 192 28 28 (3612672)
I0403 15:01:56.284870 14030 net.cpp:156] Memory required for data: 556352544
I0403 15:01:56.284885 14030 layer_factory.hpp:77] Creating layer inception_3a/pool_proj
I0403 15:01:56.284909 14030 net.cpp:91] Creating Layer inception_3a/pool_proj
I0403 15:01:56.284929 14030 net.cpp:425] inception_3a/pool_proj <- inception_3a/pool
I0403 15:01:56.284948 14030 net.cpp:399] inception_3a/pool_proj -> inception_3a/pool_proj
I0403 15:01:56.285951 14030 net.cpp:141] Setting up inception_3a/pool_proj
I0403 15:01:56.285982 14030 net.cpp:148] Top shape: 24 32 28 28 (602112)
I0403 15:01:56.286000 14030 net.cpp:156] Memory required for data: 558760992
I0403 15:01:56.286028 14030 layer_factory.hpp:77] Creating layer inception_3a/relu_pool_proj
I0403 15:01:56.286051 14030 net.cpp:91] Creating Layer inception_3a/relu_pool_proj
I0403 15:01:56.286069 14030 net.cpp:425] inception_3a/relu_pool_proj <- inception_3a/pool_proj
I0403 15:01:56.286092 14030 net.cpp:386] inception_3a/relu_pool_proj -> inception_3a/pool_proj (in-place)
I0403 15:01:56.286380 14030 net.cpp:141] Setting up inception_3a/relu_pool_proj
I0403 15:01:56.286409 14030 net.cpp:148] Top shape: 24 32 28 28 (602112)
I0403 15:01:56.286427 14030 net.cpp:156] Memory required for data: 561169440
I0403 15:01:56.286442 14030 layer_factory.hpp:77] Creating layer inception_3a/output
I0403 15:01:56.286461 14030 net.cpp:91] Creating Layer inception_3a/output
I0403 15:01:56.286478 14030 net.cpp:425] inception_3a/output <- inception_3a/1x1
I0403 15:01:56.286495 14030 net.cpp:425] inception_3a/output <- inception_3a/3x3
I0403 15:01:56.286512 14030 net.cpp:425] inception_3a/output <- inception_3a/5x5
I0403 15:01:56.286528 14030 net.cpp:425] inception_3a/output <- inception_3a/pool_proj
I0403 15:01:56.286552 14030 net.cpp:399] inception_3a/output -> inception_3a/output
I0403 15:01:56.286604 14030 net.cpp:141] Setting up inception_3a/output
I0403 15:01:56.286628 14030 net.cpp:148] Top shape: 24 256 28 28 (4816896)
I0403 15:01:56.286644 14030 net.cpp:156] Memory required for data: 580437024
I0403 15:01:56.286659 14030 layer_factory.hpp:77] Creating layer inception_3a/output_inception_3a/output_0_split
I0403 15:01:56.286680 14030 net.cpp:91] Creating Layer inception_3a/output_inception_3a/output_0_split
I0403 15:01:56.286696 14030 net.cpp:425] inception_3a/output_inception_3a/output_0_split <- inception_3a/output
I0403 15:01:56.286715 14030 net.cpp:399] inception_3a/output_inception_3a/output_0_split -> inception_3a/output_inception_3a/output_0_split_0
I0403 15:01:56.286736 14030 net.cpp:399] inception_3a/output_inception_3a/output_0_split -> inception_3a/output_inception_3a/output_0_split_1
I0403 15:01:56.286762 14030 net.cpp:399] inception_3a/output_inception_3a/output_0_split -> inception_3a/output_inception_3a/output_0_split_2
I0403 15:01:56.286787 14030 net.cpp:399] inception_3a/output_inception_3a/output_0_split -> inception_3a/output_inception_3a/output_0_split_3
I0403 15:01:56.286865 14030 net.cpp:141] Setting up inception_3a/output_inception_3a/output_0_split
I0403 15:01:56.286890 14030 net.cpp:148] Top shape: 24 256 28 28 (4816896)
I0403 15:01:56.286907 14030 net.cpp:148] Top shape: 24 256 28 28 (4816896)
I0403 15:01:56.286923 14030 net.cpp:148] Top shape: 24 256 28 28 (4816896)
I0403 15:01:56.286939 14030 net.cpp:148] Top shape: 24 256 28 28 (4816896)
I0403 15:01:56.286953 14030 net.cpp:156] Memory required for data: 657507360
I0403 15:01:56.286968 14030 layer_factory.hpp:77] Creating layer inception_3b/1x1
I0403 15:01:56.286993 14030 net.cpp:91] Creating Layer inception_3b/1x1
I0403 15:01:56.287011 14030 net.cpp:425] inception_3b/1x1 <- inception_3a/output_inception_3a/output_0_split_0
I0403 15:01:56.287031 14030 net.cpp:399] inception_3b/1x1 -> inception_3b/1x1
I0403 15:01:56.288218 14030 net.cpp:141] Setting up inception_3b/1x1
I0403 15:01:56.288260 14030 net.cpp:148] Top shape: 24 128 28 28 (2408448)
I0403 15:01:56.288277 14030 net.cpp:156] Memory required for data: 667141152
I0403 15:01:56.288297 14030 layer_factory.hpp:77] Creating layer inception_3b/relu_1x1
I0403 15:01:56.288321 14030 net.cpp:91] Creating Layer inception_3b/relu_1x1
I0403 15:01:56.288339 14030 net.cpp:425] inception_3b/relu_1x1 <- inception_3b/1x1
I0403 15:01:56.288358 14030 net.cpp:386] inception_3b/relu_1x1 -> inception_3b/1x1 (in-place)
I0403 15:01:56.288547 14030 net.cpp:141] Setting up inception_3b/relu_1x1
I0403 15:01:56.288576 14030 net.cpp:148] Top shape: 24 128 28 28 (2408448)
I0403 15:01:56.288595 14030 net.cpp:156] Memory required for data: 676774944
I0403 15:01:56.288611 14030 layer_factory.hpp:77] Creating layer inception_3b/3x3_reduce
I0403 15:01:56.288635 14030 net.cpp:91] Creating Layer inception_3b/3x3_reduce
I0403 15:01:56.288653 14030 net.cpp:425] inception_3b/3x3_reduce <- inception_3a/output_inception_3a/output_0_split_1
I0403 15:01:56.288674 14030 net.cpp:399] inception_3b/3x3_reduce -> inception_3b/3x3_reduce
I0403 15:01:56.289878 14030 net.cpp:141] Setting up inception_3b/3x3_reduce
I0403 15:01:56.289908 14030 net.cpp:148] Top shape: 24 128 28 28 (2408448)
I0403 15:01:56.289927 14030 net.cpp:156] Memory required for data: 686408736
I0403 15:01:56.289945 14030 layer_factory.hpp:77] Creating layer inception_3b/relu_3x3_reduce
I0403 15:01:56.289968 14030 net.cpp:91] Creating Layer inception_3b/relu_3x3_reduce
I0403 15:01:56.289985 14030 net.cpp:425] inception_3b/relu_3x3_reduce <- inception_3b/3x3_reduce
I0403 15:01:56.290004 14030 net.cpp:386] inception_3b/relu_3x3_reduce -> inception_3b/3x3_reduce (in-place)
I0403 15:01:56.290185 14030 net.cpp:141] Setting up inception_3b/relu_3x3_reduce
I0403 15:01:56.290216 14030 net.cpp:148] Top shape: 24 128 28 28 (2408448)
I0403 15:01:56.290233 14030 net.cpp:156] Memory required for data: 696042528
I0403 15:01:56.290251 14030 layer_factory.hpp:77] Creating layer inception_3b/3x3
I0403 15:01:56.290287 14030 net.cpp:91] Creating Layer inception_3b/3x3
I0403 15:01:56.290307 14030 net.cpp:425] inception_3b/3x3 <- inception_3b/3x3_reduce
I0403 15:01:56.290330 14030 net.cpp:399] inception_3b/3x3 -> inception_3b/3x3
I0403 15:01:56.293388 14030 net.cpp:141] Setting up inception_3b/3x3
I0403 15:01:56.293423 14030 net.cpp:148] Top shape: 24 192 28 28 (3612672)
I0403 15:01:56.293442 14030 net.cpp:156] Memory required for data: 710493216
I0403 15:01:56.293462 14030 layer_factory.hpp:77] Creating layer inception_3b/relu_3x3
I0403 15:01:56.293481 14030 net.cpp:91] Creating Layer inception_3b/relu_3x3
I0403 15:01:56.293500 14030 net.cpp:425] inception_3b/relu_3x3 <- inception_3b/3x3
I0403 15:01:56.293519 14030 net.cpp:386] inception_3b/relu_3x3 -> inception_3b/3x3 (in-place)
I0403 15:01:56.293822 14030 net.cpp:141] Setting up inception_3b/relu_3x3
I0403 15:01:56.293853 14030 net.cpp:148] Top shape: 24 192 28 28 (3612672)
I0403 15:01:56.293869 14030 net.cpp:156] Memory required for data: 724943904
I0403 15:01:56.293884 14030 layer_factory.hpp:77] Creating layer inception_3b/5x5_reduce
I0403 15:01:56.293907 14030 net.cpp:91] Creating Layer inception_3b/5x5_reduce
I0403 15:01:56.293926 14030 net.cpp:425] inception_3b/5x5_reduce <- inception_3a/output_inception_3a/output_0_split_2
I0403 15:01:56.293946 14030 net.cpp:399] inception_3b/5x5_reduce -> inception_3b/5x5_reduce
I0403 15:01:56.294991 14030 net.cpp:141] Setting up inception_3b/5x5_reduce
I0403 15:01:56.295024 14030 net.cpp:148] Top shape: 24 32 28 28 (602112)
I0403 15:01:56.295042 14030 net.cpp:156] Memory required for data: 727352352
I0403 15:01:56.295061 14030 layer_factory.hpp:77] Creating layer inception_3b/relu_5x5_reduce
I0403 15:01:56.295081 14030 net.cpp:91] Creating Layer inception_3b/relu_5x5_reduce
I0403 15:01:56.295099 14030 net.cpp:425] inception_3b/relu_5x5_reduce <- inception_3b/5x5_reduce
I0403 15:01:56.295120 14030 net.cpp:386] inception_3b/relu_5x5_reduce -> inception_3b/5x5_reduce (in-place)
I0403 15:01:56.295300 14030 net.cpp:141] Setting up inception_3b/relu_5x5_reduce
I0403 15:01:56.295339 14030 net.cpp:148] Top shape: 24 32 28 28 (602112)
I0403 15:01:56.295356 14030 net.cpp:156] Memory required for data: 729760800
I0403 15:01:56.295372 14030 layer_factory.hpp:77] Creating layer inception_3b/5x5
I0403 15:01:56.295395 14030 net.cpp:91] Creating Layer inception_3b/5x5
I0403 15:01:56.295415 14030 net.cpp:425] inception_3b/5x5 <- inception_3b/5x5_reduce
I0403 15:01:56.295436 14030 net.cpp:399] inception_3b/5x5 -> inception_3b/5x5
I0403 15:01:56.298445 14030 net.cpp:141] Setting up inception_3b/5x5
I0403 15:01:56.298476 14030 net.cpp:148] Top shape: 24 96 28 28 (1806336)
I0403 15:01:56.298493 14030 net.cpp:156] Memory required for data: 736986144
I0403 15:01:56.298513 14030 layer_factory.hpp:77] Creating layer inception_3b/relu_5x5
I0403 15:01:56.298540 14030 net.cpp:91] Creating Layer inception_3b/relu_5x5
I0403 15:01:56.298562 14030 net.cpp:425] inception_3b/relu_5x5 <- inception_3b/5x5
I0403 15:01:56.298581 14030 net.cpp:386] inception_3b/relu_5x5 -> inception_3b/5x5 (in-place)
I0403 15:01:56.298774 14030 net.cpp:141] Setting up inception_3b/relu_5x5
I0403 15:01:56.298800 14030 net.cpp:148] Top shape: 24 96 28 28 (1806336)
I0403 15:01:56.298815 14030 net.cpp:156] Memory required for data: 744211488
I0403 15:01:56.298830 14030 layer_factory.hpp:77] Creating layer inception_3b/pool
I0403 15:01:56.298848 14030 net.cpp:91] Creating Layer inception_3b/pool
I0403 15:01:56.298864 14030 net.cpp:425] inception_3b/pool <- inception_3a/output_inception_3a/output_0_split_3
I0403 15:01:56.298882 14030 net.cpp:399] inception_3b/pool -> inception_3b/pool
I0403 15:01:56.298939 14030 net.cpp:141] Setting up inception_3b/pool
I0403 15:01:56.298964 14030 net.cpp:148] Top shape: 24 256 28 28 (4816896)
I0403 15:01:56.298977 14030 net.cpp:156] Memory required for data: 763479072
I0403 15:01:56.298991 14030 layer_factory.hpp:77] Creating layer inception_3b/pool_proj
I0403 15:01:56.299015 14030 net.cpp:91] Creating Layer inception_3b/pool_proj
I0403 15:01:56.299032 14030 net.cpp:425] inception_3b/pool_proj <- inception_3b/pool
I0403 15:01:56.299054 14030 net.cpp:399] inception_3b/pool_proj -> inception_3b/pool_proj
I0403 15:01:56.300127 14030 net.cpp:141] Setting up inception_3b/pool_proj
I0403 15:01:56.300155 14030 net.cpp:148] Top shape: 24 64 28 28 (1204224)
I0403 15:01:56.300173 14030 net.cpp:156] Memory required for data: 768295968
I0403 15:01:56.300191 14030 layer_factory.hpp:77] Creating layer inception_3b/relu_pool_proj
I0403 15:01:56.300212 14030 net.cpp:91] Creating Layer inception_3b/relu_pool_proj
I0403 15:01:56.300230 14030 net.cpp:425] inception_3b/relu_pool_proj <- inception_3b/pool_proj
I0403 15:01:56.300248 14030 net.cpp:386] inception_3b/relu_pool_proj -> inception_3b/pool_proj (in-place)
I0403 15:01:56.300653 14030 net.cpp:141] Setting up inception_3b/relu_pool_proj
I0403 15:01:56.300681 14030 net.cpp:148] Top shape: 24 64 28 28 (1204224)
I0403 15:01:56.300696 14030 net.cpp:156] Memory required for data: 773112864
I0403 15:01:56.300711 14030 layer_factory.hpp:77] Creating layer inception_3b/output
I0403 15:01:56.300729 14030 net.cpp:91] Creating Layer inception_3b/output
I0403 15:01:56.300745 14030 net.cpp:425] inception_3b/output <- inception_3b/1x1
I0403 15:01:56.300761 14030 net.cpp:425] inception_3b/output <- inception_3b/3x3
I0403 15:01:56.300777 14030 net.cpp:425] inception_3b/output <- inception_3b/5x5
I0403 15:01:56.300794 14030 net.cpp:425] inception_3b/output <- inception_3b/pool_proj
I0403 15:01:56.300813 14030 net.cpp:399] inception_3b/output -> inception_3b/output
I0403 15:01:56.300858 14030 net.cpp:141] Setting up inception_3b/output
I0403 15:01:56.300884 14030 net.cpp:148] Top shape: 24 480 28 28 (9031680)
I0403 15:01:56.300900 14030 net.cpp:156] Memory required for data: 809239584
I0403 15:01:56.300915 14030 layer_factory.hpp:77] Creating layer pool3/3x3_s2
I0403 15:01:56.300933 14030 net.cpp:91] Creating Layer pool3/3x3_s2
I0403 15:01:56.300950 14030 net.cpp:425] pool3/3x3_s2 <- inception_3b/output
I0403 15:01:56.300967 14030 net.cpp:399] pool3/3x3_s2 -> pool3/3x3_s2
I0403 15:01:56.301044 14030 net.cpp:141] Setting up pool3/3x3_s2
I0403 15:01:56.301069 14030 net.cpp:148] Top shape: 24 480 14 14 (2257920)
I0403 15:01:56.301084 14030 net.cpp:156] Memory required for data: 818271264
I0403 15:01:56.301098 14030 layer_factory.hpp:77] Creating layer pool3/3x3_s2_pool3/3x3_s2_0_split
I0403 15:01:56.301116 14030 net.cpp:91] Creating Layer pool3/3x3_s2_pool3/3x3_s2_0_split
I0403 15:01:56.301131 14030 net.cpp:425] pool3/3x3_s2_pool3/3x3_s2_0_split <- pool3/3x3_s2
I0403 15:01:56.301151 14030 net.cpp:399] pool3/3x3_s2_pool3/3x3_s2_0_split -> pool3/3x3_s2_pool3/3x3_s2_0_split_0
I0403 15:01:56.301172 14030 net.cpp:399] pool3/3x3_s2_pool3/3x3_s2_0_split -> pool3/3x3_s2_pool3/3x3_s2_0_split_1
I0403 15:01:56.301192 14030 net.cpp:399] pool3/3x3_s2_pool3/3x3_s2_0_split -> pool3/3x3_s2_pool3/3x3_s2_0_split_2
I0403 15:01:56.301211 14030 net.cpp:399] pool3/3x3_s2_pool3/3x3_s2_0_split -> pool3/3x3_s2_pool3/3x3_s2_0_split_3
I0403 15:01:56.301291 14030 net.cpp:141] Setting up pool3/3x3_s2_pool3/3x3_s2_0_split
I0403 15:01:56.301316 14030 net.cpp:148] Top shape: 24 480 14 14 (2257920)
I0403 15:01:56.301332 14030 net.cpp:148] Top shape: 24 480 14 14 (2257920)
I0403 15:01:56.301348 14030 net.cpp:148] Top shape: 24 480 14 14 (2257920)
I0403 15:01:56.301364 14030 net.cpp:148] Top shape: 24 480 14 14 (2257920)
I0403 15:01:56.301378 14030 net.cpp:156] Memory required for data: 854397984
I0403 15:01:56.301393 14030 layer_factory.hpp:77] Creating layer inception_4a/1x1
I0403 15:01:56.301415 14030 net.cpp:91] Creating Layer inception_4a/1x1
I0403 15:01:56.301432 14030 net.cpp:425] inception_4a/1x1 <- pool3/3x3_s2_pool3/3x3_s2_0_split_0
I0403 15:01:56.301453 14030 net.cpp:399] inception_4a/1x1 -> inception_4a/1x1
I0403 15:01:56.303017 14030 net.cpp:141] Setting up inception_4a/1x1
I0403 15:01:56.303046 14030 net.cpp:148] Top shape: 24 192 14 14 (903168)
I0403 15:01:56.303063 14030 net.cpp:156] Memory required for data: 858010656
I0403 15:01:56.303082 14030 layer_factory.hpp:77] Creating layer inception_4a/relu_1x1
I0403 15:01:56.303103 14030 net.cpp:91] Creating Layer inception_4a/relu_1x1
I0403 15:01:56.303120 14030 net.cpp:425] inception_4a/relu_1x1 <- inception_4a/1x1
I0403 15:01:56.303138 14030 net.cpp:386] inception_4a/relu_1x1 -> inception_4a/1x1 (in-place)
I0403 15:01:56.303308 14030 net.cpp:141] Setting up inception_4a/relu_1x1
I0403 15:01:56.303333 14030 net.cpp:148] Top shape: 24 192 14 14 (903168)
I0403 15:01:56.303349 14030 net.cpp:156] Memory required for data: 861623328
I0403 15:01:56.303362 14030 layer_factory.hpp:77] Creating layer inception_4a/3x3_reduce
I0403 15:01:56.303386 14030 net.cpp:91] Creating Layer inception_4a/3x3_reduce
I0403 15:01:56.303405 14030 net.cpp:425] inception_4a/3x3_reduce <- pool3/3x3_s2_pool3/3x3_s2_0_split_1
I0403 15:01:56.303423 14030 net.cpp:399] inception_4a/3x3_reduce -> inception_4a/3x3_reduce
I0403 15:01:56.304697 14030 net.cpp:141] Setting up inception_4a/3x3_reduce
I0403 15:01:56.304726 14030 net.cpp:148] Top shape: 24 96 14 14 (451584)
I0403 15:01:56.304744 14030 net.cpp:156] Memory required for data: 863429664
I0403 15:01:56.304769 14030 layer_factory.hpp:77] Creating layer inception_4a/relu_3x3_reduce
I0403 15:01:56.304791 14030 net.cpp:91] Creating Layer inception_4a/relu_3x3_reduce
I0403 15:01:56.304808 14030 net.cpp:425] inception_4a/relu_3x3_reduce <- inception_4a/3x3_reduce
I0403 15:01:56.304829 14030 net.cpp:386] inception_4a/relu_3x3_reduce -> inception_4a/3x3_reduce (in-place)
I0403 15:01:56.305002 14030 net.cpp:141] Setting up inception_4a/relu_3x3_reduce
I0403 15:01:56.305028 14030 net.cpp:148] Top shape: 24 96 14 14 (451584)
I0403 15:01:56.305043 14030 net.cpp:156] Memory required for data: 865236000
I0403 15:01:56.305058 14030 layer_factory.hpp:77] Creating layer inception_4a/3x3
I0403 15:01:56.305080 14030 net.cpp:91] Creating Layer inception_4a/3x3
I0403 15:01:56.305099 14030 net.cpp:425] inception_4a/3x3 <- inception_4a/3x3_reduce
I0403 15:01:56.305121 14030 net.cpp:399] inception_4a/3x3 -> inception_4a/3x3
I0403 15:01:56.307833 14030 net.cpp:141] Setting up inception_4a/3x3
I0403 15:01:56.307864 14030 net.cpp:148] Top shape: 24 208 14 14 (978432)
I0403 15:01:56.307883 14030 net.cpp:156] Memory required for data: 869149728
I0403 15:01:56.307903 14030 layer_factory.hpp:77] Creating layer inception_4a/relu_3x3
I0403 15:01:56.307924 14030 net.cpp:91] Creating Layer inception_4a/relu_3x3
I0403 15:01:56.307942 14030 net.cpp:425] inception_4a/relu_3x3 <- inception_4a/3x3
I0403 15:01:56.307961 14030 net.cpp:386] inception_4a/relu_3x3 -> inception_4a/3x3 (in-place)
I0403 15:01:56.308243 14030 net.cpp:141] Setting up inception_4a/relu_3x3
I0403 15:01:56.308272 14030 net.cpp:148] Top shape: 24 208 14 14 (978432)
I0403 15:01:56.308289 14030 net.cpp:156] Memory required for data: 873063456
I0403 15:01:56.308305 14030 layer_factory.hpp:77] Creating layer inception_4a/5x5_reduce
I0403 15:01:56.308328 14030 net.cpp:91] Creating Layer inception_4a/5x5_reduce
I0403 15:01:56.308348 14030 net.cpp:425] inception_4a/5x5_reduce <- pool3/3x3_s2_pool3/3x3_s2_0_split_2
I0403 15:01:56.308372 14030 net.cpp:399] inception_4a/5x5_reduce -> inception_4a/5x5_reduce
I0403 15:01:56.309401 14030 net.cpp:141] Setting up inception_4a/5x5_reduce
I0403 15:01:56.309432 14030 net.cpp:148] Top shape: 24 16 14 14 (75264)
I0403 15:01:56.309449 14030 net.cpp:156] Memory required for data: 873364512
I0403 15:01:56.309469 14030 layer_factory.hpp:77] Creating layer inception_4a/relu_5x5_reduce
I0403 15:01:56.309486 14030 net.cpp:91] Creating Layer inception_4a/relu_5x5_reduce
I0403 15:01:56.309504 14030 net.cpp:425] inception_4a/relu_5x5_reduce <- inception_4a/5x5_reduce
I0403 15:01:56.309520 14030 net.cpp:386] inception_4a/relu_5x5_reduce -> inception_4a/5x5_reduce (in-place)
I0403 15:01:56.309700 14030 net.cpp:141] Setting up inception_4a/relu_5x5_reduce
I0403 15:01:56.309725 14030 net.cpp:148] Top shape: 24 16 14 14 (75264)
I0403 15:01:56.309739 14030 net.cpp:156] Memory required for data: 873665568
I0403 15:01:56.309754 14030 layer_factory.hpp:77] Creating layer inception_4a/5x5
I0403 15:01:56.309777 14030 net.cpp:91] Creating Layer inception_4a/5x5
I0403 15:01:56.309793 14030 net.cpp:425] inception_4a/5x5 <- inception_4a/5x5_reduce
I0403 15:01:56.309814 14030 net.cpp:399] inception_4a/5x5 -> inception_4a/5x5
I0403 15:01:56.310876 14030 net.cpp:141] Setting up inception_4a/5x5
I0403 15:01:56.310905 14030 net.cpp:148] Top shape: 24 48 14 14 (225792)
I0403 15:01:56.310921 14030 net.cpp:156] Memory required for data: 874568736
I0403 15:01:56.310940 14030 layer_factory.hpp:77] Creating layer inception_4a/relu_5x5
I0403 15:01:56.310958 14030 net.cpp:91] Creating Layer inception_4a/relu_5x5
I0403 15:01:56.310974 14030 net.cpp:425] inception_4a/relu_5x5 <- inception_4a/5x5
I0403 15:01:56.310993 14030 net.cpp:386] inception_4a/relu_5x5 -> inception_4a/5x5 (in-place)
I0403 15:01:56.311167 14030 net.cpp:141] Setting up inception_4a/relu_5x5
I0403 15:01:56.311193 14030 net.cpp:148] Top shape: 24 48 14 14 (225792)
I0403 15:01:56.311208 14030 net.cpp:156] Memory required for data: 875471904
I0403 15:01:56.311223 14030 layer_factory.hpp:77] Creating layer inception_4a/pool
I0403 15:01:56.311244 14030 net.cpp:91] Creating Layer inception_4a/pool
I0403 15:01:56.311261 14030 net.cpp:425] inception_4a/pool <- pool3/3x3_s2_pool3/3x3_s2_0_split_3
I0403 15:01:56.311280 14030 net.cpp:399] inception_4a/pool -> inception_4a/pool
I0403 15:01:56.311342 14030 net.cpp:141] Setting up inception_4a/pool
I0403 15:01:56.311364 14030 net.cpp:148] Top shape: 24 480 14 14 (2257920)
I0403 15:01:56.311379 14030 net.cpp:156] Memory required for data: 884503584
I0403 15:01:56.311393 14030 layer_factory.hpp:77] Creating layer inception_4a/pool_proj
I0403 15:01:56.311415 14030 net.cpp:91] Creating Layer inception_4a/pool_proj
I0403 15:01:56.311434 14030 net.cpp:425] inception_4a/pool_proj <- inception_4a/pool
I0403 15:01:56.311455 14030 net.cpp:399] inception_4a/pool_proj -> inception_4a/pool_proj
I0403 15:01:56.312603 14030 net.cpp:141] Setting up inception_4a/pool_proj
I0403 15:01:56.312634 14030 net.cpp:148] Top shape: 24 64 14 14 (301056)
I0403 15:01:56.312665 14030 net.cpp:156] Memory required for data: 885707808
I0403 15:01:56.312685 14030 layer_factory.hpp:77] Creating layer inception_4a/relu_pool_proj
I0403 15:01:56.312705 14030 net.cpp:91] Creating Layer inception_4a/relu_pool_proj
I0403 15:01:56.312722 14030 net.cpp:425] inception_4a/relu_pool_proj <- inception_4a/pool_proj
I0403 15:01:56.312743 14030 net.cpp:386] inception_4a/relu_pool_proj -> inception_4a/pool_proj (in-place)
I0403 15:01:56.313026 14030 net.cpp:141] Setting up inception_4a/relu_pool_proj
I0403 15:01:56.313052 14030 net.cpp:148] Top shape: 24 64 14 14 (301056)
I0403 15:01:56.313069 14030 net.cpp:156] Memory required for data: 886912032
I0403 15:01:56.313084 14030 layer_factory.hpp:77] Creating layer inception_4a/output
I0403 15:01:56.313102 14030 net.cpp:91] Creating Layer inception_4a/output
I0403 15:01:56.313118 14030 net.cpp:425] inception_4a/output <- inception_4a/1x1
I0403 15:01:56.313135 14030 net.cpp:425] inception_4a/output <- inception_4a/3x3
I0403 15:01:56.313153 14030 net.cpp:425] inception_4a/output <- inception_4a/5x5
I0403 15:01:56.313169 14030 net.cpp:425] inception_4a/output <- inception_4a/pool_proj
I0403 15:01:56.313189 14030 net.cpp:399] inception_4a/output -> inception_4a/output
I0403 15:01:56.313235 14030 net.cpp:141] Setting up inception_4a/output
I0403 15:01:56.313259 14030 net.cpp:148] Top shape: 24 512 14 14 (2408448)
I0403 15:01:56.313274 14030 net.cpp:156] Memory required for data: 896545824
I0403 15:01:56.313289 14030 layer_factory.hpp:77] Creating layer inception_4a/output_inception_4a/output_0_split
I0403 15:01:56.313308 14030 net.cpp:91] Creating Layer inception_4a/output_inception_4a/output_0_split
I0403 15:01:56.313323 14030 net.cpp:425] inception_4a/output_inception_4a/output_0_split <- inception_4a/output
I0403 15:01:56.313341 14030 net.cpp:399] inception_4a/output_inception_4a/output_0_split -> inception_4a/output_inception_4a/output_0_split_0
I0403 15:01:56.313364 14030 net.cpp:399] inception_4a/output_inception_4a/output_0_split -> inception_4a/output_inception_4a/output_0_split_1
I0403 15:01:56.313383 14030 net.cpp:399] inception_4a/output_inception_4a/output_0_split -> inception_4a/output_inception_4a/output_0_split_2
I0403 15:01:56.313405 14030 net.cpp:399] inception_4a/output_inception_4a/output_0_split -> inception_4a/output_inception_4a/output_0_split_3
I0403 15:01:56.313423 14030 net.cpp:399] inception_4a/output_inception_4a/output_0_split -> inception_4a/output_inception_4a/output_0_split_4
I0403 15:01:56.313513 14030 net.cpp:141] Setting up inception_4a/output_inception_4a/output_0_split
I0403 15:01:56.313542 14030 net.cpp:148] Top shape: 24 512 14 14 (2408448)
I0403 15:01:56.313562 14030 net.cpp:148] Top shape: 24 512 14 14 (2408448)
I0403 15:01:56.313577 14030 net.cpp:148] Top shape: 24 512 14 14 (2408448)
I0403 15:01:56.313592 14030 net.cpp:148] Top shape: 24 512 14 14 (2408448)
I0403 15:01:56.313606 14030 net.cpp:148] Top shape: 24 512 14 14 (2408448)
I0403 15:01:56.313621 14030 net.cpp:156] Memory required for data: 944714784
I0403 15:01:56.313634 14030 layer_factory.hpp:77] Creating layer loss1/ave_pool
I0403 15:01:56.313652 14030 net.cpp:91] Creating Layer loss1/ave_pool
I0403 15:01:56.313668 14030 net.cpp:425] loss1/ave_pool <- inception_4a/output_inception_4a/output_0_split_0
I0403 15:01:56.313684 14030 net.cpp:399] loss1/ave_pool -> loss1/ave_pool
I0403 15:01:56.313889 14030 net.cpp:141] Setting up loss1/ave_pool
I0403 15:01:56.313915 14030 net.cpp:148] Top shape: 24 512 4 4 (196608)
I0403 15:01:56.313930 14030 net.cpp:156] Memory required for data: 945501216
I0403 15:01:56.313942 14030 layer_factory.hpp:77] Creating layer loss1/conv
I0403 15:01:56.313964 14030 net.cpp:91] Creating Layer loss1/conv
I0403 15:01:56.313982 14030 net.cpp:425] loss1/conv <- loss1/ave_pool
I0403 15:01:56.314003 14030 net.cpp:399] loss1/conv -> loss1/conv
I0403 15:01:56.315395 14030 net.cpp:141] Setting up loss1/conv
I0403 15:01:56.315424 14030 net.cpp:148] Top shape: 24 128 4 4 (49152)
I0403 15:01:56.315445 14030 net.cpp:156] Memory required for data: 945697824
I0403 15:01:56.315480 14030 layer_factory.hpp:77] Creating layer loss1/relu_conv
I0403 15:01:56.315500 14030 net.cpp:91] Creating Layer loss1/relu_conv
I0403 15:01:56.315516 14030 net.cpp:425] loss1/relu_conv <- loss1/conv
I0403 15:01:56.315539 14030 net.cpp:386] loss1/relu_conv -> loss1/conv (in-place)
I0403 15:01:56.315816 14030 net.cpp:141] Setting up loss1/relu_conv
I0403 15:01:56.315842 14030 net.cpp:148] Top shape: 24 128 4 4 (49152)
I0403 15:01:56.315861 14030 net.cpp:156] Memory required for data: 945894432
I0403 15:01:56.315876 14030 layer_factory.hpp:77] Creating layer loss1/fc
I0403 15:01:56.315899 14030 net.cpp:91] Creating Layer loss1/fc
I0403 15:01:56.315917 14030 net.cpp:425] loss1/fc <- loss1/conv
I0403 15:01:56.315939 14030 net.cpp:399] loss1/fc -> loss1/fc
I0403 15:01:56.333070 14030 net.cpp:141] Setting up loss1/fc
I0403 15:01:56.333099 14030 net.cpp:148] Top shape: 24 1024 (24576)
I0403 15:01:56.333115 14030 net.cpp:156] Memory required for data: 945992736
I0403 15:01:56.333134 14030 layer_factory.hpp:77] Creating layer loss1/relu_fc
I0403 15:01:56.333154 14030 net.cpp:91] Creating Layer loss1/relu_fc
I0403 15:01:56.333173 14030 net.cpp:425] loss1/relu_fc <- loss1/fc
I0403 15:01:56.333191 14030 net.cpp:386] loss1/relu_fc -> loss1/fc (in-place)
I0403 15:01:56.333367 14030 net.cpp:141] Setting up loss1/relu_fc
I0403 15:01:56.333392 14030 net.cpp:148] Top shape: 24 1024 (24576)
I0403 15:01:56.333406 14030 net.cpp:156] Memory required for data: 946091040
I0403 15:01:56.333421 14030 layer_factory.hpp:77] Creating layer loss1/drop_fc
I0403 15:01:56.333448 14030 net.cpp:91] Creating Layer loss1/drop_fc
I0403 15:01:56.333467 14030 net.cpp:425] loss1/drop_fc <- loss1/fc
I0403 15:01:56.333484 14030 net.cpp:386] loss1/drop_fc -> loss1/fc (in-place)
I0403 15:01:56.333533 14030 net.cpp:141] Setting up loss1/drop_fc
I0403 15:01:56.333562 14030 net.cpp:148] Top shape: 24 1024 (24576)
I0403 15:01:56.333580 14030 net.cpp:156] Memory required for data: 946189344
I0403 15:01:56.333595 14030 layer_factory.hpp:77] Creating layer loss1/classifier_plantvillage
I0403 15:01:56.333614 14030 net.cpp:91] Creating Layer loss1/classifier_plantvillage
I0403 15:01:56.333631 14030 net.cpp:425] loss1/classifier_plantvillage <- loss1/fc
I0403 15:01:56.333653 14030 net.cpp:399] loss1/classifier_plantvillage -> loss1/classifier_plantvillage
I0403 15:01:56.334523 14030 net.cpp:141] Setting up loss1/classifier_plantvillage
I0403 15:01:56.334563 14030 net.cpp:148] Top shape: 24 38 (912)
I0403 15:01:56.334580 14030 net.cpp:156] Memory required for data: 946192992
I0403 15:01:56.334597 14030 layer_factory.hpp:77] Creating layer loss1/classifier_plantvillage_loss1/classifier_plantvillage_0_split
I0403 15:01:56.334615 14030 net.cpp:91] Creating Layer loss1/classifier_plantvillage_loss1/classifier_plantvillage_0_split
I0403 15:01:56.334630 14030 net.cpp:425] loss1/classifier_plantvillage_loss1/classifier_plantvillage_0_split <- loss1/classifier_plantvillage
I0403 15:01:56.334647 14030 net.cpp:399] loss1/classifier_plantvillage_loss1/classifier_plantvillage_0_split -> loss1/classifier_plantvillage_loss1/classifier_plantvillage_0_split_0
I0403 15:01:56.334666 14030 net.cpp:399] loss1/classifier_plantvillage_loss1/classifier_plantvillage_0_split -> loss1/classifier_plantvillage_loss1/classifier_plantvillage_0_split_1
I0403 15:01:56.334686 14030 net.cpp:399] loss1/classifier_plantvillage_loss1/classifier_plantvillage_0_split -> loss1/classifier_plantvillage_loss1/classifier_plantvillage_0_split_2
I0403 15:01:56.334751 14030 net.cpp:141] Setting up loss1/classifier_plantvillage_loss1/classifier_plantvillage_0_split
I0403 15:01:56.334774 14030 net.cpp:148] Top shape: 24 38 (912)
I0403 15:01:56.334789 14030 net.cpp:148] Top shape: 24 38 (912)
I0403 15:01:56.334803 14030 net.cpp:148] Top shape: 24 38 (912)
I0403 15:01:56.334816 14030 net.cpp:156] Memory required for data: 946203936
I0403 15:01:56.334830 14030 layer_factory.hpp:77] Creating layer inception_4b/1x1
I0403 15:01:56.334849 14030 net.cpp:91] Creating Layer inception_4b/1x1
I0403 15:01:56.334880 14030 net.cpp:425] inception_4b/1x1 <- inception_4a/output_inception_4a/output_0_split_1
I0403 15:01:56.334903 14030 net.cpp:399] inception_4b/1x1 -> inception_4b/1x1
I0403 15:01:56.336506 14030 net.cpp:141] Setting up inception_4b/1x1
I0403 15:01:56.336541 14030 net.cpp:148] Top shape: 24 160 14 14 (752640)
I0403 15:01:56.336560 14030 net.cpp:156] Memory required for data: 949214496
I0403 15:01:56.336578 14030 layer_factory.hpp:77] Creating layer inception_4b/relu_1x1
I0403 15:01:56.336596 14030 net.cpp:91] Creating Layer inception_4b/relu_1x1
I0403 15:01:56.336611 14030 net.cpp:425] inception_4b/relu_1x1 <- inception_4b/1x1
I0403 15:01:56.336627 14030 net.cpp:386] inception_4b/relu_1x1 -> inception_4b/1x1 (in-place)
I0403 15:01:56.336798 14030 net.cpp:141] Setting up inception_4b/relu_1x1
I0403 15:01:56.336824 14030 net.cpp:148] Top shape: 24 160 14 14 (752640)
I0403 15:01:56.336839 14030 net.cpp:156] Memory required for data: 952225056
I0403 15:01:56.336854 14030 layer_factory.hpp:77] Creating layer inception_4b/3x3_reduce
I0403 15:01:56.336875 14030 net.cpp:91] Creating Layer inception_4b/3x3_reduce
I0403 15:01:56.336892 14030 net.cpp:425] inception_4b/3x3_reduce <- inception_4a/output_inception_4a/output_0_split_2
I0403 15:01:56.336912 14030 net.cpp:399] inception_4b/3x3_reduce -> inception_4b/3x3_reduce
I0403 15:01:56.338199 14030 net.cpp:141] Setting up inception_4b/3x3_reduce
I0403 15:01:56.338230 14030 net.cpp:148] Top shape: 24 112 14 14 (526848)
I0403 15:01:56.338248 14030 net.cpp:156] Memory required for data: 954332448
I0403 15:01:56.338269 14030 layer_factory.hpp:77] Creating layer inception_4b/relu_3x3_reduce
I0403 15:01:56.338287 14030 net.cpp:91] Creating Layer inception_4b/relu_3x3_reduce
I0403 15:01:56.338304 14030 net.cpp:425] inception_4b/relu_3x3_reduce <- inception_4b/3x3_reduce
I0403 15:01:56.338323 14030 net.cpp:386] inception_4b/relu_3x3_reduce -> inception_4b/3x3_reduce (in-place)
I0403 15:01:56.338598 14030 net.cpp:141] Setting up inception_4b/relu_3x3_reduce
I0403 15:01:56.338625 14030 net.cpp:148] Top shape: 24 112 14 14 (526848)
I0403 15:01:56.338640 14030 net.cpp:156] Memory required for data: 956439840
I0403 15:01:56.338654 14030 layer_factory.hpp:77] Creating layer inception_4b/3x3
I0403 15:01:56.338676 14030 net.cpp:91] Creating Layer inception_4b/3x3
I0403 15:01:56.338695 14030 net.cpp:425] inception_4b/3x3 <- inception_4b/3x3_reduce
I0403 15:01:56.338712 14030 net.cpp:399] inception_4b/3x3 -> inception_4b/3x3
I0403 15:01:56.341574 14030 net.cpp:141] Setting up inception_4b/3x3
I0403 15:01:56.341603 14030 net.cpp:148] Top shape: 24 224 14 14 (1053696)
I0403 15:01:56.341619 14030 net.cpp:156] Memory required for data: 960654624
I0403 15:01:56.341636 14030 layer_factory.hpp:77] Creating layer inception_4b/relu_3x3
I0403 15:01:56.341656 14030 net.cpp:91] Creating Layer inception_4b/relu_3x3
I0403 15:01:56.341673 14030 net.cpp:425] inception_4b/relu_3x3 <- inception_4b/3x3
I0403 15:01:56.341691 14030 net.cpp:386] inception_4b/relu_3x3 -> inception_4b/3x3 (in-place)
I0403 15:01:56.341862 14030 net.cpp:141] Setting up inception_4b/relu_3x3
I0403 15:01:56.341886 14030 net.cpp:148] Top shape: 24 224 14 14 (1053696)
I0403 15:01:56.341900 14030 net.cpp:156] Memory required for data: 964869408
I0403 15:01:56.341913 14030 layer_factory.hpp:77] Creating layer inception_4b/5x5_reduce
I0403 15:01:56.341938 14030 net.cpp:91] Creating Layer inception_4b/5x5_reduce
I0403 15:01:56.341954 14030 net.cpp:425] inception_4b/5x5_reduce <- inception_4a/output_inception_4a/output_0_split_3
I0403 15:01:56.341974 14030 net.cpp:399] inception_4b/5x5_reduce -> inception_4b/5x5_reduce
I0403 15:01:56.343011 14030 net.cpp:141] Setting up inception_4b/5x5_reduce
I0403 15:01:56.343040 14030 net.cpp:148] Top shape: 24 24 14 14 (112896)
I0403 15:01:56.343065 14030 net.cpp:156] Memory required for data: 965320992
I0403 15:01:56.343082 14030 layer_factory.hpp:77] Creating layer inception_4b/relu_5x5_reduce
I0403 15:01:56.343102 14030 net.cpp:91] Creating Layer inception_4b/relu_5x5_reduce
I0403 15:01:56.343133 14030 net.cpp:425] inception_4b/relu_5x5_reduce <- inception_4b/5x5_reduce
I0403 15:01:56.343155 14030 net.cpp:386] inception_4b/relu_5x5_reduce -> inception_4b/5x5_reduce (in-place)
I0403 15:01:56.343327 14030 net.cpp:141] Setting up inception_4b/relu_5x5_reduce
I0403 15:01:56.343358 14030 net.cpp:148] Top shape: 24 24 14 14 (112896)
I0403 15:01:56.343379 14030 net.cpp:156] Memory required for data: 965772576
I0403 15:01:56.343403 14030 layer_factory.hpp:77] Creating layer inception_4b/5x5
I0403 15:01:56.343430 14030 net.cpp:91] Creating Layer inception_4b/5x5
I0403 15:01:56.343464 14030 net.cpp:425] inception_4b/5x5 <- inception_4b/5x5_reduce
I0403 15:01:56.343490 14030 net.cpp:399] inception_4b/5x5 -> inception_4b/5x5
I0403 15:01:56.344739 14030 net.cpp:141] Setting up inception_4b/5x5
I0403 15:01:56.344770 14030 net.cpp:148] Top shape: 24 64 14 14 (301056)
I0403 15:01:56.344787 14030 net.cpp:156] Memory required for data: 966976800
I0403 15:01:56.344805 14030 layer_factory.hpp:77] Creating layer inception_4b/relu_5x5
I0403 15:01:56.344823 14030 net.cpp:91] Creating Layer inception_4b/relu_5x5
I0403 15:01:56.344840 14030 net.cpp:425] inception_4b/relu_5x5 <- inception_4b/5x5
I0403 15:01:56.344856 14030 net.cpp:386] inception_4b/relu_5x5 -> inception_4b/5x5 (in-place)
I0403 15:01:56.345135 14030 net.cpp:141] Setting up inception_4b/relu_5x5
I0403 15:01:56.345163 14030 net.cpp:148] Top shape: 24 64 14 14 (301056)
I0403 15:01:56.345180 14030 net.cpp:156] Memory required for data: 968181024
I0403 15:01:56.345194 14030 layer_factory.hpp:77] Creating layer inception_4b/pool
I0403 15:01:56.345213 14030 net.cpp:91] Creating Layer inception_4b/pool
I0403 15:01:56.345228 14030 net.cpp:425] inception_4b/pool <- inception_4a/output_inception_4a/output_0_split_4
I0403 15:01:56.345247 14030 net.cpp:399] inception_4b/pool -> inception_4b/pool
I0403 15:01:56.345315 14030 net.cpp:141] Setting up inception_4b/pool
I0403 15:01:56.345338 14030 net.cpp:148] Top shape: 24 512 14 14 (2408448)
I0403 15:01:56.345353 14030 net.cpp:156] Memory required for data: 977814816
I0403 15:01:56.345367 14030 layer_factory.hpp:77] Creating layer inception_4b/pool_proj
I0403 15:01:56.345391 14030 net.cpp:91] Creating Layer inception_4b/pool_proj
I0403 15:01:56.345407 14030 net.cpp:425] inception_4b/pool_proj <- inception_4b/pool
I0403 15:01:56.345428 14030 net.cpp:399] inception_4b/pool_proj -> inception_4b/pool_proj
I0403 15:01:56.346617 14030 net.cpp:141] Setting up inception_4b/pool_proj
I0403 15:01:56.346650 14030 net.cpp:148] Top shape: 24 64 14 14 (301056)
I0403 15:01:56.346668 14030 net.cpp:156] Memory required for data: 979019040
I0403 15:01:56.346688 14030 layer_factory.hpp:77] Creating layer inception_4b/relu_pool_proj
I0403 15:01:56.346705 14030 net.cpp:91] Creating Layer inception_4b/relu_pool_proj
I0403 15:01:56.346721 14030 net.cpp:425] inception_4b/relu_pool_proj <- inception_4b/pool_proj
I0403 15:01:56.346740 14030 net.cpp:386] inception_4b/relu_pool_proj -> inception_4b/pool_proj (in-place)
I0403 15:01:56.346918 14030 net.cpp:141] Setting up inception_4b/relu_pool_proj
I0403 15:01:56.346945 14030 net.cpp:148] Top shape: 24 64 14 14 (301056)
I0403 15:01:56.346961 14030 net.cpp:156] Memory required for data: 980223264
I0403 15:01:56.346976 14030 layer_factory.hpp:77] Creating layer inception_4b/output
I0403 15:01:56.346993 14030 net.cpp:91] Creating Layer inception_4b/output
I0403 15:01:56.347008 14030 net.cpp:425] inception_4b/output <- inception_4b/1x1
I0403 15:01:56.347024 14030 net.cpp:425] inception_4b/output <- inception_4b/3x3
I0403 15:01:56.347040 14030 net.cpp:425] inception_4b/output <- inception_4b/5x5
I0403 15:01:56.347056 14030 net.cpp:425] inception_4b/output <- inception_4b/pool_proj
I0403 15:01:56.347077 14030 net.cpp:399] inception_4b/output -> inception_4b/output
I0403 15:01:56.347123 14030 net.cpp:141] Setting up inception_4b/output
I0403 15:01:56.347149 14030 net.cpp:148] Top shape: 24 512 14 14 (2408448)
I0403 15:01:56.347164 14030 net.cpp:156] Memory required for data: 989857056
I0403 15:01:56.347193 14030 layer_factory.hpp:77] Creating layer inception_4b/output_inception_4b/output_0_split
I0403 15:01:56.347213 14030 net.cpp:91] Creating Layer inception_4b/output_inception_4b/output_0_split
I0403 15:01:56.347229 14030 net.cpp:425] inception_4b/output_inception_4b/output_0_split <- inception_4b/output
I0403 15:01:56.347249 14030 net.cpp:399] inception_4b/output_inception_4b/output_0_split -> inception_4b/output_inception_4b/output_0_split_0
I0403 15:01:56.347271 14030 net.cpp:399] inception_4b/output_inception_4b/output_0_split -> inception_4b/output_inception_4b/output_0_split_1
I0403 15:01:56.347291 14030 net.cpp:399] inception_4b/output_inception_4b/output_0_split -> inception_4b/output_inception_4b/output_0_split_2
I0403 15:01:56.347311 14030 net.cpp:399] inception_4b/output_inception_4b/output_0_split -> inception_4b/output_inception_4b/output_0_split_3
I0403 15:01:56.347393 14030 net.cpp:141] Setting up inception_4b/output_inception_4b/output_0_split
I0403 15:01:56.347416 14030 net.cpp:148] Top shape: 24 512 14 14 (2408448)
I0403 15:01:56.347432 14030 net.cpp:148] Top shape: 24 512 14 14 (2408448)
I0403 15:01:56.347448 14030 net.cpp:148] Top shape: 24 512 14 14 (2408448)
I0403 15:01:56.347463 14030 net.cpp:148] Top shape: 24 512 14 14 (2408448)
I0403 15:01:56.347476 14030 net.cpp:156] Memory required for data: 1028392224
I0403 15:01:56.347489 14030 layer_factory.hpp:77] Creating layer inception_4c/1x1
I0403 15:01:56.347512 14030 net.cpp:91] Creating Layer inception_4c/1x1
I0403 15:01:56.347528 14030 net.cpp:425] inception_4c/1x1 <- inception_4b/output_inception_4b/output_0_split_0
I0403 15:01:56.347554 14030 net.cpp:399] inception_4c/1x1 -> inception_4c/1x1
I0403 15:01:56.348980 14030 net.cpp:141] Setting up inception_4c/1x1
I0403 15:01:56.349009 14030 net.cpp:148] Top shape: 24 128 14 14 (602112)
I0403 15:01:56.349025 14030 net.cpp:156] Memory required for data: 1030800672
I0403 15:01:56.349043 14030 layer_factory.hpp:77] Creating layer inception_4c/relu_1x1
I0403 15:01:56.349064 14030 net.cpp:91] Creating Layer inception_4c/relu_1x1
I0403 15:01:56.349082 14030 net.cpp:425] inception_4c/relu_1x1 <- inception_4c/1x1
I0403 15:01:56.349102 14030 net.cpp:386] inception_4c/relu_1x1 -> inception_4c/1x1 (in-place)
I0403 15:01:56.349278 14030 net.cpp:141] Setting up inception_4c/relu_1x1
I0403 15:01:56.349303 14030 net.cpp:148] Top shape: 24 128 14 14 (602112)
I0403 15:01:56.349318 14030 net.cpp:156] Memory required for data: 1033209120
I0403 15:01:56.349331 14030 layer_factory.hpp:77] Creating layer inception_4c/3x3_reduce
I0403 15:01:56.349354 14030 net.cpp:91] Creating Layer inception_4c/3x3_reduce
I0403 15:01:56.349375 14030 net.cpp:425] inception_4c/3x3_reduce <- inception_4b/output_inception_4b/output_0_split_1
I0403 15:01:56.349393 14030 net.cpp:399] inception_4c/3x3_reduce -> inception_4c/3x3_reduce
I0403 15:01:56.351321 14030 net.cpp:141] Setting up inception_4c/3x3_reduce
I0403 15:01:56.351351 14030 net.cpp:148] Top shape: 24 128 14 14 (602112)
I0403 15:01:56.351367 14030 net.cpp:156] Memory required for data: 1035617568
I0403 15:01:56.351387 14030 layer_factory.hpp:77] Creating layer inception_4c/relu_3x3_reduce
I0403 15:01:56.351408 14030 net.cpp:91] Creating Layer inception_4c/relu_3x3_reduce
I0403 15:01:56.351425 14030 net.cpp:425] inception_4c/relu_3x3_reduce <- inception_4c/3x3_reduce
I0403 15:01:56.351444 14030 net.cpp:386] inception_4c/relu_3x3_reduce -> inception_4c/3x3_reduce (in-place)
I0403 15:01:56.351735 14030 net.cpp:141] Setting up inception_4c/relu_3x3_reduce
I0403 15:01:56.351763 14030 net.cpp:148] Top shape: 24 128 14 14 (602112)
I0403 15:01:56.351776 14030 net.cpp:156] Memory required for data: 1038026016
I0403 15:01:56.351791 14030 layer_factory.hpp:77] Creating layer inception_4c/3x3
I0403 15:01:56.351816 14030 net.cpp:91] Creating Layer inception_4c/3x3
I0403 15:01:56.351835 14030 net.cpp:425] inception_4c/3x3 <- inception_4c/3x3_reduce
I0403 15:01:56.351855 14030 net.cpp:399] inception_4c/3x3 -> inception_4c/3x3
I0403 15:01:56.355455 14030 net.cpp:141] Setting up inception_4c/3x3
I0403 15:01:56.355500 14030 net.cpp:148] Top shape: 24 256 14 14 (1204224)
I0403 15:01:56.355520 14030 net.cpp:156] Memory required for data: 1042842912
I0403 15:01:56.355556 14030 layer_factory.hpp:77] Creating layer inception_4c/relu_3x3
I0403 15:01:56.355579 14030 net.cpp:91] Creating Layer inception_4c/relu_3x3
I0403 15:01:56.355597 14030 net.cpp:425] inception_4c/relu_3x3 <- inception_4c/3x3
I0403 15:01:56.355614 14030 net.cpp:386] inception_4c/relu_3x3 -> inception_4c/3x3 (in-place)
I0403 15:01:56.355795 14030 net.cpp:141] Setting up inception_4c/relu_3x3
I0403 15:01:56.355823 14030 net.cpp:148] Top shape: 24 256 14 14 (1204224)
I0403 15:01:56.355837 14030 net.cpp:156] Memory required for data: 1047659808
I0403 15:01:56.355852 14030 layer_factory.hpp:77] Creating layer inception_4c/5x5_reduce
I0403 15:01:56.355875 14030 net.cpp:91] Creating Layer inception_4c/5x5_reduce
I0403 15:01:56.355893 14030 net.cpp:425] inception_4c/5x5_reduce <- inception_4b/output_inception_4b/output_0_split_2
I0403 15:01:56.355912 14030 net.cpp:399] inception_4c/5x5_reduce -> inception_4c/5x5_reduce
I0403 15:01:56.356992 14030 net.cpp:141] Setting up inception_4c/5x5_reduce
I0403 15:01:56.357024 14030 net.cpp:148] Top shape: 24 24 14 14 (112896)
I0403 15:01:56.357043 14030 net.cpp:156] Memory required for data: 1048111392
I0403 15:01:56.357061 14030 layer_factory.hpp:77] Creating layer inception_4c/relu_5x5_reduce
I0403 15:01:56.357080 14030 net.cpp:91] Creating Layer inception_4c/relu_5x5_reduce
I0403 15:01:56.357097 14030 net.cpp:425] inception_4c/relu_5x5_reduce <- inception_4c/5x5_reduce
I0403 15:01:56.357118 14030 net.cpp:386] inception_4c/relu_5x5_reduce -> inception_4c/5x5_reduce (in-place)
I0403 15:01:56.357302 14030 net.cpp:141] Setting up inception_4c/relu_5x5_reduce
I0403 15:01:56.357328 14030 net.cpp:148] Top shape: 24 24 14 14 (112896)
I0403 15:01:56.357345 14030 net.cpp:156] Memory required for data: 1048562976
I0403 15:01:56.357362 14030 layer_factory.hpp:77] Creating layer inception_4c/5x5
I0403 15:01:56.357383 14030 net.cpp:91] Creating Layer inception_4c/5x5
I0403 15:01:56.357401 14030 net.cpp:425] inception_4c/5x5 <- inception_4c/5x5_reduce
I0403 15:01:56.357424 14030 net.cpp:399] inception_4c/5x5 -> inception_4c/5x5
I0403 15:01:56.358664 14030 net.cpp:141] Setting up inception_4c/5x5
I0403 15:01:56.358693 14030 net.cpp:148] Top shape: 24 64 14 14 (301056)
I0403 15:01:56.358711 14030 net.cpp:156] Memory required for data: 1049767200
I0403 15:01:56.358731 14030 layer_factory.hpp:77] Creating layer inception_4c/relu_5x5
I0403 15:01:56.358752 14030 net.cpp:91] Creating Layer inception_4c/relu_5x5
I0403 15:01:56.358770 14030 net.cpp:425] inception_4c/relu_5x5 <- inception_4c/5x5
I0403 15:01:56.358788 14030 net.cpp:386] inception_4c/relu_5x5 -> inception_4c/5x5 (in-place)
I0403 15:01:56.359076 14030 net.cpp:141] Setting up inception_4c/relu_5x5
I0403 15:01:56.359103 14030 net.cpp:148] Top shape: 24 64 14 14 (301056)
I0403 15:01:56.359119 14030 net.cpp:156] Memory required for data: 1050971424
I0403 15:01:56.359134 14030 layer_factory.hpp:77] Creating layer inception_4c/pool
I0403 15:01:56.359151 14030 net.cpp:91] Creating Layer inception_4c/pool
I0403 15:01:56.359168 14030 net.cpp:425] inception_4c/pool <- inception_4b/output_inception_4b/output_0_split_3
I0403 15:01:56.359189 14030 net.cpp:399] inception_4c/pool -> inception_4c/pool
I0403 15:01:56.359254 14030 net.cpp:141] Setting up inception_4c/pool
I0403 15:01:56.359283 14030 net.cpp:148] Top shape: 24 512 14 14 (2408448)
I0403 15:01:56.359299 14030 net.cpp:156] Memory required for data: 1060605216
I0403 15:01:56.359315 14030 layer_factory.hpp:77] Creating layer inception_4c/pool_proj
I0403 15:01:56.359338 14030 net.cpp:91] Creating Layer inception_4c/pool_proj
I0403 15:01:56.359357 14030 net.cpp:425] inception_4c/pool_proj <- inception_4c/pool
I0403 15:01:56.359376 14030 net.cpp:399] inception_4c/pool_proj -> inception_4c/pool_proj
I0403 15:01:56.360592 14030 net.cpp:141] Setting up inception_4c/pool_proj
I0403 15:01:56.360625 14030 net.cpp:148] Top shape: 24 64 14 14 (301056)
I0403 15:01:56.360657 14030 net.cpp:156] Memory required for data: 1061809440
I0403 15:01:56.360677 14030 layer_factory.hpp:77] Creating layer inception_4c/relu_pool_proj
I0403 15:01:56.360697 14030 net.cpp:91] Creating Layer inception_4c/relu_pool_proj
I0403 15:01:56.360713 14030 net.cpp:425] inception_4c/relu_pool_proj <- inception_4c/pool_proj
I0403 15:01:56.360730 14030 net.cpp:386] inception_4c/relu_pool_proj -> inception_4c/pool_proj (in-place)
I0403 15:01:56.360915 14030 net.cpp:141] Setting up inception_4c/relu_pool_proj
I0403 15:01:56.360941 14030 net.cpp:148] Top shape: 24 64 14 14 (301056)
I0403 15:01:56.360956 14030 net.cpp:156] Memory required for data: 1063013664
I0403 15:01:56.360970 14030 layer_factory.hpp:77] Creating layer inception_4c/output
I0403 15:01:56.360988 14030 net.cpp:91] Creating Layer inception_4c/output
I0403 15:01:56.361003 14030 net.cpp:425] inception_4c/output <- inception_4c/1x1
I0403 15:01:56.361019 14030 net.cpp:425] inception_4c/output <- inception_4c/3x3
I0403 15:01:56.361034 14030 net.cpp:425] inception_4c/output <- inception_4c/5x5
I0403 15:01:56.361050 14030 net.cpp:425] inception_4c/output <- inception_4c/pool_proj
I0403 15:01:56.361070 14030 net.cpp:399] inception_4c/output -> inception_4c/output
I0403 15:01:56.361117 14030 net.cpp:141] Setting up inception_4c/output
I0403 15:01:56.361143 14030 net.cpp:148] Top shape: 24 512 14 14 (2408448)
I0403 15:01:56.361158 14030 net.cpp:156] Memory required for data: 1072647456
I0403 15:01:56.361172 14030 layer_factory.hpp:77] Creating layer inception_4c/output_inception_4c/output_0_split
I0403 15:01:56.361189 14030 net.cpp:91] Creating Layer inception_4c/output_inception_4c/output_0_split
I0403 15:01:56.361205 14030 net.cpp:425] inception_4c/output_inception_4c/output_0_split <- inception_4c/output
I0403 15:01:56.361222 14030 net.cpp:399] inception_4c/output_inception_4c/output_0_split -> inception_4c/output_inception_4c/output_0_split_0
I0403 15:01:56.361246 14030 net.cpp:399] inception_4c/output_inception_4c/output_0_split -> inception_4c/output_inception_4c/output_0_split_1
I0403 15:01:56.361268 14030 net.cpp:399] inception_4c/output_inception_4c/output_0_split -> inception_4c/output_inception_4c/output_0_split_2
I0403 15:01:56.361289 14030 net.cpp:399] inception_4c/output_inception_4c/output_0_split -> inception_4c/output_inception_4c/output_0_split_3
I0403 15:01:56.361371 14030 net.cpp:141] Setting up inception_4c/output_inception_4c/output_0_split
I0403 15:01:56.361395 14030 net.cpp:148] Top shape: 24 512 14 14 (2408448)
I0403 15:01:56.361412 14030 net.cpp:148] Top shape: 24 512 14 14 (2408448)
I0403 15:01:56.361428 14030 net.cpp:148] Top shape: 24 512 14 14 (2408448)
I0403 15:01:56.361443 14030 net.cpp:148] Top shape: 24 512 14 14 (2408448)
I0403 15:01:56.361455 14030 net.cpp:156] Memory required for data: 1111182624
I0403 15:01:56.361476 14030 layer_factory.hpp:77] Creating layer inception_4d/1x1
I0403 15:01:56.361498 14030 net.cpp:91] Creating Layer inception_4d/1x1
I0403 15:01:56.361515 14030 net.cpp:425] inception_4d/1x1 <- inception_4c/output_inception_4c/output_0_split_0
I0403 15:01:56.361541 14030 net.cpp:399] inception_4d/1x1 -> inception_4d/1x1
I0403 15:01:56.362920 14030 net.cpp:141] Setting up inception_4d/1x1
I0403 15:01:56.362948 14030 net.cpp:148] Top shape: 24 112 14 14 (526848)
I0403 15:01:56.362965 14030 net.cpp:156] Memory required for data: 1113290016
I0403 15:01:56.362984 14030 layer_factory.hpp:77] Creating layer inception_4d/relu_1x1
I0403 15:01:56.363005 14030 net.cpp:91] Creating Layer inception_4d/relu_1x1
I0403 15:01:56.363024 14030 net.cpp:425] inception_4d/relu_1x1 <- inception_4d/1x1
I0403 15:01:56.363042 14030 net.cpp:386] inception_4d/relu_1x1 -> inception_4d/1x1 (in-place)
I0403 15:01:56.363227 14030 net.cpp:141] Setting up inception_4d/relu_1x1
I0403 15:01:56.363255 14030 net.cpp:148] Top shape: 24 112 14 14 (526848)
I0403 15:01:56.363272 14030 net.cpp:156] Memory required for data: 1115397408
I0403 15:01:56.363288 14030 layer_factory.hpp:77] Creating layer inception_4d/3x3_reduce
I0403 15:01:56.363325 14030 net.cpp:91] Creating Layer inception_4d/3x3_reduce
I0403 15:01:56.363346 14030 net.cpp:425] inception_4d/3x3_reduce <- inception_4c/output_inception_4c/output_0_split_1
I0403 15:01:56.363366 14030 net.cpp:399] inception_4d/3x3_reduce -> inception_4d/3x3_reduce
I0403 15:01:56.364889 14030 net.cpp:141] Setting up inception_4d/3x3_reduce
I0403 15:01:56.364919 14030 net.cpp:148] Top shape: 24 144 14 14 (677376)
I0403 15:01:56.364935 14030 net.cpp:156] Memory required for data: 1118106912
I0403 15:01:56.364953 14030 layer_factory.hpp:77] Creating layer inception_4d/relu_3x3_reduce
I0403 15:01:56.364971 14030 net.cpp:91] Creating Layer inception_4d/relu_3x3_reduce
I0403 15:01:56.364989 14030 net.cpp:425] inception_4d/relu_3x3_reduce <- inception_4d/3x3_reduce
I0403 15:01:56.365007 14030 net.cpp:386] inception_4d/relu_3x3_reduce -> inception_4d/3x3_reduce (in-place)
I0403 15:01:56.365300 14030 net.cpp:141] Setting up inception_4d/relu_3x3_reduce
I0403 15:01:56.365326 14030 net.cpp:148] Top shape: 24 144 14 14 (677376)
I0403 15:01:56.365341 14030 net.cpp:156] Memory required for data: 1120816416
I0403 15:01:56.365355 14030 layer_factory.hpp:77] Creating layer inception_4d/3x3
I0403 15:01:56.365377 14030 net.cpp:91] Creating Layer inception_4d/3x3
I0403 15:01:56.365396 14030 net.cpp:425] inception_4d/3x3 <- inception_4d/3x3_reduce
I0403 15:01:56.365417 14030 net.cpp:399] inception_4d/3x3 -> inception_4d/3x3
I0403 15:01:56.369663 14030 net.cpp:141] Setting up inception_4d/3x3
I0403 15:01:56.369693 14030 net.cpp:148] Top shape: 24 288 14 14 (1354752)
I0403 15:01:56.369710 14030 net.cpp:156] Memory required for data: 1126235424
I0403 15:01:56.369729 14030 layer_factory.hpp:77] Creating layer inception_4d/relu_3x3
I0403 15:01:56.369751 14030 net.cpp:91] Creating Layer inception_4d/relu_3x3
I0403 15:01:56.369771 14030 net.cpp:425] inception_4d/relu_3x3 <- inception_4d/3x3
I0403 15:01:56.369789 14030 net.cpp:386] inception_4d/relu_3x3 -> inception_4d/3x3 (in-place)
I0403 15:01:56.369969 14030 net.cpp:141] Setting up inception_4d/relu_3x3
I0403 15:01:56.369999 14030 net.cpp:148] Top shape: 24 288 14 14 (1354752)
I0403 15:01:56.370014 14030 net.cpp:156] Memory required for data: 1131654432
I0403 15:01:56.370031 14030 layer_factory.hpp:77] Creating layer inception_4d/5x5_reduce
I0403 15:01:56.370054 14030 net.cpp:91] Creating Layer inception_4d/5x5_reduce
I0403 15:01:56.370072 14030 net.cpp:425] inception_4d/5x5_reduce <- inception_4c/output_inception_4c/output_0_split_2
I0403 15:01:56.370092 14030 net.cpp:399] inception_4d/5x5_reduce -> inception_4d/5x5_reduce
I0403 15:01:56.371243 14030 net.cpp:141] Setting up inception_4d/5x5_reduce
I0403 15:01:56.371274 14030 net.cpp:148] Top shape: 24 32 14 14 (150528)
I0403 15:01:56.371291 14030 net.cpp:156] Memory required for data: 1132256544
I0403 15:01:56.371320 14030 layer_factory.hpp:77] Creating layer inception_4d/relu_5x5_reduce
I0403 15:01:56.371341 14030 net.cpp:91] Creating Layer inception_4d/relu_5x5_reduce
I0403 15:01:56.371359 14030 net.cpp:425] inception_4d/relu_5x5_reduce <- inception_4d/5x5_reduce
I0403 15:01:56.371377 14030 net.cpp:386] inception_4d/relu_5x5_reduce -> inception_4d/5x5_reduce (in-place)
I0403 15:01:56.371570 14030 net.cpp:141] Setting up inception_4d/relu_5x5_reduce
I0403 15:01:56.371598 14030 net.cpp:148] Top shape: 24 32 14 14 (150528)
I0403 15:01:56.371613 14030 net.cpp:156] Memory required for data: 1132858656
I0403 15:01:56.371628 14030 layer_factory.hpp:77] Creating layer inception_4d/5x5
I0403 15:01:56.371649 14030 net.cpp:91] Creating Layer inception_4d/5x5
I0403 15:01:56.371667 14030 net.cpp:425] inception_4d/5x5 <- inception_4d/5x5_reduce
I0403 15:01:56.371686 14030 net.cpp:399] inception_4d/5x5 -> inception_4d/5x5
I0403 15:01:56.373163 14030 net.cpp:141] Setting up inception_4d/5x5
I0403 15:01:56.373195 14030 net.cpp:148] Top shape: 24 64 14 14 (301056)
I0403 15:01:56.373214 14030 net.cpp:156] Memory required for data: 1134062880
I0403 15:01:56.373234 14030 layer_factory.hpp:77] Creating layer inception_4d/relu_5x5
I0403 15:01:56.373271 14030 net.cpp:91] Creating Layer inception_4d/relu_5x5
I0403 15:01:56.373291 14030 net.cpp:425] inception_4d/relu_5x5 <- inception_4d/5x5
I0403 15:01:56.373311 14030 net.cpp:386] inception_4d/relu_5x5 -> inception_4d/5x5 (in-place)
I0403 15:01:56.373616 14030 net.cpp:141] Setting up inception_4d/relu_5x5
I0403 15:01:56.373646 14030 net.cpp:148] Top shape: 24 64 14 14 (301056)
I0403 15:01:56.373664 14030 net.cpp:156] Memory required for data: 1135267104
I0403 15:01:56.373680 14030 layer_factory.hpp:77] Creating layer inception_4d/pool
I0403 15:01:56.373698 14030 net.cpp:91] Creating Layer inception_4d/pool
I0403 15:01:56.373715 14030 net.cpp:425] inception_4d/pool <- inception_4c/output_inception_4c/output_0_split_3
I0403 15:01:56.373735 14030 net.cpp:399] inception_4d/pool -> inception_4d/pool
I0403 15:01:56.373805 14030 net.cpp:141] Setting up inception_4d/pool
I0403 15:01:56.373832 14030 net.cpp:148] Top shape: 24 512 14 14 (2408448)
I0403 15:01:56.373848 14030 net.cpp:156] Memory required for data: 1144900896
I0403 15:01:56.373863 14030 layer_factory.hpp:77] Creating layer inception_4d/pool_proj
I0403 15:01:56.373883 14030 net.cpp:91] Creating Layer inception_4d/pool_proj
I0403 15:01:56.373901 14030 net.cpp:425] inception_4d/pool_proj <- inception_4d/pool
I0403 15:01:56.373924 14030 net.cpp:399] inception_4d/pool_proj -> inception_4d/pool_proj
I0403 15:01:56.375685 14030 net.cpp:141] Setting up inception_4d/pool_proj
I0403 15:01:56.375715 14030 net.cpp:148] Top shape: 24 64 14 14 (301056)
I0403 15:01:56.375733 14030 net.cpp:156] Memory required for data: 1146105120
I0403 15:01:56.375751 14030 layer_factory.hpp:77] Creating layer inception_4d/relu_pool_proj
I0403 15:01:56.375773 14030 net.cpp:91] Creating Layer inception_4d/relu_pool_proj
I0403 15:01:56.375792 14030 net.cpp:425] inception_4d/relu_pool_proj <- inception_4d/pool_proj
I0403 15:01:56.375809 14030 net.cpp:386] inception_4d/relu_pool_proj -> inception_4d/pool_proj (in-place)
I0403 15:01:56.375996 14030 net.cpp:141] Setting up inception_4d/relu_pool_proj
I0403 15:01:56.376024 14030 net.cpp:148] Top shape: 24 64 14 14 (301056)
I0403 15:01:56.376041 14030 net.cpp:156] Memory required for data: 1147309344
I0403 15:01:56.376056 14030 layer_factory.hpp:77] Creating layer inception_4d/output
I0403 15:01:56.376075 14030 net.cpp:91] Creating Layer inception_4d/output
I0403 15:01:56.376091 14030 net.cpp:425] inception_4d/output <- inception_4d/1x1
I0403 15:01:56.376109 14030 net.cpp:425] inception_4d/output <- inception_4d/3x3
I0403 15:01:56.376128 14030 net.cpp:425] inception_4d/output <- inception_4d/5x5
I0403 15:01:56.376145 14030 net.cpp:425] inception_4d/output <- inception_4d/pool_proj
I0403 15:01:56.376163 14030 net.cpp:399] inception_4d/output -> inception_4d/output
I0403 15:01:56.376212 14030 net.cpp:141] Setting up inception_4d/output
I0403 15:01:56.376236 14030 net.cpp:148] Top shape: 24 528 14 14 (2483712)
I0403 15:01:56.376251 14030 net.cpp:156] Memory required for data: 1157244192
I0403 15:01:56.376267 14030 layer_factory.hpp:77] Creating layer inception_4d/output_inception_4d/output_0_split
I0403 15:01:56.376289 14030 net.cpp:91] Creating Layer inception_4d/output_inception_4d/output_0_split
I0403 15:01:56.376307 14030 net.cpp:425] inception_4d/output_inception_4d/output_0_split <- inception_4d/output
I0403 15:01:56.376324 14030 net.cpp:399] inception_4d/output_inception_4d/output_0_split -> inception_4d/output_inception_4d/output_0_split_0
I0403 15:01:56.376344 14030 net.cpp:399] inception_4d/output_inception_4d/output_0_split -> inception_4d/output_inception_4d/output_0_split_1
I0403 15:01:56.376365 14030 net.cpp:399] inception_4d/output_inception_4d/output_0_split -> inception_4d/output_inception_4d/output_0_split_2
I0403 15:01:56.376387 14030 net.cpp:399] inception_4d/output_inception_4d/output_0_split -> inception_4d/output_inception_4d/output_0_split_3
I0403 15:01:56.376408 14030 net.cpp:399] inception_4d/output_inception_4d/output_0_split -> inception_4d/output_inception_4d/output_0_split_4
I0403 15:01:56.376510 14030 net.cpp:141] Setting up inception_4d/output_inception_4d/output_0_split
I0403 15:01:56.376549 14030 net.cpp:148] Top shape: 24 528 14 14 (2483712)
I0403 15:01:56.376567 14030 net.cpp:148] Top shape: 24 528 14 14 (2483712)
I0403 15:01:56.376584 14030 net.cpp:148] Top shape: 24 528 14 14 (2483712)
I0403 15:01:56.376598 14030 net.cpp:148] Top shape: 24 528 14 14 (2483712)
I0403 15:01:56.376615 14030 net.cpp:148] Top shape: 24 528 14 14 (2483712)
I0403 15:01:56.376627 14030 net.cpp:156] Memory required for data: 1206918432
I0403 15:01:56.376642 14030 layer_factory.hpp:77] Creating layer loss2/ave_pool
I0403 15:01:56.376662 14030 net.cpp:91] Creating Layer loss2/ave_pool
I0403 15:01:56.376679 14030 net.cpp:425] loss2/ave_pool <- inception_4d/output_inception_4d/output_0_split_0
I0403 15:01:56.376698 14030 net.cpp:399] loss2/ave_pool -> loss2/ave_pool
I0403 15:01:56.377010 14030 net.cpp:141] Setting up loss2/ave_pool
I0403 15:01:56.377038 14030 net.cpp:148] Top shape: 24 528 4 4 (202752)
I0403 15:01:56.377051 14030 net.cpp:156] Memory required for data: 1207729440
I0403 15:01:56.377066 14030 layer_factory.hpp:77] Creating layer loss2/conv
I0403 15:01:56.377089 14030 net.cpp:91] Creating Layer loss2/conv
I0403 15:01:56.377109 14030 net.cpp:425] loss2/conv <- loss2/ave_pool
I0403 15:01:56.377126 14030 net.cpp:399] loss2/conv -> loss2/conv
I0403 15:01:56.379014 14030 net.cpp:141] Setting up loss2/conv
I0403 15:01:56.379045 14030 net.cpp:148] Top shape: 24 128 4 4 (49152)
I0403 15:01:56.379060 14030 net.cpp:156] Memory required for data: 1207926048
I0403 15:01:56.379079 14030 layer_factory.hpp:77] Creating layer loss2/relu_conv
I0403 15:01:56.379098 14030 net.cpp:91] Creating Layer loss2/relu_conv
I0403 15:01:56.379115 14030 net.cpp:425] loss2/relu_conv <- loss2/conv
I0403 15:01:56.379137 14030 net.cpp:386] loss2/relu_conv -> loss2/conv (in-place)
I0403 15:01:56.379426 14030 net.cpp:141] Setting up loss2/relu_conv
I0403 15:01:56.379453 14030 net.cpp:148] Top shape: 24 128 4 4 (49152)
I0403 15:01:56.379468 14030 net.cpp:156] Memory required for data: 1208122656
I0403 15:01:56.379483 14030 layer_factory.hpp:77] Creating layer loss2/fc
I0403 15:01:56.379503 14030 net.cpp:91] Creating Layer loss2/fc
I0403 15:01:56.379519 14030 net.cpp:425] loss2/fc <- loss2/conv
I0403 15:01:56.379544 14030 net.cpp:399] loss2/fc -> loss2/fc
I0403 15:01:56.396915 14030 net.cpp:141] Setting up loss2/fc
I0403 15:01:56.396952 14030 net.cpp:148] Top shape: 24 1024 (24576)
I0403 15:01:56.396970 14030 net.cpp:156] Memory required for data: 1208220960
I0403 15:01:56.396989 14030 layer_factory.hpp:77] Creating layer loss2/relu_fc
I0403 15:01:56.397009 14030 net.cpp:91] Creating Layer loss2/relu_fc
I0403 15:01:56.397027 14030 net.cpp:425] loss2/relu_fc <- loss2/fc
I0403 15:01:56.397043 14030 net.cpp:386] loss2/relu_fc -> loss2/fc (in-place)
I0403 15:01:56.397343 14030 net.cpp:141] Setting up loss2/relu_fc
I0403 15:01:56.397372 14030 net.cpp:148] Top shape: 24 1024 (24576)
I0403 15:01:56.397388 14030 net.cpp:156] Memory required for data: 1208319264
I0403 15:01:56.397403 14030 layer_factory.hpp:77] Creating layer loss2/drop_fc
I0403 15:01:56.397420 14030 net.cpp:91] Creating Layer loss2/drop_fc
I0403 15:01:56.397436 14030 net.cpp:425] loss2/drop_fc <- loss2/fc
I0403 15:01:56.397454 14030 net.cpp:386] loss2/drop_fc -> loss2/fc (in-place)
I0403 15:01:56.397503 14030 net.cpp:141] Setting up loss2/drop_fc
I0403 15:01:56.397526 14030 net.cpp:148] Top shape: 24 1024 (24576)
I0403 15:01:56.397544 14030 net.cpp:156] Memory required for data: 1208417568
I0403 15:01:56.397559 14030 layer_factory.hpp:77] Creating layer loss2/classifier_plantvillage
I0403 15:01:56.397580 14030 net.cpp:91] Creating Layer loss2/classifier_plantvillage
I0403 15:01:56.397596 14030 net.cpp:425] loss2/classifier_plantvillage <- loss2/fc
I0403 15:01:56.397614 14030 net.cpp:399] loss2/classifier_plantvillage -> loss2/classifier_plantvillage
I0403 15:01:56.398013 14030 net.cpp:141] Setting up loss2/classifier_plantvillage
I0403 15:01:56.398037 14030 net.cpp:148] Top shape: 24 38 (912)
I0403 15:01:56.398052 14030 net.cpp:156] Memory required for data: 1208421216
I0403 15:01:56.398087 14030 layer_factory.hpp:77] Creating layer loss2/classifier_plantvillage_loss2/classifier_plantvillage_0_split
I0403 15:01:56.398107 14030 net.cpp:91] Creating Layer loss2/classifier_plantvillage_loss2/classifier_plantvillage_0_split
I0403 15:01:56.398121 14030 net.cpp:425] loss2/classifier_plantvillage_loss2/classifier_plantvillage_0_split <- loss2/classifier_plantvillage
I0403 15:01:56.398140 14030 net.cpp:399] loss2/classifier_plantvillage_loss2/classifier_plantvillage_0_split -> loss2/classifier_plantvillage_loss2/classifier_plantvillage_0_split_0
I0403 15:01:56.398160 14030 net.cpp:399] loss2/classifier_plantvillage_loss2/classifier_plantvillage_0_split -> loss2/classifier_plantvillage_loss2/classifier_plantvillage_0_split_1
I0403 15:01:56.398181 14030 net.cpp:399] loss2/classifier_plantvillage_loss2/classifier_plantvillage_0_split -> loss2/classifier_plantvillage_loss2/classifier_plantvillage_0_split_2
I0403 15:01:56.398257 14030 net.cpp:141] Setting up loss2/classifier_plantvillage_loss2/classifier_plantvillage_0_split
I0403 15:01:56.398283 14030 net.cpp:148] Top shape: 24 38 (912)
I0403 15:01:56.398298 14030 net.cpp:148] Top shape: 24 38 (912)
I0403 15:01:56.398313 14030 net.cpp:148] Top shape: 24 38 (912)
I0403 15:01:56.398325 14030 net.cpp:156] Memory required for data: 1208432160
I0403 15:01:56.398339 14030 layer_factory.hpp:77] Creating layer inception_4e/1x1
I0403 15:01:56.398360 14030 net.cpp:91] Creating Layer inception_4e/1x1
I0403 15:01:56.398377 14030 net.cpp:425] inception_4e/1x1 <- inception_4d/output_inception_4d/output_0_split_1
I0403 15:01:56.398396 14030 net.cpp:399] inception_4e/1x1 -> inception_4e/1x1
I0403 15:01:56.400172 14030 net.cpp:141] Setting up inception_4e/1x1
I0403 15:01:56.400200 14030 net.cpp:148] Top shape: 24 256 14 14 (1204224)
I0403 15:01:56.400216 14030 net.cpp:156] Memory required for data: 1213249056
I0403 15:01:56.400234 14030 layer_factory.hpp:77] Creating layer inception_4e/relu_1x1
I0403 15:01:56.400251 14030 net.cpp:91] Creating Layer inception_4e/relu_1x1
I0403 15:01:56.400267 14030 net.cpp:425] inception_4e/relu_1x1 <- inception_4e/1x1
I0403 15:01:56.400285 14030 net.cpp:386] inception_4e/relu_1x1 -> inception_4e/1x1 (in-place)
I0403 15:01:56.400598 14030 net.cpp:141] Setting up inception_4e/relu_1x1
I0403 15:01:56.400624 14030 net.cpp:148] Top shape: 24 256 14 14 (1204224)
I0403 15:01:56.400640 14030 net.cpp:156] Memory required for data: 1218065952
I0403 15:01:56.400655 14030 layer_factory.hpp:77] Creating layer inception_4e/3x3_reduce
I0403 15:01:56.400676 14030 net.cpp:91] Creating Layer inception_4e/3x3_reduce
I0403 15:01:56.400694 14030 net.cpp:425] inception_4e/3x3_reduce <- inception_4d/output_inception_4d/output_0_split_2
I0403 15:01:56.400715 14030 net.cpp:399] inception_4e/3x3_reduce -> inception_4e/3x3_reduce
I0403 15:01:56.402801 14030 net.cpp:141] Setting up inception_4e/3x3_reduce
I0403 15:01:56.402832 14030 net.cpp:148] Top shape: 24 160 14 14 (752640)
I0403 15:01:56.402850 14030 net.cpp:156] Memory required for data: 1221076512
I0403 15:01:56.402869 14030 layer_factory.hpp:77] Creating layer inception_4e/relu_3x3_reduce
I0403 15:01:56.402887 14030 net.cpp:91] Creating Layer inception_4e/relu_3x3_reduce
I0403 15:01:56.402904 14030 net.cpp:425] inception_4e/relu_3x3_reduce <- inception_4e/3x3_reduce
I0403 15:01:56.402923 14030 net.cpp:386] inception_4e/relu_3x3_reduce -> inception_4e/3x3_reduce (in-place)
I0403 15:01:56.403105 14030 net.cpp:141] Setting up inception_4e/relu_3x3_reduce
I0403 15:01:56.403131 14030 net.cpp:148] Top shape: 24 160 14 14 (752640)
I0403 15:01:56.403146 14030 net.cpp:156] Memory required for data: 1224087072
I0403 15:01:56.403158 14030 layer_factory.hpp:77] Creating layer inception_4e/3x3
I0403 15:01:56.403180 14030 net.cpp:91] Creating Layer inception_4e/3x3
I0403 15:01:56.403198 14030 net.cpp:425] inception_4e/3x3 <- inception_4e/3x3_reduce
I0403 15:01:56.403218 14030 net.cpp:399] inception_4e/3x3 -> inception_4e/3x3
I0403 15:01:56.408092 14030 net.cpp:141] Setting up inception_4e/3x3
I0403 15:01:56.408133 14030 net.cpp:148] Top shape: 24 320 14 14 (1505280)
I0403 15:01:56.408150 14030 net.cpp:156] Memory required for data: 1230108192
I0403 15:01:56.408169 14030 layer_factory.hpp:77] Creating layer inception_4e/relu_3x3
I0403 15:01:56.408190 14030 net.cpp:91] Creating Layer inception_4e/relu_3x3
I0403 15:01:56.408207 14030 net.cpp:425] inception_4e/relu_3x3 <- inception_4e/3x3
I0403 15:01:56.408224 14030 net.cpp:386] inception_4e/relu_3x3 -> inception_4e/3x3 (in-place)
I0403 15:01:56.408516 14030 net.cpp:141] Setting up inception_4e/relu_3x3
I0403 15:01:56.408546 14030 net.cpp:148] Top shape: 24 320 14 14 (1505280)
I0403 15:01:56.408562 14030 net.cpp:156] Memory required for data: 1236129312
I0403 15:01:56.408576 14030 layer_factory.hpp:77] Creating layer inception_4e/5x5_reduce
I0403 15:01:56.408598 14030 net.cpp:91] Creating Layer inception_4e/5x5_reduce
I0403 15:01:56.408617 14030 net.cpp:425] inception_4e/5x5_reduce <- inception_4d/output_inception_4d/output_0_split_3
I0403 15:01:56.408637 14030 net.cpp:399] inception_4e/5x5_reduce -> inception_4e/5x5_reduce
I0403 15:01:56.409677 14030 net.cpp:141] Setting up inception_4e/5x5_reduce
I0403 15:01:56.409708 14030 net.cpp:148] Top shape: 24 32 14 14 (150528)
I0403 15:01:56.409724 14030 net.cpp:156] Memory required for data: 1236731424
I0403 15:01:56.409741 14030 layer_factory.hpp:77] Creating layer inception_4e/relu_5x5_reduce
I0403 15:01:56.409759 14030 net.cpp:91] Creating Layer inception_4e/relu_5x5_reduce
I0403 15:01:56.409775 14030 net.cpp:425] inception_4e/relu_5x5_reduce <- inception_4e/5x5_reduce
I0403 15:01:56.409795 14030 net.cpp:386] inception_4e/relu_5x5_reduce -> inception_4e/5x5_reduce (in-place)
I0403 15:01:56.410094 14030 net.cpp:141] Setting up inception_4e/relu_5x5_reduce
I0403 15:01:56.410121 14030 net.cpp:148] Top shape: 24 32 14 14 (150528)
I0403 15:01:56.410138 14030 net.cpp:156] Memory required for data: 1237333536
I0403 15:01:56.410152 14030 layer_factory.hpp:77] Creating layer inception_4e/5x5
I0403 15:01:56.410192 14030 net.cpp:91] Creating Layer inception_4e/5x5
I0403 15:01:56.410210 14030 net.cpp:425] inception_4e/5x5 <- inception_4e/5x5_reduce
I0403 15:01:56.410229 14030 net.cpp:399] inception_4e/5x5 -> inception_4e/5x5
I0403 15:01:56.412027 14030 net.cpp:141] Setting up inception_4e/5x5
I0403 15:01:56.412056 14030 net.cpp:148] Top shape: 24 128 14 14 (602112)
I0403 15:01:56.412072 14030 net.cpp:156] Memory required for data: 1239741984
I0403 15:01:56.412091 14030 layer_factory.hpp:77] Creating layer inception_4e/relu_5x5
I0403 15:01:56.412112 14030 net.cpp:91] Creating Layer inception_4e/relu_5x5
I0403 15:01:56.412128 14030 net.cpp:425] inception_4e/relu_5x5 <- inception_4e/5x5
I0403 15:01:56.412145 14030 net.cpp:386] inception_4e/relu_5x5 -> inception_4e/5x5 (in-place)
I0403 15:01:56.412336 14030 net.cpp:141] Setting up inception_4e/relu_5x5
I0403 15:01:56.412363 14030 net.cpp:148] Top shape: 24 128 14 14 (602112)
I0403 15:01:56.412379 14030 net.cpp:156] Memory required for data: 1242150432
I0403 15:01:56.412394 14030 layer_factory.hpp:77] Creating layer inception_4e/pool
I0403 15:01:56.412410 14030 net.cpp:91] Creating Layer inception_4e/pool
I0403 15:01:56.412425 14030 net.cpp:425] inception_4e/pool <- inception_4d/output_inception_4d/output_0_split_4
I0403 15:01:56.412446 14030 net.cpp:399] inception_4e/pool -> inception_4e/pool
I0403 15:01:56.412513 14030 net.cpp:141] Setting up inception_4e/pool
I0403 15:01:56.412542 14030 net.cpp:148] Top shape: 24 528 14 14 (2483712)
I0403 15:01:56.412559 14030 net.cpp:156] Memory required for data: 1252085280
I0403 15:01:56.412575 14030 layer_factory.hpp:77] Creating layer inception_4e/pool_proj
I0403 15:01:56.412600 14030 net.cpp:91] Creating Layer inception_4e/pool_proj
I0403 15:01:56.412618 14030 net.cpp:425] inception_4e/pool_proj <- inception_4e/pool
I0403 15:01:56.412637 14030 net.cpp:399] inception_4e/pool_proj -> inception_4e/pool_proj
I0403 15:01:56.414086 14030 net.cpp:141] Setting up inception_4e/pool_proj
I0403 15:01:56.414114 14030 net.cpp:148] Top shape: 24 128 14 14 (602112)
I0403 15:01:56.414145 14030 net.cpp:156] Memory required for data: 1254493728
I0403 15:01:56.414165 14030 layer_factory.hpp:77] Creating layer inception_4e/relu_pool_proj
I0403 15:01:56.414185 14030 net.cpp:91] Creating Layer inception_4e/relu_pool_proj
I0403 15:01:56.414201 14030 net.cpp:425] inception_4e/relu_pool_proj <- inception_4e/pool_proj
I0403 15:01:56.414218 14030 net.cpp:386] inception_4e/relu_pool_proj -> inception_4e/pool_proj (in-place)
I0403 15:01:56.414502 14030 net.cpp:141] Setting up inception_4e/relu_pool_proj
I0403 15:01:56.414527 14030 net.cpp:148] Top shape: 24 128 14 14 (602112)
I0403 15:01:56.414553 14030 net.cpp:156] Memory required for data: 1256902176
I0403 15:01:56.414571 14030 layer_factory.hpp:77] Creating layer inception_4e/output
I0403 15:01:56.414590 14030 net.cpp:91] Creating Layer inception_4e/output
I0403 15:01:56.414607 14030 net.cpp:425] inception_4e/output <- inception_4e/1x1
I0403 15:01:56.414623 14030 net.cpp:425] inception_4e/output <- inception_4e/3x3
I0403 15:01:56.414638 14030 net.cpp:425] inception_4e/output <- inception_4e/5x5
I0403 15:01:56.414654 14030 net.cpp:425] inception_4e/output <- inception_4e/pool_proj
I0403 15:01:56.414670 14030 net.cpp:399] inception_4e/output -> inception_4e/output
I0403 15:01:56.414718 14030 net.cpp:141] Setting up inception_4e/output
I0403 15:01:56.414742 14030 net.cpp:148] Top shape: 24 832 14 14 (3913728)
I0403 15:01:56.414757 14030 net.cpp:156] Memory required for data: 1272557088
I0403 15:01:56.414769 14030 layer_factory.hpp:77] Creating layer pool4/3x3_s2
I0403 15:01:56.414786 14030 net.cpp:91] Creating Layer pool4/3x3_s2
I0403 15:01:56.414801 14030 net.cpp:425] pool4/3x3_s2 <- inception_4e/output
I0403 15:01:56.414820 14030 net.cpp:399] pool4/3x3_s2 -> pool4/3x3_s2
I0403 15:01:56.414886 14030 net.cpp:141] Setting up pool4/3x3_s2
I0403 15:01:56.414909 14030 net.cpp:148] Top shape: 24 832 7 7 (978432)
I0403 15:01:56.414923 14030 net.cpp:156] Memory required for data: 1276470816
I0403 15:01:56.414937 14030 layer_factory.hpp:77] Creating layer pool4/3x3_s2_pool4/3x3_s2_0_split
I0403 15:01:56.414958 14030 net.cpp:91] Creating Layer pool4/3x3_s2_pool4/3x3_s2_0_split
I0403 15:01:56.414973 14030 net.cpp:425] pool4/3x3_s2_pool4/3x3_s2_0_split <- pool4/3x3_s2
I0403 15:01:56.414993 14030 net.cpp:399] pool4/3x3_s2_pool4/3x3_s2_0_split -> pool4/3x3_s2_pool4/3x3_s2_0_split_0
I0403 15:01:56.415014 14030 net.cpp:399] pool4/3x3_s2_pool4/3x3_s2_0_split -> pool4/3x3_s2_pool4/3x3_s2_0_split_1
I0403 15:01:56.415032 14030 net.cpp:399] pool4/3x3_s2_pool4/3x3_s2_0_split -> pool4/3x3_s2_pool4/3x3_s2_0_split_2
I0403 15:01:56.415051 14030 net.cpp:399] pool4/3x3_s2_pool4/3x3_s2_0_split -> pool4/3x3_s2_pool4/3x3_s2_0_split_3
I0403 15:01:56.415137 14030 net.cpp:141] Setting up pool4/3x3_s2_pool4/3x3_s2_0_split
I0403 15:01:56.415161 14030 net.cpp:148] Top shape: 24 832 7 7 (978432)
I0403 15:01:56.415177 14030 net.cpp:148] Top shape: 24 832 7 7 (978432)
I0403 15:01:56.415192 14030 net.cpp:148] Top shape: 24 832 7 7 (978432)
I0403 15:01:56.415206 14030 net.cpp:148] Top shape: 24 832 7 7 (978432)
I0403 15:01:56.415220 14030 net.cpp:156] Memory required for data: 1292125728
I0403 15:01:56.415233 14030 layer_factory.hpp:77] Creating layer inception_5a/1x1
I0403 15:01:56.415254 14030 net.cpp:91] Creating Layer inception_5a/1x1
I0403 15:01:56.415272 14030 net.cpp:425] inception_5a/1x1 <- pool4/3x3_s2_pool4/3x3_s2_0_split_0
I0403 15:01:56.415290 14030 net.cpp:399] inception_5a/1x1 -> inception_5a/1x1
I0403 15:01:56.418048 14030 net.cpp:141] Setting up inception_5a/1x1
I0403 15:01:56.418081 14030 net.cpp:148] Top shape: 24 256 7 7 (301056)
I0403 15:01:56.418098 14030 net.cpp:156] Memory required for data: 1293329952
I0403 15:01:56.418118 14030 layer_factory.hpp:77] Creating layer inception_5a/relu_1x1
I0403 15:01:56.418135 14030 net.cpp:91] Creating Layer inception_5a/relu_1x1
I0403 15:01:56.418153 14030 net.cpp:425] inception_5a/relu_1x1 <- inception_5a/1x1
I0403 15:01:56.418169 14030 net.cpp:386] inception_5a/relu_1x1 -> inception_5a/1x1 (in-place)
I0403 15:01:56.418475 14030 net.cpp:141] Setting up inception_5a/relu_1x1
I0403 15:01:56.418504 14030 net.cpp:148] Top shape: 24 256 7 7 (301056)
I0403 15:01:56.418521 14030 net.cpp:156] Memory required for data: 1294534176
I0403 15:01:56.418540 14030 layer_factory.hpp:77] Creating layer inception_5a/3x3_reduce
I0403 15:01:56.418563 14030 net.cpp:91] Creating Layer inception_5a/3x3_reduce
I0403 15:01:56.418582 14030 net.cpp:425] inception_5a/3x3_reduce <- pool4/3x3_s2_pool4/3x3_s2_0_split_1
I0403 15:01:56.418601 14030 net.cpp:399] inception_5a/3x3_reduce -> inception_5a/3x3_reduce
I0403 15:01:56.420987 14030 net.cpp:141] Setting up inception_5a/3x3_reduce
I0403 15:01:56.421015 14030 net.cpp:148] Top shape: 24 160 7 7 (188160)
I0403 15:01:56.421042 14030 net.cpp:156] Memory required for data: 1295286816
I0403 15:01:56.421061 14030 layer_factory.hpp:77] Creating layer inception_5a/relu_3x3_reduce
I0403 15:01:56.421082 14030 net.cpp:91] Creating Layer inception_5a/relu_3x3_reduce
I0403 15:01:56.421099 14030 net.cpp:425] inception_5a/relu_3x3_reduce <- inception_5a/3x3_reduce
I0403 15:01:56.421118 14030 net.cpp:386] inception_5a/relu_3x3_reduce -> inception_5a/3x3_reduce (in-place)
I0403 15:01:56.421304 14030 net.cpp:141] Setting up inception_5a/relu_3x3_reduce
I0403 15:01:56.421334 14030 net.cpp:148] Top shape: 24 160 7 7 (188160)
I0403 15:01:56.421350 14030 net.cpp:156] Memory required for data: 1296039456
I0403 15:01:56.421365 14030 layer_factory.hpp:77] Creating layer inception_5a/3x3
I0403 15:01:56.421388 14030 net.cpp:91] Creating Layer inception_5a/3x3
I0403 15:01:56.421407 14030 net.cpp:425] inception_5a/3x3 <- inception_5a/3x3_reduce
I0403 15:01:56.421427 14030 net.cpp:399] inception_5a/3x3 -> inception_5a/3x3
I0403 15:01:56.426316 14030 net.cpp:141] Setting up inception_5a/3x3
I0403 15:01:56.426347 14030 net.cpp:148] Top shape: 24 320 7 7 (376320)
I0403 15:01:56.426365 14030 net.cpp:156] Memory required for data: 1297544736
I0403 15:01:56.426383 14030 layer_factory.hpp:77] Creating layer inception_5a/relu_3x3
I0403 15:01:56.426401 14030 net.cpp:91] Creating Layer inception_5a/relu_3x3
I0403 15:01:56.426419 14030 net.cpp:425] inception_5a/relu_3x3 <- inception_5a/3x3
I0403 15:01:56.426440 14030 net.cpp:386] inception_5a/relu_3x3 -> inception_5a/3x3 (in-place)
I0403 15:01:56.426736 14030 net.cpp:141] Setting up inception_5a/relu_3x3
I0403 15:01:56.426764 14030 net.cpp:148] Top shape: 24 320 7 7 (376320)
I0403 15:01:56.426779 14030 net.cpp:156] Memory required for data: 1299050016
I0403 15:01:56.426794 14030 layer_factory.hpp:77] Creating layer inception_5a/5x5_reduce
I0403 15:01:56.426816 14030 net.cpp:91] Creating Layer inception_5a/5x5_reduce
I0403 15:01:56.426833 14030 net.cpp:425] inception_5a/5x5_reduce <- pool4/3x3_s2_pool4/3x3_s2_0_split_2
I0403 15:01:56.426852 14030 net.cpp:399] inception_5a/5x5_reduce -> inception_5a/5x5_reduce
I0403 15:01:56.427986 14030 net.cpp:141] Setting up inception_5a/5x5_reduce
I0403 15:01:56.428019 14030 net.cpp:148] Top shape: 24 32 7 7 (37632)
I0403 15:01:56.428035 14030 net.cpp:156] Memory required for data: 1299200544
I0403 15:01:56.428052 14030 layer_factory.hpp:77] Creating layer inception_5a/relu_5x5_reduce
I0403 15:01:56.428068 14030 net.cpp:91] Creating Layer inception_5a/relu_5x5_reduce
I0403 15:01:56.428086 14030 net.cpp:425] inception_5a/relu_5x5_reduce <- inception_5a/5x5_reduce
I0403 15:01:56.428104 14030 net.cpp:386] inception_5a/relu_5x5_reduce -> inception_5a/5x5_reduce (in-place)
I0403 15:01:56.428397 14030 net.cpp:141] Setting up inception_5a/relu_5x5_reduce
I0403 15:01:56.428422 14030 net.cpp:148] Top shape: 24 32 7 7 (37632)
I0403 15:01:56.428437 14030 net.cpp:156] Memory required for data: 1299351072
I0403 15:01:56.428452 14030 layer_factory.hpp:77] Creating layer inception_5a/5x5
I0403 15:01:56.428473 14030 net.cpp:91] Creating Layer inception_5a/5x5
I0403 15:01:56.428490 14030 net.cpp:425] inception_5a/5x5 <- inception_5a/5x5_reduce
I0403 15:01:56.428511 14030 net.cpp:399] inception_5a/5x5 -> inception_5a/5x5
I0403 15:01:56.430178 14030 net.cpp:141] Setting up inception_5a/5x5
I0403 15:01:56.430220 14030 net.cpp:148] Top shape: 24 128 7 7 (150528)
I0403 15:01:56.430238 14030 net.cpp:156] Memory required for data: 1299953184
I0403 15:01:56.430258 14030 layer_factory.hpp:77] Creating layer inception_5a/relu_5x5
I0403 15:01:56.430280 14030 net.cpp:91] Creating Layer inception_5a/relu_5x5
I0403 15:01:56.430296 14030 net.cpp:425] inception_5a/relu_5x5 <- inception_5a/5x5
I0403 15:01:56.430316 14030 net.cpp:386] inception_5a/relu_5x5 -> inception_5a/5x5 (in-place)
I0403 15:01:56.430511 14030 net.cpp:141] Setting up inception_5a/relu_5x5
I0403 15:01:56.430541 14030 net.cpp:148] Top shape: 24 128 7 7 (150528)
I0403 15:01:56.430557 14030 net.cpp:156] Memory required for data: 1300555296
I0403 15:01:56.430570 14030 layer_factory.hpp:77] Creating layer inception_5a/pool
I0403 15:01:56.430595 14030 net.cpp:91] Creating Layer inception_5a/pool
I0403 15:01:56.430619 14030 net.cpp:425] inception_5a/pool <- pool4/3x3_s2_pool4/3x3_s2_0_split_3
I0403 15:01:56.430644 14030 net.cpp:399] inception_5a/pool -> inception_5a/pool
I0403 15:01:56.430721 14030 net.cpp:141] Setting up inception_5a/pool
I0403 15:01:56.430748 14030 net.cpp:148] Top shape: 24 832 7 7 (978432)
I0403 15:01:56.430763 14030 net.cpp:156] Memory required for data: 1304469024
I0403 15:01:56.430776 14030 layer_factory.hpp:77] Creating layer inception_5a/pool_proj
I0403 15:01:56.430799 14030 net.cpp:91] Creating Layer inception_5a/pool_proj
I0403 15:01:56.430816 14030 net.cpp:425] inception_5a/pool_proj <- inception_5a/pool
I0403 15:01:56.430835 14030 net.cpp:399] inception_5a/pool_proj -> inception_5a/pool_proj
I0403 15:01:56.433118 14030 net.cpp:141] Setting up inception_5a/pool_proj
I0403 15:01:56.433150 14030 net.cpp:148] Top shape: 24 128 7 7 (150528)
I0403 15:01:56.433166 14030 net.cpp:156] Memory required for data: 1305071136
I0403 15:01:56.433183 14030 layer_factory.hpp:77] Creating layer inception_5a/relu_pool_proj
I0403 15:01:56.433205 14030 net.cpp:91] Creating Layer inception_5a/relu_pool_proj
I0403 15:01:56.433221 14030 net.cpp:425] inception_5a/relu_pool_proj <- inception_5a/pool_proj
I0403 15:01:56.433239 14030 net.cpp:386] inception_5a/relu_pool_proj -> inception_5a/pool_proj (in-place)
I0403 15:01:56.433532 14030 net.cpp:141] Setting up inception_5a/relu_pool_proj
I0403 15:01:56.433563 14030 net.cpp:148] Top shape: 24 128 7 7 (150528)
I0403 15:01:56.433578 14030 net.cpp:156] Memory required for data: 1305673248
I0403 15:01:56.433593 14030 layer_factory.hpp:77] Creating layer inception_5a/output
I0403 15:01:56.433614 14030 net.cpp:91] Creating Layer inception_5a/output
I0403 15:01:56.433630 14030 net.cpp:425] inception_5a/output <- inception_5a/1x1
I0403 15:01:56.433646 14030 net.cpp:425] inception_5a/output <- inception_5a/3x3
I0403 15:01:56.433662 14030 net.cpp:425] inception_5a/output <- inception_5a/5x5
I0403 15:01:56.433679 14030 net.cpp:425] inception_5a/output <- inception_5a/pool_proj
I0403 15:01:56.433696 14030 net.cpp:399] inception_5a/output -> inception_5a/output
I0403 15:01:56.433748 14030 net.cpp:141] Setting up inception_5a/output
I0403 15:01:56.433771 14030 net.cpp:148] Top shape: 24 832 7 7 (978432)
I0403 15:01:56.433786 14030 net.cpp:156] Memory required for data: 1309586976
I0403 15:01:56.433801 14030 layer_factory.hpp:77] Creating layer inception_5a/output_inception_5a/output_0_split
I0403 15:01:56.433818 14030 net.cpp:91] Creating Layer inception_5a/output_inception_5a/output_0_split
I0403 15:01:56.433835 14030 net.cpp:425] inception_5a/output_inception_5a/output_0_split <- inception_5a/output
I0403 15:01:56.433854 14030 net.cpp:399] inception_5a/output_inception_5a/output_0_split -> inception_5a/output_inception_5a/output_0_split_0
I0403 15:01:56.433876 14030 net.cpp:399] inception_5a/output_inception_5a/output_0_split -> inception_5a/output_inception_5a/output_0_split_1
I0403 15:01:56.433897 14030 net.cpp:399] inception_5a/output_inception_5a/output_0_split -> inception_5a/output_inception_5a/output_0_split_2
I0403 15:01:56.433917 14030 net.cpp:399] inception_5a/output_inception_5a/output_0_split -> inception_5a/output_inception_5a/output_0_split_3
I0403 15:01:56.434031 14030 net.cpp:141] Setting up inception_5a/output_inception_5a/output_0_split
I0403 15:01:56.434056 14030 net.cpp:148] Top shape: 24 832 7 7 (978432)
I0403 15:01:56.434072 14030 net.cpp:148] Top shape: 24 832 7 7 (978432)
I0403 15:01:56.434087 14030 net.cpp:148] Top shape: 24 832 7 7 (978432)
I0403 15:01:56.434103 14030 net.cpp:148] Top shape: 24 832 7 7 (978432)
I0403 15:01:56.434115 14030 net.cpp:156] Memory required for data: 1325241888
I0403 15:01:56.434129 14030 layer_factory.hpp:77] Creating layer inception_5b/1x1
I0403 15:01:56.434151 14030 net.cpp:91] Creating Layer inception_5b/1x1
I0403 15:01:56.434170 14030 net.cpp:425] inception_5b/1x1 <- inception_5a/output_inception_5a/output_0_split_0
I0403 15:01:56.434191 14030 net.cpp:399] inception_5b/1x1 -> inception_5b/1x1
I0403 15:01:56.437991 14030 net.cpp:141] Setting up inception_5b/1x1
I0403 15:01:56.438021 14030 net.cpp:148] Top shape: 24 384 7 7 (451584)
I0403 15:01:56.438037 14030 net.cpp:156] Memory required for data: 1327048224
I0403 15:01:56.438056 14030 layer_factory.hpp:77] Creating layer inception_5b/relu_1x1
I0403 15:01:56.438077 14030 net.cpp:91] Creating Layer inception_5b/relu_1x1
I0403 15:01:56.438097 14030 net.cpp:425] inception_5b/relu_1x1 <- inception_5b/1x1
I0403 15:01:56.438115 14030 net.cpp:386] inception_5b/relu_1x1 -> inception_5b/1x1 (in-place)
I0403 15:01:56.438421 14030 net.cpp:141] Setting up inception_5b/relu_1x1
I0403 15:01:56.438446 14030 net.cpp:148] Top shape: 24 384 7 7 (451584)
I0403 15:01:56.438462 14030 net.cpp:156] Memory required for data: 1328854560
I0403 15:01:56.438477 14030 layer_factory.hpp:77] Creating layer inception_5b/3x3_reduce
I0403 15:01:56.438499 14030 net.cpp:91] Creating Layer inception_5b/3x3_reduce
I0403 15:01:56.438519 14030 net.cpp:425] inception_5b/3x3_reduce <- inception_5a/output_inception_5a/output_0_split_1
I0403 15:01:56.438544 14030 net.cpp:399] inception_5b/3x3_reduce -> inception_5b/3x3_reduce
I0403 15:01:56.441195 14030 net.cpp:141] Setting up inception_5b/3x3_reduce
I0403 15:01:56.441225 14030 net.cpp:148] Top shape: 24 192 7 7 (225792)
I0403 15:01:56.441242 14030 net.cpp:156] Memory required for data: 1329757728
I0403 15:01:56.441261 14030 layer_factory.hpp:77] Creating layer inception_5b/relu_3x3_reduce
I0403 15:01:56.441283 14030 net.cpp:91] Creating Layer inception_5b/relu_3x3_reduce
I0403 15:01:56.441303 14030 net.cpp:425] inception_5b/relu_3x3_reduce <- inception_5b/3x3_reduce
I0403 15:01:56.441320 14030 net.cpp:386] inception_5b/relu_3x3_reduce -> inception_5b/3x3_reduce (in-place)
I0403 15:01:56.441509 14030 net.cpp:141] Setting up inception_5b/relu_3x3_reduce
I0403 15:01:56.441541 14030 net.cpp:148] Top shape: 24 192 7 7 (225792)
I0403 15:01:56.441560 14030 net.cpp:156] Memory required for data: 1330660896
I0403 15:01:56.441576 14030 layer_factory.hpp:77] Creating layer inception_5b/3x3
I0403 15:01:56.441597 14030 net.cpp:91] Creating Layer inception_5b/3x3
I0403 15:01:56.441615 14030 net.cpp:425] inception_5b/3x3 <- inception_5b/3x3_reduce
I0403 15:01:56.441634 14030 net.cpp:399] inception_5b/3x3 -> inception_5b/3x3
I0403 15:01:56.448331 14030 net.cpp:141] Setting up inception_5b/3x3
I0403 15:01:56.448362 14030 net.cpp:148] Top shape: 24 384 7 7 (451584)
I0403 15:01:56.448379 14030 net.cpp:156] Memory required for data: 1332467232
I0403 15:01:56.448398 14030 layer_factory.hpp:77] Creating layer inception_5b/relu_3x3
I0403 15:01:56.448421 14030 net.cpp:91] Creating Layer inception_5b/relu_3x3
I0403 15:01:56.448438 14030 net.cpp:425] inception_5b/relu_3x3 <- inception_5b/3x3
I0403 15:01:56.448457 14030 net.cpp:386] inception_5b/relu_3x3 -> inception_5b/3x3 (in-place)
I0403 15:01:56.448762 14030 net.cpp:141] Setting up inception_5b/relu_3x3
I0403 15:01:56.448789 14030 net.cpp:148] Top shape: 24 384 7 7 (451584)
I0403 15:01:56.448808 14030 net.cpp:156] Memory required for data: 1334273568
I0403 15:01:56.448824 14030 layer_factory.hpp:77] Creating layer inception_5b/5x5_reduce
I0403 15:01:56.448864 14030 net.cpp:91] Creating Layer inception_5b/5x5_reduce
I0403 15:01:56.448882 14030 net.cpp:425] inception_5b/5x5_reduce <- inception_5a/output_inception_5a/output_0_split_2
I0403 15:01:56.448904 14030 net.cpp:399] inception_5b/5x5_reduce -> inception_5b/5x5_reduce
I0403 15:01:56.450173 14030 net.cpp:141] Setting up inception_5b/5x5_reduce
I0403 15:01:56.450202 14030 net.cpp:148] Top shape: 24 48 7 7 (56448)
I0403 15:01:56.450219 14030 net.cpp:156] Memory required for data: 1334499360
I0403 15:01:56.450237 14030 layer_factory.hpp:77] Creating layer inception_5b/relu_5x5_reduce
I0403 15:01:56.450258 14030 net.cpp:91] Creating Layer inception_5b/relu_5x5_reduce
I0403 15:01:56.450276 14030 net.cpp:425] inception_5b/relu_5x5_reduce <- inception_5b/5x5_reduce
I0403 15:01:56.450296 14030 net.cpp:386] inception_5b/relu_5x5_reduce -> inception_5b/5x5_reduce (in-place)
I0403 15:01:56.450672 14030 net.cpp:141] Setting up inception_5b/relu_5x5_reduce
I0403 15:01:56.450700 14030 net.cpp:148] Top shape: 24 48 7 7 (56448)
I0403 15:01:56.450716 14030 net.cpp:156] Memory required for data: 1334725152
I0403 15:01:56.450731 14030 layer_factory.hpp:77] Creating layer inception_5b/5x5
I0403 15:01:56.450752 14030 net.cpp:91] Creating Layer inception_5b/5x5
I0403 15:01:56.450769 14030 net.cpp:425] inception_5b/5x5 <- inception_5b/5x5_reduce
I0403 15:01:56.450788 14030 net.cpp:399] inception_5b/5x5 -> inception_5b/5x5
I0403 15:01:56.452857 14030 net.cpp:141] Setting up inception_5b/5x5
I0403 15:01:56.452888 14030 net.cpp:148] Top shape: 24 128 7 7 (150528)
I0403 15:01:56.452906 14030 net.cpp:156] Memory required for data: 1335327264
I0403 15:01:56.452925 14030 layer_factory.hpp:77] Creating layer inception_5b/relu_5x5
I0403 15:01:56.452945 14030 net.cpp:91] Creating Layer inception_5b/relu_5x5
I0403 15:01:56.452963 14030 net.cpp:425] inception_5b/relu_5x5 <- inception_5b/5x5
I0403 15:01:56.452982 14030 net.cpp:386] inception_5b/relu_5x5 -> inception_5b/5x5 (in-place)
I0403 15:01:56.453179 14030 net.cpp:141] Setting up inception_5b/relu_5x5
I0403 15:01:56.453205 14030 net.cpp:148] Top shape: 24 128 7 7 (150528)
I0403 15:01:56.453220 14030 net.cpp:156] Memory required for data: 1335929376
I0403 15:01:56.453235 14030 layer_factory.hpp:77] Creating layer inception_5b/pool
I0403 15:01:56.453254 14030 net.cpp:91] Creating Layer inception_5b/pool
I0403 15:01:56.453271 14030 net.cpp:425] inception_5b/pool <- inception_5a/output_inception_5a/output_0_split_3
I0403 15:01:56.453292 14030 net.cpp:399] inception_5b/pool -> inception_5b/pool
I0403 15:01:56.453364 14030 net.cpp:141] Setting up inception_5b/pool
I0403 15:01:56.453392 14030 net.cpp:148] Top shape: 24 832 7 7 (978432)
I0403 15:01:56.453407 14030 net.cpp:156] Memory required for data: 1339843104
I0403 15:01:56.453420 14030 layer_factory.hpp:77] Creating layer inception_5b/pool_proj
I0403 15:01:56.453443 14030 net.cpp:91] Creating Layer inception_5b/pool_proj
I0403 15:01:56.453460 14030 net.cpp:425] inception_5b/pool_proj <- inception_5b/pool
I0403 15:01:56.453480 14030 net.cpp:399] inception_5b/pool_proj -> inception_5b/pool_proj
I0403 15:01:56.455796 14030 net.cpp:141] Setting up inception_5b/pool_proj
I0403 15:01:56.455826 14030 net.cpp:148] Top shape: 24 128 7 7 (150528)
I0403 15:01:56.455842 14030 net.cpp:156] Memory required for data: 1340445216
I0403 15:01:56.455862 14030 layer_factory.hpp:77] Creating layer inception_5b/relu_pool_proj
I0403 15:01:56.455884 14030 net.cpp:91] Creating Layer inception_5b/relu_pool_proj
I0403 15:01:56.455902 14030 net.cpp:425] inception_5b/relu_pool_proj <- inception_5b/pool_proj
I0403 15:01:56.455921 14030 net.cpp:386] inception_5b/relu_pool_proj -> inception_5b/pool_proj (in-place)
I0403 15:01:56.456226 14030 net.cpp:141] Setting up inception_5b/relu_pool_proj
I0403 15:01:56.456254 14030 net.cpp:148] Top shape: 24 128 7 7 (150528)
I0403 15:01:56.456271 14030 net.cpp:156] Memory required for data: 1341047328
I0403 15:01:56.456287 14030 layer_factory.hpp:77] Creating layer inception_5b/output
I0403 15:01:56.456307 14030 net.cpp:91] Creating Layer inception_5b/output
I0403 15:01:56.456338 14030 net.cpp:425] inception_5b/output <- inception_5b/1x1
I0403 15:01:56.456357 14030 net.cpp:425] inception_5b/output <- inception_5b/3x3
I0403 15:01:56.456377 14030 net.cpp:425] inception_5b/output <- inception_5b/5x5
I0403 15:01:56.456394 14030 net.cpp:425] inception_5b/output <- inception_5b/pool_proj
I0403 15:01:56.456413 14030 net.cpp:399] inception_5b/output -> inception_5b/output
I0403 15:01:56.456467 14030 net.cpp:141] Setting up inception_5b/output
I0403 15:01:56.456493 14030 net.cpp:148] Top shape: 24 1024 7 7 (1204224)
I0403 15:01:56.456509 14030 net.cpp:156] Memory required for data: 1345864224
I0403 15:01:56.456524 14030 layer_factory.hpp:77] Creating layer pool5/7x7_s1
I0403 15:01:56.456552 14030 net.cpp:91] Creating Layer pool5/7x7_s1
I0403 15:01:56.456574 14030 net.cpp:425] pool5/7x7_s1 <- inception_5b/output
I0403 15:01:56.456595 14030 net.cpp:399] pool5/7x7_s1 -> pool5/7x7_s1
I0403 15:01:56.456825 14030 net.cpp:141] Setting up pool5/7x7_s1
I0403 15:01:56.456853 14030 net.cpp:148] Top shape: 24 1024 1 1 (24576)
I0403 15:01:56.456868 14030 net.cpp:156] Memory required for data: 1345962528
I0403 15:01:56.456882 14030 layer_factory.hpp:77] Creating layer pool5/drop_7x7_s1
I0403 15:01:56.456908 14030 net.cpp:91] Creating Layer pool5/drop_7x7_s1
I0403 15:01:56.456924 14030 net.cpp:425] pool5/drop_7x7_s1 <- pool5/7x7_s1
I0403 15:01:56.456943 14030 net.cpp:386] pool5/drop_7x7_s1 -> pool5/7x7_s1 (in-place)
I0403 15:01:56.456995 14030 net.cpp:141] Setting up pool5/drop_7x7_s1
I0403 15:01:56.457020 14030 net.cpp:148] Top shape: 24 1024 1 1 (24576)
I0403 15:01:56.457033 14030 net.cpp:156] Memory required for data: 1346060832
I0403 15:01:56.457048 14030 layer_factory.hpp:77] Creating layer loss3/classifier_plantvillage
I0403 15:01:56.457069 14030 net.cpp:91] Creating Layer loss3/classifier_plantvillage
I0403 15:01:56.457087 14030 net.cpp:425] loss3/classifier_plantvillage <- pool5/7x7_s1
I0403 15:01:56.457105 14030 net.cpp:399] loss3/classifier_plantvillage -> loss3/classifier_plantvillage
I0403 15:01:56.457533 14030 net.cpp:141] Setting up loss3/classifier_plantvillage
I0403 15:01:56.457562 14030 net.cpp:148] Top shape: 24 38 (912)
I0403 15:01:56.457577 14030 net.cpp:156] Memory required for data: 1346064480
I0403 15:01:56.457595 14030 layer_factory.hpp:77] Creating layer loss3/classifier_plantvillage_loss3/classifier_plantvillage_0_split
I0403 15:01:56.457613 14030 net.cpp:91] Creating Layer loss3/classifier_plantvillage_loss3/classifier_plantvillage_0_split
I0403 15:01:56.457629 14030 net.cpp:425] loss3/classifier_plantvillage_loss3/classifier_plantvillage_0_split <- loss3/classifier_plantvillage
I0403 15:01:56.457653 14030 net.cpp:399] loss3/classifier_plantvillage_loss3/classifier_plantvillage_0_split -> loss3/classifier_plantvillage_loss3/classifier_plantvillage_0_split_0
I0403 15:01:56.457674 14030 net.cpp:399] loss3/classifier_plantvillage_loss3/classifier_plantvillage_0_split -> loss3/classifier_plantvillage_loss3/classifier_plantvillage_0_split_1
I0403 15:01:56.457693 14030 net.cpp:399] loss3/classifier_plantvillage_loss3/classifier_plantvillage_0_split -> loss3/classifier_plantvillage_loss3/classifier_plantvillage_0_split_2
I0403 15:01:56.457715 14030 net.cpp:399] loss3/classifier_plantvillage_loss3/classifier_plantvillage_0_split -> loss3/classifier_plantvillage_loss3/classifier_plantvillage_0_split_3
I0403 15:01:56.457814 14030 net.cpp:141] Setting up loss3/classifier_plantvillage_loss3/classifier_plantvillage_0_split
I0403 15:01:56.457839 14030 net.cpp:148] Top shape: 24 38 (912)
I0403 15:01:56.457856 14030 net.cpp:148] Top shape: 24 38 (912)
I0403 15:01:56.457872 14030 net.cpp:148] Top shape: 24 38 (912)
I0403 15:01:56.457887 14030 net.cpp:148] Top shape: 24 38 (912)
I0403 15:01:56.457901 14030 net.cpp:156] Memory required for data: 1346079072
I0403 15:01:56.457916 14030 layer_factory.hpp:77] Creating layer loss1/loss
I0403 15:01:56.457937 14030 net.cpp:91] Creating Layer loss1/loss
I0403 15:01:56.457954 14030 net.cpp:425] loss1/loss <- loss1/classifier_plantvillage_loss1/classifier_plantvillage_0_split_0
I0403 15:01:56.457985 14030 net.cpp:425] loss1/loss <- label_data_1_split_0
…
