…
I0403 15:28:07.508709 15093 net.cpp:313] The NetState phase (1) differed from the phase (0) specified by a rule in layer data
I0403 15:28:07.509924 15093 net.cpp:49] Initializing net from parameters: 
state {
  phase: TEST
}
layer {
  name: "data"
  type: "Data"
  top: "data"
  top: "label"
  include {
    phase: TEST
  }
  transform_param {
    mirror: false
    crop_size: 224
    mean_file: "/home/mohanty/data/final_dataset/lmdb/color-50-50/mean.binaryproto"
  }
  data_param {
    source: "/home/mohanty/data/final_dataset/lmdb/color-50-50/test_db"
    batch_size: 24
    backend: LMDB
  }
}
layer {
  name: "conv1/7x7_s2"
  type: "Convolution"
  bottom: "data"
  top: "conv1/7x7_s2"
  param {
    lr_mult: 1
    decay_mult: 1
  }
  param {
    lr_mult: 2
    decay_mult: 0
  }
  convolution_param {
    num_output: 64
    pad: 3
    kernel_size: 7
    stride: 2
    weight_filler {
      type: "xavier"
      std: 0.1
    }
    bias_filler {
      type: "constant"
      value: 0.2
    }
  }
}
layer {
  name: "conv1/relu_7x7"
  type: "ReLU"
  bottom: "conv1/7x7_s2"
  top: "conv1/7x7_s2"
}
layer {
  name: "pool1/3x3_s2"
  type: "Pooling"
  bottom: "conv1/7x7_s2"
  top: "pool1/3x3_s2"
  pooling_param {
    pool: MAX
    kernel_size: 3
    stride: 2
  }
}
layer {
  name: "pool1/norm1"
  type: "LRN"
  bottom: "pool1/3x3_s2"
  top: "pool1/norm1"
  lrn_param {
    local_size: 5
    alpha: 0.0001
    beta: 0.75
  }
}
layer {
  name: "conv2/3x3_reduce"
  type: "Convolution"
  bottom: "pool1/norm1"
  top: "conv2/3x3_reduce"
  param {
    lr_mult: 1
    decay_mult: 1
  }
  param {
    lr_mult: 2
    decay_mult: 0
  }
  convolution_param {
    num_output: 64
    kernel_size: 1
    weight_filler {
      type: "xavier"
      std: 0.1
    }
    bias_filler {
      type: "constant"
      value: 0.2
    }
  }
}
layer {
  name: "conv2/relu_3x3_reduce"
  type: "ReLU"
  bottom: "conv2/3x3_reduce"
  top: "conv2/3x3_reduce"
}
layer {
  name: "conv2/3x3"
  type: "Convolution"
  bottom: "conv2/3x3_reduce"
  top: "conv2/3x3"
  param {
    lr_mult: 1
    decay_mult: 1
  }
  param {
    lr_mult: 2
    decay_mult: 0
  }
  convolution_param {
    num_output: 192
    pad: 1
    kernel_size: 3
    weight_filler {
      type: "xavier"
      std: 0.03
    }
    bias_filler {
      type: "constant"
      value: 0.2
    }
  }
}
layer {
  name: "conv2/relu_3x3"
  type: "ReLU"
  bottom: "conv2/3x3"
  top: "conv2/3x3"
}
layer {
  name: "conv2/norm2"
  type: "LRN"
  bottom: "conv2/3x3"
  top: "conv2/norm2"
  lrn_param {
    local_size: 5
    alpha: 0.0001
    beta: 0.75
  }
}
layer {
  name: "pool2/3x3_s2"
  type: "Pooling"
  bottom: "conv2/norm2"
  top: "pool2/3x3_s2"
  pooling_param {
    pool: MAX
    kernel_size: 3
    stride: 2
  }
}
layer {
  name: "inception_3a/1x1"
  type: "Convolution"
  bottom: "pool2/3x3_s2"
  top: "inception_3a/1x1"
  param {
    lr_mult: 1
    decay_mult: 1
  }
  param {
    lr_mult: 2
    decay_mult: 0
  }
  convolution_param {
    num_output: 64
    kernel_size: 1
    weight_filler {
      type: "xavier"
      std: 0.03
    }
    bias_filler {
      type: "constant"
      value: 0.2
    }
  }
}
layer {
  name: "inception_3a/relu_1x1"
  type: "ReLU"
  bottom: "inception_3a/1x1"
  top: "inception_3a/1x1"
}
layer {
  name: "inception_3a/3x3_reduce"
  type: "Convolution"
  bottom: "pool2/3x3_s2"
  top: "inception_3a/3x3_reduce"
  param {
    lr_mult: 1
    decay_mult: 1
  }
  param {
    lr_mult: 2
    decay_mult: 0
  }
  convolution_param {
    num_output: 96
    kernel_size: 1
    weight_filler {
      type: "xavier"
      std: 0.09
    }
    bias_filler {
      type: "constant"
      value: 0.2
    }
  }
}
layer {
  name: "inception_3a/relu_3x3_reduce"
  type: "ReLU"
  bottom: "inception_3a/3x3_reduce"
  top: "inception_3a/3x3_reduce"
}
layer {
  name: "inception_3a/3x3"
  type: "Convolution"
  bottom: "inception_3a/3x3_reduce"
  top: "inception_3a/3x3"
  param {
    lr_mult: 1
    decay_mult: 1
  }
  param {
    lr_mult: 2
    decay_mult: 0
  }
  convolution_param {
    num_output: 128
    pad: 1
    kernel_size: 3
    weight_filler {
      type: "xavier"
      std: 0.03
    }
    bias_filler {
      type: "constant"
      value: 0.2
    }
  }
}
layer {
  name: "inception_3a/relu_3x3"
  type: "ReLU"
  bottom: "inception_3a/3x3"
  top: "inception_3a/3x3"
}
layer {
  name: "inception_3a/5x5_reduce"
  type: "Convolution"
  bottom: "pool2/3x3_s2"
  top: "inception_3a/5x5_reduce"
  param {
    lr_mult: 1
    decay_mult: 1
  }
  param {
    lr_mult: 2
    decay_mult: 0
  }
  convolution_param {
    num_output: 16
    kernel_size: 1
    weight_filler {
      type: "xavier"
      std: 0.2
    }
    bias_filler {
      type: "constant"
      value: 0.2
    }
  }
}
layer {
  name: "inception_3a/relu_5x5_reduce"
  type: "ReLU"
  bottom: "inception_3a/5x5_reduce"
  top: "inception_3a/5x5_reduce"
}
layer {
  name: "inception_3a/5x5"
  type: "Convolution"
  bottom: "inception_3a/5x5_reduce"
  top: "inception_3a/5x5"
  param {
    lr_mult: 1
    decay_mult: 1
  }
  param {
    lr_mult: 2
    decay_mult: 0
  }
  convolution_param {
    num_output: 32
    pad: 2
    kernel_size: 5
    weight_filler {
      type: "xavier"
      std: 0.03
    }
    bias_filler {
      type: "constant"
      value: 0.2
    }
  }
}
layer {
  name: "inception_3a/relu_5x5"
  type: "ReLU"
  bottom: "inception_3a/5x5"
  top: "inception_3a/5x5"
}
layer {
  name: "inception_3a/pool"
  type: "Pooling"
  bottom: "pool2/3x3_s2"
  top: "inception_3a/pool"
  pooling_param {
    pool: MAX
    kernel_size: 3
    stride: 1
    pad: 1
  }
}
layer {
  name: "inception_3a/pool_proj"
  type: "Convolution"
  bottom: "inception_3a/pool"
  top: "inception_3a/pool_proj"
  param {
    lr_mult: 1
    decay_mult: 1
  }
  param {
    lr_mult: 2
    decay_mult: 0
  }
  convolution_param {
    num_output: 32
    kernel_size: 1
    weight_filler {
      type: "xavier"
      std: 0.1
    }
    bias_filler {
      type: "constant"
      value: 0.2
    }
  }
}
layer {
  name: "inception_3a/relu_pool_proj"
  type: "ReLU"
  bottom: "inception_3a/pool_proj"
  top: "inception_3a/pool_proj"
}
layer {
  name: "inception_3a/output"
  type: "Concat"
  bottom: "inception_3a/1x1"
  bottom: "inception_3a/3x3"
  bottom: "inception_3a/5x5"
  bottom: "inception_3a/pool_proj"
  top: "inception_3a/output"
}
layer {
  name: "inception_3b/1x1"
  type: "Convolution"
  bottom: "inception_3a/output"
  top: "inception_3b/1x1"
  param {
    lr_mult: 1
    decay_mult: 1
  }
  param {
    lr_mult: 2
    decay_mult: 0
  }
  convolution_param {
    num_output: 128
    kernel_size: 1
    weight_filler {
      type: "xavier"
      std: 0.03
    }
    bias_filler {
      type: "constant"
      value: 0.2
    }
  }
}
layer {
  name: "inception_3b/relu_1x1"
  type: "ReLU"
  bottom: "inception_3b/1x1"
  top: "inception_3b/1x1"
}
layer {
  name: "inception_3b/3x3_reduce"
  type: "Convolution"
  bottom: "inception_3a/output"
  top: "inception_3b/3x3_reduce"
  param {
    lr_mult: 1
    decay_mult: 1
  }
  param {
    lr_mult: 2
    decay_mult: 0
  }
  convolution_param {
    num_output: 128
    kernel_size: 1
    weight_filler {
      type: "xavier"
      std: 0.09
    }
    bias_filler {
      type: "constant"
      value: 0.2
    }
  }
}
layer {
  name: "inception_3b/relu_3x3_reduce"
  type: "ReLU"
  bottom: "inception_3b/3x3_reduce"
  top: "inception_3b/3x3_reduce"
}
layer {
  name: "inception_3b/3x3"
  type: "Convolution"
  bottom: "inception_3b/3x3_reduce"
  top: "inception_3b/3x3"
  param {
    lr_mult: 1
    decay_mult: 1
  }
  param {
    lr_mult: 2
    decay_mult: 0
  }
  convolution_param {
    num_output: 192
    pad: 1
    kernel_size: 3
    weight_filler {
      type: "xavier"
      std: 0.03
    }
    bias_filler {
      type: "constant"
      value: 0.2
    }
  }
}
layer {
  name: "inception_3b/relu_3x3"
  type: "ReLU"
  bottom: "inception_3b/3x3"
  top: "inception_3b/3x3"
}
layer {
  name: "inception_3b/5x5_reduce"
  type: "Convolution"
  bottom: "inception_3a/output"
  top: "inception_3b/5x5_reduce"
  param {
    lr_mult: 1
    decay_mult: 1
  }
  param {
    lr_mult: 2
    decay_mult: 0
  }
  convolution_param {
    num_output: 32
    kernel_size: 1
    weight_filler {
      type: "xavier"
      std: 0.2
    }
    bias_filler {
      type: "constant"
      value: 0.2
    }
  }
}
layer {
  name: "inception_3b/relu_5x5_reduce"
  type: "ReLU"
  bottom: "inception_3b/5x5_reduce"
  top: "inception_3b/5x5_reduce"
}
layer {
  name: "inception_3b/5x5"
  type: "Convolution"
  bottom: "inception_3b/5x5_reduce"
  top: "inception_3b/5x5"
  param {
    lr_mult: 1
    decay_mult: 1
  }
  param {
    lr_mult: 2
    decay_mult: 0
  }
  convolution_param {
    num_output: 96
    pad: 2
    kernel_size: 5
    weight_filler {
      type: "xavier"
      std: 0.03
    }
    bias_filler {
      type: "constant"
      value: 0.2
    }
  }
}
layer {
  name: "inception_3b/relu_5x5"
  type: "ReLU"
  bottom: "inception_3b/5x5"
  top: "inception_3b/5x5"
}
layer {
  name: "inception_3b/pool"
  type: "Pooling"
  bottom: "inception_3a/output"
  top: "inception_3b/pool"
  pooling_param {
    pool: MAX
    kernel_size: 3
    stride: 1
    pad: 1
  }
}
layer {
  name: "inception_3b/pool_proj"
  type: "Convolution"
  bottom: "inception_3b/pool"
  top: "inception_3b/pool_proj"
  param {
    lr_mult: 1
    decay_mult: 1
  }
  param {
    lr_mult: 2
    decay_mult: 0
  }
  convolution_param {
    num_output: 64
    kernel_size: 1
    weight_filler {
      type: "xavier"
      std: 0.1
    }
    bias_filler {
      type: "constant"
      value: 0.2
    }
  }
}
layer {
  name: "inception_3b/relu_pool_proj"
  type: "ReLU"
  bottom: "inception_3b/pool_proj"
  top: "inception_3b/pool_proj"
}
layer {
  name: "inception_3b/output"
  type: "Concat"
  bottom: "inception_3b/1x1"
  bottom: "inception_3b/3x3"
  bottom: "inception_3b/5x5"
  bottom: "inception_3b/pool_proj"
  top: "inception_3b/output"
}
layer {
  name: "pool3/3x3_s2"
  type: "Pooling"
  bottom: "inception_3b/output"
  top: "pool3/3x3_s2"
  pooling_param {
    pool: MAX
    kernel_size: 3
    stride: 2
  }
}
layer {
  name: "inception_4a/1x1"
  type: "Convolution"
  bottom: "pool3/3x3_s2"
  top: "inception_4a/1x1"
  param {
    lr_mult: 1
    decay_mult: 1
  }
  param {
    lr_mult: 2
    decay_mult: 0
  }
  convolution_param {
    num_output: 192
    kernel_size: 1
    weight_filler {
      type: "xavier"
      std: 0.03
    }
    bias_filler {
      type: "constant"
      value: 0.2
    }
  }
}
layer {
  name: "inception_4a/relu_1x1"
  type: "ReLU"
  bottom: "inception_4a/1x1"
  top: "inception_4a/1x1"
}
layer {
  name: "inception_4a/3x3_reduce"
  type: "Convolution"
  bottom: "pool3/3x3_s2"
  top: "inception_4a/3x3_reduce"
  param {
    lr_mult: 1
    decay_mult: 1
  }
  param {
    lr_mult: 2
    decay_mult: 0
  }
  convolution_param {
    num_output: 96
    kernel_size: 1
    weight_filler {
      type: "xavier"
      std: 0.09
    }
    bias_filler {
      type: "constant"
      value: 0.2
    }
  }
}
layer {
  name: "inception_4a/relu_3x3_reduce"
  type: "ReLU"
  bottom: "inception_4a/3x3_reduce"
  top: "inception_4a/3x3_reduce"
}
layer {
  name: "inception_4a/3x3"
  type: "Convolution"
  bottom: "inception_4a/3x3_reduce"
  top: "inception_4a/3x3"
  param {
    lr_mult: 1
    decay_mult: 1
  }
  param {
    lr_mult: 2
    decay_mult: 0
  }
  convolution_param {
    num_output: 208
    pad: 1
    kernel_size: 3
    weight_filler {
      type: "xavier"
      std: 0.03
    }
    bias_filler {
      type: "constant"
      value: 0.2
    }
  }
}
layer {
  name: "inception_4a/relu_3x3"
  type: "ReLU"
  bottom: "inception_4a/3x3"
  top: "inception_4a/3x3"
}
layer {
  name: "inception_4a/5x5_reduce"
  type: "Convolution"
  bottom: "pool3/3x3_s2"
  top: "inception_4a/5x5_reduce"
  param {
    lr_mult: 1
    decay_mult: 1
  }
  param {
    lr_mult: 2
    decay_mult: 0
  }
  convolution_param {
    num_output: 16
    kernel_size: 1
    weight_filler {
      type: "xavier"
      std: 0.2
    }
    bias_filler {
      type: "constant"
      value: 0.2
    }
  }
}
layer {
  name: "inception_4a/relu_5x5_reduce"
  type: "ReLU"
  bottom: "inception_4a/5x5_reduce"
  top: "inception_4a/5x5_reduce"
}
layer {
  name: "inception_4a/5x5"
  type: "Convolution"
  bottom: "inception_4a/5x5_reduce"
  top: "inception_4a/5x5"
  param {
    lr_mult: 1
    decay_mult: 1
  }
  param {
    lr_mult: 2
    decay_mult: 0
  }
  convolution_param {
    num_output: 48
    pad: 2
    kernel_size: 5
    weight_filler {
      type: "xavier"
      std: 0.03
    }
    bias_filler {
      type: "constant"
      value: 0.2
    }
  }
}
layer {
  name: "inception_4a/relu_5x5"
  type: "ReLU"
  bottom: "inception_4a/5x5"
  top: "inception_4a/5x5"
}
layer {
  name: "inception_4a/pool"
  type: "Pooling"
  bottom: "pool3/3x3_s2"
  top: "inception_4a/pool"
  pooling_param {
    pool: MAX
    kernel_size: 3
    stride: 1
    pad: 1
  }
}
layer {
  name: "inception_4a/pool_proj"
  type: "Convolution"
  bottom: "inception_4a/pool"
  top: "inception_4a/pool_proj"
  param {
    lr_mult: 1
    decay_mult: 1
  }
  param {
    lr_mult: 2
    decay_mult: 0
  }
  convolution_param {
    num_output: 64
    kernel_size: 1
    weight_filler {
      type: "xavier"
      std: 0.1
    }
    bias_filler {
      type: "constant"
      value: 0.2
    }
  }
}
layer {
  name: "inception_4a/relu_pool_proj"
  type: "ReLU"
  bottom: "inception_4a/pool_proj"
  top: "inception_4a/pool_proj"
}
layer {
  name: "inception_4a/output"
  type: "Concat"
  bottom: "inception_4a/1x1"
  bottom: "inception_4a/3x3"
  bottom: "inception_4a/5x5"
  bottom: "inception_4a/pool_proj"
  top: "inception_4a/output"
}
layer {
  name: "loss1/ave_pool"
  type: "Pooling"
  bottom: "inception_4a/output"
  top: "loss1/ave_pool"
  pooling_param {
    pool: AVE
    kernel_size: 5
    stride: 3
  }
}
layer {
  name: "loss1/conv"
  type: "Convolution"
  bottom: "loss1/ave_pool"
  top: "loss1/conv"
  param {
    lr_mult: 1
    decay_mult: 1
  }
  param {
    lr_mult: 2
    decay_mult: 0
  }
  convolution_param {
    num_output: 128
    kernel_size: 1
    weight_filler {
      type: "xavier"
      std: 0.08
    }
    bias_filler {
      type: "constant"
      value: 0.2
    }
  }
}
layer {
  name: "loss1/relu_conv"
  type: "ReLU"
  bottom: "loss1/conv"
  top: "loss1/conv"
}
layer {
  name: "loss1/fc"
  type: "InnerProduct"
  bottom: "loss1/conv"
  top: "loss1/fc"
  param {
    lr_mult: 1
    decay_mult: 1
  }
  param {
    lr_mult: 2
    decay_mult: 0
  }
  inner_product_param {
    num_output: 1024
    weight_filler {
      type: "xavier"
      std: 0.02
    }
    bias_filler {
      type: "constant"
      value: 0.2
    }
  }
}
layer {
  name: "loss1/relu_fc"
  type: "ReLU"
  bottom: "loss1/fc"
  top: "loss1/fc"
}
layer {
  name: "loss1/drop_fc"
  type: "Dropout"
  bottom: "loss1/fc"
  top: "loss1/fc"
  dropout_param {
    dropout_ratio: 0.7
  }
}
layer {
  name: "loss1/classifier_plantvillage"
  type: "InnerProduct"
  bottom: "loss1/fc"
  top: "loss1/classifier_plantvillage"
  param {
    lr_mult: 1
    decay_mult: 1
  }
  param {
    lr_mult: 2
    decay_mult: 0
  }
  inner_product_param {
    num_output: 38
    weight_filler {
      type: "xavier"
      std: 0.0009765625
    }
    bias_filler {
      type: "constant"
      value: 0
    }
  }
}
layer {
  name: "inception_4b/1x1"
  type: "Convolution"
  bottom: "inception_4a/output"
  top: "inception_4b/1x1"
  param {
    lr_mult: 1
    decay_mult: 1
  }
  param {
    lr_mult: 2
    decay_mult: 0
  }
  convolution_param {
    num_output: 160
    kernel_size: 1
    weight_filler {
      type: "xavier"
      std: 0.03
    }
    bias_filler {
      type: "constant"
      value: 0.2
    }
  }
}
layer {
  name: "inception_4b/relu_1x1"
  type: "ReLU"
  bottom: "inception_4b/1x1"
  top: "inception_4b/1x1"
}
layer {
  name: "inception_4b/3x3_reduce"
  type: "Convolution"
  bottom: "inception_4a/output"
  top: "inception_4b/3x3_reduce"
  param {
    lr_mult: 1
    decay_mult: 1
  }
  param {
    lr_mult: 2
    decay_mult: 0
  }
  convolution_param {
    num_output: 112
    kernel_size: 1
    weight_filler {
      type: "xavier"
      std: 0.09
    }
    bias_filler {
      type: "constant"
      value: 0.2
    }
  }
}
layer {
  name: "inception_4b/relu_3x3_reduce"
  type: "ReLU"
  bottom: "inception_4b/3x3_reduce"
  top: "inception_4b/3x3_reduce"
}
layer {
  name: "inception_4b/3x3"
  type: "Convolution"
  bottom: "inception_4b/3x3_reduce"
  top: "inception_4b/3x3"
  param {
    lr_mult: 1
    decay_mult: 1
  }
  param {
    lr_mult: 2
    decay_mult: 0
  }
  convolution_param {
    num_output: 224
    pad: 1
    kernel_size: 3
    weight_filler {
      type: "xavier"
      std: 0.03
    }
    bias_filler {
      type: "constant"
      value: 0.2
    }
  }
}
layer {
  name: "inception_4b/relu_3x3"
  type: "ReLU"
  bottom: "inception_4b/3x3"
  top: "inception_4b/3x3"
}
layer {
  name: "inception_4b/5x5_reduce"
  type: "Convolution"
  bottom: "inception_4a/output"
  top: "inception_4b/5x5_reduce"
  param {
    lr_mult: 1
    decay_mult: 1
  }
  param {
    lr_mult: 2
    decay_mult: 0
  }
  convolution_param {
    num_output: 24
    kernel_size: 1
    weight_filler {
      type: "xavier"
      std: 0.2
    }
    bias_filler {
      type: "constant"
      value: 0.2
    }
  }
}
layer {
  name: "inception_4b/relu_5x5_reduce"
  type: "ReLU"
  bottom: "inception_4b/5x5_reduce"
  top: "inception_4b/5x5_reduce"
}
layer {
  name: "inception_4b/5x5"
  type: "Convolution"
  bottom: "inception_4b/5x5_reduce"
  top: "inception_4b/5x5"
  param {
    lr_mult: 1
    decay_mult: 1
  }
  param {
    lr_mult: 2
    decay_mult: 0
  }
  convolution_param {
    num_output: 64
    pad: 2
    kernel_size: 5
    weight_filler {
      type: "xavier"
      std: 0.03
    }
    bias_filler {
      type: "constant"
      value: 0.2
    }
  }
}
layer {
  name: "inception_4b/relu_5x5"
  type: "ReLU"
  bottom: "inception_4b/5x5"
  top: "inception_4b/5x5"
}
layer {
  name: "inception_4b/pool"
  type: "Pooling"
  bottom: "inception_4a/output"
  top: "inception_4b/pool"
  pooling_param {
    pool: MAX
    kernel_size: 3
    stride: 1
    pad: 1
  }
}
layer {
  name: "inception_4b/pool_proj"
  type: "Convolution"
  bottom: "inception_4b/pool"
  top: "inception_4b/pool_proj"
  param {
    lr_mult: 1
    decay_mult: 1
  }
  param {
    lr_mult: 2
    decay_mult: 0
  }
  convolution_param {
    num_output: 64
    kernel_size: 1
    weight_filler {
      type: "xavier"
      std: 0.1
    }
    bias_filler {
      type: "constant"
      value: 0.2
    }
  }
}
layer {
  name: "inception_4b/relu_pool_proj"
  type: "ReLU"
  bottom: "inception_4b/pool_proj"
  top: "inception_4b/pool_proj"
}
layer {
  name: "inception_4b/output"
  type: "Concat"
  bottom: "inception_4b/1x1"
  bottom: "inception_4b/3x3"
  bottom: "inception_4b/5x5"
  bottom: "inception_4b/pool_proj"
  top: "inception_4b/output"
}
layer {
  name: "inception_4c/1x1"
  type: "Convolution"
  bottom: "inception_4b/output"
  top: "inception_4c/1x1"
  param {
    lr_mult: 1
    decay_mult: 1
  }
  param {
    lr_mult: 2
    decay_mult: 0
  }
  convolution_param {
    num_output: 128
    kernel_size: 1
    weight_filler {
      type: "xavier"
      std: 0.03
    }
    bias_filler {
      type: "constant"
      value: 0.2
    }
  }
}
layer {
  name: "inception_4c/relu_1x1"
  type: "ReLU"
  bottom: "inception_4c/1x1"
  top: "inception_4c/1x1"
}
layer {
  name: "inception_4c/3x3_reduce"
  type: "Convolution"
  bottom: "inception_4b/output"
  top: "inception_4c/3x3_reduce"
  param {
    lr_mult: 1
    decay_mult: 1
  }
  param {
    lr_mult: 2
    decay_mult: 0
  }
  convolution_param {
    num_output: 128
    kernel_size: 1
    weight_filler {
      type: "xavier"
      std: 0.09
    }
    bias_filler {
      type: "constant"
      value: 0.2
    }
  }
}
layer {
  name: "inception_4c/relu_3x3_reduce"
  type: "ReLU"
  bottom: "inception_4c/3x3_reduce"
  top: "inception_4c/3x3_reduce"
}
layer {
  name: "inception_4c/3x3"
  type: "Convolution"
  bottom: "inception_4c/3x3_reduce"
  top: "inception_4c/3x3"
  param {
    lr_mult: 1
    decay_mult: 1
  }
  param {
    lr_mult: 2
    decay_mult: 0
  }
  convolution_param {
    num_output: 256
    pad: 1
    kernel_size: 3
    weight_filler {
      type: "xavier"
      std: 0.03
    }
    bias_filler {
      type: "constant"
      value: 0.2
    }
  }
}
layer {
  name: "inception_4c/relu_3x3"
  type: "ReLU"
  bottom: "inception_4c/3x3"
  top: "inception_4c/3x3"
}
layer {
  name: "inception_4c/5x5_reduce"
  type: "Convolution"
  bottom: "inception_4b/output"
  top: "inception_4c/5x5_reduce"
  param {
    lr_mult: 1
    decay_mult: 1
  }
  param {
    lr_mult: 2
    decay_mult: 0
  }
  convolution_param {
    num_output: 24
    kernel_size: 1
    weight_filler {
      type: "xavier"
      std: 0.2
    }
    bias_filler {
      type: "constant"
      value: 0.2
    }
  }
}
layer {
  name: "inception_4c/relu_5x5_reduce"
  type: "ReLU"
  bottom: "inception_4c/5x5_reduce"
  top: "inception_4c/5x5_reduce"
}
layer {
  name: "inception_4c/5x5"
  type: "Convolution"
  bottom: "inception_4c/5x5_reduce"
  top: "inception_4c/5x5"
  param {
    lr_mult: 1
    decay_mult: 1
  }
  param {
    lr_mult: 2
    decay_mult: 0
  }
  convolution_param {
    num_output: 64
    pad: 2
    kernel_size: 5
    weight_filler {
      type: "xavier"
      std: 0.03
    }
    bias_filler {
      type: "constant"
      value: 0.2
    }
  }
}
layer {
  name: "inception_4c/relu_5x5"
  type: "ReLU"
  bottom: "inception_4c/5x5"
  top: "inception_4c/5x5"
}
layer {
  name: "inception_4c/pool"
  type: "Pooling"
  bottom: "inception_4b/output"
  top: "inception_4c/pool"
  pooling_param {
    pool: MAX
    kernel_size: 3
    stride: 1
    pad: 1
  }
}
layer {
  name: "inception_4c/pool_proj"
  type: "Convolution"
  bottom: "inception_4c/pool"
  top: "inception_4c/pool_proj"
  param {
    lr_mult: 1
    decay_mult: 1
  }
  param {
    lr_mult: 2
    decay_mult: 0
  }
  convolution_param {
    num_output: 64
    kernel_size: 1
    weight_filler {
      type: "xavier"
      std: 0.1
    }
    bias_filler {
      type: "constant"
      value: 0.2
    }
  }
}
layer {
  name: "inception_4c/relu_pool_proj"
  type: "ReLU"
  bottom: "inception_4c/pool_proj"
  top: "inception_4c/pool_proj"
}
layer {
  name: "inception_4c/output"
  type: "Concat"
  bottom: "inception_4c/1x1"
  bottom: "inception_4c/3x3"
  bottom: "inception_4c/5x5"
  bottom: "inception_4c/pool_proj"
  top: "inception_4c/output"
}
layer {
  name: "inception_4d/1x1"
  type: "Convolution"
  bottom: "inception_4c/output"
  top: "inception_4d/1x1"
  param {
    lr_mult: 1
    decay_mult: 1
  }
  param {
    lr_mult: 2
    decay_mult: 0
  }
  convolution_param {
    num_output: 112
    kernel_size: 1
    weight_filler {
      type: "xavier"
      std: 0.03
    }
    bias_filler {
      type: "constant"
      value: 0.2
    }
  }
}
layer {
  name: "inception_4d/relu_1x1"
  type: "ReLU"
  bottom: "inception_4d/1x1"
  top: "inception_4d/1x1"
}
layer {
  name: "inception_4d/3x3_reduce"
  type: "Convolution"
  bottom: "inception_4c/output"
  top: "inception_4d/3x3_reduce"
  param {
    lr_mult: 1
    decay_mult: 1
  }
  param {
    lr_mult: 2
    decay_mult: 0
  }
  convolution_param {
    num_output: 144
    kernel_size: 1
    weight_filler {
      type: "xavier"
      std: 0.09
    }
    bias_filler {
      type: "constant"
      value: 0.2
    }
  }
}
layer {
  name: "inception_4d/relu_3x3_reduce"
  type: "ReLU"
  bottom: "inception_4d/3x3_reduce"
  top: "inception_4d/3x3_reduce"
}
layer {
  name: "inception_4d/3x3"
  type: "Convolution"
  bottom: "inception_4d/3x3_reduce"
  top: "inception_4d/3x3"
  param {
    lr_mult: 1
    decay_mult: 1
  }
  param {
    lr_mult: 2
    decay_mult: 0
  }
  convolution_param {
    num_output: 288
    pad: 1
    kernel_size: 3
    weight_filler {
      type: "xavier"
      std: 0.03
    }
    bias_filler {
      type: "constant"
      value: 0.2
    }
  }
}
layer {
  name: "inception_4d/relu_3x3"
  type: "ReLU"
  bottom: "inception_4d/3x3"
  top: "inception_4d/3x3"
}
layer {
  name: "inception_4d/5x5_reduce"
  type: "Convolution"
  bottom: "inception_4c/output"
  top: "inception_4d/5x5_reduce"
  param {
    lr_mult: 1
    decay_mult: 1
  }
  param {
    lr_mult: 2
    decay_mult: 0
  }
  convolution_param {
    num_output: 32
    kernel_size: 1
    weight_filler {
      type: "xavier"
      std: 0.2
    }
    bias_filler {
      type: "constant"
      value: 0.2
    }
  }
}
layer {
  name: "inception_4d/relu_5x5_reduce"
  type: "ReLU"
  bottom: "inception_4d/5x5_reduce"
  top: "inception_4d/5x5_reduce"
}
layer {
  name: "inception_4d/5x5"
  type: "Convolution"
  bottom: "inception_4d/5x5_reduce"
  top: "inception_4d/5x5"
  param {
    lr_mult: 1
    decay_mult: 1
  }
  param {
    lr_mult: 2
    decay_mult: 0
  }
  convolution_param {
    num_output: 64
    pad: 2
    kernel_size: 5
    weight_filler {
      type: "xavier"
      std: 0.03
    }
    bias_filler {
      type: "constant"
      value: 0.2
    }
  }
}
layer {
  name: "inception_4d/relu_5x5"
  type: "ReLU"
  bottom: "inception_4d/5x5"
  top: "inception_4d/5x5"
}
layer {
  name: "inception_4d/pool"
  type: "Pooling"
  bottom: "inception_4c/output"
  top: "inception_4d/pool"
  pooling_param {
    pool: MAX
    kernel_size: 3
    stride: 1
    pad: 1
  }
}
layer {
  name: "inception_4d/pool_proj"
  type: "Convolution"
  bottom: "inception_4d/pool"
  top: "inception_4d/pool_proj"
  param {
    lr_mult: 1
    decay_mult: 1
  }
  param {
    lr_mult: 2
    decay_mult: 0
  }
  convolution_param {
    num_output: 64
    kernel_size: 1
    weight_filler {
      type: "xavier"
      std: 0.1
    }
    bias_filler {
      type: "constant"
      value: 0.2
    }
  }
}
layer {
  name: "inception_4d/relu_pool_proj"
  type: "ReLU"
  bottom: "inception_4d/pool_proj"
  top: "inception_4d/pool_proj"
}
layer {
  name: "inception_4d/output"
  type: "Concat"
  bottom: "inception_4d/1x1"
  bottom: "inception_4d/3x3"
  bottom: "inception_4d/5x5"
  bottom: "inception_4d/pool_proj"
  top: "inception_4d/output"
}
layer {
  name: "loss2/ave_pool"
  type: "Pooling"
  bottom: "inception_4d/output"
  top: "loss2/ave_pool"
  pooling_param {
    pool: AVE
    kernel_size: 5
    stride: 3
  }
}
layer {
  name: "loss2/conv"
  type: "Convolution"
  bottom: "loss2/ave_pool"
  top: "loss2/conv"
  param {
    lr_mult: 1
    decay_mult: 1
  }
  param {
    lr_mult: 2
    decay_mult: 0
  }
  convolution_param {
    num_output: 128
    kernel_size: 1
    weight_filler {
      type: "xavier"
      std: 0.08
    }
    bias_filler {
      type: "constant"
      value: 0.2
    }
  }
}
layer {
  name: "loss2/relu_conv"
  type: "ReLU"
  bottom: "loss2/conv"
  top: "loss2/conv"
}
layer {
  name: "loss2/fc"
  type: "InnerProduct"
  bottom: "loss2/conv"
  top: "loss2/fc"
  param {
    lr_mult: 1
    decay_mult: 1
  }
  param {
    lr_mult: 2
    decay_mult: 0
  }
  inner_product_param {
    num_output: 1024
    weight_filler {
      type: "xavier"
      std: 0.02
    }
    bias_filler {
      type: "constant"
      value: 0.2
    }
  }
}
layer {
  name: "loss2/relu_fc"
  type: "ReLU"
  bottom: "loss2/fc"
  top: "loss2/fc"
}
layer {
  name: "loss2/drop_fc"
  type: "Dropout"
  bottom: "loss2/fc"
  top: "loss2/fc"
  dropout_param {
    dropout_ratio: 0.7
  }
}
layer {
  name: "loss2/classifier_plantvillage"
  type: "InnerProduct"
  bottom: "loss2/fc"
  top: "loss2/classifier_plantvillage"
  param {
    lr_mult: 1
    decay_mult: 1
  }
  param {
    lr_mult: 2
    decay_mult: 0
  }
  inner_product_param {
    num_output: 38
    weight_filler {
      type: "xavier"
      std: 0.0009765625
    }
    bias_filler {
      type: "constant"
      value: 0
    }
  }
}
layer {
  name: "inception_4e/1x1"
  type: "Convolution"
  bottom: "inception_4d/output"
  top: "inception_4e/1x1"
  param {
    lr_mult: 1
    decay_mult: 1
  }
  param {
    lr_mult: 2
    decay_mult: 0
  }
  convolution_param {
    num_output: 256
    kernel_size: 1
    weight_filler {
      type: "xavier"
      std: 0.03
    }
    bias_filler {
      type: "constant"
      value: 0.2
    }
  }
}
layer {
  name: "inception_4e/relu_1x1"
  type: "ReLU"
  bottom: "inception_4e/1x1"
  top: "inception_4e/1x1"
}
layer {
  name: "inception_4e/3x3_reduce"
  type: "Convolution"
  bottom: "inception_4d/output"
  top: "inception_4e/3x3_reduce"
  param {
    lr_mult: 1
    decay_mult: 1
  }
  param {
    lr_mult: 2
    decay_mult: 0
  }
  convolution_param {
    num_output: 160
    kernel_size: 1
    weight_filler {
      type: "xavier"
      std: 0.09
    }
    bias_filler {
      type: "constant"
      value: 0.2
    }
  }
}
layer {
  name: "inception_4e/relu_3x3_reduce"
  type: "ReLU"
  bottom: "inception_4e/3x3_reduce"
  top: "inception_4e/3x3_reduce"
}
layer {
  name: "inception_4e/3x3"
  type: "Convolution"
  bottom: "inception_4e/3x3_reduce"
  top: "inception_4e/3x3"
  param {
    lr_mult: 1
    decay_mult: 1
  }
  param {
    lr_mult: 2
    decay_mult: 0
  }
  convolution_param {
    num_output: 320
    pad: 1
    kernel_size: 3
    weight_filler {
      type: "xavier"
      std: 0.03
    }
    bias_filler {
      type: "constant"
      value: 0.2
    }
  }
}
layer {
  name: "inception_4e/relu_3x3"
  type: "ReLU"
  bottom: "inception_4e/3x3"
  top: "inception_4e/3x3"
}
layer {
  name: "inception_4e/5x5_reduce"
  type: "Convolution"
  bottom: "inception_4d/output"
  top: "inception_4e/5x5_reduce"
  param {
    lr_mult: 1
    decay_mult: 1
  }
  param {
    lr_mult: 2
    decay_mult: 0
  }
  convolution_param {
    num_output: 32
    kernel_size: 1
    weight_filler {
      type: "xavier"
      std: 0.2
    }
    bias_filler {
      type: "constant"
      value: 0.2
    }
  }
}
layer {
  name: "inception_4e/relu_5x5_reduce"
  type: "ReLU"
  bottom: "inception_4e/5x5_reduce"
  top: "inception_4e/5x5_reduce"
}
layer {
  name: "inception_4e/5x5"
  type: "Convolution"
  bottom: "inception_4e/5x5_reduce"
  top: "inception_4e/5x5"
  p
I0403 15:28:07.511178 15093 layer_factory.hpp:77] Creating layer data
I0403 15:28:07.511801 15093 net.cpp:91] Creating Layer data
I0403 15:28:07.511836 15093 net.cpp:399] data -> data
I0403 15:28:07.511888 15093 net.cpp:399] data -> label
I0403 15:28:07.511927 15093 data_transformer.cpp:25] Loading mean file from: /home/mohanty/data/final_dataset/lmdb/color-50-50/mean.binaryproto
I0403 15:28:07.514808 15096 db_lmdb.cpp:38] Opened lmdb /home/mohanty/data/final_dataset/lmdb/color-50-50/test_db
I0403 15:28:07.525764 15093 data_layer.cpp:41] output data size: 24,3,224,224
I0403 15:28:07.554293 15093 net.cpp:141] Setting up data
I0403 15:28:07.554380 15093 net.cpp:148] Top shape: 24 3 224 224 (3612672)
I0403 15:28:07.554405 15093 net.cpp:148] Top shape: 24 (24)
I0403 15:28:07.554421 15093 net.cpp:156] Memory required for data: 14450784
I0403 15:28:07.554450 15093 layer_factory.hpp:77] Creating layer label_data_1_split
I0403 15:28:07.554477 15093 net.cpp:91] Creating Layer label_data_1_split
I0403 15:28:07.554497 15093 net.cpp:425] label_data_1_split <- label
I0403 15:28:07.554543 15093 net.cpp:399] label_data_1_split -> label_data_1_split_0
I0403 15:28:07.554574 15093 net.cpp:399] label_data_1_split -> label_data_1_split_1
I0403 15:28:07.554596 15093 net.cpp:399] label_data_1_split -> label_data_1_split_2
I0403 15:28:07.554618 15093 net.cpp:399] label_data_1_split -> label_data_1_split_3
I0403 15:28:07.554639 15093 net.cpp:399] label_data_1_split -> label_data_1_split_4
I0403 15:28:07.554661 15093 net.cpp:399] label_data_1_split -> label_data_1_split_5
I0403 15:28:07.554680 15093 net.cpp:399] label_data_1_split -> label_data_1_split_6
I0403 15:28:07.554702 15093 net.cpp:399] label_data_1_split -> label_data_1_split_7
I0403 15:28:07.554723 15093 net.cpp:399] label_data_1_split -> label_data_1_split_8
I0403 15:28:07.554743 15093 net.cpp:399] label_data_1_split -> label_data_1_split_9
I0403 15:28:07.554872 15093 net.cpp:141] Setting up label_data_1_split
I0403 15:28:07.554896 15093 net.cpp:148] Top shape: 24 (24)
I0403 15:28:07.554915 15093 net.cpp:148] Top shape: 24 (24)
I0403 15:28:07.554932 15093 net.cpp:148] Top shape: 24 (24)
I0403 15:28:07.554949 15093 net.cpp:148] Top shape: 24 (24)
I0403 15:28:07.554965 15093 net.cpp:148] Top shape: 24 (24)
I0403 15:28:07.554981 15093 net.cpp:148] Top shape: 24 (24)
I0403 15:28:07.554997 15093 net.cpp:148] Top shape: 24 (24)
I0403 15:28:07.555013 15093 net.cpp:148] Top shape: 24 (24)
I0403 15:28:07.555029 15093 net.cpp:148] Top shape: 24 (24)
I0403 15:28:07.555047 15093 net.cpp:148] Top shape: 24 (24)
I0403 15:28:07.555096 15093 net.cpp:156] Memory required for data: 14451744
I0403 15:28:07.555114 15093 layer_factory.hpp:77] Creating layer conv1/7x7_s2
I0403 15:28:07.555145 15093 net.cpp:91] Creating Layer conv1/7x7_s2
I0403 15:28:07.555166 15093 net.cpp:425] conv1/7x7_s2 <- data
I0403 15:28:07.555186 15093 net.cpp:399] conv1/7x7_s2 -> conv1/7x7_s2
I0403 15:28:07.700327 15093 net.cpp:141] Setting up conv1/7x7_s2
I0403 15:28:07.700402 15093 net.cpp:148] Top shape: 24 64 112 112 (19267584)
I0403 15:28:07.700418 15093 net.cpp:156] Memory required for data: 91522080
I0403 15:28:07.700448 15093 layer_factory.hpp:77] Creating layer conv1/relu_7x7
I0403 15:28:07.700475 15093 net.cpp:91] Creating Layer conv1/relu_7x7
I0403 15:28:07.700494 15093 net.cpp:425] conv1/relu_7x7 <- conv1/7x7_s2
I0403 15:28:07.700516 15093 net.cpp:386] conv1/relu_7x7 -> conv1/7x7_s2 (in-place)
I0403 15:28:07.700775 15093 net.cpp:141] Setting up conv1/relu_7x7
I0403 15:28:07.700804 15093 net.cpp:148] Top shape: 24 64 112 112 (19267584)
I0403 15:28:07.700822 15093 net.cpp:156] Memory required for data: 168592416
I0403 15:28:07.700837 15093 layer_factory.hpp:77] Creating layer pool1/3x3_s2
I0403 15:28:07.700862 15093 net.cpp:91] Creating Layer pool1/3x3_s2
I0403 15:28:07.700882 15093 net.cpp:425] pool1/3x3_s2 <- conv1/7x7_s2
I0403 15:28:07.700903 15093 net.cpp:399] pool1/3x3_s2 -> pool1/3x3_s2
I0403 15:28:07.700978 15093 net.cpp:141] Setting up pool1/3x3_s2
I0403 15:28:07.701001 15093 net.cpp:148] Top shape: 24 64 56 56 (4816896)
I0403 15:28:07.701016 15093 net.cpp:156] Memory required for data: 187860000
I0403 15:28:07.701035 15093 layer_factory.hpp:77] Creating layer pool1/norm1
I0403 15:28:07.701059 15093 net.cpp:91] Creating Layer pool1/norm1
I0403 15:28:07.701079 15093 net.cpp:425] pool1/norm1 <- pool1/3x3_s2
I0403 15:28:07.701098 15093 net.cpp:399] pool1/norm1 -> pool1/norm1
I0403 15:28:07.701401 15093 net.cpp:141] Setting up pool1/norm1
I0403 15:28:07.701428 15093 net.cpp:148] Top shape: 24 64 56 56 (4816896)
I0403 15:28:07.701443 15093 net.cpp:156] Memory required for data: 207127584
I0403 15:28:07.701458 15093 layer_factory.hpp:77] Creating layer conv2/3x3_reduce
I0403 15:28:07.701483 15093 net.cpp:91] Creating Layer conv2/3x3_reduce
I0403 15:28:07.701503 15093 net.cpp:425] conv2/3x3_reduce <- pool1/norm1
I0403 15:28:07.701529 15093 net.cpp:399] conv2/3x3_reduce -> conv2/3x3_reduce
I0403 15:28:07.702956 15093 net.cpp:141] Setting up conv2/3x3_reduce
I0403 15:28:07.702986 15093 net.cpp:148] Top shape: 24 64 56 56 (4816896)
I0403 15:28:07.703004 15093 net.cpp:156] Memory required for data: 226395168
I0403 15:28:07.703028 15093 layer_factory.hpp:77] Creating layer conv2/relu_3x3_reduce
I0403 15:28:07.703048 15093 net.cpp:91] Creating Layer conv2/relu_3x3_reduce
I0403 15:28:07.703064 15093 net.cpp:425] conv2/relu_3x3_reduce <- conv2/3x3_reduce
I0403 15:28:07.703083 15093 net.cpp:386] conv2/relu_3x3_reduce -> conv2/3x3_reduce (in-place)
I0403 15:28:07.703347 15093 net.cpp:141] Setting up conv2/relu_3x3_reduce
I0403 15:28:07.703373 15093 net.cpp:148] Top shape: 24 64 56 56 (4816896)
I0403 15:28:07.703390 15093 net.cpp:156] Memory required for data: 245662752
I0403 15:28:07.703408 15093 layer_factory.hpp:77] Creating layer conv2/3x3
I0403 15:28:07.703436 15093 net.cpp:91] Creating Layer conv2/3x3
I0403 15:28:07.703456 15093 net.cpp:425] conv2/3x3 <- conv2/3x3_reduce
I0403 15:28:07.703477 15093 net.cpp:399] conv2/3x3 -> conv2/3x3
I0403 15:28:07.705885 15093 net.cpp:141] Setting up conv2/3x3
I0403 15:28:07.705919 15093 net.cpp:148] Top shape: 24 192 56 56 (14450688)
I0403 15:28:07.705935 15093 net.cpp:156] Memory required for data: 303465504
I0403 15:28:07.705957 15093 layer_factory.hpp:77] Creating layer conv2/relu_3x3
I0403 15:28:07.705976 15093 net.cpp:91] Creating Layer conv2/relu_3x3
I0403 15:28:07.705992 15093 net.cpp:425] conv2/relu_3x3 <- conv2/3x3
I0403 15:28:07.706009 15093 net.cpp:386] conv2/relu_3x3 -> conv2/3x3 (in-place)
I0403 15:28:07.706189 15093 net.cpp:141] Setting up conv2/relu_3x3
I0403 15:28:07.706214 15093 net.cpp:148] Top shape: 24 192 56 56 (14450688)
I0403 15:28:07.706254 15093 net.cpp:156] Memory required for data: 361268256
I0403 15:28:07.706271 15093 layer_factory.hpp:77] Creating layer conv2/norm2
I0403 15:28:07.706293 15093 net.cpp:91] Creating Layer conv2/norm2
I0403 15:28:07.706311 15093 net.cpp:425] conv2/norm2 <- conv2/3x3
I0403 15:28:07.706328 15093 net.cpp:399] conv2/norm2 -> conv2/norm2
I0403 15:28:07.706640 15093 net.cpp:141] Setting up conv2/norm2
I0403 15:28:07.706667 15093 net.cpp:148] Top shape: 24 192 56 56 (14450688)
I0403 15:28:07.706682 15093 net.cpp:156] Memory required for data: 419071008
I0403 15:28:07.706697 15093 layer_factory.hpp:77] Creating layer pool2/3x3_s2
I0403 15:28:07.706717 15093 net.cpp:91] Creating Layer pool2/3x3_s2
I0403 15:28:07.706734 15093 net.cpp:425] pool2/3x3_s2 <- conv2/norm2
I0403 15:28:07.706751 15093 net.cpp:399] pool2/3x3_s2 -> pool2/3x3_s2
I0403 15:28:07.706804 15093 net.cpp:141] Setting up pool2/3x3_s2
I0403 15:28:07.706827 15093 net.cpp:148] Top shape: 24 192 28 28 (3612672)
I0403 15:28:07.706842 15093 net.cpp:156] Memory required for data: 433521696
I0403 15:28:07.706856 15093 layer_factory.hpp:77] Creating layer pool2/3x3_s2_pool2/3x3_s2_0_split
I0403 15:28:07.706874 15093 net.cpp:91] Creating Layer pool2/3x3_s2_pool2/3x3_s2_0_split
I0403 15:28:07.706889 15093 net.cpp:425] pool2/3x3_s2_pool2/3x3_s2_0_split <- pool2/3x3_s2
I0403 15:28:07.706908 15093 net.cpp:399] pool2/3x3_s2_pool2/3x3_s2_0_split -> pool2/3x3_s2_pool2/3x3_s2_0_split_0
I0403 15:28:07.706928 15093 net.cpp:399] pool2/3x3_s2_pool2/3x3_s2_0_split -> pool2/3x3_s2_pool2/3x3_s2_0_split_1
I0403 15:28:07.706948 15093 net.cpp:399] pool2/3x3_s2_pool2/3x3_s2_0_split -> pool2/3x3_s2_pool2/3x3_s2_0_split_2
I0403 15:28:07.706967 15093 net.cpp:399] pool2/3x3_s2_pool2/3x3_s2_0_split -> pool2/3x3_s2_pool2/3x3_s2_0_split_3
I0403 15:28:07.707038 15093 net.cpp:141] Setting up pool2/3x3_s2_pool2/3x3_s2_0_split
I0403 15:28:07.707063 15093 net.cpp:148] Top shape: 24 192 28 28 (3612672)
I0403 15:28:07.707080 15093 net.cpp:148] Top shape: 24 192 28 28 (3612672)
I0403 15:28:07.707095 15093 net.cpp:148] Top shape: 24 192 28 28 (3612672)
I0403 15:28:07.707111 15093 net.cpp:148] Top shape: 24 192 28 28 (3612672)
I0403 15:28:07.707124 15093 net.cpp:156] Memory required for data: 491324448
I0403 15:28:07.707139 15093 layer_factory.hpp:77] Creating layer inception_3a/1x1
I0403 15:28:07.707160 15093 net.cpp:91] Creating Layer inception_3a/1x1
I0403 15:28:07.707178 15093 net.cpp:425] inception_3a/1x1 <- pool2/3x3_s2_pool2/3x3_s2_0_split_0
I0403 15:28:07.707197 15093 net.cpp:399] inception_3a/1x1 -> inception_3a/1x1
I0403 15:28:07.708766 15093 net.cpp:141] Setting up inception_3a/1x1
I0403 15:28:07.708794 15093 net.cpp:148] Top shape: 24 64 28 28 (1204224)
I0403 15:28:07.708811 15093 net.cpp:156] Memory required for data: 496141344
I0403 15:28:07.708829 15093 layer_factory.hpp:77] Creating layer inception_3a/relu_1x1
I0403 15:28:07.708850 15093 net.cpp:91] Creating Layer inception_3a/relu_1x1
I0403 15:28:07.708868 15093 net.cpp:425] inception_3a/relu_1x1 <- inception_3a/1x1
I0403 15:28:07.708887 15093 net.cpp:386] inception_3a/relu_1x1 -> inception_3a/1x1 (in-place)
I0403 15:28:07.709059 15093 net.cpp:141] Setting up inception_3a/relu_1x1
I0403 15:28:07.709085 15093 net.cpp:148] Top shape: 24 64 28 28 (1204224)
I0403 15:28:07.709102 15093 net.cpp:156] Memory required for data: 500958240
I0403 15:28:07.709116 15093 layer_factory.hpp:77] Creating layer inception_3a/3x3_reduce
I0403 15:28:07.709141 15093 net.cpp:91] Creating Layer inception_3a/3x3_reduce
I0403 15:28:07.709159 15093 net.cpp:425] inception_3a/3x3_reduce <- pool2/3x3_s2_pool2/3x3_s2_0_split_1
I0403 15:28:07.709178 15093 net.cpp:399] inception_3a/3x3_reduce -> inception_3a/3x3_reduce
I0403 15:28:07.710891 15093 net.cpp:141] Setting up inception_3a/3x3_reduce
I0403 15:28:07.710922 15093 net.cpp:148] Top shape: 24 96 28 28 (1806336)
I0403 15:28:07.710940 15093 net.cpp:156] Memory required for data: 508183584
I0403 15:28:07.710965 15093 layer_factory.hpp:77] Creating layer inception_3a/relu_3x3_reduce
I0403 15:28:07.711004 15093 net.cpp:91] Creating Layer inception_3a/relu_3x3_reduce
I0403 15:28:07.711020 15093 net.cpp:425] inception_3a/relu_3x3_reduce <- inception_3a/3x3_reduce
I0403 15:28:07.711040 15093 net.cpp:386] inception_3a/relu_3x3_reduce -> inception_3a/3x3_reduce (in-place)
I0403 15:28:07.711225 15093 net.cpp:141] Setting up inception_3a/relu_3x3_reduce
I0403 15:28:07.711248 15093 net.cpp:148] Top shape: 24 96 28 28 (1806336)
I0403 15:28:07.711266 15093 net.cpp:156] Memory required for data: 515408928
I0403 15:28:07.711279 15093 layer_factory.hpp:77] Creating layer inception_3a/3x3
I0403 15:28:07.711302 15093 net.cpp:91] Creating Layer inception_3a/3x3
I0403 15:28:07.711319 15093 net.cpp:425] inception_3a/3x3 <- inception_3a/3x3_reduce
I0403 15:28:07.711343 15093 net.cpp:399] inception_3a/3x3 -> inception_3a/3x3
I0403 15:28:07.713007 15093 net.cpp:141] Setting up inception_3a/3x3
I0403 15:28:07.713037 15093 net.cpp:148] Top shape: 24 128 28 28 (2408448)
I0403 15:28:07.713054 15093 net.cpp:156] Memory required for data: 525042720
I0403 15:28:07.713073 15093 layer_factory.hpp:77] Creating layer inception_3a/relu_3x3
I0403 15:28:07.713091 15093 net.cpp:91] Creating Layer inception_3a/relu_3x3
I0403 15:28:07.713107 15093 net.cpp:425] inception_3a/relu_3x3 <- inception_3a/3x3
I0403 15:28:07.713127 15093 net.cpp:386] inception_3a/relu_3x3 -> inception_3a/3x3 (in-place)
I0403 15:28:07.713402 15093 net.cpp:141] Setting up inception_3a/relu_3x3
I0403 15:28:07.713433 15093 net.cpp:148] Top shape: 24 128 28 28 (2408448)
I0403 15:28:07.713451 15093 net.cpp:156] Memory required for data: 534676512
I0403 15:28:07.713467 15093 layer_factory.hpp:77] Creating layer inception_3a/5x5_reduce
I0403 15:28:07.713491 15093 net.cpp:91] Creating Layer inception_3a/5x5_reduce
I0403 15:28:07.713513 15093 net.cpp:425] inception_3a/5x5_reduce <- pool2/3x3_s2_pool2/3x3_s2_0_split_2
I0403 15:28:07.713534 15093 net.cpp:399] inception_3a/5x5_reduce -> inception_3a/5x5_reduce
I0403 15:28:07.714519 15093 net.cpp:141] Setting up inception_3a/5x5_reduce
I0403 15:28:07.714550 15093 net.cpp:148] Top shape: 24 16 28 28 (301056)
I0403 15:28:07.714567 15093 net.cpp:156] Memory required for data: 535880736
I0403 15:28:07.714597 15093 layer_factory.hpp:77] Creating layer inception_3a/relu_5x5_reduce
I0403 15:28:07.714617 15093 net.cpp:91] Creating Layer inception_3a/relu_5x5_reduce
I0403 15:28:07.714635 15093 net.cpp:425] inception_3a/relu_5x5_reduce <- inception_3a/5x5_reduce
I0403 15:28:07.714670 15093 net.cpp:386] inception_3a/relu_5x5_reduce -> inception_3a/5x5_reduce (in-place)
I0403 15:28:07.714985 15093 net.cpp:141] Setting up inception_3a/relu_5x5_reduce
I0403 15:28:07.715013 15093 net.cpp:148] Top shape: 24 16 28 28 (301056)
I0403 15:28:07.715028 15093 net.cpp:156] Memory required for data: 537084960
I0403 15:28:07.715042 15093 layer_factory.hpp:77] Creating layer inception_3a/5x5
I0403 15:28:07.715065 15093 net.cpp:91] Creating Layer inception_3a/5x5
I0403 15:28:07.715083 15093 net.cpp:425] inception_3a/5x5 <- inception_3a/5x5_reduce
I0403 15:28:07.715108 15093 net.cpp:399] inception_3a/5x5 -> inception_3a/5x5
I0403 15:28:07.716140 15093 net.cpp:141] Setting up inception_3a/5x5
I0403 15:28:07.716168 15093 net.cpp:148] Top shape: 24 32 28 28 (602112)
I0403 15:28:07.716184 15093 net.cpp:156] Memory required for data: 539493408
I0403 15:28:07.716203 15093 layer_factory.hpp:77] Creating layer inception_3a/relu_5x5
I0403 15:28:07.716226 15093 net.cpp:91] Creating Layer inception_3a/relu_5x5
I0403 15:28:07.716244 15093 net.cpp:425] inception_3a/relu_5x5 <- inception_3a/5x5
I0403 15:28:07.716264 15093 net.cpp:386] inception_3a/relu_5x5 -> inception_3a/5x5 (in-place)
I0403 15:28:07.716446 15093 net.cpp:141] Setting up inception_3a/relu_5x5
I0403 15:28:07.716471 15093 net.cpp:148] Top shape: 24 32 28 28 (602112)
I0403 15:28:07.716488 15093 net.cpp:156] Memory required for data: 541901856
I0403 15:28:07.716508 15093 layer_factory.hpp:77] Creating layer inception_3a/pool
I0403 15:28:07.716528 15093 net.cpp:91] Creating Layer inception_3a/pool
I0403 15:28:07.716545 15093 net.cpp:425] inception_3a/pool <- pool2/3x3_s2_pool2/3x3_s2_0_split_3
I0403 15:28:07.716581 15093 net.cpp:399] inception_3a/pool -> inception_3a/pool
I0403 15:28:07.716641 15093 net.cpp:141] Setting up inception_3a/pool
I0403 15:28:07.716665 15093 net.cpp:148] Top shape: 24 192 28 28 (3612672)
I0403 15:28:07.716681 15093 net.cpp:156] Memory required for data: 556352544
I0403 15:28:07.716696 15093 layer_factory.hpp:77] Creating layer inception_3a/pool_proj
I0403 15:28:07.716722 15093 net.cpp:91] Creating Layer inception_3a/pool_proj
I0403 15:28:07.716740 15093 net.cpp:425] inception_3a/pool_proj <- inception_3a/pool
I0403 15:28:07.716759 15093 net.cpp:399] inception_3a/pool_proj -> inception_3a/pool_proj
I0403 15:28:07.717743 15093 net.cpp:141] Setting up inception_3a/pool_proj
I0403 15:28:07.717772 15093 net.cpp:148] Top shape: 24 32 28 28 (602112)
I0403 15:28:07.717787 15093 net.cpp:156] Memory required for data: 558760992
I0403 15:28:07.717813 15093 layer_factory.hpp:77] Creating layer inception_3a/relu_pool_proj
I0403 15:28:07.717833 15093 net.cpp:91] Creating Layer inception_3a/relu_pool_proj
I0403 15:28:07.717849 15093 net.cpp:425] inception_3a/relu_pool_proj <- inception_3a/pool_proj
I0403 15:28:07.717869 15093 net.cpp:386] inception_3a/relu_pool_proj -> inception_3a/pool_proj (in-place)
I0403 15:28:07.718147 15093 net.cpp:141] Setting up inception_3a/relu_pool_proj
I0403 15:28:07.718175 15093 net.cpp:148] Top shape: 24 32 28 28 (602112)
I0403 15:28:07.718192 15093 net.cpp:156] Memory required for data: 561169440
I0403 15:28:07.718207 15093 layer_factory.hpp:77] Creating layer inception_3a/output
I0403 15:28:07.718225 15093 net.cpp:91] Creating Layer inception_3a/output
I0403 15:28:07.718242 15093 net.cpp:425] inception_3a/output <- inception_3a/1x1
I0403 15:28:07.718260 15093 net.cpp:425] inception_3a/output <- inception_3a/3x3
I0403 15:28:07.718276 15093 net.cpp:425] inception_3a/output <- inception_3a/5x5
I0403 15:28:07.718291 15093 net.cpp:425] inception_3a/output <- inception_3a/pool_proj
I0403 15:28:07.718309 15093 net.cpp:399] inception_3a/output -> inception_3a/output
I0403 15:28:07.718358 15093 net.cpp:141] Setting up inception_3a/output
I0403 15:28:07.718381 15093 net.cpp:148] Top shape: 24 256 28 28 (4816896)
I0403 15:28:07.718396 15093 net.cpp:156] Memory required for data: 580437024
I0403 15:28:07.718411 15093 layer_factory.hpp:77] Creating layer inception_3a/output_inception_3a/output_0_split
I0403 15:28:07.718428 15093 net.cpp:91] Creating Layer inception_3a/output_inception_3a/output_0_split
I0403 15:28:07.718443 15093 net.cpp:425] inception_3a/output_inception_3a/output_0_split <- inception_3a/output
I0403 15:28:07.718464 15093 net.cpp:399] inception_3a/output_inception_3a/output_0_split -> inception_3a/output_inception_3a/output_0_split_0
I0403 15:28:07.718488 15093 net.cpp:399] inception_3a/output_inception_3a/output_0_split -> inception_3a/output_inception_3a/output_0_split_1
I0403 15:28:07.718518 15093 net.cpp:399] inception_3a/output_inception_3a/output_0_split -> inception_3a/output_inception_3a/output_0_split_2
I0403 15:28:07.718544 15093 net.cpp:399] inception_3a/output_inception_3a/output_0_split -> inception_3a/output_inception_3a/output_0_split_3
I0403 15:28:07.718619 15093 net.cpp:141] Setting up inception_3a/output_inception_3a/output_0_split
I0403 15:28:07.718646 15093 net.cpp:148] Top shape: 24 256 28 28 (4816896)
I0403 15:28:07.718667 15093 net.cpp:148] Top shape: 24 256 28 28 (4816896)
I0403 15:28:07.718685 15093 net.cpp:148] Top shape: 24 256 28 28 (4816896)
I0403 15:28:07.718703 15093 net.cpp:148] Top shape: 24 256 28 28 (4816896)
I0403 15:28:07.718718 15093 net.cpp:156] Memory required for data: 657507360
I0403 15:28:07.718732 15093 layer_factory.hpp:77] Creating layer inception_3b/1x1
I0403 15:28:07.718752 15093 net.cpp:91] Creating Layer inception_3b/1x1
I0403 15:28:07.718770 15093 net.cpp:425] inception_3b/1x1 <- inception_3a/output_inception_3a/output_0_split_0
I0403 15:28:07.718791 15093 net.cpp:399] inception_3b/1x1 -> inception_3b/1x1
I0403 15:28:07.719959 15093 net.cpp:141] Setting up inception_3b/1x1
I0403 15:28:07.720002 15093 net.cpp:148] Top shape: 24 128 28 28 (2408448)
I0403 15:28:07.720019 15093 net.cpp:156] Memory required for data: 667141152
I0403 15:28:07.720038 15093 layer_factory.hpp:77] Creating layer inception_3b/relu_1x1
I0403 15:28:07.720060 15093 net.cpp:91] Creating Layer inception_3b/relu_1x1
I0403 15:28:07.720077 15093 net.cpp:425] inception_3b/relu_1x1 <- inception_3b/1x1
I0403 15:28:07.720095 15093 net.cpp:386] inception_3b/relu_1x1 -> inception_3b/1x1 (in-place)
I0403 15:28:07.720273 15093 net.cpp:141] Setting up inception_3b/relu_1x1
I0403 15:28:07.720302 15093 net.cpp:148] Top shape: 24 128 28 28 (2408448)
I0403 15:28:07.720320 15093 net.cpp:156] Memory required for data: 676774944
I0403 15:28:07.720336 15093 layer_factory.hpp:77] Creating layer inception_3b/3x3_reduce
I0403 15:28:07.720361 15093 net.cpp:91] Creating Layer inception_3b/3x3_reduce
I0403 15:28:07.720381 15093 net.cpp:425] inception_3b/3x3_reduce <- inception_3a/output_inception_3a/output_0_split_1
I0403 15:28:07.720403 15093 net.cpp:399] inception_3b/3x3_reduce -> inception_3b/3x3_reduce
I0403 15:28:07.721577 15093 net.cpp:141] Setting up inception_3b/3x3_reduce
I0403 15:28:07.721608 15093 net.cpp:148] Top shape: 24 128 28 28 (2408448)
I0403 15:28:07.721626 15093 net.cpp:156] Memory required for data: 686408736
I0403 15:28:07.721643 15093 layer_factory.hpp:77] Creating layer inception_3b/relu_3x3_reduce
I0403 15:28:07.721664 15093 net.cpp:91] Creating Layer inception_3b/relu_3x3_reduce
I0403 15:28:07.721683 15093 net.cpp:425] inception_3b/relu_3x3_reduce <- inception_3b/3x3_reduce
I0403 15:28:07.721700 15093 net.cpp:386] inception_3b/relu_3x3_reduce -> inception_3b/3x3_reduce (in-place)
I0403 15:28:07.721876 15093 net.cpp:141] Setting up inception_3b/relu_3x3_reduce
I0403 15:28:07.721904 15093 net.cpp:148] Top shape: 24 128 28 28 (2408448)
I0403 15:28:07.721921 15093 net.cpp:156] Memory required for data: 696042528
I0403 15:28:07.721936 15093 layer_factory.hpp:77] Creating layer inception_3b/3x3
I0403 15:28:07.721962 15093 net.cpp:91] Creating Layer inception_3b/3x3
I0403 15:28:07.721981 15093 net.cpp:425] inception_3b/3x3 <- inception_3b/3x3_reduce
I0403 15:28:07.722002 15093 net.cpp:399] inception_3b/3x3 -> inception_3b/3x3
I0403 15:28:07.725030 15093 net.cpp:141] Setting up inception_3b/3x3
I0403 15:28:07.725062 15093 net.cpp:148] Top shape: 24 192 28 28 (3612672)
I0403 15:28:07.725080 15093 net.cpp:156] Memory required for data: 710493216
I0403 15:28:07.725098 15093 layer_factory.hpp:77] Creating layer inception_3b/relu_3x3
I0403 15:28:07.725117 15093 net.cpp:91] Creating Layer inception_3b/relu_3x3
I0403 15:28:07.725134 15093 net.cpp:425] inception_3b/relu_3x3 <- inception_3b/3x3
I0403 15:28:07.725155 15093 net.cpp:386] inception_3b/relu_3x3 -> inception_3b/3x3 (in-place)
I0403 15:28:07.725435 15093 net.cpp:141] Setting up inception_3b/relu_3x3
I0403 15:28:07.725464 15093 net.cpp:148] Top shape: 24 192 28 28 (3612672)
I0403 15:28:07.725483 15093 net.cpp:156] Memory required for data: 724943904
I0403 15:28:07.725499 15093 layer_factory.hpp:77] Creating layer inception_3b/5x5_reduce
I0403 15:28:07.725529 15093 net.cpp:91] Creating Layer inception_3b/5x5_reduce
I0403 15:28:07.725558 15093 net.cpp:425] inception_3b/5x5_reduce <- inception_3a/output_inception_3a/output_0_split_2
I0403 15:28:07.725589 15093 net.cpp:399] inception_3b/5x5_reduce -> inception_3b/5x5_reduce
I0403 15:28:07.726619 15093 net.cpp:141] Setting up inception_3b/5x5_reduce
I0403 15:28:07.726649 15093 net.cpp:148] Top shape: 24 32 28 28 (602112)
I0403 15:28:07.726666 15093 net.cpp:156] Memory required for data: 727352352
I0403 15:28:07.726686 15093 layer_factory.hpp:77] Creating layer inception_3b/relu_5x5_reduce
I0403 15:28:07.726707 15093 net.cpp:91] Creating Layer inception_3b/relu_5x5_reduce
I0403 15:28:07.726725 15093 net.cpp:425] inception_3b/relu_5x5_reduce <- inception_3b/5x5_reduce
I0403 15:28:07.726745 15093 net.cpp:386] inception_3b/relu_5x5_reduce -> inception_3b/5x5_reduce (in-place)
I0403 15:28:07.726925 15093 net.cpp:141] Setting up inception_3b/relu_5x5_reduce
I0403 15:28:07.726963 15093 net.cpp:148] Top shape: 24 32 28 28 (602112)
I0403 15:28:07.726979 15093 net.cpp:156] Memory required for data: 729760800
I0403 15:28:07.726994 15093 layer_factory.hpp:77] Creating layer inception_3b/5x5
I0403 15:28:07.727020 15093 net.cpp:91] Creating Layer inception_3b/5x5
I0403 15:28:07.727038 15093 net.cpp:425] inception_3b/5x5 <- inception_3b/5x5_reduce
I0403 15:28:07.727061 15093 net.cpp:399] inception_3b/5x5 -> inception_3b/5x5
I0403 15:28:07.729059 15093 net.cpp:141] Setting up inception_3b/5x5
I0403 15:28:07.729089 15093 net.cpp:148] Top shape: 24 96 28 28 (1806336)
I0403 15:28:07.729105 15093 net.cpp:156] Memory required for data: 736986144
I0403 15:28:07.729125 15093 layer_factory.hpp:77] Creating layer inception_3b/relu_5x5
I0403 15:28:07.729145 15093 net.cpp:91] Creating Layer inception_3b/relu_5x5
I0403 15:28:07.729162 15093 net.cpp:425] inception_3b/relu_5x5 <- inception_3b/5x5
I0403 15:28:07.729182 15093 net.cpp:386] inception_3b/relu_5x5 -> inception_3b/5x5 (in-place)
I0403 15:28:07.729378 15093 net.cpp:141] Setting up inception_3b/relu_5x5
I0403 15:28:07.729403 15093 net.cpp:148] Top shape: 24 96 28 28 (1806336)
I0403 15:28:07.729419 15093 net.cpp:156] Memory required for data: 744211488
I0403 15:28:07.729436 15093 layer_factory.hpp:77] Creating layer inception_3b/pool
I0403 15:28:07.729454 15093 net.cpp:91] Creating Layer inception_3b/pool
I0403 15:28:07.729470 15093 net.cpp:425] inception_3b/pool <- inception_3a/output_inception_3a/output_0_split_3
I0403 15:28:07.729490 15093 net.cpp:399] inception_3b/pool -> inception_3b/pool
I0403 15:28:07.729552 15093 net.cpp:141] Setting up inception_3b/pool
I0403 15:28:07.729578 15093 net.cpp:148] Top shape: 24 256 28 28 (4816896)
I0403 15:28:07.729593 15093 net.cpp:156] Memory required for data: 763479072
I0403 15:28:07.729609 15093 layer_factory.hpp:77] Creating layer inception_3b/pool_proj
I0403 15:28:07.729635 15093 net.cpp:91] Creating Layer inception_3b/pool_proj
I0403 15:28:07.729653 15093 net.cpp:425] inception_3b/pool_proj <- inception_3b/pool
I0403 15:28:07.729674 15093 net.cpp:399] inception_3b/pool_proj -> inception_3b/pool_proj
I0403 15:28:07.730754 15093 net.cpp:141] Setting up inception_3b/pool_proj
I0403 15:28:07.730782 15093 net.cpp:148] Top shape: 24 64 28 28 (1204224)
I0403 15:28:07.730799 15093 net.cpp:156] Memory required for data: 768295968
I0403 15:28:07.730818 15093 layer_factory.hpp:77] Creating layer inception_3b/relu_pool_proj
I0403 15:28:07.730835 15093 net.cpp:91] Creating Layer inception_3b/relu_pool_proj
I0403 15:28:07.730852 15093 net.cpp:425] inception_3b/relu_pool_proj <- inception_3b/pool_proj
I0403 15:28:07.730872 15093 net.cpp:386] inception_3b/relu_pool_proj -> inception_3b/pool_proj (in-place)
I0403 15:28:07.731269 15093 net.cpp:141] Setting up inception_3b/relu_pool_proj
I0403 15:28:07.731298 15093 net.cpp:148] Top shape: 24 64 28 28 (1204224)
I0403 15:28:07.731315 15093 net.cpp:156] Memory required for data: 773112864
I0403 15:28:07.731330 15093 layer_factory.hpp:77] Creating layer inception_3b/output
I0403 15:28:07.731348 15093 net.cpp:91] Creating Layer inception_3b/output
I0403 15:28:07.731364 15093 net.cpp:425] inception_3b/output <- inception_3b/1x1
I0403 15:28:07.731380 15093 net.cpp:425] inception_3b/output <- inception_3b/3x3
I0403 15:28:07.731398 15093 net.cpp:425] inception_3b/output <- inception_3b/5x5
I0403 15:28:07.731415 15093 net.cpp:425] inception_3b/output <- inception_3b/pool_proj
I0403 15:28:07.731434 15093 net.cpp:399] inception_3b/output -> inception_3b/output
I0403 15:28:07.731479 15093 net.cpp:141] Setting up inception_3b/output
I0403 15:28:07.731503 15093 net.cpp:148] Top shape: 24 480 28 28 (9031680)
I0403 15:28:07.731523 15093 net.cpp:156] Memory required for data: 809239584
I0403 15:28:07.731539 15093 layer_factory.hpp:77] Creating layer pool3/3x3_s2
I0403 15:28:07.731559 15093 net.cpp:91] Creating Layer pool3/3x3_s2
I0403 15:28:07.731576 15093 net.cpp:425] pool3/3x3_s2 <- inception_3b/output
I0403 15:28:07.731595 15093 net.cpp:399] pool3/3x3_s2 -> pool3/3x3_s2
I0403 15:28:07.731669 15093 net.cpp:141] Setting up pool3/3x3_s2
I0403 15:28:07.731709 15093 net.cpp:148] Top shape: 24 480 14 14 (2257920)
I0403 15:28:07.731726 15093 net.cpp:156] Memory required for data: 818271264
I0403 15:28:07.731742 15093 layer_factory.hpp:77] Creating layer pool3/3x3_s2_pool3/3x3_s2_0_split
I0403 15:28:07.731761 15093 net.cpp:91] Creating Layer pool3/3x3_s2_pool3/3x3_s2_0_split
I0403 15:28:07.731780 15093 net.cpp:425] pool3/3x3_s2_pool3/3x3_s2_0_split <- pool3/3x3_s2
I0403 15:28:07.731803 15093 net.cpp:399] pool3/3x3_s2_pool3/3x3_s2_0_split -> pool3/3x3_s2_pool3/3x3_s2_0_split_0
I0403 15:28:07.731827 15093 net.cpp:399] pool3/3x3_s2_pool3/3x3_s2_0_split -> pool3/3x3_s2_pool3/3x3_s2_0_split_1
I0403 15:28:07.731848 15093 net.cpp:399] pool3/3x3_s2_pool3/3x3_s2_0_split -> pool3/3x3_s2_pool3/3x3_s2_0_split_2
I0403 15:28:07.731868 15093 net.cpp:399] pool3/3x3_s2_pool3/3x3_s2_0_split -> pool3/3x3_s2_pool3/3x3_s2_0_split_3
I0403 15:28:07.731971 15093 net.cpp:141] Setting up pool3/3x3_s2_pool3/3x3_s2_0_split
I0403 15:28:07.732007 15093 net.cpp:148] Top shape: 24 480 14 14 (2257920)
I0403 15:28:07.732025 15093 net.cpp:148] Top shape: 24 480 14 14 (2257920)
I0403 15:28:07.732041 15093 net.cpp:148] Top shape: 24 480 14 14 (2257920)
I0403 15:28:07.732058 15093 net.cpp:148] Top shape: 24 480 14 14 (2257920)
I0403 15:28:07.732071 15093 net.cpp:156] Memory required for data: 854397984
I0403 15:28:07.732086 15093 layer_factory.hpp:77] Creating layer inception_4a/1x1
I0403 15:28:07.732110 15093 net.cpp:91] Creating Layer inception_4a/1x1
I0403 15:28:07.732128 15093 net.cpp:425] inception_4a/1x1 <- pool3/3x3_s2_pool3/3x3_s2_0_split_0
I0403 15:28:07.732151 15093 net.cpp:399] inception_4a/1x1 -> inception_4a/1x1
I0403 15:28:07.733815 15093 net.cpp:141] Setting up inception_4a/1x1
I0403 15:28:07.733845 15093 net.cpp:148] Top shape: 24 192 14 14 (903168)
I0403 15:28:07.733861 15093 net.cpp:156] Memory required for data: 858010656
I0403 15:28:07.733880 15093 layer_factory.hpp:77] Creating layer inception_4a/relu_1x1
I0403 15:28:07.733898 15093 net.cpp:91] Creating Layer inception_4a/relu_1x1
I0403 15:28:07.733916 15093 net.cpp:425] inception_4a/relu_1x1 <- inception_4a/1x1
I0403 15:28:07.733935 15093 net.cpp:386] inception_4a/relu_1x1 -> inception_4a/1x1 (in-place)
I0403 15:28:07.734117 15093 net.cpp:141] Setting up inception_4a/relu_1x1
I0403 15:28:07.734143 15093 net.cpp:148] Top shape: 24 192 14 14 (903168)
I0403 15:28:07.734158 15093 net.cpp:156] Memory required for data: 861623328
I0403 15:28:07.734174 15093 layer_factory.hpp:77] Creating layer inception_4a/3x3_reduce
I0403 15:28:07.734196 15093 net.cpp:91] Creating Layer inception_4a/3x3_reduce
I0403 15:28:07.734215 15093 net.cpp:425] inception_4a/3x3_reduce <- pool3/3x3_s2_pool3/3x3_s2_0_split_1
I0403 15:28:07.734238 15093 net.cpp:399] inception_4a/3x3_reduce -> inception_4a/3x3_reduce
I0403 15:28:07.735564 15093 net.cpp:141] Setting up inception_4a/3x3_reduce
I0403 15:28:07.735592 15093 net.cpp:148] Top shape: 24 96 14 14 (451584)
I0403 15:28:07.735608 15093 net.cpp:156] Memory required for data: 863429664
I0403 15:28:07.735635 15093 layer_factory.hpp:77] Creating layer inception_4a/relu_3x3_reduce
I0403 15:28:07.735656 15093 net.cpp:91] Creating Layer inception_4a/relu_3x3_reduce
I0403 15:28:07.735672 15093 net.cpp:425] inception_4a/relu_3x3_reduce <- inception_4a/3x3_reduce
I0403 15:28:07.735692 15093 net.cpp:386] inception_4a/relu_3x3_reduce -> inception_4a/3x3_reduce (in-place)
I0403 15:28:07.735874 15093 net.cpp:141] Setting up inception_4a/relu_3x3_reduce
I0403 15:28:07.735899 15093 net.cpp:148] Top shape: 24 96 14 14 (451584)
I0403 15:28:07.735915 15093 net.cpp:156] Memory required for data: 865236000
I0403 15:28:07.735930 15093 layer_factory.hpp:77] Creating layer inception_4a/3x3
I0403 15:28:07.735954 15093 net.cpp:91] Creating Layer inception_4a/3x3
I0403 15:28:07.735970 15093 net.cpp:425] inception_4a/3x3 <- inception_4a/3x3_reduce
I0403 15:28:07.735992 15093 net.cpp:399] inception_4a/3x3 -> inception_4a/3x3
I0403 15:28:07.738730 15093 net.cpp:141] Setting up inception_4a/3x3
I0403 15:28:07.738759 15093 net.cpp:148] Top shape: 24 208 14 14 (978432)
I0403 15:28:07.738776 15093 net.cpp:156] Memory required for data: 869149728
I0403 15:28:07.738795 15093 layer_factory.hpp:77] Creating layer inception_4a/relu_3x3
I0403 15:28:07.738816 15093 net.cpp:91] Creating Layer inception_4a/relu_3x3
I0403 15:28:07.738834 15093 net.cpp:425] inception_4a/relu_3x3 <- inception_4a/3x3
I0403 15:28:07.738852 15093 net.cpp:386] inception_4a/relu_3x3 -> inception_4a/3x3 (in-place)
I0403 15:28:07.739140 15093 net.cpp:141] Setting up inception_4a/relu_3x3
I0403 15:28:07.739166 15093 net.cpp:148] Top shape: 24 208 14 14 (978432)
I0403 15:28:07.739182 15093 net.cpp:156] Memory required for data: 873063456
I0403 15:28:07.739197 15093 layer_factory.hpp:77] Creating layer inception_4a/5x5_reduce
I0403 15:28:07.739220 15093 net.cpp:91] Creating Layer inception_4a/5x5_reduce
I0403 15:28:07.739239 15093 net.cpp:425] inception_4a/5x5_reduce <- pool3/3x3_s2_pool3/3x3_s2_0_split_2
I0403 15:28:07.739262 15093 net.cpp:399] inception_4a/5x5_reduce -> inception_4a/5x5_reduce
I0403 15:28:07.740308 15093 net.cpp:141] Setting up inception_4a/5x5_reduce
I0403 15:28:07.740336 15093 net.cpp:148] Top shape: 24 16 14 14 (75264)
I0403 15:28:07.740352 15093 net.cpp:156] Memory required for data: 873364512
I0403 15:28:07.740371 15093 layer_factory.hpp:77] Creating layer inception_4a/relu_5x5_reduce
I0403 15:28:07.740392 15093 net.cpp:91] Creating Layer inception_4a/relu_5x5_reduce
I0403 15:28:07.740411 15093 net.cpp:425] inception_4a/relu_5x5_reduce <- inception_4a/5x5_reduce
I0403 15:28:07.740429 15093 net.cpp:386] inception_4a/relu_5x5_reduce -> inception_4a/5x5_reduce (in-place)
I0403 15:28:07.740617 15093 net.cpp:141] Setting up inception_4a/relu_5x5_reduce
I0403 15:28:07.740643 15093 net.cpp:148] Top shape: 24 16 14 14 (75264)
I0403 15:28:07.740659 15093 net.cpp:156] Memory required for data: 873665568
I0403 15:28:07.740674 15093 layer_factory.hpp:77] Creating layer inception_4a/5x5
I0403 15:28:07.740697 15093 net.cpp:91] Creating Layer inception_4a/5x5
I0403 15:28:07.740715 15093 net.cpp:425] inception_4a/5x5 <- inception_4a/5x5_reduce
I0403 15:28:07.740736 15093 net.cpp:399] inception_4a/5x5 -> inception_4a/5x5
I0403 15:28:07.741840 15093 net.cpp:141] Setting up inception_4a/5x5
I0403 15:28:07.741870 15093 net.cpp:148] Top shape: 24 48 14 14 (225792)
I0403 15:28:07.741888 15093 net.cpp:156] Memory required for data: 874568736
I0403 15:28:07.741906 15093 layer_factory.hpp:77] Creating layer inception_4a/relu_5x5
I0403 15:28:07.741925 15093 net.cpp:91] Creating Layer inception_4a/relu_5x5
I0403 15:28:07.741942 15093 net.cpp:425] inception_4a/relu_5x5 <- inception_4a/5x5
I0403 15:28:07.741961 15093 net.cpp:386] inception_4a/relu_5x5 -> inception_4a/5x5 (in-place)
I0403 15:28:07.742146 15093 net.cpp:141] Setting up inception_4a/relu_5x5
I0403 15:28:07.742172 15093 net.cpp:148] Top shape: 24 48 14 14 (225792)
I0403 15:28:07.742187 15093 net.cpp:156] Memory required for data: 875471904
I0403 15:28:07.742202 15093 layer_factory.hpp:77] Creating layer inception_4a/pool
I0403 15:28:07.742220 15093 net.cpp:91] Creating Layer inception_4a/pool
I0403 15:28:07.742238 15093 net.cpp:425] inception_4a/pool <- pool3/3x3_s2_pool3/3x3_s2_0_split_3
I0403 15:28:07.742259 15093 net.cpp:399] inception_4a/pool -> inception_4a/pool
I0403 15:28:07.742322 15093 net.cpp:141] Setting up inception_4a/pool
I0403 15:28:07.742347 15093 net.cpp:148] Top shape: 24 480 14 14 (2257920)
I0403 15:28:07.742362 15093 net.cpp:156] Memory required for data: 884503584
I0403 15:28:07.742377 15093 layer_factory.hpp:77] Creating layer inception_4a/pool_proj
I0403 15:28:07.742399 15093 net.cpp:91] Creating Layer inception_4a/pool_proj
I0403 15:28:07.742419 15093 net.cpp:425] inception_4a/pool_proj <- inception_4a/pool
I0403 15:28:07.742439 15093 net.cpp:399] inception_4a/pool_proj -> inception_4a/pool_proj
I0403 15:28:07.743638 15093 net.cpp:141] Setting up inception_4a/pool_proj
I0403 15:28:07.743669 15093 net.cpp:148] Top shape: 24 64 14 14 (301056)
I0403 15:28:07.743701 15093 net.cpp:156] Memory required for data: 885707808
I0403 15:28:07.743722 15093 layer_factory.hpp:77] Creating layer inception_4a/relu_pool_proj
I0403 15:28:07.743744 15093 net.cpp:91] Creating Layer inception_4a/relu_pool_proj
I0403 15:28:07.743762 15093 net.cpp:425] inception_4a/relu_pool_proj <- inception_4a/pool_proj
I0403 15:28:07.743780 15093 net.cpp:386] inception_4a/relu_pool_proj -> inception_4a/pool_proj (in-place)
I0403 15:28:07.744066 15093 net.cpp:141] Setting up inception_4a/relu_pool_proj
I0403 15:28:07.744094 15093 net.cpp:148] Top shape: 24 64 14 14 (301056)
I0403 15:28:07.744109 15093 net.cpp:156] Memory required for data: 886912032
I0403 15:28:07.744124 15093 layer_factory.hpp:77] Creating layer inception_4a/output
I0403 15:28:07.744143 15093 net.cpp:91] Creating Layer inception_4a/output
I0403 15:28:07.744158 15093 net.cpp:425] inception_4a/output <- inception_4a/1x1
I0403 15:28:07.744176 15093 net.cpp:425] inception_4a/output <- inception_4a/3x3
I0403 15:28:07.744194 15093 net.cpp:425] inception_4a/output <- inception_4a/5x5
I0403 15:28:07.744210 15093 net.cpp:425] inception_4a/output <- inception_4a/pool_proj
I0403 15:28:07.744228 15093 net.cpp:399] inception_4a/output -> inception_4a/output
I0403 15:28:07.744276 15093 net.cpp:141] Setting up inception_4a/output
I0403 15:28:07.744302 15093 net.cpp:148] Top shape: 24 512 14 14 (2408448)
I0403 15:28:07.744318 15093 net.cpp:156] Memory required for data: 896545824
I0403 15:28:07.744334 15093 layer_factory.hpp:77] Creating layer inception_4a/output_inception_4a/output_0_split
I0403 15:28:07.744352 15093 net.cpp:91] Creating Layer inception_4a/output_inception_4a/output_0_split
I0403 15:28:07.744369 15093 net.cpp:425] inception_4a/output_inception_4a/output_0_split <- inception_4a/output
I0403 15:28:07.744388 15093 net.cpp:399] inception_4a/output_inception_4a/output_0_split -> inception_4a/output_inception_4a/output_0_split_0
I0403 15:28:07.744410 15093 net.cpp:399] inception_4a/output_inception_4a/output_0_split -> inception_4a/output_inception_4a/output_0_split_1
I0403 15:28:07.744432 15093 net.cpp:399] inception_4a/output_inception_4a/output_0_split -> inception_4a/output_inception_4a/output_0_split_2
I0403 15:28:07.744454 15093 net.cpp:399] inception_4a/output_inception_4a/output_0_split -> inception_4a/output_inception_4a/output_0_split_3
I0403 15:28:07.744474 15093 net.cpp:399] inception_4a/output_inception_4a/output_0_split -> inception_4a/output_inception_4a/output_0_split_4
I0403 15:28:07.744593 15093 net.cpp:141] Setting up inception_4a/output_inception_4a/output_0_split
I0403 15:28:07.744619 15093 net.cpp:148] Top shape: 24 512 14 14 (2408448)
I0403 15:28:07.744637 15093 net.cpp:148] Top shape: 24 512 14 14 (2408448)
I0403 15:28:07.744654 15093 net.cpp:148] Top shape: 24 512 14 14 (2408448)
I0403 15:28:07.744670 15093 net.cpp:148] Top shape: 24 512 14 14 (2408448)
I0403 15:28:07.744688 15093 net.cpp:148] Top shape: 24 512 14 14 (2408448)
I0403 15:28:07.744702 15093 net.cpp:156] Memory required for data: 944714784
I0403 15:28:07.744717 15093 layer_factory.hpp:77] Creating layer loss1/ave_pool
I0403 15:28:07.744740 15093 net.cpp:91] Creating Layer loss1/ave_pool
I0403 15:28:07.744757 15093 net.cpp:425] loss1/ave_pool <- inception_4a/output_inception_4a/output_0_split_0
I0403 15:28:07.744776 15093 net.cpp:399] loss1/ave_pool -> loss1/ave_pool
I0403 15:28:07.745009 15093 net.cpp:141] Setting up loss1/ave_pool
I0403 15:28:07.745035 15093 net.cpp:148] Top shape: 24 512 4 4 (196608)
I0403 15:28:07.745051 15093 net.cpp:156] Memory required for data: 945501216
I0403 15:28:07.745066 15093 layer_factory.hpp:77] Creating layer loss1/conv
I0403 15:28:07.745088 15093 net.cpp:91] Creating Layer loss1/conv
I0403 15:28:07.745107 15093 net.cpp:425] loss1/conv <- loss1/ave_pool
I0403 15:28:07.745129 15093 net.cpp:399] loss1/conv -> loss1/conv
I0403 15:28:07.746580 15093 net.cpp:141] Setting up loss1/conv
I0403 15:28:07.746609 15093 net.cpp:148] Top shape: 24 128 4 4 (49152)
I0403 15:28:07.746625 15093 net.cpp:156] Memory required for data: 945697824
I0403 15:28:07.746659 15093 layer_factory.hpp:77] Creating layer loss1/relu_conv
I0403 15:28:07.746682 15093 net.cpp:91] Creating Layer loss1/relu_conv
I0403 15:28:07.746701 15093 net.cpp:425] loss1/relu_conv <- loss1/conv
I0403 15:28:07.746718 15093 net.cpp:386] loss1/relu_conv -> loss1/conv (in-place)
I0403 15:28:07.747006 15093 net.cpp:141] Setting up loss1/relu_conv
I0403 15:28:07.747033 15093 net.cpp:148] Top shape: 24 128 4 4 (49152)
I0403 15:28:07.747051 15093 net.cpp:156] Memory required for data: 945894432
I0403 15:28:07.747067 15093 layer_factory.hpp:77] Creating layer loss1/fc
I0403 15:28:07.747097 15093 net.cpp:91] Creating Layer loss1/fc
I0403 15:28:07.747117 15093 net.cpp:425] loss1/fc <- loss1/conv
I0403 15:28:07.747138 15093 net.cpp:399] loss1/fc -> loss1/fc
I0403 15:28:07.764948 15093 net.cpp:141] Setting up loss1/fc
I0403 15:28:07.764987 15093 net.cpp:148] Top shape: 24 1024 (24576)
I0403 15:28:07.765002 15093 net.cpp:156] Memory required for data: 945992736
I0403 15:28:07.765022 15093 layer_factory.hpp:77] Creating layer loss1/relu_fc
I0403 15:28:07.765039 15093 net.cpp:91] Creating Layer loss1/relu_fc
I0403 15:28:07.765055 15093 net.cpp:425] loss1/relu_fc <- loss1/fc
I0403 15:28:07.765076 15093 net.cpp:386] loss1/relu_fc -> loss1/fc (in-place)
I0403 15:28:07.765264 15093 net.cpp:141] Setting up loss1/relu_fc
I0403 15:28:07.765288 15093 net.cpp:148] Top shape: 24 1024 (24576)
I0403 15:28:07.765303 15093 net.cpp:156] Memory required for data: 946091040
I0403 15:28:07.765317 15093 layer_factory.hpp:77] Creating layer loss1/drop_fc
I0403 15:28:07.765347 15093 net.cpp:91] Creating Layer loss1/drop_fc
I0403 15:28:07.765365 15093 net.cpp:425] loss1/drop_fc <- loss1/fc
I0403 15:28:07.765383 15093 net.cpp:386] loss1/drop_fc -> loss1/fc (in-place)
I0403 15:28:07.765436 15093 net.cpp:141] Setting up loss1/drop_fc
I0403 15:28:07.765460 15093 net.cpp:148] Top shape: 24 1024 (24576)
I0403 15:28:07.765475 15093 net.cpp:156] Memory required for data: 946189344
I0403 15:28:07.765491 15093 layer_factory.hpp:77] Creating layer loss1/classifier_plantvillage
I0403 15:28:07.765511 15093 net.cpp:91] Creating Layer loss1/classifier_plantvillage
I0403 15:28:07.765529 15093 net.cpp:425] loss1/classifier_plantvillage <- loss1/fc
I0403 15:28:07.765552 15093 net.cpp:399] loss1/classifier_plantvillage -> loss1/classifier_plantvillage
I0403 15:28:07.766438 15093 net.cpp:141] Setting up loss1/classifier_plantvillage
I0403 15:28:07.766466 15093 net.cpp:148] Top shape: 24 38 (912)
I0403 15:28:07.766481 15093 net.cpp:156] Memory required for data: 946192992
I0403 15:28:07.766499 15093 layer_factory.hpp:77] Creating layer loss1/classifier_plantvillage_loss1/classifier_plantvillage_0_split
I0403 15:28:07.766525 15093 net.cpp:91] Creating Layer loss1/classifier_plantvillage_loss1/classifier_plantvillage_0_split
I0403 15:28:07.766541 15093 net.cpp:425] loss1/classifier_plantvillage_loss1/classifier_plantvillage_0_split <- loss1/classifier_plantvillage
I0403 15:28:07.766559 15093 net.cpp:399] loss1/classifier_plantvillage_loss1/classifier_plantvillage_0_split -> loss1/classifier_plantvillage_loss1/classifier_plantvillage_0_split_0
I0403 15:28:07.766578 15093 net.cpp:399] loss1/classifier_plantvillage_loss1/classifier_plantvillage_0_split -> loss1/classifier_plantvillage_loss1/classifier_plantvillage_0_split_1
I0403 15:28:07.766599 15093 net.cpp:399] loss1/classifier_plantvillage_loss1/classifier_plantvillage_0_split -> loss1/classifier_plantvillage_loss1/classifier_plantvillage_0_split_2
I0403 15:28:07.766665 15093 net.cpp:141] Setting up loss1/classifier_plantvillage_loss1/classifier_plantvillage_0_split
I0403 15:28:07.766688 15093 net.cpp:148] Top shape: 24 38 (912)
I0403 15:28:07.766706 15093 net.cpp:148] Top shape: 24 38 (912)
I0403 15:28:07.766722 15093 net.cpp:148] Top shape: 24 38 (912)
I0403 15:28:07.766737 15093 net.cpp:156] Memory required for data: 946203936
I0403 15:28:07.766753 15093 layer_factory.hpp:77] Creating layer inception_4b/1x1
I0403 15:28:07.766777 15093 net.cpp:91] Creating Layer inception_4b/1x1
I0403 15:28:07.766810 15093 net.cpp:425] inception_4b/1x1 <- inception_4a/output_inception_4a/output_0_split_1
I0403 15:28:07.766831 15093 net.cpp:399] inception_4b/1x1 -> inception_4b/1x1
I0403 15:28:07.768533 15093 net.cpp:141] Setting up inception_4b/1x1
I0403 15:28:07.768563 15093 net.cpp:148] Top shape: 24 160 14 14 (752640)
I0403 15:28:07.768579 15093 net.cpp:156] Memory required for data: 949214496
I0403 15:28:07.768596 15093 layer_factory.hpp:77] Creating layer inception_4b/relu_1x1
I0403 15:28:07.768616 15093 net.cpp:91] Creating Layer inception_4b/relu_1x1
I0403 15:28:07.768635 15093 net.cpp:425] inception_4b/relu_1x1 <- inception_4b/1x1
I0403 15:28:07.768652 15093 net.cpp:386] inception_4b/relu_1x1 -> inception_4b/1x1 (in-place)
I0403 15:28:07.768829 15093 net.cpp:141] Setting up inception_4b/relu_1x1
I0403 15:28:07.768858 15093 net.cpp:148] Top shape: 24 160 14 14 (752640)
I0403 15:28:07.768873 15093 net.cpp:156] Memory required for data: 952225056
I0403 15:28:07.768888 15093 layer_factory.hpp:77] Creating layer inception_4b/3x3_reduce
I0403 15:28:07.768911 15093 net.cpp:91] Creating Layer inception_4b/3x3_reduce
I0403 15:28:07.768930 15093 net.cpp:425] inception_4b/3x3_reduce <- inception_4a/output_inception_4a/output_0_split_2
I0403 15:28:07.768952 15093 net.cpp:399] inception_4b/3x3_reduce -> inception_4b/3x3_reduce
I0403 15:28:07.770331 15093 net.cpp:141] Setting up inception_4b/3x3_reduce
I0403 15:28:07.770361 15093 net.cpp:148] Top shape: 24 112 14 14 (526848)
I0403 15:28:07.770377 15093 net.cpp:156] Memory required for data: 954332448
I0403 15:28:07.770396 15093 layer_factory.hpp:77] Creating layer inception_4b/relu_3x3_reduce
I0403 15:28:07.770414 15093 net.cpp:91] Creating Layer inception_4b/relu_3x3_reduce
I0403 15:28:07.770431 15093 net.cpp:425] inception_4b/relu_3x3_reduce <- inception_4b/3x3_reduce
I0403 15:28:07.770452 15093 net.cpp:386] inception_4b/relu_3x3_reduce -> inception_4b/3x3_reduce (in-place)
I0403 15:28:07.770732 15093 net.cpp:141] Setting up inception_4b/relu_3x3_reduce
I0403 15:28:07.770761 15093 net.cpp:148] Top shape: 24 112 14 14 (526848)
I0403 15:28:07.770777 15093 net.cpp:156] Memory required for data: 956439840
I0403 15:28:07.770792 15093 layer_factory.hpp:77] Creating layer inception_4b/3x3
I0403 15:28:07.770815 15093 net.cpp:91] Creating Layer inception_4b/3x3
I0403 15:28:07.770835 15093 net.cpp:425] inception_4b/3x3 <- inception_4b/3x3_reduce
I0403 15:28:07.770856 15093 net.cpp:399] inception_4b/3x3 -> inception_4b/3x3
I0403 15:28:07.773850 15093 net.cpp:141] Setting up inception_4b/3x3
I0403 15:28:07.773883 15093 net.cpp:148] Top shape: 24 224 14 14 (1053696)
I0403 15:28:07.773900 15093 net.cpp:156] Memory required for data: 960654624
I0403 15:28:07.773919 15093 layer_factory.hpp:77] Creating layer inception_4b/relu_3x3
I0403 15:28:07.773939 15093 net.cpp:91] Creating Layer inception_4b/relu_3x3
I0403 15:28:07.773957 15093 net.cpp:425] inception_4b/relu_3x3 <- inception_4b/3x3
I0403 15:28:07.773977 15093 net.cpp:386] inception_4b/relu_3x3 -> inception_4b/3x3 (in-place)
I0403 15:28:07.774160 15093 net.cpp:141] Setting up inception_4b/relu_3x3
I0403 15:28:07.774185 15093 net.cpp:148] Top shape: 24 224 14 14 (1053696)
I0403 15:28:07.774199 15093 net.cpp:156] Memory required for data: 964869408
I0403 15:28:07.774214 15093 layer_factory.hpp:77] Creating layer inception_4b/5x5_reduce
I0403 15:28:07.774236 15093 net.cpp:91] Creating Layer inception_4b/5x5_reduce
I0403 15:28:07.774255 15093 net.cpp:425] inception_4b/5x5_reduce <- inception_4a/output_inception_4a/output_0_split_3
I0403 15:28:07.774277 15093 net.cpp:399] inception_4b/5x5_reduce -> inception_4b/5x5_reduce
I0403 15:28:07.775373 15093 net.cpp:141] Setting up inception_4b/5x5_reduce
I0403 15:28:07.775403 15093 net.cpp:148] Top shape: 24 24 14 14 (112896)
I0403 15:28:07.775419 15093 net.cpp:156] Memory required for data: 965320992
I0403 15:28:07.775439 15093 layer_factory.hpp:77] Creating layer inception_4b/relu_5x5_reduce
I0403 15:28:07.775457 15093 net.cpp:91] Creating Layer inception_4b/relu_5x5_reduce
I0403 15:28:07.775488 15093 net.cpp:425] inception_4b/relu_5x5_reduce <- inception_4b/5x5_reduce
I0403 15:28:07.775511 15093 net.cpp:386] inception_4b/relu_5x5_reduce -> inception_4b/5x5_reduce (in-place)
I0403 15:28:07.775701 15093 net.cpp:141] Setting up inception_4b/relu_5x5_reduce
I0403 15:28:07.775725 15093 net.cpp:148] Top shape: 24 24 14 14 (112896)
I0403 15:28:07.775740 15093 net.cpp:156] Memory required for data: 965772576
I0403 15:28:07.775754 15093 layer_factory.hpp:77] Creating layer inception_4b/5x5
I0403 15:28:07.775776 15093 net.cpp:91] Creating Layer inception_4b/5x5
I0403 15:28:07.775794 15093 net.cpp:425] inception_4b/5x5 <- inception_4b/5x5_reduce
I0403 15:28:07.775815 15093 net.cpp:399] inception_4b/5x5 -> inception_4b/5x5
I0403 15:28:07.777073 15093 net.cpp:141] Setting up inception_4b/5x5
I0403 15:28:07.777101 15093 net.cpp:148] Top shape: 24 64 14 14 (301056)
I0403 15:28:07.777117 15093 net.cpp:156] Memory required for data: 966976800
I0403 15:28:07.777134 15093 layer_factory.hpp:77] Creating layer inception_4b/relu_5x5
I0403 15:28:07.777154 15093 net.cpp:91] Creating Layer inception_4b/relu_5x5
I0403 15:28:07.777170 15093 net.cpp:425] inception_4b/relu_5x5 <- inception_4b/5x5
I0403 15:28:07.777189 15093 net.cpp:386] inception_4b/relu_5x5 -> inception_4b/5x5 (in-place)
I0403 15:28:07.777493 15093 net.cpp:141] Setting up inception_4b/relu_5x5
I0403 15:28:07.777523 15093 net.cpp:148] Top shape: 24 64 14 14 (301056)
I0403 15:28:07.777552 15093 net.cpp:156] Memory required for data: 968181024
I0403 15:28:07.777567 15093 layer_factory.hpp:77] Creating layer inception_4b/pool
I0403 15:28:07.777588 15093 net.cpp:91] Creating Layer inception_4b/pool
I0403 15:28:07.777606 15093 net.cpp:425] inception_4b/pool <- inception_4a/output_inception_4a/output_0_split_4
I0403 15:28:07.777637 15093 net.cpp:399] inception_4b/pool -> inception_4b/pool
I0403 15:28:07.777704 15093 net.cpp:141] Setting up inception_4b/pool
I0403 15:28:07.777729 15093 net.cpp:148] Top shape: 24 512 14 14 (2408448)
I0403 15:28:07.777745 15093 net.cpp:156] Memory required for data: 977814816
I0403 15:28:07.777760 15093 layer_factory.hpp:77] Creating layer inception_4b/pool_proj
I0403 15:28:07.777782 15093 net.cpp:91] Creating Layer inception_4b/pool_proj
I0403 15:28:07.777801 15093 net.cpp:425] inception_4b/pool_proj <- inception_4b/pool
I0403 15:28:07.777822 15093 net.cpp:399] inception_4b/pool_proj -> inception_4b/pool_proj
I0403 15:28:07.779072 15093 net.cpp:141] Setting up inception_4b/pool_proj
I0403 15:28:07.779099 15093 net.cpp:148] Top shape: 24 64 14 14 (301056)
I0403 15:28:07.779116 15093 net.cpp:156] Memory required for data: 979019040
I0403 15:28:07.779134 15093 layer_factory.hpp:77] Creating layer inception_4b/relu_pool_proj
I0403 15:28:07.779155 15093 net.cpp:91] Creating Layer inception_4b/relu_pool_proj
I0403 15:28:07.779173 15093 net.cpp:425] inception_4b/relu_pool_proj <- inception_4b/pool_proj
I0403 15:28:07.779191 15093 net.cpp:386] inception_4b/relu_pool_proj -> inception_4b/pool_proj (in-place)
I0403 15:28:07.779374 15093 net.cpp:141] Setting up inception_4b/relu_pool_proj
I0403 15:28:07.779400 15093 net.cpp:148] Top shape: 24 64 14 14 (301056)
I0403 15:28:07.779415 15093 net.cpp:156] Memory required for data: 980223264
I0403 15:28:07.779430 15093 layer_factory.hpp:77] Creating layer inception_4b/output
I0403 15:28:07.779448 15093 net.cpp:91] Creating Layer inception_4b/output
I0403 15:28:07.779464 15093 net.cpp:425] inception_4b/output <- inception_4b/1x1
I0403 15:28:07.779479 15093 net.cpp:425] inception_4b/output <- inception_4b/3x3
I0403 15:28:07.779495 15093 net.cpp:425] inception_4b/output <- inception_4b/5x5
I0403 15:28:07.779516 15093 net.cpp:425] inception_4b/output <- inception_4b/pool_proj
I0403 15:28:07.779537 15093 net.cpp:399] inception_4b/output -> inception_4b/output
I0403 15:28:07.779583 15093 net.cpp:141] Setting up inception_4b/output
I0403 15:28:07.779609 15093 net.cpp:148] Top shape: 24 512 14 14 (2408448)
I0403 15:28:07.779625 15093 net.cpp:156] Memory required for data: 989857056
I0403 15:28:07.779654 15093 layer_factory.hpp:77] Creating layer inception_4b/output_inception_4b/output_0_split
I0403 15:28:07.779672 15093 net.cpp:91] Creating Layer inception_4b/output_inception_4b/output_0_split
I0403 15:28:07.779688 15093 net.cpp:425] inception_4b/output_inception_4b/output_0_split <- inception_4b/output
I0403 15:28:07.779706 15093 net.cpp:399] inception_4b/output_inception_4b/output_0_split -> inception_4b/output_inception_4b/output_0_split_0
I0403 15:28:07.779726 15093 net.cpp:399] inception_4b/output_inception_4b/output_0_split -> inception_4b/output_inception_4b/output_0_split_1
I0403 15:28:07.779747 15093 net.cpp:399] inception_4b/output_inception_4b/output_0_split -> inception_4b/output_inception_4b/output_0_split_2
I0403 15:28:07.779769 15093 net.cpp:399] inception_4b/output_inception_4b/output_0_split -> inception_4b/output_inception_4b/output_0_split_3
I0403 15:28:07.779855 15093 net.cpp:141] Setting up inception_4b/output_inception_4b/output_0_split
I0403 15:28:07.779877 15093 net.cpp:148] Top shape: 24 512 14 14 (2408448)
I0403 15:28:07.779894 15093 net.cpp:148] Top shape: 24 512 14 14 (2408448)
I0403 15:28:07.779909 15093 net.cpp:148] Top shape: 24 512 14 14 (2408448)
I0403 15:28:07.779924 15093 net.cpp:148] Top shape: 24 512 14 14 (2408448)
I0403 15:28:07.779938 15093 net.cpp:156] Memory required for data: 1028392224
I0403 15:28:07.779953 15093 layer_factory.hpp:77] Creating layer inception_4c/1x1
I0403 15:28:07.779974 15093 net.cpp:91] Creating Layer inception_4c/1x1
I0403 15:28:07.779991 15093 net.cpp:425] inception_4c/1x1 <- inception_4b/output_inception_4b/output_0_split_0
I0403 15:28:07.780012 15093 net.cpp:399] inception_4c/1x1 -> inception_4c/1x1
I0403 15:28:07.781447 15093 net.cpp:141] Setting up inception_4c/1x1
I0403 15:28:07.781476 15093 net.cpp:148] Top shape: 24 128 14 14 (602112)
I0403 15:28:07.781493 15093 net.cpp:156] Memory required for data: 1030800672
I0403 15:28:07.781517 15093 layer_factory.hpp:77] Creating layer inception_4c/relu_1x1
I0403 15:28:07.781536 15093 net.cpp:91] Creating Layer inception_4c/relu_1x1
I0403 15:28:07.781553 15093 net.cpp:425] inception_4c/relu_1x1 <- inception_4c/1x1
I0403 15:28:07.781571 15093 net.cpp:386] inception_4c/relu_1x1 -> inception_4c/1x1 (in-place)
I0403 15:28:07.781754 15093 net.cpp:141] Setting up inception_4c/relu_1x1
I0403 15:28:07.781777 15093 net.cpp:148] Top shape: 24 128 14 14 (602112)
I0403 15:28:07.781792 15093 net.cpp:156] Memory required for data: 1033209120
I0403 15:28:07.781807 15093 layer_factory.hpp:77] Creating layer inception_4c/3x3_reduce
I0403 15:28:07.781829 15093 net.cpp:91] Creating Layer inception_4c/3x3_reduce
I0403 15:28:07.781847 15093 net.cpp:425] inception_4c/3x3_reduce <- inception_4b/output_inception_4b/output_0_split_1
I0403 15:28:07.781868 15093 net.cpp:399] inception_4c/3x3_reduce -> inception_4c/3x3_reduce
I0403 15:28:07.783820 15093 net.cpp:141] Setting up inception_4c/3x3_reduce
I0403 15:28:07.783850 15093 net.cpp:148] Top shape: 24 128 14 14 (602112)
I0403 15:28:07.783867 15093 net.cpp:156] Memory required for data: 1035617568
I0403 15:28:07.783886 15093 layer_factory.hpp:77] Creating layer inception_4c/relu_3x3_reduce
I0403 15:28:07.783907 15093 net.cpp:91] Creating Layer inception_4c/relu_3x3_reduce
I0403 15:28:07.783942 15093 net.cpp:425] inception_4c/relu_3x3_reduce <- inception_4c/3x3_reduce
I0403 15:28:07.783973 15093 net.cpp:386] inception_4c/relu_3x3_reduce -> inception_4c/3x3_reduce (in-place)
I0403 15:28:07.784271 15093 net.cpp:141] Setting up inception_4c/relu_3x3_reduce
I0403 15:28:07.784296 15093 net.cpp:148] Top shape: 24 128 14 14 (602112)
I0403 15:28:07.784312 15093 net.cpp:156] Memory required for data: 1038026016
I0403 15:28:07.784327 15093 layer_factory.hpp:77] Creating layer inception_4c/3x3
I0403 15:28:07.784348 15093 net.cpp:91] Creating Layer inception_4c/3x3
I0403 15:28:07.784366 15093 net.cpp:425] inception_4c/3x3 <- inception_4c/3x3_reduce
I0403 15:28:07.784387 15093 net.cpp:399] inception_4c/3x3 -> inception_4c/3x3
I0403 15:28:07.787920 15093 net.cpp:141] Setting up inception_4c/3x3
I0403 15:28:07.787961 15093 net.cpp:148] Top shape: 24 256 14 14 (1204224)
I0403 15:28:07.787976 15093 net.cpp:156] Memory required for data: 1042842912
I0403 15:28:07.788007 15093 layer_factory.hpp:77] Creating layer inception_4c/relu_3x3
I0403 15:28:07.788029 15093 net.cpp:91] Creating Layer inception_4c/relu_3x3
I0403 15:28:07.788046 15093 net.cpp:425] inception_4c/relu_3x3 <- inception_4c/3x3
I0403 15:28:07.788066 15093 net.cpp:386] inception_4c/relu_3x3 -> inception_4c/3x3 (in-place)
I0403 15:28:07.788242 15093 net.cpp:141] Setting up inception_4c/relu_3x3
I0403 15:28:07.788272 15093 net.cpp:148] Top shape: 24 256 14 14 (1204224)
I0403 15:28:07.788288 15093 net.cpp:156] Memory required for data: 1047659808
I0403 15:28:07.788302 15093 layer_factory.hpp:77] Creating layer inception_4c/5x5_reduce
I0403 15:28:07.788326 15093 net.cpp:91] Creating Layer inception_4c/5x5_reduce
I0403 15:28:07.788342 15093 net.cpp:425] inception_4c/5x5_reduce <- inception_4b/output_inception_4b/output_0_split_2
I0403 15:28:07.788362 15093 net.cpp:399] inception_4c/5x5_reduce -> inception_4c/5x5_reduce
I0403 15:28:07.789417 15093 net.cpp:141] Setting up inception_4c/5x5_reduce
I0403 15:28:07.789446 15093 net.cpp:148] Top shape: 24 24 14 14 (112896)
I0403 15:28:07.789463 15093 net.cpp:156] Memory required for data: 1048111392
I0403 15:28:07.789480 15093 layer_factory.hpp:77] Creating layer inception_4c/relu_5x5_reduce
I0403 15:28:07.789497 15093 net.cpp:91] Creating Layer inception_4c/relu_5x5_reduce
I0403 15:28:07.789518 15093 net.cpp:425] inception_4c/relu_5x5_reduce <- inception_4c/5x5_reduce
I0403 15:28:07.789536 15093 net.cpp:386] inception_4c/relu_5x5_reduce -> inception_4c/5x5_reduce (in-place)
I0403 15:28:07.789731 15093 net.cpp:141] Setting up inception_4c/relu_5x5_reduce
I0403 15:28:07.789758 15093 net.cpp:148] Top shape: 24 24 14 14 (112896)
I0403 15:28:07.789773 15093 net.cpp:156] Memory required for data: 1048562976
I0403 15:28:07.789788 15093 layer_factory.hpp:77] Creating layer inception_4c/5x5
I0403 15:28:07.789811 15093 net.cpp:91] Creating Layer inception_4c/5x5
I0403 15:28:07.789829 15093 net.cpp:425] inception_4c/5x5 <- inception_4c/5x5_reduce
I0403 15:28:07.789849 15093 net.cpp:399] inception_4c/5x5 -> inception_4c/5x5
I0403 15:28:07.791062 15093 net.cpp:141] Setting up inception_4c/5x5
I0403 15:28:07.791090 15093 net.cpp:148] Top shape: 24 64 14 14 (301056)
I0403 15:28:07.791105 15093 net.cpp:156] Memory required for data: 1049767200
I0403 15:28:07.791124 15093 layer_factory.hpp:77] Creating layer inception_4c/relu_5x5
I0403 15:28:07.791141 15093 net.cpp:91] Creating Layer inception_4c/relu_5x5
I0403 15:28:07.791157 15093 net.cpp:425] inception_4c/relu_5x5 <- inception_4c/5x5
I0403 15:28:07.791175 15093 net.cpp:386] inception_4c/relu_5x5 -> inception_4c/5x5 (in-place)
I0403 15:28:07.791455 15093 net.cpp:141] Setting up inception_4c/relu_5x5
I0403 15:28:07.791479 15093 net.cpp:148] Top shape: 24 64 14 14 (301056)
I0403 15:28:07.791494 15093 net.cpp:156] Memory required for data: 1050971424
I0403 15:28:07.791512 15093 layer_factory.hpp:77] Creating layer inception_4c/pool
I0403 15:28:07.791532 15093 net.cpp:91] Creating Layer inception_4c/pool
I0403 15:28:07.791548 15093 net.cpp:425] inception_4c/pool <- inception_4b/output_inception_4b/output_0_split_3
I0403 15:28:07.791566 15093 net.cpp:399] inception_4c/pool -> inception_4c/pool
I0403 15:28:07.791630 15093 net.cpp:141] Setting up inception_4c/pool
I0403 15:28:07.791654 15093 net.cpp:148] Top shape: 24 512 14 14 (2408448)
I0403 15:28:07.791668 15093 net.cpp:156] Memory required for data: 1060605216
I0403 15:28:07.791682 15093 layer_factory.hpp:77] Creating layer inception_4c/pool_proj
I0403 15:28:07.791707 15093 net.cpp:91] Creating Layer inception_4c/pool_proj
I0403 15:28:07.791724 15093 net.cpp:425] inception_4c/pool_proj <- inception_4c/pool
I0403 15:28:07.791743 15093 net.cpp:399] inception_4c/pool_proj -> inception_4c/pool_proj
I0403 15:28:07.792924 15093 net.cpp:141] Setting up inception_4c/pool_proj
I0403 15:28:07.792950 15093 net.cpp:148] Top shape: 24 64 14 14 (301056)
I0403 15:28:07.792979 15093 net.cpp:156] Memory required for data: 1061809440
I0403 15:28:07.792999 15093 layer_factory.hpp:77] Creating layer inception_4c/relu_pool_proj
I0403 15:28:07.793018 15093 net.cpp:91] Creating Layer inception_4c/relu_pool_proj
I0403 15:28:07.793035 15093 net.cpp:425] inception_4c/relu_pool_proj <- inception_4c/pool_proj
I0403 15:28:07.793051 15093 net.cpp:386] inception_4c/relu_pool_proj -> inception_4c/pool_proj (in-place)
I0403 15:28:07.793228 15093 net.cpp:141] Setting up inception_4c/relu_pool_proj
I0403 15:28:07.793252 15093 net.cpp:148] Top shape: 24 64 14 14 (301056)
I0403 15:28:07.793267 15093 net.cpp:156] Memory required for data: 1063013664
I0403 15:28:07.793282 15093 layer_factory.hpp:77] Creating layer inception_4c/output
I0403 15:28:07.793298 15093 net.cpp:91] Creating Layer inception_4c/output
I0403 15:28:07.793314 15093 net.cpp:425] inception_4c/output <- inception_4c/1x1
I0403 15:28:07.793330 15093 net.cpp:425] inception_4c/output <- inception_4c/3x3
I0403 15:28:07.793346 15093 net.cpp:425] inception_4c/output <- inception_4c/5x5
I0403 15:28:07.793361 15093 net.cpp:425] inception_4c/output <- inception_4c/pool_proj
I0403 15:28:07.793380 15093 net.cpp:399] inception_4c/output -> inception_4c/output
I0403 15:28:07.793426 15093 net.cpp:141] Setting up inception_4c/output
I0403 15:28:07.793450 15093 net.cpp:148] Top shape: 24 512 14 14 (2408448)
I0403 15:28:07.793465 15093 net.cpp:156] Memory required for data: 1072647456
I0403 15:28:07.793480 15093 layer_factory.hpp:77] Creating layer inception_4c/output_inception_4c/output_0_split
I0403 15:28:07.793496 15093 net.cpp:91] Creating Layer inception_4c/output_inception_4c/output_0_split
I0403 15:28:07.793516 15093 net.cpp:425] inception_4c/output_inception_4c/output_0_split <- inception_4c/output
I0403 15:28:07.793534 15093 net.cpp:399] inception_4c/output_inception_4c/output_0_split -> inception_4c/output_inception_4c/output_0_split_0
I0403 15:28:07.793555 15093 net.cpp:399] inception_4c/output_inception_4c/output_0_split -> inception_4c/output_inception_4c/output_0_split_1
I0403 15:28:07.793576 15093 net.cpp:399] inception_4c/output_inception_4c/output_0_split -> inception_4c/output_inception_4c/output_0_split_2
I0403 15:28:07.793597 15093 net.cpp:399] inception_4c/output_inception_4c/output_0_split -> inception_4c/output_inception_4c/output_0_split_3
I0403 15:28:07.793683 15093 net.cpp:141] Setting up inception_4c/output_inception_4c/output_0_split
I0403 15:28:07.793706 15093 net.cpp:148] Top shape: 24 512 14 14 (2408448)
I0403 15:28:07.793725 15093 net.cpp:148] Top shape: 24 512 14 14 (2408448)
I0403 15:28:07.793741 15093 net.cpp:148] Top shape: 24 512 14 14 (2408448)
I0403 15:28:07.793756 15093 net.cpp:148] Top shape: 24 512 14 14 (2408448)
I0403 15:28:07.793769 15093 net.cpp:156] Memory required for data: 1111182624
I0403 15:28:07.793786 15093 layer_factory.hpp:77] Creating layer inception_4d/1x1
I0403 15:28:07.793807 15093 net.cpp:91] Creating Layer inception_4d/1x1
I0403 15:28:07.793824 15093 net.cpp:425] inception_4d/1x1 <- inception_4c/output_inception_4c/output_0_split_0
I0403 15:28:07.793844 15093 net.cpp:399] inception_4d/1x1 -> inception_4d/1x1
I0403 15:28:07.795248 15093 net.cpp:141] Setting up inception_4d/1x1
I0403 15:28:07.795277 15093 net.cpp:148] Top shape: 24 112 14 14 (526848)
I0403 15:28:07.795292 15093 net.cpp:156] Memory required for data: 1113290016
I0403 15:28:07.795310 15093 layer_factory.hpp:77] Creating layer inception_4d/relu_1x1
I0403 15:28:07.795331 15093 net.cpp:91] Creating Layer inception_4d/relu_1x1
I0403 15:28:07.795348 15093 net.cpp:425] inception_4d/relu_1x1 <- inception_4d/1x1
I0403 15:28:07.795366 15093 net.cpp:386] inception_4d/relu_1x1 -> inception_4d/1x1 (in-place)
I0403 15:28:07.795552 15093 net.cpp:141] Setting up inception_4d/relu_1x1
I0403 15:28:07.795583 15093 net.cpp:148] Top shape: 24 112 14 14 (526848)
I0403 15:28:07.795603 15093 net.cpp:156] Memory required for data: 1115397408
I0403 15:28:07.795619 15093 layer_factory.hpp:77] Creating layer inception_4d/3x3_reduce
I0403 15:28:07.795655 15093 net.cpp:91] Creating Layer inception_4d/3x3_reduce
I0403 15:28:07.795675 15093 net.cpp:425] inception_4d/3x3_reduce <- inception_4c/output_inception_4c/output_0_split_1
I0403 15:28:07.795697 15093 net.cpp:399] inception_4d/3x3_reduce -> inception_4d/3x3_reduce
I0403 15:28:07.797217 15093 net.cpp:141] Setting up inception_4d/3x3_reduce
I0403 15:28:07.797245 15093 net.cpp:148] Top shape: 24 144 14 14 (677376)
I0403 15:28:07.797263 15093 net.cpp:156] Memory required for data: 1118106912
I0403 15:28:07.797282 15093 layer_factory.hpp:77] Creating layer inception_4d/relu_3x3_reduce
I0403 15:28:07.797300 15093 net.cpp:91] Creating Layer inception_4d/relu_3x3_reduce
I0403 15:28:07.797317 15093 net.cpp:425] inception_4d/relu_3x3_reduce <- inception_4d/3x3_reduce
I0403 15:28:07.797338 15093 net.cpp:386] inception_4d/relu_3x3_reduce -> inception_4d/3x3_reduce (in-place)
I0403 15:28:07.797628 15093 net.cpp:141] Setting up inception_4d/relu_3x3_reduce
I0403 15:28:07.797657 15093 net.cpp:148] Top shape: 24 144 14 14 (677376)
I0403 15:28:07.797673 15093 net.cpp:156] Memory required for data: 1120816416
I0403 15:28:07.797689 15093 layer_factory.hpp:77] Creating layer inception_4d/3x3
I0403 15:28:07.797713 15093 net.cpp:91] Creating Layer inception_4d/3x3
I0403 15:28:07.797734 15093 net.cpp:425] inception_4d/3x3 <- inception_4d/3x3_reduce
I0403 15:28:07.797755 15093 net.cpp:399] inception_4d/3x3 -> inception_4d/3x3
I0403 15:28:07.802072 15093 net.cpp:141] Setting up inception_4d/3x3
I0403 15:28:07.802099 15093 net.cpp:148] Top shape: 24 288 14 14 (1354752)
I0403 15:28:07.802115 15093 net.cpp:156] Memory required for data: 1126235424
I0403 15:28:07.802134 15093 layer_factory.hpp:77] Creating layer inception_4d/relu_3x3
I0403 15:28:07.802153 15093 net.cpp:91] Creating Layer inception_4d/relu_3x3
I0403 15:28:07.802171 15093 net.cpp:425] inception_4d/relu_3x3 <- inception_4d/3x3
I0403 15:28:07.802189 15093 net.cpp:386] inception_4d/relu_3x3 -> inception_4d/3x3 (in-place)
I0403 15:28:07.802372 15093 net.cpp:141] Setting up inception_4d/relu_3x3
I0403 15:28:07.802400 15093 net.cpp:148] Top shape: 24 288 14 14 (1354752)
I0403 15:28:07.802417 15093 net.cpp:156] Memory required for data: 1131654432
I0403 15:28:07.802431 15093 layer_factory.hpp:77] Creating layer inception_4d/5x5_reduce
I0403 15:28:07.802453 15093 net.cpp:91] Creating Layer inception_4d/5x5_reduce
I0403 15:28:07.802470 15093 net.cpp:425] inception_4d/5x5_reduce <- inception_4c/output_inception_4c/output_0_split_2
I0403 15:28:07.802490 15093 net.cpp:399] inception_4d/5x5_reduce -> inception_4d/5x5_reduce
I0403 15:28:07.803689 15093 net.cpp:141] Setting up inception_4d/5x5_reduce
I0403 15:28:07.803719 15093 net.cpp:148] Top shape: 24 32 14 14 (150528)
I0403 15:28:07.803736 15093 net.cpp:156] Memory required for data: 1132256544
I0403 15:28:07.803756 15093 layer_factory.hpp:77] Creating layer inception_4d/relu_5x5_reduce
I0403 15:28:07.803779 15093 net.cpp:91] Creating Layer inception_4d/relu_5x5_reduce
I0403 15:28:07.803797 15093 net.cpp:425] inception_4d/relu_5x5_reduce <- inception_4d/5x5_reduce
I0403 15:28:07.803817 15093 net.cpp:386] inception_4d/relu_5x5_reduce -> inception_4d/5x5_reduce (in-place)
I0403 15:28:07.804019 15093 net.cpp:141] Setting up inception_4d/relu_5x5_reduce
I0403 15:28:07.804047 15093 net.cpp:148] Top shape: 24 32 14 14 (150528)
I0403 15:28:07.804064 15093 net.cpp:156] Memory required for data: 1132858656
I0403 15:28:07.804080 15093 layer_factory.hpp:77] Creating layer inception_4d/5x5
I0403 15:28:07.804105 15093 net.cpp:91] Creating Layer inception_4d/5x5
I0403 15:28:07.804121 15093 net.cpp:425] inception_4d/5x5 <- inception_4d/5x5_reduce
I0403 15:28:07.804141 15093 net.cpp:399] inception_4d/5x5 -> inception_4d/5x5
I0403 15:28:07.805666 15093 net.cpp:141] Setting up inception_4d/5x5
I0403 15:28:07.805697 15093 net.cpp:148] Top shape: 24 64 14 14 (301056)
I0403 15:28:07.805714 15093 net.cpp:156] Memory required for data: 1134062880
I0403 15:28:07.805734 15093 layer_factory.hpp:77] Creating layer inception_4d/relu_5x5
I0403 15:28:07.805768 15093 net.cpp:91] Creating Layer inception_4d/relu_5x5
I0403 15:28:07.805785 15093 net.cpp:425] inception_4d/relu_5x5 <- inception_4d/5x5
I0403 15:28:07.805804 15093 net.cpp:386] inception_4d/relu_5x5 -> inception_4d/5x5 (in-place)
I0403 15:28:07.806119 15093 net.cpp:141] Setting up inception_4d/relu_5x5
I0403 15:28:07.806148 15093 net.cpp:148] Top shape: 24 64 14 14 (301056)
I0403 15:28:07.806164 15093 net.cpp:156] Memory required for data: 1135267104
I0403 15:28:07.806180 15093 layer_factory.hpp:77] Creating layer inception_4d/pool
I0403 15:28:07.806196 15093 net.cpp:91] Creating Layer inception_4d/pool
I0403 15:28:07.806213 15093 net.cpp:425] inception_4d/pool <- inception_4c/output_inception_4c/output_0_split_3
I0403 15:28:07.806233 15093 net.cpp:399] inception_4d/pool -> inception_4d/pool
I0403 15:28:07.806301 15093 net.cpp:141] Setting up inception_4d/pool
I0403 15:28:07.806325 15093 net.cpp:148] Top shape: 24 512 14 14 (2408448)
I0403 15:28:07.806342 15093 net.cpp:156] Memory required for data: 1144900896
I0403 15:28:07.806359 15093 layer_factory.hpp:77] Creating layer inception_4d/pool_proj
I0403 15:28:07.806541 15093 net.cpp:91] Creating Layer inception_4d/pool_proj
I0403 15:28:07.806596 15093 net.cpp:425] inception_4d/pool_proj <- inception_4d/pool
I0403 15:28:07.806630 15093 net.cpp:399] inception_4d/pool_proj -> inception_4d/pool_proj
I0403 15:28:07.808442 15093 net.cpp:141] Setting up inception_4d/pool_proj
I0403 15:28:07.808471 15093 net.cpp:148] Top shape: 24 64 14 14 (301056)
I0403 15:28:07.808488 15093 net.cpp:156] Memory required for data: 1146105120
I0403 15:28:07.808511 15093 layer_factory.hpp:77] Creating layer inception_4d/relu_pool_proj
I0403 15:28:07.808534 15093 net.cpp:91] Creating Layer inception_4d/relu_pool_proj
I0403 15:28:07.808552 15093 net.cpp:425] inception_4d/relu_pool_proj <- inception_4d/pool_proj
I0403 15:28:07.808570 15093 net.cpp:386] inception_4d/relu_pool_proj -> inception_4d/pool_proj (in-place)
I0403 15:28:07.808789 15093 net.cpp:141] Setting up inception_4d/relu_pool_proj
I0403 15:28:07.808817 15093 net.cpp:148] Top shape: 24 64 14 14 (301056)
I0403 15:28:07.808835 15093 net.cpp:156] Memory required for data: 1147309344
I0403 15:28:07.808851 15093 layer_factory.hpp:77] Creating layer inception_4d/output
I0403 15:28:07.808879 15093 net.cpp:91] Creating Layer inception_4d/output
I0403 15:28:07.808897 15093 net.cpp:425] inception_4d/output <- inception_4d/1x1
I0403 15:28:07.808914 15093 net.cpp:425] inception_4d/output <- inception_4d/3x3
I0403 15:28:07.808943 15093 net.cpp:425] inception_4d/output <- inception_4d/5x5
I0403 15:28:07.808959 15093 net.cpp:425] inception_4d/output <- inception_4d/pool_proj
I0403 15:28:07.808977 15093 net.cpp:399] inception_4d/output -> inception_4d/output
I0403 15:28:07.809029 15093 net.cpp:141] Setting up inception_4d/output
I0403 15:28:07.809054 15093 net.cpp:148] Top shape: 24 528 14 14 (2483712)
I0403 15:28:07.809068 15093 net.cpp:156] Memory required for data: 1157244192
I0403 15:28:07.809083 15093 layer_factory.hpp:77] Creating layer inception_4d/output_inception_4d/output_0_split
I0403 15:28:07.809100 15093 net.cpp:91] Creating Layer inception_4d/output_inception_4d/output_0_split
I0403 15:28:07.809116 15093 net.cpp:425] inception_4d/output_inception_4d/output_0_split <- inception_4d/output
I0403 15:28:07.809136 15093 net.cpp:399] inception_4d/output_inception_4d/output_0_split -> inception_4d/output_inception_4d/output_0_split_0
I0403 15:28:07.809157 15093 net.cpp:399] inception_4d/output_inception_4d/output_0_split -> inception_4d/output_inception_4d/output_0_split_1
I0403 15:28:07.809178 15093 net.cpp:399] inception_4d/output_inception_4d/output_0_split -> inception_4d/output_inception_4d/output_0_split_2
I0403 15:28:07.809204 15093 net.cpp:399] inception_4d/output_inception_4d/output_0_split -> inception_4d/output_inception_4d/output_0_split_3
I0403 15:28:07.809224 15093 net.cpp:399] inception_4d/output_inception_4d/output_0_split -> inception_4d/output_inception_4d/output_0_split_4
I0403 15:28:07.809325 15093 net.cpp:141] Setting up inception_4d/output_inception_4d/output_0_split
I0403 15:28:07.809361 15093 net.cpp:148] Top shape: 24 528 14 14 (2483712)
I0403 15:28:07.809378 15093 net.cpp:148] Top shape: 24 528 14 14 (2483712)
I0403 15:28:07.809394 15093 net.cpp:148] Top shape: 24 528 14 14 (2483712)
I0403 15:28:07.809409 15093 net.cpp:148] Top shape: 24 528 14 14 (2483712)
I0403 15:28:07.809425 15093 net.cpp:148] Top shape: 24 528 14 14 (2483712)
I0403 15:28:07.809440 15093 net.cpp:156] Memory required for data: 1206918432
I0403 15:28:07.809454 15093 layer_factory.hpp:77] Creating layer loss2/ave_pool
I0403 15:28:07.809473 15093 net.cpp:91] Creating Layer loss2/ave_pool
I0403 15:28:07.809489 15093 net.cpp:425] loss2/ave_pool <- inception_4d/output_inception_4d/output_0_split_0
I0403 15:28:07.809512 15093 net.cpp:399] loss2/ave_pool -> loss2/ave_pool
I0403 15:28:07.809829 15093 net.cpp:141] Setting up loss2/ave_pool
I0403 15:28:07.809855 15093 net.cpp:148] Top shape: 24 528 4 4 (202752)
I0403 15:28:07.809871 15093 net.cpp:156] Memory required for data: 1207729440
I0403 15:28:07.809885 15093 layer_factory.hpp:77] Creating layer loss2/conv
I0403 15:28:07.809907 15093 net.cpp:91] Creating Layer loss2/conv
I0403 15:28:07.809926 15093 net.cpp:425] loss2/conv <- loss2/ave_pool
I0403 15:28:07.809947 15093 net.cpp:399] loss2/conv -> loss2/conv
I0403 15:28:07.811854 15093 net.cpp:141] Setting up loss2/conv
I0403 15:28:07.811884 15093 net.cpp:148] Top shape: 24 128 4 4 (49152)
I0403 15:28:07.811902 15093 net.cpp:156] Memory required for data: 1207926048
I0403 15:28:07.811919 15093 layer_factory.hpp:77] Creating layer loss2/relu_conv
I0403 15:28:07.811939 15093 net.cpp:91] Creating Layer loss2/relu_conv
I0403 15:28:07.811954 15093 net.cpp:425] loss2/relu_conv <- loss2/conv
I0403 15:28:07.811975 15093 net.cpp:386] loss2/relu_conv -> loss2/conv (in-place)
I0403 15:28:07.812283 15093 net.cpp:141] Setting up loss2/relu_conv
I0403 15:28:07.812340 15093 net.cpp:148] Top shape: 24 128 4 4 (49152)
I0403 15:28:07.812358 15093 net.cpp:156] Memory required for data: 1208122656
I0403 15:28:07.812373 15093 layer_factory.hpp:77] Creating layer loss2/fc
I0403 15:28:07.812392 15093 net.cpp:91] Creating Layer loss2/fc
I0403 15:28:07.812409 15093 net.cpp:425] loss2/fc <- loss2/conv
I0403 15:28:07.812432 15093 net.cpp:399] loss2/fc -> loss2/fc
I0403 15:28:07.829766 15093 net.cpp:141] Setting up loss2/fc
I0403 15:28:07.829804 15093 net.cpp:148] Top shape: 24 1024 (24576)
I0403 15:28:07.829820 15093 net.cpp:156] Memory required for data: 1208220960
I0403 15:28:07.829840 15093 layer_factory.hpp:77] Creating layer loss2/relu_fc
I0403 15:28:07.829861 15093 net.cpp:91] Creating Layer loss2/relu_fc
I0403 15:28:07.829879 15093 net.cpp:425] loss2/relu_fc <- loss2/fc
I0403 15:28:07.829896 15093 net.cpp:386] loss2/relu_fc -> loss2/fc (in-place)
I0403 15:28:07.830210 15093 net.cpp:141] Setting up loss2/relu_fc
I0403 15:28:07.830236 15093 net.cpp:148] Top shape: 24 1024 (24576)
I0403 15:28:07.830253 15093 net.cpp:156] Memory required for data: 1208319264
I0403 15:28:07.830268 15093 layer_factory.hpp:77] Creating layer loss2/drop_fc
I0403 15:28:07.830291 15093 net.cpp:91] Creating Layer loss2/drop_fc
I0403 15:28:07.830308 15093 net.cpp:425] loss2/drop_fc <- loss2/fc
I0403 15:28:07.830327 15093 net.cpp:386] loss2/drop_fc -> loss2/fc (in-place)
I0403 15:28:07.830380 15093 net.cpp:141] Setting up loss2/drop_fc
I0403 15:28:07.830404 15093 net.cpp:148] Top shape: 24 1024 (24576)
I0403 15:28:07.830420 15093 net.cpp:156] Memory required for data: 1208417568
I0403 15:28:07.830436 15093 layer_factory.hpp:77] Creating layer loss2/classifier_plantvillage
I0403 15:28:07.830454 15093 net.cpp:91] Creating Layer loss2/classifier_plantvillage
I0403 15:28:07.830471 15093 net.cpp:425] loss2/classifier_plantvillage <- loss2/fc
I0403 15:28:07.830494 15093 net.cpp:399] loss2/classifier_plantvillage -> loss2/classifier_plantvillage
I0403 15:28:07.830909 15093 net.cpp:141] Setting up loss2/classifier_plantvillage
I0403 15:28:07.830934 15093 net.cpp:148] Top shape: 24 38 (912)
I0403 15:28:07.830948 15093 net.cpp:156] Memory required for data: 1208421216
I0403 15:28:07.830986 15093 layer_factory.hpp:77] Creating layer loss2/classifier_plantvillage_loss2/classifier_plantvillage_0_split
I0403 15:28:07.831004 15093 net.cpp:91] Creating Layer loss2/classifier_plantvillage_loss2/classifier_plantvillage_0_split
I0403 15:28:07.831022 15093 net.cpp:425] loss2/classifier_plantvillage_loss2/classifier_plantvillage_0_split <- loss2/classifier_plantvillage
I0403 15:28:07.831043 15093 net.cpp:399] loss2/classifier_plantvillage_loss2/classifier_plantvillage_0_split -> loss2/classifier_plantvillage_loss2/classifier_plantvillage_0_split_0
I0403 15:28:07.831064 15093 net.cpp:399] loss2/classifier_plantvillage_loss2/classifier_plantvillage_0_split -> loss2/classifier_plantvillage_loss2/classifier_plantvillage_0_split_1
I0403 15:28:07.831086 15093 net.cpp:399] loss2/classifier_plantvillage_loss2/classifier_plantvillage_0_split -> loss2/classifier_plantvillage_loss2/classifier_plantvillage_0_split_2
I0403 15:28:07.831164 15093 net.cpp:141] Setting up loss2/classifier_plantvillage_loss2/classifier_plantvillage_0_split
I0403 15:28:07.831190 15093 net.cpp:148] Top shape: 24 38 (912)
I0403 15:28:07.831208 15093 net.cpp:148] Top shape: 24 38 (912)
I0403 15:28:07.831224 15093 net.cpp:148] Top shape: 24 38 (912)
I0403 15:28:07.831239 15093 net.cpp:156] Memory required for data: 1208432160
I0403 15:28:07.831254 15093 layer_factory.hpp:77] Creating layer inception_4e/1x1
I0403 15:28:07.831277 15093 net.cpp:91] Creating Layer inception_4e/1x1
I0403 15:28:07.831295 15093 net.cpp:425] inception_4e/1x1 <- inception_4d/output_inception_4d/output_0_split_1
I0403 15:28:07.831316 15093 net.cpp:399] inception_4e/1x1 -> inception_4e/1x1
I0403 15:28:07.833150 15093 net.cpp:141] Setting up inception_4e/1x1
I0403 15:28:07.833178 15093 net.cpp:148] Top shape: 24 256 14 14 (1204224)
I0403 15:28:07.833194 15093 net.cpp:156] Memory required for data: 1213249056
I0403 15:28:07.833212 15093 layer_factory.hpp:77] Creating layer inception_4e/relu_1x1
I0403 15:28:07.833231 15093 net.cpp:91] Creating Layer inception_4e/relu_1x1
I0403 15:28:07.833247 15093 net.cpp:425] inception_4e/relu_1x1 <- inception_4e/1x1
I0403 15:28:07.833268 15093 net.cpp:386] inception_4e/relu_1x1 -> inception_4e/1x1 (in-place)
I0403 15:28:07.833570 15093 net.cpp:141] Setting up inception_4e/relu_1x1
I0403 15:28:07.833597 15093 net.cpp:148] Top shape: 24 256 14 14 (1204224)
I0403 15:28:07.833613 15093 net.cpp:156] Memory required for data: 1218065952
I0403 15:28:07.833629 15093 layer_factory.hpp:77] Creating layer inception_4e/3x3_reduce
I0403 15:28:07.833652 15093 net.cpp:91] Creating Layer inception_4e/3x3_reduce
I0403 15:28:07.833670 15093 net.cpp:425] inception_4e/3x3_reduce <- inception_4d/output_inception_4d/output_0_split_2
I0403 15:28:07.833691 15093 net.cpp:399] inception_4e/3x3_reduce -> inception_4e/3x3_reduce
I0403 15:28:07.835825 15093 net.cpp:141] Setting up inception_4e/3x3_reduce
I0403 15:28:07.835856 15093 net.cpp:148] Top shape: 24 160 14 14 (752640)
I0403 15:28:07.835873 15093 net.cpp:156] Memory required for data: 1221076512
I0403 15:28:07.835892 15093 layer_factory.hpp:77] Creating layer inception_4e/relu_3x3_reduce
I0403 15:28:07.835911 15093 net.cpp:91] Creating Layer inception_4e/relu_3x3_reduce
I0403 15:28:07.835927 15093 net.cpp:425] inception_4e/relu_3x3_reduce <- inception_4e/3x3_reduce
I0403 15:28:07.835947 15093 net.cpp:386] inception_4e/relu_3x3_reduce -> inception_4e/3x3_reduce (in-place)
I0403 15:28:07.836132 15093 net.cpp:141] Setting up inception_4e/relu_3x3_reduce
I0403 15:28:07.836156 15093 net.cpp:148] Top shape: 24 160 14 14 (752640)
I0403 15:28:07.836171 15093 net.cpp:156] Memory required for data: 1224087072
I0403 15:28:07.836186 15093 layer_factory.hpp:77] Creating layer inception_4e/3x3
I0403 15:28:07.836208 15093 net.cpp:91] Creating Layer inception_4e/3x3
I0403 15:28:07.836226 15093 net.cpp:425] inception_4e/3x3 <- inception_4e/3x3_reduce
I0403 15:28:07.836248 15093 net.cpp:399] inception_4e/3x3 -> inception_4e/3x3
I0403 15:28:07.844455 15093 net.cpp:141] Setting up inception_4e/3x3
I0403 15:28:07.844496 15093 net.cpp:148] Top shape: 24 320 14 14 (1505280)
I0403 15:28:07.844524 15093 net.cpp:156] Memory required for data: 1230108192
I0403 15:28:07.844545 15093 layer_factory.hpp:77] Creating layer inception_4e/relu_3x3
I0403 15:28:07.844564 15093 net.cpp:91] Creating Layer inception_4e/relu_3x3
I0403 15:28:07.844580 15093 net.cpp:425] inception_4e/relu_3x3 <- inception_4e/3x3
I0403 15:28:07.844600 15093 net.cpp:386] inception_4e/relu_3x3 -> inception_4e/3x3 (in-place)
I0403 15:28:07.844895 15093 net.cpp:141] Setting up inception_4e/relu_3x3
I0403 15:28:07.844921 15093 net.cpp:148] Top shape: 24 320 14 14 (1505280)
I0403 15:28:07.844935 15093 net.cpp:156] Memory required for data: 1236129312
I0403 15:28:07.844950 15093 layer_factory.hpp:77] Creating layer inception_4e/5x5_reduce
I0403 15:28:07.844975 15093 net.cpp:91] Creating Layer inception_4e/5x5_reduce
I0403 15:28:07.844993 15093 net.cpp:425] inception_4e/5x5_reduce <- inception_4d/output_inception_4d/output_0_split_3
I0403 15:28:07.845015 15093 net.cpp:399] inception_4e/5x5_reduce -> inception_4e/5x5_reduce
I0403 15:28:07.846062 15093 net.cpp:141] Setting up inception_4e/5x5_reduce
I0403 15:28:07.846091 15093 net.cpp:148] Top shape: 24 32 14 14 (150528)
I0403 15:28:07.846108 15093 net.cpp:156] Memory required for data: 1236731424
I0403 15:28:07.846128 15093 layer_factory.hpp:77] Creating layer inception_4e/relu_5x5_reduce
I0403 15:28:07.846146 15093 net.cpp:91] Creating Layer inception_4e/relu_5x5_reduce
I0403 15:28:07.846163 15093 net.cpp:425] inception_4e/relu_5x5_reduce <- inception_4e/5x5_reduce
I0403 15:28:07.846181 15093 net.cpp:386] inception_4e/relu_5x5_reduce -> inception_4e/5x5_reduce (in-place)
I0403 15:28:07.846472 15093 net.cpp:141] Setting up inception_4e/relu_5x5_reduce
I0403 15:28:07.846500 15093 net.cpp:148] Top shape: 24 32 14 14 (150528)
I0403 15:28:07.846520 15093 net.cpp:156] Memory required for data: 1237333536
I0403 15:28:07.846536 15093 layer_factory.hpp:77] Creating layer inception_4e/5x5
I0403 15:28:07.846577 15093 net.cpp:91] Creating Layer inception_4e/5x5
I0403 15:28:07.846596 15093 net.cpp:425] inception_4e/5x5 <- inception_4e/5x5_reduce
I0403 15:28:07.846616 15093 net.cpp:399] inception_4e/5x5 -> inception_4e/5x5
I0403 15:28:07.848404 15093 net.cpp:141] Setting up inception_4e/5x5
I0403 15:28:07.848431 15093 net.cpp:148] Top shape: 24 128 14 14 (602112)
I0403 15:28:07.848448 15093 net.cpp:156] Memory required for data: 1239741984
I0403 15:28:07.848466 15093 layer_factory.hpp:77] Creating layer inception_4e/relu_5x5
I0403 15:28:07.848486 15093 net.cpp:91] Creating Layer inception_4e/relu_5x5
I0403 15:28:07.848503 15093 net.cpp:425] inception_4e/relu_5x5 <- inception_4e/5x5
I0403 15:28:07.848526 15093 net.cpp:386] inception_4e/relu_5x5 -> inception_4e/5x5 (in-place)
I0403 15:28:07.848717 15093 net.cpp:141] Setting up inception_4e/relu_5x5
I0403 15:28:07.848744 15093 net.cpp:148] Top shape: 24 128 14 14 (602112)
I0403 15:28:07.848760 15093 net.cpp:156] Memory required for data: 1242150432
I0403 15:28:07.848774 15093 layer_factory.hpp:77] Creating layer inception_4e/pool
I0403 15:28:07.848793 15093 net.cpp:91] Creating Layer inception_4e/pool
I0403 15:28:07.848809 15093 net.cpp:425] inception_4e/pool <- inception_4d/output_inception_4d/output_0_split_4
I0403 15:28:07.848829 15093 net.cpp:399] inception_4e/pool -> inception_4e/pool
I0403 15:28:07.848896 15093 net.cpp:141] Setting up inception_4e/pool
I0403 15:28:07.848920 15093 net.cpp:148] Top shape: 24 528 14 14 (2483712)
I0403 15:28:07.848934 15093 net.cpp:156] Memory required for data: 1252085280
I0403 15:28:07.848948 15093 layer_factory.hpp:77] Creating layer inception_4e/pool_proj
I0403 15:28:07.848970 15093 net.cpp:91] Creating Layer inception_4e/pool_proj
I0403 15:28:07.848987 15093 net.cpp:425] inception_4e/pool_proj <- inception_4e/pool
I0403 15:28:07.849007 15093 net.cpp:399] inception_4e/pool_proj -> inception_4e/pool_proj
I0403 15:28:07.850468 15093 net.cpp:141] Setting up inception_4e/pool_proj
I0403 15:28:07.850495 15093 net.cpp:148] Top shape: 24 128 14 14 (602112)
I0403 15:28:07.850528 15093 net.cpp:156] Memory required for data: 1254493728
I0403 15:28:07.850548 15093 layer_factory.hpp:77] Creating layer inception_4e/relu_pool_proj
I0403 15:28:07.850569 15093 net.cpp:91] Creating Layer inception_4e/relu_pool_proj
I0403 15:28:07.850597 15093 net.cpp:425] inception_4e/relu_pool_proj <- inception_4e/pool_proj
I0403 15:28:07.850615 15093 net.cpp:386] inception_4e/relu_pool_proj -> inception_4e/pool_proj (in-place)
I0403 15:28:07.850922 15093 net.cpp:141] Setting up inception_4e/relu_pool_proj
I0403 15:28:07.850949 15093 net.cpp:148] Top shape: 24 128 14 14 (602112)
I0403 15:28:07.850963 15093 net.cpp:156] Memory required for data: 1256902176
I0403 15:28:07.850977 15093 layer_factory.hpp:77] Creating layer inception_4e/output
I0403 15:28:07.850997 15093 net.cpp:91] Creating Layer inception_4e/output
I0403 15:28:07.851014 15093 net.cpp:425] inception_4e/output <- inception_4e/1x1
I0403 15:28:07.851030 15093 net.cpp:425] inception_4e/output <- inception_4e/3x3
I0403 15:28:07.851047 15093 net.cpp:425] inception_4e/output <- inception_4e/5x5
I0403 15:28:07.851063 15093 net.cpp:425] inception_4e/output <- inception_4e/pool_proj
I0403 15:28:07.851079 15093 net.cpp:399] inception_4e/output -> inception_4e/output
I0403 15:28:07.851132 15093 net.cpp:141] Setting up inception_4e/output
I0403 15:28:07.851155 15093 net.cpp:148] Top shape: 24 832 14 14 (3913728)
I0403 15:28:07.851169 15093 net.cpp:156] Memory required for data: 1272557088
I0403 15:28:07.851184 15093 layer_factory.hpp:77] Creating layer pool4/3x3_s2
I0403 15:28:07.851202 15093 net.cpp:91] Creating Layer pool4/3x3_s2
I0403 15:28:07.851217 15093 net.cpp:425] pool4/3x3_s2 <- inception_4e/output
I0403 15:28:07.851238 15093 net.cpp:399] pool4/3x3_s2 -> pool4/3x3_s2
I0403 15:28:07.851303 15093 net.cpp:141] Setting up pool4/3x3_s2
I0403 15:28:07.851328 15093 net.cpp:148] Top shape: 24 832 7 7 (978432)
I0403 15:28:07.851343 15093 net.cpp:156] Memory required for data: 1276470816
I0403 15:28:07.851357 15093 layer_factory.hpp:77] Creating layer pool4/3x3_s2_pool4/3x3_s2_0_split
I0403 15:28:07.851374 15093 net.cpp:91] Creating Layer pool4/3x3_s2_pool4/3x3_s2_0_split
I0403 15:28:07.851389 15093 net.cpp:425] pool4/3x3_s2_pool4/3x3_s2_0_split <- pool4/3x3_s2
I0403 15:28:07.851407 15093 net.cpp:399] pool4/3x3_s2_pool4/3x3_s2_0_split -> pool4/3x3_s2_pool4/3x3_s2_0_split_0
I0403 15:28:07.851428 15093 net.cpp:399] pool4/3x3_s2_pool4/3x3_s2_0_split -> pool4/3x3_s2_pool4/3x3_s2_0_split_1
I0403 15:28:07.851449 15093 net.cpp:399] pool4/3x3_s2_pool4/3x3_s2_0_split -> pool4/3x3_s2_pool4/3x3_s2_0_split_2
I0403 15:28:07.851469 15093 net.cpp:399] pool4/3x3_s2_pool4/3x3_s2_0_split -> pool4/3x3_s2_pool4/3x3_s2_0_split_3
I0403 15:28:07.851562 15093 net.cpp:141] Setting up pool4/3x3_s2_pool4/3x3_s2_0_split
I0403 15:28:07.851584 15093 net.cpp:148] Top shape: 24 832 7 7 (978432)
I0403 15:28:07.851601 15093 net.cpp:148] Top shape: 24 832 7 7 (978432)
I0403 15:28:07.851616 15093 net.cpp:148] Top shape: 24 832 7 7 (978432)
I0403 15:28:07.851631 15093 net.cpp:148] Top shape: 24 832 7 7 (978432)
I0403 15:28:07.851644 15093 net.cpp:156] Memory required for data: 1292125728
I0403 15:28:07.851658 15093 layer_factory.hpp:77] Creating layer inception_5a/1x1
I0403 15:28:07.851680 15093 net.cpp:91] Creating Layer inception_5a/1x1
I0403 15:28:07.851699 15093 net.cpp:425] inception_5a/1x1 <- pool4/3x3_s2_pool4/3x3_s2_0_split_0
I0403 15:28:07.851719 15093 net.cpp:399] inception_5a/1x1 -> inception_5a/1x1
I0403 15:28:07.854532 15093 net.cpp:141] Setting up inception_5a/1x1
I0403 15:28:07.854563 15093 net.cpp:148] Top shape: 24 256 7 7 (301056)
I0403 15:28:07.854578 15093 net.cpp:156] Memory required for data: 1293329952
I0403 15:28:07.854598 15093 layer_factory.hpp:77] Creating layer inception_5a/relu_1x1
I0403 15:28:07.854619 15093 net.cpp:91] Creating Layer inception_5a/relu_1x1
I0403 15:28:07.854637 15093 net.cpp:425] inception_5a/relu_1x1 <- inception_5a/1x1
I0403 15:28:07.854657 15093 net.cpp:386] inception_5a/relu_1x1 -> inception_5a/1x1 (in-place)
I0403 15:28:07.854961 15093 net.cpp:141] Setting up inception_5a/relu_1x1
I0403 15:28:07.854986 15093 net.cpp:148] Top shape: 24 256 7 7 (301056)
I0403 15:28:07.855001 15093 net.cpp:156] Memory required for data: 1294534176
I0403 15:28:07.855015 15093 layer_factory.hpp:77] Creating layer inception_5a/3x3_reduce
I0403 15:28:07.855038 15093 net.cpp:91] Creating Layer inception_5a/3x3_reduce
I0403 15:28:07.855057 15093 net.cpp:425] inception_5a/3x3_reduce <- pool4/3x3_s2_pool4/3x3_s2_0_split_1
I0403 15:28:07.855075 15093 net.cpp:399] inception_5a/3x3_reduce -> inception_5a/3x3_reduce
I0403 15:28:07.857486 15093 net.cpp:141] Setting up inception_5a/3x3_reduce
I0403 15:28:07.857520 15093 net.cpp:148] Top shape: 24 160 7 7 (188160)
I0403 15:28:07.857538 15093 net.cpp:156] Memory required for data: 1295286816
I0403 15:28:07.857558 15093 layer_factory.hpp:77] Creating layer inception_5a/relu_3x3_reduce
I0403 15:28:07.857578 15093 net.cpp:91] Creating Layer inception_5a/relu_3x3_reduce
I0403 15:28:07.857595 15093 net.cpp:425] inception_5a/relu_3x3_reduce <- inception_5a/3x3_reduce
I0403 15:28:07.857614 15093 net.cpp:386] inception_5a/relu_3x3_reduce -> inception_5a/3x3_reduce (in-place)
I0403 15:28:07.857800 15093 net.cpp:141] Setting up inception_5a/relu_3x3_reduce
I0403 15:28:07.857825 15093 net.cpp:148] Top shape: 24 160 7 7 (188160)
I0403 15:28:07.857839 15093 net.cpp:156] Memory required for data: 1296039456
I0403 15:28:07.857853 15093 layer_factory.hpp:77] Creating layer inception_5a/3x3
I0403 15:28:07.857877 15093 net.cpp:91] Creating Layer inception_5a/3x3
I0403 15:28:07.857895 15093 net.cpp:425] inception_5a/3x3 <- inception_5a/3x3_reduce
I0403 15:28:07.857913 15093 net.cpp:399] inception_5a/3x3 -> inception_5a/3x3
I0403 15:28:07.863095 15093 net.cpp:141] Setting up inception_5a/3x3
I0403 15:28:07.863127 15093 net.cpp:148] Top shape: 24 320 7 7 (376320)
I0403 15:28:07.863145 15093 net.cpp:156] Memory required for data: 1297544736
I0403 15:28:07.863165 15093 layer_factory.hpp:77] Creating layer inception_5a/relu_3x3
I0403 15:28:07.863186 15093 net.cpp:91] Creating Layer inception_5a/relu_3x3
I0403 15:28:07.863204 15093 net.cpp:425] inception_5a/relu_3x3 <- inception_5a/3x3
I0403 15:28:07.863222 15093 net.cpp:386] inception_5a/relu_3x3 -> inception_5a/3x3 (in-place)
I0403 15:28:07.863525 15093 net.cpp:141] Setting up inception_5a/relu_3x3
I0403 15:28:07.863554 15093 net.cpp:148] Top shape: 24 320 7 7 (376320)
I0403 15:28:07.863569 15093 net.cpp:156] Memory required for data: 1299050016
I0403 15:28:07.863584 15093 layer_factory.hpp:77] Creating layer inception_5a/5x5_reduce
I0403 15:28:07.863605 15093 net.cpp:91] Creating Layer inception_5a/5x5_reduce
I0403 15:28:07.863621 15093 net.cpp:425] inception_5a/5x5_reduce <- pool4/3x3_s2_pool4/3x3_s2_0_split_2
I0403 15:28:07.863642 15093 net.cpp:399] inception_5a/5x5_reduce -> inception_5a/5x5_reduce
I0403 15:28:07.864838 15093 net.cpp:141] Setting up inception_5a/5x5_reduce
I0403 15:28:07.864868 15093 net.cpp:148] Top shape: 24 32 7 7 (37632)
I0403 15:28:07.864886 15093 net.cpp:156] Memory required for data: 1299200544
I0403 15:28:07.864904 15093 layer_factory.hpp:77] Creating layer inception_5a/relu_5x5_reduce
I0403 15:28:07.864922 15093 net.cpp:91] Creating Layer inception_5a/relu_5x5_reduce
I0403 15:28:07.864938 15093 net.cpp:425] inception_5a/relu_5x5_reduce <- inception_5a/5x5_reduce
I0403 15:28:07.864958 15093 net.cpp:386] inception_5a/relu_5x5_reduce -> inception_5a/5x5_reduce (in-place)
I0403 15:28:07.865262 15093 net.cpp:141] Setting up inception_5a/relu_5x5_reduce
I0403 15:28:07.865291 15093 net.cpp:148] Top shape: 24 32 7 7 (37632)
I0403 15:28:07.865309 15093 net.cpp:156] Memory required for data: 1299351072
I0403 15:28:07.865324 15093 layer_factory.hpp:77] Creating layer inception_5a/5x5
I0403 15:28:07.865346 15093 net.cpp:91] Creating Layer inception_5a/5x5
I0403 15:28:07.865365 15093 net.cpp:425] inception_5a/5x5 <- inception_5a/5x5_reduce
I0403 15:28:07.865384 15093 net.cpp:399] inception_5a/5x5 -> inception_5a/5x5
I0403 15:28:07.867125 15093 net.cpp:141] Setting up inception_5a/5x5
I0403 15:28:07.867168 15093 net.cpp:148] Top shape: 24 128 7 7 (150528)
I0403 15:28:07.867187 15093 net.cpp:156] Memory required for data: 1299953184
I0403 15:28:07.867204 15093 layer_factory.hpp:77] Creating layer inception_5a/relu_5x5
I0403 15:28:07.867223 15093 net.cpp:91] Creating Layer inception_5a/relu_5x5
I0403 15:28:07.867240 15093 net.cpp:425] inception_5a/relu_5x5 <- inception_5a/5x5
I0403 15:28:07.867257 15093 net.cpp:386] inception_5a/relu_5x5 -> inception_5a/5x5 (in-place)
I0403 15:28:07.867452 15093 net.cpp:141] Setting up inception_5a/relu_5x5
I0403 15:28:07.867480 15093 net.cpp:148] Top shape: 24 128 7 7 (150528)
I0403 15:28:07.867496 15093 net.cpp:156] Memory required for data: 1300555296
I0403 15:28:07.867516 15093 layer_factory.hpp:77] Creating layer inception_5a/pool
I0403 15:28:07.867534 15093 net.cpp:91] Creating Layer inception_5a/pool
I0403 15:28:07.867550 15093 net.cpp:425] inception_5a/pool <- pool4/3x3_s2_pool4/3x3_s2_0_split_3
I0403 15:28:07.867571 15093 net.cpp:399] inception_5a/pool -> inception_5a/pool
I0403 15:28:07.867642 15093 net.cpp:141] Setting up inception_5a/pool
I0403 15:28:07.867668 15093 net.cpp:148] Top shape: 24 832 7 7 (978432)
I0403 15:28:07.867684 15093 net.cpp:156] Memory required for data: 1304469024
I0403 15:28:07.867699 15093 layer_factory.hpp:77] Creating layer inception_5a/pool_proj
I0403 15:28:07.867718 15093 net.cpp:91] Creating Layer inception_5a/pool_proj
I0403 15:28:07.867736 15093 net.cpp:425] inception_5a/pool_proj <- inception_5a/pool
I0403 15:28:07.867758 15093 net.cpp:399] inception_5a/pool_proj -> inception_5a/pool_proj
I0403 15:28:07.870050 15093 net.cpp:141] Setting up inception_5a/pool_proj
I0403 15:28:07.870079 15093 net.cpp:148] Top shape: 24 128 7 7 (150528)
I0403 15:28:07.870095 15093 net.cpp:156] Memory required for data: 1305071136
I0403 15:28:07.870113 15093 layer_factory.hpp:77] Creating layer inception_5a/relu_pool_proj
I0403 15:28:07.870133 15093 net.cpp:91] Creating Layer inception_5a/relu_pool_proj
I0403 15:28:07.870151 15093 net.cpp:425] inception_5a/relu_pool_proj <- inception_5a/pool_proj
I0403 15:28:07.870168 15093 net.cpp:386] inception_5a/relu_pool_proj -> inception_5a/pool_proj (in-place)
I0403 15:28:07.870467 15093 net.cpp:141] Setting up inception_5a/relu_pool_proj
I0403 15:28:07.870496 15093 net.cpp:148] Top shape: 24 128 7 7 (150528)
I0403 15:28:07.870517 15093 net.cpp:156] Memory required for data: 1305673248
I0403 15:28:07.870533 15093 layer_factory.hpp:77] Creating layer inception_5a/output
I0403 15:28:07.870556 15093 net.cpp:91] Creating Layer inception_5a/output
I0403 15:28:07.870573 15093 net.cpp:425] inception_5a/output <- inception_5a/1x1
I0403 15:28:07.870590 15093 net.cpp:425] inception_5a/output <- inception_5a/3x3
I0403 15:28:07.870609 15093 net.cpp:425] inception_5a/output <- inception_5a/5x5
I0403 15:28:07.870625 15093 net.cpp:425] inception_5a/output <- inception_5a/pool_proj
I0403 15:28:07.870643 15093 net.cpp:399] inception_5a/output -> inception_5a/output
I0403 15:28:07.870695 15093 net.cpp:141] Setting up inception_5a/output
I0403 15:28:07.870719 15093 net.cpp:148] Top shape: 24 832 7 7 (978432)
I0403 15:28:07.870733 15093 net.cpp:156] Memory required for data: 1309586976
I0403 15:28:07.870748 15093 layer_factory.hpp:77] Creating layer inception_5a/output_inception_5a/output_0_split
I0403 15:28:07.870765 15093 net.cpp:91] Creating Layer inception_5a/output_inception_5a/output_0_split
I0403 15:28:07.870781 15093 net.cpp:425] inception_5a/output_inception_5a/output_0_split <- inception_5a/output
I0403 15:28:07.870801 15093 net.cpp:399] inception_5a/output_inception_5a/output_0_split -> inception_5a/output_inception_5a/output_0_split_0
I0403 15:28:07.870823 15093 net.cpp:399] inception_5a/output_inception_5a/output_0_split -> inception_5a/output_inception_5a/output_0_split_1
I0403 15:28:07.870844 15093 net.cpp:399] inception_5a/output_inception_5a/output_0_split -> inception_5a/output_inception_5a/output_0_split_2
I0403 15:28:07.870864 15093 net.cpp:399] inception_5a/output_inception_5a/output_0_split -> inception_5a/output_inception_5a/output_0_split_3
I0403 15:28:07.870977 15093 net.cpp:141] Setting up inception_5a/output_inception_5a/output_0_split
I0403 15:28:07.871003 15093 net.cpp:148] Top shape: 24 832 7 7 (978432)
I0403 15:28:07.871021 15093 net.cpp:148] Top shape: 24 832 7 7 (978432)
I0403 15:28:07.871037 15093 net.cpp:148] Top shape: 24 832 7 7 (978432)
I0403 15:28:07.871052 15093 net.cpp:148] Top shape: 24 832 7 7 (978432)
I0403 15:28:07.871067 15093 net.cpp:156] Memory required for data: 1325241888
I0403 15:28:07.871080 15093 layer_factory.hpp:77] Creating layer inception_5b/1x1
I0403 15:28:07.871103 15093 net.cpp:91] Creating Layer inception_5b/1x1
I0403 15:28:07.871120 15093 net.cpp:425] inception_5b/1x1 <- inception_5a/output_inception_5a/output_0_split_0
I0403 15:28:07.871140 15093 net.cpp:399] inception_5b/1x1 -> inception_5b/1x1
I0403 15:28:07.874970 15093 net.cpp:141] Setting up inception_5b/1x1
I0403 15:28:07.875000 15093 net.cpp:148] Top shape: 24 384 7 7 (451584)
I0403 15:28:07.875016 15093 net.cpp:156] Memory required for data: 1327048224
I0403 15:28:07.875036 15093 layer_factory.hpp:77] Creating layer inception_5b/relu_1x1
I0403 15:28:07.875056 15093 net.cpp:91] Creating Layer inception_5b/relu_1x1
I0403 15:28:07.875073 15093 net.cpp:425] inception_5b/relu_1x1 <- inception_5b/1x1
I0403 15:28:07.875092 15093 net.cpp:386] inception_5b/relu_1x1 -> inception_5b/1x1 (in-place)
I0403 15:28:07.875396 15093 net.cpp:141] Setting up inception_5b/relu_1x1
I0403 15:28:07.875422 15093 net.cpp:148] Top shape: 24 384 7 7 (451584)
I0403 15:28:07.875437 15093 net.cpp:156] Memory required for data: 1328854560
I0403 15:28:07.875453 15093 layer_factory.hpp:77] Creating layer inception_5b/3x3_reduce
I0403 15:28:07.875478 15093 net.cpp:91] Creating Layer inception_5b/3x3_reduce
I0403 15:28:07.875497 15093 net.cpp:425] inception_5b/3x3_reduce <- inception_5a/output_inception_5a/output_0_split_1
I0403 15:28:07.875524 15093 net.cpp:399] inception_5b/3x3_reduce -> inception_5b/3x3_reduce
I0403 15:28:07.878209 15093 net.cpp:141] Setting up inception_5b/3x3_reduce
I0403 15:28:07.878237 15093 net.cpp:148] Top shape: 24 192 7 7 (225792)
I0403 15:28:07.878253 15093 net.cpp:156] Memory required for data: 1329757728
I0403 15:28:07.878271 15093 layer_factory.hpp:77] Creating layer inception_5b/relu_3x3_reduce
I0403 15:28:07.878291 15093 net.cpp:91] Creating Layer inception_5b/relu_3x3_reduce
I0403 15:28:07.878309 15093 net.cpp:425] inception_5b/relu_3x3_reduce <- inception_5b/3x3_reduce
I0403 15:28:07.878325 15093 net.cpp:386] inception_5b/relu_3x3_reduce -> inception_5b/3x3_reduce (in-place)
I0403 15:28:07.878516 15093 net.cpp:141] Setting up inception_5b/relu_3x3_reduce
I0403 15:28:07.878542 15093 net.cpp:148] Top shape: 24 192 7 7 (225792)
I0403 15:28:07.878557 15093 net.cpp:156] Memory required for data: 1330660896
I0403 15:28:07.878572 15093 layer_factory.hpp:77] Creating layer inception_5b/3x3
I0403 15:28:07.878594 15093 net.cpp:91] Creating Layer inception_5b/3x3
I0403 15:28:07.878612 15093 net.cpp:425] inception_5b/3x3 <- inception_5b/3x3_reduce
I0403 15:28:07.878630 15093 net.cpp:399] inception_5b/3x3 -> inception_5b/3x3
I0403 15:28:07.885221 15093 net.cpp:141] Setting up inception_5b/3x3
I0403 15:28:07.885251 15093 net.cpp:148] Top shape: 24 384 7 7 (451584)
I0403 15:28:07.885267 15093 net.cpp:156] Memory required for data: 1332467232
I0403 15:28:07.885285 15093 layer_factory.hpp:77] Creating layer inception_5b/relu_3x3
I0403 15:28:07.885304 15093 net.cpp:91] Creating Layer inception_5b/relu_3x3
I0403 15:28:07.885323 15093 net.cpp:425] inception_5b/relu_3x3 <- inception_5b/3x3
I0403 15:28:07.885339 15093 net.cpp:386] inception_5b/relu_3x3 -> inception_5b/3x3 (in-place)
I0403 15:28:07.885651 15093 net.cpp:141] Setting up inception_5b/relu_3x3
I0403 15:28:07.885679 15093 net.cpp:148] Top shape: 24 384 7 7 (451584)
I0403 15:28:07.885695 15093 net.cpp:156] Memory required for data: 1334273568
I0403 15:28:07.885710 15093 layer_factory.hpp:77] Creating layer inception_5b/5x5_reduce
I0403 15:28:07.885751 15093 net.cpp:91] Creating Layer inception_5b/5x5_reduce
I0403 15:28:07.885771 15093 net.cpp:425] inception_5b/5x5_reduce <- inception_5a/output_inception_5a/output_0_split_2
I0403 15:28:07.885797 15093 net.cpp:399] inception_5b/5x5_reduce -> inception_5b/5x5_reduce
I0403 15:28:07.887064 15093 net.cpp:141] Setting up inception_5b/5x5_reduce
I0403 15:28:07.887091 15093 net.cpp:148] Top shape: 24 48 7 7 (56448)
I0403 15:28:07.887106 15093 net.cpp:156] Memory required for data: 1334499360
I0403 15:28:07.887125 15093 layer_factory.hpp:77] Creating layer inception_5b/relu_5x5_reduce
I0403 15:28:07.887145 15093 net.cpp:91] Creating Layer inception_5b/relu_5x5_reduce
I0403 15:28:07.887162 15093 net.cpp:425] inception_5b/relu_5x5_reduce <- inception_5b/5x5_reduce
I0403 15:28:07.887179 15093 net.cpp:386] inception_5b/relu_5x5_reduce -> inception_5b/5x5_reduce (in-place)
I0403 15:28:07.887555 15093 net.cpp:141] Setting up inception_5b/relu_5x5_reduce
I0403 15:28:07.887581 15093 net.cpp:148] Top shape: 24 48 7 7 (56448)
I0403 15:28:07.887596 15093 net.cpp:156] Memory required for data: 1334725152
I0403 15:28:07.887611 15093 layer_factory.hpp:77] Creating layer inception_5b/5x5
I0403 15:28:07.887632 15093 net.cpp:91] Creating Layer inception_5b/5x5
I0403 15:28:07.887650 15093 net.cpp:425] inception_5b/5x5 <- inception_5b/5x5_reduce
I0403 15:28:07.887667 15093 net.cpp:399] inception_5b/5x5 -> inception_5b/5x5
I0403 15:28:07.889690 15093 net.cpp:141] Setting up inception_5b/5x5
I0403 15:28:07.889716 15093 net.cpp:148] Top shape: 24 128 7 7 (150528)
I0403 15:28:07.889732 15093 net.cpp:156] Memory required for data: 1335327264
I0403 15:28:07.889750 15093 layer_factory.hpp:77] Creating layer inception_5b/relu_5x5
I0403 15:28:07.889771 15093 net.cpp:91] Creating Layer inception_5b/relu_5x5
I0403 15:28:07.889788 15093 net.cpp:425] inception_5b/relu_5x5 <- inception_5b/5x5
I0403 15:28:07.889806 15093 net.cpp:386] inception_5b/relu_5x5 -> inception_5b/5x5 (in-place)
I0403 15:28:07.889997 15093 net.cpp:141] Setting up inception_5b/relu_5x5
I0403 15:28:07.890022 15093 net.cpp:148] Top shape: 24 128 7 7 (150528)
I0403 15:28:07.890036 15093 net.cpp:156] Memory required for data: 1335929376
I0403 15:28:07.890050 15093 layer_factory.hpp:77] Creating layer inception_5b/pool
I0403 15:28:07.890069 15093 net.cpp:91] Creating Layer inception_5b/pool
I0403 15:28:07.890085 15093 net.cpp:425] inception_5b/pool <- inception_5a/output_inception_5a/output_0_split_3
I0403 15:28:07.890105 15093 net.cpp:399] inception_5b/pool -> inception_5b/pool
I0403 15:28:07.890177 15093 net.cpp:141] Setting up inception_5b/pool
I0403 15:28:07.890202 15093 net.cpp:148] Top shape: 24 832 7 7 (978432)
I0403 15:28:07.890215 15093 net.cpp:156] Memory required for data: 1339843104
I0403 15:28:07.890230 15093 layer_factory.hpp:77] Creating layer inception_5b/pool_proj
I0403 15:28:07.890254 15093 net.cpp:91] Creating Layer inception_5b/pool_proj
I0403 15:28:07.890271 15093 net.cpp:425] inception_5b/pool_proj <- inception_5b/pool
I0403 15:28:07.890290 15093 net.cpp:399] inception_5b/pool_proj -> inception_5b/pool_proj
I0403 15:28:07.892547 15093 net.cpp:141] Setting up inception_5b/pool_proj
I0403 15:28:07.892575 15093 net.cpp:148] Top shape: 24 128 7 7 (150528)
I0403 15:28:07.892591 15093 net.cpp:156] Memory required for data: 1340445216
I0403 15:28:07.892609 15093 layer_factory.hpp:77] Creating layer inception_5b/relu_pool_proj
I0403 15:28:07.892632 15093 net.cpp:91] Creating Layer inception_5b/relu_pool_proj
I0403 15:28:07.892648 15093 net.cpp:425] inception_5b/relu_pool_proj <- inception_5b/pool_proj
I0403 15:28:07.892664 15093 net.cpp:386] inception_5b/relu_pool_proj -> inception_5b/pool_proj (in-place)
I0403 15:28:07.892957 15093 net.cpp:141] Setting up inception_5b/relu_pool_proj
I0403 15:28:07.892983 15093 net.cpp:148] Top shape: 24 128 7 7 (150528)
I0403 15:28:07.892998 15093 net.cpp:156] Memory required for data: 1341047328
I0403 15:28:07.893013 15093 layer_factory.hpp:77] Creating layer inception_5b/output
I0403 15:28:07.893031 15093 net.cpp:91] Creating Layer inception_5b/output
I0403 15:28:07.893061 15093 net.cpp:425] inception_5b/output <- inception_5b/1x1
I0403 15:28:07.893079 15093 net.cpp:425] inception_5b/output <- inception_5b/3x3
I0403 15:28:07.893096 15093 net.cpp:425] inception_5b/output <- inception_5b/5x5
I0403 15:28:07.893112 15093 net.cpp:425] inception_5b/output <- inception_5b/pool_proj
I0403 15:28:07.893128 15093 net.cpp:399] inception_5b/output -> inception_5b/output
I0403 15:28:07.893182 15093 net.cpp:141] Setting up inception_5b/output
I0403 15:28:07.893205 15093 net.cpp:148] Top shape: 24 1024 7 7 (1204224)
I0403 15:28:07.893219 15093 net.cpp:156] Memory required for data: 1345864224
I0403 15:28:07.893234 15093 layer_factory.hpp:77] Creating layer pool5/7x7_s1
I0403 15:28:07.893250 15093 net.cpp:91] Creating Layer pool5/7x7_s1
I0403 15:28:07.893267 15093 net.cpp:425] pool5/7x7_s1 <- inception_5b/output
I0403 15:28:07.893288 15093 net.cpp:399] pool5/7x7_s1 -> pool5/7x7_s1
I0403 15:28:07.893501 15093 net.cpp:141] Setting up pool5/7x7_s1
I0403 15:28:07.893530 15093 net.cpp:148] Top shape: 24 1024 1 1 (24576)
I0403 15:28:07.893546 15093 net.cpp:156] Memory required for data: 1345962528
I0403 15:28:07.893561 15093 layer_factory.hpp:77] Creating layer pool5/drop_7x7_s1
I0403 15:28:07.893579 15093 net.cpp:91] Creating Layer pool5/drop_7x7_s1
I0403 15:28:07.893594 15093 net.cpp:425] pool5/drop_7x7_s1 <- pool5/7x7_s1
I0403 15:28:07.893611 15093 net.cpp:386] pool5/drop_7x7_s1 -> pool5/7x7_s1 (in-place)
I0403 15:28:07.893661 15093 net.cpp:141] Setting up pool5/drop_7x7_s1
I0403 15:28:07.893684 15093 net.cpp:148] Top shape: 24 1024 1 1 (24576)
I0403 15:28:07.893699 15093 net.cpp:156] Memory required for data: 1346060832
I0403 15:28:07.893713 15093 layer_factory.hpp:77] Creating layer loss3/classifier_plantvillage
I0403 15:28:07.893733 15093 net.cpp:91] Creating Layer loss3/classifier_plantvillage
I0403 15:28:07.893750 15093 net.cpp:425] loss3/classifier_plantvillage <- pool5/7x7_s1
I0403 15:28:07.893769 15093 net.cpp:399] loss3/classifier_plantvillage -> loss3/classifier_plantvillage
I0403 15:28:07.894184 15093 net.cpp:141] Setting up loss3/classifier_plantvillage
I0403 15:28:07.894208 15093 net.cpp:148] Top shape: 24 38 (912)
I0403 15:28:07.894222 15093 net.cpp:156] Memory required for data: 1346064480
I0403 15:28:07.894240 15093 layer_factory.hpp:77] Creating layer loss3/classifier_plantvillage_loss3/classifier_plantvillage_0_split
I0403 15:28:07.894258 15093 net.cpp:91] Creating Layer loss3/classifier_plantvillage_loss3/classifier_plantvillage_0_split
I0403 15:28:07.894273 15093 net.cpp:425] loss3/classifier_plantvillage_loss3/classifier_plantvillage_0_split <- loss3/classifier_plantvillage
I0403 15:28:07.894294 15093 net.cpp:399] loss3/classifier_plantvillage_loss3/classifier_plantvillage_0_split -> loss3/classifier_plantvillage_loss3/classifier_plantvillage_0_split_0
I0403 15:28:07.894315 15093 net.cpp:399] loss3/classifier_plantvillage_loss3/classifier_plantvillage_0_split -> loss3/classifier_plantvillage_loss3/classifier_plantvillage_0_split_1
I0403 15:28:07.894335 15093 net.cpp:399] loss3/classifier_plantvillage_loss3/classifier_plantvillage_0_split -> loss3/classifier_plantvillage_loss3/classifier_plantvillage_0_split_2
I0403 15:28:07.894354 15093 net.cpp:399] loss3/classifier_plantvillage_loss3/classifier_plantvillage_0_split -> loss3/classifier_plantvillage_loss3/classifier_plantvillage_0_split_3
I0403 15:28:07.894455 15093 net.cpp:141] Setting up loss3/classifier_plantvillage_loss3/classifier_plantvillage_0_split
I0403 15:28:07.894484 15093 net.cpp:148] Top shape: 24 38 (912)
I0403 15:28:07.894500 15093 net.cpp:148] Top shape: 24 38 (912)
I0403 15:28:07.894526 15093 net.cpp:148] Top shape: 24 38 (912)
I0403 15:28:07.894542 15093 net.cpp:148] Top shape: 24 38 (912)
I0403 15:28:07.894556 15093 net.cpp:156] Memory required for data: 1346079072
I0403 15:28:07.894570 15093 layer_factory.hpp:77] Creating layer loss1/loss
I0403 15:28:07.894593 15093 net.cpp:91] Creating Layer loss1/loss
I0403 15:28:07.894610 15093 net.cpp:425] loss1/loss <- loss1/classifier_plantvillage_loss1/classifier_plantvillage_0_split_0
I0403 15:28:07.894640 15093 net.cpp:425] loss1/loss <- label_data_1_split_0
…
