…
I0403 15:36:51.265983 15645 net.cpp:313] The NetState phase (1) differed from the phase (0) specified by a rule in layer data
I0403 15:36:51.267117 15645 net.cpp:49] Initializing net from parameters: 
state {
  phase: TEST
}
layer {
  name: "data"
  type: "Data"
  top: "data"
  top: "label"
  include {
    phase: TEST
  }
  transform_param {
    mirror: false
    crop_size: 224
    mean_file: "/home/mohanty/data/final_dataset/lmdb/color-50-50/mean.binaryproto"
  }
  data_param {
    source: "/home/mohanty/data/final_dataset/lmdb/color-50-50/test_db"
    batch_size: 24
    backend: LMDB
  }
}
layer {
  name: "conv1/7x7_s2"
  type: "Convolution"
  bottom: "data"
  top: "conv1/7x7_s2"
  param {
    lr_mult: 1
    decay_mult: 1
  }
  param {
    lr_mult: 2
    decay_mult: 0
  }
  convolution_param {
    num_output: 64
    pad: 3
    kernel_size: 7
    stride: 2
    weight_filler {
      type: "xavier"
      std: 0.1
    }
    bias_filler {
      type: "constant"
      value: 0.2
    }
  }
}
layer {
  name: "conv1/relu_7x7"
  type: "ReLU"
  bottom: "conv1/7x7_s2"
  top: "conv1/7x7_s2"
}
layer {
  name: "pool1/3x3_s2"
  type: "Pooling"
  bottom: "conv1/7x7_s2"
  top: "pool1/3x3_s2"
  pooling_param {
    pool: MAX
    kernel_size: 3
    stride: 2
  }
}
layer {
  name: "pool1/norm1"
  type: "LRN"
  bottom: "pool1/3x3_s2"
  top: "pool1/norm1"
  lrn_param {
    local_size: 5
    alpha: 0.0001
    beta: 0.75
  }
}
layer {
  name: "conv2/3x3_reduce"
  type: "Convolution"
  bottom: "pool1/norm1"
  top: "conv2/3x3_reduce"
  param {
    lr_mult: 1
    decay_mult: 1
  }
  param {
    lr_mult: 2
    decay_mult: 0
  }
  convolution_param {
    num_output: 64
    kernel_size: 1
    weight_filler {
      type: "xavier"
      std: 0.1
    }
    bias_filler {
      type: "constant"
      value: 0.2
    }
  }
}
layer {
  name: "conv2/relu_3x3_reduce"
  type: "ReLU"
  bottom: "conv2/3x3_reduce"
  top: "conv2/3x3_reduce"
}
layer {
  name: "conv2/3x3"
  type: "Convolution"
  bottom: "conv2/3x3_reduce"
  top: "conv2/3x3"
  param {
    lr_mult: 1
    decay_mult: 1
  }
  param {
    lr_mult: 2
    decay_mult: 0
  }
  convolution_param {
    num_output: 192
    pad: 1
    kernel_size: 3
    weight_filler {
      type: "xavier"
      std: 0.03
    }
    bias_filler {
      type: "constant"
      value: 0.2
    }
  }
}
layer {
  name: "conv2/relu_3x3"
  type: "ReLU"
  bottom: "conv2/3x3"
  top: "conv2/3x3"
}
layer {
  name: "conv2/norm2"
  type: "LRN"
  bottom: "conv2/3x3"
  top: "conv2/norm2"
  lrn_param {
    local_size: 5
    alpha: 0.0001
    beta: 0.75
  }
}
layer {
  name: "pool2/3x3_s2"
  type: "Pooling"
  bottom: "conv2/norm2"
  top: "pool2/3x3_s2"
  pooling_param {
    pool: MAX
    kernel_size: 3
    stride: 2
  }
}
layer {
  name: "inception_3a/1x1"
  type: "Convolution"
  bottom: "pool2/3x3_s2"
  top: "inception_3a/1x1"
  param {
    lr_mult: 1
    decay_mult: 1
  }
  param {
    lr_mult: 2
    decay_mult: 0
  }
  convolution_param {
    num_output: 64
    kernel_size: 1
    weight_filler {
      type: "xavier"
      std: 0.03
    }
    bias_filler {
      type: "constant"
      value: 0.2
    }
  }
}
layer {
  name: "inception_3a/relu_1x1"
  type: "ReLU"
  bottom: "inception_3a/1x1"
  top: "inception_3a/1x1"
}
layer {
  name: "inception_3a/3x3_reduce"
  type: "Convolution"
  bottom: "pool2/3x3_s2"
  top: "inception_3a/3x3_reduce"
  param {
    lr_mult: 1
    decay_mult: 1
  }
  param {
    lr_mult: 2
    decay_mult: 0
  }
  convolution_param {
    num_output: 96
    kernel_size: 1
    weight_filler {
      type: "xavier"
      std: 0.09
    }
    bias_filler {
      type: "constant"
      value: 0.2
    }
  }
}
layer {
  name: "inception_3a/relu_3x3_reduce"
  type: "ReLU"
  bottom: "inception_3a/3x3_reduce"
  top: "inception_3a/3x3_reduce"
}
layer {
  name: "inception_3a/3x3"
  type: "Convolution"
  bottom: "inception_3a/3x3_reduce"
  top: "inception_3a/3x3"
  param {
    lr_mult: 1
    decay_mult: 1
  }
  param {
    lr_mult: 2
    decay_mult: 0
  }
  convolution_param {
    num_output: 128
    pad: 1
    kernel_size: 3
    weight_filler {
      type: "xavier"
      std: 0.03
    }
    bias_filler {
      type: "constant"
      value: 0.2
    }
  }
}
layer {
  name: "inception_3a/relu_3x3"
  type: "ReLU"
  bottom: "inception_3a/3x3"
  top: "inception_3a/3x3"
}
layer {
  name: "inception_3a/5x5_reduce"
  type: "Convolution"
  bottom: "pool2/3x3_s2"
  top: "inception_3a/5x5_reduce"
  param {
    lr_mult: 1
    decay_mult: 1
  }
  param {
    lr_mult: 2
    decay_mult: 0
  }
  convolution_param {
    num_output: 16
    kernel_size: 1
    weight_filler {
      type: "xavier"
      std: 0.2
    }
    bias_filler {
      type: "constant"
      value: 0.2
    }
  }
}
layer {
  name: "inception_3a/relu_5x5_reduce"
  type: "ReLU"
  bottom: "inception_3a/5x5_reduce"
  top: "inception_3a/5x5_reduce"
}
layer {
  name: "inception_3a/5x5"
  type: "Convolution"
  bottom: "inception_3a/5x5_reduce"
  top: "inception_3a/5x5"
  param {
    lr_mult: 1
    decay_mult: 1
  }
  param {
    lr_mult: 2
    decay_mult: 0
  }
  convolution_param {
    num_output: 32
    pad: 2
    kernel_size: 5
    weight_filler {
      type: "xavier"
      std: 0.03
    }
    bias_filler {
      type: "constant"
      value: 0.2
    }
  }
}
layer {
  name: "inception_3a/relu_5x5"
  type: "ReLU"
  bottom: "inception_3a/5x5"
  top: "inception_3a/5x5"
}
layer {
  name: "inception_3a/pool"
  type: "Pooling"
  bottom: "pool2/3x3_s2"
  top: "inception_3a/pool"
  pooling_param {
    pool: MAX
    kernel_size: 3
    stride: 1
    pad: 1
  }
}
layer {
  name: "inception_3a/pool_proj"
  type: "Convolution"
  bottom: "inception_3a/pool"
  top: "inception_3a/pool_proj"
  param {
    lr_mult: 1
    decay_mult: 1
  }
  param {
    lr_mult: 2
    decay_mult: 0
  }
  convolution_param {
    num_output: 32
    kernel_size: 1
    weight_filler {
      type: "xavier"
      std: 0.1
    }
    bias_filler {
      type: "constant"
      value: 0.2
    }
  }
}
layer {
  name: "inception_3a/relu_pool_proj"
  type: "ReLU"
  bottom: "inception_3a/pool_proj"
  top: "inception_3a/pool_proj"
}
layer {
  name: "inception_3a/output"
  type: "Concat"
  bottom: "inception_3a/1x1"
  bottom: "inception_3a/3x3"
  bottom: "inception_3a/5x5"
  bottom: "inception_3a/pool_proj"
  top: "inception_3a/output"
}
layer {
  name: "inception_3b/1x1"
  type: "Convolution"
  bottom: "inception_3a/output"
  top: "inception_3b/1x1"
  param {
    lr_mult: 1
    decay_mult: 1
  }
  param {
    lr_mult: 2
    decay_mult: 0
  }
  convolution_param {
    num_output: 128
    kernel_size: 1
    weight_filler {
      type: "xavier"
      std: 0.03
    }
    bias_filler {
      type: "constant"
      value: 0.2
    }
  }
}
layer {
  name: "inception_3b/relu_1x1"
  type: "ReLU"
  bottom: "inception_3b/1x1"
  top: "inception_3b/1x1"
}
layer {
  name: "inception_3b/3x3_reduce"
  type: "Convolution"
  bottom: "inception_3a/output"
  top: "inception_3b/3x3_reduce"
  param {
    lr_mult: 1
    decay_mult: 1
  }
  param {
    lr_mult: 2
    decay_mult: 0
  }
  convolution_param {
    num_output: 128
    kernel_size: 1
    weight_filler {
      type: "xavier"
      std: 0.09
    }
    bias_filler {
      type: "constant"
      value: 0.2
    }
  }
}
layer {
  name: "inception_3b/relu_3x3_reduce"
  type: "ReLU"
  bottom: "inception_3b/3x3_reduce"
  top: "inception_3b/3x3_reduce"
}
layer {
  name: "inception_3b/3x3"
  type: "Convolution"
  bottom: "inception_3b/3x3_reduce"
  top: "inception_3b/3x3"
  param {
    lr_mult: 1
    decay_mult: 1
  }
  param {
    lr_mult: 2
    decay_mult: 0
  }
  convolution_param {
    num_output: 192
    pad: 1
    kernel_size: 3
    weight_filler {
      type: "xavier"
      std: 0.03
    }
    bias_filler {
      type: "constant"
      value: 0.2
    }
  }
}
layer {
  name: "inception_3b/relu_3x3"
  type: "ReLU"
  bottom: "inception_3b/3x3"
  top: "inception_3b/3x3"
}
layer {
  name: "inception_3b/5x5_reduce"
  type: "Convolution"
  bottom: "inception_3a/output"
  top: "inception_3b/5x5_reduce"
  param {
    lr_mult: 1
    decay_mult: 1
  }
  param {
    lr_mult: 2
    decay_mult: 0
  }
  convolution_param {
    num_output: 32
    kernel_size: 1
    weight_filler {
      type: "xavier"
      std: 0.2
    }
    bias_filler {
      type: "constant"
      value: 0.2
    }
  }
}
layer {
  name: "inception_3b/relu_5x5_reduce"
  type: "ReLU"
  bottom: "inception_3b/5x5_reduce"
  top: "inception_3b/5x5_reduce"
}
layer {
  name: "inception_3b/5x5"
  type: "Convolution"
  bottom: "inception_3b/5x5_reduce"
  top: "inception_3b/5x5"
  param {
    lr_mult: 1
    decay_mult: 1
  }
  param {
    lr_mult: 2
    decay_mult: 0
  }
  convolution_param {
    num_output: 96
    pad: 2
    kernel_size: 5
    weight_filler {
      type: "xavier"
      std: 0.03
    }
    bias_filler {
      type: "constant"
      value: 0.2
    }
  }
}
layer {
  name: "inception_3b/relu_5x5"
  type: "ReLU"
  bottom: "inception_3b/5x5"
  top: "inception_3b/5x5"
}
layer {
  name: "inception_3b/pool"
  type: "Pooling"
  bottom: "inception_3a/output"
  top: "inception_3b/pool"
  pooling_param {
    pool: MAX
    kernel_size: 3
    stride: 1
    pad: 1
  }
}
layer {
  name: "inception_3b/pool_proj"
  type: "Convolution"
  bottom: "inception_3b/pool"
  top: "inception_3b/pool_proj"
  param {
    lr_mult: 1
    decay_mult: 1
  }
  param {
    lr_mult: 2
    decay_mult: 0
  }
  convolution_param {
    num_output: 64
    kernel_size: 1
    weight_filler {
      type: "xavier"
      std: 0.1
    }
    bias_filler {
      type: "constant"
      value: 0.2
    }
  }
}
layer {
  name: "inception_3b/relu_pool_proj"
  type: "ReLU"
  bottom: "inception_3b/pool_proj"
  top: "inception_3b/pool_proj"
}
layer {
  name: "inception_3b/output"
  type: "Concat"
  bottom: "inception_3b/1x1"
  bottom: "inception_3b/3x3"
  bottom: "inception_3b/5x5"
  bottom: "inception_3b/pool_proj"
  top: "inception_3b/output"
}
layer {
  name: "pool3/3x3_s2"
  type: "Pooling"
  bottom: "inception_3b/output"
  top: "pool3/3x3_s2"
  pooling_param {
    pool: MAX
    kernel_size: 3
    stride: 2
  }
}
layer {
  name: "inception_4a/1x1"
  type: "Convolution"
  bottom: "pool3/3x3_s2"
  top: "inception_4a/1x1"
  param {
    lr_mult: 1
    decay_mult: 1
  }
  param {
    lr_mult: 2
    decay_mult: 0
  }
  convolution_param {
    num_output: 192
    kernel_size: 1
    weight_filler {
      type: "xavier"
      std: 0.03
    }
    bias_filler {
      type: "constant"
      value: 0.2
    }
  }
}
layer {
  name: "inception_4a/relu_1x1"
  type: "ReLU"
  bottom: "inception_4a/1x1"
  top: "inception_4a/1x1"
}
layer {
  name: "inception_4a/3x3_reduce"
  type: "Convolution"
  bottom: "pool3/3x3_s2"
  top: "inception_4a/3x3_reduce"
  param {
    lr_mult: 1
    decay_mult: 1
  }
  param {
    lr_mult: 2
    decay_mult: 0
  }
  convolution_param {
    num_output: 96
    kernel_size: 1
    weight_filler {
      type: "xavier"
      std: 0.09
    }
    bias_filler {
      type: "constant"
      value: 0.2
    }
  }
}
layer {
  name: "inception_4a/relu_3x3_reduce"
  type: "ReLU"
  bottom: "inception_4a/3x3_reduce"
  top: "inception_4a/3x3_reduce"
}
layer {
  name: "inception_4a/3x3"
  type: "Convolution"
  bottom: "inception_4a/3x3_reduce"
  top: "inception_4a/3x3"
  param {
    lr_mult: 1
    decay_mult: 1
  }
  param {
    lr_mult: 2
    decay_mult: 0
  }
  convolution_param {
    num_output: 208
    pad: 1
    kernel_size: 3
    weight_filler {
      type: "xavier"
      std: 0.03
    }
    bias_filler {
      type: "constant"
      value: 0.2
    }
  }
}
layer {
  name: "inception_4a/relu_3x3"
  type: "ReLU"
  bottom: "inception_4a/3x3"
  top: "inception_4a/3x3"
}
layer {
  name: "inception_4a/5x5_reduce"
  type: "Convolution"
  bottom: "pool3/3x3_s2"
  top: "inception_4a/5x5_reduce"
  param {
    lr_mult: 1
    decay_mult: 1
  }
  param {
    lr_mult: 2
    decay_mult: 0
  }
  convolution_param {
    num_output: 16
    kernel_size: 1
    weight_filler {
      type: "xavier"
      std: 0.2
    }
    bias_filler {
      type: "constant"
      value: 0.2
    }
  }
}
layer {
  name: "inception_4a/relu_5x5_reduce"
  type: "ReLU"
  bottom: "inception_4a/5x5_reduce"
  top: "inception_4a/5x5_reduce"
}
layer {
  name: "inception_4a/5x5"
  type: "Convolution"
  bottom: "inception_4a/5x5_reduce"
  top: "inception_4a/5x5"
  param {
    lr_mult: 1
    decay_mult: 1
  }
  param {
    lr_mult: 2
    decay_mult: 0
  }
  convolution_param {
    num_output: 48
    pad: 2
    kernel_size: 5
    weight_filler {
      type: "xavier"
      std: 0.03
    }
    bias_filler {
      type: "constant"
      value: 0.2
    }
  }
}
layer {
  name: "inception_4a/relu_5x5"
  type: "ReLU"
  bottom: "inception_4a/5x5"
  top: "inception_4a/5x5"
}
layer {
  name: "inception_4a/pool"
  type: "Pooling"
  bottom: "pool3/3x3_s2"
  top: "inception_4a/pool"
  pooling_param {
    pool: MAX
    kernel_size: 3
    stride: 1
    pad: 1
  }
}
layer {
  name: "inception_4a/pool_proj"
  type: "Convolution"
  bottom: "inception_4a/pool"
  top: "inception_4a/pool_proj"
  param {
    lr_mult: 1
    decay_mult: 1
  }
  param {
    lr_mult: 2
    decay_mult: 0
  }
  convolution_param {
    num_output: 64
    kernel_size: 1
    weight_filler {
      type: "xavier"
      std: 0.1
    }
    bias_filler {
      type: "constant"
      value: 0.2
    }
  }
}
layer {
  name: "inception_4a/relu_pool_proj"
  type: "ReLU"
  bottom: "inception_4a/pool_proj"
  top: "inception_4a/pool_proj"
}
layer {
  name: "inception_4a/output"
  type: "Concat"
  bottom: "inception_4a/1x1"
  bottom: "inception_4a/3x3"
  bottom: "inception_4a/5x5"
  bottom: "inception_4a/pool_proj"
  top: "inception_4a/output"
}
layer {
  name: "loss1/ave_pool"
  type: "Pooling"
  bottom: "inception_4a/output"
  top: "loss1/ave_pool"
  pooling_param {
    pool: AVE
    kernel_size: 5
    stride: 3
  }
}
layer {
  name: "loss1/conv"
  type: "Convolution"
  bottom: "loss1/ave_pool"
  top: "loss1/conv"
  param {
    lr_mult: 1
    decay_mult: 1
  }
  param {
    lr_mult: 2
    decay_mult: 0
  }
  convolution_param {
    num_output: 128
    kernel_size: 1
    weight_filler {
      type: "xavier"
      std: 0.08
    }
    bias_filler {
      type: "constant"
      value: 0.2
    }
  }
}
layer {
  name: "loss1/relu_conv"
  type: "ReLU"
  bottom: "loss1/conv"
  top: "loss1/conv"
}
layer {
  name: "loss1/fc"
  type: "InnerProduct"
  bottom: "loss1/conv"
  top: "loss1/fc"
  param {
    lr_mult: 1
    decay_mult: 1
  }
  param {
    lr_mult: 2
    decay_mult: 0
  }
  inner_product_param {
    num_output: 1024
    weight_filler {
      type: "xavier"
      std: 0.02
    }
    bias_filler {
      type: "constant"
      value: 0.2
    }
  }
}
layer {
  name: "loss1/relu_fc"
  type: "ReLU"
  bottom: "loss1/fc"
  top: "loss1/fc"
}
layer {
  name: "loss1/drop_fc"
  type: "Dropout"
  bottom: "loss1/fc"
  top: "loss1/fc"
  dropout_param {
    dropout_ratio: 0.7
  }
}
layer {
  name: "loss1/classifier_plantvillage"
  type: "InnerProduct"
  bottom: "loss1/fc"
  top: "loss1/classifier_plantvillage"
  param {
    lr_mult: 1
    decay_mult: 1
  }
  param {
    lr_mult: 2
    decay_mult: 0
  }
  inner_product_param {
    num_output: 38
    weight_filler {
      type: "xavier"
      std: 0.0009765625
    }
    bias_filler {
      type: "constant"
      value: 0
    }
  }
}
layer {
  name: "inception_4b/1x1"
  type: "Convolution"
  bottom: "inception_4a/output"
  top: "inception_4b/1x1"
  param {
    lr_mult: 1
    decay_mult: 1
  }
  param {
    lr_mult: 2
    decay_mult: 0
  }
  convolution_param {
    num_output: 160
    kernel_size: 1
    weight_filler {
      type: "xavier"
      std: 0.03
    }
    bias_filler {
      type: "constant"
      value: 0.2
    }
  }
}
layer {
  name: "inception_4b/relu_1x1"
  type: "ReLU"
  bottom: "inception_4b/1x1"
  top: "inception_4b/1x1"
}
layer {
  name: "inception_4b/3x3_reduce"
  type: "Convolution"
  bottom: "inception_4a/output"
  top: "inception_4b/3x3_reduce"
  param {
    lr_mult: 1
    decay_mult: 1
  }
  param {
    lr_mult: 2
    decay_mult: 0
  }
  convolution_param {
    num_output: 112
    kernel_size: 1
    weight_filler {
      type: "xavier"
      std: 0.09
    }
    bias_filler {
      type: "constant"
      value: 0.2
    }
  }
}
layer {
  name: "inception_4b/relu_3x3_reduce"
  type: "ReLU"
  bottom: "inception_4b/3x3_reduce"
  top: "inception_4b/3x3_reduce"
}
layer {
  name: "inception_4b/3x3"
  type: "Convolution"
  bottom: "inception_4b/3x3_reduce"
  top: "inception_4b/3x3"
  param {
    lr_mult: 1
    decay_mult: 1
  }
  param {
    lr_mult: 2
    decay_mult: 0
  }
  convolution_param {
    num_output: 224
    pad: 1
    kernel_size: 3
    weight_filler {
      type: "xavier"
      std: 0.03
    }
    bias_filler {
      type: "constant"
      value: 0.2
    }
  }
}
layer {
  name: "inception_4b/relu_3x3"
  type: "ReLU"
  bottom: "inception_4b/3x3"
  top: "inception_4b/3x3"
}
layer {
  name: "inception_4b/5x5_reduce"
  type: "Convolution"
  bottom: "inception_4a/output"
  top: "inception_4b/5x5_reduce"
  param {
    lr_mult: 1
    decay_mult: 1
  }
  param {
    lr_mult: 2
    decay_mult: 0
  }
  convolution_param {
    num_output: 24
    kernel_size: 1
    weight_filler {
      type: "xavier"
      std: 0.2
    }
    bias_filler {
      type: "constant"
      value: 0.2
    }
  }
}
layer {
  name: "inception_4b/relu_5x5_reduce"
  type: "ReLU"
  bottom: "inception_4b/5x5_reduce"
  top: "inception_4b/5x5_reduce"
}
layer {
  name: "inception_4b/5x5"
  type: "Convolution"
  bottom: "inception_4b/5x5_reduce"
  top: "inception_4b/5x5"
  param {
    lr_mult: 1
    decay_mult: 1
  }
  param {
    lr_mult: 2
    decay_mult: 0
  }
  convolution_param {
    num_output: 64
    pad: 2
    kernel_size: 5
    weight_filler {
      type: "xavier"
      std: 0.03
    }
    bias_filler {
      type: "constant"
      value: 0.2
    }
  }
}
layer {
  name: "inception_4b/relu_5x5"
  type: "ReLU"
  bottom: "inception_4b/5x5"
  top: "inception_4b/5x5"
}
layer {
  name: "inception_4b/pool"
  type: "Pooling"
  bottom: "inception_4a/output"
  top: "inception_4b/pool"
  pooling_param {
    pool: MAX
    kernel_size: 3
    stride: 1
    pad: 1
  }
}
layer {
  name: "inception_4b/pool_proj"
  type: "Convolution"
  bottom: "inception_4b/pool"
  top: "inception_4b/pool_proj"
  param {
    lr_mult: 1
    decay_mult: 1
  }
  param {
    lr_mult: 2
    decay_mult: 0
  }
  convolution_param {
    num_output: 64
    kernel_size: 1
    weight_filler {
      type: "xavier"
      std: 0.1
    }
    bias_filler {
      type: "constant"
      value: 0.2
    }
  }
}
layer {
  name: "inception_4b/relu_pool_proj"
  type: "ReLU"
  bottom: "inception_4b/pool_proj"
  top: "inception_4b/pool_proj"
}
layer {
  name: "inception_4b/output"
  type: "Concat"
  bottom: "inception_4b/1x1"
  bottom: "inception_4b/3x3"
  bottom: "inception_4b/5x5"
  bottom: "inception_4b/pool_proj"
  top: "inception_4b/output"
}
layer {
  name: "inception_4c/1x1"
  type: "Convolution"
  bottom: "inception_4b/output"
  top: "inception_4c/1x1"
  param {
    lr_mult: 1
    decay_mult: 1
  }
  param {
    lr_mult: 2
    decay_mult: 0
  }
  convolution_param {
    num_output: 128
    kernel_size: 1
    weight_filler {
      type: "xavier"
      std: 0.03
    }
    bias_filler {
      type: "constant"
      value: 0.2
    }
  }
}
layer {
  name: "inception_4c/relu_1x1"
  type: "ReLU"
  bottom: "inception_4c/1x1"
  top: "inception_4c/1x1"
}
layer {
  name: "inception_4c/3x3_reduce"
  type: "Convolution"
  bottom: "inception_4b/output"
  top: "inception_4c/3x3_reduce"
  param {
    lr_mult: 1
    decay_mult: 1
  }
  param {
    lr_mult: 2
    decay_mult: 0
  }
  convolution_param {
    num_output: 128
    kernel_size: 1
    weight_filler {
      type: "xavier"
      std: 0.09
    }
    bias_filler {
      type: "constant"
      value: 0.2
    }
  }
}
layer {
  name: "inception_4c/relu_3x3_reduce"
  type: "ReLU"
  bottom: "inception_4c/3x3_reduce"
  top: "inception_4c/3x3_reduce"
}
layer {
  name: "inception_4c/3x3"
  type: "Convolution"
  bottom: "inception_4c/3x3_reduce"
  top: "inception_4c/3x3"
  param {
    lr_mult: 1
    decay_mult: 1
  }
  param {
    lr_mult: 2
    decay_mult: 0
  }
  convolution_param {
    num_output: 256
    pad: 1
    kernel_size: 3
    weight_filler {
      type: "xavier"
      std: 0.03
    }
    bias_filler {
      type: "constant"
      value: 0.2
    }
  }
}
layer {
  name: "inception_4c/relu_3x3"
  type: "ReLU"
  bottom: "inception_4c/3x3"
  top: "inception_4c/3x3"
}
layer {
  name: "inception_4c/5x5_reduce"
  type: "Convolution"
  bottom: "inception_4b/output"
  top: "inception_4c/5x5_reduce"
  param {
    lr_mult: 1
    decay_mult: 1
  }
  param {
    lr_mult: 2
    decay_mult: 0
  }
  convolution_param {
    num_output: 24
    kernel_size: 1
    weight_filler {
      type: "xavier"
      std: 0.2
    }
    bias_filler {
      type: "constant"
      value: 0.2
    }
  }
}
layer {
  name: "inception_4c/relu_5x5_reduce"
  type: "ReLU"
  bottom: "inception_4c/5x5_reduce"
  top: "inception_4c/5x5_reduce"
}
layer {
  name: "inception_4c/5x5"
  type: "Convolution"
  bottom: "inception_4c/5x5_reduce"
  top: "inception_4c/5x5"
  param {
    lr_mult: 1
    decay_mult: 1
  }
  param {
    lr_mult: 2
    decay_mult: 0
  }
  convolution_param {
    num_output: 64
    pad: 2
    kernel_size: 5
    weight_filler {
      type: "xavier"
      std: 0.03
    }
    bias_filler {
      type: "constant"
      value: 0.2
    }
  }
}
layer {
  name: "inception_4c/relu_5x5"
  type: "ReLU"
  bottom: "inception_4c/5x5"
  top: "inception_4c/5x5"
}
layer {
  name: "inception_4c/pool"
  type: "Pooling"
  bottom: "inception_4b/output"
  top: "inception_4c/pool"
  pooling_param {
    pool: MAX
    kernel_size: 3
    stride: 1
    pad: 1
  }
}
layer {
  name: "inception_4c/pool_proj"
  type: "Convolution"
  bottom: "inception_4c/pool"
  top: "inception_4c/pool_proj"
  param {
    lr_mult: 1
    decay_mult: 1
  }
  param {
    lr_mult: 2
    decay_mult: 0
  }
  convolution_param {
    num_output: 64
    kernel_size: 1
    weight_filler {
      type: "xavier"
      std: 0.1
    }
    bias_filler {
      type: "constant"
      value: 0.2
    }
  }
}
layer {
  name: "inception_4c/relu_pool_proj"
  type: "ReLU"
  bottom: "inception_4c/pool_proj"
  top: "inception_4c/pool_proj"
}
layer {
  name: "inception_4c/output"
  type: "Concat"
  bottom: "inception_4c/1x1"
  bottom: "inception_4c/3x3"
  bottom: "inception_4c/5x5"
  bottom: "inception_4c/pool_proj"
  top: "inception_4c/output"
}
layer {
  name: "inception_4d/1x1"
  type: "Convolution"
  bottom: "inception_4c/output"
  top: "inception_4d/1x1"
  param {
    lr_mult: 1
    decay_mult: 1
  }
  param {
    lr_mult: 2
    decay_mult: 0
  }
  convolution_param {
    num_output: 112
    kernel_size: 1
    weight_filler {
      type: "xavier"
      std: 0.03
    }
    bias_filler {
      type: "constant"
      value: 0.2
    }
  }
}
layer {
  name: "inception_4d/relu_1x1"
  type: "ReLU"
  bottom: "inception_4d/1x1"
  top: "inception_4d/1x1"
}
layer {
  name: "inception_4d/3x3_reduce"
  type: "Convolution"
  bottom: "inception_4c/output"
  top: "inception_4d/3x3_reduce"
  param {
    lr_mult: 1
    decay_mult: 1
  }
  param {
    lr_mult: 2
    decay_mult: 0
  }
  convolution_param {
    num_output: 144
    kernel_size: 1
    weight_filler {
      type: "xavier"
      std: 0.09
    }
    bias_filler {
      type: "constant"
      value: 0.2
    }
  }
}
layer {
  name: "inception_4d/relu_3x3_reduce"
  type: "ReLU"
  bottom: "inception_4d/3x3_reduce"
  top: "inception_4d/3x3_reduce"
}
layer {
  name: "inception_4d/3x3"
  type: "Convolution"
  bottom: "inception_4d/3x3_reduce"
  top: "inception_4d/3x3"
  param {
    lr_mult: 1
    decay_mult: 1
  }
  param {
    lr_mult: 2
    decay_mult: 0
  }
  convolution_param {
    num_output: 288
    pad: 1
    kernel_size: 3
    weight_filler {
      type: "xavier"
      std: 0.03
    }
    bias_filler {
      type: "constant"
      value: 0.2
    }
  }
}
layer {
  name: "inception_4d/relu_3x3"
  type: "ReLU"
  bottom: "inception_4d/3x3"
  top: "inception_4d/3x3"
}
layer {
  name: "inception_4d/5x5_reduce"
  type: "Convolution"
  bottom: "inception_4c/output"
  top: "inception_4d/5x5_reduce"
  param {
    lr_mult: 1
    decay_mult: 1
  }
  param {
    lr_mult: 2
    decay_mult: 0
  }
  convolution_param {
    num_output: 32
    kernel_size: 1
    weight_filler {
      type: "xavier"
      std: 0.2
    }
    bias_filler {
      type: "constant"
      value: 0.2
    }
  }
}
layer {
  name: "inception_4d/relu_5x5_reduce"
  type: "ReLU"
  bottom: "inception_4d/5x5_reduce"
  top: "inception_4d/5x5_reduce"
}
layer {
  name: "inception_4d/5x5"
  type: "Convolution"
  bottom: "inception_4d/5x5_reduce"
  top: "inception_4d/5x5"
  param {
    lr_mult: 1
    decay_mult: 1
  }
  param {
    lr_mult: 2
    decay_mult: 0
  }
  convolution_param {
    num_output: 64
    pad: 2
    kernel_size: 5
    weight_filler {
      type: "xavier"
      std: 0.03
    }
    bias_filler {
      type: "constant"
      value: 0.2
    }
  }
}
layer {
  name: "inception_4d/relu_5x5"
  type: "ReLU"
  bottom: "inception_4d/5x5"
  top: "inception_4d/5x5"
}
layer {
  name: "inception_4d/pool"
  type: "Pooling"
  bottom: "inception_4c/output"
  top: "inception_4d/pool"
  pooling_param {
    pool: MAX
    kernel_size: 3
    stride: 1
    pad: 1
  }
}
layer {
  name: "inception_4d/pool_proj"
  type: "Convolution"
  bottom: "inception_4d/pool"
  top: "inception_4d/pool_proj"
  param {
    lr_mult: 1
    decay_mult: 1
  }
  param {
    lr_mult: 2
    decay_mult: 0
  }
  convolution_param {
    num_output: 64
    kernel_size: 1
    weight_filler {
      type: "xavier"
      std: 0.1
    }
    bias_filler {
      type: "constant"
      value: 0.2
    }
  }
}
layer {
  name: "inception_4d/relu_pool_proj"
  type: "ReLU"
  bottom: "inception_4d/pool_proj"
  top: "inception_4d/pool_proj"
}
layer {
  name: "inception_4d/output"
  type: "Concat"
  bottom: "inception_4d/1x1"
  bottom: "inception_4d/3x3"
  bottom: "inception_4d/5x5"
  bottom: "inception_4d/pool_proj"
  top: "inception_4d/output"
}
layer {
  name: "loss2/ave_pool"
  type: "Pooling"
  bottom: "inception_4d/output"
  top: "loss2/ave_pool"
  pooling_param {
    pool: AVE
    kernel_size: 5
    stride: 3
  }
}
layer {
  name: "loss2/conv"
  type: "Convolution"
  bottom: "loss2/ave_pool"
  top: "loss2/conv"
  param {
    lr_mult: 1
    decay_mult: 1
  }
  param {
    lr_mult: 2
    decay_mult: 0
  }
  convolution_param {
    num_output: 128
    kernel_size: 1
    weight_filler {
      type: "xavier"
      std: 0.08
    }
    bias_filler {
      type: "constant"
      value: 0.2
    }
  }
}
layer {
  name: "loss2/relu_conv"
  type: "ReLU"
  bottom: "loss2/conv"
  top: "loss2/conv"
}
layer {
  name: "loss2/fc"
  type: "InnerProduct"
  bottom: "loss2/conv"
  top: "loss2/fc"
  param {
    lr_mult: 1
    decay_mult: 1
  }
  param {
    lr_mult: 2
    decay_mult: 0
  }
  inner_product_param {
    num_output: 1024
    weight_filler {
      type: "xavier"
      std: 0.02
    }
    bias_filler {
      type: "constant"
      value: 0.2
    }
  }
}
layer {
  name: "loss2/relu_fc"
  type: "ReLU"
  bottom: "loss2/fc"
  top: "loss2/fc"
}
layer {
  name: "loss2/drop_fc"
  type: "Dropout"
  bottom: "loss2/fc"
  top: "loss2/fc"
  dropout_param {
    dropout_ratio: 0.7
  }
}
layer {
  name: "loss2/classifier_plantvillage"
  type: "InnerProduct"
  bottom: "loss2/fc"
  top: "loss2/classifier_plantvillage"
  param {
    lr_mult: 1
    decay_mult: 1
  }
  param {
    lr_mult: 2
    decay_mult: 0
  }
  inner_product_param {
    num_output: 38
    weight_filler {
      type: "xavier"
      std: 0.0009765625
    }
    bias_filler {
      type: "constant"
      value: 0
    }
  }
}
layer {
  name: "inception_4e/1x1"
  type: "Convolution"
  bottom: "inception_4d/output"
  top: "inception_4e/1x1"
  param {
    lr_mult: 1
    decay_mult: 1
  }
  param {
    lr_mult: 2
    decay_mult: 0
  }
  convolution_param {
    num_output: 256
    kernel_size: 1
    weight_filler {
      type: "xavier"
      std: 0.03
    }
    bias_filler {
      type: "constant"
      value: 0.2
    }
  }
}
layer {
  name: "inception_4e/relu_1x1"
  type: "ReLU"
  bottom: "inception_4e/1x1"
  top: "inception_4e/1x1"
}
layer {
  name: "inception_4e/3x3_reduce"
  type: "Convolution"
  bottom: "inception_4d/output"
  top: "inception_4e/3x3_reduce"
  param {
    lr_mult: 1
    decay_mult: 1
  }
  param {
    lr_mult: 2
    decay_mult: 0
  }
  convolution_param {
    num_output: 160
    kernel_size: 1
    weight_filler {
      type: "xavier"
      std: 0.09
    }
    bias_filler {
      type: "constant"
      value: 0.2
    }
  }
}
layer {
  name: "inception_4e/relu_3x3_reduce"
  type: "ReLU"
  bottom: "inception_4e/3x3_reduce"
  top: "inception_4e/3x3_reduce"
}
layer {
  name: "inception_4e/3x3"
  type: "Convolution"
  bottom: "inception_4e/3x3_reduce"
  top: "inception_4e/3x3"
  param {
    lr_mult: 1
    decay_mult: 1
  }
  param {
    lr_mult: 2
    decay_mult: 0
  }
  convolution_param {
    num_output: 320
    pad: 1
    kernel_size: 3
    weight_filler {
      type: "xavier"
      std: 0.03
    }
    bias_filler {
      type: "constant"
      value: 0.2
    }
  }
}
layer {
  name: "inception_4e/relu_3x3"
  type: "ReLU"
  bottom: "inception_4e/3x3"
  top: "inception_4e/3x3"
}
layer {
  name: "inception_4e/5x5_reduce"
  type: "Convolution"
  bottom: "inception_4d/output"
  top: "inception_4e/5x5_reduce"
  param {
    lr_mult: 1
    decay_mult: 1
  }
  param {
    lr_mult: 2
    decay_mult: 0
  }
  convolution_param {
    num_output: 32
    kernel_size: 1
    weight_filler {
      type: "xavier"
      std: 0.2
    }
    bias_filler {
      type: "constant"
      value: 0.2
    }
  }
}
layer {
  name: "inception_4e/relu_5x5_reduce"
  type: "ReLU"
  bottom: "inception_4e/5x5_reduce"
  top: "inception_4e/5x5_reduce"
}
layer {
  name: "inception_4e/5x5"
  type: "Convolution"
  bottom: "inception_4e/5x5_reduce"
  top: "inception_4e/5x5"
  p
I0403 15:36:51.268376 15645 layer_factory.hpp:77] Creating layer data
I0403 15:36:51.268954 15645 net.cpp:91] Creating Layer data
I0403 15:36:51.268985 15645 net.cpp:399] data -> data
I0403 15:36:51.269032 15645 net.cpp:399] data -> label
I0403 15:36:51.269068 15645 data_transformer.cpp:25] Loading mean file from: /home/mohanty/data/final_dataset/lmdb/color-50-50/mean.binaryproto
I0403 15:36:51.271865 15647 db_lmdb.cpp:38] Opened lmdb /home/mohanty/data/final_dataset/lmdb/color-50-50/test_db
I0403 15:36:51.282672 15645 data_layer.cpp:41] output data size: 24,3,224,224
I0403 15:36:51.309476 15645 net.cpp:141] Setting up data
I0403 15:36:51.309551 15645 net.cpp:148] Top shape: 24 3 224 224 (3612672)
I0403 15:36:51.309574 15645 net.cpp:148] Top shape: 24 (24)
I0403 15:36:51.309588 15645 net.cpp:156] Memory required for data: 14450784
I0403 15:36:51.309615 15645 layer_factory.hpp:77] Creating layer label_data_1_split
I0403 15:36:51.309643 15645 net.cpp:91] Creating Layer label_data_1_split
I0403 15:36:51.309659 15645 net.cpp:425] label_data_1_split <- label
I0403 15:36:51.309689 15645 net.cpp:399] label_data_1_split -> label_data_1_split_0
I0403 15:36:51.309717 15645 net.cpp:399] label_data_1_split -> label_data_1_split_1
I0403 15:36:51.309738 15645 net.cpp:399] label_data_1_split -> label_data_1_split_2
I0403 15:36:51.309758 15645 net.cpp:399] label_data_1_split -> label_data_1_split_3
I0403 15:36:51.309777 15645 net.cpp:399] label_data_1_split -> label_data_1_split_4
I0403 15:36:51.309798 15645 net.cpp:399] label_data_1_split -> label_data_1_split_5
I0403 15:36:51.309815 15645 net.cpp:399] label_data_1_split -> label_data_1_split_6
I0403 15:36:51.309836 15645 net.cpp:399] label_data_1_split -> label_data_1_split_7
I0403 15:36:51.309855 15645 net.cpp:399] label_data_1_split -> label_data_1_split_8
I0403 15:36:51.309875 15645 net.cpp:399] label_data_1_split -> label_data_1_split_9
I0403 15:36:51.309988 15645 net.cpp:141] Setting up label_data_1_split
I0403 15:36:51.310011 15645 net.cpp:148] Top shape: 24 (24)
I0403 15:36:51.310027 15645 net.cpp:148] Top shape: 24 (24)
I0403 15:36:51.310044 15645 net.cpp:148] Top shape: 24 (24)
I0403 15:36:51.310058 15645 net.cpp:148] Top shape: 24 (24)
I0403 15:36:51.310073 15645 net.cpp:148] Top shape: 24 (24)
I0403 15:36:51.310088 15645 net.cpp:148] Top shape: 24 (24)
I0403 15:36:51.310103 15645 net.cpp:148] Top shape: 24 (24)
I0403 15:36:51.310118 15645 net.cpp:148] Top shape: 24 (24)
I0403 15:36:51.310132 15645 net.cpp:148] Top shape: 24 (24)
I0403 15:36:51.310148 15645 net.cpp:148] Top shape: 24 (24)
I0403 15:36:51.310195 15645 net.cpp:156] Memory required for data: 14451744
I0403 15:36:51.310211 15645 layer_factory.hpp:77] Creating layer conv1/7x7_s2
I0403 15:36:51.310242 15645 net.cpp:91] Creating Layer conv1/7x7_s2
I0403 15:36:51.310261 15645 net.cpp:425] conv1/7x7_s2 <- data
I0403 15:36:51.310278 15645 net.cpp:399] conv1/7x7_s2 -> conv1/7x7_s2
I0403 15:36:51.447803 15645 net.cpp:141] Setting up conv1/7x7_s2
I0403 15:36:51.447868 15645 net.cpp:148] Top shape: 24 64 112 112 (19267584)
I0403 15:36:51.447885 15645 net.cpp:156] Memory required for data: 91522080
I0403 15:36:51.447916 15645 layer_factory.hpp:77] Creating layer conv1/relu_7x7
I0403 15:36:51.447942 15645 net.cpp:91] Creating Layer conv1/relu_7x7
I0403 15:36:51.447960 15645 net.cpp:425] conv1/relu_7x7 <- conv1/7x7_s2
I0403 15:36:51.447978 15645 net.cpp:386] conv1/relu_7x7 -> conv1/7x7_s2 (in-place)
I0403 15:36:51.448236 15645 net.cpp:141] Setting up conv1/relu_7x7
I0403 15:36:51.448263 15645 net.cpp:148] Top shape: 24 64 112 112 (19267584)
I0403 15:36:51.448279 15645 net.cpp:156] Memory required for data: 168592416
I0403 15:36:51.448294 15645 layer_factory.hpp:77] Creating layer pool1/3x3_s2
I0403 15:36:51.448318 15645 net.cpp:91] Creating Layer pool1/3x3_s2
I0403 15:36:51.448336 15645 net.cpp:425] pool1/3x3_s2 <- conv1/7x7_s2
I0403 15:36:51.448354 15645 net.cpp:399] pool1/3x3_s2 -> pool1/3x3_s2
I0403 15:36:51.448429 15645 net.cpp:141] Setting up pool1/3x3_s2
I0403 15:36:51.448452 15645 net.cpp:148] Top shape: 24 64 56 56 (4816896)
I0403 15:36:51.448467 15645 net.cpp:156] Memory required for data: 187860000
I0403 15:36:51.448482 15645 layer_factory.hpp:77] Creating layer pool1/norm1
I0403 15:36:51.448506 15645 net.cpp:91] Creating Layer pool1/norm1
I0403 15:36:51.448523 15645 net.cpp:425] pool1/norm1 <- pool1/3x3_s2
I0403 15:36:51.448545 15645 net.cpp:399] pool1/norm1 -> pool1/norm1
I0403 15:36:51.448849 15645 net.cpp:141] Setting up pool1/norm1
I0403 15:36:51.448876 15645 net.cpp:148] Top shape: 24 64 56 56 (4816896)
I0403 15:36:51.448890 15645 net.cpp:156] Memory required for data: 207127584
I0403 15:36:51.448905 15645 layer_factory.hpp:77] Creating layer conv2/3x3_reduce
I0403 15:36:51.448932 15645 net.cpp:91] Creating Layer conv2/3x3_reduce
I0403 15:36:51.448950 15645 net.cpp:425] conv2/3x3_reduce <- pool1/norm1
I0403 15:36:51.448971 15645 net.cpp:399] conv2/3x3_reduce -> conv2/3x3_reduce
I0403 15:36:51.450429 15645 net.cpp:141] Setting up conv2/3x3_reduce
I0403 15:36:51.450459 15645 net.cpp:148] Top shape: 24 64 56 56 (4816896)
I0403 15:36:51.450475 15645 net.cpp:156] Memory required for data: 226395168
I0403 15:36:51.450496 15645 layer_factory.hpp:77] Creating layer conv2/relu_3x3_reduce
I0403 15:36:51.450520 15645 net.cpp:91] Creating Layer conv2/relu_3x3_reduce
I0403 15:36:51.450541 15645 net.cpp:425] conv2/relu_3x3_reduce <- conv2/3x3_reduce
I0403 15:36:51.450561 15645 net.cpp:386] conv2/relu_3x3_reduce -> conv2/3x3_reduce (in-place)
I0403 15:36:51.450832 15645 net.cpp:141] Setting up conv2/relu_3x3_reduce
I0403 15:36:51.450860 15645 net.cpp:148] Top shape: 24 64 56 56 (4816896)
I0403 15:36:51.450875 15645 net.cpp:156] Memory required for data: 245662752
I0403 15:36:51.450891 15645 layer_factory.hpp:77] Creating layer conv2/3x3
I0403 15:36:51.450917 15645 net.cpp:91] Creating Layer conv2/3x3
I0403 15:36:51.450937 15645 net.cpp:425] conv2/3x3 <- conv2/3x3_reduce
I0403 15:36:51.450955 15645 net.cpp:399] conv2/3x3 -> conv2/3x3
I0403 15:36:51.453304 15645 net.cpp:141] Setting up conv2/3x3
I0403 15:36:51.453333 15645 net.cpp:148] Top shape: 24 192 56 56 (14450688)
I0403 15:36:51.453351 15645 net.cpp:156] Memory required for data: 303465504
I0403 15:36:51.453373 15645 layer_factory.hpp:77] Creating layer conv2/relu_3x3
I0403 15:36:51.453395 15645 net.cpp:91] Creating Layer conv2/relu_3x3
I0403 15:36:51.453413 15645 net.cpp:425] conv2/relu_3x3 <- conv2/3x3
I0403 15:36:51.453430 15645 net.cpp:386] conv2/relu_3x3 -> conv2/3x3 (in-place)
I0403 15:36:51.453619 15645 net.cpp:141] Setting up conv2/relu_3x3
I0403 15:36:51.453644 15645 net.cpp:148] Top shape: 24 192 56 56 (14450688)
I0403 15:36:51.453696 15645 net.cpp:156] Memory required for data: 361268256
I0403 15:36:51.453711 15645 layer_factory.hpp:77] Creating layer conv2/norm2
I0403 15:36:51.453729 15645 net.cpp:91] Creating Layer conv2/norm2
I0403 15:36:51.453748 15645 net.cpp:425] conv2/norm2 <- conv2/3x3
I0403 15:36:51.453768 15645 net.cpp:399] conv2/norm2 -> conv2/norm2
I0403 15:36:51.454078 15645 net.cpp:141] Setting up conv2/norm2
I0403 15:36:51.454105 15645 net.cpp:148] Top shape: 24 192 56 56 (14450688)
I0403 15:36:51.454121 15645 net.cpp:156] Memory required for data: 419071008
I0403 15:36:51.454135 15645 layer_factory.hpp:77] Creating layer pool2/3x3_s2
I0403 15:36:51.454156 15645 net.cpp:91] Creating Layer pool2/3x3_s2
I0403 15:36:51.454174 15645 net.cpp:425] pool2/3x3_s2 <- conv2/norm2
I0403 15:36:51.454190 15645 net.cpp:399] pool2/3x3_s2 -> pool2/3x3_s2
I0403 15:36:51.454246 15645 net.cpp:141] Setting up pool2/3x3_s2
I0403 15:36:51.454269 15645 net.cpp:148] Top shape: 24 192 28 28 (3612672)
I0403 15:36:51.454284 15645 net.cpp:156] Memory required for data: 433521696
I0403 15:36:51.454299 15645 layer_factory.hpp:77] Creating layer pool2/3x3_s2_pool2/3x3_s2_0_split
I0403 15:36:51.454316 15645 net.cpp:91] Creating Layer pool2/3x3_s2_pool2/3x3_s2_0_split
I0403 15:36:51.454330 15645 net.cpp:425] pool2/3x3_s2_pool2/3x3_s2_0_split <- pool2/3x3_s2
I0403 15:36:51.454350 15645 net.cpp:399] pool2/3x3_s2_pool2/3x3_s2_0_split -> pool2/3x3_s2_pool2/3x3_s2_0_split_0
I0403 15:36:51.454371 15645 net.cpp:399] pool2/3x3_s2_pool2/3x3_s2_0_split -> pool2/3x3_s2_pool2/3x3_s2_0_split_1
I0403 15:36:51.454391 15645 net.cpp:399] pool2/3x3_s2_pool2/3x3_s2_0_split -> pool2/3x3_s2_pool2/3x3_s2_0_split_2
I0403 15:36:51.454411 15645 net.cpp:399] pool2/3x3_s2_pool2/3x3_s2_0_split -> pool2/3x3_s2_pool2/3x3_s2_0_split_3
I0403 15:36:51.454483 15645 net.cpp:141] Setting up pool2/3x3_s2_pool2/3x3_s2_0_split
I0403 15:36:51.454509 15645 net.cpp:148] Top shape: 24 192 28 28 (3612672)
I0403 15:36:51.454525 15645 net.cpp:148] Top shape: 24 192 28 28 (3612672)
I0403 15:36:51.454545 15645 net.cpp:148] Top shape: 24 192 28 28 (3612672)
I0403 15:36:51.454562 15645 net.cpp:148] Top shape: 24 192 28 28 (3612672)
I0403 15:36:51.454576 15645 net.cpp:156] Memory required for data: 491324448
I0403 15:36:51.454591 15645 layer_factory.hpp:77] Creating layer inception_3a/1x1
I0403 15:36:51.454613 15645 net.cpp:91] Creating Layer inception_3a/1x1
I0403 15:36:51.454630 15645 net.cpp:425] inception_3a/1x1 <- pool2/3x3_s2_pool2/3x3_s2_0_split_0
I0403 15:36:51.454649 15645 net.cpp:399] inception_3a/1x1 -> inception_3a/1x1
I0403 15:36:51.456277 15645 net.cpp:141] Setting up inception_3a/1x1
I0403 15:36:51.456308 15645 net.cpp:148] Top shape: 24 64 28 28 (1204224)
I0403 15:36:51.456323 15645 net.cpp:156] Memory required for data: 496141344
I0403 15:36:51.456343 15645 layer_factory.hpp:77] Creating layer inception_3a/relu_1x1
I0403 15:36:51.456365 15645 net.cpp:91] Creating Layer inception_3a/relu_1x1
I0403 15:36:51.456382 15645 net.cpp:425] inception_3a/relu_1x1 <- inception_3a/1x1
I0403 15:36:51.456399 15645 net.cpp:386] inception_3a/relu_1x1 -> inception_3a/1x1 (in-place)
I0403 15:36:51.456583 15645 net.cpp:141] Setting up inception_3a/relu_1x1
I0403 15:36:51.456611 15645 net.cpp:148] Top shape: 24 64 28 28 (1204224)
I0403 15:36:51.456629 15645 net.cpp:156] Memory required for data: 500958240
I0403 15:36:51.456643 15645 layer_factory.hpp:77] Creating layer inception_3a/3x3_reduce
I0403 15:36:51.456666 15645 net.cpp:91] Creating Layer inception_3a/3x3_reduce
I0403 15:36:51.456684 15645 net.cpp:425] inception_3a/3x3_reduce <- pool2/3x3_s2_pool2/3x3_s2_0_split_1
I0403 15:36:51.456703 15645 net.cpp:399] inception_3a/3x3_reduce -> inception_3a/3x3_reduce
I0403 15:36:51.458431 15645 net.cpp:141] Setting up inception_3a/3x3_reduce
I0403 15:36:51.458461 15645 net.cpp:148] Top shape: 24 96 28 28 (1806336)
I0403 15:36:51.458477 15645 net.cpp:156] Memory required for data: 508183584
I0403 15:36:51.458498 15645 layer_factory.hpp:77] Creating layer inception_3a/relu_3x3_reduce
I0403 15:36:51.458540 15645 net.cpp:91] Creating Layer inception_3a/relu_3x3_reduce
I0403 15:36:51.458559 15645 net.cpp:425] inception_3a/relu_3x3_reduce <- inception_3a/3x3_reduce
I0403 15:36:51.458583 15645 net.cpp:386] inception_3a/relu_3x3_reduce -> inception_3a/3x3_reduce (in-place)
I0403 15:36:51.458770 15645 net.cpp:141] Setting up inception_3a/relu_3x3_reduce
I0403 15:36:51.458796 15645 net.cpp:148] Top shape: 24 96 28 28 (1806336)
I0403 15:36:51.458811 15645 net.cpp:156] Memory required for data: 515408928
I0403 15:36:51.458825 15645 layer_factory.hpp:77] Creating layer inception_3a/3x3
I0403 15:36:51.458847 15645 net.cpp:91] Creating Layer inception_3a/3x3
I0403 15:36:51.458864 15645 net.cpp:425] inception_3a/3x3 <- inception_3a/3x3_reduce
I0403 15:36:51.458887 15645 net.cpp:399] inception_3a/3x3 -> inception_3a/3x3
I0403 15:36:51.460566 15645 net.cpp:141] Setting up inception_3a/3x3
I0403 15:36:51.460597 15645 net.cpp:148] Top shape: 24 128 28 28 (2408448)
I0403 15:36:51.460614 15645 net.cpp:156] Memory required for data: 525042720
I0403 15:36:51.460633 15645 layer_factory.hpp:77] Creating layer inception_3a/relu_3x3
I0403 15:36:51.460652 15645 net.cpp:91] Creating Layer inception_3a/relu_3x3
I0403 15:36:51.460669 15645 net.cpp:425] inception_3a/relu_3x3 <- inception_3a/3x3
I0403 15:36:51.460685 15645 net.cpp:386] inception_3a/relu_3x3 -> inception_3a/3x3 (in-place)
I0403 15:36:51.460965 15645 net.cpp:141] Setting up inception_3a/relu_3x3
I0403 15:36:51.460995 15645 net.cpp:148] Top shape: 24 128 28 28 (2408448)
I0403 15:36:51.461011 15645 net.cpp:156] Memory required for data: 534676512
I0403 15:36:51.461026 15645 layer_factory.hpp:77] Creating layer inception_3a/5x5_reduce
I0403 15:36:51.461050 15645 net.cpp:91] Creating Layer inception_3a/5x5_reduce
I0403 15:36:51.461067 15645 net.cpp:425] inception_3a/5x5_reduce <- pool2/3x3_s2_pool2/3x3_s2_0_split_2
I0403 15:36:51.461086 15645 net.cpp:399] inception_3a/5x5_reduce -> inception_3a/5x5_reduce
I0403 15:36:51.462065 15645 net.cpp:141] Setting up inception_3a/5x5_reduce
I0403 15:36:51.462096 15645 net.cpp:148] Top shape: 24 16 28 28 (301056)
I0403 15:36:51.462113 15645 net.cpp:156] Memory required for data: 535880736
I0403 15:36:51.462132 15645 layer_factory.hpp:77] Creating layer inception_3a/relu_5x5_reduce
I0403 15:36:51.462152 15645 net.cpp:91] Creating Layer inception_3a/relu_5x5_reduce
I0403 15:36:51.462167 15645 net.cpp:425] inception_3a/relu_5x5_reduce <- inception_3a/5x5_reduce
I0403 15:36:51.462187 15645 net.cpp:386] inception_3a/relu_5x5_reduce -> inception_3a/5x5_reduce (in-place)
I0403 15:36:51.462486 15645 net.cpp:141] Setting up inception_3a/relu_5x5_reduce
I0403 15:36:51.462512 15645 net.cpp:148] Top shape: 24 16 28 28 (301056)
I0403 15:36:51.462527 15645 net.cpp:156] Memory required for data: 537084960
I0403 15:36:51.462548 15645 layer_factory.hpp:77] Creating layer inception_3a/5x5
I0403 15:36:51.462571 15645 net.cpp:91] Creating Layer inception_3a/5x5
I0403 15:36:51.462589 15645 net.cpp:425] inception_3a/5x5 <- inception_3a/5x5_reduce
I0403 15:36:51.462612 15645 net.cpp:399] inception_3a/5x5 -> inception_3a/5x5
I0403 15:36:51.463642 15645 net.cpp:141] Setting up inception_3a/5x5
I0403 15:36:51.463671 15645 net.cpp:148] Top shape: 24 32 28 28 (602112)
I0403 15:36:51.463690 15645 net.cpp:156] Memory required for data: 539493408
I0403 15:36:51.463709 15645 layer_factory.hpp:77] Creating layer inception_3a/relu_5x5
I0403 15:36:51.463728 15645 net.cpp:91] Creating Layer inception_3a/relu_5x5
I0403 15:36:51.463744 15645 net.cpp:425] inception_3a/relu_5x5 <- inception_3a/5x5
I0403 15:36:51.463762 15645 net.cpp:386] inception_3a/relu_5x5 -> inception_3a/5x5 (in-place)
I0403 15:36:51.463937 15645 net.cpp:141] Setting up inception_3a/relu_5x5
I0403 15:36:51.463965 15645 net.cpp:148] Top shape: 24 32 28 28 (602112)
I0403 15:36:51.463982 15645 net.cpp:156] Memory required for data: 541901856
I0403 15:36:51.463997 15645 layer_factory.hpp:77] Creating layer inception_3a/pool
I0403 15:36:51.464015 15645 net.cpp:91] Creating Layer inception_3a/pool
I0403 15:36:51.464031 15645 net.cpp:425] inception_3a/pool <- pool2/3x3_s2_pool2/3x3_s2_0_split_3
I0403 15:36:51.464068 15645 net.cpp:399] inception_3a/pool -> inception_3a/pool
I0403 15:36:51.464128 15645 net.cpp:141] Setting up inception_3a/pool
I0403 15:36:51.464154 15645 net.cpp:148] Top shape: 24 192 28 28 (3612672)
I0403 15:36:51.464169 15645 net.cpp:156] Memory required for data: 556352544
I0403 15:36:51.464184 15645 layer_factory.hpp:77] Creating layer inception_3a/pool_proj
I0403 15:36:51.464203 15645 net.cpp:91] Creating Layer inception_3a/pool_proj
I0403 15:36:51.464221 15645 net.cpp:425] inception_3a/pool_proj <- inception_3a/pool
I0403 15:36:51.464243 15645 net.cpp:399] inception_3a/pool_proj -> inception_3a/pool_proj
I0403 15:36:51.465235 15645 net.cpp:141] Setting up inception_3a/pool_proj
I0403 15:36:51.465265 15645 net.cpp:148] Top shape: 24 32 28 28 (602112)
I0403 15:36:51.465279 15645 net.cpp:156] Memory required for data: 558760992
I0403 15:36:51.465303 15645 layer_factory.hpp:77] Creating layer inception_3a/relu_pool_proj
I0403 15:36:51.465324 15645 net.cpp:91] Creating Layer inception_3a/relu_pool_proj
I0403 15:36:51.465340 15645 net.cpp:425] inception_3a/relu_pool_proj <- inception_3a/pool_proj
I0403 15:36:51.465359 15645 net.cpp:386] inception_3a/relu_pool_proj -> inception_3a/pool_proj (in-place)
I0403 15:36:51.465646 15645 net.cpp:141] Setting up inception_3a/relu_pool_proj
I0403 15:36:51.465675 15645 net.cpp:148] Top shape: 24 32 28 28 (602112)
I0403 15:36:51.465692 15645 net.cpp:156] Memory required for data: 561169440
I0403 15:36:51.465706 15645 layer_factory.hpp:77] Creating layer inception_3a/output
I0403 15:36:51.465724 15645 net.cpp:91] Creating Layer inception_3a/output
I0403 15:36:51.465740 15645 net.cpp:425] inception_3a/output <- inception_3a/1x1
I0403 15:36:51.465756 15645 net.cpp:425] inception_3a/output <- inception_3a/3x3
I0403 15:36:51.465773 15645 net.cpp:425] inception_3a/output <- inception_3a/5x5
I0403 15:36:51.465788 15645 net.cpp:425] inception_3a/output <- inception_3a/pool_proj
I0403 15:36:51.465806 15645 net.cpp:399] inception_3a/output -> inception_3a/output
I0403 15:36:51.465855 15645 net.cpp:141] Setting up inception_3a/output
I0403 15:36:51.465879 15645 net.cpp:148] Top shape: 24 256 28 28 (4816896)
I0403 15:36:51.465894 15645 net.cpp:156] Memory required for data: 580437024
I0403 15:36:51.465909 15645 layer_factory.hpp:77] Creating layer inception_3a/output_inception_3a/output_0_split
I0403 15:36:51.465927 15645 net.cpp:91] Creating Layer inception_3a/output_inception_3a/output_0_split
I0403 15:36:51.465945 15645 net.cpp:425] inception_3a/output_inception_3a/output_0_split <- inception_3a/output
I0403 15:36:51.465962 15645 net.cpp:399] inception_3a/output_inception_3a/output_0_split -> inception_3a/output_inception_3a/output_0_split_0
I0403 15:36:51.465982 15645 net.cpp:399] inception_3a/output_inception_3a/output_0_split -> inception_3a/output_inception_3a/output_0_split_1
I0403 15:36:51.466007 15645 net.cpp:399] inception_3a/output_inception_3a/output_0_split -> inception_3a/output_inception_3a/output_0_split_2
I0403 15:36:51.466030 15645 net.cpp:399] inception_3a/output_inception_3a/output_0_split -> inception_3a/output_inception_3a/output_0_split_3
I0403 15:36:51.466107 15645 net.cpp:141] Setting up inception_3a/output_inception_3a/output_0_split
I0403 15:36:51.466130 15645 net.cpp:148] Top shape: 24 256 28 28 (4816896)
I0403 15:36:51.466147 15645 net.cpp:148] Top shape: 24 256 28 28 (4816896)
I0403 15:36:51.466162 15645 net.cpp:148] Top shape: 24 256 28 28 (4816896)
I0403 15:36:51.466177 15645 net.cpp:148] Top shape: 24 256 28 28 (4816896)
I0403 15:36:51.466192 15645 net.cpp:156] Memory required for data: 657507360
I0403 15:36:51.466205 15645 layer_factory.hpp:77] Creating layer inception_3b/1x1
I0403 15:36:51.466228 15645 net.cpp:91] Creating Layer inception_3b/1x1
I0403 15:36:51.466248 15645 net.cpp:425] inception_3b/1x1 <- inception_3a/output_inception_3a/output_0_split_0
I0403 15:36:51.466267 15645 net.cpp:399] inception_3b/1x1 -> inception_3b/1x1
I0403 15:36:51.467428 15645 net.cpp:141] Setting up inception_3b/1x1
I0403 15:36:51.467469 15645 net.cpp:148] Top shape: 24 128 28 28 (2408448)
I0403 15:36:51.467485 15645 net.cpp:156] Memory required for data: 667141152
I0403 15:36:51.467504 15645 layer_factory.hpp:77] Creating layer inception_3b/relu_1x1
I0403 15:36:51.467526 15645 net.cpp:91] Creating Layer inception_3b/relu_1x1
I0403 15:36:51.467548 15645 net.cpp:425] inception_3b/relu_1x1 <- inception_3b/1x1
I0403 15:36:51.467567 15645 net.cpp:386] inception_3b/relu_1x1 -> inception_3b/1x1 (in-place)
I0403 15:36:51.467744 15645 net.cpp:141] Setting up inception_3b/relu_1x1
I0403 15:36:51.467773 15645 net.cpp:148] Top shape: 24 128 28 28 (2408448)
I0403 15:36:51.467789 15645 net.cpp:156] Memory required for data: 676774944
I0403 15:36:51.467804 15645 layer_factory.hpp:77] Creating layer inception_3b/3x3_reduce
I0403 15:36:51.467828 15645 net.cpp:91] Creating Layer inception_3b/3x3_reduce
I0403 15:36:51.467844 15645 net.cpp:425] inception_3b/3x3_reduce <- inception_3a/output_inception_3a/output_0_split_1
I0403 15:36:51.467864 15645 net.cpp:399] inception_3b/3x3_reduce -> inception_3b/3x3_reduce
I0403 15:36:51.469020 15645 net.cpp:141] Setting up inception_3b/3x3_reduce
I0403 15:36:51.469048 15645 net.cpp:148] Top shape: 24 128 28 28 (2408448)
I0403 15:36:51.469064 15645 net.cpp:156] Memory required for data: 686408736
I0403 15:36:51.469084 15645 layer_factory.hpp:77] Creating layer inception_3b/relu_3x3_reduce
I0403 15:36:51.469105 15645 net.cpp:91] Creating Layer inception_3b/relu_3x3_reduce
I0403 15:36:51.469121 15645 net.cpp:425] inception_3b/relu_3x3_reduce <- inception_3b/3x3_reduce
I0403 15:36:51.469140 15645 net.cpp:386] inception_3b/relu_3x3_reduce -> inception_3b/3x3_reduce (in-place)
I0403 15:36:51.469319 15645 net.cpp:141] Setting up inception_3b/relu_3x3_reduce
I0403 15:36:51.469347 15645 net.cpp:148] Top shape: 24 128 28 28 (2408448)
I0403 15:36:51.469363 15645 net.cpp:156] Memory required for data: 696042528
I0403 15:36:51.469378 15645 layer_factory.hpp:77] Creating layer inception_3b/3x3
I0403 15:36:51.469403 15645 net.cpp:91] Creating Layer inception_3b/3x3
I0403 15:36:51.469421 15645 net.cpp:425] inception_3b/3x3 <- inception_3b/3x3_reduce
I0403 15:36:51.469442 15645 net.cpp:399] inception_3b/3x3 -> inception_3b/3x3
I0403 15:36:51.472360 15645 net.cpp:141] Setting up inception_3b/3x3
I0403 15:36:51.472391 15645 net.cpp:148] Top shape: 24 192 28 28 (3612672)
I0403 15:36:51.472407 15645 net.cpp:156] Memory required for data: 710493216
I0403 15:36:51.472425 15645 layer_factory.hpp:77] Creating layer inception_3b/relu_3x3
I0403 15:36:51.472443 15645 net.cpp:91] Creating Layer inception_3b/relu_3x3
I0403 15:36:51.472460 15645 net.cpp:425] inception_3b/relu_3x3 <- inception_3b/3x3
I0403 15:36:51.472476 15645 net.cpp:386] inception_3b/relu_3x3 -> inception_3b/3x3 (in-place)
I0403 15:36:51.472755 15645 net.cpp:141] Setting up inception_3b/relu_3x3
I0403 15:36:51.472786 15645 net.cpp:148] Top shape: 24 192 28 28 (3612672)
I0403 15:36:51.472802 15645 net.cpp:156] Memory required for data: 724943904
I0403 15:36:51.472817 15645 layer_factory.hpp:77] Creating layer inception_3b/5x5_reduce
I0403 15:36:51.472839 15645 net.cpp:91] Creating Layer inception_3b/5x5_reduce
I0403 15:36:51.472856 15645 net.cpp:425] inception_3b/5x5_reduce <- inception_3a/output_inception_3a/output_0_split_2
I0403 15:36:51.472875 15645 net.cpp:399] inception_3b/5x5_reduce -> inception_3b/5x5_reduce
I0403 15:36:51.473870 15645 net.cpp:141] Setting up inception_3b/5x5_reduce
I0403 15:36:51.473899 15645 net.cpp:148] Top shape: 24 32 28 28 (602112)
I0403 15:36:51.473915 15645 net.cpp:156] Memory required for data: 727352352
I0403 15:36:51.473933 15645 layer_factory.hpp:77] Creating layer inception_3b/relu_5x5_reduce
I0403 15:36:51.473951 15645 net.cpp:91] Creating Layer inception_3b/relu_5x5_reduce
I0403 15:36:51.473968 15645 net.cpp:425] inception_3b/relu_5x5_reduce <- inception_3b/5x5_reduce
I0403 15:36:51.473984 15645 net.cpp:386] inception_3b/relu_5x5_reduce -> inception_3b/5x5_reduce (in-place)
I0403 15:36:51.474161 15645 net.cpp:141] Setting up inception_3b/relu_5x5_reduce
I0403 15:36:51.474200 15645 net.cpp:148] Top shape: 24 32 28 28 (602112)
I0403 15:36:51.474216 15645 net.cpp:156] Memory required for data: 729760800
I0403 15:36:51.474231 15645 layer_factory.hpp:77] Creating layer inception_3b/5x5
I0403 15:36:51.474253 15645 net.cpp:91] Creating Layer inception_3b/5x5
I0403 15:36:51.474272 15645 net.cpp:425] inception_3b/5x5 <- inception_3b/5x5_reduce
I0403 15:36:51.474292 15645 net.cpp:399] inception_3b/5x5 -> inception_3b/5x5
I0403 15:36:51.476271 15645 net.cpp:141] Setting up inception_3b/5x5
I0403 15:36:51.476300 15645 net.cpp:148] Top shape: 24 96 28 28 (1806336)
I0403 15:36:51.476316 15645 net.cpp:156] Memory required for data: 736986144
I0403 15:36:51.476336 15645 layer_factory.hpp:77] Creating layer inception_3b/relu_5x5
I0403 15:36:51.476356 15645 net.cpp:91] Creating Layer inception_3b/relu_5x5
I0403 15:36:51.476373 15645 net.cpp:425] inception_3b/relu_5x5 <- inception_3b/5x5
I0403 15:36:51.476392 15645 net.cpp:386] inception_3b/relu_5x5 -> inception_3b/5x5 (in-place)
I0403 15:36:51.476606 15645 net.cpp:141] Setting up inception_3b/relu_5x5
I0403 15:36:51.476631 15645 net.cpp:148] Top shape: 24 96 28 28 (1806336)
I0403 15:36:51.476646 15645 net.cpp:156] Memory required for data: 744211488
I0403 15:36:51.476661 15645 layer_factory.hpp:77] Creating layer inception_3b/pool
I0403 15:36:51.476678 15645 net.cpp:91] Creating Layer inception_3b/pool
I0403 15:36:51.476694 15645 net.cpp:425] inception_3b/pool <- inception_3a/output_inception_3a/output_0_split_3
I0403 15:36:51.476712 15645 net.cpp:399] inception_3b/pool -> inception_3b/pool
I0403 15:36:51.476768 15645 net.cpp:141] Setting up inception_3b/pool
I0403 15:36:51.476790 15645 net.cpp:148] Top shape: 24 256 28 28 (4816896)
I0403 15:36:51.476805 15645 net.cpp:156] Memory required for data: 763479072
I0403 15:36:51.476820 15645 layer_factory.hpp:77] Creating layer inception_3b/pool_proj
I0403 15:36:51.476842 15645 net.cpp:91] Creating Layer inception_3b/pool_proj
I0403 15:36:51.476860 15645 net.cpp:425] inception_3b/pool_proj <- inception_3b/pool
I0403 15:36:51.476879 15645 net.cpp:399] inception_3b/pool_proj -> inception_3b/pool_proj
I0403 15:36:51.477931 15645 net.cpp:141] Setting up inception_3b/pool_proj
I0403 15:36:51.477958 15645 net.cpp:148] Top shape: 24 64 28 28 (1204224)
I0403 15:36:51.477974 15645 net.cpp:156] Memory required for data: 768295968
I0403 15:36:51.477993 15645 layer_factory.hpp:77] Creating layer inception_3b/relu_pool_proj
I0403 15:36:51.478010 15645 net.cpp:91] Creating Layer inception_3b/relu_pool_proj
I0403 15:36:51.478026 15645 net.cpp:425] inception_3b/relu_pool_proj <- inception_3b/pool_proj
I0403 15:36:51.478045 15645 net.cpp:386] inception_3b/relu_pool_proj -> inception_3b/pool_proj (in-place)
I0403 15:36:51.478430 15645 net.cpp:141] Setting up inception_3b/relu_pool_proj
I0403 15:36:51.478456 15645 net.cpp:148] Top shape: 24 64 28 28 (1204224)
I0403 15:36:51.478471 15645 net.cpp:156] Memory required for data: 773112864
I0403 15:36:51.478485 15645 layer_factory.hpp:77] Creating layer inception_3b/output
I0403 15:36:51.478502 15645 net.cpp:91] Creating Layer inception_3b/output
I0403 15:36:51.478518 15645 net.cpp:425] inception_3b/output <- inception_3b/1x1
I0403 15:36:51.478533 15645 net.cpp:425] inception_3b/output <- inception_3b/3x3
I0403 15:36:51.478554 15645 net.cpp:425] inception_3b/output <- inception_3b/5x5
I0403 15:36:51.478571 15645 net.cpp:425] inception_3b/output <- inception_3b/pool_proj
I0403 15:36:51.478590 15645 net.cpp:399] inception_3b/output -> inception_3b/output
I0403 15:36:51.478636 15645 net.cpp:141] Setting up inception_3b/output
I0403 15:36:51.478657 15645 net.cpp:148] Top shape: 24 480 28 28 (9031680)
I0403 15:36:51.478675 15645 net.cpp:156] Memory required for data: 809239584
I0403 15:36:51.478690 15645 layer_factory.hpp:77] Creating layer pool3/3x3_s2
I0403 15:36:51.478708 15645 net.cpp:91] Creating Layer pool3/3x3_s2
I0403 15:36:51.478723 15645 net.cpp:425] pool3/3x3_s2 <- inception_3b/output
I0403 15:36:51.478739 15645 net.cpp:399] pool3/3x3_s2 -> pool3/3x3_s2
I0403 15:36:51.478814 15645 net.cpp:141] Setting up pool3/3x3_s2
I0403 15:36:51.478838 15645 net.cpp:148] Top shape: 24 480 14 14 (2257920)
I0403 15:36:51.478852 15645 net.cpp:156] Memory required for data: 818271264
I0403 15:36:51.478866 15645 layer_factory.hpp:77] Creating layer pool3/3x3_s2_pool3/3x3_s2_0_split
I0403 15:36:51.478883 15645 net.cpp:91] Creating Layer pool3/3x3_s2_pool3/3x3_s2_0_split
I0403 15:36:51.478899 15645 net.cpp:425] pool3/3x3_s2_pool3/3x3_s2_0_split <- pool3/3x3_s2
I0403 15:36:51.478917 15645 net.cpp:399] pool3/3x3_s2_pool3/3x3_s2_0_split -> pool3/3x3_s2_pool3/3x3_s2_0_split_0
I0403 15:36:51.478937 15645 net.cpp:399] pool3/3x3_s2_pool3/3x3_s2_0_split -> pool3/3x3_s2_pool3/3x3_s2_0_split_1
I0403 15:36:51.478957 15645 net.cpp:399] pool3/3x3_s2_pool3/3x3_s2_0_split -> pool3/3x3_s2_pool3/3x3_s2_0_split_2
I0403 15:36:51.478977 15645 net.cpp:399] pool3/3x3_s2_pool3/3x3_s2_0_split -> pool3/3x3_s2_pool3/3x3_s2_0_split_3
I0403 15:36:51.479053 15645 net.cpp:141] Setting up pool3/3x3_s2_pool3/3x3_s2_0_split
I0403 15:36:51.479079 15645 net.cpp:148] Top shape: 24 480 14 14 (2257920)
I0403 15:36:51.479096 15645 net.cpp:148] Top shape: 24 480 14 14 (2257920)
I0403 15:36:51.479111 15645 net.cpp:148] Top shape: 24 480 14 14 (2257920)
I0403 15:36:51.479126 15645 net.cpp:148] Top shape: 24 480 14 14 (2257920)
I0403 15:36:51.479140 15645 net.cpp:156] Memory required for data: 854397984
I0403 15:36:51.479154 15645 layer_factory.hpp:77] Creating layer inception_4a/1x1
I0403 15:36:51.479176 15645 net.cpp:91] Creating Layer inception_4a/1x1
I0403 15:36:51.479192 15645 net.cpp:425] inception_4a/1x1 <- pool3/3x3_s2_pool3/3x3_s2_0_split_0
I0403 15:36:51.479213 15645 net.cpp:399] inception_4a/1x1 -> inception_4a/1x1
I0403 15:36:51.480779 15645 net.cpp:141] Setting up inception_4a/1x1
I0403 15:36:51.480806 15645 net.cpp:148] Top shape: 24 192 14 14 (903168)
I0403 15:36:51.480823 15645 net.cpp:156] Memory required for data: 858010656
I0403 15:36:51.480840 15645 layer_factory.hpp:77] Creating layer inception_4a/relu_1x1
I0403 15:36:51.480861 15645 net.cpp:91] Creating Layer inception_4a/relu_1x1
I0403 15:36:51.480877 15645 net.cpp:425] inception_4a/relu_1x1 <- inception_4a/1x1
I0403 15:36:51.480895 15645 net.cpp:386] inception_4a/relu_1x1 -> inception_4a/1x1 (in-place)
I0403 15:36:51.481070 15645 net.cpp:141] Setting up inception_4a/relu_1x1
I0403 15:36:51.481094 15645 net.cpp:148] Top shape: 24 192 14 14 (903168)
I0403 15:36:51.481108 15645 net.cpp:156] Memory required for data: 861623328
I0403 15:36:51.481123 15645 layer_factory.hpp:77] Creating layer inception_4a/3x3_reduce
I0403 15:36:51.481147 15645 net.cpp:91] Creating Layer inception_4a/3x3_reduce
I0403 15:36:51.481163 15645 net.cpp:425] inception_4a/3x3_reduce <- pool3/3x3_s2_pool3/3x3_s2_0_split_1
I0403 15:36:51.481184 15645 net.cpp:399] inception_4a/3x3_reduce -> inception_4a/3x3_reduce
I0403 15:36:51.482458 15645 net.cpp:141] Setting up inception_4a/3x3_reduce
I0403 15:36:51.482486 15645 net.cpp:148] Top shape: 24 96 14 14 (451584)
I0403 15:36:51.482501 15645 net.cpp:156] Memory required for data: 863429664
I0403 15:36:51.482524 15645 layer_factory.hpp:77] Creating layer inception_4a/relu_3x3_reduce
I0403 15:36:51.482573 15645 net.cpp:91] Creating Layer inception_4a/relu_3x3_reduce
I0403 15:36:51.482591 15645 net.cpp:425] inception_4a/relu_3x3_reduce <- inception_4a/3x3_reduce
I0403 15:36:51.482620 15645 net.cpp:386] inception_4a/relu_3x3_reduce -> inception_4a/3x3_reduce (in-place)
I0403 15:36:51.482801 15645 net.cpp:141] Setting up inception_4a/relu_3x3_reduce
I0403 15:36:51.482827 15645 net.cpp:148] Top shape: 24 96 14 14 (451584)
I0403 15:36:51.482841 15645 net.cpp:156] Memory required for data: 865236000
I0403 15:36:51.482856 15645 layer_factory.hpp:77] Creating layer inception_4a/3x3
I0403 15:36:51.482885 15645 net.cpp:91] Creating Layer inception_4a/3x3
I0403 15:36:51.482903 15645 net.cpp:425] inception_4a/3x3 <- inception_4a/3x3_reduce
I0403 15:36:51.482928 15645 net.cpp:399] inception_4a/3x3 -> inception_4a/3x3
I0403 15:36:51.485683 15645 net.cpp:141] Setting up inception_4a/3x3
I0403 15:36:51.485713 15645 net.cpp:148] Top shape: 24 208 14 14 (978432)
I0403 15:36:51.485730 15645 net.cpp:156] Memory required for data: 869149728
I0403 15:36:51.485749 15645 layer_factory.hpp:77] Creating layer inception_4a/relu_3x3
I0403 15:36:51.485769 15645 net.cpp:91] Creating Layer inception_4a/relu_3x3
I0403 15:36:51.485786 15645 net.cpp:425] inception_4a/relu_3x3 <- inception_4a/3x3
I0403 15:36:51.485805 15645 net.cpp:386] inception_4a/relu_3x3 -> inception_4a/3x3 (in-place)
I0403 15:36:51.486095 15645 net.cpp:141] Setting up inception_4a/relu_3x3
I0403 15:36:51.486122 15645 net.cpp:148] Top shape: 24 208 14 14 (978432)
I0403 15:36:51.486137 15645 net.cpp:156] Memory required for data: 873063456
I0403 15:36:51.486152 15645 layer_factory.hpp:77] Creating layer inception_4a/5x5_reduce
I0403 15:36:51.486174 15645 net.cpp:91] Creating Layer inception_4a/5x5_reduce
I0403 15:36:51.486192 15645 net.cpp:425] inception_4a/5x5_reduce <- pool3/3x3_s2_pool3/3x3_s2_0_split_2
I0403 15:36:51.486213 15645 net.cpp:399] inception_4a/5x5_reduce -> inception_4a/5x5_reduce
I0403 15:36:51.487263 15645 net.cpp:141] Setting up inception_4a/5x5_reduce
I0403 15:36:51.487292 15645 net.cpp:148] Top shape: 24 16 14 14 (75264)
I0403 15:36:51.487311 15645 net.cpp:156] Memory required for data: 873364512
I0403 15:36:51.487329 15645 layer_factory.hpp:77] Creating layer inception_4a/relu_5x5_reduce
I0403 15:36:51.487347 15645 net.cpp:91] Creating Layer inception_4a/relu_5x5_reduce
I0403 15:36:51.487365 15645 net.cpp:425] inception_4a/relu_5x5_reduce <- inception_4a/5x5_reduce
I0403 15:36:51.487381 15645 net.cpp:386] inception_4a/relu_5x5_reduce -> inception_4a/5x5_reduce (in-place)
I0403 15:36:51.487576 15645 net.cpp:141] Setting up inception_4a/relu_5x5_reduce
I0403 15:36:51.487604 15645 net.cpp:148] Top shape: 24 16 14 14 (75264)
I0403 15:36:51.487620 15645 net.cpp:156] Memory required for data: 873665568
I0403 15:36:51.487635 15645 layer_factory.hpp:77] Creating layer inception_4a/5x5
I0403 15:36:51.487656 15645 net.cpp:91] Creating Layer inception_4a/5x5
I0403 15:36:51.487674 15645 net.cpp:425] inception_4a/5x5 <- inception_4a/5x5_reduce
I0403 15:36:51.487694 15645 net.cpp:399] inception_4a/5x5 -> inception_4a/5x5
I0403 15:36:51.488822 15645 net.cpp:141] Setting up inception_4a/5x5
I0403 15:36:51.488850 15645 net.cpp:148] Top shape: 24 48 14 14 (225792)
I0403 15:36:51.488867 15645 net.cpp:156] Memory required for data: 874568736
I0403 15:36:51.488884 15645 layer_factory.hpp:77] Creating layer inception_4a/relu_5x5
I0403 15:36:51.488903 15645 net.cpp:91] Creating Layer inception_4a/relu_5x5
I0403 15:36:51.488919 15645 net.cpp:425] inception_4a/relu_5x5 <- inception_4a/5x5
I0403 15:36:51.488940 15645 net.cpp:386] inception_4a/relu_5x5 -> inception_4a/5x5 (in-place)
I0403 15:36:51.489121 15645 net.cpp:141] Setting up inception_4a/relu_5x5
I0403 15:36:51.489146 15645 net.cpp:148] Top shape: 24 48 14 14 (225792)
I0403 15:36:51.489161 15645 net.cpp:156] Memory required for data: 875471904
I0403 15:36:51.489176 15645 layer_factory.hpp:77] Creating layer inception_4a/pool
I0403 15:36:51.489195 15645 net.cpp:91] Creating Layer inception_4a/pool
I0403 15:36:51.489213 15645 net.cpp:425] inception_4a/pool <- pool3/3x3_s2_pool3/3x3_s2_0_split_3
I0403 15:36:51.489231 15645 net.cpp:399] inception_4a/pool -> inception_4a/pool
I0403 15:36:51.489295 15645 net.cpp:141] Setting up inception_4a/pool
I0403 15:36:51.489320 15645 net.cpp:148] Top shape: 24 480 14 14 (2257920)
I0403 15:36:51.489334 15645 net.cpp:156] Memory required for data: 884503584
I0403 15:36:51.489349 15645 layer_factory.hpp:77] Creating layer inception_4a/pool_proj
I0403 15:36:51.489372 15645 net.cpp:91] Creating Layer inception_4a/pool_proj
I0403 15:36:51.489389 15645 net.cpp:425] inception_4a/pool_proj <- inception_4a/pool
I0403 15:36:51.489411 15645 net.cpp:399] inception_4a/pool_proj -> inception_4a/pool_proj
I0403 15:36:51.490613 15645 net.cpp:141] Setting up inception_4a/pool_proj
I0403 15:36:51.490643 15645 net.cpp:148] Top shape: 24 64 14 14 (301056)
I0403 15:36:51.490675 15645 net.cpp:156] Memory required for data: 885707808
I0403 15:36:51.490695 15645 layer_factory.hpp:77] Creating layer inception_4a/relu_pool_proj
I0403 15:36:51.490713 15645 net.cpp:91] Creating Layer inception_4a/relu_pool_proj
I0403 15:36:51.490731 15645 net.cpp:425] inception_4a/relu_pool_proj <- inception_4a/pool_proj
I0403 15:36:51.490751 15645 net.cpp:386] inception_4a/relu_pool_proj -> inception_4a/pool_proj (in-place)
I0403 15:36:51.491049 15645 net.cpp:141] Setting up inception_4a/relu_pool_proj
I0403 15:36:51.491075 15645 net.cpp:148] Top shape: 24 64 14 14 (301056)
I0403 15:36:51.491091 15645 net.cpp:156] Memory required for data: 886912032
I0403 15:36:51.491106 15645 layer_factory.hpp:77] Creating layer inception_4a/output
I0403 15:36:51.491122 15645 net.cpp:91] Creating Layer inception_4a/output
I0403 15:36:51.491138 15645 net.cpp:425] inception_4a/output <- inception_4a/1x1
I0403 15:36:51.491155 15645 net.cpp:425] inception_4a/output <- inception_4a/3x3
I0403 15:36:51.491171 15645 net.cpp:425] inception_4a/output <- inception_4a/5x5
I0403 15:36:51.491188 15645 net.cpp:425] inception_4a/output <- inception_4a/pool_proj
I0403 15:36:51.491207 15645 net.cpp:399] inception_4a/output -> inception_4a/output
I0403 15:36:51.491253 15645 net.cpp:141] Setting up inception_4a/output
I0403 15:36:51.491279 15645 net.cpp:148] Top shape: 24 512 14 14 (2408448)
I0403 15:36:51.491296 15645 net.cpp:156] Memory required for data: 896545824
I0403 15:36:51.491309 15645 layer_factory.hpp:77] Creating layer inception_4a/output_inception_4a/output_0_split
I0403 15:36:51.491328 15645 net.cpp:91] Creating Layer inception_4a/output_inception_4a/output_0_split
I0403 15:36:51.491343 15645 net.cpp:425] inception_4a/output_inception_4a/output_0_split <- inception_4a/output
I0403 15:36:51.491360 15645 net.cpp:399] inception_4a/output_inception_4a/output_0_split -> inception_4a/output_inception_4a/output_0_split_0
I0403 15:36:51.491384 15645 net.cpp:399] inception_4a/output_inception_4a/output_0_split -> inception_4a/output_inception_4a/output_0_split_1
I0403 15:36:51.491405 15645 net.cpp:399] inception_4a/output_inception_4a/output_0_split -> inception_4a/output_inception_4a/output_0_split_2
I0403 15:36:51.491427 15645 net.cpp:399] inception_4a/output_inception_4a/output_0_split -> inception_4a/output_inception_4a/output_0_split_3
I0403 15:36:51.491447 15645 net.cpp:399] inception_4a/output_inception_4a/output_0_split -> inception_4a/output_inception_4a/output_0_split_4
I0403 15:36:51.491546 15645 net.cpp:141] Setting up inception_4a/output_inception_4a/output_0_split
I0403 15:36:51.491570 15645 net.cpp:148] Top shape: 24 512 14 14 (2408448)
I0403 15:36:51.491588 15645 net.cpp:148] Top shape: 24 512 14 14 (2408448)
I0403 15:36:51.491607 15645 net.cpp:148] Top shape: 24 512 14 14 (2408448)
I0403 15:36:51.491623 15645 net.cpp:148] Top shape: 24 512 14 14 (2408448)
I0403 15:36:51.491638 15645 net.cpp:148] Top shape: 24 512 14 14 (2408448)
I0403 15:36:51.491652 15645 net.cpp:156] Memory required for data: 944714784
I0403 15:36:51.491667 15645 layer_factory.hpp:77] Creating layer loss1/ave_pool
I0403 15:36:51.491683 15645 net.cpp:91] Creating Layer loss1/ave_pool
I0403 15:36:51.491699 15645 net.cpp:425] loss1/ave_pool <- inception_4a/output_inception_4a/output_0_split_0
I0403 15:36:51.491717 15645 net.cpp:399] loss1/ave_pool -> loss1/ave_pool
I0403 15:36:51.491932 15645 net.cpp:141] Setting up loss1/ave_pool
I0403 15:36:51.491958 15645 net.cpp:148] Top shape: 24 512 4 4 (196608)
I0403 15:36:51.491973 15645 net.cpp:156] Memory required for data: 945501216
I0403 15:36:51.491988 15645 layer_factory.hpp:77] Creating layer loss1/conv
I0403 15:36:51.492012 15645 net.cpp:91] Creating Layer loss1/conv
I0403 15:36:51.492028 15645 net.cpp:425] loss1/conv <- loss1/ave_pool
I0403 15:36:51.492049 15645 net.cpp:399] loss1/conv -> loss1/conv
I0403 15:36:51.493510 15645 net.cpp:141] Setting up loss1/conv
I0403 15:36:51.493542 15645 net.cpp:148] Top shape: 24 128 4 4 (49152)
I0403 15:36:51.493559 15645 net.cpp:156] Memory required for data: 945697824
I0403 15:36:51.493594 15645 layer_factory.hpp:77] Creating layer loss1/relu_conv
I0403 15:36:51.493618 15645 net.cpp:91] Creating Layer loss1/relu_conv
I0403 15:36:51.493635 15645 net.cpp:425] loss1/relu_conv <- loss1/conv
I0403 15:36:51.493652 15645 net.cpp:386] loss1/relu_conv -> loss1/conv (in-place)
I0403 15:36:51.493944 15645 net.cpp:141] Setting up loss1/relu_conv
I0403 15:36:51.493971 15645 net.cpp:148] Top shape: 24 128 4 4 (49152)
I0403 15:36:51.493986 15645 net.cpp:156] Memory required for data: 945894432
I0403 15:36:51.494001 15645 layer_factory.hpp:77] Creating layer loss1/fc
I0403 15:36:51.494027 15645 net.cpp:91] Creating Layer loss1/fc
I0403 15:36:51.494045 15645 net.cpp:425] loss1/fc <- loss1/conv
I0403 15:36:51.494065 15645 net.cpp:399] loss1/fc -> loss1/fc
I0403 15:36:51.512020 15645 net.cpp:141] Setting up loss1/fc
I0403 15:36:51.512053 15645 net.cpp:148] Top shape: 24 1024 (24576)
I0403 15:36:51.512068 15645 net.cpp:156] Memory required for data: 945992736
I0403 15:36:51.512086 15645 layer_factory.hpp:77] Creating layer loss1/relu_fc
I0403 15:36:51.512104 15645 net.cpp:91] Creating Layer loss1/relu_fc
I0403 15:36:51.512120 15645 net.cpp:425] loss1/relu_fc <- loss1/fc
I0403 15:36:51.512140 15645 net.cpp:386] loss1/relu_fc -> loss1/fc (in-place)
I0403 15:36:51.512333 15645 net.cpp:141] Setting up loss1/relu_fc
I0403 15:36:51.512357 15645 net.cpp:148] Top shape: 24 1024 (24576)
I0403 15:36:51.512372 15645 net.cpp:156] Memory required for data: 946091040
I0403 15:36:51.512387 15645 layer_factory.hpp:77] Creating layer loss1/drop_fc
I0403 15:36:51.512414 15645 net.cpp:91] Creating Layer loss1/drop_fc
I0403 15:36:51.512431 15645 net.cpp:425] loss1/drop_fc <- loss1/fc
I0403 15:36:51.512449 15645 net.cpp:386] loss1/drop_fc -> loss1/fc (in-place)
I0403 15:36:51.512498 15645 net.cpp:141] Setting up loss1/drop_fc
I0403 15:36:51.512524 15645 net.cpp:148] Top shape: 24 1024 (24576)
I0403 15:36:51.512544 15645 net.cpp:156] Memory required for data: 946189344
I0403 15:36:51.512560 15645 layer_factory.hpp:77] Creating layer loss1/classifier_plantvillage
I0403 15:36:51.512578 15645 net.cpp:91] Creating Layer loss1/classifier_plantvillage
I0403 15:36:51.512594 15645 net.cpp:425] loss1/classifier_plantvillage <- loss1/fc
I0403 15:36:51.512616 15645 net.cpp:399] loss1/classifier_plantvillage -> loss1/classifier_plantvillage
I0403 15:36:51.513527 15645 net.cpp:141] Setting up loss1/classifier_plantvillage
I0403 15:36:51.513568 15645 net.cpp:148] Top shape: 24 38 (912)
I0403 15:36:51.513584 15645 net.cpp:156] Memory required for data: 946192992
I0403 15:36:51.513602 15645 layer_factory.hpp:77] Creating layer loss1/classifier_plantvillage_loss1/classifier_plantvillage_0_split
I0403 15:36:51.513623 15645 net.cpp:91] Creating Layer loss1/classifier_plantvillage_loss1/classifier_plantvillage_0_split
I0403 15:36:51.513639 15645 net.cpp:425] loss1/classifier_plantvillage_loss1/classifier_plantvillage_0_split <- loss1/classifier_plantvillage
I0403 15:36:51.513656 15645 net.cpp:399] loss1/classifier_plantvillage_loss1/classifier_plantvillage_0_split -> loss1/classifier_plantvillage_loss1/classifier_plantvillage_0_split_0
I0403 15:36:51.513676 15645 net.cpp:399] loss1/classifier_plantvillage_loss1/classifier_plantvillage_0_split -> loss1/classifier_plantvillage_loss1/classifier_plantvillage_0_split_1
I0403 15:36:51.513696 15645 net.cpp:399] loss1/classifier_plantvillage_loss1/classifier_plantvillage_0_split -> loss1/classifier_plantvillage_loss1/classifier_plantvillage_0_split_2
I0403 15:36:51.513763 15645 net.cpp:141] Setting up loss1/classifier_plantvillage_loss1/classifier_plantvillage_0_split
I0403 15:36:51.513787 15645 net.cpp:148] Top shape: 24 38 (912)
I0403 15:36:51.513803 15645 net.cpp:148] Top shape: 24 38 (912)
I0403 15:36:51.513816 15645 net.cpp:148] Top shape: 24 38 (912)
I0403 15:36:51.513830 15645 net.cpp:156] Memory required for data: 946203936
I0403 15:36:51.513844 15645 layer_factory.hpp:77] Creating layer inception_4b/1x1
I0403 15:36:51.513864 15645 net.cpp:91] Creating Layer inception_4b/1x1
I0403 15:36:51.513897 15645 net.cpp:425] inception_4b/1x1 <- inception_4a/output_inception_4a/output_0_split_1
I0403 15:36:51.513921 15645 net.cpp:399] inception_4b/1x1 -> inception_4b/1x1
I0403 15:36:51.515573 15645 net.cpp:141] Setting up inception_4b/1x1
I0403 15:36:51.515601 15645 net.cpp:148] Top shape: 24 160 14 14 (752640)
I0403 15:36:51.515616 15645 net.cpp:156] Memory required for data: 949214496
I0403 15:36:51.515635 15645 layer_factory.hpp:77] Creating layer inception_4b/relu_1x1
I0403 15:36:51.515655 15645 net.cpp:91] Creating Layer inception_4b/relu_1x1
I0403 15:36:51.515671 15645 net.cpp:425] inception_4b/relu_1x1 <- inception_4b/1x1
I0403 15:36:51.515687 15645 net.cpp:386] inception_4b/relu_1x1 -> inception_4b/1x1 (in-place)
I0403 15:36:51.515869 15645 net.cpp:141] Setting up inception_4b/relu_1x1
I0403 15:36:51.515897 15645 net.cpp:148] Top shape: 24 160 14 14 (752640)
I0403 15:36:51.515913 15645 net.cpp:156] Memory required for data: 952225056
I0403 15:36:51.515928 15645 layer_factory.hpp:77] Creating layer inception_4b/3x3_reduce
I0403 15:36:51.515949 15645 net.cpp:91] Creating Layer inception_4b/3x3_reduce
I0403 15:36:51.515966 15645 net.cpp:425] inception_4b/3x3_reduce <- inception_4a/output_inception_4a/output_0_split_2
I0403 15:36:51.515985 15645 net.cpp:399] inception_4b/3x3_reduce -> inception_4b/3x3_reduce
I0403 15:36:51.517341 15645 net.cpp:141] Setting up inception_4b/3x3_reduce
I0403 15:36:51.517372 15645 net.cpp:148] Top shape: 24 112 14 14 (526848)
I0403 15:36:51.517388 15645 net.cpp:156] Memory required for data: 954332448
I0403 15:36:51.517406 15645 layer_factory.hpp:77] Creating layer inception_4b/relu_3x3_reduce
I0403 15:36:51.517424 15645 net.cpp:91] Creating Layer inception_4b/relu_3x3_reduce
I0403 15:36:51.517441 15645 net.cpp:425] inception_4b/relu_3x3_reduce <- inception_4b/3x3_reduce
I0403 15:36:51.517459 15645 net.cpp:386] inception_4b/relu_3x3_reduce -> inception_4b/3x3_reduce (in-place)
I0403 15:36:51.517746 15645 net.cpp:141] Setting up inception_4b/relu_3x3_reduce
I0403 15:36:51.517774 15645 net.cpp:148] Top shape: 24 112 14 14 (526848)
I0403 15:36:51.517791 15645 net.cpp:156] Memory required for data: 956439840
I0403 15:36:51.517805 15645 layer_factory.hpp:77] Creating layer inception_4b/3x3
I0403 15:36:51.517830 15645 net.cpp:91] Creating Layer inception_4b/3x3
I0403 15:36:51.517848 15645 net.cpp:425] inception_4b/3x3 <- inception_4b/3x3_reduce
I0403 15:36:51.517866 15645 net.cpp:399] inception_4b/3x3 -> inception_4b/3x3
I0403 15:36:51.520856 15645 net.cpp:141] Setting up inception_4b/3x3
I0403 15:36:51.520886 15645 net.cpp:148] Top shape: 24 224 14 14 (1053696)
I0403 15:36:51.520902 15645 net.cpp:156] Memory required for data: 960654624
I0403 15:36:51.520920 15645 layer_factory.hpp:77] Creating layer inception_4b/relu_3x3
I0403 15:36:51.520941 15645 net.cpp:91] Creating Layer inception_4b/relu_3x3
I0403 15:36:51.520958 15645 net.cpp:425] inception_4b/relu_3x3 <- inception_4b/3x3
I0403 15:36:51.520977 15645 net.cpp:386] inception_4b/relu_3x3 -> inception_4b/3x3 (in-place)
I0403 15:36:51.521157 15645 net.cpp:141] Setting up inception_4b/relu_3x3
I0403 15:36:51.521183 15645 net.cpp:148] Top shape: 24 224 14 14 (1053696)
I0403 15:36:51.521198 15645 net.cpp:156] Memory required for data: 964869408
I0403 15:36:51.521212 15645 layer_factory.hpp:77] Creating layer inception_4b/5x5_reduce
I0403 15:36:51.521235 15645 net.cpp:91] Creating Layer inception_4b/5x5_reduce
I0403 15:36:51.521253 15645 net.cpp:425] inception_4b/5x5_reduce <- inception_4a/output_inception_4a/output_0_split_3
I0403 15:36:51.521272 15645 net.cpp:399] inception_4b/5x5_reduce -> inception_4b/5x5_reduce
I0403 15:36:51.522366 15645 net.cpp:141] Setting up inception_4b/5x5_reduce
I0403 15:36:51.522392 15645 net.cpp:148] Top shape: 24 24 14 14 (112896)
I0403 15:36:51.522408 15645 net.cpp:156] Memory required for data: 965320992
I0403 15:36:51.522428 15645 layer_factory.hpp:77] Creating layer inception_4b/relu_5x5_reduce
I0403 15:36:51.522447 15645 net.cpp:91] Creating Layer inception_4b/relu_5x5_reduce
I0403 15:36:51.522477 15645 net.cpp:425] inception_4b/relu_5x5_reduce <- inception_4b/5x5_reduce
I0403 15:36:51.522495 15645 net.cpp:386] inception_4b/relu_5x5_reduce -> inception_4b/5x5_reduce (in-place)
I0403 15:36:51.522691 15645 net.cpp:141] Setting up inception_4b/relu_5x5_reduce
I0403 15:36:51.522716 15645 net.cpp:148] Top shape: 24 24 14 14 (112896)
I0403 15:36:51.522730 15645 net.cpp:156] Memory required for data: 965772576
I0403 15:36:51.522744 15645 layer_factory.hpp:77] Creating layer inception_4b/5x5
I0403 15:36:51.522766 15645 net.cpp:91] Creating Layer inception_4b/5x5
I0403 15:36:51.522783 15645 net.cpp:425] inception_4b/5x5 <- inception_4b/5x5_reduce
I0403 15:36:51.522804 15645 net.cpp:399] inception_4b/5x5 -> inception_4b/5x5
I0403 15:36:51.524034 15645 net.cpp:141] Setting up inception_4b/5x5
I0403 15:36:51.524060 15645 net.cpp:148] Top shape: 24 64 14 14 (301056)
I0403 15:36:51.524076 15645 net.cpp:156] Memory required for data: 966976800
I0403 15:36:51.524093 15645 layer_factory.hpp:77] Creating layer inception_4b/relu_5x5
I0403 15:36:51.524114 15645 net.cpp:91] Creating Layer inception_4b/relu_5x5
I0403 15:36:51.524130 15645 net.cpp:425] inception_4b/relu_5x5 <- inception_4b/5x5
I0403 15:36:51.524147 15645 net.cpp:386] inception_4b/relu_5x5 -> inception_4b/5x5 (in-place)
I0403 15:36:51.524430 15645 net.cpp:141] Setting up inception_4b/relu_5x5
I0403 15:36:51.524456 15645 net.cpp:148] Top shape: 24 64 14 14 (301056)
I0403 15:36:51.524471 15645 net.cpp:156] Memory required for data: 968181024
I0403 15:36:51.524487 15645 layer_factory.hpp:77] Creating layer inception_4b/pool
I0403 15:36:51.524505 15645 net.cpp:91] Creating Layer inception_4b/pool
I0403 15:36:51.524523 15645 net.cpp:425] inception_4b/pool <- inception_4a/output_inception_4a/output_0_split_4
I0403 15:36:51.524544 15645 net.cpp:399] inception_4b/pool -> inception_4b/pool
I0403 15:36:51.524612 15645 net.cpp:141] Setting up inception_4b/pool
I0403 15:36:51.524636 15645 net.cpp:148] Top shape: 24 512 14 14 (2408448)
I0403 15:36:51.524652 15645 net.cpp:156] Memory required for data: 977814816
I0403 15:36:51.524664 15645 layer_factory.hpp:77] Creating layer inception_4b/pool_proj
I0403 15:36:51.524687 15645 net.cpp:91] Creating Layer inception_4b/pool_proj
I0403 15:36:51.524703 15645 net.cpp:425] inception_4b/pool_proj <- inception_4b/pool
I0403 15:36:51.524724 15645 net.cpp:399] inception_4b/pool_proj -> inception_4b/pool_proj
I0403 15:36:51.525949 15645 net.cpp:141] Setting up inception_4b/pool_proj
I0403 15:36:51.525981 15645 net.cpp:148] Top shape: 24 64 14 14 (301056)
I0403 15:36:51.525998 15645 net.cpp:156] Memory required for data: 979019040
I0403 15:36:51.526016 15645 layer_factory.hpp:77] Creating layer inception_4b/relu_pool_proj
I0403 15:36:51.526034 15645 net.cpp:91] Creating Layer inception_4b/relu_pool_proj
I0403 15:36:51.526051 15645 net.cpp:425] inception_4b/relu_pool_proj <- inception_4b/pool_proj
I0403 15:36:51.526067 15645 net.cpp:386] inception_4b/relu_pool_proj -> inception_4b/pool_proj (in-place)
I0403 15:36:51.526254 15645 net.cpp:141] Setting up inception_4b/relu_pool_proj
I0403 15:36:51.526279 15645 net.cpp:148] Top shape: 24 64 14 14 (301056)
I0403 15:36:51.526294 15645 net.cpp:156] Memory required for data: 980223264
I0403 15:36:51.526309 15645 layer_factory.hpp:77] Creating layer inception_4b/output
I0403 15:36:51.526325 15645 net.cpp:91] Creating Layer inception_4b/output
I0403 15:36:51.526340 15645 net.cpp:425] inception_4b/output <- inception_4b/1x1
I0403 15:36:51.526357 15645 net.cpp:425] inception_4b/output <- inception_4b/3x3
I0403 15:36:51.526372 15645 net.cpp:425] inception_4b/output <- inception_4b/5x5
I0403 15:36:51.526388 15645 net.cpp:425] inception_4b/output <- inception_4b/pool_proj
I0403 15:36:51.526407 15645 net.cpp:399] inception_4b/output -> inception_4b/output
I0403 15:36:51.526453 15645 net.cpp:141] Setting up inception_4b/output
I0403 15:36:51.526475 15645 net.cpp:148] Top shape: 24 512 14 14 (2408448)
I0403 15:36:51.526489 15645 net.cpp:156] Memory required for data: 989857056
I0403 15:36:51.526518 15645 layer_factory.hpp:77] Creating layer inception_4b/output_inception_4b/output_0_split
I0403 15:36:51.526542 15645 net.cpp:91] Creating Layer inception_4b/output_inception_4b/output_0_split
I0403 15:36:51.526561 15645 net.cpp:425] inception_4b/output_inception_4b/output_0_split <- inception_4b/output
I0403 15:36:51.526577 15645 net.cpp:399] inception_4b/output_inception_4b/output_0_split -> inception_4b/output_inception_4b/output_0_split_0
I0403 15:36:51.526600 15645 net.cpp:399] inception_4b/output_inception_4b/output_0_split -> inception_4b/output_inception_4b/output_0_split_1
I0403 15:36:51.526623 15645 net.cpp:399] inception_4b/output_inception_4b/output_0_split -> inception_4b/output_inception_4b/output_0_split_2
I0403 15:36:51.526643 15645 net.cpp:399] inception_4b/output_inception_4b/output_0_split -> inception_4b/output_inception_4b/output_0_split_3
I0403 15:36:51.526727 15645 net.cpp:141] Setting up inception_4b/output_inception_4b/output_0_split
I0403 15:36:51.526751 15645 net.cpp:148] Top shape: 24 512 14 14 (2408448)
I0403 15:36:51.526767 15645 net.cpp:148] Top shape: 24 512 14 14 (2408448)
I0403 15:36:51.526782 15645 net.cpp:148] Top shape: 24 512 14 14 (2408448)
I0403 15:36:51.526795 15645 net.cpp:148] Top shape: 24 512 14 14 (2408448)
I0403 15:36:51.526809 15645 net.cpp:156] Memory required for data: 1028392224
I0403 15:36:51.526823 15645 layer_factory.hpp:77] Creating layer inception_4c/1x1
I0403 15:36:51.526844 15645 net.cpp:91] Creating Layer inception_4c/1x1
I0403 15:36:51.526862 15645 net.cpp:425] inception_4c/1x1 <- inception_4b/output_inception_4b/output_0_split_0
I0403 15:36:51.526882 15645 net.cpp:399] inception_4c/1x1 -> inception_4c/1x1
I0403 15:36:51.528324 15645 net.cpp:141] Setting up inception_4c/1x1
I0403 15:36:51.528352 15645 net.cpp:148] Top shape: 24 128 14 14 (602112)
I0403 15:36:51.528368 15645 net.cpp:156] Memory required for data: 1030800672
I0403 15:36:51.528385 15645 layer_factory.hpp:77] Creating layer inception_4c/relu_1x1
I0403 15:36:51.528403 15645 net.cpp:91] Creating Layer inception_4c/relu_1x1
I0403 15:36:51.528424 15645 net.cpp:425] inception_4c/relu_1x1 <- inception_4c/1x1
I0403 15:36:51.528440 15645 net.cpp:386] inception_4c/relu_1x1 -> inception_4c/1x1 (in-place)
I0403 15:36:51.528626 15645 net.cpp:141] Setting up inception_4c/relu_1x1
I0403 15:36:51.528650 15645 net.cpp:148] Top shape: 24 128 14 14 (602112)
I0403 15:36:51.528666 15645 net.cpp:156] Memory required for data: 1033209120
I0403 15:36:51.528679 15645 layer_factory.hpp:77] Creating layer inception_4c/3x3_reduce
I0403 15:36:51.528702 15645 net.cpp:91] Creating Layer inception_4c/3x3_reduce
I0403 15:36:51.528719 15645 net.cpp:425] inception_4c/3x3_reduce <- inception_4b/output_inception_4b/output_0_split_1
I0403 15:36:51.528743 15645 net.cpp:399] inception_4c/3x3_reduce -> inception_4c/3x3_reduce
I0403 15:36:51.530697 15645 net.cpp:141] Setting up inception_4c/3x3_reduce
I0403 15:36:51.530725 15645 net.cpp:148] Top shape: 24 128 14 14 (602112)
I0403 15:36:51.530741 15645 net.cpp:156] Memory required for data: 1035617568
I0403 15:36:51.530760 15645 layer_factory.hpp:77] Creating layer inception_4c/relu_3x3_reduce
I0403 15:36:51.530779 15645 net.cpp:91] Creating Layer inception_4c/relu_3x3_reduce
I0403 15:36:51.530797 15645 net.cpp:425] inception_4c/relu_3x3_reduce <- inception_4c/3x3_reduce
I0403 15:36:51.530813 15645 net.cpp:386] inception_4c/relu_3x3_reduce -> inception_4c/3x3_reduce (in-place)
I0403 15:36:51.531102 15645 net.cpp:141] Setting up inception_4c/relu_3x3_reduce
I0403 15:36:51.531128 15645 net.cpp:148] Top shape: 24 128 14 14 (602112)
I0403 15:36:51.531143 15645 net.cpp:156] Memory required for data: 1038026016
I0403 15:36:51.531158 15645 layer_factory.hpp:77] Creating layer inception_4c/3x3
I0403 15:36:51.531180 15645 net.cpp:91] Creating Layer inception_4c/3x3
I0403 15:36:51.531200 15645 net.cpp:425] inception_4c/3x3 <- inception_4c/3x3_reduce
I0403 15:36:51.531219 15645 net.cpp:399] inception_4c/3x3 -> inception_4c/3x3
I0403 15:36:51.534847 15645 net.cpp:141] Setting up inception_4c/3x3
I0403 15:36:51.534890 15645 net.cpp:148] Top shape: 24 256 14 14 (1204224)
I0403 15:36:51.534907 15645 net.cpp:156] Memory required for data: 1042842912
I0403 15:36:51.534940 15645 layer_factory.hpp:77] Creating layer inception_4c/relu_3x3
I0403 15:36:51.534960 15645 net.cpp:91] Creating Layer inception_4c/relu_3x3
I0403 15:36:51.534976 15645 net.cpp:425] inception_4c/relu_3x3 <- inception_4c/3x3
I0403 15:36:51.534993 15645 net.cpp:386] inception_4c/relu_3x3 -> inception_4c/3x3 (in-place)
I0403 15:36:51.535176 15645 net.cpp:141] Setting up inception_4c/relu_3x3
I0403 15:36:51.535202 15645 net.cpp:148] Top shape: 24 256 14 14 (1204224)
I0403 15:36:51.535218 15645 net.cpp:156] Memory required for data: 1047659808
I0403 15:36:51.535233 15645 layer_factory.hpp:77] Creating layer inception_4c/5x5_reduce
I0403 15:36:51.535255 15645 net.cpp:91] Creating Layer inception_4c/5x5_reduce
I0403 15:36:51.535272 15645 net.cpp:425] inception_4c/5x5_reduce <- inception_4b/output_inception_4b/output_0_split_2
I0403 15:36:51.535291 15645 net.cpp:399] inception_4c/5x5_reduce -> inception_4c/5x5_reduce
I0403 15:36:51.536393 15645 net.cpp:141] Setting up inception_4c/5x5_reduce
I0403 15:36:51.536422 15645 net.cpp:148] Top shape: 24 24 14 14 (112896)
I0403 15:36:51.536437 15645 net.cpp:156] Memory required for data: 1048111392
I0403 15:36:51.536454 15645 layer_factory.hpp:77] Creating layer inception_4c/relu_5x5_reduce
I0403 15:36:51.536475 15645 net.cpp:91] Creating Layer inception_4c/relu_5x5_reduce
I0403 15:36:51.536491 15645 net.cpp:425] inception_4c/relu_5x5_reduce <- inception_4c/5x5_reduce
I0403 15:36:51.536509 15645 net.cpp:386] inception_4c/relu_5x5_reduce -> inception_4c/5x5_reduce (in-place)
I0403 15:36:51.536702 15645 net.cpp:141] Setting up inception_4c/relu_5x5_reduce
I0403 15:36:51.536726 15645 net.cpp:148] Top shape: 24 24 14 14 (112896)
I0403 15:36:51.536741 15645 net.cpp:156] Memory required for data: 1048562976
I0403 15:36:51.536756 15645 layer_factory.hpp:77] Creating layer inception_4c/5x5
I0403 15:36:51.536777 15645 net.cpp:91] Creating Layer inception_4c/5x5
I0403 15:36:51.536793 15645 net.cpp:425] inception_4c/5x5 <- inception_4c/5x5_reduce
I0403 15:36:51.536818 15645 net.cpp:399] inception_4c/5x5 -> inception_4c/5x5
I0403 15:36:51.538059 15645 net.cpp:141] Setting up inception_4c/5x5
I0403 15:36:51.538086 15645 net.cpp:148] Top shape: 24 64 14 14 (301056)
I0403 15:36:51.538102 15645 net.cpp:156] Memory required for data: 1049767200
I0403 15:36:51.538120 15645 layer_factory.hpp:77] Creating layer inception_4c/relu_5x5
I0403 15:36:51.538137 15645 net.cpp:91] Creating Layer inception_4c/relu_5x5
I0403 15:36:51.538153 15645 net.cpp:425] inception_4c/relu_5x5 <- inception_4c/5x5
I0403 15:36:51.538172 15645 net.cpp:386] inception_4c/relu_5x5 -> inception_4c/5x5 (in-place)
I0403 15:36:51.538460 15645 net.cpp:141] Setting up inception_4c/relu_5x5
I0403 15:36:51.538486 15645 net.cpp:148] Top shape: 24 64 14 14 (301056)
I0403 15:36:51.538501 15645 net.cpp:156] Memory required for data: 1050971424
I0403 15:36:51.538516 15645 layer_factory.hpp:77] Creating layer inception_4c/pool
I0403 15:36:51.538533 15645 net.cpp:91] Creating Layer inception_4c/pool
I0403 15:36:51.538553 15645 net.cpp:425] inception_4c/pool <- inception_4b/output_inception_4b/output_0_split_3
I0403 15:36:51.538574 15645 net.cpp:399] inception_4c/pool -> inception_4c/pool
I0403 15:36:51.538640 15645 net.cpp:141] Setting up inception_4c/pool
I0403 15:36:51.538666 15645 net.cpp:148] Top shape: 24 512 14 14 (2408448)
I0403 15:36:51.538681 15645 net.cpp:156] Memory required for data: 1060605216
I0403 15:36:51.538696 15645 layer_factory.hpp:77] Creating layer inception_4c/pool_proj
I0403 15:36:51.538717 15645 net.cpp:91] Creating Layer inception_4c/pool_proj
I0403 15:36:51.538733 15645 net.cpp:425] inception_4c/pool_proj <- inception_4c/pool
I0403 15:36:51.538753 15645 net.cpp:399] inception_4c/pool_proj -> inception_4c/pool_proj
I0403 15:36:51.539971 15645 net.cpp:141] Setting up inception_4c/pool_proj
I0403 15:36:51.540002 15645 net.cpp:148] Top shape: 24 64 14 14 (301056)
I0403 15:36:51.540032 15645 net.cpp:156] Memory required for data: 1061809440
I0403 15:36:51.540052 15645 layer_factory.hpp:77] Creating layer inception_4c/relu_pool_proj
I0403 15:36:51.540071 15645 net.cpp:91] Creating Layer inception_4c/relu_pool_proj
I0403 15:36:51.540086 15645 net.cpp:425] inception_4c/relu_pool_proj <- inception_4c/pool_proj
I0403 15:36:51.540102 15645 net.cpp:386] inception_4c/relu_pool_proj -> inception_4c/pool_proj (in-place)
I0403 15:36:51.540288 15645 net.cpp:141] Setting up inception_4c/relu_pool_proj
I0403 15:36:51.540315 15645 net.cpp:148] Top shape: 24 64 14 14 (301056)
I0403 15:36:51.540331 15645 net.cpp:156] Memory required for data: 1063013664
I0403 15:36:51.540345 15645 layer_factory.hpp:77] Creating layer inception_4c/output
I0403 15:36:51.540362 15645 net.cpp:91] Creating Layer inception_4c/output
I0403 15:36:51.540379 15645 net.cpp:425] inception_4c/output <- inception_4c/1x1
I0403 15:36:51.540395 15645 net.cpp:425] inception_4c/output <- inception_4c/3x3
I0403 15:36:51.540410 15645 net.cpp:425] inception_4c/output <- inception_4c/5x5
I0403 15:36:51.540426 15645 net.cpp:425] inception_4c/output <- inception_4c/pool_proj
I0403 15:36:51.540446 15645 net.cpp:399] inception_4c/output -> inception_4c/output
I0403 15:36:51.540490 15645 net.cpp:141] Setting up inception_4c/output
I0403 15:36:51.540513 15645 net.cpp:148] Top shape: 24 512 14 14 (2408448)
I0403 15:36:51.540527 15645 net.cpp:156] Memory required for data: 1072647456
I0403 15:36:51.540547 15645 layer_factory.hpp:77] Creating layer inception_4c/output_inception_4c/output_0_split
I0403 15:36:51.540571 15645 net.cpp:91] Creating Layer inception_4c/output_inception_4c/output_0_split
I0403 15:36:51.540588 15645 net.cpp:425] inception_4c/output_inception_4c/output_0_split <- inception_4c/output
I0403 15:36:51.540606 15645 net.cpp:399] inception_4c/output_inception_4c/output_0_split -> inception_4c/output_inception_4c/output_0_split_0
I0403 15:36:51.540628 15645 net.cpp:399] inception_4c/output_inception_4c/output_0_split -> inception_4c/output_inception_4c/output_0_split_1
I0403 15:36:51.540650 15645 net.cpp:399] inception_4c/output_inception_4c/output_0_split -> inception_4c/output_inception_4c/output_0_split_2
I0403 15:36:51.540671 15645 net.cpp:399] inception_4c/output_inception_4c/output_0_split -> inception_4c/output_inception_4c/output_0_split_3
I0403 15:36:51.540756 15645 net.cpp:141] Setting up inception_4c/output_inception_4c/output_0_split
I0403 15:36:51.540779 15645 net.cpp:148] Top shape: 24 512 14 14 (2408448)
I0403 15:36:51.540796 15645 net.cpp:148] Top shape: 24 512 14 14 (2408448)
I0403 15:36:51.540810 15645 net.cpp:148] Top shape: 24 512 14 14 (2408448)
I0403 15:36:51.540825 15645 net.cpp:148] Top shape: 24 512 14 14 (2408448)
I0403 15:36:51.540838 15645 net.cpp:156] Memory required for data: 1111182624
I0403 15:36:51.540853 15645 layer_factory.hpp:77] Creating layer inception_4d/1x1
I0403 15:36:51.540874 15645 net.cpp:91] Creating Layer inception_4d/1x1
I0403 15:36:51.540892 15645 net.cpp:425] inception_4d/1x1 <- inception_4c/output_inception_4c/output_0_split_0
I0403 15:36:51.540912 15645 net.cpp:399] inception_4d/1x1 -> inception_4d/1x1
I0403 15:36:51.542289 15645 net.cpp:141] Setting up inception_4d/1x1
I0403 15:36:51.542316 15645 net.cpp:148] Top shape: 24 112 14 14 (526848)
I0403 15:36:51.542332 15645 net.cpp:156] Memory required for data: 1113290016
I0403 15:36:51.542351 15645 layer_factory.hpp:77] Creating layer inception_4d/relu_1x1
I0403 15:36:51.542371 15645 net.cpp:91] Creating Layer inception_4d/relu_1x1
I0403 15:36:51.542387 15645 net.cpp:425] inception_4d/relu_1x1 <- inception_4d/1x1
I0403 15:36:51.542404 15645 net.cpp:386] inception_4d/relu_1x1 -> inception_4d/1x1 (in-place)
I0403 15:36:51.542594 15645 net.cpp:141] Setting up inception_4d/relu_1x1
I0403 15:36:51.542619 15645 net.cpp:148] Top shape: 24 112 14 14 (526848)
I0403 15:36:51.542634 15645 net.cpp:156] Memory required for data: 1115397408
I0403 15:36:51.542649 15645 layer_factory.hpp:77] Creating layer inception_4d/3x3_reduce
I0403 15:36:51.542686 15645 net.cpp:91] Creating Layer inception_4d/3x3_reduce
I0403 15:36:51.542706 15645 net.cpp:425] inception_4d/3x3_reduce <- inception_4c/output_inception_4c/output_0_split_1
I0403 15:36:51.542724 15645 net.cpp:399] inception_4d/3x3_reduce -> inception_4d/3x3_reduce
I0403 15:36:51.544234 15645 net.cpp:141] Setting up inception_4d/3x3_reduce
I0403 15:36:51.544261 15645 net.cpp:148] Top shape: 24 144 14 14 (677376)
I0403 15:36:51.544276 15645 net.cpp:156] Memory required for data: 1118106912
I0403 15:36:51.544294 15645 layer_factory.hpp:77] Creating layer inception_4d/relu_3x3_reduce
I0403 15:36:51.544312 15645 net.cpp:91] Creating Layer inception_4d/relu_3x3_reduce
I0403 15:36:51.544327 15645 net.cpp:425] inception_4d/relu_3x3_reduce <- inception_4d/3x3_reduce
I0403 15:36:51.544347 15645 net.cpp:386] inception_4d/relu_3x3_reduce -> inception_4d/3x3_reduce (in-place)
I0403 15:36:51.544641 15645 net.cpp:141] Setting up inception_4d/relu_3x3_reduce
I0403 15:36:51.544667 15645 net.cpp:148] Top shape: 24 144 14 14 (677376)
I0403 15:36:51.544682 15645 net.cpp:156] Memory required for data: 1120816416
I0403 15:36:51.544695 15645 layer_factory.hpp:77] Creating layer inception_4d/3x3
I0403 15:36:51.544721 15645 net.cpp:91] Creating Layer inception_4d/3x3
I0403 15:36:51.544739 15645 net.cpp:425] inception_4d/3x3 <- inception_4d/3x3_reduce
I0403 15:36:51.544759 15645 net.cpp:399] inception_4d/3x3 -> inception_4d/3x3
I0403 15:36:51.549034 15645 net.cpp:141] Setting up inception_4d/3x3
I0403 15:36:51.549062 15645 net.cpp:148] Top shape: 24 288 14 14 (1354752)
I0403 15:36:51.549077 15645 net.cpp:156] Memory required for data: 1126235424
I0403 15:36:51.549093 15645 layer_factory.hpp:77] Creating layer inception_4d/relu_3x3
I0403 15:36:51.549113 15645 net.cpp:91] Creating Layer inception_4d/relu_3x3
I0403 15:36:51.549129 15645 net.cpp:425] inception_4d/relu_3x3 <- inception_4d/3x3
I0403 15:36:51.549147 15645 net.cpp:386] inception_4d/relu_3x3 -> inception_4d/3x3 (in-place)
I0403 15:36:51.549327 15645 net.cpp:141] Setting up inception_4d/relu_3x3
I0403 15:36:51.549353 15645 net.cpp:148] Top shape: 24 288 14 14 (1354752)
I0403 15:36:51.549368 15645 net.cpp:156] Memory required for data: 1131654432
I0403 15:36:51.549383 15645 layer_factory.hpp:77] Creating layer inception_4d/5x5_reduce
I0403 15:36:51.549403 15645 net.cpp:91] Creating Layer inception_4d/5x5_reduce
I0403 15:36:51.549422 15645 net.cpp:425] inception_4d/5x5_reduce <- inception_4c/output_inception_4c/output_0_split_2
I0403 15:36:51.549439 15645 net.cpp:399] inception_4d/5x5_reduce -> inception_4d/5x5_reduce
I0403 15:36:51.550595 15645 net.cpp:141] Setting up inception_4d/5x5_reduce
I0403 15:36:51.550622 15645 net.cpp:148] Top shape: 24 32 14 14 (150528)
I0403 15:36:51.550637 15645 net.cpp:156] Memory required for data: 1132256544
I0403 15:36:51.550654 15645 layer_factory.hpp:77] Creating layer inception_4d/relu_5x5_reduce
I0403 15:36:51.550674 15645 net.cpp:91] Creating Layer inception_4d/relu_5x5_reduce
I0403 15:36:51.550691 15645 net.cpp:425] inception_4d/relu_5x5_reduce <- inception_4d/5x5_reduce
I0403 15:36:51.550707 15645 net.cpp:386] inception_4d/relu_5x5_reduce -> inception_4d/5x5_reduce (in-place)
I0403 15:36:51.550890 15645 net.cpp:141] Setting up inception_4d/relu_5x5_reduce
I0403 15:36:51.550916 15645 net.cpp:148] Top shape: 24 32 14 14 (150528)
I0403 15:36:51.550931 15645 net.cpp:156] Memory required for data: 1132858656
I0403 15:36:51.550945 15645 layer_factory.hpp:77] Creating layer inception_4d/5x5
I0403 15:36:51.550967 15645 net.cpp:91] Creating Layer inception_4d/5x5
I0403 15:36:51.550983 15645 net.cpp:425] inception_4d/5x5 <- inception_4d/5x5_reduce
I0403 15:36:51.551002 15645 net.cpp:399] inception_4d/5x5 -> inception_4d/5x5
I0403 15:36:51.552434 15645 net.cpp:141] Setting up inception_4d/5x5
I0403 15:36:51.552462 15645 net.cpp:148] Top shape: 24 64 14 14 (301056)
I0403 15:36:51.552477 15645 net.cpp:156] Memory required for data: 1134062880
I0403 15:36:51.552495 15645 layer_factory.hpp:77] Creating layer inception_4d/relu_5x5
I0403 15:36:51.552528 15645 net.cpp:91] Creating Layer inception_4d/relu_5x5
I0403 15:36:51.552551 15645 net.cpp:425] inception_4d/relu_5x5 <- inception_4d/5x5
I0403 15:36:51.552570 15645 net.cpp:386] inception_4d/relu_5x5 -> inception_4d/5x5 (in-place)
I0403 15:36:51.552866 15645 net.cpp:141] Setting up inception_4d/relu_5x5
I0403 15:36:51.552894 15645 net.cpp:148] Top shape: 24 64 14 14 (301056)
I0403 15:36:51.552911 15645 net.cpp:156] Memory required for data: 1135267104
I0403 15:36:51.552924 15645 layer_factory.hpp:77] Creating layer inception_4d/pool
I0403 15:36:51.552942 15645 net.cpp:91] Creating Layer inception_4d/pool
I0403 15:36:51.552958 15645 net.cpp:425] inception_4d/pool <- inception_4c/output_inception_4c/output_0_split_3
I0403 15:36:51.552978 15645 net.cpp:399] inception_4d/pool -> inception_4d/pool
I0403 15:36:51.553041 15645 net.cpp:141] Setting up inception_4d/pool
I0403 15:36:51.553063 15645 net.cpp:148] Top shape: 24 512 14 14 (2408448)
I0403 15:36:51.553078 15645 net.cpp:156] Memory required for data: 1144900896
I0403 15:36:51.553092 15645 layer_factory.hpp:77] Creating layer inception_4d/pool_proj
I0403 15:36:51.553113 15645 net.cpp:91] Creating Layer inception_4d/pool_proj
I0403 15:36:51.553130 15645 net.cpp:425] inception_4d/pool_proj <- inception_4d/pool
I0403 15:36:51.553150 15645 net.cpp:399] inception_4d/pool_proj -> inception_4d/pool_proj
I0403 15:36:51.554880 15645 net.cpp:141] Setting up inception_4d/pool_proj
I0403 15:36:51.554908 15645 net.cpp:148] Top shape: 24 64 14 14 (301056)
I0403 15:36:51.554924 15645 net.cpp:156] Memory required for data: 1146105120
I0403 15:36:51.554940 15645 layer_factory.hpp:77] Creating layer inception_4d/relu_pool_proj
I0403 15:36:51.554960 15645 net.cpp:91] Creating Layer inception_4d/relu_pool_proj
I0403 15:36:51.554977 15645 net.cpp:425] inception_4d/relu_pool_proj <- inception_4d/pool_proj
I0403 15:36:51.554993 15645 net.cpp:386] inception_4d/relu_pool_proj -> inception_4d/pool_proj (in-place)
I0403 15:36:51.555174 15645 net.cpp:141] Setting up inception_4d/relu_pool_proj
I0403 15:36:51.555202 15645 net.cpp:148] Top shape: 24 64 14 14 (301056)
I0403 15:36:51.555217 15645 net.cpp:156] Memory required for data: 1147309344
I0403 15:36:51.555230 15645 layer_factory.hpp:77] Creating layer inception_4d/output
I0403 15:36:51.555246 15645 net.cpp:91] Creating Layer inception_4d/output
I0403 15:36:51.555261 15645 net.cpp:425] inception_4d/output <- inception_4d/1x1
I0403 15:36:51.555277 15645 net.cpp:425] inception_4d/output <- inception_4d/3x3
I0403 15:36:51.555292 15645 net.cpp:425] inception_4d/output <- inception_4d/5x5
I0403 15:36:51.555308 15645 net.cpp:425] inception_4d/output <- inception_4d/pool_proj
I0403 15:36:51.555325 15645 net.cpp:399] inception_4d/output -> inception_4d/output
I0403 15:36:51.555371 15645 net.cpp:141] Setting up inception_4d/output
I0403 15:36:51.555394 15645 net.cpp:148] Top shape: 24 528 14 14 (2483712)
I0403 15:36:51.555408 15645 net.cpp:156] Memory required for data: 1157244192
I0403 15:36:51.555421 15645 layer_factory.hpp:77] Creating layer inception_4d/output_inception_4d/output_0_split
I0403 15:36:51.555439 15645 net.cpp:91] Creating Layer inception_4d/output_inception_4d/output_0_split
I0403 15:36:51.555456 15645 net.cpp:425] inception_4d/output_inception_4d/output_0_split <- inception_4d/output
I0403 15:36:51.555474 15645 net.cpp:399] inception_4d/output_inception_4d/output_0_split -> inception_4d/output_inception_4d/output_0_split_0
I0403 15:36:51.555492 15645 net.cpp:399] inception_4d/output_inception_4d/output_0_split -> inception_4d/output_inception_4d/output_0_split_1
I0403 15:36:51.555512 15645 net.cpp:399] inception_4d/output_inception_4d/output_0_split -> inception_4d/output_inception_4d/output_0_split_2
I0403 15:36:51.555547 15645 net.cpp:399] inception_4d/output_inception_4d/output_0_split -> inception_4d/output_inception_4d/output_0_split_3
I0403 15:36:51.555572 15645 net.cpp:399] inception_4d/output_inception_4d/output_0_split -> inception_4d/output_inception_4d/output_0_split_4
I0403 15:36:51.555673 15645 net.cpp:141] Setting up inception_4d/output_inception_4d/output_0_split
I0403 15:36:51.555707 15645 net.cpp:148] Top shape: 24 528 14 14 (2483712)
I0403 15:36:51.555724 15645 net.cpp:148] Top shape: 24 528 14 14 (2483712)
I0403 15:36:51.555738 15645 net.cpp:148] Top shape: 24 528 14 14 (2483712)
I0403 15:36:51.555753 15645 net.cpp:148] Top shape: 24 528 14 14 (2483712)
I0403 15:36:51.555768 15645 net.cpp:148] Top shape: 24 528 14 14 (2483712)
I0403 15:36:51.555781 15645 net.cpp:156] Memory required for data: 1206918432
I0403 15:36:51.555794 15645 layer_factory.hpp:77] Creating layer loss2/ave_pool
I0403 15:36:51.555814 15645 net.cpp:91] Creating Layer loss2/ave_pool
I0403 15:36:51.555830 15645 net.cpp:425] loss2/ave_pool <- inception_4d/output_inception_4d/output_0_split_0
I0403 15:36:51.555846 15645 net.cpp:399] loss2/ave_pool -> loss2/ave_pool
I0403 15:36:51.556152 15645 net.cpp:141] Setting up loss2/ave_pool
I0403 15:36:51.556177 15645 net.cpp:148] Top shape: 24 528 4 4 (202752)
I0403 15:36:51.556192 15645 net.cpp:156] Memory required for data: 1207729440
I0403 15:36:51.556206 15645 layer_factory.hpp:77] Creating layer loss2/conv
I0403 15:36:51.556228 15645 net.cpp:91] Creating Layer loss2/conv
I0403 15:36:51.556244 15645 net.cpp:425] loss2/conv <- loss2/ave_pool
I0403 15:36:51.556265 15645 net.cpp:399] loss2/conv -> loss2/conv
I0403 15:36:51.558118 15645 net.cpp:141] Setting up loss2/conv
I0403 15:36:51.558148 15645 net.cpp:148] Top shape: 24 128 4 4 (49152)
I0403 15:36:51.558164 15645 net.cpp:156] Memory required for data: 1207926048
I0403 15:36:51.558182 15645 layer_factory.hpp:77] Creating layer loss2/relu_conv
I0403 15:36:51.558199 15645 net.cpp:91] Creating Layer loss2/relu_conv
I0403 15:36:51.558215 15645 net.cpp:425] loss2/relu_conv <- loss2/conv
I0403 15:36:51.558233 15645 net.cpp:386] loss2/relu_conv -> loss2/conv (in-place)
I0403 15:36:51.558516 15645 net.cpp:141] Setting up loss2/relu_conv
I0403 15:36:51.558548 15645 net.cpp:148] Top shape: 24 128 4 4 (49152)
I0403 15:36:51.558565 15645 net.cpp:156] Memory required for data: 1208122656
I0403 15:36:51.558579 15645 layer_factory.hpp:77] Creating layer loss2/fc
I0403 15:36:51.558596 15645 net.cpp:91] Creating Layer loss2/fc
I0403 15:36:51.558612 15645 net.cpp:425] loss2/fc <- loss2/conv
I0403 15:36:51.558632 15645 net.cpp:399] loss2/fc -> loss2/fc
I0403 15:36:51.575825 15645 net.cpp:141] Setting up loss2/fc
I0403 15:36:51.575860 15645 net.cpp:148] Top shape: 24 1024 (24576)
I0403 15:36:51.575875 15645 net.cpp:156] Memory required for data: 1208220960
I0403 15:36:51.575892 15645 layer_factory.hpp:77] Creating layer loss2/relu_fc
I0403 15:36:51.575909 15645 net.cpp:91] Creating Layer loss2/relu_fc
I0403 15:36:51.575925 15645 net.cpp:425] loss2/relu_fc <- loss2/fc
I0403 15:36:51.575942 15645 net.cpp:386] loss2/relu_fc -> loss2/fc (in-place)
I0403 15:36:51.576237 15645 net.cpp:141] Setting up loss2/relu_fc
I0403 15:36:51.576262 15645 net.cpp:148] Top shape: 24 1024 (24576)
I0403 15:36:51.576277 15645 net.cpp:156] Memory required for data: 1208319264
I0403 15:36:51.576292 15645 layer_factory.hpp:77] Creating layer loss2/drop_fc
I0403 15:36:51.576309 15645 net.cpp:91] Creating Layer loss2/drop_fc
I0403 15:36:51.576325 15645 net.cpp:425] loss2/drop_fc <- loss2/fc
I0403 15:36:51.576341 15645 net.cpp:386] loss2/drop_fc -> loss2/fc (in-place)
I0403 15:36:51.576390 15645 net.cpp:141] Setting up loss2/drop_fc
I0403 15:36:51.576412 15645 net.cpp:148] Top shape: 24 1024 (24576)
I0403 15:36:51.576426 15645 net.cpp:156] Memory required for data: 1208417568
I0403 15:36:51.576441 15645 layer_factory.hpp:77] Creating layer loss2/classifier_plantvillage
I0403 15:36:51.576459 15645 net.cpp:91] Creating Layer loss2/classifier_plantvillage
I0403 15:36:51.576475 15645 net.cpp:425] loss2/classifier_plantvillage <- loss2/fc
I0403 15:36:51.576493 15645 net.cpp:399] loss2/classifier_plantvillage -> loss2/classifier_plantvillage
I0403 15:36:51.576889 15645 net.cpp:141] Setting up loss2/classifier_plantvillage
I0403 15:36:51.576912 15645 net.cpp:148] Top shape: 24 38 (912)
I0403 15:36:51.576926 15645 net.cpp:156] Memory required for data: 1208421216
I0403 15:36:51.576959 15645 layer_factory.hpp:77] Creating layer loss2/classifier_plantvillage_loss2/classifier_plantvillage_0_split
I0403 15:36:51.576977 15645 net.cpp:91] Creating Layer loss2/classifier_plantvillage_loss2/classifier_plantvillage_0_split
I0403 15:36:51.576992 15645 net.cpp:425] loss2/classifier_plantvillage_loss2/classifier_plantvillage_0_split <- loss2/classifier_plantvillage
I0403 15:36:51.577011 15645 net.cpp:399] loss2/classifier_plantvillage_loss2/classifier_plantvillage_0_split -> loss2/classifier_plantvillage_loss2/classifier_plantvillage_0_split_0
I0403 15:36:51.577033 15645 net.cpp:399] loss2/classifier_plantvillage_loss2/classifier_plantvillage_0_split -> loss2/classifier_plantvillage_loss2/classifier_plantvillage_0_split_1
I0403 15:36:51.577052 15645 net.cpp:399] loss2/classifier_plantvillage_loss2/classifier_plantvillage_0_split -> loss2/classifier_plantvillage_loss2/classifier_plantvillage_0_split_2
I0403 15:36:51.577128 15645 net.cpp:141] Setting up loss2/classifier_plantvillage_loss2/classifier_plantvillage_0_split
I0403 15:36:51.577153 15645 net.cpp:148] Top shape: 24 38 (912)
I0403 15:36:51.577170 15645 net.cpp:148] Top shape: 24 38 (912)
I0403 15:36:51.577185 15645 net.cpp:148] Top shape: 24 38 (912)
I0403 15:36:51.577198 15645 net.cpp:156] Memory required for data: 1208432160
I0403 15:36:51.577213 15645 layer_factory.hpp:77] Creating layer inception_4e/1x1
I0403 15:36:51.577234 15645 net.cpp:91] Creating Layer inception_4e/1x1
I0403 15:36:51.577250 15645 net.cpp:425] inception_4e/1x1 <- inception_4d/output_inception_4d/output_0_split_1
I0403 15:36:51.577267 15645 net.cpp:399] inception_4e/1x1 -> inception_4e/1x1
I0403 15:36:51.579044 15645 net.cpp:141] Setting up inception_4e/1x1
I0403 15:36:51.579072 15645 net.cpp:148] Top shape: 24 256 14 14 (1204224)
I0403 15:36:51.579088 15645 net.cpp:156] Memory required for data: 1213249056
I0403 15:36:51.579107 15645 layer_factory.hpp:77] Creating layer inception_4e/relu_1x1
I0403 15:36:51.579123 15645 net.cpp:91] Creating Layer inception_4e/relu_1x1
I0403 15:36:51.579138 15645 net.cpp:425] inception_4e/relu_1x1 <- inception_4e/1x1
I0403 15:36:51.579159 15645 net.cpp:386] inception_4e/relu_1x1 -> inception_4e/1x1 (in-place)
I0403 15:36:51.579452 15645 net.cpp:141] Setting up inception_4e/relu_1x1
I0403 15:36:51.579479 15645 net.cpp:148] Top shape: 24 256 14 14 (1204224)
I0403 15:36:51.579495 15645 net.cpp:156] Memory required for data: 1218065952
I0403 15:36:51.579509 15645 layer_factory.hpp:77] Creating layer inception_4e/3x3_reduce
I0403 15:36:51.579530 15645 net.cpp:91] Creating Layer inception_4e/3x3_reduce
I0403 15:36:51.579561 15645 net.cpp:425] inception_4e/3x3_reduce <- inception_4d/output_inception_4d/output_0_split_2
I0403 15:36:51.579581 15645 net.cpp:399] inception_4e/3x3_reduce -> inception_4e/3x3_reduce
I0403 15:36:51.581653 15645 net.cpp:141] Setting up inception_4e/3x3_reduce
I0403 15:36:51.581684 15645 net.cpp:148] Top shape: 24 160 14 14 (752640)
I0403 15:36:51.581701 15645 net.cpp:156] Memory required for data: 1221076512
I0403 15:36:51.581717 15645 layer_factory.hpp:77] Creating layer inception_4e/relu_3x3_reduce
I0403 15:36:51.581735 15645 net.cpp:91] Creating Layer inception_4e/relu_3x3_reduce
I0403 15:36:51.581751 15645 net.cpp:425] inception_4e/relu_3x3_reduce <- inception_4e/3x3_reduce
I0403 15:36:51.581768 15645 net.cpp:386] inception_4e/relu_3x3_reduce -> inception_4e/3x3_reduce (in-place)
I0403 15:36:51.581953 15645 net.cpp:141] Setting up inception_4e/relu_3x3_reduce
I0403 15:36:51.581977 15645 net.cpp:148] Top shape: 24 160 14 14 (752640)
I0403 15:36:51.581991 15645 net.cpp:156] Memory required for data: 1224087072
I0403 15:36:51.582005 15645 layer_factory.hpp:77] Creating layer inception_4e/3x3
I0403 15:36:51.582028 15645 net.cpp:91] Creating Layer inception_4e/3x3
I0403 15:36:51.582046 15645 net.cpp:425] inception_4e/3x3 <- inception_4e/3x3_reduce
I0403 15:36:51.582068 15645 net.cpp:399] inception_4e/3x3 -> inception_4e/3x3
I0403 15:36:51.587074 15645 net.cpp:141] Setting up inception_4e/3x3
I0403 15:36:51.587116 15645 net.cpp:148] Top shape: 24 320 14 14 (1505280)
I0403 15:36:51.587132 15645 net.cpp:156] Memory required for data: 1230108192
I0403 15:36:51.587151 15645 layer_factory.hpp:77] Creating layer inception_4e/relu_3x3
I0403 15:36:51.587172 15645 net.cpp:91] Creating Layer inception_4e/relu_3x3
I0403 15:36:51.587188 15645 net.cpp:425] inception_4e/relu_3x3 <- inception_4e/3x3
I0403 15:36:51.587205 15645 net.cpp:386] inception_4e/relu_3x3 -> inception_4e/3x3 (in-place)
I0403 15:36:51.587505 15645 net.cpp:141] Setting up inception_4e/relu_3x3
I0403 15:36:51.587532 15645 net.cpp:148] Top shape: 24 320 14 14 (1505280)
I0403 15:36:51.587550 15645 net.cpp:156] Memory required for data: 1236129312
I0403 15:36:51.587568 15645 layer_factory.hpp:77] Creating layer inception_4e/5x5_reduce
I0403 15:36:51.587591 15645 net.cpp:91] Creating Layer inception_4e/5x5_reduce
I0403 15:36:51.587610 15645 net.cpp:425] inception_4e/5x5_reduce <- inception_4d/output_inception_4d/output_0_split_3
I0403 15:36:51.587632 15645 net.cpp:399] inception_4e/5x5_reduce -> inception_4e/5x5_reduce
I0403 15:36:51.588722 15645 net.cpp:141] Setting up inception_4e/5x5_reduce
I0403 15:36:51.588752 15645 net.cpp:148] Top shape: 24 32 14 14 (150528)
I0403 15:36:51.588769 15645 net.cpp:156] Memory required for data: 1236731424
I0403 15:36:51.588788 15645 layer_factory.hpp:77] Creating layer inception_4e/relu_5x5_reduce
I0403 15:36:51.588804 15645 net.cpp:91] Creating Layer inception_4e/relu_5x5_reduce
I0403 15:36:51.588820 15645 net.cpp:425] inception_4e/relu_5x5_reduce <- inception_4e/5x5_reduce
I0403 15:36:51.588840 15645 net.cpp:386] inception_4e/relu_5x5_reduce -> inception_4e/5x5_reduce (in-place)
I0403 15:36:51.589138 15645 net.cpp:141] Setting up inception_4e/relu_5x5_reduce
I0403 15:36:51.589166 15645 net.cpp:148] Top shape: 24 32 14 14 (150528)
I0403 15:36:51.589184 15645 net.cpp:156] Memory required for data: 1237333536
I0403 15:36:51.589197 15645 layer_factory.hpp:77] Creating layer inception_4e/5x5
I0403 15:36:51.589236 15645 net.cpp:91] Creating Layer inception_4e/5x5
I0403 15:36:51.589257 15645 net.cpp:425] inception_4e/5x5 <- inception_4e/5x5_reduce
I0403 15:36:51.589275 15645 net.cpp:399] inception_4e/5x5 -> inception_4e/5x5
I0403 15:36:51.591128 15645 net.cpp:141] Setting up inception_4e/5x5
I0403 15:36:51.591156 15645 net.cpp:148] Top shape: 24 128 14 14 (602112)
I0403 15:36:51.591171 15645 net.cpp:156] Memory required for data: 1239741984
I0403 15:36:51.591189 15645 layer_factory.hpp:77] Creating layer inception_4e/relu_5x5
I0403 15:36:51.591210 15645 net.cpp:91] Creating Layer inception_4e/relu_5x5
I0403 15:36:51.591228 15645 net.cpp:425] inception_4e/relu_5x5 <- inception_4e/5x5
I0403 15:36:51.591244 15645 net.cpp:386] inception_4e/relu_5x5 -> inception_4e/5x5 (in-place)
I0403 15:36:51.591444 15645 net.cpp:141] Setting up inception_4e/relu_5x5
I0403 15:36:51.591470 15645 net.cpp:148] Top shape: 24 128 14 14 (602112)
I0403 15:36:51.591485 15645 net.cpp:156] Memory required for data: 1242150432
I0403 15:36:51.591500 15645 layer_factory.hpp:77] Creating layer inception_4e/pool
I0403 15:36:51.591516 15645 net.cpp:91] Creating Layer inception_4e/pool
I0403 15:36:51.591532 15645 net.cpp:425] inception_4e/pool <- inception_4d/output_inception_4d/output_0_split_4
I0403 15:36:51.591558 15645 net.cpp:399] inception_4e/pool -> inception_4e/pool
I0403 15:36:51.591632 15645 net.cpp:141] Setting up inception_4e/pool
I0403 15:36:51.591656 15645 net.cpp:148] Top shape: 24 528 14 14 (2483712)
I0403 15:36:51.591671 15645 net.cpp:156] Memory required for data: 1252085280
I0403 15:36:51.591686 15645 layer_factory.hpp:77] Creating layer inception_4e/pool_proj
I0403 15:36:51.591709 15645 net.cpp:91] Creating Layer inception_4e/pool_proj
I0403 15:36:51.591727 15645 net.cpp:425] inception_4e/pool_proj <- inception_4e/pool
I0403 15:36:51.591745 15645 net.cpp:399] inception_4e/pool_proj -> inception_4e/pool_proj
I0403 15:36:51.593266 15645 net.cpp:141] Setting up inception_4e/pool_proj
I0403 15:36:51.593293 15645 net.cpp:148] Top shape: 24 128 14 14 (602112)
I0403 15:36:51.593323 15645 net.cpp:156] Memory required for data: 1254493728
I0403 15:36:51.593343 15645 layer_factory.hpp:77] Creating layer inception_4e/relu_pool_proj
I0403 15:36:51.593364 15645 net.cpp:91] Creating Layer inception_4e/relu_pool_proj
I0403 15:36:51.593381 15645 net.cpp:425] inception_4e/relu_pool_proj <- inception_4e/pool_proj
I0403 15:36:51.593399 15645 net.cpp:386] inception_4e/relu_pool_proj -> inception_4e/pool_proj (in-place)
I0403 15:36:51.593698 15645 net.cpp:141] Setting up inception_4e/relu_pool_proj
I0403 15:36:51.593725 15645 net.cpp:148] Top shape: 24 128 14 14 (602112)
I0403 15:36:51.593740 15645 net.cpp:156] Memory required for data: 1256902176
I0403 15:36:51.593755 15645 layer_factory.hpp:77] Creating layer inception_4e/output
I0403 15:36:51.593773 15645 net.cpp:91] Creating Layer inception_4e/output
I0403 15:36:51.593789 15645 net.cpp:425] inception_4e/output <- inception_4e/1x1
I0403 15:36:51.593806 15645 net.cpp:425] inception_4e/output <- inception_4e/3x3
I0403 15:36:51.593822 15645 net.cpp:425] inception_4e/output <- inception_4e/5x5
I0403 15:36:51.593838 15645 net.cpp:425] inception_4e/output <- inception_4e/pool_proj
I0403 15:36:51.593855 15645 net.cpp:399] inception_4e/output -> inception_4e/output
I0403 15:36:51.593906 15645 net.cpp:141] Setting up inception_4e/output
I0403 15:36:51.593930 15645 net.cpp:148] Top shape: 24 832 14 14 (3913728)
I0403 15:36:51.593945 15645 net.cpp:156] Memory required for data: 1272557088
I0403 15:36:51.593960 15645 layer_factory.hpp:77] Creating layer pool4/3x3_s2
I0403 15:36:51.593976 15645 net.cpp:91] Creating Layer pool4/3x3_s2
I0403 15:36:51.593991 15645 net.cpp:425] pool4/3x3_s2 <- inception_4e/output
I0403 15:36:51.594012 15645 net.cpp:399] pool4/3x3_s2 -> pool4/3x3_s2
I0403 15:36:51.594079 15645 net.cpp:141] Setting up pool4/3x3_s2
I0403 15:36:51.594102 15645 net.cpp:148] Top shape: 24 832 7 7 (978432)
I0403 15:36:51.594117 15645 net.cpp:156] Memory required for data: 1276470816
I0403 15:36:51.594131 15645 layer_factory.hpp:77] Creating layer pool4/3x3_s2_pool4/3x3_s2_0_split
I0403 15:36:51.594151 15645 net.cpp:91] Creating Layer pool4/3x3_s2_pool4/3x3_s2_0_split
I0403 15:36:51.594167 15645 net.cpp:425] pool4/3x3_s2_pool4/3x3_s2_0_split <- pool4/3x3_s2
I0403 15:36:51.594187 15645 net.cpp:399] pool4/3x3_s2_pool4/3x3_s2_0_split -> pool4/3x3_s2_pool4/3x3_s2_0_split_0
I0403 15:36:51.594208 15645 net.cpp:399] pool4/3x3_s2_pool4/3x3_s2_0_split -> pool4/3x3_s2_pool4/3x3_s2_0_split_1
I0403 15:36:51.594228 15645 net.cpp:399] pool4/3x3_s2_pool4/3x3_s2_0_split -> pool4/3x3_s2_pool4/3x3_s2_0_split_2
I0403 15:36:51.594249 15645 net.cpp:399] pool4/3x3_s2_pool4/3x3_s2_0_split -> pool4/3x3_s2_pool4/3x3_s2_0_split_3
I0403 15:36:51.594338 15645 net.cpp:141] Setting up pool4/3x3_s2_pool4/3x3_s2_0_split
I0403 15:36:51.594362 15645 net.cpp:148] Top shape: 24 832 7 7 (978432)
I0403 15:36:51.594377 15645 net.cpp:148] Top shape: 24 832 7 7 (978432)
I0403 15:36:51.594393 15645 net.cpp:148] Top shape: 24 832 7 7 (978432)
I0403 15:36:51.594408 15645 net.cpp:148] Top shape: 24 832 7 7 (978432)
I0403 15:36:51.594420 15645 net.cpp:156] Memory required for data: 1292125728
I0403 15:36:51.594434 15645 layer_factory.hpp:77] Creating layer inception_5a/1x1
I0403 15:36:51.594456 15645 net.cpp:91] Creating Layer inception_5a/1x1
I0403 15:36:51.594473 15645 net.cpp:425] inception_5a/1x1 <- pool4/3x3_s2_pool4/3x3_s2_0_split_0
I0403 15:36:51.594493 15645 net.cpp:399] inception_5a/1x1 -> inception_5a/1x1
I0403 15:36:51.597370 15645 net.cpp:141] Setting up inception_5a/1x1
I0403 15:36:51.597403 15645 net.cpp:148] Top shape: 24 256 7 7 (301056)
I0403 15:36:51.597420 15645 net.cpp:156] Memory required for data: 1293329952
I0403 15:36:51.597439 15645 layer_factory.hpp:77] Creating layer inception_5a/relu_1x1
I0403 15:36:51.597456 15645 net.cpp:91] Creating Layer inception_5a/relu_1x1
I0403 15:36:51.597472 15645 net.cpp:425] inception_5a/relu_1x1 <- inception_5a/1x1
I0403 15:36:51.597489 15645 net.cpp:386] inception_5a/relu_1x1 -> inception_5a/1x1 (in-place)
I0403 15:36:51.597808 15645 net.cpp:141] Setting up inception_5a/relu_1x1
I0403 15:36:51.597836 15645 net.cpp:148] Top shape: 24 256 7 7 (301056)
I0403 15:36:51.597851 15645 net.cpp:156] Memory required for data: 1294534176
I0403 15:36:51.597867 15645 layer_factory.hpp:77] Creating layer inception_5a/3x3_reduce
I0403 15:36:51.597887 15645 net.cpp:91] Creating Layer inception_5a/3x3_reduce
I0403 15:36:51.597904 15645 net.cpp:425] inception_5a/3x3_reduce <- pool4/3x3_s2_pool4/3x3_s2_0_split_1
I0403 15:36:51.597923 15645 net.cpp:399] inception_5a/3x3_reduce -> inception_5a/3x3_reduce
I0403 15:36:51.600388 15645 net.cpp:141] Setting up inception_5a/3x3_reduce
I0403 15:36:51.600416 15645 net.cpp:148] Top shape: 24 160 7 7 (188160)
I0403 15:36:51.600432 15645 net.cpp:156] Memory required for data: 1295286816
I0403 15:36:51.600450 15645 layer_factory.hpp:77] Creating layer inception_5a/relu_3x3_reduce
I0403 15:36:51.600471 15645 net.cpp:91] Creating Layer inception_5a/relu_3x3_reduce
I0403 15:36:51.600487 15645 net.cpp:425] inception_5a/relu_3x3_reduce <- inception_5a/3x3_reduce
I0403 15:36:51.600505 15645 net.cpp:386] inception_5a/relu_3x3_reduce -> inception_5a/3x3_reduce (in-place)
I0403 15:36:51.600703 15645 net.cpp:141] Setting up inception_5a/relu_3x3_reduce
I0403 15:36:51.600730 15645 net.cpp:148] Top shape: 24 160 7 7 (188160)
I0403 15:36:51.600745 15645 net.cpp:156] Memory required for data: 1296039456
I0403 15:36:51.600760 15645 layer_factory.hpp:77] Creating layer inception_5a/3x3
I0403 15:36:51.600780 15645 net.cpp:91] Creating Layer inception_5a/3x3
I0403 15:36:51.600795 15645 net.cpp:425] inception_5a/3x3 <- inception_5a/3x3_reduce
I0403 15:36:51.600817 15645 net.cpp:399] inception_5a/3x3 -> inception_5a/3x3
I0403 15:36:51.605813 15645 net.cpp:141] Setting up inception_5a/3x3
I0403 15:36:51.605842 15645 net.cpp:148] Top shape: 24 320 7 7 (376320)
I0403 15:36:51.605857 15645 net.cpp:156] Memory required for data: 1297544736
I0403 15:36:51.605875 15645 layer_factory.hpp:77] Creating layer inception_5a/relu_3x3
I0403 15:36:51.605895 15645 net.cpp:91] Creating Layer inception_5a/relu_3x3
I0403 15:36:51.605912 15645 net.cpp:425] inception_5a/relu_3x3 <- inception_5a/3x3
I0403 15:36:51.605929 15645 net.cpp:386] inception_5a/relu_3x3 -> inception_5a/3x3 (in-place)
I0403 15:36:51.606220 15645 net.cpp:141] Setting up inception_5a/relu_3x3
I0403 15:36:51.606245 15645 net.cpp:148] Top shape: 24 320 7 7 (376320)
I0403 15:36:51.606259 15645 net.cpp:156] Memory required for data: 1299050016
I0403 15:36:51.606273 15645 layer_factory.hpp:77] Creating layer inception_5a/5x5_reduce
I0403 15:36:51.606297 15645 net.cpp:91] Creating Layer inception_5a/5x5_reduce
I0403 15:36:51.606313 15645 net.cpp:425] inception_5a/5x5_reduce <- pool4/3x3_s2_pool4/3x3_s2_0_split_2
I0403 15:36:51.606333 15645 net.cpp:399] inception_5a/5x5_reduce -> inception_5a/5x5_reduce
I0403 15:36:51.607489 15645 net.cpp:141] Setting up inception_5a/5x5_reduce
I0403 15:36:51.607519 15645 net.cpp:148] Top shape: 24 32 7 7 (37632)
I0403 15:36:51.607535 15645 net.cpp:156] Memory required for data: 1299200544
I0403 15:36:51.607558 15645 layer_factory.hpp:77] Creating layer inception_5a/relu_5x5_reduce
I0403 15:36:51.607576 15645 net.cpp:91] Creating Layer inception_5a/relu_5x5_reduce
I0403 15:36:51.607592 15645 net.cpp:425] inception_5a/relu_5x5_reduce <- inception_5a/5x5_reduce
I0403 15:36:51.607612 15645 net.cpp:386] inception_5a/relu_5x5_reduce -> inception_5a/5x5_reduce (in-place)
I0403 15:36:51.607910 15645 net.cpp:141] Setting up inception_5a/relu_5x5_reduce
I0403 15:36:51.607938 15645 net.cpp:148] Top shape: 24 32 7 7 (37632)
I0403 15:36:51.607951 15645 net.cpp:156] Memory required for data: 1299351072
I0403 15:36:51.607966 15645 layer_factory.hpp:77] Creating layer inception_5a/5x5
I0403 15:36:51.607986 15645 net.cpp:91] Creating Layer inception_5a/5x5
I0403 15:36:51.608005 15645 net.cpp:425] inception_5a/5x5 <- inception_5a/5x5_reduce
I0403 15:36:51.608026 15645 net.cpp:399] inception_5a/5x5 -> inception_5a/5x5
I0403 15:36:51.609730 15645 net.cpp:141] Setting up inception_5a/5x5
I0403 15:36:51.609767 15645 net.cpp:148] Top shape: 24 128 7 7 (150528)
I0403 15:36:51.609783 15645 net.cpp:156] Memory required for data: 1299953184
I0403 15:36:51.609800 15645 layer_factory.hpp:77] Creating layer inception_5a/relu_5x5
I0403 15:36:51.609820 15645 net.cpp:91] Creating Layer inception_5a/relu_5x5
I0403 15:36:51.609836 15645 net.cpp:425] inception_5a/relu_5x5 <- inception_5a/5x5
I0403 15:36:51.609854 15645 net.cpp:386] inception_5a/relu_5x5 -> inception_5a/5x5 (in-place)
I0403 15:36:51.610047 15645 net.cpp:141] Setting up inception_5a/relu_5x5
I0403 15:36:51.610071 15645 net.cpp:148] Top shape: 24 128 7 7 (150528)
I0403 15:36:51.610085 15645 net.cpp:156] Memory required for data: 1300555296
I0403 15:36:51.610100 15645 layer_factory.hpp:77] Creating layer inception_5a/pool
I0403 15:36:51.610116 15645 net.cpp:91] Creating Layer inception_5a/pool
I0403 15:36:51.610131 15645 net.cpp:425] inception_5a/pool <- pool4/3x3_s2_pool4/3x3_s2_0_split_3
I0403 15:36:51.610151 15645 net.cpp:399] inception_5a/pool -> inception_5a/pool
I0403 15:36:51.610219 15645 net.cpp:141] Setting up inception_5a/pool
I0403 15:36:51.610242 15645 net.cpp:148] Top shape: 24 832 7 7 (978432)
I0403 15:36:51.610255 15645 net.cpp:156] Memory required for data: 1304469024
I0403 15:36:51.610270 15645 layer_factory.hpp:77] Creating layer inception_5a/pool_proj
I0403 15:36:51.610291 15645 net.cpp:91] Creating Layer inception_5a/pool_proj
I0403 15:36:51.610308 15645 net.cpp:425] inception_5a/pool_proj <- inception_5a/pool
I0403 15:36:51.610327 15645 net.cpp:399] inception_5a/pool_proj -> inception_5a/pool_proj
I0403 15:36:51.612571 15645 net.cpp:141] Setting up inception_5a/pool_proj
I0403 15:36:51.612599 15645 net.cpp:148] Top shape: 24 128 7 7 (150528)
I0403 15:36:51.612615 15645 net.cpp:156] Memory required for data: 1305071136
I0403 15:36:51.612632 15645 layer_factory.hpp:77] Creating layer inception_5a/relu_pool_proj
I0403 15:36:51.612653 15645 net.cpp:91] Creating Layer inception_5a/relu_pool_proj
I0403 15:36:51.612668 15645 net.cpp:425] inception_5a/relu_pool_proj <- inception_5a/pool_proj
I0403 15:36:51.612685 15645 net.cpp:386] inception_5a/relu_pool_proj -> inception_5a/pool_proj (in-place)
I0403 15:36:51.612977 15645 net.cpp:141] Setting up inception_5a/relu_pool_proj
I0403 15:36:51.613001 15645 net.cpp:148] Top shape: 24 128 7 7 (150528)
I0403 15:36:51.613016 15645 net.cpp:156] Memory required for data: 1305673248
I0403 15:36:51.613030 15645 layer_factory.hpp:77] Creating layer inception_5a/output
I0403 15:36:51.613049 15645 net.cpp:91] Creating Layer inception_5a/output
I0403 15:36:51.613065 15645 net.cpp:425] inception_5a/output <- inception_5a/1x1
I0403 15:36:51.613081 15645 net.cpp:425] inception_5a/output <- inception_5a/3x3
I0403 15:36:51.613097 15645 net.cpp:425] inception_5a/output <- inception_5a/5x5
I0403 15:36:51.613112 15645 net.cpp:425] inception_5a/output <- inception_5a/pool_proj
I0403 15:36:51.613129 15645 net.cpp:399] inception_5a/output -> inception_5a/output
I0403 15:36:51.613179 15645 net.cpp:141] Setting up inception_5a/output
I0403 15:36:51.613203 15645 net.cpp:148] Top shape: 24 832 7 7 (978432)
I0403 15:36:51.613216 15645 net.cpp:156] Memory required for data: 1309586976
I0403 15:36:51.613231 15645 layer_factory.hpp:77] Creating layer inception_5a/output_inception_5a/output_0_split
I0403 15:36:51.613246 15645 net.cpp:91] Creating Layer inception_5a/output_inception_5a/output_0_split
I0403 15:36:51.613261 15645 net.cpp:425] inception_5a/output_inception_5a/output_0_split <- inception_5a/output
I0403 15:36:51.613279 15645 net.cpp:399] inception_5a/output_inception_5a/output_0_split -> inception_5a/output_inception_5a/output_0_split_0
I0403 15:36:51.613301 15645 net.cpp:399] inception_5a/output_inception_5a/output_0_split -> inception_5a/output_inception_5a/output_0_split_1
I0403 15:36:51.613320 15645 net.cpp:399] inception_5a/output_inception_5a/output_0_split -> inception_5a/output_inception_5a/output_0_split_2
I0403 15:36:51.613339 15645 net.cpp:399] inception_5a/output_inception_5a/output_0_split -> inception_5a/output_inception_5a/output_0_split_3
I0403 15:36:51.613451 15645 net.cpp:141] Setting up inception_5a/output_inception_5a/output_0_split
I0403 15:36:51.613477 15645 net.cpp:148] Top shape: 24 832 7 7 (978432)
I0403 15:36:51.613493 15645 net.cpp:148] Top shape: 24 832 7 7 (978432)
I0403 15:36:51.613508 15645 net.cpp:148] Top shape: 24 832 7 7 (978432)
I0403 15:36:51.613523 15645 net.cpp:148] Top shape: 24 832 7 7 (978432)
I0403 15:36:51.613535 15645 net.cpp:156] Memory required for data: 1325241888
I0403 15:36:51.613554 15645 layer_factory.hpp:77] Creating layer inception_5b/1x1
I0403 15:36:51.613576 15645 net.cpp:91] Creating Layer inception_5b/1x1
I0403 15:36:51.613593 15645 net.cpp:425] inception_5b/1x1 <- inception_5a/output_inception_5a/output_0_split_0
I0403 15:36:51.613613 15645 net.cpp:399] inception_5b/1x1 -> inception_5b/1x1
I0403 15:36:51.617303 15645 net.cpp:141] Setting up inception_5b/1x1
I0403 15:36:51.617332 15645 net.cpp:148] Top shape: 24 384 7 7 (451584)
I0403 15:36:51.617348 15645 net.cpp:156] Memory required for data: 1327048224
I0403 15:36:51.617367 15645 layer_factory.hpp:77] Creating layer inception_5b/relu_1x1
I0403 15:36:51.617385 15645 net.cpp:91] Creating Layer inception_5b/relu_1x1
I0403 15:36:51.617403 15645 net.cpp:425] inception_5b/relu_1x1 <- inception_5b/1x1
I0403 15:36:51.617419 15645 net.cpp:386] inception_5b/relu_1x1 -> inception_5b/1x1 (in-place)
I0403 15:36:51.617724 15645 net.cpp:141] Setting up inception_5b/relu_1x1
I0403 15:36:51.617750 15645 net.cpp:148] Top shape: 24 384 7 7 (451584)
I0403 15:36:51.617764 15645 net.cpp:156] Memory required for data: 1328854560
I0403 15:36:51.617779 15645 layer_factory.hpp:77] Creating layer inception_5b/3x3_reduce
I0403 15:36:51.617802 15645 net.cpp:91] Creating Layer inception_5b/3x3_reduce
I0403 15:36:51.617820 15645 net.cpp:425] inception_5b/3x3_reduce <- inception_5a/output_inception_5a/output_0_split_1
I0403 15:36:51.617841 15645 net.cpp:399] inception_5b/3x3_reduce -> inception_5b/3x3_reduce
I0403 15:36:51.620446 15645 net.cpp:141] Setting up inception_5b/3x3_reduce
I0403 15:36:51.620476 15645 net.cpp:148] Top shape: 24 192 7 7 (225792)
I0403 15:36:51.620491 15645 net.cpp:156] Memory required for data: 1329757728
I0403 15:36:51.620508 15645 layer_factory.hpp:77] Creating layer inception_5b/relu_3x3_reduce
I0403 15:36:51.620528 15645 net.cpp:91] Creating Layer inception_5b/relu_3x3_reduce
I0403 15:36:51.620550 15645 net.cpp:425] inception_5b/relu_3x3_reduce <- inception_5b/3x3_reduce
I0403 15:36:51.620568 15645 net.cpp:386] inception_5b/relu_3x3_reduce -> inception_5b/3x3_reduce (in-place)
I0403 15:36:51.620759 15645 net.cpp:141] Setting up inception_5b/relu_3x3_reduce
I0403 15:36:51.620786 15645 net.cpp:148] Top shape: 24 192 7 7 (225792)
I0403 15:36:51.620801 15645 net.cpp:156] Memory required for data: 1330660896
I0403 15:36:51.620815 15645 layer_factory.hpp:77] Creating layer inception_5b/3x3
I0403 15:36:51.620837 15645 net.cpp:91] Creating Layer inception_5b/3x3
I0403 15:36:51.620854 15645 net.cpp:425] inception_5b/3x3 <- inception_5b/3x3_reduce
I0403 15:36:51.620872 15645 net.cpp:399] inception_5b/3x3 -> inception_5b/3x3
I0403 15:36:51.627426 15645 net.cpp:141] Setting up inception_5b/3x3
I0403 15:36:51.627454 15645 net.cpp:148] Top shape: 24 384 7 7 (451584)
I0403 15:36:51.627470 15645 net.cpp:156] Memory required for data: 1332467232
I0403 15:36:51.627488 15645 layer_factory.hpp:77] Creating layer inception_5b/relu_3x3
I0403 15:36:51.627507 15645 net.cpp:91] Creating Layer inception_5b/relu_3x3
I0403 15:36:51.627526 15645 net.cpp:425] inception_5b/relu_3x3 <- inception_5b/3x3
I0403 15:36:51.627547 15645 net.cpp:386] inception_5b/relu_3x3 -> inception_5b/3x3 (in-place)
I0403 15:36:51.627843 15645 net.cpp:141] Setting up inception_5b/relu_3x3
I0403 15:36:51.627869 15645 net.cpp:148] Top shape: 24 384 7 7 (451584)
I0403 15:36:51.627884 15645 net.cpp:156] Memory required for data: 1334273568
I0403 15:36:51.627898 15645 layer_factory.hpp:77] Creating layer inception_5b/5x5_reduce
I0403 15:36:51.627935 15645 net.cpp:91] Creating Layer inception_5b/5x5_reduce
I0403 15:36:51.627954 15645 net.cpp:425] inception_5b/5x5_reduce <- inception_5a/output_inception_5a/output_0_split_2
I0403 15:36:51.627974 15645 net.cpp:399] inception_5b/5x5_reduce -> inception_5b/5x5_reduce
I0403 15:36:51.629231 15645 net.cpp:141] Setting up inception_5b/5x5_reduce
I0403 15:36:51.629258 15645 net.cpp:148] Top shape: 24 48 7 7 (56448)
I0403 15:36:51.629273 15645 net.cpp:156] Memory required for data: 1334499360
I0403 15:36:51.629292 15645 layer_factory.hpp:77] Creating layer inception_5b/relu_5x5_reduce
I0403 15:36:51.629323 15645 net.cpp:91] Creating Layer inception_5b/relu_5x5_reduce
I0403 15:36:51.629341 15645 net.cpp:425] inception_5b/relu_5x5_reduce <- inception_5b/5x5_reduce
I0403 15:36:51.629359 15645 net.cpp:386] inception_5b/relu_5x5_reduce -> inception_5b/5x5_reduce (in-place)
I0403 15:36:51.629745 15645 net.cpp:141] Setting up inception_5b/relu_5x5_reduce
I0403 15:36:51.629771 15645 net.cpp:148] Top shape: 24 48 7 7 (56448)
I0403 15:36:51.629786 15645 net.cpp:156] Memory required for data: 1334725152
I0403 15:36:51.629801 15645 layer_factory.hpp:77] Creating layer inception_5b/5x5
I0403 15:36:51.629819 15645 net.cpp:91] Creating Layer inception_5b/5x5
I0403 15:36:51.629835 15645 net.cpp:425] inception_5b/5x5 <- inception_5b/5x5_reduce
I0403 15:36:51.629854 15645 net.cpp:399] inception_5b/5x5 -> inception_5b/5x5
I0403 15:36:51.631870 15645 net.cpp:141] Setting up inception_5b/5x5
I0403 15:36:51.631899 15645 net.cpp:148] Top shape: 24 128 7 7 (150528)
I0403 15:36:51.631916 15645 net.cpp:156] Memory required for data: 1335327264
I0403 15:36:51.631932 15645 layer_factory.hpp:77] Creating layer inception_5b/relu_5x5
I0403 15:36:51.631950 15645 net.cpp:91] Creating Layer inception_5b/relu_5x5
I0403 15:36:51.631966 15645 net.cpp:425] inception_5b/relu_5x5 <- inception_5b/5x5
I0403 15:36:51.631983 15645 net.cpp:386] inception_5b/relu_5x5 -> inception_5b/5x5 (in-place)
I0403 15:36:51.632176 15645 net.cpp:141] Setting up inception_5b/relu_5x5
I0403 15:36:51.632200 15645 net.cpp:148] Top shape: 24 128 7 7 (150528)
I0403 15:36:51.632215 15645 net.cpp:156] Memory required for data: 1335929376
I0403 15:36:51.632228 15645 layer_factory.hpp:77] Creating layer inception_5b/pool
I0403 15:36:51.632246 15645 net.cpp:91] Creating Layer inception_5b/pool
I0403 15:36:51.632261 15645 net.cpp:425] inception_5b/pool <- inception_5a/output_inception_5a/output_0_split_3
I0403 15:36:51.632280 15645 net.cpp:399] inception_5b/pool -> inception_5b/pool
I0403 15:36:51.632350 15645 net.cpp:141] Setting up inception_5b/pool
I0403 15:36:51.632375 15645 net.cpp:148] Top shape: 24 832 7 7 (978432)
I0403 15:36:51.632390 15645 net.cpp:156] Memory required for data: 1339843104
I0403 15:36:51.632405 15645 layer_factory.hpp:77] Creating layer inception_5b/pool_proj
I0403 15:36:51.632426 15645 net.cpp:91] Creating Layer inception_5b/pool_proj
I0403 15:36:51.632442 15645 net.cpp:425] inception_5b/pool_proj <- inception_5b/pool
I0403 15:36:51.632460 15645 net.cpp:399] inception_5b/pool_proj -> inception_5b/pool_proj
I0403 15:36:51.634727 15645 net.cpp:141] Setting up inception_5b/pool_proj
I0403 15:36:51.634755 15645 net.cpp:148] Top shape: 24 128 7 7 (150528)
I0403 15:36:51.634770 15645 net.cpp:156] Memory required for data: 1340445216
I0403 15:36:51.634788 15645 layer_factory.hpp:77] Creating layer inception_5b/relu_pool_proj
I0403 15:36:51.634809 15645 net.cpp:91] Creating Layer inception_5b/relu_pool_proj
I0403 15:36:51.634825 15645 net.cpp:425] inception_5b/relu_pool_proj <- inception_5b/pool_proj
I0403 15:36:51.634843 15645 net.cpp:386] inception_5b/relu_pool_proj -> inception_5b/pool_proj (in-place)
I0403 15:36:51.635135 15645 net.cpp:141] Setting up inception_5b/relu_pool_proj
I0403 15:36:51.635160 15645 net.cpp:148] Top shape: 24 128 7 7 (150528)
I0403 15:36:51.635175 15645 net.cpp:156] Memory required for data: 1341047328
I0403 15:36:51.635190 15645 layer_factory.hpp:77] Creating layer inception_5b/output
I0403 15:36:51.635207 15645 net.cpp:91] Creating Layer inception_5b/output
I0403 15:36:51.635236 15645 net.cpp:425] inception_5b/output <- inception_5b/1x1
I0403 15:36:51.635254 15645 net.cpp:425] inception_5b/output <- inception_5b/3x3
I0403 15:36:51.635270 15645 net.cpp:425] inception_5b/output <- inception_5b/5x5
I0403 15:36:51.635287 15645 net.cpp:425] inception_5b/output <- inception_5b/pool_proj
I0403 15:36:51.635303 15645 net.cpp:399] inception_5b/output -> inception_5b/output
I0403 15:36:51.635355 15645 net.cpp:141] Setting up inception_5b/output
I0403 15:36:51.635378 15645 net.cpp:148] Top shape: 24 1024 7 7 (1204224)
I0403 15:36:51.635392 15645 net.cpp:156] Memory required for data: 1345864224
I0403 15:36:51.635406 15645 layer_factory.hpp:77] Creating layer pool5/7x7_s1
I0403 15:36:51.635422 15645 net.cpp:91] Creating Layer pool5/7x7_s1
I0403 15:36:51.635437 15645 net.cpp:425] pool5/7x7_s1 <- inception_5b/output
I0403 15:36:51.635457 15645 net.cpp:399] pool5/7x7_s1 -> pool5/7x7_s1
I0403 15:36:51.635684 15645 net.cpp:141] Setting up pool5/7x7_s1
I0403 15:36:51.635710 15645 net.cpp:148] Top shape: 24 1024 1 1 (24576)
I0403 15:36:51.635725 15645 net.cpp:156] Memory required for data: 1345962528
I0403 15:36:51.635737 15645 layer_factory.hpp:77] Creating layer pool5/drop_7x7_s1
I0403 15:36:51.635756 15645 net.cpp:91] Creating Layer pool5/drop_7x7_s1
I0403 15:36:51.635772 15645 net.cpp:425] pool5/drop_7x7_s1 <- pool5/7x7_s1
I0403 15:36:51.635789 15645 net.cpp:386] pool5/drop_7x7_s1 -> pool5/7x7_s1 (in-place)
I0403 15:36:51.635839 15645 net.cpp:141] Setting up pool5/drop_7x7_s1
I0403 15:36:51.635861 15645 net.cpp:148] Top shape: 24 1024 1 1 (24576)
I0403 15:36:51.635874 15645 net.cpp:156] Memory required for data: 1346060832
I0403 15:36:51.635887 15645 layer_factory.hpp:77] Creating layer loss3/classifier_plantvillage
I0403 15:36:51.635907 15645 net.cpp:91] Creating Layer loss3/classifier_plantvillage
I0403 15:36:51.635923 15645 net.cpp:425] loss3/classifier_plantvillage <- pool5/7x7_s1
I0403 15:36:51.635941 15645 net.cpp:399] loss3/classifier_plantvillage -> loss3/classifier_plantvillage
I0403 15:36:51.636358 15645 net.cpp:141] Setting up loss3/classifier_plantvillage
I0403 15:36:51.636382 15645 net.cpp:148] Top shape: 24 38 (912)
I0403 15:36:51.636395 15645 net.cpp:156] Memory required for data: 1346064480
I0403 15:36:51.636412 15645 layer_factory.hpp:77] Creating layer loss3/classifier_plantvillage_loss3/classifier_plantvillage_0_split
I0403 15:36:51.636430 15645 net.cpp:91] Creating Layer loss3/classifier_plantvillage_loss3/classifier_plantvillage_0_split
I0403 15:36:51.636445 15645 net.cpp:425] loss3/classifier_plantvillage_loss3/classifier_plantvillage_0_split <- loss3/classifier_plantvillage
I0403 15:36:51.636466 15645 net.cpp:399] loss3/classifier_plantvillage_loss3/classifier_plantvillage_0_split -> loss3/classifier_plantvillage_loss3/classifier_plantvillage_0_split_0
I0403 15:36:51.636485 15645 net.cpp:399] loss3/classifier_plantvillage_loss3/classifier_plantvillage_0_split -> loss3/classifier_plantvillage_loss3/classifier_plantvillage_0_split_1
I0403 15:36:51.636505 15645 net.cpp:399] loss3/classifier_plantvillage_loss3/classifier_plantvillage_0_split -> loss3/classifier_plantvillage_loss3/classifier_plantvillage_0_split_2
I0403 15:36:51.636524 15645 net.cpp:399] loss3/classifier_plantvillage_loss3/classifier_plantvillage_0_split -> loss3/classifier_plantvillage_loss3/classifier_plantvillage_0_split_3
I0403 15:36:51.636644 15645 net.cpp:141] Setting up loss3/classifier_plantvillage_loss3/classifier_plantvillage_0_split
I0403 15:36:51.636668 15645 net.cpp:148] Top shape: 24 38 (912)
I0403 15:36:51.636684 15645 net.cpp:148] Top shape: 24 38 (912)
I0403 15:36:51.636699 15645 net.cpp:148] Top shape: 24 38 (912)
I0403 15:36:51.636713 15645 net.cpp:148] Top shape: 24 38 (912)
I0403 15:36:51.636728 15645 net.cpp:156] Memory required for data: 1346079072
I0403 15:36:51.636740 15645 layer_factory.hpp:77] Creating layer loss1/loss
I0403 15:36:51.636762 15645 net.cpp:91] Creating Layer loss1/loss
I0403 15:36:51.636780 15645 net.cpp:425] loss1/loss <- loss1/classifier_plantvillage_loss1/classifier_plantvillage_0_split_0
I0403 15:36:51.636811 15645 net.cpp:425] loss1/loss <- label_data_1_split_0
…
