…
I0403 02:30:36.867563 28786 net.cpp:313] The NetState phase (0) differed from the phase (1) specified by a rule in layer accuracy
I0403 02:30:36.869418 28786 net.cpp:49] Initializing net from parameters: 
state {
  phase: TRAIN
}
layer {
  name: "data"
  type: "Data"
  top: "data"
  top: "label"
  include {
    phase: TRAIN
  }
  transform_param {
    mirror: true
    crop_size: 227
    mean_file: "/home/mohanty/data/final_dataset/lmdb/segmented-20-80/mean.binaryproto"
  }
  data_param {
    source: "/home/mohanty/data/final_dataset/lmdb/segmented-20-80/train_db"
    batch_size: 100
    backend: LMDB
  }
}
layer {
  name: "conv1"
  type: "Convolution"
  bottom: "data"
  top: "conv1"
  param {
    lr_mult: 1
    decay_mult: 1
  }
  param {
    lr_mult: 2
    decay_mult: 0
  }
  convolution_param {
    num_output: 96
    kernel_size: 11
    stride: 4
    weight_filler {
      type: "gaussian"
      std: 0.01
    }
    bias_filler {
      type: "constant"
      value: 0
    }
  }
}
layer {
  name: "relu1"
  type: "ReLU"
  bottom: "conv1"
  top: "conv1"
}
layer {
  name: "norm1"
  type: "LRN"
  bottom: "conv1"
  top: "norm1"
  lrn_param {
    local_size: 5
    alpha: 0.0001
    beta: 0.75
  }
}
layer {
  name: "pool1"
  type: "Pooling"
  bottom: "norm1"
  top: "pool1"
  pooling_param {
    pool: MAX
    kernel_size: 3
    stride: 2
  }
}
layer {
  name: "conv2"
  type: "Convolution"
  bottom: "pool1"
  top: "conv2"
  param {
    lr_mult: 1
    decay_mult: 1
  }
  param {
    lr_mult: 2
    decay_mult: 0
  }
  convolution_param {
    num_output: 256
    pad: 2
    kernel_size: 5
    group: 2
    weight_filler {
      type: "gaussian"
      std: 0.01
    }
    bias_filler {
      type: "constant"
      value: 0.1
    }
  }
}
layer {
  name: "relu2"
  type: "ReLU"
  bottom: "conv2"
  top: "conv2"
}
layer {
  name: "norm2"
  type: "LRN"
  bottom: "conv2"
  top: "norm2"
  lrn_param {
    local_size: 5
    alpha: 0.0001
    beta: 0.75
  }
}
layer {
  name: "pool2"
  type: "Pooling"
  bottom: "norm2"
  top: "pool2"
  pooling_param {
    pool: MAX
    kernel_size: 3
    stride: 2
  }
}
layer {
  name: "conv3"
  type: "Convolution"
  bottom: "pool2"
  top: "conv3"
  param {
    lr_mult: 1
    decay_mult: 1
  }
  param {
    lr_mult: 2
    decay_mult: 0
  }
  convolution_param {
    num_output: 384
    pad: 1
    kernel_size: 3
    weight_filler {
      type: "gaussian"
      std: 0.01
    }
    bias_filler {
      type: "constant"
      value: 0
    }
  }
}
layer {
  name: "relu3"
  type: "ReLU"
  bottom: "conv3"
  top: "conv3"
}
layer {
  name: "conv4"
  type: "Convolution"
  bottom: "conv3"
  top: "conv4"
  param {
    lr_mult: 1
    decay_mult: 1
  }
  param {
    lr_mult: 2
    decay_mult: 0
  }
  convolution_param {
    num_output: 384
    pad: 1
    kernel_size: 3
    group: 2
    weight_filler {
      type: "gaussian"
      std: 0.01
    }
    bias_filler {
      type: "constant"
      value: 0.1
    }
  }
}
layer {
  name: "relu4"
  type: "ReLU"
  bottom: "conv4"
  top: "conv4"
}
layer {
  name: "conv5"
  type: "Convolution"
  bottom: "conv4"
  top: "conv5"
  param {
    lr_mult: 1
    decay_mult: 1
  }
  param {
    lr_mult: 2
    decay_mult: 0
  }
  convolution_param {
    num_output: 256
    pad: 1
    kernel_size: 3
    group: 2
    weight_filler {
      type: "gaussian"
      std: 0.01
    }
    bias_filler {
      type: "constant"
      value: 0.1
    }
  }
}
layer {
  name: "relu5"
  type: "ReLU"
  bottom: "conv5"
  top: "conv5"
}
layer {
  name: "pool5"
  type: "Pooling"
  bottom: "conv5"
  top: "pool5"
  pooling_param {
    pool: MAX
    kernel_size: 3
    stride: 2
  }
}
layer {
  name: "fc6"
  type: "InnerProduct"
  bottom: "pool5"
  top: "fc6"
  param {
    lr_mult: 1
    decay_mult: 1
  }
  param {
    lr_mult: 2
    decay_mult: 0
  }
  inner_product_param {
    num_output: 4096
    weight_filler {
      type: "gaussian"
      std: 0.005
    }
    bias_filler {
      type: "constant"
      value: 0.1
    }
  }
}
layer {
  name: "relu6"
  type: "ReLU"
  bottom: "fc6"
  top: "fc6"
}
layer {
  name: "drop6"
  type: "Dropout"
  bottom: "fc6"
  top: "fc6"
  dropout_param {
    dropout_ratio: 0.5
  }
}
layer {
  name: "fc7"
  type: "InnerProduct"
  bottom: "fc6"
  top: "fc7"
  param {
    lr_mult: 1
    decay_mult: 1
  }
  param {
    lr_mult: 2
    decay_mult: 0
  }
  inner_product_param {
    num_output: 4096
    weight_filler {
      type: "gaussian"
      std: 0.005
    }
    bias_filler {
      type: "constant"
      value: 0.1
    }
  }
}
layer {
  name: "relu7"
  type: "ReLU"
  bottom: "fc7"
  top: "fc7"
}
layer {
  name: "drop7"
  type: "Dropout"
  bottom: "fc7"
  top: "fc7"
  dropout_param {
    dropout_ratio: 0.5
  }
}
layer {
  name: "fc8_plantvillage"
  type: "InnerProduct"
  bottom: "fc7"
  top: "fc8_plantvillage"
  param {
    lr_mult: 1
    decay_mult: 1
  }
  param {
    lr_mult: 2
    decay_mult: 0
  }
  inner_product_param {
    num_output: 38
    weight_filler {
      type: "gaussian"
      std: 0.01
    }
    bias_filler {
      type: "constant"
      value: 0
    }
  }
}
layer {
  name: "loss"
  type: "SoftmaxWithLoss"
  bottom: "fc8_plantvillage"
  bottom: "label"
  top: "loss"
}
I0403 02:30:36.872097 28786 layer_factory.hpp:77] Creating layer data
I0403 02:30:36.874838 28786 net.cpp:91] Creating Layer data
I0403 02:30:36.874969 28786 net.cpp:399] data -> data
I0403 02:30:36.875413 28786 net.cpp:399] data -> label
I0403 02:30:36.875527 28786 data_transformer.cpp:25] Loading mean file from: /home/mohanty/data/final_dataset/lmdb/segmented-20-80/mean.binaryproto
I0403 02:30:36.915694 28793 db_lmdb.cpp:38] Opened lmdb /home/mohanty/data/final_dataset/lmdb/segmented-20-80/train_db
I0403 02:30:36.947507 28786 data_layer.cpp:41] output data size: 100,3,227,227
I0403 02:30:37.086957 28786 net.cpp:141] Setting up data
I0403 02:30:37.087086 28786 net.cpp:148] Top shape: 100 3 227 227 (15458700)
I0403 02:30:37.087134 28786 net.cpp:148] Top shape: 100 (100)
I0403 02:30:37.087180 28786 net.cpp:156] Memory required for data: 61835200
I0403 02:30:37.087249 28786 layer_factory.hpp:77] Creating layer conv1
I0403 02:30:37.087316 28786 net.cpp:91] Creating Layer conv1
I0403 02:30:37.087380 28786 net.cpp:425] conv1 <- data
I0403 02:30:37.087422 28786 net.cpp:399] conv1 -> conv1
I0403 02:30:37.096631 28786 net.cpp:141] Setting up conv1
I0403 02:30:37.096668 28786 net.cpp:148] Top shape: 100 96 55 55 (29040000)
I0403 02:30:37.096689 28786 net.cpp:156] Memory required for data: 177995200
I0403 02:30:37.096732 28786 layer_factory.hpp:77] Creating layer relu1
I0403 02:30:37.096765 28786 net.cpp:91] Creating Layer relu1
I0403 02:30:37.096786 28786 net.cpp:425] relu1 <- conv1
I0403 02:30:37.096809 28786 net.cpp:386] relu1 -> conv1 (in-place)
I0403 02:30:37.096839 28786 net.cpp:141] Setting up relu1
I0403 02:30:37.096863 28786 net.cpp:148] Top shape: 100 96 55 55 (29040000)
I0403 02:30:37.096881 28786 net.cpp:156] Memory required for data: 294155200
I0403 02:30:37.096899 28786 layer_factory.hpp:77] Creating layer norm1
I0403 02:30:37.096923 28786 net.cpp:91] Creating Layer norm1
I0403 02:30:37.096982 28786 net.cpp:425] norm1 <- conv1
I0403 02:30:37.097007 28786 net.cpp:399] norm1 -> norm1
I0403 02:30:37.097077 28786 net.cpp:141] Setting up norm1
I0403 02:30:37.097105 28786 net.cpp:148] Top shape: 100 96 55 55 (29040000)
I0403 02:30:37.097123 28786 net.cpp:156] Memory required for data: 410315200
I0403 02:30:37.097141 28786 layer_factory.hpp:77] Creating layer pool1
I0403 02:30:37.097165 28786 net.cpp:91] Creating Layer pool1
I0403 02:30:37.097185 28786 net.cpp:425] pool1 <- norm1
I0403 02:30:37.097208 28786 net.cpp:399] pool1 -> pool1
I0403 02:30:37.097276 28786 net.cpp:141] Setting up pool1
I0403 02:30:37.097306 28786 net.cpp:148] Top shape: 100 96 27 27 (6998400)
I0403 02:30:37.097324 28786 net.cpp:156] Memory required for data: 438308800
I0403 02:30:37.097342 28786 layer_factory.hpp:77] Creating layer conv2
I0403 02:30:37.097368 28786 net.cpp:91] Creating Layer conv2
I0403 02:30:37.097389 28786 net.cpp:425] conv2 <- pool1
I0403 02:30:37.097412 28786 net.cpp:399] conv2 -> conv2
I0403 02:30:37.097724 28795 blocking_queue.cpp:50] Waiting for data
I0403 02:30:37.114748 28786 net.cpp:141] Setting up conv2
I0403 02:30:37.114785 28786 net.cpp:148] Top shape: 100 256 27 27 (18662400)
I0403 02:30:37.114807 28786 net.cpp:156] Memory required for data: 512958400
I0403 02:30:37.114833 28786 layer_factory.hpp:77] Creating layer relu2
I0403 02:30:37.114859 28786 net.cpp:91] Creating Layer relu2
I0403 02:30:37.114879 28786 net.cpp:425] relu2 <- conv2
I0403 02:30:37.114902 28786 net.cpp:386] relu2 -> conv2 (in-place)
I0403 02:30:37.114926 28786 net.cpp:141] Setting up relu2
I0403 02:30:37.114948 28786 net.cpp:148] Top shape: 100 256 27 27 (18662400)
I0403 02:30:37.114965 28786 net.cpp:156] Memory required for data: 587608000
I0403 02:30:37.114984 28786 layer_factory.hpp:77] Creating layer norm2
I0403 02:30:37.115006 28786 net.cpp:91] Creating Layer norm2
I0403 02:30:37.115026 28786 net.cpp:425] norm2 <- conv2
I0403 02:30:37.115048 28786 net.cpp:399] norm2 -> norm2
I0403 02:30:37.115108 28786 net.cpp:141] Setting up norm2
I0403 02:30:37.115134 28786 net.cpp:148] Top shape: 100 256 27 27 (18662400)
I0403 02:30:37.115151 28786 net.cpp:156] Memory required for data: 662257600
I0403 02:30:37.115169 28786 layer_factory.hpp:77] Creating layer pool2
I0403 02:30:37.115193 28786 net.cpp:91] Creating Layer pool2
I0403 02:30:37.115216 28786 net.cpp:425] pool2 <- norm2
I0403 02:30:37.115238 28786 net.cpp:399] pool2 -> pool2
I0403 02:30:37.115294 28786 net.cpp:141] Setting up pool2
I0403 02:30:37.115322 28786 net.cpp:148] Top shape: 100 256 13 13 (4326400)
I0403 02:30:37.115340 28786 net.cpp:156] Memory required for data: 679563200
I0403 02:30:37.115358 28786 layer_factory.hpp:77] Creating layer conv3
I0403 02:30:37.115386 28786 net.cpp:91] Creating Layer conv3
I0403 02:30:37.115408 28786 net.cpp:425] conv3 <- pool2
I0403 02:30:37.115433 28786 net.cpp:399] conv3 -> conv3
I0403 02:30:37.157114 28786 net.cpp:141] Setting up conv3
I0403 02:30:37.157155 28786 net.cpp:148] Top shape: 100 384 13 13 (6489600)
I0403 02:30:37.157176 28786 net.cpp:156] Memory required for data: 705521600
I0403 02:30:37.157203 28786 layer_factory.hpp:77] Creating layer relu3
I0403 02:30:37.157228 28786 net.cpp:91] Creating Layer relu3
I0403 02:30:37.157248 28786 net.cpp:425] relu3 <- conv3
I0403 02:30:37.157271 28786 net.cpp:386] relu3 -> conv3 (in-place)
I0403 02:30:37.157295 28786 net.cpp:141] Setting up relu3
I0403 02:30:37.157316 28786 net.cpp:148] Top shape: 100 384 13 13 (6489600)
I0403 02:30:37.157335 28786 net.cpp:156] Memory required for data: 731480000
I0403 02:30:37.157351 28786 layer_factory.hpp:77] Creating layer conv4
I0403 02:30:37.157378 28786 net.cpp:91] Creating Layer conv4
I0403 02:30:37.157400 28786 net.cpp:425] conv4 <- conv3
I0403 02:30:37.157425 28786 net.cpp:399] conv4 -> conv4
I0403 02:30:37.188809 28786 net.cpp:141] Setting up conv4
I0403 02:30:37.188849 28786 net.cpp:148] Top shape: 100 384 13 13 (6489600)
I0403 02:30:37.188870 28786 net.cpp:156] Memory required for data: 757438400
I0403 02:30:37.188915 28786 layer_factory.hpp:77] Creating layer relu4
I0403 02:30:37.188941 28786 net.cpp:91] Creating Layer relu4
I0403 02:30:37.188962 28786 net.cpp:425] relu4 <- conv4
I0403 02:30:37.188987 28786 net.cpp:386] relu4 -> conv4 (in-place)
I0403 02:30:37.189012 28786 net.cpp:141] Setting up relu4
I0403 02:30:37.189031 28786 net.cpp:148] Top shape: 100 384 13 13 (6489600)
I0403 02:30:37.189050 28786 net.cpp:156] Memory required for data: 783396800
I0403 02:30:37.189069 28786 layer_factory.hpp:77] Creating layer conv5
I0403 02:30:37.189095 28786 net.cpp:91] Creating Layer conv5
I0403 02:30:37.189116 28786 net.cpp:425] conv5 <- conv4
I0403 02:30:37.189139 28786 net.cpp:399] conv5 -> conv5
I0403 02:30:37.210180 28786 net.cpp:141] Setting up conv5
I0403 02:30:37.210218 28786 net.cpp:148] Top shape: 100 256 13 13 (4326400)
I0403 02:30:37.210238 28786 net.cpp:156] Memory required for data: 800702400
I0403 02:30:37.210268 28786 layer_factory.hpp:77] Creating layer relu5
I0403 02:30:37.210294 28786 net.cpp:91] Creating Layer relu5
I0403 02:30:37.210314 28786 net.cpp:425] relu5 <- conv5
I0403 02:30:37.210336 28786 net.cpp:386] relu5 -> conv5 (in-place)
I0403 02:30:37.210361 28786 net.cpp:141] Setting up relu5
I0403 02:30:37.210381 28786 net.cpp:148] Top shape: 100 256 13 13 (4326400)
I0403 02:30:37.210399 28786 net.cpp:156] Memory required for data: 818008000
I0403 02:30:37.210417 28786 layer_factory.hpp:77] Creating layer pool5
I0403 02:30:37.210438 28786 net.cpp:91] Creating Layer pool5
I0403 02:30:37.210458 28786 net.cpp:425] pool5 <- conv5
I0403 02:30:37.210479 28786 net.cpp:399] pool5 -> pool5
I0403 02:30:37.210544 28786 net.cpp:141] Setting up pool5
I0403 02:30:37.210572 28786 net.cpp:148] Top shape: 100 256 6 6 (921600)
I0403 02:30:37.210592 28786 net.cpp:156] Memory required for data: 821694400
I0403 02:30:37.210610 28786 layer_factory.hpp:77] Creating layer fc6
I0403 02:30:37.210644 28786 net.cpp:91] Creating Layer fc6
I0403 02:30:37.210665 28786 net.cpp:425] fc6 <- pool5
I0403 02:30:37.210688 28786 net.cpp:399] fc6 -> fc6
I0403 02:30:38.753813 28786 net.cpp:141] Setting up fc6
I0403 02:30:38.753891 28786 net.cpp:148] Top shape: 100 4096 (409600)
I0403 02:30:38.753907 28786 net.cpp:156] Memory required for data: 823332800
I0403 02:30:38.753929 28786 layer_factory.hpp:77] Creating layer relu6
I0403 02:30:38.753952 28786 net.cpp:91] Creating Layer relu6
I0403 02:30:38.753968 28786 net.cpp:425] relu6 <- fc6
I0403 02:30:38.753985 28786 net.cpp:386] relu6 -> fc6 (in-place)
I0403 02:30:38.754006 28786 net.cpp:141] Setting up relu6
I0403 02:30:38.754024 28786 net.cpp:148] Top shape: 100 4096 (409600)
I0403 02:30:38.754037 28786 net.cpp:156] Memory required for data: 824971200
I0403 02:30:38.754050 28786 layer_factory.hpp:77] Creating layer drop6
I0403 02:30:38.754076 28786 net.cpp:91] Creating Layer drop6
I0403 02:30:38.754092 28786 net.cpp:425] drop6 <- fc6
I0403 02:30:38.754109 28786 net.cpp:386] drop6 -> fc6 (in-place)
I0403 02:30:38.754153 28786 net.cpp:141] Setting up drop6
I0403 02:30:38.754173 28786 net.cpp:148] Top shape: 100 4096 (409600)
I0403 02:30:38.754187 28786 net.cpp:156] Memory required for data: 826609600
I0403 02:30:38.754201 28786 layer_factory.hpp:77] Creating layer fc7
I0403 02:30:38.754220 28786 net.cpp:91] Creating Layer fc7
I0403 02:30:38.754236 28786 net.cpp:425] fc7 <- fc6
I0403 02:30:38.754257 28786 net.cpp:399] fc7 -> fc7
I0403 02:30:39.368747 28786 net.cpp:141] Setting up fc7
I0403 02:30:39.368824 28786 net.cpp:148] Top shape: 100 4096 (409600)
I0403 02:30:39.368840 28786 net.cpp:156] Memory required for data: 828248000
I0403 02:30:39.368860 28786 layer_factory.hpp:77] Creating layer relu7
I0403 02:30:39.368883 28786 net.cpp:91] Creating Layer relu7
I0403 02:30:39.368906 28786 net.cpp:425] relu7 <- fc7
I0403 02:30:39.368935 28786 net.cpp:386] relu7 -> fc7 (in-place)
I0403 02:30:39.368964 28786 net.cpp:141] Setting up relu7
I0403 02:30:39.368985 28786 net.cpp:148] Top shape: 100 4096 (409600)
I0403 02:30:39.369007 28786 net.cpp:156] Memory required for data: 829886400
I0403 02:30:39.369030 28786 layer_factory.hpp:77] Creating layer drop7
I0403 02:30:39.369087 28786 net.cpp:91] Creating Layer drop7
I0403 02:30:39.369112 28786 net.cpp:425] drop7 <- fc7
I0403 02:30:39.369137 28786 net.cpp:386] drop7 -> fc7 (in-place)
I0403 02:30:39.369185 28786 net.cpp:141] Setting up drop7
I0403 02:30:39.369213 28786 net.cpp:148] Top shape: 100 4096 (409600)
I0403 02:30:39.369233 28786 net.cpp:156] Memory required for data: 831524800
I0403 02:30:39.369271 28786 layer_factory.hpp:77] Creating layer fc8_plantvillage
I0403 02:30:39.369292 28786 net.cpp:91] Creating Layer fc8_plantvillage
I0403 02:30:39.369308 28786 net.cpp:425] fc8_plantvillage <- fc7
I0403 02:30:39.369325 28786 net.cpp:399] fc8_plantvillage -> fc8_plantvillage
I0403 02:30:39.375607 28786 net.cpp:141] Setting up fc8_plantvillage
I0403 02:30:39.375635 28786 net.cpp:148] Top shape: 100 38 (3800)
I0403 02:30:39.375651 28786 net.cpp:156] Memory required for data: 831540000
I0403 02:30:39.375669 28786 layer_factory.hpp:77] Creating layer loss
I0403 02:30:39.375695 28786 net.cpp:91] Creating Layer loss
I0403 02:30:39.375716 28786 net.cpp:425] loss <- fc8_plantvillage
I0403 02:30:39.375735 28786 net.cpp:425] loss <- label
I0403 02:30:39.375758 28786 net.cpp:399] loss -> loss
I0403 02:30:39.375803 28786 layer_factory.hpp:77] Creating layer loss
…
I0403 02:30:39.377746 28786 net.cpp:313] The NetState phase (1) differed from the phase (0) specified by a rule in layer data
I0403 02:30:39.378428 28786 net.cpp:49] Initializing net from parameters: 
state {
  phase: TEST
}
layer {
  name: "data"
  type: "Data"
  top: "data"
  top: "label"
  include {
    phase: TEST
  }
  transform_param {
    crop_size: 227
    mean_file: "/home/mohanty/data/final_dataset/lmdb/segmented-20-80/mean.binaryproto"
  }
  data_param {
    source: "/home/mohanty/data/final_dataset/lmdb/segmented-20-80/test_db"
    batch_size: 100
    backend: LMDB
  }
}
layer {
  name: "conv1"
  type: "Convolution"
  bottom: "data"
  top: "conv1"
  param {
    lr_mult: 1
    decay_mult: 1
  }
  param {
    lr_mult: 2
    decay_mult: 0
  }
  convolution_param {
    num_output: 96
    kernel_size: 11
    stride: 4
    weight_filler {
      type: "gaussian"
      std: 0.01
    }
    bias_filler {
      type: "constant"
      value: 0
    }
  }
}
layer {
  name: "relu1"
  type: "ReLU"
  bottom: "conv1"
  top: "conv1"
}
layer {
  name: "norm1"
  type: "LRN"
  bottom: "conv1"
  top: "norm1"
  lrn_param {
    local_size: 5
    alpha: 0.0001
    beta: 0.75
  }
}
layer {
  name: "pool1"
  type: "Pooling"
  bottom: "norm1"
  top: "pool1"
  pooling_param {
    pool: MAX
    kernel_size: 3
    stride: 2
  }
}
layer {
  name: "conv2"
  type: "Convolution"
  bottom: "pool1"
  top: "conv2"
  param {
    lr_mult: 1
    decay_mult: 1
  }
  param {
    lr_mult: 2
    decay_mult: 0
  }
  convolution_param {
    num_output: 256
    pad: 2
    kernel_size: 5
    group: 2
    weight_filler {
      type: "gaussian"
      std: 0.01
    }
    bias_filler {
      type: "constant"
      value: 0.1
    }
  }
}
layer {
  name: "relu2"
  type: "ReLU"
  bottom: "conv2"
  top: "conv2"
}
layer {
  name: "norm2"
  type: "LRN"
  bottom: "conv2"
  top: "norm2"
  lrn_param {
    local_size: 5
    alpha: 0.0001
    beta: 0.75
  }
}
layer {
  name: "pool2"
  type: "Pooling"
  bottom: "norm2"
  top: "pool2"
  pooling_param {
    pool: MAX
    kernel_size: 3
    stride: 2
  }
}
layer {
  name: "conv3"
  type: "Convolution"
  bottom: "pool2"
  top: "conv3"
  param {
    lr_mult: 1
    decay_mult: 1
  }
  param {
    lr_mult: 2
    decay_mult: 0
  }
  convolution_param {
    num_output: 384
    pad: 1
    kernel_size: 3
    weight_filler {
      type: "gaussian"
      std: 0.01
    }
    bias_filler {
      type: "constant"
      value: 0
    }
  }
}
layer {
  name: "relu3"
  type: "ReLU"
  bottom: "conv3"
  top: "conv3"
}
layer {
  name: "conv4"
  type: "Convolution"
  bottom: "conv3"
  top: "conv4"
  param {
    lr_mult: 1
    decay_mult: 1
  }
  param {
    lr_mult: 2
    decay_mult: 0
  }
  convolution_param {
    num_output: 384
    pad: 1
    kernel_size: 3
    group: 2
    weight_filler {
      type: "gaussian"
      std: 0.01
    }
    bias_filler {
      type: "constant"
      value: 0.1
    }
  }
}
layer {
  name: "relu4"
  type: "ReLU"
  bottom: "conv4"
  top: "conv4"
}
layer {
  name: "conv5"
  type: "Convolution"
  bottom: "conv4"
  top: "conv5"
  param {
    lr_mult: 1
    decay_mult: 1
  }
  param {
    lr_mult: 2
    decay_mult: 0
  }
  convolution_param {
    num_output: 256
    pad: 1
    kernel_size: 3
    group: 2
    weight_filler {
      type: "gaussian"
      std: 0.01
    }
    bias_filler {
      type: "constant"
      value: 0.1
    }
  }
}
layer {
  name: "relu5"
  type: "ReLU"
  bottom: "conv5"
  top: "conv5"
}
layer {
  name: "pool5"
  type: "Pooling"
  bottom: "conv5"
  top: "pool5"
  pooling_param {
    pool: MAX
    kernel_size: 3
    stride: 2
  }
}
layer {
  name: "fc6"
  type: "InnerProduct"
  bottom: "pool5"
  top: "fc6"
  param {
    lr_mult: 1
    decay_mult: 1
  }
  param {
    lr_mult: 2
    decay_mult: 0
  }
  inner_product_param {
    num_output: 4096
    weight_filler {
      type: "gaussian"
      std: 0.005
    }
    bias_filler {
      type: "constant"
      value: 0.1
    }
  }
}
layer {
  name: "relu6"
  type: "ReLU"
  bottom: "fc6"
  top: "fc6"
}
layer {
  name: "drop6"
  type: "Dropout"
  bottom: "fc6"
  top: "fc6"
  dropout_param {
    dropout_ratio: 0.5
  }
}
layer {
  name: "fc7"
  type: "InnerProduct"
  bottom: "fc6"
  top: "fc7"
  param {
    lr_mult: 1
    decay_mult: 1
  }
  param {
    lr_mult: 2
    decay_mult: 0
  }
  inner_product_param {
    num_output: 4096
    weight_filler {
      type: "gaussian"
      std: 0.005
    }
    bias_filler {
      type: "constant"
      value: 0.1
    }
  }
}
layer {
  name: "relu7"
  type: "ReLU"
  bottom: "fc7"
  top: "fc7"
}
layer {
  name: "drop7"
  type: "Dropout"
  bottom: "fc7"
  top: "fc7"
  dropout_param {
    dropout_ratio: 0.5
  }
}
layer {
  name: "fc8_plantvillage"
  type: "InnerProduct"
  bottom: "fc7"
  top: "fc8_plantvillage"
  param {
    lr_mult: 1
    decay_mult: 1
  }
  param {
    lr_mult: 2
    decay_mult: 0
  }
  inner_product_param {
    num_output: 38
    weight_filler {
      type: "gaussian"
      std: 0.01
    }
    bias_filler {
      type: "constant"
      value: 0
    }
  }
}
layer {
  name: "loss"
  type: "SoftmaxWithLoss"
  bottom: "fc8_plantvillage"
  bottom: "label"
  top: "loss"
}
layer {
  name: "accuracy"
  type: "Accuracy"
  bottom: "fc8_plantvillage"
  bottom: "label"
  top: "accuracy"
  include {
    phase: TEST
  }
}
I0403 02:30:39.378613 28786 layer_factory.hpp:77] Creating layer data
I0403 02:30:39.378767 28786 net.cpp:91] Creating Layer data
I0403 02:30:39.378793 28786 net.cpp:399] data -> data
I0403 02:30:39.378818 28786 net.cpp:399] data -> label
I0403 02:30:39.378840 28786 data_transformer.cpp:25] Loading mean file from: /home/mohanty/data/final_dataset/lmdb/segmented-20-80/mean.binaryproto
I0403 02:30:39.406869 28797 db_lmdb.cpp:38] Opened lmdb /home/mohanty/data/final_dataset/lmdb/segmented-20-80/test_db
I0403 02:30:39.414291 28786 data_layer.cpp:41] output data size: 100,3,227,227
I0403 02:30:39.592988 28786 net.cpp:141] Setting up data
I0403 02:30:39.661955 28786 net.cpp:148] Top shape: 100 3 227 227 (15458700)
I0403 02:30:39.662163 28786 net.cpp:148] Top shape: 100 (100)
I0403 02:30:39.662308 28786 net.cpp:156] Memory required for data: 61835200
I0403 02:30:39.662341 28786 layer_factory.hpp:77] Creating layer label_data_1_split
I0403 02:30:39.662540 28786 net.cpp:91] Creating Layer label_data_1_split
I0403 02:30:39.662634 28786 net.cpp:425] label_data_1_split <- label
I0403 02:30:39.662667 28786 net.cpp:399] label_data_1_split -> label_data_1_split_0
I0403 02:30:39.662741 28786 net.cpp:399] label_data_1_split -> label_data_1_split_1
I0403 02:30:39.662876 28786 net.cpp:141] Setting up label_data_1_split
I0403 02:30:39.662947 28786 net.cpp:148] Top shape: 100 (100)
I0403 02:30:39.663005 28786 net.cpp:148] Top shape: 100 (100)
I0403 02:30:39.663074 28786 net.cpp:156] Memory required for data: 61836000
I0403 02:30:39.663136 28786 layer_factory.hpp:77] Creating layer conv1
I0403 02:30:39.663194 28786 net.cpp:91] Creating Layer conv1
I0403 02:30:39.663259 28786 net.cpp:425] conv1 <- data
I0403 02:30:39.663283 28786 net.cpp:399] conv1 -> conv1
I0403 02:30:39.664865 28786 net.cpp:141] Setting up conv1
I0403 02:30:39.664892 28786 net.cpp:148] Top shape: 100 96 55 55 (29040000)
I0403 02:30:39.664907 28786 net.cpp:156] Memory required for data: 177996000
I0403 02:30:39.664932 28786 layer_factory.hpp:77] Creating layer relu1
I0403 02:30:39.664952 28786 net.cpp:91] Creating Layer relu1
I0403 02:30:39.664968 28786 net.cpp:425] relu1 <- conv1
I0403 02:30:39.664986 28786 net.cpp:386] relu1 -> conv1 (in-place)
I0403 02:30:39.665005 28786 net.cpp:141] Setting up relu1
I0403 02:30:39.665024 28786 net.cpp:148] Top shape: 100 96 55 55 (29040000)
I0403 02:30:39.665036 28786 net.cpp:156] Memory required for data: 294156000
I0403 02:30:39.665051 28786 layer_factory.hpp:77] Creating layer norm1
I0403 02:30:39.665072 28786 net.cpp:91] Creating Layer norm1
I0403 02:30:39.665088 28786 net.cpp:425] norm1 <- conv1
I0403 02:30:39.665107 28786 net.cpp:399] norm1 -> norm1
I0403 02:30:39.665155 28786 net.cpp:141] Setting up norm1
I0403 02:30:39.665176 28786 net.cpp:148] Top shape: 100 96 55 55 (29040000)
I0403 02:30:39.665191 28786 net.cpp:156] Memory required for data: 410316000
I0403 02:30:39.665205 28786 layer_factory.hpp:77] Creating layer pool1
I0403 02:30:39.665225 28786 net.cpp:91] Creating Layer pool1
I0403 02:30:39.665241 28786 net.cpp:425] pool1 <- norm1
I0403 02:30:39.665259 28786 net.cpp:399] pool1 -> pool1
I0403 02:30:39.665310 28786 net.cpp:141] Setting up pool1
I0403 02:30:39.665333 28786 net.cpp:148] Top shape: 100 96 27 27 (6998400)
I0403 02:30:39.665346 28786 net.cpp:156] Memory required for data: 438309600
I0403 02:30:39.665387 28786 layer_factory.hpp:77] Creating layer conv2
I0403 02:30:39.665410 28786 net.cpp:91] Creating Layer conv2
I0403 02:30:39.665426 28786 net.cpp:425] conv2 <- pool1
I0403 02:30:39.665446 28786 net.cpp:399] conv2 -> conv2
I0403 02:30:39.677989 28786 net.cpp:141] Setting up conv2
I0403 02:30:39.678022 28786 net.cpp:148] Top shape: 100 256 27 27 (18662400)
I0403 02:30:39.678038 28786 net.cpp:156] Memory required for data: 512959200
I0403 02:30:39.678059 28786 layer_factory.hpp:77] Creating layer relu2
I0403 02:30:39.678078 28786 net.cpp:91] Creating Layer relu2
I0403 02:30:39.678094 28786 net.cpp:425] relu2 <- conv2
I0403 02:30:39.678112 28786 net.cpp:386] relu2 -> conv2 (in-place)
I0403 02:30:39.678131 28786 net.cpp:141] Setting up relu2
I0403 02:30:39.678148 28786 net.cpp:148] Top shape: 100 256 27 27 (18662400)
I0403 02:30:39.678161 28786 net.cpp:156] Memory required for data: 587608800
I0403 02:30:39.678175 28786 layer_factory.hpp:77] Creating layer norm2
I0403 02:30:39.678195 28786 net.cpp:91] Creating Layer norm2
I0403 02:30:39.678210 28786 net.cpp:425] norm2 <- conv2
I0403 02:30:39.678228 28786 net.cpp:399] norm2 -> norm2
I0403 02:30:39.678277 28786 net.cpp:141] Setting up norm2
I0403 02:30:39.678300 28786 net.cpp:148] Top shape: 100 256 27 27 (18662400)
I0403 02:30:39.678314 28786 net.cpp:156] Memory required for data: 662258400
I0403 02:30:39.678329 28786 layer_factory.hpp:77] Creating layer pool2
I0403 02:30:39.678349 28786 net.cpp:91] Creating Layer pool2
I0403 02:30:39.678364 28786 net.cpp:425] pool2 <- norm2
I0403 02:30:39.678380 28786 net.cpp:399] pool2 -> pool2
I0403 02:30:39.678426 28786 net.cpp:141] Setting up pool2
I0403 02:30:39.678448 28786 net.cpp:148] Top shape: 100 256 13 13 (4326400)
I0403 02:30:39.678463 28786 net.cpp:156] Memory required for data: 679564000
I0403 02:30:39.678486 28786 layer_factory.hpp:77] Creating layer conv3
I0403 02:30:39.678521 28786 net.cpp:91] Creating Layer conv3
I0403 02:30:39.678562 28786 net.cpp:425] conv3 <- pool2
I0403 02:30:39.678588 28786 net.cpp:399] conv3 -> conv3
I0403 02:30:39.715375 28786 net.cpp:141] Setting up conv3
I0403 02:30:39.740193 28786 net.cpp:148] Top shape: 100 384 13 13 (6489600)
I0403 02:30:39.740218 28786 net.cpp:156] Memory required for data: 705522400
I0403 02:30:39.740247 28786 layer_factory.hpp:77] Creating layer relu3
I0403 02:30:39.740272 28786 net.cpp:91] Creating Layer relu3
I0403 02:30:39.740288 28786 net.cpp:425] relu3 <- conv3
I0403 02:30:39.740309 28786 net.cpp:386] relu3 -> conv3 (in-place)
I0403 02:30:39.740331 28786 net.cpp:141] Setting up relu3
I0403 02:30:39.740355 28786 net.cpp:148] Top shape: 100 384 13 13 (6489600)
I0403 02:30:39.740373 28786 net.cpp:156] Memory required for data: 731480800
I0403 02:30:39.740388 28786 layer_factory.hpp:77] Creating layer conv4
I0403 02:30:39.740494 28786 net.cpp:91] Creating Layer conv4
I0403 02:30:39.740535 28786 net.cpp:425] conv4 <- conv3
I0403 02:30:39.740558 28786 net.cpp:399] conv4 -> conv4
I0403 02:30:39.768527 28786 net.cpp:141] Setting up conv4
I0403 02:30:39.768568 28786 net.cpp:148] Top shape: 100 384 13 13 (6489600)
I0403 02:30:39.768584 28786 net.cpp:156] Memory required for data: 757439200
I0403 02:30:39.768606 28786 layer_factory.hpp:77] Creating layer relu4
I0403 02:30:39.768628 28786 net.cpp:91] Creating Layer relu4
I0403 02:30:39.768646 28786 net.cpp:425] relu4 <- conv4
I0403 02:30:39.768666 28786 net.cpp:386] relu4 -> conv4 (in-place)
I0403 02:30:39.768687 28786 net.cpp:141] Setting up relu4
I0403 02:30:39.768707 28786 net.cpp:148] Top shape: 100 384 13 13 (6489600)
I0403 02:30:39.768721 28786 net.cpp:156] Memory required for data: 783397600
I0403 02:30:39.768736 28786 layer_factory.hpp:77] Creating layer conv5
I0403 02:30:39.768759 28786 net.cpp:91] Creating Layer conv5
I0403 02:30:39.768775 28786 net.cpp:425] conv5 <- conv4
I0403 02:30:39.768795 28786 net.cpp:399] conv5 -> conv5
I0403 02:30:39.787760 28786 net.cpp:141] Setting up conv5
I0403 02:30:39.787803 28786 net.cpp:148] Top shape: 100 256 13 13 (4326400)
I0403 02:30:39.787844 28786 net.cpp:156] Memory required for data: 800703200
I0403 02:30:39.787873 28786 layer_factory.hpp:77] Creating layer relu5
I0403 02:30:39.787894 28786 net.cpp:91] Creating Layer relu5
I0403 02:30:39.787911 28786 net.cpp:425] relu5 <- conv5
I0403 02:30:39.787930 28786 net.cpp:386] relu5 -> conv5 (in-place)
I0403 02:30:39.787950 28786 net.cpp:141] Setting up relu5
I0403 02:30:39.788044 28786 net.cpp:148] Top shape: 100 256 13 13 (4326400)
I0403 02:30:39.788060 28786 net.cpp:156] Memory required for data: 818008800
I0403 02:30:39.788123 28786 layer_factory.hpp:77] Creating layer pool5
I0403 02:30:39.788208 28786 net.cpp:91] Creating Layer pool5
I0403 02:30:39.788269 28786 net.cpp:425] pool5 <- conv5
I0403 02:30:39.788302 28786 net.cpp:399] pool5 -> pool5
I0403 02:30:39.788372 28786 net.cpp:141] Setting up pool5
I0403 02:30:39.788400 28786 net.cpp:148] Top shape: 100 256 6 6 (921600)
I0403 02:30:39.788415 28786 net.cpp:156] Memory required for data: 821695200
I0403 02:30:39.788430 28786 layer_factory.hpp:77] Creating layer fc6
I0403 02:30:39.788452 28786 net.cpp:91] Creating Layer fc6
I0403 02:30:39.788468 28786 net.cpp:425] fc6 <- pool5
I0403 02:30:39.788491 28786 net.cpp:399] fc6 -> fc6
I0403 02:30:41.169184 28786 net.cpp:141] Setting up fc6
I0403 02:30:41.169270 28786 net.cpp:148] Top shape: 100 4096 (409600)
I0403 02:30:41.169286 28786 net.cpp:156] Memory required for data: 823333600
I0403 02:30:41.169309 28786 layer_factory.hpp:77] Creating layer relu6
I0403 02:30:41.169333 28786 net.cpp:91] Creating Layer relu6
I0403 02:30:41.169351 28786 net.cpp:425] relu6 <- fc6
I0403 02:30:41.169371 28786 net.cpp:386] relu6 -> fc6 (in-place)
I0403 02:30:41.169394 28786 net.cpp:141] Setting up relu6
I0403 02:30:41.169409 28786 net.cpp:148] Top shape: 100 4096 (409600)
I0403 02:30:41.169422 28786 net.cpp:156] Memory required for data: 824972000
I0403 02:30:41.169437 28786 layer_factory.hpp:77] Creating layer drop6
I0403 02:30:41.169458 28786 net.cpp:91] Creating Layer drop6
I0403 02:30:41.169474 28786 net.cpp:425] drop6 <- fc6
I0403 02:30:41.169491 28786 net.cpp:386] drop6 -> fc6 (in-place)
I0403 02:30:41.169533 28786 net.cpp:141] Setting up drop6
I0403 02:30:41.169553 28786 net.cpp:148] Top shape: 100 4096 (409600)
I0403 02:30:41.169566 28786 net.cpp:156] Memory required for data: 826610400
I0403 02:30:41.169580 28786 layer_factory.hpp:77] Creating layer fc7
I0403 02:30:41.169601 28786 net.cpp:91] Creating Layer fc7
I0403 02:30:41.169615 28786 net.cpp:425] fc7 <- fc6
I0403 02:30:41.169636 28786 net.cpp:399] fc7 -> fc7
I0403 02:30:41.772807 28786 net.cpp:141] Setting up fc7
I0403 02:30:41.772892 28786 net.cpp:148] Top shape: 100 4096 (409600)
I0403 02:30:41.772910 28786 net.cpp:156] Memory required for data: 828248800
I0403 02:30:41.772933 28786 layer_factory.hpp:77] Creating layer relu7
I0403 02:30:41.772958 28786 net.cpp:91] Creating Layer relu7
I0403 02:30:41.772975 28786 net.cpp:425] relu7 <- fc7
I0403 02:30:41.772999 28786 net.cpp:386] relu7 -> fc7 (in-place)
I0403 02:30:41.773023 28786 net.cpp:141] Setting up relu7
I0403 02:30:41.773042 28786 net.cpp:148] Top shape: 100 4096 (409600)
I0403 02:30:41.773056 28786 net.cpp:156] Memory required for data: 829887200
I0403 02:30:41.773072 28786 layer_factory.hpp:77] Creating layer drop7
I0403 02:30:41.773090 28786 net.cpp:91] Creating Layer drop7
I0403 02:30:41.773104 28786 net.cpp:425] drop7 <- fc7
I0403 02:30:41.773120 28786 net.cpp:386] drop7 -> fc7 (in-place)
I0403 02:30:41.773161 28786 net.cpp:141] Setting up drop7
I0403 02:30:41.773182 28786 net.cpp:148] Top shape: 100 4096 (409600)
I0403 02:30:41.773196 28786 net.cpp:156] Memory required for data: 831525600
I0403 02:30:41.773211 28786 layer_factory.hpp:77] Creating layer fc8_plantvillage
I0403 02:30:41.773233 28786 net.cpp:91] Creating Layer fc8_plantvillage
I0403 02:30:41.773248 28786 net.cpp:425] fc8_plantvillage <- fc7
I0403 02:30:41.773267 28786 net.cpp:399] fc8_plantvillage -> fc8_plantvillage
I0403 02:30:41.779263 28786 net.cpp:141] Setting up fc8_plantvillage
I0403 02:30:41.779290 28786 net.cpp:148] Top shape: 100 38 (3800)
I0403 02:30:41.779341 28786 net.cpp:156] Memory required for data: 831540800
I0403 02:30:41.779361 28786 layer_factory.hpp:77] Creating layer fc8_plantvillage_fc8_plantvillage_0_split
I0403 02:30:41.779379 28786 net.cpp:91] Creating Layer fc8_plantvillage_fc8_plantvillage_0_split
I0403 02:30:41.779395 28786 net.cpp:425] fc8_plantvillage_fc8_plantvillage_0_split <- fc8_plantvillage
I0403 02:30:41.779413 28786 net.cpp:399] fc8_plantvillage_fc8_plantvillage_0_split -> fc8_plantvillage_fc8_plantvillage_0_split_0
I0403 02:30:41.779435 28786 net.cpp:399] fc8_plantvillage_fc8_plantvillage_0_split -> fc8_plantvillage_fc8_plantvillage_0_split_1
I0403 02:30:41.779484 28786 net.cpp:141] Setting up fc8_plantvillage_fc8_plantvillage_0_split
I0403 02:30:41.779503 28786 net.cpp:148] Top shape: 100 38 (3800)
I0403 02:30:41.779525 28786 net.cpp:148] Top shape: 100 38 (3800)
I0403 02:30:41.779538 28786 net.cpp:156] Memory required for data: 831571200
I0403 02:30:41.779552 28786 layer_factory.hpp:77] Creating layer loss
I0403 02:30:41.779572 28786 net.cpp:91] Creating Layer loss
I0403 02:30:41.779587 28786 net.cpp:425] loss <- fc8_plantvillage_fc8_plantvillage_0_split_0
I0403 02:30:41.779603 28786 net.cpp:425] loss <- label_data_1_split_0
I0403 02:30:41.779619 28786 net.cpp:399] loss -> loss
…
