…
I0403 04:43:26.465432 26217 net.cpp:313] The NetState phase (0) differed from the phase (1) specified by a rule in layer loss3/top-5
I0403 04:43:26.470290 26217 net.cpp:49] Initializing net from parameters: 
state {
  phase: TRAIN
}
layer {
  name: "data"
  type: "Data"
  top: "data"
  top: "label"
  include {
    phase: TRAIN
  }
  transform_param {
    mirror: true
    crop_size: 224
    mean_file: "/home/mohanty/data/final_dataset/lmdb/color-50-50/mean.binaryproto"
  }
  data_param {
    source: "/home/mohanty/data/final_dataset/lmdb/color-50-50/train_db"
    batch_size: 24
    backend: LMDB
  }
}
layer {
  name: "conv1/7x7_s2"
  type: "Convolution"
  bottom: "data"
  top: "conv1/7x7_s2"
  param {
    lr_mult: 1
    decay_mult: 1
  }
  param {
    lr_mult: 2
    decay_mult: 0
  }
  convolution_param {
    num_output: 64
    pad: 3
    kernel_size: 7
    stride: 2
    weight_filler {
      type: "xavier"
      std: 0.1
    }
    bias_filler {
      type: "constant"
      value: 0.2
    }
  }
}
layer {
  name: "conv1/relu_7x7"
  type: "ReLU"
  bottom: "conv1/7x7_s2"
  top: "conv1/7x7_s2"
}
layer {
  name: "pool1/3x3_s2"
  type: "Pooling"
  bottom: "conv1/7x7_s2"
  top: "pool1/3x3_s2"
  pooling_param {
    pool: MAX
    kernel_size: 3
    stride: 2
  }
}
layer {
  name: "pool1/norm1"
  type: "LRN"
  bottom: "pool1/3x3_s2"
  top: "pool1/norm1"
  lrn_param {
    local_size: 5
    alpha: 0.0001
    beta: 0.75
  }
}
layer {
  name: "conv2/3x3_reduce"
  type: "Convolution"
  bottom: "pool1/norm1"
  top: "conv2/3x3_reduce"
  param {
    lr_mult: 1
    decay_mult: 1
  }
  param {
    lr_mult: 2
    decay_mult: 0
  }
  convolution_param {
    num_output: 64
    kernel_size: 1
    weight_filler {
      type: "xavier"
      std: 0.1
    }
    bias_filler {
      type: "constant"
      value: 0.2
    }
  }
}
layer {
  name: "conv2/relu_3x3_reduce"
  type: "ReLU"
  bottom: "conv2/3x3_reduce"
  top: "conv2/3x3_reduce"
}
layer {
  name: "conv2/3x3"
  type: "Convolution"
  bottom: "conv2/3x3_reduce"
  top: "conv2/3x3"
  param {
    lr_mult: 1
    decay_mult: 1
  }
  param {
    lr_mult: 2
    decay_mult: 0
  }
  convolution_param {
    num_output: 192
    pad: 1
    kernel_size: 3
    weight_filler {
      type: "xavier"
      std: 0.03
    }
    bias_filler {
      type: "constant"
      value: 0.2
    }
  }
}
layer {
  name: "conv2/relu_3x3"
  type: "ReLU"
  bottom: "conv2/3x3"
  top: "conv2/3x3"
}
layer {
  name: "conv2/norm2"
  type: "LRN"
  bottom: "conv2/3x3"
  top: "conv2/norm2"
  lrn_param {
    local_size: 5
    alpha: 0.0001
    beta: 0.75
  }
}
layer {
  name: "pool2/3x3_s2"
  type: "Pooling"
  bottom: "conv2/norm2"
  top: "pool2/3x3_s2"
  pooling_param {
    pool: MAX
    kernel_size: 3
    stride: 2
  }
}
layer {
  name: "inception_3a/1x1"
  type: "Convolution"
  bottom: "pool2/3x3_s2"
  top: "inception_3a/1x1"
  param {
    lr_mult: 1
    decay_mult: 1
  }
  param {
    lr_mult: 2
    decay_mult: 0
  }
  convolution_param {
    num_output: 64
    kernel_size: 1
    weight_filler {
      type: "xavier"
      std: 0.03
    }
    bias_filler {
      type: "constant"
      value: 0.2
    }
  }
}
layer {
  name: "inception_3a/relu_1x1"
  type: "ReLU"
  bottom: "inception_3a/1x1"
  top: "inception_3a/1x1"
}
layer {
  name: "inception_3a/3x3_reduce"
  type: "Convolution"
  bottom: "pool2/3x3_s2"
  top: "inception_3a/3x3_reduce"
  param {
    lr_mult: 1
    decay_mult: 1
  }
  param {
    lr_mult: 2
    decay_mult: 0
  }
  convolution_param {
    num_output: 96
    kernel_size: 1
    weight_filler {
      type: "xavier"
      std: 0.09
    }
    bias_filler {
      type: "constant"
      value: 0.2
    }
  }
}
layer {
  name: "inception_3a/relu_3x3_reduce"
  type: "ReLU"
  bottom: "inception_3a/3x3_reduce"
  top: "inception_3a/3x3_reduce"
}
layer {
  name: "inception_3a/3x3"
  type: "Convolution"
  bottom: "inception_3a/3x3_reduce"
  top: "inception_3a/3x3"
  param {
    lr_mult: 1
    decay_mult: 1
  }
  param {
    lr_mult: 2
    decay_mult: 0
  }
  convolution_param {
    num_output: 128
    pad: 1
    kernel_size: 3
    weight_filler {
      type: "xavier"
      std: 0.03
    }
    bias_filler {
      type: "constant"
      value: 0.2
    }
  }
}
layer {
  name: "inception_3a/relu_3x3"
  type: "ReLU"
  bottom: "inception_3a/3x3"
  top: "inception_3a/3x3"
}
layer {
  name: "inception_3a/5x5_reduce"
  type: "Convolution"
  bottom: "pool2/3x3_s2"
  top: "inception_3a/5x5_reduce"
  param {
    lr_mult: 1
    decay_mult: 1
  }
  param {
    lr_mult: 2
    decay_mult: 0
  }
  convolution_param {
    num_output: 16
    kernel_size: 1
    weight_filler {
      type: "xavier"
      std: 0.2
    }
    bias_filler {
      type: "constant"
      value: 0.2
    }
  }
}
layer {
  name: "inception_3a/relu_5x5_reduce"
  type: "ReLU"
  bottom: "inception_3a/5x5_reduce"
  top: "inception_3a/5x5_reduce"
}
layer {
  name: "inception_3a/5x5"
  type: "Convolution"
  bottom: "inception_3a/5x5_reduce"
  top: "inception_3a/5x5"
  param {
    lr_mult: 1
    decay_mult: 1
  }
  param {
    lr_mult: 2
    decay_mult: 0
  }
  convolution_param {
    num_output: 32
    pad: 2
    kernel_size: 5
    weight_filler {
      type: "xavier"
      std: 0.03
    }
    bias_filler {
      type: "constant"
      value: 0.2
    }
  }
}
layer {
  name: "inception_3a/relu_5x5"
  type: "ReLU"
  bottom: "inception_3a/5x5"
  top: "inception_3a/5x5"
}
layer {
  name: "inception_3a/pool"
  type: "Pooling"
  bottom: "pool2/3x3_s2"
  top: "inception_3a/pool"
  pooling_param {
    pool: MAX
    kernel_size: 3
    stride: 1
    pad: 1
  }
}
layer {
  name: "inception_3a/pool_proj"
  type: "Convolution"
  bottom: "inception_3a/pool"
  top: "inception_3a/pool_proj"
  param {
    lr_mult: 1
    decay_mult: 1
  }
  param {
    lr_mult: 2
    decay_mult: 0
  }
  convolution_param {
    num_output: 32
    kernel_size: 1
    weight_filler {
      type: "xavier"
      std: 0.1
    }
    bias_filler {
      type: "constant"
      value: 0.2
    }
  }
}
layer {
  name: "inception_3a/relu_pool_proj"
  type: "ReLU"
  bottom: "inception_3a/pool_proj"
  top: "inception_3a/pool_proj"
}
layer {
  name: "inception_3a/output"
  type: "Concat"
  bottom: "inception_3a/1x1"
  bottom: "inception_3a/3x3"
  bottom: "inception_3a/5x5"
  bottom: "inception_3a/pool_proj"
  top: "inception_3a/output"
}
layer {
  name: "inception_3b/1x1"
  type: "Convolution"
  bottom: "inception_3a/output"
  top: "inception_3b/1x1"
  param {
    lr_mult: 1
    decay_mult: 1
  }
  param {
    lr_mult: 2
    decay_mult: 0
  }
  convolution_param {
    num_output: 128
    kernel_size: 1
    weight_filler {
      type: "xavier"
      std: 0.03
    }
    bias_filler {
      type: "constant"
      value: 0.2
    }
  }
}
layer {
  name: "inception_3b/relu_1x1"
  type: "ReLU"
  bottom: "inception_3b/1x1"
  top: "inception_3b/1x1"
}
layer {
  name: "inception_3b/3x3_reduce"
  type: "Convolution"
  bottom: "inception_3a/output"
  top: "inception_3b/3x3_reduce"
  param {
    lr_mult: 1
    decay_mult: 1
  }
  param {
    lr_mult: 2
    decay_mult: 0
  }
  convolution_param {
    num_output: 128
    kernel_size: 1
    weight_filler {
      type: "xavier"
      std: 0.09
    }
    bias_filler {
      type: "constant"
      value: 0.2
    }
  }
}
layer {
  name: "inception_3b/relu_3x3_reduce"
  type: "ReLU"
  bottom: "inception_3b/3x3_reduce"
  top: "inception_3b/3x3_reduce"
}
layer {
  name: "inception_3b/3x3"
  type: "Convolution"
  bottom: "inception_3b/3x3_reduce"
  top: "inception_3b/3x3"
  param {
    lr_mult: 1
    decay_mult: 1
  }
  param {
    lr_mult: 2
    decay_mult: 0
  }
  convolution_param {
    num_output: 192
    pad: 1
    kernel_size: 3
    weight_filler {
      type: "xavier"
      std: 0.03
    }
    bias_filler {
      type: "constant"
      value: 0.2
    }
  }
}
layer {
  name: "inception_3b/relu_3x3"
  type: "ReLU"
  bottom: "inception_3b/3x3"
  top: "inception_3b/3x3"
}
layer {
  name: "inception_3b/5x5_reduce"
  type: "Convolution"
  bottom: "inception_3a/output"
  top: "inception_3b/5x5_reduce"
  param {
    lr_mult: 1
    decay_mult: 1
  }
  param {
    lr_mult: 2
    decay_mult: 0
  }
  convolution_param {
    num_output: 32
    kernel_size: 1
    weight_filler {
      type: "xavier"
      std: 0.2
    }
    bias_filler {
      type: "constant"
      value: 0.2
    }
  }
}
layer {
  name: "inception_3b/relu_5x5_reduce"
  type: "ReLU"
  bottom: "inception_3b/5x5_reduce"
  top: "inception_3b/5x5_reduce"
}
layer {
  name: "inception_3b/5x5"
  type: "Convolution"
  bottom: "inception_3b/5x5_reduce"
  top: "inception_3b/5x5"
  param {
    lr_mult: 1
    decay_mult: 1
  }
  param {
    lr_mult: 2
    decay_mult: 0
  }
  convolution_param {
    num_output: 96
    pad: 2
    kernel_size: 5
    weight_filler {
      type: "xavier"
      std: 0.03
    }
    bias_filler {
      type: "constant"
      value: 0.2
    }
  }
}
layer {
  name: "inception_3b/relu_5x5"
  type: "ReLU"
  bottom: "inception_3b/5x5"
  top: "inception_3b/5x5"
}
layer {
  name: "inception_3b/pool"
  type: "Pooling"
  bottom: "inception_3a/output"
  top: "inception_3b/pool"
  pooling_param {
    pool: MAX
    kernel_size: 3
    stride: 1
    pad: 1
  }
}
layer {
  name: "inception_3b/pool_proj"
  type: "Convolution"
  bottom: "inception_3b/pool"
  top: "inception_3b/pool_proj"
  param {
    lr_mult: 1
    decay_mult: 1
  }
  param {
    lr_mult: 2
    decay_mult: 0
  }
  convolution_param {
    num_output: 64
    kernel_size: 1
    weight_filler {
      type: "xavier"
      std: 0.1
    }
    bias_filler {
      type: "constant"
      value: 0.2
    }
  }
}
layer {
  name: "inception_3b/relu_pool_proj"
  type: "ReLU"
  bottom: "inception_3b/pool_proj"
  top: "inception_3b/pool_proj"
}
layer {
  name: "inception_3b/output"
  type: "Concat"
  bottom: "inception_3b/1x1"
  bottom: "inception_3b/3x3"
  bottom: "inception_3b/5x5"
  bottom: "inception_3b/pool_proj"
  top: "inception_3b/output"
}
layer {
  name: "pool3/3x3_s2"
  type: "Pooling"
  bottom: "inception_3b/output"
  top: "pool3/3x3_s2"
  pooling_param {
    pool: MAX
    kernel_size: 3
    stride: 2
  }
}
layer {
  name: "inception_4a/1x1"
  type: "Convolution"
  bottom: "pool3/3x3_s2"
  top: "inception_4a/1x1"
  param {
    lr_mult: 1
    decay_mult: 1
  }
  param {
    lr_mult: 2
    decay_mult: 0
  }
  convolution_param {
    num_output: 192
    kernel_size: 1
    weight_filler {
      type: "xavier"
      std: 0.03
    }
    bias_filler {
      type: "constant"
      value: 0.2
    }
  }
}
layer {
  name: "inception_4a/relu_1x1"
  type: "ReLU"
  bottom: "inception_4a/1x1"
  top: "inception_4a/1x1"
}
layer {
  name: "inception_4a/3x3_reduce"
  type: "Convolution"
  bottom: "pool3/3x3_s2"
  top: "inception_4a/3x3_reduce"
  param {
    lr_mult: 1
    decay_mult: 1
  }
  param {
    lr_mult: 2
    decay_mult: 0
  }
  convolution_param {
    num_output: 96
    kernel_size: 1
    weight_filler {
      type: "xavier"
      std: 0.09
    }
    bias_filler {
      type: "constant"
      value: 0.2
    }
  }
}
layer {
  name: "inception_4a/relu_3x3_reduce"
  type: "ReLU"
  bottom: "inception_4a/3x3_reduce"
  top: "inception_4a/3x3_reduce"
}
layer {
  name: "inception_4a/3x3"
  type: "Convolution"
  bottom: "inception_4a/3x3_reduce"
  top: "inception_4a/3x3"
  param {
    lr_mult: 1
    decay_mult: 1
  }
  param {
    lr_mult: 2
    decay_mult: 0
  }
  convolution_param {
    num_output: 208
    pad: 1
    kernel_size: 3
    weight_filler {
      type: "xavier"
      std: 0.03
    }
    bias_filler {
      type: "constant"
      value: 0.2
    }
  }
}
layer {
  name: "inception_4a/relu_3x3"
  type: "ReLU"
  bottom: "inception_4a/3x3"
  top: "inception_4a/3x3"
}
layer {
  name: "inception_4a/5x5_reduce"
  type: "Convolution"
  bottom: "pool3/3x3_s2"
  top: "inception_4a/5x5_reduce"
  param {
    lr_mult: 1
    decay_mult: 1
  }
  param {
    lr_mult: 2
    decay_mult: 0
  }
  convolution_param {
    num_output: 16
    kernel_size: 1
    weight_filler {
      type: "xavier"
      std: 0.2
    }
    bias_filler {
      type: "constant"
      value: 0.2
    }
  }
}
layer {
  name: "inception_4a/relu_5x5_reduce"
  type: "ReLU"
  bottom: "inception_4a/5x5_reduce"
  top: "inception_4a/5x5_reduce"
}
layer {
  name: "inception_4a/5x5"
  type: "Convolution"
  bottom: "inception_4a/5x5_reduce"
  top: "inception_4a/5x5"
  param {
    lr_mult: 1
    decay_mult: 1
  }
  param {
    lr_mult: 2
    decay_mult: 0
  }
  convolution_param {
    num_output: 48
    pad: 2
    kernel_size: 5
    weight_filler {
      type: "xavier"
      std: 0.03
    }
    bias_filler {
      type: "constant"
      value: 0.2
    }
  }
}
layer {
  name: "inception_4a/relu_5x5"
  type: "ReLU"
  bottom: "inception_4a/5x5"
  top: "inception_4a/5x5"
}
layer {
  name: "inception_4a/pool"
  type: "Pooling"
  bottom: "pool3/3x3_s2"
  top: "inception_4a/pool"
  pooling_param {
    pool: MAX
    kernel_size: 3
    stride: 1
    pad: 1
  }
}
layer {
  name: "inception_4a/pool_proj"
  type: "Convolution"
  bottom: "inception_4a/pool"
  top: "inception_4a/pool_proj"
  param {
    lr_mult: 1
    decay_mult: 1
  }
  param {
    lr_mult: 2
    decay_mult: 0
  }
  convolution_param {
    num_output: 64
    kernel_size: 1
    weight_filler {
      type: "xavier"
      std: 0.1
    }
    bias_filler {
      type: "constant"
      value: 0.2
    }
  }
}
layer {
  name: "inception_4a/relu_pool_proj"
  type: "ReLU"
  bottom: "inception_4a/pool_proj"
  top: "inception_4a/pool_proj"
}
layer {
  name: "inception_4a/output"
  type: "Concat"
  bottom: "inception_4a/1x1"
  bottom: "inception_4a/3x3"
  bottom: "inception_4a/5x5"
  bottom: "inception_4a/pool_proj"
  top: "inception_4a/output"
}
layer {
  name: "loss1/ave_pool"
  type: "Pooling"
  bottom: "inception_4a/output"
  top: "loss1/ave_pool"
  pooling_param {
    pool: AVE
    kernel_size: 5
    stride: 3
  }
}
layer {
  name: "loss1/conv"
  type: "Convolution"
  bottom: "loss1/ave_pool"
  top: "loss1/conv"
  param {
    lr_mult: 1
    decay_mult: 1
  }
  param {
    lr_mult: 2
    decay_mult: 0
  }
  convolution_param {
    num_output: 128
    kernel_size: 1
    weight_filler {
      type: "xavier"
      std: 0.08
    }
    bias_filler {
      type: "constant"
      value: 0.2
    }
  }
}
layer {
  name: "loss1/relu_conv"
  type: "ReLU"
  bottom: "loss1/conv"
  top: "loss1/conv"
}
layer {
  name: "loss1/fc"
  type: "InnerProduct"
  bottom: "loss1/conv"
  top: "loss1/fc"
  param {
    lr_mult: 1
    decay_mult: 1
  }
  param {
    lr_mult: 2
    decay_mult: 0
  }
  inner_product_param {
    num_output: 1024
    weight_filler {
      type: "xavier"
      std: 0.02
    }
    bias_filler {
      type: "constant"
      value: 0.2
    }
  }
}
layer {
  name: "loss1/relu_fc"
  type: "ReLU"
  bottom: "loss1/fc"
  top: "loss1/fc"
}
layer {
  name: "loss1/drop_fc"
  type: "Dropout"
  bottom: "loss1/fc"
  top: "loss1/fc"
  dropout_param {
    dropout_ratio: 0.7
  }
}
layer {
  name: "loss1/classifier_plantvillage"
  type: "InnerProduct"
  bottom: "loss1/fc"
  top: "loss1/classifier_plantvillage"
  param {
    lr_mult: 1
    decay_mult: 1
  }
  param {
    lr_mult: 2
    decay_mult: 0
  }
  inner_product_param {
    num_output: 38
    weight_filler {
      type: "xavier"
      std: 0.0009765625
    }
    bias_filler {
      type: "constant"
      value: 0
    }
  }
}
layer {
  name: "inception_4b/1x1"
  type: "Convolution"
  bottom: "inception_4a/output"
  top: "inception_4b/1x1"
  param {
    lr_mult: 1
    decay_mult: 1
  }
  param {
    lr_mult: 2
    decay_mult: 0
  }
  convolution_param {
    num_output: 160
    kernel_size: 1
    weight_filler {
      type: "xavier"
      std: 0.03
    }
    bias_filler {
      type: "constant"
      value: 0.2
    }
  }
}
layer {
  name: "inception_4b/relu_1x1"
  type: "ReLU"
  bottom: "inception_4b/1x1"
  top: "inception_4b/1x1"
}
layer {
  name: "inception_4b/3x3_reduce"
  type: "Convolution"
  bottom: "inception_4a/output"
  top: "inception_4b/3x3_reduce"
  param {
    lr_mult: 1
    decay_mult: 1
  }
  param {
    lr_mult: 2
    decay_mult: 0
  }
  convolution_param {
    num_output: 112
    kernel_size: 1
    weight_filler {
      type: "xavier"
      std: 0.09
    }
    bias_filler {
      type: "constant"
      value: 0.2
    }
  }
}
layer {
  name: "inception_4b/relu_3x3_reduce"
  type: "ReLU"
  bottom: "inception_4b/3x3_reduce"
  top: "inception_4b/3x3_reduce"
}
layer {
  name: "inception_4b/3x3"
  type: "Convolution"
  bottom: "inception_4b/3x3_reduce"
  top: "inception_4b/3x3"
  param {
    lr_mult: 1
    decay_mult: 1
  }
  param {
    lr_mult: 2
    decay_mult: 0
  }
  convolution_param {
    num_output: 224
    pad: 1
    kernel_size: 3
    weight_filler {
      type: "xavier"
      std: 0.03
    }
    bias_filler {
      type: "constant"
      value: 0.2
    }
  }
}
layer {
  name: "inception_4b/relu_3x3"
  type: "ReLU"
  bottom: "inception_4b/3x3"
  top: "inception_4b/3x3"
}
layer {
  name: "inception_4b/5x5_reduce"
  type: "Convolution"
  bottom: "inception_4a/output"
  top: "inception_4b/5x5_reduce"
  param {
    lr_mult: 1
    decay_mult: 1
  }
  param {
    lr_mult: 2
    decay_mult: 0
  }
  convolution_param {
    num_output: 24
    kernel_size: 1
    weight_filler {
      type: "xavier"
      std: 0.2
    }
    bias_filler {
      type: "constant"
      value: 0.2
    }
  }
}
layer {
  name: "inception_4b/relu_5x5_reduce"
  type: "ReLU"
  bottom: "inception_4b/5x5_reduce"
  top: "inception_4b/5x5_reduce"
}
layer {
  name: "inception_4b/5x5"
  type: "Convolution"
  bottom: "inception_4b/5x5_reduce"
  top: "inception_4b/5x5"
  param {
    lr_mult: 1
    decay_mult: 1
  }
  param {
    lr_mult: 2
    decay_mult: 0
  }
  convolution_param {
    num_output: 64
    pad: 2
    kernel_size: 5
    weight_filler {
      type: "xavier"
      std: 0.03
    }
    bias_filler {
      type: "constant"
      value: 0.2
    }
  }
}
layer {
  name: "inception_4b/relu_5x5"
  type: "ReLU"
  bottom: "inception_4b/5x5"
  top: "inception_4b/5x5"
}
layer {
  name: "inception_4b/pool"
  type: "Pooling"
  bottom: "inception_4a/output"
  top: "inception_4b/pool"
  pooling_param {
    pool: MAX
    kernel_size: 3
    stride: 1
    pad: 1
  }
}
layer {
  name: "inception_4b/pool_proj"
  type: "Convolution"
  bottom: "inception_4b/pool"
  top: "inception_4b/pool_proj"
  param {
    lr_mult: 1
    decay_mult: 1
  }
  param {
    lr_mult: 2
    decay_mult: 0
  }
  convolution_param {
    num_output: 64
    kernel_size: 1
    weight_filler {
      type: "xavier"
      std: 0.1
    }
    bias_filler {
      type: "constant"
      value: 0.2
    }
  }
}
layer {
  name: "inception_4b/relu_pool_proj"
  type: "ReLU"
  bottom: "inception_4b/pool_proj"
  top: "inception_4b/pool_proj"
}
layer {
  name: "inception_4b/output"
  type: "Concat"
  bottom: "inception_4b/1x1"
  bottom: "inception_4b/3x3"
  bottom: "inception_4b/5x5"
  bottom: "inception_4b/pool_proj"
  top: "inception_4b/output"
}
layer {
  name: "inception_4c/1x1"
  type: "Convolution"
  bottom: "inception_4b/output"
  top: "inception_4c/1x1"
  param {
    lr_mult: 1
    decay_mult: 1
  }
  param {
    lr_mult: 2
    decay_mult: 0
  }
  convolution_param {
    num_output: 128
    kernel_size: 1
    weight_filler {
      type: "xavier"
      std: 0.03
    }
    bias_filler {
      type: "constant"
      value: 0.2
    }
  }
}
layer {
  name: "inception_4c/relu_1x1"
  type: "ReLU"
  bottom: "inception_4c/1x1"
  top: "inception_4c/1x1"
}
layer {
  name: "inception_4c/3x3_reduce"
  type: "Convolution"
  bottom: "inception_4b/output"
  top: "inception_4c/3x3_reduce"
  param {
    lr_mult: 1
    decay_mult: 1
  }
  param {
    lr_mult: 2
    decay_mult: 0
  }
  convolution_param {
    num_output: 128
    kernel_size: 1
    weight_filler {
      type: "xavier"
      std: 0.09
    }
    bias_filler {
      type: "constant"
      value: 0.2
    }
  }
}
layer {
  name: "inception_4c/relu_3x3_reduce"
  type: "ReLU"
  bottom: "inception_4c/3x3_reduce"
  top: "inception_4c/3x3_reduce"
}
layer {
  name: "inception_4c/3x3"
  type: "Convolution"
  bottom: "inception_4c/3x3_reduce"
  top: "inception_4c/3x3"
  param {
    lr_mult: 1
    decay_mult: 1
  }
  param {
    lr_mult: 2
    decay_mult: 0
  }
  convolution_param {
    num_output: 256
    pad: 1
    kernel_size: 3
    weight_filler {
      type: "xavier"
      std: 0.03
    }
    bias_filler {
      type: "constant"
      value: 0.2
    }
  }
}
layer {
  name: "inception_4c/relu_3x3"
  type: "ReLU"
  bottom: "inception_4c/3x3"
  top: "inception_4c/3x3"
}
layer {
  name: "inception_4c/5x5_reduce"
  type: "Convolution"
  bottom: "inception_4b/output"
  top: "inception_4c/5x5_reduce"
  param {
    lr_mult: 1
    decay_mult: 1
  }
  param {
    lr_mult: 2
    decay_mult: 0
  }
  convolution_param {
    num_output: 24
    kernel_size: 1
    weight_filler {
      type: "xavier"
      std: 0.2
    }
    bias_filler {
      type: "constant"
      value: 0.2
    }
  }
}
layer {
  name: "inception_4c/relu_5x5_reduce"
  type: "ReLU"
  bottom: "inception_4c/5x5_reduce"
  top: "inception_4c/5x5_reduce"
}
layer {
  name: "inception_4c/5x5"
  type: "Convolution"
  bottom: "inception_4c/5x5_reduce"
  top: "inception_4c/5x5"
  param {
    lr_mult: 1
    decay_mult: 1
  }
  param {
    lr_mult: 2
    decay_mult: 0
  }
  convolution_param {
    num_output: 64
    pad: 2
    kernel_size: 5
    weight_filler {
      type: "xavier"
      std: 0.03
    }
    bias_filler {
      type: "constant"
      value: 0.2
    }
  }
}
layer {
  name: "inception_4c/relu_5x5"
  type: "ReLU"
  bottom: "inception_4c/5x5"
  top: "inception_4c/5x5"
}
layer {
  name: "inception_4c/pool"
  type: "Pooling"
  bottom: "inception_4b/output"
  top: "inception_4c/pool"
  pooling_param {
    pool: MAX
    kernel_size: 3
    stride: 1
    pad: 1
  }
}
layer {
  name: "inception_4c/pool_proj"
  type: "Convolution"
  bottom: "inception_4c/pool"
  top: "inception_4c/pool_proj"
  param {
    lr_mult: 1
    decay_mult: 1
  }
  param {
    lr_mult: 2
    decay_mult: 0
  }
  convolution_param {
    num_output: 64
    kernel_size: 1
    weight_filler {
      type: "xavier"
      std: 0.1
    }
    bias_filler {
      type: "constant"
      value: 0.2
    }
  }
}
layer {
  name: "inception_4c/relu_pool_proj"
  type: "ReLU"
  bottom: "inception_4c/pool_proj"
  top: "inception_4c/pool_proj"
}
layer {
  name: "inception_4c/output"
  type: "Concat"
  bottom: "inception_4c/1x1"
  bottom: "inception_4c/3x3"
  bottom: "inception_4c/5x5"
  bottom: "inception_4c/pool_proj"
  top: "inception_4c/output"
}
layer {
  name: "inception_4d/1x1"
  type: "Convolution"
  bottom: "inception_4c/output"
  top: "inception_4d/1x1"
  param {
    lr_mult: 1
    decay_mult: 1
  }
  param {
    lr_mult: 2
    decay_mult: 0
  }
  convolution_param {
    num_output: 112
    kernel_size: 1
    weight_filler {
      type: "xavier"
      std: 0.03
    }
    bias_filler {
      type: "constant"
      value: 0.2
    }
  }
}
layer {
  name: "inception_4d/relu_1x1"
  type: "ReLU"
  bottom: "inception_4d/1x1"
  top: "inception_4d/1x1"
}
layer {
  name: "inception_4d/3x3_reduce"
  type: "Convolution"
  bottom: "inception_4c/output"
  top: "inception_4d/3x3_reduce"
  param {
    lr_mult: 1
    decay_mult: 1
  }
  param {
    lr_mult: 2
    decay_mult: 0
  }
  convolution_param {
    num_output: 144
    kernel_size: 1
    weight_filler {
      type: "xavier"
      std: 0.09
    }
    bias_filler {
      type: "constant"
      value: 0.2
    }
  }
}
layer {
  name: "inception_4d/relu_3x3_reduce"
  type: "ReLU"
  bottom: "inception_4d/3x3_reduce"
  top: "inception_4d/3x3_reduce"
}
layer {
  name: "inception_4d/3x3"
  type: "Convolution"
  bottom: "inception_4d/3x3_reduce"
  top: "inception_4d/3x3"
  param {
    lr_mult: 1
    decay_mult: 1
  }
  param {
    lr_mult: 2
    decay_mult: 0
  }
  convolution_param {
    num_output: 288
    pad: 1
    kernel_size: 3
    weight_filler {
      type: "xavier"
      std: 0.03
    }
    bias_filler {
      type: "constant"
      value: 0.2
    }
  }
}
layer {
  name: "inception_4d/relu_3x3"
  type: "ReLU"
  bottom: "inception_4d/3x3"
  top: "inception_4d/3x3"
}
layer {
  name: "inception_4d/5x5_reduce"
  type: "Convolution"
  bottom: "inception_4c/output"
  top: "inception_4d/5x5_reduce"
  param {
    lr_mult: 1
    decay_mult: 1
  }
  param {
    lr_mult: 2
    decay_mult: 0
  }
  convolution_param {
    num_output: 32
    kernel_size: 1
    weight_filler {
      type: "xavier"
      std: 0.2
    }
    bias_filler {
      type: "constant"
      value: 0.2
    }
  }
}
layer {
  name: "inception_4d/relu_5x5_reduce"
  type: "ReLU"
  bottom: "inception_4d/5x5_reduce"
  top: "inception_4d/5x5_reduce"
}
layer {
  name: "inception_4d/5x5"
  type: "Convolution"
  bottom: "inception_4d/5x5_reduce"
  top: "inception_4d/5x5"
  param {
    lr_mult: 1
    decay_mult: 1
  }
  param {
    lr_mult: 2
    decay_mult: 0
  }
  convolution_param {
    num_output: 64
    pad: 2
    kernel_size: 5
    weight_filler {
      type: "xavier"
      std: 0.03
    }
    bias_filler {
      type: "constant"
      value: 0.2
    }
  }
}
layer {
  name: "inception_4d/relu_5x5"
  type: "ReLU"
  bottom: "inception_4d/5x5"
  top: "inception_4d/5x5"
}
layer {
  name: "inception_4d/pool"
  type: "Pooling"
  bottom: "inception_4c/output"
  top: "inception_4d/pool"
  pooling_param {
    pool: MAX
    kernel_size: 3
    stride: 1
    pad: 1
  }
}
layer {
  name: "inception_4d/pool_proj"
  type: "Convolution"
  bottom: "inception_4d/pool"
  top: "inception_4d/pool_proj"
  param {
    lr_mult: 1
    decay_mult: 1
  }
  param {
    lr_mult: 2
    decay_mult: 0
  }
  convolution_param {
    num_output: 64
    kernel_size: 1
    weight_filler {
      type: "xavier"
      std: 0.1
    }
    bias_filler {
      type: "constant"
      value: 0.2
    }
  }
}
layer {
  name: "inception_4d/relu_pool_proj"
  type: "ReLU"
  bottom: "inception_4d/pool_proj"
  top: "inception_4d/pool_proj"
}
layer {
  name: "inception_4d/output"
  type: "Concat"
  bottom: "inception_4d/1x1"
  bottom: "inception_4d/3x3"
  bottom: "inception_4d/5x5"
  bottom: "inception_4d/pool_proj"
  top: "inception_4d/output"
}
layer {
  name: "loss2/ave_pool"
  type: "Pooling"
  bottom: "inception_4d/output"
  top: "loss2/ave_pool"
  pooling_param {
    pool: AVE
    kernel_size: 5
    stride: 3
  }
}
layer {
  name: "loss2/conv"
  type: "Convolution"
  bottom: "loss2/ave_pool"
  top: "loss2/conv"
  param {
    lr_mult: 1
    decay_mult: 1
  }
  param {
    lr_mult: 2
    decay_mult: 0
  }
  convolution_param {
    num_output: 128
    kernel_size: 1
    weight_filler {
      type: "xavier"
      std: 0.08
    }
    bias_filler {
      type: "constant"
      value: 0.2
    }
  }
}
layer {
  name: "loss2/relu_conv"
  type: "ReLU"
  bottom: "loss2/conv"
  top: "loss2/conv"
}
layer {
  name: "loss2/fc"
  type: "InnerProduct"
  bottom: "loss2/conv"
  top: "loss2/fc"
  param {
    lr_mult: 1
    decay_mult: 1
  }
  param {
    lr_mult: 2
    decay_mult: 0
  }
  inner_product_param {
    num_output: 1024
    weight_filler {
      type: "xavier"
      std: 0.02
    }
    bias_filler {
      type: "constant"
      value: 0.2
    }
  }
}
layer {
  name: "loss2/relu_fc"
  type: "ReLU"
  bottom: "loss2/fc"
  top: "loss2/fc"
}
layer {
  name: "loss2/drop_fc"
  type: "Dropout"
  bottom: "loss2/fc"
  top: "loss2/fc"
  dropout_param {
    dropout_ratio: 0.7
  }
}
layer {
  name: "loss2/classifier_plantvillage"
  type: "InnerProduct"
  bottom: "loss2/fc"
  top: "loss2/classifier_plantvillage"
  param {
    lr_mult: 1
    decay_mult: 1
  }
  param {
    lr_mult: 2
    decay_mult: 0
  }
  inner_product_param {
    num_output: 38
    weight_filler {
      type: "xavier"
      std: 0.0009765625
    }
    bias_filler {
      type: "constant"
      value: 0
    }
  }
}
layer {
  name: "inception_4e/1x1"
  type: "Convolution"
  bottom: "inception_4d/output"
  top: "inception_4e/1x1"
  param {
    lr_mult: 1
    decay_mult: 1
  }
  param {
    lr_mult: 2
    decay_mult: 0
  }
  convolution_param {
    num_output: 256
    kernel_size: 1
    weight_filler {
      type: "xavier"
      std: 0.03
    }
    bias_filler {
      type: "constant"
      value: 0.2
    }
  }
}
layer {
  name: "inception_4e/relu_1x1"
  type: "ReLU"
  bottom: "inception_4e/1x1"
  top: "inception_4e/1x1"
}
layer {
  name: "inception_4e/3x3_reduce"
  type: "Convolution"
  bottom: "inception_4d/output"
  top: "inception_4e/3x3_reduce"
  param {
    lr_mult: 1
    decay_mult: 1
  }
  param {
    lr_mult: 2
    decay_mult: 0
  }
  convolution_param {
    num_output: 160
    kernel_size: 1
    weight_filler {
      type: "xavier"
      std: 0.09
    }
    bias_filler {
      type: "constant"
      value: 0.2
    }
  }
}
layer {
  name: "inception_4e/relu_3x3_reduce"
  type: "ReLU"
  bottom: "inception_4e/3x3_reduce"
  top: "inception_4e/3x3_reduce"
}
layer {
  name: "inception_4e/3x3"
  type: "Convolution"
  bottom: "inception_4e/3x3_reduce"
  top: "inception_4e/3x3"
  param {
    lr_mult: 1
    decay_mult: 1
  }
  param {
    lr_mult: 2
    decay_mult: 0
  }
  convolution_param {
    num_output: 320
    pad: 1
    kernel_size: 3
    weight_filler {
      type: "xavier"
      std: 0.03
    }
    bias_filler {
      type: "constant"
      value: 0.2
    }
  }
}
layer {
  name: "inception_4e/relu_3x3"
  type: "ReLU"
  bottom: "inception_4e/3x3"
  top: "inception_4e/3x3"
}
layer {
  name: "inception_4e/5x5_reduce"
  type: "Convolution"
  bottom: "inception_4d/output"
  top: "inception_4e/5x5_reduce"
  param {
    lr_mult: 1
    decay_mult: 1
  }
  param {
    lr_mult: 2
    decay_mult: 0
  }
  convolution_param {
    num_output: 32
    kernel_size: 1
    weight_filler {
      type: "xavier"
      std: 0.2
    }
    bias_filler {
      type: "constant"
      value: 0.2
    }
  }
}
layer {
  name: "inception_4e/relu_5x5_reduce"
  type: "ReLU"
  bottom: "inception_4e/5x5_reduce"
  top: "inception_4e/5x5_reduce"
}
layer {
  name: "inception_4e/5x5"
  type: "Convolution"
  bottom: "inception_4e/5x5_reduce"
  top: "inception_4e/5x5"
 
I0403 04:43:26.471441 26217 layer_factory.hpp:77] Creating layer data
I0403 04:43:26.472056 26217 net.cpp:91] Creating Layer data
I0403 04:43:26.472095 26217 net.cpp:399] data -> data
I0403 04:43:26.472152 26217 net.cpp:399] data -> label
I0403 04:43:26.472188 26217 data_transformer.cpp:25] Loading mean file from: /home/mohanty/data/final_dataset/lmdb/color-50-50/mean.binaryproto
I0403 04:43:26.523231 26222 db_lmdb.cpp:38] Opened lmdb /home/mohanty/data/final_dataset/lmdb/color-50-50/train_db
I0403 04:43:26.574826 26217 data_layer.cpp:41] output data size: 24,3,224,224
I0403 04:43:26.603389 26217 net.cpp:141] Setting up data
I0403 04:43:26.603466 26217 net.cpp:148] Top shape: 24 3 224 224 (3612672)
I0403 04:43:26.603489 26217 net.cpp:148] Top shape: 24 (24)
I0403 04:43:26.603516 26217 net.cpp:156] Memory required for data: 14450784
I0403 04:43:26.603588 26217 layer_factory.hpp:77] Creating layer label_data_1_split
I0403 04:43:26.603622 26217 net.cpp:91] Creating Layer label_data_1_split
I0403 04:43:26.603646 26217 net.cpp:425] label_data_1_split <- label
I0403 04:43:26.603680 26217 net.cpp:399] label_data_1_split -> label_data_1_split_0
I0403 04:43:26.603710 26217 net.cpp:399] label_data_1_split -> label_data_1_split_1
I0403 04:43:26.603732 26217 net.cpp:399] label_data_1_split -> label_data_1_split_2
I0403 04:43:26.603801 26217 net.cpp:141] Setting up label_data_1_split
I0403 04:43:26.603826 26217 net.cpp:148] Top shape: 24 (24)
I0403 04:43:26.603844 26217 net.cpp:148] Top shape: 24 (24)
I0403 04:43:26.603862 26217 net.cpp:148] Top shape: 24 (24)
I0403 04:43:26.603876 26217 net.cpp:156] Memory required for data: 14451072
I0403 04:43:26.603893 26217 layer_factory.hpp:77] Creating layer conv1/7x7_s2
I0403 04:43:26.603931 26217 net.cpp:91] Creating Layer conv1/7x7_s2
I0403 04:43:26.603952 26217 net.cpp:425] conv1/7x7_s2 <- data
I0403 04:43:26.603973 26217 net.cpp:399] conv1/7x7_s2 -> conv1/7x7_s2
I0403 04:43:26.604949 26217 net.cpp:141] Setting up conv1/7x7_s2
I0403 04:43:26.604980 26217 net.cpp:148] Top shape: 24 64 112 112 (19267584)
I0403 04:43:26.604997 26217 net.cpp:156] Memory required for data: 91521408
I0403 04:43:26.605036 26217 layer_factory.hpp:77] Creating layer conv1/relu_7x7
I0403 04:43:26.605062 26217 net.cpp:91] Creating Layer conv1/relu_7x7
I0403 04:43:26.605082 26217 net.cpp:425] conv1/relu_7x7 <- conv1/7x7_s2
I0403 04:43:26.605101 26217 net.cpp:386] conv1/relu_7x7 -> conv1/7x7_s2 (in-place)
I0403 04:43:26.605123 26217 net.cpp:141] Setting up conv1/relu_7x7
I0403 04:43:26.605142 26217 net.cpp:148] Top shape: 24 64 112 112 (19267584)
I0403 04:43:26.605159 26217 net.cpp:156] Memory required for data: 168591744
I0403 04:43:26.605173 26217 layer_factory.hpp:77] Creating layer pool1/3x3_s2
I0403 04:43:26.605193 26217 net.cpp:91] Creating Layer pool1/3x3_s2
I0403 04:43:26.605217 26217 net.cpp:425] pool1/3x3_s2 <- conv1/7x7_s2
I0403 04:43:26.605238 26217 net.cpp:399] pool1/3x3_s2 -> pool1/3x3_s2
I0403 04:43:26.605311 26217 net.cpp:141] Setting up pool1/3x3_s2
I0403 04:43:26.605337 26217 net.cpp:148] Top shape: 24 64 56 56 (4816896)
I0403 04:43:26.605353 26217 net.cpp:156] Memory required for data: 187859328
I0403 04:43:26.605370 26217 layer_factory.hpp:77] Creating layer pool1/norm1
I0403 04:43:26.605391 26217 net.cpp:91] Creating Layer pool1/norm1
I0403 04:43:26.605406 26217 net.cpp:425] pool1/norm1 <- pool1/3x3_s2
I0403 04:43:26.605425 26217 net.cpp:399] pool1/norm1 -> pool1/norm1
I0403 04:43:26.605478 26217 net.cpp:141] Setting up pool1/norm1
I0403 04:43:26.605502 26217 net.cpp:148] Top shape: 24 64 56 56 (4816896)
I0403 04:43:26.605518 26217 net.cpp:156] Memory required for data: 207126912
I0403 04:43:26.605532 26217 layer_factory.hpp:77] Creating layer conv2/3x3_reduce
I0403 04:43:26.605556 26217 net.cpp:91] Creating Layer conv2/3x3_reduce
I0403 04:43:26.605574 26217 net.cpp:425] conv2/3x3_reduce <- pool1/norm1
I0403 04:43:26.605595 26217 net.cpp:399] conv2/3x3_reduce -> conv2/3x3_reduce
I0403 04:43:26.607841 26217 net.cpp:141] Setting up conv2/3x3_reduce
I0403 04:43:26.607882 26217 net.cpp:148] Top shape: 24 64 56 56 (4816896)
I0403 04:43:26.607900 26217 net.cpp:156] Memory required for data: 226394496
I0403 04:43:26.607923 26217 layer_factory.hpp:77] Creating layer conv2/relu_3x3_reduce
I0403 04:43:26.607944 26217 net.cpp:91] Creating Layer conv2/relu_3x3_reduce
I0403 04:43:26.607961 26217 net.cpp:425] conv2/relu_3x3_reduce <- conv2/3x3_reduce
I0403 04:43:26.607978 26217 net.cpp:386] conv2/relu_3x3_reduce -> conv2/3x3_reduce (in-place)
I0403 04:43:26.607998 26217 net.cpp:141] Setting up conv2/relu_3x3_reduce
I0403 04:43:26.608016 26217 net.cpp:148] Top shape: 24 64 56 56 (4816896)
I0403 04:43:26.608031 26217 net.cpp:156] Memory required for data: 245662080
I0403 04:43:26.608047 26217 layer_factory.hpp:77] Creating layer conv2/3x3
I0403 04:43:26.608070 26217 net.cpp:91] Creating Layer conv2/3x3
I0403 04:43:26.608088 26217 net.cpp:425] conv2/3x3 <- conv2/3x3_reduce
I0403 04:43:26.608126 26217 net.cpp:399] conv2/3x3 -> conv2/3x3
I0403 04:43:26.609379 26223 blocking_queue.cpp:50] Waiting for data
I0403 04:43:26.609518 26217 net.cpp:141] Setting up conv2/3x3
I0403 04:43:26.609549 26217 net.cpp:148] Top shape: 24 192 56 56 (14450688)
I0403 04:43:26.609565 26217 net.cpp:156] Memory required for data: 303464832
I0403 04:43:26.609587 26217 layer_factory.hpp:77] Creating layer conv2/relu_3x3
I0403 04:43:26.609607 26217 net.cpp:91] Creating Layer conv2/relu_3x3
I0403 04:43:26.609623 26217 net.cpp:425] conv2/relu_3x3 <- conv2/3x3
I0403 04:43:26.609642 26217 net.cpp:386] conv2/relu_3x3 -> conv2/3x3 (in-place)
I0403 04:43:26.609661 26217 net.cpp:141] Setting up conv2/relu_3x3
I0403 04:43:26.609679 26217 net.cpp:148] Top shape: 24 192 56 56 (14450688)
I0403 04:43:26.609695 26217 net.cpp:156] Memory required for data: 361267584
I0403 04:43:26.609710 26217 layer_factory.hpp:77] Creating layer conv2/norm2
I0403 04:43:26.609729 26217 net.cpp:91] Creating Layer conv2/norm2
I0403 04:43:26.609743 26217 net.cpp:425] conv2/norm2 <- conv2/3x3
I0403 04:43:26.609762 26217 net.cpp:399] conv2/norm2 -> conv2/norm2
I0403 04:43:26.609809 26217 net.cpp:141] Setting up conv2/norm2
I0403 04:43:26.609833 26217 net.cpp:148] Top shape: 24 192 56 56 (14450688)
I0403 04:43:26.609848 26217 net.cpp:156] Memory required for data: 419070336
I0403 04:43:26.609863 26217 layer_factory.hpp:77] Creating layer pool2/3x3_s2
I0403 04:43:26.609881 26217 net.cpp:91] Creating Layer pool2/3x3_s2
I0403 04:43:26.609897 26217 net.cpp:425] pool2/3x3_s2 <- conv2/norm2
I0403 04:43:26.609915 26217 net.cpp:399] pool2/3x3_s2 -> pool2/3x3_s2
I0403 04:43:26.609961 26217 net.cpp:141] Setting up pool2/3x3_s2
I0403 04:43:26.609984 26217 net.cpp:148] Top shape: 24 192 28 28 (3612672)
I0403 04:43:26.609998 26217 net.cpp:156] Memory required for data: 433521024
I0403 04:43:26.610013 26217 layer_factory.hpp:77] Creating layer pool2/3x3_s2_pool2/3x3_s2_0_split
I0403 04:43:26.610031 26217 net.cpp:91] Creating Layer pool2/3x3_s2_pool2/3x3_s2_0_split
I0403 04:43:26.610047 26217 net.cpp:425] pool2/3x3_s2_pool2/3x3_s2_0_split <- pool2/3x3_s2
I0403 04:43:26.610065 26217 net.cpp:399] pool2/3x3_s2_pool2/3x3_s2_0_split -> pool2/3x3_s2_pool2/3x3_s2_0_split_0
I0403 04:43:26.610085 26217 net.cpp:399] pool2/3x3_s2_pool2/3x3_s2_0_split -> pool2/3x3_s2_pool2/3x3_s2_0_split_1
I0403 04:43:26.610106 26217 net.cpp:399] pool2/3x3_s2_pool2/3x3_s2_0_split -> pool2/3x3_s2_pool2/3x3_s2_0_split_2
I0403 04:43:26.610126 26217 net.cpp:399] pool2/3x3_s2_pool2/3x3_s2_0_split -> pool2/3x3_s2_pool2/3x3_s2_0_split_3
I0403 04:43:26.610185 26217 net.cpp:141] Setting up pool2/3x3_s2_pool2/3x3_s2_0_split
I0403 04:43:26.610213 26217 net.cpp:148] Top shape: 24 192 28 28 (3612672)
I0403 04:43:26.610231 26217 net.cpp:148] Top shape: 24 192 28 28 (3612672)
I0403 04:43:26.610249 26217 net.cpp:148] Top shape: 24 192 28 28 (3612672)
I0403 04:43:26.610265 26217 net.cpp:148] Top shape: 24 192 28 28 (3612672)
I0403 04:43:26.610278 26217 net.cpp:156] Memory required for data: 491323776
I0403 04:43:26.610292 26217 layer_factory.hpp:77] Creating layer inception_3a/1x1
I0403 04:43:26.610314 26217 net.cpp:91] Creating Layer inception_3a/1x1
I0403 04:43:26.610332 26217 net.cpp:425] inception_3a/1x1 <- pool2/3x3_s2_pool2/3x3_s2_0_split_0
I0403 04:43:26.610352 26217 net.cpp:399] inception_3a/1x1 -> inception_3a/1x1
I0403 04:43:26.611150 26217 net.cpp:141] Setting up inception_3a/1x1
I0403 04:43:26.611191 26217 net.cpp:148] Top shape: 24 64 28 28 (1204224)
I0403 04:43:26.611212 26217 net.cpp:156] Memory required for data: 496140672
I0403 04:43:26.611232 26217 layer_factory.hpp:77] Creating layer inception_3a/relu_1x1
I0403 04:43:26.611253 26217 net.cpp:91] Creating Layer inception_3a/relu_1x1
I0403 04:43:26.611270 26217 net.cpp:425] inception_3a/relu_1x1 <- inception_3a/1x1
I0403 04:43:26.611289 26217 net.cpp:386] inception_3a/relu_1x1 -> inception_3a/1x1 (in-place)
I0403 04:43:26.611307 26217 net.cpp:141] Setting up inception_3a/relu_1x1
I0403 04:43:26.611325 26217 net.cpp:148] Top shape: 24 64 28 28 (1204224)
I0403 04:43:26.611356 26217 net.cpp:156] Memory required for data: 500957568
I0403 04:43:26.611372 26217 layer_factory.hpp:77] Creating layer inception_3a/3x3_reduce
I0403 04:43:26.611397 26217 net.cpp:91] Creating Layer inception_3a/3x3_reduce
I0403 04:43:26.611415 26217 net.cpp:425] inception_3a/3x3_reduce <- pool2/3x3_s2_pool2/3x3_s2_0_split_1
I0403 04:43:26.611434 26217 net.cpp:399] inception_3a/3x3_reduce -> inception_3a/3x3_reduce
I0403 04:43:26.612292 26217 net.cpp:141] Setting up inception_3a/3x3_reduce
I0403 04:43:26.612320 26217 net.cpp:148] Top shape: 24 96 28 28 (1806336)
I0403 04:43:26.612336 26217 net.cpp:156] Memory required for data: 508182912
I0403 04:43:26.612363 26217 layer_factory.hpp:77] Creating layer inception_3a/relu_3x3_reduce
I0403 04:43:26.612385 26217 net.cpp:91] Creating Layer inception_3a/relu_3x3_reduce
I0403 04:43:26.612403 26217 net.cpp:425] inception_3a/relu_3x3_reduce <- inception_3a/3x3_reduce
I0403 04:43:26.612421 26217 net.cpp:386] inception_3a/relu_3x3_reduce -> inception_3a/3x3_reduce (in-place)
I0403 04:43:26.612452 26217 net.cpp:141] Setting up inception_3a/relu_3x3_reduce
I0403 04:43:26.612470 26217 net.cpp:148] Top shape: 24 96 28 28 (1806336)
I0403 04:43:26.612485 26217 net.cpp:156] Memory required for data: 515408256
I0403 04:43:26.612499 26217 layer_factory.hpp:77] Creating layer inception_3a/3x3
I0403 04:43:26.612522 26217 net.cpp:91] Creating Layer inception_3a/3x3
I0403 04:43:26.612540 26217 net.cpp:425] inception_3a/3x3 <- inception_3a/3x3_reduce
I0403 04:43:26.612562 26217 net.cpp:399] inception_3a/3x3 -> inception_3a/3x3
I0403 04:43:26.613376 26217 net.cpp:141] Setting up inception_3a/3x3
I0403 04:43:26.613404 26217 net.cpp:148] Top shape: 24 128 28 28 (2408448)
I0403 04:43:26.613420 26217 net.cpp:156] Memory required for data: 525042048
I0403 04:43:26.613451 26217 layer_factory.hpp:77] Creating layer inception_3a/relu_3x3
I0403 04:43:26.613471 26217 net.cpp:91] Creating Layer inception_3a/relu_3x3
I0403 04:43:26.613489 26217 net.cpp:425] inception_3a/relu_3x3 <- inception_3a/3x3
I0403 04:43:26.613507 26217 net.cpp:386] inception_3a/relu_3x3 -> inception_3a/3x3 (in-place)
I0403 04:43:26.613526 26217 net.cpp:141] Setting up inception_3a/relu_3x3
I0403 04:43:26.613544 26217 net.cpp:148] Top shape: 24 128 28 28 (2408448)
I0403 04:43:26.613560 26217 net.cpp:156] Memory required for data: 534675840
I0403 04:43:26.613574 26217 layer_factory.hpp:77] Creating layer inception_3a/5x5_reduce
I0403 04:43:26.613597 26217 net.cpp:91] Creating Layer inception_3a/5x5_reduce
I0403 04:43:26.613615 26217 net.cpp:425] inception_3a/5x5_reduce <- pool2/3x3_s2_pool2/3x3_s2_0_split_2
I0403 04:43:26.613633 26217 net.cpp:399] inception_3a/5x5_reduce -> inception_3a/5x5_reduce
I0403 04:43:26.613860 26217 net.cpp:141] Setting up inception_3a/5x5_reduce
I0403 04:43:26.613886 26217 net.cpp:148] Top shape: 24 16 28 28 (301056)
I0403 04:43:26.613901 26217 net.cpp:156] Memory required for data: 535880064
I0403 04:43:26.613919 26217 layer_factory.hpp:77] Creating layer inception_3a/relu_5x5_reduce
I0403 04:43:26.613939 26217 net.cpp:91] Creating Layer inception_3a/relu_5x5_reduce
I0403 04:43:26.613966 26217 net.cpp:425] inception_3a/relu_5x5_reduce <- inception_3a/5x5_reduce
I0403 04:43:26.613986 26217 net.cpp:386] inception_3a/relu_5x5_reduce -> inception_3a/5x5_reduce (in-place)
I0403 04:43:26.614006 26217 net.cpp:141] Setting up inception_3a/relu_5x5_reduce
I0403 04:43:26.614023 26217 net.cpp:148] Top shape: 24 16 28 28 (301056)
I0403 04:43:26.614038 26217 net.cpp:156] Memory required for data: 537084288
I0403 04:43:26.614053 26217 layer_factory.hpp:77] Creating layer inception_3a/5x5
I0403 04:43:26.614075 26217 net.cpp:91] Creating Layer inception_3a/5x5
I0403 04:43:26.614092 26217 net.cpp:425] inception_3a/5x5 <- inception_3a/5x5_reduce
I0403 04:43:26.614114 26217 net.cpp:399] inception_3a/5x5 -> inception_3a/5x5
I0403 04:43:26.614398 26217 net.cpp:141] Setting up inception_3a/5x5
I0403 04:43:26.614424 26217 net.cpp:148] Top shape: 24 32 28 28 (602112)
I0403 04:43:26.614466 26217 net.cpp:156] Memory required for data: 539492736
I0403 04:43:26.614486 26217 layer_factory.hpp:77] Creating layer inception_3a/relu_5x5
I0403 04:43:26.614503 26217 net.cpp:91] Creating Layer inception_3a/relu_5x5
I0403 04:43:26.614521 26217 net.cpp:425] inception_3a/relu_5x5 <- inception_3a/5x5
I0403 04:43:26.614538 26217 net.cpp:386] inception_3a/relu_5x5 -> inception_3a/5x5 (in-place)
I0403 04:43:26.614557 26217 net.cpp:141] Setting up inception_3a/relu_5x5
I0403 04:43:26.614573 26217 net.cpp:148] Top shape: 24 32 28 28 (602112)
I0403 04:43:26.614588 26217 net.cpp:156] Memory required for data: 541901184
I0403 04:43:26.614601 26217 layer_factory.hpp:77] Creating layer inception_3a/pool
I0403 04:43:26.614621 26217 net.cpp:91] Creating Layer inception_3a/pool
I0403 04:43:26.614639 26217 net.cpp:425] inception_3a/pool <- pool2/3x3_s2_pool2/3x3_s2_0_split_3
I0403 04:43:26.614656 26217 net.cpp:399] inception_3a/pool -> inception_3a/pool
I0403 04:43:26.614706 26217 net.cpp:141] Setting up inception_3a/pool
I0403 04:43:26.614730 26217 net.cpp:148] Top shape: 24 192 28 28 (3612672)
I0403 04:43:26.614744 26217 net.cpp:156] Memory required for data: 556351872
I0403 04:43:26.614759 26217 layer_factory.hpp:77] Creating layer inception_3a/pool_proj
I0403 04:43:26.614784 26217 net.cpp:91] Creating Layer inception_3a/pool_proj
I0403 04:43:26.614802 26217 net.cpp:425] inception_3a/pool_proj <- inception_3a/pool
I0403 04:43:26.614821 26217 net.cpp:399] inception_3a/pool_proj -> inception_3a/pool_proj
I0403 04:43:26.615049 26217 net.cpp:141] Setting up inception_3a/pool_proj
I0403 04:43:26.615074 26217 net.cpp:148] Top shape: 24 32 28 28 (602112)
I0403 04:43:26.615089 26217 net.cpp:156] Memory required for data: 558760320
I0403 04:43:26.615113 26217 layer_factory.hpp:77] Creating layer inception_3a/relu_pool_proj
I0403 04:43:26.615134 26217 net.cpp:91] Creating Layer inception_3a/relu_pool_proj
I0403 04:43:26.615149 26217 net.cpp:425] inception_3a/relu_pool_proj <- inception_3a/pool_proj
I0403 04:43:26.615180 26217 net.cpp:386] inception_3a/relu_pool_proj -> inception_3a/pool_proj (in-place)
I0403 04:43:26.615202 26217 net.cpp:141] Setting up inception_3a/relu_pool_proj
I0403 04:43:26.615226 26217 net.cpp:148] Top shape: 24 32 28 28 (602112)
I0403 04:43:26.615242 26217 net.cpp:156] Memory required for data: 561168768
I0403 04:43:26.615257 26217 layer_factory.hpp:77] Creating layer inception_3a/output
I0403 04:43:26.615277 26217 net.cpp:91] Creating Layer inception_3a/output
I0403 04:43:26.615291 26217 net.cpp:425] inception_3a/output <- inception_3a/1x1
I0403 04:43:26.615309 26217 net.cpp:425] inception_3a/output <- inception_3a/3x3
I0403 04:43:26.615325 26217 net.cpp:425] inception_3a/output <- inception_3a/5x5
I0403 04:43:26.615341 26217 net.cpp:425] inception_3a/output <- inception_3a/pool_proj
I0403 04:43:26.615358 26217 net.cpp:399] inception_3a/output -> inception_3a/output
I0403 04:43:26.615404 26217 net.cpp:141] Setting up inception_3a/output
I0403 04:43:26.615429 26217 net.cpp:148] Top shape: 24 256 28 28 (4816896)
I0403 04:43:26.615456 26217 net.cpp:156] Memory required for data: 580436352
I0403 04:43:26.615470 26217 layer_factory.hpp:77] Creating layer inception_3a/output_inception_3a/output_0_split
I0403 04:43:26.615489 26217 net.cpp:91] Creating Layer inception_3a/output_inception_3a/output_0_split
I0403 04:43:26.615504 26217 net.cpp:425] inception_3a/output_inception_3a/output_0_split <- inception_3a/output
I0403 04:43:26.615525 26217 net.cpp:399] inception_3a/output_inception_3a/output_0_split -> inception_3a/output_inception_3a/output_0_split_0
I0403 04:43:26.615546 26217 net.cpp:399] inception_3a/output_inception_3a/output_0_split -> inception_3a/output_inception_3a/output_0_split_1
I0403 04:43:26.615566 26217 net.cpp:399] inception_3a/output_inception_3a/output_0_split -> inception_3a/output_inception_3a/output_0_split_2
I0403 04:43:26.615586 26217 net.cpp:399] inception_3a/output_inception_3a/output_0_split -> inception_3a/output_inception_3a/output_0_split_3
I0403 04:43:26.615649 26217 net.cpp:141] Setting up inception_3a/output_inception_3a/output_0_split
I0403 04:43:26.615686 26217 net.cpp:148] Top shape: 24 256 28 28 (4816896)
I0403 04:43:26.615705 26217 net.cpp:148] Top shape: 24 256 28 28 (4816896)
I0403 04:43:26.615721 26217 net.cpp:148] Top shape: 24 256 28 28 (4816896)
I0403 04:43:26.615736 26217 net.cpp:148] Top shape: 24 256 28 28 (4816896)
I0403 04:43:26.615749 26217 net.cpp:156] Memory required for data: 657506688
I0403 04:43:26.615763 26217 layer_factory.hpp:77] Creating layer inception_3b/1x1
I0403 04:43:26.615783 26217 net.cpp:91] Creating Layer inception_3b/1x1
I0403 04:43:26.615800 26217 net.cpp:425] inception_3b/1x1 <- inception_3a/output_inception_3a/output_0_split_0
I0403 04:43:26.615823 26217 net.cpp:399] inception_3b/1x1 -> inception_3b/1x1
I0403 04:43:26.616201 26217 net.cpp:141] Setting up inception_3b/1x1
I0403 04:43:26.616232 26217 net.cpp:148] Top shape: 24 128 28 28 (2408448)
I0403 04:43:26.616248 26217 net.cpp:156] Memory required for data: 667140480
I0403 04:43:26.616267 26217 layer_factory.hpp:77] Creating layer inception_3b/relu_1x1
I0403 04:43:26.616286 26217 net.cpp:91] Creating Layer inception_3b/relu_1x1
I0403 04:43:26.616302 26217 net.cpp:425] inception_3b/relu_1x1 <- inception_3b/1x1
I0403 04:43:26.616319 26217 net.cpp:386] inception_3b/relu_1x1 -> inception_3b/1x1 (in-place)
I0403 04:43:26.616338 26217 net.cpp:141] Setting up inception_3b/relu_1x1
I0403 04:43:26.616356 26217 net.cpp:148] Top shape: 24 128 28 28 (2408448)
I0403 04:43:26.616371 26217 net.cpp:156] Memory required for data: 676774272
I0403 04:43:26.616386 26217 layer_factory.hpp:77] Creating layer inception_3b/3x3_reduce
I0403 04:43:26.616410 26217 net.cpp:91] Creating Layer inception_3b/3x3_reduce
I0403 04:43:26.616427 26217 net.cpp:425] inception_3b/3x3_reduce <- inception_3a/output_inception_3a/output_0_split_1
I0403 04:43:26.616461 26217 net.cpp:399] inception_3b/3x3_reduce -> inception_3b/3x3_reduce
I0403 04:43:26.616838 26217 net.cpp:141] Setting up inception_3b/3x3_reduce
I0403 04:43:26.616863 26217 net.cpp:148] Top shape: 24 128 28 28 (2408448)
I0403 04:43:26.616878 26217 net.cpp:156] Memory required for data: 686408064
I0403 04:43:26.616897 26217 layer_factory.hpp:77] Creating layer inception_3b/relu_3x3_reduce
I0403 04:43:26.616917 26217 net.cpp:91] Creating Layer inception_3b/relu_3x3_reduce
I0403 04:43:26.616935 26217 net.cpp:425] inception_3b/relu_3x3_reduce <- inception_3b/3x3_reduce
I0403 04:43:26.616953 26217 net.cpp:386] inception_3b/relu_3x3_reduce -> inception_3b/3x3_reduce (in-place)
I0403 04:43:26.616973 26217 net.cpp:141] Setting up inception_3b/relu_3x3_reduce
I0403 04:43:26.616991 26217 net.cpp:148] Top shape: 24 128 28 28 (2408448)
I0403 04:43:26.617007 26217 net.cpp:156] Memory required for data: 696041856
I0403 04:43:26.617020 26217 layer_factory.hpp:77] Creating layer inception_3b/3x3
I0403 04:43:26.617044 26217 net.cpp:91] Creating Layer inception_3b/3x3
I0403 04:43:26.617063 26217 net.cpp:425] inception_3b/3x3 <- inception_3b/3x3_reduce
I0403 04:43:26.617084 26217 net.cpp:399] inception_3b/3x3 -> inception_3b/3x3
I0403 04:43:26.619045 26217 net.cpp:141] Setting up inception_3b/3x3
I0403 04:43:26.619076 26217 net.cpp:148] Top shape: 24 192 28 28 (3612672)
I0403 04:43:26.619091 26217 net.cpp:156] Memory required for data: 710492544
I0403 04:43:26.619108 26217 layer_factory.hpp:77] Creating layer inception_3b/relu_3x3
I0403 04:43:26.619127 26217 net.cpp:91] Creating Layer inception_3b/relu_3x3
I0403 04:43:26.619144 26217 net.cpp:425] inception_3b/relu_3x3 <- inception_3b/3x3
I0403 04:43:26.619163 26217 net.cpp:386] inception_3b/relu_3x3 -> inception_3b/3x3 (in-place)
I0403 04:43:26.619180 26217 net.cpp:141] Setting up inception_3b/relu_3x3
I0403 04:43:26.619201 26217 net.cpp:148] Top shape: 24 192 28 28 (3612672)
I0403 04:43:26.619221 26217 net.cpp:156] Memory required for data: 724943232
I0403 04:43:26.619237 26217 layer_factory.hpp:77] Creating layer inception_3b/5x5_reduce
I0403 04:43:26.619258 26217 net.cpp:91] Creating Layer inception_3b/5x5_reduce
I0403 04:43:26.619277 26217 net.cpp:425] inception_3b/5x5_reduce <- inception_3a/output_inception_3a/output_0_split_2
I0403 04:43:26.619313 26217 net.cpp:399] inception_3b/5x5_reduce -> inception_3b/5x5_reduce
I0403 04:43:26.619560 26217 net.cpp:141] Setting up inception_3b/5x5_reduce
I0403 04:43:26.619585 26217 net.cpp:148] Top shape: 24 32 28 28 (602112)
I0403 04:43:26.619601 26217 net.cpp:156] Memory required for data: 727351680
I0403 04:43:26.619618 26217 layer_factory.hpp:77] Creating layer inception_3b/relu_5x5_reduce
I0403 04:43:26.619644 26217 net.cpp:91] Creating Layer inception_3b/relu_5x5_reduce
I0403 04:43:26.619660 26217 net.cpp:425] inception_3b/relu_5x5_reduce <- inception_3b/5x5_reduce
I0403 04:43:26.619678 26217 net.cpp:386] inception_3b/relu_5x5_reduce -> inception_3b/5x5_reduce (in-place)
I0403 04:43:26.619698 26217 net.cpp:141] Setting up inception_3b/relu_5x5_reduce
I0403 04:43:26.619715 26217 net.cpp:148] Top shape: 24 32 28 28 (602112)
I0403 04:43:26.619730 26217 net.cpp:156] Memory required for data: 729760128
I0403 04:43:26.619743 26217 layer_factory.hpp:77] Creating layer inception_3b/5x5
I0403 04:43:26.619766 26217 net.cpp:91] Creating Layer inception_3b/5x5
I0403 04:43:26.619783 26217 net.cpp:425] inception_3b/5x5 <- inception_3b/5x5_reduce
I0403 04:43:26.619806 26217 net.cpp:399] inception_3b/5x5 -> inception_3b/5x5
I0403 04:43:26.620946 26217 net.cpp:141] Setting up inception_3b/5x5
I0403 04:43:26.620975 26217 net.cpp:148] Top shape: 24 96 28 28 (1806336)
I0403 04:43:26.620991 26217 net.cpp:156] Memory required for data: 736985472
I0403 04:43:26.621011 26217 layer_factory.hpp:77] Creating layer inception_3b/relu_5x5
I0403 04:43:26.621029 26217 net.cpp:91] Creating Layer inception_3b/relu_5x5
I0403 04:43:26.621045 26217 net.cpp:425] inception_3b/relu_5x5 <- inception_3b/5x5
I0403 04:43:26.621065 26217 net.cpp:386] inception_3b/relu_5x5 -> inception_3b/5x5 (in-place)
I0403 04:43:26.621086 26217 net.cpp:141] Setting up inception_3b/relu_5x5
I0403 04:43:26.621104 26217 net.cpp:148] Top shape: 24 96 28 28 (1806336)
I0403 04:43:26.621119 26217 net.cpp:156] Memory required for data: 744210816
I0403 04:43:26.621134 26217 layer_factory.hpp:77] Creating layer inception_3b/pool
I0403 04:43:26.621150 26217 net.cpp:91] Creating Layer inception_3b/pool
I0403 04:43:26.621165 26217 net.cpp:425] inception_3b/pool <- inception_3a/output_inception_3a/output_0_split_3
I0403 04:43:26.621184 26217 net.cpp:399] inception_3b/pool -> inception_3b/pool
I0403 04:43:26.621237 26217 net.cpp:141] Setting up inception_3b/pool
I0403 04:43:26.621263 26217 net.cpp:148] Top shape: 24 256 28 28 (4816896)
I0403 04:43:26.621285 26217 net.cpp:156] Memory required for data: 763478400
I0403 04:43:26.621304 26217 layer_factory.hpp:77] Creating layer inception_3b/pool_proj
I0403 04:43:26.621327 26217 net.cpp:91] Creating Layer inception_3b/pool_proj
I0403 04:43:26.621345 26217 net.cpp:425] inception_3b/pool_proj <- inception_3b/pool
I0403 04:43:26.621367 26217 net.cpp:399] inception_3b/pool_proj -> inception_3b/pool_proj
I0403 04:43:26.621656 26217 net.cpp:141] Setting up inception_3b/pool_proj
I0403 04:43:26.621680 26217 net.cpp:148] Top shape: 24 64 28 28 (1204224)
I0403 04:43:26.621696 26217 net.cpp:156] Memory required for data: 768295296
I0403 04:43:26.621716 26217 layer_factory.hpp:77] Creating layer inception_3b/relu_pool_proj
I0403 04:43:26.621734 26217 net.cpp:91] Creating Layer inception_3b/relu_pool_proj
I0403 04:43:26.621750 26217 net.cpp:425] inception_3b/relu_pool_proj <- inception_3b/pool_proj
I0403 04:43:26.621767 26217 net.cpp:386] inception_3b/relu_pool_proj -> inception_3b/pool_proj (in-place)
I0403 04:43:26.621786 26217 net.cpp:141] Setting up inception_3b/relu_pool_proj
I0403 04:43:26.621804 26217 net.cpp:148] Top shape: 24 64 28 28 (1204224)
I0403 04:43:26.621819 26217 net.cpp:156] Memory required for data: 773112192
I0403 04:43:26.621832 26217 layer_factory.hpp:77] Creating layer inception_3b/output
I0403 04:43:26.621852 26217 net.cpp:91] Creating Layer inception_3b/output
I0403 04:43:26.621868 26217 net.cpp:425] inception_3b/output <- inception_3b/1x1
I0403 04:43:26.621899 26217 net.cpp:425] inception_3b/output <- inception_3b/3x3
I0403 04:43:26.621917 26217 net.cpp:425] inception_3b/output <- inception_3b/5x5
I0403 04:43:26.621935 26217 net.cpp:425] inception_3b/output <- inception_3b/pool_proj
I0403 04:43:26.621954 26217 net.cpp:399] inception_3b/output -> inception_3b/output
I0403 04:43:26.621992 26217 net.cpp:141] Setting up inception_3b/output
I0403 04:43:26.622015 26217 net.cpp:148] Top shape: 24 480 28 28 (9031680)
I0403 04:43:26.622030 26217 net.cpp:156] Memory required for data: 809238912
I0403 04:43:26.622045 26217 layer_factory.hpp:77] Creating layer pool3/3x3_s2
I0403 04:43:26.622063 26217 net.cpp:91] Creating Layer pool3/3x3_s2
I0403 04:43:26.622079 26217 net.cpp:425] pool3/3x3_s2 <- inception_3b/output
I0403 04:43:26.622098 26217 net.cpp:399] pool3/3x3_s2 -> pool3/3x3_s2
I0403 04:43:26.622146 26217 net.cpp:141] Setting up pool3/3x3_s2
I0403 04:43:26.622169 26217 net.cpp:148] Top shape: 24 480 14 14 (2257920)
I0403 04:43:26.622185 26217 net.cpp:156] Memory required for data: 818270592
I0403 04:43:26.622200 26217 layer_factory.hpp:77] Creating layer pool3/3x3_s2_pool3/3x3_s2_0_split
I0403 04:43:26.622226 26217 net.cpp:91] Creating Layer pool3/3x3_s2_pool3/3x3_s2_0_split
I0403 04:43:26.622246 26217 net.cpp:425] pool3/3x3_s2_pool3/3x3_s2_0_split <- pool3/3x3_s2
I0403 04:43:26.622263 26217 net.cpp:399] pool3/3x3_s2_pool3/3x3_s2_0_split -> pool3/3x3_s2_pool3/3x3_s2_0_split_0
I0403 04:43:26.622283 26217 net.cpp:399] pool3/3x3_s2_pool3/3x3_s2_0_split -> pool3/3x3_s2_pool3/3x3_s2_0_split_1
I0403 04:43:26.622306 26217 net.cpp:399] pool3/3x3_s2_pool3/3x3_s2_0_split -> pool3/3x3_s2_pool3/3x3_s2_0_split_2
I0403 04:43:26.622328 26217 net.cpp:399] pool3/3x3_s2_pool3/3x3_s2_0_split -> pool3/3x3_s2_pool3/3x3_s2_0_split_3
I0403 04:43:26.622391 26217 net.cpp:141] Setting up pool3/3x3_s2_pool3/3x3_s2_0_split
I0403 04:43:26.622414 26217 net.cpp:148] Top shape: 24 480 14 14 (2257920)
I0403 04:43:26.622431 26217 net.cpp:148] Top shape: 24 480 14 14 (2257920)
I0403 04:43:26.622444 26217 net.cpp:148] Top shape: 24 480 14 14 (2257920)
I0403 04:43:26.622462 26217 net.cpp:148] Top shape: 24 480 14 14 (2257920)
I0403 04:43:26.622474 26217 net.cpp:156] Memory required for data: 854397312
I0403 04:43:26.622489 26217 layer_factory.hpp:77] Creating layer inception_4a/1x1
I0403 04:43:26.622511 26217 net.cpp:91] Creating Layer inception_4a/1x1
I0403 04:43:26.622529 26217 net.cpp:425] inception_4a/1x1 <- pool3/3x3_s2_pool3/3x3_s2_0_split_0
I0403 04:43:26.622550 26217 net.cpp:399] inception_4a/1x1 -> inception_4a/1x1
I0403 04:43:26.623252 26217 net.cpp:141] Setting up inception_4a/1x1
I0403 04:43:26.623278 26217 net.cpp:148] Top shape: 24 192 14 14 (903168)
I0403 04:43:26.623294 26217 net.cpp:156] Memory required for data: 858009984
I0403 04:43:26.623312 26217 layer_factory.hpp:77] Creating layer inception_4a/relu_1x1
I0403 04:43:26.623329 26217 net.cpp:91] Creating Layer inception_4a/relu_1x1
I0403 04:43:26.623347 26217 net.cpp:425] inception_4a/relu_1x1 <- inception_4a/1x1
I0403 04:43:26.623364 26217 net.cpp:386] inception_4a/relu_1x1 -> inception_4a/1x1 (in-place)
I0403 04:43:26.623383 26217 net.cpp:141] Setting up inception_4a/relu_1x1
I0403 04:43:26.623400 26217 net.cpp:148] Top shape: 24 192 14 14 (903168)
I0403 04:43:26.623415 26217 net.cpp:156] Memory required for data: 861622656
I0403 04:43:26.623430 26217 layer_factory.hpp:77] Creating layer inception_4a/3x3_reduce
I0403 04:43:26.623451 26217 net.cpp:91] Creating Layer inception_4a/3x3_reduce
I0403 04:43:26.623468 26217 net.cpp:425] inception_4a/3x3_reduce <- pool3/3x3_s2_pool3/3x3_s2_0_split_1
I0403 04:43:26.623492 26217 net.cpp:399] inception_4a/3x3_reduce -> inception_4a/3x3_reduce
I0403 04:43:26.623946 26217 net.cpp:141] Setting up inception_4a/3x3_reduce
I0403 04:43:26.623972 26217 net.cpp:148] Top shape: 24 96 14 14 (451584)
I0403 04:43:26.623987 26217 net.cpp:156] Memory required for data: 863428992
I0403 04:43:26.624012 26217 layer_factory.hpp:77] Creating layer inception_4a/relu_3x3_reduce
I0403 04:43:26.624033 26217 net.cpp:91] Creating Layer inception_4a/relu_3x3_reduce
I0403 04:43:26.624064 26217 net.cpp:425] inception_4a/relu_3x3_reduce <- inception_4a/3x3_reduce
I0403 04:43:26.624083 26217 net.cpp:386] inception_4a/relu_3x3_reduce -> inception_4a/3x3_reduce (in-place)
I0403 04:43:26.624104 26217 net.cpp:141] Setting up inception_4a/relu_3x3_reduce
I0403 04:43:26.624122 26217 net.cpp:148] Top shape: 24 96 14 14 (451584)
I0403 04:43:26.624137 26217 net.cpp:156] Memory required for data: 865235328
I0403 04:43:26.624151 26217 layer_factory.hpp:77] Creating layer inception_4a/3x3
I0403 04:43:26.624174 26217 net.cpp:91] Creating Layer inception_4a/3x3
I0403 04:43:26.624193 26217 net.cpp:425] inception_4a/3x3 <- inception_4a/3x3_reduce
I0403 04:43:26.624219 26217 net.cpp:399] inception_4a/3x3 -> inception_4a/3x3
I0403 04:43:26.625910 26217 net.cpp:141] Setting up inception_4a/3x3
I0403 04:43:26.625942 26217 net.cpp:148] Top shape: 24 208 14 14 (978432)
I0403 04:43:26.625958 26217 net.cpp:156] Memory required for data: 869149056
I0403 04:43:26.625977 26217 layer_factory.hpp:77] Creating layer inception_4a/relu_3x3
I0403 04:43:26.625996 26217 net.cpp:91] Creating Layer inception_4a/relu_3x3
I0403 04:43:26.626011 26217 net.cpp:425] inception_4a/relu_3x3 <- inception_4a/3x3
I0403 04:43:26.626029 26217 net.cpp:386] inception_4a/relu_3x3 -> inception_4a/3x3 (in-place)
I0403 04:43:26.626047 26217 net.cpp:141] Setting up inception_4a/relu_3x3
I0403 04:43:26.626065 26217 net.cpp:148] Top shape: 24 208 14 14 (978432)
I0403 04:43:26.626080 26217 net.cpp:156] Memory required for data: 873062784
I0403 04:43:26.626094 26217 layer_factory.hpp:77] Creating layer inception_4a/5x5_reduce
I0403 04:43:26.626116 26217 net.cpp:91] Creating Layer inception_4a/5x5_reduce
I0403 04:43:26.626135 26217 net.cpp:425] inception_4a/5x5_reduce <- pool3/3x3_s2_pool3/3x3_s2_0_split_2
I0403 04:43:26.626157 26217 net.cpp:399] inception_4a/5x5_reduce -> inception_4a/5x5_reduce
I0403 04:43:26.626410 26217 net.cpp:141] Setting up inception_4a/5x5_reduce
I0403 04:43:26.626435 26217 net.cpp:148] Top shape: 24 16 14 14 (75264)
I0403 04:43:26.626451 26217 net.cpp:156] Memory required for data: 873363840
I0403 04:43:26.626468 26217 layer_factory.hpp:77] Creating layer inception_4a/relu_5x5_reduce
I0403 04:43:26.626490 26217 net.cpp:91] Creating Layer inception_4a/relu_5x5_reduce
I0403 04:43:26.626508 26217 net.cpp:425] inception_4a/relu_5x5_reduce <- inception_4a/5x5_reduce
I0403 04:43:26.626525 26217 net.cpp:386] inception_4a/relu_5x5_reduce -> inception_4a/5x5_reduce (in-place)
I0403 04:43:26.626545 26217 net.cpp:141] Setting up inception_4a/relu_5x5_reduce
I0403 04:43:26.626562 26217 net.cpp:148] Top shape: 24 16 14 14 (75264)
I0403 04:43:26.626576 26217 net.cpp:156] Memory required for data: 873664896
I0403 04:43:26.626590 26217 layer_factory.hpp:77] Creating layer inception_4a/5x5
I0403 04:43:26.626612 26217 net.cpp:91] Creating Layer inception_4a/5x5
I0403 04:43:26.626631 26217 net.cpp:425] inception_4a/5x5 <- inception_4a/5x5_reduce
I0403 04:43:26.626648 26217 net.cpp:399] inception_4a/5x5 -> inception_4a/5x5
I0403 04:43:26.626957 26217 net.cpp:141] Setting up inception_4a/5x5
I0403 04:43:26.626986 26217 net.cpp:148] Top shape: 24 48 14 14 (225792)
I0403 04:43:26.627001 26217 net.cpp:156] Memory required for data: 874568064
I0403 04:43:26.627018 26217 layer_factory.hpp:77] Creating layer inception_4a/relu_5x5
I0403 04:43:26.627037 26217 net.cpp:91] Creating Layer inception_4a/relu_5x5
I0403 04:43:26.627053 26217 net.cpp:425] inception_4a/relu_5x5 <- inception_4a/5x5
I0403 04:43:26.627068 26217 net.cpp:386] inception_4a/relu_5x5 -> inception_4a/5x5 (in-place)
I0403 04:43:26.627087 26217 net.cpp:141] Setting up inception_4a/relu_5x5
I0403 04:43:26.627104 26217 net.cpp:148] Top shape: 24 48 14 14 (225792)
I0403 04:43:26.627118 26217 net.cpp:156] Memory required for data: 875471232
I0403 04:43:26.627133 26217 layer_factory.hpp:77] Creating layer inception_4a/pool
I0403 04:43:26.627151 26217 net.cpp:91] Creating Layer inception_4a/pool
I0403 04:43:26.627166 26217 net.cpp:425] inception_4a/pool <- pool3/3x3_s2_pool3/3x3_s2_0_split_3
I0403 04:43:26.627200 26217 net.cpp:399] inception_4a/pool -> inception_4a/pool
I0403 04:43:26.627265 26217 net.cpp:141] Setting up inception_4a/pool
I0403 04:43:26.627290 26217 net.cpp:148] Top shape: 24 480 14 14 (2257920)
I0403 04:43:26.627305 26217 net.cpp:156] Memory required for data: 884502912
I0403 04:43:26.627320 26217 layer_factory.hpp:77] Creating layer inception_4a/pool_proj
I0403 04:43:26.627343 26217 net.cpp:91] Creating Layer inception_4a/pool_proj
I0403 04:43:26.627362 26217 net.cpp:425] inception_4a/pool_proj <- inception_4a/pool
I0403 04:43:26.627380 26217 net.cpp:399] inception_4a/pool_proj -> inception_4a/pool_proj
I0403 04:43:26.627748 26217 net.cpp:141] Setting up inception_4a/pool_proj
I0403 04:43:26.627779 26217 net.cpp:148] Top shape: 24 64 14 14 (301056)
I0403 04:43:26.627795 26217 net.cpp:156] Memory required for data: 885707136
I0403 04:43:26.627813 26217 layer_factory.hpp:77] Creating layer inception_4a/relu_pool_proj
I0403 04:43:26.627831 26217 net.cpp:91] Creating Layer inception_4a/relu_pool_proj
I0403 04:43:26.627847 26217 net.cpp:425] inception_4a/relu_pool_proj <- inception_4a/pool_proj
I0403 04:43:26.627867 26217 net.cpp:386] inception_4a/relu_pool_proj -> inception_4a/pool_proj (in-place)
I0403 04:43:26.627887 26217 net.cpp:141] Setting up inception_4a/relu_pool_proj
I0403 04:43:26.627907 26217 net.cpp:148] Top shape: 24 64 14 14 (301056)
I0403 04:43:26.627921 26217 net.cpp:156] Memory required for data: 886911360
I0403 04:43:26.627938 26217 layer_factory.hpp:77] Creating layer inception_4a/output
I0403 04:43:26.627954 26217 net.cpp:91] Creating Layer inception_4a/output
I0403 04:43:26.627970 26217 net.cpp:425] inception_4a/output <- inception_4a/1x1
I0403 04:43:26.627986 26217 net.cpp:425] inception_4a/output <- inception_4a/3x3
I0403 04:43:26.628002 26217 net.cpp:425] inception_4a/output <- inception_4a/5x5
I0403 04:43:26.628018 26217 net.cpp:425] inception_4a/output <- inception_4a/pool_proj
I0403 04:43:26.628036 26217 net.cpp:399] inception_4a/output -> inception_4a/output
I0403 04:43:26.628073 26217 net.cpp:141] Setting up inception_4a/output
I0403 04:43:26.628096 26217 net.cpp:148] Top shape: 24 512 14 14 (2408448)
I0403 04:43:26.628111 26217 net.cpp:156] Memory required for data: 896545152
I0403 04:43:26.628126 26217 layer_factory.hpp:77] Creating layer inception_4a/output_inception_4a/output_0_split
I0403 04:43:26.628146 26217 net.cpp:91] Creating Layer inception_4a/output_inception_4a/output_0_split
I0403 04:43:26.628165 26217 net.cpp:425] inception_4a/output_inception_4a/output_0_split <- inception_4a/output
I0403 04:43:26.628182 26217 net.cpp:399] inception_4a/output_inception_4a/output_0_split -> inception_4a/output_inception_4a/output_0_split_0
I0403 04:43:26.628202 26217 net.cpp:399] inception_4a/output_inception_4a/output_0_split -> inception_4a/output_inception_4a/output_0_split_1
I0403 04:43:26.628228 26217 net.cpp:399] inception_4a/output_inception_4a/output_0_split -> inception_4a/output_inception_4a/output_0_split_2
I0403 04:43:26.628250 26217 net.cpp:399] inception_4a/output_inception_4a/output_0_split -> inception_4a/output_inception_4a/output_0_split_3
I0403 04:43:26.628270 26217 net.cpp:399] inception_4a/output_inception_4a/output_0_split -> inception_4a/output_inception_4a/output_0_split_4
I0403 04:43:26.628350 26217 net.cpp:141] Setting up inception_4a/output_inception_4a/output_0_split
I0403 04:43:26.628374 26217 net.cpp:148] Top shape: 24 512 14 14 (2408448)
I0403 04:43:26.628391 26217 net.cpp:148] Top shape: 24 512 14 14 (2408448)
I0403 04:43:26.628406 26217 net.cpp:148] Top shape: 24 512 14 14 (2408448)
I0403 04:43:26.628420 26217 net.cpp:148] Top shape: 24 512 14 14 (2408448)
I0403 04:43:26.628437 26217 net.cpp:148] Top shape: 24 512 14 14 (2408448)
I0403 04:43:26.628450 26217 net.cpp:156] Memory required for data: 944714112
I0403 04:43:26.628464 26217 layer_factory.hpp:77] Creating layer loss1/ave_pool
I0403 04:43:26.628482 26217 net.cpp:91] Creating Layer loss1/ave_pool
I0403 04:43:26.628499 26217 net.cpp:425] loss1/ave_pool <- inception_4a/output_inception_4a/output_0_split_0
I0403 04:43:26.628531 26217 net.cpp:399] loss1/ave_pool -> loss1/ave_pool
I0403 04:43:26.628571 26217 net.cpp:141] Setting up loss1/ave_pool
I0403 04:43:26.628594 26217 net.cpp:148] Top shape: 24 512 4 4 (196608)
I0403 04:43:26.628608 26217 net.cpp:156] Memory required for data: 945500544
I0403 04:43:26.628623 26217 layer_factory.hpp:77] Creating layer loss1/conv
I0403 04:43:26.628648 26217 net.cpp:91] Creating Layer loss1/conv
I0403 04:43:26.628666 26217 net.cpp:425] loss1/conv <- loss1/ave_pool
I0403 04:43:26.628685 26217 net.cpp:399] loss1/conv -> loss1/conv
I0403 04:43:26.629241 26217 net.cpp:141] Setting up loss1/conv
I0403 04:43:26.629267 26217 net.cpp:148] Top shape: 24 128 4 4 (49152)
I0403 04:43:26.629282 26217 net.cpp:156] Memory required for data: 945697152
I0403 04:43:26.629299 26217 layer_factory.hpp:77] Creating layer loss1/relu_conv
I0403 04:43:26.629317 26217 net.cpp:91] Creating Layer loss1/relu_conv
I0403 04:43:26.629333 26217 net.cpp:425] loss1/relu_conv <- loss1/conv
I0403 04:43:26.629350 26217 net.cpp:386] loss1/relu_conv -> loss1/conv (in-place)
I0403 04:43:26.629374 26217 net.cpp:141] Setting up loss1/relu_conv
I0403 04:43:26.629392 26217 net.cpp:148] Top shape: 24 128 4 4 (49152)
I0403 04:43:26.629406 26217 net.cpp:156] Memory required for data: 945893760
I0403 04:43:26.629420 26217 layer_factory.hpp:77] Creating layer loss1/fc
I0403 04:43:26.629444 26217 net.cpp:91] Creating Layer loss1/fc
I0403 04:43:26.629462 26217 net.cpp:425] loss1/fc <- loss1/conv
I0403 04:43:26.629480 26217 net.cpp:399] loss1/fc -> loss1/fc
I0403 04:43:26.646098 26217 net.cpp:141] Setting up loss1/fc
I0403 04:43:26.646144 26217 net.cpp:148] Top shape: 24 1024 (24576)
I0403 04:43:26.646162 26217 net.cpp:156] Memory required for data: 945992064
I0403 04:43:26.646181 26217 layer_factory.hpp:77] Creating layer loss1/relu_fc
I0403 04:43:26.646201 26217 net.cpp:91] Creating Layer loss1/relu_fc
I0403 04:43:26.646224 26217 net.cpp:425] loss1/relu_fc <- loss1/fc
I0403 04:43:26.646245 26217 net.cpp:386] loss1/relu_fc -> loss1/fc (in-place)
I0403 04:43:26.646267 26217 net.cpp:141] Setting up loss1/relu_fc
I0403 04:43:26.646286 26217 net.cpp:148] Top shape: 24 1024 (24576)
I0403 04:43:26.646301 26217 net.cpp:156] Memory required for data: 946090368
I0403 04:43:26.646316 26217 layer_factory.hpp:77] Creating layer loss1/drop_fc
I0403 04:43:26.646343 26217 net.cpp:91] Creating Layer loss1/drop_fc
I0403 04:43:26.646361 26217 net.cpp:425] loss1/drop_fc <- loss1/fc
I0403 04:43:26.646380 26217 net.cpp:386] loss1/drop_fc -> loss1/fc (in-place)
I0403 04:43:26.646426 26217 net.cpp:141] Setting up loss1/drop_fc
I0403 04:43:26.646450 26217 net.cpp:148] Top shape: 24 1024 (24576)
I0403 04:43:26.646464 26217 net.cpp:156] Memory required for data: 946188672
I0403 04:43:26.646478 26217 layer_factory.hpp:77] Creating layer loss1/classifier_plantvillage
I0403 04:43:26.646498 26217 net.cpp:91] Creating Layer loss1/classifier_plantvillage
I0403 04:43:26.646513 26217 net.cpp:425] loss1/classifier_plantvillage <- loss1/fc
I0403 04:43:26.646535 26217 net.cpp:399] loss1/classifier_plantvillage -> loss1/classifier_plantvillage
I0403 04:43:26.647372 26217 net.cpp:141] Setting up loss1/classifier_plantvillage
I0403 04:43:26.647403 26217 net.cpp:148] Top shape: 24 38 (912)
I0403 04:43:26.647419 26217 net.cpp:156] Memory required for data: 946192320
I0403 04:43:26.647438 26217 layer_factory.hpp:77] Creating layer inception_4b/1x1
I0403 04:43:26.647460 26217 net.cpp:91] Creating Layer inception_4b/1x1
I0403 04:43:26.647478 26217 net.cpp:425] inception_4b/1x1 <- inception_4a/output_inception_4a/output_0_split_1
I0403 04:43:26.647503 26217 net.cpp:399] inception_4b/1x1 -> inception_4b/1x1
I0403 04:43:26.648157 26217 net.cpp:141] Setting up inception_4b/1x1
I0403 04:43:26.648183 26217 net.cpp:148] Top shape: 24 160 14 14 (752640)
I0403 04:43:26.648200 26217 net.cpp:156] Memory required for data: 949202880
I0403 04:43:26.648224 26217 layer_factory.hpp:77] Creating layer inception_4b/relu_1x1
I0403 04:43:26.648260 26217 net.cpp:91] Creating Layer inception_4b/relu_1x1
I0403 04:43:26.648278 26217 net.cpp:425] inception_4b/relu_1x1 <- inception_4b/1x1
I0403 04:43:26.648296 26217 net.cpp:386] inception_4b/relu_1x1 -> inception_4b/1x1 (in-place)
I0403 04:43:26.648315 26217 net.cpp:141] Setting up inception_4b/relu_1x1
I0403 04:43:26.648331 26217 net.cpp:148] Top shape: 24 160 14 14 (752640)
I0403 04:43:26.648346 26217 net.cpp:156] Memory required for data: 952213440
I0403 04:43:26.648360 26217 layer_factory.hpp:77] Creating layer inception_4b/3x3_reduce
I0403 04:43:26.648383 26217 net.cpp:91] Creating Layer inception_4b/3x3_reduce
I0403 04:43:26.648402 26217 net.cpp:425] inception_4b/3x3_reduce <- inception_4a/output_inception_4a/output_0_split_2
I0403 04:43:26.648424 26217 net.cpp:399] inception_4b/3x3_reduce -> inception_4b/3x3_reduce
I0403 04:43:26.648946 26217 net.cpp:141] Setting up inception_4b/3x3_reduce
I0403 04:43:26.648972 26217 net.cpp:148] Top shape: 24 112 14 14 (526848)
I0403 04:43:26.648988 26217 net.cpp:156] Memory required for data: 954320832
I0403 04:43:26.649004 26217 layer_factory.hpp:77] Creating layer inception_4b/relu_3x3_reduce
I0403 04:43:26.649024 26217 net.cpp:91] Creating Layer inception_4b/relu_3x3_reduce
I0403 04:43:26.649040 26217 net.cpp:425] inception_4b/relu_3x3_reduce <- inception_4b/3x3_reduce
I0403 04:43:26.649058 26217 net.cpp:386] inception_4b/relu_3x3_reduce -> inception_4b/3x3_reduce (in-place)
I0403 04:43:26.649077 26217 net.cpp:141] Setting up inception_4b/relu_3x3_reduce
I0403 04:43:26.649096 26217 net.cpp:148] Top shape: 24 112 14 14 (526848)
I0403 04:43:26.649111 26217 net.cpp:156] Memory required for data: 956428224
I0403 04:43:26.649127 26217 layer_factory.hpp:77] Creating layer inception_4b/3x3
I0403 04:43:26.649147 26217 net.cpp:91] Creating Layer inception_4b/3x3
I0403 04:43:26.649164 26217 net.cpp:425] inception_4b/3x3 <- inception_4b/3x3_reduce
I0403 04:43:26.649185 26217 net.cpp:399] inception_4b/3x3 -> inception_4b/3x3
I0403 04:43:26.651136 26217 net.cpp:141] Setting up inception_4b/3x3
I0403 04:43:26.651165 26217 net.cpp:148] Top shape: 24 224 14 14 (1053696)
I0403 04:43:26.651181 26217 net.cpp:156] Memory required for data: 960643008
I0403 04:43:26.651198 26217 layer_factory.hpp:77] Creating layer inception_4b/relu_3x3
I0403 04:43:26.651222 26217 net.cpp:91] Creating Layer inception_4b/relu_3x3
I0403 04:43:26.651240 26217 net.cpp:425] inception_4b/relu_3x3 <- inception_4b/3x3
I0403 04:43:26.651258 26217 net.cpp:386] inception_4b/relu_3x3 -> inception_4b/3x3 (in-place)
I0403 04:43:26.651278 26217 net.cpp:141] Setting up inception_4b/relu_3x3
I0403 04:43:26.651296 26217 net.cpp:148] Top shape: 24 224 14 14 (1053696)
I0403 04:43:26.651310 26217 net.cpp:156] Memory required for data: 964857792
I0403 04:43:26.651324 26217 layer_factory.hpp:77] Creating layer inception_4b/5x5_reduce
I0403 04:43:26.651348 26217 net.cpp:91] Creating Layer inception_4b/5x5_reduce
I0403 04:43:26.651367 26217 net.cpp:425] inception_4b/5x5_reduce <- inception_4a/output_inception_4a/output_0_split_3
I0403 04:43:26.651389 26217 net.cpp:399] inception_4b/5x5_reduce -> inception_4b/5x5_reduce
I0403 04:43:26.651671 26217 net.cpp:141] Setting up inception_4b/5x5_reduce
I0403 04:43:26.651696 26217 net.cpp:148] Top shape: 24 24 14 14 (112896)
I0403 04:43:26.651711 26217 net.cpp:156] Memory required for data: 965309376
I0403 04:43:26.651729 26217 layer_factory.hpp:77] Creating layer inception_4b/relu_5x5_reduce
I0403 04:43:26.651747 26217 net.cpp:91] Creating Layer inception_4b/relu_5x5_reduce
I0403 04:43:26.651769 26217 net.cpp:425] inception_4b/relu_5x5_reduce <- inception_4b/5x5_reduce
I0403 04:43:26.651787 26217 net.cpp:386] inception_4b/relu_5x5_reduce -> inception_4b/5x5_reduce (in-place)
I0403 04:43:26.651806 26217 net.cpp:141] Setting up inception_4b/relu_5x5_reduce
I0403 04:43:26.651824 26217 net.cpp:148] Top shape: 24 24 14 14 (112896)
I0403 04:43:26.651839 26217 net.cpp:156] Memory required for data: 965760960
I0403 04:43:26.651854 26217 layer_factory.hpp:77] Creating layer inception_4b/5x5
I0403 04:43:26.651891 26217 net.cpp:91] Creating Layer inception_4b/5x5
I0403 04:43:26.651911 26217 net.cpp:425] inception_4b/5x5 <- inception_4b/5x5_reduce
I0403 04:43:26.651932 26217 net.cpp:399] inception_4b/5x5 -> inception_4b/5x5
I0403 04:43:26.652360 26217 net.cpp:141] Setting up inception_4b/5x5
I0403 04:43:26.652386 26217 net.cpp:148] Top shape: 24 64 14 14 (301056)
I0403 04:43:26.652402 26217 net.cpp:156] Memory required for data: 966965184
I0403 04:43:26.652420 26217 layer_factory.hpp:77] Creating layer inception_4b/relu_5x5
I0403 04:43:26.652437 26217 net.cpp:91] Creating Layer inception_4b/relu_5x5
I0403 04:43:26.652454 26217 net.cpp:425] inception_4b/relu_5x5 <- inception_4b/5x5
I0403 04:43:26.652472 26217 net.cpp:386] inception_4b/relu_5x5 -> inception_4b/5x5 (in-place)
I0403 04:43:26.652490 26217 net.cpp:141] Setting up inception_4b/relu_5x5
I0403 04:43:26.652508 26217 net.cpp:148] Top shape: 24 64 14 14 (301056)
I0403 04:43:26.652521 26217 net.cpp:156] Memory required for data: 968169408
I0403 04:43:26.652535 26217 layer_factory.hpp:77] Creating layer inception_4b/pool
I0403 04:43:26.652555 26217 net.cpp:91] Creating Layer inception_4b/pool
I0403 04:43:26.652573 26217 net.cpp:425] inception_4b/pool <- inception_4a/output_inception_4a/output_0_split_4
I0403 04:43:26.652591 26217 net.cpp:399] inception_4b/pool -> inception_4b/pool
I0403 04:43:26.652644 26217 net.cpp:141] Setting up inception_4b/pool
I0403 04:43:26.652668 26217 net.cpp:148] Top shape: 24 512 14 14 (2408448)
I0403 04:43:26.652683 26217 net.cpp:156] Memory required for data: 977803200
I0403 04:43:26.652698 26217 layer_factory.hpp:77] Creating layer inception_4b/pool_proj
I0403 04:43:26.652720 26217 net.cpp:91] Creating Layer inception_4b/pool_proj
I0403 04:43:26.652740 26217 net.cpp:425] inception_4b/pool_proj <- inception_4b/pool
I0403 04:43:26.652761 26217 net.cpp:399] inception_4b/pool_proj -> inception_4b/pool_proj
I0403 04:43:26.653151 26217 net.cpp:141] Setting up inception_4b/pool_proj
I0403 04:43:26.653179 26217 net.cpp:148] Top shape: 24 64 14 14 (301056)
I0403 04:43:26.653194 26217 net.cpp:156] Memory required for data: 979007424
I0403 04:43:26.653216 26217 layer_factory.hpp:77] Creating layer inception_4b/relu_pool_proj
I0403 04:43:26.653237 26217 net.cpp:91] Creating Layer inception_4b/relu_pool_proj
I0403 04:43:26.653254 26217 net.cpp:425] inception_4b/relu_pool_proj <- inception_4b/pool_proj
I0403 04:43:26.653270 26217 net.cpp:386] inception_4b/relu_pool_proj -> inception_4b/pool_proj (in-place)
I0403 04:43:26.653290 26217 net.cpp:141] Setting up inception_4b/relu_pool_proj
I0403 04:43:26.653306 26217 net.cpp:148] Top shape: 24 64 14 14 (301056)
I0403 04:43:26.653322 26217 net.cpp:156] Memory required for data: 980211648
I0403 04:43:26.653340 26217 layer_factory.hpp:77] Creating layer inception_4b/output
I0403 04:43:26.653359 26217 net.cpp:91] Creating Layer inception_4b/output
I0403 04:43:26.653375 26217 net.cpp:425] inception_4b/output <- inception_4b/1x1
I0403 04:43:26.653391 26217 net.cpp:425] inception_4b/output <- inception_4b/3x3
I0403 04:43:26.653408 26217 net.cpp:425] inception_4b/output <- inception_4b/5x5
I0403 04:43:26.653424 26217 net.cpp:425] inception_4b/output <- inception_4b/pool_proj
I0403 04:43:26.653441 26217 net.cpp:399] inception_4b/output -> inception_4b/output
I0403 04:43:26.653481 26217 net.cpp:141] Setting up inception_4b/output
I0403 04:43:26.653506 26217 net.cpp:148] Top shape: 24 512 14 14 (2408448)
I0403 04:43:26.653520 26217 net.cpp:156] Memory required for data: 989845440
I0403 04:43:26.653535 26217 layer_factory.hpp:77] Creating layer inception_4b/output_inception_4b/output_0_split
I0403 04:43:26.653555 26217 net.cpp:91] Creating Layer inception_4b/output_inception_4b/output_0_split
I0403 04:43:26.653573 26217 net.cpp:425] inception_4b/output_inception_4b/output_0_split <- inception_4b/output
I0403 04:43:26.653591 26217 net.cpp:399] inception_4b/output_inception_4b/output_0_split -> inception_4b/output_inception_4b/output_0_split_0
I0403 04:43:26.653614 26217 net.cpp:399] inception_4b/output_inception_4b/output_0_split -> inception_4b/output_inception_4b/output_0_split_1
I0403 04:43:26.653651 26217 net.cpp:399] inception_4b/output_inception_4b/output_0_split -> inception_4b/output_inception_4b/output_0_split_2
I0403 04:43:26.653673 26217 net.cpp:399] inception_4b/output_inception_4b/output_0_split -> inception_4b/output_inception_4b/output_0_split_3
I0403 04:43:26.653743 26217 net.cpp:141] Setting up inception_4b/output_inception_4b/output_0_split
I0403 04:43:26.653765 26217 net.cpp:148] Top shape: 24 512 14 14 (2408448)
I0403 04:43:26.653781 26217 net.cpp:148] Top shape: 24 512 14 14 (2408448)
I0403 04:43:26.653798 26217 net.cpp:148] Top shape: 24 512 14 14 (2408448)
I0403 04:43:26.653813 26217 net.cpp:148] Top shape: 24 512 14 14 (2408448)
I0403 04:43:26.653827 26217 net.cpp:156] Memory required for data: 1028380608
I0403 04:43:26.653841 26217 layer_factory.hpp:77] Creating layer inception_4c/1x1
I0403 04:43:26.653863 26217 net.cpp:91] Creating Layer inception_4c/1x1
I0403 04:43:26.653882 26217 net.cpp:425] inception_4c/1x1 <- inception_4b/output_inception_4b/output_0_split_0
I0403 04:43:26.653903 26217 net.cpp:399] inception_4c/1x1 -> inception_4c/1x1
I0403 04:43:26.654487 26217 net.cpp:141] Setting up inception_4c/1x1
I0403 04:43:26.654515 26217 net.cpp:148] Top shape: 24 128 14 14 (602112)
I0403 04:43:26.654542 26217 net.cpp:156] Memory required for data: 1030789056
I0403 04:43:26.654561 26217 layer_factory.hpp:77] Creating layer inception_4c/relu_1x1
I0403 04:43:26.654578 26217 net.cpp:91] Creating Layer inception_4c/relu_1x1
I0403 04:43:26.654595 26217 net.cpp:425] inception_4c/relu_1x1 <- inception_4c/1x1
I0403 04:43:26.654616 26217 net.cpp:386] inception_4c/relu_1x1 -> inception_4c/1x1 (in-place)
I0403 04:43:26.654638 26217 net.cpp:141] Setting up inception_4c/relu_1x1
I0403 04:43:26.654654 26217 net.cpp:148] Top shape: 24 128 14 14 (602112)
I0403 04:43:26.654670 26217 net.cpp:156] Memory required for data: 1033197504
I0403 04:43:26.654683 26217 layer_factory.hpp:77] Creating layer inception_4c/3x3_reduce
I0403 04:43:26.654706 26217 net.cpp:91] Creating Layer inception_4c/3x3_reduce
I0403 04:43:26.654724 26217 net.cpp:425] inception_4c/3x3_reduce <- inception_4b/output_inception_4b/output_0_split_1
I0403 04:43:26.654743 26217 net.cpp:399] inception_4c/3x3_reduce -> inception_4c/3x3_reduce
I0403 04:43:26.655827 26217 net.cpp:141] Setting up inception_4c/3x3_reduce
I0403 04:43:26.655855 26217 net.cpp:148] Top shape: 24 128 14 14 (602112)
I0403 04:43:26.655872 26217 net.cpp:156] Memory required for data: 1035605952
I0403 04:43:26.655890 26217 layer_factory.hpp:77] Creating layer inception_4c/relu_3x3_reduce
I0403 04:43:26.655910 26217 net.cpp:91] Creating Layer inception_4c/relu_3x3_reduce
I0403 04:43:26.655926 26217 net.cpp:425] inception_4c/relu_3x3_reduce <- inception_4c/3x3_reduce
I0403 04:43:26.655943 26217 net.cpp:386] inception_4c/relu_3x3_reduce -> inception_4c/3x3_reduce (in-place)
I0403 04:43:26.655962 26217 net.cpp:141] Setting up inception_4c/relu_3x3_reduce
I0403 04:43:26.655980 26217 net.cpp:148] Top shape: 24 128 14 14 (602112)
I0403 04:43:26.655994 26217 net.cpp:156] Memory required for data: 1038014400
I0403 04:43:26.656009 26217 layer_factory.hpp:77] Creating layer inception_4c/3x3
I0403 04:43:26.656033 26217 net.cpp:91] Creating Layer inception_4c/3x3
I0403 04:43:26.656050 26217 net.cpp:425] inception_4c/3x3 <- inception_4c/3x3_reduce
I0403 04:43:26.656071 26217 net.cpp:399] inception_4c/3x3 -> inception_4c/3x3
I0403 04:43:26.658540 26217 net.cpp:141] Setting up inception_4c/3x3
I0403 04:43:26.658571 26217 net.cpp:148] Top shape: 24 256 14 14 (1204224)
I0403 04:43:26.658589 26217 net.cpp:156] Memory required for data: 1042831296
I0403 04:43:26.658620 26217 layer_factory.hpp:77] Creating layer inception_4c/relu_3x3
I0403 04:43:26.658643 26217 net.cpp:91] Creating Layer inception_4c/relu_3x3
I0403 04:43:26.658659 26217 net.cpp:425] inception_4c/relu_3x3 <- inception_4c/3x3
I0403 04:43:26.658679 26217 net.cpp:386] inception_4c/relu_3x3 -> inception_4c/3x3 (in-place)
I0403 04:43:26.658713 26217 net.cpp:141] Setting up inception_4c/relu_3x3
I0403 04:43:26.658733 26217 net.cpp:148] Top shape: 24 256 14 14 (1204224)
I0403 04:43:26.658747 26217 net.cpp:156] Memory required for data: 1047648192
I0403 04:43:26.658761 26217 layer_factory.hpp:77] Creating layer inception_4c/5x5_reduce
I0403 04:43:26.658784 26217 net.cpp:91] Creating Layer inception_4c/5x5_reduce
I0403 04:43:26.658802 26217 net.cpp:425] inception_4c/5x5_reduce <- inception_4b/output_inception_4b/output_0_split_2
I0403 04:43:26.658820 26217 net.cpp:399] inception_4c/5x5_reduce -> inception_4c/5x5_reduce
I0403 04:43:26.659101 26217 net.cpp:141] Setting up inception_4c/5x5_reduce
I0403 04:43:26.659126 26217 net.cpp:148] Top shape: 24 24 14 14 (112896)
I0403 04:43:26.659142 26217 net.cpp:156] Memory required for data: 1048099776
I0403 04:43:26.659159 26217 layer_factory.hpp:77] Creating layer inception_4c/relu_5x5_reduce
I0403 04:43:26.659178 26217 net.cpp:91] Creating Layer inception_4c/relu_5x5_reduce
I0403 04:43:26.659193 26217 net.cpp:425] inception_4c/relu_5x5_reduce <- inception_4c/5x5_reduce
I0403 04:43:26.659217 26217 net.cpp:386] inception_4c/relu_5x5_reduce -> inception_4c/5x5_reduce (in-place)
I0403 04:43:26.659240 26217 net.cpp:141] Setting up inception_4c/relu_5x5_reduce
I0403 04:43:26.659257 26217 net.cpp:148] Top shape: 24 24 14 14 (112896)
I0403 04:43:26.659271 26217 net.cpp:156] Memory required for data: 1048551360
I0403 04:43:26.659286 26217 layer_factory.hpp:77] Creating layer inception_4c/5x5
I0403 04:43:26.659310 26217 net.cpp:91] Creating Layer inception_4c/5x5
I0403 04:43:26.659327 26217 net.cpp:425] inception_4c/5x5 <- inception_4c/5x5_reduce
I0403 04:43:26.659348 26217 net.cpp:399] inception_4c/5x5 -> inception_4c/5x5
I0403 04:43:26.659770 26217 net.cpp:141] Setting up inception_4c/5x5
I0403 04:43:26.659796 26217 net.cpp:148] Top shape: 24 64 14 14 (301056)
I0403 04:43:26.659812 26217 net.cpp:156] Memory required for data: 1049755584
I0403 04:43:26.659831 26217 layer_factory.hpp:77] Creating layer inception_4c/relu_5x5
I0403 04:43:26.659849 26217 net.cpp:91] Creating Layer inception_4c/relu_5x5
I0403 04:43:26.659869 26217 net.cpp:425] inception_4c/relu_5x5 <- inception_4c/5x5
I0403 04:43:26.659886 26217 net.cpp:386] inception_4c/relu_5x5 -> inception_4c/5x5 (in-place)
I0403 04:43:26.659906 26217 net.cpp:141] Setting up inception_4c/relu_5x5
I0403 04:43:26.659924 26217 net.cpp:148] Top shape: 24 64 14 14 (301056)
I0403 04:43:26.659940 26217 net.cpp:156] Memory required for data: 1050959808
I0403 04:43:26.659953 26217 layer_factory.hpp:77] Creating layer inception_4c/pool
I0403 04:43:26.659970 26217 net.cpp:91] Creating Layer inception_4c/pool
I0403 04:43:26.659986 26217 net.cpp:425] inception_4c/pool <- inception_4b/output_inception_4b/output_0_split_3
I0403 04:43:26.660006 26217 net.cpp:399] inception_4c/pool -> inception_4c/pool
I0403 04:43:26.660058 26217 net.cpp:141] Setting up inception_4c/pool
I0403 04:43:26.660081 26217 net.cpp:148] Top shape: 24 512 14 14 (2408448)
I0403 04:43:26.660095 26217 net.cpp:156] Memory required for data: 1060593600
I0403 04:43:26.660109 26217 layer_factory.hpp:77] Creating layer inception_4c/pool_proj
I0403 04:43:26.660131 26217 net.cpp:91] Creating Layer inception_4c/pool_proj
I0403 04:43:26.660150 26217 net.cpp:425] inception_4c/pool_proj <- inception_4c/pool
I0403 04:43:26.660171 26217 net.cpp:399] inception_4c/pool_proj -> inception_4c/pool_proj
I0403 04:43:26.660568 26217 net.cpp:141] Setting up inception_4c/pool_proj
I0403 04:43:26.660594 26217 net.cpp:148] Top shape: 24 64 14 14 (301056)
I0403 04:43:26.660609 26217 net.cpp:156] Memory required for data: 1061797824
I0403 04:43:26.660627 26217 layer_factory.hpp:77] Creating layer inception_4c/relu_pool_proj
I0403 04:43:26.660645 26217 net.cpp:91] Creating Layer inception_4c/relu_pool_proj
I0403 04:43:26.660662 26217 net.cpp:425] inception_4c/relu_pool_proj <- inception_4c/pool_proj
I0403 04:43:26.660681 26217 net.cpp:386] inception_4c/relu_pool_proj -> inception_4c/pool_proj (in-place)
I0403 04:43:26.660703 26217 net.cpp:141] Setting up inception_4c/relu_pool_proj
I0403 04:43:26.660734 26217 net.cpp:148] Top shape: 24 64 14 14 (301056)
I0403 04:43:26.660749 26217 net.cpp:156] Memory required for data: 1063002048
I0403 04:43:26.660764 26217 layer_factory.hpp:77] Creating layer inception_4c/output
I0403 04:43:26.660784 26217 net.cpp:91] Creating Layer inception_4c/output
I0403 04:43:26.660799 26217 net.cpp:425] inception_4c/output <- inception_4c/1x1
I0403 04:43:26.660815 26217 net.cpp:425] inception_4c/output <- inception_4c/3x3
I0403 04:43:26.660830 26217 net.cpp:425] inception_4c/output <- inception_4c/5x5
I0403 04:43:26.660846 26217 net.cpp:425] inception_4c/output <- inception_4c/pool_proj
I0403 04:43:26.660864 26217 net.cpp:399] inception_4c/output -> inception_4c/output
I0403 04:43:26.660904 26217 net.cpp:141] Setting up inception_4c/output
I0403 04:43:26.660928 26217 net.cpp:148] Top shape: 24 512 14 14 (2408448)
I0403 04:43:26.660943 26217 net.cpp:156] Memory required for data: 1072635840
I0403 04:43:26.660958 26217 layer_factory.hpp:77] Creating layer inception_4c/output_inception_4c/output_0_split
I0403 04:43:26.660976 26217 net.cpp:91] Creating Layer inception_4c/output_inception_4c/output_0_split
I0403 04:43:26.660992 26217 net.cpp:425] inception_4c/output_inception_4c/output_0_split <- inception_4c/output
I0403 04:43:26.661012 26217 net.cpp:399] inception_4c/output_inception_4c/output_0_split -> inception_4c/output_inception_4c/output_0_split_0
I0403 04:43:26.661034 26217 net.cpp:399] inception_4c/output_inception_4c/output_0_split -> inception_4c/output_inception_4c/output_0_split_1
I0403 04:43:26.661056 26217 net.cpp:399] inception_4c/output_inception_4c/output_0_split -> inception_4c/output_inception_4c/output_0_split_2
I0403 04:43:26.661077 26217 net.cpp:399] inception_4c/output_inception_4c/output_0_split -> inception_4c/output_inception_4c/output_0_split_3
I0403 04:43:26.661144 26217 net.cpp:141] Setting up inception_4c/output_inception_4c/output_0_split
I0403 04:43:26.661170 26217 net.cpp:148] Top shape: 24 512 14 14 (2408448)
I0403 04:43:26.661187 26217 net.cpp:148] Top shape: 24 512 14 14 (2408448)
I0403 04:43:26.661203 26217 net.cpp:148] Top shape: 24 512 14 14 (2408448)
I0403 04:43:26.661226 26217 net.cpp:148] Top shape: 24 512 14 14 (2408448)
I0403 04:43:26.661239 26217 net.cpp:156] Memory required for data: 1111171008
I0403 04:43:26.661253 26217 layer_factory.hpp:77] Creating layer inception_4d/1x1
I0403 04:43:26.661276 26217 net.cpp:91] Creating Layer inception_4d/1x1
I0403 04:43:26.661295 26217 net.cpp:425] inception_4d/1x1 <- inception_4c/output_inception_4c/output_0_split_0
I0403 04:43:26.661314 26217 net.cpp:399] inception_4d/1x1 -> inception_4d/1x1
I0403 04:43:26.661833 26217 net.cpp:141] Setting up inception_4d/1x1
I0403 04:43:26.661857 26217 net.cpp:148] Top shape: 24 112 14 14 (526848)
I0403 04:43:26.661873 26217 net.cpp:156] Memory required for data: 1113278400
I0403 04:43:26.661892 26217 layer_factory.hpp:77] Creating layer inception_4d/relu_1x1
I0403 04:43:26.661911 26217 net.cpp:91] Creating Layer inception_4d/relu_1x1
I0403 04:43:26.661929 26217 net.cpp:425] inception_4d/relu_1x1 <- inception_4d/1x1
I0403 04:43:26.661950 26217 net.cpp:386] inception_4d/relu_1x1 -> inception_4d/1x1 (in-place)
I0403 04:43:26.661969 26217 net.cpp:141] Setting up inception_4d/relu_1x1
I0403 04:43:26.661988 26217 net.cpp:148] Top shape: 24 112 14 14 (526848)
I0403 04:43:26.662001 26217 net.cpp:156] Memory required for data: 1115385792
I0403 04:43:26.662015 26217 layer_factory.hpp:77] Creating layer inception_4d/3x3_reduce
I0403 04:43:26.662037 26217 net.cpp:91] Creating Layer inception_4d/3x3_reduce
I0403 04:43:26.662055 26217 net.cpp:425] inception_4d/3x3_reduce <- inception_4c/output_inception_4c/output_0_split_1
I0403 04:43:26.662075 26217 net.cpp:399] inception_4d/3x3_reduce -> inception_4d/3x3_reduce
I0403 04:43:26.662740 26217 net.cpp:141] Setting up inception_4d/3x3_reduce
I0403 04:43:26.662766 26217 net.cpp:148] Top shape: 24 144 14 14 (677376)
I0403 04:43:26.662781 26217 net.cpp:156] Memory required for data: 1118095296
I0403 04:43:26.662812 26217 layer_factory.hpp:77] Creating layer inception_4d/relu_3x3_reduce
I0403 04:43:26.662833 26217 net.cpp:91] Creating Layer inception_4d/relu_3x3_reduce
I0403 04:43:26.662850 26217 net.cpp:425] inception_4d/relu_3x3_reduce <- inception_4d/3x3_reduce
I0403 04:43:26.662869 26217 net.cpp:386] inception_4d/relu_3x3_reduce -> inception_4d/3x3_reduce (in-place)
I0403 04:43:26.662889 26217 net.cpp:141] Setting up inception_4d/relu_3x3_reduce
I0403 04:43:26.662906 26217 net.cpp:148] Top shape: 24 144 14 14 (677376)
I0403 04:43:26.662921 26217 net.cpp:156] Memory required for data: 1120804800
I0403 04:43:26.662937 26217 layer_factory.hpp:77] Creating layer inception_4d/3x3
I0403 04:43:26.662961 26217 net.cpp:91] Creating Layer inception_4d/3x3
I0403 04:43:26.662978 26217 net.cpp:425] inception_4d/3x3 <- inception_4d/3x3_reduce
I0403 04:43:26.662997 26217 net.cpp:399] inception_4d/3x3 -> inception_4d/3x3
I0403 04:43:26.666117 26217 net.cpp:141] Setting up inception_4d/3x3
I0403 04:43:26.666147 26217 net.cpp:148] Top shape: 24 288 14 14 (1354752)
I0403 04:43:26.666163 26217 net.cpp:156] Memory required for data: 1126223808
I0403 04:43:26.666182 26217 layer_factory.hpp:77] Creating layer inception_4d/relu_3x3
I0403 04:43:26.666203 26217 net.cpp:91] Creating Layer inception_4d/relu_3x3
I0403 04:43:26.666224 26217 net.cpp:425] inception_4d/relu_3x3 <- inception_4d/3x3
I0403 04:43:26.666244 26217 net.cpp:386] inception_4d/relu_3x3 -> inception_4d/3x3 (in-place)
I0403 04:43:26.666263 26217 net.cpp:141] Setting up inception_4d/relu_3x3
I0403 04:43:26.666281 26217 net.cpp:148] Top shape: 24 288 14 14 (1354752)
I0403 04:43:26.666296 26217 net.cpp:156] Memory required for data: 1131642816
I0403 04:43:26.666311 26217 layer_factory.hpp:77] Creating layer inception_4d/5x5_reduce
I0403 04:43:26.666334 26217 net.cpp:91] Creating Layer inception_4d/5x5_reduce
I0403 04:43:26.666352 26217 net.cpp:425] inception_4d/5x5_reduce <- inception_4c/output_inception_4c/output_0_split_2
I0403 04:43:26.666371 26217 net.cpp:399] inception_4d/5x5_reduce -> inception_4d/5x5_reduce
I0403 04:43:26.666679 26217 net.cpp:141] Setting up inception_4d/5x5_reduce
I0403 04:43:26.666707 26217 net.cpp:148] Top shape: 24 32 14 14 (150528)
I0403 04:43:26.666723 26217 net.cpp:156] Memory required for data: 1132244928
I0403 04:43:26.666740 26217 layer_factory.hpp:77] Creating layer inception_4d/relu_5x5_reduce
I0403 04:43:26.666759 26217 net.cpp:91] Creating Layer inception_4d/relu_5x5_reduce
I0403 04:43:26.666776 26217 net.cpp:425] inception_4d/relu_5x5_reduce <- inception_4d/5x5_reduce
I0403 04:43:26.666795 26217 net.cpp:386] inception_4d/relu_5x5_reduce -> inception_4d/5x5_reduce (in-place)
I0403 04:43:26.666815 26217 net.cpp:141] Setting up inception_4d/relu_5x5_reduce
I0403 04:43:26.666833 26217 net.cpp:148] Top shape: 24 32 14 14 (150528)
I0403 04:43:26.666847 26217 net.cpp:156] Memory required for data: 1132847040
I0403 04:43:26.666862 26217 layer_factory.hpp:77] Creating layer inception_4d/5x5
I0403 04:43:26.666884 26217 net.cpp:91] Creating Layer inception_4d/5x5
I0403 04:43:26.666903 26217 net.cpp:425] inception_4d/5x5 <- inception_4d/5x5_reduce
I0403 04:43:26.666925 26217 net.cpp:399] inception_4d/5x5 -> inception_4d/5x5
I0403 04:43:26.667431 26217 net.cpp:141] Setting up inception_4d/5x5
I0403 04:43:26.667457 26217 net.cpp:148] Top shape: 24 64 14 14 (301056)
I0403 04:43:26.667474 26217 net.cpp:156] Memory required for data: 1134051264
I0403 04:43:26.667491 26217 layer_factory.hpp:77] Creating layer inception_4d/relu_5x5
I0403 04:43:26.667511 26217 net.cpp:91] Creating Layer inception_4d/relu_5x5
I0403 04:43:26.667528 26217 net.cpp:425] inception_4d/relu_5x5 <- inception_4d/5x5
I0403 04:43:26.667547 26217 net.cpp:386] inception_4d/relu_5x5 -> inception_4d/5x5 (in-place)
I0403 04:43:26.667567 26217 net.cpp:141] Setting up inception_4d/relu_5x5
I0403 04:43:26.667584 26217 net.cpp:148] Top shape: 24 64 14 14 (301056)
I0403 04:43:26.667600 26217 net.cpp:156] Memory required for data: 1135255488
I0403 04:43:26.667615 26217 layer_factory.hpp:77] Creating layer inception_4d/pool
I0403 04:43:26.667649 26217 net.cpp:91] Creating Layer inception_4d/pool
I0403 04:43:26.667668 26217 net.cpp:425] inception_4d/pool <- inception_4c/output_inception_4c/output_0_split_3
I0403 04:43:26.667687 26217 net.cpp:399] inception_4d/pool -> inception_4d/pool
I0403 04:43:26.667739 26217 net.cpp:141] Setting up inception_4d/pool
I0403 04:43:26.667764 26217 net.cpp:148] Top shape: 24 512 14 14 (2408448)
I0403 04:43:26.667780 26217 net.cpp:156] Memory required for data: 1144889280
I0403 04:43:26.667794 26217 layer_factory.hpp:77] Creating layer inception_4d/pool_proj
I0403 04:43:26.667816 26217 net.cpp:91] Creating Layer inception_4d/pool_proj
I0403 04:43:26.667835 26217 net.cpp:425] inception_4d/pool_proj <- inception_4d/pool
I0403 04:43:26.667855 26217 net.cpp:399] inception_4d/pool_proj -> inception_4d/pool_proj
I0403 04:43:26.668802 26217 net.cpp:141] Setting up inception_4d/pool_proj
I0403 04:43:26.668830 26217 net.cpp:148] Top shape: 24 64 14 14 (301056)
I0403 04:43:26.668846 26217 net.cpp:156] Memory required for data: 1146093504
I0403 04:43:26.668866 26217 layer_factory.hpp:77] Creating layer inception_4d/relu_pool_proj
I0403 04:43:26.668885 26217 net.cpp:91] Creating Layer inception_4d/relu_pool_proj
I0403 04:43:26.668901 26217 net.cpp:425] inception_4d/relu_pool_proj <- inception_4d/pool_proj
I0403 04:43:26.668922 26217 net.cpp:386] inception_4d/relu_pool_proj -> inception_4d/pool_proj (in-place)
I0403 04:43:26.668943 26217 net.cpp:141] Setting up inception_4d/relu_pool_proj
I0403 04:43:26.668962 26217 net.cpp:148] Top shape: 24 64 14 14 (301056)
I0403 04:43:26.668977 26217 net.cpp:156] Memory required for data: 1147297728
I0403 04:43:26.668992 26217 layer_factory.hpp:77] Creating layer inception_4d/output
I0403 04:43:26.669008 26217 net.cpp:91] Creating Layer inception_4d/output
I0403 04:43:26.669024 26217 net.cpp:425] inception_4d/output <- inception_4d/1x1
I0403 04:43:26.669041 26217 net.cpp:425] inception_4d/output <- inception_4d/3x3
I0403 04:43:26.669057 26217 net.cpp:425] inception_4d/output <- inception_4d/5x5
I0403 04:43:26.669075 26217 net.cpp:425] inception_4d/output <- inception_4d/pool_proj
I0403 04:43:26.669091 26217 net.cpp:399] inception_4d/output -> inception_4d/output
I0403 04:43:26.669131 26217 net.cpp:141] Setting up inception_4d/output
I0403 04:43:26.669154 26217 net.cpp:148] Top shape: 24 528 14 14 (2483712)
I0403 04:43:26.669169 26217 net.cpp:156] Memory required for data: 1157232576
I0403 04:43:26.669185 26217 layer_factory.hpp:77] Creating layer inception_4d/output_inception_4d/output_0_split
I0403 04:43:26.669203 26217 net.cpp:91] Creating Layer inception_4d/output_inception_4d/output_0_split
I0403 04:43:26.669229 26217 net.cpp:425] inception_4d/output_inception_4d/output_0_split <- inception_4d/output
I0403 04:43:26.669247 26217 net.cpp:399] inception_4d/output_inception_4d/output_0_split -> inception_4d/output_inception_4d/output_0_split_0
I0403 04:43:26.669267 26217 net.cpp:399] inception_4d/output_inception_4d/output_0_split -> inception_4d/output_inception_4d/output_0_split_1
I0403 04:43:26.669289 26217 net.cpp:399] inception_4d/output_inception_4d/output_0_split -> inception_4d/output_inception_4d/output_0_split_2
I0403 04:43:26.669311 26217 net.cpp:399] inception_4d/output_inception_4d/output_0_split -> inception_4d/output_inception_4d/output_0_split_3
I0403 04:43:26.669332 26217 net.cpp:399] inception_4d/output_inception_4d/output_0_split -> inception_4d/output_inception_4d/output_0_split_4
I0403 04:43:26.669411 26217 net.cpp:141] Setting up inception_4d/output_inception_4d/output_0_split
I0403 04:43:26.669435 26217 net.cpp:148] Top shape: 24 528 14 14 (2483712)
I0403 04:43:26.669451 26217 net.cpp:148] Top shape: 24 528 14 14 (2483712)
I0403 04:43:26.669466 26217 net.cpp:148] Top shape: 24 528 14 14 (2483712)
I0403 04:43:26.669482 26217 net.cpp:148] Top shape: 24 528 14 14 (2483712)
I0403 04:43:26.669498 26217 net.cpp:148] Top shape: 24 528 14 14 (2483712)
I0403 04:43:26.669512 26217 net.cpp:156] Memory required for data: 1206906816
I0403 04:43:26.669543 26217 layer_factory.hpp:77] Creating layer loss2/ave_pool
I0403 04:43:26.669562 26217 net.cpp:91] Creating Layer loss2/ave_pool
I0403 04:43:26.669579 26217 net.cpp:425] loss2/ave_pool <- inception_4d/output_inception_4d/output_0_split_0
I0403 04:43:26.669600 26217 net.cpp:399] loss2/ave_pool -> loss2/ave_pool
I0403 04:43:26.669639 26217 net.cpp:141] Setting up loss2/ave_pool
I0403 04:43:26.669663 26217 net.cpp:148] Top shape: 24 528 4 4 (202752)
I0403 04:43:26.669677 26217 net.cpp:156] Memory required for data: 1207717824
I0403 04:43:26.669692 26217 layer_factory.hpp:77] Creating layer loss2/conv
I0403 04:43:26.669715 26217 net.cpp:91] Creating Layer loss2/conv
I0403 04:43:26.669734 26217 net.cpp:425] loss2/conv <- loss2/ave_pool
I0403 04:43:26.669755 26217 net.cpp:399] loss2/conv -> loss2/conv
I0403 04:43:26.670850 26217 net.cpp:141] Setting up loss2/conv
I0403 04:43:26.670878 26217 net.cpp:148] Top shape: 24 128 4 4 (49152)
I0403 04:43:26.670894 26217 net.cpp:156] Memory required for data: 1207914432
I0403 04:43:26.670913 26217 layer_factory.hpp:77] Creating layer loss2/relu_conv
I0403 04:43:26.670934 26217 net.cpp:91] Creating Layer loss2/relu_conv
I0403 04:43:26.670950 26217 net.cpp:425] loss2/relu_conv <- loss2/conv
I0403 04:43:26.670969 26217 net.cpp:386] loss2/relu_conv -> loss2/conv (in-place)
I0403 04:43:26.670989 26217 net.cpp:141] Setting up loss2/relu_conv
I0403 04:43:26.671006 26217 net.cpp:148] Top shape: 24 128 4 4 (49152)
I0403 04:43:26.671021 26217 net.cpp:156] Memory required for data: 1208111040
I0403 04:43:26.671035 26217 layer_factory.hpp:77] Creating layer loss2/fc
I0403 04:43:26.671057 26217 net.cpp:91] Creating Layer loss2/fc
I0403 04:43:26.671075 26217 net.cpp:425] loss2/fc <- loss2/conv
I0403 04:43:26.671095 26217 net.cpp:399] loss2/fc -> loss2/fc
I0403 04:43:26.686058 26217 net.cpp:141] Setting up loss2/fc
I0403 04:43:26.686092 26217 net.cpp:148] Top shape: 24 1024 (24576)
I0403 04:43:26.686110 26217 net.cpp:156] Memory required for data: 1208209344
I0403 04:43:26.686127 26217 layer_factory.hpp:77] Creating layer loss2/relu_fc
I0403 04:43:26.686144 26217 net.cpp:91] Creating Layer loss2/relu_fc
I0403 04:43:26.686161 26217 net.cpp:425] loss2/relu_fc <- loss2/fc
I0403 04:43:26.686179 26217 net.cpp:386] loss2/relu_fc -> loss2/fc (in-place)
I0403 04:43:26.686202 26217 net.cpp:141] Setting up loss2/relu_fc
I0403 04:43:26.686223 26217 net.cpp:148] Top shape: 24 1024 (24576)
I0403 04:43:26.686238 26217 net.cpp:156] Memory required for data: 1208307648
I0403 04:43:26.686250 26217 layer_factory.hpp:77] Creating layer loss2/drop_fc
I0403 04:43:26.686274 26217 net.cpp:91] Creating Layer loss2/drop_fc
I0403 04:43:26.686288 26217 net.cpp:425] loss2/drop_fc <- loss2/fc
I0403 04:43:26.686305 26217 net.cpp:386] loss2/drop_fc -> loss2/fc (in-place)
I0403 04:43:26.686345 26217 net.cpp:141] Setting up loss2/drop_fc
I0403 04:43:26.686367 26217 net.cpp:148] Top shape: 24 1024 (24576)
I0403 04:43:26.686381 26217 net.cpp:156] Memory required for data: 1208405952
I0403 04:43:26.686395 26217 layer_factory.hpp:77] Creating layer loss2/classifier_plantvillage
I0403 04:43:26.686413 26217 net.cpp:91] Creating Layer loss2/classifier_plantvillage
I0403 04:43:26.686429 26217 net.cpp:425] loss2/classifier_plantvillage <- loss2/fc
I0403 04:43:26.686450 26217 net.cpp:399] loss2/classifier_plantvillage -> loss2/classifier_plantvillage
I0403 04:43:26.686758 26217 net.cpp:141] Setting up loss2/classifier_plantvillage
I0403 04:43:26.686782 26217 net.cpp:148] Top shape: 24 38 (912)
I0403 04:43:26.686797 26217 net.cpp:156] Memory required for data: 1208409600
I0403 04:43:26.686815 26217 layer_factory.hpp:77] Creating layer inception_4e/1x1
I0403 04:43:26.686838 26217 net.cpp:91] Creating Layer inception_4e/1x1
I0403 04:43:26.686856 26217 net.cpp:425] inception_4e/1x1 <- inception_4d/output_inception_4d/output_0_split_1
I0403 04:43:26.686875 26217 net.cpp:399] inception_4e/1x1 -> inception_4e/1x1
I0403 04:43:26.687808 26217 net.cpp:141] Setting up inception_4e/1x1
I0403 04:43:26.687837 26217 net.cpp:148] Top shape: 24 256 14 14 (1204224)
I0403 04:43:26.687867 26217 net.cpp:156] Memory required for data: 1213226496
I0403 04:43:26.687885 26217 layer_factory.hpp:77] Creating layer inception_4e/relu_1x1
I0403 04:43:26.687903 26217 net.cpp:91] Creating Layer inception_4e/relu_1x1
I0403 04:43:26.687917 26217 net.cpp:425] inception_4e/relu_1x1 <- inception_4e/1x1
I0403 04:43:26.687938 26217 net.cpp:386] inception_4e/relu_1x1 -> inception_4e/1x1 (in-place)
I0403 04:43:26.687958 26217 net.cpp:141] Setting up inception_4e/relu_1x1
I0403 04:43:26.687975 26217 net.cpp:148] Top shape: 24 256 14 14 (1204224)
I0403 04:43:26.687990 26217 net.cpp:156] Memory required for data: 1218043392
I0403 04:43:26.688004 26217 layer_factory.hpp:77] Creating layer inception_4e/3x3_reduce
I0403 04:43:26.688024 26217 net.cpp:91] Creating Layer inception_4e/3x3_reduce
I0403 04:43:26.688038 26217 net.cpp:425] inception_4e/3x3_reduce <- inception_4d/output_inception_4d/output_0_split_2
I0403 04:43:26.688060 26217 net.cpp:399] inception_4e/3x3_reduce -> inception_4e/3x3_reduce
I0403 04:43:26.689195 26217 net.cpp:141] Setting up inception_4e/3x3_reduce
I0403 04:43:26.689226 26217 net.cpp:148] Top shape: 24 160 14 14 (752640)
I0403 04:43:26.689244 26217 net.cpp:156] Memory required for data: 1221053952
I0403 04:43:26.689270 26217 layer_factory.hpp:77] Creating layer inception_4e/relu_3x3_reduce
I0403 04:43:26.689288 26217 net.cpp:91] Creating Layer inception_4e/relu_3x3_reduce
I0403 04:43:26.689306 26217 net.cpp:425] inception_4e/relu_3x3_reduce <- inception_4e/3x3_reduce
I0403 04:43:26.689322 26217 net.cpp:386] inception_4e/relu_3x3_reduce -> inception_4e/3x3_reduce (in-place)
I0403 04:43:26.689342 26217 net.cpp:141] Setting up inception_4e/relu_3x3_reduce
I0403 04:43:26.689359 26217 net.cpp:148] Top shape: 24 160 14 14 (752640)
I0403 04:43:26.689373 26217 net.cpp:156] Memory required for data: 1224064512
I0403 04:43:26.689388 26217 layer_factory.hpp:77] Creating layer inception_4e/3x3
I0403 04:43:26.689414 26217 net.cpp:91] Creating Layer inception_4e/3x3
I0403 04:43:26.689431 26217 net.cpp:425] inception_4e/3x3 <- inception_4e/3x3_reduce
I0403 04:43:26.689451 26217 net.cpp:399] inception_4e/3x3 -> inception_4e/3x3
I0403 04:43:26.692975 26217 net.cpp:141] Setting up inception_4e/3x3
I0403 04:43:26.693001 26217 net.cpp:148] Top shape: 24 320 14 14 (1505280)
I0403 04:43:26.693016 26217 net.cpp:156] Memory required for data: 1230085632
I0403 04:43:26.693032 26217 layer_factory.hpp:77] Creating layer inception_4e/relu_3x3
I0403 04:43:26.693051 26217 net.cpp:91] Creating Layer inception_4e/relu_3x3
I0403 04:43:26.693068 26217 net.cpp:425] inception_4e/relu_3x3 <- inception_4e/3x3
I0403 04:43:26.693089 26217 net.cpp:386] inception_4e/relu_3x3 -> inception_4e/3x3 (in-place)
I0403 04:43:26.693107 26217 net.cpp:141] Setting up inception_4e/relu_3x3
I0403 04:43:26.693125 26217 net.cpp:148] Top shape: 24 320 14 14 (1505280)
I0403 04:43:26.693138 26217 net.cpp:156] Memory required for data: 1236106752
I0403 04:43:26.693152 26217 layer_factory.hpp:77] Creating layer inception_4e/5x5_reduce
I0403 04:43:26.693174 26217 net.cpp:91] Creating Layer inception_4e/5x5_reduce
I0403 04:43:26.693192 26217 net.cpp:425] inception_4e/5x5_reduce <- inception_4d/output_inception_4d/output_0_split_3
I0403 04:43:26.693213 26217 net.cpp:399] inception_4e/5x5_reduce -> inception_4e/5x5_reduce
I0403 04:43:26.693506 26217 net.cpp:141] Setting up inception_4e/5x5_reduce
I0403 04:43:26.693531 26217 net.cpp:148] Top shape: 24 32 14 14 (150528)
I0403 04:43:26.693545 26217 net.cpp:156] Memory required for data: 1236708864
I0403 04:43:26.693562 26217 layer_factory.hpp:77] Creating layer inception_4e/relu_5x5_reduce
I0403 04:43:26.693581 26217 net.cpp:91] Creating Layer inception_4e/relu_5x5_reduce
I0403 04:43:26.693598 26217 net.cpp:425] inception_4e/relu_5x5_reduce <- inception_4e/5x5_reduce
I0403 04:43:26.693615 26217 net.cpp:386] inception_4e/relu_5x5_reduce -> inception_4e/5x5_reduce (in-place)
I0403 04:43:26.693634 26217 net.cpp:141] Setting up inception_4e/relu_5x5_reduce
I0403 04:43:26.693651 26217 net.cpp:148] Top shape: 24 32 14 14 (150528)
I0403 04:43:26.693680 26217 net.cpp:156] Memory required for data: 1237310976
I0403 04:43:26.693694 26217 layer_factory.hpp:77] Creating layer inception_4e/5x5
I0403 04:43:26.693717 26217 net.cpp:91] Creating Layer inception_4e/5x5
I0403 04:43:26.693734 26217 net.cpp:425] inception_4e/5x5 <- inception_4e/5x5_reduce
I0403 04:43:26.693753 26217 net.cpp:399] inception_4e/5x5 -> inception_4e/5x5
I0403 04:43:26.694481 26217 net.cpp:141] Setting up inception_4e/5x5
I0403 04:43:26.694506 26217 net.cpp:148] Top shape: 24 128 14 14 (602112)
I0403 04:43:26.694520 26217 net.cpp:156] Memory required for data: 1239719424
I0403 04:43:26.694538 26217 layer_factory.hpp:77] Creating layer inception_4e/relu_5x5
I0403 04:43:26.694556 26217 net.cpp:91] Creating Layer inception_4e/relu_5x5
I0403 04:43:26.694571 26217 net.cpp:425] inception_4e/relu_5x5 <- inception_4e/5x5
I0403 04:43:26.694591 26217 net.cpp:386] inception_4e/relu_5x5 -> inception_4e/5x5 (in-place)
I0403 04:43:26.694610 26217 net.cpp:141] Setting up inception_4e/relu_5x5
I0403 04:43:26.694628 26217 net.cpp:148] Top shape: 24 128 14 14 (602112)
I0403 04:43:26.694643 26217 net.cpp:156] Memory required for data: 1242127872
I0403 04:43:26.694656 26217 layer_factory.hpp:77] Creating layer inception_4e/pool
I0403 04:43:26.694687 26217 net.cpp:91] Creating Layer inception_4e/pool
I0403 04:43:26.694706 26217 net.cpp:425] inception_4e/pool <- inception_4d/output_inception_4d/output_0_split_4
I0403 04:43:26.694725 26217 net.cpp:399] inception_4e/pool -> inception_4e/pool
I0403 04:43:26.694777 26217 net.cpp:141] Setting up inception_4e/pool
I0403 04:43:26.694799 26217 net.cpp:148] Top shape: 24 528 14 14 (2483712)
I0403 04:43:26.694813 26217 net.cpp:156] Memory required for data: 1252062720
I0403 04:43:26.694828 26217 layer_factory.hpp:77] Creating layer inception_4e/pool_proj
I0403 04:43:26.694851 26217 net.cpp:91] Creating Layer inception_4e/pool_proj
I0403 04:43:26.694867 26217 net.cpp:425] inception_4e/pool_proj <- inception_4e/pool
I0403 04:43:26.694886 26217 net.cpp:399] inception_4e/pool_proj -> inception_4e/pool_proj
I0403 04:43:26.695436 26217 net.cpp:141] Setting up inception_4e/pool_proj
I0403 04:43:26.695461 26217 net.cpp:148] Top shape: 24 128 14 14 (602112)
I0403 04:43:26.695474 26217 net.cpp:156] Memory required for data: 1254471168
I0403 04:43:26.695490 26217 layer_factory.hpp:77] Creating layer inception_4e/relu_pool_proj
I0403 04:43:26.695508 26217 net.cpp:91] Creating Layer inception_4e/relu_pool_proj
I0403 04:43:26.695524 26217 net.cpp:425] inception_4e/relu_pool_proj <- inception_4e/pool_proj
I0403 04:43:26.695543 26217 net.cpp:386] inception_4e/relu_pool_proj -> inception_4e/pool_proj (in-place)
I0403 04:43:26.695562 26217 net.cpp:141] Setting up inception_4e/relu_pool_proj
I0403 04:43:26.695580 26217 net.cpp:148] Top shape: 24 128 14 14 (602112)
I0403 04:43:26.695592 26217 net.cpp:156] Memory required for data: 1256879616
I0403 04:43:26.695606 26217 layer_factory.hpp:77] Creating layer inception_4e/output
I0403 04:43:26.695623 26217 net.cpp:91] Creating Layer inception_4e/output
I0403 04:43:26.695638 26217 net.cpp:425] inception_4e/output <- inception_4e/1x1
I0403 04:43:26.695654 26217 net.cpp:425] inception_4e/output <- inception_4e/3x3
I0403 04:43:26.695669 26217 net.cpp:425] inception_4e/output <- inception_4e/5x5
I0403 04:43:26.695684 26217 net.cpp:425] inception_4e/output <- inception_4e/pool_proj
I0403 04:43:26.695701 26217 net.cpp:399] inception_4e/output -> inception_4e/output
I0403 04:43:26.695740 26217 net.cpp:141] Setting up inception_4e/output
I0403 04:43:26.695762 26217 net.cpp:148] Top shape: 24 832 14 14 (3913728)
I0403 04:43:26.695776 26217 net.cpp:156] Memory required for data: 1272534528
I0403 04:43:26.695790 26217 layer_factory.hpp:77] Creating layer pool4/3x3_s2
I0403 04:43:26.695806 26217 net.cpp:91] Creating Layer pool4/3x3_s2
I0403 04:43:26.695822 26217 net.cpp:425] pool4/3x3_s2 <- inception_4e/output
I0403 04:43:26.695844 26217 net.cpp:399] pool4/3x3_s2 -> pool4/3x3_s2
I0403 04:43:26.695894 26217 net.cpp:141] Setting up pool4/3x3_s2
I0403 04:43:26.695929 26217 net.cpp:148] Top shape: 24 832 7 7 (978432)
I0403 04:43:26.695945 26217 net.cpp:156] Memory required for data: 1276448256
I0403 04:43:26.695957 26217 layer_factory.hpp:77] Creating layer pool4/3x3_s2_pool4/3x3_s2_0_split
I0403 04:43:26.695976 26217 net.cpp:91] Creating Layer pool4/3x3_s2_pool4/3x3_s2_0_split
I0403 04:43:26.695991 26217 net.cpp:425] pool4/3x3_s2_pool4/3x3_s2_0_split <- pool4/3x3_s2
I0403 04:43:26.696007 26217 net.cpp:399] pool4/3x3_s2_pool4/3x3_s2_0_split -> pool4/3x3_s2_pool4/3x3_s2_0_split_0
I0403 04:43:26.696027 26217 net.cpp:399] pool4/3x3_s2_pool4/3x3_s2_0_split -> pool4/3x3_s2_pool4/3x3_s2_0_split_1
I0403 04:43:26.696046 26217 net.cpp:399] pool4/3x3_s2_pool4/3x3_s2_0_split -> pool4/3x3_s2_pool4/3x3_s2_0_split_2
I0403 04:43:26.696068 26217 net.cpp:399] pool4/3x3_s2_pool4/3x3_s2_0_split -> pool4/3x3_s2_pool4/3x3_s2_0_split_3
I0403 04:43:26.696133 26217 net.cpp:141] Setting up pool4/3x3_s2_pool4/3x3_s2_0_split
I0403 04:43:26.696156 26217 net.cpp:148] Top shape: 24 832 7 7 (978432)
I0403 04:43:26.696171 26217 net.cpp:148] Top shape: 24 832 7 7 (978432)
I0403 04:43:26.696187 26217 net.cpp:148] Top shape: 24 832 7 7 (978432)
I0403 04:43:26.696202 26217 net.cpp:148] Top shape: 24 832 7 7 (978432)
I0403 04:43:26.696219 26217 net.cpp:156] Memory required for data: 1292103168
I0403 04:43:26.696234 26217 layer_factory.hpp:77] Creating layer inception_5a/1x1
I0403 04:43:26.696257 26217 net.cpp:91] Creating Layer inception_5a/1x1
I0403 04:43:26.696276 26217 net.cpp:425] inception_5a/1x1 <- pool4/3x3_s2_pool4/3x3_s2_0_split_0
I0403 04:43:26.696297 26217 net.cpp:399] inception_5a/1x1 -> inception_5a/1x1
I0403 04:43:26.698081 26217 net.cpp:141] Setting up inception_5a/1x1
I0403 04:43:26.698110 26217 net.cpp:148] Top shape: 24 256 7 7 (301056)
I0403 04:43:26.698125 26217 net.cpp:156] Memory required for data: 1293307392
I0403 04:43:26.698143 26217 layer_factory.hpp:77] Creating layer inception_5a/relu_1x1
I0403 04:43:26.698161 26217 net.cpp:91] Creating Layer inception_5a/relu_1x1
I0403 04:43:26.698178 26217 net.cpp:425] inception_5a/relu_1x1 <- inception_5a/1x1
I0403 04:43:26.698195 26217 net.cpp:386] inception_5a/relu_1x1 -> inception_5a/1x1 (in-place)
I0403 04:43:26.698218 26217 net.cpp:141] Setting up inception_5a/relu_1x1
I0403 04:43:26.698237 26217 net.cpp:148] Top shape: 24 256 7 7 (301056)
I0403 04:43:26.698251 26217 net.cpp:156] Memory required for data: 1294511616
I0403 04:43:26.698263 26217 layer_factory.hpp:77] Creating layer inception_5a/3x3_reduce
I0403 04:43:26.698287 26217 net.cpp:91] Creating Layer inception_5a/3x3_reduce
I0403 04:43:26.698302 26217 net.cpp:425] inception_5a/3x3_reduce <- pool4/3x3_s2_pool4/3x3_s2_0_split_1
I0403 04:43:26.698320 26217 net.cpp:399] inception_5a/3x3_reduce -> inception_5a/3x3_reduce
I0403 04:43:26.699702 26217 net.cpp:141] Setting up inception_5a/3x3_reduce
I0403 04:43:26.699728 26217 net.cpp:148] Top shape: 24 160 7 7 (188160)
I0403 04:43:26.699743 26217 net.cpp:156] Memory required for data: 1295264256
I0403 04:43:26.699761 26217 layer_factory.hpp:77] Creating layer inception_5a/relu_3x3_reduce
I0403 04:43:26.699781 26217 net.cpp:91] Creating Layer inception_5a/relu_3x3_reduce
I0403 04:43:26.699798 26217 net.cpp:425] inception_5a/relu_3x3_reduce <- inception_5a/3x3_reduce
I0403 04:43:26.699815 26217 net.cpp:386] inception_5a/relu_3x3_reduce -> inception_5a/3x3_reduce (in-place)
I0403 04:43:26.699833 26217 net.cpp:141] Setting up inception_5a/relu_3x3_reduce
I0403 04:43:26.699851 26217 net.cpp:148] Top shape: 24 160 7 7 (188160)
I0403 04:43:26.699865 26217 net.cpp:156] Memory required for data: 1296016896
I0403 04:43:26.699879 26217 layer_factory.hpp:77] Creating layer inception_5a/3x3
I0403 04:43:26.699901 26217 net.cpp:91] Creating Layer inception_5a/3x3
I0403 04:43:26.699918 26217 net.cpp:425] inception_5a/3x3 <- inception_5a/3x3_reduce
I0403 04:43:26.699939 26217 net.cpp:399] inception_5a/3x3 -> inception_5a/3x3
I0403 04:43:26.703474 26217 net.cpp:141] Setting up inception_5a/3x3
I0403 04:43:26.703502 26217 net.cpp:148] Top shape: 24 320 7 7 (376320)
I0403 04:43:26.703531 26217 net.cpp:156] Memory required for data: 1297522176
I0403 04:43:26.703549 26217 layer_factory.hpp:77] Creating layer inception_5a/relu_3x3
I0403 04:43:26.703567 26217 net.cpp:91] Creating Layer inception_5a/relu_3x3
I0403 04:43:26.703583 26217 net.cpp:425] inception_5a/relu_3x3 <- inception_5a/3x3
I0403 04:43:26.703605 26217 net.cpp:386] inception_5a/relu_3x3 -> inception_5a/3x3 (in-place)
I0403 04:43:26.703625 26217 net.cpp:141] Setting up inception_5a/relu_3x3
I0403 04:43:26.703642 26217 net.cpp:148] Top shape: 24 320 7 7 (376320)
I0403 04:43:26.703656 26217 net.cpp:156] Memory required for data: 1299027456
I0403 04:43:26.703670 26217 layer_factory.hpp:77] Creating layer inception_5a/5x5_reduce
I0403 04:43:26.703691 26217 net.cpp:91] Creating Layer inception_5a/5x5_reduce
I0403 04:43:26.703709 26217 net.cpp:425] inception_5a/5x5_reduce <- pool4/3x3_s2_pool4/3x3_s2_0_split_2
I0403 04:43:26.703728 26217 net.cpp:399] inception_5a/5x5_reduce -> inception_5a/5x5_reduce
I0403 04:43:26.704084 26217 net.cpp:141] Setting up inception_5a/5x5_reduce
I0403 04:43:26.704108 26217 net.cpp:148] Top shape: 24 32 7 7 (37632)
I0403 04:43:26.704123 26217 net.cpp:156] Memory required for data: 1299177984
I0403 04:43:26.704140 26217 layer_factory.hpp:77] Creating layer inception_5a/relu_5x5_reduce
I0403 04:43:26.704159 26217 net.cpp:91] Creating Layer inception_5a/relu_5x5_reduce
I0403 04:43:26.704174 26217 net.cpp:425] inception_5a/relu_5x5_reduce <- inception_5a/5x5_reduce
I0403 04:43:26.704193 26217 net.cpp:386] inception_5a/relu_5x5_reduce -> inception_5a/5x5_reduce (in-place)
I0403 04:43:26.704218 26217 net.cpp:141] Setting up inception_5a/relu_5x5_reduce
I0403 04:43:26.704236 26217 net.cpp:148] Top shape: 24 32 7 7 (37632)
I0403 04:43:26.704251 26217 net.cpp:156] Memory required for data: 1299328512
I0403 04:43:26.704263 26217 layer_factory.hpp:77] Creating layer inception_5a/5x5
I0403 04:43:26.704287 26217 net.cpp:91] Creating Layer inception_5a/5x5
I0403 04:43:26.704303 26217 net.cpp:425] inception_5a/5x5 <- inception_5a/5x5_reduce
I0403 04:43:26.704322 26217 net.cpp:399] inception_5a/5x5 -> inception_5a/5x5
I0403 04:43:26.705051 26217 net.cpp:141] Setting up inception_5a/5x5
I0403 04:43:26.705088 26217 net.cpp:148] Top shape: 24 128 7 7 (150528)
I0403 04:43:26.705103 26217 net.cpp:156] Memory required for data: 1299930624
I0403 04:43:26.705121 26217 layer_factory.hpp:77] Creating layer inception_5a/relu_5x5
I0403 04:43:26.705138 26217 net.cpp:91] Creating Layer inception_5a/relu_5x5
I0403 04:43:26.705155 26217 net.cpp:425] inception_5a/relu_5x5 <- inception_5a/5x5
I0403 04:43:26.705173 26217 net.cpp:386] inception_5a/relu_5x5 -> inception_5a/5x5 (in-place)
I0403 04:43:26.705193 26217 net.cpp:141] Setting up inception_5a/relu_5x5
I0403 04:43:26.705215 26217 net.cpp:148] Top shape: 24 128 7 7 (150528)
I0403 04:43:26.705231 26217 net.cpp:156] Memory required for data: 1300532736
I0403 04:43:26.705245 26217 layer_factory.hpp:77] Creating layer inception_5a/pool
I0403 04:43:26.705263 26217 net.cpp:91] Creating Layer inception_5a/pool
I0403 04:43:26.705278 26217 net.cpp:425] inception_5a/pool <- pool4/3x3_s2_pool4/3x3_s2_0_split_3
I0403 04:43:26.705296 26217 net.cpp:399] inception_5a/pool -> inception_5a/pool
I0403 04:43:26.705355 26217 net.cpp:141] Setting up inception_5a/pool
I0403 04:43:26.705379 26217 net.cpp:148] Top shape: 24 832 7 7 (978432)
I0403 04:43:26.705392 26217 net.cpp:156] Memory required for data: 1304446464
I0403 04:43:26.705407 26217 layer_factory.hpp:77] Creating layer inception_5a/pool_proj
I0403 04:43:26.705430 26217 net.cpp:91] Creating Layer inception_5a/pool_proj
I0403 04:43:26.705446 26217 net.cpp:425] inception_5a/pool_proj <- inception_5a/pool
I0403 04:43:26.705467 26217 net.cpp:399] inception_5a/pool_proj -> inception_5a/pool_proj
I0403 04:43:26.706727 26217 net.cpp:141] Setting up inception_5a/pool_proj
I0403 04:43:26.706753 26217 net.cpp:148] Top shape: 24 128 7 7 (150528)
I0403 04:43:26.706768 26217 net.cpp:156] Memory required for data: 1305048576
I0403 04:43:26.706800 26217 layer_factory.hpp:77] Creating layer inception_5a/relu_pool_proj
I0403 04:43:26.706820 26217 net.cpp:91] Creating Layer inception_5a/relu_pool_proj
I0403 04:43:26.706836 26217 net.cpp:425] inception_5a/relu_pool_proj <- inception_5a/pool_proj
I0403 04:43:26.706854 26217 net.cpp:386] inception_5a/relu_pool_proj -> inception_5a/pool_proj (in-place)
I0403 04:43:26.706876 26217 net.cpp:141] Setting up inception_5a/relu_pool_proj
I0403 04:43:26.706892 26217 net.cpp:148] Top shape: 24 128 7 7 (150528)
I0403 04:43:26.706907 26217 net.cpp:156] Memory required for data: 1305650688
I0403 04:43:26.706920 26217 layer_factory.hpp:77] Creating layer inception_5a/output
I0403 04:43:26.706939 26217 net.cpp:91] Creating Layer inception_5a/output
I0403 04:43:26.706954 26217 net.cpp:425] inception_5a/output <- inception_5a/1x1
I0403 04:43:26.706970 26217 net.cpp:425] inception_5a/output <- inception_5a/3x3
I0403 04:43:26.706986 26217 net.cpp:425] inception_5a/output <- inception_5a/5x5
I0403 04:43:26.707002 26217 net.cpp:425] inception_5a/output <- inception_5a/pool_proj
I0403 04:43:26.707020 26217 net.cpp:399] inception_5a/output -> inception_5a/output
I0403 04:43:26.707058 26217 net.cpp:141] Setting up inception_5a/output
I0403 04:43:26.707080 26217 net.cpp:148] Top shape: 24 832 7 7 (978432)
I0403 04:43:26.707094 26217 net.cpp:156] Memory required for data: 1309564416
I0403 04:43:26.707108 26217 layer_factory.hpp:77] Creating layer inception_5a/output_inception_5a/output_0_split
I0403 04:43:26.707129 26217 net.cpp:91] Creating Layer inception_5a/output_inception_5a/output_0_split
I0403 04:43:26.707145 26217 net.cpp:425] inception_5a/output_inception_5a/output_0_split <- inception_5a/output
I0403 04:43:26.707162 26217 net.cpp:399] inception_5a/output_inception_5a/output_0_split -> inception_5a/output_inception_5a/output_0_split_0
I0403 04:43:26.707181 26217 net.cpp:399] inception_5a/output_inception_5a/output_0_split -> inception_5a/output_inception_5a/output_0_split_1
I0403 04:43:26.707201 26217 net.cpp:399] inception_5a/output_inception_5a/output_0_split -> inception_5a/output_inception_5a/output_0_split_2
I0403 04:43:26.707233 26217 net.cpp:399] inception_5a/output_inception_5a/output_0_split -> inception_5a/output_inception_5a/output_0_split_3
I0403 04:43:26.707304 26217 net.cpp:141] Setting up inception_5a/output_inception_5a/output_0_split
I0403 04:43:26.707326 26217 net.cpp:148] Top shape: 24 832 7 7 (978432)
I0403 04:43:26.707341 26217 net.cpp:148] Top shape: 24 832 7 7 (978432)
I0403 04:43:26.707355 26217 net.cpp:148] Top shape: 24 832 7 7 (978432)
I0403 04:43:26.707368 26217 net.cpp:148] Top shape: 24 832 7 7 (978432)
I0403 04:43:26.707382 26217 net.cpp:156] Memory required for data: 1325219328
I0403 04:43:26.707396 26217 layer_factory.hpp:77] Creating layer inception_5b/1x1
I0403 04:43:26.707415 26217 net.cpp:91] Creating Layer inception_5b/1x1
I0403 04:43:26.707433 26217 net.cpp:425] inception_5b/1x1 <- inception_5a/output_inception_5a/output_0_split_0
I0403 04:43:26.707453 26217 net.cpp:399] inception_5b/1x1 -> inception_5b/1x1
I0403 04:43:26.709858 26217 net.cpp:141] Setting up inception_5b/1x1
I0403 04:43:26.709885 26217 net.cpp:148] Top shape: 24 384 7 7 (451584)
I0403 04:43:26.709900 26217 net.cpp:156] Memory required for data: 1327025664
I0403 04:43:26.709918 26217 layer_factory.hpp:77] Creating layer inception_5b/relu_1x1
I0403 04:43:26.709940 26217 net.cpp:91] Creating Layer inception_5b/relu_1x1
I0403 04:43:26.709957 26217 net.cpp:425] inception_5b/relu_1x1 <- inception_5b/1x1
I0403 04:43:26.709974 26217 net.cpp:386] inception_5b/relu_1x1 -> inception_5b/1x1 (in-place)
I0403 04:43:26.709992 26217 net.cpp:141] Setting up inception_5b/relu_1x1
I0403 04:43:26.710008 26217 net.cpp:148] Top shape: 24 384 7 7 (451584)
I0403 04:43:26.710022 26217 net.cpp:156] Memory required for data: 1328832000
I0403 04:43:26.710036 26217 layer_factory.hpp:77] Creating layer inception_5b/3x3_reduce
I0403 04:43:26.710057 26217 net.cpp:91] Creating Layer inception_5b/3x3_reduce
I0403 04:43:26.710077 26217 net.cpp:425] inception_5b/3x3_reduce <- inception_5a/output_inception_5a/output_0_split_1
I0403 04:43:26.710108 26217 net.cpp:399] inception_5b/3x3_reduce -> inception_5b/3x3_reduce
I0403 04:43:26.711642 26217 net.cpp:141] Setting up inception_5b/3x3_reduce
I0403 04:43:26.711668 26217 net.cpp:148] Top shape: 24 192 7 7 (225792)
I0403 04:43:26.711683 26217 net.cpp:156] Memory required for data: 1329735168
I0403 04:43:26.711701 26217 layer_factory.hpp:77] Creating layer inception_5b/relu_3x3_reduce
I0403 04:43:26.711719 26217 net.cpp:91] Creating Layer inception_5b/relu_3x3_reduce
I0403 04:43:26.711737 26217 net.cpp:425] inception_5b/relu_3x3_reduce <- inception_5b/3x3_reduce
I0403 04:43:26.711755 26217 net.cpp:386] inception_5b/relu_3x3_reduce -> inception_5b/3x3_reduce (in-place)
I0403 04:43:26.711773 26217 net.cpp:141] Setting up inception_5b/relu_3x3_reduce
I0403 04:43:26.711791 26217 net.cpp:148] Top shape: 24 192 7 7 (225792)
I0403 04:43:26.711804 26217 net.cpp:156] Memory required for data: 1330638336
I0403 04:43:26.711818 26217 layer_factory.hpp:77] Creating layer inception_5b/3x3
I0403 04:43:26.711841 26217 net.cpp:91] Creating Layer inception_5b/3x3
I0403 04:43:26.711858 26217 net.cpp:425] inception_5b/3x3 <- inception_5b/3x3_reduce
I0403 04:43:26.711877 26217 net.cpp:399] inception_5b/3x3 -> inception_5b/3x3
I0403 04:43:26.716825 26217 net.cpp:141] Setting up inception_5b/3x3
I0403 04:43:26.716852 26217 net.cpp:148] Top shape: 24 384 7 7 (451584)
I0403 04:43:26.716868 26217 net.cpp:156] Memory required for data: 1332444672
I0403 04:43:26.716886 26217 layer_factory.hpp:77] Creating layer inception_5b/relu_3x3
I0403 04:43:26.716903 26217 net.cpp:91] Creating Layer inception_5b/relu_3x3
I0403 04:43:26.716919 26217 net.cpp:425] inception_5b/relu_3x3 <- inception_5b/3x3
I0403 04:43:26.716938 26217 net.cpp:386] inception_5b/relu_3x3 -> inception_5b/3x3 (in-place)
I0403 04:43:26.716958 26217 net.cpp:141] Setting up inception_5b/relu_3x3
I0403 04:43:26.716979 26217 net.cpp:148] Top shape: 24 384 7 7 (451584)
I0403 04:43:26.716994 26217 net.cpp:156] Memory required for data: 1334251008
I0403 04:43:26.717006 26217 layer_factory.hpp:77] Creating layer inception_5b/5x5_reduce
I0403 04:43:26.717025 26217 net.cpp:91] Creating Layer inception_5b/5x5_reduce
I0403 04:43:26.717041 26217 net.cpp:425] inception_5b/5x5_reduce <- inception_5a/output_inception_5a/output_0_split_2
I0403 04:43:26.717062 26217 net.cpp:399] inception_5b/5x5_reduce -> inception_5b/5x5_reduce
I0403 04:43:26.717504 26217 net.cpp:141] Setting up inception_5b/5x5_reduce
I0403 04:43:26.717530 26217 net.cpp:148] Top shape: 24 48 7 7 (56448)
I0403 04:43:26.717543 26217 net.cpp:156] Memory required for data: 1334476800
I0403 04:43:26.717561 26217 layer_factory.hpp:77] Creating layer inception_5b/relu_5x5_reduce
I0403 04:43:26.717578 26217 net.cpp:91] Creating Layer inception_5b/relu_5x5_reduce
I0403 04:43:26.717595 26217 net.cpp:425] inception_5b/relu_5x5_reduce <- inception_5b/5x5_reduce
I0403 04:43:26.717612 26217 net.cpp:386] inception_5b/relu_5x5_reduce -> inception_5b/5x5_reduce (in-place)
I0403 04:43:26.717630 26217 net.cpp:141] Setting up inception_5b/relu_5x5_reduce
I0403 04:43:26.717648 26217 net.cpp:148] Top shape: 24 48 7 7 (56448)
I0403 04:43:26.717661 26217 net.cpp:156] Memory required for data: 1334702592
I0403 04:43:26.717674 26217 layer_factory.hpp:77] Creating layer inception_5b/5x5
I0403 04:43:26.717696 26217 net.cpp:91] Creating Layer inception_5b/5x5
I0403 04:43:26.717713 26217 net.cpp:425] inception_5b/5x5 <- inception_5b/5x5_reduce
I0403 04:43:26.717735 26217 net.cpp:399] inception_5b/5x5 -> inception_5b/5x5
I0403 04:43:26.718741 26217 net.cpp:141] Setting up inception_5b/5x5
I0403 04:43:26.718767 26217 net.cpp:148] Top shape: 24 128 7 7 (150528)
I0403 04:43:26.718781 26217 net.cpp:156] Memory required for data: 1335304704
I0403 04:43:26.718798 26217 layer_factory.hpp:77] Creating layer inception_5b/relu_5x5
I0403 04:43:26.718818 26217 net.cpp:91] Creating Layer inception_5b/relu_5x5
I0403 04:43:26.718837 26217 net.cpp:425] inception_5b/relu_5x5 <- inception_5b/5x5
I0403 04:43:26.718869 26217 net.cpp:386] inception_5b/relu_5x5 -> inception_5b/5x5 (in-place)
I0403 04:43:26.718890 26217 net.cpp:141] Setting up inception_5b/relu_5x5
I0403 04:43:26.718909 26217 net.cpp:148] Top shape: 24 128 7 7 (150528)
I0403 04:43:26.718933 26217 net.cpp:156] Memory required for data: 1335906816
I0403 04:43:26.718947 26217 layer_factory.hpp:77] Creating layer inception_5b/pool
I0403 04:43:26.718964 26217 net.cpp:91] Creating Layer inception_5b/pool
I0403 04:43:26.718979 26217 net.cpp:425] inception_5b/pool <- inception_5a/output_inception_5a/output_0_split_3
I0403 04:43:26.718999 26217 net.cpp:399] inception_5b/pool -> inception_5b/pool
I0403 04:43:26.719050 26217 net.cpp:141] Setting up inception_5b/pool
I0403 04:43:26.719075 26217 net.cpp:148] Top shape: 24 832 7 7 (978432)
I0403 04:43:26.719090 26217 net.cpp:156] Memory required for data: 1339820544
I0403 04:43:26.719105 26217 layer_factory.hpp:77] Creating layer inception_5b/pool_proj
I0403 04:43:26.719125 26217 net.cpp:91] Creating Layer inception_5b/pool_proj
I0403 04:43:26.719141 26217 net.cpp:425] inception_5b/pool_proj <- inception_5b/pool
I0403 04:43:26.719162 26217 net.cpp:399] inception_5b/pool_proj -> inception_5b/pool_proj
I0403 04:43:26.720429 26217 net.cpp:141] Setting up inception_5b/pool_proj
I0403 04:43:26.720456 26217 net.cpp:148] Top shape: 24 128 7 7 (150528)
I0403 04:43:26.720471 26217 net.cpp:156] Memory required for data: 1340422656
I0403 04:43:26.720489 26217 layer_factory.hpp:77] Creating layer inception_5b/relu_pool_proj
I0403 04:43:26.720509 26217 net.cpp:91] Creating Layer inception_5b/relu_pool_proj
I0403 04:43:26.720525 26217 net.cpp:425] inception_5b/relu_pool_proj <- inception_5b/pool_proj
I0403 04:43:26.720542 26217 net.cpp:386] inception_5b/relu_pool_proj -> inception_5b/pool_proj (in-place)
I0403 04:43:26.720562 26217 net.cpp:141] Setting up inception_5b/relu_pool_proj
I0403 04:43:26.720579 26217 net.cpp:148] Top shape: 24 128 7 7 (150528)
I0403 04:43:26.720593 26217 net.cpp:156] Memory required for data: 1341024768
I0403 04:43:26.720607 26217 layer_factory.hpp:77] Creating layer inception_5b/output
I0403 04:43:26.720625 26217 net.cpp:91] Creating Layer inception_5b/output
I0403 04:43:26.720641 26217 net.cpp:425] inception_5b/output <- inception_5b/1x1
I0403 04:43:26.720657 26217 net.cpp:425] inception_5b/output <- inception_5b/3x3
I0403 04:43:26.720675 26217 net.cpp:425] inception_5b/output <- inception_5b/5x5
I0403 04:43:26.720690 26217 net.cpp:425] inception_5b/output <- inception_5b/pool_proj
I0403 04:43:26.720707 26217 net.cpp:399] inception_5b/output -> inception_5b/output
I0403 04:43:26.720743 26217 net.cpp:141] Setting up inception_5b/output
I0403 04:43:26.720768 26217 net.cpp:148] Top shape: 24 1024 7 7 (1204224)
I0403 04:43:26.720783 26217 net.cpp:156] Memory required for data: 1345841664
I0403 04:43:26.720798 26217 layer_factory.hpp:77] Creating layer pool5/7x7_s1
I0403 04:43:26.720814 26217 net.cpp:91] Creating Layer pool5/7x7_s1
I0403 04:43:26.720829 26217 net.cpp:425] pool5/7x7_s1 <- inception_5b/output
I0403 04:43:26.720847 26217 net.cpp:399] pool5/7x7_s1 -> pool5/7x7_s1
I0403 04:43:26.720885 26217 net.cpp:141] Setting up pool5/7x7_s1
I0403 04:43:26.720907 26217 net.cpp:148] Top shape: 24 1024 1 1 (24576)
I0403 04:43:26.720921 26217 net.cpp:156] Memory required for data: 1345939968
I0403 04:43:26.720937 26217 layer_factory.hpp:77] Creating layer pool5/drop_7x7_s1
I0403 04:43:26.720957 26217 net.cpp:91] Creating Layer pool5/drop_7x7_s1
I0403 04:43:26.720973 26217 net.cpp:425] pool5/drop_7x7_s1 <- pool5/7x7_s1
I0403 04:43:26.720990 26217 net.cpp:386] pool5/drop_7x7_s1 -> pool5/7x7_s1 (in-place)
I0403 04:43:26.721029 26217 net.cpp:141] Setting up pool5/drop_7x7_s1
I0403 04:43:26.721050 26217 net.cpp:148] Top shape: 24 1024 1 1 (24576)
I0403 04:43:26.721065 26217 net.cpp:156] Memory required for data: 1346038272
I0403 04:43:26.721077 26217 layer_factory.hpp:77] Creating layer loss3/classifier_plantvillage
I0403 04:43:26.721096 26217 net.cpp:91] Creating Layer loss3/classifier_plantvillage
I0403 04:43:26.721125 26217 net.cpp:425] loss3/classifier_plantvillage <- pool5/7x7_s1
I0403 04:43:26.721146 26217 net.cpp:399] loss3/classifier_plantvillage -> loss3/classifier_plantvillage
I0403 04:43:26.721473 26217 net.cpp:141] Setting up loss3/classifier_plantvillage
I0403 04:43:26.721498 26217 net.cpp:148] Top shape: 24 38 (912)
I0403 04:43:26.721513 26217 net.cpp:156] Memory required for data: 1346041920
I0403 04:43:26.721529 26217 layer_factory.hpp:77] Creating layer loss1/loss
I0403 04:43:26.721552 26217 net.cpp:91] Creating Layer loss1/loss
I0403 04:43:26.721570 26217 net.cpp:425] loss1/loss <- loss1/classifier_plantvillage
I0403 04:43:26.721585 26217 net.cpp:425] loss1/loss <- label_data_1_split_0
I0403 04:43:26.721603 26217 net.cpp:399] loss1/loss -> loss1/loss
…
I0403 04:43:26.730980 26217 net.cpp:313] The NetState phase (1) differed from the phase (0) specified by a rule in layer data
I0403 04:43:26.734668 26217 net.cpp:49] Initializing net from parameters: 
state {
  phase: TEST
}
layer {
  name: "data"
  type: "Data"
  top: "data"
  top: "label"
  include {
    phase: TEST
  }
  transform_param {
    mirror: false
    crop_size: 224
    mean_file: "/home/mohanty/data/final_dataset/lmdb/color-50-50/mean.binaryproto"
  }
  data_param {
    source: "/home/mohanty/data/final_dataset/lmdb/color-50-50/test_db"
    batch_size: 24
    backend: LMDB
  }
}
layer {
  name: "conv1/7x7_s2"
  type: "Convolution"
  bottom: "data"
  top: "conv1/7x7_s2"
  param {
    lr_mult: 1
    decay_mult: 1
  }
  param {
    lr_mult: 2
    decay_mult: 0
  }
  convolution_param {
    num_output: 64
    pad: 3
    kernel_size: 7
    stride: 2
    weight_filler {
      type: "xavier"
      std: 0.1
    }
    bias_filler {
      type: "constant"
      value: 0.2
    }
  }
}
layer {
  name: "conv1/relu_7x7"
  type: "ReLU"
  bottom: "conv1/7x7_s2"
  top: "conv1/7x7_s2"
}
layer {
  name: "pool1/3x3_s2"
  type: "Pooling"
  bottom: "conv1/7x7_s2"
  top: "pool1/3x3_s2"
  pooling_param {
    pool: MAX
    kernel_size: 3
    stride: 2
  }
}
layer {
  name: "pool1/norm1"
  type: "LRN"
  bottom: "pool1/3x3_s2"
  top: "pool1/norm1"
  lrn_param {
    local_size: 5
    alpha: 0.0001
    beta: 0.75
  }
}
layer {
  name: "conv2/3x3_reduce"
  type: "Convolution"
  bottom: "pool1/norm1"
  top: "conv2/3x3_reduce"
  param {
    lr_mult: 1
    decay_mult: 1
  }
  param {
    lr_mult: 2
    decay_mult: 0
  }
  convolution_param {
    num_output: 64
    kernel_size: 1
    weight_filler {
      type: "xavier"
      std: 0.1
    }
    bias_filler {
      type: "constant"
      value: 0.2
    }
  }
}
layer {
  name: "conv2/relu_3x3_reduce"
  type: "ReLU"
  bottom: "conv2/3x3_reduce"
  top: "conv2/3x3_reduce"
}
layer {
  name: "conv2/3x3"
  type: "Convolution"
  bottom: "conv2/3x3_reduce"
  top: "conv2/3x3"
  param {
    lr_mult: 1
    decay_mult: 1
  }
  param {
    lr_mult: 2
    decay_mult: 0
  }
  convolution_param {
    num_output: 192
    pad: 1
    kernel_size: 3
    weight_filler {
      type: "xavier"
      std: 0.03
    }
    bias_filler {
      type: "constant"
      value: 0.2
    }
  }
}
layer {
  name: "conv2/relu_3x3"
  type: "ReLU"
  bottom: "conv2/3x3"
  top: "conv2/3x3"
}
layer {
  name: "conv2/norm2"
  type: "LRN"
  bottom: "conv2/3x3"
  top: "conv2/norm2"
  lrn_param {
    local_size: 5
    alpha: 0.0001
    beta: 0.75
  }
}
layer {
  name: "pool2/3x3_s2"
  type: "Pooling"
  bottom: "conv2/norm2"
  top: "pool2/3x3_s2"
  pooling_param {
    pool: MAX
    kernel_size: 3
    stride: 2
  }
}
layer {
  name: "inception_3a/1x1"
  type: "Convolution"
  bottom: "pool2/3x3_s2"
  top: "inception_3a/1x1"
  param {
    lr_mult: 1
    decay_mult: 1
  }
  param {
    lr_mult: 2
    decay_mult: 0
  }
  convolution_param {
    num_output: 64
    kernel_size: 1
    weight_filler {
      type: "xavier"
      std: 0.03
    }
    bias_filler {
      type: "constant"
      value: 0.2
    }
  }
}
layer {
  name: "inception_3a/relu_1x1"
  type: "ReLU"
  bottom: "inception_3a/1x1"
  top: "inception_3a/1x1"
}
layer {
  name: "inception_3a/3x3_reduce"
  type: "Convolution"
  bottom: "pool2/3x3_s2"
  top: "inception_3a/3x3_reduce"
  param {
    lr_mult: 1
    decay_mult: 1
  }
  param {
    lr_mult: 2
    decay_mult: 0
  }
  convolution_param {
    num_output: 96
    kernel_size: 1
    weight_filler {
      type: "xavier"
      std: 0.09
    }
    bias_filler {
      type: "constant"
      value: 0.2
    }
  }
}
layer {
  name: "inception_3a/relu_3x3_reduce"
  type: "ReLU"
  bottom: "inception_3a/3x3_reduce"
  top: "inception_3a/3x3_reduce"
}
layer {
  name: "inception_3a/3x3"
  type: "Convolution"
  bottom: "inception_3a/3x3_reduce"
  top: "inception_3a/3x3"
  param {
    lr_mult: 1
    decay_mult: 1
  }
  param {
    lr_mult: 2
    decay_mult: 0
  }
  convolution_param {
    num_output: 128
    pad: 1
    kernel_size: 3
    weight_filler {
      type: "xavier"
      std: 0.03
    }
    bias_filler {
      type: "constant"
      value: 0.2
    }
  }
}
layer {
  name: "inception_3a/relu_3x3"
  type: "ReLU"
  bottom: "inception_3a/3x3"
  top: "inception_3a/3x3"
}
layer {
  name: "inception_3a/5x5_reduce"
  type: "Convolution"
  bottom: "pool2/3x3_s2"
  top: "inception_3a/5x5_reduce"
  param {
    lr_mult: 1
    decay_mult: 1
  }
  param {
    lr_mult: 2
    decay_mult: 0
  }
  convolution_param {
    num_output: 16
    kernel_size: 1
    weight_filler {
      type: "xavier"
      std: 0.2
    }
    bias_filler {
      type: "constant"
      value: 0.2
    }
  }
}
layer {
  name: "inception_3a/relu_5x5_reduce"
  type: "ReLU"
  bottom: "inception_3a/5x5_reduce"
  top: "inception_3a/5x5_reduce"
}
layer {
  name: "inception_3a/5x5"
  type: "Convolution"
  bottom: "inception_3a/5x5_reduce"
  top: "inception_3a/5x5"
  param {
    lr_mult: 1
    decay_mult: 1
  }
  param {
    lr_mult: 2
    decay_mult: 0
  }
  convolution_param {
    num_output: 32
    pad: 2
    kernel_size: 5
    weight_filler {
      type: "xavier"
      std: 0.03
    }
    bias_filler {
      type: "constant"
      value: 0.2
    }
  }
}
layer {
  name: "inception_3a/relu_5x5"
  type: "ReLU"
  bottom: "inception_3a/5x5"
  top: "inception_3a/5x5"
}
layer {
  name: "inception_3a/pool"
  type: "Pooling"
  bottom: "pool2/3x3_s2"
  top: "inception_3a/pool"
  pooling_param {
    pool: MAX
    kernel_size: 3
    stride: 1
    pad: 1
  }
}
layer {
  name: "inception_3a/pool_proj"
  type: "Convolution"
  bottom: "inception_3a/pool"
  top: "inception_3a/pool_proj"
  param {
    lr_mult: 1
    decay_mult: 1
  }
  param {
    lr_mult: 2
    decay_mult: 0
  }
  convolution_param {
    num_output: 32
    kernel_size: 1
    weight_filler {
      type: "xavier"
      std: 0.1
    }
    bias_filler {
      type: "constant"
      value: 0.2
    }
  }
}
layer {
  name: "inception_3a/relu_pool_proj"
  type: "ReLU"
  bottom: "inception_3a/pool_proj"
  top: "inception_3a/pool_proj"
}
layer {
  name: "inception_3a/output"
  type: "Concat"
  bottom: "inception_3a/1x1"
  bottom: "inception_3a/3x3"
  bottom: "inception_3a/5x5"
  bottom: "inception_3a/pool_proj"
  top: "inception_3a/output"
}
layer {
  name: "inception_3b/1x1"
  type: "Convolution"
  bottom: "inception_3a/output"
  top: "inception_3b/1x1"
  param {
    lr_mult: 1
    decay_mult: 1
  }
  param {
    lr_mult: 2
    decay_mult: 0
  }
  convolution_param {
    num_output: 128
    kernel_size: 1
    weight_filler {
      type: "xavier"
      std: 0.03
    }
    bias_filler {
      type: "constant"
      value: 0.2
    }
  }
}
layer {
  name: "inception_3b/relu_1x1"
  type: "ReLU"
  bottom: "inception_3b/1x1"
  top: "inception_3b/1x1"
}
layer {
  name: "inception_3b/3x3_reduce"
  type: "Convolution"
  bottom: "inception_3a/output"
  top: "inception_3b/3x3_reduce"
  param {
    lr_mult: 1
    decay_mult: 1
  }
  param {
    lr_mult: 2
    decay_mult: 0
  }
  convolution_param {
    num_output: 128
    kernel_size: 1
    weight_filler {
      type: "xavier"
      std: 0.09
    }
    bias_filler {
      type: "constant"
      value: 0.2
    }
  }
}
layer {
  name: "inception_3b/relu_3x3_reduce"
  type: "ReLU"
  bottom: "inception_3b/3x3_reduce"
  top: "inception_3b/3x3_reduce"
}
layer {
  name: "inception_3b/3x3"
  type: "Convolution"
  bottom: "inception_3b/3x3_reduce"
  top: "inception_3b/3x3"
  param {
    lr_mult: 1
    decay_mult: 1
  }
  param {
    lr_mult: 2
    decay_mult: 0
  }
  convolution_param {
    num_output: 192
    pad: 1
    kernel_size: 3
    weight_filler {
      type: "xavier"
      std: 0.03
    }
    bias_filler {
      type: "constant"
      value: 0.2
    }
  }
}
layer {
  name: "inception_3b/relu_3x3"
  type: "ReLU"
  bottom: "inception_3b/3x3"
  top: "inception_3b/3x3"
}
layer {
  name: "inception_3b/5x5_reduce"
  type: "Convolution"
  bottom: "inception_3a/output"
  top: "inception_3b/5x5_reduce"
  param {
    lr_mult: 1
    decay_mult: 1
  }
  param {
    lr_mult: 2
    decay_mult: 0
  }
  convolution_param {
    num_output: 32
    kernel_size: 1
    weight_filler {
      type: "xavier"
      std: 0.2
    }
    bias_filler {
      type: "constant"
      value: 0.2
    }
  }
}
layer {
  name: "inception_3b/relu_5x5_reduce"
  type: "ReLU"
  bottom: "inception_3b/5x5_reduce"
  top: "inception_3b/5x5_reduce"
}
layer {
  name: "inception_3b/5x5"
  type: "Convolution"
  bottom: "inception_3b/5x5_reduce"
  top: "inception_3b/5x5"
  param {
    lr_mult: 1
    decay_mult: 1
  }
  param {
    lr_mult: 2
    decay_mult: 0
  }
  convolution_param {
    num_output: 96
    pad: 2
    kernel_size: 5
    weight_filler {
      type: "xavier"
      std: 0.03
    }
    bias_filler {
      type: "constant"
      value: 0.2
    }
  }
}
layer {
  name: "inception_3b/relu_5x5"
  type: "ReLU"
  bottom: "inception_3b/5x5"
  top: "inception_3b/5x5"
}
layer {
  name: "inception_3b/pool"
  type: "Pooling"
  bottom: "inception_3a/output"
  top: "inception_3b/pool"
  pooling_param {
    pool: MAX
    kernel_size: 3
    stride: 1
    pad: 1
  }
}
layer {
  name: "inception_3b/pool_proj"
  type: "Convolution"
  bottom: "inception_3b/pool"
  top: "inception_3b/pool_proj"
  param {
    lr_mult: 1
    decay_mult: 1
  }
  param {
    lr_mult: 2
    decay_mult: 0
  }
  convolution_param {
    num_output: 64
    kernel_size: 1
    weight_filler {
      type: "xavier"
      std: 0.1
    }
    bias_filler {
      type: "constant"
      value: 0.2
    }
  }
}
layer {
  name: "inception_3b/relu_pool_proj"
  type: "ReLU"
  bottom: "inception_3b/pool_proj"
  top: "inception_3b/pool_proj"
}
layer {
  name: "inception_3b/output"
  type: "Concat"
  bottom: "inception_3b/1x1"
  bottom: "inception_3b/3x3"
  bottom: "inception_3b/5x5"
  bottom: "inception_3b/pool_proj"
  top: "inception_3b/output"
}
layer {
  name: "pool3/3x3_s2"
  type: "Pooling"
  bottom: "inception_3b/output"
  top: "pool3/3x3_s2"
  pooling_param {
    pool: MAX
    kernel_size: 3
    stride: 2
  }
}
layer {
  name: "inception_4a/1x1"
  type: "Convolution"
  bottom: "pool3/3x3_s2"
  top: "inception_4a/1x1"
  param {
    lr_mult: 1
    decay_mult: 1
  }
  param {
    lr_mult: 2
    decay_mult: 0
  }
  convolution_param {
    num_output: 192
    kernel_size: 1
    weight_filler {
      type: "xavier"
      std: 0.03
    }
    bias_filler {
      type: "constant"
      value: 0.2
    }
  }
}
layer {
  name: "inception_4a/relu_1x1"
  type: "ReLU"
  bottom: "inception_4a/1x1"
  top: "inception_4a/1x1"
}
layer {
  name: "inception_4a/3x3_reduce"
  type: "Convolution"
  bottom: "pool3/3x3_s2"
  top: "inception_4a/3x3_reduce"
  param {
    lr_mult: 1
    decay_mult: 1
  }
  param {
    lr_mult: 2
    decay_mult: 0
  }
  convolution_param {
    num_output: 96
    kernel_size: 1
    weight_filler {
      type: "xavier"
      std: 0.09
    }
    bias_filler {
      type: "constant"
      value: 0.2
    }
  }
}
layer {
  name: "inception_4a/relu_3x3_reduce"
  type: "ReLU"
  bottom: "inception_4a/3x3_reduce"
  top: "inception_4a/3x3_reduce"
}
layer {
  name: "inception_4a/3x3"
  type: "Convolution"
  bottom: "inception_4a/3x3_reduce"
  top: "inception_4a/3x3"
  param {
    lr_mult: 1
    decay_mult: 1
  }
  param {
    lr_mult: 2
    decay_mult: 0
  }
  convolution_param {
    num_output: 208
    pad: 1
    kernel_size: 3
    weight_filler {
      type: "xavier"
      std: 0.03
    }
    bias_filler {
      type: "constant"
      value: 0.2
    }
  }
}
layer {
  name: "inception_4a/relu_3x3"
  type: "ReLU"
  bottom: "inception_4a/3x3"
  top: "inception_4a/3x3"
}
layer {
  name: "inception_4a/5x5_reduce"
  type: "Convolution"
  bottom: "pool3/3x3_s2"
  top: "inception_4a/5x5_reduce"
  param {
    lr_mult: 1
    decay_mult: 1
  }
  param {
    lr_mult: 2
    decay_mult: 0
  }
  convolution_param {
    num_output: 16
    kernel_size: 1
    weight_filler {
      type: "xavier"
      std: 0.2
    }
    bias_filler {
      type: "constant"
      value: 0.2
    }
  }
}
layer {
  name: "inception_4a/relu_5x5_reduce"
  type: "ReLU"
  bottom: "inception_4a/5x5_reduce"
  top: "inception_4a/5x5_reduce"
}
layer {
  name: "inception_4a/5x5"
  type: "Convolution"
  bottom: "inception_4a/5x5_reduce"
  top: "inception_4a/5x5"
  param {
    lr_mult: 1
    decay_mult: 1
  }
  param {
    lr_mult: 2
    decay_mult: 0
  }
  convolution_param {
    num_output: 48
    pad: 2
    kernel_size: 5
    weight_filler {
      type: "xavier"
      std: 0.03
    }
    bias_filler {
      type: "constant"
      value: 0.2
    }
  }
}
layer {
  name: "inception_4a/relu_5x5"
  type: "ReLU"
  bottom: "inception_4a/5x5"
  top: "inception_4a/5x5"
}
layer {
  name: "inception_4a/pool"
  type: "Pooling"
  bottom: "pool3/3x3_s2"
  top: "inception_4a/pool"
  pooling_param {
    pool: MAX
    kernel_size: 3
    stride: 1
    pad: 1
  }
}
layer {
  name: "inception_4a/pool_proj"
  type: "Convolution"
  bottom: "inception_4a/pool"
  top: "inception_4a/pool_proj"
  param {
    lr_mult: 1
    decay_mult: 1
  }
  param {
    lr_mult: 2
    decay_mult: 0
  }
  convolution_param {
    num_output: 64
    kernel_size: 1
    weight_filler {
      type: "xavier"
      std: 0.1
    }
    bias_filler {
      type: "constant"
      value: 0.2
    }
  }
}
layer {
  name: "inception_4a/relu_pool_proj"
  type: "ReLU"
  bottom: "inception_4a/pool_proj"
  top: "inception_4a/pool_proj"
}
layer {
  name: "inception_4a/output"
  type: "Concat"
  bottom: "inception_4a/1x1"
  bottom: "inception_4a/3x3"
  bottom: "inception_4a/5x5"
  bottom: "inception_4a/pool_proj"
  top: "inception_4a/output"
}
layer {
  name: "loss1/ave_pool"
  type: "Pooling"
  bottom: "inception_4a/output"
  top: "loss1/ave_pool"
  pooling_param {
    pool: AVE
    kernel_size: 5
    stride: 3
  }
}
layer {
  name: "loss1/conv"
  type: "Convolution"
  bottom: "loss1/ave_pool"
  top: "loss1/conv"
  param {
    lr_mult: 1
    decay_mult: 1
  }
  param {
    lr_mult: 2
    decay_mult: 0
  }
  convolution_param {
    num_output: 128
    kernel_size: 1
    weight_filler {
      type: "xavier"
      std: 0.08
    }
    bias_filler {
      type: "constant"
      value: 0.2
    }
  }
}
layer {
  name: "loss1/relu_conv"
  type: "ReLU"
  bottom: "loss1/conv"
  top: "loss1/conv"
}
layer {
  name: "loss1/fc"
  type: "InnerProduct"
  bottom: "loss1/conv"
  top: "loss1/fc"
  param {
    lr_mult: 1
    decay_mult: 1
  }
  param {
    lr_mult: 2
    decay_mult: 0
  }
  inner_product_param {
    num_output: 1024
    weight_filler {
      type: "xavier"
      std: 0.02
    }
    bias_filler {
      type: "constant"
      value: 0.2
    }
  }
}
layer {
  name: "loss1/relu_fc"
  type: "ReLU"
  bottom: "loss1/fc"
  top: "loss1/fc"
}
layer {
  name: "loss1/drop_fc"
  type: "Dropout"
  bottom: "loss1/fc"
  top: "loss1/fc"
  dropout_param {
    dropout_ratio: 0.7
  }
}
layer {
  name: "loss1/classifier_plantvillage"
  type: "InnerProduct"
  bottom: "loss1/fc"
  top: "loss1/classifier_plantvillage"
  param {
    lr_mult: 1
    decay_mult: 1
  }
  param {
    lr_mult: 2
    decay_mult: 0
  }
  inner_product_param {
    num_output: 38
    weight_filler {
      type: "xavier"
      std: 0.0009765625
    }
    bias_filler {
      type: "constant"
      value: 0
    }
  }
}
layer {
  name: "inception_4b/1x1"
  type: "Convolution"
  bottom: "inception_4a/output"
  top: "inception_4b/1x1"
  param {
    lr_mult: 1
    decay_mult: 1
  }
  param {
    lr_mult: 2
    decay_mult: 0
  }
  convolution_param {
    num_output: 160
    kernel_size: 1
    weight_filler {
      type: "xavier"
      std: 0.03
    }
    bias_filler {
      type: "constant"
      value: 0.2
    }
  }
}
layer {
  name: "inception_4b/relu_1x1"
…
I0403 04:43:26.982813 26217 layer_factory.hpp:77] Creating layer inception_4c/pool
I0403 04:43:26.982831 26217 net.cpp:91] Creating Layer inception_4c/pool
I0403 04:43:26.982846 26217 net.cpp:425] inception_4c/pool <- inception_4b/output_inception_4b/output_0_split_3
I0403 04:43:26.982868 26217 net.cpp:399] inception_4c/pool -> inception_4c/pool
I0403 04:43:26.982928 26217 net.cpp:141] Setting up inception_4c/pool
I0403 04:43:26.982954 26217 net.cpp:148] Top shape: 24 512 14 14 (2408448)
I0403 04:43:26.982980 26217 net.cpp:156] Memory required for data: 1060605120
I0403 04:43:26.982995 26217 layer_factory.hpp:77] Creating layer inception_4c/pool_proj
I0403 04:43:26.983016 26217 net.cpp:91] Creating Layer inception_4c/pool_proj
I0403 04:43:26.983033 26217 net.cpp:425] inception_4c/pool_proj <- inception_4c/pool
I0403 04:43:26.983054 26217 net.cpp:399] inception_4c/pool_proj -> inception_4c/pool_proj
I0403 04:43:26.983522 26217 net.cpp:141] Setting up inception_4c/pool_proj
I0403 04:43:26.983551 26217 net.cpp:148] Top shape: 24 64 14 14 (301056)
I0403 04:43:26.983578 26217 net.cpp:156] Memory required for data: 1061809344
I0403 04:43:26.983597 26217 layer_factory.hpp:77] Creating layer inception_4c/relu_pool_proj
I0403 04:43:26.983616 26217 net.cpp:91] Creating Layer inception_4c/relu_pool_proj
I0403 04:43:26.983633 26217 net.cpp:425] inception_4c/relu_pool_proj <- inception_4c/pool_proj
I0403 04:43:26.983651 26217 net.cpp:386] inception_4c/relu_pool_proj -> inception_4c/pool_proj (in-place)
I0403 04:43:26.983671 26217 net.cpp:141] Setting up inception_4c/relu_pool_proj
I0403 04:43:26.983690 26217 net.cpp:148] Top shape: 24 64 14 14 (301056)
I0403 04:43:26.983706 26217 net.cpp:156] Memory required for data: 1063013568
I0403 04:43:26.983721 26217 layer_factory.hpp:77] Creating layer inception_4c/output
I0403 04:43:26.983741 26217 net.cpp:91] Creating Layer inception_4c/output
I0403 04:43:26.983759 26217 net.cpp:425] inception_4c/output <- inception_4c/1x1
I0403 04:43:26.983777 26217 net.cpp:425] inception_4c/output <- inception_4c/3x3
I0403 04:43:26.983793 26217 net.cpp:425] inception_4c/output <- inception_4c/5x5
I0403 04:43:26.983813 26217 net.cpp:425] inception_4c/output <- inception_4c/pool_proj
I0403 04:43:26.983830 26217 net.cpp:399] inception_4c/output -> inception_4c/output
I0403 04:43:26.983875 26217 net.cpp:141] Setting up inception_4c/output
I0403 04:43:26.983899 26217 net.cpp:148] Top shape: 24 512 14 14 (2408448)
I0403 04:43:26.983916 26217 net.cpp:156] Memory required for data: 1072647360
I0403 04:43:26.983932 26217 layer_factory.hpp:77] Creating layer inception_4c/output_inception_4c/output_0_split
I0403 04:43:26.983952 26217 net.cpp:91] Creating Layer inception_4c/output_inception_4c/output_0_split
I0403 04:43:26.983968 26217 net.cpp:425] inception_4c/output_inception_4c/output_0_split <- inception_4c/output
I0403 04:43:26.983990 26217 net.cpp:399] inception_4c/output_inception_4c/output_0_split -> inception_4c/output_inception_4c/output_0_split_0
I0403 04:43:26.984014 26217 net.cpp:399] inception_4c/output_inception_4c/output_0_split -> inception_4c/output_inception_4c/output_0_split_1
I0403 04:43:26.984036 26217 net.cpp:399] inception_4c/output_inception_4c/output_0_split -> inception_4c/output_inception_4c/output_0_split_2
I0403 04:43:26.984057 26217 net.cpp:399] inception_4c/output_inception_4c/output_0_split -> inception_4c/output_inception_4c/output_0_split_3
I0403 04:43:26.984153 26217 net.cpp:141] Setting up inception_4c/output_inception_4c/output_0_split
I0403 04:43:26.984180 26217 net.cpp:148] Top shape: 24 512 14 14 (2408448)
I0403 04:43:26.984197 26217 net.cpp:148] Top shape: 24 512 14 14 (2408448)
I0403 04:43:26.984220 26217 net.cpp:148] Top shape: 24 512 14 14 (2408448)
I0403 04:43:26.984236 26217 net.cpp:148] Top shape: 24 512 14 14 (2408448)
I0403 04:43:26.984251 26217 net.cpp:156] Memory required for data: 1111182528
I0403 04:43:26.984266 26217 layer_factory.hpp:77] Creating layer inception_4d/1x1
I0403 04:43:26.984292 26217 net.cpp:91] Creating Layer inception_4d/1x1
I0403 04:43:26.984318 26217 net.cpp:425] inception_4d/1x1 <- inception_4c/output_inception_4c/output_0_split_0
I0403 04:43:26.984347 26217 net.cpp:399] inception_4d/1x1 -> inception_4d/1x1
I0403 04:43:26.984935 26217 net.cpp:141] Setting up inception_4d/1x1
I0403 04:43:26.984962 26217 net.cpp:148] Top shape: 24 112 14 14 (526848)
I0403 04:43:26.984982 26217 net.cpp:156] Memory required for data: 1113289920
I0403 04:43:26.984999 26217 layer_factory.hpp:77] Creating layer inception_4d/relu_1x1
I0403 04:43:26.985018 26217 net.cpp:91] Creating Layer inception_4d/relu_1x1
I0403 04:43:26.985036 26217 net.cpp:425] inception_4d/relu_1x1 <- inception_4d/1x1
I0403 04:43:26.985059 26217 net.cpp:386] inception_4d/relu_1x1 -> inception_4d/1x1 (in-place)
I0403 04:43:26.985080 26217 net.cpp:141] Setting up inception_4d/relu_1x1
I0403 04:43:26.985097 26217 net.cpp:148] Top shape: 24 112 14 14 (526848)
I0403 04:43:26.985113 26217 net.cpp:156] Memory required for data: 1115397312
I0403 04:43:26.985128 26217 layer_factory.hpp:77] Creating layer inception_4d/3x3_reduce
I0403 04:43:26.985152 26217 net.cpp:91] Creating Layer inception_4d/3x3_reduce
I0403 04:43:26.985172 26217 net.cpp:425] inception_4d/3x3_reduce <- inception_4c/output_inception_4c/output_0_split_1
I0403 04:43:26.985191 26217 net.cpp:399] inception_4d/3x3_reduce -> inception_4d/3x3_reduce
I0403 04:43:26.985880 26217 net.cpp:141] Setting up inception_4d/3x3_reduce
I0403 04:43:26.985908 26217 net.cpp:148] Top shape: 24 144 14 14 (677376)
I0403 04:43:26.985924 26217 net.cpp:156] Memory required for data: 1118106816
I0403 04:43:26.985942 26217 layer_factory.hpp:77] Creating layer inception_4d/relu_3x3_reduce
I0403 04:43:26.985962 26217 net.cpp:91] Creating Layer inception_4d/relu_3x3_reduce
I0403 04:43:26.985980 26217 net.cpp:425] inception_4d/relu_3x3_reduce <- inception_4d/3x3_reduce
I0403 04:43:26.985999 26217 net.cpp:386] inception_4d/relu_3x3_reduce -> inception_4d/3x3_reduce (in-place)
I0403 04:43:26.986021 26217 net.cpp:141] Setting up inception_4d/relu_3x3_reduce
I0403 04:43:26.986039 26217 net.cpp:148] Top shape: 24 144 14 14 (677376)
I0403 04:43:26.986054 26217 net.cpp:156] Memory required for data: 1120816320
I0403 04:43:26.986069 26217 layer_factory.hpp:77] Creating layer inception_4d/3x3
I0403 04:43:26.986093 26217 net.cpp:91] Creating Layer inception_4d/3x3
I0403 04:43:26.986111 26217 net.cpp:425] inception_4d/3x3 <- inception_4d/3x3_reduce
I0403 04:43:26.986130 26217 net.cpp:399] inception_4d/3x3 -> inception_4d/3x3
I0403 04:43:26.989418 26217 net.cpp:141] Setting up inception_4d/3x3
I0403 04:43:26.989449 26217 net.cpp:148] Top shape: 24 288 14 14 (1354752)
I0403 04:43:26.989469 26217 net.cpp:156] Memory required for data: 1126235328
I0403 04:43:26.989487 26217 layer_factory.hpp:77] Creating layer inception_4d/relu_3x3
I0403 04:43:26.989508 26217 net.cpp:91] Creating Layer inception_4d/relu_3x3
I0403 04:43:26.989526 26217 net.cpp:425] inception_4d/relu_3x3 <- inception_4d/3x3
I0403 04:43:26.989544 26217 net.cpp:386] inception_4d/relu_3x3 -> inception_4d/3x3 (in-place)
I0403 04:43:26.989567 26217 net.cpp:141] Setting up inception_4d/relu_3x3
I0403 04:43:26.989585 26217 net.cpp:148] Top shape: 24 288 14 14 (1354752)
I0403 04:43:26.989600 26217 net.cpp:156] Memory required for data: 1131654336
I0403 04:43:26.989615 26217 layer_factory.hpp:77] Creating layer inception_4d/5x5_reduce
I0403 04:43:26.989656 26217 net.cpp:91] Creating Layer inception_4d/5x5_reduce
I0403 04:43:26.989677 26217 net.cpp:425] inception_4d/5x5_reduce <- inception_4c/output_inception_4c/output_0_split_2
I0403 04:43:26.989701 26217 net.cpp:399] inception_4d/5x5_reduce -> inception_4d/5x5_reduce
I0403 04:43:26.990070 26217 net.cpp:141] Setting up inception_4d/5x5_reduce
I0403 04:43:26.990098 26217 net.cpp:148] Top shape: 24 32 14 14 (150528)
I0403 04:43:26.990114 26217 net.cpp:156] Memory required for data: 1132256448
I0403 04:43:26.990134 26217 layer_factory.hpp:77] Creating layer inception_4d/relu_5x5_reduce
I0403 04:43:26.990154 26217 net.cpp:91] Creating Layer inception_4d/relu_5x5_reduce
I0403 04:43:26.990172 26217 net.cpp:425] inception_4d/relu_5x5_reduce <- inception_4d/5x5_reduce
I0403 04:43:26.990191 26217 net.cpp:386] inception_4d/relu_5x5_reduce -> inception_4d/5x5_reduce (in-place)
I0403 04:43:26.990224 26217 net.cpp:141] Setting up inception_4d/relu_5x5_reduce
I0403 04:43:26.990244 26217 net.cpp:148] Top shape: 24 32 14 14 (150528)
I0403 04:43:26.990260 26217 net.cpp:156] Memory required for data: 1132858560
I0403 04:43:26.990277 26217 layer_factory.hpp:77] Creating layer inception_4d/5x5
I0403 04:43:26.990303 26217 net.cpp:91] Creating Layer inception_4d/5x5
I0403 04:43:26.990322 26217 net.cpp:425] inception_4d/5x5 <- inception_4d/5x5_reduce
I0403 04:43:26.990346 26217 net.cpp:399] inception_4d/5x5 -> inception_4d/5x5
I0403 04:43:26.990907 26217 net.cpp:141] Setting up inception_4d/5x5
I0403 04:43:26.990936 26217 net.cpp:148] Top shape: 24 64 14 14 (301056)
I0403 04:43:26.990950 26217 net.cpp:156] Memory required for data: 1134062784
I0403 04:43:26.990969 26217 layer_factory.hpp:77] Creating layer inception_4d/relu_5x5
I0403 04:43:26.990991 26217 net.cpp:91] Creating Layer inception_4d/relu_5x5
I0403 04:43:26.991009 26217 net.cpp:425] inception_4d/relu_5x5 <- inception_4d/5x5
I0403 04:43:26.991027 26217 net.cpp:386] inception_4d/relu_5x5 -> inception_4d/5x5 (in-place)
I0403 04:43:26.991047 26217 net.cpp:141] Setting up inception_4d/relu_5x5
I0403 04:43:26.991065 26217 net.cpp:148] Top shape: 24 64 14 14 (301056)
I0403 04:43:26.991081 26217 net.cpp:156] Memory required for data: 1135267008
I0403 04:43:26.991096 26217 layer_factory.hpp:77] Creating layer inception_4d/pool
I0403 04:43:26.991125 26217 net.cpp:91] Creating Layer inception_4d/pool
I0403 04:43:26.991154 26217 net.cpp:425] inception_4d/pool <- inception_4c/output_inception_4c/output_0_split_3
I0403 04:43:26.991183 26217 net.cpp:399] inception_4d/pool -> inception_4d/pool
I0403 04:43:26.991255 26217 net.cpp:141] Setting up inception_4d/pool
I0403 04:43:26.991284 26217 net.cpp:148] Top shape: 24 512 14 14 (2408448)
I0403 04:43:26.991300 26217 net.cpp:156] Memory required for data: 1144900800
I0403 04:43:26.991317 26217 layer_factory.hpp:77] Creating layer inception_4d/pool_proj
I0403 04:43:26.991341 26217 net.cpp:91] Creating Layer inception_4d/pool_proj
I0403 04:43:26.991359 26217 net.cpp:425] inception_4d/pool_proj <- inception_4d/pool
I0403 04:43:26.991380 26217 net.cpp:399] inception_4d/pool_proj -> inception_4d/pool_proj
I0403 04:43:26.991830 26217 net.cpp:141] Setting up inception_4d/pool_proj
I0403 04:43:26.991860 26217 net.cpp:148] Top shape: 24 64 14 14 (301056)
I0403 04:43:26.991878 26217 net.cpp:156] Memory required for data: 1146105024
I0403 04:43:26.991896 26217 layer_factory.hpp:77] Creating layer inception_4d/relu_pool_proj
I0403 04:43:26.991916 26217 net.cpp:91] Creating Layer inception_4d/relu_pool_proj
I0403 04:43:26.991936 26217 net.cpp:425] inception_4d/relu_pool_proj <- inception_4d/pool_proj
I0403 04:43:26.991955 26217 net.cpp:386] inception_4d/relu_pool_proj -> inception_4d/pool_proj (in-place)
I0403 04:43:26.991984 26217 net.cpp:141] Setting up inception_4d/relu_pool_proj
I0403 04:43:26.992002 26217 net.cpp:148] Top shape: 24 64 14 14 (301056)
I0403 04:43:26.992018 26217 net.cpp:156] Memory required for data: 1147309248
I0403 04:43:26.992034 26217 layer_factory.hpp:77] Creating layer inception_4d/output
I0403 04:43:26.992053 26217 net.cpp:91] Creating Layer inception_4d/output
I0403 04:43:26.992082 26217 net.cpp:425] inception_4d/output <- inception_4d/1x1
I0403 04:43:26.992101 26217 net.cpp:425] inception_4d/output <- inception_4d/3x3
I0403 04:43:26.992118 26217 net.cpp:425] inception_4d/output <- inception_4d/5x5
I0403 04:43:26.992136 26217 net.cpp:425] inception_4d/output <- inception_4d/pool_proj
I0403 04:43:26.992158 26217 net.cpp:399] inception_4d/output -> inception_4d/output
I0403 04:43:26.992202 26217 net.cpp:141] Setting up inception_4d/output
I0403 04:43:26.992235 26217 net.cpp:148] Top shape: 24 528 14 14 (2483712)
I0403 04:43:26.992254 26217 net.cpp:156] Memory required for data: 1157244096
I0403 04:43:26.992274 26217 layer_factory.hpp:77] Creating layer inception_4d/output_inception_4d/output_0_split
I0403 04:43:26.992295 26217 net.cpp:91] Creating Layer inception_4d/output_inception_4d/output_0_split
I0403 04:43:26.992312 26217 net.cpp:425] inception_4d/output_inception_4d/output_0_split <- inception_4d/output
I0403 04:43:26.992331 26217 net.cpp:399] inception_4d/output_inception_4d/output_0_split -> inception_4d/output_inception_4d/output_0_split_0
I0403 04:43:26.992352 26217 net.cpp:399] inception_4d/output_inception_4d/output_0_split -> inception_4d/output_inception_4d/output_0_split_1
I0403 04:43:26.992377 26217 net.cpp:399] inception_4d/output_inception_4d/output_0_split -> inception_4d/output_inception_4d/output_0_split_2
I0403 04:43:26.992400 26217 net.cpp:399] inception_4d/output_inception_4d/output_0_split -> inception_4d/output_inception_4d/output_0_split_3
I0403 04:43:26.992422 26217 net.cpp:399] inception_4d/output_inception_4d/output_0_split -> inception_4d/output_inception_4d/output_0_split_4
I0403 04:43:26.992517 26217 net.cpp:141] Setting up inception_4d/output_inception_4d/output_0_split
I0403 04:43:26.992543 26217 net.cpp:148] Top shape: 24 528 14 14 (2483712)
I0403 04:43:26.992559 26217 net.cpp:148] Top shape: 24 528 14 14 (2483712)
I0403 04:43:26.992576 26217 net.cpp:148] Top shape: 24 528 14 14 (2483712)
I0403 04:43:26.992593 26217 net.cpp:148] Top shape: 24 528 14 14 (2483712)
I0403 04:43:26.992609 26217 net.cpp:148] Top shape: 24 528 14 14 (2483712)
I0403 04:43:26.992624 26217 net.cpp:156] Memory required for data: 1206918336
I0403 04:43:26.992640 26217 layer_factory.hpp:77] Creating layer loss2/ave_pool
I0403 04:43:26.992661 26217 net.cpp:91] Creating Layer loss2/ave_pool
I0403 04:43:26.992681 26217 net.cpp:425] loss2/ave_pool <- inception_4d/output_inception_4d/output_0_split_0
I0403 04:43:26.992700 26217 net.cpp:399] loss2/ave_pool -> loss2/ave_pool
I0403 04:43:26.992744 26217 net.cpp:141] Setting up loss2/ave_pool
I0403 04:43:26.992770 26217 net.cpp:148] Top shape: 24 528 4 4 (202752)
I0403 04:43:26.992787 26217 net.cpp:156] Memory required for data: 1207729344
I0403 04:43:26.992802 26217 layer_factory.hpp:77] Creating layer loss2/conv
I0403 04:43:26.992826 26217 net.cpp:91] Creating Layer loss2/conv
I0403 04:43:26.992846 26217 net.cpp:425] loss2/conv <- loss2/ave_pool
I0403 04:43:26.992866 26217 net.cpp:399] loss2/conv -> loss2/conv
I0403 04:43:26.994088 26217 net.cpp:141] Setting up loss2/conv
I0403 04:43:26.994119 26217 net.cpp:148] Top shape: 24 128 4 4 (49152)
I0403 04:43:26.994135 26217 net.cpp:156] Memory required for data: 1207925952
I0403 04:43:26.994155 26217 layer_factory.hpp:77] Creating layer loss2/relu_conv
I0403 04:43:26.994176 26217 net.cpp:91] Creating Layer loss2/relu_conv
I0403 04:43:26.994194 26217 net.cpp:425] loss2/relu_conv <- loss2/conv
I0403 04:43:26.994220 26217 net.cpp:386] loss2/relu_conv -> loss2/conv (in-place)
I0403 04:43:26.994253 26217 net.cpp:141] Setting up loss2/relu_conv
I0403 04:43:26.994273 26217 net.cpp:148] Top shape: 24 128 4 4 (49152)
I0403 04:43:26.994289 26217 net.cpp:156] Memory required for data: 1208122560
I0403 04:43:26.994304 26217 layer_factory.hpp:77] Creating layer loss2/fc
I0403 04:43:26.994324 26217 net.cpp:91] Creating Layer loss2/fc
I0403 04:43:26.994341 26217 net.cpp:425] loss2/fc <- loss2/conv
I0403 04:43:26.994364 26217 net.cpp:399] loss2/fc -> loss2/fc
I0403 04:43:27.010820 26217 net.cpp:141] Setting up loss2/fc
I0403 04:43:27.010872 26217 net.cpp:148] Top shape: 24 1024 (24576)
I0403 04:43:27.010890 26217 net.cpp:156] Memory required for data: 1208220864
I0403 04:43:27.010911 26217 layer_factory.hpp:77] Creating layer loss2/relu_fc
I0403 04:43:27.010939 26217 net.cpp:91] Creating Layer loss2/relu_fc
I0403 04:43:27.010960 26217 net.cpp:425] loss2/relu_fc <- loss2/fc
I0403 04:43:27.010985 26217 net.cpp:386] loss2/relu_fc -> loss2/fc (in-place)
I0403 04:43:27.011010 26217 net.cpp:141] Setting up loss2/relu_fc
I0403 04:43:27.011029 26217 net.cpp:148] Top shape: 24 1024 (24576)
I0403 04:43:27.011046 26217 net.cpp:156] Memory required for data: 1208319168
I0403 04:43:27.011062 26217 layer_factory.hpp:77] Creating layer loss2/drop_fc
I0403 04:43:27.011082 26217 net.cpp:91] Creating Layer loss2/drop_fc
I0403 04:43:27.011101 26217 net.cpp:425] loss2/drop_fc <- loss2/fc
I0403 04:43:27.011119 26217 net.cpp:386] loss2/drop_fc -> loss2/fc (in-place)
I0403 04:43:27.011169 26217 net.cpp:141] Setting up loss2/drop_fc
I0403 04:43:27.011193 26217 net.cpp:148] Top shape: 24 1024 (24576)
I0403 04:43:27.011214 26217 net.cpp:156] Memory required for data: 1208417472
I0403 04:43:27.011231 26217 layer_factory.hpp:77] Creating layer loss2/classifier_plantvillage
I0403 04:43:27.011255 26217 net.cpp:91] Creating Layer loss2/classifier_plantvillage
I0403 04:43:27.011273 26217 net.cpp:425] loss2/classifier_plantvillage <- loss2/fc
I0403 04:43:27.011293 26217 net.cpp:399] loss2/classifier_plantvillage -> loss2/classifier_plantvillage
I0403 04:43:27.011664 26217 net.cpp:141] Setting up loss2/classifier_plantvillage
I0403 04:43:27.011692 26217 net.cpp:148] Top shape: 24 38 (912)
I0403 04:43:27.011708 26217 net.cpp:156] Memory required for data: 1208421120
I0403 04:43:27.011726 26217 layer_factory.hpp:77] Creating layer loss2/classifier_plantvillage_loss2/classifier_plantvillage_0_split
I0403 04:43:27.011749 26217 net.cpp:91] Creating Layer loss2/classifier_plantvillage_loss2/classifier_plantvillage_0_split
I0403 04:43:27.011766 26217 net.cpp:425] loss2/classifier_plantvillage_loss2/classifier_plantvillage_0_split <- loss2/classifier_plantvillage
I0403 04:43:27.011788 26217 net.cpp:399] loss2/classifier_plantvillage_loss2/classifier_plantvillage_0_split -> loss2/classifier_plantvillage_loss2/classifier_plantvillage_0_split_0
I0403 04:43:27.011812 26217 net.cpp:399] loss2/classifier_plantvillage_loss2/classifier_plantvillage_0_split -> loss2/classifier_plantvillage_loss2/classifier_plantvillage_0_split_1
I0403 04:43:27.011838 26217 net.cpp:399] loss2/classifier_plantvillage_loss2/classifier_plantvillage_0_split -> loss2/classifier_plantvillage_loss2/classifier_plantvillage_0_split_2
I0403 04:43:27.011909 26217 net.cpp:141] Setting up loss2/classifier_plantvillage_loss2/classifier_plantvillage_0_split
I0403 04:43:27.011940 26217 net.cpp:148] Top shape: 24 38 (912)
I0403 04:43:27.011957 26217 net.cpp:148] Top shape: 24 38 (912)
I0403 04:43:27.011972 26217 net.cpp:148] Top shape: 24 38 (912)
I0403 04:43:27.011987 26217 net.cpp:156] Memory required for data: 1208432064
I0403 04:43:27.012001 26217 layer_factory.hpp:77] Creating layer inception_4e/1x1
I0403 04:43:27.012024 26217 net.cpp:91] Creating Layer inception_4e/1x1
I0403 04:43:27.012042 26217 net.cpp:425] inception_4e/1x1 <- inception_4d/output_inception_4d/output_0_split_1
I0403 04:43:27.012066 26217 net.cpp:399] inception_4e/1x1 -> inception_4e/1x1
I0403 04:43:27.013157 26217 net.cpp:141] Setting up inception_4e/1x1
I0403 04:43:27.013186 26217 net.cpp:148] Top shape: 24 256 14 14 (1204224)
I0403 04:43:27.013203 26217 net.cpp:156] Memory required for data: 1213248960
I0403 04:43:27.013228 26217 layer_factory.hpp:77] Creating layer inception_4e/relu_1x1
I0403 04:43:27.013249 26217 net.cpp:91] Creating Layer inception_4e/relu_1x1
I0403 04:43:27.013267 26217 net.cpp:425] inception_4e/relu_1x1 <- inception_4e/1x1
I0403 04:43:27.013288 26217 net.cpp:386] inception_4e/relu_1x1 -> inception_4e/1x1 (in-place)
I0403 04:43:27.013309 26217 net.cpp:141] Setting up inception_4e/relu_1x1
I0403 04:43:27.013355 26217 net.cpp:148] Top shape: 24 256 14 14 (1204224)
I0403 04:43:27.013372 26217 net.cpp:156] Memory required for data: 1218065856
I0403 04:43:27.013391 26217 layer_factory.hpp:77] Creating layer inception_4e/3x3_reduce
I0403 04:43:27.013414 26217 net.cpp:91] Creating Layer inception_4e/3x3_reduce
I0403 04:43:27.013432 26217 net.cpp:425] inception_4e/3x3_reduce <- inception_4d/output_inception_4d/output_0_split_2
I0403 04:43:27.013456 26217 net.cpp:399] inception_4e/3x3_reduce -> inception_4e/3x3_reduce
I0403 04:43:27.014796 26217 net.cpp:141] Setting up inception_4e/3x3_reduce
I0403 04:43:27.014827 26217 net.cpp:148] Top shape: 24 160 14 14 (752640)
I0403 04:43:27.014845 26217 net.cpp:156] Memory required for data: 1221076416
I0403 04:43:27.014866 26217 layer_factory.hpp:77] Creating layer inception_4e/relu_3x3_reduce
I0403 04:43:27.014889 26217 net.cpp:91] Creating Layer inception_4e/relu_3x3_reduce
I0403 04:43:27.014909 26217 net.cpp:425] inception_4e/relu_3x3_reduce <- inception_4e/3x3_reduce
I0403 04:43:27.014928 26217 net.cpp:386] inception_4e/relu_3x3_reduce -> inception_4e/3x3_reduce (in-place)
I0403 04:43:27.014950 26217 net.cpp:141] Setting up inception_4e/relu_3x3_reduce
I0403 04:43:27.014968 26217 net.cpp:148] Top shape: 24 160 14 14 (752640)
I0403 04:43:27.014984 26217 net.cpp:156] Memory required for data: 1224086976
I0403 04:43:27.015002 26217 layer_factory.hpp:77] Creating layer inception_4e/3x3
I0403 04:43:27.015027 26217 net.cpp:91] Creating Layer inception_4e/3x3
I0403 04:43:27.015046 26217 net.cpp:425] inception_4e/3x3 <- inception_4e/3x3_reduce
I0403 04:43:27.015067 26217 net.cpp:399] inception_4e/3x3 -> inception_4e/3x3
I0403 04:43:27.019194 26217 net.cpp:141] Setting up inception_4e/3x3
I0403 04:43:27.019237 26217 net.cpp:148] Top shape: 24 320 14 14 (1505280)
I0403 04:43:27.019256 26217 net.cpp:156] Memory required for data: 1230108096
I0403 04:43:27.019275 26217 layer_factory.hpp:77] Creating layer inception_4e/relu_3x3
I0403 04:43:27.019296 26217 net.cpp:91] Creating Layer inception_4e/relu_3x3
I0403 04:43:27.019315 26217 net.cpp:425] inception_4e/relu_3x3 <- inception_4e/3x3
I0403 04:43:27.019333 26217 net.cpp:386] inception_4e/relu_3x3 -> inception_4e/3x3 (in-place)
I0403 04:43:27.019358 26217 net.cpp:141] Setting up inception_4e/relu_3x3
I0403 04:43:27.019377 26217 net.cpp:148] Top shape: 24 320 14 14 (1505280)
I0403 04:43:27.019394 26217 net.cpp:156] Memory required for data: 1236129216
I0403 04:43:27.019408 26217 layer_factory.hpp:77] Creating layer inception_4e/5x5_reduce
I0403 04:43:27.019433 26217 net.cpp:91] Creating Layer inception_4e/5x5_reduce
I0403 04:43:27.019453 26217 net.cpp:425] inception_4e/5x5_reduce <- inception_4d/output_inception_4d/output_0_split_3
I0403 04:43:27.019474 26217 net.cpp:399] inception_4e/5x5_reduce -> inception_4e/5x5_reduce
I0403 04:43:27.020378 26217 net.cpp:141] Setting up inception_4e/5x5_reduce
I0403 04:43:27.020408 26217 net.cpp:148] Top shape: 24 32 14 14 (150528)
I0403 04:43:27.020426 26217 net.cpp:156] Memory required for data: 1236731328
I0403 04:43:27.020445 26217 layer_factory.hpp:77] Creating layer inception_4e/relu_5x5_reduce
I0403 04:43:27.020467 26217 net.cpp:91] Creating Layer inception_4e/relu_5x5_reduce
I0403 04:43:27.020493 26217 net.cpp:425] inception_4e/relu_5x5_reduce <- inception_4e/5x5_reduce
I0403 04:43:27.020512 26217 net.cpp:386] inception_4e/relu_5x5_reduce -> inception_4e/5x5_reduce (in-place)
I0403 04:43:27.020534 26217 net.cpp:141] Setting up inception_4e/relu_5x5_reduce
I0403 04:43:27.020553 26217 net.cpp:148] Top shape: 24 32 14 14 (150528)
I0403 04:43:27.020568 26217 net.cpp:156] Memory required for data: 1237333440
I0403 04:43:27.020584 26217 layer_factory.hpp:77] Creating layer inception_4e/5x5
I0403 04:43:27.020625 26217 net.cpp:91] Creating Layer inception_4e/5x5
I0403 04:43:27.020648 26217 net.cpp:425] inception_4e/5x5 <- inception_4e/5x5_reduce
I0403 04:43:27.020669 26217 net.cpp:399] inception_4e/5x5 -> inception_4e/5x5
I0403 04:43:27.021498 26217 net.cpp:141] Setting up inception_4e/5x5
I0403 04:43:27.021539 26217 net.cpp:148] Top shape: 24 128 14 14 (602112)
I0403 04:43:27.021558 26217 net.cpp:156] Memory required for data: 1239741888
I0403 04:43:27.021577 26217 layer_factory.hpp:77] Creating layer inception_4e/relu_5x5
I0403 04:43:27.021598 26217 net.cpp:91] Creating Layer inception_4e/relu_5x5
I0403 04:43:27.021617 26217 net.cpp:425] inception_4e/relu_5x5 <- inception_4e/5x5
I0403 04:43:27.021636 26217 net.cpp:386] inception_4e/relu_5x5 -> inception_4e/5x5 (in-place)
I0403 04:43:27.021656 26217 net.cpp:141] Setting up inception_4e/relu_5x5
I0403 04:43:27.021675 26217 net.cpp:148] Top shape: 24 128 14 14 (602112)
I0403 04:43:27.021692 26217 net.cpp:156] Memory required for data: 1242150336
I0403 04:43:27.021715 26217 layer_factory.hpp:77] Creating layer inception_4e/pool
I0403 04:43:27.021738 26217 net.cpp:91] Creating Layer inception_4e/pool
I0403 04:43:27.021757 26217 net.cpp:425] inception_4e/pool <- inception_4d/output_inception_4d/output_0_split_4
I0403 04:43:27.021776 26217 net.cpp:399] inception_4e/pool -> inception_4e/pool
I0403 04:43:27.021837 26217 net.cpp:141] Setting up inception_4e/pool
I0403 04:43:27.021863 26217 net.cpp:148] Top shape: 24 528 14 14 (2483712)
I0403 04:43:27.021878 26217 net.cpp:156] Memory required for data: 1252085184
I0403 04:43:27.021894 26217 layer_factory.hpp:77] Creating layer inception_4e/pool_proj
I0403 04:43:27.021919 26217 net.cpp:91] Creating Layer inception_4e/pool_proj
I0403 04:43:27.021939 26217 net.cpp:425] inception_4e/pool_proj <- inception_4e/pool
I0403 04:43:27.021960 26217 net.cpp:399] inception_4e/pool_proj -> inception_4e/pool_proj
I0403 04:43:27.022585 26217 net.cpp:141] Setting up inception_4e/pool_proj
I0403 04:43:27.022613 26217 net.cpp:148] Top shape: 24 128 14 14 (602112)
I0403 04:43:27.022629 26217 net.cpp:156] Memory required for data: 1254493632
I0403 04:43:27.022649 26217 layer_factory.hpp:77] Creating layer inception_4e/relu_pool_proj
I0403 04:43:27.022668 26217 net.cpp:91] Creating Layer inception_4e/relu_pool_proj
I0403 04:43:27.022686 26217 net.cpp:425] inception_4e/relu_pool_proj <- inception_4e/pool_proj
I0403 04:43:27.022706 26217 net.cpp:386] inception_4e/relu_pool_proj -> inception_4e/pool_proj (in-place)
I0403 04:43:27.022729 26217 net.cpp:141] Setting up inception_4e/relu_pool_proj
I0403 04:43:27.022747 26217 net.cpp:148] Top shape: 24 128 14 14 (602112)
I0403 04:43:27.022763 26217 net.cpp:156] Memory required for data: 1256902080
I0403 04:43:27.022778 26217 layer_factory.hpp:77] Creating layer inception_4e/output
I0403 04:43:27.022799 26217 net.cpp:91] Creating Layer inception_4e/output
I0403 04:43:27.022814 26217 net.cpp:425] inception_4e/output <- inception_4e/1x1
I0403 04:43:27.022831 26217 net.cpp:425] inception_4e/output <- inception_4e/3x3
I0403 04:43:27.022848 26217 net.cpp:425] inception_4e/output <- inception_4e/5x5
I0403 04:43:27.022866 26217 net.cpp:425] inception_4e/output <- inception_4e/pool_proj
I0403 04:43:27.022886 26217 net.cpp:399] inception_4e/output -> inception_4e/output
I0403 04:43:27.022928 26217 net.cpp:141] Setting up inception_4e/output
I0403 04:43:27.022955 26217 net.cpp:148] Top shape: 24 832 14 14 (3913728)
I0403 04:43:27.022971 26217 net.cpp:156] Memory required for data: 1272556992
I0403 04:43:27.022986 26217 layer_factory.hpp:77] Creating layer pool4/3x3_s2
I0403 04:43:27.023008 26217 net.cpp:91] Creating Layer pool4/3x3_s2
I0403 04:43:27.023028 26217 net.cpp:425] pool4/3x3_s2 <- inception_4e/output
I0403 04:43:27.023048 26217 net.cpp:399] pool4/3x3_s2 -> pool4/3x3_s2
I0403 04:43:27.023103 26217 net.cpp:141] Setting up pool4/3x3_s2
I0403 04:43:27.023128 26217 net.cpp:148] Top shape: 24 832 7 7 (978432)
I0403 04:43:27.023144 26217 net.cpp:156] Memory required for data: 1276470720
I0403 04:43:27.023159 26217 layer_factory.hpp:77] Creating layer pool4/3x3_s2_pool4/3x3_s2_0_split
I0403 04:43:27.023180 26217 net.cpp:91] Creating Layer pool4/3x3_s2_pool4/3x3_s2_0_split
I0403 04:43:27.023196 26217 net.cpp:425] pool4/3x3_s2_pool4/3x3_s2_0_split <- pool4/3x3_s2
I0403 04:43:27.023237 26217 net.cpp:399] pool4/3x3_s2_pool4/3x3_s2_0_split -> pool4/3x3_s2_pool4/3x3_s2_0_split_0
I0403 04:43:27.023262 26217 net.cpp:399] pool4/3x3_s2_pool4/3x3_s2_0_split -> pool4/3x3_s2_pool4/3x3_s2_0_split_1
I0403 04:43:27.023285 26217 net.cpp:399] pool4/3x3_s2_pool4/3x3_s2_0_split -> pool4/3x3_s2_pool4/3x3_s2_0_split_2
I0403 04:43:27.023306 26217 net.cpp:399] pool4/3x3_s2_pool4/3x3_s2_0_split -> pool4/3x3_s2_pool4/3x3_s2_0_split_3
I0403 04:43:27.023380 26217 net.cpp:141] Setting up pool4/3x3_s2_pool4/3x3_s2_0_split
I0403 04:43:27.023408 26217 net.cpp:148] Top shape: 24 832 7 7 (978432)
I0403 04:43:27.023427 26217 net.cpp:148] Top shape: 24 832 7 7 (978432)
I0403 04:43:27.023443 26217 net.cpp:148] Top shape: 24 832 7 7 (978432)
I0403 04:43:27.023459 26217 net.cpp:148] Top shape: 24 832 7 7 (978432)
I0403 04:43:27.023473 26217 net.cpp:156] Memory required for data: 1292125632
I0403 04:43:27.023489 26217 layer_factory.hpp:77] Creating layer inception_5a/1x1
I0403 04:43:27.023514 26217 net.cpp:91] Creating Layer inception_5a/1x1
I0403 04:43:27.023533 26217 net.cpp:425] inception_5a/1x1 <- pool4/3x3_s2_pool4/3x3_s2_0_split_0
I0403 04:43:27.023555 26217 net.cpp:399] inception_5a/1x1 -> inception_5a/1x1
I0403 04:43:27.025579 26217 net.cpp:141] Setting up inception_5a/1x1
I0403 04:43:27.025610 26217 net.cpp:148] Top shape: 24 256 7 7 (301056)
I0403 04:43:27.025627 26217 net.cpp:156] Memory required for data: 1293329856
I0403 04:43:27.025645 26217 layer_factory.hpp:77] Creating layer inception_5a/relu_1x1
I0403 04:43:27.025666 26217 net.cpp:91] Creating Layer inception_5a/relu_1x1
I0403 04:43:27.025684 26217 net.cpp:425] inception_5a/relu_1x1 <- inception_5a/1x1
I0403 04:43:27.025703 26217 net.cpp:386] inception_5a/relu_1x1 -> inception_5a/1x1 (in-place)
I0403 04:43:27.025722 26217 net.cpp:141] Setting up inception_5a/relu_1x1
I0403 04:43:27.025740 26217 net.cpp:148] Top shape: 24 256 7 7 (301056)
I0403 04:43:27.025756 26217 net.cpp:156] Memory required for data: 1294534080
I0403 04:43:27.025771 26217 layer_factory.hpp:77] Creating layer inception_5a/3x3_reduce
I0403 04:43:27.025796 26217 net.cpp:91] Creating Layer inception_5a/3x3_reduce
I0403 04:43:27.025816 26217 net.cpp:425] inception_5a/3x3_reduce <- pool4/3x3_s2_pool4/3x3_s2_0_split_1
I0403 04:43:27.025840 26217 net.cpp:399] inception_5a/3x3_reduce -> inception_5a/3x3_reduce
I0403 04:43:27.027454 26217 net.cpp:141] Setting up inception_5a/3x3_reduce
I0403 04:43:27.027485 26217 net.cpp:148] Top shape: 24 160 7 7 (188160)
I0403 04:43:27.027503 26217 net.cpp:156] Memory required for data: 1295286720
I0403 04:43:27.027523 26217 layer_factory.hpp:77] Creating layer inception_5a/relu_3x3_reduce
I0403 04:43:27.027542 26217 net.cpp:91] Creating Layer inception_5a/relu_3x3_reduce
I0403 04:43:27.027561 26217 net.cpp:425] inception_5a/relu_3x3_reduce <- inception_5a/3x3_reduce
I0403 04:43:27.027580 26217 net.cpp:386] inception_5a/relu_3x3_reduce -> inception_5a/3x3_reduce (in-place)
I0403 04:43:27.027601 26217 net.cpp:141] Setting up inception_5a/relu_3x3_reduce
I0403 04:43:27.027619 26217 net.cpp:148] Top shape: 24 160 7 7 (188160)
I0403 04:43:27.027636 26217 net.cpp:156] Memory required for data: 1296039360
I0403 04:43:27.027650 26217 layer_factory.hpp:77] Creating layer inception_5a/3x3
I0403 04:43:27.027675 26217 net.cpp:91] Creating Layer inception_5a/3x3
I0403 04:43:27.027694 26217 net.cpp:425] inception_5a/3x3 <- inception_5a/3x3_reduce
I0403 04:43:27.027717 26217 net.cpp:399] inception_5a/3x3 -> inception_5a/3x3
I0403 04:43:27.031707 26217 net.cpp:141] Setting up inception_5a/3x3
I0403 04:43:27.031744 26217 net.cpp:148] Top shape: 24 320 7 7 (376320)
I0403 04:43:27.031764 26217 net.cpp:156] Memory required for data: 1297544640
I0403 04:43:27.031785 26217 layer_factory.hpp:77] Creating layer inception_5a/relu_3x3
I0403 04:43:27.031805 26217 net.cpp:91] Creating Layer inception_5a/relu_3x3
I0403 04:43:27.031822 26217 net.cpp:425] inception_5a/relu_3x3 <- inception_5a/3x3
I0403 04:43:27.031841 26217 net.cpp:386] inception_5a/relu_3x3 -> inception_5a/3x3 (in-place)
I0403 04:43:27.031880 26217 net.cpp:141] Setting up inception_5a/relu_3x3
I0403 04:43:27.031900 26217 net.cpp:148] Top shape: 24 320 7 7 (376320)
I0403 04:43:27.031918 26217 net.cpp:156] Memory required for data: 1299049920
I0403 04:43:27.031934 26217 layer_factory.hpp:77] Creating layer inception_5a/5x5_reduce
I0403 04:43:27.031960 26217 net.cpp:91] Creating Layer inception_5a/5x5_reduce
I0403 04:43:27.031978 26217 net.cpp:425] inception_5a/5x5_reduce <- pool4/3x3_s2_pool4/3x3_s2_0_split_2
I0403 04:43:27.032001 26217 net.cpp:399] inception_5a/5x5_reduce -> inception_5a/5x5_reduce
I0403 04:43:27.032408 26217 net.cpp:141] Setting up inception_5a/5x5_reduce
I0403 04:43:27.032436 26217 net.cpp:148] Top shape: 24 32 7 7 (37632)
I0403 04:43:27.032454 26217 net.cpp:156] Memory required for data: 1299200448
I0403 04:43:27.032472 26217 layer_factory.hpp:77] Creating layer inception_5a/relu_5x5_reduce
I0403 04:43:27.032493 26217 net.cpp:91] Creating Layer inception_5a/relu_5x5_reduce
I0403 04:43:27.032512 26217 net.cpp:425] inception_5a/relu_5x5_reduce <- inception_5a/5x5_reduce
I0403 04:43:27.032532 26217 net.cpp:386] inception_5a/relu_5x5_reduce -> inception_5a/5x5_reduce (in-place)
I0403 04:43:27.032553 26217 net.cpp:141] Setting up inception_5a/relu_5x5_reduce
I0403 04:43:27.032572 26217 net.cpp:148] Top shape: 24 32 7 7 (37632)
I0403 04:43:27.032587 26217 net.cpp:156] Memory required for data: 1299350976
I0403 04:43:27.032601 26217 layer_factory.hpp:77] Creating layer inception_5a/5x5
I0403 04:43:27.032626 26217 net.cpp:91] Creating Layer inception_5a/5x5
I0403 04:43:27.032646 26217 net.cpp:425] inception_5a/5x5 <- inception_5a/5x5_reduce
I0403 04:43:27.032671 26217 net.cpp:399] inception_5a/5x5 -> inception_5a/5x5
I0403 04:43:27.034577 26217 net.cpp:141] Setting up inception_5a/5x5
I0403 04:43:27.034607 26217 net.cpp:148] Top shape: 24 128 7 7 (150528)
I0403 04:43:27.034624 26217 net.cpp:156] Memory required for data: 1299953088
I0403 04:43:27.034643 26217 layer_factory.hpp:77] Creating layer inception_5a/relu_5x5
I0403 04:43:27.034662 26217 net.cpp:91] Creating Layer inception_5a/relu_5x5
I0403 04:43:27.034684 26217 net.cpp:425] inception_5a/relu_5x5 <- inception_5a/5x5
I0403 04:43:27.034704 26217 net.cpp:386] inception_5a/relu_5x5 -> inception_5a/5x5 (in-place)
I0403 04:43:27.034724 26217 net.cpp:141] Setting up inception_5a/relu_5x5
I0403 04:43:27.034742 26217 net.cpp:148] Top shape: 24 128 7 7 (150528)
I0403 04:43:27.034757 26217 net.cpp:156] Memory required for data: 1300555200
I0403 04:43:27.034771 26217 layer_factory.hpp:77] Creating layer inception_5a/pool
I0403 04:43:27.034790 26217 net.cpp:91] Creating Layer inception_5a/pool
I0403 04:43:27.034806 26217 net.cpp:425] inception_5a/pool <- pool4/3x3_s2_pool4/3x3_s2_0_split_3
I0403 04:43:27.034826 26217 net.cpp:399] inception_5a/pool -> inception_5a/pool
I0403 04:43:27.034880 26217 net.cpp:141] Setting up inception_5a/pool
I0403 04:43:27.034904 26217 net.cpp:148] Top shape: 24 832 7 7 (978432)
I0403 04:43:27.034920 26217 net.cpp:156] Memory required for data: 1304468928
I0403 04:43:27.034936 26217 layer_factory.hpp:77] Creating layer inception_5a/pool_proj
I0403 04:43:27.034961 26217 net.cpp:91] Creating Layer inception_5a/pool_proj
I0403 04:43:27.034981 26217 net.cpp:425] inception_5a/pool_proj <- inception_5a/pool
I0403 04:43:27.035002 26217 net.cpp:399] inception_5a/pool_proj -> inception_5a/pool_proj
I0403 04:43:27.036360 26217 net.cpp:141] Setting up inception_5a/pool_proj
I0403 04:43:27.036389 26217 net.cpp:148] Top shape: 24 128 7 7 (150528)
I0403 04:43:27.036407 26217 net.cpp:156] Memory required for data: 1305071040
I0403 04:43:27.036427 26217 layer_factory.hpp:77] Creating layer inception_5a/relu_pool_proj
I0403 04:43:27.036448 26217 net.cpp:91] Creating Layer inception_5a/relu_pool_proj
I0403 04:43:27.036466 26217 net.cpp:425] inception_5a/relu_pool_proj <- inception_5a/pool_proj
I0403 04:43:27.036485 26217 net.cpp:386] inception_5a/relu_pool_proj -> inception_5a/pool_proj (in-place)
I0403 04:43:27.036506 26217 net.cpp:141] Setting up inception_5a/relu_pool_proj
I0403 04:43:27.036540 26217 net.cpp:148] Top shape: 24 128 7 7 (150528)
I0403 04:43:27.036558 26217 net.cpp:156] Memory required for data: 1305673152
I0403 04:43:27.036572 26217 layer_factory.hpp:77] Creating layer inception_5a/output
I0403 04:43:27.036592 26217 net.cpp:91] Creating Layer inception_5a/output
I0403 04:43:27.036607 26217 net.cpp:425] inception_5a/output <- inception_5a/1x1
I0403 04:43:27.036623 26217 net.cpp:425] inception_5a/output <- inception_5a/3x3
I0403 04:43:27.036640 26217 net.cpp:425] inception_5a/output <- inception_5a/5x5
I0403 04:43:27.036659 26217 net.cpp:425] inception_5a/output <- inception_5a/pool_proj
I0403 04:43:27.036679 26217 net.cpp:399] inception_5a/output -> inception_5a/output
I0403 04:43:27.036732 26217 net.cpp:141] Setting up inception_5a/output
I0403 04:43:27.036757 26217 net.cpp:148] Top shape: 24 832 7 7 (978432)
I0403 04:43:27.036775 26217 net.cpp:156] Memory required for data: 1309586880
I0403 04:43:27.036790 26217 layer_factory.hpp:77] Creating layer inception_5a/output_inception_5a/output_0_split
I0403 04:43:27.036809 26217 net.cpp:91] Creating Layer inception_5a/output_inception_5a/output_0_split
I0403 04:43:27.036825 26217 net.cpp:425] inception_5a/output_inception_5a/output_0_split <- inception_5a/output
I0403 04:43:27.036845 26217 net.cpp:399] inception_5a/output_inception_5a/output_0_split -> inception_5a/output_inception_5a/output_0_split_0
I0403 04:43:27.036869 26217 net.cpp:399] inception_5a/output_inception_5a/output_0_split -> inception_5a/output_inception_5a/output_0_split_1
I0403 04:43:27.036890 26217 net.cpp:399] inception_5a/output_inception_5a/output_0_split -> inception_5a/output_inception_5a/output_0_split_2
I0403 04:43:27.036922 26217 net.cpp:399] inception_5a/output_inception_5a/output_0_split -> inception_5a/output_inception_5a/output_0_split_3
I0403 04:43:27.036994 26217 net.cpp:141] Setting up inception_5a/output_inception_5a/output_0_split
I0403 04:43:27.037019 26217 net.cpp:148] Top shape: 24 832 7 7 (978432)
I0403 04:43:27.037036 26217 net.cpp:148] Top shape: 24 832 7 7 (978432)
I0403 04:43:27.037052 26217 net.cpp:148] Top shape: 24 832 7 7 (978432)
I0403 04:43:27.037068 26217 net.cpp:148] Top shape: 24 832 7 7 (978432)
I0403 04:43:27.037082 26217 net.cpp:156] Memory required for data: 1325241792
I0403 04:43:27.037098 26217 layer_factory.hpp:77] Creating layer inception_5b/1x1
I0403 04:43:27.037125 26217 net.cpp:91] Creating Layer inception_5b/1x1
I0403 04:43:27.037145 26217 net.cpp:425] inception_5b/1x1 <- inception_5a/output_inception_5a/output_0_split_0
I0403 04:43:27.037174 26217 net.cpp:399] inception_5b/1x1 -> inception_5b/1x1
I0403 04:43:27.039916 26217 net.cpp:141] Setting up inception_5b/1x1
I0403 04:43:27.039950 26217 net.cpp:148] Top shape: 24 384 7 7 (451584)
I0403 04:43:27.039969 26217 net.cpp:156] Memory required for data: 1327048128
I0403 04:43:27.039989 26217 layer_factory.hpp:77] Creating layer inception_5b/relu_1x1
I0403 04:43:27.040009 26217 net.cpp:91] Creating Layer inception_5b/relu_1x1
I0403 04:43:27.040026 26217 net.cpp:425] inception_5b/relu_1x1 <- inception_5b/1x1
I0403 04:43:27.040046 26217 net.cpp:386] inception_5b/relu_1x1 -> inception_5b/1x1 (in-place)
I0403 04:43:27.040066 26217 net.cpp:141] Setting up inception_5b/relu_1x1
I0403 04:43:27.040088 26217 net.cpp:148] Top shape: 24 384 7 7 (451584)
I0403 04:43:27.040104 26217 net.cpp:156] Memory required for data: 1328854464
I0403 04:43:27.040122 26217 layer_factory.hpp:77] Creating layer inception_5b/3x3_reduce
I0403 04:43:27.040163 26217 net.cpp:91] Creating Layer inception_5b/3x3_reduce
I0403 04:43:27.040199 26217 net.cpp:425] inception_5b/3x3_reduce <- inception_5a/output_inception_5a/output_0_split_1
I0403 04:43:27.040231 26217 net.cpp:399] inception_5b/3x3_reduce -> inception_5b/3x3_reduce
I0403 04:43:27.041949 26217 net.cpp:141] Setting up inception_5b/3x3_reduce
I0403 04:43:27.041980 26217 net.cpp:148] Top shape: 24 192 7 7 (225792)
I0403 04:43:27.041998 26217 net.cpp:156] Memory required for data: 1329757632
I0403 04:43:27.042017 26217 layer_factory.hpp:77] Creating layer inception_5b/relu_3x3_reduce
I0403 04:43:27.042055 26217 net.cpp:91] Creating Layer inception_5b/relu_3x3_reduce
I0403 04:43:27.042084 26217 net.cpp:425] inception_5b/relu_3x3_reduce <- inception_5b/3x3_reduce
I0403 04:43:27.042110 26217 net.cpp:386] inception_5b/relu_3x3_reduce -> inception_5b/3x3_reduce (in-place)
I0403 04:43:27.042136 26217 net.cpp:141] Setting up inception_5b/relu_3x3_reduce
I0403 04:43:27.042162 26217 net.cpp:148] Top shape: 24 192 7 7 (225792)
I0403 04:43:27.042177 26217 net.cpp:156] Memory required for data: 1330660800
I0403 04:43:27.042193 26217 layer_factory.hpp:77] Creating layer inception_5b/3x3
I0403 04:43:27.042224 26217 net.cpp:91] Creating Layer inception_5b/3x3
I0403 04:43:27.042246 26217 net.cpp:425] inception_5b/3x3 <- inception_5b/3x3_reduce
I0403 04:43:27.042268 26217 net.cpp:399] inception_5b/3x3 -> inception_5b/3x3
I0403 04:43:27.047842 26217 net.cpp:141] Setting up inception_5b/3x3
I0403 04:43:27.047873 26217 net.cpp:148] Top shape: 24 384 7 7 (451584)
I0403 04:43:27.047890 26217 net.cpp:156] Memory required for data: 1332467136
I0403 04:43:27.047910 26217 layer_factory.hpp:77] Creating layer inception_5b/relu_3x3
I0403 04:43:27.047931 26217 net.cpp:91] Creating Layer inception_5b/relu_3x3
I0403 04:43:27.047950 26217 net.cpp:425] inception_5b/relu_3x3 <- inception_5b/3x3
I0403 04:43:27.047971 26217 net.cpp:386] inception_5b/relu_3x3 -> inception_5b/3x3 (in-place)
I0403 04:43:27.047993 26217 net.cpp:141] Setting up inception_5b/relu_3x3
I0403 04:43:27.048014 26217 net.cpp:148] Top shape: 24 384 7 7 (451584)
I0403 04:43:27.048030 26217 net.cpp:156] Memory required for data: 1334273472
I0403 04:43:27.048045 26217 layer_factory.hpp:77] Creating layer inception_5b/5x5_reduce
I0403 04:43:27.048069 26217 net.cpp:91] Creating Layer inception_5b/5x5_reduce
I0403 04:43:27.048095 26217 net.cpp:425] inception_5b/5x5_reduce <- inception_5a/output_inception_5a/output_0_split_2
I0403 04:43:27.048128 26217 net.cpp:399] inception_5b/5x5_reduce -> inception_5b/5x5_reduce
I0403 04:43:27.049170 26217 net.cpp:141] Setting up inception_5b/5x5_reduce
I0403 04:43:27.049202 26217 net.cpp:148] Top shape: 24 48 7 7 (56448)
I0403 04:43:27.049224 26217 net.cpp:156] Memory required for data: 1334499264
I0403 04:43:27.049245 26217 layer_factory.hpp:77] Creating layer inception_5b/relu_5x5_reduce
I0403 04:43:27.049268 26217 net.cpp:91] Creating Layer inception_5b/relu_5x5_reduce
I0403 04:43:27.049286 26217 net.cpp:425] inception_5b/relu_5x5_reduce <- inception_5b/5x5_reduce
I0403 04:43:27.049304 26217 net.cpp:386] inception_5b/relu_5x5_reduce -> inception_5b/5x5_reduce (in-place)
I0403 04:43:27.049329 26217 net.cpp:141] Setting up inception_5b/relu_5x5_reduce
I0403 04:43:27.049348 26217 net.cpp:148] Top shape: 24 48 7 7 (56448)
I0403 04:43:27.049365 26217 net.cpp:156] Memory required for data: 1334725056
I0403 04:43:27.049381 26217 layer_factory.hpp:77] Creating layer inception_5b/5x5
I0403 04:43:27.049403 26217 net.cpp:91] Creating Layer inception_5b/5x5
I0403 04:43:27.049422 26217 net.cpp:425] inception_5b/5x5 <- inception_5b/5x5_reduce
I0403 04:43:27.049446 26217 net.cpp:399] inception_5b/5x5 -> inception_5b/5x5
I0403 04:43:27.050593 26217 net.cpp:141] Setting up inception_5b/5x5
I0403 04:43:27.050621 26217 net.cpp:148] Top shape: 24 128 7 7 (150528)
I0403 04:43:27.050638 26217 net.cpp:156] Memory required for data: 1335327168
I0403 04:43:27.050657 26217 layer_factory.hpp:77] Creating layer inception_5b/relu_5x5
I0403 04:43:27.050678 26217 net.cpp:91] Creating Layer inception_5b/relu_5x5
I0403 04:43:27.050695 26217 net.cpp:425] inception_5b/relu_5x5 <- inception_5b/5x5
I0403 04:43:27.050714 26217 net.cpp:386] inception_5b/relu_5x5 -> inception_5b/5x5 (in-place)
I0403 04:43:27.050734 26217 net.cpp:141] Setting up inception_5b/relu_5x5
I0403 04:43:27.050753 26217 net.cpp:148] Top shape: 24 128 7 7 (150528)
I0403 04:43:27.050770 26217 net.cpp:156] Memory required for data: 1335929280
I0403 04:43:27.050786 26217 layer_factory.hpp:77] Creating layer inception_5b/pool
I0403 04:43:27.050806 26217 net.cpp:91] Creating Layer inception_5b/pool
I0403 04:43:27.050840 26217 net.cpp:425] inception_5b/pool <- inception_5a/output_inception_5a/output_0_split_3
I0403 04:43:27.050863 26217 net.cpp:399] inception_5b/pool -> inception_5b/pool
I0403 04:43:27.050920 26217 net.cpp:141] Setting up inception_5b/pool
I0403 04:43:27.050946 26217 net.cpp:148] Top shape: 24 832 7 7 (978432)
I0403 04:43:27.050962 26217 net.cpp:156] Memory required for data: 1339843008
I0403 04:43:27.050977 26217 layer_factory.hpp:77] Creating layer inception_5b/pool_proj
I0403 04:43:27.051008 26217 net.cpp:91] Creating Layer inception_5b/pool_proj
I0403 04:43:27.051029 26217 net.cpp:425] inception_5b/pool_proj <- inception_5b/pool
I0403 04:43:27.051050 26217 net.cpp:399] inception_5b/pool_proj -> inception_5b/pool_proj
I0403 04:43:27.052454 26217 net.cpp:141] Setting up inception_5b/pool_proj
I0403 04:43:27.052485 26217 net.cpp:148] Top shape: 24 128 7 7 (150528)
I0403 04:43:27.052502 26217 net.cpp:156] Memory required for data: 1340445120
I0403 04:43:27.052521 26217 layer_factory.hpp:77] Creating layer inception_5b/relu_pool_proj
I0403 04:43:27.052541 26217 net.cpp:91] Creating Layer inception_5b/relu_pool_proj
I0403 04:43:27.052558 26217 net.cpp:425] inception_5b/relu_pool_proj <- inception_5b/pool_proj
I0403 04:43:27.052577 26217 net.cpp:386] inception_5b/relu_pool_proj -> inception_5b/pool_proj (in-place)
I0403 04:43:27.052599 26217 net.cpp:141] Setting up inception_5b/relu_pool_proj
I0403 04:43:27.052618 26217 net.cpp:148] Top shape: 24 128 7 7 (150528)
I0403 04:43:27.052634 26217 net.cpp:156] Memory required for data: 1341047232
I0403 04:43:27.052649 26217 layer_factory.hpp:77] Creating layer inception_5b/output
I0403 04:43:27.052670 26217 net.cpp:91] Creating Layer inception_5b/output
I0403 04:43:27.052688 26217 net.cpp:425] inception_5b/output <- inception_5b/1x1
I0403 04:43:27.052706 26217 net.cpp:425] inception_5b/output <- inception_5b/3x3
I0403 04:43:27.052722 26217 net.cpp:425] inception_5b/output <- inception_5b/5x5
I0403 04:43:27.052739 26217 net.cpp:425] inception_5b/output <- inception_5b/pool_proj
I0403 04:43:27.052758 26217 net.cpp:399] inception_5b/output -> inception_5b/output
I0403 04:43:27.052803 26217 net.cpp:141] Setting up inception_5b/output
I0403 04:43:27.052829 26217 net.cpp:148] Top shape: 24 1024 7 7 (1204224)
I0403 04:43:27.052845 26217 net.cpp:156] Memory required for data: 1345864128
I0403 04:43:27.052861 26217 layer_factory.hpp:77] Creating layer pool5/7x7_s1
I0403 04:43:27.052881 26217 net.cpp:91] Creating Layer pool5/7x7_s1
I0403 04:43:27.052899 26217 net.cpp:425] pool5/7x7_s1 <- inception_5b/output
I0403 04:43:27.052922 26217 net.cpp:399] pool5/7x7_s1 -> pool5/7x7_s1
I0403 04:43:27.052966 26217 net.cpp:141] Setting up pool5/7x7_s1
I0403 04:43:27.052991 26217 net.cpp:148] Top shape: 24 1024 1 1 (24576)
I0403 04:43:27.053009 26217 net.cpp:156] Memory required for data: 1345962432
I0403 04:43:27.053025 26217 layer_factory.hpp:77] Creating layer pool5/drop_7x7_s1
I0403 04:43:27.053045 26217 net.cpp:91] Creating Layer pool5/drop_7x7_s1
I0403 04:43:27.053061 26217 net.cpp:425] pool5/drop_7x7_s1 <- pool5/7x7_s1
I0403 04:43:27.053081 26217 net.cpp:386] pool5/drop_7x7_s1 -> pool5/7x7_s1 (in-place)
I0403 04:43:27.053123 26217 net.cpp:141] Setting up pool5/drop_7x7_s1
I0403 04:43:27.053148 26217 net.cpp:148] Top shape: 24 1024 1 1 (24576)
I0403 04:43:27.053164 26217 net.cpp:156] Memory required for data: 1346060736
I0403 04:43:27.053180 26217 layer_factory.hpp:77] Creating layer loss3/classifier_plantvillage
I0403 04:43:27.053205 26217 net.cpp:91] Creating Layer loss3/classifier_plantvillage
I0403 04:43:27.053227 26217 net.cpp:425] loss3/classifier_plantvillage <- pool5/7x7_s1
I0403 04:43:27.053249 26217 net.cpp:399] loss3/classifier_plantvillage -> loss3/classifier_plantvillage
I0403 04:43:27.053604 26217 net.cpp:141] Setting up loss3/classifier_plantvillage
I0403 04:43:27.053639 26217 net.cpp:148] Top shape: 24 38 (912)
I0403 04:43:27.053656 26217 net.cpp:156] Memory required for data: 1346064384
I0403 04:43:27.053678 26217 layer_factory.hpp:77] Creating layer loss3/classifier_plantvillage_loss3/classifier_plantvillage_0_split
I0403 04:43:27.053719 26217 net.cpp:91] Creating Layer loss3/classifier_plantvillage_loss3/classifier_plantvillage_0_split
I0403 04:43:27.053737 26217 net.cpp:425] loss3/classifier_plantvillage_loss3/classifier_plantvillage_0_split <- loss3/classifier_plantvillage
I0403 04:43:27.053760 26217 net.cpp:399] loss3/classifier_plantvillage_loss3/classifier_plantvillage_0_split -> loss3/classifier_plantvillage_loss3/classifier_plantvillage_0_split_0
I0403 04:43:27.053783 26217 net.cpp:399] loss3/classifier_plantvillage_loss3/classifier_plantvillage_0_split -> loss3/classifier_plantvillage_loss3/classifier_plantvillage_0_split_1
I0403 04:43:27.053807 26217 net.cpp:399] loss3/classifier_plantvillage_loss3/classifier_plantvillage_0_split -> loss3/classifier_plantvillage_loss3/classifier_plantvillage_0_split_2
I0403 04:43:27.053874 26217 net.cpp:141] Setting up loss3/classifier_plantvillage_loss3/classifier_plantvillage_0_split
I0403 04:43:27.053900 26217 net.cpp:148] Top shape: 24 38 (912)
I0403 04:43:27.053917 26217 net.cpp:148] Top shape: 24 38 (912)
I0403 04:43:27.053936 26217 net.cpp:148] Top shape: 24 38 (912)
I0403 04:43:27.053951 26217 net.cpp:156] Memory required for data: 1346075328
I0403 04:43:27.053966 26217 layer_factory.hpp:77] Creating layer loss1/loss
I0403 04:43:27.053985 26217 net.cpp:91] Creating Layer loss1/loss
I0403 04:43:27.054003 26217 net.cpp:425] loss1/loss <- loss1/classifier_plantvillage_loss1/classifier_plantvillage_0_split_0
I0403 04:43:27.054020 26217 net.cpp:425] loss1/loss <- label_data_1_split_0
…
