…
I0403 02:30:37.487388 30256 net.cpp:313] The NetState phase (0) differed from the phase (1) specified by a rule in layer accuracy
I0403 02:30:37.489094 30256 net.cpp:49] Initializing net from parameters: 
state {
  phase: TRAIN
}
layer {
  name: "data"
  type: "Data"
  top: "data"
  top: "label"
  include {
    phase: TRAIN
  }
  transform_param {
    mirror: true
    crop_size: 227
    mean_file: "/home/mohanty/data/final_dataset/lmdb/color-80-20/mean.binaryproto"
  }
  data_param {
    source: "/home/mohanty/data/final_dataset/lmdb/color-80-20/train_db"
    batch_size: 100
    backend: LMDB
  }
}
layer {
  name: "conv1"
  type: "Convolution"
  bottom: "data"
  top: "conv1"
  param {
    lr_mult: 1
    decay_mult: 1
  }
  param {
    lr_mult: 2
    decay_mult: 0
  }
  convolution_param {
    num_output: 96
    kernel_size: 11
    stride: 4
    weight_filler {
      type: "gaussian"
      std: 0.01
    }
    bias_filler {
      type: "constant"
      value: 0
    }
  }
}
layer {
  name: "relu1"
  type: "ReLU"
  bottom: "conv1"
  top: "conv1"
}
layer {
  name: "norm1"
  type: "LRN"
  bottom: "conv1"
  top: "norm1"
  lrn_param {
    local_size: 5
    alpha: 0.0001
    beta: 0.75
  }
}
layer {
  name: "pool1"
  type: "Pooling"
  bottom: "norm1"
  top: "pool1"
  pooling_param {
    pool: MAX
    kernel_size: 3
    stride: 2
  }
}
layer {
  name: "conv2"
  type: "Convolution"
  bottom: "pool1"
  top: "conv2"
  param {
    lr_mult: 1
    decay_mult: 1
  }
  param {
    lr_mult: 2
    decay_mult: 0
  }
  convolution_param {
    num_output: 256
    pad: 2
    kernel_size: 5
    group: 2
    weight_filler {
      type: "gaussian"
      std: 0.01
    }
    bias_filler {
      type: "constant"
      value: 0.1
    }
  }
}
layer {
  name: "relu2"
  type: "ReLU"
  bottom: "conv2"
  top: "conv2"
}
layer {
  name: "norm2"
  type: "LRN"
  bottom: "conv2"
  top: "norm2"
  lrn_param {
    local_size: 5
    alpha: 0.0001
    beta: 0.75
  }
}
layer {
  name: "pool2"
  type: "Pooling"
  bottom: "norm2"
  top: "pool2"
  pooling_param {
    pool: MAX
    kernel_size: 3
    stride: 2
  }
}
layer {
  name: "conv3"
  type: "Convolution"
  bottom: "pool2"
  top: "conv3"
  param {
    lr_mult: 1
    decay_mult: 1
  }
  param {
    lr_mult: 2
    decay_mult: 0
  }
  convolution_param {
    num_output: 384
    pad: 1
    kernel_size: 3
    weight_filler {
      type: "gaussian"
      std: 0.01
    }
    bias_filler {
      type: "constant"
      value: 0
    }
  }
}
layer {
  name: "relu3"
  type: "ReLU"
  bottom: "conv3"
  top: "conv3"
}
layer {
  name: "conv4"
  type: "Convolution"
  bottom: "conv3"
  top: "conv4"
  param {
    lr_mult: 1
    decay_mult: 1
  }
  param {
    lr_mult: 2
    decay_mult: 0
  }
  convolution_param {
    num_output: 384
    pad: 1
    kernel_size: 3
    group: 2
    weight_filler {
      type: "gaussian"
      std: 0.01
    }
    bias_filler {
      type: "constant"
      value: 0.1
    }
  }
}
layer {
  name: "relu4"
  type: "ReLU"
  bottom: "conv4"
  top: "conv4"
}
layer {
  name: "conv5"
  type: "Convolution"
  bottom: "conv4"
  top: "conv5"
  param {
    lr_mult: 1
    decay_mult: 1
  }
  param {
    lr_mult: 2
    decay_mult: 0
  }
  convolution_param {
    num_output: 256
    pad: 1
    kernel_size: 3
    group: 2
    weight_filler {
      type: "gaussian"
      std: 0.01
    }
    bias_filler {
      type: "constant"
      value: 0.1
    }
  }
}
layer {
  name: "relu5"
  type: "ReLU"
  bottom: "conv5"
  top: "conv5"
}
layer {
  name: "pool5"
  type: "Pooling"
  bottom: "conv5"
  top: "pool5"
  pooling_param {
    pool: MAX
    kernel_size: 3
    stride: 2
  }
}
layer {
  name: "fc6"
  type: "InnerProduct"
  bottom: "pool5"
  top: "fc6"
  param {
    lr_mult: 1
    decay_mult: 1
  }
  param {
    lr_mult: 2
    decay_mult: 0
  }
  inner_product_param {
    num_output: 4096
    weight_filler {
      type: "gaussian"
      std: 0.005
    }
    bias_filler {
      type: "constant"
      value: 0.1
    }
  }
}
layer {
  name: "relu6"
  type: "ReLU"
  bottom: "fc6"
  top: "fc6"
}
layer {
  name: "drop6"
  type: "Dropout"
  bottom: "fc6"
  top: "fc6"
  dropout_param {
    dropout_ratio: 0.5
  }
}
layer {
  name: "fc7"
  type: "InnerProduct"
  bottom: "fc6"
  top: "fc7"
  param {
    lr_mult: 1
    decay_mult: 1
  }
  param {
    lr_mult: 2
    decay_mult: 0
  }
  inner_product_param {
    num_output: 4096
    weight_filler {
      type: "gaussian"
      std: 0.005
    }
    bias_filler {
      type: "constant"
      value: 0.1
    }
  }
}
layer {
  name: "relu7"
  type: "ReLU"
  bottom: "fc7"
  top: "fc7"
}
layer {
  name: "drop7"
  type: "Dropout"
  bottom: "fc7"
  top: "fc7"
  dropout_param {
    dropout_ratio: 0.5
  }
}
layer {
  name: "fc8_plantvillage"
  type: "InnerProduct"
  bottom: "fc7"
  top: "fc8_plantvillage"
  param {
    lr_mult: 1
    decay_mult: 1
  }
  param {
    lr_mult: 2
    decay_mult: 0
  }
  inner_product_param {
    num_output: 38
    weight_filler {
      type: "gaussian"
      std: 0.01
    }
    bias_filler {
      type: "constant"
      value: 0
    }
  }
}
layer {
  name: "loss"
  type: "SoftmaxWithLoss"
  bottom: "fc8_plantvillage"
  bottom: "label"
  top: "loss"
}
I0403 02:30:37.492107 30256 layer_factory.hpp:77] Creating layer data
I0403 02:30:37.494027 30256 net.cpp:91] Creating Layer data
I0403 02:30:37.494173 30256 net.cpp:399] data -> data
I0403 02:30:37.494429 30256 net.cpp:399] data -> label
I0403 02:30:37.494570 30256 data_transformer.cpp:25] Loading mean file from: /home/mohanty/data/final_dataset/lmdb/color-80-20/mean.binaryproto
I0403 02:30:37.515656 30261 db_lmdb.cpp:38] Opened lmdb /home/mohanty/data/final_dataset/lmdb/color-80-20/train_db
I0403 02:30:37.537127 30256 data_layer.cpp:41] output data size: 100,3,227,227
I0403 02:30:37.675608 30256 net.cpp:141] Setting up data
I0403 02:30:37.675714 30256 net.cpp:148] Top shape: 100 3 227 227 (15458700)
I0403 02:30:37.675741 30256 net.cpp:148] Top shape: 100 (100)
I0403 02:30:37.675761 30256 net.cpp:156] Memory required for data: 61835200
I0403 02:30:37.675801 30256 layer_factory.hpp:77] Creating layer conv1
I0403 02:30:37.675854 30256 net.cpp:91] Creating Layer conv1
I0403 02:30:37.675884 30256 net.cpp:425] conv1 <- data
I0403 02:30:37.675920 30256 net.cpp:399] conv1 -> conv1
I0403 02:30:37.679113 30256 net.cpp:141] Setting up conv1
I0403 02:30:37.679152 30256 net.cpp:148] Top shape: 100 96 55 55 (29040000)
I0403 02:30:37.679172 30256 net.cpp:156] Memory required for data: 177995200
I0403 02:30:37.679214 30256 layer_factory.hpp:77] Creating layer relu1
I0403 02:30:37.679246 30256 net.cpp:91] Creating Layer relu1
I0403 02:30:37.679267 30256 net.cpp:425] relu1 <- conv1
I0403 02:30:37.679288 30256 net.cpp:386] relu1 -> conv1 (in-place)
I0403 02:30:37.679321 30256 net.cpp:141] Setting up relu1
I0403 02:30:37.679345 30256 net.cpp:148] Top shape: 100 96 55 55 (29040000)
I0403 02:30:37.679363 30256 net.cpp:156] Memory required for data: 294155200
I0403 02:30:37.679381 30256 layer_factory.hpp:77] Creating layer norm1
I0403 02:30:37.679406 30256 net.cpp:91] Creating Layer norm1
I0403 02:30:37.679461 30256 net.cpp:425] norm1 <- conv1
I0403 02:30:37.679484 30256 net.cpp:399] norm1 -> norm1
I0403 02:30:37.685081 30256 net.cpp:141] Setting up norm1
I0403 02:30:37.685124 30256 net.cpp:148] Top shape: 100 96 55 55 (29040000)
I0403 02:30:37.685144 30256 net.cpp:156] Memory required for data: 410315200
I0403 02:30:37.685164 30256 layer_factory.hpp:77] Creating layer pool1
I0403 02:30:37.685191 30256 net.cpp:91] Creating Layer pool1
I0403 02:30:37.685210 30256 net.cpp:425] pool1 <- norm1
I0403 02:30:37.685232 30256 net.cpp:399] pool1 -> pool1
I0403 02:30:37.685308 30256 net.cpp:141] Setting up pool1
I0403 02:30:37.685359 30256 net.cpp:148] Top shape: 100 96 27 27 (6998400)
I0403 02:30:37.685379 30256 net.cpp:156] Memory required for data: 438308800
I0403 02:30:37.685397 30256 layer_factory.hpp:77] Creating layer conv2
I0403 02:30:37.685425 30256 net.cpp:91] Creating Layer conv2
I0403 02:30:37.685446 30256 net.cpp:425] conv2 <- pool1
I0403 02:30:37.685468 30256 net.cpp:399] conv2 -> conv2
I0403 02:30:37.686946 30264 blocking_queue.cpp:50] Waiting for data
I0403 02:30:37.702750 30256 net.cpp:141] Setting up conv2
I0403 02:30:37.702788 30256 net.cpp:148] Top shape: 100 256 27 27 (18662400)
I0403 02:30:37.702808 30256 net.cpp:156] Memory required for data: 512958400
I0403 02:30:37.702836 30256 layer_factory.hpp:77] Creating layer relu2
I0403 02:30:37.702859 30256 net.cpp:91] Creating Layer relu2
I0403 02:30:37.702879 30256 net.cpp:425] relu2 <- conv2
I0403 02:30:37.702900 30256 net.cpp:386] relu2 -> conv2 (in-place)
I0403 02:30:37.702926 30256 net.cpp:141] Setting up relu2
I0403 02:30:37.702947 30256 net.cpp:148] Top shape: 100 256 27 27 (18662400)
I0403 02:30:37.702965 30256 net.cpp:156] Memory required for data: 587608000
I0403 02:30:37.702982 30256 layer_factory.hpp:77] Creating layer norm2
I0403 02:30:37.703004 30256 net.cpp:91] Creating Layer norm2
I0403 02:30:37.703024 30256 net.cpp:425] norm2 <- conv2
I0403 02:30:37.703047 30256 net.cpp:399] norm2 -> norm2
I0403 02:30:37.703102 30256 net.cpp:141] Setting up norm2
I0403 02:30:37.703130 30256 net.cpp:148] Top shape: 100 256 27 27 (18662400)
I0403 02:30:37.703147 30256 net.cpp:156] Memory required for data: 662257600
I0403 02:30:37.703166 30256 layer_factory.hpp:77] Creating layer pool2
I0403 02:30:37.703191 30256 net.cpp:91] Creating Layer pool2
I0403 02:30:37.703209 30256 net.cpp:425] pool2 <- norm2
I0403 02:30:37.703232 30256 net.cpp:399] pool2 -> pool2
I0403 02:30:37.703286 30256 net.cpp:141] Setting up pool2
I0403 02:30:37.703315 30256 net.cpp:148] Top shape: 100 256 13 13 (4326400)
I0403 02:30:37.703344 30256 net.cpp:156] Memory required for data: 679563200
I0403 02:30:37.703362 30256 layer_factory.hpp:77] Creating layer conv3
I0403 02:30:37.703389 30256 net.cpp:91] Creating Layer conv3
I0403 02:30:37.703408 30256 net.cpp:425] conv3 <- pool2
I0403 02:30:37.703430 30256 net.cpp:399] conv3 -> conv3
I0403 02:30:37.745105 30256 net.cpp:141] Setting up conv3
I0403 02:30:37.745144 30256 net.cpp:148] Top shape: 100 384 13 13 (6489600)
I0403 02:30:37.745164 30256 net.cpp:156] Memory required for data: 705521600
I0403 02:30:37.745190 30256 layer_factory.hpp:77] Creating layer relu3
I0403 02:30:37.745214 30256 net.cpp:91] Creating Layer relu3
I0403 02:30:37.745234 30256 net.cpp:425] relu3 <- conv3
I0403 02:30:37.745255 30256 net.cpp:386] relu3 -> conv3 (in-place)
I0403 02:30:37.745280 30256 net.cpp:141] Setting up relu3
I0403 02:30:37.745334 30256 net.cpp:148] Top shape: 100 384 13 13 (6489600)
I0403 02:30:37.745354 30256 net.cpp:156] Memory required for data: 731480000
I0403 02:30:37.745373 30256 layer_factory.hpp:77] Creating layer conv4
I0403 02:30:37.745399 30256 net.cpp:91] Creating Layer conv4
I0403 02:30:37.745419 30256 net.cpp:425] conv4 <- conv3
I0403 02:30:37.745442 30256 net.cpp:399] conv4 -> conv4
I0403 02:30:37.776880 30256 net.cpp:141] Setting up conv4
I0403 02:30:37.776926 30256 net.cpp:148] Top shape: 100 384 13 13 (6489600)
I0403 02:30:37.776945 30256 net.cpp:156] Memory required for data: 757438400
I0403 02:30:37.776968 30256 layer_factory.hpp:77] Creating layer relu4
I0403 02:30:37.777014 30256 net.cpp:91] Creating Layer relu4
I0403 02:30:37.777036 30256 net.cpp:425] relu4 <- conv4
I0403 02:30:37.777058 30256 net.cpp:386] relu4 -> conv4 (in-place)
I0403 02:30:37.777083 30256 net.cpp:141] Setting up relu4
I0403 02:30:37.777104 30256 net.cpp:148] Top shape: 100 384 13 13 (6489600)
I0403 02:30:37.777122 30256 net.cpp:156] Memory required for data: 783396800
I0403 02:30:37.777139 30256 layer_factory.hpp:77] Creating layer conv5
I0403 02:30:37.777173 30256 net.cpp:91] Creating Layer conv5
I0403 02:30:37.777194 30256 net.cpp:425] conv5 <- conv4
I0403 02:30:37.777216 30256 net.cpp:399] conv5 -> conv5
I0403 02:30:37.798228 30256 net.cpp:141] Setting up conv5
I0403 02:30:37.798272 30256 net.cpp:148] Top shape: 100 256 13 13 (4326400)
I0403 02:30:37.798292 30256 net.cpp:156] Memory required for data: 800702400
I0403 02:30:37.798332 30256 layer_factory.hpp:77] Creating layer relu5
I0403 02:30:37.798362 30256 net.cpp:91] Creating Layer relu5
I0403 02:30:37.798383 30256 net.cpp:425] relu5 <- conv5
I0403 02:30:37.798405 30256 net.cpp:386] relu5 -> conv5 (in-place)
I0403 02:30:37.798429 30256 net.cpp:141] Setting up relu5
I0403 02:30:37.798450 30256 net.cpp:148] Top shape: 100 256 13 13 (4326400)
I0403 02:30:37.798468 30256 net.cpp:156] Memory required for data: 818008000
I0403 02:30:37.798486 30256 layer_factory.hpp:77] Creating layer pool5
I0403 02:30:37.798509 30256 net.cpp:91] Creating Layer pool5
I0403 02:30:37.798528 30256 net.cpp:425] pool5 <- conv5
I0403 02:30:37.798557 30256 net.cpp:399] pool5 -> pool5
I0403 02:30:37.798619 30256 net.cpp:141] Setting up pool5
I0403 02:30:37.798648 30256 net.cpp:148] Top shape: 100 256 6 6 (921600)
I0403 02:30:37.798667 30256 net.cpp:156] Memory required for data: 821694400
I0403 02:30:37.798686 30256 layer_factory.hpp:77] Creating layer fc6
I0403 02:30:37.798720 30256 net.cpp:91] Creating Layer fc6
I0403 02:30:37.798743 30256 net.cpp:425] fc6 <- pool5
I0403 02:30:37.798768 30256 net.cpp:399] fc6 -> fc6
I0403 02:30:39.594801 30256 net.cpp:141] Setting up fc6
I0403 02:30:39.594892 30256 net.cpp:148] Top shape: 100 4096 (409600)
I0403 02:30:39.594912 30256 net.cpp:156] Memory required for data: 823332800
I0403 02:30:39.594938 30256 layer_factory.hpp:77] Creating layer relu6
I0403 02:30:39.594971 30256 net.cpp:91] Creating Layer relu6
I0403 02:30:39.594992 30256 net.cpp:425] relu6 <- fc6
I0403 02:30:39.595018 30256 net.cpp:386] relu6 -> fc6 (in-place)
I0403 02:30:39.595044 30256 net.cpp:141] Setting up relu6
I0403 02:30:39.595067 30256 net.cpp:148] Top shape: 100 4096 (409600)
I0403 02:30:39.595083 30256 net.cpp:156] Memory required for data: 824971200
I0403 02:30:39.595101 30256 layer_factory.hpp:77] Creating layer drop6
I0403 02:30:39.595135 30256 net.cpp:91] Creating Layer drop6
I0403 02:30:39.595156 30256 net.cpp:425] drop6 <- fc6
I0403 02:30:39.595180 30256 net.cpp:386] drop6 -> fc6 (in-place)
I0403 02:30:39.595237 30256 net.cpp:141] Setting up drop6
I0403 02:30:39.595266 30256 net.cpp:148] Top shape: 100 4096 (409600)
I0403 02:30:39.595286 30256 net.cpp:156] Memory required for data: 826609600
I0403 02:30:39.595304 30256 layer_factory.hpp:77] Creating layer fc7
I0403 02:30:39.595336 30256 net.cpp:91] Creating Layer fc7
I0403 02:30:39.595358 30256 net.cpp:425] fc7 <- fc6
I0403 02:30:39.595381 30256 net.cpp:399] fc7 -> fc7
I0403 02:30:40.292646 30256 net.cpp:141] Setting up fc7
I0403 02:30:40.292731 30256 net.cpp:148] Top shape: 100 4096 (409600)
I0403 02:30:40.292747 30256 net.cpp:156] Memory required for data: 828248000
I0403 02:30:40.292768 30256 layer_factory.hpp:77] Creating layer relu7
I0403 02:30:40.292789 30256 net.cpp:91] Creating Layer relu7
I0403 02:30:40.292805 30256 net.cpp:425] relu7 <- fc7
I0403 02:30:40.292824 30256 net.cpp:386] relu7 -> fc7 (in-place)
I0403 02:30:40.292843 30256 net.cpp:141] Setting up relu7
I0403 02:30:40.292860 30256 net.cpp:148] Top shape: 100 4096 (409600)
I0403 02:30:40.292873 30256 net.cpp:156] Memory required for data: 829886400
I0403 02:30:40.292886 30256 layer_factory.hpp:77] Creating layer drop7
I0403 02:30:40.292930 30256 net.cpp:91] Creating Layer drop7
I0403 02:30:40.292946 30256 net.cpp:425] drop7 <- fc7
I0403 02:30:40.292963 30256 net.cpp:386] drop7 -> fc7 (in-place)
I0403 02:30:40.293009 30256 net.cpp:141] Setting up drop7
I0403 02:30:40.293030 30256 net.cpp:148] Top shape: 100 4096 (409600)
I0403 02:30:40.293042 30256 net.cpp:156] Memory required for data: 831524800
I0403 02:30:40.293056 30256 layer_factory.hpp:77] Creating layer fc8_plantvillage
I0403 02:30:40.293076 30256 net.cpp:91] Creating Layer fc8_plantvillage
I0403 02:30:40.293090 30256 net.cpp:425] fc8_plantvillage <- fc7
I0403 02:30:40.293110 30256 net.cpp:399] fc8_plantvillage -> fc8_plantvillage
I0403 02:30:40.299253 30256 net.cpp:141] Setting up fc8_plantvillage
I0403 02:30:40.299283 30256 net.cpp:148] Top shape: 100 38 (3800)
I0403 02:30:40.299299 30256 net.cpp:156] Memory required for data: 831540000
I0403 02:30:40.299322 30256 layer_factory.hpp:77] Creating layer loss
I0403 02:30:40.299348 30256 net.cpp:91] Creating Layer loss
I0403 02:30:40.299365 30256 net.cpp:425] loss <- fc8_plantvillage
I0403 02:30:40.299382 30256 net.cpp:425] loss <- label
I0403 02:30:40.299403 30256 net.cpp:399] loss -> loss
I0403 02:30:40.299430 30256 layer_factory.hpp:77] Creating layer loss
…
I0403 02:30:40.301089 30256 net.cpp:313] The NetState phase (1) differed from the phase (0) specified by a rule in layer data
I0403 02:30:40.301715 30256 net.cpp:49] Initializing net from parameters: 
state {
  phase: TEST
}
layer {
  name: "data"
  type: "Data"
  top: "data"
  top: "label"
  include {
    phase: TEST
  }
  transform_param {
    crop_size: 227
    mean_file: "/home/mohanty/data/final_dataset/lmdb/color-80-20/mean.binaryproto"
  }
  data_param {
    source: "/home/mohanty/data/final_dataset/lmdb/color-80-20/test_db"
    batch_size: 100
    backend: LMDB
  }
}
layer {
  name: "conv1"
  type: "Convolution"
  bottom: "data"
  top: "conv1"
  param {
    lr_mult: 1
    decay_mult: 1
  }
  param {
    lr_mult: 2
    decay_mult: 0
  }
  convolution_param {
    num_output: 96
    kernel_size: 11
    stride: 4
    weight_filler {
      type: "gaussian"
      std: 0.01
    }
    bias_filler {
      type: "constant"
      value: 0
    }
  }
}
layer {
  name: "relu1"
  type: "ReLU"
  bottom: "conv1"
  top: "conv1"
}
layer {
  name: "norm1"
  type: "LRN"
  bottom: "conv1"
  top: "norm1"
  lrn_param {
    local_size: 5
    alpha: 0.0001
    beta: 0.75
  }
}
layer {
  name: "pool1"
  type: "Pooling"
  bottom: "norm1"
  top: "pool1"
  pooling_param {
    pool: MAX
    kernel_size: 3
    stride: 2
  }
}
layer {
  name: "conv2"
  type: "Convolution"
  bottom: "pool1"
  top: "conv2"
  param {
    lr_mult: 1
    decay_mult: 1
  }
  param {
    lr_mult: 2
    decay_mult: 0
  }
  convolution_param {
    num_output: 256
    pad: 2
    kernel_size: 5
    group: 2
    weight_filler {
      type: "gaussian"
      std: 0.01
    }
    bias_filler {
      type: "constant"
      value: 0.1
    }
  }
}
layer {
  name: "relu2"
  type: "ReLU"
  bottom: "conv2"
  top: "conv2"
}
layer {
  name: "norm2"
  type: "LRN"
  bottom: "conv2"
  top: "norm2"
  lrn_param {
    local_size: 5
    alpha: 0.0001
    beta: 0.75
  }
}
layer {
  name: "pool2"
  type: "Pooling"
  bottom: "norm2"
  top: "pool2"
  pooling_param {
    pool: MAX
    kernel_size: 3
    stride: 2
  }
}
layer {
  name: "conv3"
  type: "Convolution"
  bottom: "pool2"
  top: "conv3"
  param {
    lr_mult: 1
    decay_mult: 1
  }
  param {
    lr_mult: 2
    decay_mult: 0
  }
  convolution_param {
    num_output: 384
    pad: 1
    kernel_size: 3
    weight_filler {
      type: "gaussian"
      std: 0.01
    }
    bias_filler {
      type: "constant"
      value: 0
    }
  }
}
layer {
  name: "relu3"
  type: "ReLU"
  bottom: "conv3"
  top: "conv3"
}
layer {
  name: "conv4"
  type: "Convolution"
  bottom: "conv3"
  top: "conv4"
  param {
    lr_mult: 1
    decay_mult: 1
  }
  param {
    lr_mult: 2
    decay_mult: 0
  }
  convolution_param {
    num_output: 384
    pad: 1
    kernel_size: 3
    group: 2
    weight_filler {
      type: "gaussian"
      std: 0.01
    }
    bias_filler {
      type: "constant"
      value: 0.1
    }
  }
}
layer {
  name: "relu4"
  type: "ReLU"
  bottom: "conv4"
  top: "conv4"
}
layer {
  name: "conv5"
  type: "Convolution"
  bottom: "conv4"
  top: "conv5"
  param {
    lr_mult: 1
    decay_mult: 1
  }
  param {
    lr_mult: 2
    decay_mult: 0
  }
  convolution_param {
    num_output: 256
    pad: 1
    kernel_size: 3
    group: 2
    weight_filler {
      type: "gaussian"
      std: 0.01
    }
    bias_filler {
      type: "constant"
      value: 0.1
    }
  }
}
layer {
  name: "relu5"
  type: "ReLU"
  bottom: "conv5"
  top: "conv5"
}
layer {
  name: "pool5"
  type: "Pooling"
  bottom: "conv5"
  top: "pool5"
  pooling_param {
    pool: MAX
    kernel_size: 3
    stride: 2
  }
}
layer {
  name: "fc6"
  type: "InnerProduct"
  bottom: "pool5"
  top: "fc6"
  param {
    lr_mult: 1
    decay_mult: 1
  }
  param {
    lr_mult: 2
    decay_mult: 0
  }
  inner_product_param {
    num_output: 4096
    weight_filler {
      type: "gaussian"
      std: 0.005
    }
    bias_filler {
      type: "constant"
      value: 0.1
    }
  }
}
layer {
  name: "relu6"
  type: "ReLU"
  bottom: "fc6"
  top: "fc6"
}
layer {
  name: "drop6"
  type: "Dropout"
  bottom: "fc6"
  top: "fc6"
  dropout_param {
    dropout_ratio: 0.5
  }
}
layer {
  name: "fc7"
  type: "InnerProduct"
  bottom: "fc6"
  top: "fc7"
  param {
    lr_mult: 1
    decay_mult: 1
  }
  param {
    lr_mult: 2
    decay_mult: 0
  }
  inner_product_param {
    num_output: 4096
    weight_filler {
      type: "gaussian"
      std: 0.005
    }
    bias_filler {
      type: "constant"
      value: 0.1
    }
  }
}
layer {
  name: "relu7"
  type: "ReLU"
  bottom: "fc7"
  top: "fc7"
}
layer {
  name: "drop7"
  type: "Dropout"
  bottom: "fc7"
  top: "fc7"
  dropout_param {
    dropout_ratio: 0.5
  }
}
layer {
  name: "fc8_plantvillage"
  type: "InnerProduct"
  bottom: "fc7"
  top: "fc8_plantvillage"
  param {
    lr_mult: 1
    decay_mult: 1
  }
  param {
    lr_mult: 2
    decay_mult: 0
  }
  inner_product_param {
    num_output: 38
    weight_filler {
      type: "gaussian"
      std: 0.01
    }
    bias_filler {
      type: "constant"
      value: 0
    }
  }
}
layer {
  name: "loss"
  type: "SoftmaxWithLoss"
  bottom: "fc8_plantvillage"
  bottom: "label"
  top: "loss"
}
layer {
  name: "accuracy"
  type: "Accuracy"
  bottom: "fc8_plantvillage"
  bottom: "label"
  top: "accuracy"
  include {
    phase: TEST
  }
}
I0403 02:30:40.301872 30256 layer_factory.hpp:77] Creating layer data
I0403 02:30:40.302007 30256 net.cpp:91] Creating Layer data
I0403 02:30:40.302034 30256 net.cpp:399] data -> data
I0403 02:30:40.302057 30256 net.cpp:399] data -> label
I0403 02:30:40.302080 30256 data_transformer.cpp:25] Loading mean file from: /home/mohanty/data/final_dataset/lmdb/color-80-20/mean.binaryproto
I0403 02:30:40.321059 30270 db_lmdb.cpp:38] Opened lmdb /home/mohanty/data/final_dataset/lmdb/color-80-20/test_db
I0403 02:30:40.327006 30256 data_layer.cpp:41] output data size: 100,3,227,227
I0403 02:30:40.470074 30256 net.cpp:141] Setting up data
I0403 02:30:40.470217 30256 net.cpp:148] Top shape: 100 3 227 227 (15458700)
I0403 02:30:40.470294 30256 net.cpp:148] Top shape: 100 (100)
I0403 02:30:40.470386 30256 net.cpp:156] Memory required for data: 61835200
I0403 02:30:40.470474 30256 layer_factory.hpp:77] Creating layer label_data_1_split
I0403 02:30:40.470525 30256 net.cpp:91] Creating Layer label_data_1_split
I0403 02:30:40.470602 30256 net.cpp:425] label_data_1_split <- label
I0403 02:30:40.470674 30256 net.cpp:399] label_data_1_split -> label_data_1_split_0
I0403 02:30:40.470762 30256 net.cpp:399] label_data_1_split -> label_data_1_split_1
I0403 02:30:40.470890 30256 net.cpp:141] Setting up label_data_1_split
I0403 02:30:40.470981 30256 net.cpp:148] Top shape: 100 (100)
I0403 02:30:40.471109 30256 net.cpp:148] Top shape: 100 (100)
I0403 02:30:40.471189 30256 net.cpp:156] Memory required for data: 61836000
I0403 02:30:40.471230 30256 layer_factory.hpp:77] Creating layer conv1
I0403 02:30:40.471325 30256 net.cpp:91] Creating Layer conv1
I0403 02:30:40.471429 30256 net.cpp:425] conv1 <- data
I0403 02:30:40.471504 30256 net.cpp:399] conv1 -> conv1
I0403 02:30:40.473178 30256 net.cpp:141] Setting up conv1
I0403 02:30:40.473261 30256 net.cpp:148] Top shape: 100 96 55 55 (29040000)
I0403 02:30:40.473341 30256 net.cpp:156] Memory required for data: 177996000
I0403 02:30:40.473446 30256 layer_factory.hpp:77] Creating layer relu1
I0403 02:30:40.473525 30256 net.cpp:91] Creating Layer relu1
I0403 02:30:40.473585 30256 net.cpp:425] relu1 <- conv1
I0403 02:30:40.473670 30256 net.cpp:386] relu1 -> conv1 (in-place)
I0403 02:30:40.473759 30256 net.cpp:141] Setting up relu1
I0403 02:30:40.473842 30256 net.cpp:148] Top shape: 100 96 55 55 (29040000)
I0403 02:30:40.473920 30256 net.cpp:156] Memory required for data: 294156000
I0403 02:30:40.474004 30256 layer_factory.hpp:77] Creating layer norm1
I0403 02:30:40.474097 30256 net.cpp:91] Creating Layer norm1
I0403 02:30:40.474669 30256 net.cpp:425] norm1 <- conv1
I0403 02:30:40.474694 30256 net.cpp:399] norm1 -> norm1
I0403 02:30:40.474750 30256 net.cpp:141] Setting up norm1
I0403 02:30:40.474798 30256 net.cpp:148] Top shape: 100 96 55 55 (29040000)
I0403 02:30:40.474820 30256 net.cpp:156] Memory required for data: 410316000
I0403 02:30:40.474834 30256 layer_factory.hpp:77] Creating layer pool1
I0403 02:30:40.474854 30256 net.cpp:91] Creating Layer pool1
I0403 02:30:40.474870 30256 net.cpp:425] pool1 <- norm1
I0403 02:30:40.474889 30256 net.cpp:399] pool1 -> pool1
I0403 02:30:40.474949 30256 net.cpp:141] Setting up pool1
I0403 02:30:40.474972 30256 net.cpp:148] Top shape: 100 96 27 27 (6998400)
I0403 02:30:40.474987 30256 net.cpp:156] Memory required for data: 438309600
I0403 02:30:40.475023 30256 layer_factory.hpp:77] Creating layer conv2
I0403 02:30:40.475047 30256 net.cpp:91] Creating Layer conv2
I0403 02:30:40.475064 30256 net.cpp:425] conv2 <- pool1
I0403 02:30:40.475082 30256 net.cpp:399] conv2 -> conv2
I0403 02:30:40.487844 30256 net.cpp:141] Setting up conv2
I0403 02:30:40.487880 30256 net.cpp:148] Top shape: 100 256 27 27 (18662400)
I0403 02:30:40.487897 30256 net.cpp:156] Memory required for data: 512959200
I0403 02:30:40.487920 30256 layer_factory.hpp:77] Creating layer relu2
I0403 02:30:40.487939 30256 net.cpp:91] Creating Layer relu2
I0403 02:30:40.487956 30256 net.cpp:425] relu2 <- conv2
I0403 02:30:40.487973 30256 net.cpp:386] relu2 -> conv2 (in-place)
I0403 02:30:40.487993 30256 net.cpp:141] Setting up relu2
I0403 02:30:40.488010 30256 net.cpp:148] Top shape: 100 256 27 27 (18662400)
I0403 02:30:40.488026 30256 net.cpp:156] Memory required for data: 587608800
I0403 02:30:40.488041 30256 layer_factory.hpp:77] Creating layer norm2
I0403 02:30:40.488061 30256 net.cpp:91] Creating Layer norm2
I0403 02:30:40.488077 30256 net.cpp:425] norm2 <- conv2
I0403 02:30:40.488096 30256 net.cpp:399] norm2 -> norm2
I0403 02:30:40.488148 30256 net.cpp:141] Setting up norm2
I0403 02:30:40.488171 30256 net.cpp:148] Top shape: 100 256 27 27 (18662400)
I0403 02:30:40.488186 30256 net.cpp:156] Memory required for data: 662258400
I0403 02:30:40.488201 30256 layer_factory.hpp:77] Creating layer pool2
I0403 02:30:40.488221 30256 net.cpp:91] Creating Layer pool2
I0403 02:30:40.488236 30256 net.cpp:425] pool2 <- norm2
I0403 02:30:40.488255 30256 net.cpp:399] pool2 -> pool2
I0403 02:30:40.488302 30256 net.cpp:141] Setting up pool2
I0403 02:30:40.488325 30256 net.cpp:148] Top shape: 100 256 13 13 (4326400)
I0403 02:30:40.488340 30256 net.cpp:156] Memory required for data: 679564000
I0403 02:30:40.488360 30256 layer_factory.hpp:77] Creating layer conv3
I0403 02:30:40.488384 30256 net.cpp:91] Creating Layer conv3
I0403 02:30:40.488400 30256 net.cpp:425] conv3 <- pool2
I0403 02:30:40.488420 30256 net.cpp:399] conv3 -> conv3
I0403 02:30:40.524714 30256 net.cpp:141] Setting up conv3
I0403 02:30:40.524785 30256 net.cpp:148] Top shape: 100 384 13 13 (6489600)
I0403 02:30:40.524802 30256 net.cpp:156] Memory required for data: 705522400
I0403 02:30:40.524828 30256 layer_factory.hpp:77] Creating layer relu3
I0403 02:30:40.524852 30256 net.cpp:91] Creating Layer relu3
I0403 02:30:40.524869 30256 net.cpp:425] relu3 <- conv3
I0403 02:30:40.524890 30256 net.cpp:386] relu3 -> conv3 (in-place)
I0403 02:30:40.524912 30256 net.cpp:141] Setting up relu3
I0403 02:30:40.524931 30256 net.cpp:148] Top shape: 100 384 13 13 (6489600)
I0403 02:30:40.524946 30256 net.cpp:156] Memory required for data: 731480800
I0403 02:30:40.524961 30256 layer_factory.hpp:77] Creating layer conv4
I0403 02:30:40.524986 30256 net.cpp:91] Creating Layer conv4
I0403 02:30:40.525002 30256 net.cpp:425] conv4 <- conv3
I0403 02:30:40.525022 30256 net.cpp:399] conv4 -> conv4
I0403 02:30:40.552343 30256 net.cpp:141] Setting up conv4
I0403 02:30:40.552391 30256 net.cpp:148] Top shape: 100 384 13 13 (6489600)
I0403 02:30:40.552408 30256 net.cpp:156] Memory required for data: 757439200
I0403 02:30:40.552428 30256 layer_factory.hpp:77] Creating layer relu4
I0403 02:30:40.552450 30256 net.cpp:91] Creating Layer relu4
I0403 02:30:40.552467 30256 net.cpp:425] relu4 <- conv4
I0403 02:30:40.552486 30256 net.cpp:386] relu4 -> conv4 (in-place)
I0403 02:30:40.552507 30256 net.cpp:141] Setting up relu4
I0403 02:30:40.552526 30256 net.cpp:148] Top shape: 100 384 13 13 (6489600)
I0403 02:30:40.552541 30256 net.cpp:156] Memory required for data: 783397600
I0403 02:30:40.552556 30256 layer_factory.hpp:77] Creating layer conv5
I0403 02:30:40.552580 30256 net.cpp:91] Creating Layer conv5
I0403 02:30:40.552597 30256 net.cpp:425] conv5 <- conv4
I0403 02:30:40.552618 30256 net.cpp:399] conv5 -> conv5
I0403 02:30:40.570572 30256 net.cpp:141] Setting up conv5
I0403 02:30:40.570608 30256 net.cpp:148] Top shape: 100 256 13 13 (4326400)
I0403 02:30:40.570624 30256 net.cpp:156] Memory required for data: 800703200
I0403 02:30:40.570672 30256 layer_factory.hpp:77] Creating layer relu5
I0403 02:30:40.570693 30256 net.cpp:91] Creating Layer relu5
I0403 02:30:40.570708 30256 net.cpp:425] relu5 <- conv5
I0403 02:30:40.570729 30256 net.cpp:386] relu5 -> conv5 (in-place)
I0403 02:30:40.570751 30256 net.cpp:141] Setting up relu5
I0403 02:30:40.570773 30256 net.cpp:148] Top shape: 100 256 13 13 (4326400)
I0403 02:30:40.570796 30256 net.cpp:156] Memory required for data: 818008800
I0403 02:30:40.570817 30256 layer_factory.hpp:77] Creating layer pool5
I0403 02:30:40.570847 30256 net.cpp:91] Creating Layer pool5
I0403 02:30:40.570864 30256 net.cpp:425] pool5 <- conv5
I0403 02:30:40.570886 30256 net.cpp:399] pool5 -> pool5
I0403 02:30:40.570942 30256 net.cpp:141] Setting up pool5
I0403 02:30:40.570966 30256 net.cpp:148] Top shape: 100 256 6 6 (921600)
I0403 02:30:40.570981 30256 net.cpp:156] Memory required for data: 821695200
I0403 02:30:40.570997 30256 layer_factory.hpp:77] Creating layer fc6
I0403 02:30:40.571017 30256 net.cpp:91] Creating Layer fc6
I0403 02:30:40.571033 30256 net.cpp:425] fc6 <- pool5
I0403 02:30:40.571053 30256 net.cpp:399] fc6 -> fc6
I0403 02:30:42.015753 30256 net.cpp:141] Setting up fc6
I0403 02:30:42.015836 30256 net.cpp:148] Top shape: 100 4096 (409600)
I0403 02:30:42.015852 30256 net.cpp:156] Memory required for data: 823333600
I0403 02:30:42.015875 30256 layer_factory.hpp:77] Creating layer relu6
I0403 02:30:42.015902 30256 net.cpp:91] Creating Layer relu6
I0403 02:30:42.015921 30256 net.cpp:425] relu6 <- fc6
I0403 02:30:42.015941 30256 net.cpp:386] relu6 -> fc6 (in-place)
I0403 02:30:42.015962 30256 net.cpp:141] Setting up relu6
I0403 02:30:42.015980 30256 net.cpp:148] Top shape: 100 4096 (409600)
I0403 02:30:42.015995 30256 net.cpp:156] Memory required for data: 824972000
I0403 02:30:42.016008 30256 layer_factory.hpp:77] Creating layer drop6
I0403 02:30:42.016031 30256 net.cpp:91] Creating Layer drop6
I0403 02:30:42.016047 30256 net.cpp:425] drop6 <- fc6
I0403 02:30:42.016064 30256 net.cpp:386] drop6 -> fc6 (in-place)
I0403 02:30:42.016103 30256 net.cpp:141] Setting up drop6
I0403 02:30:42.016130 30256 net.cpp:148] Top shape: 100 4096 (409600)
I0403 02:30:42.016146 30256 net.cpp:156] Memory required for data: 826610400
I0403 02:30:42.016160 30256 layer_factory.hpp:77] Creating layer fc7
I0403 02:30:42.016181 30256 net.cpp:91] Creating Layer fc7
I0403 02:30:42.016196 30256 net.cpp:425] fc7 <- fc6
I0403 02:30:42.016216 30256 net.cpp:399] fc7 -> fc7
I0403 02:30:42.639632 30256 net.cpp:141] Setting up fc7
I0403 02:30:42.639716 30256 net.cpp:148] Top shape: 100 4096 (409600)
I0403 02:30:42.639732 30256 net.cpp:156] Memory required for data: 828248800
I0403 02:30:42.639755 30256 layer_factory.hpp:77] Creating layer relu7
I0403 02:30:42.639777 30256 net.cpp:91] Creating Layer relu7
I0403 02:30:42.639793 30256 net.cpp:425] relu7 <- fc7
I0403 02:30:42.639813 30256 net.cpp:386] relu7 -> fc7 (in-place)
I0403 02:30:42.639834 30256 net.cpp:141] Setting up relu7
I0403 02:30:42.639852 30256 net.cpp:148] Top shape: 100 4096 (409600)
I0403 02:30:42.639865 30256 net.cpp:156] Memory required for data: 829887200
I0403 02:30:42.639880 30256 layer_factory.hpp:77] Creating layer drop7
I0403 02:30:42.639904 30256 net.cpp:91] Creating Layer drop7
I0403 02:30:42.639920 30256 net.cpp:425] drop7 <- fc7
I0403 02:30:42.639937 30256 net.cpp:386] drop7 -> fc7 (in-place)
I0403 02:30:42.639978 30256 net.cpp:141] Setting up drop7
I0403 02:30:42.640000 30256 net.cpp:148] Top shape: 100 4096 (409600)
I0403 02:30:42.640014 30256 net.cpp:156] Memory required for data: 831525600
I0403 02:30:42.640028 30256 layer_factory.hpp:77] Creating layer fc8_plantvillage
I0403 02:30:42.640048 30256 net.cpp:91] Creating Layer fc8_plantvillage
I0403 02:30:42.640064 30256 net.cpp:425] fc8_plantvillage <- fc7
I0403 02:30:42.640084 30256 net.cpp:399] fc8_plantvillage -> fc8_plantvillage
I0403 02:30:42.646311 30256 net.cpp:141] Setting up fc8_plantvillage
I0403 02:30:42.646344 30256 net.cpp:148] Top shape: 100 38 (3800)
I0403 02:30:42.646366 30256 net.cpp:156] Memory required for data: 831540800
I0403 02:30:42.646407 30256 layer_factory.hpp:77] Creating layer fc8_plantvillage_fc8_plantvillage_0_split
I0403 02:30:42.646428 30256 net.cpp:91] Creating Layer fc8_plantvillage_fc8_plantvillage_0_split
I0403 02:30:42.646443 30256 net.cpp:425] fc8_plantvillage_fc8_plantvillage_0_split <- fc8_plantvillage
I0403 02:30:42.646461 30256 net.cpp:399] fc8_plantvillage_fc8_plantvillage_0_split -> fc8_plantvillage_fc8_plantvillage_0_split_0
I0403 02:30:42.646481 30256 net.cpp:399] fc8_plantvillage_fc8_plantvillage_0_split -> fc8_plantvillage_fc8_plantvillage_0_split_1
I0403 02:30:42.646544 30256 net.cpp:141] Setting up fc8_plantvillage_fc8_plantvillage_0_split
I0403 02:30:42.646567 30256 net.cpp:148] Top shape: 100 38 (3800)
I0403 02:30:42.646595 30256 net.cpp:148] Top shape: 100 38 (3800)
I0403 02:30:42.646610 30256 net.cpp:156] Memory required for data: 831571200
I0403 02:30:42.646625 30256 layer_factory.hpp:77] Creating layer loss
I0403 02:30:42.646643 30256 net.cpp:91] Creating Layer loss
I0403 02:30:42.646659 30256 net.cpp:425] loss <- fc8_plantvillage_fc8_plantvillage_0_split_0
I0403 02:30:42.646677 30256 net.cpp:425] loss <- label_data_1_split_0
I0403 02:30:42.646697 30256 net.cpp:399] loss -> loss
…
