…
I0403 12:39:55.750962 30611 net.cpp:313] The NetState phase (1) differed from the phase (0) specified by a rule in layer data
I0403 12:39:55.751274 30611 net.cpp:49] Initializing net from parameters: 
state {
  phase: TEST
}
layer {
  name: "data"
  type: "Data"
  top: "data"
  top: "label"
  include {
    phase: TEST
  }
  transform_param {
    crop_size: 227
    mean_file: "/home/mohanty/data/final_dataset/lmdb/segmented-40-60/mean.binaryproto"
  }
  data_param {
    source: "/home/mohanty/data/final_dataset/lmdb/segmented-40-60/test_db"
    batch_size: 100
    backend: LMDB
  }
}
layer {
  name: "conv1"
  type: "Convolution"
  bottom: "data"
  top: "conv1"
  param {
    lr_mult: 1
    decay_mult: 1
  }
  param {
    lr_mult: 2
    decay_mult: 0
  }
  convolution_param {
    num_output: 96
    kernel_size: 11
    stride: 4
    weight_filler {
      type: "gaussian"
      std: 0.01
    }
    bias_filler {
      type: "constant"
      value: 0
    }
  }
}
layer {
  name: "relu1"
  type: "ReLU"
  bottom: "conv1"
  top: "conv1"
}
layer {
  name: "norm1"
  type: "LRN"
  bottom: "conv1"
  top: "norm1"
  lrn_param {
    local_size: 5
    alpha: 0.0001
    beta: 0.75
  }
}
layer {
  name: "pool1"
  type: "Pooling"
  bottom: "norm1"
  top: "pool1"
  pooling_param {
    pool: MAX
    kernel_size: 3
    stride: 2
  }
}
layer {
  name: "conv2"
  type: "Convolution"
  bottom: "pool1"
  top: "conv2"
  param {
    lr_mult: 1
    decay_mult: 1
  }
  param {
    lr_mult: 2
    decay_mult: 0
  }
  convolution_param {
    num_output: 256
    pad: 2
    kernel_size: 5
    group: 2
    weight_filler {
      type: "gaussian"
      std: 0.01
    }
    bias_filler {
      type: "constant"
      value: 0.1
    }
  }
}
layer {
  name: "relu2"
  type: "ReLU"
  bottom: "conv2"
  top: "conv2"
}
layer {
  name: "norm2"
  type: "LRN"
  bottom: "conv2"
  top: "norm2"
  lrn_param {
    local_size: 5
    alpha: 0.0001
    beta: 0.75
  }
}
layer {
  name: "pool2"
  type: "Pooling"
  bottom: "norm2"
  top: "pool2"
  pooling_param {
    pool: MAX
    kernel_size: 3
    stride: 2
  }
}
layer {
  name: "conv3"
  type: "Convolution"
  bottom: "pool2"
  top: "conv3"
  param {
    lr_mult: 1
    decay_mult: 1
  }
  param {
    lr_mult: 2
    decay_mult: 0
  }
  convolution_param {
    num_output: 384
    pad: 1
    kernel_size: 3
    weight_filler {
      type: "gaussian"
      std: 0.01
    }
    bias_filler {
      type: "constant"
      value: 0
    }
  }
}
layer {
  name: "relu3"
  type: "ReLU"
  bottom: "conv3"
  top: "conv3"
}
layer {
  name: "conv4"
  type: "Convolution"
  bottom: "conv3"
  top: "conv4"
  param {
    lr_mult: 1
    decay_mult: 1
  }
  param {
    lr_mult: 2
    decay_mult: 0
  }
  convolution_param {
    num_output: 384
    pad: 1
    kernel_size: 3
    group: 2
    weight_filler {
      type: "gaussian"
      std: 0.01
    }
    bias_filler {
      type: "constant"
      value: 0.1
    }
  }
}
layer {
  name: "relu4"
  type: "ReLU"
  bottom: "conv4"
  top: "conv4"
}
layer {
  name: "conv5"
  type: "Convolution"
  bottom: "conv4"
  top: "conv5"
  param {
    lr_mult: 1
    decay_mult: 1
  }
  param {
    lr_mult: 2
    decay_mult: 0
  }
  convolution_param {
    num_output: 256
    pad: 1
    kernel_size: 3
    group: 2
    weight_filler {
      type: "gaussian"
      std: 0.01
    }
    bias_filler {
      type: "constant"
      value: 0.1
    }
  }
}
layer {
  name: "relu5"
  type: "ReLU"
  bottom: "conv5"
  top: "conv5"
}
layer {
  name: "pool5"
  type: "Pooling"
  bottom: "conv5"
  top: "pool5"
  pooling_param {
    pool: MAX
    kernel_size: 3
    stride: 2
  }
}
layer {
  name: "fc6"
  type: "InnerProduct"
  bottom: "pool5"
  top: "fc6"
  param {
    lr_mult: 1
    decay_mult: 1
  }
  param {
    lr_mult: 2
    decay_mult: 0
  }
  inner_product_param {
    num_output: 4096
    weight_filler {
      type: "gaussian"
      std: 0.005
    }
    bias_filler {
      type: "constant"
      value: 0.1
    }
  }
}
layer {
  name: "relu6"
  type: "ReLU"
  bottom: "fc6"
  top: "fc6"
}
layer {
  name: "drop6"
  type: "Dropout"
  bottom: "fc6"
  top: "fc6"
  dropout_param {
    dropout_ratio: 0.5
  }
}
layer {
  name: "fc7"
  type: "InnerProduct"
  bottom: "fc6"
  top: "fc7"
  param {
    lr_mult: 1
    decay_mult: 1
  }
  param {
    lr_mult: 2
    decay_mult: 0
  }
  inner_product_param {
    num_output: 4096
    weight_filler {
      type: "gaussian"
      std: 0.005
    }
    bias_filler {
      type: "constant"
      value: 0.1
    }
  }
}
layer {
  name: "relu7"
  type: "ReLU"
  bottom: "fc7"
  top: "fc7"
}
layer {
  name: "drop7"
  type: "Dropout"
  bottom: "fc7"
  top: "fc7"
  dropout_param {
    dropout_ratio: 0.5
  }
}
layer {
  name: "fc8_plantvillage"
  type: "InnerProduct"
  bottom: "fc7"
  top: "fc8_plantvillage"
  param {
    lr_mult: 1
    decay_mult: 1
  }
  param {
    lr_mult: 2
    decay_mult: 0
  }
  inner_product_param {
    num_output: 38
    weight_filler {
      type: "gaussian"
      std: 0.01
    }
    bias_filler {
      type: "constant"
      value: 0
    }
  }
}
layer {
  name: "prob"
  type: "Softmax"
  bottom: "fc8_plantvillage"
  top: "prob"
  include {
    phase: TEST
  }
}
layer {
  name: "hdf5out"
  type: "HDF5Output"
  bottom: "prob"
  bottom: "label"
  include {
    phase: TEST
  }
  hdf5_output_param {
    file_name: "hdf5_dumps/iter_1533.h5"
  }
}
layer {
  name: "loss"
  type: "SoftmaxWithLoss"
  bottom: "fc8_plantvillage"
  bottom: "label"
  top: "loss"
}
layer {
  name: "accuracy"
  type: "Accuracy"
  bottom: "fc8_plantvillage"
  bottom: "label"
  top: "accuracy"
  include {
    phase: TEST
  }
}
I0403 12:39:55.751858 30611 layer_factory.hpp:77] Creating layer data
I0403 12:39:55.752507 30611 net.cpp:91] Creating Layer data
I0403 12:39:55.752537 30611 net.cpp:399] data -> data
I0403 12:39:55.752588 30611 net.cpp:399] data -> label
I0403 12:39:55.752626 30611 data_transformer.cpp:25] Loading mean file from: /home/mohanty/data/final_dataset/lmdb/segmented-40-60/mean.binaryproto
I0403 12:39:55.753810 30614 db_lmdb.cpp:38] Opened lmdb /home/mohanty/data/final_dataset/lmdb/segmented-40-60/test_db
I0403 12:39:55.767262 30611 data_layer.cpp:41] output data size: 100,3,227,227
I0403 12:39:55.886309 30611 net.cpp:141] Setting up data
I0403 12:39:55.886415 30611 net.cpp:148] Top shape: 100 3 227 227 (15458700)
I0403 12:39:55.886437 30611 net.cpp:148] Top shape: 100 (100)
I0403 12:39:55.886452 30611 net.cpp:156] Memory required for data: 61835200
I0403 12:39:55.886479 30611 layer_factory.hpp:77] Creating layer label_data_1_split
I0403 12:39:55.886504 30611 net.cpp:91] Creating Layer label_data_1_split
I0403 12:39:55.886523 30611 net.cpp:425] label_data_1_split <- label
I0403 12:39:55.886554 30611 net.cpp:399] label_data_1_split -> label_data_1_split_0
I0403 12:39:55.886581 30611 net.cpp:399] label_data_1_split -> label_data_1_split_1
I0403 12:39:55.886602 30611 net.cpp:399] label_data_1_split -> label_data_1_split_2
I0403 12:39:55.886664 30611 net.cpp:141] Setting up label_data_1_split
I0403 12:39:55.886687 30611 net.cpp:148] Top shape: 100 (100)
I0403 12:39:55.886703 30611 net.cpp:148] Top shape: 100 (100)
I0403 12:39:55.886719 30611 net.cpp:148] Top shape: 100 (100)
I0403 12:39:55.886734 30611 net.cpp:156] Memory required for data: 61836400
I0403 12:39:55.886749 30611 layer_factory.hpp:77] Creating layer conv1
I0403 12:39:55.886780 30611 net.cpp:91] Creating Layer conv1
I0403 12:39:55.886798 30611 net.cpp:425] conv1 <- data
I0403 12:39:55.886817 30611 net.cpp:399] conv1 -> conv1
I0403 12:39:56.023732 30611 net.cpp:141] Setting up conv1
I0403 12:39:56.023820 30611 net.cpp:148] Top shape: 100 96 55 55 (29040000)
I0403 12:39:56.023838 30611 net.cpp:156] Memory required for data: 177996400
I0403 12:39:56.023870 30611 layer_factory.hpp:77] Creating layer relu1
I0403 12:39:56.023898 30611 net.cpp:91] Creating Layer relu1
I0403 12:39:56.023916 30611 net.cpp:425] relu1 <- conv1
I0403 12:39:56.023936 30611 net.cpp:386] relu1 -> conv1 (in-place)
I0403 12:39:56.024209 30611 net.cpp:141] Setting up relu1
I0403 12:39:56.024236 30611 net.cpp:148] Top shape: 100 96 55 55 (29040000)
I0403 12:39:56.024286 30611 net.cpp:156] Memory required for data: 294156400
I0403 12:39:56.024303 30611 layer_factory.hpp:77] Creating layer norm1
I0403 12:39:56.024333 30611 net.cpp:91] Creating Layer norm1
I0403 12:39:56.024351 30611 net.cpp:425] norm1 <- conv1
I0403 12:39:56.024370 30611 net.cpp:399] norm1 -> norm1
I0403 12:39:56.024700 30611 net.cpp:141] Setting up norm1
I0403 12:39:56.024729 30611 net.cpp:148] Top shape: 100 96 55 55 (29040000)
I0403 12:39:56.024744 30611 net.cpp:156] Memory required for data: 410316400
I0403 12:39:56.024760 30611 layer_factory.hpp:77] Creating layer pool1
I0403 12:39:56.024785 30611 net.cpp:91] Creating Layer pool1
I0403 12:39:56.024806 30611 net.cpp:425] pool1 <- norm1
I0403 12:39:56.024823 30611 net.cpp:399] pool1 -> pool1
I0403 12:39:56.024894 30611 net.cpp:141] Setting up pool1
I0403 12:39:56.024919 30611 net.cpp:148] Top shape: 100 96 27 27 (6998400)
I0403 12:39:56.024933 30611 net.cpp:156] Memory required for data: 438310000
I0403 12:39:56.024948 30611 layer_factory.hpp:77] Creating layer conv2
I0403 12:39:56.024976 30611 net.cpp:91] Creating Layer conv2
I0403 12:39:56.024993 30611 net.cpp:425] conv2 <- pool1
I0403 12:39:56.025014 30611 net.cpp:399] conv2 -> conv2
I0403 12:39:56.040261 30611 net.cpp:141] Setting up conv2
I0403 12:39:56.040319 30611 net.cpp:148] Top shape: 100 256 27 27 (18662400)
I0403 12:39:56.040336 30611 net.cpp:156] Memory required for data: 512959600
I0403 12:39:56.040359 30611 layer_factory.hpp:77] Creating layer relu2
I0403 12:39:56.040381 30611 net.cpp:91] Creating Layer relu2
I0403 12:39:56.040400 30611 net.cpp:425] relu2 <- conv2
I0403 12:39:56.040417 30611 net.cpp:386] relu2 -> conv2 (in-place)
I0403 12:39:56.040704 30611 net.cpp:141] Setting up relu2
I0403 12:39:56.040731 30611 net.cpp:148] Top shape: 100 256 27 27 (18662400)
I0403 12:39:56.040747 30611 net.cpp:156] Memory required for data: 587609200
I0403 12:39:56.040763 30611 layer_factory.hpp:77] Creating layer norm2
I0403 12:39:56.040787 30611 net.cpp:91] Creating Layer norm2
I0403 12:39:56.040805 30611 net.cpp:425] norm2 <- conv2
I0403 12:39:56.040827 30611 net.cpp:399] norm2 -> norm2
I0403 12:39:56.041028 30611 net.cpp:141] Setting up norm2
I0403 12:39:56.041054 30611 net.cpp:148] Top shape: 100 256 27 27 (18662400)
I0403 12:39:56.041069 30611 net.cpp:156] Memory required for data: 662258800
I0403 12:39:56.041085 30611 layer_factory.hpp:77] Creating layer pool2
I0403 12:39:56.041108 30611 net.cpp:91] Creating Layer pool2
I0403 12:39:56.041126 30611 net.cpp:425] pool2 <- norm2
I0403 12:39:56.041144 30611 net.cpp:399] pool2 -> pool2
I0403 12:39:56.041198 30611 net.cpp:141] Setting up pool2
I0403 12:39:56.041221 30611 net.cpp:148] Top shape: 100 256 13 13 (4326400)
I0403 12:39:56.041236 30611 net.cpp:156] Memory required for data: 679564400
I0403 12:39:56.041251 30611 layer_factory.hpp:77] Creating layer conv3
I0403 12:39:56.041278 30611 net.cpp:91] Creating Layer conv3
I0403 12:39:56.041297 30611 net.cpp:425] conv3 <- pool2
I0403 12:39:56.041318 30611 net.cpp:399] conv3 -> conv3
I0403 12:39:56.079821 30611 net.cpp:141] Setting up conv3
I0403 12:39:56.079905 30611 net.cpp:148] Top shape: 100 384 13 13 (6489600)
I0403 12:39:56.079922 30611 net.cpp:156] Memory required for data: 705522800
I0403 12:39:56.079952 30611 layer_factory.hpp:77] Creating layer relu3
I0403 12:39:56.079977 30611 net.cpp:91] Creating Layer relu3
I0403 12:39:56.079994 30611 net.cpp:425] relu3 <- conv3
I0403 12:39:56.080013 30611 net.cpp:386] relu3 -> conv3 (in-place)
I0403 12:39:56.080297 30611 net.cpp:141] Setting up relu3
I0403 12:39:56.080325 30611 net.cpp:148] Top shape: 100 384 13 13 (6489600)
I0403 12:39:56.080340 30611 net.cpp:156] Memory required for data: 731481200
I0403 12:39:56.080355 30611 layer_factory.hpp:77] Creating layer conv4
I0403 12:39:56.080382 30611 net.cpp:91] Creating Layer conv4
I0403 12:39:56.080402 30611 net.cpp:425] conv4 <- conv3
I0403 12:39:56.080423 30611 net.cpp:399] conv4 -> conv4
I0403 12:39:56.110730 30611 net.cpp:141] Setting up conv4
I0403 12:39:56.110810 30611 net.cpp:148] Top shape: 100 384 13 13 (6489600)
I0403 12:39:56.110857 30611 net.cpp:156] Memory required for data: 757439600
I0403 12:39:56.110879 30611 layer_factory.hpp:77] Creating layer relu4
I0403 12:39:56.110904 30611 net.cpp:91] Creating Layer relu4
I0403 12:39:56.110924 30611 net.cpp:425] relu4 <- conv4
I0403 12:39:56.110944 30611 net.cpp:386] relu4 -> conv4 (in-place)
I0403 12:39:56.111228 30611 net.cpp:141] Setting up relu4
I0403 12:39:56.111255 30611 net.cpp:148] Top shape: 100 384 13 13 (6489600)
I0403 12:39:56.111274 30611 net.cpp:156] Memory required for data: 783398000
I0403 12:39:56.111291 30611 layer_factory.hpp:77] Creating layer conv5
I0403 12:39:56.111317 30611 net.cpp:91] Creating Layer conv5
I0403 12:39:56.111336 30611 net.cpp:425] conv5 <- conv4
I0403 12:39:56.111357 30611 net.cpp:399] conv5 -> conv5
I0403 12:39:56.132287 30611 net.cpp:141] Setting up conv5
I0403 12:39:56.132347 30611 net.cpp:148] Top shape: 100 256 13 13 (4326400)
I0403 12:39:56.132365 30611 net.cpp:156] Memory required for data: 800703600
I0403 12:39:56.132390 30611 layer_factory.hpp:77] Creating layer relu5
I0403 12:39:56.132416 30611 net.cpp:91] Creating Layer relu5
I0403 12:39:56.132434 30611 net.cpp:425] relu5 <- conv5
I0403 12:39:56.132453 30611 net.cpp:386] relu5 -> conv5 (in-place)
I0403 12:39:56.132740 30611 net.cpp:141] Setting up relu5
I0403 12:39:56.132766 30611 net.cpp:148] Top shape: 100 256 13 13 (4326400)
I0403 12:39:56.132782 30611 net.cpp:156] Memory required for data: 818009200
I0403 12:39:56.132797 30611 layer_factory.hpp:77] Creating layer pool5
I0403 12:39:56.132822 30611 net.cpp:91] Creating Layer pool5
I0403 12:39:56.132838 30611 net.cpp:425] pool5 <- conv5
I0403 12:39:56.132859 30611 net.cpp:399] pool5 -> pool5
I0403 12:39:56.132920 30611 net.cpp:141] Setting up pool5
I0403 12:39:56.132944 30611 net.cpp:148] Top shape: 100 256 6 6 (921600)
I0403 12:39:56.132958 30611 net.cpp:156] Memory required for data: 821695600
I0403 12:39:56.132972 30611 layer_factory.hpp:77] Creating layer fc6
I0403 12:39:56.133002 30611 net.cpp:91] Creating Layer fc6
I0403 12:39:56.133020 30611 net.cpp:425] fc6 <- pool5
I0403 12:39:56.133039 30611 net.cpp:399] fc6 -> fc6
I0403 12:39:57.685196 30611 net.cpp:141] Setting up fc6
I0403 12:39:57.685288 30611 net.cpp:148] Top shape: 100 4096 (409600)
I0403 12:39:57.685307 30611 net.cpp:156] Memory required for data: 823334000
I0403 12:39:57.685327 30611 layer_factory.hpp:77] Creating layer relu6
I0403 12:39:57.685348 30611 net.cpp:91] Creating Layer relu6
I0403 12:39:57.685366 30611 net.cpp:425] relu6 <- fc6
I0403 12:39:57.685387 30611 net.cpp:386] relu6 -> fc6 (in-place)
I0403 12:39:57.685609 30611 net.cpp:141] Setting up relu6
I0403 12:39:57.685634 30611 net.cpp:148] Top shape: 100 4096 (409600)
I0403 12:39:57.685648 30611 net.cpp:156] Memory required for data: 824972400
I0403 12:39:57.685663 30611 layer_factory.hpp:77] Creating layer drop6
I0403 12:39:57.685684 30611 net.cpp:91] Creating Layer drop6
I0403 12:39:57.685700 30611 net.cpp:425] drop6 <- fc6
I0403 12:39:57.685717 30611 net.cpp:386] drop6 -> fc6 (in-place)
I0403 12:39:57.685772 30611 net.cpp:141] Setting up drop6
I0403 12:39:57.685794 30611 net.cpp:148] Top shape: 100 4096 (409600)
I0403 12:39:57.685809 30611 net.cpp:156] Memory required for data: 826610800
I0403 12:39:57.685823 30611 layer_factory.hpp:77] Creating layer fc7
I0403 12:39:57.685842 30611 net.cpp:91] Creating Layer fc7
I0403 12:39:57.685870 30611 net.cpp:425] fc7 <- fc6
I0403 12:39:57.685894 30611 net.cpp:399] fc7 -> fc7
I0403 12:39:58.369623 30611 net.cpp:141] Setting up fc7
I0403 12:39:58.369712 30611 net.cpp:148] Top shape: 100 4096 (409600)
I0403 12:39:58.369729 30611 net.cpp:156] Memory required for data: 828249200
I0403 12:39:58.369750 30611 layer_factory.hpp:77] Creating layer relu7
I0403 12:39:58.369771 30611 net.cpp:91] Creating Layer relu7
I0403 12:39:58.369788 30611 net.cpp:425] relu7 <- fc7
I0403 12:39:58.369807 30611 net.cpp:386] relu7 -> fc7 (in-place)
I0403 12:39:58.370249 30611 net.cpp:141] Setting up relu7
I0403 12:39:58.370285 30611 net.cpp:148] Top shape: 100 4096 (409600)
I0403 12:39:58.370347 30611 net.cpp:156] Memory required for data: 829887600
I0403 12:39:58.370364 30611 layer_factory.hpp:77] Creating layer drop7
I0403 12:39:58.370386 30611 net.cpp:91] Creating Layer drop7
I0403 12:39:58.370404 30611 net.cpp:425] drop7 <- fc7
I0403 12:39:58.370420 30611 net.cpp:386] drop7 -> fc7 (in-place)
I0403 12:39:58.370465 30611 net.cpp:141] Setting up drop7
I0403 12:39:58.370487 30611 net.cpp:148] Top shape: 100 4096 (409600)
I0403 12:39:58.370502 30611 net.cpp:156] Memory required for data: 831526000
I0403 12:39:58.370517 30611 layer_factory.hpp:77] Creating layer fc8_plantvillage
I0403 12:39:58.370535 30611 net.cpp:91] Creating Layer fc8_plantvillage
I0403 12:39:58.370550 30611 net.cpp:425] fc8_plantvillage <- fc7
I0403 12:39:58.370570 30611 net.cpp:399] fc8_plantvillage -> fc8_plantvillage
I0403 12:39:58.377344 30611 net.cpp:141] Setting up fc8_plantvillage
I0403 12:39:58.377372 30611 net.cpp:148] Top shape: 100 38 (3800)
I0403 12:39:58.377388 30611 net.cpp:156] Memory required for data: 831541200
I0403 12:39:58.377406 30611 layer_factory.hpp:77] Creating layer fc8_plantvillage_fc8_plantvillage_0_split
I0403 12:39:58.377427 30611 net.cpp:91] Creating Layer fc8_plantvillage_fc8_plantvillage_0_split
I0403 12:39:58.377444 30611 net.cpp:425] fc8_plantvillage_fc8_plantvillage_0_split <- fc8_plantvillage
I0403 12:39:58.377462 30611 net.cpp:399] fc8_plantvillage_fc8_plantvillage_0_split -> fc8_plantvillage_fc8_plantvillage_0_split_0
I0403 12:39:58.377483 30611 net.cpp:399] fc8_plantvillage_fc8_plantvillage_0_split -> fc8_plantvillage_fc8_plantvillage_0_split_1
I0403 12:39:58.377507 30611 net.cpp:399] fc8_plantvillage_fc8_plantvillage_0_split -> fc8_plantvillage_fc8_plantvillage_0_split_2
I0403 12:39:58.377585 30611 net.cpp:141] Setting up fc8_plantvillage_fc8_plantvillage_0_split
I0403 12:39:58.377609 30611 net.cpp:148] Top shape: 100 38 (3800)
I0403 12:39:58.377626 30611 net.cpp:148] Top shape: 100 38 (3800)
I0403 12:39:58.377641 30611 net.cpp:148] Top shape: 100 38 (3800)
I0403 12:39:58.377656 30611 net.cpp:156] Memory required for data: 831586800
I0403 12:39:58.377671 30611 layer_factory.hpp:77] Creating layer prob
I0403 12:39:58.377692 30611 net.cpp:91] Creating Layer prob
I0403 12:39:58.377709 30611 net.cpp:425] prob <- fc8_plantvillage_fc8_plantvillage_0_split_0
I0403 12:39:58.377727 30611 net.cpp:399] prob -> prob
I0403 12:39:58.377959 30611 net.cpp:141] Setting up prob
I0403 12:39:58.377985 30611 net.cpp:148] Top shape: 100 38 (3800)
I0403 12:39:58.378000 30611 net.cpp:156] Memory required for data: 831602000
I0403 12:39:58.378015 30611 layer_factory.hpp:77] Creating layer hdf5out
I0403 12:39:58.378036 30611 net.cpp:91] Creating Layer hdf5out
I0403 12:39:58.378053 30611 net.cpp:425] hdf5out <- prob
I0403 12:39:58.378070 30611 net.cpp:425] hdf5out <- label_data_1_split_0
I0403 12:39:58.380260 30611 net.cpp:141] Setting up hdf5out
…
