…
I0403 12:35:59.075480 30476 net.cpp:313] The NetState phase (1) differed from the phase (0) specified by a rule in layer data
I0403 12:35:59.075795 30476 net.cpp:49] Initializing net from parameters: 
state {
  phase: TEST
}
layer {
  name: "data"
  type: "Data"
  top: "data"
  top: "label"
  include {
    phase: TEST
  }
  transform_param {
    crop_size: 227
    mean_file: "/home/mohanty/data/final_dataset/lmdb/segmented-40-60/mean.binaryproto"
  }
  data_param {
    source: "/home/mohanty/data/final_dataset/lmdb/segmented-40-60/test_db"
    batch_size: 100
    backend: LMDB
  }
}
layer {
  name: "conv1"
  type: "Convolution"
  bottom: "data"
  top: "conv1"
  param {
    lr_mult: 1
    decay_mult: 1
  }
  param {
    lr_mult: 2
    decay_mult: 0
  }
  convolution_param {
    num_output: 96
    kernel_size: 11
    stride: 4
    weight_filler {
      type: "gaussian"
      std: 0.01
    }
    bias_filler {
      type: "constant"
      value: 0
    }
  }
}
layer {
  name: "relu1"
  type: "ReLU"
  bottom: "conv1"
  top: "conv1"
}
layer {
  name: "norm1"
  type: "LRN"
  bottom: "conv1"
  top: "norm1"
  lrn_param {
    local_size: 5
    alpha: 0.0001
    beta: 0.75
  }
}
layer {
  name: "pool1"
  type: "Pooling"
  bottom: "norm1"
  top: "pool1"
  pooling_param {
    pool: MAX
    kernel_size: 3
    stride: 2
  }
}
layer {
  name: "conv2"
  type: "Convolution"
  bottom: "pool1"
  top: "conv2"
  param {
    lr_mult: 1
    decay_mult: 1
  }
  param {
    lr_mult: 2
    decay_mult: 0
  }
  convolution_param {
    num_output: 256
    pad: 2
    kernel_size: 5
    group: 2
    weight_filler {
      type: "gaussian"
      std: 0.01
    }
    bias_filler {
      type: "constant"
      value: 0.1
    }
  }
}
layer {
  name: "relu2"
  type: "ReLU"
  bottom: "conv2"
  top: "conv2"
}
layer {
  name: "norm2"
  type: "LRN"
  bottom: "conv2"
  top: "norm2"
  lrn_param {
    local_size: 5
    alpha: 0.0001
    beta: 0.75
  }
}
layer {
  name: "pool2"
  type: "Pooling"
  bottom: "norm2"
  top: "pool2"
  pooling_param {
    pool: MAX
    kernel_size: 3
    stride: 2
  }
}
layer {
  name: "conv3"
  type: "Convolution"
  bottom: "pool2"
  top: "conv3"
  param {
    lr_mult: 1
    decay_mult: 1
  }
  param {
    lr_mult: 2
    decay_mult: 0
  }
  convolution_param {
    num_output: 384
    pad: 1
    kernel_size: 3
    weight_filler {
      type: "gaussian"
      std: 0.01
    }
    bias_filler {
      type: "constant"
      value: 0
    }
  }
}
layer {
  name: "relu3"
  type: "ReLU"
  bottom: "conv3"
  top: "conv3"
}
layer {
  name: "conv4"
  type: "Convolution"
  bottom: "conv3"
  top: "conv4"
  param {
    lr_mult: 1
    decay_mult: 1
  }
  param {
    lr_mult: 2
    decay_mult: 0
  }
  convolution_param {
    num_output: 384
    pad: 1
    kernel_size: 3
    group: 2
    weight_filler {
      type: "gaussian"
      std: 0.01
    }
    bias_filler {
      type: "constant"
      value: 0.1
    }
  }
}
layer {
  name: "relu4"
  type: "ReLU"
  bottom: "conv4"
  top: "conv4"
}
layer {
  name: "conv5"
  type: "Convolution"
  bottom: "conv4"
  top: "conv5"
  param {
    lr_mult: 1
    decay_mult: 1
  }
  param {
    lr_mult: 2
    decay_mult: 0
  }
  convolution_param {
    num_output: 256
    pad: 1
    kernel_size: 3
    group: 2
    weight_filler {
      type: "gaussian"
      std: 0.01
    }
    bias_filler {
      type: "constant"
      value: 0.1
    }
  }
}
layer {
  name: "relu5"
  type: "ReLU"
  bottom: "conv5"
  top: "conv5"
}
layer {
  name: "pool5"
  type: "Pooling"
  bottom: "conv5"
  top: "pool5"
  pooling_param {
    pool: MAX
    kernel_size: 3
    stride: 2
  }
}
layer {
  name: "fc6"
  type: "InnerProduct"
  bottom: "pool5"
  top: "fc6"
  param {
    lr_mult: 1
    decay_mult: 1
  }
  param {
    lr_mult: 2
    decay_mult: 0
  }
  inner_product_param {
    num_output: 4096
    weight_filler {
      type: "gaussian"
      std: 0.005
    }
    bias_filler {
      type: "constant"
      value: 0.1
    }
  }
}
layer {
  name: "relu6"
  type: "ReLU"
  bottom: "fc6"
  top: "fc6"
}
layer {
  name: "drop6"
  type: "Dropout"
  bottom: "fc6"
  top: "fc6"
  dropout_param {
    dropout_ratio: 0.5
  }
}
layer {
  name: "fc7"
  type: "InnerProduct"
  bottom: "fc6"
  top: "fc7"
  param {
    lr_mult: 1
    decay_mult: 1
  }
  param {
    lr_mult: 2
    decay_mult: 0
  }
  inner_product_param {
    num_output: 4096
    weight_filler {
      type: "gaussian"
      std: 0.005
    }
    bias_filler {
      type: "constant"
      value: 0.1
    }
  }
}
layer {
  name: "relu7"
  type: "ReLU"
  bottom: "fc7"
  top: "fc7"
}
layer {
  name: "drop7"
  type: "Dropout"
  bottom: "fc7"
  top: "fc7"
  dropout_param {
    dropout_ratio: 0.5
  }
}
layer {
  name: "fc8_plantvillage"
  type: "InnerProduct"
  bottom: "fc7"
  top: "fc8_plantvillage"
  param {
    lr_mult: 1
    decay_mult: 1
  }
  param {
    lr_mult: 2
    decay_mult: 0
  }
  inner_product_param {
    num_output: 38
    weight_filler {
      type: "gaussian"
      std: 0.01
    }
    bias_filler {
      type: "constant"
      value: 0
    }
  }
}
layer {
  name: "prob"
  type: "Softmax"
  bottom: "fc8_plantvillage"
  top: "prob"
  include {
    phase: TEST
  }
}
layer {
  name: "hdf5out"
  type: "HDF5Output"
  bottom: "prob"
  bottom: "label"
  include {
    phase: TEST
  }
  hdf5_output_param {
    file_name: "hdf5_dumps/iter_657.h5"
  }
}
layer {
  name: "loss"
  type: "SoftmaxWithLoss"
  bottom: "fc8_plantvillage"
  bottom: "label"
  top: "loss"
}
layer {
  name: "accuracy"
  type: "Accuracy"
  bottom: "fc8_plantvillage"
  bottom: "label"
  top: "accuracy"
  include {
    phase: TEST
  }
}
I0403 12:35:59.076396 30476 layer_factory.hpp:77] Creating layer data
I0403 12:35:59.077059 30476 net.cpp:91] Creating Layer data
I0403 12:35:59.077090 30476 net.cpp:399] data -> data
I0403 12:35:59.077142 30476 net.cpp:399] data -> label
I0403 12:35:59.077180 30476 data_transformer.cpp:25] Loading mean file from: /home/mohanty/data/final_dataset/lmdb/segmented-40-60/mean.binaryproto
I0403 12:35:59.078330 30480 db_lmdb.cpp:38] Opened lmdb /home/mohanty/data/final_dataset/lmdb/segmented-40-60/test_db
I0403 12:35:59.091701 30476 data_layer.cpp:41] output data size: 100,3,227,227
I0403 12:35:59.215662 30476 net.cpp:141] Setting up data
I0403 12:35:59.215760 30476 net.cpp:148] Top shape: 100 3 227 227 (15458700)
I0403 12:35:59.215785 30476 net.cpp:148] Top shape: 100 (100)
I0403 12:35:59.215802 30476 net.cpp:156] Memory required for data: 61835200
I0403 12:35:59.215831 30476 layer_factory.hpp:77] Creating layer label_data_1_split
I0403 12:35:59.215858 30476 net.cpp:91] Creating Layer label_data_1_split
I0403 12:35:59.215876 30476 net.cpp:425] label_data_1_split <- label
I0403 12:35:59.215909 30476 net.cpp:399] label_data_1_split -> label_data_1_split_0
I0403 12:35:59.215936 30476 net.cpp:399] label_data_1_split -> label_data_1_split_1
I0403 12:35:59.215958 30476 net.cpp:399] label_data_1_split -> label_data_1_split_2
I0403 12:35:59.216024 30476 net.cpp:141] Setting up label_data_1_split
I0403 12:35:59.216048 30476 net.cpp:148] Top shape: 100 (100)
I0403 12:35:59.216068 30476 net.cpp:148] Top shape: 100 (100)
I0403 12:35:59.216084 30476 net.cpp:148] Top shape: 100 (100)
I0403 12:35:59.216099 30476 net.cpp:156] Memory required for data: 61836400
I0403 12:35:59.216114 30476 layer_factory.hpp:77] Creating layer conv1
I0403 12:35:59.216146 30476 net.cpp:91] Creating Layer conv1
I0403 12:35:59.216166 30476 net.cpp:425] conv1 <- data
I0403 12:35:59.216187 30476 net.cpp:399] conv1 -> conv1
I0403 12:35:59.360466 30476 net.cpp:141] Setting up conv1
I0403 12:35:59.360556 30476 net.cpp:148] Top shape: 100 96 55 55 (29040000)
I0403 12:35:59.360574 30476 net.cpp:156] Memory required for data: 177996400
I0403 12:35:59.360607 30476 layer_factory.hpp:77] Creating layer relu1
I0403 12:35:59.360637 30476 net.cpp:91] Creating Layer relu1
I0403 12:35:59.360656 30476 net.cpp:425] relu1 <- conv1
I0403 12:35:59.360677 30476 net.cpp:386] relu1 -> conv1 (in-place)
I0403 12:35:59.360971 30476 net.cpp:141] Setting up relu1
I0403 12:35:59.361001 30476 net.cpp:148] Top shape: 100 96 55 55 (29040000)
I0403 12:35:59.361049 30476 net.cpp:156] Memory required for data: 294156400
I0403 12:35:59.361066 30476 layer_factory.hpp:77] Creating layer norm1
I0403 12:35:59.361095 30476 net.cpp:91] Creating Layer norm1
I0403 12:35:59.361114 30476 net.cpp:425] norm1 <- conv1
I0403 12:35:59.361134 30476 net.cpp:399] norm1 -> norm1
I0403 12:35:59.361464 30476 net.cpp:141] Setting up norm1
I0403 12:35:59.361492 30476 net.cpp:148] Top shape: 100 96 55 55 (29040000)
I0403 12:35:59.361510 30476 net.cpp:156] Memory required for data: 410316400
I0403 12:35:59.361526 30476 layer_factory.hpp:77] Creating layer pool1
I0403 12:35:59.361549 30476 net.cpp:91] Creating Layer pool1
I0403 12:35:59.361567 30476 net.cpp:425] pool1 <- norm1
I0403 12:35:59.361588 30476 net.cpp:399] pool1 -> pool1
I0403 12:35:59.361656 30476 net.cpp:141] Setting up pool1
I0403 12:35:59.361680 30476 net.cpp:148] Top shape: 100 96 27 27 (6998400)
I0403 12:35:59.361697 30476 net.cpp:156] Memory required for data: 438310000
I0403 12:35:59.361713 30476 layer_factory.hpp:77] Creating layer conv2
I0403 12:35:59.361739 30476 net.cpp:91] Creating Layer conv2
I0403 12:35:59.361757 30476 net.cpp:425] conv2 <- pool1
I0403 12:35:59.361775 30476 net.cpp:399] conv2 -> conv2
I0403 12:35:59.377449 30476 net.cpp:141] Setting up conv2
I0403 12:35:59.377496 30476 net.cpp:148] Top shape: 100 256 27 27 (18662400)
I0403 12:35:59.377513 30476 net.cpp:156] Memory required for data: 512959600
I0403 12:35:59.377537 30476 layer_factory.hpp:77] Creating layer relu2
I0403 12:35:59.377560 30476 net.cpp:91] Creating Layer relu2
I0403 12:35:59.377578 30476 net.cpp:425] relu2 <- conv2
I0403 12:35:59.377599 30476 net.cpp:386] relu2 -> conv2 (in-place)
I0403 12:35:59.377938 30476 net.cpp:141] Setting up relu2
I0403 12:35:59.377966 30476 net.cpp:148] Top shape: 100 256 27 27 (18662400)
I0403 12:35:59.377982 30476 net.cpp:156] Memory required for data: 587609200
I0403 12:35:59.377998 30476 layer_factory.hpp:77] Creating layer norm2
I0403 12:35:59.378023 30476 net.cpp:91] Creating Layer norm2
I0403 12:35:59.378041 30476 net.cpp:425] norm2 <- conv2
I0403 12:35:59.378063 30476 net.cpp:399] norm2 -> norm2
I0403 12:35:59.378276 30476 net.cpp:141] Setting up norm2
I0403 12:35:59.378304 30476 net.cpp:148] Top shape: 100 256 27 27 (18662400)
I0403 12:35:59.378320 30476 net.cpp:156] Memory required for data: 662258800
I0403 12:35:59.378336 30476 layer_factory.hpp:77] Creating layer pool2
I0403 12:35:59.378355 30476 net.cpp:91] Creating Layer pool2
I0403 12:35:59.378371 30476 net.cpp:425] pool2 <- norm2
I0403 12:35:59.378392 30476 net.cpp:399] pool2 -> pool2
I0403 12:35:59.378449 30476 net.cpp:141] Setting up pool2
I0403 12:35:59.378474 30476 net.cpp:148] Top shape: 100 256 13 13 (4326400)
I0403 12:35:59.378489 30476 net.cpp:156] Memory required for data: 679564400
I0403 12:35:59.378505 30476 layer_factory.hpp:77] Creating layer conv3
I0403 12:35:59.378533 30476 net.cpp:91] Creating Layer conv3
I0403 12:35:59.378551 30476 net.cpp:425] conv3 <- pool2
I0403 12:35:59.378571 30476 net.cpp:399] conv3 -> conv3
I0403 12:35:59.418830 30476 net.cpp:141] Setting up conv3
I0403 12:35:59.418917 30476 net.cpp:148] Top shape: 100 384 13 13 (6489600)
I0403 12:35:59.418934 30476 net.cpp:156] Memory required for data: 705522800
I0403 12:35:59.418962 30476 layer_factory.hpp:77] Creating layer relu3
I0403 12:35:59.418987 30476 net.cpp:91] Creating Layer relu3
I0403 12:35:59.419005 30476 net.cpp:425] relu3 <- conv3
I0403 12:35:59.419028 30476 net.cpp:386] relu3 -> conv3 (in-place)
I0403 12:35:59.419365 30476 net.cpp:141] Setting up relu3
I0403 12:35:59.419394 30476 net.cpp:148] Top shape: 100 384 13 13 (6489600)
I0403 12:35:59.419410 30476 net.cpp:156] Memory required for data: 731481200
I0403 12:35:59.419426 30476 layer_factory.hpp:77] Creating layer conv4
I0403 12:35:59.419453 30476 net.cpp:91] Creating Layer conv4
I0403 12:35:59.419472 30476 net.cpp:425] conv4 <- conv3
I0403 12:35:59.419494 30476 net.cpp:399] conv4 -> conv4
I0403 12:35:59.450881 30476 net.cpp:141] Setting up conv4
I0403 12:35:59.450963 30476 net.cpp:148] Top shape: 100 384 13 13 (6489600)
I0403 12:35:59.451012 30476 net.cpp:156] Memory required for data: 757439600
I0403 12:35:59.451036 30476 layer_factory.hpp:77] Creating layer relu4
I0403 12:35:59.451059 30476 net.cpp:91] Creating Layer relu4
I0403 12:35:59.451077 30476 net.cpp:425] relu4 <- conv4
I0403 12:35:59.451100 30476 net.cpp:386] relu4 -> conv4 (in-place)
I0403 12:35:59.451402 30476 net.cpp:141] Setting up relu4
I0403 12:35:59.451432 30476 net.cpp:148] Top shape: 100 384 13 13 (6489600)
I0403 12:35:59.451450 30476 net.cpp:156] Memory required for data: 783398000
I0403 12:35:59.451467 30476 layer_factory.hpp:77] Creating layer conv5
I0403 12:35:59.451493 30476 net.cpp:91] Creating Layer conv5
I0403 12:35:59.451511 30476 net.cpp:425] conv5 <- conv4
I0403 12:35:59.451530 30476 net.cpp:399] conv5 -> conv5
I0403 12:35:59.473215 30476 net.cpp:141] Setting up conv5
I0403 12:35:59.473286 30476 net.cpp:148] Top shape: 100 256 13 13 (4326400)
I0403 12:35:59.473305 30476 net.cpp:156] Memory required for data: 800703600
I0403 12:35:59.473330 30476 layer_factory.hpp:77] Creating layer relu5
I0403 12:35:59.473352 30476 net.cpp:91] Creating Layer relu5
I0403 12:35:59.473371 30476 net.cpp:425] relu5 <- conv5
I0403 12:35:59.473392 30476 net.cpp:386] relu5 -> conv5 (in-place)
I0403 12:35:59.473685 30476 net.cpp:141] Setting up relu5
I0403 12:35:59.473713 30476 net.cpp:148] Top shape: 100 256 13 13 (4326400)
I0403 12:35:59.473729 30476 net.cpp:156] Memory required for data: 818009200
I0403 12:35:59.473745 30476 layer_factory.hpp:77] Creating layer pool5
I0403 12:35:59.473772 30476 net.cpp:91] Creating Layer pool5
I0403 12:35:59.473789 30476 net.cpp:425] pool5 <- conv5
I0403 12:35:59.473809 30476 net.cpp:399] pool5 -> pool5
I0403 12:35:59.473875 30476 net.cpp:141] Setting up pool5
I0403 12:35:59.473901 30476 net.cpp:148] Top shape: 100 256 6 6 (921600)
I0403 12:35:59.473917 30476 net.cpp:156] Memory required for data: 821695600
I0403 12:35:59.473932 30476 layer_factory.hpp:77] Creating layer fc6
I0403 12:35:59.473961 30476 net.cpp:91] Creating Layer fc6
I0403 12:35:59.473980 30476 net.cpp:425] fc6 <- pool5
I0403 12:35:59.474002 30476 net.cpp:399] fc6 -> fc6
I0403 12:36:01.040299 30476 net.cpp:141] Setting up fc6
I0403 12:36:01.040386 30476 net.cpp:148] Top shape: 100 4096 (409600)
I0403 12:36:01.040403 30476 net.cpp:156] Memory required for data: 823334000
I0403 12:36:01.040426 30476 layer_factory.hpp:77] Creating layer relu6
I0403 12:36:01.040449 30476 net.cpp:91] Creating Layer relu6
I0403 12:36:01.040469 30476 net.cpp:425] relu6 <- fc6
I0403 12:36:01.040489 30476 net.cpp:386] relu6 -> fc6 (in-place)
I0403 12:36:01.040704 30476 net.cpp:141] Setting up relu6
I0403 12:36:01.040729 30476 net.cpp:148] Top shape: 100 4096 (409600)
I0403 12:36:01.040743 30476 net.cpp:156] Memory required for data: 824972400
I0403 12:36:01.040758 30476 layer_factory.hpp:77] Creating layer drop6
I0403 12:36:01.040776 30476 net.cpp:91] Creating Layer drop6
I0403 12:36:01.040792 30476 net.cpp:425] drop6 <- fc6
I0403 12:36:01.040812 30476 net.cpp:386] drop6 -> fc6 (in-place)
I0403 12:36:01.040863 30476 net.cpp:141] Setting up drop6
I0403 12:36:01.040889 30476 net.cpp:148] Top shape: 100 4096 (409600)
I0403 12:36:01.040904 30476 net.cpp:156] Memory required for data: 826610800
I0403 12:36:01.040918 30476 layer_factory.hpp:77] Creating layer fc7
I0403 12:36:01.040937 30476 net.cpp:91] Creating Layer fc7
I0403 12:36:01.040953 30476 net.cpp:425] fc7 <- fc6
I0403 12:36:01.040973 30476 net.cpp:399] fc7 -> fc7
I0403 12:36:01.726233 30476 net.cpp:141] Setting up fc7
I0403 12:36:01.726321 30476 net.cpp:148] Top shape: 100 4096 (409600)
I0403 12:36:01.726338 30476 net.cpp:156] Memory required for data: 828249200
I0403 12:36:01.726361 30476 layer_factory.hpp:77] Creating layer relu7
I0403 12:36:01.726383 30476 net.cpp:91] Creating Layer relu7
I0403 12:36:01.726400 30476 net.cpp:425] relu7 <- fc7
I0403 12:36:01.726423 30476 net.cpp:386] relu7 -> fc7 (in-place)
I0403 12:36:01.726845 30476 net.cpp:141] Setting up relu7
I0403 12:36:01.726873 30476 net.cpp:148] Top shape: 100 4096 (409600)
I0403 12:36:01.726936 30476 net.cpp:156] Memory required for data: 829887600
I0403 12:36:01.726953 30476 layer_factory.hpp:77] Creating layer drop7
I0403 12:36:01.726972 30476 net.cpp:91] Creating Layer drop7
I0403 12:36:01.726989 30476 net.cpp:425] drop7 <- fc7
I0403 12:36:01.727008 30476 net.cpp:386] drop7 -> fc7 (in-place)
I0403 12:36:01.727052 30476 net.cpp:141] Setting up drop7
I0403 12:36:01.727077 30476 net.cpp:148] Top shape: 100 4096 (409600)
I0403 12:36:01.727090 30476 net.cpp:156] Memory required for data: 831526000
I0403 12:36:01.727105 30476 layer_factory.hpp:77] Creating layer fc8_plantvillage
I0403 12:36:01.727128 30476 net.cpp:91] Creating Layer fc8_plantvillage
I0403 12:36:01.727145 30476 net.cpp:425] fc8_plantvillage <- fc7
I0403 12:36:01.727167 30476 net.cpp:399] fc8_plantvillage -> fc8_plantvillage
I0403 12:36:01.733989 30476 net.cpp:141] Setting up fc8_plantvillage
I0403 12:36:01.734019 30476 net.cpp:148] Top shape: 100 38 (3800)
I0403 12:36:01.734035 30476 net.cpp:156] Memory required for data: 831541200
I0403 12:36:01.734055 30476 layer_factory.hpp:77] Creating layer fc8_plantvillage_fc8_plantvillage_0_split
I0403 12:36:01.734073 30476 net.cpp:91] Creating Layer fc8_plantvillage_fc8_plantvillage_0_split
I0403 12:36:01.734088 30476 net.cpp:425] fc8_plantvillage_fc8_plantvillage_0_split <- fc8_plantvillage
I0403 12:36:01.734108 30476 net.cpp:399] fc8_plantvillage_fc8_plantvillage_0_split -> fc8_plantvillage_fc8_plantvillage_0_split_0
I0403 12:36:01.734129 30476 net.cpp:399] fc8_plantvillage_fc8_plantvillage_0_split -> fc8_plantvillage_fc8_plantvillage_0_split_1
I0403 12:36:01.734149 30476 net.cpp:399] fc8_plantvillage_fc8_plantvillage_0_split -> fc8_plantvillage_fc8_plantvillage_0_split_2
I0403 12:36:01.734228 30476 net.cpp:141] Setting up fc8_plantvillage_fc8_plantvillage_0_split
I0403 12:36:01.734252 30476 net.cpp:148] Top shape: 100 38 (3800)
I0403 12:36:01.734268 30476 net.cpp:148] Top shape: 100 38 (3800)
I0403 12:36:01.734293 30476 net.cpp:148] Top shape: 100 38 (3800)
I0403 12:36:01.734315 30476 net.cpp:156] Memory required for data: 831586800
I0403 12:36:01.734330 30476 layer_factory.hpp:77] Creating layer prob
I0403 12:36:01.734349 30476 net.cpp:91] Creating Layer prob
I0403 12:36:01.734364 30476 net.cpp:425] prob <- fc8_plantvillage_fc8_plantvillage_0_split_0
I0403 12:36:01.734385 30476 net.cpp:399] prob -> prob
I0403 12:36:01.734614 30476 net.cpp:141] Setting up prob
I0403 12:36:01.734644 30476 net.cpp:148] Top shape: 100 38 (3800)
I0403 12:36:01.734671 30476 net.cpp:156] Memory required for data: 831602000
I0403 12:36:01.734686 30476 layer_factory.hpp:77] Creating layer hdf5out
I0403 12:36:01.734706 30476 net.cpp:91] Creating Layer hdf5out
I0403 12:36:01.734722 30476 net.cpp:425] hdf5out <- prob
I0403 12:36:01.734740 30476 net.cpp:425] hdf5out <- label_data_1_split_0
I0403 12:36:01.737192 30476 net.cpp:141] Setting up hdf5out
…
