…
I0403 12:53:43.266003 30962 net.cpp:313] The NetState phase (1) differed from the phase (0) specified by a rule in layer data
I0403 12:53:43.266310 30962 net.cpp:49] Initializing net from parameters: 
state {
  phase: TEST
}
layer {
  name: "data"
  type: "Data"
  top: "data"
  top: "label"
  include {
    phase: TEST
  }
  transform_param {
    crop_size: 227
    mean_file: "/home/mohanty/data/final_dataset/lmdb/segmented-40-60/mean.binaryproto"
  }
  data_param {
    source: "/home/mohanty/data/final_dataset/lmdb/segmented-40-60/test_db"
    batch_size: 100
    backend: LMDB
  }
}
layer {
  name: "conv1"
  type: "Convolution"
  bottom: "data"
  top: "conv1"
  param {
    lr_mult: 1
    decay_mult: 1
  }
  param {
    lr_mult: 2
    decay_mult: 0
  }
  convolution_param {
    num_output: 96
    kernel_size: 11
    stride: 4
    weight_filler {
      type: "gaussian"
      std: 0.01
    }
    bias_filler {
      type: "constant"
      value: 0
    }
  }
}
layer {
  name: "relu1"
  type: "ReLU"
  bottom: "conv1"
  top: "conv1"
}
layer {
  name: "norm1"
  type: "LRN"
  bottom: "conv1"
  top: "norm1"
  lrn_param {
    local_size: 5
    alpha: 0.0001
    beta: 0.75
  }
}
layer {
  name: "pool1"
  type: "Pooling"
  bottom: "norm1"
  top: "pool1"
  pooling_param {
    pool: MAX
    kernel_size: 3
    stride: 2
  }
}
layer {
  name: "conv2"
  type: "Convolution"
  bottom: "pool1"
  top: "conv2"
  param {
    lr_mult: 1
    decay_mult: 1
  }
  param {
    lr_mult: 2
    decay_mult: 0
  }
  convolution_param {
    num_output: 256
    pad: 2
    kernel_size: 5
    group: 2
    weight_filler {
      type: "gaussian"
      std: 0.01
    }
    bias_filler {
      type: "constant"
      value: 0.1
    }
  }
}
layer {
  name: "relu2"
  type: "ReLU"
  bottom: "conv2"
  top: "conv2"
}
layer {
  name: "norm2"
  type: "LRN"
  bottom: "conv2"
  top: "norm2"
  lrn_param {
    local_size: 5
    alpha: 0.0001
    beta: 0.75
  }
}
layer {
  name: "pool2"
  type: "Pooling"
  bottom: "norm2"
  top: "pool2"
  pooling_param {
    pool: MAX
    kernel_size: 3
    stride: 2
  }
}
layer {
  name: "conv3"
  type: "Convolution"
  bottom: "pool2"
  top: "conv3"
  param {
    lr_mult: 1
    decay_mult: 1
  }
  param {
    lr_mult: 2
    decay_mult: 0
  }
  convolution_param {
    num_output: 384
    pad: 1
    kernel_size: 3
    weight_filler {
      type: "gaussian"
      std: 0.01
    }
    bias_filler {
      type: "constant"
      value: 0
    }
  }
}
layer {
  name: "relu3"
  type: "ReLU"
  bottom: "conv3"
  top: "conv3"
}
layer {
  name: "conv4"
  type: "Convolution"
  bottom: "conv3"
  top: "conv4"
  param {
    lr_mult: 1
    decay_mult: 1
  }
  param {
    lr_mult: 2
    decay_mult: 0
  }
  convolution_param {
    num_output: 384
    pad: 1
    kernel_size: 3
    group: 2
    weight_filler {
      type: "gaussian"
      std: 0.01
    }
    bias_filler {
      type: "constant"
      value: 0.1
    }
  }
}
layer {
  name: "relu4"
  type: "ReLU"
  bottom: "conv4"
  top: "conv4"
}
layer {
  name: "conv5"
  type: "Convolution"
  bottom: "conv4"
  top: "conv5"
  param {
    lr_mult: 1
    decay_mult: 1
  }
  param {
    lr_mult: 2
    decay_mult: 0
  }
  convolution_param {
    num_output: 256
    pad: 1
    kernel_size: 3
    group: 2
    weight_filler {
      type: "gaussian"
      std: 0.01
    }
    bias_filler {
      type: "constant"
      value: 0.1
    }
  }
}
layer {
  name: "relu5"
  type: "ReLU"
  bottom: "conv5"
  top: "conv5"
}
layer {
  name: "pool5"
  type: "Pooling"
  bottom: "conv5"
  top: "pool5"
  pooling_param {
    pool: MAX
    kernel_size: 3
    stride: 2
  }
}
layer {
  name: "fc6"
  type: "InnerProduct"
  bottom: "pool5"
  top: "fc6"
  param {
    lr_mult: 1
    decay_mult: 1
  }
  param {
    lr_mult: 2
    decay_mult: 0
  }
  inner_product_param {
    num_output: 4096
    weight_filler {
      type: "gaussian"
      std: 0.005
    }
    bias_filler {
      type: "constant"
      value: 0.1
    }
  }
}
layer {
  name: "relu6"
  type: "ReLU"
  bottom: "fc6"
  top: "fc6"
}
layer {
  name: "drop6"
  type: "Dropout"
  bottom: "fc6"
  top: "fc6"
  dropout_param {
    dropout_ratio: 0.5
  }
}
layer {
  name: "fc7"
  type: "InnerProduct"
  bottom: "fc6"
  top: "fc7"
  param {
    lr_mult: 1
    decay_mult: 1
  }
  param {
    lr_mult: 2
    decay_mult: 0
  }
  inner_product_param {
    num_output: 4096
    weight_filler {
      type: "gaussian"
      std: 0.005
    }
    bias_filler {
      type: "constant"
      value: 0.1
    }
  }
}
layer {
  name: "relu7"
  type: "ReLU"
  bottom: "fc7"
  top: "fc7"
}
layer {
  name: "drop7"
  type: "Dropout"
  bottom: "fc7"
  top: "fc7"
  dropout_param {
    dropout_ratio: 0.5
  }
}
layer {
  name: "fc8_plantvillage"
  type: "InnerProduct"
  bottom: "fc7"
  top: "fc8_plantvillage"
  param {
    lr_mult: 1
    decay_mult: 1
  }
  param {
    lr_mult: 2
    decay_mult: 0
  }
  inner_product_param {
    num_output: 38
    weight_filler {
      type: "gaussian"
      std: 0.01
    }
    bias_filler {
      type: "constant"
      value: 0
    }
  }
}
layer {
  name: "prob"
  type: "Softmax"
  bottom: "fc8_plantvillage"
  top: "prob"
  include {
    phase: TEST
  }
}
layer {
  name: "hdf5out"
  type: "HDF5Output"
  bottom: "prob"
  bottom: "label"
  include {
    phase: TEST
  }
  hdf5_output_param {
    file_name: "hdf5_dumps/iter_4599.h5"
  }
}
layer {
  name: "loss"
  type: "SoftmaxWithLoss"
  bottom: "fc8_plantvillage"
  bottom: "label"
  top: "loss"
}
layer {
  name: "accuracy"
  type: "Accuracy"
  bottom: "fc8_plantvillage"
  bottom: "label"
  top: "accuracy"
  include {
    phase: TEST
  }
}
I0403 12:53:43.266901 30962 layer_factory.hpp:77] Creating layer data
I0403 12:53:43.267580 30962 net.cpp:91] Creating Layer data
I0403 12:53:43.267612 30962 net.cpp:399] data -> data
I0403 12:53:43.267663 30962 net.cpp:399] data -> label
I0403 12:53:43.267720 30962 data_transformer.cpp:25] Loading mean file from: /home/mohanty/data/final_dataset/lmdb/segmented-40-60/mean.binaryproto
I0403 12:53:43.268903 30965 db_lmdb.cpp:38] Opened lmdb /home/mohanty/data/final_dataset/lmdb/segmented-40-60/test_db
I0403 12:53:43.282296 30962 data_layer.cpp:41] output data size: 100,3,227,227
I0403 12:53:43.403826 30962 net.cpp:141] Setting up data
I0403 12:53:43.403887 30962 net.cpp:148] Top shape: 100 3 227 227 (15458700)
I0403 12:53:43.403910 30962 net.cpp:148] Top shape: 100 (100)
I0403 12:53:43.403925 30962 net.cpp:156] Memory required for data: 61835200
I0403 12:53:43.403952 30962 layer_factory.hpp:77] Creating layer label_data_1_split
I0403 12:53:43.403977 30962 net.cpp:91] Creating Layer label_data_1_split
I0403 12:53:43.403995 30962 net.cpp:425] label_data_1_split <- label
I0403 12:53:43.404026 30962 net.cpp:399] label_data_1_split -> label_data_1_split_0
I0403 12:53:43.404052 30962 net.cpp:399] label_data_1_split -> label_data_1_split_1
I0403 12:53:43.404072 30962 net.cpp:399] label_data_1_split -> label_data_1_split_2
I0403 12:53:43.404134 30962 net.cpp:141] Setting up label_data_1_split
I0403 12:53:43.404156 30962 net.cpp:148] Top shape: 100 (100)
I0403 12:53:43.404173 30962 net.cpp:148] Top shape: 100 (100)
I0403 12:53:43.404189 30962 net.cpp:148] Top shape: 100 (100)
I0403 12:53:43.404203 30962 net.cpp:156] Memory required for data: 61836400
I0403 12:53:43.404217 30962 layer_factory.hpp:77] Creating layer conv1
I0403 12:53:43.404248 30962 net.cpp:91] Creating Layer conv1
I0403 12:53:43.404266 30962 net.cpp:425] conv1 <- data
I0403 12:53:43.404290 30962 net.cpp:399] conv1 -> conv1
I0403 12:53:43.546425 30962 net.cpp:141] Setting up conv1
I0403 12:53:43.546519 30962 net.cpp:148] Top shape: 100 96 55 55 (29040000)
I0403 12:53:43.546537 30962 net.cpp:156] Memory required for data: 177996400
I0403 12:53:43.546571 30962 layer_factory.hpp:77] Creating layer relu1
I0403 12:53:43.546600 30962 net.cpp:91] Creating Layer relu1
I0403 12:53:43.546620 30962 net.cpp:425] relu1 <- conv1
I0403 12:53:43.546640 30962 net.cpp:386] relu1 -> conv1 (in-place)
I0403 12:53:43.546908 30962 net.cpp:141] Setting up relu1
I0403 12:53:43.546937 30962 net.cpp:148] Top shape: 100 96 55 55 (29040000)
I0403 12:53:43.546988 30962 net.cpp:156] Memory required for data: 294156400
I0403 12:53:43.547005 30962 layer_factory.hpp:77] Creating layer norm1
I0403 12:53:43.547034 30962 net.cpp:91] Creating Layer norm1
I0403 12:53:43.547052 30962 net.cpp:425] norm1 <- conv1
I0403 12:53:43.547071 30962 net.cpp:399] norm1 -> norm1
I0403 12:53:43.547418 30962 net.cpp:141] Setting up norm1
I0403 12:53:43.547447 30962 net.cpp:148] Top shape: 100 96 55 55 (29040000)
I0403 12:53:43.547464 30962 net.cpp:156] Memory required for data: 410316400
I0403 12:53:43.547480 30962 layer_factory.hpp:77] Creating layer pool1
I0403 12:53:43.547504 30962 net.cpp:91] Creating Layer pool1
I0403 12:53:43.547523 30962 net.cpp:425] pool1 <- norm1
I0403 12:53:43.547543 30962 net.cpp:399] pool1 -> pool1
I0403 12:53:43.547611 30962 net.cpp:141] Setting up pool1
I0403 12:53:43.547636 30962 net.cpp:148] Top shape: 100 96 27 27 (6998400)
I0403 12:53:43.547652 30962 net.cpp:156] Memory required for data: 438310000
I0403 12:53:43.547668 30962 layer_factory.hpp:77] Creating layer conv2
I0403 12:53:43.547694 30962 net.cpp:91] Creating Layer conv2
I0403 12:53:43.547711 30962 net.cpp:425] conv2 <- pool1
I0403 12:53:43.547730 30962 net.cpp:399] conv2 -> conv2
I0403 12:53:43.563436 30962 net.cpp:141] Setting up conv2
I0403 12:53:43.563491 30962 net.cpp:148] Top shape: 100 256 27 27 (18662400)
I0403 12:53:43.563509 30962 net.cpp:156] Memory required for data: 512959600
I0403 12:53:43.563534 30962 layer_factory.hpp:77] Creating layer relu2
I0403 12:53:43.563558 30962 net.cpp:91] Creating Layer relu2
I0403 12:53:43.563576 30962 net.cpp:425] relu2 <- conv2
I0403 12:53:43.563596 30962 net.cpp:386] relu2 -> conv2 (in-place)
I0403 12:53:43.563889 30962 net.cpp:141] Setting up relu2
I0403 12:53:43.563920 30962 net.cpp:148] Top shape: 100 256 27 27 (18662400)
I0403 12:53:43.563936 30962 net.cpp:156] Memory required for data: 587609200
I0403 12:53:43.563952 30962 layer_factory.hpp:77] Creating layer norm2
I0403 12:53:43.563977 30962 net.cpp:91] Creating Layer norm2
I0403 12:53:43.563997 30962 net.cpp:425] norm2 <- conv2
I0403 12:53:43.564015 30962 net.cpp:399] norm2 -> norm2
I0403 12:53:43.564224 30962 net.cpp:141] Setting up norm2
I0403 12:53:43.564249 30962 net.cpp:148] Top shape: 100 256 27 27 (18662400)
I0403 12:53:43.564266 30962 net.cpp:156] Memory required for data: 662258800
I0403 12:53:43.564287 30962 layer_factory.hpp:77] Creating layer pool2
I0403 12:53:43.564311 30962 net.cpp:91] Creating Layer pool2
I0403 12:53:43.564328 30962 net.cpp:425] pool2 <- norm2
I0403 12:53:43.564347 30962 net.cpp:399] pool2 -> pool2
I0403 12:53:43.564451 30962 net.cpp:141] Setting up pool2
I0403 12:53:43.564478 30962 net.cpp:148] Top shape: 100 256 13 13 (4326400)
I0403 12:53:43.564494 30962 net.cpp:156] Memory required for data: 679564400
I0403 12:53:43.564510 30962 layer_factory.hpp:77] Creating layer conv3
I0403 12:53:43.564537 30962 net.cpp:91] Creating Layer conv3
I0403 12:53:43.564554 30962 net.cpp:425] conv3 <- pool2
I0403 12:53:43.564577 30962 net.cpp:399] conv3 -> conv3
I0403 12:53:43.604671 30962 net.cpp:141] Setting up conv3
I0403 12:53:43.604753 30962 net.cpp:148] Top shape: 100 384 13 13 (6489600)
I0403 12:53:43.604774 30962 net.cpp:156] Memory required for data: 705522800
I0403 12:53:43.604801 30962 layer_factory.hpp:77] Creating layer relu3
I0403 12:53:43.604826 30962 net.cpp:91] Creating Layer relu3
I0403 12:53:43.604845 30962 net.cpp:425] relu3 <- conv3
I0403 12:53:43.604864 30962 net.cpp:386] relu3 -> conv3 (in-place)
I0403 12:53:43.605160 30962 net.cpp:141] Setting up relu3
I0403 12:53:43.605191 30962 net.cpp:148] Top shape: 100 384 13 13 (6489600)
I0403 12:53:43.605209 30962 net.cpp:156] Memory required for data: 731481200
I0403 12:53:43.605226 30962 layer_factory.hpp:77] Creating layer conv4
I0403 12:53:43.605252 30962 net.cpp:91] Creating Layer conv4
I0403 12:53:43.605274 30962 net.cpp:425] conv4 <- conv3
I0403 12:53:43.605296 30962 net.cpp:399] conv4 -> conv4
I0403 12:53:43.636471 30962 net.cpp:141] Setting up conv4
I0403 12:53:43.636549 30962 net.cpp:148] Top shape: 100 384 13 13 (6489600)
I0403 12:53:43.636600 30962 net.cpp:156] Memory required for data: 757439600
I0403 12:53:43.636623 30962 layer_factory.hpp:77] Creating layer relu4
I0403 12:53:43.636648 30962 net.cpp:91] Creating Layer relu4
I0403 12:53:43.636667 30962 net.cpp:425] relu4 <- conv4
I0403 12:53:43.636688 30962 net.cpp:386] relu4 -> conv4 (in-place)
I0403 12:53:43.636986 30962 net.cpp:141] Setting up relu4
I0403 12:53:43.637013 30962 net.cpp:148] Top shape: 100 384 13 13 (6489600)
I0403 12:53:43.637030 30962 net.cpp:156] Memory required for data: 783398000
I0403 12:53:43.637048 30962 layer_factory.hpp:77] Creating layer conv5
I0403 12:53:43.637074 30962 net.cpp:91] Creating Layer conv5
I0403 12:53:43.637094 30962 net.cpp:425] conv5 <- conv4
I0403 12:53:43.637115 30962 net.cpp:399] conv5 -> conv5
I0403 12:53:43.658609 30962 net.cpp:141] Setting up conv5
I0403 12:53:43.658664 30962 net.cpp:148] Top shape: 100 256 13 13 (4326400)
I0403 12:53:43.658682 30962 net.cpp:156] Memory required for data: 800703600
I0403 12:53:43.658709 30962 layer_factory.hpp:77] Creating layer relu5
I0403 12:53:43.658735 30962 net.cpp:91] Creating Layer relu5
I0403 12:53:43.658753 30962 net.cpp:425] relu5 <- conv5
I0403 12:53:43.658772 30962 net.cpp:386] relu5 -> conv5 (in-place)
I0403 12:53:43.659071 30962 net.cpp:141] Setting up relu5
I0403 12:53:43.659102 30962 net.cpp:148] Top shape: 100 256 13 13 (4326400)
I0403 12:53:43.659121 30962 net.cpp:156] Memory required for data: 818009200
I0403 12:53:43.659137 30962 layer_factory.hpp:77] Creating layer pool5
I0403 12:53:43.659159 30962 net.cpp:91] Creating Layer pool5
I0403 12:53:43.659179 30962 net.cpp:425] pool5 <- conv5
I0403 12:53:43.659201 30962 net.cpp:399] pool5 -> pool5
I0403 12:53:43.659263 30962 net.cpp:141] Setting up pool5
I0403 12:53:43.659296 30962 net.cpp:148] Top shape: 100 256 6 6 (921600)
I0403 12:53:43.659313 30962 net.cpp:156] Memory required for data: 821695600
I0403 12:53:43.659329 30962 layer_factory.hpp:77] Creating layer fc6
I0403 12:53:43.659358 30962 net.cpp:91] Creating Layer fc6
I0403 12:53:43.659376 30962 net.cpp:425] fc6 <- pool5
I0403 12:53:43.659400 30962 net.cpp:399] fc6 -> fc6
I0403 12:53:45.225261 30962 net.cpp:141] Setting up fc6
I0403 12:53:45.225317 30962 net.cpp:148] Top shape: 100 4096 (409600)
I0403 12:53:45.225333 30962 net.cpp:156] Memory required for data: 823334000
I0403 12:53:45.225354 30962 layer_factory.hpp:77] Creating layer relu6
I0403 12:53:45.225379 30962 net.cpp:91] Creating Layer relu6
I0403 12:53:45.225397 30962 net.cpp:425] relu6 <- fc6
I0403 12:53:45.225416 30962 net.cpp:386] relu6 -> fc6 (in-place)
I0403 12:53:45.225646 30962 net.cpp:141] Setting up relu6
I0403 12:53:45.225672 30962 net.cpp:148] Top shape: 100 4096 (409600)
I0403 12:53:45.225687 30962 net.cpp:156] Memory required for data: 824972400
I0403 12:53:45.225703 30962 layer_factory.hpp:77] Creating layer drop6
I0403 12:53:45.225723 30962 net.cpp:91] Creating Layer drop6
I0403 12:53:45.225739 30962 net.cpp:425] drop6 <- fc6
I0403 12:53:45.225757 30962 net.cpp:386] drop6 -> fc6 (in-place)
I0403 12:53:45.225811 30962 net.cpp:141] Setting up drop6
I0403 12:53:45.225836 30962 net.cpp:148] Top shape: 100 4096 (409600)
I0403 12:53:45.225849 30962 net.cpp:156] Memory required for data: 826610800
I0403 12:53:45.225864 30962 layer_factory.hpp:77] Creating layer fc7
I0403 12:53:45.225886 30962 net.cpp:91] Creating Layer fc7
I0403 12:53:45.225903 30962 net.cpp:425] fc7 <- fc6
I0403 12:53:45.225921 30962 net.cpp:399] fc7 -> fc7
I0403 12:53:45.914216 30962 net.cpp:141] Setting up fc7
I0403 12:53:45.914261 30962 net.cpp:148] Top shape: 100 4096 (409600)
I0403 12:53:45.914283 30962 net.cpp:156] Memory required for data: 828249200
I0403 12:53:45.914306 30962 layer_factory.hpp:77] Creating layer relu7
I0403 12:53:45.914327 30962 net.cpp:91] Creating Layer relu7
I0403 12:53:45.914345 30962 net.cpp:425] relu7 <- fc7
I0403 12:53:45.914364 30962 net.cpp:386] relu7 -> fc7 (in-place)
I0403 12:53:45.914788 30962 net.cpp:141] Setting up relu7
I0403 12:53:45.914816 30962 net.cpp:148] Top shape: 100 4096 (409600)
I0403 12:53:45.914866 30962 net.cpp:156] Memory required for data: 829887600
I0403 12:53:45.914882 30962 layer_factory.hpp:77] Creating layer drop7
I0403 12:53:45.914903 30962 net.cpp:91] Creating Layer drop7
I0403 12:53:45.914919 30962 net.cpp:425] drop7 <- fc7
I0403 12:53:45.914937 30962 net.cpp:386] drop7 -> fc7 (in-place)
I0403 12:53:45.914983 30962 net.cpp:141] Setting up drop7
I0403 12:53:45.915006 30962 net.cpp:148] Top shape: 100 4096 (409600)
I0403 12:53:45.915021 30962 net.cpp:156] Memory required for data: 831526000
I0403 12:53:45.915035 30962 layer_factory.hpp:77] Creating layer fc8_plantvillage
I0403 12:53:45.915057 30962 net.cpp:91] Creating Layer fc8_plantvillage
I0403 12:53:45.915074 30962 net.cpp:425] fc8_plantvillage <- fc7
I0403 12:53:45.915093 30962 net.cpp:399] fc8_plantvillage -> fc8_plantvillage
I0403 12:53:45.921986 30962 net.cpp:141] Setting up fc8_plantvillage
I0403 12:53:45.922014 30962 net.cpp:148] Top shape: 100 38 (3800)
I0403 12:53:45.922030 30962 net.cpp:156] Memory required for data: 831541200
I0403 12:53:45.922049 30962 layer_factory.hpp:77] Creating layer fc8_plantvillage_fc8_plantvillage_0_split
I0403 12:53:45.922082 30962 net.cpp:91] Creating Layer fc8_plantvillage_fc8_plantvillage_0_split
I0403 12:53:45.922101 30962 net.cpp:425] fc8_plantvillage_fc8_plantvillage_0_split <- fc8_plantvillage
I0403 12:53:45.922121 30962 net.cpp:399] fc8_plantvillage_fc8_plantvillage_0_split -> fc8_plantvillage_fc8_plantvillage_0_split_0
I0403 12:53:45.922144 30962 net.cpp:399] fc8_plantvillage_fc8_plantvillage_0_split -> fc8_plantvillage_fc8_plantvillage_0_split_1
I0403 12:53:45.922165 30962 net.cpp:399] fc8_plantvillage_fc8_plantvillage_0_split -> fc8_plantvillage_fc8_plantvillage_0_split_2
I0403 12:53:45.922245 30962 net.cpp:141] Setting up fc8_plantvillage_fc8_plantvillage_0_split
I0403 12:53:45.922269 30962 net.cpp:148] Top shape: 100 38 (3800)
I0403 12:53:45.922302 30962 net.cpp:148] Top shape: 100 38 (3800)
I0403 12:53:45.922320 30962 net.cpp:148] Top shape: 100 38 (3800)
I0403 12:53:45.922335 30962 net.cpp:156] Memory required for data: 831586800
I0403 12:53:45.922350 30962 layer_factory.hpp:77] Creating layer prob
I0403 12:53:45.922374 30962 net.cpp:91] Creating Layer prob
I0403 12:53:45.922404 30962 net.cpp:425] prob <- fc8_plantvillage_fc8_plantvillage_0_split_0
I0403 12:53:45.922421 30962 net.cpp:399] prob -> prob
I0403 12:53:45.922649 30962 net.cpp:141] Setting up prob
I0403 12:53:45.922674 30962 net.cpp:148] Top shape: 100 38 (3800)
I0403 12:53:45.922689 30962 net.cpp:156] Memory required for data: 831602000
I0403 12:53:45.922705 30962 layer_factory.hpp:77] Creating layer hdf5out
I0403 12:53:45.922726 30962 net.cpp:91] Creating Layer hdf5out
I0403 12:53:45.922744 30962 net.cpp:425] hdf5out <- prob
I0403 12:53:45.922760 30962 net.cpp:425] hdf5out <- label_data_1_split_0
I0403 12:53:45.925056 30962 net.cpp:141] Setting up hdf5out
…
