…
I0403 12:40:54.735551 30639 net.cpp:313] The NetState phase (1) differed from the phase (0) specified by a rule in layer data
I0403 12:40:54.735831 30639 net.cpp:49] Initializing net from parameters: 
state {
  phase: TEST
}
layer {
  name: "data"
  type: "Data"
  top: "data"
  top: "label"
  include {
    phase: TEST
  }
  transform_param {
    crop_size: 227
    mean_file: "/home/mohanty/data/final_dataset/lmdb/segmented-40-60/mean.binaryproto"
  }
  data_param {
    source: "/home/mohanty/data/final_dataset/lmdb/segmented-40-60/test_db"
    batch_size: 100
    backend: LMDB
  }
}
layer {
  name: "conv1"
  type: "Convolution"
  bottom: "data"
  top: "conv1"
  param {
    lr_mult: 1
    decay_mult: 1
  }
  param {
    lr_mult: 2
    decay_mult: 0
  }
  convolution_param {
    num_output: 96
    kernel_size: 11
    stride: 4
    weight_filler {
      type: "gaussian"
      std: 0.01
    }
    bias_filler {
      type: "constant"
      value: 0
    }
  }
}
layer {
  name: "relu1"
  type: "ReLU"
  bottom: "conv1"
  top: "conv1"
}
layer {
  name: "norm1"
  type: "LRN"
  bottom: "conv1"
  top: "norm1"
  lrn_param {
    local_size: 5
    alpha: 0.0001
    beta: 0.75
  }
}
layer {
  name: "pool1"
  type: "Pooling"
  bottom: "norm1"
  top: "pool1"
  pooling_param {
    pool: MAX
    kernel_size: 3
    stride: 2
  }
}
layer {
  name: "conv2"
  type: "Convolution"
  bottom: "pool1"
  top: "conv2"
  param {
    lr_mult: 1
    decay_mult: 1
  }
  param {
    lr_mult: 2
    decay_mult: 0
  }
  convolution_param {
    num_output: 256
    pad: 2
    kernel_size: 5
    group: 2
    weight_filler {
      type: "gaussian"
      std: 0.01
    }
    bias_filler {
      type: "constant"
      value: 0.1
    }
  }
}
layer {
  name: "relu2"
  type: "ReLU"
  bottom: "conv2"
  top: "conv2"
}
layer {
  name: "norm2"
  type: "LRN"
  bottom: "conv2"
  top: "norm2"
  lrn_param {
    local_size: 5
    alpha: 0.0001
    beta: 0.75
  }
}
layer {
  name: "pool2"
  type: "Pooling"
  bottom: "norm2"
  top: "pool2"
  pooling_param {
    pool: MAX
    kernel_size: 3
    stride: 2
  }
}
layer {
  name: "conv3"
  type: "Convolution"
  bottom: "pool2"
  top: "conv3"
  param {
    lr_mult: 1
    decay_mult: 1
  }
  param {
    lr_mult: 2
    decay_mult: 0
  }
  convolution_param {
    num_output: 384
    pad: 1
    kernel_size: 3
    weight_filler {
      type: "gaussian"
      std: 0.01
    }
    bias_filler {
      type: "constant"
      value: 0
    }
  }
}
layer {
  name: "relu3"
  type: "ReLU"
  bottom: "conv3"
  top: "conv3"
}
layer {
  name: "conv4"
  type: "Convolution"
  bottom: "conv3"
  top: "conv4"
  param {
    lr_mult: 1
    decay_mult: 1
  }
  param {
    lr_mult: 2
    decay_mult: 0
  }
  convolution_param {
    num_output: 384
    pad: 1
    kernel_size: 3
    group: 2
    weight_filler {
      type: "gaussian"
      std: 0.01
    }
    bias_filler {
      type: "constant"
      value: 0.1
    }
  }
}
layer {
  name: "relu4"
  type: "ReLU"
  bottom: "conv4"
  top: "conv4"
}
layer {
  name: "conv5"
  type: "Convolution"
  bottom: "conv4"
  top: "conv5"
  param {
    lr_mult: 1
    decay_mult: 1
  }
  param {
    lr_mult: 2
    decay_mult: 0
  }
  convolution_param {
    num_output: 256
    pad: 1
    kernel_size: 3
    group: 2
    weight_filler {
      type: "gaussian"
      std: 0.01
    }
    bias_filler {
      type: "constant"
      value: 0.1
    }
  }
}
layer {
  name: "relu5"
  type: "ReLU"
  bottom: "conv5"
  top: "conv5"
}
layer {
  name: "pool5"
  type: "Pooling"
  bottom: "conv5"
  top: "pool5"
  pooling_param {
    pool: MAX
    kernel_size: 3
    stride: 2
  }
}
layer {
  name: "fc6"
  type: "InnerProduct"
  bottom: "pool5"
  top: "fc6"
  param {
    lr_mult: 1
    decay_mult: 1
  }
  param {
    lr_mult: 2
    decay_mult: 0
  }
  inner_product_param {
    num_output: 4096
    weight_filler {
      type: "gaussian"
      std: 0.005
    }
    bias_filler {
      type: "constant"
      value: 0.1
    }
  }
}
layer {
  name: "relu6"
  type: "ReLU"
  bottom: "fc6"
  top: "fc6"
}
layer {
  name: "drop6"
  type: "Dropout"
  bottom: "fc6"
  top: "fc6"
  dropout_param {
    dropout_ratio: 0.5
  }
}
layer {
  name: "fc7"
  type: "InnerProduct"
  bottom: "fc6"
  top: "fc7"
  param {
    lr_mult: 1
    decay_mult: 1
  }
  param {
    lr_mult: 2
    decay_mult: 0
  }
  inner_product_param {
    num_output: 4096
    weight_filler {
      type: "gaussian"
      std: 0.005
    }
    bias_filler {
      type: "constant"
      value: 0.1
    }
  }
}
layer {
  name: "relu7"
  type: "ReLU"
  bottom: "fc7"
  top: "fc7"
}
layer {
  name: "drop7"
  type: "Dropout"
  bottom: "fc7"
  top: "fc7"
  dropout_param {
    dropout_ratio: 0.5
  }
}
layer {
  name: "fc8_plantvillage"
  type: "InnerProduct"
  bottom: "fc7"
  top: "fc8_plantvillage"
  param {
    lr_mult: 1
    decay_mult: 1
  }
  param {
    lr_mult: 2
    decay_mult: 0
  }
  inner_product_param {
    num_output: 38
    weight_filler {
      type: "gaussian"
      std: 0.01
    }
    bias_filler {
      type: "constant"
      value: 0
    }
  }
}
layer {
  name: "prob"
  type: "Softmax"
  bottom: "fc8_plantvillage"
  top: "prob"
  include {
    phase: TEST
  }
}
layer {
  name: "hdf5out"
  type: "HDF5Output"
  bottom: "prob"
  bottom: "label"
  include {
    phase: TEST
  }
  hdf5_output_param {
    file_name: "hdf5_dumps/iter_1752.h5"
  }
}
layer {
  name: "loss"
  type: "SoftmaxWithLoss"
  bottom: "fc8_plantvillage"
  bottom: "label"
  top: "loss"
}
layer {
  name: "accuracy"
  type: "Accuracy"
  bottom: "fc8_plantvillage"
  bottom: "label"
  top: "accuracy"
  include {
    phase: TEST
  }
}
I0403 12:40:54.736425 30639 layer_factory.hpp:77] Creating layer data
I0403 12:40:54.737071 30639 net.cpp:91] Creating Layer data
I0403 12:40:54.737102 30639 net.cpp:399] data -> data
I0403 12:40:54.737154 30639 net.cpp:399] data -> label
I0403 12:40:54.737190 30639 data_transformer.cpp:25] Loading mean file from: /home/mohanty/data/final_dataset/lmdb/segmented-40-60/mean.binaryproto
I0403 12:40:54.738343 30641 db_lmdb.cpp:38] Opened lmdb /home/mohanty/data/final_dataset/lmdb/segmented-40-60/test_db
I0403 12:40:54.751771 30639 data_layer.cpp:41] output data size: 100,3,227,227
I0403 12:40:54.871925 30639 net.cpp:141] Setting up data
I0403 12:40:54.872030 30639 net.cpp:148] Top shape: 100 3 227 227 (15458700)
I0403 12:40:54.872052 30639 net.cpp:148] Top shape: 100 (100)
I0403 12:40:54.872067 30639 net.cpp:156] Memory required for data: 61835200
I0403 12:40:54.872095 30639 layer_factory.hpp:77] Creating layer label_data_1_split
I0403 12:40:54.872122 30639 net.cpp:91] Creating Layer label_data_1_split
I0403 12:40:54.872139 30639 net.cpp:425] label_data_1_split <- label
I0403 12:40:54.872169 30639 net.cpp:399] label_data_1_split -> label_data_1_split_0
I0403 12:40:54.872196 30639 net.cpp:399] label_data_1_split -> label_data_1_split_1
I0403 12:40:54.872216 30639 net.cpp:399] label_data_1_split -> label_data_1_split_2
I0403 12:40:54.872283 30639 net.cpp:141] Setting up label_data_1_split
I0403 12:40:54.872308 30639 net.cpp:148] Top shape: 100 (100)
I0403 12:40:54.872323 30639 net.cpp:148] Top shape: 100 (100)
I0403 12:40:54.872339 30639 net.cpp:148] Top shape: 100 (100)
I0403 12:40:54.872354 30639 net.cpp:156] Memory required for data: 61836400
I0403 12:40:54.872369 30639 layer_factory.hpp:77] Creating layer conv1
I0403 12:40:54.872400 30639 net.cpp:91] Creating Layer conv1
I0403 12:40:54.872418 30639 net.cpp:425] conv1 <- data
I0403 12:40:54.872437 30639 net.cpp:399] conv1 -> conv1
I0403 12:40:55.015352 30639 net.cpp:141] Setting up conv1
I0403 12:40:55.015441 30639 net.cpp:148] Top shape: 100 96 55 55 (29040000)
I0403 12:40:55.015460 30639 net.cpp:156] Memory required for data: 177996400
I0403 12:40:55.015491 30639 layer_factory.hpp:77] Creating layer relu1
I0403 12:40:55.015518 30639 net.cpp:91] Creating Layer relu1
I0403 12:40:55.015537 30639 net.cpp:425] relu1 <- conv1
I0403 12:40:55.015558 30639 net.cpp:386] relu1 -> conv1 (in-place)
I0403 12:40:55.015836 30639 net.cpp:141] Setting up relu1
I0403 12:40:55.015864 30639 net.cpp:148] Top shape: 100 96 55 55 (29040000)
I0403 12:40:55.015911 30639 net.cpp:156] Memory required for data: 294156400
I0403 12:40:55.015928 30639 layer_factory.hpp:77] Creating layer norm1
I0403 12:40:55.015957 30639 net.cpp:91] Creating Layer norm1
I0403 12:40:55.015976 30639 net.cpp:425] norm1 <- conv1
I0403 12:40:55.015995 30639 net.cpp:399] norm1 -> norm1
I0403 12:40:55.016358 30639 net.cpp:141] Setting up norm1
I0403 12:40:55.016386 30639 net.cpp:148] Top shape: 100 96 55 55 (29040000)
I0403 12:40:55.016402 30639 net.cpp:156] Memory required for data: 410316400
I0403 12:40:55.016417 30639 layer_factory.hpp:77] Creating layer pool1
I0403 12:40:55.016443 30639 net.cpp:91] Creating Layer pool1
I0403 12:40:55.016461 30639 net.cpp:425] pool1 <- norm1
I0403 12:40:55.016480 30639 net.cpp:399] pool1 -> pool1
I0403 12:40:55.016551 30639 net.cpp:141] Setting up pool1
I0403 12:40:55.016574 30639 net.cpp:148] Top shape: 100 96 27 27 (6998400)
I0403 12:40:55.016589 30639 net.cpp:156] Memory required for data: 438310000
I0403 12:40:55.016604 30639 layer_factory.hpp:77] Creating layer conv2
I0403 12:40:55.016631 30639 net.cpp:91] Creating Layer conv2
I0403 12:40:55.016649 30639 net.cpp:425] conv2 <- pool1
I0403 12:40:55.016670 30639 net.cpp:399] conv2 -> conv2
I0403 12:40:55.031913 30639 net.cpp:141] Setting up conv2
I0403 12:40:55.031967 30639 net.cpp:148] Top shape: 100 256 27 27 (18662400)
I0403 12:40:55.031985 30639 net.cpp:156] Memory required for data: 512959600
I0403 12:40:55.032008 30639 layer_factory.hpp:77] Creating layer relu2
I0403 12:40:55.032032 30639 net.cpp:91] Creating Layer relu2
I0403 12:40:55.032052 30639 net.cpp:425] relu2 <- conv2
I0403 12:40:55.032069 30639 net.cpp:386] relu2 -> conv2 (in-place)
I0403 12:40:55.032439 30639 net.cpp:141] Setting up relu2
I0403 12:40:55.032467 30639 net.cpp:148] Top shape: 100 256 27 27 (18662400)
I0403 12:40:55.032483 30639 net.cpp:156] Memory required for data: 587609200
I0403 12:40:55.032500 30639 layer_factory.hpp:77] Creating layer norm2
I0403 12:40:55.032522 30639 net.cpp:91] Creating Layer norm2
I0403 12:40:55.032541 30639 net.cpp:425] norm2 <- conv2
I0403 12:40:55.032560 30639 net.cpp:399] norm2 -> norm2
I0403 12:40:55.032766 30639 net.cpp:141] Setting up norm2
I0403 12:40:55.032791 30639 net.cpp:148] Top shape: 100 256 27 27 (18662400)
I0403 12:40:55.032807 30639 net.cpp:156] Memory required for data: 662258800
I0403 12:40:55.032822 30639 layer_factory.hpp:77] Creating layer pool2
I0403 12:40:55.032840 30639 net.cpp:91] Creating Layer pool2
I0403 12:40:55.032856 30639 net.cpp:425] pool2 <- norm2
I0403 12:40:55.032876 30639 net.cpp:399] pool2 -> pool2
I0403 12:40:55.032932 30639 net.cpp:141] Setting up pool2
I0403 12:40:55.032955 30639 net.cpp:148] Top shape: 100 256 13 13 (4326400)
I0403 12:40:55.032970 30639 net.cpp:156] Memory required for data: 679564400
I0403 12:40:55.032984 30639 layer_factory.hpp:77] Creating layer conv3
I0403 12:40:55.033009 30639 net.cpp:91] Creating Layer conv3
I0403 12:40:55.033025 30639 net.cpp:425] conv3 <- pool2
I0403 12:40:55.033046 30639 net.cpp:399] conv3 -> conv3
I0403 12:40:55.072284 30639 net.cpp:141] Setting up conv3
I0403 12:40:55.072368 30639 net.cpp:148] Top shape: 100 384 13 13 (6489600)
I0403 12:40:55.072386 30639 net.cpp:156] Memory required for data: 705522800
I0403 12:40:55.072414 30639 layer_factory.hpp:77] Creating layer relu3
I0403 12:40:55.072438 30639 net.cpp:91] Creating Layer relu3
I0403 12:40:55.072456 30639 net.cpp:425] relu3 <- conv3
I0403 12:40:55.072475 30639 net.cpp:386] relu3 -> conv3 (in-place)
I0403 12:40:55.072756 30639 net.cpp:141] Setting up relu3
I0403 12:40:55.072782 30639 net.cpp:148] Top shape: 100 384 13 13 (6489600)
I0403 12:40:55.072798 30639 net.cpp:156] Memory required for data: 731481200
I0403 12:40:55.072813 30639 layer_factory.hpp:77] Creating layer conv4
I0403 12:40:55.072839 30639 net.cpp:91] Creating Layer conv4
I0403 12:40:55.072857 30639 net.cpp:425] conv4 <- conv3
I0403 12:40:55.072878 30639 net.cpp:399] conv4 -> conv4
I0403 12:40:55.103154 30639 net.cpp:141] Setting up conv4
I0403 12:40:55.103193 30639 net.cpp:148] Top shape: 100 384 13 13 (6489600)
I0403 12:40:55.103245 30639 net.cpp:156] Memory required for data: 757439600
I0403 12:40:55.103268 30639 layer_factory.hpp:77] Creating layer relu4
I0403 12:40:55.103293 30639 net.cpp:91] Creating Layer relu4
I0403 12:40:55.103312 30639 net.cpp:425] relu4 <- conv4
I0403 12:40:55.103330 30639 net.cpp:386] relu4 -> conv4 (in-place)
I0403 12:40:55.103623 30639 net.cpp:141] Setting up relu4
I0403 12:40:55.103652 30639 net.cpp:148] Top shape: 100 384 13 13 (6489600)
I0403 12:40:55.103667 30639 net.cpp:156] Memory required for data: 783398000
I0403 12:40:55.103684 30639 layer_factory.hpp:77] Creating layer conv5
I0403 12:40:55.103715 30639 net.cpp:91] Creating Layer conv5
I0403 12:40:55.103736 30639 net.cpp:425] conv5 <- conv4
I0403 12:40:55.103760 30639 net.cpp:399] conv5 -> conv5
I0403 12:40:55.124235 30639 net.cpp:141] Setting up conv5
I0403 12:40:55.124297 30639 net.cpp:148] Top shape: 100 256 13 13 (4326400)
I0403 12:40:55.124315 30639 net.cpp:156] Memory required for data: 800703600
I0403 12:40:55.124339 30639 layer_factory.hpp:77] Creating layer relu5
I0403 12:40:55.124362 30639 net.cpp:91] Creating Layer relu5
I0403 12:40:55.124380 30639 net.cpp:425] relu5 <- conv5
I0403 12:40:55.124399 30639 net.cpp:386] relu5 -> conv5 (in-place)
I0403 12:40:55.124680 30639 net.cpp:141] Setting up relu5
I0403 12:40:55.124706 30639 net.cpp:148] Top shape: 100 256 13 13 (4326400)
I0403 12:40:55.124722 30639 net.cpp:156] Memory required for data: 818009200
I0403 12:40:55.124735 30639 layer_factory.hpp:77] Creating layer pool5
I0403 12:40:55.124759 30639 net.cpp:91] Creating Layer pool5
I0403 12:40:55.124775 30639 net.cpp:425] pool5 <- conv5
I0403 12:40:55.124794 30639 net.cpp:399] pool5 -> pool5
I0403 12:40:55.124869 30639 net.cpp:141] Setting up pool5
I0403 12:40:55.124893 30639 net.cpp:148] Top shape: 100 256 6 6 (921600)
I0403 12:40:55.124908 30639 net.cpp:156] Memory required for data: 821695600
I0403 12:40:55.124923 30639 layer_factory.hpp:77] Creating layer fc6
I0403 12:40:55.124953 30639 net.cpp:91] Creating Layer fc6
I0403 12:40:55.124970 30639 net.cpp:425] fc6 <- pool5
I0403 12:40:55.124989 30639 net.cpp:399] fc6 -> fc6
I0403 12:40:56.673111 30639 net.cpp:141] Setting up fc6
I0403 12:40:56.673202 30639 net.cpp:148] Top shape: 100 4096 (409600)
I0403 12:40:56.673218 30639 net.cpp:156] Memory required for data: 823334000
I0403 12:40:56.673244 30639 layer_factory.hpp:77] Creating layer relu6
I0403 12:40:56.673267 30639 net.cpp:91] Creating Layer relu6
I0403 12:40:56.673285 30639 net.cpp:425] relu6 <- fc6
I0403 12:40:56.673307 30639 net.cpp:386] relu6 -> fc6 (in-place)
I0403 12:40:56.673539 30639 net.cpp:141] Setting up relu6
I0403 12:40:56.673564 30639 net.cpp:148] Top shape: 100 4096 (409600)
I0403 12:40:56.673578 30639 net.cpp:156] Memory required for data: 824972400
I0403 12:40:56.673593 30639 layer_factory.hpp:77] Creating layer drop6
I0403 12:40:56.673611 30639 net.cpp:91] Creating Layer drop6
I0403 12:40:56.673627 30639 net.cpp:425] drop6 <- fc6
I0403 12:40:56.673646 30639 net.cpp:386] drop6 -> fc6 (in-place)
I0403 12:40:56.673699 30639 net.cpp:141] Setting up drop6
I0403 12:40:56.673722 30639 net.cpp:148] Top shape: 100 4096 (409600)
I0403 12:40:56.673737 30639 net.cpp:156] Memory required for data: 826610800
I0403 12:40:56.673750 30639 layer_factory.hpp:77] Creating layer fc7
I0403 12:40:56.673770 30639 net.cpp:91] Creating Layer fc7
I0403 12:40:56.673785 30639 net.cpp:425] fc7 <- fc6
I0403 12:40:56.673809 30639 net.cpp:399] fc7 -> fc7
I0403 12:40:57.374853 30639 net.cpp:141] Setting up fc7
I0403 12:40:57.374943 30639 net.cpp:148] Top shape: 100 4096 (409600)
I0403 12:40:57.374959 30639 net.cpp:156] Memory required for data: 828249200
I0403 12:40:57.374981 30639 layer_factory.hpp:77] Creating layer relu7
I0403 12:40:57.375006 30639 net.cpp:91] Creating Layer relu7
I0403 12:40:57.375025 30639 net.cpp:425] relu7 <- fc7
I0403 12:40:57.375044 30639 net.cpp:386] relu7 -> fc7 (in-place)
I0403 12:40:57.375479 30639 net.cpp:141] Setting up relu7
I0403 12:40:57.375507 30639 net.cpp:148] Top shape: 100 4096 (409600)
I0403 12:40:57.375557 30639 net.cpp:156] Memory required for data: 829887600
I0403 12:40:57.375573 30639 layer_factory.hpp:77] Creating layer drop7
I0403 12:40:57.375596 30639 net.cpp:91] Creating Layer drop7
I0403 12:40:57.375612 30639 net.cpp:425] drop7 <- fc7
I0403 12:40:57.375629 30639 net.cpp:386] drop7 -> fc7 (in-place)
I0403 12:40:57.375674 30639 net.cpp:141] Setting up drop7
I0403 12:40:57.375699 30639 net.cpp:148] Top shape: 100 4096 (409600)
I0403 12:40:57.375715 30639 net.cpp:156] Memory required for data: 831526000
I0403 12:40:57.375728 30639 layer_factory.hpp:77] Creating layer fc8_plantvillage
I0403 12:40:57.375749 30639 net.cpp:91] Creating Layer fc8_plantvillage
I0403 12:40:57.375766 30639 net.cpp:425] fc8_plantvillage <- fc7
I0403 12:40:57.375785 30639 net.cpp:399] fc8_plantvillage -> fc8_plantvillage
I0403 12:40:57.382750 30639 net.cpp:141] Setting up fc8_plantvillage
I0403 12:40:57.382783 30639 net.cpp:148] Top shape: 100 38 (3800)
I0403 12:40:57.382798 30639 net.cpp:156] Memory required for data: 831541200
I0403 12:40:57.382817 30639 layer_factory.hpp:77] Creating layer fc8_plantvillage_fc8_plantvillage_0_split
I0403 12:40:57.382840 30639 net.cpp:91] Creating Layer fc8_plantvillage_fc8_plantvillage_0_split
I0403 12:40:57.382858 30639 net.cpp:425] fc8_plantvillage_fc8_plantvillage_0_split <- fc8_plantvillage
I0403 12:40:57.382876 30639 net.cpp:399] fc8_plantvillage_fc8_plantvillage_0_split -> fc8_plantvillage_fc8_plantvillage_0_split_0
I0403 12:40:57.382896 30639 net.cpp:399] fc8_plantvillage_fc8_plantvillage_0_split -> fc8_plantvillage_fc8_plantvillage_0_split_1
I0403 12:40:57.382916 30639 net.cpp:399] fc8_plantvillage_fc8_plantvillage_0_split -> fc8_plantvillage_fc8_plantvillage_0_split_2
I0403 12:40:57.382998 30639 net.cpp:141] Setting up fc8_plantvillage_fc8_plantvillage_0_split
I0403 12:40:57.383021 30639 net.cpp:148] Top shape: 100 38 (3800)
I0403 12:40:57.383038 30639 net.cpp:148] Top shape: 100 38 (3800)
I0403 12:40:57.383054 30639 net.cpp:148] Top shape: 100 38 (3800)
I0403 12:40:57.383067 30639 net.cpp:156] Memory required for data: 831586800
I0403 12:40:57.383082 30639 layer_factory.hpp:77] Creating layer prob
I0403 12:40:57.383101 30639 net.cpp:91] Creating Layer prob
I0403 12:40:57.383117 30639 net.cpp:425] prob <- fc8_plantvillage_fc8_plantvillage_0_split_0
I0403 12:40:57.383137 30639 net.cpp:399] prob -> prob
I0403 12:40:57.383378 30639 net.cpp:141] Setting up prob
I0403 12:40:57.383404 30639 net.cpp:148] Top shape: 100 38 (3800)
I0403 12:40:57.383419 30639 net.cpp:156] Memory required for data: 831602000
I0403 12:40:57.383432 30639 layer_factory.hpp:77] Creating layer hdf5out
I0403 12:40:57.383455 30639 net.cpp:91] Creating Layer hdf5out
I0403 12:40:57.383472 30639 net.cpp:425] hdf5out <- prob
I0403 12:40:57.383489 30639 net.cpp:425] hdf5out <- label_data_1_split_0
I0403 12:40:57.385812 30639 net.cpp:141] Setting up hdf5out
…
