…
I0403 12:54:42.437950 30987 net.cpp:313] The NetState phase (1) differed from the phase (0) specified by a rule in layer data
I0403 12:54:42.438254 30987 net.cpp:49] Initializing net from parameters: 
state {
  phase: TEST
}
layer {
  name: "data"
  type: "Data"
  top: "data"
  top: "label"
  include {
    phase: TEST
  }
  transform_param {
    crop_size: 227
    mean_file: "/home/mohanty/data/final_dataset/lmdb/segmented-40-60/mean.binaryproto"
  }
  data_param {
    source: "/home/mohanty/data/final_dataset/lmdb/segmented-40-60/test_db"
    batch_size: 100
    backend: LMDB
  }
}
layer {
  name: "conv1"
  type: "Convolution"
  bottom: "data"
  top: "conv1"
  param {
    lr_mult: 1
    decay_mult: 1
  }
  param {
    lr_mult: 2
    decay_mult: 0
  }
  convolution_param {
    num_output: 96
    kernel_size: 11
    stride: 4
    weight_filler {
      type: "gaussian"
      std: 0.01
    }
    bias_filler {
      type: "constant"
      value: 0
    }
  }
}
layer {
  name: "relu1"
  type: "ReLU"
  bottom: "conv1"
  top: "conv1"
}
layer {
  name: "norm1"
  type: "LRN"
  bottom: "conv1"
  top: "norm1"
  lrn_param {
    local_size: 5
    alpha: 0.0001
    beta: 0.75
  }
}
layer {
  name: "pool1"
  type: "Pooling"
  bottom: "norm1"
  top: "pool1"
  pooling_param {
    pool: MAX
    kernel_size: 3
    stride: 2
  }
}
layer {
  name: "conv2"
  type: "Convolution"
  bottom: "pool1"
  top: "conv2"
  param {
    lr_mult: 1
    decay_mult: 1
  }
  param {
    lr_mult: 2
    decay_mult: 0
  }
  convolution_param {
    num_output: 256
    pad: 2
    kernel_size: 5
    group: 2
    weight_filler {
      type: "gaussian"
      std: 0.01
    }
    bias_filler {
      type: "constant"
      value: 0.1
    }
  }
}
layer {
  name: "relu2"
  type: "ReLU"
  bottom: "conv2"
  top: "conv2"
}
layer {
  name: "norm2"
  type: "LRN"
  bottom: "conv2"
  top: "norm2"
  lrn_param {
    local_size: 5
    alpha: 0.0001
    beta: 0.75
  }
}
layer {
  name: "pool2"
  type: "Pooling"
  bottom: "norm2"
  top: "pool2"
  pooling_param {
    pool: MAX
    kernel_size: 3
    stride: 2
  }
}
layer {
  name: "conv3"
  type: "Convolution"
  bottom: "pool2"
  top: "conv3"
  param {
    lr_mult: 1
    decay_mult: 1
  }
  param {
    lr_mult: 2
    decay_mult: 0
  }
  convolution_param {
    num_output: 384
    pad: 1
    kernel_size: 3
    weight_filler {
      type: "gaussian"
      std: 0.01
    }
    bias_filler {
      type: "constant"
      value: 0
    }
  }
}
layer {
  name: "relu3"
  type: "ReLU"
  bottom: "conv3"
  top: "conv3"
}
layer {
  name: "conv4"
  type: "Convolution"
  bottom: "conv3"
  top: "conv4"
  param {
    lr_mult: 1
    decay_mult: 1
  }
  param {
    lr_mult: 2
    decay_mult: 0
  }
  convolution_param {
    num_output: 384
    pad: 1
    kernel_size: 3
    group: 2
    weight_filler {
      type: "gaussian"
      std: 0.01
    }
    bias_filler {
      type: "constant"
      value: 0.1
    }
  }
}
layer {
  name: "relu4"
  type: "ReLU"
  bottom: "conv4"
  top: "conv4"
}
layer {
  name: "conv5"
  type: "Convolution"
  bottom: "conv4"
  top: "conv5"
  param {
    lr_mult: 1
    decay_mult: 1
  }
  param {
    lr_mult: 2
    decay_mult: 0
  }
  convolution_param {
    num_output: 256
    pad: 1
    kernel_size: 3
    group: 2
    weight_filler {
      type: "gaussian"
      std: 0.01
    }
    bias_filler {
      type: "constant"
      value: 0.1
    }
  }
}
layer {
  name: "relu5"
  type: "ReLU"
  bottom: "conv5"
  top: "conv5"
}
layer {
  name: "pool5"
  type: "Pooling"
  bottom: "conv5"
  top: "pool5"
  pooling_param {
    pool: MAX
    kernel_size: 3
    stride: 2
  }
}
layer {
  name: "fc6"
  type: "InnerProduct"
  bottom: "pool5"
  top: "fc6"
  param {
    lr_mult: 1
    decay_mult: 1
  }
  param {
    lr_mult: 2
    decay_mult: 0
  }
  inner_product_param {
    num_output: 4096
    weight_filler {
      type: "gaussian"
      std: 0.005
    }
    bias_filler {
      type: "constant"
      value: 0.1
    }
  }
}
layer {
  name: "relu6"
  type: "ReLU"
  bottom: "fc6"
  top: "fc6"
}
layer {
  name: "drop6"
  type: "Dropout"
  bottom: "fc6"
  top: "fc6"
  dropout_param {
    dropout_ratio: 0.5
  }
}
layer {
  name: "fc7"
  type: "InnerProduct"
  bottom: "fc6"
  top: "fc7"
  param {
    lr_mult: 1
    decay_mult: 1
  }
  param {
    lr_mult: 2
    decay_mult: 0
  }
  inner_product_param {
    num_output: 4096
    weight_filler {
      type: "gaussian"
      std: 0.005
    }
    bias_filler {
      type: "constant"
      value: 0.1
    }
  }
}
layer {
  name: "relu7"
  type: "ReLU"
  bottom: "fc7"
  top: "fc7"
}
layer {
  name: "drop7"
  type: "Dropout"
  bottom: "fc7"
  top: "fc7"
  dropout_param {
    dropout_ratio: 0.5
  }
}
layer {
  name: "fc8_plantvillage"
  type: "InnerProduct"
  bottom: "fc7"
  top: "fc8_plantvillage"
  param {
    lr_mult: 1
    decay_mult: 1
  }
  param {
    lr_mult: 2
    decay_mult: 0
  }
  inner_product_param {
    num_output: 38
    weight_filler {
      type: "gaussian"
      std: 0.01
    }
    bias_filler {
      type: "constant"
      value: 0
    }
  }
}
layer {
  name: "prob"
  type: "Softmax"
  bottom: "fc8_plantvillage"
  top: "prob"
  include {
    phase: TEST
  }
}
layer {
  name: "hdf5out"
  type: "HDF5Output"
  bottom: "prob"
  bottom: "label"
  include {
    phase: TEST
  }
  hdf5_output_param {
    file_name: "hdf5_dumps/iter_4818.h5"
  }
}
layer {
  name: "loss"
  type: "SoftmaxWithLoss"
  bottom: "fc8_plantvillage"
  bottom: "label"
  top: "loss"
}
layer {
  name: "accuracy"
  type: "Accuracy"
  bottom: "fc8_plantvillage"
  bottom: "label"
  top: "accuracy"
  include {
    phase: TEST
  }
}
I0403 12:54:42.438797 30987 layer_factory.hpp:77] Creating layer data
I0403 12:54:42.439420 30987 net.cpp:91] Creating Layer data
I0403 12:54:42.439453 30987 net.cpp:399] data -> data
I0403 12:54:42.439504 30987 net.cpp:399] data -> label
I0403 12:54:42.439540 30987 data_transformer.cpp:25] Loading mean file from: /home/mohanty/data/final_dataset/lmdb/segmented-40-60/mean.binaryproto
I0403 12:54:42.443706 30990 db_lmdb.cpp:38] Opened lmdb /home/mohanty/data/final_dataset/lmdb/segmented-40-60/test_db
I0403 12:54:42.453569 30987 data_layer.cpp:41] output data size: 100,3,227,227
I0403 12:54:42.576115 30987 net.cpp:141] Setting up data
I0403 12:54:42.576227 30987 net.cpp:148] Top shape: 100 3 227 227 (15458700)
I0403 12:54:42.576254 30987 net.cpp:148] Top shape: 100 (100)
I0403 12:54:42.576270 30987 net.cpp:156] Memory required for data: 61835200
I0403 12:54:42.576299 30987 layer_factory.hpp:77] Creating layer label_data_1_split
I0403 12:54:42.576325 30987 net.cpp:91] Creating Layer label_data_1_split
I0403 12:54:42.576344 30987 net.cpp:425] label_data_1_split <- label
I0403 12:54:42.576375 30987 net.cpp:399] label_data_1_split -> label_data_1_split_0
I0403 12:54:42.576402 30987 net.cpp:399] label_data_1_split -> label_data_1_split_1
I0403 12:54:42.576423 30987 net.cpp:399] label_data_1_split -> label_data_1_split_2
I0403 12:54:42.576486 30987 net.cpp:141] Setting up label_data_1_split
I0403 12:54:42.576511 30987 net.cpp:148] Top shape: 100 (100)
I0403 12:54:42.576529 30987 net.cpp:148] Top shape: 100 (100)
I0403 12:54:42.576545 30987 net.cpp:148] Top shape: 100 (100)
I0403 12:54:42.576560 30987 net.cpp:156] Memory required for data: 61836400
I0403 12:54:42.576575 30987 layer_factory.hpp:77] Creating layer conv1
I0403 12:54:42.576608 30987 net.cpp:91] Creating Layer conv1
I0403 12:54:42.576627 30987 net.cpp:425] conv1 <- data
I0403 12:54:42.576647 30987 net.cpp:399] conv1 -> conv1
I0403 12:54:42.719681 30987 net.cpp:141] Setting up conv1
I0403 12:54:42.719771 30987 net.cpp:148] Top shape: 100 96 55 55 (29040000)
I0403 12:54:42.719789 30987 net.cpp:156] Memory required for data: 177996400
I0403 12:54:42.719820 30987 layer_factory.hpp:77] Creating layer relu1
I0403 12:54:42.719847 30987 net.cpp:91] Creating Layer relu1
I0403 12:54:42.719866 30987 net.cpp:425] relu1 <- conv1
I0403 12:54:42.719884 30987 net.cpp:386] relu1 -> conv1 (in-place)
I0403 12:54:42.720140 30987 net.cpp:141] Setting up relu1
I0403 12:54:42.720191 30987 net.cpp:148] Top shape: 100 96 55 55 (29040000)
I0403 12:54:42.720238 30987 net.cpp:156] Memory required for data: 294156400
I0403 12:54:42.720260 30987 layer_factory.hpp:77] Creating layer norm1
I0403 12:54:42.720288 30987 net.cpp:91] Creating Layer norm1
I0403 12:54:42.720306 30987 net.cpp:425] norm1 <- conv1
I0403 12:54:42.720324 30987 net.cpp:399] norm1 -> norm1
I0403 12:54:42.720631 30987 net.cpp:141] Setting up norm1
I0403 12:54:42.720659 30987 net.cpp:148] Top shape: 100 96 55 55 (29040000)
I0403 12:54:42.720675 30987 net.cpp:156] Memory required for data: 410316400
I0403 12:54:42.720691 30987 layer_factory.hpp:77] Creating layer pool1
I0403 12:54:42.720715 30987 net.cpp:91] Creating Layer pool1
I0403 12:54:42.720731 30987 net.cpp:425] pool1 <- norm1
I0403 12:54:42.720749 30987 net.cpp:399] pool1 -> pool1
I0403 12:54:42.720816 30987 net.cpp:141] Setting up pool1
I0403 12:54:42.720840 30987 net.cpp:148] Top shape: 100 96 27 27 (6998400)
I0403 12:54:42.720855 30987 net.cpp:156] Memory required for data: 438310000
I0403 12:54:42.720871 30987 layer_factory.hpp:77] Creating layer conv2
I0403 12:54:42.720896 30987 net.cpp:91] Creating Layer conv2
I0403 12:54:42.720912 30987 net.cpp:425] conv2 <- pool1
I0403 12:54:42.720930 30987 net.cpp:399] conv2 -> conv2
I0403 12:54:42.736591 30987 net.cpp:141] Setting up conv2
I0403 12:54:42.736683 30987 net.cpp:148] Top shape: 100 256 27 27 (18662400)
I0403 12:54:42.736702 30987 net.cpp:156] Memory required for data: 512959600
I0403 12:54:42.736726 30987 layer_factory.hpp:77] Creating layer relu2
I0403 12:54:42.736747 30987 net.cpp:91] Creating Layer relu2
I0403 12:54:42.736763 30987 net.cpp:425] relu2 <- conv2
I0403 12:54:42.736783 30987 net.cpp:386] relu2 -> conv2 (in-place)
I0403 12:54:42.737066 30987 net.cpp:141] Setting up relu2
I0403 12:54:42.737092 30987 net.cpp:148] Top shape: 100 256 27 27 (18662400)
I0403 12:54:42.737108 30987 net.cpp:156] Memory required for data: 587609200
I0403 12:54:42.737123 30987 layer_factory.hpp:77] Creating layer norm2
I0403 12:54:42.737149 30987 net.cpp:91] Creating Layer norm2
I0403 12:54:42.737166 30987 net.cpp:425] norm2 <- conv2
I0403 12:54:42.737188 30987 net.cpp:399] norm2 -> norm2
I0403 12:54:42.737396 30987 net.cpp:141] Setting up norm2
I0403 12:54:42.737422 30987 net.cpp:148] Top shape: 100 256 27 27 (18662400)
I0403 12:54:42.737438 30987 net.cpp:156] Memory required for data: 662258800
I0403 12:54:42.737453 30987 layer_factory.hpp:77] Creating layer pool2
I0403 12:54:42.737471 30987 net.cpp:91] Creating Layer pool2
I0403 12:54:42.737486 30987 net.cpp:425] pool2 <- norm2
I0403 12:54:42.737505 30987 net.cpp:399] pool2 -> pool2
I0403 12:54:42.737560 30987 net.cpp:141] Setting up pool2
I0403 12:54:42.737583 30987 net.cpp:148] Top shape: 100 256 13 13 (4326400)
I0403 12:54:42.737598 30987 net.cpp:156] Memory required for data: 679564400
I0403 12:54:42.737613 30987 layer_factory.hpp:77] Creating layer conv3
I0403 12:54:42.737638 30987 net.cpp:91] Creating Layer conv3
I0403 12:54:42.737655 30987 net.cpp:425] conv3 <- pool2
I0403 12:54:42.737674 30987 net.cpp:399] conv3 -> conv3
I0403 12:54:42.777488 30987 net.cpp:141] Setting up conv3
I0403 12:54:42.777534 30987 net.cpp:148] Top shape: 100 384 13 13 (6489600)
I0403 12:54:42.777550 30987 net.cpp:156] Memory required for data: 705522800
I0403 12:54:42.777576 30987 layer_factory.hpp:77] Creating layer relu3
I0403 12:54:42.777602 30987 net.cpp:91] Creating Layer relu3
I0403 12:54:42.777621 30987 net.cpp:425] relu3 <- conv3
I0403 12:54:42.777639 30987 net.cpp:386] relu3 -> conv3 (in-place)
I0403 12:54:42.777925 30987 net.cpp:141] Setting up relu3
I0403 12:54:42.777951 30987 net.cpp:148] Top shape: 100 384 13 13 (6489600)
I0403 12:54:42.777967 30987 net.cpp:156] Memory required for data: 731481200
I0403 12:54:42.777983 30987 layer_factory.hpp:77] Creating layer conv4
I0403 12:54:42.778008 30987 net.cpp:91] Creating Layer conv4
I0403 12:54:42.778025 30987 net.cpp:425] conv4 <- conv3
I0403 12:54:42.778046 30987 net.cpp:399] conv4 -> conv4
I0403 12:54:42.808898 30987 net.cpp:141] Setting up conv4
I0403 12:54:42.808979 30987 net.cpp:148] Top shape: 100 384 13 13 (6489600)
I0403 12:54:42.809026 30987 net.cpp:156] Memory required for data: 757439600
I0403 12:54:42.809048 30987 layer_factory.hpp:77] Creating layer relu4
I0403 12:54:42.809069 30987 net.cpp:91] Creating Layer relu4
I0403 12:54:42.809087 30987 net.cpp:425] relu4 <- conv4
I0403 12:54:42.809106 30987 net.cpp:386] relu4 -> conv4 (in-place)
I0403 12:54:42.809406 30987 net.cpp:141] Setting up relu4
I0403 12:54:42.809437 30987 net.cpp:148] Top shape: 100 384 13 13 (6489600)
I0403 12:54:42.809453 30987 net.cpp:156] Memory required for data: 783398000
I0403 12:54:42.809468 30987 layer_factory.hpp:77] Creating layer conv5
I0403 12:54:42.809494 30987 net.cpp:91] Creating Layer conv5
I0403 12:54:42.809512 30987 net.cpp:425] conv5 <- conv4
I0403 12:54:42.809533 30987 net.cpp:399] conv5 -> conv5
I0403 12:54:42.830821 30987 net.cpp:141] Setting up conv5
I0403 12:54:42.830884 30987 net.cpp:148] Top shape: 100 256 13 13 (4326400)
I0403 12:54:42.830900 30987 net.cpp:156] Memory required for data: 800703600
I0403 12:54:42.830925 30987 layer_factory.hpp:77] Creating layer relu5
I0403 12:54:42.830946 30987 net.cpp:91] Creating Layer relu5
I0403 12:54:42.830961 30987 net.cpp:425] relu5 <- conv5
I0403 12:54:42.830981 30987 net.cpp:386] relu5 -> conv5 (in-place)
I0403 12:54:42.831293 30987 net.cpp:141] Setting up relu5
I0403 12:54:42.831321 30987 net.cpp:148] Top shape: 100 256 13 13 (4326400)
I0403 12:54:42.831334 30987 net.cpp:156] Memory required for data: 818009200
I0403 12:54:42.831349 30987 layer_factory.hpp:77] Creating layer pool5
I0403 12:54:42.831373 30987 net.cpp:91] Creating Layer pool5
I0403 12:54:42.831389 30987 net.cpp:425] pool5 <- conv5
I0403 12:54:42.831408 30987 net.cpp:399] pool5 -> pool5
I0403 12:54:42.831468 30987 net.cpp:141] Setting up pool5
I0403 12:54:42.831492 30987 net.cpp:148] Top shape: 100 256 6 6 (921600)
I0403 12:54:42.831507 30987 net.cpp:156] Memory required for data: 821695600
I0403 12:54:42.831522 30987 layer_factory.hpp:77] Creating layer fc6
I0403 12:54:42.831550 30987 net.cpp:91] Creating Layer fc6
I0403 12:54:42.831568 30987 net.cpp:425] fc6 <- pool5
I0403 12:54:42.831586 30987 net.cpp:399] fc6 -> fc6
I0403 12:54:44.406551 30987 net.cpp:141] Setting up fc6
I0403 12:54:44.406594 30987 net.cpp:148] Top shape: 100 4096 (409600)
I0403 12:54:44.406610 30987 net.cpp:156] Memory required for data: 823334000
I0403 12:54:44.406630 30987 layer_factory.hpp:77] Creating layer relu6
I0403 12:54:44.406652 30987 net.cpp:91] Creating Layer relu6
I0403 12:54:44.406669 30987 net.cpp:425] relu6 <- fc6
I0403 12:54:44.406690 30987 net.cpp:386] relu6 -> fc6 (in-place)
I0403 12:54:44.406914 30987 net.cpp:141] Setting up relu6
I0403 12:54:44.406939 30987 net.cpp:148] Top shape: 100 4096 (409600)
I0403 12:54:44.406952 30987 net.cpp:156] Memory required for data: 824972400
I0403 12:54:44.406966 30987 layer_factory.hpp:77] Creating layer drop6
I0403 12:54:44.406983 30987 net.cpp:91] Creating Layer drop6
I0403 12:54:44.406998 30987 net.cpp:425] drop6 <- fc6
I0403 12:54:44.407016 30987 net.cpp:386] drop6 -> fc6 (in-place)
I0403 12:54:44.407065 30987 net.cpp:141] Setting up drop6
I0403 12:54:44.407090 30987 net.cpp:148] Top shape: 100 4096 (409600)
I0403 12:54:44.407105 30987 net.cpp:156] Memory required for data: 826610800
I0403 12:54:44.407120 30987 layer_factory.hpp:77] Creating layer fc7
I0403 12:54:44.407140 30987 net.cpp:91] Creating Layer fc7
I0403 12:54:44.407155 30987 net.cpp:425] fc7 <- fc6
I0403 12:54:44.407173 30987 net.cpp:399] fc7 -> fc7
I0403 12:54:45.097165 30987 net.cpp:141] Setting up fc7
I0403 12:54:45.097259 30987 net.cpp:148] Top shape: 100 4096 (409600)
I0403 12:54:45.097277 30987 net.cpp:156] Memory required for data: 828249200
I0403 12:54:45.097300 30987 layer_factory.hpp:77] Creating layer relu7
I0403 12:54:45.097321 30987 net.cpp:91] Creating Layer relu7
I0403 12:54:45.097337 30987 net.cpp:425] relu7 <- fc7
I0403 12:54:45.097358 30987 net.cpp:386] relu7 -> fc7 (in-place)
I0403 12:54:45.097782 30987 net.cpp:141] Setting up relu7
I0403 12:54:45.097810 30987 net.cpp:148] Top shape: 100 4096 (409600)
I0403 12:54:45.097856 30987 net.cpp:156] Memory required for data: 829887600
I0403 12:54:45.097872 30987 layer_factory.hpp:77] Creating layer drop7
I0403 12:54:45.097890 30987 net.cpp:91] Creating Layer drop7
I0403 12:54:45.097906 30987 net.cpp:425] drop7 <- fc7
I0403 12:54:45.097925 30987 net.cpp:386] drop7 -> fc7 (in-place)
I0403 12:54:45.097967 30987 net.cpp:141] Setting up drop7
I0403 12:54:45.097991 30987 net.cpp:148] Top shape: 100 4096 (409600)
I0403 12:54:45.098006 30987 net.cpp:156] Memory required for data: 831526000
I0403 12:54:45.098021 30987 layer_factory.hpp:77] Creating layer fc8_plantvillage
I0403 12:54:45.098042 30987 net.cpp:91] Creating Layer fc8_plantvillage
I0403 12:54:45.098057 30987 net.cpp:425] fc8_plantvillage <- fc7
I0403 12:54:45.098075 30987 net.cpp:399] fc8_plantvillage -> fc8_plantvillage
I0403 12:54:45.104790 30987 net.cpp:141] Setting up fc8_plantvillage
I0403 12:54:45.104818 30987 net.cpp:148] Top shape: 100 38 (3800)
I0403 12:54:45.104833 30987 net.cpp:156] Memory required for data: 831541200
I0403 12:54:45.104851 30987 layer_factory.hpp:77] Creating layer fc8_plantvillage_fc8_plantvillage_0_split
I0403 12:54:45.104871 30987 net.cpp:91] Creating Layer fc8_plantvillage_fc8_plantvillage_0_split
I0403 12:54:45.104885 30987 net.cpp:425] fc8_plantvillage_fc8_plantvillage_0_split <- fc8_plantvillage
I0403 12:54:45.104907 30987 net.cpp:399] fc8_plantvillage_fc8_plantvillage_0_split -> fc8_plantvillage_fc8_plantvillage_0_split_0
I0403 12:54:45.104928 30987 net.cpp:399] fc8_plantvillage_fc8_plantvillage_0_split -> fc8_plantvillage_fc8_plantvillage_0_split_1
I0403 12:54:45.104948 30987 net.cpp:399] fc8_plantvillage_fc8_plantvillage_0_split -> fc8_plantvillage_fc8_plantvillage_0_split_2
I0403 12:54:45.105025 30987 net.cpp:141] Setting up fc8_plantvillage_fc8_plantvillage_0_split
I0403 12:54:45.105048 30987 net.cpp:148] Top shape: 100 38 (3800)
I0403 12:54:45.105064 30987 net.cpp:148] Top shape: 100 38 (3800)
I0403 12:54:45.105080 30987 net.cpp:148] Top shape: 100 38 (3800)
I0403 12:54:45.105094 30987 net.cpp:156] Memory required for data: 831586800
I0403 12:54:45.105108 30987 layer_factory.hpp:77] Creating layer prob
I0403 12:54:45.105128 30987 net.cpp:91] Creating Layer prob
I0403 12:54:45.105142 30987 net.cpp:425] prob <- fc8_plantvillage_fc8_plantvillage_0_split_0
I0403 12:54:45.105162 30987 net.cpp:399] prob -> prob
I0403 12:54:45.105394 30987 net.cpp:141] Setting up prob
I0403 12:54:45.105420 30987 net.cpp:148] Top shape: 100 38 (3800)
I0403 12:54:45.105434 30987 net.cpp:156] Memory required for data: 831602000
I0403 12:54:45.105449 30987 layer_factory.hpp:77] Creating layer hdf5out
I0403 12:54:45.105468 30987 net.cpp:91] Creating Layer hdf5out
I0403 12:54:45.105482 30987 net.cpp:425] hdf5out <- prob
I0403 12:54:45.105499 30987 net.cpp:425] hdf5out <- label_data_1_split_0
I0403 12:54:45.107954 30987 net.cpp:141] Setting up hdf5out
…
