…
I0403 12:43:53.010787 30710 net.cpp:313] The NetState phase (1) differed from the phase (0) specified by a rule in layer data
I0403 12:43:53.011104 30710 net.cpp:49] Initializing net from parameters: 
state {
  phase: TEST
}
layer {
  name: "data"
  type: "Data"
  top: "data"
  top: "label"
  include {
    phase: TEST
  }
  transform_param {
    crop_size: 227
    mean_file: "/home/mohanty/data/final_dataset/lmdb/segmented-40-60/mean.binaryproto"
  }
  data_param {
    source: "/home/mohanty/data/final_dataset/lmdb/segmented-40-60/test_db"
    batch_size: 100
    backend: LMDB
  }
}
layer {
  name: "conv1"
  type: "Convolution"
  bottom: "data"
  top: "conv1"
  param {
    lr_mult: 1
    decay_mult: 1
  }
  param {
    lr_mult: 2
    decay_mult: 0
  }
  convolution_param {
    num_output: 96
    kernel_size: 11
    stride: 4
    weight_filler {
      type: "gaussian"
      std: 0.01
    }
    bias_filler {
      type: "constant"
      value: 0
    }
  }
}
layer {
  name: "relu1"
  type: "ReLU"
  bottom: "conv1"
  top: "conv1"
}
layer {
  name: "norm1"
  type: "LRN"
  bottom: "conv1"
  top: "norm1"
  lrn_param {
    local_size: 5
    alpha: 0.0001
    beta: 0.75
  }
}
layer {
  name: "pool1"
  type: "Pooling"
  bottom: "norm1"
  top: "pool1"
  pooling_param {
    pool: MAX
    kernel_size: 3
    stride: 2
  }
}
layer {
  name: "conv2"
  type: "Convolution"
  bottom: "pool1"
  top: "conv2"
  param {
    lr_mult: 1
    decay_mult: 1
  }
  param {
    lr_mult: 2
    decay_mult: 0
  }
  convolution_param {
    num_output: 256
    pad: 2
    kernel_size: 5
    group: 2
    weight_filler {
      type: "gaussian"
      std: 0.01
    }
    bias_filler {
      type: "constant"
      value: 0.1
    }
  }
}
layer {
  name: "relu2"
  type: "ReLU"
  bottom: "conv2"
  top: "conv2"
}
layer {
  name: "norm2"
  type: "LRN"
  bottom: "conv2"
  top: "norm2"
  lrn_param {
    local_size: 5
    alpha: 0.0001
    beta: 0.75
  }
}
layer {
  name: "pool2"
  type: "Pooling"
  bottom: "norm2"
  top: "pool2"
  pooling_param {
    pool: MAX
    kernel_size: 3
    stride: 2
  }
}
layer {
  name: "conv3"
  type: "Convolution"
  bottom: "pool2"
  top: "conv3"
  param {
    lr_mult: 1
    decay_mult: 1
  }
  param {
    lr_mult: 2
    decay_mult: 0
  }
  convolution_param {
    num_output: 384
    pad: 1
    kernel_size: 3
    weight_filler {
      type: "gaussian"
      std: 0.01
    }
    bias_filler {
      type: "constant"
      value: 0
    }
  }
}
layer {
  name: "relu3"
  type: "ReLU"
  bottom: "conv3"
  top: "conv3"
}
layer {
  name: "conv4"
  type: "Convolution"
  bottom: "conv3"
  top: "conv4"
  param {
    lr_mult: 1
    decay_mult: 1
  }
  param {
    lr_mult: 2
    decay_mult: 0
  }
  convolution_param {
    num_output: 384
    pad: 1
    kernel_size: 3
    group: 2
    weight_filler {
      type: "gaussian"
      std: 0.01
    }
    bias_filler {
      type: "constant"
      value: 0.1
    }
  }
}
layer {
  name: "relu4"
  type: "ReLU"
  bottom: "conv4"
  top: "conv4"
}
layer {
  name: "conv5"
  type: "Convolution"
  bottom: "conv4"
  top: "conv5"
  param {
    lr_mult: 1
    decay_mult: 1
  }
  param {
    lr_mult: 2
    decay_mult: 0
  }
  convolution_param {
    num_output: 256
    pad: 1
    kernel_size: 3
    group: 2
    weight_filler {
      type: "gaussian"
      std: 0.01
    }
    bias_filler {
      type: "constant"
      value: 0.1
    }
  }
}
layer {
  name: "relu5"
  type: "ReLU"
  bottom: "conv5"
  top: "conv5"
}
layer {
  name: "pool5"
  type: "Pooling"
  bottom: "conv5"
  top: "pool5"
  pooling_param {
    pool: MAX
    kernel_size: 3
    stride: 2
  }
}
layer {
  name: "fc6"
  type: "InnerProduct"
  bottom: "pool5"
  top: "fc6"
  param {
    lr_mult: 1
    decay_mult: 1
  }
  param {
    lr_mult: 2
    decay_mult: 0
  }
  inner_product_param {
    num_output: 4096
    weight_filler {
      type: "gaussian"
      std: 0.005
    }
    bias_filler {
      type: "constant"
      value: 0.1
    }
  }
}
layer {
  name: "relu6"
  type: "ReLU"
  bottom: "fc6"
  top: "fc6"
}
layer {
  name: "drop6"
  type: "Dropout"
  bottom: "fc6"
  top: "fc6"
  dropout_param {
    dropout_ratio: 0.5
  }
}
layer {
  name: "fc7"
  type: "InnerProduct"
  bottom: "fc6"
  top: "fc7"
  param {
    lr_mult: 1
    decay_mult: 1
  }
  param {
    lr_mult: 2
    decay_mult: 0
  }
  inner_product_param {
    num_output: 4096
    weight_filler {
      type: "gaussian"
      std: 0.005
    }
    bias_filler {
      type: "constant"
      value: 0.1
    }
  }
}
layer {
  name: "relu7"
  type: "ReLU"
  bottom: "fc7"
  top: "fc7"
}
layer {
  name: "drop7"
  type: "Dropout"
  bottom: "fc7"
  top: "fc7"
  dropout_param {
    dropout_ratio: 0.5
  }
}
layer {
  name: "fc8_plantvillage"
  type: "InnerProduct"
  bottom: "fc7"
  top: "fc8_plantvillage"
  param {
    lr_mult: 1
    decay_mult: 1
  }
  param {
    lr_mult: 2
    decay_mult: 0
  }
  inner_product_param {
    num_output: 38
    weight_filler {
      type: "gaussian"
      std: 0.01
    }
    bias_filler {
      type: "constant"
      value: 0
    }
  }
}
layer {
  name: "prob"
  type: "Softmax"
  bottom: "fc8_plantvillage"
  top: "prob"
  include {
    phase: TEST
  }
}
layer {
  name: "hdf5out"
  type: "HDF5Output"
  bottom: "prob"
  bottom: "label"
  include {
    phase: TEST
  }
  hdf5_output_param {
    file_name: "hdf5_dumps/iter_2409.h5"
  }
}
layer {
  name: "loss"
  type: "SoftmaxWithLoss"
  bottom: "fc8_plantvillage"
  bottom: "label"
  top: "loss"
}
layer {
  name: "accuracy"
  type: "Accuracy"
  bottom: "fc8_plantvillage"
  bottom: "label"
  top: "accuracy"
  include {
    phase: TEST
  }
}
I0403 12:43:53.011737 30710 layer_factory.hpp:77] Creating layer data
I0403 12:43:53.012414 30710 net.cpp:91] Creating Layer data
I0403 12:43:53.012446 30710 net.cpp:399] data -> data
I0403 12:43:53.012497 30710 net.cpp:399] data -> label
I0403 12:43:53.012537 30710 data_transformer.cpp:25] Loading mean file from: /home/mohanty/data/final_dataset/lmdb/segmented-40-60/mean.binaryproto
I0403 12:43:53.013721 30713 db_lmdb.cpp:38] Opened lmdb /home/mohanty/data/final_dataset/lmdb/segmented-40-60/test_db
I0403 12:43:53.027185 30710 data_layer.cpp:41] output data size: 100,3,227,227
I0403 12:43:53.149624 30710 net.cpp:141] Setting up data
I0403 12:43:53.149730 30710 net.cpp:148] Top shape: 100 3 227 227 (15458700)
I0403 12:43:53.149752 30710 net.cpp:148] Top shape: 100 (100)
I0403 12:43:53.149768 30710 net.cpp:156] Memory required for data: 61835200
I0403 12:43:53.149796 30710 layer_factory.hpp:77] Creating layer label_data_1_split
I0403 12:43:53.149821 30710 net.cpp:91] Creating Layer label_data_1_split
I0403 12:43:53.149838 30710 net.cpp:425] label_data_1_split <- label
I0403 12:43:53.149869 30710 net.cpp:399] label_data_1_split -> label_data_1_split_0
I0403 12:43:53.149895 30710 net.cpp:399] label_data_1_split -> label_data_1_split_1
I0403 12:43:53.149915 30710 net.cpp:399] label_data_1_split -> label_data_1_split_2
I0403 12:43:53.149978 30710 net.cpp:141] Setting up label_data_1_split
I0403 12:43:53.150002 30710 net.cpp:148] Top shape: 100 (100)
I0403 12:43:53.150017 30710 net.cpp:148] Top shape: 100 (100)
I0403 12:43:53.150033 30710 net.cpp:148] Top shape: 100 (100)
I0403 12:43:53.150048 30710 net.cpp:156] Memory required for data: 61836400
I0403 12:43:53.150061 30710 layer_factory.hpp:77] Creating layer conv1
I0403 12:43:53.150094 30710 net.cpp:91] Creating Layer conv1
I0403 12:43:53.150111 30710 net.cpp:425] conv1 <- data
I0403 12:43:53.150130 30710 net.cpp:399] conv1 -> conv1
I0403 12:43:53.292502 30710 net.cpp:141] Setting up conv1
I0403 12:43:53.292593 30710 net.cpp:148] Top shape: 100 96 55 55 (29040000)
I0403 12:43:53.292611 30710 net.cpp:156] Memory required for data: 177996400
I0403 12:43:53.292644 30710 layer_factory.hpp:77] Creating layer relu1
I0403 12:43:53.292672 30710 net.cpp:91] Creating Layer relu1
I0403 12:43:53.292690 30710 net.cpp:425] relu1 <- conv1
I0403 12:43:53.292711 30710 net.cpp:386] relu1 -> conv1 (in-place)
I0403 12:43:53.292981 30710 net.cpp:141] Setting up relu1
I0403 12:43:53.293009 30710 net.cpp:148] Top shape: 100 96 55 55 (29040000)
I0403 12:43:53.293056 30710 net.cpp:156] Memory required for data: 294156400
I0403 12:43:53.293073 30710 layer_factory.hpp:77] Creating layer norm1
I0403 12:43:53.293102 30710 net.cpp:91] Creating Layer norm1
I0403 12:43:53.293119 30710 net.cpp:425] norm1 <- conv1
I0403 12:43:53.293138 30710 net.cpp:399] norm1 -> norm1
I0403 12:43:53.293483 30710 net.cpp:141] Setting up norm1
I0403 12:43:53.293511 30710 net.cpp:148] Top shape: 100 96 55 55 (29040000)
I0403 12:43:53.293526 30710 net.cpp:156] Memory required for data: 410316400
I0403 12:43:53.293542 30710 layer_factory.hpp:77] Creating layer pool1
I0403 12:43:53.293565 30710 net.cpp:91] Creating Layer pool1
I0403 12:43:53.293582 30710 net.cpp:425] pool1 <- norm1
I0403 12:43:53.293601 30710 net.cpp:399] pool1 -> pool1
I0403 12:43:53.293666 30710 net.cpp:141] Setting up pool1
I0403 12:43:53.293689 30710 net.cpp:148] Top shape: 100 96 27 27 (6998400)
I0403 12:43:53.293704 30710 net.cpp:156] Memory required for data: 438310000
I0403 12:43:53.293720 30710 layer_factory.hpp:77] Creating layer conv2
I0403 12:43:53.293743 30710 net.cpp:91] Creating Layer conv2
I0403 12:43:53.293759 30710 net.cpp:425] conv2 <- pool1
I0403 12:43:53.293777 30710 net.cpp:399] conv2 -> conv2
I0403 12:43:53.309191 30710 net.cpp:141] Setting up conv2
I0403 12:43:53.309260 30710 net.cpp:148] Top shape: 100 256 27 27 (18662400)
I0403 12:43:53.309278 30710 net.cpp:156] Memory required for data: 512959600
I0403 12:43:53.309301 30710 layer_factory.hpp:77] Creating layer relu2
I0403 12:43:53.309324 30710 net.cpp:91] Creating Layer relu2
I0403 12:43:53.309341 30710 net.cpp:425] relu2 <- conv2
I0403 12:43:53.309360 30710 net.cpp:386] relu2 -> conv2 (in-place)
I0403 12:43:53.309641 30710 net.cpp:141] Setting up relu2
I0403 12:43:53.309669 30710 net.cpp:148] Top shape: 100 256 27 27 (18662400)
I0403 12:43:53.309685 30710 net.cpp:156] Memory required for data: 587609200
I0403 12:43:53.309701 30710 layer_factory.hpp:77] Creating layer norm2
I0403 12:43:53.309725 30710 net.cpp:91] Creating Layer norm2
I0403 12:43:53.309741 30710 net.cpp:425] norm2 <- conv2
I0403 12:43:53.309759 30710 net.cpp:399] norm2 -> norm2
I0403 12:43:53.309957 30710 net.cpp:141] Setting up norm2
I0403 12:43:53.309983 30710 net.cpp:148] Top shape: 100 256 27 27 (18662400)
I0403 12:43:53.309998 30710 net.cpp:156] Memory required for data: 662258800
I0403 12:43:53.310014 30710 layer_factory.hpp:77] Creating layer pool2
I0403 12:43:53.310034 30710 net.cpp:91] Creating Layer pool2
I0403 12:43:53.310050 30710 net.cpp:425] pool2 <- norm2
I0403 12:43:53.310067 30710 net.cpp:399] pool2 -> pool2
I0403 12:43:53.310122 30710 net.cpp:141] Setting up pool2
I0403 12:43:53.310180 30710 net.cpp:148] Top shape: 100 256 13 13 (4326400)
I0403 12:43:53.310199 30710 net.cpp:156] Memory required for data: 679564400
I0403 12:43:53.310214 30710 layer_factory.hpp:77] Creating layer conv3
I0403 12:43:53.310247 30710 net.cpp:91] Creating Layer conv3
I0403 12:43:53.310266 30710 net.cpp:425] conv3 <- pool2
I0403 12:43:53.310287 30710 net.cpp:399] conv3 -> conv3
I0403 12:43:53.350088 30710 net.cpp:141] Setting up conv3
I0403 12:43:53.350173 30710 net.cpp:148] Top shape: 100 384 13 13 (6489600)
I0403 12:43:53.350203 30710 net.cpp:156] Memory required for data: 705522800
I0403 12:43:53.350229 30710 layer_factory.hpp:77] Creating layer relu3
I0403 12:43:53.350257 30710 net.cpp:91] Creating Layer relu3
I0403 12:43:53.350275 30710 net.cpp:425] relu3 <- conv3
I0403 12:43:53.350296 30710 net.cpp:386] relu3 -> conv3 (in-place)
I0403 12:43:53.350592 30710 net.cpp:141] Setting up relu3
I0403 12:43:53.350623 30710 net.cpp:148] Top shape: 100 384 13 13 (6489600)
I0403 12:43:53.350639 30710 net.cpp:156] Memory required for data: 731481200
I0403 12:43:53.350656 30710 layer_factory.hpp:77] Creating layer conv4
I0403 12:43:53.350683 30710 net.cpp:91] Creating Layer conv4
I0403 12:43:53.350702 30710 net.cpp:425] conv4 <- conv3
I0403 12:43:53.350720 30710 net.cpp:399] conv4 -> conv4
I0403 12:43:53.382076 30710 net.cpp:141] Setting up conv4
I0403 12:43:53.382159 30710 net.cpp:148] Top shape: 100 384 13 13 (6489600)
I0403 12:43:53.382210 30710 net.cpp:156] Memory required for data: 757439600
I0403 12:43:53.382253 30710 layer_factory.hpp:77] Creating layer relu4
I0403 12:43:53.382282 30710 net.cpp:91] Creating Layer relu4
I0403 12:43:53.382302 30710 net.cpp:425] relu4 <- conv4
I0403 12:43:53.382323 30710 net.cpp:386] relu4 -> conv4 (in-place)
I0403 12:43:53.382624 30710 net.cpp:141] Setting up relu4
I0403 12:43:53.382652 30710 net.cpp:148] Top shape: 100 384 13 13 (6489600)
I0403 12:43:53.382668 30710 net.cpp:156] Memory required for data: 783398000
I0403 12:43:53.382683 30710 layer_factory.hpp:77] Creating layer conv5
I0403 12:43:53.382710 30710 net.cpp:91] Creating Layer conv5
I0403 12:43:53.382728 30710 net.cpp:425] conv5 <- conv4
I0403 12:43:53.382751 30710 net.cpp:399] conv5 -> conv5
I0403 12:43:53.404398 30710 net.cpp:141] Setting up conv5
I0403 12:43:53.404459 30710 net.cpp:148] Top shape: 100 256 13 13 (4326400)
I0403 12:43:53.404477 30710 net.cpp:156] Memory required for data: 800703600
I0403 12:43:53.404503 30710 layer_factory.hpp:77] Creating layer relu5
I0403 12:43:53.404530 30710 net.cpp:91] Creating Layer relu5
I0403 12:43:53.404547 30710 net.cpp:425] relu5 <- conv5
I0403 12:43:53.404567 30710 net.cpp:386] relu5 -> conv5 (in-place)
I0403 12:43:53.404855 30710 net.cpp:141] Setting up relu5
I0403 12:43:53.404886 30710 net.cpp:148] Top shape: 100 256 13 13 (4326400)
I0403 12:43:53.404901 30710 net.cpp:156] Memory required for data: 818009200
I0403 12:43:53.404917 30710 layer_factory.hpp:77] Creating layer pool5
I0403 12:43:53.404939 30710 net.cpp:91] Creating Layer pool5
I0403 12:43:53.404956 30710 net.cpp:425] pool5 <- conv5
I0403 12:43:53.404978 30710 net.cpp:399] pool5 -> pool5
I0403 12:43:53.405040 30710 net.cpp:141] Setting up pool5
I0403 12:43:53.405067 30710 net.cpp:148] Top shape: 100 256 6 6 (921600)
I0403 12:43:53.405083 30710 net.cpp:156] Memory required for data: 821695600
I0403 12:43:53.405098 30710 layer_factory.hpp:77] Creating layer fc6
I0403 12:43:53.405127 30710 net.cpp:91] Creating Layer fc6
I0403 12:43:53.405144 30710 net.cpp:425] fc6 <- pool5
I0403 12:43:53.405166 30710 net.cpp:399] fc6 -> fc6
I0403 12:43:54.966732 30710 net.cpp:141] Setting up fc6
I0403 12:43:54.966820 30710 net.cpp:148] Top shape: 100 4096 (409600)
I0403 12:43:54.966837 30710 net.cpp:156] Memory required for data: 823334000
I0403 12:43:54.966858 30710 layer_factory.hpp:77] Creating layer relu6
I0403 12:43:54.966882 30710 net.cpp:91] Creating Layer relu6
I0403 12:43:54.966900 30710 net.cpp:425] relu6 <- fc6
I0403 12:43:54.966919 30710 net.cpp:386] relu6 -> fc6 (in-place)
I0403 12:43:54.967134 30710 net.cpp:141] Setting up relu6
I0403 12:43:54.967159 30710 net.cpp:148] Top shape: 100 4096 (409600)
I0403 12:43:54.967173 30710 net.cpp:156] Memory required for data: 824972400
I0403 12:43:54.967188 30710 layer_factory.hpp:77] Creating layer drop6
I0403 12:43:54.967209 30710 net.cpp:91] Creating Layer drop6
I0403 12:43:54.967226 30710 net.cpp:425] drop6 <- fc6
I0403 12:43:54.967247 30710 net.cpp:386] drop6 -> fc6 (in-place)
I0403 12:43:54.967301 30710 net.cpp:141] Setting up drop6
I0403 12:43:54.967324 30710 net.cpp:148] Top shape: 100 4096 (409600)
I0403 12:43:54.967339 30710 net.cpp:156] Memory required for data: 826610800
I0403 12:43:54.967352 30710 layer_factory.hpp:77] Creating layer fc7
I0403 12:43:54.967375 30710 net.cpp:91] Creating Layer fc7
I0403 12:43:54.967389 30710 net.cpp:425] fc7 <- fc6
I0403 12:43:54.967407 30710 net.cpp:399] fc7 -> fc7
I0403 12:43:55.652508 30710 net.cpp:141] Setting up fc7
I0403 12:43:55.652590 30710 net.cpp:148] Top shape: 100 4096 (409600)
I0403 12:43:55.652606 30710 net.cpp:156] Memory required for data: 828249200
I0403 12:43:55.652626 30710 layer_factory.hpp:77] Creating layer relu7
I0403 12:43:55.652648 30710 net.cpp:91] Creating Layer relu7
I0403 12:43:55.652665 30710 net.cpp:425] relu7 <- fc7
I0403 12:43:55.652684 30710 net.cpp:386] relu7 -> fc7 (in-place)
I0403 12:43:55.653105 30710 net.cpp:141] Setting up relu7
I0403 12:43:55.653133 30710 net.cpp:148] Top shape: 100 4096 (409600)
I0403 12:43:55.653180 30710 net.cpp:156] Memory required for data: 829887600
I0403 12:43:55.653197 30710 layer_factory.hpp:77] Creating layer drop7
I0403 12:43:55.653216 30710 net.cpp:91] Creating Layer drop7
I0403 12:43:55.653231 30710 net.cpp:425] drop7 <- fc7
I0403 12:43:55.653254 30710 net.cpp:386] drop7 -> fc7 (in-place)
I0403 12:43:55.653301 30710 net.cpp:141] Setting up drop7
I0403 12:43:55.653323 30710 net.cpp:148] Top shape: 100 4096 (409600)
I0403 12:43:55.653338 30710 net.cpp:156] Memory required for data: 831526000
I0403 12:43:55.653353 30710 layer_factory.hpp:77] Creating layer fc8_plantvillage
I0403 12:43:55.653374 30710 net.cpp:91] Creating Layer fc8_plantvillage
I0403 12:43:55.653389 30710 net.cpp:425] fc8_plantvillage <- fc7
I0403 12:43:55.653408 30710 net.cpp:399] fc8_plantvillage -> fc8_plantvillage
I0403 12:43:55.660080 30710 net.cpp:141] Setting up fc8_plantvillage
I0403 12:43:55.660109 30710 net.cpp:148] Top shape: 100 38 (3800)
I0403 12:43:55.660122 30710 net.cpp:156] Memory required for data: 831541200
I0403 12:43:55.660140 30710 layer_factory.hpp:77] Creating layer fc8_plantvillage_fc8_plantvillage_0_split
I0403 12:43:55.660159 30710 net.cpp:91] Creating Layer fc8_plantvillage_fc8_plantvillage_0_split
I0403 12:43:55.660174 30710 net.cpp:425] fc8_plantvillage_fc8_plantvillage_0_split <- fc8_plantvillage
I0403 12:43:55.660192 30710 net.cpp:399] fc8_plantvillage_fc8_plantvillage_0_split -> fc8_plantvillage_fc8_plantvillage_0_split_0
I0403 12:43:55.660213 30710 net.cpp:399] fc8_plantvillage_fc8_plantvillage_0_split -> fc8_plantvillage_fc8_plantvillage_0_split_1
I0403 12:43:55.660233 30710 net.cpp:399] fc8_plantvillage_fc8_plantvillage_0_split -> fc8_plantvillage_fc8_plantvillage_0_split_2
I0403 12:43:55.660313 30710 net.cpp:141] Setting up fc8_plantvillage_fc8_plantvillage_0_split
I0403 12:43:55.660336 30710 net.cpp:148] Top shape: 100 38 (3800)
I0403 12:43:55.660351 30710 net.cpp:148] Top shape: 100 38 (3800)
I0403 12:43:55.660365 30710 net.cpp:148] Top shape: 100 38 (3800)
I0403 12:43:55.660378 30710 net.cpp:156] Memory required for data: 831586800
I0403 12:43:55.660393 30710 layer_factory.hpp:77] Creating layer prob
I0403 12:43:55.660414 30710 net.cpp:91] Creating Layer prob
I0403 12:43:55.660430 30710 net.cpp:425] prob <- fc8_plantvillage_fc8_plantvillage_0_split_0
I0403 12:43:55.660447 30710 net.cpp:399] prob -> prob
I0403 12:43:55.660663 30710 net.cpp:141] Setting up prob
I0403 12:43:55.660699 30710 net.cpp:148] Top shape: 100 38 (3800)
I0403 12:43:55.660717 30710 net.cpp:156] Memory required for data: 831602000
I0403 12:43:55.660732 30710 layer_factory.hpp:77] Creating layer hdf5out
I0403 12:43:55.660753 30710 net.cpp:91] Creating Layer hdf5out
I0403 12:43:55.660769 30710 net.cpp:425] hdf5out <- prob
I0403 12:43:55.660785 30710 net.cpp:425] hdf5out <- label_data_1_split_0
I0403 12:43:55.663149 30710 net.cpp:141] Setting up hdf5out
…
