…
I0403 12:42:51.991920 30677 net.cpp:313] The NetState phase (1) differed from the phase (0) specified by a rule in layer data
I0403 12:42:51.992249 30677 net.cpp:49] Initializing net from parameters: 
state {
  phase: TEST
}
layer {
  name: "data"
  type: "Data"
  top: "data"
  top: "label"
  include {
    phase: TEST
  }
  transform_param {
    crop_size: 227
    mean_file: "/home/mohanty/data/final_dataset/lmdb/segmented-40-60/mean.binaryproto"
  }
  data_param {
    source: "/home/mohanty/data/final_dataset/lmdb/segmented-40-60/test_db"
    batch_size: 100
    backend: LMDB
  }
}
layer {
  name: "conv1"
  type: "Convolution"
  bottom: "data"
  top: "conv1"
  param {
    lr_mult: 1
    decay_mult: 1
  }
  param {
    lr_mult: 2
    decay_mult: 0
  }
  convolution_param {
    num_output: 96
    kernel_size: 11
    stride: 4
    weight_filler {
      type: "gaussian"
      std: 0.01
    }
    bias_filler {
      type: "constant"
      value: 0
    }
  }
}
layer {
  name: "relu1"
  type: "ReLU"
  bottom: "conv1"
  top: "conv1"
}
layer {
  name: "norm1"
  type: "LRN"
  bottom: "conv1"
  top: "norm1"
  lrn_param {
    local_size: 5
    alpha: 0.0001
    beta: 0.75
  }
}
layer {
  name: "pool1"
  type: "Pooling"
  bottom: "norm1"
  top: "pool1"
  pooling_param {
    pool: MAX
    kernel_size: 3
    stride: 2
  }
}
layer {
  name: "conv2"
  type: "Convolution"
  bottom: "pool1"
  top: "conv2"
  param {
    lr_mult: 1
    decay_mult: 1
  }
  param {
    lr_mult: 2
    decay_mult: 0
  }
  convolution_param {
    num_output: 256
    pad: 2
    kernel_size: 5
    group: 2
    weight_filler {
      type: "gaussian"
      std: 0.01
    }
    bias_filler {
      type: "constant"
      value: 0.1
    }
  }
}
layer {
  name: "relu2"
  type: "ReLU"
  bottom: "conv2"
  top: "conv2"
}
layer {
  name: "norm2"
  type: "LRN"
  bottom: "conv2"
  top: "norm2"
  lrn_param {
    local_size: 5
    alpha: 0.0001
    beta: 0.75
  }
}
layer {
  name: "pool2"
  type: "Pooling"
  bottom: "norm2"
  top: "pool2"
  pooling_param {
    pool: MAX
    kernel_size: 3
    stride: 2
  }
}
layer {
  name: "conv3"
  type: "Convolution"
  bottom: "pool2"
  top: "conv3"
  param {
    lr_mult: 1
    decay_mult: 1
  }
  param {
    lr_mult: 2
    decay_mult: 0
  }
  convolution_param {
    num_output: 384
    pad: 1
    kernel_size: 3
    weight_filler {
      type: "gaussian"
      std: 0.01
    }
    bias_filler {
      type: "constant"
      value: 0
    }
  }
}
layer {
  name: "relu3"
  type: "ReLU"
  bottom: "conv3"
  top: "conv3"
}
layer {
  name: "conv4"
  type: "Convolution"
  bottom: "conv3"
  top: "conv4"
  param {
    lr_mult: 1
    decay_mult: 1
  }
  param {
    lr_mult: 2
    decay_mult: 0
  }
  convolution_param {
    num_output: 384
    pad: 1
    kernel_size: 3
    group: 2
    weight_filler {
      type: "gaussian"
      std: 0.01
    }
    bias_filler {
      type: "constant"
      value: 0.1
    }
  }
}
layer {
  name: "relu4"
  type: "ReLU"
  bottom: "conv4"
  top: "conv4"
}
layer {
  name: "conv5"
  type: "Convolution"
  bottom: "conv4"
  top: "conv5"
  param {
    lr_mult: 1
    decay_mult: 1
  }
  param {
    lr_mult: 2
    decay_mult: 0
  }
  convolution_param {
    num_output: 256
    pad: 1
    kernel_size: 3
    group: 2
    weight_filler {
      type: "gaussian"
      std: 0.01
    }
    bias_filler {
      type: "constant"
      value: 0.1
    }
  }
}
layer {
  name: "relu5"
  type: "ReLU"
  bottom: "conv5"
  top: "conv5"
}
layer {
  name: "pool5"
  type: "Pooling"
  bottom: "conv5"
  top: "pool5"
  pooling_param {
    pool: MAX
    kernel_size: 3
    stride: 2
  }
}
layer {
  name: "fc6"
  type: "InnerProduct"
  bottom: "pool5"
  top: "fc6"
  param {
    lr_mult: 1
    decay_mult: 1
  }
  param {
    lr_mult: 2
    decay_mult: 0
  }
  inner_product_param {
    num_output: 4096
    weight_filler {
      type: "gaussian"
      std: 0.005
    }
    bias_filler {
      type: "constant"
      value: 0.1
    }
  }
}
layer {
  name: "relu6"
  type: "ReLU"
  bottom: "fc6"
  top: "fc6"
}
layer {
  name: "drop6"
  type: "Dropout"
  bottom: "fc6"
  top: "fc6"
  dropout_param {
    dropout_ratio: 0.5
  }
}
layer {
  name: "fc7"
  type: "InnerProduct"
  bottom: "fc6"
  top: "fc7"
  param {
    lr_mult: 1
    decay_mult: 1
  }
  param {
    lr_mult: 2
    decay_mult: 0
  }
  inner_product_param {
    num_output: 4096
    weight_filler {
      type: "gaussian"
      std: 0.005
    }
    bias_filler {
      type: "constant"
      value: 0.1
    }
  }
}
layer {
  name: "relu7"
  type: "ReLU"
  bottom: "fc7"
  top: "fc7"
}
layer {
  name: "drop7"
  type: "Dropout"
  bottom: "fc7"
  top: "fc7"
  dropout_param {
    dropout_ratio: 0.5
  }
}
layer {
  name: "fc8_plantvillage"
  type: "InnerProduct"
  bottom: "fc7"
  top: "fc8_plantvillage"
  param {
    lr_mult: 1
    decay_mult: 1
  }
  param {
    lr_mult: 2
    decay_mult: 0
  }
  inner_product_param {
    num_output: 38
    weight_filler {
      type: "gaussian"
      std: 0.01
    }
    bias_filler {
      type: "constant"
      value: 0
    }
  }
}
layer {
  name: "prob"
  type: "Softmax"
  bottom: "fc8_plantvillage"
  top: "prob"
  include {
    phase: TEST
  }
}
layer {
  name: "hdf5out"
  type: "HDF5Output"
  bottom: "prob"
  bottom: "label"
  include {
    phase: TEST
  }
  hdf5_output_param {
    file_name: "hdf5_dumps/iter_2190.h5"
  }
}
layer {
  name: "loss"
  type: "SoftmaxWithLoss"
  bottom: "fc8_plantvillage"
  bottom: "label"
  top: "loss"
}
layer {
  name: "accuracy"
  type: "Accuracy"
  bottom: "fc8_plantvillage"
  bottom: "label"
  top: "accuracy"
  include {
    phase: TEST
  }
}
I0403 12:42:51.992866 30677 layer_factory.hpp:77] Creating layer data
I0403 12:42:51.993508 30677 net.cpp:91] Creating Layer data
I0403 12:42:51.993538 30677 net.cpp:399] data -> data
I0403 12:42:51.993589 30677 net.cpp:399] data -> label
I0403 12:42:51.993625 30677 data_transformer.cpp:25] Loading mean file from: /home/mohanty/data/final_dataset/lmdb/segmented-40-60/mean.binaryproto
I0403 12:42:51.994786 30680 db_lmdb.cpp:38] Opened lmdb /home/mohanty/data/final_dataset/lmdb/segmented-40-60/test_db
I0403 12:42:52.007987 30677 data_layer.cpp:41] output data size: 100,3,227,227
I0403 12:42:52.127063 30677 net.cpp:141] Setting up data
I0403 12:42:52.127169 30677 net.cpp:148] Top shape: 100 3 227 227 (15458700)
I0403 12:42:52.127192 30677 net.cpp:148] Top shape: 100 (100)
I0403 12:42:52.127207 30677 net.cpp:156] Memory required for data: 61835200
I0403 12:42:52.127233 30677 layer_factory.hpp:77] Creating layer label_data_1_split
I0403 12:42:52.127259 30677 net.cpp:91] Creating Layer label_data_1_split
I0403 12:42:52.127287 30677 net.cpp:425] label_data_1_split <- label
I0403 12:42:52.127322 30677 net.cpp:399] label_data_1_split -> label_data_1_split_0
I0403 12:42:52.127351 30677 net.cpp:399] label_data_1_split -> label_data_1_split_1
I0403 12:42:52.127372 30677 net.cpp:399] label_data_1_split -> label_data_1_split_2
I0403 12:42:52.127436 30677 net.cpp:141] Setting up label_data_1_split
I0403 12:42:52.127460 30677 net.cpp:148] Top shape: 100 (100)
I0403 12:42:52.127476 30677 net.cpp:148] Top shape: 100 (100)
I0403 12:42:52.127493 30677 net.cpp:148] Top shape: 100 (100)
I0403 12:42:52.127507 30677 net.cpp:156] Memory required for data: 61836400
I0403 12:42:52.127522 30677 layer_factory.hpp:77] Creating layer conv1
I0403 12:42:52.127554 30677 net.cpp:91] Creating Layer conv1
I0403 12:42:52.127583 30677 net.cpp:425] conv1 <- data
I0403 12:42:52.127601 30677 net.cpp:399] conv1 -> conv1
I0403 12:42:52.270717 30677 net.cpp:141] Setting up conv1
I0403 12:42:52.270805 30677 net.cpp:148] Top shape: 100 96 55 55 (29040000)
I0403 12:42:52.270823 30677 net.cpp:156] Memory required for data: 177996400
I0403 12:42:52.270854 30677 layer_factory.hpp:77] Creating layer relu1
I0403 12:42:52.270884 30677 net.cpp:91] Creating Layer relu1
I0403 12:42:52.270901 30677 net.cpp:425] relu1 <- conv1
I0403 12:42:52.270921 30677 net.cpp:386] relu1 -> conv1 (in-place)
I0403 12:42:52.271183 30677 net.cpp:141] Setting up relu1
I0403 12:42:52.271210 30677 net.cpp:148] Top shape: 100 96 55 55 (29040000)
I0403 12:42:52.271258 30677 net.cpp:156] Memory required for data: 294156400
I0403 12:42:52.271289 30677 layer_factory.hpp:77] Creating layer norm1
I0403 12:42:52.271318 30677 net.cpp:91] Creating Layer norm1
I0403 12:42:52.271337 30677 net.cpp:425] norm1 <- conv1
I0403 12:42:52.271356 30677 net.cpp:399] norm1 -> norm1
I0403 12:42:52.271698 30677 net.cpp:141] Setting up norm1
I0403 12:42:52.271725 30677 net.cpp:148] Top shape: 100 96 55 55 (29040000)
I0403 12:42:52.271741 30677 net.cpp:156] Memory required for data: 410316400
I0403 12:42:52.271757 30677 layer_factory.hpp:77] Creating layer pool1
I0403 12:42:52.271780 30677 net.cpp:91] Creating Layer pool1
I0403 12:42:52.271797 30677 net.cpp:425] pool1 <- norm1
I0403 12:42:52.271816 30677 net.cpp:399] pool1 -> pool1
I0403 12:42:52.271883 30677 net.cpp:141] Setting up pool1
I0403 12:42:52.271906 30677 net.cpp:148] Top shape: 100 96 27 27 (6998400)
I0403 12:42:52.271922 30677 net.cpp:156] Memory required for data: 438310000
I0403 12:42:52.271937 30677 layer_factory.hpp:77] Creating layer conv2
I0403 12:42:52.271961 30677 net.cpp:91] Creating Layer conv2
I0403 12:42:52.271978 30677 net.cpp:425] conv2 <- pool1
I0403 12:42:52.271998 30677 net.cpp:399] conv2 -> conv2
I0403 12:42:52.286949 30677 net.cpp:141] Setting up conv2
I0403 12:42:52.287005 30677 net.cpp:148] Top shape: 100 256 27 27 (18662400)
I0403 12:42:52.287022 30677 net.cpp:156] Memory required for data: 512959600
I0403 12:42:52.287045 30677 layer_factory.hpp:77] Creating layer relu2
I0403 12:42:52.287066 30677 net.cpp:91] Creating Layer relu2
I0403 12:42:52.287082 30677 net.cpp:425] relu2 <- conv2
I0403 12:42:52.287101 30677 net.cpp:386] relu2 -> conv2 (in-place)
I0403 12:42:52.287392 30677 net.cpp:141] Setting up relu2
I0403 12:42:52.287420 30677 net.cpp:148] Top shape: 100 256 27 27 (18662400)
I0403 12:42:52.287437 30677 net.cpp:156] Memory required for data: 587609200
I0403 12:42:52.287453 30677 layer_factory.hpp:77] Creating layer norm2
I0403 12:42:52.287487 30677 net.cpp:91] Creating Layer norm2
I0403 12:42:52.287503 30677 net.cpp:425] norm2 <- conv2
I0403 12:42:52.287523 30677 net.cpp:399] norm2 -> norm2
I0403 12:42:52.287714 30677 net.cpp:141] Setting up norm2
I0403 12:42:52.287739 30677 net.cpp:148] Top shape: 100 256 27 27 (18662400)
I0403 12:42:52.287789 30677 net.cpp:156] Memory required for data: 662258800
I0403 12:42:52.287811 30677 layer_factory.hpp:77] Creating layer pool2
I0403 12:42:52.287829 30677 net.cpp:91] Creating Layer pool2
I0403 12:42:52.287844 30677 net.cpp:425] pool2 <- norm2
I0403 12:42:52.287863 30677 net.cpp:399] pool2 -> pool2
I0403 12:42:52.287914 30677 net.cpp:141] Setting up pool2
I0403 12:42:52.287937 30677 net.cpp:148] Top shape: 100 256 13 13 (4326400)
I0403 12:42:52.287952 30677 net.cpp:156] Memory required for data: 679564400
I0403 12:42:52.287966 30677 layer_factory.hpp:77] Creating layer conv3
I0403 12:42:52.287987 30677 net.cpp:91] Creating Layer conv3
I0403 12:42:52.288004 30677 net.cpp:425] conv3 <- pool2
I0403 12:42:52.288022 30677 net.cpp:399] conv3 -> conv3
I0403 12:42:52.326555 30677 net.cpp:141] Setting up conv3
I0403 12:42:52.326637 30677 net.cpp:148] Top shape: 100 384 13 13 (6489600)
I0403 12:42:52.326653 30677 net.cpp:156] Memory required for data: 705522800
I0403 12:42:52.326679 30677 layer_factory.hpp:77] Creating layer relu3
I0403 12:42:52.326704 30677 net.cpp:91] Creating Layer relu3
I0403 12:42:52.326724 30677 net.cpp:425] relu3 <- conv3
I0403 12:42:52.326743 30677 net.cpp:386] relu3 -> conv3 (in-place)
I0403 12:42:52.327066 30677 net.cpp:141] Setting up relu3
I0403 12:42:52.327095 30677 net.cpp:148] Top shape: 100 384 13 13 (6489600)
I0403 12:42:52.327111 30677 net.cpp:156] Memory required for data: 731481200
I0403 12:42:52.327126 30677 layer_factory.hpp:77] Creating layer conv4
I0403 12:42:52.327152 30677 net.cpp:91] Creating Layer conv4
I0403 12:42:52.327170 30677 net.cpp:425] conv4 <- conv3
I0403 12:42:52.327193 30677 net.cpp:399] conv4 -> conv4
I0403 12:42:52.357578 30677 net.cpp:141] Setting up conv4
I0403 12:42:52.357657 30677 net.cpp:148] Top shape: 100 384 13 13 (6489600)
I0403 12:42:52.357705 30677 net.cpp:156] Memory required for data: 757439600
I0403 12:42:52.357728 30677 layer_factory.hpp:77] Creating layer relu4
I0403 12:42:52.357749 30677 net.cpp:91] Creating Layer relu4
I0403 12:42:52.357767 30677 net.cpp:425] relu4 <- conv4
I0403 12:42:52.357789 30677 net.cpp:386] relu4 -> conv4 (in-place)
I0403 12:42:52.358108 30677 net.cpp:141] Setting up relu4
I0403 12:42:52.358136 30677 net.cpp:148] Top shape: 100 384 13 13 (6489600)
I0403 12:42:52.358152 30677 net.cpp:156] Memory required for data: 783398000
I0403 12:42:52.358168 30677 layer_factory.hpp:77] Creating layer conv5
I0403 12:42:52.358194 30677 net.cpp:91] Creating Layer conv5
I0403 12:42:52.358213 30677 net.cpp:425] conv5 <- conv4
I0403 12:42:52.358234 30677 net.cpp:399] conv5 -> conv5
I0403 12:42:52.379137 30677 net.cpp:141] Setting up conv5
I0403 12:42:52.379215 30677 net.cpp:148] Top shape: 100 256 13 13 (4326400)
I0403 12:42:52.379231 30677 net.cpp:156] Memory required for data: 800703600
I0403 12:42:52.379261 30677 layer_factory.hpp:77] Creating layer relu5
I0403 12:42:52.379288 30677 net.cpp:91] Creating Layer relu5
I0403 12:42:52.379307 30677 net.cpp:425] relu5 <- conv5
I0403 12:42:52.379325 30677 net.cpp:386] relu5 -> conv5 (in-place)
I0403 12:42:52.379632 30677 net.cpp:141] Setting up relu5
I0403 12:42:52.379659 30677 net.cpp:148] Top shape: 100 256 13 13 (4326400)
I0403 12:42:52.379675 30677 net.cpp:156] Memory required for data: 818009200
I0403 12:42:52.379691 30677 layer_factory.hpp:77] Creating layer pool5
I0403 12:42:52.379715 30677 net.cpp:91] Creating Layer pool5
I0403 12:42:52.379732 30677 net.cpp:425] pool5 <- conv5
I0403 12:42:52.379752 30677 net.cpp:399] pool5 -> pool5
I0403 12:42:52.379814 30677 net.cpp:141] Setting up pool5
I0403 12:42:52.379838 30677 net.cpp:148] Top shape: 100 256 6 6 (921600)
I0403 12:42:52.379853 30677 net.cpp:156] Memory required for data: 821695600
I0403 12:42:52.379870 30677 layer_factory.hpp:77] Creating layer fc6
I0403 12:42:52.379899 30677 net.cpp:91] Creating Layer fc6
I0403 12:42:52.379917 30677 net.cpp:425] fc6 <- pool5
I0403 12:42:52.379938 30677 net.cpp:399] fc6 -> fc6
I0403 12:42:53.980021 30677 net.cpp:141] Setting up fc6
I0403 12:42:53.980098 30677 net.cpp:148] Top shape: 100 4096 (409600)
I0403 12:42:53.980115 30677 net.cpp:156] Memory required for data: 823334000
I0403 12:42:53.980136 30677 layer_factory.hpp:77] Creating layer relu6
I0403 12:42:53.980159 30677 net.cpp:91] Creating Layer relu6
I0403 12:42:53.980176 30677 net.cpp:425] relu6 <- fc6
I0403 12:42:53.980197 30677 net.cpp:386] relu6 -> fc6 (in-place)
I0403 12:42:53.980423 30677 net.cpp:141] Setting up relu6
I0403 12:42:53.980448 30677 net.cpp:148] Top shape: 100 4096 (409600)
I0403 12:42:53.980476 30677 net.cpp:156] Memory required for data: 824972400
I0403 12:42:53.980492 30677 layer_factory.hpp:77] Creating layer drop6
I0403 12:42:53.980514 30677 net.cpp:91] Creating Layer drop6
I0403 12:42:53.980530 30677 net.cpp:425] drop6 <- fc6
I0403 12:42:53.980547 30677 net.cpp:386] drop6 -> fc6 (in-place)
I0403 12:42:53.980602 30677 net.cpp:141] Setting up drop6
I0403 12:42:53.980624 30677 net.cpp:148] Top shape: 100 4096 (409600)
I0403 12:42:53.980639 30677 net.cpp:156] Memory required for data: 826610800
I0403 12:42:53.980654 30677 layer_factory.hpp:77] Creating layer fc7
I0403 12:42:53.980674 30677 net.cpp:91] Creating Layer fc7
I0403 12:42:53.980690 30677 net.cpp:425] fc7 <- fc6
I0403 12:42:53.980712 30677 net.cpp:399] fc7 -> fc7
I0403 12:42:56.763177 30677 net.cpp:141] Setting up fc7
I0403 12:42:56.763275 30677 net.cpp:148] Top shape: 100 4096 (409600)
I0403 12:42:56.763295 30677 net.cpp:156] Memory required for data: 828249200
I0403 12:42:56.763319 30677 layer_factory.hpp:77] Creating layer relu7
I0403 12:42:56.763345 30677 net.cpp:91] Creating Layer relu7
I0403 12:42:56.763363 30677 net.cpp:425] relu7 <- fc7
I0403 12:42:56.763383 30677 net.cpp:386] relu7 -> fc7 (in-place)
I0403 12:42:56.763767 30677 net.cpp:141] Setting up relu7
I0403 12:42:56.763793 30677 net.cpp:148] Top shape: 100 4096 (409600)
I0403 12:42:56.763842 30677 net.cpp:156] Memory required for data: 829887600
I0403 12:42:56.763859 30677 layer_factory.hpp:77] Creating layer drop7
I0403 12:42:56.763880 30677 net.cpp:91] Creating Layer drop7
I0403 12:42:56.763896 30677 net.cpp:425] drop7 <- fc7
I0403 12:42:56.763914 30677 net.cpp:386] drop7 -> fc7 (in-place)
I0403 12:42:56.763960 30677 net.cpp:141] Setting up drop7
I0403 12:42:56.763983 30677 net.cpp:148] Top shape: 100 4096 (409600)
I0403 12:42:56.763998 30677 net.cpp:156] Memory required for data: 831526000
I0403 12:42:56.764013 30677 layer_factory.hpp:77] Creating layer fc8_plantvillage
I0403 12:42:56.764032 30677 net.cpp:91] Creating Layer fc8_plantvillage
I0403 12:42:56.764048 30677 net.cpp:425] fc8_plantvillage <- fc7
I0403 12:42:56.764070 30677 net.cpp:399] fc8_plantvillage -> fc8_plantvillage
I0403 12:42:56.770911 30677 net.cpp:141] Setting up fc8_plantvillage
I0403 12:42:56.770943 30677 net.cpp:148] Top shape: 100 38 (3800)
I0403 12:42:56.770962 30677 net.cpp:156] Memory required for data: 831541200
I0403 12:42:56.770980 30677 layer_factory.hpp:77] Creating layer fc8_plantvillage_fc8_plantvillage_0_split
I0403 12:42:56.770999 30677 net.cpp:91] Creating Layer fc8_plantvillage_fc8_plantvillage_0_split
I0403 12:42:56.771014 30677 net.cpp:425] fc8_plantvillage_fc8_plantvillage_0_split <- fc8_plantvillage
I0403 12:42:56.771031 30677 net.cpp:399] fc8_plantvillage_fc8_plantvillage_0_split -> fc8_plantvillage_fc8_plantvillage_0_split_0
I0403 12:42:56.771052 30677 net.cpp:399] fc8_plantvillage_fc8_plantvillage_0_split -> fc8_plantvillage_fc8_plantvillage_0_split_1
I0403 12:42:56.771072 30677 net.cpp:399] fc8_plantvillage_fc8_plantvillage_0_split -> fc8_plantvillage_fc8_plantvillage_0_split_2
I0403 12:42:56.771153 30677 net.cpp:141] Setting up fc8_plantvillage_fc8_plantvillage_0_split
I0403 12:42:56.771176 30677 net.cpp:148] Top shape: 100 38 (3800)
I0403 12:42:56.771193 30677 net.cpp:148] Top shape: 100 38 (3800)
I0403 12:42:56.771209 30677 net.cpp:148] Top shape: 100 38 (3800)
I0403 12:42:56.771224 30677 net.cpp:156] Memory required for data: 831586800
I0403 12:42:56.771239 30677 layer_factory.hpp:77] Creating layer prob
I0403 12:42:56.771256 30677 net.cpp:91] Creating Layer prob
I0403 12:42:56.771276 30677 net.cpp:425] prob <- fc8_plantvillage_fc8_plantvillage_0_split_0
I0403 12:42:56.771296 30677 net.cpp:399] prob -> prob
I0403 12:42:56.771522 30677 net.cpp:141] Setting up prob
I0403 12:42:56.771546 30677 net.cpp:148] Top shape: 100 38 (3800)
I0403 12:42:56.771563 30677 net.cpp:156] Memory required for data: 831602000
I0403 12:42:56.771576 30677 layer_factory.hpp:77] Creating layer hdf5out
I0403 12:42:56.771598 30677 net.cpp:91] Creating Layer hdf5out
I0403 12:42:56.771615 30677 net.cpp:425] hdf5out <- prob
I0403 12:42:56.771631 30677 net.cpp:425] hdf5out <- label_data_1_split_0
I0403 12:42:56.774035 30677 net.cpp:141] Setting up hdf5out
…
