…
I0403 12:47:47.775462 30805 net.cpp:313] The NetState phase (1) differed from the phase (0) specified by a rule in layer data
I0403 12:47:47.775768 30805 net.cpp:49] Initializing net from parameters: 
state {
  phase: TEST
}
layer {
  name: "data"
  type: "Data"
  top: "data"
  top: "label"
  include {
    phase: TEST
  }
  transform_param {
    crop_size: 227
    mean_file: "/home/mohanty/data/final_dataset/lmdb/segmented-40-60/mean.binaryproto"
  }
  data_param {
    source: "/home/mohanty/data/final_dataset/lmdb/segmented-40-60/test_db"
    batch_size: 100
    backend: LMDB
  }
}
layer {
  name: "conv1"
  type: "Convolution"
  bottom: "data"
  top: "conv1"
  param {
    lr_mult: 1
    decay_mult: 1
  }
  param {
    lr_mult: 2
    decay_mult: 0
  }
  convolution_param {
    num_output: 96
    kernel_size: 11
    stride: 4
    weight_filler {
      type: "gaussian"
      std: 0.01
    }
    bias_filler {
      type: "constant"
      value: 0
    }
  }
}
layer {
  name: "relu1"
  type: "ReLU"
  bottom: "conv1"
  top: "conv1"
}
layer {
  name: "norm1"
  type: "LRN"
  bottom: "conv1"
  top: "norm1"
  lrn_param {
    local_size: 5
    alpha: 0.0001
    beta: 0.75
  }
}
layer {
  name: "pool1"
  type: "Pooling"
  bottom: "norm1"
  top: "pool1"
  pooling_param {
    pool: MAX
    kernel_size: 3
    stride: 2
  }
}
layer {
  name: "conv2"
  type: "Convolution"
  bottom: "pool1"
  top: "conv2"
  param {
    lr_mult: 1
    decay_mult: 1
  }
  param {
    lr_mult: 2
    decay_mult: 0
  }
  convolution_param {
    num_output: 256
    pad: 2
    kernel_size: 5
    group: 2
    weight_filler {
      type: "gaussian"
      std: 0.01
    }
    bias_filler {
      type: "constant"
      value: 0.1
    }
  }
}
layer {
  name: "relu2"
  type: "ReLU"
  bottom: "conv2"
  top: "conv2"
}
layer {
  name: "norm2"
  type: "LRN"
  bottom: "conv2"
  top: "norm2"
  lrn_param {
    local_size: 5
    alpha: 0.0001
    beta: 0.75
  }
}
layer {
  name: "pool2"
  type: "Pooling"
  bottom: "norm2"
  top: "pool2"
  pooling_param {
    pool: MAX
    kernel_size: 3
    stride: 2
  }
}
layer {
  name: "conv3"
  type: "Convolution"
  bottom: "pool2"
  top: "conv3"
  param {
    lr_mult: 1
    decay_mult: 1
  }
  param {
    lr_mult: 2
    decay_mult: 0
  }
  convolution_param {
    num_output: 384
    pad: 1
    kernel_size: 3
    weight_filler {
      type: "gaussian"
      std: 0.01
    }
    bias_filler {
      type: "constant"
      value: 0
    }
  }
}
layer {
  name: "relu3"
  type: "ReLU"
  bottom: "conv3"
  top: "conv3"
}
layer {
  name: "conv4"
  type: "Convolution"
  bottom: "conv3"
  top: "conv4"
  param {
    lr_mult: 1
    decay_mult: 1
  }
  param {
    lr_mult: 2
    decay_mult: 0
  }
  convolution_param {
    num_output: 384
    pad: 1
    kernel_size: 3
    group: 2
    weight_filler {
      type: "gaussian"
      std: 0.01
    }
    bias_filler {
      type: "constant"
      value: 0.1
    }
  }
}
layer {
  name: "relu4"
  type: "ReLU"
  bottom: "conv4"
  top: "conv4"
}
layer {
  name: "conv5"
  type: "Convolution"
  bottom: "conv4"
  top: "conv5"
  param {
    lr_mult: 1
    decay_mult: 1
  }
  param {
    lr_mult: 2
    decay_mult: 0
  }
  convolution_param {
    num_output: 256
    pad: 1
    kernel_size: 3
    group: 2
    weight_filler {
      type: "gaussian"
      std: 0.01
    }
    bias_filler {
      type: "constant"
      value: 0.1
    }
  }
}
layer {
  name: "relu5"
  type: "ReLU"
  bottom: "conv5"
  top: "conv5"
}
layer {
  name: "pool5"
  type: "Pooling"
  bottom: "conv5"
  top: "pool5"
  pooling_param {
    pool: MAX
    kernel_size: 3
    stride: 2
  }
}
layer {
  name: "fc6"
  type: "InnerProduct"
  bottom: "pool5"
  top: "fc6"
  param {
    lr_mult: 1
    decay_mult: 1
  }
  param {
    lr_mult: 2
    decay_mult: 0
  }
  inner_product_param {
    num_output: 4096
    weight_filler {
      type: "gaussian"
      std: 0.005
    }
    bias_filler {
      type: "constant"
      value: 0.1
    }
  }
}
layer {
  name: "relu6"
  type: "ReLU"
  bottom: "fc6"
  top: "fc6"
}
layer {
  name: "drop6"
  type: "Dropout"
  bottom: "fc6"
  top: "fc6"
  dropout_param {
    dropout_ratio: 0.5
  }
}
layer {
  name: "fc7"
  type: "InnerProduct"
  bottom: "fc6"
  top: "fc7"
  param {
    lr_mult: 1
    decay_mult: 1
  }
  param {
    lr_mult: 2
    decay_mult: 0
  }
  inner_product_param {
    num_output: 4096
    weight_filler {
      type: "gaussian"
      std: 0.005
    }
    bias_filler {
      type: "constant"
      value: 0.1
    }
  }
}
layer {
  name: "relu7"
  type: "ReLU"
  bottom: "fc7"
  top: "fc7"
}
layer {
  name: "drop7"
  type: "Dropout"
  bottom: "fc7"
  top: "fc7"
  dropout_param {
    dropout_ratio: 0.5
  }
}
layer {
  name: "fc8_plantvillage"
  type: "InnerProduct"
  bottom: "fc7"
  top: "fc8_plantvillage"
  param {
    lr_mult: 1
    decay_mult: 1
  }
  param {
    lr_mult: 2
    decay_mult: 0
  }
  inner_product_param {
    num_output: 38
    weight_filler {
      type: "gaussian"
      std: 0.01
    }
    bias_filler {
      type: "constant"
      value: 0
    }
  }
}
layer {
  name: "prob"
  type: "Softmax"
  bottom: "fc8_plantvillage"
  top: "prob"
  include {
    phase: TEST
  }
}
layer {
  name: "hdf5out"
  type: "HDF5Output"
  bottom: "prob"
  bottom: "label"
  include {
    phase: TEST
  }
  hdf5_output_param {
    file_name: "hdf5_dumps/iter_3285.h5"
  }
}
layer {
  name: "loss"
  type: "SoftmaxWithLoss"
  bottom: "fc8_plantvillage"
  bottom: "label"
  top: "loss"
}
layer {
  name: "accuracy"
  type: "Accuracy"
  bottom: "fc8_plantvillage"
  bottom: "label"
  top: "accuracy"
  include {
    phase: TEST
  }
}
I0403 12:47:47.776376 30805 layer_factory.hpp:77] Creating layer data
I0403 12:47:47.777034 30805 net.cpp:91] Creating Layer data
I0403 12:47:47.777067 30805 net.cpp:399] data -> data
I0403 12:47:47.777119 30805 net.cpp:399] data -> label
I0403 12:47:47.777156 30805 data_transformer.cpp:25] Loading mean file from: /home/mohanty/data/final_dataset/lmdb/segmented-40-60/mean.binaryproto
I0403 12:47:47.778362 30808 db_lmdb.cpp:38] Opened lmdb /home/mohanty/data/final_dataset/lmdb/segmented-40-60/test_db
I0403 12:47:47.791699 30805 data_layer.cpp:41] output data size: 100,3,227,227
I0403 12:47:47.912992 30805 net.cpp:141] Setting up data
I0403 12:47:47.913112 30805 net.cpp:148] Top shape: 100 3 227 227 (15458700)
I0403 12:47:47.913137 30805 net.cpp:148] Top shape: 100 (100)
I0403 12:47:47.913152 30805 net.cpp:156] Memory required for data: 61835200
I0403 12:47:47.913182 30805 layer_factory.hpp:77] Creating layer label_data_1_split
I0403 12:47:47.913208 30805 net.cpp:91] Creating Layer label_data_1_split
I0403 12:47:47.913226 30805 net.cpp:425] label_data_1_split <- label
I0403 12:47:47.913259 30805 net.cpp:399] label_data_1_split -> label_data_1_split_0
I0403 12:47:47.913298 30805 net.cpp:399] label_data_1_split -> label_data_1_split_1
I0403 12:47:47.913322 30805 net.cpp:399] label_data_1_split -> label_data_1_split_2
I0403 12:47:47.913398 30805 net.cpp:141] Setting up label_data_1_split
I0403 12:47:47.913422 30805 net.cpp:148] Top shape: 100 (100)
I0403 12:47:47.913439 30805 net.cpp:148] Top shape: 100 (100)
I0403 12:47:47.913455 30805 net.cpp:148] Top shape: 100 (100)
I0403 12:47:47.913470 30805 net.cpp:156] Memory required for data: 61836400
I0403 12:47:47.913486 30805 layer_factory.hpp:77] Creating layer conv1
I0403 12:47:47.913517 30805 net.cpp:91] Creating Layer conv1
I0403 12:47:47.913537 30805 net.cpp:425] conv1 <- data
I0403 12:47:47.913555 30805 net.cpp:399] conv1 -> conv1
I0403 12:47:48.054946 30805 net.cpp:141] Setting up conv1
I0403 12:47:48.054991 30805 net.cpp:148] Top shape: 100 96 55 55 (29040000)
I0403 12:47:48.055011 30805 net.cpp:156] Memory required for data: 177996400
I0403 12:47:48.055043 30805 layer_factory.hpp:77] Creating layer relu1
I0403 12:47:48.055070 30805 net.cpp:91] Creating Layer relu1
I0403 12:47:48.055089 30805 net.cpp:425] relu1 <- conv1
I0403 12:47:48.055109 30805 net.cpp:386] relu1 -> conv1 (in-place)
I0403 12:47:48.055384 30805 net.cpp:141] Setting up relu1
I0403 12:47:48.055413 30805 net.cpp:148] Top shape: 100 96 55 55 (29040000)
I0403 12:47:48.055461 30805 net.cpp:156] Memory required for data: 294156400
I0403 12:47:48.055479 30805 layer_factory.hpp:77] Creating layer norm1
I0403 12:47:48.055507 30805 net.cpp:91] Creating Layer norm1
I0403 12:47:48.055526 30805 net.cpp:425] norm1 <- conv1
I0403 12:47:48.055544 30805 net.cpp:399] norm1 -> norm1
I0403 12:47:48.055872 30805 net.cpp:141] Setting up norm1
I0403 12:47:48.055901 30805 net.cpp:148] Top shape: 100 96 55 55 (29040000)
I0403 12:47:48.055917 30805 net.cpp:156] Memory required for data: 410316400
I0403 12:47:48.055933 30805 layer_factory.hpp:77] Creating layer pool1
I0403 12:47:48.055958 30805 net.cpp:91] Creating Layer pool1
I0403 12:47:48.055976 30805 net.cpp:425] pool1 <- norm1
I0403 12:47:48.055994 30805 net.cpp:399] pool1 -> pool1
I0403 12:47:48.056063 30805 net.cpp:141] Setting up pool1
I0403 12:47:48.056088 30805 net.cpp:148] Top shape: 100 96 27 27 (6998400)
I0403 12:47:48.056105 30805 net.cpp:156] Memory required for data: 438310000
I0403 12:47:48.056121 30805 layer_factory.hpp:77] Creating layer conv2
I0403 12:47:48.056146 30805 net.cpp:91] Creating Layer conv2
I0403 12:47:48.056164 30805 net.cpp:425] conv2 <- pool1
I0403 12:47:48.056182 30805 net.cpp:399] conv2 -> conv2
I0403 12:47:48.071532 30805 net.cpp:141] Setting up conv2
I0403 12:47:48.071590 30805 net.cpp:148] Top shape: 100 256 27 27 (18662400)
I0403 12:47:48.071609 30805 net.cpp:156] Memory required for data: 512959600
I0403 12:47:48.071633 30805 layer_factory.hpp:77] Creating layer relu2
I0403 12:47:48.071655 30805 net.cpp:91] Creating Layer relu2
I0403 12:47:48.071671 30805 net.cpp:425] relu2 <- conv2
I0403 12:47:48.071689 30805 net.cpp:386] relu2 -> conv2 (in-place)
I0403 12:47:48.071974 30805 net.cpp:141] Setting up relu2
I0403 12:47:48.072001 30805 net.cpp:148] Top shape: 100 256 27 27 (18662400)
I0403 12:47:48.072018 30805 net.cpp:156] Memory required for data: 587609200
I0403 12:47:48.072034 30805 layer_factory.hpp:77] Creating layer norm2
I0403 12:47:48.072057 30805 net.cpp:91] Creating Layer norm2
I0403 12:47:48.072073 30805 net.cpp:425] norm2 <- conv2
I0403 12:47:48.072093 30805 net.cpp:399] norm2 -> norm2
I0403 12:47:48.072296 30805 net.cpp:141] Setting up norm2
I0403 12:47:48.072324 30805 net.cpp:148] Top shape: 100 256 27 27 (18662400)
I0403 12:47:48.072340 30805 net.cpp:156] Memory required for data: 662258800
I0403 12:47:48.072355 30805 layer_factory.hpp:77] Creating layer pool2
I0403 12:47:48.072374 30805 net.cpp:91] Creating Layer pool2
I0403 12:47:48.072391 30805 net.cpp:425] pool2 <- norm2
I0403 12:47:48.072409 30805 net.cpp:399] pool2 -> pool2
I0403 12:47:48.072461 30805 net.cpp:141] Setting up pool2
I0403 12:47:48.072485 30805 net.cpp:148] Top shape: 100 256 13 13 (4326400)
I0403 12:47:48.072500 30805 net.cpp:156] Memory required for data: 679564400
I0403 12:47:48.072516 30805 layer_factory.hpp:77] Creating layer conv3
I0403 12:47:48.072540 30805 net.cpp:91] Creating Layer conv3
I0403 12:47:48.072556 30805 net.cpp:425] conv3 <- pool2
I0403 12:47:48.072576 30805 net.cpp:399] conv3 -> conv3
I0403 12:47:48.112128 30805 net.cpp:141] Setting up conv3
I0403 12:47:48.112211 30805 net.cpp:148] Top shape: 100 384 13 13 (6489600)
I0403 12:47:48.112229 30805 net.cpp:156] Memory required for data: 705522800
I0403 12:47:48.112257 30805 layer_factory.hpp:77] Creating layer relu3
I0403 12:47:48.112287 30805 net.cpp:91] Creating Layer relu3
I0403 12:47:48.112308 30805 net.cpp:425] relu3 <- conv3
I0403 12:47:48.112329 30805 net.cpp:386] relu3 -> conv3 (in-place)
I0403 12:47:48.112625 30805 net.cpp:141] Setting up relu3
I0403 12:47:48.112653 30805 net.cpp:148] Top shape: 100 384 13 13 (6489600)
I0403 12:47:48.112669 30805 net.cpp:156] Memory required for data: 731481200
I0403 12:47:48.112685 30805 layer_factory.hpp:77] Creating layer conv4
I0403 12:47:48.112712 30805 net.cpp:91] Creating Layer conv4
I0403 12:47:48.112731 30805 net.cpp:425] conv4 <- conv3
I0403 12:47:48.112753 30805 net.cpp:399] conv4 -> conv4
I0403 12:47:48.143292 30805 net.cpp:141] Setting up conv4
I0403 12:47:48.143368 30805 net.cpp:148] Top shape: 100 384 13 13 (6489600)
I0403 12:47:48.143419 30805 net.cpp:156] Memory required for data: 757439600
I0403 12:47:48.143441 30805 layer_factory.hpp:77] Creating layer relu4
I0403 12:47:48.143465 30805 net.cpp:91] Creating Layer relu4
I0403 12:47:48.143483 30805 net.cpp:425] relu4 <- conv4
I0403 12:47:48.143506 30805 net.cpp:386] relu4 -> conv4 (in-place)
I0403 12:47:48.143802 30805 net.cpp:141] Setting up relu4
I0403 12:47:48.143831 30805 net.cpp:148] Top shape: 100 384 13 13 (6489600)
I0403 12:47:48.143846 30805 net.cpp:156] Memory required for data: 783398000
I0403 12:47:48.143862 30805 layer_factory.hpp:77] Creating layer conv5
I0403 12:47:48.143888 30805 net.cpp:91] Creating Layer conv5
I0403 12:47:48.143908 30805 net.cpp:425] conv5 <- conv4
I0403 12:47:48.143930 30805 net.cpp:399] conv5 -> conv5
I0403 12:47:48.165174 30805 net.cpp:141] Setting up conv5
I0403 12:47:48.165237 30805 net.cpp:148] Top shape: 100 256 13 13 (4326400)
I0403 12:47:48.165256 30805 net.cpp:156] Memory required for data: 800703600
I0403 12:47:48.165285 30805 layer_factory.hpp:77] Creating layer relu5
I0403 12:47:48.165313 30805 net.cpp:91] Creating Layer relu5
I0403 12:47:48.165331 30805 net.cpp:425] relu5 <- conv5
I0403 12:47:48.165350 30805 net.cpp:386] relu5 -> conv5 (in-place)
I0403 12:47:48.165648 30805 net.cpp:141] Setting up relu5
I0403 12:47:48.165676 30805 net.cpp:148] Top shape: 100 256 13 13 (4326400)
I0403 12:47:48.165693 30805 net.cpp:156] Memory required for data: 818009200
I0403 12:47:48.165709 30805 layer_factory.hpp:77] Creating layer pool5
I0403 12:47:48.165735 30805 net.cpp:91] Creating Layer pool5
I0403 12:47:48.165755 30805 net.cpp:425] pool5 <- conv5
I0403 12:47:48.165774 30805 net.cpp:399] pool5 -> pool5
I0403 12:47:48.165845 30805 net.cpp:141] Setting up pool5
I0403 12:47:48.165869 30805 net.cpp:148] Top shape: 100 256 6 6 (921600)
I0403 12:47:48.165885 30805 net.cpp:156] Memory required for data: 821695600
I0403 12:47:48.165901 30805 layer_factory.hpp:77] Creating layer fc6
I0403 12:47:48.165931 30805 net.cpp:91] Creating Layer fc6
I0403 12:47:48.165951 30805 net.cpp:425] fc6 <- pool5
I0403 12:47:48.165971 30805 net.cpp:399] fc6 -> fc6
I0403 12:47:49.724735 30805 net.cpp:141] Setting up fc6
I0403 12:47:49.724815 30805 net.cpp:148] Top shape: 100 4096 (409600)
I0403 12:47:49.724831 30805 net.cpp:156] Memory required for data: 823334000
I0403 12:47:49.724853 30805 layer_factory.hpp:77] Creating layer relu6
I0403 12:47:49.724875 30805 net.cpp:91] Creating Layer relu6
I0403 12:47:49.724894 30805 net.cpp:425] relu6 <- fc6
I0403 12:47:49.724915 30805 net.cpp:386] relu6 -> fc6 (in-place)
I0403 12:47:49.725148 30805 net.cpp:141] Setting up relu6
I0403 12:47:49.725172 30805 net.cpp:148] Top shape: 100 4096 (409600)
I0403 12:47:49.725188 30805 net.cpp:156] Memory required for data: 824972400
I0403 12:47:49.725203 30805 layer_factory.hpp:77] Creating layer drop6
I0403 12:47:49.725222 30805 net.cpp:91] Creating Layer drop6
I0403 12:47:49.725239 30805 net.cpp:425] drop6 <- fc6
I0403 12:47:49.725255 30805 net.cpp:386] drop6 -> fc6 (in-place)
I0403 12:47:49.725307 30805 net.cpp:141] Setting up drop6
I0403 12:47:49.725332 30805 net.cpp:148] Top shape: 100 4096 (409600)
I0403 12:47:49.725348 30805 net.cpp:156] Memory required for data: 826610800
I0403 12:47:49.725363 30805 layer_factory.hpp:77] Creating layer fc7
I0403 12:47:49.725383 30805 net.cpp:91] Creating Layer fc7
I0403 12:47:49.725397 30805 net.cpp:425] fc7 <- fc6
I0403 12:47:49.725416 30805 net.cpp:399] fc7 -> fc7
I0403 12:47:50.410959 30805 net.cpp:141] Setting up fc7
I0403 12:47:50.411001 30805 net.cpp:148] Top shape: 100 4096 (409600)
I0403 12:47:50.411018 30805 net.cpp:156] Memory required for data: 828249200
I0403 12:47:50.411041 30805 layer_factory.hpp:77] Creating layer relu7
I0403 12:47:50.411063 30805 net.cpp:91] Creating Layer relu7
I0403 12:47:50.411080 30805 net.cpp:425] relu7 <- fc7
I0403 12:47:50.411101 30805 net.cpp:386] relu7 -> fc7 (in-place)
I0403 12:47:50.411555 30805 net.cpp:141] Setting up relu7
I0403 12:47:50.411581 30805 net.cpp:148] Top shape: 100 4096 (409600)
I0403 12:47:50.411643 30805 net.cpp:156] Memory required for data: 829887600
I0403 12:47:50.411659 30805 layer_factory.hpp:77] Creating layer drop7
I0403 12:47:50.411677 30805 net.cpp:91] Creating Layer drop7
I0403 12:47:50.411694 30805 net.cpp:425] drop7 <- fc7
I0403 12:47:50.411713 30805 net.cpp:386] drop7 -> fc7 (in-place)
I0403 12:47:50.411759 30805 net.cpp:141] Setting up drop7
I0403 12:47:50.411782 30805 net.cpp:148] Top shape: 100 4096 (409600)
I0403 12:47:50.411797 30805 net.cpp:156] Memory required for data: 831526000
I0403 12:47:50.411811 30805 layer_factory.hpp:77] Creating layer fc8_plantvillage
I0403 12:47:50.411830 30805 net.cpp:91] Creating Layer fc8_plantvillage
I0403 12:47:50.411845 30805 net.cpp:425] fc8_plantvillage <- fc7
I0403 12:47:50.411866 30805 net.cpp:399] fc8_plantvillage -> fc8_plantvillage
I0403 12:47:50.418565 30805 net.cpp:141] Setting up fc8_plantvillage
I0403 12:47:50.418594 30805 net.cpp:148] Top shape: 100 38 (3800)
I0403 12:47:50.418612 30805 net.cpp:156] Memory required for data: 831541200
I0403 12:47:50.418630 30805 layer_factory.hpp:77] Creating layer fc8_plantvillage_fc8_plantvillage_0_split
I0403 12:47:50.418653 30805 net.cpp:91] Creating Layer fc8_plantvillage_fc8_plantvillage_0_split
I0403 12:47:50.418670 30805 net.cpp:425] fc8_plantvillage_fc8_plantvillage_0_split <- fc8_plantvillage
I0403 12:47:50.418689 30805 net.cpp:399] fc8_plantvillage_fc8_plantvillage_0_split -> fc8_plantvillage_fc8_plantvillage_0_split_0
I0403 12:47:50.418709 30805 net.cpp:399] fc8_plantvillage_fc8_plantvillage_0_split -> fc8_plantvillage_fc8_plantvillage_0_split_1
I0403 12:47:50.418727 30805 net.cpp:399] fc8_plantvillage_fc8_plantvillage_0_split -> fc8_plantvillage_fc8_plantvillage_0_split_2
I0403 12:47:50.418807 30805 net.cpp:141] Setting up fc8_plantvillage_fc8_plantvillage_0_split
I0403 12:47:50.418831 30805 net.cpp:148] Top shape: 100 38 (3800)
I0403 12:47:50.418848 30805 net.cpp:148] Top shape: 100 38 (3800)
I0403 12:47:50.418864 30805 net.cpp:148] Top shape: 100 38 (3800)
I0403 12:47:50.418879 30805 net.cpp:156] Memory required for data: 831586800
I0403 12:47:50.418892 30805 layer_factory.hpp:77] Creating layer prob
I0403 12:47:50.418911 30805 net.cpp:91] Creating Layer prob
I0403 12:47:50.418927 30805 net.cpp:425] prob <- fc8_plantvillage_fc8_plantvillage_0_split_0
I0403 12:47:50.418946 30805 net.cpp:399] prob -> prob
I0403 12:47:50.419176 30805 net.cpp:141] Setting up prob
I0403 12:47:50.419201 30805 net.cpp:148] Top shape: 100 38 (3800)
I0403 12:47:50.419216 30805 net.cpp:156] Memory required for data: 831602000
I0403 12:47:50.419231 30805 layer_factory.hpp:77] Creating layer hdf5out
I0403 12:47:50.419250 30805 net.cpp:91] Creating Layer hdf5out
I0403 12:47:50.419266 30805 net.cpp:425] hdf5out <- prob
I0403 12:47:50.419287 30805 net.cpp:425] hdf5out <- label_data_1_split_0
I0403 12:47:50.421495 30805 net.cpp:141] Setting up hdf5out
…
