…
I0403 12:56:41.593132 31033 net.cpp:313] The NetState phase (1) differed from the phase (0) specified by a rule in layer data
I0403 12:56:41.593451 31033 net.cpp:49] Initializing net from parameters: 
state {
  phase: TEST
}
layer {
  name: "data"
  type: "Data"
  top: "data"
  top: "label"
  include {
    phase: TEST
  }
  transform_param {
    crop_size: 227
    mean_file: "/home/mohanty/data/final_dataset/lmdb/segmented-40-60/mean.binaryproto"
  }
  data_param {
    source: "/home/mohanty/data/final_dataset/lmdb/segmented-40-60/test_db"
    batch_size: 100
    backend: LMDB
  }
}
layer {
  name: "conv1"
  type: "Convolution"
  bottom: "data"
  top: "conv1"
  param {
    lr_mult: 1
    decay_mult: 1
  }
  param {
    lr_mult: 2
    decay_mult: 0
  }
  convolution_param {
    num_output: 96
    kernel_size: 11
    stride: 4
    weight_filler {
      type: "gaussian"
      std: 0.01
    }
    bias_filler {
      type: "constant"
      value: 0
    }
  }
}
layer {
  name: "relu1"
  type: "ReLU"
  bottom: "conv1"
  top: "conv1"
}
layer {
  name: "norm1"
  type: "LRN"
  bottom: "conv1"
  top: "norm1"
  lrn_param {
    local_size: 5
    alpha: 0.0001
    beta: 0.75
  }
}
layer {
  name: "pool1"
  type: "Pooling"
  bottom: "norm1"
  top: "pool1"
  pooling_param {
    pool: MAX
    kernel_size: 3
    stride: 2
  }
}
layer {
  name: "conv2"
  type: "Convolution"
  bottom: "pool1"
  top: "conv2"
  param {
    lr_mult: 1
    decay_mult: 1
  }
  param {
    lr_mult: 2
    decay_mult: 0
  }
  convolution_param {
    num_output: 256
    pad: 2
    kernel_size: 5
    group: 2
    weight_filler {
      type: "gaussian"
      std: 0.01
    }
    bias_filler {
      type: "constant"
      value: 0.1
    }
  }
}
layer {
  name: "relu2"
  type: "ReLU"
  bottom: "conv2"
  top: "conv2"
}
layer {
  name: "norm2"
  type: "LRN"
  bottom: "conv2"
  top: "norm2"
  lrn_param {
    local_size: 5
    alpha: 0.0001
    beta: 0.75
  }
}
layer {
  name: "pool2"
  type: "Pooling"
  bottom: "norm2"
  top: "pool2"
  pooling_param {
    pool: MAX
    kernel_size: 3
    stride: 2
  }
}
layer {
  name: "conv3"
  type: "Convolution"
  bottom: "pool2"
  top: "conv3"
  param {
    lr_mult: 1
    decay_mult: 1
  }
  param {
    lr_mult: 2
    decay_mult: 0
  }
  convolution_param {
    num_output: 384
    pad: 1
    kernel_size: 3
    weight_filler {
      type: "gaussian"
      std: 0.01
    }
    bias_filler {
      type: "constant"
      value: 0
    }
  }
}
layer {
  name: "relu3"
  type: "ReLU"
  bottom: "conv3"
  top: "conv3"
}
layer {
  name: "conv4"
  type: "Convolution"
  bottom: "conv3"
  top: "conv4"
  param {
    lr_mult: 1
    decay_mult: 1
  }
  param {
    lr_mult: 2
    decay_mult: 0
  }
  convolution_param {
    num_output: 384
    pad: 1
    kernel_size: 3
    group: 2
    weight_filler {
      type: "gaussian"
      std: 0.01
    }
    bias_filler {
      type: "constant"
      value: 0.1
    }
  }
}
layer {
  name: "relu4"
  type: "ReLU"
  bottom: "conv4"
  top: "conv4"
}
layer {
  name: "conv5"
  type: "Convolution"
  bottom: "conv4"
  top: "conv5"
  param {
    lr_mult: 1
    decay_mult: 1
  }
  param {
    lr_mult: 2
    decay_mult: 0
  }
  convolution_param {
    num_output: 256
    pad: 1
    kernel_size: 3
    group: 2
    weight_filler {
      type: "gaussian"
      std: 0.01
    }
    bias_filler {
      type: "constant"
      value: 0.1
    }
  }
}
layer {
  name: "relu5"
  type: "ReLU"
  bottom: "conv5"
  top: "conv5"
}
layer {
  name: "pool5"
  type: "Pooling"
  bottom: "conv5"
  top: "pool5"
  pooling_param {
    pool: MAX
    kernel_size: 3
    stride: 2
  }
}
layer {
  name: "fc6"
  type: "InnerProduct"
  bottom: "pool5"
  top: "fc6"
  param {
    lr_mult: 1
    decay_mult: 1
  }
  param {
    lr_mult: 2
    decay_mult: 0
  }
  inner_product_param {
    num_output: 4096
    weight_filler {
      type: "gaussian"
      std: 0.005
    }
    bias_filler {
      type: "constant"
      value: 0.1
    }
  }
}
layer {
  name: "relu6"
  type: "ReLU"
  bottom: "fc6"
  top: "fc6"
}
layer {
  name: "drop6"
  type: "Dropout"
  bottom: "fc6"
  top: "fc6"
  dropout_param {
    dropout_ratio: 0.5
  }
}
layer {
  name: "fc7"
  type: "InnerProduct"
  bottom: "fc6"
  top: "fc7"
  param {
    lr_mult: 1
    decay_mult: 1
  }
  param {
    lr_mult: 2
    decay_mult: 0
  }
  inner_product_param {
    num_output: 4096
    weight_filler {
      type: "gaussian"
      std: 0.005
    }
    bias_filler {
      type: "constant"
      value: 0.1
    }
  }
}
layer {
  name: "relu7"
  type: "ReLU"
  bottom: "fc7"
  top: "fc7"
}
layer {
  name: "drop7"
  type: "Dropout"
  bottom: "fc7"
  top: "fc7"
  dropout_param {
    dropout_ratio: 0.5
  }
}
layer {
  name: "fc8_plantvillage"
  type: "InnerProduct"
  bottom: "fc7"
  top: "fc8_plantvillage"
  param {
    lr_mult: 1
    decay_mult: 1
  }
  param {
    lr_mult: 2
    decay_mult: 0
  }
  inner_product_param {
    num_output: 38
    weight_filler {
      type: "gaussian"
      std: 0.01
    }
    bias_filler {
      type: "constant"
      value: 0
    }
  }
}
layer {
  name: "prob"
  type: "Softmax"
  bottom: "fc8_plantvillage"
  top: "prob"
  include {
    phase: TEST
  }
}
layer {
  name: "hdf5out"
  type: "HDF5Output"
  bottom: "prob"
  bottom: "label"
  include {
    phase: TEST
  }
  hdf5_output_param {
    file_name: "hdf5_dumps/iter_5256.h5"
  }
}
layer {
  name: "loss"
  type: "SoftmaxWithLoss"
  bottom: "fc8_plantvillage"
  bottom: "label"
  top: "loss"
}
layer {
  name: "accuracy"
  type: "Accuracy"
  bottom: "fc8_plantvillage"
  bottom: "label"
  top: "accuracy"
  include {
    phase: TEST
  }
}
I0403 12:56:41.593984 31033 layer_factory.hpp:77] Creating layer data
I0403 12:56:41.594614 31033 net.cpp:91] Creating Layer data
I0403 12:56:41.594646 31033 net.cpp:399] data -> data
I0403 12:56:41.594696 31033 net.cpp:399] data -> label
I0403 12:56:41.594732 31033 data_transformer.cpp:25] Loading mean file from: /home/mohanty/data/final_dataset/lmdb/segmented-40-60/mean.binaryproto
I0403 12:56:41.595856 31036 db_lmdb.cpp:38] Opened lmdb /home/mohanty/data/final_dataset/lmdb/segmented-40-60/test_db
I0403 12:56:41.609100 31033 data_layer.cpp:41] output data size: 100,3,227,227
I0403 12:56:41.732172 31033 net.cpp:141] Setting up data
I0403 12:56:41.732290 31033 net.cpp:148] Top shape: 100 3 227 227 (15458700)
I0403 12:56:41.732313 31033 net.cpp:148] Top shape: 100 (100)
I0403 12:56:41.732328 31033 net.cpp:156] Memory required for data: 61835200
I0403 12:56:41.732357 31033 layer_factory.hpp:77] Creating layer label_data_1_split
I0403 12:56:41.732381 31033 net.cpp:91] Creating Layer label_data_1_split
I0403 12:56:41.732399 31033 net.cpp:425] label_data_1_split <- label
I0403 12:56:41.732431 31033 net.cpp:399] label_data_1_split -> label_data_1_split_0
I0403 12:56:41.732457 31033 net.cpp:399] label_data_1_split -> label_data_1_split_1
I0403 12:56:41.732477 31033 net.cpp:399] label_data_1_split -> label_data_1_split_2
I0403 12:56:41.732539 31033 net.cpp:141] Setting up label_data_1_split
I0403 12:56:41.732563 31033 net.cpp:148] Top shape: 100 (100)
I0403 12:56:41.732579 31033 net.cpp:148] Top shape: 100 (100)
I0403 12:56:41.732595 31033 net.cpp:148] Top shape: 100 (100)
I0403 12:56:41.732609 31033 net.cpp:156] Memory required for data: 61836400
I0403 12:56:41.732625 31033 layer_factory.hpp:77] Creating layer conv1
I0403 12:56:41.732656 31033 net.cpp:91] Creating Layer conv1
I0403 12:56:41.732674 31033 net.cpp:425] conv1 <- data
I0403 12:56:41.732693 31033 net.cpp:399] conv1 -> conv1
I0403 12:56:41.879817 31033 net.cpp:141] Setting up conv1
I0403 12:56:41.879868 31033 net.cpp:148] Top shape: 100 96 55 55 (29040000)
I0403 12:56:41.879887 31033 net.cpp:156] Memory required for data: 177996400
I0403 12:56:41.879920 31033 layer_factory.hpp:77] Creating layer relu1
I0403 12:56:41.879948 31033 net.cpp:91] Creating Layer relu1
I0403 12:56:41.879966 31033 net.cpp:425] relu1 <- conv1
I0403 12:56:41.879987 31033 net.cpp:386] relu1 -> conv1 (in-place)
I0403 12:56:41.880293 31033 net.cpp:141] Setting up relu1
I0403 12:56:41.880323 31033 net.cpp:148] Top shape: 100 96 55 55 (29040000)
I0403 12:56:41.880370 31033 net.cpp:156] Memory required for data: 294156400
I0403 12:56:41.880388 31033 layer_factory.hpp:77] Creating layer norm1
I0403 12:56:41.880417 31033 net.cpp:91] Creating Layer norm1
I0403 12:56:41.880436 31033 net.cpp:425] norm1 <- conv1
I0403 12:56:41.880455 31033 net.cpp:399] norm1 -> norm1
I0403 12:56:41.880781 31033 net.cpp:141] Setting up norm1
I0403 12:56:41.880813 31033 net.cpp:148] Top shape: 100 96 55 55 (29040000)
I0403 12:56:41.880831 31033 net.cpp:156] Memory required for data: 410316400
I0403 12:56:41.880846 31033 layer_factory.hpp:77] Creating layer pool1
I0403 12:56:41.880870 31033 net.cpp:91] Creating Layer pool1
I0403 12:56:41.880888 31033 net.cpp:425] pool1 <- norm1
I0403 12:56:41.880908 31033 net.cpp:399] pool1 -> pool1
I0403 12:56:41.880981 31033 net.cpp:141] Setting up pool1
I0403 12:56:41.881006 31033 net.cpp:148] Top shape: 100 96 27 27 (6998400)
I0403 12:56:41.881021 31033 net.cpp:156] Memory required for data: 438310000
I0403 12:56:41.881036 31033 layer_factory.hpp:77] Creating layer conv2
I0403 12:56:41.881064 31033 net.cpp:91] Creating Layer conv2
I0403 12:56:41.881083 31033 net.cpp:425] conv2 <- pool1
I0403 12:56:41.881104 31033 net.cpp:399] conv2 -> conv2
I0403 12:56:41.896658 31033 net.cpp:141] Setting up conv2
I0403 12:56:41.896713 31033 net.cpp:148] Top shape: 100 256 27 27 (18662400)
I0403 12:56:41.896729 31033 net.cpp:156] Memory required for data: 512959600
I0403 12:56:41.896754 31033 layer_factory.hpp:77] Creating layer relu2
I0403 12:56:41.896780 31033 net.cpp:91] Creating Layer relu2
I0403 12:56:41.896797 31033 net.cpp:425] relu2 <- conv2
I0403 12:56:41.896816 31033 net.cpp:386] relu2 -> conv2 (in-place)
I0403 12:56:41.897143 31033 net.cpp:141] Setting up relu2
I0403 12:56:41.897174 31033 net.cpp:148] Top shape: 100 256 27 27 (18662400)
I0403 12:56:41.897192 31033 net.cpp:156] Memory required for data: 587609200
I0403 12:56:41.897207 31033 layer_factory.hpp:77] Creating layer norm2
I0403 12:56:41.897248 31033 net.cpp:91] Creating Layer norm2
I0403 12:56:41.897266 31033 net.cpp:425] norm2 <- conv2
I0403 12:56:41.897285 31033 net.cpp:399] norm2 -> norm2
I0403 12:56:41.897485 31033 net.cpp:141] Setting up norm2
I0403 12:56:41.897511 31033 net.cpp:148] Top shape: 100 256 27 27 (18662400)
I0403 12:56:41.897526 31033 net.cpp:156] Memory required for data: 662258800
I0403 12:56:41.897541 31033 layer_factory.hpp:77] Creating layer pool2
I0403 12:56:41.897562 31033 net.cpp:91] Creating Layer pool2
I0403 12:56:41.897579 31033 net.cpp:425] pool2 <- norm2
I0403 12:56:41.897598 31033 net.cpp:399] pool2 -> pool2
I0403 12:56:41.897651 31033 net.cpp:141] Setting up pool2
I0403 12:56:41.897675 31033 net.cpp:148] Top shape: 100 256 13 13 (4326400)
I0403 12:56:41.897689 31033 net.cpp:156] Memory required for data: 679564400
I0403 12:56:41.897704 31033 layer_factory.hpp:77] Creating layer conv3
I0403 12:56:41.897728 31033 net.cpp:91] Creating Layer conv3
I0403 12:56:41.897744 31033 net.cpp:425] conv3 <- pool2
I0403 12:56:41.897765 31033 net.cpp:399] conv3 -> conv3
I0403 12:56:41.937093 31033 net.cpp:141] Setting up conv3
I0403 12:56:41.937177 31033 net.cpp:148] Top shape: 100 384 13 13 (6489600)
I0403 12:56:41.937196 31033 net.cpp:156] Memory required for data: 705522800
I0403 12:56:41.937222 31033 layer_factory.hpp:77] Creating layer relu3
I0403 12:56:41.937247 31033 net.cpp:91] Creating Layer relu3
I0403 12:56:41.937268 31033 net.cpp:425] relu3 <- conv3
I0403 12:56:41.937286 31033 net.cpp:386] relu3 -> conv3 (in-place)
I0403 12:56:41.937587 31033 net.cpp:141] Setting up relu3
I0403 12:56:41.937618 31033 net.cpp:148] Top shape: 100 384 13 13 (6489600)
I0403 12:56:41.937634 31033 net.cpp:156] Memory required for data: 731481200
I0403 12:56:41.937650 31033 layer_factory.hpp:77] Creating layer conv4
I0403 12:56:41.937677 31033 net.cpp:91] Creating Layer conv4
I0403 12:56:41.937696 31033 net.cpp:425] conv4 <- conv3
I0403 12:56:41.937716 31033 net.cpp:399] conv4 -> conv4
I0403 12:56:41.968204 31033 net.cpp:141] Setting up conv4
I0403 12:56:41.968287 31033 net.cpp:148] Top shape: 100 384 13 13 (6489600)
I0403 12:56:41.968339 31033 net.cpp:156] Memory required for data: 757439600
I0403 12:56:41.968364 31033 layer_factory.hpp:77] Creating layer relu4
I0403 12:56:41.968389 31033 net.cpp:91] Creating Layer relu4
I0403 12:56:41.968407 31033 net.cpp:425] relu4 <- conv4
I0403 12:56:41.968427 31033 net.cpp:386] relu4 -> conv4 (in-place)
I0403 12:56:41.968729 31033 net.cpp:141] Setting up relu4
I0403 12:56:41.968756 31033 net.cpp:148] Top shape: 100 384 13 13 (6489600)
I0403 12:56:41.968772 31033 net.cpp:156] Memory required for data: 783398000
I0403 12:56:41.968789 31033 layer_factory.hpp:77] Creating layer conv5
I0403 12:56:41.968816 31033 net.cpp:91] Creating Layer conv5
I0403 12:56:41.968833 31033 net.cpp:425] conv5 <- conv4
I0403 12:56:41.968855 31033 net.cpp:399] conv5 -> conv5
I0403 12:56:41.989982 31033 net.cpp:141] Setting up conv5
I0403 12:56:41.990044 31033 net.cpp:148] Top shape: 100 256 13 13 (4326400)
I0403 12:56:41.990061 31033 net.cpp:156] Memory required for data: 800703600
I0403 12:56:41.990087 31033 layer_factory.hpp:77] Creating layer relu5
I0403 12:56:41.990113 31033 net.cpp:91] Creating Layer relu5
I0403 12:56:41.990130 31033 net.cpp:425] relu5 <- conv5
I0403 12:56:41.990150 31033 net.cpp:386] relu5 -> conv5 (in-place)
I0403 12:56:41.990442 31033 net.cpp:141] Setting up relu5
I0403 12:56:41.990473 31033 net.cpp:148] Top shape: 100 256 13 13 (4326400)
I0403 12:56:41.990489 31033 net.cpp:156] Memory required for data: 818009200
I0403 12:56:41.990505 31033 layer_factory.hpp:77] Creating layer pool5
I0403 12:56:41.990527 31033 net.cpp:91] Creating Layer pool5
I0403 12:56:41.990543 31033 net.cpp:425] pool5 <- conv5
I0403 12:56:41.990564 31033 net.cpp:399] pool5 -> pool5
I0403 12:56:41.990627 31033 net.cpp:141] Setting up pool5
I0403 12:56:41.990651 31033 net.cpp:148] Top shape: 100 256 6 6 (921600)
I0403 12:56:41.990667 31033 net.cpp:156] Memory required for data: 821695600
I0403 12:56:41.990684 31033 layer_factory.hpp:77] Creating layer fc6
I0403 12:56:41.990712 31033 net.cpp:91] Creating Layer fc6
I0403 12:56:41.990731 31033 net.cpp:425] fc6 <- pool5
I0403 12:56:41.990751 31033 net.cpp:399] fc6 -> fc6
I0403 12:56:43.546159 31033 net.cpp:141] Setting up fc6
I0403 12:56:43.546216 31033 net.cpp:148] Top shape: 100 4096 (409600)
I0403 12:56:43.546232 31033 net.cpp:156] Memory required for data: 823334000
I0403 12:56:43.546259 31033 layer_factory.hpp:77] Creating layer relu6
I0403 12:56:43.546285 31033 net.cpp:91] Creating Layer relu6
I0403 12:56:43.546303 31033 net.cpp:425] relu6 <- fc6
I0403 12:56:43.546322 31033 net.cpp:386] relu6 -> fc6 (in-place)
I0403 12:56:43.546551 31033 net.cpp:141] Setting up relu6
I0403 12:56:43.546576 31033 net.cpp:148] Top shape: 100 4096 (409600)
I0403 12:56:43.546591 31033 net.cpp:156] Memory required for data: 824972400
I0403 12:56:43.546607 31033 layer_factory.hpp:77] Creating layer drop6
I0403 12:56:43.546624 31033 net.cpp:91] Creating Layer drop6
I0403 12:56:43.546638 31033 net.cpp:425] drop6 <- fc6
I0403 12:56:43.546654 31033 net.cpp:386] drop6 -> fc6 (in-place)
I0403 12:56:43.546705 31033 net.cpp:141] Setting up drop6
I0403 12:56:43.546726 31033 net.cpp:148] Top shape: 100 4096 (409600)
I0403 12:56:43.546741 31033 net.cpp:156] Memory required for data: 826610800
I0403 12:56:43.546754 31033 layer_factory.hpp:77] Creating layer fc7
I0403 12:56:43.546775 31033 net.cpp:91] Creating Layer fc7
I0403 12:56:43.546792 31033 net.cpp:425] fc7 <- fc6
I0403 12:56:43.546809 31033 net.cpp:399] fc7 -> fc7
I0403 12:56:44.237485 31033 net.cpp:141] Setting up fc7
I0403 12:56:44.237529 31033 net.cpp:148] Top shape: 100 4096 (409600)
I0403 12:56:44.237545 31033 net.cpp:156] Memory required for data: 828249200
I0403 12:56:44.237565 31033 layer_factory.hpp:77] Creating layer relu7
I0403 12:56:44.237587 31033 net.cpp:91] Creating Layer relu7
I0403 12:56:44.237604 31033 net.cpp:425] relu7 <- fc7
I0403 12:56:44.237623 31033 net.cpp:386] relu7 -> fc7 (in-place)
I0403 12:56:44.238029 31033 net.cpp:141] Setting up relu7
I0403 12:56:44.238056 31033 net.cpp:148] Top shape: 100 4096 (409600)
I0403 12:56:44.238104 31033 net.cpp:156] Memory required for data: 829887600
I0403 12:56:44.238121 31033 layer_factory.hpp:77] Creating layer drop7
I0403 12:56:44.238138 31033 net.cpp:91] Creating Layer drop7
I0403 12:56:44.238154 31033 net.cpp:425] drop7 <- fc7
I0403 12:56:44.238171 31033 net.cpp:386] drop7 -> fc7 (in-place)
I0403 12:56:44.238214 31033 net.cpp:141] Setting up drop7
I0403 12:56:44.238235 31033 net.cpp:148] Top shape: 100 4096 (409600)
I0403 12:56:44.238256 31033 net.cpp:156] Memory required for data: 831526000
I0403 12:56:44.238270 31033 layer_factory.hpp:77] Creating layer fc8_plantvillage
I0403 12:56:44.238293 31033 net.cpp:91] Creating Layer fc8_plantvillage
I0403 12:56:44.238309 31033 net.cpp:425] fc8_plantvillage <- fc7
I0403 12:56:44.238327 31033 net.cpp:399] fc8_plantvillage -> fc8_plantvillage
I0403 12:56:44.245031 31033 net.cpp:141] Setting up fc8_plantvillage
I0403 12:56:44.245059 31033 net.cpp:148] Top shape: 100 38 (3800)
I0403 12:56:44.245074 31033 net.cpp:156] Memory required for data: 831541200
I0403 12:56:44.245091 31033 layer_factory.hpp:77] Creating layer fc8_plantvillage_fc8_plantvillage_0_split
I0403 12:56:44.245111 31033 net.cpp:91] Creating Layer fc8_plantvillage_fc8_plantvillage_0_split
I0403 12:56:44.245128 31033 net.cpp:425] fc8_plantvillage_fc8_plantvillage_0_split <- fc8_plantvillage
I0403 12:56:44.245147 31033 net.cpp:399] fc8_plantvillage_fc8_plantvillage_0_split -> fc8_plantvillage_fc8_plantvillage_0_split_0
I0403 12:56:44.245167 31033 net.cpp:399] fc8_plantvillage_fc8_plantvillage_0_split -> fc8_plantvillage_fc8_plantvillage_0_split_1
I0403 12:56:44.245187 31033 net.cpp:399] fc8_plantvillage_fc8_plantvillage_0_split -> fc8_plantvillage_fc8_plantvillage_0_split_2
I0403 12:56:44.245267 31033 net.cpp:141] Setting up fc8_plantvillage_fc8_plantvillage_0_split
I0403 12:56:44.245290 31033 net.cpp:148] Top shape: 100 38 (3800)
I0403 12:56:44.245306 31033 net.cpp:148] Top shape: 100 38 (3800)
I0403 12:56:44.245321 31033 net.cpp:148] Top shape: 100 38 (3800)
I0403 12:56:44.245335 31033 net.cpp:156] Memory required for data: 831586800
I0403 12:56:44.245349 31033 layer_factory.hpp:77] Creating layer prob
I0403 12:56:44.245369 31033 net.cpp:91] Creating Layer prob
I0403 12:56:44.245385 31033 net.cpp:425] prob <- fc8_plantvillage_fc8_plantvillage_0_split_0
I0403 12:56:44.245404 31033 net.cpp:399] prob -> prob
I0403 12:56:44.245621 31033 net.cpp:141] Setting up prob
I0403 12:56:44.245648 31033 net.cpp:148] Top shape: 100 38 (3800)
I0403 12:56:44.245663 31033 net.cpp:156] Memory required for data: 831602000
I0403 12:56:44.245677 31033 layer_factory.hpp:77] Creating layer hdf5out
I0403 12:56:44.245708 31033 net.cpp:91] Creating Layer hdf5out
I0403 12:56:44.245724 31033 net.cpp:425] hdf5out <- prob
I0403 12:56:44.245741 31033 net.cpp:425] hdf5out <- label_data_1_split_0
I0403 12:56:44.248384 31033 net.cpp:141] Setting up hdf5out
…
