…
I0403 12:41:53.796269 30662 net.cpp:313] The NetState phase (1) differed from the phase (0) specified by a rule in layer data
I0403 12:41:53.796602 30662 net.cpp:49] Initializing net from parameters: 
state {
  phase: TEST
}
layer {
  name: "data"
  type: "Data"
  top: "data"
  top: "label"
  include {
    phase: TEST
  }
  transform_param {
    crop_size: 227
    mean_file: "/home/mohanty/data/final_dataset/lmdb/segmented-40-60/mean.binaryproto"
  }
  data_param {
    source: "/home/mohanty/data/final_dataset/lmdb/segmented-40-60/test_db"
    batch_size: 100
    backend: LMDB
  }
}
layer {
  name: "conv1"
  type: "Convolution"
  bottom: "data"
  top: "conv1"
  param {
    lr_mult: 1
    decay_mult: 1
  }
  param {
    lr_mult: 2
    decay_mult: 0
  }
  convolution_param {
    num_output: 96
    kernel_size: 11
    stride: 4
    weight_filler {
      type: "gaussian"
      std: 0.01
    }
    bias_filler {
      type: "constant"
      value: 0
    }
  }
}
layer {
  name: "relu1"
  type: "ReLU"
  bottom: "conv1"
  top: "conv1"
}
layer {
  name: "norm1"
  type: "LRN"
  bottom: "conv1"
  top: "norm1"
  lrn_param {
    local_size: 5
    alpha: 0.0001
    beta: 0.75
  }
}
layer {
  name: "pool1"
  type: "Pooling"
  bottom: "norm1"
  top: "pool1"
  pooling_param {
    pool: MAX
    kernel_size: 3
    stride: 2
  }
}
layer {
  name: "conv2"
  type: "Convolution"
  bottom: "pool1"
  top: "conv2"
  param {
    lr_mult: 1
    decay_mult: 1
  }
  param {
    lr_mult: 2
    decay_mult: 0
  }
  convolution_param {
    num_output: 256
    pad: 2
    kernel_size: 5
    group: 2
    weight_filler {
      type: "gaussian"
      std: 0.01
    }
    bias_filler {
      type: "constant"
      value: 0.1
    }
  }
}
layer {
  name: "relu2"
  type: "ReLU"
  bottom: "conv2"
  top: "conv2"
}
layer {
  name: "norm2"
  type: "LRN"
  bottom: "conv2"
  top: "norm2"
  lrn_param {
    local_size: 5
    alpha: 0.0001
    beta: 0.75
  }
}
layer {
  name: "pool2"
  type: "Pooling"
  bottom: "norm2"
  top: "pool2"
  pooling_param {
    pool: MAX
    kernel_size: 3
    stride: 2
  }
}
layer {
  name: "conv3"
  type: "Convolution"
  bottom: "pool2"
  top: "conv3"
  param {
    lr_mult: 1
    decay_mult: 1
  }
  param {
    lr_mult: 2
    decay_mult: 0
  }
  convolution_param {
    num_output: 384
    pad: 1
    kernel_size: 3
    weight_filler {
      type: "gaussian"
      std: 0.01
    }
    bias_filler {
      type: "constant"
      value: 0
    }
  }
}
layer {
  name: "relu3"
  type: "ReLU"
  bottom: "conv3"
  top: "conv3"
}
layer {
  name: "conv4"
  type: "Convolution"
  bottom: "conv3"
  top: "conv4"
  param {
    lr_mult: 1
    decay_mult: 1
  }
  param {
    lr_mult: 2
    decay_mult: 0
  }
  convolution_param {
    num_output: 384
    pad: 1
    kernel_size: 3
    group: 2
    weight_filler {
      type: "gaussian"
      std: 0.01
    }
    bias_filler {
      type: "constant"
      value: 0.1
    }
  }
}
layer {
  name: "relu4"
  type: "ReLU"
  bottom: "conv4"
  top: "conv4"
}
layer {
  name: "conv5"
  type: "Convolution"
  bottom: "conv4"
  top: "conv5"
  param {
    lr_mult: 1
    decay_mult: 1
  }
  param {
    lr_mult: 2
    decay_mult: 0
  }
  convolution_param {
    num_output: 256
    pad: 1
    kernel_size: 3
    group: 2
    weight_filler {
      type: "gaussian"
      std: 0.01
    }
    bias_filler {
      type: "constant"
      value: 0.1
    }
  }
}
layer {
  name: "relu5"
  type: "ReLU"
  bottom: "conv5"
  top: "conv5"
}
layer {
  name: "pool5"
  type: "Pooling"
  bottom: "conv5"
  top: "pool5"
  pooling_param {
    pool: MAX
    kernel_size: 3
    stride: 2
  }
}
layer {
  name: "fc6"
  type: "InnerProduct"
  bottom: "pool5"
  top: "fc6"
  param {
    lr_mult: 1
    decay_mult: 1
  }
  param {
    lr_mult: 2
    decay_mult: 0
  }
  inner_product_param {
    num_output: 4096
    weight_filler {
      type: "gaussian"
      std: 0.005
    }
    bias_filler {
      type: "constant"
      value: 0.1
    }
  }
}
layer {
  name: "relu6"
  type: "ReLU"
  bottom: "fc6"
  top: "fc6"
}
layer {
  name: "drop6"
  type: "Dropout"
  bottom: "fc6"
  top: "fc6"
  dropout_param {
    dropout_ratio: 0.5
  }
}
layer {
  name: "fc7"
  type: "InnerProduct"
  bottom: "fc6"
  top: "fc7"
  param {
    lr_mult: 1
    decay_mult: 1
  }
  param {
    lr_mult: 2
    decay_mult: 0
  }
  inner_product_param {
    num_output: 4096
    weight_filler {
      type: "gaussian"
      std: 0.005
    }
    bias_filler {
      type: "constant"
      value: 0.1
    }
  }
}
layer {
  name: "relu7"
  type: "ReLU"
  bottom: "fc7"
  top: "fc7"
}
layer {
  name: "drop7"
  type: "Dropout"
  bottom: "fc7"
  top: "fc7"
  dropout_param {
    dropout_ratio: 0.5
  }
}
layer {
  name: "fc8_plantvillage"
  type: "InnerProduct"
  bottom: "fc7"
  top: "fc8_plantvillage"
  param {
    lr_mult: 1
    decay_mult: 1
  }
  param {
    lr_mult: 2
    decay_mult: 0
  }
  inner_product_param {
    num_output: 38
    weight_filler {
      type: "gaussian"
      std: 0.01
    }
    bias_filler {
      type: "constant"
      value: 0
    }
  }
}
layer {
  name: "prob"
  type: "Softmax"
  bottom: "fc8_plantvillage"
  top: "prob"
  include {
    phase: TEST
  }
}
layer {
  name: "hdf5out"
  type: "HDF5Output"
  bottom: "prob"
  bottom: "label"
  include {
    phase: TEST
  }
  hdf5_output_param {
    file_name: "hdf5_dumps/iter_1971.h5"
  }
}
layer {
  name: "loss"
  type: "SoftmaxWithLoss"
  bottom: "fc8_plantvillage"
  bottom: "label"
  top: "loss"
}
layer {
  name: "accuracy"
  type: "Accuracy"
  bottom: "fc8_plantvillage"
  bottom: "label"
  top: "accuracy"
  include {
    phase: TEST
  }
}
I0403 12:41:53.797200 30662 layer_factory.hpp:77] Creating layer data
I0403 12:41:53.797860 30662 net.cpp:91] Creating Layer data
I0403 12:41:53.797895 30662 net.cpp:399] data -> data
I0403 12:41:53.797950 30662 net.cpp:399] data -> label
I0403 12:41:53.797991 30662 data_transformer.cpp:25] Loading mean file from: /home/mohanty/data/final_dataset/lmdb/segmented-40-60/mean.binaryproto
I0403 12:41:53.799094 30664 db_lmdb.cpp:38] Opened lmdb /home/mohanty/data/final_dataset/lmdb/segmented-40-60/test_db
I0403 12:41:53.812444 30662 data_layer.cpp:41] output data size: 100,3,227,227
I0403 12:41:53.933917 30662 net.cpp:141] Setting up data
I0403 12:41:53.933977 30662 net.cpp:148] Top shape: 100 3 227 227 (15458700)
I0403 12:41:53.934002 30662 net.cpp:148] Top shape: 100 (100)
I0403 12:41:53.934020 30662 net.cpp:156] Memory required for data: 61835200
I0403 12:41:53.934049 30662 layer_factory.hpp:77] Creating layer label_data_1_split
I0403 12:41:53.934077 30662 net.cpp:91] Creating Layer label_data_1_split
I0403 12:41:53.934097 30662 net.cpp:425] label_data_1_split <- label
I0403 12:41:53.934129 30662 net.cpp:399] label_data_1_split -> label_data_1_split_0
I0403 12:41:53.934159 30662 net.cpp:399] label_data_1_split -> label_data_1_split_1
I0403 12:41:53.934180 30662 net.cpp:399] label_data_1_split -> label_data_1_split_2
I0403 12:41:53.934245 30662 net.cpp:141] Setting up label_data_1_split
I0403 12:41:53.934278 30662 net.cpp:148] Top shape: 100 (100)
I0403 12:41:53.934299 30662 net.cpp:148] Top shape: 100 (100)
I0403 12:41:53.934316 30662 net.cpp:148] Top shape: 100 (100)
I0403 12:41:53.934331 30662 net.cpp:156] Memory required for data: 61836400
I0403 12:41:53.934346 30662 layer_factory.hpp:77] Creating layer conv1
I0403 12:41:53.934381 30662 net.cpp:91] Creating Layer conv1
I0403 12:41:53.934401 30662 net.cpp:425] conv1 <- data
I0403 12:41:53.934422 30662 net.cpp:399] conv1 -> conv1
I0403 12:41:54.073336 30662 net.cpp:141] Setting up conv1
I0403 12:41:54.073427 30662 net.cpp:148] Top shape: 100 96 55 55 (29040000)
I0403 12:41:54.073446 30662 net.cpp:156] Memory required for data: 177996400
I0403 12:41:54.073478 30662 layer_factory.hpp:77] Creating layer relu1
I0403 12:41:54.073505 30662 net.cpp:91] Creating Layer relu1
I0403 12:41:54.073524 30662 net.cpp:425] relu1 <- conv1
I0403 12:41:54.073544 30662 net.cpp:386] relu1 -> conv1 (in-place)
I0403 12:41:54.073812 30662 net.cpp:141] Setting up relu1
I0403 12:41:54.073839 30662 net.cpp:148] Top shape: 100 96 55 55 (29040000)
I0403 12:41:54.073887 30662 net.cpp:156] Memory required for data: 294156400
I0403 12:41:54.073904 30662 layer_factory.hpp:77] Creating layer norm1
I0403 12:41:54.073932 30662 net.cpp:91] Creating Layer norm1
I0403 12:41:54.073951 30662 net.cpp:425] norm1 <- conv1
I0403 12:41:54.073969 30662 net.cpp:399] norm1 -> norm1
I0403 12:41:54.074290 30662 net.cpp:141] Setting up norm1
I0403 12:41:54.074317 30662 net.cpp:148] Top shape: 100 96 55 55 (29040000)
I0403 12:41:54.074333 30662 net.cpp:156] Memory required for data: 410316400
I0403 12:41:54.074348 30662 layer_factory.hpp:77] Creating layer pool1
I0403 12:41:54.074373 30662 net.cpp:91] Creating Layer pool1
I0403 12:41:54.074390 30662 net.cpp:425] pool1 <- norm1
I0403 12:41:54.074409 30662 net.cpp:399] pool1 -> pool1
I0403 12:41:54.074476 30662 net.cpp:141] Setting up pool1
I0403 12:41:54.074501 30662 net.cpp:148] Top shape: 100 96 27 27 (6998400)
I0403 12:41:54.074517 30662 net.cpp:156] Memory required for data: 438310000
I0403 12:41:54.074530 30662 layer_factory.hpp:77] Creating layer conv2
I0403 12:41:54.074554 30662 net.cpp:91] Creating Layer conv2
I0403 12:41:54.074571 30662 net.cpp:425] conv2 <- pool1
I0403 12:41:54.074589 30662 net.cpp:399] conv2 -> conv2
I0403 12:41:54.089584 30662 net.cpp:141] Setting up conv2
I0403 12:41:54.089640 30662 net.cpp:148] Top shape: 100 256 27 27 (18662400)
I0403 12:41:54.089658 30662 net.cpp:156] Memory required for data: 512959600
I0403 12:41:54.089681 30662 layer_factory.hpp:77] Creating layer relu2
I0403 12:41:54.089704 30662 net.cpp:91] Creating Layer relu2
I0403 12:41:54.089723 30662 net.cpp:425] relu2 <- conv2
I0403 12:41:54.089743 30662 net.cpp:386] relu2 -> conv2 (in-place)
I0403 12:41:54.090034 30662 net.cpp:141] Setting up relu2
I0403 12:41:54.090061 30662 net.cpp:148] Top shape: 100 256 27 27 (18662400)
I0403 12:41:54.090077 30662 net.cpp:156] Memory required for data: 587609200
I0403 12:41:54.090093 30662 layer_factory.hpp:77] Creating layer norm2
I0403 12:41:54.090118 30662 net.cpp:91] Creating Layer norm2
I0403 12:41:54.090137 30662 net.cpp:425] norm2 <- conv2
I0403 12:41:54.090157 30662 net.cpp:399] norm2 -> norm2
I0403 12:41:54.090371 30662 net.cpp:141] Setting up norm2
I0403 12:41:54.090399 30662 net.cpp:148] Top shape: 100 256 27 27 (18662400)
I0403 12:41:54.090414 30662 net.cpp:156] Memory required for data: 662258800
I0403 12:41:54.090430 30662 layer_factory.hpp:77] Creating layer pool2
I0403 12:41:54.090450 30662 net.cpp:91] Creating Layer pool2
I0403 12:41:54.090466 30662 net.cpp:425] pool2 <- norm2
I0403 12:41:54.090489 30662 net.cpp:399] pool2 -> pool2
I0403 12:41:54.090555 30662 net.cpp:141] Setting up pool2
I0403 12:41:54.090581 30662 net.cpp:148] Top shape: 100 256 13 13 (4326400)
I0403 12:41:54.090596 30662 net.cpp:156] Memory required for data: 679564400
I0403 12:41:54.090612 30662 layer_factory.hpp:77] Creating layer conv3
I0403 12:41:54.090636 30662 net.cpp:91] Creating Layer conv3
I0403 12:41:54.090654 30662 net.cpp:425] conv3 <- pool2
I0403 12:41:54.090672 30662 net.cpp:399] conv3 -> conv3
I0403 12:41:54.129019 30662 net.cpp:141] Setting up conv3
I0403 12:41:54.129060 30662 net.cpp:148] Top shape: 100 384 13 13 (6489600)
I0403 12:41:54.129076 30662 net.cpp:156] Memory required for data: 705522800
I0403 12:41:54.129102 30662 layer_factory.hpp:77] Creating layer relu3
I0403 12:41:54.129125 30662 net.cpp:91] Creating Layer relu3
I0403 12:41:54.129142 30662 net.cpp:425] relu3 <- conv3
I0403 12:41:54.129164 30662 net.cpp:386] relu3 -> conv3 (in-place)
I0403 12:41:54.129448 30662 net.cpp:141] Setting up relu3
I0403 12:41:54.129475 30662 net.cpp:148] Top shape: 100 384 13 13 (6489600)
I0403 12:41:54.129492 30662 net.cpp:156] Memory required for data: 731481200
I0403 12:41:54.129506 30662 layer_factory.hpp:77] Creating layer conv4
I0403 12:41:54.129533 30662 net.cpp:91] Creating Layer conv4
I0403 12:41:54.129551 30662 net.cpp:425] conv4 <- conv3
I0403 12:41:54.129575 30662 net.cpp:399] conv4 -> conv4
I0403 12:41:54.159039 30662 net.cpp:141] Setting up conv4
I0403 12:41:54.159116 30662 net.cpp:148] Top shape: 100 384 13 13 (6489600)
I0403 12:41:54.159163 30662 net.cpp:156] Memory required for data: 757439600
I0403 12:41:54.159186 30662 layer_factory.hpp:77] Creating layer relu4
I0403 12:41:54.159207 30662 net.cpp:91] Creating Layer relu4
I0403 12:41:54.159225 30662 net.cpp:425] relu4 <- conv4
I0403 12:41:54.159246 30662 net.cpp:386] relu4 -> conv4 (in-place)
I0403 12:41:54.159523 30662 net.cpp:141] Setting up relu4
I0403 12:41:54.159551 30662 net.cpp:148] Top shape: 100 384 13 13 (6489600)
I0403 12:41:54.159567 30662 net.cpp:156] Memory required for data: 783398000
I0403 12:41:54.159581 30662 layer_factory.hpp:77] Creating layer conv5
I0403 12:41:54.159608 30662 net.cpp:91] Creating Layer conv5
I0403 12:41:54.159626 30662 net.cpp:425] conv5 <- conv4
I0403 12:41:54.159648 30662 net.cpp:399] conv5 -> conv5
I0403 12:41:54.180017 30662 net.cpp:141] Setting up conv5
I0403 12:41:54.180081 30662 net.cpp:148] Top shape: 100 256 13 13 (4326400)
I0403 12:41:54.180099 30662 net.cpp:156] Memory required for data: 800703600
I0403 12:41:54.180124 30662 layer_factory.hpp:77] Creating layer relu5
I0403 12:41:54.180146 30662 net.cpp:91] Creating Layer relu5
I0403 12:41:54.180163 30662 net.cpp:425] relu5 <- conv5
I0403 12:41:54.180184 30662 net.cpp:386] relu5 -> conv5 (in-place)
I0403 12:41:54.180476 30662 net.cpp:141] Setting up relu5
I0403 12:41:54.180503 30662 net.cpp:148] Top shape: 100 256 13 13 (4326400)
I0403 12:41:54.180519 30662 net.cpp:156] Memory required for data: 818009200
I0403 12:41:54.180536 30662 layer_factory.hpp:77] Creating layer pool5
I0403 12:41:54.180560 30662 net.cpp:91] Creating Layer pool5
I0403 12:41:54.180578 30662 net.cpp:425] pool5 <- conv5
I0403 12:41:54.180598 30662 net.cpp:399] pool5 -> pool5
I0403 12:41:54.180660 30662 net.cpp:141] Setting up pool5
I0403 12:41:54.180685 30662 net.cpp:148] Top shape: 100 256 6 6 (921600)
I0403 12:41:54.180701 30662 net.cpp:156] Memory required for data: 821695600
I0403 12:41:54.180716 30662 layer_factory.hpp:77] Creating layer fc6
I0403 12:41:54.180743 30662 net.cpp:91] Creating Layer fc6
I0403 12:41:54.180762 30662 net.cpp:425] fc6 <- pool5
I0403 12:41:54.180783 30662 net.cpp:399] fc6 -> fc6
I0403 12:41:55.733062 30662 net.cpp:141] Setting up fc6
I0403 12:41:55.733152 30662 net.cpp:148] Top shape: 100 4096 (409600)
I0403 12:41:55.733170 30662 net.cpp:156] Memory required for data: 823334000
I0403 12:41:55.733191 30662 layer_factory.hpp:77] Creating layer relu6
I0403 12:41:55.733213 30662 net.cpp:91] Creating Layer relu6
I0403 12:41:55.733230 30662 net.cpp:425] relu6 <- fc6
I0403 12:41:55.733250 30662 net.cpp:386] relu6 -> fc6 (in-place)
I0403 12:41:55.733491 30662 net.cpp:141] Setting up relu6
I0403 12:41:55.733517 30662 net.cpp:148] Top shape: 100 4096 (409600)
I0403 12:41:55.733533 30662 net.cpp:156] Memory required for data: 824972400
I0403 12:41:55.733548 30662 layer_factory.hpp:77] Creating layer drop6
I0403 12:41:55.733567 30662 net.cpp:91] Creating Layer drop6
I0403 12:41:55.733583 30662 net.cpp:425] drop6 <- fc6
I0403 12:41:55.733603 30662 net.cpp:386] drop6 -> fc6 (in-place)
I0403 12:41:55.733657 30662 net.cpp:141] Setting up drop6
I0403 12:41:55.733685 30662 net.cpp:148] Top shape: 100 4096 (409600)
I0403 12:41:55.733700 30662 net.cpp:156] Memory required for data: 826610800
I0403 12:41:55.733716 30662 layer_factory.hpp:77] Creating layer fc7
I0403 12:41:55.733736 30662 net.cpp:91] Creating Layer fc7
I0403 12:41:55.733752 30662 net.cpp:425] fc7 <- fc6
I0403 12:41:55.733774 30662 net.cpp:399] fc7 -> fc7
I0403 12:41:56.417771 30662 net.cpp:141] Setting up fc7
I0403 12:41:56.417860 30662 net.cpp:148] Top shape: 100 4096 (409600)
I0403 12:41:56.417876 30662 net.cpp:156] Memory required for data: 828249200
I0403 12:41:56.417896 30662 layer_factory.hpp:77] Creating layer relu7
I0403 12:41:56.417918 30662 net.cpp:91] Creating Layer relu7
I0403 12:41:56.417937 30662 net.cpp:425] relu7 <- fc7
I0403 12:41:56.417958 30662 net.cpp:386] relu7 -> fc7 (in-place)
I0403 12:41:56.418408 30662 net.cpp:141] Setting up relu7
I0403 12:41:56.418442 30662 net.cpp:148] Top shape: 100 4096 (409600)
I0403 12:41:56.418489 30662 net.cpp:156] Memory required for data: 829887600
I0403 12:41:56.418505 30662 layer_factory.hpp:77] Creating layer drop7
I0403 12:41:56.418524 30662 net.cpp:91] Creating Layer drop7
I0403 12:41:56.418540 30662 net.cpp:425] drop7 <- fc7
I0403 12:41:56.418560 30662 net.cpp:386] drop7 -> fc7 (in-place)
I0403 12:41:56.418604 30662 net.cpp:141] Setting up drop7
I0403 12:41:56.418629 30662 net.cpp:148] Top shape: 100 4096 (409600)
I0403 12:41:56.418645 30662 net.cpp:156] Memory required for data: 831526000
I0403 12:41:56.418659 30662 layer_factory.hpp:77] Creating layer fc8_plantvillage
I0403 12:41:56.418680 30662 net.cpp:91] Creating Layer fc8_plantvillage
I0403 12:41:56.418695 30662 net.cpp:425] fc8_plantvillage <- fc7
I0403 12:41:56.418715 30662 net.cpp:399] fc8_plantvillage -> fc8_plantvillage
I0403 12:41:56.425444 30662 net.cpp:141] Setting up fc8_plantvillage
I0403 12:41:56.425484 30662 net.cpp:148] Top shape: 100 38 (3800)
I0403 12:41:56.425500 30662 net.cpp:156] Memory required for data: 831541200
I0403 12:41:56.425519 30662 layer_factory.hpp:77] Creating layer fc8_plantvillage_fc8_plantvillage_0_split
I0403 12:41:56.425539 30662 net.cpp:91] Creating Layer fc8_plantvillage_fc8_plantvillage_0_split
I0403 12:41:56.425557 30662 net.cpp:425] fc8_plantvillage_fc8_plantvillage_0_split <- fc8_plantvillage
I0403 12:41:56.425575 30662 net.cpp:399] fc8_plantvillage_fc8_plantvillage_0_split -> fc8_plantvillage_fc8_plantvillage_0_split_0
I0403 12:41:56.425595 30662 net.cpp:399] fc8_plantvillage_fc8_plantvillage_0_split -> fc8_plantvillage_fc8_plantvillage_0_split_1
I0403 12:41:56.425614 30662 net.cpp:399] fc8_plantvillage_fc8_plantvillage_0_split -> fc8_plantvillage_fc8_plantvillage_0_split_2
I0403 12:41:56.425693 30662 net.cpp:141] Setting up fc8_plantvillage_fc8_plantvillage_0_split
I0403 12:41:56.425719 30662 net.cpp:148] Top shape: 100 38 (3800)
I0403 12:41:56.425736 30662 net.cpp:148] Top shape: 100 38 (3800)
I0403 12:41:56.425751 30662 net.cpp:148] Top shape: 100 38 (3800)
I0403 12:41:56.425768 30662 net.cpp:156] Memory required for data: 831586800
I0403 12:41:56.425783 30662 layer_factory.hpp:77] Creating layer prob
I0403 12:41:56.425802 30662 net.cpp:91] Creating Layer prob
I0403 12:41:56.425818 30662 net.cpp:425] prob <- fc8_plantvillage_fc8_plantvillage_0_split_0
I0403 12:41:56.425835 30662 net.cpp:399] prob -> prob
I0403 12:41:56.426062 30662 net.cpp:141] Setting up prob
I0403 12:41:56.426087 30662 net.cpp:148] Top shape: 100 38 (3800)
I0403 12:41:56.426102 30662 net.cpp:156] Memory required for data: 831602000
I0403 12:41:56.426117 30662 layer_factory.hpp:77] Creating layer hdf5out
I0403 12:41:56.426136 30662 net.cpp:91] Creating Layer hdf5out
I0403 12:41:56.426152 30662 net.cpp:425] hdf5out <- prob
I0403 12:41:56.426168 30662 net.cpp:425] hdf5out <- label_data_1_split_0
I0403 12:41:56.428262 30662 net.cpp:141] Setting up hdf5out
…
