…
I0403 12:58:39.538004 31081 net.cpp:313] The NetState phase (1) differed from the phase (0) specified by a rule in layer data
I0403 12:58:39.538327 31081 net.cpp:49] Initializing net from parameters: 
state {
  phase: TEST
}
layer {
  name: "data"
  type: "Data"
  top: "data"
  top: "label"
  include {
    phase: TEST
  }
  transform_param {
    crop_size: 227
    mean_file: "/home/mohanty/data/final_dataset/lmdb/segmented-40-60/mean.binaryproto"
  }
  data_param {
    source: "/home/mohanty/data/final_dataset/lmdb/segmented-40-60/test_db"
    batch_size: 100
    backend: LMDB
  }
}
layer {
  name: "conv1"
  type: "Convolution"
  bottom: "data"
  top: "conv1"
  param {
    lr_mult: 1
    decay_mult: 1
  }
  param {
    lr_mult: 2
    decay_mult: 0
  }
  convolution_param {
    num_output: 96
    kernel_size: 11
    stride: 4
    weight_filler {
      type: "gaussian"
      std: 0.01
    }
    bias_filler {
      type: "constant"
      value: 0
    }
  }
}
layer {
  name: "relu1"
  type: "ReLU"
  bottom: "conv1"
  top: "conv1"
}
layer {
  name: "norm1"
  type: "LRN"
  bottom: "conv1"
  top: "norm1"
  lrn_param {
    local_size: 5
    alpha: 0.0001
    beta: 0.75
  }
}
layer {
  name: "pool1"
  type: "Pooling"
  bottom: "norm1"
  top: "pool1"
  pooling_param {
    pool: MAX
    kernel_size: 3
    stride: 2
  }
}
layer {
  name: "conv2"
  type: "Convolution"
  bottom: "pool1"
  top: "conv2"
  param {
    lr_mult: 1
    decay_mult: 1
  }
  param {
    lr_mult: 2
    decay_mult: 0
  }
  convolution_param {
    num_output: 256
    pad: 2
    kernel_size: 5
    group: 2
    weight_filler {
      type: "gaussian"
      std: 0.01
    }
    bias_filler {
      type: "constant"
      value: 0.1
    }
  }
}
layer {
  name: "relu2"
  type: "ReLU"
  bottom: "conv2"
  top: "conv2"
}
layer {
  name: "norm2"
  type: "LRN"
  bottom: "conv2"
  top: "norm2"
  lrn_param {
    local_size: 5
    alpha: 0.0001
    beta: 0.75
  }
}
layer {
  name: "pool2"
  type: "Pooling"
  bottom: "norm2"
  top: "pool2"
  pooling_param {
    pool: MAX
    kernel_size: 3
    stride: 2
  }
}
layer {
  name: "conv3"
  type: "Convolution"
  bottom: "pool2"
  top: "conv3"
  param {
    lr_mult: 1
    decay_mult: 1
  }
  param {
    lr_mult: 2
    decay_mult: 0
  }
  convolution_param {
    num_output: 384
    pad: 1
    kernel_size: 3
    weight_filler {
      type: "gaussian"
      std: 0.01
    }
    bias_filler {
      type: "constant"
      value: 0
    }
  }
}
layer {
  name: "relu3"
  type: "ReLU"
  bottom: "conv3"
  top: "conv3"
}
layer {
  name: "conv4"
  type: "Convolution"
  bottom: "conv3"
  top: "conv4"
  param {
    lr_mult: 1
    decay_mult: 1
  }
  param {
    lr_mult: 2
    decay_mult: 0
  }
  convolution_param {
    num_output: 384
    pad: 1
    kernel_size: 3
    group: 2
    weight_filler {
      type: "gaussian"
      std: 0.01
    }
    bias_filler {
      type: "constant"
      value: 0.1
    }
  }
}
layer {
  name: "relu4"
  type: "ReLU"
  bottom: "conv4"
  top: "conv4"
}
layer {
  name: "conv5"
  type: "Convolution"
  bottom: "conv4"
  top: "conv5"
  param {
    lr_mult: 1
    decay_mult: 1
  }
  param {
    lr_mult: 2
    decay_mult: 0
  }
  convolution_param {
    num_output: 256
    pad: 1
    kernel_size: 3
    group: 2
    weight_filler {
      type: "gaussian"
      std: 0.01
    }
    bias_filler {
      type: "constant"
      value: 0.1
    }
  }
}
layer {
  name: "relu5"
  type: "ReLU"
  bottom: "conv5"
  top: "conv5"
}
layer {
  name: "pool5"
  type: "Pooling"
  bottom: "conv5"
  top: "pool5"
  pooling_param {
    pool: MAX
    kernel_size: 3
    stride: 2
  }
}
layer {
  name: "fc6"
  type: "InnerProduct"
  bottom: "pool5"
  top: "fc6"
  param {
    lr_mult: 1
    decay_mult: 1
  }
  param {
    lr_mult: 2
    decay_mult: 0
  }
  inner_product_param {
    num_output: 4096
    weight_filler {
      type: "gaussian"
      std: 0.005
    }
    bias_filler {
      type: "constant"
      value: 0.1
    }
  }
}
layer {
  name: "relu6"
  type: "ReLU"
  bottom: "fc6"
  top: "fc6"
}
layer {
  name: "drop6"
  type: "Dropout"
  bottom: "fc6"
  top: "fc6"
  dropout_param {
    dropout_ratio: 0.5
  }
}
layer {
  name: "fc7"
  type: "InnerProduct"
  bottom: "fc6"
  top: "fc7"
  param {
    lr_mult: 1
    decay_mult: 1
  }
  param {
    lr_mult: 2
    decay_mult: 0
  }
  inner_product_param {
    num_output: 4096
    weight_filler {
      type: "gaussian"
      std: 0.005
    }
    bias_filler {
      type: "constant"
      value: 0.1
    }
  }
}
layer {
  name: "relu7"
  type: "ReLU"
  bottom: "fc7"
  top: "fc7"
}
layer {
  name: "drop7"
  type: "Dropout"
  bottom: "fc7"
  top: "fc7"
  dropout_param {
    dropout_ratio: 0.5
  }
}
layer {
  name: "fc8_plantvillage"
  type: "InnerProduct"
  bottom: "fc7"
  top: "fc8_plantvillage"
  param {
    lr_mult: 1
    decay_mult: 1
  }
  param {
    lr_mult: 2
    decay_mult: 0
  }
  inner_product_param {
    num_output: 38
    weight_filler {
      type: "gaussian"
      std: 0.01
    }
    bias_filler {
      type: "constant"
      value: 0
    }
  }
}
layer {
  name: "prob"
  type: "Softmax"
  bottom: "fc8_plantvillage"
  top: "prob"
  include {
    phase: TEST
  }
}
layer {
  name: "hdf5out"
  type: "HDF5Output"
  bottom: "prob"
  bottom: "label"
  include {
    phase: TEST
  }
  hdf5_output_param {
    file_name: "hdf5_dumps/iter_5694.h5"
  }
}
layer {
  name: "loss"
  type: "SoftmaxWithLoss"
  bottom: "fc8_plantvillage"
  bottom: "label"
  top: "loss"
}
layer {
  name: "accuracy"
  type: "Accuracy"
  bottom: "fc8_plantvillage"
  bottom: "label"
  top: "accuracy"
  include {
    phase: TEST
  }
}
I0403 12:58:39.538928 31081 layer_factory.hpp:77] Creating layer data
I0403 12:58:39.539597 31081 net.cpp:91] Creating Layer data
I0403 12:58:39.539628 31081 net.cpp:399] data -> data
I0403 12:58:39.539680 31081 net.cpp:399] data -> label
I0403 12:58:39.539717 31081 data_transformer.cpp:25] Loading mean file from: /home/mohanty/data/final_dataset/lmdb/segmented-40-60/mean.binaryproto
I0403 12:58:39.540844 31084 db_lmdb.cpp:38] Opened lmdb /home/mohanty/data/final_dataset/lmdb/segmented-40-60/test_db
I0403 12:58:39.554121 31081 data_layer.cpp:41] output data size: 100,3,227,227
I0403 12:58:39.675196 31081 net.cpp:141] Setting up data
I0403 12:58:39.675308 31081 net.cpp:148] Top shape: 100 3 227 227 (15458700)
I0403 12:58:39.675330 31081 net.cpp:148] Top shape: 100 (100)
I0403 12:58:39.675346 31081 net.cpp:156] Memory required for data: 61835200
I0403 12:58:39.675376 31081 layer_factory.hpp:77] Creating layer label_data_1_split
I0403 12:58:39.675402 31081 net.cpp:91] Creating Layer label_data_1_split
I0403 12:58:39.675420 31081 net.cpp:425] label_data_1_split <- label
I0403 12:58:39.675451 31081 net.cpp:399] label_data_1_split -> label_data_1_split_0
I0403 12:58:39.675477 31081 net.cpp:399] label_data_1_split -> label_data_1_split_1
I0403 12:58:39.675498 31081 net.cpp:399] label_data_1_split -> label_data_1_split_2
I0403 12:58:39.675565 31081 net.cpp:141] Setting up label_data_1_split
I0403 12:58:39.675588 31081 net.cpp:148] Top shape: 100 (100)
I0403 12:58:39.675604 31081 net.cpp:148] Top shape: 100 (100)
I0403 12:58:39.675621 31081 net.cpp:148] Top shape: 100 (100)
I0403 12:58:39.675636 31081 net.cpp:156] Memory required for data: 61836400
I0403 12:58:39.675652 31081 layer_factory.hpp:77] Creating layer conv1
I0403 12:58:39.675683 31081 net.cpp:91] Creating Layer conv1
I0403 12:58:39.675701 31081 net.cpp:425] conv1 <- data
I0403 12:58:39.675721 31081 net.cpp:399] conv1 -> conv1
I0403 12:58:39.816867 31081 net.cpp:141] Setting up conv1
I0403 12:58:39.816958 31081 net.cpp:148] Top shape: 100 96 55 55 (29040000)
I0403 12:58:39.816977 31081 net.cpp:156] Memory required for data: 177996400
I0403 12:58:39.817008 31081 layer_factory.hpp:77] Creating layer relu1
I0403 12:58:39.817037 31081 net.cpp:91] Creating Layer relu1
I0403 12:58:39.817055 31081 net.cpp:425] relu1 <- conv1
I0403 12:58:39.817075 31081 net.cpp:386] relu1 -> conv1 (in-place)
I0403 12:58:39.817353 31081 net.cpp:141] Setting up relu1
I0403 12:58:39.817384 31081 net.cpp:148] Top shape: 100 96 55 55 (29040000)
I0403 12:58:39.817432 31081 net.cpp:156] Memory required for data: 294156400
I0403 12:58:39.817448 31081 layer_factory.hpp:77] Creating layer norm1
I0403 12:58:39.817476 31081 net.cpp:91] Creating Layer norm1
I0403 12:58:39.817494 31081 net.cpp:425] norm1 <- conv1
I0403 12:58:39.817517 31081 net.cpp:399] norm1 -> norm1
I0403 12:58:39.817889 31081 net.cpp:141] Setting up norm1
I0403 12:58:39.817917 31081 net.cpp:148] Top shape: 100 96 55 55 (29040000)
I0403 12:58:39.817934 31081 net.cpp:156] Memory required for data: 410316400
I0403 12:58:39.817950 31081 layer_factory.hpp:77] Creating layer pool1
I0403 12:58:39.817973 31081 net.cpp:91] Creating Layer pool1
I0403 12:58:39.817991 31081 net.cpp:425] pool1 <- norm1
I0403 12:58:39.818011 31081 net.cpp:399] pool1 -> pool1
I0403 12:58:39.818081 31081 net.cpp:141] Setting up pool1
I0403 12:58:39.818106 31081 net.cpp:148] Top shape: 100 96 27 27 (6998400)
I0403 12:58:39.818121 31081 net.cpp:156] Memory required for data: 438310000
I0403 12:58:39.818136 31081 layer_factory.hpp:77] Creating layer conv2
I0403 12:58:39.818166 31081 net.cpp:91] Creating Layer conv2
I0403 12:58:39.818183 31081 net.cpp:425] conv2 <- pool1
I0403 12:58:39.818202 31081 net.cpp:399] conv2 -> conv2
I0403 12:58:39.833477 31081 net.cpp:141] Setting up conv2
I0403 12:58:39.833533 31081 net.cpp:148] Top shape: 100 256 27 27 (18662400)
I0403 12:58:39.833550 31081 net.cpp:156] Memory required for data: 512959600
I0403 12:58:39.833575 31081 layer_factory.hpp:77] Creating layer relu2
I0403 12:58:39.833595 31081 net.cpp:91] Creating Layer relu2
I0403 12:58:39.833611 31081 net.cpp:425] relu2 <- conv2
I0403 12:58:39.833633 31081 net.cpp:386] relu2 -> conv2 (in-place)
I0403 12:58:39.833919 31081 net.cpp:141] Setting up relu2
I0403 12:58:39.833946 31081 net.cpp:148] Top shape: 100 256 27 27 (18662400)
I0403 12:58:39.833962 31081 net.cpp:156] Memory required for data: 587609200
I0403 12:58:39.833977 31081 layer_factory.hpp:77] Creating layer norm2
I0403 12:58:39.834002 31081 net.cpp:91] Creating Layer norm2
I0403 12:58:39.834018 31081 net.cpp:425] norm2 <- conv2
I0403 12:58:39.834038 31081 net.cpp:399] norm2 -> norm2
I0403 12:58:39.834275 31081 net.cpp:141] Setting up norm2
I0403 12:58:39.834301 31081 net.cpp:148] Top shape: 100 256 27 27 (18662400)
I0403 12:58:39.834317 31081 net.cpp:156] Memory required for data: 662258800
I0403 12:58:39.834333 31081 layer_factory.hpp:77] Creating layer pool2
I0403 12:58:39.834352 31081 net.cpp:91] Creating Layer pool2
I0403 12:58:39.834367 31081 net.cpp:425] pool2 <- norm2
I0403 12:58:39.834388 31081 net.cpp:399] pool2 -> pool2
I0403 12:58:39.834444 31081 net.cpp:141] Setting up pool2
I0403 12:58:39.834468 31081 net.cpp:148] Top shape: 100 256 13 13 (4326400)
I0403 12:58:39.834484 31081 net.cpp:156] Memory required for data: 679564400
I0403 12:58:39.834499 31081 layer_factory.hpp:77] Creating layer conv3
I0403 12:58:39.834524 31081 net.cpp:91] Creating Layer conv3
I0403 12:58:39.834543 31081 net.cpp:425] conv3 <- pool2
I0403 12:58:39.834563 31081 net.cpp:399] conv3 -> conv3
I0403 12:58:39.873620 31081 net.cpp:141] Setting up conv3
I0403 12:58:39.873706 31081 net.cpp:148] Top shape: 100 384 13 13 (6489600)
I0403 12:58:39.873723 31081 net.cpp:156] Memory required for data: 705522800
I0403 12:58:39.873750 31081 layer_factory.hpp:77] Creating layer relu3
I0403 12:58:39.873775 31081 net.cpp:91] Creating Layer relu3
I0403 12:58:39.873792 31081 net.cpp:425] relu3 <- conv3
I0403 12:58:39.873816 31081 net.cpp:386] relu3 -> conv3 (in-place)
I0403 12:58:39.874112 31081 net.cpp:141] Setting up relu3
I0403 12:58:39.874140 31081 net.cpp:148] Top shape: 100 384 13 13 (6489600)
I0403 12:58:39.874155 31081 net.cpp:156] Memory required for data: 731481200
I0403 12:58:39.874171 31081 layer_factory.hpp:77] Creating layer conv4
I0403 12:58:39.874197 31081 net.cpp:91] Creating Layer conv4
I0403 12:58:39.874215 31081 net.cpp:425] conv4 <- conv3
I0403 12:58:39.874238 31081 net.cpp:399] conv4 -> conv4
I0403 12:58:39.904041 31081 net.cpp:141] Setting up conv4
I0403 12:58:39.904083 31081 net.cpp:148] Top shape: 100 384 13 13 (6489600)
I0403 12:58:39.904131 31081 net.cpp:156] Memory required for data: 757439600
I0403 12:58:39.904155 31081 layer_factory.hpp:77] Creating layer relu4
I0403 12:58:39.904178 31081 net.cpp:91] Creating Layer relu4
I0403 12:58:39.904196 31081 net.cpp:425] relu4 <- conv4
I0403 12:58:39.904218 31081 net.cpp:386] relu4 -> conv4 (in-place)
I0403 12:58:39.904511 31081 net.cpp:141] Setting up relu4
I0403 12:58:39.904541 31081 net.cpp:148] Top shape: 100 384 13 13 (6489600)
I0403 12:58:39.904559 31081 net.cpp:156] Memory required for data: 783398000
I0403 12:58:39.904577 31081 layer_factory.hpp:77] Creating layer conv5
I0403 12:58:39.904614 31081 net.cpp:91] Creating Layer conv5
I0403 12:58:39.904633 31081 net.cpp:425] conv5 <- conv4
I0403 12:58:39.904654 31081 net.cpp:399] conv5 -> conv5
I0403 12:58:39.925006 31081 net.cpp:141] Setting up conv5
I0403 12:58:39.925074 31081 net.cpp:148] Top shape: 100 256 13 13 (4326400)
I0403 12:58:39.925091 31081 net.cpp:156] Memory required for data: 800703600
I0403 12:58:39.925117 31081 layer_factory.hpp:77] Creating layer relu5
I0403 12:58:39.925140 31081 net.cpp:91] Creating Layer relu5
I0403 12:58:39.925158 31081 net.cpp:425] relu5 <- conv5
I0403 12:58:39.925189 31081 net.cpp:386] relu5 -> conv5 (in-place)
I0403 12:58:39.925492 31081 net.cpp:141] Setting up relu5
I0403 12:58:39.925518 31081 net.cpp:148] Top shape: 100 256 13 13 (4326400)
I0403 12:58:39.925534 31081 net.cpp:156] Memory required for data: 818009200
I0403 12:58:39.925550 31081 layer_factory.hpp:77] Creating layer pool5
I0403 12:58:39.925575 31081 net.cpp:91] Creating Layer pool5
I0403 12:58:39.925603 31081 net.cpp:425] pool5 <- conv5
I0403 12:58:39.925622 31081 net.cpp:399] pool5 -> pool5
I0403 12:58:39.925683 31081 net.cpp:141] Setting up pool5
I0403 12:58:39.925707 31081 net.cpp:148] Top shape: 100 256 6 6 (921600)
I0403 12:58:39.925722 31081 net.cpp:156] Memory required for data: 821695600
I0403 12:58:39.925737 31081 layer_factory.hpp:77] Creating layer fc6
I0403 12:58:39.925765 31081 net.cpp:91] Creating Layer fc6
I0403 12:58:39.925781 31081 net.cpp:425] fc6 <- pool5
I0403 12:58:39.925801 31081 net.cpp:399] fc6 -> fc6
I0403 12:58:41.517477 31081 net.cpp:141] Setting up fc6
I0403 12:58:41.517570 31081 net.cpp:148] Top shape: 100 4096 (409600)
I0403 12:58:41.517586 31081 net.cpp:156] Memory required for data: 823334000
I0403 12:58:41.517609 31081 layer_factory.hpp:77] Creating layer relu6
I0403 12:58:41.517632 31081 net.cpp:91] Creating Layer relu6
I0403 12:58:41.517650 31081 net.cpp:425] relu6 <- fc6
I0403 12:58:41.517670 31081 net.cpp:386] relu6 -> fc6 (in-place)
I0403 12:58:41.517904 31081 net.cpp:141] Setting up relu6
I0403 12:58:41.517930 31081 net.cpp:148] Top shape: 100 4096 (409600)
I0403 12:58:41.517946 31081 net.cpp:156] Memory required for data: 824972400
I0403 12:58:41.517961 31081 layer_factory.hpp:77] Creating layer drop6
I0403 12:58:41.517982 31081 net.cpp:91] Creating Layer drop6
I0403 12:58:41.517998 31081 net.cpp:425] drop6 <- fc6
I0403 12:58:41.518018 31081 net.cpp:386] drop6 -> fc6 (in-place)
I0403 12:58:41.518072 31081 net.cpp:141] Setting up drop6
I0403 12:58:41.518096 31081 net.cpp:148] Top shape: 100 4096 (409600)
I0403 12:58:41.518111 31081 net.cpp:156] Memory required for data: 826610800
I0403 12:58:41.518126 31081 layer_factory.hpp:77] Creating layer fc7
I0403 12:58:41.518156 31081 net.cpp:91] Creating Layer fc7
I0403 12:58:41.518173 31081 net.cpp:425] fc7 <- fc6
I0403 12:58:41.518194 31081 net.cpp:399] fc7 -> fc7
I0403 12:58:42.211215 31081 net.cpp:141] Setting up fc7
I0403 12:58:42.211307 31081 net.cpp:148] Top shape: 100 4096 (409600)
I0403 12:58:42.211324 31081 net.cpp:156] Memory required for data: 828249200
I0403 12:58:42.211346 31081 layer_factory.hpp:77] Creating layer relu7
I0403 12:58:42.211369 31081 net.cpp:91] Creating Layer relu7
I0403 12:58:42.211388 31081 net.cpp:425] relu7 <- fc7
I0403 12:58:42.211410 31081 net.cpp:386] relu7 -> fc7 (in-place)
I0403 12:58:42.211827 31081 net.cpp:141] Setting up relu7
I0403 12:58:42.211854 31081 net.cpp:148] Top shape: 100 4096 (409600)
I0403 12:58:42.211905 31081 net.cpp:156] Memory required for data: 829887600
I0403 12:58:42.211921 31081 layer_factory.hpp:77] Creating layer drop7
I0403 12:58:42.211941 31081 net.cpp:91] Creating Layer drop7
I0403 12:58:42.211956 31081 net.cpp:425] drop7 <- fc7
I0403 12:58:42.211977 31081 net.cpp:386] drop7 -> fc7 (in-place)
I0403 12:58:42.212023 31081 net.cpp:141] Setting up drop7
I0403 12:58:42.212047 31081 net.cpp:148] Top shape: 100 4096 (409600)
I0403 12:58:42.212064 31081 net.cpp:156] Memory required for data: 831526000
I0403 12:58:42.212080 31081 layer_factory.hpp:77] Creating layer fc8_plantvillage
I0403 12:58:42.212100 31081 net.cpp:91] Creating Layer fc8_plantvillage
I0403 12:58:42.212116 31081 net.cpp:425] fc8_plantvillage <- fc7
I0403 12:58:42.212139 31081 net.cpp:399] fc8_plantvillage -> fc8_plantvillage
I0403 12:58:42.219105 31081 net.cpp:141] Setting up fc8_plantvillage
I0403 12:58:42.219135 31081 net.cpp:148] Top shape: 100 38 (3800)
I0403 12:58:42.219151 31081 net.cpp:156] Memory required for data: 831541200
I0403 12:58:42.219172 31081 layer_factory.hpp:77] Creating layer fc8_plantvillage_fc8_plantvillage_0_split
I0403 12:58:42.219192 31081 net.cpp:91] Creating Layer fc8_plantvillage_fc8_plantvillage_0_split
I0403 12:58:42.219221 31081 net.cpp:425] fc8_plantvillage_fc8_plantvillage_0_split <- fc8_plantvillage
I0403 12:58:42.219245 31081 net.cpp:399] fc8_plantvillage_fc8_plantvillage_0_split -> fc8_plantvillage_fc8_plantvillage_0_split_0
I0403 12:58:42.219269 31081 net.cpp:399] fc8_plantvillage_fc8_plantvillage_0_split -> fc8_plantvillage_fc8_plantvillage_0_split_1
I0403 12:58:42.219290 31081 net.cpp:399] fc8_plantvillage_fc8_plantvillage_0_split -> fc8_plantvillage_fc8_plantvillage_0_split_2
I0403 12:58:42.219370 31081 net.cpp:141] Setting up fc8_plantvillage_fc8_plantvillage_0_split
I0403 12:58:42.219396 31081 net.cpp:148] Top shape: 100 38 (3800)
I0403 12:58:42.219414 31081 net.cpp:148] Top shape: 100 38 (3800)
I0403 12:58:42.219431 31081 net.cpp:148] Top shape: 100 38 (3800)
I0403 12:58:42.219445 31081 net.cpp:156] Memory required for data: 831586800
I0403 12:58:42.219461 31081 layer_factory.hpp:77] Creating layer prob
I0403 12:58:42.219480 31081 net.cpp:91] Creating Layer prob
I0403 12:58:42.219496 31081 net.cpp:425] prob <- fc8_plantvillage_fc8_plantvillage_0_split_0
I0403 12:58:42.219514 31081 net.cpp:399] prob -> prob
I0403 12:58:42.219750 31081 net.cpp:141] Setting up prob
I0403 12:58:42.219777 31081 net.cpp:148] Top shape: 100 38 (3800)
I0403 12:58:42.219794 31081 net.cpp:156] Memory required for data: 831602000
I0403 12:58:42.219810 31081 layer_factory.hpp:77] Creating layer hdf5out
I0403 12:58:42.219828 31081 net.cpp:91] Creating Layer hdf5out
I0403 12:58:42.219844 31081 net.cpp:425] hdf5out <- prob
I0403 12:58:42.219861 31081 net.cpp:425] hdf5out <- label_data_1_split_0
I0403 12:58:42.222055 31081 net.cpp:141] Setting up hdf5out
…
