…
I0403 12:55:41.640478 31009 net.cpp:313] The NetState phase (1) differed from the phase (0) specified by a rule in layer data
I0403 12:55:41.640799 31009 net.cpp:49] Initializing net from parameters: 
state {
  phase: TEST
}
layer {
  name: "data"
  type: "Data"
  top: "data"
  top: "label"
  include {
    phase: TEST
  }
  transform_param {
    crop_size: 227
    mean_file: "/home/mohanty/data/final_dataset/lmdb/segmented-40-60/mean.binaryproto"
  }
  data_param {
    source: "/home/mohanty/data/final_dataset/lmdb/segmented-40-60/test_db"
    batch_size: 100
    backend: LMDB
  }
}
layer {
  name: "conv1"
  type: "Convolution"
  bottom: "data"
  top: "conv1"
  param {
    lr_mult: 1
    decay_mult: 1
  }
  param {
    lr_mult: 2
    decay_mult: 0
  }
  convolution_param {
    num_output: 96
    kernel_size: 11
    stride: 4
    weight_filler {
      type: "gaussian"
      std: 0.01
    }
    bias_filler {
      type: "constant"
      value: 0
    }
  }
}
layer {
  name: "relu1"
  type: "ReLU"
  bottom: "conv1"
  top: "conv1"
}
layer {
  name: "norm1"
  type: "LRN"
  bottom: "conv1"
  top: "norm1"
  lrn_param {
    local_size: 5
    alpha: 0.0001
    beta: 0.75
  }
}
layer {
  name: "pool1"
  type: "Pooling"
  bottom: "norm1"
  top: "pool1"
  pooling_param {
    pool: MAX
    kernel_size: 3
    stride: 2
  }
}
layer {
  name: "conv2"
  type: "Convolution"
  bottom: "pool1"
  top: "conv2"
  param {
    lr_mult: 1
    decay_mult: 1
  }
  param {
    lr_mult: 2
    decay_mult: 0
  }
  convolution_param {
    num_output: 256
    pad: 2
    kernel_size: 5
    group: 2
    weight_filler {
      type: "gaussian"
      std: 0.01
    }
    bias_filler {
      type: "constant"
      value: 0.1
    }
  }
}
layer {
  name: "relu2"
  type: "ReLU"
  bottom: "conv2"
  top: "conv2"
}
layer {
  name: "norm2"
  type: "LRN"
  bottom: "conv2"
  top: "norm2"
  lrn_param {
    local_size: 5
    alpha: 0.0001
    beta: 0.75
  }
}
layer {
  name: "pool2"
  type: "Pooling"
  bottom: "norm2"
  top: "pool2"
  pooling_param {
    pool: MAX
    kernel_size: 3
    stride: 2
  }
}
layer {
  name: "conv3"
  type: "Convolution"
  bottom: "pool2"
  top: "conv3"
  param {
    lr_mult: 1
    decay_mult: 1
  }
  param {
    lr_mult: 2
    decay_mult: 0
  }
  convolution_param {
    num_output: 384
    pad: 1
    kernel_size: 3
    weight_filler {
      type: "gaussian"
      std: 0.01
    }
    bias_filler {
      type: "constant"
      value: 0
    }
  }
}
layer {
  name: "relu3"
  type: "ReLU"
  bottom: "conv3"
  top: "conv3"
}
layer {
  name: "conv4"
  type: "Convolution"
  bottom: "conv3"
  top: "conv4"
  param {
    lr_mult: 1
    decay_mult: 1
  }
  param {
    lr_mult: 2
    decay_mult: 0
  }
  convolution_param {
    num_output: 384
    pad: 1
    kernel_size: 3
    group: 2
    weight_filler {
      type: "gaussian"
      std: 0.01
    }
    bias_filler {
      type: "constant"
      value: 0.1
    }
  }
}
layer {
  name: "relu4"
  type: "ReLU"
  bottom: "conv4"
  top: "conv4"
}
layer {
  name: "conv5"
  type: "Convolution"
  bottom: "conv4"
  top: "conv5"
  param {
    lr_mult: 1
    decay_mult: 1
  }
  param {
    lr_mult: 2
    decay_mult: 0
  }
  convolution_param {
    num_output: 256
    pad: 1
    kernel_size: 3
    group: 2
    weight_filler {
      type: "gaussian"
      std: 0.01
    }
    bias_filler {
      type: "constant"
      value: 0.1
    }
  }
}
layer {
  name: "relu5"
  type: "ReLU"
  bottom: "conv5"
  top: "conv5"
}
layer {
  name: "pool5"
  type: "Pooling"
  bottom: "conv5"
  top: "pool5"
  pooling_param {
    pool: MAX
    kernel_size: 3
    stride: 2
  }
}
layer {
  name: "fc6"
  type: "InnerProduct"
  bottom: "pool5"
  top: "fc6"
  param {
    lr_mult: 1
    decay_mult: 1
  }
  param {
    lr_mult: 2
    decay_mult: 0
  }
  inner_product_param {
    num_output: 4096
    weight_filler {
      type: "gaussian"
      std: 0.005
    }
    bias_filler {
      type: "constant"
      value: 0.1
    }
  }
}
layer {
  name: "relu6"
  type: "ReLU"
  bottom: "fc6"
  top: "fc6"
}
layer {
  name: "drop6"
  type: "Dropout"
  bottom: "fc6"
  top: "fc6"
  dropout_param {
    dropout_ratio: 0.5
  }
}
layer {
  name: "fc7"
  type: "InnerProduct"
  bottom: "fc6"
  top: "fc7"
  param {
    lr_mult: 1
    decay_mult: 1
  }
  param {
    lr_mult: 2
    decay_mult: 0
  }
  inner_product_param {
    num_output: 4096
    weight_filler {
      type: "gaussian"
      std: 0.005
    }
    bias_filler {
      type: "constant"
      value: 0.1
    }
  }
}
layer {
  name: "relu7"
  type: "ReLU"
  bottom: "fc7"
  top: "fc7"
}
layer {
  name: "drop7"
  type: "Dropout"
  bottom: "fc7"
  top: "fc7"
  dropout_param {
    dropout_ratio: 0.5
  }
}
layer {
  name: "fc8_plantvillage"
  type: "InnerProduct"
  bottom: "fc7"
  top: "fc8_plantvillage"
  param {
    lr_mult: 1
    decay_mult: 1
  }
  param {
    lr_mult: 2
    decay_mult: 0
  }
  inner_product_param {
    num_output: 38
    weight_filler {
      type: "gaussian"
      std: 0.01
    }
    bias_filler {
      type: "constant"
      value: 0
    }
  }
}
layer {
  name: "prob"
  type: "Softmax"
  bottom: "fc8_plantvillage"
  top: "prob"
  include {
    phase: TEST
  }
}
layer {
  name: "hdf5out"
  type: "HDF5Output"
  bottom: "prob"
  bottom: "label"
  include {
    phase: TEST
  }
  hdf5_output_param {
    file_name: "hdf5_dumps/iter_5037.h5"
  }
}
layer {
  name: "loss"
  type: "SoftmaxWithLoss"
  bottom: "fc8_plantvillage"
  bottom: "label"
  top: "loss"
}
layer {
  name: "accuracy"
  type: "Accuracy"
  bottom: "fc8_plantvillage"
  bottom: "label"
  top: "accuracy"
  include {
    phase: TEST
  }
}
I0403 12:55:41.641372 31009 layer_factory.hpp:77] Creating layer data
I0403 12:55:41.642024 31009 net.cpp:91] Creating Layer data
I0403 12:55:41.642060 31009 net.cpp:399] data -> data
I0403 12:55:41.642113 31009 net.cpp:399] data -> label
I0403 12:55:41.642150 31009 data_transformer.cpp:25] Loading mean file from: /home/mohanty/data/final_dataset/lmdb/segmented-40-60/mean.binaryproto
I0403 12:55:41.643282 31013 db_lmdb.cpp:38] Opened lmdb /home/mohanty/data/final_dataset/lmdb/segmented-40-60/test_db
I0403 12:55:41.656661 31009 data_layer.cpp:41] output data size: 100,3,227,227
I0403 12:55:41.781708 31009 net.cpp:141] Setting up data
I0403 12:55:41.781816 31009 net.cpp:148] Top shape: 100 3 227 227 (15458700)
I0403 12:55:41.781839 31009 net.cpp:148] Top shape: 100 (100)
I0403 12:55:41.781855 31009 net.cpp:156] Memory required for data: 61835200
I0403 12:55:41.781884 31009 layer_factory.hpp:77] Creating layer label_data_1_split
I0403 12:55:41.781910 31009 net.cpp:91] Creating Layer label_data_1_split
I0403 12:55:41.781929 31009 net.cpp:425] label_data_1_split <- label
I0403 12:55:41.781961 31009 net.cpp:399] label_data_1_split -> label_data_1_split_0
I0403 12:55:41.781990 31009 net.cpp:399] label_data_1_split -> label_data_1_split_1
I0403 12:55:41.782011 31009 net.cpp:399] label_data_1_split -> label_data_1_split_2
I0403 12:55:41.782078 31009 net.cpp:141] Setting up label_data_1_split
I0403 12:55:41.782101 31009 net.cpp:148] Top shape: 100 (100)
I0403 12:55:41.782119 31009 net.cpp:148] Top shape: 100 (100)
I0403 12:55:41.782136 31009 net.cpp:148] Top shape: 100 (100)
I0403 12:55:41.782151 31009 net.cpp:156] Memory required for data: 61836400
I0403 12:55:41.782166 31009 layer_factory.hpp:77] Creating layer conv1
I0403 12:55:41.782199 31009 net.cpp:91] Creating Layer conv1
I0403 12:55:41.782218 31009 net.cpp:425] conv1 <- data
I0403 12:55:41.782243 31009 net.cpp:399] conv1 -> conv1
I0403 12:55:41.923825 31009 net.cpp:141] Setting up conv1
I0403 12:55:41.923915 31009 net.cpp:148] Top shape: 100 96 55 55 (29040000)
I0403 12:55:41.923934 31009 net.cpp:156] Memory required for data: 177996400
I0403 12:55:41.923967 31009 layer_factory.hpp:77] Creating layer relu1
I0403 12:55:41.923996 31009 net.cpp:91] Creating Layer relu1
I0403 12:55:41.924015 31009 net.cpp:425] relu1 <- conv1
I0403 12:55:41.924037 31009 net.cpp:386] relu1 -> conv1 (in-place)
I0403 12:55:41.924319 31009 net.cpp:141] Setting up relu1
I0403 12:55:41.924347 31009 net.cpp:148] Top shape: 100 96 55 55 (29040000)
I0403 12:55:41.924392 31009 net.cpp:156] Memory required for data: 294156400
I0403 12:55:41.924409 31009 layer_factory.hpp:77] Creating layer norm1
I0403 12:55:41.924439 31009 net.cpp:91] Creating Layer norm1
I0403 12:55:41.924458 31009 net.cpp:425] norm1 <- conv1
I0403 12:55:41.924476 31009 net.cpp:399] norm1 -> norm1
I0403 12:55:41.924806 31009 net.cpp:141] Setting up norm1
I0403 12:55:41.924835 31009 net.cpp:148] Top shape: 100 96 55 55 (29040000)
I0403 12:55:41.924851 31009 net.cpp:156] Memory required for data: 410316400
I0403 12:55:41.924867 31009 layer_factory.hpp:77] Creating layer pool1
I0403 12:55:41.924892 31009 net.cpp:91] Creating Layer pool1
I0403 12:55:41.924911 31009 net.cpp:425] pool1 <- norm1
I0403 12:55:41.924928 31009 net.cpp:399] pool1 -> pool1
I0403 12:55:41.925005 31009 net.cpp:141] Setting up pool1
I0403 12:55:41.925029 31009 net.cpp:148] Top shape: 100 96 27 27 (6998400)
I0403 12:55:41.925045 31009 net.cpp:156] Memory required for data: 438310000
I0403 12:55:41.925060 31009 layer_factory.hpp:77] Creating layer conv2
I0403 12:55:41.925087 31009 net.cpp:91] Creating Layer conv2
I0403 12:55:41.925106 31009 net.cpp:425] conv2 <- pool1
I0403 12:55:41.925127 31009 net.cpp:399] conv2 -> conv2
I0403 12:55:41.940273 31009 net.cpp:141] Setting up conv2
I0403 12:55:41.940325 31009 net.cpp:148] Top shape: 100 256 27 27 (18662400)
I0403 12:55:41.940341 31009 net.cpp:156] Memory required for data: 512959600
I0403 12:55:41.940367 31009 layer_factory.hpp:77] Creating layer relu2
I0403 12:55:41.940388 31009 net.cpp:91] Creating Layer relu2
I0403 12:55:41.940404 31009 net.cpp:425] relu2 <- conv2
I0403 12:55:41.940423 31009 net.cpp:386] relu2 -> conv2 (in-place)
I0403 12:55:41.940696 31009 net.cpp:141] Setting up relu2
I0403 12:55:41.940726 31009 net.cpp:148] Top shape: 100 256 27 27 (18662400)
I0403 12:55:41.940742 31009 net.cpp:156] Memory required for data: 587609200
I0403 12:55:41.940757 31009 layer_factory.hpp:77] Creating layer norm2
I0403 12:55:41.940778 31009 net.cpp:91] Creating Layer norm2
I0403 12:55:41.940795 31009 net.cpp:425] norm2 <- conv2
I0403 12:55:41.940815 31009 net.cpp:399] norm2 -> norm2
I0403 12:55:41.941011 31009 net.cpp:141] Setting up norm2
I0403 12:55:41.941037 31009 net.cpp:148] Top shape: 100 256 27 27 (18662400)
I0403 12:55:41.941052 31009 net.cpp:156] Memory required for data: 662258800
I0403 12:55:41.941067 31009 layer_factory.hpp:77] Creating layer pool2
I0403 12:55:41.941087 31009 net.cpp:91] Creating Layer pool2
I0403 12:55:41.941104 31009 net.cpp:425] pool2 <- norm2
I0403 12:55:41.941121 31009 net.cpp:399] pool2 -> pool2
I0403 12:55:41.941186 31009 net.cpp:141] Setting up pool2
I0403 12:55:41.941211 31009 net.cpp:148] Top shape: 100 256 13 13 (4326400)
I0403 12:55:41.941227 31009 net.cpp:156] Memory required for data: 679564400
I0403 12:55:41.941247 31009 layer_factory.hpp:77] Creating layer conv3
I0403 12:55:41.941273 31009 net.cpp:91] Creating Layer conv3
I0403 12:55:41.941292 31009 net.cpp:425] conv3 <- pool2
I0403 12:55:41.941313 31009 net.cpp:399] conv3 -> conv3
I0403 12:55:41.979851 31009 net.cpp:141] Setting up conv3
I0403 12:55:41.979933 31009 net.cpp:148] Top shape: 100 384 13 13 (6489600)
I0403 12:55:41.979950 31009 net.cpp:156] Memory required for data: 705522800
I0403 12:55:41.979976 31009 layer_factory.hpp:77] Creating layer relu3
I0403 12:55:41.980002 31009 net.cpp:91] Creating Layer relu3
I0403 12:55:41.980021 31009 net.cpp:425] relu3 <- conv3
I0403 12:55:41.980041 31009 net.cpp:386] relu3 -> conv3 (in-place)
I0403 12:55:41.980312 31009 net.cpp:141] Setting up relu3
I0403 12:55:41.980376 31009 net.cpp:148] Top shape: 100 384 13 13 (6489600)
I0403 12:55:41.980394 31009 net.cpp:156] Memory required for data: 731481200
I0403 12:55:41.980409 31009 layer_factory.hpp:77] Creating layer conv4
I0403 12:55:41.980435 31009 net.cpp:91] Creating Layer conv4
I0403 12:55:41.980453 31009 net.cpp:425] conv4 <- conv3
I0403 12:55:41.980474 31009 net.cpp:399] conv4 -> conv4
I0403 12:55:42.010710 31009 net.cpp:141] Setting up conv4
I0403 12:55:42.010783 31009 net.cpp:148] Top shape: 100 384 13 13 (6489600)
I0403 12:55:42.010831 31009 net.cpp:156] Memory required for data: 757439600
I0403 12:55:42.010854 31009 layer_factory.hpp:77] Creating layer relu4
I0403 12:55:42.010879 31009 net.cpp:91] Creating Layer relu4
I0403 12:55:42.010895 31009 net.cpp:425] relu4 <- conv4
I0403 12:55:42.010918 31009 net.cpp:386] relu4 -> conv4 (in-place)
I0403 12:55:42.011209 31009 net.cpp:141] Setting up relu4
I0403 12:55:42.011235 31009 net.cpp:148] Top shape: 100 384 13 13 (6489600)
I0403 12:55:42.011256 31009 net.cpp:156] Memory required for data: 783398000
I0403 12:55:42.011272 31009 layer_factory.hpp:77] Creating layer conv5
I0403 12:55:42.011301 31009 net.cpp:91] Creating Layer conv5
I0403 12:55:42.011319 31009 net.cpp:425] conv5 <- conv4
I0403 12:55:42.011342 31009 net.cpp:399] conv5 -> conv5
I0403 12:55:42.032393 31009 net.cpp:141] Setting up conv5
I0403 12:55:42.032457 31009 net.cpp:148] Top shape: 100 256 13 13 (4326400)
I0403 12:55:42.032474 31009 net.cpp:156] Memory required for data: 800703600
I0403 12:55:42.032501 31009 layer_factory.hpp:77] Creating layer relu5
I0403 12:55:42.032527 31009 net.cpp:91] Creating Layer relu5
I0403 12:55:42.032546 31009 net.cpp:425] relu5 <- conv5
I0403 12:55:42.032565 31009 net.cpp:386] relu5 -> conv5 (in-place)
I0403 12:55:42.032892 31009 net.cpp:141] Setting up relu5
I0403 12:55:42.032920 31009 net.cpp:148] Top shape: 100 256 13 13 (4326400)
I0403 12:55:42.032937 31009 net.cpp:156] Memory required for data: 818009200
I0403 12:55:42.032951 31009 layer_factory.hpp:77] Creating layer pool5
I0403 12:55:42.032976 31009 net.cpp:91] Creating Layer pool5
I0403 12:55:42.032994 31009 net.cpp:425] pool5 <- conv5
I0403 12:55:42.033013 31009 net.cpp:399] pool5 -> pool5
I0403 12:55:42.033077 31009 net.cpp:141] Setting up pool5
I0403 12:55:42.033100 31009 net.cpp:148] Top shape: 100 256 6 6 (921600)
I0403 12:55:42.033116 31009 net.cpp:156] Memory required for data: 821695600
I0403 12:55:42.033131 31009 layer_factory.hpp:77] Creating layer fc6
I0403 12:55:42.033161 31009 net.cpp:91] Creating Layer fc6
I0403 12:55:42.033180 31009 net.cpp:425] fc6 <- pool5
I0403 12:55:42.033200 31009 net.cpp:399] fc6 -> fc6
I0403 12:55:43.600908 31009 net.cpp:141] Setting up fc6
I0403 12:55:43.600993 31009 net.cpp:148] Top shape: 100 4096 (409600)
I0403 12:55:43.601009 31009 net.cpp:156] Memory required for data: 823334000
I0403 12:55:43.601030 31009 layer_factory.hpp:77] Creating layer relu6
I0403 12:55:43.601052 31009 net.cpp:91] Creating Layer relu6
I0403 12:55:43.601068 31009 net.cpp:425] relu6 <- fc6
I0403 12:55:43.601090 31009 net.cpp:386] relu6 -> fc6 (in-place)
I0403 12:55:43.601315 31009 net.cpp:141] Setting up relu6
I0403 12:55:43.601339 31009 net.cpp:148] Top shape: 100 4096 (409600)
I0403 12:55:43.601353 31009 net.cpp:156] Memory required for data: 824972400
I0403 12:55:43.601368 31009 layer_factory.hpp:77] Creating layer drop6
I0403 12:55:43.601389 31009 net.cpp:91] Creating Layer drop6
I0403 12:55:43.601405 31009 net.cpp:425] drop6 <- fc6
I0403 12:55:43.601423 31009 net.cpp:386] drop6 -> fc6 (in-place)
I0403 12:55:43.601475 31009 net.cpp:141] Setting up drop6
I0403 12:55:43.601496 31009 net.cpp:148] Top shape: 100 4096 (409600)
I0403 12:55:43.601511 31009 net.cpp:156] Memory required for data: 826610800
I0403 12:55:43.601526 31009 layer_factory.hpp:77] Creating layer fc7
I0403 12:55:43.601544 31009 net.cpp:91] Creating Layer fc7
I0403 12:55:43.601559 31009 net.cpp:425] fc7 <- fc6
I0403 12:55:43.601579 31009 net.cpp:399] fc7 -> fc7
I0403 12:55:44.291093 31009 net.cpp:141] Setting up fc7
I0403 12:55:44.291162 31009 net.cpp:148] Top shape: 100 4096 (409600)
I0403 12:55:44.291177 31009 net.cpp:156] Memory required for data: 828249200
I0403 12:55:44.291198 31009 layer_factory.hpp:77] Creating layer relu7
I0403 12:55:44.291224 31009 net.cpp:91] Creating Layer relu7
I0403 12:55:44.291246 31009 net.cpp:425] relu7 <- fc7
I0403 12:55:44.291267 31009 net.cpp:386] relu7 -> fc7 (in-place)
I0403 12:55:44.291698 31009 net.cpp:141] Setting up relu7
I0403 12:55:44.291725 31009 net.cpp:148] Top shape: 100 4096 (409600)
I0403 12:55:44.291781 31009 net.cpp:156] Memory required for data: 829887600
I0403 12:55:44.291797 31009 layer_factory.hpp:77] Creating layer drop7
I0403 12:55:44.291815 31009 net.cpp:91] Creating Layer drop7
I0403 12:55:44.291831 31009 net.cpp:425] drop7 <- fc7
I0403 12:55:44.291851 31009 net.cpp:386] drop7 -> fc7 (in-place)
I0403 12:55:44.291895 31009 net.cpp:141] Setting up drop7
I0403 12:55:44.291918 31009 net.cpp:148] Top shape: 100 4096 (409600)
I0403 12:55:44.291931 31009 net.cpp:156] Memory required for data: 831526000
I0403 12:55:44.291945 31009 layer_factory.hpp:77] Creating layer fc8_plantvillage
I0403 12:55:44.291965 31009 net.cpp:91] Creating Layer fc8_plantvillage
I0403 12:55:44.291980 31009 net.cpp:425] fc8_plantvillage <- fc7
I0403 12:55:44.292001 31009 net.cpp:399] fc8_plantvillage -> fc8_plantvillage
I0403 12:55:44.298714 31009 net.cpp:141] Setting up fc8_plantvillage
I0403 12:55:44.298745 31009 net.cpp:148] Top shape: 100 38 (3800)
I0403 12:55:44.298763 31009 net.cpp:156] Memory required for data: 831541200
I0403 12:55:44.298781 31009 layer_factory.hpp:77] Creating layer fc8_plantvillage_fc8_plantvillage_0_split
I0403 12:55:44.298810 31009 net.cpp:91] Creating Layer fc8_plantvillage_fc8_plantvillage_0_split
I0403 12:55:44.298826 31009 net.cpp:425] fc8_plantvillage_fc8_plantvillage_0_split <- fc8_plantvillage
I0403 12:55:44.298843 31009 net.cpp:399] fc8_plantvillage_fc8_plantvillage_0_split -> fc8_plantvillage_fc8_plantvillage_0_split_0
I0403 12:55:44.298862 31009 net.cpp:399] fc8_plantvillage_fc8_plantvillage_0_split -> fc8_plantvillage_fc8_plantvillage_0_split_1
I0403 12:55:44.298882 31009 net.cpp:399] fc8_plantvillage_fc8_plantvillage_0_split -> fc8_plantvillage_fc8_plantvillage_0_split_2
I0403 12:55:44.298957 31009 net.cpp:141] Setting up fc8_plantvillage_fc8_plantvillage_0_split
I0403 12:55:44.298980 31009 net.cpp:148] Top shape: 100 38 (3800)
I0403 12:55:44.298996 31009 net.cpp:148] Top shape: 100 38 (3800)
I0403 12:55:44.299012 31009 net.cpp:148] Top shape: 100 38 (3800)
I0403 12:55:44.299026 31009 net.cpp:156] Memory required for data: 831586800
I0403 12:55:44.299039 31009 layer_factory.hpp:77] Creating layer prob
I0403 12:55:44.299057 31009 net.cpp:91] Creating Layer prob
I0403 12:55:44.299072 31009 net.cpp:425] prob <- fc8_plantvillage_fc8_plantvillage_0_split_0
I0403 12:55:44.299090 31009 net.cpp:399] prob -> prob
I0403 12:55:44.299315 31009 net.cpp:141] Setting up prob
I0403 12:55:44.299340 31009 net.cpp:148] Top shape: 100 38 (3800)
I0403 12:55:44.299355 31009 net.cpp:156] Memory required for data: 831602000
I0403 12:55:44.299370 31009 layer_factory.hpp:77] Creating layer hdf5out
I0403 12:55:44.299391 31009 net.cpp:91] Creating Layer hdf5out
I0403 12:55:44.299408 31009 net.cpp:425] hdf5out <- prob
I0403 12:55:44.299424 31009 net.cpp:425] hdf5out <- label_data_1_split_0
I0403 12:55:44.302014 31009 net.cpp:141] Setting up hdf5out
…
