…
I0403 12:44:51.679893 30734 net.cpp:313] The NetState phase (1) differed from the phase (0) specified by a rule in layer data
I0403 12:44:51.680202 30734 net.cpp:49] Initializing net from parameters: 
state {
  phase: TEST
}
layer {
  name: "data"
  type: "Data"
  top: "data"
  top: "label"
  include {
    phase: TEST
  }
  transform_param {
    crop_size: 227
    mean_file: "/home/mohanty/data/final_dataset/lmdb/segmented-40-60/mean.binaryproto"
  }
  data_param {
    source: "/home/mohanty/data/final_dataset/lmdb/segmented-40-60/test_db"
    batch_size: 100
    backend: LMDB
  }
}
layer {
  name: "conv1"
  type: "Convolution"
  bottom: "data"
  top: "conv1"
  param {
    lr_mult: 1
    decay_mult: 1
  }
  param {
    lr_mult: 2
    decay_mult: 0
  }
  convolution_param {
    num_output: 96
    kernel_size: 11
    stride: 4
    weight_filler {
      type: "gaussian"
      std: 0.01
    }
    bias_filler {
      type: "constant"
      value: 0
    }
  }
}
layer {
  name: "relu1"
  type: "ReLU"
  bottom: "conv1"
  top: "conv1"
}
layer {
  name: "norm1"
  type: "LRN"
  bottom: "conv1"
  top: "norm1"
  lrn_param {
    local_size: 5
    alpha: 0.0001
    beta: 0.75
  }
}
layer {
  name: "pool1"
  type: "Pooling"
  bottom: "norm1"
  top: "pool1"
  pooling_param {
    pool: MAX
    kernel_size: 3
    stride: 2
  }
}
layer {
  name: "conv2"
  type: "Convolution"
  bottom: "pool1"
  top: "conv2"
  param {
    lr_mult: 1
    decay_mult: 1
  }
  param {
    lr_mult: 2
    decay_mult: 0
  }
  convolution_param {
    num_output: 256
    pad: 2
    kernel_size: 5
    group: 2
    weight_filler {
      type: "gaussian"
      std: 0.01
    }
    bias_filler {
      type: "constant"
      value: 0.1
    }
  }
}
layer {
  name: "relu2"
  type: "ReLU"
  bottom: "conv2"
  top: "conv2"
}
layer {
  name: "norm2"
  type: "LRN"
  bottom: "conv2"
  top: "norm2"
  lrn_param {
    local_size: 5
    alpha: 0.0001
    beta: 0.75
  }
}
layer {
  name: "pool2"
  type: "Pooling"
  bottom: "norm2"
  top: "pool2"
  pooling_param {
    pool: MAX
    kernel_size: 3
    stride: 2
  }
}
layer {
  name: "conv3"
  type: "Convolution"
  bottom: "pool2"
  top: "conv3"
  param {
    lr_mult: 1
    decay_mult: 1
  }
  param {
    lr_mult: 2
    decay_mult: 0
  }
  convolution_param {
    num_output: 384
    pad: 1
    kernel_size: 3
    weight_filler {
      type: "gaussian"
      std: 0.01
    }
    bias_filler {
      type: "constant"
      value: 0
    }
  }
}
layer {
  name: "relu3"
  type: "ReLU"
  bottom: "conv3"
  top: "conv3"
}
layer {
  name: "conv4"
  type: "Convolution"
  bottom: "conv3"
  top: "conv4"
  param {
    lr_mult: 1
    decay_mult: 1
  }
  param {
    lr_mult: 2
    decay_mult: 0
  }
  convolution_param {
    num_output: 384
    pad: 1
    kernel_size: 3
    group: 2
    weight_filler {
      type: "gaussian"
      std: 0.01
    }
    bias_filler {
      type: "constant"
      value: 0.1
    }
  }
}
layer {
  name: "relu4"
  type: "ReLU"
  bottom: "conv4"
  top: "conv4"
}
layer {
  name: "conv5"
  type: "Convolution"
  bottom: "conv4"
  top: "conv5"
  param {
    lr_mult: 1
    decay_mult: 1
  }
  param {
    lr_mult: 2
    decay_mult: 0
  }
  convolution_param {
    num_output: 256
    pad: 1
    kernel_size: 3
    group: 2
    weight_filler {
      type: "gaussian"
      std: 0.01
    }
    bias_filler {
      type: "constant"
      value: 0.1
    }
  }
}
layer {
  name: "relu5"
  type: "ReLU"
  bottom: "conv5"
  top: "conv5"
}
layer {
  name: "pool5"
  type: "Pooling"
  bottom: "conv5"
  top: "pool5"
  pooling_param {
    pool: MAX
    kernel_size: 3
    stride: 2
  }
}
layer {
  name: "fc6"
  type: "InnerProduct"
  bottom: "pool5"
  top: "fc6"
  param {
    lr_mult: 1
    decay_mult: 1
  }
  param {
    lr_mult: 2
    decay_mult: 0
  }
  inner_product_param {
    num_output: 4096
    weight_filler {
      type: "gaussian"
      std: 0.005
    }
    bias_filler {
      type: "constant"
      value: 0.1
    }
  }
}
layer {
  name: "relu6"
  type: "ReLU"
  bottom: "fc6"
  top: "fc6"
}
layer {
  name: "drop6"
  type: "Dropout"
  bottom: "fc6"
  top: "fc6"
  dropout_param {
    dropout_ratio: 0.5
  }
}
layer {
  name: "fc7"
  type: "InnerProduct"
  bottom: "fc6"
  top: "fc7"
  param {
    lr_mult: 1
    decay_mult: 1
  }
  param {
    lr_mult: 2
    decay_mult: 0
  }
  inner_product_param {
    num_output: 4096
    weight_filler {
      type: "gaussian"
      std: 0.005
    }
    bias_filler {
      type: "constant"
      value: 0.1
    }
  }
}
layer {
  name: "relu7"
  type: "ReLU"
  bottom: "fc7"
  top: "fc7"
}
layer {
  name: "drop7"
  type: "Dropout"
  bottom: "fc7"
  top: "fc7"
  dropout_param {
    dropout_ratio: 0.5
  }
}
layer {
  name: "fc8_plantvillage"
  type: "InnerProduct"
  bottom: "fc7"
  top: "fc8_plantvillage"
  param {
    lr_mult: 1
    decay_mult: 1
  }
  param {
    lr_mult: 2
    decay_mult: 0
  }
  inner_product_param {
    num_output: 38
    weight_filler {
      type: "gaussian"
      std: 0.01
    }
    bias_filler {
      type: "constant"
      value: 0
    }
  }
}
layer {
  name: "prob"
  type: "Softmax"
  bottom: "fc8_plantvillage"
  top: "prob"
  include {
    phase: TEST
  }
}
layer {
  name: "hdf5out"
  type: "HDF5Output"
  bottom: "prob"
  bottom: "label"
  include {
    phase: TEST
  }
  hdf5_output_param {
    file_name: "hdf5_dumps/iter_2628.h5"
  }
}
layer {
  name: "loss"
  type: "SoftmaxWithLoss"
  bottom: "fc8_plantvillage"
  bottom: "label"
  top: "loss"
}
layer {
  name: "accuracy"
  type: "Accuracy"
  bottom: "fc8_plantvillage"
  bottom: "label"
  top: "accuracy"
  include {
    phase: TEST
  }
}
I0403 12:44:51.680806 30734 layer_factory.hpp:77] Creating layer data
I0403 12:44:51.681463 30734 net.cpp:91] Creating Layer data
I0403 12:44:51.681494 30734 net.cpp:399] data -> data
I0403 12:44:51.681551 30734 net.cpp:399] data -> label
I0403 12:44:51.681588 30734 data_transformer.cpp:25] Loading mean file from: /home/mohanty/data/final_dataset/lmdb/segmented-40-60/mean.binaryproto
I0403 12:44:51.682759 30737 db_lmdb.cpp:38] Opened lmdb /home/mohanty/data/final_dataset/lmdb/segmented-40-60/test_db
I0403 12:44:51.696255 30734 data_layer.cpp:41] output data size: 100,3,227,227
I0403 12:44:51.818740 30734 net.cpp:141] Setting up data
I0403 12:44:51.818846 30734 net.cpp:148] Top shape: 100 3 227 227 (15458700)
I0403 12:44:51.818869 30734 net.cpp:148] Top shape: 100 (100)
I0403 12:44:51.818884 30734 net.cpp:156] Memory required for data: 61835200
I0403 12:44:51.818912 30734 layer_factory.hpp:77] Creating layer label_data_1_split
I0403 12:44:51.818938 30734 net.cpp:91] Creating Layer label_data_1_split
I0403 12:44:51.818956 30734 net.cpp:425] label_data_1_split <- label
I0403 12:44:51.818989 30734 net.cpp:399] label_data_1_split -> label_data_1_split_0
I0403 12:44:51.819016 30734 net.cpp:399] label_data_1_split -> label_data_1_split_1
I0403 12:44:51.819037 30734 net.cpp:399] label_data_1_split -> label_data_1_split_2
I0403 12:44:51.819102 30734 net.cpp:141] Setting up label_data_1_split
I0403 12:44:51.819124 30734 net.cpp:148] Top shape: 100 (100)
I0403 12:44:51.819141 30734 net.cpp:148] Top shape: 100 (100)
I0403 12:44:51.819157 30734 net.cpp:148] Top shape: 100 (100)
I0403 12:44:51.819181 30734 net.cpp:156] Memory required for data: 61836400
I0403 12:44:51.819196 30734 layer_factory.hpp:77] Creating layer conv1
I0403 12:44:51.819228 30734 net.cpp:91] Creating Layer conv1
I0403 12:44:51.819252 30734 net.cpp:425] conv1 <- data
I0403 12:44:51.819273 30734 net.cpp:399] conv1 -> conv1
I0403 12:44:51.962641 30734 net.cpp:141] Setting up conv1
I0403 12:44:51.962731 30734 net.cpp:148] Top shape: 100 96 55 55 (29040000)
I0403 12:44:51.962750 30734 net.cpp:156] Memory required for data: 177996400
I0403 12:44:51.962782 30734 layer_factory.hpp:77] Creating layer relu1
I0403 12:44:51.962810 30734 net.cpp:91] Creating Layer relu1
I0403 12:44:51.962828 30734 net.cpp:425] relu1 <- conv1
I0403 12:44:51.962849 30734 net.cpp:386] relu1 -> conv1 (in-place)
I0403 12:44:51.963146 30734 net.cpp:141] Setting up relu1
I0403 12:44:51.963176 30734 net.cpp:148] Top shape: 100 96 55 55 (29040000)
I0403 12:44:51.963222 30734 net.cpp:156] Memory required for data: 294156400
I0403 12:44:51.963248 30734 layer_factory.hpp:77] Creating layer norm1
I0403 12:44:51.963281 30734 net.cpp:91] Creating Layer norm1
I0403 12:44:51.963300 30734 net.cpp:425] norm1 <- conv1
I0403 12:44:51.963320 30734 net.cpp:399] norm1 -> norm1
I0403 12:44:51.963650 30734 net.cpp:141] Setting up norm1
I0403 12:44:51.963678 30734 net.cpp:148] Top shape: 100 96 55 55 (29040000)
I0403 12:44:51.963696 30734 net.cpp:156] Memory required for data: 410316400
I0403 12:44:51.963711 30734 layer_factory.hpp:77] Creating layer pool1
I0403 12:44:51.963735 30734 net.cpp:91] Creating Layer pool1
I0403 12:44:51.963753 30734 net.cpp:425] pool1 <- norm1
I0403 12:44:51.963771 30734 net.cpp:399] pool1 -> pool1
I0403 12:44:51.963841 30734 net.cpp:141] Setting up pool1
I0403 12:44:51.963865 30734 net.cpp:148] Top shape: 100 96 27 27 (6998400)
I0403 12:44:51.963881 30734 net.cpp:156] Memory required for data: 438310000
I0403 12:44:51.963894 30734 layer_factory.hpp:77] Creating layer conv2
I0403 12:44:51.963920 30734 net.cpp:91] Creating Layer conv2
I0403 12:44:51.963938 30734 net.cpp:425] conv2 <- pool1
I0403 12:44:51.963959 30734 net.cpp:399] conv2 -> conv2
I0403 12:44:51.979171 30734 net.cpp:141] Setting up conv2
I0403 12:44:51.979223 30734 net.cpp:148] Top shape: 100 256 27 27 (18662400)
I0403 12:44:51.979243 30734 net.cpp:156] Memory required for data: 512959600
I0403 12:44:51.979267 30734 layer_factory.hpp:77] Creating layer relu2
I0403 12:44:51.979306 30734 net.cpp:91] Creating Layer relu2
I0403 12:44:51.979326 30734 net.cpp:425] relu2 <- conv2
I0403 12:44:51.979343 30734 net.cpp:386] relu2 -> conv2 (in-place)
I0403 12:44:51.979699 30734 net.cpp:141] Setting up relu2
I0403 12:44:51.979727 30734 net.cpp:148] Top shape: 100 256 27 27 (18662400)
I0403 12:44:51.979742 30734 net.cpp:156] Memory required for data: 587609200
I0403 12:44:51.979755 30734 layer_factory.hpp:77] Creating layer norm2
I0403 12:44:51.979779 30734 net.cpp:91] Creating Layer norm2
I0403 12:44:51.979797 30734 net.cpp:425] norm2 <- conv2
I0403 12:44:51.979817 30734 net.cpp:399] norm2 -> norm2
I0403 12:44:51.980028 30734 net.cpp:141] Setting up norm2
I0403 12:44:51.980053 30734 net.cpp:148] Top shape: 100 256 27 27 (18662400)
I0403 12:44:51.980068 30734 net.cpp:156] Memory required for data: 662258800
I0403 12:44:51.980082 30734 layer_factory.hpp:77] Creating layer pool2
I0403 12:44:51.980100 30734 net.cpp:91] Creating Layer pool2
I0403 12:44:51.980115 30734 net.cpp:425] pool2 <- norm2
I0403 12:44:51.980134 30734 net.cpp:399] pool2 -> pool2
I0403 12:44:51.980190 30734 net.cpp:141] Setting up pool2
I0403 12:44:51.980211 30734 net.cpp:148] Top shape: 100 256 13 13 (4326400)
I0403 12:44:51.980226 30734 net.cpp:156] Memory required for data: 679564400
I0403 12:44:51.980243 30734 layer_factory.hpp:77] Creating layer conv3
I0403 12:44:51.980268 30734 net.cpp:91] Creating Layer conv3
I0403 12:44:51.980285 30734 net.cpp:425] conv3 <- pool2
I0403 12:44:51.980305 30734 net.cpp:399] conv3 -> conv3
I0403 12:44:52.019305 30734 net.cpp:141] Setting up conv3
I0403 12:44:52.019387 30734 net.cpp:148] Top shape: 100 384 13 13 (6489600)
I0403 12:44:52.019403 30734 net.cpp:156] Memory required for data: 705522800
I0403 12:44:52.019430 30734 layer_factory.hpp:77] Creating layer relu3
I0403 12:44:52.019455 30734 net.cpp:91] Creating Layer relu3
I0403 12:44:52.019474 30734 net.cpp:425] relu3 <- conv3
I0403 12:44:52.019495 30734 net.cpp:386] relu3 -> conv3 (in-place)
I0403 12:44:52.019778 30734 net.cpp:141] Setting up relu3
I0403 12:44:52.019804 30734 net.cpp:148] Top shape: 100 384 13 13 (6489600)
I0403 12:44:52.019820 30734 net.cpp:156] Memory required for data: 731481200
I0403 12:44:52.019835 30734 layer_factory.hpp:77] Creating layer conv4
I0403 12:44:52.019861 30734 net.cpp:91] Creating Layer conv4
I0403 12:44:52.019879 30734 net.cpp:425] conv4 <- conv3
I0403 12:44:52.019901 30734 net.cpp:399] conv4 -> conv4
I0403 12:44:52.050155 30734 net.cpp:141] Setting up conv4
I0403 12:44:52.050231 30734 net.cpp:148] Top shape: 100 384 13 13 (6489600)
I0403 12:44:52.050283 30734 net.cpp:156] Memory required for data: 757439600
I0403 12:44:52.050305 30734 layer_factory.hpp:77] Creating layer relu4
I0403 12:44:52.050330 30734 net.cpp:91] Creating Layer relu4
I0403 12:44:52.050353 30734 net.cpp:425] relu4 <- conv4
I0403 12:44:52.050371 30734 net.cpp:386] relu4 -> conv4 (in-place)
I0403 12:44:52.050652 30734 net.cpp:141] Setting up relu4
I0403 12:44:52.050679 30734 net.cpp:148] Top shape: 100 384 13 13 (6489600)
I0403 12:44:52.050694 30734 net.cpp:156] Memory required for data: 783398000
I0403 12:44:52.050709 30734 layer_factory.hpp:77] Creating layer conv5
I0403 12:44:52.050735 30734 net.cpp:91] Creating Layer conv5
I0403 12:44:52.050752 30734 net.cpp:425] conv5 <- conv4
I0403 12:44:52.050773 30734 net.cpp:399] conv5 -> conv5
I0403 12:44:52.071902 30734 net.cpp:141] Setting up conv5
I0403 12:44:52.071962 30734 net.cpp:148] Top shape: 100 256 13 13 (4326400)
I0403 12:44:52.071979 30734 net.cpp:156] Memory required for data: 800703600
I0403 12:44:52.072005 30734 layer_factory.hpp:77] Creating layer relu5
I0403 12:44:52.072031 30734 net.cpp:91] Creating Layer relu5
I0403 12:44:52.072051 30734 net.cpp:425] relu5 <- conv5
I0403 12:44:52.072068 30734 net.cpp:386] relu5 -> conv5 (in-place)
I0403 12:44:52.072361 30734 net.cpp:141] Setting up relu5
I0403 12:44:52.072389 30734 net.cpp:148] Top shape: 100 256 13 13 (4326400)
I0403 12:44:52.072405 30734 net.cpp:156] Memory required for data: 818009200
I0403 12:44:52.072420 30734 layer_factory.hpp:77] Creating layer pool5
I0403 12:44:52.072470 30734 net.cpp:91] Creating Layer pool5
I0403 12:44:52.072491 30734 net.cpp:425] pool5 <- conv5
I0403 12:44:52.072510 30734 net.cpp:399] pool5 -> pool5
I0403 12:44:52.072576 30734 net.cpp:141] Setting up pool5
I0403 12:44:52.072598 30734 net.cpp:148] Top shape: 100 256 6 6 (921600)
I0403 12:44:52.072614 30734 net.cpp:156] Memory required for data: 821695600
I0403 12:44:52.072628 30734 layer_factory.hpp:77] Creating layer fc6
I0403 12:44:52.072657 30734 net.cpp:91] Creating Layer fc6
I0403 12:44:52.072676 30734 net.cpp:425] fc6 <- pool5
I0403 12:44:52.072693 30734 net.cpp:399] fc6 -> fc6
I0403 12:44:53.648108 30734 net.cpp:141] Setting up fc6
I0403 12:44:53.648171 30734 net.cpp:148] Top shape: 100 4096 (409600)
I0403 12:44:53.648187 30734 net.cpp:156] Memory required for data: 823334000
I0403 12:44:53.648208 30734 layer_factory.hpp:77] Creating layer relu6
I0403 12:44:53.648231 30734 net.cpp:91] Creating Layer relu6
I0403 12:44:53.648252 30734 net.cpp:425] relu6 <- fc6
I0403 12:44:53.648274 30734 net.cpp:386] relu6 -> fc6 (in-place)
I0403 12:44:53.648499 30734 net.cpp:141] Setting up relu6
I0403 12:44:53.648524 30734 net.cpp:148] Top shape: 100 4096 (409600)
I0403 12:44:53.648538 30734 net.cpp:156] Memory required for data: 824972400
I0403 12:44:53.648552 30734 layer_factory.hpp:77] Creating layer drop6
I0403 12:44:53.648571 30734 net.cpp:91] Creating Layer drop6
I0403 12:44:53.648586 30734 net.cpp:425] drop6 <- fc6
I0403 12:44:53.648607 30734 net.cpp:386] drop6 -> fc6 (in-place)
I0403 12:44:53.648660 30734 net.cpp:141] Setting up drop6
I0403 12:44:53.648682 30734 net.cpp:148] Top shape: 100 4096 (409600)
I0403 12:44:53.648696 30734 net.cpp:156] Memory required for data: 826610800
I0403 12:44:53.648711 30734 layer_factory.hpp:77] Creating layer fc7
I0403 12:44:53.648730 30734 net.cpp:91] Creating Layer fc7
I0403 12:44:53.648746 30734 net.cpp:425] fc7 <- fc6
I0403 12:44:53.648766 30734 net.cpp:399] fc7 -> fc7
I0403 12:44:54.336712 30734 net.cpp:141] Setting up fc7
I0403 12:44:54.336753 30734 net.cpp:148] Top shape: 100 4096 (409600)
I0403 12:44:54.336769 30734 net.cpp:156] Memory required for data: 828249200
I0403 12:44:54.336791 30734 layer_factory.hpp:77] Creating layer relu7
I0403 12:44:54.336813 30734 net.cpp:91] Creating Layer relu7
I0403 12:44:54.336832 30734 net.cpp:425] relu7 <- fc7
I0403 12:44:54.336849 30734 net.cpp:386] relu7 -> fc7 (in-place)
I0403 12:44:54.337270 30734 net.cpp:141] Setting up relu7
I0403 12:44:54.337296 30734 net.cpp:148] Top shape: 100 4096 (409600)
I0403 12:44:54.337342 30734 net.cpp:156] Memory required for data: 829887600
I0403 12:44:54.337357 30734 layer_factory.hpp:77] Creating layer drop7
I0403 12:44:54.337376 30734 net.cpp:91] Creating Layer drop7
I0403 12:44:54.337393 30734 net.cpp:425] drop7 <- fc7
I0403 12:44:54.337409 30734 net.cpp:386] drop7 -> fc7 (in-place)
I0403 12:44:54.337463 30734 net.cpp:141] Setting up drop7
I0403 12:44:54.337487 30734 net.cpp:148] Top shape: 100 4096 (409600)
I0403 12:44:54.337502 30734 net.cpp:156] Memory required for data: 831526000
I0403 12:44:54.337517 30734 layer_factory.hpp:77] Creating layer fc8_plantvillage
I0403 12:44:54.337535 30734 net.cpp:91] Creating Layer fc8_plantvillage
I0403 12:44:54.337550 30734 net.cpp:425] fc8_plantvillage <- fc7
I0403 12:44:54.337570 30734 net.cpp:399] fc8_plantvillage -> fc8_plantvillage
I0403 12:44:54.344357 30734 net.cpp:141] Setting up fc8_plantvillage
I0403 12:44:54.344385 30734 net.cpp:148] Top shape: 100 38 (3800)
I0403 12:44:54.344400 30734 net.cpp:156] Memory required for data: 831541200
I0403 12:44:54.344419 30734 layer_factory.hpp:77] Creating layer fc8_plantvillage_fc8_plantvillage_0_split
I0403 12:44:54.344439 30734 net.cpp:91] Creating Layer fc8_plantvillage_fc8_plantvillage_0_split
I0403 12:44:54.344455 30734 net.cpp:425] fc8_plantvillage_fc8_plantvillage_0_split <- fc8_plantvillage
I0403 12:44:54.344472 30734 net.cpp:399] fc8_plantvillage_fc8_plantvillage_0_split -> fc8_plantvillage_fc8_plantvillage_0_split_0
I0403 12:44:54.344492 30734 net.cpp:399] fc8_plantvillage_fc8_plantvillage_0_split -> fc8_plantvillage_fc8_plantvillage_0_split_1
I0403 12:44:54.344512 30734 net.cpp:399] fc8_plantvillage_fc8_plantvillage_0_split -> fc8_plantvillage_fc8_plantvillage_0_split_2
I0403 12:44:54.344591 30734 net.cpp:141] Setting up fc8_plantvillage_fc8_plantvillage_0_split
I0403 12:44:54.344614 30734 net.cpp:148] Top shape: 100 38 (3800)
I0403 12:44:54.344630 30734 net.cpp:148] Top shape: 100 38 (3800)
I0403 12:44:54.344645 30734 net.cpp:148] Top shape: 100 38 (3800)
I0403 12:44:54.344660 30734 net.cpp:156] Memory required for data: 831586800
I0403 12:44:54.344673 30734 layer_factory.hpp:77] Creating layer prob
I0403 12:44:54.344692 30734 net.cpp:91] Creating Layer prob
I0403 12:44:54.344707 30734 net.cpp:425] prob <- fc8_plantvillage_fc8_plantvillage_0_split_0
I0403 12:44:54.344727 30734 net.cpp:399] prob -> prob
I0403 12:44:54.344955 30734 net.cpp:141] Setting up prob
I0403 12:44:54.344980 30734 net.cpp:148] Top shape: 100 38 (3800)
I0403 12:44:54.344995 30734 net.cpp:156] Memory required for data: 831602000
I0403 12:44:54.345010 30734 layer_factory.hpp:77] Creating layer hdf5out
I0403 12:44:54.345031 30734 net.cpp:91] Creating Layer hdf5out
I0403 12:44:54.345047 30734 net.cpp:425] hdf5out <- prob
I0403 12:44:54.345063 30734 net.cpp:425] hdf5out <- label_data_1_split_0
I0403 12:44:54.347414 30734 net.cpp:141] Setting up hdf5out
…
