…
I0403 12:50:45.084705 30891 net.cpp:313] The NetState phase (1) differed from the phase (0) specified by a rule in layer data
I0403 12:50:45.085001 30891 net.cpp:49] Initializing net from parameters: 
state {
  phase: TEST
}
layer {
  name: "data"
  type: "Data"
  top: "data"
  top: "label"
  include {
    phase: TEST
  }
  transform_param {
    crop_size: 227
    mean_file: "/home/mohanty/data/final_dataset/lmdb/segmented-40-60/mean.binaryproto"
  }
  data_param {
    source: "/home/mohanty/data/final_dataset/lmdb/segmented-40-60/test_db"
    batch_size: 100
    backend: LMDB
  }
}
layer {
  name: "conv1"
  type: "Convolution"
  bottom: "data"
  top: "conv1"
  param {
    lr_mult: 1
    decay_mult: 1
  }
  param {
    lr_mult: 2
    decay_mult: 0
  }
  convolution_param {
    num_output: 96
    kernel_size: 11
    stride: 4
    weight_filler {
      type: "gaussian"
      std: 0.01
    }
    bias_filler {
      type: "constant"
      value: 0
    }
  }
}
layer {
  name: "relu1"
  type: "ReLU"
  bottom: "conv1"
  top: "conv1"
}
layer {
  name: "norm1"
  type: "LRN"
  bottom: "conv1"
  top: "norm1"
  lrn_param {
    local_size: 5
    alpha: 0.0001
    beta: 0.75
  }
}
layer {
  name: "pool1"
  type: "Pooling"
  bottom: "norm1"
  top: "pool1"
  pooling_param {
    pool: MAX
    kernel_size: 3
    stride: 2
  }
}
layer {
  name: "conv2"
  type: "Convolution"
  bottom: "pool1"
  top: "conv2"
  param {
    lr_mult: 1
    decay_mult: 1
  }
  param {
    lr_mult: 2
    decay_mult: 0
  }
  convolution_param {
    num_output: 256
    pad: 2
    kernel_size: 5
    group: 2
    weight_filler {
      type: "gaussian"
      std: 0.01
    }
    bias_filler {
      type: "constant"
      value: 0.1
    }
  }
}
layer {
  name: "relu2"
  type: "ReLU"
  bottom: "conv2"
  top: "conv2"
}
layer {
  name: "norm2"
  type: "LRN"
  bottom: "conv2"
  top: "norm2"
  lrn_param {
    local_size: 5
    alpha: 0.0001
    beta: 0.75
  }
}
layer {
  name: "pool2"
  type: "Pooling"
  bottom: "norm2"
  top: "pool2"
  pooling_param {
    pool: MAX
    kernel_size: 3
    stride: 2
  }
}
layer {
  name: "conv3"
  type: "Convolution"
  bottom: "pool2"
  top: "conv3"
  param {
    lr_mult: 1
    decay_mult: 1
  }
  param {
    lr_mult: 2
    decay_mult: 0
  }
  convolution_param {
    num_output: 384
    pad: 1
    kernel_size: 3
    weight_filler {
      type: "gaussian"
      std: 0.01
    }
    bias_filler {
      type: "constant"
      value: 0
    }
  }
}
layer {
  name: "relu3"
  type: "ReLU"
  bottom: "conv3"
  top: "conv3"
}
layer {
  name: "conv4"
  type: "Convolution"
  bottom: "conv3"
  top: "conv4"
  param {
    lr_mult: 1
    decay_mult: 1
  }
  param {
    lr_mult: 2
    decay_mult: 0
  }
  convolution_param {
    num_output: 384
    pad: 1
    kernel_size: 3
    group: 2
    weight_filler {
      type: "gaussian"
      std: 0.01
    }
    bias_filler {
      type: "constant"
      value: 0.1
    }
  }
}
layer {
  name: "relu4"
  type: "ReLU"
  bottom: "conv4"
  top: "conv4"
}
layer {
  name: "conv5"
  type: "Convolution"
  bottom: "conv4"
  top: "conv5"
  param {
    lr_mult: 1
    decay_mult: 1
  }
  param {
    lr_mult: 2
    decay_mult: 0
  }
  convolution_param {
    num_output: 256
    pad: 1
    kernel_size: 3
    group: 2
    weight_filler {
      type: "gaussian"
      std: 0.01
    }
    bias_filler {
      type: "constant"
      value: 0.1
    }
  }
}
layer {
  name: "relu5"
  type: "ReLU"
  bottom: "conv5"
  top: "conv5"
}
layer {
  name: "pool5"
  type: "Pooling"
  bottom: "conv5"
  top: "pool5"
  pooling_param {
    pool: MAX
    kernel_size: 3
    stride: 2
  }
}
layer {
  name: "fc6"
  type: "InnerProduct"
  bottom: "pool5"
  top: "fc6"
  param {
    lr_mult: 1
    decay_mult: 1
  }
  param {
    lr_mult: 2
    decay_mult: 0
  }
  inner_product_param {
    num_output: 4096
    weight_filler {
      type: "gaussian"
      std: 0.005
    }
    bias_filler {
      type: "constant"
      value: 0.1
    }
  }
}
layer {
  name: "relu6"
  type: "ReLU"
  bottom: "fc6"
  top: "fc6"
}
layer {
  name: "drop6"
  type: "Dropout"
  bottom: "fc6"
  top: "fc6"
  dropout_param {
    dropout_ratio: 0.5
  }
}
layer {
  name: "fc7"
  type: "InnerProduct"
  bottom: "fc6"
  top: "fc7"
  param {
    lr_mult: 1
    decay_mult: 1
  }
  param {
    lr_mult: 2
    decay_mult: 0
  }
  inner_product_param {
    num_output: 4096
    weight_filler {
      type: "gaussian"
      std: 0.005
    }
    bias_filler {
      type: "constant"
      value: 0.1
    }
  }
}
layer {
  name: "relu7"
  type: "ReLU"
  bottom: "fc7"
  top: "fc7"
}
layer {
  name: "drop7"
  type: "Dropout"
  bottom: "fc7"
  top: "fc7"
  dropout_param {
    dropout_ratio: 0.5
  }
}
layer {
  name: "fc8_plantvillage"
  type: "InnerProduct"
  bottom: "fc7"
  top: "fc8_plantvillage"
  param {
    lr_mult: 1
    decay_mult: 1
  }
  param {
    lr_mult: 2
    decay_mult: 0
  }
  inner_product_param {
    num_output: 38
    weight_filler {
      type: "gaussian"
      std: 0.01
    }
    bias_filler {
      type: "constant"
      value: 0
    }
  }
}
layer {
  name: "prob"
  type: "Softmax"
  bottom: "fc8_plantvillage"
  top: "prob"
  include {
    phase: TEST
  }
}
layer {
  name: "hdf5out"
  type: "HDF5Output"
  bottom: "prob"
  bottom: "label"
  include {
    phase: TEST
  }
  hdf5_output_param {
    file_name: "hdf5_dumps/iter_3942.h5"
  }
}
layer {
  name: "loss"
  type: "SoftmaxWithLoss"
  bottom: "fc8_plantvillage"
  bottom: "label"
  top: "loss"
}
layer {
  name: "accuracy"
  type: "Accuracy"
  bottom: "fc8_plantvillage"
  bottom: "label"
  top: "accuracy"
  include {
    phase: TEST
  }
}
I0403 12:50:45.085588 30891 layer_factory.hpp:77] Creating layer data
I0403 12:50:45.086215 30891 net.cpp:91] Creating Layer data
I0403 12:50:45.086247 30891 net.cpp:399] data -> data
I0403 12:50:45.086302 30891 net.cpp:399] data -> label
I0403 12:50:45.086338 30891 data_transformer.cpp:25] Loading mean file from: /home/mohanty/data/final_dataset/lmdb/segmented-40-60/mean.binaryproto
I0403 12:50:45.092375 30894 db_lmdb.cpp:38] Opened lmdb /home/mohanty/data/final_dataset/lmdb/segmented-40-60/test_db
I0403 12:50:45.099771 30891 data_layer.cpp:41] output data size: 100,3,227,227
I0403 12:50:45.224187 30891 net.cpp:141] Setting up data
I0403 12:50:45.224248 30891 net.cpp:148] Top shape: 100 3 227 227 (15458700)
I0403 12:50:45.224274 30891 net.cpp:148] Top shape: 100 (100)
I0403 12:50:45.224292 30891 net.cpp:156] Memory required for data: 61835200
I0403 12:50:45.224321 30891 layer_factory.hpp:77] Creating layer label_data_1_split
I0403 12:50:45.224347 30891 net.cpp:91] Creating Layer label_data_1_split
I0403 12:50:45.224366 30891 net.cpp:425] label_data_1_split <- label
I0403 12:50:45.224397 30891 net.cpp:399] label_data_1_split -> label_data_1_split_0
I0403 12:50:45.224424 30891 net.cpp:399] label_data_1_split -> label_data_1_split_1
I0403 12:50:45.224444 30891 net.cpp:399] label_data_1_split -> label_data_1_split_2
I0403 12:50:45.224509 30891 net.cpp:141] Setting up label_data_1_split
I0403 12:50:45.224534 30891 net.cpp:148] Top shape: 100 (100)
I0403 12:50:45.224550 30891 net.cpp:148] Top shape: 100 (100)
I0403 12:50:45.224566 30891 net.cpp:148] Top shape: 100 (100)
I0403 12:50:45.224581 30891 net.cpp:156] Memory required for data: 61836400
I0403 12:50:45.224596 30891 layer_factory.hpp:77] Creating layer conv1
I0403 12:50:45.224627 30891 net.cpp:91] Creating Layer conv1
I0403 12:50:45.224647 30891 net.cpp:425] conv1 <- data
I0403 12:50:45.224666 30891 net.cpp:399] conv1 -> conv1
I0403 12:50:45.364930 30891 net.cpp:141] Setting up conv1
I0403 12:50:45.365017 30891 net.cpp:148] Top shape: 100 96 55 55 (29040000)
I0403 12:50:45.365033 30891 net.cpp:156] Memory required for data: 177996400
I0403 12:50:45.365064 30891 layer_factory.hpp:77] Creating layer relu1
I0403 12:50:45.365092 30891 net.cpp:91] Creating Layer relu1
I0403 12:50:45.365110 30891 net.cpp:425] relu1 <- conv1
I0403 12:50:45.365129 30891 net.cpp:386] relu1 -> conv1 (in-place)
I0403 12:50:45.365396 30891 net.cpp:141] Setting up relu1
I0403 12:50:45.365422 30891 net.cpp:148] Top shape: 100 96 55 55 (29040000)
I0403 12:50:45.365470 30891 net.cpp:156] Memory required for data: 294156400
I0403 12:50:45.365486 30891 layer_factory.hpp:77] Creating layer norm1
I0403 12:50:45.365514 30891 net.cpp:91] Creating Layer norm1
I0403 12:50:45.365532 30891 net.cpp:425] norm1 <- conv1
I0403 12:50:45.365550 30891 net.cpp:399] norm1 -> norm1
I0403 12:50:45.365856 30891 net.cpp:141] Setting up norm1
I0403 12:50:45.365885 30891 net.cpp:148] Top shape: 100 96 55 55 (29040000)
I0403 12:50:45.365900 30891 net.cpp:156] Memory required for data: 410316400
I0403 12:50:45.365916 30891 layer_factory.hpp:77] Creating layer pool1
I0403 12:50:45.365939 30891 net.cpp:91] Creating Layer pool1
I0403 12:50:45.365957 30891 net.cpp:425] pool1 <- norm1
I0403 12:50:45.365974 30891 net.cpp:399] pool1 -> pool1
I0403 12:50:45.366042 30891 net.cpp:141] Setting up pool1
I0403 12:50:45.366066 30891 net.cpp:148] Top shape: 100 96 27 27 (6998400)
I0403 12:50:45.366081 30891 net.cpp:156] Memory required for data: 438310000
I0403 12:50:45.366096 30891 layer_factory.hpp:77] Creating layer conv2
I0403 12:50:45.366119 30891 net.cpp:91] Creating Layer conv2
I0403 12:50:45.366137 30891 net.cpp:425] conv2 <- pool1
I0403 12:50:45.366154 30891 net.cpp:399] conv2 -> conv2
I0403 12:50:45.381117 30891 net.cpp:141] Setting up conv2
I0403 12:50:45.381173 30891 net.cpp:148] Top shape: 100 256 27 27 (18662400)
I0403 12:50:45.381189 30891 net.cpp:156] Memory required for data: 512959600
I0403 12:50:45.381212 30891 layer_factory.hpp:77] Creating layer relu2
I0403 12:50:45.381234 30891 net.cpp:91] Creating Layer relu2
I0403 12:50:45.381252 30891 net.cpp:425] relu2 <- conv2
I0403 12:50:45.381269 30891 net.cpp:386] relu2 -> conv2 (in-place)
I0403 12:50:45.381559 30891 net.cpp:141] Setting up relu2
I0403 12:50:45.381588 30891 net.cpp:148] Top shape: 100 256 27 27 (18662400)
I0403 12:50:45.381605 30891 net.cpp:156] Memory required for data: 587609200
I0403 12:50:45.381620 30891 layer_factory.hpp:77] Creating layer norm2
I0403 12:50:45.381641 30891 net.cpp:91] Creating Layer norm2
I0403 12:50:45.381659 30891 net.cpp:425] norm2 <- conv2
I0403 12:50:45.381680 30891 net.cpp:399] norm2 -> norm2
I0403 12:50:45.381881 30891 net.cpp:141] Setting up norm2
I0403 12:50:45.381907 30891 net.cpp:148] Top shape: 100 256 27 27 (18662400)
I0403 12:50:45.381922 30891 net.cpp:156] Memory required for data: 662258800
I0403 12:50:45.381937 30891 layer_factory.hpp:77] Creating layer pool2
I0403 12:50:45.381958 30891 net.cpp:91] Creating Layer pool2
I0403 12:50:45.381974 30891 net.cpp:425] pool2 <- norm2
I0403 12:50:45.381992 30891 net.cpp:399] pool2 -> pool2
I0403 12:50:45.382046 30891 net.cpp:141] Setting up pool2
I0403 12:50:45.382069 30891 net.cpp:148] Top shape: 100 256 13 13 (4326400)
I0403 12:50:45.382084 30891 net.cpp:156] Memory required for data: 679564400
I0403 12:50:45.382099 30891 layer_factory.hpp:77] Creating layer conv3
I0403 12:50:45.382122 30891 net.cpp:91] Creating Layer conv3
I0403 12:50:45.382139 30891 net.cpp:425] conv3 <- pool2
I0403 12:50:45.382163 30891 net.cpp:399] conv3 -> conv3
I0403 12:50:45.420611 30891 net.cpp:141] Setting up conv3
I0403 12:50:45.420696 30891 net.cpp:148] Top shape: 100 384 13 13 (6489600)
I0403 12:50:45.420712 30891 net.cpp:156] Memory required for data: 705522800
I0403 12:50:45.420744 30891 layer_factory.hpp:77] Creating layer relu3
I0403 12:50:45.420769 30891 net.cpp:91] Creating Layer relu3
I0403 12:50:45.420788 30891 net.cpp:425] relu3 <- conv3
I0403 12:50:45.420806 30891 net.cpp:386] relu3 -> conv3 (in-place)
I0403 12:50:45.421083 30891 net.cpp:141] Setting up relu3
I0403 12:50:45.421110 30891 net.cpp:148] Top shape: 100 384 13 13 (6489600)
I0403 12:50:45.421129 30891 net.cpp:156] Memory required for data: 731481200
I0403 12:50:45.421145 30891 layer_factory.hpp:77] Creating layer conv4
I0403 12:50:45.421169 30891 net.cpp:91] Creating Layer conv4
I0403 12:50:45.421185 30891 net.cpp:425] conv4 <- conv3
I0403 12:50:45.421207 30891 net.cpp:399] conv4 -> conv4
I0403 12:50:45.451076 30891 net.cpp:141] Setting up conv4
I0403 12:50:45.451150 30891 net.cpp:148] Top shape: 100 384 13 13 (6489600)
I0403 12:50:45.451196 30891 net.cpp:156] Memory required for data: 757439600
I0403 12:50:45.451218 30891 layer_factory.hpp:77] Creating layer relu4
I0403 12:50:45.451242 30891 net.cpp:91] Creating Layer relu4
I0403 12:50:45.451261 30891 net.cpp:425] relu4 <- conv4
I0403 12:50:45.451284 30891 net.cpp:386] relu4 -> conv4 (in-place)
I0403 12:50:45.451584 30891 net.cpp:141] Setting up relu4
I0403 12:50:45.451611 30891 net.cpp:148] Top shape: 100 384 13 13 (6489600)
I0403 12:50:45.451627 30891 net.cpp:156] Memory required for data: 783398000
I0403 12:50:45.451642 30891 layer_factory.hpp:77] Creating layer conv5
I0403 12:50:45.451668 30891 net.cpp:91] Creating Layer conv5
I0403 12:50:45.451685 30891 net.cpp:425] conv5 <- conv4
I0403 12:50:45.451706 30891 net.cpp:399] conv5 -> conv5
I0403 12:50:45.472126 30891 net.cpp:141] Setting up conv5
I0403 12:50:45.472185 30891 net.cpp:148] Top shape: 100 256 13 13 (4326400)
I0403 12:50:45.472205 30891 net.cpp:156] Memory required for data: 800703600
I0403 12:50:45.472231 30891 layer_factory.hpp:77] Creating layer relu5
I0403 12:50:45.472254 30891 net.cpp:91] Creating Layer relu5
I0403 12:50:45.472275 30891 net.cpp:425] relu5 <- conv5
I0403 12:50:45.472312 30891 net.cpp:386] relu5 -> conv5 (in-place)
I0403 12:50:45.472612 30891 net.cpp:141] Setting up relu5
I0403 12:50:45.472640 30891 net.cpp:148] Top shape: 100 256 13 13 (4326400)
I0403 12:50:45.472654 30891 net.cpp:156] Memory required for data: 818009200
I0403 12:50:45.472671 30891 layer_factory.hpp:77] Creating layer pool5
I0403 12:50:45.472695 30891 net.cpp:91] Creating Layer pool5
I0403 12:50:45.472713 30891 net.cpp:425] pool5 <- conv5
I0403 12:50:45.472734 30891 net.cpp:399] pool5 -> pool5
I0403 12:50:45.472797 30891 net.cpp:141] Setting up pool5
I0403 12:50:45.472821 30891 net.cpp:148] Top shape: 100 256 6 6 (921600)
I0403 12:50:45.472836 30891 net.cpp:156] Memory required for data: 821695600
I0403 12:50:45.472851 30891 layer_factory.hpp:77] Creating layer fc6
I0403 12:50:45.472882 30891 net.cpp:91] Creating Layer fc6
I0403 12:50:45.472900 30891 net.cpp:425] fc6 <- pool5
I0403 12:50:45.472918 30891 net.cpp:399] fc6 -> fc6
I0403 12:50:47.051338 30891 net.cpp:141] Setting up fc6
I0403 12:50:47.051424 30891 net.cpp:148] Top shape: 100 4096 (409600)
I0403 12:50:47.051441 30891 net.cpp:156] Memory required for data: 823334000
I0403 12:50:47.051463 30891 layer_factory.hpp:77] Creating layer relu6
I0403 12:50:47.051486 30891 net.cpp:91] Creating Layer relu6
I0403 12:50:47.051508 30891 net.cpp:425] relu6 <- fc6
I0403 12:50:47.051529 30891 net.cpp:386] relu6 -> fc6 (in-place)
I0403 12:50:47.051756 30891 net.cpp:141] Setting up relu6
I0403 12:50:47.051784 30891 net.cpp:148] Top shape: 100 4096 (409600)
I0403 12:50:47.051798 30891 net.cpp:156] Memory required for data: 824972400
I0403 12:50:47.051815 30891 layer_factory.hpp:77] Creating layer drop6
I0403 12:50:47.051836 30891 net.cpp:91] Creating Layer drop6
I0403 12:50:47.051853 30891 net.cpp:425] drop6 <- fc6
I0403 12:50:47.051872 30891 net.cpp:386] drop6 -> fc6 (in-place)
I0403 12:50:47.051926 30891 net.cpp:141] Setting up drop6
I0403 12:50:47.051951 30891 net.cpp:148] Top shape: 100 4096 (409600)
I0403 12:50:47.051966 30891 net.cpp:156] Memory required for data: 826610800
I0403 12:50:47.051981 30891 layer_factory.hpp:77] Creating layer fc7
I0403 12:50:47.052002 30891 net.cpp:91] Creating Layer fc7
I0403 12:50:47.052018 30891 net.cpp:425] fc7 <- fc6
I0403 12:50:47.052043 30891 net.cpp:399] fc7 -> fc7
I0403 12:50:47.769467 30891 net.cpp:141] Setting up fc7
I0403 12:50:47.769559 30891 net.cpp:148] Top shape: 100 4096 (409600)
I0403 12:50:47.769577 30891 net.cpp:156] Memory required for data: 828249200
I0403 12:50:47.769599 30891 layer_factory.hpp:77] Creating layer relu7
I0403 12:50:47.769623 30891 net.cpp:91] Creating Layer relu7
I0403 12:50:47.769640 30891 net.cpp:425] relu7 <- fc7
I0403 12:50:47.769660 30891 net.cpp:386] relu7 -> fc7 (in-place)
I0403 12:50:47.770095 30891 net.cpp:141] Setting up relu7
I0403 12:50:47.770123 30891 net.cpp:148] Top shape: 100 4096 (409600)
I0403 12:50:47.770174 30891 net.cpp:156] Memory required for data: 829887600
I0403 12:50:47.770191 30891 layer_factory.hpp:77] Creating layer drop7
I0403 12:50:47.770213 30891 net.cpp:91] Creating Layer drop7
I0403 12:50:47.770231 30891 net.cpp:425] drop7 <- fc7
I0403 12:50:47.770249 30891 net.cpp:386] drop7 -> fc7 (in-place)
I0403 12:50:47.770301 30891 net.cpp:141] Setting up drop7
I0403 12:50:47.770325 30891 net.cpp:148] Top shape: 100 4096 (409600)
I0403 12:50:47.770340 30891 net.cpp:156] Memory required for data: 831526000
I0403 12:50:47.770356 30891 layer_factory.hpp:77] Creating layer fc8_plantvillage
I0403 12:50:47.770380 30891 net.cpp:91] Creating Layer fc8_plantvillage
I0403 12:50:47.770396 30891 net.cpp:425] fc8_plantvillage <- fc7
I0403 12:50:47.770416 30891 net.cpp:399] fc8_plantvillage -> fc8_plantvillage
I0403 12:50:47.777564 30891 net.cpp:141] Setting up fc8_plantvillage
I0403 12:50:47.777593 30891 net.cpp:148] Top shape: 100 38 (3800)
I0403 12:50:47.777609 30891 net.cpp:156] Memory required for data: 831541200
I0403 12:50:47.777628 30891 layer_factory.hpp:77] Creating layer fc8_plantvillage_fc8_plantvillage_0_split
I0403 12:50:47.777652 30891 net.cpp:91] Creating Layer fc8_plantvillage_fc8_plantvillage_0_split
I0403 12:50:47.777669 30891 net.cpp:425] fc8_plantvillage_fc8_plantvillage_0_split <- fc8_plantvillage
I0403 12:50:47.777688 30891 net.cpp:399] fc8_plantvillage_fc8_plantvillage_0_split -> fc8_plantvillage_fc8_plantvillage_0_split_0
I0403 12:50:47.777710 30891 net.cpp:399] fc8_plantvillage_fc8_plantvillage_0_split -> fc8_plantvillage_fc8_plantvillage_0_split_1
I0403 12:50:47.777734 30891 net.cpp:399] fc8_plantvillage_fc8_plantvillage_0_split -> fc8_plantvillage_fc8_plantvillage_0_split_2
I0403 12:50:47.777813 30891 net.cpp:141] Setting up fc8_plantvillage_fc8_plantvillage_0_split
I0403 12:50:47.777838 30891 net.cpp:148] Top shape: 100 38 (3800)
I0403 12:50:47.777855 30891 net.cpp:148] Top shape: 100 38 (3800)
I0403 12:50:47.777871 30891 net.cpp:148] Top shape: 100 38 (3800)
I0403 12:50:47.777885 30891 net.cpp:156] Memory required for data: 831586800
I0403 12:50:47.777900 30891 layer_factory.hpp:77] Creating layer prob
I0403 12:50:47.777922 30891 net.cpp:91] Creating Layer prob
I0403 12:50:47.777940 30891 net.cpp:425] prob <- fc8_plantvillage_fc8_plantvillage_0_split_0
I0403 12:50:47.777959 30891 net.cpp:399] prob -> prob
I0403 12:50:47.778198 30891 net.cpp:141] Setting up prob
I0403 12:50:47.778225 30891 net.cpp:148] Top shape: 100 38 (3800)
I0403 12:50:47.778241 30891 net.cpp:156] Memory required for data: 831602000
I0403 12:50:47.778256 30891 layer_factory.hpp:77] Creating layer hdf5out
I0403 12:50:47.778285 30891 net.cpp:91] Creating Layer hdf5out
I0403 12:50:47.778304 30891 net.cpp:425] hdf5out <- prob
I0403 12:50:47.778321 30891 net.cpp:425] hdf5out <- label_data_1_split_0
I0403 12:50:47.780521 30891 net.cpp:141] Setting up hdf5out
…
