…
I0403 12:48:46.929502 30839 net.cpp:313] The NetState phase (1) differed from the phase (0) specified by a rule in layer data
I0403 12:48:46.929818 30839 net.cpp:49] Initializing net from parameters: 
state {
  phase: TEST
}
layer {
  name: "data"
  type: "Data"
  top: "data"
  top: "label"
  include {
    phase: TEST
  }
  transform_param {
    crop_size: 227
    mean_file: "/home/mohanty/data/final_dataset/lmdb/segmented-40-60/mean.binaryproto"
  }
  data_param {
    source: "/home/mohanty/data/final_dataset/lmdb/segmented-40-60/test_db"
    batch_size: 100
    backend: LMDB
  }
}
layer {
  name: "conv1"
  type: "Convolution"
  bottom: "data"
  top: "conv1"
  param {
    lr_mult: 1
    decay_mult: 1
  }
  param {
    lr_mult: 2
    decay_mult: 0
  }
  convolution_param {
    num_output: 96
    kernel_size: 11
    stride: 4
    weight_filler {
      type: "gaussian"
      std: 0.01
    }
    bias_filler {
      type: "constant"
      value: 0
    }
  }
}
layer {
  name: "relu1"
  type: "ReLU"
  bottom: "conv1"
  top: "conv1"
}
layer {
  name: "norm1"
  type: "LRN"
  bottom: "conv1"
  top: "norm1"
  lrn_param {
    local_size: 5
    alpha: 0.0001
    beta: 0.75
  }
}
layer {
  name: "pool1"
  type: "Pooling"
  bottom: "norm1"
  top: "pool1"
  pooling_param {
    pool: MAX
    kernel_size: 3
    stride: 2
  }
}
layer {
  name: "conv2"
  type: "Convolution"
  bottom: "pool1"
  top: "conv2"
  param {
    lr_mult: 1
    decay_mult: 1
  }
  param {
    lr_mult: 2
    decay_mult: 0
  }
  convolution_param {
    num_output: 256
    pad: 2
    kernel_size: 5
    group: 2
    weight_filler {
      type: "gaussian"
      std: 0.01
    }
    bias_filler {
      type: "constant"
      value: 0.1
    }
  }
}
layer {
  name: "relu2"
  type: "ReLU"
  bottom: "conv2"
  top: "conv2"
}
layer {
  name: "norm2"
  type: "LRN"
  bottom: "conv2"
  top: "norm2"
  lrn_param {
    local_size: 5
    alpha: 0.0001
    beta: 0.75
  }
}
layer {
  name: "pool2"
  type: "Pooling"
  bottom: "norm2"
  top: "pool2"
  pooling_param {
    pool: MAX
    kernel_size: 3
    stride: 2
  }
}
layer {
  name: "conv3"
  type: "Convolution"
  bottom: "pool2"
  top: "conv3"
  param {
    lr_mult: 1
    decay_mult: 1
  }
  param {
    lr_mult: 2
    decay_mult: 0
  }
  convolution_param {
    num_output: 384
    pad: 1
    kernel_size: 3
    weight_filler {
      type: "gaussian"
      std: 0.01
    }
    bias_filler {
      type: "constant"
      value: 0
    }
  }
}
layer {
  name: "relu3"
  type: "ReLU"
  bottom: "conv3"
  top: "conv3"
}
layer {
  name: "conv4"
  type: "Convolution"
  bottom: "conv3"
  top: "conv4"
  param {
    lr_mult: 1
    decay_mult: 1
  }
  param {
    lr_mult: 2
    decay_mult: 0
  }
  convolution_param {
    num_output: 384
    pad: 1
    kernel_size: 3
    group: 2
    weight_filler {
      type: "gaussian"
      std: 0.01
    }
    bias_filler {
      type: "constant"
      value: 0.1
    }
  }
}
layer {
  name: "relu4"
  type: "ReLU"
  bottom: "conv4"
  top: "conv4"
}
layer {
  name: "conv5"
  type: "Convolution"
  bottom: "conv4"
  top: "conv5"
  param {
    lr_mult: 1
    decay_mult: 1
  }
  param {
    lr_mult: 2
    decay_mult: 0
  }
  convolution_param {
    num_output: 256
    pad: 1
    kernel_size: 3
    group: 2
    weight_filler {
      type: "gaussian"
      std: 0.01
    }
    bias_filler {
      type: "constant"
      value: 0.1
    }
  }
}
layer {
  name: "relu5"
  type: "ReLU"
  bottom: "conv5"
  top: "conv5"
}
layer {
  name: "pool5"
  type: "Pooling"
  bottom: "conv5"
  top: "pool5"
  pooling_param {
    pool: MAX
    kernel_size: 3
    stride: 2
  }
}
layer {
  name: "fc6"
  type: "InnerProduct"
  bottom: "pool5"
  top: "fc6"
  param {
    lr_mult: 1
    decay_mult: 1
  }
  param {
    lr_mult: 2
    decay_mult: 0
  }
  inner_product_param {
    num_output: 4096
    weight_filler {
      type: "gaussian"
      std: 0.005
    }
    bias_filler {
      type: "constant"
      value: 0.1
    }
  }
}
layer {
  name: "relu6"
  type: "ReLU"
  bottom: "fc6"
  top: "fc6"
}
layer {
  name: "drop6"
  type: "Dropout"
  bottom: "fc6"
  top: "fc6"
  dropout_param {
    dropout_ratio: 0.5
  }
}
layer {
  name: "fc7"
  type: "InnerProduct"
  bottom: "fc6"
  top: "fc7"
  param {
    lr_mult: 1
    decay_mult: 1
  }
  param {
    lr_mult: 2
    decay_mult: 0
  }
  inner_product_param {
    num_output: 4096
    weight_filler {
      type: "gaussian"
      std: 0.005
    }
    bias_filler {
      type: "constant"
      value: 0.1
    }
  }
}
layer {
  name: "relu7"
  type: "ReLU"
  bottom: "fc7"
  top: "fc7"
}
layer {
  name: "drop7"
  type: "Dropout"
  bottom: "fc7"
  top: "fc7"
  dropout_param {
    dropout_ratio: 0.5
  }
}
layer {
  name: "fc8_plantvillage"
  type: "InnerProduct"
  bottom: "fc7"
  top: "fc8_plantvillage"
  param {
    lr_mult: 1
    decay_mult: 1
  }
  param {
    lr_mult: 2
    decay_mult: 0
  }
  inner_product_param {
    num_output: 38
    weight_filler {
      type: "gaussian"
      std: 0.01
    }
    bias_filler {
      type: "constant"
      value: 0
    }
  }
}
layer {
  name: "prob"
  type: "Softmax"
  bottom: "fc8_plantvillage"
  top: "prob"
  include {
    phase: TEST
  }
}
layer {
  name: "hdf5out"
  type: "HDF5Output"
  bottom: "prob"
  bottom: "label"
  include {
    phase: TEST
  }
  hdf5_output_param {
    file_name: "hdf5_dumps/iter_3504.h5"
  }
}
layer {
  name: "loss"
  type: "SoftmaxWithLoss"
  bottom: "fc8_plantvillage"
  bottom: "label"
  top: "loss"
}
layer {
  name: "accuracy"
  type: "Accuracy"
  bottom: "fc8_plantvillage"
  bottom: "label"
  top: "accuracy"
  include {
    phase: TEST
  }
}
I0403 12:48:46.930387 30839 layer_factory.hpp:77] Creating layer data
I0403 12:48:46.931047 30839 net.cpp:91] Creating Layer data
I0403 12:48:46.931078 30839 net.cpp:399] data -> data
I0403 12:48:46.931134 30839 net.cpp:399] data -> label
I0403 12:48:46.931171 30839 data_transformer.cpp:25] Loading mean file from: /home/mohanty/data/final_dataset/lmdb/segmented-40-60/mean.binaryproto
I0403 12:48:46.932348 30842 db_lmdb.cpp:38] Opened lmdb /home/mohanty/data/final_dataset/lmdb/segmented-40-60/test_db
I0403 12:48:46.945832 30839 data_layer.cpp:41] output data size: 100,3,227,227
I0403 12:48:47.070852 30839 net.cpp:141] Setting up data
I0403 12:48:47.070916 30839 net.cpp:148] Top shape: 100 3 227 227 (15458700)
I0403 12:48:47.070942 30839 net.cpp:148] Top shape: 100 (100)
I0403 12:48:47.070960 30839 net.cpp:156] Memory required for data: 61835200
I0403 12:48:47.070988 30839 layer_factory.hpp:77] Creating layer label_data_1_split
I0403 12:48:47.071017 30839 net.cpp:91] Creating Layer label_data_1_split
I0403 12:48:47.071035 30839 net.cpp:425] label_data_1_split <- label
I0403 12:48:47.071069 30839 net.cpp:399] label_data_1_split -> label_data_1_split_0
I0403 12:48:47.071099 30839 net.cpp:399] label_data_1_split -> label_data_1_split_1
I0403 12:48:47.071120 30839 net.cpp:399] label_data_1_split -> label_data_1_split_2
I0403 12:48:47.071187 30839 net.cpp:141] Setting up label_data_1_split
I0403 12:48:47.071213 30839 net.cpp:148] Top shape: 100 (100)
I0403 12:48:47.071231 30839 net.cpp:148] Top shape: 100 (100)
I0403 12:48:47.071250 30839 net.cpp:148] Top shape: 100 (100)
I0403 12:48:47.071266 30839 net.cpp:156] Memory required for data: 61836400
I0403 12:48:47.071290 30839 layer_factory.hpp:77] Creating layer conv1
I0403 12:48:47.071324 30839 net.cpp:91] Creating Layer conv1
I0403 12:48:47.071344 30839 net.cpp:425] conv1 <- data
I0403 12:48:47.071365 30839 net.cpp:399] conv1 -> conv1
I0403 12:48:47.215893 30839 net.cpp:141] Setting up conv1
I0403 12:48:47.215996 30839 net.cpp:148] Top shape: 100 96 55 55 (29040000)
I0403 12:48:47.216014 30839 net.cpp:156] Memory required for data: 177996400
I0403 12:48:47.216048 30839 layer_factory.hpp:77] Creating layer relu1
I0403 12:48:47.216076 30839 net.cpp:91] Creating Layer relu1
I0403 12:48:47.216095 30839 net.cpp:425] relu1 <- conv1
I0403 12:48:47.216115 30839 net.cpp:386] relu1 -> conv1 (in-place)
I0403 12:48:47.216387 30839 net.cpp:141] Setting up relu1
I0403 12:48:47.216416 30839 net.cpp:148] Top shape: 100 96 55 55 (29040000)
I0403 12:48:47.216472 30839 net.cpp:156] Memory required for data: 294156400
I0403 12:48:47.216490 30839 layer_factory.hpp:77] Creating layer norm1
I0403 12:48:47.216519 30839 net.cpp:91] Creating Layer norm1
I0403 12:48:47.216538 30839 net.cpp:425] norm1 <- conv1
I0403 12:48:47.216558 30839 net.cpp:399] norm1 -> norm1
I0403 12:48:47.216908 30839 net.cpp:141] Setting up norm1
I0403 12:48:47.216938 30839 net.cpp:148] Top shape: 100 96 55 55 (29040000)
I0403 12:48:47.216954 30839 net.cpp:156] Memory required for data: 410316400
I0403 12:48:47.216971 30839 layer_factory.hpp:77] Creating layer pool1
I0403 12:48:47.216996 30839 net.cpp:91] Creating Layer pool1
I0403 12:48:47.217015 30839 net.cpp:425] pool1 <- norm1
I0403 12:48:47.217036 30839 net.cpp:399] pool1 -> pool1
I0403 12:48:47.217106 30839 net.cpp:141] Setting up pool1
I0403 12:48:47.217131 30839 net.cpp:148] Top shape: 100 96 27 27 (6998400)
I0403 12:48:47.217146 30839 net.cpp:156] Memory required for data: 438310000
I0403 12:48:47.217164 30839 layer_factory.hpp:77] Creating layer conv2
I0403 12:48:47.217190 30839 net.cpp:91] Creating Layer conv2
I0403 12:48:47.217208 30839 net.cpp:425] conv2 <- pool1
I0403 12:48:47.217227 30839 net.cpp:399] conv2 -> conv2
I0403 12:48:47.234040 30839 net.cpp:141] Setting up conv2
I0403 12:48:47.234099 30839 net.cpp:148] Top shape: 100 256 27 27 (18662400)
I0403 12:48:47.234118 30839 net.cpp:156] Memory required for data: 512959600
I0403 12:48:47.234144 30839 layer_factory.hpp:77] Creating layer relu2
I0403 12:48:47.234169 30839 net.cpp:91] Creating Layer relu2
I0403 12:48:47.234187 30839 net.cpp:425] relu2 <- conv2
I0403 12:48:47.234207 30839 net.cpp:386] relu2 -> conv2 (in-place)
I0403 12:48:47.234498 30839 net.cpp:141] Setting up relu2
I0403 12:48:47.234526 30839 net.cpp:148] Top shape: 100 256 27 27 (18662400)
I0403 12:48:47.234544 30839 net.cpp:156] Memory required for data: 587609200
I0403 12:48:47.234560 30839 layer_factory.hpp:77] Creating layer norm2
I0403 12:48:47.234586 30839 net.cpp:91] Creating Layer norm2
I0403 12:48:47.234603 30839 net.cpp:425] norm2 <- conv2
I0403 12:48:47.234622 30839 net.cpp:399] norm2 -> norm2
I0403 12:48:47.234819 30839 net.cpp:141] Setting up norm2
I0403 12:48:47.234846 30839 net.cpp:148] Top shape: 100 256 27 27 (18662400)
I0403 12:48:47.234863 30839 net.cpp:156] Memory required for data: 662258800
I0403 12:48:47.234879 30839 layer_factory.hpp:77] Creating layer pool2
I0403 12:48:47.234899 30839 net.cpp:91] Creating Layer pool2
I0403 12:48:47.234915 30839 net.cpp:425] pool2 <- norm2
I0403 12:48:47.234935 30839 net.cpp:399] pool2 -> pool2
I0403 12:48:47.234988 30839 net.cpp:141] Setting up pool2
I0403 12:48:47.235011 30839 net.cpp:148] Top shape: 100 256 13 13 (4326400)
I0403 12:48:47.235028 30839 net.cpp:156] Memory required for data: 679564400
I0403 12:48:47.235044 30839 layer_factory.hpp:77] Creating layer conv3
I0403 12:48:47.235067 30839 net.cpp:91] Creating Layer conv3
I0403 12:48:47.235085 30839 net.cpp:425] conv3 <- pool2
I0403 12:48:47.235105 30839 net.cpp:399] conv3 -> conv3
I0403 12:48:47.275004 30839 net.cpp:141] Setting up conv3
I0403 12:48:47.275132 30839 net.cpp:148] Top shape: 100 384 13 13 (6489600)
I0403 12:48:47.275153 30839 net.cpp:156] Memory required for data: 705522800
I0403 12:48:47.275184 30839 layer_factory.hpp:77] Creating layer relu3
I0403 12:48:47.275208 30839 net.cpp:91] Creating Layer relu3
I0403 12:48:47.275228 30839 net.cpp:425] relu3 <- conv3
I0403 12:48:47.275246 30839 net.cpp:386] relu3 -> conv3 (in-place)
I0403 12:48:47.275532 30839 net.cpp:141] Setting up relu3
I0403 12:48:47.275560 30839 net.cpp:148] Top shape: 100 384 13 13 (6489600)
I0403 12:48:47.275576 30839 net.cpp:156] Memory required for data: 731481200
I0403 12:48:47.275593 30839 layer_factory.hpp:77] Creating layer conv4
I0403 12:48:47.275619 30839 net.cpp:91] Creating Layer conv4
I0403 12:48:47.275635 30839 net.cpp:425] conv4 <- conv3
I0403 12:48:47.275660 30839 net.cpp:399] conv4 -> conv4
I0403 12:48:47.306659 30839 net.cpp:141] Setting up conv4
I0403 12:48:47.306737 30839 net.cpp:148] Top shape: 100 384 13 13 (6489600)
I0403 12:48:47.306787 30839 net.cpp:156] Memory required for data: 757439600
I0403 12:48:47.306809 30839 layer_factory.hpp:77] Creating layer relu4
I0403 12:48:47.306834 30839 net.cpp:91] Creating Layer relu4
I0403 12:48:47.306854 30839 net.cpp:425] relu4 <- conv4
I0403 12:48:47.306874 30839 net.cpp:386] relu4 -> conv4 (in-place)
I0403 12:48:47.307157 30839 net.cpp:141] Setting up relu4
I0403 12:48:47.307184 30839 net.cpp:148] Top shape: 100 384 13 13 (6489600)
I0403 12:48:47.307200 30839 net.cpp:156] Memory required for data: 783398000
I0403 12:48:47.307215 30839 layer_factory.hpp:77] Creating layer conv5
I0403 12:48:47.307309 30839 net.cpp:91] Creating Layer conv5
I0403 12:48:47.307334 30839 net.cpp:425] conv5 <- conv4
I0403 12:48:47.307358 30839 net.cpp:399] conv5 -> conv5
I0403 12:48:47.328337 30839 net.cpp:141] Setting up conv5
I0403 12:48:47.328395 30839 net.cpp:148] Top shape: 100 256 13 13 (4326400)
I0403 12:48:47.328413 30839 net.cpp:156] Memory required for data: 800703600
I0403 12:48:47.328439 30839 layer_factory.hpp:77] Creating layer relu5
I0403 12:48:47.328465 30839 net.cpp:91] Creating Layer relu5
I0403 12:48:47.328485 30839 net.cpp:425] relu5 <- conv5
I0403 12:48:47.328503 30839 net.cpp:386] relu5 -> conv5 (in-place)
I0403 12:48:47.328800 30839 net.cpp:141] Setting up relu5
I0403 12:48:47.328830 30839 net.cpp:148] Top shape: 100 256 13 13 (4326400)
I0403 12:48:47.328845 30839 net.cpp:156] Memory required for data: 818009200
I0403 12:48:47.328861 30839 layer_factory.hpp:77] Creating layer pool5
I0403 12:48:47.328888 30839 net.cpp:91] Creating Layer pool5
I0403 12:48:47.328907 30839 net.cpp:425] pool5 <- conv5
I0403 12:48:47.328928 30839 net.cpp:399] pool5 -> pool5
I0403 12:48:47.328992 30839 net.cpp:141] Setting up pool5
I0403 12:48:47.329017 30839 net.cpp:148] Top shape: 100 256 6 6 (921600)
I0403 12:48:47.329033 30839 net.cpp:156] Memory required for data: 821695600
I0403 12:48:47.329049 30839 layer_factory.hpp:77] Creating layer fc6
I0403 12:48:47.329079 30839 net.cpp:91] Creating Layer fc6
I0403 12:48:47.329098 30839 net.cpp:425] fc6 <- pool5
I0403 12:48:47.329118 30839 net.cpp:399] fc6 -> fc6
I0403 12:48:48.906479 30839 net.cpp:141] Setting up fc6
I0403 12:48:48.906533 30839 net.cpp:148] Top shape: 100 4096 (409600)
I0403 12:48:48.906550 30839 net.cpp:156] Memory required for data: 823334000
I0403 12:48:48.906572 30839 layer_factory.hpp:77] Creating layer relu6
I0403 12:48:48.906607 30839 net.cpp:91] Creating Layer relu6
I0403 12:48:48.906626 30839 net.cpp:425] relu6 <- fc6
I0403 12:48:48.906649 30839 net.cpp:386] relu6 -> fc6 (in-place)
I0403 12:48:48.906883 30839 net.cpp:141] Setting up relu6
I0403 12:48:48.906908 30839 net.cpp:148] Top shape: 100 4096 (409600)
I0403 12:48:48.906935 30839 net.cpp:156] Memory required for data: 824972400
I0403 12:48:48.906950 30839 layer_factory.hpp:77] Creating layer drop6
I0403 12:48:48.906971 30839 net.cpp:91] Creating Layer drop6
I0403 12:48:48.906987 30839 net.cpp:425] drop6 <- fc6
I0403 12:48:48.907004 30839 net.cpp:386] drop6 -> fc6 (in-place)
I0403 12:48:48.907057 30839 net.cpp:141] Setting up drop6
I0403 12:48:48.907078 30839 net.cpp:148] Top shape: 100 4096 (409600)
I0403 12:48:48.907091 30839 net.cpp:156] Memory required for data: 826610800
I0403 12:48:48.907105 30839 layer_factory.hpp:77] Creating layer fc7
I0403 12:48:48.907126 30839 net.cpp:91] Creating Layer fc7
I0403 12:48:48.907141 30839 net.cpp:425] fc7 <- fc6
I0403 12:48:48.907160 30839 net.cpp:399] fc7 -> fc7
I0403 12:48:49.595284 30839 net.cpp:141] Setting up fc7
I0403 12:48:49.595376 30839 net.cpp:148] Top shape: 100 4096 (409600)
I0403 12:48:49.595394 30839 net.cpp:156] Memory required for data: 828249200
I0403 12:48:49.595417 30839 layer_factory.hpp:77] Creating layer relu7
I0403 12:48:49.595439 30839 net.cpp:91] Creating Layer relu7
I0403 12:48:49.595458 30839 net.cpp:425] relu7 <- fc7
I0403 12:48:49.595477 30839 net.cpp:386] relu7 -> fc7 (in-place)
I0403 12:48:49.595898 30839 net.cpp:141] Setting up relu7
I0403 12:48:49.595926 30839 net.cpp:148] Top shape: 100 4096 (409600)
I0403 12:48:49.595971 30839 net.cpp:156] Memory required for data: 829887600
I0403 12:48:49.595988 30839 layer_factory.hpp:77] Creating layer drop7
I0403 12:48:49.596009 30839 net.cpp:91] Creating Layer drop7
I0403 12:48:49.596026 30839 net.cpp:425] drop7 <- fc7
I0403 12:48:49.596045 30839 net.cpp:386] drop7 -> fc7 (in-place)
I0403 12:48:49.596088 30839 net.cpp:141] Setting up drop7
I0403 12:48:49.596110 30839 net.cpp:148] Top shape: 100 4096 (409600)
I0403 12:48:49.596125 30839 net.cpp:156] Memory required for data: 831526000
I0403 12:48:49.596140 30839 layer_factory.hpp:77] Creating layer fc8_plantvillage
I0403 12:48:49.596160 30839 net.cpp:91] Creating Layer fc8_plantvillage
I0403 12:48:49.596179 30839 net.cpp:425] fc8_plantvillage <- fc7
I0403 12:48:49.596197 30839 net.cpp:399] fc8_plantvillage -> fc8_plantvillage
I0403 12:48:49.602906 30839 net.cpp:141] Setting up fc8_plantvillage
I0403 12:48:49.602936 30839 net.cpp:148] Top shape: 100 38 (3800)
I0403 12:48:49.602962 30839 net.cpp:156] Memory required for data: 831541200
I0403 12:48:49.602979 30839 layer_factory.hpp:77] Creating layer fc8_plantvillage_fc8_plantvillage_0_split
I0403 12:48:49.603000 30839 net.cpp:91] Creating Layer fc8_plantvillage_fc8_plantvillage_0_split
I0403 12:48:49.603018 30839 net.cpp:425] fc8_plantvillage_fc8_plantvillage_0_split <- fc8_plantvillage
I0403 12:48:49.603034 30839 net.cpp:399] fc8_plantvillage_fc8_plantvillage_0_split -> fc8_plantvillage_fc8_plantvillage_0_split_0
I0403 12:48:49.603055 30839 net.cpp:399] fc8_plantvillage_fc8_plantvillage_0_split -> fc8_plantvillage_fc8_plantvillage_0_split_1
I0403 12:48:49.603076 30839 net.cpp:399] fc8_plantvillage_fc8_plantvillage_0_split -> fc8_plantvillage_fc8_plantvillage_0_split_2
I0403 12:48:49.603152 30839 net.cpp:141] Setting up fc8_plantvillage_fc8_plantvillage_0_split
I0403 12:48:49.603173 30839 net.cpp:148] Top shape: 100 38 (3800)
I0403 12:48:49.603189 30839 net.cpp:148] Top shape: 100 38 (3800)
I0403 12:48:49.603205 30839 net.cpp:148] Top shape: 100 38 (3800)
I0403 12:48:49.603219 30839 net.cpp:156] Memory required for data: 831586800
I0403 12:48:49.603234 30839 layer_factory.hpp:77] Creating layer prob
I0403 12:48:49.603252 30839 net.cpp:91] Creating Layer prob
I0403 12:48:49.603269 30839 net.cpp:425] prob <- fc8_plantvillage_fc8_plantvillage_0_split_0
I0403 12:48:49.603292 30839 net.cpp:399] prob -> prob
I0403 12:48:49.603523 30839 net.cpp:141] Setting up prob
I0403 12:48:49.603549 30839 net.cpp:148] Top shape: 100 38 (3800)
I0403 12:48:49.603564 30839 net.cpp:156] Memory required for data: 831602000
I0403 12:48:49.603579 30839 layer_factory.hpp:77] Creating layer hdf5out
I0403 12:48:49.603600 30839 net.cpp:91] Creating Layer hdf5out
I0403 12:48:49.603616 30839 net.cpp:425] hdf5out <- prob
I0403 12:48:49.603633 30839 net.cpp:425] hdf5out <- label_data_1_split_0
I0403 12:48:49.606303 30839 net.cpp:141] Setting up hdf5out
…
