…
I0403 12:46:49.015095 30779 net.cpp:313] The NetState phase (1) differed from the phase (0) specified by a rule in layer data
I0403 12:46:49.015432 30779 net.cpp:49] Initializing net from parameters: 
state {
  phase: TEST
}
layer {
  name: "data"
  type: "Data"
  top: "data"
  top: "label"
  include {
    phase: TEST
  }
  transform_param {
    crop_size: 227
    mean_file: "/home/mohanty/data/final_dataset/lmdb/segmented-40-60/mean.binaryproto"
  }
  data_param {
    source: "/home/mohanty/data/final_dataset/lmdb/segmented-40-60/test_db"
    batch_size: 100
    backend: LMDB
  }
}
layer {
  name: "conv1"
  type: "Convolution"
  bottom: "data"
  top: "conv1"
  param {
    lr_mult: 1
    decay_mult: 1
  }
  param {
    lr_mult: 2
    decay_mult: 0
  }
  convolution_param {
    num_output: 96
    kernel_size: 11
    stride: 4
    weight_filler {
      type: "gaussian"
      std: 0.01
    }
    bias_filler {
      type: "constant"
      value: 0
    }
  }
}
layer {
  name: "relu1"
  type: "ReLU"
  bottom: "conv1"
  top: "conv1"
}
layer {
  name: "norm1"
  type: "LRN"
  bottom: "conv1"
  top: "norm1"
  lrn_param {
    local_size: 5
    alpha: 0.0001
    beta: 0.75
  }
}
layer {
  name: "pool1"
  type: "Pooling"
  bottom: "norm1"
  top: "pool1"
  pooling_param {
    pool: MAX
    kernel_size: 3
    stride: 2
  }
}
layer {
  name: "conv2"
  type: "Convolution"
  bottom: "pool1"
  top: "conv2"
  param {
    lr_mult: 1
    decay_mult: 1
  }
  param {
    lr_mult: 2
    decay_mult: 0
  }
  convolution_param {
    num_output: 256
    pad: 2
    kernel_size: 5
    group: 2
    weight_filler {
      type: "gaussian"
      std: 0.01
    }
    bias_filler {
      type: "constant"
      value: 0.1
    }
  }
}
layer {
  name: "relu2"
  type: "ReLU"
  bottom: "conv2"
  top: "conv2"
}
layer {
  name: "norm2"
  type: "LRN"
  bottom: "conv2"
  top: "norm2"
  lrn_param {
    local_size: 5
    alpha: 0.0001
    beta: 0.75
  }
}
layer {
  name: "pool2"
  type: "Pooling"
  bottom: "norm2"
  top: "pool2"
  pooling_param {
    pool: MAX
    kernel_size: 3
    stride: 2
  }
}
layer {
  name: "conv3"
  type: "Convolution"
  bottom: "pool2"
  top: "conv3"
  param {
    lr_mult: 1
    decay_mult: 1
  }
  param {
    lr_mult: 2
    decay_mult: 0
  }
  convolution_param {
    num_output: 384
    pad: 1
    kernel_size: 3
    weight_filler {
      type: "gaussian"
      std: 0.01
    }
    bias_filler {
      type: "constant"
      value: 0
    }
  }
}
layer {
  name: "relu3"
  type: "ReLU"
  bottom: "conv3"
  top: "conv3"
}
layer {
  name: "conv4"
  type: "Convolution"
  bottom: "conv3"
  top: "conv4"
  param {
    lr_mult: 1
    decay_mult: 1
  }
  param {
    lr_mult: 2
    decay_mult: 0
  }
  convolution_param {
    num_output: 384
    pad: 1
    kernel_size: 3
    group: 2
    weight_filler {
      type: "gaussian"
      std: 0.01
    }
    bias_filler {
      type: "constant"
      value: 0.1
    }
  }
}
layer {
  name: "relu4"
  type: "ReLU"
  bottom: "conv4"
  top: "conv4"
}
layer {
  name: "conv5"
  type: "Convolution"
  bottom: "conv4"
  top: "conv5"
  param {
    lr_mult: 1
    decay_mult: 1
  }
  param {
    lr_mult: 2
    decay_mult: 0
  }
  convolution_param {
    num_output: 256
    pad: 1
    kernel_size: 3
    group: 2
    weight_filler {
      type: "gaussian"
      std: 0.01
    }
    bias_filler {
      type: "constant"
      value: 0.1
    }
  }
}
layer {
  name: "relu5"
  type: "ReLU"
  bottom: "conv5"
  top: "conv5"
}
layer {
  name: "pool5"
  type: "Pooling"
  bottom: "conv5"
  top: "pool5"
  pooling_param {
    pool: MAX
    kernel_size: 3
    stride: 2
  }
}
layer {
  name: "fc6"
  type: "InnerProduct"
  bottom: "pool5"
  top: "fc6"
  param {
    lr_mult: 1
    decay_mult: 1
  }
  param {
    lr_mult: 2
    decay_mult: 0
  }
  inner_product_param {
    num_output: 4096
    weight_filler {
      type: "gaussian"
      std: 0.005
    }
    bias_filler {
      type: "constant"
      value: 0.1
    }
  }
}
layer {
  name: "relu6"
  type: "ReLU"
  bottom: "fc6"
  top: "fc6"
}
layer {
  name: "drop6"
  type: "Dropout"
  bottom: "fc6"
  top: "fc6"
  dropout_param {
    dropout_ratio: 0.5
  }
}
layer {
  name: "fc7"
  type: "InnerProduct"
  bottom: "fc6"
  top: "fc7"
  param {
    lr_mult: 1
    decay_mult: 1
  }
  param {
    lr_mult: 2
    decay_mult: 0
  }
  inner_product_param {
    num_output: 4096
    weight_filler {
      type: "gaussian"
      std: 0.005
    }
    bias_filler {
      type: "constant"
      value: 0.1
    }
  }
}
layer {
  name: "relu7"
  type: "ReLU"
  bottom: "fc7"
  top: "fc7"
}
layer {
  name: "drop7"
  type: "Dropout"
  bottom: "fc7"
  top: "fc7"
  dropout_param {
    dropout_ratio: 0.5
  }
}
layer {
  name: "fc8_plantvillage"
  type: "InnerProduct"
  bottom: "fc7"
  top: "fc8_plantvillage"
  param {
    lr_mult: 1
    decay_mult: 1
  }
  param {
    lr_mult: 2
    decay_mult: 0
  }
  inner_product_param {
    num_output: 38
    weight_filler {
      type: "gaussian"
      std: 0.01
    }
    bias_filler {
      type: "constant"
      value: 0
    }
  }
}
layer {
  name: "prob"
  type: "Softmax"
  bottom: "fc8_plantvillage"
  top: "prob"
  include {
    phase: TEST
  }
}
layer {
  name: "hdf5out"
  type: "HDF5Output"
  bottom: "prob"
  bottom: "label"
  include {
    phase: TEST
  }
  hdf5_output_param {
    file_name: "hdf5_dumps/iter_3066.h5"
  }
}
layer {
  name: "loss"
  type: "SoftmaxWithLoss"
  bottom: "fc8_plantvillage"
  bottom: "label"
  top: "loss"
}
layer {
  name: "accuracy"
  type: "Accuracy"
  bottom: "fc8_plantvillage"
  bottom: "label"
  top: "accuracy"
  include {
    phase: TEST
  }
}
I0403 12:46:49.015988 30779 layer_factory.hpp:77] Creating layer data
I0403 12:46:49.016614 30779 net.cpp:91] Creating Layer data
I0403 12:46:49.016645 30779 net.cpp:399] data -> data
I0403 12:46:49.016700 30779 net.cpp:399] data -> label
I0403 12:46:49.016736 30779 data_transformer.cpp:25] Loading mean file from: /home/mohanty/data/final_dataset/lmdb/segmented-40-60/mean.binaryproto
I0403 12:46:49.017882 30784 db_lmdb.cpp:38] Opened lmdb /home/mohanty/data/final_dataset/lmdb/segmented-40-60/test_db
I0403 12:46:49.031152 30779 data_layer.cpp:41] output data size: 100,3,227,227
I0403 12:46:49.151954 30779 net.cpp:141] Setting up data
I0403 12:46:49.152061 30779 net.cpp:148] Top shape: 100 3 227 227 (15458700)
I0403 12:46:49.152084 30779 net.cpp:148] Top shape: 100 (100)
I0403 12:46:49.152099 30779 net.cpp:156] Memory required for data: 61835200
I0403 12:46:49.152127 30779 layer_factory.hpp:77] Creating layer label_data_1_split
I0403 12:46:49.152150 30779 net.cpp:91] Creating Layer label_data_1_split
I0403 12:46:49.152168 30779 net.cpp:425] label_data_1_split <- label
I0403 12:46:49.152199 30779 net.cpp:399] label_data_1_split -> label_data_1_split_0
I0403 12:46:49.152225 30779 net.cpp:399] label_data_1_split -> label_data_1_split_1
I0403 12:46:49.152251 30779 net.cpp:399] label_data_1_split -> label_data_1_split_2
I0403 12:46:49.152317 30779 net.cpp:141] Setting up label_data_1_split
I0403 12:46:49.152340 30779 net.cpp:148] Top shape: 100 (100)
I0403 12:46:49.152357 30779 net.cpp:148] Top shape: 100 (100)
I0403 12:46:49.152374 30779 net.cpp:148] Top shape: 100 (100)
I0403 12:46:49.152387 30779 net.cpp:156] Memory required for data: 61836400
I0403 12:46:49.152402 30779 layer_factory.hpp:77] Creating layer conv1
I0403 12:46:49.152434 30779 net.cpp:91] Creating Layer conv1
I0403 12:46:49.152452 30779 net.cpp:425] conv1 <- data
I0403 12:46:49.152472 30779 net.cpp:399] conv1 -> conv1
I0403 12:46:49.296782 30779 net.cpp:141] Setting up conv1
I0403 12:46:49.296869 30779 net.cpp:148] Top shape: 100 96 55 55 (29040000)
I0403 12:46:49.296886 30779 net.cpp:156] Memory required for data: 177996400
I0403 12:46:49.296918 30779 layer_factory.hpp:77] Creating layer relu1
I0403 12:46:49.296946 30779 net.cpp:91] Creating Layer relu1
I0403 12:46:49.296964 30779 net.cpp:425] relu1 <- conv1
I0403 12:46:49.296983 30779 net.cpp:386] relu1 -> conv1 (in-place)
I0403 12:46:49.297235 30779 net.cpp:141] Setting up relu1
I0403 12:46:49.297266 30779 net.cpp:148] Top shape: 100 96 55 55 (29040000)
I0403 12:46:49.297312 30779 net.cpp:156] Memory required for data: 294156400
I0403 12:46:49.297328 30779 layer_factory.hpp:77] Creating layer norm1
I0403 12:46:49.297376 30779 net.cpp:91] Creating Layer norm1
I0403 12:46:49.297399 30779 net.cpp:425] norm1 <- conv1
I0403 12:46:49.297416 30779 net.cpp:399] norm1 -> norm1
I0403 12:46:49.297739 30779 net.cpp:141] Setting up norm1
I0403 12:46:49.297778 30779 net.cpp:148] Top shape: 100 96 55 55 (29040000)
I0403 12:46:49.297793 30779 net.cpp:156] Memory required for data: 410316400
I0403 12:46:49.297808 30779 layer_factory.hpp:77] Creating layer pool1
I0403 12:46:49.297830 30779 net.cpp:91] Creating Layer pool1
I0403 12:46:49.297847 30779 net.cpp:425] pool1 <- norm1
I0403 12:46:49.297865 30779 net.cpp:399] pool1 -> pool1
I0403 12:46:49.297930 30779 net.cpp:141] Setting up pool1
I0403 12:46:49.297953 30779 net.cpp:148] Top shape: 100 96 27 27 (6998400)
I0403 12:46:49.297968 30779 net.cpp:156] Memory required for data: 438310000
I0403 12:46:49.297983 30779 layer_factory.hpp:77] Creating layer conv2
I0403 12:46:49.298008 30779 net.cpp:91] Creating Layer conv2
I0403 12:46:49.298024 30779 net.cpp:425] conv2 <- pool1
I0403 12:46:49.298043 30779 net.cpp:399] conv2 -> conv2
I0403 12:46:49.312978 30779 net.cpp:141] Setting up conv2
I0403 12:46:49.313031 30779 net.cpp:148] Top shape: 100 256 27 27 (18662400)
I0403 12:46:49.313048 30779 net.cpp:156] Memory required for data: 512959600
I0403 12:46:49.313071 30779 layer_factory.hpp:77] Creating layer relu2
I0403 12:46:49.313091 30779 net.cpp:91] Creating Layer relu2
I0403 12:46:49.313108 30779 net.cpp:425] relu2 <- conv2
I0403 12:46:49.313125 30779 net.cpp:386] relu2 -> conv2 (in-place)
I0403 12:46:49.313413 30779 net.cpp:141] Setting up relu2
I0403 12:46:49.313454 30779 net.cpp:148] Top shape: 100 256 27 27 (18662400)
I0403 12:46:49.313472 30779 net.cpp:156] Memory required for data: 587609200
I0403 12:46:49.313488 30779 layer_factory.hpp:77] Creating layer norm2
I0403 12:46:49.313510 30779 net.cpp:91] Creating Layer norm2
I0403 12:46:49.313565 30779 net.cpp:425] norm2 <- conv2
I0403 12:46:49.313603 30779 net.cpp:399] norm2 -> norm2
I0403 12:46:49.313807 30779 net.cpp:141] Setting up norm2
I0403 12:46:49.313833 30779 net.cpp:148] Top shape: 100 256 27 27 (18662400)
I0403 12:46:49.313848 30779 net.cpp:156] Memory required for data: 662258800
I0403 12:46:49.313863 30779 layer_factory.hpp:77] Creating layer pool2
I0403 12:46:49.313882 30779 net.cpp:91] Creating Layer pool2
I0403 12:46:49.313897 30779 net.cpp:425] pool2 <- norm2
I0403 12:46:49.313915 30779 net.cpp:399] pool2 -> pool2
I0403 12:46:49.313964 30779 net.cpp:141] Setting up pool2
I0403 12:46:49.313987 30779 net.cpp:148] Top shape: 100 256 13 13 (4326400)
I0403 12:46:49.314002 30779 net.cpp:156] Memory required for data: 679564400
I0403 12:46:49.314018 30779 layer_factory.hpp:77] Creating layer conv3
I0403 12:46:49.314039 30779 net.cpp:91] Creating Layer conv3
I0403 12:46:49.314055 30779 net.cpp:425] conv3 <- pool2
I0403 12:46:49.314074 30779 net.cpp:399] conv3 -> conv3
I0403 12:46:49.353212 30779 net.cpp:141] Setting up conv3
I0403 12:46:49.353335 30779 net.cpp:148] Top shape: 100 384 13 13 (6489600)
I0403 12:46:49.353356 30779 net.cpp:156] Memory required for data: 705522800
I0403 12:46:49.353382 30779 layer_factory.hpp:77] Creating layer relu3
I0403 12:46:49.353405 30779 net.cpp:91] Creating Layer relu3
I0403 12:46:49.353423 30779 net.cpp:425] relu3 <- conv3
I0403 12:46:49.353454 30779 net.cpp:386] relu3 -> conv3 (in-place)
I0403 12:46:49.353756 30779 net.cpp:141] Setting up relu3
I0403 12:46:49.353787 30779 net.cpp:148] Top shape: 100 384 13 13 (6489600)
I0403 12:46:49.353804 30779 net.cpp:156] Memory required for data: 731481200
I0403 12:46:49.353821 30779 layer_factory.hpp:77] Creating layer conv4
I0403 12:46:49.353847 30779 net.cpp:91] Creating Layer conv4
I0403 12:46:49.353864 30779 net.cpp:425] conv4 <- conv3
I0403 12:46:49.353883 30779 net.cpp:399] conv4 -> conv4
I0403 12:46:49.384413 30779 net.cpp:141] Setting up conv4
I0403 12:46:49.384505 30779 net.cpp:148] Top shape: 100 384 13 13 (6489600)
I0403 12:46:49.384557 30779 net.cpp:156] Memory required for data: 757439600
I0403 12:46:49.384579 30779 layer_factory.hpp:77] Creating layer relu4
I0403 12:46:49.384606 30779 net.cpp:91] Creating Layer relu4
I0403 12:46:49.384625 30779 net.cpp:425] relu4 <- conv4
I0403 12:46:49.384645 30779 net.cpp:386] relu4 -> conv4 (in-place)
I0403 12:46:49.384999 30779 net.cpp:141] Setting up relu4
I0403 12:46:49.385026 30779 net.cpp:148] Top shape: 100 384 13 13 (6489600)
I0403 12:46:49.385042 30779 net.cpp:156] Memory required for data: 783398000
I0403 12:46:49.385058 30779 layer_factory.hpp:77] Creating layer conv5
I0403 12:46:49.385085 30779 net.cpp:91] Creating Layer conv5
I0403 12:46:49.385103 30779 net.cpp:425] conv5 <- conv4
I0403 12:46:49.385125 30779 net.cpp:399] conv5 -> conv5
I0403 12:46:49.406044 30779 net.cpp:141] Setting up conv5
I0403 12:46:49.406107 30779 net.cpp:148] Top shape: 100 256 13 13 (4326400)
I0403 12:46:49.406124 30779 net.cpp:156] Memory required for data: 800703600
I0403 12:46:49.406152 30779 layer_factory.hpp:77] Creating layer relu5
I0403 12:46:49.406175 30779 net.cpp:91] Creating Layer relu5
I0403 12:46:49.406193 30779 net.cpp:425] relu5 <- conv5
I0403 12:46:49.406213 30779 net.cpp:386] relu5 -> conv5 (in-place)
I0403 12:46:49.406503 30779 net.cpp:141] Setting up relu5
I0403 12:46:49.406533 30779 net.cpp:148] Top shape: 100 256 13 13 (4326400)
I0403 12:46:49.406549 30779 net.cpp:156] Memory required for data: 818009200
I0403 12:46:49.406564 30779 layer_factory.hpp:77] Creating layer pool5
I0403 12:46:49.406586 30779 net.cpp:91] Creating Layer pool5
I0403 12:46:49.406604 30779 net.cpp:425] pool5 <- conv5
I0403 12:46:49.406625 30779 net.cpp:399] pool5 -> pool5
I0403 12:46:49.406687 30779 net.cpp:141] Setting up pool5
I0403 12:46:49.406713 30779 net.cpp:148] Top shape: 100 256 6 6 (921600)
I0403 12:46:49.406728 30779 net.cpp:156] Memory required for data: 821695600
I0403 12:46:49.406744 30779 layer_factory.hpp:77] Creating layer fc6
I0403 12:46:49.406771 30779 net.cpp:91] Creating Layer fc6
I0403 12:46:49.406788 30779 net.cpp:425] fc6 <- pool5
I0403 12:46:49.406810 30779 net.cpp:399] fc6 -> fc6
I0403 12:46:50.974930 30779 net.cpp:141] Setting up fc6
I0403 12:46:50.975020 30779 net.cpp:148] Top shape: 100 4096 (409600)
I0403 12:46:50.975038 30779 net.cpp:156] Memory required for data: 823334000
I0403 12:46:50.975059 30779 layer_factory.hpp:77] Creating layer relu6
I0403 12:46:50.975080 30779 net.cpp:91] Creating Layer relu6
I0403 12:46:50.975098 30779 net.cpp:425] relu6 <- fc6
I0403 12:46:50.975117 30779 net.cpp:386] relu6 -> fc6 (in-place)
I0403 12:46:50.975337 30779 net.cpp:141] Setting up relu6
I0403 12:46:50.975364 30779 net.cpp:148] Top shape: 100 4096 (409600)
I0403 12:46:50.975379 30779 net.cpp:156] Memory required for data: 824972400
I0403 12:46:50.975394 30779 layer_factory.hpp:77] Creating layer drop6
I0403 12:46:50.975414 30779 net.cpp:91] Creating Layer drop6
I0403 12:46:50.975428 30779 net.cpp:425] drop6 <- fc6
I0403 12:46:50.975450 30779 net.cpp:386] drop6 -> fc6 (in-place)
I0403 12:46:50.975502 30779 net.cpp:141] Setting up drop6
I0403 12:46:50.975523 30779 net.cpp:148] Top shape: 100 4096 (409600)
I0403 12:46:50.975538 30779 net.cpp:156] Memory required for data: 826610800
I0403 12:46:50.975553 30779 layer_factory.hpp:77] Creating layer fc7
I0403 12:46:50.975577 30779 net.cpp:91] Creating Layer fc7
I0403 12:46:50.975594 30779 net.cpp:425] fc7 <- fc6
I0403 12:46:50.975615 30779 net.cpp:399] fc7 -> fc7
I0403 12:46:51.657874 30779 net.cpp:141] Setting up fc7
I0403 12:46:51.657951 30779 net.cpp:148] Top shape: 100 4096 (409600)
I0403 12:46:51.657968 30779 net.cpp:156] Memory required for data: 828249200
I0403 12:46:51.657987 30779 layer_factory.hpp:77] Creating layer relu7
I0403 12:46:51.658010 30779 net.cpp:91] Creating Layer relu7
I0403 12:46:51.658026 30779 net.cpp:425] relu7 <- fc7
I0403 12:46:51.658046 30779 net.cpp:386] relu7 -> fc7 (in-place)
I0403 12:46:51.658463 30779 net.cpp:141] Setting up relu7
I0403 12:46:51.658491 30779 net.cpp:148] Top shape: 100 4096 (409600)
I0403 12:46:51.658540 30779 net.cpp:156] Memory required for data: 829887600
I0403 12:46:51.658555 30779 layer_factory.hpp:77] Creating layer drop7
I0403 12:46:51.658574 30779 net.cpp:91] Creating Layer drop7
I0403 12:46:51.658589 30779 net.cpp:425] drop7 <- fc7
I0403 12:46:51.658606 30779 net.cpp:386] drop7 -> fc7 (in-place)
I0403 12:46:51.658649 30779 net.cpp:141] Setting up drop7
I0403 12:46:51.658671 30779 net.cpp:148] Top shape: 100 4096 (409600)
I0403 12:46:51.658684 30779 net.cpp:156] Memory required for data: 831526000
I0403 12:46:51.658699 30779 layer_factory.hpp:77] Creating layer fc8_plantvillage
I0403 12:46:51.658721 30779 net.cpp:91] Creating Layer fc8_plantvillage
I0403 12:46:51.658737 30779 net.cpp:425] fc8_plantvillage <- fc7
I0403 12:46:51.658754 30779 net.cpp:399] fc8_plantvillage -> fc8_plantvillage
I0403 12:46:51.665393 30779 net.cpp:141] Setting up fc8_plantvillage
I0403 12:46:51.665421 30779 net.cpp:148] Top shape: 100 38 (3800)
I0403 12:46:51.665439 30779 net.cpp:156] Memory required for data: 831541200
I0403 12:46:51.665458 30779 layer_factory.hpp:77] Creating layer fc8_plantvillage_fc8_plantvillage_0_split
I0403 12:46:51.665477 30779 net.cpp:91] Creating Layer fc8_plantvillage_fc8_plantvillage_0_split
I0403 12:46:51.665493 30779 net.cpp:425] fc8_plantvillage_fc8_plantvillage_0_split <- fc8_plantvillage
I0403 12:46:51.665513 30779 net.cpp:399] fc8_plantvillage_fc8_plantvillage_0_split -> fc8_plantvillage_fc8_plantvillage_0_split_0
I0403 12:46:51.665534 30779 net.cpp:399] fc8_plantvillage_fc8_plantvillage_0_split -> fc8_plantvillage_fc8_plantvillage_0_split_1
I0403 12:46:51.665555 30779 net.cpp:399] fc8_plantvillage_fc8_plantvillage_0_split -> fc8_plantvillage_fc8_plantvillage_0_split_2
I0403 12:46:51.665632 30779 net.cpp:141] Setting up fc8_plantvillage_fc8_plantvillage_0_split
I0403 12:46:51.665666 30779 net.cpp:148] Top shape: 100 38 (3800)
I0403 12:46:51.665683 30779 net.cpp:148] Top shape: 100 38 (3800)
I0403 12:46:51.665700 30779 net.cpp:148] Top shape: 100 38 (3800)
I0403 12:46:51.665714 30779 net.cpp:156] Memory required for data: 831586800
I0403 12:46:51.665729 30779 layer_factory.hpp:77] Creating layer prob
I0403 12:46:51.665750 30779 net.cpp:91] Creating Layer prob
I0403 12:46:51.665766 30779 net.cpp:425] prob <- fc8_plantvillage_fc8_plantvillage_0_split_0
I0403 12:46:51.665784 30779 net.cpp:399] prob -> prob
I0403 12:46:51.666020 30779 net.cpp:141] Setting up prob
I0403 12:46:51.666050 30779 net.cpp:148] Top shape: 100 38 (3800)
I0403 12:46:51.666067 30779 net.cpp:156] Memory required for data: 831602000
I0403 12:46:51.666082 30779 layer_factory.hpp:77] Creating layer hdf5out
I0403 12:46:51.666101 30779 net.cpp:91] Creating Layer hdf5out
I0403 12:46:51.666118 30779 net.cpp:425] hdf5out <- prob
I0403 12:46:51.666134 30779 net.cpp:425] hdf5out <- label_data_1_split_0
I0403 12:46:51.668426 30779 net.cpp:141] Setting up hdf5out
…
