…
I0403 12:52:44.563900 30927 net.cpp:313] The NetState phase (1) differed from the phase (0) specified by a rule in layer data
I0403 12:52:44.564218 30927 net.cpp:49] Initializing net from parameters: 
state {
  phase: TEST
}
layer {
  name: "data"
  type: "Data"
  top: "data"
  top: "label"
  include {
    phase: TEST
  }
  transform_param {
    crop_size: 227
    mean_file: "/home/mohanty/data/final_dataset/lmdb/segmented-40-60/mean.binaryproto"
  }
  data_param {
    source: "/home/mohanty/data/final_dataset/lmdb/segmented-40-60/test_db"
    batch_size: 100
    backend: LMDB
  }
}
layer {
  name: "conv1"
  type: "Convolution"
  bottom: "data"
  top: "conv1"
  param {
    lr_mult: 1
    decay_mult: 1
  }
  param {
    lr_mult: 2
    decay_mult: 0
  }
  convolution_param {
    num_output: 96
    kernel_size: 11
    stride: 4
    weight_filler {
      type: "gaussian"
      std: 0.01
    }
    bias_filler {
      type: "constant"
      value: 0
    }
  }
}
layer {
  name: "relu1"
  type: "ReLU"
  bottom: "conv1"
  top: "conv1"
}
layer {
  name: "norm1"
  type: "LRN"
  bottom: "conv1"
  top: "norm1"
  lrn_param {
    local_size: 5
    alpha: 0.0001
    beta: 0.75
  }
}
layer {
  name: "pool1"
  type: "Pooling"
  bottom: "norm1"
  top: "pool1"
  pooling_param {
    pool: MAX
    kernel_size: 3
    stride: 2
  }
}
layer {
  name: "conv2"
  type: "Convolution"
  bottom: "pool1"
  top: "conv2"
  param {
    lr_mult: 1
    decay_mult: 1
  }
  param {
    lr_mult: 2
    decay_mult: 0
  }
  convolution_param {
    num_output: 256
    pad: 2
    kernel_size: 5
    group: 2
    weight_filler {
      type: "gaussian"
      std: 0.01
    }
    bias_filler {
      type: "constant"
      value: 0.1
    }
  }
}
layer {
  name: "relu2"
  type: "ReLU"
  bottom: "conv2"
  top: "conv2"
}
layer {
  name: "norm2"
  type: "LRN"
  bottom: "conv2"
  top: "norm2"
  lrn_param {
    local_size: 5
    alpha: 0.0001
    beta: 0.75
  }
}
layer {
  name: "pool2"
  type: "Pooling"
  bottom: "norm2"
  top: "pool2"
  pooling_param {
    pool: MAX
    kernel_size: 3
    stride: 2
  }
}
layer {
  name: "conv3"
  type: "Convolution"
  bottom: "pool2"
  top: "conv3"
  param {
    lr_mult: 1
    decay_mult: 1
  }
  param {
    lr_mult: 2
    decay_mult: 0
  }
  convolution_param {
    num_output: 384
    pad: 1
    kernel_size: 3
    weight_filler {
      type: "gaussian"
      std: 0.01
    }
    bias_filler {
      type: "constant"
      value: 0
    }
  }
}
layer {
  name: "relu3"
  type: "ReLU"
  bottom: "conv3"
  top: "conv3"
}
layer {
  name: "conv4"
  type: "Convolution"
  bottom: "conv3"
  top: "conv4"
  param {
    lr_mult: 1
    decay_mult: 1
  }
  param {
    lr_mult: 2
    decay_mult: 0
  }
  convolution_param {
    num_output: 384
    pad: 1
    kernel_size: 3
    group: 2
    weight_filler {
      type: "gaussian"
      std: 0.01
    }
    bias_filler {
      type: "constant"
      value: 0.1
    }
  }
}
layer {
  name: "relu4"
  type: "ReLU"
  bottom: "conv4"
  top: "conv4"
}
layer {
  name: "conv5"
  type: "Convolution"
  bottom: "conv4"
  top: "conv5"
  param {
    lr_mult: 1
    decay_mult: 1
  }
  param {
    lr_mult: 2
    decay_mult: 0
  }
  convolution_param {
    num_output: 256
    pad: 1
    kernel_size: 3
    group: 2
    weight_filler {
      type: "gaussian"
      std: 0.01
    }
    bias_filler {
      type: "constant"
      value: 0.1
    }
  }
}
layer {
  name: "relu5"
  type: "ReLU"
  bottom: "conv5"
  top: "conv5"
}
layer {
  name: "pool5"
  type: "Pooling"
  bottom: "conv5"
  top: "pool5"
  pooling_param {
    pool: MAX
    kernel_size: 3
    stride: 2
  }
}
layer {
  name: "fc6"
  type: "InnerProduct"
  bottom: "pool5"
  top: "fc6"
  param {
    lr_mult: 1
    decay_mult: 1
  }
  param {
    lr_mult: 2
    decay_mult: 0
  }
  inner_product_param {
    num_output: 4096
    weight_filler {
      type: "gaussian"
      std: 0.005
    }
    bias_filler {
      type: "constant"
      value: 0.1
    }
  }
}
layer {
  name: "relu6"
  type: "ReLU"
  bottom: "fc6"
  top: "fc6"
}
layer {
  name: "drop6"
  type: "Dropout"
  bottom: "fc6"
  top: "fc6"
  dropout_param {
    dropout_ratio: 0.5
  }
}
layer {
  name: "fc7"
  type: "InnerProduct"
  bottom: "fc6"
  top: "fc7"
  param {
    lr_mult: 1
    decay_mult: 1
  }
  param {
    lr_mult: 2
    decay_mult: 0
  }
  inner_product_param {
    num_output: 4096
    weight_filler {
      type: "gaussian"
      std: 0.005
    }
    bias_filler {
      type: "constant"
      value: 0.1
    }
  }
}
layer {
  name: "relu7"
  type: "ReLU"
  bottom: "fc7"
  top: "fc7"
}
layer {
  name: "drop7"
  type: "Dropout"
  bottom: "fc7"
  top: "fc7"
  dropout_param {
    dropout_ratio: 0.5
  }
}
layer {
  name: "fc8_plantvillage"
  type: "InnerProduct"
  bottom: "fc7"
  top: "fc8_plantvillage"
  param {
    lr_mult: 1
    decay_mult: 1
  }
  param {
    lr_mult: 2
    decay_mult: 0
  }
  inner_product_param {
    num_output: 38
    weight_filler {
      type: "gaussian"
      std: 0.01
    }
    bias_filler {
      type: "constant"
      value: 0
    }
  }
}
layer {
  name: "prob"
  type: "Softmax"
  bottom: "fc8_plantvillage"
  top: "prob"
  include {
    phase: TEST
  }
}
layer {
  name: "hdf5out"
  type: "HDF5Output"
  bottom: "prob"
  bottom: "label"
  include {
    phase: TEST
  }
  hdf5_output_param {
    file_name: "hdf5_dumps/iter_4380.h5"
  }
}
layer {
  name: "loss"
  type: "SoftmaxWithLoss"
  bottom: "fc8_plantvillage"
  bottom: "label"
  top: "loss"
}
layer {
  name: "accuracy"
  type: "Accuracy"
  bottom: "fc8_plantvillage"
  bottom: "label"
  top: "accuracy"
  include {
    phase: TEST
  }
}
I0403 12:52:44.564791 30927 layer_factory.hpp:77] Creating layer data
I0403 12:52:44.565441 30927 net.cpp:91] Creating Layer data
I0403 12:52:44.565475 30927 net.cpp:399] data -> data
I0403 12:52:44.565527 30927 net.cpp:399] data -> label
I0403 12:52:44.565565 30927 data_transformer.cpp:25] Loading mean file from: /home/mohanty/data/final_dataset/lmdb/segmented-40-60/mean.binaryproto
I0403 12:52:44.566730 30930 db_lmdb.cpp:38] Opened lmdb /home/mohanty/data/final_dataset/lmdb/segmented-40-60/test_db
I0403 12:52:44.580195 30927 data_layer.cpp:41] output data size: 100,3,227,227
I0403 12:52:44.703963 30927 net.cpp:141] Setting up data
I0403 12:52:44.704022 30927 net.cpp:148] Top shape: 100 3 227 227 (15458700)
I0403 12:52:44.704047 30927 net.cpp:148] Top shape: 100 (100)
I0403 12:52:44.704064 30927 net.cpp:156] Memory required for data: 61835200
I0403 12:52:44.704092 30927 layer_factory.hpp:77] Creating layer label_data_1_split
I0403 12:52:44.704118 30927 net.cpp:91] Creating Layer label_data_1_split
I0403 12:52:44.704138 30927 net.cpp:425] label_data_1_split <- label
I0403 12:52:44.704169 30927 net.cpp:399] label_data_1_split -> label_data_1_split_0
I0403 12:52:44.704197 30927 net.cpp:399] label_data_1_split -> label_data_1_split_1
I0403 12:52:44.704221 30927 net.cpp:399] label_data_1_split -> label_data_1_split_2
I0403 12:52:44.704288 30927 net.cpp:141] Setting up label_data_1_split
I0403 12:52:44.704313 30927 net.cpp:148] Top shape: 100 (100)
I0403 12:52:44.704331 30927 net.cpp:148] Top shape: 100 (100)
I0403 12:52:44.704349 30927 net.cpp:148] Top shape: 100 (100)
I0403 12:52:44.704365 30927 net.cpp:156] Memory required for data: 61836400
I0403 12:52:44.704381 30927 layer_factory.hpp:77] Creating layer conv1
I0403 12:52:44.704414 30927 net.cpp:91] Creating Layer conv1
I0403 12:52:44.704434 30927 net.cpp:425] conv1 <- data
I0403 12:52:44.704454 30927 net.cpp:399] conv1 -> conv1
I0403 12:52:44.847158 30927 net.cpp:141] Setting up conv1
I0403 12:52:44.847244 30927 net.cpp:148] Top shape: 100 96 55 55 (29040000)
I0403 12:52:44.847264 30927 net.cpp:156] Memory required for data: 177996400
I0403 12:52:44.847296 30927 layer_factory.hpp:77] Creating layer relu1
I0403 12:52:44.847326 30927 net.cpp:91] Creating Layer relu1
I0403 12:52:44.847344 30927 net.cpp:425] relu1 <- conv1
I0403 12:52:44.847365 30927 net.cpp:386] relu1 -> conv1 (in-place)
I0403 12:52:44.847625 30927 net.cpp:141] Setting up relu1
I0403 12:52:44.847653 30927 net.cpp:148] Top shape: 100 96 55 55 (29040000)
I0403 12:52:44.847702 30927 net.cpp:156] Memory required for data: 294156400
I0403 12:52:44.847718 30927 layer_factory.hpp:77] Creating layer norm1
I0403 12:52:44.847748 30927 net.cpp:91] Creating Layer norm1
I0403 12:52:44.847766 30927 net.cpp:425] norm1 <- conv1
I0403 12:52:44.847785 30927 net.cpp:399] norm1 -> norm1
I0403 12:52:44.848125 30927 net.cpp:141] Setting up norm1
I0403 12:52:44.848153 30927 net.cpp:148] Top shape: 100 96 55 55 (29040000)
I0403 12:52:44.848170 30927 net.cpp:156] Memory required for data: 410316400
I0403 12:52:44.848187 30927 layer_factory.hpp:77] Creating layer pool1
I0403 12:52:44.848211 30927 net.cpp:91] Creating Layer pool1
I0403 12:52:44.848228 30927 net.cpp:425] pool1 <- norm1
I0403 12:52:44.848251 30927 net.cpp:399] pool1 -> pool1
I0403 12:52:44.848321 30927 net.cpp:141] Setting up pool1
I0403 12:52:44.848345 30927 net.cpp:148] Top shape: 100 96 27 27 (6998400)
I0403 12:52:44.848361 30927 net.cpp:156] Memory required for data: 438310000
I0403 12:52:44.848377 30927 layer_factory.hpp:77] Creating layer conv2
I0403 12:52:44.848402 30927 net.cpp:91] Creating Layer conv2
I0403 12:52:44.848419 30927 net.cpp:425] conv2 <- pool1
I0403 12:52:44.848440 30927 net.cpp:399] conv2 -> conv2
I0403 12:52:44.864125 30927 net.cpp:141] Setting up conv2
I0403 12:52:44.864187 30927 net.cpp:148] Top shape: 100 256 27 27 (18662400)
I0403 12:52:44.864205 30927 net.cpp:156] Memory required for data: 512959600
I0403 12:52:44.864230 30927 layer_factory.hpp:77] Creating layer relu2
I0403 12:52:44.864258 30927 net.cpp:91] Creating Layer relu2
I0403 12:52:44.864275 30927 net.cpp:425] relu2 <- conv2
I0403 12:52:44.864295 30927 net.cpp:386] relu2 -> conv2 (in-place)
I0403 12:52:44.864609 30927 net.cpp:141] Setting up relu2
I0403 12:52:44.864636 30927 net.cpp:148] Top shape: 100 256 27 27 (18662400)
I0403 12:52:44.864652 30927 net.cpp:156] Memory required for data: 587609200
I0403 12:52:44.864668 30927 layer_factory.hpp:77] Creating layer norm2
I0403 12:52:44.864691 30927 net.cpp:91] Creating Layer norm2
I0403 12:52:44.864708 30927 net.cpp:425] norm2 <- conv2
I0403 12:52:44.864727 30927 net.cpp:399] norm2 -> norm2
I0403 12:52:44.864917 30927 net.cpp:141] Setting up norm2
I0403 12:52:44.864944 30927 net.cpp:148] Top shape: 100 256 27 27 (18662400)
I0403 12:52:44.864960 30927 net.cpp:156] Memory required for data: 662258800
I0403 12:52:44.864976 30927 layer_factory.hpp:77] Creating layer pool2
I0403 12:52:44.864995 30927 net.cpp:91] Creating Layer pool2
I0403 12:52:44.865011 30927 net.cpp:425] pool2 <- norm2
I0403 12:52:44.865031 30927 net.cpp:399] pool2 -> pool2
I0403 12:52:44.865082 30927 net.cpp:141] Setting up pool2
I0403 12:52:44.865105 30927 net.cpp:148] Top shape: 100 256 13 13 (4326400)
I0403 12:52:44.865121 30927 net.cpp:156] Memory required for data: 679564400
I0403 12:52:44.865136 30927 layer_factory.hpp:77] Creating layer conv3
I0403 12:52:44.865159 30927 net.cpp:91] Creating Layer conv3
I0403 12:52:44.865177 30927 net.cpp:425] conv3 <- pool2
I0403 12:52:44.865196 30927 net.cpp:399] conv3 -> conv3
I0403 12:52:44.905526 30927 net.cpp:141] Setting up conv3
I0403 12:52:44.905597 30927 net.cpp:148] Top shape: 100 384 13 13 (6489600)
I0403 12:52:44.905616 30927 net.cpp:156] Memory required for data: 705522800
I0403 12:52:44.905642 30927 layer_factory.hpp:77] Creating layer relu3
I0403 12:52:44.905668 30927 net.cpp:91] Creating Layer relu3
I0403 12:52:44.905686 30927 net.cpp:425] relu3 <- conv3
I0403 12:52:44.905720 30927 net.cpp:386] relu3 -> conv3 (in-place)
I0403 12:52:44.905992 30927 net.cpp:141] Setting up relu3
I0403 12:52:44.906019 30927 net.cpp:148] Top shape: 100 384 13 13 (6489600)
I0403 12:52:44.906035 30927 net.cpp:156] Memory required for data: 731481200
I0403 12:52:44.906051 30927 layer_factory.hpp:77] Creating layer conv4
I0403 12:52:44.906076 30927 net.cpp:91] Creating Layer conv4
I0403 12:52:44.906095 30927 net.cpp:425] conv4 <- conv3
I0403 12:52:44.906113 30927 net.cpp:399] conv4 -> conv4
I0403 12:52:44.937419 30927 net.cpp:141] Setting up conv4
I0403 12:52:44.937500 30927 net.cpp:148] Top shape: 100 384 13 13 (6489600)
I0403 12:52:44.937548 30927 net.cpp:156] Memory required for data: 757439600
I0403 12:52:44.937572 30927 layer_factory.hpp:77] Creating layer relu4
I0403 12:52:44.937597 30927 net.cpp:91] Creating Layer relu4
I0403 12:52:44.937614 30927 net.cpp:425] relu4 <- conv4
I0403 12:52:44.937634 30927 net.cpp:386] relu4 -> conv4 (in-place)
I0403 12:52:44.937922 30927 net.cpp:141] Setting up relu4
I0403 12:52:44.937948 30927 net.cpp:148] Top shape: 100 384 13 13 (6489600)
I0403 12:52:44.937964 30927 net.cpp:156] Memory required for data: 783398000
I0403 12:52:44.937980 30927 layer_factory.hpp:77] Creating layer conv5
I0403 12:52:44.938007 30927 net.cpp:91] Creating Layer conv5
I0403 12:52:44.938026 30927 net.cpp:425] conv5 <- conv4
I0403 12:52:44.938048 30927 net.cpp:399] conv5 -> conv5
I0403 12:52:44.959544 30927 net.cpp:141] Setting up conv5
I0403 12:52:44.959632 30927 net.cpp:148] Top shape: 100 256 13 13 (4326400)
I0403 12:52:44.959655 30927 net.cpp:156] Memory required for data: 800703600
I0403 12:52:44.959683 30927 layer_factory.hpp:77] Creating layer relu5
I0403 12:52:44.959705 30927 net.cpp:91] Creating Layer relu5
I0403 12:52:44.959723 30927 net.cpp:425] relu5 <- conv5
I0403 12:52:44.959745 30927 net.cpp:386] relu5 -> conv5 (in-place)
I0403 12:52:44.960043 30927 net.cpp:141] Setting up relu5
I0403 12:52:44.960072 30927 net.cpp:148] Top shape: 100 256 13 13 (4326400)
I0403 12:52:44.960089 30927 net.cpp:156] Memory required for data: 818009200
I0403 12:52:44.960105 30927 layer_factory.hpp:77] Creating layer pool5
I0403 12:52:44.960127 30927 net.cpp:91] Creating Layer pool5
I0403 12:52:44.960144 30927 net.cpp:425] pool5 <- conv5
I0403 12:52:44.960166 30927 net.cpp:399] pool5 -> pool5
I0403 12:52:44.960229 30927 net.cpp:141] Setting up pool5
I0403 12:52:44.960259 30927 net.cpp:148] Top shape: 100 256 6 6 (921600)
I0403 12:52:44.960278 30927 net.cpp:156] Memory required for data: 821695600
I0403 12:52:44.960292 30927 layer_factory.hpp:77] Creating layer fc6
I0403 12:52:44.960320 30927 net.cpp:91] Creating Layer fc6
I0403 12:52:44.960338 30927 net.cpp:425] fc6 <- pool5
I0403 12:52:44.960360 30927 net.cpp:399] fc6 -> fc6
I0403 12:52:46.519644 30927 net.cpp:141] Setting up fc6
I0403 12:52:46.519718 30927 net.cpp:148] Top shape: 100 4096 (409600)
I0403 12:52:46.519736 30927 net.cpp:156] Memory required for data: 823334000
I0403 12:52:46.519757 30927 layer_factory.hpp:77] Creating layer relu6
I0403 12:52:46.519778 30927 net.cpp:91] Creating Layer relu6
I0403 12:52:46.519795 30927 net.cpp:425] relu6 <- fc6
I0403 12:52:46.519815 30927 net.cpp:386] relu6 -> fc6 (in-place)
I0403 12:52:46.520051 30927 net.cpp:141] Setting up relu6
I0403 12:52:46.520077 30927 net.cpp:148] Top shape: 100 4096 (409600)
I0403 12:52:46.520093 30927 net.cpp:156] Memory required for data: 824972400
I0403 12:52:46.520108 30927 layer_factory.hpp:77] Creating layer drop6
I0403 12:52:46.520128 30927 net.cpp:91] Creating Layer drop6
I0403 12:52:46.520143 30927 net.cpp:425] drop6 <- fc6
I0403 12:52:46.520164 30927 net.cpp:386] drop6 -> fc6 (in-place)
I0403 12:52:46.520216 30927 net.cpp:141] Setting up drop6
I0403 12:52:46.520242 30927 net.cpp:148] Top shape: 100 4096 (409600)
I0403 12:52:46.520270 30927 net.cpp:156] Memory required for data: 826610800
I0403 12:52:46.520285 30927 layer_factory.hpp:77] Creating layer fc7
I0403 12:52:46.520308 30927 net.cpp:91] Creating Layer fc7
I0403 12:52:46.520324 30927 net.cpp:425] fc7 <- fc6
I0403 12:52:46.520344 30927 net.cpp:399] fc7 -> fc7
I0403 12:52:47.231155 30927 net.cpp:141] Setting up fc7
I0403 12:52:47.231247 30927 net.cpp:148] Top shape: 100 4096 (409600)
I0403 12:52:47.231266 30927 net.cpp:156] Memory required for data: 828249200
I0403 12:52:47.231288 30927 layer_factory.hpp:77] Creating layer relu7
I0403 12:52:47.231312 30927 net.cpp:91] Creating Layer relu7
I0403 12:52:47.231330 30927 net.cpp:425] relu7 <- fc7
I0403 12:52:47.231350 30927 net.cpp:386] relu7 -> fc7 (in-place)
I0403 12:52:47.231776 30927 net.cpp:141] Setting up relu7
I0403 12:52:47.231806 30927 net.cpp:148] Top shape: 100 4096 (409600)
I0403 12:52:47.231854 30927 net.cpp:156] Memory required for data: 829887600
I0403 12:52:47.231871 30927 layer_factory.hpp:77] Creating layer drop7
I0403 12:52:47.231891 30927 net.cpp:91] Creating Layer drop7
I0403 12:52:47.231907 30927 net.cpp:425] drop7 <- fc7
I0403 12:52:47.231925 30927 net.cpp:386] drop7 -> fc7 (in-place)
I0403 12:52:47.231972 30927 net.cpp:141] Setting up drop7
I0403 12:52:47.231995 30927 net.cpp:148] Top shape: 100 4096 (409600)
I0403 12:52:47.232010 30927 net.cpp:156] Memory required for data: 831526000
I0403 12:52:47.232025 30927 layer_factory.hpp:77] Creating layer fc8_plantvillage
I0403 12:52:47.232048 30927 net.cpp:91] Creating Layer fc8_plantvillage
I0403 12:52:47.232065 30927 net.cpp:425] fc8_plantvillage <- fc7
I0403 12:52:47.232084 30927 net.cpp:399] fc8_plantvillage -> fc8_plantvillage
I0403 12:52:47.239187 30927 net.cpp:141] Setting up fc8_plantvillage
I0403 12:52:47.239217 30927 net.cpp:148] Top shape: 100 38 (3800)
I0403 12:52:47.239234 30927 net.cpp:156] Memory required for data: 831541200
I0403 12:52:47.239259 30927 layer_factory.hpp:77] Creating layer fc8_plantvillage_fc8_plantvillage_0_split
I0403 12:52:47.239280 30927 net.cpp:91] Creating Layer fc8_plantvillage_fc8_plantvillage_0_split
I0403 12:52:47.239297 30927 net.cpp:425] fc8_plantvillage_fc8_plantvillage_0_split <- fc8_plantvillage
I0403 12:52:47.239318 30927 net.cpp:399] fc8_plantvillage_fc8_plantvillage_0_split -> fc8_plantvillage_fc8_plantvillage_0_split_0
I0403 12:52:47.239341 30927 net.cpp:399] fc8_plantvillage_fc8_plantvillage_0_split -> fc8_plantvillage_fc8_plantvillage_0_split_1
I0403 12:52:47.239364 30927 net.cpp:399] fc8_plantvillage_fc8_plantvillage_0_split -> fc8_plantvillage_fc8_plantvillage_0_split_2
I0403 12:52:47.239444 30927 net.cpp:141] Setting up fc8_plantvillage_fc8_plantvillage_0_split
I0403 12:52:47.239481 30927 net.cpp:148] Top shape: 100 38 (3800)
I0403 12:52:47.239502 30927 net.cpp:148] Top shape: 100 38 (3800)
I0403 12:52:47.239519 30927 net.cpp:148] Top shape: 100 38 (3800)
I0403 12:52:47.239534 30927 net.cpp:156] Memory required for data: 831586800
I0403 12:52:47.239550 30927 layer_factory.hpp:77] Creating layer prob
I0403 12:52:47.239573 30927 net.cpp:91] Creating Layer prob
I0403 12:52:47.239590 30927 net.cpp:425] prob <- fc8_plantvillage_fc8_plantvillage_0_split_0
I0403 12:52:47.239610 30927 net.cpp:399] prob -> prob
I0403 12:52:47.239861 30927 net.cpp:141] Setting up prob
I0403 12:52:47.239891 30927 net.cpp:148] Top shape: 100 38 (3800)
I0403 12:52:47.239907 30927 net.cpp:156] Memory required for data: 831602000
I0403 12:52:47.239923 30927 layer_factory.hpp:77] Creating layer hdf5out
I0403 12:52:47.239943 30927 net.cpp:91] Creating Layer hdf5out
I0403 12:52:47.239959 30927 net.cpp:425] hdf5out <- prob
I0403 12:52:47.239976 30927 net.cpp:425] hdf5out <- label_data_1_split_0
I0403 12:52:47.242138 30927 net.cpp:141] Setting up hdf5out
…
