…
I0403 12:37:56.854688 30549 net.cpp:313] The NetState phase (1) differed from the phase (0) specified by a rule in layer data
I0403 12:37:56.855002 30549 net.cpp:49] Initializing net from parameters: 
state {
  phase: TEST
}
layer {
  name: "data"
  type: "Data"
  top: "data"
  top: "label"
  include {
    phase: TEST
  }
  transform_param {
    crop_size: 227
    mean_file: "/home/mohanty/data/final_dataset/lmdb/segmented-40-60/mean.binaryproto"
  }
  data_param {
    source: "/home/mohanty/data/final_dataset/lmdb/segmented-40-60/test_db"
    batch_size: 100
    backend: LMDB
  }
}
layer {
  name: "conv1"
  type: "Convolution"
  bottom: "data"
  top: "conv1"
  param {
    lr_mult: 1
    decay_mult: 1
  }
  param {
    lr_mult: 2
    decay_mult: 0
  }
  convolution_param {
    num_output: 96
    kernel_size: 11
    stride: 4
    weight_filler {
      type: "gaussian"
      std: 0.01
    }
    bias_filler {
      type: "constant"
      value: 0
    }
  }
}
layer {
  name: "relu1"
  type: "ReLU"
  bottom: "conv1"
  top: "conv1"
}
layer {
  name: "norm1"
  type: "LRN"
  bottom: "conv1"
  top: "norm1"
  lrn_param {
    local_size: 5
    alpha: 0.0001
    beta: 0.75
  }
}
layer {
  name: "pool1"
  type: "Pooling"
  bottom: "norm1"
  top: "pool1"
  pooling_param {
    pool: MAX
    kernel_size: 3
    stride: 2
  }
}
layer {
  name: "conv2"
  type: "Convolution"
  bottom: "pool1"
  top: "conv2"
  param {
    lr_mult: 1
    decay_mult: 1
  }
  param {
    lr_mult: 2
    decay_mult: 0
  }
  convolution_param {
    num_output: 256
    pad: 2
    kernel_size: 5
    group: 2
    weight_filler {
      type: "gaussian"
      std: 0.01
    }
    bias_filler {
      type: "constant"
      value: 0.1
    }
  }
}
layer {
  name: "relu2"
  type: "ReLU"
  bottom: "conv2"
  top: "conv2"
}
layer {
  name: "norm2"
  type: "LRN"
  bottom: "conv2"
  top: "norm2"
  lrn_param {
    local_size: 5
    alpha: 0.0001
    beta: 0.75
  }
}
layer {
  name: "pool2"
  type: "Pooling"
  bottom: "norm2"
  top: "pool2"
  pooling_param {
    pool: MAX
    kernel_size: 3
    stride: 2
  }
}
layer {
  name: "conv3"
  type: "Convolution"
  bottom: "pool2"
  top: "conv3"
  param {
    lr_mult: 1
    decay_mult: 1
  }
  param {
    lr_mult: 2
    decay_mult: 0
  }
  convolution_param {
    num_output: 384
    pad: 1
    kernel_size: 3
    weight_filler {
      type: "gaussian"
      std: 0.01
    }
    bias_filler {
      type: "constant"
      value: 0
    }
  }
}
layer {
  name: "relu3"
  type: "ReLU"
  bottom: "conv3"
  top: "conv3"
}
layer {
  name: "conv4"
  type: "Convolution"
  bottom: "conv3"
  top: "conv4"
  param {
    lr_mult: 1
    decay_mult: 1
  }
  param {
    lr_mult: 2
    decay_mult: 0
  }
  convolution_param {
    num_output: 384
    pad: 1
    kernel_size: 3
    group: 2
    weight_filler {
      type: "gaussian"
      std: 0.01
    }
    bias_filler {
      type: "constant"
      value: 0.1
    }
  }
}
layer {
  name: "relu4"
  type: "ReLU"
  bottom: "conv4"
  top: "conv4"
}
layer {
  name: "conv5"
  type: "Convolution"
  bottom: "conv4"
  top: "conv5"
  param {
    lr_mult: 1
    decay_mult: 1
  }
  param {
    lr_mult: 2
    decay_mult: 0
  }
  convolution_param {
    num_output: 256
    pad: 1
    kernel_size: 3
    group: 2
    weight_filler {
      type: "gaussian"
      std: 0.01
    }
    bias_filler {
      type: "constant"
      value: 0.1
    }
  }
}
layer {
  name: "relu5"
  type: "ReLU"
  bottom: "conv5"
  top: "conv5"
}
layer {
  name: "pool5"
  type: "Pooling"
  bottom: "conv5"
  top: "pool5"
  pooling_param {
    pool: MAX
    kernel_size: 3
    stride: 2
  }
}
layer {
  name: "fc6"
  type: "InnerProduct"
  bottom: "pool5"
  top: "fc6"
  param {
    lr_mult: 1
    decay_mult: 1
  }
  param {
    lr_mult: 2
    decay_mult: 0
  }
  inner_product_param {
    num_output: 4096
    weight_filler {
      type: "gaussian"
      std: 0.005
    }
    bias_filler {
      type: "constant"
      value: 0.1
    }
  }
}
layer {
  name: "relu6"
  type: "ReLU"
  bottom: "fc6"
  top: "fc6"
}
layer {
  name: "drop6"
  type: "Dropout"
  bottom: "fc6"
  top: "fc6"
  dropout_param {
    dropout_ratio: 0.5
  }
}
layer {
  name: "fc7"
  type: "InnerProduct"
  bottom: "fc6"
  top: "fc7"
  param {
    lr_mult: 1
    decay_mult: 1
  }
  param {
    lr_mult: 2
    decay_mult: 0
  }
  inner_product_param {
    num_output: 4096
    weight_filler {
      type: "gaussian"
      std: 0.005
    }
    bias_filler {
      type: "constant"
      value: 0.1
    }
  }
}
layer {
  name: "relu7"
  type: "ReLU"
  bottom: "fc7"
  top: "fc7"
}
layer {
  name: "drop7"
  type: "Dropout"
  bottom: "fc7"
  top: "fc7"
  dropout_param {
    dropout_ratio: 0.5
  }
}
layer {
  name: "fc8_plantvillage"
  type: "InnerProduct"
  bottom: "fc7"
  top: "fc8_plantvillage"
  param {
    lr_mult: 1
    decay_mult: 1
  }
  param {
    lr_mult: 2
    decay_mult: 0
  }
  inner_product_param {
    num_output: 38
    weight_filler {
      type: "gaussian"
      std: 0.01
    }
    bias_filler {
      type: "constant"
      value: 0
    }
  }
}
layer {
  name: "prob"
  type: "Softmax"
  bottom: "fc8_plantvillage"
  top: "prob"
  include {
    phase: TEST
  }
}
layer {
  name: "hdf5out"
  type: "HDF5Output"
  bottom: "prob"
  bottom: "label"
  include {
    phase: TEST
  }
  hdf5_output_param {
    file_name: "hdf5_dumps/iter_1095.h5"
  }
}
layer {
  name: "loss"
  type: "SoftmaxWithLoss"
  bottom: "fc8_plantvillage"
  bottom: "label"
  top: "loss"
}
layer {
  name: "accuracy"
  type: "Accuracy"
  bottom: "fc8_plantvillage"
  bottom: "label"
  top: "accuracy"
  include {
    phase: TEST
  }
}
I0403 12:37:56.862414 30549 layer_factory.hpp:77] Creating layer data
I0403 12:37:56.863098 30549 net.cpp:91] Creating Layer data
I0403 12:37:56.863131 30549 net.cpp:399] data -> data
I0403 12:37:56.863181 30549 net.cpp:399] data -> label
I0403 12:37:56.863217 30549 data_transformer.cpp:25] Loading mean file from: /home/mohanty/data/final_dataset/lmdb/segmented-40-60/mean.binaryproto
I0403 12:37:56.876286 30552 db_lmdb.cpp:38] Opened lmdb /home/mohanty/data/final_dataset/lmdb/segmented-40-60/test_db
I0403 12:37:56.880431 30549 data_layer.cpp:41] output data size: 100,3,227,227
I0403 12:37:57.002560 30549 net.cpp:141] Setting up data
I0403 12:37:57.002666 30549 net.cpp:148] Top shape: 100 3 227 227 (15458700)
I0403 12:37:57.002689 30549 net.cpp:148] Top shape: 100 (100)
I0403 12:37:57.002706 30549 net.cpp:156] Memory required for data: 61835200
I0403 12:37:57.002732 30549 layer_factory.hpp:77] Creating layer label_data_1_split
I0403 12:37:57.002758 30549 net.cpp:91] Creating Layer label_data_1_split
I0403 12:37:57.002776 30549 net.cpp:425] label_data_1_split <- label
I0403 12:37:57.002809 30549 net.cpp:399] label_data_1_split -> label_data_1_split_0
I0403 12:37:57.002835 30549 net.cpp:399] label_data_1_split -> label_data_1_split_1
I0403 12:37:57.002856 30549 net.cpp:399] label_data_1_split -> label_data_1_split_2
I0403 12:37:57.002920 30549 net.cpp:141] Setting up label_data_1_split
I0403 12:37:57.002943 30549 net.cpp:148] Top shape: 100 (100)
I0403 12:37:57.002961 30549 net.cpp:148] Top shape: 100 (100)
I0403 12:37:57.002979 30549 net.cpp:148] Top shape: 100 (100)
I0403 12:37:57.002993 30549 net.cpp:156] Memory required for data: 61836400
I0403 12:37:57.003008 30549 layer_factory.hpp:77] Creating layer conv1
I0403 12:37:57.003041 30549 net.cpp:91] Creating Layer conv1
I0403 12:37:57.003059 30549 net.cpp:425] conv1 <- data
I0403 12:37:57.003079 30549 net.cpp:399] conv1 -> conv1
I0403 12:37:57.147011 30549 net.cpp:141] Setting up conv1
I0403 12:37:57.147099 30549 net.cpp:148] Top shape: 100 96 55 55 (29040000)
I0403 12:37:57.147117 30549 net.cpp:156] Memory required for data: 177996400
I0403 12:37:57.147150 30549 layer_factory.hpp:77] Creating layer relu1
I0403 12:37:57.147177 30549 net.cpp:91] Creating Layer relu1
I0403 12:37:57.147197 30549 net.cpp:425] relu1 <- conv1
I0403 12:37:57.147215 30549 net.cpp:386] relu1 -> conv1 (in-place)
I0403 12:37:57.147475 30549 net.cpp:141] Setting up relu1
I0403 12:37:57.147502 30549 net.cpp:148] Top shape: 100 96 55 55 (29040000)
I0403 12:37:57.147563 30549 net.cpp:156] Memory required for data: 294156400
I0403 12:37:57.147583 30549 layer_factory.hpp:77] Creating layer norm1
I0403 12:37:57.147610 30549 net.cpp:91] Creating Layer norm1
I0403 12:37:57.147629 30549 net.cpp:425] norm1 <- conv1
I0403 12:37:57.147647 30549 net.cpp:399] norm1 -> norm1
I0403 12:37:57.147994 30549 net.cpp:141] Setting up norm1
I0403 12:37:57.148021 30549 net.cpp:148] Top shape: 100 96 55 55 (29040000)
I0403 12:37:57.148037 30549 net.cpp:156] Memory required for data: 410316400
I0403 12:37:57.148053 30549 layer_factory.hpp:77] Creating layer pool1
I0403 12:37:57.148077 30549 net.cpp:91] Creating Layer pool1
I0403 12:37:57.148093 30549 net.cpp:425] pool1 <- norm1
I0403 12:37:57.148113 30549 net.cpp:399] pool1 -> pool1
I0403 12:37:57.148178 30549 net.cpp:141] Setting up pool1
I0403 12:37:57.148202 30549 net.cpp:148] Top shape: 100 96 27 27 (6998400)
I0403 12:37:57.148217 30549 net.cpp:156] Memory required for data: 438310000
I0403 12:37:57.148232 30549 layer_factory.hpp:77] Creating layer conv2
I0403 12:37:57.148262 30549 net.cpp:91] Creating Layer conv2
I0403 12:37:57.148279 30549 net.cpp:425] conv2 <- pool1
I0403 12:37:57.148298 30549 net.cpp:399] conv2 -> conv2
I0403 12:37:57.163774 30549 net.cpp:141] Setting up conv2
I0403 12:37:57.163827 30549 net.cpp:148] Top shape: 100 256 27 27 (18662400)
I0403 12:37:57.163844 30549 net.cpp:156] Memory required for data: 512959600
I0403 12:37:57.163867 30549 layer_factory.hpp:77] Creating layer relu2
I0403 12:37:57.163887 30549 net.cpp:91] Creating Layer relu2
I0403 12:37:57.163902 30549 net.cpp:425] relu2 <- conv2
I0403 12:37:57.163935 30549 net.cpp:386] relu2 -> conv2 (in-place)
I0403 12:37:57.164225 30549 net.cpp:141] Setting up relu2
I0403 12:37:57.164268 30549 net.cpp:148] Top shape: 100 256 27 27 (18662400)
I0403 12:37:57.164285 30549 net.cpp:156] Memory required for data: 587609200
I0403 12:37:57.164300 30549 layer_factory.hpp:77] Creating layer norm2
I0403 12:37:57.164324 30549 net.cpp:91] Creating Layer norm2
I0403 12:37:57.164342 30549 net.cpp:425] norm2 <- conv2
I0403 12:37:57.164361 30549 net.cpp:399] norm2 -> norm2
I0403 12:37:57.164562 30549 net.cpp:141] Setting up norm2
I0403 12:37:57.164588 30549 net.cpp:148] Top shape: 100 256 27 27 (18662400)
I0403 12:37:57.164603 30549 net.cpp:156] Memory required for data: 662258800
I0403 12:37:57.164618 30549 layer_factory.hpp:77] Creating layer pool2
I0403 12:37:57.164636 30549 net.cpp:91] Creating Layer pool2
I0403 12:37:57.164652 30549 net.cpp:425] pool2 <- norm2
I0403 12:37:57.164674 30549 net.cpp:399] pool2 -> pool2
I0403 12:37:57.164767 30549 net.cpp:141] Setting up pool2
I0403 12:37:57.164793 30549 net.cpp:148] Top shape: 100 256 13 13 (4326400)
I0403 12:37:57.164808 30549 net.cpp:156] Memory required for data: 679564400
I0403 12:37:57.164822 30549 layer_factory.hpp:77] Creating layer conv3
I0403 12:37:57.164846 30549 net.cpp:91] Creating Layer conv3
I0403 12:37:57.164863 30549 net.cpp:425] conv3 <- pool2
I0403 12:37:57.164881 30549 net.cpp:399] conv3 -> conv3
I0403 12:37:57.204648 30549 net.cpp:141] Setting up conv3
I0403 12:37:57.204727 30549 net.cpp:148] Top shape: 100 384 13 13 (6489600)
I0403 12:37:57.204744 30549 net.cpp:156] Memory required for data: 705522800
I0403 12:37:57.204771 30549 layer_factory.hpp:77] Creating layer relu3
I0403 12:37:57.204793 30549 net.cpp:91] Creating Layer relu3
I0403 12:37:57.204812 30549 net.cpp:425] relu3 <- conv3
I0403 12:37:57.204833 30549 net.cpp:386] relu3 -> conv3 (in-place)
I0403 12:37:57.205117 30549 net.cpp:141] Setting up relu3
I0403 12:37:57.205145 30549 net.cpp:148] Top shape: 100 384 13 13 (6489600)
I0403 12:37:57.205162 30549 net.cpp:156] Memory required for data: 731481200
I0403 12:37:57.205178 30549 layer_factory.hpp:77] Creating layer conv4
I0403 12:37:57.205204 30549 net.cpp:91] Creating Layer conv4
I0403 12:37:57.205222 30549 net.cpp:425] conv4 <- conv3
I0403 12:37:57.205248 30549 net.cpp:399] conv4 -> conv4
I0403 12:37:57.236516 30549 net.cpp:141] Setting up conv4
I0403 12:37:57.236596 30549 net.cpp:148] Top shape: 100 384 13 13 (6489600)
I0403 12:37:57.236645 30549 net.cpp:156] Memory required for data: 757439600
I0403 12:37:57.236668 30549 layer_factory.hpp:77] Creating layer relu4
I0403 12:37:57.236691 30549 net.cpp:91] Creating Layer relu4
I0403 12:37:57.236709 30549 net.cpp:425] relu4 <- conv4
I0403 12:37:57.236732 30549 net.cpp:386] relu4 -> conv4 (in-place)
I0403 12:37:57.237031 30549 net.cpp:141] Setting up relu4
I0403 12:37:57.237061 30549 net.cpp:148] Top shape: 100 384 13 13 (6489600)
I0403 12:37:57.237079 30549 net.cpp:156] Memory required for data: 783398000
I0403 12:37:57.237095 30549 layer_factory.hpp:77] Creating layer conv5
I0403 12:37:57.237123 30549 net.cpp:91] Creating Layer conv5
I0403 12:37:57.237140 30549 net.cpp:425] conv5 <- conv4
I0403 12:37:57.237162 30549 net.cpp:399] conv5 -> conv5
I0403 12:37:57.258337 30549 net.cpp:141] Setting up conv5
I0403 12:37:57.258400 30549 net.cpp:148] Top shape: 100 256 13 13 (4326400)
I0403 12:37:57.258419 30549 net.cpp:156] Memory required for data: 800703600
I0403 12:37:57.258445 30549 layer_factory.hpp:77] Creating layer relu5
I0403 12:37:57.258466 30549 net.cpp:91] Creating Layer relu5
I0403 12:37:57.258483 30549 net.cpp:425] relu5 <- conv5
I0403 12:37:57.258504 30549 net.cpp:386] relu5 -> conv5 (in-place)
I0403 12:37:57.258797 30549 net.cpp:141] Setting up relu5
I0403 12:37:57.258826 30549 net.cpp:148] Top shape: 100 256 13 13 (4326400)
I0403 12:37:57.258841 30549 net.cpp:156] Memory required for data: 818009200
I0403 12:37:57.258857 30549 layer_factory.hpp:77] Creating layer pool5
I0403 12:37:57.258882 30549 net.cpp:91] Creating Layer pool5
I0403 12:37:57.258900 30549 net.cpp:425] pool5 <- conv5
I0403 12:37:57.258920 30549 net.cpp:399] pool5 -> pool5
I0403 12:37:57.258985 30549 net.cpp:141] Setting up pool5
I0403 12:37:57.259008 30549 net.cpp:148] Top shape: 100 256 6 6 (921600)
I0403 12:37:57.259023 30549 net.cpp:156] Memory required for data: 821695600
I0403 12:37:57.259038 30549 layer_factory.hpp:77] Creating layer fc6
I0403 12:37:57.259066 30549 net.cpp:91] Creating Layer fc6
I0403 12:37:57.259084 30549 net.cpp:425] fc6 <- pool5
I0403 12:37:57.259106 30549 net.cpp:399] fc6 -> fc6
I0403 12:37:58.808735 30549 net.cpp:141] Setting up fc6
I0403 12:37:58.808820 30549 net.cpp:148] Top shape: 100 4096 (409600)
I0403 12:37:58.808836 30549 net.cpp:156] Memory required for data: 823334000
I0403 12:37:58.808858 30549 layer_factory.hpp:77] Creating layer relu6
I0403 12:37:58.808881 30549 net.cpp:91] Creating Layer relu6
I0403 12:37:58.808898 30549 net.cpp:425] relu6 <- fc6
I0403 12:37:58.808917 30549 net.cpp:386] relu6 -> fc6 (in-place)
I0403 12:37:58.809133 30549 net.cpp:141] Setting up relu6
I0403 12:37:58.809157 30549 net.cpp:148] Top shape: 100 4096 (409600)
I0403 12:37:58.809171 30549 net.cpp:156] Memory required for data: 824972400
I0403 12:37:58.809186 30549 layer_factory.hpp:77] Creating layer drop6
I0403 12:37:58.809206 30549 net.cpp:91] Creating Layer drop6
I0403 12:37:58.809219 30549 net.cpp:425] drop6 <- fc6
I0403 12:37:58.809243 30549 net.cpp:386] drop6 -> fc6 (in-place)
I0403 12:37:58.809296 30549 net.cpp:141] Setting up drop6
I0403 12:37:58.809324 30549 net.cpp:148] Top shape: 100 4096 (409600)
I0403 12:37:58.809340 30549 net.cpp:156] Memory required for data: 826610800
I0403 12:37:58.809355 30549 layer_factory.hpp:77] Creating layer fc7
I0403 12:37:58.809376 30549 net.cpp:91] Creating Layer fc7
I0403 12:37:58.809391 30549 net.cpp:425] fc7 <- fc6
I0403 12:37:58.809412 30549 net.cpp:399] fc7 -> fc7
I0403 12:37:59.510097 30549 net.cpp:141] Setting up fc7
I0403 12:37:59.510179 30549 net.cpp:148] Top shape: 100 4096 (409600)
I0403 12:37:59.510195 30549 net.cpp:156] Memory required for data: 828249200
I0403 12:37:59.510215 30549 layer_factory.hpp:77] Creating layer relu7
I0403 12:37:59.510238 30549 net.cpp:91] Creating Layer relu7
I0403 12:37:59.510262 30549 net.cpp:425] relu7 <- fc7
I0403 12:37:59.510283 30549 net.cpp:386] relu7 -> fc7 (in-place)
I0403 12:37:59.510701 30549 net.cpp:141] Setting up relu7
I0403 12:37:59.510727 30549 net.cpp:148] Top shape: 100 4096 (409600)
I0403 12:37:59.510776 30549 net.cpp:156] Memory required for data: 829887600
I0403 12:37:59.510792 30549 layer_factory.hpp:77] Creating layer drop7
I0403 12:37:59.510810 30549 net.cpp:91] Creating Layer drop7
I0403 12:37:59.510825 30549 net.cpp:425] drop7 <- fc7
I0403 12:37:59.510845 30549 net.cpp:386] drop7 -> fc7 (in-place)
I0403 12:37:59.510890 30549 net.cpp:141] Setting up drop7
I0403 12:37:59.510913 30549 net.cpp:148] Top shape: 100 4096 (409600)
I0403 12:37:59.510928 30549 net.cpp:156] Memory required for data: 831526000
I0403 12:37:59.510943 30549 layer_factory.hpp:77] Creating layer fc8_plantvillage
I0403 12:37:59.510962 30549 net.cpp:91] Creating Layer fc8_plantvillage
I0403 12:37:59.510978 30549 net.cpp:425] fc8_plantvillage <- fc7
I0403 12:37:59.510998 30549 net.cpp:399] fc8_plantvillage -> fc8_plantvillage
I0403 12:37:59.517722 30549 net.cpp:141] Setting up fc8_plantvillage
I0403 12:37:59.517750 30549 net.cpp:148] Top shape: 100 38 (3800)
I0403 12:37:59.517765 30549 net.cpp:156] Memory required for data: 831541200
I0403 12:37:59.517783 30549 layer_factory.hpp:77] Creating layer fc8_plantvillage_fc8_plantvillage_0_split
I0403 12:37:59.517802 30549 net.cpp:91] Creating Layer fc8_plantvillage_fc8_plantvillage_0_split
I0403 12:37:59.517817 30549 net.cpp:425] fc8_plantvillage_fc8_plantvillage_0_split <- fc8_plantvillage
I0403 12:37:59.517837 30549 net.cpp:399] fc8_plantvillage_fc8_plantvillage_0_split -> fc8_plantvillage_fc8_plantvillage_0_split_0
I0403 12:37:59.517858 30549 net.cpp:399] fc8_plantvillage_fc8_plantvillage_0_split -> fc8_plantvillage_fc8_plantvillage_0_split_1
I0403 12:37:59.517876 30549 net.cpp:399] fc8_plantvillage_fc8_plantvillage_0_split -> fc8_plantvillage_fc8_plantvillage_0_split_2
I0403 12:37:59.517952 30549 net.cpp:141] Setting up fc8_plantvillage_fc8_plantvillage_0_split
I0403 12:37:59.517977 30549 net.cpp:148] Top shape: 100 38 (3800)
I0403 12:37:59.517994 30549 net.cpp:148] Top shape: 100 38 (3800)
I0403 12:37:59.518021 30549 net.cpp:148] Top shape: 100 38 (3800)
I0403 12:37:59.518035 30549 net.cpp:156] Memory required for data: 831586800
I0403 12:37:59.518049 30549 layer_factory.hpp:77] Creating layer prob
I0403 12:37:59.518067 30549 net.cpp:91] Creating Layer prob
I0403 12:37:59.518081 30549 net.cpp:425] prob <- fc8_plantvillage_fc8_plantvillage_0_split_0
I0403 12:37:59.518098 30549 net.cpp:399] prob -> prob
I0403 12:37:59.518322 30549 net.cpp:141] Setting up prob
I0403 12:37:59.518347 30549 net.cpp:148] Top shape: 100 38 (3800)
I0403 12:37:59.518360 30549 net.cpp:156] Memory required for data: 831602000
I0403 12:37:59.518374 30549 layer_factory.hpp:77] Creating layer hdf5out
I0403 12:37:59.518393 30549 net.cpp:91] Creating Layer hdf5out
I0403 12:37:59.518409 30549 net.cpp:425] hdf5out <- prob
I0403 12:37:59.518424 30549 net.cpp:425] hdf5out <- label_data_1_split_0
I0403 12:37:59.520555 30549 net.cpp:141] Setting up hdf5out
…
