…
I0403 12:57:40.603952 31058 net.cpp:313] The NetState phase (1) differed from the phase (0) specified by a rule in layer data
I0403 12:57:40.604249 31058 net.cpp:49] Initializing net from parameters: 
state {
  phase: TEST
}
layer {
  name: "data"
  type: "Data"
  top: "data"
  top: "label"
  include {
    phase: TEST
  }
  transform_param {
    crop_size: 227
    mean_file: "/home/mohanty/data/final_dataset/lmdb/segmented-40-60/mean.binaryproto"
  }
  data_param {
    source: "/home/mohanty/data/final_dataset/lmdb/segmented-40-60/test_db"
    batch_size: 100
    backend: LMDB
  }
}
layer {
  name: "conv1"
  type: "Convolution"
  bottom: "data"
  top: "conv1"
  param {
    lr_mult: 1
    decay_mult: 1
  }
  param {
    lr_mult: 2
    decay_mult: 0
  }
  convolution_param {
    num_output: 96
    kernel_size: 11
    stride: 4
    weight_filler {
      type: "gaussian"
      std: 0.01
    }
    bias_filler {
      type: "constant"
      value: 0
    }
  }
}
layer {
  name: "relu1"
  type: "ReLU"
  bottom: "conv1"
  top: "conv1"
}
layer {
  name: "norm1"
  type: "LRN"
  bottom: "conv1"
  top: "norm1"
  lrn_param {
    local_size: 5
    alpha: 0.0001
    beta: 0.75
  }
}
layer {
  name: "pool1"
  type: "Pooling"
  bottom: "norm1"
  top: "pool1"
  pooling_param {
    pool: MAX
    kernel_size: 3
    stride: 2
  }
}
layer {
  name: "conv2"
  type: "Convolution"
  bottom: "pool1"
  top: "conv2"
  param {
    lr_mult: 1
    decay_mult: 1
  }
  param {
    lr_mult: 2
    decay_mult: 0
  }
  convolution_param {
    num_output: 256
    pad: 2
    kernel_size: 5
    group: 2
    weight_filler {
      type: "gaussian"
      std: 0.01
    }
    bias_filler {
      type: "constant"
      value: 0.1
    }
  }
}
layer {
  name: "relu2"
  type: "ReLU"
  bottom: "conv2"
  top: "conv2"
}
layer {
  name: "norm2"
  type: "LRN"
  bottom: "conv2"
  top: "norm2"
  lrn_param {
    local_size: 5
    alpha: 0.0001
    beta: 0.75
  }
}
layer {
  name: "pool2"
  type: "Pooling"
  bottom: "norm2"
  top: "pool2"
  pooling_param {
    pool: MAX
    kernel_size: 3
    stride: 2
  }
}
layer {
  name: "conv3"
  type: "Convolution"
  bottom: "pool2"
  top: "conv3"
  param {
    lr_mult: 1
    decay_mult: 1
  }
  param {
    lr_mult: 2
    decay_mult: 0
  }
  convolution_param {
    num_output: 384
    pad: 1
    kernel_size: 3
    weight_filler {
      type: "gaussian"
      std: 0.01
    }
    bias_filler {
      type: "constant"
      value: 0
    }
  }
}
layer {
  name: "relu3"
  type: "ReLU"
  bottom: "conv3"
  top: "conv3"
}
layer {
  name: "conv4"
  type: "Convolution"
  bottom: "conv3"
  top: "conv4"
  param {
    lr_mult: 1
    decay_mult: 1
  }
  param {
    lr_mult: 2
    decay_mult: 0
  }
  convolution_param {
    num_output: 384
    pad: 1
    kernel_size: 3
    group: 2
    weight_filler {
      type: "gaussian"
      std: 0.01
    }
    bias_filler {
      type: "constant"
      value: 0.1
    }
  }
}
layer {
  name: "relu4"
  type: "ReLU"
  bottom: "conv4"
  top: "conv4"
}
layer {
  name: "conv5"
  type: "Convolution"
  bottom: "conv4"
  top: "conv5"
  param {
    lr_mult: 1
    decay_mult: 1
  }
  param {
    lr_mult: 2
    decay_mult: 0
  }
  convolution_param {
    num_output: 256
    pad: 1
    kernel_size: 3
    group: 2
    weight_filler {
      type: "gaussian"
      std: 0.01
    }
    bias_filler {
      type: "constant"
      value: 0.1
    }
  }
}
layer {
  name: "relu5"
  type: "ReLU"
  bottom: "conv5"
  top: "conv5"
}
layer {
  name: "pool5"
  type: "Pooling"
  bottom: "conv5"
  top: "pool5"
  pooling_param {
    pool: MAX
    kernel_size: 3
    stride: 2
  }
}
layer {
  name: "fc6"
  type: "InnerProduct"
  bottom: "pool5"
  top: "fc6"
  param {
    lr_mult: 1
    decay_mult: 1
  }
  param {
    lr_mult: 2
    decay_mult: 0
  }
  inner_product_param {
    num_output: 4096
    weight_filler {
      type: "gaussian"
      std: 0.005
    }
    bias_filler {
      type: "constant"
      value: 0.1
    }
  }
}
layer {
  name: "relu6"
  type: "ReLU"
  bottom: "fc6"
  top: "fc6"
}
layer {
  name: "drop6"
  type: "Dropout"
  bottom: "fc6"
  top: "fc6"
  dropout_param {
    dropout_ratio: 0.5
  }
}
layer {
  name: "fc7"
  type: "InnerProduct"
  bottom: "fc6"
  top: "fc7"
  param {
    lr_mult: 1
    decay_mult: 1
  }
  param {
    lr_mult: 2
    decay_mult: 0
  }
  inner_product_param {
    num_output: 4096
    weight_filler {
      type: "gaussian"
      std: 0.005
    }
    bias_filler {
      type: "constant"
      value: 0.1
    }
  }
}
layer {
  name: "relu7"
  type: "ReLU"
  bottom: "fc7"
  top: "fc7"
}
layer {
  name: "drop7"
  type: "Dropout"
  bottom: "fc7"
  top: "fc7"
  dropout_param {
    dropout_ratio: 0.5
  }
}
layer {
  name: "fc8_plantvillage"
  type: "InnerProduct"
  bottom: "fc7"
  top: "fc8_plantvillage"
  param {
    lr_mult: 1
    decay_mult: 1
  }
  param {
    lr_mult: 2
    decay_mult: 0
  }
  inner_product_param {
    num_output: 38
    weight_filler {
      type: "gaussian"
      std: 0.01
    }
    bias_filler {
      type: "constant"
      value: 0
    }
  }
}
layer {
  name: "prob"
  type: "Softmax"
  bottom: "fc8_plantvillage"
  top: "prob"
  include {
    phase: TEST
  }
}
layer {
  name: "hdf5out"
  type: "HDF5Output"
  bottom: "prob"
  bottom: "label"
  include {
    phase: TEST
  }
  hdf5_output_param {
    file_name: "hdf5_dumps/iter_5475.h5"
  }
}
layer {
  name: "loss"
  type: "SoftmaxWithLoss"
  bottom: "fc8_plantvillage"
  bottom: "label"
  top: "loss"
}
layer {
  name: "accuracy"
  type: "Accuracy"
  bottom: "fc8_plantvillage"
  bottom: "label"
  top: "accuracy"
  include {
    phase: TEST
  }
}
I0403 12:57:40.604833 31058 layer_factory.hpp:77] Creating layer data
I0403 12:57:40.605469 31058 net.cpp:91] Creating Layer data
I0403 12:57:40.605499 31058 net.cpp:399] data -> data
I0403 12:57:40.605547 31058 net.cpp:399] data -> label
I0403 12:57:40.605581 31058 data_transformer.cpp:25] Loading mean file from: /home/mohanty/data/final_dataset/lmdb/segmented-40-60/mean.binaryproto
I0403 12:57:40.612179 31060 db_lmdb.cpp:38] Opened lmdb /home/mohanty/data/final_dataset/lmdb/segmented-40-60/test_db
I0403 12:57:40.619053 31058 data_layer.cpp:41] output data size: 100,3,227,227
I0403 12:57:40.739976 31058 net.cpp:141] Setting up data
I0403 12:57:40.740080 31058 net.cpp:148] Top shape: 100 3 227 227 (15458700)
I0403 12:57:40.740103 31058 net.cpp:148] Top shape: 100 (100)
I0403 12:57:40.740119 31058 net.cpp:156] Memory required for data: 61835200
I0403 12:57:40.740147 31058 layer_factory.hpp:77] Creating layer label_data_1_split
I0403 12:57:40.740173 31058 net.cpp:91] Creating Layer label_data_1_split
I0403 12:57:40.740191 31058 net.cpp:425] label_data_1_split <- label
I0403 12:57:40.740223 31058 net.cpp:399] label_data_1_split -> label_data_1_split_0
I0403 12:57:40.740250 31058 net.cpp:399] label_data_1_split -> label_data_1_split_1
I0403 12:57:40.740274 31058 net.cpp:399] label_data_1_split -> label_data_1_split_2
I0403 12:57:40.740340 31058 net.cpp:141] Setting up label_data_1_split
I0403 12:57:40.740363 31058 net.cpp:148] Top shape: 100 (100)
I0403 12:57:40.740381 31058 net.cpp:148] Top shape: 100 (100)
I0403 12:57:40.740397 31058 net.cpp:148] Top shape: 100 (100)
I0403 12:57:40.740411 31058 net.cpp:156] Memory required for data: 61836400
I0403 12:57:40.740427 31058 layer_factory.hpp:77] Creating layer conv1
I0403 12:57:40.740458 31058 net.cpp:91] Creating Layer conv1
I0403 12:57:40.740476 31058 net.cpp:425] conv1 <- data
I0403 12:57:40.740496 31058 net.cpp:399] conv1 -> conv1
I0403 12:57:40.883297 31058 net.cpp:141] Setting up conv1
I0403 12:57:40.883388 31058 net.cpp:148] Top shape: 100 96 55 55 (29040000)
I0403 12:57:40.883405 31058 net.cpp:156] Memory required for data: 177996400
I0403 12:57:40.883438 31058 layer_factory.hpp:77] Creating layer relu1
I0403 12:57:40.883467 31058 net.cpp:91] Creating Layer relu1
I0403 12:57:40.883486 31058 net.cpp:425] relu1 <- conv1
I0403 12:57:40.883507 31058 net.cpp:386] relu1 -> conv1 (in-place)
I0403 12:57:40.883780 31058 net.cpp:141] Setting up relu1
I0403 12:57:40.883807 31058 net.cpp:148] Top shape: 100 96 55 55 (29040000)
I0403 12:57:40.883855 31058 net.cpp:156] Memory required for data: 294156400
I0403 12:57:40.883872 31058 layer_factory.hpp:77] Creating layer norm1
I0403 12:57:40.883901 31058 net.cpp:91] Creating Layer norm1
I0403 12:57:40.883920 31058 net.cpp:425] norm1 <- conv1
I0403 12:57:40.883939 31058 net.cpp:399] norm1 -> norm1
I0403 12:57:40.884264 31058 net.cpp:141] Setting up norm1
I0403 12:57:40.884299 31058 net.cpp:148] Top shape: 100 96 55 55 (29040000)
I0403 12:57:40.884315 31058 net.cpp:156] Memory required for data: 410316400
I0403 12:57:40.884331 31058 layer_factory.hpp:77] Creating layer pool1
I0403 12:57:40.884356 31058 net.cpp:91] Creating Layer pool1
I0403 12:57:40.884376 31058 net.cpp:425] pool1 <- norm1
I0403 12:57:40.884394 31058 net.cpp:399] pool1 -> pool1
I0403 12:57:40.884464 31058 net.cpp:141] Setting up pool1
I0403 12:57:40.884490 31058 net.cpp:148] Top shape: 100 96 27 27 (6998400)
I0403 12:57:40.884506 31058 net.cpp:156] Memory required for data: 438310000
I0403 12:57:40.884522 31058 layer_factory.hpp:77] Creating layer conv2
I0403 12:57:40.884548 31058 net.cpp:91] Creating Layer conv2
I0403 12:57:40.884567 31058 net.cpp:425] conv2 <- pool1
I0403 12:57:40.884585 31058 net.cpp:399] conv2 -> conv2
I0403 12:57:40.900460 31058 net.cpp:141] Setting up conv2
I0403 12:57:40.900527 31058 net.cpp:148] Top shape: 100 256 27 27 (18662400)
I0403 12:57:40.900563 31058 net.cpp:156] Memory required for data: 512959600
I0403 12:57:40.900590 31058 layer_factory.hpp:77] Creating layer relu2
I0403 12:57:40.900615 31058 net.cpp:91] Creating Layer relu2
I0403 12:57:40.900635 31058 net.cpp:425] relu2 <- conv2
I0403 12:57:40.900656 31058 net.cpp:386] relu2 -> conv2 (in-place)
I0403 12:57:40.900954 31058 net.cpp:141] Setting up relu2
I0403 12:57:40.900991 31058 net.cpp:148] Top shape: 100 256 27 27 (18662400)
I0403 12:57:40.901007 31058 net.cpp:156] Memory required for data: 587609200
I0403 12:57:40.901024 31058 layer_factory.hpp:77] Creating layer norm2
I0403 12:57:40.901049 31058 net.cpp:91] Creating Layer norm2
I0403 12:57:40.901069 31058 net.cpp:425] norm2 <- conv2
I0403 12:57:40.901108 31058 net.cpp:399] norm2 -> norm2
I0403 12:57:40.901345 31058 net.cpp:141] Setting up norm2
I0403 12:57:40.901373 31058 net.cpp:148] Top shape: 100 256 27 27 (18662400)
I0403 12:57:40.901391 31058 net.cpp:156] Memory required for data: 662258800
I0403 12:57:40.901409 31058 layer_factory.hpp:77] Creating layer pool2
I0403 12:57:40.901432 31058 net.cpp:91] Creating Layer pool2
I0403 12:57:40.901453 31058 net.cpp:425] pool2 <- norm2
I0403 12:57:40.901476 31058 net.cpp:399] pool2 -> pool2
I0403 12:57:40.901540 31058 net.cpp:141] Setting up pool2
I0403 12:57:40.901566 31058 net.cpp:148] Top shape: 100 256 13 13 (4326400)
I0403 12:57:40.901582 31058 net.cpp:156] Memory required for data: 679564400
I0403 12:57:40.901598 31058 layer_factory.hpp:77] Creating layer conv3
I0403 12:57:40.901624 31058 net.cpp:91] Creating Layer conv3
I0403 12:57:40.901644 31058 net.cpp:425] conv3 <- pool2
I0403 12:57:40.901667 31058 net.cpp:399] conv3 -> conv3
I0403 12:57:40.941414 31058 net.cpp:141] Setting up conv3
I0403 12:57:40.941498 31058 net.cpp:148] Top shape: 100 384 13 13 (6489600)
I0403 12:57:40.941516 31058 net.cpp:156] Memory required for data: 705522800
I0403 12:57:40.941546 31058 layer_factory.hpp:77] Creating layer relu3
I0403 12:57:40.941571 31058 net.cpp:91] Creating Layer relu3
I0403 12:57:40.941591 31058 net.cpp:425] relu3 <- conv3
I0403 12:57:40.941611 31058 net.cpp:386] relu3 -> conv3 (in-place)
I0403 12:57:40.941901 31058 net.cpp:141] Setting up relu3
I0403 12:57:40.941929 31058 net.cpp:148] Top shape: 100 384 13 13 (6489600)
I0403 12:57:40.941946 31058 net.cpp:156] Memory required for data: 731481200
I0403 12:57:40.941962 31058 layer_factory.hpp:77] Creating layer conv4
I0403 12:57:40.941989 31058 net.cpp:91] Creating Layer conv4
I0403 12:57:40.942008 31058 net.cpp:425] conv4 <- conv3
I0403 12:57:40.942031 31058 net.cpp:399] conv4 -> conv4
I0403 12:57:40.972932 31058 net.cpp:141] Setting up conv4
I0403 12:57:40.972987 31058 net.cpp:148] Top shape: 100 384 13 13 (6489600)
I0403 12:57:40.973037 31058 net.cpp:156] Memory required for data: 757439600
I0403 12:57:40.973060 31058 layer_factory.hpp:77] Creating layer relu4
I0403 12:57:40.973086 31058 net.cpp:91] Creating Layer relu4
I0403 12:57:40.973105 31058 net.cpp:425] relu4 <- conv4
I0403 12:57:40.973126 31058 net.cpp:386] relu4 -> conv4 (in-place)
I0403 12:57:40.973436 31058 net.cpp:141] Setting up relu4
I0403 12:57:40.973464 31058 net.cpp:148] Top shape: 100 384 13 13 (6489600)
I0403 12:57:40.973481 31058 net.cpp:156] Memory required for data: 783398000
I0403 12:57:40.973497 31058 layer_factory.hpp:77] Creating layer conv5
I0403 12:57:40.973525 31058 net.cpp:91] Creating Layer conv5
I0403 12:57:40.973543 31058 net.cpp:425] conv5 <- conv4
I0403 12:57:40.973567 31058 net.cpp:399] conv5 -> conv5
I0403 12:57:40.994843 31058 net.cpp:141] Setting up conv5
I0403 12:57:40.994892 31058 net.cpp:148] Top shape: 100 256 13 13 (4326400)
I0403 12:57:40.994910 31058 net.cpp:156] Memory required for data: 800703600
I0403 12:57:40.994936 31058 layer_factory.hpp:77] Creating layer relu5
I0403 12:57:40.994961 31058 net.cpp:91] Creating Layer relu5
I0403 12:57:40.994979 31058 net.cpp:425] relu5 <- conv5
I0403 12:57:40.994999 31058 net.cpp:386] relu5 -> conv5 (in-place)
I0403 12:57:40.995293 31058 net.cpp:141] Setting up relu5
I0403 12:57:40.995321 31058 net.cpp:148] Top shape: 100 256 13 13 (4326400)
I0403 12:57:40.995338 31058 net.cpp:156] Memory required for data: 818009200
I0403 12:57:40.995354 31058 layer_factory.hpp:77] Creating layer pool5
I0403 12:57:40.995381 31058 net.cpp:91] Creating Layer pool5
I0403 12:57:40.995399 31058 net.cpp:425] pool5 <- conv5
I0403 12:57:40.995422 31058 net.cpp:399] pool5 -> pool5
I0403 12:57:40.995488 31058 net.cpp:141] Setting up pool5
I0403 12:57:40.995513 31058 net.cpp:148] Top shape: 100 256 6 6 (921600)
I0403 12:57:40.995529 31058 net.cpp:156] Memory required for data: 821695600
I0403 12:57:40.995546 31058 layer_factory.hpp:77] Creating layer fc6
I0403 12:57:40.995576 31058 net.cpp:91] Creating Layer fc6
I0403 12:57:40.995595 31058 net.cpp:425] fc6 <- pool5
I0403 12:57:40.995615 31058 net.cpp:399] fc6 -> fc6
I0403 12:57:42.560281 31058 net.cpp:141] Setting up fc6
I0403 12:57:42.560372 31058 net.cpp:148] Top shape: 100 4096 (409600)
I0403 12:57:42.560389 31058 net.cpp:156] Memory required for data: 823334000
I0403 12:57:42.560411 31058 layer_factory.hpp:77] Creating layer relu6
I0403 12:57:42.560434 31058 net.cpp:91] Creating Layer relu6
I0403 12:57:42.560452 31058 net.cpp:425] relu6 <- fc6
I0403 12:57:42.560475 31058 net.cpp:386] relu6 -> fc6 (in-place)
I0403 12:57:42.560719 31058 net.cpp:141] Setting up relu6
I0403 12:57:42.560745 31058 net.cpp:148] Top shape: 100 4096 (409600)
I0403 12:57:42.560760 31058 net.cpp:156] Memory required for data: 824972400
I0403 12:57:42.560775 31058 layer_factory.hpp:77] Creating layer drop6
I0403 12:57:42.560796 31058 net.cpp:91] Creating Layer drop6
I0403 12:57:42.560813 31058 net.cpp:425] drop6 <- fc6
I0403 12:57:42.560830 31058 net.cpp:386] drop6 -> fc6 (in-place)
I0403 12:57:42.560884 31058 net.cpp:141] Setting up drop6
I0403 12:57:42.560907 31058 net.cpp:148] Top shape: 100 4096 (409600)
I0403 12:57:42.560922 31058 net.cpp:156] Memory required for data: 826610800
I0403 12:57:42.560936 31058 layer_factory.hpp:77] Creating layer fc7
I0403 12:57:42.560956 31058 net.cpp:91] Creating Layer fc7
I0403 12:57:42.560972 31058 net.cpp:425] fc7 <- fc6
I0403 12:57:42.560997 31058 net.cpp:399] fc7 -> fc7
I0403 12:57:43.246959 31058 net.cpp:141] Setting up fc7
I0403 12:57:43.247051 31058 net.cpp:148] Top shape: 100 4096 (409600)
I0403 12:57:43.247068 31058 net.cpp:156] Memory required for data: 828249200
I0403 12:57:43.247089 31058 layer_factory.hpp:77] Creating layer relu7
I0403 12:57:43.247114 31058 net.cpp:91] Creating Layer relu7
I0403 12:57:43.247133 31058 net.cpp:425] relu7 <- fc7
I0403 12:57:43.247153 31058 net.cpp:386] relu7 -> fc7 (in-place)
I0403 12:57:43.247575 31058 net.cpp:141] Setting up relu7
I0403 12:57:43.247601 31058 net.cpp:148] Top shape: 100 4096 (409600)
I0403 12:57:43.247664 31058 net.cpp:156] Memory required for data: 829887600
I0403 12:57:43.247681 31058 layer_factory.hpp:77] Creating layer drop7
I0403 12:57:43.247704 31058 net.cpp:91] Creating Layer drop7
I0403 12:57:43.247720 31058 net.cpp:425] drop7 <- fc7
I0403 12:57:43.247738 31058 net.cpp:386] drop7 -> fc7 (in-place)
I0403 12:57:43.247786 31058 net.cpp:141] Setting up drop7
I0403 12:57:43.247808 31058 net.cpp:148] Top shape: 100 4096 (409600)
I0403 12:57:43.247823 31058 net.cpp:156] Memory required for data: 831526000
I0403 12:57:43.247839 31058 layer_factory.hpp:77] Creating layer fc8_plantvillage
I0403 12:57:43.247859 31058 net.cpp:91] Creating Layer fc8_plantvillage
I0403 12:57:43.247875 31058 net.cpp:425] fc8_plantvillage <- fc7
I0403 12:57:43.247896 31058 net.cpp:399] fc8_plantvillage -> fc8_plantvillage
I0403 12:57:43.254768 31058 net.cpp:141] Setting up fc8_plantvillage
I0403 12:57:43.254796 31058 net.cpp:148] Top shape: 100 38 (3800)
I0403 12:57:43.254812 31058 net.cpp:156] Memory required for data: 831541200
I0403 12:57:43.254830 31058 layer_factory.hpp:77] Creating layer fc8_plantvillage_fc8_plantvillage_0_split
I0403 12:57:43.254851 31058 net.cpp:91] Creating Layer fc8_plantvillage_fc8_plantvillage_0_split
I0403 12:57:43.254868 31058 net.cpp:425] fc8_plantvillage_fc8_plantvillage_0_split <- fc8_plantvillage
I0403 12:57:43.254885 31058 net.cpp:399] fc8_plantvillage_fc8_plantvillage_0_split -> fc8_plantvillage_fc8_plantvillage_0_split_0
I0403 12:57:43.254905 31058 net.cpp:399] fc8_plantvillage_fc8_plantvillage_0_split -> fc8_plantvillage_fc8_plantvillage_0_split_1
I0403 12:57:43.254927 31058 net.cpp:399] fc8_plantvillage_fc8_plantvillage_0_split -> fc8_plantvillage_fc8_plantvillage_0_split_2
I0403 12:57:43.255004 31058 net.cpp:141] Setting up fc8_plantvillage_fc8_plantvillage_0_split
I0403 12:57:43.255028 31058 net.cpp:148] Top shape: 100 38 (3800)
I0403 12:57:43.255044 31058 net.cpp:148] Top shape: 100 38 (3800)
I0403 12:57:43.255059 31058 net.cpp:148] Top shape: 100 38 (3800)
I0403 12:57:43.255074 31058 net.cpp:156] Memory required for data: 831586800
I0403 12:57:43.255089 31058 layer_factory.hpp:77] Creating layer prob
I0403 12:57:43.255106 31058 net.cpp:91] Creating Layer prob
I0403 12:57:43.255121 31058 net.cpp:425] prob <- fc8_plantvillage_fc8_plantvillage_0_split_0
I0403 12:57:43.255141 31058 net.cpp:399] prob -> prob
I0403 12:57:43.255374 31058 net.cpp:141] Setting up prob
I0403 12:57:43.255400 31058 net.cpp:148] Top shape: 100 38 (3800)
I0403 12:57:43.255415 31058 net.cpp:156] Memory required for data: 831602000
I0403 12:57:43.255430 31058 layer_factory.hpp:77] Creating layer hdf5out
I0403 12:57:43.255452 31058 net.cpp:91] Creating Layer hdf5out
I0403 12:57:43.255468 31058 net.cpp:425] hdf5out <- prob
I0403 12:57:43.255484 31058 net.cpp:425] hdf5out <- label_data_1_split_0
I0403 12:57:43.258226 31058 net.cpp:141] Setting up hdf5out
…
