…
I0403 12:36:57.735975 30526 net.cpp:313] The NetState phase (1) differed from the phase (0) specified by a rule in layer data
I0403 12:36:57.736299 30526 net.cpp:49] Initializing net from parameters: 
state {
  phase: TEST
}
layer {
  name: "data"
  type: "Data"
  top: "data"
  top: "label"
  include {
    phase: TEST
  }
  transform_param {
    crop_size: 227
    mean_file: "/home/mohanty/data/final_dataset/lmdb/segmented-40-60/mean.binaryproto"
  }
  data_param {
    source: "/home/mohanty/data/final_dataset/lmdb/segmented-40-60/test_db"
    batch_size: 100
    backend: LMDB
  }
}
layer {
  name: "conv1"
  type: "Convolution"
  bottom: "data"
  top: "conv1"
  param {
    lr_mult: 1
    decay_mult: 1
  }
  param {
    lr_mult: 2
    decay_mult: 0
  }
  convolution_param {
    num_output: 96
    kernel_size: 11
    stride: 4
    weight_filler {
      type: "gaussian"
      std: 0.01
    }
    bias_filler {
      type: "constant"
      value: 0
    }
  }
}
layer {
  name: "relu1"
  type: "ReLU"
  bottom: "conv1"
  top: "conv1"
}
layer {
  name: "norm1"
  type: "LRN"
  bottom: "conv1"
  top: "norm1"
  lrn_param {
    local_size: 5
    alpha: 0.0001
    beta: 0.75
  }
}
layer {
  name: "pool1"
  type: "Pooling"
  bottom: "norm1"
  top: "pool1"
  pooling_param {
    pool: MAX
    kernel_size: 3
    stride: 2
  }
}
layer {
  name: "conv2"
  type: "Convolution"
  bottom: "pool1"
  top: "conv2"
  param {
    lr_mult: 1
    decay_mult: 1
  }
  param {
    lr_mult: 2
    decay_mult: 0
  }
  convolution_param {
    num_output: 256
    pad: 2
    kernel_size: 5
    group: 2
    weight_filler {
      type: "gaussian"
      std: 0.01
    }
    bias_filler {
      type: "constant"
      value: 0.1
    }
  }
}
layer {
  name: "relu2"
  type: "ReLU"
  bottom: "conv2"
  top: "conv2"
}
layer {
  name: "norm2"
  type: "LRN"
  bottom: "conv2"
  top: "norm2"
  lrn_param {
    local_size: 5
    alpha: 0.0001
    beta: 0.75
  }
}
layer {
  name: "pool2"
  type: "Pooling"
  bottom: "norm2"
  top: "pool2"
  pooling_param {
    pool: MAX
    kernel_size: 3
    stride: 2
  }
}
layer {
  name: "conv3"
  type: "Convolution"
  bottom: "pool2"
  top: "conv3"
  param {
    lr_mult: 1
    decay_mult: 1
  }
  param {
    lr_mult: 2
    decay_mult: 0
  }
  convolution_param {
    num_output: 384
    pad: 1
    kernel_size: 3
    weight_filler {
      type: "gaussian"
      std: 0.01
    }
    bias_filler {
      type: "constant"
      value: 0
    }
  }
}
layer {
  name: "relu3"
  type: "ReLU"
  bottom: "conv3"
  top: "conv3"
}
layer {
  name: "conv4"
  type: "Convolution"
  bottom: "conv3"
  top: "conv4"
  param {
    lr_mult: 1
    decay_mult: 1
  }
  param {
    lr_mult: 2
    decay_mult: 0
  }
  convolution_param {
    num_output: 384
    pad: 1
    kernel_size: 3
    group: 2
    weight_filler {
      type: "gaussian"
      std: 0.01
    }
    bias_filler {
      type: "constant"
      value: 0.1
    }
  }
}
layer {
  name: "relu4"
  type: "ReLU"
  bottom: "conv4"
  top: "conv4"
}
layer {
  name: "conv5"
  type: "Convolution"
  bottom: "conv4"
  top: "conv5"
  param {
    lr_mult: 1
    decay_mult: 1
  }
  param {
    lr_mult: 2
    decay_mult: 0
  }
  convolution_param {
    num_output: 256
    pad: 1
    kernel_size: 3
    group: 2
    weight_filler {
      type: "gaussian"
      std: 0.01
    }
    bias_filler {
      type: "constant"
      value: 0.1
    }
  }
}
layer {
  name: "relu5"
  type: "ReLU"
  bottom: "conv5"
  top: "conv5"
}
layer {
  name: "pool5"
  type: "Pooling"
  bottom: "conv5"
  top: "pool5"
  pooling_param {
    pool: MAX
    kernel_size: 3
    stride: 2
  }
}
layer {
  name: "fc6"
  type: "InnerProduct"
  bottom: "pool5"
  top: "fc6"
  param {
    lr_mult: 1
    decay_mult: 1
  }
  param {
    lr_mult: 2
    decay_mult: 0
  }
  inner_product_param {
    num_output: 4096
    weight_filler {
      type: "gaussian"
      std: 0.005
    }
    bias_filler {
      type: "constant"
      value: 0.1
    }
  }
}
layer {
  name: "relu6"
  type: "ReLU"
  bottom: "fc6"
  top: "fc6"
}
layer {
  name: "drop6"
  type: "Dropout"
  bottom: "fc6"
  top: "fc6"
  dropout_param {
    dropout_ratio: 0.5
  }
}
layer {
  name: "fc7"
  type: "InnerProduct"
  bottom: "fc6"
  top: "fc7"
  param {
    lr_mult: 1
    decay_mult: 1
  }
  param {
    lr_mult: 2
    decay_mult: 0
  }
  inner_product_param {
    num_output: 4096
    weight_filler {
      type: "gaussian"
      std: 0.005
    }
    bias_filler {
      type: "constant"
      value: 0.1
    }
  }
}
layer {
  name: "relu7"
  type: "ReLU"
  bottom: "fc7"
  top: "fc7"
}
layer {
  name: "drop7"
  type: "Dropout"
  bottom: "fc7"
  top: "fc7"
  dropout_param {
    dropout_ratio: 0.5
  }
}
layer {
  name: "fc8_plantvillage"
  type: "InnerProduct"
  bottom: "fc7"
  top: "fc8_plantvillage"
  param {
    lr_mult: 1
    decay_mult: 1
  }
  param {
    lr_mult: 2
    decay_mult: 0
  }
  inner_product_param {
    num_output: 38
    weight_filler {
      type: "gaussian"
      std: 0.01
    }
    bias_filler {
      type: "constant"
      value: 0
    }
  }
}
layer {
  name: "prob"
  type: "Softmax"
  bottom: "fc8_plantvillage"
  top: "prob"
  include {
    phase: TEST
  }
}
layer {
  name: "hdf5out"
  type: "HDF5Output"
  bottom: "prob"
  bottom: "label"
  include {
    phase: TEST
  }
  hdf5_output_param {
    file_name: "hdf5_dumps/iter_876.h5"
  }
}
layer {
  name: "loss"
  type: "SoftmaxWithLoss"
  bottom: "fc8_plantvillage"
  bottom: "label"
  top: "loss"
}
layer {
  name: "accuracy"
  type: "Accuracy"
  bottom: "fc8_plantvillage"
  bottom: "label"
  top: "accuracy"
  include {
    phase: TEST
  }
}
I0403 12:36:57.736922 30526 layer_factory.hpp:77] Creating layer data
I0403 12:36:57.737584 30526 net.cpp:91] Creating Layer data
I0403 12:36:57.737622 30526 net.cpp:399] data -> data
I0403 12:36:57.737674 30526 net.cpp:399] data -> label
I0403 12:36:57.737710 30526 data_transformer.cpp:25] Loading mean file from: /home/mohanty/data/final_dataset/lmdb/segmented-40-60/mean.binaryproto
I0403 12:36:57.738867 30530 db_lmdb.cpp:38] Opened lmdb /home/mohanty/data/final_dataset/lmdb/segmented-40-60/test_db
I0403 12:36:57.752285 30526 data_layer.cpp:41] output data size: 100,3,227,227
I0403 12:36:57.873713 30526 net.cpp:141] Setting up data
I0403 12:36:57.873836 30526 net.cpp:148] Top shape: 100 3 227 227 (15458700)
I0403 12:36:57.873857 30526 net.cpp:148] Top shape: 100 (100)
I0403 12:36:57.873873 30526 net.cpp:156] Memory required for data: 61835200
I0403 12:36:57.873900 30526 layer_factory.hpp:77] Creating layer label_data_1_split
I0403 12:36:57.873926 30526 net.cpp:91] Creating Layer label_data_1_split
I0403 12:36:57.873944 30526 net.cpp:425] label_data_1_split <- label
I0403 12:36:57.873975 30526 net.cpp:399] label_data_1_split -> label_data_1_split_0
I0403 12:36:57.874001 30526 net.cpp:399] label_data_1_split -> label_data_1_split_1
I0403 12:36:57.874022 30526 net.cpp:399] label_data_1_split -> label_data_1_split_2
I0403 12:36:57.874084 30526 net.cpp:141] Setting up label_data_1_split
I0403 12:36:57.874107 30526 net.cpp:148] Top shape: 100 (100)
I0403 12:36:57.874125 30526 net.cpp:148] Top shape: 100 (100)
I0403 12:36:57.874140 30526 net.cpp:148] Top shape: 100 (100)
I0403 12:36:57.874155 30526 net.cpp:156] Memory required for data: 61836400
I0403 12:36:57.874171 30526 layer_factory.hpp:77] Creating layer conv1
I0403 12:36:57.874202 30526 net.cpp:91] Creating Layer conv1
I0403 12:36:57.874220 30526 net.cpp:425] conv1 <- data
I0403 12:36:57.874243 30526 net.cpp:399] conv1 -> conv1
I0403 12:36:58.017346 30526 net.cpp:141] Setting up conv1
I0403 12:36:58.017426 30526 net.cpp:148] Top shape: 100 96 55 55 (29040000)
I0403 12:36:58.017444 30526 net.cpp:156] Memory required for data: 177996400
I0403 12:36:58.017477 30526 layer_factory.hpp:77] Creating layer relu1
I0403 12:36:58.017505 30526 net.cpp:91] Creating Layer relu1
I0403 12:36:58.017524 30526 net.cpp:425] relu1 <- conv1
I0403 12:36:58.017544 30526 net.cpp:386] relu1 -> conv1 (in-place)
I0403 12:36:58.017805 30526 net.cpp:141] Setting up relu1
I0403 12:36:58.017833 30526 net.cpp:148] Top shape: 100 96 55 55 (29040000)
I0403 12:36:58.017905 30526 net.cpp:156] Memory required for data: 294156400
I0403 12:36:58.017922 30526 layer_factory.hpp:77] Creating layer norm1
I0403 12:36:58.017949 30526 net.cpp:91] Creating Layer norm1
I0403 12:36:58.017966 30526 net.cpp:425] norm1 <- conv1
I0403 12:36:58.017984 30526 net.cpp:399] norm1 -> norm1
I0403 12:36:58.018307 30526 net.cpp:141] Setting up norm1
I0403 12:36:58.018335 30526 net.cpp:148] Top shape: 100 96 55 55 (29040000)
I0403 12:36:58.018352 30526 net.cpp:156] Memory required for data: 410316400
I0403 12:36:58.018368 30526 layer_factory.hpp:77] Creating layer pool1
I0403 12:36:58.018390 30526 net.cpp:91] Creating Layer pool1
I0403 12:36:58.018409 30526 net.cpp:425] pool1 <- norm1
I0403 12:36:58.018426 30526 net.cpp:399] pool1 -> pool1
I0403 12:36:58.018493 30526 net.cpp:141] Setting up pool1
I0403 12:36:58.018517 30526 net.cpp:148] Top shape: 100 96 27 27 (6998400)
I0403 12:36:58.018532 30526 net.cpp:156] Memory required for data: 438310000
I0403 12:36:58.018548 30526 layer_factory.hpp:77] Creating layer conv2
I0403 12:36:58.018573 30526 net.cpp:91] Creating Layer conv2
I0403 12:36:58.018592 30526 net.cpp:425] conv2 <- pool1
I0403 12:36:58.018610 30526 net.cpp:399] conv2 -> conv2
I0403 12:36:58.034165 30526 net.cpp:141] Setting up conv2
I0403 12:36:58.034224 30526 net.cpp:148] Top shape: 100 256 27 27 (18662400)
I0403 12:36:58.034246 30526 net.cpp:156] Memory required for data: 512959600
I0403 12:36:58.034271 30526 layer_factory.hpp:77] Creating layer relu2
I0403 12:36:58.034291 30526 net.cpp:91] Creating Layer relu2
I0403 12:36:58.034308 30526 net.cpp:425] relu2 <- conv2
I0403 12:36:58.034328 30526 net.cpp:386] relu2 -> conv2 (in-place)
I0403 12:36:58.034660 30526 net.cpp:141] Setting up relu2
I0403 12:36:58.034688 30526 net.cpp:148] Top shape: 100 256 27 27 (18662400)
I0403 12:36:58.034704 30526 net.cpp:156] Memory required for data: 587609200
I0403 12:36:58.034719 30526 layer_factory.hpp:77] Creating layer norm2
I0403 12:36:58.034742 30526 net.cpp:91] Creating Layer norm2
I0403 12:36:58.034760 30526 net.cpp:425] norm2 <- conv2
I0403 12:36:58.034780 30526 net.cpp:399] norm2 -> norm2
I0403 12:36:58.034979 30526 net.cpp:141] Setting up norm2
I0403 12:36:58.035006 30526 net.cpp:148] Top shape: 100 256 27 27 (18662400)
I0403 12:36:58.035022 30526 net.cpp:156] Memory required for data: 662258800
I0403 12:36:58.035037 30526 layer_factory.hpp:77] Creating layer pool2
I0403 12:36:58.035055 30526 net.cpp:91] Creating Layer pool2
I0403 12:36:58.035071 30526 net.cpp:425] pool2 <- norm2
I0403 12:36:58.035091 30526 net.cpp:399] pool2 -> pool2
I0403 12:36:58.035146 30526 net.cpp:141] Setting up pool2
I0403 12:36:58.035169 30526 net.cpp:148] Top shape: 100 256 13 13 (4326400)
I0403 12:36:58.035186 30526 net.cpp:156] Memory required for data: 679564400
I0403 12:36:58.035200 30526 layer_factory.hpp:77] Creating layer conv3
I0403 12:36:58.035226 30526 net.cpp:91] Creating Layer conv3
I0403 12:36:58.035260 30526 net.cpp:425] conv3 <- pool2
I0403 12:36:58.035281 30526 net.cpp:399] conv3 -> conv3
I0403 12:36:58.075232 30526 net.cpp:141] Setting up conv3
I0403 12:36:58.075333 30526 net.cpp:148] Top shape: 100 384 13 13 (6489600)
I0403 12:36:58.075350 30526 net.cpp:156] Memory required for data: 705522800
I0403 12:36:58.075377 30526 layer_factory.hpp:77] Creating layer relu3
I0403 12:36:58.075402 30526 net.cpp:91] Creating Layer relu3
I0403 12:36:58.075424 30526 net.cpp:425] relu3 <- conv3
I0403 12:36:58.075444 30526 net.cpp:386] relu3 -> conv3 (in-place)
I0403 12:36:58.075739 30526 net.cpp:141] Setting up relu3
I0403 12:36:58.075767 30526 net.cpp:148] Top shape: 100 384 13 13 (6489600)
I0403 12:36:58.075783 30526 net.cpp:156] Memory required for data: 731481200
I0403 12:36:58.075798 30526 layer_factory.hpp:77] Creating layer conv4
I0403 12:36:58.075824 30526 net.cpp:91] Creating Layer conv4
I0403 12:36:58.075842 30526 net.cpp:425] conv4 <- conv3
I0403 12:36:58.075863 30526 net.cpp:399] conv4 -> conv4
I0403 12:36:58.107110 30526 net.cpp:141] Setting up conv4
I0403 12:36:58.107204 30526 net.cpp:148] Top shape: 100 384 13 13 (6489600)
I0403 12:36:58.107260 30526 net.cpp:156] Memory required for data: 757439600
I0403 12:36:58.107285 30526 layer_factory.hpp:77] Creating layer relu4
I0403 12:36:58.107306 30526 net.cpp:91] Creating Layer relu4
I0403 12:36:58.107324 30526 net.cpp:425] relu4 <- conv4
I0403 12:36:58.107347 30526 net.cpp:386] relu4 -> conv4 (in-place)
I0403 12:36:58.107651 30526 net.cpp:141] Setting up relu4
I0403 12:36:58.107681 30526 net.cpp:148] Top shape: 100 384 13 13 (6489600)
I0403 12:36:58.107698 30526 net.cpp:156] Memory required for data: 783398000
I0403 12:36:58.107713 30526 layer_factory.hpp:77] Creating layer conv5
I0403 12:36:58.107740 30526 net.cpp:91] Creating Layer conv5
I0403 12:36:58.107758 30526 net.cpp:425] conv5 <- conv4
I0403 12:36:58.107776 30526 net.cpp:399] conv5 -> conv5
I0403 12:36:58.129441 30526 net.cpp:141] Setting up conv5
I0403 12:36:58.129545 30526 net.cpp:148] Top shape: 100 256 13 13 (4326400)
I0403 12:36:58.129565 30526 net.cpp:156] Memory required for data: 800703600
I0403 12:36:58.129590 30526 layer_factory.hpp:77] Creating layer relu5
I0403 12:36:58.129612 30526 net.cpp:91] Creating Layer relu5
I0403 12:36:58.129629 30526 net.cpp:425] relu5 <- conv5
I0403 12:36:58.129650 30526 net.cpp:386] relu5 -> conv5 (in-place)
I0403 12:36:58.129936 30526 net.cpp:141] Setting up relu5
I0403 12:36:58.129963 30526 net.cpp:148] Top shape: 100 256 13 13 (4326400)
I0403 12:36:58.129981 30526 net.cpp:156] Memory required for data: 818009200
I0403 12:36:58.129995 30526 layer_factory.hpp:77] Creating layer pool5
I0403 12:36:58.130020 30526 net.cpp:91] Creating Layer pool5
I0403 12:36:58.130038 30526 net.cpp:425] pool5 <- conv5
I0403 12:36:58.130058 30526 net.cpp:399] pool5 -> pool5
I0403 12:36:58.130121 30526 net.cpp:141] Setting up pool5
I0403 12:36:58.130146 30526 net.cpp:148] Top shape: 100 256 6 6 (921600)
I0403 12:36:58.130162 30526 net.cpp:156] Memory required for data: 821695600
I0403 12:36:58.130177 30526 layer_factory.hpp:77] Creating layer fc6
I0403 12:36:58.130204 30526 net.cpp:91] Creating Layer fc6
I0403 12:36:58.130237 30526 net.cpp:425] fc6 <- pool5
I0403 12:36:58.130262 30526 net.cpp:399] fc6 -> fc6
I0403 12:36:59.719497 30526 net.cpp:141] Setting up fc6
I0403 12:36:59.719584 30526 net.cpp:148] Top shape: 100 4096 (409600)
I0403 12:36:59.719601 30526 net.cpp:156] Memory required for data: 823334000
I0403 12:36:59.719624 30526 layer_factory.hpp:77] Creating layer relu6
I0403 12:36:59.719650 30526 net.cpp:91] Creating Layer relu6
I0403 12:36:59.719669 30526 net.cpp:425] relu6 <- fc6
I0403 12:36:59.719689 30526 net.cpp:386] relu6 -> fc6 (in-place)
I0403 12:36:59.719935 30526 net.cpp:141] Setting up relu6
I0403 12:36:59.719964 30526 net.cpp:148] Top shape: 100 4096 (409600)
I0403 12:36:59.719979 30526 net.cpp:156] Memory required for data: 824972400
I0403 12:36:59.719995 30526 layer_factory.hpp:77] Creating layer drop6
I0403 12:36:59.720013 30526 net.cpp:91] Creating Layer drop6
I0403 12:36:59.720031 30526 net.cpp:425] drop6 <- fc6
I0403 12:36:59.720052 30526 net.cpp:386] drop6 -> fc6 (in-place)
I0403 12:36:59.720108 30526 net.cpp:141] Setting up drop6
I0403 12:36:59.720134 30526 net.cpp:148] Top shape: 100 4096 (409600)
I0403 12:36:59.720150 30526 net.cpp:156] Memory required for data: 826610800
I0403 12:36:59.720165 30526 layer_factory.hpp:77] Creating layer fc7
I0403 12:36:59.720186 30526 net.cpp:91] Creating Layer fc7
I0403 12:36:59.720206 30526 net.cpp:425] fc7 <- fc6
I0403 12:36:59.720227 30526 net.cpp:399] fc7 -> fc7
I0403 12:37:00.413885 30526 net.cpp:141] Setting up fc7
I0403 12:37:00.413938 30526 net.cpp:148] Top shape: 100 4096 (409600)
I0403 12:37:00.413955 30526 net.cpp:156] Memory required for data: 828249200
I0403 12:37:00.413976 30526 layer_factory.hpp:77] Creating layer relu7
I0403 12:37:00.414000 30526 net.cpp:91] Creating Layer relu7
I0403 12:37:00.414016 30526 net.cpp:425] relu7 <- fc7
I0403 12:37:00.414037 30526 net.cpp:386] relu7 -> fc7 (in-place)
I0403 12:37:00.414463 30526 net.cpp:141] Setting up relu7
I0403 12:37:00.414489 30526 net.cpp:148] Top shape: 100 4096 (409600)
I0403 12:37:00.414536 30526 net.cpp:156] Memory required for data: 829887600
I0403 12:37:00.414553 30526 layer_factory.hpp:77] Creating layer drop7
I0403 12:37:00.414572 30526 net.cpp:91] Creating Layer drop7
I0403 12:37:00.414588 30526 net.cpp:425] drop7 <- fc7
I0403 12:37:00.414608 30526 net.cpp:386] drop7 -> fc7 (in-place)
I0403 12:37:00.414650 30526 net.cpp:141] Setting up drop7
I0403 12:37:00.414675 30526 net.cpp:148] Top shape: 100 4096 (409600)
I0403 12:37:00.414691 30526 net.cpp:156] Memory required for data: 831526000
I0403 12:37:00.414705 30526 layer_factory.hpp:77] Creating layer fc8_plantvillage
I0403 12:37:00.414726 30526 net.cpp:91] Creating Layer fc8_plantvillage
I0403 12:37:00.414741 30526 net.cpp:425] fc8_plantvillage <- fc7
I0403 12:37:00.414760 30526 net.cpp:399] fc8_plantvillage -> fc8_plantvillage
I0403 12:37:00.421471 30526 net.cpp:141] Setting up fc8_plantvillage
I0403 12:37:00.421499 30526 net.cpp:148] Top shape: 100 38 (3800)
I0403 12:37:00.421514 30526 net.cpp:156] Memory required for data: 831541200
I0403 12:37:00.421532 30526 layer_factory.hpp:77] Creating layer fc8_plantvillage_fc8_plantvillage_0_split
I0403 12:37:00.421550 30526 net.cpp:91] Creating Layer fc8_plantvillage_fc8_plantvillage_0_split
I0403 12:37:00.421566 30526 net.cpp:425] fc8_plantvillage_fc8_plantvillage_0_split <- fc8_plantvillage
I0403 12:37:00.421586 30526 net.cpp:399] fc8_plantvillage_fc8_plantvillage_0_split -> fc8_plantvillage_fc8_plantvillage_0_split_0
I0403 12:37:00.421607 30526 net.cpp:399] fc8_plantvillage_fc8_plantvillage_0_split -> fc8_plantvillage_fc8_plantvillage_0_split_1
I0403 12:37:00.421627 30526 net.cpp:399] fc8_plantvillage_fc8_plantvillage_0_split -> fc8_plantvillage_fc8_plantvillage_0_split_2
I0403 12:37:00.421702 30526 net.cpp:141] Setting up fc8_plantvillage_fc8_plantvillage_0_split
I0403 12:37:00.421725 30526 net.cpp:148] Top shape: 100 38 (3800)
I0403 12:37:00.421741 30526 net.cpp:148] Top shape: 100 38 (3800)
I0403 12:37:00.421756 30526 net.cpp:148] Top shape: 100 38 (3800)
I0403 12:37:00.421769 30526 net.cpp:156] Memory required for data: 831586800
I0403 12:37:00.421783 30526 layer_factory.hpp:77] Creating layer prob
I0403 12:37:00.421802 30526 net.cpp:91] Creating Layer prob
I0403 12:37:00.421818 30526 net.cpp:425] prob <- fc8_plantvillage_fc8_plantvillage_0_split_0
I0403 12:37:00.421839 30526 net.cpp:399] prob -> prob
I0403 12:37:00.422067 30526 net.cpp:141] Setting up prob
I0403 12:37:00.422093 30526 net.cpp:148] Top shape: 100 38 (3800)
I0403 12:37:00.422108 30526 net.cpp:156] Memory required for data: 831602000
I0403 12:37:00.422122 30526 layer_factory.hpp:77] Creating layer hdf5out
I0403 12:37:00.422142 30526 net.cpp:91] Creating Layer hdf5out
I0403 12:37:00.422158 30526 net.cpp:425] hdf5out <- prob
I0403 12:37:00.422173 30526 net.cpp:425] hdf5out <- label_data_1_split_0
I0403 12:37:00.424370 30526 net.cpp:141] Setting up hdf5out
…
