…
I0403 12:59:38.548362 31117 net.cpp:313] The NetState phase (1) differed from the phase (0) specified by a rule in layer data
I0403 12:59:38.548661 31117 net.cpp:49] Initializing net from parameters: 
state {
  phase: TEST
}
layer {
  name: "data"
  type: "Data"
  top: "data"
  top: "label"
  include {
    phase: TEST
  }
  transform_param {
    crop_size: 227
    mean_file: "/home/mohanty/data/final_dataset/lmdb/segmented-40-60/mean.binaryproto"
  }
  data_param {
    source: "/home/mohanty/data/final_dataset/lmdb/segmented-40-60/test_db"
    batch_size: 100
    backend: LMDB
  }
}
layer {
  name: "conv1"
  type: "Convolution"
  bottom: "data"
  top: "conv1"
  param {
    lr_mult: 1
    decay_mult: 1
  }
  param {
    lr_mult: 2
    decay_mult: 0
  }
  convolution_param {
    num_output: 96
    kernel_size: 11
    stride: 4
    weight_filler {
      type: "gaussian"
      std: 0.01
    }
    bias_filler {
      type: "constant"
      value: 0
    }
  }
}
layer {
  name: "relu1"
  type: "ReLU"
  bottom: "conv1"
  top: "conv1"
}
layer {
  name: "norm1"
  type: "LRN"
  bottom: "conv1"
  top: "norm1"
  lrn_param {
    local_size: 5
    alpha: 0.0001
    beta: 0.75
  }
}
layer {
  name: "pool1"
  type: "Pooling"
  bottom: "norm1"
  top: "pool1"
  pooling_param {
    pool: MAX
    kernel_size: 3
    stride: 2
  }
}
layer {
  name: "conv2"
  type: "Convolution"
  bottom: "pool1"
  top: "conv2"
  param {
    lr_mult: 1
    decay_mult: 1
  }
  param {
    lr_mult: 2
    decay_mult: 0
  }
  convolution_param {
    num_output: 256
    pad: 2
    kernel_size: 5
    group: 2
    weight_filler {
      type: "gaussian"
      std: 0.01
    }
    bias_filler {
      type: "constant"
      value: 0.1
    }
  }
}
layer {
  name: "relu2"
  type: "ReLU"
  bottom: "conv2"
  top: "conv2"
}
layer {
  name: "norm2"
  type: "LRN"
  bottom: "conv2"
  top: "norm2"
  lrn_param {
    local_size: 5
    alpha: 0.0001
    beta: 0.75
  }
}
layer {
  name: "pool2"
  type: "Pooling"
  bottom: "norm2"
  top: "pool2"
  pooling_param {
    pool: MAX
    kernel_size: 3
    stride: 2
  }
}
layer {
  name: "conv3"
  type: "Convolution"
  bottom: "pool2"
  top: "conv3"
  param {
    lr_mult: 1
    decay_mult: 1
  }
  param {
    lr_mult: 2
    decay_mult: 0
  }
  convolution_param {
    num_output: 384
    pad: 1
    kernel_size: 3
    weight_filler {
      type: "gaussian"
      std: 0.01
    }
    bias_filler {
      type: "constant"
      value: 0
    }
  }
}
layer {
  name: "relu3"
  type: "ReLU"
  bottom: "conv3"
  top: "conv3"
}
layer {
  name: "conv4"
  type: "Convolution"
  bottom: "conv3"
  top: "conv4"
  param {
    lr_mult: 1
    decay_mult: 1
  }
  param {
    lr_mult: 2
    decay_mult: 0
  }
  convolution_param {
    num_output: 384
    pad: 1
    kernel_size: 3
    group: 2
    weight_filler {
      type: "gaussian"
      std: 0.01
    }
    bias_filler {
      type: "constant"
      value: 0.1
    }
  }
}
layer {
  name: "relu4"
  type: "ReLU"
  bottom: "conv4"
  top: "conv4"
}
layer {
  name: "conv5"
  type: "Convolution"
  bottom: "conv4"
  top: "conv5"
  param {
    lr_mult: 1
    decay_mult: 1
  }
  param {
    lr_mult: 2
    decay_mult: 0
  }
  convolution_param {
    num_output: 256
    pad: 1
    kernel_size: 3
    group: 2
    weight_filler {
      type: "gaussian"
      std: 0.01
    }
    bias_filler {
      type: "constant"
      value: 0.1
    }
  }
}
layer {
  name: "relu5"
  type: "ReLU"
  bottom: "conv5"
  top: "conv5"
}
layer {
  name: "pool5"
  type: "Pooling"
  bottom: "conv5"
  top: "pool5"
  pooling_param {
    pool: MAX
    kernel_size: 3
    stride: 2
  }
}
layer {
  name: "fc6"
  type: "InnerProduct"
  bottom: "pool5"
  top: "fc6"
  param {
    lr_mult: 1
    decay_mult: 1
  }
  param {
    lr_mult: 2
    decay_mult: 0
  }
  inner_product_param {
    num_output: 4096
    weight_filler {
      type: "gaussian"
      std: 0.005
    }
    bias_filler {
      type: "constant"
      value: 0.1
    }
  }
}
layer {
  name: "relu6"
  type: "ReLU"
  bottom: "fc6"
  top: "fc6"
}
layer {
  name: "drop6"
  type: "Dropout"
  bottom: "fc6"
  top: "fc6"
  dropout_param {
    dropout_ratio: 0.5
  }
}
layer {
  name: "fc7"
  type: "InnerProduct"
  bottom: "fc6"
  top: "fc7"
  param {
    lr_mult: 1
    decay_mult: 1
  }
  param {
    lr_mult: 2
    decay_mult: 0
  }
  inner_product_param {
    num_output: 4096
    weight_filler {
      type: "gaussian"
      std: 0.005
    }
    bias_filler {
      type: "constant"
      value: 0.1
    }
  }
}
layer {
  name: "relu7"
  type: "ReLU"
  bottom: "fc7"
  top: "fc7"
}
layer {
  name: "drop7"
  type: "Dropout"
  bottom: "fc7"
  top: "fc7"
  dropout_param {
    dropout_ratio: 0.5
  }
}
layer {
  name: "fc8_plantvillage"
  type: "InnerProduct"
  bottom: "fc7"
  top: "fc8_plantvillage"
  param {
    lr_mult: 1
    decay_mult: 1
  }
  param {
    lr_mult: 2
    decay_mult: 0
  }
  inner_product_param {
    num_output: 38
    weight_filler {
      type: "gaussian"
      std: 0.01
    }
    bias_filler {
      type: "constant"
      value: 0
    }
  }
}
layer {
  name: "prob"
  type: "Softmax"
  bottom: "fc8_plantvillage"
  top: "prob"
  include {
    phase: TEST
  }
}
layer {
  name: "hdf5out"
  type: "HDF5Output"
  bottom: "prob"
  bottom: "label"
  include {
    phase: TEST
  }
  hdf5_output_param {
    file_name: "hdf5_dumps/iter_5913.h5"
  }
}
layer {
  name: "loss"
  type: "SoftmaxWithLoss"
  bottom: "fc8_plantvillage"
  bottom: "label"
  top: "loss"
}
layer {
  name: "accuracy"
  type: "Accuracy"
  bottom: "fc8_plantvillage"
  bottom: "label"
  top: "accuracy"
  include {
    phase: TEST
  }
}
I0403 12:59:38.549175 31117 layer_factory.hpp:77] Creating layer data
I0403 12:59:38.549809 31117 net.cpp:91] Creating Layer data
I0403 12:59:38.549844 31117 net.cpp:399] data -> data
I0403 12:59:38.549893 31117 net.cpp:399] data -> label
I0403 12:59:38.549929 31117 data_transformer.cpp:25] Loading mean file from: /home/mohanty/data/final_dataset/lmdb/segmented-40-60/mean.binaryproto
I0403 12:59:38.551070 31120 db_lmdb.cpp:38] Opened lmdb /home/mohanty/data/final_dataset/lmdb/segmented-40-60/test_db
I0403 12:59:38.571825 31117 data_layer.cpp:41] output data size: 100,3,227,227
I0403 12:59:38.693734 31117 net.cpp:141] Setting up data
I0403 12:59:38.693840 31117 net.cpp:148] Top shape: 100 3 227 227 (15458700)
I0403 12:59:38.693862 31117 net.cpp:148] Top shape: 100 (100)
I0403 12:59:38.693877 31117 net.cpp:156] Memory required for data: 61835200
I0403 12:59:38.693904 31117 layer_factory.hpp:77] Creating layer label_data_1_split
I0403 12:59:38.693943 31117 net.cpp:91] Creating Layer label_data_1_split
I0403 12:59:38.693959 31117 net.cpp:425] label_data_1_split <- label
I0403 12:59:38.693989 31117 net.cpp:399] label_data_1_split -> label_data_1_split_0
I0403 12:59:38.694015 31117 net.cpp:399] label_data_1_split -> label_data_1_split_1
I0403 12:59:38.694034 31117 net.cpp:399] label_data_1_split -> label_data_1_split_2
I0403 12:59:38.694094 31117 net.cpp:141] Setting up label_data_1_split
I0403 12:59:38.694116 31117 net.cpp:148] Top shape: 100 (100)
I0403 12:59:38.694133 31117 net.cpp:148] Top shape: 100 (100)
I0403 12:59:38.694149 31117 net.cpp:148] Top shape: 100 (100)
I0403 12:59:38.694161 31117 net.cpp:156] Memory required for data: 61836400
I0403 12:59:38.694175 31117 layer_factory.hpp:77] Creating layer conv1
I0403 12:59:38.694206 31117 net.cpp:91] Creating Layer conv1
I0403 12:59:38.694223 31117 net.cpp:425] conv1 <- data
I0403 12:59:38.694247 31117 net.cpp:399] conv1 -> conv1
I0403 12:59:38.835464 31117 net.cpp:141] Setting up conv1
I0403 12:59:38.835549 31117 net.cpp:148] Top shape: 100 96 55 55 (29040000)
I0403 12:59:38.835566 31117 net.cpp:156] Memory required for data: 177996400
I0403 12:59:38.835597 31117 layer_factory.hpp:77] Creating layer relu1
I0403 12:59:38.835623 31117 net.cpp:91] Creating Layer relu1
I0403 12:59:38.835640 31117 net.cpp:425] relu1 <- conv1
I0403 12:59:38.835659 31117 net.cpp:386] relu1 -> conv1 (in-place)
I0403 12:59:38.835913 31117 net.cpp:141] Setting up relu1
I0403 12:59:38.835939 31117 net.cpp:148] Top shape: 100 96 55 55 (29040000)
I0403 12:59:38.835986 31117 net.cpp:156] Memory required for data: 294156400
I0403 12:59:38.836002 31117 layer_factory.hpp:77] Creating layer norm1
I0403 12:59:38.836029 31117 net.cpp:91] Creating Layer norm1
I0403 12:59:38.836046 31117 net.cpp:425] norm1 <- conv1
I0403 12:59:38.836063 31117 net.cpp:399] norm1 -> norm1
I0403 12:59:38.836434 31117 net.cpp:141] Setting up norm1
I0403 12:59:38.836462 31117 net.cpp:148] Top shape: 100 96 55 55 (29040000)
I0403 12:59:38.836477 31117 net.cpp:156] Memory required for data: 410316400
I0403 12:59:38.836493 31117 layer_factory.hpp:77] Creating layer pool1
I0403 12:59:38.836516 31117 net.cpp:91] Creating Layer pool1
I0403 12:59:38.836534 31117 net.cpp:425] pool1 <- norm1
I0403 12:59:38.836551 31117 net.cpp:399] pool1 -> pool1
I0403 12:59:38.836628 31117 net.cpp:141] Setting up pool1
I0403 12:59:38.836652 31117 net.cpp:148] Top shape: 100 96 27 27 (6998400)
I0403 12:59:38.836666 31117 net.cpp:156] Memory required for data: 438310000
I0403 12:59:38.836694 31117 layer_factory.hpp:77] Creating layer conv2
I0403 12:59:38.836719 31117 net.cpp:91] Creating Layer conv2
I0403 12:59:38.836733 31117 net.cpp:425] conv2 <- pool1
I0403 12:59:38.836750 31117 net.cpp:399] conv2 -> conv2
I0403 12:59:38.851729 31117 net.cpp:141] Setting up conv2
I0403 12:59:38.851788 31117 net.cpp:148] Top shape: 100 256 27 27 (18662400)
I0403 12:59:38.851804 31117 net.cpp:156] Memory required for data: 512959600
I0403 12:59:38.851826 31117 layer_factory.hpp:77] Creating layer relu2
I0403 12:59:38.851847 31117 net.cpp:91] Creating Layer relu2
I0403 12:59:38.851863 31117 net.cpp:425] relu2 <- conv2
I0403 12:59:38.851881 31117 net.cpp:386] relu2 -> conv2 (in-place)
I0403 12:59:38.852156 31117 net.cpp:141] Setting up relu2
I0403 12:59:38.852183 31117 net.cpp:148] Top shape: 100 256 27 27 (18662400)
I0403 12:59:38.852200 31117 net.cpp:156] Memory required for data: 587609200
I0403 12:59:38.852215 31117 layer_factory.hpp:77] Creating layer norm2
I0403 12:59:38.852236 31117 net.cpp:91] Creating Layer norm2
I0403 12:59:38.852257 31117 net.cpp:425] norm2 <- conv2
I0403 12:59:38.852277 31117 net.cpp:399] norm2 -> norm2
I0403 12:59:38.852499 31117 net.cpp:141] Setting up norm2
I0403 12:59:38.852524 31117 net.cpp:148] Top shape: 100 256 27 27 (18662400)
I0403 12:59:38.852542 31117 net.cpp:156] Memory required for data: 662258800
I0403 12:59:38.852557 31117 layer_factory.hpp:77] Creating layer pool2
I0403 12:59:38.852583 31117 net.cpp:91] Creating Layer pool2
I0403 12:59:38.852598 31117 net.cpp:425] pool2 <- norm2
I0403 12:59:38.852617 31117 net.cpp:399] pool2 -> pool2
I0403 12:59:38.852668 31117 net.cpp:141] Setting up pool2
I0403 12:59:38.852691 31117 net.cpp:148] Top shape: 100 256 13 13 (4326400)
I0403 12:59:38.852705 31117 net.cpp:156] Memory required for data: 679564400
I0403 12:59:38.852720 31117 layer_factory.hpp:77] Creating layer conv3
I0403 12:59:38.852743 31117 net.cpp:91] Creating Layer conv3
I0403 12:59:38.852759 31117 net.cpp:425] conv3 <- pool2
I0403 12:59:38.852777 31117 net.cpp:399] conv3 -> conv3
I0403 12:59:38.890768 31117 net.cpp:141] Setting up conv3
I0403 12:59:38.890849 31117 net.cpp:148] Top shape: 100 384 13 13 (6489600)
I0403 12:59:38.890866 31117 net.cpp:156] Memory required for data: 705522800
I0403 12:59:38.890892 31117 layer_factory.hpp:77] Creating layer relu3
I0403 12:59:38.890915 31117 net.cpp:91] Creating Layer relu3
I0403 12:59:38.890933 31117 net.cpp:425] relu3 <- conv3
I0403 12:59:38.890952 31117 net.cpp:386] relu3 -> conv3 (in-place)
I0403 12:59:38.891230 31117 net.cpp:141] Setting up relu3
I0403 12:59:38.891264 31117 net.cpp:148] Top shape: 100 384 13 13 (6489600)
I0403 12:59:38.891283 31117 net.cpp:156] Memory required for data: 731481200
I0403 12:59:38.891297 31117 layer_factory.hpp:77] Creating layer conv4
I0403 12:59:38.891322 31117 net.cpp:91] Creating Layer conv4
I0403 12:59:38.891340 31117 net.cpp:425] conv4 <- conv3
I0403 12:59:38.891360 31117 net.cpp:399] conv4 -> conv4
I0403 12:59:38.921195 31117 net.cpp:141] Setting up conv4
I0403 12:59:38.921283 31117 net.cpp:148] Top shape: 100 384 13 13 (6489600)
I0403 12:59:38.921331 31117 net.cpp:156] Memory required for data: 757439600
I0403 12:59:38.921353 31117 layer_factory.hpp:77] Creating layer relu4
I0403 12:59:38.921378 31117 net.cpp:91] Creating Layer relu4
I0403 12:59:38.921397 31117 net.cpp:425] relu4 <- conv4
I0403 12:59:38.921416 31117 net.cpp:386] relu4 -> conv4 (in-place)
I0403 12:59:38.921710 31117 net.cpp:141] Setting up relu4
I0403 12:59:38.921736 31117 net.cpp:148] Top shape: 100 384 13 13 (6489600)
I0403 12:59:38.921751 31117 net.cpp:156] Memory required for data: 783398000
I0403 12:59:38.921773 31117 layer_factory.hpp:77] Creating layer conv5
I0403 12:59:38.921798 31117 net.cpp:91] Creating Layer conv5
I0403 12:59:38.921816 31117 net.cpp:425] conv5 <- conv4
I0403 12:59:38.921838 31117 net.cpp:399] conv5 -> conv5
I0403 12:59:38.942342 31117 net.cpp:141] Setting up conv5
I0403 12:59:38.942404 31117 net.cpp:148] Top shape: 100 256 13 13 (4326400)
I0403 12:59:38.942420 31117 net.cpp:156] Memory required for data: 800703600
I0403 12:59:38.942447 31117 layer_factory.hpp:77] Creating layer relu5
I0403 12:59:38.942471 31117 net.cpp:91] Creating Layer relu5
I0403 12:59:38.942489 31117 net.cpp:425] relu5 <- conv5
I0403 12:59:38.942507 31117 net.cpp:386] relu5 -> conv5 (in-place)
I0403 12:59:38.942788 31117 net.cpp:141] Setting up relu5
I0403 12:59:38.942818 31117 net.cpp:148] Top shape: 100 256 13 13 (4326400)
I0403 12:59:38.942836 31117 net.cpp:156] Memory required for data: 818009200
I0403 12:59:38.942849 31117 layer_factory.hpp:77] Creating layer pool5
I0403 12:59:38.942872 31117 net.cpp:91] Creating Layer pool5
I0403 12:59:38.942889 31117 net.cpp:425] pool5 <- conv5
I0403 12:59:38.942910 31117 net.cpp:399] pool5 -> pool5
I0403 12:59:38.942973 31117 net.cpp:141] Setting up pool5
I0403 12:59:38.943001 31117 net.cpp:148] Top shape: 100 256 6 6 (921600)
I0403 12:59:38.943016 31117 net.cpp:156] Memory required for data: 821695600
I0403 12:59:38.943030 31117 layer_factory.hpp:77] Creating layer fc6
I0403 12:59:38.943058 31117 net.cpp:91] Creating Layer fc6
I0403 12:59:38.943074 31117 net.cpp:425] fc6 <- pool5
I0403 12:59:38.943095 31117 net.cpp:399] fc6 -> fc6
I0403 12:59:40.497862 31117 net.cpp:141] Setting up fc6
I0403 12:59:40.497943 31117 net.cpp:148] Top shape: 100 4096 (409600)
I0403 12:59:40.497959 31117 net.cpp:156] Memory required for data: 823334000
I0403 12:59:40.497979 31117 layer_factory.hpp:77] Creating layer relu6
I0403 12:59:40.498003 31117 net.cpp:91] Creating Layer relu6
I0403 12:59:40.498020 31117 net.cpp:425] relu6 <- fc6
I0403 12:59:40.498039 31117 net.cpp:386] relu6 -> fc6 (in-place)
I0403 12:59:40.498263 31117 net.cpp:141] Setting up relu6
I0403 12:59:40.498287 31117 net.cpp:148] Top shape: 100 4096 (409600)
I0403 12:59:40.498301 31117 net.cpp:156] Memory required for data: 824972400
I0403 12:59:40.498317 31117 layer_factory.hpp:77] Creating layer drop6
I0403 12:59:40.498337 31117 net.cpp:91] Creating Layer drop6
I0403 12:59:40.498352 31117 net.cpp:425] drop6 <- fc6
I0403 12:59:40.498368 31117 net.cpp:386] drop6 -> fc6 (in-place)
I0403 12:59:40.498420 31117 net.cpp:141] Setting up drop6
I0403 12:59:40.498440 31117 net.cpp:148] Top shape: 100 4096 (409600)
I0403 12:59:40.498455 31117 net.cpp:156] Memory required for data: 826610800
I0403 12:59:40.498468 31117 layer_factory.hpp:77] Creating layer fc7
I0403 12:59:40.498492 31117 net.cpp:91] Creating Layer fc7
I0403 12:59:40.498508 31117 net.cpp:425] fc7 <- fc6
I0403 12:59:40.498525 31117 net.cpp:399] fc7 -> fc7
I0403 12:59:41.204548 31117 net.cpp:141] Setting up fc7
I0403 12:59:41.204596 31117 net.cpp:148] Top shape: 100 4096 (409600)
I0403 12:59:41.204613 31117 net.cpp:156] Memory required for data: 828249200
I0403 12:59:41.204634 31117 layer_factory.hpp:77] Creating layer relu7
I0403 12:59:41.204655 31117 net.cpp:91] Creating Layer relu7
I0403 12:59:41.204673 31117 net.cpp:425] relu7 <- fc7
I0403 12:59:41.204690 31117 net.cpp:386] relu7 -> fc7 (in-place)
I0403 12:59:41.205111 31117 net.cpp:141] Setting up relu7
I0403 12:59:41.205139 31117 net.cpp:148] Top shape: 100 4096 (409600)
I0403 12:59:41.205191 31117 net.cpp:156] Memory required for data: 829887600
I0403 12:59:41.205207 31117 layer_factory.hpp:77] Creating layer drop7
I0403 12:59:41.205225 31117 net.cpp:91] Creating Layer drop7
I0403 12:59:41.205245 31117 net.cpp:425] drop7 <- fc7
I0403 12:59:41.205263 31117 net.cpp:386] drop7 -> fc7 (in-place)
I0403 12:59:41.205319 31117 net.cpp:141] Setting up drop7
I0403 12:59:41.205341 31117 net.cpp:148] Top shape: 100 4096 (409600)
I0403 12:59:41.205355 31117 net.cpp:156] Memory required for data: 831526000
I0403 12:59:41.205368 31117 layer_factory.hpp:77] Creating layer fc8_plantvillage
I0403 12:59:41.205389 31117 net.cpp:91] Creating Layer fc8_plantvillage
I0403 12:59:41.205405 31117 net.cpp:425] fc8_plantvillage <- fc7
I0403 12:59:41.205422 31117 net.cpp:399] fc8_plantvillage -> fc8_plantvillage
I0403 12:59:41.212107 31117 net.cpp:141] Setting up fc8_plantvillage
I0403 12:59:41.212134 31117 net.cpp:148] Top shape: 100 38 (3800)
I0403 12:59:41.212149 31117 net.cpp:156] Memory required for data: 831541200
I0403 12:59:41.212167 31117 layer_factory.hpp:77] Creating layer fc8_plantvillage_fc8_plantvillage_0_split
I0403 12:59:41.212188 31117 net.cpp:91] Creating Layer fc8_plantvillage_fc8_plantvillage_0_split
I0403 12:59:41.212203 31117 net.cpp:425] fc8_plantvillage_fc8_plantvillage_0_split <- fc8_plantvillage
I0403 12:59:41.212224 31117 net.cpp:399] fc8_plantvillage_fc8_plantvillage_0_split -> fc8_plantvillage_fc8_plantvillage_0_split_0
I0403 12:59:41.212254 31117 net.cpp:399] fc8_plantvillage_fc8_plantvillage_0_split -> fc8_plantvillage_fc8_plantvillage_0_split_1
I0403 12:59:41.212276 31117 net.cpp:399] fc8_plantvillage_fc8_plantvillage_0_split -> fc8_plantvillage_fc8_plantvillage_0_split_2
I0403 12:59:41.212353 31117 net.cpp:141] Setting up fc8_plantvillage_fc8_plantvillage_0_split
I0403 12:59:41.212388 31117 net.cpp:148] Top shape: 100 38 (3800)
I0403 12:59:41.212402 31117 net.cpp:148] Top shape: 100 38 (3800)
I0403 12:59:41.212417 31117 net.cpp:148] Top shape: 100 38 (3800)
I0403 12:59:41.212430 31117 net.cpp:156] Memory required for data: 831586800
I0403 12:59:41.212445 31117 layer_factory.hpp:77] Creating layer prob
I0403 12:59:41.212463 31117 net.cpp:91] Creating Layer prob
I0403 12:59:41.212479 31117 net.cpp:425] prob <- fc8_plantvillage_fc8_plantvillage_0_split_0
I0403 12:59:41.212496 31117 net.cpp:399] prob -> prob
I0403 12:59:41.212713 31117 net.cpp:141] Setting up prob
I0403 12:59:41.212736 31117 net.cpp:148] Top shape: 100 38 (3800)
I0403 12:59:41.212754 31117 net.cpp:156] Memory required for data: 831602000
I0403 12:59:41.212769 31117 layer_factory.hpp:77] Creating layer hdf5out
I0403 12:59:41.212787 31117 net.cpp:91] Creating Layer hdf5out
I0403 12:59:41.212801 31117 net.cpp:425] hdf5out <- prob
I0403 12:59:41.212817 31117 net.cpp:425] hdf5out <- label_data_1_split_0
I0403 12:59:41.215061 31117 net.cpp:141] Setting up hdf5out
…
