…
I0403 12:51:44.278445 30904 net.cpp:313] The NetState phase (1) differed from the phase (0) specified by a rule in layer data
I0403 12:51:44.278753 30904 net.cpp:49] Initializing net from parameters: 
state {
  phase: TEST
}
layer {
  name: "data"
  type: "Data"
  top: "data"
  top: "label"
  include {
    phase: TEST
  }
  transform_param {
    crop_size: 227
    mean_file: "/home/mohanty/data/final_dataset/lmdb/segmented-40-60/mean.binaryproto"
  }
  data_param {
    source: "/home/mohanty/data/final_dataset/lmdb/segmented-40-60/test_db"
    batch_size: 100
    backend: LMDB
  }
}
layer {
  name: "conv1"
  type: "Convolution"
  bottom: "data"
  top: "conv1"
  param {
    lr_mult: 1
    decay_mult: 1
  }
  param {
    lr_mult: 2
    decay_mult: 0
  }
  convolution_param {
    num_output: 96
    kernel_size: 11
    stride: 4
    weight_filler {
      type: "gaussian"
      std: 0.01
    }
    bias_filler {
      type: "constant"
      value: 0
    }
  }
}
layer {
  name: "relu1"
  type: "ReLU"
  bottom: "conv1"
  top: "conv1"
}
layer {
  name: "norm1"
  type: "LRN"
  bottom: "conv1"
  top: "norm1"
  lrn_param {
    local_size: 5
    alpha: 0.0001
    beta: 0.75
  }
}
layer {
  name: "pool1"
  type: "Pooling"
  bottom: "norm1"
  top: "pool1"
  pooling_param {
    pool: MAX
    kernel_size: 3
    stride: 2
  }
}
layer {
  name: "conv2"
  type: "Convolution"
  bottom: "pool1"
  top: "conv2"
  param {
    lr_mult: 1
    decay_mult: 1
  }
  param {
    lr_mult: 2
    decay_mult: 0
  }
  convolution_param {
    num_output: 256
    pad: 2
    kernel_size: 5
    group: 2
    weight_filler {
      type: "gaussian"
      std: 0.01
    }
    bias_filler {
      type: "constant"
      value: 0.1
    }
  }
}
layer {
  name: "relu2"
  type: "ReLU"
  bottom: "conv2"
  top: "conv2"
}
layer {
  name: "norm2"
  type: "LRN"
  bottom: "conv2"
  top: "norm2"
  lrn_param {
    local_size: 5
    alpha: 0.0001
    beta: 0.75
  }
}
layer {
  name: "pool2"
  type: "Pooling"
  bottom: "norm2"
  top: "pool2"
  pooling_param {
    pool: MAX
    kernel_size: 3
    stride: 2
  }
}
layer {
  name: "conv3"
  type: "Convolution"
  bottom: "pool2"
  top: "conv3"
  param {
    lr_mult: 1
    decay_mult: 1
  }
  param {
    lr_mult: 2
    decay_mult: 0
  }
  convolution_param {
    num_output: 384
    pad: 1
    kernel_size: 3
    weight_filler {
      type: "gaussian"
      std: 0.01
    }
    bias_filler {
      type: "constant"
      value: 0
    }
  }
}
layer {
  name: "relu3"
  type: "ReLU"
  bottom: "conv3"
  top: "conv3"
}
layer {
  name: "conv4"
  type: "Convolution"
  bottom: "conv3"
  top: "conv4"
  param {
    lr_mult: 1
    decay_mult: 1
  }
  param {
    lr_mult: 2
    decay_mult: 0
  }
  convolution_param {
    num_output: 384
    pad: 1
    kernel_size: 3
    group: 2
    weight_filler {
      type: "gaussian"
      std: 0.01
    }
    bias_filler {
      type: "constant"
      value: 0.1
    }
  }
}
layer {
  name: "relu4"
  type: "ReLU"
  bottom: "conv4"
  top: "conv4"
}
layer {
  name: "conv5"
  type: "Convolution"
  bottom: "conv4"
  top: "conv5"
  param {
    lr_mult: 1
    decay_mult: 1
  }
  param {
    lr_mult: 2
    decay_mult: 0
  }
  convolution_param {
    num_output: 256
    pad: 1
    kernel_size: 3
    group: 2
    weight_filler {
      type: "gaussian"
      std: 0.01
    }
    bias_filler {
      type: "constant"
      value: 0.1
    }
  }
}
layer {
  name: "relu5"
  type: "ReLU"
  bottom: "conv5"
  top: "conv5"
}
layer {
  name: "pool5"
  type: "Pooling"
  bottom: "conv5"
  top: "pool5"
  pooling_param {
    pool: MAX
    kernel_size: 3
    stride: 2
  }
}
layer {
  name: "fc6"
  type: "InnerProduct"
  bottom: "pool5"
  top: "fc6"
  param {
    lr_mult: 1
    decay_mult: 1
  }
  param {
    lr_mult: 2
    decay_mult: 0
  }
  inner_product_param {
    num_output: 4096
    weight_filler {
      type: "gaussian"
      std: 0.005
    }
    bias_filler {
      type: "constant"
      value: 0.1
    }
  }
}
layer {
  name: "relu6"
  type: "ReLU"
  bottom: "fc6"
  top: "fc6"
}
layer {
  name: "drop6"
  type: "Dropout"
  bottom: "fc6"
  top: "fc6"
  dropout_param {
    dropout_ratio: 0.5
  }
}
layer {
  name: "fc7"
  type: "InnerProduct"
  bottom: "fc6"
  top: "fc7"
  param {
    lr_mult: 1
    decay_mult: 1
  }
  param {
    lr_mult: 2
    decay_mult: 0
  }
  inner_product_param {
    num_output: 4096
    weight_filler {
      type: "gaussian"
      std: 0.005
    }
    bias_filler {
      type: "constant"
      value: 0.1
    }
  }
}
layer {
  name: "relu7"
  type: "ReLU"
  bottom: "fc7"
  top: "fc7"
}
layer {
  name: "drop7"
  type: "Dropout"
  bottom: "fc7"
  top: "fc7"
  dropout_param {
    dropout_ratio: 0.5
  }
}
layer {
  name: "fc8_plantvillage"
  type: "InnerProduct"
  bottom: "fc7"
  top: "fc8_plantvillage"
  param {
    lr_mult: 1
    decay_mult: 1
  }
  param {
    lr_mult: 2
    decay_mult: 0
  }
  inner_product_param {
    num_output: 38
    weight_filler {
      type: "gaussian"
      std: 0.01
    }
    bias_filler {
      type: "constant"
      value: 0
    }
  }
}
layer {
  name: "prob"
  type: "Softmax"
  bottom: "fc8_plantvillage"
  top: "prob"
  include {
    phase: TEST
  }
}
layer {
  name: "hdf5out"
  type: "HDF5Output"
  bottom: "prob"
  bottom: "label"
  include {
    phase: TEST
  }
  hdf5_output_param {
    file_name: "hdf5_dumps/iter_4161.h5"
  }
}
layer {
  name: "loss"
  type: "SoftmaxWithLoss"
  bottom: "fc8_plantvillage"
  bottom: "label"
  top: "loss"
}
layer {
  name: "accuracy"
  type: "Accuracy"
  bottom: "fc8_plantvillage"
  bottom: "label"
  top: "accuracy"
  include {
    phase: TEST
  }
}
I0403 12:51:44.279336 30904 layer_factory.hpp:77] Creating layer data
I0403 12:51:44.279984 30904 net.cpp:91] Creating Layer data
I0403 12:51:44.280017 30904 net.cpp:399] data -> data
I0403 12:51:44.280068 30904 net.cpp:399] data -> label
I0403 12:51:44.280104 30904 data_transformer.cpp:25] Loading mean file from: /home/mohanty/data/final_dataset/lmdb/segmented-40-60/mean.binaryproto
I0403 12:51:44.281255 30908 db_lmdb.cpp:38] Opened lmdb /home/mohanty/data/final_dataset/lmdb/segmented-40-60/test_db
I0403 12:51:44.294442 30904 data_layer.cpp:41] output data size: 100,3,227,227
I0403 12:51:44.415809 30904 net.cpp:141] Setting up data
I0403 12:51:44.415916 30904 net.cpp:148] Top shape: 100 3 227 227 (15458700)
I0403 12:51:44.415940 30904 net.cpp:148] Top shape: 100 (100)
I0403 12:51:44.415956 30904 net.cpp:156] Memory required for data: 61835200
I0403 12:51:44.415985 30904 layer_factory.hpp:77] Creating layer label_data_1_split
I0403 12:51:44.416012 30904 net.cpp:91] Creating Layer label_data_1_split
I0403 12:51:44.416029 30904 net.cpp:425] label_data_1_split <- label
I0403 12:51:44.416062 30904 net.cpp:399] label_data_1_split -> label_data_1_split_0
I0403 12:51:44.416090 30904 net.cpp:399] label_data_1_split -> label_data_1_split_1
I0403 12:51:44.416110 30904 net.cpp:399] label_data_1_split -> label_data_1_split_2
I0403 12:51:44.416172 30904 net.cpp:141] Setting up label_data_1_split
I0403 12:51:44.416195 30904 net.cpp:148] Top shape: 100 (100)
I0403 12:51:44.416213 30904 net.cpp:148] Top shape: 100 (100)
I0403 12:51:44.416229 30904 net.cpp:148] Top shape: 100 (100)
I0403 12:51:44.416244 30904 net.cpp:156] Memory required for data: 61836400
I0403 12:51:44.416260 30904 layer_factory.hpp:77] Creating layer conv1
I0403 12:51:44.416295 30904 net.cpp:91] Creating Layer conv1
I0403 12:51:44.416313 30904 net.cpp:425] conv1 <- data
I0403 12:51:44.416334 30904 net.cpp:399] conv1 -> conv1
I0403 12:51:44.558917 30904 net.cpp:141] Setting up conv1
I0403 12:51:44.559005 30904 net.cpp:148] Top shape: 100 96 55 55 (29040000)
I0403 12:51:44.559023 30904 net.cpp:156] Memory required for data: 177996400
I0403 12:51:44.559054 30904 layer_factory.hpp:77] Creating layer relu1
I0403 12:51:44.559082 30904 net.cpp:91] Creating Layer relu1
I0403 12:51:44.559100 30904 net.cpp:425] relu1 <- conv1
I0403 12:51:44.559118 30904 net.cpp:386] relu1 -> conv1 (in-place)
I0403 12:51:44.559382 30904 net.cpp:141] Setting up relu1
I0403 12:51:44.559409 30904 net.cpp:148] Top shape: 100 96 55 55 (29040000)
I0403 12:51:44.559458 30904 net.cpp:156] Memory required for data: 294156400
I0403 12:51:44.559474 30904 layer_factory.hpp:77] Creating layer norm1
I0403 12:51:44.559501 30904 net.cpp:91] Creating Layer norm1
I0403 12:51:44.559520 30904 net.cpp:425] norm1 <- conv1
I0403 12:51:44.559537 30904 net.cpp:399] norm1 -> norm1
I0403 12:51:44.559905 30904 net.cpp:141] Setting up norm1
I0403 12:51:44.559932 30904 net.cpp:148] Top shape: 100 96 55 55 (29040000)
I0403 12:51:44.559948 30904 net.cpp:156] Memory required for data: 410316400
I0403 12:51:44.559964 30904 layer_factory.hpp:77] Creating layer pool1
I0403 12:51:44.559988 30904 net.cpp:91] Creating Layer pool1
I0403 12:51:44.560004 30904 net.cpp:425] pool1 <- norm1
I0403 12:51:44.560024 30904 net.cpp:399] pool1 -> pool1
I0403 12:51:44.560091 30904 net.cpp:141] Setting up pool1
I0403 12:51:44.560114 30904 net.cpp:148] Top shape: 100 96 27 27 (6998400)
I0403 12:51:44.560129 30904 net.cpp:156] Memory required for data: 438310000
I0403 12:51:44.560144 30904 layer_factory.hpp:77] Creating layer conv2
I0403 12:51:44.560169 30904 net.cpp:91] Creating Layer conv2
I0403 12:51:44.560185 30904 net.cpp:425] conv2 <- pool1
I0403 12:51:44.560204 30904 net.cpp:399] conv2 -> conv2
I0403 12:51:44.575544 30904 net.cpp:141] Setting up conv2
I0403 12:51:44.575608 30904 net.cpp:148] Top shape: 100 256 27 27 (18662400)
I0403 12:51:44.575626 30904 net.cpp:156] Memory required for data: 512959600
I0403 12:51:44.575651 30904 layer_factory.hpp:77] Creating layer relu2
I0403 12:51:44.575672 30904 net.cpp:91] Creating Layer relu2
I0403 12:51:44.575690 30904 net.cpp:425] relu2 <- conv2
I0403 12:51:44.575709 30904 net.cpp:386] relu2 -> conv2 (in-place)
I0403 12:51:44.575996 30904 net.cpp:141] Setting up relu2
I0403 12:51:44.576023 30904 net.cpp:148] Top shape: 100 256 27 27 (18662400)
I0403 12:51:44.576040 30904 net.cpp:156] Memory required for data: 587609200
I0403 12:51:44.576056 30904 layer_factory.hpp:77] Creating layer norm2
I0403 12:51:44.576079 30904 net.cpp:91] Creating Layer norm2
I0403 12:51:44.576097 30904 net.cpp:425] norm2 <- conv2
I0403 12:51:44.576117 30904 net.cpp:399] norm2 -> norm2
I0403 12:51:44.576346 30904 net.cpp:141] Setting up norm2
I0403 12:51:44.576375 30904 net.cpp:148] Top shape: 100 256 27 27 (18662400)
I0403 12:51:44.576392 30904 net.cpp:156] Memory required for data: 662258800
I0403 12:51:44.576407 30904 layer_factory.hpp:77] Creating layer pool2
I0403 12:51:44.576427 30904 net.cpp:91] Creating Layer pool2
I0403 12:51:44.576443 30904 net.cpp:425] pool2 <- norm2
I0403 12:51:44.576463 30904 net.cpp:399] pool2 -> pool2
I0403 12:51:44.576517 30904 net.cpp:141] Setting up pool2
I0403 12:51:44.576540 30904 net.cpp:148] Top shape: 100 256 13 13 (4326400)
I0403 12:51:44.576555 30904 net.cpp:156] Memory required for data: 679564400
I0403 12:51:44.576570 30904 layer_factory.hpp:77] Creating layer conv3
I0403 12:51:44.576592 30904 net.cpp:91] Creating Layer conv3
I0403 12:51:44.576609 30904 net.cpp:425] conv3 <- pool2
I0403 12:51:44.576630 30904 net.cpp:399] conv3 -> conv3
I0403 12:51:44.615340 30904 net.cpp:141] Setting up conv3
I0403 12:51:44.615422 30904 net.cpp:148] Top shape: 100 384 13 13 (6489600)
I0403 12:51:44.615439 30904 net.cpp:156] Memory required for data: 705522800
I0403 12:51:44.615464 30904 layer_factory.hpp:77] Creating layer relu3
I0403 12:51:44.615488 30904 net.cpp:91] Creating Layer relu3
I0403 12:51:44.615504 30904 net.cpp:425] relu3 <- conv3
I0403 12:51:44.615526 30904 net.cpp:386] relu3 -> conv3 (in-place)
I0403 12:51:44.615803 30904 net.cpp:141] Setting up relu3
I0403 12:51:44.615833 30904 net.cpp:148] Top shape: 100 384 13 13 (6489600)
I0403 12:51:44.615849 30904 net.cpp:156] Memory required for data: 731481200
I0403 12:51:44.615864 30904 layer_factory.hpp:77] Creating layer conv4
I0403 12:51:44.615891 30904 net.cpp:91] Creating Layer conv4
I0403 12:51:44.615909 30904 net.cpp:425] conv4 <- conv3
I0403 12:51:44.615928 30904 net.cpp:399] conv4 -> conv4
I0403 12:51:44.646165 30904 net.cpp:141] Setting up conv4
I0403 12:51:44.646253 30904 net.cpp:148] Top shape: 100 384 13 13 (6489600)
I0403 12:51:44.646307 30904 net.cpp:156] Memory required for data: 757439600
I0403 12:51:44.646332 30904 layer_factory.hpp:77] Creating layer relu4
I0403 12:51:44.646356 30904 net.cpp:91] Creating Layer relu4
I0403 12:51:44.646374 30904 net.cpp:425] relu4 <- conv4
I0403 12:51:44.646394 30904 net.cpp:386] relu4 -> conv4 (in-place)
I0403 12:51:44.646677 30904 net.cpp:141] Setting up relu4
I0403 12:51:44.646704 30904 net.cpp:148] Top shape: 100 384 13 13 (6489600)
I0403 12:51:44.646719 30904 net.cpp:156] Memory required for data: 783398000
I0403 12:51:44.646735 30904 layer_factory.hpp:77] Creating layer conv5
I0403 12:51:44.646764 30904 net.cpp:91] Creating Layer conv5
I0403 12:51:44.646782 30904 net.cpp:425] conv5 <- conv4
I0403 12:51:44.646802 30904 net.cpp:399] conv5 -> conv5
I0403 12:51:44.667384 30904 net.cpp:141] Setting up conv5
I0403 12:51:44.667424 30904 net.cpp:148] Top shape: 100 256 13 13 (4326400)
I0403 12:51:44.667441 30904 net.cpp:156] Memory required for data: 800703600
I0403 12:51:44.667467 30904 layer_factory.hpp:77] Creating layer relu5
I0403 12:51:44.667487 30904 net.cpp:91] Creating Layer relu5
I0403 12:51:44.667505 30904 net.cpp:425] relu5 <- conv5
I0403 12:51:44.667526 30904 net.cpp:386] relu5 -> conv5 (in-place)
I0403 12:51:44.667809 30904 net.cpp:141] Setting up relu5
I0403 12:51:44.667835 30904 net.cpp:148] Top shape: 100 256 13 13 (4326400)
I0403 12:51:44.667851 30904 net.cpp:156] Memory required for data: 818009200
I0403 12:51:44.667866 30904 layer_factory.hpp:77] Creating layer pool5
I0403 12:51:44.667889 30904 net.cpp:91] Creating Layer pool5
I0403 12:51:44.667906 30904 net.cpp:425] pool5 <- conv5
I0403 12:51:44.667940 30904 net.cpp:399] pool5 -> pool5
I0403 12:51:44.668000 30904 net.cpp:141] Setting up pool5
I0403 12:51:44.668023 30904 net.cpp:148] Top shape: 100 256 6 6 (921600)
I0403 12:51:44.668037 30904 net.cpp:156] Memory required for data: 821695600
I0403 12:51:44.668052 30904 layer_factory.hpp:77] Creating layer fc6
I0403 12:51:44.668081 30904 net.cpp:91] Creating Layer fc6
I0403 12:51:44.668098 30904 net.cpp:425] fc6 <- pool5
I0403 12:51:44.668119 30904 net.cpp:399] fc6 -> fc6
I0403 12:51:46.261669 30904 net.cpp:141] Setting up fc6
I0403 12:51:46.261775 30904 net.cpp:148] Top shape: 100 4096 (409600)
I0403 12:51:46.261790 30904 net.cpp:156] Memory required for data: 823334000
I0403 12:51:46.261811 30904 layer_factory.hpp:77] Creating layer relu6
I0403 12:51:46.261836 30904 net.cpp:91] Creating Layer relu6
I0403 12:51:46.261853 30904 net.cpp:425] relu6 <- fc6
I0403 12:51:46.261873 30904 net.cpp:386] relu6 -> fc6 (in-place)
I0403 12:51:46.262094 30904 net.cpp:141] Setting up relu6
I0403 12:51:46.262121 30904 net.cpp:148] Top shape: 100 4096 (409600)
I0403 12:51:46.262136 30904 net.cpp:156] Memory required for data: 824972400
I0403 12:51:46.262151 30904 layer_factory.hpp:77] Creating layer drop6
I0403 12:51:46.262169 30904 net.cpp:91] Creating Layer drop6
I0403 12:51:46.262184 30904 net.cpp:425] drop6 <- fc6
I0403 12:51:46.262199 30904 net.cpp:386] drop6 -> fc6 (in-place)
I0403 12:51:46.262251 30904 net.cpp:141] Setting up drop6
I0403 12:51:46.262284 30904 net.cpp:148] Top shape: 100 4096 (409600)
I0403 12:51:46.262301 30904 net.cpp:156] Memory required for data: 826610800
I0403 12:51:46.262316 30904 layer_factory.hpp:77] Creating layer fc7
I0403 12:51:46.262338 30904 net.cpp:91] Creating Layer fc7
I0403 12:51:46.262353 30904 net.cpp:425] fc7 <- fc6
I0403 12:51:46.262372 30904 net.cpp:399] fc7 -> fc7
I0403 12:51:48.248534 30904 net.cpp:141] Setting up fc7
I0403 12:51:48.248631 30904 net.cpp:148] Top shape: 100 4096 (409600)
I0403 12:51:48.248648 30904 net.cpp:156] Memory required for data: 828249200
I0403 12:51:48.248672 30904 layer_factory.hpp:77] Creating layer relu7
I0403 12:51:48.248694 30904 net.cpp:91] Creating Layer relu7
I0403 12:51:48.248711 30904 net.cpp:425] relu7 <- fc7
I0403 12:51:48.248733 30904 net.cpp:386] relu7 -> fc7 (in-place)
I0403 12:51:48.249114 30904 net.cpp:141] Setting up relu7
I0403 12:51:48.249143 30904 net.cpp:148] Top shape: 100 4096 (409600)
I0403 12:51:48.249192 30904 net.cpp:156] Memory required for data: 829887600
I0403 12:51:48.249208 30904 layer_factory.hpp:77] Creating layer drop7
I0403 12:51:48.249228 30904 net.cpp:91] Creating Layer drop7
I0403 12:51:48.249243 30904 net.cpp:425] drop7 <- fc7
I0403 12:51:48.249263 30904 net.cpp:386] drop7 -> fc7 (in-place)
I0403 12:51:48.249311 30904 net.cpp:141] Setting up drop7
I0403 12:51:48.249335 30904 net.cpp:148] Top shape: 100 4096 (409600)
I0403 12:51:48.249351 30904 net.cpp:156] Memory required for data: 831526000
I0403 12:51:48.249366 30904 layer_factory.hpp:77] Creating layer fc8_plantvillage
I0403 12:51:48.249388 30904 net.cpp:91] Creating Layer fc8_plantvillage
I0403 12:51:48.249405 30904 net.cpp:425] fc8_plantvillage <- fc7
I0403 12:51:48.249426 30904 net.cpp:399] fc8_plantvillage -> fc8_plantvillage
I0403 12:51:48.256258 30904 net.cpp:141] Setting up fc8_plantvillage
I0403 12:51:48.256291 30904 net.cpp:148] Top shape: 100 38 (3800)
I0403 12:51:48.256309 30904 net.cpp:156] Memory required for data: 831541200
I0403 12:51:48.256327 30904 layer_factory.hpp:77] Creating layer fc8_plantvillage_fc8_plantvillage_0_split
I0403 12:51:48.256345 30904 net.cpp:91] Creating Layer fc8_plantvillage_fc8_plantvillage_0_split
I0403 12:51:48.256361 30904 net.cpp:425] fc8_plantvillage_fc8_plantvillage_0_split <- fc8_plantvillage
I0403 12:51:48.256381 30904 net.cpp:399] fc8_plantvillage_fc8_plantvillage_0_split -> fc8_plantvillage_fc8_plantvillage_0_split_0
I0403 12:51:48.256402 30904 net.cpp:399] fc8_plantvillage_fc8_plantvillage_0_split -> fc8_plantvillage_fc8_plantvillage_0_split_1
I0403 12:51:48.256422 30904 net.cpp:399] fc8_plantvillage_fc8_plantvillage_0_split -> fc8_plantvillage_fc8_plantvillage_0_split_2
I0403 12:51:48.256502 30904 net.cpp:141] Setting up fc8_plantvillage_fc8_plantvillage_0_split
I0403 12:51:48.256528 30904 net.cpp:148] Top shape: 100 38 (3800)
I0403 12:51:48.256546 30904 net.cpp:148] Top shape: 100 38 (3800)
I0403 12:51:48.256561 30904 net.cpp:148] Top shape: 100 38 (3800)
I0403 12:51:48.256575 30904 net.cpp:156] Memory required for data: 831586800
I0403 12:51:48.256590 30904 layer_factory.hpp:77] Creating layer prob
I0403 12:51:48.256609 30904 net.cpp:91] Creating Layer prob
I0403 12:51:48.256624 30904 net.cpp:425] prob <- fc8_plantvillage_fc8_plantvillage_0_split_0
I0403 12:51:48.256642 30904 net.cpp:399] prob -> prob
I0403 12:51:48.256871 30904 net.cpp:141] Setting up prob
I0403 12:51:48.256901 30904 net.cpp:148] Top shape: 100 38 (3800)
I0403 12:51:48.256916 30904 net.cpp:156] Memory required for data: 831602000
I0403 12:51:48.256930 30904 layer_factory.hpp:77] Creating layer hdf5out
I0403 12:51:48.256949 30904 net.cpp:91] Creating Layer hdf5out
I0403 12:51:48.256965 30904 net.cpp:425] hdf5out <- prob
I0403 12:51:48.256981 30904 net.cpp:425] hdf5out <- label_data_1_split_0
I0403 12:51:48.259248 30904 net.cpp:141] Setting up hdf5out
…
