…
I0403 13:02:37.049255 31193 net.cpp:313] The NetState phase (1) differed from the phase (0) specified by a rule in layer data
I0403 13:02:37.049577 31193 net.cpp:49] Initializing net from parameters: 
state {
  phase: TEST
}
layer {
  name: "data"
  type: "Data"
  top: "data"
  top: "label"
  include {
    phase: TEST
  }
  transform_param {
    crop_size: 227
    mean_file: "/home/mohanty/data/final_dataset/lmdb/segmented-40-60/mean.binaryproto"
  }
  data_param {
    source: "/home/mohanty/data/final_dataset/lmdb/segmented-40-60/test_db"
    batch_size: 100
    backend: LMDB
  }
}
layer {
  name: "conv1"
  type: "Convolution"
  bottom: "data"
  top: "conv1"
  param {
    lr_mult: 1
    decay_mult: 1
  }
  param {
    lr_mult: 2
    decay_mult: 0
  }
  convolution_param {
    num_output: 96
    kernel_size: 11
    stride: 4
    weight_filler {
      type: "gaussian"
      std: 0.01
    }
    bias_filler {
      type: "constant"
      value: 0
    }
  }
}
layer {
  name: "relu1"
  type: "ReLU"
  bottom: "conv1"
  top: "conv1"
}
layer {
  name: "norm1"
  type: "LRN"
  bottom: "conv1"
  top: "norm1"
  lrn_param {
    local_size: 5
    alpha: 0.0001
    beta: 0.75
  }
}
layer {
  name: "pool1"
  type: "Pooling"
  bottom: "norm1"
  top: "pool1"
  pooling_param {
    pool: MAX
    kernel_size: 3
    stride: 2
  }
}
layer {
  name: "conv2"
  type: "Convolution"
  bottom: "pool1"
  top: "conv2"
  param {
    lr_mult: 1
    decay_mult: 1
  }
  param {
    lr_mult: 2
    decay_mult: 0
  }
  convolution_param {
    num_output: 256
    pad: 2
    kernel_size: 5
    group: 2
    weight_filler {
      type: "gaussian"
      std: 0.01
    }
    bias_filler {
      type: "constant"
      value: 0.1
    }
  }
}
layer {
  name: "relu2"
  type: "ReLU"
  bottom: "conv2"
  top: "conv2"
}
layer {
  name: "norm2"
  type: "LRN"
  bottom: "conv2"
  top: "norm2"
  lrn_param {
    local_size: 5
    alpha: 0.0001
    beta: 0.75
  }
}
layer {
  name: "pool2"
  type: "Pooling"
  bottom: "norm2"
  top: "pool2"
  pooling_param {
    pool: MAX
    kernel_size: 3
    stride: 2
  }
}
layer {
  name: "conv3"
  type: "Convolution"
  bottom: "pool2"
  top: "conv3"
  param {
    lr_mult: 1
    decay_mult: 1
  }
  param {
    lr_mult: 2
    decay_mult: 0
  }
  convolution_param {
    num_output: 384
    pad: 1
    kernel_size: 3
    weight_filler {
      type: "gaussian"
      std: 0.01
    }
    bias_filler {
      type: "constant"
      value: 0
    }
  }
}
layer {
  name: "relu3"
  type: "ReLU"
  bottom: "conv3"
  top: "conv3"
}
layer {
  name: "conv4"
  type: "Convolution"
  bottom: "conv3"
  top: "conv4"
  param {
    lr_mult: 1
    decay_mult: 1
  }
  param {
    lr_mult: 2
    decay_mult: 0
  }
  convolution_param {
    num_output: 384
    pad: 1
    kernel_size: 3
    group: 2
    weight_filler {
      type: "gaussian"
      std: 0.01
    }
    bias_filler {
      type: "constant"
      value: 0.1
    }
  }
}
layer {
  name: "relu4"
  type: "ReLU"
  bottom: "conv4"
  top: "conv4"
}
layer {
  name: "conv5"
  type: "Convolution"
  bottom: "conv4"
  top: "conv5"
  param {
    lr_mult: 1
    decay_mult: 1
  }
  param {
    lr_mult: 2
    decay_mult: 0
  }
  convolution_param {
    num_output: 256
    pad: 1
    kernel_size: 3
    group: 2
    weight_filler {
      type: "gaussian"
      std: 0.01
    }
    bias_filler {
      type: "constant"
      value: 0.1
    }
  }
}
layer {
  name: "relu5"
  type: "ReLU"
  bottom: "conv5"
  top: "conv5"
}
layer {
  name: "pool5"
  type: "Pooling"
  bottom: "conv5"
  top: "pool5"
  pooling_param {
    pool: MAX
    kernel_size: 3
    stride: 2
  }
}
layer {
  name: "fc6"
  type: "InnerProduct"
  bottom: "pool5"
  top: "fc6"
  param {
    lr_mult: 1
    decay_mult: 1
  }
  param {
    lr_mult: 2
    decay_mult: 0
  }
  inner_product_param {
    num_output: 4096
    weight_filler {
      type: "gaussian"
      std: 0.005
    }
    bias_filler {
      type: "constant"
      value: 0.1
    }
  }
}
layer {
  name: "relu6"
  type: "ReLU"
  bottom: "fc6"
  top: "fc6"
}
layer {
  name: "drop6"
  type: "Dropout"
  bottom: "fc6"
  top: "fc6"
  dropout_param {
    dropout_ratio: 0.5
  }
}
layer {
  name: "fc7"
  type: "InnerProduct"
  bottom: "fc6"
  top: "fc7"
  param {
    lr_mult: 1
    decay_mult: 1
  }
  param {
    lr_mult: 2
    decay_mult: 0
  }
  inner_product_param {
    num_output: 4096
    weight_filler {
      type: "gaussian"
      std: 0.005
    }
    bias_filler {
      type: "constant"
      value: 0.1
    }
  }
}
layer {
  name: "relu7"
  type: "ReLU"
  bottom: "fc7"
  top: "fc7"
}
layer {
  name: "drop7"
  type: "Dropout"
  bottom: "fc7"
  top: "fc7"
  dropout_param {
    dropout_ratio: 0.5
  }
}
layer {
  name: "fc8_plantvillage"
  type: "InnerProduct"
  bottom: "fc7"
  top: "fc8_plantvillage"
  param {
    lr_mult: 1
    decay_mult: 1
  }
  param {
    lr_mult: 2
    decay_mult: 0
  }
  inner_product_param {
    num_output: 38
    weight_filler {
      type: "gaussian"
      std: 0.01
    }
    bias_filler {
      type: "constant"
      value: 0
    }
  }
}
layer {
  name: "prob"
  type: "Softmax"
  bottom: "fc8_plantvillage"
  top: "prob"
  include {
    phase: TEST
  }
}
layer {
  name: "hdf5out"
  type: "HDF5Output"
  bottom: "prob"
  bottom: "label"
  include {
    phase: TEST
  }
  hdf5_output_param {
    file_name: "hdf5_dumps/iter_6570.h5"
  }
}
layer {
  name: "loss"
  type: "SoftmaxWithLoss"
  bottom: "fc8_plantvillage"
  bottom: "label"
  top: "loss"
}
layer {
  name: "accuracy"
  type: "Accuracy"
  bottom: "fc8_plantvillage"
  bottom: "label"
  top: "accuracy"
  include {
    phase: TEST
  }
}
I0403 13:02:37.050161 31193 layer_factory.hpp:77] Creating layer data
I0403 13:02:37.050827 31193 net.cpp:91] Creating Layer data
I0403 13:02:37.050860 31193 net.cpp:399] data -> data
I0403 13:02:37.050911 31193 net.cpp:399] data -> label
I0403 13:02:37.050947 31193 data_transformer.cpp:25] Loading mean file from: /home/mohanty/data/final_dataset/lmdb/segmented-40-60/mean.binaryproto
I0403 13:02:37.052081 31196 db_lmdb.cpp:38] Opened lmdb /home/mohanty/data/final_dataset/lmdb/segmented-40-60/test_db
I0403 13:02:37.065657 31193 data_layer.cpp:41] output data size: 100,3,227,227
I0403 13:02:37.188612 31193 net.cpp:141] Setting up data
I0403 13:02:37.188716 31193 net.cpp:148] Top shape: 100 3 227 227 (15458700)
I0403 13:02:37.188738 31193 net.cpp:148] Top shape: 100 (100)
I0403 13:02:37.188755 31193 net.cpp:156] Memory required for data: 61835200
I0403 13:02:37.188781 31193 layer_factory.hpp:77] Creating layer label_data_1_split
I0403 13:02:37.188807 31193 net.cpp:91] Creating Layer label_data_1_split
I0403 13:02:37.188825 31193 net.cpp:425] label_data_1_split <- label
I0403 13:02:37.188856 31193 net.cpp:399] label_data_1_split -> label_data_1_split_0
I0403 13:02:37.188884 31193 net.cpp:399] label_data_1_split -> label_data_1_split_1
I0403 13:02:37.188902 31193 net.cpp:399] label_data_1_split -> label_data_1_split_2
I0403 13:02:37.188966 31193 net.cpp:141] Setting up label_data_1_split
I0403 13:02:37.188990 31193 net.cpp:148] Top shape: 100 (100)
I0403 13:02:37.189007 31193 net.cpp:148] Top shape: 100 (100)
I0403 13:02:37.189024 31193 net.cpp:148] Top shape: 100 (100)
I0403 13:02:37.189038 31193 net.cpp:156] Memory required for data: 61836400
I0403 13:02:37.189054 31193 layer_factory.hpp:77] Creating layer conv1
I0403 13:02:37.189086 31193 net.cpp:91] Creating Layer conv1
I0403 13:02:37.189105 31193 net.cpp:425] conv1 <- data
I0403 13:02:37.189124 31193 net.cpp:399] conv1 -> conv1
I0403 13:02:37.332763 31193 net.cpp:141] Setting up conv1
I0403 13:02:37.332851 31193 net.cpp:148] Top shape: 100 96 55 55 (29040000)
I0403 13:02:37.332870 31193 net.cpp:156] Memory required for data: 177996400
I0403 13:02:37.332902 31193 layer_factory.hpp:77] Creating layer relu1
I0403 13:02:37.332931 31193 net.cpp:91] Creating Layer relu1
I0403 13:02:37.332949 31193 net.cpp:425] relu1 <- conv1
I0403 13:02:37.332968 31193 net.cpp:386] relu1 -> conv1 (in-place)
I0403 13:02:37.333231 31193 net.cpp:141] Setting up relu1
I0403 13:02:37.333259 31193 net.cpp:148] Top shape: 100 96 55 55 (29040000)
I0403 13:02:37.333318 31193 net.cpp:156] Memory required for data: 294156400
I0403 13:02:37.333335 31193 layer_factory.hpp:77] Creating layer norm1
I0403 13:02:37.333364 31193 net.cpp:91] Creating Layer norm1
I0403 13:02:37.333382 31193 net.cpp:425] norm1 <- conv1
I0403 13:02:37.333401 31193 net.cpp:399] norm1 -> norm1
I0403 13:02:37.333711 31193 net.cpp:141] Setting up norm1
I0403 13:02:37.333739 31193 net.cpp:148] Top shape: 100 96 55 55 (29040000)
I0403 13:02:37.333756 31193 net.cpp:156] Memory required for data: 410316400
I0403 13:02:37.333771 31193 layer_factory.hpp:77] Creating layer pool1
I0403 13:02:37.333796 31193 net.cpp:91] Creating Layer pool1
I0403 13:02:37.333827 31193 net.cpp:425] pool1 <- norm1
I0403 13:02:37.333845 31193 net.cpp:399] pool1 -> pool1
I0403 13:02:37.333915 31193 net.cpp:141] Setting up pool1
I0403 13:02:37.333940 31193 net.cpp:148] Top shape: 100 96 27 27 (6998400)
I0403 13:02:37.333956 31193 net.cpp:156] Memory required for data: 438310000
I0403 13:02:37.333972 31193 layer_factory.hpp:77] Creating layer conv2
I0403 13:02:37.333998 31193 net.cpp:91] Creating Layer conv2
I0403 13:02:37.334015 31193 net.cpp:425] conv2 <- pool1
I0403 13:02:37.334036 31193 net.cpp:399] conv2 -> conv2
I0403 13:02:37.349288 31193 net.cpp:141] Setting up conv2
I0403 13:02:37.349344 31193 net.cpp:148] Top shape: 100 256 27 27 (18662400)
I0403 13:02:37.349361 31193 net.cpp:156] Memory required for data: 512959600
I0403 13:02:37.349386 31193 layer_factory.hpp:77] Creating layer relu2
I0403 13:02:37.349408 31193 net.cpp:91] Creating Layer relu2
I0403 13:02:37.349427 31193 net.cpp:425] relu2 <- conv2
I0403 13:02:37.349445 31193 net.cpp:386] relu2 -> conv2 (in-place)
I0403 13:02:37.349733 31193 net.cpp:141] Setting up relu2
I0403 13:02:37.349761 31193 net.cpp:148] Top shape: 100 256 27 27 (18662400)
I0403 13:02:37.349776 31193 net.cpp:156] Memory required for data: 587609200
I0403 13:02:37.349792 31193 layer_factory.hpp:77] Creating layer norm2
I0403 13:02:37.349817 31193 net.cpp:91] Creating Layer norm2
I0403 13:02:37.349834 31193 net.cpp:425] norm2 <- conv2
I0403 13:02:37.349854 31193 net.cpp:399] norm2 -> norm2
I0403 13:02:37.350057 31193 net.cpp:141] Setting up norm2
I0403 13:02:37.350083 31193 net.cpp:148] Top shape: 100 256 27 27 (18662400)
I0403 13:02:37.350100 31193 net.cpp:156] Memory required for data: 662258800
I0403 13:02:37.350116 31193 layer_factory.hpp:77] Creating layer pool2
I0403 13:02:37.350148 31193 net.cpp:91] Creating Layer pool2
I0403 13:02:37.350167 31193 net.cpp:425] pool2 <- norm2
I0403 13:02:37.350194 31193 net.cpp:399] pool2 -> pool2
I0403 13:02:37.350251 31193 net.cpp:141] Setting up pool2
I0403 13:02:37.350281 31193 net.cpp:148] Top shape: 100 256 13 13 (4326400)
I0403 13:02:37.350296 31193 net.cpp:156] Memory required for data: 679564400
I0403 13:02:37.350312 31193 layer_factory.hpp:77] Creating layer conv3
I0403 13:02:37.350337 31193 net.cpp:91] Creating Layer conv3
I0403 13:02:37.350354 31193 net.cpp:425] conv3 <- pool2
I0403 13:02:37.350375 31193 net.cpp:399] conv3 -> conv3
I0403 13:02:37.389705 31193 net.cpp:141] Setting up conv3
I0403 13:02:37.389791 31193 net.cpp:148] Top shape: 100 384 13 13 (6489600)
I0403 13:02:37.389809 31193 net.cpp:156] Memory required for data: 705522800
I0403 13:02:37.389837 31193 layer_factory.hpp:77] Creating layer relu3
I0403 13:02:37.389863 31193 net.cpp:91] Creating Layer relu3
I0403 13:02:37.389883 31193 net.cpp:425] relu3 <- conv3
I0403 13:02:37.389902 31193 net.cpp:386] relu3 -> conv3 (in-place)
I0403 13:02:37.390188 31193 net.cpp:141] Setting up relu3
I0403 13:02:37.390216 31193 net.cpp:148] Top shape: 100 384 13 13 (6489600)
I0403 13:02:37.390233 31193 net.cpp:156] Memory required for data: 731481200
I0403 13:02:37.390249 31193 layer_factory.hpp:77] Creating layer conv4
I0403 13:02:37.390280 31193 net.cpp:91] Creating Layer conv4
I0403 13:02:37.390300 31193 net.cpp:425] conv4 <- conv3
I0403 13:02:37.390322 31193 net.cpp:399] conv4 -> conv4
I0403 13:02:37.421080 31193 net.cpp:141] Setting up conv4
I0403 13:02:37.421161 31193 net.cpp:148] Top shape: 100 384 13 13 (6489600)
I0403 13:02:37.421217 31193 net.cpp:156] Memory required for data: 757439600
I0403 13:02:37.421242 31193 layer_factory.hpp:77] Creating layer relu4
I0403 13:02:37.421267 31193 net.cpp:91] Creating Layer relu4
I0403 13:02:37.421289 31193 net.cpp:425] relu4 <- conv4
I0403 13:02:37.421314 31193 net.cpp:386] relu4 -> conv4 (in-place)
I0403 13:02:37.421607 31193 net.cpp:141] Setting up relu4
I0403 13:02:37.421635 31193 net.cpp:148] Top shape: 100 384 13 13 (6489600)
I0403 13:02:37.421651 31193 net.cpp:156] Memory required for data: 783398000
I0403 13:02:37.421668 31193 layer_factory.hpp:77] Creating layer conv5
I0403 13:02:37.421694 31193 net.cpp:91] Creating Layer conv5
I0403 13:02:37.421712 31193 net.cpp:425] conv5 <- conv4
I0403 13:02:37.421736 31193 net.cpp:399] conv5 -> conv5
I0403 13:02:37.442922 31193 net.cpp:141] Setting up conv5
I0403 13:02:37.442987 31193 net.cpp:148] Top shape: 100 256 13 13 (4326400)
I0403 13:02:37.443006 31193 net.cpp:156] Memory required for data: 800703600
I0403 13:02:37.443032 31193 layer_factory.hpp:77] Creating layer relu5
I0403 13:02:37.443055 31193 net.cpp:91] Creating Layer relu5
I0403 13:02:37.443074 31193 net.cpp:425] relu5 <- conv5
I0403 13:02:37.443094 31193 net.cpp:386] relu5 -> conv5 (in-place)
I0403 13:02:37.443382 31193 net.cpp:141] Setting up relu5
I0403 13:02:37.443410 31193 net.cpp:148] Top shape: 100 256 13 13 (4326400)
I0403 13:02:37.443428 31193 net.cpp:156] Memory required for data: 818009200
I0403 13:02:37.443444 31193 layer_factory.hpp:77] Creating layer pool5
I0403 13:02:37.443471 31193 net.cpp:91] Creating Layer pool5
I0403 13:02:37.443490 31193 net.cpp:425] pool5 <- conv5
I0403 13:02:37.443509 31193 net.cpp:399] pool5 -> pool5
I0403 13:02:37.443574 31193 net.cpp:141] Setting up pool5
I0403 13:02:37.443599 31193 net.cpp:148] Top shape: 100 256 6 6 (921600)
I0403 13:02:37.443615 31193 net.cpp:156] Memory required for data: 821695600
I0403 13:02:37.443631 31193 layer_factory.hpp:77] Creating layer fc6
I0403 13:02:37.443661 31193 net.cpp:91] Creating Layer fc6
I0403 13:02:37.443681 31193 net.cpp:425] fc6 <- pool5
I0403 13:02:37.443701 31193 net.cpp:399] fc6 -> fc6
I0403 13:02:38.994801 31193 net.cpp:141] Setting up fc6
I0403 13:02:38.994886 31193 net.cpp:148] Top shape: 100 4096 (409600)
I0403 13:02:38.994902 31193 net.cpp:156] Memory required for data: 823334000
I0403 13:02:38.994923 31193 layer_factory.hpp:77] Creating layer relu6
I0403 13:02:38.994945 31193 net.cpp:91] Creating Layer relu6
I0403 13:02:38.994961 31193 net.cpp:425] relu6 <- fc6
I0403 13:02:38.994982 31193 net.cpp:386] relu6 -> fc6 (in-place)
I0403 13:02:38.995200 31193 net.cpp:141] Setting up relu6
I0403 13:02:38.995224 31193 net.cpp:148] Top shape: 100 4096 (409600)
I0403 13:02:38.995239 31193 net.cpp:156] Memory required for data: 824972400
I0403 13:02:38.995254 31193 layer_factory.hpp:77] Creating layer drop6
I0403 13:02:38.995280 31193 net.cpp:91] Creating Layer drop6
I0403 13:02:38.995296 31193 net.cpp:425] drop6 <- fc6
I0403 13:02:38.995313 31193 net.cpp:386] drop6 -> fc6 (in-place)
I0403 13:02:38.995362 31193 net.cpp:141] Setting up drop6
I0403 13:02:38.995388 31193 net.cpp:148] Top shape: 100 4096 (409600)
I0403 13:02:38.995404 31193 net.cpp:156] Memory required for data: 826610800
I0403 13:02:38.995419 31193 layer_factory.hpp:77] Creating layer fc7
I0403 13:02:38.995437 31193 net.cpp:91] Creating Layer fc7
I0403 13:02:38.995453 31193 net.cpp:425] fc7 <- fc6
I0403 13:02:38.995472 31193 net.cpp:399] fc7 -> fc7
I0403 13:02:39.678987 31193 net.cpp:141] Setting up fc7
I0403 13:02:39.679049 31193 net.cpp:148] Top shape: 100 4096 (409600)
I0403 13:02:39.679064 31193 net.cpp:156] Memory required for data: 828249200
I0403 13:02:39.679085 31193 layer_factory.hpp:77] Creating layer relu7
I0403 13:02:39.679107 31193 net.cpp:91] Creating Layer relu7
I0403 13:02:39.679126 31193 net.cpp:425] relu7 <- fc7
I0403 13:02:39.679147 31193 net.cpp:386] relu7 -> fc7 (in-place)
I0403 13:02:39.679584 31193 net.cpp:141] Setting up relu7
I0403 13:02:39.679610 31193 net.cpp:148] Top shape: 100 4096 (409600)
I0403 13:02:39.679657 31193 net.cpp:156] Memory required for data: 829887600
I0403 13:02:39.679687 31193 layer_factory.hpp:77] Creating layer drop7
I0403 13:02:39.679704 31193 net.cpp:91] Creating Layer drop7
I0403 13:02:39.679720 31193 net.cpp:425] drop7 <- fc7
I0403 13:02:39.679739 31193 net.cpp:386] drop7 -> fc7 (in-place)
I0403 13:02:39.679785 31193 net.cpp:141] Setting up drop7
I0403 13:02:39.679806 31193 net.cpp:148] Top shape: 100 4096 (409600)
I0403 13:02:39.679821 31193 net.cpp:156] Memory required for data: 831526000
I0403 13:02:39.679834 31193 layer_factory.hpp:77] Creating layer fc8_plantvillage
I0403 13:02:39.679853 31193 net.cpp:91] Creating Layer fc8_plantvillage
I0403 13:02:39.679869 31193 net.cpp:425] fc8_plantvillage <- fc7
I0403 13:02:39.679890 31193 net.cpp:399] fc8_plantvillage -> fc8_plantvillage
I0403 13:02:39.686524 31193 net.cpp:141] Setting up fc8_plantvillage
I0403 13:02:39.686553 31193 net.cpp:148] Top shape: 100 38 (3800)
I0403 13:02:39.686568 31193 net.cpp:156] Memory required for data: 831541200
I0403 13:02:39.686586 31193 layer_factory.hpp:77] Creating layer fc8_plantvillage_fc8_plantvillage_0_split
I0403 13:02:39.686609 31193 net.cpp:91] Creating Layer fc8_plantvillage_fc8_plantvillage_0_split
I0403 13:02:39.686625 31193 net.cpp:425] fc8_plantvillage_fc8_plantvillage_0_split <- fc8_plantvillage
I0403 13:02:39.686643 31193 net.cpp:399] fc8_plantvillage_fc8_plantvillage_0_split -> fc8_plantvillage_fc8_plantvillage_0_split_0
I0403 13:02:39.686676 31193 net.cpp:399] fc8_plantvillage_fc8_plantvillage_0_split -> fc8_plantvillage_fc8_plantvillage_0_split_1
I0403 13:02:39.686694 31193 net.cpp:399] fc8_plantvillage_fc8_plantvillage_0_split -> fc8_plantvillage_fc8_plantvillage_0_split_2
I0403 13:02:39.686769 31193 net.cpp:141] Setting up fc8_plantvillage_fc8_plantvillage_0_split
I0403 13:02:39.686792 31193 net.cpp:148] Top shape: 100 38 (3800)
I0403 13:02:39.686810 31193 net.cpp:148] Top shape: 100 38 (3800)
I0403 13:02:39.686825 31193 net.cpp:148] Top shape: 100 38 (3800)
I0403 13:02:39.686838 31193 net.cpp:156] Memory required for data: 831586800
I0403 13:02:39.686852 31193 layer_factory.hpp:77] Creating layer prob
I0403 13:02:39.686871 31193 net.cpp:91] Creating Layer prob
I0403 13:02:39.686887 31193 net.cpp:425] prob <- fc8_plantvillage_fc8_plantvillage_0_split_0
I0403 13:02:39.686903 31193 net.cpp:399] prob -> prob
I0403 13:02:39.687121 31193 net.cpp:141] Setting up prob
I0403 13:02:39.687146 31193 net.cpp:148] Top shape: 100 38 (3800)
I0403 13:02:39.687161 31193 net.cpp:156] Memory required for data: 831602000
I0403 13:02:39.687175 31193 layer_factory.hpp:77] Creating layer hdf5out
I0403 13:02:39.687194 31193 net.cpp:91] Creating Layer hdf5out
I0403 13:02:39.687211 31193 net.cpp:425] hdf5out <- prob
I0403 13:02:39.687229 31193 net.cpp:425] hdf5out <- label_data_1_split_0
I0403 13:02:39.689420 31193 net.cpp:141] Setting up hdf5out
…
