…
I0403 13:03:35.726570 31214 net.cpp:313] The NetState phase (1) differed from the phase (0) specified by a rule in layer data
I0403 13:03:35.726873 31214 net.cpp:49] Initializing net from parameters: 
state {
  phase: TEST
}
layer {
  name: "data"
  type: "Data"
  top: "data"
  top: "label"
  include {
    phase: TEST
  }
  transform_param {
    crop_size: 227
    mean_file: "/home/mohanty/data/final_dataset/lmdb/segmented-40-60/mean.binaryproto"
  }
  data_param {
    source: "/home/mohanty/data/final_dataset/lmdb/segmented-40-60/test_db"
    batch_size: 100
    backend: LMDB
  }
}
layer {
  name: "conv1"
  type: "Convolution"
  bottom: "data"
  top: "conv1"
  param {
    lr_mult: 1
    decay_mult: 1
  }
  param {
    lr_mult: 2
    decay_mult: 0
  }
  convolution_param {
    num_output: 96
    kernel_size: 11
    stride: 4
    weight_filler {
      type: "gaussian"
      std: 0.01
    }
    bias_filler {
      type: "constant"
      value: 0
    }
  }
}
layer {
  name: "relu1"
  type: "ReLU"
  bottom: "conv1"
  top: "conv1"
}
layer {
  name: "norm1"
  type: "LRN"
  bottom: "conv1"
  top: "norm1"
  lrn_param {
    local_size: 5
    alpha: 0.0001
    beta: 0.75
  }
}
layer {
  name: "pool1"
  type: "Pooling"
  bottom: "norm1"
  top: "pool1"
  pooling_param {
    pool: MAX
    kernel_size: 3
    stride: 2
  }
}
layer {
  name: "conv2"
  type: "Convolution"
  bottom: "pool1"
  top: "conv2"
  param {
    lr_mult: 1
    decay_mult: 1
  }
  param {
    lr_mult: 2
    decay_mult: 0
  }
  convolution_param {
    num_output: 256
    pad: 2
    kernel_size: 5
    group: 2
    weight_filler {
      type: "gaussian"
      std: 0.01
    }
    bias_filler {
      type: "constant"
      value: 0.1
    }
  }
}
layer {
  name: "relu2"
  type: "ReLU"
  bottom: "conv2"
  top: "conv2"
}
layer {
  name: "norm2"
  type: "LRN"
  bottom: "conv2"
  top: "norm2"
  lrn_param {
    local_size: 5
    alpha: 0.0001
    beta: 0.75
  }
}
layer {
  name: "pool2"
  type: "Pooling"
  bottom: "norm2"
  top: "pool2"
  pooling_param {
    pool: MAX
    kernel_size: 3
    stride: 2
  }
}
layer {
  name: "conv3"
  type: "Convolution"
  bottom: "pool2"
  top: "conv3"
  param {
    lr_mult: 1
    decay_mult: 1
  }
  param {
    lr_mult: 2
    decay_mult: 0
  }
  convolution_param {
    num_output: 384
    pad: 1
    kernel_size: 3
    weight_filler {
      type: "gaussian"
      std: 0.01
    }
    bias_filler {
      type: "constant"
      value: 0
    }
  }
}
layer {
  name: "relu3"
  type: "ReLU"
  bottom: "conv3"
  top: "conv3"
}
layer {
  name: "conv4"
  type: "Convolution"
  bottom: "conv3"
  top: "conv4"
  param {
    lr_mult: 1
    decay_mult: 1
  }
  param {
    lr_mult: 2
    decay_mult: 0
  }
  convolution_param {
    num_output: 384
    pad: 1
    kernel_size: 3
    group: 2
    weight_filler {
      type: "gaussian"
      std: 0.01
    }
    bias_filler {
      type: "constant"
      value: 0.1
    }
  }
}
layer {
  name: "relu4"
  type: "ReLU"
  bottom: "conv4"
  top: "conv4"
}
layer {
  name: "conv5"
  type: "Convolution"
  bottom: "conv4"
  top: "conv5"
  param {
    lr_mult: 1
    decay_mult: 1
  }
  param {
    lr_mult: 2
    decay_mult: 0
  }
  convolution_param {
    num_output: 256
    pad: 1
    kernel_size: 3
    group: 2
    weight_filler {
      type: "gaussian"
      std: 0.01
    }
    bias_filler {
      type: "constant"
      value: 0.1
    }
  }
}
layer {
  name: "relu5"
  type: "ReLU"
  bottom: "conv5"
  top: "conv5"
}
layer {
  name: "pool5"
  type: "Pooling"
  bottom: "conv5"
  top: "pool5"
  pooling_param {
    pool: MAX
    kernel_size: 3
    stride: 2
  }
}
layer {
  name: "fc6"
  type: "InnerProduct"
  bottom: "pool5"
  top: "fc6"
  param {
    lr_mult: 1
    decay_mult: 1
  }
  param {
    lr_mult: 2
    decay_mult: 0
  }
  inner_product_param {
    num_output: 4096
    weight_filler {
      type: "gaussian"
      std: 0.005
    }
    bias_filler {
      type: "constant"
      value: 0.1
    }
  }
}
layer {
  name: "relu6"
  type: "ReLU"
  bottom: "fc6"
  top: "fc6"
}
layer {
  name: "drop6"
  type: "Dropout"
  bottom: "fc6"
  top: "fc6"
  dropout_param {
    dropout_ratio: 0.5
  }
}
layer {
  name: "fc7"
  type: "InnerProduct"
  bottom: "fc6"
  top: "fc7"
  param {
    lr_mult: 1
    decay_mult: 1
  }
  param {
    lr_mult: 2
    decay_mult: 0
  }
  inner_product_param {
    num_output: 4096
    weight_filler {
      type: "gaussian"
      std: 0.005
    }
    bias_filler {
      type: "constant"
      value: 0.1
    }
  }
}
layer {
  name: "relu7"
  type: "ReLU"
  bottom: "fc7"
  top: "fc7"
}
layer {
  name: "drop7"
  type: "Dropout"
  bottom: "fc7"
  top: "fc7"
  dropout_param {
    dropout_ratio: 0.5
  }
}
layer {
  name: "fc8_plantvillage"
  type: "InnerProduct"
  bottom: "fc7"
  top: "fc8_plantvillage"
  param {
    lr_mult: 1
    decay_mult: 1
  }
  param {
    lr_mult: 2
    decay_mult: 0
  }
  inner_product_param {
    num_output: 38
    weight_filler {
      type: "gaussian"
      std: 0.01
    }
    bias_filler {
      type: "constant"
      value: 0
    }
  }
}
layer {
  name: "prob"
  type: "Softmax"
  bottom: "fc8_plantvillage"
  top: "prob"
  include {
    phase: TEST
  }
}
layer {
  name: "hdf5out"
  type: "HDF5Output"
  bottom: "prob"
  bottom: "label"
  include {
    phase: TEST
  }
  hdf5_output_param {
    file_name: "hdf5_dumps/iter_6571.h5"
  }
}
layer {
  name: "loss"
  type: "SoftmaxWithLoss"
  bottom: "fc8_plantvillage"
  bottom: "label"
  top: "loss"
}
layer {
  name: "accuracy"
  type: "Accuracy"
  bottom: "fc8_plantvillage"
  bottom: "label"
  top: "accuracy"
  include {
    phase: TEST
  }
}
I0403 13:03:35.727468 31214 layer_factory.hpp:77] Creating layer data
I0403 13:03:35.728102 31214 net.cpp:91] Creating Layer data
I0403 13:03:35.728134 31214 net.cpp:399] data -> data
I0403 13:03:35.728184 31214 net.cpp:399] data -> label
I0403 13:03:35.728219 31214 data_transformer.cpp:25] Loading mean file from: /home/mohanty/data/final_dataset/lmdb/segmented-40-60/mean.binaryproto
I0403 13:03:35.729318 31219 db_lmdb.cpp:38] Opened lmdb /home/mohanty/data/final_dataset/lmdb/segmented-40-60/test_db
I0403 13:03:35.742740 31214 data_layer.cpp:41] output data size: 100,3,227,227
I0403 13:03:35.866189 31214 net.cpp:141] Setting up data
I0403 13:03:35.866298 31214 net.cpp:148] Top shape: 100 3 227 227 (15458700)
I0403 13:03:35.866322 31214 net.cpp:148] Top shape: 100 (100)
I0403 13:03:35.866338 31214 net.cpp:156] Memory required for data: 61835200
I0403 13:03:35.866366 31214 layer_factory.hpp:77] Creating layer label_data_1_split
I0403 13:03:35.866391 31214 net.cpp:91] Creating Layer label_data_1_split
I0403 13:03:35.866408 31214 net.cpp:425] label_data_1_split <- label
I0403 13:03:35.866438 31214 net.cpp:399] label_data_1_split -> label_data_1_split_0
I0403 13:03:35.866466 31214 net.cpp:399] label_data_1_split -> label_data_1_split_1
I0403 13:03:35.866487 31214 net.cpp:399] label_data_1_split -> label_data_1_split_2
I0403 13:03:35.866550 31214 net.cpp:141] Setting up label_data_1_split
I0403 13:03:35.866574 31214 net.cpp:148] Top shape: 100 (100)
I0403 13:03:35.866590 31214 net.cpp:148] Top shape: 100 (100)
I0403 13:03:35.866606 31214 net.cpp:148] Top shape: 100 (100)
I0403 13:03:35.866623 31214 net.cpp:156] Memory required for data: 61836400
I0403 13:03:35.866637 31214 layer_factory.hpp:77] Creating layer conv1
I0403 13:03:35.866669 31214 net.cpp:91] Creating Layer conv1
I0403 13:03:35.866688 31214 net.cpp:425] conv1 <- data
I0403 13:03:35.866706 31214 net.cpp:399] conv1 -> conv1
I0403 13:03:36.007232 31214 net.cpp:141] Setting up conv1
I0403 13:03:36.007328 31214 net.cpp:148] Top shape: 100 96 55 55 (29040000)
I0403 13:03:36.007346 31214 net.cpp:156] Memory required for data: 177996400
I0403 13:03:36.007377 31214 layer_factory.hpp:77] Creating layer relu1
I0403 13:03:36.007407 31214 net.cpp:91] Creating Layer relu1
I0403 13:03:36.007426 31214 net.cpp:425] relu1 <- conv1
I0403 13:03:36.007446 31214 net.cpp:386] relu1 -> conv1 (in-place)
I0403 13:03:36.007716 31214 net.cpp:141] Setting up relu1
I0403 13:03:36.007745 31214 net.cpp:148] Top shape: 100 96 55 55 (29040000)
I0403 13:03:36.007791 31214 net.cpp:156] Memory required for data: 294156400
I0403 13:03:36.007808 31214 layer_factory.hpp:77] Creating layer norm1
I0403 13:03:36.007836 31214 net.cpp:91] Creating Layer norm1
I0403 13:03:36.007854 31214 net.cpp:425] norm1 <- conv1
I0403 13:03:36.007872 31214 net.cpp:399] norm1 -> norm1
I0403 13:03:36.008188 31214 net.cpp:141] Setting up norm1
I0403 13:03:36.008216 31214 net.cpp:148] Top shape: 100 96 55 55 (29040000)
I0403 13:03:36.008232 31214 net.cpp:156] Memory required for data: 410316400
I0403 13:03:36.008247 31214 layer_factory.hpp:77] Creating layer pool1
I0403 13:03:36.008275 31214 net.cpp:91] Creating Layer pool1
I0403 13:03:36.008292 31214 net.cpp:425] pool1 <- norm1
I0403 13:03:36.008311 31214 net.cpp:399] pool1 -> pool1
I0403 13:03:36.008376 31214 net.cpp:141] Setting up pool1
I0403 13:03:36.008400 31214 net.cpp:148] Top shape: 100 96 27 27 (6998400)
I0403 13:03:36.008415 31214 net.cpp:156] Memory required for data: 438310000
I0403 13:03:36.008430 31214 layer_factory.hpp:77] Creating layer conv2
I0403 13:03:36.008453 31214 net.cpp:91] Creating Layer conv2
I0403 13:03:36.008471 31214 net.cpp:425] conv2 <- pool1
I0403 13:03:36.008488 31214 net.cpp:399] conv2 -> conv2
I0403 13:03:36.023170 31214 net.cpp:141] Setting up conv2
I0403 13:03:36.023216 31214 net.cpp:148] Top shape: 100 256 27 27 (18662400)
I0403 13:03:36.023233 31214 net.cpp:156] Memory required for data: 512959600
I0403 13:03:36.023267 31214 layer_factory.hpp:77] Creating layer relu2
I0403 13:03:36.023303 31214 net.cpp:91] Creating Layer relu2
I0403 13:03:36.023320 31214 net.cpp:425] relu2 <- conv2
I0403 13:03:36.023339 31214 net.cpp:386] relu2 -> conv2 (in-place)
I0403 13:03:36.023629 31214 net.cpp:141] Setting up relu2
I0403 13:03:36.023658 31214 net.cpp:148] Top shape: 100 256 27 27 (18662400)
I0403 13:03:36.023674 31214 net.cpp:156] Memory required for data: 587609200
I0403 13:03:36.023689 31214 layer_factory.hpp:77] Creating layer norm2
I0403 13:03:36.023710 31214 net.cpp:91] Creating Layer norm2
I0403 13:03:36.023727 31214 net.cpp:425] norm2 <- conv2
I0403 13:03:36.023746 31214 net.cpp:399] norm2 -> norm2
I0403 13:03:36.023934 31214 net.cpp:141] Setting up norm2
I0403 13:03:36.023962 31214 net.cpp:148] Top shape: 100 256 27 27 (18662400)
I0403 13:03:36.023977 31214 net.cpp:156] Memory required for data: 662258800
I0403 13:03:36.023991 31214 layer_factory.hpp:77] Creating layer pool2
I0403 13:03:36.024010 31214 net.cpp:91] Creating Layer pool2
I0403 13:03:36.024026 31214 net.cpp:425] pool2 <- norm2
I0403 13:03:36.024044 31214 net.cpp:399] pool2 -> pool2
I0403 13:03:36.024094 31214 net.cpp:141] Setting up pool2
I0403 13:03:36.024117 31214 net.cpp:148] Top shape: 100 256 13 13 (4326400)
I0403 13:03:36.024133 31214 net.cpp:156] Memory required for data: 679564400
I0403 13:03:36.024148 31214 layer_factory.hpp:77] Creating layer conv3
I0403 13:03:36.024170 31214 net.cpp:91] Creating Layer conv3
I0403 13:03:36.024188 31214 net.cpp:425] conv3 <- pool2
I0403 13:03:36.024205 31214 net.cpp:399] conv3 -> conv3
I0403 13:03:36.062644 31214 net.cpp:141] Setting up conv3
I0403 13:03:36.062729 31214 net.cpp:148] Top shape: 100 384 13 13 (6489600)
I0403 13:03:36.062747 31214 net.cpp:156] Memory required for data: 705522800
I0403 13:03:36.062777 31214 layer_factory.hpp:77] Creating layer relu3
I0403 13:03:36.062800 31214 net.cpp:91] Creating Layer relu3
I0403 13:03:36.062819 31214 net.cpp:425] relu3 <- conv3
I0403 13:03:36.062837 31214 net.cpp:386] relu3 -> conv3 (in-place)
I0403 13:03:36.063115 31214 net.cpp:141] Setting up relu3
I0403 13:03:36.063143 31214 net.cpp:148] Top shape: 100 384 13 13 (6489600)
I0403 13:03:36.063160 31214 net.cpp:156] Memory required for data: 731481200
I0403 13:03:36.063175 31214 layer_factory.hpp:77] Creating layer conv4
I0403 13:03:36.063202 31214 net.cpp:91] Creating Layer conv4
I0403 13:03:36.063220 31214 net.cpp:425] conv4 <- conv3
I0403 13:03:36.063246 31214 net.cpp:399] conv4 -> conv4
I0403 13:03:36.093389 31214 net.cpp:141] Setting up conv4
I0403 13:03:36.093469 31214 net.cpp:148] Top shape: 100 384 13 13 (6489600)
I0403 13:03:36.093518 31214 net.cpp:156] Memory required for data: 757439600
I0403 13:03:36.093540 31214 layer_factory.hpp:77] Creating layer relu4
I0403 13:03:36.093567 31214 net.cpp:91] Creating Layer relu4
I0403 13:03:36.093586 31214 net.cpp:425] relu4 <- conv4
I0403 13:03:36.093605 31214 net.cpp:386] relu4 -> conv4 (in-place)
I0403 13:03:36.093896 31214 net.cpp:141] Setting up relu4
I0403 13:03:36.093924 31214 net.cpp:148] Top shape: 100 384 13 13 (6489600)
I0403 13:03:36.093940 31214 net.cpp:156] Memory required for data: 783398000
I0403 13:03:36.093955 31214 layer_factory.hpp:77] Creating layer conv5
I0403 13:03:36.093981 31214 net.cpp:91] Creating Layer conv5
I0403 13:03:36.093999 31214 net.cpp:425] conv5 <- conv4
I0403 13:03:36.094022 31214 net.cpp:399] conv5 -> conv5
I0403 13:03:36.114621 31214 net.cpp:141] Setting up conv5
I0403 13:03:36.114683 31214 net.cpp:148] Top shape: 100 256 13 13 (4326400)
I0403 13:03:36.114701 31214 net.cpp:156] Memory required for data: 800703600
I0403 13:03:36.114725 31214 layer_factory.hpp:77] Creating layer relu5
I0403 13:03:36.114753 31214 net.cpp:91] Creating Layer relu5
I0403 13:03:36.114770 31214 net.cpp:425] relu5 <- conv5
I0403 13:03:36.114789 31214 net.cpp:386] relu5 -> conv5 (in-place)
I0403 13:03:36.115072 31214 net.cpp:141] Setting up relu5
I0403 13:03:36.115100 31214 net.cpp:148] Top shape: 100 256 13 13 (4326400)
I0403 13:03:36.115116 31214 net.cpp:156] Memory required for data: 818009200
I0403 13:03:36.115131 31214 layer_factory.hpp:77] Creating layer pool5
I0403 13:03:36.115156 31214 net.cpp:91] Creating Layer pool5
I0403 13:03:36.115175 31214 net.cpp:425] pool5 <- conv5
I0403 13:03:36.115195 31214 net.cpp:399] pool5 -> pool5
I0403 13:03:36.115258 31214 net.cpp:141] Setting up pool5
I0403 13:03:36.115288 31214 net.cpp:148] Top shape: 100 256 6 6 (921600)
I0403 13:03:36.115303 31214 net.cpp:156] Memory required for data: 821695600
I0403 13:03:36.115319 31214 layer_factory.hpp:77] Creating layer fc6
I0403 13:03:36.115348 31214 net.cpp:91] Creating Layer fc6
I0403 13:03:36.115367 31214 net.cpp:425] fc6 <- pool5
I0403 13:03:36.115386 31214 net.cpp:399] fc6 -> fc6
I0403 13:03:37.760030 31214 net.cpp:141] Setting up fc6
I0403 13:03:37.760123 31214 net.cpp:148] Top shape: 100 4096 (409600)
I0403 13:03:37.760139 31214 net.cpp:156] Memory required for data: 823334000
I0403 13:03:37.760161 31214 layer_factory.hpp:77] Creating layer relu6
I0403 13:03:37.760185 31214 net.cpp:91] Creating Layer relu6
I0403 13:03:37.760201 31214 net.cpp:425] relu6 <- fc6
I0403 13:03:37.760223 31214 net.cpp:386] relu6 -> fc6 (in-place)
I0403 13:03:37.760462 31214 net.cpp:141] Setting up relu6
I0403 13:03:37.760489 31214 net.cpp:148] Top shape: 100 4096 (409600)
I0403 13:03:37.760504 31214 net.cpp:156] Memory required for data: 824972400
I0403 13:03:37.760520 31214 layer_factory.hpp:77] Creating layer drop6
I0403 13:03:37.760542 31214 net.cpp:91] Creating Layer drop6
I0403 13:03:37.760558 31214 net.cpp:425] drop6 <- fc6
I0403 13:03:37.760576 31214 net.cpp:386] drop6 -> fc6 (in-place)
I0403 13:03:37.760630 31214 net.cpp:141] Setting up drop6
I0403 13:03:37.760654 31214 net.cpp:148] Top shape: 100 4096 (409600)
I0403 13:03:37.760669 31214 net.cpp:156] Memory required for data: 826610800
I0403 13:03:37.760685 31214 layer_factory.hpp:77] Creating layer fc7
I0403 13:03:37.760705 31214 net.cpp:91] Creating Layer fc7
I0403 13:03:37.760720 31214 net.cpp:425] fc7 <- fc6
I0403 13:03:37.760741 31214 net.cpp:399] fc7 -> fc7
I0403 13:03:38.478328 31214 net.cpp:141] Setting up fc7
I0403 13:03:38.478420 31214 net.cpp:148] Top shape: 100 4096 (409600)
I0403 13:03:38.478436 31214 net.cpp:156] Memory required for data: 828249200
I0403 13:03:38.478459 31214 layer_factory.hpp:77] Creating layer relu7
I0403 13:03:38.478483 31214 net.cpp:91] Creating Layer relu7
I0403 13:03:38.478502 31214 net.cpp:425] relu7 <- fc7
I0403 13:03:38.478523 31214 net.cpp:386] relu7 -> fc7 (in-place)
I0403 13:03:38.478946 31214 net.cpp:141] Setting up relu7
I0403 13:03:38.478974 31214 net.cpp:148] Top shape: 100 4096 (409600)
I0403 13:03:38.479038 31214 net.cpp:156] Memory required for data: 829887600
I0403 13:03:38.479053 31214 layer_factory.hpp:77] Creating layer drop7
I0403 13:03:38.479076 31214 net.cpp:91] Creating Layer drop7
I0403 13:03:38.479094 31214 net.cpp:425] drop7 <- fc7
I0403 13:03:38.479112 31214 net.cpp:386] drop7 -> fc7 (in-place)
I0403 13:03:38.479161 31214 net.cpp:141] Setting up drop7
I0403 13:03:38.479185 31214 net.cpp:148] Top shape: 100 4096 (409600)
I0403 13:03:38.479202 31214 net.cpp:156] Memory required for data: 831526000
I0403 13:03:38.479217 31214 layer_factory.hpp:77] Creating layer fc8_plantvillage
I0403 13:03:38.479238 31214 net.cpp:91] Creating Layer fc8_plantvillage
I0403 13:03:38.479254 31214 net.cpp:425] fc8_plantvillage <- fc7
I0403 13:03:38.479507 31214 net.cpp:399] fc8_plantvillage -> fc8_plantvillage
I0403 13:03:38.486757 31214 net.cpp:141] Setting up fc8_plantvillage
I0403 13:03:38.486788 31214 net.cpp:148] Top shape: 100 38 (3800)
I0403 13:03:38.486805 31214 net.cpp:156] Memory required for data: 831541200
I0403 13:03:38.486825 31214 layer_factory.hpp:77] Creating layer fc8_plantvillage_fc8_plantvillage_0_split
I0403 13:03:38.486847 31214 net.cpp:91] Creating Layer fc8_plantvillage_fc8_plantvillage_0_split
I0403 13:03:38.486866 31214 net.cpp:425] fc8_plantvillage_fc8_plantvillage_0_split <- fc8_plantvillage
I0403 13:03:38.486886 31214 net.cpp:399] fc8_plantvillage_fc8_plantvillage_0_split -> fc8_plantvillage_fc8_plantvillage_0_split_0
I0403 13:03:38.486907 31214 net.cpp:399] fc8_plantvillage_fc8_plantvillage_0_split -> fc8_plantvillage_fc8_plantvillage_0_split_1
I0403 13:03:38.486930 31214 net.cpp:399] fc8_plantvillage_fc8_plantvillage_0_split -> fc8_plantvillage_fc8_plantvillage_0_split_2
I0403 13:03:38.487011 31214 net.cpp:141] Setting up fc8_plantvillage_fc8_plantvillage_0_split
I0403 13:03:38.487035 31214 net.cpp:148] Top shape: 100 38 (3800)
I0403 13:03:38.487053 31214 net.cpp:148] Top shape: 100 38 (3800)
I0403 13:03:38.487071 31214 net.cpp:148] Top shape: 100 38 (3800)
I0403 13:03:38.487085 31214 net.cpp:156] Memory required for data: 831586800
I0403 13:03:38.487100 31214 layer_factory.hpp:77] Creating layer prob
I0403 13:03:38.487119 31214 net.cpp:91] Creating Layer prob
I0403 13:03:38.487135 31214 net.cpp:425] prob <- fc8_plantvillage_fc8_plantvillage_0_split_0
I0403 13:03:38.487155 31214 net.cpp:399] prob -> prob
I0403 13:03:38.487393 31214 net.cpp:141] Setting up prob
I0403 13:03:38.487421 31214 net.cpp:148] Top shape: 100 38 (3800)
I0403 13:03:38.487437 31214 net.cpp:156] Memory required for data: 831602000
I0403 13:03:38.487452 31214 layer_factory.hpp:77] Creating layer hdf5out
I0403 13:03:38.487476 31214 net.cpp:91] Creating Layer hdf5out
I0403 13:03:38.487493 31214 net.cpp:425] hdf5out <- prob
I0403 13:03:38.487510 31214 net.cpp:425] hdf5out <- label_data_1_split_0
I0403 13:03:38.489811 31214 net.cpp:141] Setting up hdf5out
…
