…
I0403 13:01:38.502626 31168 net.cpp:313] The NetState phase (1) differed from the phase (0) specified by a rule in layer data
I0403 13:01:38.502938 31168 net.cpp:49] Initializing net from parameters: 
state {
  phase: TEST
}
layer {
  name: "data"
  type: "Data"
  top: "data"
  top: "label"
  include {
    phase: TEST
  }
  transform_param {
    crop_size: 227
    mean_file: "/home/mohanty/data/final_dataset/lmdb/segmented-40-60/mean.binaryproto"
  }
  data_param {
    source: "/home/mohanty/data/final_dataset/lmdb/segmented-40-60/test_db"
    batch_size: 100
    backend: LMDB
  }
}
layer {
  name: "conv1"
  type: "Convolution"
  bottom: "data"
  top: "conv1"
  param {
    lr_mult: 1
    decay_mult: 1
  }
  param {
    lr_mult: 2
    decay_mult: 0
  }
  convolution_param {
    num_output: 96
    kernel_size: 11
    stride: 4
    weight_filler {
      type: "gaussian"
      std: 0.01
    }
    bias_filler {
      type: "constant"
      value: 0
    }
  }
}
layer {
  name: "relu1"
  type: "ReLU"
  bottom: "conv1"
  top: "conv1"
}
layer {
  name: "norm1"
  type: "LRN"
  bottom: "conv1"
  top: "norm1"
  lrn_param {
    local_size: 5
    alpha: 0.0001
    beta: 0.75
  }
}
layer {
  name: "pool1"
  type: "Pooling"
  bottom: "norm1"
  top: "pool1"
  pooling_param {
    pool: MAX
    kernel_size: 3
    stride: 2
  }
}
layer {
  name: "conv2"
  type: "Convolution"
  bottom: "pool1"
  top: "conv2"
  param {
    lr_mult: 1
    decay_mult: 1
  }
  param {
    lr_mult: 2
    decay_mult: 0
  }
  convolution_param {
    num_output: 256
    pad: 2
    kernel_size: 5
    group: 2
    weight_filler {
      type: "gaussian"
      std: 0.01
    }
    bias_filler {
      type: "constant"
      value: 0.1
    }
  }
}
layer {
  name: "relu2"
  type: "ReLU"
  bottom: "conv2"
  top: "conv2"
}
layer {
  name: "norm2"
  type: "LRN"
  bottom: "conv2"
  top: "norm2"
  lrn_param {
    local_size: 5
    alpha: 0.0001
    beta: 0.75
  }
}
layer {
  name: "pool2"
  type: "Pooling"
  bottom: "norm2"
  top: "pool2"
  pooling_param {
    pool: MAX
    kernel_size: 3
    stride: 2
  }
}
layer {
  name: "conv3"
  type: "Convolution"
  bottom: "pool2"
  top: "conv3"
  param {
    lr_mult: 1
    decay_mult: 1
  }
  param {
    lr_mult: 2
    decay_mult: 0
  }
  convolution_param {
    num_output: 384
    pad: 1
    kernel_size: 3
    weight_filler {
      type: "gaussian"
      std: 0.01
    }
    bias_filler {
      type: "constant"
      value: 0
    }
  }
}
layer {
  name: "relu3"
  type: "ReLU"
  bottom: "conv3"
  top: "conv3"
}
layer {
  name: "conv4"
  type: "Convolution"
  bottom: "conv3"
  top: "conv4"
  param {
    lr_mult: 1
    decay_mult: 1
  }
  param {
    lr_mult: 2
    decay_mult: 0
  }
  convolution_param {
    num_output: 384
    pad: 1
    kernel_size: 3
    group: 2
    weight_filler {
      type: "gaussian"
      std: 0.01
    }
    bias_filler {
      type: "constant"
      value: 0.1
    }
  }
}
layer {
  name: "relu4"
  type: "ReLU"
  bottom: "conv4"
  top: "conv4"
}
layer {
  name: "conv5"
  type: "Convolution"
  bottom: "conv4"
  top: "conv5"
  param {
    lr_mult: 1
    decay_mult: 1
  }
  param {
    lr_mult: 2
    decay_mult: 0
  }
  convolution_param {
    num_output: 256
    pad: 1
    kernel_size: 3
    group: 2
    weight_filler {
      type: "gaussian"
      std: 0.01
    }
    bias_filler {
      type: "constant"
      value: 0.1
    }
  }
}
layer {
  name: "relu5"
  type: "ReLU"
  bottom: "conv5"
  top: "conv5"
}
layer {
  name: "pool5"
  type: "Pooling"
  bottom: "conv5"
  top: "pool5"
  pooling_param {
    pool: MAX
    kernel_size: 3
    stride: 2
  }
}
layer {
  name: "fc6"
  type: "InnerProduct"
  bottom: "pool5"
  top: "fc6"
  param {
    lr_mult: 1
    decay_mult: 1
  }
  param {
    lr_mult: 2
    decay_mult: 0
  }
  inner_product_param {
    num_output: 4096
    weight_filler {
      type: "gaussian"
      std: 0.005
    }
    bias_filler {
      type: "constant"
      value: 0.1
    }
  }
}
layer {
  name: "relu6"
  type: "ReLU"
  bottom: "fc6"
  top: "fc6"
}
layer {
  name: "drop6"
  type: "Dropout"
  bottom: "fc6"
  top: "fc6"
  dropout_param {
    dropout_ratio: 0.5
  }
}
layer {
  name: "fc7"
  type: "InnerProduct"
  bottom: "fc6"
  top: "fc7"
  param {
    lr_mult: 1
    decay_mult: 1
  }
  param {
    lr_mult: 2
    decay_mult: 0
  }
  inner_product_param {
    num_output: 4096
    weight_filler {
      type: "gaussian"
      std: 0.005
    }
    bias_filler {
      type: "constant"
      value: 0.1
    }
  }
}
layer {
  name: "relu7"
  type: "ReLU"
  bottom: "fc7"
  top: "fc7"
}
layer {
  name: "drop7"
  type: "Dropout"
  bottom: "fc7"
  top: "fc7"
  dropout_param {
    dropout_ratio: 0.5
  }
}
layer {
  name: "fc8_plantvillage"
  type: "InnerProduct"
  bottom: "fc7"
  top: "fc8_plantvillage"
  param {
    lr_mult: 1
    decay_mult: 1
  }
  param {
    lr_mult: 2
    decay_mult: 0
  }
  inner_product_param {
    num_output: 38
    weight_filler {
      type: "gaussian"
      std: 0.01
    }
    bias_filler {
      type: "constant"
      value: 0
    }
  }
}
layer {
  name: "prob"
  type: "Softmax"
  bottom: "fc8_plantvillage"
  top: "prob"
  include {
    phase: TEST
  }
}
layer {
  name: "hdf5out"
  type: "HDF5Output"
  bottom: "prob"
  bottom: "label"
  include {
    phase: TEST
  }
  hdf5_output_param {
    file_name: "hdf5_dumps/iter_6351.h5"
  }
}
layer {
  name: "loss"
  type: "SoftmaxWithLoss"
  bottom: "fc8_plantvillage"
  bottom: "label"
  top: "loss"
}
layer {
  name: "accuracy"
  type: "Accuracy"
  bottom: "fc8_plantvillage"
  bottom: "label"
  top: "accuracy"
  include {
    phase: TEST
  }
}
I0403 13:01:38.503469 31168 layer_factory.hpp:77] Creating layer data
I0403 13:01:38.504118 31168 net.cpp:91] Creating Layer data
I0403 13:01:38.504153 31168 net.cpp:399] data -> data
I0403 13:01:38.504204 31168 net.cpp:399] data -> label
I0403 13:01:38.504240 31168 data_transformer.cpp:25] Loading mean file from: /home/mohanty/data/final_dataset/lmdb/segmented-40-60/mean.binaryproto
I0403 13:01:38.505424 31171 db_lmdb.cpp:38] Opened lmdb /home/mohanty/data/final_dataset/lmdb/segmented-40-60/test_db
I0403 13:01:38.518846 31168 data_layer.cpp:41] output data size: 100,3,227,227
I0403 13:01:38.643777 31168 net.cpp:141] Setting up data
I0403 13:01:38.643838 31168 net.cpp:148] Top shape: 100 3 227 227 (15458700)
I0403 13:01:38.643862 31168 net.cpp:148] Top shape: 100 (100)
I0403 13:01:38.643878 31168 net.cpp:156] Memory required for data: 61835200
I0403 13:01:38.643906 31168 layer_factory.hpp:77] Creating layer label_data_1_split
I0403 13:01:38.643932 31168 net.cpp:91] Creating Layer label_data_1_split
I0403 13:01:38.643950 31168 net.cpp:425] label_data_1_split <- label
I0403 13:01:38.643982 31168 net.cpp:399] label_data_1_split -> label_data_1_split_0
I0403 13:01:38.644009 31168 net.cpp:399] label_data_1_split -> label_data_1_split_1
I0403 13:01:38.644031 31168 net.cpp:399] label_data_1_split -> label_data_1_split_2
I0403 13:01:38.644095 31168 net.cpp:141] Setting up label_data_1_split
I0403 13:01:38.644120 31168 net.cpp:148] Top shape: 100 (100)
I0403 13:01:38.644137 31168 net.cpp:148] Top shape: 100 (100)
I0403 13:01:38.644155 31168 net.cpp:148] Top shape: 100 (100)
I0403 13:01:38.644168 31168 net.cpp:156] Memory required for data: 61836400
I0403 13:01:38.644184 31168 layer_factory.hpp:77] Creating layer conv1
I0403 13:01:38.644217 31168 net.cpp:91] Creating Layer conv1
I0403 13:01:38.644237 31168 net.cpp:425] conv1 <- data
I0403 13:01:38.644258 31168 net.cpp:399] conv1 -> conv1
I0403 13:01:38.790738 31168 net.cpp:141] Setting up conv1
I0403 13:01:38.790832 31168 net.cpp:148] Top shape: 100 96 55 55 (29040000)
I0403 13:01:38.790850 31168 net.cpp:156] Memory required for data: 177996400
I0403 13:01:38.790886 31168 layer_factory.hpp:77] Creating layer relu1
I0403 13:01:38.790915 31168 net.cpp:91] Creating Layer relu1
I0403 13:01:38.790935 31168 net.cpp:425] relu1 <- conv1
I0403 13:01:38.790953 31168 net.cpp:386] relu1 -> conv1 (in-place)
I0403 13:01:38.791244 31168 net.cpp:141] Setting up relu1
I0403 13:01:38.791280 31168 net.cpp:148] Top shape: 100 96 55 55 (29040000)
I0403 13:01:38.791329 31168 net.cpp:156] Memory required for data: 294156400
I0403 13:01:38.791347 31168 layer_factory.hpp:77] Creating layer norm1
I0403 13:01:38.791375 31168 net.cpp:91] Creating Layer norm1
I0403 13:01:38.791394 31168 net.cpp:425] norm1 <- conv1
I0403 13:01:38.791419 31168 net.cpp:399] norm1 -> norm1
I0403 13:01:38.791759 31168 net.cpp:141] Setting up norm1
I0403 13:01:38.791787 31168 net.cpp:148] Top shape: 100 96 55 55 (29040000)
I0403 13:01:38.791803 31168 net.cpp:156] Memory required for data: 410316400
I0403 13:01:38.791820 31168 layer_factory.hpp:77] Creating layer pool1
I0403 13:01:38.791842 31168 net.cpp:91] Creating Layer pool1
I0403 13:01:38.791860 31168 net.cpp:425] pool1 <- norm1
I0403 13:01:38.791883 31168 net.cpp:399] pool1 -> pool1
I0403 13:01:38.791956 31168 net.cpp:141] Setting up pool1
I0403 13:01:38.791981 31168 net.cpp:148] Top shape: 100 96 27 27 (6998400)
I0403 13:01:38.791997 31168 net.cpp:156] Memory required for data: 438310000
I0403 13:01:38.792012 31168 layer_factory.hpp:77] Creating layer conv2
I0403 13:01:38.792042 31168 net.cpp:91] Creating Layer conv2
I0403 13:01:38.792085 31168 net.cpp:425] conv2 <- pool1
I0403 13:01:38.792109 31168 net.cpp:399] conv2 -> conv2
I0403 13:01:38.807986 31168 net.cpp:141] Setting up conv2
I0403 13:01:38.808043 31168 net.cpp:148] Top shape: 100 256 27 27 (18662400)
I0403 13:01:38.808063 31168 net.cpp:156] Memory required for data: 512959600
I0403 13:01:38.808086 31168 layer_factory.hpp:77] Creating layer relu2
I0403 13:01:38.808107 31168 net.cpp:91] Creating Layer relu2
I0403 13:01:38.808126 31168 net.cpp:425] relu2 <- conv2
I0403 13:01:38.808147 31168 net.cpp:386] relu2 -> conv2 (in-place)
I0403 13:01:38.808455 31168 net.cpp:141] Setting up relu2
I0403 13:01:38.808485 31168 net.cpp:148] Top shape: 100 256 27 27 (18662400)
I0403 13:01:38.808501 31168 net.cpp:156] Memory required for data: 587609200
I0403 13:01:38.808517 31168 layer_factory.hpp:77] Creating layer norm2
I0403 13:01:38.808542 31168 net.cpp:91] Creating Layer norm2
I0403 13:01:38.808560 31168 net.cpp:425] norm2 <- conv2
I0403 13:01:38.808579 31168 net.cpp:399] norm2 -> norm2
I0403 13:01:38.808785 31168 net.cpp:141] Setting up norm2
I0403 13:01:38.808815 31168 net.cpp:148] Top shape: 100 256 27 27 (18662400)
I0403 13:01:38.808831 31168 net.cpp:156] Memory required for data: 662258800
I0403 13:01:38.808847 31168 layer_factory.hpp:77] Creating layer pool2
I0403 13:01:38.808867 31168 net.cpp:91] Creating Layer pool2
I0403 13:01:38.808882 31168 net.cpp:425] pool2 <- norm2
I0403 13:01:38.808946 31168 net.cpp:399] pool2 -> pool2
I0403 13:01:38.809010 31168 net.cpp:141] Setting up pool2
I0403 13:01:38.809037 31168 net.cpp:148] Top shape: 100 256 13 13 (4326400)
I0403 13:01:38.809053 31168 net.cpp:156] Memory required for data: 679564400
I0403 13:01:38.809069 31168 layer_factory.hpp:77] Creating layer conv3
I0403 13:01:38.809092 31168 net.cpp:91] Creating Layer conv3
I0403 13:01:38.809108 31168 net.cpp:425] conv3 <- pool2
I0403 13:01:38.809130 31168 net.cpp:399] conv3 -> conv3
I0403 13:01:38.849709 31168 net.cpp:141] Setting up conv3
I0403 13:01:38.849766 31168 net.cpp:148] Top shape: 100 384 13 13 (6489600)
I0403 13:01:38.849783 31168 net.cpp:156] Memory required for data: 705522800
I0403 13:01:38.849809 31168 layer_factory.hpp:77] Creating layer relu3
I0403 13:01:38.849833 31168 net.cpp:91] Creating Layer relu3
I0403 13:01:38.849849 31168 net.cpp:425] relu3 <- conv3
I0403 13:01:38.849871 31168 net.cpp:386] relu3 -> conv3 (in-place)
I0403 13:01:38.850150 31168 net.cpp:141] Setting up relu3
I0403 13:01:38.850178 31168 net.cpp:148] Top shape: 100 384 13 13 (6489600)
I0403 13:01:38.850193 31168 net.cpp:156] Memory required for data: 731481200
I0403 13:01:38.850209 31168 layer_factory.hpp:77] Creating layer conv4
I0403 13:01:38.850235 31168 net.cpp:91] Creating Layer conv4
I0403 13:01:38.850252 31168 net.cpp:425] conv4 <- conv3
I0403 13:01:38.850280 31168 net.cpp:399] conv4 -> conv4
I0403 13:01:38.881718 31168 net.cpp:141] Setting up conv4
I0403 13:01:38.881799 31168 net.cpp:148] Top shape: 100 384 13 13 (6489600)
I0403 13:01:38.881850 31168 net.cpp:156] Memory required for data: 757439600
I0403 13:01:38.881872 31168 layer_factory.hpp:77] Creating layer relu4
I0403 13:01:38.881894 31168 net.cpp:91] Creating Layer relu4
I0403 13:01:38.881911 31168 net.cpp:425] relu4 <- conv4
I0403 13:01:38.881930 31168 net.cpp:386] relu4 -> conv4 (in-place)
I0403 13:01:38.882230 31168 net.cpp:141] Setting up relu4
I0403 13:01:38.882261 31168 net.cpp:148] Top shape: 100 384 13 13 (6489600)
I0403 13:01:38.882283 31168 net.cpp:156] Memory required for data: 783398000
I0403 13:01:38.882299 31168 layer_factory.hpp:77] Creating layer conv5
I0403 13:01:38.882328 31168 net.cpp:91] Creating Layer conv5
I0403 13:01:38.882359 31168 net.cpp:425] conv5 <- conv4
I0403 13:01:38.882377 31168 net.cpp:399] conv5 -> conv5
I0403 13:01:38.903362 31168 net.cpp:141] Setting up conv5
I0403 13:01:38.903425 31168 net.cpp:148] Top shape: 100 256 13 13 (4326400)
I0403 13:01:38.903445 31168 net.cpp:156] Memory required for data: 800703600
I0403 13:01:38.903468 31168 layer_factory.hpp:77] Creating layer relu5
I0403 13:01:38.903489 31168 net.cpp:91] Creating Layer relu5
I0403 13:01:38.903506 31168 net.cpp:425] relu5 <- conv5
I0403 13:01:38.903527 31168 net.cpp:386] relu5 -> conv5 (in-place)
I0403 13:01:38.903842 31168 net.cpp:141] Setting up relu5
I0403 13:01:38.903869 31168 net.cpp:148] Top shape: 100 256 13 13 (4326400)
I0403 13:01:38.903885 31168 net.cpp:156] Memory required for data: 818009200
I0403 13:01:38.903900 31168 layer_factory.hpp:77] Creating layer pool5
I0403 13:01:38.903925 31168 net.cpp:91] Creating Layer pool5
I0403 13:01:38.903944 31168 net.cpp:425] pool5 <- conv5
I0403 13:01:38.903961 31168 net.cpp:399] pool5 -> pool5
I0403 13:01:38.904023 31168 net.cpp:141] Setting up pool5
I0403 13:01:38.904047 31168 net.cpp:148] Top shape: 100 256 6 6 (921600)
I0403 13:01:38.904062 31168 net.cpp:156] Memory required for data: 821695600
I0403 13:01:38.904078 31168 layer_factory.hpp:77] Creating layer fc6
I0403 13:01:38.904104 31168 net.cpp:91] Creating Layer fc6
I0403 13:01:38.904121 31168 net.cpp:425] fc6 <- pool5
I0403 13:01:38.904144 31168 net.cpp:399] fc6 -> fc6
I0403 13:01:40.471655 31168 net.cpp:141] Setting up fc6
I0403 13:01:40.471700 31168 net.cpp:148] Top shape: 100 4096 (409600)
I0403 13:01:40.471716 31168 net.cpp:156] Memory required for data: 823334000
I0403 13:01:40.471737 31168 layer_factory.hpp:77] Creating layer relu6
I0403 13:01:40.471760 31168 net.cpp:91] Creating Layer relu6
I0403 13:01:40.471776 31168 net.cpp:425] relu6 <- fc6
I0403 13:01:40.471794 31168 net.cpp:386] relu6 -> fc6 (in-place)
I0403 13:01:40.472018 31168 net.cpp:141] Setting up relu6
I0403 13:01:40.472044 31168 net.cpp:148] Top shape: 100 4096 (409600)
I0403 13:01:40.472059 31168 net.cpp:156] Memory required for data: 824972400
I0403 13:01:40.472074 31168 layer_factory.hpp:77] Creating layer drop6
I0403 13:01:40.472092 31168 net.cpp:91] Creating Layer drop6
I0403 13:01:40.472108 31168 net.cpp:425] drop6 <- fc6
I0403 13:01:40.472126 31168 net.cpp:386] drop6 -> fc6 (in-place)
I0403 13:01:40.472177 31168 net.cpp:141] Setting up drop6
I0403 13:01:40.472199 31168 net.cpp:148] Top shape: 100 4096 (409600)
I0403 13:01:40.472214 31168 net.cpp:156] Memory required for data: 826610800
I0403 13:01:40.472229 31168 layer_factory.hpp:77] Creating layer fc7
I0403 13:01:40.472254 31168 net.cpp:91] Creating Layer fc7
I0403 13:01:40.472282 31168 net.cpp:425] fc7 <- fc6
I0403 13:01:40.472306 31168 net.cpp:399] fc7 -> fc7
I0403 13:01:41.173187 31168 net.cpp:141] Setting up fc7
I0403 13:01:41.173280 31168 net.cpp:148] Top shape: 100 4096 (409600)
I0403 13:01:41.173300 31168 net.cpp:156] Memory required for data: 828249200
I0403 13:01:41.173321 31168 layer_factory.hpp:77] Creating layer relu7
I0403 13:01:41.173346 31168 net.cpp:91] Creating Layer relu7
I0403 13:01:41.173364 31168 net.cpp:425] relu7 <- fc7
I0403 13:01:41.173388 31168 net.cpp:386] relu7 -> fc7 (in-place)
I0403 13:01:41.173815 31168 net.cpp:141] Setting up relu7
I0403 13:01:41.173842 31168 net.cpp:148] Top shape: 100 4096 (409600)
I0403 13:01:41.173892 31168 net.cpp:156] Memory required for data: 829887600
I0403 13:01:41.173907 31168 layer_factory.hpp:77] Creating layer drop7
I0403 13:01:41.173926 31168 net.cpp:91] Creating Layer drop7
I0403 13:01:41.173943 31168 net.cpp:425] drop7 <- fc7
I0403 13:01:41.173962 31168 net.cpp:386] drop7 -> fc7 (in-place)
I0403 13:01:41.174007 31168 net.cpp:141] Setting up drop7
I0403 13:01:41.174033 31168 net.cpp:148] Top shape: 100 4096 (409600)
I0403 13:01:41.174048 31168 net.cpp:156] Memory required for data: 831526000
I0403 13:01:41.174063 31168 layer_factory.hpp:77] Creating layer fc8_plantvillage
I0403 13:01:41.174083 31168 net.cpp:91] Creating Layer fc8_plantvillage
I0403 13:01:41.174100 31168 net.cpp:425] fc8_plantvillage <- fc7
I0403 13:01:41.174120 31168 net.cpp:399] fc8_plantvillage -> fc8_plantvillage
I0403 13:01:41.181072 31168 net.cpp:141] Setting up fc8_plantvillage
I0403 13:01:41.181100 31168 net.cpp:148] Top shape: 100 38 (3800)
I0403 13:01:41.181118 31168 net.cpp:156] Memory required for data: 831541200
I0403 13:01:41.181135 31168 layer_factory.hpp:77] Creating layer fc8_plantvillage_fc8_plantvillage_0_split
I0403 13:01:41.181154 31168 net.cpp:91] Creating Layer fc8_plantvillage_fc8_plantvillage_0_split
I0403 13:01:41.181170 31168 net.cpp:425] fc8_plantvillage_fc8_plantvillage_0_split <- fc8_plantvillage
I0403 13:01:41.181190 31168 net.cpp:399] fc8_plantvillage_fc8_plantvillage_0_split -> fc8_plantvillage_fc8_plantvillage_0_split_0
I0403 13:01:41.181212 31168 net.cpp:399] fc8_plantvillage_fc8_plantvillage_0_split -> fc8_plantvillage_fc8_plantvillage_0_split_1
I0403 13:01:41.181232 31168 net.cpp:399] fc8_plantvillage_fc8_plantvillage_0_split -> fc8_plantvillage_fc8_plantvillage_0_split_2
I0403 13:01:41.181316 31168 net.cpp:141] Setting up fc8_plantvillage_fc8_plantvillage_0_split
I0403 13:01:41.181344 31168 net.cpp:148] Top shape: 100 38 (3800)
I0403 13:01:41.181360 31168 net.cpp:148] Top shape: 100 38 (3800)
I0403 13:01:41.181377 31168 net.cpp:148] Top shape: 100 38 (3800)
I0403 13:01:41.181391 31168 net.cpp:156] Memory required for data: 831586800
I0403 13:01:41.181406 31168 layer_factory.hpp:77] Creating layer prob
I0403 13:01:41.181426 31168 net.cpp:91] Creating Layer prob
I0403 13:01:41.181440 31168 net.cpp:425] prob <- fc8_plantvillage_fc8_plantvillage_0_split_0
I0403 13:01:41.181459 31168 net.cpp:399] prob -> prob
I0403 13:01:41.181691 31168 net.cpp:141] Setting up prob
I0403 13:01:41.181718 31168 net.cpp:148] Top shape: 100 38 (3800)
I0403 13:01:41.181733 31168 net.cpp:156] Memory required for data: 831602000
I0403 13:01:41.181748 31168 layer_factory.hpp:77] Creating layer hdf5out
I0403 13:01:41.181767 31168 net.cpp:91] Creating Layer hdf5out
I0403 13:01:41.181783 31168 net.cpp:425] hdf5out <- prob
I0403 13:01:41.181800 31168 net.cpp:425] hdf5out <- label_data_1_split_0
I0403 13:01:41.184204 31168 net.cpp:141] Setting up hdf5out
…
