…
I0403 12:38:56.748636 30586 net.cpp:313] The NetState phase (1) differed from the phase (0) specified by a rule in layer data
I0403 12:38:56.748940 30586 net.cpp:49] Initializing net from parameters: 
state {
  phase: TEST
}
layer {
  name: "data"
  type: "Data"
  top: "data"
  top: "label"
  include {
    phase: TEST
  }
  transform_param {
    crop_size: 227
    mean_file: "/home/mohanty/data/final_dataset/lmdb/segmented-40-60/mean.binaryproto"
  }
  data_param {
    source: "/home/mohanty/data/final_dataset/lmdb/segmented-40-60/test_db"
    batch_size: 100
    backend: LMDB
  }
}
layer {
  name: "conv1"
  type: "Convolution"
  bottom: "data"
  top: "conv1"
  param {
    lr_mult: 1
    decay_mult: 1
  }
  param {
    lr_mult: 2
    decay_mult: 0
  }
  convolution_param {
    num_output: 96
    kernel_size: 11
    stride: 4
    weight_filler {
      type: "gaussian"
      std: 0.01
    }
    bias_filler {
      type: "constant"
      value: 0
    }
  }
}
layer {
  name: "relu1"
  type: "ReLU"
  bottom: "conv1"
  top: "conv1"
}
layer {
  name: "norm1"
  type: "LRN"
  bottom: "conv1"
  top: "norm1"
  lrn_param {
    local_size: 5
    alpha: 0.0001
    beta: 0.75
  }
}
layer {
  name: "pool1"
  type: "Pooling"
  bottom: "norm1"
  top: "pool1"
  pooling_param {
    pool: MAX
    kernel_size: 3
    stride: 2
  }
}
layer {
  name: "conv2"
  type: "Convolution"
  bottom: "pool1"
  top: "conv2"
  param {
    lr_mult: 1
    decay_mult: 1
  }
  param {
    lr_mult: 2
    decay_mult: 0
  }
  convolution_param {
    num_output: 256
    pad: 2
    kernel_size: 5
    group: 2
    weight_filler {
      type: "gaussian"
      std: 0.01
    }
    bias_filler {
      type: "constant"
      value: 0.1
    }
  }
}
layer {
  name: "relu2"
  type: "ReLU"
  bottom: "conv2"
  top: "conv2"
}
layer {
  name: "norm2"
  type: "LRN"
  bottom: "conv2"
  top: "norm2"
  lrn_param {
    local_size: 5
    alpha: 0.0001
    beta: 0.75
  }
}
layer {
  name: "pool2"
  type: "Pooling"
  bottom: "norm2"
  top: "pool2"
  pooling_param {
    pool: MAX
    kernel_size: 3
    stride: 2
  }
}
layer {
  name: "conv3"
  type: "Convolution"
  bottom: "pool2"
  top: "conv3"
  param {
    lr_mult: 1
    decay_mult: 1
  }
  param {
    lr_mult: 2
    decay_mult: 0
  }
  convolution_param {
    num_output: 384
    pad: 1
    kernel_size: 3
    weight_filler {
      type: "gaussian"
      std: 0.01
    }
    bias_filler {
      type: "constant"
      value: 0
    }
  }
}
layer {
  name: "relu3"
  type: "ReLU"
  bottom: "conv3"
  top: "conv3"
}
layer {
  name: "conv4"
  type: "Convolution"
  bottom: "conv3"
  top: "conv4"
  param {
    lr_mult: 1
    decay_mult: 1
  }
  param {
    lr_mult: 2
    decay_mult: 0
  }
  convolution_param {
    num_output: 384
    pad: 1
    kernel_size: 3
    group: 2
    weight_filler {
      type: "gaussian"
      std: 0.01
    }
    bias_filler {
      type: "constant"
      value: 0.1
    }
  }
}
layer {
  name: "relu4"
  type: "ReLU"
  bottom: "conv4"
  top: "conv4"
}
layer {
  name: "conv5"
  type: "Convolution"
  bottom: "conv4"
  top: "conv5"
  param {
    lr_mult: 1
    decay_mult: 1
  }
  param {
    lr_mult: 2
    decay_mult: 0
  }
  convolution_param {
    num_output: 256
    pad: 1
    kernel_size: 3
    group: 2
    weight_filler {
      type: "gaussian"
      std: 0.01
    }
    bias_filler {
      type: "constant"
      value: 0.1
    }
  }
}
layer {
  name: "relu5"
  type: "ReLU"
  bottom: "conv5"
  top: "conv5"
}
layer {
  name: "pool5"
  type: "Pooling"
  bottom: "conv5"
  top: "pool5"
  pooling_param {
    pool: MAX
    kernel_size: 3
    stride: 2
  }
}
layer {
  name: "fc6"
  type: "InnerProduct"
  bottom: "pool5"
  top: "fc6"
  param {
    lr_mult: 1
    decay_mult: 1
  }
  param {
    lr_mult: 2
    decay_mult: 0
  }
  inner_product_param {
    num_output: 4096
    weight_filler {
      type: "gaussian"
      std: 0.005
    }
    bias_filler {
      type: "constant"
      value: 0.1
    }
  }
}
layer {
  name: "relu6"
  type: "ReLU"
  bottom: "fc6"
  top: "fc6"
}
layer {
  name: "drop6"
  type: "Dropout"
  bottom: "fc6"
  top: "fc6"
  dropout_param {
    dropout_ratio: 0.5
  }
}
layer {
  name: "fc7"
  type: "InnerProduct"
  bottom: "fc6"
  top: "fc7"
  param {
    lr_mult: 1
    decay_mult: 1
  }
  param {
    lr_mult: 2
    decay_mult: 0
  }
  inner_product_param {
    num_output: 4096
    weight_filler {
      type: "gaussian"
      std: 0.005
    }
    bias_filler {
      type: "constant"
      value: 0.1
    }
  }
}
layer {
  name: "relu7"
  type: "ReLU"
  bottom: "fc7"
  top: "fc7"
}
layer {
  name: "drop7"
  type: "Dropout"
  bottom: "fc7"
  top: "fc7"
  dropout_param {
    dropout_ratio: 0.5
  }
}
layer {
  name: "fc8_plantvillage"
  type: "InnerProduct"
  bottom: "fc7"
  top: "fc8_plantvillage"
  param {
    lr_mult: 1
    decay_mult: 1
  }
  param {
    lr_mult: 2
    decay_mult: 0
  }
  inner_product_param {
    num_output: 38
    weight_filler {
      type: "gaussian"
      std: 0.01
    }
    bias_filler {
      type: "constant"
      value: 0
    }
  }
}
layer {
  name: "prob"
  type: "Softmax"
  bottom: "fc8_plantvillage"
  top: "prob"
  include {
    phase: TEST
  }
}
layer {
  name: "hdf5out"
  type: "HDF5Output"
  bottom: "prob"
  bottom: "label"
  include {
    phase: TEST
  }
  hdf5_output_param {
    file_name: "hdf5_dumps/iter_1314.h5"
  }
}
layer {
  name: "loss"
  type: "SoftmaxWithLoss"
  bottom: "fc8_plantvillage"
  bottom: "label"
  top: "loss"
}
layer {
  name: "accuracy"
  type: "Accuracy"
  bottom: "fc8_plantvillage"
  bottom: "label"
  top: "accuracy"
  include {
    phase: TEST
  }
}
I0403 12:38:56.749475 30586 layer_factory.hpp:77] Creating layer data
I0403 12:38:56.750104 30586 net.cpp:91] Creating Layer data
I0403 12:38:56.750138 30586 net.cpp:399] data -> data
I0403 12:38:56.750190 30586 net.cpp:399] data -> label
I0403 12:38:56.750226 30586 data_transformer.cpp:25] Loading mean file from: /home/mohanty/data/final_dataset/lmdb/segmented-40-60/mean.binaryproto
I0403 12:38:56.751430 30589 db_lmdb.cpp:38] Opened lmdb /home/mohanty/data/final_dataset/lmdb/segmented-40-60/test_db
I0403 12:38:56.764724 30586 data_layer.cpp:41] output data size: 100,3,227,227
I0403 12:38:56.884080 30586 net.cpp:141] Setting up data
I0403 12:38:56.884186 30586 net.cpp:148] Top shape: 100 3 227 227 (15458700)
I0403 12:38:56.884208 30586 net.cpp:148] Top shape: 100 (100)
I0403 12:38:56.884224 30586 net.cpp:156] Memory required for data: 61835200
I0403 12:38:56.884255 30586 layer_factory.hpp:77] Creating layer label_data_1_split
I0403 12:38:56.884281 30586 net.cpp:91] Creating Layer label_data_1_split
I0403 12:38:56.884299 30586 net.cpp:425] label_data_1_split <- label
I0403 12:38:56.884330 30586 net.cpp:399] label_data_1_split -> label_data_1_split_0
I0403 12:38:56.884357 30586 net.cpp:399] label_data_1_split -> label_data_1_split_1
I0403 12:38:56.884377 30586 net.cpp:399] label_data_1_split -> label_data_1_split_2
I0403 12:38:56.884452 30586 net.cpp:141] Setting up label_data_1_split
I0403 12:38:56.884477 30586 net.cpp:148] Top shape: 100 (100)
I0403 12:38:56.884495 30586 net.cpp:148] Top shape: 100 (100)
I0403 12:38:56.884511 30586 net.cpp:148] Top shape: 100 (100)
I0403 12:38:56.884526 30586 net.cpp:156] Memory required for data: 61836400
I0403 12:38:56.884541 30586 layer_factory.hpp:77] Creating layer conv1
I0403 12:38:56.884573 30586 net.cpp:91] Creating Layer conv1
I0403 12:38:56.884593 30586 net.cpp:425] conv1 <- data
I0403 12:38:56.884613 30586 net.cpp:399] conv1 -> conv1
I0403 12:38:57.029670 30586 net.cpp:141] Setting up conv1
I0403 12:38:57.029759 30586 net.cpp:148] Top shape: 100 96 55 55 (29040000)
I0403 12:38:57.029778 30586 net.cpp:156] Memory required for data: 177996400
I0403 12:38:57.029821 30586 layer_factory.hpp:77] Creating layer relu1
I0403 12:38:57.029862 30586 net.cpp:91] Creating Layer relu1
I0403 12:38:57.029881 30586 net.cpp:425] relu1 <- conv1
I0403 12:38:57.029901 30586 net.cpp:386] relu1 -> conv1 (in-place)
I0403 12:38:57.030199 30586 net.cpp:141] Setting up relu1
I0403 12:38:57.030227 30586 net.cpp:148] Top shape: 100 96 55 55 (29040000)
I0403 12:38:57.030278 30586 net.cpp:156] Memory required for data: 294156400
I0403 12:38:57.030297 30586 layer_factory.hpp:77] Creating layer norm1
I0403 12:38:57.030325 30586 net.cpp:91] Creating Layer norm1
I0403 12:38:57.030344 30586 net.cpp:425] norm1 <- conv1
I0403 12:38:57.030362 30586 net.cpp:399] norm1 -> norm1
I0403 12:38:57.030684 30586 net.cpp:141] Setting up norm1
I0403 12:38:57.030712 30586 net.cpp:148] Top shape: 100 96 55 55 (29040000)
I0403 12:38:57.030727 30586 net.cpp:156] Memory required for data: 410316400
I0403 12:38:57.030743 30586 layer_factory.hpp:77] Creating layer pool1
I0403 12:38:57.030766 30586 net.cpp:91] Creating Layer pool1
I0403 12:38:57.030783 30586 net.cpp:425] pool1 <- norm1
I0403 12:38:57.030800 30586 net.cpp:399] pool1 -> pool1
I0403 12:38:57.030866 30586 net.cpp:141] Setting up pool1
I0403 12:38:57.030890 30586 net.cpp:148] Top shape: 100 96 27 27 (6998400)
I0403 12:38:57.030905 30586 net.cpp:156] Memory required for data: 438310000
I0403 12:38:57.030920 30586 layer_factory.hpp:77] Creating layer conv2
I0403 12:38:57.030946 30586 net.cpp:91] Creating Layer conv2
I0403 12:38:57.030962 30586 net.cpp:425] conv2 <- pool1
I0403 12:38:57.030979 30586 net.cpp:399] conv2 -> conv2
I0403 12:38:57.046635 30586 net.cpp:141] Setting up conv2
I0403 12:38:57.046701 30586 net.cpp:148] Top shape: 100 256 27 27 (18662400)
I0403 12:38:57.046720 30586 net.cpp:156] Memory required for data: 512959600
I0403 12:38:57.046746 30586 layer_factory.hpp:77] Creating layer relu2
I0403 12:38:57.046768 30586 net.cpp:91] Creating Layer relu2
I0403 12:38:57.046785 30586 net.cpp:425] relu2 <- conv2
I0403 12:38:57.046803 30586 net.cpp:386] relu2 -> conv2 (in-place)
I0403 12:38:57.047138 30586 net.cpp:141] Setting up relu2
I0403 12:38:57.047171 30586 net.cpp:148] Top shape: 100 256 27 27 (18662400)
I0403 12:38:57.047188 30586 net.cpp:156] Memory required for data: 587609200
I0403 12:38:57.047204 30586 layer_factory.hpp:77] Creating layer norm2
I0403 12:38:57.047225 30586 net.cpp:91] Creating Layer norm2
I0403 12:38:57.047245 30586 net.cpp:425] norm2 <- conv2
I0403 12:38:57.047269 30586 net.cpp:399] norm2 -> norm2
I0403 12:38:57.047473 30586 net.cpp:141] Setting up norm2
I0403 12:38:57.047502 30586 net.cpp:148] Top shape: 100 256 27 27 (18662400)
I0403 12:38:57.047516 30586 net.cpp:156] Memory required for data: 662258800
I0403 12:38:57.047533 30586 layer_factory.hpp:77] Creating layer pool2
I0403 12:38:57.047554 30586 net.cpp:91] Creating Layer pool2
I0403 12:38:57.047570 30586 net.cpp:425] pool2 <- norm2
I0403 12:38:57.047588 30586 net.cpp:399] pool2 -> pool2
I0403 12:38:57.047646 30586 net.cpp:141] Setting up pool2
I0403 12:38:57.047670 30586 net.cpp:148] Top shape: 100 256 13 13 (4326400)
I0403 12:38:57.047685 30586 net.cpp:156] Memory required for data: 679564400
I0403 12:38:57.047700 30586 layer_factory.hpp:77] Creating layer conv3
I0403 12:38:57.047725 30586 net.cpp:91] Creating Layer conv3
I0403 12:38:57.047744 30586 net.cpp:425] conv3 <- pool2
I0403 12:38:57.047765 30586 net.cpp:399] conv3 -> conv3
I0403 12:38:57.087877 30586 net.cpp:141] Setting up conv3
I0403 12:38:57.087962 30586 net.cpp:148] Top shape: 100 384 13 13 (6489600)
I0403 12:38:57.087980 30586 net.cpp:156] Memory required for data: 705522800
I0403 12:38:57.088004 30586 layer_factory.hpp:77] Creating layer relu3
I0403 12:38:57.088029 30586 net.cpp:91] Creating Layer relu3
I0403 12:38:57.088049 30586 net.cpp:425] relu3 <- conv3
I0403 12:38:57.088068 30586 net.cpp:386] relu3 -> conv3 (in-place)
I0403 12:38:57.088367 30586 net.cpp:141] Setting up relu3
I0403 12:38:57.088395 30586 net.cpp:148] Top shape: 100 384 13 13 (6489600)
I0403 12:38:57.088412 30586 net.cpp:156] Memory required for data: 731481200
I0403 12:38:57.088428 30586 layer_factory.hpp:77] Creating layer conv4
I0403 12:38:57.088490 30586 net.cpp:91] Creating Layer conv4
I0403 12:38:57.088515 30586 net.cpp:425] conv4 <- conv3
I0403 12:38:57.088536 30586 net.cpp:399] conv4 -> conv4
I0403 12:38:57.119788 30586 net.cpp:141] Setting up conv4
I0403 12:38:57.119869 30586 net.cpp:148] Top shape: 100 384 13 13 (6489600)
I0403 12:38:57.119918 30586 net.cpp:156] Memory required for data: 757439600
I0403 12:38:57.119941 30586 layer_factory.hpp:77] Creating layer relu4
I0403 12:38:57.119966 30586 net.cpp:91] Creating Layer relu4
I0403 12:38:57.119987 30586 net.cpp:425] relu4 <- conv4
I0403 12:38:57.120007 30586 net.cpp:386] relu4 -> conv4 (in-place)
I0403 12:38:57.120306 30586 net.cpp:141] Setting up relu4
I0403 12:38:57.120334 30586 net.cpp:148] Top shape: 100 384 13 13 (6489600)
I0403 12:38:57.120350 30586 net.cpp:156] Memory required for data: 783398000
I0403 12:38:57.120367 30586 layer_factory.hpp:77] Creating layer conv5
I0403 12:38:57.120393 30586 net.cpp:91] Creating Layer conv5
I0403 12:38:57.120411 30586 net.cpp:425] conv5 <- conv4
I0403 12:38:57.120434 30586 net.cpp:399] conv5 -> conv5
I0403 12:38:57.142068 30586 net.cpp:141] Setting up conv5
I0403 12:38:57.142130 30586 net.cpp:148] Top shape: 100 256 13 13 (4326400)
I0403 12:38:57.142148 30586 net.cpp:156] Memory required for data: 800703600
I0403 12:38:57.142176 30586 layer_factory.hpp:77] Creating layer relu5
I0403 12:38:57.142201 30586 net.cpp:91] Creating Layer relu5
I0403 12:38:57.142218 30586 net.cpp:425] relu5 <- conv5
I0403 12:38:57.142237 30586 net.cpp:386] relu5 -> conv5 (in-place)
I0403 12:38:57.142540 30586 net.cpp:141] Setting up relu5
I0403 12:38:57.142568 30586 net.cpp:148] Top shape: 100 256 13 13 (4326400)
I0403 12:38:57.142585 30586 net.cpp:156] Memory required for data: 818009200
I0403 12:38:57.142599 30586 layer_factory.hpp:77] Creating layer pool5
I0403 12:38:57.142624 30586 net.cpp:91] Creating Layer pool5
I0403 12:38:57.142642 30586 net.cpp:425] pool5 <- conv5
I0403 12:38:57.142660 30586 net.cpp:399] pool5 -> pool5
I0403 12:38:57.142752 30586 net.cpp:141] Setting up pool5
I0403 12:38:57.142778 30586 net.cpp:148] Top shape: 100 256 6 6 (921600)
I0403 12:38:57.142793 30586 net.cpp:156] Memory required for data: 821695600
I0403 12:38:57.142808 30586 layer_factory.hpp:77] Creating layer fc6
I0403 12:38:57.142838 30586 net.cpp:91] Creating Layer fc6
I0403 12:38:57.142856 30586 net.cpp:425] fc6 <- pool5
I0403 12:38:57.142879 30586 net.cpp:399] fc6 -> fc6
I0403 12:38:58.724258 30586 net.cpp:141] Setting up fc6
I0403 12:38:58.724344 30586 net.cpp:148] Top shape: 100 4096 (409600)
I0403 12:38:58.724359 30586 net.cpp:156] Memory required for data: 823334000
I0403 12:38:58.724380 30586 layer_factory.hpp:77] Creating layer relu6
I0403 12:38:58.724402 30586 net.cpp:91] Creating Layer relu6
I0403 12:38:58.724421 30586 net.cpp:425] relu6 <- fc6
I0403 12:38:58.724450 30586 net.cpp:386] relu6 -> fc6 (in-place)
I0403 12:38:58.724673 30586 net.cpp:141] Setting up relu6
I0403 12:38:58.724697 30586 net.cpp:148] Top shape: 100 4096 (409600)
I0403 12:38:58.724712 30586 net.cpp:156] Memory required for data: 824972400
I0403 12:38:58.724735 30586 layer_factory.hpp:77] Creating layer drop6
I0403 12:38:58.724757 30586 net.cpp:91] Creating Layer drop6
I0403 12:38:58.724773 30586 net.cpp:425] drop6 <- fc6
I0403 12:38:58.724791 30586 net.cpp:386] drop6 -> fc6 (in-place)
I0403 12:38:58.724843 30586 net.cpp:141] Setting up drop6
I0403 12:38:58.724866 30586 net.cpp:148] Top shape: 100 4096 (409600)
I0403 12:38:58.724880 30586 net.cpp:156] Memory required for data: 826610800
I0403 12:38:58.724895 30586 layer_factory.hpp:77] Creating layer fc7
I0403 12:38:58.724915 30586 net.cpp:91] Creating Layer fc7
I0403 12:38:58.724931 30586 net.cpp:425] fc7 <- fc6
I0403 12:38:58.724951 30586 net.cpp:399] fc7 -> fc7
I0403 12:38:59.427623 30586 net.cpp:141] Setting up fc7
I0403 12:38:59.427706 30586 net.cpp:148] Top shape: 100 4096 (409600)
I0403 12:38:59.427722 30586 net.cpp:156] Memory required for data: 828249200
I0403 12:38:59.427754 30586 layer_factory.hpp:77] Creating layer relu7
I0403 12:38:59.427778 30586 net.cpp:91] Creating Layer relu7
I0403 12:38:59.427795 30586 net.cpp:425] relu7 <- fc7
I0403 12:38:59.427814 30586 net.cpp:386] relu7 -> fc7 (in-place)
I0403 12:38:59.428231 30586 net.cpp:141] Setting up relu7
I0403 12:38:59.428261 30586 net.cpp:148] Top shape: 100 4096 (409600)
I0403 12:38:59.428306 30586 net.cpp:156] Memory required for data: 829887600
I0403 12:38:59.428323 30586 layer_factory.hpp:77] Creating layer drop7
I0403 12:38:59.428344 30586 net.cpp:91] Creating Layer drop7
I0403 12:38:59.428359 30586 net.cpp:425] drop7 <- fc7
I0403 12:38:59.428375 30586 net.cpp:386] drop7 -> fc7 (in-place)
I0403 12:38:59.428419 30586 net.cpp:141] Setting up drop7
I0403 12:38:59.428442 30586 net.cpp:148] Top shape: 100 4096 (409600)
I0403 12:38:59.428454 30586 net.cpp:156] Memory required for data: 831526000
I0403 12:38:59.428469 30586 layer_factory.hpp:77] Creating layer fc8_plantvillage
I0403 12:38:59.428488 30586 net.cpp:91] Creating Layer fc8_plantvillage
I0403 12:38:59.428503 30586 net.cpp:425] fc8_plantvillage <- fc7
I0403 12:38:59.428521 30586 net.cpp:399] fc8_plantvillage -> fc8_plantvillage
I0403 12:38:59.435322 30586 net.cpp:141] Setting up fc8_plantvillage
I0403 12:38:59.435353 30586 net.cpp:148] Top shape: 100 38 (3800)
I0403 12:38:59.435369 30586 net.cpp:156] Memory required for data: 831541200
I0403 12:38:59.435387 30586 layer_factory.hpp:77] Creating layer fc8_plantvillage_fc8_plantvillage_0_split
I0403 12:38:59.435405 30586 net.cpp:91] Creating Layer fc8_plantvillage_fc8_plantvillage_0_split
I0403 12:38:59.435420 30586 net.cpp:425] fc8_plantvillage_fc8_plantvillage_0_split <- fc8_plantvillage
I0403 12:38:59.435449 30586 net.cpp:399] fc8_plantvillage_fc8_plantvillage_0_split -> fc8_plantvillage_fc8_plantvillage_0_split_0
I0403 12:38:59.435468 30586 net.cpp:399] fc8_plantvillage_fc8_plantvillage_0_split -> fc8_plantvillage_fc8_plantvillage_0_split_1
I0403 12:38:59.435489 30586 net.cpp:399] fc8_plantvillage_fc8_plantvillage_0_split -> fc8_plantvillage_fc8_plantvillage_0_split_2
I0403 12:38:59.435569 30586 net.cpp:141] Setting up fc8_plantvillage_fc8_plantvillage_0_split
I0403 12:38:59.435592 30586 net.cpp:148] Top shape: 100 38 (3800)
I0403 12:38:59.435608 30586 net.cpp:148] Top shape: 100 38 (3800)
I0403 12:38:59.435624 30586 net.cpp:148] Top shape: 100 38 (3800)
I0403 12:38:59.435638 30586 net.cpp:156] Memory required for data: 831586800
I0403 12:38:59.435652 30586 layer_factory.hpp:77] Creating layer prob
I0403 12:38:59.435672 30586 net.cpp:91] Creating Layer prob
I0403 12:38:59.435688 30586 net.cpp:425] prob <- fc8_plantvillage_fc8_plantvillage_0_split_0
I0403 12:38:59.435705 30586 net.cpp:399] prob -> prob
I0403 12:38:59.435947 30586 net.cpp:141] Setting up prob
I0403 12:38:59.435972 30586 net.cpp:148] Top shape: 100 38 (3800)
I0403 12:38:59.435986 30586 net.cpp:156] Memory required for data: 831602000
I0403 12:38:59.436000 30586 layer_factory.hpp:77] Creating layer hdf5out
I0403 12:38:59.436023 30586 net.cpp:91] Creating Layer hdf5out
I0403 12:38:59.436040 30586 net.cpp:425] hdf5out <- prob
I0403 12:38:59.436056 30586 net.cpp:425] hdf5out <- label_data_1_split_0
I0403 12:38:59.438135 30586 net.cpp:141] Setting up hdf5out
…
