…
I0403 12:45:50.657111 30757 net.cpp:313] The NetState phase (1) differed from the phase (0) specified by a rule in layer data
I0403 12:45:50.657418 30757 net.cpp:49] Initializing net from parameters: 
state {
  phase: TEST
}
layer {
  name: "data"
  type: "Data"
  top: "data"
  top: "label"
  include {
    phase: TEST
  }
  transform_param {
    crop_size: 227
    mean_file: "/home/mohanty/data/final_dataset/lmdb/segmented-40-60/mean.binaryproto"
  }
  data_param {
    source: "/home/mohanty/data/final_dataset/lmdb/segmented-40-60/test_db"
    batch_size: 100
    backend: LMDB
  }
}
layer {
  name: "conv1"
  type: "Convolution"
  bottom: "data"
  top: "conv1"
  param {
    lr_mult: 1
    decay_mult: 1
  }
  param {
    lr_mult: 2
    decay_mult: 0
  }
  convolution_param {
    num_output: 96
    kernel_size: 11
    stride: 4
    weight_filler {
      type: "gaussian"
      std: 0.01
    }
    bias_filler {
      type: "constant"
      value: 0
    }
  }
}
layer {
  name: "relu1"
  type: "ReLU"
  bottom: "conv1"
  top: "conv1"
}
layer {
  name: "norm1"
  type: "LRN"
  bottom: "conv1"
  top: "norm1"
  lrn_param {
    local_size: 5
    alpha: 0.0001
    beta: 0.75
  }
}
layer {
  name: "pool1"
  type: "Pooling"
  bottom: "norm1"
  top: "pool1"
  pooling_param {
    pool: MAX
    kernel_size: 3
    stride: 2
  }
}
layer {
  name: "conv2"
  type: "Convolution"
  bottom: "pool1"
  top: "conv2"
  param {
    lr_mult: 1
    decay_mult: 1
  }
  param {
    lr_mult: 2
    decay_mult: 0
  }
  convolution_param {
    num_output: 256
    pad: 2
    kernel_size: 5
    group: 2
    weight_filler {
      type: "gaussian"
      std: 0.01
    }
    bias_filler {
      type: "constant"
      value: 0.1
    }
  }
}
layer {
  name: "relu2"
  type: "ReLU"
  bottom: "conv2"
  top: "conv2"
}
layer {
  name: "norm2"
  type: "LRN"
  bottom: "conv2"
  top: "norm2"
  lrn_param {
    local_size: 5
    alpha: 0.0001
    beta: 0.75
  }
}
layer {
  name: "pool2"
  type: "Pooling"
  bottom: "norm2"
  top: "pool2"
  pooling_param {
    pool: MAX
    kernel_size: 3
    stride: 2
  }
}
layer {
  name: "conv3"
  type: "Convolution"
  bottom: "pool2"
  top: "conv3"
  param {
    lr_mult: 1
    decay_mult: 1
  }
  param {
    lr_mult: 2
    decay_mult: 0
  }
  convolution_param {
    num_output: 384
    pad: 1
    kernel_size: 3
    weight_filler {
      type: "gaussian"
      std: 0.01
    }
    bias_filler {
      type: "constant"
      value: 0
    }
  }
}
layer {
  name: "relu3"
  type: "ReLU"
  bottom: "conv3"
  top: "conv3"
}
layer {
  name: "conv4"
  type: "Convolution"
  bottom: "conv3"
  top: "conv4"
  param {
    lr_mult: 1
    decay_mult: 1
  }
  param {
    lr_mult: 2
    decay_mult: 0
  }
  convolution_param {
    num_output: 384
    pad: 1
    kernel_size: 3
    group: 2
    weight_filler {
      type: "gaussian"
      std: 0.01
    }
    bias_filler {
      type: "constant"
      value: 0.1
    }
  }
}
layer {
  name: "relu4"
  type: "ReLU"
  bottom: "conv4"
  top: "conv4"
}
layer {
  name: "conv5"
  type: "Convolution"
  bottom: "conv4"
  top: "conv5"
  param {
    lr_mult: 1
    decay_mult: 1
  }
  param {
    lr_mult: 2
    decay_mult: 0
  }
  convolution_param {
    num_output: 256
    pad: 1
    kernel_size: 3
    group: 2
    weight_filler {
      type: "gaussian"
      std: 0.01
    }
    bias_filler {
      type: "constant"
      value: 0.1
    }
  }
}
layer {
  name: "relu5"
  type: "ReLU"
  bottom: "conv5"
  top: "conv5"
}
layer {
  name: "pool5"
  type: "Pooling"
  bottom: "conv5"
  top: "pool5"
  pooling_param {
    pool: MAX
    kernel_size: 3
    stride: 2
  }
}
layer {
  name: "fc6"
  type: "InnerProduct"
  bottom: "pool5"
  top: "fc6"
  param {
    lr_mult: 1
    decay_mult: 1
  }
  param {
    lr_mult: 2
    decay_mult: 0
  }
  inner_product_param {
    num_output: 4096
    weight_filler {
      type: "gaussian"
      std: 0.005
    }
    bias_filler {
      type: "constant"
      value: 0.1
    }
  }
}
layer {
  name: "relu6"
  type: "ReLU"
  bottom: "fc6"
  top: "fc6"
}
layer {
  name: "drop6"
  type: "Dropout"
  bottom: "fc6"
  top: "fc6"
  dropout_param {
    dropout_ratio: 0.5
  }
}
layer {
  name: "fc7"
  type: "InnerProduct"
  bottom: "fc6"
  top: "fc7"
  param {
    lr_mult: 1
    decay_mult: 1
  }
  param {
    lr_mult: 2
    decay_mult: 0
  }
  inner_product_param {
    num_output: 4096
    weight_filler {
      type: "gaussian"
      std: 0.005
    }
    bias_filler {
      type: "constant"
      value: 0.1
    }
  }
}
layer {
  name: "relu7"
  type: "ReLU"
  bottom: "fc7"
  top: "fc7"
}
layer {
  name: "drop7"
  type: "Dropout"
  bottom: "fc7"
  top: "fc7"
  dropout_param {
    dropout_ratio: 0.5
  }
}
layer {
  name: "fc8_plantvillage"
  type: "InnerProduct"
  bottom: "fc7"
  top: "fc8_plantvillage"
  param {
    lr_mult: 1
    decay_mult: 1
  }
  param {
    lr_mult: 2
    decay_mult: 0
  }
  inner_product_param {
    num_output: 38
    weight_filler {
      type: "gaussian"
      std: 0.01
    }
    bias_filler {
      type: "constant"
      value: 0
    }
  }
}
layer {
  name: "prob"
  type: "Softmax"
  bottom: "fc8_plantvillage"
  top: "prob"
  include {
    phase: TEST
  }
}
layer {
  name: "hdf5out"
  type: "HDF5Output"
  bottom: "prob"
  bottom: "label"
  include {
    phase: TEST
  }
  hdf5_output_param {
    file_name: "hdf5_dumps/iter_2847.h5"
  }
}
layer {
  name: "loss"
  type: "SoftmaxWithLoss"
  bottom: "fc8_plantvillage"
  bottom: "label"
  top: "loss"
}
layer {
  name: "accuracy"
  type: "Accuracy"
  bottom: "fc8_plantvillage"
  bottom: "label"
  top: "accuracy"
  include {
    phase: TEST
  }
}
I0403 12:45:50.658004 30757 layer_factory.hpp:77] Creating layer data
I0403 12:45:50.658664 30757 net.cpp:91] Creating Layer data
I0403 12:45:50.658694 30757 net.cpp:399] data -> data
I0403 12:45:50.658743 30757 net.cpp:399] data -> label
I0403 12:45:50.658782 30757 data_transformer.cpp:25] Loading mean file from: /home/mohanty/data/final_dataset/lmdb/segmented-40-60/mean.binaryproto
I0403 12:45:50.660681 30759 db_lmdb.cpp:38] Opened lmdb /home/mohanty/data/final_dataset/lmdb/segmented-40-60/test_db
I0403 12:45:50.673388 30757 data_layer.cpp:41] output data size: 100,3,227,227
I0403 12:45:50.795945 30757 net.cpp:141] Setting up data
I0403 12:45:50.796054 30757 net.cpp:148] Top shape: 100 3 227 227 (15458700)
I0403 12:45:50.796077 30757 net.cpp:148] Top shape: 100 (100)
I0403 12:45:50.796093 30757 net.cpp:156] Memory required for data: 61835200
I0403 12:45:50.796120 30757 layer_factory.hpp:77] Creating layer label_data_1_split
I0403 12:45:50.796149 30757 net.cpp:91] Creating Layer label_data_1_split
I0403 12:45:50.796166 30757 net.cpp:425] label_data_1_split <- label
I0403 12:45:50.796198 30757 net.cpp:399] label_data_1_split -> label_data_1_split_0
I0403 12:45:50.796226 30757 net.cpp:399] label_data_1_split -> label_data_1_split_1
I0403 12:45:50.796252 30757 net.cpp:399] label_data_1_split -> label_data_1_split_2
I0403 12:45:50.796319 30757 net.cpp:141] Setting up label_data_1_split
I0403 12:45:50.796344 30757 net.cpp:148] Top shape: 100 (100)
I0403 12:45:50.796360 30757 net.cpp:148] Top shape: 100 (100)
I0403 12:45:50.796376 30757 net.cpp:148] Top shape: 100 (100)
I0403 12:45:50.796391 30757 net.cpp:156] Memory required for data: 61836400
I0403 12:45:50.796406 30757 layer_factory.hpp:77] Creating layer conv1
I0403 12:45:50.796437 30757 net.cpp:91] Creating Layer conv1
I0403 12:45:50.796457 30757 net.cpp:425] conv1 <- data
I0403 12:45:50.796476 30757 net.cpp:399] conv1 -> conv1
I0403 12:45:50.938534 30757 net.cpp:141] Setting up conv1
I0403 12:45:50.938626 30757 net.cpp:148] Top shape: 100 96 55 55 (29040000)
I0403 12:45:50.938642 30757 net.cpp:156] Memory required for data: 177996400
I0403 12:45:50.938675 30757 layer_factory.hpp:77] Creating layer relu1
I0403 12:45:50.938704 30757 net.cpp:91] Creating Layer relu1
I0403 12:45:50.938721 30757 net.cpp:425] relu1 <- conv1
I0403 12:45:50.938740 30757 net.cpp:386] relu1 -> conv1 (in-place)
I0403 12:45:50.939007 30757 net.cpp:141] Setting up relu1
I0403 12:45:50.939033 30757 net.cpp:148] Top shape: 100 96 55 55 (29040000)
I0403 12:45:50.939080 30757 net.cpp:156] Memory required for data: 294156400
I0403 12:45:50.939097 30757 layer_factory.hpp:77] Creating layer norm1
I0403 12:45:50.939124 30757 net.cpp:91] Creating Layer norm1
I0403 12:45:50.939142 30757 net.cpp:425] norm1 <- conv1
I0403 12:45:50.939160 30757 net.cpp:399] norm1 -> norm1
I0403 12:45:50.939522 30757 net.cpp:141] Setting up norm1
I0403 12:45:50.939550 30757 net.cpp:148] Top shape: 100 96 55 55 (29040000)
I0403 12:45:50.939566 30757 net.cpp:156] Memory required for data: 410316400
I0403 12:45:50.939581 30757 layer_factory.hpp:77] Creating layer pool1
I0403 12:45:50.939605 30757 net.cpp:91] Creating Layer pool1
I0403 12:45:50.939622 30757 net.cpp:425] pool1 <- norm1
I0403 12:45:50.939640 30757 net.cpp:399] pool1 -> pool1
I0403 12:45:50.939707 30757 net.cpp:141] Setting up pool1
I0403 12:45:50.939730 30757 net.cpp:148] Top shape: 100 96 27 27 (6998400)
I0403 12:45:50.939746 30757 net.cpp:156] Memory required for data: 438310000
I0403 12:45:50.939761 30757 layer_factory.hpp:77] Creating layer conv2
I0403 12:45:50.939785 30757 net.cpp:91] Creating Layer conv2
I0403 12:45:50.939801 30757 net.cpp:425] conv2 <- pool1
I0403 12:45:50.939818 30757 net.cpp:399] conv2 -> conv2
I0403 12:45:50.955467 30757 net.cpp:141] Setting up conv2
I0403 12:45:50.955526 30757 net.cpp:148] Top shape: 100 256 27 27 (18662400)
I0403 12:45:50.955543 30757 net.cpp:156] Memory required for data: 512959600
I0403 12:45:50.955566 30757 layer_factory.hpp:77] Creating layer relu2
I0403 12:45:50.955588 30757 net.cpp:91] Creating Layer relu2
I0403 12:45:50.955605 30757 net.cpp:425] relu2 <- conv2
I0403 12:45:50.955624 30757 net.cpp:386] relu2 -> conv2 (in-place)
I0403 12:45:50.955945 30757 net.cpp:141] Setting up relu2
I0403 12:45:50.955972 30757 net.cpp:148] Top shape: 100 256 27 27 (18662400)
I0403 12:45:50.955987 30757 net.cpp:156] Memory required for data: 587609200
I0403 12:45:50.956003 30757 layer_factory.hpp:77] Creating layer norm2
I0403 12:45:50.956027 30757 net.cpp:91] Creating Layer norm2
I0403 12:45:50.956043 30757 net.cpp:425] norm2 <- conv2
I0403 12:45:50.956064 30757 net.cpp:399] norm2 -> norm2
I0403 12:45:50.956269 30757 net.cpp:141] Setting up norm2
I0403 12:45:50.956296 30757 net.cpp:148] Top shape: 100 256 27 27 (18662400)
I0403 12:45:50.956311 30757 net.cpp:156] Memory required for data: 662258800
I0403 12:45:50.956326 30757 layer_factory.hpp:77] Creating layer pool2
I0403 12:45:50.956346 30757 net.cpp:91] Creating Layer pool2
I0403 12:45:50.956363 30757 net.cpp:425] pool2 <- norm2
I0403 12:45:50.956380 30757 net.cpp:399] pool2 -> pool2
I0403 12:45:50.956434 30757 net.cpp:141] Setting up pool2
I0403 12:45:50.956457 30757 net.cpp:148] Top shape: 100 256 13 13 (4326400)
I0403 12:45:50.956472 30757 net.cpp:156] Memory required for data: 679564400
I0403 12:45:50.956486 30757 layer_factory.hpp:77] Creating layer conv3
I0403 12:45:50.956511 30757 net.cpp:91] Creating Layer conv3
I0403 12:45:50.956527 30757 net.cpp:425] conv3 <- pool2
I0403 12:45:50.956547 30757 net.cpp:399] conv3 -> conv3
I0403 12:45:50.996274 30757 net.cpp:141] Setting up conv3
I0403 12:45:50.996358 30757 net.cpp:148] Top shape: 100 384 13 13 (6489600)
I0403 12:45:50.996376 30757 net.cpp:156] Memory required for data: 705522800
I0403 12:45:50.996404 30757 layer_factory.hpp:77] Creating layer relu3
I0403 12:45:50.996428 30757 net.cpp:91] Creating Layer relu3
I0403 12:45:50.996446 30757 net.cpp:425] relu3 <- conv3
I0403 12:45:50.996466 30757 net.cpp:386] relu3 -> conv3 (in-place)
I0403 12:45:50.996744 30757 net.cpp:141] Setting up relu3
I0403 12:45:50.996772 30757 net.cpp:148] Top shape: 100 384 13 13 (6489600)
I0403 12:45:50.996786 30757 net.cpp:156] Memory required for data: 731481200
I0403 12:45:50.996801 30757 layer_factory.hpp:77] Creating layer conv4
I0403 12:45:50.996829 30757 net.cpp:91] Creating Layer conv4
I0403 12:45:50.996847 30757 net.cpp:425] conv4 <- conv3
I0403 12:45:50.996868 30757 net.cpp:399] conv4 -> conv4
I0403 12:45:51.027894 30757 net.cpp:141] Setting up conv4
I0403 12:45:51.027942 30757 net.cpp:148] Top shape: 100 384 13 13 (6489600)
I0403 12:45:51.028003 30757 net.cpp:156] Memory required for data: 757439600
I0403 12:45:51.028025 30757 layer_factory.hpp:77] Creating layer relu4
I0403 12:45:51.028051 30757 net.cpp:91] Creating Layer relu4
I0403 12:45:51.028070 30757 net.cpp:425] relu4 <- conv4
I0403 12:45:51.028090 30757 net.cpp:386] relu4 -> conv4 (in-place)
I0403 12:45:51.028383 30757 net.cpp:141] Setting up relu4
I0403 12:45:51.028411 30757 net.cpp:148] Top shape: 100 384 13 13 (6489600)
I0403 12:45:51.028430 30757 net.cpp:156] Memory required for data: 783398000
I0403 12:45:51.028445 30757 layer_factory.hpp:77] Creating layer conv5
I0403 12:45:51.028470 30757 net.cpp:91] Creating Layer conv5
I0403 12:45:51.028487 30757 net.cpp:425] conv5 <- conv4
I0403 12:45:51.028508 30757 net.cpp:399] conv5 -> conv5
I0403 12:45:51.049599 30757 net.cpp:141] Setting up conv5
I0403 12:45:51.049662 30757 net.cpp:148] Top shape: 100 256 13 13 (4326400)
I0403 12:45:51.049677 30757 net.cpp:156] Memory required for data: 800703600
I0403 12:45:51.049701 30757 layer_factory.hpp:77] Creating layer relu5
I0403 12:45:51.049726 30757 net.cpp:91] Creating Layer relu5
I0403 12:45:51.049743 30757 net.cpp:425] relu5 <- conv5
I0403 12:45:51.049762 30757 net.cpp:386] relu5 -> conv5 (in-place)
I0403 12:45:51.050032 30757 net.cpp:141] Setting up relu5
I0403 12:45:51.050058 30757 net.cpp:148] Top shape: 100 256 13 13 (4326400)
I0403 12:45:51.050073 30757 net.cpp:156] Memory required for data: 818009200
I0403 12:45:51.050087 30757 layer_factory.hpp:77] Creating layer pool5
I0403 12:45:51.050113 30757 net.cpp:91] Creating Layer pool5
I0403 12:45:51.050132 30757 net.cpp:425] pool5 <- conv5
I0403 12:45:51.050151 30757 net.cpp:399] pool5 -> pool5
I0403 12:45:51.050210 30757 net.cpp:141] Setting up pool5
I0403 12:45:51.050233 30757 net.cpp:148] Top shape: 100 256 6 6 (921600)
I0403 12:45:51.050253 30757 net.cpp:156] Memory required for data: 821695600
I0403 12:45:51.050268 30757 layer_factory.hpp:77] Creating layer fc6
I0403 12:45:51.050297 30757 net.cpp:91] Creating Layer fc6
I0403 12:45:51.050315 30757 net.cpp:425] fc6 <- pool5
I0403 12:45:51.050333 30757 net.cpp:399] fc6 -> fc6
I0403 12:45:52.603888 30757 net.cpp:141] Setting up fc6
I0403 12:45:52.603977 30757 net.cpp:148] Top shape: 100 4096 (409600)
I0403 12:45:52.603993 30757 net.cpp:156] Memory required for data: 823334000
I0403 12:45:52.604013 30757 layer_factory.hpp:77] Creating layer relu6
I0403 12:45:52.604035 30757 net.cpp:91] Creating Layer relu6
I0403 12:45:52.604053 30757 net.cpp:425] relu6 <- fc6
I0403 12:45:52.604075 30757 net.cpp:386] relu6 -> fc6 (in-place)
I0403 12:45:52.604308 30757 net.cpp:141] Setting up relu6
I0403 12:45:52.604333 30757 net.cpp:148] Top shape: 100 4096 (409600)
I0403 12:45:52.604348 30757 net.cpp:156] Memory required for data: 824972400
I0403 12:45:52.604363 30757 layer_factory.hpp:77] Creating layer drop6
I0403 12:45:52.604384 30757 net.cpp:91] Creating Layer drop6
I0403 12:45:52.604401 30757 net.cpp:425] drop6 <- fc6
I0403 12:45:52.604418 30757 net.cpp:386] drop6 -> fc6 (in-place)
I0403 12:45:52.604471 30757 net.cpp:141] Setting up drop6
I0403 12:45:52.604493 30757 net.cpp:148] Top shape: 100 4096 (409600)
I0403 12:45:52.604507 30757 net.cpp:156] Memory required for data: 826610800
I0403 12:45:52.604521 30757 layer_factory.hpp:77] Creating layer fc7
I0403 12:45:52.604542 30757 net.cpp:91] Creating Layer fc7
I0403 12:45:52.604557 30757 net.cpp:425] fc7 <- fc6
I0403 12:45:52.604576 30757 net.cpp:399] fc7 -> fc7
I0403 12:45:53.308557 30757 net.cpp:141] Setting up fc7
I0403 12:45:53.308650 30757 net.cpp:148] Top shape: 100 4096 (409600)
I0403 12:45:53.308667 30757 net.cpp:156] Memory required for data: 828249200
I0403 12:45:53.308688 30757 layer_factory.hpp:77] Creating layer relu7
I0403 12:45:53.308711 30757 net.cpp:91] Creating Layer relu7
I0403 12:45:53.308727 30757 net.cpp:425] relu7 <- fc7
I0403 12:45:53.308747 30757 net.cpp:386] relu7 -> fc7 (in-place)
I0403 12:45:53.309166 30757 net.cpp:141] Setting up relu7
I0403 12:45:53.309192 30757 net.cpp:148] Top shape: 100 4096 (409600)
I0403 12:45:53.309245 30757 net.cpp:156] Memory required for data: 829887600
I0403 12:45:53.309262 30757 layer_factory.hpp:77] Creating layer drop7
I0403 12:45:53.309284 30757 net.cpp:91] Creating Layer drop7
I0403 12:45:53.309301 30757 net.cpp:425] drop7 <- fc7
I0403 12:45:53.309319 30757 net.cpp:386] drop7 -> fc7 (in-place)
I0403 12:45:53.309363 30757 net.cpp:141] Setting up drop7
I0403 12:45:53.309386 30757 net.cpp:148] Top shape: 100 4096 (409600)
I0403 12:45:53.309401 30757 net.cpp:156] Memory required for data: 831526000
I0403 12:45:53.309415 30757 layer_factory.hpp:77] Creating layer fc8_plantvillage
I0403 12:45:53.309435 30757 net.cpp:91] Creating Layer fc8_plantvillage
I0403 12:45:53.309453 30757 net.cpp:425] fc8_plantvillage <- fc7
I0403 12:45:53.309470 30757 net.cpp:399] fc8_plantvillage -> fc8_plantvillage
I0403 12:45:53.316179 30757 net.cpp:141] Setting up fc8_plantvillage
I0403 12:45:53.316208 30757 net.cpp:148] Top shape: 100 38 (3800)
I0403 12:45:53.316223 30757 net.cpp:156] Memory required for data: 831541200
I0403 12:45:53.316246 30757 layer_factory.hpp:77] Creating layer fc8_plantvillage_fc8_plantvillage_0_split
I0403 12:45:53.316268 30757 net.cpp:91] Creating Layer fc8_plantvillage_fc8_plantvillage_0_split
I0403 12:45:53.316285 30757 net.cpp:425] fc8_plantvillage_fc8_plantvillage_0_split <- fc8_plantvillage
I0403 12:45:53.316303 30757 net.cpp:399] fc8_plantvillage_fc8_plantvillage_0_split -> fc8_plantvillage_fc8_plantvillage_0_split_0
I0403 12:45:53.316323 30757 net.cpp:399] fc8_plantvillage_fc8_plantvillage_0_split -> fc8_plantvillage_fc8_plantvillage_0_split_1
I0403 12:45:53.316345 30757 net.cpp:399] fc8_plantvillage_fc8_plantvillage_0_split -> fc8_plantvillage_fc8_plantvillage_0_split_2
I0403 12:45:53.316422 30757 net.cpp:141] Setting up fc8_plantvillage_fc8_plantvillage_0_split
I0403 12:45:53.316445 30757 net.cpp:148] Top shape: 100 38 (3800)
I0403 12:45:53.316462 30757 net.cpp:148] Top shape: 100 38 (3800)
I0403 12:45:53.316476 30757 net.cpp:148] Top shape: 100 38 (3800)
I0403 12:45:53.316490 30757 net.cpp:156] Memory required for data: 831586800
I0403 12:45:53.316504 30757 layer_factory.hpp:77] Creating layer prob
I0403 12:45:53.316525 30757 net.cpp:91] Creating Layer prob
I0403 12:45:53.316540 30757 net.cpp:425] prob <- fc8_plantvillage_fc8_plantvillage_0_split_0
I0403 12:45:53.316560 30757 net.cpp:399] prob -> prob
I0403 12:45:53.316787 30757 net.cpp:141] Setting up prob
I0403 12:45:53.316812 30757 net.cpp:148] Top shape: 100 38 (3800)
I0403 12:45:53.316828 30757 net.cpp:156] Memory required for data: 831602000
I0403 12:45:53.316843 30757 layer_factory.hpp:77] Creating layer hdf5out
I0403 12:45:53.316864 30757 net.cpp:91] Creating Layer hdf5out
I0403 12:45:53.316879 30757 net.cpp:425] hdf5out <- prob
I0403 12:45:53.316895 30757 net.cpp:425] hdf5out <- label_data_1_split_0
I0403 12:45:53.319088 30757 net.cpp:141] Setting up hdf5out
…
