…
I0403 12:49:46.137926 30864 net.cpp:313] The NetState phase (1) differed from the phase (0) specified by a rule in layer data
I0403 12:49:46.138226 30864 net.cpp:49] Initializing net from parameters: 
state {
  phase: TEST
}
layer {
  name: "data"
  type: "Data"
  top: "data"
  top: "label"
  include {
    phase: TEST
  }
  transform_param {
    crop_size: 227
    mean_file: "/home/mohanty/data/final_dataset/lmdb/segmented-40-60/mean.binaryproto"
  }
  data_param {
    source: "/home/mohanty/data/final_dataset/lmdb/segmented-40-60/test_db"
    batch_size: 100
    backend: LMDB
  }
}
layer {
  name: "conv1"
  type: "Convolution"
  bottom: "data"
  top: "conv1"
  param {
    lr_mult: 1
    decay_mult: 1
  }
  param {
    lr_mult: 2
    decay_mult: 0
  }
  convolution_param {
    num_output: 96
    kernel_size: 11
    stride: 4
    weight_filler {
      type: "gaussian"
      std: 0.01
    }
    bias_filler {
      type: "constant"
      value: 0
    }
  }
}
layer {
  name: "relu1"
  type: "ReLU"
  bottom: "conv1"
  top: "conv1"
}
layer {
  name: "norm1"
  type: "LRN"
  bottom: "conv1"
  top: "norm1"
  lrn_param {
    local_size: 5
    alpha: 0.0001
    beta: 0.75
  }
}
layer {
  name: "pool1"
  type: "Pooling"
  bottom: "norm1"
  top: "pool1"
  pooling_param {
    pool: MAX
    kernel_size: 3
    stride: 2
  }
}
layer {
  name: "conv2"
  type: "Convolution"
  bottom: "pool1"
  top: "conv2"
  param {
    lr_mult: 1
    decay_mult: 1
  }
  param {
    lr_mult: 2
    decay_mult: 0
  }
  convolution_param {
    num_output: 256
    pad: 2
    kernel_size: 5
    group: 2
    weight_filler {
      type: "gaussian"
      std: 0.01
    }
    bias_filler {
      type: "constant"
      value: 0.1
    }
  }
}
layer {
  name: "relu2"
  type: "ReLU"
  bottom: "conv2"
  top: "conv2"
}
layer {
  name: "norm2"
  type: "LRN"
  bottom: "conv2"
  top: "norm2"
  lrn_param {
    local_size: 5
    alpha: 0.0001
    beta: 0.75
  }
}
layer {
  name: "pool2"
  type: "Pooling"
  bottom: "norm2"
  top: "pool2"
  pooling_param {
    pool: MAX
    kernel_size: 3
    stride: 2
  }
}
layer {
  name: "conv3"
  type: "Convolution"
  bottom: "pool2"
  top: "conv3"
  param {
    lr_mult: 1
    decay_mult: 1
  }
  param {
    lr_mult: 2
    decay_mult: 0
  }
  convolution_param {
    num_output: 384
    pad: 1
    kernel_size: 3
    weight_filler {
      type: "gaussian"
      std: 0.01
    }
    bias_filler {
      type: "constant"
      value: 0
    }
  }
}
layer {
  name: "relu3"
  type: "ReLU"
  bottom: "conv3"
  top: "conv3"
}
layer {
  name: "conv4"
  type: "Convolution"
  bottom: "conv3"
  top: "conv4"
  param {
    lr_mult: 1
    decay_mult: 1
  }
  param {
    lr_mult: 2
    decay_mult: 0
  }
  convolution_param {
    num_output: 384
    pad: 1
    kernel_size: 3
    group: 2
    weight_filler {
      type: "gaussian"
      std: 0.01
    }
    bias_filler {
      type: "constant"
      value: 0.1
    }
  }
}
layer {
  name: "relu4"
  type: "ReLU"
  bottom: "conv4"
  top: "conv4"
}
layer {
  name: "conv5"
  type: "Convolution"
  bottom: "conv4"
  top: "conv5"
  param {
    lr_mult: 1
    decay_mult: 1
  }
  param {
    lr_mult: 2
    decay_mult: 0
  }
  convolution_param {
    num_output: 256
    pad: 1
    kernel_size: 3
    group: 2
    weight_filler {
      type: "gaussian"
      std: 0.01
    }
    bias_filler {
      type: "constant"
      value: 0.1
    }
  }
}
layer {
  name: "relu5"
  type: "ReLU"
  bottom: "conv5"
  top: "conv5"
}
layer {
  name: "pool5"
  type: "Pooling"
  bottom: "conv5"
  top: "pool5"
  pooling_param {
    pool: MAX
    kernel_size: 3
    stride: 2
  }
}
layer {
  name: "fc6"
  type: "InnerProduct"
  bottom: "pool5"
  top: "fc6"
  param {
    lr_mult: 1
    decay_mult: 1
  }
  param {
    lr_mult: 2
    decay_mult: 0
  }
  inner_product_param {
    num_output: 4096
    weight_filler {
      type: "gaussian"
      std: 0.005
    }
    bias_filler {
      type: "constant"
      value: 0.1
    }
  }
}
layer {
  name: "relu6"
  type: "ReLU"
  bottom: "fc6"
  top: "fc6"
}
layer {
  name: "drop6"
  type: "Dropout"
  bottom: "fc6"
  top: "fc6"
  dropout_param {
    dropout_ratio: 0.5
  }
}
layer {
  name: "fc7"
  type: "InnerProduct"
  bottom: "fc6"
  top: "fc7"
  param {
    lr_mult: 1
    decay_mult: 1
  }
  param {
    lr_mult: 2
    decay_mult: 0
  }
  inner_product_param {
    num_output: 4096
    weight_filler {
      type: "gaussian"
      std: 0.005
    }
    bias_filler {
      type: "constant"
      value: 0.1
    }
  }
}
layer {
  name: "relu7"
  type: "ReLU"
  bottom: "fc7"
  top: "fc7"
}
layer {
  name: "drop7"
  type: "Dropout"
  bottom: "fc7"
  top: "fc7"
  dropout_param {
    dropout_ratio: 0.5
  }
}
layer {
  name: "fc8_plantvillage"
  type: "InnerProduct"
  bottom: "fc7"
  top: "fc8_plantvillage"
  param {
    lr_mult: 1
    decay_mult: 1
  }
  param {
    lr_mult: 2
    decay_mult: 0
  }
  inner_product_param {
    num_output: 38
    weight_filler {
      type: "gaussian"
      std: 0.01
    }
    bias_filler {
      type: "constant"
      value: 0
    }
  }
}
layer {
  name: "prob"
  type: "Softmax"
  bottom: "fc8_plantvillage"
  top: "prob"
  include {
    phase: TEST
  }
}
layer {
  name: "hdf5out"
  type: "HDF5Output"
  bottom: "prob"
  bottom: "label"
  include {
    phase: TEST
  }
  hdf5_output_param {
    file_name: "hdf5_dumps/iter_3723.h5"
  }
}
layer {
  name: "loss"
  type: "SoftmaxWithLoss"
  bottom: "fc8_plantvillage"
  bottom: "label"
  top: "loss"
}
layer {
  name: "accuracy"
  type: "Accuracy"
  bottom: "fc8_plantvillage"
  bottom: "label"
  top: "accuracy"
  include {
    phase: TEST
  }
}
I0403 12:49:46.138866 30864 layer_factory.hpp:77] Creating layer data
I0403 12:49:46.139523 30864 net.cpp:91] Creating Layer data
I0403 12:49:46.139552 30864 net.cpp:399] data -> data
I0403 12:49:46.139603 30864 net.cpp:399] data -> label
I0403 12:49:46.139642 30864 data_transformer.cpp:25] Loading mean file from: /home/mohanty/data/final_dataset/lmdb/segmented-40-60/mean.binaryproto
I0403 12:49:46.140820 30867 db_lmdb.cpp:38] Opened lmdb /home/mohanty/data/final_dataset/lmdb/segmented-40-60/test_db
I0403 12:49:46.154449 30864 data_layer.cpp:41] output data size: 100,3,227,227
I0403 12:49:46.277302 30864 net.cpp:141] Setting up data
I0403 12:49:46.277405 30864 net.cpp:148] Top shape: 100 3 227 227 (15458700)
I0403 12:49:46.277428 30864 net.cpp:148] Top shape: 100 (100)
I0403 12:49:46.277444 30864 net.cpp:156] Memory required for data: 61835200
I0403 12:49:46.277472 30864 layer_factory.hpp:77] Creating layer label_data_1_split
I0403 12:49:46.277498 30864 net.cpp:91] Creating Layer label_data_1_split
I0403 12:49:46.277516 30864 net.cpp:425] label_data_1_split <- label
I0403 12:49:46.277549 30864 net.cpp:399] label_data_1_split -> label_data_1_split_0
I0403 12:49:46.277576 30864 net.cpp:399] label_data_1_split -> label_data_1_split_1
I0403 12:49:46.277596 30864 net.cpp:399] label_data_1_split -> label_data_1_split_2
I0403 12:49:46.277662 30864 net.cpp:141] Setting up label_data_1_split
I0403 12:49:46.277686 30864 net.cpp:148] Top shape: 100 (100)
I0403 12:49:46.277704 30864 net.cpp:148] Top shape: 100 (100)
I0403 12:49:46.277720 30864 net.cpp:148] Top shape: 100 (100)
I0403 12:49:46.277734 30864 net.cpp:156] Memory required for data: 61836400
I0403 12:49:46.277750 30864 layer_factory.hpp:77] Creating layer conv1
I0403 12:49:46.277782 30864 net.cpp:91] Creating Layer conv1
I0403 12:49:46.277801 30864 net.cpp:425] conv1 <- data
I0403 12:49:46.277822 30864 net.cpp:399] conv1 -> conv1
I0403 12:49:46.418640 30864 net.cpp:141] Setting up conv1
I0403 12:49:46.418731 30864 net.cpp:148] Top shape: 100 96 55 55 (29040000)
I0403 12:49:46.418751 30864 net.cpp:156] Memory required for data: 177996400
I0403 12:49:46.418782 30864 layer_factory.hpp:77] Creating layer relu1
I0403 12:49:46.418810 30864 net.cpp:91] Creating Layer relu1
I0403 12:49:46.418830 30864 net.cpp:425] relu1 <- conv1
I0403 12:49:46.418850 30864 net.cpp:386] relu1 -> conv1 (in-place)
I0403 12:49:46.419117 30864 net.cpp:141] Setting up relu1
I0403 12:49:46.419145 30864 net.cpp:148] Top shape: 100 96 55 55 (29040000)
I0403 12:49:46.419193 30864 net.cpp:156] Memory required for data: 294156400
I0403 12:49:46.419210 30864 layer_factory.hpp:77] Creating layer norm1
I0403 12:49:46.419239 30864 net.cpp:91] Creating Layer norm1
I0403 12:49:46.419257 30864 net.cpp:425] norm1 <- conv1
I0403 12:49:46.419280 30864 net.cpp:399] norm1 -> norm1
I0403 12:49:46.419603 30864 net.cpp:141] Setting up norm1
I0403 12:49:46.419631 30864 net.cpp:148] Top shape: 100 96 55 55 (29040000)
I0403 12:49:46.419648 30864 net.cpp:156] Memory required for data: 410316400
I0403 12:49:46.419666 30864 layer_factory.hpp:77] Creating layer pool1
I0403 12:49:46.419689 30864 net.cpp:91] Creating Layer pool1
I0403 12:49:46.419708 30864 net.cpp:425] pool1 <- norm1
I0403 12:49:46.419726 30864 net.cpp:399] pool1 -> pool1
I0403 12:49:46.419795 30864 net.cpp:141] Setting up pool1
I0403 12:49:46.419821 30864 net.cpp:148] Top shape: 100 96 27 27 (6998400)
I0403 12:49:46.419836 30864 net.cpp:156] Memory required for data: 438310000
I0403 12:49:46.419852 30864 layer_factory.hpp:77] Creating layer conv2
I0403 12:49:46.419878 30864 net.cpp:91] Creating Layer conv2
I0403 12:49:46.419896 30864 net.cpp:425] conv2 <- pool1
I0403 12:49:46.419914 30864 net.cpp:399] conv2 -> conv2
I0403 12:49:46.435359 30864 net.cpp:141] Setting up conv2
I0403 12:49:46.435415 30864 net.cpp:148] Top shape: 100 256 27 27 (18662400)
I0403 12:49:46.435434 30864 net.cpp:156] Memory required for data: 512959600
I0403 12:49:46.435462 30864 layer_factory.hpp:77] Creating layer relu2
I0403 12:49:46.435484 30864 net.cpp:91] Creating Layer relu2
I0403 12:49:46.435502 30864 net.cpp:425] relu2 <- conv2
I0403 12:49:46.435520 30864 net.cpp:386] relu2 -> conv2 (in-place)
I0403 12:49:46.435817 30864 net.cpp:141] Setting up relu2
I0403 12:49:46.435847 30864 net.cpp:148] Top shape: 100 256 27 27 (18662400)
I0403 12:49:46.435863 30864 net.cpp:156] Memory required for data: 587609200
I0403 12:49:46.435879 30864 layer_factory.hpp:77] Creating layer norm2
I0403 12:49:46.435900 30864 net.cpp:91] Creating Layer norm2
I0403 12:49:46.435917 30864 net.cpp:425] norm2 <- conv2
I0403 12:49:46.435940 30864 net.cpp:399] norm2 -> norm2
I0403 12:49:46.436151 30864 net.cpp:141] Setting up norm2
I0403 12:49:46.436177 30864 net.cpp:148] Top shape: 100 256 27 27 (18662400)
I0403 12:49:46.436193 30864 net.cpp:156] Memory required for data: 662258800
I0403 12:49:46.436209 30864 layer_factory.hpp:77] Creating layer pool2
I0403 12:49:46.436231 30864 net.cpp:91] Creating Layer pool2
I0403 12:49:46.436247 30864 net.cpp:425] pool2 <- norm2
I0403 12:49:46.436265 30864 net.cpp:399] pool2 -> pool2
I0403 12:49:46.436328 30864 net.cpp:141] Setting up pool2
I0403 12:49:46.436353 30864 net.cpp:148] Top shape: 100 256 13 13 (4326400)
I0403 12:49:46.436369 30864 net.cpp:156] Memory required for data: 679564400
I0403 12:49:46.436386 30864 layer_factory.hpp:77] Creating layer conv3
I0403 12:49:46.436411 30864 net.cpp:91] Creating Layer conv3
I0403 12:49:46.436429 30864 net.cpp:425] conv3 <- pool2
I0403 12:49:46.436451 30864 net.cpp:399] conv3 -> conv3
I0403 12:49:46.476099 30864 net.cpp:141] Setting up conv3
I0403 12:49:46.476184 30864 net.cpp:148] Top shape: 100 384 13 13 (6489600)
I0403 12:49:46.476202 30864 net.cpp:156] Memory required for data: 705522800
I0403 12:49:46.476228 30864 layer_factory.hpp:77] Creating layer relu3
I0403 12:49:46.476254 30864 net.cpp:91] Creating Layer relu3
I0403 12:49:46.476277 30864 net.cpp:425] relu3 <- conv3
I0403 12:49:46.476300 30864 net.cpp:386] relu3 -> conv3 (in-place)
I0403 12:49:46.476595 30864 net.cpp:141] Setting up relu3
I0403 12:49:46.476624 30864 net.cpp:148] Top shape: 100 384 13 13 (6489600)
I0403 12:49:46.476639 30864 net.cpp:156] Memory required for data: 731481200
I0403 12:49:46.476655 30864 layer_factory.hpp:77] Creating layer conv4
I0403 12:49:46.476687 30864 net.cpp:91] Creating Layer conv4
I0403 12:49:46.476706 30864 net.cpp:425] conv4 <- conv3
I0403 12:49:46.476725 30864 net.cpp:399] conv4 -> conv4
I0403 12:49:46.507540 30864 net.cpp:141] Setting up conv4
I0403 12:49:46.507618 30864 net.cpp:148] Top shape: 100 384 13 13 (6489600)
I0403 12:49:46.507668 30864 net.cpp:156] Memory required for data: 757439600
I0403 12:49:46.507690 30864 layer_factory.hpp:77] Creating layer relu4
I0403 12:49:46.507717 30864 net.cpp:91] Creating Layer relu4
I0403 12:49:46.507736 30864 net.cpp:425] relu4 <- conv4
I0403 12:49:46.507756 30864 net.cpp:386] relu4 -> conv4 (in-place)
I0403 12:49:46.508059 30864 net.cpp:141] Setting up relu4
I0403 12:49:46.508086 30864 net.cpp:148] Top shape: 100 384 13 13 (6489600)
I0403 12:49:46.508102 30864 net.cpp:156] Memory required for data: 783398000
I0403 12:49:46.508119 30864 layer_factory.hpp:77] Creating layer conv5
I0403 12:49:46.508147 30864 net.cpp:91] Creating Layer conv5
I0403 12:49:46.508167 30864 net.cpp:425] conv5 <- conv4
I0403 12:49:46.508189 30864 net.cpp:399] conv5 -> conv5
I0403 12:49:46.529402 30864 net.cpp:141] Setting up conv5
I0403 12:49:46.529438 30864 net.cpp:148] Top shape: 100 256 13 13 (4326400)
I0403 12:49:46.529455 30864 net.cpp:156] Memory required for data: 800703600
I0403 12:49:46.529482 30864 layer_factory.hpp:77] Creating layer relu5
I0403 12:49:46.529505 30864 net.cpp:91] Creating Layer relu5
I0403 12:49:46.529522 30864 net.cpp:425] relu5 <- conv5
I0403 12:49:46.529541 30864 net.cpp:386] relu5 -> conv5 (in-place)
I0403 12:49:46.529830 30864 net.cpp:141] Setting up relu5
I0403 12:49:46.529857 30864 net.cpp:148] Top shape: 100 256 13 13 (4326400)
I0403 12:49:46.529875 30864 net.cpp:156] Memory required for data: 818009200
I0403 12:49:46.529891 30864 layer_factory.hpp:77] Creating layer pool5
I0403 12:49:46.529913 30864 net.cpp:91] Creating Layer pool5
I0403 12:49:46.529932 30864 net.cpp:425] pool5 <- conv5
I0403 12:49:46.529953 30864 net.cpp:399] pool5 -> pool5
I0403 12:49:46.530014 30864 net.cpp:141] Setting up pool5
I0403 12:49:46.530038 30864 net.cpp:148] Top shape: 100 256 6 6 (921600)
I0403 12:49:46.530055 30864 net.cpp:156] Memory required for data: 821695600
I0403 12:49:46.530071 30864 layer_factory.hpp:77] Creating layer fc6
I0403 12:49:46.530100 30864 net.cpp:91] Creating Layer fc6
I0403 12:49:46.530119 30864 net.cpp:425] fc6 <- pool5
I0403 12:49:46.530140 30864 net.cpp:399] fc6 -> fc6
I0403 12:49:48.142856 30864 net.cpp:141] Setting up fc6
I0403 12:49:48.142946 30864 net.cpp:148] Top shape: 100 4096 (409600)
I0403 12:49:48.142961 30864 net.cpp:156] Memory required for data: 823334000
I0403 12:49:48.142982 30864 layer_factory.hpp:77] Creating layer relu6
I0403 12:49:48.143004 30864 net.cpp:91] Creating Layer relu6
I0403 12:49:48.143023 30864 net.cpp:425] relu6 <- fc6
I0403 12:49:48.143044 30864 net.cpp:386] relu6 -> fc6 (in-place)
I0403 12:49:48.143267 30864 net.cpp:141] Setting up relu6
I0403 12:49:48.143302 30864 net.cpp:148] Top shape: 100 4096 (409600)
I0403 12:49:48.143317 30864 net.cpp:156] Memory required for data: 824972400
I0403 12:49:48.143333 30864 layer_factory.hpp:77] Creating layer drop6
I0403 12:49:48.143355 30864 net.cpp:91] Creating Layer drop6
I0403 12:49:48.143373 30864 net.cpp:425] drop6 <- fc6
I0403 12:49:48.143389 30864 net.cpp:386] drop6 -> fc6 (in-place)
I0403 12:49:48.143442 30864 net.cpp:141] Setting up drop6
I0403 12:49:48.143466 30864 net.cpp:148] Top shape: 100 4096 (409600)
I0403 12:49:48.143481 30864 net.cpp:156] Memory required for data: 826610800
I0403 12:49:48.143496 30864 layer_factory.hpp:77] Creating layer fc7
I0403 12:49:48.143517 30864 net.cpp:91] Creating Layer fc7
I0403 12:49:48.143534 30864 net.cpp:425] fc7 <- fc6
I0403 12:49:48.143553 30864 net.cpp:399] fc7 -> fc7
I0403 12:49:48.833818 30864 net.cpp:141] Setting up fc7
I0403 12:49:48.833904 30864 net.cpp:148] Top shape: 100 4096 (409600)
I0403 12:49:48.833921 30864 net.cpp:156] Memory required for data: 828249200
I0403 12:49:48.833941 30864 layer_factory.hpp:77] Creating layer relu7
I0403 12:49:48.833966 30864 net.cpp:91] Creating Layer relu7
I0403 12:49:48.833983 30864 net.cpp:425] relu7 <- fc7
I0403 12:49:48.834003 30864 net.cpp:386] relu7 -> fc7 (in-place)
I0403 12:49:48.834420 30864 net.cpp:141] Setting up relu7
I0403 12:49:48.834446 30864 net.cpp:148] Top shape: 100 4096 (409600)
I0403 12:49:48.834493 30864 net.cpp:156] Memory required for data: 829887600
I0403 12:49:48.834508 30864 layer_factory.hpp:77] Creating layer drop7
I0403 12:49:48.834529 30864 net.cpp:91] Creating Layer drop7
I0403 12:49:48.834547 30864 net.cpp:425] drop7 <- fc7
I0403 12:49:48.834563 30864 net.cpp:386] drop7 -> fc7 (in-place)
I0403 12:49:48.834609 30864 net.cpp:141] Setting up drop7
I0403 12:49:48.834630 30864 net.cpp:148] Top shape: 100 4096 (409600)
I0403 12:49:48.834645 30864 net.cpp:156] Memory required for data: 831526000
I0403 12:49:48.834659 30864 layer_factory.hpp:77] Creating layer fc8_plantvillage
I0403 12:49:48.834678 30864 net.cpp:91] Creating Layer fc8_plantvillage
I0403 12:49:48.834694 30864 net.cpp:425] fc8_plantvillage <- fc7
I0403 12:49:48.834714 30864 net.cpp:399] fc8_plantvillage -> fc8_plantvillage
I0403 12:49:48.841481 30864 net.cpp:141] Setting up fc8_plantvillage
I0403 12:49:48.841511 30864 net.cpp:148] Top shape: 100 38 (3800)
I0403 12:49:48.841527 30864 net.cpp:156] Memory required for data: 831541200
I0403 12:49:48.841545 30864 layer_factory.hpp:77] Creating layer fc8_plantvillage_fc8_plantvillage_0_split
I0403 12:49:48.841563 30864 net.cpp:91] Creating Layer fc8_plantvillage_fc8_plantvillage_0_split
I0403 12:49:48.841578 30864 net.cpp:425] fc8_plantvillage_fc8_plantvillage_0_split <- fc8_plantvillage
I0403 12:49:48.841596 30864 net.cpp:399] fc8_plantvillage_fc8_plantvillage_0_split -> fc8_plantvillage_fc8_plantvillage_0_split_0
I0403 12:49:48.841615 30864 net.cpp:399] fc8_plantvillage_fc8_plantvillage_0_split -> fc8_plantvillage_fc8_plantvillage_0_split_1
I0403 12:49:48.841635 30864 net.cpp:399] fc8_plantvillage_fc8_plantvillage_0_split -> fc8_plantvillage_fc8_plantvillage_0_split_2
I0403 12:49:48.841712 30864 net.cpp:141] Setting up fc8_plantvillage_fc8_plantvillage_0_split
I0403 12:49:48.841737 30864 net.cpp:148] Top shape: 100 38 (3800)
I0403 12:49:48.841753 30864 net.cpp:148] Top shape: 100 38 (3800)
I0403 12:49:48.841768 30864 net.cpp:148] Top shape: 100 38 (3800)
I0403 12:49:48.841781 30864 net.cpp:156] Memory required for data: 831586800
I0403 12:49:48.841796 30864 layer_factory.hpp:77] Creating layer prob
I0403 12:49:48.841814 30864 net.cpp:91] Creating Layer prob
I0403 12:49:48.841830 30864 net.cpp:425] prob <- fc8_plantvillage_fc8_plantvillage_0_split_0
I0403 12:49:48.841848 30864 net.cpp:399] prob -> prob
I0403 12:49:48.842078 30864 net.cpp:141] Setting up prob
I0403 12:49:48.842103 30864 net.cpp:148] Top shape: 100 38 (3800)
I0403 12:49:48.842118 30864 net.cpp:156] Memory required for data: 831602000
I0403 12:49:48.842133 30864 layer_factory.hpp:77] Creating layer hdf5out
I0403 12:49:48.842157 30864 net.cpp:91] Creating Layer hdf5out
I0403 12:49:48.842175 30864 net.cpp:425] hdf5out <- prob
I0403 12:49:48.842192 30864 net.cpp:425] hdf5out <- label_data_1_split_0
I0403 12:49:48.844301 30864 net.cpp:141] Setting up hdf5out
…
