…
I0403 12:33:59.610601 30430 net.cpp:313] The NetState phase (1) differed from the phase (0) specified by a rule in layer data
I0403 12:33:59.611336 30430 net.cpp:49] Initializing net from parameters: 
state {
  phase: TEST
}
layer {
  name: "data"
  type: "Data"
  top: "data"
  top: "label"
  include {
    phase: TEST
  }
  transform_param {
    crop_size: 227
    mean_file: "/home/mohanty/data/final_dataset/lmdb/segmented-40-60/mean.binaryproto"
  }
  data_param {
    source: "/home/mohanty/data/final_dataset/lmdb/segmented-40-60/test_db"
    batch_size: 100
    backend: LMDB
  }
}
layer {
  name: "conv1"
  type: "Convolution"
  bottom: "data"
  top: "conv1"
  param {
    lr_mult: 1
    decay_mult: 1
  }
  param {
    lr_mult: 2
    decay_mult: 0
  }
  convolution_param {
    num_output: 96
    kernel_size: 11
    stride: 4
    weight_filler {
      type: "gaussian"
      std: 0.01
    }
    bias_filler {
      type: "constant"
      value: 0
    }
  }
}
layer {
  name: "relu1"
  type: "ReLU"
  bottom: "conv1"
  top: "conv1"
}
layer {
  name: "norm1"
  type: "LRN"
  bottom: "conv1"
  top: "norm1"
  lrn_param {
    local_size: 5
    alpha: 0.0001
    beta: 0.75
  }
}
layer {
  name: "pool1"
  type: "Pooling"
  bottom: "norm1"
  top: "pool1"
  pooling_param {
    pool: MAX
    kernel_size: 3
    stride: 2
  }
}
layer {
  name: "conv2"
  type: "Convolution"
  bottom: "pool1"
  top: "conv2"
  param {
    lr_mult: 1
    decay_mult: 1
  }
  param {
    lr_mult: 2
    decay_mult: 0
  }
  convolution_param {
    num_output: 256
    pad: 2
    kernel_size: 5
    group: 2
    weight_filler {
      type: "gaussian"
      std: 0.01
    }
    bias_filler {
      type: "constant"
      value: 0.1
    }
  }
}
layer {
  name: "relu2"
  type: "ReLU"
  bottom: "conv2"
  top: "conv2"
}
layer {
  name: "norm2"
  type: "LRN"
  bottom: "conv2"
  top: "norm2"
  lrn_param {
    local_size: 5
    alpha: 0.0001
    beta: 0.75
  }
}
layer {
  name: "pool2"
  type: "Pooling"
  bottom: "norm2"
  top: "pool2"
  pooling_param {
    pool: MAX
    kernel_size: 3
    stride: 2
  }
}
layer {
  name: "conv3"
  type: "Convolution"
  bottom: "pool2"
  top: "conv3"
  param {
    lr_mult: 1
    decay_mult: 1
  }
  param {
    lr_mult: 2
    decay_mult: 0
  }
  convolution_param {
    num_output: 384
    pad: 1
    kernel_size: 3
    weight_filler {
      type: "gaussian"
      std: 0.01
    }
    bias_filler {
      type: "constant"
      value: 0
    }
  }
}
layer {
  name: "relu3"
  type: "ReLU"
  bottom: "conv3"
  top: "conv3"
}
layer {
  name: "conv4"
  type: "Convolution"
  bottom: "conv3"
  top: "conv4"
  param {
    lr_mult: 1
    decay_mult: 1
  }
  param {
    lr_mult: 2
    decay_mult: 0
  }
  convolution_param {
    num_output: 384
    pad: 1
    kernel_size: 3
    group: 2
    weight_filler {
      type: "gaussian"
      std: 0.01
    }
    bias_filler {
      type: "constant"
      value: 0.1
    }
  }
}
layer {
  name: "relu4"
  type: "ReLU"
  bottom: "conv4"
  top: "conv4"
}
layer {
  name: "conv5"
  type: "Convolution"
  bottom: "conv4"
  top: "conv5"
  param {
    lr_mult: 1
    decay_mult: 1
  }
  param {
    lr_mult: 2
    decay_mult: 0
  }
  convolution_param {
    num_output: 256
    pad: 1
    kernel_size: 3
    group: 2
    weight_filler {
      type: "gaussian"
      std: 0.01
    }
    bias_filler {
      type: "constant"
      value: 0.1
    }
  }
}
layer {
  name: "relu5"
  type: "ReLU"
  bottom: "conv5"
  top: "conv5"
}
layer {
  name: "pool5"
  type: "Pooling"
  bottom: "conv5"
  top: "pool5"
  pooling_param {
    pool: MAX
    kernel_size: 3
    stride: 2
  }
}
layer {
  name: "fc6"
  type: "InnerProduct"
  bottom: "pool5"
  top: "fc6"
  param {
    lr_mult: 1
    decay_mult: 1
  }
  param {
    lr_mult: 2
    decay_mult: 0
  }
  inner_product_param {
    num_output: 4096
    weight_filler {
      type: "gaussian"
      std: 0.005
    }
    bias_filler {
      type: "constant"
      value: 0.1
    }
  }
}
layer {
  name: "relu6"
  type: "ReLU"
  bottom: "fc6"
  top: "fc6"
}
layer {
  name: "drop6"
  type: "Dropout"
  bottom: "fc6"
  top: "fc6"
  dropout_param {
    dropout_ratio: 0.5
  }
}
layer {
  name: "fc7"
  type: "InnerProduct"
  bottom: "fc6"
  top: "fc7"
  param {
    lr_mult: 1
    decay_mult: 1
  }
  param {
    lr_mult: 2
    decay_mult: 0
  }
  inner_product_param {
    num_output: 4096
    weight_filler {
      type: "gaussian"
      std: 0.005
    }
    bias_filler {
      type: "constant"
      value: 0.1
    }
  }
}
layer {
  name: "relu7"
  type: "ReLU"
  bottom: "fc7"
  top: "fc7"
}
layer {
  name: "drop7"
  type: "Dropout"
  bottom: "fc7"
  top: "fc7"
  dropout_param {
    dropout_ratio: 0.5
  }
}
layer {
  name: "fc8_plantvillage"
  type: "InnerProduct"
  bottom: "fc7"
  top: "fc8_plantvillage"
  param {
    lr_mult: 1
    decay_mult: 1
  }
  param {
    lr_mult: 2
    decay_mult: 0
  }
  inner_product_param {
    num_output: 38
    weight_filler {
      type: "gaussian"
      std: 0.01
    }
    bias_filler {
      type: "constant"
      value: 0
    }
  }
}
layer {
  name: "prob"
  type: "Softmax"
  bottom: "fc8_plantvillage"
  top: "prob"
  include {
    phase: TEST
  }
}
layer {
  name: "hdf5out"
  type: "HDF5Output"
  bottom: "prob"
  bottom: "label"
  include {
    phase: TEST
  }
  hdf5_output_param {
    file_name: "hdf5_dumps/iter_219.h5"
  }
}
layer {
  name: "loss"
  type: "SoftmaxWithLoss"
  bottom: "fc8_plantvillage"
  bottom: "label"
  top: "loss"
}
layer {
  name: "accuracy"
  type: "Accuracy"
  bottom: "fc8_plantvillage"
  bottom: "label"
  top: "accuracy"
  include {
    phase: TEST
  }
}
I0403 12:33:59.611932 30430 layer_factory.hpp:77] Creating layer data
I0403 12:33:59.612749 30430 net.cpp:91] Creating Layer data
I0403 12:33:59.612829 30430 net.cpp:399] data -> data
I0403 12:33:59.612918 30430 net.cpp:399] data -> label
I0403 12:33:59.612984 30430 data_transformer.cpp:25] Loading mean file from: /home/mohanty/data/final_dataset/lmdb/segmented-40-60/mean.binaryproto
I0403 12:33:59.615350 30439 db_lmdb.cpp:38] Opened lmdb /home/mohanty/data/final_dataset/lmdb/segmented-40-60/test_db
I0403 12:33:59.638365 30430 data_layer.cpp:41] output data size: 100,3,227,227
I0403 12:33:59.775646 30430 net.cpp:141] Setting up data
I0403 12:33:59.775801 30430 net.cpp:148] Top shape: 100 3 227 227 (15458700)
I0403 12:33:59.775830 30430 net.cpp:148] Top shape: 100 (100)
I0403 12:33:59.775847 30430 net.cpp:156] Memory required for data: 61835200
I0403 12:33:59.775881 30430 layer_factory.hpp:77] Creating layer label_data_1_split
I0403 12:33:59.775910 30430 net.cpp:91] Creating Layer label_data_1_split
I0403 12:33:59.775933 30430 net.cpp:425] label_data_1_split <- label
I0403 12:33:59.775969 30430 net.cpp:399] label_data_1_split -> label_data_1_split_0
I0403 12:33:59.776000 30430 net.cpp:399] label_data_1_split -> label_data_1_split_1
I0403 12:33:59.776024 30430 net.cpp:399] label_data_1_split -> label_data_1_split_2
I0403 12:33:59.776108 30430 net.cpp:141] Setting up label_data_1_split
I0403 12:33:59.776135 30430 net.cpp:148] Top shape: 100 (100)
I0403 12:33:59.776156 30430 net.cpp:148] Top shape: 100 (100)
I0403 12:33:59.776175 30430 net.cpp:148] Top shape: 100 (100)
I0403 12:33:59.776192 30430 net.cpp:156] Memory required for data: 61836400
I0403 12:33:59.776211 30430 layer_factory.hpp:77] Creating layer conv1
I0403 12:33:59.776268 30430 net.cpp:91] Creating Layer conv1
I0403 12:33:59.776293 30430 net.cpp:425] conv1 <- data
I0403 12:33:59.776315 30430 net.cpp:399] conv1 -> conv1
I0403 12:34:00.200741 30430 net.cpp:141] Setting up conv1
I0403 12:34:00.200814 30430 net.cpp:148] Top shape: 100 96 55 55 (29040000)
I0403 12:34:00.200835 30430 net.cpp:156] Memory required for data: 177996400
I0403 12:34:00.200872 30430 layer_factory.hpp:77] Creating layer relu1
I0403 12:34:00.200919 30430 net.cpp:91] Creating Layer relu1
I0403 12:34:00.200943 30430 net.cpp:425] relu1 <- conv1
I0403 12:34:00.200969 30430 net.cpp:386] relu1 -> conv1 (in-place)
I0403 12:34:00.201361 30430 net.cpp:141] Setting up relu1
I0403 12:34:00.201395 30430 net.cpp:148] Top shape: 100 96 55 55 (29040000)
I0403 12:34:00.201447 30430 net.cpp:156] Memory required for data: 294156400
I0403 12:34:00.201467 30430 layer_factory.hpp:77] Creating layer norm1
I0403 12:34:00.201514 30430 net.cpp:91] Creating Layer norm1
I0403 12:34:00.201536 30430 net.cpp:425] norm1 <- conv1
I0403 12:34:00.201560 30430 net.cpp:399] norm1 -> norm1
I0403 12:34:00.201958 30430 net.cpp:141] Setting up norm1
I0403 12:34:00.201993 30430 net.cpp:148] Top shape: 100 96 55 55 (29040000)
I0403 12:34:00.202013 30430 net.cpp:156] Memory required for data: 410316400
I0403 12:34:00.202031 30430 layer_factory.hpp:77] Creating layer pool1
I0403 12:34:00.202075 30430 net.cpp:91] Creating Layer pool1
I0403 12:34:00.202097 30430 net.cpp:425] pool1 <- norm1
I0403 12:34:00.202121 30430 net.cpp:399] pool1 -> pool1
I0403 12:34:00.202234 30430 net.cpp:141] Setting up pool1
I0403 12:34:00.202276 30430 net.cpp:148] Top shape: 100 96 27 27 (6998400)
I0403 12:34:00.202296 30430 net.cpp:156] Memory required for data: 438310000
I0403 12:34:00.202314 30430 layer_factory.hpp:77] Creating layer conv2
I0403 12:34:00.202343 30430 net.cpp:91] Creating Layer conv2
I0403 12:34:00.202364 30430 net.cpp:425] conv2 <- pool1
I0403 12:34:00.202388 30430 net.cpp:399] conv2 -> conv2
I0403 12:34:00.220536 30430 net.cpp:141] Setting up conv2
I0403 12:34:00.220600 30430 net.cpp:148] Top shape: 100 256 27 27 (18662400)
I0403 12:34:00.220620 30430 net.cpp:156] Memory required for data: 512959600
I0403 12:34:00.220650 30430 layer_factory.hpp:77] Creating layer relu2
I0403 12:34:00.220676 30430 net.cpp:91] Creating Layer relu2
I0403 12:34:00.220696 30430 net.cpp:425] relu2 <- conv2
I0403 12:34:00.220718 30430 net.cpp:386] relu2 -> conv2 (in-place)
I0403 12:34:00.221042 30430 net.cpp:141] Setting up relu2
I0403 12:34:00.221076 30430 net.cpp:148] Top shape: 100 256 27 27 (18662400)
I0403 12:34:00.221094 30430 net.cpp:156] Memory required for data: 587609200
I0403 12:34:00.221112 30430 layer_factory.hpp:77] Creating layer norm2
I0403 12:34:00.221139 30430 net.cpp:91] Creating Layer norm2
I0403 12:34:00.221159 30430 net.cpp:425] norm2 <- conv2
I0403 12:34:00.221181 30430 net.cpp:399] norm2 -> norm2
I0403 12:34:00.221418 30430 net.cpp:141] Setting up norm2
I0403 12:34:00.221449 30430 net.cpp:148] Top shape: 100 256 27 27 (18662400)
I0403 12:34:00.221468 30430 net.cpp:156] Memory required for data: 662258800
I0403 12:34:00.221487 30430 layer_factory.hpp:77] Creating layer pool2
I0403 12:34:00.221511 30430 net.cpp:91] Creating Layer pool2
I0403 12:34:00.221531 30430 net.cpp:425] pool2 <- norm2
I0403 12:34:00.221554 30430 net.cpp:399] pool2 -> pool2
I0403 12:34:00.221616 30430 net.cpp:141] Setting up pool2
I0403 12:34:00.221643 30430 net.cpp:148] Top shape: 100 256 13 13 (4326400)
I0403 12:34:00.221662 30430 net.cpp:156] Memory required for data: 679564400
I0403 12:34:00.221680 30430 layer_factory.hpp:77] Creating layer conv3
I0403 12:34:00.221709 30430 net.cpp:91] Creating Layer conv3
I0403 12:34:00.221729 30430 net.cpp:425] conv3 <- pool2
I0403 12:34:00.221750 30430 net.cpp:399] conv3 -> conv3
I0403 12:34:00.268347 30430 net.cpp:141] Setting up conv3
I0403 12:34:00.268422 30430 net.cpp:148] Top shape: 100 384 13 13 (6489600)
I0403 12:34:00.268450 30430 net.cpp:156] Memory required for data: 705522800
I0403 12:34:00.268489 30430 layer_factory.hpp:77] Creating layer relu3
I0403 12:34:00.268527 30430 net.cpp:91] Creating Layer relu3
I0403 12:34:00.268549 30430 net.cpp:425] relu3 <- conv3
I0403 12:34:00.268571 30430 net.cpp:386] relu3 -> conv3 (in-place)
I0403 12:34:00.268887 30430 net.cpp:141] Setting up relu3
I0403 12:34:00.268920 30430 net.cpp:148] Top shape: 100 384 13 13 (6489600)
I0403 12:34:00.268939 30430 net.cpp:156] Memory required for data: 731481200
I0403 12:34:00.268957 30430 layer_factory.hpp:77] Creating layer conv4
I0403 12:34:00.268987 30430 net.cpp:91] Creating Layer conv4
I0403 12:34:00.269007 30430 net.cpp:425] conv4 <- conv3
I0403 12:34:00.269032 30430 net.cpp:399] conv4 -> conv4
I0403 12:34:00.305208 30430 net.cpp:141] Setting up conv4
I0403 12:34:00.305259 30430 net.cpp:148] Top shape: 100 384 13 13 (6489600)
I0403 12:34:00.305305 30430 net.cpp:156] Memory required for data: 757439600
I0403 12:34:00.305330 30430 layer_factory.hpp:77] Creating layer relu4
I0403 12:34:00.305356 30430 net.cpp:91] Creating Layer relu4
I0403 12:34:00.305376 30430 net.cpp:425] relu4 <- conv4
I0403 12:34:00.305400 30430 net.cpp:386] relu4 -> conv4 (in-place)
I0403 12:34:00.305732 30430 net.cpp:141] Setting up relu4
I0403 12:34:00.305764 30430 net.cpp:148] Top shape: 100 384 13 13 (6489600)
I0403 12:34:00.305783 30430 net.cpp:156] Memory required for data: 783398000
I0403 12:34:00.305800 30430 layer_factory.hpp:77] Creating layer conv5
I0403 12:34:00.305831 30430 net.cpp:91] Creating Layer conv5
I0403 12:34:00.305852 30430 net.cpp:425] conv5 <- conv4
I0403 12:34:00.305878 30430 net.cpp:399] conv5 -> conv5
I0403 12:34:00.330909 30430 net.cpp:141] Setting up conv5
I0403 12:34:00.330971 30430 net.cpp:148] Top shape: 100 256 13 13 (4326400)
I0403 12:34:00.330991 30430 net.cpp:156] Memory required for data: 800703600
I0403 12:34:00.331022 30430 layer_factory.hpp:77] Creating layer relu5
I0403 12:34:00.331051 30430 net.cpp:91] Creating Layer relu5
I0403 12:34:00.331074 30430 net.cpp:425] relu5 <- conv5
I0403 12:34:00.331096 30430 net.cpp:386] relu5 -> conv5 (in-place)
I0403 12:34:00.331444 30430 net.cpp:141] Setting up relu5
I0403 12:34:00.331475 30430 net.cpp:148] Top shape: 100 256 13 13 (4326400)
I0403 12:34:00.331493 30430 net.cpp:156] Memory required for data: 818009200
I0403 12:34:00.331511 30430 layer_factory.hpp:77] Creating layer pool5
I0403 12:34:00.331540 30430 net.cpp:91] Creating Layer pool5
I0403 12:34:00.331560 30430 net.cpp:425] pool5 <- conv5
I0403 12:34:00.331583 30430 net.cpp:399] pool5 -> pool5
I0403 12:34:00.331657 30430 net.cpp:141] Setting up pool5
I0403 12:34:00.331686 30430 net.cpp:148] Top shape: 100 256 6 6 (921600)
I0403 12:34:00.331703 30430 net.cpp:156] Memory required for data: 821695600
I0403 12:34:00.331722 30430 layer_factory.hpp:77] Creating layer fc6
I0403 12:34:00.331776 30430 net.cpp:91] Creating Layer fc6
I0403 12:34:00.331800 30430 net.cpp:425] fc6 <- pool5
I0403 12:34:00.331825 30430 net.cpp:399] fc6 -> fc6
I0403 12:34:01.971521 30430 net.cpp:141] Setting up fc6
I0403 12:34:01.971626 30430 net.cpp:148] Top shape: 100 4096 (409600)
I0403 12:34:01.971642 30430 net.cpp:156] Memory required for data: 823334000
I0403 12:34:01.971662 30430 layer_factory.hpp:77] Creating layer relu6
I0403 12:34:01.971684 30430 net.cpp:91] Creating Layer relu6
I0403 12:34:01.971701 30430 net.cpp:425] relu6 <- fc6
I0403 12:34:01.971720 30430 net.cpp:386] relu6 -> fc6 (in-place)
I0403 12:34:01.971948 30430 net.cpp:141] Setting up relu6
I0403 12:34:01.971972 30430 net.cpp:148] Top shape: 100 4096 (409600)
I0403 12:34:01.971987 30430 net.cpp:156] Memory required for data: 824972400
I0403 12:34:01.972002 30430 layer_factory.hpp:77] Creating layer drop6
I0403 12:34:01.972020 30430 net.cpp:91] Creating Layer drop6
I0403 12:34:01.972035 30430 net.cpp:425] drop6 <- fc6
I0403 12:34:01.972054 30430 net.cpp:386] drop6 -> fc6 (in-place)
I0403 12:34:01.972131 30430 net.cpp:141] Setting up drop6
I0403 12:34:01.972157 30430 net.cpp:148] Top shape: 100 4096 (409600)
I0403 12:34:01.972172 30430 net.cpp:156] Memory required for data: 826610800
I0403 12:34:01.972185 30430 layer_factory.hpp:77] Creating layer fc7
I0403 12:34:01.972204 30430 net.cpp:91] Creating Layer fc7
I0403 12:34:01.972220 30430 net.cpp:425] fc7 <- fc6
I0403 12:34:01.972249 30430 net.cpp:399] fc7 -> fc7
I0403 12:34:02.641834 30430 net.cpp:141] Setting up fc7
I0403 12:34:02.641924 30430 net.cpp:148] Top shape: 100 4096 (409600)
I0403 12:34:02.641940 30430 net.cpp:156] Memory required for data: 828249200
I0403 12:34:02.641962 30430 layer_factory.hpp:77] Creating layer relu7
I0403 12:34:02.641983 30430 net.cpp:91] Creating Layer relu7
I0403 12:34:02.642000 30430 net.cpp:425] relu7 <- fc7
I0403 12:34:02.642021 30430 net.cpp:386] relu7 -> fc7 (in-place)
I0403 12:34:02.642446 30430 net.cpp:141] Setting up relu7
I0403 12:34:02.642472 30430 net.cpp:148] Top shape: 100 4096 (409600)
I0403 12:34:02.642519 30430 net.cpp:156] Memory required for data: 829887600
I0403 12:34:02.642534 30430 layer_factory.hpp:77] Creating layer drop7
I0403 12:34:02.642554 30430 net.cpp:91] Creating Layer drop7
I0403 12:34:02.642568 30430 net.cpp:425] drop7 <- fc7
I0403 12:34:02.642587 30430 net.cpp:386] drop7 -> fc7 (in-place)
I0403 12:34:02.642628 30430 net.cpp:141] Setting up drop7
I0403 12:34:02.642652 30430 net.cpp:148] Top shape: 100 4096 (409600)
I0403 12:34:02.642666 30430 net.cpp:156] Memory required for data: 831526000
I0403 12:34:02.642680 30430 layer_factory.hpp:77] Creating layer fc8_plantvillage
I0403 12:34:02.642699 30430 net.cpp:91] Creating Layer fc8_plantvillage
I0403 12:34:02.642715 30430 net.cpp:425] fc8_plantvillage <- fc7
I0403 12:34:02.642735 30430 net.cpp:399] fc8_plantvillage -> fc8_plantvillage
I0403 12:34:02.649303 30430 net.cpp:141] Setting up fc8_plantvillage
I0403 12:34:02.649330 30430 net.cpp:148] Top shape: 100 38 (3800)
I0403 12:34:02.649345 30430 net.cpp:156] Memory required for data: 831541200
I0403 12:34:02.649363 30430 layer_factory.hpp:77] Creating layer fc8_plantvillage_fc8_plantvillage_0_split
I0403 12:34:02.649384 30430 net.cpp:91] Creating Layer fc8_plantvillage_fc8_plantvillage_0_split
I0403 12:34:02.649400 30430 net.cpp:425] fc8_plantvillage_fc8_plantvillage_0_split <- fc8_plantvillage
I0403 12:34:02.649417 30430 net.cpp:399] fc8_plantvillage_fc8_plantvillage_0_split -> fc8_plantvillage_fc8_plantvillage_0_split_0
I0403 12:34:02.649436 30430 net.cpp:399] fc8_plantvillage_fc8_plantvillage_0_split -> fc8_plantvillage_fc8_plantvillage_0_split_1
I0403 12:34:02.649456 30430 net.cpp:399] fc8_plantvillage_fc8_plantvillage_0_split -> fc8_plantvillage_fc8_plantvillage_0_split_2
I0403 12:34:02.649530 30430 net.cpp:141] Setting up fc8_plantvillage_fc8_plantvillage_0_split
I0403 12:34:02.649554 30430 net.cpp:148] Top shape: 100 38 (3800)
I0403 12:34:02.649569 30430 net.cpp:148] Top shape: 100 38 (3800)
I0403 12:34:02.649585 30430 net.cpp:148] Top shape: 100 38 (3800)
I0403 12:34:02.649597 30430 net.cpp:156] Memory required for data: 831586800
I0403 12:34:02.649611 30430 layer_factory.hpp:77] Creating layer prob
I0403 12:34:02.649629 30430 net.cpp:91] Creating Layer prob
I0403 12:34:02.649643 30430 net.cpp:425] prob <- fc8_plantvillage_fc8_plantvillage_0_split_0
I0403 12:34:02.649662 30430 net.cpp:399] prob -> prob
I0403 12:34:02.649883 30430 net.cpp:141] Setting up prob
I0403 12:34:02.649907 30430 net.cpp:148] Top shape: 100 38 (3800)
I0403 12:34:02.649922 30430 net.cpp:156] Memory required for data: 831602000
I0403 12:34:02.649937 30430 layer_factory.hpp:77] Creating layer hdf5out
I0403 12:34:02.649955 30430 net.cpp:91] Creating Layer hdf5out
I0403 12:34:02.649971 30430 net.cpp:425] hdf5out <- prob
I0403 12:34:02.649986 30430 net.cpp:425] hdf5out <- label_data_1_split_0
I0403 12:34:02.663106 30430 net.cpp:141] Setting up hdf5out
…
