…
I0403 12:35:00.761767 30453 net.cpp:313] The NetState phase (1) differed from the phase (0) specified by a rule in layer data
I0403 12:35:00.762080 30453 net.cpp:49] Initializing net from parameters: 
state {
  phase: TEST
}
layer {
  name: "data"
  type: "Data"
  top: "data"
  top: "label"
  include {
    phase: TEST
  }
  transform_param {
    crop_size: 227
    mean_file: "/home/mohanty/data/final_dataset/lmdb/segmented-40-60/mean.binaryproto"
  }
  data_param {
    source: "/home/mohanty/data/final_dataset/lmdb/segmented-40-60/test_db"
    batch_size: 100
    backend: LMDB
  }
}
layer {
  name: "conv1"
  type: "Convolution"
  bottom: "data"
  top: "conv1"
  param {
    lr_mult: 1
    decay_mult: 1
  }
  param {
    lr_mult: 2
    decay_mult: 0
  }
  convolution_param {
    num_output: 96
    kernel_size: 11
    stride: 4
    weight_filler {
      type: "gaussian"
      std: 0.01
    }
    bias_filler {
      type: "constant"
      value: 0
    }
  }
}
layer {
  name: "relu1"
  type: "ReLU"
  bottom: "conv1"
  top: "conv1"
}
layer {
  name: "norm1"
  type: "LRN"
  bottom: "conv1"
  top: "norm1"
  lrn_param {
    local_size: 5
    alpha: 0.0001
    beta: 0.75
  }
}
layer {
  name: "pool1"
  type: "Pooling"
  bottom: "norm1"
  top: "pool1"
  pooling_param {
    pool: MAX
    kernel_size: 3
    stride: 2
  }
}
layer {
  name: "conv2"
  type: "Convolution"
  bottom: "pool1"
  top: "conv2"
  param {
    lr_mult: 1
    decay_mult: 1
  }
  param {
    lr_mult: 2
    decay_mult: 0
  }
  convolution_param {
    num_output: 256
    pad: 2
    kernel_size: 5
    group: 2
    weight_filler {
      type: "gaussian"
      std: 0.01
    }
    bias_filler {
      type: "constant"
      value: 0.1
    }
  }
}
layer {
  name: "relu2"
  type: "ReLU"
  bottom: "conv2"
  top: "conv2"
}
layer {
  name: "norm2"
  type: "LRN"
  bottom: "conv2"
  top: "norm2"
  lrn_param {
    local_size: 5
    alpha: 0.0001
    beta: 0.75
  }
}
layer {
  name: "pool2"
  type: "Pooling"
  bottom: "norm2"
  top: "pool2"
  pooling_param {
    pool: MAX
    kernel_size: 3
    stride: 2
  }
}
layer {
  name: "conv3"
  type: "Convolution"
  bottom: "pool2"
  top: "conv3"
  param {
    lr_mult: 1
    decay_mult: 1
  }
  param {
    lr_mult: 2
    decay_mult: 0
  }
  convolution_param {
    num_output: 384
    pad: 1
    kernel_size: 3
    weight_filler {
      type: "gaussian"
      std: 0.01
    }
    bias_filler {
      type: "constant"
      value: 0
    }
  }
}
layer {
  name: "relu3"
  type: "ReLU"
  bottom: "conv3"
  top: "conv3"
}
layer {
  name: "conv4"
  type: "Convolution"
  bottom: "conv3"
  top: "conv4"
  param {
    lr_mult: 1
    decay_mult: 1
  }
  param {
    lr_mult: 2
    decay_mult: 0
  }
  convolution_param {
    num_output: 384
    pad: 1
    kernel_size: 3
    group: 2
    weight_filler {
      type: "gaussian"
      std: 0.01
    }
    bias_filler {
      type: "constant"
      value: 0.1
    }
  }
}
layer {
  name: "relu4"
  type: "ReLU"
  bottom: "conv4"
  top: "conv4"
}
layer {
  name: "conv5"
  type: "Convolution"
  bottom: "conv4"
  top: "conv5"
  param {
    lr_mult: 1
    decay_mult: 1
  }
  param {
    lr_mult: 2
    decay_mult: 0
  }
  convolution_param {
    num_output: 256
    pad: 1
    kernel_size: 3
    group: 2
    weight_filler {
      type: "gaussian"
      std: 0.01
    }
    bias_filler {
      type: "constant"
      value: 0.1
    }
  }
}
layer {
  name: "relu5"
  type: "ReLU"
  bottom: "conv5"
  top: "conv5"
}
layer {
  name: "pool5"
  type: "Pooling"
  bottom: "conv5"
  top: "pool5"
  pooling_param {
    pool: MAX
    kernel_size: 3
    stride: 2
  }
}
layer {
  name: "fc6"
  type: "InnerProduct"
  bottom: "pool5"
  top: "fc6"
  param {
    lr_mult: 1
    decay_mult: 1
  }
  param {
    lr_mult: 2
    decay_mult: 0
  }
  inner_product_param {
    num_output: 4096
    weight_filler {
      type: "gaussian"
      std: 0.005
    }
    bias_filler {
      type: "constant"
      value: 0.1
    }
  }
}
layer {
  name: "relu6"
  type: "ReLU"
  bottom: "fc6"
  top: "fc6"
}
layer {
  name: "drop6"
  type: "Dropout"
  bottom: "fc6"
  top: "fc6"
  dropout_param {
    dropout_ratio: 0.5
  }
}
layer {
  name: "fc7"
  type: "InnerProduct"
  bottom: "fc6"
  top: "fc7"
  param {
    lr_mult: 1
    decay_mult: 1
  }
  param {
    lr_mult: 2
    decay_mult: 0
  }
  inner_product_param {
    num_output: 4096
    weight_filler {
      type: "gaussian"
      std: 0.005
    }
    bias_filler {
      type: "constant"
      value: 0.1
    }
  }
}
layer {
  name: "relu7"
  type: "ReLU"
  bottom: "fc7"
  top: "fc7"
}
layer {
  name: "drop7"
  type: "Dropout"
  bottom: "fc7"
  top: "fc7"
  dropout_param {
    dropout_ratio: 0.5
  }
}
layer {
  name: "fc8_plantvillage"
  type: "InnerProduct"
  bottom: "fc7"
  top: "fc8_plantvillage"
  param {
    lr_mult: 1
    decay_mult: 1
  }
  param {
    lr_mult: 2
    decay_mult: 0
  }
  inner_product_param {
    num_output: 38
    weight_filler {
      type: "gaussian"
      std: 0.01
    }
    bias_filler {
      type: "constant"
      value: 0
    }
  }
}
layer {
  name: "prob"
  type: "Softmax"
  bottom: "fc8_plantvillage"
  top: "prob"
  include {
    phase: TEST
  }
}
layer {
  name: "hdf5out"
  type: "HDF5Output"
  bottom: "prob"
  bottom: "label"
  include {
    phase: TEST
  }
  hdf5_output_param {
    file_name: "hdf5_dumps/iter_438.h5"
  }
}
layer {
  name: "loss"
  type: "SoftmaxWithLoss"
  bottom: "fc8_plantvillage"
  bottom: "label"
  top: "loss"
}
layer {
  name: "accuracy"
  type: "Accuracy"
  bottom: "fc8_plantvillage"
  bottom: "label"
  top: "accuracy"
  include {
    phase: TEST
  }
}
I0403 12:35:00.762778 30453 layer_factory.hpp:77] Creating layer data
I0403 12:35:00.763448 30453 net.cpp:91] Creating Layer data
I0403 12:35:00.763479 30453 net.cpp:399] data -> data
I0403 12:35:00.763533 30453 net.cpp:399] data -> label
I0403 12:35:00.763569 30453 data_transformer.cpp:25] Loading mean file from: /home/mohanty/data/final_dataset/lmdb/segmented-40-60/mean.binaryproto
I0403 12:35:00.764653 30455 db_lmdb.cpp:38] Opened lmdb /home/mohanty/data/final_dataset/lmdb/segmented-40-60/test_db
I0403 12:35:00.778080 30453 data_layer.cpp:41] output data size: 100,3,227,227
I0403 12:35:00.897425 30453 net.cpp:141] Setting up data
I0403 12:35:00.897511 30453 net.cpp:148] Top shape: 100 3 227 227 (15458700)
I0403 12:35:00.897536 30453 net.cpp:148] Top shape: 100 (100)
I0403 12:35:00.897552 30453 net.cpp:156] Memory required for data: 61835200
I0403 12:35:00.897581 30453 layer_factory.hpp:77] Creating layer label_data_1_split
I0403 12:35:00.897609 30453 net.cpp:91] Creating Layer label_data_1_split
I0403 12:35:00.897629 30453 net.cpp:425] label_data_1_split <- label
I0403 12:35:00.897661 30453 net.cpp:399] label_data_1_split -> label_data_1_split_0
I0403 12:35:00.897691 30453 net.cpp:399] label_data_1_split -> label_data_1_split_1
I0403 12:35:00.897712 30453 net.cpp:399] label_data_1_split -> label_data_1_split_2
I0403 12:35:00.897779 30453 net.cpp:141] Setting up label_data_1_split
I0403 12:35:00.897804 30453 net.cpp:148] Top shape: 100 (100)
I0403 12:35:00.897824 30453 net.cpp:148] Top shape: 100 (100)
I0403 12:35:00.897842 30453 net.cpp:148] Top shape: 100 (100)
I0403 12:35:00.897858 30453 net.cpp:156] Memory required for data: 61836400
I0403 12:35:00.897873 30453 layer_factory.hpp:77] Creating layer conv1
I0403 12:35:00.897907 30453 net.cpp:91] Creating Layer conv1
I0403 12:35:00.897927 30453 net.cpp:425] conv1 <- data
I0403 12:35:00.897948 30453 net.cpp:399] conv1 -> conv1
I0403 12:35:01.046766 30453 net.cpp:141] Setting up conv1
I0403 12:35:01.046847 30453 net.cpp:148] Top shape: 100 96 55 55 (29040000)
I0403 12:35:01.046865 30453 net.cpp:156] Memory required for data: 177996400
I0403 12:35:01.046934 30453 layer_factory.hpp:77] Creating layer relu1
I0403 12:35:01.046963 30453 net.cpp:91] Creating Layer relu1
I0403 12:35:01.046982 30453 net.cpp:425] relu1 <- conv1
I0403 12:35:01.047000 30453 net.cpp:386] relu1 -> conv1 (in-place)
I0403 12:35:01.047267 30453 net.cpp:141] Setting up relu1
I0403 12:35:01.047294 30453 net.cpp:148] Top shape: 100 96 55 55 (29040000)
I0403 12:35:01.047343 30453 net.cpp:156] Memory required for data: 294156400
I0403 12:35:01.047360 30453 layer_factory.hpp:77] Creating layer norm1
I0403 12:35:01.047387 30453 net.cpp:91] Creating Layer norm1
I0403 12:35:01.047405 30453 net.cpp:425] norm1 <- conv1
I0403 12:35:01.047425 30453 net.cpp:399] norm1 -> norm1
I0403 12:35:01.047734 30453 net.cpp:141] Setting up norm1
I0403 12:35:01.047760 30453 net.cpp:148] Top shape: 100 96 55 55 (29040000)
I0403 12:35:01.047776 30453 net.cpp:156] Memory required for data: 410316400
I0403 12:35:01.047792 30453 layer_factory.hpp:77] Creating layer pool1
I0403 12:35:01.047816 30453 net.cpp:91] Creating Layer pool1
I0403 12:35:01.047832 30453 net.cpp:425] pool1 <- norm1
I0403 12:35:01.047850 30453 net.cpp:399] pool1 -> pool1
I0403 12:35:01.047916 30453 net.cpp:141] Setting up pool1
I0403 12:35:01.047940 30453 net.cpp:148] Top shape: 100 96 27 27 (6998400)
I0403 12:35:01.047955 30453 net.cpp:156] Memory required for data: 438310000
I0403 12:35:01.047971 30453 layer_factory.hpp:77] Creating layer conv2
I0403 12:35:01.047996 30453 net.cpp:91] Creating Layer conv2
I0403 12:35:01.048012 30453 net.cpp:425] conv2 <- pool1
I0403 12:35:01.048032 30453 net.cpp:399] conv2 -> conv2
I0403 12:35:01.063417 30453 net.cpp:141] Setting up conv2
I0403 12:35:01.063457 30453 net.cpp:148] Top shape: 100 256 27 27 (18662400)
I0403 12:35:01.063477 30453 net.cpp:156] Memory required for data: 512959600
I0403 12:35:01.063499 30453 layer_factory.hpp:77] Creating layer relu2
I0403 12:35:01.063519 30453 net.cpp:91] Creating Layer relu2
I0403 12:35:01.063536 30453 net.cpp:425] relu2 <- conv2
I0403 12:35:01.063555 30453 net.cpp:386] relu2 -> conv2 (in-place)
I0403 12:35:01.063819 30453 net.cpp:141] Setting up relu2
I0403 12:35:01.063848 30453 net.cpp:148] Top shape: 100 256 27 27 (18662400)
I0403 12:35:01.063863 30453 net.cpp:156] Memory required for data: 587609200
I0403 12:35:01.063879 30453 layer_factory.hpp:77] Creating layer norm2
I0403 12:35:01.063899 30453 net.cpp:91] Creating Layer norm2
I0403 12:35:01.063917 30453 net.cpp:425] norm2 <- conv2
I0403 12:35:01.063937 30453 net.cpp:399] norm2 -> norm2
I0403 12:35:01.064119 30453 net.cpp:141] Setting up norm2
I0403 12:35:01.064147 30453 net.cpp:148] Top shape: 100 256 27 27 (18662400)
I0403 12:35:01.064164 30453 net.cpp:156] Memory required for data: 662258800
I0403 12:35:01.064180 30453 layer_factory.hpp:77] Creating layer pool2
I0403 12:35:01.064199 30453 net.cpp:91] Creating Layer pool2
I0403 12:35:01.064218 30453 net.cpp:425] pool2 <- norm2
I0403 12:35:01.064236 30453 net.cpp:399] pool2 -> pool2
I0403 12:35:01.064293 30453 net.cpp:141] Setting up pool2
I0403 12:35:01.064317 30453 net.cpp:148] Top shape: 100 256 13 13 (4326400)
I0403 12:35:01.064334 30453 net.cpp:156] Memory required for data: 679564400
I0403 12:35:01.064349 30453 layer_factory.hpp:77] Creating layer conv3
I0403 12:35:01.064371 30453 net.cpp:91] Creating Layer conv3
I0403 12:35:01.064390 30453 net.cpp:425] conv3 <- pool2
I0403 12:35:01.064410 30453 net.cpp:399] conv3 -> conv3
I0403 12:35:01.103585 30453 net.cpp:141] Setting up conv3
I0403 12:35:01.103636 30453 net.cpp:148] Top shape: 100 384 13 13 (6489600)
I0403 12:35:01.103653 30453 net.cpp:156] Memory required for data: 705522800
I0403 12:35:01.103677 30453 layer_factory.hpp:77] Creating layer relu3
I0403 12:35:01.103698 30453 net.cpp:91] Creating Layer relu3
I0403 12:35:01.103716 30453 net.cpp:425] relu3 <- conv3
I0403 12:35:01.103734 30453 net.cpp:386] relu3 -> conv3 (in-place)
I0403 12:35:01.103994 30453 net.cpp:141] Setting up relu3
I0403 12:35:01.104022 30453 net.cpp:148] Top shape: 100 384 13 13 (6489600)
I0403 12:35:01.104038 30453 net.cpp:156] Memory required for data: 731481200
I0403 12:35:01.104054 30453 layer_factory.hpp:77] Creating layer conv4
I0403 12:35:01.104077 30453 net.cpp:91] Creating Layer conv4
I0403 12:35:01.104094 30453 net.cpp:425] conv4 <- conv3
I0403 12:35:01.104115 30453 net.cpp:399] conv4 -> conv4
I0403 12:35:01.133638 30453 net.cpp:141] Setting up conv4
I0403 12:35:01.133687 30453 net.cpp:148] Top shape: 100 384 13 13 (6489600)
I0403 12:35:01.133736 30453 net.cpp:156] Memory required for data: 757439600
I0403 12:35:01.133769 30453 layer_factory.hpp:77] Creating layer relu4
I0403 12:35:01.133790 30453 net.cpp:91] Creating Layer relu4
I0403 12:35:01.133808 30453 net.cpp:425] relu4 <- conv4
I0403 12:35:01.133826 30453 net.cpp:386] relu4 -> conv4 (in-place)
I0403 12:35:01.134094 30453 net.cpp:141] Setting up relu4
I0403 12:35:01.134120 30453 net.cpp:148] Top shape: 100 384 13 13 (6489600)
I0403 12:35:01.134135 30453 net.cpp:156] Memory required for data: 783398000
I0403 12:35:01.134150 30453 layer_factory.hpp:77] Creating layer conv5
I0403 12:35:01.134174 30453 net.cpp:91] Creating Layer conv5
I0403 12:35:01.134191 30453 net.cpp:425] conv5 <- conv4
I0403 12:35:01.134212 30453 net.cpp:399] conv5 -> conv5
I0403 12:35:01.155258 30453 net.cpp:141] Setting up conv5
I0403 12:35:01.155297 30453 net.cpp:148] Top shape: 100 256 13 13 (4326400)
I0403 12:35:01.155314 30453 net.cpp:156] Memory required for data: 800703600
I0403 12:35:01.155341 30453 layer_factory.hpp:77] Creating layer relu5
I0403 12:35:01.155366 30453 net.cpp:91] Creating Layer relu5
I0403 12:35:01.155385 30453 net.cpp:425] relu5 <- conv5
I0403 12:35:01.155403 30453 net.cpp:386] relu5 -> conv5 (in-place)
I0403 12:35:01.155689 30453 net.cpp:141] Setting up relu5
I0403 12:35:01.155722 30453 net.cpp:148] Top shape: 100 256 13 13 (4326400)
I0403 12:35:01.155745 30453 net.cpp:156] Memory required for data: 818009200
I0403 12:35:01.155771 30453 layer_factory.hpp:77] Creating layer pool5
I0403 12:35:01.155802 30453 net.cpp:91] Creating Layer pool5
I0403 12:35:01.155858 30453 net.cpp:425] pool5 <- conv5
I0403 12:35:01.155884 30453 net.cpp:399] pool5 -> pool5
I0403 12:35:01.155951 30453 net.cpp:141] Setting up pool5
I0403 12:35:01.155978 30453 net.cpp:148] Top shape: 100 256 6 6 (921600)
I0403 12:35:01.155995 30453 net.cpp:156] Memory required for data: 821695600
I0403 12:35:01.156011 30453 layer_factory.hpp:77] Creating layer fc6
I0403 12:35:01.156038 30453 net.cpp:91] Creating Layer fc6
I0403 12:35:01.156055 30453 net.cpp:425] fc6 <- pool5
I0403 12:35:01.156078 30453 net.cpp:399] fc6 -> fc6
I0403 12:35:02.775252 30453 net.cpp:141] Setting up fc6
I0403 12:35:02.775326 30453 net.cpp:148] Top shape: 100 4096 (409600)
I0403 12:35:02.775342 30453 net.cpp:156] Memory required for data: 823334000
I0403 12:35:02.775364 30453 layer_factory.hpp:77] Creating layer relu6
I0403 12:35:02.775390 30453 net.cpp:91] Creating Layer relu6
I0403 12:35:02.775410 30453 net.cpp:425] relu6 <- fc6
I0403 12:35:02.775430 30453 net.cpp:386] relu6 -> fc6 (in-place)
I0403 12:35:02.775666 30453 net.cpp:141] Setting up relu6
I0403 12:35:02.775693 30453 net.cpp:148] Top shape: 100 4096 (409600)
I0403 12:35:02.775708 30453 net.cpp:156] Memory required for data: 824972400
I0403 12:35:02.775723 30453 layer_factory.hpp:77] Creating layer drop6
I0403 12:35:02.775745 30453 net.cpp:91] Creating Layer drop6
I0403 12:35:02.775763 30453 net.cpp:425] drop6 <- fc6
I0403 12:35:02.775781 30453 net.cpp:386] drop6 -> fc6 (in-place)
I0403 12:35:02.775838 30453 net.cpp:141] Setting up drop6
I0403 12:35:02.775861 30453 net.cpp:148] Top shape: 100 4096 (409600)
I0403 12:35:02.775876 30453 net.cpp:156] Memory required for data: 826610800
I0403 12:35:02.775892 30453 layer_factory.hpp:77] Creating layer fc7
I0403 12:35:02.775918 30453 net.cpp:91] Creating Layer fc7
I0403 12:35:02.775935 30453 net.cpp:425] fc7 <- fc6
I0403 12:35:02.775954 30453 net.cpp:399] fc7 -> fc7
I0403 12:35:03.503814 30453 net.cpp:141] Setting up fc7
I0403 12:35:03.503890 30453 net.cpp:148] Top shape: 100 4096 (409600)
I0403 12:35:03.503906 30453 net.cpp:156] Memory required for data: 828249200
I0403 12:35:03.503928 30453 layer_factory.hpp:77] Creating layer relu7
I0403 12:35:03.503950 30453 net.cpp:91] Creating Layer relu7
I0403 12:35:03.503968 30453 net.cpp:425] relu7 <- fc7
I0403 12:35:03.503988 30453 net.cpp:386] relu7 -> fc7 (in-place)
I0403 12:35:03.504415 30453 net.cpp:141] Setting up relu7
I0403 12:35:03.504446 30453 net.cpp:148] Top shape: 100 4096 (409600)
I0403 12:35:03.504484 30453 net.cpp:156] Memory required for data: 829887600
I0403 12:35:03.504501 30453 layer_factory.hpp:77] Creating layer drop7
I0403 12:35:03.504534 30453 net.cpp:91] Creating Layer drop7
I0403 12:35:03.504550 30453 net.cpp:425] drop7 <- fc7
I0403 12:35:03.504567 30453 net.cpp:386] drop7 -> fc7 (in-place)
I0403 12:35:03.504614 30453 net.cpp:141] Setting up drop7
I0403 12:35:03.504637 30453 net.cpp:148] Top shape: 100 4096 (409600)
I0403 12:35:03.504652 30453 net.cpp:156] Memory required for data: 831526000
I0403 12:35:03.504667 30453 layer_factory.hpp:77] Creating layer fc8_plantvillage
I0403 12:35:03.504688 30453 net.cpp:91] Creating Layer fc8_plantvillage
I0403 12:35:03.504705 30453 net.cpp:425] fc8_plantvillage <- fc7
I0403 12:35:03.504724 30453 net.cpp:399] fc8_plantvillage -> fc8_plantvillage
I0403 12:35:03.511632 30453 net.cpp:141] Setting up fc8_plantvillage
I0403 12:35:03.511662 30453 net.cpp:148] Top shape: 100 38 (3800)
I0403 12:35:03.511679 30453 net.cpp:156] Memory required for data: 831541200
I0403 12:35:03.511699 30453 layer_factory.hpp:77] Creating layer fc8_plantvillage_fc8_plantvillage_0_split
I0403 12:35:03.511723 30453 net.cpp:91] Creating Layer fc8_plantvillage_fc8_plantvillage_0_split
I0403 12:35:03.511749 30453 net.cpp:425] fc8_plantvillage_fc8_plantvillage_0_split <- fc8_plantvillage
I0403 12:35:03.511767 30453 net.cpp:399] fc8_plantvillage_fc8_plantvillage_0_split -> fc8_plantvillage_fc8_plantvillage_0_split_0
I0403 12:35:03.511791 30453 net.cpp:399] fc8_plantvillage_fc8_plantvillage_0_split -> fc8_plantvillage_fc8_plantvillage_0_split_1
I0403 12:35:03.511812 30453 net.cpp:399] fc8_plantvillage_fc8_plantvillage_0_split -> fc8_plantvillage_fc8_plantvillage_0_split_2
I0403 12:35:03.511893 30453 net.cpp:141] Setting up fc8_plantvillage_fc8_plantvillage_0_split
I0403 12:35:03.511915 30453 net.cpp:148] Top shape: 100 38 (3800)
I0403 12:35:03.511932 30453 net.cpp:148] Top shape: 100 38 (3800)
I0403 12:35:03.511947 30453 net.cpp:148] Top shape: 100 38 (3800)
I0403 12:35:03.511962 30453 net.cpp:156] Memory required for data: 831586800
I0403 12:35:03.511977 30453 layer_factory.hpp:77] Creating layer prob
I0403 12:35:03.511998 30453 net.cpp:91] Creating Layer prob
I0403 12:35:03.512015 30453 net.cpp:425] prob <- fc8_plantvillage_fc8_plantvillage_0_split_0
I0403 12:35:03.512033 30453 net.cpp:399] prob -> prob
I0403 12:35:03.512279 30453 net.cpp:141] Setting up prob
I0403 12:35:03.512306 30453 net.cpp:148] Top shape: 100 38 (3800)
I0403 12:35:03.512321 30453 net.cpp:156] Memory required for data: 831602000
I0403 12:35:03.512336 30453 layer_factory.hpp:77] Creating layer hdf5out
I0403 12:35:03.512357 30453 net.cpp:91] Creating Layer hdf5out
I0403 12:35:03.512375 30453 net.cpp:425] hdf5out <- prob
I0403 12:35:03.512392 30453 net.cpp:425] hdf5out <- label_data_1_split_0
I0403 12:35:03.514955 30453 net.cpp:141] Setting up hdf5out
…
