…
I0403 13:00:37.091879 31138 net.cpp:313] The NetState phase (1) differed from the phase (0) specified by a rule in layer data
I0403 13:00:37.092196 31138 net.cpp:49] Initializing net from parameters: 
state {
  phase: TEST
}
layer {
  name: "data"
  type: "Data"
  top: "data"
  top: "label"
  include {
    phase: TEST
  }
  transform_param {
    crop_size: 227
    mean_file: "/home/mohanty/data/final_dataset/lmdb/segmented-40-60/mean.binaryproto"
  }
  data_param {
    source: "/home/mohanty/data/final_dataset/lmdb/segmented-40-60/test_db"
    batch_size: 100
    backend: LMDB
  }
}
layer {
  name: "conv1"
  type: "Convolution"
  bottom: "data"
  top: "conv1"
  param {
    lr_mult: 1
    decay_mult: 1
  }
  param {
    lr_mult: 2
    decay_mult: 0
  }
  convolution_param {
    num_output: 96
    kernel_size: 11
    stride: 4
    weight_filler {
      type: "gaussian"
      std: 0.01
    }
    bias_filler {
      type: "constant"
      value: 0
    }
  }
}
layer {
  name: "relu1"
  type: "ReLU"
  bottom: "conv1"
  top: "conv1"
}
layer {
  name: "norm1"
  type: "LRN"
  bottom: "conv1"
  top: "norm1"
  lrn_param {
    local_size: 5
    alpha: 0.0001
    beta: 0.75
  }
}
layer {
  name: "pool1"
  type: "Pooling"
  bottom: "norm1"
  top: "pool1"
  pooling_param {
    pool: MAX
    kernel_size: 3
    stride: 2
  }
}
layer {
  name: "conv2"
  type: "Convolution"
  bottom: "pool1"
  top: "conv2"
  param {
    lr_mult: 1
    decay_mult: 1
  }
  param {
    lr_mult: 2
    decay_mult: 0
  }
  convolution_param {
    num_output: 256
    pad: 2
    kernel_size: 5
    group: 2
    weight_filler {
      type: "gaussian"
      std: 0.01
    }
    bias_filler {
      type: "constant"
      value: 0.1
    }
  }
}
layer {
  name: "relu2"
  type: "ReLU"
  bottom: "conv2"
  top: "conv2"
}
layer {
  name: "norm2"
  type: "LRN"
  bottom: "conv2"
  top: "norm2"
  lrn_param {
    local_size: 5
    alpha: 0.0001
    beta: 0.75
  }
}
layer {
  name: "pool2"
  type: "Pooling"
  bottom: "norm2"
  top: "pool2"
  pooling_param {
    pool: MAX
    kernel_size: 3
    stride: 2
  }
}
layer {
  name: "conv3"
  type: "Convolution"
  bottom: "pool2"
  top: "conv3"
  param {
    lr_mult: 1
    decay_mult: 1
  }
  param {
    lr_mult: 2
    decay_mult: 0
  }
  convolution_param {
    num_output: 384
    pad: 1
    kernel_size: 3
    weight_filler {
      type: "gaussian"
      std: 0.01
    }
    bias_filler {
      type: "constant"
      value: 0
    }
  }
}
layer {
  name: "relu3"
  type: "ReLU"
  bottom: "conv3"
  top: "conv3"
}
layer {
  name: "conv4"
  type: "Convolution"
  bottom: "conv3"
  top: "conv4"
  param {
    lr_mult: 1
    decay_mult: 1
  }
  param {
    lr_mult: 2
    decay_mult: 0
  }
  convolution_param {
    num_output: 384
    pad: 1
    kernel_size: 3
    group: 2
    weight_filler {
      type: "gaussian"
      std: 0.01
    }
    bias_filler {
      type: "constant"
      value: 0.1
    }
  }
}
layer {
  name: "relu4"
  type: "ReLU"
  bottom: "conv4"
  top: "conv4"
}
layer {
  name: "conv5"
  type: "Convolution"
  bottom: "conv4"
  top: "conv5"
  param {
    lr_mult: 1
    decay_mult: 1
  }
  param {
    lr_mult: 2
    decay_mult: 0
  }
  convolution_param {
    num_output: 256
    pad: 1
    kernel_size: 3
    group: 2
    weight_filler {
      type: "gaussian"
      std: 0.01
    }
    bias_filler {
      type: "constant"
      value: 0.1
    }
  }
}
layer {
  name: "relu5"
  type: "ReLU"
  bottom: "conv5"
  top: "conv5"
}
layer {
  name: "pool5"
  type: "Pooling"
  bottom: "conv5"
  top: "pool5"
  pooling_param {
    pool: MAX
    kernel_size: 3
    stride: 2
  }
}
layer {
  name: "fc6"
  type: "InnerProduct"
  bottom: "pool5"
  top: "fc6"
  param {
    lr_mult: 1
    decay_mult: 1
  }
  param {
    lr_mult: 2
    decay_mult: 0
  }
  inner_product_param {
    num_output: 4096
    weight_filler {
      type: "gaussian"
      std: 0.005
    }
    bias_filler {
      type: "constant"
      value: 0.1
    }
  }
}
layer {
  name: "relu6"
  type: "ReLU"
  bottom: "fc6"
  top: "fc6"
}
layer {
  name: "drop6"
  type: "Dropout"
  bottom: "fc6"
  top: "fc6"
  dropout_param {
    dropout_ratio: 0.5
  }
}
layer {
  name: "fc7"
  type: "InnerProduct"
  bottom: "fc6"
  top: "fc7"
  param {
    lr_mult: 1
    decay_mult: 1
  }
  param {
    lr_mult: 2
    decay_mult: 0
  }
  inner_product_param {
    num_output: 4096
    weight_filler {
      type: "gaussian"
      std: 0.005
    }
    bias_filler {
      type: "constant"
      value: 0.1
    }
  }
}
layer {
  name: "relu7"
  type: "ReLU"
  bottom: "fc7"
  top: "fc7"
}
layer {
  name: "drop7"
  type: "Dropout"
  bottom: "fc7"
  top: "fc7"
  dropout_param {
    dropout_ratio: 0.5
  }
}
layer {
  name: "fc8_plantvillage"
  type: "InnerProduct"
  bottom: "fc7"
  top: "fc8_plantvillage"
  param {
    lr_mult: 1
    decay_mult: 1
  }
  param {
    lr_mult: 2
    decay_mult: 0
  }
  inner_product_param {
    num_output: 38
    weight_filler {
      type: "gaussian"
      std: 0.01
    }
    bias_filler {
      type: "constant"
      value: 0
    }
  }
}
layer {
  name: "prob"
  type: "Softmax"
  bottom: "fc8_plantvillage"
  top: "prob"
  include {
    phase: TEST
  }
}
layer {
  name: "hdf5out"
  type: "HDF5Output"
  bottom: "prob"
  bottom: "label"
  include {
    phase: TEST
  }
  hdf5_output_param {
    file_name: "hdf5_dumps/iter_6132.h5"
  }
}
layer {
  name: "loss"
  type: "SoftmaxWithLoss"
  bottom: "fc8_plantvillage"
  bottom: "label"
  top: "loss"
}
layer {
  name: "accuracy"
  type: "Accuracy"
  bottom: "fc8_plantvillage"
  bottom: "label"
  top: "accuracy"
  include {
    phase: TEST
  }
}
I0403 13:00:37.092895 31138 layer_factory.hpp:77] Creating layer data
I0403 13:00:37.093629 31138 net.cpp:91] Creating Layer data
I0403 13:00:37.093659 31138 net.cpp:399] data -> data
I0403 13:00:37.093708 31138 net.cpp:399] data -> label
I0403 13:00:37.093746 31138 data_transformer.cpp:25] Loading mean file from: /home/mohanty/data/final_dataset/lmdb/segmented-40-60/mean.binaryproto
I0403 13:00:37.094882 31140 db_lmdb.cpp:38] Opened lmdb /home/mohanty/data/final_dataset/lmdb/segmented-40-60/test_db
I0403 13:00:37.108363 31138 data_layer.cpp:41] output data size: 100,3,227,227
I0403 13:00:37.325532 31138 net.cpp:141] Setting up data
I0403 13:00:37.325603 31138 net.cpp:148] Top shape: 100 3 227 227 (15458700)
I0403 13:00:37.325626 31138 net.cpp:148] Top shape: 100 (100)
I0403 13:00:37.325642 31138 net.cpp:156] Memory required for data: 61835200
I0403 13:00:37.325669 31138 layer_factory.hpp:77] Creating layer label_data_1_split
I0403 13:00:37.325695 31138 net.cpp:91] Creating Layer label_data_1_split
I0403 13:00:37.325712 31138 net.cpp:425] label_data_1_split <- label
I0403 13:00:37.325742 31138 net.cpp:399] label_data_1_split -> label_data_1_split_0
I0403 13:00:37.325769 31138 net.cpp:399] label_data_1_split -> label_data_1_split_1
I0403 13:00:37.325791 31138 net.cpp:399] label_data_1_split -> label_data_1_split_2
I0403 13:00:37.325862 31138 net.cpp:141] Setting up label_data_1_split
I0403 13:00:37.325886 31138 net.cpp:148] Top shape: 100 (100)
I0403 13:00:37.325903 31138 net.cpp:148] Top shape: 100 (100)
I0403 13:00:37.325920 31138 net.cpp:148] Top shape: 100 (100)
I0403 13:00:37.325937 31138 net.cpp:156] Memory required for data: 61836400
I0403 13:00:37.325953 31138 layer_factory.hpp:77] Creating layer conv1
I0403 13:00:37.325987 31138 net.cpp:91] Creating Layer conv1
I0403 13:00:37.326009 31138 net.cpp:425] conv1 <- data
I0403 13:00:37.326031 31138 net.cpp:399] conv1 -> conv1
I0403 13:00:39.615454 31138 net.cpp:141] Setting up conv1
I0403 13:00:39.615545 31138 net.cpp:148] Top shape: 100 96 55 55 (29040000)
I0403 13:00:39.615563 31138 net.cpp:156] Memory required for data: 177996400
I0403 13:00:39.615595 31138 layer_factory.hpp:77] Creating layer relu1
I0403 13:00:39.615624 31138 net.cpp:91] Creating Layer relu1
I0403 13:00:39.615643 31138 net.cpp:425] relu1 <- conv1
I0403 13:00:39.615663 31138 net.cpp:386] relu1 -> conv1 (in-place)
I0403 13:00:39.621397 31138 net.cpp:141] Setting up relu1
I0403 13:00:39.621489 31138 net.cpp:148] Top shape: 100 96 55 55 (29040000)
I0403 13:00:39.621541 31138 net.cpp:156] Memory required for data: 294156400
I0403 13:00:39.621561 31138 layer_factory.hpp:77] Creating layer norm1
I0403 13:00:39.621597 31138 net.cpp:91] Creating Layer norm1
I0403 13:00:39.621616 31138 net.cpp:425] norm1 <- conv1
I0403 13:00:39.621637 31138 net.cpp:399] norm1 -> norm1
I0403 13:00:39.622035 31138 net.cpp:141] Setting up norm1
I0403 13:00:39.622064 31138 net.cpp:148] Top shape: 100 96 55 55 (29040000)
I0403 13:00:39.622079 31138 net.cpp:156] Memory required for data: 410316400
I0403 13:00:39.622095 31138 layer_factory.hpp:77] Creating layer pool1
I0403 13:00:39.622120 31138 net.cpp:91] Creating Layer pool1
I0403 13:00:39.622138 31138 net.cpp:425] pool1 <- norm1
I0403 13:00:39.622158 31138 net.cpp:399] pool1 -> pool1
I0403 13:00:39.622226 31138 net.cpp:141] Setting up pool1
I0403 13:00:39.622251 31138 net.cpp:148] Top shape: 100 96 27 27 (6998400)
I0403 13:00:39.622267 31138 net.cpp:156] Memory required for data: 438310000
I0403 13:00:39.622287 31138 layer_factory.hpp:77] Creating layer conv2
I0403 13:00:39.622313 31138 net.cpp:91] Creating Layer conv2
I0403 13:00:39.622329 31138 net.cpp:425] conv2 <- pool1
I0403 13:00:39.622349 31138 net.cpp:399] conv2 -> conv2
I0403 13:00:39.655990 31138 net.cpp:141] Setting up conv2
I0403 13:00:39.656090 31138 net.cpp:148] Top shape: 100 256 27 27 (18662400)
I0403 13:00:39.656112 31138 net.cpp:156] Memory required for data: 512959600
I0403 13:00:39.656142 31138 layer_factory.hpp:77] Creating layer relu2
I0403 13:00:39.656167 31138 net.cpp:91] Creating Layer relu2
I0403 13:00:39.656184 31138 net.cpp:425] relu2 <- conv2
I0403 13:00:39.656204 31138 net.cpp:386] relu2 -> conv2 (in-place)
I0403 13:00:39.656754 31138 net.cpp:141] Setting up relu2
I0403 13:00:39.656787 31138 net.cpp:148] Top shape: 100 256 27 27 (18662400)
I0403 13:00:39.656805 31138 net.cpp:156] Memory required for data: 587609200
I0403 13:00:39.656821 31138 layer_factory.hpp:77] Creating layer norm2
I0403 13:00:39.656844 31138 net.cpp:91] Creating Layer norm2
I0403 13:00:39.656860 31138 net.cpp:425] norm2 <- conv2
I0403 13:00:39.656882 31138 net.cpp:399] norm2 -> norm2
I0403 13:00:39.657100 31138 net.cpp:141] Setting up norm2
I0403 13:00:39.657126 31138 net.cpp:148] Top shape: 100 256 27 27 (18662400)
I0403 13:00:39.657141 31138 net.cpp:156] Memory required for data: 662258800
I0403 13:00:39.657157 31138 layer_factory.hpp:77] Creating layer pool2
I0403 13:00:39.657179 31138 net.cpp:91] Creating Layer pool2
I0403 13:00:39.657196 31138 net.cpp:425] pool2 <- norm2
I0403 13:00:39.657214 31138 net.cpp:399] pool2 -> pool2
I0403 13:00:39.657276 31138 net.cpp:141] Setting up pool2
I0403 13:00:39.657301 31138 net.cpp:148] Top shape: 100 256 13 13 (4326400)
I0403 13:00:39.657316 31138 net.cpp:156] Memory required for data: 679564400
I0403 13:00:39.657331 31138 layer_factory.hpp:77] Creating layer conv3
I0403 13:00:39.657358 31138 net.cpp:91] Creating Layer conv3
I0403 13:00:39.657376 31138 net.cpp:425] conv3 <- pool2
I0403 13:00:39.657397 31138 net.cpp:399] conv3 -> conv3
I0403 13:00:39.710798 31138 net.cpp:141] Setting up conv3
I0403 13:00:39.710885 31138 net.cpp:148] Top shape: 100 384 13 13 (6489600)
I0403 13:00:39.710901 31138 net.cpp:156] Memory required for data: 705522800
I0403 13:00:39.710927 31138 layer_factory.hpp:77] Creating layer relu3
I0403 13:00:39.710955 31138 net.cpp:91] Creating Layer relu3
I0403 13:00:39.710973 31138 net.cpp:425] relu3 <- conv3
I0403 13:00:39.710993 31138 net.cpp:386] relu3 -> conv3 (in-place)
I0403 13:00:39.711311 31138 net.cpp:141] Setting up relu3
I0403 13:00:39.711364 31138 net.cpp:148] Top shape: 100 384 13 13 (6489600)
I0403 13:00:39.711380 31138 net.cpp:156] Memory required for data: 731481200
I0403 13:00:39.711396 31138 layer_factory.hpp:77] Creating layer conv4
I0403 13:00:39.711426 31138 net.cpp:91] Creating Layer conv4
I0403 13:00:39.711444 31138 net.cpp:425] conv4 <- conv3
I0403 13:00:39.711463 31138 net.cpp:399] conv4 -> conv4
I0403 13:00:39.741847 31138 net.cpp:141] Setting up conv4
I0403 13:00:39.741935 31138 net.cpp:148] Top shape: 100 384 13 13 (6489600)
I0403 13:00:39.741984 31138 net.cpp:156] Memory required for data: 757439600
I0403 13:00:39.742013 31138 layer_factory.hpp:77] Creating layer relu4
I0403 13:00:39.742039 31138 net.cpp:91] Creating Layer relu4
I0403 13:00:39.742058 31138 net.cpp:425] relu4 <- conv4
I0403 13:00:39.742077 31138 net.cpp:386] relu4 -> conv4 (in-place)
I0403 13:00:39.742382 31138 net.cpp:141] Setting up relu4
I0403 13:00:39.742408 31138 net.cpp:148] Top shape: 100 384 13 13 (6489600)
I0403 13:00:39.742424 31138 net.cpp:156] Memory required for data: 783398000
I0403 13:00:39.742439 31138 layer_factory.hpp:77] Creating layer conv5
I0403 13:00:39.742467 31138 net.cpp:91] Creating Layer conv5
I0403 13:00:39.742486 31138 net.cpp:425] conv5 <- conv4
I0403 13:00:39.742506 31138 net.cpp:399] conv5 -> conv5
I0403 13:00:39.763622 31138 net.cpp:141] Setting up conv5
I0403 13:00:39.763705 31138 net.cpp:148] Top shape: 100 256 13 13 (4326400)
I0403 13:00:39.763720 31138 net.cpp:156] Memory required for data: 800703600
I0403 13:00:39.763751 31138 layer_factory.hpp:77] Creating layer relu5
I0403 13:00:39.763775 31138 net.cpp:91] Creating Layer relu5
I0403 13:00:39.763792 31138 net.cpp:425] relu5 <- conv5
I0403 13:00:39.763811 31138 net.cpp:386] relu5 -> conv5 (in-place)
I0403 13:00:39.764149 31138 net.cpp:141] Setting up relu5
I0403 13:00:39.764179 31138 net.cpp:148] Top shape: 100 256 13 13 (4326400)
I0403 13:00:39.764196 31138 net.cpp:156] Memory required for data: 818009200
I0403 13:00:39.764212 31138 layer_factory.hpp:77] Creating layer pool5
I0403 13:00:39.764235 31138 net.cpp:91] Creating Layer pool5
I0403 13:00:39.764251 31138 net.cpp:425] pool5 <- conv5
I0403 13:00:39.764276 31138 net.cpp:399] pool5 -> pool5
I0403 13:00:39.764340 31138 net.cpp:141] Setting up pool5
I0403 13:00:39.764364 31138 net.cpp:148] Top shape: 100 256 6 6 (921600)
I0403 13:00:39.764379 31138 net.cpp:156] Memory required for data: 821695600
I0403 13:00:39.764394 31138 layer_factory.hpp:77] Creating layer fc6
I0403 13:00:39.764425 31138 net.cpp:91] Creating Layer fc6
I0403 13:00:39.764442 31138 net.cpp:425] fc6 <- pool5
I0403 13:00:39.764463 31138 net.cpp:399] fc6 -> fc6
I0403 13:00:41.344424 31138 net.cpp:141] Setting up fc6
I0403 13:00:41.344512 31138 net.cpp:148] Top shape: 100 4096 (409600)
I0403 13:00:41.344529 31138 net.cpp:156] Memory required for data: 823334000
I0403 13:00:41.344550 31138 layer_factory.hpp:77] Creating layer relu6
I0403 13:00:41.344573 31138 net.cpp:91] Creating Layer relu6
I0403 13:00:41.344589 31138 net.cpp:425] relu6 <- fc6
I0403 13:00:41.344614 31138 net.cpp:386] relu6 -> fc6 (in-place)
I0403 13:00:41.344841 31138 net.cpp:141] Setting up relu6
I0403 13:00:41.344868 31138 net.cpp:148] Top shape: 100 4096 (409600)
I0403 13:00:41.344883 31138 net.cpp:156] Memory required for data: 824972400
I0403 13:00:41.344897 31138 layer_factory.hpp:77] Creating layer drop6
I0403 13:00:41.344916 31138 net.cpp:91] Creating Layer drop6
I0403 13:00:41.344930 31138 net.cpp:425] drop6 <- fc6
I0403 13:00:41.344947 31138 net.cpp:386] drop6 -> fc6 (in-place)
I0403 13:00:41.345001 31138 net.cpp:141] Setting up drop6
I0403 13:00:41.345022 31138 net.cpp:148] Top shape: 100 4096 (409600)
I0403 13:00:41.345037 31138 net.cpp:156] Memory required for data: 826610800
I0403 13:00:41.345052 31138 layer_factory.hpp:77] Creating layer fc7
I0403 13:00:41.345072 31138 net.cpp:91] Creating Layer fc7
I0403 13:00:41.345088 31138 net.cpp:425] fc7 <- fc6
I0403 13:00:41.345105 31138 net.cpp:399] fc7 -> fc7
I0403 13:00:42.010915 31138 net.cpp:141] Setting up fc7
I0403 13:00:42.011008 31138 net.cpp:148] Top shape: 100 4096 (409600)
I0403 13:00:42.011024 31138 net.cpp:156] Memory required for data: 828249200
I0403 13:00:42.011045 31138 layer_factory.hpp:77] Creating layer relu7
I0403 13:00:42.011070 31138 net.cpp:91] Creating Layer relu7
I0403 13:00:42.011088 31138 net.cpp:425] relu7 <- fc7
I0403 13:00:42.011107 31138 net.cpp:386] relu7 -> fc7 (in-place)
I0403 13:00:42.011520 31138 net.cpp:141] Setting up relu7
I0403 13:00:42.011546 31138 net.cpp:148] Top shape: 100 4096 (409600)
I0403 13:00:42.011593 31138 net.cpp:156] Memory required for data: 829887600
I0403 13:00:42.011610 31138 layer_factory.hpp:77] Creating layer drop7
I0403 13:00:42.011631 31138 net.cpp:91] Creating Layer drop7
I0403 13:00:42.011646 31138 net.cpp:425] drop7 <- fc7
I0403 13:00:42.011663 31138 net.cpp:386] drop7 -> fc7 (in-place)
I0403 13:00:42.011706 31138 net.cpp:141] Setting up drop7
I0403 13:00:42.011728 31138 net.cpp:148] Top shape: 100 4096 (409600)
I0403 13:00:42.011741 31138 net.cpp:156] Memory required for data: 831526000
I0403 13:00:42.011755 31138 layer_factory.hpp:77] Creating layer fc8_plantvillage
I0403 13:00:42.011775 31138 net.cpp:91] Creating Layer fc8_plantvillage
I0403 13:00:42.011788 31138 net.cpp:425] fc8_plantvillage <- fc7
I0403 13:00:42.011807 31138 net.cpp:399] fc8_plantvillage -> fc8_plantvillage
I0403 13:00:42.018317 31138 net.cpp:141] Setting up fc8_plantvillage
I0403 13:00:42.018347 31138 net.cpp:148] Top shape: 100 38 (3800)
I0403 13:00:42.018363 31138 net.cpp:156] Memory required for data: 831541200
I0403 13:00:42.018381 31138 layer_factory.hpp:77] Creating layer fc8_plantvillage_fc8_plantvillage_0_split
I0403 13:00:42.018399 31138 net.cpp:91] Creating Layer fc8_plantvillage_fc8_plantvillage_0_split
I0403 13:00:42.018414 31138 net.cpp:425] fc8_plantvillage_fc8_plantvillage_0_split <- fc8_plantvillage
I0403 13:00:42.018430 31138 net.cpp:399] fc8_plantvillage_fc8_plantvillage_0_split -> fc8_plantvillage_fc8_plantvillage_0_split_0
I0403 13:00:42.018450 31138 net.cpp:399] fc8_plantvillage_fc8_plantvillage_0_split -> fc8_plantvillage_fc8_plantvillage_0_split_1
I0403 13:00:42.018474 31138 net.cpp:399] fc8_plantvillage_fc8_plantvillage_0_split -> fc8_plantvillage_fc8_plantvillage_0_split_2
I0403 13:00:42.018551 31138 net.cpp:141] Setting up fc8_plantvillage_fc8_plantvillage_0_split
I0403 13:00:42.018574 31138 net.cpp:148] Top shape: 100 38 (3800)
I0403 13:00:42.018589 31138 net.cpp:148] Top shape: 100 38 (3800)
I0403 13:00:42.018604 31138 net.cpp:148] Top shape: 100 38 (3800)
I0403 13:00:42.018617 31138 net.cpp:156] Memory required for data: 831586800
I0403 13:00:42.018631 31138 layer_factory.hpp:77] Creating layer prob
I0403 13:00:42.018651 31138 net.cpp:91] Creating Layer prob
I0403 13:00:42.018666 31138 net.cpp:425] prob <- fc8_plantvillage_fc8_plantvillage_0_split_0
I0403 13:00:42.018683 31138 net.cpp:399] prob -> prob
I0403 13:00:42.018900 31138 net.cpp:141] Setting up prob
I0403 13:00:42.018925 31138 net.cpp:148] Top shape: 100 38 (3800)
I0403 13:00:42.018939 31138 net.cpp:156] Memory required for data: 831602000
I0403 13:00:42.018954 31138 layer_factory.hpp:77] Creating layer hdf5out
I0403 13:00:42.018975 31138 net.cpp:91] Creating Layer hdf5out
I0403 13:00:42.018990 31138 net.cpp:425] hdf5out <- prob
I0403 13:00:42.019006 31138 net.cpp:425] hdf5out <- label_data_1_split_0
I0403 13:00:42.021530 31138 net.cpp:141] Setting up hdf5out
…
