…
I0403 15:46:49.315614 11289 net.cpp:313] The NetState phase (1) differed from the phase (0) specified by a rule in layer data
I0403 15:46:49.316717 11289 net.cpp:49] Initializing net from parameters: 
state {
  phase: TEST
}
layer {
  name: "data"
  type: "Data"
  top: "data"
  top: "label"
  include {
    phase: TEST
  }
  transform_param {
    mirror: false
    crop_size: 224
    mean_file: "/home/mohanty/data/final_dataset/lmdb/segmented-80-20/mean.binaryproto"
  }
  data_param {
    source: "/home/mohanty/data/final_dataset/lmdb/segmented-80-20/test_db"
    batch_size: 24
    backend: LMDB
  }
}
layer {
  name: "conv1/7x7_s2"
  type: "Convolution"
  bottom: "data"
  top: "conv1/7x7_s2"
  param {
    lr_mult: 1
    decay_mult: 1
  }
  param {
    lr_mult: 2
    decay_mult: 0
  }
  convolution_param {
    num_output: 64
    pad: 3
    kernel_size: 7
    stride: 2
    weight_filler {
      type: "xavier"
      std: 0.1
    }
    bias_filler {
      type: "constant"
      value: 0.2
    }
  }
}
layer {
  name: "conv1/relu_7x7"
  type: "ReLU"
  bottom: "conv1/7x7_s2"
  top: "conv1/7x7_s2"
}
layer {
  name: "pool1/3x3_s2"
  type: "Pooling"
  bottom: "conv1/7x7_s2"
  top: "pool1/3x3_s2"
  pooling_param {
    pool: MAX
    kernel_size: 3
    stride: 2
  }
}
layer {
  name: "pool1/norm1"
  type: "LRN"
  bottom: "pool1/3x3_s2"
  top: "pool1/norm1"
  lrn_param {
    local_size: 5
    alpha: 0.0001
    beta: 0.75
  }
}
layer {
  name: "conv2/3x3_reduce"
  type: "Convolution"
  bottom: "pool1/norm1"
  top: "conv2/3x3_reduce"
  param {
    lr_mult: 1
    decay_mult: 1
  }
  param {
    lr_mult: 2
    decay_mult: 0
  }
  convolution_param {
    num_output: 64
    kernel_size: 1
    weight_filler {
      type: "xavier"
      std: 0.1
    }
    bias_filler {
      type: "constant"
      value: 0.2
    }
  }
}
layer {
  name: "conv2/relu_3x3_reduce"
  type: "ReLU"
  bottom: "conv2/3x3_reduce"
  top: "conv2/3x3_reduce"
}
layer {
  name: "conv2/3x3"
  type: "Convolution"
  bottom: "conv2/3x3_reduce"
  top: "conv2/3x3"
  param {
    lr_mult: 1
    decay_mult: 1
  }
  param {
    lr_mult: 2
    decay_mult: 0
  }
  convolution_param {
    num_output: 192
    pad: 1
    kernel_size: 3
    weight_filler {
      type: "xavier"
      std: 0.03
    }
    bias_filler {
      type: "constant"
      value: 0.2
    }
  }
}
layer {
  name: "conv2/relu_3x3"
  type: "ReLU"
  bottom: "conv2/3x3"
  top: "conv2/3x3"
}
layer {
  name: "conv2/norm2"
  type: "LRN"
  bottom: "conv2/3x3"
  top: "conv2/norm2"
  lrn_param {
    local_size: 5
    alpha: 0.0001
    beta: 0.75
  }
}
layer {
  name: "pool2/3x3_s2"
  type: "Pooling"
  bottom: "conv2/norm2"
  top: "pool2/3x3_s2"
  pooling_param {
    pool: MAX
    kernel_size: 3
    stride: 2
  }
}
layer {
  name: "inception_3a/1x1"
  type: "Convolution"
  bottom: "pool2/3x3_s2"
  top: "inception_3a/1x1"
  param {
    lr_mult: 1
    decay_mult: 1
  }
  param {
    lr_mult: 2
    decay_mult: 0
  }
  convolution_param {
    num_output: 64
    kernel_size: 1
    weight_filler {
      type: "xavier"
      std: 0.03
    }
    bias_filler {
      type: "constant"
      value: 0.2
    }
  }
}
layer {
  name: "inception_3a/relu_1x1"
  type: "ReLU"
  bottom: "inception_3a/1x1"
  top: "inception_3a/1x1"
}
layer {
  name: "inception_3a/3x3_reduce"
  type: "Convolution"
  bottom: "pool2/3x3_s2"
  top: "inception_3a/3x3_reduce"
  param {
    lr_mult: 1
    decay_mult: 1
  }
  param {
    lr_mult: 2
    decay_mult: 0
  }
  convolution_param {
    num_output: 96
    kernel_size: 1
    weight_filler {
      type: "xavier"
      std: 0.09
    }
    bias_filler {
      type: "constant"
      value: 0.2
    }
  }
}
layer {
  name: "inception_3a/relu_3x3_reduce"
  type: "ReLU"
  bottom: "inception_3a/3x3_reduce"
  top: "inception_3a/3x3_reduce"
}
layer {
  name: "inception_3a/3x3"
  type: "Convolution"
  bottom: "inception_3a/3x3_reduce"
  top: "inception_3a/3x3"
  param {
    lr_mult: 1
    decay_mult: 1
  }
  param {
    lr_mult: 2
    decay_mult: 0
  }
  convolution_param {
    num_output: 128
    pad: 1
    kernel_size: 3
    weight_filler {
      type: "xavier"
      std: 0.03
    }
    bias_filler {
      type: "constant"
      value: 0.2
    }
  }
}
layer {
  name: "inception_3a/relu_3x3"
  type: "ReLU"
  bottom: "inception_3a/3x3"
  top: "inception_3a/3x3"
}
layer {
  name: "inception_3a/5x5_reduce"
  type: "Convolution"
  bottom: "pool2/3x3_s2"
  top: "inception_3a/5x5_reduce"
  param {
    lr_mult: 1
    decay_mult: 1
  }
  param {
    lr_mult: 2
    decay_mult: 0
  }
  convolution_param {
    num_output: 16
    kernel_size: 1
    weight_filler {
      type: "xavier"
      std: 0.2
    }
    bias_filler {
      type: "constant"
      value: 0.2
    }
  }
}
layer {
  name: "inception_3a/relu_5x5_reduce"
  type: "ReLU"
  bottom: "inception_3a/5x5_reduce"
  top: "inception_3a/5x5_reduce"
}
layer {
  name: "inception_3a/5x5"
  type: "Convolution"
  bottom: "inception_3a/5x5_reduce"
  top: "inception_3a/5x5"
  param {
    lr_mult: 1
    decay_mult: 1
  }
  param {
    lr_mult: 2
    decay_mult: 0
  }
  convolution_param {
    num_output: 32
    pad: 2
    kernel_size: 5
    weight_filler {
      type: "xavier"
      std: 0.03
    }
    bias_filler {
      type: "constant"
      value: 0.2
    }
  }
}
layer {
  name: "inception_3a/relu_5x5"
  type: "ReLU"
  bottom: "inception_3a/5x5"
  top: "inception_3a/5x5"
}
layer {
  name: "inception_3a/pool"
  type: "Pooling"
  bottom: "pool2/3x3_s2"
  top: "inception_3a/pool"
  pooling_param {
    pool: MAX
    kernel_size: 3
    stride: 1
    pad: 1
  }
}
layer {
  name: "inception_3a/pool_proj"
  type: "Convolution"
  bottom: "inception_3a/pool"
  top: "inception_3a/pool_proj"
  param {
    lr_mult: 1
    decay_mult: 1
  }
  param {
    lr_mult: 2
    decay_mult: 0
  }
  convolution_param {
    num_output: 32
    kernel_size: 1
    weight_filler {
      type: "xavier"
      std: 0.1
    }
    bias_filler {
      type: "constant"
      value: 0.2
    }
  }
}
layer {
  name: "inception_3a/relu_pool_proj"
  type: "ReLU"
  bottom: "inception_3a/pool_proj"
  top: "inception_3a/pool_proj"
}
layer {
  name: "inception_3a/output"
  type: "Concat"
  bottom: "inception_3a/1x1"
  bottom: "inception_3a/3x3"
  bottom: "inception_3a/5x5"
  bottom: "inception_3a/pool_proj"
  top: "inception_3a/output"
}
layer {
  name: "inception_3b/1x1"
  type: "Convolution"
  bottom: "inception_3a/output"
  top: "inception_3b/1x1"
  param {
    lr_mult: 1
    decay_mult: 1
  }
  param {
    lr_mult: 2
    decay_mult: 0
  }
  convolution_param {
    num_output: 128
    kernel_size: 1
    weight_filler {
      type: "xavier"
      std: 0.03
    }
    bias_filler {
      type: "constant"
      value: 0.2
    }
  }
}
layer {
  name: "inception_3b/relu_1x1"
  type: "ReLU"
  bottom: "inception_3b/1x1"
  top: "inception_3b/1x1"
}
layer {
  name: "inception_3b/3x3_reduce"
  type: "Convolution"
  bottom: "inception_3a/output"
  top: "inception_3b/3x3_reduce"
  param {
    lr_mult: 1
    decay_mult: 1
  }
  param {
    lr_mult: 2
    decay_mult: 0
  }
  convolution_param {
    num_output: 128
    kernel_size: 1
    weight_filler {
      type: "xavier"
      std: 0.09
    }
    bias_filler {
      type: "constant"
      value: 0.2
    }
  }
}
layer {
  name: "inception_3b/relu_3x3_reduce"
  type: "ReLU"
  bottom: "inception_3b/3x3_reduce"
  top: "inception_3b/3x3_reduce"
}
layer {
  name: "inception_3b/3x3"
  type: "Convolution"
  bottom: "inception_3b/3x3_reduce"
  top: "inception_3b/3x3"
  param {
    lr_mult: 1
    decay_mult: 1
  }
  param {
    lr_mult: 2
    decay_mult: 0
  }
  convolution_param {
    num_output: 192
    pad: 1
    kernel_size: 3
    weight_filler {
      type: "xavier"
      std: 0.03
    }
    bias_filler {
      type: "constant"
      value: 0.2
    }
  }
}
layer {
  name: "inception_3b/relu_3x3"
  type: "ReLU"
  bottom: "inception_3b/3x3"
  top: "inception_3b/3x3"
}
layer {
  name: "inception_3b/5x5_reduce"
  type: "Convolution"
  bottom: "inception_3a/output"
  top: "inception_3b/5x5_reduce"
  param {
    lr_mult: 1
    decay_mult: 1
  }
  param {
    lr_mult: 2
    decay_mult: 0
  }
  convolution_param {
    num_output: 32
    kernel_size: 1
    weight_filler {
      type: "xavier"
      std: 0.2
    }
    bias_filler {
      type: "constant"
      value: 0.2
    }
  }
}
layer {
  name: "inception_3b/relu_5x5_reduce"
  type: "ReLU"
  bottom: "inception_3b/5x5_reduce"
  top: "inception_3b/5x5_reduce"
}
layer {
  name: "inception_3b/5x5"
  type: "Convolution"
  bottom: "inception_3b/5x5_reduce"
  top: "inception_3b/5x5"
  param {
    lr_mult: 1
    decay_mult: 1
  }
  param {
    lr_mult: 2
    decay_mult: 0
  }
  convolution_param {
    num_output: 96
    pad: 2
    kernel_size: 5
    weight_filler {
      type: "xavier"
      std: 0.03
    }
    bias_filler {
      type: "constant"
      value: 0.2
    }
  }
}
layer {
  name: "inception_3b/relu_5x5"
  type: "ReLU"
  bottom: "inception_3b/5x5"
  top: "inception_3b/5x5"
}
layer {
  name: "inception_3b/pool"
  type: "Pooling"
  bottom: "inception_3a/output"
  top: "inception_3b/pool"
  pooling_param {
    pool: MAX
    kernel_size: 3
    stride: 1
    pad: 1
  }
}
layer {
  name: "inception_3b/pool_proj"
  type: "Convolution"
  bottom: "inception_3b/pool"
  top: "inception_3b/pool_proj"
  param {
    lr_mult: 1
    decay_mult: 1
  }
  param {
    lr_mult: 2
    decay_mult: 0
  }
  convolution_param {
    num_output: 64
    kernel_size: 1
    weight_filler {
      type: "xavier"
      std: 0.1
    }
    bias_filler {
      type: "constant"
      value: 0.2
    }
  }
}
layer {
  name: "inception_3b/relu_pool_proj"
  type: "ReLU"
  bottom: "inception_3b/pool_proj"
  top: "inception_3b/pool_proj"
}
layer {
  name: "inception_3b/output"
  type: "Concat"
  bottom: "inception_3b/1x1"
  bottom: "inception_3b/3x3"
  bottom: "inception_3b/5x5"
  bottom: "inception_3b/pool_proj"
  top: "inception_3b/output"
}
layer {
  name: "pool3/3x3_s2"
  type: "Pooling"
  bottom: "inception_3b/output"
  top: "pool3/3x3_s2"
  pooling_param {
    pool: MAX
    kernel_size: 3
    stride: 2
  }
}
layer {
  name: "inception_4a/1x1"
  type: "Convolution"
  bottom: "pool3/3x3_s2"
  top: "inception_4a/1x1"
  param {
    lr_mult: 1
    decay_mult: 1
  }
  param {
    lr_mult: 2
    decay_mult: 0
  }
  convolution_param {
    num_output: 192
    kernel_size: 1
    weight_filler {
      type: "xavier"
      std: 0.03
    }
    bias_filler {
      type: "constant"
      value: 0.2
    }
  }
}
layer {
  name: "inception_4a/relu_1x1"
  type: "ReLU"
  bottom: "inception_4a/1x1"
  top: "inception_4a/1x1"
}
layer {
  name: "inception_4a/3x3_reduce"
  type: "Convolution"
  bottom: "pool3/3x3_s2"
  top: "inception_4a/3x3_reduce"
  param {
    lr_mult: 1
    decay_mult: 1
  }
  param {
    lr_mult: 2
    decay_mult: 0
  }
  convolution_param {
    num_output: 96
    kernel_size: 1
    weight_filler {
      type: "xavier"
      std: 0.09
    }
    bias_filler {
      type: "constant"
      value: 0.2
    }
  }
}
layer {
  name: "inception_4a/relu_3x3_reduce"
  type: "ReLU"
  bottom: "inception_4a/3x3_reduce"
  top: "inception_4a/3x3_reduce"
}
layer {
  name: "inception_4a/3x3"
  type: "Convolution"
  bottom: "inception_4a/3x3_reduce"
  top: "inception_4a/3x3"
  param {
    lr_mult: 1
    decay_mult: 1
  }
  param {
    lr_mult: 2
    decay_mult: 0
  }
  convolution_param {
    num_output: 208
    pad: 1
    kernel_size: 3
    weight_filler {
      type: "xavier"
      std: 0.03
    }
    bias_filler {
      type: "constant"
      value: 0.2
    }
  }
}
layer {
  name: "inception_4a/relu_3x3"
  type: "ReLU"
  bottom: "inception_4a/3x3"
  top: "inception_4a/3x3"
}
layer {
  name: "inception_4a/5x5_reduce"
  type: "Convolution"
  bottom: "pool3/3x3_s2"
  top: "inception_4a/5x5_reduce"
  param {
    lr_mult: 1
    decay_mult: 1
  }
  param {
    lr_mult: 2
    decay_mult: 0
  }
  convolution_param {
    num_output: 16
    kernel_size: 1
    weight_filler {
      type: "xavier"
      std: 0.2
    }
    bias_filler {
      type: "constant"
      value: 0.2
    }
  }
}
layer {
  name: "inception_4a/relu_5x5_reduce"
  type: "ReLU"
  bottom: "inception_4a/5x5_reduce"
  top: "inception_4a/5x5_reduce"
}
layer {
  name: "inception_4a/5x5"
  type: "Convolution"
  bottom: "inception_4a/5x5_reduce"
  top: "inception_4a/5x5"
  param {
    lr_mult: 1
    decay_mult: 1
  }
  param {
    lr_mult: 2
    decay_mult: 0
  }
  convolution_param {
    num_output: 48
    pad: 2
    kernel_size: 5
    weight_filler {
      type: "xavier"
      std: 0.03
    }
    bias_filler {
      type: "constant"
      value: 0.2
    }
  }
}
layer {
  name: "inception_4a/relu_5x5"
  type: "ReLU"
  bottom: "inception_4a/5x5"
  top: "inception_4a/5x5"
}
layer {
  name: "inception_4a/pool"
  type: "Pooling"
  bottom: "pool3/3x3_s2"
  top: "inception_4a/pool"
  pooling_param {
    pool: MAX
    kernel_size: 3
    stride: 1
    pad: 1
  }
}
layer {
  name: "inception_4a/pool_proj"
  type: "Convolution"
  bottom: "inception_4a/pool"
  top: "inception_4a/pool_proj"
  param {
    lr_mult: 1
    decay_mult: 1
  }
  param {
    lr_mult: 2
    decay_mult: 0
  }
  convolution_param {
    num_output: 64
    kernel_size: 1
    weight_filler {
      type: "xavier"
      std: 0.1
    }
    bias_filler {
      type: "constant"
      value: 0.2
    }
  }
}
layer {
  name: "inception_4a/relu_pool_proj"
  type: "ReLU"
  bottom: "inception_4a/pool_proj"
  top: "inception_4a/pool_proj"
}
layer {
  name: "inception_4a/output"
  type: "Concat"
  bottom: "inception_4a/1x1"
  bottom: "inception_4a/3x3"
  bottom: "inception_4a/5x5"
  bottom: "inception_4a/pool_proj"
  top: "inception_4a/output"
}
layer {
  name: "loss1/ave_pool"
  type: "Pooling"
  bottom: "inception_4a/output"
  top: "loss1/ave_pool"
  pooling_param {
    pool: AVE
    kernel_size: 5
    stride: 3
  }
}
layer {
  name: "loss1/conv"
  type: "Convolution"
  bottom: "loss1/ave_pool"
  top: "loss1/conv"
  param {
    lr_mult: 1
    decay_mult: 1
  }
  param {
    lr_mult: 2
    decay_mult: 0
  }
  convolution_param {
    num_output: 128
    kernel_size: 1
    weight_filler {
      type: "xavier"
      std: 0.08
    }
    bias_filler {
      type: "constant"
      value: 0.2
    }
  }
}
layer {
  name: "loss1/relu_conv"
  type: "ReLU"
  bottom: "loss1/conv"
  top: "loss1/conv"
}
layer {
  name: "loss1/fc"
  type: "InnerProduct"
  bottom: "loss1/conv"
  top: "loss1/fc"
  param {
    lr_mult: 1
    decay_mult: 1
  }
  param {
    lr_mult: 2
    decay_mult: 0
  }
  inner_product_param {
    num_output: 1024
    weight_filler {
      type: "xavier"
      std: 0.02
    }
    bias_filler {
      type: "constant"
      value: 0.2
    }
  }
}
layer {
  name: "loss1/relu_fc"
  type: "ReLU"
  bottom: "loss1/fc"
  top: "loss1/fc"
}
layer {
  name: "loss1/drop_fc"
  type: "Dropout"
  bottom: "loss1/fc"
  top: "loss1/fc"
  dropout_param {
    dropout_ratio: 0.7
  }
}
layer {
  name: "loss1/classifier_plantvillage"
  type: "InnerProduct"
  bottom: "loss1/fc"
  top: "loss1/classifier_plantvillage"
  param {
    lr_mult: 1
    decay_mult: 1
  }
  param {
    lr_mult: 2
    decay_mult: 0
  }
  inner_product_param {
    num_output: 38
    weight_filler {
      type: "xavier"
      std: 0.0009765625
    }
    bias_filler {
      type: "constant"
      value: 0
    }
  }
}
layer {
  name: "inception_4b/1x1"
  type: "Convolution"
  bottom: "inception_4a/output"
  top: "inception_4b/1x1"
  param {
    lr_mult: 1
    decay_mult: 1
  }
  param {
    lr_mult: 2
    decay_mult: 0
  }
  convolution_param {
    num_output: 160
    kernel_size: 1
    weight_filler {
      type: "xavier"
      std: 0.03
    }
    bias_filler {
      type: "constant"
      value: 0.2
    }
  }
}
layer {
  name: "inception_4b/relu_1x1"
  type: "ReLU"
  bottom: "inception_4b/1x1"
  top: "inception_4b/1x1"
}
layer {
  name: "inception_4b/3x3_reduce"
  type: "Convolution"
  bottom: "inception_4a/output"
  top: "inception_4b/3x3_reduce"
  param {
    lr_mult: 1
    decay_mult: 1
  }
  param {
    lr_mult: 2
    decay_mult: 0
  }
  convolution_param {
    num_output: 112
    kernel_size: 1
    weight_filler {
      type: "xavier"
      std: 0.09
    }
    bias_filler {
      type: "constant"
      value: 0.2
    }
  }
}
layer {
  name: "inception_4b/relu_3x3_reduce"
  type: "ReLU"
  bottom: "inception_4b/3x3_reduce"
  top: "inception_4b/3x3_reduce"
}
layer {
  name: "inception_4b/3x3"
  type: "Convolution"
  bottom: "inception_4b/3x3_reduce"
  top: "inception_4b/3x3"
  param {
    lr_mult: 1
    decay_mult: 1
  }
  param {
    lr_mult: 2
    decay_mult: 0
  }
  convolution_param {
    num_output: 224
    pad: 1
    kernel_size: 3
    weight_filler {
      type: "xavier"
      std: 0.03
    }
    bias_filler {
      type: "constant"
      value: 0.2
    }
  }
}
layer {
  name: "inception_4b/relu_3x3"
  type: "ReLU"
  bottom: "inception_4b/3x3"
  top: "inception_4b/3x3"
}
layer {
  name: "inception_4b/5x5_reduce"
  type: "Convolution"
  bottom: "inception_4a/output"
  top: "inception_4b/5x5_reduce"
  param {
    lr_mult: 1
    decay_mult: 1
  }
  param {
    lr_mult: 2
    decay_mult: 0
  }
  convolution_param {
    num_output: 24
    kernel_size: 1
    weight_filler {
      type: "xavier"
      std: 0.2
    }
    bias_filler {
      type: "constant"
      value: 0.2
    }
  }
}
layer {
  name: "inception_4b/relu_5x5_reduce"
  type: "ReLU"
  bottom: "inception_4b/5x5_reduce"
  top: "inception_4b/5x5_reduce"
}
layer {
  name: "inception_4b/5x5"
  type: "Convolution"
  bottom: "inception_4b/5x5_reduce"
  top: "inception_4b/5x5"
  param {
    lr_mult: 1
    decay_mult: 1
  }
  param {
    lr_mult: 2
    decay_mult: 0
  }
  convolution_param {
    num_output: 64
    pad: 2
    kernel_size: 5
    weight_filler {
      type: "xavier"
      std: 0.03
    }
    bias_filler {
      type: "constant"
      value: 0.2
    }
  }
}
layer {
  name: "inception_4b/relu_5x5"
  type: "ReLU"
  bottom: "inception_4b/5x5"
  top: "inception_4b/5x5"
}
layer {
  name: "inception_4b/pool"
  type: "Pooling"
  bottom: "inception_4a/output"
  top: "inception_4b/pool"
  pooling_param {
    pool: MAX
    kernel_size: 3
    stride: 1
    pad: 1
  }
}
layer {
  name: "inception_4b/pool_proj"
  type: "Convolution"
  bottom: "inception_4b/pool"
  top: "inception_4b/pool_proj"
  param {
    lr_mult: 1
    decay_mult: 1
  }
  param {
    lr_mult: 2
    decay_mult: 0
  }
  convolution_param {
    num_output: 64
    kernel_size: 1
    weight_filler {
      type: "xavier"
      std: 0.1
    }
    bias_filler {
      type: "constant"
      value: 0.2
    }
  }
}
layer {
  name: "inception_4b/relu_pool_proj"
  type: "ReLU"
  bottom: "inception_4b/pool_proj"
  top: "inception_4b/pool_proj"
}
layer {
  name: "inception_4b/output"
  type: "Concat"
  bottom: "inception_4b/1x1"
  bottom: "inception_4b/3x3"
  bottom: "inception_4b/5x5"
  bottom: "inception_4b/pool_proj"
  top: "inception_4b/output"
}
layer {
  name: "inception_4c/1x1"
  type: "Convolution"
  bottom: "inception_4b/output"
  top: "inception_4c/1x1"
  param {
    lr_mult: 1
    decay_mult: 1
  }
  param {
    lr_mult: 2
    decay_mult: 0
  }
  convolution_param {
    num_output: 128
    kernel_size: 1
    weight_filler {
      type: "xavier"
      std: 0.03
    }
    bias_filler {
      type: "constant"
      value: 0.2
    }
  }
}
layer {
  name: "inception_4c/relu_1x1"
  type: "ReLU"
  bottom: "inception_4c/1x1"
  top: "inception_4c/1x1"
}
layer {
  name: "inception_4c/3x3_reduce"
  type: "Convolution"
  bottom: "inception_4b/output"
  top: "inception_4c/3x3_reduce"
  param {
    lr_mult: 1
    decay_mult: 1
  }
  param {
    lr_mult: 2
    decay_mult: 0
  }
  convolution_param {
    num_output: 128
    kernel_size: 1
    weight_filler {
      type: "xavier"
      std: 0.09
    }
    bias_filler {
      type: "constant"
      value: 0.2
    }
  }
}
layer {
  name: "inception_4c/relu_3x3_reduce"
  type: "ReLU"
  bottom: "inception_4c/3x3_reduce"
  top: "inception_4c/3x3_reduce"
}
layer {
  name: "inception_4c/3x3"
  type: "Convolution"
  bottom: "inception_4c/3x3_reduce"
  top: "inception_4c/3x3"
  param {
    lr_mult: 1
    decay_mult: 1
  }
  param {
    lr_mult: 2
    decay_mult: 0
  }
  convolution_param {
    num_output: 256
    pad: 1
    kernel_size: 3
    weight_filler {
      type: "xavier"
      std: 0.03
    }
    bias_filler {
      type: "constant"
      value: 0.2
    }
  }
}
layer {
  name: "inception_4c/relu_3x3"
  type: "ReLU"
  bottom: "inception_4c/3x3"
  top: "inception_4c/3x3"
}
layer {
  name: "inception_4c/5x5_reduce"
  type: "Convolution"
  bottom: "inception_4b/output"
  top: "inception_4c/5x5_reduce"
  param {
    lr_mult: 1
    decay_mult: 1
  }
  param {
    lr_mult: 2
    decay_mult: 0
  }
  convolution_param {
    num_output: 24
    kernel_size: 1
    weight_filler {
      type: "xavier"
      std: 0.2
    }
    bias_filler {
      type: "constant"
      value: 0.2
    }
  }
}
layer {
  name: "inception_4c/relu_5x5_reduce"
  type: "ReLU"
  bottom: "inception_4c/5x5_reduce"
  top: "inception_4c/5x5_reduce"
}
layer {
  name: "inception_4c/5x5"
  type: "Convolution"
  bottom: "inception_4c/5x5_reduce"
  top: "inception_4c/5x5"
  param {
    lr_mult: 1
    decay_mult: 1
  }
  param {
    lr_mult: 2
    decay_mult: 0
  }
  convolution_param {
    num_output: 64
    pad: 2
    kernel_size: 5
    weight_filler {
      type: "xavier"
      std: 0.03
    }
    bias_filler {
      type: "constant"
      value: 0.2
    }
  }
}
layer {
  name: "inception_4c/relu_5x5"
  type: "ReLU"
  bottom: "inception_4c/5x5"
  top: "inception_4c/5x5"
}
layer {
  name: "inception_4c/pool"
  type: "Pooling"
  bottom: "inception_4b/output"
  top: "inception_4c/pool"
  pooling_param {
    pool: MAX
    kernel_size: 3
    stride: 1
    pad: 1
  }
}
layer {
  name: "inception_4c/pool_proj"
  type: "Convolution"
  bottom: "inception_4c/pool"
  top: "inception_4c/pool_proj"
  param {
    lr_mult: 1
    decay_mult: 1
  }
  param {
    lr_mult: 2
    decay_mult: 0
  }
  convolution_param {
    num_output: 64
    kernel_size: 1
    weight_filler {
      type: "xavier"
      std: 0.1
    }
    bias_filler {
      type: "constant"
      value: 0.2
    }
  }
}
layer {
  name: "inception_4c/relu_pool_proj"
  type: "ReLU"
  bottom: "inception_4c/pool_proj"
  top: "inception_4c/pool_proj"
}
layer {
  name: "inception_4c/output"
  type: "Concat"
  bottom: "inception_4c/1x1"
  bottom: "inception_4c/3x3"
  bottom: "inception_4c/5x5"
  bottom: "inception_4c/pool_proj"
  top: "inception_4c/output"
}
layer {
  name: "inception_4d/1x1"
  type: "Convolution"
  bottom: "inception_4c/output"
  top: "inception_4d/1x1"
  param {
    lr_mult: 1
    decay_mult: 1
  }
  param {
    lr_mult: 2
    decay_mult: 0
  }
  convolution_param {
    num_output: 112
    kernel_size: 1
    weight_filler {
      type: "xavier"
      std: 0.03
    }
    bias_filler {
      type: "constant"
      value: 0.2
    }
  }
}
layer {
  name: "inception_4d/relu_1x1"
  type: "ReLU"
  bottom: "inception_4d/1x1"
  top: "inception_4d/1x1"
}
layer {
  name: "inception_4d/3x3_reduce"
  type: "Convolution"
  bottom: "inception_4c/output"
  top: "inception_4d/3x3_reduce"
  param {
    lr_mult: 1
    decay_mult: 1
  }
  param {
    lr_mult: 2
    decay_mult: 0
  }
  convolution_param {
    num_output: 144
    kernel_size: 1
    weight_filler {
      type: "xavier"
      std: 0.09
    }
    bias_filler {
      type: "constant"
      value: 0.2
    }
  }
}
layer {
  name: "inception_4d/relu_3x3_reduce"
  type: "ReLU"
  bottom: "inception_4d/3x3_reduce"
  top: "inception_4d/3x3_reduce"
}
layer {
  name: "inception_4d/3x3"
  type: "Convolution"
  bottom: "inception_4d/3x3_reduce"
  top: "inception_4d/3x3"
  param {
    lr_mult: 1
    decay_mult: 1
  }
  param {
    lr_mult: 2
    decay_mult: 0
  }
  convolution_param {
    num_output: 288
    pad: 1
    kernel_size: 3
    weight_filler {
      type: "xavier"
      std: 0.03
    }
    bias_filler {
      type: "constant"
      value: 0.2
    }
  }
}
layer {
  name: "inception_4d/relu_3x3"
  type: "ReLU"
  bottom: "inception_4d/3x3"
  top: "inception_4d/3x3"
}
layer {
  name: "inception_4d/5x5_reduce"
  type: "Convolution"
  bottom: "inception_4c/output"
  top: "inception_4d/5x5_reduce"
  param {
    lr_mult: 1
    decay_mult: 1
  }
  param {
    lr_mult: 2
    decay_mult: 0
  }
  convolution_param {
    num_output: 32
    kernel_size: 1
    weight_filler {
      type: "xavier"
      std: 0.2
    }
    bias_filler {
      type: "constant"
      value: 0.2
    }
  }
}
layer {
  name: "inception_4d/relu_5x5_reduce"
  type: "ReLU"
  bottom: "inception_4d/5x5_reduce"
  top: "inception_4d/5x5_reduce"
}
layer {
  name: "inception_4d/5x5"
  type: "Convolution"
  bottom: "inception_4d/5x5_reduce"
  top: "inception_4d/5x5"
  param {
    lr_mult: 1
    decay_mult: 1
  }
  param {
    lr_mult: 2
    decay_mult: 0
  }
  convolution_param {
    num_output: 64
    pad: 2
    kernel_size: 5
    weight_filler {
      type: "xavier"
      std: 0.03
    }
    bias_filler {
      type: "constant"
      value: 0.2
    }
  }
}
layer {
  name: "inception_4d/relu_5x5"
  type: "ReLU"
  bottom: "inception_4d/5x5"
  top: "inception_4d/5x5"
}
layer {
  name: "inception_4d/pool"
  type: "Pooling"
  bottom: "inception_4c/output"
  top: "inception_4d/pool"
  pooling_param {
    pool: MAX
    kernel_size: 3
    stride: 1
    pad: 1
  }
}
layer {
  name: "inception_4d/pool_proj"
  type: "Convolution"
  bottom: "inception_4d/pool"
  top: "inception_4d/pool_proj"
  param {
    lr_mult: 1
    decay_mult: 1
  }
  param {
    lr_mult: 2
    decay_mult: 0
  }
  convolution_param {
    num_output: 64
    kernel_size: 1
    weight_filler {
      type: "xavier"
      std: 0.1
    }
    bias_filler {
      type: "constant"
      value: 0.2
    }
  }
}
layer {
  name: "inception_4d/relu_pool_proj"
  type: "ReLU"
  bottom: "inception_4d/pool_proj"
  top: "inception_4d/pool_proj"
}
layer {
  name: "inception_4d/output"
  type: "Concat"
  bottom: "inception_4d/1x1"
  bottom: "inception_4d/3x3"
  bottom: "inception_4d/5x5"
  bottom: "inception_4d/pool_proj"
  top: "inception_4d/output"
}
layer {
  name: "loss2/ave_pool"
  type: "Pooling"
  bottom: "inception_4d/output"
  top: "loss2/ave_pool"
  pooling_param {
    pool: AVE
    kernel_size: 5
    stride: 3
  }
}
layer {
  name: "loss2/conv"
  type: "Convolution"
  bottom: "loss2/ave_pool"
  top: "loss2/conv"
  param {
    lr_mult: 1
    decay_mult: 1
  }
  param {
    lr_mult: 2
    decay_mult: 0
  }
  convolution_param {
    num_output: 128
    kernel_size: 1
    weight_filler {
      type: "xavier"
      std: 0.08
    }
    bias_filler {
      type: "constant"
      value: 0.2
    }
  }
}
layer {
  name: "loss2/relu_conv"
  type: "ReLU"
  bottom: "loss2/conv"
  top: "loss2/conv"
}
layer {
  name: "loss2/fc"
  type: "InnerProduct"
  bottom: "loss2/conv"
  top: "loss2/fc"
  param {
    lr_mult: 1
    decay_mult: 1
  }
  param {
    lr_mult: 2
    decay_mult: 0
  }
  inner_product_param {
    num_output: 1024
    weight_filler {
      type: "xavier"
      std: 0.02
    }
    bias_filler {
      type: "constant"
      value: 0.2
    }
  }
}
layer {
  name: "loss2/relu_fc"
  type: "ReLU"
  bottom: "loss2/fc"
  top: "loss2/fc"
}
layer {
  name: "loss2/drop_fc"
  type: "Dropout"
  bottom: "loss2/fc"
  top: "loss2/fc"
  dropout_param {
    dropout_ratio: 0.7
  }
}
layer {
  name: "loss2/classifier_plantvillage"
  type: "InnerProduct"
  bottom: "loss2/fc"
  top: "loss2/classifier_plantvillage"
  param {
    lr_mult: 1
    decay_mult: 1
  }
  param {
    lr_mult: 2
    decay_mult: 0
  }
  inner_product_param {
    num_output: 38
    weight_filler {
      type: "xavier"
      std: 0.0009765625
    }
    bias_filler {
      type: "constant"
      value: 0
    }
  }
}
layer {
  name: "inception_4e/1x1"
  type: "Convolution"
  bottom: "inception_4d/output"
  top: "inception_4e/1x1"
  param {
    lr_mult: 1
    decay_mult: 1
  }
  param {
    lr_mult: 2
    decay_mult: 0
  }
  convolution_param {
    num_output: 256
    kernel_size: 1
    weight_filler {
      type: "xavier"
      std: 0.03
    }
    bias_filler {
      type: "constant"
      value: 0.2
    }
  }
}
layer {
  name: "inception_4e/relu_1x1"
  type: "ReLU"
  bottom: "inception_4e/1x1"
  top: "inception_4e/1x1"
}
layer {
  name: "inception_4e/3x3_reduce"
  type: "Convolution"
  bottom: "inception_4d/output"
  top: "inception_4e/3x3_reduce"
  param {
    lr_mult: 1
    decay_mult: 1
  }
  param {
    lr_mult: 2
    decay_mult: 0
  }
  convolution_param {
    num_output: 160
    kernel_size: 1
    weight_filler {
      type: "xavier"
      std: 0.09
    }
    bias_filler {
      type: "constant"
      value: 0.2
    }
  }
}
layer {
  name: "inception_4e/relu_3x3_reduce"
  type: "ReLU"
  bottom: "inception_4e/3x3_reduce"
  top: "inception_4e/3x3_reduce"
}
layer {
  name: "inception_4e/3x3"
  type: "Convolution"
  bottom: "inception_4e/3x3_reduce"
  top: "inception_4e/3x3"
  param {
    lr_mult: 1
    decay_mult: 1
  }
  param {
    lr_mult: 2
    decay_mult: 0
  }
  convolution_param {
    num_output: 320
    pad: 1
    kernel_size: 3
    weight_filler {
      type: "xavier"
      std: 0.03
    }
    bias_filler {
      type: "constant"
      value: 0.2
    }
  }
}
layer {
  name: "inception_4e/relu_3x3"
  type: "ReLU"
  bottom: "inception_4e/3x3"
  top: "inception_4e/3x3"
}
layer {
  name: "inception_4e/5x5_reduce"
  type: "Convolution"
  bottom: "inception_4d/output"
  top: "inception_4e/5x5_reduce"
  param {
    lr_mult: 1
    decay_mult: 1
  }
  param {
    lr_mult: 2
    decay_mult: 0
  }
  convolution_param {
    num_output: 32
    kernel_size: 1
    weight_filler {
      type: "xavier"
      std: 0.2
    }
    bias_filler {
      type: "constant"
      value: 0.2
    }
  }
}
layer {
  name: "inception_4e/relu_5x5_reduce"
  type: "ReLU"
  bottom: "inception_4e/5x5_reduce"
  top: "inception_4e/5x5_reduce"
}
layer {
  name: "inception_4e/5x5"
  type: "Convolution"
  bottom: "inception_4e/5x5_reduce"
  top: "inception_4e/
I0403 15:46:49.317899 11289 layer_factory.hpp:77] Creating layer data
I0403 15:46:49.318477 11289 net.cpp:91] Creating Layer data
I0403 15:46:49.318511 11289 net.cpp:399] data -> data
I0403 15:46:49.318559 11289 net.cpp:399] data -> label
I0403 15:46:49.318595 11289 data_transformer.cpp:25] Loading mean file from: /home/mohanty/data/final_dataset/lmdb/segmented-80-20/mean.binaryproto
I0403 15:46:49.321954 11292 db_lmdb.cpp:38] Opened lmdb /home/mohanty/data/final_dataset/lmdb/segmented-80-20/test_db
I0403 15:46:49.331559 11289 data_layer.cpp:41] output data size: 24,3,224,224
I0403 15:46:49.358789 11289 net.cpp:141] Setting up data
I0403 15:46:49.358875 11289 net.cpp:148] Top shape: 24 3 224 224 (3612672)
I0403 15:46:49.358898 11289 net.cpp:148] Top shape: 24 (24)
I0403 15:46:49.358914 11289 net.cpp:156] Memory required for data: 14450784
I0403 15:46:49.358942 11289 layer_factory.hpp:77] Creating layer label_data_1_split
I0403 15:46:49.358971 11289 net.cpp:91] Creating Layer label_data_1_split
I0403 15:46:49.359002 11289 net.cpp:425] label_data_1_split <- label
I0403 15:46:49.359037 11289 net.cpp:399] label_data_1_split -> label_data_1_split_0
I0403 15:46:49.359067 11289 net.cpp:399] label_data_1_split -> label_data_1_split_1
I0403 15:46:49.359092 11289 net.cpp:399] label_data_1_split -> label_data_1_split_2
I0403 15:46:49.359114 11289 net.cpp:399] label_data_1_split -> label_data_1_split_3
I0403 15:46:49.359136 11289 net.cpp:399] label_data_1_split -> label_data_1_split_4
I0403 15:46:49.359158 11289 net.cpp:399] label_data_1_split -> label_data_1_split_5
I0403 15:46:49.359179 11289 net.cpp:399] label_data_1_split -> label_data_1_split_6
I0403 15:46:49.359200 11289 net.cpp:399] label_data_1_split -> label_data_1_split_7
I0403 15:46:49.359218 11289 net.cpp:399] label_data_1_split -> label_data_1_split_8
I0403 15:46:49.359238 11289 net.cpp:399] label_data_1_split -> label_data_1_split_9
I0403 15:46:49.359354 11289 net.cpp:141] Setting up label_data_1_split
I0403 15:46:49.359379 11289 net.cpp:148] Top shape: 24 (24)
I0403 15:46:49.359395 11289 net.cpp:148] Top shape: 24 (24)
I0403 15:46:49.359411 11289 net.cpp:148] Top shape: 24 (24)
I0403 15:46:49.359426 11289 net.cpp:148] Top shape: 24 (24)
I0403 15:46:49.359441 11289 net.cpp:148] Top shape: 24 (24)
I0403 15:46:49.359457 11289 net.cpp:148] Top shape: 24 (24)
I0403 15:46:49.359470 11289 net.cpp:148] Top shape: 24 (24)
I0403 15:46:49.359485 11289 net.cpp:148] Top shape: 24 (24)
I0403 15:46:49.359501 11289 net.cpp:148] Top shape: 24 (24)
I0403 15:46:49.359516 11289 net.cpp:148] Top shape: 24 (24)
I0403 15:46:49.359560 11289 net.cpp:156] Memory required for data: 14451744
I0403 15:46:49.359575 11289 layer_factory.hpp:77] Creating layer conv1/7x7_s2
I0403 15:46:49.359607 11289 net.cpp:91] Creating Layer conv1/7x7_s2
I0403 15:46:49.359627 11289 net.cpp:425] conv1/7x7_s2 <- data
I0403 15:46:49.359645 11289 net.cpp:399] conv1/7x7_s2 -> conv1/7x7_s2
I0403 15:46:49.501705 11289 net.cpp:141] Setting up conv1/7x7_s2
I0403 15:46:49.501793 11289 net.cpp:148] Top shape: 24 64 112 112 (19267584)
I0403 15:46:49.501811 11289 net.cpp:156] Memory required for data: 91522080
I0403 15:46:49.501844 11289 layer_factory.hpp:77] Creating layer conv1/relu_7x7
I0403 15:46:49.501873 11289 net.cpp:91] Creating Layer conv1/relu_7x7
I0403 15:46:49.501893 11289 net.cpp:425] conv1/relu_7x7 <- conv1/7x7_s2
I0403 15:46:49.501911 11289 net.cpp:386] conv1/relu_7x7 -> conv1/7x7_s2 (in-place)
I0403 15:46:49.502182 11289 net.cpp:141] Setting up conv1/relu_7x7
I0403 15:46:49.502212 11289 net.cpp:148] Top shape: 24 64 112 112 (19267584)
I0403 15:46:49.502228 11289 net.cpp:156] Memory required for data: 168592416
I0403 15:46:49.502244 11289 layer_factory.hpp:77] Creating layer pool1/3x3_s2
I0403 15:46:49.502270 11289 net.cpp:91] Creating Layer pool1/3x3_s2
I0403 15:46:49.502290 11289 net.cpp:425] pool1/3x3_s2 <- conv1/7x7_s2
I0403 15:46:49.502310 11289 net.cpp:399] pool1/3x3_s2 -> pool1/3x3_s2
I0403 15:46:49.502388 11289 net.cpp:141] Setting up pool1/3x3_s2
I0403 15:46:49.502416 11289 net.cpp:148] Top shape: 24 64 56 56 (4816896)
I0403 15:46:49.502431 11289 net.cpp:156] Memory required for data: 187860000
I0403 15:46:49.502446 11289 layer_factory.hpp:77] Creating layer pool1/norm1
I0403 15:46:49.502470 11289 net.cpp:91] Creating Layer pool1/norm1
I0403 15:46:49.502490 11289 net.cpp:425] pool1/norm1 <- pool1/3x3_s2
I0403 15:46:49.502507 11289 net.cpp:399] pool1/norm1 -> pool1/norm1
I0403 15:46:49.502823 11289 net.cpp:141] Setting up pool1/norm1
I0403 15:46:49.502851 11289 net.cpp:148] Top shape: 24 64 56 56 (4816896)
I0403 15:46:49.502867 11289 net.cpp:156] Memory required for data: 207127584
I0403 15:46:49.502882 11289 layer_factory.hpp:77] Creating layer conv2/3x3_reduce
I0403 15:46:49.502909 11289 net.cpp:91] Creating Layer conv2/3x3_reduce
I0403 15:46:49.502928 11289 net.cpp:425] conv2/3x3_reduce <- pool1/norm1
I0403 15:46:49.502949 11289 net.cpp:399] conv2/3x3_reduce -> conv2/3x3_reduce
I0403 15:46:49.504420 11289 net.cpp:141] Setting up conv2/3x3_reduce
I0403 15:46:49.504452 11289 net.cpp:148] Top shape: 24 64 56 56 (4816896)
I0403 15:46:49.504469 11289 net.cpp:156] Memory required for data: 226395168
I0403 15:46:49.504490 11289 layer_factory.hpp:77] Creating layer conv2/relu_3x3_reduce
I0403 15:46:49.504509 11289 net.cpp:91] Creating Layer conv2/relu_3x3_reduce
I0403 15:46:49.504525 11289 net.cpp:425] conv2/relu_3x3_reduce <- conv2/3x3_reduce
I0403 15:46:49.504545 11289 net.cpp:386] conv2/relu_3x3_reduce -> conv2/3x3_reduce (in-place)
I0403 15:46:49.504832 11289 net.cpp:141] Setting up conv2/relu_3x3_reduce
I0403 15:46:49.504863 11289 net.cpp:148] Top shape: 24 64 56 56 (4816896)
I0403 15:46:49.504878 11289 net.cpp:156] Memory required for data: 245662752
I0403 15:46:49.504894 11289 layer_factory.hpp:77] Creating layer conv2/3x3
I0403 15:46:49.504920 11289 net.cpp:91] Creating Layer conv2/3x3
I0403 15:46:49.504938 11289 net.cpp:425] conv2/3x3 <- conv2/3x3_reduce
I0403 15:46:49.504961 11289 net.cpp:399] conv2/3x3 -> conv2/3x3
I0403 15:46:49.507387 11289 net.cpp:141] Setting up conv2/3x3
I0403 15:46:49.507432 11289 net.cpp:148] Top shape: 24 192 56 56 (14450688)
I0403 15:46:49.507449 11289 net.cpp:156] Memory required for data: 303465504
I0403 15:46:49.507472 11289 layer_factory.hpp:77] Creating layer conv2/relu_3x3
I0403 15:46:49.507491 11289 net.cpp:91] Creating Layer conv2/relu_3x3
I0403 15:46:49.507508 11289 net.cpp:425] conv2/relu_3x3 <- conv2/3x3
I0403 15:46:49.507526 11289 net.cpp:386] conv2/relu_3x3 -> conv2/3x3 (in-place)
I0403 15:46:49.507709 11289 net.cpp:141] Setting up conv2/relu_3x3
I0403 15:46:49.507733 11289 net.cpp:148] Top shape: 24 192 56 56 (14450688)
I0403 15:46:49.507791 11289 net.cpp:156] Memory required for data: 361268256
I0403 15:46:49.507807 11289 layer_factory.hpp:77] Creating layer conv2/norm2
I0403 15:46:49.507827 11289 net.cpp:91] Creating Layer conv2/norm2
I0403 15:46:49.507843 11289 net.cpp:425] conv2/norm2 <- conv2/3x3
I0403 15:46:49.507861 11289 net.cpp:399] conv2/norm2 -> conv2/norm2
I0403 15:46:49.508167 11289 net.cpp:141] Setting up conv2/norm2
I0403 15:46:49.508195 11289 net.cpp:148] Top shape: 24 192 56 56 (14450688)
I0403 15:46:49.508213 11289 net.cpp:156] Memory required for data: 419071008
I0403 15:46:49.508229 11289 layer_factory.hpp:77] Creating layer pool2/3x3_s2
I0403 15:46:49.508245 11289 net.cpp:91] Creating Layer pool2/3x3_s2
I0403 15:46:49.508261 11289 net.cpp:425] pool2/3x3_s2 <- conv2/norm2
I0403 15:46:49.508278 11289 net.cpp:399] pool2/3x3_s2 -> pool2/3x3_s2
I0403 15:46:49.508337 11289 net.cpp:141] Setting up pool2/3x3_s2
I0403 15:46:49.508359 11289 net.cpp:148] Top shape: 24 192 28 28 (3612672)
I0403 15:46:49.508373 11289 net.cpp:156] Memory required for data: 433521696
I0403 15:46:49.508388 11289 layer_factory.hpp:77] Creating layer pool2/3x3_s2_pool2/3x3_s2_0_split
I0403 15:46:49.508405 11289 net.cpp:91] Creating Layer pool2/3x3_s2_pool2/3x3_s2_0_split
I0403 15:46:49.508421 11289 net.cpp:425] pool2/3x3_s2_pool2/3x3_s2_0_split <- pool2/3x3_s2
I0403 15:46:49.508440 11289 net.cpp:399] pool2/3x3_s2_pool2/3x3_s2_0_split -> pool2/3x3_s2_pool2/3x3_s2_0_split_0
I0403 15:46:49.508461 11289 net.cpp:399] pool2/3x3_s2_pool2/3x3_s2_0_split -> pool2/3x3_s2_pool2/3x3_s2_0_split_1
I0403 15:46:49.508481 11289 net.cpp:399] pool2/3x3_s2_pool2/3x3_s2_0_split -> pool2/3x3_s2_pool2/3x3_s2_0_split_2
I0403 15:46:49.508503 11289 net.cpp:399] pool2/3x3_s2_pool2/3x3_s2_0_split -> pool2/3x3_s2_pool2/3x3_s2_0_split_3
I0403 15:46:49.508574 11289 net.cpp:141] Setting up pool2/3x3_s2_pool2/3x3_s2_0_split
I0403 15:46:49.508597 11289 net.cpp:148] Top shape: 24 192 28 28 (3612672)
I0403 15:46:49.508613 11289 net.cpp:148] Top shape: 24 192 28 28 (3612672)
I0403 15:46:49.508630 11289 net.cpp:148] Top shape: 24 192 28 28 (3612672)
I0403 15:46:49.508646 11289 net.cpp:148] Top shape: 24 192 28 28 (3612672)
I0403 15:46:49.508659 11289 net.cpp:156] Memory required for data: 491324448
I0403 15:46:49.508673 11289 layer_factory.hpp:77] Creating layer inception_3a/1x1
I0403 15:46:49.508694 11289 net.cpp:91] Creating Layer inception_3a/1x1
I0403 15:46:49.508713 11289 net.cpp:425] inception_3a/1x1 <- pool2/3x3_s2_pool2/3x3_s2_0_split_0
I0403 15:46:49.508733 11289 net.cpp:399] inception_3a/1x1 -> inception_3a/1x1
I0403 15:46:49.510272 11289 net.cpp:141] Setting up inception_3a/1x1
I0403 15:46:49.510303 11289 net.cpp:148] Top shape: 24 64 28 28 (1204224)
I0403 15:46:49.510320 11289 net.cpp:156] Memory required for data: 496141344
I0403 15:46:49.510339 11289 layer_factory.hpp:77] Creating layer inception_3a/relu_1x1
I0403 15:46:49.510356 11289 net.cpp:91] Creating Layer inception_3a/relu_1x1
I0403 15:46:49.510372 11289 net.cpp:425] inception_3a/relu_1x1 <- inception_3a/1x1
I0403 15:46:49.510392 11289 net.cpp:386] inception_3a/relu_1x1 -> inception_3a/1x1 (in-place)
I0403 15:46:49.510563 11289 net.cpp:141] Setting up inception_3a/relu_1x1
I0403 15:46:49.510587 11289 net.cpp:148] Top shape: 24 64 28 28 (1204224)
I0403 15:46:49.510602 11289 net.cpp:156] Memory required for data: 500958240
I0403 15:46:49.510617 11289 layer_factory.hpp:77] Creating layer inception_3a/3x3_reduce
I0403 15:46:49.510638 11289 net.cpp:91] Creating Layer inception_3a/3x3_reduce
I0403 15:46:49.510656 11289 net.cpp:425] inception_3a/3x3_reduce <- pool2/3x3_s2_pool2/3x3_s2_0_split_1
I0403 15:46:49.510678 11289 net.cpp:399] inception_3a/3x3_reduce -> inception_3a/3x3_reduce
I0403 15:46:49.512365 11289 net.cpp:141] Setting up inception_3a/3x3_reduce
I0403 15:46:49.512397 11289 net.cpp:148] Top shape: 24 96 28 28 (1806336)
I0403 15:46:49.512413 11289 net.cpp:156] Memory required for data: 508183584
I0403 15:46:49.512434 11289 layer_factory.hpp:77] Creating layer inception_3a/relu_3x3_reduce
I0403 15:46:49.512467 11289 net.cpp:91] Creating Layer inception_3a/relu_3x3_reduce
I0403 15:46:49.512485 11289 net.cpp:425] inception_3a/relu_3x3_reduce <- inception_3a/3x3_reduce
I0403 15:46:49.512506 11289 net.cpp:386] inception_3a/relu_3x3_reduce -> inception_3a/3x3_reduce (in-place)
I0403 15:46:49.512687 11289 net.cpp:141] Setting up inception_3a/relu_3x3_reduce
I0403 15:46:49.512714 11289 net.cpp:148] Top shape: 24 96 28 28 (1806336)
I0403 15:46:49.512730 11289 net.cpp:156] Memory required for data: 515408928
I0403 15:46:49.512744 11289 layer_factory.hpp:77] Creating layer inception_3a/3x3
I0403 15:46:49.512768 11289 net.cpp:91] Creating Layer inception_3a/3x3
I0403 15:46:49.512784 11289 net.cpp:425] inception_3a/3x3 <- inception_3a/3x3_reduce
I0403 15:46:49.512804 11289 net.cpp:399] inception_3a/3x3 -> inception_3a/3x3
I0403 15:46:49.514439 11289 net.cpp:141] Setting up inception_3a/3x3
I0403 15:46:49.514467 11289 net.cpp:148] Top shape: 24 128 28 28 (2408448)
I0403 15:46:49.514483 11289 net.cpp:156] Memory required for data: 525042720
I0403 15:46:49.514502 11289 layer_factory.hpp:77] Creating layer inception_3a/relu_3x3
I0403 15:46:49.514519 11289 net.cpp:91] Creating Layer inception_3a/relu_3x3
I0403 15:46:49.514536 11289 net.cpp:425] inception_3a/relu_3x3 <- inception_3a/3x3
I0403 15:46:49.514555 11289 net.cpp:386] inception_3a/relu_3x3 -> inception_3a/3x3 (in-place)
I0403 15:46:49.514832 11289 net.cpp:141] Setting up inception_3a/relu_3x3
I0403 15:46:49.514858 11289 net.cpp:148] Top shape: 24 128 28 28 (2408448)
I0403 15:46:49.514873 11289 net.cpp:156] Memory required for data: 534676512
I0403 15:46:49.514888 11289 layer_factory.hpp:77] Creating layer inception_3a/5x5_reduce
I0403 15:46:49.514910 11289 net.cpp:91] Creating Layer inception_3a/5x5_reduce
I0403 15:46:49.514927 11289 net.cpp:425] inception_3a/5x5_reduce <- pool2/3x3_s2_pool2/3x3_s2_0_split_2
I0403 15:46:49.514950 11289 net.cpp:399] inception_3a/5x5_reduce -> inception_3a/5x5_reduce
I0403 15:46:49.515902 11289 net.cpp:141] Setting up inception_3a/5x5_reduce
I0403 15:46:49.515930 11289 net.cpp:148] Top shape: 24 16 28 28 (301056)
I0403 15:46:49.515945 11289 net.cpp:156] Memory required for data: 535880736
I0403 15:46:49.515964 11289 layer_factory.hpp:77] Creating layer inception_3a/relu_5x5_reduce
I0403 15:46:49.515988 11289 net.cpp:91] Creating Layer inception_3a/relu_5x5_reduce
I0403 15:46:49.516006 11289 net.cpp:425] inception_3a/relu_5x5_reduce <- inception_3a/5x5_reduce
I0403 15:46:49.516023 11289 net.cpp:386] inception_3a/relu_5x5_reduce -> inception_3a/5x5_reduce (in-place)
I0403 15:46:49.516317 11289 net.cpp:141] Setting up inception_3a/relu_5x5_reduce
I0403 15:46:49.516343 11289 net.cpp:148] Top shape: 24 16 28 28 (301056)
I0403 15:46:49.516358 11289 net.cpp:156] Memory required for data: 537084960
I0403 15:46:49.516373 11289 layer_factory.hpp:77] Creating layer inception_3a/5x5
I0403 15:46:49.516396 11289 net.cpp:91] Creating Layer inception_3a/5x5
I0403 15:46:49.516413 11289 net.cpp:425] inception_3a/5x5 <- inception_3a/5x5_reduce
I0403 15:46:49.516433 11289 net.cpp:399] inception_3a/5x5 -> inception_3a/5x5
I0403 15:46:49.517478 11289 net.cpp:141] Setting up inception_3a/5x5
I0403 15:46:49.517508 11289 net.cpp:148] Top shape: 24 32 28 28 (602112)
I0403 15:46:49.517524 11289 net.cpp:156] Memory required for data: 539493408
I0403 15:46:49.517544 11289 layer_factory.hpp:77] Creating layer inception_3a/relu_5x5
I0403 15:46:49.517561 11289 net.cpp:91] Creating Layer inception_3a/relu_5x5
I0403 15:46:49.517576 11289 net.cpp:425] inception_3a/relu_5x5 <- inception_3a/5x5
I0403 15:46:49.517596 11289 net.cpp:386] inception_3a/relu_5x5 -> inception_3a/5x5 (in-place)
I0403 15:46:49.517771 11289 net.cpp:141] Setting up inception_3a/relu_5x5
I0403 15:46:49.517794 11289 net.cpp:148] Top shape: 24 32 28 28 (602112)
I0403 15:46:49.517808 11289 net.cpp:156] Memory required for data: 541901856
I0403 15:46:49.517823 11289 layer_factory.hpp:77] Creating layer inception_3a/pool
I0403 15:46:49.517841 11289 net.cpp:91] Creating Layer inception_3a/pool
I0403 15:46:49.517870 11289 net.cpp:425] inception_3a/pool <- pool2/3x3_s2_pool2/3x3_s2_0_split_3
I0403 15:46:49.517892 11289 net.cpp:399] inception_3a/pool -> inception_3a/pool
I0403 15:46:49.517951 11289 net.cpp:141] Setting up inception_3a/pool
I0403 15:46:49.517974 11289 net.cpp:148] Top shape: 24 192 28 28 (3612672)
I0403 15:46:49.517994 11289 net.cpp:156] Memory required for data: 556352544
I0403 15:46:49.518009 11289 layer_factory.hpp:77] Creating layer inception_3a/pool_proj
I0403 15:46:49.518030 11289 net.cpp:91] Creating Layer inception_3a/pool_proj
I0403 15:46:49.518049 11289 net.cpp:425] inception_3a/pool_proj <- inception_3a/pool
I0403 15:46:49.518069 11289 net.cpp:399] inception_3a/pool_proj -> inception_3a/pool_proj
I0403 15:46:49.519026 11289 net.cpp:141] Setting up inception_3a/pool_proj
I0403 15:46:49.519052 11289 net.cpp:148] Top shape: 24 32 28 28 (602112)
I0403 15:46:49.519068 11289 net.cpp:156] Memory required for data: 558760992
I0403 15:46:49.519093 11289 layer_factory.hpp:77] Creating layer inception_3a/relu_pool_proj
I0403 15:46:49.519114 11289 net.cpp:91] Creating Layer inception_3a/relu_pool_proj
I0403 15:46:49.519130 11289 net.cpp:425] inception_3a/relu_pool_proj <- inception_3a/pool_proj
I0403 15:46:49.519147 11289 net.cpp:386] inception_3a/relu_pool_proj -> inception_3a/pool_proj (in-place)
I0403 15:46:49.519418 11289 net.cpp:141] Setting up inception_3a/relu_pool_proj
I0403 15:46:49.519443 11289 net.cpp:148] Top shape: 24 32 28 28 (602112)
I0403 15:46:49.519457 11289 net.cpp:156] Memory required for data: 561169440
I0403 15:46:49.519472 11289 layer_factory.hpp:77] Creating layer inception_3a/output
I0403 15:46:49.519490 11289 net.cpp:91] Creating Layer inception_3a/output
I0403 15:46:49.519506 11289 net.cpp:425] inception_3a/output <- inception_3a/1x1
I0403 15:46:49.519522 11289 net.cpp:425] inception_3a/output <- inception_3a/3x3
I0403 15:46:49.519538 11289 net.cpp:425] inception_3a/output <- inception_3a/5x5
I0403 15:46:49.519554 11289 net.cpp:425] inception_3a/output <- inception_3a/pool_proj
I0403 15:46:49.519572 11289 net.cpp:399] inception_3a/output -> inception_3a/output
I0403 15:46:49.519618 11289 net.cpp:141] Setting up inception_3a/output
I0403 15:46:49.519644 11289 net.cpp:148] Top shape: 24 256 28 28 (4816896)
I0403 15:46:49.519660 11289 net.cpp:156] Memory required for data: 580437024
I0403 15:46:49.519675 11289 layer_factory.hpp:77] Creating layer inception_3a/output_inception_3a/output_0_split
I0403 15:46:49.519691 11289 net.cpp:91] Creating Layer inception_3a/output_inception_3a/output_0_split
I0403 15:46:49.519707 11289 net.cpp:425] inception_3a/output_inception_3a/output_0_split <- inception_3a/output
I0403 15:46:49.519724 11289 net.cpp:399] inception_3a/output_inception_3a/output_0_split -> inception_3a/output_inception_3a/output_0_split_0
I0403 15:46:49.519748 11289 net.cpp:399] inception_3a/output_inception_3a/output_0_split -> inception_3a/output_inception_3a/output_0_split_1
I0403 15:46:49.519770 11289 net.cpp:399] inception_3a/output_inception_3a/output_0_split -> inception_3a/output_inception_3a/output_0_split_2
I0403 15:46:49.519791 11289 net.cpp:399] inception_3a/output_inception_3a/output_0_split -> inception_3a/output_inception_3a/output_0_split_3
I0403 15:46:49.519862 11289 net.cpp:141] Setting up inception_3a/output_inception_3a/output_0_split
I0403 15:46:49.519887 11289 net.cpp:148] Top shape: 24 256 28 28 (4816896)
I0403 15:46:49.519904 11289 net.cpp:148] Top shape: 24 256 28 28 (4816896)
I0403 15:46:49.519919 11289 net.cpp:148] Top shape: 24 256 28 28 (4816896)
I0403 15:46:49.519935 11289 net.cpp:148] Top shape: 24 256 28 28 (4816896)
I0403 15:46:49.519948 11289 net.cpp:156] Memory required for data: 657507360
I0403 15:46:49.519963 11289 layer_factory.hpp:77] Creating layer inception_3b/1x1
I0403 15:46:49.519989 11289 net.cpp:91] Creating Layer inception_3b/1x1
I0403 15:46:49.520009 11289 net.cpp:425] inception_3b/1x1 <- inception_3a/output_inception_3a/output_0_split_0
I0403 15:46:49.520030 11289 net.cpp:399] inception_3b/1x1 -> inception_3b/1x1
I0403 15:46:49.521155 11289 net.cpp:141] Setting up inception_3b/1x1
I0403 15:46:49.521196 11289 net.cpp:148] Top shape: 24 128 28 28 (2408448)
I0403 15:46:49.521214 11289 net.cpp:156] Memory required for data: 667141152
I0403 15:46:49.521234 11289 layer_factory.hpp:77] Creating layer inception_3b/relu_1x1
I0403 15:46:49.521252 11289 net.cpp:91] Creating Layer inception_3b/relu_1x1
I0403 15:46:49.521268 11289 net.cpp:425] inception_3b/relu_1x1 <- inception_3b/1x1
I0403 15:46:49.521286 11289 net.cpp:386] inception_3b/relu_1x1 -> inception_3b/1x1 (in-place)
I0403 15:46:49.521464 11289 net.cpp:141] Setting up inception_3b/relu_1x1
I0403 15:46:49.521489 11289 net.cpp:148] Top shape: 24 128 28 28 (2408448)
I0403 15:46:49.521504 11289 net.cpp:156] Memory required for data: 676774944
I0403 15:46:49.521518 11289 layer_factory.hpp:77] Creating layer inception_3b/3x3_reduce
I0403 15:46:49.521540 11289 net.cpp:91] Creating Layer inception_3b/3x3_reduce
I0403 15:46:49.521558 11289 net.cpp:425] inception_3b/3x3_reduce <- inception_3a/output_inception_3a/output_0_split_1
I0403 15:46:49.521579 11289 net.cpp:399] inception_3b/3x3_reduce -> inception_3b/3x3_reduce
I0403 15:46:49.522702 11289 net.cpp:141] Setting up inception_3b/3x3_reduce
I0403 15:46:49.522733 11289 net.cpp:148] Top shape: 24 128 28 28 (2408448)
I0403 15:46:49.522749 11289 net.cpp:156] Memory required for data: 686408736
I0403 15:46:49.522768 11289 layer_factory.hpp:77] Creating layer inception_3b/relu_3x3_reduce
I0403 15:46:49.522785 11289 net.cpp:91] Creating Layer inception_3b/relu_3x3_reduce
I0403 15:46:49.522802 11289 net.cpp:425] inception_3b/relu_3x3_reduce <- inception_3b/3x3_reduce
I0403 15:46:49.522821 11289 net.cpp:386] inception_3b/relu_3x3_reduce -> inception_3b/3x3_reduce (in-place)
I0403 15:46:49.523006 11289 net.cpp:141] Setting up inception_3b/relu_3x3_reduce
I0403 15:46:49.523031 11289 net.cpp:148] Top shape: 24 128 28 28 (2408448)
I0403 15:46:49.523046 11289 net.cpp:156] Memory required for data: 696042528
I0403 15:46:49.523061 11289 layer_factory.hpp:77] Creating layer inception_3b/3x3
I0403 15:46:49.523085 11289 net.cpp:91] Creating Layer inception_3b/3x3
I0403 15:46:49.523103 11289 net.cpp:425] inception_3b/3x3 <- inception_3b/3x3_reduce
I0403 15:46:49.523123 11289 net.cpp:399] inception_3b/3x3 -> inception_3b/3x3
I0403 15:46:49.526022 11289 net.cpp:141] Setting up inception_3b/3x3
I0403 15:46:49.526051 11289 net.cpp:148] Top shape: 24 192 28 28 (3612672)
I0403 15:46:49.526065 11289 net.cpp:156] Memory required for data: 710493216
I0403 15:46:49.526083 11289 layer_factory.hpp:77] Creating layer inception_3b/relu_3x3
I0403 15:46:49.526103 11289 net.cpp:91] Creating Layer inception_3b/relu_3x3
I0403 15:46:49.526119 11289 net.cpp:425] inception_3b/relu_3x3 <- inception_3b/3x3
I0403 15:46:49.526139 11289 net.cpp:386] inception_3b/relu_3x3 -> inception_3b/3x3 (in-place)
I0403 15:46:49.526415 11289 net.cpp:141] Setting up inception_3b/relu_3x3
I0403 15:46:49.526442 11289 net.cpp:148] Top shape: 24 192 28 28 (3612672)
I0403 15:46:49.526456 11289 net.cpp:156] Memory required for data: 724943904
I0403 15:46:49.526471 11289 layer_factory.hpp:77] Creating layer inception_3b/5x5_reduce
I0403 15:46:49.526495 11289 net.cpp:91] Creating Layer inception_3b/5x5_reduce
I0403 15:46:49.526513 11289 net.cpp:425] inception_3b/5x5_reduce <- inception_3a/output_inception_3a/output_0_split_2
I0403 15:46:49.526535 11289 net.cpp:399] inception_3b/5x5_reduce -> inception_3b/5x5_reduce
I0403 15:46:49.527515 11289 net.cpp:141] Setting up inception_3b/5x5_reduce
I0403 15:46:49.527545 11289 net.cpp:148] Top shape: 24 32 28 28 (602112)
I0403 15:46:49.527561 11289 net.cpp:156] Memory required for data: 727352352
I0403 15:46:49.527580 11289 layer_factory.hpp:77] Creating layer inception_3b/relu_5x5_reduce
I0403 15:46:49.527597 11289 net.cpp:91] Creating Layer inception_3b/relu_5x5_reduce
I0403 15:46:49.527613 11289 net.cpp:425] inception_3b/relu_5x5_reduce <- inception_3b/5x5_reduce
I0403 15:46:49.527632 11289 net.cpp:386] inception_3b/relu_5x5_reduce -> inception_3b/5x5_reduce (in-place)
I0403 15:46:49.527820 11289 net.cpp:141] Setting up inception_3b/relu_5x5_reduce
I0403 15:46:49.527845 11289 net.cpp:148] Top shape: 24 32 28 28 (602112)
I0403 15:46:49.527859 11289 net.cpp:156] Memory required for data: 729760800
I0403 15:46:49.527874 11289 layer_factory.hpp:77] Creating layer inception_3b/5x5
I0403 15:46:49.527896 11289 net.cpp:91] Creating Layer inception_3b/5x5
I0403 15:46:49.527914 11289 net.cpp:425] inception_3b/5x5 <- inception_3b/5x5_reduce
I0403 15:46:49.527935 11289 net.cpp:399] inception_3b/5x5 -> inception_3b/5x5
I0403 15:46:49.529924 11289 net.cpp:141] Setting up inception_3b/5x5
I0403 15:46:49.529955 11289 net.cpp:148] Top shape: 24 96 28 28 (1806336)
I0403 15:46:49.529971 11289 net.cpp:156] Memory required for data: 736986144
I0403 15:46:49.529994 11289 layer_factory.hpp:77] Creating layer inception_3b/relu_5x5
I0403 15:46:49.530014 11289 net.cpp:91] Creating Layer inception_3b/relu_5x5
I0403 15:46:49.530030 11289 net.cpp:425] inception_3b/relu_5x5 <- inception_3b/5x5
I0403 15:46:49.530048 11289 net.cpp:386] inception_3b/relu_5x5 -> inception_3b/5x5 (in-place)
I0403 15:46:49.530239 11289 net.cpp:141] Setting up inception_3b/relu_5x5
I0403 15:46:49.530264 11289 net.cpp:148] Top shape: 24 96 28 28 (1806336)
I0403 15:46:49.530279 11289 net.cpp:156] Memory required for data: 744211488
I0403 15:46:49.530293 11289 layer_factory.hpp:77] Creating layer inception_3b/pool
I0403 15:46:49.530311 11289 net.cpp:91] Creating Layer inception_3b/pool
I0403 15:46:49.530328 11289 net.cpp:425] inception_3b/pool <- inception_3a/output_inception_3a/output_0_split_3
I0403 15:46:49.530346 11289 net.cpp:399] inception_3b/pool -> inception_3b/pool
I0403 15:46:49.530401 11289 net.cpp:141] Setting up inception_3b/pool
I0403 15:46:49.530424 11289 net.cpp:148] Top shape: 24 256 28 28 (4816896)
I0403 15:46:49.530438 11289 net.cpp:156] Memory required for data: 763479072
I0403 15:46:49.530452 11289 layer_factory.hpp:77] Creating layer inception_3b/pool_proj
I0403 15:46:49.530477 11289 net.cpp:91] Creating Layer inception_3b/pool_proj
I0403 15:46:49.530493 11289 net.cpp:425] inception_3b/pool_proj <- inception_3b/pool
I0403 15:46:49.530511 11289 net.cpp:399] inception_3b/pool_proj -> inception_3b/pool_proj
I0403 15:46:49.531569 11289 net.cpp:141] Setting up inception_3b/pool_proj
I0403 15:46:49.531596 11289 net.cpp:148] Top shape: 24 64 28 28 (1204224)
I0403 15:46:49.531612 11289 net.cpp:156] Memory required for data: 768295968
I0403 15:46:49.531630 11289 layer_factory.hpp:77] Creating layer inception_3b/relu_pool_proj
I0403 15:46:49.531651 11289 net.cpp:91] Creating Layer inception_3b/relu_pool_proj
I0403 15:46:49.531667 11289 net.cpp:425] inception_3b/relu_pool_proj <- inception_3b/pool_proj
I0403 15:46:49.531685 11289 net.cpp:386] inception_3b/relu_pool_proj -> inception_3b/pool_proj (in-place)
I0403 15:46:49.532099 11289 net.cpp:141] Setting up inception_3b/relu_pool_proj
I0403 15:46:49.532125 11289 net.cpp:148] Top shape: 24 64 28 28 (1204224)
I0403 15:46:49.532140 11289 net.cpp:156] Memory required for data: 773112864
I0403 15:46:49.532155 11289 layer_factory.hpp:77] Creating layer inception_3b/output
I0403 15:46:49.532172 11289 net.cpp:91] Creating Layer inception_3b/output
I0403 15:46:49.532188 11289 net.cpp:425] inception_3b/output <- inception_3b/1x1
I0403 15:46:49.532209 11289 net.cpp:425] inception_3b/output <- inception_3b/3x3
I0403 15:46:49.532225 11289 net.cpp:425] inception_3b/output <- inception_3b/5x5
I0403 15:46:49.532240 11289 net.cpp:425] inception_3b/output <- inception_3b/pool_proj
I0403 15:46:49.532258 11289 net.cpp:399] inception_3b/output -> inception_3b/output
I0403 15:46:49.532299 11289 net.cpp:141] Setting up inception_3b/output
I0403 15:46:49.532325 11289 net.cpp:148] Top shape: 24 480 28 28 (9031680)
I0403 15:46:49.532340 11289 net.cpp:156] Memory required for data: 809239584
I0403 15:46:49.532354 11289 layer_factory.hpp:77] Creating layer pool3/3x3_s2
I0403 15:46:49.532372 11289 net.cpp:91] Creating Layer pool3/3x3_s2
I0403 15:46:49.532387 11289 net.cpp:425] pool3/3x3_s2 <- inception_3b/output
I0403 15:46:49.532421 11289 net.cpp:399] pool3/3x3_s2 -> pool3/3x3_s2
I0403 15:46:49.532480 11289 net.cpp:141] Setting up pool3/3x3_s2
I0403 15:46:49.532505 11289 net.cpp:148] Top shape: 24 480 14 14 (2257920)
I0403 15:46:49.532521 11289 net.cpp:156] Memory required for data: 818271264
I0403 15:46:49.532536 11289 layer_factory.hpp:77] Creating layer pool3/3x3_s2_pool3/3x3_s2_0_split
I0403 15:46:49.532553 11289 net.cpp:91] Creating Layer pool3/3x3_s2_pool3/3x3_s2_0_split
I0403 15:46:49.532568 11289 net.cpp:425] pool3/3x3_s2_pool3/3x3_s2_0_split <- pool3/3x3_s2
I0403 15:46:49.532585 11289 net.cpp:399] pool3/3x3_s2_pool3/3x3_s2_0_split -> pool3/3x3_s2_pool3/3x3_s2_0_split_0
I0403 15:46:49.532604 11289 net.cpp:399] pool3/3x3_s2_pool3/3x3_s2_0_split -> pool3/3x3_s2_pool3/3x3_s2_0_split_1
I0403 15:46:49.532626 11289 net.cpp:399] pool3/3x3_s2_pool3/3x3_s2_0_split -> pool3/3x3_s2_pool3/3x3_s2_0_split_2
I0403 15:46:49.532646 11289 net.cpp:399] pool3/3x3_s2_pool3/3x3_s2_0_split -> pool3/3x3_s2_pool3/3x3_s2_0_split_3
I0403 15:46:49.532723 11289 net.cpp:141] Setting up pool3/3x3_s2_pool3/3x3_s2_0_split
I0403 15:46:49.532747 11289 net.cpp:148] Top shape: 24 480 14 14 (2257920)
I0403 15:46:49.532763 11289 net.cpp:148] Top shape: 24 480 14 14 (2257920)
I0403 15:46:49.532778 11289 net.cpp:148] Top shape: 24 480 14 14 (2257920)
I0403 15:46:49.532793 11289 net.cpp:148] Top shape: 24 480 14 14 (2257920)
I0403 15:46:49.532806 11289 net.cpp:156] Memory required for data: 854397984
I0403 15:46:49.532821 11289 layer_factory.hpp:77] Creating layer inception_4a/1x1
I0403 15:46:49.532843 11289 net.cpp:91] Creating Layer inception_4a/1x1
I0403 15:46:49.532860 11289 net.cpp:425] inception_4a/1x1 <- pool3/3x3_s2_pool3/3x3_s2_0_split_0
I0403 15:46:49.532881 11289 net.cpp:399] inception_4a/1x1 -> inception_4a/1x1
I0403 15:46:49.534422 11289 net.cpp:141] Setting up inception_4a/1x1
I0403 15:46:49.534449 11289 net.cpp:148] Top shape: 24 192 14 14 (903168)
I0403 15:46:49.534464 11289 net.cpp:156] Memory required for data: 858010656
I0403 15:46:49.534482 11289 layer_factory.hpp:77] Creating layer inception_4a/relu_1x1
I0403 15:46:49.534502 11289 net.cpp:91] Creating Layer inception_4a/relu_1x1
I0403 15:46:49.534518 11289 net.cpp:425] inception_4a/relu_1x1 <- inception_4a/1x1
I0403 15:46:49.534534 11289 net.cpp:386] inception_4a/relu_1x1 -> inception_4a/1x1 (in-place)
I0403 15:46:49.534703 11289 net.cpp:141] Setting up inception_4a/relu_1x1
I0403 15:46:49.534731 11289 net.cpp:148] Top shape: 24 192 14 14 (903168)
I0403 15:46:49.534746 11289 net.cpp:156] Memory required for data: 861623328
I0403 15:46:49.534760 11289 layer_factory.hpp:77] Creating layer inception_4a/3x3_reduce
I0403 15:46:49.534781 11289 net.cpp:91] Creating Layer inception_4a/3x3_reduce
I0403 15:46:49.534798 11289 net.cpp:425] inception_4a/3x3_reduce <- pool3/3x3_s2_pool3/3x3_s2_0_split_1
I0403 15:46:49.534817 11289 net.cpp:399] inception_4a/3x3_reduce -> inception_4a/3x3_reduce
I0403 15:46:49.536056 11289 net.cpp:141] Setting up inception_4a/3x3_reduce
I0403 15:46:49.536082 11289 net.cpp:148] Top shape: 24 96 14 14 (451584)
I0403 15:46:49.536097 11289 net.cpp:156] Memory required for data: 863429664
I0403 15:46:49.536124 11289 layer_factory.hpp:77] Creating layer inception_4a/relu_3x3_reduce
I0403 15:46:49.536145 11289 net.cpp:91] Creating Layer inception_4a/relu_3x3_reduce
I0403 15:46:49.536162 11289 net.cpp:425] inception_4a/relu_3x3_reduce <- inception_4a/3x3_reduce
I0403 15:46:49.536180 11289 net.cpp:386] inception_4a/relu_3x3_reduce -> inception_4a/3x3_reduce (in-place)
I0403 15:46:49.536352 11289 net.cpp:141] Setting up inception_4a/relu_3x3_reduce
I0403 15:46:49.536378 11289 net.cpp:148] Top shape: 24 96 14 14 (451584)
I0403 15:46:49.536393 11289 net.cpp:156] Memory required for data: 865236000
I0403 15:46:49.536407 11289 layer_factory.hpp:77] Creating layer inception_4a/3x3
I0403 15:46:49.536428 11289 net.cpp:91] Creating Layer inception_4a/3x3
I0403 15:46:49.536447 11289 net.cpp:425] inception_4a/3x3 <- inception_4a/3x3_reduce
I0403 15:46:49.536464 11289 net.cpp:399] inception_4a/3x3 -> inception_4a/3x3
I0403 15:46:49.539073 11289 net.cpp:141] Setting up inception_4a/3x3
I0403 15:46:49.539103 11289 net.cpp:148] Top shape: 24 208 14 14 (978432)
I0403 15:46:49.539119 11289 net.cpp:156] Memory required for data: 869149728
I0403 15:46:49.539137 11289 layer_factory.hpp:77] Creating layer inception_4a/relu_3x3
I0403 15:46:49.539155 11289 net.cpp:91] Creating Layer inception_4a/relu_3x3
I0403 15:46:49.539171 11289 net.cpp:425] inception_4a/relu_3x3 <- inception_4a/3x3
I0403 15:46:49.539191 11289 net.cpp:386] inception_4a/relu_3x3 -> inception_4a/3x3 (in-place)
I0403 15:46:49.539465 11289 net.cpp:141] Setting up inception_4a/relu_3x3
I0403 15:46:49.539492 11289 net.cpp:148] Top shape: 24 208 14 14 (978432)
I0403 15:46:49.539507 11289 net.cpp:156] Memory required for data: 873063456
I0403 15:46:49.539522 11289 layer_factory.hpp:77] Creating layer inception_4a/5x5_reduce
I0403 15:46:49.539544 11289 net.cpp:91] Creating Layer inception_4a/5x5_reduce
I0403 15:46:49.539561 11289 net.cpp:425] inception_4a/5x5_reduce <- pool3/3x3_s2_pool3/3x3_s2_0_split_2
I0403 15:46:49.539580 11289 net.cpp:399] inception_4a/5x5_reduce -> inception_4a/5x5_reduce
I0403 15:46:49.540598 11289 net.cpp:141] Setting up inception_4a/5x5_reduce
I0403 15:46:49.540627 11289 net.cpp:148] Top shape: 24 16 14 14 (75264)
I0403 15:46:49.540643 11289 net.cpp:156] Memory required for data: 873364512
I0403 15:46:49.540662 11289 layer_factory.hpp:77] Creating layer inception_4a/relu_5x5_reduce
I0403 15:46:49.540678 11289 net.cpp:91] Creating Layer inception_4a/relu_5x5_reduce
I0403 15:46:49.540694 11289 net.cpp:425] inception_4a/relu_5x5_reduce <- inception_4a/5x5_reduce
I0403 15:46:49.540714 11289 net.cpp:386] inception_4a/relu_5x5_reduce -> inception_4a/5x5_reduce (in-place)
I0403 15:46:49.540900 11289 net.cpp:141] Setting up inception_4a/relu_5x5_reduce
I0403 15:46:49.540925 11289 net.cpp:148] Top shape: 24 16 14 14 (75264)
I0403 15:46:49.540940 11289 net.cpp:156] Memory required for data: 873665568
I0403 15:46:49.540954 11289 layer_factory.hpp:77] Creating layer inception_4a/5x5
I0403 15:46:49.540976 11289 net.cpp:91] Creating Layer inception_4a/5x5
I0403 15:46:49.540997 11289 net.cpp:425] inception_4a/5x5 <- inception_4a/5x5_reduce
I0403 15:46:49.541019 11289 net.cpp:399] inception_4a/5x5 -> inception_4a/5x5
I0403 15:46:49.542103 11289 net.cpp:141] Setting up inception_4a/5x5
I0403 15:46:49.542129 11289 net.cpp:148] Top shape: 24 48 14 14 (225792)
I0403 15:46:49.542143 11289 net.cpp:156] Memory required for data: 874568736
I0403 15:46:49.542161 11289 layer_factory.hpp:77] Creating layer inception_4a/relu_5x5
I0403 15:46:49.542181 11289 net.cpp:91] Creating Layer inception_4a/relu_5x5
I0403 15:46:49.542197 11289 net.cpp:425] inception_4a/relu_5x5 <- inception_4a/5x5
I0403 15:46:49.542213 11289 net.cpp:386] inception_4a/relu_5x5 -> inception_4a/5x5 (in-place)
I0403 15:46:49.542387 11289 net.cpp:141] Setting up inception_4a/relu_5x5
I0403 15:46:49.542410 11289 net.cpp:148] Top shape: 24 48 14 14 (225792)
I0403 15:46:49.542424 11289 net.cpp:156] Memory required for data: 875471904
I0403 15:46:49.542439 11289 layer_factory.hpp:77] Creating layer inception_4a/pool
I0403 15:46:49.542459 11289 net.cpp:91] Creating Layer inception_4a/pool
I0403 15:46:49.542475 11289 net.cpp:425] inception_4a/pool <- pool3/3x3_s2_pool3/3x3_s2_0_split_3
I0403 15:46:49.542492 11289 net.cpp:399] inception_4a/pool -> inception_4a/pool
I0403 15:46:49.542556 11289 net.cpp:141] Setting up inception_4a/pool
I0403 15:46:49.542578 11289 net.cpp:148] Top shape: 24 480 14 14 (2257920)
I0403 15:46:49.542593 11289 net.cpp:156] Memory required for data: 884503584
I0403 15:46:49.542605 11289 layer_factory.hpp:77] Creating layer inception_4a/pool_proj
I0403 15:46:49.542628 11289 net.cpp:91] Creating Layer inception_4a/pool_proj
I0403 15:46:49.542644 11289 net.cpp:425] inception_4a/pool_proj <- inception_4a/pool
I0403 15:46:49.542665 11289 net.cpp:399] inception_4a/pool_proj -> inception_4a/pool_proj
I0403 15:46:49.543804 11289 net.cpp:141] Setting up inception_4a/pool_proj
I0403 15:46:49.543831 11289 net.cpp:148] Top shape: 24 64 14 14 (301056)
I0403 15:46:49.543859 11289 net.cpp:156] Memory required for data: 885707808
I0403 15:46:49.543879 11289 layer_factory.hpp:77] Creating layer inception_4a/relu_pool_proj
I0403 15:46:49.543900 11289 net.cpp:91] Creating Layer inception_4a/relu_pool_proj
I0403 15:46:49.543916 11289 net.cpp:425] inception_4a/relu_pool_proj <- inception_4a/pool_proj
I0403 15:46:49.543934 11289 net.cpp:386] inception_4a/relu_pool_proj -> inception_4a/pool_proj (in-place)
I0403 15:46:49.544215 11289 net.cpp:141] Setting up inception_4a/relu_pool_proj
I0403 15:46:49.544241 11289 net.cpp:148] Top shape: 24 64 14 14 (301056)
I0403 15:46:49.544255 11289 net.cpp:156] Memory required for data: 886912032
I0403 15:46:49.544270 11289 layer_factory.hpp:77] Creating layer inception_4a/output
I0403 15:46:49.544289 11289 net.cpp:91] Creating Layer inception_4a/output
I0403 15:46:49.544306 11289 net.cpp:425] inception_4a/output <- inception_4a/1x1
I0403 15:46:49.544320 11289 net.cpp:425] inception_4a/output <- inception_4a/3x3
I0403 15:46:49.544335 11289 net.cpp:425] inception_4a/output <- inception_4a/5x5
I0403 15:46:49.544350 11289 net.cpp:425] inception_4a/output <- inception_4a/pool_proj
I0403 15:46:49.544368 11289 net.cpp:399] inception_4a/output -> inception_4a/output
I0403 15:46:49.544411 11289 net.cpp:141] Setting up inception_4a/output
I0403 15:46:49.544435 11289 net.cpp:148] Top shape: 24 512 14 14 (2408448)
I0403 15:46:49.544448 11289 net.cpp:156] Memory required for data: 896545824
I0403 15:46:49.544462 11289 layer_factory.hpp:77] Creating layer inception_4a/output_inception_4a/output_0_split
I0403 15:46:49.544479 11289 net.cpp:91] Creating Layer inception_4a/output_inception_4a/output_0_split
I0403 15:46:49.544494 11289 net.cpp:425] inception_4a/output_inception_4a/output_0_split <- inception_4a/output
I0403 15:46:49.544513 11289 net.cpp:399] inception_4a/output_inception_4a/output_0_split -> inception_4a/output_inception_4a/output_0_split_0
I0403 15:46:49.544534 11289 net.cpp:399] inception_4a/output_inception_4a/output_0_split -> inception_4a/output_inception_4a/output_0_split_1
I0403 15:46:49.544553 11289 net.cpp:399] inception_4a/output_inception_4a/output_0_split -> inception_4a/output_inception_4a/output_0_split_2
I0403 15:46:49.544574 11289 net.cpp:399] inception_4a/output_inception_4a/output_0_split -> inception_4a/output_inception_4a/output_0_split_3
I0403 15:46:49.544592 11289 net.cpp:399] inception_4a/output_inception_4a/output_0_split -> inception_4a/output_inception_4a/output_0_split_4
I0403 15:46:49.544682 11289 net.cpp:141] Setting up inception_4a/output_inception_4a/output_0_split
I0403 15:46:49.544703 11289 net.cpp:148] Top shape: 24 512 14 14 (2408448)
I0403 15:46:49.544721 11289 net.cpp:148] Top shape: 24 512 14 14 (2408448)
I0403 15:46:49.544737 11289 net.cpp:148] Top shape: 24 512 14 14 (2408448)
I0403 15:46:49.544754 11289 net.cpp:148] Top shape: 24 512 14 14 (2408448)
I0403 15:46:49.544769 11289 net.cpp:148] Top shape: 24 512 14 14 (2408448)
I0403 15:46:49.544780 11289 net.cpp:156] Memory required for data: 944714784
I0403 15:46:49.544795 11289 layer_factory.hpp:77] Creating layer loss1/ave_pool
I0403 15:46:49.544812 11289 net.cpp:91] Creating Layer loss1/ave_pool
I0403 15:46:49.544828 11289 net.cpp:425] loss1/ave_pool <- inception_4a/output_inception_4a/output_0_split_0
I0403 15:46:49.544847 11289 net.cpp:399] loss1/ave_pool -> loss1/ave_pool
I0403 15:46:49.545049 11289 net.cpp:141] Setting up loss1/ave_pool
I0403 15:46:49.545074 11289 net.cpp:148] Top shape: 24 512 4 4 (196608)
I0403 15:46:49.545089 11289 net.cpp:156] Memory required for data: 945501216
I0403 15:46:49.545104 11289 layer_factory.hpp:77] Creating layer loss1/conv
I0403 15:46:49.545126 11289 net.cpp:91] Creating Layer loss1/conv
I0403 15:46:49.545143 11289 net.cpp:425] loss1/conv <- loss1/ave_pool
I0403 15:46:49.545163 11289 net.cpp:399] loss1/conv -> loss1/conv
I0403 15:46:49.546533 11289 net.cpp:141] Setting up loss1/conv
I0403 15:46:49.546563 11289 net.cpp:148] Top shape: 24 128 4 4 (49152)
I0403 15:46:49.546591 11289 net.cpp:156] Memory required for data: 945697824
I0403 15:46:49.546610 11289 layer_factory.hpp:77] Creating layer loss1/relu_conv
I0403 15:46:49.546628 11289 net.cpp:91] Creating Layer loss1/relu_conv
I0403 15:46:49.546644 11289 net.cpp:425] loss1/relu_conv <- loss1/conv
I0403 15:46:49.546663 11289 net.cpp:386] loss1/relu_conv -> loss1/conv (in-place)
I0403 15:46:49.546942 11289 net.cpp:141] Setting up loss1/relu_conv
I0403 15:46:49.546970 11289 net.cpp:148] Top shape: 24 128 4 4 (49152)
I0403 15:46:49.546990 11289 net.cpp:156] Memory required for data: 945894432
I0403 15:46:49.547005 11289 layer_factory.hpp:77] Creating layer loss1/fc
I0403 15:46:49.547027 11289 net.cpp:91] Creating Layer loss1/fc
I0403 15:46:49.547045 11289 net.cpp:425] loss1/fc <- loss1/conv
I0403 15:46:49.547065 11289 net.cpp:399] loss1/fc -> loss1/fc
I0403 15:46:49.564419 11289 net.cpp:141] Setting up loss1/fc
I0403 15:46:49.564452 11289 net.cpp:148] Top shape: 24 1024 (24576)
I0403 15:46:49.564470 11289 net.cpp:156] Memory required for data: 945992736
I0403 15:46:49.564487 11289 layer_factory.hpp:77] Creating layer loss1/relu_fc
I0403 15:46:49.564507 11289 net.cpp:91] Creating Layer loss1/relu_fc
I0403 15:46:49.564524 11289 net.cpp:425] loss1/relu_fc <- loss1/fc
I0403 15:46:49.564543 11289 net.cpp:386] loss1/relu_fc -> loss1/fc (in-place)
I0403 15:46:49.564718 11289 net.cpp:141] Setting up loss1/relu_fc
I0403 15:46:49.564743 11289 net.cpp:148] Top shape: 24 1024 (24576)
I0403 15:46:49.564757 11289 net.cpp:156] Memory required for data: 946091040
I0403 15:46:49.564772 11289 layer_factory.hpp:77] Creating layer loss1/drop_fc
I0403 15:46:49.564796 11289 net.cpp:91] Creating Layer loss1/drop_fc
I0403 15:46:49.564813 11289 net.cpp:425] loss1/drop_fc <- loss1/fc
I0403 15:46:49.564832 11289 net.cpp:386] loss1/drop_fc -> loss1/fc (in-place)
I0403 15:46:49.564882 11289 net.cpp:141] Setting up loss1/drop_fc
I0403 15:46:49.564904 11289 net.cpp:148] Top shape: 24 1024 (24576)
I0403 15:46:49.564918 11289 net.cpp:156] Memory required for data: 946189344
I0403 15:46:49.564934 11289 layer_factory.hpp:77] Creating layer loss1/classifier_plantvillage
I0403 15:46:49.564955 11289 net.cpp:91] Creating Layer loss1/classifier_plantvillage
I0403 15:46:49.564972 11289 net.cpp:425] loss1/classifier_plantvillage <- loss1/fc
I0403 15:46:49.564995 11289 net.cpp:399] loss1/classifier_plantvillage -> loss1/classifier_plantvillage
I0403 15:46:49.565891 11289 net.cpp:141] Setting up loss1/classifier_plantvillage
I0403 15:46:49.565919 11289 net.cpp:148] Top shape: 24 38 (912)
I0403 15:46:49.565934 11289 net.cpp:156] Memory required for data: 946192992
I0403 15:46:49.565951 11289 layer_factory.hpp:77] Creating layer loss1/classifier_plantvillage_loss1/classifier_plantvillage_0_split
I0403 15:46:49.565970 11289 net.cpp:91] Creating Layer loss1/classifier_plantvillage_loss1/classifier_plantvillage_0_split
I0403 15:46:49.565991 11289 net.cpp:425] loss1/classifier_plantvillage_loss1/classifier_plantvillage_0_split <- loss1/classifier_plantvillage
I0403 15:46:49.566009 11289 net.cpp:399] loss1/classifier_plantvillage_loss1/classifier_plantvillage_0_split -> loss1/classifier_plantvillage_loss1/classifier_plantvillage_0_split_0
I0403 15:46:49.566032 11289 net.cpp:399] loss1/classifier_plantvillage_loss1/classifier_plantvillage_0_split -> loss1/classifier_plantvillage_loss1/classifier_plantvillage_0_split_1
I0403 15:46:49.566052 11289 net.cpp:399] loss1/classifier_plantvillage_loss1/classifier_plantvillage_0_split -> loss1/classifier_plantvillage_loss1/classifier_plantvillage_0_split_2
I0403 15:46:49.566117 11289 net.cpp:141] Setting up loss1/classifier_plantvillage_loss1/classifier_plantvillage_0_split
I0403 15:46:49.566138 11289 net.cpp:148] Top shape: 24 38 (912)
I0403 15:46:49.566154 11289 net.cpp:148] Top shape: 24 38 (912)
I0403 15:46:49.566169 11289 net.cpp:148] Top shape: 24 38 (912)
I0403 15:46:49.566182 11289 net.cpp:156] Memory required for data: 946203936
I0403 15:46:49.566197 11289 layer_factory.hpp:77] Creating layer inception_4b/1x1
I0403 15:46:49.566218 11289 net.cpp:91] Creating Layer inception_4b/1x1
I0403 15:46:49.566249 11289 net.cpp:425] inception_4b/1x1 <- inception_4a/output_inception_4a/output_0_split_1
I0403 15:46:49.566268 11289 net.cpp:399] inception_4b/1x1 -> inception_4b/1x1
I0403 15:46:49.567854 11289 net.cpp:141] Setting up inception_4b/1x1
I0403 15:46:49.567884 11289 net.cpp:148] Top shape: 24 160 14 14 (752640)
I0403 15:46:49.567900 11289 net.cpp:156] Memory required for data: 949214496
I0403 15:46:49.567919 11289 layer_factory.hpp:77] Creating layer inception_4b/relu_1x1
I0403 15:46:49.567935 11289 net.cpp:91] Creating Layer inception_4b/relu_1x1
I0403 15:46:49.567951 11289 net.cpp:425] inception_4b/relu_1x1 <- inception_4b/1x1
I0403 15:46:49.567970 11289 net.cpp:386] inception_4b/relu_1x1 -> inception_4b/1x1 (in-place)
I0403 15:46:49.568148 11289 net.cpp:141] Setting up inception_4b/relu_1x1
I0403 15:46:49.568172 11289 net.cpp:148] Top shape: 24 160 14 14 (752640)
I0403 15:46:49.568186 11289 net.cpp:156] Memory required for data: 952225056
I0403 15:46:49.568203 11289 layer_factory.hpp:77] Creating layer inception_4b/3x3_reduce
I0403 15:46:49.568227 11289 net.cpp:91] Creating Layer inception_4b/3x3_reduce
I0403 15:46:49.568244 11289 net.cpp:425] inception_4b/3x3_reduce <- inception_4a/output_inception_4a/output_0_split_2
I0403 15:46:49.568264 11289 net.cpp:399] inception_4b/3x3_reduce -> inception_4b/3x3_reduce
I0403 15:46:49.569582 11289 net.cpp:141] Setting up inception_4b/3x3_reduce
I0403 15:46:49.569608 11289 net.cpp:148] Top shape: 24 112 14 14 (526848)
I0403 15:46:49.569623 11289 net.cpp:156] Memory required for data: 954332448
I0403 15:46:49.569641 11289 layer_factory.hpp:77] Creating layer inception_4b/relu_3x3_reduce
I0403 15:46:49.569658 11289 net.cpp:91] Creating Layer inception_4b/relu_3x3_reduce
I0403 15:46:49.569674 11289 net.cpp:425] inception_4b/relu_3x3_reduce <- inception_4b/3x3_reduce
I0403 15:46:49.569694 11289 net.cpp:386] inception_4b/relu_3x3_reduce -> inception_4b/3x3_reduce (in-place)
I0403 15:46:49.569967 11289 net.cpp:141] Setting up inception_4b/relu_3x3_reduce
I0403 15:46:49.570008 11289 net.cpp:148] Top shape: 24 112 14 14 (526848)
I0403 15:46:49.570024 11289 net.cpp:156] Memory required for data: 956439840
I0403 15:46:49.570051 11289 layer_factory.hpp:77] Creating layer inception_4b/3x3
I0403 15:46:49.570073 11289 net.cpp:91] Creating Layer inception_4b/3x3
I0403 15:46:49.570091 11289 net.cpp:425] inception_4b/3x3 <- inception_4b/3x3_reduce
I0403 15:46:49.570113 11289 net.cpp:399] inception_4b/3x3 -> inception_4b/3x3
I0403 15:46:49.573029 11289 net.cpp:141] Setting up inception_4b/3x3
I0403 15:46:49.573056 11289 net.cpp:148] Top shape: 24 224 14 14 (1053696)
I0403 15:46:49.573071 11289 net.cpp:156] Memory required for data: 960654624
I0403 15:46:49.573089 11289 layer_factory.hpp:77] Creating layer inception_4b/relu_3x3
I0403 15:46:49.573109 11289 net.cpp:91] Creating Layer inception_4b/relu_3x3
I0403 15:46:49.573127 11289 net.cpp:425] inception_4b/relu_3x3 <- inception_4b/3x3
I0403 15:46:49.573143 11289 net.cpp:386] inception_4b/relu_3x3 -> inception_4b/3x3 (in-place)
I0403 15:46:49.573323 11289 net.cpp:141] Setting up inception_4b/relu_3x3
I0403 15:46:49.573348 11289 net.cpp:148] Top shape: 24 224 14 14 (1053696)
I0403 15:46:49.573361 11289 net.cpp:156] Memory required for data: 964869408
I0403 15:46:49.573375 11289 layer_factory.hpp:77] Creating layer inception_4b/5x5_reduce
I0403 15:46:49.573396 11289 net.cpp:91] Creating Layer inception_4b/5x5_reduce
I0403 15:46:49.573415 11289 net.cpp:425] inception_4b/5x5_reduce <- inception_4a/output_inception_4a/output_0_split_3
I0403 15:46:49.573436 11289 net.cpp:399] inception_4b/5x5_reduce -> inception_4b/5x5_reduce
I0403 15:46:49.574503 11289 net.cpp:141] Setting up inception_4b/5x5_reduce
I0403 15:46:49.574530 11289 net.cpp:148] Top shape: 24 24 14 14 (112896)
I0403 15:46:49.574545 11289 net.cpp:156] Memory required for data: 965320992
I0403 15:46:49.574563 11289 layer_factory.hpp:77] Creating layer inception_4b/relu_5x5_reduce
I0403 15:46:49.574581 11289 net.cpp:91] Creating Layer inception_4b/relu_5x5_reduce
I0403 15:46:49.574610 11289 net.cpp:425] inception_4b/relu_5x5_reduce <- inception_4b/5x5_reduce
I0403 15:46:49.574630 11289 net.cpp:386] inception_4b/relu_5x5_reduce -> inception_4b/5x5_reduce (in-place)
I0403 15:46:49.574806 11289 net.cpp:141] Setting up inception_4b/relu_5x5_reduce
I0403 15:46:49.574831 11289 net.cpp:148] Top shape: 24 24 14 14 (112896)
I0403 15:46:49.574844 11289 net.cpp:156] Memory required for data: 965772576
I0403 15:46:49.574859 11289 layer_factory.hpp:77] Creating layer inception_4b/5x5
I0403 15:46:49.574882 11289 net.cpp:91] Creating Layer inception_4b/5x5
I0403 15:46:49.574898 11289 net.cpp:425] inception_4b/5x5 <- inception_4b/5x5_reduce
I0403 15:46:49.574918 11289 net.cpp:399] inception_4b/5x5 -> inception_4b/5x5
I0403 15:46:49.576115 11289 net.cpp:141] Setting up inception_4b/5x5
I0403 15:46:49.576143 11289 net.cpp:148] Top shape: 24 64 14 14 (301056)
I0403 15:46:49.576160 11289 net.cpp:156] Memory required for data: 966976800
I0403 15:46:49.576179 11289 layer_factory.hpp:77] Creating layer inception_4b/relu_5x5
I0403 15:46:49.576195 11289 net.cpp:91] Creating Layer inception_4b/relu_5x5
I0403 15:46:49.576210 11289 net.cpp:425] inception_4b/relu_5x5 <- inception_4b/5x5
I0403 15:46:49.576230 11289 net.cpp:386] inception_4b/relu_5x5 -> inception_4b/5x5 (in-place)
I0403 15:46:49.576503 11289 net.cpp:141] Setting up inception_4b/relu_5x5
I0403 15:46:49.576530 11289 net.cpp:148] Top shape: 24 64 14 14 (301056)
I0403 15:46:49.576547 11289 net.cpp:156] Memory required for data: 968181024
I0403 15:46:49.576561 11289 layer_factory.hpp:77] Creating layer inception_4b/pool
I0403 15:46:49.576578 11289 net.cpp:91] Creating Layer inception_4b/pool
I0403 15:46:49.576593 11289 net.cpp:425] inception_4b/pool <- inception_4a/output_inception_4a/output_0_split_4
I0403 15:46:49.576617 11289 net.cpp:399] inception_4b/pool -> inception_4b/pool
I0403 15:46:49.576692 11289 net.cpp:141] Setting up inception_4b/pool
I0403 15:46:49.576719 11289 net.cpp:148] Top shape: 24 512 14 14 (2408448)
I0403 15:46:49.576735 11289 net.cpp:156] Memory required for data: 977814816
I0403 15:46:49.576750 11289 layer_factory.hpp:77] Creating layer inception_4b/pool_proj
I0403 15:46:49.576769 11289 net.cpp:91] Creating Layer inception_4b/pool_proj
I0403 15:46:49.576786 11289 net.cpp:425] inception_4b/pool_proj <- inception_4b/pool
I0403 15:46:49.576807 11289 net.cpp:399] inception_4b/pool_proj -> inception_4b/pool_proj
I0403 15:46:49.578001 11289 net.cpp:141] Setting up inception_4b/pool_proj
I0403 15:46:49.578027 11289 net.cpp:148] Top shape: 24 64 14 14 (301056)
I0403 15:46:49.578042 11289 net.cpp:156] Memory required for data: 979019040
I0403 15:46:49.578059 11289 layer_factory.hpp:77] Creating layer inception_4b/relu_pool_proj
I0403 15:46:49.578078 11289 net.cpp:91] Creating Layer inception_4b/relu_pool_proj
I0403 15:46:49.578094 11289 net.cpp:425] inception_4b/relu_pool_proj <- inception_4b/pool_proj
I0403 15:46:49.578112 11289 net.cpp:386] inception_4b/relu_pool_proj -> inception_4b/pool_proj (in-place)
I0403 15:46:49.578286 11289 net.cpp:141] Setting up inception_4b/relu_pool_proj
I0403 15:46:49.578311 11289 net.cpp:148] Top shape: 24 64 14 14 (301056)
I0403 15:46:49.578325 11289 net.cpp:156] Memory required for data: 980223264
I0403 15:46:49.578338 11289 layer_factory.hpp:77] Creating layer inception_4b/output
I0403 15:46:49.578356 11289 net.cpp:91] Creating Layer inception_4b/output
I0403 15:46:49.578371 11289 net.cpp:425] inception_4b/output <- inception_4b/1x1
I0403 15:46:49.578389 11289 net.cpp:425] inception_4b/output <- inception_4b/3x3
I0403 15:46:49.578405 11289 net.cpp:425] inception_4b/output <- inception_4b/5x5
I0403 15:46:49.578420 11289 net.cpp:425] inception_4b/output <- inception_4b/pool_proj
I0403 15:46:49.578436 11289 net.cpp:399] inception_4b/output -> inception_4b/output
I0403 15:46:49.578482 11289 net.cpp:141] Setting up inception_4b/output
I0403 15:46:49.578505 11289 net.cpp:148] Top shape: 24 512 14 14 (2408448)
I0403 15:46:49.578519 11289 net.cpp:156] Memory required for data: 989857056
I0403 15:46:49.578547 11289 layer_factory.hpp:77] Creating layer inception_4b/output_inception_4b/output_0_split
I0403 15:46:49.578565 11289 net.cpp:91] Creating Layer inception_4b/output_inception_4b/output_0_split
I0403 15:46:49.578580 11289 net.cpp:425] inception_4b/output_inception_4b/output_0_split <- inception_4b/output
I0403 15:46:49.578599 11289 net.cpp:399] inception_4b/output_inception_4b/output_0_split -> inception_4b/output_inception_4b/output_0_split_0
I0403 15:46:49.578619 11289 net.cpp:399] inception_4b/output_inception_4b/output_0_split -> inception_4b/output_inception_4b/output_0_split_1
I0403 15:46:49.578639 11289 net.cpp:399] inception_4b/output_inception_4b/output_0_split -> inception_4b/output_inception_4b/output_0_split_2
I0403 15:46:49.578660 11289 net.cpp:399] inception_4b/output_inception_4b/output_0_split -> inception_4b/output_inception_4b/output_0_split_3
I0403 15:46:49.578742 11289 net.cpp:141] Setting up inception_4b/output_inception_4b/output_0_split
I0403 15:46:49.578766 11289 net.cpp:148] Top shape: 24 512 14 14 (2408448)
I0403 15:46:49.578783 11289 net.cpp:148] Top shape: 24 512 14 14 (2408448)
I0403 15:46:49.578799 11289 net.cpp:148] Top shape: 24 512 14 14 (2408448)
I0403 15:46:49.578814 11289 net.cpp:148] Top shape: 24 512 14 14 (2408448)
I0403 15:46:49.578826 11289 net.cpp:156] Memory required for data: 1028392224
I0403 15:46:49.578841 11289 layer_factory.hpp:77] Creating layer inception_4c/1x1
I0403 15:46:49.578862 11289 net.cpp:91] Creating Layer inception_4c/1x1
I0403 15:46:49.578879 11289 net.cpp:425] inception_4c/1x1 <- inception_4b/output_inception_4b/output_0_split_0
I0403 15:46:49.578897 11289 net.cpp:399] inception_4c/1x1 -> inception_4c/1x1
I0403 15:46:49.580296 11289 net.cpp:141] Setting up inception_4c/1x1
I0403 15:46:49.580323 11289 net.cpp:148] Top shape: 24 128 14 14 (602112)
I0403 15:46:49.580338 11289 net.cpp:156] Memory required for data: 1030800672
I0403 15:46:49.580356 11289 layer_factory.hpp:77] Creating layer inception_4c/relu_1x1
I0403 15:46:49.580377 11289 net.cpp:91] Creating Layer inception_4c/relu_1x1
I0403 15:46:49.580394 11289 net.cpp:425] inception_4c/relu_1x1 <- inception_4c/1x1
I0403 15:46:49.580410 11289 net.cpp:386] inception_4c/relu_1x1 -> inception_4c/1x1 (in-place)
I0403 15:46:49.580586 11289 net.cpp:141] Setting up inception_4c/relu_1x1
I0403 15:46:49.580612 11289 net.cpp:148] Top shape: 24 128 14 14 (602112)
I0403 15:46:49.580627 11289 net.cpp:156] Memory required for data: 1033209120
I0403 15:46:49.580642 11289 layer_factory.hpp:77] Creating layer inception_4c/3x3_reduce
I0403 15:46:49.580664 11289 net.cpp:91] Creating Layer inception_4c/3x3_reduce
I0403 15:46:49.580682 11289 net.cpp:425] inception_4c/3x3_reduce <- inception_4b/output_inception_4b/output_0_split_1
I0403 15:46:49.580700 11289 net.cpp:399] inception_4c/3x3_reduce -> inception_4c/3x3_reduce
I0403 15:46:49.582592 11289 net.cpp:141] Setting up inception_4c/3x3_reduce
I0403 15:46:49.582623 11289 net.cpp:148] Top shape: 24 128 14 14 (602112)
I0403 15:46:49.582638 11289 net.cpp:156] Memory required for data: 1035617568
I0403 15:46:49.582656 11289 layer_factory.hpp:77] Creating layer inception_4c/relu_3x3_reduce
I0403 15:46:49.582674 11289 net.cpp:91] Creating Layer inception_4c/relu_3x3_reduce
I0403 15:46:49.582690 11289 net.cpp:425] inception_4c/relu_3x3_reduce <- inception_4c/3x3_reduce
I0403 15:46:49.582708 11289 net.cpp:386] inception_4c/relu_3x3_reduce -> inception_4c/3x3_reduce (in-place)
I0403 15:46:49.582989 11289 net.cpp:141] Setting up inception_4c/relu_3x3_reduce
I0403 15:46:49.583017 11289 net.cpp:148] Top shape: 24 128 14 14 (602112)
I0403 15:46:49.583034 11289 net.cpp:156] Memory required for data: 1038026016
I0403 15:46:49.583047 11289 layer_factory.hpp:77] Creating layer inception_4c/3x3
I0403 15:46:49.583070 11289 net.cpp:91] Creating Layer inception_4c/3x3
I0403 15:46:49.583089 11289 net.cpp:425] inception_4c/3x3 <- inception_4c/3x3_reduce
I0403 15:46:49.583109 11289 net.cpp:399] inception_4c/3x3 -> inception_4c/3x3
I0403 15:46:49.586614 11289 net.cpp:141] Setting up inception_4c/3x3
I0403 15:46:49.586657 11289 net.cpp:148] Top shape: 24 256 14 14 (1204224)
I0403 15:46:49.586674 11289 net.cpp:156] Memory required for data: 1042842912
I0403 15:46:49.586704 11289 layer_factory.hpp:77] Creating layer inception_4c/relu_3x3
I0403 15:46:49.586725 11289 net.cpp:91] Creating Layer inception_4c/relu_3x3
I0403 15:46:49.586741 11289 net.cpp:425] inception_4c/relu_3x3 <- inception_4c/3x3
I0403 15:46:49.586760 11289 net.cpp:386] inception_4c/relu_3x3 -> inception_4c/3x3 (in-place)
I0403 15:46:49.586937 11289 net.cpp:141] Setting up inception_4c/relu_3x3
I0403 15:46:49.586962 11289 net.cpp:148] Top shape: 24 256 14 14 (1204224)
I0403 15:46:49.586977 11289 net.cpp:156] Memory required for data: 1047659808
I0403 15:46:49.586997 11289 layer_factory.hpp:77] Creating layer inception_4c/5x5_reduce
I0403 15:46:49.587019 11289 net.cpp:91] Creating Layer inception_4c/5x5_reduce
I0403 15:46:49.587038 11289 net.cpp:425] inception_4c/5x5_reduce <- inception_4b/output_inception_4b/output_0_split_2
I0403 15:46:49.587059 11289 net.cpp:399] inception_4c/5x5_reduce -> inception_4c/5x5_reduce
I0403 15:46:49.588129 11289 net.cpp:141] Setting up inception_4c/5x5_reduce
I0403 15:46:49.588157 11289 net.cpp:148] Top shape: 24 24 14 14 (112896)
I0403 15:46:49.588172 11289 net.cpp:156] Memory required for data: 1048111392
I0403 15:46:49.588189 11289 layer_factory.hpp:77] Creating layer inception_4c/relu_5x5_reduce
I0403 15:46:49.588220 11289 net.cpp:91] Creating Layer inception_4c/relu_5x5_reduce
I0403 15:46:49.588243 11289 net.cpp:425] inception_4c/relu_5x5_reduce <- inception_4c/5x5_reduce
I0403 15:46:49.588263 11289 net.cpp:386] inception_4c/relu_5x5_reduce -> inception_4c/5x5_reduce (in-place)
I0403 15:46:49.588446 11289 net.cpp:141] Setting up inception_4c/relu_5x5_reduce
I0403 15:46:49.588471 11289 net.cpp:148] Top shape: 24 24 14 14 (112896)
I0403 15:46:49.588495 11289 net.cpp:156] Memory required for data: 1048562976
I0403 15:46:49.588510 11289 layer_factory.hpp:77] Creating layer inception_4c/5x5
I0403 15:46:49.588532 11289 net.cpp:91] Creating Layer inception_4c/5x5
I0403 15:46:49.588549 11289 net.cpp:425] inception_4c/5x5 <- inception_4c/5x5_reduce
I0403 15:46:49.588569 11289 net.cpp:399] inception_4c/5x5 -> inception_4c/5x5
I0403 15:46:49.589800 11289 net.cpp:141] Setting up inception_4c/5x5
I0403 15:46:49.589826 11289 net.cpp:148] Top shape: 24 64 14 14 (301056)
I0403 15:46:49.589841 11289 net.cpp:156] Memory required for data: 1049767200
I0403 15:46:49.589859 11289 layer_factory.hpp:77] Creating layer inception_4c/relu_5x5
I0403 15:46:49.589879 11289 net.cpp:91] Creating Layer inception_4c/relu_5x5
I0403 15:46:49.589895 11289 net.cpp:425] inception_4c/relu_5x5 <- inception_4c/5x5
I0403 15:46:49.589911 11289 net.cpp:386] inception_4c/relu_5x5 -> inception_4c/5x5 (in-place)
I0403 15:46:49.590198 11289 net.cpp:141] Setting up inception_4c/relu_5x5
I0403 15:46:49.590224 11289 net.cpp:148] Top shape: 24 64 14 14 (301056)
I0403 15:46:49.590237 11289 net.cpp:156] Memory required for data: 1050971424
I0403 15:46:49.590251 11289 layer_factory.hpp:77] Creating layer inception_4c/pool
I0403 15:46:49.590271 11289 net.cpp:91] Creating Layer inception_4c/pool
I0403 15:46:49.590288 11289 net.cpp:425] inception_4c/pool <- inception_4b/output_inception_4b/output_0_split_3
I0403 15:46:49.590306 11289 net.cpp:399] inception_4c/pool -> inception_4c/pool
I0403 15:46:49.590371 11289 net.cpp:141] Setting up inception_4c/pool
I0403 15:46:49.590394 11289 net.cpp:148] Top shape: 24 512 14 14 (2408448)
I0403 15:46:49.590409 11289 net.cpp:156] Memory required for data: 1060605216
I0403 15:46:49.590422 11289 layer_factory.hpp:77] Creating layer inception_4c/pool_proj
I0403 15:46:49.590443 11289 net.cpp:91] Creating Layer inception_4c/pool_proj
I0403 15:46:49.590461 11289 net.cpp:425] inception_4c/pool_proj <- inception_4c/pool
I0403 15:46:49.590481 11289 net.cpp:399] inception_4c/pool_proj -> inception_4c/pool_proj
I0403 15:46:49.591677 11289 net.cpp:141] Setting up inception_4c/pool_proj
I0403 15:46:49.591706 11289 net.cpp:148] Top shape: 24 64 14 14 (301056)
I0403 15:46:49.591738 11289 net.cpp:156] Memory required for data: 1061809440
I0403 15:46:49.591756 11289 layer_factory.hpp:77] Creating layer inception_4c/relu_pool_proj
I0403 15:46:49.591774 11289 net.cpp:91] Creating Layer inception_4c/relu_pool_proj
I0403 15:46:49.591790 11289 net.cpp:425] inception_4c/relu_pool_proj <- inception_4c/pool_proj
I0403 15:46:49.591809 11289 net.cpp:386] inception_4c/relu_pool_proj -> inception_4c/pool_proj (in-place)
I0403 15:46:49.591989 11289 net.cpp:141] Setting up inception_4c/relu_pool_proj
I0403 15:46:49.592013 11289 net.cpp:148] Top shape: 24 64 14 14 (301056)
I0403 15:46:49.592027 11289 net.cpp:156] Memory required for data: 1063013664
I0403 15:46:49.592041 11289 layer_factory.hpp:77] Creating layer inception_4c/output
I0403 15:46:49.592058 11289 net.cpp:91] Creating Layer inception_4c/output
I0403 15:46:49.592074 11289 net.cpp:425] inception_4c/output <- inception_4c/1x1
I0403 15:46:49.592090 11289 net.cpp:425] inception_4c/output <- inception_4c/3x3
I0403 15:46:49.592105 11289 net.cpp:425] inception_4c/output <- inception_4c/5x5
I0403 15:46:49.592121 11289 net.cpp:425] inception_4c/output <- inception_4c/pool_proj
I0403 15:46:49.592139 11289 net.cpp:399] inception_4c/output -> inception_4c/output
I0403 15:46:49.592187 11289 net.cpp:141] Setting up inception_4c/output
I0403 15:46:49.592211 11289 net.cpp:148] Top shape: 24 512 14 14 (2408448)
I0403 15:46:49.592226 11289 net.cpp:156] Memory required for data: 1072647456
I0403 15:46:49.592239 11289 layer_factory.hpp:77] Creating layer inception_4c/output_inception_4c/output_0_split
I0403 15:46:49.592255 11289 net.cpp:91] Creating Layer inception_4c/output_inception_4c/output_0_split
I0403 15:46:49.592270 11289 net.cpp:425] inception_4c/output_inception_4c/output_0_split <- inception_4c/output
I0403 15:46:49.592288 11289 net.cpp:399] inception_4c/output_inception_4c/output_0_split -> inception_4c/output_inception_4c/output_0_split_0
I0403 15:46:49.592309 11289 net.cpp:399] inception_4c/output_inception_4c/output_0_split -> inception_4c/output_inception_4c/output_0_split_1
I0403 15:46:49.592329 11289 net.cpp:399] inception_4c/output_inception_4c/output_0_split -> inception_4c/output_inception_4c/output_0_split_2
I0403 15:46:49.592349 11289 net.cpp:399] inception_4c/output_inception_4c/output_0_split -> inception_4c/output_inception_4c/output_0_split_3
I0403 15:46:49.592432 11289 net.cpp:141] Setting up inception_4c/output_inception_4c/output_0_split
I0403 15:46:49.592456 11289 net.cpp:148] Top shape: 24 512 14 14 (2408448)
I0403 15:46:49.592473 11289 net.cpp:148] Top shape: 24 512 14 14 (2408448)
I0403 15:46:49.592489 11289 net.cpp:148] Top shape: 24 512 14 14 (2408448)
I0403 15:46:49.592502 11289 net.cpp:148] Top shape: 24 512 14 14 (2408448)
I0403 15:46:49.592515 11289 net.cpp:156] Memory required for data: 1111182624
I0403 15:46:49.592530 11289 layer_factory.hpp:77] Creating layer inception_4d/1x1
I0403 15:46:49.592550 11289 net.cpp:91] Creating Layer inception_4d/1x1
I0403 15:46:49.592567 11289 net.cpp:425] inception_4d/1x1 <- inception_4c/output_inception_4c/output_0_split_0
I0403 15:46:49.592586 11289 net.cpp:399] inception_4d/1x1 -> inception_4d/1x1
I0403 15:46:49.593930 11289 net.cpp:141] Setting up inception_4d/1x1
I0403 15:46:49.593956 11289 net.cpp:148] Top shape: 24 112 14 14 (526848)
I0403 15:46:49.593971 11289 net.cpp:156] Memory required for data: 1113290016
I0403 15:46:49.593992 11289 layer_factory.hpp:77] Creating layer inception_4d/relu_1x1
I0403 15:46:49.594013 11289 net.cpp:91] Creating Layer inception_4d/relu_1x1
I0403 15:46:49.594029 11289 net.cpp:425] inception_4d/relu_1x1 <- inception_4d/1x1
I0403 15:46:49.594046 11289 net.cpp:386] inception_4d/relu_1x1 -> inception_4d/1x1 (in-place)
I0403 15:46:49.594228 11289 net.cpp:141] Setting up inception_4d/relu_1x1
I0403 15:46:49.594251 11289 net.cpp:148] Top shape: 24 112 14 14 (526848)
I0403 15:46:49.594265 11289 net.cpp:156] Memory required for data: 1115397408
I0403 15:46:49.594280 11289 layer_factory.hpp:77] Creating layer inception_4d/3x3_reduce
I0403 15:46:49.594315 11289 net.cpp:91] Creating Layer inception_4d/3x3_reduce
I0403 15:46:49.594333 11289 net.cpp:425] inception_4d/3x3_reduce <- inception_4c/output_inception_4c/output_0_split_1
I0403 15:46:49.594353 11289 net.cpp:399] inception_4d/3x3_reduce -> inception_4d/3x3_reduce
I0403 15:46:49.595823 11289 net.cpp:141] Setting up inception_4d/3x3_reduce
I0403 15:46:49.595849 11289 net.cpp:148] Top shape: 24 144 14 14 (677376)
I0403 15:46:49.595863 11289 net.cpp:156] Memory required for data: 1118106912
I0403 15:46:49.595881 11289 layer_factory.hpp:77] Creating layer inception_4d/relu_3x3_reduce
I0403 15:46:49.595901 11289 net.cpp:91] Creating Layer inception_4d/relu_3x3_reduce
I0403 15:46:49.595916 11289 net.cpp:425] inception_4d/relu_3x3_reduce <- inception_4d/3x3_reduce
I0403 15:46:49.595932 11289 net.cpp:386] inception_4d/relu_3x3_reduce -> inception_4d/3x3_reduce (in-place)
I0403 15:46:49.596217 11289 net.cpp:141] Setting up inception_4d/relu_3x3_reduce
I0403 15:46:49.596243 11289 net.cpp:148] Top shape: 24 144 14 14 (677376)
I0403 15:46:49.596257 11289 net.cpp:156] Memory required for data: 1120816416
I0403 15:46:49.596271 11289 layer_factory.hpp:77] Creating layer inception_4d/3x3
I0403 15:46:49.596293 11289 net.cpp:91] Creating Layer inception_4d/3x3
I0403 15:46:49.596309 11289 net.cpp:425] inception_4d/3x3 <- inception_4d/3x3_reduce
I0403 15:46:49.596330 11289 net.cpp:399] inception_4d/3x3 -> inception_4d/3x3
I0403 15:46:49.600502 11289 net.cpp:141] Setting up inception_4d/3x3
I0403 15:46:49.600533 11289 net.cpp:148] Top shape: 24 288 14 14 (1354752)
I0403 15:46:49.600548 11289 net.cpp:156] Memory required for data: 1126235424
I0403 15:46:49.600565 11289 layer_factory.hpp:77] Creating layer inception_4d/relu_3x3
I0403 15:46:49.600584 11289 net.cpp:91] Creating Layer inception_4d/relu_3x3
I0403 15:46:49.600599 11289 net.cpp:425] inception_4d/relu_3x3 <- inception_4d/3x3
I0403 15:46:49.600615 11289 net.cpp:386] inception_4d/relu_3x3 -> inception_4d/3x3 (in-place)
I0403 15:46:49.600796 11289 net.cpp:141] Setting up inception_4d/relu_3x3
I0403 15:46:49.600821 11289 net.cpp:148] Top shape: 24 288 14 14 (1354752)
I0403 15:46:49.600834 11289 net.cpp:156] Memory required for data: 1131654432
I0403 15:46:49.600848 11289 layer_factory.hpp:77] Creating layer inception_4d/5x5_reduce
I0403 15:46:49.600869 11289 net.cpp:91] Creating Layer inception_4d/5x5_reduce
I0403 15:46:49.600886 11289 net.cpp:425] inception_4d/5x5_reduce <- inception_4c/output_inception_4c/output_0_split_2
I0403 15:46:49.600908 11289 net.cpp:399] inception_4d/5x5_reduce -> inception_4d/5x5_reduce
I0403 15:46:49.602026 11289 net.cpp:141] Setting up inception_4d/5x5_reduce
I0403 15:46:49.602056 11289 net.cpp:148] Top shape: 24 32 14 14 (150528)
I0403 15:46:49.602072 11289 net.cpp:156] Memory required for data: 1132256544
I0403 15:46:49.602088 11289 layer_factory.hpp:77] Creating layer inception_4d/relu_5x5_reduce
I0403 15:46:49.602105 11289 net.cpp:91] Creating Layer inception_4d/relu_5x5_reduce
I0403 15:46:49.602121 11289 net.cpp:425] inception_4d/relu_5x5_reduce <- inception_4d/5x5_reduce
I0403 15:46:49.602139 11289 net.cpp:386] inception_4d/relu_5x5_reduce -> inception_4d/5x5_reduce (in-place)
I0403 15:46:49.602324 11289 net.cpp:141] Setting up inception_4d/relu_5x5_reduce
I0403 15:46:49.602347 11289 net.cpp:148] Top shape: 24 32 14 14 (150528)
I0403 15:46:49.602361 11289 net.cpp:156] Memory required for data: 1132858656
I0403 15:46:49.602375 11289 layer_factory.hpp:77] Creating layer inception_4d/5x5
I0403 15:46:49.602396 11289 net.cpp:91] Creating Layer inception_4d/5x5
I0403 15:46:49.602413 11289 net.cpp:425] inception_4d/5x5 <- inception_4d/5x5_reduce
I0403 15:46:49.602433 11289 net.cpp:399] inception_4d/5x5 -> inception_4d/5x5
I0403 15:46:49.603864 11289 net.cpp:141] Setting up inception_4d/5x5
I0403 15:46:49.603891 11289 net.cpp:148] Top shape: 24 64 14 14 (301056)
I0403 15:46:49.603906 11289 net.cpp:156] Memory required for data: 1134062880
I0403 15:46:49.603924 11289 layer_factory.hpp:77] Creating layer inception_4d/relu_5x5
I0403 15:46:49.603956 11289 net.cpp:91] Creating Layer inception_4d/relu_5x5
I0403 15:46:49.603972 11289 net.cpp:425] inception_4d/relu_5x5 <- inception_4d/5x5
I0403 15:46:49.603996 11289 net.cpp:386] inception_4d/relu_5x5 -> inception_4d/5x5 (in-place)
I0403 15:46:49.604290 11289 net.cpp:141] Setting up inception_4d/relu_5x5
I0403 15:46:49.604315 11289 net.cpp:148] Top shape: 24 64 14 14 (301056)
I0403 15:46:49.604329 11289 net.cpp:156] Memory required for data: 1135267104
I0403 15:46:49.604344 11289 layer_factory.hpp:77] Creating layer inception_4d/pool
I0403 15:46:49.604360 11289 net.cpp:91] Creating Layer inception_4d/pool
I0403 15:46:49.604377 11289 net.cpp:425] inception_4d/pool <- inception_4c/output_inception_4c/output_0_split_3
I0403 15:46:49.604396 11289 net.cpp:399] inception_4d/pool -> inception_4d/pool
I0403 15:46:49.604462 11289 net.cpp:141] Setting up inception_4d/pool
I0403 15:46:49.604485 11289 net.cpp:148] Top shape: 24 512 14 14 (2408448)
I0403 15:46:49.604499 11289 net.cpp:156] Memory required for data: 1144900896
I0403 15:46:49.604512 11289 layer_factory.hpp:77] Creating layer inception_4d/pool_proj
I0403 15:46:49.604537 11289 net.cpp:91] Creating Layer inception_4d/pool_proj
I0403 15:46:49.604553 11289 net.cpp:425] inception_4d/pool_proj <- inception_4d/pool
I0403 15:46:49.604571 11289 net.cpp:399] inception_4d/pool_proj -> inception_4d/pool_proj
I0403 15:46:49.606319 11289 net.cpp:141] Setting up inception_4d/pool_proj
I0403 15:46:49.606350 11289 net.cpp:148] Top shape: 24 64 14 14 (301056)
I0403 15:46:49.606365 11289 net.cpp:156] Memory required for data: 1146105120
I0403 15:46:49.606384 11289 layer_factory.hpp:77] Creating layer inception_4d/relu_pool_proj
I0403 15:46:49.606400 11289 net.cpp:91] Creating Layer inception_4d/relu_pool_proj
I0403 15:46:49.606416 11289 net.cpp:425] inception_4d/relu_pool_proj <- inception_4d/pool_proj
I0403 15:46:49.606432 11289 net.cpp:386] inception_4d/relu_pool_proj -> inception_4d/pool_proj (in-place)
I0403 15:46:49.606616 11289 net.cpp:141] Setting up inception_4d/relu_pool_proj
I0403 15:46:49.606639 11289 net.cpp:148] Top shape: 24 64 14 14 (301056)
I0403 15:46:49.606653 11289 net.cpp:156] Memory required for data: 1147309344
I0403 15:46:49.606668 11289 layer_factory.hpp:77] Creating layer inception_4d/output
I0403 15:46:49.606684 11289 net.cpp:91] Creating Layer inception_4d/output
I0403 15:46:49.606699 11289 net.cpp:425] inception_4d/output <- inception_4d/1x1
I0403 15:46:49.606714 11289 net.cpp:425] inception_4d/output <- inception_4d/3x3
I0403 15:46:49.606730 11289 net.cpp:425] inception_4d/output <- inception_4d/5x5
I0403 15:46:49.606745 11289 net.cpp:425] inception_4d/output <- inception_4d/pool_proj
I0403 15:46:49.606763 11289 net.cpp:399] inception_4d/output -> inception_4d/output
I0403 15:46:49.606809 11289 net.cpp:141] Setting up inception_4d/output
I0403 15:46:49.606833 11289 net.cpp:148] Top shape: 24 528 14 14 (2483712)
I0403 15:46:49.606848 11289 net.cpp:156] Memory required for data: 1157244192
I0403 15:46:49.606863 11289 layer_factory.hpp:77] Creating layer inception_4d/output_inception_4d/output_0_split
I0403 15:46:49.606879 11289 net.cpp:91] Creating Layer inception_4d/output_inception_4d/output_0_split
I0403 15:46:49.606895 11289 net.cpp:425] inception_4d/output_inception_4d/output_0_split <- inception_4d/output
I0403 15:46:49.606916 11289 net.cpp:399] inception_4d/output_inception_4d/output_0_split -> inception_4d/output_inception_4d/output_0_split_0
I0403 15:46:49.606936 11289 net.cpp:399] inception_4d/output_inception_4d/output_0_split -> inception_4d/output_inception_4d/output_0_split_1
I0403 15:46:49.606956 11289 net.cpp:399] inception_4d/output_inception_4d/output_0_split -> inception_4d/output_inception_4d/output_0_split_2
I0403 15:46:49.606976 11289 net.cpp:399] inception_4d/output_inception_4d/output_0_split -> inception_4d/output_inception_4d/output_0_split_3
I0403 15:46:49.607000 11289 net.cpp:399] inception_4d/output_inception_4d/output_0_split -> inception_4d/output_inception_4d/output_0_split_4
I0403 15:46:49.607100 11289 net.cpp:141] Setting up inception_4d/output_inception_4d/output_0_split
I0403 15:46:49.607133 11289 net.cpp:148] Top shape: 24 528 14 14 (2483712)
I0403 15:46:49.607151 11289 net.cpp:148] Top shape: 24 528 14 14 (2483712)
I0403 15:46:49.607164 11289 net.cpp:148] Top shape: 24 528 14 14 (2483712)
I0403 15:46:49.607179 11289 net.cpp:148] Top shape: 24 528 14 14 (2483712)
I0403 15:46:49.607194 11289 net.cpp:148] Top shape: 24 528 14 14 (2483712)
I0403 15:46:49.607208 11289 net.cpp:156] Memory required for data: 1206918432
I0403 15:46:49.607223 11289 layer_factory.hpp:77] Creating layer loss2/ave_pool
I0403 15:46:49.607241 11289 net.cpp:91] Creating Layer loss2/ave_pool
I0403 15:46:49.607257 11289 net.cpp:425] loss2/ave_pool <- inception_4d/output_inception_4d/output_0_split_0
I0403 15:46:49.607275 11289 net.cpp:399] loss2/ave_pool -> loss2/ave_pool
I0403 15:46:49.607585 11289 net.cpp:141] Setting up loss2/ave_pool
I0403 15:46:49.607612 11289 net.cpp:148] Top shape: 24 528 4 4 (202752)
I0403 15:46:49.607627 11289 net.cpp:156] Memory required for data: 1207729440
I0403 15:46:49.607642 11289 layer_factory.hpp:77] Creating layer loss2/conv
I0403 15:46:49.607663 11289 net.cpp:91] Creating Layer loss2/conv
I0403 15:46:49.607681 11289 net.cpp:425] loss2/conv <- loss2/ave_pool
I0403 15:46:49.607699 11289 net.cpp:399] loss2/conv -> loss2/conv
I0403 15:46:49.609619 11289 net.cpp:141] Setting up loss2/conv
I0403 15:46:49.609647 11289 net.cpp:148] Top shape: 24 128 4 4 (49152)
I0403 15:46:49.609663 11289 net.cpp:156] Memory required for data: 1207926048
I0403 15:46:49.609680 11289 layer_factory.hpp:77] Creating layer loss2/relu_conv
I0403 15:46:49.609700 11289 net.cpp:91] Creating Layer loss2/relu_conv
I0403 15:46:49.609717 11289 net.cpp:425] loss2/relu_conv <- loss2/conv
I0403 15:46:49.609735 11289 net.cpp:386] loss2/relu_conv -> loss2/conv (in-place)
I0403 15:46:49.610014 11289 net.cpp:141] Setting up loss2/relu_conv
I0403 15:46:49.610040 11289 net.cpp:148] Top shape: 24 128 4 4 (49152)
I0403 15:46:49.610055 11289 net.cpp:156] Memory required for data: 1208122656
I0403 15:46:49.610069 11289 layer_factory.hpp:77] Creating layer loss2/fc
I0403 15:46:49.610090 11289 net.cpp:91] Creating Layer loss2/fc
I0403 15:46:49.610108 11289 net.cpp:425] loss2/fc <- loss2/conv
I0403 15:46:49.610126 11289 net.cpp:399] loss2/fc -> loss2/fc
I0403 15:46:49.627435 11289 net.cpp:141] Setting up loss2/fc
I0403 15:46:49.627468 11289 net.cpp:148] Top shape: 24 1024 (24576)
I0403 15:46:49.627485 11289 net.cpp:156] Memory required for data: 1208220960
I0403 15:46:49.627503 11289 layer_factory.hpp:77] Creating layer loss2/relu_fc
I0403 15:46:49.627521 11289 net.cpp:91] Creating Layer loss2/relu_fc
I0403 15:46:49.627537 11289 net.cpp:425] loss2/relu_fc <- loss2/fc
I0403 15:46:49.627555 11289 net.cpp:386] loss2/relu_fc -> loss2/fc (in-place)
I0403 15:46:49.627843 11289 net.cpp:141] Setting up loss2/relu_fc
I0403 15:46:49.627871 11289 net.cpp:148] Top shape: 24 1024 (24576)
I0403 15:46:49.627885 11289 net.cpp:156] Memory required for data: 1208319264
I0403 15:46:49.627900 11289 layer_factory.hpp:77] Creating layer loss2/drop_fc
I0403 15:46:49.627918 11289 net.cpp:91] Creating Layer loss2/drop_fc
I0403 15:46:49.627934 11289 net.cpp:425] loss2/drop_fc <- loss2/fc
I0403 15:46:49.627954 11289 net.cpp:386] loss2/drop_fc -> loss2/fc (in-place)
I0403 15:46:49.628005 11289 net.cpp:141] Setting up loss2/drop_fc
I0403 15:46:49.628026 11289 net.cpp:148] Top shape: 24 1024 (24576)
I0403 15:46:49.628041 11289 net.cpp:156] Memory required for data: 1208417568
I0403 15:46:49.628056 11289 layer_factory.hpp:77] Creating layer loss2/classifier_plantvillage
I0403 15:46:49.628079 11289 net.cpp:91] Creating Layer loss2/classifier_plantvillage
I0403 15:46:49.628098 11289 net.cpp:425] loss2/classifier_plantvillage <- loss2/fc
I0403 15:46:49.628118 11289 net.cpp:399] loss2/classifier_plantvillage -> loss2/classifier_plantvillage
I0403 15:46:49.628507 11289 net.cpp:141] Setting up loss2/classifier_plantvillage
I0403 15:46:49.628531 11289 net.cpp:148] Top shape: 24 38 (912)
I0403 15:46:49.628559 11289 net.cpp:156] Memory required for data: 1208421216
I0403 15:46:49.628577 11289 layer_factory.hpp:77] Creating layer loss2/classifier_plantvillage_loss2/classifier_plantvillage_0_split
I0403 15:46:49.628597 11289 net.cpp:91] Creating Layer loss2/classifier_plantvillage_loss2/classifier_plantvillage_0_split
I0403 15:46:49.628614 11289 net.cpp:425] loss2/classifier_plantvillage_loss2/classifier_plantvillage_0_split <- loss2/classifier_plantvillage
I0403 15:46:49.628631 11289 net.cpp:399] loss2/classifier_plantvillage_loss2/classifier_plantvillage_0_split -> loss2/classifier_plantvillage_loss2/classifier_plantvillage_0_split_0
I0403 15:46:49.628653 11289 net.cpp:399] loss2/classifier_plantvillage_loss2/classifier_plantvillage_0_split -> loss2/classifier_plantvillage_loss2/classifier_plantvillage_0_split_1
I0403 15:46:49.628672 11289 net.cpp:399] loss2/classifier_plantvillage_loss2/classifier_plantvillage_0_split -> loss2/classifier_plantvillage_loss2/classifier_plantvillage_0_split_2
I0403 15:46:49.628749 11289 net.cpp:141] Setting up loss2/classifier_plantvillage_loss2/classifier_plantvillage_0_split
I0403 15:46:49.628772 11289 net.cpp:148] Top shape: 24 38 (912)
I0403 15:46:49.628787 11289 net.cpp:148] Top shape: 24 38 (912)
I0403 15:46:49.628801 11289 net.cpp:148] Top shape: 24 38 (912)
I0403 15:46:49.628814 11289 net.cpp:156] Memory required for data: 1208432160
I0403 15:46:49.628829 11289 layer_factory.hpp:77] Creating layer inception_4e/1x1
I0403 15:46:49.628849 11289 net.cpp:91] Creating Layer inception_4e/1x1
I0403 15:46:49.628865 11289 net.cpp:425] inception_4e/1x1 <- inception_4d/output_inception_4d/output_0_split_1
I0403 15:46:49.628885 11289 net.cpp:399] inception_4e/1x1 -> inception_4e/1x1
I0403 15:46:49.630671 11289 net.cpp:141] Setting up inception_4e/1x1
I0403 15:46:49.630698 11289 net.cpp:148] Top shape: 24 256 14 14 (1204224)
I0403 15:46:49.630713 11289 net.cpp:156] Memory required for data: 1213249056
I0403 15:46:49.630730 11289 layer_factory.hpp:77] Creating layer inception_4e/relu_1x1
I0403 15:46:49.630750 11289 net.cpp:91] Creating Layer inception_4e/relu_1x1
I0403 15:46:49.630767 11289 net.cpp:425] inception_4e/relu_1x1 <- inception_4e/1x1
I0403 15:46:49.630784 11289 net.cpp:386] inception_4e/relu_1x1 -> inception_4e/1x1 (in-place)
I0403 15:46:49.631075 11289 net.cpp:141] Setting up inception_4e/relu_1x1
I0403 15:46:49.631101 11289 net.cpp:148] Top shape: 24 256 14 14 (1204224)
I0403 15:46:49.631115 11289 net.cpp:156] Memory required for data: 1218065952
I0403 15:46:49.631130 11289 layer_factory.hpp:77] Creating layer inception_4e/3x3_reduce
I0403 15:46:49.631151 11289 net.cpp:91] Creating Layer inception_4e/3x3_reduce
I0403 15:46:49.631170 11289 net.cpp:425] inception_4e/3x3_reduce <- inception_4d/output_inception_4d/output_0_split_2
I0403 15:46:49.631189 11289 net.cpp:399] inception_4e/3x3_reduce -> inception_4e/3x3_reduce
I0403 15:46:49.633271 11289 net.cpp:141] Setting up inception_4e/3x3_reduce
I0403 15:46:49.633298 11289 net.cpp:148] Top shape: 24 160 14 14 (752640)
I0403 15:46:49.633313 11289 net.cpp:156] Memory required for data: 1221076512
I0403 15:46:49.633332 11289 layer_factory.hpp:77] Creating layer inception_4e/relu_3x3_reduce
I0403 15:46:49.633348 11289 net.cpp:91] Creating Layer inception_4e/relu_3x3_reduce
I0403 15:46:49.633368 11289 net.cpp:425] inception_4e/relu_3x3_reduce <- inception_4e/3x3_reduce
I0403 15:46:49.633384 11289 net.cpp:386] inception_4e/relu_3x3_reduce -> inception_4e/3x3_reduce (in-place)
I0403 15:46:49.633565 11289 net.cpp:141] Setting up inception_4e/relu_3x3_reduce
I0403 15:46:49.633589 11289 net.cpp:148] Top shape: 24 160 14 14 (752640)
I0403 15:46:49.633604 11289 net.cpp:156] Memory required for data: 1224087072
I0403 15:46:49.633617 11289 layer_factory.hpp:77] Creating layer inception_4e/3x3
I0403 15:46:49.633640 11289 net.cpp:91] Creating Layer inception_4e/3x3
I0403 15:46:49.633656 11289 net.cpp:425] inception_4e/3x3 <- inception_4e/3x3_reduce
I0403 15:46:49.633677 11289 net.cpp:399] inception_4e/3x3 -> inception_4e/3x3
I0403 15:46:49.638578 11289 net.cpp:141] Setting up inception_4e/3x3
I0403 15:46:49.638618 11289 net.cpp:148] Top shape: 24 320 14 14 (1505280)
I0403 15:46:49.638635 11289 net.cpp:156] Memory required for data: 1230108192
I0403 15:46:49.638653 11289 layer_factory.hpp:77] Creating layer inception_4e/relu_3x3
I0403 15:46:49.638672 11289 net.cpp:91] Creating Layer inception_4e/relu_3x3
I0403 15:46:49.638689 11289 net.cpp:425] inception_4e/relu_3x3 <- inception_4e/3x3
I0403 15:46:49.638706 11289 net.cpp:386] inception_4e/relu_3x3 -> inception_4e/3x3 (in-place)
I0403 15:46:49.639010 11289 net.cpp:141] Setting up inception_4e/relu_3x3
I0403 15:46:49.639036 11289 net.cpp:148] Top shape: 24 320 14 14 (1505280)
I0403 15:46:49.639051 11289 net.cpp:156] Memory required for data: 1236129312
I0403 15:46:49.639066 11289 layer_factory.hpp:77] Creating layer inception_4e/5x5_reduce
I0403 15:46:49.639091 11289 net.cpp:91] Creating Layer inception_4e/5x5_reduce
I0403 15:46:49.639108 11289 net.cpp:425] inception_4e/5x5_reduce <- inception_4d/output_inception_4d/output_0_split_3
I0403 15:46:49.639127 11289 net.cpp:399] inception_4e/5x5_reduce -> inception_4e/5x5_reduce
I0403 15:46:49.640195 11289 net.cpp:141] Setting up inception_4e/5x5_reduce
I0403 15:46:49.640234 11289 net.cpp:148] Top shape: 24 32 14 14 (150528)
I0403 15:46:49.640249 11289 net.cpp:156] Memory required for data: 1236731424
I0403 15:46:49.640267 11289 layer_factory.hpp:77] Creating layer inception_4e/relu_5x5_reduce
I0403 15:46:49.640285 11289 net.cpp:91] Creating Layer inception_4e/relu_5x5_reduce
I0403 15:46:49.640300 11289 net.cpp:425] inception_4e/relu_5x5_reduce <- inception_4e/5x5_reduce
I0403 15:46:49.640318 11289 net.cpp:386] inception_4e/relu_5x5_reduce -> inception_4e/5x5_reduce (in-place)
I0403 15:46:49.640609 11289 net.cpp:141] Setting up inception_4e/relu_5x5_reduce
I0403 15:46:49.640635 11289 net.cpp:148] Top shape: 24 32 14 14 (150528)
I0403 15:46:49.640648 11289 net.cpp:156] Memory required for data: 1237333536
I0403 15:46:49.640662 11289 layer_factory.hpp:77] Creating layer inception_4e/5x5
I0403 15:46:49.640698 11289 net.cpp:91] Creating Layer inception_4e/5x5
I0403 15:46:49.640717 11289 net.cpp:425] inception_4e/5x5 <- inception_4e/5x5_reduce
I0403 15:46:49.640736 11289 net.cpp:399] inception_4e/5x5 -> inception_4e/5x5
I0403 15:46:49.642544 11289 net.cpp:141] Setting up inception_4e/5x5
I0403 15:46:49.642575 11289 net.cpp:148] Top shape: 24 128 14 14 (602112)
I0403 15:46:49.642590 11289 net.cpp:156] Memory required for data: 1239741984
I0403 15:46:49.642608 11289 layer_factory.hpp:77] Creating layer inception_4e/relu_5x5
I0403 15:46:49.642626 11289 net.cpp:91] Creating Layer inception_4e/relu_5x5
I0403 15:46:49.642642 11289 net.cpp:425] inception_4e/relu_5x5 <- inception_4e/5x5
I0403 15:46:49.642662 11289 net.cpp:386] inception_4e/relu_5x5 -> inception_4e/5x5 (in-place)
I0403 15:46:49.642855 11289 net.cpp:141] Setting up inception_4e/relu_5x5
I0403 15:46:49.642879 11289 net.cpp:148] Top shape: 24 128 14 14 (602112)
I0403 15:46:49.642894 11289 net.cpp:156] Memory required for data: 1242150432
I0403 15:46:49.642909 11289 layer_factory.hpp:77] Creating layer inception_4e/pool
I0403 15:46:49.642927 11289 net.cpp:91] Creating Layer inception_4e/pool
I0403 15:46:49.642945 11289 net.cpp:425] inception_4e/pool <- inception_4d/output_inception_4d/output_0_split_4
I0403 15:46:49.642961 11289 net.cpp:399] inception_4e/pool -> inception_4e/pool
I0403 15:46:49.643033 11289 net.cpp:141] Setting up inception_4e/pool
I0403 15:46:49.643056 11289 net.cpp:148] Top shape: 24 528 14 14 (2483712)
I0403 15:46:49.643070 11289 net.cpp:156] Memory required for data: 1252085280
I0403 15:46:49.643085 11289 layer_factory.hpp:77] Creating layer inception_4e/pool_proj
I0403 15:46:49.643105 11289 net.cpp:91] Creating Layer inception_4e/pool_proj
I0403 15:46:49.643123 11289 net.cpp:425] inception_4e/pool_proj <- inception_4e/pool
I0403 15:46:49.643143 11289 net.cpp:399] inception_4e/pool_proj -> inception_4e/pool_proj
I0403 15:46:49.644639 11289 net.cpp:141] Setting up inception_4e/pool_proj
I0403 15:46:49.644680 11289 net.cpp:148] Top shape: 24 128 14 14 (602112)
I0403 15:46:49.644695 11289 net.cpp:156] Memory required for data: 1254493728
I0403 15:46:49.644713 11289 layer_factory.hpp:77] Creating layer inception_4e/relu_pool_proj
I0403 15:46:49.644731 11289 net.cpp:91] Creating Layer inception_4e/relu_pool_proj
I0403 15:46:49.644745 11289 net.cpp:425] inception_4e/relu_pool_proj <- inception_4e/pool_proj
I0403 15:46:49.644762 11289 net.cpp:386] inception_4e/relu_pool_proj -> inception_4e/pool_proj (in-place)
I0403 15:46:49.645054 11289 net.cpp:141] Setting up inception_4e/relu_pool_proj
I0403 15:46:49.645082 11289 net.cpp:148] Top shape: 24 128 14 14 (602112)
I0403 15:46:49.645097 11289 net.cpp:156] Memory required for data: 1256902176
I0403 15:46:49.645112 11289 layer_factory.hpp:77] Creating layer inception_4e/output
I0403 15:46:49.645128 11289 net.cpp:91] Creating Layer inception_4e/output
I0403 15:46:49.645143 11289 net.cpp:425] inception_4e/output <- inception_4e/1x1
I0403 15:46:49.645159 11289 net.cpp:425] inception_4e/output <- inception_4e/3x3
I0403 15:46:49.645174 11289 net.cpp:425] inception_4e/output <- inception_4e/5x5
I0403 15:46:49.645190 11289 net.cpp:425] inception_4e/output <- inception_4e/pool_proj
I0403 15:46:49.645206 11289 net.cpp:399] inception_4e/output -> inception_4e/output
I0403 15:46:49.645256 11289 net.cpp:141] Setting up inception_4e/output
I0403 15:46:49.645279 11289 net.cpp:148] Top shape: 24 832 14 14 (3913728)
I0403 15:46:49.645293 11289 net.cpp:156] Memory required for data: 1272557088
I0403 15:46:49.645308 11289 layer_factory.hpp:77] Creating layer pool4/3x3_s2
I0403 15:46:49.645326 11289 net.cpp:91] Creating Layer pool4/3x3_s2
I0403 15:46:49.645342 11289 net.cpp:425] pool4/3x3_s2 <- inception_4e/output
I0403 15:46:49.645359 11289 net.cpp:399] pool4/3x3_s2 -> pool4/3x3_s2
I0403 15:46:49.645427 11289 net.cpp:141] Setting up pool4/3x3_s2
I0403 15:46:49.645449 11289 net.cpp:148] Top shape: 24 832 7 7 (978432)
I0403 15:46:49.645463 11289 net.cpp:156] Memory required for data: 1276470816
I0403 15:46:49.645478 11289 layer_factory.hpp:77] Creating layer pool4/3x3_s2_pool4/3x3_s2_0_split
I0403 15:46:49.645494 11289 net.cpp:91] Creating Layer pool4/3x3_s2_pool4/3x3_s2_0_split
I0403 15:46:49.645509 11289 net.cpp:425] pool4/3x3_s2_pool4/3x3_s2_0_split <- pool4/3x3_s2
I0403 15:46:49.645527 11289 net.cpp:399] pool4/3x3_s2_pool4/3x3_s2_0_split -> pool4/3x3_s2_pool4/3x3_s2_0_split_0
I0403 15:46:49.645547 11289 net.cpp:399] pool4/3x3_s2_pool4/3x3_s2_0_split -> pool4/3x3_s2_pool4/3x3_s2_0_split_1
I0403 15:46:49.645567 11289 net.cpp:399] pool4/3x3_s2_pool4/3x3_s2_0_split -> pool4/3x3_s2_pool4/3x3_s2_0_split_2
I0403 15:46:49.645586 11289 net.cpp:399] pool4/3x3_s2_pool4/3x3_s2_0_split -> pool4/3x3_s2_pool4/3x3_s2_0_split_3
I0403 15:46:49.645680 11289 net.cpp:141] Setting up pool4/3x3_s2_pool4/3x3_s2_0_split
I0403 15:46:49.645704 11289 net.cpp:148] Top shape: 24 832 7 7 (978432)
I0403 15:46:49.645720 11289 net.cpp:148] Top shape: 24 832 7 7 (978432)
I0403 15:46:49.645735 11289 net.cpp:148] Top shape: 24 832 7 7 (978432)
I0403 15:46:49.645750 11289 net.cpp:148] Top shape: 24 832 7 7 (978432)
I0403 15:46:49.645762 11289 net.cpp:156] Memory required for data: 1292125728
I0403 15:46:49.645776 11289 layer_factory.hpp:77] Creating layer inception_5a/1x1
I0403 15:46:49.645798 11289 net.cpp:91] Creating Layer inception_5a/1x1
I0403 15:46:49.645815 11289 net.cpp:425] inception_5a/1x1 <- pool4/3x3_s2_pool4/3x3_s2_0_split_0
I0403 15:46:49.645833 11289 net.cpp:399] inception_5a/1x1 -> inception_5a/1x1
I0403 15:46:49.648636 11289 net.cpp:141] Setting up inception_5a/1x1
I0403 15:46:49.648664 11289 net.cpp:148] Top shape: 24 256 7 7 (301056)
I0403 15:46:49.648679 11289 net.cpp:156] Memory required for data: 1293329952
I0403 15:46:49.648696 11289 layer_factory.hpp:77] Creating layer inception_5a/relu_1x1
I0403 15:46:49.648713 11289 net.cpp:91] Creating Layer inception_5a/relu_1x1
I0403 15:46:49.648730 11289 net.cpp:425] inception_5a/relu_1x1 <- inception_5a/1x1
I0403 15:46:49.648748 11289 net.cpp:386] inception_5a/relu_1x1 -> inception_5a/1x1 (in-place)
I0403 15:46:49.649063 11289 net.cpp:141] Setting up inception_5a/relu_1x1
I0403 15:46:49.649090 11289 net.cpp:148] Top shape: 24 256 7 7 (301056)
I0403 15:46:49.649104 11289 net.cpp:156] Memory required for data: 1294534176
I0403 15:46:49.649118 11289 layer_factory.hpp:77] Creating layer inception_5a/3x3_reduce
I0403 15:46:49.649140 11289 net.cpp:91] Creating Layer inception_5a/3x3_reduce
I0403 15:46:49.649158 11289 net.cpp:425] inception_5a/3x3_reduce <- pool4/3x3_s2_pool4/3x3_s2_0_split_1
I0403 15:46:49.649178 11289 net.cpp:399] inception_5a/3x3_reduce -> inception_5a/3x3_reduce
I0403 15:46:49.651617 11289 net.cpp:141] Setting up inception_5a/3x3_reduce
I0403 15:46:49.651648 11289 net.cpp:148] Top shape: 24 160 7 7 (188160)
I0403 15:46:49.651664 11289 net.cpp:156] Memory required for data: 1295286816
I0403 15:46:49.651681 11289 layer_factory.hpp:77] Creating layer inception_5a/relu_3x3_reduce
I0403 15:46:49.651700 11289 net.cpp:91] Creating Layer inception_5a/relu_3x3_reduce
I0403 15:46:49.651715 11289 net.cpp:425] inception_5a/relu_3x3_reduce <- inception_5a/3x3_reduce
I0403 15:46:49.651732 11289 net.cpp:386] inception_5a/relu_3x3_reduce -> inception_5a/3x3_reduce (in-place)
I0403 15:46:49.651931 11289 net.cpp:141] Setting up inception_5a/relu_3x3_reduce
I0403 15:46:49.651957 11289 net.cpp:148] Top shape: 24 160 7 7 (188160)
I0403 15:46:49.651973 11289 net.cpp:156] Memory required for data: 1296039456
I0403 15:46:49.651993 11289 layer_factory.hpp:77] Creating layer inception_5a/3x3
I0403 15:46:49.652015 11289 net.cpp:91] Creating Layer inception_5a/3x3
I0403 15:46:49.652032 11289 net.cpp:425] inception_5a/3x3 <- inception_5a/3x3_reduce
I0403 15:46:49.652051 11289 net.cpp:399] inception_5a/3x3 -> inception_5a/3x3
I0403 15:46:49.657017 11289 net.cpp:141] Setting up inception_5a/3x3
I0403 15:46:49.657047 11289 net.cpp:148] Top shape: 24 320 7 7 (376320)
I0403 15:46:49.657061 11289 net.cpp:156] Memory required for data: 1297544736
I0403 15:46:49.657078 11289 layer_factory.hpp:77] Creating layer inception_5a/relu_3x3
I0403 15:46:49.657096 11289 net.cpp:91] Creating Layer inception_5a/relu_3x3
I0403 15:46:49.657111 11289 net.cpp:425] inception_5a/relu_3x3 <- inception_5a/3x3
I0403 15:46:49.657130 11289 net.cpp:386] inception_5a/relu_3x3 -> inception_5a/3x3 (in-place)
I0403 15:46:49.657420 11289 net.cpp:141] Setting up inception_5a/relu_3x3
I0403 15:46:49.657445 11289 net.cpp:148] Top shape: 24 320 7 7 (376320)
I0403 15:46:49.657460 11289 net.cpp:156] Memory required for data: 1299050016
I0403 15:46:49.657474 11289 layer_factory.hpp:77] Creating layer inception_5a/5x5_reduce
I0403 15:46:49.657496 11289 net.cpp:91] Creating Layer inception_5a/5x5_reduce
I0403 15:46:49.657513 11289 net.cpp:425] inception_5a/5x5_reduce <- pool4/3x3_s2_pool4/3x3_s2_0_split_2
I0403 15:46:49.657536 11289 net.cpp:399] inception_5a/5x5_reduce -> inception_5a/5x5_reduce
I0403 15:46:49.658684 11289 net.cpp:141] Setting up inception_5a/5x5_reduce
I0403 15:46:49.658712 11289 net.cpp:148] Top shape: 24 32 7 7 (37632)
I0403 15:46:49.658728 11289 net.cpp:156] Memory required for data: 1299200544
I0403 15:46:49.658746 11289 layer_factory.hpp:77] Creating layer inception_5a/relu_5x5_reduce
I0403 15:46:49.658766 11289 net.cpp:91] Creating Layer inception_5a/relu_5x5_reduce
I0403 15:46:49.658782 11289 net.cpp:425] inception_5a/relu_5x5_reduce <- inception_5a/5x5_reduce
I0403 15:46:49.658799 11289 net.cpp:386] inception_5a/relu_5x5_reduce -> inception_5a/5x5_reduce (in-place)
I0403 15:46:49.659102 11289 net.cpp:141] Setting up inception_5a/relu_5x5_reduce
I0403 15:46:49.659127 11289 net.cpp:148] Top shape: 24 32 7 7 (37632)
I0403 15:46:49.659142 11289 net.cpp:156] Memory required for data: 1299351072
I0403 15:46:49.659157 11289 layer_factory.hpp:77] Creating layer inception_5a/5x5
I0403 15:46:49.659178 11289 net.cpp:91] Creating Layer inception_5a/5x5
I0403 15:46:49.659195 11289 net.cpp:425] inception_5a/5x5 <- inception_5a/5x5_reduce
I0403 15:46:49.659217 11289 net.cpp:399] inception_5a/5x5 -> inception_5a/5x5
I0403 15:46:49.660907 11289 net.cpp:141] Setting up inception_5a/5x5
I0403 15:46:49.660943 11289 net.cpp:148] Top shape: 24 128 7 7 (150528)
I0403 15:46:49.660959 11289 net.cpp:156] Memory required for data: 1299953184
I0403 15:46:49.660980 11289 layer_factory.hpp:77] Creating layer inception_5a/relu_5x5
I0403 15:46:49.661000 11289 net.cpp:91] Creating Layer inception_5a/relu_5x5
I0403 15:46:49.661015 11289 net.cpp:425] inception_5a/relu_5x5 <- inception_5a/5x5
I0403 15:46:49.661034 11289 net.cpp:386] inception_5a/relu_5x5 -> inception_5a/5x5 (in-place)
I0403 15:46:49.661221 11289 net.cpp:141] Setting up inception_5a/relu_5x5
I0403 15:46:49.661244 11289 net.cpp:148] Top shape: 24 128 7 7 (150528)
I0403 15:46:49.661259 11289 net.cpp:156] Memory required for data: 1300555296
I0403 15:46:49.661273 11289 layer_factory.hpp:77] Creating layer inception_5a/pool
I0403 15:46:49.661293 11289 net.cpp:91] Creating Layer inception_5a/pool
I0403 15:46:49.661309 11289 net.cpp:425] inception_5a/pool <- pool4/3x3_s2_pool4/3x3_s2_0_split_3
I0403 15:46:49.661326 11289 net.cpp:399] inception_5a/pool -> inception_5a/pool
I0403 15:46:49.661396 11289 net.cpp:141] Setting up inception_5a/pool
I0403 15:46:49.661419 11289 net.cpp:148] Top shape: 24 832 7 7 (978432)
I0403 15:46:49.661433 11289 net.cpp:156] Memory required for data: 1304469024
I0403 15:46:49.661448 11289 layer_factory.hpp:77] Creating layer inception_5a/pool_proj
I0403 15:46:49.661469 11289 net.cpp:91] Creating Layer inception_5a/pool_proj
I0403 15:46:49.661486 11289 net.cpp:425] inception_5a/pool_proj <- inception_5a/pool
I0403 15:46:49.661506 11289 net.cpp:399] inception_5a/pool_proj -> inception_5a/pool_proj
I0403 15:46:49.663770 11289 net.cpp:141] Setting up inception_5a/pool_proj
I0403 15:46:49.663801 11289 net.cpp:148] Top shape: 24 128 7 7 (150528)
I0403 15:46:49.663817 11289 net.cpp:156] Memory required for data: 1305071136
I0403 15:46:49.663836 11289 layer_factory.hpp:77] Creating layer inception_5a/relu_pool_proj
I0403 15:46:49.663852 11289 net.cpp:91] Creating Layer inception_5a/relu_pool_proj
I0403 15:46:49.663868 11289 net.cpp:425] inception_5a/relu_pool_proj <- inception_5a/pool_proj
I0403 15:46:49.663887 11289 net.cpp:386] inception_5a/relu_pool_proj -> inception_5a/pool_proj (in-place)
I0403 15:46:49.664185 11289 net.cpp:141] Setting up inception_5a/relu_pool_proj
I0403 15:46:49.664213 11289 net.cpp:148] Top shape: 24 128 7 7 (150528)
I0403 15:46:49.664228 11289 net.cpp:156] Memory required for data: 1305673248
I0403 15:46:49.664242 11289 layer_factory.hpp:77] Creating layer inception_5a/output
I0403 15:46:49.664259 11289 net.cpp:91] Creating Layer inception_5a/output
I0403 15:46:49.664275 11289 net.cpp:425] inception_5a/output <- inception_5a/1x1
I0403 15:46:49.664293 11289 net.cpp:425] inception_5a/output <- inception_5a/3x3
I0403 15:46:49.664309 11289 net.cpp:425] inception_5a/output <- inception_5a/5x5
I0403 15:46:49.664324 11289 net.cpp:425] inception_5a/output <- inception_5a/pool_proj
I0403 15:46:49.664340 11289 net.cpp:399] inception_5a/output -> inception_5a/output
I0403 15:46:49.664391 11289 net.cpp:141] Setting up inception_5a/output
I0403 15:46:49.664415 11289 net.cpp:148] Top shape: 24 832 7 7 (978432)
I0403 15:46:49.664429 11289 net.cpp:156] Memory required for data: 1309586976
I0403 15:46:49.664443 11289 layer_factory.hpp:77] Creating layer inception_5a/output_inception_5a/output_0_split
I0403 15:46:49.664463 11289 net.cpp:91] Creating Layer inception_5a/output_inception_5a/output_0_split
I0403 15:46:49.664479 11289 net.cpp:425] inception_5a/output_inception_5a/output_0_split <- inception_5a/output
I0403 15:46:49.664496 11289 net.cpp:399] inception_5a/output_inception_5a/output_0_split -> inception_5a/output_inception_5a/output_0_split_0
I0403 15:46:49.664516 11289 net.cpp:399] inception_5a/output_inception_5a/output_0_split -> inception_5a/output_inception_5a/output_0_split_1
I0403 15:46:49.664537 11289 net.cpp:399] inception_5a/output_inception_5a/output_0_split -> inception_5a/output_inception_5a/output_0_split_2
I0403 15:46:49.664561 11289 net.cpp:399] inception_5a/output_inception_5a/output_0_split -> inception_5a/output_inception_5a/output_0_split_3
I0403 15:46:49.664669 11289 net.cpp:141] Setting up inception_5a/output_inception_5a/output_0_split
I0403 15:46:49.664691 11289 net.cpp:148] Top shape: 24 832 7 7 (978432)
I0403 15:46:49.664706 11289 net.cpp:148] Top shape: 24 832 7 7 (978432)
I0403 15:46:49.664721 11289 net.cpp:148] Top shape: 24 832 7 7 (978432)
I0403 15:46:49.664736 11289 net.cpp:148] Top shape: 24 832 7 7 (978432)
I0403 15:46:49.664749 11289 net.cpp:156] Memory required for data: 1325241888
I0403 15:46:49.664763 11289 layer_factory.hpp:77] Creating layer inception_5b/1x1
I0403 15:46:49.664784 11289 net.cpp:91] Creating Layer inception_5b/1x1
I0403 15:46:49.664801 11289 net.cpp:425] inception_5b/1x1 <- inception_5a/output_inception_5a/output_0_split_0
I0403 15:46:49.664822 11289 net.cpp:399] inception_5b/1x1 -> inception_5b/1x1
I0403 15:46:49.668581 11289 net.cpp:141] Setting up inception_5b/1x1
I0403 15:46:49.668612 11289 net.cpp:148] Top shape: 24 384 7 7 (451584)
I0403 15:46:49.668628 11289 net.cpp:156] Memory required for data: 1327048224
I0403 15:46:49.668647 11289 layer_factory.hpp:77] Creating layer inception_5b/relu_1x1
I0403 15:46:49.668664 11289 net.cpp:91] Creating Layer inception_5b/relu_1x1
I0403 15:46:49.668680 11289 net.cpp:425] inception_5b/relu_1x1 <- inception_5b/1x1
I0403 15:46:49.668697 11289 net.cpp:386] inception_5b/relu_1x1 -> inception_5b/1x1 (in-place)
I0403 15:46:49.669008 11289 net.cpp:141] Setting up inception_5b/relu_1x1
I0403 15:46:49.669035 11289 net.cpp:148] Top shape: 24 384 7 7 (451584)
I0403 15:46:49.669051 11289 net.cpp:156] Memory required for data: 1328854560
I0403 15:46:49.669066 11289 layer_factory.hpp:77] Creating layer inception_5b/3x3_reduce
I0403 15:46:49.669087 11289 net.cpp:91] Creating Layer inception_5b/3x3_reduce
I0403 15:46:49.669105 11289 net.cpp:425] inception_5b/3x3_reduce <- inception_5a/output_inception_5a/output_0_split_1
I0403 15:46:49.669126 11289 net.cpp:399] inception_5b/3x3_reduce -> inception_5b/3x3_reduce
I0403 15:46:49.671783 11289 net.cpp:141] Setting up inception_5b/3x3_reduce
I0403 15:46:49.671814 11289 net.cpp:148] Top shape: 24 192 7 7 (225792)
I0403 15:46:49.671830 11289 net.cpp:156] Memory required for data: 1329757728
I0403 15:46:49.671847 11289 layer_factory.hpp:77] Creating layer inception_5b/relu_3x3_reduce
I0403 15:46:49.671865 11289 net.cpp:91] Creating Layer inception_5b/relu_3x3_reduce
I0403 15:46:49.671882 11289 net.cpp:425] inception_5b/relu_3x3_reduce <- inception_5b/3x3_reduce
I0403 15:46:49.671901 11289 net.cpp:386] inception_5b/relu_3x3_reduce -> inception_5b/3x3_reduce (in-place)
I0403 15:46:49.672096 11289 net.cpp:141] Setting up inception_5b/relu_3x3_reduce
I0403 15:46:49.672119 11289 net.cpp:148] Top shape: 24 192 7 7 (225792)
I0403 15:46:49.672134 11289 net.cpp:156] Memory required for data: 1330660896
I0403 15:46:49.672148 11289 layer_factory.hpp:77] Creating layer inception_5b/3x3
I0403 15:46:49.672170 11289 net.cpp:91] Creating Layer inception_5b/3x3
I0403 15:46:49.672188 11289 net.cpp:425] inception_5b/3x3 <- inception_5b/3x3_reduce
I0403 15:46:49.672211 11289 net.cpp:399] inception_5b/3x3 -> inception_5b/3x3
I0403 15:46:49.678835 11289 net.cpp:141] Setting up inception_5b/3x3
I0403 15:46:49.678865 11289 net.cpp:148] Top shape: 24 384 7 7 (451584)
I0403 15:46:49.678882 11289 net.cpp:156] Memory required for data: 1332467232
I0403 15:46:49.678900 11289 layer_factory.hpp:77] Creating layer inception_5b/relu_3x3
I0403 15:46:49.678917 11289 net.cpp:91] Creating Layer inception_5b/relu_3x3
I0403 15:46:49.678935 11289 net.cpp:425] inception_5b/relu_3x3 <- inception_5b/3x3
I0403 15:46:49.678953 11289 net.cpp:386] inception_5b/relu_3x3 -> inception_5b/3x3 (in-place)
I0403 15:46:49.679255 11289 net.cpp:141] Setting up inception_5b/relu_3x3
I0403 15:46:49.679282 11289 net.cpp:148] Top shape: 24 384 7 7 (451584)
I0403 15:46:49.679298 11289 net.cpp:156] Memory required for data: 1334273568
I0403 15:46:49.679313 11289 layer_factory.hpp:77] Creating layer inception_5b/5x5_reduce
I0403 15:46:49.679354 11289 net.cpp:91] Creating Layer inception_5b/5x5_reduce
I0403 15:46:49.679374 11289 net.cpp:425] inception_5b/5x5_reduce <- inception_5a/output_inception_5a/output_0_split_2
I0403 15:46:49.679393 11289 net.cpp:399] inception_5b/5x5_reduce -> inception_5b/5x5_reduce
I0403 15:46:49.680646 11289 net.cpp:141] Setting up inception_5b/5x5_reduce
I0403 15:46:49.680676 11289 net.cpp:148] Top shape: 24 48 7 7 (56448)
I0403 15:46:49.680692 11289 net.cpp:156] Memory required for data: 1334499360
I0403 15:46:49.680709 11289 layer_factory.hpp:77] Creating layer inception_5b/relu_5x5_reduce
I0403 15:46:49.680728 11289 net.cpp:91] Creating Layer inception_5b/relu_5x5_reduce
I0403 15:46:49.680744 11289 net.cpp:425] inception_5b/relu_5x5_reduce <- inception_5b/5x5_reduce
I0403 15:46:49.680760 11289 net.cpp:386] inception_5b/relu_5x5_reduce -> inception_5b/5x5_reduce (in-place)
I0403 15:46:49.681139 11289 net.cpp:141] Setting up inception_5b/relu_5x5_reduce
I0403 15:46:49.681165 11289 net.cpp:148] Top shape: 24 48 7 7 (56448)
I0403 15:46:49.681180 11289 net.cpp:156] Memory required for data: 1334725152
I0403 15:46:49.681195 11289 layer_factory.hpp:77] Creating layer inception_5b/5x5
I0403 15:46:49.681215 11289 net.cpp:91] Creating Layer inception_5b/5x5
I0403 15:46:49.681231 11289 net.cpp:425] inception_5b/5x5 <- inception_5b/5x5_reduce
I0403 15:46:49.681251 11289 net.cpp:399] inception_5b/5x5 -> inception_5b/5x5
I0403 15:46:49.683290 11289 net.cpp:141] Setting up inception_5b/5x5
I0403 15:46:49.683320 11289 net.cpp:148] Top shape: 24 128 7 7 (150528)
I0403 15:46:49.683336 11289 net.cpp:156] Memory required for data: 1335327264
I0403 15:46:49.683356 11289 layer_factory.hpp:77] Creating layer inception_5b/relu_5x5
I0403 15:46:49.683373 11289 net.cpp:91] Creating Layer inception_5b/relu_5x5
I0403 15:46:49.683389 11289 net.cpp:425] inception_5b/relu_5x5 <- inception_5b/5x5
I0403 15:46:49.683409 11289 net.cpp:386] inception_5b/relu_5x5 -> inception_5b/5x5 (in-place)
I0403 15:46:49.683607 11289 net.cpp:141] Setting up inception_5b/relu_5x5
I0403 15:46:49.683631 11289 net.cpp:148] Top shape: 24 128 7 7 (150528)
I0403 15:46:49.683646 11289 net.cpp:156] Memory required for data: 1335929376
I0403 15:46:49.683661 11289 layer_factory.hpp:77] Creating layer inception_5b/pool
I0403 15:46:49.683681 11289 net.cpp:91] Creating Layer inception_5b/pool
I0403 15:46:49.683698 11289 net.cpp:425] inception_5b/pool <- inception_5a/output_inception_5a/output_0_split_3
I0403 15:46:49.683717 11289 net.cpp:399] inception_5b/pool -> inception_5b/pool
I0403 15:46:49.683800 11289 net.cpp:141] Setting up inception_5b/pool
I0403 15:46:49.683823 11289 net.cpp:148] Top shape: 24 832 7 7 (978432)
I0403 15:46:49.683837 11289 net.cpp:156] Memory required for data: 1339843104
I0403 15:46:49.683851 11289 layer_factory.hpp:77] Creating layer inception_5b/pool_proj
I0403 15:46:49.683872 11289 net.cpp:91] Creating Layer inception_5b/pool_proj
I0403 15:46:49.683889 11289 net.cpp:425] inception_5b/pool_proj <- inception_5b/pool
I0403 15:46:49.683909 11289 net.cpp:399] inception_5b/pool_proj -> inception_5b/pool_proj
I0403 15:46:49.686226 11289 net.cpp:141] Setting up inception_5b/pool_proj
I0403 15:46:49.686256 11289 net.cpp:148] Top shape: 24 128 7 7 (150528)
I0403 15:46:49.686274 11289 net.cpp:156] Memory required for data: 1340445216
I0403 15:46:49.686291 11289 layer_factory.hpp:77] Creating layer inception_5b/relu_pool_proj
I0403 15:46:49.686310 11289 net.cpp:91] Creating Layer inception_5b/relu_pool_proj
I0403 15:46:49.686326 11289 net.cpp:425] inception_5b/relu_pool_proj <- inception_5b/pool_proj
I0403 15:46:49.686344 11289 net.cpp:386] inception_5b/relu_pool_proj -> inception_5b/pool_proj (in-place)
I0403 15:46:49.686641 11289 net.cpp:141] Setting up inception_5b/relu_pool_proj
I0403 15:46:49.686669 11289 net.cpp:148] Top shape: 24 128 7 7 (150528)
I0403 15:46:49.686684 11289 net.cpp:156] Memory required for data: 1341047328
I0403 15:46:49.686698 11289 layer_factory.hpp:77] Creating layer inception_5b/output
I0403 15:46:49.686715 11289 net.cpp:91] Creating Layer inception_5b/output
I0403 15:46:49.686744 11289 net.cpp:425] inception_5b/output <- inception_5b/1x1
I0403 15:46:49.686763 11289 net.cpp:425] inception_5b/output <- inception_5b/3x3
I0403 15:46:49.686779 11289 net.cpp:425] inception_5b/output <- inception_5b/5x5
I0403 15:46:49.686794 11289 net.cpp:425] inception_5b/output <- inception_5b/pool_proj
I0403 15:46:49.686810 11289 net.cpp:399] inception_5b/output -> inception_5b/output
I0403 15:46:49.686861 11289 net.cpp:141] Setting up inception_5b/output
I0403 15:46:49.686885 11289 net.cpp:148] Top shape: 24 1024 7 7 (1204224)
I0403 15:46:49.686899 11289 net.cpp:156] Memory required for data: 1345864224
I0403 15:46:49.686913 11289 layer_factory.hpp:77] Creating layer pool5/7x7_s1
I0403 15:46:49.686933 11289 net.cpp:91] Creating Layer pool5/7x7_s1
I0403 15:46:49.686949 11289 net.cpp:425] pool5/7x7_s1 <- inception_5b/output
I0403 15:46:49.686965 11289 net.cpp:399] pool5/7x7_s1 -> pool5/7x7_s1
I0403 15:46:49.687181 11289 net.cpp:141] Setting up pool5/7x7_s1
I0403 15:46:49.687207 11289 net.cpp:148] Top shape: 24 1024 1 1 (24576)
I0403 15:46:49.687222 11289 net.cpp:156] Memory required for data: 1345962528
I0403 15:46:49.687237 11289 layer_factory.hpp:77] Creating layer pool5/drop_7x7_s1
I0403 15:46:49.687253 11289 net.cpp:91] Creating Layer pool5/drop_7x7_s1
I0403 15:46:49.687269 11289 net.cpp:425] pool5/drop_7x7_s1 <- pool5/7x7_s1
I0403 15:46:49.687288 11289 net.cpp:386] pool5/drop_7x7_s1 -> pool5/7x7_s1 (in-place)
I0403 15:46:49.687338 11289 net.cpp:141] Setting up pool5/drop_7x7_s1
I0403 15:46:49.687363 11289 net.cpp:148] Top shape: 24 1024 1 1 (24576)
I0403 15:46:49.687378 11289 net.cpp:156] Memory required for data: 1346060832
I0403 15:46:49.687392 11289 layer_factory.hpp:77] Creating layer loss3/classifier_plantvillage
I0403 15:46:49.687410 11289 net.cpp:91] Creating Layer loss3/classifier_plantvillage
I0403 15:46:49.687427 11289 net.cpp:425] loss3/classifier_plantvillage <- pool5/7x7_s1
I0403 15:46:49.687446 11289 net.cpp:399] loss3/classifier_plantvillage -> loss3/classifier_plantvillage
I0403 15:46:49.687860 11289 net.cpp:141] Setting up loss3/classifier_plantvillage
I0403 15:46:49.687883 11289 net.cpp:148] Top shape: 24 38 (912)
I0403 15:46:49.687897 11289 net.cpp:156] Memory required for data: 1346064480
I0403 15:46:49.687914 11289 layer_factory.hpp:77] Creating layer loss3/classifier_plantvillage_loss3/classifier_plantvillage_0_split
I0403 15:46:49.687935 11289 net.cpp:91] Creating Layer loss3/classifier_plantvillage_loss3/classifier_plantvillage_0_split
I0403 15:46:49.687952 11289 net.cpp:425] loss3/classifier_plantvillage_loss3/classifier_plantvillage_0_split <- loss3/classifier_plantvillage
I0403 15:46:49.687969 11289 net.cpp:399] loss3/classifier_plantvillage_loss3/classifier_plantvillage_0_split -> loss3/classifier_plantvillage_loss3/classifier_plantvillage_0_split_0
I0403 15:46:49.687994 11289 net.cpp:399] loss3/classifier_plantvillage_loss3/classifier_plantvillage_0_split -> loss3/classifier_plantvillage_loss3/classifier_plantvillage_0_split_1
I0403 15:46:49.688015 11289 net.cpp:399] loss3/classifier_plantvillage_loss3/classifier_plantvillage_0_split -> loss3/classifier_plantvillage_loss3/classifier_plantvillage_0_split_2
I0403 15:46:49.688038 11289 net.cpp:399] loss3/classifier_plantvillage_loss3/classifier_plantvillage_0_split -> loss3/classifier_plantvillage_loss3/classifier_plantvillage_0_split_3
I0403 15:46:49.688138 11289 net.cpp:141] Setting up loss3/classifier_plantvillage_loss3/classifier_plantvillage_0_split
I0403 15:46:49.688160 11289 net.cpp:148] Top shape: 24 38 (912)
I0403 15:46:49.688176 11289 net.cpp:148] Top shape: 24 38 (912)
I0403 15:46:49.688190 11289 net.cpp:148] Top shape: 24 38 (912)
I0403 15:46:49.688206 11289 net.cpp:148] Top shape: 24 38 (912)
I0403 15:46:49.688220 11289 net.cpp:156] Memory required for data: 1346079072
I0403 15:46:49.688233 11289 layer_factory.hpp:77] Creating layer loss1/loss
I0403 15:46:49.688254 11289 net.cpp:91] Creating Layer loss1/loss
I0403 15:46:49.688271 11289 net.cpp:425] loss1/loss <- loss1/classifier_plantvillage_loss1/classifier_plantvillage_0_split_0
I0403 15:46:49.688300 11289 net.cpp:425] loss1/loss <- label_data_1_split_0
…
