…
I0403 15:42:29.762567 11035 net.cpp:313] The NetState phase (1) differed from the phase (0) specified by a rule in layer data
I0403 15:42:29.763795 11035 net.cpp:49] Initializing net from parameters: 
state {
  phase: TEST
}
layer {
  name: "data"
  type: "Data"
  top: "data"
  top: "label"
  include {
    phase: TEST
  }
  transform_param {
    mirror: false
    crop_size: 224
    mean_file: "/home/mohanty/data/final_dataset/lmdb/segmented-80-20/mean.binaryproto"
  }
  data_param {
    source: "/home/mohanty/data/final_dataset/lmdb/segmented-80-20/test_db"
    batch_size: 24
    backend: LMDB
  }
}
layer {
  name: "conv1/7x7_s2"
  type: "Convolution"
  bottom: "data"
  top: "conv1/7x7_s2"
  param {
    lr_mult: 1
    decay_mult: 1
  }
  param {
    lr_mult: 2
    decay_mult: 0
  }
  convolution_param {
    num_output: 64
    pad: 3
    kernel_size: 7
    stride: 2
    weight_filler {
      type: "xavier"
      std: 0.1
    }
    bias_filler {
      type: "constant"
      value: 0.2
    }
  }
}
layer {
  name: "conv1/relu_7x7"
  type: "ReLU"
  bottom: "conv1/7x7_s2"
  top: "conv1/7x7_s2"
}
layer {
  name: "pool1/3x3_s2"
  type: "Pooling"
  bottom: "conv1/7x7_s2"
  top: "pool1/3x3_s2"
  pooling_param {
    pool: MAX
    kernel_size: 3
    stride: 2
  }
}
layer {
  name: "pool1/norm1"
  type: "LRN"
  bottom: "pool1/3x3_s2"
  top: "pool1/norm1"
  lrn_param {
    local_size: 5
    alpha: 0.0001
    beta: 0.75
  }
}
layer {
  name: "conv2/3x3_reduce"
  type: "Convolution"
  bottom: "pool1/norm1"
  top: "conv2/3x3_reduce"
  param {
    lr_mult: 1
    decay_mult: 1
  }
  param {
    lr_mult: 2
    decay_mult: 0
  }
  convolution_param {
    num_output: 64
    kernel_size: 1
    weight_filler {
      type: "xavier"
      std: 0.1
    }
    bias_filler {
      type: "constant"
      value: 0.2
    }
  }
}
layer {
  name: "conv2/relu_3x3_reduce"
  type: "ReLU"
  bottom: "conv2/3x3_reduce"
  top: "conv2/3x3_reduce"
}
layer {
  name: "conv2/3x3"
  type: "Convolution"
  bottom: "conv2/3x3_reduce"
  top: "conv2/3x3"
  param {
    lr_mult: 1
    decay_mult: 1
  }
  param {
    lr_mult: 2
    decay_mult: 0
  }
  convolution_param {
    num_output: 192
    pad: 1
    kernel_size: 3
    weight_filler {
      type: "xavier"
      std: 0.03
    }
    bias_filler {
      type: "constant"
      value: 0.2
    }
  }
}
layer {
  name: "conv2/relu_3x3"
  type: "ReLU"
  bottom: "conv2/3x3"
  top: "conv2/3x3"
}
layer {
  name: "conv2/norm2"
  type: "LRN"
  bottom: "conv2/3x3"
  top: "conv2/norm2"
  lrn_param {
    local_size: 5
    alpha: 0.0001
    beta: 0.75
  }
}
layer {
  name: "pool2/3x3_s2"
  type: "Pooling"
  bottom: "conv2/norm2"
  top: "pool2/3x3_s2"
  pooling_param {
    pool: MAX
    kernel_size: 3
    stride: 2
  }
}
layer {
  name: "inception_3a/1x1"
  type: "Convolution"
  bottom: "pool2/3x3_s2"
  top: "inception_3a/1x1"
  param {
    lr_mult: 1
    decay_mult: 1
  }
  param {
    lr_mult: 2
    decay_mult: 0
  }
  convolution_param {
    num_output: 64
    kernel_size: 1
    weight_filler {
      type: "xavier"
      std: 0.03
    }
    bias_filler {
      type: "constant"
      value: 0.2
    }
  }
}
layer {
  name: "inception_3a/relu_1x1"
  type: "ReLU"
  bottom: "inception_3a/1x1"
  top: "inception_3a/1x1"
}
layer {
  name: "inception_3a/3x3_reduce"
  type: "Convolution"
  bottom: "pool2/3x3_s2"
  top: "inception_3a/3x3_reduce"
  param {
    lr_mult: 1
    decay_mult: 1
  }
  param {
    lr_mult: 2
    decay_mult: 0
  }
  convolution_param {
    num_output: 96
    kernel_size: 1
    weight_filler {
      type: "xavier"
      std: 0.09
    }
    bias_filler {
      type: "constant"
      value: 0.2
    }
  }
}
layer {
  name: "inception_3a/relu_3x3_reduce"
  type: "ReLU"
  bottom: "inception_3a/3x3_reduce"
  top: "inception_3a/3x3_reduce"
}
layer {
  name: "inception_3a/3x3"
  type: "Convolution"
  bottom: "inception_3a/3x3_reduce"
  top: "inception_3a/3x3"
  param {
    lr_mult: 1
    decay_mult: 1
  }
  param {
    lr_mult: 2
    decay_mult: 0
  }
  convolution_param {
    num_output: 128
    pad: 1
    kernel_size: 3
    weight_filler {
      type: "xavier"
      std: 0.03
    }
    bias_filler {
      type: "constant"
      value: 0.2
    }
  }
}
layer {
  name: "inception_3a/relu_3x3"
  type: "ReLU"
  bottom: "inception_3a/3x3"
  top: "inception_3a/3x3"
}
layer {
  name: "inception_3a/5x5_reduce"
  type: "Convolution"
  bottom: "pool2/3x3_s2"
  top: "inception_3a/5x5_reduce"
  param {
    lr_mult: 1
    decay_mult: 1
  }
  param {
    lr_mult: 2
    decay_mult: 0
  }
  convolution_param {
    num_output: 16
    kernel_size: 1
    weight_filler {
      type: "xavier"
      std: 0.2
    }
    bias_filler {
      type: "constant"
      value: 0.2
    }
  }
}
layer {
  name: "inception_3a/relu_5x5_reduce"
  type: "ReLU"
  bottom: "inception_3a/5x5_reduce"
  top: "inception_3a/5x5_reduce"
}
layer {
  name: "inception_3a/5x5"
  type: "Convolution"
  bottom: "inception_3a/5x5_reduce"
  top: "inception_3a/5x5"
  param {
    lr_mult: 1
    decay_mult: 1
  }
  param {
    lr_mult: 2
    decay_mult: 0
  }
  convolution_param {
    num_output: 32
    pad: 2
    kernel_size: 5
    weight_filler {
      type: "xavier"
      std: 0.03
    }
    bias_filler {
      type: "constant"
      value: 0.2
    }
  }
}
layer {
  name: "inception_3a/relu_5x5"
  type: "ReLU"
  bottom: "inception_3a/5x5"
  top: "inception_3a/5x5"
}
layer {
  name: "inception_3a/pool"
  type: "Pooling"
  bottom: "pool2/3x3_s2"
  top: "inception_3a/pool"
  pooling_param {
    pool: MAX
    kernel_size: 3
    stride: 1
    pad: 1
  }
}
layer {
  name: "inception_3a/pool_proj"
  type: "Convolution"
  bottom: "inception_3a/pool"
  top: "inception_3a/pool_proj"
  param {
    lr_mult: 1
    decay_mult: 1
  }
  param {
    lr_mult: 2
    decay_mult: 0
  }
  convolution_param {
    num_output: 32
    kernel_size: 1
    weight_filler {
      type: "xavier"
      std: 0.1
    }
    bias_filler {
      type: "constant"
      value: 0.2
    }
  }
}
layer {
  name: "inception_3a/relu_pool_proj"
  type: "ReLU"
  bottom: "inception_3a/pool_proj"
  top: "inception_3a/pool_proj"
}
layer {
  name: "inception_3a/output"
  type: "Concat"
  bottom: "inception_3a/1x1"
  bottom: "inception_3a/3x3"
  bottom: "inception_3a/5x5"
  bottom: "inception_3a/pool_proj"
  top: "inception_3a/output"
}
layer {
  name: "inception_3b/1x1"
  type: "Convolution"
  bottom: "inception_3a/output"
  top: "inception_3b/1x1"
  param {
    lr_mult: 1
    decay_mult: 1
  }
  param {
    lr_mult: 2
    decay_mult: 0
  }
  convolution_param {
    num_output: 128
    kernel_size: 1
    weight_filler {
      type: "xavier"
      std: 0.03
    }
    bias_filler {
      type: "constant"
      value: 0.2
    }
  }
}
layer {
  name: "inception_3b/relu_1x1"
  type: "ReLU"
  bottom: "inception_3b/1x1"
  top: "inception_3b/1x1"
}
layer {
  name: "inception_3b/3x3_reduce"
  type: "Convolution"
  bottom: "inception_3a/output"
  top: "inception_3b/3x3_reduce"
  param {
    lr_mult: 1
    decay_mult: 1
  }
  param {
    lr_mult: 2
    decay_mult: 0
  }
  convolution_param {
    num_output: 128
    kernel_size: 1
    weight_filler {
      type: "xavier"
      std: 0.09
    }
    bias_filler {
      type: "constant"
      value: 0.2
    }
  }
}
layer {
  name: "inception_3b/relu_3x3_reduce"
  type: "ReLU"
  bottom: "inception_3b/3x3_reduce"
  top: "inception_3b/3x3_reduce"
}
layer {
  name: "inception_3b/3x3"
  type: "Convolution"
  bottom: "inception_3b/3x3_reduce"
  top: "inception_3b/3x3"
  param {
    lr_mult: 1
    decay_mult: 1
  }
  param {
    lr_mult: 2
    decay_mult: 0
  }
  convolution_param {
    num_output: 192
    pad: 1
    kernel_size: 3
    weight_filler {
      type: "xavier"
      std: 0.03
    }
    bias_filler {
      type: "constant"
      value: 0.2
    }
  }
}
layer {
  name: "inception_3b/relu_3x3"
  type: "ReLU"
  bottom: "inception_3b/3x3"
  top: "inception_3b/3x3"
}
layer {
  name: "inception_3b/5x5_reduce"
  type: "Convolution"
  bottom: "inception_3a/output"
  top: "inception_3b/5x5_reduce"
  param {
    lr_mult: 1
    decay_mult: 1
  }
  param {
    lr_mult: 2
    decay_mult: 0
  }
  convolution_param {
    num_output: 32
    kernel_size: 1
    weight_filler {
      type: "xavier"
      std: 0.2
    }
    bias_filler {
      type: "constant"
      value: 0.2
    }
  }
}
layer {
  name: "inception_3b/relu_5x5_reduce"
  type: "ReLU"
  bottom: "inception_3b/5x5_reduce"
  top: "inception_3b/5x5_reduce"
}
layer {
  name: "inception_3b/5x5"
  type: "Convolution"
  bottom: "inception_3b/5x5_reduce"
  top: "inception_3b/5x5"
  param {
    lr_mult: 1
    decay_mult: 1
  }
  param {
    lr_mult: 2
    decay_mult: 0
  }
  convolution_param {
    num_output: 96
    pad: 2
    kernel_size: 5
    weight_filler {
      type: "xavier"
      std: 0.03
    }
    bias_filler {
      type: "constant"
      value: 0.2
    }
  }
}
layer {
  name: "inception_3b/relu_5x5"
  type: "ReLU"
  bottom: "inception_3b/5x5"
  top: "inception_3b/5x5"
}
layer {
  name: "inception_3b/pool"
  type: "Pooling"
  bottom: "inception_3a/output"
  top: "inception_3b/pool"
  pooling_param {
    pool: MAX
    kernel_size: 3
    stride: 1
    pad: 1
  }
}
layer {
  name: "inception_3b/pool_proj"
  type: "Convolution"
  bottom: "inception_3b/pool"
  top: "inception_3b/pool_proj"
  param {
    lr_mult: 1
    decay_mult: 1
  }
  param {
    lr_mult: 2
    decay_mult: 0
  }
  convolution_param {
    num_output: 64
    kernel_size: 1
    weight_filler {
      type: "xavier"
      std: 0.1
    }
    bias_filler {
      type: "constant"
      value: 0.2
    }
  }
}
layer {
  name: "inception_3b/relu_pool_proj"
  type: "ReLU"
  bottom: "inception_3b/pool_proj"
  top: "inception_3b/pool_proj"
}
layer {
  name: "inception_3b/output"
  type: "Concat"
  bottom: "inception_3b/1x1"
  bottom: "inception_3b/3x3"
  bottom: "inception_3b/5x5"
  bottom: "inception_3b/pool_proj"
  top: "inception_3b/output"
}
layer {
  name: "pool3/3x3_s2"
  type: "Pooling"
  bottom: "inception_3b/output"
  top: "pool3/3x3_s2"
  pooling_param {
    pool: MAX
    kernel_size: 3
    stride: 2
  }
}
layer {
  name: "inception_4a/1x1"
  type: "Convolution"
  bottom: "pool3/3x3_s2"
  top: "inception_4a/1x1"
  param {
    lr_mult: 1
    decay_mult: 1
  }
  param {
    lr_mult: 2
    decay_mult: 0
  }
  convolution_param {
    num_output: 192
    kernel_size: 1
    weight_filler {
      type: "xavier"
      std: 0.03
    }
    bias_filler {
      type: "constant"
      value: 0.2
    }
  }
}
layer {
  name: "inception_4a/relu_1x1"
  type: "ReLU"
  bottom: "inception_4a/1x1"
  top: "inception_4a/1x1"
}
layer {
  name: "inception_4a/3x3_reduce"
  type: "Convolution"
  bottom: "pool3/3x3_s2"
  top: "inception_4a/3x3_reduce"
  param {
    lr_mult: 1
    decay_mult: 1
  }
  param {
    lr_mult: 2
    decay_mult: 0
  }
  convolution_param {
    num_output: 96
    kernel_size: 1
    weight_filler {
      type: "xavier"
      std: 0.09
    }
    bias_filler {
      type: "constant"
      value: 0.2
    }
  }
}
layer {
  name: "inception_4a/relu_3x3_reduce"
  type: "ReLU"
  bottom: "inception_4a/3x3_reduce"
  top: "inception_4a/3x3_reduce"
}
layer {
  name: "inception_4a/3x3"
  type: "Convolution"
  bottom: "inception_4a/3x3_reduce"
  top: "inception_4a/3x3"
  param {
    lr_mult: 1
    decay_mult: 1
  }
  param {
    lr_mult: 2
    decay_mult: 0
  }
  convolution_param {
    num_output: 208
    pad: 1
    kernel_size: 3
    weight_filler {
      type: "xavier"
      std: 0.03
    }
    bias_filler {
      type: "constant"
      value: 0.2
    }
  }
}
layer {
  name: "inception_4a/relu_3x3"
  type: "ReLU"
  bottom: "inception_4a/3x3"
  top: "inception_4a/3x3"
}
layer {
  name: "inception_4a/5x5_reduce"
  type: "Convolution"
  bottom: "pool3/3x3_s2"
  top: "inception_4a/5x5_reduce"
  param {
    lr_mult: 1
    decay_mult: 1
  }
  param {
    lr_mult: 2
    decay_mult: 0
  }
  convolution_param {
    num_output: 16
    kernel_size: 1
    weight_filler {
      type: "xavier"
      std: 0.2
    }
    bias_filler {
      type: "constant"
      value: 0.2
    }
  }
}
layer {
  name: "inception_4a/relu_5x5_reduce"
  type: "ReLU"
  bottom: "inception_4a/5x5_reduce"
  top: "inception_4a/5x5_reduce"
}
layer {
  name: "inception_4a/5x5"
  type: "Convolution"
  bottom: "inception_4a/5x5_reduce"
  top: "inception_4a/5x5"
  param {
    lr_mult: 1
    decay_mult: 1
  }
  param {
    lr_mult: 2
    decay_mult: 0
  }
  convolution_param {
    num_output: 48
    pad: 2
    kernel_size: 5
    weight_filler {
      type: "xavier"
      std: 0.03
    }
    bias_filler {
      type: "constant"
      value: 0.2
    }
  }
}
layer {
  name: "inception_4a/relu_5x5"
  type: "ReLU"
  bottom: "inception_4a/5x5"
  top: "inception_4a/5x5"
}
layer {
  name: "inception_4a/pool"
  type: "Pooling"
  bottom: "pool3/3x3_s2"
  top: "inception_4a/pool"
  pooling_param {
    pool: MAX
    kernel_size: 3
    stride: 1
    pad: 1
  }
}
layer {
  name: "inception_4a/pool_proj"
  type: "Convolution"
  bottom: "inception_4a/pool"
  top: "inception_4a/pool_proj"
  param {
    lr_mult: 1
    decay_mult: 1
  }
  param {
    lr_mult: 2
    decay_mult: 0
  }
  convolution_param {
    num_output: 64
    kernel_size: 1
    weight_filler {
      type: "xavier"
      std: 0.1
    }
    bias_filler {
      type: "constant"
      value: 0.2
    }
  }
}
layer {
  name: "inception_4a/relu_pool_proj"
  type: "ReLU"
  bottom: "inception_4a/pool_proj"
  top: "inception_4a/pool_proj"
}
layer {
  name: "inception_4a/output"
  type: "Concat"
  bottom: "inception_4a/1x1"
  bottom: "inception_4a/3x3"
  bottom: "inception_4a/5x5"
  bottom: "inception_4a/pool_proj"
  top: "inception_4a/output"
}
layer {
  name: "loss1/ave_pool"
  type: "Pooling"
  bottom: "inception_4a/output"
  top: "loss1/ave_pool"
  pooling_param {
    pool: AVE
    kernel_size: 5
    stride: 3
  }
}
layer {
  name: "loss1/conv"
  type: "Convolution"
  bottom: "loss1/ave_pool"
  top: "loss1/conv"
  param {
    lr_mult: 1
    decay_mult: 1
  }
  param {
    lr_mult: 2
    decay_mult: 0
  }
  convolution_param {
    num_output: 128
    kernel_size: 1
    weight_filler {
      type: "xavier"
      std: 0.08
    }
    bias_filler {
      type: "constant"
      value: 0.2
    }
  }
}
layer {
  name: "loss1/relu_conv"
  type: "ReLU"
  bottom: "loss1/conv"
  top: "loss1/conv"
}
layer {
  name: "loss1/fc"
  type: "InnerProduct"
  bottom: "loss1/conv"
  top: "loss1/fc"
  param {
    lr_mult: 1
    decay_mult: 1
  }
  param {
    lr_mult: 2
    decay_mult: 0
  }
  inner_product_param {
    num_output: 1024
    weight_filler {
      type: "xavier"
      std: 0.02
    }
    bias_filler {
      type: "constant"
      value: 0.2
    }
  }
}
layer {
  name: "loss1/relu_fc"
  type: "ReLU"
  bottom: "loss1/fc"
  top: "loss1/fc"
}
layer {
  name: "loss1/drop_fc"
  type: "Dropout"
  bottom: "loss1/fc"
  top: "loss1/fc"
  dropout_param {
    dropout_ratio: 0.7
  }
}
layer {
  name: "loss1/classifier_plantvillage"
  type: "InnerProduct"
  bottom: "loss1/fc"
  top: "loss1/classifier_plantvillage"
  param {
    lr_mult: 1
    decay_mult: 1
  }
  param {
    lr_mult: 2
    decay_mult: 0
  }
  inner_product_param {
    num_output: 38
    weight_filler {
      type: "xavier"
      std: 0.0009765625
    }
    bias_filler {
      type: "constant"
      value: 0
    }
  }
}
layer {
  name: "inception_4b/1x1"
  type: "Convolution"
  bottom: "inception_4a/output"
  top: "inception_4b/1x1"
  param {
    lr_mult: 1
    decay_mult: 1
  }
  param {
    lr_mult: 2
    decay_mult: 0
  }
  convolution_param {
    num_output: 160
    kernel_size: 1
    weight_filler {
      type: "xavier"
      std: 0.03
    }
    bias_filler {
      type: "constant"
      value: 0.2
    }
  }
}
layer {
  name: "inception_4b/relu_1x1"
  type: "ReLU"
  bottom: "inception_4b/1x1"
  top: "inception_4b/1x1"
}
layer {
  name: "inception_4b/3x3_reduce"
  type: "Convolution"
  bottom: "inception_4a/output"
  top: "inception_4b/3x3_reduce"
  param {
    lr_mult: 1
    decay_mult: 1
  }
  param {
    lr_mult: 2
    decay_mult: 0
  }
  convolution_param {
    num_output: 112
    kernel_size: 1
    weight_filler {
      type: "xavier"
      std: 0.09
    }
    bias_filler {
      type: "constant"
      value: 0.2
    }
  }
}
layer {
  name: "inception_4b/relu_3x3_reduce"
  type: "ReLU"
  bottom: "inception_4b/3x3_reduce"
  top: "inception_4b/3x3_reduce"
}
layer {
  name: "inception_4b/3x3"
  type: "Convolution"
  bottom: "inception_4b/3x3_reduce"
  top: "inception_4b/3x3"
  param {
    lr_mult: 1
    decay_mult: 1
  }
  param {
    lr_mult: 2
    decay_mult: 0
  }
  convolution_param {
    num_output: 224
    pad: 1
    kernel_size: 3
    weight_filler {
      type: "xavier"
      std: 0.03
    }
    bias_filler {
      type: "constant"
      value: 0.2
    }
  }
}
layer {
  name: "inception_4b/relu_3x3"
  type: "ReLU"
  bottom: "inception_4b/3x3"
  top: "inception_4b/3x3"
}
layer {
  name: "inception_4b/5x5_reduce"
  type: "Convolution"
  bottom: "inception_4a/output"
  top: "inception_4b/5x5_reduce"
  param {
    lr_mult: 1
    decay_mult: 1
  }
  param {
    lr_mult: 2
    decay_mult: 0
  }
  convolution_param {
    num_output: 24
    kernel_size: 1
    weight_filler {
      type: "xavier"
      std: 0.2
    }
    bias_filler {
      type: "constant"
      value: 0.2
    }
  }
}
layer {
  name: "inception_4b/relu_5x5_reduce"
  type: "ReLU"
  bottom: "inception_4b/5x5_reduce"
  top: "inception_4b/5x5_reduce"
}
layer {
  name: "inception_4b/5x5"
  type: "Convolution"
  bottom: "inception_4b/5x5_reduce"
  top: "inception_4b/5x5"
  param {
    lr_mult: 1
    decay_mult: 1
  }
  param {
    lr_mult: 2
    decay_mult: 0
  }
  convolution_param {
    num_output: 64
    pad: 2
    kernel_size: 5
    weight_filler {
      type: "xavier"
      std: 0.03
    }
    bias_filler {
      type: "constant"
      value: 0.2
    }
  }
}
layer {
  name: "inception_4b/relu_5x5"
  type: "ReLU"
  bottom: "inception_4b/5x5"
  top: "inception_4b/5x5"
}
layer {
  name: "inception_4b/pool"
  type: "Pooling"
  bottom: "inception_4a/output"
  top: "inception_4b/pool"
  pooling_param {
    pool: MAX
    kernel_size: 3
    stride: 1
    pad: 1
  }
}
layer {
  name: "inception_4b/pool_proj"
  type: "Convolution"
  bottom: "inception_4b/pool"
  top: "inception_4b/pool_proj"
  param {
    lr_mult: 1
    decay_mult: 1
  }
  param {
    lr_mult: 2
    decay_mult: 0
  }
  convolution_param {
    num_output: 64
    kernel_size: 1
    weight_filler {
      type: "xavier"
      std: 0.1
    }
    bias_filler {
      type: "constant"
      value: 0.2
    }
  }
}
layer {
  name: "inception_4b/relu_pool_proj"
  type: "ReLU"
  bottom: "inception_4b/pool_proj"
  top: "inception_4b/pool_proj"
}
layer {
  name: "inception_4b/output"
  type: "Concat"
  bottom: "inception_4b/1x1"
  bottom: "inception_4b/3x3"
  bottom: "inception_4b/5x5"
  bottom: "inception_4b/pool_proj"
  top: "inception_4b/output"
}
layer {
  name: "inception_4c/1x1"
  type: "Convolution"
  bottom: "inception_4b/output"
  top: "inception_4c/1x1"
  param {
    lr_mult: 1
    decay_mult: 1
  }
  param {
    lr_mult: 2
    decay_mult: 0
  }
  convolution_param {
    num_output: 128
    kernel_size: 1
    weight_filler {
      type: "xavier"
      std: 0.03
    }
    bias_filler {
      type: "constant"
      value: 0.2
    }
  }
}
layer {
  name: "inception_4c/relu_1x1"
  type: "ReLU"
  bottom: "inception_4c/1x1"
  top: "inception_4c/1x1"
}
layer {
  name: "inception_4c/3x3_reduce"
  type: "Convolution"
  bottom: "inception_4b/output"
  top: "inception_4c/3x3_reduce"
  param {
    lr_mult: 1
    decay_mult: 1
  }
  param {
    lr_mult: 2
    decay_mult: 0
  }
  convolution_param {
    num_output: 128
    kernel_size: 1
    weight_filler {
      type: "xavier"
      std: 0.09
    }
    bias_filler {
      type: "constant"
      value: 0.2
    }
  }
}
layer {
  name: "inception_4c/relu_3x3_reduce"
  type: "ReLU"
  bottom: "inception_4c/3x3_reduce"
  top: "inception_4c/3x3_reduce"
}
layer {
  name: "inception_4c/3x3"
  type: "Convolution"
  bottom: "inception_4c/3x3_reduce"
  top: "inception_4c/3x3"
  param {
    lr_mult: 1
    decay_mult: 1
  }
  param {
    lr_mult: 2
    decay_mult: 0
  }
  convolution_param {
    num_output: 256
    pad: 1
    kernel_size: 3
    weight_filler {
      type: "xavier"
      std: 0.03
    }
    bias_filler {
      type: "constant"
      value: 0.2
    }
  }
}
layer {
  name: "inception_4c/relu_3x3"
  type: "ReLU"
  bottom: "inception_4c/3x3"
  top: "inception_4c/3x3"
}
layer {
  name: "inception_4c/5x5_reduce"
  type: "Convolution"
  bottom: "inception_4b/output"
  top: "inception_4c/5x5_reduce"
  param {
    lr_mult: 1
    decay_mult: 1
  }
  param {
    lr_mult: 2
    decay_mult: 0
  }
  convolution_param {
    num_output: 24
    kernel_size: 1
    weight_filler {
      type: "xavier"
      std: 0.2
    }
    bias_filler {
      type: "constant"
      value: 0.2
    }
  }
}
layer {
  name: "inception_4c/relu_5x5_reduce"
  type: "ReLU"
  bottom: "inception_4c/5x5_reduce"
  top: "inception_4c/5x5_reduce"
}
layer {
  name: "inception_4c/5x5"
  type: "Convolution"
  bottom: "inception_4c/5x5_reduce"
  top: "inception_4c/5x5"
  param {
    lr_mult: 1
    decay_mult: 1
  }
  param {
    lr_mult: 2
    decay_mult: 0
  }
  convolution_param {
    num_output: 64
    pad: 2
    kernel_size: 5
    weight_filler {
      type: "xavier"
      std: 0.03
    }
    bias_filler {
      type: "constant"
      value: 0.2
    }
  }
}
layer {
  name: "inception_4c/relu_5x5"
  type: "ReLU"
  bottom: "inception_4c/5x5"
  top: "inception_4c/5x5"
}
layer {
  name: "inception_4c/pool"
  type: "Pooling"
  bottom: "inception_4b/output"
  top: "inception_4c/pool"
  pooling_param {
    pool: MAX
    kernel_size: 3
    stride: 1
    pad: 1
  }
}
layer {
  name: "inception_4c/pool_proj"
  type: "Convolution"
  bottom: "inception_4c/pool"
  top: "inception_4c/pool_proj"
  param {
    lr_mult: 1
    decay_mult: 1
  }
  param {
    lr_mult: 2
    decay_mult: 0
  }
  convolution_param {
    num_output: 64
    kernel_size: 1
    weight_filler {
      type: "xavier"
      std: 0.1
    }
    bias_filler {
      type: "constant"
      value: 0.2
    }
  }
}
layer {
  name: "inception_4c/relu_pool_proj"
  type: "ReLU"
  bottom: "inception_4c/pool_proj"
  top: "inception_4c/pool_proj"
}
layer {
  name: "inception_4c/output"
  type: "Concat"
  bottom: "inception_4c/1x1"
  bottom: "inception_4c/3x3"
  bottom: "inception_4c/5x5"
  bottom: "inception_4c/pool_proj"
  top: "inception_4c/output"
}
layer {
  name: "inception_4d/1x1"
  type: "Convolution"
  bottom: "inception_4c/output"
  top: "inception_4d/1x1"
  param {
    lr_mult: 1
    decay_mult: 1
  }
  param {
    lr_mult: 2
    decay_mult: 0
  }
  convolution_param {
    num_output: 112
    kernel_size: 1
    weight_filler {
      type: "xavier"
      std: 0.03
    }
    bias_filler {
      type: "constant"
      value: 0.2
    }
  }
}
layer {
  name: "inception_4d/relu_1x1"
  type: "ReLU"
  bottom: "inception_4d/1x1"
  top: "inception_4d/1x1"
}
layer {
  name: "inception_4d/3x3_reduce"
  type: "Convolution"
  bottom: "inception_4c/output"
  top: "inception_4d/3x3_reduce"
  param {
    lr_mult: 1
    decay_mult: 1
  }
  param {
    lr_mult: 2
    decay_mult: 0
  }
  convolution_param {
    num_output: 144
    kernel_size: 1
    weight_filler {
      type: "xavier"
      std: 0.09
    }
    bias_filler {
      type: "constant"
      value: 0.2
    }
  }
}
layer {
  name: "inception_4d/relu_3x3_reduce"
  type: "ReLU"
  bottom: "inception_4d/3x3_reduce"
  top: "inception_4d/3x3_reduce"
}
layer {
  name: "inception_4d/3x3"
  type: "Convolution"
  bottom: "inception_4d/3x3_reduce"
  top: "inception_4d/3x3"
  param {
    lr_mult: 1
    decay_mult: 1
  }
  param {
    lr_mult: 2
    decay_mult: 0
  }
  convolution_param {
    num_output: 288
    pad: 1
    kernel_size: 3
    weight_filler {
      type: "xavier"
      std: 0.03
    }
    bias_filler {
      type: "constant"
      value: 0.2
    }
  }
}
layer {
  name: "inception_4d/relu_3x3"
  type: "ReLU"
  bottom: "inception_4d/3x3"
  top: "inception_4d/3x3"
}
layer {
  name: "inception_4d/5x5_reduce"
  type: "Convolution"
  bottom: "inception_4c/output"
  top: "inception_4d/5x5_reduce"
  param {
    lr_mult: 1
    decay_mult: 1
  }
  param {
    lr_mult: 2
    decay_mult: 0
  }
  convolution_param {
    num_output: 32
    kernel_size: 1
    weight_filler {
      type: "xavier"
      std: 0.2
    }
    bias_filler {
      type: "constant"
      value: 0.2
    }
  }
}
layer {
  name: "inception_4d/relu_5x5_reduce"
  type: "ReLU"
  bottom: "inception_4d/5x5_reduce"
  top: "inception_4d/5x5_reduce"
}
layer {
  name: "inception_4d/5x5"
  type: "Convolution"
  bottom: "inception_4d/5x5_reduce"
  top: "inception_4d/5x5"
  param {
    lr_mult: 1
    decay_mult: 1
  }
  param {
    lr_mult: 2
    decay_mult: 0
  }
  convolution_param {
    num_output: 64
    pad: 2
    kernel_size: 5
    weight_filler {
      type: "xavier"
      std: 0.03
    }
    bias_filler {
      type: "constant"
      value: 0.2
    }
  }
}
layer {
  name: "inception_4d/relu_5x5"
  type: "ReLU"
  bottom: "inception_4d/5x5"
  top: "inception_4d/5x5"
}
layer {
  name: "inception_4d/pool"
  type: "Pooling"
  bottom: "inception_4c/output"
  top: "inception_4d/pool"
  pooling_param {
    pool: MAX
    kernel_size: 3
    stride: 1
    pad: 1
  }
}
layer {
  name: "inception_4d/pool_proj"
  type: "Convolution"
  bottom: "inception_4d/pool"
  top: "inception_4d/pool_proj"
  param {
    lr_mult: 1
    decay_mult: 1
  }
  param {
    lr_mult: 2
    decay_mult: 0
  }
  convolution_param {
    num_output: 64
    kernel_size: 1
    weight_filler {
      type: "xavier"
      std: 0.1
    }
    bias_filler {
      type: "constant"
      value: 0.2
    }
  }
}
layer {
  name: "inception_4d/relu_pool_proj"
  type: "ReLU"
  bottom: "inception_4d/pool_proj"
  top: "inception_4d/pool_proj"
}
layer {
  name: "inception_4d/output"
  type: "Concat"
  bottom: "inception_4d/1x1"
  bottom: "inception_4d/3x3"
  bottom: "inception_4d/5x5"
  bottom: "inception_4d/pool_proj"
  top: "inception_4d/output"
}
layer {
  name: "loss2/ave_pool"
  type: "Pooling"
  bottom: "inception_4d/output"
  top: "loss2/ave_pool"
  pooling_param {
    pool: AVE
    kernel_size: 5
    stride: 3
  }
}
layer {
  name: "loss2/conv"
  type: "Convolution"
  bottom: "loss2/ave_pool"
  top: "loss2/conv"
  param {
    lr_mult: 1
    decay_mult: 1
  }
  param {
    lr_mult: 2
    decay_mult: 0
  }
  convolution_param {
    num_output: 128
    kernel_size: 1
    weight_filler {
      type: "xavier"
      std: 0.08
    }
    bias_filler {
      type: "constant"
      value: 0.2
    }
  }
}
layer {
  name: "loss2/relu_conv"
  type: "ReLU"
  bottom: "loss2/conv"
  top: "loss2/conv"
}
layer {
  name: "loss2/fc"
  type: "InnerProduct"
  bottom: "loss2/conv"
  top: "loss2/fc"
  param {
    lr_mult: 1
    decay_mult: 1
  }
  param {
    lr_mult: 2
    decay_mult: 0
  }
  inner_product_param {
    num_output: 1024
    weight_filler {
      type: "xavier"
      std: 0.02
    }
    bias_filler {
      type: "constant"
      value: 0.2
    }
  }
}
layer {
  name: "loss2/relu_fc"
  type: "ReLU"
  bottom: "loss2/fc"
  top: "loss2/fc"
}
layer {
  name: "loss2/drop_fc"
  type: "Dropout"
  bottom: "loss2/fc"
  top: "loss2/fc"
  dropout_param {
    dropout_ratio: 0.7
  }
}
layer {
  name: "loss2/classifier_plantvillage"
  type: "InnerProduct"
  bottom: "loss2/fc"
  top: "loss2/classifier_plantvillage"
  param {
    lr_mult: 1
    decay_mult: 1
  }
  param {
    lr_mult: 2
    decay_mult: 0
  }
  inner_product_param {
    num_output: 38
    weight_filler {
      type: "xavier"
      std: 0.0009765625
    }
    bias_filler {
      type: "constant"
      value: 0
    }
  }
}
layer {
  name: "inception_4e/1x1"
  type: "Convolution"
  bottom: "inception_4d/output"
  top: "inception_4e/1x1"
  param {
    lr_mult: 1
    decay_mult: 1
  }
  param {
    lr_mult: 2
    decay_mult: 0
  }
  convolution_param {
    num_output: 256
    kernel_size: 1
    weight_filler {
      type: "xavier"
      std: 0.03
    }
    bias_filler {
      type: "constant"
      value: 0.2
    }
  }
}
layer {
  name: "inception_4e/relu_1x1"
  type: "ReLU"
  bottom: "inception_4e/1x1"
  top: "inception_4e/1x1"
}
layer {
  name: "inception_4e/3x3_reduce"
  type: "Convolution"
  bottom: "inception_4d/output"
  top: "inception_4e/3x3_reduce"
  param {
    lr_mult: 1
    decay_mult: 1
  }
  param {
    lr_mult: 2
    decay_mult: 0
  }
  convolution_param {
    num_output: 160
    kernel_size: 1
    weight_filler {
      type: "xavier"
      std: 0.09
    }
    bias_filler {
      type: "constant"
      value: 0.2
    }
  }
}
layer {
  name: "inception_4e/relu_3x3_reduce"
  type: "ReLU"
  bottom: "inception_4e/3x3_reduce"
  top: "inception_4e/3x3_reduce"
}
layer {
  name: "inception_4e/3x3"
  type: "Convolution"
  bottom: "inception_4e/3x3_reduce"
  top: "inception_4e/3x3"
  param {
    lr_mult: 1
    decay_mult: 1
  }
  param {
    lr_mult: 2
    decay_mult: 0
  }
  convolution_param {
    num_output: 320
    pad: 1
    kernel_size: 3
    weight_filler {
      type: "xavier"
      std: 0.03
    }
    bias_filler {
      type: "constant"
      value: 0.2
    }
  }
}
layer {
  name: "inception_4e/relu_3x3"
  type: "ReLU"
  bottom: "inception_4e/3x3"
  top: "inception_4e/3x3"
}
layer {
  name: "inception_4e/5x5_reduce"
  type: "Convolution"
  bottom: "inception_4d/output"
  top: "inception_4e/5x5_reduce"
  param {
    lr_mult: 1
    decay_mult: 1
  }
  param {
    lr_mult: 2
    decay_mult: 0
  }
  convolution_param {
    num_output: 32
    kernel_size: 1
    weight_filler {
      type: "xavier"
      std: 0.2
    }
    bias_filler {
      type: "constant"
      value: 0.2
    }
  }
}
layer {
  name: "inception_4e/relu_5x5_reduce"
  type: "ReLU"
  bottom: "inception_4e/5x5_reduce"
  top: "inception_4e/5x5_reduce"
}
layer {
  name: "inception_4e/5x5"
  type: "Convolution"
  bottom: "inception_4e/5x5_reduce"
  top: "inception_4e/
I0403 15:42:29.765107 11035 layer_factory.hpp:77] Creating layer data
I0403 15:42:29.765715 11035 net.cpp:91] Creating Layer data
I0403 15:42:29.765748 11035 net.cpp:399] data -> data
I0403 15:42:29.765797 11035 net.cpp:399] data -> label
I0403 15:42:29.765836 11035 data_transformer.cpp:25] Loading mean file from: /home/mohanty/data/final_dataset/lmdb/segmented-80-20/mean.binaryproto
I0403 15:42:29.768281 11038 db_lmdb.cpp:38] Opened lmdb /home/mohanty/data/final_dataset/lmdb/segmented-80-20/test_db
I0403 15:42:29.779031 11035 data_layer.cpp:41] output data size: 24,3,224,224
I0403 15:42:29.807548 11035 net.cpp:141] Setting up data
I0403 15:42:29.807631 11035 net.cpp:148] Top shape: 24 3 224 224 (3612672)
I0403 15:42:29.807653 11035 net.cpp:148] Top shape: 24 (24)
I0403 15:42:29.807669 11035 net.cpp:156] Memory required for data: 14450784
I0403 15:42:29.807698 11035 layer_factory.hpp:77] Creating layer label_data_1_split
I0403 15:42:29.807725 11035 net.cpp:91] Creating Layer label_data_1_split
I0403 15:42:29.807744 11035 net.cpp:425] label_data_1_split <- label
I0403 15:42:29.807776 11035 net.cpp:399] label_data_1_split -> label_data_1_split_0
I0403 15:42:29.807806 11035 net.cpp:399] label_data_1_split -> label_data_1_split_1
I0403 15:42:29.807827 11035 net.cpp:399] label_data_1_split -> label_data_1_split_2
I0403 15:42:29.807849 11035 net.cpp:399] label_data_1_split -> label_data_1_split_3
I0403 15:42:29.807870 11035 net.cpp:399] label_data_1_split -> label_data_1_split_4
I0403 15:42:29.807890 11035 net.cpp:399] label_data_1_split -> label_data_1_split_5
I0403 15:42:29.807911 11035 net.cpp:399] label_data_1_split -> label_data_1_split_6
I0403 15:42:29.807932 11035 net.cpp:399] label_data_1_split -> label_data_1_split_7
I0403 15:42:29.807957 11035 net.cpp:399] label_data_1_split -> label_data_1_split_8
I0403 15:42:29.807981 11035 net.cpp:399] label_data_1_split -> label_data_1_split_9
I0403 15:42:29.808099 11035 net.cpp:141] Setting up label_data_1_split
I0403 15:42:29.808123 11035 net.cpp:148] Top shape: 24 (24)
I0403 15:42:29.808140 11035 net.cpp:148] Top shape: 24 (24)
I0403 15:42:29.808157 11035 net.cpp:148] Top shape: 24 (24)
I0403 15:42:29.808174 11035 net.cpp:148] Top shape: 24 (24)
I0403 15:42:29.808190 11035 net.cpp:148] Top shape: 24 (24)
I0403 15:42:29.808207 11035 net.cpp:148] Top shape: 24 (24)
I0403 15:42:29.808224 11035 net.cpp:148] Top shape: 24 (24)
I0403 15:42:29.808240 11035 net.cpp:148] Top shape: 24 (24)
I0403 15:42:29.808256 11035 net.cpp:148] Top shape: 24 (24)
I0403 15:42:29.808272 11035 net.cpp:148] Top shape: 24 (24)
I0403 15:42:29.808318 11035 net.cpp:156] Memory required for data: 14451744
I0403 15:42:29.808334 11035 layer_factory.hpp:77] Creating layer conv1/7x7_s2
I0403 15:42:29.808367 11035 net.cpp:91] Creating Layer conv1/7x7_s2
I0403 15:42:29.808387 11035 net.cpp:425] conv1/7x7_s2 <- data
I0403 15:42:29.808408 11035 net.cpp:399] conv1/7x7_s2 -> conv1/7x7_s2
I0403 15:42:29.952039 11035 net.cpp:141] Setting up conv1/7x7_s2
I0403 15:42:29.952122 11035 net.cpp:148] Top shape: 24 64 112 112 (19267584)
I0403 15:42:29.952139 11035 net.cpp:156] Memory required for data: 91522080
I0403 15:42:29.952170 11035 layer_factory.hpp:77] Creating layer conv1/relu_7x7
I0403 15:42:29.952196 11035 net.cpp:91] Creating Layer conv1/relu_7x7
I0403 15:42:29.952215 11035 net.cpp:425] conv1/relu_7x7 <- conv1/7x7_s2
I0403 15:42:29.952234 11035 net.cpp:386] conv1/relu_7x7 -> conv1/7x7_s2 (in-place)
I0403 15:42:29.952476 11035 net.cpp:141] Setting up conv1/relu_7x7
I0403 15:42:29.952502 11035 net.cpp:148] Top shape: 24 64 112 112 (19267584)
I0403 15:42:29.952517 11035 net.cpp:156] Memory required for data: 168592416
I0403 15:42:29.952533 11035 layer_factory.hpp:77] Creating layer pool1/3x3_s2
I0403 15:42:29.952556 11035 net.cpp:91] Creating Layer pool1/3x3_s2
I0403 15:42:29.952574 11035 net.cpp:425] pool1/3x3_s2 <- conv1/7x7_s2
I0403 15:42:29.952591 11035 net.cpp:399] pool1/3x3_s2 -> pool1/3x3_s2
I0403 15:42:29.952662 11035 net.cpp:141] Setting up pool1/3x3_s2
I0403 15:42:29.952685 11035 net.cpp:148] Top shape: 24 64 56 56 (4816896)
I0403 15:42:29.952700 11035 net.cpp:156] Memory required for data: 187860000
I0403 15:42:29.952715 11035 layer_factory.hpp:77] Creating layer pool1/norm1
I0403 15:42:29.952739 11035 net.cpp:91] Creating Layer pool1/norm1
I0403 15:42:29.952755 11035 net.cpp:425] pool1/norm1 <- pool1/3x3_s2
I0403 15:42:29.952772 11035 net.cpp:399] pool1/norm1 -> pool1/norm1
I0403 15:42:29.953047 11035 net.cpp:141] Setting up pool1/norm1
I0403 15:42:29.953073 11035 net.cpp:148] Top shape: 24 64 56 56 (4816896)
I0403 15:42:29.953088 11035 net.cpp:156] Memory required for data: 207127584
I0403 15:42:29.953104 11035 layer_factory.hpp:77] Creating layer conv2/3x3_reduce
I0403 15:42:29.953127 11035 net.cpp:91] Creating Layer conv2/3x3_reduce
I0403 15:42:29.953143 11035 net.cpp:425] conv2/3x3_reduce <- pool1/norm1
I0403 15:42:29.953161 11035 net.cpp:399] conv2/3x3_reduce -> conv2/3x3_reduce
I0403 15:42:29.954443 11035 net.cpp:141] Setting up conv2/3x3_reduce
I0403 15:42:29.954471 11035 net.cpp:148] Top shape: 24 64 56 56 (4816896)
I0403 15:42:29.954486 11035 net.cpp:156] Memory required for data: 226395168
I0403 15:42:29.954507 11035 layer_factory.hpp:77] Creating layer conv2/relu_3x3_reduce
I0403 15:42:29.954525 11035 net.cpp:91] Creating Layer conv2/relu_3x3_reduce
I0403 15:42:29.954540 11035 net.cpp:425] conv2/relu_3x3_reduce <- conv2/3x3_reduce
I0403 15:42:29.954557 11035 net.cpp:386] conv2/relu_3x3_reduce -> conv2/3x3_reduce (in-place)
I0403 15:42:29.954795 11035 net.cpp:141] Setting up conv2/relu_3x3_reduce
I0403 15:42:29.954821 11035 net.cpp:148] Top shape: 24 64 56 56 (4816896)
I0403 15:42:29.954836 11035 net.cpp:156] Memory required for data: 245662752
I0403 15:42:29.954851 11035 layer_factory.hpp:77] Creating layer conv2/3x3
I0403 15:42:29.954871 11035 net.cpp:91] Creating Layer conv2/3x3
I0403 15:42:29.954888 11035 net.cpp:425] conv2/3x3 <- conv2/3x3_reduce
I0403 15:42:29.954906 11035 net.cpp:399] conv2/3x3 -> conv2/3x3
I0403 15:42:29.957056 11035 net.cpp:141] Setting up conv2/3x3
I0403 15:42:29.957083 11035 net.cpp:148] Top shape: 24 192 56 56 (14450688)
I0403 15:42:29.957099 11035 net.cpp:156] Memory required for data: 303465504
I0403 15:42:29.957119 11035 layer_factory.hpp:77] Creating layer conv2/relu_3x3
I0403 15:42:29.957139 11035 net.cpp:91] Creating Layer conv2/relu_3x3
I0403 15:42:29.957154 11035 net.cpp:425] conv2/relu_3x3 <- conv2/3x3
I0403 15:42:29.957170 11035 net.cpp:386] conv2/relu_3x3 -> conv2/3x3 (in-place)
I0403 15:42:29.957322 11035 net.cpp:141] Setting up conv2/relu_3x3
I0403 15:42:29.957346 11035 net.cpp:148] Top shape: 24 192 56 56 (14450688)
I0403 15:42:29.957391 11035 net.cpp:156] Memory required for data: 361268256
I0403 15:42:29.957406 11035 layer_factory.hpp:77] Creating layer conv2/norm2
I0403 15:42:29.957424 11035 net.cpp:91] Creating Layer conv2/norm2
I0403 15:42:29.957440 11035 net.cpp:425] conv2/norm2 <- conv2/3x3
I0403 15:42:29.957458 11035 net.cpp:399] conv2/norm2 -> conv2/norm2
I0403 15:42:29.957731 11035 net.cpp:141] Setting up conv2/norm2
I0403 15:42:29.957757 11035 net.cpp:148] Top shape: 24 192 56 56 (14450688)
I0403 15:42:29.957772 11035 net.cpp:156] Memory required for data: 419071008
I0403 15:42:29.957787 11035 layer_factory.hpp:77] Creating layer pool2/3x3_s2
I0403 15:42:29.957805 11035 net.cpp:91] Creating Layer pool2/3x3_s2
I0403 15:42:29.957821 11035 net.cpp:425] pool2/3x3_s2 <- conv2/norm2
I0403 15:42:29.957839 11035 net.cpp:399] pool2/3x3_s2 -> pool2/3x3_s2
I0403 15:42:29.957886 11035 net.cpp:141] Setting up pool2/3x3_s2
I0403 15:42:29.957908 11035 net.cpp:148] Top shape: 24 192 28 28 (3612672)
I0403 15:42:29.957922 11035 net.cpp:156] Memory required for data: 433521696
I0403 15:42:29.957937 11035 layer_factory.hpp:77] Creating layer pool2/3x3_s2_pool2/3x3_s2_0_split
I0403 15:42:29.957958 11035 net.cpp:91] Creating Layer pool2/3x3_s2_pool2/3x3_s2_0_split
I0403 15:42:29.957974 11035 net.cpp:425] pool2/3x3_s2_pool2/3x3_s2_0_split <- pool2/3x3_s2
I0403 15:42:29.957991 11035 net.cpp:399] pool2/3x3_s2_pool2/3x3_s2_0_split -> pool2/3x3_s2_pool2/3x3_s2_0_split_0
I0403 15:42:29.958010 11035 net.cpp:399] pool2/3x3_s2_pool2/3x3_s2_0_split -> pool2/3x3_s2_pool2/3x3_s2_0_split_1
I0403 15:42:29.958030 11035 net.cpp:399] pool2/3x3_s2_pool2/3x3_s2_0_split -> pool2/3x3_s2_pool2/3x3_s2_0_split_2
I0403 15:42:29.958050 11035 net.cpp:399] pool2/3x3_s2_pool2/3x3_s2_0_split -> pool2/3x3_s2_pool2/3x3_s2_0_split_3
I0403 15:42:29.958111 11035 net.cpp:141] Setting up pool2/3x3_s2_pool2/3x3_s2_0_split
I0403 15:42:29.958132 11035 net.cpp:148] Top shape: 24 192 28 28 (3612672)
I0403 15:42:29.958148 11035 net.cpp:148] Top shape: 24 192 28 28 (3612672)
I0403 15:42:29.958164 11035 net.cpp:148] Top shape: 24 192 28 28 (3612672)
I0403 15:42:29.958179 11035 net.cpp:148] Top shape: 24 192 28 28 (3612672)
I0403 15:42:29.958194 11035 net.cpp:156] Memory required for data: 491324448
I0403 15:42:29.958209 11035 layer_factory.hpp:77] Creating layer inception_3a/1x1
I0403 15:42:29.958228 11035 net.cpp:91] Creating Layer inception_3a/1x1
I0403 15:42:29.958245 11035 net.cpp:425] inception_3a/1x1 <- pool2/3x3_s2_pool2/3x3_s2_0_split_0
I0403 15:42:29.958262 11035 net.cpp:399] inception_3a/1x1 -> inception_3a/1x1
I0403 15:42:29.959719 11035 net.cpp:141] Setting up inception_3a/1x1
I0403 15:42:29.959748 11035 net.cpp:148] Top shape: 24 64 28 28 (1204224)
I0403 15:42:29.959764 11035 net.cpp:156] Memory required for data: 496141344
I0403 15:42:29.959780 11035 layer_factory.hpp:77] Creating layer inception_3a/relu_1x1
I0403 15:42:29.959800 11035 net.cpp:91] Creating Layer inception_3a/relu_1x1
I0403 15:42:29.959817 11035 net.cpp:425] inception_3a/relu_1x1 <- inception_3a/1x1
I0403 15:42:29.959835 11035 net.cpp:386] inception_3a/relu_1x1 -> inception_3a/1x1 (in-place)
I0403 15:42:29.960011 11035 net.cpp:141] Setting up inception_3a/relu_1x1
I0403 15:42:29.960037 11035 net.cpp:148] Top shape: 24 64 28 28 (1204224)
I0403 15:42:29.960052 11035 net.cpp:156] Memory required for data: 500958240
I0403 15:42:29.960067 11035 layer_factory.hpp:77] Creating layer inception_3a/3x3_reduce
I0403 15:42:29.960088 11035 net.cpp:91] Creating Layer inception_3a/3x3_reduce
I0403 15:42:29.960105 11035 net.cpp:425] inception_3a/3x3_reduce <- pool2/3x3_s2_pool2/3x3_s2_0_split_1
I0403 15:42:29.960124 11035 net.cpp:399] inception_3a/3x3_reduce -> inception_3a/3x3_reduce
I0403 15:42:29.961779 11035 net.cpp:141] Setting up inception_3a/3x3_reduce
I0403 15:42:29.961807 11035 net.cpp:148] Top shape: 24 96 28 28 (1806336)
I0403 15:42:29.961822 11035 net.cpp:156] Memory required for data: 508183584
I0403 15:42:29.961843 11035 layer_factory.hpp:77] Creating layer inception_3a/relu_3x3_reduce
I0403 15:42:29.961879 11035 net.cpp:91] Creating Layer inception_3a/relu_3x3_reduce
I0403 15:42:29.961897 11035 net.cpp:425] inception_3a/relu_3x3_reduce <- inception_3a/3x3_reduce
I0403 15:42:29.961916 11035 net.cpp:386] inception_3a/relu_3x3_reduce -> inception_3a/3x3_reduce (in-place)
I0403 15:42:29.962093 11035 net.cpp:141] Setting up inception_3a/relu_3x3_reduce
I0403 15:42:29.962118 11035 net.cpp:148] Top shape: 24 96 28 28 (1806336)
I0403 15:42:29.962132 11035 net.cpp:156] Memory required for data: 515408928
I0403 15:42:29.962147 11035 layer_factory.hpp:77] Creating layer inception_3a/3x3
I0403 15:42:29.962169 11035 net.cpp:91] Creating Layer inception_3a/3x3
I0403 15:42:29.962187 11035 net.cpp:425] inception_3a/3x3 <- inception_3a/3x3_reduce
I0403 15:42:29.962213 11035 net.cpp:399] inception_3a/3x3 -> inception_3a/3x3
I0403 15:42:29.963817 11035 net.cpp:141] Setting up inception_3a/3x3
I0403 15:42:29.963847 11035 net.cpp:148] Top shape: 24 128 28 28 (2408448)
I0403 15:42:29.963863 11035 net.cpp:156] Memory required for data: 525042720
I0403 15:42:29.963881 11035 layer_factory.hpp:77] Creating layer inception_3a/relu_3x3
I0403 15:42:29.963910 11035 net.cpp:91] Creating Layer inception_3a/relu_3x3
I0403 15:42:29.963927 11035 net.cpp:425] inception_3a/relu_3x3 <- inception_3a/3x3
I0403 15:42:29.963944 11035 net.cpp:386] inception_3a/relu_3x3 -> inception_3a/3x3 (in-place)
I0403 15:42:29.964234 11035 net.cpp:141] Setting up inception_3a/relu_3x3
I0403 15:42:29.964262 11035 net.cpp:148] Top shape: 24 128 28 28 (2408448)
I0403 15:42:29.964277 11035 net.cpp:156] Memory required for data: 534676512
I0403 15:42:29.964293 11035 layer_factory.hpp:77] Creating layer inception_3a/5x5_reduce
I0403 15:42:29.964311 11035 net.cpp:91] Creating Layer inception_3a/5x5_reduce
I0403 15:42:29.964328 11035 net.cpp:425] inception_3a/5x5_reduce <- pool2/3x3_s2_pool2/3x3_s2_0_split_2
I0403 15:42:29.964347 11035 net.cpp:399] inception_3a/5x5_reduce -> inception_3a/5x5_reduce
I0403 15:42:29.965265 11035 net.cpp:141] Setting up inception_3a/5x5_reduce
I0403 15:42:29.965293 11035 net.cpp:148] Top shape: 24 16 28 28 (301056)
I0403 15:42:29.965309 11035 net.cpp:156] Memory required for data: 535880736
I0403 15:42:29.965327 11035 layer_factory.hpp:77] Creating layer inception_3a/relu_5x5_reduce
I0403 15:42:29.965345 11035 net.cpp:91] Creating Layer inception_3a/relu_5x5_reduce
I0403 15:42:29.965361 11035 net.cpp:425] inception_3a/relu_5x5_reduce <- inception_3a/5x5_reduce
I0403 15:42:29.965378 11035 net.cpp:386] inception_3a/relu_5x5_reduce -> inception_3a/5x5_reduce (in-place)
I0403 15:42:29.965665 11035 net.cpp:141] Setting up inception_3a/relu_5x5_reduce
I0403 15:42:29.965690 11035 net.cpp:148] Top shape: 24 16 28 28 (301056)
I0403 15:42:29.965705 11035 net.cpp:156] Memory required for data: 537084960
I0403 15:42:29.965719 11035 layer_factory.hpp:77] Creating layer inception_3a/5x5
I0403 15:42:29.965740 11035 net.cpp:91] Creating Layer inception_3a/5x5
I0403 15:42:29.965757 11035 net.cpp:425] inception_3a/5x5 <- inception_3a/5x5_reduce
I0403 15:42:29.965781 11035 net.cpp:399] inception_3a/5x5 -> inception_3a/5x5
I0403 15:42:29.966750 11035 net.cpp:141] Setting up inception_3a/5x5
I0403 15:42:29.966776 11035 net.cpp:148] Top shape: 24 32 28 28 (602112)
I0403 15:42:29.966791 11035 net.cpp:156] Memory required for data: 539493408
I0403 15:42:29.966810 11035 layer_factory.hpp:77] Creating layer inception_3a/relu_5x5
I0403 15:42:29.966830 11035 net.cpp:91] Creating Layer inception_3a/relu_5x5
I0403 15:42:29.966846 11035 net.cpp:425] inception_3a/relu_5x5 <- inception_3a/5x5
I0403 15:42:29.966863 11035 net.cpp:386] inception_3a/relu_5x5 -> inception_3a/5x5 (in-place)
I0403 15:42:29.967033 11035 net.cpp:141] Setting up inception_3a/relu_5x5
I0403 15:42:29.967061 11035 net.cpp:148] Top shape: 24 32 28 28 (602112)
I0403 15:42:29.967075 11035 net.cpp:156] Memory required for data: 541901856
I0403 15:42:29.967090 11035 layer_factory.hpp:77] Creating layer inception_3a/pool
I0403 15:42:29.967108 11035 net.cpp:91] Creating Layer inception_3a/pool
I0403 15:42:29.967136 11035 net.cpp:425] inception_3a/pool <- pool2/3x3_s2_pool2/3x3_s2_0_split_3
I0403 15:42:29.967156 11035 net.cpp:399] inception_3a/pool -> inception_3a/pool
I0403 15:42:29.967211 11035 net.cpp:141] Setting up inception_3a/pool
I0403 15:42:29.967233 11035 net.cpp:148] Top shape: 24 192 28 28 (3612672)
I0403 15:42:29.967248 11035 net.cpp:156] Memory required for data: 556352544
I0403 15:42:29.967262 11035 layer_factory.hpp:77] Creating layer inception_3a/pool_proj
I0403 15:42:29.967284 11035 net.cpp:91] Creating Layer inception_3a/pool_proj
I0403 15:42:29.967300 11035 net.cpp:425] inception_3a/pool_proj <- inception_3a/pool
I0403 15:42:29.967321 11035 net.cpp:399] inception_3a/pool_proj -> inception_3a/pool_proj
I0403 15:42:29.968242 11035 net.cpp:141] Setting up inception_3a/pool_proj
I0403 15:42:29.968268 11035 net.cpp:148] Top shape: 24 32 28 28 (602112)
I0403 15:42:29.968283 11035 net.cpp:156] Memory required for data: 558760992
I0403 15:42:29.968307 11035 layer_factory.hpp:77] Creating layer inception_3a/relu_pool_proj
I0403 15:42:29.968325 11035 net.cpp:91] Creating Layer inception_3a/relu_pool_proj
I0403 15:42:29.968340 11035 net.cpp:425] inception_3a/relu_pool_proj <- inception_3a/pool_proj
I0403 15:42:29.968358 11035 net.cpp:386] inception_3a/relu_pool_proj -> inception_3a/pool_proj (in-place)
I0403 15:42:29.968621 11035 net.cpp:141] Setting up inception_3a/relu_pool_proj
I0403 15:42:29.968648 11035 net.cpp:148] Top shape: 24 32 28 28 (602112)
I0403 15:42:29.968663 11035 net.cpp:156] Memory required for data: 561169440
I0403 15:42:29.968678 11035 layer_factory.hpp:77] Creating layer inception_3a/output
I0403 15:42:29.968695 11035 net.cpp:91] Creating Layer inception_3a/output
I0403 15:42:29.968710 11035 net.cpp:425] inception_3a/output <- inception_3a/1x1
I0403 15:42:29.968726 11035 net.cpp:425] inception_3a/output <- inception_3a/3x3
I0403 15:42:29.968741 11035 net.cpp:425] inception_3a/output <- inception_3a/5x5
I0403 15:42:29.968756 11035 net.cpp:425] inception_3a/output <- inception_3a/pool_proj
I0403 15:42:29.968773 11035 net.cpp:399] inception_3a/output -> inception_3a/output
I0403 15:42:29.968819 11035 net.cpp:141] Setting up inception_3a/output
I0403 15:42:29.968842 11035 net.cpp:148] Top shape: 24 256 28 28 (4816896)
I0403 15:42:29.968855 11035 net.cpp:156] Memory required for data: 580437024
I0403 15:42:29.968869 11035 layer_factory.hpp:77] Creating layer inception_3a/output_inception_3a/output_0_split
I0403 15:42:29.968885 11035 net.cpp:91] Creating Layer inception_3a/output_inception_3a/output_0_split
I0403 15:42:29.968907 11035 net.cpp:425] inception_3a/output_inception_3a/output_0_split <- inception_3a/output
I0403 15:42:29.968924 11035 net.cpp:399] inception_3a/output_inception_3a/output_0_split -> inception_3a/output_inception_3a/output_0_split_0
I0403 15:42:29.968943 11035 net.cpp:399] inception_3a/output_inception_3a/output_0_split -> inception_3a/output_inception_3a/output_0_split_1
I0403 15:42:29.968979 11035 net.cpp:399] inception_3a/output_inception_3a/output_0_split -> inception_3a/output_inception_3a/output_0_split_2
I0403 15:42:29.969000 11035 net.cpp:399] inception_3a/output_inception_3a/output_0_split -> inception_3a/output_inception_3a/output_0_split_3
I0403 15:42:29.969072 11035 net.cpp:141] Setting up inception_3a/output_inception_3a/output_0_split
I0403 15:42:29.969094 11035 net.cpp:148] Top shape: 24 256 28 28 (4816896)
I0403 15:42:29.969110 11035 net.cpp:148] Top shape: 24 256 28 28 (4816896)
I0403 15:42:29.969125 11035 net.cpp:148] Top shape: 24 256 28 28 (4816896)
I0403 15:42:29.969141 11035 net.cpp:148] Top shape: 24 256 28 28 (4816896)
I0403 15:42:29.969153 11035 net.cpp:156] Memory required for data: 657507360
I0403 15:42:29.969167 11035 layer_factory.hpp:77] Creating layer inception_3b/1x1
I0403 15:42:29.969188 11035 net.cpp:91] Creating Layer inception_3b/1x1
I0403 15:42:29.969207 11035 net.cpp:425] inception_3b/1x1 <- inception_3a/output_inception_3a/output_0_split_0
I0403 15:42:29.969228 11035 net.cpp:399] inception_3b/1x1 -> inception_3b/1x1
I0403 15:42:29.970317 11035 net.cpp:141] Setting up inception_3b/1x1
I0403 15:42:29.970355 11035 net.cpp:148] Top shape: 24 128 28 28 (2408448)
I0403 15:42:29.970371 11035 net.cpp:156] Memory required for data: 667141152
I0403 15:42:29.970388 11035 layer_factory.hpp:77] Creating layer inception_3b/relu_1x1
I0403 15:42:29.970407 11035 net.cpp:91] Creating Layer inception_3b/relu_1x1
I0403 15:42:29.970424 11035 net.cpp:425] inception_3b/relu_1x1 <- inception_3b/1x1
I0403 15:42:29.970441 11035 net.cpp:386] inception_3b/relu_1x1 -> inception_3b/1x1 (in-place)
I0403 15:42:29.970607 11035 net.cpp:141] Setting up inception_3b/relu_1x1
I0403 15:42:29.970633 11035 net.cpp:148] Top shape: 24 128 28 28 (2408448)
I0403 15:42:29.970649 11035 net.cpp:156] Memory required for data: 676774944
I0403 15:42:29.970662 11035 layer_factory.hpp:77] Creating layer inception_3b/3x3_reduce
I0403 15:42:29.970685 11035 net.cpp:91] Creating Layer inception_3b/3x3_reduce
I0403 15:42:29.970700 11035 net.cpp:425] inception_3b/3x3_reduce <- inception_3a/output_inception_3a/output_0_split_1
I0403 15:42:29.970720 11035 net.cpp:399] inception_3b/3x3_reduce -> inception_3b/3x3_reduce
I0403 15:42:29.971804 11035 net.cpp:141] Setting up inception_3b/3x3_reduce
I0403 15:42:29.971832 11035 net.cpp:148] Top shape: 24 128 28 28 (2408448)
I0403 15:42:29.971846 11035 net.cpp:156] Memory required for data: 686408736
I0403 15:42:29.971864 11035 layer_factory.hpp:77] Creating layer inception_3b/relu_3x3_reduce
I0403 15:42:29.971884 11035 net.cpp:91] Creating Layer inception_3b/relu_3x3_reduce
I0403 15:42:29.971900 11035 net.cpp:425] inception_3b/relu_3x3_reduce <- inception_3b/3x3_reduce
I0403 15:42:29.971918 11035 net.cpp:386] inception_3b/relu_3x3_reduce -> inception_3b/3x3_reduce (in-place)
I0403 15:42:29.972086 11035 net.cpp:141] Setting up inception_3b/relu_3x3_reduce
I0403 15:42:29.972111 11035 net.cpp:148] Top shape: 24 128 28 28 (2408448)
I0403 15:42:29.972126 11035 net.cpp:156] Memory required for data: 696042528
I0403 15:42:29.972141 11035 layer_factory.hpp:77] Creating layer inception_3b/3x3
I0403 15:42:29.972169 11035 net.cpp:91] Creating Layer inception_3b/3x3
I0403 15:42:29.972187 11035 net.cpp:425] inception_3b/3x3 <- inception_3b/3x3_reduce
I0403 15:42:29.972208 11035 net.cpp:399] inception_3b/3x3 -> inception_3b/3x3
I0403 15:42:29.975019 11035 net.cpp:141] Setting up inception_3b/3x3
I0403 15:42:29.975049 11035 net.cpp:148] Top shape: 24 192 28 28 (3612672)
I0403 15:42:29.975065 11035 net.cpp:156] Memory required for data: 710493216
I0403 15:42:29.975083 11035 layer_factory.hpp:77] Creating layer inception_3b/relu_3x3
I0403 15:42:29.975100 11035 net.cpp:91] Creating Layer inception_3b/relu_3x3
I0403 15:42:29.975116 11035 net.cpp:425] inception_3b/relu_3x3 <- inception_3b/3x3
I0403 15:42:29.975133 11035 net.cpp:386] inception_3b/relu_3x3 -> inception_3b/3x3 (in-place)
I0403 15:42:29.975404 11035 net.cpp:141] Setting up inception_3b/relu_3x3
I0403 15:42:29.975431 11035 net.cpp:148] Top shape: 24 192 28 28 (3612672)
I0403 15:42:29.975446 11035 net.cpp:156] Memory required for data: 724943904
I0403 15:42:29.975461 11035 layer_factory.hpp:77] Creating layer inception_3b/5x5_reduce
I0403 15:42:29.975481 11035 net.cpp:91] Creating Layer inception_3b/5x5_reduce
I0403 15:42:29.975497 11035 net.cpp:425] inception_3b/5x5_reduce <- inception_3a/output_inception_3a/output_0_split_2
I0403 15:42:29.975518 11035 net.cpp:399] inception_3b/5x5_reduce -> inception_3b/5x5_reduce
I0403 15:42:29.976475 11035 net.cpp:141] Setting up inception_3b/5x5_reduce
I0403 15:42:29.976501 11035 net.cpp:148] Top shape: 24 32 28 28 (602112)
I0403 15:42:29.976521 11035 net.cpp:156] Memory required for data: 727352352
I0403 15:42:29.976538 11035 layer_factory.hpp:77] Creating layer inception_3b/relu_5x5_reduce
I0403 15:42:29.976557 11035 net.cpp:91] Creating Layer inception_3b/relu_5x5_reduce
I0403 15:42:29.976572 11035 net.cpp:425] inception_3b/relu_5x5_reduce <- inception_3b/5x5_reduce
I0403 15:42:29.976588 11035 net.cpp:386] inception_3b/relu_5x5_reduce -> inception_3b/5x5_reduce (in-place)
I0403 15:42:29.976773 11035 net.cpp:141] Setting up inception_3b/relu_5x5_reduce
I0403 15:42:29.976800 11035 net.cpp:148] Top shape: 24 32 28 28 (602112)
I0403 15:42:29.976815 11035 net.cpp:156] Memory required for data: 729760800
I0403 15:42:29.976830 11035 layer_factory.hpp:77] Creating layer inception_3b/5x5
I0403 15:42:29.976851 11035 net.cpp:91] Creating Layer inception_3b/5x5
I0403 15:42:29.976867 11035 net.cpp:425] inception_3b/5x5 <- inception_3b/5x5_reduce
I0403 15:42:29.976886 11035 net.cpp:399] inception_3b/5x5 -> inception_3b/5x5
I0403 15:42:29.978833 11035 net.cpp:141] Setting up inception_3b/5x5
I0403 15:42:29.978862 11035 net.cpp:148] Top shape: 24 96 28 28 (1806336)
I0403 15:42:29.978878 11035 net.cpp:156] Memory required for data: 736986144
I0403 15:42:29.978909 11035 layer_factory.hpp:77] Creating layer inception_3b/relu_5x5
I0403 15:42:29.978931 11035 net.cpp:91] Creating Layer inception_3b/relu_5x5
I0403 15:42:29.978960 11035 net.cpp:425] inception_3b/relu_5x5 <- inception_3b/5x5
I0403 15:42:29.978981 11035 net.cpp:386] inception_3b/relu_5x5 -> inception_3b/5x5 (in-place)
I0403 15:42:29.979182 11035 net.cpp:141] Setting up inception_3b/relu_5x5
I0403 15:42:29.979220 11035 net.cpp:148] Top shape: 24 96 28 28 (1806336)
I0403 15:42:29.979235 11035 net.cpp:156] Memory required for data: 744211488
I0403 15:42:29.979250 11035 layer_factory.hpp:77] Creating layer inception_3b/pool
I0403 15:42:29.979269 11035 net.cpp:91] Creating Layer inception_3b/pool
I0403 15:42:29.979285 11035 net.cpp:425] inception_3b/pool <- inception_3a/output_inception_3a/output_0_split_3
I0403 15:42:29.979302 11035 net.cpp:399] inception_3b/pool -> inception_3b/pool
I0403 15:42:29.979357 11035 net.cpp:141] Setting up inception_3b/pool
I0403 15:42:29.979380 11035 net.cpp:148] Top shape: 24 256 28 28 (4816896)
I0403 15:42:29.979395 11035 net.cpp:156] Memory required for data: 763479072
I0403 15:42:29.979410 11035 layer_factory.hpp:77] Creating layer inception_3b/pool_proj
I0403 15:42:29.979432 11035 net.cpp:91] Creating Layer inception_3b/pool_proj
I0403 15:42:29.979450 11035 net.cpp:425] inception_3b/pool_proj <- inception_3b/pool
I0403 15:42:29.979471 11035 net.cpp:399] inception_3b/pool_proj -> inception_3b/pool_proj
I0403 15:42:29.980506 11035 net.cpp:141] Setting up inception_3b/pool_proj
I0403 15:42:29.980536 11035 net.cpp:148] Top shape: 24 64 28 28 (1204224)
I0403 15:42:29.980552 11035 net.cpp:156] Memory required for data: 768295968
I0403 15:42:29.980571 11035 layer_factory.hpp:77] Creating layer inception_3b/relu_pool_proj
I0403 15:42:29.980590 11035 net.cpp:91] Creating Layer inception_3b/relu_pool_proj
I0403 15:42:29.980607 11035 net.cpp:425] inception_3b/relu_pool_proj <- inception_3b/pool_proj
I0403 15:42:29.980626 11035 net.cpp:386] inception_3b/relu_pool_proj -> inception_3b/pool_proj (in-place)
I0403 15:42:29.981019 11035 net.cpp:141] Setting up inception_3b/relu_pool_proj
I0403 15:42:29.981046 11035 net.cpp:148] Top shape: 24 64 28 28 (1204224)
I0403 15:42:29.981062 11035 net.cpp:156] Memory required for data: 773112864
I0403 15:42:29.981077 11035 layer_factory.hpp:77] Creating layer inception_3b/output
I0403 15:42:29.981094 11035 net.cpp:91] Creating Layer inception_3b/output
I0403 15:42:29.981111 11035 net.cpp:425] inception_3b/output <- inception_3b/1x1
I0403 15:42:29.981127 11035 net.cpp:425] inception_3b/output <- inception_3b/3x3
I0403 15:42:29.981143 11035 net.cpp:425] inception_3b/output <- inception_3b/5x5
I0403 15:42:29.981159 11035 net.cpp:425] inception_3b/output <- inception_3b/pool_proj
I0403 15:42:29.981176 11035 net.cpp:399] inception_3b/output -> inception_3b/output
I0403 15:42:29.981220 11035 net.cpp:141] Setting up inception_3b/output
I0403 15:42:29.981242 11035 net.cpp:148] Top shape: 24 480 28 28 (9031680)
I0403 15:42:29.981256 11035 net.cpp:156] Memory required for data: 809239584
I0403 15:42:29.981271 11035 layer_factory.hpp:77] Creating layer pool3/3x3_s2
I0403 15:42:29.981290 11035 net.cpp:91] Creating Layer pool3/3x3_s2
I0403 15:42:29.981307 11035 net.cpp:425] pool3/3x3_s2 <- inception_3b/output
I0403 15:42:29.981339 11035 net.cpp:399] pool3/3x3_s2 -> pool3/3x3_s2
I0403 15:42:29.981398 11035 net.cpp:141] Setting up pool3/3x3_s2
I0403 15:42:29.981421 11035 net.cpp:148] Top shape: 24 480 14 14 (2257920)
I0403 15:42:29.981436 11035 net.cpp:156] Memory required for data: 818271264
I0403 15:42:29.981451 11035 layer_factory.hpp:77] Creating layer pool3/3x3_s2_pool3/3x3_s2_0_split
I0403 15:42:29.981467 11035 net.cpp:91] Creating Layer pool3/3x3_s2_pool3/3x3_s2_0_split
I0403 15:42:29.981482 11035 net.cpp:425] pool3/3x3_s2_pool3/3x3_s2_0_split <- pool3/3x3_s2
I0403 15:42:29.981501 11035 net.cpp:399] pool3/3x3_s2_pool3/3x3_s2_0_split -> pool3/3x3_s2_pool3/3x3_s2_0_split_0
I0403 15:42:29.981521 11035 net.cpp:399] pool3/3x3_s2_pool3/3x3_s2_0_split -> pool3/3x3_s2_pool3/3x3_s2_0_split_1
I0403 15:42:29.981540 11035 net.cpp:399] pool3/3x3_s2_pool3/3x3_s2_0_split -> pool3/3x3_s2_pool3/3x3_s2_0_split_2
I0403 15:42:29.981559 11035 net.cpp:399] pool3/3x3_s2_pool3/3x3_s2_0_split -> pool3/3x3_s2_pool3/3x3_s2_0_split_3
I0403 15:42:29.981636 11035 net.cpp:141] Setting up pool3/3x3_s2_pool3/3x3_s2_0_split
I0403 15:42:29.981660 11035 net.cpp:148] Top shape: 24 480 14 14 (2257920)
I0403 15:42:29.981676 11035 net.cpp:148] Top shape: 24 480 14 14 (2257920)
I0403 15:42:29.981693 11035 net.cpp:148] Top shape: 24 480 14 14 (2257920)
I0403 15:42:29.981708 11035 net.cpp:148] Top shape: 24 480 14 14 (2257920)
I0403 15:42:29.981721 11035 net.cpp:156] Memory required for data: 854397984
I0403 15:42:29.981735 11035 layer_factory.hpp:77] Creating layer inception_4a/1x1
I0403 15:42:29.981757 11035 net.cpp:91] Creating Layer inception_4a/1x1
I0403 15:42:29.981775 11035 net.cpp:425] inception_4a/1x1 <- pool3/3x3_s2_pool3/3x3_s2_0_split_0
I0403 15:42:29.981794 11035 net.cpp:399] inception_4a/1x1 -> inception_4a/1x1
I0403 15:42:29.983351 11035 net.cpp:141] Setting up inception_4a/1x1
I0403 15:42:29.983378 11035 net.cpp:148] Top shape: 24 192 14 14 (903168)
I0403 15:42:29.983395 11035 net.cpp:156] Memory required for data: 858010656
I0403 15:42:29.983412 11035 layer_factory.hpp:77] Creating layer inception_4a/relu_1x1
I0403 15:42:29.983431 11035 net.cpp:91] Creating Layer inception_4a/relu_1x1
I0403 15:42:29.983449 11035 net.cpp:425] inception_4a/relu_1x1 <- inception_4a/1x1
I0403 15:42:29.983467 11035 net.cpp:386] inception_4a/relu_1x1 -> inception_4a/1x1 (in-place)
I0403 15:42:29.983644 11035 net.cpp:141] Setting up inception_4a/relu_1x1
I0403 15:42:29.983669 11035 net.cpp:148] Top shape: 24 192 14 14 (903168)
I0403 15:42:29.983683 11035 net.cpp:156] Memory required for data: 861623328
I0403 15:42:29.983697 11035 layer_factory.hpp:77] Creating layer inception_4a/3x3_reduce
I0403 15:42:29.983719 11035 net.cpp:91] Creating Layer inception_4a/3x3_reduce
I0403 15:42:29.983736 11035 net.cpp:425] inception_4a/3x3_reduce <- pool3/3x3_s2_pool3/3x3_s2_0_split_1
I0403 15:42:29.983758 11035 net.cpp:399] inception_4a/3x3_reduce -> inception_4a/3x3_reduce
I0403 15:42:29.985013 11035 net.cpp:141] Setting up inception_4a/3x3_reduce
I0403 15:42:29.985040 11035 net.cpp:148] Top shape: 24 96 14 14 (451584)
I0403 15:42:29.985056 11035 net.cpp:156] Memory required for data: 863429664
I0403 15:42:29.985080 11035 layer_factory.hpp:77] Creating layer inception_4a/relu_3x3_reduce
I0403 15:42:29.985100 11035 net.cpp:91] Creating Layer inception_4a/relu_3x3_reduce
I0403 15:42:29.985117 11035 net.cpp:425] inception_4a/relu_3x3_reduce <- inception_4a/3x3_reduce
I0403 15:42:29.985136 11035 net.cpp:386] inception_4a/relu_3x3_reduce -> inception_4a/3x3_reduce (in-place)
I0403 15:42:29.985311 11035 net.cpp:141] Setting up inception_4a/relu_3x3_reduce
I0403 15:42:29.985334 11035 net.cpp:148] Top shape: 24 96 14 14 (451584)
I0403 15:42:29.985349 11035 net.cpp:156] Memory required for data: 865236000
I0403 15:42:29.985363 11035 layer_factory.hpp:77] Creating layer inception_4a/3x3
I0403 15:42:29.985386 11035 net.cpp:91] Creating Layer inception_4a/3x3
I0403 15:42:29.985404 11035 net.cpp:425] inception_4a/3x3 <- inception_4a/3x3_reduce
I0403 15:42:29.985424 11035 net.cpp:399] inception_4a/3x3 -> inception_4a/3x3
I0403 15:42:29.988121 11035 net.cpp:141] Setting up inception_4a/3x3
I0403 15:42:29.988149 11035 net.cpp:148] Top shape: 24 208 14 14 (978432)
I0403 15:42:29.988164 11035 net.cpp:156] Memory required for data: 869149728
I0403 15:42:29.988183 11035 layer_factory.hpp:77] Creating layer inception_4a/relu_3x3
I0403 15:42:29.988204 11035 net.cpp:91] Creating Layer inception_4a/relu_3x3
I0403 15:42:29.988220 11035 net.cpp:425] inception_4a/relu_3x3 <- inception_4a/3x3
I0403 15:42:29.988237 11035 net.cpp:386] inception_4a/relu_3x3 -> inception_4a/3x3 (in-place)
I0403 15:42:29.988509 11035 net.cpp:141] Setting up inception_4a/relu_3x3
I0403 15:42:29.988536 11035 net.cpp:148] Top shape: 24 208 14 14 (978432)
I0403 15:42:29.988551 11035 net.cpp:156] Memory required for data: 873063456
I0403 15:42:29.988566 11035 layer_factory.hpp:77] Creating layer inception_4a/5x5_reduce
I0403 15:42:29.988589 11035 net.cpp:91] Creating Layer inception_4a/5x5_reduce
I0403 15:42:29.988606 11035 net.cpp:425] inception_4a/5x5_reduce <- pool3/3x3_s2_pool3/3x3_s2_0_split_2
I0403 15:42:29.988626 11035 net.cpp:399] inception_4a/5x5_reduce -> inception_4a/5x5_reduce
I0403 15:42:29.989682 11035 net.cpp:141] Setting up inception_4a/5x5_reduce
I0403 15:42:29.989709 11035 net.cpp:148] Top shape: 24 16 14 14 (75264)
I0403 15:42:29.989724 11035 net.cpp:156] Memory required for data: 873364512
I0403 15:42:29.989743 11035 layer_factory.hpp:77] Creating layer inception_4a/relu_5x5_reduce
I0403 15:42:29.989763 11035 net.cpp:91] Creating Layer inception_4a/relu_5x5_reduce
I0403 15:42:29.989779 11035 net.cpp:425] inception_4a/relu_5x5_reduce <- inception_4a/5x5_reduce
I0403 15:42:29.989797 11035 net.cpp:386] inception_4a/relu_5x5_reduce -> inception_4a/5x5_reduce (in-place)
I0403 15:42:29.989977 11035 net.cpp:141] Setting up inception_4a/relu_5x5_reduce
I0403 15:42:29.990005 11035 net.cpp:148] Top shape: 24 16 14 14 (75264)
I0403 15:42:29.990020 11035 net.cpp:156] Memory required for data: 873665568
I0403 15:42:29.990034 11035 layer_factory.hpp:77] Creating layer inception_4a/5x5
I0403 15:42:29.990056 11035 net.cpp:91] Creating Layer inception_4a/5x5
I0403 15:42:29.990074 11035 net.cpp:425] inception_4a/5x5 <- inception_4a/5x5_reduce
I0403 15:42:29.990093 11035 net.cpp:399] inception_4a/5x5 -> inception_4a/5x5
I0403 15:42:29.991183 11035 net.cpp:141] Setting up inception_4a/5x5
I0403 15:42:29.991211 11035 net.cpp:148] Top shape: 24 48 14 14 (225792)
I0403 15:42:29.991227 11035 net.cpp:156] Memory required for data: 874568736
I0403 15:42:29.991245 11035 layer_factory.hpp:77] Creating layer inception_4a/relu_5x5
I0403 15:42:29.991263 11035 net.cpp:91] Creating Layer inception_4a/relu_5x5
I0403 15:42:29.991279 11035 net.cpp:425] inception_4a/relu_5x5 <- inception_4a/5x5
I0403 15:42:29.991298 11035 net.cpp:386] inception_4a/relu_5x5 -> inception_4a/5x5 (in-place)
I0403 15:42:29.991477 11035 net.cpp:141] Setting up inception_4a/relu_5x5
I0403 15:42:29.991502 11035 net.cpp:148] Top shape: 24 48 14 14 (225792)
I0403 15:42:29.991516 11035 net.cpp:156] Memory required for data: 875471904
I0403 15:42:29.991531 11035 layer_factory.hpp:77] Creating layer inception_4a/pool
I0403 15:42:29.991549 11035 net.cpp:91] Creating Layer inception_4a/pool
I0403 15:42:29.991569 11035 net.cpp:425] inception_4a/pool <- pool3/3x3_s2_pool3/3x3_s2_0_split_3
I0403 15:42:29.991585 11035 net.cpp:399] inception_4a/pool -> inception_4a/pool
I0403 15:42:29.991646 11035 net.cpp:141] Setting up inception_4a/pool
I0403 15:42:29.991668 11035 net.cpp:148] Top shape: 24 480 14 14 (2257920)
I0403 15:42:29.991683 11035 net.cpp:156] Memory required for data: 884503584
I0403 15:42:29.991698 11035 layer_factory.hpp:77] Creating layer inception_4a/pool_proj
I0403 15:42:29.991720 11035 net.cpp:91] Creating Layer inception_4a/pool_proj
I0403 15:42:29.991737 11035 net.cpp:425] inception_4a/pool_proj <- inception_4a/pool
I0403 15:42:29.991758 11035 net.cpp:399] inception_4a/pool_proj -> inception_4a/pool_proj
I0403 15:42:29.992931 11035 net.cpp:141] Setting up inception_4a/pool_proj
I0403 15:42:29.992962 11035 net.cpp:148] Top shape: 24 64 14 14 (301056)
I0403 15:42:29.992993 11035 net.cpp:156] Memory required for data: 885707808
I0403 15:42:29.993013 11035 layer_factory.hpp:77] Creating layer inception_4a/relu_pool_proj
I0403 15:42:29.993031 11035 net.cpp:91] Creating Layer inception_4a/relu_pool_proj
I0403 15:42:29.993048 11035 net.cpp:425] inception_4a/relu_pool_proj <- inception_4a/pool_proj
I0403 15:42:29.993069 11035 net.cpp:386] inception_4a/relu_pool_proj -> inception_4a/pool_proj (in-place)
I0403 15:42:29.993347 11035 net.cpp:141] Setting up inception_4a/relu_pool_proj
I0403 15:42:29.993373 11035 net.cpp:148] Top shape: 24 64 14 14 (301056)
I0403 15:42:29.993388 11035 net.cpp:156] Memory required for data: 886912032
I0403 15:42:29.993403 11035 layer_factory.hpp:77] Creating layer inception_4a/output
I0403 15:42:29.993422 11035 net.cpp:91] Creating Layer inception_4a/output
I0403 15:42:29.993437 11035 net.cpp:425] inception_4a/output <- inception_4a/1x1
I0403 15:42:29.993453 11035 net.cpp:425] inception_4a/output <- inception_4a/3x3
I0403 15:42:29.993469 11035 net.cpp:425] inception_4a/output <- inception_4a/5x5
I0403 15:42:29.993485 11035 net.cpp:425] inception_4a/output <- inception_4a/pool_proj
I0403 15:42:29.993513 11035 net.cpp:399] inception_4a/output -> inception_4a/output
I0403 15:42:29.993556 11035 net.cpp:141] Setting up inception_4a/output
I0403 15:42:29.993582 11035 net.cpp:148] Top shape: 24 512 14 14 (2408448)
I0403 15:42:29.993597 11035 net.cpp:156] Memory required for data: 896545824
I0403 15:42:29.993613 11035 layer_factory.hpp:77] Creating layer inception_4a/output_inception_4a/output_0_split
I0403 15:42:29.993630 11035 net.cpp:91] Creating Layer inception_4a/output_inception_4a/output_0_split
I0403 15:42:29.993646 11035 net.cpp:425] inception_4a/output_inception_4a/output_0_split <- inception_4a/output
I0403 15:42:29.993664 11035 net.cpp:399] inception_4a/output_inception_4a/output_0_split -> inception_4a/output_inception_4a/output_0_split_0
I0403 15:42:29.993686 11035 net.cpp:399] inception_4a/output_inception_4a/output_0_split -> inception_4a/output_inception_4a/output_0_split_1
I0403 15:42:29.993708 11035 net.cpp:399] inception_4a/output_inception_4a/output_0_split -> inception_4a/output_inception_4a/output_0_split_2
I0403 15:42:29.993728 11035 net.cpp:399] inception_4a/output_inception_4a/output_0_split -> inception_4a/output_inception_4a/output_0_split_3
I0403 15:42:29.993748 11035 net.cpp:399] inception_4a/output_inception_4a/output_0_split -> inception_4a/output_inception_4a/output_0_split_4
I0403 15:42:29.993842 11035 net.cpp:141] Setting up inception_4a/output_inception_4a/output_0_split
I0403 15:42:29.993865 11035 net.cpp:148] Top shape: 24 512 14 14 (2408448)
I0403 15:42:29.993882 11035 net.cpp:148] Top shape: 24 512 14 14 (2408448)
I0403 15:42:29.993901 11035 net.cpp:148] Top shape: 24 512 14 14 (2408448)
I0403 15:42:29.993916 11035 net.cpp:148] Top shape: 24 512 14 14 (2408448)
I0403 15:42:29.993932 11035 net.cpp:148] Top shape: 24 512 14 14 (2408448)
I0403 15:42:29.993949 11035 net.cpp:156] Memory required for data: 944714784
I0403 15:42:29.993965 11035 layer_factory.hpp:77] Creating layer loss1/ave_pool
I0403 15:42:29.993984 11035 net.cpp:91] Creating Layer loss1/ave_pool
I0403 15:42:29.994000 11035 net.cpp:425] loss1/ave_pool <- inception_4a/output_inception_4a/output_0_split_0
I0403 15:42:29.994019 11035 net.cpp:399] loss1/ave_pool -> loss1/ave_pool
I0403 15:42:29.994223 11035 net.cpp:141] Setting up loss1/ave_pool
I0403 15:42:29.994249 11035 net.cpp:148] Top shape: 24 512 4 4 (196608)
I0403 15:42:29.994264 11035 net.cpp:156] Memory required for data: 945501216
I0403 15:42:29.994279 11035 layer_factory.hpp:77] Creating layer loss1/conv
I0403 15:42:29.994302 11035 net.cpp:91] Creating Layer loss1/conv
I0403 15:42:29.994319 11035 net.cpp:425] loss1/conv <- loss1/ave_pool
I0403 15:42:29.994340 11035 net.cpp:399] loss1/conv -> loss1/conv
I0403 15:42:29.995772 11035 net.cpp:141] Setting up loss1/conv
I0403 15:42:29.995811 11035 net.cpp:148] Top shape: 24 128 4 4 (49152)
I0403 15:42:29.995841 11035 net.cpp:156] Memory required for data: 945697824
I0403 15:42:29.995860 11035 layer_factory.hpp:77] Creating layer loss1/relu_conv
I0403 15:42:29.995882 11035 net.cpp:91] Creating Layer loss1/relu_conv
I0403 15:42:29.995901 11035 net.cpp:425] loss1/relu_conv <- loss1/conv
I0403 15:42:29.995918 11035 net.cpp:386] loss1/relu_conv -> loss1/conv (in-place)
I0403 15:42:29.996189 11035 net.cpp:141] Setting up loss1/relu_conv
I0403 15:42:29.996225 11035 net.cpp:148] Top shape: 24 128 4 4 (49152)
I0403 15:42:29.996239 11035 net.cpp:156] Memory required for data: 945894432
I0403 15:42:29.996254 11035 layer_factory.hpp:77] Creating layer loss1/fc
I0403 15:42:29.996279 11035 net.cpp:91] Creating Layer loss1/fc
I0403 15:42:29.996296 11035 net.cpp:425] loss1/fc <- loss1/conv
I0403 15:42:29.996315 11035 net.cpp:399] loss1/fc -> loss1/fc
I0403 15:42:30.013741 11035 net.cpp:141] Setting up loss1/fc
I0403 15:42:30.013774 11035 net.cpp:148] Top shape: 24 1024 (24576)
I0403 15:42:30.013789 11035 net.cpp:156] Memory required for data: 945992736
I0403 15:42:30.013808 11035 layer_factory.hpp:77] Creating layer loss1/relu_fc
I0403 15:42:30.013825 11035 net.cpp:91] Creating Layer loss1/relu_fc
I0403 15:42:30.013841 11035 net.cpp:425] loss1/relu_fc <- loss1/fc
I0403 15:42:30.013864 11035 net.cpp:386] loss1/relu_fc -> loss1/fc (in-place)
I0403 15:42:30.014046 11035 net.cpp:141] Setting up loss1/relu_fc
I0403 15:42:30.014070 11035 net.cpp:148] Top shape: 24 1024 (24576)
I0403 15:42:30.014086 11035 net.cpp:156] Memory required for data: 946091040
I0403 15:42:30.014099 11035 layer_factory.hpp:77] Creating layer loss1/drop_fc
I0403 15:42:30.014127 11035 net.cpp:91] Creating Layer loss1/drop_fc
I0403 15:42:30.014143 11035 net.cpp:425] loss1/drop_fc <- loss1/fc
I0403 15:42:30.014160 11035 net.cpp:386] loss1/drop_fc -> loss1/fc (in-place)
I0403 15:42:30.014209 11035 net.cpp:141] Setting up loss1/drop_fc
I0403 15:42:30.014235 11035 net.cpp:148] Top shape: 24 1024 (24576)
I0403 15:42:30.014250 11035 net.cpp:156] Memory required for data: 946189344
I0403 15:42:30.014266 11035 layer_factory.hpp:77] Creating layer loss1/classifier_plantvillage
I0403 15:42:30.014283 11035 net.cpp:91] Creating Layer loss1/classifier_plantvillage
I0403 15:42:30.014298 11035 net.cpp:425] loss1/classifier_plantvillage <- loss1/fc
I0403 15:42:30.014317 11035 net.cpp:399] loss1/classifier_plantvillage -> loss1/classifier_plantvillage
I0403 15:42:30.015209 11035 net.cpp:141] Setting up loss1/classifier_plantvillage
I0403 15:42:30.015238 11035 net.cpp:148] Top shape: 24 38 (912)
I0403 15:42:30.015251 11035 net.cpp:156] Memory required for data: 946192992
I0403 15:42:30.015269 11035 layer_factory.hpp:77] Creating layer loss1/classifier_plantvillage_loss1/classifier_plantvillage_0_split
I0403 15:42:30.015288 11035 net.cpp:91] Creating Layer loss1/classifier_plantvillage_loss1/classifier_plantvillage_0_split
I0403 15:42:30.015305 11035 net.cpp:425] loss1/classifier_plantvillage_loss1/classifier_plantvillage_0_split <- loss1/classifier_plantvillage
I0403 15:42:30.015322 11035 net.cpp:399] loss1/classifier_plantvillage_loss1/classifier_plantvillage_0_split -> loss1/classifier_plantvillage_loss1/classifier_plantvillage_0_split_0
I0403 15:42:30.015342 11035 net.cpp:399] loss1/classifier_plantvillage_loss1/classifier_plantvillage_0_split -> loss1/classifier_plantvillage_loss1/classifier_plantvillage_0_split_1
I0403 15:42:30.015362 11035 net.cpp:399] loss1/classifier_plantvillage_loss1/classifier_plantvillage_0_split -> loss1/classifier_plantvillage_loss1/classifier_plantvillage_0_split_2
I0403 15:42:30.015424 11035 net.cpp:141] Setting up loss1/classifier_plantvillage_loss1/classifier_plantvillage_0_split
I0403 15:42:30.015449 11035 net.cpp:148] Top shape: 24 38 (912)
I0403 15:42:30.015465 11035 net.cpp:148] Top shape: 24 38 (912)
I0403 15:42:30.015480 11035 net.cpp:148] Top shape: 24 38 (912)
I0403 15:42:30.015493 11035 net.cpp:156] Memory required for data: 946203936
I0403 15:42:30.015507 11035 layer_factory.hpp:77] Creating layer inception_4b/1x1
I0403 15:42:30.015527 11035 net.cpp:91] Creating Layer inception_4b/1x1
I0403 15:42:30.015558 11035 net.cpp:425] inception_4b/1x1 <- inception_4a/output_inception_4a/output_0_split_1
I0403 15:42:30.015576 11035 net.cpp:399] inception_4b/1x1 -> inception_4b/1x1
I0403 15:42:30.017195 11035 net.cpp:141] Setting up inception_4b/1x1
I0403 15:42:30.017223 11035 net.cpp:148] Top shape: 24 160 14 14 (752640)
I0403 15:42:30.017240 11035 net.cpp:156] Memory required for data: 949214496
I0403 15:42:30.017257 11035 layer_factory.hpp:77] Creating layer inception_4b/relu_1x1
I0403 15:42:30.017277 11035 net.cpp:91] Creating Layer inception_4b/relu_1x1
I0403 15:42:30.017293 11035 net.cpp:425] inception_4b/relu_1x1 <- inception_4b/1x1
I0403 15:42:30.017310 11035 net.cpp:386] inception_4b/relu_1x1 -> inception_4b/1x1 (in-place)
I0403 15:42:30.017488 11035 net.cpp:141] Setting up inception_4b/relu_1x1
I0403 15:42:30.017514 11035 net.cpp:148] Top shape: 24 160 14 14 (752640)
I0403 15:42:30.017529 11035 net.cpp:156] Memory required for data: 952225056
I0403 15:42:30.017544 11035 layer_factory.hpp:77] Creating layer inception_4b/3x3_reduce
I0403 15:42:30.017565 11035 net.cpp:91] Creating Layer inception_4b/3x3_reduce
I0403 15:42:30.017582 11035 net.cpp:425] inception_4b/3x3_reduce <- inception_4a/output_inception_4a/output_0_split_2
I0403 15:42:30.017601 11035 net.cpp:399] inception_4b/3x3_reduce -> inception_4b/3x3_reduce
I0403 15:42:30.018905 11035 net.cpp:141] Setting up inception_4b/3x3_reduce
I0403 15:42:30.018934 11035 net.cpp:148] Top shape: 24 112 14 14 (526848)
I0403 15:42:30.018960 11035 net.cpp:156] Memory required for data: 954332448
I0403 15:42:30.018982 11035 layer_factory.hpp:77] Creating layer inception_4b/relu_3x3_reduce
I0403 15:42:30.019001 11035 net.cpp:91] Creating Layer inception_4b/relu_3x3_reduce
I0403 15:42:30.019016 11035 net.cpp:425] inception_4b/relu_3x3_reduce <- inception_4b/3x3_reduce
I0403 15:42:30.019035 11035 net.cpp:386] inception_4b/relu_3x3_reduce -> inception_4b/3x3_reduce (in-place)
I0403 15:42:30.019309 11035 net.cpp:141] Setting up inception_4b/relu_3x3_reduce
I0403 15:42:30.019337 11035 net.cpp:148] Top shape: 24 112 14 14 (526848)
I0403 15:42:30.019353 11035 net.cpp:156] Memory required for data: 956439840
I0403 15:42:30.019367 11035 layer_factory.hpp:77] Creating layer inception_4b/3x3
I0403 15:42:30.019389 11035 net.cpp:91] Creating Layer inception_4b/3x3
I0403 15:42:30.019407 11035 net.cpp:425] inception_4b/3x3 <- inception_4b/3x3_reduce
I0403 15:42:30.019425 11035 net.cpp:399] inception_4b/3x3 -> inception_4b/3x3
I0403 15:42:30.022330 11035 net.cpp:141] Setting up inception_4b/3x3
I0403 15:42:30.022361 11035 net.cpp:148] Top shape: 24 224 14 14 (1053696)
I0403 15:42:30.022375 11035 net.cpp:156] Memory required for data: 960654624
I0403 15:42:30.022394 11035 layer_factory.hpp:77] Creating layer inception_4b/relu_3x3
I0403 15:42:30.022415 11035 net.cpp:91] Creating Layer inception_4b/relu_3x3
I0403 15:42:30.022433 11035 net.cpp:425] inception_4b/relu_3x3 <- inception_4b/3x3
I0403 15:42:30.022450 11035 net.cpp:386] inception_4b/relu_3x3 -> inception_4b/3x3 (in-place)
I0403 15:42:30.022640 11035 net.cpp:141] Setting up inception_4b/relu_3x3
I0403 15:42:30.022665 11035 net.cpp:148] Top shape: 24 224 14 14 (1053696)
I0403 15:42:30.022680 11035 net.cpp:156] Memory required for data: 964869408
I0403 15:42:30.022693 11035 layer_factory.hpp:77] Creating layer inception_4b/5x5_reduce
I0403 15:42:30.022716 11035 net.cpp:91] Creating Layer inception_4b/5x5_reduce
I0403 15:42:30.022732 11035 net.cpp:425] inception_4b/5x5_reduce <- inception_4a/output_inception_4a/output_0_split_3
I0403 15:42:30.022754 11035 net.cpp:399] inception_4b/5x5_reduce -> inception_4b/5x5_reduce
I0403 15:42:30.023795 11035 net.cpp:141] Setting up inception_4b/5x5_reduce
I0403 15:42:30.023821 11035 net.cpp:148] Top shape: 24 24 14 14 (112896)
I0403 15:42:30.023838 11035 net.cpp:156] Memory required for data: 965320992
I0403 15:42:30.023854 11035 layer_factory.hpp:77] Creating layer inception_4b/relu_5x5_reduce
I0403 15:42:30.023875 11035 net.cpp:91] Creating Layer inception_4b/relu_5x5_reduce
I0403 15:42:30.023905 11035 net.cpp:425] inception_4b/relu_5x5_reduce <- inception_4b/5x5_reduce
I0403 15:42:30.023923 11035 net.cpp:386] inception_4b/relu_5x5_reduce -> inception_4b/5x5_reduce (in-place)
I0403 15:42:30.024103 11035 net.cpp:141] Setting up inception_4b/relu_5x5_reduce
I0403 15:42:30.024128 11035 net.cpp:148] Top shape: 24 24 14 14 (112896)
I0403 15:42:30.024144 11035 net.cpp:156] Memory required for data: 965772576
I0403 15:42:30.024158 11035 layer_factory.hpp:77] Creating layer inception_4b/5x5
I0403 15:42:30.024180 11035 net.cpp:91] Creating Layer inception_4b/5x5
I0403 15:42:30.024197 11035 net.cpp:425] inception_4b/5x5 <- inception_4b/5x5_reduce
I0403 15:42:30.024217 11035 net.cpp:399] inception_4b/5x5 -> inception_4b/5x5
I0403 15:42:30.025421 11035 net.cpp:141] Setting up inception_4b/5x5
I0403 15:42:30.025449 11035 net.cpp:148] Top shape: 24 64 14 14 (301056)
I0403 15:42:30.025465 11035 net.cpp:156] Memory required for data: 966976800
I0403 15:42:30.025483 11035 layer_factory.hpp:77] Creating layer inception_4b/relu_5x5
I0403 15:42:30.025503 11035 net.cpp:91] Creating Layer inception_4b/relu_5x5
I0403 15:42:30.025521 11035 net.cpp:425] inception_4b/relu_5x5 <- inception_4b/5x5
I0403 15:42:30.025537 11035 net.cpp:386] inception_4b/relu_5x5 -> inception_4b/5x5 (in-place)
I0403 15:42:30.025818 11035 net.cpp:141] Setting up inception_4b/relu_5x5
I0403 15:42:30.025845 11035 net.cpp:148] Top shape: 24 64 14 14 (301056)
I0403 15:42:30.025861 11035 net.cpp:156] Memory required for data: 968181024
I0403 15:42:30.025874 11035 layer_factory.hpp:77] Creating layer inception_4b/pool
I0403 15:42:30.025894 11035 net.cpp:91] Creating Layer inception_4b/pool
I0403 15:42:30.025912 11035 net.cpp:425] inception_4b/pool <- inception_4a/output_inception_4a/output_0_split_4
I0403 15:42:30.025929 11035 net.cpp:399] inception_4b/pool -> inception_4b/pool
I0403 15:42:30.025997 11035 net.cpp:141] Setting up inception_4b/pool
I0403 15:42:30.026021 11035 net.cpp:148] Top shape: 24 512 14 14 (2408448)
I0403 15:42:30.026036 11035 net.cpp:156] Memory required for data: 977814816
I0403 15:42:30.026051 11035 layer_factory.hpp:77] Creating layer inception_4b/pool_proj
I0403 15:42:30.026072 11035 net.cpp:91] Creating Layer inception_4b/pool_proj
I0403 15:42:30.026089 11035 net.cpp:425] inception_4b/pool_proj <- inception_4b/pool
I0403 15:42:30.026110 11035 net.cpp:399] inception_4b/pool_proj -> inception_4b/pool_proj
I0403 15:42:30.027297 11035 net.cpp:141] Setting up inception_4b/pool_proj
I0403 15:42:30.027328 11035 net.cpp:148] Top shape: 24 64 14 14 (301056)
I0403 15:42:30.027344 11035 net.cpp:156] Memory required for data: 979019040
I0403 15:42:30.027364 11035 layer_factory.hpp:77] Creating layer inception_4b/relu_pool_proj
I0403 15:42:30.027381 11035 net.cpp:91] Creating Layer inception_4b/relu_pool_proj
I0403 15:42:30.027398 11035 net.cpp:425] inception_4b/relu_pool_proj <- inception_4b/pool_proj
I0403 15:42:30.027415 11035 net.cpp:386] inception_4b/relu_pool_proj -> inception_4b/pool_proj (in-place)
I0403 15:42:30.027596 11035 net.cpp:141] Setting up inception_4b/relu_pool_proj
I0403 15:42:30.027623 11035 net.cpp:148] Top shape: 24 64 14 14 (301056)
I0403 15:42:30.027639 11035 net.cpp:156] Memory required for data: 980223264
I0403 15:42:30.027654 11035 layer_factory.hpp:77] Creating layer inception_4b/output
I0403 15:42:30.027672 11035 net.cpp:91] Creating Layer inception_4b/output
I0403 15:42:30.027688 11035 net.cpp:425] inception_4b/output <- inception_4b/1x1
I0403 15:42:30.027704 11035 net.cpp:425] inception_4b/output <- inception_4b/3x3
I0403 15:42:30.027721 11035 net.cpp:425] inception_4b/output <- inception_4b/5x5
I0403 15:42:30.027737 11035 net.cpp:425] inception_4b/output <- inception_4b/pool_proj
I0403 15:42:30.027756 11035 net.cpp:399] inception_4b/output -> inception_4b/output
I0403 15:42:30.027801 11035 net.cpp:141] Setting up inception_4b/output
I0403 15:42:30.027824 11035 net.cpp:148] Top shape: 24 512 14 14 (2408448)
I0403 15:42:30.027839 11035 net.cpp:156] Memory required for data: 989857056
I0403 15:42:30.027868 11035 layer_factory.hpp:77] Creating layer inception_4b/output_inception_4b/output_0_split
I0403 15:42:30.027889 11035 net.cpp:91] Creating Layer inception_4b/output_inception_4b/output_0_split
I0403 15:42:30.027906 11035 net.cpp:425] inception_4b/output_inception_4b/output_0_split <- inception_4b/output
I0403 15:42:30.027923 11035 net.cpp:399] inception_4b/output_inception_4b/output_0_split -> inception_4b/output_inception_4b/output_0_split_0
I0403 15:42:30.027945 11035 net.cpp:399] inception_4b/output_inception_4b/output_0_split -> inception_4b/output_inception_4b/output_0_split_1
I0403 15:42:30.027973 11035 net.cpp:399] inception_4b/output_inception_4b/output_0_split -> inception_4b/output_inception_4b/output_0_split_2
I0403 15:42:30.027993 11035 net.cpp:399] inception_4b/output_inception_4b/output_0_split -> inception_4b/output_inception_4b/output_0_split_3
I0403 15:42:30.028077 11035 net.cpp:141] Setting up inception_4b/output_inception_4b/output_0_split
I0403 15:42:30.028100 11035 net.cpp:148] Top shape: 24 512 14 14 (2408448)
I0403 15:42:30.028116 11035 net.cpp:148] Top shape: 24 512 14 14 (2408448)
I0403 15:42:30.028132 11035 net.cpp:148] Top shape: 24 512 14 14 (2408448)
I0403 15:42:30.028147 11035 net.cpp:148] Top shape: 24 512 14 14 (2408448)
I0403 15:42:30.028162 11035 net.cpp:156] Memory required for data: 1028392224
I0403 15:42:30.028177 11035 layer_factory.hpp:77] Creating layer inception_4c/1x1
I0403 15:42:30.028198 11035 net.cpp:91] Creating Layer inception_4c/1x1
I0403 15:42:30.028215 11035 net.cpp:425] inception_4c/1x1 <- inception_4b/output_inception_4b/output_0_split_0
I0403 15:42:30.028235 11035 net.cpp:399] inception_4c/1x1 -> inception_4c/1x1
I0403 15:42:30.029657 11035 net.cpp:141] Setting up inception_4c/1x1
I0403 15:42:30.029688 11035 net.cpp:148] Top shape: 24 128 14 14 (602112)
I0403 15:42:30.029706 11035 net.cpp:156] Memory required for data: 1030800672
I0403 15:42:30.029724 11035 layer_factory.hpp:77] Creating layer inception_4c/relu_1x1
I0403 15:42:30.029742 11035 net.cpp:91] Creating Layer inception_4c/relu_1x1
I0403 15:42:30.029759 11035 net.cpp:425] inception_4c/relu_1x1 <- inception_4c/1x1
I0403 15:42:30.029779 11035 net.cpp:386] inception_4c/relu_1x1 -> inception_4c/1x1 (in-place)
I0403 15:42:30.029964 11035 net.cpp:141] Setting up inception_4c/relu_1x1
I0403 15:42:30.029989 11035 net.cpp:148] Top shape: 24 128 14 14 (602112)
I0403 15:42:30.030004 11035 net.cpp:156] Memory required for data: 1033209120
I0403 15:42:30.030020 11035 layer_factory.hpp:77] Creating layer inception_4c/3x3_reduce
I0403 15:42:30.030042 11035 net.cpp:91] Creating Layer inception_4c/3x3_reduce
I0403 15:42:30.030061 11035 net.cpp:425] inception_4c/3x3_reduce <- inception_4b/output_inception_4b/output_0_split_1
I0403 15:42:30.030081 11035 net.cpp:399] inception_4c/3x3_reduce -> inception_4c/3x3_reduce
I0403 15:42:30.032019 11035 net.cpp:141] Setting up inception_4c/3x3_reduce
I0403 15:42:30.032048 11035 net.cpp:148] Top shape: 24 128 14 14 (602112)
I0403 15:42:30.032064 11035 net.cpp:156] Memory required for data: 1035617568
I0403 15:42:30.032083 11035 layer_factory.hpp:77] Creating layer inception_4c/relu_3x3_reduce
I0403 15:42:30.032102 11035 net.cpp:91] Creating Layer inception_4c/relu_3x3_reduce
I0403 15:42:30.032119 11035 net.cpp:425] inception_4c/relu_3x3_reduce <- inception_4c/3x3_reduce
I0403 15:42:30.032137 11035 net.cpp:386] inception_4c/relu_3x3_reduce -> inception_4c/3x3_reduce (in-place)
I0403 15:42:30.032419 11035 net.cpp:141] Setting up inception_4c/relu_3x3_reduce
I0403 15:42:30.032445 11035 net.cpp:148] Top shape: 24 128 14 14 (602112)
I0403 15:42:30.032460 11035 net.cpp:156] Memory required for data: 1038026016
I0403 15:42:30.032475 11035 layer_factory.hpp:77] Creating layer inception_4c/3x3
I0403 15:42:30.032500 11035 net.cpp:91] Creating Layer inception_4c/3x3
I0403 15:42:30.032517 11035 net.cpp:425] inception_4c/3x3 <- inception_4c/3x3_reduce
I0403 15:42:30.032539 11035 net.cpp:399] inception_4c/3x3 -> inception_4c/3x3
I0403 15:42:30.036157 11035 net.cpp:141] Setting up inception_4c/3x3
I0403 15:42:30.036198 11035 net.cpp:148] Top shape: 24 256 14 14 (1204224)
I0403 15:42:30.036216 11035 net.cpp:156] Memory required for data: 1042842912
I0403 15:42:30.036247 11035 layer_factory.hpp:77] Creating layer inception_4c/relu_3x3
I0403 15:42:30.036268 11035 net.cpp:91] Creating Layer inception_4c/relu_3x3
I0403 15:42:30.036285 11035 net.cpp:425] inception_4c/relu_3x3 <- inception_4c/3x3
I0403 15:42:30.036301 11035 net.cpp:386] inception_4c/relu_3x3 -> inception_4c/3x3 (in-place)
I0403 15:42:30.036486 11035 net.cpp:141] Setting up inception_4c/relu_3x3
I0403 15:42:30.036511 11035 net.cpp:148] Top shape: 24 256 14 14 (1204224)
I0403 15:42:30.036526 11035 net.cpp:156] Memory required for data: 1047659808
I0403 15:42:30.036541 11035 layer_factory.hpp:77] Creating layer inception_4c/5x5_reduce
I0403 15:42:30.036566 11035 net.cpp:91] Creating Layer inception_4c/5x5_reduce
I0403 15:42:30.036583 11035 net.cpp:425] inception_4c/5x5_reduce <- inception_4b/output_inception_4b/output_0_split_2
I0403 15:42:30.036603 11035 net.cpp:399] inception_4c/5x5_reduce -> inception_4c/5x5_reduce
I0403 15:42:30.037684 11035 net.cpp:141] Setting up inception_4c/5x5_reduce
I0403 15:42:30.037711 11035 net.cpp:148] Top shape: 24 24 14 14 (112896)
I0403 15:42:30.037727 11035 net.cpp:156] Memory required for data: 1048111392
I0403 15:42:30.037746 11035 layer_factory.hpp:77] Creating layer inception_4c/relu_5x5_reduce
I0403 15:42:30.037766 11035 net.cpp:91] Creating Layer inception_4c/relu_5x5_reduce
I0403 15:42:30.037783 11035 net.cpp:425] inception_4c/relu_5x5_reduce <- inception_4c/5x5_reduce
I0403 15:42:30.037801 11035 net.cpp:386] inception_4c/relu_5x5_reduce -> inception_4c/5x5_reduce (in-place)
I0403 15:42:30.037987 11035 net.cpp:141] Setting up inception_4c/relu_5x5_reduce
I0403 15:42:30.038013 11035 net.cpp:148] Top shape: 24 24 14 14 (112896)
I0403 15:42:30.038028 11035 net.cpp:156] Memory required for data: 1048562976
I0403 15:42:30.038043 11035 layer_factory.hpp:77] Creating layer inception_4c/5x5
I0403 15:42:30.038065 11035 net.cpp:91] Creating Layer inception_4c/5x5
I0403 15:42:30.038082 11035 net.cpp:425] inception_4c/5x5 <- inception_4c/5x5_reduce
I0403 15:42:30.038103 11035 net.cpp:399] inception_4c/5x5 -> inception_4c/5x5
I0403 15:42:30.039346 11035 net.cpp:141] Setting up inception_4c/5x5
I0403 15:42:30.039376 11035 net.cpp:148] Top shape: 24 64 14 14 (301056)
I0403 15:42:30.039392 11035 net.cpp:156] Memory required for data: 1049767200
I0403 15:42:30.039410 11035 layer_factory.hpp:77] Creating layer inception_4c/relu_5x5
I0403 15:42:30.039428 11035 net.cpp:91] Creating Layer inception_4c/relu_5x5
I0403 15:42:30.039444 11035 net.cpp:425] inception_4c/relu_5x5 <- inception_4c/5x5
I0403 15:42:30.039463 11035 net.cpp:386] inception_4c/relu_5x5 -> inception_4c/5x5 (in-place)
I0403 15:42:30.039755 11035 net.cpp:141] Setting up inception_4c/relu_5x5
I0403 15:42:30.039784 11035 net.cpp:148] Top shape: 24 64 14 14 (301056)
I0403 15:42:30.039799 11035 net.cpp:156] Memory required for data: 1050971424
I0403 15:42:30.039814 11035 layer_factory.hpp:77] Creating layer inception_4c/pool
I0403 15:42:30.039831 11035 net.cpp:91] Creating Layer inception_4c/pool
I0403 15:42:30.039847 11035 net.cpp:425] inception_4c/pool <- inception_4b/output_inception_4b/output_0_split_3
I0403 15:42:30.039868 11035 net.cpp:399] inception_4c/pool -> inception_4c/pool
I0403 15:42:30.039932 11035 net.cpp:141] Setting up inception_4c/pool
I0403 15:42:30.039963 11035 net.cpp:148] Top shape: 24 512 14 14 (2408448)
I0403 15:42:30.039979 11035 net.cpp:156] Memory required for data: 1060605216
I0403 15:42:30.039994 11035 layer_factory.hpp:77] Creating layer inception_4c/pool_proj
I0403 15:42:30.040014 11035 net.cpp:91] Creating Layer inception_4c/pool_proj
I0403 15:42:30.040030 11035 net.cpp:425] inception_4c/pool_proj <- inception_4c/pool
I0403 15:42:30.040051 11035 net.cpp:399] inception_4c/pool_proj -> inception_4c/pool_proj
I0403 15:42:30.041271 11035 net.cpp:141] Setting up inception_4c/pool_proj
I0403 15:42:30.041298 11035 net.cpp:148] Top shape: 24 64 14 14 (301056)
I0403 15:42:30.041327 11035 net.cpp:156] Memory required for data: 1061809440
I0403 15:42:30.041347 11035 layer_factory.hpp:77] Creating layer inception_4c/relu_pool_proj
I0403 15:42:30.041369 11035 net.cpp:91] Creating Layer inception_4c/relu_pool_proj
I0403 15:42:30.041386 11035 net.cpp:425] inception_4c/relu_pool_proj <- inception_4c/pool_proj
I0403 15:42:30.041404 11035 net.cpp:386] inception_4c/relu_pool_proj -> inception_4c/pool_proj (in-place)
I0403 15:42:30.041585 11035 net.cpp:141] Setting up inception_4c/relu_pool_proj
I0403 15:42:30.041612 11035 net.cpp:148] Top shape: 24 64 14 14 (301056)
I0403 15:42:30.041630 11035 net.cpp:156] Memory required for data: 1063013664
I0403 15:42:30.041645 11035 layer_factory.hpp:77] Creating layer inception_4c/output
I0403 15:42:30.041661 11035 net.cpp:91] Creating Layer inception_4c/output
I0403 15:42:30.041676 11035 net.cpp:425] inception_4c/output <- inception_4c/1x1
I0403 15:42:30.041693 11035 net.cpp:425] inception_4c/output <- inception_4c/3x3
I0403 15:42:30.041708 11035 net.cpp:425] inception_4c/output <- inception_4c/5x5
I0403 15:42:30.041724 11035 net.cpp:425] inception_4c/output <- inception_4c/pool_proj
I0403 15:42:30.041743 11035 net.cpp:399] inception_4c/output -> inception_4c/output
I0403 15:42:30.041790 11035 net.cpp:141] Setting up inception_4c/output
I0403 15:42:30.041812 11035 net.cpp:148] Top shape: 24 512 14 14 (2408448)
I0403 15:42:30.041827 11035 net.cpp:156] Memory required for data: 1072647456
I0403 15:42:30.041841 11035 layer_factory.hpp:77] Creating layer inception_4c/output_inception_4c/output_0_split
I0403 15:42:30.041862 11035 net.cpp:91] Creating Layer inception_4c/output_inception_4c/output_0_split
I0403 15:42:30.041877 11035 net.cpp:425] inception_4c/output_inception_4c/output_0_split <- inception_4c/output
I0403 15:42:30.041895 11035 net.cpp:399] inception_4c/output_inception_4c/output_0_split -> inception_4c/output_inception_4c/output_0_split_0
I0403 15:42:30.041916 11035 net.cpp:399] inception_4c/output_inception_4c/output_0_split -> inception_4c/output_inception_4c/output_0_split_1
I0403 15:42:30.041939 11035 net.cpp:399] inception_4c/output_inception_4c/output_0_split -> inception_4c/output_inception_4c/output_0_split_2
I0403 15:42:30.041965 11035 net.cpp:399] inception_4c/output_inception_4c/output_0_split -> inception_4c/output_inception_4c/output_0_split_3
I0403 15:42:30.042050 11035 net.cpp:141] Setting up inception_4c/output_inception_4c/output_0_split
I0403 15:42:30.042073 11035 net.cpp:148] Top shape: 24 512 14 14 (2408448)
I0403 15:42:30.042090 11035 net.cpp:148] Top shape: 24 512 14 14 (2408448)
I0403 15:42:30.042106 11035 net.cpp:148] Top shape: 24 512 14 14 (2408448)
I0403 15:42:30.042121 11035 net.cpp:148] Top shape: 24 512 14 14 (2408448)
I0403 15:42:30.042135 11035 net.cpp:156] Memory required for data: 1111182624
I0403 15:42:30.042148 11035 layer_factory.hpp:77] Creating layer inception_4d/1x1
I0403 15:42:30.042171 11035 net.cpp:91] Creating Layer inception_4d/1x1
I0403 15:42:30.042187 11035 net.cpp:425] inception_4d/1x1 <- inception_4c/output_inception_4c/output_0_split_0
I0403 15:42:30.042210 11035 net.cpp:399] inception_4d/1x1 -> inception_4d/1x1
I0403 15:42:30.043570 11035 net.cpp:141] Setting up inception_4d/1x1
I0403 15:42:30.043597 11035 net.cpp:148] Top shape: 24 112 14 14 (526848)
I0403 15:42:30.043612 11035 net.cpp:156] Memory required for data: 1113290016
I0403 15:42:30.043630 11035 layer_factory.hpp:77] Creating layer inception_4d/relu_1x1
I0403 15:42:30.043649 11035 net.cpp:91] Creating Layer inception_4d/relu_1x1
I0403 15:42:30.043666 11035 net.cpp:425] inception_4d/relu_1x1 <- inception_4d/1x1
I0403 15:42:30.043684 11035 net.cpp:386] inception_4d/relu_1x1 -> inception_4d/1x1 (in-place)
I0403 15:42:30.043864 11035 net.cpp:141] Setting up inception_4d/relu_1x1
I0403 15:42:30.043889 11035 net.cpp:148] Top shape: 24 112 14 14 (526848)
I0403 15:42:30.043902 11035 net.cpp:156] Memory required for data: 1115397408
I0403 15:42:30.043916 11035 layer_factory.hpp:77] Creating layer inception_4d/3x3_reduce
I0403 15:42:30.043956 11035 net.cpp:91] Creating Layer inception_4d/3x3_reduce
I0403 15:42:30.043977 11035 net.cpp:425] inception_4d/3x3_reduce <- inception_4c/output_inception_4c/output_0_split_1
I0403 15:42:30.043995 11035 net.cpp:399] inception_4d/3x3_reduce -> inception_4d/3x3_reduce
I0403 15:42:30.045459 11035 net.cpp:141] Setting up inception_4d/3x3_reduce
I0403 15:42:30.045485 11035 net.cpp:148] Top shape: 24 144 14 14 (677376)
I0403 15:42:30.045501 11035 net.cpp:156] Memory required for data: 1118106912
I0403 15:42:30.045519 11035 layer_factory.hpp:77] Creating layer inception_4d/relu_3x3_reduce
I0403 15:42:30.045536 11035 net.cpp:91] Creating Layer inception_4d/relu_3x3_reduce
I0403 15:42:30.045552 11035 net.cpp:425] inception_4d/relu_3x3_reduce <- inception_4d/3x3_reduce
I0403 15:42:30.045572 11035 net.cpp:386] inception_4d/relu_3x3_reduce -> inception_4d/3x3_reduce (in-place)
I0403 15:42:30.045850 11035 net.cpp:141] Setting up inception_4d/relu_3x3_reduce
I0403 15:42:30.045876 11035 net.cpp:148] Top shape: 24 144 14 14 (677376)
I0403 15:42:30.045889 11035 net.cpp:156] Memory required for data: 1120816416
I0403 15:42:30.045904 11035 layer_factory.hpp:77] Creating layer inception_4d/3x3
I0403 15:42:30.045927 11035 net.cpp:91] Creating Layer inception_4d/3x3
I0403 15:42:30.045943 11035 net.cpp:425] inception_4d/3x3 <- inception_4d/3x3_reduce
I0403 15:42:30.045969 11035 net.cpp:399] inception_4d/3x3 -> inception_4d/3x3
I0403 15:42:30.050125 11035 net.cpp:141] Setting up inception_4d/3x3
I0403 15:42:30.050153 11035 net.cpp:148] Top shape: 24 288 14 14 (1354752)
I0403 15:42:30.050168 11035 net.cpp:156] Memory required for data: 1126235424
I0403 15:42:30.050187 11035 layer_factory.hpp:77] Creating layer inception_4d/relu_3x3
I0403 15:42:30.050209 11035 net.cpp:91] Creating Layer inception_4d/relu_3x3
I0403 15:42:30.050226 11035 net.cpp:425] inception_4d/relu_3x3 <- inception_4d/3x3
I0403 15:42:30.050243 11035 net.cpp:386] inception_4d/relu_3x3 -> inception_4d/3x3 (in-place)
I0403 15:42:30.050420 11035 net.cpp:141] Setting up inception_4d/relu_3x3
I0403 15:42:30.050446 11035 net.cpp:148] Top shape: 24 288 14 14 (1354752)
I0403 15:42:30.050462 11035 net.cpp:156] Memory required for data: 1131654432
I0403 15:42:30.050477 11035 layer_factory.hpp:77] Creating layer inception_4d/5x5_reduce
I0403 15:42:30.050498 11035 net.cpp:91] Creating Layer inception_4d/5x5_reduce
I0403 15:42:30.050515 11035 net.cpp:425] inception_4d/5x5_reduce <- inception_4c/output_inception_4c/output_0_split_2
I0403 15:42:30.050534 11035 net.cpp:399] inception_4d/5x5_reduce -> inception_4d/5x5_reduce
I0403 15:42:30.051656 11035 net.cpp:141] Setting up inception_4d/5x5_reduce
I0403 15:42:30.051682 11035 net.cpp:148] Top shape: 24 32 14 14 (150528)
I0403 15:42:30.051698 11035 net.cpp:156] Memory required for data: 1132256544
I0403 15:42:30.051717 11035 layer_factory.hpp:77] Creating layer inception_4d/relu_5x5_reduce
I0403 15:42:30.051735 11035 net.cpp:91] Creating Layer inception_4d/relu_5x5_reduce
I0403 15:42:30.051753 11035 net.cpp:425] inception_4d/relu_5x5_reduce <- inception_4d/5x5_reduce
I0403 15:42:30.051769 11035 net.cpp:386] inception_4d/relu_5x5_reduce -> inception_4d/5x5_reduce (in-place)
I0403 15:42:30.051954 11035 net.cpp:141] Setting up inception_4d/relu_5x5_reduce
I0403 15:42:30.051980 11035 net.cpp:148] Top shape: 24 32 14 14 (150528)
I0403 15:42:30.051993 11035 net.cpp:156] Memory required for data: 1132858656
I0403 15:42:30.052007 11035 layer_factory.hpp:77] Creating layer inception_4d/5x5
I0403 15:42:30.052031 11035 net.cpp:91] Creating Layer inception_4d/5x5
I0403 15:42:30.052048 11035 net.cpp:425] inception_4d/5x5 <- inception_4d/5x5_reduce
I0403 15:42:30.052067 11035 net.cpp:399] inception_4d/5x5 -> inception_4d/5x5
I0403 15:42:30.053500 11035 net.cpp:141] Setting up inception_4d/5x5
I0403 15:42:30.053529 11035 net.cpp:148] Top shape: 24 64 14 14 (301056)
I0403 15:42:30.053544 11035 net.cpp:156] Memory required for data: 1134062880
I0403 15:42:30.053563 11035 layer_factory.hpp:77] Creating layer inception_4d/relu_5x5
I0403 15:42:30.053596 11035 net.cpp:91] Creating Layer inception_4d/relu_5x5
I0403 15:42:30.053612 11035 net.cpp:425] inception_4d/relu_5x5 <- inception_4d/5x5
I0403 15:42:30.053632 11035 net.cpp:386] inception_4d/relu_5x5 -> inception_4d/5x5 (in-place)
I0403 15:42:30.053920 11035 net.cpp:141] Setting up inception_4d/relu_5x5
I0403 15:42:30.053951 11035 net.cpp:148] Top shape: 24 64 14 14 (301056)
I0403 15:42:30.053968 11035 net.cpp:156] Memory required for data: 1135267104
I0403 15:42:30.053983 11035 layer_factory.hpp:77] Creating layer inception_4d/pool
I0403 15:42:30.054000 11035 net.cpp:91] Creating Layer inception_4d/pool
I0403 15:42:30.054016 11035 net.cpp:425] inception_4d/pool <- inception_4c/output_inception_4c/output_0_split_3
I0403 15:42:30.054038 11035 net.cpp:399] inception_4d/pool -> inception_4d/pool
I0403 15:42:30.054102 11035 net.cpp:141] Setting up inception_4d/pool
I0403 15:42:30.054126 11035 net.cpp:148] Top shape: 24 512 14 14 (2408448)
I0403 15:42:30.054139 11035 net.cpp:156] Memory required for data: 1144900896
I0403 15:42:30.054153 11035 layer_factory.hpp:77] Creating layer inception_4d/pool_proj
I0403 15:42:30.054175 11035 net.cpp:91] Creating Layer inception_4d/pool_proj
I0403 15:42:30.054191 11035 net.cpp:425] inception_4d/pool_proj <- inception_4d/pool
I0403 15:42:30.054216 11035 net.cpp:399] inception_4d/pool_proj -> inception_4d/pool_proj
I0403 15:42:30.055939 11035 net.cpp:141] Setting up inception_4d/pool_proj
I0403 15:42:30.055971 11035 net.cpp:148] Top shape: 24 64 14 14 (301056)
I0403 15:42:30.055986 11035 net.cpp:156] Memory required for data: 1146105120
I0403 15:42:30.056005 11035 layer_factory.hpp:77] Creating layer inception_4d/relu_pool_proj
I0403 15:42:30.056026 11035 net.cpp:91] Creating Layer inception_4d/relu_pool_proj
I0403 15:42:30.056042 11035 net.cpp:425] inception_4d/relu_pool_proj <- inception_4d/pool_proj
I0403 15:42:30.056059 11035 net.cpp:386] inception_4d/relu_pool_proj -> inception_4d/pool_proj (in-place)
I0403 15:42:30.056237 11035 net.cpp:141] Setting up inception_4d/relu_pool_proj
I0403 15:42:30.056264 11035 net.cpp:148] Top shape: 24 64 14 14 (301056)
I0403 15:42:30.056278 11035 net.cpp:156] Memory required for data: 1147309344
I0403 15:42:30.056293 11035 layer_factory.hpp:77] Creating layer inception_4d/output
I0403 15:42:30.056309 11035 net.cpp:91] Creating Layer inception_4d/output
I0403 15:42:30.056325 11035 net.cpp:425] inception_4d/output <- inception_4d/1x1
I0403 15:42:30.056341 11035 net.cpp:425] inception_4d/output <- inception_4d/3x3
I0403 15:42:30.056357 11035 net.cpp:425] inception_4d/output <- inception_4d/5x5
I0403 15:42:30.056373 11035 net.cpp:425] inception_4d/output <- inception_4d/pool_proj
I0403 15:42:30.056390 11035 net.cpp:399] inception_4d/output -> inception_4d/output
I0403 15:42:30.056437 11035 net.cpp:141] Setting up inception_4d/output
I0403 15:42:30.056459 11035 net.cpp:148] Top shape: 24 528 14 14 (2483712)
I0403 15:42:30.056473 11035 net.cpp:156] Memory required for data: 1157244192
I0403 15:42:30.056488 11035 layer_factory.hpp:77] Creating layer inception_4d/output_inception_4d/output_0_split
I0403 15:42:30.056506 11035 net.cpp:91] Creating Layer inception_4d/output_inception_4d/output_0_split
I0403 15:42:30.056522 11035 net.cpp:425] inception_4d/output_inception_4d/output_0_split <- inception_4d/output
I0403 15:42:30.056540 11035 net.cpp:399] inception_4d/output_inception_4d/output_0_split -> inception_4d/output_inception_4d/output_0_split_0
I0403 15:42:30.056560 11035 net.cpp:399] inception_4d/output_inception_4d/output_0_split -> inception_4d/output_inception_4d/output_0_split_1
I0403 15:42:30.056581 11035 net.cpp:399] inception_4d/output_inception_4d/output_0_split -> inception_4d/output_inception_4d/output_0_split_2
I0403 15:42:30.056601 11035 net.cpp:399] inception_4d/output_inception_4d/output_0_split -> inception_4d/output_inception_4d/output_0_split_3
I0403 15:42:30.056622 11035 net.cpp:399] inception_4d/output_inception_4d/output_0_split -> inception_4d/output_inception_4d/output_0_split_4
I0403 15:42:30.056723 11035 net.cpp:141] Setting up inception_4d/output_inception_4d/output_0_split
I0403 15:42:30.056757 11035 net.cpp:148] Top shape: 24 528 14 14 (2483712)
I0403 15:42:30.056773 11035 net.cpp:148] Top shape: 24 528 14 14 (2483712)
I0403 15:42:30.056788 11035 net.cpp:148] Top shape: 24 528 14 14 (2483712)
I0403 15:42:30.056803 11035 net.cpp:148] Top shape: 24 528 14 14 (2483712)
I0403 15:42:30.056818 11035 net.cpp:148] Top shape: 24 528 14 14 (2483712)
I0403 15:42:30.056831 11035 net.cpp:156] Memory required for data: 1206918432
I0403 15:42:30.056845 11035 layer_factory.hpp:77] Creating layer loss2/ave_pool
I0403 15:42:30.056864 11035 net.cpp:91] Creating Layer loss2/ave_pool
I0403 15:42:30.056879 11035 net.cpp:425] loss2/ave_pool <- inception_4d/output_inception_4d/output_0_split_0
I0403 15:42:30.056926 11035 net.cpp:399] loss2/ave_pool -> loss2/ave_pool
I0403 15:42:30.057251 11035 net.cpp:141] Setting up loss2/ave_pool
I0403 15:42:30.057276 11035 net.cpp:148] Top shape: 24 528 4 4 (202752)
I0403 15:42:30.057291 11035 net.cpp:156] Memory required for data: 1207729440
I0403 15:42:30.057307 11035 layer_factory.hpp:77] Creating layer loss2/conv
I0403 15:42:30.057327 11035 net.cpp:91] Creating Layer loss2/conv
I0403 15:42:30.057344 11035 net.cpp:425] loss2/conv <- loss2/ave_pool
I0403 15:42:30.057364 11035 net.cpp:399] loss2/conv -> loss2/conv
I0403 15:42:30.059232 11035 net.cpp:141] Setting up loss2/conv
I0403 15:42:30.059262 11035 net.cpp:148] Top shape: 24 128 4 4 (49152)
I0403 15:42:30.059278 11035 net.cpp:156] Memory required for data: 1207926048
I0403 15:42:30.059296 11035 layer_factory.hpp:77] Creating layer loss2/relu_conv
I0403 15:42:30.059315 11035 net.cpp:91] Creating Layer loss2/relu_conv
I0403 15:42:30.059331 11035 net.cpp:425] loss2/relu_conv <- loss2/conv
I0403 15:42:30.059348 11035 net.cpp:386] loss2/relu_conv -> loss2/conv (in-place)
I0403 15:42:30.059624 11035 net.cpp:141] Setting up loss2/relu_conv
I0403 15:42:30.059651 11035 net.cpp:148] Top shape: 24 128 4 4 (49152)
I0403 15:42:30.059667 11035 net.cpp:156] Memory required for data: 1208122656
I0403 15:42:30.059681 11035 layer_factory.hpp:77] Creating layer loss2/fc
I0403 15:42:30.059700 11035 net.cpp:91] Creating Layer loss2/fc
I0403 15:42:30.059716 11035 net.cpp:425] loss2/fc <- loss2/conv
I0403 15:42:30.059736 11035 net.cpp:399] loss2/fc -> loss2/fc
I0403 15:42:30.077625 11035 net.cpp:141] Setting up loss2/fc
I0403 15:42:30.077666 11035 net.cpp:148] Top shape: 24 1024 (24576)
I0403 15:42:30.077682 11035 net.cpp:156] Memory required for data: 1208220960
I0403 15:42:30.077700 11035 layer_factory.hpp:77] Creating layer loss2/relu_fc
I0403 15:42:30.077721 11035 net.cpp:91] Creating Layer loss2/relu_fc
I0403 15:42:30.077739 11035 net.cpp:425] loss2/relu_fc <- loss2/fc
I0403 15:42:30.077756 11035 net.cpp:386] loss2/relu_fc -> loss2/fc (in-place)
I0403 15:42:30.078065 11035 net.cpp:141] Setting up loss2/relu_fc
I0403 15:42:30.078091 11035 net.cpp:148] Top shape: 24 1024 (24576)
I0403 15:42:30.078106 11035 net.cpp:156] Memory required for data: 1208319264
I0403 15:42:30.078121 11035 layer_factory.hpp:77] Creating layer loss2/drop_fc
I0403 15:42:30.078141 11035 net.cpp:91] Creating Layer loss2/drop_fc
I0403 15:42:30.078157 11035 net.cpp:425] loss2/drop_fc <- loss2/fc
I0403 15:42:30.078176 11035 net.cpp:386] loss2/drop_fc -> loss2/fc (in-place)
I0403 15:42:30.078227 11035 net.cpp:141] Setting up loss2/drop_fc
I0403 15:42:30.078249 11035 net.cpp:148] Top shape: 24 1024 (24576)
I0403 15:42:30.078264 11035 net.cpp:156] Memory required for data: 1208417568
I0403 15:42:30.078279 11035 layer_factory.hpp:77] Creating layer loss2/classifier_plantvillage
I0403 15:42:30.078297 11035 net.cpp:91] Creating Layer loss2/classifier_plantvillage
I0403 15:42:30.078316 11035 net.cpp:425] loss2/classifier_plantvillage <- loss2/fc
I0403 15:42:30.078335 11035 net.cpp:399] loss2/classifier_plantvillage -> loss2/classifier_plantvillage
I0403 15:42:30.078742 11035 net.cpp:141] Setting up loss2/classifier_plantvillage
I0403 15:42:30.078778 11035 net.cpp:148] Top shape: 24 38 (912)
I0403 15:42:30.078811 11035 net.cpp:156] Memory required for data: 1208421216
I0403 15:42:30.078830 11035 layer_factory.hpp:77] Creating layer loss2/classifier_plantvillage_loss2/classifier_plantvillage_0_split
I0403 15:42:30.078847 11035 net.cpp:91] Creating Layer loss2/classifier_plantvillage_loss2/classifier_plantvillage_0_split
I0403 15:42:30.078863 11035 net.cpp:425] loss2/classifier_plantvillage_loss2/classifier_plantvillage_0_split <- loss2/classifier_plantvillage
I0403 15:42:30.078883 11035 net.cpp:399] loss2/classifier_plantvillage_loss2/classifier_plantvillage_0_split -> loss2/classifier_plantvillage_loss2/classifier_plantvillage_0_split_0
I0403 15:42:30.078903 11035 net.cpp:399] loss2/classifier_plantvillage_loss2/classifier_plantvillage_0_split -> loss2/classifier_plantvillage_loss2/classifier_plantvillage_0_split_1
I0403 15:42:30.078923 11035 net.cpp:399] loss2/classifier_plantvillage_loss2/classifier_plantvillage_0_split -> loss2/classifier_plantvillage_loss2/classifier_plantvillage_0_split_2
I0403 15:42:30.079008 11035 net.cpp:141] Setting up loss2/classifier_plantvillage_loss2/classifier_plantvillage_0_split
I0403 15:42:30.079043 11035 net.cpp:148] Top shape: 24 38 (912)
I0403 15:42:30.079061 11035 net.cpp:148] Top shape: 24 38 (912)
I0403 15:42:30.079076 11035 net.cpp:148] Top shape: 24 38 (912)
I0403 15:42:30.079089 11035 net.cpp:156] Memory required for data: 1208432160
I0403 15:42:30.079103 11035 layer_factory.hpp:77] Creating layer inception_4e/1x1
I0403 15:42:30.079125 11035 net.cpp:91] Creating Layer inception_4e/1x1
I0403 15:42:30.079143 11035 net.cpp:425] inception_4e/1x1 <- inception_4d/output_inception_4d/output_0_split_1
I0403 15:42:30.079161 11035 net.cpp:399] inception_4e/1x1 -> inception_4e/1x1
I0403 15:42:30.080950 11035 net.cpp:141] Setting up inception_4e/1x1
I0403 15:42:30.080979 11035 net.cpp:148] Top shape: 24 256 14 14 (1204224)
I0403 15:42:30.080996 11035 net.cpp:156] Memory required for data: 1213249056
I0403 15:42:30.081013 11035 layer_factory.hpp:77] Creating layer inception_4e/relu_1x1
I0403 15:42:30.081030 11035 net.cpp:91] Creating Layer inception_4e/relu_1x1
I0403 15:42:30.081046 11035 net.cpp:425] inception_4e/relu_1x1 <- inception_4e/1x1
I0403 15:42:30.081066 11035 net.cpp:386] inception_4e/relu_1x1 -> inception_4e/1x1 (in-place)
I0403 15:42:30.081358 11035 net.cpp:141] Setting up inception_4e/relu_1x1
I0403 15:42:30.081387 11035 net.cpp:148] Top shape: 24 256 14 14 (1204224)
I0403 15:42:30.081401 11035 net.cpp:156] Memory required for data: 1218065952
I0403 15:42:30.081415 11035 layer_factory.hpp:77] Creating layer inception_4e/3x3_reduce
I0403 15:42:30.081440 11035 net.cpp:91] Creating Layer inception_4e/3x3_reduce
I0403 15:42:30.081459 11035 net.cpp:425] inception_4e/3x3_reduce <- inception_4d/output_inception_4d/output_0_split_2
I0403 15:42:30.081476 11035 net.cpp:399] inception_4e/3x3_reduce -> inception_4e/3x3_reduce
I0403 15:42:30.083555 11035 net.cpp:141] Setting up inception_4e/3x3_reduce
I0403 15:42:30.083585 11035 net.cpp:148] Top shape: 24 160 14 14 (752640)
I0403 15:42:30.083601 11035 net.cpp:156] Memory required for data: 1221076512
I0403 15:42:30.083619 11035 layer_factory.hpp:77] Creating layer inception_4e/relu_3x3_reduce
I0403 15:42:30.083638 11035 net.cpp:91] Creating Layer inception_4e/relu_3x3_reduce
I0403 15:42:30.083653 11035 net.cpp:425] inception_4e/relu_3x3_reduce <- inception_4e/3x3_reduce
I0403 15:42:30.083670 11035 net.cpp:386] inception_4e/relu_3x3_reduce -> inception_4e/3x3_reduce (in-place)
I0403 15:42:30.083850 11035 net.cpp:141] Setting up inception_4e/relu_3x3_reduce
I0403 15:42:30.083878 11035 net.cpp:148] Top shape: 24 160 14 14 (752640)
I0403 15:42:30.083892 11035 net.cpp:156] Memory required for data: 1224087072
I0403 15:42:30.083907 11035 layer_factory.hpp:77] Creating layer inception_4e/3x3
I0403 15:42:30.083928 11035 net.cpp:91] Creating Layer inception_4e/3x3
I0403 15:42:30.083945 11035 net.cpp:425] inception_4e/3x3 <- inception_4e/3x3_reduce
I0403 15:42:30.083971 11035 net.cpp:399] inception_4e/3x3 -> inception_4e/3x3
I0403 15:42:30.088865 11035 net.cpp:141] Setting up inception_4e/3x3
I0403 15:42:30.088903 11035 net.cpp:148] Top shape: 24 320 14 14 (1505280)
I0403 15:42:30.088919 11035 net.cpp:156] Memory required for data: 1230108192
I0403 15:42:30.088938 11035 layer_factory.hpp:77] Creating layer inception_4e/relu_3x3
I0403 15:42:30.088966 11035 net.cpp:91] Creating Layer inception_4e/relu_3x3
I0403 15:42:30.088984 11035 net.cpp:425] inception_4e/relu_3x3 <- inception_4e/3x3
I0403 15:42:30.089004 11035 net.cpp:386] inception_4e/relu_3x3 -> inception_4e/3x3 (in-place)
I0403 15:42:30.089296 11035 net.cpp:141] Setting up inception_4e/relu_3x3
I0403 15:42:30.089323 11035 net.cpp:148] Top shape: 24 320 14 14 (1505280)
I0403 15:42:30.089337 11035 net.cpp:156] Memory required for data: 1236129312
I0403 15:42:30.089352 11035 layer_factory.hpp:77] Creating layer inception_4e/5x5_reduce
I0403 15:42:30.089375 11035 net.cpp:91] Creating Layer inception_4e/5x5_reduce
I0403 15:42:30.089391 11035 net.cpp:425] inception_4e/5x5_reduce <- inception_4d/output_inception_4d/output_0_split_3
I0403 15:42:30.089412 11035 net.cpp:399] inception_4e/5x5_reduce -> inception_4e/5x5_reduce
I0403 15:42:30.090459 11035 net.cpp:141] Setting up inception_4e/5x5_reduce
I0403 15:42:30.090488 11035 net.cpp:148] Top shape: 24 32 14 14 (150528)
I0403 15:42:30.090503 11035 net.cpp:156] Memory required for data: 1236731424
I0403 15:42:30.090522 11035 layer_factory.hpp:77] Creating layer inception_4e/relu_5x5_reduce
I0403 15:42:30.090538 11035 net.cpp:91] Creating Layer inception_4e/relu_5x5_reduce
I0403 15:42:30.090554 11035 net.cpp:425] inception_4e/relu_5x5_reduce <- inception_4e/5x5_reduce
I0403 15:42:30.090574 11035 net.cpp:386] inception_4e/relu_5x5_reduce -> inception_4e/5x5_reduce (in-place)
I0403 15:42:30.090867 11035 net.cpp:141] Setting up inception_4e/relu_5x5_reduce
I0403 15:42:30.090893 11035 net.cpp:148] Top shape: 24 32 14 14 (150528)
I0403 15:42:30.090909 11035 net.cpp:156] Memory required for data: 1237333536
I0403 15:42:30.090924 11035 layer_factory.hpp:77] Creating layer inception_4e/5x5
I0403 15:42:30.090966 11035 net.cpp:91] Creating Layer inception_4e/5x5
I0403 15:42:30.090986 11035 net.cpp:425] inception_4e/5x5 <- inception_4e/5x5_reduce
I0403 15:42:30.091006 11035 net.cpp:399] inception_4e/5x5 -> inception_4e/5x5
I0403 15:42:30.092800 11035 net.cpp:141] Setting up inception_4e/5x5
I0403 15:42:30.092828 11035 net.cpp:148] Top shape: 24 128 14 14 (602112)
I0403 15:42:30.092842 11035 net.cpp:156] Memory required for data: 1239741984
I0403 15:42:30.092860 11035 layer_factory.hpp:77] Creating layer inception_4e/relu_5x5
I0403 15:42:30.092880 11035 net.cpp:91] Creating Layer inception_4e/relu_5x5
I0403 15:42:30.092897 11035 net.cpp:425] inception_4e/relu_5x5 <- inception_4e/5x5
I0403 15:42:30.092914 11035 net.cpp:386] inception_4e/relu_5x5 -> inception_4e/5x5 (in-place)
I0403 15:42:30.093108 11035 net.cpp:141] Setting up inception_4e/relu_5x5
I0403 15:42:30.093135 11035 net.cpp:148] Top shape: 24 128 14 14 (602112)
I0403 15:42:30.093150 11035 net.cpp:156] Memory required for data: 1242150432
I0403 15:42:30.093165 11035 layer_factory.hpp:77] Creating layer inception_4e/pool
I0403 15:42:30.093183 11035 net.cpp:91] Creating Layer inception_4e/pool
I0403 15:42:30.093199 11035 net.cpp:425] inception_4e/pool <- inception_4d/output_inception_4d/output_0_split_4
I0403 15:42:30.093219 11035 net.cpp:399] inception_4e/pool -> inception_4e/pool
I0403 15:42:30.093287 11035 net.cpp:141] Setting up inception_4e/pool
I0403 15:42:30.093309 11035 net.cpp:148] Top shape: 24 528 14 14 (2483712)
I0403 15:42:30.093324 11035 net.cpp:156] Memory required for data: 1252085280
I0403 15:42:30.093338 11035 layer_factory.hpp:77] Creating layer inception_4e/pool_proj
I0403 15:42:30.093359 11035 net.cpp:91] Creating Layer inception_4e/pool_proj
I0403 15:42:30.093376 11035 net.cpp:425] inception_4e/pool_proj <- inception_4e/pool
I0403 15:42:30.093395 11035 net.cpp:399] inception_4e/pool_proj -> inception_4e/pool_proj
I0403 15:42:30.094858 11035 net.cpp:141] Setting up inception_4e/pool_proj
I0403 15:42:30.094897 11035 net.cpp:148] Top shape: 24 128 14 14 (602112)
I0403 15:42:30.094912 11035 net.cpp:156] Memory required for data: 1254493728
I0403 15:42:30.094929 11035 layer_factory.hpp:77] Creating layer inception_4e/relu_pool_proj
I0403 15:42:30.094952 11035 net.cpp:91] Creating Layer inception_4e/relu_pool_proj
I0403 15:42:30.094971 11035 net.cpp:425] inception_4e/relu_pool_proj <- inception_4e/pool_proj
I0403 15:42:30.094988 11035 net.cpp:386] inception_4e/relu_pool_proj -> inception_4e/pool_proj (in-place)
I0403 15:42:30.095276 11035 net.cpp:141] Setting up inception_4e/relu_pool_proj
I0403 15:42:30.095302 11035 net.cpp:148] Top shape: 24 128 14 14 (602112)
I0403 15:42:30.095316 11035 net.cpp:156] Memory required for data: 1256902176
I0403 15:42:30.095331 11035 layer_factory.hpp:77] Creating layer inception_4e/output
I0403 15:42:30.095348 11035 net.cpp:91] Creating Layer inception_4e/output
I0403 15:42:30.095363 11035 net.cpp:425] inception_4e/output <- inception_4e/1x1
I0403 15:42:30.095379 11035 net.cpp:425] inception_4e/output <- inception_4e/3x3
I0403 15:42:30.095396 11035 net.cpp:425] inception_4e/output <- inception_4e/5x5
I0403 15:42:30.095410 11035 net.cpp:425] inception_4e/output <- inception_4e/pool_proj
I0403 15:42:30.095428 11035 net.cpp:399] inception_4e/output -> inception_4e/output
I0403 15:42:30.095479 11035 net.cpp:141] Setting up inception_4e/output
I0403 15:42:30.095502 11035 net.cpp:148] Top shape: 24 832 14 14 (3913728)
I0403 15:42:30.095516 11035 net.cpp:156] Memory required for data: 1272557088
I0403 15:42:30.095531 11035 layer_factory.hpp:77] Creating layer pool4/3x3_s2
I0403 15:42:30.095548 11035 net.cpp:91] Creating Layer pool4/3x3_s2
I0403 15:42:30.095564 11035 net.cpp:425] pool4/3x3_s2 <- inception_4e/output
I0403 15:42:30.095583 11035 net.cpp:399] pool4/3x3_s2 -> pool4/3x3_s2
I0403 15:42:30.095649 11035 net.cpp:141] Setting up pool4/3x3_s2
I0403 15:42:30.095671 11035 net.cpp:148] Top shape: 24 832 7 7 (978432)
I0403 15:42:30.095685 11035 net.cpp:156] Memory required for data: 1276470816
I0403 15:42:30.095700 11035 layer_factory.hpp:77] Creating layer pool4/3x3_s2_pool4/3x3_s2_0_split
I0403 15:42:30.095720 11035 net.cpp:91] Creating Layer pool4/3x3_s2_pool4/3x3_s2_0_split
I0403 15:42:30.095736 11035 net.cpp:425] pool4/3x3_s2_pool4/3x3_s2_0_split <- pool4/3x3_s2
I0403 15:42:30.095753 11035 net.cpp:399] pool4/3x3_s2_pool4/3x3_s2_0_split -> pool4/3x3_s2_pool4/3x3_s2_0_split_0
I0403 15:42:30.095774 11035 net.cpp:399] pool4/3x3_s2_pool4/3x3_s2_0_split -> pool4/3x3_s2_pool4/3x3_s2_0_split_1
I0403 15:42:30.095794 11035 net.cpp:399] pool4/3x3_s2_pool4/3x3_s2_0_split -> pool4/3x3_s2_pool4/3x3_s2_0_split_2
I0403 15:42:30.095813 11035 net.cpp:399] pool4/3x3_s2_pool4/3x3_s2_0_split -> pool4/3x3_s2_pool4/3x3_s2_0_split_3
I0403 15:42:30.095901 11035 net.cpp:141] Setting up pool4/3x3_s2_pool4/3x3_s2_0_split
I0403 15:42:30.095924 11035 net.cpp:148] Top shape: 24 832 7 7 (978432)
I0403 15:42:30.095940 11035 net.cpp:148] Top shape: 24 832 7 7 (978432)
I0403 15:42:30.095962 11035 net.cpp:148] Top shape: 24 832 7 7 (978432)
I0403 15:42:30.095976 11035 net.cpp:148] Top shape: 24 832 7 7 (978432)
I0403 15:42:30.095990 11035 net.cpp:156] Memory required for data: 1292125728
I0403 15:42:30.096004 11035 layer_factory.hpp:77] Creating layer inception_5a/1x1
I0403 15:42:30.096026 11035 net.cpp:91] Creating Layer inception_5a/1x1
I0403 15:42:30.096043 11035 net.cpp:425] inception_5a/1x1 <- pool4/3x3_s2_pool4/3x3_s2_0_split_0
I0403 15:42:30.096063 11035 net.cpp:399] inception_5a/1x1 -> inception_5a/1x1
I0403 15:42:30.098897 11035 net.cpp:141] Setting up inception_5a/1x1
I0403 15:42:30.098927 11035 net.cpp:148] Top shape: 24 256 7 7 (301056)
I0403 15:42:30.098943 11035 net.cpp:156] Memory required for data: 1293329952
I0403 15:42:30.098966 11035 layer_factory.hpp:77] Creating layer inception_5a/relu_1x1
I0403 15:42:30.098985 11035 net.cpp:91] Creating Layer inception_5a/relu_1x1
I0403 15:42:30.099002 11035 net.cpp:425] inception_5a/relu_1x1 <- inception_5a/1x1
I0403 15:42:30.099019 11035 net.cpp:386] inception_5a/relu_1x1 -> inception_5a/1x1 (in-place)
I0403 15:42:30.099325 11035 net.cpp:141] Setting up inception_5a/relu_1x1
I0403 15:42:30.099351 11035 net.cpp:148] Top shape: 24 256 7 7 (301056)
I0403 15:42:30.099369 11035 net.cpp:156] Memory required for data: 1294534176
I0403 15:42:30.099383 11035 layer_factory.hpp:77] Creating layer inception_5a/3x3_reduce
I0403 15:42:30.099403 11035 net.cpp:91] Creating Layer inception_5a/3x3_reduce
I0403 15:42:30.099419 11035 net.cpp:425] inception_5a/3x3_reduce <- pool4/3x3_s2_pool4/3x3_s2_0_split_1
I0403 15:42:30.099441 11035 net.cpp:399] inception_5a/3x3_reduce -> inception_5a/3x3_reduce
I0403 15:42:30.101850 11035 net.cpp:141] Setting up inception_5a/3x3_reduce
I0403 15:42:30.101878 11035 net.cpp:148] Top shape: 24 160 7 7 (188160)
I0403 15:42:30.101894 11035 net.cpp:156] Memory required for data: 1295286816
I0403 15:42:30.101912 11035 layer_factory.hpp:77] Creating layer inception_5a/relu_3x3_reduce
I0403 15:42:30.101930 11035 net.cpp:91] Creating Layer inception_5a/relu_3x3_reduce
I0403 15:42:30.101949 11035 net.cpp:425] inception_5a/relu_3x3_reduce <- inception_5a/3x3_reduce
I0403 15:42:30.101970 11035 net.cpp:386] inception_5a/relu_3x3_reduce -> inception_5a/3x3_reduce (in-place)
I0403 15:42:30.102154 11035 net.cpp:141] Setting up inception_5a/relu_3x3_reduce
I0403 15:42:30.102180 11035 net.cpp:148] Top shape: 24 160 7 7 (188160)
I0403 15:42:30.102193 11035 net.cpp:156] Memory required for data: 1296039456
I0403 15:42:30.102208 11035 layer_factory.hpp:77] Creating layer inception_5a/3x3
I0403 15:42:30.102231 11035 net.cpp:91] Creating Layer inception_5a/3x3
I0403 15:42:30.102247 11035 net.cpp:425] inception_5a/3x3 <- inception_5a/3x3_reduce
I0403 15:42:30.102268 11035 net.cpp:399] inception_5a/3x3 -> inception_5a/3x3
I0403 15:42:30.107188 11035 net.cpp:141] Setting up inception_5a/3x3
I0403 15:42:30.107216 11035 net.cpp:148] Top shape: 24 320 7 7 (376320)
I0403 15:42:30.107233 11035 net.cpp:156] Memory required for data: 1297544736
I0403 15:42:30.107249 11035 layer_factory.hpp:77] Creating layer inception_5a/relu_3x3
I0403 15:42:30.107270 11035 net.cpp:91] Creating Layer inception_5a/relu_3x3
I0403 15:42:30.107285 11035 net.cpp:425] inception_5a/relu_3x3 <- inception_5a/3x3
I0403 15:42:30.107303 11035 net.cpp:386] inception_5a/relu_3x3 -> inception_5a/3x3 (in-place)
I0403 15:42:30.107590 11035 net.cpp:141] Setting up inception_5a/relu_3x3
I0403 15:42:30.107615 11035 net.cpp:148] Top shape: 24 320 7 7 (376320)
I0403 15:42:30.107630 11035 net.cpp:156] Memory required for data: 1299050016
I0403 15:42:30.107645 11035 layer_factory.hpp:77] Creating layer inception_5a/5x5_reduce
I0403 15:42:30.107668 11035 net.cpp:91] Creating Layer inception_5a/5x5_reduce
I0403 15:42:30.107686 11035 net.cpp:425] inception_5a/5x5_reduce <- pool4/3x3_s2_pool4/3x3_s2_0_split_2
I0403 15:42:30.107705 11035 net.cpp:399] inception_5a/5x5_reduce -> inception_5a/5x5_reduce
I0403 15:42:30.108853 11035 net.cpp:141] Setting up inception_5a/5x5_reduce
I0403 15:42:30.108882 11035 net.cpp:148] Top shape: 24 32 7 7 (37632)
I0403 15:42:30.108898 11035 net.cpp:156] Memory required for data: 1299200544
I0403 15:42:30.108916 11035 layer_factory.hpp:77] Creating layer inception_5a/relu_5x5_reduce
I0403 15:42:30.108934 11035 net.cpp:91] Creating Layer inception_5a/relu_5x5_reduce
I0403 15:42:30.108959 11035 net.cpp:425] inception_5a/relu_5x5_reduce <- inception_5a/5x5_reduce
I0403 15:42:30.108979 11035 net.cpp:386] inception_5a/relu_5x5_reduce -> inception_5a/5x5_reduce (in-place)
I0403 15:42:30.109279 11035 net.cpp:141] Setting up inception_5a/relu_5x5_reduce
I0403 15:42:30.109307 11035 net.cpp:148] Top shape: 24 32 7 7 (37632)
I0403 15:42:30.109323 11035 net.cpp:156] Memory required for data: 1299351072
I0403 15:42:30.109338 11035 layer_factory.hpp:77] Creating layer inception_5a/5x5
I0403 15:42:30.109359 11035 net.cpp:91] Creating Layer inception_5a/5x5
I0403 15:42:30.109377 11035 net.cpp:425] inception_5a/5x5 <- inception_5a/5x5_reduce
I0403 15:42:30.109396 11035 net.cpp:399] inception_5a/5x5 -> inception_5a/5x5
I0403 15:42:30.111091 11035 net.cpp:141] Setting up inception_5a/5x5
I0403 15:42:30.111129 11035 net.cpp:148] Top shape: 24 128 7 7 (150528)
I0403 15:42:30.111145 11035 net.cpp:156] Memory required for data: 1299953184
I0403 15:42:30.111162 11035 layer_factory.hpp:77] Creating layer inception_5a/relu_5x5
I0403 15:42:30.111182 11035 net.cpp:91] Creating Layer inception_5a/relu_5x5
I0403 15:42:30.111199 11035 net.cpp:425] inception_5a/relu_5x5 <- inception_5a/5x5
I0403 15:42:30.111217 11035 net.cpp:386] inception_5a/relu_5x5 -> inception_5a/5x5 (in-place)
I0403 15:42:30.111400 11035 net.cpp:141] Setting up inception_5a/relu_5x5
I0403 15:42:30.111428 11035 net.cpp:148] Top shape: 24 128 7 7 (150528)
I0403 15:42:30.111443 11035 net.cpp:156] Memory required for data: 1300555296
I0403 15:42:30.111457 11035 layer_factory.hpp:77] Creating layer inception_5a/pool
I0403 15:42:30.111474 11035 net.cpp:91] Creating Layer inception_5a/pool
I0403 15:42:30.111490 11035 net.cpp:425] inception_5a/pool <- pool4/3x3_s2_pool4/3x3_s2_0_split_3
I0403 15:42:30.111510 11035 net.cpp:399] inception_5a/pool -> inception_5a/pool
I0403 15:42:30.111578 11035 net.cpp:141] Setting up inception_5a/pool
I0403 15:42:30.111601 11035 net.cpp:148] Top shape: 24 832 7 7 (978432)
I0403 15:42:30.111615 11035 net.cpp:156] Memory required for data: 1304469024
I0403 15:42:30.111630 11035 layer_factory.hpp:77] Creating layer inception_5a/pool_proj
I0403 15:42:30.111652 11035 net.cpp:91] Creating Layer inception_5a/pool_proj
I0403 15:42:30.111668 11035 net.cpp:425] inception_5a/pool_proj <- inception_5a/pool
I0403 15:42:30.111686 11035 net.cpp:399] inception_5a/pool_proj -> inception_5a/pool_proj
I0403 15:42:30.113939 11035 net.cpp:141] Setting up inception_5a/pool_proj
I0403 15:42:30.113970 11035 net.cpp:148] Top shape: 24 128 7 7 (150528)
I0403 15:42:30.113986 11035 net.cpp:156] Memory required for data: 1305071136
I0403 15:42:30.114003 11035 layer_factory.hpp:77] Creating layer inception_5a/relu_pool_proj
I0403 15:42:30.114023 11035 net.cpp:91] Creating Layer inception_5a/relu_pool_proj
I0403 15:42:30.114040 11035 net.cpp:425] inception_5a/relu_pool_proj <- inception_5a/pool_proj
I0403 15:42:30.114058 11035 net.cpp:386] inception_5a/relu_pool_proj -> inception_5a/pool_proj (in-place)
I0403 15:42:30.114347 11035 net.cpp:141] Setting up inception_5a/relu_pool_proj
I0403 15:42:30.114372 11035 net.cpp:148] Top shape: 24 128 7 7 (150528)
I0403 15:42:30.114387 11035 net.cpp:156] Memory required for data: 1305673248
I0403 15:42:30.114401 11035 layer_factory.hpp:77] Creating layer inception_5a/output
I0403 15:42:30.114421 11035 net.cpp:91] Creating Layer inception_5a/output
I0403 15:42:30.114436 11035 net.cpp:425] inception_5a/output <- inception_5a/1x1
I0403 15:42:30.114454 11035 net.cpp:425] inception_5a/output <- inception_5a/3x3
I0403 15:42:30.114470 11035 net.cpp:425] inception_5a/output <- inception_5a/5x5
I0403 15:42:30.114485 11035 net.cpp:425] inception_5a/output <- inception_5a/pool_proj
I0403 15:42:30.114501 11035 net.cpp:399] inception_5a/output -> inception_5a/output
I0403 15:42:30.114552 11035 net.cpp:141] Setting up inception_5a/output
I0403 15:42:30.114574 11035 net.cpp:148] Top shape: 24 832 7 7 (978432)
I0403 15:42:30.114588 11035 net.cpp:156] Memory required for data: 1309586976
I0403 15:42:30.114603 11035 layer_factory.hpp:77] Creating layer inception_5a/output_inception_5a/output_0_split
I0403 15:42:30.114619 11035 net.cpp:91] Creating Layer inception_5a/output_inception_5a/output_0_split
I0403 15:42:30.114634 11035 net.cpp:425] inception_5a/output_inception_5a/output_0_split <- inception_5a/output
I0403 15:42:30.114653 11035 net.cpp:399] inception_5a/output_inception_5a/output_0_split -> inception_5a/output_inception_5a/output_0_split_0
I0403 15:42:30.114675 11035 net.cpp:399] inception_5a/output_inception_5a/output_0_split -> inception_5a/output_inception_5a/output_0_split_1
I0403 15:42:30.114693 11035 net.cpp:399] inception_5a/output_inception_5a/output_0_split -> inception_5a/output_inception_5a/output_0_split_2
I0403 15:42:30.114713 11035 net.cpp:399] inception_5a/output_inception_5a/output_0_split -> inception_5a/output_inception_5a/output_0_split_3
I0403 15:42:30.114821 11035 net.cpp:141] Setting up inception_5a/output_inception_5a/output_0_split
I0403 15:42:30.114846 11035 net.cpp:148] Top shape: 24 832 7 7 (978432)
I0403 15:42:30.114863 11035 net.cpp:148] Top shape: 24 832 7 7 (978432)
I0403 15:42:30.114878 11035 net.cpp:148] Top shape: 24 832 7 7 (978432)
I0403 15:42:30.114893 11035 net.cpp:148] Top shape: 24 832 7 7 (978432)
I0403 15:42:30.114907 11035 net.cpp:156] Memory required for data: 1325241888
I0403 15:42:30.114922 11035 layer_factory.hpp:77] Creating layer inception_5b/1x1
I0403 15:42:30.114943 11035 net.cpp:91] Creating Layer inception_5b/1x1
I0403 15:42:30.114965 11035 net.cpp:425] inception_5b/1x1 <- inception_5a/output_inception_5a/output_0_split_0
I0403 15:42:30.114984 11035 net.cpp:399] inception_5b/1x1 -> inception_5b/1x1
I0403 15:42:30.118674 11035 net.cpp:141] Setting up inception_5b/1x1
I0403 15:42:30.118702 11035 net.cpp:148] Top shape: 24 384 7 7 (451584)
I0403 15:42:30.118717 11035 net.cpp:156] Memory required for data: 1327048224
I0403 15:42:30.118736 11035 layer_factory.hpp:77] Creating layer inception_5b/relu_1x1
I0403 15:42:30.118753 11035 net.cpp:91] Creating Layer inception_5b/relu_1x1
I0403 15:42:30.118769 11035 net.cpp:425] inception_5b/relu_1x1 <- inception_5b/1x1
I0403 15:42:30.118788 11035 net.cpp:386] inception_5b/relu_1x1 -> inception_5b/1x1 (in-place)
I0403 15:42:30.119098 11035 net.cpp:141] Setting up inception_5b/relu_1x1
I0403 15:42:30.119124 11035 net.cpp:148] Top shape: 24 384 7 7 (451584)
I0403 15:42:30.119139 11035 net.cpp:156] Memory required for data: 1328854560
I0403 15:42:30.119154 11035 layer_factory.hpp:77] Creating layer inception_5b/3x3_reduce
I0403 15:42:30.119176 11035 net.cpp:91] Creating Layer inception_5b/3x3_reduce
I0403 15:42:30.119194 11035 net.cpp:425] inception_5b/3x3_reduce <- inception_5a/output_inception_5a/output_0_split_1
I0403 15:42:30.119216 11035 net.cpp:399] inception_5b/3x3_reduce -> inception_5b/3x3_reduce
I0403 15:42:30.121822 11035 net.cpp:141] Setting up inception_5b/3x3_reduce
I0403 15:42:30.121850 11035 net.cpp:148] Top shape: 24 192 7 7 (225792)
I0403 15:42:30.121866 11035 net.cpp:156] Memory required for data: 1329757728
I0403 15:42:30.121884 11035 layer_factory.hpp:77] Creating layer inception_5b/relu_3x3_reduce
I0403 15:42:30.121904 11035 net.cpp:91] Creating Layer inception_5b/relu_3x3_reduce
I0403 15:42:30.121920 11035 net.cpp:425] inception_5b/relu_3x3_reduce <- inception_5b/3x3_reduce
I0403 15:42:30.121937 11035 net.cpp:386] inception_5b/relu_3x3_reduce -> inception_5b/3x3_reduce (in-place)
I0403 15:42:30.122130 11035 net.cpp:141] Setting up inception_5b/relu_3x3_reduce
I0403 15:42:30.122155 11035 net.cpp:148] Top shape: 24 192 7 7 (225792)
I0403 15:42:30.122169 11035 net.cpp:156] Memory required for data: 1330660896
I0403 15:42:30.122184 11035 layer_factory.hpp:77] Creating layer inception_5b/3x3
I0403 15:42:30.122206 11035 net.cpp:91] Creating Layer inception_5b/3x3
I0403 15:42:30.122223 11035 net.cpp:425] inception_5b/3x3 <- inception_5b/3x3_reduce
I0403 15:42:30.122242 11035 net.cpp:399] inception_5b/3x3 -> inception_5b/3x3
I0403 15:42:30.129065 11035 net.cpp:141] Setting up inception_5b/3x3
I0403 15:42:30.129094 11035 net.cpp:148] Top shape: 24 384 7 7 (451584)
I0403 15:42:30.129111 11035 net.cpp:156] Memory required for data: 1332467232
I0403 15:42:30.129129 11035 layer_factory.hpp:77] Creating layer inception_5b/relu_3x3
I0403 15:42:30.129153 11035 net.cpp:91] Creating Layer inception_5b/relu_3x3
I0403 15:42:30.129171 11035 net.cpp:425] inception_5b/relu_3x3 <- inception_5b/3x3
I0403 15:42:30.129189 11035 net.cpp:386] inception_5b/relu_3x3 -> inception_5b/3x3 (in-place)
I0403 15:42:30.129490 11035 net.cpp:141] Setting up inception_5b/relu_3x3
I0403 15:42:30.129516 11035 net.cpp:148] Top shape: 24 384 7 7 (451584)
I0403 15:42:30.129531 11035 net.cpp:156] Memory required for data: 1334273568
I0403 15:42:30.129546 11035 layer_factory.hpp:77] Creating layer inception_5b/5x5_reduce
I0403 15:42:30.129585 11035 net.cpp:91] Creating Layer inception_5b/5x5_reduce
I0403 15:42:30.129604 11035 net.cpp:425] inception_5b/5x5_reduce <- inception_5a/output_inception_5a/output_0_split_2
I0403 15:42:30.129626 11035 net.cpp:399] inception_5b/5x5_reduce -> inception_5b/5x5_reduce
I0403 15:42:30.130913 11035 net.cpp:141] Setting up inception_5b/5x5_reduce
I0403 15:42:30.130941 11035 net.cpp:148] Top shape: 24 48 7 7 (56448)
I0403 15:42:30.130961 11035 net.cpp:156] Memory required for data: 1334499360
I0403 15:42:30.130980 11035 layer_factory.hpp:77] Creating layer inception_5b/relu_5x5_reduce
I0403 15:42:30.131001 11035 net.cpp:91] Creating Layer inception_5b/relu_5x5_reduce
I0403 15:42:30.131018 11035 net.cpp:425] inception_5b/relu_5x5_reduce <- inception_5b/5x5_reduce
I0403 15:42:30.131036 11035 net.cpp:386] inception_5b/relu_5x5_reduce -> inception_5b/5x5_reduce (in-place)
I0403 15:42:30.131410 11035 net.cpp:141] Setting up inception_5b/relu_5x5_reduce
I0403 15:42:30.131438 11035 net.cpp:148] Top shape: 24 48 7 7 (56448)
I0403 15:42:30.131453 11035 net.cpp:156] Memory required for data: 1334725152
I0403 15:42:30.131467 11035 layer_factory.hpp:77] Creating layer inception_5b/5x5
I0403 15:42:30.131489 11035 net.cpp:91] Creating Layer inception_5b/5x5
I0403 15:42:30.131505 11035 net.cpp:425] inception_5b/5x5 <- inception_5b/5x5_reduce
I0403 15:42:30.131523 11035 net.cpp:399] inception_5b/5x5 -> inception_5b/5x5
I0403 15:42:30.133592 11035 net.cpp:141] Setting up inception_5b/5x5
I0403 15:42:30.133620 11035 net.cpp:148] Top shape: 24 128 7 7 (150528)
I0403 15:42:30.133638 11035 net.cpp:156] Memory required for data: 1335327264
I0403 15:42:30.133657 11035 layer_factory.hpp:77] Creating layer inception_5b/relu_5x5
I0403 15:42:30.133676 11035 net.cpp:91] Creating Layer inception_5b/relu_5x5
I0403 15:42:30.133692 11035 net.cpp:425] inception_5b/relu_5x5 <- inception_5b/5x5
I0403 15:42:30.133709 11035 net.cpp:386] inception_5b/relu_5x5 -> inception_5b/5x5 (in-place)
I0403 15:42:30.133906 11035 net.cpp:141] Setting up inception_5b/relu_5x5
I0403 15:42:30.133934 11035 net.cpp:148] Top shape: 24 128 7 7 (150528)
I0403 15:42:30.133952 11035 net.cpp:156] Memory required for data: 1335929376
I0403 15:42:30.133968 11035 layer_factory.hpp:77] Creating layer inception_5b/pool
I0403 15:42:30.133986 11035 net.cpp:91] Creating Layer inception_5b/pool
I0403 15:42:30.134002 11035 net.cpp:425] inception_5b/pool <- inception_5a/output_inception_5a/output_0_split_3
I0403 15:42:30.134022 11035 net.cpp:399] inception_5b/pool -> inception_5b/pool
I0403 15:42:30.134095 11035 net.cpp:141] Setting up inception_5b/pool
I0403 15:42:30.134121 11035 net.cpp:148] Top shape: 24 832 7 7 (978432)
I0403 15:42:30.134136 11035 net.cpp:156] Memory required for data: 1339843104
I0403 15:42:30.134150 11035 layer_factory.hpp:77] Creating layer inception_5b/pool_proj
I0403 15:42:30.134169 11035 net.cpp:91] Creating Layer inception_5b/pool_proj
I0403 15:42:30.134186 11035 net.cpp:425] inception_5b/pool_proj <- inception_5b/pool
I0403 15:42:30.134208 11035 net.cpp:399] inception_5b/pool_proj -> inception_5b/pool_proj
I0403 15:42:30.136556 11035 net.cpp:141] Setting up inception_5b/pool_proj
I0403 15:42:30.136584 11035 net.cpp:148] Top shape: 24 128 7 7 (150528)
I0403 15:42:30.136600 11035 net.cpp:156] Memory required for data: 1340445216
I0403 15:42:30.136618 11035 layer_factory.hpp:77] Creating layer inception_5b/relu_pool_proj
I0403 15:42:30.136639 11035 net.cpp:91] Creating Layer inception_5b/relu_pool_proj
I0403 15:42:30.136656 11035 net.cpp:425] inception_5b/relu_pool_proj <- inception_5b/pool_proj
I0403 15:42:30.136674 11035 net.cpp:386] inception_5b/relu_pool_proj -> inception_5b/pool_proj (in-place)
I0403 15:42:30.136977 11035 net.cpp:141] Setting up inception_5b/relu_pool_proj
I0403 15:42:30.137003 11035 net.cpp:148] Top shape: 24 128 7 7 (150528)
I0403 15:42:30.137018 11035 net.cpp:156] Memory required for data: 1341047328
I0403 15:42:30.137034 11035 layer_factory.hpp:77] Creating layer inception_5b/output
I0403 15:42:30.137054 11035 net.cpp:91] Creating Layer inception_5b/output
I0403 15:42:30.137089 11035 net.cpp:425] inception_5b/output <- inception_5b/1x1
I0403 15:42:30.137107 11035 net.cpp:425] inception_5b/output <- inception_5b/3x3
I0403 15:42:30.137123 11035 net.cpp:425] inception_5b/output <- inception_5b/5x5
I0403 15:42:30.137140 11035 net.cpp:425] inception_5b/output <- inception_5b/pool_proj
I0403 15:42:30.137156 11035 net.cpp:399] inception_5b/output -> inception_5b/output
I0403 15:42:30.137210 11035 net.cpp:141] Setting up inception_5b/output
I0403 15:42:30.137234 11035 net.cpp:148] Top shape: 24 1024 7 7 (1204224)
I0403 15:42:30.137249 11035 net.cpp:156] Memory required for data: 1345864224
I0403 15:42:30.137265 11035 layer_factory.hpp:77] Creating layer pool5/7x7_s1
I0403 15:42:30.137284 11035 net.cpp:91] Creating Layer pool5/7x7_s1
I0403 15:42:30.137298 11035 net.cpp:425] pool5/7x7_s1 <- inception_5b/output
I0403 15:42:30.137320 11035 net.cpp:399] pool5/7x7_s1 -> pool5/7x7_s1
I0403 15:42:30.137538 11035 net.cpp:141] Setting up pool5/7x7_s1
I0403 15:42:30.137564 11035 net.cpp:148] Top shape: 24 1024 1 1 (24576)
I0403 15:42:30.137579 11035 net.cpp:156] Memory required for data: 1345962528
I0403 15:42:30.137594 11035 layer_factory.hpp:77] Creating layer pool5/drop_7x7_s1
I0403 15:42:30.137614 11035 net.cpp:91] Creating Layer pool5/drop_7x7_s1
I0403 15:42:30.137631 11035 net.cpp:425] pool5/drop_7x7_s1 <- pool5/7x7_s1
I0403 15:42:30.137648 11035 net.cpp:386] pool5/drop_7x7_s1 -> pool5/7x7_s1 (in-place)
I0403 15:42:30.137701 11035 net.cpp:141] Setting up pool5/drop_7x7_s1
I0403 15:42:30.137723 11035 net.cpp:148] Top shape: 24 1024 1 1 (24576)
I0403 15:42:30.137738 11035 net.cpp:156] Memory required for data: 1346060832
I0403 15:42:30.137753 11035 layer_factory.hpp:77] Creating layer loss3/classifier_plantvillage
I0403 15:42:30.137773 11035 net.cpp:91] Creating Layer loss3/classifier_plantvillage
I0403 15:42:30.137789 11035 net.cpp:425] loss3/classifier_plantvillage <- pool5/7x7_s1
I0403 15:42:30.137809 11035 net.cpp:399] loss3/classifier_plantvillage -> loss3/classifier_plantvillage
I0403 15:42:30.138248 11035 net.cpp:141] Setting up loss3/classifier_plantvillage
I0403 15:42:30.138273 11035 net.cpp:148] Top shape: 24 38 (912)
I0403 15:42:30.138288 11035 net.cpp:156] Memory required for data: 1346064480
I0403 15:42:30.138306 11035 layer_factory.hpp:77] Creating layer loss3/classifier_plantvillage_loss3/classifier_plantvillage_0_split
I0403 15:42:30.138324 11035 net.cpp:91] Creating Layer loss3/classifier_plantvillage_loss3/classifier_plantvillage_0_split
I0403 15:42:30.138340 11035 net.cpp:425] loss3/classifier_plantvillage_loss3/classifier_plantvillage_0_split <- loss3/classifier_plantvillage
I0403 15:42:30.138360 11035 net.cpp:399] loss3/classifier_plantvillage_loss3/classifier_plantvillage_0_split -> loss3/classifier_plantvillage_loss3/classifier_plantvillage_0_split_0
I0403 15:42:30.138381 11035 net.cpp:399] loss3/classifier_plantvillage_loss3/classifier_plantvillage_0_split -> loss3/classifier_plantvillage_loss3/classifier_plantvillage_0_split_1
I0403 15:42:30.138401 11035 net.cpp:399] loss3/classifier_plantvillage_loss3/classifier_plantvillage_0_split -> loss3/classifier_plantvillage_loss3/classifier_plantvillage_0_split_2
I0403 15:42:30.138419 11035 net.cpp:399] loss3/classifier_plantvillage_loss3/classifier_plantvillage_0_split -> loss3/classifier_plantvillage_loss3/classifier_plantvillage_0_split_3
I0403 15:42:30.138520 11035 net.cpp:141] Setting up loss3/classifier_plantvillage_loss3/classifier_plantvillage_0_split
I0403 15:42:30.138543 11035 net.cpp:148] Top shape: 24 38 (912)
I0403 15:42:30.138559 11035 net.cpp:148] Top shape: 24 38 (912)
I0403 15:42:30.138576 11035 net.cpp:148] Top shape: 24 38 (912)
I0403 15:42:30.138591 11035 net.cpp:148] Top shape: 24 38 (912)
I0403 15:42:30.138604 11035 net.cpp:156] Memory required for data: 1346079072
I0403 15:42:30.138618 11035 layer_factory.hpp:77] Creating layer loss1/loss
I0403 15:42:30.138639 11035 net.cpp:91] Creating Layer loss1/loss
I0403 15:42:30.138656 11035 net.cpp:425] loss1/loss <- loss1/classifier_plantvillage_loss1/classifier_plantvillage_0_split_0
I0403 15:42:30.138687 11035 net.cpp:425] loss1/loss <- label_data_1_split_0
…
