…
I0403 15:34:33.815441 10574 net.cpp:313] The NetState phase (1) differed from the phase (0) specified by a rule in layer data
I0403 15:34:33.816534 10574 net.cpp:49] Initializing net from parameters: 
state {
  phase: TEST
}
layer {
  name: "data"
  type: "Data"
  top: "data"
  top: "label"
  include {
    phase: TEST
  }
  transform_param {
    mirror: false
    crop_size: 224
    mean_file: "/home/mohanty/data/final_dataset/lmdb/segmented-80-20/mean.binaryproto"
  }
  data_param {
    source: "/home/mohanty/data/final_dataset/lmdb/segmented-80-20/test_db"
    batch_size: 24
    backend: LMDB
  }
}
layer {
  name: "conv1/7x7_s2"
  type: "Convolution"
  bottom: "data"
  top: "conv1/7x7_s2"
  param {
    lr_mult: 1
    decay_mult: 1
  }
  param {
    lr_mult: 2
    decay_mult: 0
  }
  convolution_param {
    num_output: 64
    pad: 3
    kernel_size: 7
    stride: 2
    weight_filler {
      type: "xavier"
      std: 0.1
    }
    bias_filler {
      type: "constant"
      value: 0.2
    }
  }
}
layer {
  name: "conv1/relu_7x7"
  type: "ReLU"
  bottom: "conv1/7x7_s2"
  top: "conv1/7x7_s2"
}
layer {
  name: "pool1/3x3_s2"
  type: "Pooling"
  bottom: "conv1/7x7_s2"
  top: "pool1/3x3_s2"
  pooling_param {
    pool: MAX
    kernel_size: 3
    stride: 2
  }
}
layer {
  name: "pool1/norm1"
  type: "LRN"
  bottom: "pool1/3x3_s2"
  top: "pool1/norm1"
  lrn_param {
    local_size: 5
    alpha: 0.0001
    beta: 0.75
  }
}
layer {
  name: "conv2/3x3_reduce"
  type: "Convolution"
  bottom: "pool1/norm1"
  top: "conv2/3x3_reduce"
  param {
    lr_mult: 1
    decay_mult: 1
  }
  param {
    lr_mult: 2
    decay_mult: 0
  }
  convolution_param {
    num_output: 64
    kernel_size: 1
    weight_filler {
      type: "xavier"
      std: 0.1
    }
    bias_filler {
      type: "constant"
      value: 0.2
    }
  }
}
layer {
  name: "conv2/relu_3x3_reduce"
  type: "ReLU"
  bottom: "conv2/3x3_reduce"
  top: "conv2/3x3_reduce"
}
layer {
  name: "conv2/3x3"
  type: "Convolution"
  bottom: "conv2/3x3_reduce"
  top: "conv2/3x3"
  param {
    lr_mult: 1
    decay_mult: 1
  }
  param {
    lr_mult: 2
    decay_mult: 0
  }
  convolution_param {
    num_output: 192
    pad: 1
    kernel_size: 3
    weight_filler {
      type: "xavier"
      std: 0.03
    }
    bias_filler {
      type: "constant"
      value: 0.2
    }
  }
}
layer {
  name: "conv2/relu_3x3"
  type: "ReLU"
  bottom: "conv2/3x3"
  top: "conv2/3x3"
}
layer {
  name: "conv2/norm2"
  type: "LRN"
  bottom: "conv2/3x3"
  top: "conv2/norm2"
  lrn_param {
    local_size: 5
    alpha: 0.0001
    beta: 0.75
  }
}
layer {
  name: "pool2/3x3_s2"
  type: "Pooling"
  bottom: "conv2/norm2"
  top: "pool2/3x3_s2"
  pooling_param {
    pool: MAX
    kernel_size: 3
    stride: 2
  }
}
layer {
  name: "inception_3a/1x1"
  type: "Convolution"
  bottom: "pool2/3x3_s2"
  top: "inception_3a/1x1"
  param {
    lr_mult: 1
    decay_mult: 1
  }
  param {
    lr_mult: 2
    decay_mult: 0
  }
  convolution_param {
    num_output: 64
    kernel_size: 1
    weight_filler {
      type: "xavier"
      std: 0.03
    }
    bias_filler {
      type: "constant"
      value: 0.2
    }
  }
}
layer {
  name: "inception_3a/relu_1x1"
  type: "ReLU"
  bottom: "inception_3a/1x1"
  top: "inception_3a/1x1"
}
layer {
  name: "inception_3a/3x3_reduce"
  type: "Convolution"
  bottom: "pool2/3x3_s2"
  top: "inception_3a/3x3_reduce"
  param {
    lr_mult: 1
    decay_mult: 1
  }
  param {
    lr_mult: 2
    decay_mult: 0
  }
  convolution_param {
    num_output: 96
    kernel_size: 1
    weight_filler {
      type: "xavier"
      std: 0.09
    }
    bias_filler {
      type: "constant"
      value: 0.2
    }
  }
}
layer {
  name: "inception_3a/relu_3x3_reduce"
  type: "ReLU"
  bottom: "inception_3a/3x3_reduce"
  top: "inception_3a/3x3_reduce"
}
layer {
  name: "inception_3a/3x3"
  type: "Convolution"
  bottom: "inception_3a/3x3_reduce"
  top: "inception_3a/3x3"
  param {
    lr_mult: 1
    decay_mult: 1
  }
  param {
    lr_mult: 2
    decay_mult: 0
  }
  convolution_param {
    num_output: 128
    pad: 1
    kernel_size: 3
    weight_filler {
      type: "xavier"
      std: 0.03
    }
    bias_filler {
      type: "constant"
      value: 0.2
    }
  }
}
layer {
  name: "inception_3a/relu_3x3"
  type: "ReLU"
  bottom: "inception_3a/3x3"
  top: "inception_3a/3x3"
}
layer {
  name: "inception_3a/5x5_reduce"
  type: "Convolution"
  bottom: "pool2/3x3_s2"
  top: "inception_3a/5x5_reduce"
  param {
    lr_mult: 1
    decay_mult: 1
  }
  param {
    lr_mult: 2
    decay_mult: 0
  }
  convolution_param {
    num_output: 16
    kernel_size: 1
    weight_filler {
      type: "xavier"
      std: 0.2
    }
    bias_filler {
      type: "constant"
      value: 0.2
    }
  }
}
layer {
  name: "inception_3a/relu_5x5_reduce"
  type: "ReLU"
  bottom: "inception_3a/5x5_reduce"
  top: "inception_3a/5x5_reduce"
}
layer {
  name: "inception_3a/5x5"
  type: "Convolution"
  bottom: "inception_3a/5x5_reduce"
  top: "inception_3a/5x5"
  param {
    lr_mult: 1
    decay_mult: 1
  }
  param {
    lr_mult: 2
    decay_mult: 0
  }
  convolution_param {
    num_output: 32
    pad: 2
    kernel_size: 5
    weight_filler {
      type: "xavier"
      std: 0.03
    }
    bias_filler {
      type: "constant"
      value: 0.2
    }
  }
}
layer {
  name: "inception_3a/relu_5x5"
  type: "ReLU"
  bottom: "inception_3a/5x5"
  top: "inception_3a/5x5"
}
layer {
  name: "inception_3a/pool"
  type: "Pooling"
  bottom: "pool2/3x3_s2"
  top: "inception_3a/pool"
  pooling_param {
    pool: MAX
    kernel_size: 3
    stride: 1
    pad: 1
  }
}
layer {
  name: "inception_3a/pool_proj"
  type: "Convolution"
  bottom: "inception_3a/pool"
  top: "inception_3a/pool_proj"
  param {
    lr_mult: 1
    decay_mult: 1
  }
  param {
    lr_mult: 2
    decay_mult: 0
  }
  convolution_param {
    num_output: 32
    kernel_size: 1
    weight_filler {
      type: "xavier"
      std: 0.1
    }
    bias_filler {
      type: "constant"
      value: 0.2
    }
  }
}
layer {
  name: "inception_3a/relu_pool_proj"
  type: "ReLU"
  bottom: "inception_3a/pool_proj"
  top: "inception_3a/pool_proj"
}
layer {
  name: "inception_3a/output"
  type: "Concat"
  bottom: "inception_3a/1x1"
  bottom: "inception_3a/3x3"
  bottom: "inception_3a/5x5"
  bottom: "inception_3a/pool_proj"
  top: "inception_3a/output"
}
layer {
  name: "inception_3b/1x1"
  type: "Convolution"
  bottom: "inception_3a/output"
  top: "inception_3b/1x1"
  param {
    lr_mult: 1
    decay_mult: 1
  }
  param {
    lr_mult: 2
    decay_mult: 0
  }
  convolution_param {
    num_output: 128
    kernel_size: 1
    weight_filler {
      type: "xavier"
      std: 0.03
    }
    bias_filler {
      type: "constant"
      value: 0.2
    }
  }
}
layer {
  name: "inception_3b/relu_1x1"
  type: "ReLU"
  bottom: "inception_3b/1x1"
  top: "inception_3b/1x1"
}
layer {
  name: "inception_3b/3x3_reduce"
  type: "Convolution"
  bottom: "inception_3a/output"
  top: "inception_3b/3x3_reduce"
  param {
    lr_mult: 1
    decay_mult: 1
  }
  param {
    lr_mult: 2
    decay_mult: 0
  }
  convolution_param {
    num_output: 128
    kernel_size: 1
    weight_filler {
      type: "xavier"
      std: 0.09
    }
    bias_filler {
      type: "constant"
      value: 0.2
    }
  }
}
layer {
  name: "inception_3b/relu_3x3_reduce"
  type: "ReLU"
  bottom: "inception_3b/3x3_reduce"
  top: "inception_3b/3x3_reduce"
}
layer {
  name: "inception_3b/3x3"
  type: "Convolution"
  bottom: "inception_3b/3x3_reduce"
  top: "inception_3b/3x3"
  param {
    lr_mult: 1
    decay_mult: 1
  }
  param {
    lr_mult: 2
    decay_mult: 0
  }
  convolution_param {
    num_output: 192
    pad: 1
    kernel_size: 3
    weight_filler {
      type: "xavier"
      std: 0.03
    }
    bias_filler {
      type: "constant"
      value: 0.2
    }
  }
}
layer {
  name: "inception_3b/relu_3x3"
  type: "ReLU"
  bottom: "inception_3b/3x3"
  top: "inception_3b/3x3"
}
layer {
  name: "inception_3b/5x5_reduce"
  type: "Convolution"
  bottom: "inception_3a/output"
  top: "inception_3b/5x5_reduce"
  param {
    lr_mult: 1
    decay_mult: 1
  }
  param {
    lr_mult: 2
    decay_mult: 0
  }
  convolution_param {
    num_output: 32
    kernel_size: 1
    weight_filler {
      type: "xavier"
      std: 0.2
    }
    bias_filler {
      type: "constant"
      value: 0.2
    }
  }
}
layer {
  name: "inception_3b/relu_5x5_reduce"
  type: "ReLU"
  bottom: "inception_3b/5x5_reduce"
  top: "inception_3b/5x5_reduce"
}
layer {
  name: "inception_3b/5x5"
  type: "Convolution"
  bottom: "inception_3b/5x5_reduce"
  top: "inception_3b/5x5"
  param {
    lr_mult: 1
    decay_mult: 1
  }
  param {
    lr_mult: 2
    decay_mult: 0
  }
  convolution_param {
    num_output: 96
    pad: 2
    kernel_size: 5
    weight_filler {
      type: "xavier"
      std: 0.03
    }
    bias_filler {
      type: "constant"
      value: 0.2
    }
  }
}
layer {
  name: "inception_3b/relu_5x5"
  type: "ReLU"
  bottom: "inception_3b/5x5"
  top: "inception_3b/5x5"
}
layer {
  name: "inception_3b/pool"
  type: "Pooling"
  bottom: "inception_3a/output"
  top: "inception_3b/pool"
  pooling_param {
    pool: MAX
    kernel_size: 3
    stride: 1
    pad: 1
  }
}
layer {
  name: "inception_3b/pool_proj"
  type: "Convolution"
  bottom: "inception_3b/pool"
  top: "inception_3b/pool_proj"
  param {
    lr_mult: 1
    decay_mult: 1
  }
  param {
    lr_mult: 2
    decay_mult: 0
  }
  convolution_param {
    num_output: 64
    kernel_size: 1
    weight_filler {
      type: "xavier"
      std: 0.1
    }
    bias_filler {
      type: "constant"
      value: 0.2
    }
  }
}
layer {
  name: "inception_3b/relu_pool_proj"
  type: "ReLU"
  bottom: "inception_3b/pool_proj"
  top: "inception_3b/pool_proj"
}
layer {
  name: "inception_3b/output"
  type: "Concat"
  bottom: "inception_3b/1x1"
  bottom: "inception_3b/3x3"
  bottom: "inception_3b/5x5"
  bottom: "inception_3b/pool_proj"
  top: "inception_3b/output"
}
layer {
  name: "pool3/3x3_s2"
  type: "Pooling"
  bottom: "inception_3b/output"
  top: "pool3/3x3_s2"
  pooling_param {
    pool: MAX
    kernel_size: 3
    stride: 2
  }
}
layer {
  name: "inception_4a/1x1"
  type: "Convolution"
  bottom: "pool3/3x3_s2"
  top: "inception_4a/1x1"
  param {
    lr_mult: 1
    decay_mult: 1
  }
  param {
    lr_mult: 2
    decay_mult: 0
  }
  convolution_param {
    num_output: 192
    kernel_size: 1
    weight_filler {
      type: "xavier"
      std: 0.03
    }
    bias_filler {
      type: "constant"
      value: 0.2
    }
  }
}
layer {
  name: "inception_4a/relu_1x1"
  type: "ReLU"
  bottom: "inception_4a/1x1"
  top: "inception_4a/1x1"
}
layer {
  name: "inception_4a/3x3_reduce"
  type: "Convolution"
  bottom: "pool3/3x3_s2"
  top: "inception_4a/3x3_reduce"
  param {
    lr_mult: 1
    decay_mult: 1
  }
  param {
    lr_mult: 2
    decay_mult: 0
  }
  convolution_param {
    num_output: 96
    kernel_size: 1
    weight_filler {
      type: "xavier"
      std: 0.09
    }
    bias_filler {
      type: "constant"
      value: 0.2
    }
  }
}
layer {
  name: "inception_4a/relu_3x3_reduce"
  type: "ReLU"
  bottom: "inception_4a/3x3_reduce"
  top: "inception_4a/3x3_reduce"
}
layer {
  name: "inception_4a/3x3"
  type: "Convolution"
  bottom: "inception_4a/3x3_reduce"
  top: "inception_4a/3x3"
  param {
    lr_mult: 1
    decay_mult: 1
  }
  param {
    lr_mult: 2
    decay_mult: 0
  }
  convolution_param {
    num_output: 208
    pad: 1
    kernel_size: 3
    weight_filler {
      type: "xavier"
      std: 0.03
    }
    bias_filler {
      type: "constant"
      value: 0.2
    }
  }
}
layer {
  name: "inception_4a/relu_3x3"
  type: "ReLU"
  bottom: "inception_4a/3x3"
  top: "inception_4a/3x3"
}
layer {
  name: "inception_4a/5x5_reduce"
  type: "Convolution"
  bottom: "pool3/3x3_s2"
  top: "inception_4a/5x5_reduce"
  param {
    lr_mult: 1
    decay_mult: 1
  }
  param {
    lr_mult: 2
    decay_mult: 0
  }
  convolution_param {
    num_output: 16
    kernel_size: 1
    weight_filler {
      type: "xavier"
      std: 0.2
    }
    bias_filler {
      type: "constant"
      value: 0.2
    }
  }
}
layer {
  name: "inception_4a/relu_5x5_reduce"
  type: "ReLU"
  bottom: "inception_4a/5x5_reduce"
  top: "inception_4a/5x5_reduce"
}
layer {
  name: "inception_4a/5x5"
  type: "Convolution"
  bottom: "inception_4a/5x5_reduce"
  top: "inception_4a/5x5"
  param {
    lr_mult: 1
    decay_mult: 1
  }
  param {
    lr_mult: 2
    decay_mult: 0
  }
  convolution_param {
    num_output: 48
    pad: 2
    kernel_size: 5
    weight_filler {
      type: "xavier"
      std: 0.03
    }
    bias_filler {
      type: "constant"
      value: 0.2
    }
  }
}
layer {
  name: "inception_4a/relu_5x5"
  type: "ReLU"
  bottom: "inception_4a/5x5"
  top: "inception_4a/5x5"
}
layer {
  name: "inception_4a/pool"
  type: "Pooling"
  bottom: "pool3/3x3_s2"
  top: "inception_4a/pool"
  pooling_param {
    pool: MAX
    kernel_size: 3
    stride: 1
    pad: 1
  }
}
layer {
  name: "inception_4a/pool_proj"
  type: "Convolution"
  bottom: "inception_4a/pool"
  top: "inception_4a/pool_proj"
  param {
    lr_mult: 1
    decay_mult: 1
  }
  param {
    lr_mult: 2
    decay_mult: 0
  }
  convolution_param {
    num_output: 64
    kernel_size: 1
    weight_filler {
      type: "xavier"
      std: 0.1
    }
    bias_filler {
      type: "constant"
      value: 0.2
    }
  }
}
layer {
  name: "inception_4a/relu_pool_proj"
  type: "ReLU"
  bottom: "inception_4a/pool_proj"
  top: "inception_4a/pool_proj"
}
layer {
  name: "inception_4a/output"
  type: "Concat"
  bottom: "inception_4a/1x1"
  bottom: "inception_4a/3x3"
  bottom: "inception_4a/5x5"
  bottom: "inception_4a/pool_proj"
  top: "inception_4a/output"
}
layer {
  name: "loss1/ave_pool"
  type: "Pooling"
  bottom: "inception_4a/output"
  top: "loss1/ave_pool"
  pooling_param {
    pool: AVE
    kernel_size: 5
    stride: 3
  }
}
layer {
  name: "loss1/conv"
  type: "Convolution"
  bottom: "loss1/ave_pool"
  top: "loss1/conv"
  param {
    lr_mult: 1
    decay_mult: 1
  }
  param {
    lr_mult: 2
    decay_mult: 0
  }
  convolution_param {
    num_output: 128
    kernel_size: 1
    weight_filler {
      type: "xavier"
      std: 0.08
    }
    bias_filler {
      type: "constant"
      value: 0.2
    }
  }
}
layer {
  name: "loss1/relu_conv"
  type: "ReLU"
  bottom: "loss1/conv"
  top: "loss1/conv"
}
layer {
  name: "loss1/fc"
  type: "InnerProduct"
  bottom: "loss1/conv"
  top: "loss1/fc"
  param {
    lr_mult: 1
    decay_mult: 1
  }
  param {
    lr_mult: 2
    decay_mult: 0
  }
  inner_product_param {
    num_output: 1024
    weight_filler {
      type: "xavier"
      std: 0.02
    }
    bias_filler {
      type: "constant"
      value: 0.2
    }
  }
}
layer {
  name: "loss1/relu_fc"
  type: "ReLU"
  bottom: "loss1/fc"
  top: "loss1/fc"
}
layer {
  name: "loss1/drop_fc"
  type: "Dropout"
  bottom: "loss1/fc"
  top: "loss1/fc"
  dropout_param {
    dropout_ratio: 0.7
  }
}
layer {
  name: "loss1/classifier_plantvillage"
  type: "InnerProduct"
  bottom: "loss1/fc"
  top: "loss1/classifier_plantvillage"
  param {
    lr_mult: 1
    decay_mult: 1
  }
  param {
    lr_mult: 2
    decay_mult: 0
  }
  inner_product_param {
    num_output: 38
    weight_filler {
      type: "xavier"
      std: 0.0009765625
    }
    bias_filler {
      type: "constant"
      value: 0
    }
  }
}
layer {
  name: "inception_4b/1x1"
  type: "Convolution"
  bottom: "inception_4a/output"
  top: "inception_4b/1x1"
  param {
    lr_mult: 1
    decay_mult: 1
  }
  param {
    lr_mult: 2
    decay_mult: 0
  }
  convolution_param {
    num_output: 160
    kernel_size: 1
    weight_filler {
      type: "xavier"
      std: 0.03
    }
    bias_filler {
      type: "constant"
      value: 0.2
    }
  }
}
layer {
  name: "inception_4b/relu_1x1"
  type: "ReLU"
  bottom: "inception_4b/1x1"
  top: "inception_4b/1x1"
}
layer {
  name: "inception_4b/3x3_reduce"
  type: "Convolution"
  bottom: "inception_4a/output"
  top: "inception_4b/3x3_reduce"
  param {
    lr_mult: 1
    decay_mult: 1
  }
  param {
    lr_mult: 2
    decay_mult: 0
  }
  convolution_param {
    num_output: 112
    kernel_size: 1
    weight_filler {
      type: "xavier"
      std: 0.09
    }
    bias_filler {
      type: "constant"
      value: 0.2
    }
  }
}
layer {
  name: "inception_4b/relu_3x3_reduce"
  type: "ReLU"
  bottom: "inception_4b/3x3_reduce"
  top: "inception_4b/3x3_reduce"
}
layer {
  name: "inception_4b/3x3"
  type: "Convolution"
  bottom: "inception_4b/3x3_reduce"
  top: "inception_4b/3x3"
  param {
    lr_mult: 1
    decay_mult: 1
  }
  param {
    lr_mult: 2
    decay_mult: 0
  }
  convolution_param {
    num_output: 224
    pad: 1
    kernel_size: 3
    weight_filler {
      type: "xavier"
      std: 0.03
    }
    bias_filler {
      type: "constant"
      value: 0.2
    }
  }
}
layer {
  name: "inception_4b/relu_3x3"
  type: "ReLU"
  bottom: "inception_4b/3x3"
  top: "inception_4b/3x3"
}
layer {
  name: "inception_4b/5x5_reduce"
  type: "Convolution"
  bottom: "inception_4a/output"
  top: "inception_4b/5x5_reduce"
  param {
    lr_mult: 1
    decay_mult: 1
  }
  param {
    lr_mult: 2
    decay_mult: 0
  }
  convolution_param {
    num_output: 24
    kernel_size: 1
    weight_filler {
      type: "xavier"
      std: 0.2
    }
    bias_filler {
      type: "constant"
      value: 0.2
    }
  }
}
layer {
  name: "inception_4b/relu_5x5_reduce"
  type: "ReLU"
  bottom: "inception_4b/5x5_reduce"
  top: "inception_4b/5x5_reduce"
}
layer {
  name: "inception_4b/5x5"
  type: "Convolution"
  bottom: "inception_4b/5x5_reduce"
  top: "inception_4b/5x5"
  param {
    lr_mult: 1
    decay_mult: 1
  }
  param {
    lr_mult: 2
    decay_mult: 0
  }
  convolution_param {
    num_output: 64
    pad: 2
    kernel_size: 5
    weight_filler {
      type: "xavier"
      std: 0.03
    }
    bias_filler {
      type: "constant"
      value: 0.2
    }
  }
}
layer {
  name: "inception_4b/relu_5x5"
  type: "ReLU"
  bottom: "inception_4b/5x5"
  top: "inception_4b/5x5"
}
layer {
  name: "inception_4b/pool"
  type: "Pooling"
  bottom: "inception_4a/output"
  top: "inception_4b/pool"
  pooling_param {
    pool: MAX
    kernel_size: 3
    stride: 1
    pad: 1
  }
}
layer {
  name: "inception_4b/pool_proj"
  type: "Convolution"
  bottom: "inception_4b/pool"
  top: "inception_4b/pool_proj"
  param {
    lr_mult: 1
    decay_mult: 1
  }
  param {
    lr_mult: 2
    decay_mult: 0
  }
  convolution_param {
    num_output: 64
    kernel_size: 1
    weight_filler {
      type: "xavier"
      std: 0.1
    }
    bias_filler {
      type: "constant"
      value: 0.2
    }
  }
}
layer {
  name: "inception_4b/relu_pool_proj"
  type: "ReLU"
  bottom: "inception_4b/pool_proj"
  top: "inception_4b/pool_proj"
}
layer {
  name: "inception_4b/output"
  type: "Concat"
  bottom: "inception_4b/1x1"
  bottom: "inception_4b/3x3"
  bottom: "inception_4b/5x5"
  bottom: "inception_4b/pool_proj"
  top: "inception_4b/output"
}
layer {
  name: "inception_4c/1x1"
  type: "Convolution"
  bottom: "inception_4b/output"
  top: "inception_4c/1x1"
  param {
    lr_mult: 1
    decay_mult: 1
  }
  param {
    lr_mult: 2
    decay_mult: 0
  }
  convolution_param {
    num_output: 128
    kernel_size: 1
    weight_filler {
      type: "xavier"
      std: 0.03
    }
    bias_filler {
      type: "constant"
      value: 0.2
    }
  }
}
layer {
  name: "inception_4c/relu_1x1"
  type: "ReLU"
  bottom: "inception_4c/1x1"
  top: "inception_4c/1x1"
}
layer {
  name: "inception_4c/3x3_reduce"
  type: "Convolution"
  bottom: "inception_4b/output"
  top: "inception_4c/3x3_reduce"
  param {
    lr_mult: 1
    decay_mult: 1
  }
  param {
    lr_mult: 2
    decay_mult: 0
  }
  convolution_param {
    num_output: 128
    kernel_size: 1
    weight_filler {
      type: "xavier"
      std: 0.09
    }
    bias_filler {
      type: "constant"
      value: 0.2
    }
  }
}
layer {
  name: "inception_4c/relu_3x3_reduce"
  type: "ReLU"
  bottom: "inception_4c/3x3_reduce"
  top: "inception_4c/3x3_reduce"
}
layer {
  name: "inception_4c/3x3"
  type: "Convolution"
  bottom: "inception_4c/3x3_reduce"
  top: "inception_4c/3x3"
  param {
    lr_mult: 1
    decay_mult: 1
  }
  param {
    lr_mult: 2
    decay_mult: 0
  }
  convolution_param {
    num_output: 256
    pad: 1
    kernel_size: 3
    weight_filler {
      type: "xavier"
      std: 0.03
    }
    bias_filler {
      type: "constant"
      value: 0.2
    }
  }
}
layer {
  name: "inception_4c/relu_3x3"
  type: "ReLU"
  bottom: "inception_4c/3x3"
  top: "inception_4c/3x3"
}
layer {
  name: "inception_4c/5x5_reduce"
  type: "Convolution"
  bottom: "inception_4b/output"
  top: "inception_4c/5x5_reduce"
  param {
    lr_mult: 1
    decay_mult: 1
  }
  param {
    lr_mult: 2
    decay_mult: 0
  }
  convolution_param {
    num_output: 24
    kernel_size: 1
    weight_filler {
      type: "xavier"
      std: 0.2
    }
    bias_filler {
      type: "constant"
      value: 0.2
    }
  }
}
layer {
  name: "inception_4c/relu_5x5_reduce"
  type: "ReLU"
  bottom: "inception_4c/5x5_reduce"
  top: "inception_4c/5x5_reduce"
}
layer {
  name: "inception_4c/5x5"
  type: "Convolution"
  bottom: "inception_4c/5x5_reduce"
  top: "inception_4c/5x5"
  param {
    lr_mult: 1
    decay_mult: 1
  }
  param {
    lr_mult: 2
    decay_mult: 0
  }
  convolution_param {
    num_output: 64
    pad: 2
    kernel_size: 5
    weight_filler {
      type: "xavier"
      std: 0.03
    }
    bias_filler {
      type: "constant"
      value: 0.2
    }
  }
}
layer {
  name: "inception_4c/relu_5x5"
  type: "ReLU"
  bottom: "inception_4c/5x5"
  top: "inception_4c/5x5"
}
layer {
  name: "inception_4c/pool"
  type: "Pooling"
  bottom: "inception_4b/output"
  top: "inception_4c/pool"
  pooling_param {
    pool: MAX
    kernel_size: 3
    stride: 1
    pad: 1
  }
}
layer {
  name: "inception_4c/pool_proj"
  type: "Convolution"
  bottom: "inception_4c/pool"
  top: "inception_4c/pool_proj"
  param {
    lr_mult: 1
    decay_mult: 1
  }
  param {
    lr_mult: 2
    decay_mult: 0
  }
  convolution_param {
    num_output: 64
    kernel_size: 1
    weight_filler {
      type: "xavier"
      std: 0.1
    }
    bias_filler {
      type: "constant"
      value: 0.2
    }
  }
}
layer {
  name: "inception_4c/relu_pool_proj"
  type: "ReLU"
  bottom: "inception_4c/pool_proj"
  top: "inception_4c/pool_proj"
}
layer {
  name: "inception_4c/output"
  type: "Concat"
  bottom: "inception_4c/1x1"
  bottom: "inception_4c/3x3"
  bottom: "inception_4c/5x5"
  bottom: "inception_4c/pool_proj"
  top: "inception_4c/output"
}
layer {
  name: "inception_4d/1x1"
  type: "Convolution"
  bottom: "inception_4c/output"
  top: "inception_4d/1x1"
  param {
    lr_mult: 1
    decay_mult: 1
  }
  param {
    lr_mult: 2
    decay_mult: 0
  }
  convolution_param {
    num_output: 112
    kernel_size: 1
    weight_filler {
      type: "xavier"
      std: 0.03
    }
    bias_filler {
      type: "constant"
      value: 0.2
    }
  }
}
layer {
  name: "inception_4d/relu_1x1"
  type: "ReLU"
  bottom: "inception_4d/1x1"
  top: "inception_4d/1x1"
}
layer {
  name: "inception_4d/3x3_reduce"
  type: "Convolution"
  bottom: "inception_4c/output"
  top: "inception_4d/3x3_reduce"
  param {
    lr_mult: 1
    decay_mult: 1
  }
  param {
    lr_mult: 2
    decay_mult: 0
  }
  convolution_param {
    num_output: 144
    kernel_size: 1
    weight_filler {
      type: "xavier"
      std: 0.09
    }
    bias_filler {
      type: "constant"
      value: 0.2
    }
  }
}
layer {
  name: "inception_4d/relu_3x3_reduce"
  type: "ReLU"
  bottom: "inception_4d/3x3_reduce"
  top: "inception_4d/3x3_reduce"
}
layer {
  name: "inception_4d/3x3"
  type: "Convolution"
  bottom: "inception_4d/3x3_reduce"
  top: "inception_4d/3x3"
  param {
    lr_mult: 1
    decay_mult: 1
  }
  param {
    lr_mult: 2
    decay_mult: 0
  }
  convolution_param {
    num_output: 288
    pad: 1
    kernel_size: 3
    weight_filler {
      type: "xavier"
      std: 0.03
    }
    bias_filler {
      type: "constant"
      value: 0.2
    }
  }
}
layer {
  name: "inception_4d/relu_3x3"
  type: "ReLU"
  bottom: "inception_4d/3x3"
  top: "inception_4d/3x3"
}
layer {
  name: "inception_4d/5x5_reduce"
  type: "Convolution"
  bottom: "inception_4c/output"
  top: "inception_4d/5x5_reduce"
  param {
    lr_mult: 1
    decay_mult: 1
  }
  param {
    lr_mult: 2
    decay_mult: 0
  }
  convolution_param {
    num_output: 32
    kernel_size: 1
    weight_filler {
      type: "xavier"
      std: 0.2
    }
    bias_filler {
      type: "constant"
      value: 0.2
    }
  }
}
layer {
  name: "inception_4d/relu_5x5_reduce"
  type: "ReLU"
  bottom: "inception_4d/5x5_reduce"
  top: "inception_4d/5x5_reduce"
}
layer {
  name: "inception_4d/5x5"
  type: "Convolution"
  bottom: "inception_4d/5x5_reduce"
  top: "inception_4d/5x5"
  param {
    lr_mult: 1
    decay_mult: 1
  }
  param {
    lr_mult: 2
    decay_mult: 0
  }
  convolution_param {
    num_output: 64
    pad: 2
    kernel_size: 5
    weight_filler {
      type: "xavier"
      std: 0.03
    }
    bias_filler {
      type: "constant"
      value: 0.2
    }
  }
}
layer {
  name: "inception_4d/relu_5x5"
  type: "ReLU"
  bottom: "inception_4d/5x5"
  top: "inception_4d/5x5"
}
layer {
  name: "inception_4d/pool"
  type: "Pooling"
  bottom: "inception_4c/output"
  top: "inception_4d/pool"
  pooling_param {
    pool: MAX
    kernel_size: 3
    stride: 1
    pad: 1
  }
}
layer {
  name: "inception_4d/pool_proj"
  type: "Convolution"
  bottom: "inception_4d/pool"
  top: "inception_4d/pool_proj"
  param {
    lr_mult: 1
    decay_mult: 1
  }
  param {
    lr_mult: 2
    decay_mult: 0
  }
  convolution_param {
    num_output: 64
    kernel_size: 1
    weight_filler {
      type: "xavier"
      std: 0.1
    }
    bias_filler {
      type: "constant"
      value: 0.2
    }
  }
}
layer {
  name: "inception_4d/relu_pool_proj"
  type: "ReLU"
  bottom: "inception_4d/pool_proj"
  top: "inception_4d/pool_proj"
}
layer {
  name: "inception_4d/output"
  type: "Concat"
  bottom: "inception_4d/1x1"
  bottom: "inception_4d/3x3"
  bottom: "inception_4d/5x5"
  bottom: "inception_4d/pool_proj"
  top: "inception_4d/output"
}
layer {
  name: "loss2/ave_pool"
  type: "Pooling"
  bottom: "inception_4d/output"
  top: "loss2/ave_pool"
  pooling_param {
    pool: AVE
    kernel_size: 5
    stride: 3
  }
}
layer {
  name: "loss2/conv"
  type: "Convolution"
  bottom: "loss2/ave_pool"
  top: "loss2/conv"
  param {
    lr_mult: 1
    decay_mult: 1
  }
  param {
    lr_mult: 2
    decay_mult: 0
  }
  convolution_param {
    num_output: 128
    kernel_size: 1
    weight_filler {
      type: "xavier"
      std: 0.08
    }
    bias_filler {
      type: "constant"
      value: 0.2
    }
  }
}
layer {
  name: "loss2/relu_conv"
  type: "ReLU"
  bottom: "loss2/conv"
  top: "loss2/conv"
}
layer {
  name: "loss2/fc"
  type: "InnerProduct"
  bottom: "loss2/conv"
  top: "loss2/fc"
  param {
    lr_mult: 1
    decay_mult: 1
  }
  param {
    lr_mult: 2
    decay_mult: 0
  }
  inner_product_param {
    num_output: 1024
    weight_filler {
      type: "xavier"
      std: 0.02
    }
    bias_filler {
      type: "constant"
      value: 0.2
    }
  }
}
layer {
  name: "loss2/relu_fc"
  type: "ReLU"
  bottom: "loss2/fc"
  top: "loss2/fc"
}
layer {
  name: "loss2/drop_fc"
  type: "Dropout"
  bottom: "loss2/fc"
  top: "loss2/fc"
  dropout_param {
    dropout_ratio: 0.7
  }
}
layer {
  name: "loss2/classifier_plantvillage"
  type: "InnerProduct"
  bottom: "loss2/fc"
  top: "loss2/classifier_plantvillage"
  param {
    lr_mult: 1
    decay_mult: 1
  }
  param {
    lr_mult: 2
    decay_mult: 0
  }
  inner_product_param {
    num_output: 38
    weight_filler {
      type: "xavier"
      std: 0.0009765625
    }
    bias_filler {
      type: "constant"
      value: 0
    }
  }
}
layer {
  name: "inception_4e/1x1"
  type: "Convolution"
  bottom: "inception_4d/output"
  top: "inception_4e/1x1"
  param {
    lr_mult: 1
    decay_mult: 1
  }
  param {
    lr_mult: 2
    decay_mult: 0
  }
  convolution_param {
    num_output: 256
    kernel_size: 1
    weight_filler {
      type: "xavier"
      std: 0.03
    }
    bias_filler {
      type: "constant"
      value: 0.2
    }
  }
}
layer {
  name: "inception_4e/relu_1x1"
  type: "ReLU"
  bottom: "inception_4e/1x1"
  top: "inception_4e/1x1"
}
layer {
  name: "inception_4e/3x3_reduce"
  type: "Convolution"
  bottom: "inception_4d/output"
  top: "inception_4e/3x3_reduce"
  param {
    lr_mult: 1
    decay_mult: 1
  }
  param {
    lr_mult: 2
    decay_mult: 0
  }
  convolution_param {
    num_output: 160
    kernel_size: 1
    weight_filler {
      type: "xavier"
      std: 0.09
    }
    bias_filler {
      type: "constant"
      value: 0.2
    }
  }
}
layer {
  name: "inception_4e/relu_3x3_reduce"
  type: "ReLU"
  bottom: "inception_4e/3x3_reduce"
  top: "inception_4e/3x3_reduce"
}
layer {
  name: "inception_4e/3x3"
  type: "Convolution"
  bottom: "inception_4e/3x3_reduce"
  top: "inception_4e/3x3"
  param {
    lr_mult: 1
    decay_mult: 1
  }
  param {
    lr_mult: 2
    decay_mult: 0
  }
  convolution_param {
    num_output: 320
    pad: 1
    kernel_size: 3
    weight_filler {
      type: "xavier"
      std: 0.03
    }
    bias_filler {
      type: "constant"
      value: 0.2
    }
  }
}
layer {
  name: "inception_4e/relu_3x3"
  type: "ReLU"
  bottom: "inception_4e/3x3"
  top: "inception_4e/3x3"
}
layer {
  name: "inception_4e/5x5_reduce"
  type: "Convolution"
  bottom: "inception_4d/output"
  top: "inception_4e/5x5_reduce"
  param {
    lr_mult: 1
    decay_mult: 1
  }
  param {
    lr_mult: 2
    decay_mult: 0
  }
  convolution_param {
    num_output: 32
    kernel_size: 1
    weight_filler {
      type: "xavier"
      std: 0.2
    }
    bias_filler {
      type: "constant"
      value: 0.2
    }
  }
}
layer {
  name: "inception_4e/relu_5x5_reduce"
  type: "ReLU"
  bottom: "inception_4e/5x5_reduce"
  top: "inception_4e/5x5_reduce"
}
layer {
  name: "inception_4e/5x5"
  type: "Convolution"
  bottom: "inception_4e/5x5_reduce"
  top: "inception_4e/
I0403 15:34:33.817721 10574 layer_factory.hpp:77] Creating layer data
I0403 15:34:33.818308 10574 net.cpp:91] Creating Layer data
I0403 15:34:33.818337 10574 net.cpp:399] data -> data
I0403 15:34:33.818388 10574 net.cpp:399] data -> label
I0403 15:34:33.818423 10574 data_transformer.cpp:25] Loading mean file from: /home/mohanty/data/final_dataset/lmdb/segmented-80-20/mean.binaryproto
I0403 15:34:33.821171 10587 db_lmdb.cpp:38] Opened lmdb /home/mohanty/data/final_dataset/lmdb/segmented-80-20/test_db
I0403 15:34:33.831212 10574 data_layer.cpp:41] output data size: 24,3,224,224
I0403 15:34:33.857686 10574 net.cpp:141] Setting up data
I0403 15:34:33.857767 10574 net.cpp:148] Top shape: 24 3 224 224 (3612672)
I0403 15:34:33.857789 10574 net.cpp:148] Top shape: 24 (24)
I0403 15:34:33.857805 10574 net.cpp:156] Memory required for data: 14450784
I0403 15:34:33.857831 10574 layer_factory.hpp:77] Creating layer label_data_1_split
I0403 15:34:33.857857 10574 net.cpp:91] Creating Layer label_data_1_split
I0403 15:34:33.857874 10574 net.cpp:425] label_data_1_split <- label
I0403 15:34:33.857904 10574 net.cpp:399] label_data_1_split -> label_data_1_split_0
I0403 15:34:33.857934 10574 net.cpp:399] label_data_1_split -> label_data_1_split_1
I0403 15:34:33.857966 10574 net.cpp:399] label_data_1_split -> label_data_1_split_2
I0403 15:34:33.857988 10574 net.cpp:399] label_data_1_split -> label_data_1_split_3
I0403 15:34:33.858008 10574 net.cpp:399] label_data_1_split -> label_data_1_split_4
I0403 15:34:33.858027 10574 net.cpp:399] label_data_1_split -> label_data_1_split_5
I0403 15:34:33.858045 10574 net.cpp:399] label_data_1_split -> label_data_1_split_6
I0403 15:34:33.858064 10574 net.cpp:399] label_data_1_split -> label_data_1_split_7
I0403 15:34:33.858083 10574 net.cpp:399] label_data_1_split -> label_data_1_split_8
I0403 15:34:33.858100 10574 net.cpp:399] label_data_1_split -> label_data_1_split_9
I0403 15:34:33.858211 10574 net.cpp:141] Setting up label_data_1_split
I0403 15:34:33.858234 10574 net.cpp:148] Top shape: 24 (24)
I0403 15:34:33.858250 10574 net.cpp:148] Top shape: 24 (24)
I0403 15:34:33.858266 10574 net.cpp:148] Top shape: 24 (24)
I0403 15:34:33.858283 10574 net.cpp:148] Top shape: 24 (24)
I0403 15:34:33.858297 10574 net.cpp:148] Top shape: 24 (24)
I0403 15:34:33.858312 10574 net.cpp:148] Top shape: 24 (24)
I0403 15:34:33.858327 10574 net.cpp:148] Top shape: 24 (24)
I0403 15:34:33.858343 10574 net.cpp:148] Top shape: 24 (24)
I0403 15:34:33.858357 10574 net.cpp:148] Top shape: 24 (24)
I0403 15:34:33.858373 10574 net.cpp:148] Top shape: 24 (24)
I0403 15:34:33.858414 10574 net.cpp:156] Memory required for data: 14451744
I0403 15:34:33.858430 10574 layer_factory.hpp:77] Creating layer conv1/7x7_s2
I0403 15:34:33.858461 10574 net.cpp:91] Creating Layer conv1/7x7_s2
I0403 15:34:33.858479 10574 net.cpp:425] conv1/7x7_s2 <- data
I0403 15:34:33.858499 10574 net.cpp:399] conv1/7x7_s2 -> conv1/7x7_s2
I0403 15:34:33.997799 10574 net.cpp:141] Setting up conv1/7x7_s2
I0403 15:34:33.997884 10574 net.cpp:148] Top shape: 24 64 112 112 (19267584)
I0403 15:34:33.997900 10574 net.cpp:156] Memory required for data: 91522080
I0403 15:34:33.997931 10574 layer_factory.hpp:77] Creating layer conv1/relu_7x7
I0403 15:34:33.997967 10574 net.cpp:91] Creating Layer conv1/relu_7x7
I0403 15:34:33.997987 10574 net.cpp:425] conv1/relu_7x7 <- conv1/7x7_s2
I0403 15:34:33.998008 10574 net.cpp:386] conv1/relu_7x7 -> conv1/7x7_s2 (in-place)
I0403 15:34:33.998281 10574 net.cpp:141] Setting up conv1/relu_7x7
I0403 15:34:33.998308 10574 net.cpp:148] Top shape: 24 64 112 112 (19267584)
I0403 15:34:33.998323 10574 net.cpp:156] Memory required for data: 168592416
I0403 15:34:33.998337 10574 layer_factory.hpp:77] Creating layer pool1/3x3_s2
I0403 15:34:33.998361 10574 net.cpp:91] Creating Layer pool1/3x3_s2
I0403 15:34:33.998379 10574 net.cpp:425] pool1/3x3_s2 <- conv1/7x7_s2
I0403 15:34:33.998399 10574 net.cpp:399] pool1/3x3_s2 -> pool1/3x3_s2
I0403 15:34:33.998476 10574 net.cpp:141] Setting up pool1/3x3_s2
I0403 15:34:33.998499 10574 net.cpp:148] Top shape: 24 64 56 56 (4816896)
I0403 15:34:33.998514 10574 net.cpp:156] Memory required for data: 187860000
I0403 15:34:33.998529 10574 layer_factory.hpp:77] Creating layer pool1/norm1
I0403 15:34:33.998555 10574 net.cpp:91] Creating Layer pool1/norm1
I0403 15:34:33.998574 10574 net.cpp:425] pool1/norm1 <- pool1/3x3_s2
I0403 15:34:33.998592 10574 net.cpp:399] pool1/norm1 -> pool1/norm1
I0403 15:34:33.998900 10574 net.cpp:141] Setting up pool1/norm1
I0403 15:34:33.998929 10574 net.cpp:148] Top shape: 24 64 56 56 (4816896)
I0403 15:34:33.998944 10574 net.cpp:156] Memory required for data: 207127584
I0403 15:34:33.998993 10574 layer_factory.hpp:77] Creating layer conv2/3x3_reduce
I0403 15:34:33.999022 10574 net.cpp:91] Creating Layer conv2/3x3_reduce
I0403 15:34:33.999042 10574 net.cpp:425] conv2/3x3_reduce <- pool1/norm1
I0403 15:34:33.999063 10574 net.cpp:399] conv2/3x3_reduce -> conv2/3x3_reduce
I0403 15:34:34.000475 10574 net.cpp:141] Setting up conv2/3x3_reduce
I0403 15:34:34.000506 10574 net.cpp:148] Top shape: 24 64 56 56 (4816896)
I0403 15:34:34.000524 10574 net.cpp:156] Memory required for data: 226395168
I0403 15:34:34.000543 10574 layer_factory.hpp:77] Creating layer conv2/relu_3x3_reduce
I0403 15:34:34.000562 10574 net.cpp:91] Creating Layer conv2/relu_3x3_reduce
I0403 15:34:34.000577 10574 net.cpp:425] conv2/relu_3x3_reduce <- conv2/3x3_reduce
I0403 15:34:34.000594 10574 net.cpp:386] conv2/relu_3x3_reduce -> conv2/3x3_reduce (in-place)
I0403 15:34:34.000864 10574 net.cpp:141] Setting up conv2/relu_3x3_reduce
I0403 15:34:34.000893 10574 net.cpp:148] Top shape: 24 64 56 56 (4816896)
I0403 15:34:34.000908 10574 net.cpp:156] Memory required for data: 245662752
I0403 15:34:34.000926 10574 layer_factory.hpp:77] Creating layer conv2/3x3
I0403 15:34:34.000954 10574 net.cpp:91] Creating Layer conv2/3x3
I0403 15:34:34.000972 10574 net.cpp:425] conv2/3x3 <- conv2/3x3_reduce
I0403 15:34:34.000991 10574 net.cpp:399] conv2/3x3 -> conv2/3x3
I0403 15:34:34.003273 10574 net.cpp:141] Setting up conv2/3x3
I0403 15:34:34.003306 10574 net.cpp:148] Top shape: 24 192 56 56 (14450688)
I0403 15:34:34.003322 10574 net.cpp:156] Memory required for data: 303465504
I0403 15:34:34.003345 10574 layer_factory.hpp:77] Creating layer conv2/relu_3x3
I0403 15:34:34.003362 10574 net.cpp:91] Creating Layer conv2/relu_3x3
I0403 15:34:34.003378 10574 net.cpp:425] conv2/relu_3x3 <- conv2/3x3
I0403 15:34:34.003394 10574 net.cpp:386] conv2/relu_3x3 -> conv2/3x3 (in-place)
I0403 15:34:34.003571 10574 net.cpp:141] Setting up conv2/relu_3x3
I0403 15:34:34.003597 10574 net.cpp:148] Top shape: 24 192 56 56 (14450688)
I0403 15:34:34.003639 10574 net.cpp:156] Memory required for data: 361268256
I0403 15:34:34.003655 10574 layer_factory.hpp:77] Creating layer conv2/norm2
I0403 15:34:34.003676 10574 net.cpp:91] Creating Layer conv2/norm2
I0403 15:34:34.003693 10574 net.cpp:425] conv2/norm2 <- conv2/3x3
I0403 15:34:34.003710 10574 net.cpp:399] conv2/norm2 -> conv2/norm2
I0403 15:34:34.004031 10574 net.cpp:141] Setting up conv2/norm2
I0403 15:34:34.004060 10574 net.cpp:148] Top shape: 24 192 56 56 (14450688)
I0403 15:34:34.004075 10574 net.cpp:156] Memory required for data: 419071008
I0403 15:34:34.004091 10574 layer_factory.hpp:77] Creating layer pool2/3x3_s2
I0403 15:34:34.004111 10574 net.cpp:91] Creating Layer pool2/3x3_s2
I0403 15:34:34.004127 10574 net.cpp:425] pool2/3x3_s2 <- conv2/norm2
I0403 15:34:34.004145 10574 net.cpp:399] pool2/3x3_s2 -> pool2/3x3_s2
I0403 15:34:34.004211 10574 net.cpp:141] Setting up pool2/3x3_s2
I0403 15:34:34.004233 10574 net.cpp:148] Top shape: 24 192 28 28 (3612672)
I0403 15:34:34.004248 10574 net.cpp:156] Memory required for data: 433521696
I0403 15:34:34.004262 10574 layer_factory.hpp:77] Creating layer pool2/3x3_s2_pool2/3x3_s2_0_split
I0403 15:34:34.004281 10574 net.cpp:91] Creating Layer pool2/3x3_s2_pool2/3x3_s2_0_split
I0403 15:34:34.004295 10574 net.cpp:425] pool2/3x3_s2_pool2/3x3_s2_0_split <- pool2/3x3_s2
I0403 15:34:34.004314 10574 net.cpp:399] pool2/3x3_s2_pool2/3x3_s2_0_split -> pool2/3x3_s2_pool2/3x3_s2_0_split_0
I0403 15:34:34.004335 10574 net.cpp:399] pool2/3x3_s2_pool2/3x3_s2_0_split -> pool2/3x3_s2_pool2/3x3_s2_0_split_1
I0403 15:34:34.004354 10574 net.cpp:399] pool2/3x3_s2_pool2/3x3_s2_0_split -> pool2/3x3_s2_pool2/3x3_s2_0_split_2
I0403 15:34:34.004374 10574 net.cpp:399] pool2/3x3_s2_pool2/3x3_s2_0_split -> pool2/3x3_s2_pool2/3x3_s2_0_split_3
I0403 15:34:34.004444 10574 net.cpp:141] Setting up pool2/3x3_s2_pool2/3x3_s2_0_split
I0403 15:34:34.004469 10574 net.cpp:148] Top shape: 24 192 28 28 (3612672)
I0403 15:34:34.004487 10574 net.cpp:148] Top shape: 24 192 28 28 (3612672)
I0403 15:34:34.004501 10574 net.cpp:148] Top shape: 24 192 28 28 (3612672)
I0403 15:34:34.004516 10574 net.cpp:148] Top shape: 24 192 28 28 (3612672)
I0403 15:34:34.004529 10574 net.cpp:156] Memory required for data: 491324448
I0403 15:34:34.004544 10574 layer_factory.hpp:77] Creating layer inception_3a/1x1
I0403 15:34:34.004566 10574 net.cpp:91] Creating Layer inception_3a/1x1
I0403 15:34:34.004583 10574 net.cpp:425] inception_3a/1x1 <- pool2/3x3_s2_pool2/3x3_s2_0_split_0
I0403 15:34:34.004602 10574 net.cpp:399] inception_3a/1x1 -> inception_3a/1x1
I0403 15:34:34.006131 10574 net.cpp:141] Setting up inception_3a/1x1
I0403 15:34:34.006160 10574 net.cpp:148] Top shape: 24 64 28 28 (1204224)
I0403 15:34:34.006176 10574 net.cpp:156] Memory required for data: 496141344
I0403 15:34:34.006196 10574 layer_factory.hpp:77] Creating layer inception_3a/relu_1x1
I0403 15:34:34.006217 10574 net.cpp:91] Creating Layer inception_3a/relu_1x1
I0403 15:34:34.006232 10574 net.cpp:425] inception_3a/relu_1x1 <- inception_3a/1x1
I0403 15:34:34.006249 10574 net.cpp:386] inception_3a/relu_1x1 -> inception_3a/1x1 (in-place)
I0403 15:34:34.006425 10574 net.cpp:141] Setting up inception_3a/relu_1x1
I0403 15:34:34.006449 10574 net.cpp:148] Top shape: 24 64 28 28 (1204224)
I0403 15:34:34.006464 10574 net.cpp:156] Memory required for data: 500958240
I0403 15:34:34.006479 10574 layer_factory.hpp:77] Creating layer inception_3a/3x3_reduce
I0403 15:34:34.006501 10574 net.cpp:91] Creating Layer inception_3a/3x3_reduce
I0403 15:34:34.006518 10574 net.cpp:425] inception_3a/3x3_reduce <- pool2/3x3_s2_pool2/3x3_s2_0_split_1
I0403 15:34:34.006538 10574 net.cpp:399] inception_3a/3x3_reduce -> inception_3a/3x3_reduce
I0403 15:34:34.008234 10574 net.cpp:141] Setting up inception_3a/3x3_reduce
I0403 15:34:34.008265 10574 net.cpp:148] Top shape: 24 96 28 28 (1806336)
I0403 15:34:34.008280 10574 net.cpp:156] Memory required for data: 508183584
I0403 15:34:34.008302 10574 layer_factory.hpp:77] Creating layer inception_3a/relu_3x3_reduce
I0403 15:34:34.008337 10574 net.cpp:91] Creating Layer inception_3a/relu_3x3_reduce
I0403 15:34:34.008355 10574 net.cpp:425] inception_3a/relu_3x3_reduce <- inception_3a/3x3_reduce
I0403 15:34:34.008374 10574 net.cpp:386] inception_3a/relu_3x3_reduce -> inception_3a/3x3_reduce (in-place)
I0403 15:34:34.008556 10574 net.cpp:141] Setting up inception_3a/relu_3x3_reduce
I0403 15:34:34.008580 10574 net.cpp:148] Top shape: 24 96 28 28 (1806336)
I0403 15:34:34.008595 10574 net.cpp:156] Memory required for data: 515408928
I0403 15:34:34.008610 10574 layer_factory.hpp:77] Creating layer inception_3a/3x3
I0403 15:34:34.008632 10574 net.cpp:91] Creating Layer inception_3a/3x3
I0403 15:34:34.008648 10574 net.cpp:425] inception_3a/3x3 <- inception_3a/3x3_reduce
I0403 15:34:34.008671 10574 net.cpp:399] inception_3a/3x3 -> inception_3a/3x3
I0403 15:34:34.010306 10574 net.cpp:141] Setting up inception_3a/3x3
I0403 15:34:34.010336 10574 net.cpp:148] Top shape: 24 128 28 28 (2408448)
I0403 15:34:34.010354 10574 net.cpp:156] Memory required for data: 525042720
I0403 15:34:34.010371 10574 layer_factory.hpp:77] Creating layer inception_3a/relu_3x3
I0403 15:34:34.010390 10574 net.cpp:91] Creating Layer inception_3a/relu_3x3
I0403 15:34:34.010406 10574 net.cpp:425] inception_3a/relu_3x3 <- inception_3a/3x3
I0403 15:34:34.010426 10574 net.cpp:386] inception_3a/relu_3x3 -> inception_3a/3x3 (in-place)
I0403 15:34:34.010699 10574 net.cpp:141] Setting up inception_3a/relu_3x3
I0403 15:34:34.010726 10574 net.cpp:148] Top shape: 24 128 28 28 (2408448)
I0403 15:34:34.010743 10574 net.cpp:156] Memory required for data: 534676512
I0403 15:34:34.010758 10574 layer_factory.hpp:77] Creating layer inception_3a/5x5_reduce
I0403 15:34:34.010781 10574 net.cpp:91] Creating Layer inception_3a/5x5_reduce
I0403 15:34:34.010797 10574 net.cpp:425] inception_3a/5x5_reduce <- pool2/3x3_s2_pool2/3x3_s2_0_split_2
I0403 15:34:34.010817 10574 net.cpp:399] inception_3a/5x5_reduce -> inception_3a/5x5_reduce
I0403 15:34:34.011772 10574 net.cpp:141] Setting up inception_3a/5x5_reduce
I0403 15:34:34.011802 10574 net.cpp:148] Top shape: 24 16 28 28 (301056)
I0403 15:34:34.011819 10574 net.cpp:156] Memory required for data: 535880736
I0403 15:34:34.011838 10574 layer_factory.hpp:77] Creating layer inception_3a/relu_5x5_reduce
I0403 15:34:34.011857 10574 net.cpp:91] Creating Layer inception_3a/relu_5x5_reduce
I0403 15:34:34.011872 10574 net.cpp:425] inception_3a/relu_5x5_reduce <- inception_3a/5x5_reduce
I0403 15:34:34.011891 10574 net.cpp:386] inception_3a/relu_5x5_reduce -> inception_3a/5x5_reduce (in-place)
I0403 15:34:34.012208 10574 net.cpp:141] Setting up inception_3a/relu_5x5_reduce
I0403 15:34:34.012235 10574 net.cpp:148] Top shape: 24 16 28 28 (301056)
I0403 15:34:34.012251 10574 net.cpp:156] Memory required for data: 537084960
I0403 15:34:34.012266 10574 layer_factory.hpp:77] Creating layer inception_3a/5x5
I0403 15:34:34.012290 10574 net.cpp:91] Creating Layer inception_3a/5x5
I0403 15:34:34.012308 10574 net.cpp:425] inception_3a/5x5 <- inception_3a/5x5_reduce
I0403 15:34:34.012331 10574 net.cpp:399] inception_3a/5x5 -> inception_3a/5x5
I0403 15:34:34.013372 10574 net.cpp:141] Setting up inception_3a/5x5
I0403 15:34:34.013401 10574 net.cpp:148] Top shape: 24 32 28 28 (602112)
I0403 15:34:34.013417 10574 net.cpp:156] Memory required for data: 539493408
I0403 15:34:34.013435 10574 layer_factory.hpp:77] Creating layer inception_3a/relu_5x5
I0403 15:34:34.013453 10574 net.cpp:91] Creating Layer inception_3a/relu_5x5
I0403 15:34:34.013468 10574 net.cpp:425] inception_3a/relu_5x5 <- inception_3a/5x5
I0403 15:34:34.013489 10574 net.cpp:386] inception_3a/relu_5x5 -> inception_3a/5x5 (in-place)
I0403 15:34:34.013660 10574 net.cpp:141] Setting up inception_3a/relu_5x5
I0403 15:34:34.013684 10574 net.cpp:148] Top shape: 24 32 28 28 (602112)
I0403 15:34:34.013700 10574 net.cpp:156] Memory required for data: 541901856
I0403 15:34:34.013713 10574 layer_factory.hpp:77] Creating layer inception_3a/pool
I0403 15:34:34.013732 10574 net.cpp:91] Creating Layer inception_3a/pool
I0403 15:34:34.013761 10574 net.cpp:425] inception_3a/pool <- pool2/3x3_s2_pool2/3x3_s2_0_split_3
I0403 15:34:34.013782 10574 net.cpp:399] inception_3a/pool -> inception_3a/pool
I0403 15:34:34.013839 10574 net.cpp:141] Setting up inception_3a/pool
I0403 15:34:34.013861 10574 net.cpp:148] Top shape: 24 192 28 28 (3612672)
I0403 15:34:34.013876 10574 net.cpp:156] Memory required for data: 556352544
I0403 15:34:34.013890 10574 layer_factory.hpp:77] Creating layer inception_3a/pool_proj
I0403 15:34:34.013914 10574 net.cpp:91] Creating Layer inception_3a/pool_proj
I0403 15:34:34.013932 10574 net.cpp:425] inception_3a/pool_proj <- inception_3a/pool
I0403 15:34:34.013955 10574 net.cpp:399] inception_3a/pool_proj -> inception_3a/pool_proj
I0403 15:34:34.014910 10574 net.cpp:141] Setting up inception_3a/pool_proj
I0403 15:34:34.014938 10574 net.cpp:148] Top shape: 24 32 28 28 (602112)
I0403 15:34:34.014958 10574 net.cpp:156] Memory required for data: 558760992
I0403 15:34:34.014982 10574 layer_factory.hpp:77] Creating layer inception_3a/relu_pool_proj
I0403 15:34:34.015002 10574 net.cpp:91] Creating Layer inception_3a/relu_pool_proj
I0403 15:34:34.015019 10574 net.cpp:425] inception_3a/relu_pool_proj <- inception_3a/pool_proj
I0403 15:34:34.015038 10574 net.cpp:386] inception_3a/relu_pool_proj -> inception_3a/pool_proj (in-place)
I0403 15:34:34.015311 10574 net.cpp:141] Setting up inception_3a/relu_pool_proj
I0403 15:34:34.015339 10574 net.cpp:148] Top shape: 24 32 28 28 (602112)
I0403 15:34:34.015355 10574 net.cpp:156] Memory required for data: 561169440
I0403 15:34:34.015370 10574 layer_factory.hpp:77] Creating layer inception_3a/output
I0403 15:34:34.015388 10574 net.cpp:91] Creating Layer inception_3a/output
I0403 15:34:34.015403 10574 net.cpp:425] inception_3a/output <- inception_3a/1x1
I0403 15:34:34.015419 10574 net.cpp:425] inception_3a/output <- inception_3a/3x3
I0403 15:34:34.015435 10574 net.cpp:425] inception_3a/output <- inception_3a/5x5
I0403 15:34:34.015451 10574 net.cpp:425] inception_3a/output <- inception_3a/pool_proj
I0403 15:34:34.015470 10574 net.cpp:399] inception_3a/output -> inception_3a/output
I0403 15:34:34.015516 10574 net.cpp:141] Setting up inception_3a/output
I0403 15:34:34.015538 10574 net.cpp:148] Top shape: 24 256 28 28 (4816896)
I0403 15:34:34.015553 10574 net.cpp:156] Memory required for data: 580437024
I0403 15:34:34.015568 10574 layer_factory.hpp:77] Creating layer inception_3a/output_inception_3a/output_0_split
I0403 15:34:34.015588 10574 net.cpp:91] Creating Layer inception_3a/output_inception_3a/output_0_split
I0403 15:34:34.015604 10574 net.cpp:425] inception_3a/output_inception_3a/output_0_split <- inception_3a/output
I0403 15:34:34.015620 10574 net.cpp:399] inception_3a/output_inception_3a/output_0_split -> inception_3a/output_inception_3a/output_0_split_0
I0403 15:34:34.015640 10574 net.cpp:399] inception_3a/output_inception_3a/output_0_split -> inception_3a/output_inception_3a/output_0_split_1
I0403 15:34:34.015666 10574 net.cpp:399] inception_3a/output_inception_3a/output_0_split -> inception_3a/output_inception_3a/output_0_split_2
I0403 15:34:34.015687 10574 net.cpp:399] inception_3a/output_inception_3a/output_0_split -> inception_3a/output_inception_3a/output_0_split_3
I0403 15:34:34.015758 10574 net.cpp:141] Setting up inception_3a/output_inception_3a/output_0_split
I0403 15:34:34.015784 10574 net.cpp:148] Top shape: 24 256 28 28 (4816896)
I0403 15:34:34.015799 10574 net.cpp:148] Top shape: 24 256 28 28 (4816896)
I0403 15:34:34.015815 10574 net.cpp:148] Top shape: 24 256 28 28 (4816896)
I0403 15:34:34.015831 10574 net.cpp:148] Top shape: 24 256 28 28 (4816896)
I0403 15:34:34.015844 10574 net.cpp:156] Memory required for data: 657507360
I0403 15:34:34.015858 10574 layer_factory.hpp:77] Creating layer inception_3b/1x1
I0403 15:34:34.015880 10574 net.cpp:91] Creating Layer inception_3b/1x1
I0403 15:34:34.015898 10574 net.cpp:425] inception_3b/1x1 <- inception_3a/output_inception_3a/output_0_split_0
I0403 15:34:34.015918 10574 net.cpp:399] inception_3b/1x1 -> inception_3b/1x1
I0403 15:34:34.017046 10574 net.cpp:141] Setting up inception_3b/1x1
I0403 15:34:34.017086 10574 net.cpp:148] Top shape: 24 128 28 28 (2408448)
I0403 15:34:34.017102 10574 net.cpp:156] Memory required for data: 667141152
I0403 15:34:34.017120 10574 layer_factory.hpp:77] Creating layer inception_3b/relu_1x1
I0403 15:34:34.017143 10574 net.cpp:91] Creating Layer inception_3b/relu_1x1
I0403 15:34:34.017158 10574 net.cpp:425] inception_3b/relu_1x1 <- inception_3b/1x1
I0403 15:34:34.017175 10574 net.cpp:386] inception_3b/relu_1x1 -> inception_3b/1x1 (in-place)
I0403 15:34:34.017352 10574 net.cpp:141] Setting up inception_3b/relu_1x1
I0403 15:34:34.017379 10574 net.cpp:148] Top shape: 24 128 28 28 (2408448)
I0403 15:34:34.017395 10574 net.cpp:156] Memory required for data: 676774944
I0403 15:34:34.017410 10574 layer_factory.hpp:77] Creating layer inception_3b/3x3_reduce
I0403 15:34:34.017432 10574 net.cpp:91] Creating Layer inception_3b/3x3_reduce
I0403 15:34:34.017449 10574 net.cpp:425] inception_3b/3x3_reduce <- inception_3a/output_inception_3a/output_0_split_1
I0403 15:34:34.017468 10574 net.cpp:399] inception_3b/3x3_reduce -> inception_3b/3x3_reduce
I0403 15:34:34.018605 10574 net.cpp:141] Setting up inception_3b/3x3_reduce
I0403 15:34:34.018633 10574 net.cpp:148] Top shape: 24 128 28 28 (2408448)
I0403 15:34:34.018648 10574 net.cpp:156] Memory required for data: 686408736
I0403 15:34:34.018667 10574 layer_factory.hpp:77] Creating layer inception_3b/relu_3x3_reduce
I0403 15:34:34.018687 10574 net.cpp:91] Creating Layer inception_3b/relu_3x3_reduce
I0403 15:34:34.018703 10574 net.cpp:425] inception_3b/relu_3x3_reduce <- inception_3b/3x3_reduce
I0403 15:34:34.018721 10574 net.cpp:386] inception_3b/relu_3x3_reduce -> inception_3b/3x3_reduce (in-place)
I0403 15:34:34.018893 10574 net.cpp:141] Setting up inception_3b/relu_3x3_reduce
I0403 15:34:34.018920 10574 net.cpp:148] Top shape: 24 128 28 28 (2408448)
I0403 15:34:34.018934 10574 net.cpp:156] Memory required for data: 696042528
I0403 15:34:34.018954 10574 layer_factory.hpp:77] Creating layer inception_3b/3x3
I0403 15:34:34.018980 10574 net.cpp:91] Creating Layer inception_3b/3x3
I0403 15:34:34.018997 10574 net.cpp:425] inception_3b/3x3 <- inception_3b/3x3_reduce
I0403 15:34:34.019018 10574 net.cpp:399] inception_3b/3x3 -> inception_3b/3x3
I0403 15:34:34.021911 10574 net.cpp:141] Setting up inception_3b/3x3
I0403 15:34:34.021941 10574 net.cpp:148] Top shape: 24 192 28 28 (3612672)
I0403 15:34:34.021962 10574 net.cpp:156] Memory required for data: 710493216
I0403 15:34:34.021981 10574 layer_factory.hpp:77] Creating layer inception_3b/relu_3x3
I0403 15:34:34.021999 10574 net.cpp:91] Creating Layer inception_3b/relu_3x3
I0403 15:34:34.022014 10574 net.cpp:425] inception_3b/relu_3x3 <- inception_3b/3x3
I0403 15:34:34.022034 10574 net.cpp:386] inception_3b/relu_3x3 -> inception_3b/3x3 (in-place)
I0403 15:34:34.022306 10574 net.cpp:141] Setting up inception_3b/relu_3x3
I0403 15:34:34.022335 10574 net.cpp:148] Top shape: 24 192 28 28 (3612672)
I0403 15:34:34.022351 10574 net.cpp:156] Memory required for data: 724943904
I0403 15:34:34.022366 10574 layer_factory.hpp:77] Creating layer inception_3b/5x5_reduce
I0403 15:34:34.022389 10574 net.cpp:91] Creating Layer inception_3b/5x5_reduce
I0403 15:34:34.022406 10574 net.cpp:425] inception_3b/5x5_reduce <- inception_3a/output_inception_3a/output_0_split_2
I0403 15:34:34.022426 10574 net.cpp:399] inception_3b/5x5_reduce -> inception_3b/5x5_reduce
I0403 15:34:34.023407 10574 net.cpp:141] Setting up inception_3b/5x5_reduce
I0403 15:34:34.023437 10574 net.cpp:148] Top shape: 24 32 28 28 (602112)
I0403 15:34:34.023453 10574 net.cpp:156] Memory required for data: 727352352
I0403 15:34:34.023473 10574 layer_factory.hpp:77] Creating layer inception_3b/relu_5x5_reduce
I0403 15:34:34.023489 10574 net.cpp:91] Creating Layer inception_3b/relu_5x5_reduce
I0403 15:34:34.023505 10574 net.cpp:425] inception_3b/relu_5x5_reduce <- inception_3b/5x5_reduce
I0403 15:34:34.023525 10574 net.cpp:386] inception_3b/relu_5x5_reduce -> inception_3b/5x5_reduce (in-place)
I0403 15:34:34.023717 10574 net.cpp:141] Setting up inception_3b/relu_5x5_reduce
I0403 15:34:34.023742 10574 net.cpp:148] Top shape: 24 32 28 28 (602112)
I0403 15:34:34.023757 10574 net.cpp:156] Memory required for data: 729760800
I0403 15:34:34.023772 10574 layer_factory.hpp:77] Creating layer inception_3b/5x5
I0403 15:34:34.023794 10574 net.cpp:91] Creating Layer inception_3b/5x5
I0403 15:34:34.023813 10574 net.cpp:425] inception_3b/5x5 <- inception_3b/5x5_reduce
I0403 15:34:34.023833 10574 net.cpp:399] inception_3b/5x5 -> inception_3b/5x5
I0403 15:34:34.025863 10574 net.cpp:141] Setting up inception_3b/5x5
I0403 15:34:34.025893 10574 net.cpp:148] Top shape: 24 96 28 28 (1806336)
I0403 15:34:34.025910 10574 net.cpp:156] Memory required for data: 736986144
I0403 15:34:34.025931 10574 layer_factory.hpp:77] Creating layer inception_3b/relu_5x5
I0403 15:34:34.025957 10574 net.cpp:91] Creating Layer inception_3b/relu_5x5
I0403 15:34:34.025977 10574 net.cpp:425] inception_3b/relu_5x5 <- inception_3b/5x5
I0403 15:34:34.025995 10574 net.cpp:386] inception_3b/relu_5x5 -> inception_3b/5x5 (in-place)
I0403 15:34:34.026204 10574 net.cpp:141] Setting up inception_3b/relu_5x5
I0403 15:34:34.026232 10574 net.cpp:148] Top shape: 24 96 28 28 (1806336)
I0403 15:34:34.026247 10574 net.cpp:156] Memory required for data: 744211488
I0403 15:34:34.026275 10574 layer_factory.hpp:77] Creating layer inception_3b/pool
I0403 15:34:34.026293 10574 net.cpp:91] Creating Layer inception_3b/pool
I0403 15:34:34.026310 10574 net.cpp:425] inception_3b/pool <- inception_3a/output_inception_3a/output_0_split_3
I0403 15:34:34.026340 10574 net.cpp:399] inception_3b/pool -> inception_3b/pool
I0403 15:34:34.026394 10574 net.cpp:141] Setting up inception_3b/pool
I0403 15:34:34.026417 10574 net.cpp:148] Top shape: 24 256 28 28 (4816896)
I0403 15:34:34.026430 10574 net.cpp:156] Memory required for data: 763479072
I0403 15:34:34.026445 10574 layer_factory.hpp:77] Creating layer inception_3b/pool_proj
I0403 15:34:34.026468 10574 net.cpp:91] Creating Layer inception_3b/pool_proj
I0403 15:34:34.026486 10574 net.cpp:425] inception_3b/pool_proj <- inception_3b/pool
I0403 15:34:34.026504 10574 net.cpp:399] inception_3b/pool_proj -> inception_3b/pool_proj
I0403 15:34:34.027623 10574 net.cpp:141] Setting up inception_3b/pool_proj
I0403 15:34:34.027652 10574 net.cpp:148] Top shape: 24 64 28 28 (1204224)
I0403 15:34:34.027667 10574 net.cpp:156] Memory required for data: 768295968
I0403 15:34:34.027685 10574 layer_factory.hpp:77] Creating layer inception_3b/relu_pool_proj
I0403 15:34:34.027704 10574 net.cpp:91] Creating Layer inception_3b/relu_pool_proj
I0403 15:34:34.027720 10574 net.cpp:425] inception_3b/relu_pool_proj <- inception_3b/pool_proj
I0403 15:34:34.027740 10574 net.cpp:386] inception_3b/relu_pool_proj -> inception_3b/pool_proj (in-place)
I0403 15:34:34.028184 10574 net.cpp:141] Setting up inception_3b/relu_pool_proj
I0403 15:34:34.028213 10574 net.cpp:148] Top shape: 24 64 28 28 (1204224)
I0403 15:34:34.028228 10574 net.cpp:156] Memory required for data: 773112864
I0403 15:34:34.028244 10574 layer_factory.hpp:77] Creating layer inception_3b/output
I0403 15:34:34.028275 10574 net.cpp:91] Creating Layer inception_3b/output
I0403 15:34:34.028290 10574 net.cpp:425] inception_3b/output <- inception_3b/1x1
I0403 15:34:34.028307 10574 net.cpp:425] inception_3b/output <- inception_3b/3x3
I0403 15:34:34.028336 10574 net.cpp:425] inception_3b/output <- inception_3b/5x5
I0403 15:34:34.028352 10574 net.cpp:425] inception_3b/output <- inception_3b/pool_proj
I0403 15:34:34.028370 10574 net.cpp:399] inception_3b/output -> inception_3b/output
I0403 15:34:34.028412 10574 net.cpp:141] Setting up inception_3b/output
I0403 15:34:34.028437 10574 net.cpp:148] Top shape: 24 480 28 28 (9031680)
I0403 15:34:34.028453 10574 net.cpp:156] Memory required for data: 809239584
I0403 15:34:34.028467 10574 layer_factory.hpp:77] Creating layer pool3/3x3_s2
I0403 15:34:34.028486 10574 net.cpp:91] Creating Layer pool3/3x3_s2
I0403 15:34:34.028501 10574 net.cpp:425] pool3/3x3_s2 <- inception_3b/output
I0403 15:34:34.028537 10574 net.cpp:399] pool3/3x3_s2 -> pool3/3x3_s2
I0403 15:34:34.028594 10574 net.cpp:141] Setting up pool3/3x3_s2
I0403 15:34:34.028617 10574 net.cpp:148] Top shape: 24 480 14 14 (2257920)
I0403 15:34:34.028631 10574 net.cpp:156] Memory required for data: 818271264
I0403 15:34:34.028646 10574 layer_factory.hpp:77] Creating layer pool3/3x3_s2_pool3/3x3_s2_0_split
I0403 15:34:34.028666 10574 net.cpp:91] Creating Layer pool3/3x3_s2_pool3/3x3_s2_0_split
I0403 15:34:34.028681 10574 net.cpp:425] pool3/3x3_s2_pool3/3x3_s2_0_split <- pool3/3x3_s2
I0403 15:34:34.028697 10574 net.cpp:399] pool3/3x3_s2_pool3/3x3_s2_0_split -> pool3/3x3_s2_pool3/3x3_s2_0_split_0
I0403 15:34:34.028715 10574 net.cpp:399] pool3/3x3_s2_pool3/3x3_s2_0_split -> pool3/3x3_s2_pool3/3x3_s2_0_split_1
I0403 15:34:34.028734 10574 net.cpp:399] pool3/3x3_s2_pool3/3x3_s2_0_split -> pool3/3x3_s2_pool3/3x3_s2_0_split_2
I0403 15:34:34.028753 10574 net.cpp:399] pool3/3x3_s2_pool3/3x3_s2_0_split -> pool3/3x3_s2_pool3/3x3_s2_0_split_3
I0403 15:34:34.028828 10574 net.cpp:141] Setting up pool3/3x3_s2_pool3/3x3_s2_0_split
I0403 15:34:34.028851 10574 net.cpp:148] Top shape: 24 480 14 14 (2257920)
I0403 15:34:34.028867 10574 net.cpp:148] Top shape: 24 480 14 14 (2257920)
I0403 15:34:34.028882 10574 net.cpp:148] Top shape: 24 480 14 14 (2257920)
I0403 15:34:34.028898 10574 net.cpp:148] Top shape: 24 480 14 14 (2257920)
I0403 15:34:34.028911 10574 net.cpp:156] Memory required for data: 854397984
I0403 15:34:34.028928 10574 layer_factory.hpp:77] Creating layer inception_4a/1x1
I0403 15:34:34.028965 10574 net.cpp:91] Creating Layer inception_4a/1x1
I0403 15:34:34.028985 10574 net.cpp:425] inception_4a/1x1 <- pool3/3x3_s2_pool3/3x3_s2_0_split_0
I0403 15:34:34.029006 10574 net.cpp:399] inception_4a/1x1 -> inception_4a/1x1
I0403 15:34:34.030673 10574 net.cpp:141] Setting up inception_4a/1x1
I0403 15:34:34.030700 10574 net.cpp:148] Top shape: 24 192 14 14 (903168)
I0403 15:34:34.030716 10574 net.cpp:156] Memory required for data: 858010656
I0403 15:34:34.030735 10574 layer_factory.hpp:77] Creating layer inception_4a/relu_1x1
I0403 15:34:34.030755 10574 net.cpp:91] Creating Layer inception_4a/relu_1x1
I0403 15:34:34.030771 10574 net.cpp:425] inception_4a/relu_1x1 <- inception_4a/1x1
I0403 15:34:34.030788 10574 net.cpp:386] inception_4a/relu_1x1 -> inception_4a/1x1 (in-place)
I0403 15:34:34.030982 10574 net.cpp:141] Setting up inception_4a/relu_1x1
I0403 15:34:34.031009 10574 net.cpp:148] Top shape: 24 192 14 14 (903168)
I0403 15:34:34.031038 10574 net.cpp:156] Memory required for data: 861623328
I0403 15:34:34.031054 10574 layer_factory.hpp:77] Creating layer inception_4a/3x3_reduce
I0403 15:34:34.031075 10574 net.cpp:91] Creating Layer inception_4a/3x3_reduce
I0403 15:34:34.031092 10574 net.cpp:425] inception_4a/3x3_reduce <- pool3/3x3_s2_pool3/3x3_s2_0_split_1
I0403 15:34:34.031116 10574 net.cpp:399] inception_4a/3x3_reduce -> inception_4a/3x3_reduce
I0403 15:34:34.032474 10574 net.cpp:141] Setting up inception_4a/3x3_reduce
I0403 15:34:34.032501 10574 net.cpp:148] Top shape: 24 96 14 14 (451584)
I0403 15:34:34.032516 10574 net.cpp:156] Memory required for data: 863429664
I0403 15:34:34.032541 10574 layer_factory.hpp:77] Creating layer inception_4a/relu_3x3_reduce
I0403 15:34:34.032560 10574 net.cpp:91] Creating Layer inception_4a/relu_3x3_reduce
I0403 15:34:34.032577 10574 net.cpp:425] inception_4a/relu_3x3_reduce <- inception_4a/3x3_reduce
I0403 15:34:34.032595 10574 net.cpp:386] inception_4a/relu_3x3_reduce -> inception_4a/3x3_reduce (in-place)
I0403 15:34:34.032773 10574 net.cpp:141] Setting up inception_4a/relu_3x3_reduce
I0403 15:34:34.032796 10574 net.cpp:148] Top shape: 24 96 14 14 (451584)
I0403 15:34:34.032811 10574 net.cpp:156] Memory required for data: 865236000
I0403 15:34:34.032826 10574 layer_factory.hpp:77] Creating layer inception_4a/3x3
I0403 15:34:34.032848 10574 net.cpp:91] Creating Layer inception_4a/3x3
I0403 15:34:34.032866 10574 net.cpp:425] inception_4a/3x3 <- inception_4a/3x3_reduce
I0403 15:34:34.032886 10574 net.cpp:399] inception_4a/3x3 -> inception_4a/3x3
I0403 15:34:34.035729 10574 net.cpp:141] Setting up inception_4a/3x3
I0403 15:34:34.035758 10574 net.cpp:148] Top shape: 24 208 14 14 (978432)
I0403 15:34:34.035773 10574 net.cpp:156] Memory required for data: 869149728
I0403 15:34:34.035791 10574 layer_factory.hpp:77] Creating layer inception_4a/relu_3x3
I0403 15:34:34.035811 10574 net.cpp:91] Creating Layer inception_4a/relu_3x3
I0403 15:34:34.035828 10574 net.cpp:425] inception_4a/relu_3x3 <- inception_4a/3x3
I0403 15:34:34.035845 10574 net.cpp:386] inception_4a/relu_3x3 -> inception_4a/3x3 (in-place)
I0403 15:34:34.036157 10574 net.cpp:141] Setting up inception_4a/relu_3x3
I0403 15:34:34.036185 10574 net.cpp:148] Top shape: 24 208 14 14 (978432)
I0403 15:34:34.036201 10574 net.cpp:156] Memory required for data: 873063456
I0403 15:34:34.036217 10574 layer_factory.hpp:77] Creating layer inception_4a/5x5_reduce
I0403 15:34:34.036255 10574 net.cpp:91] Creating Layer inception_4a/5x5_reduce
I0403 15:34:34.036273 10574 net.cpp:425] inception_4a/5x5_reduce <- pool3/3x3_s2_pool3/3x3_s2_0_split_2
I0403 15:34:34.036293 10574 net.cpp:399] inception_4a/5x5_reduce -> inception_4a/5x5_reduce
I0403 15:34:34.037394 10574 net.cpp:141] Setting up inception_4a/5x5_reduce
I0403 15:34:34.037421 10574 net.cpp:148] Top shape: 24 16 14 14 (75264)
I0403 15:34:34.037438 10574 net.cpp:156] Memory required for data: 873364512
I0403 15:34:34.037456 10574 layer_factory.hpp:77] Creating layer inception_4a/relu_5x5_reduce
I0403 15:34:34.037473 10574 net.cpp:91] Creating Layer inception_4a/relu_5x5_reduce
I0403 15:34:34.037488 10574 net.cpp:425] inception_4a/relu_5x5_reduce <- inception_4a/5x5_reduce
I0403 15:34:34.037508 10574 net.cpp:386] inception_4a/relu_5x5_reduce -> inception_4a/5x5_reduce (in-place)
I0403 15:34:34.037680 10574 net.cpp:141] Setting up inception_4a/relu_5x5_reduce
I0403 15:34:34.037704 10574 net.cpp:148] Top shape: 24 16 14 14 (75264)
I0403 15:34:34.037719 10574 net.cpp:156] Memory required for data: 873665568
I0403 15:34:34.037732 10574 layer_factory.hpp:77] Creating layer inception_4a/5x5
I0403 15:34:34.037753 10574 net.cpp:91] Creating Layer inception_4a/5x5
I0403 15:34:34.037770 10574 net.cpp:425] inception_4a/5x5 <- inception_4a/5x5_reduce
I0403 15:34:34.037791 10574 net.cpp:399] inception_4a/5x5 -> inception_4a/5x5
I0403 15:34:34.038915 10574 net.cpp:141] Setting up inception_4a/5x5
I0403 15:34:34.038941 10574 net.cpp:148] Top shape: 24 48 14 14 (225792)
I0403 15:34:34.038974 10574 net.cpp:156] Memory required for data: 874568736
I0403 15:34:34.038992 10574 layer_factory.hpp:77] Creating layer inception_4a/relu_5x5
I0403 15:34:34.039011 10574 net.cpp:91] Creating Layer inception_4a/relu_5x5
I0403 15:34:34.039041 10574 net.cpp:425] inception_4a/relu_5x5 <- inception_4a/5x5
I0403 15:34:34.039058 10574 net.cpp:386] inception_4a/relu_5x5 -> inception_4a/5x5 (in-place)
I0403 15:34:34.039243 10574 net.cpp:141] Setting up inception_4a/relu_5x5
I0403 15:34:34.039279 10574 net.cpp:148] Top shape: 24 48 14 14 (225792)
I0403 15:34:34.039294 10574 net.cpp:156] Memory required for data: 875471904
I0403 15:34:34.039320 10574 layer_factory.hpp:77] Creating layer inception_4a/pool
I0403 15:34:34.039340 10574 net.cpp:91] Creating Layer inception_4a/pool
I0403 15:34:34.039355 10574 net.cpp:425] inception_4a/pool <- pool3/3x3_s2_pool3/3x3_s2_0_split_3
I0403 15:34:34.039373 10574 net.cpp:399] inception_4a/pool -> inception_4a/pool
I0403 15:34:34.039433 10574 net.cpp:141] Setting up inception_4a/pool
I0403 15:34:34.039454 10574 net.cpp:148] Top shape: 24 480 14 14 (2257920)
I0403 15:34:34.039469 10574 net.cpp:156] Memory required for data: 884503584
I0403 15:34:34.039484 10574 layer_factory.hpp:77] Creating layer inception_4a/pool_proj
I0403 15:34:34.039504 10574 net.cpp:91] Creating Layer inception_4a/pool_proj
I0403 15:34:34.039520 10574 net.cpp:425] inception_4a/pool_proj <- inception_4a/pool
I0403 15:34:34.039540 10574 net.cpp:399] inception_4a/pool_proj -> inception_4a/pool_proj
I0403 15:34:34.040722 10574 net.cpp:141] Setting up inception_4a/pool_proj
I0403 15:34:34.040750 10574 net.cpp:148] Top shape: 24 64 14 14 (301056)
I0403 15:34:34.040778 10574 net.cpp:156] Memory required for data: 885707808
I0403 15:34:34.040797 10574 layer_factory.hpp:77] Creating layer inception_4a/relu_pool_proj
I0403 15:34:34.040817 10574 net.cpp:91] Creating Layer inception_4a/relu_pool_proj
I0403 15:34:34.040833 10574 net.cpp:425] inception_4a/relu_pool_proj <- inception_4a/pool_proj
I0403 15:34:34.040850 10574 net.cpp:386] inception_4a/relu_pool_proj -> inception_4a/pool_proj (in-place)
I0403 15:34:34.041165 10574 net.cpp:141] Setting up inception_4a/relu_pool_proj
I0403 15:34:34.041193 10574 net.cpp:148] Top shape: 24 64 14 14 (301056)
I0403 15:34:34.041208 10574 net.cpp:156] Memory required for data: 886912032
I0403 15:34:34.041224 10574 layer_factory.hpp:77] Creating layer inception_4a/output
I0403 15:34:34.041240 10574 net.cpp:91] Creating Layer inception_4a/output
I0403 15:34:34.041267 10574 net.cpp:425] inception_4a/output <- inception_4a/1x1
I0403 15:34:34.041286 10574 net.cpp:425] inception_4a/output <- inception_4a/3x3
I0403 15:34:34.041303 10574 net.cpp:425] inception_4a/output <- inception_4a/5x5
I0403 15:34:34.041331 10574 net.cpp:425] inception_4a/output <- inception_4a/pool_proj
I0403 15:34:34.041347 10574 net.cpp:399] inception_4a/output -> inception_4a/output
I0403 15:34:34.041388 10574 net.cpp:141] Setting up inception_4a/output
I0403 15:34:34.041411 10574 net.cpp:148] Top shape: 24 512 14 14 (2408448)
I0403 15:34:34.041426 10574 net.cpp:156] Memory required for data: 896545824
I0403 15:34:34.041440 10574 layer_factory.hpp:77] Creating layer inception_4a/output_inception_4a/output_0_split
I0403 15:34:34.041457 10574 net.cpp:91] Creating Layer inception_4a/output_inception_4a/output_0_split
I0403 15:34:34.041472 10574 net.cpp:425] inception_4a/output_inception_4a/output_0_split <- inception_4a/output
I0403 15:34:34.041492 10574 net.cpp:399] inception_4a/output_inception_4a/output_0_split -> inception_4a/output_inception_4a/output_0_split_0
I0403 15:34:34.041512 10574 net.cpp:399] inception_4a/output_inception_4a/output_0_split -> inception_4a/output_inception_4a/output_0_split_1
I0403 15:34:34.041532 10574 net.cpp:399] inception_4a/output_inception_4a/output_0_split -> inception_4a/output_inception_4a/output_0_split_2
I0403 15:34:34.041550 10574 net.cpp:399] inception_4a/output_inception_4a/output_0_split -> inception_4a/output_inception_4a/output_0_split_3
I0403 15:34:34.041569 10574 net.cpp:399] inception_4a/output_inception_4a/output_0_split -> inception_4a/output_inception_4a/output_0_split_4
I0403 15:34:34.041657 10574 net.cpp:141] Setting up inception_4a/output_inception_4a/output_0_split
I0403 15:34:34.041681 10574 net.cpp:148] Top shape: 24 512 14 14 (2408448)
I0403 15:34:34.041702 10574 net.cpp:148] Top shape: 24 512 14 14 (2408448)
I0403 15:34:34.041718 10574 net.cpp:148] Top shape: 24 512 14 14 (2408448)
I0403 15:34:34.041733 10574 net.cpp:148] Top shape: 24 512 14 14 (2408448)
I0403 15:34:34.041748 10574 net.cpp:148] Top shape: 24 512 14 14 (2408448)
I0403 15:34:34.041761 10574 net.cpp:156] Memory required for data: 944714784
I0403 15:34:34.041775 10574 layer_factory.hpp:77] Creating layer loss1/ave_pool
I0403 15:34:34.041792 10574 net.cpp:91] Creating Layer loss1/ave_pool
I0403 15:34:34.041807 10574 net.cpp:425] loss1/ave_pool <- inception_4a/output_inception_4a/output_0_split_0
I0403 15:34:34.041826 10574 net.cpp:399] loss1/ave_pool -> loss1/ave_pool
I0403 15:34:34.042058 10574 net.cpp:141] Setting up loss1/ave_pool
I0403 15:34:34.042084 10574 net.cpp:148] Top shape: 24 512 4 4 (196608)
I0403 15:34:34.042100 10574 net.cpp:156] Memory required for data: 945501216
I0403 15:34:34.042115 10574 layer_factory.hpp:77] Creating layer loss1/conv
I0403 15:34:34.042137 10574 net.cpp:91] Creating Layer loss1/conv
I0403 15:34:34.042155 10574 net.cpp:425] loss1/conv <- loss1/ave_pool
I0403 15:34:34.042176 10574 net.cpp:399] loss1/conv -> loss1/conv
I0403 15:34:34.043638 10574 net.cpp:141] Setting up loss1/conv
I0403 15:34:34.043665 10574 net.cpp:148] Top shape: 24 128 4 4 (49152)
I0403 15:34:34.043694 10574 net.cpp:156] Memory required for data: 945697824
I0403 15:34:34.043714 10574 layer_factory.hpp:77] Creating layer loss1/relu_conv
I0403 15:34:34.043732 10574 net.cpp:91] Creating Layer loss1/relu_conv
I0403 15:34:34.043748 10574 net.cpp:425] loss1/relu_conv <- loss1/conv
I0403 15:34:34.043764 10574 net.cpp:386] loss1/relu_conv -> loss1/conv (in-place)
I0403 15:34:34.044076 10574 net.cpp:141] Setting up loss1/relu_conv
I0403 15:34:34.044103 10574 net.cpp:148] Top shape: 24 128 4 4 (49152)
I0403 15:34:34.044118 10574 net.cpp:156] Memory required for data: 945894432
I0403 15:34:34.044134 10574 layer_factory.hpp:77] Creating layer loss1/fc
I0403 15:34:34.044160 10574 net.cpp:91] Creating Layer loss1/fc
I0403 15:34:34.044179 10574 net.cpp:425] loss1/fc <- loss1/conv
I0403 15:34:34.044200 10574 net.cpp:399] loss1/fc -> loss1/fc
I0403 15:34:34.062692 10574 net.cpp:141] Setting up loss1/fc
I0403 15:34:34.062726 10574 net.cpp:148] Top shape: 24 1024 (24576)
I0403 15:34:34.062741 10574 net.cpp:156] Memory required for data: 945992736
I0403 15:34:34.062758 10574 layer_factory.hpp:77] Creating layer loss1/relu_fc
I0403 15:34:34.062777 10574 net.cpp:91] Creating Layer loss1/relu_fc
I0403 15:34:34.062791 10574 net.cpp:425] loss1/relu_fc <- loss1/fc
I0403 15:34:34.062813 10574 net.cpp:386] loss1/relu_fc -> loss1/fc (in-place)
I0403 15:34:34.063014 10574 net.cpp:141] Setting up loss1/relu_fc
I0403 15:34:34.063052 10574 net.cpp:148] Top shape: 24 1024 (24576)
I0403 15:34:34.063069 10574 net.cpp:156] Memory required for data: 946091040
I0403 15:34:34.063097 10574 layer_factory.hpp:77] Creating layer loss1/drop_fc
I0403 15:34:34.063123 10574 net.cpp:91] Creating Layer loss1/drop_fc
I0403 15:34:34.063143 10574 net.cpp:425] loss1/drop_fc <- loss1/fc
I0403 15:34:34.063160 10574 net.cpp:386] loss1/drop_fc -> loss1/fc (in-place)
I0403 15:34:34.063215 10574 net.cpp:141] Setting up loss1/drop_fc
I0403 15:34:34.063241 10574 net.cpp:148] Top shape: 24 1024 (24576)
I0403 15:34:34.063267 10574 net.cpp:156] Memory required for data: 946189344
I0403 15:34:34.063282 10574 layer_factory.hpp:77] Creating layer loss1/classifier_plantvillage
I0403 15:34:34.063302 10574 net.cpp:91] Creating Layer loss1/classifier_plantvillage
I0403 15:34:34.063329 10574 net.cpp:425] loss1/classifier_plantvillage <- loss1/fc
I0403 15:34:34.063351 10574 net.cpp:399] loss1/classifier_plantvillage -> loss1/classifier_plantvillage
I0403 15:34:34.064340 10574 net.cpp:141] Setting up loss1/classifier_plantvillage
I0403 15:34:34.064368 10574 net.cpp:148] Top shape: 24 38 (912)
I0403 15:34:34.064395 10574 net.cpp:156] Memory required for data: 946192992
I0403 15:34:34.064412 10574 layer_factory.hpp:77] Creating layer loss1/classifier_plantvillage_loss1/classifier_plantvillage_0_split
I0403 15:34:34.064432 10574 net.cpp:91] Creating Layer loss1/classifier_plantvillage_loss1/classifier_plantvillage_0_split
I0403 15:34:34.064448 10574 net.cpp:425] loss1/classifier_plantvillage_loss1/classifier_plantvillage_0_split <- loss1/classifier_plantvillage
I0403 15:34:34.064465 10574 net.cpp:399] loss1/classifier_plantvillage_loss1/classifier_plantvillage_0_split -> loss1/classifier_plantvillage_loss1/classifier_plantvillage_0_split_0
I0403 15:34:34.064484 10574 net.cpp:399] loss1/classifier_plantvillage_loss1/classifier_plantvillage_0_split -> loss1/classifier_plantvillage_loss1/classifier_plantvillage_0_split_1
I0403 15:34:34.064503 10574 net.cpp:399] loss1/classifier_plantvillage_loss1/classifier_plantvillage_0_split -> loss1/classifier_plantvillage_loss1/classifier_plantvillage_0_split_2
I0403 15:34:34.064569 10574 net.cpp:141] Setting up loss1/classifier_plantvillage_loss1/classifier_plantvillage_0_split
I0403 15:34:34.064591 10574 net.cpp:148] Top shape: 24 38 (912)
I0403 15:34:34.064606 10574 net.cpp:148] Top shape: 24 38 (912)
I0403 15:34:34.064622 10574 net.cpp:148] Top shape: 24 38 (912)
I0403 15:34:34.064635 10574 net.cpp:156] Memory required for data: 946203936
I0403 15:34:34.064649 10574 layer_factory.hpp:77] Creating layer inception_4b/1x1
I0403 15:34:34.064671 10574 net.cpp:91] Creating Layer inception_4b/1x1
I0403 15:34:34.064702 10574 net.cpp:425] inception_4b/1x1 <- inception_4a/output_inception_4a/output_0_split_1
I0403 15:34:34.064721 10574 net.cpp:399] inception_4b/1x1 -> inception_4b/1x1
I0403 15:34:34.066426 10574 net.cpp:141] Setting up inception_4b/1x1
I0403 15:34:34.066452 10574 net.cpp:148] Top shape: 24 160 14 14 (752640)
I0403 15:34:34.066468 10574 net.cpp:156] Memory required for data: 949214496
I0403 15:34:34.066488 10574 layer_factory.hpp:77] Creating layer inception_4b/relu_1x1
I0403 15:34:34.066505 10574 net.cpp:91] Creating Layer inception_4b/relu_1x1
I0403 15:34:34.066520 10574 net.cpp:425] inception_4b/relu_1x1 <- inception_4b/1x1
I0403 15:34:34.066537 10574 net.cpp:386] inception_4b/relu_1x1 -> inception_4b/1x1 (in-place)
I0403 15:34:34.066717 10574 net.cpp:141] Setting up inception_4b/relu_1x1
I0403 15:34:34.066741 10574 net.cpp:148] Top shape: 24 160 14 14 (752640)
I0403 15:34:34.066756 10574 net.cpp:156] Memory required for data: 952225056
I0403 15:34:34.066768 10574 layer_factory.hpp:77] Creating layer inception_4b/3x3_reduce
I0403 15:34:34.066792 10574 net.cpp:91] Creating Layer inception_4b/3x3_reduce
I0403 15:34:34.066810 10574 net.cpp:425] inception_4b/3x3_reduce <- inception_4a/output_inception_4a/output_0_split_2
I0403 15:34:34.066830 10574 net.cpp:399] inception_4b/3x3_reduce -> inception_4b/3x3_reduce
I0403 15:34:34.068264 10574 net.cpp:141] Setting up inception_4b/3x3_reduce
I0403 15:34:34.068292 10574 net.cpp:148] Top shape: 24 112 14 14 (526848)
I0403 15:34:34.068308 10574 net.cpp:156] Memory required for data: 954332448
I0403 15:34:34.068327 10574 layer_factory.hpp:77] Creating layer inception_4b/relu_3x3_reduce
I0403 15:34:34.068357 10574 net.cpp:91] Creating Layer inception_4b/relu_3x3_reduce
I0403 15:34:34.068373 10574 net.cpp:425] inception_4b/relu_3x3_reduce <- inception_4b/3x3_reduce
I0403 15:34:34.068392 10574 net.cpp:386] inception_4b/relu_3x3_reduce -> inception_4b/3x3_reduce (in-place)
I0403 15:34:34.068675 10574 net.cpp:141] Setting up inception_4b/relu_3x3_reduce
I0403 15:34:34.068701 10574 net.cpp:148] Top shape: 24 112 14 14 (526848)
I0403 15:34:34.068716 10574 net.cpp:156] Memory required for data: 956439840
I0403 15:34:34.068730 10574 layer_factory.hpp:77] Creating layer inception_4b/3x3
I0403 15:34:34.068753 10574 net.cpp:91] Creating Layer inception_4b/3x3
I0403 15:34:34.068770 10574 net.cpp:425] inception_4b/3x3 <- inception_4b/3x3_reduce
I0403 15:34:34.068791 10574 net.cpp:399] inception_4b/3x3 -> inception_4b/3x3
I0403 15:34:34.071877 10574 net.cpp:141] Setting up inception_4b/3x3
I0403 15:34:34.071907 10574 net.cpp:148] Top shape: 24 224 14 14 (1053696)
I0403 15:34:34.071923 10574 net.cpp:156] Memory required for data: 960654624
I0403 15:34:34.071943 10574 layer_factory.hpp:77] Creating layer inception_4b/relu_3x3
I0403 15:34:34.071967 10574 net.cpp:91] Creating Layer inception_4b/relu_3x3
I0403 15:34:34.071985 10574 net.cpp:425] inception_4b/relu_3x3 <- inception_4b/3x3
I0403 15:34:34.072001 10574 net.cpp:386] inception_4b/relu_3x3 -> inception_4b/3x3 (in-place)
I0403 15:34:34.072199 10574 net.cpp:141] Setting up inception_4b/relu_3x3
I0403 15:34:34.072227 10574 net.cpp:148] Top shape: 24 224 14 14 (1053696)
I0403 15:34:34.072242 10574 net.cpp:156] Memory required for data: 964869408
I0403 15:34:34.072257 10574 layer_factory.hpp:77] Creating layer inception_4b/5x5_reduce
I0403 15:34:34.072280 10574 net.cpp:91] Creating Layer inception_4b/5x5_reduce
I0403 15:34:34.072299 10574 net.cpp:425] inception_4b/5x5_reduce <- inception_4a/output_inception_4a/output_0_split_3
I0403 15:34:34.072319 10574 net.cpp:399] inception_4b/5x5_reduce -> inception_4b/5x5_reduce
I0403 15:34:34.073462 10574 net.cpp:141] Setting up inception_4b/5x5_reduce
I0403 15:34:34.073492 10574 net.cpp:148] Top shape: 24 24 14 14 (112896)
I0403 15:34:34.073508 10574 net.cpp:156] Memory required for data: 965320992
I0403 15:34:34.073526 10574 layer_factory.hpp:77] Creating layer inception_4b/relu_5x5_reduce
I0403 15:34:34.073545 10574 net.cpp:91] Creating Layer inception_4b/relu_5x5_reduce
I0403 15:34:34.073575 10574 net.cpp:425] inception_4b/relu_5x5_reduce <- inception_4b/5x5_reduce
I0403 15:34:34.073596 10574 net.cpp:386] inception_4b/relu_5x5_reduce -> inception_4b/5x5_reduce (in-place)
I0403 15:34:34.073783 10574 net.cpp:141] Setting up inception_4b/relu_5x5_reduce
I0403 15:34:34.073808 10574 net.cpp:148] Top shape: 24 24 14 14 (112896)
I0403 15:34:34.073823 10574 net.cpp:156] Memory required for data: 965772576
I0403 15:34:34.073838 10574 layer_factory.hpp:77] Creating layer inception_4b/5x5
I0403 15:34:34.073860 10574 net.cpp:91] Creating Layer inception_4b/5x5
I0403 15:34:34.073878 10574 net.cpp:425] inception_4b/5x5 <- inception_4b/5x5_reduce
I0403 15:34:34.073899 10574 net.cpp:399] inception_4b/5x5 -> inception_4b/5x5
I0403 15:34:34.075134 10574 net.cpp:141] Setting up inception_4b/5x5
I0403 15:34:34.075161 10574 net.cpp:148] Top shape: 24 64 14 14 (301056)
I0403 15:34:34.075176 10574 net.cpp:156] Memory required for data: 966976800
I0403 15:34:34.075194 10574 layer_factory.hpp:77] Creating layer inception_4b/relu_5x5
I0403 15:34:34.075217 10574 net.cpp:91] Creating Layer inception_4b/relu_5x5
I0403 15:34:34.075234 10574 net.cpp:425] inception_4b/relu_5x5 <- inception_4b/5x5
I0403 15:34:34.075251 10574 net.cpp:386] inception_4b/relu_5x5 -> inception_4b/5x5 (in-place)
I0403 15:34:34.075538 10574 net.cpp:141] Setting up inception_4b/relu_5x5
I0403 15:34:34.075564 10574 net.cpp:148] Top shape: 24 64 14 14 (301056)
I0403 15:34:34.075579 10574 net.cpp:156] Memory required for data: 968181024
I0403 15:34:34.075593 10574 layer_factory.hpp:77] Creating layer inception_4b/pool
I0403 15:34:34.075613 10574 net.cpp:91] Creating Layer inception_4b/pool
I0403 15:34:34.075630 10574 net.cpp:425] inception_4b/pool <- inception_4a/output_inception_4a/output_0_split_4
I0403 15:34:34.075650 10574 net.cpp:399] inception_4b/pool -> inception_4b/pool
I0403 15:34:34.075713 10574 net.cpp:141] Setting up inception_4b/pool
I0403 15:34:34.075736 10574 net.cpp:148] Top shape: 24 512 14 14 (2408448)
I0403 15:34:34.075750 10574 net.cpp:156] Memory required for data: 977814816
I0403 15:34:34.075765 10574 layer_factory.hpp:77] Creating layer inception_4b/pool_proj
I0403 15:34:34.075786 10574 net.cpp:91] Creating Layer inception_4b/pool_proj
I0403 15:34:34.075803 10574 net.cpp:425] inception_4b/pool_proj <- inception_4b/pool
I0403 15:34:34.075824 10574 net.cpp:399] inception_4b/pool_proj -> inception_4b/pool_proj
I0403 15:34:34.077152 10574 net.cpp:141] Setting up inception_4b/pool_proj
I0403 15:34:34.077183 10574 net.cpp:148] Top shape: 24 64 14 14 (301056)
I0403 15:34:34.077200 10574 net.cpp:156] Memory required for data: 979019040
I0403 15:34:34.077220 10574 layer_factory.hpp:77] Creating layer inception_4b/relu_pool_proj
I0403 15:34:34.077239 10574 net.cpp:91] Creating Layer inception_4b/relu_pool_proj
I0403 15:34:34.077257 10574 net.cpp:425] inception_4b/relu_pool_proj <- inception_4b/pool_proj
I0403 15:34:34.077277 10574 net.cpp:386] inception_4b/relu_pool_proj -> inception_4b/pool_proj (in-place)
I0403 15:34:34.077477 10574 net.cpp:141] Setting up inception_4b/relu_pool_proj
I0403 15:34:34.077514 10574 net.cpp:148] Top shape: 24 64 14 14 (301056)
I0403 15:34:34.077528 10574 net.cpp:156] Memory required for data: 980223264
I0403 15:34:34.077543 10574 layer_factory.hpp:77] Creating layer inception_4b/output
I0403 15:34:34.077572 10574 net.cpp:91] Creating Layer inception_4b/output
I0403 15:34:34.077587 10574 net.cpp:425] inception_4b/output <- inception_4b/1x1
I0403 15:34:34.077605 10574 net.cpp:425] inception_4b/output <- inception_4b/3x3
I0403 15:34:34.077620 10574 net.cpp:425] inception_4b/output <- inception_4b/5x5
I0403 15:34:34.077636 10574 net.cpp:425] inception_4b/output <- inception_4b/pool_proj
I0403 15:34:34.077656 10574 net.cpp:399] inception_4b/output -> inception_4b/output
I0403 15:34:34.077702 10574 net.cpp:141] Setting up inception_4b/output
I0403 15:34:34.077728 10574 net.cpp:148] Top shape: 24 512 14 14 (2408448)
I0403 15:34:34.077744 10574 net.cpp:156] Memory required for data: 989857056
I0403 15:34:34.077772 10574 layer_factory.hpp:77] Creating layer inception_4b/output_inception_4b/output_0_split
I0403 15:34:34.077791 10574 net.cpp:91] Creating Layer inception_4b/output_inception_4b/output_0_split
I0403 15:34:34.077807 10574 net.cpp:425] inception_4b/output_inception_4b/output_0_split <- inception_4b/output
I0403 15:34:34.077824 10574 net.cpp:399] inception_4b/output_inception_4b/output_0_split -> inception_4b/output_inception_4b/output_0_split_0
I0403 15:34:34.077847 10574 net.cpp:399] inception_4b/output_inception_4b/output_0_split -> inception_4b/output_inception_4b/output_0_split_1
I0403 15:34:34.077869 10574 net.cpp:399] inception_4b/output_inception_4b/output_0_split -> inception_4b/output_inception_4b/output_0_split_2
I0403 15:34:34.077890 10574 net.cpp:399] inception_4b/output_inception_4b/output_0_split -> inception_4b/output_inception_4b/output_0_split_3
I0403 15:34:34.077993 10574 net.cpp:141] Setting up inception_4b/output_inception_4b/output_0_split
I0403 15:34:34.078018 10574 net.cpp:148] Top shape: 24 512 14 14 (2408448)
I0403 15:34:34.078047 10574 net.cpp:148] Top shape: 24 512 14 14 (2408448)
I0403 15:34:34.078063 10574 net.cpp:148] Top shape: 24 512 14 14 (2408448)
I0403 15:34:34.078079 10574 net.cpp:148] Top shape: 24 512 14 14 (2408448)
I0403 15:34:34.078094 10574 net.cpp:156] Memory required for data: 1028392224
I0403 15:34:34.078109 10574 layer_factory.hpp:77] Creating layer inception_4c/1x1
I0403 15:34:34.078135 10574 net.cpp:91] Creating Layer inception_4c/1x1
I0403 15:34:34.078152 10574 net.cpp:425] inception_4c/1x1 <- inception_4b/output_inception_4b/output_0_split_0
I0403 15:34:34.078172 10574 net.cpp:399] inception_4c/1x1 -> inception_4c/1x1
I0403 15:34:34.079702 10574 net.cpp:141] Setting up inception_4c/1x1
I0403 15:34:34.079746 10574 net.cpp:148] Top shape: 24 128 14 14 (602112)
I0403 15:34:34.079761 10574 net.cpp:156] Memory required for data: 1030800672
I0403 15:34:34.079780 10574 layer_factory.hpp:77] Creating layer inception_4c/relu_1x1
I0403 15:34:34.079799 10574 net.cpp:91] Creating Layer inception_4c/relu_1x1
I0403 15:34:34.079815 10574 net.cpp:425] inception_4c/relu_1x1 <- inception_4c/1x1
I0403 15:34:34.079835 10574 net.cpp:386] inception_4c/relu_1x1 -> inception_4c/1x1 (in-place)
I0403 15:34:34.080042 10574 net.cpp:141] Setting up inception_4c/relu_1x1
I0403 15:34:34.080068 10574 net.cpp:148] Top shape: 24 128 14 14 (602112)
I0403 15:34:34.080085 10574 net.cpp:156] Memory required for data: 1033209120
I0403 15:34:34.080099 10574 layer_factory.hpp:77] Creating layer inception_4c/3x3_reduce
I0403 15:34:34.080123 10574 net.cpp:91] Creating Layer inception_4c/3x3_reduce
I0403 15:34:34.080142 10574 net.cpp:425] inception_4c/3x3_reduce <- inception_4b/output_inception_4b/output_0_split_1
I0403 15:34:34.080163 10574 net.cpp:399] inception_4c/3x3_reduce -> inception_4c/3x3_reduce
I0403 15:34:34.082221 10574 net.cpp:141] Setting up inception_4c/3x3_reduce
I0403 15:34:34.082250 10574 net.cpp:148] Top shape: 24 128 14 14 (602112)
I0403 15:34:34.082267 10574 net.cpp:156] Memory required for data: 1035617568
I0403 15:34:34.082285 10574 layer_factory.hpp:77] Creating layer inception_4c/relu_3x3_reduce
I0403 15:34:34.082304 10574 net.cpp:91] Creating Layer inception_4c/relu_3x3_reduce
I0403 15:34:34.082319 10574 net.cpp:425] inception_4c/relu_3x3_reduce <- inception_4c/3x3_reduce
I0403 15:34:34.082335 10574 net.cpp:386] inception_4c/relu_3x3_reduce -> inception_4c/3x3_reduce (in-place)
I0403 15:34:34.082623 10574 net.cpp:141] Setting up inception_4c/relu_3x3_reduce
I0403 15:34:34.082650 10574 net.cpp:148] Top shape: 24 128 14 14 (602112)
I0403 15:34:34.082666 10574 net.cpp:156] Memory required for data: 1038026016
I0403 15:34:34.082681 10574 layer_factory.hpp:77] Creating layer inception_4c/3x3
I0403 15:34:34.082705 10574 net.cpp:91] Creating Layer inception_4c/3x3
I0403 15:34:34.082722 10574 net.cpp:425] inception_4c/3x3 <- inception_4c/3x3_reduce
I0403 15:34:34.082741 10574 net.cpp:399] inception_4c/3x3 -> inception_4c/3x3
I0403 15:34:34.086448 10574 net.cpp:141] Setting up inception_4c/3x3
I0403 15:34:34.086490 10574 net.cpp:148] Top shape: 24 256 14 14 (1204224)
I0403 15:34:34.086508 10574 net.cpp:156] Memory required for data: 1042842912
I0403 15:34:34.086537 10574 layer_factory.hpp:77] Creating layer inception_4c/relu_3x3
I0403 15:34:34.086557 10574 net.cpp:91] Creating Layer inception_4c/relu_3x3
I0403 15:34:34.086573 10574 net.cpp:425] inception_4c/relu_3x3 <- inception_4c/3x3
I0403 15:34:34.086591 10574 net.cpp:386] inception_4c/relu_3x3 -> inception_4c/3x3 (in-place)
I0403 15:34:34.086771 10574 net.cpp:141] Setting up inception_4c/relu_3x3
I0403 15:34:34.086797 10574 net.cpp:148] Top shape: 24 256 14 14 (1204224)
I0403 15:34:34.086812 10574 net.cpp:156] Memory required for data: 1047659808
I0403 15:34:34.086827 10574 layer_factory.hpp:77] Creating layer inception_4c/5x5_reduce
I0403 15:34:34.086849 10574 net.cpp:91] Creating Layer inception_4c/5x5_reduce
I0403 15:34:34.086866 10574 net.cpp:425] inception_4c/5x5_reduce <- inception_4b/output_inception_4b/output_0_split_2
I0403 15:34:34.086885 10574 net.cpp:399] inception_4c/5x5_reduce -> inception_4c/5x5_reduce
I0403 15:34:34.087998 10574 net.cpp:141] Setting up inception_4c/5x5_reduce
I0403 15:34:34.088028 10574 net.cpp:148] Top shape: 24 24 14 14 (112896)
I0403 15:34:34.088044 10574 net.cpp:156] Memory required for data: 1048111392
I0403 15:34:34.088074 10574 layer_factory.hpp:77] Creating layer inception_4c/relu_5x5_reduce
I0403 15:34:34.088093 10574 net.cpp:91] Creating Layer inception_4c/relu_5x5_reduce
I0403 15:34:34.088109 10574 net.cpp:425] inception_4c/relu_5x5_reduce <- inception_4c/5x5_reduce
I0403 15:34:34.088125 10574 net.cpp:386] inception_4c/relu_5x5_reduce -> inception_4c/5x5_reduce (in-place)
I0403 15:34:34.088330 10574 net.cpp:141] Setting up inception_4c/relu_5x5_reduce
I0403 15:34:34.088367 10574 net.cpp:148] Top shape: 24 24 14 14 (112896)
I0403 15:34:34.088382 10574 net.cpp:156] Memory required for data: 1048562976
I0403 15:34:34.088397 10574 layer_factory.hpp:77] Creating layer inception_4c/5x5
I0403 15:34:34.088418 10574 net.cpp:91] Creating Layer inception_4c/5x5
I0403 15:34:34.088436 10574 net.cpp:425] inception_4c/5x5 <- inception_4c/5x5_reduce
I0403 15:34:34.088457 10574 net.cpp:399] inception_4c/5x5 -> inception_4c/5x5
I0403 15:34:34.089831 10574 net.cpp:141] Setting up inception_4c/5x5
I0403 15:34:34.089857 10574 net.cpp:148] Top shape: 24 64 14 14 (301056)
I0403 15:34:34.089872 10574 net.cpp:156] Memory required for data: 1049767200
I0403 15:34:34.089890 10574 layer_factory.hpp:77] Creating layer inception_4c/relu_5x5
I0403 15:34:34.089907 10574 net.cpp:91] Creating Layer inception_4c/relu_5x5
I0403 15:34:34.089925 10574 net.cpp:425] inception_4c/relu_5x5 <- inception_4c/5x5
I0403 15:34:34.089943 10574 net.cpp:386] inception_4c/relu_5x5 -> inception_4c/5x5 (in-place)
I0403 15:34:34.090296 10574 net.cpp:141] Setting up inception_4c/relu_5x5
I0403 15:34:34.090323 10574 net.cpp:148] Top shape: 24 64 14 14 (301056)
I0403 15:34:34.090339 10574 net.cpp:156] Memory required for data: 1050971424
I0403 15:34:34.090355 10574 layer_factory.hpp:77] Creating layer inception_4c/pool
I0403 15:34:34.090385 10574 net.cpp:91] Creating Layer inception_4c/pool
I0403 15:34:34.090401 10574 net.cpp:425] inception_4c/pool <- inception_4b/output_inception_4b/output_0_split_3
I0403 15:34:34.090420 10574 net.cpp:399] inception_4c/pool -> inception_4c/pool
I0403 15:34:34.090483 10574 net.cpp:141] Setting up inception_4c/pool
I0403 15:34:34.090507 10574 net.cpp:148] Top shape: 24 512 14 14 (2408448)
I0403 15:34:34.090520 10574 net.cpp:156] Memory required for data: 1060605216
I0403 15:34:34.090535 10574 layer_factory.hpp:77] Creating layer inception_4c/pool_proj
I0403 15:34:34.090559 10574 net.cpp:91] Creating Layer inception_4c/pool_proj
I0403 15:34:34.090574 10574 net.cpp:425] inception_4c/pool_proj <- inception_4c/pool
I0403 15:34:34.090592 10574 net.cpp:399] inception_4c/pool_proj -> inception_4c/pool_proj
I0403 15:34:34.091858 10574 net.cpp:141] Setting up inception_4c/pool_proj
I0403 15:34:34.091886 10574 net.cpp:148] Top shape: 24 64 14 14 (301056)
I0403 15:34:34.091915 10574 net.cpp:156] Memory required for data: 1061809440
I0403 15:34:34.091934 10574 layer_factory.hpp:77] Creating layer inception_4c/relu_pool_proj
I0403 15:34:34.091967 10574 net.cpp:91] Creating Layer inception_4c/relu_pool_proj
I0403 15:34:34.091984 10574 net.cpp:425] inception_4c/relu_pool_proj <- inception_4c/pool_proj
I0403 15:34:34.092003 10574 net.cpp:386] inception_4c/relu_pool_proj -> inception_4c/pool_proj (in-place)
I0403 15:34:34.092222 10574 net.cpp:141] Setting up inception_4c/relu_pool_proj
I0403 15:34:34.092248 10574 net.cpp:148] Top shape: 24 64 14 14 (301056)
I0403 15:34:34.092264 10574 net.cpp:156] Memory required for data: 1063013664
I0403 15:34:34.092280 10574 layer_factory.hpp:77] Creating layer inception_4c/output
I0403 15:34:34.092298 10574 net.cpp:91] Creating Layer inception_4c/output
I0403 15:34:34.092314 10574 net.cpp:425] inception_4c/output <- inception_4c/1x1
I0403 15:34:34.092332 10574 net.cpp:425] inception_4c/output <- inception_4c/3x3
I0403 15:34:34.092350 10574 net.cpp:425] inception_4c/output <- inception_4c/5x5
I0403 15:34:34.092366 10574 net.cpp:425] inception_4c/output <- inception_4c/pool_proj
I0403 15:34:34.092396 10574 net.cpp:399] inception_4c/output -> inception_4c/output
I0403 15:34:34.092440 10574 net.cpp:141] Setting up inception_4c/output
I0403 15:34:34.092464 10574 net.cpp:148] Top shape: 24 512 14 14 (2408448)
I0403 15:34:34.092479 10574 net.cpp:156] Memory required for data: 1072647456
I0403 15:34:34.092492 10574 layer_factory.hpp:77] Creating layer inception_4c/output_inception_4c/output_0_split
I0403 15:34:34.092509 10574 net.cpp:91] Creating Layer inception_4c/output_inception_4c/output_0_split
I0403 15:34:34.092525 10574 net.cpp:425] inception_4c/output_inception_4c/output_0_split <- inception_4c/output
I0403 15:34:34.092541 10574 net.cpp:399] inception_4c/output_inception_4c/output_0_split -> inception_4c/output_inception_4c/output_0_split_0
I0403 15:34:34.092563 10574 net.cpp:399] inception_4c/output_inception_4c/output_0_split -> inception_4c/output_inception_4c/output_0_split_1
I0403 15:34:34.092583 10574 net.cpp:399] inception_4c/output_inception_4c/output_0_split -> inception_4c/output_inception_4c/output_0_split_2
I0403 15:34:34.092603 10574 net.cpp:399] inception_4c/output_inception_4c/output_0_split -> inception_4c/output_inception_4c/output_0_split_3
I0403 15:34:34.092687 10574 net.cpp:141] Setting up inception_4c/output_inception_4c/output_0_split
I0403 15:34:34.092710 10574 net.cpp:148] Top shape: 24 512 14 14 (2408448)
I0403 15:34:34.092725 10574 net.cpp:148] Top shape: 24 512 14 14 (2408448)
I0403 15:34:34.092739 10574 net.cpp:148] Top shape: 24 512 14 14 (2408448)
I0403 15:34:34.092754 10574 net.cpp:148] Top shape: 24 512 14 14 (2408448)
I0403 15:34:34.092767 10574 net.cpp:156] Memory required for data: 1111182624
I0403 15:34:34.092782 10574 layer_factory.hpp:77] Creating layer inception_4d/1x1
I0403 15:34:34.092803 10574 net.cpp:91] Creating Layer inception_4d/1x1
I0403 15:34:34.092819 10574 net.cpp:425] inception_4d/1x1 <- inception_4c/output_inception_4c/output_0_split_0
I0403 15:34:34.092840 10574 net.cpp:399] inception_4d/1x1 -> inception_4d/1x1
I0403 15:34:34.094331 10574 net.cpp:141] Setting up inception_4d/1x1
I0403 15:34:34.094359 10574 net.cpp:148] Top shape: 24 112 14 14 (526848)
I0403 15:34:34.094385 10574 net.cpp:156] Memory required for data: 1113290016
I0403 15:34:34.094403 10574 layer_factory.hpp:77] Creating layer inception_4d/relu_1x1
I0403 15:34:34.094422 10574 net.cpp:91] Creating Layer inception_4d/relu_1x1
I0403 15:34:34.094439 10574 net.cpp:425] inception_4d/relu_1x1 <- inception_4d/1x1
I0403 15:34:34.094455 10574 net.cpp:386] inception_4d/relu_1x1 -> inception_4d/1x1 (in-place)
I0403 15:34:34.094638 10574 net.cpp:141] Setting up inception_4d/relu_1x1
I0403 15:34:34.094665 10574 net.cpp:148] Top shape: 24 112 14 14 (526848)
I0403 15:34:34.094679 10574 net.cpp:156] Memory required for data: 1115397408
I0403 15:34:34.094694 10574 layer_factory.hpp:77] Creating layer inception_4d/3x3_reduce
I0403 15:34:34.094728 10574 net.cpp:91] Creating Layer inception_4d/3x3_reduce
I0403 15:34:34.094746 10574 net.cpp:425] inception_4d/3x3_reduce <- inception_4c/output_inception_4c/output_0_split_1
I0403 15:34:34.094764 10574 net.cpp:399] inception_4d/3x3_reduce -> inception_4d/3x3_reduce
I0403 15:34:34.096323 10574 net.cpp:141] Setting up inception_4d/3x3_reduce
I0403 15:34:34.096349 10574 net.cpp:148] Top shape: 24 144 14 14 (677376)
I0403 15:34:34.096364 10574 net.cpp:156] Memory required for data: 1118106912
I0403 15:34:34.096382 10574 layer_factory.hpp:77] Creating layer inception_4d/relu_3x3_reduce
I0403 15:34:34.096402 10574 net.cpp:91] Creating Layer inception_4d/relu_3x3_reduce
I0403 15:34:34.096418 10574 net.cpp:425] inception_4d/relu_3x3_reduce <- inception_4d/3x3_reduce
I0403 15:34:34.096434 10574 net.cpp:386] inception_4d/relu_3x3_reduce -> inception_4d/3x3_reduce (in-place)
I0403 15:34:34.096715 10574 net.cpp:141] Setting up inception_4d/relu_3x3_reduce
I0403 15:34:34.096740 10574 net.cpp:148] Top shape: 24 144 14 14 (677376)
I0403 15:34:34.096755 10574 net.cpp:156] Memory required for data: 1120816416
I0403 15:34:34.096770 10574 layer_factory.hpp:77] Creating layer inception_4d/3x3
I0403 15:34:34.096791 10574 net.cpp:91] Creating Layer inception_4d/3x3
I0403 15:34:34.096808 10574 net.cpp:425] inception_4d/3x3 <- inception_4d/3x3_reduce
I0403 15:34:34.096828 10574 net.cpp:399] inception_4d/3x3 -> inception_4d/3x3
I0403 15:34:34.101169 10574 net.cpp:141] Setting up inception_4d/3x3
I0403 15:34:34.101197 10574 net.cpp:148] Top shape: 24 288 14 14 (1354752)
I0403 15:34:34.101213 10574 net.cpp:156] Memory required for data: 1126235424
I0403 15:34:34.101230 10574 layer_factory.hpp:77] Creating layer inception_4d/relu_3x3
I0403 15:34:34.101250 10574 net.cpp:91] Creating Layer inception_4d/relu_3x3
I0403 15:34:34.101268 10574 net.cpp:425] inception_4d/relu_3x3 <- inception_4d/3x3
I0403 15:34:34.101284 10574 net.cpp:386] inception_4d/relu_3x3 -> inception_4d/3x3 (in-place)
I0403 15:34:34.101477 10574 net.cpp:141] Setting up inception_4d/relu_3x3
I0403 15:34:34.101503 10574 net.cpp:148] Top shape: 24 288 14 14 (1354752)
I0403 15:34:34.101518 10574 net.cpp:156] Memory required for data: 1131654432
I0403 15:34:34.101532 10574 layer_factory.hpp:77] Creating layer inception_4d/5x5_reduce
I0403 15:34:34.101554 10574 net.cpp:91] Creating Layer inception_4d/5x5_reduce
I0403 15:34:34.101572 10574 net.cpp:425] inception_4d/5x5_reduce <- inception_4c/output_inception_4c/output_0_split_2
I0403 15:34:34.101590 10574 net.cpp:399] inception_4d/5x5_reduce -> inception_4d/5x5_reduce
I0403 15:34:34.102751 10574 net.cpp:141] Setting up inception_4d/5x5_reduce
I0403 15:34:34.102778 10574 net.cpp:148] Top shape: 24 32 14 14 (150528)
I0403 15:34:34.102794 10574 net.cpp:156] Memory required for data: 1132256544
I0403 15:34:34.102812 10574 layer_factory.hpp:77] Creating layer inception_4d/relu_5x5_reduce
I0403 15:34:34.102831 10574 net.cpp:91] Creating Layer inception_4d/relu_5x5_reduce
I0403 15:34:34.102849 10574 net.cpp:425] inception_4d/relu_5x5_reduce <- inception_4d/5x5_reduce
I0403 15:34:34.102864 10574 net.cpp:386] inception_4d/relu_5x5_reduce -> inception_4d/5x5_reduce (in-place)
I0403 15:34:34.103063 10574 net.cpp:141] Setting up inception_4d/relu_5x5_reduce
I0403 15:34:34.103091 10574 net.cpp:148] Top shape: 24 32 14 14 (150528)
I0403 15:34:34.103107 10574 net.cpp:156] Memory required for data: 1132858656
I0403 15:34:34.103122 10574 layer_factory.hpp:77] Creating layer inception_4d/5x5
I0403 15:34:34.103144 10574 net.cpp:91] Creating Layer inception_4d/5x5
I0403 15:34:34.103163 10574 net.cpp:425] inception_4d/5x5 <- inception_4d/5x5_reduce
I0403 15:34:34.103180 10574 net.cpp:399] inception_4d/5x5 -> inception_4d/5x5
I0403 15:34:34.104653 10574 net.cpp:141] Setting up inception_4d/5x5
I0403 15:34:34.104681 10574 net.cpp:148] Top shape: 24 64 14 14 (301056)
I0403 15:34:34.104696 10574 net.cpp:156] Memory required for data: 1134062880
I0403 15:34:34.104714 10574 layer_factory.hpp:77] Creating layer inception_4d/relu_5x5
I0403 15:34:34.104745 10574 net.cpp:91] Creating Layer inception_4d/relu_5x5
I0403 15:34:34.104763 10574 net.cpp:425] inception_4d/relu_5x5 <- inception_4d/5x5
I0403 15:34:34.104781 10574 net.cpp:386] inception_4d/relu_5x5 -> inception_4d/5x5 (in-place)
I0403 15:34:34.105083 10574 net.cpp:141] Setting up inception_4d/relu_5x5
I0403 15:34:34.105109 10574 net.cpp:148] Top shape: 24 64 14 14 (301056)
I0403 15:34:34.105124 10574 net.cpp:156] Memory required for data: 1135267104
I0403 15:34:34.105139 10574 layer_factory.hpp:77] Creating layer inception_4d/pool
I0403 15:34:34.105156 10574 net.cpp:91] Creating Layer inception_4d/pool
I0403 15:34:34.105172 10574 net.cpp:425] inception_4d/pool <- inception_4c/output_inception_4c/output_0_split_3
I0403 15:34:34.105191 10574 net.cpp:399] inception_4d/pool -> inception_4d/pool
I0403 15:34:34.105255 10574 net.cpp:141] Setting up inception_4d/pool
I0403 15:34:34.105278 10574 net.cpp:148] Top shape: 24 512 14 14 (2408448)
I0403 15:34:34.105293 10574 net.cpp:156] Memory required for data: 1144900896
I0403 15:34:34.105307 10574 layer_factory.hpp:77] Creating layer inception_4d/pool_proj
I0403 15:34:34.105331 10574 net.cpp:91] Creating Layer inception_4d/pool_proj
I0403 15:34:34.105348 10574 net.cpp:425] inception_4d/pool_proj <- inception_4d/pool
I0403 15:34:34.105366 10574 net.cpp:399] inception_4d/pool_proj -> inception_4d/pool_proj
I0403 15:34:34.107271 10574 net.cpp:141] Setting up inception_4d/pool_proj
I0403 15:34:34.107301 10574 net.cpp:148] Top shape: 24 64 14 14 (301056)
I0403 15:34:34.107329 10574 net.cpp:156] Memory required for data: 1146105120
I0403 15:34:34.107348 10574 layer_factory.hpp:77] Creating layer inception_4d/relu_pool_proj
I0403 15:34:34.107380 10574 net.cpp:91] Creating Layer inception_4d/relu_pool_proj
I0403 15:34:34.107396 10574 net.cpp:425] inception_4d/relu_pool_proj <- inception_4d/pool_proj
I0403 15:34:34.107414 10574 net.cpp:386] inception_4d/relu_pool_proj -> inception_4d/pool_proj (in-place)
I0403 15:34:34.107595 10574 net.cpp:141] Setting up inception_4d/relu_pool_proj
I0403 15:34:34.107621 10574 net.cpp:148] Top shape: 24 64 14 14 (301056)
I0403 15:34:34.107636 10574 net.cpp:156] Memory required for data: 1147309344
I0403 15:34:34.107651 10574 layer_factory.hpp:77] Creating layer inception_4d/output
I0403 15:34:34.107667 10574 net.cpp:91] Creating Layer inception_4d/output
I0403 15:34:34.107682 10574 net.cpp:425] inception_4d/output <- inception_4d/1x1
I0403 15:34:34.107698 10574 net.cpp:425] inception_4d/output <- inception_4d/3x3
I0403 15:34:34.107715 10574 net.cpp:425] inception_4d/output <- inception_4d/5x5
I0403 15:34:34.107730 10574 net.cpp:425] inception_4d/output <- inception_4d/pool_proj
I0403 15:34:34.107748 10574 net.cpp:399] inception_4d/output -> inception_4d/output
I0403 15:34:34.107794 10574 net.cpp:141] Setting up inception_4d/output
I0403 15:34:34.107816 10574 net.cpp:148] Top shape: 24 528 14 14 (2483712)
I0403 15:34:34.107831 10574 net.cpp:156] Memory required for data: 1157244192
I0403 15:34:34.107844 10574 layer_factory.hpp:77] Creating layer inception_4d/output_inception_4d/output_0_split
I0403 15:34:34.107864 10574 net.cpp:91] Creating Layer inception_4d/output_inception_4d/output_0_split
I0403 15:34:34.107879 10574 net.cpp:425] inception_4d/output_inception_4d/output_0_split <- inception_4d/output
I0403 15:34:34.107897 10574 net.cpp:399] inception_4d/output_inception_4d/output_0_split -> inception_4d/output_inception_4d/output_0_split_0
I0403 15:34:34.107916 10574 net.cpp:399] inception_4d/output_inception_4d/output_0_split -> inception_4d/output_inception_4d/output_0_split_1
I0403 15:34:34.107940 10574 net.cpp:399] inception_4d/output_inception_4d/output_0_split -> inception_4d/output_inception_4d/output_0_split_2
I0403 15:34:34.107985 10574 net.cpp:399] inception_4d/output_inception_4d/output_0_split -> inception_4d/output_inception_4d/output_0_split_3
I0403 15:34:34.108007 10574 net.cpp:399] inception_4d/output_inception_4d/output_0_split -> inception_4d/output_inception_4d/output_0_split_4
I0403 15:34:34.108141 10574 net.cpp:141] Setting up inception_4d/output_inception_4d/output_0_split
I0403 15:34:34.108180 10574 net.cpp:148] Top shape: 24 528 14 14 (2483712)
I0403 15:34:34.108197 10574 net.cpp:148] Top shape: 24 528 14 14 (2483712)
I0403 15:34:34.108213 10574 net.cpp:148] Top shape: 24 528 14 14 (2483712)
I0403 15:34:34.108230 10574 net.cpp:148] Top shape: 24 528 14 14 (2483712)
I0403 15:34:34.108247 10574 net.cpp:148] Top shape: 24 528 14 14 (2483712)
I0403 15:34:34.108261 10574 net.cpp:156] Memory required for data: 1206918432
I0403 15:34:34.108278 10574 layer_factory.hpp:77] Creating layer loss2/ave_pool
I0403 15:34:34.108299 10574 net.cpp:91] Creating Layer loss2/ave_pool
I0403 15:34:34.108319 10574 net.cpp:425] loss2/ave_pool <- inception_4d/output_inception_4d/output_0_split_0
I0403 15:34:34.108337 10574 net.cpp:399] loss2/ave_pool -> loss2/ave_pool
I0403 15:34:34.108669 10574 net.cpp:141] Setting up loss2/ave_pool
I0403 15:34:34.108696 10574 net.cpp:148] Top shape: 24 528 4 4 (202752)
I0403 15:34:34.108711 10574 net.cpp:156] Memory required for data: 1207729440
I0403 15:34:34.108726 10574 layer_factory.hpp:77] Creating layer loss2/conv
I0403 15:34:34.108748 10574 net.cpp:91] Creating Layer loss2/conv
I0403 15:34:34.108767 10574 net.cpp:425] loss2/conv <- loss2/ave_pool
I0403 15:34:34.108786 10574 net.cpp:399] loss2/conv -> loss2/conv
I0403 15:34:34.110837 10574 net.cpp:141] Setting up loss2/conv
I0403 15:34:34.110868 10574 net.cpp:148] Top shape: 24 128 4 4 (49152)
I0403 15:34:34.110884 10574 net.cpp:156] Memory required for data: 1207926048
I0403 15:34:34.110903 10574 layer_factory.hpp:77] Creating layer loss2/relu_conv
I0403 15:34:34.110924 10574 net.cpp:91] Creating Layer loss2/relu_conv
I0403 15:34:34.110940 10574 net.cpp:425] loss2/relu_conv <- loss2/conv
I0403 15:34:34.110976 10574 net.cpp:386] loss2/relu_conv -> loss2/conv (in-place)
I0403 15:34:34.111302 10574 net.cpp:141] Setting up loss2/relu_conv
I0403 15:34:34.111343 10574 net.cpp:148] Top shape: 24 128 4 4 (49152)
I0403 15:34:34.111359 10574 net.cpp:156] Memory required for data: 1208122656
I0403 15:34:34.111374 10574 layer_factory.hpp:77] Creating layer loss2/fc
I0403 15:34:34.111392 10574 net.cpp:91] Creating Layer loss2/fc
I0403 15:34:34.111409 10574 net.cpp:425] loss2/fc <- loss2/conv
I0403 15:34:34.111431 10574 net.cpp:399] loss2/fc -> loss2/fc
I0403 15:34:34.130102 10574 net.cpp:141] Setting up loss2/fc
I0403 15:34:34.130142 10574 net.cpp:148] Top shape: 24 1024 (24576)
I0403 15:34:34.130157 10574 net.cpp:156] Memory required for data: 1208220960
I0403 15:34:34.130177 10574 layer_factory.hpp:77] Creating layer loss2/relu_fc
I0403 15:34:34.130198 10574 net.cpp:91] Creating Layer loss2/relu_fc
I0403 15:34:34.130215 10574 net.cpp:425] loss2/relu_fc <- loss2/fc
I0403 15:34:34.130233 10574 net.cpp:386] loss2/relu_fc -> loss2/fc (in-place)
I0403 15:34:34.130545 10574 net.cpp:141] Setting up loss2/relu_fc
I0403 15:34:34.130570 10574 net.cpp:148] Top shape: 24 1024 (24576)
I0403 15:34:34.130585 10574 net.cpp:156] Memory required for data: 1208319264
I0403 15:34:34.130600 10574 layer_factory.hpp:77] Creating layer loss2/drop_fc
I0403 15:34:34.130620 10574 net.cpp:91] Creating Layer loss2/drop_fc
I0403 15:34:34.130636 10574 net.cpp:425] loss2/drop_fc <- loss2/fc
I0403 15:34:34.130652 10574 net.cpp:386] loss2/drop_fc -> loss2/fc (in-place)
I0403 15:34:34.130702 10574 net.cpp:141] Setting up loss2/drop_fc
I0403 15:34:34.130723 10574 net.cpp:148] Top shape: 24 1024 (24576)
I0403 15:34:34.130738 10574 net.cpp:156] Memory required for data: 1208417568
I0403 15:34:34.130753 10574 layer_factory.hpp:77] Creating layer loss2/classifier_plantvillage
I0403 15:34:34.130774 10574 net.cpp:91] Creating Layer loss2/classifier_plantvillage
I0403 15:34:34.130790 10574 net.cpp:425] loss2/classifier_plantvillage <- loss2/fc
I0403 15:34:34.130807 10574 net.cpp:399] loss2/classifier_plantvillage -> loss2/classifier_plantvillage
I0403 15:34:34.131222 10574 net.cpp:141] Setting up loss2/classifier_plantvillage
I0403 15:34:34.131247 10574 net.cpp:148] Top shape: 24 38 (912)
I0403 15:34:34.131275 10574 net.cpp:156] Memory required for data: 1208421216
I0403 15:34:34.131294 10574 layer_factory.hpp:77] Creating layer loss2/classifier_plantvillage_loss2/classifier_plantvillage_0_split
I0403 15:34:34.131311 10574 net.cpp:91] Creating Layer loss2/classifier_plantvillage_loss2/classifier_plantvillage_0_split
I0403 15:34:34.131327 10574 net.cpp:425] loss2/classifier_plantvillage_loss2/classifier_plantvillage_0_split <- loss2/classifier_plantvillage
I0403 15:34:34.131359 10574 net.cpp:399] loss2/classifier_plantvillage_loss2/classifier_plantvillage_0_split -> loss2/classifier_plantvillage_loss2/classifier_plantvillage_0_split_0
I0403 15:34:34.131379 10574 net.cpp:399] loss2/classifier_plantvillage_loss2/classifier_plantvillage_0_split -> loss2/classifier_plantvillage_loss2/classifier_plantvillage_0_split_1
I0403 15:34:34.131399 10574 net.cpp:399] loss2/classifier_plantvillage_loss2/classifier_plantvillage_0_split -> loss2/classifier_plantvillage_loss2/classifier_plantvillage_0_split_2
I0403 15:34:34.131474 10574 net.cpp:141] Setting up loss2/classifier_plantvillage_loss2/classifier_plantvillage_0_split
I0403 15:34:34.131497 10574 net.cpp:148] Top shape: 24 38 (912)
I0403 15:34:34.131515 10574 net.cpp:148] Top shape: 24 38 (912)
I0403 15:34:34.131530 10574 net.cpp:148] Top shape: 24 38 (912)
I0403 15:34:34.131542 10574 net.cpp:156] Memory required for data: 1208432160
I0403 15:34:34.131556 10574 layer_factory.hpp:77] Creating layer inception_4e/1x1
I0403 15:34:34.131577 10574 net.cpp:91] Creating Layer inception_4e/1x1
I0403 15:34:34.131593 10574 net.cpp:425] inception_4e/1x1 <- inception_4d/output_inception_4d/output_0_split_1
I0403 15:34:34.131610 10574 net.cpp:399] inception_4e/1x1 -> inception_4e/1x1
I0403 15:34:34.133435 10574 net.cpp:141] Setting up inception_4e/1x1
I0403 15:34:34.133462 10574 net.cpp:148] Top shape: 24 256 14 14 (1204224)
I0403 15:34:34.133477 10574 net.cpp:156] Memory required for data: 1213249056
I0403 15:34:34.133496 10574 layer_factory.hpp:77] Creating layer inception_4e/relu_1x1
I0403 15:34:34.133512 10574 net.cpp:91] Creating Layer inception_4e/relu_1x1
I0403 15:34:34.133527 10574 net.cpp:425] inception_4e/relu_1x1 <- inception_4e/1x1
I0403 15:34:34.133545 10574 net.cpp:386] inception_4e/relu_1x1 -> inception_4e/1x1 (in-place)
I0403 15:34:34.133837 10574 net.cpp:141] Setting up inception_4e/relu_1x1
I0403 15:34:34.133862 10574 net.cpp:148] Top shape: 24 256 14 14 (1204224)
I0403 15:34:34.133877 10574 net.cpp:156] Memory required for data: 1218065952
I0403 15:34:34.133893 10574 layer_factory.hpp:77] Creating layer inception_4e/3x3_reduce
I0403 15:34:34.133914 10574 net.cpp:91] Creating Layer inception_4e/3x3_reduce
I0403 15:34:34.133932 10574 net.cpp:425] inception_4e/3x3_reduce <- inception_4d/output_inception_4d/output_0_split_2
I0403 15:34:34.133956 10574 net.cpp:399] inception_4e/3x3_reduce -> inception_4e/3x3_reduce
I0403 15:34:34.136199 10574 net.cpp:141] Setting up inception_4e/3x3_reduce
I0403 15:34:34.136232 10574 net.cpp:148] Top shape: 24 160 14 14 (752640)
I0403 15:34:34.136250 10574 net.cpp:156] Memory required for data: 1221076512
I0403 15:34:34.136268 10574 layer_factory.hpp:77] Creating layer inception_4e/relu_3x3_reduce
I0403 15:34:34.136286 10574 net.cpp:91] Creating Layer inception_4e/relu_3x3_reduce
I0403 15:34:34.136302 10574 net.cpp:425] inception_4e/relu_3x3_reduce <- inception_4e/3x3_reduce
I0403 15:34:34.136333 10574 net.cpp:386] inception_4e/relu_3x3_reduce -> inception_4e/3x3_reduce (in-place)
I0403 15:34:34.136518 10574 net.cpp:141] Setting up inception_4e/relu_3x3_reduce
I0403 15:34:34.136541 10574 net.cpp:148] Top shape: 24 160 14 14 (752640)
I0403 15:34:34.136555 10574 net.cpp:156] Memory required for data: 1224087072
I0403 15:34:34.136569 10574 layer_factory.hpp:77] Creating layer inception_4e/3x3
I0403 15:34:34.136590 10574 net.cpp:91] Creating Layer inception_4e/3x3
I0403 15:34:34.136607 10574 net.cpp:425] inception_4e/3x3 <- inception_4e/3x3_reduce
I0403 15:34:34.136628 10574 net.cpp:399] inception_4e/3x3 -> inception_4e/3x3
I0403 15:34:34.141656 10574 net.cpp:141] Setting up inception_4e/3x3
I0403 15:34:34.141696 10574 net.cpp:148] Top shape: 24 320 14 14 (1505280)
I0403 15:34:34.141713 10574 net.cpp:156] Memory required for data: 1230108192
I0403 15:34:34.141731 10574 layer_factory.hpp:77] Creating layer inception_4e/relu_3x3
I0403 15:34:34.141751 10574 net.cpp:91] Creating Layer inception_4e/relu_3x3
I0403 15:34:34.141767 10574 net.cpp:425] inception_4e/relu_3x3 <- inception_4e/3x3
I0403 15:34:34.141783 10574 net.cpp:386] inception_4e/relu_3x3 -> inception_4e/3x3 (in-place)
I0403 15:34:34.142082 10574 net.cpp:141] Setting up inception_4e/relu_3x3
I0403 15:34:34.142108 10574 net.cpp:148] Top shape: 24 320 14 14 (1505280)
I0403 15:34:34.142123 10574 net.cpp:156] Memory required for data: 1236129312
I0403 15:34:34.142138 10574 layer_factory.hpp:77] Creating layer inception_4e/5x5_reduce
I0403 15:34:34.142161 10574 net.cpp:91] Creating Layer inception_4e/5x5_reduce
I0403 15:34:34.142179 10574 net.cpp:425] inception_4e/5x5_reduce <- inception_4d/output_inception_4d/output_0_split_3
I0403 15:34:34.142200 10574 net.cpp:399] inception_4e/5x5_reduce -> inception_4e/5x5_reduce
I0403 15:34:34.143251 10574 net.cpp:141] Setting up inception_4e/5x5_reduce
I0403 15:34:34.143278 10574 net.cpp:148] Top shape: 24 32 14 14 (150528)
I0403 15:34:34.143293 10574 net.cpp:156] Memory required for data: 1236731424
I0403 15:34:34.143311 10574 layer_factory.hpp:77] Creating layer inception_4e/relu_5x5_reduce
I0403 15:34:34.143328 10574 net.cpp:91] Creating Layer inception_4e/relu_5x5_reduce
I0403 15:34:34.143344 10574 net.cpp:425] inception_4e/relu_5x5_reduce <- inception_4e/5x5_reduce
I0403 15:34:34.143363 10574 net.cpp:386] inception_4e/relu_5x5_reduce -> inception_4e/5x5_reduce (in-place)
I0403 15:34:34.143656 10574 net.cpp:141] Setting up inception_4e/relu_5x5_reduce
I0403 15:34:34.143681 10574 net.cpp:148] Top shape: 24 32 14 14 (150528)
I0403 15:34:34.143695 10574 net.cpp:156] Memory required for data: 1237333536
I0403 15:34:34.143710 10574 layer_factory.hpp:77] Creating layer inception_4e/5x5
I0403 15:34:34.143748 10574 net.cpp:91] Creating Layer inception_4e/5x5
I0403 15:34:34.143765 10574 net.cpp:425] inception_4e/5x5 <- inception_4e/5x5_reduce
I0403 15:34:34.143784 10574 net.cpp:399] inception_4e/5x5 -> inception_4e/5x5
I0403 15:34:34.145587 10574 net.cpp:141] Setting up inception_4e/5x5
I0403 15:34:34.145617 10574 net.cpp:148] Top shape: 24 128 14 14 (602112)
I0403 15:34:34.145632 10574 net.cpp:156] Memory required for data: 1239741984
I0403 15:34:34.145649 10574 layer_factory.hpp:77] Creating layer inception_4e/relu_5x5
I0403 15:34:34.145668 10574 net.cpp:91] Creating Layer inception_4e/relu_5x5
I0403 15:34:34.145684 10574 net.cpp:425] inception_4e/relu_5x5 <- inception_4e/5x5
I0403 15:34:34.145699 10574 net.cpp:386] inception_4e/relu_5x5 -> inception_4e/5x5 (in-place)
I0403 15:34:34.145894 10574 net.cpp:141] Setting up inception_4e/relu_5x5
I0403 15:34:34.145918 10574 net.cpp:148] Top shape: 24 128 14 14 (602112)
I0403 15:34:34.145932 10574 net.cpp:156] Memory required for data: 1242150432
I0403 15:34:34.145951 10574 layer_factory.hpp:77] Creating layer inception_4e/pool
I0403 15:34:34.145969 10574 net.cpp:91] Creating Layer inception_4e/pool
I0403 15:34:34.145984 10574 net.cpp:425] inception_4e/pool <- inception_4d/output_inception_4d/output_0_split_4
I0403 15:34:34.146003 10574 net.cpp:399] inception_4e/pool -> inception_4e/pool
I0403 15:34:34.146071 10574 net.cpp:141] Setting up inception_4e/pool
I0403 15:34:34.146096 10574 net.cpp:148] Top shape: 24 528 14 14 (2483712)
I0403 15:34:34.146111 10574 net.cpp:156] Memory required for data: 1252085280
I0403 15:34:34.146126 10574 layer_factory.hpp:77] Creating layer inception_4e/pool_proj
I0403 15:34:34.146147 10574 net.cpp:91] Creating Layer inception_4e/pool_proj
I0403 15:34:34.146164 10574 net.cpp:425] inception_4e/pool_proj <- inception_4e/pool
I0403 15:34:34.146183 10574 net.cpp:399] inception_4e/pool_proj -> inception_4e/pool_proj
I0403 15:34:34.147655 10574 net.cpp:141] Setting up inception_4e/pool_proj
I0403 15:34:34.147691 10574 net.cpp:148] Top shape: 24 128 14 14 (602112)
I0403 15:34:34.147711 10574 net.cpp:156] Memory required for data: 1254493728
I0403 15:34:34.147728 10574 layer_factory.hpp:77] Creating layer inception_4e/relu_pool_proj
I0403 15:34:34.147745 10574 net.cpp:91] Creating Layer inception_4e/relu_pool_proj
I0403 15:34:34.147761 10574 net.cpp:425] inception_4e/relu_pool_proj <- inception_4e/pool_proj
I0403 15:34:34.147778 10574 net.cpp:386] inception_4e/relu_pool_proj -> inception_4e/pool_proj (in-place)
I0403 15:34:34.148085 10574 net.cpp:141] Setting up inception_4e/relu_pool_proj
I0403 15:34:34.148110 10574 net.cpp:148] Top shape: 24 128 14 14 (602112)
I0403 15:34:34.148128 10574 net.cpp:156] Memory required for data: 1256902176
I0403 15:34:34.148143 10574 layer_factory.hpp:77] Creating layer inception_4e/output
I0403 15:34:34.148159 10574 net.cpp:91] Creating Layer inception_4e/output
I0403 15:34:34.148175 10574 net.cpp:425] inception_4e/output <- inception_4e/1x1
I0403 15:34:34.148190 10574 net.cpp:425] inception_4e/output <- inception_4e/3x3
I0403 15:34:34.148206 10574 net.cpp:425] inception_4e/output <- inception_4e/5x5
I0403 15:34:34.148221 10574 net.cpp:425] inception_4e/output <- inception_4e/pool_proj
I0403 15:34:34.148237 10574 net.cpp:399] inception_4e/output -> inception_4e/output
I0403 15:34:34.148286 10574 net.cpp:141] Setting up inception_4e/output
I0403 15:34:34.148309 10574 net.cpp:148] Top shape: 24 832 14 14 (3913728)
I0403 15:34:34.148324 10574 net.cpp:156] Memory required for data: 1272557088
I0403 15:34:34.148339 10574 layer_factory.hpp:77] Creating layer pool4/3x3_s2
I0403 15:34:34.148355 10574 net.cpp:91] Creating Layer pool4/3x3_s2
I0403 15:34:34.148373 10574 net.cpp:425] pool4/3x3_s2 <- inception_4e/output
I0403 15:34:34.148391 10574 net.cpp:399] pool4/3x3_s2 -> pool4/3x3_s2
I0403 15:34:34.148458 10574 net.cpp:141] Setting up pool4/3x3_s2
I0403 15:34:34.148480 10574 net.cpp:148] Top shape: 24 832 7 7 (978432)
I0403 15:34:34.148495 10574 net.cpp:156] Memory required for data: 1276470816
I0403 15:34:34.148509 10574 layer_factory.hpp:77] Creating layer pool4/3x3_s2_pool4/3x3_s2_0_split
I0403 15:34:34.148526 10574 net.cpp:91] Creating Layer pool4/3x3_s2_pool4/3x3_s2_0_split
I0403 15:34:34.148541 10574 net.cpp:425] pool4/3x3_s2_pool4/3x3_s2_0_split <- pool4/3x3_s2
I0403 15:34:34.148561 10574 net.cpp:399] pool4/3x3_s2_pool4/3x3_s2_0_split -> pool4/3x3_s2_pool4/3x3_s2_0_split_0
I0403 15:34:34.148581 10574 net.cpp:399] pool4/3x3_s2_pool4/3x3_s2_0_split -> pool4/3x3_s2_pool4/3x3_s2_0_split_1
I0403 15:34:34.148600 10574 net.cpp:399] pool4/3x3_s2_pool4/3x3_s2_0_split -> pool4/3x3_s2_pool4/3x3_s2_0_split_2
I0403 15:34:34.148619 10574 net.cpp:399] pool4/3x3_s2_pool4/3x3_s2_0_split -> pool4/3x3_s2_pool4/3x3_s2_0_split_3
I0403 15:34:34.148707 10574 net.cpp:141] Setting up pool4/3x3_s2_pool4/3x3_s2_0_split
I0403 15:34:34.148730 10574 net.cpp:148] Top shape: 24 832 7 7 (978432)
I0403 15:34:34.148746 10574 net.cpp:148] Top shape: 24 832 7 7 (978432)
I0403 15:34:34.148761 10574 net.cpp:148] Top shape: 24 832 7 7 (978432)
I0403 15:34:34.148775 10574 net.cpp:148] Top shape: 24 832 7 7 (978432)
I0403 15:34:34.148788 10574 net.cpp:156] Memory required for data: 1292125728
I0403 15:34:34.148802 10574 layer_factory.hpp:77] Creating layer inception_5a/1x1
I0403 15:34:34.148826 10574 net.cpp:91] Creating Layer inception_5a/1x1
I0403 15:34:34.148843 10574 net.cpp:425] inception_5a/1x1 <- pool4/3x3_s2_pool4/3x3_s2_0_split_0
I0403 15:34:34.148861 10574 net.cpp:399] inception_5a/1x1 -> inception_5a/1x1
I0403 15:34:34.151674 10574 net.cpp:141] Setting up inception_5a/1x1
I0403 15:34:34.151705 10574 net.cpp:148] Top shape: 24 256 7 7 (301056)
I0403 15:34:34.151721 10574 net.cpp:156] Memory required for data: 1293329952
I0403 15:34:34.151739 10574 layer_factory.hpp:77] Creating layer inception_5a/relu_1x1
I0403 15:34:34.151757 10574 net.cpp:91] Creating Layer inception_5a/relu_1x1
I0403 15:34:34.151772 10574 net.cpp:425] inception_5a/relu_1x1 <- inception_5a/1x1
I0403 15:34:34.151790 10574 net.cpp:386] inception_5a/relu_1x1 -> inception_5a/1x1 (in-place)
I0403 15:34:34.152102 10574 net.cpp:141] Setting up inception_5a/relu_1x1
I0403 15:34:34.152129 10574 net.cpp:148] Top shape: 24 256 7 7 (301056)
I0403 15:34:34.152145 10574 net.cpp:156] Memory required for data: 1294534176
I0403 15:34:34.152159 10574 layer_factory.hpp:77] Creating layer inception_5a/3x3_reduce
I0403 15:34:34.152181 10574 net.cpp:91] Creating Layer inception_5a/3x3_reduce
I0403 15:34:34.152199 10574 net.cpp:425] inception_5a/3x3_reduce <- pool4/3x3_s2_pool4/3x3_s2_0_split_1
I0403 15:34:34.152217 10574 net.cpp:399] inception_5a/3x3_reduce -> inception_5a/3x3_reduce
I0403 15:34:34.154640 10574 net.cpp:141] Setting up inception_5a/3x3_reduce
I0403 15:34:34.154669 10574 net.cpp:148] Top shape: 24 160 7 7 (188160)
I0403 15:34:34.154685 10574 net.cpp:156] Memory required for data: 1295286816
I0403 15:34:34.154702 10574 layer_factory.hpp:77] Creating layer inception_5a/relu_3x3_reduce
I0403 15:34:34.154722 10574 net.cpp:91] Creating Layer inception_5a/relu_3x3_reduce
I0403 15:34:34.154738 10574 net.cpp:425] inception_5a/relu_3x3_reduce <- inception_5a/3x3_reduce
I0403 15:34:34.154755 10574 net.cpp:386] inception_5a/relu_3x3_reduce -> inception_5a/3x3_reduce (in-place)
I0403 15:34:34.154942 10574 net.cpp:141] Setting up inception_5a/relu_3x3_reduce
I0403 15:34:34.154973 10574 net.cpp:148] Top shape: 24 160 7 7 (188160)
I0403 15:34:34.154988 10574 net.cpp:156] Memory required for data: 1296039456
I0403 15:34:34.155002 10574 layer_factory.hpp:77] Creating layer inception_5a/3x3
I0403 15:34:34.155025 10574 net.cpp:91] Creating Layer inception_5a/3x3
I0403 15:34:34.155041 10574 net.cpp:425] inception_5a/3x3 <- inception_5a/3x3_reduce
I0403 15:34:34.155061 10574 net.cpp:399] inception_5a/3x3 -> inception_5a/3x3
I0403 15:34:34.160044 10574 net.cpp:141] Setting up inception_5a/3x3
I0403 15:34:34.160076 10574 net.cpp:148] Top shape: 24 320 7 7 (376320)
I0403 15:34:34.160092 10574 net.cpp:156] Memory required for data: 1297544736
I0403 15:34:34.160110 10574 layer_factory.hpp:77] Creating layer inception_5a/relu_3x3
I0403 15:34:34.160128 10574 net.cpp:91] Creating Layer inception_5a/relu_3x3
I0403 15:34:34.160145 10574 net.cpp:425] inception_5a/relu_3x3 <- inception_5a/3x3
I0403 15:34:34.160161 10574 net.cpp:386] inception_5a/relu_3x3 -> inception_5a/3x3 (in-place)
I0403 15:34:34.160455 10574 net.cpp:141] Setting up inception_5a/relu_3x3
I0403 15:34:34.160482 10574 net.cpp:148] Top shape: 24 320 7 7 (376320)
I0403 15:34:34.160497 10574 net.cpp:156] Memory required for data: 1299050016
I0403 15:34:34.160512 10574 layer_factory.hpp:77] Creating layer inception_5a/5x5_reduce
I0403 15:34:34.160534 10574 net.cpp:91] Creating Layer inception_5a/5x5_reduce
I0403 15:34:34.160552 10574 net.cpp:425] inception_5a/5x5_reduce <- pool4/3x3_s2_pool4/3x3_s2_0_split_2
I0403 15:34:34.160570 10574 net.cpp:399] inception_5a/5x5_reduce -> inception_5a/5x5_reduce
I0403 15:34:34.161726 10574 net.cpp:141] Setting up inception_5a/5x5_reduce
I0403 15:34:34.161756 10574 net.cpp:148] Top shape: 24 32 7 7 (37632)
I0403 15:34:34.161772 10574 net.cpp:156] Memory required for data: 1299200544
I0403 15:34:34.161789 10574 layer_factory.hpp:77] Creating layer inception_5a/relu_5x5_reduce
I0403 15:34:34.161808 10574 net.cpp:91] Creating Layer inception_5a/relu_5x5_reduce
I0403 15:34:34.161823 10574 net.cpp:425] inception_5a/relu_5x5_reduce <- inception_5a/5x5_reduce
I0403 15:34:34.161840 10574 net.cpp:386] inception_5a/relu_5x5_reduce -> inception_5a/5x5_reduce (in-place)
I0403 15:34:34.162163 10574 net.cpp:141] Setting up inception_5a/relu_5x5_reduce
I0403 15:34:34.162191 10574 net.cpp:148] Top shape: 24 32 7 7 (37632)
I0403 15:34:34.162207 10574 net.cpp:156] Memory required for data: 1299351072
I0403 15:34:34.162222 10574 layer_factory.hpp:77] Creating layer inception_5a/5x5
I0403 15:34:34.162245 10574 net.cpp:91] Creating Layer inception_5a/5x5
I0403 15:34:34.162262 10574 net.cpp:425] inception_5a/5x5 <- inception_5a/5x5_reduce
I0403 15:34:34.162294 10574 net.cpp:399] inception_5a/5x5 -> inception_5a/5x5
I0403 15:34:34.164021 10574 net.cpp:141] Setting up inception_5a/5x5
I0403 15:34:34.164062 10574 net.cpp:148] Top shape: 24 128 7 7 (150528)
I0403 15:34:34.164078 10574 net.cpp:156] Memory required for data: 1299953184
I0403 15:34:34.164095 10574 layer_factory.hpp:77] Creating layer inception_5a/relu_5x5
I0403 15:34:34.164113 10574 net.cpp:91] Creating Layer inception_5a/relu_5x5
I0403 15:34:34.164129 10574 net.cpp:425] inception_5a/relu_5x5 <- inception_5a/5x5
I0403 15:34:34.164146 10574 net.cpp:386] inception_5a/relu_5x5 -> inception_5a/5x5 (in-place)
I0403 15:34:34.164340 10574 net.cpp:141] Setting up inception_5a/relu_5x5
I0403 15:34:34.164364 10574 net.cpp:148] Top shape: 24 128 7 7 (150528)
I0403 15:34:34.164378 10574 net.cpp:156] Memory required for data: 1300555296
I0403 15:34:34.164393 10574 layer_factory.hpp:77] Creating layer inception_5a/pool
I0403 15:34:34.164410 10574 net.cpp:91] Creating Layer inception_5a/pool
I0403 15:34:34.164425 10574 net.cpp:425] inception_5a/pool <- pool4/3x3_s2_pool4/3x3_s2_0_split_3
I0403 15:34:34.164445 10574 net.cpp:399] inception_5a/pool -> inception_5a/pool
I0403 15:34:34.164513 10574 net.cpp:141] Setting up inception_5a/pool
I0403 15:34:34.164538 10574 net.cpp:148] Top shape: 24 832 7 7 (978432)
I0403 15:34:34.164552 10574 net.cpp:156] Memory required for data: 1304469024
I0403 15:34:34.164566 10574 layer_factory.hpp:77] Creating layer inception_5a/pool_proj
I0403 15:34:34.164587 10574 net.cpp:91] Creating Layer inception_5a/pool_proj
I0403 15:34:34.164604 10574 net.cpp:425] inception_5a/pool_proj <- inception_5a/pool
I0403 15:34:34.164623 10574 net.cpp:399] inception_5a/pool_proj -> inception_5a/pool_proj
I0403 15:34:34.166880 10574 net.cpp:141] Setting up inception_5a/pool_proj
I0403 15:34:34.166909 10574 net.cpp:148] Top shape: 24 128 7 7 (150528)
I0403 15:34:34.166926 10574 net.cpp:156] Memory required for data: 1305071136
I0403 15:34:34.166944 10574 layer_factory.hpp:77] Creating layer inception_5a/relu_pool_proj
I0403 15:34:34.166968 10574 net.cpp:91] Creating Layer inception_5a/relu_pool_proj
I0403 15:34:34.166986 10574 net.cpp:425] inception_5a/relu_pool_proj <- inception_5a/pool_proj
I0403 15:34:34.167003 10574 net.cpp:386] inception_5a/relu_pool_proj -> inception_5a/pool_proj (in-place)
I0403 15:34:34.167295 10574 net.cpp:141] Setting up inception_5a/relu_pool_proj
I0403 15:34:34.167320 10574 net.cpp:148] Top shape: 24 128 7 7 (150528)
I0403 15:34:34.167335 10574 net.cpp:156] Memory required for data: 1305673248
I0403 15:34:34.167349 10574 layer_factory.hpp:77] Creating layer inception_5a/output
I0403 15:34:34.167368 10574 net.cpp:91] Creating Layer inception_5a/output
I0403 15:34:34.167384 10574 net.cpp:425] inception_5a/output <- inception_5a/1x1
I0403 15:34:34.167402 10574 net.cpp:425] inception_5a/output <- inception_5a/3x3
I0403 15:34:34.167418 10574 net.cpp:425] inception_5a/output <- inception_5a/5x5
I0403 15:34:34.167433 10574 net.cpp:425] inception_5a/output <- inception_5a/pool_proj
I0403 15:34:34.167449 10574 net.cpp:399] inception_5a/output -> inception_5a/output
I0403 15:34:34.167498 10574 net.cpp:141] Setting up inception_5a/output
I0403 15:34:34.167521 10574 net.cpp:148] Top shape: 24 832 7 7 (978432)
I0403 15:34:34.167536 10574 net.cpp:156] Memory required for data: 1309586976
I0403 15:34:34.167549 10574 layer_factory.hpp:77] Creating layer inception_5a/output_inception_5a/output_0_split
I0403 15:34:34.167567 10574 net.cpp:91] Creating Layer inception_5a/output_inception_5a/output_0_split
I0403 15:34:34.167582 10574 net.cpp:425] inception_5a/output_inception_5a/output_0_split <- inception_5a/output
I0403 15:34:34.167601 10574 net.cpp:399] inception_5a/output_inception_5a/output_0_split -> inception_5a/output_inception_5a/output_0_split_0
I0403 15:34:34.167623 10574 net.cpp:399] inception_5a/output_inception_5a/output_0_split -> inception_5a/output_inception_5a/output_0_split_1
I0403 15:34:34.167642 10574 net.cpp:399] inception_5a/output_inception_5a/output_0_split -> inception_5a/output_inception_5a/output_0_split_2
I0403 15:34:34.167661 10574 net.cpp:399] inception_5a/output_inception_5a/output_0_split -> inception_5a/output_inception_5a/output_0_split_3
I0403 15:34:34.167770 10574 net.cpp:141] Setting up inception_5a/output_inception_5a/output_0_split
I0403 15:34:34.167796 10574 net.cpp:148] Top shape: 24 832 7 7 (978432)
I0403 15:34:34.167814 10574 net.cpp:148] Top shape: 24 832 7 7 (978432)
I0403 15:34:34.167829 10574 net.cpp:148] Top shape: 24 832 7 7 (978432)
I0403 15:34:34.167845 10574 net.cpp:148] Top shape: 24 832 7 7 (978432)
I0403 15:34:34.167857 10574 net.cpp:156] Memory required for data: 1325241888
I0403 15:34:34.167871 10574 layer_factory.hpp:77] Creating layer inception_5b/1x1
I0403 15:34:34.167894 10574 net.cpp:91] Creating Layer inception_5b/1x1
I0403 15:34:34.167912 10574 net.cpp:425] inception_5b/1x1 <- inception_5a/output_inception_5a/output_0_split_0
I0403 15:34:34.167933 10574 net.cpp:399] inception_5b/1x1 -> inception_5b/1x1
I0403 15:34:34.171769 10574 net.cpp:141] Setting up inception_5b/1x1
I0403 15:34:34.171798 10574 net.cpp:148] Top shape: 24 384 7 7 (451584)
I0403 15:34:34.171815 10574 net.cpp:156] Memory required for data: 1327048224
I0403 15:34:34.171833 10574 layer_factory.hpp:77] Creating layer inception_5b/relu_1x1
I0403 15:34:34.171854 10574 net.cpp:91] Creating Layer inception_5b/relu_1x1
I0403 15:34:34.171870 10574 net.cpp:425] inception_5b/relu_1x1 <- inception_5b/1x1
I0403 15:34:34.171888 10574 net.cpp:386] inception_5b/relu_1x1 -> inception_5b/1x1 (in-place)
I0403 15:34:34.172202 10574 net.cpp:141] Setting up inception_5b/relu_1x1
I0403 15:34:34.172229 10574 net.cpp:148] Top shape: 24 384 7 7 (451584)
I0403 15:34:34.172243 10574 net.cpp:156] Memory required for data: 1328854560
I0403 15:34:34.172258 10574 layer_factory.hpp:77] Creating layer inception_5b/3x3_reduce
I0403 15:34:34.172281 10574 net.cpp:91] Creating Layer inception_5b/3x3_reduce
I0403 15:34:34.172299 10574 net.cpp:425] inception_5b/3x3_reduce <- inception_5a/output_inception_5a/output_0_split_1
I0403 15:34:34.172320 10574 net.cpp:399] inception_5b/3x3_reduce -> inception_5b/3x3_reduce
I0403 15:34:34.175020 10574 net.cpp:141] Setting up inception_5b/3x3_reduce
I0403 15:34:34.175050 10574 net.cpp:148] Top shape: 24 192 7 7 (225792)
I0403 15:34:34.175066 10574 net.cpp:156] Memory required for data: 1329757728
I0403 15:34:34.175084 10574 layer_factory.hpp:77] Creating layer inception_5b/relu_3x3_reduce
I0403 15:34:34.175106 10574 net.cpp:91] Creating Layer inception_5b/relu_3x3_reduce
I0403 15:34:34.175122 10574 net.cpp:425] inception_5b/relu_3x3_reduce <- inception_5b/3x3_reduce
I0403 15:34:34.175140 10574 net.cpp:386] inception_5b/relu_3x3_reduce -> inception_5b/3x3_reduce (in-place)
I0403 15:34:34.175334 10574 net.cpp:141] Setting up inception_5b/relu_3x3_reduce
I0403 15:34:34.175361 10574 net.cpp:148] Top shape: 24 192 7 7 (225792)
I0403 15:34:34.175376 10574 net.cpp:156] Memory required for data: 1330660896
I0403 15:34:34.175392 10574 layer_factory.hpp:77] Creating layer inception_5b/3x3
I0403 15:34:34.175415 10574 net.cpp:91] Creating Layer inception_5b/3x3
I0403 15:34:34.175432 10574 net.cpp:425] inception_5b/3x3 <- inception_5b/3x3_reduce
I0403 15:34:34.175451 10574 net.cpp:399] inception_5b/3x3 -> inception_5b/3x3
I0403 15:34:34.182277 10574 net.cpp:141] Setting up inception_5b/3x3
I0403 15:34:34.182306 10574 net.cpp:148] Top shape: 24 384 7 7 (451584)
I0403 15:34:34.182322 10574 net.cpp:156] Memory required for data: 1332467232
I0403 15:34:34.182340 10574 layer_factory.hpp:77] Creating layer inception_5b/relu_3x3
I0403 15:34:34.182360 10574 net.cpp:91] Creating Layer inception_5b/relu_3x3
I0403 15:34:34.182377 10574 net.cpp:425] inception_5b/relu_3x3 <- inception_5b/3x3
I0403 15:34:34.182394 10574 net.cpp:386] inception_5b/relu_3x3 -> inception_5b/3x3 (in-place)
I0403 15:34:34.182703 10574 net.cpp:141] Setting up inception_5b/relu_3x3
I0403 15:34:34.182730 10574 net.cpp:148] Top shape: 24 384 7 7 (451584)
I0403 15:34:34.182745 10574 net.cpp:156] Memory required for data: 1334273568
I0403 15:34:34.182760 10574 layer_factory.hpp:77] Creating layer inception_5b/5x5_reduce
I0403 15:34:34.182801 10574 net.cpp:91] Creating Layer inception_5b/5x5_reduce
I0403 15:34:34.182819 10574 net.cpp:425] inception_5b/5x5_reduce <- inception_5a/output_inception_5a/output_0_split_2
I0403 15:34:34.182839 10574 net.cpp:399] inception_5b/5x5_reduce -> inception_5b/5x5_reduce
I0403 15:34:34.184137 10574 net.cpp:141] Setting up inception_5b/5x5_reduce
I0403 15:34:34.184171 10574 net.cpp:148] Top shape: 24 48 7 7 (56448)
I0403 15:34:34.184190 10574 net.cpp:156] Memory required for data: 1334499360
I0403 15:34:34.184208 10574 layer_factory.hpp:77] Creating layer inception_5b/relu_5x5_reduce
I0403 15:34:34.184226 10574 net.cpp:91] Creating Layer inception_5b/relu_5x5_reduce
I0403 15:34:34.184243 10574 net.cpp:425] inception_5b/relu_5x5_reduce <- inception_5b/5x5_reduce
I0403 15:34:34.184259 10574 net.cpp:386] inception_5b/relu_5x5_reduce -> inception_5b/5x5_reduce (in-place)
I0403 15:34:34.184640 10574 net.cpp:141] Setting up inception_5b/relu_5x5_reduce
I0403 15:34:34.184667 10574 net.cpp:148] Top shape: 24 48 7 7 (56448)
I0403 15:34:34.184682 10574 net.cpp:156] Memory required for data: 1334725152
I0403 15:34:34.184698 10574 layer_factory.hpp:77] Creating layer inception_5b/5x5
I0403 15:34:34.184718 10574 net.cpp:91] Creating Layer inception_5b/5x5
I0403 15:34:34.184736 10574 net.cpp:425] inception_5b/5x5 <- inception_5b/5x5_reduce
I0403 15:34:34.184754 10574 net.cpp:399] inception_5b/5x5 -> inception_5b/5x5
I0403 15:34:34.186796 10574 net.cpp:141] Setting up inception_5b/5x5
I0403 15:34:34.186825 10574 net.cpp:148] Top shape: 24 128 7 7 (150528)
I0403 15:34:34.186841 10574 net.cpp:156] Memory required for data: 1335327264
I0403 15:34:34.186858 10574 layer_factory.hpp:77] Creating layer inception_5b/relu_5x5
I0403 15:34:34.186875 10574 net.cpp:91] Creating Layer inception_5b/relu_5x5
I0403 15:34:34.186892 10574 net.cpp:425] inception_5b/relu_5x5 <- inception_5b/5x5
I0403 15:34:34.186910 10574 net.cpp:386] inception_5b/relu_5x5 -> inception_5b/5x5 (in-place)
I0403 15:34:34.187108 10574 net.cpp:141] Setting up inception_5b/relu_5x5
I0403 15:34:34.187131 10574 net.cpp:148] Top shape: 24 128 7 7 (150528)
I0403 15:34:34.187145 10574 net.cpp:156] Memory required for data: 1335929376
I0403 15:34:34.187160 10574 layer_factory.hpp:77] Creating layer inception_5b/pool
I0403 15:34:34.187176 10574 net.cpp:91] Creating Layer inception_5b/pool
I0403 15:34:34.187193 10574 net.cpp:425] inception_5b/pool <- inception_5a/output_inception_5a/output_0_split_3
I0403 15:34:34.187213 10574 net.cpp:399] inception_5b/pool -> inception_5b/pool
I0403 15:34:34.187283 10574 net.cpp:141] Setting up inception_5b/pool
I0403 15:34:34.187307 10574 net.cpp:148] Top shape: 24 832 7 7 (978432)
I0403 15:34:34.187321 10574 net.cpp:156] Memory required for data: 1339843104
I0403 15:34:34.187335 10574 layer_factory.hpp:77] Creating layer inception_5b/pool_proj
I0403 15:34:34.187360 10574 net.cpp:91] Creating Layer inception_5b/pool_proj
I0403 15:34:34.187376 10574 net.cpp:425] inception_5b/pool_proj <- inception_5b/pool
I0403 15:34:34.187396 10574 net.cpp:399] inception_5b/pool_proj -> inception_5b/pool_proj
I0403 15:34:34.189682 10574 net.cpp:141] Setting up inception_5b/pool_proj
I0403 15:34:34.189712 10574 net.cpp:148] Top shape: 24 128 7 7 (150528)
I0403 15:34:34.189728 10574 net.cpp:156] Memory required for data: 1340445216
I0403 15:34:34.189745 10574 layer_factory.hpp:77] Creating layer inception_5b/relu_pool_proj
I0403 15:34:34.189764 10574 net.cpp:91] Creating Layer inception_5b/relu_pool_proj
I0403 15:34:34.189779 10574 net.cpp:425] inception_5b/relu_pool_proj <- inception_5b/pool_proj
I0403 15:34:34.189796 10574 net.cpp:386] inception_5b/relu_pool_proj -> inception_5b/pool_proj (in-place)
I0403 15:34:34.190093 10574 net.cpp:141] Setting up inception_5b/relu_pool_proj
I0403 15:34:34.190120 10574 net.cpp:148] Top shape: 24 128 7 7 (150528)
I0403 15:34:34.190136 10574 net.cpp:156] Memory required for data: 1341047328
I0403 15:34:34.190150 10574 layer_factory.hpp:77] Creating layer inception_5b/output
I0403 15:34:34.190168 10574 net.cpp:91] Creating Layer inception_5b/output
I0403 15:34:34.190197 10574 net.cpp:425] inception_5b/output <- inception_5b/1x1
I0403 15:34:34.190214 10574 net.cpp:425] inception_5b/output <- inception_5b/3x3
I0403 15:34:34.190230 10574 net.cpp:425] inception_5b/output <- inception_5b/5x5
I0403 15:34:34.190246 10574 net.cpp:425] inception_5b/output <- inception_5b/pool_proj
I0403 15:34:34.190263 10574 net.cpp:399] inception_5b/output -> inception_5b/output
I0403 15:34:34.190315 10574 net.cpp:141] Setting up inception_5b/output
I0403 15:34:34.190338 10574 net.cpp:148] Top shape: 24 1024 7 7 (1204224)
I0403 15:34:34.190352 10574 net.cpp:156] Memory required for data: 1345864224
I0403 15:34:34.190367 10574 layer_factory.hpp:77] Creating layer pool5/7x7_s1
I0403 15:34:34.190387 10574 net.cpp:91] Creating Layer pool5/7x7_s1
I0403 15:34:34.190402 10574 net.cpp:425] pool5/7x7_s1 <- inception_5b/output
I0403 15:34:34.190420 10574 net.cpp:399] pool5/7x7_s1 -> pool5/7x7_s1
I0403 15:34:34.190632 10574 net.cpp:141] Setting up pool5/7x7_s1
I0403 15:34:34.190659 10574 net.cpp:148] Top shape: 24 1024 1 1 (24576)
I0403 15:34:34.190675 10574 net.cpp:156] Memory required for data: 1345962528
I0403 15:34:34.190688 10574 layer_factory.hpp:77] Creating layer pool5/drop_7x7_s1
I0403 15:34:34.190706 10574 net.cpp:91] Creating Layer pool5/drop_7x7_s1
I0403 15:34:34.190721 10574 net.cpp:425] pool5/drop_7x7_s1 <- pool5/7x7_s1
I0403 15:34:34.190737 10574 net.cpp:386] pool5/drop_7x7_s1 -> pool5/7x7_s1 (in-place)
I0403 15:34:34.190786 10574 net.cpp:141] Setting up pool5/drop_7x7_s1
I0403 15:34:34.190809 10574 net.cpp:148] Top shape: 24 1024 1 1 (24576)
I0403 15:34:34.190821 10574 net.cpp:156] Memory required for data: 1346060832
I0403 15:34:34.190836 10574 layer_factory.hpp:77] Creating layer loss3/classifier_plantvillage
I0403 15:34:34.190856 10574 net.cpp:91] Creating Layer loss3/classifier_plantvillage
I0403 15:34:34.190872 10574 net.cpp:425] loss3/classifier_plantvillage <- pool5/7x7_s1
I0403 15:34:34.190891 10574 net.cpp:399] loss3/classifier_plantvillage -> loss3/classifier_plantvillage
I0403 15:34:34.191313 10574 net.cpp:141] Setting up loss3/classifier_plantvillage
I0403 15:34:34.191337 10574 net.cpp:148] Top shape: 24 38 (912)
I0403 15:34:34.191351 10574 net.cpp:156] Memory required for data: 1346064480
I0403 15:34:34.191370 10574 layer_factory.hpp:77] Creating layer loss3/classifier_plantvillage_loss3/classifier_plantvillage_0_split
I0403 15:34:34.191387 10574 net.cpp:91] Creating Layer loss3/classifier_plantvillage_loss3/classifier_plantvillage_0_split
I0403 15:34:34.191402 10574 net.cpp:425] loss3/classifier_plantvillage_loss3/classifier_plantvillage_0_split <- loss3/classifier_plantvillage
I0403 15:34:34.191422 10574 net.cpp:399] loss3/classifier_plantvillage_loss3/classifier_plantvillage_0_split -> loss3/classifier_plantvillage_loss3/classifier_plantvillage_0_split_0
I0403 15:34:34.191442 10574 net.cpp:399] loss3/classifier_plantvillage_loss3/classifier_plantvillage_0_split -> loss3/classifier_plantvillage_loss3/classifier_plantvillage_0_split_1
I0403 15:34:34.191462 10574 net.cpp:399] loss3/classifier_plantvillage_loss3/classifier_plantvillage_0_split -> loss3/classifier_plantvillage_loss3/classifier_plantvillage_0_split_2
I0403 15:34:34.191480 10574 net.cpp:399] loss3/classifier_plantvillage_loss3/classifier_plantvillage_0_split -> loss3/classifier_plantvillage_loss3/classifier_plantvillage_0_split_3
I0403 15:34:34.191582 10574 net.cpp:141] Setting up loss3/classifier_plantvillage_loss3/classifier_plantvillage_0_split
I0403 15:34:34.191604 10574 net.cpp:148] Top shape: 24 38 (912)
I0403 15:34:34.191619 10574 net.cpp:148] Top shape: 24 38 (912)
I0403 15:34:34.191634 10574 net.cpp:148] Top shape: 24 38 (912)
I0403 15:34:34.191649 10574 net.cpp:148] Top shape: 24 38 (912)
I0403 15:34:34.191663 10574 net.cpp:156] Memory required for data: 1346079072
I0403 15:34:34.191676 10574 layer_factory.hpp:77] Creating layer loss1/loss
I0403 15:34:34.191697 10574 net.cpp:91] Creating Layer loss1/loss
I0403 15:34:34.191714 10574 net.cpp:425] loss1/loss <- loss1/classifier_plantvillage_loss1/classifier_plantvillage_0_split_0
I0403 15:34:34.191742 10574 net.cpp:425] loss1/loss <- label_data_1_split_0
…
