…
I0403 15:51:53.898577 11583 net.cpp:313] The NetState phase (1) differed from the phase (0) specified by a rule in layer data
I0403 15:51:53.899901 11583 net.cpp:49] Initializing net from parameters: 
state {
  phase: TEST
}
layer {
  name: "data"
  type: "Data"
  top: "data"
  top: "label"
  include {
    phase: TEST
  }
  transform_param {
    mirror: false
    crop_size: 224
    mean_file: "/home/mohanty/data/final_dataset/lmdb/segmented-80-20/mean.binaryproto"
  }
  data_param {
    source: "/home/mohanty/data/final_dataset/lmdb/segmented-80-20/test_db"
    batch_size: 24
    backend: LMDB
  }
}
layer {
  name: "conv1/7x7_s2"
  type: "Convolution"
  bottom: "data"
  top: "conv1/7x7_s2"
  param {
    lr_mult: 1
    decay_mult: 1
  }
  param {
    lr_mult: 2
    decay_mult: 0
  }
  convolution_param {
    num_output: 64
    pad: 3
    kernel_size: 7
    stride: 2
    weight_filler {
      type: "xavier"
      std: 0.1
    }
    bias_filler {
      type: "constant"
      value: 0.2
    }
  }
}
layer {
  name: "conv1/relu_7x7"
  type: "ReLU"
  bottom: "conv1/7x7_s2"
  top: "conv1/7x7_s2"
}
layer {
  name: "pool1/3x3_s2"
  type: "Pooling"
  bottom: "conv1/7x7_s2"
  top: "pool1/3x3_s2"
  pooling_param {
    pool: MAX
    kernel_size: 3
    stride: 2
  }
}
layer {
  name: "pool1/norm1"
  type: "LRN"
  bottom: "pool1/3x3_s2"
  top: "pool1/norm1"
  lrn_param {
    local_size: 5
    alpha: 0.0001
    beta: 0.75
  }
}
layer {
  name: "conv2/3x3_reduce"
  type: "Convolution"
  bottom: "pool1/norm1"
  top: "conv2/3x3_reduce"
  param {
    lr_mult: 1
    decay_mult: 1
  }
  param {
    lr_mult: 2
    decay_mult: 0
  }
  convolution_param {
    num_output: 64
    kernel_size: 1
    weight_filler {
      type: "xavier"
      std: 0.1
    }
    bias_filler {
      type: "constant"
      value: 0.2
    }
  }
}
layer {
  name: "conv2/relu_3x3_reduce"
  type: "ReLU"
  bottom: "conv2/3x3_reduce"
  top: "conv2/3x3_reduce"
}
layer {
  name: "conv2/3x3"
  type: "Convolution"
  bottom: "conv2/3x3_reduce"
  top: "conv2/3x3"
  param {
    lr_mult: 1
    decay_mult: 1
  }
  param {
    lr_mult: 2
    decay_mult: 0
  }
  convolution_param {
    num_output: 192
    pad: 1
    kernel_size: 3
    weight_filler {
      type: "xavier"
      std: 0.03
    }
    bias_filler {
      type: "constant"
      value: 0.2
    }
  }
}
layer {
  name: "conv2/relu_3x3"
  type: "ReLU"
  bottom: "conv2/3x3"
  top: "conv2/3x3"
}
layer {
  name: "conv2/norm2"
  type: "LRN"
  bottom: "conv2/3x3"
  top: "conv2/norm2"
  lrn_param {
    local_size: 5
    alpha: 0.0001
    beta: 0.75
  }
}
layer {
  name: "pool2/3x3_s2"
  type: "Pooling"
  bottom: "conv2/norm2"
  top: "pool2/3x3_s2"
  pooling_param {
    pool: MAX
    kernel_size: 3
    stride: 2
  }
}
layer {
  name: "inception_3a/1x1"
  type: "Convolution"
  bottom: "pool2/3x3_s2"
  top: "inception_3a/1x1"
  param {
    lr_mult: 1
    decay_mult: 1
  }
  param {
    lr_mult: 2
    decay_mult: 0
  }
  convolution_param {
    num_output: 64
    kernel_size: 1
    weight_filler {
      type: "xavier"
      std: 0.03
    }
    bias_filler {
      type: "constant"
      value: 0.2
    }
  }
}
layer {
  name: "inception_3a/relu_1x1"
  type: "ReLU"
  bottom: "inception_3a/1x1"
  top: "inception_3a/1x1"
}
layer {
  name: "inception_3a/3x3_reduce"
  type: "Convolution"
  bottom: "pool2/3x3_s2"
  top: "inception_3a/3x3_reduce"
  param {
    lr_mult: 1
    decay_mult: 1
  }
  param {
    lr_mult: 2
    decay_mult: 0
  }
  convolution_param {
    num_output: 96
    kernel_size: 1
    weight_filler {
      type: "xavier"
      std: 0.09
    }
    bias_filler {
      type: "constant"
      value: 0.2
    }
  }
}
layer {
  name: "inception_3a/relu_3x3_reduce"
  type: "ReLU"
  bottom: "inception_3a/3x3_reduce"
  top: "inception_3a/3x3_reduce"
}
layer {
  name: "inception_3a/3x3"
  type: "Convolution"
  bottom: "inception_3a/3x3_reduce"
  top: "inception_3a/3x3"
  param {
    lr_mult: 1
    decay_mult: 1
  }
  param {
    lr_mult: 2
    decay_mult: 0
  }
  convolution_param {
    num_output: 128
    pad: 1
    kernel_size: 3
    weight_filler {
      type: "xavier"
      std: 0.03
    }
    bias_filler {
      type: "constant"
      value: 0.2
    }
  }
}
layer {
  name: "inception_3a/relu_3x3"
  type: "ReLU"
  bottom: "inception_3a/3x3"
  top: "inception_3a/3x3"
}
layer {
  name: "inception_3a/5x5_reduce"
  type: "Convolution"
  bottom: "pool2/3x3_s2"
  top: "inception_3a/5x5_reduce"
  param {
    lr_mult: 1
    decay_mult: 1
  }
  param {
    lr_mult: 2
    decay_mult: 0
  }
  convolution_param {
    num_output: 16
    kernel_size: 1
    weight_filler {
      type: "xavier"
      std: 0.2
    }
    bias_filler {
      type: "constant"
      value: 0.2
    }
  }
}
layer {
  name: "inception_3a/relu_5x5_reduce"
  type: "ReLU"
  bottom: "inception_3a/5x5_reduce"
  top: "inception_3a/5x5_reduce"
}
layer {
  name: "inception_3a/5x5"
  type: "Convolution"
  bottom: "inception_3a/5x5_reduce"
  top: "inception_3a/5x5"
  param {
    lr_mult: 1
    decay_mult: 1
  }
  param {
    lr_mult: 2
    decay_mult: 0
  }
  convolution_param {
    num_output: 32
    pad: 2
    kernel_size: 5
    weight_filler {
      type: "xavier"
      std: 0.03
    }
    bias_filler {
      type: "constant"
      value: 0.2
    }
  }
}
layer {
  name: "inception_3a/relu_5x5"
  type: "ReLU"
  bottom: "inception_3a/5x5"
  top: "inception_3a/5x5"
}
layer {
  name: "inception_3a/pool"
  type: "Pooling"
  bottom: "pool2/3x3_s2"
  top: "inception_3a/pool"
  pooling_param {
    pool: MAX
    kernel_size: 3
    stride: 1
    pad: 1
  }
}
layer {
  name: "inception_3a/pool_proj"
  type: "Convolution"
  bottom: "inception_3a/pool"
  top: "inception_3a/pool_proj"
  param {
    lr_mult: 1
    decay_mult: 1
  }
  param {
    lr_mult: 2
    decay_mult: 0
  }
  convolution_param {
    num_output: 32
    kernel_size: 1
    weight_filler {
      type: "xavier"
      std: 0.1
    }
    bias_filler {
      type: "constant"
      value: 0.2
    }
  }
}
layer {
  name: "inception_3a/relu_pool_proj"
  type: "ReLU"
  bottom: "inception_3a/pool_proj"
  top: "inception_3a/pool_proj"
}
layer {
  name: "inception_3a/output"
  type: "Concat"
  bottom: "inception_3a/1x1"
  bottom: "inception_3a/3x3"
  bottom: "inception_3a/5x5"
  bottom: "inception_3a/pool_proj"
  top: "inception_3a/output"
}
layer {
  name: "inception_3b/1x1"
  type: "Convolution"
  bottom: "inception_3a/output"
  top: "inception_3b/1x1"
  param {
    lr_mult: 1
    decay_mult: 1
  }
  param {
    lr_mult: 2
    decay_mult: 0
  }
  convolution_param {
    num_output: 128
    kernel_size: 1
    weight_filler {
      type: "xavier"
      std: 0.03
    }
    bias_filler {
      type: "constant"
      value: 0.2
    }
  }
}
layer {
  name: "inception_3b/relu_1x1"
  type: "ReLU"
  bottom: "inception_3b/1x1"
  top: "inception_3b/1x1"
}
layer {
  name: "inception_3b/3x3_reduce"
  type: "Convolution"
  bottom: "inception_3a/output"
  top: "inception_3b/3x3_reduce"
  param {
    lr_mult: 1
    decay_mult: 1
  }
  param {
    lr_mult: 2
    decay_mult: 0
  }
  convolution_param {
    num_output: 128
    kernel_size: 1
    weight_filler {
      type: "xavier"
      std: 0.09
    }
    bias_filler {
      type: "constant"
      value: 0.2
    }
  }
}
layer {
  name: "inception_3b/relu_3x3_reduce"
  type: "ReLU"
  bottom: "inception_3b/3x3_reduce"
  top: "inception_3b/3x3_reduce"
}
layer {
  name: "inception_3b/3x3"
  type: "Convolution"
  bottom: "inception_3b/3x3_reduce"
  top: "inception_3b/3x3"
  param {
    lr_mult: 1
    decay_mult: 1
  }
  param {
    lr_mult: 2
    decay_mult: 0
  }
  convolution_param {
    num_output: 192
    pad: 1
    kernel_size: 3
    weight_filler {
      type: "xavier"
      std: 0.03
    }
    bias_filler {
      type: "constant"
      value: 0.2
    }
  }
}
layer {
  name: "inception_3b/relu_3x3"
  type: "ReLU"
  bottom: "inception_3b/3x3"
  top: "inception_3b/3x3"
}
layer {
  name: "inception_3b/5x5_reduce"
  type: "Convolution"
  bottom: "inception_3a/output"
  top: "inception_3b/5x5_reduce"
  param {
    lr_mult: 1
    decay_mult: 1
  }
  param {
    lr_mult: 2
    decay_mult: 0
  }
  convolution_param {
    num_output: 32
    kernel_size: 1
    weight_filler {
      type: "xavier"
      std: 0.2
    }
    bias_filler {
      type: "constant"
      value: 0.2
    }
  }
}
layer {
  name: "inception_3b/relu_5x5_reduce"
  type: "ReLU"
  bottom: "inception_3b/5x5_reduce"
  top: "inception_3b/5x5_reduce"
}
layer {
  name: "inception_3b/5x5"
  type: "Convolution"
  bottom: "inception_3b/5x5_reduce"
  top: "inception_3b/5x5"
  param {
    lr_mult: 1
    decay_mult: 1
  }
  param {
    lr_mult: 2
    decay_mult: 0
  }
  convolution_param {
    num_output: 96
    pad: 2
    kernel_size: 5
    weight_filler {
      type: "xavier"
      std: 0.03
    }
    bias_filler {
      type: "constant"
      value: 0.2
    }
  }
}
layer {
  name: "inception_3b/relu_5x5"
  type: "ReLU"
  bottom: "inception_3b/5x5"
  top: "inception_3b/5x5"
}
layer {
  name: "inception_3b/pool"
  type: "Pooling"
  bottom: "inception_3a/output"
  top: "inception_3b/pool"
  pooling_param {
    pool: MAX
    kernel_size: 3
    stride: 1
    pad: 1
  }
}
layer {
  name: "inception_3b/pool_proj"
  type: "Convolution"
  bottom: "inception_3b/pool"
  top: "inception_3b/pool_proj"
  param {
    lr_mult: 1
    decay_mult: 1
  }
  param {
    lr_mult: 2
    decay_mult: 0
  }
  convolution_param {
    num_output: 64
    kernel_size: 1
    weight_filler {
      type: "xavier"
      std: 0.1
    }
    bias_filler {
      type: "constant"
      value: 0.2
    }
  }
}
layer {
  name: "inception_3b/relu_pool_proj"
  type: "ReLU"
  bottom: "inception_3b/pool_proj"
  top: "inception_3b/pool_proj"
}
layer {
  name: "inception_3b/output"
  type: "Concat"
  bottom: "inception_3b/1x1"
  bottom: "inception_3b/3x3"
  bottom: "inception_3b/5x5"
  bottom: "inception_3b/pool_proj"
  top: "inception_3b/output"
}
layer {
  name: "pool3/3x3_s2"
  type: "Pooling"
  bottom: "inception_3b/output"
  top: "pool3/3x3_s2"
  pooling_param {
    pool: MAX
    kernel_size: 3
    stride: 2
  }
}
layer {
  name: "inception_4a/1x1"
  type: "Convolution"
  bottom: "pool3/3x3_s2"
  top: "inception_4a/1x1"
  param {
    lr_mult: 1
    decay_mult: 1
  }
  param {
    lr_mult: 2
    decay_mult: 0
  }
  convolution_param {
    num_output: 192
    kernel_size: 1
    weight_filler {
      type: "xavier"
      std: 0.03
    }
    bias_filler {
      type: "constant"
      value: 0.2
    }
  }
}
layer {
  name: "inception_4a/relu_1x1"
  type: "ReLU"
  bottom: "inception_4a/1x1"
  top: "inception_4a/1x1"
}
layer {
  name: "inception_4a/3x3_reduce"
  type: "Convolution"
  bottom: "pool3/3x3_s2"
  top: "inception_4a/3x3_reduce"
  param {
    lr_mult: 1
    decay_mult: 1
  }
  param {
    lr_mult: 2
    decay_mult: 0
  }
  convolution_param {
    num_output: 96
    kernel_size: 1
    weight_filler {
      type: "xavier"
      std: 0.09
    }
    bias_filler {
      type: "constant"
      value: 0.2
    }
  }
}
layer {
  name: "inception_4a/relu_3x3_reduce"
  type: "ReLU"
  bottom: "inception_4a/3x3_reduce"
  top: "inception_4a/3x3_reduce"
}
layer {
  name: "inception_4a/3x3"
  type: "Convolution"
  bottom: "inception_4a/3x3_reduce"
  top: "inception_4a/3x3"
  param {
    lr_mult: 1
    decay_mult: 1
  }
  param {
    lr_mult: 2
    decay_mult: 0
  }
  convolution_param {
    num_output: 208
    pad: 1
    kernel_size: 3
    weight_filler {
      type: "xavier"
      std: 0.03
    }
    bias_filler {
      type: "constant"
      value: 0.2
    }
  }
}
layer {
  name: "inception_4a/relu_3x3"
  type: "ReLU"
  bottom: "inception_4a/3x3"
  top: "inception_4a/3x3"
}
layer {
  name: "inception_4a/5x5_reduce"
  type: "Convolution"
  bottom: "pool3/3x3_s2"
  top: "inception_4a/5x5_reduce"
  param {
    lr_mult: 1
    decay_mult: 1
  }
  param {
    lr_mult: 2
    decay_mult: 0
  }
  convolution_param {
    num_output: 16
    kernel_size: 1
    weight_filler {
      type: "xavier"
      std: 0.2
    }
    bias_filler {
      type: "constant"
      value: 0.2
    }
  }
}
layer {
  name: "inception_4a/relu_5x5_reduce"
  type: "ReLU"
  bottom: "inception_4a/5x5_reduce"
  top: "inception_4a/5x5_reduce"
}
layer {
  name: "inception_4a/5x5"
  type: "Convolution"
  bottom: "inception_4a/5x5_reduce"
  top: "inception_4a/5x5"
  param {
    lr_mult: 1
    decay_mult: 1
  }
  param {
    lr_mult: 2
    decay_mult: 0
  }
  convolution_param {
    num_output: 48
    pad: 2
    kernel_size: 5
    weight_filler {
      type: "xavier"
      std: 0.03
    }
    bias_filler {
      type: "constant"
      value: 0.2
    }
  }
}
layer {
  name: "inception_4a/relu_5x5"
  type: "ReLU"
  bottom: "inception_4a/5x5"
  top: "inception_4a/5x5"
}
layer {
  name: "inception_4a/pool"
  type: "Pooling"
  bottom: "pool3/3x3_s2"
  top: "inception_4a/pool"
  pooling_param {
    pool: MAX
    kernel_size: 3
    stride: 1
    pad: 1
  }
}
layer {
  name: "inception_4a/pool_proj"
  type: "Convolution"
  bottom: "inception_4a/pool"
  top: "inception_4a/pool_proj"
  param {
    lr_mult: 1
    decay_mult: 1
  }
  param {
    lr_mult: 2
    decay_mult: 0
  }
  convolution_param {
    num_output: 64
    kernel_size: 1
    weight_filler {
      type: "xavier"
      std: 0.1
    }
    bias_filler {
      type: "constant"
      value: 0.2
    }
  }
}
layer {
  name: "inception_4a/relu_pool_proj"
  type: "ReLU"
  bottom: "inception_4a/pool_proj"
  top: "inception_4a/pool_proj"
}
layer {
  name: "inception_4a/output"
  type: "Concat"
  bottom: "inception_4a/1x1"
  bottom: "inception_4a/3x3"
  bottom: "inception_4a/5x5"
  bottom: "inception_4a/pool_proj"
  top: "inception_4a/output"
}
layer {
  name: "loss1/ave_pool"
  type: "Pooling"
  bottom: "inception_4a/output"
  top: "loss1/ave_pool"
  pooling_param {
    pool: AVE
    kernel_size: 5
    stride: 3
  }
}
layer {
  name: "loss1/conv"
  type: "Convolution"
  bottom: "loss1/ave_pool"
  top: "loss1/conv"
  param {
    lr_mult: 1
    decay_mult: 1
  }
  param {
    lr_mult: 2
    decay_mult: 0
  }
  convolution_param {
    num_output: 128
    kernel_size: 1
    weight_filler {
      type: "xavier"
      std: 0.08
    }
    bias_filler {
      type: "constant"
      value: 0.2
    }
  }
}
layer {
  name: "loss1/relu_conv"
  type: "ReLU"
  bottom: "loss1/conv"
  top: "loss1/conv"
}
layer {
  name: "loss1/fc"
  type: "InnerProduct"
  bottom: "loss1/conv"
  top: "loss1/fc"
  param {
    lr_mult: 1
    decay_mult: 1
  }
  param {
    lr_mult: 2
    decay_mult: 0
  }
  inner_product_param {
    num_output: 1024
    weight_filler {
      type: "xavier"
      std: 0.02
    }
    bias_filler {
      type: "constant"
      value: 0.2
    }
  }
}
layer {
  name: "loss1/relu_fc"
  type: "ReLU"
  bottom: "loss1/fc"
  top: "loss1/fc"
}
layer {
  name: "loss1/drop_fc"
  type: "Dropout"
  bottom: "loss1/fc"
  top: "loss1/fc"
  dropout_param {
    dropout_ratio: 0.7
  }
}
layer {
  name: "loss1/classifier_plantvillage"
  type: "InnerProduct"
  bottom: "loss1/fc"
  top: "loss1/classifier_plantvillage"
  param {
    lr_mult: 1
    decay_mult: 1
  }
  param {
    lr_mult: 2
    decay_mult: 0
  }
  inner_product_param {
    num_output: 38
    weight_filler {
      type: "xavier"
      std: 0.0009765625
    }
    bias_filler {
      type: "constant"
      value: 0
    }
  }
}
layer {
  name: "inception_4b/1x1"
  type: "Convolution"
  bottom: "inception_4a/output"
  top: "inception_4b/1x1"
  param {
    lr_mult: 1
    decay_mult: 1
  }
  param {
    lr_mult: 2
    decay_mult: 0
  }
  convolution_param {
    num_output: 160
    kernel_size: 1
    weight_filler {
      type: "xavier"
      std: 0.03
    }
    bias_filler {
      type: "constant"
      value: 0.2
    }
  }
}
layer {
  name: "inception_4b/relu_1x1"
  type: "ReLU"
  bottom: "inception_4b/1x1"
  top: "inception_4b/1x1"
}
layer {
  name: "inception_4b/3x3_reduce"
  type: "Convolution"
  bottom: "inception_4a/output"
  top: "inception_4b/3x3_reduce"
  param {
    lr_mult: 1
    decay_mult: 1
  }
  param {
    lr_mult: 2
    decay_mult: 0
  }
  convolution_param {
    num_output: 112
    kernel_size: 1
    weight_filler {
      type: "xavier"
      std: 0.09
    }
    bias_filler {
      type: "constant"
      value: 0.2
    }
  }
}
layer {
  name: "inception_4b/relu_3x3_reduce"
  type: "ReLU"
  bottom: "inception_4b/3x3_reduce"
  top: "inception_4b/3x3_reduce"
}
layer {
  name: "inception_4b/3x3"
  type: "Convolution"
  bottom: "inception_4b/3x3_reduce"
  top: "inception_4b/3x3"
  param {
    lr_mult: 1
    decay_mult: 1
  }
  param {
    lr_mult: 2
    decay_mult: 0
  }
  convolution_param {
    num_output: 224
    pad: 1
    kernel_size: 3
    weight_filler {
      type: "xavier"
      std: 0.03
    }
    bias_filler {
      type: "constant"
      value: 0.2
    }
  }
}
layer {
  name: "inception_4b/relu_3x3"
  type: "ReLU"
  bottom: "inception_4b/3x3"
  top: "inception_4b/3x3"
}
layer {
  name: "inception_4b/5x5_reduce"
  type: "Convolution"
  bottom: "inception_4a/output"
  top: "inception_4b/5x5_reduce"
  param {
    lr_mult: 1
    decay_mult: 1
  }
  param {
    lr_mult: 2
    decay_mult: 0
  }
  convolution_param {
    num_output: 24
    kernel_size: 1
    weight_filler {
      type: "xavier"
      std: 0.2
    }
    bias_filler {
      type: "constant"
      value: 0.2
    }
  }
}
layer {
  name: "inception_4b/relu_5x5_reduce"
  type: "ReLU"
  bottom: "inception_4b/5x5_reduce"
  top: "inception_4b/5x5_reduce"
}
layer {
  name: "inception_4b/5x5"
  type: "Convolution"
  bottom: "inception_4b/5x5_reduce"
  top: "inception_4b/5x5"
  param {
    lr_mult: 1
    decay_mult: 1
  }
  param {
    lr_mult: 2
    decay_mult: 0
  }
  convolution_param {
    num_output: 64
    pad: 2
    kernel_size: 5
    weight_filler {
      type: "xavier"
      std: 0.03
    }
    bias_filler {
      type: "constant"
      value: 0.2
    }
  }
}
layer {
  name: "inception_4b/relu_5x5"
  type: "ReLU"
  bottom: "inception_4b/5x5"
  top: "inception_4b/5x5"
}
layer {
  name: "inception_4b/pool"
  type: "Pooling"
  bottom: "inception_4a/output"
  top: "inception_4b/pool"
  pooling_param {
    pool: MAX
    kernel_size: 3
    stride: 1
    pad: 1
  }
}
layer {
  name: "inception_4b/pool_proj"
  type: "Convolution"
  bottom: "inception_4b/pool"
  top: "inception_4b/pool_proj"
  param {
    lr_mult: 1
    decay_mult: 1
  }
  param {
    lr_mult: 2
    decay_mult: 0
  }
  convolution_param {
    num_output: 64
    kernel_size: 1
    weight_filler {
      type: "xavier"
      std: 0.1
    }
    bias_filler {
      type: "constant"
      value: 0.2
    }
  }
}
layer {
  name: "inception_4b/relu_pool_proj"
  type: "ReLU"
  bottom: "inception_4b/pool_proj"
  top: "inception_4b/pool_proj"
}
layer {
  name: "inception_4b/output"
  type: "Concat"
  bottom: "inception_4b/1x1"
  bottom: "inception_4b/3x3"
  bottom: "inception_4b/5x5"
  bottom: "inception_4b/pool_proj"
  top: "inception_4b/output"
}
layer {
  name: "inception_4c/1x1"
  type: "Convolution"
  bottom: "inception_4b/output"
  top: "inception_4c/1x1"
  param {
    lr_mult: 1
    decay_mult: 1
  }
  param {
    lr_mult: 2
    decay_mult: 0
  }
  convolution_param {
    num_output: 128
    kernel_size: 1
    weight_filler {
      type: "xavier"
      std: 0.03
    }
    bias_filler {
      type: "constant"
      value: 0.2
    }
  }
}
layer {
  name: "inception_4c/relu_1x1"
  type: "ReLU"
  bottom: "inception_4c/1x1"
  top: "inception_4c/1x1"
}
layer {
  name: "inception_4c/3x3_reduce"
  type: "Convolution"
  bottom: "inception_4b/output"
  top: "inception_4c/3x3_reduce"
  param {
    lr_mult: 1
    decay_mult: 1
  }
  param {
    lr_mult: 2
    decay_mult: 0
  }
  convolution_param {
    num_output: 128
    kernel_size: 1
    weight_filler {
      type: "xavier"
      std: 0.09
    }
    bias_filler {
      type: "constant"
      value: 0.2
    }
  }
}
layer {
  name: "inception_4c/relu_3x3_reduce"
  type: "ReLU"
  bottom: "inception_4c/3x3_reduce"
  top: "inception_4c/3x3_reduce"
}
layer {
  name: "inception_4c/3x3"
  type: "Convolution"
  bottom: "inception_4c/3x3_reduce"
  top: "inception_4c/3x3"
  param {
    lr_mult: 1
    decay_mult: 1
  }
  param {
    lr_mult: 2
    decay_mult: 0
  }
  convolution_param {
    num_output: 256
    pad: 1
    kernel_size: 3
    weight_filler {
      type: "xavier"
      std: 0.03
    }
    bias_filler {
      type: "constant"
      value: 0.2
    }
  }
}
layer {
  name: "inception_4c/relu_3x3"
  type: "ReLU"
  bottom: "inception_4c/3x3"
  top: "inception_4c/3x3"
}
layer {
  name: "inception_4c/5x5_reduce"
  type: "Convolution"
  bottom: "inception_4b/output"
  top: "inception_4c/5x5_reduce"
  param {
    lr_mult: 1
    decay_mult: 1
  }
  param {
    lr_mult: 2
    decay_mult: 0
  }
  convolution_param {
    num_output: 24
    kernel_size: 1
    weight_filler {
      type: "xavier"
      std: 0.2
    }
    bias_filler {
      type: "constant"
      value: 0.2
    }
  }
}
layer {
  name: "inception_4c/relu_5x5_reduce"
  type: "ReLU"
  bottom: "inception_4c/5x5_reduce"
  top: "inception_4c/5x5_reduce"
}
layer {
  name: "inception_4c/5x5"
  type: "Convolution"
  bottom: "inception_4c/5x5_reduce"
  top: "inception_4c/5x5"
  param {
    lr_mult: 1
    decay_mult: 1
  }
  param {
    lr_mult: 2
    decay_mult: 0
  }
  convolution_param {
    num_output: 64
    pad: 2
    kernel_size: 5
    weight_filler {
      type: "xavier"
      std: 0.03
    }
    bias_filler {
      type: "constant"
      value: 0.2
    }
  }
}
layer {
  name: "inception_4c/relu_5x5"
  type: "ReLU"
  bottom: "inception_4c/5x5"
  top: "inception_4c/5x5"
}
layer {
  name: "inception_4c/pool"
  type: "Pooling"
  bottom: "inception_4b/output"
  top: "inception_4c/pool"
  pooling_param {
    pool: MAX
    kernel_size: 3
    stride: 1
    pad: 1
  }
}
layer {
  name: "inception_4c/pool_proj"
  type: "Convolution"
  bottom: "inception_4c/pool"
  top: "inception_4c/pool_proj"
  param {
    lr_mult: 1
    decay_mult: 1
  }
  param {
    lr_mult: 2
    decay_mult: 0
  }
  convolution_param {
    num_output: 64
    kernel_size: 1
    weight_filler {
      type: "xavier"
      std: 0.1
    }
    bias_filler {
      type: "constant"
      value: 0.2
    }
  }
}
layer {
  name: "inception_4c/relu_pool_proj"
  type: "ReLU"
  bottom: "inception_4c/pool_proj"
  top: "inception_4c/pool_proj"
}
layer {
  name: "inception_4c/output"
  type: "Concat"
  bottom: "inception_4c/1x1"
  bottom: "inception_4c/3x3"
  bottom: "inception_4c/5x5"
  bottom: "inception_4c/pool_proj"
  top: "inception_4c/output"
}
layer {
  name: "inception_4d/1x1"
  type: "Convolution"
  bottom: "inception_4c/output"
  top: "inception_4d/1x1"
  param {
    lr_mult: 1
    decay_mult: 1
  }
  param {
    lr_mult: 2
    decay_mult: 0
  }
  convolution_param {
    num_output: 112
    kernel_size: 1
    weight_filler {
      type: "xavier"
      std: 0.03
    }
    bias_filler {
      type: "constant"
      value: 0.2
    }
  }
}
layer {
  name: "inception_4d/relu_1x1"
  type: "ReLU"
  bottom: "inception_4d/1x1"
  top: "inception_4d/1x1"
}
layer {
  name: "inception_4d/3x3_reduce"
  type: "Convolution"
  bottom: "inception_4c/output"
  top: "inception_4d/3x3_reduce"
  param {
    lr_mult: 1
    decay_mult: 1
  }
  param {
    lr_mult: 2
    decay_mult: 0
  }
  convolution_param {
    num_output: 144
    kernel_size: 1
    weight_filler {
      type: "xavier"
      std: 0.09
    }
    bias_filler {
      type: "constant"
      value: 0.2
    }
  }
}
layer {
  name: "inception_4d/relu_3x3_reduce"
  type: "ReLU"
  bottom: "inception_4d/3x3_reduce"
  top: "inception_4d/3x3_reduce"
}
layer {
  name: "inception_4d/3x3"
  type: "Convolution"
  bottom: "inception_4d/3x3_reduce"
  top: "inception_4d/3x3"
  param {
    lr_mult: 1
    decay_mult: 1
  }
  param {
    lr_mult: 2
    decay_mult: 0
  }
  convolution_param {
    num_output: 288
    pad: 1
    kernel_size: 3
    weight_filler {
      type: "xavier"
      std: 0.03
    }
    bias_filler {
      type: "constant"
      value: 0.2
    }
  }
}
layer {
  name: "inception_4d/relu_3x3"
  type: "ReLU"
  bottom: "inception_4d/3x3"
  top: "inception_4d/3x3"
}
layer {
  name: "inception_4d/5x5_reduce"
  type: "Convolution"
  bottom: "inception_4c/output"
  top: "inception_4d/5x5_reduce"
  param {
    lr_mult: 1
    decay_mult: 1
  }
  param {
    lr_mult: 2
    decay_mult: 0
  }
  convolution_param {
    num_output: 32
    kernel_size: 1
    weight_filler {
      type: "xavier"
      std: 0.2
    }
    bias_filler {
      type: "constant"
      value: 0.2
    }
  }
}
layer {
  name: "inception_4d/relu_5x5_reduce"
  type: "ReLU"
  bottom: "inception_4d/5x5_reduce"
  top: "inception_4d/5x5_reduce"
}
layer {
  name: "inception_4d/5x5"
  type: "Convolution"
  bottom: "inception_4d/5x5_reduce"
  top: "inception_4d/5x5"
  param {
    lr_mult: 1
    decay_mult: 1
  }
  param {
    lr_mult: 2
    decay_mult: 0
  }
  convolution_param {
    num_output: 64
    pad: 2
    kernel_size: 5
    weight_filler {
      type: "xavier"
      std: 0.03
    }
    bias_filler {
      type: "constant"
      value: 0.2
    }
  }
}
layer {
  name: "inception_4d/relu_5x5"
  type: "ReLU"
  bottom: "inception_4d/5x5"
  top: "inception_4d/5x5"
}
layer {
  name: "inception_4d/pool"
  type: "Pooling"
  bottom: "inception_4c/output"
  top: "inception_4d/pool"
  pooling_param {
    pool: MAX
    kernel_size: 3
    stride: 1
    pad: 1
  }
}
layer {
  name: "inception_4d/pool_proj"
  type: "Convolution"
  bottom: "inception_4d/pool"
  top: "inception_4d/pool_proj"
  param {
    lr_mult: 1
    decay_mult: 1
  }
  param {
    lr_mult: 2
    decay_mult: 0
  }
  convolution_param {
    num_output: 64
    kernel_size: 1
    weight_filler {
      type: "xavier"
      std: 0.1
    }
    bias_filler {
      type: "constant"
      value: 0.2
    }
  }
}
layer {
  name: "inception_4d/relu_pool_proj"
  type: "ReLU"
  bottom: "inception_4d/pool_proj"
  top: "inception_4d/pool_proj"
}
layer {
  name: "inception_4d/output"
  type: "Concat"
  bottom: "inception_4d/1x1"
  bottom: "inception_4d/3x3"
  bottom: "inception_4d/5x5"
  bottom: "inception_4d/pool_proj"
  top: "inception_4d/output"
}
layer {
  name: "loss2/ave_pool"
  type: "Pooling"
  bottom: "inception_4d/output"
  top: "loss2/ave_pool"
  pooling_param {
    pool: AVE
    kernel_size: 5
    stride: 3
  }
}
layer {
  name: "loss2/conv"
  type: "Convolution"
  bottom: "loss2/ave_pool"
  top: "loss2/conv"
  param {
    lr_mult: 1
    decay_mult: 1
  }
  param {
    lr_mult: 2
    decay_mult: 0
  }
  convolution_param {
    num_output: 128
    kernel_size: 1
    weight_filler {
      type: "xavier"
      std: 0.08
    }
    bias_filler {
      type: "constant"
      value: 0.2
    }
  }
}
layer {
  name: "loss2/relu_conv"
  type: "ReLU"
  bottom: "loss2/conv"
  top: "loss2/conv"
}
layer {
  name: "loss2/fc"
  type: "InnerProduct"
  bottom: "loss2/conv"
  top: "loss2/fc"
  param {
    lr_mult: 1
    decay_mult: 1
  }
  param {
    lr_mult: 2
    decay_mult: 0
  }
  inner_product_param {
    num_output: 1024
    weight_filler {
      type: "xavier"
      std: 0.02
    }
    bias_filler {
      type: "constant"
      value: 0.2
    }
  }
}
layer {
  name: "loss2/relu_fc"
  type: "ReLU"
  bottom: "loss2/fc"
  top: "loss2/fc"
}
layer {
  name: "loss2/drop_fc"
  type: "Dropout"
  bottom: "loss2/fc"
  top: "loss2/fc"
  dropout_param {
    dropout_ratio: 0.7
  }
}
layer {
  name: "loss2/classifier_plantvillage"
  type: "InnerProduct"
  bottom: "loss2/fc"
  top: "loss2/classifier_plantvillage"
  param {
    lr_mult: 1
    decay_mult: 1
  }
  param {
    lr_mult: 2
    decay_mult: 0
  }
  inner_product_param {
    num_output: 38
    weight_filler {
      type: "xavier"
      std: 0.0009765625
    }
    bias_filler {
      type: "constant"
      value: 0
    }
  }
}
layer {
  name: "inception_4e/1x1"
  type: "Convolution"
  bottom: "inception_4d/output"
  top: "inception_4e/1x1"
  param {
    lr_mult: 1
    decay_mult: 1
  }
  param {
    lr_mult: 2
    decay_mult: 0
  }
  convolution_param {
    num_output: 256
    kernel_size: 1
    weight_filler {
      type: "xavier"
      std: 0.03
    }
    bias_filler {
      type: "constant"
      value: 0.2
    }
  }
}
layer {
  name: "inception_4e/relu_1x1"
  type: "ReLU"
  bottom: "inception_4e/1x1"
  top: "inception_4e/1x1"
}
layer {
  name: "inception_4e/3x3_reduce"
  type: "Convolution"
  bottom: "inception_4d/output"
  top: "inception_4e/3x3_reduce"
  param {
    lr_mult: 1
    decay_mult: 1
  }
  param {
    lr_mult: 2
    decay_mult: 0
  }
  convolution_param {
    num_output: 160
    kernel_size: 1
    weight_filler {
      type: "xavier"
      std: 0.09
    }
    bias_filler {
      type: "constant"
      value: 0.2
    }
  }
}
layer {
  name: "inception_4e/relu_3x3_reduce"
  type: "ReLU"
  bottom: "inception_4e/3x3_reduce"
  top: "inception_4e/3x3_reduce"
}
layer {
  name: "inception_4e/3x3"
  type: "Convolution"
  bottom: "inception_4e/3x3_reduce"
  top: "inception_4e/3x3"
  param {
    lr_mult: 1
    decay_mult: 1
  }
  param {
    lr_mult: 2
    decay_mult: 0
  }
  convolution_param {
    num_output: 320
    pad: 1
    kernel_size: 3
    weight_filler {
      type: "xavier"
      std: 0.03
    }
    bias_filler {
      type: "constant"
      value: 0.2
    }
  }
}
layer {
  name: "inception_4e/relu_3x3"
  type: "ReLU"
  bottom: "inception_4e/3x3"
  top: "inception_4e/3x3"
}
layer {
  name: "inception_4e/5x5_reduce"
  type: "Convolution"
  bottom: "inception_4d/output"
  top: "inception_4e/5x5_reduce"
  param {
    lr_mult: 1
    decay_mult: 1
  }
  param {
    lr_mult: 2
    decay_mult: 0
  }
  convolution_param {
    num_output: 32
    kernel_size: 1
    weight_filler {
      type: "xavier"
      std: 0.2
    }
    bias_filler {
      type: "constant"
      value: 0.2
    }
  }
}
layer {
  name: "inception_4e/relu_5x5_reduce"
  type: "ReLU"
  bottom: "inception_4e/5x5_reduce"
  top: "inception_4e/5x5_reduce"
}
layer {
  name: "inception_4e/5x5"
  type: "Convolution"
  bottom: "inception_4e/5x5_reduce"
  top: "inception_4e/
I0403 15:51:53.901278 11583 layer_factory.hpp:77] Creating layer data
I0403 15:51:53.901890 11583 net.cpp:91] Creating Layer data
I0403 15:51:53.901922 11583 net.cpp:399] data -> data
I0403 15:51:53.901978 11583 net.cpp:399] data -> label
I0403 15:51:53.902015 11583 data_transformer.cpp:25] Loading mean file from: /home/mohanty/data/final_dataset/lmdb/segmented-80-20/mean.binaryproto
I0403 15:51:53.904860 11586 db_lmdb.cpp:38] Opened lmdb /home/mohanty/data/final_dataset/lmdb/segmented-80-20/test_db
I0403 15:51:53.915153 11583 data_layer.cpp:41] output data size: 24,3,224,224
I0403 15:51:53.943464 11583 net.cpp:141] Setting up data
I0403 15:51:53.943555 11583 net.cpp:148] Top shape: 24 3 224 224 (3612672)
I0403 15:51:53.943580 11583 net.cpp:148] Top shape: 24 (24)
I0403 15:51:53.943598 11583 net.cpp:156] Memory required for data: 14450784
I0403 15:51:53.943627 11583 layer_factory.hpp:77] Creating layer label_data_1_split
I0403 15:51:53.943656 11583 net.cpp:91] Creating Layer label_data_1_split
I0403 15:51:53.943676 11583 net.cpp:425] label_data_1_split <- label
I0403 15:51:53.943709 11583 net.cpp:399] label_data_1_split -> label_data_1_split_0
I0403 15:51:53.943739 11583 net.cpp:399] label_data_1_split -> label_data_1_split_1
I0403 15:51:53.943763 11583 net.cpp:399] label_data_1_split -> label_data_1_split_2
I0403 15:51:53.943785 11583 net.cpp:399] label_data_1_split -> label_data_1_split_3
I0403 15:51:53.943806 11583 net.cpp:399] label_data_1_split -> label_data_1_split_4
I0403 15:51:53.943830 11583 net.cpp:399] label_data_1_split -> label_data_1_split_5
I0403 15:51:53.943850 11583 net.cpp:399] label_data_1_split -> label_data_1_split_6
I0403 15:51:53.943872 11583 net.cpp:399] label_data_1_split -> label_data_1_split_7
I0403 15:51:53.943893 11583 net.cpp:399] label_data_1_split -> label_data_1_split_8
I0403 15:51:53.943915 11583 net.cpp:399] label_data_1_split -> label_data_1_split_9
I0403 15:51:53.944042 11583 net.cpp:141] Setting up label_data_1_split
I0403 15:51:53.944069 11583 net.cpp:148] Top shape: 24 (24)
I0403 15:51:53.944087 11583 net.cpp:148] Top shape: 24 (24)
I0403 15:51:53.944106 11583 net.cpp:148] Top shape: 24 (24)
I0403 15:51:53.944123 11583 net.cpp:148] Top shape: 24 (24)
I0403 15:51:53.944139 11583 net.cpp:148] Top shape: 24 (24)
I0403 15:51:53.944155 11583 net.cpp:148] Top shape: 24 (24)
I0403 15:51:53.944174 11583 net.cpp:148] Top shape: 24 (24)
I0403 15:51:53.944190 11583 net.cpp:148] Top shape: 24 (24)
I0403 15:51:53.944210 11583 net.cpp:148] Top shape: 24 (24)
I0403 15:51:53.944226 11583 net.cpp:148] Top shape: 24 (24)
I0403 15:51:53.944273 11583 net.cpp:156] Memory required for data: 14451744
I0403 15:51:53.944291 11583 layer_factory.hpp:77] Creating layer conv1/7x7_s2
I0403 15:51:53.944324 11583 net.cpp:91] Creating Layer conv1/7x7_s2
I0403 15:51:53.944344 11583 net.cpp:425] conv1/7x7_s2 <- data
I0403 15:51:53.944363 11583 net.cpp:399] conv1/7x7_s2 -> conv1/7x7_s2
I0403 15:51:54.090286 11583 net.cpp:141] Setting up conv1/7x7_s2
I0403 15:51:54.090374 11583 net.cpp:148] Top shape: 24 64 112 112 (19267584)
I0403 15:51:54.090392 11583 net.cpp:156] Memory required for data: 91522080
I0403 15:51:54.090425 11583 layer_factory.hpp:77] Creating layer conv1/relu_7x7
I0403 15:51:54.090453 11583 net.cpp:91] Creating Layer conv1/relu_7x7
I0403 15:51:54.090472 11583 net.cpp:425] conv1/relu_7x7 <- conv1/7x7_s2
I0403 15:51:54.090492 11583 net.cpp:386] conv1/relu_7x7 -> conv1/7x7_s2 (in-place)
I0403 15:51:54.090769 11583 net.cpp:141] Setting up conv1/relu_7x7
I0403 15:51:54.090797 11583 net.cpp:148] Top shape: 24 64 112 112 (19267584)
I0403 15:51:54.090813 11583 net.cpp:156] Memory required for data: 168592416
I0403 15:51:54.090831 11583 layer_factory.hpp:77] Creating layer pool1/3x3_s2
I0403 15:51:54.090858 11583 net.cpp:91] Creating Layer pool1/3x3_s2
I0403 15:51:54.090878 11583 net.cpp:425] pool1/3x3_s2 <- conv1/7x7_s2
I0403 15:51:54.090900 11583 net.cpp:399] pool1/3x3_s2 -> pool1/3x3_s2
I0403 15:51:54.090988 11583 net.cpp:141] Setting up pool1/3x3_s2
I0403 15:51:54.091013 11583 net.cpp:148] Top shape: 24 64 56 56 (4816896)
I0403 15:51:54.091029 11583 net.cpp:156] Memory required for data: 187860000
I0403 15:51:54.091045 11583 layer_factory.hpp:77] Creating layer pool1/norm1
I0403 15:51:54.091073 11583 net.cpp:91] Creating Layer pool1/norm1
I0403 15:51:54.091091 11583 net.cpp:425] pool1/norm1 <- pool1/3x3_s2
I0403 15:51:54.091110 11583 net.cpp:399] pool1/norm1 -> pool1/norm1
I0403 15:51:54.091425 11583 net.cpp:141] Setting up pool1/norm1
I0403 15:51:54.091457 11583 net.cpp:148] Top shape: 24 64 56 56 (4816896)
I0403 15:51:54.091475 11583 net.cpp:156] Memory required for data: 207127584
I0403 15:51:54.091490 11583 layer_factory.hpp:77] Creating layer conv2/3x3_reduce
I0403 15:51:54.091518 11583 net.cpp:91] Creating Layer conv2/3x3_reduce
I0403 15:51:54.091537 11583 net.cpp:425] conv2/3x3_reduce <- pool1/norm1
I0403 15:51:54.091557 11583 net.cpp:399] conv2/3x3_reduce -> conv2/3x3_reduce
I0403 15:51:54.093039 11583 net.cpp:141] Setting up conv2/3x3_reduce
I0403 15:51:54.093070 11583 net.cpp:148] Top shape: 24 64 56 56 (4816896)
I0403 15:51:54.093086 11583 net.cpp:156] Memory required for data: 226395168
I0403 15:51:54.093108 11583 layer_factory.hpp:77] Creating layer conv2/relu_3x3_reduce
I0403 15:51:54.093132 11583 net.cpp:91] Creating Layer conv2/relu_3x3_reduce
I0403 15:51:54.093149 11583 net.cpp:425] conv2/relu_3x3_reduce <- conv2/3x3_reduce
I0403 15:51:54.093168 11583 net.cpp:386] conv2/relu_3x3_reduce -> conv2/3x3_reduce (in-place)
I0403 15:51:54.093456 11583 net.cpp:141] Setting up conv2/relu_3x3_reduce
I0403 15:51:54.093483 11583 net.cpp:148] Top shape: 24 64 56 56 (4816896)
I0403 15:51:54.093499 11583 net.cpp:156] Memory required for data: 245662752
I0403 15:51:54.093515 11583 layer_factory.hpp:77] Creating layer conv2/3x3
I0403 15:51:54.093540 11583 net.cpp:91] Creating Layer conv2/3x3
I0403 15:51:54.093560 11583 net.cpp:425] conv2/3x3 <- conv2/3x3_reduce
I0403 15:51:54.093585 11583 net.cpp:399] conv2/3x3 -> conv2/3x3
I0403 15:51:54.096019 11583 net.cpp:141] Setting up conv2/3x3
I0403 15:51:54.096050 11583 net.cpp:148] Top shape: 24 192 56 56 (14450688)
I0403 15:51:54.096068 11583 net.cpp:156] Memory required for data: 303465504
I0403 15:51:54.096091 11583 layer_factory.hpp:77] Creating layer conv2/relu_3x3
I0403 15:51:54.096113 11583 net.cpp:91] Creating Layer conv2/relu_3x3
I0403 15:51:54.096132 11583 net.cpp:425] conv2/relu_3x3 <- conv2/3x3
I0403 15:51:54.096150 11583 net.cpp:386] conv2/relu_3x3 -> conv2/3x3 (in-place)
I0403 15:51:54.096338 11583 net.cpp:141] Setting up conv2/relu_3x3
I0403 15:51:54.096367 11583 net.cpp:148] Top shape: 24 192 56 56 (14450688)
I0403 15:51:54.096413 11583 net.cpp:156] Memory required for data: 361268256
I0403 15:51:54.096431 11583 layer_factory.hpp:77] Creating layer conv2/norm2
I0403 15:51:54.096451 11583 net.cpp:91] Creating Layer conv2/norm2
I0403 15:51:54.096467 11583 net.cpp:425] conv2/norm2 <- conv2/3x3
I0403 15:51:54.096492 11583 net.cpp:399] conv2/norm2 -> conv2/norm2
I0403 15:51:54.096814 11583 net.cpp:141] Setting up conv2/norm2
I0403 15:51:54.096843 11583 net.cpp:148] Top shape: 24 192 56 56 (14450688)
I0403 15:51:54.096858 11583 net.cpp:156] Memory required for data: 419071008
I0403 15:51:54.096874 11583 layer_factory.hpp:77] Creating layer pool2/3x3_s2
I0403 15:51:54.096894 11583 net.cpp:91] Creating Layer pool2/3x3_s2
I0403 15:51:54.096910 11583 net.cpp:425] pool2/3x3_s2 <- conv2/norm2
I0403 15:51:54.096932 11583 net.cpp:399] pool2/3x3_s2 -> pool2/3x3_s2
I0403 15:51:54.096993 11583 net.cpp:141] Setting up pool2/3x3_s2
I0403 15:51:54.097018 11583 net.cpp:148] Top shape: 24 192 28 28 (3612672)
I0403 15:51:54.097033 11583 net.cpp:156] Memory required for data: 433521696
I0403 15:51:54.097048 11583 layer_factory.hpp:77] Creating layer pool2/3x3_s2_pool2/3x3_s2_0_split
I0403 15:51:54.097069 11583 net.cpp:91] Creating Layer pool2/3x3_s2_pool2/3x3_s2_0_split
I0403 15:51:54.097086 11583 net.cpp:425] pool2/3x3_s2_pool2/3x3_s2_0_split <- pool2/3x3_s2
I0403 15:51:54.097108 11583 net.cpp:399] pool2/3x3_s2_pool2/3x3_s2_0_split -> pool2/3x3_s2_pool2/3x3_s2_0_split_0
I0403 15:51:54.097129 11583 net.cpp:399] pool2/3x3_s2_pool2/3x3_s2_0_split -> pool2/3x3_s2_pool2/3x3_s2_0_split_1
I0403 15:51:54.097151 11583 net.cpp:399] pool2/3x3_s2_pool2/3x3_s2_0_split -> pool2/3x3_s2_pool2/3x3_s2_0_split_2
I0403 15:51:54.097172 11583 net.cpp:399] pool2/3x3_s2_pool2/3x3_s2_0_split -> pool2/3x3_s2_pool2/3x3_s2_0_split_3
I0403 15:51:54.097245 11583 net.cpp:141] Setting up pool2/3x3_s2_pool2/3x3_s2_0_split
I0403 15:51:54.097270 11583 net.cpp:148] Top shape: 24 192 28 28 (3612672)
I0403 15:51:54.097286 11583 net.cpp:148] Top shape: 24 192 28 28 (3612672)
I0403 15:51:54.097303 11583 net.cpp:148] Top shape: 24 192 28 28 (3612672)
I0403 15:51:54.097319 11583 net.cpp:148] Top shape: 24 192 28 28 (3612672)
I0403 15:51:54.097335 11583 net.cpp:156] Memory required for data: 491324448
I0403 15:51:54.097352 11583 layer_factory.hpp:77] Creating layer inception_3a/1x1
I0403 15:51:54.097374 11583 net.cpp:91] Creating Layer inception_3a/1x1
I0403 15:51:54.097393 11583 net.cpp:425] inception_3a/1x1 <- pool2/3x3_s2_pool2/3x3_s2_0_split_0
I0403 15:51:54.097414 11583 net.cpp:399] inception_3a/1x1 -> inception_3a/1x1
I0403 15:51:54.099059 11583 net.cpp:141] Setting up inception_3a/1x1
I0403 15:51:54.099091 11583 net.cpp:148] Top shape: 24 64 28 28 (1204224)
I0403 15:51:54.099107 11583 net.cpp:156] Memory required for data: 496141344
I0403 15:51:54.099128 11583 layer_factory.hpp:77] Creating layer inception_3a/relu_1x1
I0403 15:51:54.099149 11583 net.cpp:91] Creating Layer inception_3a/relu_1x1
I0403 15:51:54.099167 11583 net.cpp:425] inception_3a/relu_1x1 <- inception_3a/1x1
I0403 15:51:54.099186 11583 net.cpp:386] inception_3a/relu_1x1 -> inception_3a/1x1 (in-place)
I0403 15:51:54.099378 11583 net.cpp:141] Setting up inception_3a/relu_1x1
I0403 15:51:54.099405 11583 net.cpp:148] Top shape: 24 64 28 28 (1204224)
I0403 15:51:54.099421 11583 net.cpp:156] Memory required for data: 500958240
I0403 15:51:54.099436 11583 layer_factory.hpp:77] Creating layer inception_3a/3x3_reduce
I0403 15:51:54.099462 11583 net.cpp:91] Creating Layer inception_3a/3x3_reduce
I0403 15:51:54.099479 11583 net.cpp:425] inception_3a/3x3_reduce <- pool2/3x3_s2_pool2/3x3_s2_0_split_1
I0403 15:51:54.099499 11583 net.cpp:399] inception_3a/3x3_reduce -> inception_3a/3x3_reduce
I0403 15:51:54.101290 11583 net.cpp:141] Setting up inception_3a/3x3_reduce
I0403 15:51:54.101321 11583 net.cpp:148] Top shape: 24 96 28 28 (1806336)
I0403 15:51:54.101338 11583 net.cpp:156] Memory required for data: 508183584
I0403 15:51:54.101361 11583 layer_factory.hpp:77] Creating layer inception_3a/relu_3x3_reduce
I0403 15:51:54.101400 11583 net.cpp:91] Creating Layer inception_3a/relu_3x3_reduce
I0403 15:51:54.101419 11583 net.cpp:425] inception_3a/relu_3x3_reduce <- inception_3a/3x3_reduce
I0403 15:51:54.101439 11583 net.cpp:386] inception_3a/relu_3x3_reduce -> inception_3a/3x3_reduce (in-place)
I0403 15:51:54.101632 11583 net.cpp:141] Setting up inception_3a/relu_3x3_reduce
I0403 15:51:54.101658 11583 net.cpp:148] Top shape: 24 96 28 28 (1806336)
I0403 15:51:54.101675 11583 net.cpp:156] Memory required for data: 515408928
I0403 15:51:54.101689 11583 layer_factory.hpp:77] Creating layer inception_3a/3x3
I0403 15:51:54.101714 11583 net.cpp:91] Creating Layer inception_3a/3x3
I0403 15:51:54.101733 11583 net.cpp:425] inception_3a/3x3 <- inception_3a/3x3_reduce
I0403 15:51:54.101760 11583 net.cpp:399] inception_3a/3x3 -> inception_3a/3x3
I0403 15:51:54.103504 11583 net.cpp:141] Setting up inception_3a/3x3
I0403 15:51:54.103534 11583 net.cpp:148] Top shape: 24 128 28 28 (2408448)
I0403 15:51:54.103550 11583 net.cpp:156] Memory required for data: 525042720
I0403 15:51:54.103570 11583 layer_factory.hpp:77] Creating layer inception_3a/relu_3x3
I0403 15:51:54.103593 11583 net.cpp:91] Creating Layer inception_3a/relu_3x3
I0403 15:51:54.103611 11583 net.cpp:425] inception_3a/relu_3x3 <- inception_3a/3x3
I0403 15:51:54.103629 11583 net.cpp:386] inception_3a/relu_3x3 -> inception_3a/3x3 (in-place)
I0403 15:51:54.103919 11583 net.cpp:141] Setting up inception_3a/relu_3x3
I0403 15:51:54.103951 11583 net.cpp:148] Top shape: 24 128 28 28 (2408448)
I0403 15:51:54.103968 11583 net.cpp:156] Memory required for data: 534676512
I0403 15:51:54.103986 11583 layer_factory.hpp:77] Creating layer inception_3a/5x5_reduce
I0403 15:51:54.104009 11583 net.cpp:91] Creating Layer inception_3a/5x5_reduce
I0403 15:51:54.104027 11583 net.cpp:425] inception_3a/5x5_reduce <- pool2/3x3_s2_pool2/3x3_s2_0_split_2
I0403 15:51:54.104050 11583 net.cpp:399] inception_3a/5x5_reduce -> inception_3a/5x5_reduce
I0403 15:51:54.105079 11583 net.cpp:141] Setting up inception_3a/5x5_reduce
I0403 15:51:54.105111 11583 net.cpp:148] Top shape: 24 16 28 28 (301056)
I0403 15:51:54.105129 11583 net.cpp:156] Memory required for data: 535880736
I0403 15:51:54.105149 11583 layer_factory.hpp:77] Creating layer inception_3a/relu_5x5_reduce
I0403 15:51:54.105167 11583 net.cpp:91] Creating Layer inception_3a/relu_5x5_reduce
I0403 15:51:54.105185 11583 net.cpp:425] inception_3a/relu_5x5_reduce <- inception_3a/5x5_reduce
I0403 15:51:54.105202 11583 net.cpp:386] inception_3a/relu_5x5_reduce -> inception_3a/5x5_reduce (in-place)
I0403 15:51:54.105516 11583 net.cpp:141] Setting up inception_3a/relu_5x5_reduce
I0403 15:51:54.105546 11583 net.cpp:148] Top shape: 24 16 28 28 (301056)
I0403 15:51:54.105563 11583 net.cpp:156] Memory required for data: 537084960
I0403 15:51:54.105579 11583 layer_factory.hpp:77] Creating layer inception_3a/5x5
I0403 15:51:54.105603 11583 net.cpp:91] Creating Layer inception_3a/5x5
I0403 15:51:54.105623 11583 net.cpp:425] inception_3a/5x5 <- inception_3a/5x5_reduce
I0403 15:51:54.105643 11583 net.cpp:399] inception_3a/5x5 -> inception_3a/5x5
I0403 15:51:54.108937 11583 net.cpp:141] Setting up inception_3a/5x5
I0403 15:51:54.108989 11583 net.cpp:148] Top shape: 24 32 28 28 (602112)
I0403 15:51:54.109009 11583 net.cpp:156] Memory required for data: 539493408
I0403 15:51:54.109030 11583 layer_factory.hpp:77] Creating layer inception_3a/relu_5x5
I0403 15:51:54.109052 11583 net.cpp:91] Creating Layer inception_3a/relu_5x5
I0403 15:51:54.109071 11583 net.cpp:425] inception_3a/relu_5x5 <- inception_3a/5x5
I0403 15:51:54.109091 11583 net.cpp:386] inception_3a/relu_5x5 -> inception_3a/5x5 (in-place)
I0403 15:51:54.109279 11583 net.cpp:141] Setting up inception_3a/relu_5x5
I0403 15:51:54.109305 11583 net.cpp:148] Top shape: 24 32 28 28 (602112)
I0403 15:51:54.109321 11583 net.cpp:156] Memory required for data: 541901856
I0403 15:51:54.109338 11583 layer_factory.hpp:77] Creating layer inception_3a/pool
I0403 15:51:54.109359 11583 net.cpp:91] Creating Layer inception_3a/pool
I0403 15:51:54.109392 11583 net.cpp:425] inception_3a/pool <- pool2/3x3_s2_pool2/3x3_s2_0_split_3
I0403 15:51:54.109416 11583 net.cpp:399] inception_3a/pool -> inception_3a/pool
I0403 15:51:54.109477 11583 net.cpp:141] Setting up inception_3a/pool
I0403 15:51:54.109503 11583 net.cpp:148] Top shape: 24 192 28 28 (3612672)
I0403 15:51:54.109518 11583 net.cpp:156] Memory required for data: 556352544
I0403 15:51:54.109534 11583 layer_factory.hpp:77] Creating layer inception_3a/pool_proj
I0403 15:51:54.109557 11583 net.cpp:91] Creating Layer inception_3a/pool_proj
I0403 15:51:54.109575 11583 net.cpp:425] inception_3a/pool_proj <- inception_3a/pool
I0403 15:51:54.109598 11583 net.cpp:399] inception_3a/pool_proj -> inception_3a/pool_proj
I0403 15:51:54.110631 11583 net.cpp:141] Setting up inception_3a/pool_proj
I0403 15:51:54.110662 11583 net.cpp:148] Top shape: 24 32 28 28 (602112)
I0403 15:51:54.110679 11583 net.cpp:156] Memory required for data: 558760992
I0403 15:51:54.110705 11583 layer_factory.hpp:77] Creating layer inception_3a/relu_pool_proj
I0403 15:51:54.110728 11583 net.cpp:91] Creating Layer inception_3a/relu_pool_proj
I0403 15:51:54.110744 11583 net.cpp:425] inception_3a/relu_pool_proj <- inception_3a/pool_proj
I0403 15:51:54.110764 11583 net.cpp:386] inception_3a/relu_pool_proj -> inception_3a/pool_proj (in-place)
I0403 15:51:54.111057 11583 net.cpp:141] Setting up inception_3a/relu_pool_proj
I0403 15:51:54.111085 11583 net.cpp:148] Top shape: 24 32 28 28 (602112)
I0403 15:51:54.111101 11583 net.cpp:156] Memory required for data: 561169440
I0403 15:51:54.111117 11583 layer_factory.hpp:77] Creating layer inception_3a/output
I0403 15:51:54.111140 11583 net.cpp:91] Creating Layer inception_3a/output
I0403 15:51:54.111157 11583 net.cpp:425] inception_3a/output <- inception_3a/1x1
I0403 15:51:54.111176 11583 net.cpp:425] inception_3a/output <- inception_3a/3x3
I0403 15:51:54.111192 11583 net.cpp:425] inception_3a/output <- inception_3a/5x5
I0403 15:51:54.111212 11583 net.cpp:425] inception_3a/output <- inception_3a/pool_proj
I0403 15:51:54.111229 11583 net.cpp:399] inception_3a/output -> inception_3a/output
I0403 15:51:54.111279 11583 net.cpp:141] Setting up inception_3a/output
I0403 15:51:54.111304 11583 net.cpp:148] Top shape: 24 256 28 28 (4816896)
I0403 15:51:54.111320 11583 net.cpp:156] Memory required for data: 580437024
I0403 15:51:54.111335 11583 layer_factory.hpp:77] Creating layer inception_3a/output_inception_3a/output_0_split
I0403 15:51:54.111353 11583 net.cpp:91] Creating Layer inception_3a/output_inception_3a/output_0_split
I0403 15:51:54.111369 11583 net.cpp:425] inception_3a/output_inception_3a/output_0_split <- inception_3a/output
I0403 15:51:54.111394 11583 net.cpp:399] inception_3a/output_inception_3a/output_0_split -> inception_3a/output_inception_3a/output_0_split_0
I0403 15:51:54.111418 11583 net.cpp:399] inception_3a/output_inception_3a/output_0_split -> inception_3a/output_inception_3a/output_0_split_1
I0403 15:51:54.111441 11583 net.cpp:399] inception_3a/output_inception_3a/output_0_split -> inception_3a/output_inception_3a/output_0_split_2
I0403 15:51:54.111466 11583 net.cpp:399] inception_3a/output_inception_3a/output_0_split -> inception_3a/output_inception_3a/output_0_split_3
I0403 15:51:54.111546 11583 net.cpp:141] Setting up inception_3a/output_inception_3a/output_0_split
I0403 15:51:54.111570 11583 net.cpp:148] Top shape: 24 256 28 28 (4816896)
I0403 15:51:54.111588 11583 net.cpp:148] Top shape: 24 256 28 28 (4816896)
I0403 15:51:54.111605 11583 net.cpp:148] Top shape: 24 256 28 28 (4816896)
I0403 15:51:54.111623 11583 net.cpp:148] Top shape: 24 256 28 28 (4816896)
I0403 15:51:54.111636 11583 net.cpp:156] Memory required for data: 657507360
I0403 15:51:54.111652 11583 layer_factory.hpp:77] Creating layer inception_3b/1x1
I0403 15:51:54.111676 11583 net.cpp:91] Creating Layer inception_3b/1x1
I0403 15:51:54.111696 11583 net.cpp:425] inception_3b/1x1 <- inception_3a/output_inception_3a/output_0_split_0
I0403 15:51:54.111718 11583 net.cpp:399] inception_3b/1x1 -> inception_3b/1x1
I0403 15:51:54.112934 11583 net.cpp:141] Setting up inception_3b/1x1
I0403 15:51:54.112982 11583 net.cpp:148] Top shape: 24 128 28 28 (2408448)
I0403 15:51:54.112999 11583 net.cpp:156] Memory required for data: 667141152
I0403 15:51:54.113019 11583 layer_factory.hpp:77] Creating layer inception_3b/relu_1x1
I0403 15:51:54.113039 11583 net.cpp:91] Creating Layer inception_3b/relu_1x1
I0403 15:51:54.113055 11583 net.cpp:425] inception_3b/relu_1x1 <- inception_3b/1x1
I0403 15:51:54.113076 11583 net.cpp:386] inception_3b/relu_1x1 -> inception_3b/1x1 (in-place)
I0403 15:51:54.113263 11583 net.cpp:141] Setting up inception_3b/relu_1x1
I0403 15:51:54.113291 11583 net.cpp:148] Top shape: 24 128 28 28 (2408448)
I0403 15:51:54.113306 11583 net.cpp:156] Memory required for data: 676774944
I0403 15:51:54.113322 11583 layer_factory.hpp:77] Creating layer inception_3b/3x3_reduce
I0403 15:51:54.113345 11583 net.cpp:91] Creating Layer inception_3b/3x3_reduce
I0403 15:51:54.113364 11583 net.cpp:425] inception_3b/3x3_reduce <- inception_3a/output_inception_3a/output_0_split_1
I0403 15:51:54.113389 11583 net.cpp:399] inception_3b/3x3_reduce -> inception_3b/3x3_reduce
I0403 15:51:54.114599 11583 net.cpp:141] Setting up inception_3b/3x3_reduce
I0403 15:51:54.114629 11583 net.cpp:148] Top shape: 24 128 28 28 (2408448)
I0403 15:51:54.114645 11583 net.cpp:156] Memory required for data: 686408736
I0403 15:51:54.114665 11583 layer_factory.hpp:77] Creating layer inception_3b/relu_3x3_reduce
I0403 15:51:54.114686 11583 net.cpp:91] Creating Layer inception_3b/relu_3x3_reduce
I0403 15:51:54.114704 11583 net.cpp:425] inception_3b/relu_3x3_reduce <- inception_3b/3x3_reduce
I0403 15:51:54.114723 11583 net.cpp:386] inception_3b/relu_3x3_reduce -> inception_3b/3x3_reduce (in-place)
I0403 15:51:54.114903 11583 net.cpp:141] Setting up inception_3b/relu_3x3_reduce
I0403 15:51:54.114930 11583 net.cpp:148] Top shape: 24 128 28 28 (2408448)
I0403 15:51:54.114949 11583 net.cpp:156] Memory required for data: 696042528
I0403 15:51:54.114966 11583 layer_factory.hpp:77] Creating layer inception_3b/3x3
I0403 15:51:54.114998 11583 net.cpp:91] Creating Layer inception_3b/3x3
I0403 15:51:54.115018 11583 net.cpp:425] inception_3b/3x3 <- inception_3b/3x3_reduce
I0403 15:51:54.115038 11583 net.cpp:399] inception_3b/3x3 -> inception_3b/3x3
I0403 15:51:54.118135 11583 net.cpp:141] Setting up inception_3b/3x3
I0403 15:51:54.118167 11583 net.cpp:148] Top shape: 24 192 28 28 (3612672)
I0403 15:51:54.118183 11583 net.cpp:156] Memory required for data: 710493216
I0403 15:51:54.118216 11583 layer_factory.hpp:77] Creating layer inception_3b/relu_3x3
I0403 15:51:54.118237 11583 net.cpp:91] Creating Layer inception_3b/relu_3x3
I0403 15:51:54.118254 11583 net.cpp:425] inception_3b/relu_3x3 <- inception_3b/3x3
I0403 15:51:54.118271 11583 net.cpp:386] inception_3b/relu_3x3 -> inception_3b/3x3 (in-place)
I0403 15:51:54.118551 11583 net.cpp:141] Setting up inception_3b/relu_3x3
I0403 15:51:54.118578 11583 net.cpp:148] Top shape: 24 192 28 28 (3612672)
I0403 15:51:54.118594 11583 net.cpp:156] Memory required for data: 724943904
I0403 15:51:54.118610 11583 layer_factory.hpp:77] Creating layer inception_3b/5x5_reduce
I0403 15:51:54.118633 11583 net.cpp:91] Creating Layer inception_3b/5x5_reduce
I0403 15:51:54.118651 11583 net.cpp:425] inception_3b/5x5_reduce <- inception_3a/output_inception_3a/output_0_split_2
I0403 15:51:54.118674 11583 net.cpp:399] inception_3b/5x5_reduce -> inception_3b/5x5_reduce
I0403 15:51:54.119695 11583 net.cpp:141] Setting up inception_3b/5x5_reduce
I0403 15:51:54.119724 11583 net.cpp:148] Top shape: 24 32 28 28 (602112)
I0403 15:51:54.119740 11583 net.cpp:156] Memory required for data: 727352352
I0403 15:51:54.119760 11583 layer_factory.hpp:77] Creating layer inception_3b/relu_5x5_reduce
I0403 15:51:54.119781 11583 net.cpp:91] Creating Layer inception_3b/relu_5x5_reduce
I0403 15:51:54.119797 11583 net.cpp:425] inception_3b/relu_5x5_reduce <- inception_3b/5x5_reduce
I0403 15:51:54.119815 11583 net.cpp:386] inception_3b/relu_5x5_reduce -> inception_3b/5x5_reduce (in-place)
I0403 15:51:54.120021 11583 net.cpp:141] Setting up inception_3b/relu_5x5_reduce
I0403 15:51:54.120048 11583 net.cpp:148] Top shape: 24 32 28 28 (602112)
I0403 15:51:54.120065 11583 net.cpp:156] Memory required for data: 729760800
I0403 15:51:54.120081 11583 layer_factory.hpp:77] Creating layer inception_3b/5x5
I0403 15:51:54.120105 11583 net.cpp:91] Creating Layer inception_3b/5x5
I0403 15:51:54.120122 11583 net.cpp:425] inception_3b/5x5 <- inception_3b/5x5_reduce
I0403 15:51:54.120142 11583 net.cpp:399] inception_3b/5x5 -> inception_3b/5x5
I0403 15:51:54.122170 11583 net.cpp:141] Setting up inception_3b/5x5
I0403 15:51:54.122200 11583 net.cpp:148] Top shape: 24 96 28 28 (1806336)
I0403 15:51:54.122215 11583 net.cpp:156] Memory required for data: 736986144
I0403 15:51:54.122234 11583 layer_factory.hpp:77] Creating layer inception_3b/relu_5x5
I0403 15:51:54.122254 11583 net.cpp:91] Creating Layer inception_3b/relu_5x5
I0403 15:51:54.122274 11583 net.cpp:425] inception_3b/relu_5x5 <- inception_3b/5x5
I0403 15:51:54.122292 11583 net.cpp:386] inception_3b/relu_5x5 -> inception_3b/5x5 (in-place)
I0403 15:51:54.122490 11583 net.cpp:141] Setting up inception_3b/relu_5x5
I0403 15:51:54.122516 11583 net.cpp:148] Top shape: 24 96 28 28 (1806336)
I0403 15:51:54.122530 11583 net.cpp:156] Memory required for data: 744211488
I0403 15:51:54.122545 11583 layer_factory.hpp:77] Creating layer inception_3b/pool
I0403 15:51:54.122563 11583 net.cpp:91] Creating Layer inception_3b/pool
I0403 15:51:54.122581 11583 net.cpp:425] inception_3b/pool <- inception_3a/output_inception_3a/output_0_split_3
I0403 15:51:54.122599 11583 net.cpp:399] inception_3b/pool -> inception_3b/pool
I0403 15:51:54.122658 11583 net.cpp:141] Setting up inception_3b/pool
I0403 15:51:54.122683 11583 net.cpp:148] Top shape: 24 256 28 28 (4816896)
I0403 15:51:54.122697 11583 net.cpp:156] Memory required for data: 763479072
I0403 15:51:54.122712 11583 layer_factory.hpp:77] Creating layer inception_3b/pool_proj
I0403 15:51:54.122735 11583 net.cpp:91] Creating Layer inception_3b/pool_proj
I0403 15:51:54.122753 11583 net.cpp:425] inception_3b/pool_proj <- inception_3b/pool
I0403 15:51:54.122774 11583 net.cpp:399] inception_3b/pool_proj -> inception_3b/pool_proj
I0403 15:51:54.123857 11583 net.cpp:141] Setting up inception_3b/pool_proj
I0403 15:51:54.123888 11583 net.cpp:148] Top shape: 24 64 28 28 (1204224)
I0403 15:51:54.123904 11583 net.cpp:156] Memory required for data: 768295968
I0403 15:51:54.123924 11583 layer_factory.hpp:77] Creating layer inception_3b/relu_pool_proj
I0403 15:51:54.123942 11583 net.cpp:91] Creating Layer inception_3b/relu_pool_proj
I0403 15:51:54.123965 11583 net.cpp:425] inception_3b/relu_pool_proj <- inception_3b/pool_proj
I0403 15:51:54.123986 11583 net.cpp:386] inception_3b/relu_pool_proj -> inception_3b/pool_proj (in-place)
I0403 15:51:54.124384 11583 net.cpp:141] Setting up inception_3b/relu_pool_proj
I0403 15:51:54.124413 11583 net.cpp:148] Top shape: 24 64 28 28 (1204224)
I0403 15:51:54.124430 11583 net.cpp:156] Memory required for data: 773112864
I0403 15:51:54.124445 11583 layer_factory.hpp:77] Creating layer inception_3b/output
I0403 15:51:54.124464 11583 net.cpp:91] Creating Layer inception_3b/output
I0403 15:51:54.124480 11583 net.cpp:425] inception_3b/output <- inception_3b/1x1
I0403 15:51:54.124496 11583 net.cpp:425] inception_3b/output <- inception_3b/3x3
I0403 15:51:54.124513 11583 net.cpp:425] inception_3b/output <- inception_3b/5x5
I0403 15:51:54.124529 11583 net.cpp:425] inception_3b/output <- inception_3b/pool_proj
I0403 15:51:54.124547 11583 net.cpp:399] inception_3b/output -> inception_3b/output
I0403 15:51:54.124593 11583 net.cpp:141] Setting up inception_3b/output
I0403 15:51:54.124617 11583 net.cpp:148] Top shape: 24 480 28 28 (9031680)
I0403 15:51:54.124631 11583 net.cpp:156] Memory required for data: 809239584
I0403 15:51:54.124646 11583 layer_factory.hpp:77] Creating layer pool3/3x3_s2
I0403 15:51:54.124667 11583 net.cpp:91] Creating Layer pool3/3x3_s2
I0403 15:51:54.124686 11583 net.cpp:425] pool3/3x3_s2 <- inception_3b/output
I0403 15:51:54.124719 11583 net.cpp:399] pool3/3x3_s2 -> pool3/3x3_s2
I0403 15:51:54.124783 11583 net.cpp:141] Setting up pool3/3x3_s2
I0403 15:51:54.124806 11583 net.cpp:148] Top shape: 24 480 14 14 (2257920)
I0403 15:51:54.124821 11583 net.cpp:156] Memory required for data: 818271264
I0403 15:51:54.124835 11583 layer_factory.hpp:77] Creating layer pool3/3x3_s2_pool3/3x3_s2_0_split
I0403 15:51:54.124853 11583 net.cpp:91] Creating Layer pool3/3x3_s2_pool3/3x3_s2_0_split
I0403 15:51:54.124868 11583 net.cpp:425] pool3/3x3_s2_pool3/3x3_s2_0_split <- pool3/3x3_s2
I0403 15:51:54.124888 11583 net.cpp:399] pool3/3x3_s2_pool3/3x3_s2_0_split -> pool3/3x3_s2_pool3/3x3_s2_0_split_0
I0403 15:51:54.124910 11583 net.cpp:399] pool3/3x3_s2_pool3/3x3_s2_0_split -> pool3/3x3_s2_pool3/3x3_s2_0_split_1
I0403 15:51:54.124930 11583 net.cpp:399] pool3/3x3_s2_pool3/3x3_s2_0_split -> pool3/3x3_s2_pool3/3x3_s2_0_split_2
I0403 15:51:54.124955 11583 net.cpp:399] pool3/3x3_s2_pool3/3x3_s2_0_split -> pool3/3x3_s2_pool3/3x3_s2_0_split_3
I0403 15:51:54.125037 11583 net.cpp:141] Setting up pool3/3x3_s2_pool3/3x3_s2_0_split
I0403 15:51:54.125063 11583 net.cpp:148] Top shape: 24 480 14 14 (2257920)
I0403 15:51:54.125082 11583 net.cpp:148] Top shape: 24 480 14 14 (2257920)
I0403 15:51:54.125097 11583 net.cpp:148] Top shape: 24 480 14 14 (2257920)
I0403 15:51:54.125113 11583 net.cpp:148] Top shape: 24 480 14 14 (2257920)
I0403 15:51:54.125128 11583 net.cpp:156] Memory required for data: 854397984
I0403 15:51:54.125141 11583 layer_factory.hpp:77] Creating layer inception_4a/1x1
I0403 15:51:54.125164 11583 net.cpp:91] Creating Layer inception_4a/1x1
I0403 15:51:54.125182 11583 net.cpp:425] inception_4a/1x1 <- pool3/3x3_s2_pool3/3x3_s2_0_split_0
I0403 15:51:54.125202 11583 net.cpp:399] inception_4a/1x1 -> inception_4a/1x1
I0403 15:51:54.126827 11583 net.cpp:141] Setting up inception_4a/1x1
I0403 15:51:54.126857 11583 net.cpp:148] Top shape: 24 192 14 14 (903168)
I0403 15:51:54.126874 11583 net.cpp:156] Memory required for data: 858010656
I0403 15:51:54.126893 11583 layer_factory.hpp:77] Creating layer inception_4a/relu_1x1
I0403 15:51:54.126911 11583 net.cpp:91] Creating Layer inception_4a/relu_1x1
I0403 15:51:54.126929 11583 net.cpp:425] inception_4a/relu_1x1 <- inception_4a/1x1
I0403 15:51:54.126952 11583 net.cpp:386] inception_4a/relu_1x1 -> inception_4a/1x1 (in-place)
I0403 15:51:54.127140 11583 net.cpp:141] Setting up inception_4a/relu_1x1
I0403 15:51:54.127166 11583 net.cpp:148] Top shape: 24 192 14 14 (903168)
I0403 15:51:54.127180 11583 net.cpp:156] Memory required for data: 861623328
I0403 15:51:54.127195 11583 layer_factory.hpp:77] Creating layer inception_4a/3x3_reduce
I0403 15:51:54.127218 11583 net.cpp:91] Creating Layer inception_4a/3x3_reduce
I0403 15:51:54.127238 11583 net.cpp:425] inception_4a/3x3_reduce <- pool3/3x3_s2_pool3/3x3_s2_0_split_1
I0403 15:51:54.127259 11583 net.cpp:399] inception_4a/3x3_reduce -> inception_4a/3x3_reduce
I0403 15:51:54.128564 11583 net.cpp:141] Setting up inception_4a/3x3_reduce
I0403 15:51:54.128595 11583 net.cpp:148] Top shape: 24 96 14 14 (451584)
I0403 15:51:54.128610 11583 net.cpp:156] Memory required for data: 863429664
I0403 15:51:54.128634 11583 layer_factory.hpp:77] Creating layer inception_4a/relu_3x3_reduce
I0403 15:51:54.128657 11583 net.cpp:91] Creating Layer inception_4a/relu_3x3_reduce
I0403 15:51:54.128675 11583 net.cpp:425] inception_4a/relu_3x3_reduce <- inception_4a/3x3_reduce
I0403 15:51:54.128693 11583 net.cpp:386] inception_4a/relu_3x3_reduce -> inception_4a/3x3_reduce (in-place)
I0403 15:51:54.128875 11583 net.cpp:141] Setting up inception_4a/relu_3x3_reduce
I0403 15:51:54.128901 11583 net.cpp:148] Top shape: 24 96 14 14 (451584)
I0403 15:51:54.128916 11583 net.cpp:156] Memory required for data: 865236000
I0403 15:51:54.128931 11583 layer_factory.hpp:77] Creating layer inception_4a/3x3
I0403 15:51:54.128963 11583 net.cpp:91] Creating Layer inception_4a/3x3
I0403 15:51:54.128984 11583 net.cpp:425] inception_4a/3x3 <- inception_4a/3x3_reduce
I0403 15:51:54.129006 11583 net.cpp:399] inception_4a/3x3 -> inception_4a/3x3
I0403 15:51:54.131827 11583 net.cpp:141] Setting up inception_4a/3x3
I0403 15:51:54.131857 11583 net.cpp:148] Top shape: 24 208 14 14 (978432)
I0403 15:51:54.131873 11583 net.cpp:156] Memory required for data: 869149728
I0403 15:51:54.131892 11583 layer_factory.hpp:77] Creating layer inception_4a/relu_3x3
I0403 15:51:54.131913 11583 net.cpp:91] Creating Layer inception_4a/relu_3x3
I0403 15:51:54.131932 11583 net.cpp:425] inception_4a/relu_3x3 <- inception_4a/3x3
I0403 15:51:54.131953 11583 net.cpp:386] inception_4a/relu_3x3 -> inception_4a/3x3 (in-place)
I0403 15:51:54.132239 11583 net.cpp:141] Setting up inception_4a/relu_3x3
I0403 15:51:54.132266 11583 net.cpp:148] Top shape: 24 208 14 14 (978432)
I0403 15:51:54.132282 11583 net.cpp:156] Memory required for data: 873063456
I0403 15:51:54.132297 11583 layer_factory.hpp:77] Creating layer inception_4a/5x5_reduce
I0403 15:51:54.132321 11583 net.cpp:91] Creating Layer inception_4a/5x5_reduce
I0403 15:51:54.132340 11583 net.cpp:425] inception_4a/5x5_reduce <- pool3/3x3_s2_pool3/3x3_s2_0_split_2
I0403 15:51:54.132362 11583 net.cpp:399] inception_4a/5x5_reduce -> inception_4a/5x5_reduce
I0403 15:51:54.133429 11583 net.cpp:141] Setting up inception_4a/5x5_reduce
I0403 15:51:54.133457 11583 net.cpp:148] Top shape: 24 16 14 14 (75264)
I0403 15:51:54.133486 11583 net.cpp:156] Memory required for data: 873364512
I0403 15:51:54.133505 11583 layer_factory.hpp:77] Creating layer inception_4a/relu_5x5_reduce
I0403 15:51:54.133525 11583 net.cpp:91] Creating Layer inception_4a/relu_5x5_reduce
I0403 15:51:54.133543 11583 net.cpp:425] inception_4a/relu_5x5_reduce <- inception_4a/5x5_reduce
I0403 15:51:54.133561 11583 net.cpp:386] inception_4a/relu_5x5_reduce -> inception_4a/5x5_reduce (in-place)
I0403 15:51:54.133745 11583 net.cpp:141] Setting up inception_4a/relu_5x5_reduce
I0403 15:51:54.133770 11583 net.cpp:148] Top shape: 24 16 14 14 (75264)
I0403 15:51:54.133785 11583 net.cpp:156] Memory required for data: 873665568
I0403 15:51:54.133800 11583 layer_factory.hpp:77] Creating layer inception_4a/5x5
I0403 15:51:54.133824 11583 net.cpp:91] Creating Layer inception_4a/5x5
I0403 15:51:54.133842 11583 net.cpp:425] inception_4a/5x5 <- inception_4a/5x5_reduce
I0403 15:51:54.133862 11583 net.cpp:399] inception_4a/5x5 -> inception_4a/5x5
I0403 15:51:54.134979 11583 net.cpp:141] Setting up inception_4a/5x5
I0403 15:51:54.135010 11583 net.cpp:148] Top shape: 24 48 14 14 (225792)
I0403 15:51:54.135026 11583 net.cpp:156] Memory required for data: 874568736
I0403 15:51:54.135046 11583 layer_factory.hpp:77] Creating layer inception_4a/relu_5x5
I0403 15:51:54.135063 11583 net.cpp:91] Creating Layer inception_4a/relu_5x5
I0403 15:51:54.135081 11583 net.cpp:425] inception_4a/relu_5x5 <- inception_4a/5x5
I0403 15:51:54.135098 11583 net.cpp:386] inception_4a/relu_5x5 -> inception_4a/5x5 (in-place)
I0403 15:51:54.135282 11583 net.cpp:141] Setting up inception_4a/relu_5x5
I0403 15:51:54.135308 11583 net.cpp:148] Top shape: 24 48 14 14 (225792)
I0403 15:51:54.135324 11583 net.cpp:156] Memory required for data: 875471904
I0403 15:51:54.135339 11583 layer_factory.hpp:77] Creating layer inception_4a/pool
I0403 15:51:54.135356 11583 net.cpp:91] Creating Layer inception_4a/pool
I0403 15:51:54.135373 11583 net.cpp:425] inception_4a/pool <- pool3/3x3_s2_pool3/3x3_s2_0_split_3
I0403 15:51:54.135393 11583 net.cpp:399] inception_4a/pool -> inception_4a/pool
I0403 15:51:54.135457 11583 net.cpp:141] Setting up inception_4a/pool
I0403 15:51:54.135483 11583 net.cpp:148] Top shape: 24 480 14 14 (2257920)
I0403 15:51:54.135499 11583 net.cpp:156] Memory required for data: 884503584
I0403 15:51:54.135514 11583 layer_factory.hpp:77] Creating layer inception_4a/pool_proj
I0403 15:51:54.135536 11583 net.cpp:91] Creating Layer inception_4a/pool_proj
I0403 15:51:54.135555 11583 net.cpp:425] inception_4a/pool_proj <- inception_4a/pool
I0403 15:51:54.135576 11583 net.cpp:399] inception_4a/pool_proj -> inception_4a/pool_proj
I0403 15:51:54.136767 11583 net.cpp:141] Setting up inception_4a/pool_proj
I0403 15:51:54.136801 11583 net.cpp:148] Top shape: 24 64 14 14 (301056)
I0403 15:51:54.136831 11583 net.cpp:156] Memory required for data: 885707808
I0403 15:51:54.136850 11583 layer_factory.hpp:77] Creating layer inception_4a/relu_pool_proj
I0403 15:51:54.136870 11583 net.cpp:91] Creating Layer inception_4a/relu_pool_proj
I0403 15:51:54.136888 11583 net.cpp:425] inception_4a/relu_pool_proj <- inception_4a/pool_proj
I0403 15:51:54.136909 11583 net.cpp:386] inception_4a/relu_pool_proj -> inception_4a/pool_proj (in-place)
I0403 15:51:54.137199 11583 net.cpp:141] Setting up inception_4a/relu_pool_proj
I0403 15:51:54.137228 11583 net.cpp:148] Top shape: 24 64 14 14 (301056)
I0403 15:51:54.137244 11583 net.cpp:156] Memory required for data: 886912032
I0403 15:51:54.137260 11583 layer_factory.hpp:77] Creating layer inception_4a/output
I0403 15:51:54.137279 11583 net.cpp:91] Creating Layer inception_4a/output
I0403 15:51:54.137295 11583 net.cpp:425] inception_4a/output <- inception_4a/1x1
I0403 15:51:54.137310 11583 net.cpp:425] inception_4a/output <- inception_4a/3x3
I0403 15:51:54.137327 11583 net.cpp:425] inception_4a/output <- inception_4a/5x5
I0403 15:51:54.137343 11583 net.cpp:425] inception_4a/output <- inception_4a/pool_proj
I0403 15:51:54.137361 11583 net.cpp:399] inception_4a/output -> inception_4a/output
I0403 15:51:54.137408 11583 net.cpp:141] Setting up inception_4a/output
I0403 15:51:54.137433 11583 net.cpp:148] Top shape: 24 512 14 14 (2408448)
I0403 15:51:54.137447 11583 net.cpp:156] Memory required for data: 896545824
I0403 15:51:54.137462 11583 layer_factory.hpp:77] Creating layer inception_4a/output_inception_4a/output_0_split
I0403 15:51:54.137482 11583 net.cpp:91] Creating Layer inception_4a/output_inception_4a/output_0_split
I0403 15:51:54.137498 11583 net.cpp:425] inception_4a/output_inception_4a/output_0_split <- inception_4a/output
I0403 15:51:54.137516 11583 net.cpp:399] inception_4a/output_inception_4a/output_0_split -> inception_4a/output_inception_4a/output_0_split_0
I0403 15:51:54.137537 11583 net.cpp:399] inception_4a/output_inception_4a/output_0_split -> inception_4a/output_inception_4a/output_0_split_1
I0403 15:51:54.137560 11583 net.cpp:399] inception_4a/output_inception_4a/output_0_split -> inception_4a/output_inception_4a/output_0_split_2
I0403 15:51:54.137583 11583 net.cpp:399] inception_4a/output_inception_4a/output_0_split -> inception_4a/output_inception_4a/output_0_split_3
I0403 15:51:54.137604 11583 net.cpp:399] inception_4a/output_inception_4a/output_0_split -> inception_4a/output_inception_4a/output_0_split_4
I0403 15:51:54.137703 11583 net.cpp:141] Setting up inception_4a/output_inception_4a/output_0_split
I0403 15:51:54.137727 11583 net.cpp:148] Top shape: 24 512 14 14 (2408448)
I0403 15:51:54.137744 11583 net.cpp:148] Top shape: 24 512 14 14 (2408448)
I0403 15:51:54.137760 11583 net.cpp:148] Top shape: 24 512 14 14 (2408448)
I0403 15:51:54.137776 11583 net.cpp:148] Top shape: 24 512 14 14 (2408448)
I0403 15:51:54.137792 11583 net.cpp:148] Top shape: 24 512 14 14 (2408448)
I0403 15:51:54.137806 11583 net.cpp:156] Memory required for data: 944714784
I0403 15:51:54.137822 11583 layer_factory.hpp:77] Creating layer loss1/ave_pool
I0403 15:51:54.137842 11583 net.cpp:91] Creating Layer loss1/ave_pool
I0403 15:51:54.137861 11583 net.cpp:425] loss1/ave_pool <- inception_4a/output_inception_4a/output_0_split_0
I0403 15:51:54.137878 11583 net.cpp:399] loss1/ave_pool -> loss1/ave_pool
I0403 15:51:54.138090 11583 net.cpp:141] Setting up loss1/ave_pool
I0403 15:51:54.138118 11583 net.cpp:148] Top shape: 24 512 4 4 (196608)
I0403 15:51:54.138134 11583 net.cpp:156] Memory required for data: 945501216
I0403 15:51:54.138149 11583 layer_factory.hpp:77] Creating layer loss1/conv
I0403 15:51:54.138172 11583 net.cpp:91] Creating Layer loss1/conv
I0403 15:51:54.138190 11583 net.cpp:425] loss1/conv <- loss1/ave_pool
I0403 15:51:54.138213 11583 net.cpp:399] loss1/conv -> loss1/conv
I0403 15:51:54.139658 11583 net.cpp:141] Setting up loss1/conv
I0403 15:51:54.139688 11583 net.cpp:148] Top shape: 24 128 4 4 (49152)
I0403 15:51:54.139717 11583 net.cpp:156] Memory required for data: 945697824
I0403 15:51:54.139739 11583 layer_factory.hpp:77] Creating layer loss1/relu_conv
I0403 15:51:54.139760 11583 net.cpp:91] Creating Layer loss1/relu_conv
I0403 15:51:54.139776 11583 net.cpp:425] loss1/relu_conv <- loss1/conv
I0403 15:51:54.139794 11583 net.cpp:386] loss1/relu_conv -> loss1/conv (in-place)
I0403 15:51:54.140085 11583 net.cpp:141] Setting up loss1/relu_conv
I0403 15:51:54.140112 11583 net.cpp:148] Top shape: 24 128 4 4 (49152)
I0403 15:51:54.140127 11583 net.cpp:156] Memory required for data: 945894432
I0403 15:51:54.140143 11583 layer_factory.hpp:77] Creating layer loss1/fc
I0403 15:51:54.140171 11583 net.cpp:91] Creating Layer loss1/fc
I0403 15:51:54.140189 11583 net.cpp:425] loss1/fc <- loss1/conv
I0403 15:51:54.140210 11583 net.cpp:399] loss1/fc -> loss1/fc
I0403 15:51:54.158409 11583 net.cpp:141] Setting up loss1/fc
I0403 15:51:54.158443 11583 net.cpp:148] Top shape: 24 1024 (24576)
I0403 15:51:54.158460 11583 net.cpp:156] Memory required for data: 945992736
I0403 15:51:54.158479 11583 layer_factory.hpp:77] Creating layer loss1/relu_fc
I0403 15:51:54.158498 11583 net.cpp:91] Creating Layer loss1/relu_fc
I0403 15:51:54.158514 11583 net.cpp:425] loss1/relu_fc <- loss1/fc
I0403 15:51:54.158534 11583 net.cpp:386] loss1/relu_fc -> loss1/fc (in-place)
I0403 15:51:54.158718 11583 net.cpp:141] Setting up loss1/relu_fc
I0403 15:51:54.158743 11583 net.cpp:148] Top shape: 24 1024 (24576)
I0403 15:51:54.158758 11583 net.cpp:156] Memory required for data: 946091040
I0403 15:51:54.158773 11583 layer_factory.hpp:77] Creating layer loss1/drop_fc
I0403 15:51:54.158799 11583 net.cpp:91] Creating Layer loss1/drop_fc
I0403 15:51:54.158818 11583 net.cpp:425] loss1/drop_fc <- loss1/fc
I0403 15:51:54.158835 11583 net.cpp:386] loss1/drop_fc -> loss1/fc (in-place)
I0403 15:51:54.158885 11583 net.cpp:141] Setting up loss1/drop_fc
I0403 15:51:54.158908 11583 net.cpp:148] Top shape: 24 1024 (24576)
I0403 15:51:54.158923 11583 net.cpp:156] Memory required for data: 946189344
I0403 15:51:54.158938 11583 layer_factory.hpp:77] Creating layer loss1/classifier_plantvillage
I0403 15:51:54.158972 11583 net.cpp:91] Creating Layer loss1/classifier_plantvillage
I0403 15:51:54.158992 11583 net.cpp:425] loss1/classifier_plantvillage <- loss1/fc
I0403 15:51:54.159013 11583 net.cpp:399] loss1/classifier_plantvillage -> loss1/classifier_plantvillage
I0403 15:51:54.159929 11583 net.cpp:141] Setting up loss1/classifier_plantvillage
I0403 15:51:54.159960 11583 net.cpp:148] Top shape: 24 38 (912)
I0403 15:51:54.159977 11583 net.cpp:156] Memory required for data: 946192992
I0403 15:51:54.159996 11583 layer_factory.hpp:77] Creating layer loss1/classifier_plantvillage_loss1/classifier_plantvillage_0_split
I0403 15:51:54.160014 11583 net.cpp:91] Creating Layer loss1/classifier_plantvillage_loss1/classifier_plantvillage_0_split
I0403 15:51:54.160029 11583 net.cpp:425] loss1/classifier_plantvillage_loss1/classifier_plantvillage_0_split <- loss1/classifier_plantvillage
I0403 15:51:54.160050 11583 net.cpp:399] loss1/classifier_plantvillage_loss1/classifier_plantvillage_0_split -> loss1/classifier_plantvillage_loss1/classifier_plantvillage_0_split_0
I0403 15:51:54.160071 11583 net.cpp:399] loss1/classifier_plantvillage_loss1/classifier_plantvillage_0_split -> loss1/classifier_plantvillage_loss1/classifier_plantvillage_0_split_1
I0403 15:51:54.160091 11583 net.cpp:399] loss1/classifier_plantvillage_loss1/classifier_plantvillage_0_split -> loss1/classifier_plantvillage_loss1/classifier_plantvillage_0_split_2
I0403 15:51:54.160158 11583 net.cpp:141] Setting up loss1/classifier_plantvillage_loss1/classifier_plantvillage_0_split
I0403 15:51:54.160183 11583 net.cpp:148] Top shape: 24 38 (912)
I0403 15:51:54.160199 11583 net.cpp:148] Top shape: 24 38 (912)
I0403 15:51:54.160217 11583 net.cpp:148] Top shape: 24 38 (912)
I0403 15:51:54.160230 11583 net.cpp:156] Memory required for data: 946203936
I0403 15:51:54.160244 11583 layer_factory.hpp:77] Creating layer inception_4b/1x1
I0403 15:51:54.160264 11583 net.cpp:91] Creating Layer inception_4b/1x1
I0403 15:51:54.160297 11583 net.cpp:425] inception_4b/1x1 <- inception_4a/output_inception_4a/output_0_split_1
I0403 15:51:54.160317 11583 net.cpp:399] inception_4b/1x1 -> inception_4b/1x1
I0403 15:51:54.161948 11583 net.cpp:141] Setting up inception_4b/1x1
I0403 15:51:54.161978 11583 net.cpp:148] Top shape: 24 160 14 14 (752640)
I0403 15:51:54.161993 11583 net.cpp:156] Memory required for data: 949214496
I0403 15:51:54.162011 11583 layer_factory.hpp:77] Creating layer inception_4b/relu_1x1
I0403 15:51:54.162032 11583 net.cpp:91] Creating Layer inception_4b/relu_1x1
I0403 15:51:54.162050 11583 net.cpp:425] inception_4b/relu_1x1 <- inception_4b/1x1
I0403 15:51:54.162067 11583 net.cpp:386] inception_4b/relu_1x1 -> inception_4b/1x1 (in-place)
I0403 15:51:54.162250 11583 net.cpp:141] Setting up inception_4b/relu_1x1
I0403 15:51:54.162276 11583 net.cpp:148] Top shape: 24 160 14 14 (752640)
I0403 15:51:54.162289 11583 net.cpp:156] Memory required for data: 952225056
I0403 15:51:54.162304 11583 layer_factory.hpp:77] Creating layer inception_4b/3x3_reduce
I0403 15:51:54.162328 11583 net.cpp:91] Creating Layer inception_4b/3x3_reduce
I0403 15:51:54.162346 11583 net.cpp:425] inception_4b/3x3_reduce <- inception_4a/output_inception_4a/output_0_split_2
I0403 15:51:54.162365 11583 net.cpp:399] inception_4b/3x3_reduce -> inception_4b/3x3_reduce
I0403 15:51:54.163710 11583 net.cpp:141] Setting up inception_4b/3x3_reduce
I0403 15:51:54.163739 11583 net.cpp:148] Top shape: 24 112 14 14 (526848)
I0403 15:51:54.163754 11583 net.cpp:156] Memory required for data: 954332448
I0403 15:51:54.163774 11583 layer_factory.hpp:77] Creating layer inception_4b/relu_3x3_reduce
I0403 15:51:54.163794 11583 net.cpp:91] Creating Layer inception_4b/relu_3x3_reduce
I0403 15:51:54.163812 11583 net.cpp:425] inception_4b/relu_3x3_reduce <- inception_4b/3x3_reduce
I0403 15:51:54.163830 11583 net.cpp:386] inception_4b/relu_3x3_reduce -> inception_4b/3x3_reduce (in-place)
I0403 15:51:54.164113 11583 net.cpp:141] Setting up inception_4b/relu_3x3_reduce
I0403 15:51:54.164139 11583 net.cpp:148] Top shape: 24 112 14 14 (526848)
I0403 15:51:54.164155 11583 net.cpp:156] Memory required for data: 956439840
I0403 15:51:54.164170 11583 layer_factory.hpp:77] Creating layer inception_4b/3x3
I0403 15:51:54.164193 11583 net.cpp:91] Creating Layer inception_4b/3x3
I0403 15:51:54.164212 11583 net.cpp:425] inception_4b/3x3 <- inception_4b/3x3_reduce
I0403 15:51:54.164230 11583 net.cpp:399] inception_4b/3x3 -> inception_4b/3x3
I0403 15:51:54.167245 11583 net.cpp:141] Setting up inception_4b/3x3
I0403 15:51:54.167276 11583 net.cpp:148] Top shape: 24 224 14 14 (1053696)
I0403 15:51:54.167294 11583 net.cpp:156] Memory required for data: 960654624
I0403 15:51:54.167312 11583 layer_factory.hpp:77] Creating layer inception_4b/relu_3x3
I0403 15:51:54.167330 11583 net.cpp:91] Creating Layer inception_4b/relu_3x3
I0403 15:51:54.167346 11583 net.cpp:425] inception_4b/relu_3x3 <- inception_4b/3x3
I0403 15:51:54.167366 11583 net.cpp:386] inception_4b/relu_3x3 -> inception_4b/3x3 (in-place)
I0403 15:51:54.167546 11583 net.cpp:141] Setting up inception_4b/relu_3x3
I0403 15:51:54.167569 11583 net.cpp:148] Top shape: 24 224 14 14 (1053696)
I0403 15:51:54.167584 11583 net.cpp:156] Memory required for data: 964869408
I0403 15:51:54.167599 11583 layer_factory.hpp:77] Creating layer inception_4b/5x5_reduce
I0403 15:51:54.167621 11583 net.cpp:91] Creating Layer inception_4b/5x5_reduce
I0403 15:51:54.167639 11583 net.cpp:425] inception_4b/5x5_reduce <- inception_4a/output_inception_4a/output_0_split_3
I0403 15:51:54.167661 11583 net.cpp:399] inception_4b/5x5_reduce -> inception_4b/5x5_reduce
I0403 15:51:54.168738 11583 net.cpp:141] Setting up inception_4b/5x5_reduce
I0403 15:51:54.168766 11583 net.cpp:148] Top shape: 24 24 14 14 (112896)
I0403 15:51:54.168781 11583 net.cpp:156] Memory required for data: 965320992
I0403 15:51:54.168799 11583 layer_factory.hpp:77] Creating layer inception_4b/relu_5x5_reduce
I0403 15:51:54.168819 11583 net.cpp:91] Creating Layer inception_4b/relu_5x5_reduce
I0403 15:51:54.168849 11583 net.cpp:425] inception_4b/relu_5x5_reduce <- inception_4b/5x5_reduce
I0403 15:51:54.168869 11583 net.cpp:386] inception_4b/relu_5x5_reduce -> inception_4b/5x5_reduce (in-place)
I0403 15:51:54.169061 11583 net.cpp:141] Setting up inception_4b/relu_5x5_reduce
I0403 15:51:54.169088 11583 net.cpp:148] Top shape: 24 24 14 14 (112896)
I0403 15:51:54.169105 11583 net.cpp:156] Memory required for data: 965772576
I0403 15:51:54.169121 11583 layer_factory.hpp:77] Creating layer inception_4b/5x5
I0403 15:51:54.169142 11583 net.cpp:91] Creating Layer inception_4b/5x5
I0403 15:51:54.169160 11583 net.cpp:425] inception_4b/5x5 <- inception_4b/5x5_reduce
I0403 15:51:54.169178 11583 net.cpp:399] inception_4b/5x5 -> inception_4b/5x5
I0403 15:51:54.170445 11583 net.cpp:141] Setting up inception_4b/5x5
I0403 15:51:54.170486 11583 net.cpp:148] Top shape: 24 64 14 14 (301056)
I0403 15:51:54.170503 11583 net.cpp:156] Memory required for data: 966976800
I0403 15:51:54.170534 11583 layer_factory.hpp:77] Creating layer inception_4b/relu_5x5
I0403 15:51:54.170555 11583 net.cpp:91] Creating Layer inception_4b/relu_5x5
I0403 15:51:54.170572 11583 net.cpp:425] inception_4b/relu_5x5 <- inception_4b/5x5
I0403 15:51:54.170603 11583 net.cpp:386] inception_4b/relu_5x5 -> inception_4b/5x5 (in-place)
I0403 15:51:54.170897 11583 net.cpp:141] Setting up inception_4b/relu_5x5
I0403 15:51:54.170924 11583 net.cpp:148] Top shape: 24 64 14 14 (301056)
I0403 15:51:54.170939 11583 net.cpp:156] Memory required for data: 968181024
I0403 15:51:54.170959 11583 layer_factory.hpp:77] Creating layer inception_4b/pool
I0403 15:51:54.170980 11583 net.cpp:91] Creating Layer inception_4b/pool
I0403 15:51:54.171000 11583 net.cpp:425] inception_4b/pool <- inception_4a/output_inception_4a/output_0_split_4
I0403 15:51:54.171018 11583 net.cpp:399] inception_4b/pool -> inception_4b/pool
I0403 15:51:54.171085 11583 net.cpp:141] Setting up inception_4b/pool
I0403 15:51:54.171109 11583 net.cpp:148] Top shape: 24 512 14 14 (2408448)
I0403 15:51:54.171124 11583 net.cpp:156] Memory required for data: 977814816
I0403 15:51:54.171139 11583 layer_factory.hpp:77] Creating layer inception_4b/pool_proj
I0403 15:51:54.171174 11583 net.cpp:91] Creating Layer inception_4b/pool_proj
I0403 15:51:54.171191 11583 net.cpp:425] inception_4b/pool_proj <- inception_4b/pool
I0403 15:51:54.171213 11583 net.cpp:399] inception_4b/pool_proj -> inception_4b/pool_proj
I0403 15:51:54.172418 11583 net.cpp:141] Setting up inception_4b/pool_proj
I0403 15:51:54.172446 11583 net.cpp:148] Top shape: 24 64 14 14 (301056)
I0403 15:51:54.172461 11583 net.cpp:156] Memory required for data: 979019040
I0403 15:51:54.172480 11583 layer_factory.hpp:77] Creating layer inception_4b/relu_pool_proj
I0403 15:51:54.172502 11583 net.cpp:91] Creating Layer inception_4b/relu_pool_proj
I0403 15:51:54.172519 11583 net.cpp:425] inception_4b/relu_pool_proj <- inception_4b/pool_proj
I0403 15:51:54.172536 11583 net.cpp:386] inception_4b/relu_pool_proj -> inception_4b/pool_proj (in-place)
I0403 15:51:54.172718 11583 net.cpp:141] Setting up inception_4b/relu_pool_proj
I0403 15:51:54.172744 11583 net.cpp:148] Top shape: 24 64 14 14 (301056)
I0403 15:51:54.172760 11583 net.cpp:156] Memory required for data: 980223264
I0403 15:51:54.172775 11583 layer_factory.hpp:77] Creating layer inception_4b/output
I0403 15:51:54.172792 11583 net.cpp:91] Creating Layer inception_4b/output
I0403 15:51:54.172808 11583 net.cpp:425] inception_4b/output <- inception_4b/1x1
I0403 15:51:54.172826 11583 net.cpp:425] inception_4b/output <- inception_4b/3x3
I0403 15:51:54.172842 11583 net.cpp:425] inception_4b/output <- inception_4b/5x5
I0403 15:51:54.172857 11583 net.cpp:425] inception_4b/output <- inception_4b/pool_proj
I0403 15:51:54.172873 11583 net.cpp:399] inception_4b/output -> inception_4b/output
I0403 15:51:54.172919 11583 net.cpp:141] Setting up inception_4b/output
I0403 15:51:54.172942 11583 net.cpp:148] Top shape: 24 512 14 14 (2408448)
I0403 15:51:54.172961 11583 net.cpp:156] Memory required for data: 989857056
I0403 15:51:54.172991 11583 layer_factory.hpp:77] Creating layer inception_4b/output_inception_4b/output_0_split
I0403 15:51:54.173009 11583 net.cpp:91] Creating Layer inception_4b/output_inception_4b/output_0_split
I0403 15:51:54.173025 11583 net.cpp:425] inception_4b/output_inception_4b/output_0_split <- inception_4b/output
I0403 15:51:54.173045 11583 net.cpp:399] inception_4b/output_inception_4b/output_0_split -> inception_4b/output_inception_4b/output_0_split_0
I0403 15:51:54.173066 11583 net.cpp:399] inception_4b/output_inception_4b/output_0_split -> inception_4b/output_inception_4b/output_0_split_1
I0403 15:51:54.173087 11583 net.cpp:399] inception_4b/output_inception_4b/output_0_split -> inception_4b/output_inception_4b/output_0_split_2
I0403 15:51:54.173110 11583 net.cpp:399] inception_4b/output_inception_4b/output_0_split -> inception_4b/output_inception_4b/output_0_split_3
I0403 15:51:54.173197 11583 net.cpp:141] Setting up inception_4b/output_inception_4b/output_0_split
I0403 15:51:54.173220 11583 net.cpp:148] Top shape: 24 512 14 14 (2408448)
I0403 15:51:54.173238 11583 net.cpp:148] Top shape: 24 512 14 14 (2408448)
I0403 15:51:54.173254 11583 net.cpp:148] Top shape: 24 512 14 14 (2408448)
I0403 15:51:54.173269 11583 net.cpp:148] Top shape: 24 512 14 14 (2408448)
I0403 15:51:54.173282 11583 net.cpp:156] Memory required for data: 1028392224
I0403 15:51:54.173296 11583 layer_factory.hpp:77] Creating layer inception_4c/1x1
I0403 15:51:54.173318 11583 net.cpp:91] Creating Layer inception_4c/1x1
I0403 15:51:54.173336 11583 net.cpp:425] inception_4c/1x1 <- inception_4b/output_inception_4b/output_0_split_0
I0403 15:51:54.173357 11583 net.cpp:399] inception_4c/1x1 -> inception_4c/1x1
I0403 15:51:54.174790 11583 net.cpp:141] Setting up inception_4c/1x1
I0403 15:51:54.174821 11583 net.cpp:148] Top shape: 24 128 14 14 (602112)
I0403 15:51:54.174839 11583 net.cpp:156] Memory required for data: 1030800672
I0403 15:51:54.174856 11583 layer_factory.hpp:77] Creating layer inception_4c/relu_1x1
I0403 15:51:54.174875 11583 net.cpp:91] Creating Layer inception_4c/relu_1x1
I0403 15:51:54.174891 11583 net.cpp:425] inception_4c/relu_1x1 <- inception_4c/1x1
I0403 15:51:54.174911 11583 net.cpp:386] inception_4c/relu_1x1 -> inception_4c/1x1 (in-place)
I0403 15:51:54.175099 11583 net.cpp:141] Setting up inception_4c/relu_1x1
I0403 15:51:54.175124 11583 net.cpp:148] Top shape: 24 128 14 14 (602112)
I0403 15:51:54.175139 11583 net.cpp:156] Memory required for data: 1033209120
I0403 15:51:54.175153 11583 layer_factory.hpp:77] Creating layer inception_4c/3x3_reduce
I0403 15:51:54.175175 11583 net.cpp:91] Creating Layer inception_4c/3x3_reduce
I0403 15:51:54.175194 11583 net.cpp:425] inception_4c/3x3_reduce <- inception_4b/output_inception_4b/output_0_split_1
I0403 15:51:54.175215 11583 net.cpp:399] inception_4c/3x3_reduce -> inception_4c/3x3_reduce
I0403 15:51:54.177167 11583 net.cpp:141] Setting up inception_4c/3x3_reduce
I0403 15:51:54.177196 11583 net.cpp:148] Top shape: 24 128 14 14 (602112)
I0403 15:51:54.177220 11583 net.cpp:156] Memory required for data: 1035617568
I0403 15:51:54.177239 11583 layer_factory.hpp:77] Creating layer inception_4c/relu_3x3_reduce
I0403 15:51:54.177260 11583 net.cpp:91] Creating Layer inception_4c/relu_3x3_reduce
I0403 15:51:54.177278 11583 net.cpp:425] inception_4c/relu_3x3_reduce <- inception_4c/3x3_reduce
I0403 15:51:54.177295 11583 net.cpp:386] inception_4c/relu_3x3_reduce -> inception_4c/3x3_reduce (in-place)
I0403 15:51:54.177579 11583 net.cpp:141] Setting up inception_4c/relu_3x3_reduce
I0403 15:51:54.177605 11583 net.cpp:148] Top shape: 24 128 14 14 (602112)
I0403 15:51:54.177620 11583 net.cpp:156] Memory required for data: 1038026016
I0403 15:51:54.177635 11583 layer_factory.hpp:77] Creating layer inception_4c/3x3
I0403 15:51:54.177659 11583 net.cpp:91] Creating Layer inception_4c/3x3
I0403 15:51:54.177676 11583 net.cpp:425] inception_4c/3x3 <- inception_4c/3x3_reduce
I0403 15:51:54.177698 11583 net.cpp:399] inception_4c/3x3 -> inception_4c/3x3
I0403 15:51:54.181313 11583 net.cpp:141] Setting up inception_4c/3x3
I0403 15:51:54.181354 11583 net.cpp:148] Top shape: 24 256 14 14 (1204224)
I0403 15:51:54.181370 11583 net.cpp:156] Memory required for data: 1042842912
I0403 15:51:54.181402 11583 layer_factory.hpp:77] Creating layer inception_4c/relu_3x3
I0403 15:51:54.181424 11583 net.cpp:91] Creating Layer inception_4c/relu_3x3
I0403 15:51:54.181442 11583 net.cpp:425] inception_4c/relu_3x3 <- inception_4c/3x3
I0403 15:51:54.181459 11583 net.cpp:386] inception_4c/relu_3x3 -> inception_4c/3x3 (in-place)
I0403 15:51:54.181644 11583 net.cpp:141] Setting up inception_4c/relu_3x3
I0403 15:51:54.181669 11583 net.cpp:148] Top shape: 24 256 14 14 (1204224)
I0403 15:51:54.181684 11583 net.cpp:156] Memory required for data: 1047659808
I0403 15:51:54.181699 11583 layer_factory.hpp:77] Creating layer inception_4c/5x5_reduce
I0403 15:51:54.181721 11583 net.cpp:91] Creating Layer inception_4c/5x5_reduce
I0403 15:51:54.181740 11583 net.cpp:425] inception_4c/5x5_reduce <- inception_4b/output_inception_4b/output_0_split_2
I0403 15:51:54.181763 11583 net.cpp:399] inception_4c/5x5_reduce -> inception_4c/5x5_reduce
I0403 15:51:54.182847 11583 net.cpp:141] Setting up inception_4c/5x5_reduce
I0403 15:51:54.182874 11583 net.cpp:148] Top shape: 24 24 14 14 (112896)
I0403 15:51:54.182890 11583 net.cpp:156] Memory required for data: 1048111392
I0403 15:51:54.182907 11583 layer_factory.hpp:77] Creating layer inception_4c/relu_5x5_reduce
I0403 15:51:54.182929 11583 net.cpp:91] Creating Layer inception_4c/relu_5x5_reduce
I0403 15:51:54.182948 11583 net.cpp:425] inception_4c/relu_5x5_reduce <- inception_4c/5x5_reduce
I0403 15:51:54.182967 11583 net.cpp:386] inception_4c/relu_5x5_reduce -> inception_4c/5x5_reduce (in-place)
I0403 15:51:54.183152 11583 net.cpp:141] Setting up inception_4c/relu_5x5_reduce
I0403 15:51:54.183179 11583 net.cpp:148] Top shape: 24 24 14 14 (112896)
I0403 15:51:54.183194 11583 net.cpp:156] Memory required for data: 1048562976
I0403 15:51:54.183209 11583 layer_factory.hpp:77] Creating layer inception_4c/5x5
I0403 15:51:54.183231 11583 net.cpp:91] Creating Layer inception_4c/5x5
I0403 15:51:54.183250 11583 net.cpp:425] inception_4c/5x5 <- inception_4c/5x5_reduce
I0403 15:51:54.183269 11583 net.cpp:399] inception_4c/5x5 -> inception_4c/5x5
I0403 15:51:54.184514 11583 net.cpp:141] Setting up inception_4c/5x5
I0403 15:51:54.184543 11583 net.cpp:148] Top shape: 24 64 14 14 (301056)
I0403 15:51:54.184561 11583 net.cpp:156] Memory required for data: 1049767200
I0403 15:51:54.184578 11583 layer_factory.hpp:77] Creating layer inception_4c/relu_5x5
I0403 15:51:54.184597 11583 net.cpp:91] Creating Layer inception_4c/relu_5x5
I0403 15:51:54.184613 11583 net.cpp:425] inception_4c/relu_5x5 <- inception_4c/5x5
I0403 15:51:54.184633 11583 net.cpp:386] inception_4c/relu_5x5 -> inception_4c/5x5 (in-place)
I0403 15:51:54.184927 11583 net.cpp:141] Setting up inception_4c/relu_5x5
I0403 15:51:54.184959 11583 net.cpp:148] Top shape: 24 64 14 14 (301056)
I0403 15:51:54.184976 11583 net.cpp:156] Memory required for data: 1050971424
I0403 15:51:54.184991 11583 layer_factory.hpp:77] Creating layer inception_4c/pool
I0403 15:51:54.185009 11583 net.cpp:91] Creating Layer inception_4c/pool
I0403 15:51:54.185026 11583 net.cpp:425] inception_4c/pool <- inception_4b/output_inception_4b/output_0_split_3
I0403 15:51:54.185046 11583 net.cpp:399] inception_4c/pool -> inception_4c/pool
I0403 15:51:54.185111 11583 net.cpp:141] Setting up inception_4c/pool
I0403 15:51:54.185135 11583 net.cpp:148] Top shape: 24 512 14 14 (2408448)
I0403 15:51:54.185149 11583 net.cpp:156] Memory required for data: 1060605216
I0403 15:51:54.185164 11583 layer_factory.hpp:77] Creating layer inception_4c/pool_proj
I0403 15:51:54.185186 11583 net.cpp:91] Creating Layer inception_4c/pool_proj
I0403 15:51:54.185205 11583 net.cpp:425] inception_4c/pool_proj <- inception_4c/pool
I0403 15:51:54.185226 11583 net.cpp:399] inception_4c/pool_proj -> inception_4c/pool_proj
I0403 15:51:54.186455 11583 net.cpp:141] Setting up inception_4c/pool_proj
I0403 15:51:54.186482 11583 net.cpp:148] Top shape: 24 64 14 14 (301056)
I0403 15:51:54.186512 11583 net.cpp:156] Memory required for data: 1061809440
I0403 15:51:54.186532 11583 layer_factory.hpp:77] Creating layer inception_4c/relu_pool_proj
I0403 15:51:54.186553 11583 net.cpp:91] Creating Layer inception_4c/relu_pool_proj
I0403 15:51:54.186571 11583 net.cpp:425] inception_4c/relu_pool_proj <- inception_4c/pool_proj
I0403 15:51:54.186589 11583 net.cpp:386] inception_4c/relu_pool_proj -> inception_4c/pool_proj (in-place)
I0403 15:51:54.186774 11583 net.cpp:141] Setting up inception_4c/relu_pool_proj
I0403 15:51:54.186800 11583 net.cpp:148] Top shape: 24 64 14 14 (301056)
I0403 15:51:54.186816 11583 net.cpp:156] Memory required for data: 1063013664
I0403 15:51:54.186832 11583 layer_factory.hpp:77] Creating layer inception_4c/output
I0403 15:51:54.186848 11583 net.cpp:91] Creating Layer inception_4c/output
I0403 15:51:54.186864 11583 net.cpp:425] inception_4c/output <- inception_4c/1x1
I0403 15:51:54.186880 11583 net.cpp:425] inception_4c/output <- inception_4c/3x3
I0403 15:51:54.186897 11583 net.cpp:425] inception_4c/output <- inception_4c/5x5
I0403 15:51:54.186913 11583 net.cpp:425] inception_4c/output <- inception_4c/pool_proj
I0403 15:51:54.186930 11583 net.cpp:399] inception_4c/output -> inception_4c/output
I0403 15:51:54.186981 11583 net.cpp:141] Setting up inception_4c/output
I0403 15:51:54.187005 11583 net.cpp:148] Top shape: 24 512 14 14 (2408448)
I0403 15:51:54.187019 11583 net.cpp:156] Memory required for data: 1072647456
I0403 15:51:54.187034 11583 layer_factory.hpp:77] Creating layer inception_4c/output_inception_4c/output_0_split
I0403 15:51:54.187052 11583 net.cpp:91] Creating Layer inception_4c/output_inception_4c/output_0_split
I0403 15:51:54.187067 11583 net.cpp:425] inception_4c/output_inception_4c/output_0_split <- inception_4c/output
I0403 15:51:54.187088 11583 net.cpp:399] inception_4c/output_inception_4c/output_0_split -> inception_4c/output_inception_4c/output_0_split_0
I0403 15:51:54.187109 11583 net.cpp:399] inception_4c/output_inception_4c/output_0_split -> inception_4c/output_inception_4c/output_0_split_1
I0403 15:51:54.187129 11583 net.cpp:399] inception_4c/output_inception_4c/output_0_split -> inception_4c/output_inception_4c/output_0_split_2
I0403 15:51:54.187152 11583 net.cpp:399] inception_4c/output_inception_4c/output_0_split -> inception_4c/output_inception_4c/output_0_split_3
I0403 15:51:54.187240 11583 net.cpp:141] Setting up inception_4c/output_inception_4c/output_0_split
I0403 15:51:54.187263 11583 net.cpp:148] Top shape: 24 512 14 14 (2408448)
I0403 15:51:54.187279 11583 net.cpp:148] Top shape: 24 512 14 14 (2408448)
I0403 15:51:54.187295 11583 net.cpp:148] Top shape: 24 512 14 14 (2408448)
I0403 15:51:54.187311 11583 net.cpp:148] Top shape: 24 512 14 14 (2408448)
I0403 15:51:54.187325 11583 net.cpp:156] Memory required for data: 1111182624
I0403 15:51:54.187340 11583 layer_factory.hpp:77] Creating layer inception_4d/1x1
I0403 15:51:54.187362 11583 net.cpp:91] Creating Layer inception_4d/1x1
I0403 15:51:54.187379 11583 net.cpp:425] inception_4d/1x1 <- inception_4c/output_inception_4c/output_0_split_0
I0403 15:51:54.187400 11583 net.cpp:399] inception_4d/1x1 -> inception_4d/1x1
I0403 15:51:54.188789 11583 net.cpp:141] Setting up inception_4d/1x1
I0403 15:51:54.188817 11583 net.cpp:148] Top shape: 24 112 14 14 (526848)
I0403 15:51:54.188833 11583 net.cpp:156] Memory required for data: 1113290016
I0403 15:51:54.188851 11583 layer_factory.hpp:77] Creating layer inception_4d/relu_1x1
I0403 15:51:54.188870 11583 net.cpp:91] Creating Layer inception_4d/relu_1x1
I0403 15:51:54.188886 11583 net.cpp:425] inception_4d/relu_1x1 <- inception_4d/1x1
I0403 15:51:54.188906 11583 net.cpp:386] inception_4d/relu_1x1 -> inception_4d/1x1 (in-place)
I0403 15:51:54.189106 11583 net.cpp:141] Setting up inception_4d/relu_1x1
I0403 15:51:54.189131 11583 net.cpp:148] Top shape: 24 112 14 14 (526848)
I0403 15:51:54.189146 11583 net.cpp:156] Memory required for data: 1115397408
I0403 15:51:54.189162 11583 layer_factory.hpp:77] Creating layer inception_4d/3x3_reduce
I0403 15:51:54.189198 11583 net.cpp:91] Creating Layer inception_4d/3x3_reduce
I0403 15:51:54.189218 11583 net.cpp:425] inception_4d/3x3_reduce <- inception_4c/output_inception_4c/output_0_split_1
I0403 15:51:54.189239 11583 net.cpp:399] inception_4d/3x3_reduce -> inception_4d/3x3_reduce
I0403 15:51:54.190757 11583 net.cpp:141] Setting up inception_4d/3x3_reduce
I0403 15:51:54.190788 11583 net.cpp:148] Top shape: 24 144 14 14 (677376)
I0403 15:51:54.190805 11583 net.cpp:156] Memory required for data: 1118106912
I0403 15:51:54.190825 11583 layer_factory.hpp:77] Creating layer inception_4d/relu_3x3_reduce
I0403 15:51:54.190843 11583 net.cpp:91] Creating Layer inception_4d/relu_3x3_reduce
I0403 15:51:54.190860 11583 net.cpp:425] inception_4d/relu_3x3_reduce <- inception_4d/3x3_reduce
I0403 15:51:54.190881 11583 net.cpp:386] inception_4d/relu_3x3_reduce -> inception_4d/3x3_reduce (in-place)
I0403 15:51:54.191174 11583 net.cpp:141] Setting up inception_4d/relu_3x3_reduce
I0403 15:51:54.191203 11583 net.cpp:148] Top shape: 24 144 14 14 (677376)
I0403 15:51:54.191220 11583 net.cpp:156] Memory required for data: 1120816416
I0403 15:51:54.191234 11583 layer_factory.hpp:77] Creating layer inception_4d/3x3
I0403 15:51:54.191258 11583 net.cpp:91] Creating Layer inception_4d/3x3
I0403 15:51:54.191277 11583 net.cpp:425] inception_4d/3x3 <- inception_4d/3x3_reduce
I0403 15:51:54.191295 11583 net.cpp:399] inception_4d/3x3 -> inception_4d/3x3
I0403 15:51:54.195626 11583 net.cpp:141] Setting up inception_4d/3x3
I0403 15:51:54.195654 11583 net.cpp:148] Top shape: 24 288 14 14 (1354752)
I0403 15:51:54.195669 11583 net.cpp:156] Memory required for data: 1126235424
I0403 15:51:54.195688 11583 layer_factory.hpp:77] Creating layer inception_4d/relu_3x3
I0403 15:51:54.195706 11583 net.cpp:91] Creating Layer inception_4d/relu_3x3
I0403 15:51:54.195722 11583 net.cpp:425] inception_4d/relu_3x3 <- inception_4d/3x3
I0403 15:51:54.195742 11583 net.cpp:386] inception_4d/relu_3x3 -> inception_4d/3x3 (in-place)
I0403 15:51:54.195925 11583 net.cpp:141] Setting up inception_4d/relu_3x3
I0403 15:51:54.195955 11583 net.cpp:148] Top shape: 24 288 14 14 (1354752)
I0403 15:51:54.195971 11583 net.cpp:156] Memory required for data: 1131654432
I0403 15:51:54.195986 11583 layer_factory.hpp:77] Creating layer inception_4d/5x5_reduce
I0403 15:51:54.196008 11583 net.cpp:91] Creating Layer inception_4d/5x5_reduce
I0403 15:51:54.196027 11583 net.cpp:425] inception_4d/5x5_reduce <- inception_4c/output_inception_4c/output_0_split_2
I0403 15:51:54.196048 11583 net.cpp:399] inception_4d/5x5_reduce -> inception_4d/5x5_reduce
I0403 15:51:54.197204 11583 net.cpp:141] Setting up inception_4d/5x5_reduce
I0403 15:51:54.197232 11583 net.cpp:148] Top shape: 24 32 14 14 (150528)
I0403 15:51:54.197247 11583 net.cpp:156] Memory required for data: 1132256544
I0403 15:51:54.197265 11583 layer_factory.hpp:77] Creating layer inception_4d/relu_5x5_reduce
I0403 15:51:54.197285 11583 net.cpp:91] Creating Layer inception_4d/relu_5x5_reduce
I0403 15:51:54.197302 11583 net.cpp:425] inception_4d/relu_5x5_reduce <- inception_4d/5x5_reduce
I0403 15:51:54.197319 11583 net.cpp:386] inception_4d/relu_5x5_reduce -> inception_4d/5x5_reduce (in-place)
I0403 15:51:54.197509 11583 net.cpp:141] Setting up inception_4d/relu_5x5_reduce
I0403 15:51:54.197532 11583 net.cpp:148] Top shape: 24 32 14 14 (150528)
I0403 15:51:54.197546 11583 net.cpp:156] Memory required for data: 1132858656
I0403 15:51:54.197561 11583 layer_factory.hpp:77] Creating layer inception_4d/5x5
I0403 15:51:54.197584 11583 net.cpp:91] Creating Layer inception_4d/5x5
I0403 15:51:54.197602 11583 net.cpp:425] inception_4d/5x5 <- inception_4d/5x5_reduce
I0403 15:51:54.197623 11583 net.cpp:399] inception_4d/5x5 -> inception_4d/5x5
I0403 15:51:54.199116 11583 net.cpp:141] Setting up inception_4d/5x5
I0403 15:51:54.199143 11583 net.cpp:148] Top shape: 24 64 14 14 (301056)
I0403 15:51:54.199159 11583 net.cpp:156] Memory required for data: 1134062880
I0403 15:51:54.199190 11583 layer_factory.hpp:77] Creating layer inception_4d/relu_5x5
I0403 15:51:54.199228 11583 net.cpp:91] Creating Layer inception_4d/relu_5x5
I0403 15:51:54.199247 11583 net.cpp:425] inception_4d/relu_5x5 <- inception_4d/5x5
I0403 15:51:54.199265 11583 net.cpp:386] inception_4d/relu_5x5 -> inception_4d/5x5 (in-place)
I0403 15:51:54.199584 11583 net.cpp:141] Setting up inception_4d/relu_5x5
I0403 15:51:54.199610 11583 net.cpp:148] Top shape: 24 64 14 14 (301056)
I0403 15:51:54.199625 11583 net.cpp:156] Memory required for data: 1135267104
I0403 15:51:54.199640 11583 layer_factory.hpp:77] Creating layer inception_4d/pool
I0403 15:51:54.199659 11583 net.cpp:91] Creating Layer inception_4d/pool
I0403 15:51:54.199678 11583 net.cpp:425] inception_4d/pool <- inception_4c/output_inception_4c/output_0_split_3
I0403 15:51:54.199697 11583 net.cpp:399] inception_4d/pool -> inception_4d/pool
I0403 15:51:54.199764 11583 net.cpp:141] Setting up inception_4d/pool
I0403 15:51:54.199786 11583 net.cpp:148] Top shape: 24 512 14 14 (2408448)
I0403 15:51:54.199801 11583 net.cpp:156] Memory required for data: 1144900896
I0403 15:51:54.199816 11583 layer_factory.hpp:77] Creating layer inception_4d/pool_proj
I0403 15:51:54.199838 11583 net.cpp:91] Creating Layer inception_4d/pool_proj
I0403 15:51:54.199856 11583 net.cpp:425] inception_4d/pool_proj <- inception_4d/pool
I0403 15:51:54.199879 11583 net.cpp:399] inception_4d/pool_proj -> inception_4d/pool_proj
I0403 15:51:54.201663 11583 net.cpp:141] Setting up inception_4d/pool_proj
I0403 15:51:54.201691 11583 net.cpp:148] Top shape: 24 64 14 14 (301056)
I0403 15:51:54.201707 11583 net.cpp:156] Memory required for data: 1146105120
I0403 15:51:54.201726 11583 layer_factory.hpp:77] Creating layer inception_4d/relu_pool_proj
I0403 15:51:54.201745 11583 net.cpp:91] Creating Layer inception_4d/relu_pool_proj
I0403 15:51:54.201761 11583 net.cpp:425] inception_4d/relu_pool_proj <- inception_4d/pool_proj
I0403 15:51:54.201781 11583 net.cpp:386] inception_4d/relu_pool_proj -> inception_4d/pool_proj (in-place)
I0403 15:51:54.201972 11583 net.cpp:141] Setting up inception_4d/relu_pool_proj
I0403 15:51:54.201997 11583 net.cpp:148] Top shape: 24 64 14 14 (301056)
I0403 15:51:54.202011 11583 net.cpp:156] Memory required for data: 1147309344
I0403 15:51:54.202026 11583 layer_factory.hpp:77] Creating layer inception_4d/output
I0403 15:51:54.202045 11583 net.cpp:91] Creating Layer inception_4d/output
I0403 15:51:54.202062 11583 net.cpp:425] inception_4d/output <- inception_4d/1x1
I0403 15:51:54.202078 11583 net.cpp:425] inception_4d/output <- inception_4d/3x3
I0403 15:51:54.202095 11583 net.cpp:425] inception_4d/output <- inception_4d/5x5
I0403 15:51:54.202111 11583 net.cpp:425] inception_4d/output <- inception_4d/pool_proj
I0403 15:51:54.202127 11583 net.cpp:399] inception_4d/output -> inception_4d/output
I0403 15:51:54.202177 11583 net.cpp:141] Setting up inception_4d/output
I0403 15:51:54.202199 11583 net.cpp:148] Top shape: 24 528 14 14 (2483712)
I0403 15:51:54.202214 11583 net.cpp:156] Memory required for data: 1157244192
I0403 15:51:54.202229 11583 layer_factory.hpp:77] Creating layer inception_4d/output_inception_4d/output_0_split
I0403 15:51:54.202246 11583 net.cpp:91] Creating Layer inception_4d/output_inception_4d/output_0_split
I0403 15:51:54.202262 11583 net.cpp:425] inception_4d/output_inception_4d/output_0_split <- inception_4d/output
I0403 15:51:54.202282 11583 net.cpp:399] inception_4d/output_inception_4d/output_0_split -> inception_4d/output_inception_4d/output_0_split_0
I0403 15:51:54.202304 11583 net.cpp:399] inception_4d/output_inception_4d/output_0_split -> inception_4d/output_inception_4d/output_0_split_1
I0403 15:51:54.202324 11583 net.cpp:399] inception_4d/output_inception_4d/output_0_split -> inception_4d/output_inception_4d/output_0_split_2
I0403 15:51:54.202345 11583 net.cpp:399] inception_4d/output_inception_4d/output_0_split -> inception_4d/output_inception_4d/output_0_split_3
I0403 15:51:54.202366 11583 net.cpp:399] inception_4d/output_inception_4d/output_0_split -> inception_4d/output_inception_4d/output_0_split_4
I0403 15:51:54.202472 11583 net.cpp:141] Setting up inception_4d/output_inception_4d/output_0_split
I0403 15:51:54.202507 11583 net.cpp:148] Top shape: 24 528 14 14 (2483712)
I0403 15:51:54.202524 11583 net.cpp:148] Top shape: 24 528 14 14 (2483712)
I0403 15:51:54.202540 11583 net.cpp:148] Top shape: 24 528 14 14 (2483712)
I0403 15:51:54.202556 11583 net.cpp:148] Top shape: 24 528 14 14 (2483712)
I0403 15:51:54.202572 11583 net.cpp:148] Top shape: 24 528 14 14 (2483712)
I0403 15:51:54.202585 11583 net.cpp:156] Memory required for data: 1206918432
I0403 15:51:54.202600 11583 layer_factory.hpp:77] Creating layer loss2/ave_pool
I0403 15:51:54.202618 11583 net.cpp:91] Creating Layer loss2/ave_pool
I0403 15:51:54.202635 11583 net.cpp:425] loss2/ave_pool <- inception_4d/output_inception_4d/output_0_split_0
I0403 15:51:54.202654 11583 net.cpp:399] loss2/ave_pool -> loss2/ave_pool
I0403 15:51:54.202981 11583 net.cpp:141] Setting up loss2/ave_pool
I0403 15:51:54.203007 11583 net.cpp:148] Top shape: 24 528 4 4 (202752)
I0403 15:51:54.203022 11583 net.cpp:156] Memory required for data: 1207729440
I0403 15:51:54.203037 11583 layer_factory.hpp:77] Creating layer loss2/conv
I0403 15:51:54.203060 11583 net.cpp:91] Creating Layer loss2/conv
I0403 15:51:54.203078 11583 net.cpp:425] loss2/conv <- loss2/ave_pool
I0403 15:51:54.203100 11583 net.cpp:399] loss2/conv -> loss2/conv
I0403 15:51:54.205024 11583 net.cpp:141] Setting up loss2/conv
I0403 15:51:54.205054 11583 net.cpp:148] Top shape: 24 128 4 4 (49152)
I0403 15:51:54.205071 11583 net.cpp:156] Memory required for data: 1207926048
I0403 15:51:54.205090 11583 layer_factory.hpp:77] Creating layer loss2/relu_conv
I0403 15:51:54.205108 11583 net.cpp:91] Creating Layer loss2/relu_conv
I0403 15:51:54.205126 11583 net.cpp:425] loss2/relu_conv <- loss2/conv
I0403 15:51:54.205142 11583 net.cpp:386] loss2/relu_conv -> loss2/conv (in-place)
I0403 15:51:54.205432 11583 net.cpp:141] Setting up loss2/relu_conv
I0403 15:51:54.205461 11583 net.cpp:148] Top shape: 24 128 4 4 (49152)
I0403 15:51:54.205476 11583 net.cpp:156] Memory required for data: 1208122656
I0403 15:51:54.205492 11583 layer_factory.hpp:77] Creating layer loss2/fc
I0403 15:51:54.205510 11583 net.cpp:91] Creating Layer loss2/fc
I0403 15:51:54.205526 11583 net.cpp:425] loss2/fc <- loss2/conv
I0403 15:51:54.205549 11583 net.cpp:399] loss2/fc -> loss2/fc
I0403 15:51:54.223333 11583 net.cpp:141] Setting up loss2/fc
I0403 15:51:54.223367 11583 net.cpp:148] Top shape: 24 1024 (24576)
I0403 15:51:54.223384 11583 net.cpp:156] Memory required for data: 1208220960
I0403 15:51:54.223403 11583 layer_factory.hpp:77] Creating layer loss2/relu_fc
I0403 15:51:54.223424 11583 net.cpp:91] Creating Layer loss2/relu_fc
I0403 15:51:54.223444 11583 net.cpp:425] loss2/relu_fc <- loss2/fc
I0403 15:51:54.223462 11583 net.cpp:386] loss2/relu_fc -> loss2/fc (in-place)
I0403 15:51:54.223759 11583 net.cpp:141] Setting up loss2/relu_fc
I0403 15:51:54.223784 11583 net.cpp:148] Top shape: 24 1024 (24576)
I0403 15:51:54.223799 11583 net.cpp:156] Memory required for data: 1208319264
I0403 15:51:54.223815 11583 layer_factory.hpp:77] Creating layer loss2/drop_fc
I0403 15:51:54.223835 11583 net.cpp:91] Creating Layer loss2/drop_fc
I0403 15:51:54.223852 11583 net.cpp:425] loss2/drop_fc <- loss2/fc
I0403 15:51:54.223870 11583 net.cpp:386] loss2/drop_fc -> loss2/fc (in-place)
I0403 15:51:54.223918 11583 net.cpp:141] Setting up loss2/drop_fc
I0403 15:51:54.223943 11583 net.cpp:148] Top shape: 24 1024 (24576)
I0403 15:51:54.223963 11583 net.cpp:156] Memory required for data: 1208417568
I0403 15:51:54.223979 11583 layer_factory.hpp:77] Creating layer loss2/classifier_plantvillage
I0403 15:51:54.223997 11583 net.cpp:91] Creating Layer loss2/classifier_plantvillage
I0403 15:51:54.224014 11583 net.cpp:425] loss2/classifier_plantvillage <- loss2/fc
I0403 15:51:54.224035 11583 net.cpp:399] loss2/classifier_plantvillage -> loss2/classifier_plantvillage
I0403 15:51:54.224441 11583 net.cpp:141] Setting up loss2/classifier_plantvillage
I0403 15:51:54.224465 11583 net.cpp:148] Top shape: 24 38 (912)
I0403 15:51:54.224495 11583 net.cpp:156] Memory required for data: 1208421216
I0403 15:51:54.224514 11583 layer_factory.hpp:77] Creating layer loss2/classifier_plantvillage_loss2/classifier_plantvillage_0_split
I0403 15:51:54.224534 11583 net.cpp:91] Creating Layer loss2/classifier_plantvillage_loss2/classifier_plantvillage_0_split
I0403 15:51:54.224550 11583 net.cpp:425] loss2/classifier_plantvillage_loss2/classifier_plantvillage_0_split <- loss2/classifier_plantvillage
I0403 15:51:54.224567 11583 net.cpp:399] loss2/classifier_plantvillage_loss2/classifier_plantvillage_0_split -> loss2/classifier_plantvillage_loss2/classifier_plantvillage_0_split_0
I0403 15:51:54.224591 11583 net.cpp:399] loss2/classifier_plantvillage_loss2/classifier_plantvillage_0_split -> loss2/classifier_plantvillage_loss2/classifier_plantvillage_0_split_1
I0403 15:51:54.224612 11583 net.cpp:399] loss2/classifier_plantvillage_loss2/classifier_plantvillage_0_split -> loss2/classifier_plantvillage_loss2/classifier_plantvillage_0_split_2
I0403 15:51:54.224691 11583 net.cpp:141] Setting up loss2/classifier_plantvillage_loss2/classifier_plantvillage_0_split
I0403 15:51:54.224714 11583 net.cpp:148] Top shape: 24 38 (912)
I0403 15:51:54.224730 11583 net.cpp:148] Top shape: 24 38 (912)
I0403 15:51:54.224745 11583 net.cpp:148] Top shape: 24 38 (912)
I0403 15:51:54.224758 11583 net.cpp:156] Memory required for data: 1208432160
I0403 15:51:54.224773 11583 layer_factory.hpp:77] Creating layer inception_4e/1x1
I0403 15:51:54.224797 11583 net.cpp:91] Creating Layer inception_4e/1x1
I0403 15:51:54.224814 11583 net.cpp:425] inception_4e/1x1 <- inception_4d/output_inception_4d/output_0_split_1
I0403 15:51:54.224835 11583 net.cpp:399] inception_4e/1x1 -> inception_4e/1x1
I0403 15:51:54.226670 11583 net.cpp:141] Setting up inception_4e/1x1
I0403 15:51:54.226697 11583 net.cpp:148] Top shape: 24 256 14 14 (1204224)
I0403 15:51:54.226713 11583 net.cpp:156] Memory required for data: 1213249056
I0403 15:51:54.226734 11583 layer_factory.hpp:77] Creating layer inception_4e/relu_1x1
I0403 15:51:54.226753 11583 net.cpp:91] Creating Layer inception_4e/relu_1x1
I0403 15:51:54.226770 11583 net.cpp:425] inception_4e/relu_1x1 <- inception_4e/1x1
I0403 15:51:54.226788 11583 net.cpp:386] inception_4e/relu_1x1 -> inception_4e/1x1 (in-place)
I0403 15:51:54.227092 11583 net.cpp:141] Setting up inception_4e/relu_1x1
I0403 15:51:54.227118 11583 net.cpp:148] Top shape: 24 256 14 14 (1204224)
I0403 15:51:54.227133 11583 net.cpp:156] Memory required for data: 1218065952
I0403 15:51:54.227147 11583 layer_factory.hpp:77] Creating layer inception_4e/3x3_reduce
I0403 15:51:54.227174 11583 net.cpp:91] Creating Layer inception_4e/3x3_reduce
I0403 15:51:54.227193 11583 net.cpp:425] inception_4e/3x3_reduce <- inception_4d/output_inception_4d/output_0_split_2
I0403 15:51:54.227213 11583 net.cpp:399] inception_4e/3x3_reduce -> inception_4e/3x3_reduce
I0403 15:51:54.229398 11583 net.cpp:141] Setting up inception_4e/3x3_reduce
I0403 15:51:54.229425 11583 net.cpp:148] Top shape: 24 160 14 14 (752640)
I0403 15:51:54.229441 11583 net.cpp:156] Memory required for data: 1221076512
I0403 15:51:54.229460 11583 layer_factory.hpp:77] Creating layer inception_4e/relu_3x3_reduce
I0403 15:51:54.229481 11583 net.cpp:91] Creating Layer inception_4e/relu_3x3_reduce
I0403 15:51:54.229498 11583 net.cpp:425] inception_4e/relu_3x3_reduce <- inception_4e/3x3_reduce
I0403 15:51:54.229516 11583 net.cpp:386] inception_4e/relu_3x3_reduce -> inception_4e/3x3_reduce (in-place)
I0403 15:51:54.229704 11583 net.cpp:141] Setting up inception_4e/relu_3x3_reduce
I0403 15:51:54.229732 11583 net.cpp:148] Top shape: 24 160 14 14 (752640)
I0403 15:51:54.229748 11583 net.cpp:156] Memory required for data: 1224087072
I0403 15:51:54.229763 11583 layer_factory.hpp:77] Creating layer inception_4e/3x3
I0403 15:51:54.229784 11583 net.cpp:91] Creating Layer inception_4e/3x3
I0403 15:51:54.229802 11583 net.cpp:425] inception_4e/3x3 <- inception_4e/3x3_reduce
I0403 15:51:54.229820 11583 net.cpp:399] inception_4e/3x3 -> inception_4e/3x3
I0403 15:51:54.234927 11583 net.cpp:141] Setting up inception_4e/3x3
I0403 15:51:54.234974 11583 net.cpp:148] Top shape: 24 320 14 14 (1505280)
I0403 15:51:54.234992 11583 net.cpp:156] Memory required for data: 1230108192
I0403 15:51:54.235011 11583 layer_factory.hpp:77] Creating layer inception_4e/relu_3x3
I0403 15:51:54.235029 11583 net.cpp:91] Creating Layer inception_4e/relu_3x3
I0403 15:51:54.235046 11583 net.cpp:425] inception_4e/relu_3x3 <- inception_4e/3x3
I0403 15:51:54.235065 11583 net.cpp:386] inception_4e/relu_3x3 -> inception_4e/3x3 (in-place)
I0403 15:51:54.235373 11583 net.cpp:141] Setting up inception_4e/relu_3x3
I0403 15:51:54.235400 11583 net.cpp:148] Top shape: 24 320 14 14 (1505280)
I0403 15:51:54.235415 11583 net.cpp:156] Memory required for data: 1236129312
I0403 15:51:54.235430 11583 layer_factory.hpp:77] Creating layer inception_4e/5x5_reduce
I0403 15:51:54.235455 11583 net.cpp:91] Creating Layer inception_4e/5x5_reduce
I0403 15:51:54.235473 11583 net.cpp:425] inception_4e/5x5_reduce <- inception_4d/output_inception_4d/output_0_split_3
I0403 15:51:54.235496 11583 net.cpp:399] inception_4e/5x5_reduce -> inception_4e/5x5_reduce
I0403 15:51:54.236582 11583 net.cpp:141] Setting up inception_4e/5x5_reduce
I0403 15:51:54.236609 11583 net.cpp:148] Top shape: 24 32 14 14 (150528)
I0403 15:51:54.236624 11583 net.cpp:156] Memory required for data: 1236731424
I0403 15:51:54.236642 11583 layer_factory.hpp:77] Creating layer inception_4e/relu_5x5_reduce
I0403 15:51:54.236663 11583 net.cpp:91] Creating Layer inception_4e/relu_5x5_reduce
I0403 15:51:54.236680 11583 net.cpp:425] inception_4e/relu_5x5_reduce <- inception_4e/5x5_reduce
I0403 15:51:54.236698 11583 net.cpp:386] inception_4e/relu_5x5_reduce -> inception_4e/5x5_reduce (in-place)
I0403 15:51:54.237005 11583 net.cpp:141] Setting up inception_4e/relu_5x5_reduce
I0403 15:51:54.237031 11583 net.cpp:148] Top shape: 24 32 14 14 (150528)
I0403 15:51:54.237047 11583 net.cpp:156] Memory required for data: 1237333536
I0403 15:51:54.237062 11583 layer_factory.hpp:77] Creating layer inception_4e/5x5
I0403 15:51:54.237102 11583 net.cpp:91] Creating Layer inception_4e/5x5
I0403 15:51:54.237121 11583 net.cpp:425] inception_4e/5x5 <- inception_4e/5x5_reduce
I0403 15:51:54.237141 11583 net.cpp:399] inception_4e/5x5 -> inception_4e/5x5
I0403 15:51:54.239011 11583 net.cpp:141] Setting up inception_4e/5x5
I0403 15:51:54.239038 11583 net.cpp:148] Top shape: 24 128 14 14 (602112)
I0403 15:51:54.239054 11583 net.cpp:156] Memory required for data: 1239741984
I0403 15:51:54.239074 11583 layer_factory.hpp:77] Creating layer inception_4e/relu_5x5
I0403 15:51:54.239095 11583 net.cpp:91] Creating Layer inception_4e/relu_5x5
I0403 15:51:54.239114 11583 net.cpp:425] inception_4e/relu_5x5 <- inception_4e/5x5
I0403 15:51:54.239130 11583 net.cpp:386] inception_4e/relu_5x5 -> inception_4e/5x5 (in-place)
I0403 15:51:54.239328 11583 net.cpp:141] Setting up inception_4e/relu_5x5
I0403 15:51:54.239356 11583 net.cpp:148] Top shape: 24 128 14 14 (602112)
I0403 15:51:54.239372 11583 net.cpp:156] Memory required for data: 1242150432
I0403 15:51:54.239387 11583 layer_factory.hpp:77] Creating layer inception_4e/pool
I0403 15:51:54.239405 11583 net.cpp:91] Creating Layer inception_4e/pool
I0403 15:51:54.239421 11583 net.cpp:425] inception_4e/pool <- inception_4d/output_inception_4d/output_0_split_4
I0403 15:51:54.239439 11583 net.cpp:399] inception_4e/pool -> inception_4e/pool
I0403 15:51:54.239509 11583 net.cpp:141] Setting up inception_4e/pool
I0403 15:51:54.239534 11583 net.cpp:148] Top shape: 24 528 14 14 (2483712)
I0403 15:51:54.239548 11583 net.cpp:156] Memory required for data: 1252085280
I0403 15:51:54.239564 11583 layer_factory.hpp:77] Creating layer inception_4e/pool_proj
I0403 15:51:54.239586 11583 net.cpp:91] Creating Layer inception_4e/pool_proj
I0403 15:51:54.239604 11583 net.cpp:425] inception_4e/pool_proj <- inception_4e/pool
I0403 15:51:54.239624 11583 net.cpp:399] inception_4e/pool_proj -> inception_4e/pool_proj
I0403 15:51:54.241142 11583 net.cpp:141] Setting up inception_4e/pool_proj
I0403 15:51:54.241183 11583 net.cpp:148] Top shape: 24 128 14 14 (602112)
I0403 15:51:54.241199 11583 net.cpp:156] Memory required for data: 1254493728
I0403 15:51:54.241217 11583 layer_factory.hpp:77] Creating layer inception_4e/relu_pool_proj
I0403 15:51:54.241235 11583 net.cpp:91] Creating Layer inception_4e/relu_pool_proj
I0403 15:51:54.241251 11583 net.cpp:425] inception_4e/relu_pool_proj <- inception_4e/pool_proj
I0403 15:51:54.241271 11583 net.cpp:386] inception_4e/relu_pool_proj -> inception_4e/pool_proj (in-place)
I0403 15:51:54.241570 11583 net.cpp:141] Setting up inception_4e/relu_pool_proj
I0403 15:51:54.241596 11583 net.cpp:148] Top shape: 24 128 14 14 (602112)
I0403 15:51:54.241613 11583 net.cpp:156] Memory required for data: 1256902176
I0403 15:51:54.241628 11583 layer_factory.hpp:77] Creating layer inception_4e/output
I0403 15:51:54.241646 11583 net.cpp:91] Creating Layer inception_4e/output
I0403 15:51:54.241662 11583 net.cpp:425] inception_4e/output <- inception_4e/1x1
I0403 15:51:54.241677 11583 net.cpp:425] inception_4e/output <- inception_4e/3x3
I0403 15:51:54.241693 11583 net.cpp:425] inception_4e/output <- inception_4e/5x5
I0403 15:51:54.241709 11583 net.cpp:425] inception_4e/output <- inception_4e/pool_proj
I0403 15:51:54.241729 11583 net.cpp:399] inception_4e/output -> inception_4e/output
I0403 15:51:54.241778 11583 net.cpp:141] Setting up inception_4e/output
I0403 15:51:54.241804 11583 net.cpp:148] Top shape: 24 832 14 14 (3913728)
I0403 15:51:54.241819 11583 net.cpp:156] Memory required for data: 1272557088
I0403 15:51:54.241834 11583 layer_factory.hpp:77] Creating layer pool4/3x3_s2
I0403 15:51:54.241852 11583 net.cpp:91] Creating Layer pool4/3x3_s2
I0403 15:51:54.241868 11583 net.cpp:425] pool4/3x3_s2 <- inception_4e/output
I0403 15:51:54.241889 11583 net.cpp:399] pool4/3x3_s2 -> pool4/3x3_s2
I0403 15:51:54.241961 11583 net.cpp:141] Setting up pool4/3x3_s2
I0403 15:51:54.241986 11583 net.cpp:148] Top shape: 24 832 7 7 (978432)
I0403 15:51:54.242000 11583 net.cpp:156] Memory required for data: 1276470816
I0403 15:51:54.242017 11583 layer_factory.hpp:77] Creating layer pool4/3x3_s2_pool4/3x3_s2_0_split
I0403 15:51:54.242035 11583 net.cpp:91] Creating Layer pool4/3x3_s2_pool4/3x3_s2_0_split
I0403 15:51:54.242053 11583 net.cpp:425] pool4/3x3_s2_pool4/3x3_s2_0_split <- pool4/3x3_s2
I0403 15:51:54.242071 11583 net.cpp:399] pool4/3x3_s2_pool4/3x3_s2_0_split -> pool4/3x3_s2_pool4/3x3_s2_0_split_0
I0403 15:51:54.242091 11583 net.cpp:399] pool4/3x3_s2_pool4/3x3_s2_0_split -> pool4/3x3_s2_pool4/3x3_s2_0_split_1
I0403 15:51:54.242115 11583 net.cpp:399] pool4/3x3_s2_pool4/3x3_s2_0_split -> pool4/3x3_s2_pool4/3x3_s2_0_split_2
I0403 15:51:54.242136 11583 net.cpp:399] pool4/3x3_s2_pool4/3x3_s2_0_split -> pool4/3x3_s2_pool4/3x3_s2_0_split_3
I0403 15:51:54.242228 11583 net.cpp:141] Setting up pool4/3x3_s2_pool4/3x3_s2_0_split
I0403 15:51:54.242250 11583 net.cpp:148] Top shape: 24 832 7 7 (978432)
I0403 15:51:54.242267 11583 net.cpp:148] Top shape: 24 832 7 7 (978432)
I0403 15:51:54.242283 11583 net.cpp:148] Top shape: 24 832 7 7 (978432)
I0403 15:51:54.242298 11583 net.cpp:148] Top shape: 24 832 7 7 (978432)
I0403 15:51:54.242313 11583 net.cpp:156] Memory required for data: 1292125728
I0403 15:51:54.242328 11583 layer_factory.hpp:77] Creating layer inception_5a/1x1
I0403 15:51:54.242352 11583 net.cpp:91] Creating Layer inception_5a/1x1
I0403 15:51:54.242368 11583 net.cpp:425] inception_5a/1x1 <- pool4/3x3_s2_pool4/3x3_s2_0_split_0
I0403 15:51:54.242390 11583 net.cpp:399] inception_5a/1x1 -> inception_5a/1x1
I0403 15:51:54.245278 11583 net.cpp:141] Setting up inception_5a/1x1
I0403 15:51:54.245307 11583 net.cpp:148] Top shape: 24 256 7 7 (301056)
I0403 15:51:54.245323 11583 net.cpp:156] Memory required for data: 1293329952
I0403 15:51:54.245342 11583 layer_factory.hpp:77] Creating layer inception_5a/relu_1x1
I0403 15:51:54.245362 11583 net.cpp:91] Creating Layer inception_5a/relu_1x1
I0403 15:51:54.245378 11583 net.cpp:425] inception_5a/relu_1x1 <- inception_5a/1x1
I0403 15:51:54.245396 11583 net.cpp:386] inception_5a/relu_1x1 -> inception_5a/1x1 (in-place)
I0403 15:51:54.245715 11583 net.cpp:141] Setting up inception_5a/relu_1x1
I0403 15:51:54.245750 11583 net.cpp:148] Top shape: 24 256 7 7 (301056)
I0403 15:51:54.245766 11583 net.cpp:156] Memory required for data: 1294534176
I0403 15:51:54.245781 11583 layer_factory.hpp:77] Creating layer inception_5a/3x3_reduce
I0403 15:51:54.245803 11583 net.cpp:91] Creating Layer inception_5a/3x3_reduce
I0403 15:51:54.245821 11583 net.cpp:425] inception_5a/3x3_reduce <- pool4/3x3_s2_pool4/3x3_s2_0_split_1
I0403 15:51:54.245842 11583 net.cpp:399] inception_5a/3x3_reduce -> inception_5a/3x3_reduce
I0403 15:51:54.248348 11583 net.cpp:141] Setting up inception_5a/3x3_reduce
I0403 15:51:54.248378 11583 net.cpp:148] Top shape: 24 160 7 7 (188160)
I0403 15:51:54.248394 11583 net.cpp:156] Memory required for data: 1295286816
I0403 15:51:54.248411 11583 layer_factory.hpp:77] Creating layer inception_5a/relu_3x3_reduce
I0403 15:51:54.248430 11583 net.cpp:91] Creating Layer inception_5a/relu_3x3_reduce
I0403 15:51:54.248445 11583 net.cpp:425] inception_5a/relu_3x3_reduce <- inception_5a/3x3_reduce
I0403 15:51:54.248466 11583 net.cpp:386] inception_5a/relu_3x3_reduce -> inception_5a/3x3_reduce (in-place)
I0403 15:51:54.248654 11583 net.cpp:141] Setting up inception_5a/relu_3x3_reduce
I0403 15:51:54.248679 11583 net.cpp:148] Top shape: 24 160 7 7 (188160)
I0403 15:51:54.248694 11583 net.cpp:156] Memory required for data: 1296039456
I0403 15:51:54.248708 11583 layer_factory.hpp:77] Creating layer inception_5a/3x3
I0403 15:51:54.248731 11583 net.cpp:91] Creating Layer inception_5a/3x3
I0403 15:51:54.248749 11583 net.cpp:425] inception_5a/3x3 <- inception_5a/3x3_reduce
I0403 15:51:54.248771 11583 net.cpp:399] inception_5a/3x3 -> inception_5a/3x3
I0403 15:51:54.253888 11583 net.cpp:141] Setting up inception_5a/3x3
I0403 15:51:54.253918 11583 net.cpp:148] Top shape: 24 320 7 7 (376320)
I0403 15:51:54.253933 11583 net.cpp:156] Memory required for data: 1297544736
I0403 15:51:54.253955 11583 layer_factory.hpp:77] Creating layer inception_5a/relu_3x3
I0403 15:51:54.253978 11583 net.cpp:91] Creating Layer inception_5a/relu_3x3
I0403 15:51:54.253995 11583 net.cpp:425] inception_5a/relu_3x3 <- inception_5a/3x3
I0403 15:51:54.254012 11583 net.cpp:386] inception_5a/relu_3x3 -> inception_5a/3x3 (in-place)
I0403 15:51:54.254309 11583 net.cpp:141] Setting up inception_5a/relu_3x3
I0403 15:51:54.254335 11583 net.cpp:148] Top shape: 24 320 7 7 (376320)
I0403 15:51:54.254350 11583 net.cpp:156] Memory required for data: 1299050016
I0403 15:51:54.254365 11583 layer_factory.hpp:77] Creating layer inception_5a/5x5_reduce
I0403 15:51:54.254389 11583 net.cpp:91] Creating Layer inception_5a/5x5_reduce
I0403 15:51:54.254406 11583 net.cpp:425] inception_5a/5x5_reduce <- pool4/3x3_s2_pool4/3x3_s2_0_split_2
I0403 15:51:54.254428 11583 net.cpp:399] inception_5a/5x5_reduce -> inception_5a/5x5_reduce
I0403 15:51:54.255614 11583 net.cpp:141] Setting up inception_5a/5x5_reduce
I0403 15:51:54.255645 11583 net.cpp:148] Top shape: 24 32 7 7 (37632)
I0403 15:51:54.255661 11583 net.cpp:156] Memory required for data: 1299200544
I0403 15:51:54.255679 11583 layer_factory.hpp:77] Creating layer inception_5a/relu_5x5_reduce
I0403 15:51:54.255698 11583 net.cpp:91] Creating Layer inception_5a/relu_5x5_reduce
I0403 15:51:54.255714 11583 net.cpp:425] inception_5a/relu_5x5_reduce <- inception_5a/5x5_reduce
I0403 15:51:54.255733 11583 net.cpp:386] inception_5a/relu_5x5_reduce -> inception_5a/5x5_reduce (in-place)
I0403 15:51:54.256043 11583 net.cpp:141] Setting up inception_5a/relu_5x5_reduce
I0403 15:51:54.256072 11583 net.cpp:148] Top shape: 24 32 7 7 (37632)
I0403 15:51:54.256088 11583 net.cpp:156] Memory required for data: 1299351072
I0403 15:51:54.256103 11583 layer_factory.hpp:77] Creating layer inception_5a/5x5
I0403 15:51:54.256124 11583 net.cpp:91] Creating Layer inception_5a/5x5
I0403 15:51:54.256140 11583 net.cpp:425] inception_5a/5x5 <- inception_5a/5x5_reduce
I0403 15:51:54.256160 11583 net.cpp:399] inception_5a/5x5 -> inception_5a/5x5
I0403 15:51:54.257900 11583 net.cpp:141] Setting up inception_5a/5x5
I0403 15:51:54.257939 11583 net.cpp:148] Top shape: 24 128 7 7 (150528)
I0403 15:51:54.257959 11583 net.cpp:156] Memory required for data: 1299953184
I0403 15:51:54.257979 11583 layer_factory.hpp:77] Creating layer inception_5a/relu_5x5
I0403 15:51:54.258000 11583 net.cpp:91] Creating Layer inception_5a/relu_5x5
I0403 15:51:54.258016 11583 net.cpp:425] inception_5a/relu_5x5 <- inception_5a/5x5
I0403 15:51:54.258034 11583 net.cpp:386] inception_5a/relu_5x5 -> inception_5a/5x5 (in-place)
I0403 15:51:54.258240 11583 net.cpp:141] Setting up inception_5a/relu_5x5
I0403 15:51:54.258268 11583 net.cpp:148] Top shape: 24 128 7 7 (150528)
I0403 15:51:54.258285 11583 net.cpp:156] Memory required for data: 1300555296
I0403 15:51:54.258299 11583 layer_factory.hpp:77] Creating layer inception_5a/pool
I0403 15:51:54.258317 11583 net.cpp:91] Creating Layer inception_5a/pool
I0403 15:51:54.258334 11583 net.cpp:425] inception_5a/pool <- pool4/3x3_s2_pool4/3x3_s2_0_split_3
I0403 15:51:54.258353 11583 net.cpp:399] inception_5a/pool -> inception_5a/pool
I0403 15:51:54.258427 11583 net.cpp:141] Setting up inception_5a/pool
I0403 15:51:54.258452 11583 net.cpp:148] Top shape: 24 832 7 7 (978432)
I0403 15:51:54.258479 11583 net.cpp:156] Memory required for data: 1304469024
I0403 15:51:54.258493 11583 layer_factory.hpp:77] Creating layer inception_5a/pool_proj
I0403 15:51:54.258515 11583 net.cpp:91] Creating Layer inception_5a/pool_proj
I0403 15:51:54.258533 11583 net.cpp:425] inception_5a/pool_proj <- inception_5a/pool
I0403 15:51:54.258554 11583 net.cpp:399] inception_5a/pool_proj -> inception_5a/pool_proj
I0403 15:51:54.260880 11583 net.cpp:141] Setting up inception_5a/pool_proj
I0403 15:51:54.260908 11583 net.cpp:148] Top shape: 24 128 7 7 (150528)
I0403 15:51:54.260924 11583 net.cpp:156] Memory required for data: 1305071136
I0403 15:51:54.260942 11583 layer_factory.hpp:77] Creating layer inception_5a/relu_pool_proj
I0403 15:51:54.260967 11583 net.cpp:91] Creating Layer inception_5a/relu_pool_proj
I0403 15:51:54.260985 11583 net.cpp:425] inception_5a/relu_pool_proj <- inception_5a/pool_proj
I0403 15:51:54.261003 11583 net.cpp:386] inception_5a/relu_pool_proj -> inception_5a/pool_proj (in-place)
I0403 15:51:54.261301 11583 net.cpp:141] Setting up inception_5a/relu_pool_proj
I0403 15:51:54.261327 11583 net.cpp:148] Top shape: 24 128 7 7 (150528)
I0403 15:51:54.261343 11583 net.cpp:156] Memory required for data: 1305673248
I0403 15:51:54.261358 11583 layer_factory.hpp:77] Creating layer inception_5a/output
I0403 15:51:54.261375 11583 net.cpp:91] Creating Layer inception_5a/output
I0403 15:51:54.261391 11583 net.cpp:425] inception_5a/output <- inception_5a/1x1
I0403 15:51:54.261409 11583 net.cpp:425] inception_5a/output <- inception_5a/3x3
I0403 15:51:54.261425 11583 net.cpp:425] inception_5a/output <- inception_5a/5x5
I0403 15:51:54.261440 11583 net.cpp:425] inception_5a/output <- inception_5a/pool_proj
I0403 15:51:54.261458 11583 net.cpp:399] inception_5a/output -> inception_5a/output
I0403 15:51:54.261508 11583 net.cpp:141] Setting up inception_5a/output
I0403 15:51:54.261534 11583 net.cpp:148] Top shape: 24 832 7 7 (978432)
I0403 15:51:54.261549 11583 net.cpp:156] Memory required for data: 1309586976
I0403 15:51:54.261564 11583 layer_factory.hpp:77] Creating layer inception_5a/output_inception_5a/output_0_split
I0403 15:51:54.261582 11583 net.cpp:91] Creating Layer inception_5a/output_inception_5a/output_0_split
I0403 15:51:54.261597 11583 net.cpp:425] inception_5a/output_inception_5a/output_0_split <- inception_5a/output
I0403 15:51:54.261618 11583 net.cpp:399] inception_5a/output_inception_5a/output_0_split -> inception_5a/output_inception_5a/output_0_split_0
I0403 15:51:54.261641 11583 net.cpp:399] inception_5a/output_inception_5a/output_0_split -> inception_5a/output_inception_5a/output_0_split_1
I0403 15:51:54.261661 11583 net.cpp:399] inception_5a/output_inception_5a/output_0_split -> inception_5a/output_inception_5a/output_0_split_2
I0403 15:51:54.261682 11583 net.cpp:399] inception_5a/output_inception_5a/output_0_split -> inception_5a/output_inception_5a/output_0_split_3
I0403 15:51:54.261793 11583 net.cpp:141] Setting up inception_5a/output_inception_5a/output_0_split
I0403 15:51:54.261819 11583 net.cpp:148] Top shape: 24 832 7 7 (978432)
I0403 15:51:54.261837 11583 net.cpp:148] Top shape: 24 832 7 7 (978432)
I0403 15:51:54.261852 11583 net.cpp:148] Top shape: 24 832 7 7 (978432)
I0403 15:51:54.261868 11583 net.cpp:148] Top shape: 24 832 7 7 (978432)
I0403 15:51:54.261881 11583 net.cpp:156] Memory required for data: 1325241888
I0403 15:51:54.261896 11583 layer_factory.hpp:77] Creating layer inception_5b/1x1
I0403 15:51:54.261917 11583 net.cpp:91] Creating Layer inception_5b/1x1
I0403 15:51:54.261934 11583 net.cpp:425] inception_5b/1x1 <- inception_5a/output_inception_5a/output_0_split_0
I0403 15:51:54.261960 11583 net.cpp:399] inception_5b/1x1 -> inception_5b/1x1
I0403 15:51:54.265828 11583 net.cpp:141] Setting up inception_5b/1x1
I0403 15:51:54.265859 11583 net.cpp:148] Top shape: 24 384 7 7 (451584)
I0403 15:51:54.265875 11583 net.cpp:156] Memory required for data: 1327048224
I0403 15:51:54.265893 11583 layer_factory.hpp:77] Creating layer inception_5b/relu_1x1
I0403 15:51:54.265911 11583 net.cpp:91] Creating Layer inception_5b/relu_1x1
I0403 15:51:54.265928 11583 net.cpp:425] inception_5b/relu_1x1 <- inception_5b/1x1
I0403 15:51:54.265951 11583 net.cpp:386] inception_5b/relu_1x1 -> inception_5b/1x1 (in-place)
I0403 15:51:54.266269 11583 net.cpp:141] Setting up inception_5b/relu_1x1
I0403 15:51:54.266294 11583 net.cpp:148] Top shape: 24 384 7 7 (451584)
I0403 15:51:54.266309 11583 net.cpp:156] Memory required for data: 1328854560
I0403 15:51:54.266324 11583 layer_factory.hpp:77] Creating layer inception_5b/3x3_reduce
I0403 15:51:54.266347 11583 net.cpp:91] Creating Layer inception_5b/3x3_reduce
I0403 15:51:54.266366 11583 net.cpp:425] inception_5b/3x3_reduce <- inception_5a/output_inception_5a/output_0_split_1
I0403 15:51:54.266388 11583 net.cpp:399] inception_5b/3x3_reduce -> inception_5b/3x3_reduce
I0403 15:51:54.269099 11583 net.cpp:141] Setting up inception_5b/3x3_reduce
I0403 15:51:54.269129 11583 net.cpp:148] Top shape: 24 192 7 7 (225792)
I0403 15:51:54.269145 11583 net.cpp:156] Memory required for data: 1329757728
I0403 15:51:54.269165 11583 layer_factory.hpp:77] Creating layer inception_5b/relu_3x3_reduce
I0403 15:51:54.269184 11583 net.cpp:91] Creating Layer inception_5b/relu_3x3_reduce
I0403 15:51:54.269203 11583 net.cpp:425] inception_5b/relu_3x3_reduce <- inception_5b/3x3_reduce
I0403 15:51:54.269222 11583 net.cpp:386] inception_5b/relu_3x3_reduce -> inception_5b/3x3_reduce (in-place)
I0403 15:51:54.269412 11583 net.cpp:141] Setting up inception_5b/relu_3x3_reduce
I0403 15:51:54.269438 11583 net.cpp:148] Top shape: 24 192 7 7 (225792)
I0403 15:51:54.269453 11583 net.cpp:156] Memory required for data: 1330660896
I0403 15:51:54.269466 11583 layer_factory.hpp:77] Creating layer inception_5b/3x3
I0403 15:51:54.269490 11583 net.cpp:91] Creating Layer inception_5b/3x3
I0403 15:51:54.269507 11583 net.cpp:425] inception_5b/3x3 <- inception_5b/3x3_reduce
I0403 15:51:54.269531 11583 net.cpp:399] inception_5b/3x3 -> inception_5b/3x3
I0403 15:51:54.276309 11583 net.cpp:141] Setting up inception_5b/3x3
I0403 15:51:54.276340 11583 net.cpp:148] Top shape: 24 384 7 7 (451584)
I0403 15:51:54.276357 11583 net.cpp:156] Memory required for data: 1332467232
I0403 15:51:54.276376 11583 layer_factory.hpp:77] Creating layer inception_5b/relu_3x3
I0403 15:51:54.276398 11583 net.cpp:91] Creating Layer inception_5b/relu_3x3
I0403 15:51:54.276417 11583 net.cpp:425] inception_5b/relu_3x3 <- inception_5b/3x3
I0403 15:51:54.276434 11583 net.cpp:386] inception_5b/relu_3x3 -> inception_5b/3x3 (in-place)
I0403 15:51:54.276732 11583 net.cpp:141] Setting up inception_5b/relu_3x3
I0403 15:51:54.276758 11583 net.cpp:148] Top shape: 24 384 7 7 (451584)
I0403 15:51:54.276772 11583 net.cpp:156] Memory required for data: 1334273568
I0403 15:51:54.276787 11583 layer_factory.hpp:77] Creating layer inception_5b/5x5_reduce
I0403 15:51:54.276825 11583 net.cpp:91] Creating Layer inception_5b/5x5_reduce
I0403 15:51:54.276844 11583 net.cpp:425] inception_5b/5x5_reduce <- inception_5a/output_inception_5a/output_0_split_2
I0403 15:51:54.276867 11583 net.cpp:399] inception_5b/5x5_reduce -> inception_5b/5x5_reduce
I0403 15:51:54.278163 11583 net.cpp:141] Setting up inception_5b/5x5_reduce
I0403 15:51:54.278192 11583 net.cpp:148] Top shape: 24 48 7 7 (56448)
I0403 15:51:54.278208 11583 net.cpp:156] Memory required for data: 1334499360
I0403 15:51:54.278226 11583 layer_factory.hpp:77] Creating layer inception_5b/relu_5x5_reduce
I0403 15:51:54.278244 11583 net.cpp:91] Creating Layer inception_5b/relu_5x5_reduce
I0403 15:51:54.278260 11583 net.cpp:425] inception_5b/relu_5x5_reduce <- inception_5b/5x5_reduce
I0403 15:51:54.278280 11583 net.cpp:386] inception_5b/relu_5x5_reduce -> inception_5b/5x5_reduce (in-place)
I0403 15:51:54.278663 11583 net.cpp:141] Setting up inception_5b/relu_5x5_reduce
I0403 15:51:54.278689 11583 net.cpp:148] Top shape: 24 48 7 7 (56448)
I0403 15:51:54.278704 11583 net.cpp:156] Memory required for data: 1334725152
I0403 15:51:54.278719 11583 layer_factory.hpp:77] Creating layer inception_5b/5x5
I0403 15:51:54.278739 11583 net.cpp:91] Creating Layer inception_5b/5x5
I0403 15:51:54.278756 11583 net.cpp:425] inception_5b/5x5 <- inception_5b/5x5_reduce
I0403 15:51:54.278775 11583 net.cpp:399] inception_5b/5x5 -> inception_5b/5x5
I0403 15:51:54.280864 11583 net.cpp:141] Setting up inception_5b/5x5
I0403 15:51:54.280892 11583 net.cpp:148] Top shape: 24 128 7 7 (150528)
I0403 15:51:54.280908 11583 net.cpp:156] Memory required for data: 1335327264
I0403 15:51:54.280926 11583 layer_factory.hpp:77] Creating layer inception_5b/relu_5x5
I0403 15:51:54.280949 11583 net.cpp:91] Creating Layer inception_5b/relu_5x5
I0403 15:51:54.280968 11583 net.cpp:425] inception_5b/relu_5x5 <- inception_5b/5x5
I0403 15:51:54.280987 11583 net.cpp:386] inception_5b/relu_5x5 -> inception_5b/5x5 (in-place)
I0403 15:51:54.281185 11583 net.cpp:141] Setting up inception_5b/relu_5x5
I0403 15:51:54.281213 11583 net.cpp:148] Top shape: 24 128 7 7 (150528)
I0403 15:51:54.281229 11583 net.cpp:156] Memory required for data: 1335929376
I0403 15:51:54.281244 11583 layer_factory.hpp:77] Creating layer inception_5b/pool
I0403 15:51:54.281261 11583 net.cpp:91] Creating Layer inception_5b/pool
I0403 15:51:54.281278 11583 net.cpp:425] inception_5b/pool <- inception_5a/output_inception_5a/output_0_split_3
I0403 15:51:54.281298 11583 net.cpp:399] inception_5b/pool -> inception_5b/pool
I0403 15:51:54.281370 11583 net.cpp:141] Setting up inception_5b/pool
I0403 15:51:54.281394 11583 net.cpp:148] Top shape: 24 832 7 7 (978432)
I0403 15:51:54.281409 11583 net.cpp:156] Memory required for data: 1339843104
I0403 15:51:54.281424 11583 layer_factory.hpp:77] Creating layer inception_5b/pool_proj
I0403 15:51:54.281446 11583 net.cpp:91] Creating Layer inception_5b/pool_proj
I0403 15:51:54.281463 11583 net.cpp:425] inception_5b/pool_proj <- inception_5b/pool
I0403 15:51:54.281486 11583 net.cpp:399] inception_5b/pool_proj -> inception_5b/pool_proj
I0403 15:51:54.283841 11583 net.cpp:141] Setting up inception_5b/pool_proj
I0403 15:51:54.283871 11583 net.cpp:148] Top shape: 24 128 7 7 (150528)
I0403 15:51:54.283886 11583 net.cpp:156] Memory required for data: 1340445216
I0403 15:51:54.283905 11583 layer_factory.hpp:77] Creating layer inception_5b/relu_pool_proj
I0403 15:51:54.283926 11583 net.cpp:91] Creating Layer inception_5b/relu_pool_proj
I0403 15:51:54.283943 11583 net.cpp:425] inception_5b/relu_pool_proj <- inception_5b/pool_proj
I0403 15:51:54.283967 11583 net.cpp:386] inception_5b/relu_pool_proj -> inception_5b/pool_proj (in-place)
I0403 15:51:54.284268 11583 net.cpp:141] Setting up inception_5b/relu_pool_proj
I0403 15:51:54.284294 11583 net.cpp:148] Top shape: 24 128 7 7 (150528)
I0403 15:51:54.284310 11583 net.cpp:156] Memory required for data: 1341047328
I0403 15:51:54.284325 11583 layer_factory.hpp:77] Creating layer inception_5b/output
I0403 15:51:54.284343 11583 net.cpp:91] Creating Layer inception_5b/output
I0403 15:51:54.284373 11583 net.cpp:425] inception_5b/output <- inception_5b/1x1
I0403 15:51:54.284391 11583 net.cpp:425] inception_5b/output <- inception_5b/3x3
I0403 15:51:54.284409 11583 net.cpp:425] inception_5b/output <- inception_5b/5x5
I0403 15:51:54.284425 11583 net.cpp:425] inception_5b/output <- inception_5b/pool_proj
I0403 15:51:54.284443 11583 net.cpp:399] inception_5b/output -> inception_5b/output
I0403 15:51:54.284498 11583 net.cpp:141] Setting up inception_5b/output
I0403 15:51:54.284523 11583 net.cpp:148] Top shape: 24 1024 7 7 (1204224)
I0403 15:51:54.284538 11583 net.cpp:156] Memory required for data: 1345864224
I0403 15:51:54.284551 11583 layer_factory.hpp:77] Creating layer pool5/7x7_s1
I0403 15:51:54.284569 11583 net.cpp:91] Creating Layer pool5/7x7_s1
I0403 15:51:54.284585 11583 net.cpp:425] pool5/7x7_s1 <- inception_5b/output
I0403 15:51:54.284606 11583 net.cpp:399] pool5/7x7_s1 -> pool5/7x7_s1
I0403 15:51:54.284826 11583 net.cpp:141] Setting up pool5/7x7_s1
I0403 15:51:54.284852 11583 net.cpp:148] Top shape: 24 1024 1 1 (24576)
I0403 15:51:54.284865 11583 net.cpp:156] Memory required for data: 1345962528
I0403 15:51:54.284880 11583 layer_factory.hpp:77] Creating layer pool5/drop_7x7_s1
I0403 15:51:54.284900 11583 net.cpp:91] Creating Layer pool5/drop_7x7_s1
I0403 15:51:54.284917 11583 net.cpp:425] pool5/drop_7x7_s1 <- pool5/7x7_s1
I0403 15:51:54.284935 11583 net.cpp:386] pool5/drop_7x7_s1 -> pool5/7x7_s1 (in-place)
I0403 15:51:54.284993 11583 net.cpp:141] Setting up pool5/drop_7x7_s1
I0403 15:51:54.285017 11583 net.cpp:148] Top shape: 24 1024 1 1 (24576)
I0403 15:51:54.285032 11583 net.cpp:156] Memory required for data: 1346060832
I0403 15:51:54.285046 11583 layer_factory.hpp:77] Creating layer loss3/classifier_plantvillage
I0403 15:51:54.285065 11583 net.cpp:91] Creating Layer loss3/classifier_plantvillage
I0403 15:51:54.285082 11583 net.cpp:425] loss3/classifier_plantvillage <- pool5/7x7_s1
I0403 15:51:54.285104 11583 net.cpp:399] loss3/classifier_plantvillage -> loss3/classifier_plantvillage
I0403 15:51:54.285542 11583 net.cpp:141] Setting up loss3/classifier_plantvillage
I0403 15:51:54.285565 11583 net.cpp:148] Top shape: 24 38 (912)
I0403 15:51:54.285580 11583 net.cpp:156] Memory required for data: 1346064480
I0403 15:51:54.285599 11583 layer_factory.hpp:77] Creating layer loss3/classifier_plantvillage_loss3/classifier_plantvillage_0_split
I0403 15:51:54.285617 11583 net.cpp:91] Creating Layer loss3/classifier_plantvillage_loss3/classifier_plantvillage_0_split
I0403 15:51:54.285634 11583 net.cpp:425] loss3/classifier_plantvillage_loss3/classifier_plantvillage_0_split <- loss3/classifier_plantvillage
I0403 15:51:54.285655 11583 net.cpp:399] loss3/classifier_plantvillage_loss3/classifier_plantvillage_0_split -> loss3/classifier_plantvillage_loss3/classifier_plantvillage_0_split_0
I0403 15:51:54.285676 11583 net.cpp:399] loss3/classifier_plantvillage_loss3/classifier_plantvillage_0_split -> loss3/classifier_plantvillage_loss3/classifier_plantvillage_0_split_1
I0403 15:51:54.285697 11583 net.cpp:399] loss3/classifier_plantvillage_loss3/classifier_plantvillage_0_split -> loss3/classifier_plantvillage_loss3/classifier_plantvillage_0_split_2
I0403 15:51:54.285718 11583 net.cpp:399] loss3/classifier_plantvillage_loss3/classifier_plantvillage_0_split -> loss3/classifier_plantvillage_loss3/classifier_plantvillage_0_split_3
I0403 15:51:54.285820 11583 net.cpp:141] Setting up loss3/classifier_plantvillage_loss3/classifier_plantvillage_0_split
I0403 15:51:54.285843 11583 net.cpp:148] Top shape: 24 38 (912)
I0403 15:51:54.285861 11583 net.cpp:148] Top shape: 24 38 (912)
I0403 15:51:54.285876 11583 net.cpp:148] Top shape: 24 38 (912)
I0403 15:51:54.285890 11583 net.cpp:148] Top shape: 24 38 (912)
I0403 15:51:54.285904 11583 net.cpp:156] Memory required for data: 1346079072
I0403 15:51:54.285919 11583 layer_factory.hpp:77] Creating layer loss1/loss
I0403 15:51:54.285941 11583 net.cpp:91] Creating Layer loss1/loss
I0403 15:51:54.285964 11583 net.cpp:425] loss1/loss <- loss1/classifier_plantvillage_loss1/classifier_plantvillage_0_split_0
I0403 15:51:54.285996 11583 net.cpp:425] loss1/loss <- label_data_1_split_0
…
