…
I0403 15:36:43.912881 10705 net.cpp:313] The NetState phase (1) differed from the phase (0) specified by a rule in layer data
I0403 15:36:43.914085 10705 net.cpp:49] Initializing net from parameters: 
state {
  phase: TEST
}
layer {
  name: "data"
  type: "Data"
  top: "data"
  top: "label"
  include {
    phase: TEST
  }
  transform_param {
    mirror: false
    crop_size: 224
    mean_file: "/home/mohanty/data/final_dataset/lmdb/segmented-80-20/mean.binaryproto"
  }
  data_param {
    source: "/home/mohanty/data/final_dataset/lmdb/segmented-80-20/test_db"
    batch_size: 24
    backend: LMDB
  }
}
layer {
  name: "conv1/7x7_s2"
  type: "Convolution"
  bottom: "data"
  top: "conv1/7x7_s2"
  param {
    lr_mult: 1
    decay_mult: 1
  }
  param {
    lr_mult: 2
    decay_mult: 0
  }
  convolution_param {
    num_output: 64
    pad: 3
    kernel_size: 7
    stride: 2
    weight_filler {
      type: "xavier"
      std: 0.1
    }
    bias_filler {
      type: "constant"
      value: 0.2
    }
  }
}
layer {
  name: "conv1/relu_7x7"
  type: "ReLU"
  bottom: "conv1/7x7_s2"
  top: "conv1/7x7_s2"
}
layer {
  name: "pool1/3x3_s2"
  type: "Pooling"
  bottom: "conv1/7x7_s2"
  top: "pool1/3x3_s2"
  pooling_param {
    pool: MAX
    kernel_size: 3
    stride: 2
  }
}
layer {
  name: "pool1/norm1"
  type: "LRN"
  bottom: "pool1/3x3_s2"
  top: "pool1/norm1"
  lrn_param {
    local_size: 5
    alpha: 0.0001
    beta: 0.75
  }
}
layer {
  name: "conv2/3x3_reduce"
  type: "Convolution"
  bottom: "pool1/norm1"
  top: "conv2/3x3_reduce"
  param {
    lr_mult: 1
    decay_mult: 1
  }
  param {
    lr_mult: 2
    decay_mult: 0
  }
  convolution_param {
    num_output: 64
    kernel_size: 1
    weight_filler {
      type: "xavier"
      std: 0.1
    }
    bias_filler {
      type: "constant"
      value: 0.2
    }
  }
}
layer {
  name: "conv2/relu_3x3_reduce"
  type: "ReLU"
  bottom: "conv2/3x3_reduce"
  top: "conv2/3x3_reduce"
}
layer {
  name: "conv2/3x3"
  type: "Convolution"
  bottom: "conv2/3x3_reduce"
  top: "conv2/3x3"
  param {
    lr_mult: 1
    decay_mult: 1
  }
  param {
    lr_mult: 2
    decay_mult: 0
  }
  convolution_param {
    num_output: 192
    pad: 1
    kernel_size: 3
    weight_filler {
      type: "xavier"
      std: 0.03
    }
    bias_filler {
      type: "constant"
      value: 0.2
    }
  }
}
layer {
  name: "conv2/relu_3x3"
  type: "ReLU"
  bottom: "conv2/3x3"
  top: "conv2/3x3"
}
layer {
  name: "conv2/norm2"
  type: "LRN"
  bottom: "conv2/3x3"
  top: "conv2/norm2"
  lrn_param {
    local_size: 5
    alpha: 0.0001
    beta: 0.75
  }
}
layer {
  name: "pool2/3x3_s2"
  type: "Pooling"
  bottom: "conv2/norm2"
  top: "pool2/3x3_s2"
  pooling_param {
    pool: MAX
    kernel_size: 3
    stride: 2
  }
}
layer {
  name: "inception_3a/1x1"
  type: "Convolution"
  bottom: "pool2/3x3_s2"
  top: "inception_3a/1x1"
  param {
    lr_mult: 1
    decay_mult: 1
  }
  param {
    lr_mult: 2
    decay_mult: 0
  }
  convolution_param {
    num_output: 64
    kernel_size: 1
    weight_filler {
      type: "xavier"
      std: 0.03
    }
    bias_filler {
      type: "constant"
      value: 0.2
    }
  }
}
layer {
  name: "inception_3a/relu_1x1"
  type: "ReLU"
  bottom: "inception_3a/1x1"
  top: "inception_3a/1x1"
}
layer {
  name: "inception_3a/3x3_reduce"
  type: "Convolution"
  bottom: "pool2/3x3_s2"
  top: "inception_3a/3x3_reduce"
  param {
    lr_mult: 1
    decay_mult: 1
  }
  param {
    lr_mult: 2
    decay_mult: 0
  }
  convolution_param {
    num_output: 96
    kernel_size: 1
    weight_filler {
      type: "xavier"
      std: 0.09
    }
    bias_filler {
      type: "constant"
      value: 0.2
    }
  }
}
layer {
  name: "inception_3a/relu_3x3_reduce"
  type: "ReLU"
  bottom: "inception_3a/3x3_reduce"
  top: "inception_3a/3x3_reduce"
}
layer {
  name: "inception_3a/3x3"
  type: "Convolution"
  bottom: "inception_3a/3x3_reduce"
  top: "inception_3a/3x3"
  param {
    lr_mult: 1
    decay_mult: 1
  }
  param {
    lr_mult: 2
    decay_mult: 0
  }
  convolution_param {
    num_output: 128
    pad: 1
    kernel_size: 3
    weight_filler {
      type: "xavier"
      std: 0.03
    }
    bias_filler {
      type: "constant"
      value: 0.2
    }
  }
}
layer {
  name: "inception_3a/relu_3x3"
  type: "ReLU"
  bottom: "inception_3a/3x3"
  top: "inception_3a/3x3"
}
layer {
  name: "inception_3a/5x5_reduce"
  type: "Convolution"
  bottom: "pool2/3x3_s2"
  top: "inception_3a/5x5_reduce"
  param {
    lr_mult: 1
    decay_mult: 1
  }
  param {
    lr_mult: 2
    decay_mult: 0
  }
  convolution_param {
    num_output: 16
    kernel_size: 1
    weight_filler {
      type: "xavier"
      std: 0.2
    }
    bias_filler {
      type: "constant"
      value: 0.2
    }
  }
}
layer {
  name: "inception_3a/relu_5x5_reduce"
  type: "ReLU"
  bottom: "inception_3a/5x5_reduce"
  top: "inception_3a/5x5_reduce"
}
layer {
  name: "inception_3a/5x5"
  type: "Convolution"
  bottom: "inception_3a/5x5_reduce"
  top: "inception_3a/5x5"
  param {
    lr_mult: 1
    decay_mult: 1
  }
  param {
    lr_mult: 2
    decay_mult: 0
  }
  convolution_param {
    num_output: 32
    pad: 2
    kernel_size: 5
    weight_filler {
      type: "xavier"
      std: 0.03
    }
    bias_filler {
      type: "constant"
      value: 0.2
    }
  }
}
layer {
  name: "inception_3a/relu_5x5"
  type: "ReLU"
  bottom: "inception_3a/5x5"
  top: "inception_3a/5x5"
}
layer {
  name: "inception_3a/pool"
  type: "Pooling"
  bottom: "pool2/3x3_s2"
  top: "inception_3a/pool"
  pooling_param {
    pool: MAX
    kernel_size: 3
    stride: 1
    pad: 1
  }
}
layer {
  name: "inception_3a/pool_proj"
  type: "Convolution"
  bottom: "inception_3a/pool"
  top: "inception_3a/pool_proj"
  param {
    lr_mult: 1
    decay_mult: 1
  }
  param {
    lr_mult: 2
    decay_mult: 0
  }
  convolution_param {
    num_output: 32
    kernel_size: 1
    weight_filler {
      type: "xavier"
      std: 0.1
    }
    bias_filler {
      type: "constant"
      value: 0.2
    }
  }
}
layer {
  name: "inception_3a/relu_pool_proj"
  type: "ReLU"
  bottom: "inception_3a/pool_proj"
  top: "inception_3a/pool_proj"
}
layer {
  name: "inception_3a/output"
  type: "Concat"
  bottom: "inception_3a/1x1"
  bottom: "inception_3a/3x3"
  bottom: "inception_3a/5x5"
  bottom: "inception_3a/pool_proj"
  top: "inception_3a/output"
}
layer {
  name: "inception_3b/1x1"
  type: "Convolution"
  bottom: "inception_3a/output"
  top: "inception_3b/1x1"
  param {
    lr_mult: 1
    decay_mult: 1
  }
  param {
    lr_mult: 2
    decay_mult: 0
  }
  convolution_param {
    num_output: 128
    kernel_size: 1
    weight_filler {
      type: "xavier"
      std: 0.03
    }
    bias_filler {
      type: "constant"
      value: 0.2
    }
  }
}
layer {
  name: "inception_3b/relu_1x1"
  type: "ReLU"
  bottom: "inception_3b/1x1"
  top: "inception_3b/1x1"
}
layer {
  name: "inception_3b/3x3_reduce"
  type: "Convolution"
  bottom: "inception_3a/output"
  top: "inception_3b/3x3_reduce"
  param {
    lr_mult: 1
    decay_mult: 1
  }
  param {
    lr_mult: 2
    decay_mult: 0
  }
  convolution_param {
    num_output: 128
    kernel_size: 1
    weight_filler {
      type: "xavier"
      std: 0.09
    }
    bias_filler {
      type: "constant"
      value: 0.2
    }
  }
}
layer {
  name: "inception_3b/relu_3x3_reduce"
  type: "ReLU"
  bottom: "inception_3b/3x3_reduce"
  top: "inception_3b/3x3_reduce"
}
layer {
  name: "inception_3b/3x3"
  type: "Convolution"
  bottom: "inception_3b/3x3_reduce"
  top: "inception_3b/3x3"
  param {
    lr_mult: 1
    decay_mult: 1
  }
  param {
    lr_mult: 2
    decay_mult: 0
  }
  convolution_param {
    num_output: 192
    pad: 1
    kernel_size: 3
    weight_filler {
      type: "xavier"
      std: 0.03
    }
    bias_filler {
      type: "constant"
      value: 0.2
    }
  }
}
layer {
  name: "inception_3b/relu_3x3"
  type: "ReLU"
  bottom: "inception_3b/3x3"
  top: "inception_3b/3x3"
}
layer {
  name: "inception_3b/5x5_reduce"
  type: "Convolution"
  bottom: "inception_3a/output"
  top: "inception_3b/5x5_reduce"
  param {
    lr_mult: 1
    decay_mult: 1
  }
  param {
    lr_mult: 2
    decay_mult: 0
  }
  convolution_param {
    num_output: 32
    kernel_size: 1
    weight_filler {
      type: "xavier"
      std: 0.2
    }
    bias_filler {
      type: "constant"
      value: 0.2
    }
  }
}
layer {
  name: "inception_3b/relu_5x5_reduce"
  type: "ReLU"
  bottom: "inception_3b/5x5_reduce"
  top: "inception_3b/5x5_reduce"
}
layer {
  name: "inception_3b/5x5"
  type: "Convolution"
  bottom: "inception_3b/5x5_reduce"
  top: "inception_3b/5x5"
  param {
    lr_mult: 1
    decay_mult: 1
  }
  param {
    lr_mult: 2
    decay_mult: 0
  }
  convolution_param {
    num_output: 96
    pad: 2
    kernel_size: 5
    weight_filler {
      type: "xavier"
      std: 0.03
    }
    bias_filler {
      type: "constant"
      value: 0.2
    }
  }
}
layer {
  name: "inception_3b/relu_5x5"
  type: "ReLU"
  bottom: "inception_3b/5x5"
  top: "inception_3b/5x5"
}
layer {
  name: "inception_3b/pool"
  type: "Pooling"
  bottom: "inception_3a/output"
  top: "inception_3b/pool"
  pooling_param {
    pool: MAX
    kernel_size: 3
    stride: 1
    pad: 1
  }
}
layer {
  name: "inception_3b/pool_proj"
  type: "Convolution"
  bottom: "inception_3b/pool"
  top: "inception_3b/pool_proj"
  param {
    lr_mult: 1
    decay_mult: 1
  }
  param {
    lr_mult: 2
    decay_mult: 0
  }
  convolution_param {
    num_output: 64
    kernel_size: 1
    weight_filler {
      type: "xavier"
      std: 0.1
    }
    bias_filler {
      type: "constant"
      value: 0.2
    }
  }
}
layer {
  name: "inception_3b/relu_pool_proj"
  type: "ReLU"
  bottom: "inception_3b/pool_proj"
  top: "inception_3b/pool_proj"
}
layer {
  name: "inception_3b/output"
  type: "Concat"
  bottom: "inception_3b/1x1"
  bottom: "inception_3b/3x3"
  bottom: "inception_3b/5x5"
  bottom: "inception_3b/pool_proj"
  top: "inception_3b/output"
}
layer {
  name: "pool3/3x3_s2"
  type: "Pooling"
  bottom: "inception_3b/output"
  top: "pool3/3x3_s2"
  pooling_param {
    pool: MAX
    kernel_size: 3
    stride: 2
  }
}
layer {
  name: "inception_4a/1x1"
  type: "Convolution"
  bottom: "pool3/3x3_s2"
  top: "inception_4a/1x1"
  param {
    lr_mult: 1
    decay_mult: 1
  }
  param {
    lr_mult: 2
    decay_mult: 0
  }
  convolution_param {
    num_output: 192
    kernel_size: 1
    weight_filler {
      type: "xavier"
      std: 0.03
    }
    bias_filler {
      type: "constant"
      value: 0.2
    }
  }
}
layer {
  name: "inception_4a/relu_1x1"
  type: "ReLU"
  bottom: "inception_4a/1x1"
  top: "inception_4a/1x1"
}
layer {
  name: "inception_4a/3x3_reduce"
  type: "Convolution"
  bottom: "pool3/3x3_s2"
  top: "inception_4a/3x3_reduce"
  param {
    lr_mult: 1
    decay_mult: 1
  }
  param {
    lr_mult: 2
    decay_mult: 0
  }
  convolution_param {
    num_output: 96
    kernel_size: 1
    weight_filler {
      type: "xavier"
      std: 0.09
    }
    bias_filler {
      type: "constant"
      value: 0.2
    }
  }
}
layer {
  name: "inception_4a/relu_3x3_reduce"
  type: "ReLU"
  bottom: "inception_4a/3x3_reduce"
  top: "inception_4a/3x3_reduce"
}
layer {
  name: "inception_4a/3x3"
  type: "Convolution"
  bottom: "inception_4a/3x3_reduce"
  top: "inception_4a/3x3"
  param {
    lr_mult: 1
    decay_mult: 1
  }
  param {
    lr_mult: 2
    decay_mult: 0
  }
  convolution_param {
    num_output: 208
    pad: 1
    kernel_size: 3
    weight_filler {
      type: "xavier"
      std: 0.03
    }
    bias_filler {
      type: "constant"
      value: 0.2
    }
  }
}
layer {
  name: "inception_4a/relu_3x3"
  type: "ReLU"
  bottom: "inception_4a/3x3"
  top: "inception_4a/3x3"
}
layer {
  name: "inception_4a/5x5_reduce"
  type: "Convolution"
  bottom: "pool3/3x3_s2"
  top: "inception_4a/5x5_reduce"
  param {
    lr_mult: 1
    decay_mult: 1
  }
  param {
    lr_mult: 2
    decay_mult: 0
  }
  convolution_param {
    num_output: 16
    kernel_size: 1
    weight_filler {
      type: "xavier"
      std: 0.2
    }
    bias_filler {
      type: "constant"
      value: 0.2
    }
  }
}
layer {
  name: "inception_4a/relu_5x5_reduce"
  type: "ReLU"
  bottom: "inception_4a/5x5_reduce"
  top: "inception_4a/5x5_reduce"
}
layer {
  name: "inception_4a/5x5"
  type: "Convolution"
  bottom: "inception_4a/5x5_reduce"
  top: "inception_4a/5x5"
  param {
    lr_mult: 1
    decay_mult: 1
  }
  param {
    lr_mult: 2
    decay_mult: 0
  }
  convolution_param {
    num_output: 48
    pad: 2
    kernel_size: 5
    weight_filler {
      type: "xavier"
      std: 0.03
    }
    bias_filler {
      type: "constant"
      value: 0.2
    }
  }
}
layer {
  name: "inception_4a/relu_5x5"
  type: "ReLU"
  bottom: "inception_4a/5x5"
  top: "inception_4a/5x5"
}
layer {
  name: "inception_4a/pool"
  type: "Pooling"
  bottom: "pool3/3x3_s2"
  top: "inception_4a/pool"
  pooling_param {
    pool: MAX
    kernel_size: 3
    stride: 1
    pad: 1
  }
}
layer {
  name: "inception_4a/pool_proj"
  type: "Convolution"
  bottom: "inception_4a/pool"
  top: "inception_4a/pool_proj"
  param {
    lr_mult: 1
    decay_mult: 1
  }
  param {
    lr_mult: 2
    decay_mult: 0
  }
  convolution_param {
    num_output: 64
    kernel_size: 1
    weight_filler {
      type: "xavier"
      std: 0.1
    }
    bias_filler {
      type: "constant"
      value: 0.2
    }
  }
}
layer {
  name: "inception_4a/relu_pool_proj"
  type: "ReLU"
  bottom: "inception_4a/pool_proj"
  top: "inception_4a/pool_proj"
}
layer {
  name: "inception_4a/output"
  type: "Concat"
  bottom: "inception_4a/1x1"
  bottom: "inception_4a/3x3"
  bottom: "inception_4a/5x5"
  bottom: "inception_4a/pool_proj"
  top: "inception_4a/output"
}
layer {
  name: "loss1/ave_pool"
  type: "Pooling"
  bottom: "inception_4a/output"
  top: "loss1/ave_pool"
  pooling_param {
    pool: AVE
    kernel_size: 5
    stride: 3
  }
}
layer {
  name: "loss1/conv"
  type: "Convolution"
  bottom: "loss1/ave_pool"
  top: "loss1/conv"
  param {
    lr_mult: 1
    decay_mult: 1
  }
  param {
    lr_mult: 2
    decay_mult: 0
  }
  convolution_param {
    num_output: 128
    kernel_size: 1
    weight_filler {
      type: "xavier"
      std: 0.08
    }
    bias_filler {
      type: "constant"
      value: 0.2
    }
  }
}
layer {
  name: "loss1/relu_conv"
  type: "ReLU"
  bottom: "loss1/conv"
  top: "loss1/conv"
}
layer {
  name: "loss1/fc"
  type: "InnerProduct"
  bottom: "loss1/conv"
  top: "loss1/fc"
  param {
    lr_mult: 1
    decay_mult: 1
  }
  param {
    lr_mult: 2
    decay_mult: 0
  }
  inner_product_param {
    num_output: 1024
    weight_filler {
      type: "xavier"
      std: 0.02
    }
    bias_filler {
      type: "constant"
      value: 0.2
    }
  }
}
layer {
  name: "loss1/relu_fc"
  type: "ReLU"
  bottom: "loss1/fc"
  top: "loss1/fc"
}
layer {
  name: "loss1/drop_fc"
  type: "Dropout"
  bottom: "loss1/fc"
  top: "loss1/fc"
  dropout_param {
    dropout_ratio: 0.7
  }
}
layer {
  name: "loss1/classifier_plantvillage"
  type: "InnerProduct"
  bottom: "loss1/fc"
  top: "loss1/classifier_plantvillage"
  param {
    lr_mult: 1
    decay_mult: 1
  }
  param {
    lr_mult: 2
    decay_mult: 0
  }
  inner_product_param {
    num_output: 38
    weight_filler {
      type: "xavier"
      std: 0.0009765625
    }
    bias_filler {
      type: "constant"
      value: 0
    }
  }
}
layer {
  name: "inception_4b/1x1"
  type: "Convolution"
  bottom: "inception_4a/output"
  top: "inception_4b/1x1"
  param {
    lr_mult: 1
    decay_mult: 1
  }
  param {
    lr_mult: 2
    decay_mult: 0
  }
  convolution_param {
    num_output: 160
    kernel_size: 1
    weight_filler {
      type: "xavier"
      std: 0.03
    }
    bias_filler {
      type: "constant"
      value: 0.2
    }
  }
}
layer {
  name: "inception_4b/relu_1x1"
  type: "ReLU"
  bottom: "inception_4b/1x1"
  top: "inception_4b/1x1"
}
layer {
  name: "inception_4b/3x3_reduce"
  type: "Convolution"
  bottom: "inception_4a/output"
  top: "inception_4b/3x3_reduce"
  param {
    lr_mult: 1
    decay_mult: 1
  }
  param {
    lr_mult: 2
    decay_mult: 0
  }
  convolution_param {
    num_output: 112
    kernel_size: 1
    weight_filler {
      type: "xavier"
      std: 0.09
    }
    bias_filler {
      type: "constant"
      value: 0.2
    }
  }
}
layer {
  name: "inception_4b/relu_3x3_reduce"
  type: "ReLU"
  bottom: "inception_4b/3x3_reduce"
  top: "inception_4b/3x3_reduce"
}
layer {
  name: "inception_4b/3x3"
  type: "Convolution"
  bottom: "inception_4b/3x3_reduce"
  top: "inception_4b/3x3"
  param {
    lr_mult: 1
    decay_mult: 1
  }
  param {
    lr_mult: 2
    decay_mult: 0
  }
  convolution_param {
    num_output: 224
    pad: 1
    kernel_size: 3
    weight_filler {
      type: "xavier"
      std: 0.03
    }
    bias_filler {
      type: "constant"
      value: 0.2
    }
  }
}
layer {
  name: "inception_4b/relu_3x3"
  type: "ReLU"
  bottom: "inception_4b/3x3"
  top: "inception_4b/3x3"
}
layer {
  name: "inception_4b/5x5_reduce"
  type: "Convolution"
  bottom: "inception_4a/output"
  top: "inception_4b/5x5_reduce"
  param {
    lr_mult: 1
    decay_mult: 1
  }
  param {
    lr_mult: 2
    decay_mult: 0
  }
  convolution_param {
    num_output: 24
    kernel_size: 1
    weight_filler {
      type: "xavier"
      std: 0.2
    }
    bias_filler {
      type: "constant"
      value: 0.2
    }
  }
}
layer {
  name: "inception_4b/relu_5x5_reduce"
  type: "ReLU"
  bottom: "inception_4b/5x5_reduce"
  top: "inception_4b/5x5_reduce"
}
layer {
  name: "inception_4b/5x5"
  type: "Convolution"
  bottom: "inception_4b/5x5_reduce"
  top: "inception_4b/5x5"
  param {
    lr_mult: 1
    decay_mult: 1
  }
  param {
    lr_mult: 2
    decay_mult: 0
  }
  convolution_param {
    num_output: 64
    pad: 2
    kernel_size: 5
    weight_filler {
      type: "xavier"
      std: 0.03
    }
    bias_filler {
      type: "constant"
      value: 0.2
    }
  }
}
layer {
  name: "inception_4b/relu_5x5"
  type: "ReLU"
  bottom: "inception_4b/5x5"
  top: "inception_4b/5x5"
}
layer {
  name: "inception_4b/pool"
  type: "Pooling"
  bottom: "inception_4a/output"
  top: "inception_4b/pool"
  pooling_param {
    pool: MAX
    kernel_size: 3
    stride: 1
    pad: 1
  }
}
layer {
  name: "inception_4b/pool_proj"
  type: "Convolution"
  bottom: "inception_4b/pool"
  top: "inception_4b/pool_proj"
  param {
    lr_mult: 1
    decay_mult: 1
  }
  param {
    lr_mult: 2
    decay_mult: 0
  }
  convolution_param {
    num_output: 64
    kernel_size: 1
    weight_filler {
      type: "xavier"
      std: 0.1
    }
    bias_filler {
      type: "constant"
      value: 0.2
    }
  }
}
layer {
  name: "inception_4b/relu_pool_proj"
  type: "ReLU"
  bottom: "inception_4b/pool_proj"
  top: "inception_4b/pool_proj"
}
layer {
  name: "inception_4b/output"
  type: "Concat"
  bottom: "inception_4b/1x1"
  bottom: "inception_4b/3x3"
  bottom: "inception_4b/5x5"
  bottom: "inception_4b/pool_proj"
  top: "inception_4b/output"
}
layer {
  name: "inception_4c/1x1"
  type: "Convolution"
  bottom: "inception_4b/output"
  top: "inception_4c/1x1"
  param {
    lr_mult: 1
    decay_mult: 1
  }
  param {
    lr_mult: 2
    decay_mult: 0
  }
  convolution_param {
    num_output: 128
    kernel_size: 1
    weight_filler {
      type: "xavier"
      std: 0.03
    }
    bias_filler {
      type: "constant"
      value: 0.2
    }
  }
}
layer {
  name: "inception_4c/relu_1x1"
  type: "ReLU"
  bottom: "inception_4c/1x1"
  top: "inception_4c/1x1"
}
layer {
  name: "inception_4c/3x3_reduce"
  type: "Convolution"
  bottom: "inception_4b/output"
  top: "inception_4c/3x3_reduce"
  param {
    lr_mult: 1
    decay_mult: 1
  }
  param {
    lr_mult: 2
    decay_mult: 0
  }
  convolution_param {
    num_output: 128
    kernel_size: 1
    weight_filler {
      type: "xavier"
      std: 0.09
    }
    bias_filler {
      type: "constant"
      value: 0.2
    }
  }
}
layer {
  name: "inception_4c/relu_3x3_reduce"
  type: "ReLU"
  bottom: "inception_4c/3x3_reduce"
  top: "inception_4c/3x3_reduce"
}
layer {
  name: "inception_4c/3x3"
  type: "Convolution"
  bottom: "inception_4c/3x3_reduce"
  top: "inception_4c/3x3"
  param {
    lr_mult: 1
    decay_mult: 1
  }
  param {
    lr_mult: 2
    decay_mult: 0
  }
  convolution_param {
    num_output: 256
    pad: 1
    kernel_size: 3
    weight_filler {
      type: "xavier"
      std: 0.03
    }
    bias_filler {
      type: "constant"
      value: 0.2
    }
  }
}
layer {
  name: "inception_4c/relu_3x3"
  type: "ReLU"
  bottom: "inception_4c/3x3"
  top: "inception_4c/3x3"
}
layer {
  name: "inception_4c/5x5_reduce"
  type: "Convolution"
  bottom: "inception_4b/output"
  top: "inception_4c/5x5_reduce"
  param {
    lr_mult: 1
    decay_mult: 1
  }
  param {
    lr_mult: 2
    decay_mult: 0
  }
  convolution_param {
    num_output: 24
    kernel_size: 1
    weight_filler {
      type: "xavier"
      std: 0.2
    }
    bias_filler {
      type: "constant"
      value: 0.2
    }
  }
}
layer {
  name: "inception_4c/relu_5x5_reduce"
  type: "ReLU"
  bottom: "inception_4c/5x5_reduce"
  top: "inception_4c/5x5_reduce"
}
layer {
  name: "inception_4c/5x5"
  type: "Convolution"
  bottom: "inception_4c/5x5_reduce"
  top: "inception_4c/5x5"
  param {
    lr_mult: 1
    decay_mult: 1
  }
  param {
    lr_mult: 2
    decay_mult: 0
  }
  convolution_param {
    num_output: 64
    pad: 2
    kernel_size: 5
    weight_filler {
      type: "xavier"
      std: 0.03
    }
    bias_filler {
      type: "constant"
      value: 0.2
    }
  }
}
layer {
  name: "inception_4c/relu_5x5"
  type: "ReLU"
  bottom: "inception_4c/5x5"
  top: "inception_4c/5x5"
}
layer {
  name: "inception_4c/pool"
  type: "Pooling"
  bottom: "inception_4b/output"
  top: "inception_4c/pool"
  pooling_param {
    pool: MAX
    kernel_size: 3
    stride: 1
    pad: 1
  }
}
layer {
  name: "inception_4c/pool_proj"
  type: "Convolution"
  bottom: "inception_4c/pool"
  top: "inception_4c/pool_proj"
  param {
    lr_mult: 1
    decay_mult: 1
  }
  param {
    lr_mult: 2
    decay_mult: 0
  }
  convolution_param {
    num_output: 64
    kernel_size: 1
    weight_filler {
      type: "xavier"
      std: 0.1
    }
    bias_filler {
      type: "constant"
      value: 0.2
    }
  }
}
layer {
  name: "inception_4c/relu_pool_proj"
  type: "ReLU"
  bottom: "inception_4c/pool_proj"
  top: "inception_4c/pool_proj"
}
layer {
  name: "inception_4c/output"
  type: "Concat"
  bottom: "inception_4c/1x1"
  bottom: "inception_4c/3x3"
  bottom: "inception_4c/5x5"
  bottom: "inception_4c/pool_proj"
  top: "inception_4c/output"
}
layer {
  name: "inception_4d/1x1"
  type: "Convolution"
  bottom: "inception_4c/output"
  top: "inception_4d/1x1"
  param {
    lr_mult: 1
    decay_mult: 1
  }
  param {
    lr_mult: 2
    decay_mult: 0
  }
  convolution_param {
    num_output: 112
    kernel_size: 1
    weight_filler {
      type: "xavier"
      std: 0.03
    }
    bias_filler {
      type: "constant"
      value: 0.2
    }
  }
}
layer {
  name: "inception_4d/relu_1x1"
  type: "ReLU"
  bottom: "inception_4d/1x1"
  top: "inception_4d/1x1"
}
layer {
  name: "inception_4d/3x3_reduce"
  type: "Convolution"
  bottom: "inception_4c/output"
  top: "inception_4d/3x3_reduce"
  param {
    lr_mult: 1
    decay_mult: 1
  }
  param {
    lr_mult: 2
    decay_mult: 0
  }
  convolution_param {
    num_output: 144
    kernel_size: 1
    weight_filler {
      type: "xavier"
      std: 0.09
    }
    bias_filler {
      type: "constant"
      value: 0.2
    }
  }
}
layer {
  name: "inception_4d/relu_3x3_reduce"
  type: "ReLU"
  bottom: "inception_4d/3x3_reduce"
  top: "inception_4d/3x3_reduce"
}
layer {
  name: "inception_4d/3x3"
  type: "Convolution"
  bottom: "inception_4d/3x3_reduce"
  top: "inception_4d/3x3"
  param {
    lr_mult: 1
    decay_mult: 1
  }
  param {
    lr_mult: 2
    decay_mult: 0
  }
  convolution_param {
    num_output: 288
    pad: 1
    kernel_size: 3
    weight_filler {
      type: "xavier"
      std: 0.03
    }
    bias_filler {
      type: "constant"
      value: 0.2
    }
  }
}
layer {
  name: "inception_4d/relu_3x3"
  type: "ReLU"
  bottom: "inception_4d/3x3"
  top: "inception_4d/3x3"
}
layer {
  name: "inception_4d/5x5_reduce"
  type: "Convolution"
  bottom: "inception_4c/output"
  top: "inception_4d/5x5_reduce"
  param {
    lr_mult: 1
    decay_mult: 1
  }
  param {
    lr_mult: 2
    decay_mult: 0
  }
  convolution_param {
    num_output: 32
    kernel_size: 1
    weight_filler {
      type: "xavier"
      std: 0.2
    }
    bias_filler {
      type: "constant"
      value: 0.2
    }
  }
}
layer {
  name: "inception_4d/relu_5x5_reduce"
  type: "ReLU"
  bottom: "inception_4d/5x5_reduce"
  top: "inception_4d/5x5_reduce"
}
layer {
  name: "inception_4d/5x5"
  type: "Convolution"
  bottom: "inception_4d/5x5_reduce"
  top: "inception_4d/5x5"
  param {
    lr_mult: 1
    decay_mult: 1
  }
  param {
    lr_mult: 2
    decay_mult: 0
  }
  convolution_param {
    num_output: 64
    pad: 2
    kernel_size: 5
    weight_filler {
      type: "xavier"
      std: 0.03
    }
    bias_filler {
      type: "constant"
      value: 0.2
    }
  }
}
layer {
  name: "inception_4d/relu_5x5"
  type: "ReLU"
  bottom: "inception_4d/5x5"
  top: "inception_4d/5x5"
}
layer {
  name: "inception_4d/pool"
  type: "Pooling"
  bottom: "inception_4c/output"
  top: "inception_4d/pool"
  pooling_param {
    pool: MAX
    kernel_size: 3
    stride: 1
    pad: 1
  }
}
layer {
  name: "inception_4d/pool_proj"
  type: "Convolution"
  bottom: "inception_4d/pool"
  top: "inception_4d/pool_proj"
  param {
    lr_mult: 1
    decay_mult: 1
  }
  param {
    lr_mult: 2
    decay_mult: 0
  }
  convolution_param {
    num_output: 64
    kernel_size: 1
    weight_filler {
      type: "xavier"
      std: 0.1
    }
    bias_filler {
      type: "constant"
      value: 0.2
    }
  }
}
layer {
  name: "inception_4d/relu_pool_proj"
  type: "ReLU"
  bottom: "inception_4d/pool_proj"
  top: "inception_4d/pool_proj"
}
layer {
  name: "inception_4d/output"
  type: "Concat"
  bottom: "inception_4d/1x1"
  bottom: "inception_4d/3x3"
  bottom: "inception_4d/5x5"
  bottom: "inception_4d/pool_proj"
  top: "inception_4d/output"
}
layer {
  name: "loss2/ave_pool"
  type: "Pooling"
  bottom: "inception_4d/output"
  top: "loss2/ave_pool"
  pooling_param {
    pool: AVE
    kernel_size: 5
    stride: 3
  }
}
layer {
  name: "loss2/conv"
  type: "Convolution"
  bottom: "loss2/ave_pool"
  top: "loss2/conv"
  param {
    lr_mult: 1
    decay_mult: 1
  }
  param {
    lr_mult: 2
    decay_mult: 0
  }
  convolution_param {
    num_output: 128
    kernel_size: 1
    weight_filler {
      type: "xavier"
      std: 0.08
    }
    bias_filler {
      type: "constant"
      value: 0.2
    }
  }
}
layer {
  name: "loss2/relu_conv"
  type: "ReLU"
  bottom: "loss2/conv"
  top: "loss2/conv"
}
layer {
  name: "loss2/fc"
  type: "InnerProduct"
  bottom: "loss2/conv"
  top: "loss2/fc"
  param {
    lr_mult: 1
    decay_mult: 1
  }
  param {
    lr_mult: 2
    decay_mult: 0
  }
  inner_product_param {
    num_output: 1024
    weight_filler {
      type: "xavier"
      std: 0.02
    }
    bias_filler {
      type: "constant"
      value: 0.2
    }
  }
}
layer {
  name: "loss2/relu_fc"
  type: "ReLU"
  bottom: "loss2/fc"
  top: "loss2/fc"
}
layer {
  name: "loss2/drop_fc"
  type: "Dropout"
  bottom: "loss2/fc"
  top: "loss2/fc"
  dropout_param {
    dropout_ratio: 0.7
  }
}
layer {
  name: "loss2/classifier_plantvillage"
  type: "InnerProduct"
  bottom: "loss2/fc"
  top: "loss2/classifier_plantvillage"
  param {
    lr_mult: 1
    decay_mult: 1
  }
  param {
    lr_mult: 2
    decay_mult: 0
  }
  inner_product_param {
    num_output: 38
    weight_filler {
      type: "xavier"
      std: 0.0009765625
    }
    bias_filler {
      type: "constant"
      value: 0
    }
  }
}
layer {
  name: "inception_4e/1x1"
  type: "Convolution"
  bottom: "inception_4d/output"
  top: "inception_4e/1x1"
  param {
    lr_mult: 1
    decay_mult: 1
  }
  param {
    lr_mult: 2
    decay_mult: 0
  }
  convolution_param {
    num_output: 256
    kernel_size: 1
    weight_filler {
      type: "xavier"
      std: 0.03
    }
    bias_filler {
      type: "constant"
      value: 0.2
    }
  }
}
layer {
  name: "inception_4e/relu_1x1"
  type: "ReLU"
  bottom: "inception_4e/1x1"
  top: "inception_4e/1x1"
}
layer {
  name: "inception_4e/3x3_reduce"
  type: "Convolution"
  bottom: "inception_4d/output"
  top: "inception_4e/3x3_reduce"
  param {
    lr_mult: 1
    decay_mult: 1
  }
  param {
    lr_mult: 2
    decay_mult: 0
  }
  convolution_param {
    num_output: 160
    kernel_size: 1
    weight_filler {
      type: "xavier"
      std: 0.09
    }
    bias_filler {
      type: "constant"
      value: 0.2
    }
  }
}
layer {
  name: "inception_4e/relu_3x3_reduce"
  type: "ReLU"
  bottom: "inception_4e/3x3_reduce"
  top: "inception_4e/3x3_reduce"
}
layer {
  name: "inception_4e/3x3"
  type: "Convolution"
  bottom: "inception_4e/3x3_reduce"
  top: "inception_4e/3x3"
  param {
    lr_mult: 1
    decay_mult: 1
  }
  param {
    lr_mult: 2
    decay_mult: 0
  }
  convolution_param {
    num_output: 320
    pad: 1
    kernel_size: 3
    weight_filler {
      type: "xavier"
      std: 0.03
    }
    bias_filler {
      type: "constant"
      value: 0.2
    }
  }
}
layer {
  name: "inception_4e/relu_3x3"
  type: "ReLU"
  bottom: "inception_4e/3x3"
  top: "inception_4e/3x3"
}
layer {
  name: "inception_4e/5x5_reduce"
  type: "Convolution"
  bottom: "inception_4d/output"
  top: "inception_4e/5x5_reduce"
  param {
    lr_mult: 1
    decay_mult: 1
  }
  param {
    lr_mult: 2
    decay_mult: 0
  }
  convolution_param {
    num_output: 32
    kernel_size: 1
    weight_filler {
      type: "xavier"
      std: 0.2
    }
    bias_filler {
      type: "constant"
      value: 0.2
    }
  }
}
layer {
  name: "inception_4e/relu_5x5_reduce"
  type: "ReLU"
  bottom: "inception_4e/5x5_reduce"
  top: "inception_4e/5x5_reduce"
}
layer {
  name: "inception_4e/5x5"
  type: "Convolution"
  bottom: "inception_4e/5x5_reduce"
  top: "inception_4e/
I0403 15:36:43.915315 10705 layer_factory.hpp:77] Creating layer data
I0403 15:36:43.915904 10705 net.cpp:91] Creating Layer data
I0403 15:36:43.915936 10705 net.cpp:399] data -> data
I0403 15:36:43.915992 10705 net.cpp:399] data -> label
I0403 15:36:43.916029 10705 data_transformer.cpp:25] Loading mean file from: /home/mohanty/data/final_dataset/lmdb/segmented-80-20/mean.binaryproto
I0403 15:36:43.919026 10707 db_lmdb.cpp:38] Opened lmdb /home/mohanty/data/final_dataset/lmdb/segmented-80-20/test_db
I0403 15:36:43.928930 10705 data_layer.cpp:41] output data size: 24,3,224,224
I0403 15:36:43.956073 10705 net.cpp:141] Setting up data
I0403 15:36:43.956152 10705 net.cpp:148] Top shape: 24 3 224 224 (3612672)
I0403 15:36:43.956176 10705 net.cpp:148] Top shape: 24 (24)
I0403 15:36:43.956192 10705 net.cpp:156] Memory required for data: 14450784
I0403 15:36:43.956220 10705 layer_factory.hpp:77] Creating layer label_data_1_split
I0403 15:36:43.956248 10705 net.cpp:91] Creating Layer label_data_1_split
I0403 15:36:43.956267 10705 net.cpp:425] label_data_1_split <- label
I0403 15:36:43.956300 10705 net.cpp:399] label_data_1_split -> label_data_1_split_0
I0403 15:36:43.956328 10705 net.cpp:399] label_data_1_split -> label_data_1_split_1
I0403 15:36:43.956351 10705 net.cpp:399] label_data_1_split -> label_data_1_split_2
I0403 15:36:43.956373 10705 net.cpp:399] label_data_1_split -> label_data_1_split_3
I0403 15:36:43.956394 10705 net.cpp:399] label_data_1_split -> label_data_1_split_4
I0403 15:36:43.956414 10705 net.cpp:399] label_data_1_split -> label_data_1_split_5
I0403 15:36:43.956436 10705 net.cpp:399] label_data_1_split -> label_data_1_split_6
I0403 15:36:43.956459 10705 net.cpp:399] label_data_1_split -> label_data_1_split_7
I0403 15:36:43.956478 10705 net.cpp:399] label_data_1_split -> label_data_1_split_8
I0403 15:36:43.956498 10705 net.cpp:399] label_data_1_split -> label_data_1_split_9
I0403 15:36:43.956617 10705 net.cpp:141] Setting up label_data_1_split
I0403 15:36:43.956642 10705 net.cpp:148] Top shape: 24 (24)
I0403 15:36:43.956660 10705 net.cpp:148] Top shape: 24 (24)
I0403 15:36:43.956676 10705 net.cpp:148] Top shape: 24 (24)
I0403 15:36:43.956692 10705 net.cpp:148] Top shape: 24 (24)
I0403 15:36:43.956709 10705 net.cpp:148] Top shape: 24 (24)
I0403 15:36:43.956725 10705 net.cpp:148] Top shape: 24 (24)
I0403 15:36:43.956742 10705 net.cpp:148] Top shape: 24 (24)
I0403 15:36:43.956758 10705 net.cpp:148] Top shape: 24 (24)
I0403 15:36:43.956773 10705 net.cpp:148] Top shape: 24 (24)
I0403 15:36:43.956789 10705 net.cpp:148] Top shape: 24 (24)
I0403 15:36:43.956827 10705 net.cpp:156] Memory required for data: 14451744
I0403 15:36:43.956845 10705 layer_factory.hpp:77] Creating layer conv1/7x7_s2
I0403 15:36:43.956877 10705 net.cpp:91] Creating Layer conv1/7x7_s2
I0403 15:36:43.956897 10705 net.cpp:425] conv1/7x7_s2 <- data
I0403 15:36:43.956918 10705 net.cpp:399] conv1/7x7_s2 -> conv1/7x7_s2
I0403 15:36:44.093768 10705 net.cpp:141] Setting up conv1/7x7_s2
I0403 15:36:44.093858 10705 net.cpp:148] Top shape: 24 64 112 112 (19267584)
I0403 15:36:44.093875 10705 net.cpp:156] Memory required for data: 91522080
I0403 15:36:44.093909 10705 layer_factory.hpp:77] Creating layer conv1/relu_7x7
I0403 15:36:44.093938 10705 net.cpp:91] Creating Layer conv1/relu_7x7
I0403 15:36:44.093964 10705 net.cpp:425] conv1/relu_7x7 <- conv1/7x7_s2
I0403 15:36:44.093986 10705 net.cpp:386] conv1/relu_7x7 -> conv1/7x7_s2 (in-place)
I0403 15:36:44.094249 10705 net.cpp:141] Setting up conv1/relu_7x7
I0403 15:36:44.094279 10705 net.cpp:148] Top shape: 24 64 112 112 (19267584)
I0403 15:36:44.094295 10705 net.cpp:156] Memory required for data: 168592416
I0403 15:36:44.094310 10705 layer_factory.hpp:77] Creating layer pool1/3x3_s2
I0403 15:36:44.094336 10705 net.cpp:91] Creating Layer pool1/3x3_s2
I0403 15:36:44.094357 10705 net.cpp:425] pool1/3x3_s2 <- conv1/7x7_s2
I0403 15:36:44.094375 10705 net.cpp:399] pool1/3x3_s2 -> pool1/3x3_s2
I0403 15:36:44.094452 10705 net.cpp:141] Setting up pool1/3x3_s2
I0403 15:36:44.094480 10705 net.cpp:148] Top shape: 24 64 56 56 (4816896)
I0403 15:36:44.094496 10705 net.cpp:156] Memory required for data: 187860000
I0403 15:36:44.094511 10705 layer_factory.hpp:77] Creating layer pool1/norm1
I0403 15:36:44.094537 10705 net.cpp:91] Creating Layer pool1/norm1
I0403 15:36:44.094558 10705 net.cpp:425] pool1/norm1 <- pool1/3x3_s2
I0403 15:36:44.094576 10705 net.cpp:399] pool1/norm1 -> pool1/norm1
I0403 15:36:44.094876 10705 net.cpp:141] Setting up pool1/norm1
I0403 15:36:44.094904 10705 net.cpp:148] Top shape: 24 64 56 56 (4816896)
I0403 15:36:44.094921 10705 net.cpp:156] Memory required for data: 207127584
I0403 15:36:44.094936 10705 layer_factory.hpp:77] Creating layer conv2/3x3_reduce
I0403 15:36:44.094965 10705 net.cpp:91] Creating Layer conv2/3x3_reduce
I0403 15:36:44.094983 10705 net.cpp:425] conv2/3x3_reduce <- pool1/norm1
I0403 15:36:44.095001 10705 net.cpp:399] conv2/3x3_reduce -> conv2/3x3_reduce
I0403 15:36:44.096318 10705 net.cpp:141] Setting up conv2/3x3_reduce
I0403 15:36:44.096348 10705 net.cpp:148] Top shape: 24 64 56 56 (4816896)
I0403 15:36:44.096364 10705 net.cpp:156] Memory required for data: 226395168
I0403 15:36:44.096385 10705 layer_factory.hpp:77] Creating layer conv2/relu_3x3_reduce
I0403 15:36:44.096403 10705 net.cpp:91] Creating Layer conv2/relu_3x3_reduce
I0403 15:36:44.096420 10705 net.cpp:425] conv2/relu_3x3_reduce <- conv2/3x3_reduce
I0403 15:36:44.096436 10705 net.cpp:386] conv2/relu_3x3_reduce -> conv2/3x3_reduce (in-place)
I0403 15:36:44.096683 10705 net.cpp:141] Setting up conv2/relu_3x3_reduce
I0403 15:36:44.096709 10705 net.cpp:148] Top shape: 24 64 56 56 (4816896)
I0403 15:36:44.096724 10705 net.cpp:156] Memory required for data: 245662752
I0403 15:36:44.096740 10705 layer_factory.hpp:77] Creating layer conv2/3x3
I0403 15:36:44.096760 10705 net.cpp:91] Creating Layer conv2/3x3
I0403 15:36:44.096777 10705 net.cpp:425] conv2/3x3 <- conv2/3x3_reduce
I0403 15:36:44.096794 10705 net.cpp:399] conv2/3x3 -> conv2/3x3
I0403 15:36:44.099011 10705 net.cpp:141] Setting up conv2/3x3
I0403 15:36:44.099042 10705 net.cpp:148] Top shape: 24 192 56 56 (14450688)
I0403 15:36:44.099059 10705 net.cpp:156] Memory required for data: 303465504
I0403 15:36:44.099081 10705 layer_factory.hpp:77] Creating layer conv2/relu_3x3
I0403 15:36:44.099099 10705 net.cpp:91] Creating Layer conv2/relu_3x3
I0403 15:36:44.099115 10705 net.cpp:425] conv2/relu_3x3 <- conv2/3x3
I0403 15:36:44.099131 10705 net.cpp:386] conv2/relu_3x3 -> conv2/3x3 (in-place)
I0403 15:36:44.099290 10705 net.cpp:141] Setting up conv2/relu_3x3
I0403 15:36:44.099315 10705 net.cpp:148] Top shape: 24 192 56 56 (14450688)
I0403 15:36:44.099361 10705 net.cpp:156] Memory required for data: 361268256
I0403 15:36:44.099377 10705 layer_factory.hpp:77] Creating layer conv2/norm2
I0403 15:36:44.099395 10705 net.cpp:91] Creating Layer conv2/norm2
I0403 15:36:44.099412 10705 net.cpp:425] conv2/norm2 <- conv2/3x3
I0403 15:36:44.099431 10705 net.cpp:399] conv2/norm2 -> conv2/norm2
I0403 15:36:44.099714 10705 net.cpp:141] Setting up conv2/norm2
I0403 15:36:44.099740 10705 net.cpp:148] Top shape: 24 192 56 56 (14450688)
I0403 15:36:44.099756 10705 net.cpp:156] Memory required for data: 419071008
I0403 15:36:44.099771 10705 layer_factory.hpp:77] Creating layer pool2/3x3_s2
I0403 15:36:44.099788 10705 net.cpp:91] Creating Layer pool2/3x3_s2
I0403 15:36:44.099804 10705 net.cpp:425] pool2/3x3_s2 <- conv2/norm2
I0403 15:36:44.099822 10705 net.cpp:399] pool2/3x3_s2 -> pool2/3x3_s2
I0403 15:36:44.099871 10705 net.cpp:141] Setting up pool2/3x3_s2
I0403 15:36:44.099894 10705 net.cpp:148] Top shape: 24 192 28 28 (3612672)
I0403 15:36:44.099908 10705 net.cpp:156] Memory required for data: 433521696
I0403 15:36:44.099925 10705 layer_factory.hpp:77] Creating layer pool2/3x3_s2_pool2/3x3_s2_0_split
I0403 15:36:44.099942 10705 net.cpp:91] Creating Layer pool2/3x3_s2_pool2/3x3_s2_0_split
I0403 15:36:44.099975 10705 net.cpp:425] pool2/3x3_s2_pool2/3x3_s2_0_split <- pool2/3x3_s2
I0403 15:36:44.099993 10705 net.cpp:399] pool2/3x3_s2_pool2/3x3_s2_0_split -> pool2/3x3_s2_pool2/3x3_s2_0_split_0
I0403 15:36:44.100013 10705 net.cpp:399] pool2/3x3_s2_pool2/3x3_s2_0_split -> pool2/3x3_s2_pool2/3x3_s2_0_split_1
I0403 15:36:44.100033 10705 net.cpp:399] pool2/3x3_s2_pool2/3x3_s2_0_split -> pool2/3x3_s2_pool2/3x3_s2_0_split_2
I0403 15:36:44.100052 10705 net.cpp:399] pool2/3x3_s2_pool2/3x3_s2_0_split -> pool2/3x3_s2_pool2/3x3_s2_0_split_3
I0403 15:36:44.100117 10705 net.cpp:141] Setting up pool2/3x3_s2_pool2/3x3_s2_0_split
I0403 15:36:44.100139 10705 net.cpp:148] Top shape: 24 192 28 28 (3612672)
I0403 15:36:44.100155 10705 net.cpp:148] Top shape: 24 192 28 28 (3612672)
I0403 15:36:44.100170 10705 net.cpp:148] Top shape: 24 192 28 28 (3612672)
I0403 15:36:44.100186 10705 net.cpp:148] Top shape: 24 192 28 28 (3612672)
I0403 15:36:44.100201 10705 net.cpp:156] Memory required for data: 491324448
I0403 15:36:44.100215 10705 layer_factory.hpp:77] Creating layer inception_3a/1x1
I0403 15:36:44.100235 10705 net.cpp:91] Creating Layer inception_3a/1x1
I0403 15:36:44.100252 10705 net.cpp:425] inception_3a/1x1 <- pool2/3x3_s2_pool2/3x3_s2_0_split_0
I0403 15:36:44.100270 10705 net.cpp:399] inception_3a/1x1 -> inception_3a/1x1
I0403 15:36:44.101806 10705 net.cpp:141] Setting up inception_3a/1x1
I0403 15:36:44.101835 10705 net.cpp:148] Top shape: 24 64 28 28 (1204224)
I0403 15:36:44.101851 10705 net.cpp:156] Memory required for data: 496141344
I0403 15:36:44.101871 10705 layer_factory.hpp:77] Creating layer inception_3a/relu_1x1
I0403 15:36:44.101891 10705 net.cpp:91] Creating Layer inception_3a/relu_1x1
I0403 15:36:44.101907 10705 net.cpp:425] inception_3a/relu_1x1 <- inception_3a/1x1
I0403 15:36:44.101927 10705 net.cpp:386] inception_3a/relu_1x1 -> inception_3a/1x1 (in-place)
I0403 15:36:44.102102 10705 net.cpp:141] Setting up inception_3a/relu_1x1
I0403 15:36:44.102129 10705 net.cpp:148] Top shape: 24 64 28 28 (1204224)
I0403 15:36:44.102145 10705 net.cpp:156] Memory required for data: 500958240
I0403 15:36:44.102160 10705 layer_factory.hpp:77] Creating layer inception_3a/3x3_reduce
I0403 15:36:44.102182 10705 net.cpp:91] Creating Layer inception_3a/3x3_reduce
I0403 15:36:44.102200 10705 net.cpp:425] inception_3a/3x3_reduce <- pool2/3x3_s2_pool2/3x3_s2_0_split_1
I0403 15:36:44.102218 10705 net.cpp:399] inception_3a/3x3_reduce -> inception_3a/3x3_reduce
I0403 15:36:44.103938 10705 net.cpp:141] Setting up inception_3a/3x3_reduce
I0403 15:36:44.103971 10705 net.cpp:148] Top shape: 24 96 28 28 (1806336)
I0403 15:36:44.103987 10705 net.cpp:156] Memory required for data: 508183584
I0403 15:36:44.104012 10705 layer_factory.hpp:77] Creating layer inception_3a/relu_3x3_reduce
I0403 15:36:44.104046 10705 net.cpp:91] Creating Layer inception_3a/relu_3x3_reduce
I0403 15:36:44.104063 10705 net.cpp:425] inception_3a/relu_3x3_reduce <- inception_3a/3x3_reduce
I0403 15:36:44.104084 10705 net.cpp:386] inception_3a/relu_3x3_reduce -> inception_3a/3x3_reduce (in-place)
I0403 15:36:44.104264 10705 net.cpp:141] Setting up inception_3a/relu_3x3_reduce
I0403 15:36:44.104288 10705 net.cpp:148] Top shape: 24 96 28 28 (1806336)
I0403 15:36:44.104303 10705 net.cpp:156] Memory required for data: 515408928
I0403 15:36:44.104317 10705 layer_factory.hpp:77] Creating layer inception_3a/3x3
I0403 15:36:44.104339 10705 net.cpp:91] Creating Layer inception_3a/3x3
I0403 15:36:44.104357 10705 net.cpp:425] inception_3a/3x3 <- inception_3a/3x3_reduce
I0403 15:36:44.104379 10705 net.cpp:399] inception_3a/3x3 -> inception_3a/3x3
I0403 15:36:44.106039 10705 net.cpp:141] Setting up inception_3a/3x3
I0403 15:36:44.106066 10705 net.cpp:148] Top shape: 24 128 28 28 (2408448)
I0403 15:36:44.106082 10705 net.cpp:156] Memory required for data: 525042720
I0403 15:36:44.106101 10705 layer_factory.hpp:77] Creating layer inception_3a/relu_3x3
I0403 15:36:44.106120 10705 net.cpp:91] Creating Layer inception_3a/relu_3x3
I0403 15:36:44.106137 10705 net.cpp:425] inception_3a/relu_3x3 <- inception_3a/3x3
I0403 15:36:44.106155 10705 net.cpp:386] inception_3a/relu_3x3 -> inception_3a/3x3 (in-place)
I0403 15:36:44.106436 10705 net.cpp:141] Setting up inception_3a/relu_3x3
I0403 15:36:44.106462 10705 net.cpp:148] Top shape: 24 128 28 28 (2408448)
I0403 15:36:44.106477 10705 net.cpp:156] Memory required for data: 534676512
I0403 15:36:44.106492 10705 layer_factory.hpp:77] Creating layer inception_3a/5x5_reduce
I0403 15:36:44.106516 10705 net.cpp:91] Creating Layer inception_3a/5x5_reduce
I0403 15:36:44.106535 10705 net.cpp:425] inception_3a/5x5_reduce <- pool2/3x3_s2_pool2/3x3_s2_0_split_2
I0403 15:36:44.106554 10705 net.cpp:399] inception_3a/5x5_reduce -> inception_3a/5x5_reduce
I0403 15:36:44.107527 10705 net.cpp:141] Setting up inception_3a/5x5_reduce
I0403 15:36:44.107558 10705 net.cpp:148] Top shape: 24 16 28 28 (301056)
I0403 15:36:44.107574 10705 net.cpp:156] Memory required for data: 535880736
I0403 15:36:44.107594 10705 layer_factory.hpp:77] Creating layer inception_3a/relu_5x5_reduce
I0403 15:36:44.107611 10705 net.cpp:91] Creating Layer inception_3a/relu_5x5_reduce
I0403 15:36:44.107627 10705 net.cpp:425] inception_3a/relu_5x5_reduce <- inception_3a/5x5_reduce
I0403 15:36:44.107648 10705 net.cpp:386] inception_3a/relu_5x5_reduce -> inception_3a/5x5_reduce (in-place)
I0403 15:36:44.107944 10705 net.cpp:141] Setting up inception_3a/relu_5x5_reduce
I0403 15:36:44.107980 10705 net.cpp:148] Top shape: 24 16 28 28 (301056)
I0403 15:36:44.107995 10705 net.cpp:156] Memory required for data: 537084960
I0403 15:36:44.108009 10705 layer_factory.hpp:77] Creating layer inception_3a/5x5
I0403 15:36:44.108032 10705 net.cpp:91] Creating Layer inception_3a/5x5
I0403 15:36:44.108050 10705 net.cpp:425] inception_3a/5x5 <- inception_3a/5x5_reduce
I0403 15:36:44.108070 10705 net.cpp:399] inception_3a/5x5 -> inception_3a/5x5
I0403 15:36:44.109089 10705 net.cpp:141] Setting up inception_3a/5x5
I0403 15:36:44.109117 10705 net.cpp:148] Top shape: 24 32 28 28 (602112)
I0403 15:36:44.109133 10705 net.cpp:156] Memory required for data: 539493408
I0403 15:36:44.109150 10705 layer_factory.hpp:77] Creating layer inception_3a/relu_5x5
I0403 15:36:44.109171 10705 net.cpp:91] Creating Layer inception_3a/relu_5x5
I0403 15:36:44.109189 10705 net.cpp:425] inception_3a/relu_5x5 <- inception_3a/5x5
I0403 15:36:44.109206 10705 net.cpp:386] inception_3a/relu_5x5 -> inception_3a/5x5 (in-place)
I0403 15:36:44.109381 10705 net.cpp:141] Setting up inception_3a/relu_5x5
I0403 15:36:44.109406 10705 net.cpp:148] Top shape: 24 32 28 28 (602112)
I0403 15:36:44.109421 10705 net.cpp:156] Memory required for data: 541901856
I0403 15:36:44.109436 10705 layer_factory.hpp:77] Creating layer inception_3a/pool
I0403 15:36:44.109453 10705 net.cpp:91] Creating Layer inception_3a/pool
I0403 15:36:44.109483 10705 net.cpp:425] inception_3a/pool <- pool2/3x3_s2_pool2/3x3_s2_0_split_3
I0403 15:36:44.109504 10705 net.cpp:399] inception_3a/pool -> inception_3a/pool
I0403 15:36:44.109563 10705 net.cpp:141] Setting up inception_3a/pool
I0403 15:36:44.109586 10705 net.cpp:148] Top shape: 24 192 28 28 (3612672)
I0403 15:36:44.109601 10705 net.cpp:156] Memory required for data: 556352544
I0403 15:36:44.109616 10705 layer_factory.hpp:77] Creating layer inception_3a/pool_proj
I0403 15:36:44.109643 10705 net.cpp:91] Creating Layer inception_3a/pool_proj
I0403 15:36:44.109661 10705 net.cpp:425] inception_3a/pool_proj <- inception_3a/pool
I0403 15:36:44.109679 10705 net.cpp:399] inception_3a/pool_proj -> inception_3a/pool_proj
I0403 15:36:44.110656 10705 net.cpp:141] Setting up inception_3a/pool_proj
I0403 15:36:44.110684 10705 net.cpp:148] Top shape: 24 32 28 28 (602112)
I0403 15:36:44.110700 10705 net.cpp:156] Memory required for data: 558760992
I0403 15:36:44.110723 10705 layer_factory.hpp:77] Creating layer inception_3a/relu_pool_proj
I0403 15:36:44.110743 10705 net.cpp:91] Creating Layer inception_3a/relu_pool_proj
I0403 15:36:44.110759 10705 net.cpp:425] inception_3a/relu_pool_proj <- inception_3a/pool_proj
I0403 15:36:44.110780 10705 net.cpp:386] inception_3a/relu_pool_proj -> inception_3a/pool_proj (in-place)
I0403 15:36:44.111059 10705 net.cpp:141] Setting up inception_3a/relu_pool_proj
I0403 15:36:44.111085 10705 net.cpp:148] Top shape: 24 32 28 28 (602112)
I0403 15:36:44.111100 10705 net.cpp:156] Memory required for data: 561169440
I0403 15:36:44.111115 10705 layer_factory.hpp:77] Creating layer inception_3a/output
I0403 15:36:44.111135 10705 net.cpp:91] Creating Layer inception_3a/output
I0403 15:36:44.111151 10705 net.cpp:425] inception_3a/output <- inception_3a/1x1
I0403 15:36:44.111168 10705 net.cpp:425] inception_3a/output <- inception_3a/3x3
I0403 15:36:44.111184 10705 net.cpp:425] inception_3a/output <- inception_3a/5x5
I0403 15:36:44.111201 10705 net.cpp:425] inception_3a/output <- inception_3a/pool_proj
I0403 15:36:44.111217 10705 net.cpp:399] inception_3a/output -> inception_3a/output
I0403 15:36:44.111263 10705 net.cpp:141] Setting up inception_3a/output
I0403 15:36:44.111286 10705 net.cpp:148] Top shape: 24 256 28 28 (4816896)
I0403 15:36:44.111301 10705 net.cpp:156] Memory required for data: 580437024
I0403 15:36:44.111316 10705 layer_factory.hpp:77] Creating layer inception_3a/output_inception_3a/output_0_split
I0403 15:36:44.111332 10705 net.cpp:91] Creating Layer inception_3a/output_inception_3a/output_0_split
I0403 15:36:44.111347 10705 net.cpp:425] inception_3a/output_inception_3a/output_0_split <- inception_3a/output
I0403 15:36:44.111367 10705 net.cpp:399] inception_3a/output_inception_3a/output_0_split -> inception_3a/output_inception_3a/output_0_split_0
I0403 15:36:44.111388 10705 net.cpp:399] inception_3a/output_inception_3a/output_0_split -> inception_3a/output_inception_3a/output_0_split_1
I0403 15:36:44.111413 10705 net.cpp:399] inception_3a/output_inception_3a/output_0_split -> inception_3a/output_inception_3a/output_0_split_2
I0403 15:36:44.111435 10705 net.cpp:399] inception_3a/output_inception_3a/output_0_split -> inception_3a/output_inception_3a/output_0_split_3
I0403 15:36:44.111510 10705 net.cpp:141] Setting up inception_3a/output_inception_3a/output_0_split
I0403 15:36:44.111531 10705 net.cpp:148] Top shape: 24 256 28 28 (4816896)
I0403 15:36:44.111551 10705 net.cpp:148] Top shape: 24 256 28 28 (4816896)
I0403 15:36:44.111567 10705 net.cpp:148] Top shape: 24 256 28 28 (4816896)
I0403 15:36:44.111582 10705 net.cpp:148] Top shape: 24 256 28 28 (4816896)
I0403 15:36:44.111596 10705 net.cpp:156] Memory required for data: 657507360
I0403 15:36:44.111611 10705 layer_factory.hpp:77] Creating layer inception_3b/1x1
I0403 15:36:44.111630 10705 net.cpp:91] Creating Layer inception_3b/1x1
I0403 15:36:44.111646 10705 net.cpp:425] inception_3b/1x1 <- inception_3a/output_inception_3a/output_0_split_0
I0403 15:36:44.111667 10705 net.cpp:399] inception_3b/1x1 -> inception_3b/1x1
I0403 15:36:44.112803 10705 net.cpp:141] Setting up inception_3b/1x1
I0403 15:36:44.112843 10705 net.cpp:148] Top shape: 24 128 28 28 (2408448)
I0403 15:36:44.112859 10705 net.cpp:156] Memory required for data: 667141152
I0403 15:36:44.112876 10705 layer_factory.hpp:77] Creating layer inception_3b/relu_1x1
I0403 15:36:44.112897 10705 net.cpp:91] Creating Layer inception_3b/relu_1x1
I0403 15:36:44.112915 10705 net.cpp:425] inception_3b/relu_1x1 <- inception_3b/1x1
I0403 15:36:44.112932 10705 net.cpp:386] inception_3b/relu_1x1 -> inception_3b/1x1 (in-place)
I0403 15:36:44.113116 10705 net.cpp:141] Setting up inception_3b/relu_1x1
I0403 15:36:44.113142 10705 net.cpp:148] Top shape: 24 128 28 28 (2408448)
I0403 15:36:44.113158 10705 net.cpp:156] Memory required for data: 676774944
I0403 15:36:44.113173 10705 layer_factory.hpp:77] Creating layer inception_3b/3x3_reduce
I0403 15:36:44.113195 10705 net.cpp:91] Creating Layer inception_3b/3x3_reduce
I0403 15:36:44.113214 10705 net.cpp:425] inception_3b/3x3_reduce <- inception_3a/output_inception_3a/output_0_split_1
I0403 15:36:44.113232 10705 net.cpp:399] inception_3b/3x3_reduce -> inception_3b/3x3_reduce
I0403 15:36:44.114364 10705 net.cpp:141] Setting up inception_3b/3x3_reduce
I0403 15:36:44.114392 10705 net.cpp:148] Top shape: 24 128 28 28 (2408448)
I0403 15:36:44.114408 10705 net.cpp:156] Memory required for data: 686408736
I0403 15:36:44.114426 10705 layer_factory.hpp:77] Creating layer inception_3b/relu_3x3_reduce
I0403 15:36:44.114446 10705 net.cpp:91] Creating Layer inception_3b/relu_3x3_reduce
I0403 15:36:44.114464 10705 net.cpp:425] inception_3b/relu_3x3_reduce <- inception_3b/3x3_reduce
I0403 15:36:44.114481 10705 net.cpp:386] inception_3b/relu_3x3_reduce -> inception_3b/3x3_reduce (in-place)
I0403 15:36:44.114651 10705 net.cpp:141] Setting up inception_3b/relu_3x3_reduce
I0403 15:36:44.114678 10705 net.cpp:148] Top shape: 24 128 28 28 (2408448)
I0403 15:36:44.114694 10705 net.cpp:156] Memory required for data: 696042528
I0403 15:36:44.114709 10705 layer_factory.hpp:77] Creating layer inception_3b/3x3
I0403 15:36:44.114734 10705 net.cpp:91] Creating Layer inception_3b/3x3
I0403 15:36:44.114753 10705 net.cpp:425] inception_3b/3x3 <- inception_3b/3x3_reduce
I0403 15:36:44.114774 10705 net.cpp:399] inception_3b/3x3 -> inception_3b/3x3
I0403 15:36:44.117676 10705 net.cpp:141] Setting up inception_3b/3x3
I0403 15:36:44.117704 10705 net.cpp:148] Top shape: 24 192 28 28 (3612672)
I0403 15:36:44.117720 10705 net.cpp:156] Memory required for data: 710493216
I0403 15:36:44.117738 10705 layer_factory.hpp:77] Creating layer inception_3b/relu_3x3
I0403 15:36:44.117759 10705 net.cpp:91] Creating Layer inception_3b/relu_3x3
I0403 15:36:44.117776 10705 net.cpp:425] inception_3b/relu_3x3 <- inception_3b/3x3
I0403 15:36:44.117794 10705 net.cpp:386] inception_3b/relu_3x3 -> inception_3b/3x3 (in-place)
I0403 15:36:44.118084 10705 net.cpp:141] Setting up inception_3b/relu_3x3
I0403 15:36:44.118110 10705 net.cpp:148] Top shape: 24 192 28 28 (3612672)
I0403 15:36:44.118126 10705 net.cpp:156] Memory required for data: 724943904
I0403 15:36:44.118141 10705 layer_factory.hpp:77] Creating layer inception_3b/5x5_reduce
I0403 15:36:44.118166 10705 net.cpp:91] Creating Layer inception_3b/5x5_reduce
I0403 15:36:44.118185 10705 net.cpp:425] inception_3b/5x5_reduce <- inception_3a/output_inception_3a/output_0_split_2
I0403 15:36:44.118204 10705 net.cpp:399] inception_3b/5x5_reduce -> inception_3b/5x5_reduce
I0403 15:36:44.119261 10705 net.cpp:141] Setting up inception_3b/5x5_reduce
I0403 15:36:44.119289 10705 net.cpp:148] Top shape: 24 32 28 28 (602112)
I0403 15:36:44.119304 10705 net.cpp:156] Memory required for data: 727352352
I0403 15:36:44.119323 10705 layer_factory.hpp:77] Creating layer inception_3b/relu_5x5_reduce
I0403 15:36:44.119343 10705 net.cpp:91] Creating Layer inception_3b/relu_5x5_reduce
I0403 15:36:44.119360 10705 net.cpp:425] inception_3b/relu_5x5_reduce <- inception_3b/5x5_reduce
I0403 15:36:44.119377 10705 net.cpp:386] inception_3b/relu_5x5_reduce -> inception_3b/5x5_reduce (in-place)
I0403 15:36:44.119568 10705 net.cpp:141] Setting up inception_3b/relu_5x5_reduce
I0403 15:36:44.119593 10705 net.cpp:148] Top shape: 24 32 28 28 (602112)
I0403 15:36:44.119607 10705 net.cpp:156] Memory required for data: 729760800
I0403 15:36:44.119622 10705 layer_factory.hpp:77] Creating layer inception_3b/5x5
I0403 15:36:44.119644 10705 net.cpp:91] Creating Layer inception_3b/5x5
I0403 15:36:44.119663 10705 net.cpp:425] inception_3b/5x5 <- inception_3b/5x5_reduce
I0403 15:36:44.119683 10705 net.cpp:399] inception_3b/5x5 -> inception_3b/5x5
I0403 15:36:44.121664 10705 net.cpp:141] Setting up inception_3b/5x5
I0403 15:36:44.121691 10705 net.cpp:148] Top shape: 24 96 28 28 (1806336)
I0403 15:36:44.121708 10705 net.cpp:156] Memory required for data: 736986144
I0403 15:36:44.121726 10705 layer_factory.hpp:77] Creating layer inception_3b/relu_5x5
I0403 15:36:44.121747 10705 net.cpp:91] Creating Layer inception_3b/relu_5x5
I0403 15:36:44.121763 10705 net.cpp:425] inception_3b/relu_5x5 <- inception_3b/5x5
I0403 15:36:44.121780 10705 net.cpp:386] inception_3b/relu_5x5 -> inception_3b/5x5 (in-place)
I0403 15:36:44.121974 10705 net.cpp:141] Setting up inception_3b/relu_5x5
I0403 15:36:44.121999 10705 net.cpp:148] Top shape: 24 96 28 28 (1806336)
I0403 15:36:44.122014 10705 net.cpp:156] Memory required for data: 744211488
I0403 15:36:44.122028 10705 layer_factory.hpp:77] Creating layer inception_3b/pool
I0403 15:36:44.122045 10705 net.cpp:91] Creating Layer inception_3b/pool
I0403 15:36:44.122061 10705 net.cpp:425] inception_3b/pool <- inception_3a/output_inception_3a/output_0_split_3
I0403 15:36:44.122079 10705 net.cpp:399] inception_3b/pool -> inception_3b/pool
I0403 15:36:44.122135 10705 net.cpp:141] Setting up inception_3b/pool
I0403 15:36:44.122159 10705 net.cpp:148] Top shape: 24 256 28 28 (4816896)
I0403 15:36:44.122172 10705 net.cpp:156] Memory required for data: 763479072
I0403 15:36:44.122186 10705 layer_factory.hpp:77] Creating layer inception_3b/pool_proj
I0403 15:36:44.122208 10705 net.cpp:91] Creating Layer inception_3b/pool_proj
I0403 15:36:44.122226 10705 net.cpp:425] inception_3b/pool_proj <- inception_3b/pool
I0403 15:36:44.122247 10705 net.cpp:399] inception_3b/pool_proj -> inception_3b/pool_proj
I0403 15:36:44.123299 10705 net.cpp:141] Setting up inception_3b/pool_proj
I0403 15:36:44.123327 10705 net.cpp:148] Top shape: 24 64 28 28 (1204224)
I0403 15:36:44.123342 10705 net.cpp:156] Memory required for data: 768295968
I0403 15:36:44.123360 10705 layer_factory.hpp:77] Creating layer inception_3b/relu_pool_proj
I0403 15:36:44.123378 10705 net.cpp:91] Creating Layer inception_3b/relu_pool_proj
I0403 15:36:44.123394 10705 net.cpp:425] inception_3b/relu_pool_proj <- inception_3b/pool_proj
I0403 15:36:44.123414 10705 net.cpp:386] inception_3b/relu_pool_proj -> inception_3b/pool_proj (in-place)
I0403 15:36:44.123807 10705 net.cpp:141] Setting up inception_3b/relu_pool_proj
I0403 15:36:44.123836 10705 net.cpp:148] Top shape: 24 64 28 28 (1204224)
I0403 15:36:44.123852 10705 net.cpp:156] Memory required for data: 773112864
I0403 15:36:44.123865 10705 layer_factory.hpp:77] Creating layer inception_3b/output
I0403 15:36:44.123883 10705 net.cpp:91] Creating Layer inception_3b/output
I0403 15:36:44.123898 10705 net.cpp:425] inception_3b/output <- inception_3b/1x1
I0403 15:36:44.123930 10705 net.cpp:425] inception_3b/output <- inception_3b/3x3
I0403 15:36:44.123950 10705 net.cpp:425] inception_3b/output <- inception_3b/5x5
I0403 15:36:44.123968 10705 net.cpp:425] inception_3b/output <- inception_3b/pool_proj
I0403 15:36:44.123988 10705 net.cpp:399] inception_3b/output -> inception_3b/output
I0403 15:36:44.124034 10705 net.cpp:141] Setting up inception_3b/output
I0403 15:36:44.124058 10705 net.cpp:148] Top shape: 24 480 28 28 (9031680)
I0403 15:36:44.124073 10705 net.cpp:156] Memory required for data: 809239584
I0403 15:36:44.124089 10705 layer_factory.hpp:77] Creating layer pool3/3x3_s2
I0403 15:36:44.124107 10705 net.cpp:91] Creating Layer pool3/3x3_s2
I0403 15:36:44.124125 10705 net.cpp:425] pool3/3x3_s2 <- inception_3b/output
I0403 15:36:44.124158 10705 net.cpp:399] pool3/3x3_s2 -> pool3/3x3_s2
I0403 15:36:44.124233 10705 net.cpp:141] Setting up pool3/3x3_s2
I0403 15:36:44.124255 10705 net.cpp:148] Top shape: 24 480 14 14 (2257920)
I0403 15:36:44.124269 10705 net.cpp:156] Memory required for data: 818271264
I0403 15:36:44.124284 10705 layer_factory.hpp:77] Creating layer pool3/3x3_s2_pool3/3x3_s2_0_split
I0403 15:36:44.124301 10705 net.cpp:91] Creating Layer pool3/3x3_s2_pool3/3x3_s2_0_split
I0403 15:36:44.124316 10705 net.cpp:425] pool3/3x3_s2_pool3/3x3_s2_0_split <- pool3/3x3_s2
I0403 15:36:44.124336 10705 net.cpp:399] pool3/3x3_s2_pool3/3x3_s2_0_split -> pool3/3x3_s2_pool3/3x3_s2_0_split_0
I0403 15:36:44.124356 10705 net.cpp:399] pool3/3x3_s2_pool3/3x3_s2_0_split -> pool3/3x3_s2_pool3/3x3_s2_0_split_1
I0403 15:36:44.124375 10705 net.cpp:399] pool3/3x3_s2_pool3/3x3_s2_0_split -> pool3/3x3_s2_pool3/3x3_s2_0_split_2
I0403 15:36:44.124395 10705 net.cpp:399] pool3/3x3_s2_pool3/3x3_s2_0_split -> pool3/3x3_s2_pool3/3x3_s2_0_split_3
I0403 15:36:44.124472 10705 net.cpp:141] Setting up pool3/3x3_s2_pool3/3x3_s2_0_split
I0403 15:36:44.124495 10705 net.cpp:148] Top shape: 24 480 14 14 (2257920)
I0403 15:36:44.124511 10705 net.cpp:148] Top shape: 24 480 14 14 (2257920)
I0403 15:36:44.124526 10705 net.cpp:148] Top shape: 24 480 14 14 (2257920)
I0403 15:36:44.124542 10705 net.cpp:148] Top shape: 24 480 14 14 (2257920)
I0403 15:36:44.124557 10705 net.cpp:156] Memory required for data: 854397984
I0403 15:36:44.124570 10705 layer_factory.hpp:77] Creating layer inception_4a/1x1
I0403 15:36:44.124593 10705 net.cpp:91] Creating Layer inception_4a/1x1
I0403 15:36:44.124609 10705 net.cpp:425] inception_4a/1x1 <- pool3/3x3_s2_pool3/3x3_s2_0_split_0
I0403 15:36:44.124630 10705 net.cpp:399] inception_4a/1x1 -> inception_4a/1x1
I0403 15:36:44.126191 10705 net.cpp:141] Setting up inception_4a/1x1
I0403 15:36:44.126219 10705 net.cpp:148] Top shape: 24 192 14 14 (903168)
I0403 15:36:44.126235 10705 net.cpp:156] Memory required for data: 858010656
I0403 15:36:44.126252 10705 layer_factory.hpp:77] Creating layer inception_4a/relu_1x1
I0403 15:36:44.126269 10705 net.cpp:91] Creating Layer inception_4a/relu_1x1
I0403 15:36:44.126286 10705 net.cpp:425] inception_4a/relu_1x1 <- inception_4a/1x1
I0403 15:36:44.126304 10705 net.cpp:386] inception_4a/relu_1x1 -> inception_4a/1x1 (in-place)
I0403 15:36:44.126482 10705 net.cpp:141] Setting up inception_4a/relu_1x1
I0403 15:36:44.126507 10705 net.cpp:148] Top shape: 24 192 14 14 (903168)
I0403 15:36:44.126521 10705 net.cpp:156] Memory required for data: 861623328
I0403 15:36:44.126535 10705 layer_factory.hpp:77] Creating layer inception_4a/3x3_reduce
I0403 15:36:44.126556 10705 net.cpp:91] Creating Layer inception_4a/3x3_reduce
I0403 15:36:44.126574 10705 net.cpp:425] inception_4a/3x3_reduce <- pool3/3x3_s2_pool3/3x3_s2_0_split_1
I0403 15:36:44.126595 10705 net.cpp:399] inception_4a/3x3_reduce -> inception_4a/3x3_reduce
I0403 15:36:44.127858 10705 net.cpp:141] Setting up inception_4a/3x3_reduce
I0403 15:36:44.127887 10705 net.cpp:148] Top shape: 24 96 14 14 (451584)
I0403 15:36:44.127902 10705 net.cpp:156] Memory required for data: 863429664
I0403 15:36:44.127936 10705 layer_factory.hpp:77] Creating layer inception_4a/relu_3x3_reduce
I0403 15:36:44.127969 10705 net.cpp:91] Creating Layer inception_4a/relu_3x3_reduce
I0403 15:36:44.127985 10705 net.cpp:425] inception_4a/relu_3x3_reduce <- inception_4a/3x3_reduce
I0403 15:36:44.128006 10705 net.cpp:386] inception_4a/relu_3x3_reduce -> inception_4a/3x3_reduce (in-place)
I0403 15:36:44.128183 10705 net.cpp:141] Setting up inception_4a/relu_3x3_reduce
I0403 15:36:44.128208 10705 net.cpp:148] Top shape: 24 96 14 14 (451584)
I0403 15:36:44.128226 10705 net.cpp:156] Memory required for data: 865236000
I0403 15:36:44.128240 10705 layer_factory.hpp:77] Creating layer inception_4a/3x3
I0403 15:36:44.128262 10705 net.cpp:91] Creating Layer inception_4a/3x3
I0403 15:36:44.128279 10705 net.cpp:425] inception_4a/3x3 <- inception_4a/3x3_reduce
I0403 15:36:44.128301 10705 net.cpp:399] inception_4a/3x3 -> inception_4a/3x3
I0403 15:36:44.131021 10705 net.cpp:141] Setting up inception_4a/3x3
I0403 15:36:44.131048 10705 net.cpp:148] Top shape: 24 208 14 14 (978432)
I0403 15:36:44.131065 10705 net.cpp:156] Memory required for data: 869149728
I0403 15:36:44.131083 10705 layer_factory.hpp:77] Creating layer inception_4a/relu_3x3
I0403 15:36:44.131104 10705 net.cpp:91] Creating Layer inception_4a/relu_3x3
I0403 15:36:44.131122 10705 net.cpp:425] inception_4a/relu_3x3 <- inception_4a/3x3
I0403 15:36:44.131139 10705 net.cpp:386] inception_4a/relu_3x3 -> inception_4a/3x3 (in-place)
I0403 15:36:44.131413 10705 net.cpp:141] Setting up inception_4a/relu_3x3
I0403 15:36:44.131438 10705 net.cpp:148] Top shape: 24 208 14 14 (978432)
I0403 15:36:44.131454 10705 net.cpp:156] Memory required for data: 873063456
I0403 15:36:44.131469 10705 layer_factory.hpp:77] Creating layer inception_4a/5x5_reduce
I0403 15:36:44.131490 10705 net.cpp:91] Creating Layer inception_4a/5x5_reduce
I0403 15:36:44.131508 10705 net.cpp:425] inception_4a/5x5_reduce <- pool3/3x3_s2_pool3/3x3_s2_0_split_2
I0403 15:36:44.131531 10705 net.cpp:399] inception_4a/5x5_reduce -> inception_4a/5x5_reduce
I0403 15:36:44.132551 10705 net.cpp:141] Setting up inception_4a/5x5_reduce
I0403 15:36:44.132580 10705 net.cpp:148] Top shape: 24 16 14 14 (75264)
I0403 15:36:44.132596 10705 net.cpp:156] Memory required for data: 873364512
I0403 15:36:44.132613 10705 layer_factory.hpp:77] Creating layer inception_4a/relu_5x5_reduce
I0403 15:36:44.132633 10705 net.cpp:91] Creating Layer inception_4a/relu_5x5_reduce
I0403 15:36:44.132652 10705 net.cpp:425] inception_4a/relu_5x5_reduce <- inception_4a/5x5_reduce
I0403 15:36:44.132668 10705 net.cpp:386] inception_4a/relu_5x5_reduce -> inception_4a/5x5_reduce (in-place)
I0403 15:36:44.132848 10705 net.cpp:141] Setting up inception_4a/relu_5x5_reduce
I0403 15:36:44.132872 10705 net.cpp:148] Top shape: 24 16 14 14 (75264)
I0403 15:36:44.132887 10705 net.cpp:156] Memory required for data: 873665568
I0403 15:36:44.132902 10705 layer_factory.hpp:77] Creating layer inception_4a/5x5
I0403 15:36:44.132925 10705 net.cpp:91] Creating Layer inception_4a/5x5
I0403 15:36:44.132941 10705 net.cpp:425] inception_4a/5x5 <- inception_4a/5x5_reduce
I0403 15:36:44.132967 10705 net.cpp:399] inception_4a/5x5 -> inception_4a/5x5
I0403 15:36:44.134063 10705 net.cpp:141] Setting up inception_4a/5x5
I0403 15:36:44.134093 10705 net.cpp:148] Top shape: 24 48 14 14 (225792)
I0403 15:36:44.134109 10705 net.cpp:156] Memory required for data: 874568736
I0403 15:36:44.134126 10705 layer_factory.hpp:77] Creating layer inception_4a/relu_5x5
I0403 15:36:44.134145 10705 net.cpp:91] Creating Layer inception_4a/relu_5x5
I0403 15:36:44.134160 10705 net.cpp:425] inception_4a/relu_5x5 <- inception_4a/5x5
I0403 15:36:44.134179 10705 net.cpp:386] inception_4a/relu_5x5 -> inception_4a/5x5 (in-place)
I0403 15:36:44.134357 10705 net.cpp:141] Setting up inception_4a/relu_5x5
I0403 15:36:44.134382 10705 net.cpp:148] Top shape: 24 48 14 14 (225792)
I0403 15:36:44.134397 10705 net.cpp:156] Memory required for data: 875471904
I0403 15:36:44.134412 10705 layer_factory.hpp:77] Creating layer inception_4a/pool
I0403 15:36:44.134429 10705 net.cpp:91] Creating Layer inception_4a/pool
I0403 15:36:44.134445 10705 net.cpp:425] inception_4a/pool <- pool3/3x3_s2_pool3/3x3_s2_0_split_3
I0403 15:36:44.134465 10705 net.cpp:399] inception_4a/pool -> inception_4a/pool
I0403 15:36:44.134527 10705 net.cpp:141] Setting up inception_4a/pool
I0403 15:36:44.134551 10705 net.cpp:148] Top shape: 24 480 14 14 (2257920)
I0403 15:36:44.134565 10705 net.cpp:156] Memory required for data: 884503584
I0403 15:36:44.134579 10705 layer_factory.hpp:77] Creating layer inception_4a/pool_proj
I0403 15:36:44.134603 10705 net.cpp:91] Creating Layer inception_4a/pool_proj
I0403 15:36:44.134620 10705 net.cpp:425] inception_4a/pool_proj <- inception_4a/pool
I0403 15:36:44.134641 10705 net.cpp:399] inception_4a/pool_proj -> inception_4a/pool_proj
I0403 15:36:44.135807 10705 net.cpp:141] Setting up inception_4a/pool_proj
I0403 15:36:44.135836 10705 net.cpp:148] Top shape: 24 64 14 14 (301056)
I0403 15:36:44.135866 10705 net.cpp:156] Memory required for data: 885707808
I0403 15:36:44.135886 10705 layer_factory.hpp:77] Creating layer inception_4a/relu_pool_proj
I0403 15:36:44.135905 10705 net.cpp:91] Creating Layer inception_4a/relu_pool_proj
I0403 15:36:44.135927 10705 net.cpp:425] inception_4a/relu_pool_proj <- inception_4a/pool_proj
I0403 15:36:44.135948 10705 net.cpp:386] inception_4a/relu_pool_proj -> inception_4a/pool_proj (in-place)
I0403 15:36:44.136234 10705 net.cpp:141] Setting up inception_4a/relu_pool_proj
I0403 15:36:44.136260 10705 net.cpp:148] Top shape: 24 64 14 14 (301056)
I0403 15:36:44.136275 10705 net.cpp:156] Memory required for data: 886912032
I0403 15:36:44.136288 10705 layer_factory.hpp:77] Creating layer inception_4a/output
I0403 15:36:44.136306 10705 net.cpp:91] Creating Layer inception_4a/output
I0403 15:36:44.136322 10705 net.cpp:425] inception_4a/output <- inception_4a/1x1
I0403 15:36:44.136338 10705 net.cpp:425] inception_4a/output <- inception_4a/3x3
I0403 15:36:44.136354 10705 net.cpp:425] inception_4a/output <- inception_4a/5x5
I0403 15:36:44.136369 10705 net.cpp:425] inception_4a/output <- inception_4a/pool_proj
I0403 15:36:44.136389 10705 net.cpp:399] inception_4a/output -> inception_4a/output
I0403 15:36:44.136433 10705 net.cpp:141] Setting up inception_4a/output
I0403 15:36:44.136458 10705 net.cpp:148] Top shape: 24 512 14 14 (2408448)
I0403 15:36:44.136473 10705 net.cpp:156] Memory required for data: 896545824
I0403 15:36:44.136488 10705 layer_factory.hpp:77] Creating layer inception_4a/output_inception_4a/output_0_split
I0403 15:36:44.136504 10705 net.cpp:91] Creating Layer inception_4a/output_inception_4a/output_0_split
I0403 15:36:44.136520 10705 net.cpp:425] inception_4a/output_inception_4a/output_0_split <- inception_4a/output
I0403 15:36:44.136539 10705 net.cpp:399] inception_4a/output_inception_4a/output_0_split -> inception_4a/output_inception_4a/output_0_split_0
I0403 15:36:44.136560 10705 net.cpp:399] inception_4a/output_inception_4a/output_0_split -> inception_4a/output_inception_4a/output_0_split_1
I0403 15:36:44.136582 10705 net.cpp:399] inception_4a/output_inception_4a/output_0_split -> inception_4a/output_inception_4a/output_0_split_2
I0403 15:36:44.136603 10705 net.cpp:399] inception_4a/output_inception_4a/output_0_split -> inception_4a/output_inception_4a/output_0_split_3
I0403 15:36:44.136623 10705 net.cpp:399] inception_4a/output_inception_4a/output_0_split -> inception_4a/output_inception_4a/output_0_split_4
I0403 15:36:44.136716 10705 net.cpp:141] Setting up inception_4a/output_inception_4a/output_0_split
I0403 15:36:44.136739 10705 net.cpp:148] Top shape: 24 512 14 14 (2408448)
I0403 15:36:44.136755 10705 net.cpp:148] Top shape: 24 512 14 14 (2408448)
I0403 15:36:44.136771 10705 net.cpp:148] Top shape: 24 512 14 14 (2408448)
I0403 15:36:44.136787 10705 net.cpp:148] Top shape: 24 512 14 14 (2408448)
I0403 15:36:44.136802 10705 net.cpp:148] Top shape: 24 512 14 14 (2408448)
I0403 15:36:44.136816 10705 net.cpp:156] Memory required for data: 944714784
I0403 15:36:44.136829 10705 layer_factory.hpp:77] Creating layer loss1/ave_pool
I0403 15:36:44.136848 10705 net.cpp:91] Creating Layer loss1/ave_pool
I0403 15:36:44.136865 10705 net.cpp:425] loss1/ave_pool <- inception_4a/output_inception_4a/output_0_split_0
I0403 15:36:44.136883 10705 net.cpp:399] loss1/ave_pool -> loss1/ave_pool
I0403 15:36:44.137092 10705 net.cpp:141] Setting up loss1/ave_pool
I0403 15:36:44.137118 10705 net.cpp:148] Top shape: 24 512 4 4 (196608)
I0403 15:36:44.137133 10705 net.cpp:156] Memory required for data: 945501216
I0403 15:36:44.137147 10705 layer_factory.hpp:77] Creating layer loss1/conv
I0403 15:36:44.137169 10705 net.cpp:91] Creating Layer loss1/conv
I0403 15:36:44.137188 10705 net.cpp:425] loss1/conv <- loss1/ave_pool
I0403 15:36:44.137208 10705 net.cpp:399] loss1/conv -> loss1/conv
I0403 15:36:44.138614 10705 net.cpp:141] Setting up loss1/conv
I0403 15:36:44.138643 10705 net.cpp:148] Top shape: 24 128 4 4 (49152)
I0403 15:36:44.138671 10705 net.cpp:156] Memory required for data: 945697824
I0403 15:36:44.138691 10705 layer_factory.hpp:77] Creating layer loss1/relu_conv
I0403 15:36:44.138716 10705 net.cpp:91] Creating Layer loss1/relu_conv
I0403 15:36:44.138733 10705 net.cpp:425] loss1/relu_conv <- loss1/conv
I0403 15:36:44.138751 10705 net.cpp:386] loss1/relu_conv -> loss1/conv (in-place)
I0403 15:36:44.139034 10705 net.cpp:141] Setting up loss1/relu_conv
I0403 15:36:44.139060 10705 net.cpp:148] Top shape: 24 128 4 4 (49152)
I0403 15:36:44.139075 10705 net.cpp:156] Memory required for data: 945894432
I0403 15:36:44.139091 10705 layer_factory.hpp:77] Creating layer loss1/fc
I0403 15:36:44.139116 10705 net.cpp:91] Creating Layer loss1/fc
I0403 15:36:44.139133 10705 net.cpp:425] loss1/fc <- loss1/conv
I0403 15:36:44.139154 10705 net.cpp:399] loss1/fc -> loss1/fc
I0403 15:36:44.157152 10705 net.cpp:141] Setting up loss1/fc
I0403 15:36:44.157191 10705 net.cpp:148] Top shape: 24 1024 (24576)
I0403 15:36:44.157208 10705 net.cpp:156] Memory required for data: 945992736
I0403 15:36:44.157228 10705 layer_factory.hpp:77] Creating layer loss1/relu_fc
I0403 15:36:44.157248 10705 net.cpp:91] Creating Layer loss1/relu_fc
I0403 15:36:44.157264 10705 net.cpp:425] loss1/relu_fc <- loss1/fc
I0403 15:36:44.157285 10705 net.cpp:386] loss1/relu_fc -> loss1/fc (in-place)
I0403 15:36:44.157470 10705 net.cpp:141] Setting up loss1/relu_fc
I0403 15:36:44.157495 10705 net.cpp:148] Top shape: 24 1024 (24576)
I0403 15:36:44.157510 10705 net.cpp:156] Memory required for data: 946091040
I0403 15:36:44.157526 10705 layer_factory.hpp:77] Creating layer loss1/drop_fc
I0403 15:36:44.157552 10705 net.cpp:91] Creating Layer loss1/drop_fc
I0403 15:36:44.157570 10705 net.cpp:425] loss1/drop_fc <- loss1/fc
I0403 15:36:44.157588 10705 net.cpp:386] loss1/drop_fc -> loss1/fc (in-place)
I0403 15:36:44.157637 10705 net.cpp:141] Setting up loss1/drop_fc
I0403 15:36:44.157662 10705 net.cpp:148] Top shape: 24 1024 (24576)
I0403 15:36:44.157677 10705 net.cpp:156] Memory required for data: 946189344
I0403 15:36:44.157693 10705 layer_factory.hpp:77] Creating layer loss1/classifier_plantvillage
I0403 15:36:44.157712 10705 net.cpp:91] Creating Layer loss1/classifier_plantvillage
I0403 15:36:44.157727 10705 net.cpp:425] loss1/classifier_plantvillage <- loss1/fc
I0403 15:36:44.157748 10705 net.cpp:399] loss1/classifier_plantvillage -> loss1/classifier_plantvillage
I0403 15:36:44.158677 10705 net.cpp:141] Setting up loss1/classifier_plantvillage
I0403 15:36:44.158704 10705 net.cpp:148] Top shape: 24 38 (912)
I0403 15:36:44.158720 10705 net.cpp:156] Memory required for data: 946192992
I0403 15:36:44.158738 10705 layer_factory.hpp:77] Creating layer loss1/classifier_plantvillage_loss1/classifier_plantvillage_0_split
I0403 15:36:44.158756 10705 net.cpp:91] Creating Layer loss1/classifier_plantvillage_loss1/classifier_plantvillage_0_split
I0403 15:36:44.158772 10705 net.cpp:425] loss1/classifier_plantvillage_loss1/classifier_plantvillage_0_split <- loss1/classifier_plantvillage
I0403 15:36:44.158792 10705 net.cpp:399] loss1/classifier_plantvillage_loss1/classifier_plantvillage_0_split -> loss1/classifier_plantvillage_loss1/classifier_plantvillage_0_split_0
I0403 15:36:44.158814 10705 net.cpp:399] loss1/classifier_plantvillage_loss1/classifier_plantvillage_0_split -> loss1/classifier_plantvillage_loss1/classifier_plantvillage_0_split_1
I0403 15:36:44.158835 10705 net.cpp:399] loss1/classifier_plantvillage_loss1/classifier_plantvillage_0_split -> loss1/classifier_plantvillage_loss1/classifier_plantvillage_0_split_2
I0403 15:36:44.158905 10705 net.cpp:141] Setting up loss1/classifier_plantvillage_loss1/classifier_plantvillage_0_split
I0403 15:36:44.158928 10705 net.cpp:148] Top shape: 24 38 (912)
I0403 15:36:44.158944 10705 net.cpp:148] Top shape: 24 38 (912)
I0403 15:36:44.158964 10705 net.cpp:148] Top shape: 24 38 (912)
I0403 15:36:44.158979 10705 net.cpp:156] Memory required for data: 946203936
I0403 15:36:44.158994 10705 layer_factory.hpp:77] Creating layer inception_4b/1x1
I0403 15:36:44.159016 10705 net.cpp:91] Creating Layer inception_4b/1x1
I0403 15:36:44.159047 10705 net.cpp:425] inception_4b/1x1 <- inception_4a/output_inception_4a/output_0_split_1
I0403 15:36:44.159068 10705 net.cpp:399] inception_4b/1x1 -> inception_4b/1x1
I0403 15:36:44.160704 10705 net.cpp:141] Setting up inception_4b/1x1
I0403 15:36:44.160733 10705 net.cpp:148] Top shape: 24 160 14 14 (752640)
I0403 15:36:44.160749 10705 net.cpp:156] Memory required for data: 949214496
I0403 15:36:44.160766 10705 layer_factory.hpp:77] Creating layer inception_4b/relu_1x1
I0403 15:36:44.160786 10705 net.cpp:91] Creating Layer inception_4b/relu_1x1
I0403 15:36:44.160804 10705 net.cpp:425] inception_4b/relu_1x1 <- inception_4b/1x1
I0403 15:36:44.160820 10705 net.cpp:386] inception_4b/relu_1x1 -> inception_4b/1x1 (in-place)
I0403 15:36:44.161005 10705 net.cpp:141] Setting up inception_4b/relu_1x1
I0403 15:36:44.161032 10705 net.cpp:148] Top shape: 24 160 14 14 (752640)
I0403 15:36:44.161047 10705 net.cpp:156] Memory required for data: 952225056
I0403 15:36:44.161062 10705 layer_factory.hpp:77] Creating layer inception_4b/3x3_reduce
I0403 15:36:44.161087 10705 net.cpp:91] Creating Layer inception_4b/3x3_reduce
I0403 15:36:44.161104 10705 net.cpp:425] inception_4b/3x3_reduce <- inception_4a/output_inception_4a/output_0_split_2
I0403 15:36:44.161126 10705 net.cpp:399] inception_4b/3x3_reduce -> inception_4b/3x3_reduce
I0403 15:36:44.162477 10705 net.cpp:141] Setting up inception_4b/3x3_reduce
I0403 15:36:44.162508 10705 net.cpp:148] Top shape: 24 112 14 14 (526848)
I0403 15:36:44.162524 10705 net.cpp:156] Memory required for data: 954332448
I0403 15:36:44.162542 10705 layer_factory.hpp:77] Creating layer inception_4b/relu_3x3_reduce
I0403 15:36:44.162560 10705 net.cpp:91] Creating Layer inception_4b/relu_3x3_reduce
I0403 15:36:44.162576 10705 net.cpp:425] inception_4b/relu_3x3_reduce <- inception_4b/3x3_reduce
I0403 15:36:44.162593 10705 net.cpp:386] inception_4b/relu_3x3_reduce -> inception_4b/3x3_reduce (in-place)
I0403 15:36:44.162878 10705 net.cpp:141] Setting up inception_4b/relu_3x3_reduce
I0403 15:36:44.162906 10705 net.cpp:148] Top shape: 24 112 14 14 (526848)
I0403 15:36:44.162924 10705 net.cpp:156] Memory required for data: 956439840
I0403 15:36:44.162937 10705 layer_factory.hpp:77] Creating layer inception_4b/3x3
I0403 15:36:44.162966 10705 net.cpp:91] Creating Layer inception_4b/3x3
I0403 15:36:44.162983 10705 net.cpp:425] inception_4b/3x3 <- inception_4b/3x3_reduce
I0403 15:36:44.163003 10705 net.cpp:399] inception_4b/3x3 -> inception_4b/3x3
I0403 15:36:44.166038 10705 net.cpp:141] Setting up inception_4b/3x3
I0403 15:36:44.166066 10705 net.cpp:148] Top shape: 24 224 14 14 (1053696)
I0403 15:36:44.166082 10705 net.cpp:156] Memory required for data: 960654624
I0403 15:36:44.166100 10705 layer_factory.hpp:77] Creating layer inception_4b/relu_3x3
I0403 15:36:44.166120 10705 net.cpp:91] Creating Layer inception_4b/relu_3x3
I0403 15:36:44.166136 10705 net.cpp:425] inception_4b/relu_3x3 <- inception_4b/3x3
I0403 15:36:44.166157 10705 net.cpp:386] inception_4b/relu_3x3 -> inception_4b/3x3 (in-place)
I0403 15:36:44.166339 10705 net.cpp:141] Setting up inception_4b/relu_3x3
I0403 15:36:44.166364 10705 net.cpp:148] Top shape: 24 224 14 14 (1053696)
I0403 15:36:44.166378 10705 net.cpp:156] Memory required for data: 964869408
I0403 15:36:44.166393 10705 layer_factory.hpp:77] Creating layer inception_4b/5x5_reduce
I0403 15:36:44.166415 10705 net.cpp:91] Creating Layer inception_4b/5x5_reduce
I0403 15:36:44.166434 10705 net.cpp:425] inception_4b/5x5_reduce <- inception_4a/output_inception_4a/output_0_split_3
I0403 15:36:44.166455 10705 net.cpp:399] inception_4b/5x5_reduce -> inception_4b/5x5_reduce
I0403 15:36:44.167560 10705 net.cpp:141] Setting up inception_4b/5x5_reduce
I0403 15:36:44.167590 10705 net.cpp:148] Top shape: 24 24 14 14 (112896)
I0403 15:36:44.167606 10705 net.cpp:156] Memory required for data: 965320992
I0403 15:36:44.167624 10705 layer_factory.hpp:77] Creating layer inception_4b/relu_5x5_reduce
I0403 15:36:44.167644 10705 net.cpp:91] Creating Layer inception_4b/relu_5x5_reduce
I0403 15:36:44.167675 10705 net.cpp:425] inception_4b/relu_5x5_reduce <- inception_4b/5x5_reduce
I0403 15:36:44.167692 10705 net.cpp:386] inception_4b/relu_5x5_reduce -> inception_4b/5x5_reduce (in-place)
I0403 15:36:44.167879 10705 net.cpp:141] Setting up inception_4b/relu_5x5_reduce
I0403 15:36:44.167906 10705 net.cpp:148] Top shape: 24 24 14 14 (112896)
I0403 15:36:44.167922 10705 net.cpp:156] Memory required for data: 965772576
I0403 15:36:44.167937 10705 layer_factory.hpp:77] Creating layer inception_4b/5x5
I0403 15:36:44.167970 10705 net.cpp:91] Creating Layer inception_4b/5x5
I0403 15:36:44.167989 10705 net.cpp:425] inception_4b/5x5 <- inception_4b/5x5_reduce
I0403 15:36:44.168010 10705 net.cpp:399] inception_4b/5x5 -> inception_4b/5x5
I0403 15:36:44.169244 10705 net.cpp:141] Setting up inception_4b/5x5
I0403 15:36:44.169271 10705 net.cpp:148] Top shape: 24 64 14 14 (301056)
I0403 15:36:44.169286 10705 net.cpp:156] Memory required for data: 966976800
I0403 15:36:44.169306 10705 layer_factory.hpp:77] Creating layer inception_4b/relu_5x5
I0403 15:36:44.169325 10705 net.cpp:91] Creating Layer inception_4b/relu_5x5
I0403 15:36:44.169342 10705 net.cpp:425] inception_4b/relu_5x5 <- inception_4b/5x5
I0403 15:36:44.169359 10705 net.cpp:386] inception_4b/relu_5x5 -> inception_4b/5x5 (in-place)
I0403 15:36:44.169642 10705 net.cpp:141] Setting up inception_4b/relu_5x5
I0403 15:36:44.169669 10705 net.cpp:148] Top shape: 24 64 14 14 (301056)
I0403 15:36:44.169684 10705 net.cpp:156] Memory required for data: 968181024
I0403 15:36:44.169698 10705 layer_factory.hpp:77] Creating layer inception_4b/pool
I0403 15:36:44.169718 10705 net.cpp:91] Creating Layer inception_4b/pool
I0403 15:36:44.169736 10705 net.cpp:425] inception_4b/pool <- inception_4a/output_inception_4a/output_0_split_4
I0403 15:36:44.169754 10705 net.cpp:399] inception_4b/pool -> inception_4b/pool
I0403 15:36:44.169818 10705 net.cpp:141] Setting up inception_4b/pool
I0403 15:36:44.169842 10705 net.cpp:148] Top shape: 24 512 14 14 (2408448)
I0403 15:36:44.169857 10705 net.cpp:156] Memory required for data: 977814816
I0403 15:36:44.169872 10705 layer_factory.hpp:77] Creating layer inception_4b/pool_proj
I0403 15:36:44.169893 10705 net.cpp:91] Creating Layer inception_4b/pool_proj
I0403 15:36:44.169911 10705 net.cpp:425] inception_4b/pool_proj <- inception_4b/pool
I0403 15:36:44.169934 10705 net.cpp:399] inception_4b/pool_proj -> inception_4b/pool_proj
I0403 15:36:44.171145 10705 net.cpp:141] Setting up inception_4b/pool_proj
I0403 15:36:44.171172 10705 net.cpp:148] Top shape: 24 64 14 14 (301056)
I0403 15:36:44.171187 10705 net.cpp:156] Memory required for data: 979019040
I0403 15:36:44.171205 10705 layer_factory.hpp:77] Creating layer inception_4b/relu_pool_proj
I0403 15:36:44.171226 10705 net.cpp:91] Creating Layer inception_4b/relu_pool_proj
I0403 15:36:44.171242 10705 net.cpp:425] inception_4b/relu_pool_proj <- inception_4b/pool_proj
I0403 15:36:44.171260 10705 net.cpp:386] inception_4b/relu_pool_proj -> inception_4b/pool_proj (in-place)
I0403 15:36:44.171442 10705 net.cpp:141] Setting up inception_4b/relu_pool_proj
I0403 15:36:44.171468 10705 net.cpp:148] Top shape: 24 64 14 14 (301056)
I0403 15:36:44.171483 10705 net.cpp:156] Memory required for data: 980223264
I0403 15:36:44.171496 10705 layer_factory.hpp:77] Creating layer inception_4b/output
I0403 15:36:44.171514 10705 net.cpp:91] Creating Layer inception_4b/output
I0403 15:36:44.171530 10705 net.cpp:425] inception_4b/output <- inception_4b/1x1
I0403 15:36:44.171546 10705 net.cpp:425] inception_4b/output <- inception_4b/3x3
I0403 15:36:44.171562 10705 net.cpp:425] inception_4b/output <- inception_4b/5x5
I0403 15:36:44.171578 10705 net.cpp:425] inception_4b/output <- inception_4b/pool_proj
I0403 15:36:44.171597 10705 net.cpp:399] inception_4b/output -> inception_4b/output
I0403 15:36:44.171641 10705 net.cpp:141] Setting up inception_4b/output
I0403 15:36:44.171666 10705 net.cpp:148] Top shape: 24 512 14 14 (2408448)
I0403 15:36:44.171682 10705 net.cpp:156] Memory required for data: 989857056
I0403 15:36:44.171711 10705 layer_factory.hpp:77] Creating layer inception_4b/output_inception_4b/output_0_split
I0403 15:36:44.171730 10705 net.cpp:91] Creating Layer inception_4b/output_inception_4b/output_0_split
I0403 15:36:44.171746 10705 net.cpp:425] inception_4b/output_inception_4b/output_0_split <- inception_4b/output
I0403 15:36:44.171763 10705 net.cpp:399] inception_4b/output_inception_4b/output_0_split -> inception_4b/output_inception_4b/output_0_split_0
I0403 15:36:44.171783 10705 net.cpp:399] inception_4b/output_inception_4b/output_0_split -> inception_4b/output_inception_4b/output_0_split_1
I0403 15:36:44.171808 10705 net.cpp:399] inception_4b/output_inception_4b/output_0_split -> inception_4b/output_inception_4b/output_0_split_2
I0403 15:36:44.171830 10705 net.cpp:399] inception_4b/output_inception_4b/output_0_split -> inception_4b/output_inception_4b/output_0_split_3
I0403 15:36:44.171916 10705 net.cpp:141] Setting up inception_4b/output_inception_4b/output_0_split
I0403 15:36:44.171939 10705 net.cpp:148] Top shape: 24 512 14 14 (2408448)
I0403 15:36:44.171960 10705 net.cpp:148] Top shape: 24 512 14 14 (2408448)
I0403 15:36:44.171977 10705 net.cpp:148] Top shape: 24 512 14 14 (2408448)
I0403 15:36:44.171993 10705 net.cpp:148] Top shape: 24 512 14 14 (2408448)
I0403 15:36:44.172006 10705 net.cpp:156] Memory required for data: 1028392224
I0403 15:36:44.172021 10705 layer_factory.hpp:77] Creating layer inception_4c/1x1
I0403 15:36:44.172042 10705 net.cpp:91] Creating Layer inception_4c/1x1
I0403 15:36:44.172060 10705 net.cpp:425] inception_4c/1x1 <- inception_4b/output_inception_4b/output_0_split_0
I0403 15:36:44.172081 10705 net.cpp:399] inception_4c/1x1 -> inception_4c/1x1
I0403 15:36:44.173513 10705 net.cpp:141] Setting up inception_4c/1x1
I0403 15:36:44.173540 10705 net.cpp:148] Top shape: 24 128 14 14 (602112)
I0403 15:36:44.173557 10705 net.cpp:156] Memory required for data: 1030800672
I0403 15:36:44.173573 10705 layer_factory.hpp:77] Creating layer inception_4c/relu_1x1
I0403 15:36:44.173591 10705 net.cpp:91] Creating Layer inception_4c/relu_1x1
I0403 15:36:44.173609 10705 net.cpp:425] inception_4c/relu_1x1 <- inception_4c/1x1
I0403 15:36:44.173627 10705 net.cpp:386] inception_4c/relu_1x1 -> inception_4c/1x1 (in-place)
I0403 15:36:44.173815 10705 net.cpp:141] Setting up inception_4c/relu_1x1
I0403 15:36:44.173840 10705 net.cpp:148] Top shape: 24 128 14 14 (602112)
I0403 15:36:44.173853 10705 net.cpp:156] Memory required for data: 1033209120
I0403 15:36:44.173867 10705 layer_factory.hpp:77] Creating layer inception_4c/3x3_reduce
I0403 15:36:44.173889 10705 net.cpp:91] Creating Layer inception_4c/3x3_reduce
I0403 15:36:44.173907 10705 net.cpp:425] inception_4c/3x3_reduce <- inception_4b/output_inception_4b/output_0_split_1
I0403 15:36:44.173930 10705 net.cpp:399] inception_4c/3x3_reduce -> inception_4c/3x3_reduce
I0403 15:36:44.175890 10705 net.cpp:141] Setting up inception_4c/3x3_reduce
I0403 15:36:44.175918 10705 net.cpp:148] Top shape: 24 128 14 14 (602112)
I0403 15:36:44.175935 10705 net.cpp:156] Memory required for data: 1035617568
I0403 15:36:44.175957 10705 layer_factory.hpp:77] Creating layer inception_4c/relu_3x3_reduce
I0403 15:36:44.175978 10705 net.cpp:91] Creating Layer inception_4c/relu_3x3_reduce
I0403 15:36:44.175997 10705 net.cpp:425] inception_4c/relu_3x3_reduce <- inception_4c/3x3_reduce
I0403 15:36:44.176013 10705 net.cpp:386] inception_4c/relu_3x3_reduce -> inception_4c/3x3_reduce (in-place)
I0403 15:36:44.176301 10705 net.cpp:141] Setting up inception_4c/relu_3x3_reduce
I0403 15:36:44.176327 10705 net.cpp:148] Top shape: 24 128 14 14 (602112)
I0403 15:36:44.176342 10705 net.cpp:156] Memory required for data: 1038026016
I0403 15:36:44.176357 10705 layer_factory.hpp:77] Creating layer inception_4c/3x3
I0403 15:36:44.176380 10705 net.cpp:91] Creating Layer inception_4c/3x3
I0403 15:36:44.176398 10705 net.cpp:425] inception_4c/3x3 <- inception_4c/3x3_reduce
I0403 15:36:44.176420 10705 net.cpp:399] inception_4c/3x3 -> inception_4c/3x3
I0403 15:36:44.180104 10705 net.cpp:141] Setting up inception_4c/3x3
I0403 15:36:44.180145 10705 net.cpp:148] Top shape: 24 256 14 14 (1204224)
I0403 15:36:44.180161 10705 net.cpp:156] Memory required for data: 1042842912
I0403 15:36:44.180193 10705 layer_factory.hpp:77] Creating layer inception_4c/relu_3x3
I0403 15:36:44.180217 10705 net.cpp:91] Creating Layer inception_4c/relu_3x3
I0403 15:36:44.180233 10705 net.cpp:425] inception_4c/relu_3x3 <- inception_4c/3x3
I0403 15:36:44.180250 10705 net.cpp:386] inception_4c/relu_3x3 -> inception_4c/3x3 (in-place)
I0403 15:36:44.180433 10705 net.cpp:141] Setting up inception_4c/relu_3x3
I0403 15:36:44.180460 10705 net.cpp:148] Top shape: 24 256 14 14 (1204224)
I0403 15:36:44.180475 10705 net.cpp:156] Memory required for data: 1047659808
I0403 15:36:44.180490 10705 layer_factory.hpp:77] Creating layer inception_4c/5x5_reduce
I0403 15:36:44.180513 10705 net.cpp:91] Creating Layer inception_4c/5x5_reduce
I0403 15:36:44.180531 10705 net.cpp:425] inception_4c/5x5_reduce <- inception_4b/output_inception_4b/output_0_split_2
I0403 15:36:44.180549 10705 net.cpp:399] inception_4c/5x5_reduce -> inception_4c/5x5_reduce
I0403 15:36:44.181660 10705 net.cpp:141] Setting up inception_4c/5x5_reduce
I0403 15:36:44.181691 10705 net.cpp:148] Top shape: 24 24 14 14 (112896)
I0403 15:36:44.181707 10705 net.cpp:156] Memory required for data: 1048111392
I0403 15:36:44.181726 10705 layer_factory.hpp:77] Creating layer inception_4c/relu_5x5_reduce
I0403 15:36:44.181745 10705 net.cpp:91] Creating Layer inception_4c/relu_5x5_reduce
I0403 15:36:44.181761 10705 net.cpp:425] inception_4c/relu_5x5_reduce <- inception_4c/5x5_reduce
I0403 15:36:44.181777 10705 net.cpp:386] inception_4c/relu_5x5_reduce -> inception_4c/5x5_reduce (in-place)
I0403 15:36:44.181977 10705 net.cpp:141] Setting up inception_4c/relu_5x5_reduce
I0403 15:36:44.182018 10705 net.cpp:148] Top shape: 24 24 14 14 (112896)
I0403 15:36:44.182034 10705 net.cpp:156] Memory required for data: 1048562976
I0403 15:36:44.182049 10705 layer_factory.hpp:77] Creating layer inception_4c/5x5
I0403 15:36:44.182071 10705 net.cpp:91] Creating Layer inception_4c/5x5
I0403 15:36:44.182090 10705 net.cpp:425] inception_4c/5x5 <- inception_4c/5x5_reduce
I0403 15:36:44.182109 10705 net.cpp:399] inception_4c/5x5 -> inception_4c/5x5
I0403 15:36:44.183373 10705 net.cpp:141] Setting up inception_4c/5x5
I0403 15:36:44.183401 10705 net.cpp:148] Top shape: 24 64 14 14 (301056)
I0403 15:36:44.183416 10705 net.cpp:156] Memory required for data: 1049767200
I0403 15:36:44.183435 10705 layer_factory.hpp:77] Creating layer inception_4c/relu_5x5
I0403 15:36:44.183454 10705 net.cpp:91] Creating Layer inception_4c/relu_5x5
I0403 15:36:44.183470 10705 net.cpp:425] inception_4c/relu_5x5 <- inception_4c/5x5
I0403 15:36:44.183490 10705 net.cpp:386] inception_4c/relu_5x5 -> inception_4c/5x5 (in-place)
I0403 15:36:44.183781 10705 net.cpp:141] Setting up inception_4c/relu_5x5
I0403 15:36:44.183809 10705 net.cpp:148] Top shape: 24 64 14 14 (301056)
I0403 15:36:44.183823 10705 net.cpp:156] Memory required for data: 1050971424
I0403 15:36:44.183838 10705 layer_factory.hpp:77] Creating layer inception_4c/pool
I0403 15:36:44.183856 10705 net.cpp:91] Creating Layer inception_4c/pool
I0403 15:36:44.183872 10705 net.cpp:425] inception_4c/pool <- inception_4b/output_inception_4b/output_0_split_3
I0403 15:36:44.183892 10705 net.cpp:399] inception_4c/pool -> inception_4c/pool
I0403 15:36:44.183964 10705 net.cpp:141] Setting up inception_4c/pool
I0403 15:36:44.183989 10705 net.cpp:148] Top shape: 24 512 14 14 (2408448)
I0403 15:36:44.184002 10705 net.cpp:156] Memory required for data: 1060605216
I0403 15:36:44.184017 10705 layer_factory.hpp:77] Creating layer inception_4c/pool_proj
I0403 15:36:44.184041 10705 net.cpp:91] Creating Layer inception_4c/pool_proj
I0403 15:36:44.184059 10705 net.cpp:425] inception_4c/pool_proj <- inception_4c/pool
I0403 15:36:44.184078 10705 net.cpp:399] inception_4c/pool_proj -> inception_4c/pool_proj
I0403 15:36:44.185310 10705 net.cpp:141] Setting up inception_4c/pool_proj
I0403 15:36:44.185338 10705 net.cpp:148] Top shape: 24 64 14 14 (301056)
I0403 15:36:44.185366 10705 net.cpp:156] Memory required for data: 1061809440
I0403 15:36:44.185386 10705 layer_factory.hpp:77] Creating layer inception_4c/relu_pool_proj
I0403 15:36:44.185407 10705 net.cpp:91] Creating Layer inception_4c/relu_pool_proj
I0403 15:36:44.185425 10705 net.cpp:425] inception_4c/relu_pool_proj <- inception_4c/pool_proj
I0403 15:36:44.185442 10705 net.cpp:386] inception_4c/relu_pool_proj -> inception_4c/pool_proj (in-place)
I0403 15:36:44.185633 10705 net.cpp:141] Setting up inception_4c/relu_pool_proj
I0403 15:36:44.185658 10705 net.cpp:148] Top shape: 24 64 14 14 (301056)
I0403 15:36:44.185673 10705 net.cpp:156] Memory required for data: 1063013664
I0403 15:36:44.185688 10705 layer_factory.hpp:77] Creating layer inception_4c/output
I0403 15:36:44.185705 10705 net.cpp:91] Creating Layer inception_4c/output
I0403 15:36:44.185721 10705 net.cpp:425] inception_4c/output <- inception_4c/1x1
I0403 15:36:44.185737 10705 net.cpp:425] inception_4c/output <- inception_4c/3x3
I0403 15:36:44.185753 10705 net.cpp:425] inception_4c/output <- inception_4c/5x5
I0403 15:36:44.185770 10705 net.cpp:425] inception_4c/output <- inception_4c/pool_proj
I0403 15:36:44.185788 10705 net.cpp:399] inception_4c/output -> inception_4c/output
I0403 15:36:44.185835 10705 net.cpp:141] Setting up inception_4c/output
I0403 15:36:44.185861 10705 net.cpp:148] Top shape: 24 512 14 14 (2408448)
I0403 15:36:44.185878 10705 net.cpp:156] Memory required for data: 1072647456
I0403 15:36:44.185891 10705 layer_factory.hpp:77] Creating layer inception_4c/output_inception_4c/output_0_split
I0403 15:36:44.185909 10705 net.cpp:91] Creating Layer inception_4c/output_inception_4c/output_0_split
I0403 15:36:44.185925 10705 net.cpp:425] inception_4c/output_inception_4c/output_0_split <- inception_4c/output
I0403 15:36:44.185943 10705 net.cpp:399] inception_4c/output_inception_4c/output_0_split -> inception_4c/output_inception_4c/output_0_split_0
I0403 15:36:44.185968 10705 net.cpp:399] inception_4c/output_inception_4c/output_0_split -> inception_4c/output_inception_4c/output_0_split_1
I0403 15:36:44.185988 10705 net.cpp:399] inception_4c/output_inception_4c/output_0_split -> inception_4c/output_inception_4c/output_0_split_2
I0403 15:36:44.186012 10705 net.cpp:399] inception_4c/output_inception_4c/output_0_split -> inception_4c/output_inception_4c/output_0_split_3
I0403 15:36:44.186101 10705 net.cpp:141] Setting up inception_4c/output_inception_4c/output_0_split
I0403 15:36:44.186125 10705 net.cpp:148] Top shape: 24 512 14 14 (2408448)
I0403 15:36:44.186141 10705 net.cpp:148] Top shape: 24 512 14 14 (2408448)
I0403 15:36:44.186156 10705 net.cpp:148] Top shape: 24 512 14 14 (2408448)
I0403 15:36:44.186172 10705 net.cpp:148] Top shape: 24 512 14 14 (2408448)
I0403 15:36:44.186184 10705 net.cpp:156] Memory required for data: 1111182624
I0403 15:36:44.186199 10705 layer_factory.hpp:77] Creating layer inception_4d/1x1
I0403 15:36:44.186220 10705 net.cpp:91] Creating Layer inception_4d/1x1
I0403 15:36:44.186239 10705 net.cpp:425] inception_4d/1x1 <- inception_4c/output_inception_4c/output_0_split_0
I0403 15:36:44.186260 10705 net.cpp:399] inception_4d/1x1 -> inception_4d/1x1
I0403 15:36:44.187656 10705 net.cpp:141] Setting up inception_4d/1x1
I0403 15:36:44.187685 10705 net.cpp:148] Top shape: 24 112 14 14 (526848)
I0403 15:36:44.187700 10705 net.cpp:156] Memory required for data: 1113290016
I0403 15:36:44.187718 10705 layer_factory.hpp:77] Creating layer inception_4d/relu_1x1
I0403 15:36:44.187738 10705 net.cpp:91] Creating Layer inception_4d/relu_1x1
I0403 15:36:44.187757 10705 net.cpp:425] inception_4d/relu_1x1 <- inception_4d/1x1
I0403 15:36:44.187773 10705 net.cpp:386] inception_4d/relu_1x1 -> inception_4d/1x1 (in-place)
I0403 15:36:44.187970 10705 net.cpp:141] Setting up inception_4d/relu_1x1
I0403 15:36:44.187999 10705 net.cpp:148] Top shape: 24 112 14 14 (526848)
I0403 15:36:44.188014 10705 net.cpp:156] Memory required for data: 1115397408
I0403 15:36:44.188030 10705 layer_factory.hpp:77] Creating layer inception_4d/3x3_reduce
I0403 15:36:44.188063 10705 net.cpp:91] Creating Layer inception_4d/3x3_reduce
I0403 15:36:44.188081 10705 net.cpp:425] inception_4d/3x3_reduce <- inception_4c/output_inception_4c/output_0_split_1
I0403 15:36:44.188103 10705 net.cpp:399] inception_4d/3x3_reduce -> inception_4d/3x3_reduce
I0403 15:36:44.189628 10705 net.cpp:141] Setting up inception_4d/3x3_reduce
I0403 15:36:44.189656 10705 net.cpp:148] Top shape: 24 144 14 14 (677376)
I0403 15:36:44.189671 10705 net.cpp:156] Memory required for data: 1118106912
I0403 15:36:44.189689 10705 layer_factory.hpp:77] Creating layer inception_4d/relu_3x3_reduce
I0403 15:36:44.189707 10705 net.cpp:91] Creating Layer inception_4d/relu_3x3_reduce
I0403 15:36:44.189724 10705 net.cpp:425] inception_4d/relu_3x3_reduce <- inception_4d/3x3_reduce
I0403 15:36:44.189743 10705 net.cpp:386] inception_4d/relu_3x3_reduce -> inception_4d/3x3_reduce (in-place)
I0403 15:36:44.190043 10705 net.cpp:141] Setting up inception_4d/relu_3x3_reduce
I0403 15:36:44.190070 10705 net.cpp:148] Top shape: 24 144 14 14 (677376)
I0403 15:36:44.190085 10705 net.cpp:156] Memory required for data: 1120816416
I0403 15:36:44.190100 10705 layer_factory.hpp:77] Creating layer inception_4d/3x3
I0403 15:36:44.190122 10705 net.cpp:91] Creating Layer inception_4d/3x3
I0403 15:36:44.190140 10705 net.cpp:425] inception_4d/3x3 <- inception_4d/3x3_reduce
I0403 15:36:44.190161 10705 net.cpp:399] inception_4d/3x3 -> inception_4d/3x3
I0403 15:36:44.194427 10705 net.cpp:141] Setting up inception_4d/3x3
I0403 15:36:44.194454 10705 net.cpp:148] Top shape: 24 288 14 14 (1354752)
I0403 15:36:44.194469 10705 net.cpp:156] Memory required for data: 1126235424
I0403 15:36:44.194488 10705 layer_factory.hpp:77] Creating layer inception_4d/relu_3x3
I0403 15:36:44.194507 10705 net.cpp:91] Creating Layer inception_4d/relu_3x3
I0403 15:36:44.194525 10705 net.cpp:425] inception_4d/relu_3x3 <- inception_4d/3x3
I0403 15:36:44.194541 10705 net.cpp:386] inception_4d/relu_3x3 -> inception_4d/3x3 (in-place)
I0403 15:36:44.194725 10705 net.cpp:141] Setting up inception_4d/relu_3x3
I0403 15:36:44.194749 10705 net.cpp:148] Top shape: 24 288 14 14 (1354752)
I0403 15:36:44.194764 10705 net.cpp:156] Memory required for data: 1131654432
I0403 15:36:44.194778 10705 layer_factory.hpp:77] Creating layer inception_4d/5x5_reduce
I0403 15:36:44.194802 10705 net.cpp:91] Creating Layer inception_4d/5x5_reduce
I0403 15:36:44.194818 10705 net.cpp:425] inception_4d/5x5_reduce <- inception_4c/output_inception_4c/output_0_split_2
I0403 15:36:44.194836 10705 net.cpp:399] inception_4d/5x5_reduce -> inception_4d/5x5_reduce
I0403 15:36:44.196007 10705 net.cpp:141] Setting up inception_4d/5x5_reduce
I0403 15:36:44.196033 10705 net.cpp:148] Top shape: 24 32 14 14 (150528)
I0403 15:36:44.196049 10705 net.cpp:156] Memory required for data: 1132256544
I0403 15:36:44.196066 10705 layer_factory.hpp:77] Creating layer inception_4d/relu_5x5_reduce
I0403 15:36:44.196087 10705 net.cpp:91] Creating Layer inception_4d/relu_5x5_reduce
I0403 15:36:44.196105 10705 net.cpp:425] inception_4d/relu_5x5_reduce <- inception_4d/5x5_reduce
I0403 15:36:44.196121 10705 net.cpp:386] inception_4d/relu_5x5_reduce -> inception_4d/5x5_reduce (in-place)
I0403 15:36:44.196305 10705 net.cpp:141] Setting up inception_4d/relu_5x5_reduce
I0403 15:36:44.196332 10705 net.cpp:148] Top shape: 24 32 14 14 (150528)
I0403 15:36:44.196347 10705 net.cpp:156] Memory required for data: 1132858656
I0403 15:36:44.196362 10705 layer_factory.hpp:77] Creating layer inception_4d/5x5
I0403 15:36:44.196383 10705 net.cpp:91] Creating Layer inception_4d/5x5
I0403 15:36:44.196400 10705 net.cpp:425] inception_4d/5x5 <- inception_4d/5x5_reduce
I0403 15:36:44.196419 10705 net.cpp:399] inception_4d/5x5 -> inception_4d/5x5
I0403 15:36:44.197882 10705 net.cpp:141] Setting up inception_4d/5x5
I0403 15:36:44.197911 10705 net.cpp:148] Top shape: 24 64 14 14 (301056)
I0403 15:36:44.197928 10705 net.cpp:156] Memory required for data: 1134062880
I0403 15:36:44.197955 10705 layer_factory.hpp:77] Creating layer inception_4d/relu_5x5
I0403 15:36:44.197989 10705 net.cpp:91] Creating Layer inception_4d/relu_5x5
I0403 15:36:44.198006 10705 net.cpp:425] inception_4d/relu_5x5 <- inception_4d/5x5
I0403 15:36:44.198024 10705 net.cpp:386] inception_4d/relu_5x5 -> inception_4d/5x5 (in-place)
I0403 15:36:44.198323 10705 net.cpp:141] Setting up inception_4d/relu_5x5
I0403 15:36:44.198350 10705 net.cpp:148] Top shape: 24 64 14 14 (301056)
I0403 15:36:44.198366 10705 net.cpp:156] Memory required for data: 1135267104
I0403 15:36:44.198380 10705 layer_factory.hpp:77] Creating layer inception_4d/pool
I0403 15:36:44.198397 10705 net.cpp:91] Creating Layer inception_4d/pool
I0403 15:36:44.198415 10705 net.cpp:425] inception_4d/pool <- inception_4c/output_inception_4c/output_0_split_3
I0403 15:36:44.198436 10705 net.cpp:399] inception_4d/pool -> inception_4d/pool
I0403 15:36:44.198501 10705 net.cpp:141] Setting up inception_4d/pool
I0403 15:36:44.198524 10705 net.cpp:148] Top shape: 24 512 14 14 (2408448)
I0403 15:36:44.198539 10705 net.cpp:156] Memory required for data: 1144900896
I0403 15:36:44.198554 10705 layer_factory.hpp:77] Creating layer inception_4d/pool_proj
I0403 15:36:44.198575 10705 net.cpp:91] Creating Layer inception_4d/pool_proj
I0403 15:36:44.198592 10705 net.cpp:425] inception_4d/pool_proj <- inception_4d/pool
I0403 15:36:44.198612 10705 net.cpp:399] inception_4d/pool_proj -> inception_4d/pool_proj
I0403 15:36:44.200393 10705 net.cpp:141] Setting up inception_4d/pool_proj
I0403 15:36:44.200422 10705 net.cpp:148] Top shape: 24 64 14 14 (301056)
I0403 15:36:44.200436 10705 net.cpp:156] Memory required for data: 1146105120
I0403 15:36:44.200455 10705 layer_factory.hpp:77] Creating layer inception_4d/relu_pool_proj
I0403 15:36:44.200475 10705 net.cpp:91] Creating Layer inception_4d/relu_pool_proj
I0403 15:36:44.200492 10705 net.cpp:425] inception_4d/relu_pool_proj <- inception_4d/pool_proj
I0403 15:36:44.200510 10705 net.cpp:386] inception_4d/relu_pool_proj -> inception_4d/pool_proj (in-place)
I0403 15:36:44.200696 10705 net.cpp:141] Setting up inception_4d/relu_pool_proj
I0403 15:36:44.200721 10705 net.cpp:148] Top shape: 24 64 14 14 (301056)
I0403 15:36:44.200734 10705 net.cpp:156] Memory required for data: 1147309344
I0403 15:36:44.200748 10705 layer_factory.hpp:77] Creating layer inception_4d/output
I0403 15:36:44.200767 10705 net.cpp:91] Creating Layer inception_4d/output
I0403 15:36:44.200783 10705 net.cpp:425] inception_4d/output <- inception_4d/1x1
I0403 15:36:44.200798 10705 net.cpp:425] inception_4d/output <- inception_4d/3x3
I0403 15:36:44.200814 10705 net.cpp:425] inception_4d/output <- inception_4d/5x5
I0403 15:36:44.200830 10705 net.cpp:425] inception_4d/output <- inception_4d/pool_proj
I0403 15:36:44.200846 10705 net.cpp:399] inception_4d/output -> inception_4d/output
I0403 15:36:44.200894 10705 net.cpp:141] Setting up inception_4d/output
I0403 15:36:44.200917 10705 net.cpp:148] Top shape: 24 528 14 14 (2483712)
I0403 15:36:44.200932 10705 net.cpp:156] Memory required for data: 1157244192
I0403 15:36:44.200945 10705 layer_factory.hpp:77] Creating layer inception_4d/output_inception_4d/output_0_split
I0403 15:36:44.200968 10705 net.cpp:91] Creating Layer inception_4d/output_inception_4d/output_0_split
I0403 15:36:44.200984 10705 net.cpp:425] inception_4d/output_inception_4d/output_0_split <- inception_4d/output
I0403 15:36:44.201002 10705 net.cpp:399] inception_4d/output_inception_4d/output_0_split -> inception_4d/output_inception_4d/output_0_split_0
I0403 15:36:44.201025 10705 net.cpp:399] inception_4d/output_inception_4d/output_0_split -> inception_4d/output_inception_4d/output_0_split_1
I0403 15:36:44.201045 10705 net.cpp:399] inception_4d/output_inception_4d/output_0_split -> inception_4d/output_inception_4d/output_0_split_2
I0403 15:36:44.201069 10705 net.cpp:399] inception_4d/output_inception_4d/output_0_split -> inception_4d/output_inception_4d/output_0_split_3
I0403 15:36:44.201089 10705 net.cpp:399] inception_4d/output_inception_4d/output_0_split -> inception_4d/output_inception_4d/output_0_split_4
I0403 15:36:44.201190 10705 net.cpp:141] Setting up inception_4d/output_inception_4d/output_0_split
I0403 15:36:44.201225 10705 net.cpp:148] Top shape: 24 528 14 14 (2483712)
I0403 15:36:44.201241 10705 net.cpp:148] Top shape: 24 528 14 14 (2483712)
I0403 15:36:44.201256 10705 net.cpp:148] Top shape: 24 528 14 14 (2483712)
I0403 15:36:44.201272 10705 net.cpp:148] Top shape: 24 528 14 14 (2483712)
I0403 15:36:44.201285 10705 net.cpp:148] Top shape: 24 528 14 14 (2483712)
I0403 15:36:44.201299 10705 net.cpp:156] Memory required for data: 1206918432
I0403 15:36:44.201314 10705 layer_factory.hpp:77] Creating layer loss2/ave_pool
I0403 15:36:44.201331 10705 net.cpp:91] Creating Layer loss2/ave_pool
I0403 15:36:44.201347 10705 net.cpp:425] loss2/ave_pool <- inception_4d/output_inception_4d/output_0_split_0
I0403 15:36:44.201367 10705 net.cpp:399] loss2/ave_pool -> loss2/ave_pool
I0403 15:36:44.201673 10705 net.cpp:141] Setting up loss2/ave_pool
I0403 15:36:44.201697 10705 net.cpp:148] Top shape: 24 528 4 4 (202752)
I0403 15:36:44.201712 10705 net.cpp:156] Memory required for data: 1207729440
I0403 15:36:44.201727 10705 layer_factory.hpp:77] Creating layer loss2/conv
I0403 15:36:44.201748 10705 net.cpp:91] Creating Layer loss2/conv
I0403 15:36:44.201766 10705 net.cpp:425] loss2/conv <- loss2/ave_pool
I0403 15:36:44.201786 10705 net.cpp:399] loss2/conv -> loss2/conv
I0403 15:36:44.203654 10705 net.cpp:141] Setting up loss2/conv
I0403 15:36:44.203685 10705 net.cpp:148] Top shape: 24 128 4 4 (49152)
I0403 15:36:44.203701 10705 net.cpp:156] Memory required for data: 1207926048
I0403 15:36:44.203718 10705 layer_factory.hpp:77] Creating layer loss2/relu_conv
I0403 15:36:44.203735 10705 net.cpp:91] Creating Layer loss2/relu_conv
I0403 15:36:44.203752 10705 net.cpp:425] loss2/relu_conv <- loss2/conv
I0403 15:36:44.203770 10705 net.cpp:386] loss2/relu_conv -> loss2/conv (in-place)
I0403 15:36:44.204054 10705 net.cpp:141] Setting up loss2/relu_conv
I0403 15:36:44.204082 10705 net.cpp:148] Top shape: 24 128 4 4 (49152)
I0403 15:36:44.204097 10705 net.cpp:156] Memory required for data: 1208122656
I0403 15:36:44.204112 10705 layer_factory.hpp:77] Creating layer loss2/fc
I0403 15:36:44.204129 10705 net.cpp:91] Creating Layer loss2/fc
I0403 15:36:44.204145 10705 net.cpp:425] loss2/fc <- loss2/conv
I0403 15:36:44.204167 10705 net.cpp:399] loss2/fc -> loss2/fc
I0403 15:36:44.221411 10705 net.cpp:141] Setting up loss2/fc
I0403 15:36:44.221444 10705 net.cpp:148] Top shape: 24 1024 (24576)
I0403 15:36:44.221462 10705 net.cpp:156] Memory required for data: 1208220960
I0403 15:36:44.221479 10705 layer_factory.hpp:77] Creating layer loss2/relu_fc
I0403 15:36:44.221500 10705 net.cpp:91] Creating Layer loss2/relu_fc
I0403 15:36:44.221518 10705 net.cpp:425] loss2/relu_fc <- loss2/fc
I0403 15:36:44.221535 10705 net.cpp:386] loss2/relu_fc -> loss2/fc (in-place)
I0403 15:36:44.221829 10705 net.cpp:141] Setting up loss2/relu_fc
I0403 15:36:44.221854 10705 net.cpp:148] Top shape: 24 1024 (24576)
I0403 15:36:44.221869 10705 net.cpp:156] Memory required for data: 1208319264
I0403 15:36:44.221884 10705 layer_factory.hpp:77] Creating layer loss2/drop_fc
I0403 15:36:44.221902 10705 net.cpp:91] Creating Layer loss2/drop_fc
I0403 15:36:44.221920 10705 net.cpp:425] loss2/drop_fc <- loss2/fc
I0403 15:36:44.221938 10705 net.cpp:386] loss2/drop_fc -> loss2/fc (in-place)
I0403 15:36:44.221992 10705 net.cpp:141] Setting up loss2/drop_fc
I0403 15:36:44.222014 10705 net.cpp:148] Top shape: 24 1024 (24576)
I0403 15:36:44.222028 10705 net.cpp:156] Memory required for data: 1208417568
I0403 15:36:44.222043 10705 layer_factory.hpp:77] Creating layer loss2/classifier_plantvillage
I0403 15:36:44.222060 10705 net.cpp:91] Creating Layer loss2/classifier_plantvillage
I0403 15:36:44.222075 10705 net.cpp:425] loss2/classifier_plantvillage <- loss2/fc
I0403 15:36:44.222096 10705 net.cpp:399] loss2/classifier_plantvillage -> loss2/classifier_plantvillage
I0403 15:36:44.222496 10705 net.cpp:141] Setting up loss2/classifier_plantvillage
I0403 15:36:44.222519 10705 net.cpp:148] Top shape: 24 38 (912)
I0403 15:36:44.222549 10705 net.cpp:156] Memory required for data: 1208421216
I0403 15:36:44.222568 10705 layer_factory.hpp:77] Creating layer loss2/classifier_plantvillage_loss2/classifier_plantvillage_0_split
I0403 15:36:44.222585 10705 net.cpp:91] Creating Layer loss2/classifier_plantvillage_loss2/classifier_plantvillage_0_split
I0403 15:36:44.222602 10705 net.cpp:425] loss2/classifier_plantvillage_loss2/classifier_plantvillage_0_split <- loss2/classifier_plantvillage
I0403 15:36:44.222621 10705 net.cpp:399] loss2/classifier_plantvillage_loss2/classifier_plantvillage_0_split -> loss2/classifier_plantvillage_loss2/classifier_plantvillage_0_split_0
I0403 15:36:44.222641 10705 net.cpp:399] loss2/classifier_plantvillage_loss2/classifier_plantvillage_0_split -> loss2/classifier_plantvillage_loss2/classifier_plantvillage_0_split_1
I0403 15:36:44.222661 10705 net.cpp:399] loss2/classifier_plantvillage_loss2/classifier_plantvillage_0_split -> loss2/classifier_plantvillage_loss2/classifier_plantvillage_0_split_2
I0403 15:36:44.222736 10705 net.cpp:141] Setting up loss2/classifier_plantvillage_loss2/classifier_plantvillage_0_split
I0403 15:36:44.222759 10705 net.cpp:148] Top shape: 24 38 (912)
I0403 15:36:44.222774 10705 net.cpp:148] Top shape: 24 38 (912)
I0403 15:36:44.222790 10705 net.cpp:148] Top shape: 24 38 (912)
I0403 15:36:44.222802 10705 net.cpp:156] Memory required for data: 1208432160
I0403 15:36:44.222815 10705 layer_factory.hpp:77] Creating layer inception_4e/1x1
I0403 15:36:44.222837 10705 net.cpp:91] Creating Layer inception_4e/1x1
I0403 15:36:44.222854 10705 net.cpp:425] inception_4e/1x1 <- inception_4d/output_inception_4d/output_0_split_1
I0403 15:36:44.222873 10705 net.cpp:399] inception_4e/1x1 -> inception_4e/1x1
I0403 15:36:44.224654 10705 net.cpp:141] Setting up inception_4e/1x1
I0403 15:36:44.224681 10705 net.cpp:148] Top shape: 24 256 14 14 (1204224)
I0403 15:36:44.224696 10705 net.cpp:156] Memory required for data: 1213249056
I0403 15:36:44.224714 10705 layer_factory.hpp:77] Creating layer inception_4e/relu_1x1
I0403 15:36:44.224732 10705 net.cpp:91] Creating Layer inception_4e/relu_1x1
I0403 15:36:44.224748 10705 net.cpp:425] inception_4e/relu_1x1 <- inception_4e/1x1
I0403 15:36:44.224767 10705 net.cpp:386] inception_4e/relu_1x1 -> inception_4e/1x1 (in-place)
I0403 15:36:44.225065 10705 net.cpp:141] Setting up inception_4e/relu_1x1
I0403 15:36:44.225090 10705 net.cpp:148] Top shape: 24 256 14 14 (1204224)
I0403 15:36:44.225105 10705 net.cpp:156] Memory required for data: 1218065952
I0403 15:36:44.225119 10705 layer_factory.hpp:77] Creating layer inception_4e/3x3_reduce
I0403 15:36:44.225142 10705 net.cpp:91] Creating Layer inception_4e/3x3_reduce
I0403 15:36:44.225158 10705 net.cpp:425] inception_4e/3x3_reduce <- inception_4d/output_inception_4d/output_0_split_2
I0403 15:36:44.225179 10705 net.cpp:399] inception_4e/3x3_reduce -> inception_4e/3x3_reduce
I0403 15:36:44.227286 10705 net.cpp:141] Setting up inception_4e/3x3_reduce
I0403 15:36:44.227318 10705 net.cpp:148] Top shape: 24 160 14 14 (752640)
I0403 15:36:44.227334 10705 net.cpp:156] Memory required for data: 1221076512
I0403 15:36:44.227351 10705 layer_factory.hpp:77] Creating layer inception_4e/relu_3x3_reduce
I0403 15:36:44.227370 10705 net.cpp:91] Creating Layer inception_4e/relu_3x3_reduce
I0403 15:36:44.227385 10705 net.cpp:425] inception_4e/relu_3x3_reduce <- inception_4e/3x3_reduce
I0403 15:36:44.227403 10705 net.cpp:386] inception_4e/relu_3x3_reduce -> inception_4e/3x3_reduce (in-place)
I0403 15:36:44.227591 10705 net.cpp:141] Setting up inception_4e/relu_3x3_reduce
I0403 15:36:44.227615 10705 net.cpp:148] Top shape: 24 160 14 14 (752640)
I0403 15:36:44.227629 10705 net.cpp:156] Memory required for data: 1224087072
I0403 15:36:44.227643 10705 layer_factory.hpp:77] Creating layer inception_4e/3x3
I0403 15:36:44.227665 10705 net.cpp:91] Creating Layer inception_4e/3x3
I0403 15:36:44.227682 10705 net.cpp:425] inception_4e/3x3 <- inception_4e/3x3_reduce
I0403 15:36:44.227705 10705 net.cpp:399] inception_4e/3x3 -> inception_4e/3x3
I0403 15:36:44.232612 10705 net.cpp:141] Setting up inception_4e/3x3
I0403 15:36:44.232652 10705 net.cpp:148] Top shape: 24 320 14 14 (1505280)
I0403 15:36:44.232668 10705 net.cpp:156] Memory required for data: 1230108192
I0403 15:36:44.232687 10705 layer_factory.hpp:77] Creating layer inception_4e/relu_3x3
I0403 15:36:44.232705 10705 net.cpp:91] Creating Layer inception_4e/relu_3x3
I0403 15:36:44.232720 10705 net.cpp:425] inception_4e/relu_3x3 <- inception_4e/3x3
I0403 15:36:44.232739 10705 net.cpp:386] inception_4e/relu_3x3 -> inception_4e/3x3 (in-place)
I0403 15:36:44.233042 10705 net.cpp:141] Setting up inception_4e/relu_3x3
I0403 15:36:44.233067 10705 net.cpp:148] Top shape: 24 320 14 14 (1505280)
I0403 15:36:44.233083 10705 net.cpp:156] Memory required for data: 1236129312
I0403 15:36:44.233096 10705 layer_factory.hpp:77] Creating layer inception_4e/5x5_reduce
I0403 15:36:44.233120 10705 net.cpp:91] Creating Layer inception_4e/5x5_reduce
I0403 15:36:44.233139 10705 net.cpp:425] inception_4e/5x5_reduce <- inception_4d/output_inception_4d/output_0_split_3
I0403 15:36:44.233160 10705 net.cpp:399] inception_4e/5x5_reduce -> inception_4e/5x5_reduce
I0403 15:36:44.234218 10705 net.cpp:141] Setting up inception_4e/5x5_reduce
I0403 15:36:44.234247 10705 net.cpp:148] Top shape: 24 32 14 14 (150528)
I0403 15:36:44.234263 10705 net.cpp:156] Memory required for data: 1236731424
I0403 15:36:44.234280 10705 layer_factory.hpp:77] Creating layer inception_4e/relu_5x5_reduce
I0403 15:36:44.234297 10705 net.cpp:91] Creating Layer inception_4e/relu_5x5_reduce
I0403 15:36:44.234313 10705 net.cpp:425] inception_4e/relu_5x5_reduce <- inception_4e/5x5_reduce
I0403 15:36:44.234330 10705 net.cpp:386] inception_4e/relu_5x5_reduce -> inception_4e/5x5_reduce (in-place)
I0403 15:36:44.234621 10705 net.cpp:141] Setting up inception_4e/relu_5x5_reduce
I0403 15:36:44.234647 10705 net.cpp:148] Top shape: 24 32 14 14 (150528)
I0403 15:36:44.234663 10705 net.cpp:156] Memory required for data: 1237333536
I0403 15:36:44.234678 10705 layer_factory.hpp:77] Creating layer inception_4e/5x5
I0403 15:36:44.234715 10705 net.cpp:91] Creating Layer inception_4e/5x5
I0403 15:36:44.234735 10705 net.cpp:425] inception_4e/5x5 <- inception_4e/5x5_reduce
I0403 15:36:44.234753 10705 net.cpp:399] inception_4e/5x5 -> inception_4e/5x5
I0403 15:36:44.236572 10705 net.cpp:141] Setting up inception_4e/5x5
I0403 15:36:44.236599 10705 net.cpp:148] Top shape: 24 128 14 14 (602112)
I0403 15:36:44.236615 10705 net.cpp:156] Memory required for data: 1239741984
I0403 15:36:44.236632 10705 layer_factory.hpp:77] Creating layer inception_4e/relu_5x5
I0403 15:36:44.236652 10705 net.cpp:91] Creating Layer inception_4e/relu_5x5
I0403 15:36:44.236668 10705 net.cpp:425] inception_4e/relu_5x5 <- inception_4e/5x5
I0403 15:36:44.236685 10705 net.cpp:386] inception_4e/relu_5x5 -> inception_4e/5x5 (in-place)
I0403 15:36:44.236884 10705 net.cpp:141] Setting up inception_4e/relu_5x5
I0403 15:36:44.236910 10705 net.cpp:148] Top shape: 24 128 14 14 (602112)
I0403 15:36:44.236927 10705 net.cpp:156] Memory required for data: 1242150432
I0403 15:36:44.236943 10705 layer_factory.hpp:77] Creating layer inception_4e/pool
I0403 15:36:44.236976 10705 net.cpp:91] Creating Layer inception_4e/pool
I0403 15:36:44.237005 10705 net.cpp:425] inception_4e/pool <- inception_4d/output_inception_4d/output_0_split_4
I0403 15:36:44.237026 10705 net.cpp:399] inception_4e/pool -> inception_4e/pool
I0403 15:36:44.237097 10705 net.cpp:141] Setting up inception_4e/pool
I0403 15:36:44.237121 10705 net.cpp:148] Top shape: 24 528 14 14 (2483712)
I0403 15:36:44.237135 10705 net.cpp:156] Memory required for data: 1252085280
I0403 15:36:44.237149 10705 layer_factory.hpp:77] Creating layer inception_4e/pool_proj
I0403 15:36:44.237171 10705 net.cpp:91] Creating Layer inception_4e/pool_proj
I0403 15:36:44.237190 10705 net.cpp:425] inception_4e/pool_proj <- inception_4e/pool
I0403 15:36:44.237210 10705 net.cpp:399] inception_4e/pool_proj -> inception_4e/pool_proj
I0403 15:36:44.238708 10705 net.cpp:141] Setting up inception_4e/pool_proj
I0403 15:36:44.238745 10705 net.cpp:148] Top shape: 24 128 14 14 (602112)
I0403 15:36:44.238761 10705 net.cpp:156] Memory required for data: 1254493728
I0403 15:36:44.238778 10705 layer_factory.hpp:77] Creating layer inception_4e/relu_pool_proj
I0403 15:36:44.238798 10705 net.cpp:91] Creating Layer inception_4e/relu_pool_proj
I0403 15:36:44.238816 10705 net.cpp:425] inception_4e/relu_pool_proj <- inception_4e/pool_proj
I0403 15:36:44.238832 10705 net.cpp:386] inception_4e/relu_pool_proj -> inception_4e/pool_proj (in-place)
I0403 15:36:44.239125 10705 net.cpp:141] Setting up inception_4e/relu_pool_proj
I0403 15:36:44.239151 10705 net.cpp:148] Top shape: 24 128 14 14 (602112)
I0403 15:36:44.239166 10705 net.cpp:156] Memory required for data: 1256902176
I0403 15:36:44.239181 10705 layer_factory.hpp:77] Creating layer inception_4e/output
I0403 15:36:44.239200 10705 net.cpp:91] Creating Layer inception_4e/output
I0403 15:36:44.239215 10705 net.cpp:425] inception_4e/output <- inception_4e/1x1
I0403 15:36:44.239233 10705 net.cpp:425] inception_4e/output <- inception_4e/3x3
I0403 15:36:44.239248 10705 net.cpp:425] inception_4e/output <- inception_4e/5x5
I0403 15:36:44.239264 10705 net.cpp:425] inception_4e/output <- inception_4e/pool_proj
I0403 15:36:44.239279 10705 net.cpp:399] inception_4e/output -> inception_4e/output
I0403 15:36:44.239329 10705 net.cpp:141] Setting up inception_4e/output
I0403 15:36:44.239352 10705 net.cpp:148] Top shape: 24 832 14 14 (3913728)
I0403 15:36:44.239367 10705 net.cpp:156] Memory required for data: 1272557088
I0403 15:36:44.239380 10705 layer_factory.hpp:77] Creating layer pool4/3x3_s2
I0403 15:36:44.239398 10705 net.cpp:91] Creating Layer pool4/3x3_s2
I0403 15:36:44.239413 10705 net.cpp:425] pool4/3x3_s2 <- inception_4e/output
I0403 15:36:44.239434 10705 net.cpp:399] pool4/3x3_s2 -> pool4/3x3_s2
I0403 15:36:44.239498 10705 net.cpp:141] Setting up pool4/3x3_s2
I0403 15:36:44.239524 10705 net.cpp:148] Top shape: 24 832 7 7 (978432)
I0403 15:36:44.239539 10705 net.cpp:156] Memory required for data: 1276470816
I0403 15:36:44.239553 10705 layer_factory.hpp:77] Creating layer pool4/3x3_s2_pool4/3x3_s2_0_split
I0403 15:36:44.239570 10705 net.cpp:91] Creating Layer pool4/3x3_s2_pool4/3x3_s2_0_split
I0403 15:36:44.239586 10705 net.cpp:425] pool4/3x3_s2_pool4/3x3_s2_0_split <- pool4/3x3_s2
I0403 15:36:44.239603 10705 net.cpp:399] pool4/3x3_s2_pool4/3x3_s2_0_split -> pool4/3x3_s2_pool4/3x3_s2_0_split_0
I0403 15:36:44.239624 10705 net.cpp:399] pool4/3x3_s2_pool4/3x3_s2_0_split -> pool4/3x3_s2_pool4/3x3_s2_0_split_1
I0403 15:36:44.239645 10705 net.cpp:399] pool4/3x3_s2_pool4/3x3_s2_0_split -> pool4/3x3_s2_pool4/3x3_s2_0_split_2
I0403 15:36:44.239665 10705 net.cpp:399] pool4/3x3_s2_pool4/3x3_s2_0_split -> pool4/3x3_s2_pool4/3x3_s2_0_split_3
I0403 15:36:44.239756 10705 net.cpp:141] Setting up pool4/3x3_s2_pool4/3x3_s2_0_split
I0403 15:36:44.239779 10705 net.cpp:148] Top shape: 24 832 7 7 (978432)
I0403 15:36:44.239794 10705 net.cpp:148] Top shape: 24 832 7 7 (978432)
I0403 15:36:44.239809 10705 net.cpp:148] Top shape: 24 832 7 7 (978432)
I0403 15:36:44.239825 10705 net.cpp:148] Top shape: 24 832 7 7 (978432)
I0403 15:36:44.239837 10705 net.cpp:156] Memory required for data: 1292125728
I0403 15:36:44.239852 10705 layer_factory.hpp:77] Creating layer inception_5a/1x1
I0403 15:36:44.239874 10705 net.cpp:91] Creating Layer inception_5a/1x1
I0403 15:36:44.239892 10705 net.cpp:425] inception_5a/1x1 <- pool4/3x3_s2_pool4/3x3_s2_0_split_0
I0403 15:36:44.239917 10705 net.cpp:399] inception_5a/1x1 -> inception_5a/1x1
I0403 15:36:44.242738 10705 net.cpp:141] Setting up inception_5a/1x1
I0403 15:36:44.242766 10705 net.cpp:148] Top shape: 24 256 7 7 (301056)
I0403 15:36:44.242782 10705 net.cpp:156] Memory required for data: 1293329952
I0403 15:36:44.242800 10705 layer_factory.hpp:77] Creating layer inception_5a/relu_1x1
I0403 15:36:44.242820 10705 net.cpp:91] Creating Layer inception_5a/relu_1x1
I0403 15:36:44.242837 10705 net.cpp:425] inception_5a/relu_1x1 <- inception_5a/1x1
I0403 15:36:44.242854 10705 net.cpp:386] inception_5a/relu_1x1 -> inception_5a/1x1 (in-place)
I0403 15:36:44.243170 10705 net.cpp:141] Setting up inception_5a/relu_1x1
I0403 15:36:44.243196 10705 net.cpp:148] Top shape: 24 256 7 7 (301056)
I0403 15:36:44.243209 10705 net.cpp:156] Memory required for data: 1294534176
I0403 15:36:44.243224 10705 layer_factory.hpp:77] Creating layer inception_5a/3x3_reduce
I0403 15:36:44.243247 10705 net.cpp:91] Creating Layer inception_5a/3x3_reduce
I0403 15:36:44.243264 10705 net.cpp:425] inception_5a/3x3_reduce <- pool4/3x3_s2_pool4/3x3_s2_0_split_1
I0403 15:36:44.243283 10705 net.cpp:399] inception_5a/3x3_reduce -> inception_5a/3x3_reduce
I0403 15:36:44.245708 10705 net.cpp:141] Setting up inception_5a/3x3_reduce
I0403 15:36:44.245736 10705 net.cpp:148] Top shape: 24 160 7 7 (188160)
I0403 15:36:44.245753 10705 net.cpp:156] Memory required for data: 1295286816
I0403 15:36:44.245770 10705 layer_factory.hpp:77] Creating layer inception_5a/relu_3x3_reduce
I0403 15:36:44.245790 10705 net.cpp:91] Creating Layer inception_5a/relu_3x3_reduce
I0403 15:36:44.245805 10705 net.cpp:425] inception_5a/relu_3x3_reduce <- inception_5a/3x3_reduce
I0403 15:36:44.245822 10705 net.cpp:386] inception_5a/relu_3x3_reduce -> inception_5a/3x3_reduce (in-place)
I0403 15:36:44.246014 10705 net.cpp:141] Setting up inception_5a/relu_3x3_reduce
I0403 15:36:44.246038 10705 net.cpp:148] Top shape: 24 160 7 7 (188160)
I0403 15:36:44.246053 10705 net.cpp:156] Memory required for data: 1296039456
I0403 15:36:44.246068 10705 layer_factory.hpp:77] Creating layer inception_5a/3x3
I0403 15:36:44.246091 10705 net.cpp:91] Creating Layer inception_5a/3x3
I0403 15:36:44.246109 10705 net.cpp:425] inception_5a/3x3 <- inception_5a/3x3_reduce
I0403 15:36:44.246126 10705 net.cpp:399] inception_5a/3x3 -> inception_5a/3x3
I0403 15:36:44.251078 10705 net.cpp:141] Setting up inception_5a/3x3
I0403 15:36:44.251111 10705 net.cpp:148] Top shape: 24 320 7 7 (376320)
I0403 15:36:44.251133 10705 net.cpp:156] Memory required for data: 1297544736
I0403 15:36:44.251152 10705 layer_factory.hpp:77] Creating layer inception_5a/relu_3x3
I0403 15:36:44.251170 10705 net.cpp:91] Creating Layer inception_5a/relu_3x3
I0403 15:36:44.251188 10705 net.cpp:425] inception_5a/relu_3x3 <- inception_5a/3x3
I0403 15:36:44.251205 10705 net.cpp:386] inception_5a/relu_3x3 -> inception_5a/3x3 (in-place)
I0403 15:36:44.251502 10705 net.cpp:141] Setting up inception_5a/relu_3x3
I0403 15:36:44.251528 10705 net.cpp:148] Top shape: 24 320 7 7 (376320)
I0403 15:36:44.251544 10705 net.cpp:156] Memory required for data: 1299050016
I0403 15:36:44.251559 10705 layer_factory.hpp:77] Creating layer inception_5a/5x5_reduce
I0403 15:36:44.251579 10705 net.cpp:91] Creating Layer inception_5a/5x5_reduce
I0403 15:36:44.251595 10705 net.cpp:425] inception_5a/5x5_reduce <- pool4/3x3_s2_pool4/3x3_s2_0_split_2
I0403 15:36:44.251616 10705 net.cpp:399] inception_5a/5x5_reduce -> inception_5a/5x5_reduce
I0403 15:36:44.252777 10705 net.cpp:141] Setting up inception_5a/5x5_reduce
I0403 15:36:44.252806 10705 net.cpp:148] Top shape: 24 32 7 7 (37632)
I0403 15:36:44.252822 10705 net.cpp:156] Memory required for data: 1299200544
I0403 15:36:44.252841 10705 layer_factory.hpp:77] Creating layer inception_5a/relu_5x5_reduce
I0403 15:36:44.252858 10705 net.cpp:91] Creating Layer inception_5a/relu_5x5_reduce
I0403 15:36:44.252874 10705 net.cpp:425] inception_5a/relu_5x5_reduce <- inception_5a/5x5_reduce
I0403 15:36:44.252893 10705 net.cpp:386] inception_5a/relu_5x5_reduce -> inception_5a/5x5_reduce (in-place)
I0403 15:36:44.253190 10705 net.cpp:141] Setting up inception_5a/relu_5x5_reduce
I0403 15:36:44.253218 10705 net.cpp:148] Top shape: 24 32 7 7 (37632)
I0403 15:36:44.253233 10705 net.cpp:156] Memory required for data: 1299351072
I0403 15:36:44.253248 10705 layer_factory.hpp:77] Creating layer inception_5a/5x5
I0403 15:36:44.253270 10705 net.cpp:91] Creating Layer inception_5a/5x5
I0403 15:36:44.253288 10705 net.cpp:425] inception_5a/5x5 <- inception_5a/5x5_reduce
I0403 15:36:44.253306 10705 net.cpp:399] inception_5a/5x5 -> inception_5a/5x5
I0403 15:36:44.255112 10705 net.cpp:141] Setting up inception_5a/5x5
I0403 15:36:44.255151 10705 net.cpp:148] Top shape: 24 128 7 7 (150528)
I0403 15:36:44.255170 10705 net.cpp:156] Memory required for data: 1299953184
I0403 15:36:44.255188 10705 layer_factory.hpp:77] Creating layer inception_5a/relu_5x5
I0403 15:36:44.255206 10705 net.cpp:91] Creating Layer inception_5a/relu_5x5
I0403 15:36:44.255221 10705 net.cpp:425] inception_5a/relu_5x5 <- inception_5a/5x5
I0403 15:36:44.255239 10705 net.cpp:386] inception_5a/relu_5x5 -> inception_5a/5x5 (in-place)
I0403 15:36:44.255434 10705 net.cpp:141] Setting up inception_5a/relu_5x5
I0403 15:36:44.255460 10705 net.cpp:148] Top shape: 24 128 7 7 (150528)
I0403 15:36:44.255475 10705 net.cpp:156] Memory required for data: 1300555296
I0403 15:36:44.255489 10705 layer_factory.hpp:77] Creating layer inception_5a/pool
I0403 15:36:44.255506 10705 net.cpp:91] Creating Layer inception_5a/pool
I0403 15:36:44.255522 10705 net.cpp:425] inception_5a/pool <- pool4/3x3_s2_pool4/3x3_s2_0_split_3
I0403 15:36:44.255542 10705 net.cpp:399] inception_5a/pool -> inception_5a/pool
I0403 15:36:44.255611 10705 net.cpp:141] Setting up inception_5a/pool
I0403 15:36:44.255635 10705 net.cpp:148] Top shape: 24 832 7 7 (978432)
I0403 15:36:44.255651 10705 net.cpp:156] Memory required for data: 1304469024
I0403 15:36:44.255666 10705 layer_factory.hpp:77] Creating layer inception_5a/pool_proj
I0403 15:36:44.255684 10705 net.cpp:91] Creating Layer inception_5a/pool_proj
I0403 15:36:44.255702 10705 net.cpp:425] inception_5a/pool_proj <- inception_5a/pool
I0403 15:36:44.255722 10705 net.cpp:399] inception_5a/pool_proj -> inception_5a/pool_proj
I0403 15:36:44.258005 10705 net.cpp:141] Setting up inception_5a/pool_proj
I0403 15:36:44.258034 10705 net.cpp:148] Top shape: 24 128 7 7 (150528)
I0403 15:36:44.258050 10705 net.cpp:156] Memory required for data: 1305071136
I0403 15:36:44.258067 10705 layer_factory.hpp:77] Creating layer inception_5a/relu_pool_proj
I0403 15:36:44.258087 10705 net.cpp:91] Creating Layer inception_5a/relu_pool_proj
I0403 15:36:44.258105 10705 net.cpp:425] inception_5a/relu_pool_proj <- inception_5a/pool_proj
I0403 15:36:44.258121 10705 net.cpp:386] inception_5a/relu_pool_proj -> inception_5a/pool_proj (in-place)
I0403 15:36:44.258420 10705 net.cpp:141] Setting up inception_5a/relu_pool_proj
I0403 15:36:44.258446 10705 net.cpp:148] Top shape: 24 128 7 7 (150528)
I0403 15:36:44.258461 10705 net.cpp:156] Memory required for data: 1305673248
I0403 15:36:44.258476 10705 layer_factory.hpp:77] Creating layer inception_5a/output
I0403 15:36:44.258493 10705 net.cpp:91] Creating Layer inception_5a/output
I0403 15:36:44.258510 10705 net.cpp:425] inception_5a/output <- inception_5a/1x1
I0403 15:36:44.258527 10705 net.cpp:425] inception_5a/output <- inception_5a/3x3
I0403 15:36:44.258543 10705 net.cpp:425] inception_5a/output <- inception_5a/5x5
I0403 15:36:44.258558 10705 net.cpp:425] inception_5a/output <- inception_5a/pool_proj
I0403 15:36:44.258574 10705 net.cpp:399] inception_5a/output -> inception_5a/output
I0403 15:36:44.258625 10705 net.cpp:141] Setting up inception_5a/output
I0403 15:36:44.258647 10705 net.cpp:148] Top shape: 24 832 7 7 (978432)
I0403 15:36:44.258661 10705 net.cpp:156] Memory required for data: 1309586976
I0403 15:36:44.258677 10705 layer_factory.hpp:77] Creating layer inception_5a/output_inception_5a/output_0_split
I0403 15:36:44.258692 10705 net.cpp:91] Creating Layer inception_5a/output_inception_5a/output_0_split
I0403 15:36:44.258708 10705 net.cpp:425] inception_5a/output_inception_5a/output_0_split <- inception_5a/output
I0403 15:36:44.258728 10705 net.cpp:399] inception_5a/output_inception_5a/output_0_split -> inception_5a/output_inception_5a/output_0_split_0
I0403 15:36:44.258749 10705 net.cpp:399] inception_5a/output_inception_5a/output_0_split -> inception_5a/output_inception_5a/output_0_split_1
I0403 15:36:44.258769 10705 net.cpp:399] inception_5a/output_inception_5a/output_0_split -> inception_5a/output_inception_5a/output_0_split_2
I0403 15:36:44.258788 10705 net.cpp:399] inception_5a/output_inception_5a/output_0_split -> inception_5a/output_inception_5a/output_0_split_3
I0403 15:36:44.258901 10705 net.cpp:141] Setting up inception_5a/output_inception_5a/output_0_split
I0403 15:36:44.258927 10705 net.cpp:148] Top shape: 24 832 7 7 (978432)
I0403 15:36:44.258944 10705 net.cpp:148] Top shape: 24 832 7 7 (978432)
I0403 15:36:44.258963 10705 net.cpp:148] Top shape: 24 832 7 7 (978432)
I0403 15:36:44.258978 10705 net.cpp:148] Top shape: 24 832 7 7 (978432)
I0403 15:36:44.258992 10705 net.cpp:156] Memory required for data: 1325241888
I0403 15:36:44.259006 10705 layer_factory.hpp:77] Creating layer inception_5b/1x1
I0403 15:36:44.259028 10705 net.cpp:91] Creating Layer inception_5b/1x1
I0403 15:36:44.259045 10705 net.cpp:425] inception_5b/1x1 <- inception_5a/output_inception_5a/output_0_split_0
I0403 15:36:44.259063 10705 net.cpp:399] inception_5b/1x1 -> inception_5b/1x1
I0403 15:36:44.262768 10705 net.cpp:141] Setting up inception_5b/1x1
I0403 15:36:44.262796 10705 net.cpp:148] Top shape: 24 384 7 7 (451584)
I0403 15:36:44.262812 10705 net.cpp:156] Memory required for data: 1327048224
I0403 15:36:44.262830 10705 layer_factory.hpp:77] Creating layer inception_5b/relu_1x1
I0403 15:36:44.262850 10705 net.cpp:91] Creating Layer inception_5b/relu_1x1
I0403 15:36:44.262867 10705 net.cpp:425] inception_5b/relu_1x1 <- inception_5b/1x1
I0403 15:36:44.262884 10705 net.cpp:386] inception_5b/relu_1x1 -> inception_5b/1x1 (in-place)
I0403 15:36:44.263185 10705 net.cpp:141] Setting up inception_5b/relu_1x1
I0403 15:36:44.263211 10705 net.cpp:148] Top shape: 24 384 7 7 (451584)
I0403 15:36:44.263226 10705 net.cpp:156] Memory required for data: 1328854560
I0403 15:36:44.263239 10705 layer_factory.hpp:77] Creating layer inception_5b/3x3_reduce
I0403 15:36:44.263262 10705 net.cpp:91] Creating Layer inception_5b/3x3_reduce
I0403 15:36:44.263278 10705 net.cpp:425] inception_5b/3x3_reduce <- inception_5a/output_inception_5a/output_0_split_1
I0403 15:36:44.263298 10705 net.cpp:399] inception_5b/3x3_reduce -> inception_5b/3x3_reduce
I0403 15:36:44.265966 10705 net.cpp:141] Setting up inception_5b/3x3_reduce
I0403 15:36:44.265995 10705 net.cpp:148] Top shape: 24 192 7 7 (225792)
I0403 15:36:44.266011 10705 net.cpp:156] Memory required for data: 1329757728
I0403 15:36:44.266028 10705 layer_factory.hpp:77] Creating layer inception_5b/relu_3x3_reduce
I0403 15:36:44.266048 10705 net.cpp:91] Creating Layer inception_5b/relu_3x3_reduce
I0403 15:36:44.266065 10705 net.cpp:425] inception_5b/relu_3x3_reduce <- inception_5b/3x3_reduce
I0403 15:36:44.266082 10705 net.cpp:386] inception_5b/relu_3x3_reduce -> inception_5b/3x3_reduce (in-place)
I0403 15:36:44.266273 10705 net.cpp:141] Setting up inception_5b/relu_3x3_reduce
I0403 15:36:44.266299 10705 net.cpp:148] Top shape: 24 192 7 7 (225792)
I0403 15:36:44.266314 10705 net.cpp:156] Memory required for data: 1330660896
I0403 15:36:44.266329 10705 layer_factory.hpp:77] Creating layer inception_5b/3x3
I0403 15:36:44.266350 10705 net.cpp:91] Creating Layer inception_5b/3x3
I0403 15:36:44.266366 10705 net.cpp:425] inception_5b/3x3 <- inception_5b/3x3_reduce
I0403 15:36:44.266384 10705 net.cpp:399] inception_5b/3x3 -> inception_5b/3x3
I0403 15:36:44.272986 10705 net.cpp:141] Setting up inception_5b/3x3
I0403 15:36:44.273015 10705 net.cpp:148] Top shape: 24 384 7 7 (451584)
I0403 15:36:44.273031 10705 net.cpp:156] Memory required for data: 1332467232
I0403 15:36:44.273048 10705 layer_factory.hpp:77] Creating layer inception_5b/relu_3x3
I0403 15:36:44.273068 10705 net.cpp:91] Creating Layer inception_5b/relu_3x3
I0403 15:36:44.273085 10705 net.cpp:425] inception_5b/relu_3x3 <- inception_5b/3x3
I0403 15:36:44.273102 10705 net.cpp:386] inception_5b/relu_3x3 -> inception_5b/3x3 (in-place)
I0403 15:36:44.273396 10705 net.cpp:141] Setting up inception_5b/relu_3x3
I0403 15:36:44.273422 10705 net.cpp:148] Top shape: 24 384 7 7 (451584)
I0403 15:36:44.273435 10705 net.cpp:156] Memory required for data: 1334273568
I0403 15:36:44.273449 10705 layer_factory.hpp:77] Creating layer inception_5b/5x5_reduce
I0403 15:36:44.273485 10705 net.cpp:91] Creating Layer inception_5b/5x5_reduce
I0403 15:36:44.273504 10705 net.cpp:425] inception_5b/5x5_reduce <- inception_5a/output_inception_5a/output_0_split_2
I0403 15:36:44.273526 10705 net.cpp:399] inception_5b/5x5_reduce -> inception_5b/5x5_reduce
I0403 15:36:44.274792 10705 net.cpp:141] Setting up inception_5b/5x5_reduce
I0403 15:36:44.274819 10705 net.cpp:148] Top shape: 24 48 7 7 (56448)
I0403 15:36:44.274834 10705 net.cpp:156] Memory required for data: 1334499360
I0403 15:36:44.274852 10705 layer_factory.hpp:77] Creating layer inception_5b/relu_5x5_reduce
I0403 15:36:44.274875 10705 net.cpp:91] Creating Layer inception_5b/relu_5x5_reduce
I0403 15:36:44.274893 10705 net.cpp:425] inception_5b/relu_5x5_reduce <- inception_5b/5x5_reduce
I0403 15:36:44.274909 10705 net.cpp:386] inception_5b/relu_5x5_reduce -> inception_5b/5x5_reduce (in-place)
I0403 15:36:44.275285 10705 net.cpp:141] Setting up inception_5b/relu_5x5_reduce
I0403 15:36:44.275311 10705 net.cpp:148] Top shape: 24 48 7 7 (56448)
I0403 15:36:44.275326 10705 net.cpp:156] Memory required for data: 1334725152
I0403 15:36:44.275341 10705 layer_factory.hpp:77] Creating layer inception_5b/5x5
I0403 15:36:44.275362 10705 net.cpp:91] Creating Layer inception_5b/5x5
I0403 15:36:44.275377 10705 net.cpp:425] inception_5b/5x5 <- inception_5b/5x5_reduce
I0403 15:36:44.275396 10705 net.cpp:399] inception_5b/5x5 -> inception_5b/5x5
I0403 15:36:44.277451 10705 net.cpp:141] Setting up inception_5b/5x5
I0403 15:36:44.277477 10705 net.cpp:148] Top shape: 24 128 7 7 (150528)
I0403 15:36:44.277493 10705 net.cpp:156] Memory required for data: 1335327264
I0403 15:36:44.277510 10705 layer_factory.hpp:77] Creating layer inception_5b/relu_5x5
I0403 15:36:44.277529 10705 net.cpp:91] Creating Layer inception_5b/relu_5x5
I0403 15:36:44.277546 10705 net.cpp:425] inception_5b/relu_5x5 <- inception_5b/5x5
I0403 15:36:44.277564 10705 net.cpp:386] inception_5b/relu_5x5 -> inception_5b/5x5 (in-place)
I0403 15:36:44.277760 10705 net.cpp:141] Setting up inception_5b/relu_5x5
I0403 15:36:44.277784 10705 net.cpp:148] Top shape: 24 128 7 7 (150528)
I0403 15:36:44.277799 10705 net.cpp:156] Memory required for data: 1335929376
I0403 15:36:44.277813 10705 layer_factory.hpp:77] Creating layer inception_5b/pool
I0403 15:36:44.277830 10705 net.cpp:91] Creating Layer inception_5b/pool
I0403 15:36:44.277847 10705 net.cpp:425] inception_5b/pool <- inception_5a/output_inception_5a/output_0_split_3
I0403 15:36:44.277866 10705 net.cpp:399] inception_5b/pool -> inception_5b/pool
I0403 15:36:44.277938 10705 net.cpp:141] Setting up inception_5b/pool
I0403 15:36:44.277971 10705 net.cpp:148] Top shape: 24 832 7 7 (978432)
I0403 15:36:44.277987 10705 net.cpp:156] Memory required for data: 1339843104
I0403 15:36:44.278002 10705 layer_factory.hpp:77] Creating layer inception_5b/pool_proj
I0403 15:36:44.278024 10705 net.cpp:91] Creating Layer inception_5b/pool_proj
I0403 15:36:44.278043 10705 net.cpp:425] inception_5b/pool_proj <- inception_5b/pool
I0403 15:36:44.278060 10705 net.cpp:399] inception_5b/pool_proj -> inception_5b/pool_proj
I0403 15:36:44.280354 10705 net.cpp:141] Setting up inception_5b/pool_proj
I0403 15:36:44.280382 10705 net.cpp:148] Top shape: 24 128 7 7 (150528)
I0403 15:36:44.280397 10705 net.cpp:156] Memory required for data: 1340445216
I0403 15:36:44.280416 10705 layer_factory.hpp:77] Creating layer inception_5b/relu_pool_proj
I0403 15:36:44.280436 10705 net.cpp:91] Creating Layer inception_5b/relu_pool_proj
I0403 15:36:44.280452 10705 net.cpp:425] inception_5b/relu_pool_proj <- inception_5b/pool_proj
I0403 15:36:44.280468 10705 net.cpp:386] inception_5b/relu_pool_proj -> inception_5b/pool_proj (in-place)
I0403 15:36:44.280764 10705 net.cpp:141] Setting up inception_5b/relu_pool_proj
I0403 15:36:44.280789 10705 net.cpp:148] Top shape: 24 128 7 7 (150528)
I0403 15:36:44.280804 10705 net.cpp:156] Memory required for data: 1341047328
I0403 15:36:44.280818 10705 layer_factory.hpp:77] Creating layer inception_5b/output
I0403 15:36:44.280840 10705 net.cpp:91] Creating Layer inception_5b/output
I0403 15:36:44.280869 10705 net.cpp:425] inception_5b/output <- inception_5b/1x1
I0403 15:36:44.280887 10705 net.cpp:425] inception_5b/output <- inception_5b/3x3
I0403 15:36:44.280903 10705 net.cpp:425] inception_5b/output <- inception_5b/5x5
I0403 15:36:44.280921 10705 net.cpp:425] inception_5b/output <- inception_5b/pool_proj
I0403 15:36:44.280937 10705 net.cpp:399] inception_5b/output -> inception_5b/output
I0403 15:36:44.280994 10705 net.cpp:141] Setting up inception_5b/output
I0403 15:36:44.281018 10705 net.cpp:148] Top shape: 24 1024 7 7 (1204224)
I0403 15:36:44.281033 10705 net.cpp:156] Memory required for data: 1345864224
I0403 15:36:44.281046 10705 layer_factory.hpp:77] Creating layer pool5/7x7_s1
I0403 15:36:44.281064 10705 net.cpp:91] Creating Layer pool5/7x7_s1
I0403 15:36:44.281078 10705 net.cpp:425] pool5/7x7_s1 <- inception_5b/output
I0403 15:36:44.281098 10705 net.cpp:399] pool5/7x7_s1 -> pool5/7x7_s1
I0403 15:36:44.281311 10705 net.cpp:141] Setting up pool5/7x7_s1
I0403 15:36:44.281338 10705 net.cpp:148] Top shape: 24 1024 1 1 (24576)
I0403 15:36:44.281353 10705 net.cpp:156] Memory required for data: 1345962528
I0403 15:36:44.281368 10705 layer_factory.hpp:77] Creating layer pool5/drop_7x7_s1
I0403 15:36:44.281385 10705 net.cpp:91] Creating Layer pool5/drop_7x7_s1
I0403 15:36:44.281401 10705 net.cpp:425] pool5/drop_7x7_s1 <- pool5/7x7_s1
I0403 15:36:44.281419 10705 net.cpp:386] pool5/drop_7x7_s1 -> pool5/7x7_s1 (in-place)
I0403 15:36:44.281469 10705 net.cpp:141] Setting up pool5/drop_7x7_s1
I0403 15:36:44.281491 10705 net.cpp:148] Top shape: 24 1024 1 1 (24576)
I0403 15:36:44.281505 10705 net.cpp:156] Memory required for data: 1346060832
I0403 15:36:44.281519 10705 layer_factory.hpp:77] Creating layer loss3/classifier_plantvillage
I0403 15:36:44.281540 10705 net.cpp:91] Creating Layer loss3/classifier_plantvillage
I0403 15:36:44.281556 10705 net.cpp:425] loss3/classifier_plantvillage <- pool5/7x7_s1
I0403 15:36:44.281575 10705 net.cpp:399] loss3/classifier_plantvillage -> loss3/classifier_plantvillage
I0403 15:36:44.282001 10705 net.cpp:141] Setting up loss3/classifier_plantvillage
I0403 15:36:44.282024 10705 net.cpp:148] Top shape: 24 38 (912)
I0403 15:36:44.282039 10705 net.cpp:156] Memory required for data: 1346064480
I0403 15:36:44.282055 10705 layer_factory.hpp:77] Creating layer loss3/classifier_plantvillage_loss3/classifier_plantvillage_0_split
I0403 15:36:44.282073 10705 net.cpp:91] Creating Layer loss3/classifier_plantvillage_loss3/classifier_plantvillage_0_split
I0403 15:36:44.282089 10705 net.cpp:425] loss3/classifier_plantvillage_loss3/classifier_plantvillage_0_split <- loss3/classifier_plantvillage
I0403 15:36:44.282110 10705 net.cpp:399] loss3/classifier_plantvillage_loss3/classifier_plantvillage_0_split -> loss3/classifier_plantvillage_loss3/classifier_plantvillage_0_split_0
I0403 15:36:44.282130 10705 net.cpp:399] loss3/classifier_plantvillage_loss3/classifier_plantvillage_0_split -> loss3/classifier_plantvillage_loss3/classifier_plantvillage_0_split_1
I0403 15:36:44.282150 10705 net.cpp:399] loss3/classifier_plantvillage_loss3/classifier_plantvillage_0_split -> loss3/classifier_plantvillage_loss3/classifier_plantvillage_0_split_2
I0403 15:36:44.282169 10705 net.cpp:399] loss3/classifier_plantvillage_loss3/classifier_plantvillage_0_split -> loss3/classifier_plantvillage_loss3/classifier_plantvillage_0_split_3
I0403 15:36:44.282271 10705 net.cpp:141] Setting up loss3/classifier_plantvillage_loss3/classifier_plantvillage_0_split
I0403 15:36:44.282295 10705 net.cpp:148] Top shape: 24 38 (912)
I0403 15:36:44.282313 10705 net.cpp:148] Top shape: 24 38 (912)
I0403 15:36:44.282328 10705 net.cpp:148] Top shape: 24 38 (912)
I0403 15:36:44.282343 10705 net.cpp:148] Top shape: 24 38 (912)
I0403 15:36:44.282356 10705 net.cpp:156] Memory required for data: 1346079072
I0403 15:36:44.282371 10705 layer_factory.hpp:77] Creating layer loss1/loss
I0403 15:36:44.282390 10705 net.cpp:91] Creating Layer loss1/loss
I0403 15:36:44.282407 10705 net.cpp:425] loss1/loss <- loss1/classifier_plantvillage_loss1/classifier_plantvillage_0_split_0
I0403 15:36:44.282438 10705 net.cpp:425] loss1/loss <- label_data_1_split_0
…
