…
I0403 15:44:39.663266 11157 net.cpp:313] The NetState phase (1) differed from the phase (0) specified by a rule in layer data
I0403 15:44:39.664438 11157 net.cpp:49] Initializing net from parameters: 
state {
  phase: TEST
}
layer {
  name: "data"
  type: "Data"
  top: "data"
  top: "label"
  include {
    phase: TEST
  }
  transform_param {
    mirror: false
    crop_size: 224
    mean_file: "/home/mohanty/data/final_dataset/lmdb/segmented-80-20/mean.binaryproto"
  }
  data_param {
    source: "/home/mohanty/data/final_dataset/lmdb/segmented-80-20/test_db"
    batch_size: 24
    backend: LMDB
  }
}
layer {
  name: "conv1/7x7_s2"
  type: "Convolution"
  bottom: "data"
  top: "conv1/7x7_s2"
  param {
    lr_mult: 1
    decay_mult: 1
  }
  param {
    lr_mult: 2
    decay_mult: 0
  }
  convolution_param {
    num_output: 64
    pad: 3
    kernel_size: 7
    stride: 2
    weight_filler {
      type: "xavier"
      std: 0.1
    }
    bias_filler {
      type: "constant"
      value: 0.2
    }
  }
}
layer {
  name: "conv1/relu_7x7"
  type: "ReLU"
  bottom: "conv1/7x7_s2"
  top: "conv1/7x7_s2"
}
layer {
  name: "pool1/3x3_s2"
  type: "Pooling"
  bottom: "conv1/7x7_s2"
  top: "pool1/3x3_s2"
  pooling_param {
    pool: MAX
    kernel_size: 3
    stride: 2
  }
}
layer {
  name: "pool1/norm1"
  type: "LRN"
  bottom: "pool1/3x3_s2"
  top: "pool1/norm1"
  lrn_param {
    local_size: 5
    alpha: 0.0001
    beta: 0.75
  }
}
layer {
  name: "conv2/3x3_reduce"
  type: "Convolution"
  bottom: "pool1/norm1"
  top: "conv2/3x3_reduce"
  param {
    lr_mult: 1
    decay_mult: 1
  }
  param {
    lr_mult: 2
    decay_mult: 0
  }
  convolution_param {
    num_output: 64
    kernel_size: 1
    weight_filler {
      type: "xavier"
      std: 0.1
    }
    bias_filler {
      type: "constant"
      value: 0.2
    }
  }
}
layer {
  name: "conv2/relu_3x3_reduce"
  type: "ReLU"
  bottom: "conv2/3x3_reduce"
  top: "conv2/3x3_reduce"
}
layer {
  name: "conv2/3x3"
  type: "Convolution"
  bottom: "conv2/3x3_reduce"
  top: "conv2/3x3"
  param {
    lr_mult: 1
    decay_mult: 1
  }
  param {
    lr_mult: 2
    decay_mult: 0
  }
  convolution_param {
    num_output: 192
    pad: 1
    kernel_size: 3
    weight_filler {
      type: "xavier"
      std: 0.03
    }
    bias_filler {
      type: "constant"
      value: 0.2
    }
  }
}
layer {
  name: "conv2/relu_3x3"
  type: "ReLU"
  bottom: "conv2/3x3"
  top: "conv2/3x3"
}
layer {
  name: "conv2/norm2"
  type: "LRN"
  bottom: "conv2/3x3"
  top: "conv2/norm2"
  lrn_param {
    local_size: 5
    alpha: 0.0001
    beta: 0.75
  }
}
layer {
  name: "pool2/3x3_s2"
  type: "Pooling"
  bottom: "conv2/norm2"
  top: "pool2/3x3_s2"
  pooling_param {
    pool: MAX
    kernel_size: 3
    stride: 2
  }
}
layer {
  name: "inception_3a/1x1"
  type: "Convolution"
  bottom: "pool2/3x3_s2"
  top: "inception_3a/1x1"
  param {
    lr_mult: 1
    decay_mult: 1
  }
  param {
    lr_mult: 2
    decay_mult: 0
  }
  convolution_param {
    num_output: 64
    kernel_size: 1
    weight_filler {
      type: "xavier"
      std: 0.03
    }
    bias_filler {
      type: "constant"
      value: 0.2
    }
  }
}
layer {
  name: "inception_3a/relu_1x1"
  type: "ReLU"
  bottom: "inception_3a/1x1"
  top: "inception_3a/1x1"
}
layer {
  name: "inception_3a/3x3_reduce"
  type: "Convolution"
  bottom: "pool2/3x3_s2"
  top: "inception_3a/3x3_reduce"
  param {
    lr_mult: 1
    decay_mult: 1
  }
  param {
    lr_mult: 2
    decay_mult: 0
  }
  convolution_param {
    num_output: 96
    kernel_size: 1
    weight_filler {
      type: "xavier"
      std: 0.09
    }
    bias_filler {
      type: "constant"
      value: 0.2
    }
  }
}
layer {
  name: "inception_3a/relu_3x3_reduce"
  type: "ReLU"
  bottom: "inception_3a/3x3_reduce"
  top: "inception_3a/3x3_reduce"
}
layer {
  name: "inception_3a/3x3"
  type: "Convolution"
  bottom: "inception_3a/3x3_reduce"
  top: "inception_3a/3x3"
  param {
    lr_mult: 1
    decay_mult: 1
  }
  param {
    lr_mult: 2
    decay_mult: 0
  }
  convolution_param {
    num_output: 128
    pad: 1
    kernel_size: 3
    weight_filler {
      type: "xavier"
      std: 0.03
    }
    bias_filler {
      type: "constant"
      value: 0.2
    }
  }
}
layer {
  name: "inception_3a/relu_3x3"
  type: "ReLU"
  bottom: "inception_3a/3x3"
  top: "inception_3a/3x3"
}
layer {
  name: "inception_3a/5x5_reduce"
  type: "Convolution"
  bottom: "pool2/3x3_s2"
  top: "inception_3a/5x5_reduce"
  param {
    lr_mult: 1
    decay_mult: 1
  }
  param {
    lr_mult: 2
    decay_mult: 0
  }
  convolution_param {
    num_output: 16
    kernel_size: 1
    weight_filler {
      type: "xavier"
      std: 0.2
    }
    bias_filler {
      type: "constant"
      value: 0.2
    }
  }
}
layer {
  name: "inception_3a/relu_5x5_reduce"
  type: "ReLU"
  bottom: "inception_3a/5x5_reduce"
  top: "inception_3a/5x5_reduce"
}
layer {
  name: "inception_3a/5x5"
  type: "Convolution"
  bottom: "inception_3a/5x5_reduce"
  top: "inception_3a/5x5"
  param {
    lr_mult: 1
    decay_mult: 1
  }
  param {
    lr_mult: 2
    decay_mult: 0
  }
  convolution_param {
    num_output: 32
    pad: 2
    kernel_size: 5
    weight_filler {
      type: "xavier"
      std: 0.03
    }
    bias_filler {
      type: "constant"
      value: 0.2
    }
  }
}
layer {
  name: "inception_3a/relu_5x5"
  type: "ReLU"
  bottom: "inception_3a/5x5"
  top: "inception_3a/5x5"
}
layer {
  name: "inception_3a/pool"
  type: "Pooling"
  bottom: "pool2/3x3_s2"
  top: "inception_3a/pool"
  pooling_param {
    pool: MAX
    kernel_size: 3
    stride: 1
    pad: 1
  }
}
layer {
  name: "inception_3a/pool_proj"
  type: "Convolution"
  bottom: "inception_3a/pool"
  top: "inception_3a/pool_proj"
  param {
    lr_mult: 1
    decay_mult: 1
  }
  param {
    lr_mult: 2
    decay_mult: 0
  }
  convolution_param {
    num_output: 32
    kernel_size: 1
    weight_filler {
      type: "xavier"
      std: 0.1
    }
    bias_filler {
      type: "constant"
      value: 0.2
    }
  }
}
layer {
  name: "inception_3a/relu_pool_proj"
  type: "ReLU"
  bottom: "inception_3a/pool_proj"
  top: "inception_3a/pool_proj"
}
layer {
  name: "inception_3a/output"
  type: "Concat"
  bottom: "inception_3a/1x1"
  bottom: "inception_3a/3x3"
  bottom: "inception_3a/5x5"
  bottom: "inception_3a/pool_proj"
  top: "inception_3a/output"
}
layer {
  name: "inception_3b/1x1"
  type: "Convolution"
  bottom: "inception_3a/output"
  top: "inception_3b/1x1"
  param {
    lr_mult: 1
    decay_mult: 1
  }
  param {
    lr_mult: 2
    decay_mult: 0
  }
  convolution_param {
    num_output: 128
    kernel_size: 1
    weight_filler {
      type: "xavier"
      std: 0.03
    }
    bias_filler {
      type: "constant"
      value: 0.2
    }
  }
}
layer {
  name: "inception_3b/relu_1x1"
  type: "ReLU"
  bottom: "inception_3b/1x1"
  top: "inception_3b/1x1"
}
layer {
  name: "inception_3b/3x3_reduce"
  type: "Convolution"
  bottom: "inception_3a/output"
  top: "inception_3b/3x3_reduce"
  param {
    lr_mult: 1
    decay_mult: 1
  }
  param {
    lr_mult: 2
    decay_mult: 0
  }
  convolution_param {
    num_output: 128
    kernel_size: 1
    weight_filler {
      type: "xavier"
      std: 0.09
    }
    bias_filler {
      type: "constant"
      value: 0.2
    }
  }
}
layer {
  name: "inception_3b/relu_3x3_reduce"
  type: "ReLU"
  bottom: "inception_3b/3x3_reduce"
  top: "inception_3b/3x3_reduce"
}
layer {
  name: "inception_3b/3x3"
  type: "Convolution"
  bottom: "inception_3b/3x3_reduce"
  top: "inception_3b/3x3"
  param {
    lr_mult: 1
    decay_mult: 1
  }
  param {
    lr_mult: 2
    decay_mult: 0
  }
  convolution_param {
    num_output: 192
    pad: 1
    kernel_size: 3
    weight_filler {
      type: "xavier"
      std: 0.03
    }
    bias_filler {
      type: "constant"
      value: 0.2
    }
  }
}
layer {
  name: "inception_3b/relu_3x3"
  type: "ReLU"
  bottom: "inception_3b/3x3"
  top: "inception_3b/3x3"
}
layer {
  name: "inception_3b/5x5_reduce"
  type: "Convolution"
  bottom: "inception_3a/output"
  top: "inception_3b/5x5_reduce"
  param {
    lr_mult: 1
    decay_mult: 1
  }
  param {
    lr_mult: 2
    decay_mult: 0
  }
  convolution_param {
    num_output: 32
    kernel_size: 1
    weight_filler {
      type: "xavier"
      std: 0.2
    }
    bias_filler {
      type: "constant"
      value: 0.2
    }
  }
}
layer {
  name: "inception_3b/relu_5x5_reduce"
  type: "ReLU"
  bottom: "inception_3b/5x5_reduce"
  top: "inception_3b/5x5_reduce"
}
layer {
  name: "inception_3b/5x5"
  type: "Convolution"
  bottom: "inception_3b/5x5_reduce"
  top: "inception_3b/5x5"
  param {
    lr_mult: 1
    decay_mult: 1
  }
  param {
    lr_mult: 2
    decay_mult: 0
  }
  convolution_param {
    num_output: 96
    pad: 2
    kernel_size: 5
    weight_filler {
      type: "xavier"
      std: 0.03
    }
    bias_filler {
      type: "constant"
      value: 0.2
    }
  }
}
layer {
  name: "inception_3b/relu_5x5"
  type: "ReLU"
  bottom: "inception_3b/5x5"
  top: "inception_3b/5x5"
}
layer {
  name: "inception_3b/pool"
  type: "Pooling"
  bottom: "inception_3a/output"
  top: "inception_3b/pool"
  pooling_param {
    pool: MAX
    kernel_size: 3
    stride: 1
    pad: 1
  }
}
layer {
  name: "inception_3b/pool_proj"
  type: "Convolution"
  bottom: "inception_3b/pool"
  top: "inception_3b/pool_proj"
  param {
    lr_mult: 1
    decay_mult: 1
  }
  param {
    lr_mult: 2
    decay_mult: 0
  }
  convolution_param {
    num_output: 64
    kernel_size: 1
    weight_filler {
      type: "xavier"
      std: 0.1
    }
    bias_filler {
      type: "constant"
      value: 0.2
    }
  }
}
layer {
  name: "inception_3b/relu_pool_proj"
  type: "ReLU"
  bottom: "inception_3b/pool_proj"
  top: "inception_3b/pool_proj"
}
layer {
  name: "inception_3b/output"
  type: "Concat"
  bottom: "inception_3b/1x1"
  bottom: "inception_3b/3x3"
  bottom: "inception_3b/5x5"
  bottom: "inception_3b/pool_proj"
  top: "inception_3b/output"
}
layer {
  name: "pool3/3x3_s2"
  type: "Pooling"
  bottom: "inception_3b/output"
  top: "pool3/3x3_s2"
  pooling_param {
    pool: MAX
    kernel_size: 3
    stride: 2
  }
}
layer {
  name: "inception_4a/1x1"
  type: "Convolution"
  bottom: "pool3/3x3_s2"
  top: "inception_4a/1x1"
  param {
    lr_mult: 1
    decay_mult: 1
  }
  param {
    lr_mult: 2
    decay_mult: 0
  }
  convolution_param {
    num_output: 192
    kernel_size: 1
    weight_filler {
      type: "xavier"
      std: 0.03
    }
    bias_filler {
      type: "constant"
      value: 0.2
    }
  }
}
layer {
  name: "inception_4a/relu_1x1"
  type: "ReLU"
  bottom: "inception_4a/1x1"
  top: "inception_4a/1x1"
}
layer {
  name: "inception_4a/3x3_reduce"
  type: "Convolution"
  bottom: "pool3/3x3_s2"
  top: "inception_4a/3x3_reduce"
  param {
    lr_mult: 1
    decay_mult: 1
  }
  param {
    lr_mult: 2
    decay_mult: 0
  }
  convolution_param {
    num_output: 96
    kernel_size: 1
    weight_filler {
      type: "xavier"
      std: 0.09
    }
    bias_filler {
      type: "constant"
      value: 0.2
    }
  }
}
layer {
  name: "inception_4a/relu_3x3_reduce"
  type: "ReLU"
  bottom: "inception_4a/3x3_reduce"
  top: "inception_4a/3x3_reduce"
}
layer {
  name: "inception_4a/3x3"
  type: "Convolution"
  bottom: "inception_4a/3x3_reduce"
  top: "inception_4a/3x3"
  param {
    lr_mult: 1
    decay_mult: 1
  }
  param {
    lr_mult: 2
    decay_mult: 0
  }
  convolution_param {
    num_output: 208
    pad: 1
    kernel_size: 3
    weight_filler {
      type: "xavier"
      std: 0.03
    }
    bias_filler {
      type: "constant"
      value: 0.2
    }
  }
}
layer {
  name: "inception_4a/relu_3x3"
  type: "ReLU"
  bottom: "inception_4a/3x3"
  top: "inception_4a/3x3"
}
layer {
  name: "inception_4a/5x5_reduce"
  type: "Convolution"
  bottom: "pool3/3x3_s2"
  top: "inception_4a/5x5_reduce"
  param {
    lr_mult: 1
    decay_mult: 1
  }
  param {
    lr_mult: 2
    decay_mult: 0
  }
  convolution_param {
    num_output: 16
    kernel_size: 1
    weight_filler {
      type: "xavier"
      std: 0.2
    }
    bias_filler {
      type: "constant"
      value: 0.2
    }
  }
}
layer {
  name: "inception_4a/relu_5x5_reduce"
  type: "ReLU"
  bottom: "inception_4a/5x5_reduce"
  top: "inception_4a/5x5_reduce"
}
layer {
  name: "inception_4a/5x5"
  type: "Convolution"
  bottom: "inception_4a/5x5_reduce"
  top: "inception_4a/5x5"
  param {
    lr_mult: 1
    decay_mult: 1
  }
  param {
    lr_mult: 2
    decay_mult: 0
  }
  convolution_param {
    num_output: 48
    pad: 2
    kernel_size: 5
    weight_filler {
      type: "xavier"
      std: 0.03
    }
    bias_filler {
      type: "constant"
      value: 0.2
    }
  }
}
layer {
  name: "inception_4a/relu_5x5"
  type: "ReLU"
  bottom: "inception_4a/5x5"
  top: "inception_4a/5x5"
}
layer {
  name: "inception_4a/pool"
  type: "Pooling"
  bottom: "pool3/3x3_s2"
  top: "inception_4a/pool"
  pooling_param {
    pool: MAX
    kernel_size: 3
    stride: 1
    pad: 1
  }
}
layer {
  name: "inception_4a/pool_proj"
  type: "Convolution"
  bottom: "inception_4a/pool"
  top: "inception_4a/pool_proj"
  param {
    lr_mult: 1
    decay_mult: 1
  }
  param {
    lr_mult: 2
    decay_mult: 0
  }
  convolution_param {
    num_output: 64
    kernel_size: 1
    weight_filler {
      type: "xavier"
      std: 0.1
    }
    bias_filler {
      type: "constant"
      value: 0.2
    }
  }
}
layer {
  name: "inception_4a/relu_pool_proj"
  type: "ReLU"
  bottom: "inception_4a/pool_proj"
  top: "inception_4a/pool_proj"
}
layer {
  name: "inception_4a/output"
  type: "Concat"
  bottom: "inception_4a/1x1"
  bottom: "inception_4a/3x3"
  bottom: "inception_4a/5x5"
  bottom: "inception_4a/pool_proj"
  top: "inception_4a/output"
}
layer {
  name: "loss1/ave_pool"
  type: "Pooling"
  bottom: "inception_4a/output"
  top: "loss1/ave_pool"
  pooling_param {
    pool: AVE
    kernel_size: 5
    stride: 3
  }
}
layer {
  name: "loss1/conv"
  type: "Convolution"
  bottom: "loss1/ave_pool"
  top: "loss1/conv"
  param {
    lr_mult: 1
    decay_mult: 1
  }
  param {
    lr_mult: 2
    decay_mult: 0
  }
  convolution_param {
    num_output: 128
    kernel_size: 1
    weight_filler {
      type: "xavier"
      std: 0.08
    }
    bias_filler {
      type: "constant"
      value: 0.2
    }
  }
}
layer {
  name: "loss1/relu_conv"
  type: "ReLU"
  bottom: "loss1/conv"
  top: "loss1/conv"
}
layer {
  name: "loss1/fc"
  type: "InnerProduct"
  bottom: "loss1/conv"
  top: "loss1/fc"
  param {
    lr_mult: 1
    decay_mult: 1
  }
  param {
    lr_mult: 2
    decay_mult: 0
  }
  inner_product_param {
    num_output: 1024
    weight_filler {
      type: "xavier"
      std: 0.02
    }
    bias_filler {
      type: "constant"
      value: 0.2
    }
  }
}
layer {
  name: "loss1/relu_fc"
  type: "ReLU"
  bottom: "loss1/fc"
  top: "loss1/fc"
}
layer {
  name: "loss1/drop_fc"
  type: "Dropout"
  bottom: "loss1/fc"
  top: "loss1/fc"
  dropout_param {
    dropout_ratio: 0.7
  }
}
layer {
  name: "loss1/classifier_plantvillage"
  type: "InnerProduct"
  bottom: "loss1/fc"
  top: "loss1/classifier_plantvillage"
  param {
    lr_mult: 1
    decay_mult: 1
  }
  param {
    lr_mult: 2
    decay_mult: 0
  }
  inner_product_param {
    num_output: 38
    weight_filler {
      type: "xavier"
      std: 0.0009765625
    }
    bias_filler {
      type: "constant"
      value: 0
    }
  }
}
layer {
  name: "inception_4b/1x1"
  type: "Convolution"
  bottom: "inception_4a/output"
  top: "inception_4b/1x1"
  param {
    lr_mult: 1
    decay_mult: 1
  }
  param {
    lr_mult: 2
    decay_mult: 0
  }
  convolution_param {
    num_output: 160
    kernel_size: 1
    weight_filler {
      type: "xavier"
      std: 0.03
    }
    bias_filler {
      type: "constant"
      value: 0.2
    }
  }
}
layer {
  name: "inception_4b/relu_1x1"
  type: "ReLU"
  bottom: "inception_4b/1x1"
  top: "inception_4b/1x1"
}
layer {
  name: "inception_4b/3x3_reduce"
  type: "Convolution"
  bottom: "inception_4a/output"
  top: "inception_4b/3x3_reduce"
  param {
    lr_mult: 1
    decay_mult: 1
  }
  param {
    lr_mult: 2
    decay_mult: 0
  }
  convolution_param {
    num_output: 112
    kernel_size: 1
    weight_filler {
      type: "xavier"
      std: 0.09
    }
    bias_filler {
      type: "constant"
      value: 0.2
    }
  }
}
layer {
  name: "inception_4b/relu_3x3_reduce"
  type: "ReLU"
  bottom: "inception_4b/3x3_reduce"
  top: "inception_4b/3x3_reduce"
}
layer {
  name: "inception_4b/3x3"
  type: "Convolution"
  bottom: "inception_4b/3x3_reduce"
  top: "inception_4b/3x3"
  param {
    lr_mult: 1
    decay_mult: 1
  }
  param {
    lr_mult: 2
    decay_mult: 0
  }
  convolution_param {
    num_output: 224
    pad: 1
    kernel_size: 3
    weight_filler {
      type: "xavier"
      std: 0.03
    }
    bias_filler {
      type: "constant"
      value: 0.2
    }
  }
}
layer {
  name: "inception_4b/relu_3x3"
  type: "ReLU"
  bottom: "inception_4b/3x3"
  top: "inception_4b/3x3"
}
layer {
  name: "inception_4b/5x5_reduce"
  type: "Convolution"
  bottom: "inception_4a/output"
  top: "inception_4b/5x5_reduce"
  param {
    lr_mult: 1
    decay_mult: 1
  }
  param {
    lr_mult: 2
    decay_mult: 0
  }
  convolution_param {
    num_output: 24
    kernel_size: 1
    weight_filler {
      type: "xavier"
      std: 0.2
    }
    bias_filler {
      type: "constant"
      value: 0.2
    }
  }
}
layer {
  name: "inception_4b/relu_5x5_reduce"
  type: "ReLU"
  bottom: "inception_4b/5x5_reduce"
  top: "inception_4b/5x5_reduce"
}
layer {
  name: "inception_4b/5x5"
  type: "Convolution"
  bottom: "inception_4b/5x5_reduce"
  top: "inception_4b/5x5"
  param {
    lr_mult: 1
    decay_mult: 1
  }
  param {
    lr_mult: 2
    decay_mult: 0
  }
  convolution_param {
    num_output: 64
    pad: 2
    kernel_size: 5
    weight_filler {
      type: "xavier"
      std: 0.03
    }
    bias_filler {
      type: "constant"
      value: 0.2
    }
  }
}
layer {
  name: "inception_4b/relu_5x5"
  type: "ReLU"
  bottom: "inception_4b/5x5"
  top: "inception_4b/5x5"
}
layer {
  name: "inception_4b/pool"
  type: "Pooling"
  bottom: "inception_4a/output"
  top: "inception_4b/pool"
  pooling_param {
    pool: MAX
    kernel_size: 3
    stride: 1
    pad: 1
  }
}
layer {
  name: "inception_4b/pool_proj"
  type: "Convolution"
  bottom: "inception_4b/pool"
  top: "inception_4b/pool_proj"
  param {
    lr_mult: 1
    decay_mult: 1
  }
  param {
    lr_mult: 2
    decay_mult: 0
  }
  convolution_param {
    num_output: 64
    kernel_size: 1
    weight_filler {
      type: "xavier"
      std: 0.1
    }
    bias_filler {
      type: "constant"
      value: 0.2
    }
  }
}
layer {
  name: "inception_4b/relu_pool_proj"
  type: "ReLU"
  bottom: "inception_4b/pool_proj"
  top: "inception_4b/pool_proj"
}
layer {
  name: "inception_4b/output"
  type: "Concat"
  bottom: "inception_4b/1x1"
  bottom: "inception_4b/3x3"
  bottom: "inception_4b/5x5"
  bottom: "inception_4b/pool_proj"
  top: "inception_4b/output"
}
layer {
  name: "inception_4c/1x1"
  type: "Convolution"
  bottom: "inception_4b/output"
  top: "inception_4c/1x1"
  param {
    lr_mult: 1
    decay_mult: 1
  }
  param {
    lr_mult: 2
    decay_mult: 0
  }
  convolution_param {
    num_output: 128
    kernel_size: 1
    weight_filler {
      type: "xavier"
      std: 0.03
    }
    bias_filler {
      type: "constant"
      value: 0.2
    }
  }
}
layer {
  name: "inception_4c/relu_1x1"
  type: "ReLU"
  bottom: "inception_4c/1x1"
  top: "inception_4c/1x1"
}
layer {
  name: "inception_4c/3x3_reduce"
  type: "Convolution"
  bottom: "inception_4b/output"
  top: "inception_4c/3x3_reduce"
  param {
    lr_mult: 1
    decay_mult: 1
  }
  param {
    lr_mult: 2
    decay_mult: 0
  }
  convolution_param {
    num_output: 128
    kernel_size: 1
    weight_filler {
      type: "xavier"
      std: 0.09
    }
    bias_filler {
      type: "constant"
      value: 0.2
    }
  }
}
layer {
  name: "inception_4c/relu_3x3_reduce"
  type: "ReLU"
  bottom: "inception_4c/3x3_reduce"
  top: "inception_4c/3x3_reduce"
}
layer {
  name: "inception_4c/3x3"
  type: "Convolution"
  bottom: "inception_4c/3x3_reduce"
  top: "inception_4c/3x3"
  param {
    lr_mult: 1
    decay_mult: 1
  }
  param {
    lr_mult: 2
    decay_mult: 0
  }
  convolution_param {
    num_output: 256
    pad: 1
    kernel_size: 3
    weight_filler {
      type: "xavier"
      std: 0.03
    }
    bias_filler {
      type: "constant"
      value: 0.2
    }
  }
}
layer {
  name: "inception_4c/relu_3x3"
  type: "ReLU"
  bottom: "inception_4c/3x3"
  top: "inception_4c/3x3"
}
layer {
  name: "inception_4c/5x5_reduce"
  type: "Convolution"
  bottom: "inception_4b/output"
  top: "inception_4c/5x5_reduce"
  param {
    lr_mult: 1
    decay_mult: 1
  }
  param {
    lr_mult: 2
    decay_mult: 0
  }
  convolution_param {
    num_output: 24
    kernel_size: 1
    weight_filler {
      type: "xavier"
      std: 0.2
    }
    bias_filler {
      type: "constant"
      value: 0.2
    }
  }
}
layer {
  name: "inception_4c/relu_5x5_reduce"
  type: "ReLU"
  bottom: "inception_4c/5x5_reduce"
  top: "inception_4c/5x5_reduce"
}
layer {
  name: "inception_4c/5x5"
  type: "Convolution"
  bottom: "inception_4c/5x5_reduce"
  top: "inception_4c/5x5"
  param {
    lr_mult: 1
    decay_mult: 1
  }
  param {
    lr_mult: 2
    decay_mult: 0
  }
  convolution_param {
    num_output: 64
    pad: 2
    kernel_size: 5
    weight_filler {
      type: "xavier"
      std: 0.03
    }
    bias_filler {
      type: "constant"
      value: 0.2
    }
  }
}
layer {
  name: "inception_4c/relu_5x5"
  type: "ReLU"
  bottom: "inception_4c/5x5"
  top: "inception_4c/5x5"
}
layer {
  name: "inception_4c/pool"
  type: "Pooling"
  bottom: "inception_4b/output"
  top: "inception_4c/pool"
  pooling_param {
    pool: MAX
    kernel_size: 3
    stride: 1
    pad: 1
  }
}
layer {
  name: "inception_4c/pool_proj"
  type: "Convolution"
  bottom: "inception_4c/pool"
  top: "inception_4c/pool_proj"
  param {
    lr_mult: 1
    decay_mult: 1
  }
  param {
    lr_mult: 2
    decay_mult: 0
  }
  convolution_param {
    num_output: 64
    kernel_size: 1
    weight_filler {
      type: "xavier"
      std: 0.1
    }
    bias_filler {
      type: "constant"
      value: 0.2
    }
  }
}
layer {
  name: "inception_4c/relu_pool_proj"
  type: "ReLU"
  bottom: "inception_4c/pool_proj"
  top: "inception_4c/pool_proj"
}
layer {
  name: "inception_4c/output"
  type: "Concat"
  bottom: "inception_4c/1x1"
  bottom: "inception_4c/3x3"
  bottom: "inception_4c/5x5"
  bottom: "inception_4c/pool_proj"
  top: "inception_4c/output"
}
layer {
  name: "inception_4d/1x1"
  type: "Convolution"
  bottom: "inception_4c/output"
  top: "inception_4d/1x1"
  param {
    lr_mult: 1
    decay_mult: 1
  }
  param {
    lr_mult: 2
    decay_mult: 0
  }
  convolution_param {
    num_output: 112
    kernel_size: 1
    weight_filler {
      type: "xavier"
      std: 0.03
    }
    bias_filler {
      type: "constant"
      value: 0.2
    }
  }
}
layer {
  name: "inception_4d/relu_1x1"
  type: "ReLU"
  bottom: "inception_4d/1x1"
  top: "inception_4d/1x1"
}
layer {
  name: "inception_4d/3x3_reduce"
  type: "Convolution"
  bottom: "inception_4c/output"
  top: "inception_4d/3x3_reduce"
  param {
    lr_mult: 1
    decay_mult: 1
  }
  param {
    lr_mult: 2
    decay_mult: 0
  }
  convolution_param {
    num_output: 144
    kernel_size: 1
    weight_filler {
      type: "xavier"
      std: 0.09
    }
    bias_filler {
      type: "constant"
      value: 0.2
    }
  }
}
layer {
  name: "inception_4d/relu_3x3_reduce"
  type: "ReLU"
  bottom: "inception_4d/3x3_reduce"
  top: "inception_4d/3x3_reduce"
}
layer {
  name: "inception_4d/3x3"
  type: "Convolution"
  bottom: "inception_4d/3x3_reduce"
  top: "inception_4d/3x3"
  param {
    lr_mult: 1
    decay_mult: 1
  }
  param {
    lr_mult: 2
    decay_mult: 0
  }
  convolution_param {
    num_output: 288
    pad: 1
    kernel_size: 3
    weight_filler {
      type: "xavier"
      std: 0.03
    }
    bias_filler {
      type: "constant"
      value: 0.2
    }
  }
}
layer {
  name: "inception_4d/relu_3x3"
  type: "ReLU"
  bottom: "inception_4d/3x3"
  top: "inception_4d/3x3"
}
layer {
  name: "inception_4d/5x5_reduce"
  type: "Convolution"
  bottom: "inception_4c/output"
  top: "inception_4d/5x5_reduce"
  param {
    lr_mult: 1
    decay_mult: 1
  }
  param {
    lr_mult: 2
    decay_mult: 0
  }
  convolution_param {
    num_output: 32
    kernel_size: 1
    weight_filler {
      type: "xavier"
      std: 0.2
    }
    bias_filler {
      type: "constant"
      value: 0.2
    }
  }
}
layer {
  name: "inception_4d/relu_5x5_reduce"
  type: "ReLU"
  bottom: "inception_4d/5x5_reduce"
  top: "inception_4d/5x5_reduce"
}
layer {
  name: "inception_4d/5x5"
  type: "Convolution"
  bottom: "inception_4d/5x5_reduce"
  top: "inception_4d/5x5"
  param {
    lr_mult: 1
    decay_mult: 1
  }
  param {
    lr_mult: 2
    decay_mult: 0
  }
  convolution_param {
    num_output: 64
    pad: 2
    kernel_size: 5
    weight_filler {
      type: "xavier"
      std: 0.03
    }
    bias_filler {
      type: "constant"
      value: 0.2
    }
  }
}
layer {
  name: "inception_4d/relu_5x5"
  type: "ReLU"
  bottom: "inception_4d/5x5"
  top: "inception_4d/5x5"
}
layer {
  name: "inception_4d/pool"
  type: "Pooling"
  bottom: "inception_4c/output"
  top: "inception_4d/pool"
  pooling_param {
    pool: MAX
    kernel_size: 3
    stride: 1
    pad: 1
  }
}
layer {
  name: "inception_4d/pool_proj"
  type: "Convolution"
  bottom: "inception_4d/pool"
  top: "inception_4d/pool_proj"
  param {
    lr_mult: 1
    decay_mult: 1
  }
  param {
    lr_mult: 2
    decay_mult: 0
  }
  convolution_param {
    num_output: 64
    kernel_size: 1
    weight_filler {
      type: "xavier"
      std: 0.1
    }
    bias_filler {
      type: "constant"
      value: 0.2
    }
  }
}
layer {
  name: "inception_4d/relu_pool_proj"
  type: "ReLU"
  bottom: "inception_4d/pool_proj"
  top: "inception_4d/pool_proj"
}
layer {
  name: "inception_4d/output"
  type: "Concat"
  bottom: "inception_4d/1x1"
  bottom: "inception_4d/3x3"
  bottom: "inception_4d/5x5"
  bottom: "inception_4d/pool_proj"
  top: "inception_4d/output"
}
layer {
  name: "loss2/ave_pool"
  type: "Pooling"
  bottom: "inception_4d/output"
  top: "loss2/ave_pool"
  pooling_param {
    pool: AVE
    kernel_size: 5
    stride: 3
  }
}
layer {
  name: "loss2/conv"
  type: "Convolution"
  bottom: "loss2/ave_pool"
  top: "loss2/conv"
  param {
    lr_mult: 1
    decay_mult: 1
  }
  param {
    lr_mult: 2
    decay_mult: 0
  }
  convolution_param {
    num_output: 128
    kernel_size: 1
    weight_filler {
      type: "xavier"
      std: 0.08
    }
    bias_filler {
      type: "constant"
      value: 0.2
    }
  }
}
layer {
  name: "loss2/relu_conv"
  type: "ReLU"
  bottom: "loss2/conv"
  top: "loss2/conv"
}
layer {
  name: "loss2/fc"
  type: "InnerProduct"
  bottom: "loss2/conv"
  top: "loss2/fc"
  param {
    lr_mult: 1
    decay_mult: 1
  }
  param {
    lr_mult: 2
    decay_mult: 0
  }
  inner_product_param {
    num_output: 1024
    weight_filler {
      type: "xavier"
      std: 0.02
    }
    bias_filler {
      type: "constant"
      value: 0.2
    }
  }
}
layer {
  name: "loss2/relu_fc"
  type: "ReLU"
  bottom: "loss2/fc"
  top: "loss2/fc"
}
layer {
  name: "loss2/drop_fc"
  type: "Dropout"
  bottom: "loss2/fc"
  top: "loss2/fc"
  dropout_param {
    dropout_ratio: 0.7
  }
}
layer {
  name: "loss2/classifier_plantvillage"
  type: "InnerProduct"
  bottom: "loss2/fc"
  top: "loss2/classifier_plantvillage"
  param {
    lr_mult: 1
    decay_mult: 1
  }
  param {
    lr_mult: 2
    decay_mult: 0
  }
  inner_product_param {
    num_output: 38
    weight_filler {
      type: "xavier"
      std: 0.0009765625
    }
    bias_filler {
      type: "constant"
      value: 0
    }
  }
}
layer {
  name: "inception_4e/1x1"
  type: "Convolution"
  bottom: "inception_4d/output"
  top: "inception_4e/1x1"
  param {
    lr_mult: 1
    decay_mult: 1
  }
  param {
    lr_mult: 2
    decay_mult: 0
  }
  convolution_param {
    num_output: 256
    kernel_size: 1
    weight_filler {
      type: "xavier"
      std: 0.03
    }
    bias_filler {
      type: "constant"
      value: 0.2
    }
  }
}
layer {
  name: "inception_4e/relu_1x1"
  type: "ReLU"
  bottom: "inception_4e/1x1"
  top: "inception_4e/1x1"
}
layer {
  name: "inception_4e/3x3_reduce"
  type: "Convolution"
  bottom: "inception_4d/output"
  top: "inception_4e/3x3_reduce"
  param {
    lr_mult: 1
    decay_mult: 1
  }
  param {
    lr_mult: 2
    decay_mult: 0
  }
  convolution_param {
    num_output: 160
    kernel_size: 1
    weight_filler {
      type: "xavier"
      std: 0.09
    }
    bias_filler {
      type: "constant"
      value: 0.2
    }
  }
}
layer {
  name: "inception_4e/relu_3x3_reduce"
  type: "ReLU"
  bottom: "inception_4e/3x3_reduce"
  top: "inception_4e/3x3_reduce"
}
layer {
  name: "inception_4e/3x3"
  type: "Convolution"
  bottom: "inception_4e/3x3_reduce"
  top: "inception_4e/3x3"
  param {
    lr_mult: 1
    decay_mult: 1
  }
  param {
    lr_mult: 2
    decay_mult: 0
  }
  convolution_param {
    num_output: 320
    pad: 1
    kernel_size: 3
    weight_filler {
      type: "xavier"
      std: 0.03
    }
    bias_filler {
      type: "constant"
      value: 0.2
    }
  }
}
layer {
  name: "inception_4e/relu_3x3"
  type: "ReLU"
  bottom: "inception_4e/3x3"
  top: "inception_4e/3x3"
}
layer {
  name: "inception_4e/5x5_reduce"
  type: "Convolution"
  bottom: "inception_4d/output"
  top: "inception_4e/5x5_reduce"
  param {
    lr_mult: 1
    decay_mult: 1
  }
  param {
    lr_mult: 2
    decay_mult: 0
  }
  convolution_param {
    num_output: 32
    kernel_size: 1
    weight_filler {
      type: "xavier"
      std: 0.2
    }
    bias_filler {
      type: "constant"
      value: 0.2
    }
  }
}
layer {
  name: "inception_4e/relu_5x5_reduce"
  type: "ReLU"
  bottom: "inception_4e/5x5_reduce"
  top: "inception_4e/5x5_reduce"
}
layer {
  name: "inception_4e/5x5"
  type: "Convolution"
  bottom: "inception_4e/5x5_reduce"
  top: "inception_4e/
I0403 15:44:39.665666 11157 layer_factory.hpp:77] Creating layer data
I0403 15:44:39.666262 11157 net.cpp:91] Creating Layer data
I0403 15:44:39.666296 11157 net.cpp:399] data -> data
I0403 15:44:39.666345 11157 net.cpp:399] data -> label
I0403 15:44:39.666380 11157 data_transformer.cpp:25] Loading mean file from: /home/mohanty/data/final_dataset/lmdb/segmented-80-20/mean.binaryproto
I0403 15:44:39.668887 11160 db_lmdb.cpp:38] Opened lmdb /home/mohanty/data/final_dataset/lmdb/segmented-80-20/test_db
I0403 15:44:39.679450 11157 data_layer.cpp:41] output data size: 24,3,224,224
I0403 15:44:39.706766 11157 net.cpp:141] Setting up data
I0403 15:44:39.706853 11157 net.cpp:148] Top shape: 24 3 224 224 (3612672)
I0403 15:44:39.706876 11157 net.cpp:148] Top shape: 24 (24)
I0403 15:44:39.706892 11157 net.cpp:156] Memory required for data: 14450784
I0403 15:44:39.706918 11157 layer_factory.hpp:77] Creating layer label_data_1_split
I0403 15:44:39.706945 11157 net.cpp:91] Creating Layer label_data_1_split
I0403 15:44:39.706964 11157 net.cpp:425] label_data_1_split <- label
I0403 15:44:39.706998 11157 net.cpp:399] label_data_1_split -> label_data_1_split_0
I0403 15:44:39.707026 11157 net.cpp:399] label_data_1_split -> label_data_1_split_1
I0403 15:44:39.707048 11157 net.cpp:399] label_data_1_split -> label_data_1_split_2
I0403 15:44:39.707069 11157 net.cpp:399] label_data_1_split -> label_data_1_split_3
I0403 15:44:39.707088 11157 net.cpp:399] label_data_1_split -> label_data_1_split_4
I0403 15:44:39.707108 11157 net.cpp:399] label_data_1_split -> label_data_1_split_5
I0403 15:44:39.707129 11157 net.cpp:399] label_data_1_split -> label_data_1_split_6
I0403 15:44:39.707149 11157 net.cpp:399] label_data_1_split -> label_data_1_split_7
I0403 15:44:39.707168 11157 net.cpp:399] label_data_1_split -> label_data_1_split_8
I0403 15:44:39.707187 11157 net.cpp:399] label_data_1_split -> label_data_1_split_9
I0403 15:44:39.707306 11157 net.cpp:141] Setting up label_data_1_split
I0403 15:44:39.707330 11157 net.cpp:148] Top shape: 24 (24)
I0403 15:44:39.707347 11157 net.cpp:148] Top shape: 24 (24)
I0403 15:44:39.707363 11157 net.cpp:148] Top shape: 24 (24)
I0403 15:44:39.707379 11157 net.cpp:148] Top shape: 24 (24)
I0403 15:44:39.707396 11157 net.cpp:148] Top shape: 24 (24)
I0403 15:44:39.707411 11157 net.cpp:148] Top shape: 24 (24)
I0403 15:44:39.707427 11157 net.cpp:148] Top shape: 24 (24)
I0403 15:44:39.707442 11157 net.cpp:148] Top shape: 24 (24)
I0403 15:44:39.707458 11157 net.cpp:148] Top shape: 24 (24)
I0403 15:44:39.707474 11157 net.cpp:148] Top shape: 24 (24)
I0403 15:44:39.707516 11157 net.cpp:156] Memory required for data: 14451744
I0403 15:44:39.707532 11157 layer_factory.hpp:77] Creating layer conv1/7x7_s2
I0403 15:44:39.707564 11157 net.cpp:91] Creating Layer conv1/7x7_s2
I0403 15:44:39.707583 11157 net.cpp:425] conv1/7x7_s2 <- data
I0403 15:44:39.707603 11157 net.cpp:399] conv1/7x7_s2 -> conv1/7x7_s2
I0403 15:44:39.848153 11157 net.cpp:141] Setting up conv1/7x7_s2
I0403 15:44:39.848237 11157 net.cpp:148] Top shape: 24 64 112 112 (19267584)
I0403 15:44:39.848254 11157 net.cpp:156] Memory required for data: 91522080
I0403 15:44:39.848297 11157 layer_factory.hpp:77] Creating layer conv1/relu_7x7
I0403 15:44:39.848325 11157 net.cpp:91] Creating Layer conv1/relu_7x7
I0403 15:44:39.848341 11157 net.cpp:425] conv1/relu_7x7 <- conv1/7x7_s2
I0403 15:44:39.848361 11157 net.cpp:386] conv1/relu_7x7 -> conv1/7x7_s2 (in-place)
I0403 15:44:39.848620 11157 net.cpp:141] Setting up conv1/relu_7x7
I0403 15:44:39.848646 11157 net.cpp:148] Top shape: 24 64 112 112 (19267584)
I0403 15:44:39.848661 11157 net.cpp:156] Memory required for data: 168592416
I0403 15:44:39.848676 11157 layer_factory.hpp:77] Creating layer pool1/3x3_s2
I0403 15:44:39.848701 11157 net.cpp:91] Creating Layer pool1/3x3_s2
I0403 15:44:39.848719 11157 net.cpp:425] pool1/3x3_s2 <- conv1/7x7_s2
I0403 15:44:39.848737 11157 net.cpp:399] pool1/3x3_s2 -> pool1/3x3_s2
I0403 15:44:39.848809 11157 net.cpp:141] Setting up pool1/3x3_s2
I0403 15:44:39.848834 11157 net.cpp:148] Top shape: 24 64 56 56 (4816896)
I0403 15:44:39.848848 11157 net.cpp:156] Memory required for data: 187860000
I0403 15:44:39.848862 11157 layer_factory.hpp:77] Creating layer pool1/norm1
I0403 15:44:39.848886 11157 net.cpp:91] Creating Layer pool1/norm1
I0403 15:44:39.848904 11157 net.cpp:425] pool1/norm1 <- pool1/3x3_s2
I0403 15:44:39.848922 11157 net.cpp:399] pool1/norm1 -> pool1/norm1
I0403 15:44:39.849238 11157 net.cpp:141] Setting up pool1/norm1
I0403 15:44:39.849267 11157 net.cpp:148] Top shape: 24 64 56 56 (4816896)
I0403 15:44:39.849282 11157 net.cpp:156] Memory required for data: 207127584
I0403 15:44:39.849298 11157 layer_factory.hpp:77] Creating layer conv2/3x3_reduce
I0403 15:44:39.849323 11157 net.cpp:91] Creating Layer conv2/3x3_reduce
I0403 15:44:39.849341 11157 net.cpp:425] conv2/3x3_reduce <- pool1/norm1
I0403 15:44:39.849362 11157 net.cpp:399] conv2/3x3_reduce -> conv2/3x3_reduce
I0403 15:44:39.850813 11157 net.cpp:141] Setting up conv2/3x3_reduce
I0403 15:44:39.850842 11157 net.cpp:148] Top shape: 24 64 56 56 (4816896)
I0403 15:44:39.850858 11157 net.cpp:156] Memory required for data: 226395168
I0403 15:44:39.850878 11157 layer_factory.hpp:77] Creating layer conv2/relu_3x3_reduce
I0403 15:44:39.850899 11157 net.cpp:91] Creating Layer conv2/relu_3x3_reduce
I0403 15:44:39.850916 11157 net.cpp:425] conv2/relu_3x3_reduce <- conv2/3x3_reduce
I0403 15:44:39.850934 11157 net.cpp:386] conv2/relu_3x3_reduce -> conv2/3x3_reduce (in-place)
I0403 15:44:39.851208 11157 net.cpp:141] Setting up conv2/relu_3x3_reduce
I0403 15:44:39.851235 11157 net.cpp:148] Top shape: 24 64 56 56 (4816896)
I0403 15:44:39.851261 11157 net.cpp:156] Memory required for data: 245662752
I0403 15:44:39.851277 11157 layer_factory.hpp:77] Creating layer conv2/3x3
I0403 15:44:39.851305 11157 net.cpp:91] Creating Layer conv2/3x3
I0403 15:44:39.851322 11157 net.cpp:425] conv2/3x3 <- conv2/3x3_reduce
I0403 15:44:39.851341 11157 net.cpp:399] conv2/3x3 -> conv2/3x3
I0403 15:44:39.853713 11157 net.cpp:141] Setting up conv2/3x3
I0403 15:44:39.853742 11157 net.cpp:148] Top shape: 24 192 56 56 (14450688)
I0403 15:44:39.853759 11157 net.cpp:156] Memory required for data: 303465504
I0403 15:44:39.853780 11157 layer_factory.hpp:77] Creating layer conv2/relu_3x3
I0403 15:44:39.853802 11157 net.cpp:91] Creating Layer conv2/relu_3x3
I0403 15:44:39.853818 11157 net.cpp:425] conv2/relu_3x3 <- conv2/3x3
I0403 15:44:39.853835 11157 net.cpp:386] conv2/relu_3x3 -> conv2/3x3 (in-place)
I0403 15:44:39.854025 11157 net.cpp:141] Setting up conv2/relu_3x3
I0403 15:44:39.854051 11157 net.cpp:148] Top shape: 24 192 56 56 (14450688)
I0403 15:44:39.854094 11157 net.cpp:156] Memory required for data: 361268256
I0403 15:44:39.854110 11157 layer_factory.hpp:77] Creating layer conv2/norm2
I0403 15:44:39.854133 11157 net.cpp:91] Creating Layer conv2/norm2
I0403 15:44:39.854151 11157 net.cpp:425] conv2/norm2 <- conv2/3x3
I0403 15:44:39.854168 11157 net.cpp:399] conv2/norm2 -> conv2/norm2
I0403 15:44:39.854480 11157 net.cpp:141] Setting up conv2/norm2
I0403 15:44:39.854507 11157 net.cpp:148] Top shape: 24 192 56 56 (14450688)
I0403 15:44:39.854523 11157 net.cpp:156] Memory required for data: 419071008
I0403 15:44:39.854537 11157 layer_factory.hpp:77] Creating layer pool2/3x3_s2
I0403 15:44:39.854557 11157 net.cpp:91] Creating Layer pool2/3x3_s2
I0403 15:44:39.854573 11157 net.cpp:425] pool2/3x3_s2 <- conv2/norm2
I0403 15:44:39.854591 11157 net.cpp:399] pool2/3x3_s2 -> pool2/3x3_s2
I0403 15:44:39.854643 11157 net.cpp:141] Setting up pool2/3x3_s2
I0403 15:44:39.854666 11157 net.cpp:148] Top shape: 24 192 28 28 (3612672)
I0403 15:44:39.854681 11157 net.cpp:156] Memory required for data: 433521696
I0403 15:44:39.854696 11157 layer_factory.hpp:77] Creating layer pool2/3x3_s2_pool2/3x3_s2_0_split
I0403 15:44:39.854713 11157 net.cpp:91] Creating Layer pool2/3x3_s2_pool2/3x3_s2_0_split
I0403 15:44:39.854728 11157 net.cpp:425] pool2/3x3_s2_pool2/3x3_s2_0_split <- pool2/3x3_s2
I0403 15:44:39.854748 11157 net.cpp:399] pool2/3x3_s2_pool2/3x3_s2_0_split -> pool2/3x3_s2_pool2/3x3_s2_0_split_0
I0403 15:44:39.854768 11157 net.cpp:399] pool2/3x3_s2_pool2/3x3_s2_0_split -> pool2/3x3_s2_pool2/3x3_s2_0_split_1
I0403 15:44:39.854789 11157 net.cpp:399] pool2/3x3_s2_pool2/3x3_s2_0_split -> pool2/3x3_s2_pool2/3x3_s2_0_split_2
I0403 15:44:39.854807 11157 net.cpp:399] pool2/3x3_s2_pool2/3x3_s2_0_split -> pool2/3x3_s2_pool2/3x3_s2_0_split_3
I0403 15:44:39.854876 11157 net.cpp:141] Setting up pool2/3x3_s2_pool2/3x3_s2_0_split
I0403 15:44:39.854899 11157 net.cpp:148] Top shape: 24 192 28 28 (3612672)
I0403 15:44:39.854918 11157 net.cpp:148] Top shape: 24 192 28 28 (3612672)
I0403 15:44:39.854933 11157 net.cpp:148] Top shape: 24 192 28 28 (3612672)
I0403 15:44:39.854948 11157 net.cpp:148] Top shape: 24 192 28 28 (3612672)
I0403 15:44:39.854962 11157 net.cpp:156] Memory required for data: 491324448
I0403 15:44:39.854980 11157 layer_factory.hpp:77] Creating layer inception_3a/1x1
I0403 15:44:39.855016 11157 net.cpp:91] Creating Layer inception_3a/1x1
I0403 15:44:39.855034 11157 net.cpp:425] inception_3a/1x1 <- pool2/3x3_s2_pool2/3x3_s2_0_split_0
I0403 15:44:39.855053 11157 net.cpp:399] inception_3a/1x1 -> inception_3a/1x1
I0403 15:44:39.859057 11157 net.cpp:141] Setting up inception_3a/1x1
I0403 15:44:39.859087 11157 net.cpp:148] Top shape: 24 64 28 28 (1204224)
I0403 15:44:39.859103 11157 net.cpp:156] Memory required for data: 496141344
I0403 15:44:39.859122 11157 layer_factory.hpp:77] Creating layer inception_3a/relu_1x1
I0403 15:44:39.859144 11157 net.cpp:91] Creating Layer inception_3a/relu_1x1
I0403 15:44:39.859161 11157 net.cpp:425] inception_3a/relu_1x1 <- inception_3a/1x1
I0403 15:44:39.859179 11157 net.cpp:386] inception_3a/relu_1x1 -> inception_3a/1x1 (in-place)
I0403 15:44:39.859372 11157 net.cpp:141] Setting up inception_3a/relu_1x1
I0403 15:44:39.859400 11157 net.cpp:148] Top shape: 24 64 28 28 (1204224)
I0403 15:44:39.859416 11157 net.cpp:156] Memory required for data: 500958240
I0403 15:44:39.859431 11157 layer_factory.hpp:77] Creating layer inception_3a/3x3_reduce
I0403 15:44:39.859452 11157 net.cpp:91] Creating Layer inception_3a/3x3_reduce
I0403 15:44:39.859469 11157 net.cpp:425] inception_3a/3x3_reduce <- pool2/3x3_s2_pool2/3x3_s2_0_split_1
I0403 15:44:39.859489 11157 net.cpp:399] inception_3a/3x3_reduce -> inception_3a/3x3_reduce
I0403 15:44:39.861222 11157 net.cpp:141] Setting up inception_3a/3x3_reduce
I0403 15:44:39.861251 11157 net.cpp:148] Top shape: 24 96 28 28 (1806336)
I0403 15:44:39.861268 11157 net.cpp:156] Memory required for data: 508183584
I0403 15:44:39.861300 11157 layer_factory.hpp:77] Creating layer inception_3a/relu_3x3_reduce
I0403 15:44:39.861337 11157 net.cpp:91] Creating Layer inception_3a/relu_3x3_reduce
I0403 15:44:39.861356 11157 net.cpp:425] inception_3a/relu_3x3_reduce <- inception_3a/3x3_reduce
I0403 15:44:39.861374 11157 net.cpp:386] inception_3a/relu_3x3_reduce -> inception_3a/3x3_reduce (in-place)
I0403 15:44:39.861553 11157 net.cpp:141] Setting up inception_3a/relu_3x3_reduce
I0403 15:44:39.861578 11157 net.cpp:148] Top shape: 24 96 28 28 (1806336)
I0403 15:44:39.861593 11157 net.cpp:156] Memory required for data: 515408928
I0403 15:44:39.861608 11157 layer_factory.hpp:77] Creating layer inception_3a/3x3
I0403 15:44:39.861630 11157 net.cpp:91] Creating Layer inception_3a/3x3
I0403 15:44:39.861647 11157 net.cpp:425] inception_3a/3x3 <- inception_3a/3x3_reduce
I0403 15:44:39.861672 11157 net.cpp:399] inception_3a/3x3 -> inception_3a/3x3
I0403 15:44:39.863373 11157 net.cpp:141] Setting up inception_3a/3x3
I0403 15:44:39.863404 11157 net.cpp:148] Top shape: 24 128 28 28 (2408448)
I0403 15:44:39.863421 11157 net.cpp:156] Memory required for data: 525042720
I0403 15:44:39.863440 11157 layer_factory.hpp:77] Creating layer inception_3a/relu_3x3
I0403 15:44:39.863458 11157 net.cpp:91] Creating Layer inception_3a/relu_3x3
I0403 15:44:39.863476 11157 net.cpp:425] inception_3a/relu_3x3 <- inception_3a/3x3
I0403 15:44:39.863492 11157 net.cpp:386] inception_3a/relu_3x3 -> inception_3a/3x3 (in-place)
I0403 15:44:39.863764 11157 net.cpp:141] Setting up inception_3a/relu_3x3
I0403 15:44:39.863791 11157 net.cpp:148] Top shape: 24 128 28 28 (2408448)
I0403 15:44:39.863807 11157 net.cpp:156] Memory required for data: 534676512
I0403 15:44:39.863822 11157 layer_factory.hpp:77] Creating layer inception_3a/5x5_reduce
I0403 15:44:39.863844 11157 net.cpp:91] Creating Layer inception_3a/5x5_reduce
I0403 15:44:39.863862 11157 net.cpp:425] inception_3a/5x5_reduce <- pool2/3x3_s2_pool2/3x3_s2_0_split_2
I0403 15:44:39.863879 11157 net.cpp:399] inception_3a/5x5_reduce -> inception_3a/5x5_reduce
I0403 15:44:39.864876 11157 net.cpp:141] Setting up inception_3a/5x5_reduce
I0403 15:44:39.864917 11157 net.cpp:148] Top shape: 24 16 28 28 (301056)
I0403 15:44:39.864933 11157 net.cpp:156] Memory required for data: 535880736
I0403 15:44:39.864953 11157 layer_factory.hpp:77] Creating layer inception_3a/relu_5x5_reduce
I0403 15:44:39.864970 11157 net.cpp:91] Creating Layer inception_3a/relu_5x5_reduce
I0403 15:44:39.865003 11157 net.cpp:425] inception_3a/relu_5x5_reduce <- inception_3a/5x5_reduce
I0403 15:44:39.865025 11157 net.cpp:386] inception_3a/relu_5x5_reduce -> inception_3a/5x5_reduce (in-place)
I0403 15:44:39.865358 11157 net.cpp:141] Setting up inception_3a/relu_5x5_reduce
I0403 15:44:39.865384 11157 net.cpp:148] Top shape: 24 16 28 28 (301056)
I0403 15:44:39.865399 11157 net.cpp:156] Memory required for data: 537084960
I0403 15:44:39.865414 11157 layer_factory.hpp:77] Creating layer inception_3a/5x5
I0403 15:44:39.865437 11157 net.cpp:91] Creating Layer inception_3a/5x5
I0403 15:44:39.865453 11157 net.cpp:425] inception_3a/5x5 <- inception_3a/5x5_reduce
I0403 15:44:39.865478 11157 net.cpp:399] inception_3a/5x5 -> inception_3a/5x5
I0403 15:44:39.866521 11157 net.cpp:141] Setting up inception_3a/5x5
I0403 15:44:39.866551 11157 net.cpp:148] Top shape: 24 32 28 28 (602112)
I0403 15:44:39.866567 11157 net.cpp:156] Memory required for data: 539493408
I0403 15:44:39.866585 11157 layer_factory.hpp:77] Creating layer inception_3a/relu_5x5
I0403 15:44:39.866605 11157 net.cpp:91] Creating Layer inception_3a/relu_5x5
I0403 15:44:39.866619 11157 net.cpp:425] inception_3a/relu_5x5 <- inception_3a/5x5
I0403 15:44:39.866636 11157 net.cpp:386] inception_3a/relu_5x5 -> inception_3a/5x5 (in-place)
I0403 15:44:39.866807 11157 net.cpp:141] Setting up inception_3a/relu_5x5
I0403 15:44:39.866834 11157 net.cpp:148] Top shape: 24 32 28 28 (602112)
I0403 15:44:39.866849 11157 net.cpp:156] Memory required for data: 541901856
I0403 15:44:39.866865 11157 layer_factory.hpp:77] Creating layer inception_3a/pool
I0403 15:44:39.866883 11157 net.cpp:91] Creating Layer inception_3a/pool
I0403 15:44:39.866912 11157 net.cpp:425] inception_3a/pool <- pool2/3x3_s2_pool2/3x3_s2_0_split_3
I0403 15:44:39.866933 11157 net.cpp:399] inception_3a/pool -> inception_3a/pool
I0403 15:44:39.867007 11157 net.cpp:141] Setting up inception_3a/pool
I0403 15:44:39.867034 11157 net.cpp:148] Top shape: 24 192 28 28 (3612672)
I0403 15:44:39.867049 11157 net.cpp:156] Memory required for data: 556352544
I0403 15:44:39.867064 11157 layer_factory.hpp:77] Creating layer inception_3a/pool_proj
I0403 15:44:39.867087 11157 net.cpp:91] Creating Layer inception_3a/pool_proj
I0403 15:44:39.867105 11157 net.cpp:425] inception_3a/pool_proj <- inception_3a/pool
I0403 15:44:39.867125 11157 net.cpp:399] inception_3a/pool_proj -> inception_3a/pool_proj
I0403 15:44:39.868121 11157 net.cpp:141] Setting up inception_3a/pool_proj
I0403 15:44:39.868150 11157 net.cpp:148] Top shape: 24 32 28 28 (602112)
I0403 15:44:39.868166 11157 net.cpp:156] Memory required for data: 558760992
I0403 15:44:39.868191 11157 layer_factory.hpp:77] Creating layer inception_3a/relu_pool_proj
I0403 15:44:39.868212 11157 net.cpp:91] Creating Layer inception_3a/relu_pool_proj
I0403 15:44:39.868228 11157 net.cpp:425] inception_3a/relu_pool_proj <- inception_3a/pool_proj
I0403 15:44:39.868248 11157 net.cpp:386] inception_3a/relu_pool_proj -> inception_3a/pool_proj (in-place)
I0403 15:44:39.868537 11157 net.cpp:141] Setting up inception_3a/relu_pool_proj
I0403 15:44:39.868566 11157 net.cpp:148] Top shape: 24 32 28 28 (602112)
I0403 15:44:39.868580 11157 net.cpp:156] Memory required for data: 561169440
I0403 15:44:39.868597 11157 layer_factory.hpp:77] Creating layer inception_3a/output
I0403 15:44:39.868614 11157 net.cpp:91] Creating Layer inception_3a/output
I0403 15:44:39.868630 11157 net.cpp:425] inception_3a/output <- inception_3a/1x1
I0403 15:44:39.868646 11157 net.cpp:425] inception_3a/output <- inception_3a/3x3
I0403 15:44:39.868662 11157 net.cpp:425] inception_3a/output <- inception_3a/5x5
I0403 15:44:39.868679 11157 net.cpp:425] inception_3a/output <- inception_3a/pool_proj
I0403 15:44:39.868695 11157 net.cpp:399] inception_3a/output -> inception_3a/output
I0403 15:44:39.868741 11157 net.cpp:141] Setting up inception_3a/output
I0403 15:44:39.868764 11157 net.cpp:148] Top shape: 24 256 28 28 (4816896)
I0403 15:44:39.868779 11157 net.cpp:156] Memory required for data: 580437024
I0403 15:44:39.868793 11157 layer_factory.hpp:77] Creating layer inception_3a/output_inception_3a/output_0_split
I0403 15:44:39.868815 11157 net.cpp:91] Creating Layer inception_3a/output_inception_3a/output_0_split
I0403 15:44:39.868831 11157 net.cpp:425] inception_3a/output_inception_3a/output_0_split <- inception_3a/output
I0403 15:44:39.868847 11157 net.cpp:399] inception_3a/output_inception_3a/output_0_split -> inception_3a/output_inception_3a/output_0_split_0
I0403 15:44:39.868867 11157 net.cpp:399] inception_3a/output_inception_3a/output_0_split -> inception_3a/output_inception_3a/output_0_split_1
I0403 15:44:39.868891 11157 net.cpp:399] inception_3a/output_inception_3a/output_0_split -> inception_3a/output_inception_3a/output_0_split_2
I0403 15:44:39.868912 11157 net.cpp:399] inception_3a/output_inception_3a/output_0_split -> inception_3a/output_inception_3a/output_0_split_3
I0403 15:44:39.869011 11157 net.cpp:141] Setting up inception_3a/output_inception_3a/output_0_split
I0403 15:44:39.869035 11157 net.cpp:148] Top shape: 24 256 28 28 (4816896)
I0403 15:44:39.869053 11157 net.cpp:148] Top shape: 24 256 28 28 (4816896)
I0403 15:44:39.869070 11157 net.cpp:148] Top shape: 24 256 28 28 (4816896)
I0403 15:44:39.869086 11157 net.cpp:148] Top shape: 24 256 28 28 (4816896)
I0403 15:44:39.869101 11157 net.cpp:156] Memory required for data: 657507360
I0403 15:44:39.869115 11157 layer_factory.hpp:77] Creating layer inception_3b/1x1
I0403 15:44:39.869140 11157 net.cpp:91] Creating Layer inception_3b/1x1
I0403 15:44:39.869158 11157 net.cpp:425] inception_3b/1x1 <- inception_3a/output_inception_3a/output_0_split_0
I0403 15:44:39.869176 11157 net.cpp:399] inception_3b/1x1 -> inception_3b/1x1
I0403 15:44:39.870352 11157 net.cpp:141] Setting up inception_3b/1x1
I0403 15:44:39.870390 11157 net.cpp:148] Top shape: 24 128 28 28 (2408448)
I0403 15:44:39.870406 11157 net.cpp:156] Memory required for data: 667141152
I0403 15:44:39.870424 11157 layer_factory.hpp:77] Creating layer inception_3b/relu_1x1
I0403 15:44:39.870445 11157 net.cpp:91] Creating Layer inception_3b/relu_1x1
I0403 15:44:39.870461 11157 net.cpp:425] inception_3b/relu_1x1 <- inception_3b/1x1
I0403 15:44:39.870481 11157 net.cpp:386] inception_3b/relu_1x1 -> inception_3b/1x1 (in-place)
I0403 15:44:39.870654 11157 net.cpp:141] Setting up inception_3b/relu_1x1
I0403 15:44:39.870681 11157 net.cpp:148] Top shape: 24 128 28 28 (2408448)
I0403 15:44:39.870695 11157 net.cpp:156] Memory required for data: 676774944
I0403 15:44:39.870710 11157 layer_factory.hpp:77] Creating layer inception_3b/3x3_reduce
I0403 15:44:39.870733 11157 net.cpp:91] Creating Layer inception_3b/3x3_reduce
I0403 15:44:39.870749 11157 net.cpp:425] inception_3b/3x3_reduce <- inception_3a/output_inception_3a/output_0_split_1
I0403 15:44:39.870769 11157 net.cpp:399] inception_3b/3x3_reduce -> inception_3b/3x3_reduce
I0403 15:44:39.871922 11157 net.cpp:141] Setting up inception_3b/3x3_reduce
I0403 15:44:39.871949 11157 net.cpp:148] Top shape: 24 128 28 28 (2408448)
I0403 15:44:39.871964 11157 net.cpp:156] Memory required for data: 686408736
I0403 15:44:39.871986 11157 layer_factory.hpp:77] Creating layer inception_3b/relu_3x3_reduce
I0403 15:44:39.872021 11157 net.cpp:91] Creating Layer inception_3b/relu_3x3_reduce
I0403 15:44:39.872038 11157 net.cpp:425] inception_3b/relu_3x3_reduce <- inception_3b/3x3_reduce
I0403 15:44:39.872056 11157 net.cpp:386] inception_3b/relu_3x3_reduce -> inception_3b/3x3_reduce (in-place)
I0403 15:44:39.872231 11157 net.cpp:141] Setting up inception_3b/relu_3x3_reduce
I0403 15:44:39.872258 11157 net.cpp:148] Top shape: 24 128 28 28 (2408448)
I0403 15:44:39.872274 11157 net.cpp:156] Memory required for data: 696042528
I0403 15:44:39.872303 11157 layer_factory.hpp:77] Creating layer inception_3b/3x3
I0403 15:44:39.872329 11157 net.cpp:91] Creating Layer inception_3b/3x3
I0403 15:44:39.872347 11157 net.cpp:425] inception_3b/3x3 <- inception_3b/3x3_reduce
I0403 15:44:39.872369 11157 net.cpp:399] inception_3b/3x3 -> inception_3b/3x3
I0403 15:44:39.875355 11157 net.cpp:141] Setting up inception_3b/3x3
I0403 15:44:39.875385 11157 net.cpp:148] Top shape: 24 192 28 28 (3612672)
I0403 15:44:39.875401 11157 net.cpp:156] Memory required for data: 710493216
I0403 15:44:39.875419 11157 layer_factory.hpp:77] Creating layer inception_3b/relu_3x3
I0403 15:44:39.875438 11157 net.cpp:91] Creating Layer inception_3b/relu_3x3
I0403 15:44:39.875453 11157 net.cpp:425] inception_3b/relu_3x3 <- inception_3b/3x3
I0403 15:44:39.875470 11157 net.cpp:386] inception_3b/relu_3x3 -> inception_3b/3x3 (in-place)
I0403 15:44:39.875746 11157 net.cpp:141] Setting up inception_3b/relu_3x3
I0403 15:44:39.875773 11157 net.cpp:148] Top shape: 24 192 28 28 (3612672)
I0403 15:44:39.875789 11157 net.cpp:156] Memory required for data: 724943904
I0403 15:44:39.875804 11157 layer_factory.hpp:77] Creating layer inception_3b/5x5_reduce
I0403 15:44:39.875826 11157 net.cpp:91] Creating Layer inception_3b/5x5_reduce
I0403 15:44:39.875844 11157 net.cpp:425] inception_3b/5x5_reduce <- inception_3a/output_inception_3a/output_0_split_2
I0403 15:44:39.875862 11157 net.cpp:399] inception_3b/5x5_reduce -> inception_3b/5x5_reduce
I0403 15:44:39.876912 11157 net.cpp:141] Setting up inception_3b/5x5_reduce
I0403 15:44:39.876943 11157 net.cpp:148] Top shape: 24 32 28 28 (602112)
I0403 15:44:39.876960 11157 net.cpp:156] Memory required for data: 727352352
I0403 15:44:39.876982 11157 layer_factory.hpp:77] Creating layer inception_3b/relu_5x5_reduce
I0403 15:44:39.877002 11157 net.cpp:91] Creating Layer inception_3b/relu_5x5_reduce
I0403 15:44:39.877018 11157 net.cpp:425] inception_3b/relu_5x5_reduce <- inception_3b/5x5_reduce
I0403 15:44:39.877037 11157 net.cpp:386] inception_3b/relu_5x5_reduce -> inception_3b/5x5_reduce (in-place)
I0403 15:44:39.877230 11157 net.cpp:141] Setting up inception_3b/relu_5x5_reduce
I0403 15:44:39.877255 11157 net.cpp:148] Top shape: 24 32 28 28 (602112)
I0403 15:44:39.877270 11157 net.cpp:156] Memory required for data: 729760800
I0403 15:44:39.877285 11157 layer_factory.hpp:77] Creating layer inception_3b/5x5
I0403 15:44:39.877306 11157 net.cpp:91] Creating Layer inception_3b/5x5
I0403 15:44:39.877323 11157 net.cpp:425] inception_3b/5x5 <- inception_3b/5x5_reduce
I0403 15:44:39.877344 11157 net.cpp:399] inception_3b/5x5 -> inception_3b/5x5
I0403 15:44:39.879366 11157 net.cpp:141] Setting up inception_3b/5x5
I0403 15:44:39.879396 11157 net.cpp:148] Top shape: 24 96 28 28 (1806336)
I0403 15:44:39.879412 11157 net.cpp:156] Memory required for data: 736986144
I0403 15:44:39.879431 11157 layer_factory.hpp:77] Creating layer inception_3b/relu_5x5
I0403 15:44:39.879452 11157 net.cpp:91] Creating Layer inception_3b/relu_5x5
I0403 15:44:39.879469 11157 net.cpp:425] inception_3b/relu_5x5 <- inception_3b/5x5
I0403 15:44:39.879487 11157 net.cpp:386] inception_3b/relu_5x5 -> inception_3b/5x5 (in-place)
I0403 15:44:39.879686 11157 net.cpp:141] Setting up inception_3b/relu_5x5
I0403 15:44:39.879711 11157 net.cpp:148] Top shape: 24 96 28 28 (1806336)
I0403 15:44:39.879727 11157 net.cpp:156] Memory required for data: 744211488
I0403 15:44:39.879741 11157 layer_factory.hpp:77] Creating layer inception_3b/pool
I0403 15:44:39.879760 11157 net.cpp:91] Creating Layer inception_3b/pool
I0403 15:44:39.879776 11157 net.cpp:425] inception_3b/pool <- inception_3a/output_inception_3a/output_0_split_3
I0403 15:44:39.879794 11157 net.cpp:399] inception_3b/pool -> inception_3b/pool
I0403 15:44:39.879851 11157 net.cpp:141] Setting up inception_3b/pool
I0403 15:44:39.879875 11157 net.cpp:148] Top shape: 24 256 28 28 (4816896)
I0403 15:44:39.879890 11157 net.cpp:156] Memory required for data: 763479072
I0403 15:44:39.879904 11157 layer_factory.hpp:77] Creating layer inception_3b/pool_proj
I0403 15:44:39.879927 11157 net.cpp:91] Creating Layer inception_3b/pool_proj
I0403 15:44:39.879945 11157 net.cpp:425] inception_3b/pool_proj <- inception_3b/pool
I0403 15:44:39.879966 11157 net.cpp:399] inception_3b/pool_proj -> inception_3b/pool_proj
I0403 15:44:39.881059 11157 net.cpp:141] Setting up inception_3b/pool_proj
I0403 15:44:39.881088 11157 net.cpp:148] Top shape: 24 64 28 28 (1204224)
I0403 15:44:39.881104 11157 net.cpp:156] Memory required for data: 768295968
I0403 15:44:39.881124 11157 layer_factory.hpp:77] Creating layer inception_3b/relu_pool_proj
I0403 15:44:39.881141 11157 net.cpp:91] Creating Layer inception_3b/relu_pool_proj
I0403 15:44:39.881161 11157 net.cpp:425] inception_3b/relu_pool_proj <- inception_3b/pool_proj
I0403 15:44:39.881180 11157 net.cpp:386] inception_3b/relu_pool_proj -> inception_3b/pool_proj (in-place)
I0403 15:44:39.881584 11157 net.cpp:141] Setting up inception_3b/relu_pool_proj
I0403 15:44:39.881613 11157 net.cpp:148] Top shape: 24 64 28 28 (1204224)
I0403 15:44:39.881628 11157 net.cpp:156] Memory required for data: 773112864
I0403 15:44:39.881644 11157 layer_factory.hpp:77] Creating layer inception_3b/output
I0403 15:44:39.881661 11157 net.cpp:91] Creating Layer inception_3b/output
I0403 15:44:39.881677 11157 net.cpp:425] inception_3b/output <- inception_3b/1x1
I0403 15:44:39.881695 11157 net.cpp:425] inception_3b/output <- inception_3b/3x3
I0403 15:44:39.881711 11157 net.cpp:425] inception_3b/output <- inception_3b/5x5
I0403 15:44:39.881726 11157 net.cpp:425] inception_3b/output <- inception_3b/pool_proj
I0403 15:44:39.881745 11157 net.cpp:399] inception_3b/output -> inception_3b/output
I0403 15:44:39.881790 11157 net.cpp:141] Setting up inception_3b/output
I0403 15:44:39.881816 11157 net.cpp:148] Top shape: 24 480 28 28 (9031680)
I0403 15:44:39.881832 11157 net.cpp:156] Memory required for data: 809239584
I0403 15:44:39.881847 11157 layer_factory.hpp:77] Creating layer pool3/3x3_s2
I0403 15:44:39.881865 11157 net.cpp:91] Creating Layer pool3/3x3_s2
I0403 15:44:39.881880 11157 net.cpp:425] pool3/3x3_s2 <- inception_3b/output
I0403 15:44:39.881913 11157 net.cpp:399] pool3/3x3_s2 -> pool3/3x3_s2
I0403 15:44:39.881975 11157 net.cpp:141] Setting up pool3/3x3_s2
I0403 15:44:39.882004 11157 net.cpp:148] Top shape: 24 480 14 14 (2257920)
I0403 15:44:39.882019 11157 net.cpp:156] Memory required for data: 818271264
I0403 15:44:39.882033 11157 layer_factory.hpp:77] Creating layer pool3/3x3_s2_pool3/3x3_s2_0_split
I0403 15:44:39.882050 11157 net.cpp:91] Creating Layer pool3/3x3_s2_pool3/3x3_s2_0_split
I0403 15:44:39.882066 11157 net.cpp:425] pool3/3x3_s2_pool3/3x3_s2_0_split <- pool3/3x3_s2
I0403 15:44:39.882086 11157 net.cpp:399] pool3/3x3_s2_pool3/3x3_s2_0_split -> pool3/3x3_s2_pool3/3x3_s2_0_split_0
I0403 15:44:39.882107 11157 net.cpp:399] pool3/3x3_s2_pool3/3x3_s2_0_split -> pool3/3x3_s2_pool3/3x3_s2_0_split_1
I0403 15:44:39.882127 11157 net.cpp:399] pool3/3x3_s2_pool3/3x3_s2_0_split -> pool3/3x3_s2_pool3/3x3_s2_0_split_2
I0403 15:44:39.882145 11157 net.cpp:399] pool3/3x3_s2_pool3/3x3_s2_0_split -> pool3/3x3_s2_pool3/3x3_s2_0_split_3
I0403 15:44:39.882227 11157 net.cpp:141] Setting up pool3/3x3_s2_pool3/3x3_s2_0_split
I0403 15:44:39.882251 11157 net.cpp:148] Top shape: 24 480 14 14 (2257920)
I0403 15:44:39.882267 11157 net.cpp:148] Top shape: 24 480 14 14 (2257920)
I0403 15:44:39.882283 11157 net.cpp:148] Top shape: 24 480 14 14 (2257920)
I0403 15:44:39.882300 11157 net.cpp:148] Top shape: 24 480 14 14 (2257920)
I0403 15:44:39.882314 11157 net.cpp:156] Memory required for data: 854397984
I0403 15:44:39.882330 11157 layer_factory.hpp:77] Creating layer inception_4a/1x1
I0403 15:44:39.882352 11157 net.cpp:91] Creating Layer inception_4a/1x1
I0403 15:44:39.882369 11157 net.cpp:425] inception_4a/1x1 <- pool3/3x3_s2_pool3/3x3_s2_0_split_0
I0403 15:44:39.882390 11157 net.cpp:399] inception_4a/1x1 -> inception_4a/1x1
I0403 15:44:39.884006 11157 net.cpp:141] Setting up inception_4a/1x1
I0403 15:44:39.884035 11157 net.cpp:148] Top shape: 24 192 14 14 (903168)
I0403 15:44:39.884052 11157 net.cpp:156] Memory required for data: 858010656
I0403 15:44:39.884071 11157 layer_factory.hpp:77] Creating layer inception_4a/relu_1x1
I0403 15:44:39.884091 11157 net.cpp:91] Creating Layer inception_4a/relu_1x1
I0403 15:44:39.884109 11157 net.cpp:425] inception_4a/relu_1x1 <- inception_4a/1x1
I0403 15:44:39.884126 11157 net.cpp:386] inception_4a/relu_1x1 -> inception_4a/1x1 (in-place)
I0403 15:44:39.884308 11157 net.cpp:141] Setting up inception_4a/relu_1x1
I0403 15:44:39.884333 11157 net.cpp:148] Top shape: 24 192 14 14 (903168)
I0403 15:44:39.884348 11157 net.cpp:156] Memory required for data: 861623328
I0403 15:44:39.884364 11157 layer_factory.hpp:77] Creating layer inception_4a/3x3_reduce
I0403 15:44:39.884388 11157 net.cpp:91] Creating Layer inception_4a/3x3_reduce
I0403 15:44:39.884407 11157 net.cpp:425] inception_4a/3x3_reduce <- pool3/3x3_s2_pool3/3x3_s2_0_split_1
I0403 15:44:39.884426 11157 net.cpp:399] inception_4a/3x3_reduce -> inception_4a/3x3_reduce
I0403 15:44:39.885725 11157 net.cpp:141] Setting up inception_4a/3x3_reduce
I0403 15:44:39.885753 11157 net.cpp:148] Top shape: 24 96 14 14 (451584)
I0403 15:44:39.885769 11157 net.cpp:156] Memory required for data: 863429664
I0403 15:44:39.885794 11157 layer_factory.hpp:77] Creating layer inception_4a/relu_3x3_reduce
I0403 15:44:39.885815 11157 net.cpp:91] Creating Layer inception_4a/relu_3x3_reduce
I0403 15:44:39.885831 11157 net.cpp:425] inception_4a/relu_3x3_reduce <- inception_4a/3x3_reduce
I0403 15:44:39.885853 11157 net.cpp:386] inception_4a/relu_3x3_reduce -> inception_4a/3x3_reduce (in-place)
I0403 15:44:39.886034 11157 net.cpp:141] Setting up inception_4a/relu_3x3_reduce
I0403 15:44:39.886060 11157 net.cpp:148] Top shape: 24 96 14 14 (451584)
I0403 15:44:39.886075 11157 net.cpp:156] Memory required for data: 865236000
I0403 15:44:39.886090 11157 layer_factory.hpp:77] Creating layer inception_4a/3x3
I0403 15:44:39.886113 11157 net.cpp:91] Creating Layer inception_4a/3x3
I0403 15:44:39.886131 11157 net.cpp:425] inception_4a/3x3 <- inception_4a/3x3_reduce
I0403 15:44:39.886152 11157 net.cpp:399] inception_4a/3x3 -> inception_4a/3x3
I0403 15:44:39.888919 11157 net.cpp:141] Setting up inception_4a/3x3
I0403 15:44:39.888948 11157 net.cpp:148] Top shape: 24 208 14 14 (978432)
I0403 15:44:39.888964 11157 net.cpp:156] Memory required for data: 869149728
I0403 15:44:39.888994 11157 layer_factory.hpp:77] Creating layer inception_4a/relu_3x3
I0403 15:44:39.889019 11157 net.cpp:91] Creating Layer inception_4a/relu_3x3
I0403 15:44:39.889036 11157 net.cpp:425] inception_4a/relu_3x3 <- inception_4a/3x3
I0403 15:44:39.889055 11157 net.cpp:386] inception_4a/relu_3x3 -> inception_4a/3x3 (in-place)
I0403 15:44:39.889338 11157 net.cpp:141] Setting up inception_4a/relu_3x3
I0403 15:44:39.889365 11157 net.cpp:148] Top shape: 24 208 14 14 (978432)
I0403 15:44:39.889381 11157 net.cpp:156] Memory required for data: 873063456
I0403 15:44:39.889396 11157 layer_factory.hpp:77] Creating layer inception_4a/5x5_reduce
I0403 15:44:39.889420 11157 net.cpp:91] Creating Layer inception_4a/5x5_reduce
I0403 15:44:39.889437 11157 net.cpp:425] inception_4a/5x5_reduce <- pool3/3x3_s2_pool3/3x3_s2_0_split_2
I0403 15:44:39.889459 11157 net.cpp:399] inception_4a/5x5_reduce -> inception_4a/5x5_reduce
I0403 15:44:39.890506 11157 net.cpp:141] Setting up inception_4a/5x5_reduce
I0403 15:44:39.890537 11157 net.cpp:148] Top shape: 24 16 14 14 (75264)
I0403 15:44:39.890552 11157 net.cpp:156] Memory required for data: 873364512
I0403 15:44:39.890573 11157 layer_factory.hpp:77] Creating layer inception_4a/relu_5x5_reduce
I0403 15:44:39.890590 11157 net.cpp:91] Creating Layer inception_4a/relu_5x5_reduce
I0403 15:44:39.890605 11157 net.cpp:425] inception_4a/relu_5x5_reduce <- inception_4a/5x5_reduce
I0403 15:44:39.890624 11157 net.cpp:386] inception_4a/relu_5x5_reduce -> inception_4a/5x5_reduce (in-place)
I0403 15:44:39.890807 11157 net.cpp:141] Setting up inception_4a/relu_5x5_reduce
I0403 15:44:39.890835 11157 net.cpp:148] Top shape: 24 16 14 14 (75264)
I0403 15:44:39.890851 11157 net.cpp:156] Memory required for data: 873665568
I0403 15:44:39.890866 11157 layer_factory.hpp:77] Creating layer inception_4a/5x5
I0403 15:44:39.890888 11157 net.cpp:91] Creating Layer inception_4a/5x5
I0403 15:44:39.890905 11157 net.cpp:425] inception_4a/5x5 <- inception_4a/5x5_reduce
I0403 15:44:39.890926 11157 net.cpp:399] inception_4a/5x5 -> inception_4a/5x5
I0403 15:44:39.892045 11157 net.cpp:141] Setting up inception_4a/5x5
I0403 15:44:39.892072 11157 net.cpp:148] Top shape: 24 48 14 14 (225792)
I0403 15:44:39.892088 11157 net.cpp:156] Memory required for data: 874568736
I0403 15:44:39.892107 11157 layer_factory.hpp:77] Creating layer inception_4a/relu_5x5
I0403 15:44:39.892125 11157 net.cpp:91] Creating Layer inception_4a/relu_5x5
I0403 15:44:39.892141 11157 net.cpp:425] inception_4a/relu_5x5 <- inception_4a/5x5
I0403 15:44:39.892161 11157 net.cpp:386] inception_4a/relu_5x5 -> inception_4a/5x5 (in-place)
I0403 15:44:39.892343 11157 net.cpp:141] Setting up inception_4a/relu_5x5
I0403 15:44:39.892367 11157 net.cpp:148] Top shape: 24 48 14 14 (225792)
I0403 15:44:39.892382 11157 net.cpp:156] Memory required for data: 875471904
I0403 15:44:39.892397 11157 layer_factory.hpp:77] Creating layer inception_4a/pool
I0403 15:44:39.892417 11157 net.cpp:91] Creating Layer inception_4a/pool
I0403 15:44:39.892436 11157 net.cpp:425] inception_4a/pool <- pool3/3x3_s2_pool3/3x3_s2_0_split_3
I0403 15:44:39.892453 11157 net.cpp:399] inception_4a/pool -> inception_4a/pool
I0403 15:44:39.892516 11157 net.cpp:141] Setting up inception_4a/pool
I0403 15:44:39.892541 11157 net.cpp:148] Top shape: 24 480 14 14 (2257920)
I0403 15:44:39.892556 11157 net.cpp:156] Memory required for data: 884503584
I0403 15:44:39.892571 11157 layer_factory.hpp:77] Creating layer inception_4a/pool_proj
I0403 15:44:39.892593 11157 net.cpp:91] Creating Layer inception_4a/pool_proj
I0403 15:44:39.892611 11157 net.cpp:425] inception_4a/pool_proj <- inception_4a/pool
I0403 15:44:39.892632 11157 net.cpp:399] inception_4a/pool_proj -> inception_4a/pool_proj
I0403 15:44:39.893826 11157 net.cpp:141] Setting up inception_4a/pool_proj
I0403 15:44:39.893856 11157 net.cpp:148] Top shape: 24 64 14 14 (301056)
I0403 15:44:39.893885 11157 net.cpp:156] Memory required for data: 885707808
I0403 15:44:39.893905 11157 layer_factory.hpp:77] Creating layer inception_4a/relu_pool_proj
I0403 15:44:39.893924 11157 net.cpp:91] Creating Layer inception_4a/relu_pool_proj
I0403 15:44:39.893940 11157 net.cpp:425] inception_4a/relu_pool_proj <- inception_4a/pool_proj
I0403 15:44:39.893961 11157 net.cpp:386] inception_4a/relu_pool_proj -> inception_4a/pool_proj (in-place)
I0403 15:44:39.894256 11157 net.cpp:141] Setting up inception_4a/relu_pool_proj
I0403 15:44:39.894284 11157 net.cpp:148] Top shape: 24 64 14 14 (301056)
I0403 15:44:39.894299 11157 net.cpp:156] Memory required for data: 886912032
I0403 15:44:39.894315 11157 layer_factory.hpp:77] Creating layer inception_4a/output
I0403 15:44:39.894332 11157 net.cpp:91] Creating Layer inception_4a/output
I0403 15:44:39.894348 11157 net.cpp:425] inception_4a/output <- inception_4a/1x1
I0403 15:44:39.894364 11157 net.cpp:425] inception_4a/output <- inception_4a/3x3
I0403 15:44:39.894381 11157 net.cpp:425] inception_4a/output <- inception_4a/5x5
I0403 15:44:39.894397 11157 net.cpp:425] inception_4a/output <- inception_4a/pool_proj
I0403 15:44:39.894417 11157 net.cpp:399] inception_4a/output -> inception_4a/output
I0403 15:44:39.894461 11157 net.cpp:141] Setting up inception_4a/output
I0403 15:44:39.894487 11157 net.cpp:148] Top shape: 24 512 14 14 (2408448)
I0403 15:44:39.894503 11157 net.cpp:156] Memory required for data: 896545824
I0403 15:44:39.894518 11157 layer_factory.hpp:77] Creating layer inception_4a/output_inception_4a/output_0_split
I0403 15:44:39.894536 11157 net.cpp:91] Creating Layer inception_4a/output_inception_4a/output_0_split
I0403 15:44:39.894552 11157 net.cpp:425] inception_4a/output_inception_4a/output_0_split <- inception_4a/output
I0403 15:44:39.894572 11157 net.cpp:399] inception_4a/output_inception_4a/output_0_split -> inception_4a/output_inception_4a/output_0_split_0
I0403 15:44:39.894594 11157 net.cpp:399] inception_4a/output_inception_4a/output_0_split -> inception_4a/output_inception_4a/output_0_split_1
I0403 15:44:39.894614 11157 net.cpp:399] inception_4a/output_inception_4a/output_0_split -> inception_4a/output_inception_4a/output_0_split_2
I0403 15:44:39.894634 11157 net.cpp:399] inception_4a/output_inception_4a/output_0_split -> inception_4a/output_inception_4a/output_0_split_3
I0403 15:44:39.894654 11157 net.cpp:399] inception_4a/output_inception_4a/output_0_split -> inception_4a/output_inception_4a/output_0_split_4
I0403 15:44:39.894752 11157 net.cpp:141] Setting up inception_4a/output_inception_4a/output_0_split
I0403 15:44:39.894778 11157 net.cpp:148] Top shape: 24 512 14 14 (2408448)
I0403 15:44:39.894796 11157 net.cpp:148] Top shape: 24 512 14 14 (2408448)
I0403 15:44:39.894812 11157 net.cpp:148] Top shape: 24 512 14 14 (2408448)
I0403 15:44:39.894829 11157 net.cpp:148] Top shape: 24 512 14 14 (2408448)
I0403 15:44:39.894845 11157 net.cpp:148] Top shape: 24 512 14 14 (2408448)
I0403 15:44:39.894860 11157 net.cpp:156] Memory required for data: 944714784
I0403 15:44:39.894875 11157 layer_factory.hpp:77] Creating layer loss1/ave_pool
I0403 15:44:39.894892 11157 net.cpp:91] Creating Layer loss1/ave_pool
I0403 15:44:39.894908 11157 net.cpp:425] loss1/ave_pool <- inception_4a/output_inception_4a/output_0_split_0
I0403 15:44:39.894925 11157 net.cpp:399] loss1/ave_pool -> loss1/ave_pool
I0403 15:44:39.895143 11157 net.cpp:141] Setting up loss1/ave_pool
I0403 15:44:39.895170 11157 net.cpp:148] Top shape: 24 512 4 4 (196608)
I0403 15:44:39.895185 11157 net.cpp:156] Memory required for data: 945501216
I0403 15:44:39.895202 11157 layer_factory.hpp:77] Creating layer loss1/conv
I0403 15:44:39.895226 11157 net.cpp:91] Creating Layer loss1/conv
I0403 15:44:39.895243 11157 net.cpp:425] loss1/conv <- loss1/ave_pool
I0403 15:44:39.895264 11157 net.cpp:399] loss1/conv -> loss1/conv
I0403 15:44:39.896704 11157 net.cpp:141] Setting up loss1/conv
I0403 15:44:39.896733 11157 net.cpp:148] Top shape: 24 128 4 4 (49152)
I0403 15:44:39.896764 11157 net.cpp:156] Memory required for data: 945697824
I0403 15:44:39.896787 11157 layer_factory.hpp:77] Creating layer loss1/relu_conv
I0403 15:44:39.896808 11157 net.cpp:91] Creating Layer loss1/relu_conv
I0403 15:44:39.896826 11157 net.cpp:425] loss1/relu_conv <- loss1/conv
I0403 15:44:39.896843 11157 net.cpp:386] loss1/relu_conv -> loss1/conv (in-place)
I0403 15:44:39.897146 11157 net.cpp:141] Setting up loss1/relu_conv
I0403 15:44:39.897172 11157 net.cpp:148] Top shape: 24 128 4 4 (49152)
I0403 15:44:39.897188 11157 net.cpp:156] Memory required for data: 945894432
I0403 15:44:39.897202 11157 layer_factory.hpp:77] Creating layer loss1/fc
I0403 15:44:39.897228 11157 net.cpp:91] Creating Layer loss1/fc
I0403 15:44:39.897246 11157 net.cpp:425] loss1/fc <- loss1/conv
I0403 15:44:39.897266 11157 net.cpp:399] loss1/fc -> loss1/fc
I0403 15:44:39.915122 11157 net.cpp:141] Setting up loss1/fc
I0403 15:44:39.915158 11157 net.cpp:148] Top shape: 24 1024 (24576)
I0403 15:44:39.915174 11157 net.cpp:156] Memory required for data: 945992736
I0403 15:44:39.915192 11157 layer_factory.hpp:77] Creating layer loss1/relu_fc
I0403 15:44:39.915212 11157 net.cpp:91] Creating Layer loss1/relu_fc
I0403 15:44:39.915227 11157 net.cpp:425] loss1/relu_fc <- loss1/fc
I0403 15:44:39.915246 11157 net.cpp:386] loss1/relu_fc -> loss1/fc (in-place)
I0403 15:44:39.915434 11157 net.cpp:141] Setting up loss1/relu_fc
I0403 15:44:39.915459 11157 net.cpp:148] Top shape: 24 1024 (24576)
I0403 15:44:39.915474 11157 net.cpp:156] Memory required for data: 946091040
I0403 15:44:39.915489 11157 layer_factory.hpp:77] Creating layer loss1/drop_fc
I0403 15:44:39.915516 11157 net.cpp:91] Creating Layer loss1/drop_fc
I0403 15:44:39.915534 11157 net.cpp:425] loss1/drop_fc <- loss1/fc
I0403 15:44:39.915551 11157 net.cpp:386] loss1/drop_fc -> loss1/fc (in-place)
I0403 15:44:39.915601 11157 net.cpp:141] Setting up loss1/drop_fc
I0403 15:44:39.915627 11157 net.cpp:148] Top shape: 24 1024 (24576)
I0403 15:44:39.915642 11157 net.cpp:156] Memory required for data: 946189344
I0403 15:44:39.915657 11157 layer_factory.hpp:77] Creating layer loss1/classifier_plantvillage
I0403 15:44:39.915675 11157 net.cpp:91] Creating Layer loss1/classifier_plantvillage
I0403 15:44:39.915691 11157 net.cpp:425] loss1/classifier_plantvillage <- loss1/fc
I0403 15:44:39.915712 11157 net.cpp:399] loss1/classifier_plantvillage -> loss1/classifier_plantvillage
I0403 15:44:39.916631 11157 net.cpp:141] Setting up loss1/classifier_plantvillage
I0403 15:44:39.916659 11157 net.cpp:148] Top shape: 24 38 (912)
I0403 15:44:39.916674 11157 net.cpp:156] Memory required for data: 946192992
I0403 15:44:39.916693 11157 layer_factory.hpp:77] Creating layer loss1/classifier_plantvillage_loss1/classifier_plantvillage_0_split
I0403 15:44:39.916713 11157 net.cpp:91] Creating Layer loss1/classifier_plantvillage_loss1/classifier_plantvillage_0_split
I0403 15:44:39.916730 11157 net.cpp:425] loss1/classifier_plantvillage_loss1/classifier_plantvillage_0_split <- loss1/classifier_plantvillage
I0403 15:44:39.916749 11157 net.cpp:399] loss1/classifier_plantvillage_loss1/classifier_plantvillage_0_split -> loss1/classifier_plantvillage_loss1/classifier_plantvillage_0_split_0
I0403 15:44:39.916769 11157 net.cpp:399] loss1/classifier_plantvillage_loss1/classifier_plantvillage_0_split -> loss1/classifier_plantvillage_loss1/classifier_plantvillage_0_split_1
I0403 15:44:39.916788 11157 net.cpp:399] loss1/classifier_plantvillage_loss1/classifier_plantvillage_0_split -> loss1/classifier_plantvillage_loss1/classifier_plantvillage_0_split_2
I0403 15:44:39.916856 11157 net.cpp:141] Setting up loss1/classifier_plantvillage_loss1/classifier_plantvillage_0_split
I0403 15:44:39.916877 11157 net.cpp:148] Top shape: 24 38 (912)
I0403 15:44:39.916893 11157 net.cpp:148] Top shape: 24 38 (912)
I0403 15:44:39.916909 11157 net.cpp:148] Top shape: 24 38 (912)
I0403 15:44:39.916923 11157 net.cpp:156] Memory required for data: 946203936
I0403 15:44:39.916939 11157 layer_factory.hpp:77] Creating layer inception_4b/1x1
I0403 15:44:39.916957 11157 net.cpp:91] Creating Layer inception_4b/1x1
I0403 15:44:39.916995 11157 net.cpp:425] inception_4b/1x1 <- inception_4a/output_inception_4a/output_0_split_1
I0403 15:44:39.917016 11157 net.cpp:399] inception_4b/1x1 -> inception_4b/1x1
I0403 15:44:39.918661 11157 net.cpp:141] Setting up inception_4b/1x1
I0403 15:44:39.918689 11157 net.cpp:148] Top shape: 24 160 14 14 (752640)
I0403 15:44:39.918707 11157 net.cpp:156] Memory required for data: 949214496
I0403 15:44:39.918725 11157 layer_factory.hpp:77] Creating layer inception_4b/relu_1x1
I0403 15:44:39.918745 11157 net.cpp:91] Creating Layer inception_4b/relu_1x1
I0403 15:44:39.918759 11157 net.cpp:425] inception_4b/relu_1x1 <- inception_4b/1x1
I0403 15:44:39.918776 11157 net.cpp:386] inception_4b/relu_1x1 -> inception_4b/1x1 (in-place)
I0403 15:44:39.918962 11157 net.cpp:141] Setting up inception_4b/relu_1x1
I0403 15:44:39.918998 11157 net.cpp:148] Top shape: 24 160 14 14 (752640)
I0403 15:44:39.919015 11157 net.cpp:156] Memory required for data: 952225056
I0403 15:44:39.919031 11157 layer_factory.hpp:77] Creating layer inception_4b/3x3_reduce
I0403 15:44:39.919052 11157 net.cpp:91] Creating Layer inception_4b/3x3_reduce
I0403 15:44:39.919070 11157 net.cpp:425] inception_4b/3x3_reduce <- inception_4a/output_inception_4a/output_0_split_2
I0403 15:44:39.919088 11157 net.cpp:399] inception_4b/3x3_reduce -> inception_4b/3x3_reduce
I0403 15:44:39.920456 11157 net.cpp:141] Setting up inception_4b/3x3_reduce
I0403 15:44:39.920487 11157 net.cpp:148] Top shape: 24 112 14 14 (526848)
I0403 15:44:39.920505 11157 net.cpp:156] Memory required for data: 954332448
I0403 15:44:39.920523 11157 layer_factory.hpp:77] Creating layer inception_4b/relu_3x3_reduce
I0403 15:44:39.920541 11157 net.cpp:91] Creating Layer inception_4b/relu_3x3_reduce
I0403 15:44:39.920557 11157 net.cpp:425] inception_4b/relu_3x3_reduce <- inception_4b/3x3_reduce
I0403 15:44:39.920577 11157 net.cpp:386] inception_4b/relu_3x3_reduce -> inception_4b/3x3_reduce (in-place)
I0403 15:44:39.920855 11157 net.cpp:141] Setting up inception_4b/relu_3x3_reduce
I0403 15:44:39.920883 11157 net.cpp:148] Top shape: 24 112 14 14 (526848)
I0403 15:44:39.920898 11157 net.cpp:156] Memory required for data: 956439840
I0403 15:44:39.920913 11157 layer_factory.hpp:77] Creating layer inception_4b/3x3
I0403 15:44:39.920936 11157 net.cpp:91] Creating Layer inception_4b/3x3
I0403 15:44:39.920953 11157 net.cpp:425] inception_4b/3x3 <- inception_4b/3x3_reduce
I0403 15:44:39.920972 11157 net.cpp:399] inception_4b/3x3 -> inception_4b/3x3
I0403 15:44:39.923965 11157 net.cpp:141] Setting up inception_4b/3x3
I0403 15:44:39.923997 11157 net.cpp:148] Top shape: 24 224 14 14 (1053696)
I0403 15:44:39.924015 11157 net.cpp:156] Memory required for data: 960654624
I0403 15:44:39.924033 11157 layer_factory.hpp:77] Creating layer inception_4b/relu_3x3
I0403 15:44:39.924053 11157 net.cpp:91] Creating Layer inception_4b/relu_3x3
I0403 15:44:39.924070 11157 net.cpp:425] inception_4b/relu_3x3 <- inception_4b/3x3
I0403 15:44:39.924088 11157 net.cpp:386] inception_4b/relu_3x3 -> inception_4b/3x3 (in-place)
I0403 15:44:39.924268 11157 net.cpp:141] Setting up inception_4b/relu_3x3
I0403 15:44:39.924293 11157 net.cpp:148] Top shape: 24 224 14 14 (1053696)
I0403 15:44:39.924307 11157 net.cpp:156] Memory required for data: 964869408
I0403 15:44:39.924322 11157 layer_factory.hpp:77] Creating layer inception_4b/5x5_reduce
I0403 15:44:39.924347 11157 net.cpp:91] Creating Layer inception_4b/5x5_reduce
I0403 15:44:39.924365 11157 net.cpp:425] inception_4b/5x5_reduce <- inception_4a/output_inception_4a/output_0_split_3
I0403 15:44:39.924384 11157 net.cpp:399] inception_4b/5x5_reduce -> inception_4b/5x5_reduce
I0403 15:44:39.925475 11157 net.cpp:141] Setting up inception_4b/5x5_reduce
I0403 15:44:39.925505 11157 net.cpp:148] Top shape: 24 24 14 14 (112896)
I0403 15:44:39.925521 11157 net.cpp:156] Memory required for data: 965320992
I0403 15:44:39.925540 11157 layer_factory.hpp:77] Creating layer inception_4b/relu_5x5_reduce
I0403 15:44:39.925559 11157 net.cpp:91] Creating Layer inception_4b/relu_5x5_reduce
I0403 15:44:39.925588 11157 net.cpp:425] inception_4b/relu_5x5_reduce <- inception_4b/5x5_reduce
I0403 15:44:39.925609 11157 net.cpp:386] inception_4b/relu_5x5_reduce -> inception_4b/5x5_reduce (in-place)
I0403 15:44:39.925791 11157 net.cpp:141] Setting up inception_4b/relu_5x5_reduce
I0403 15:44:39.925815 11157 net.cpp:148] Top shape: 24 24 14 14 (112896)
I0403 15:44:39.925830 11157 net.cpp:156] Memory required for data: 965772576
I0403 15:44:39.925845 11157 layer_factory.hpp:77] Creating layer inception_4b/5x5
I0403 15:44:39.925868 11157 net.cpp:91] Creating Layer inception_4b/5x5
I0403 15:44:39.925885 11157 net.cpp:425] inception_4b/5x5 <- inception_4b/5x5_reduce
I0403 15:44:39.925906 11157 net.cpp:399] inception_4b/5x5 -> inception_4b/5x5
I0403 15:44:39.927178 11157 net.cpp:141] Setting up inception_4b/5x5
I0403 15:44:39.927207 11157 net.cpp:148] Top shape: 24 64 14 14 (301056)
I0403 15:44:39.927227 11157 net.cpp:156] Memory required for data: 966976800
I0403 15:44:39.927247 11157 layer_factory.hpp:77] Creating layer inception_4b/relu_5x5
I0403 15:44:39.927264 11157 net.cpp:91] Creating Layer inception_4b/relu_5x5
I0403 15:44:39.927280 11157 net.cpp:425] inception_4b/relu_5x5 <- inception_4b/5x5
I0403 15:44:39.927297 11157 net.cpp:386] inception_4b/relu_5x5 -> inception_4b/5x5 (in-place)
I0403 15:44:39.927599 11157 net.cpp:141] Setting up inception_4b/relu_5x5
I0403 15:44:39.927628 11157 net.cpp:148] Top shape: 24 64 14 14 (301056)
I0403 15:44:39.927644 11157 net.cpp:156] Memory required for data: 968181024
I0403 15:44:39.927659 11157 layer_factory.hpp:77] Creating layer inception_4b/pool
I0403 15:44:39.927678 11157 net.cpp:91] Creating Layer inception_4b/pool
I0403 15:44:39.927695 11157 net.cpp:425] inception_4b/pool <- inception_4a/output_inception_4a/output_0_split_4
I0403 15:44:39.927713 11157 net.cpp:399] inception_4b/pool -> inception_4b/pool
I0403 15:44:39.927781 11157 net.cpp:141] Setting up inception_4b/pool
I0403 15:44:39.927805 11157 net.cpp:148] Top shape: 24 512 14 14 (2408448)
I0403 15:44:39.927820 11157 net.cpp:156] Memory required for data: 977814816
I0403 15:44:39.927835 11157 layer_factory.hpp:77] Creating layer inception_4b/pool_proj
I0403 15:44:39.927857 11157 net.cpp:91] Creating Layer inception_4b/pool_proj
I0403 15:44:39.927875 11157 net.cpp:425] inception_4b/pool_proj <- inception_4b/pool
I0403 15:44:39.927896 11157 net.cpp:399] inception_4b/pool_proj -> inception_4b/pool_proj
I0403 15:44:39.929162 11157 net.cpp:141] Setting up inception_4b/pool_proj
I0403 15:44:39.929193 11157 net.cpp:148] Top shape: 24 64 14 14 (301056)
I0403 15:44:39.929210 11157 net.cpp:156] Memory required for data: 979019040
I0403 15:44:39.929229 11157 layer_factory.hpp:77] Creating layer inception_4b/relu_pool_proj
I0403 15:44:39.929249 11157 net.cpp:91] Creating Layer inception_4b/relu_pool_proj
I0403 15:44:39.929265 11157 net.cpp:425] inception_4b/relu_pool_proj <- inception_4b/pool_proj
I0403 15:44:39.929283 11157 net.cpp:386] inception_4b/relu_pool_proj -> inception_4b/pool_proj (in-place)
I0403 15:44:39.929472 11157 net.cpp:141] Setting up inception_4b/relu_pool_proj
I0403 15:44:39.929498 11157 net.cpp:148] Top shape: 24 64 14 14 (301056)
I0403 15:44:39.929513 11157 net.cpp:156] Memory required for data: 980223264
I0403 15:44:39.929528 11157 layer_factory.hpp:77] Creating layer inception_4b/output
I0403 15:44:39.929545 11157 net.cpp:91] Creating Layer inception_4b/output
I0403 15:44:39.929561 11157 net.cpp:425] inception_4b/output <- inception_4b/1x1
I0403 15:44:39.929579 11157 net.cpp:425] inception_4b/output <- inception_4b/3x3
I0403 15:44:39.929594 11157 net.cpp:425] inception_4b/output <- inception_4b/5x5
I0403 15:44:39.929610 11157 net.cpp:425] inception_4b/output <- inception_4b/pool_proj
I0403 15:44:39.929630 11157 net.cpp:399] inception_4b/output -> inception_4b/output
I0403 15:44:39.929675 11157 net.cpp:141] Setting up inception_4b/output
I0403 15:44:39.929702 11157 net.cpp:148] Top shape: 24 512 14 14 (2408448)
I0403 15:44:39.929718 11157 net.cpp:156] Memory required for data: 989857056
I0403 15:44:39.929747 11157 layer_factory.hpp:77] Creating layer inception_4b/output_inception_4b/output_0_split
I0403 15:44:39.929765 11157 net.cpp:91] Creating Layer inception_4b/output_inception_4b/output_0_split
I0403 15:44:39.929781 11157 net.cpp:425] inception_4b/output_inception_4b/output_0_split <- inception_4b/output
I0403 15:44:39.929800 11157 net.cpp:399] inception_4b/output_inception_4b/output_0_split -> inception_4b/output_inception_4b/output_0_split_0
I0403 15:44:39.929823 11157 net.cpp:399] inception_4b/output_inception_4b/output_0_split -> inception_4b/output_inception_4b/output_0_split_1
I0403 15:44:39.929844 11157 net.cpp:399] inception_4b/output_inception_4b/output_0_split -> inception_4b/output_inception_4b/output_0_split_2
I0403 15:44:39.929864 11157 net.cpp:399] inception_4b/output_inception_4b/output_0_split -> inception_4b/output_inception_4b/output_0_split_3
I0403 15:44:39.929955 11157 net.cpp:141] Setting up inception_4b/output_inception_4b/output_0_split
I0403 15:44:39.929982 11157 net.cpp:148] Top shape: 24 512 14 14 (2408448)
I0403 15:44:39.930001 11157 net.cpp:148] Top shape: 24 512 14 14 (2408448)
I0403 15:44:39.930017 11157 net.cpp:148] Top shape: 24 512 14 14 (2408448)
I0403 15:44:39.930033 11157 net.cpp:148] Top shape: 24 512 14 14 (2408448)
I0403 15:44:39.930047 11157 net.cpp:156] Memory required for data: 1028392224
I0403 15:44:39.930063 11157 layer_factory.hpp:77] Creating layer inception_4c/1x1
I0403 15:44:39.930085 11157 net.cpp:91] Creating Layer inception_4c/1x1
I0403 15:44:39.930104 11157 net.cpp:425] inception_4c/1x1 <- inception_4b/output_inception_4b/output_0_split_0
I0403 15:44:39.930124 11157 net.cpp:399] inception_4c/1x1 -> inception_4c/1x1
I0403 15:44:39.931610 11157 net.cpp:141] Setting up inception_4c/1x1
I0403 15:44:39.931638 11157 net.cpp:148] Top shape: 24 128 14 14 (602112)
I0403 15:44:39.931654 11157 net.cpp:156] Memory required for data: 1030800672
I0403 15:44:39.931674 11157 layer_factory.hpp:77] Creating layer inception_4c/relu_1x1
I0403 15:44:39.931694 11157 net.cpp:91] Creating Layer inception_4c/relu_1x1
I0403 15:44:39.931712 11157 net.cpp:425] inception_4c/relu_1x1 <- inception_4c/1x1
I0403 15:44:39.931730 11157 net.cpp:386] inception_4c/relu_1x1 -> inception_4c/1x1 (in-place)
I0403 15:44:39.931915 11157 net.cpp:141] Setting up inception_4c/relu_1x1
I0403 15:44:39.931939 11157 net.cpp:148] Top shape: 24 128 14 14 (602112)
I0403 15:44:39.931954 11157 net.cpp:156] Memory required for data: 1033209120
I0403 15:44:39.931970 11157 layer_factory.hpp:77] Creating layer inception_4c/3x3_reduce
I0403 15:44:39.931998 11157 net.cpp:91] Creating Layer inception_4c/3x3_reduce
I0403 15:44:39.932016 11157 net.cpp:425] inception_4c/3x3_reduce <- inception_4b/output_inception_4b/output_0_split_1
I0403 15:44:39.932039 11157 net.cpp:399] inception_4c/3x3_reduce -> inception_4c/3x3_reduce
I0403 15:44:39.934057 11157 net.cpp:141] Setting up inception_4c/3x3_reduce
I0403 15:44:39.934087 11157 net.cpp:148] Top shape: 24 128 14 14 (602112)
I0403 15:44:39.934103 11157 net.cpp:156] Memory required for data: 1035617568
I0403 15:44:39.934123 11157 layer_factory.hpp:77] Creating layer inception_4c/relu_3x3_reduce
I0403 15:44:39.934144 11157 net.cpp:91] Creating Layer inception_4c/relu_3x3_reduce
I0403 15:44:39.934161 11157 net.cpp:425] inception_4c/relu_3x3_reduce <- inception_4c/3x3_reduce
I0403 15:44:39.934180 11157 net.cpp:386] inception_4c/relu_3x3_reduce -> inception_4c/3x3_reduce (in-place)
I0403 15:44:39.934470 11157 net.cpp:141] Setting up inception_4c/relu_3x3_reduce
I0403 15:44:39.934497 11157 net.cpp:148] Top shape: 24 128 14 14 (602112)
I0403 15:44:39.934514 11157 net.cpp:156] Memory required for data: 1038026016
I0403 15:44:39.934528 11157 layer_factory.hpp:77] Creating layer inception_4c/3x3
I0403 15:44:39.934554 11157 net.cpp:91] Creating Layer inception_4c/3x3
I0403 15:44:39.934572 11157 net.cpp:425] inception_4c/3x3 <- inception_4c/3x3_reduce
I0403 15:44:39.934592 11157 net.cpp:399] inception_4c/3x3 -> inception_4c/3x3
I0403 15:44:39.938315 11157 net.cpp:141] Setting up inception_4c/3x3
I0403 15:44:39.938360 11157 net.cpp:148] Top shape: 24 256 14 14 (1204224)
I0403 15:44:39.938377 11157 net.cpp:156] Memory required for data: 1042842912
I0403 15:44:39.938410 11157 layer_factory.hpp:77] Creating layer inception_4c/relu_3x3
I0403 15:44:39.938431 11157 net.cpp:91] Creating Layer inception_4c/relu_3x3
I0403 15:44:39.938447 11157 net.cpp:425] inception_4c/relu_3x3 <- inception_4c/3x3
I0403 15:44:39.938465 11157 net.cpp:386] inception_4c/relu_3x3 -> inception_4c/3x3 (in-place)
I0403 15:44:39.938658 11157 net.cpp:141] Setting up inception_4c/relu_3x3
I0403 15:44:39.938685 11157 net.cpp:148] Top shape: 24 256 14 14 (1204224)
I0403 15:44:39.938702 11157 net.cpp:156] Memory required for data: 1047659808
I0403 15:44:39.938717 11157 layer_factory.hpp:77] Creating layer inception_4c/5x5_reduce
I0403 15:44:39.938741 11157 net.cpp:91] Creating Layer inception_4c/5x5_reduce
I0403 15:44:39.938758 11157 net.cpp:425] inception_4c/5x5_reduce <- inception_4b/output_inception_4b/output_0_split_2
I0403 15:44:39.938778 11157 net.cpp:399] inception_4c/5x5_reduce -> inception_4c/5x5_reduce
I0403 15:44:39.939914 11157 net.cpp:141] Setting up inception_4c/5x5_reduce
I0403 15:44:39.939944 11157 net.cpp:148] Top shape: 24 24 14 14 (112896)
I0403 15:44:39.939960 11157 net.cpp:156] Memory required for data: 1048111392
I0403 15:44:39.939985 11157 layer_factory.hpp:77] Creating layer inception_4c/relu_5x5_reduce
I0403 15:44:39.940006 11157 net.cpp:91] Creating Layer inception_4c/relu_5x5_reduce
I0403 15:44:39.940022 11157 net.cpp:425] inception_4c/relu_5x5_reduce <- inception_4c/5x5_reduce
I0403 15:44:39.940039 11157 net.cpp:386] inception_4c/relu_5x5_reduce -> inception_4c/5x5_reduce (in-place)
I0403 15:44:39.940233 11157 net.cpp:141] Setting up inception_4c/relu_5x5_reduce
I0403 15:44:39.940258 11157 net.cpp:148] Top shape: 24 24 14 14 (112896)
I0403 15:44:39.940274 11157 net.cpp:156] Memory required for data: 1048562976
I0403 15:44:39.940289 11157 layer_factory.hpp:77] Creating layer inception_4c/5x5
I0403 15:44:39.940311 11157 net.cpp:91] Creating Layer inception_4c/5x5
I0403 15:44:39.940330 11157 net.cpp:425] inception_4c/5x5 <- inception_4c/5x5_reduce
I0403 15:44:39.940351 11157 net.cpp:399] inception_4c/5x5 -> inception_4c/5x5
I0403 15:44:39.941633 11157 net.cpp:141] Setting up inception_4c/5x5
I0403 15:44:39.941663 11157 net.cpp:148] Top shape: 24 64 14 14 (301056)
I0403 15:44:39.941679 11157 net.cpp:156] Memory required for data: 1049767200
I0403 15:44:39.941697 11157 layer_factory.hpp:77] Creating layer inception_4c/relu_5x5
I0403 15:44:39.941716 11157 net.cpp:91] Creating Layer inception_4c/relu_5x5
I0403 15:44:39.941732 11157 net.cpp:425] inception_4c/relu_5x5 <- inception_4c/5x5
I0403 15:44:39.941752 11157 net.cpp:386] inception_4c/relu_5x5 -> inception_4c/5x5 (in-place)
I0403 15:44:39.942057 11157 net.cpp:141] Setting up inception_4c/relu_5x5
I0403 15:44:39.942085 11157 net.cpp:148] Top shape: 24 64 14 14 (301056)
I0403 15:44:39.942101 11157 net.cpp:156] Memory required for data: 1050971424
I0403 15:44:39.942116 11157 layer_factory.hpp:77] Creating layer inception_4c/pool
I0403 15:44:39.942134 11157 net.cpp:91] Creating Layer inception_4c/pool
I0403 15:44:39.942152 11157 net.cpp:425] inception_4c/pool <- inception_4b/output_inception_4b/output_0_split_3
I0403 15:44:39.942172 11157 net.cpp:399] inception_4c/pool -> inception_4c/pool
I0403 15:44:39.942239 11157 net.cpp:141] Setting up inception_4c/pool
I0403 15:44:39.942265 11157 net.cpp:148] Top shape: 24 512 14 14 (2408448)
I0403 15:44:39.942282 11157 net.cpp:156] Memory required for data: 1060605216
I0403 15:44:39.942297 11157 layer_factory.hpp:77] Creating layer inception_4c/pool_proj
I0403 15:44:39.942319 11157 net.cpp:91] Creating Layer inception_4c/pool_proj
I0403 15:44:39.942337 11157 net.cpp:425] inception_4c/pool_proj <- inception_4c/pool
I0403 15:44:39.942356 11157 net.cpp:399] inception_4c/pool_proj -> inception_4c/pool_proj
I0403 15:44:39.943626 11157 net.cpp:141] Setting up inception_4c/pool_proj
I0403 15:44:39.943658 11157 net.cpp:148] Top shape: 24 64 14 14 (301056)
I0403 15:44:39.943688 11157 net.cpp:156] Memory required for data: 1061809440
I0403 15:44:39.943708 11157 layer_factory.hpp:77] Creating layer inception_4c/relu_pool_proj
I0403 15:44:39.943727 11157 net.cpp:91] Creating Layer inception_4c/relu_pool_proj
I0403 15:44:39.943744 11157 net.cpp:425] inception_4c/relu_pool_proj <- inception_4c/pool_proj
I0403 15:44:39.943761 11157 net.cpp:386] inception_4c/relu_pool_proj -> inception_4c/pool_proj (in-place)
I0403 15:44:39.943953 11157 net.cpp:141] Setting up inception_4c/relu_pool_proj
I0403 15:44:39.943981 11157 net.cpp:148] Top shape: 24 64 14 14 (301056)
I0403 15:44:39.944000 11157 net.cpp:156] Memory required for data: 1063013664
I0403 15:44:39.944015 11157 layer_factory.hpp:77] Creating layer inception_4c/output
I0403 15:44:39.944032 11157 net.cpp:91] Creating Layer inception_4c/output
I0403 15:44:39.944047 11157 net.cpp:425] inception_4c/output <- inception_4c/1x1
I0403 15:44:39.944064 11157 net.cpp:425] inception_4c/output <- inception_4c/3x3
I0403 15:44:39.944080 11157 net.cpp:425] inception_4c/output <- inception_4c/5x5
I0403 15:44:39.944097 11157 net.cpp:425] inception_4c/output <- inception_4c/pool_proj
I0403 15:44:39.944118 11157 net.cpp:399] inception_4c/output -> inception_4c/output
I0403 15:44:39.944165 11157 net.cpp:141] Setting up inception_4c/output
I0403 15:44:39.944190 11157 net.cpp:148] Top shape: 24 512 14 14 (2408448)
I0403 15:44:39.944206 11157 net.cpp:156] Memory required for data: 1072647456
I0403 15:44:39.944221 11157 layer_factory.hpp:77] Creating layer inception_4c/output_inception_4c/output_0_split
I0403 15:44:39.944241 11157 net.cpp:91] Creating Layer inception_4c/output_inception_4c/output_0_split
I0403 15:44:39.944257 11157 net.cpp:425] inception_4c/output_inception_4c/output_0_split <- inception_4c/output
I0403 15:44:39.944277 11157 net.cpp:399] inception_4c/output_inception_4c/output_0_split -> inception_4c/output_inception_4c/output_0_split_0
I0403 15:44:39.944298 11157 net.cpp:399] inception_4c/output_inception_4c/output_0_split -> inception_4c/output_inception_4c/output_0_split_1
I0403 15:44:39.944319 11157 net.cpp:399] inception_4c/output_inception_4c/output_0_split -> inception_4c/output_inception_4c/output_0_split_2
I0403 15:44:39.944340 11157 net.cpp:399] inception_4c/output_inception_4c/output_0_split -> inception_4c/output_inception_4c/output_0_split_3
I0403 15:44:39.944429 11157 net.cpp:141] Setting up inception_4c/output_inception_4c/output_0_split
I0403 15:44:39.944453 11157 net.cpp:148] Top shape: 24 512 14 14 (2408448)
I0403 15:44:39.944470 11157 net.cpp:148] Top shape: 24 512 14 14 (2408448)
I0403 15:44:39.944486 11157 net.cpp:148] Top shape: 24 512 14 14 (2408448)
I0403 15:44:39.944502 11157 net.cpp:148] Top shape: 24 512 14 14 (2408448)
I0403 15:44:39.944516 11157 net.cpp:156] Memory required for data: 1111182624
I0403 15:44:39.944531 11157 layer_factory.hpp:77] Creating layer inception_4d/1x1
I0403 15:44:39.944553 11157 net.cpp:91] Creating Layer inception_4d/1x1
I0403 15:44:39.944571 11157 net.cpp:425] inception_4d/1x1 <- inception_4c/output_inception_4c/output_0_split_0
I0403 15:44:39.944592 11157 net.cpp:399] inception_4d/1x1 -> inception_4d/1x1
I0403 15:44:39.946027 11157 net.cpp:141] Setting up inception_4d/1x1
I0403 15:44:39.946055 11157 net.cpp:148] Top shape: 24 112 14 14 (526848)
I0403 15:44:39.946071 11157 net.cpp:156] Memory required for data: 1113290016
I0403 15:44:39.946089 11157 layer_factory.hpp:77] Creating layer inception_4d/relu_1x1
I0403 15:44:39.946110 11157 net.cpp:91] Creating Layer inception_4d/relu_1x1
I0403 15:44:39.946126 11157 net.cpp:425] inception_4d/relu_1x1 <- inception_4d/1x1
I0403 15:44:39.946144 11157 net.cpp:386] inception_4d/relu_1x1 -> inception_4d/1x1 (in-place)
I0403 15:44:39.946333 11157 net.cpp:141] Setting up inception_4d/relu_1x1
I0403 15:44:39.946358 11157 net.cpp:148] Top shape: 24 112 14 14 (526848)
I0403 15:44:39.946373 11157 net.cpp:156] Memory required for data: 1115397408
I0403 15:44:39.946388 11157 layer_factory.hpp:77] Creating layer inception_4d/3x3_reduce
I0403 15:44:39.946426 11157 net.cpp:91] Creating Layer inception_4d/3x3_reduce
I0403 15:44:39.946444 11157 net.cpp:425] inception_4d/3x3_reduce <- inception_4c/output_inception_4c/output_0_split_1
I0403 15:44:39.946463 11157 net.cpp:399] inception_4d/3x3_reduce -> inception_4d/3x3_reduce
I0403 15:44:39.947989 11157 net.cpp:141] Setting up inception_4d/3x3_reduce
I0403 15:44:39.948017 11157 net.cpp:148] Top shape: 24 144 14 14 (677376)
I0403 15:44:39.948032 11157 net.cpp:156] Memory required for data: 1118106912
I0403 15:44:39.948050 11157 layer_factory.hpp:77] Creating layer inception_4d/relu_3x3_reduce
I0403 15:44:39.948068 11157 net.cpp:91] Creating Layer inception_4d/relu_3x3_reduce
I0403 15:44:39.948083 11157 net.cpp:425] inception_4d/relu_3x3_reduce <- inception_4d/3x3_reduce
I0403 15:44:39.948102 11157 net.cpp:386] inception_4d/relu_3x3_reduce -> inception_4d/3x3_reduce (in-place)
I0403 15:44:39.948392 11157 net.cpp:141] Setting up inception_4d/relu_3x3_reduce
I0403 15:44:39.948418 11157 net.cpp:148] Top shape: 24 144 14 14 (677376)
I0403 15:44:39.948433 11157 net.cpp:156] Memory required for data: 1120816416
I0403 15:44:39.948448 11157 layer_factory.hpp:77] Creating layer inception_4d/3x3
I0403 15:44:39.948470 11157 net.cpp:91] Creating Layer inception_4d/3x3
I0403 15:44:39.948487 11157 net.cpp:425] inception_4d/3x3 <- inception_4d/3x3_reduce
I0403 15:44:39.948508 11157 net.cpp:399] inception_4d/3x3 -> inception_4d/3x3
I0403 15:44:39.952833 11157 net.cpp:141] Setting up inception_4d/3x3
I0403 15:44:39.952862 11157 net.cpp:148] Top shape: 24 288 14 14 (1354752)
I0403 15:44:39.952879 11157 net.cpp:156] Memory required for data: 1126235424
I0403 15:44:39.952898 11157 layer_factory.hpp:77] Creating layer inception_4d/relu_3x3
I0403 15:44:39.952918 11157 net.cpp:91] Creating Layer inception_4d/relu_3x3
I0403 15:44:39.952934 11157 net.cpp:425] inception_4d/relu_3x3 <- inception_4d/3x3
I0403 15:44:39.952952 11157 net.cpp:386] inception_4d/relu_3x3 -> inception_4d/3x3 (in-place)
I0403 15:44:39.953140 11157 net.cpp:141] Setting up inception_4d/relu_3x3
I0403 15:44:39.953166 11157 net.cpp:148] Top shape: 24 288 14 14 (1354752)
I0403 15:44:39.953181 11157 net.cpp:156] Memory required for data: 1131654432
I0403 15:44:39.953197 11157 layer_factory.hpp:77] Creating layer inception_4d/5x5_reduce
I0403 15:44:39.953218 11157 net.cpp:91] Creating Layer inception_4d/5x5_reduce
I0403 15:44:39.953235 11157 net.cpp:425] inception_4d/5x5_reduce <- inception_4c/output_inception_4c/output_0_split_2
I0403 15:44:39.953254 11157 net.cpp:399] inception_4d/5x5_reduce -> inception_4d/5x5_reduce
I0403 15:44:39.954414 11157 net.cpp:141] Setting up inception_4d/5x5_reduce
I0403 15:44:39.954442 11157 net.cpp:148] Top shape: 24 32 14 14 (150528)
I0403 15:44:39.954457 11157 net.cpp:156] Memory required for data: 1132256544
I0403 15:44:39.954476 11157 layer_factory.hpp:77] Creating layer inception_4d/relu_5x5_reduce
I0403 15:44:39.954496 11157 net.cpp:91] Creating Layer inception_4d/relu_5x5_reduce
I0403 15:44:39.954514 11157 net.cpp:425] inception_4d/relu_5x5_reduce <- inception_4d/5x5_reduce
I0403 15:44:39.954530 11157 net.cpp:386] inception_4d/relu_5x5_reduce -> inception_4d/5x5_reduce (in-place)
I0403 15:44:39.954717 11157 net.cpp:141] Setting up inception_4d/relu_5x5_reduce
I0403 15:44:39.954744 11157 net.cpp:148] Top shape: 24 32 14 14 (150528)
I0403 15:44:39.954761 11157 net.cpp:156] Memory required for data: 1132858656
I0403 15:44:39.954774 11157 layer_factory.hpp:77] Creating layer inception_4d/5x5
I0403 15:44:39.954797 11157 net.cpp:91] Creating Layer inception_4d/5x5
I0403 15:44:39.954814 11157 net.cpp:425] inception_4d/5x5 <- inception_4d/5x5_reduce
I0403 15:44:39.954833 11157 net.cpp:399] inception_4d/5x5 -> inception_4d/5x5
I0403 15:44:39.956318 11157 net.cpp:141] Setting up inception_4d/5x5
I0403 15:44:39.956347 11157 net.cpp:148] Top shape: 24 64 14 14 (301056)
I0403 15:44:39.956364 11157 net.cpp:156] Memory required for data: 1134062880
I0403 15:44:39.956383 11157 layer_factory.hpp:77] Creating layer inception_4d/relu_5x5
I0403 15:44:39.956416 11157 net.cpp:91] Creating Layer inception_4d/relu_5x5
I0403 15:44:39.956434 11157 net.cpp:425] inception_4d/relu_5x5 <- inception_4d/5x5
I0403 15:44:39.956454 11157 net.cpp:386] inception_4d/relu_5x5 -> inception_4d/5x5 (in-place)
I0403 15:44:39.956756 11157 net.cpp:141] Setting up inception_4d/relu_5x5
I0403 15:44:39.956784 11157 net.cpp:148] Top shape: 24 64 14 14 (301056)
I0403 15:44:39.956800 11157 net.cpp:156] Memory required for data: 1135267104
I0403 15:44:39.956815 11157 layer_factory.hpp:77] Creating layer inception_4d/pool
I0403 15:44:39.956833 11157 net.cpp:91] Creating Layer inception_4d/pool
I0403 15:44:39.956851 11157 net.cpp:425] inception_4d/pool <- inception_4c/output_inception_4c/output_0_split_3
I0403 15:44:39.956871 11157 net.cpp:399] inception_4d/pool -> inception_4d/pool
I0403 15:44:39.956938 11157 net.cpp:141] Setting up inception_4d/pool
I0403 15:44:39.956960 11157 net.cpp:148] Top shape: 24 512 14 14 (2408448)
I0403 15:44:39.956975 11157 net.cpp:156] Memory required for data: 1144900896
I0403 15:44:39.956995 11157 layer_factory.hpp:77] Creating layer inception_4d/pool_proj
I0403 15:44:39.957017 11157 net.cpp:91] Creating Layer inception_4d/pool_proj
I0403 15:44:39.957036 11157 net.cpp:425] inception_4d/pool_proj <- inception_4d/pool
I0403 15:44:39.957059 11157 net.cpp:399] inception_4d/pool_proj -> inception_4d/pool_proj
I0403 15:44:39.958856 11157 net.cpp:141] Setting up inception_4d/pool_proj
I0403 15:44:39.958886 11157 net.cpp:148] Top shape: 24 64 14 14 (301056)
I0403 15:44:39.958902 11157 net.cpp:156] Memory required for data: 1146105120
I0403 15:44:39.958921 11157 layer_factory.hpp:77] Creating layer inception_4d/relu_pool_proj
I0403 15:44:39.958941 11157 net.cpp:91] Creating Layer inception_4d/relu_pool_proj
I0403 15:44:39.958958 11157 net.cpp:425] inception_4d/relu_pool_proj <- inception_4d/pool_proj
I0403 15:44:39.958976 11157 net.cpp:386] inception_4d/relu_pool_proj -> inception_4d/pool_proj (in-place)
I0403 15:44:39.959173 11157 net.cpp:141] Setting up inception_4d/relu_pool_proj
I0403 15:44:39.959200 11157 net.cpp:148] Top shape: 24 64 14 14 (301056)
I0403 15:44:39.959215 11157 net.cpp:156] Memory required for data: 1147309344
I0403 15:44:39.959230 11157 layer_factory.hpp:77] Creating layer inception_4d/output
I0403 15:44:39.959247 11157 net.cpp:91] Creating Layer inception_4d/output
I0403 15:44:39.959262 11157 net.cpp:425] inception_4d/output <- inception_4d/1x1
I0403 15:44:39.959280 11157 net.cpp:425] inception_4d/output <- inception_4d/3x3
I0403 15:44:39.959295 11157 net.cpp:425] inception_4d/output <- inception_4d/5x5
I0403 15:44:39.959311 11157 net.cpp:425] inception_4d/output <- inception_4d/pool_proj
I0403 15:44:39.959327 11157 net.cpp:399] inception_4d/output -> inception_4d/output
I0403 15:44:39.959377 11157 net.cpp:141] Setting up inception_4d/output
I0403 15:44:39.959399 11157 net.cpp:148] Top shape: 24 528 14 14 (2483712)
I0403 15:44:39.959414 11157 net.cpp:156] Memory required for data: 1157244192
I0403 15:44:39.959429 11157 layer_factory.hpp:77] Creating layer inception_4d/output_inception_4d/output_0_split
I0403 15:44:39.959449 11157 net.cpp:91] Creating Layer inception_4d/output_inception_4d/output_0_split
I0403 15:44:39.959465 11157 net.cpp:425] inception_4d/output_inception_4d/output_0_split <- inception_4d/output
I0403 15:44:39.959482 11157 net.cpp:399] inception_4d/output_inception_4d/output_0_split -> inception_4d/output_inception_4d/output_0_split_0
I0403 15:44:39.959502 11157 net.cpp:399] inception_4d/output_inception_4d/output_0_split -> inception_4d/output_inception_4d/output_0_split_1
I0403 15:44:39.959523 11157 net.cpp:399] inception_4d/output_inception_4d/output_0_split -> inception_4d/output_inception_4d/output_0_split_2
I0403 15:44:39.959545 11157 net.cpp:399] inception_4d/output_inception_4d/output_0_split -> inception_4d/output_inception_4d/output_0_split_3
I0403 15:44:39.959565 11157 net.cpp:399] inception_4d/output_inception_4d/output_0_split -> inception_4d/output_inception_4d/output_0_split_4
I0403 15:44:39.959671 11157 net.cpp:141] Setting up inception_4d/output_inception_4d/output_0_split
I0403 15:44:39.959707 11157 net.cpp:148] Top shape: 24 528 14 14 (2483712)
I0403 15:44:39.959723 11157 net.cpp:148] Top shape: 24 528 14 14 (2483712)
I0403 15:44:39.959738 11157 net.cpp:148] Top shape: 24 528 14 14 (2483712)
I0403 15:44:39.959754 11157 net.cpp:148] Top shape: 24 528 14 14 (2483712)
I0403 15:44:39.959769 11157 net.cpp:148] Top shape: 24 528 14 14 (2483712)
I0403 15:44:39.959784 11157 net.cpp:156] Memory required for data: 1206918432
I0403 15:44:39.959797 11157 layer_factory.hpp:77] Creating layer loss2/ave_pool
I0403 15:44:39.959818 11157 net.cpp:91] Creating Layer loss2/ave_pool
I0403 15:44:39.959836 11157 net.cpp:425] loss2/ave_pool <- inception_4d/output_inception_4d/output_0_split_0
I0403 15:44:39.959853 11157 net.cpp:399] loss2/ave_pool -> loss2/ave_pool
I0403 15:44:39.960170 11157 net.cpp:141] Setting up loss2/ave_pool
I0403 15:44:39.960196 11157 net.cpp:148] Top shape: 24 528 4 4 (202752)
I0403 15:44:39.960212 11157 net.cpp:156] Memory required for data: 1207729440
I0403 15:44:39.960227 11157 layer_factory.hpp:77] Creating layer loss2/conv
I0403 15:44:39.960250 11157 net.cpp:91] Creating Layer loss2/conv
I0403 15:44:39.960268 11157 net.cpp:425] loss2/conv <- loss2/ave_pool
I0403 15:44:39.960289 11157 net.cpp:399] loss2/conv -> loss2/conv
I0403 15:44:39.962210 11157 net.cpp:141] Setting up loss2/conv
I0403 15:44:39.962240 11157 net.cpp:148] Top shape: 24 128 4 4 (49152)
I0403 15:44:39.962257 11157 net.cpp:156] Memory required for data: 1207926048
I0403 15:44:39.962275 11157 layer_factory.hpp:77] Creating layer loss2/relu_conv
I0403 15:44:39.962292 11157 net.cpp:91] Creating Layer loss2/relu_conv
I0403 15:44:39.962308 11157 net.cpp:425] loss2/relu_conv <- loss2/conv
I0403 15:44:39.962327 11157 net.cpp:386] loss2/relu_conv -> loss2/conv (in-place)
I0403 15:44:39.962613 11157 net.cpp:141] Setting up loss2/relu_conv
I0403 15:44:39.962641 11157 net.cpp:148] Top shape: 24 128 4 4 (49152)
I0403 15:44:39.962656 11157 net.cpp:156] Memory required for data: 1208122656
I0403 15:44:39.962671 11157 layer_factory.hpp:77] Creating layer loss2/fc
I0403 15:44:39.962689 11157 net.cpp:91] Creating Layer loss2/fc
I0403 15:44:39.962707 11157 net.cpp:425] loss2/fc <- loss2/conv
I0403 15:44:39.962728 11157 net.cpp:399] loss2/fc -> loss2/fc
I0403 15:44:39.981060 11157 net.cpp:141] Setting up loss2/fc
I0403 15:44:39.981102 11157 net.cpp:148] Top shape: 24 1024 (24576)
I0403 15:44:39.981118 11157 net.cpp:156] Memory required for data: 1208220960
I0403 15:44:39.981138 11157 layer_factory.hpp:77] Creating layer loss2/relu_fc
I0403 15:44:39.981158 11157 net.cpp:91] Creating Layer loss2/relu_fc
I0403 15:44:39.981173 11157 net.cpp:425] loss2/relu_fc <- loss2/fc
I0403 15:44:39.981192 11157 net.cpp:386] loss2/relu_fc -> loss2/fc (in-place)
I0403 15:44:39.981505 11157 net.cpp:141] Setting up loss2/relu_fc
I0403 15:44:39.981534 11157 net.cpp:148] Top shape: 24 1024 (24576)
I0403 15:44:39.981550 11157 net.cpp:156] Memory required for data: 1208319264
I0403 15:44:39.981566 11157 layer_factory.hpp:77] Creating layer loss2/drop_fc
I0403 15:44:39.981595 11157 net.cpp:91] Creating Layer loss2/drop_fc
I0403 15:44:39.981611 11157 net.cpp:425] loss2/drop_fc <- loss2/fc
I0403 15:44:39.981628 11157 net.cpp:386] loss2/drop_fc -> loss2/fc (in-place)
I0403 15:44:39.981681 11157 net.cpp:141] Setting up loss2/drop_fc
I0403 15:44:39.981705 11157 net.cpp:148] Top shape: 24 1024 (24576)
I0403 15:44:39.981721 11157 net.cpp:156] Memory required for data: 1208417568
I0403 15:44:39.981736 11157 layer_factory.hpp:77] Creating layer loss2/classifier_plantvillage
I0403 15:44:39.981757 11157 net.cpp:91] Creating Layer loss2/classifier_plantvillage
I0403 15:44:39.981775 11157 net.cpp:425] loss2/classifier_plantvillage <- loss2/fc
I0403 15:44:39.981794 11157 net.cpp:399] loss2/classifier_plantvillage -> loss2/classifier_plantvillage
I0403 15:44:39.982221 11157 net.cpp:141] Setting up loss2/classifier_plantvillage
I0403 15:44:39.982246 11157 net.cpp:148] Top shape: 24 38 (912)
I0403 15:44:39.982280 11157 net.cpp:156] Memory required for data: 1208421216
I0403 15:44:39.982298 11157 layer_factory.hpp:77] Creating layer loss2/classifier_plantvillage_loss2/classifier_plantvillage_0_split
I0403 15:44:39.982316 11157 net.cpp:91] Creating Layer loss2/classifier_plantvillage_loss2/classifier_plantvillage_0_split
I0403 15:44:39.982332 11157 net.cpp:425] loss2/classifier_plantvillage_loss2/classifier_plantvillage_0_split <- loss2/classifier_plantvillage
I0403 15:44:39.982352 11157 net.cpp:399] loss2/classifier_plantvillage_loss2/classifier_plantvillage_0_split -> loss2/classifier_plantvillage_loss2/classifier_plantvillage_0_split_0
I0403 15:44:39.982373 11157 net.cpp:399] loss2/classifier_plantvillage_loss2/classifier_plantvillage_0_split -> loss2/classifier_plantvillage_loss2/classifier_plantvillage_0_split_1
I0403 15:44:39.982393 11157 net.cpp:399] loss2/classifier_plantvillage_loss2/classifier_plantvillage_0_split -> loss2/classifier_plantvillage_loss2/classifier_plantvillage_0_split_2
I0403 15:44:39.982470 11157 net.cpp:141] Setting up loss2/classifier_plantvillage_loss2/classifier_plantvillage_0_split
I0403 15:44:39.982496 11157 net.cpp:148] Top shape: 24 38 (912)
I0403 15:44:39.982513 11157 net.cpp:148] Top shape: 24 38 (912)
I0403 15:44:39.982528 11157 net.cpp:148] Top shape: 24 38 (912)
I0403 15:44:39.982542 11157 net.cpp:156] Memory required for data: 1208432160
I0403 15:44:39.982556 11157 layer_factory.hpp:77] Creating layer inception_4e/1x1
I0403 15:44:39.982579 11157 net.cpp:91] Creating Layer inception_4e/1x1
I0403 15:44:39.982596 11157 net.cpp:425] inception_4e/1x1 <- inception_4d/output_inception_4d/output_0_split_1
I0403 15:44:39.982615 11157 net.cpp:399] inception_4e/1x1 -> inception_4e/1x1
I0403 15:44:39.984447 11157 net.cpp:141] Setting up inception_4e/1x1
I0403 15:44:39.984488 11157 net.cpp:148] Top shape: 24 256 14 14 (1204224)
I0403 15:44:39.984504 11157 net.cpp:156] Memory required for data: 1213249056
I0403 15:44:39.984522 11157 layer_factory.hpp:77] Creating layer inception_4e/relu_1x1
I0403 15:44:39.984540 11157 net.cpp:91] Creating Layer inception_4e/relu_1x1
I0403 15:44:39.984556 11157 net.cpp:425] inception_4e/relu_1x1 <- inception_4e/1x1
I0403 15:44:39.984576 11157 net.cpp:386] inception_4e/relu_1x1 -> inception_4e/1x1 (in-place)
I0403 15:44:39.984884 11157 net.cpp:141] Setting up inception_4e/relu_1x1
I0403 15:44:39.984913 11157 net.cpp:148] Top shape: 24 256 14 14 (1204224)
I0403 15:44:39.984930 11157 net.cpp:156] Memory required for data: 1218065952
I0403 15:44:39.984946 11157 layer_factory.hpp:77] Creating layer inception_4e/3x3_reduce
I0403 15:44:39.984973 11157 net.cpp:91] Creating Layer inception_4e/3x3_reduce
I0403 15:44:39.984995 11157 net.cpp:425] inception_4e/3x3_reduce <- inception_4d/output_inception_4d/output_0_split_2
I0403 15:44:39.985018 11157 net.cpp:399] inception_4e/3x3_reduce -> inception_4e/3x3_reduce
I0403 15:44:39.987320 11157 net.cpp:141] Setting up inception_4e/3x3_reduce
I0403 15:44:39.987365 11157 net.cpp:148] Top shape: 24 160 14 14 (752640)
I0403 15:44:39.987381 11157 net.cpp:156] Memory required for data: 1221076512
I0403 15:44:39.987401 11157 layer_factory.hpp:77] Creating layer inception_4e/relu_3x3_reduce
I0403 15:44:39.987421 11157 net.cpp:91] Creating Layer inception_4e/relu_3x3_reduce
I0403 15:44:39.987437 11157 net.cpp:425] inception_4e/relu_3x3_reduce <- inception_4e/3x3_reduce
I0403 15:44:39.987454 11157 net.cpp:386] inception_4e/relu_3x3_reduce -> inception_4e/3x3_reduce (in-place)
I0403 15:44:39.987648 11157 net.cpp:141] Setting up inception_4e/relu_3x3_reduce
I0403 15:44:39.987673 11157 net.cpp:148] Top shape: 24 160 14 14 (752640)
I0403 15:44:39.987694 11157 net.cpp:156] Memory required for data: 1224087072
I0403 15:44:39.987709 11157 layer_factory.hpp:77] Creating layer inception_4e/3x3
I0403 15:44:39.987732 11157 net.cpp:91] Creating Layer inception_4e/3x3
I0403 15:44:39.987749 11157 net.cpp:425] inception_4e/3x3 <- inception_4e/3x3_reduce
I0403 15:44:39.987771 11157 net.cpp:399] inception_4e/3x3 -> inception_4e/3x3
I0403 15:44:39.993582 11157 net.cpp:141] Setting up inception_4e/3x3
I0403 15:44:39.993633 11157 net.cpp:148] Top shape: 24 320 14 14 (1505280)
I0403 15:44:39.993650 11157 net.cpp:156] Memory required for data: 1230108192
I0403 15:44:39.993669 11157 layer_factory.hpp:77] Creating layer inception_4e/relu_3x3
I0403 15:44:39.993690 11157 net.cpp:91] Creating Layer inception_4e/relu_3x3
I0403 15:44:39.993708 11157 net.cpp:425] inception_4e/relu_3x3 <- inception_4e/3x3
I0403 15:44:39.993726 11157 net.cpp:386] inception_4e/relu_3x3 -> inception_4e/3x3 (in-place)
I0403 15:44:39.994081 11157 net.cpp:141] Setting up inception_4e/relu_3x3
I0403 15:44:39.994108 11157 net.cpp:148] Top shape: 24 320 14 14 (1505280)
I0403 15:44:39.994125 11157 net.cpp:156] Memory required for data: 1236129312
I0403 15:44:39.994143 11157 layer_factory.hpp:77] Creating layer inception_4e/5x5_reduce
I0403 15:44:39.994165 11157 net.cpp:91] Creating Layer inception_4e/5x5_reduce
I0403 15:44:39.994184 11157 net.cpp:425] inception_4e/5x5_reduce <- inception_4d/output_inception_4d/output_0_split_3
I0403 15:44:39.994217 11157 net.cpp:399] inception_4e/5x5_reduce -> inception_4e/5x5_reduce
I0403 15:44:39.995419 11157 net.cpp:141] Setting up inception_4e/5x5_reduce
I0403 15:44:39.995461 11157 net.cpp:148] Top shape: 24 32 14 14 (150528)
I0403 15:44:39.995477 11157 net.cpp:156] Memory required for data: 1236731424
I0403 15:44:39.995496 11157 layer_factory.hpp:77] Creating layer inception_4e/relu_5x5_reduce
I0403 15:44:39.995522 11157 net.cpp:91] Creating Layer inception_4e/relu_5x5_reduce
I0403 15:44:39.995537 11157 net.cpp:425] inception_4e/relu_5x5_reduce <- inception_4e/5x5_reduce
I0403 15:44:39.995555 11157 net.cpp:386] inception_4e/relu_5x5_reduce -> inception_4e/5x5_reduce (in-place)
I0403 15:44:39.995857 11157 net.cpp:141] Setting up inception_4e/relu_5x5_reduce
I0403 15:44:39.995883 11157 net.cpp:148] Top shape: 24 32 14 14 (150528)
I0403 15:44:39.995899 11157 net.cpp:156] Memory required for data: 1237333536
I0403 15:44:39.995913 11157 layer_factory.hpp:77] Creating layer inception_4e/5x5
I0403 15:44:39.995965 11157 net.cpp:91] Creating Layer inception_4e/5x5
I0403 15:44:39.995987 11157 net.cpp:425] inception_4e/5x5 <- inception_4e/5x5_reduce
I0403 15:44:39.996021 11157 net.cpp:399] inception_4e/5x5 -> inception_4e/5x5
I0403 15:44:39.998025 11157 net.cpp:141] Setting up inception_4e/5x5
I0403 15:44:39.998054 11157 net.cpp:148] Top shape: 24 128 14 14 (602112)
I0403 15:44:39.998083 11157 net.cpp:156] Memory required for data: 1239741984
I0403 15:44:39.998103 11157 layer_factory.hpp:77] Creating layer inception_4e/relu_5x5
I0403 15:44:39.998126 11157 net.cpp:91] Creating Layer inception_4e/relu_5x5
I0403 15:44:39.998145 11157 net.cpp:425] inception_4e/relu_5x5 <- inception_4e/5x5
I0403 15:44:39.998162 11157 net.cpp:386] inception_4e/relu_5x5 -> inception_4e/5x5 (in-place)
I0403 15:44:39.998407 11157 net.cpp:141] Setting up inception_4e/relu_5x5
I0403 15:44:39.998431 11157 net.cpp:148] Top shape: 24 128 14 14 (602112)
I0403 15:44:39.998446 11157 net.cpp:156] Memory required for data: 1242150432
I0403 15:44:39.998461 11157 layer_factory.hpp:77] Creating layer inception_4e/pool
I0403 15:44:39.998479 11157 net.cpp:91] Creating Layer inception_4e/pool
I0403 15:44:39.998494 11157 net.cpp:425] inception_4e/pool <- inception_4d/output_inception_4d/output_0_split_4
I0403 15:44:39.998523 11157 net.cpp:399] inception_4e/pool -> inception_4e/pool
I0403 15:44:39.998599 11157 net.cpp:141] Setting up inception_4e/pool
I0403 15:44:39.998621 11157 net.cpp:148] Top shape: 24 528 14 14 (2483712)
I0403 15:44:39.998636 11157 net.cpp:156] Memory required for data: 1252085280
I0403 15:44:39.998649 11157 layer_factory.hpp:77] Creating layer inception_4e/pool_proj
I0403 15:44:39.998673 11157 net.cpp:91] Creating Layer inception_4e/pool_proj
I0403 15:44:39.998690 11157 net.cpp:425] inception_4e/pool_proj <- inception_4e/pool
I0403 15:44:39.998708 11157 net.cpp:399] inception_4e/pool_proj -> inception_4e/pool_proj
I0403 15:44:40.000368 11157 net.cpp:141] Setting up inception_4e/pool_proj
I0403 15:44:40.000406 11157 net.cpp:148] Top shape: 24 128 14 14 (602112)
I0403 15:44:40.000422 11157 net.cpp:156] Memory required for data: 1254493728
I0403 15:44:40.000440 11157 layer_factory.hpp:77] Creating layer inception_4e/relu_pool_proj
I0403 15:44:40.000460 11157 net.cpp:91] Creating Layer inception_4e/relu_pool_proj
I0403 15:44:40.000476 11157 net.cpp:425] inception_4e/relu_pool_proj <- inception_4e/pool_proj
I0403 15:44:40.000494 11157 net.cpp:386] inception_4e/relu_pool_proj -> inception_4e/pool_proj (in-place)
I0403 15:44:40.000787 11157 net.cpp:141] Setting up inception_4e/relu_pool_proj
I0403 15:44:40.000813 11157 net.cpp:148] Top shape: 24 128 14 14 (602112)
I0403 15:44:40.000828 11157 net.cpp:156] Memory required for data: 1256902176
I0403 15:44:40.000843 11157 layer_factory.hpp:77] Creating layer inception_4e/output
I0403 15:44:40.000861 11157 net.cpp:91] Creating Layer inception_4e/output
I0403 15:44:40.000877 11157 net.cpp:425] inception_4e/output <- inception_4e/1x1
I0403 15:44:40.000893 11157 net.cpp:425] inception_4e/output <- inception_4e/3x3
I0403 15:44:40.000910 11157 net.cpp:425] inception_4e/output <- inception_4e/5x5
I0403 15:44:40.000924 11157 net.cpp:425] inception_4e/output <- inception_4e/pool_proj
I0403 15:44:40.000953 11157 net.cpp:399] inception_4e/output -> inception_4e/output
I0403 15:44:40.001021 11157 net.cpp:141] Setting up inception_4e/output
I0403 15:44:40.001045 11157 net.cpp:148] Top shape: 24 832 14 14 (3913728)
I0403 15:44:40.001073 11157 net.cpp:156] Memory required for data: 1272557088
I0403 15:44:40.001090 11157 layer_factory.hpp:77] Creating layer pool4/3x3_s2
I0403 15:44:40.001108 11157 net.cpp:91] Creating Layer pool4/3x3_s2
I0403 15:44:40.001126 11157 net.cpp:425] pool4/3x3_s2 <- inception_4e/output
I0403 15:44:40.001147 11157 net.cpp:399] pool4/3x3_s2 -> pool4/3x3_s2
I0403 15:44:40.001219 11157 net.cpp:141] Setting up pool4/3x3_s2
I0403 15:44:40.001245 11157 net.cpp:148] Top shape: 24 832 7 7 (978432)
I0403 15:44:40.001260 11157 net.cpp:156] Memory required for data: 1276470816
I0403 15:44:40.001296 11157 layer_factory.hpp:77] Creating layer pool4/3x3_s2_pool4/3x3_s2_0_split
I0403 15:44:40.001317 11157 net.cpp:91] Creating Layer pool4/3x3_s2_pool4/3x3_s2_0_split
I0403 15:44:40.001335 11157 net.cpp:425] pool4/3x3_s2_pool4/3x3_s2_0_split <- pool4/3x3_s2
I0403 15:44:40.001366 11157 net.cpp:399] pool4/3x3_s2_pool4/3x3_s2_0_split -> pool4/3x3_s2_pool4/3x3_s2_0_split_0
I0403 15:44:40.001385 11157 net.cpp:399] pool4/3x3_s2_pool4/3x3_s2_0_split -> pool4/3x3_s2_pool4/3x3_s2_0_split_1
I0403 15:44:40.001405 11157 net.cpp:399] pool4/3x3_s2_pool4/3x3_s2_0_split -> pool4/3x3_s2_pool4/3x3_s2_0_split_2
I0403 15:44:40.001425 11157 net.cpp:399] pool4/3x3_s2_pool4/3x3_s2_0_split -> pool4/3x3_s2_pool4/3x3_s2_0_split_3
I0403 15:44:40.001513 11157 net.cpp:141] Setting up pool4/3x3_s2_pool4/3x3_s2_0_split
I0403 15:44:40.001535 11157 net.cpp:148] Top shape: 24 832 7 7 (978432)
I0403 15:44:40.001554 11157 net.cpp:148] Top shape: 24 832 7 7 (978432)
I0403 15:44:40.001579 11157 net.cpp:148] Top shape: 24 832 7 7 (978432)
I0403 15:44:40.001595 11157 net.cpp:148] Top shape: 24 832 7 7 (978432)
I0403 15:44:40.001607 11157 net.cpp:156] Memory required for data: 1292125728
I0403 15:44:40.001621 11157 layer_factory.hpp:77] Creating layer inception_5a/1x1
I0403 15:44:40.001641 11157 net.cpp:91] Creating Layer inception_5a/1x1
I0403 15:44:40.001657 11157 net.cpp:425] inception_5a/1x1 <- pool4/3x3_s2_pool4/3x3_s2_0_split_0
I0403 15:44:40.001677 11157 net.cpp:399] inception_5a/1x1 -> inception_5a/1x1
I0403 15:44:40.004770 11157 net.cpp:141] Setting up inception_5a/1x1
I0403 15:44:40.004801 11157 net.cpp:148] Top shape: 24 256 7 7 (301056)
I0403 15:44:40.004817 11157 net.cpp:156] Memory required for data: 1293329952
I0403 15:44:40.004834 11157 layer_factory.hpp:77] Creating layer inception_5a/relu_1x1
I0403 15:44:40.004853 11157 net.cpp:91] Creating Layer inception_5a/relu_1x1
I0403 15:44:40.004868 11157 net.cpp:425] inception_5a/relu_1x1 <- inception_5a/1x1
I0403 15:44:40.004884 11157 net.cpp:386] inception_5a/relu_1x1 -> inception_5a/1x1 (in-place)
I0403 15:44:40.005256 11157 net.cpp:141] Setting up inception_5a/relu_1x1
I0403 15:44:40.005307 11157 net.cpp:148] Top shape: 24 256 7 7 (301056)
I0403 15:44:40.005324 11157 net.cpp:156] Memory required for data: 1294534176
I0403 15:44:40.005339 11157 layer_factory.hpp:77] Creating layer inception_5a/3x3_reduce
I0403 15:44:40.005373 11157 net.cpp:91] Creating Layer inception_5a/3x3_reduce
I0403 15:44:40.005390 11157 net.cpp:425] inception_5a/3x3_reduce <- pool4/3x3_s2_pool4/3x3_s2_0_split_1
I0403 15:44:40.005409 11157 net.cpp:399] inception_5a/3x3_reduce -> inception_5a/3x3_reduce
I0403 15:44:40.008030 11157 net.cpp:141] Setting up inception_5a/3x3_reduce
I0403 15:44:40.008061 11157 net.cpp:148] Top shape: 24 160 7 7 (188160)
I0403 15:44:40.008077 11157 net.cpp:156] Memory required for data: 1295286816
I0403 15:44:40.008096 11157 layer_factory.hpp:77] Creating layer inception_5a/relu_3x3_reduce
I0403 15:44:40.008117 11157 net.cpp:91] Creating Layer inception_5a/relu_3x3_reduce
I0403 15:44:40.008136 11157 net.cpp:425] inception_5a/relu_3x3_reduce <- inception_5a/3x3_reduce
I0403 15:44:40.008152 11157 net.cpp:386] inception_5a/relu_3x3_reduce -> inception_5a/3x3_reduce (in-place)
I0403 15:44:40.008368 11157 net.cpp:141] Setting up inception_5a/relu_3x3_reduce
I0403 15:44:40.008394 11157 net.cpp:148] Top shape: 24 160 7 7 (188160)
I0403 15:44:40.008410 11157 net.cpp:156] Memory required for data: 1296039456
I0403 15:44:40.008424 11157 layer_factory.hpp:77] Creating layer inception_5a/3x3
I0403 15:44:40.008446 11157 net.cpp:91] Creating Layer inception_5a/3x3
I0403 15:44:40.008465 11157 net.cpp:425] inception_5a/3x3 <- inception_5a/3x3_reduce
I0403 15:44:40.008482 11157 net.cpp:399] inception_5a/3x3 -> inception_5a/3x3
I0403 15:44:40.013813 11157 net.cpp:141] Setting up inception_5a/3x3
I0403 15:44:40.013842 11157 net.cpp:148] Top shape: 24 320 7 7 (376320)
I0403 15:44:40.013859 11157 net.cpp:156] Memory required for data: 1297544736
I0403 15:44:40.013876 11157 layer_factory.hpp:77] Creating layer inception_5a/relu_3x3
I0403 15:44:40.013896 11157 net.cpp:91] Creating Layer inception_5a/relu_3x3
I0403 15:44:40.013913 11157 net.cpp:425] inception_5a/relu_3x3 <- inception_5a/3x3
I0403 15:44:40.013942 11157 net.cpp:386] inception_5a/relu_3x3 -> inception_5a/3x3 (in-place)
I0403 15:44:40.014279 11157 net.cpp:141] Setting up inception_5a/relu_3x3
I0403 15:44:40.014317 11157 net.cpp:148] Top shape: 24 320 7 7 (376320)
I0403 15:44:40.014331 11157 net.cpp:156] Memory required for data: 1299050016
I0403 15:44:40.014345 11157 layer_factory.hpp:77] Creating layer inception_5a/5x5_reduce
I0403 15:44:40.014369 11157 net.cpp:91] Creating Layer inception_5a/5x5_reduce
I0403 15:44:40.014387 11157 net.cpp:425] inception_5a/5x5_reduce <- pool4/3x3_s2_pool4/3x3_s2_0_split_2
I0403 15:44:40.014406 11157 net.cpp:399] inception_5a/5x5_reduce -> inception_5a/5x5_reduce
I0403 15:44:40.015666 11157 net.cpp:141] Setting up inception_5a/5x5_reduce
I0403 15:44:40.015697 11157 net.cpp:148] Top shape: 24 32 7 7 (37632)
I0403 15:44:40.015723 11157 net.cpp:156] Memory required for data: 1299200544
I0403 15:44:40.015743 11157 layer_factory.hpp:77] Creating layer inception_5a/relu_5x5_reduce
I0403 15:44:40.015761 11157 net.cpp:91] Creating Layer inception_5a/relu_5x5_reduce
I0403 15:44:40.015777 11157 net.cpp:425] inception_5a/relu_5x5_reduce <- inception_5a/5x5_reduce
I0403 15:44:40.015800 11157 net.cpp:386] inception_5a/relu_5x5_reduce -> inception_5a/5x5_reduce (in-place)
I0403 15:44:40.016124 11157 net.cpp:141] Setting up inception_5a/relu_5x5_reduce
I0403 15:44:40.016151 11157 net.cpp:148] Top shape: 24 32 7 7 (37632)
I0403 15:44:40.016166 11157 net.cpp:156] Memory required for data: 1299351072
I0403 15:44:40.016182 11157 layer_factory.hpp:77] Creating layer inception_5a/5x5
I0403 15:44:40.016206 11157 net.cpp:91] Creating Layer inception_5a/5x5
I0403 15:44:40.016234 11157 net.cpp:425] inception_5a/5x5 <- inception_5a/5x5_reduce
I0403 15:44:40.016255 11157 net.cpp:399] inception_5a/5x5 -> inception_5a/5x5
I0403 15:44:40.018079 11157 net.cpp:141] Setting up inception_5a/5x5
I0403 15:44:40.018120 11157 net.cpp:148] Top shape: 24 128 7 7 (150528)
I0403 15:44:40.018136 11157 net.cpp:156] Memory required for data: 1299953184
I0403 15:44:40.018154 11157 layer_factory.hpp:77] Creating layer inception_5a/relu_5x5
I0403 15:44:40.018175 11157 net.cpp:91] Creating Layer inception_5a/relu_5x5
I0403 15:44:40.018193 11157 net.cpp:425] inception_5a/relu_5x5 <- inception_5a/5x5
I0403 15:44:40.018224 11157 net.cpp:386] inception_5a/relu_5x5 -> inception_5a/5x5 (in-place)
I0403 15:44:40.018425 11157 net.cpp:141] Setting up inception_5a/relu_5x5
I0403 15:44:40.018450 11157 net.cpp:148] Top shape: 24 128 7 7 (150528)
I0403 15:44:40.018465 11157 net.cpp:156] Memory required for data: 1300555296
I0403 15:44:40.018479 11157 layer_factory.hpp:77] Creating layer inception_5a/pool
I0403 15:44:40.018496 11157 net.cpp:91] Creating Layer inception_5a/pool
I0403 15:44:40.018512 11157 net.cpp:425] inception_5a/pool <- pool4/3x3_s2_pool4/3x3_s2_0_split_3
I0403 15:44:40.018532 11157 net.cpp:399] inception_5a/pool -> inception_5a/pool
I0403 15:44:40.018601 11157 net.cpp:141] Setting up inception_5a/pool
I0403 15:44:40.018625 11157 net.cpp:148] Top shape: 24 832 7 7 (978432)
I0403 15:44:40.018638 11157 net.cpp:156] Memory required for data: 1304469024
I0403 15:44:40.018653 11157 layer_factory.hpp:77] Creating layer inception_5a/pool_proj
I0403 15:44:40.018676 11157 net.cpp:91] Creating Layer inception_5a/pool_proj
I0403 15:44:40.018692 11157 net.cpp:425] inception_5a/pool_proj <- inception_5a/pool
I0403 15:44:40.018710 11157 net.cpp:399] inception_5a/pool_proj -> inception_5a/pool_proj
I0403 15:44:40.021145 11157 net.cpp:141] Setting up inception_5a/pool_proj
I0403 15:44:40.021176 11157 net.cpp:148] Top shape: 24 128 7 7 (150528)
I0403 15:44:40.021193 11157 net.cpp:156] Memory required for data: 1305071136
I0403 15:44:40.021214 11157 layer_factory.hpp:77] Creating layer inception_5a/relu_pool_proj
I0403 15:44:40.021245 11157 net.cpp:91] Creating Layer inception_5a/relu_pool_proj
I0403 15:44:40.021262 11157 net.cpp:425] inception_5a/relu_pool_proj <- inception_5a/pool_proj
I0403 15:44:40.021301 11157 net.cpp:386] inception_5a/relu_pool_proj -> inception_5a/pool_proj (in-place)
I0403 15:44:40.021590 11157 net.cpp:141] Setting up inception_5a/relu_pool_proj
I0403 15:44:40.021615 11157 net.cpp:148] Top shape: 24 128 7 7 (150528)
I0403 15:44:40.021631 11157 net.cpp:156] Memory required for data: 1305673248
I0403 15:44:40.021644 11157 layer_factory.hpp:77] Creating layer inception_5a/output
I0403 15:44:40.021663 11157 net.cpp:91] Creating Layer inception_5a/output
I0403 15:44:40.021679 11157 net.cpp:425] inception_5a/output <- inception_5a/1x1
I0403 15:44:40.021697 11157 net.cpp:425] inception_5a/output <- inception_5a/3x3
I0403 15:44:40.021711 11157 net.cpp:425] inception_5a/output <- inception_5a/5x5
I0403 15:44:40.021728 11157 net.cpp:425] inception_5a/output <- inception_5a/pool_proj
I0403 15:44:40.021742 11157 net.cpp:399] inception_5a/output -> inception_5a/output
I0403 15:44:40.021793 11157 net.cpp:141] Setting up inception_5a/output
I0403 15:44:40.021816 11157 net.cpp:148] Top shape: 24 832 7 7 (978432)
I0403 15:44:40.021831 11157 net.cpp:156] Memory required for data: 1309586976
I0403 15:44:40.021844 11157 layer_factory.hpp:77] Creating layer inception_5a/output_inception_5a/output_0_split
I0403 15:44:40.021862 11157 net.cpp:91] Creating Layer inception_5a/output_inception_5a/output_0_split
I0403 15:44:40.021875 11157 net.cpp:425] inception_5a/output_inception_5a/output_0_split <- inception_5a/output
I0403 15:44:40.021894 11157 net.cpp:399] inception_5a/output_inception_5a/output_0_split -> inception_5a/output_inception_5a/output_0_split_0
I0403 15:44:40.021914 11157 net.cpp:399] inception_5a/output_inception_5a/output_0_split -> inception_5a/output_inception_5a/output_0_split_1
I0403 15:44:40.021945 11157 net.cpp:399] inception_5a/output_inception_5a/output_0_split -> inception_5a/output_inception_5a/output_0_split_2
I0403 15:44:40.021966 11157 net.cpp:399] inception_5a/output_inception_5a/output_0_split -> inception_5a/output_inception_5a/output_0_split_3
I0403 15:44:40.022097 11157 net.cpp:141] Setting up inception_5a/output_inception_5a/output_0_split
I0403 15:44:40.022124 11157 net.cpp:148] Top shape: 24 832 7 7 (978432)
I0403 15:44:40.022141 11157 net.cpp:148] Top shape: 24 832 7 7 (978432)
I0403 15:44:40.022157 11157 net.cpp:148] Top shape: 24 832 7 7 (978432)
I0403 15:44:40.022173 11157 net.cpp:148] Top shape: 24 832 7 7 (978432)
I0403 15:44:40.022187 11157 net.cpp:156] Memory required for data: 1325241888
I0403 15:44:40.022203 11157 layer_factory.hpp:77] Creating layer inception_5b/1x1
I0403 15:44:40.022238 11157 net.cpp:91] Creating Layer inception_5b/1x1
I0403 15:44:40.022255 11157 net.cpp:425] inception_5b/1x1 <- inception_5a/output_inception_5a/output_0_split_0
I0403 15:44:40.022280 11157 net.cpp:399] inception_5b/1x1 -> inception_5b/1x1
I0403 15:44:40.026296 11157 net.cpp:141] Setting up inception_5b/1x1
I0403 15:44:40.026326 11157 net.cpp:148] Top shape: 24 384 7 7 (451584)
I0403 15:44:40.026342 11157 net.cpp:156] Memory required for data: 1327048224
I0403 15:44:40.026360 11157 layer_factory.hpp:77] Creating layer inception_5b/relu_1x1
I0403 15:44:40.026381 11157 net.cpp:91] Creating Layer inception_5b/relu_1x1
I0403 15:44:40.026397 11157 net.cpp:425] inception_5b/relu_1x1 <- inception_5b/1x1
I0403 15:44:40.026414 11157 net.cpp:386] inception_5b/relu_1x1 -> inception_5b/1x1 (in-place)
I0403 15:44:40.026720 11157 net.cpp:141] Setting up inception_5b/relu_1x1
I0403 15:44:40.026744 11157 net.cpp:148] Top shape: 24 384 7 7 (451584)
I0403 15:44:40.026759 11157 net.cpp:156] Memory required for data: 1328854560
I0403 15:44:40.026773 11157 layer_factory.hpp:77] Creating layer inception_5b/3x3_reduce
I0403 15:44:40.026795 11157 net.cpp:91] Creating Layer inception_5b/3x3_reduce
I0403 15:44:40.026813 11157 net.cpp:425] inception_5b/3x3_reduce <- inception_5a/output_inception_5a/output_0_split_1
I0403 15:44:40.026834 11157 net.cpp:399] inception_5b/3x3_reduce -> inception_5b/3x3_reduce
I0403 15:44:40.029701 11157 net.cpp:141] Setting up inception_5b/3x3_reduce
I0403 15:44:40.029731 11157 net.cpp:148] Top shape: 24 192 7 7 (225792)
I0403 15:44:40.029747 11157 net.cpp:156] Memory required for data: 1329757728
I0403 15:44:40.029764 11157 layer_factory.hpp:77] Creating layer inception_5b/relu_3x3_reduce
I0403 15:44:40.029784 11157 net.cpp:91] Creating Layer inception_5b/relu_3x3_reduce
I0403 15:44:40.029800 11157 net.cpp:425] inception_5b/relu_3x3_reduce <- inception_5b/3x3_reduce
I0403 15:44:40.029819 11157 net.cpp:386] inception_5b/relu_3x3_reduce -> inception_5b/3x3_reduce (in-place)
I0403 15:44:40.030038 11157 net.cpp:141] Setting up inception_5b/relu_3x3_reduce
I0403 15:44:40.030066 11157 net.cpp:148] Top shape: 24 192 7 7 (225792)
I0403 15:44:40.030083 11157 net.cpp:156] Memory required for data: 1330660896
I0403 15:44:40.030099 11157 layer_factory.hpp:77] Creating layer inception_5b/3x3
I0403 15:44:40.030122 11157 net.cpp:91] Creating Layer inception_5b/3x3
I0403 15:44:40.030141 11157 net.cpp:425] inception_5b/3x3 <- inception_5b/3x3_reduce
I0403 15:44:40.030161 11157 net.cpp:399] inception_5b/3x3 -> inception_5b/3x3
I0403 15:44:40.036962 11157 net.cpp:141] Setting up inception_5b/3x3
I0403 15:44:40.036994 11157 net.cpp:148] Top shape: 24 384 7 7 (451584)
I0403 15:44:40.037011 11157 net.cpp:156] Memory required for data: 1332467232
I0403 15:44:40.037030 11157 layer_factory.hpp:77] Creating layer inception_5b/relu_3x3
I0403 15:44:40.037055 11157 net.cpp:91] Creating Layer inception_5b/relu_3x3
I0403 15:44:40.037072 11157 net.cpp:425] inception_5b/relu_3x3 <- inception_5b/3x3
I0403 15:44:40.037091 11157 net.cpp:386] inception_5b/relu_3x3 -> inception_5b/3x3 (in-place)
I0403 15:44:40.037389 11157 net.cpp:141] Setting up inception_5b/relu_3x3
I0403 15:44:40.037415 11157 net.cpp:148] Top shape: 24 384 7 7 (451584)
I0403 15:44:40.037431 11157 net.cpp:156] Memory required for data: 1334273568
I0403 15:44:40.037446 11157 layer_factory.hpp:77] Creating layer inception_5b/5x5_reduce
I0403 15:44:40.037483 11157 net.cpp:91] Creating Layer inception_5b/5x5_reduce
I0403 15:44:40.037503 11157 net.cpp:425] inception_5b/5x5_reduce <- inception_5a/output_inception_5a/output_0_split_2
I0403 15:44:40.037523 11157 net.cpp:399] inception_5b/5x5_reduce -> inception_5b/5x5_reduce
I0403 15:44:40.038806 11157 net.cpp:141] Setting up inception_5b/5x5_reduce
I0403 15:44:40.038833 11157 net.cpp:148] Top shape: 24 48 7 7 (56448)
I0403 15:44:40.038849 11157 net.cpp:156] Memory required for data: 1334499360
I0403 15:44:40.038867 11157 layer_factory.hpp:77] Creating layer inception_5b/relu_5x5_reduce
I0403 15:44:40.038887 11157 net.cpp:91] Creating Layer inception_5b/relu_5x5_reduce
I0403 15:44:40.038905 11157 net.cpp:425] inception_5b/relu_5x5_reduce <- inception_5b/5x5_reduce
I0403 15:44:40.038923 11157 net.cpp:386] inception_5b/relu_5x5_reduce -> inception_5b/5x5_reduce (in-place)
I0403 15:44:40.039319 11157 net.cpp:141] Setting up inception_5b/relu_5x5_reduce
I0403 15:44:40.039346 11157 net.cpp:148] Top shape: 24 48 7 7 (56448)
I0403 15:44:40.039361 11157 net.cpp:156] Memory required for data: 1334725152
I0403 15:44:40.039376 11157 layer_factory.hpp:77] Creating layer inception_5b/5x5
I0403 15:44:40.039397 11157 net.cpp:91] Creating Layer inception_5b/5x5
I0403 15:44:40.039413 11157 net.cpp:425] inception_5b/5x5 <- inception_5b/5x5_reduce
I0403 15:44:40.039433 11157 net.cpp:399] inception_5b/5x5 -> inception_5b/5x5
I0403 15:44:40.041506 11157 net.cpp:141] Setting up inception_5b/5x5
I0403 15:44:40.041535 11157 net.cpp:148] Top shape: 24 128 7 7 (150528)
I0403 15:44:40.041551 11157 net.cpp:156] Memory required for data: 1335327264
I0403 15:44:40.041570 11157 layer_factory.hpp:77] Creating layer inception_5b/relu_5x5
I0403 15:44:40.041589 11157 net.cpp:91] Creating Layer inception_5b/relu_5x5
I0403 15:44:40.041605 11157 net.cpp:425] inception_5b/relu_5x5 <- inception_5b/5x5
I0403 15:44:40.041622 11157 net.cpp:386] inception_5b/relu_5x5 -> inception_5b/5x5 (in-place)
I0403 15:44:40.041822 11157 net.cpp:141] Setting up inception_5b/relu_5x5
I0403 15:44:40.041847 11157 net.cpp:148] Top shape: 24 128 7 7 (150528)
I0403 15:44:40.041862 11157 net.cpp:156] Memory required for data: 1335929376
I0403 15:44:40.041877 11157 layer_factory.hpp:77] Creating layer inception_5b/pool
I0403 15:44:40.041894 11157 net.cpp:91] Creating Layer inception_5b/pool
I0403 15:44:40.041911 11157 net.cpp:425] inception_5b/pool <- inception_5a/output_inception_5a/output_0_split_3
I0403 15:44:40.041931 11157 net.cpp:399] inception_5b/pool -> inception_5b/pool
I0403 15:44:40.042011 11157 net.cpp:141] Setting up inception_5b/pool
I0403 15:44:40.042037 11157 net.cpp:148] Top shape: 24 832 7 7 (978432)
I0403 15:44:40.042052 11157 net.cpp:156] Memory required for data: 1339843104
I0403 15:44:40.042068 11157 layer_factory.hpp:77] Creating layer inception_5b/pool_proj
I0403 15:44:40.042089 11157 net.cpp:91] Creating Layer inception_5b/pool_proj
I0403 15:44:40.042106 11157 net.cpp:425] inception_5b/pool_proj <- inception_5b/pool
I0403 15:44:40.042124 11157 net.cpp:399] inception_5b/pool_proj -> inception_5b/pool_proj
I0403 15:44:40.044477 11157 net.cpp:141] Setting up inception_5b/pool_proj
I0403 15:44:40.044508 11157 net.cpp:148] Top shape: 24 128 7 7 (150528)
I0403 15:44:40.044524 11157 net.cpp:156] Memory required for data: 1340445216
I0403 15:44:40.044543 11157 layer_factory.hpp:77] Creating layer inception_5b/relu_pool_proj
I0403 15:44:40.044564 11157 net.cpp:91] Creating Layer inception_5b/relu_pool_proj
I0403 15:44:40.044580 11157 net.cpp:425] inception_5b/relu_pool_proj <- inception_5b/pool_proj
I0403 15:44:40.044598 11157 net.cpp:386] inception_5b/relu_pool_proj -> inception_5b/pool_proj (in-place)
I0403 15:44:40.044898 11157 net.cpp:141] Setting up inception_5b/relu_pool_proj
I0403 15:44:40.044924 11157 net.cpp:148] Top shape: 24 128 7 7 (150528)
I0403 15:44:40.044939 11157 net.cpp:156] Memory required for data: 1341047328
I0403 15:44:40.044955 11157 layer_factory.hpp:77] Creating layer inception_5b/output
I0403 15:44:40.044975 11157 net.cpp:91] Creating Layer inception_5b/output
I0403 15:44:40.045011 11157 net.cpp:425] inception_5b/output <- inception_5b/1x1
I0403 15:44:40.045028 11157 net.cpp:425] inception_5b/output <- inception_5b/3x3
I0403 15:44:40.045044 11157 net.cpp:425] inception_5b/output <- inception_5b/5x5
I0403 15:44:40.045061 11157 net.cpp:425] inception_5b/output <- inception_5b/pool_proj
I0403 15:44:40.045078 11157 net.cpp:399] inception_5b/output -> inception_5b/output
I0403 15:44:40.045133 11157 net.cpp:141] Setting up inception_5b/output
I0403 15:44:40.045157 11157 net.cpp:148] Top shape: 24 1024 7 7 (1204224)
I0403 15:44:40.045172 11157 net.cpp:156] Memory required for data: 1345864224
I0403 15:44:40.045186 11157 layer_factory.hpp:77] Creating layer pool5/7x7_s1
I0403 15:44:40.045205 11157 net.cpp:91] Creating Layer pool5/7x7_s1
I0403 15:44:40.045222 11157 net.cpp:425] pool5/7x7_s1 <- inception_5b/output
I0403 15:44:40.045243 11157 net.cpp:399] pool5/7x7_s1 -> pool5/7x7_s1
I0403 15:44:40.045461 11157 net.cpp:141] Setting up pool5/7x7_s1
I0403 15:44:40.045488 11157 net.cpp:148] Top shape: 24 1024 1 1 (24576)
I0403 15:44:40.045505 11157 net.cpp:156] Memory required for data: 1345962528
I0403 15:44:40.045519 11157 layer_factory.hpp:77] Creating layer pool5/drop_7x7_s1
I0403 15:44:40.045537 11157 net.cpp:91] Creating Layer pool5/drop_7x7_s1
I0403 15:44:40.045552 11157 net.cpp:425] pool5/drop_7x7_s1 <- pool5/7x7_s1
I0403 15:44:40.045570 11157 net.cpp:386] pool5/drop_7x7_s1 -> pool5/7x7_s1 (in-place)
I0403 15:44:40.045624 11157 net.cpp:141] Setting up pool5/drop_7x7_s1
I0403 15:44:40.045647 11157 net.cpp:148] Top shape: 24 1024 1 1 (24576)
I0403 15:44:40.045661 11157 net.cpp:156] Memory required for data: 1346060832
I0403 15:44:40.045676 11157 layer_factory.hpp:77] Creating layer loss3/classifier_plantvillage
I0403 15:44:40.045697 11157 net.cpp:91] Creating Layer loss3/classifier_plantvillage
I0403 15:44:40.045714 11157 net.cpp:425] loss3/classifier_plantvillage <- pool5/7x7_s1
I0403 15:44:40.045732 11157 net.cpp:399] loss3/classifier_plantvillage -> loss3/classifier_plantvillage
I0403 15:44:40.046169 11157 net.cpp:141] Setting up loss3/classifier_plantvillage
I0403 15:44:40.046193 11157 net.cpp:148] Top shape: 24 38 (912)
I0403 15:44:40.046210 11157 net.cpp:156] Memory required for data: 1346064480
I0403 15:44:40.046227 11157 layer_factory.hpp:77] Creating layer loss3/classifier_plantvillage_loss3/classifier_plantvillage_0_split
I0403 15:44:40.046246 11157 net.cpp:91] Creating Layer loss3/classifier_plantvillage_loss3/classifier_plantvillage_0_split
I0403 15:44:40.046262 11157 net.cpp:425] loss3/classifier_plantvillage_loss3/classifier_plantvillage_0_split <- loss3/classifier_plantvillage
I0403 15:44:40.046283 11157 net.cpp:399] loss3/classifier_plantvillage_loss3/classifier_plantvillage_0_split -> loss3/classifier_plantvillage_loss3/classifier_plantvillage_0_split_0
I0403 15:44:40.046303 11157 net.cpp:399] loss3/classifier_plantvillage_loss3/classifier_plantvillage_0_split -> loss3/classifier_plantvillage_loss3/classifier_plantvillage_0_split_1
I0403 15:44:40.046324 11157 net.cpp:399] loss3/classifier_plantvillage_loss3/classifier_plantvillage_0_split -> loss3/classifier_plantvillage_loss3/classifier_plantvillage_0_split_2
I0403 15:44:40.046344 11157 net.cpp:399] loss3/classifier_plantvillage_loss3/classifier_plantvillage_0_split -> loss3/classifier_plantvillage_loss3/classifier_plantvillage_0_split_3
I0403 15:44:40.046447 11157 net.cpp:141] Setting up loss3/classifier_plantvillage_loss3/classifier_plantvillage_0_split
I0403 15:44:40.046470 11157 net.cpp:148] Top shape: 24 38 (912)
I0403 15:44:40.046488 11157 net.cpp:148] Top shape: 24 38 (912)
I0403 15:44:40.046502 11157 net.cpp:148] Top shape: 24 38 (912)
I0403 15:44:40.046517 11157 net.cpp:148] Top shape: 24 38 (912)
I0403 15:44:40.046531 11157 net.cpp:156] Memory required for data: 1346079072
I0403 15:44:40.046545 11157 layer_factory.hpp:77] Creating layer loss1/loss
I0403 15:44:40.046567 11157 net.cpp:91] Creating Layer loss1/loss
I0403 15:44:40.046583 11157 net.cpp:425] loss1/loss <- loss1/classifier_plantvillage_loss1/classifier_plantvillage_0_split_0
I0403 15:44:40.046613 11157 net.cpp:425] loss1/loss <- label_data_1_split_0
…
