…
I0403 04:03:08.133658 21144 net.cpp:313] The NetState phase (0) differed from the phase (1) specified by a rule in layer loss3/top-5
I0403 04:03:08.137543 21144 net.cpp:49] Initializing net from parameters: 
state {
  phase: TRAIN
}
layer {
  name: "data"
  type: "Data"
  top: "data"
  top: "label"
  include {
    phase: TRAIN
  }
  transform_param {
    mirror: true
    crop_size: 224
    mean_file: "/home/mohanty/data/final_dataset/lmdb/segmented-50-50/mean.binaryproto"
  }
  data_param {
    source: "/home/mohanty/data/final_dataset/lmdb/segmented-50-50/train_db"
    batch_size: 24
    backend: LMDB
  }
}
layer {
  name: "conv1/7x7_s2"
  type: "Convolution"
  bottom: "data"
  top: "conv1/7x7_s2"
  param {
    lr_mult: 1
    decay_mult: 1
  }
  param {
    lr_mult: 2
    decay_mult: 0
  }
  convolution_param {
    num_output: 64
    pad: 3
    kernel_size: 7
    stride: 2
    weight_filler {
      type: "xavier"
      std: 0.1
    }
    bias_filler {
      type: "constant"
      value: 0.2
    }
  }
}
layer {
  name: "conv1/relu_7x7"
  type: "ReLU"
  bottom: "conv1/7x7_s2"
  top: "conv1/7x7_s2"
}
layer {
  name: "pool1/3x3_s2"
  type: "Pooling"
  bottom: "conv1/7x7_s2"
  top: "pool1/3x3_s2"
  pooling_param {
    pool: MAX
    kernel_size: 3
    stride: 2
  }
}
layer {
  name: "pool1/norm1"
  type: "LRN"
  bottom: "pool1/3x3_s2"
  top: "pool1/norm1"
  lrn_param {
    local_size: 5
    alpha: 0.0001
    beta: 0.75
  }
}
layer {
  name: "conv2/3x3_reduce"
  type: "Convolution"
  bottom: "pool1/norm1"
  top: "conv2/3x3_reduce"
  param {
    lr_mult: 1
    decay_mult: 1
  }
  param {
    lr_mult: 2
    decay_mult: 0
  }
  convolution_param {
    num_output: 64
    kernel_size: 1
    weight_filler {
      type: "xavier"
      std: 0.1
    }
    bias_filler {
      type: "constant"
      value: 0.2
    }
  }
}
layer {
  name: "conv2/relu_3x3_reduce"
  type: "ReLU"
  bottom: "conv2/3x3_reduce"
  top: "conv2/3x3_reduce"
}
layer {
  name: "conv2/3x3"
  type: "Convolution"
  bottom: "conv2/3x3_reduce"
  top: "conv2/3x3"
  param {
    lr_mult: 1
    decay_mult: 1
  }
  param {
    lr_mult: 2
    decay_mult: 0
  }
  convolution_param {
    num_output: 192
    pad: 1
    kernel_size: 3
    weight_filler {
      type: "xavier"
      std: 0.03
    }
    bias_filler {
      type: "constant"
      value: 0.2
    }
  }
}
layer {
  name: "conv2/relu_3x3"
  type: "ReLU"
  bottom: "conv2/3x3"
  top: "conv2/3x3"
}
layer {
  name: "conv2/norm2"
  type: "LRN"
  bottom: "conv2/3x3"
  top: "conv2/norm2"
  lrn_param {
    local_size: 5
    alpha: 0.0001
    beta: 0.75
  }
}
layer {
  name: "pool2/3x3_s2"
  type: "Pooling"
  bottom: "conv2/norm2"
  top: "pool2/3x3_s2"
  pooling_param {
    pool: MAX
    kernel_size: 3
    stride: 2
  }
}
layer {
  name: "inception_3a/1x1"
  type: "Convolution"
  bottom: "pool2/3x3_s2"
  top: "inception_3a/1x1"
  param {
    lr_mult: 1
    decay_mult: 1
  }
  param {
    lr_mult: 2
    decay_mult: 0
  }
  convolution_param {
    num_output: 64
    kernel_size: 1
    weight_filler {
      type: "xavier"
      std: 0.03
    }
    bias_filler {
      type: "constant"
      value: 0.2
    }
  }
}
layer {
  name: "inception_3a/relu_1x1"
  type: "ReLU"
  bottom: "inception_3a/1x1"
  top: "inception_3a/1x1"
}
layer {
  name: "inception_3a/3x3_reduce"
  type: "Convolution"
  bottom: "pool2/3x3_s2"
  top: "inception_3a/3x3_reduce"
  param {
    lr_mult: 1
    decay_mult: 1
  }
  param {
    lr_mult: 2
    decay_mult: 0
  }
  convolution_param {
    num_output: 96
    kernel_size: 1
    weight_filler {
      type: "xavier"
      std: 0.09
    }
    bias_filler {
      type: "constant"
      value: 0.2
    }
  }
}
layer {
  name: "inception_3a/relu_3x3_reduce"
  type: "ReLU"
  bottom: "inception_3a/3x3_reduce"
  top: "inception_3a/3x3_reduce"
}
layer {
  name: "inception_3a/3x3"
  type: "Convolution"
  bottom: "inception_3a/3x3_reduce"
  top: "inception_3a/3x3"
  param {
    lr_mult: 1
    decay_mult: 1
  }
  param {
    lr_mult: 2
    decay_mult: 0
  }
  convolution_param {
    num_output: 128
    pad: 1
    kernel_size: 3
    weight_filler {
      type: "xavier"
      std: 0.03
    }
    bias_filler {
      type: "constant"
      value: 0.2
    }
  }
}
layer {
  name: "inception_3a/relu_3x3"
  type: "ReLU"
  bottom: "inception_3a/3x3"
  top: "inception_3a/3x3"
}
layer {
  name: "inception_3a/5x5_reduce"
  type: "Convolution"
  bottom: "pool2/3x3_s2"
  top: "inception_3a/5x5_reduce"
  param {
    lr_mult: 1
    decay_mult: 1
  }
  param {
    lr_mult: 2
    decay_mult: 0
  }
  convolution_param {
    num_output: 16
    kernel_size: 1
    weight_filler {
      type: "xavier"
      std: 0.2
    }
    bias_filler {
      type: "constant"
      value: 0.2
    }
  }
}
layer {
  name: "inception_3a/relu_5x5_reduce"
  type: "ReLU"
  bottom: "inception_3a/5x5_reduce"
  top: "inception_3a/5x5_reduce"
}
layer {
  name: "inception_3a/5x5"
  type: "Convolution"
  bottom: "inception_3a/5x5_reduce"
  top: "inception_3a/5x5"
  param {
    lr_mult: 1
    decay_mult: 1
  }
  param {
    lr_mult: 2
    decay_mult: 0
  }
  convolution_param {
    num_output: 32
    pad: 2
    kernel_size: 5
    weight_filler {
      type: "xavier"
      std: 0.03
    }
    bias_filler {
      type: "constant"
      value: 0.2
    }
  }
}
layer {
  name: "inception_3a/relu_5x5"
  type: "ReLU"
  bottom: "inception_3a/5x5"
  top: "inception_3a/5x5"
}
layer {
  name: "inception_3a/pool"
  type: "Pooling"
  bottom: "pool2/3x3_s2"
  top: "inception_3a/pool"
  pooling_param {
    pool: MAX
    kernel_size: 3
    stride: 1
    pad: 1
  }
}
layer {
  name: "inception_3a/pool_proj"
  type: "Convolution"
  bottom: "inception_3a/pool"
  top: "inception_3a/pool_proj"
  param {
    lr_mult: 1
    decay_mult: 1
  }
  param {
    lr_mult: 2
    decay_mult: 0
  }
  convolution_param {
    num_output: 32
    kernel_size: 1
    weight_filler {
      type: "xavier"
      std: 0.1
    }
    bias_filler {
      type: "constant"
      value: 0.2
    }
  }
}
layer {
  name: "inception_3a/relu_pool_proj"
  type: "ReLU"
  bottom: "inception_3a/pool_proj"
  top: "inception_3a/pool_proj"
}
layer {
  name: "inception_3a/output"
  type: "Concat"
  bottom: "inception_3a/1x1"
  bottom: "inception_3a/3x3"
  bottom: "inception_3a/5x5"
  bottom: "inception_3a/pool_proj"
  top: "inception_3a/output"
}
layer {
  name: "inception_3b/1x1"
  type: "Convolution"
  bottom: "inception_3a/output"
  top: "inception_3b/1x1"
  param {
    lr_mult: 1
    decay_mult: 1
  }
  param {
    lr_mult: 2
    decay_mult: 0
  }
  convolution_param {
    num_output: 128
    kernel_size: 1
    weight_filler {
      type: "xavier"
      std: 0.03
    }
    bias_filler {
      type: "constant"
      value: 0.2
    }
  }
}
layer {
  name: "inception_3b/relu_1x1"
  type: "ReLU"
  bottom: "inception_3b/1x1"
  top: "inception_3b/1x1"
}
layer {
  name: "inception_3b/3x3_reduce"
  type: "Convolution"
  bottom: "inception_3a/output"
  top: "inception_3b/3x3_reduce"
  param {
    lr_mult: 1
    decay_mult: 1
  }
  param {
    lr_mult: 2
    decay_mult: 0
  }
  convolution_param {
    num_output: 128
    kernel_size: 1
    weight_filler {
      type: "xavier"
      std: 0.09
    }
    bias_filler {
      type: "constant"
      value: 0.2
    }
  }
}
layer {
  name: "inception_3b/relu_3x3_reduce"
  type: "ReLU"
  bottom: "inception_3b/3x3_reduce"
  top: "inception_3b/3x3_reduce"
}
layer {
  name: "inception_3b/3x3"
  type: "Convolution"
  bottom: "inception_3b/3x3_reduce"
  top: "inception_3b/3x3"
  param {
    lr_mult: 1
    decay_mult: 1
  }
  param {
    lr_mult: 2
    decay_mult: 0
  }
  convolution_param {
    num_output: 192
    pad: 1
    kernel_size: 3
    weight_filler {
      type: "xavier"
      std: 0.03
    }
    bias_filler {
      type: "constant"
      value: 0.2
    }
  }
}
layer {
  name: "inception_3b/relu_3x3"
  type: "ReLU"
  bottom: "inception_3b/3x3"
  top: "inception_3b/3x3"
}
layer {
  name: "inception_3b/5x5_reduce"
  type: "Convolution"
  bottom: "inception_3a/output"
  top: "inception_3b/5x5_reduce"
  param {
    lr_mult: 1
    decay_mult: 1
  }
  param {
    lr_mult: 2
    decay_mult: 0
  }
  convolution_param {
    num_output: 32
    kernel_size: 1
    weight_filler {
      type: "xavier"
      std: 0.2
    }
    bias_filler {
      type: "constant"
      value: 0.2
    }
  }
}
layer {
  name: "inception_3b/relu_5x5_reduce"
  type: "ReLU"
  bottom: "inception_3b/5x5_reduce"
  top: "inception_3b/5x5_reduce"
}
layer {
  name: "inception_3b/5x5"
  type: "Convolution"
  bottom: "inception_3b/5x5_reduce"
  top: "inception_3b/5x5"
  param {
    lr_mult: 1
    decay_mult: 1
  }
  param {
    lr_mult: 2
    decay_mult: 0
  }
  convolution_param {
    num_output: 96
    pad: 2
    kernel_size: 5
    weight_filler {
      type: "xavier"
      std: 0.03
    }
    bias_filler {
      type: "constant"
      value: 0.2
    }
  }
}
layer {
  name: "inception_3b/relu_5x5"
  type: "ReLU"
  bottom: "inception_3b/5x5"
  top: "inception_3b/5x5"
}
layer {
  name: "inception_3b/pool"
  type: "Pooling"
  bottom: "inception_3a/output"
  top: "inception_3b/pool"
  pooling_param {
    pool: MAX
    kernel_size: 3
    stride: 1
    pad: 1
  }
}
layer {
  name: "inception_3b/pool_proj"
  type: "Convolution"
  bottom: "inception_3b/pool"
  top: "inception_3b/pool_proj"
  param {
    lr_mult: 1
    decay_mult: 1
  }
  param {
    lr_mult: 2
    decay_mult: 0
  }
  convolution_param {
    num_output: 64
    kernel_size: 1
    weight_filler {
      type: "xavier"
      std: 0.1
    }
    bias_filler {
      type: "constant"
      value: 0.2
    }
  }
}
layer {
  name: "inception_3b/relu_pool_proj"
  type: "ReLU"
  bottom: "inception_3b/pool_proj"
  top: "inception_3b/pool_proj"
}
layer {
  name: "inception_3b/output"
  type: "Concat"
  bottom: "inception_3b/1x1"
  bottom: "inception_3b/3x3"
  bottom: "inception_3b/5x5"
  bottom: "inception_3b/pool_proj"
  top: "inception_3b/output"
}
layer {
  name: "pool3/3x3_s2"
  type: "Pooling"
  bottom: "inception_3b/output"
  top: "pool3/3x3_s2"
  pooling_param {
    pool: MAX
    kernel_size: 3
    stride: 2
  }
}
layer {
  name: "inception_4a/1x1"
  type: "Convolution"
  bottom: "pool3/3x3_s2"
  top: "inception_4a/1x1"
  param {
    lr_mult: 1
    decay_mult: 1
  }
  param {
    lr_mult: 2
    decay_mult: 0
  }
  convolution_param {
    num_output: 192
    kernel_size: 1
    weight_filler {
      type: "xavier"
      std: 0.03
    }
    bias_filler {
      type: "constant"
      value: 0.2
    }
  }
}
layer {
  name: "inception_4a/relu_1x1"
  type: "ReLU"
  bottom: "inception_4a/1x1"
  top: "inception_4a/1x1"
}
layer {
  name: "inception_4a/3x3_reduce"
  type: "Convolution"
  bottom: "pool3/3x3_s2"
  top: "inception_4a/3x3_reduce"
  param {
    lr_mult: 1
    decay_mult: 1
  }
  param {
    lr_mult: 2
    decay_mult: 0
  }
  convolution_param {
    num_output: 96
    kernel_size: 1
    weight_filler {
      type: "xavier"
      std: 0.09
    }
    bias_filler {
      type: "constant"
      value: 0.2
    }
  }
}
layer {
  name: "inception_4a/relu_3x3_reduce"
  type: "ReLU"
  bottom: "inception_4a/3x3_reduce"
  top: "inception_4a/3x3_reduce"
}
layer {
  name: "inception_4a/3x3"
  type: "Convolution"
  bottom: "inception_4a/3x3_reduce"
  top: "inception_4a/3x3"
  param {
    lr_mult: 1
    decay_mult: 1
  }
  param {
    lr_mult: 2
    decay_mult: 0
  }
  convolution_param {
    num_output: 208
    pad: 1
    kernel_size: 3
    weight_filler {
      type: "xavier"
      std: 0.03
    }
    bias_filler {
      type: "constant"
      value: 0.2
    }
  }
}
layer {
  name: "inception_4a/relu_3x3"
  type: "ReLU"
  bottom: "inception_4a/3x3"
  top: "inception_4a/3x3"
}
layer {
  name: "inception_4a/5x5_reduce"
  type: "Convolution"
  bottom: "pool3/3x3_s2"
  top: "inception_4a/5x5_reduce"
  param {
    lr_mult: 1
    decay_mult: 1
  }
  param {
    lr_mult: 2
    decay_mult: 0
  }
  convolution_param {
    num_output: 16
    kernel_size: 1
    weight_filler {
      type: "xavier"
      std: 0.2
    }
    bias_filler {
      type: "constant"
      value: 0.2
    }
  }
}
layer {
  name: "inception_4a/relu_5x5_reduce"
  type: "ReLU"
  bottom: "inception_4a/5x5_reduce"
  top: "inception_4a/5x5_reduce"
}
layer {
  name: "inception_4a/5x5"
  type: "Convolution"
  bottom: "inception_4a/5x5_reduce"
  top: "inception_4a/5x5"
  param {
    lr_mult: 1
    decay_mult: 1
  }
  param {
    lr_mult: 2
    decay_mult: 0
  }
  convolution_param {
    num_output: 48
    pad: 2
    kernel_size: 5
    weight_filler {
      type: "xavier"
      std: 0.03
    }
    bias_filler {
      type: "constant"
      value: 0.2
    }
  }
}
layer {
  name: "inception_4a/relu_5x5"
  type: "ReLU"
  bottom: "inception_4a/5x5"
  top: "inception_4a/5x5"
}
layer {
  name: "inception_4a/pool"
  type: "Pooling"
  bottom: "pool3/3x3_s2"
  top: "inception_4a/pool"
  pooling_param {
    pool: MAX
    kernel_size: 3
    stride: 1
    pad: 1
  }
}
layer {
  name: "inception_4a/pool_proj"
  type: "Convolution"
  bottom: "inception_4a/pool"
  top: "inception_4a/pool_proj"
  param {
    lr_mult: 1
    decay_mult: 1
  }
  param {
    lr_mult: 2
    decay_mult: 0
  }
  convolution_param {
    num_output: 64
    kernel_size: 1
    weight_filler {
      type: "xavier"
      std: 0.1
    }
    bias_filler {
      type: "constant"
      value: 0.2
    }
  }
}
layer {
  name: "inception_4a/relu_pool_proj"
  type: "ReLU"
  bottom: "inception_4a/pool_proj"
  top: "inception_4a/pool_proj"
}
layer {
  name: "inception_4a/output"
  type: "Concat"
  bottom: "inception_4a/1x1"
  bottom: "inception_4a/3x3"
  bottom: "inception_4a/5x5"
  bottom: "inception_4a/pool_proj"
  top: "inception_4a/output"
}
layer {
  name: "loss1/ave_pool"
  type: "Pooling"
  bottom: "inception_4a/output"
  top: "loss1/ave_pool"
  pooling_param {
    pool: AVE
    kernel_size: 5
    stride: 3
  }
}
layer {
  name: "loss1/conv"
  type: "Convolution"
  bottom: "loss1/ave_pool"
  top: "loss1/conv"
  param {
    lr_mult: 1
    decay_mult: 1
  }
  param {
    lr_mult: 2
    decay_mult: 0
  }
  convolution_param {
    num_output: 128
    kernel_size: 1
    weight_filler {
      type: "xavier"
      std: 0.08
    }
    bias_filler {
      type: "constant"
      value: 0.2
    }
  }
}
layer {
  name: "loss1/relu_conv"
  type: "ReLU"
  bottom: "loss1/conv"
  top: "loss1/conv"
}
layer {
  name: "loss1/fc"
  type: "InnerProduct"
  bottom: "loss1/conv"
  top: "loss1/fc"
  param {
    lr_mult: 1
    decay_mult: 1
  }
  param {
    lr_mult: 2
    decay_mult: 0
  }
  inner_product_param {
    num_output: 1024
    weight_filler {
      type: "xavier"
      std: 0.02
    }
    bias_filler {
      type: "constant"
      value: 0.2
    }
  }
}
layer {
  name: "loss1/relu_fc"
  type: "ReLU"
  bottom: "loss1/fc"
  top: "loss1/fc"
}
layer {
  name: "loss1/drop_fc"
  type: "Dropout"
  bottom: "loss1/fc"
  top: "loss1/fc"
  dropout_param {
    dropout_ratio: 0.7
  }
}
layer {
  name: "loss1/classifier_plantvillage"
  type: "InnerProduct"
  bottom: "loss1/fc"
  top: "loss1/classifier_plantvillage"
  param {
    lr_mult: 1
    decay_mult: 1
  }
  param {
    lr_mult: 2
    decay_mult: 0
  }
  inner_product_param {
    num_output: 38
    weight_filler {
      type: "xavier"
      std: 0.0009765625
    }
    bias_filler {
      type: "constant"
      value: 0
    }
  }
}
layer {
  name: "inception_4b/1x1"
  type: "Convolution"
  bottom: "inception_4a/output"
  top: "inception_4b/1x1"
  param {
    lr_mult: 1
    decay_mult: 1
  }
  param {
    lr_mult: 2
    decay_mult: 0
  }
  convolution_param {
    num_output: 160
    kernel_size: 1
    weight_filler {
      type: "xavier"
      std: 0.03
    }
    bias_filler {
      type: "constant"
      value: 0.2
    }
  }
}
layer {
  name: "inception_4b/relu_1x1"
  type: "ReLU"
  bottom: "inception_4b/1x1"
  top: "inception_4b/1x1"
}
layer {
  name: "inception_4b/3x3_reduce"
  type: "Convolution"
  bottom: "inception_4a/output"
  top: "inception_4b/3x3_reduce"
  param {
    lr_mult: 1
    decay_mult: 1
  }
  param {
    lr_mult: 2
    decay_mult: 0
  }
  convolution_param {
    num_output: 112
    kernel_size: 1
    weight_filler {
      type: "xavier"
      std: 0.09
    }
    bias_filler {
      type: "constant"
      value: 0.2
    }
  }
}
layer {
  name: "inception_4b/relu_3x3_reduce"
  type: "ReLU"
  bottom: "inception_4b/3x3_reduce"
  top: "inception_4b/3x3_reduce"
}
layer {
  name: "inception_4b/3x3"
  type: "Convolution"
  bottom: "inception_4b/3x3_reduce"
  top: "inception_4b/3x3"
  param {
    lr_mult: 1
    decay_mult: 1
  }
  param {
    lr_mult: 2
    decay_mult: 0
  }
  convolution_param {
    num_output: 224
    pad: 1
    kernel_size: 3
    weight_filler {
      type: "xavier"
      std: 0.03
    }
    bias_filler {
      type: "constant"
      value: 0.2
    }
  }
}
layer {
  name: "inception_4b/relu_3x3"
  type: "ReLU"
  bottom: "inception_4b/3x3"
  top: "inception_4b/3x3"
}
layer {
  name: "inception_4b/5x5_reduce"
  type: "Convolution"
  bottom: "inception_4a/output"
  top: "inception_4b/5x5_reduce"
  param {
    lr_mult: 1
    decay_mult: 1
  }
  param {
    lr_mult: 2
    decay_mult: 0
  }
  convolution_param {
    num_output: 24
    kernel_size: 1
    weight_filler {
      type: "xavier"
      std: 0.2
    }
    bias_filler {
      type: "constant"
      value: 0.2
    }
  }
}
layer {
  name: "inception_4b/relu_5x5_reduce"
  type: "ReLU"
  bottom: "inception_4b/5x5_reduce"
  top: "inception_4b/5x5_reduce"
}
layer {
  name: "inception_4b/5x5"
  type: "Convolution"
  bottom: "inception_4b/5x5_reduce"
  top: "inception_4b/5x5"
  param {
    lr_mult: 1
    decay_mult: 1
  }
  param {
    lr_mult: 2
    decay_mult: 0
  }
  convolution_param {
    num_output: 64
    pad: 2
    kernel_size: 5
    weight_filler {
      type: "xavier"
      std: 0.03
    }
    bias_filler {
      type: "constant"
      value: 0.2
    }
  }
}
layer {
  name: "inception_4b/relu_5x5"
  type: "ReLU"
  bottom: "inception_4b/5x5"
  top: "inception_4b/5x5"
}
layer {
  name: "inception_4b/pool"
  type: "Pooling"
  bottom: "inception_4a/output"
  top: "inception_4b/pool"
  pooling_param {
    pool: MAX
    kernel_size: 3
    stride: 1
    pad: 1
  }
}
layer {
  name: "inception_4b/pool_proj"
  type: "Convolution"
  bottom: "inception_4b/pool"
  top: "inception_4b/pool_proj"
  param {
    lr_mult: 1
    decay_mult: 1
  }
  param {
    lr_mult: 2
    decay_mult: 0
  }
  convolution_param {
    num_output: 64
    kernel_size: 1
    weight_filler {
      type: "xavier"
      std: 0.1
    }
    bias_filler {
      type: "constant"
      value: 0.2
    }
  }
}
layer {
  name: "inception_4b/relu_pool_proj"
  type: "ReLU"
  bottom: "inception_4b/pool_proj"
  top: "inception_4b/pool_proj"
}
layer {
  name: "inception_4b/output"
  type: "Concat"
  bottom: "inception_4b/1x1"
  bottom: "inception_4b/3x3"
  bottom: "inception_4b/5x5"
  bottom: "inception_4b/pool_proj"
  top: "inception_4b/output"
}
layer {
  name: "inception_4c/1x1"
  type: "Convolution"
  bottom: "inception_4b/output"
  top: "inception_4c/1x1"
  param {
    lr_mult: 1
    decay_mult: 1
  }
  param {
    lr_mult: 2
    decay_mult: 0
  }
  convolution_param {
    num_output: 128
    kernel_size: 1
    weight_filler {
      type: "xavier"
      std: 0.03
    }
    bias_filler {
      type: "constant"
      value: 0.2
    }
  }
}
layer {
  name: "inception_4c/relu_1x1"
  type: "ReLU"
  bottom: "inception_4c/1x1"
  top: "inception_4c/1x1"
}
layer {
  name: "inception_4c/3x3_reduce"
  type: "Convolution"
  bottom: "inception_4b/output"
  top: "inception_4c/3x3_reduce"
  param {
    lr_mult: 1
    decay_mult: 1
  }
  param {
    lr_mult: 2
    decay_mult: 0
  }
  convolution_param {
    num_output: 128
    kernel_size: 1
    weight_filler {
      type: "xavier"
      std: 0.09
    }
    bias_filler {
      type: "constant"
      value: 0.2
    }
  }
}
layer {
  name: "inception_4c/relu_3x3_reduce"
  type: "ReLU"
  bottom: "inception_4c/3x3_reduce"
  top: "inception_4c/3x3_reduce"
}
layer {
  name: "inception_4c/3x3"
  type: "Convolution"
  bottom: "inception_4c/3x3_reduce"
  top: "inception_4c/3x3"
  param {
    lr_mult: 1
    decay_mult: 1
  }
  param {
    lr_mult: 2
    decay_mult: 0
  }
  convolution_param {
    num_output: 256
    pad: 1
    kernel_size: 3
    weight_filler {
      type: "xavier"
      std: 0.03
    }
    bias_filler {
      type: "constant"
      value: 0.2
    }
  }
}
layer {
  name: "inception_4c/relu_3x3"
  type: "ReLU"
  bottom: "inception_4c/3x3"
  top: "inception_4c/3x3"
}
layer {
  name: "inception_4c/5x5_reduce"
  type: "Convolution"
  bottom: "inception_4b/output"
  top: "inception_4c/5x5_reduce"
  param {
    lr_mult: 1
    decay_mult: 1
  }
  param {
    lr_mult: 2
    decay_mult: 0
  }
  convolution_param {
    num_output: 24
    kernel_size: 1
    weight_filler {
      type: "xavier"
      std: 0.2
    }
    bias_filler {
      type: "constant"
      value: 0.2
    }
  }
}
layer {
  name: "inception_4c/relu_5x5_reduce"
  type: "ReLU"
  bottom: "inception_4c/5x5_reduce"
  top: "inception_4c/5x5_reduce"
}
layer {
  name: "inception_4c/5x5"
  type: "Convolution"
  bottom: "inception_4c/5x5_reduce"
  top: "inception_4c/5x5"
  param {
    lr_mult: 1
    decay_mult: 1
  }
  param {
    lr_mult: 2
    decay_mult: 0
  }
  convolution_param {
    num_output: 64
    pad: 2
    kernel_size: 5
    weight_filler {
      type: "xavier"
      std: 0.03
    }
    bias_filler {
      type: "constant"
      value: 0.2
    }
  }
}
layer {
  name: "inception_4c/relu_5x5"
  type: "ReLU"
  bottom: "inception_4c/5x5"
  top: "inception_4c/5x5"
}
layer {
  name: "inception_4c/pool"
  type: "Pooling"
  bottom: "inception_4b/output"
  top: "inception_4c/pool"
  pooling_param {
    pool: MAX
    kernel_size: 3
    stride: 1
    pad: 1
  }
}
layer {
  name: "inception_4c/pool_proj"
  type: "Convolution"
  bottom: "inception_4c/pool"
  top: "inception_4c/pool_proj"
  param {
    lr_mult: 1
    decay_mult: 1
  }
  param {
    lr_mult: 2
    decay_mult: 0
  }
  convolution_param {
    num_output: 64
    kernel_size: 1
    weight_filler {
      type: "xavier"
      std: 0.1
    }
    bias_filler {
      type: "constant"
      value: 0.2
    }
  }
}
layer {
  name: "inception_4c/relu_pool_proj"
  type: "ReLU"
  bottom: "inception_4c/pool_proj"
  top: "inception_4c/pool_proj"
}
layer {
  name: "inception_4c/output"
  type: "Concat"
  bottom: "inception_4c/1x1"
  bottom: "inception_4c/3x3"
  bottom: "inception_4c/5x5"
  bottom: "inception_4c/pool_proj"
  top: "inception_4c/output"
}
layer {
  name: "inception_4d/1x1"
  type: "Convolution"
  bottom: "inception_4c/output"
  top: "inception_4d/1x1"
  param {
    lr_mult: 1
    decay_mult: 1
  }
  param {
    lr_mult: 2
    decay_mult: 0
  }
  convolution_param {
    num_output: 112
    kernel_size: 1
    weight_filler {
      type: "xavier"
      std: 0.03
    }
    bias_filler {
      type: "constant"
      value: 0.2
    }
  }
}
layer {
  name: "inception_4d/relu_1x1"
  type: "ReLU"
  bottom: "inception_4d/1x1"
  top: "inception_4d/1x1"
}
layer {
  name: "inception_4d/3x3_reduce"
  type: "Convolution"
  bottom: "inception_4c/output"
  top: "inception_4d/3x3_reduce"
  param {
    lr_mult: 1
    decay_mult: 1
  }
  param {
    lr_mult: 2
    decay_mult: 0
  }
  convolution_param {
    num_output: 144
    kernel_size: 1
    weight_filler {
      type: "xavier"
      std: 0.09
    }
    bias_filler {
      type: "constant"
      value: 0.2
    }
  }
}
layer {
  name: "inception_4d/relu_3x3_reduce"
  type: "ReLU"
  bottom: "inception_4d/3x3_reduce"
  top: "inception_4d/3x3_reduce"
}
layer {
  name: "inception_4d/3x3"
  type: "Convolution"
  bottom: "inception_4d/3x3_reduce"
  top: "inception_4d/3x3"
  param {
    lr_mult: 1
    decay_mult: 1
  }
  param {
    lr_mult: 2
    decay_mult: 0
  }
  convolution_param {
    num_output: 288
    pad: 1
    kernel_size: 3
    weight_filler {
      type: "xavier"
      std: 0.03
    }
    bias_filler {
      type: "constant"
      value: 0.2
    }
  }
}
layer {
  name: "inception_4d/relu_3x3"
  type: "ReLU"
  bottom: "inception_4d/3x3"
  top: "inception_4d/3x3"
}
layer {
  name: "inception_4d/5x5_reduce"
  type: "Convolution"
  bottom: "inception_4c/output"
  top: "inception_4d/5x5_reduce"
  param {
    lr_mult: 1
    decay_mult: 1
  }
  param {
    lr_mult: 2
    decay_mult: 0
  }
  convolution_param {
    num_output: 32
    kernel_size: 1
    weight_filler {
      type: "xavier"
      std: 0.2
    }
    bias_filler {
      type: "constant"
      value: 0.2
    }
  }
}
layer {
  name: "inception_4d/relu_5x5_reduce"
  type: "ReLU"
  bottom: "inception_4d/5x5_reduce"
  top: "inception_4d/5x5_reduce"
}
layer {
  name: "inception_4d/5x5"
  type: "Convolution"
  bottom: "inception_4d/5x5_reduce"
  top: "inception_4d/5x5"
  param {
    lr_mult: 1
    decay_mult: 1
  }
  param {
    lr_mult: 2
    decay_mult: 0
  }
  convolution_param {
    num_output: 64
    pad: 2
    kernel_size: 5
    weight_filler {
      type: "xavier"
      std: 0.03
    }
    bias_filler {
      type: "constant"
      value: 0.2
    }
  }
}
layer {
  name: "inception_4d/relu_5x5"
  type: "ReLU"
  bottom: "inception_4d/5x5"
  top: "inception_4d/5x5"
}
layer {
  name: "inception_4d/pool"
  type: "Pooling"
  bottom: "inception_4c/output"
  top: "inception_4d/pool"
  pooling_param {
    pool: MAX
    kernel_size: 3
    stride: 1
    pad: 1
  }
}
layer {
  name: "inception_4d/pool_proj"
  type: "Convolution"
  bottom: "inception_4d/pool"
  top: "inception_4d/pool_proj"
  param {
    lr_mult: 1
    decay_mult: 1
  }
  param {
    lr_mult: 2
    decay_mult: 0
  }
  convolution_param {
    num_output: 64
    kernel_size: 1
    weight_filler {
      type: "xavier"
      std: 0.1
    }
    bias_filler {
      type: "constant"
      value: 0.2
    }
  }
}
layer {
  name: "inception_4d/relu_pool_proj"
  type: "ReLU"
  bottom: "inception_4d/pool_proj"
  top: "inception_4d/pool_proj"
}
layer {
  name: "inception_4d/output"
  type: "Concat"
  bottom: "inception_4d/1x1"
  bottom: "inception_4d/3x3"
  bottom: "inception_4d/5x5"
  bottom: "inception_4d/pool_proj"
  top: "inception_4d/output"
}
layer {
  name: "loss2/ave_pool"
  type: "Pooling"
  bottom: "inception_4d/output"
  top: "loss2/ave_pool"
  pooling_param {
    pool: AVE
    kernel_size: 5
    stride: 3
  }
}
layer {
  name: "loss2/conv"
  type: "Convolution"
  bottom: "loss2/ave_pool"
  top: "loss2/conv"
  param {
    lr_mult: 1
    decay_mult: 1
  }
  param {
    lr_mult: 2
    decay_mult: 0
  }
  convolution_param {
    num_output: 128
    kernel_size: 1
    weight_filler {
      type: "xavier"
      std: 0.08
    }
    bias_filler {
      type: "constant"
      value: 0.2
    }
  }
}
layer {
  name: "loss2/relu_conv"
  type: "ReLU"
  bottom: "loss2/conv"
  top: "loss2/conv"
}
layer {
  name: "loss2/fc"
  type: "InnerProduct"
  bottom: "loss2/conv"
  top: "loss2/fc"
  param {
    lr_mult: 1
    decay_mult: 1
  }
  param {
    lr_mult: 2
    decay_mult: 0
  }
  inner_product_param {
    num_output: 1024
    weight_filler {
      type: "xavier"
      std: 0.02
    }
    bias_filler {
      type: "constant"
      value: 0.2
    }
  }
}
layer {
  name: "loss2/relu_fc"
  type: "ReLU"
  bottom: "loss2/fc"
  top: "loss2/fc"
}
layer {
  name: "loss2/drop_fc"
  type: "Dropout"
  bottom: "loss2/fc"
  top: "loss2/fc"
  dropout_param {
    dropout_ratio: 0.7
  }
}
layer {
  name: "loss2/classifier_plantvillage"
  type: "InnerProduct"
  bottom: "loss2/fc"
  top: "loss2/classifier_plantvillage"
  param {
    lr_mult: 1
    decay_mult: 1
  }
  param {
    lr_mult: 2
    decay_mult: 0
  }
  inner_product_param {
    num_output: 38
    weight_filler {
      type: "xavier"
      std: 0.0009765625
    }
    bias_filler {
      type: "constant"
      value: 0
    }
  }
}
layer {
  name: "inception_4e/1x1"
  type: "Convolution"
  bottom: "inception_4d/output"
  top: "inception_4e/1x1"
  param {
    lr_mult: 1
    decay_mult: 1
  }
  param {
    lr_mult: 2
    decay_mult: 0
  }
  convolution_param {
    num_output: 256
    kernel_size: 1
    weight_filler {
      type: "xavier"
      std: 0.03
    }
    bias_filler {
      type: "constant"
      value: 0.2
    }
  }
}
layer {
  name: "inception_4e/relu_1x1"
  type: "ReLU"
  bottom: "inception_4e/1x1"
  top: "inception_4e/1x1"
}
layer {
  name: "inception_4e/3x3_reduce"
  type: "Convolution"
  bottom: "inception_4d/output"
  top: "inception_4e/3x3_reduce"
  param {
    lr_mult: 1
    decay_mult: 1
  }
  param {
    lr_mult: 2
    decay_mult: 0
  }
  convolution_param {
    num_output: 160
    kernel_size: 1
    weight_filler {
      type: "xavier"
      std: 0.09
    }
    bias_filler {
      type: "constant"
      value: 0.2
    }
  }
}
layer {
  name: "inception_4e/relu_3x3_reduce"
  type: "ReLU"
  bottom: "inception_4e/3x3_reduce"
  top: "inception_4e/3x3_reduce"
}
layer {
  name: "inception_4e/3x3"
  type: "Convolution"
  bottom: "inception_4e/3x3_reduce"
  top: "inception_4e/3x3"
  param {
    lr_mult: 1
    decay_mult: 1
  }
  param {
    lr_mult: 2
    decay_mult: 0
  }
  convolution_param {
    num_output: 320
    pad: 1
    kernel_size: 3
    weight_filler {
      type: "xavier"
      std: 0.03
    }
    bias_filler {
      type: "constant"
      value: 0.2
    }
  }
}
layer {
  name: "inception_4e/relu_3x3"
  type: "ReLU"
  bottom: "inception_4e/3x3"
  top: "inception_4e/3x3"
}
layer {
  name: "inception_4e/5x5_reduce"
  type: "Convolution"
  bottom: "inception_4d/output"
  top: "inception_4e/5x5_reduce"
  param {
    lr_mult: 1
    decay_mult: 1
  }
  param {
    lr_mult: 2
    decay_mult: 0
  }
  convolution_param {
    num_output: 32
    kernel_size: 1
    weight_filler {
      type: "xavier"
      std: 0.2
    }
    bias_filler {
      type: "constant"
      value: 0.2
    }
  }
}
layer {
  name: "inception_4e/relu_5x5_reduce"
  type: "ReLU"
  bottom: "inception_4e/5x5_reduce"
  top: "inception_4e/5x5_reduce"
}
layer {
  name: "inception_4e/5x5"
  type: "Convolution"
  bottom: "inception_4e/5x5_reduce"
  top: "inception_4
I0403 04:03:08.167986 21144 layer_factory.hpp:77] Creating layer data
I0403 04:03:08.169621 21144 net.cpp:91] Creating Layer data
I0403 04:03:08.169713 21144 net.cpp:399] data -> data
I0403 04:03:08.169836 21144 net.cpp:399] data -> label
I0403 04:03:08.169925 21144 data_transformer.cpp:25] Loading mean file from: /home/mohanty/data/final_dataset/lmdb/segmented-50-50/mean.binaryproto
I0403 04:03:08.228035 21148 db_lmdb.cpp:38] Opened lmdb /home/mohanty/data/final_dataset/lmdb/segmented-50-50/train_db
I0403 04:03:08.263907 21144 data_layer.cpp:41] output data size: 24,3,224,224
I0403 04:03:08.291110 21144 net.cpp:141] Setting up data
I0403 04:03:08.291187 21144 net.cpp:148] Top shape: 24 3 224 224 (3612672)
I0403 04:03:08.291210 21144 net.cpp:148] Top shape: 24 (24)
I0403 04:03:08.291227 21144 net.cpp:156] Memory required for data: 14450784
I0403 04:03:08.291296 21144 layer_factory.hpp:77] Creating layer label_data_1_split
I0403 04:03:08.291328 21144 net.cpp:91] Creating Layer label_data_1_split
I0403 04:03:08.291349 21144 net.cpp:425] label_data_1_split <- label
I0403 04:03:08.291383 21144 net.cpp:399] label_data_1_split -> label_data_1_split_0
I0403 04:03:08.291414 21144 net.cpp:399] label_data_1_split -> label_data_1_split_1
I0403 04:03:08.291436 21144 net.cpp:399] label_data_1_split -> label_data_1_split_2
I0403 04:03:08.291506 21144 net.cpp:141] Setting up label_data_1_split
I0403 04:03:08.291530 21144 net.cpp:148] Top shape: 24 (24)
I0403 04:03:08.291548 21144 net.cpp:148] Top shape: 24 (24)
I0403 04:03:08.291564 21144 net.cpp:148] Top shape: 24 (24)
I0403 04:03:08.291579 21144 net.cpp:156] Memory required for data: 14451072
I0403 04:03:08.291595 21144 layer_factory.hpp:77] Creating layer conv1/7x7_s2
I0403 04:03:08.291631 21144 net.cpp:91] Creating Layer conv1/7x7_s2
I0403 04:03:08.291652 21144 net.cpp:425] conv1/7x7_s2 <- data
I0403 04:03:08.291673 21144 net.cpp:399] conv1/7x7_s2 -> conv1/7x7_s2
I0403 04:03:08.292650 21144 net.cpp:141] Setting up conv1/7x7_s2
I0403 04:03:08.292680 21144 net.cpp:148] Top shape: 24 64 112 112 (19267584)
I0403 04:03:08.292697 21144 net.cpp:156] Memory required for data: 91521408
I0403 04:03:08.292733 21144 layer_factory.hpp:77] Creating layer conv1/relu_7x7
I0403 04:03:08.292762 21144 net.cpp:91] Creating Layer conv1/relu_7x7
I0403 04:03:08.292780 21144 net.cpp:425] conv1/relu_7x7 <- conv1/7x7_s2
I0403 04:03:08.292799 21144 net.cpp:386] conv1/relu_7x7 -> conv1/7x7_s2 (in-place)
I0403 04:03:08.292821 21144 net.cpp:141] Setting up conv1/relu_7x7
I0403 04:03:08.292841 21144 net.cpp:148] Top shape: 24 64 112 112 (19267584)
I0403 04:03:08.292857 21144 net.cpp:156] Memory required for data: 168591744
I0403 04:03:08.292872 21144 layer_factory.hpp:77] Creating layer pool1/3x3_s2
I0403 04:03:08.292892 21144 net.cpp:91] Creating Layer pool1/3x3_s2
I0403 04:03:08.292909 21144 net.cpp:425] pool1/3x3_s2 <- conv1/7x7_s2
I0403 04:03:08.292929 21144 net.cpp:399] pool1/3x3_s2 -> pool1/3x3_s2
I0403 04:03:08.292994 21144 net.cpp:141] Setting up pool1/3x3_s2
I0403 04:03:08.293018 21144 net.cpp:148] Top shape: 24 64 56 56 (4816896)
I0403 04:03:08.293035 21144 net.cpp:156] Memory required for data: 187859328
I0403 04:03:08.293050 21144 layer_factory.hpp:77] Creating layer pool1/norm1
I0403 04:03:08.293071 21144 net.cpp:91] Creating Layer pool1/norm1
I0403 04:03:08.293088 21144 net.cpp:425] pool1/norm1 <- pool1/3x3_s2
I0403 04:03:08.293107 21144 net.cpp:399] pool1/norm1 -> pool1/norm1
I0403 04:03:08.293159 21144 net.cpp:141] Setting up pool1/norm1
I0403 04:03:08.293182 21144 net.cpp:148] Top shape: 24 64 56 56 (4816896)
I0403 04:03:08.293198 21144 net.cpp:156] Memory required for data: 207126912
I0403 04:03:08.293213 21144 layer_factory.hpp:77] Creating layer conv2/3x3_reduce
I0403 04:03:08.293236 21144 net.cpp:91] Creating Layer conv2/3x3_reduce
I0403 04:03:08.293252 21144 net.cpp:425] conv2/3x3_reduce <- pool1/norm1
I0403 04:03:08.293272 21144 net.cpp:399] conv2/3x3_reduce -> conv2/3x3_reduce
I0403 04:03:08.295488 21144 net.cpp:141] Setting up conv2/3x3_reduce
I0403 04:03:08.295528 21144 net.cpp:148] Top shape: 24 64 56 56 (4816896)
I0403 04:03:08.295547 21144 net.cpp:156] Memory required for data: 226394496
I0403 04:03:08.295570 21144 layer_factory.hpp:77] Creating layer conv2/relu_3x3_reduce
I0403 04:03:08.295591 21144 net.cpp:91] Creating Layer conv2/relu_3x3_reduce
I0403 04:03:08.295609 21144 net.cpp:425] conv2/relu_3x3_reduce <- conv2/3x3_reduce
I0403 04:03:08.295629 21144 net.cpp:386] conv2/relu_3x3_reduce -> conv2/3x3_reduce (in-place)
I0403 04:03:08.295650 21144 net.cpp:141] Setting up conv2/relu_3x3_reduce
I0403 04:03:08.295668 21144 net.cpp:148] Top shape: 24 64 56 56 (4816896)
I0403 04:03:08.295683 21144 net.cpp:156] Memory required for data: 245662080
I0403 04:03:08.295699 21144 layer_factory.hpp:77] Creating layer conv2/3x3
I0403 04:03:08.295723 21144 net.cpp:91] Creating Layer conv2/3x3
I0403 04:03:08.295742 21144 net.cpp:425] conv2/3x3 <- conv2/3x3_reduce
I0403 04:03:08.295781 21144 net.cpp:399] conv2/3x3 -> conv2/3x3
I0403 04:03:08.296985 21149 blocking_queue.cpp:50] Waiting for data
I0403 04:03:08.297153 21144 net.cpp:141] Setting up conv2/3x3
I0403 04:03:08.297188 21144 net.cpp:148] Top shape: 24 192 56 56 (14450688)
I0403 04:03:08.297205 21144 net.cpp:156] Memory required for data: 303464832
I0403 04:03:08.297227 21144 layer_factory.hpp:77] Creating layer conv2/relu_3x3
I0403 04:03:08.297248 21144 net.cpp:91] Creating Layer conv2/relu_3x3
I0403 04:03:08.297266 21144 net.cpp:425] conv2/relu_3x3 <- conv2/3x3
I0403 04:03:08.297283 21144 net.cpp:386] conv2/relu_3x3 -> conv2/3x3 (in-place)
I0403 04:03:08.297303 21144 net.cpp:141] Setting up conv2/relu_3x3
I0403 04:03:08.297322 21144 net.cpp:148] Top shape: 24 192 56 56 (14450688)
I0403 04:03:08.297338 21144 net.cpp:156] Memory required for data: 361267584
I0403 04:03:08.297353 21144 layer_factory.hpp:77] Creating layer conv2/norm2
I0403 04:03:08.297371 21144 net.cpp:91] Creating Layer conv2/norm2
I0403 04:03:08.297387 21144 net.cpp:425] conv2/norm2 <- conv2/3x3
I0403 04:03:08.297406 21144 net.cpp:399] conv2/norm2 -> conv2/norm2
I0403 04:03:08.297453 21144 net.cpp:141] Setting up conv2/norm2
I0403 04:03:08.297482 21144 net.cpp:148] Top shape: 24 192 56 56 (14450688)
I0403 04:03:08.297498 21144 net.cpp:156] Memory required for data: 419070336
I0403 04:03:08.297513 21144 layer_factory.hpp:77] Creating layer pool2/3x3_s2
I0403 04:03:08.297533 21144 net.cpp:91] Creating Layer pool2/3x3_s2
I0403 04:03:08.297549 21144 net.cpp:425] pool2/3x3_s2 <- conv2/norm2
I0403 04:03:08.297569 21144 net.cpp:399] pool2/3x3_s2 -> pool2/3x3_s2
I0403 04:03:08.297616 21144 net.cpp:141] Setting up pool2/3x3_s2
I0403 04:03:08.297641 21144 net.cpp:148] Top shape: 24 192 28 28 (3612672)
I0403 04:03:08.297655 21144 net.cpp:156] Memory required for data: 433521024
I0403 04:03:08.297670 21144 layer_factory.hpp:77] Creating layer pool2/3x3_s2_pool2/3x3_s2_0_split
I0403 04:03:08.297688 21144 net.cpp:91] Creating Layer pool2/3x3_s2_pool2/3x3_s2_0_split
I0403 04:03:08.297716 21144 net.cpp:425] pool2/3x3_s2_pool2/3x3_s2_0_split <- pool2/3x3_s2
I0403 04:03:08.297735 21144 net.cpp:399] pool2/3x3_s2_pool2/3x3_s2_0_split -> pool2/3x3_s2_pool2/3x3_s2_0_split_0
I0403 04:03:08.297755 21144 net.cpp:399] pool2/3x3_s2_pool2/3x3_s2_0_split -> pool2/3x3_s2_pool2/3x3_s2_0_split_1
I0403 04:03:08.297776 21144 net.cpp:399] pool2/3x3_s2_pool2/3x3_s2_0_split -> pool2/3x3_s2_pool2/3x3_s2_0_split_2
I0403 04:03:08.297796 21144 net.cpp:399] pool2/3x3_s2_pool2/3x3_s2_0_split -> pool2/3x3_s2_pool2/3x3_s2_0_split_3
I0403 04:03:08.297852 21144 net.cpp:141] Setting up pool2/3x3_s2_pool2/3x3_s2_0_split
I0403 04:03:08.297875 21144 net.cpp:148] Top shape: 24 192 28 28 (3612672)
I0403 04:03:08.297893 21144 net.cpp:148] Top shape: 24 192 28 28 (3612672)
I0403 04:03:08.297909 21144 net.cpp:148] Top shape: 24 192 28 28 (3612672)
I0403 04:03:08.297925 21144 net.cpp:148] Top shape: 24 192 28 28 (3612672)
I0403 04:03:08.297940 21144 net.cpp:156] Memory required for data: 491323776
I0403 04:03:08.297955 21144 layer_factory.hpp:77] Creating layer inception_3a/1x1
I0403 04:03:08.297976 21144 net.cpp:91] Creating Layer inception_3a/1x1
I0403 04:03:08.297993 21144 net.cpp:425] inception_3a/1x1 <- pool2/3x3_s2_pool2/3x3_s2_0_split_0
I0403 04:03:08.298014 21144 net.cpp:399] inception_3a/1x1 -> inception_3a/1x1
I0403 04:03:08.298822 21144 net.cpp:141] Setting up inception_3a/1x1
I0403 04:03:08.298851 21144 net.cpp:148] Top shape: 24 64 28 28 (1204224)
I0403 04:03:08.298867 21144 net.cpp:156] Memory required for data: 496140672
I0403 04:03:08.298887 21144 layer_factory.hpp:77] Creating layer inception_3a/relu_1x1
I0403 04:03:08.298905 21144 net.cpp:91] Creating Layer inception_3a/relu_1x1
I0403 04:03:08.298923 21144 net.cpp:425] inception_3a/relu_1x1 <- inception_3a/1x1
I0403 04:03:08.298944 21144 net.cpp:386] inception_3a/relu_1x1 -> inception_3a/1x1 (in-place)
I0403 04:03:08.298966 21144 net.cpp:141] Setting up inception_3a/relu_1x1
I0403 04:03:08.298985 21144 net.cpp:148] Top shape: 24 64 28 28 (1204224)
I0403 04:03:08.299015 21144 net.cpp:156] Memory required for data: 500957568
I0403 04:03:08.299031 21144 layer_factory.hpp:77] Creating layer inception_3a/3x3_reduce
I0403 04:03:08.299053 21144 net.cpp:91] Creating Layer inception_3a/3x3_reduce
I0403 04:03:08.299070 21144 net.cpp:425] inception_3a/3x3_reduce <- pool2/3x3_s2_pool2/3x3_s2_0_split_1
I0403 04:03:08.299091 21144 net.cpp:399] inception_3a/3x3_reduce -> inception_3a/3x3_reduce
I0403 04:03:08.299948 21144 net.cpp:141] Setting up inception_3a/3x3_reduce
I0403 04:03:08.299976 21144 net.cpp:148] Top shape: 24 96 28 28 (1806336)
I0403 04:03:08.299991 21144 net.cpp:156] Memory required for data: 508182912
I0403 04:03:08.300014 21144 layer_factory.hpp:77] Creating layer inception_3a/relu_3x3_reduce
I0403 04:03:08.300036 21144 net.cpp:91] Creating Layer inception_3a/relu_3x3_reduce
I0403 04:03:08.300056 21144 net.cpp:425] inception_3a/relu_3x3_reduce <- inception_3a/3x3_reduce
I0403 04:03:08.300074 21144 net.cpp:386] inception_3a/relu_3x3_reduce -> inception_3a/3x3_reduce (in-place)
I0403 04:03:08.300096 21144 net.cpp:141] Setting up inception_3a/relu_3x3_reduce
I0403 04:03:08.300113 21144 net.cpp:148] Top shape: 24 96 28 28 (1806336)
I0403 04:03:08.300127 21144 net.cpp:156] Memory required for data: 515408256
I0403 04:03:08.300143 21144 layer_factory.hpp:77] Creating layer inception_3a/3x3
I0403 04:03:08.300166 21144 net.cpp:91] Creating Layer inception_3a/3x3
I0403 04:03:08.300185 21144 net.cpp:425] inception_3a/3x3 <- inception_3a/3x3_reduce
I0403 04:03:08.300206 21144 net.cpp:399] inception_3a/3x3 -> inception_3a/3x3
I0403 04:03:08.301038 21144 net.cpp:141] Setting up inception_3a/3x3
I0403 04:03:08.301064 21144 net.cpp:148] Top shape: 24 128 28 28 (2408448)
I0403 04:03:08.301080 21144 net.cpp:156] Memory required for data: 525042048
I0403 04:03:08.301098 21144 layer_factory.hpp:77] Creating layer inception_3a/relu_3x3
I0403 04:03:08.301115 21144 net.cpp:91] Creating Layer inception_3a/relu_3x3
I0403 04:03:08.301131 21144 net.cpp:425] inception_3a/relu_3x3 <- inception_3a/3x3
I0403 04:03:08.301148 21144 net.cpp:386] inception_3a/relu_3x3 -> inception_3a/3x3 (in-place)
I0403 04:03:08.301168 21144 net.cpp:141] Setting up inception_3a/relu_3x3
I0403 04:03:08.301189 21144 net.cpp:148] Top shape: 24 128 28 28 (2408448)
I0403 04:03:08.301204 21144 net.cpp:156] Memory required for data: 534675840
I0403 04:03:08.301219 21144 layer_factory.hpp:77] Creating layer inception_3a/5x5_reduce
I0403 04:03:08.301242 21144 net.cpp:91] Creating Layer inception_3a/5x5_reduce
I0403 04:03:08.301260 21144 net.cpp:425] inception_3a/5x5_reduce <- pool2/3x3_s2_pool2/3x3_s2_0_split_2
I0403 04:03:08.301280 21144 net.cpp:399] inception_3a/5x5_reduce -> inception_3a/5x5_reduce
I0403 04:03:08.301520 21144 net.cpp:141] Setting up inception_3a/5x5_reduce
I0403 04:03:08.301548 21144 net.cpp:148] Top shape: 24 16 28 28 (301056)
I0403 04:03:08.301563 21144 net.cpp:156] Memory required for data: 535880064
I0403 04:03:08.301581 21144 layer_factory.hpp:77] Creating layer inception_3a/relu_5x5_reduce
I0403 04:03:08.301604 21144 net.cpp:91] Creating Layer inception_3a/relu_5x5_reduce
I0403 04:03:08.301622 21144 net.cpp:425] inception_3a/relu_5x5_reduce <- inception_3a/5x5_reduce
I0403 04:03:08.301641 21144 net.cpp:386] inception_3a/relu_5x5_reduce -> inception_3a/5x5_reduce (in-place)
I0403 04:03:08.301662 21144 net.cpp:141] Setting up inception_3a/relu_5x5_reduce
I0403 04:03:08.301679 21144 net.cpp:148] Top shape: 24 16 28 28 (301056)
I0403 04:03:08.301707 21144 net.cpp:156] Memory required for data: 537084288
I0403 04:03:08.301720 21144 layer_factory.hpp:77] Creating layer inception_3a/5x5
I0403 04:03:08.301745 21144 net.cpp:91] Creating Layer inception_3a/5x5
I0403 04:03:08.301762 21144 net.cpp:425] inception_3a/5x5 <- inception_3a/5x5_reduce
I0403 04:03:08.301782 21144 net.cpp:399] inception_3a/5x5 -> inception_3a/5x5
I0403 04:03:08.302054 21144 net.cpp:141] Setting up inception_3a/5x5
I0403 04:03:08.302083 21144 net.cpp:148] Top shape: 24 32 28 28 (602112)
I0403 04:03:08.302112 21144 net.cpp:156] Memory required for data: 539492736
I0403 04:03:08.302131 21144 layer_factory.hpp:77] Creating layer inception_3a/relu_5x5
I0403 04:03:08.302150 21144 net.cpp:91] Creating Layer inception_3a/relu_5x5
I0403 04:03:08.302167 21144 net.cpp:425] inception_3a/relu_5x5 <- inception_3a/5x5
I0403 04:03:08.302187 21144 net.cpp:386] inception_3a/relu_5x5 -> inception_3a/5x5 (in-place)
I0403 04:03:08.302207 21144 net.cpp:141] Setting up inception_3a/relu_5x5
I0403 04:03:08.302224 21144 net.cpp:148] Top shape: 24 32 28 28 (602112)
I0403 04:03:08.302238 21144 net.cpp:156] Memory required for data: 541901184
I0403 04:03:08.302253 21144 layer_factory.hpp:77] Creating layer inception_3a/pool
I0403 04:03:08.302271 21144 net.cpp:91] Creating Layer inception_3a/pool
I0403 04:03:08.302287 21144 net.cpp:425] inception_3a/pool <- pool2/3x3_s2_pool2/3x3_s2_0_split_3
I0403 04:03:08.302309 21144 net.cpp:399] inception_3a/pool -> inception_3a/pool
I0403 04:03:08.302357 21144 net.cpp:141] Setting up inception_3a/pool
I0403 04:03:08.302381 21144 net.cpp:148] Top shape: 24 192 28 28 (3612672)
I0403 04:03:08.302395 21144 net.cpp:156] Memory required for data: 556351872
I0403 04:03:08.302423 21144 layer_factory.hpp:77] Creating layer inception_3a/pool_proj
I0403 04:03:08.302448 21144 net.cpp:91] Creating Layer inception_3a/pool_proj
I0403 04:03:08.302479 21144 net.cpp:425] inception_3a/pool_proj <- inception_3a/pool
I0403 04:03:08.302502 21144 net.cpp:399] inception_3a/pool_proj -> inception_3a/pool_proj
I0403 04:03:08.302748 21144 net.cpp:141] Setting up inception_3a/pool_proj
I0403 04:03:08.302773 21144 net.cpp:148] Top shape: 24 32 28 28 (602112)
I0403 04:03:08.302789 21144 net.cpp:156] Memory required for data: 558760320
I0403 04:03:08.302814 21144 layer_factory.hpp:77] Creating layer inception_3a/relu_pool_proj
I0403 04:03:08.302834 21144 net.cpp:91] Creating Layer inception_3a/relu_pool_proj
I0403 04:03:08.302850 21144 net.cpp:425] inception_3a/relu_pool_proj <- inception_3a/pool_proj
I0403 04:03:08.302867 21144 net.cpp:386] inception_3a/relu_pool_proj -> inception_3a/pool_proj (in-place)
I0403 04:03:08.302887 21144 net.cpp:141] Setting up inception_3a/relu_pool_proj
I0403 04:03:08.302906 21144 net.cpp:148] Top shape: 24 32 28 28 (602112)
I0403 04:03:08.302920 21144 net.cpp:156] Memory required for data: 561168768
I0403 04:03:08.302935 21144 layer_factory.hpp:77] Creating layer inception_3a/output
I0403 04:03:08.302953 21144 net.cpp:91] Creating Layer inception_3a/output
I0403 04:03:08.302970 21144 net.cpp:425] inception_3a/output <- inception_3a/1x1
I0403 04:03:08.302985 21144 net.cpp:425] inception_3a/output <- inception_3a/3x3
I0403 04:03:08.303002 21144 net.cpp:425] inception_3a/output <- inception_3a/5x5
I0403 04:03:08.303019 21144 net.cpp:425] inception_3a/output <- inception_3a/pool_proj
I0403 04:03:08.303037 21144 net.cpp:399] inception_3a/output -> inception_3a/output
I0403 04:03:08.303110 21144 net.cpp:141] Setting up inception_3a/output
I0403 04:03:08.303138 21144 net.cpp:148] Top shape: 24 256 28 28 (4816896)
I0403 04:03:08.303154 21144 net.cpp:156] Memory required for data: 580436352
I0403 04:03:08.303170 21144 layer_factory.hpp:77] Creating layer inception_3a/output_inception_3a/output_0_split
I0403 04:03:08.303191 21144 net.cpp:91] Creating Layer inception_3a/output_inception_3a/output_0_split
I0403 04:03:08.303207 21144 net.cpp:425] inception_3a/output_inception_3a/output_0_split <- inception_3a/output
I0403 04:03:08.303225 21144 net.cpp:399] inception_3a/output_inception_3a/output_0_split -> inception_3a/output_inception_3a/output_0_split_0
I0403 04:03:08.303244 21144 net.cpp:399] inception_3a/output_inception_3a/output_0_split -> inception_3a/output_inception_3a/output_0_split_1
I0403 04:03:08.303268 21144 net.cpp:399] inception_3a/output_inception_3a/output_0_split -> inception_3a/output_inception_3a/output_0_split_2
I0403 04:03:08.303290 21144 net.cpp:399] inception_3a/output_inception_3a/output_0_split -> inception_3a/output_inception_3a/output_0_split_3
I0403 04:03:08.303356 21144 net.cpp:141] Setting up inception_3a/output_inception_3a/output_0_split
I0403 04:03:08.303392 21144 net.cpp:148] Top shape: 24 256 28 28 (4816896)
I0403 04:03:08.303421 21144 net.cpp:148] Top shape: 24 256 28 28 (4816896)
I0403 04:03:08.303438 21144 net.cpp:148] Top shape: 24 256 28 28 (4816896)
I0403 04:03:08.303455 21144 net.cpp:148] Top shape: 24 256 28 28 (4816896)
I0403 04:03:08.303475 21144 net.cpp:156] Memory required for data: 657506688
I0403 04:03:08.303493 21144 layer_factory.hpp:77] Creating layer inception_3b/1x1
I0403 04:03:08.303519 21144 net.cpp:91] Creating Layer inception_3b/1x1
I0403 04:03:08.303537 21144 net.cpp:425] inception_3b/1x1 <- inception_3a/output_inception_3a/output_0_split_0
I0403 04:03:08.303560 21144 net.cpp:399] inception_3b/1x1 -> inception_3b/1x1
I0403 04:03:08.303946 21144 net.cpp:141] Setting up inception_3b/1x1
I0403 04:03:08.303972 21144 net.cpp:148] Top shape: 24 128 28 28 (2408448)
I0403 04:03:08.303987 21144 net.cpp:156] Memory required for data: 667140480
I0403 04:03:08.304005 21144 layer_factory.hpp:77] Creating layer inception_3b/relu_1x1
I0403 04:03:08.304026 21144 net.cpp:91] Creating Layer inception_3b/relu_1x1
I0403 04:03:08.304044 21144 net.cpp:425] inception_3b/relu_1x1 <- inception_3b/1x1
I0403 04:03:08.304061 21144 net.cpp:386] inception_3b/relu_1x1 -> inception_3b/1x1 (in-place)
I0403 04:03:08.304081 21144 net.cpp:141] Setting up inception_3b/relu_1x1
I0403 04:03:08.304100 21144 net.cpp:148] Top shape: 24 128 28 28 (2408448)
I0403 04:03:08.304114 21144 net.cpp:156] Memory required for data: 676774272
I0403 04:03:08.304128 21144 layer_factory.hpp:77] Creating layer inception_3b/3x3_reduce
I0403 04:03:08.304152 21144 net.cpp:91] Creating Layer inception_3b/3x3_reduce
I0403 04:03:08.304170 21144 net.cpp:425] inception_3b/3x3_reduce <- inception_3a/output_inception_3a/output_0_split_1
I0403 04:03:08.304193 21144 net.cpp:399] inception_3b/3x3_reduce -> inception_3b/3x3_reduce
I0403 04:03:08.304571 21144 net.cpp:141] Setting up inception_3b/3x3_reduce
I0403 04:03:08.304599 21144 net.cpp:148] Top shape: 24 128 28 28 (2408448)
I0403 04:03:08.304612 21144 net.cpp:156] Memory required for data: 686408064
I0403 04:03:08.304630 21144 layer_factory.hpp:77] Creating layer inception_3b/relu_3x3_reduce
I0403 04:03:08.304649 21144 net.cpp:91] Creating Layer inception_3b/relu_3x3_reduce
I0403 04:03:08.304666 21144 net.cpp:425] inception_3b/relu_3x3_reduce <- inception_3b/3x3_reduce
I0403 04:03:08.304687 21144 net.cpp:386] inception_3b/relu_3x3_reduce -> inception_3b/3x3_reduce (in-place)
I0403 04:03:08.304708 21144 net.cpp:141] Setting up inception_3b/relu_3x3_reduce
I0403 04:03:08.304726 21144 net.cpp:148] Top shape: 24 128 28 28 (2408448)
I0403 04:03:08.304740 21144 net.cpp:156] Memory required for data: 696041856
I0403 04:03:08.304754 21144 layer_factory.hpp:77] Creating layer inception_3b/3x3
I0403 04:03:08.304780 21144 net.cpp:91] Creating Layer inception_3b/3x3
I0403 04:03:08.304798 21144 net.cpp:425] inception_3b/3x3 <- inception_3b/3x3_reduce
I0403 04:03:08.304821 21144 net.cpp:399] inception_3b/3x3 -> inception_3b/3x3
I0403 04:03:08.306756 21144 net.cpp:141] Setting up inception_3b/3x3
I0403 04:03:08.306787 21144 net.cpp:148] Top shape: 24 192 28 28 (3612672)
I0403 04:03:08.306803 21144 net.cpp:156] Memory required for data: 710492544
I0403 04:03:08.306823 21144 layer_factory.hpp:77] Creating layer inception_3b/relu_3x3
I0403 04:03:08.306841 21144 net.cpp:91] Creating Layer inception_3b/relu_3x3
I0403 04:03:08.306859 21144 net.cpp:425] inception_3b/relu_3x3 <- inception_3b/3x3
I0403 04:03:08.306877 21144 net.cpp:386] inception_3b/relu_3x3 -> inception_3b/3x3 (in-place)
I0403 04:03:08.306896 21144 net.cpp:141] Setting up inception_3b/relu_3x3
I0403 04:03:08.306913 21144 net.cpp:148] Top shape: 24 192 28 28 (3612672)
I0403 04:03:08.306928 21144 net.cpp:156] Memory required for data: 724943232
I0403 04:03:08.306943 21144 layer_factory.hpp:77] Creating layer inception_3b/5x5_reduce
I0403 04:03:08.306967 21144 net.cpp:91] Creating Layer inception_3b/5x5_reduce
I0403 04:03:08.306984 21144 net.cpp:425] inception_3b/5x5_reduce <- inception_3a/output_inception_3a/output_0_split_2
I0403 04:03:08.307020 21144 net.cpp:399] inception_3b/5x5_reduce -> inception_3b/5x5_reduce
I0403 04:03:08.307287 21144 net.cpp:141] Setting up inception_3b/5x5_reduce
I0403 04:03:08.307314 21144 net.cpp:148] Top shape: 24 32 28 28 (602112)
I0403 04:03:08.307330 21144 net.cpp:156] Memory required for data: 727351680
I0403 04:03:08.307349 21144 layer_factory.hpp:77] Creating layer inception_3b/relu_5x5_reduce
I0403 04:03:08.307371 21144 net.cpp:91] Creating Layer inception_3b/relu_5x5_reduce
I0403 04:03:08.307389 21144 net.cpp:425] inception_3b/relu_5x5_reduce <- inception_3b/5x5_reduce
I0403 04:03:08.307407 21144 net.cpp:386] inception_3b/relu_5x5_reduce -> inception_3b/5x5_reduce (in-place)
I0403 04:03:08.307427 21144 net.cpp:141] Setting up inception_3b/relu_5x5_reduce
I0403 04:03:08.307446 21144 net.cpp:148] Top shape: 24 32 28 28 (602112)
I0403 04:03:08.307478 21144 net.cpp:156] Memory required for data: 729760128
I0403 04:03:08.307495 21144 layer_factory.hpp:77] Creating layer inception_3b/5x5
I0403 04:03:08.307519 21144 net.cpp:91] Creating Layer inception_3b/5x5
I0403 04:03:08.307538 21144 net.cpp:425] inception_3b/5x5 <- inception_3b/5x5_reduce
I0403 04:03:08.307562 21144 net.cpp:399] inception_3b/5x5 -> inception_3b/5x5
I0403 04:03:08.308717 21144 net.cpp:141] Setting up inception_3b/5x5
I0403 04:03:08.308748 21144 net.cpp:148] Top shape: 24 96 28 28 (1806336)
I0403 04:03:08.308764 21144 net.cpp:156] Memory required for data: 736985472
I0403 04:03:08.308784 21144 layer_factory.hpp:77] Creating layer inception_3b/relu_5x5
I0403 04:03:08.308802 21144 net.cpp:91] Creating Layer inception_3b/relu_5x5
I0403 04:03:08.308820 21144 net.cpp:425] inception_3b/relu_5x5 <- inception_3b/5x5
I0403 04:03:08.308840 21144 net.cpp:386] inception_3b/relu_5x5 -> inception_3b/5x5 (in-place)
I0403 04:03:08.308861 21144 net.cpp:141] Setting up inception_3b/relu_5x5
I0403 04:03:08.308881 21144 net.cpp:148] Top shape: 24 96 28 28 (1806336)
I0403 04:03:08.308897 21144 net.cpp:156] Memory required for data: 744210816
I0403 04:03:08.308912 21144 layer_factory.hpp:77] Creating layer inception_3b/pool
I0403 04:03:08.308929 21144 net.cpp:91] Creating Layer inception_3b/pool
I0403 04:03:08.308946 21144 net.cpp:425] inception_3b/pool <- inception_3a/output_inception_3a/output_0_split_3
I0403 04:03:08.308965 21144 net.cpp:399] inception_3b/pool -> inception_3b/pool
I0403 04:03:08.309016 21144 net.cpp:141] Setting up inception_3b/pool
I0403 04:03:08.309039 21144 net.cpp:148] Top shape: 24 256 28 28 (4816896)
I0403 04:03:08.309056 21144 net.cpp:156] Memory required for data: 763478400
I0403 04:03:08.309070 21144 layer_factory.hpp:77] Creating layer inception_3b/pool_proj
I0403 04:03:08.309093 21144 net.cpp:91] Creating Layer inception_3b/pool_proj
I0403 04:03:08.309111 21144 net.cpp:425] inception_3b/pool_proj <- inception_3b/pool
I0403 04:03:08.309134 21144 net.cpp:399] inception_3b/pool_proj -> inception_3b/pool_proj
I0403 04:03:08.309422 21144 net.cpp:141] Setting up inception_3b/pool_proj
I0403 04:03:08.309449 21144 net.cpp:148] Top shape: 24 64 28 28 (1204224)
I0403 04:03:08.309469 21144 net.cpp:156] Memory required for data: 768295296
I0403 04:03:08.309489 21144 layer_factory.hpp:77] Creating layer inception_3b/relu_pool_proj
I0403 04:03:08.309511 21144 net.cpp:91] Creating Layer inception_3b/relu_pool_proj
I0403 04:03:08.309530 21144 net.cpp:425] inception_3b/relu_pool_proj <- inception_3b/pool_proj
I0403 04:03:08.309550 21144 net.cpp:386] inception_3b/relu_pool_proj -> inception_3b/pool_proj (in-place)
I0403 04:03:08.309568 21144 net.cpp:141] Setting up inception_3b/relu_pool_proj
I0403 04:03:08.309586 21144 net.cpp:148] Top shape: 24 64 28 28 (1204224)
I0403 04:03:08.309600 21144 net.cpp:156] Memory required for data: 773112192
I0403 04:03:08.309615 21144 layer_factory.hpp:77] Creating layer inception_3b/output
I0403 04:03:08.309638 21144 net.cpp:91] Creating Layer inception_3b/output
I0403 04:03:08.309654 21144 net.cpp:425] inception_3b/output <- inception_3b/1x1
I0403 04:03:08.309690 21144 net.cpp:425] inception_3b/output <- inception_3b/3x3
I0403 04:03:08.309707 21144 net.cpp:425] inception_3b/output <- inception_3b/5x5
I0403 04:03:08.309725 21144 net.cpp:425] inception_3b/output <- inception_3b/pool_proj
I0403 04:03:08.309743 21144 net.cpp:399] inception_3b/output -> inception_3b/output
I0403 04:03:08.309780 21144 net.cpp:141] Setting up inception_3b/output
I0403 04:03:08.309806 21144 net.cpp:148] Top shape: 24 480 28 28 (9031680)
I0403 04:03:08.309823 21144 net.cpp:156] Memory required for data: 809238912
I0403 04:03:08.309837 21144 layer_factory.hpp:77] Creating layer pool3/3x3_s2
I0403 04:03:08.309855 21144 net.cpp:91] Creating Layer pool3/3x3_s2
I0403 04:03:08.309872 21144 net.cpp:425] pool3/3x3_s2 <- inception_3b/output
I0403 04:03:08.309890 21144 net.cpp:399] pool3/3x3_s2 -> pool3/3x3_s2
I0403 04:03:08.309942 21144 net.cpp:141] Setting up pool3/3x3_s2
I0403 04:03:08.309965 21144 net.cpp:148] Top shape: 24 480 14 14 (2257920)
I0403 04:03:08.309981 21144 net.cpp:156] Memory required for data: 818270592
I0403 04:03:08.309995 21144 layer_factory.hpp:77] Creating layer pool3/3x3_s2_pool3/3x3_s2_0_split
I0403 04:03:08.310015 21144 net.cpp:91] Creating Layer pool3/3x3_s2_pool3/3x3_s2_0_split
I0403 04:03:08.310032 21144 net.cpp:425] pool3/3x3_s2_pool3/3x3_s2_0_split <- pool3/3x3_s2
I0403 04:03:08.310050 21144 net.cpp:399] pool3/3x3_s2_pool3/3x3_s2_0_split -> pool3/3x3_s2_pool3/3x3_s2_0_split_0
I0403 04:03:08.310070 21144 net.cpp:399] pool3/3x3_s2_pool3/3x3_s2_0_split -> pool3/3x3_s2_pool3/3x3_s2_0_split_1
I0403 04:03:08.310091 21144 net.cpp:399] pool3/3x3_s2_pool3/3x3_s2_0_split -> pool3/3x3_s2_pool3/3x3_s2_0_split_2
I0403 04:03:08.310111 21144 net.cpp:399] pool3/3x3_s2_pool3/3x3_s2_0_split -> pool3/3x3_s2_pool3/3x3_s2_0_split_3
I0403 04:03:08.310176 21144 net.cpp:141] Setting up pool3/3x3_s2_pool3/3x3_s2_0_split
I0403 04:03:08.310199 21144 net.cpp:148] Top shape: 24 480 14 14 (2257920)
I0403 04:03:08.310216 21144 net.cpp:148] Top shape: 24 480 14 14 (2257920)
I0403 04:03:08.310233 21144 net.cpp:148] Top shape: 24 480 14 14 (2257920)
I0403 04:03:08.310248 21144 net.cpp:148] Top shape: 24 480 14 14 (2257920)
I0403 04:03:08.310262 21144 net.cpp:156] Memory required for data: 854397312
I0403 04:03:08.310277 21144 layer_factory.hpp:77] Creating layer inception_4a/1x1
I0403 04:03:08.310302 21144 net.cpp:91] Creating Layer inception_4a/1x1
I0403 04:03:08.310322 21144 net.cpp:425] inception_4a/1x1 <- pool3/3x3_s2_pool3/3x3_s2_0_split_0
I0403 04:03:08.310344 21144 net.cpp:399] inception_4a/1x1 -> inception_4a/1x1
I0403 04:03:08.311043 21144 net.cpp:141] Setting up inception_4a/1x1
I0403 04:03:08.311070 21144 net.cpp:148] Top shape: 24 192 14 14 (903168)
I0403 04:03:08.311085 21144 net.cpp:156] Memory required for data: 858009984
I0403 04:03:08.311102 21144 layer_factory.hpp:77] Creating layer inception_4a/relu_1x1
I0403 04:03:08.311123 21144 net.cpp:91] Creating Layer inception_4a/relu_1x1
I0403 04:03:08.311141 21144 net.cpp:425] inception_4a/relu_1x1 <- inception_4a/1x1
I0403 04:03:08.311161 21144 net.cpp:386] inception_4a/relu_1x1 -> inception_4a/1x1 (in-place)
I0403 04:03:08.311180 21144 net.cpp:141] Setting up inception_4a/relu_1x1
I0403 04:03:08.311197 21144 net.cpp:148] Top shape: 24 192 14 14 (903168)
I0403 04:03:08.311211 21144 net.cpp:156] Memory required for data: 861622656
I0403 04:03:08.311225 21144 layer_factory.hpp:77] Creating layer inception_4a/3x3_reduce
I0403 04:03:08.311249 21144 net.cpp:91] Creating Layer inception_4a/3x3_reduce
I0403 04:03:08.311266 21144 net.cpp:425] inception_4a/3x3_reduce <- pool3/3x3_s2_pool3/3x3_s2_0_split_1
I0403 04:03:08.311286 21144 net.cpp:399] inception_4a/3x3_reduce -> inception_4a/3x3_reduce
I0403 04:03:08.311748 21144 net.cpp:141] Setting up inception_4a/3x3_reduce
I0403 04:03:08.311777 21144 net.cpp:148] Top shape: 24 96 14 14 (451584)
I0403 04:03:08.311794 21144 net.cpp:156] Memory required for data: 863428992
I0403 04:03:08.311817 21144 layer_factory.hpp:77] Creating layer inception_4a/relu_3x3_reduce
I0403 04:03:08.311851 21144 net.cpp:91] Creating Layer inception_4a/relu_3x3_reduce
I0403 04:03:08.311872 21144 net.cpp:425] inception_4a/relu_3x3_reduce <- inception_4a/3x3_reduce
I0403 04:03:08.311890 21144 net.cpp:386] inception_4a/relu_3x3_reduce -> inception_4a/3x3_reduce (in-place)
I0403 04:03:08.311910 21144 net.cpp:141] Setting up inception_4a/relu_3x3_reduce
I0403 04:03:08.311928 21144 net.cpp:148] Top shape: 24 96 14 14 (451584)
I0403 04:03:08.311944 21144 net.cpp:156] Memory required for data: 865235328
I0403 04:03:08.311957 21144 layer_factory.hpp:77] Creating layer inception_4a/3x3
I0403 04:03:08.311980 21144 net.cpp:91] Creating Layer inception_4a/3x3
I0403 04:03:08.311998 21144 net.cpp:425] inception_4a/3x3 <- inception_4a/3x3_reduce
I0403 04:03:08.312018 21144 net.cpp:399] inception_4a/3x3 -> inception_4a/3x3
I0403 04:03:08.313745 21144 net.cpp:141] Setting up inception_4a/3x3
I0403 04:03:08.313774 21144 net.cpp:148] Top shape: 24 208 14 14 (978432)
I0403 04:03:08.313791 21144 net.cpp:156] Memory required for data: 869149056
I0403 04:03:08.313809 21144 layer_factory.hpp:77] Creating layer inception_4a/relu_3x3
I0403 04:03:08.313827 21144 net.cpp:91] Creating Layer inception_4a/relu_3x3
I0403 04:03:08.313843 21144 net.cpp:425] inception_4a/relu_3x3 <- inception_4a/3x3
I0403 04:03:08.313864 21144 net.cpp:386] inception_4a/relu_3x3 -> inception_4a/3x3 (in-place)
I0403 04:03:08.313885 21144 net.cpp:141] Setting up inception_4a/relu_3x3
I0403 04:03:08.313905 21144 net.cpp:148] Top shape: 24 208 14 14 (978432)
I0403 04:03:08.313920 21144 net.cpp:156] Memory required for data: 873062784
I0403 04:03:08.313935 21144 layer_factory.hpp:77] Creating layer inception_4a/5x5_reduce
I0403 04:03:08.313958 21144 net.cpp:91] Creating Layer inception_4a/5x5_reduce
I0403 04:03:08.313977 21144 net.cpp:425] inception_4a/5x5_reduce <- pool3/3x3_s2_pool3/3x3_s2_0_split_2
I0403 04:03:08.313997 21144 net.cpp:399] inception_4a/5x5_reduce -> inception_4a/5x5_reduce
I0403 04:03:08.314242 21144 net.cpp:141] Setting up inception_4a/5x5_reduce
I0403 04:03:08.314268 21144 net.cpp:148] Top shape: 24 16 14 14 (75264)
I0403 04:03:08.314285 21144 net.cpp:156] Memory required for data: 873363840
I0403 04:03:08.314303 21144 layer_factory.hpp:77] Creating layer inception_4a/relu_5x5_reduce
I0403 04:03:08.314322 21144 net.cpp:91] Creating Layer inception_4a/relu_5x5_reduce
I0403 04:03:08.314339 21144 net.cpp:425] inception_4a/relu_5x5_reduce <- inception_4a/5x5_reduce
I0403 04:03:08.314360 21144 net.cpp:386] inception_4a/relu_5x5_reduce -> inception_4a/5x5_reduce (in-place)
I0403 04:03:08.314380 21144 net.cpp:141] Setting up inception_4a/relu_5x5_reduce
I0403 04:03:08.314399 21144 net.cpp:148] Top shape: 24 16 14 14 (75264)
I0403 04:03:08.314414 21144 net.cpp:156] Memory required for data: 873664896
I0403 04:03:08.314429 21144 layer_factory.hpp:77] Creating layer inception_4a/5x5
I0403 04:03:08.314452 21144 net.cpp:91] Creating Layer inception_4a/5x5
I0403 04:03:08.314476 21144 net.cpp:425] inception_4a/5x5 <- inception_4a/5x5_reduce
I0403 04:03:08.314496 21144 net.cpp:399] inception_4a/5x5 -> inception_4a/5x5
I0403 04:03:08.314807 21144 net.cpp:141] Setting up inception_4a/5x5
I0403 04:03:08.314832 21144 net.cpp:148] Top shape: 24 48 14 14 (225792)
I0403 04:03:08.314848 21144 net.cpp:156] Memory required for data: 874568064
I0403 04:03:08.314867 21144 layer_factory.hpp:77] Creating layer inception_4a/relu_5x5
I0403 04:03:08.314884 21144 net.cpp:91] Creating Layer inception_4a/relu_5x5
I0403 04:03:08.314901 21144 net.cpp:425] inception_4a/relu_5x5 <- inception_4a/5x5
I0403 04:03:08.314921 21144 net.cpp:386] inception_4a/relu_5x5 -> inception_4a/5x5 (in-place)
I0403 04:03:08.314941 21144 net.cpp:141] Setting up inception_4a/relu_5x5
I0403 04:03:08.314960 21144 net.cpp:148] Top shape: 24 48 14 14 (225792)
I0403 04:03:08.314973 21144 net.cpp:156] Memory required for data: 875471232
I0403 04:03:08.314988 21144 layer_factory.hpp:77] Creating layer inception_4a/pool
I0403 04:03:08.315008 21144 net.cpp:91] Creating Layer inception_4a/pool
I0403 04:03:08.315026 21144 net.cpp:425] inception_4a/pool <- pool3/3x3_s2_pool3/3x3_s2_0_split_3
I0403 04:03:08.315059 21144 net.cpp:399] inception_4a/pool -> inception_4a/pool
I0403 04:03:08.315112 21144 net.cpp:141] Setting up inception_4a/pool
I0403 04:03:08.315136 21144 net.cpp:148] Top shape: 24 480 14 14 (2257920)
I0403 04:03:08.315152 21144 net.cpp:156] Memory required for data: 884502912
I0403 04:03:08.315179 21144 layer_factory.hpp:77] Creating layer inception_4a/pool_proj
I0403 04:03:08.315203 21144 net.cpp:91] Creating Layer inception_4a/pool_proj
I0403 04:03:08.315223 21144 net.cpp:425] inception_4a/pool_proj <- inception_4a/pool
I0403 04:03:08.315246 21144 net.cpp:399] inception_4a/pool_proj -> inception_4a/pool_proj
I0403 04:03:08.315634 21144 net.cpp:141] Setting up inception_4a/pool_proj
I0403 04:03:08.315660 21144 net.cpp:148] Top shape: 24 64 14 14 (301056)
I0403 04:03:08.315676 21144 net.cpp:156] Memory required for data: 885707136
I0403 04:03:08.315706 21144 layer_factory.hpp:77] Creating layer inception_4a/relu_pool_proj
I0403 04:03:08.315726 21144 net.cpp:91] Creating Layer inception_4a/relu_pool_proj
I0403 04:03:08.315742 21144 net.cpp:425] inception_4a/relu_pool_proj <- inception_4a/pool_proj
I0403 04:03:08.315759 21144 net.cpp:386] inception_4a/relu_pool_proj -> inception_4a/pool_proj (in-place)
I0403 04:03:08.315779 21144 net.cpp:141] Setting up inception_4a/relu_pool_proj
I0403 04:03:08.315798 21144 net.cpp:148] Top shape: 24 64 14 14 (301056)
I0403 04:03:08.315812 21144 net.cpp:156] Memory required for data: 886911360
I0403 04:03:08.315827 21144 layer_factory.hpp:77] Creating layer inception_4a/output
I0403 04:03:08.315847 21144 net.cpp:91] Creating Layer inception_4a/output
I0403 04:03:08.315865 21144 net.cpp:425] inception_4a/output <- inception_4a/1x1
I0403 04:03:08.315882 21144 net.cpp:425] inception_4a/output <- inception_4a/3x3
I0403 04:03:08.315899 21144 net.cpp:425] inception_4a/output <- inception_4a/5x5
I0403 04:03:08.315915 21144 net.cpp:425] inception_4a/output <- inception_4a/pool_proj
I0403 04:03:08.315933 21144 net.cpp:399] inception_4a/output -> inception_4a/output
I0403 04:03:08.315979 21144 net.cpp:141] Setting up inception_4a/output
I0403 04:03:08.316002 21144 net.cpp:148] Top shape: 24 512 14 14 (2408448)
I0403 04:03:08.316018 21144 net.cpp:156] Memory required for data: 896545152
I0403 04:03:08.316033 21144 layer_factory.hpp:77] Creating layer inception_4a/output_inception_4a/output_0_split
I0403 04:03:08.316052 21144 net.cpp:91] Creating Layer inception_4a/output_inception_4a/output_0_split
I0403 04:03:08.316068 21144 net.cpp:425] inception_4a/output_inception_4a/output_0_split <- inception_4a/output
I0403 04:03:08.316088 21144 net.cpp:399] inception_4a/output_inception_4a/output_0_split -> inception_4a/output_inception_4a/output_0_split_0
I0403 04:03:08.316110 21144 net.cpp:399] inception_4a/output_inception_4a/output_0_split -> inception_4a/output_inception_4a/output_0_split_1
I0403 04:03:08.316133 21144 net.cpp:399] inception_4a/output_inception_4a/output_0_split -> inception_4a/output_inception_4a/output_0_split_2
I0403 04:03:08.316154 21144 net.cpp:399] inception_4a/output_inception_4a/output_0_split -> inception_4a/output_inception_4a/output_0_split_3
I0403 04:03:08.316174 21144 net.cpp:399] inception_4a/output_inception_4a/output_0_split -> inception_4a/output_inception_4a/output_0_split_4
I0403 04:03:08.316249 21144 net.cpp:141] Setting up inception_4a/output_inception_4a/output_0_split
I0403 04:03:08.316277 21144 net.cpp:148] Top shape: 24 512 14 14 (2408448)
I0403 04:03:08.316294 21144 net.cpp:148] Top shape: 24 512 14 14 (2408448)
I0403 04:03:08.316310 21144 net.cpp:148] Top shape: 24 512 14 14 (2408448)
I0403 04:03:08.316326 21144 net.cpp:148] Top shape: 24 512 14 14 (2408448)
I0403 04:03:08.316341 21144 net.cpp:148] Top shape: 24 512 14 14 (2408448)
I0403 04:03:08.316356 21144 net.cpp:156] Memory required for data: 944714112
I0403 04:03:08.316371 21144 layer_factory.hpp:77] Creating layer loss1/ave_pool
I0403 04:03:08.316390 21144 net.cpp:91] Creating Layer loss1/ave_pool
I0403 04:03:08.316431 21144 net.cpp:425] loss1/ave_pool <- inception_4a/output_inception_4a/output_0_split_0
I0403 04:03:08.316452 21144 net.cpp:399] loss1/ave_pool -> loss1/ave_pool
I0403 04:03:08.316504 21144 net.cpp:141] Setting up loss1/ave_pool
I0403 04:03:08.316529 21144 net.cpp:148] Top shape: 24 512 4 4 (196608)
I0403 04:03:08.316543 21144 net.cpp:156] Memory required for data: 945500544
I0403 04:03:08.316558 21144 layer_factory.hpp:77] Creating layer loss1/conv
I0403 04:03:08.316582 21144 net.cpp:91] Creating Layer loss1/conv
I0403 04:03:08.316601 21144 net.cpp:425] loss1/conv <- loss1/ave_pool
I0403 04:03:08.316623 21144 net.cpp:399] loss1/conv -> loss1/conv
I0403 04:03:08.317190 21144 net.cpp:141] Setting up loss1/conv
I0403 04:03:08.317216 21144 net.cpp:148] Top shape: 24 128 4 4 (49152)
I0403 04:03:08.317232 21144 net.cpp:156] Memory required for data: 945697152
I0403 04:03:08.317250 21144 layer_factory.hpp:77] Creating layer loss1/relu_conv
I0403 04:03:08.317268 21144 net.cpp:91] Creating Layer loss1/relu_conv
I0403 04:03:08.317291 21144 net.cpp:425] loss1/relu_conv <- loss1/conv
I0403 04:03:08.317311 21144 net.cpp:386] loss1/relu_conv -> loss1/conv (in-place)
I0403 04:03:08.317330 21144 net.cpp:141] Setting up loss1/relu_conv
I0403 04:03:08.317348 21144 net.cpp:148] Top shape: 24 128 4 4 (49152)
I0403 04:03:08.317363 21144 net.cpp:156] Memory required for data: 945893760
I0403 04:03:08.317378 21144 layer_factory.hpp:77] Creating layer loss1/fc
I0403 04:03:08.317402 21144 net.cpp:91] Creating Layer loss1/fc
I0403 04:03:08.317425 21144 net.cpp:425] loss1/fc <- loss1/conv
I0403 04:03:08.317445 21144 net.cpp:399] loss1/fc -> loss1/fc
I0403 04:03:08.333719 21144 net.cpp:141] Setting up loss1/fc
I0403 04:03:08.333762 21144 net.cpp:148] Top shape: 24 1024 (24576)
I0403 04:03:08.333781 21144 net.cpp:156] Memory required for data: 945992064
I0403 04:03:08.333801 21144 layer_factory.hpp:77] Creating layer loss1/relu_fc
I0403 04:03:08.333819 21144 net.cpp:91] Creating Layer loss1/relu_fc
I0403 04:03:08.333837 21144 net.cpp:425] loss1/relu_fc <- loss1/fc
I0403 04:03:08.333856 21144 net.cpp:386] loss1/relu_fc -> loss1/fc (in-place)
I0403 04:03:08.333878 21144 net.cpp:141] Setting up loss1/relu_fc
I0403 04:03:08.333897 21144 net.cpp:148] Top shape: 24 1024 (24576)
I0403 04:03:08.333912 21144 net.cpp:156] Memory required for data: 946090368
I0403 04:03:08.333928 21144 layer_factory.hpp:77] Creating layer loss1/drop_fc
I0403 04:03:08.333961 21144 net.cpp:91] Creating Layer loss1/drop_fc
I0403 04:03:08.333982 21144 net.cpp:425] loss1/drop_fc <- loss1/fc
I0403 04:03:08.334000 21144 net.cpp:386] loss1/drop_fc -> loss1/fc (in-place)
I0403 04:03:08.334049 21144 net.cpp:141] Setting up loss1/drop_fc
I0403 04:03:08.334076 21144 net.cpp:148] Top shape: 24 1024 (24576)
I0403 04:03:08.334094 21144 net.cpp:156] Memory required for data: 946188672
I0403 04:03:08.334108 21144 layer_factory.hpp:77] Creating layer loss1/classifier_plantvillage
I0403 04:03:08.334130 21144 net.cpp:91] Creating Layer loss1/classifier_plantvillage
I0403 04:03:08.334146 21144 net.cpp:425] loss1/classifier_plantvillage <- loss1/fc
I0403 04:03:08.334169 21144 net.cpp:399] loss1/classifier_plantvillage -> loss1/classifier_plantvillage
I0403 04:03:08.335053 21144 net.cpp:141] Setting up loss1/classifier_plantvillage
I0403 04:03:08.335083 21144 net.cpp:148] Top shape: 24 38 (912)
I0403 04:03:08.335098 21144 net.cpp:156] Memory required for data: 946192320
I0403 04:03:08.335116 21144 layer_factory.hpp:77] Creating layer inception_4b/1x1
I0403 04:03:08.335144 21144 net.cpp:91] Creating Layer inception_4b/1x1
I0403 04:03:08.335163 21144 net.cpp:425] inception_4b/1x1 <- inception_4a/output_inception_4a/output_0_split_1
I0403 04:03:08.335187 21144 net.cpp:399] inception_4b/1x1 -> inception_4b/1x1
I0403 04:03:08.335870 21144 net.cpp:141] Setting up inception_4b/1x1
I0403 04:03:08.335896 21144 net.cpp:148] Top shape: 24 160 14 14 (752640)
I0403 04:03:08.335912 21144 net.cpp:156] Memory required for data: 949202880
I0403 04:03:08.335932 21144 layer_factory.hpp:77] Creating layer inception_4b/relu_1x1
I0403 04:03:08.335970 21144 net.cpp:91] Creating Layer inception_4b/relu_1x1
I0403 04:03:08.335990 21144 net.cpp:425] inception_4b/relu_1x1 <- inception_4b/1x1
I0403 04:03:08.336010 21144 net.cpp:386] inception_4b/relu_1x1 -> inception_4b/1x1 (in-place)
I0403 04:03:08.336031 21144 net.cpp:141] Setting up inception_4b/relu_1x1
I0403 04:03:08.336048 21144 net.cpp:148] Top shape: 24 160 14 14 (752640)
I0403 04:03:08.336063 21144 net.cpp:156] Memory required for data: 952213440
I0403 04:03:08.336079 21144 layer_factory.hpp:77] Creating layer inception_4b/3x3_reduce
I0403 04:03:08.336103 21144 net.cpp:91] Creating Layer inception_4b/3x3_reduce
I0403 04:03:08.336123 21144 net.cpp:425] inception_4b/3x3_reduce <- inception_4a/output_inception_4a/output_0_split_2
I0403 04:03:08.336145 21144 net.cpp:399] inception_4b/3x3_reduce -> inception_4b/3x3_reduce
I0403 04:03:08.336683 21144 net.cpp:141] Setting up inception_4b/3x3_reduce
I0403 04:03:08.336709 21144 net.cpp:148] Top shape: 24 112 14 14 (526848)
I0403 04:03:08.336725 21144 net.cpp:156] Memory required for data: 954320832
I0403 04:03:08.336745 21144 layer_factory.hpp:77] Creating layer inception_4b/relu_3x3_reduce
I0403 04:03:08.336763 21144 net.cpp:91] Creating Layer inception_4b/relu_3x3_reduce
I0403 04:03:08.336781 21144 net.cpp:425] inception_4b/relu_3x3_reduce <- inception_4b/3x3_reduce
I0403 04:03:08.336798 21144 net.cpp:386] inception_4b/relu_3x3_reduce -> inception_4b/3x3_reduce (in-place)
I0403 04:03:08.336818 21144 net.cpp:141] Setting up inception_4b/relu_3x3_reduce
I0403 04:03:08.336838 21144 net.cpp:148] Top shape: 24 112 14 14 (526848)
I0403 04:03:08.336853 21144 net.cpp:156] Memory required for data: 956428224
I0403 04:03:08.336868 21144 layer_factory.hpp:77] Creating layer inception_4b/3x3
I0403 04:03:08.336892 21144 net.cpp:91] Creating Layer inception_4b/3x3
I0403 04:03:08.336911 21144 net.cpp:425] inception_4b/3x3 <- inception_4b/3x3_reduce
I0403 04:03:08.336935 21144 net.cpp:399] inception_4b/3x3 -> inception_4b/3x3
I0403 04:03:08.338954 21144 net.cpp:141] Setting up inception_4b/3x3
I0403 04:03:08.338986 21144 net.cpp:148] Top shape: 24 224 14 14 (1053696)
I0403 04:03:08.339004 21144 net.cpp:156] Memory required for data: 960643008
I0403 04:03:08.339022 21144 layer_factory.hpp:77] Creating layer inception_4b/relu_3x3
I0403 04:03:08.339042 21144 net.cpp:91] Creating Layer inception_4b/relu_3x3
I0403 04:03:08.339059 21144 net.cpp:425] inception_4b/relu_3x3 <- inception_4b/3x3
I0403 04:03:08.339077 21144 net.cpp:386] inception_4b/relu_3x3 -> inception_4b/3x3 (in-place)
I0403 04:03:08.339097 21144 net.cpp:141] Setting up inception_4b/relu_3x3
I0403 04:03:08.339117 21144 net.cpp:148] Top shape: 24 224 14 14 (1053696)
I0403 04:03:08.339133 21144 net.cpp:156] Memory required for data: 964857792
I0403 04:03:08.339148 21144 layer_factory.hpp:77] Creating layer inception_4b/5x5_reduce
I0403 04:03:08.339171 21144 net.cpp:91] Creating Layer inception_4b/5x5_reduce
I0403 04:03:08.339191 21144 net.cpp:425] inception_4b/5x5_reduce <- inception_4a/output_inception_4a/output_0_split_3
I0403 04:03:08.339215 21144 net.cpp:399] inception_4b/5x5_reduce -> inception_4b/5x5_reduce
I0403 04:03:08.339506 21144 net.cpp:141] Setting up inception_4b/5x5_reduce
I0403 04:03:08.339534 21144 net.cpp:148] Top shape: 24 24 14 14 (112896)
I0403 04:03:08.339548 21144 net.cpp:156] Memory required for data: 965309376
I0403 04:03:08.339566 21144 layer_factory.hpp:77] Creating layer inception_4b/relu_5x5_reduce
I0403 04:03:08.339587 21144 net.cpp:91] Creating Layer inception_4b/relu_5x5_reduce
I0403 04:03:08.339607 21144 net.cpp:425] inception_4b/relu_5x5_reduce <- inception_4b/5x5_reduce
I0403 04:03:08.339625 21144 net.cpp:386] inception_4b/relu_5x5_reduce -> inception_4b/5x5_reduce (in-place)
I0403 04:03:08.339645 21144 net.cpp:141] Setting up inception_4b/relu_5x5_reduce
I0403 04:03:08.339663 21144 net.cpp:148] Top shape: 24 24 14 14 (112896)
I0403 04:03:08.339679 21144 net.cpp:156] Memory required for data: 965760960
I0403 04:03:08.339694 21144 layer_factory.hpp:77] Creating layer inception_4b/5x5
I0403 04:03:08.339733 21144 net.cpp:91] Creating Layer inception_4b/5x5
I0403 04:03:08.339752 21144 net.cpp:425] inception_4b/5x5 <- inception_4b/5x5_reduce
I0403 04:03:08.339773 21144 net.cpp:399] inception_4b/5x5 -> inception_4b/5x5
I0403 04:03:08.340201 21144 net.cpp:141] Setting up inception_4b/5x5
I0403 04:03:08.340229 21144 net.cpp:148] Top shape: 24 64 14 14 (301056)
I0403 04:03:08.340247 21144 net.cpp:156] Memory required for data: 966965184
I0403 04:03:08.340266 21144 layer_factory.hpp:77] Creating layer inception_4b/relu_5x5
I0403 04:03:08.340286 21144 net.cpp:91] Creating Layer inception_4b/relu_5x5
I0403 04:03:08.340303 21144 net.cpp:425] inception_4b/relu_5x5 <- inception_4b/5x5
I0403 04:03:08.340322 21144 net.cpp:386] inception_4b/relu_5x5 -> inception_4b/5x5 (in-place)
I0403 04:03:08.340342 21144 net.cpp:141] Setting up inception_4b/relu_5x5
I0403 04:03:08.340360 21144 net.cpp:148] Top shape: 24 64 14 14 (301056)
I0403 04:03:08.340375 21144 net.cpp:156] Memory required for data: 968169408
I0403 04:03:08.340389 21144 layer_factory.hpp:77] Creating layer inception_4b/pool
I0403 04:03:08.340407 21144 net.cpp:91] Creating Layer inception_4b/pool
I0403 04:03:08.340425 21144 net.cpp:425] inception_4b/pool <- inception_4a/output_inception_4a/output_0_split_4
I0403 04:03:08.340447 21144 net.cpp:399] inception_4b/pool -> inception_4b/pool
I0403 04:03:08.340504 21144 net.cpp:141] Setting up inception_4b/pool
I0403 04:03:08.340529 21144 net.cpp:148] Top shape: 24 512 14 14 (2408448)
I0403 04:03:08.340544 21144 net.cpp:156] Memory required for data: 977803200
I0403 04:03:08.340559 21144 layer_factory.hpp:77] Creating layer inception_4b/pool_proj
I0403 04:03:08.340589 21144 net.cpp:91] Creating Layer inception_4b/pool_proj
I0403 04:03:08.340608 21144 net.cpp:425] inception_4b/pool_proj <- inception_4b/pool
I0403 04:03:08.340629 21144 net.cpp:399] inception_4b/pool_proj -> inception_4b/pool_proj
I0403 04:03:08.341032 21144 net.cpp:141] Setting up inception_4b/pool_proj
I0403 04:03:08.341058 21144 net.cpp:148] Top shape: 24 64 14 14 (301056)
I0403 04:03:08.341073 21144 net.cpp:156] Memory required for data: 979007424
I0403 04:03:08.341092 21144 layer_factory.hpp:77] Creating layer inception_4b/relu_pool_proj
I0403 04:03:08.341111 21144 net.cpp:91] Creating Layer inception_4b/relu_pool_proj
I0403 04:03:08.341127 21144 net.cpp:425] inception_4b/relu_pool_proj <- inception_4b/pool_proj
I0403 04:03:08.341148 21144 net.cpp:386] inception_4b/relu_pool_proj -> inception_4b/pool_proj (in-place)
I0403 04:03:08.341171 21144 net.cpp:141] Setting up inception_4b/relu_pool_proj
I0403 04:03:08.341190 21144 net.cpp:148] Top shape: 24 64 14 14 (301056)
I0403 04:03:08.341205 21144 net.cpp:156] Memory required for data: 980211648
I0403 04:03:08.341220 21144 layer_factory.hpp:77] Creating layer inception_4b/output
I0403 04:03:08.341239 21144 net.cpp:91] Creating Layer inception_4b/output
I0403 04:03:08.341256 21144 net.cpp:425] inception_4b/output <- inception_4b/1x1
I0403 04:03:08.341274 21144 net.cpp:425] inception_4b/output <- inception_4b/3x3
I0403 04:03:08.341289 21144 net.cpp:425] inception_4b/output <- inception_4b/5x5
I0403 04:03:08.341307 21144 net.cpp:425] inception_4b/output <- inception_4b/pool_proj
I0403 04:03:08.341325 21144 net.cpp:399] inception_4b/output -> inception_4b/output
I0403 04:03:08.341367 21144 net.cpp:141] Setting up inception_4b/output
I0403 04:03:08.341390 21144 net.cpp:148] Top shape: 24 512 14 14 (2408448)
I0403 04:03:08.341406 21144 net.cpp:156] Memory required for data: 989845440
I0403 04:03:08.341421 21144 layer_factory.hpp:77] Creating layer inception_4b/output_inception_4b/output_0_split
I0403 04:03:08.341441 21144 net.cpp:91] Creating Layer inception_4b/output_inception_4b/output_0_split
I0403 04:03:08.341461 21144 net.cpp:425] inception_4b/output_inception_4b/output_0_split <- inception_4b/output
I0403 04:03:08.341485 21144 net.cpp:399] inception_4b/output_inception_4b/output_0_split -> inception_4b/output_inception_4b/output_0_split_0
I0403 04:03:08.341509 21144 net.cpp:399] inception_4b/output_inception_4b/output_0_split -> inception_4b/output_inception_4b/output_0_split_1
I0403 04:03:08.341544 21144 net.cpp:399] inception_4b/output_inception_4b/output_0_split -> inception_4b/output_inception_4b/output_0_split_2
I0403 04:03:08.341568 21144 net.cpp:399] inception_4b/output_inception_4b/output_0_split -> inception_4b/output_inception_4b/output_0_split_3
I0403 04:03:08.341639 21144 net.cpp:141] Setting up inception_4b/output_inception_4b/output_0_split
I0403 04:03:08.341665 21144 net.cpp:148] Top shape: 24 512 14 14 (2408448)
I0403 04:03:08.341684 21144 net.cpp:148] Top shape: 24 512 14 14 (2408448)
I0403 04:03:08.341701 21144 net.cpp:148] Top shape: 24 512 14 14 (2408448)
I0403 04:03:08.341717 21144 net.cpp:148] Top shape: 24 512 14 14 (2408448)
I0403 04:03:08.341732 21144 net.cpp:156] Memory required for data: 1028380608
I0403 04:03:08.341747 21144 layer_factory.hpp:77] Creating layer inception_4c/1x1
I0403 04:03:08.341769 21144 net.cpp:91] Creating Layer inception_4c/1x1
I0403 04:03:08.341789 21144 net.cpp:425] inception_4c/1x1 <- inception_4b/output_inception_4b/output_0_split_0
I0403 04:03:08.341810 21144 net.cpp:399] inception_4c/1x1 -> inception_4c/1x1
I0403 04:03:08.342383 21144 net.cpp:141] Setting up inception_4c/1x1
I0403 04:03:08.342409 21144 net.cpp:148] Top shape: 24 128 14 14 (602112)
I0403 04:03:08.342425 21144 net.cpp:156] Memory required for data: 1030789056
I0403 04:03:08.342444 21144 layer_factory.hpp:77] Creating layer inception_4c/relu_1x1
I0403 04:03:08.342474 21144 net.cpp:91] Creating Layer inception_4c/relu_1x1
I0403 04:03:08.342495 21144 net.cpp:425] inception_4c/relu_1x1 <- inception_4c/1x1
I0403 04:03:08.342517 21144 net.cpp:386] inception_4c/relu_1x1 -> inception_4c/1x1 (in-place)
I0403 04:03:08.342537 21144 net.cpp:141] Setting up inception_4c/relu_1x1
I0403 04:03:08.342557 21144 net.cpp:148] Top shape: 24 128 14 14 (602112)
I0403 04:03:08.342572 21144 net.cpp:156] Memory required for data: 1033197504
I0403 04:03:08.342587 21144 layer_factory.hpp:77] Creating layer inception_4c/3x3_reduce
I0403 04:03:08.342608 21144 net.cpp:91] Creating Layer inception_4c/3x3_reduce
I0403 04:03:08.342627 21144 net.cpp:425] inception_4c/3x3_reduce <- inception_4b/output_inception_4b/output_0_split_1
I0403 04:03:08.342649 21144 net.cpp:399] inception_4c/3x3_reduce -> inception_4c/3x3_reduce
I0403 04:03:08.343780 21144 net.cpp:141] Setting up inception_4c/3x3_reduce
I0403 04:03:08.343811 21144 net.cpp:148] Top shape: 24 128 14 14 (602112)
I0403 04:03:08.343827 21144 net.cpp:156] Memory required for data: 1035605952
I0403 04:03:08.343847 21144 layer_factory.hpp:77] Creating layer inception_4c/relu_3x3_reduce
I0403 04:03:08.343869 21144 net.cpp:91] Creating Layer inception_4c/relu_3x3_reduce
I0403 04:03:08.343888 21144 net.cpp:425] inception_4c/relu_3x3_reduce <- inception_4c/3x3_reduce
I0403 04:03:08.343907 21144 net.cpp:386] inception_4c/relu_3x3_reduce -> inception_4c/3x3_reduce (in-place)
I0403 04:03:08.343927 21144 net.cpp:141] Setting up inception_4c/relu_3x3_reduce
I0403 04:03:08.343946 21144 net.cpp:148] Top shape: 24 128 14 14 (602112)
I0403 04:03:08.343962 21144 net.cpp:156] Memory required for data: 1038014400
I0403 04:03:08.343977 21144 layer_factory.hpp:77] Creating layer inception_4c/3x3
I0403 04:03:08.344002 21144 net.cpp:91] Creating Layer inception_4c/3x3
I0403 04:03:08.344022 21144 net.cpp:425] inception_4c/3x3 <- inception_4c/3x3_reduce
I0403 04:03:08.344044 21144 net.cpp:399] inception_4c/3x3 -> inception_4c/3x3
I0403 04:03:08.346556 21144 net.cpp:141] Setting up inception_4c/3x3
I0403 04:03:08.346586 21144 net.cpp:148] Top shape: 24 256 14 14 (1204224)
I0403 04:03:08.346602 21144 net.cpp:156] Memory required for data: 1042831296
I0403 04:03:08.346633 21144 layer_factory.hpp:77] Creating layer inception_4c/relu_3x3
I0403 04:03:08.346658 21144 net.cpp:91] Creating Layer inception_4c/relu_3x3
I0403 04:03:08.346678 21144 net.cpp:425] inception_4c/relu_3x3 <- inception_4c/3x3
I0403 04:03:08.346698 21144 net.cpp:386] inception_4c/relu_3x3 -> inception_4c/3x3 (in-place)
I0403 04:03:08.346732 21144 net.cpp:141] Setting up inception_4c/relu_3x3
I0403 04:03:08.346751 21144 net.cpp:148] Top shape: 24 256 14 14 (1204224)
I0403 04:03:08.346766 21144 net.cpp:156] Memory required for data: 1047648192
I0403 04:03:08.346781 21144 layer_factory.hpp:77] Creating layer inception_4c/5x5_reduce
I0403 04:03:08.346803 21144 net.cpp:91] Creating Layer inception_4c/5x5_reduce
I0403 04:03:08.346824 21144 net.cpp:425] inception_4c/5x5_reduce <- inception_4b/output_inception_4b/output_0_split_2
I0403 04:03:08.346846 21144 net.cpp:399] inception_4c/5x5_reduce -> inception_4c/5x5_reduce
I0403 04:03:08.347138 21144 net.cpp:141] Setting up inception_4c/5x5_reduce
I0403 04:03:08.347165 21144 net.cpp:148] Top shape: 24 24 14 14 (112896)
I0403 04:03:08.347182 21144 net.cpp:156] Memory required for data: 1048099776
I0403 04:03:08.347200 21144 layer_factory.hpp:77] Creating layer inception_4c/relu_5x5_reduce
I0403 04:03:08.347220 21144 net.cpp:91] Creating Layer inception_4c/relu_5x5_reduce
I0403 04:03:08.347237 21144 net.cpp:425] inception_4c/relu_5x5_reduce <- inception_4c/5x5_reduce
I0403 04:03:08.347259 21144 net.cpp:386] inception_4c/relu_5x5_reduce -> inception_4c/5x5_reduce (in-place)
I0403 04:03:08.347281 21144 net.cpp:141] Setting up inception_4c/relu_5x5_reduce
I0403 04:03:08.347300 21144 net.cpp:148] Top shape: 24 24 14 14 (112896)
I0403 04:03:08.347313 21144 net.cpp:156] Memory required for data: 1048551360
I0403 04:03:08.347328 21144 layer_factory.hpp:77] Creating layer inception_4c/5x5
I0403 04:03:08.347349 21144 net.cpp:91] Creating Layer inception_4c/5x5
I0403 04:03:08.347368 21144 net.cpp:425] inception_4c/5x5 <- inception_4c/5x5_reduce
I0403 04:03:08.347391 21144 net.cpp:399] inception_4c/5x5 -> inception_4c/5x5
I0403 04:03:08.347832 21144 net.cpp:141] Setting up inception_4c/5x5
I0403 04:03:08.347858 21144 net.cpp:148] Top shape: 24 64 14 14 (301056)
I0403 04:03:08.347873 21144 net.cpp:156] Memory required for data: 1049755584
I0403 04:03:08.347892 21144 layer_factory.hpp:77] Creating layer inception_4c/relu_5x5
I0403 04:03:08.347911 21144 net.cpp:91] Creating Layer inception_4c/relu_5x5
I0403 04:03:08.347929 21144 net.cpp:425] inception_4c/relu_5x5 <- inception_4c/5x5
I0403 04:03:08.347946 21144 net.cpp:386] inception_4c/relu_5x5 -> inception_4c/5x5 (in-place)
I0403 04:03:08.347968 21144 net.cpp:141] Setting up inception_4c/relu_5x5
I0403 04:03:08.347988 21144 net.cpp:148] Top shape: 24 64 14 14 (301056)
I0403 04:03:08.348004 21144 net.cpp:156] Memory required for data: 1050959808
I0403 04:03:08.348019 21144 layer_factory.hpp:77] Creating layer inception_4c/pool
I0403 04:03:08.348037 21144 net.cpp:91] Creating Layer inception_4c/pool
I0403 04:03:08.348055 21144 net.cpp:425] inception_4c/pool <- inception_4b/output_inception_4b/output_0_split_3
I0403 04:03:08.348074 21144 net.cpp:399] inception_4c/pool -> inception_4c/pool
I0403 04:03:08.348129 21144 net.cpp:141] Setting up inception_4c/pool
I0403 04:03:08.348155 21144 net.cpp:148] Top shape: 24 512 14 14 (2408448)
I0403 04:03:08.348170 21144 net.cpp:156] Memory required for data: 1060593600
I0403 04:03:08.348188 21144 layer_factory.hpp:77] Creating layer inception_4c/pool_proj
I0403 04:03:08.348212 21144 net.cpp:91] Creating Layer inception_4c/pool_proj
I0403 04:03:08.348230 21144 net.cpp:425] inception_4c/pool_proj <- inception_4c/pool
I0403 04:03:08.348253 21144 net.cpp:399] inception_4c/pool_proj -> inception_4c/pool_proj
I0403 04:03:08.348661 21144 net.cpp:141] Setting up inception_4c/pool_proj
I0403 04:03:08.348688 21144 net.cpp:148] Top shape: 24 64 14 14 (301056)
I0403 04:03:08.348703 21144 net.cpp:156] Memory required for data: 1061797824
I0403 04:03:08.348722 21144 layer_factory.hpp:77] Creating layer inception_4c/relu_pool_proj
I0403 04:03:08.348742 21144 net.cpp:91] Creating Layer inception_4c/relu_pool_proj
I0403 04:03:08.348759 21144 net.cpp:425] inception_4c/relu_pool_proj <- inception_4c/pool_proj
I0403 04:03:08.348778 21144 net.cpp:386] inception_4c/relu_pool_proj -> inception_4c/pool_proj (in-place)
I0403 04:03:08.348798 21144 net.cpp:141] Setting up inception_4c/relu_pool_proj
I0403 04:03:08.348830 21144 net.cpp:148] Top shape: 24 64 14 14 (301056)
I0403 04:03:08.348846 21144 net.cpp:156] Memory required for data: 1063002048
I0403 04:03:08.348861 21144 layer_factory.hpp:77] Creating layer inception_4c/output
I0403 04:03:08.348883 21144 net.cpp:91] Creating Layer inception_4c/output
I0403 04:03:08.348901 21144 net.cpp:425] inception_4c/output <- inception_4c/1x1
I0403 04:03:08.348919 21144 net.cpp:425] inception_4c/output <- inception_4c/3x3
I0403 04:03:08.348937 21144 net.cpp:425] inception_4c/output <- inception_4c/5x5
I0403 04:03:08.348953 21144 net.cpp:425] inception_4c/output <- inception_4c/pool_proj
I0403 04:03:08.348973 21144 net.cpp:399] inception_4c/output -> inception_4c/output
I0403 04:03:08.349011 21144 net.cpp:141] Setting up inception_4c/output
I0403 04:03:08.349040 21144 net.cpp:148] Top shape: 24 512 14 14 (2408448)
I0403 04:03:08.349056 21144 net.cpp:156] Memory required for data: 1072635840
I0403 04:03:08.349071 21144 layer_factory.hpp:77] Creating layer inception_4c/output_inception_4c/output_0_split
I0403 04:03:08.349091 21144 net.cpp:91] Creating Layer inception_4c/output_inception_4c/output_0_split
I0403 04:03:08.349107 21144 net.cpp:425] inception_4c/output_inception_4c/output_0_split <- inception_4c/output
I0403 04:03:08.349125 21144 net.cpp:399] inception_4c/output_inception_4c/output_0_split -> inception_4c/output_inception_4c/output_0_split_0
I0403 04:03:08.349146 21144 net.cpp:399] inception_4c/output_inception_4c/output_0_split -> inception_4c/output_inception_4c/output_0_split_1
I0403 04:03:08.349170 21144 net.cpp:399] inception_4c/output_inception_4c/output_0_split -> inception_4c/output_inception_4c/output_0_split_2
I0403 04:03:08.349195 21144 net.cpp:399] inception_4c/output_inception_4c/output_0_split -> inception_4c/output_inception_4c/output_0_split_3
I0403 04:03:08.349267 21144 net.cpp:141] Setting up inception_4c/output_inception_4c/output_0_split
I0403 04:03:08.349292 21144 net.cpp:148] Top shape: 24 512 14 14 (2408448)
I0403 04:03:08.349308 21144 net.cpp:148] Top shape: 24 512 14 14 (2408448)
I0403 04:03:08.349324 21144 net.cpp:148] Top shape: 24 512 14 14 (2408448)
I0403 04:03:08.349340 21144 net.cpp:148] Top shape: 24 512 14 14 (2408448)
I0403 04:03:08.349355 21144 net.cpp:156] Memory required for data: 1111171008
I0403 04:03:08.349370 21144 layer_factory.hpp:77] Creating layer inception_4d/1x1
I0403 04:03:08.349395 21144 net.cpp:91] Creating Layer inception_4d/1x1
I0403 04:03:08.349413 21144 net.cpp:425] inception_4d/1x1 <- inception_4c/output_inception_4c/output_0_split_0
I0403 04:03:08.349437 21144 net.cpp:399] inception_4d/1x1 -> inception_4d/1x1
I0403 04:03:08.349980 21144 net.cpp:141] Setting up inception_4d/1x1
I0403 04:03:08.350008 21144 net.cpp:148] Top shape: 24 112 14 14 (526848)
I0403 04:03:08.350023 21144 net.cpp:156] Memory required for data: 1113278400
I0403 04:03:08.350041 21144 layer_factory.hpp:77] Creating layer inception_4d/relu_1x1
I0403 04:03:08.350060 21144 net.cpp:91] Creating Layer inception_4d/relu_1x1
I0403 04:03:08.350076 21144 net.cpp:425] inception_4d/relu_1x1 <- inception_4d/1x1
I0403 04:03:08.350095 21144 net.cpp:386] inception_4d/relu_1x1 -> inception_4d/1x1 (in-place)
I0403 04:03:08.350114 21144 net.cpp:141] Setting up inception_4d/relu_1x1
I0403 04:03:08.350137 21144 net.cpp:148] Top shape: 24 112 14 14 (526848)
I0403 04:03:08.350153 21144 net.cpp:156] Memory required for data: 1115385792
I0403 04:03:08.350167 21144 layer_factory.hpp:77] Creating layer inception_4d/3x3_reduce
I0403 04:03:08.350189 21144 net.cpp:91] Creating Layer inception_4d/3x3_reduce
I0403 04:03:08.350206 21144 net.cpp:425] inception_4d/3x3_reduce <- inception_4c/output_inception_4c/output_0_split_1
I0403 04:03:08.350229 21144 net.cpp:399] inception_4d/3x3_reduce -> inception_4d/3x3_reduce
I0403 04:03:08.350878 21144 net.cpp:141] Setting up inception_4d/3x3_reduce
I0403 04:03:08.350905 21144 net.cpp:148] Top shape: 24 144 14 14 (677376)
I0403 04:03:08.350920 21144 net.cpp:156] Memory required for data: 1118095296
I0403 04:03:08.350952 21144 layer_factory.hpp:77] Creating layer inception_4d/relu_3x3_reduce
I0403 04:03:08.350972 21144 net.cpp:91] Creating Layer inception_4d/relu_3x3_reduce
I0403 04:03:08.350989 21144 net.cpp:425] inception_4d/relu_3x3_reduce <- inception_4d/3x3_reduce
I0403 04:03:08.351008 21144 net.cpp:386] inception_4d/relu_3x3_reduce -> inception_4d/3x3_reduce (in-place)
I0403 04:03:08.351028 21144 net.cpp:141] Setting up inception_4d/relu_3x3_reduce
I0403 04:03:08.351047 21144 net.cpp:148] Top shape: 24 144 14 14 (677376)
I0403 04:03:08.351063 21144 net.cpp:156] Memory required for data: 1120804800
I0403 04:03:08.351078 21144 layer_factory.hpp:77] Creating layer inception_4d/3x3
I0403 04:03:08.351101 21144 net.cpp:91] Creating Layer inception_4d/3x3
I0403 04:03:08.351119 21144 net.cpp:425] inception_4d/3x3 <- inception_4d/3x3_reduce
I0403 04:03:08.351143 21144 net.cpp:399] inception_4d/3x3 -> inception_4d/3x3
I0403 04:03:08.354472 21144 net.cpp:141] Setting up inception_4d/3x3
I0403 04:03:08.354502 21144 net.cpp:148] Top shape: 24 288 14 14 (1354752)
I0403 04:03:08.354519 21144 net.cpp:156] Memory required for data: 1126223808
I0403 04:03:08.354538 21144 layer_factory.hpp:77] Creating layer inception_4d/relu_3x3
I0403 04:03:08.354558 21144 net.cpp:91] Creating Layer inception_4d/relu_3x3
I0403 04:03:08.354576 21144 net.cpp:425] inception_4d/relu_3x3 <- inception_4d/3x3
I0403 04:03:08.354598 21144 net.cpp:386] inception_4d/relu_3x3 -> inception_4d/3x3 (in-place)
I0403 04:03:08.354619 21144 net.cpp:141] Setting up inception_4d/relu_3x3
I0403 04:03:08.354638 21144 net.cpp:148] Top shape: 24 288 14 14 (1354752)
I0403 04:03:08.354652 21144 net.cpp:156] Memory required for data: 1131642816
I0403 04:03:08.354668 21144 layer_factory.hpp:77] Creating layer inception_4d/5x5_reduce
I0403 04:03:08.354692 21144 net.cpp:91] Creating Layer inception_4d/5x5_reduce
I0403 04:03:08.354710 21144 net.cpp:425] inception_4d/5x5_reduce <- inception_4c/output_inception_4c/output_0_split_2
I0403 04:03:08.354732 21144 net.cpp:399] inception_4d/5x5_reduce -> inception_4d/5x5_reduce
I0403 04:03:08.355051 21144 net.cpp:141] Setting up inception_4d/5x5_reduce
I0403 04:03:08.355077 21144 net.cpp:148] Top shape: 24 32 14 14 (150528)
I0403 04:03:08.355093 21144 net.cpp:156] Memory required for data: 1132244928
I0403 04:03:08.355111 21144 layer_factory.hpp:77] Creating layer inception_4d/relu_5x5_reduce
I0403 04:03:08.355130 21144 net.cpp:91] Creating Layer inception_4d/relu_5x5_reduce
I0403 04:03:08.355149 21144 net.cpp:425] inception_4d/relu_5x5_reduce <- inception_4d/5x5_reduce
I0403 04:03:08.355170 21144 net.cpp:386] inception_4d/relu_5x5_reduce -> inception_4d/5x5_reduce (in-place)
I0403 04:03:08.355193 21144 net.cpp:141] Setting up inception_4d/relu_5x5_reduce
I0403 04:03:08.355212 21144 net.cpp:148] Top shape: 24 32 14 14 (150528)
I0403 04:03:08.355226 21144 net.cpp:156] Memory required for data: 1132847040
I0403 04:03:08.355242 21144 layer_factory.hpp:77] Creating layer inception_4d/5x5
I0403 04:03:08.355267 21144 net.cpp:91] Creating Layer inception_4d/5x5
I0403 04:03:08.355284 21144 net.cpp:425] inception_4d/5x5 <- inception_4d/5x5_reduce
I0403 04:03:08.355305 21144 net.cpp:399] inception_4d/5x5 -> inception_4d/5x5
I0403 04:03:08.355815 21144 net.cpp:141] Setting up inception_4d/5x5
I0403 04:03:08.355842 21144 net.cpp:148] Top shape: 24 64 14 14 (301056)
I0403 04:03:08.355859 21144 net.cpp:156] Memory required for data: 1134051264
I0403 04:03:08.355876 21144 layer_factory.hpp:77] Creating layer inception_4d/relu_5x5
I0403 04:03:08.355895 21144 net.cpp:91] Creating Layer inception_4d/relu_5x5
I0403 04:03:08.355912 21144 net.cpp:425] inception_4d/relu_5x5 <- inception_4d/5x5
I0403 04:03:08.355937 21144 net.cpp:386] inception_4d/relu_5x5 -> inception_4d/5x5 (in-place)
I0403 04:03:08.355959 21144 net.cpp:141] Setting up inception_4d/relu_5x5
I0403 04:03:08.355980 21144 net.cpp:148] Top shape: 24 64 14 14 (301056)
I0403 04:03:08.355996 21144 net.cpp:156] Memory required for data: 1135255488
I0403 04:03:08.356011 21144 layer_factory.hpp:77] Creating layer inception_4d/pool
I0403 04:03:08.356046 21144 net.cpp:91] Creating Layer inception_4d/pool
I0403 04:03:08.356065 21144 net.cpp:425] inception_4d/pool <- inception_4c/output_inception_4c/output_0_split_3
I0403 04:03:08.356087 21144 net.cpp:399] inception_4d/pool -> inception_4d/pool
I0403 04:03:08.356142 21144 net.cpp:141] Setting up inception_4d/pool
I0403 04:03:08.356168 21144 net.cpp:148] Top shape: 24 512 14 14 (2408448)
I0403 04:03:08.356184 21144 net.cpp:156] Memory required for data: 1144889280
I0403 04:03:08.356200 21144 layer_factory.hpp:77] Creating layer inception_4d/pool_proj
I0403 04:03:08.356225 21144 net.cpp:91] Creating Layer inception_4d/pool_proj
I0403 04:03:08.356245 21144 net.cpp:425] inception_4d/pool_proj <- inception_4d/pool
I0403 04:03:08.356266 21144 net.cpp:399] inception_4d/pool_proj -> inception_4d/pool_proj
I0403 04:03:08.357214 21144 net.cpp:141] Setting up inception_4d/pool_proj
I0403 04:03:08.357244 21144 net.cpp:148] Top shape: 24 64 14 14 (301056)
I0403 04:03:08.357260 21144 net.cpp:156] Memory required for data: 1146093504
I0403 04:03:08.357278 21144 layer_factory.hpp:77] Creating layer inception_4d/relu_pool_proj
I0403 04:03:08.357298 21144 net.cpp:91] Creating Layer inception_4d/relu_pool_proj
I0403 04:03:08.357316 21144 net.cpp:425] inception_4d/relu_pool_proj <- inception_4d/pool_proj
I0403 04:03:08.357336 21144 net.cpp:386] inception_4d/relu_pool_proj -> inception_4d/pool_proj (in-place)
I0403 04:03:08.357357 21144 net.cpp:141] Setting up inception_4d/relu_pool_proj
I0403 04:03:08.357375 21144 net.cpp:148] Top shape: 24 64 14 14 (301056)
I0403 04:03:08.357390 21144 net.cpp:156] Memory required for data: 1147297728
I0403 04:03:08.357405 21144 layer_factory.hpp:77] Creating layer inception_4d/output
I0403 04:03:08.357426 21144 net.cpp:91] Creating Layer inception_4d/output
I0403 04:03:08.357446 21144 net.cpp:425] inception_4d/output <- inception_4d/1x1
I0403 04:03:08.357470 21144 net.cpp:425] inception_4d/output <- inception_4d/3x3
I0403 04:03:08.357488 21144 net.cpp:425] inception_4d/output <- inception_4d/5x5
I0403 04:03:08.357506 21144 net.cpp:425] inception_4d/output <- inception_4d/pool_proj
I0403 04:03:08.357524 21144 net.cpp:399] inception_4d/output -> inception_4d/output
I0403 04:03:08.357566 21144 net.cpp:141] Setting up inception_4d/output
I0403 04:03:08.357590 21144 net.cpp:148] Top shape: 24 528 14 14 (2483712)
I0403 04:03:08.357606 21144 net.cpp:156] Memory required for data: 1157232576
I0403 04:03:08.357623 21144 layer_factory.hpp:77] Creating layer inception_4d/output_inception_4d/output_0_split
I0403 04:03:08.357642 21144 net.cpp:91] Creating Layer inception_4d/output_inception_4d/output_0_split
I0403 04:03:08.357661 21144 net.cpp:425] inception_4d/output_inception_4d/output_0_split <- inception_4d/output
I0403 04:03:08.357681 21144 net.cpp:399] inception_4d/output_inception_4d/output_0_split -> inception_4d/output_inception_4d/output_0_split_0
I0403 04:03:08.357705 21144 net.cpp:399] inception_4d/output_inception_4d/output_0_split -> inception_4d/output_inception_4d/output_0_split_1
I0403 04:03:08.357728 21144 net.cpp:399] inception_4d/output_inception_4d/output_0_split -> inception_4d/output_inception_4d/output_0_split_2
I0403 04:03:08.357750 21144 net.cpp:399] inception_4d/output_inception_4d/output_0_split -> inception_4d/output_inception_4d/output_0_split_3
I0403 04:03:08.357770 21144 net.cpp:399] inception_4d/output_inception_4d/output_0_split -> inception_4d/output_inception_4d/output_0_split_4
I0403 04:03:08.357851 21144 net.cpp:141] Setting up inception_4d/output_inception_4d/output_0_split
I0403 04:03:08.357877 21144 net.cpp:148] Top shape: 24 528 14 14 (2483712)
I0403 04:03:08.357895 21144 net.cpp:148] Top shape: 24 528 14 14 (2483712)
I0403 04:03:08.357925 21144 net.cpp:148] Top shape: 24 528 14 14 (2483712)
I0403 04:03:08.357942 21144 net.cpp:148] Top shape: 24 528 14 14 (2483712)
I0403 04:03:08.357959 21144 net.cpp:148] Top shape: 24 528 14 14 (2483712)
I0403 04:03:08.357975 21144 net.cpp:156] Memory required for data: 1206906816
I0403 04:03:08.358006 21144 layer_factory.hpp:77] Creating layer loss2/ave_pool
I0403 04:03:08.358026 21144 net.cpp:91] Creating Layer loss2/ave_pool
I0403 04:03:08.358044 21144 net.cpp:425] loss2/ave_pool <- inception_4d/output_inception_4d/output_0_split_0
I0403 04:03:08.358065 21144 net.cpp:399] loss2/ave_pool -> loss2/ave_pool
I0403 04:03:08.358108 21144 net.cpp:141] Setting up loss2/ave_pool
I0403 04:03:08.358132 21144 net.cpp:148] Top shape: 24 528 4 4 (202752)
I0403 04:03:08.358150 21144 net.cpp:156] Memory required for data: 1207717824
I0403 04:03:08.358165 21144 layer_factory.hpp:77] Creating layer loss2/conv
I0403 04:03:08.358193 21144 net.cpp:91] Creating Layer loss2/conv
I0403 04:03:08.358224 21144 net.cpp:425] loss2/conv <- loss2/ave_pool
I0403 04:03:08.358247 21144 net.cpp:399] loss2/conv -> loss2/conv
I0403 04:03:08.359388 21144 net.cpp:141] Setting up loss2/conv
I0403 04:03:08.359417 21144 net.cpp:148] Top shape: 24 128 4 4 (49152)
I0403 04:03:08.359434 21144 net.cpp:156] Memory required for data: 1207914432
I0403 04:03:08.359453 21144 layer_factory.hpp:77] Creating layer loss2/relu_conv
I0403 04:03:08.359483 21144 net.cpp:91] Creating Layer loss2/relu_conv
I0403 04:03:08.359504 21144 net.cpp:425] loss2/relu_conv <- loss2/conv
I0403 04:03:08.359524 21144 net.cpp:386] loss2/relu_conv -> loss2/conv (in-place)
I0403 04:03:08.359545 21144 net.cpp:141] Setting up loss2/relu_conv
I0403 04:03:08.359563 21144 net.cpp:148] Top shape: 24 128 4 4 (49152)
I0403 04:03:08.359580 21144 net.cpp:156] Memory required for data: 1208111040
I0403 04:03:08.359594 21144 layer_factory.hpp:77] Creating layer loss2/fc
I0403 04:03:08.359616 21144 net.cpp:91] Creating Layer loss2/fc
I0403 04:03:08.359635 21144 net.cpp:425] loss2/fc <- loss2/conv
I0403 04:03:08.359655 21144 net.cpp:399] loss2/fc -> loss2/fc
I0403 04:03:08.375861 21144 net.cpp:141] Setting up loss2/fc
I0403 04:03:08.375896 21144 net.cpp:148] Top shape: 24 1024 (24576)
I0403 04:03:08.375915 21144 net.cpp:156] Memory required for data: 1208209344
I0403 04:03:08.375934 21144 layer_factory.hpp:77] Creating layer loss2/relu_fc
I0403 04:03:08.375957 21144 net.cpp:91] Creating Layer loss2/relu_fc
I0403 04:03:08.375975 21144 net.cpp:425] loss2/relu_fc <- loss2/fc
I0403 04:03:08.375995 21144 net.cpp:386] loss2/relu_fc -> loss2/fc (in-place)
I0403 04:03:08.376016 21144 net.cpp:141] Setting up loss2/relu_fc
I0403 04:03:08.376035 21144 net.cpp:148] Top shape: 24 1024 (24576)
I0403 04:03:08.376050 21144 net.cpp:156] Memory required for data: 1208307648
I0403 04:03:08.376067 21144 layer_factory.hpp:77] Creating layer loss2/drop_fc
I0403 04:03:08.376090 21144 net.cpp:91] Creating Layer loss2/drop_fc
I0403 04:03:08.376107 21144 net.cpp:425] loss2/drop_fc <- loss2/fc
I0403 04:03:08.376127 21144 net.cpp:386] loss2/drop_fc -> loss2/fc (in-place)
I0403 04:03:08.376166 21144 net.cpp:141] Setting up loss2/drop_fc
I0403 04:03:08.376194 21144 net.cpp:148] Top shape: 24 1024 (24576)
I0403 04:03:08.376211 21144 net.cpp:156] Memory required for data: 1208405952
I0403 04:03:08.376227 21144 layer_factory.hpp:77] Creating layer loss2/classifier_plantvillage
I0403 04:03:08.376247 21144 net.cpp:91] Creating Layer loss2/classifier_plantvillage
I0403 04:03:08.376266 21144 net.cpp:425] loss2/classifier_plantvillage <- loss2/fc
I0403 04:03:08.376288 21144 net.cpp:399] loss2/classifier_plantvillage -> loss2/classifier_plantvillage
I0403 04:03:08.376632 21144 net.cpp:141] Setting up loss2/classifier_plantvillage
I0403 04:03:08.376659 21144 net.cpp:148] Top shape: 24 38 (912)
I0403 04:03:08.376674 21144 net.cpp:156] Memory required for data: 1208409600
I0403 04:03:08.376691 21144 layer_factory.hpp:77] Creating layer inception_4e/1x1
I0403 04:03:08.376714 21144 net.cpp:91] Creating Layer inception_4e/1x1
I0403 04:03:08.376732 21144 net.cpp:425] inception_4e/1x1 <- inception_4d/output_inception_4d/output_0_split_1
I0403 04:03:08.376755 21144 net.cpp:399] inception_4e/1x1 -> inception_4e/1x1
I0403 04:03:08.377707 21144 net.cpp:141] Setting up inception_4e/1x1
I0403 04:03:08.377734 21144 net.cpp:148] Top shape: 24 256 14 14 (1204224)
I0403 04:03:08.377764 21144 net.cpp:156] Memory required for data: 1213226496
I0403 04:03:08.377784 21144 layer_factory.hpp:77] Creating layer inception_4e/relu_1x1
I0403 04:03:08.377804 21144 net.cpp:91] Creating Layer inception_4e/relu_1x1
I0403 04:03:08.377820 21144 net.cpp:425] inception_4e/relu_1x1 <- inception_4e/1x1
I0403 04:03:08.377838 21144 net.cpp:386] inception_4e/relu_1x1 -> inception_4e/1x1 (in-place)
I0403 04:03:08.377858 21144 net.cpp:141] Setting up inception_4e/relu_1x1
I0403 04:03:08.377876 21144 net.cpp:148] Top shape: 24 256 14 14 (1204224)
I0403 04:03:08.377890 21144 net.cpp:156] Memory required for data: 1218043392
I0403 04:03:08.377904 21144 layer_factory.hpp:77] Creating layer inception_4e/3x3_reduce
I0403 04:03:08.377931 21144 net.cpp:91] Creating Layer inception_4e/3x3_reduce
I0403 04:03:08.377949 21144 net.cpp:425] inception_4e/3x3_reduce <- inception_4d/output_inception_4d/output_0_split_2
I0403 04:03:08.377971 21144 net.cpp:399] inception_4e/3x3_reduce -> inception_4e/3x3_reduce
I0403 04:03:08.379178 21144 net.cpp:141] Setting up inception_4e/3x3_reduce
I0403 04:03:08.379210 21144 net.cpp:148] Top shape: 24 160 14 14 (752640)
I0403 04:03:08.379227 21144 net.cpp:156] Memory required for data: 1221053952
I0403 04:03:08.379248 21144 layer_factory.hpp:77] Creating layer inception_4e/relu_3x3_reduce
I0403 04:03:08.379266 21144 net.cpp:91] Creating Layer inception_4e/relu_3x3_reduce
I0403 04:03:08.379286 21144 net.cpp:425] inception_4e/relu_3x3_reduce <- inception_4e/3x3_reduce
I0403 04:03:08.379303 21144 net.cpp:386] inception_4e/relu_3x3_reduce -> inception_4e/3x3_reduce (in-place)
I0403 04:03:08.379323 21144 net.cpp:141] Setting up inception_4e/relu_3x3_reduce
I0403 04:03:08.379340 21144 net.cpp:148] Top shape: 24 160 14 14 (752640)
I0403 04:03:08.379354 21144 net.cpp:156] Memory required for data: 1224064512
I0403 04:03:08.379369 21144 layer_factory.hpp:77] Creating layer inception_4e/3x3
I0403 04:03:08.379392 21144 net.cpp:91] Creating Layer inception_4e/3x3
I0403 04:03:08.379410 21144 net.cpp:425] inception_4e/3x3 <- inception_4e/3x3_reduce
I0403 04:03:08.379431 21144 net.cpp:399] inception_4e/3x3 -> inception_4e/3x3
I0403 04:03:08.383229 21144 net.cpp:141] Setting up inception_4e/3x3
I0403 04:03:08.383256 21144 net.cpp:148] Top shape: 24 320 14 14 (1505280)
I0403 04:03:08.383273 21144 net.cpp:156] Memory required for data: 1230085632
I0403 04:03:08.383292 21144 layer_factory.hpp:77] Creating layer inception_4e/relu_3x3
I0403 04:03:08.383311 21144 net.cpp:91] Creating Layer inception_4e/relu_3x3
I0403 04:03:08.383327 21144 net.cpp:425] inception_4e/relu_3x3 <- inception_4e/3x3
I0403 04:03:08.383348 21144 net.cpp:386] inception_4e/relu_3x3 -> inception_4e/3x3 (in-place)
I0403 04:03:08.383369 21144 net.cpp:141] Setting up inception_4e/relu_3x3
I0403 04:03:08.383388 21144 net.cpp:148] Top shape: 24 320 14 14 (1505280)
I0403 04:03:08.383404 21144 net.cpp:156] Memory required for data: 1236106752
I0403 04:03:08.383417 21144 layer_factory.hpp:77] Creating layer inception_4e/5x5_reduce
I0403 04:03:08.383438 21144 net.cpp:91] Creating Layer inception_4e/5x5_reduce
I0403 04:03:08.383456 21144 net.cpp:425] inception_4e/5x5_reduce <- inception_4d/output_inception_4d/output_0_split_3
I0403 04:03:08.383484 21144 net.cpp:399] inception_4e/5x5_reduce -> inception_4e/5x5_reduce
I0403 04:03:08.383801 21144 net.cpp:141] Setting up inception_4e/5x5_reduce
I0403 04:03:08.383827 21144 net.cpp:148] Top shape: 24 32 14 14 (150528)
I0403 04:03:08.383843 21144 net.cpp:156] Memory required for data: 1236708864
I0403 04:03:08.383862 21144 layer_factory.hpp:77] Creating layer inception_4e/relu_5x5_reduce
I0403 04:03:08.383879 21144 net.cpp:91] Creating Layer inception_4e/relu_5x5_reduce
I0403 04:03:08.383896 21144 net.cpp:425] inception_4e/relu_5x5_reduce <- inception_4e/5x5_reduce
I0403 04:03:08.383916 21144 net.cpp:386] inception_4e/relu_5x5_reduce -> inception_4e/5x5_reduce (in-place)
I0403 04:03:08.383939 21144 net.cpp:141] Setting up inception_4e/relu_5x5_reduce
I0403 04:03:08.383956 21144 net.cpp:148] Top shape: 24 32 14 14 (150528)
I0403 04:03:08.383986 21144 net.cpp:156] Memory required for data: 1237310976
I0403 04:03:08.384001 21144 layer_factory.hpp:77] Creating layer inception_4e/5x5
I0403 04:03:08.384027 21144 net.cpp:91] Creating Layer inception_4e/5x5
I0403 04:03:08.384045 21144 net.cpp:425] inception_4e/5x5 <- inception_4e/5x5_reduce
I0403 04:03:08.384066 21144 net.cpp:399] inception_4e/5x5 -> inception_4e/5x5
I0403 04:03:08.384842 21144 net.cpp:141] Setting up inception_4e/5x5
I0403 04:03:08.384868 21144 net.cpp:148] Top shape: 24 128 14 14 (602112)
I0403 04:03:08.384883 21144 net.cpp:156] Memory required for data: 1239719424
I0403 04:03:08.384902 21144 layer_factory.hpp:77] Creating layer inception_4e/relu_5x5
I0403 04:03:08.384919 21144 net.cpp:91] Creating Layer inception_4e/relu_5x5
I0403 04:03:08.384937 21144 net.cpp:425] inception_4e/relu_5x5 <- inception_4e/5x5
I0403 04:03:08.384955 21144 net.cpp:386] inception_4e/relu_5x5 -> inception_4e/5x5 (in-place)
I0403 04:03:08.384975 21144 net.cpp:141] Setting up inception_4e/relu_5x5
I0403 04:03:08.384992 21144 net.cpp:148] Top shape: 24 128 14 14 (602112)
I0403 04:03:08.385006 21144 net.cpp:156] Memory required for data: 1242127872
I0403 04:03:08.385020 21144 layer_factory.hpp:77] Creating layer inception_4e/pool
I0403 04:03:08.385061 21144 net.cpp:91] Creating Layer inception_4e/pool
I0403 04:03:08.385081 21144 net.cpp:425] inception_4e/pool <- inception_4d/output_inception_4d/output_0_split_4
I0403 04:03:08.385099 21144 net.cpp:399] inception_4e/pool -> inception_4e/pool
I0403 04:03:08.385151 21144 net.cpp:141] Setting up inception_4e/pool
I0403 04:03:08.385174 21144 net.cpp:148] Top shape: 24 528 14 14 (2483712)
I0403 04:03:08.385190 21144 net.cpp:156] Memory required for data: 1252062720
I0403 04:03:08.385206 21144 layer_factory.hpp:77] Creating layer inception_4e/pool_proj
I0403 04:03:08.385229 21144 net.cpp:91] Creating Layer inception_4e/pool_proj
I0403 04:03:08.385247 21144 net.cpp:425] inception_4e/pool_proj <- inception_4e/pool
I0403 04:03:08.385269 21144 net.cpp:399] inception_4e/pool_proj -> inception_4e/pool_proj
I0403 04:03:08.385849 21144 net.cpp:141] Setting up inception_4e/pool_proj
I0403 04:03:08.385875 21144 net.cpp:148] Top shape: 24 128 14 14 (602112)
I0403 04:03:08.385890 21144 net.cpp:156] Memory required for data: 1254471168
I0403 04:03:08.385907 21144 layer_factory.hpp:77] Creating layer inception_4e/relu_pool_proj
I0403 04:03:08.385926 21144 net.cpp:91] Creating Layer inception_4e/relu_pool_proj
I0403 04:03:08.385943 21144 net.cpp:425] inception_4e/relu_pool_proj <- inception_4e/pool_proj
I0403 04:03:08.385962 21144 net.cpp:386] inception_4e/relu_pool_proj -> inception_4e/pool_proj (in-place)
I0403 04:03:08.385980 21144 net.cpp:141] Setting up inception_4e/relu_pool_proj
I0403 04:03:08.385998 21144 net.cpp:148] Top shape: 24 128 14 14 (602112)
I0403 04:03:08.386013 21144 net.cpp:156] Memory required for data: 1256879616
I0403 04:03:08.386028 21144 layer_factory.hpp:77] Creating layer inception_4e/output
I0403 04:03:08.386045 21144 net.cpp:91] Creating Layer inception_4e/output
I0403 04:03:08.386061 21144 net.cpp:425] inception_4e/output <- inception_4e/1x1
I0403 04:03:08.386077 21144 net.cpp:425] inception_4e/output <- inception_4e/3x3
I0403 04:03:08.386096 21144 net.cpp:425] inception_4e/output <- inception_4e/5x5
I0403 04:03:08.386111 21144 net.cpp:425] inception_4e/output <- inception_4e/pool_proj
I0403 04:03:08.386132 21144 net.cpp:399] inception_4e/output -> inception_4e/output
I0403 04:03:08.386171 21144 net.cpp:141] Setting up inception_4e/output
I0403 04:03:08.386198 21144 net.cpp:148] Top shape: 24 832 14 14 (3913728)
I0403 04:03:08.386214 21144 net.cpp:156] Memory required for data: 1272534528
I0403 04:03:08.386227 21144 layer_factory.hpp:77] Creating layer pool4/3x3_s2
I0403 04:03:08.386245 21144 net.cpp:91] Creating Layer pool4/3x3_s2
I0403 04:03:08.386262 21144 net.cpp:425] pool4/3x3_s2 <- inception_4e/output
I0403 04:03:08.386282 21144 net.cpp:399] pool4/3x3_s2 -> pool4/3x3_s2
I0403 04:03:08.386333 21144 net.cpp:141] Setting up pool4/3x3_s2
I0403 04:03:08.386368 21144 net.cpp:148] Top shape: 24 832 7 7 (978432)
I0403 04:03:08.386384 21144 net.cpp:156] Memory required for data: 1276448256
I0403 04:03:08.386397 21144 layer_factory.hpp:77] Creating layer pool4/3x3_s2_pool4/3x3_s2_0_split
I0403 04:03:08.386416 21144 net.cpp:91] Creating Layer pool4/3x3_s2_pool4/3x3_s2_0_split
I0403 04:03:08.386432 21144 net.cpp:425] pool4/3x3_s2_pool4/3x3_s2_0_split <- pool4/3x3_s2
I0403 04:03:08.386452 21144 net.cpp:399] pool4/3x3_s2_pool4/3x3_s2_0_split -> pool4/3x3_s2_pool4/3x3_s2_0_split_0
I0403 04:03:08.386478 21144 net.cpp:399] pool4/3x3_s2_pool4/3x3_s2_0_split -> pool4/3x3_s2_pool4/3x3_s2_0_split_1
I0403 04:03:08.386500 21144 net.cpp:399] pool4/3x3_s2_pool4/3x3_s2_0_split -> pool4/3x3_s2_pool4/3x3_s2_0_split_2
I0403 04:03:08.386523 21144 net.cpp:399] pool4/3x3_s2_pool4/3x3_s2_0_split -> pool4/3x3_s2_pool4/3x3_s2_0_split_3
I0403 04:03:08.386595 21144 net.cpp:141] Setting up pool4/3x3_s2_pool4/3x3_s2_0_split
I0403 04:03:08.386618 21144 net.cpp:148] Top shape: 24 832 7 7 (978432)
I0403 04:03:08.386634 21144 net.cpp:148] Top shape: 24 832 7 7 (978432)
I0403 04:03:08.386649 21144 net.cpp:148] Top shape: 24 832 7 7 (978432)
I0403 04:03:08.386664 21144 net.cpp:148] Top shape: 24 832 7 7 (978432)
I0403 04:03:08.386678 21144 net.cpp:156] Memory required for data: 1292103168
I0403 04:03:08.386693 21144 layer_factory.hpp:77] Creating layer inception_5a/1x1
I0403 04:03:08.386716 21144 net.cpp:91] Creating Layer inception_5a/1x1
I0403 04:03:08.386734 21144 net.cpp:425] inception_5a/1x1 <- pool4/3x3_s2_pool4/3x3_s2_0_split_0
I0403 04:03:08.386754 21144 net.cpp:399] inception_5a/1x1 -> inception_5a/1x1
I0403 04:03:08.388662 21144 net.cpp:141] Setting up inception_5a/1x1
I0403 04:03:08.388691 21144 net.cpp:148] Top shape: 24 256 7 7 (301056)
I0403 04:03:08.388706 21144 net.cpp:156] Memory required for data: 1293307392
I0403 04:03:08.388725 21144 layer_factory.hpp:77] Creating layer inception_5a/relu_1x1
I0403 04:03:08.388743 21144 net.cpp:91] Creating Layer inception_5a/relu_1x1
I0403 04:03:08.388761 21144 net.cpp:425] inception_5a/relu_1x1 <- inception_5a/1x1
I0403 04:03:08.388780 21144 net.cpp:386] inception_5a/relu_1x1 -> inception_5a/1x1 (in-place)
I0403 04:03:08.388802 21144 net.cpp:141] Setting up inception_5a/relu_1x1
I0403 04:03:08.388818 21144 net.cpp:148] Top shape: 24 256 7 7 (301056)
I0403 04:03:08.388833 21144 net.cpp:156] Memory required for data: 1294511616
I0403 04:03:08.388849 21144 layer_factory.hpp:77] Creating layer inception_5a/3x3_reduce
I0403 04:03:08.388875 21144 net.cpp:91] Creating Layer inception_5a/3x3_reduce
I0403 04:03:08.388892 21144 net.cpp:425] inception_5a/3x3_reduce <- pool4/3x3_s2_pool4/3x3_s2_0_split_1
I0403 04:03:08.388913 21144 net.cpp:399] inception_5a/3x3_reduce -> inception_5a/3x3_reduce
I0403 04:03:08.390388 21144 net.cpp:141] Setting up inception_5a/3x3_reduce
I0403 04:03:08.390416 21144 net.cpp:148] Top shape: 24 160 7 7 (188160)
I0403 04:03:08.390431 21144 net.cpp:156] Memory required for data: 1295264256
I0403 04:03:08.390450 21144 layer_factory.hpp:77] Creating layer inception_5a/relu_3x3_reduce
I0403 04:03:08.390472 21144 net.cpp:91] Creating Layer inception_5a/relu_3x3_reduce
I0403 04:03:08.390491 21144 net.cpp:425] inception_5a/relu_3x3_reduce <- inception_5a/3x3_reduce
I0403 04:03:08.390509 21144 net.cpp:386] inception_5a/relu_3x3_reduce -> inception_5a/3x3_reduce (in-place)
I0403 04:03:08.390532 21144 net.cpp:141] Setting up inception_5a/relu_3x3_reduce
I0403 04:03:08.390552 21144 net.cpp:148] Top shape: 24 160 7 7 (188160)
I0403 04:03:08.390565 21144 net.cpp:156] Memory required for data: 1296016896
I0403 04:03:08.390580 21144 layer_factory.hpp:77] Creating layer inception_5a/3x3
I0403 04:03:08.390604 21144 net.cpp:91] Creating Layer inception_5a/3x3
I0403 04:03:08.390624 21144 net.cpp:425] inception_5a/3x3 <- inception_5a/3x3_reduce
I0403 04:03:08.390642 21144 net.cpp:399] inception_5a/3x3 -> inception_5a/3x3
I0403 04:03:08.394407 21144 net.cpp:141] Setting up inception_5a/3x3
I0403 04:03:08.394448 21144 net.cpp:148] Top shape: 24 320 7 7 (376320)
I0403 04:03:08.394467 21144 net.cpp:156] Memory required for data: 1297522176
I0403 04:03:08.394487 21144 layer_factory.hpp:77] Creating layer inception_5a/relu_3x3
I0403 04:03:08.394505 21144 net.cpp:91] Creating Layer inception_5a/relu_3x3
I0403 04:03:08.394522 21144 net.cpp:425] inception_5a/relu_3x3 <- inception_5a/3x3
I0403 04:03:08.394541 21144 net.cpp:386] inception_5a/relu_3x3 -> inception_5a/3x3 (in-place)
I0403 04:03:08.394562 21144 net.cpp:141] Setting up inception_5a/relu_3x3
I0403 04:03:08.394578 21144 net.cpp:148] Top shape: 24 320 7 7 (376320)
I0403 04:03:08.394593 21144 net.cpp:156] Memory required for data: 1299027456
I0403 04:03:08.394606 21144 layer_factory.hpp:77] Creating layer inception_5a/5x5_reduce
I0403 04:03:08.394629 21144 net.cpp:91] Creating Layer inception_5a/5x5_reduce
I0403 04:03:08.394649 21144 net.cpp:425] inception_5a/5x5_reduce <- pool4/3x3_s2_pool4/3x3_s2_0_split_2
I0403 04:03:08.394670 21144 net.cpp:399] inception_5a/5x5_reduce -> inception_5a/5x5_reduce
I0403 04:03:08.395045 21144 net.cpp:141] Setting up inception_5a/5x5_reduce
I0403 04:03:08.395071 21144 net.cpp:148] Top shape: 24 32 7 7 (37632)
I0403 04:03:08.395086 21144 net.cpp:156] Memory required for data: 1299177984
I0403 04:03:08.395103 21144 layer_factory.hpp:77] Creating layer inception_5a/relu_5x5_reduce
I0403 04:03:08.395122 21144 net.cpp:91] Creating Layer inception_5a/relu_5x5_reduce
I0403 04:03:08.395139 21144 net.cpp:425] inception_5a/relu_5x5_reduce <- inception_5a/5x5_reduce
I0403 04:03:08.395158 21144 net.cpp:386] inception_5a/relu_5x5_reduce -> inception_5a/5x5_reduce (in-place)
I0403 04:03:08.395181 21144 net.cpp:141] Setting up inception_5a/relu_5x5_reduce
I0403 04:03:08.395198 21144 net.cpp:148] Top shape: 24 32 7 7 (37632)
I0403 04:03:08.395213 21144 net.cpp:156] Memory required for data: 1299328512
I0403 04:03:08.395227 21144 layer_factory.hpp:77] Creating layer inception_5a/5x5
I0403 04:03:08.395248 21144 net.cpp:91] Creating Layer inception_5a/5x5
I0403 04:03:08.395265 21144 net.cpp:425] inception_5a/5x5 <- inception_5a/5x5_reduce
I0403 04:03:08.395289 21144 net.cpp:399] inception_5a/5x5 -> inception_5a/5x5
I0403 04:03:08.396064 21144 net.cpp:141] Setting up inception_5a/5x5
I0403 04:03:08.396090 21144 net.cpp:148] Top shape: 24 128 7 7 (150528)
I0403 04:03:08.396103 21144 net.cpp:156] Memory required for data: 1299930624
I0403 04:03:08.396121 21144 layer_factory.hpp:77] Creating layer inception_5a/relu_5x5
I0403 04:03:08.396141 21144 net.cpp:91] Creating Layer inception_5a/relu_5x5
I0403 04:03:08.396157 21144 net.cpp:425] inception_5a/relu_5x5 <- inception_5a/5x5
I0403 04:03:08.396174 21144 net.cpp:386] inception_5a/relu_5x5 -> inception_5a/5x5 (in-place)
I0403 04:03:08.396194 21144 net.cpp:141] Setting up inception_5a/relu_5x5
I0403 04:03:08.396211 21144 net.cpp:148] Top shape: 24 128 7 7 (150528)
I0403 04:03:08.396226 21144 net.cpp:156] Memory required for data: 1300532736
I0403 04:03:08.396240 21144 layer_factory.hpp:77] Creating layer inception_5a/pool
I0403 04:03:08.396260 21144 net.cpp:91] Creating Layer inception_5a/pool
I0403 04:03:08.396278 21144 net.cpp:425] inception_5a/pool <- pool4/3x3_s2_pool4/3x3_s2_0_split_3
I0403 04:03:08.396297 21144 net.cpp:399] inception_5a/pool -> inception_5a/pool
I0403 04:03:08.396349 21144 net.cpp:141] Setting up inception_5a/pool
I0403 04:03:08.396373 21144 net.cpp:148] Top shape: 24 832 7 7 (978432)
I0403 04:03:08.396387 21144 net.cpp:156] Memory required for data: 1304446464
I0403 04:03:08.396402 21144 layer_factory.hpp:77] Creating layer inception_5a/pool_proj
I0403 04:03:08.396430 21144 net.cpp:91] Creating Layer inception_5a/pool_proj
I0403 04:03:08.396450 21144 net.cpp:425] inception_5a/pool_proj <- inception_5a/pool
I0403 04:03:08.396474 21144 net.cpp:399] inception_5a/pool_proj -> inception_5a/pool_proj
I0403 04:03:08.397804 21144 net.cpp:141] Setting up inception_5a/pool_proj
I0403 04:03:08.397832 21144 net.cpp:148] Top shape: 24 128 7 7 (150528)
I0403 04:03:08.397848 21144 net.cpp:156] Memory required for data: 1305048576
I0403 04:03:08.397881 21144 layer_factory.hpp:77] Creating layer inception_5a/relu_pool_proj
I0403 04:03:08.397900 21144 net.cpp:91] Creating Layer inception_5a/relu_pool_proj
I0403 04:03:08.397917 21144 net.cpp:425] inception_5a/relu_pool_proj <- inception_5a/pool_proj
I0403 04:03:08.397935 21144 net.cpp:386] inception_5a/relu_pool_proj -> inception_5a/pool_proj (in-place)
I0403 04:03:08.397956 21144 net.cpp:141] Setting up inception_5a/relu_pool_proj
I0403 04:03:08.397974 21144 net.cpp:148] Top shape: 24 128 7 7 (150528)
I0403 04:03:08.397989 21144 net.cpp:156] Memory required for data: 1305650688
I0403 04:03:08.398003 21144 layer_factory.hpp:77] Creating layer inception_5a/output
I0403 04:03:08.398023 21144 net.cpp:91] Creating Layer inception_5a/output
I0403 04:03:08.398041 21144 net.cpp:425] inception_5a/output <- inception_5a/1x1
I0403 04:03:08.398058 21144 net.cpp:425] inception_5a/output <- inception_5a/3x3
I0403 04:03:08.398074 21144 net.cpp:425] inception_5a/output <- inception_5a/5x5
I0403 04:03:08.398090 21144 net.cpp:425] inception_5a/output <- inception_5a/pool_proj
I0403 04:03:08.398108 21144 net.cpp:399] inception_5a/output -> inception_5a/output
I0403 04:03:08.398149 21144 net.cpp:141] Setting up inception_5a/output
I0403 04:03:08.398172 21144 net.cpp:148] Top shape: 24 832 7 7 (978432)
I0403 04:03:08.398190 21144 net.cpp:156] Memory required for data: 1309564416
I0403 04:03:08.398203 21144 layer_factory.hpp:77] Creating layer inception_5a/output_inception_5a/output_0_split
I0403 04:03:08.398222 21144 net.cpp:91] Creating Layer inception_5a/output_inception_5a/output_0_split
I0403 04:03:08.398238 21144 net.cpp:425] inception_5a/output_inception_5a/output_0_split <- inception_5a/output
I0403 04:03:08.398259 21144 net.cpp:399] inception_5a/output_inception_5a/output_0_split -> inception_5a/output_inception_5a/output_0_split_0
I0403 04:03:08.398282 21144 net.cpp:399] inception_5a/output_inception_5a/output_0_split -> inception_5a/output_inception_5a/output_0_split_1
I0403 04:03:08.398303 21144 net.cpp:399] inception_5a/output_inception_5a/output_0_split -> inception_5a/output_inception_5a/output_0_split_2
I0403 04:03:08.398324 21144 net.cpp:399] inception_5a/output_inception_5a/output_0_split -> inception_5a/output_inception_5a/output_0_split_3
I0403 04:03:08.398394 21144 net.cpp:141] Setting up inception_5a/output_inception_5a/output_0_split
I0403 04:03:08.398419 21144 net.cpp:148] Top shape: 24 832 7 7 (978432)
I0403 04:03:08.398437 21144 net.cpp:148] Top shape: 24 832 7 7 (978432)
I0403 04:03:08.398452 21144 net.cpp:148] Top shape: 24 832 7 7 (978432)
I0403 04:03:08.398473 21144 net.cpp:148] Top shape: 24 832 7 7 (978432)
I0403 04:03:08.398488 21144 net.cpp:156] Memory required for data: 1325219328
I0403 04:03:08.398502 21144 layer_factory.hpp:77] Creating layer inception_5b/1x1
I0403 04:03:08.398525 21144 net.cpp:91] Creating Layer inception_5b/1x1
I0403 04:03:08.398545 21144 net.cpp:425] inception_5b/1x1 <- inception_5a/output_inception_5a/output_0_split_0
I0403 04:03:08.398564 21144 net.cpp:399] inception_5b/1x1 -> inception_5b/1x1
I0403 04:03:08.401183 21144 net.cpp:141] Setting up inception_5b/1x1
I0403 04:03:08.401211 21144 net.cpp:148] Top shape: 24 384 7 7 (451584)
I0403 04:03:08.401227 21144 net.cpp:156] Memory required for data: 1327025664
I0403 04:03:08.401244 21144 layer_factory.hpp:77] Creating layer inception_5b/relu_1x1
I0403 04:03:08.401263 21144 net.cpp:91] Creating Layer inception_5b/relu_1x1
I0403 04:03:08.401279 21144 net.cpp:425] inception_5b/relu_1x1 <- inception_5b/1x1
I0403 04:03:08.401299 21144 net.cpp:386] inception_5b/relu_1x1 -> inception_5b/1x1 (in-place)
I0403 04:03:08.401320 21144 net.cpp:141] Setting up inception_5b/relu_1x1
I0403 04:03:08.401338 21144 net.cpp:148] Top shape: 24 384 7 7 (451584)
I0403 04:03:08.401352 21144 net.cpp:156] Memory required for data: 1328832000
I0403 04:03:08.401367 21144 layer_factory.hpp:77] Creating layer inception_5b/3x3_reduce
I0403 04:03:08.401394 21144 net.cpp:91] Creating Layer inception_5b/3x3_reduce
I0403 04:03:08.401423 21144 net.cpp:425] inception_5b/3x3_reduce <- inception_5a/output_inception_5a/output_0_split_1
I0403 04:03:08.401444 21144 net.cpp:399] inception_5b/3x3_reduce -> inception_5b/3x3_reduce
I0403 04:03:08.403079 21144 net.cpp:141] Setting up inception_5b/3x3_reduce
I0403 04:03:08.403107 21144 net.cpp:148] Top shape: 24 192 7 7 (225792)
I0403 04:03:08.403123 21144 net.cpp:156] Memory required for data: 1329735168
I0403 04:03:08.403141 21144 layer_factory.hpp:77] Creating layer inception_5b/relu_3x3_reduce
I0403 04:03:08.403159 21144 net.cpp:91] Creating Layer inception_5b/relu_3x3_reduce
I0403 04:03:08.403175 21144 net.cpp:425] inception_5b/relu_3x3_reduce <- inception_5b/3x3_reduce
I0403 04:03:08.403193 21144 net.cpp:386] inception_5b/relu_3x3_reduce -> inception_5b/3x3_reduce (in-place)
I0403 04:03:08.403213 21144 net.cpp:141] Setting up inception_5b/relu_3x3_reduce
I0403 04:03:08.403230 21144 net.cpp:148] Top shape: 24 192 7 7 (225792)
I0403 04:03:08.403244 21144 net.cpp:156] Memory required for data: 1330638336
I0403 04:03:08.403259 21144 layer_factory.hpp:77] Creating layer inception_5b/3x3
I0403 04:03:08.403282 21144 net.cpp:91] Creating Layer inception_5b/3x3
I0403 04:03:08.403301 21144 net.cpp:425] inception_5b/3x3 <- inception_5b/3x3_reduce
I0403 04:03:08.403321 21144 net.cpp:399] inception_5b/3x3 -> inception_5b/3x3
I0403 04:03:08.408553 21144 net.cpp:141] Setting up inception_5b/3x3
I0403 04:03:08.408582 21144 net.cpp:148] Top shape: 24 384 7 7 (451584)
I0403 04:03:08.408598 21144 net.cpp:156] Memory required for data: 1332444672
I0403 04:03:08.408617 21144 layer_factory.hpp:77] Creating layer inception_5b/relu_3x3
I0403 04:03:08.408635 21144 net.cpp:91] Creating Layer inception_5b/relu_3x3
I0403 04:03:08.408653 21144 net.cpp:425] inception_5b/relu_3x3 <- inception_5b/3x3
I0403 04:03:08.408671 21144 net.cpp:386] inception_5b/relu_3x3 -> inception_5b/3x3 (in-place)
I0403 04:03:08.408690 21144 net.cpp:141] Setting up inception_5b/relu_3x3
I0403 04:03:08.408709 21144 net.cpp:148] Top shape: 24 384 7 7 (451584)
I0403 04:03:08.408722 21144 net.cpp:156] Memory required for data: 1334251008
I0403 04:03:08.408736 21144 layer_factory.hpp:77] Creating layer inception_5b/5x5_reduce
I0403 04:03:08.408759 21144 net.cpp:91] Creating Layer inception_5b/5x5_reduce
I0403 04:03:08.408776 21144 net.cpp:425] inception_5b/5x5_reduce <- inception_5a/output_inception_5a/output_0_split_2
I0403 04:03:08.408799 21144 net.cpp:399] inception_5b/5x5_reduce -> inception_5b/5x5_reduce
I0403 04:03:08.409253 21144 net.cpp:141] Setting up inception_5b/5x5_reduce
I0403 04:03:08.409278 21144 net.cpp:148] Top shape: 24 48 7 7 (56448)
I0403 04:03:08.409293 21144 net.cpp:156] Memory required for data: 1334476800
I0403 04:03:08.409312 21144 layer_factory.hpp:77] Creating layer inception_5b/relu_5x5_reduce
I0403 04:03:08.409334 21144 net.cpp:91] Creating Layer inception_5b/relu_5x5_reduce
I0403 04:03:08.409353 21144 net.cpp:425] inception_5b/relu_5x5_reduce <- inception_5b/5x5_reduce
I0403 04:03:08.409370 21144 net.cpp:386] inception_5b/relu_5x5_reduce -> inception_5b/5x5_reduce (in-place)
I0403 04:03:08.409389 21144 net.cpp:141] Setting up inception_5b/relu_5x5_reduce
I0403 04:03:08.409406 21144 net.cpp:148] Top shape: 24 48 7 7 (56448)
I0403 04:03:08.409421 21144 net.cpp:156] Memory required for data: 1334702592
I0403 04:03:08.409435 21144 layer_factory.hpp:77] Creating layer inception_5b/5x5
I0403 04:03:08.409461 21144 net.cpp:91] Creating Layer inception_5b/5x5
I0403 04:03:08.409481 21144 net.cpp:425] inception_5b/5x5 <- inception_5b/5x5_reduce
I0403 04:03:08.409504 21144 net.cpp:399] inception_5b/5x5 -> inception_5b/5x5
I0403 04:03:08.410573 21144 net.cpp:141] Setting up inception_5b/5x5
I0403 04:03:08.410599 21144 net.cpp:148] Top shape: 24 128 7 7 (150528)
I0403 04:03:08.410614 21144 net.cpp:156] Memory required for data: 1335304704
I0403 04:03:08.410632 21144 layer_factory.hpp:77] Creating layer inception_5b/relu_5x5
I0403 04:03:08.410653 21144 net.cpp:91] Creating Layer inception_5b/relu_5x5
I0403 04:03:08.410670 21144 net.cpp:425] inception_5b/relu_5x5 <- inception_5b/5x5
I0403 04:03:08.410702 21144 net.cpp:386] inception_5b/relu_5x5 -> inception_5b/5x5 (in-place)
I0403 04:03:08.410722 21144 net.cpp:141] Setting up inception_5b/relu_5x5
I0403 04:03:08.410739 21144 net.cpp:148] Top shape: 24 128 7 7 (150528)
I0403 04:03:08.410753 21144 net.cpp:156] Memory required for data: 1335906816
I0403 04:03:08.410768 21144 layer_factory.hpp:77] Creating layer inception_5b/pool
I0403 04:03:08.410785 21144 net.cpp:91] Creating Layer inception_5b/pool
I0403 04:03:08.410801 21144 net.cpp:425] inception_5b/pool <- inception_5a/output_inception_5a/output_0_split_3
I0403 04:03:08.410820 21144 net.cpp:399] inception_5b/pool -> inception_5b/pool
I0403 04:03:08.410873 21144 net.cpp:141] Setting up inception_5b/pool
I0403 04:03:08.410897 21144 net.cpp:148] Top shape: 24 832 7 7 (978432)
I0403 04:03:08.410912 21144 net.cpp:156] Memory required for data: 1339820544
I0403 04:03:08.410926 21144 layer_factory.hpp:77] Creating layer inception_5b/pool_proj
I0403 04:03:08.410948 21144 net.cpp:91] Creating Layer inception_5b/pool_proj
I0403 04:03:08.410966 21144 net.cpp:425] inception_5b/pool_proj <- inception_5b/pool
I0403 04:03:08.410989 21144 net.cpp:399] inception_5b/pool_proj -> inception_5b/pool_proj
I0403 04:03:08.412317 21144 net.cpp:141] Setting up inception_5b/pool_proj
I0403 04:03:08.412346 21144 net.cpp:148] Top shape: 24 128 7 7 (150528)
I0403 04:03:08.412363 21144 net.cpp:156] Memory required for data: 1340422656
I0403 04:03:08.412380 21144 layer_factory.hpp:77] Creating layer inception_5b/relu_pool_proj
I0403 04:03:08.412400 21144 net.cpp:91] Creating Layer inception_5b/relu_pool_proj
I0403 04:03:08.412415 21144 net.cpp:425] inception_5b/relu_pool_proj <- inception_5b/pool_proj
I0403 04:03:08.412433 21144 net.cpp:386] inception_5b/relu_pool_proj -> inception_5b/pool_proj (in-place)
I0403 04:03:08.412453 21144 net.cpp:141] Setting up inception_5b/relu_pool_proj
I0403 04:03:08.412482 21144 net.cpp:148] Top shape: 24 128 7 7 (150528)
I0403 04:03:08.412497 21144 net.cpp:156] Memory required for data: 1341024768
I0403 04:03:08.412513 21144 layer_factory.hpp:77] Creating layer inception_5b/output
I0403 04:03:08.412531 21144 net.cpp:91] Creating Layer inception_5b/output
I0403 04:03:08.412547 21144 net.cpp:425] inception_5b/output <- inception_5b/1x1
I0403 04:03:08.412564 21144 net.cpp:425] inception_5b/output <- inception_5b/3x3
I0403 04:03:08.412580 21144 net.cpp:425] inception_5b/output <- inception_5b/5x5
I0403 04:03:08.412596 21144 net.cpp:425] inception_5b/output <- inception_5b/pool_proj
I0403 04:03:08.412616 21144 net.cpp:399] inception_5b/output -> inception_5b/output
I0403 04:03:08.412657 21144 net.cpp:141] Setting up inception_5b/output
I0403 04:03:08.412681 21144 net.cpp:148] Top shape: 24 1024 7 7 (1204224)
I0403 04:03:08.412698 21144 net.cpp:156] Memory required for data: 1345841664
I0403 04:03:08.412713 21144 layer_factory.hpp:77] Creating layer pool5/7x7_s1
I0403 04:03:08.412730 21144 net.cpp:91] Creating Layer pool5/7x7_s1
I0403 04:03:08.412746 21144 net.cpp:425] pool5/7x7_s1 <- inception_5b/output
I0403 04:03:08.412765 21144 net.cpp:399] pool5/7x7_s1 -> pool5/7x7_s1
I0403 04:03:08.412809 21144 net.cpp:141] Setting up pool5/7x7_s1
I0403 04:03:08.412832 21144 net.cpp:148] Top shape: 24 1024 1 1 (24576)
I0403 04:03:08.412847 21144 net.cpp:156] Memory required for data: 1345939968
I0403 04:03:08.412861 21144 layer_factory.hpp:77] Creating layer pool5/drop_7x7_s1
I0403 04:03:08.412880 21144 net.cpp:91] Creating Layer pool5/drop_7x7_s1
I0403 04:03:08.412896 21144 net.cpp:425] pool5/drop_7x7_s1 <- pool5/7x7_s1
I0403 04:03:08.412916 21144 net.cpp:386] pool5/drop_7x7_s1 -> pool5/7x7_s1 (in-place)
I0403 04:03:08.412955 21144 net.cpp:141] Setting up pool5/drop_7x7_s1
I0403 04:03:08.412978 21144 net.cpp:148] Top shape: 24 1024 1 1 (24576)
I0403 04:03:08.412994 21144 net.cpp:156] Memory required for data: 1346038272
I0403 04:03:08.413008 21144 layer_factory.hpp:77] Creating layer loss3/classifier_plantvillage
I0403 04:03:08.413028 21144 net.cpp:91] Creating Layer loss3/classifier_plantvillage
I0403 04:03:08.413059 21144 net.cpp:425] loss3/classifier_plantvillage <- pool5/7x7_s1
I0403 04:03:08.413081 21144 net.cpp:399] loss3/classifier_plantvillage -> loss3/classifier_plantvillage
I0403 04:03:08.413420 21144 net.cpp:141] Setting up loss3/classifier_plantvillage
I0403 04:03:08.413447 21144 net.cpp:148] Top shape: 24 38 (912)
I0403 04:03:08.413470 21144 net.cpp:156] Memory required for data: 1346041920
I0403 04:03:08.413496 21144 layer_factory.hpp:77] Creating layer loss1/loss
I0403 04:03:08.413532 21144 net.cpp:91] Creating Layer loss1/loss
I0403 04:03:08.413550 21144 net.cpp:425] loss1/loss <- loss1/classifier_plantvillage
I0403 04:03:08.413568 21144 net.cpp:425] loss1/loss <- label_data_1_split_0
I0403 04:03:08.413588 21144 net.cpp:399] loss1/loss -> loss1/loss
…
I0403 04:03:08.423521 21144 net.cpp:313] The NetState phase (1) differed from the phase (0) specified by a rule in layer data
I0403 04:03:08.427646 21144 net.cpp:49] Initializing net from parameters: 
state {
  phase: TEST
}
layer {
  name: "data"
  type: "Data"
  top: "data"
  top: "label"
  include {
    phase: TEST
  }
  transform_param {
    mirror: false
    crop_size: 224
    mean_file: "/home/mohanty/data/final_dataset/lmdb/segmented-50-50/mean.binaryproto"
  }
  data_param {
    source: "/home/mohanty/data/final_dataset/lmdb/segmented-50-50/test_db"
    batch_size: 24
    backend: LMDB
  }
}
layer {
  name: "conv1/7x7_s2"
  type: "Convolution"
  bottom: "data"
  top: "conv1/7x7_s2"
  param {
    lr_mult: 1
    decay_mult: 1
  }
  param {
    lr_mult: 2
    decay_mult: 0
  }
  convolution_param {
    num_output: 64
    pad: 3
    kernel_size: 7
    stride: 2
    weight_filler {
      type: "xavier"
      std: 0.1
    }
    bias_filler {
      type: "constant"
      value: 0.2
    }
  }
}
layer {
  name: "conv1/relu_7x7"
  type: "ReLU"
  bottom: "conv1/7x7_s2"
  top: "conv1/7x7_s2"
}
layer {
  name: "pool1/3x3_s2"
  type: "Pooling"
  bottom: "conv1/7x7_s2"
  top: "pool1/3x3_s2"
  pooling_param {
    pool: MAX
    kernel_size: 3
    stride: 2
  }
}
layer {
  name: "pool1/norm1"
  type: "LRN"
  bottom: "pool1/3x3_s2"
  top: "pool1/norm1"
  lrn_param {
    local_size: 5
    alpha: 0.0001
    beta: 0.75
  }
}
layer {
  name: "conv2/3x3_reduce"
  type: "Convolution"
  bottom: "pool1/norm1"
  top: "conv2/3x3_reduce"
  param {
    lr_mult: 1
    decay_mult: 1
  }
  param {
    lr_mult: 2
    decay_mult: 0
  }
  convolution_param {
    num_output: 64
    kernel_size: 1
    weight_filler {
      type: "xavier"
      std: 0.1
    }
    bias_filler {
      type: "constant"
      value: 0.2
    }
  }
}
layer {
  name: "conv2/relu_3x3_reduce"
  type: "ReLU"
  bottom: "conv2/3x3_reduce"
  top: "conv2/3x3_reduce"
}
layer {
  name: "conv2/3x3"
  type: "Convolution"
  bottom: "conv2/3x3_reduce"
  top: "conv2/3x3"
  param {
    lr_mult: 1
    decay_mult: 1
  }
  param {
    lr_mult: 2
    decay_mult: 0
  }
  convolution_param {
    num_output: 192
    pad: 1
    kernel_size: 3
    weight_filler {
      type: "xavier"
      std: 0.03
    }
    bias_filler {
      type: "constant"
      value: 0.2
    }
  }
}
layer {
  name: "conv2/relu_3x3"
  type: "ReLU"
  bottom: "conv2/3x3"
  top: "conv2/3x3"
}
layer {
  name: "conv2/norm2"
  type: "LRN"
  bottom: "conv2/3x3"
  top: "conv2/norm2"
  lrn_param {
    local_size: 5
    alpha: 0.0001
    beta: 0.75
  }
}
layer {
  name: "pool2/3x3_s2"
  type: "Pooling"
  bottom: "conv2/norm2"
  top: "pool2/3x3_s2"
  pooling_param {
    pool: MAX
    kernel_size: 3
    stride: 2
  }
}
layer {
  name: "inception_3a/1x1"
  type: "Convolution"
  bottom: "pool2/3x3_s2"
  top: "inception_3a/1x1"
  param {
    lr_mult: 1
    decay_mult: 1
  }
  param {
    lr_mult: 2
    decay_mult: 0
  }
  convolution_param {
    num_output: 64
    kernel_size: 1
    weight_filler {
      type: "xavier"
      std: 0.03
    }
    bias_filler {
      type: "constant"
      value: 0.2
    }
  }
}
layer {
  name: "inception_3a/relu_1x1"
  type: "ReLU"
  bottom: "inception_3a/1x1"
  top: "inception_3a/1x1"
}
layer {
  name: "inception_3a/3x3_reduce"
  type: "Convolution"
  bottom: "pool2/3x3_s2"
  top: "inception_3a/3x3_reduce"
  param {
    lr_mult: 1
    decay_mult: 1
  }
  param {
    lr_mult: 2
    decay_mult: 0
  }
  convolution_param {
    num_output: 96
    kernel_size: 1
    weight_filler {
      type: "xavier"
      std: 0.09
    }
    bias_filler {
      type: "constant"
      value: 0.2
    }
  }
}
layer {
  name: "inception_3a/relu_3x3_reduce"
  type: "ReLU"
  bottom: "inception_3a/3x3_reduce"
  top: "inception_3a/3x3_reduce"
}
layer {
  name: "inception_3a/3x3"
  type: "Convolution"
  bottom: "inception_3a/3x3_reduce"
  top: "inception_3a/3x3"
  param {
    lr_mult: 1
    decay_mult: 1
  }
  param {
    lr_mult: 2
    decay_mult: 0
  }
  convolution_param {
    num_output: 128
    pad: 1
    kernel_size: 3
    weight_filler {
      type: "xavier"
      std: 0.03
    }
    bias_filler {
      type: "constant"
      value: 0.2
    }
  }
}
layer {
  name: "inception_3a/relu_3x3"
  type: "ReLU"
  bottom: "inception_3a/3x3"
  top: "inception_3a/3x3"
}
layer {
  name: "inception_3a/5x5_reduce"
  type: "Convolution"
  bottom: "pool2/3x3_s2"
  top: "inception_3a/5x5_reduce"
  param {
    lr_mult: 1
    decay_mult: 1
  }
  param {
    lr_mult: 2
    decay_mult: 0
  }
  convolution_param {
    num_output: 16
    kernel_size: 1
    weight_filler {
      type: "xavier"
      std: 0.2
    }
    bias_filler {
      type: "constant"
      value: 0.2
    }
  }
}
layer {
  name: "inception_3a/relu_5x5_reduce"
  type: "ReLU"
  bottom: "inception_3a/5x5_reduce"
  top: "inception_3a/5x5_reduce"
}
layer {
  name: "inception_3a/5x5"
  type: "Convolution"
  bottom: "inception_3a/5x5_reduce"
  top: "inception_3a/5x5"
  param {
    lr_mult: 1
    decay_mult: 1
  }
  param {
    lr_mult: 2
    decay_mult: 0
  }
  convolution_param {
    num_output: 32
    pad: 2
    kernel_size: 5
    weight_filler {
      type: "xavier"
      std: 0.03
    }
    bias_filler {
      type: "constant"
      value: 0.2
    }
  }
}
layer {
  name: "inception_3a/relu_5x5"
  type: "ReLU"
  bottom: "inception_3a/5x5"
  top: "inception_3a/5x5"
}
layer {
  name: "inception_3a/pool"
  type: "Pooling"
  bottom: "pool2/3x3_s2"
  top: "inception_3a/pool"
  pooling_param {
    pool: MAX
    kernel_size: 3
    stride: 1
    pad: 1
  }
}
layer {
  name: "inception_3a/pool_proj"
  type: "Convolution"
  bottom: "inception_3a/pool"
  top: "inception_3a/pool_proj"
  param {
    lr_mult: 1
    decay_mult: 1
  }
  param {
    lr_mult: 2
    decay_mult: 0
  }
  convolution_param {
    num_output: 32
    kernel_size: 1
    weight_filler {
      type: "xavier"
      std: 0.1
    }
    bias_filler {
      type: "constant"
      value: 0.2
    }
  }
}
layer {
  name: "inception_3a/relu_pool_proj"
  type: "ReLU"
  bottom: "inception_3a/pool_proj"
  top: "inception_3a/pool_proj"
}
layer {
  name: "inception_3a/output"
  type: "Concat"
  bottom: "inception_3a/1x1"
  bottom: "inception_3a/3x3"
  bottom: "inception_3a/5x5"
  bottom: "inception_3a/pool_proj"
  top: "inception_3a/output"
}
layer {
  name: "inception_3b/1x1"
  type: "Convolution"
  bottom: "inception_3a/output"
  top: "inception_3b/1x1"
  param {
    lr_mult: 1
    decay_mult: 1
  }
  param {
    lr_mult: 2
    decay_mult: 0
  }
  convolution_param {
    num_output: 128
    kernel_size: 1
    weight_filler {
      type: "xavier"
      std: 0.03
    }
    bias_filler {
      type: "constant"
      value: 0.2
    }
  }
}
layer {
  name: "inception_3b/relu_1x1"
  type: "ReLU"
  bottom: "inception_3b/1x1"
  top: "inception_3b/1x1"
}
layer {
  name: "inception_3b/3x3_reduce"
  type: "Convolution"
  bottom: "inception_3a/output"
  top: "inception_3b/3x3_reduce"
  param {
    lr_mult: 1
    decay_mult: 1
  }
  param {
    lr_mult: 2
    decay_mult: 0
  }
  convolution_param {
    num_output: 128
    kernel_size: 1
    weight_filler {
      type: "xavier"
      std: 0.09
    }
    bias_filler {
      type: "constant"
      value: 0.2
    }
  }
}
layer {
  name: "inception_3b/relu_3x3_reduce"
  type: "ReLU"
  bottom: "inception_3b/3x3_reduce"
  top: "inception_3b/3x3_reduce"
}
layer {
  name: "inception_3b/3x3"
  type: "Convolution"
  bottom: "inception_3b/3x3_reduce"
  top: "inception_3b/3x3"
  param {
    lr_mult: 1
    decay_mult: 1
  }
  param {
    lr_mult: 2
    decay_mult: 0
  }
  convolution_param {
    num_output: 192
    pad: 1
    kernel_size: 3
    weight_filler {
      type: "xavier"
      std: 0.03
    }
    bias_filler {
      type: "constant"
      value: 0.2
    }
  }
}
layer {
  name: "inception_3b/relu_3x3"
  type: "ReLU"
  bottom: "inception_3b/3x3"
  top: "inception_3b/3x3"
}
layer {
  name: "inception_3b/5x5_reduce"
  type: "Convolution"
  bottom: "inception_3a/output"
  top: "inception_3b/5x5_reduce"
  param {
    lr_mult: 1
    decay_mult: 1
  }
  param {
    lr_mult: 2
    decay_mult: 0
  }
  convolution_param {
    num_output: 32
    kernel_size: 1
    weight_filler {
      type: "xavier"
      std: 0.2
    }
    bias_filler {
      type: "constant"
      value: 0.2
    }
  }
}
layer {
  name: "inception_3b/relu_5x5_reduce"
  type: "ReLU"
  bottom: "inception_3b/5x5_reduce"
  top: "inception_3b/5x5_reduce"
}
layer {
  name: "inception_3b/5x5"
  type: "Convolution"
  bottom: "inception_3b/5x5_reduce"
  top: "inception_3b/5x5"
  param {
    lr_mult: 1
    decay_mult: 1
  }
  param {
    lr_mult: 2
    decay_mult: 0
  }
  convolution_param {
    num_output: 96
    pad: 2
    kernel_size: 5
    weight_filler {
      type: "xavier"
      std: 0.03
    }
    bias_filler {
      type: "constant"
      value: 0.2
    }
  }
}
layer {
  name: "inception_3b/relu_5x5"
  type: "ReLU"
  bottom: "inception_3b/5x5"
  top: "inception_3b/5x5"
}
layer {
  name: "inception_3b/pool"
  type: "Pooling"
  bottom: "inception_3a/output"
  top: "inception_3b/pool"
  pooling_param {
    pool: MAX
    kernel_size: 3
    stride: 1
    pad: 1
  }
}
layer {
  name: "inception_3b/pool_proj"
  type: "Convolution"
  bottom: "inception_3b/pool"
  top: "inception_3b/pool_proj"
  param {
    lr_mult: 1
    decay_mult: 1
  }
  param {
    lr_mult: 2
    decay_mult: 0
  }
  convolution_param {
    num_output: 64
    kernel_size: 1
    weight_filler {
      type: "xavier"
      std: 0.1
    }
    bias_filler {
      type: "constant"
      value: 0.2
    }
  }
}
layer {
  name: "inception_3b/relu_pool_proj"
  type: "ReLU"
  bottom: "inception_3b/pool_proj"
  top: "inception_3b/pool_proj"
}
layer {
  name: "inception_3b/output"
  type: "Concat"
  bottom: "inception_3b/1x1"
  bottom: "inception_3b/3x3"
  bottom: "inception_3b/5x5"
  bottom: "inception_3b/pool_proj"
  top: "inception_3b/output"
}
layer {
  name: "pool3/3x3_s2"
  type: "Pooling"
  bottom: "inception_3b/output"
  top: "pool3/3x3_s2"
  pooling_param {
    pool: MAX
    kernel_size: 3
    stride: 2
  }
}
layer {
  name: "inception_4a/1x1"
  type: "Convolution"
  bottom: "pool3/3x3_s2"
  top: "inception_4a/1x1"
  param {
    lr_mult: 1
    decay_mult: 1
  }
  param {
    lr_mult: 2
    decay_mult: 0
  }
  convolution_param {
    num_output: 192
    kernel_size: 1
    weight_filler {
      type: "xavier"
      std: 0.03
    }
    bias_filler {
      type: "constant"
      value: 0.2
    }
  }
}
layer {
  name: "inception_4a/relu_1x1"
  type: "ReLU"
  bottom: "inception_4a/1x1"
  top: "inception_4a/1x1"
}
layer {
  name: "inception_4a/3x3_reduce"
  type: "Convolution"
  bottom: "pool3/3x3_s2"
  top: "inception_4a/3x3_reduce"
  param {
    lr_mult: 1
    decay_mult: 1
  }
  param {
    lr_mult: 2
    decay_mult: 0
  }
  convolution_param {
    num_output: 96
    kernel_size: 1
    weight_filler {
      type: "xavier"
      std: 0.09
    }
    bias_filler {
      type: "constant"
      value: 0.2
    }
  }
}
layer {
  name: "inception_4a/relu_3x3_reduce"
  type: "ReLU"
  bottom: "inception_4a/3x3_reduce"
  top: "inception_4a/3x3_reduce"
}
layer {
  name: "inception_4a/3x3"
  type: "Convolution"
  bottom: "inception_4a/3x3_reduce"
  top: "inception_4a/3x3"
  param {
    lr_mult: 1
    decay_mult: 1
  }
  param {
    lr_mult: 2
    decay_mult: 0
  }
  convolution_param {
    num_output: 208
    pad: 1
    kernel_size: 3
    weight_filler {
      type: "xavier"
      std: 0.03
    }
    bias_filler {
      type: "constant"
      value: 0.2
    }
  }
}
layer {
  name: "inception_4a/relu_3x3"
  type: "ReLU"
  bottom: "inception_4a/3x3"
  top: "inception_4a/3x3"
}
layer {
  name: "inception_4a/5x5_reduce"
  type: "Convolution"
  bottom: "pool3/3x3_s2"
  top: "inception_4a/5x5_reduce"
  param {
    lr_mult: 1
    decay_mult: 1
  }
  param {
    lr_mult: 2
    decay_mult: 0
  }
  convolution_param {
    num_output: 16
    kernel_size: 1
    weight_filler {
      type: "xavier"
      std: 0.2
    }
    bias_filler {
      type: "constant"
      value: 0.2
    }
  }
}
layer {
  name: "inception_4a/relu_5x5_reduce"
  type: "ReLU"
  bottom: "inception_4a/5x5_reduce"
  top: "inception_4a/5x5_reduce"
}
layer {
  name: "inception_4a/5x5"
  type: "Convolution"
  bottom: "inception_4a/5x5_reduce"
  top: "inception_4a/5x5"
  param {
    lr_mult: 1
    decay_mult: 1
  }
  param {
    lr_mult: 2
    decay_mult: 0
  }
  convolution_param {
    num_output: 48
    pad: 2
    kernel_size: 5
    weight_filler {
      type: "xavier"
      std: 0.03
    }
    bias_filler {
      type: "constant"
      value: 0.2
    }
  }
}
layer {
  name: "inception_4a/relu_5x5"
  type: "ReLU"
  bottom: "inception_4a/5x5"
  top: "inception_4a/5x5"
}
layer {
  name: "inception_4a/pool"
  type: "Pooling"
  bottom: "pool3/3x3_s2"
  top: "inception_4a/pool"
  pooling_param {
    pool: MAX
    kernel_size: 3
    stride: 1
    pad: 1
  }
}
layer {
  name: "inception_4a/pool_proj"
  type: "Convolution"
  bottom: "inception_4a/pool"
  top: "inception_4a/pool_proj"
  param {
    lr_mult: 1
    decay_mult: 1
  }
  param {
    lr_mult: 2
    decay_mult: 0
  }
  convolution_param {
    num_output: 64
    kernel_size: 1
    weight_filler {
      type: "xavier"
      std: 0.1
    }
    bias_filler {
      type: "constant"
      value: 0.2
    }
  }
}
layer {
  name: "inception_4a/relu_pool_proj"
  type: "ReLU"
  bottom: "inception_4a/pool_proj"
  top: "inception_4a/pool_proj"
}
layer {
  name: "inception_4a/output"
  type: "Concat"
  bottom: "inception_4a/1x1"
  bottom: "inception_4a/3x3"
  bottom: "inception_4a/5x5"
  bottom: "inception_4a/pool_proj"
  top: "inception_4a/output"
}
layer {
  name: "loss1/ave_pool"
  type: "Pooling"
  bottom: "inception_4a/output"
  top: "loss1/ave_pool"
  pooling_param {
    pool: AVE
    kernel_size: 5
    stride: 3
  }
}
layer {
  name: "loss1/conv"
  type: "Convolution"
  bottom: "loss1/ave_pool"
  top: "loss1/conv"
  param {
    lr_mult: 1
    decay_mult: 1
  }
  param {
    lr_mult: 2
    decay_mult: 0
  }
  convolution_param {
    num_output: 128
    kernel_size: 1
    weight_filler {
      type: "xavier"
      std: 0.08
    }
    bias_filler {
      type: "constant"
      value: 0.2
    }
  }
}
layer {
  name: "loss1/relu_conv"
  type: "ReLU"
  bottom: "loss1/conv"
  top: "loss1/conv"
}
layer {
  name: "loss1/fc"
  type: "InnerProduct"
  bottom: "loss1/conv"
  top: "loss1/fc"
  param {
    lr_mult: 1
    decay_mult: 1
  }
  param {
    lr_mult: 2
    decay_mult: 0
  }
  inner_product_param {
    num_output: 1024
    weight_filler {
      type: "xavier"
      std: 0.02
    }
    bias_filler {
      type: "constant"
      value: 0.2
    }
  }
}
layer {
  name: "loss1/relu_fc"
  type: "ReLU"
  bottom: "loss1/fc"
  top: "loss1/fc"
}
layer {
  name: "loss1/drop_fc"
  type: "Dropout"
  bottom: "loss1/fc"
  top: "loss1/fc"
  dropout_param {
    dropout_ratio: 0.7
  }
}
layer {
  name: "loss1/classifier_plantvillage"
  type: "InnerProduct"
  bottom: "loss1/fc"
  top: "loss1/classifier_plantvillage"
  param {
    lr_mult: 1
    decay_mult: 1
  }
  param {
    lr_mult: 2
    decay_mult: 0
  }
  inner_product_param {
    num_output: 38
    weight_filler {
      type: "xavier"
      std: 0.0009765625
    }
    bias_filler {
      type: "constant"
      value: 0
    }
  }
}
layer {
  name: "inception_4b/1x1"
  type: "Convolution"
  bottom: "inception_4a/output"
  top: "inception_4b/1x1"
  param {
    lr_mult: 1
    decay_mult: 1
  }
  param {
    lr_mult: 2
    decay_mult: 0
  }
  convolution_param {
    num_output: 160
    kernel_size: 1
    weight_filler {
      type: "xavier"
      std: 0.03
    }
    bias_filler {
      type: "constant"
      value: 0.2
    }
  }
}
layer {
…
I0403 04:03:08.614094 21144 layer_factory.hpp:77] Creating layer inception_4c/pool
I0403 04:03:08.614111 21144 net.cpp:91] Creating Layer inception_4c/pool
I0403 04:03:08.614128 21144 net.cpp:425] inception_4c/pool <- inception_4b/output_inception_4b/output_0_split_3
I0403 04:03:08.614146 21144 net.cpp:399] inception_4c/pool -> inception_4c/pool
I0403 04:03:08.614204 21144 net.cpp:141] Setting up inception_4c/pool
I0403 04:03:08.614228 21144 net.cpp:148] Top shape: 24 512 14 14 (2408448)
I0403 04:03:08.614243 21144 net.cpp:156] Memory required for data: 1060605120
I0403 04:03:08.614258 21144 layer_factory.hpp:77] Creating layer inception_4c/pool_proj
I0403 04:03:08.614279 21144 net.cpp:91] Creating Layer inception_4c/pool_proj
I0403 04:03:08.614298 21144 net.cpp:425] inception_4c/pool_proj <- inception_4c/pool
I0403 04:03:08.614321 21144 net.cpp:399] inception_4c/pool_proj -> inception_4c/pool_proj
I0403 04:03:08.614773 21144 net.cpp:141] Setting up inception_4c/pool_proj
I0403 04:03:08.614801 21144 net.cpp:148] Top shape: 24 64 14 14 (301056)
I0403 04:03:08.614819 21144 net.cpp:156] Memory required for data: 1061809344
I0403 04:03:08.614837 21144 layer_factory.hpp:77] Creating layer inception_4c/relu_pool_proj
I0403 04:03:08.614861 21144 net.cpp:91] Creating Layer inception_4c/relu_pool_proj
I0403 04:03:08.614881 21144 net.cpp:425] inception_4c/relu_pool_proj <- inception_4c/pool_proj
I0403 04:03:08.614899 21144 net.cpp:386] inception_4c/relu_pool_proj -> inception_4c/pool_proj (in-place)
I0403 04:03:08.614920 21144 net.cpp:141] Setting up inception_4c/relu_pool_proj
I0403 04:03:08.614940 21144 net.cpp:148] Top shape: 24 64 14 14 (301056)
I0403 04:03:08.614955 21144 net.cpp:156] Memory required for data: 1063013568
I0403 04:03:08.614970 21144 layer_factory.hpp:77] Creating layer inception_4c/output
I0403 04:03:08.614991 21144 net.cpp:91] Creating Layer inception_4c/output
I0403 04:03:08.615010 21144 net.cpp:425] inception_4c/output <- inception_4c/1x1
I0403 04:03:08.615028 21144 net.cpp:425] inception_4c/output <- inception_4c/3x3
I0403 04:03:08.615046 21144 net.cpp:425] inception_4c/output <- inception_4c/5x5
I0403 04:03:08.615063 21144 net.cpp:425] inception_4c/output <- inception_4c/pool_proj
I0403 04:03:08.615082 21144 net.cpp:399] inception_4c/output -> inception_4c/output
I0403 04:03:08.615124 21144 net.cpp:141] Setting up inception_4c/output
I0403 04:03:08.615151 21144 net.cpp:148] Top shape: 24 512 14 14 (2408448)
I0403 04:03:08.615169 21144 net.cpp:156] Memory required for data: 1072647360
I0403 04:03:08.615185 21144 layer_factory.hpp:77] Creating layer inception_4c/output_inception_4c/output_0_split
I0403 04:03:08.615203 21144 net.cpp:91] Creating Layer inception_4c/output_inception_4c/output_0_split
I0403 04:03:08.615222 21144 net.cpp:425] inception_4c/output_inception_4c/output_0_split <- inception_4c/output
I0403 04:03:08.615242 21144 net.cpp:399] inception_4c/output_inception_4c/output_0_split -> inception_4c/output_inception_4c/output_0_split_0
I0403 04:03:08.615267 21144 net.cpp:399] inception_4c/output_inception_4c/output_0_split -> inception_4c/output_inception_4c/output_0_split_1
I0403 04:03:08.615298 21144 net.cpp:399] inception_4c/output_inception_4c/output_0_split -> inception_4c/output_inception_4c/output_0_split_2
I0403 04:03:08.615329 21144 net.cpp:399] inception_4c/output_inception_4c/output_0_split -> inception_4c/output_inception_4c/output_0_split_3
I0403 04:03:08.615422 21144 net.cpp:141] Setting up inception_4c/output_inception_4c/output_0_split
I0403 04:03:08.615447 21144 net.cpp:148] Top shape: 24 512 14 14 (2408448)
I0403 04:03:08.615470 21144 net.cpp:148] Top shape: 24 512 14 14 (2408448)
I0403 04:03:08.615489 21144 net.cpp:148] Top shape: 24 512 14 14 (2408448)
I0403 04:03:08.615504 21144 net.cpp:148] Top shape: 24 512 14 14 (2408448)
I0403 04:03:08.615519 21144 net.cpp:156] Memory required for data: 1111182528
I0403 04:03:08.615533 21144 layer_factory.hpp:77] Creating layer inception_4d/1x1
I0403 04:03:08.615559 21144 net.cpp:91] Creating Layer inception_4d/1x1
I0403 04:03:08.615578 21144 net.cpp:425] inception_4d/1x1 <- inception_4c/output_inception_4c/output_0_split_0
I0403 04:03:08.615602 21144 net.cpp:399] inception_4d/1x1 -> inception_4d/1x1
I0403 04:03:08.616178 21144 net.cpp:141] Setting up inception_4d/1x1
I0403 04:03:08.616204 21144 net.cpp:148] Top shape: 24 112 14 14 (526848)
I0403 04:03:08.616221 21144 net.cpp:156] Memory required for data: 1113289920
I0403 04:03:08.616240 21144 layer_factory.hpp:77] Creating layer inception_4d/relu_1x1
I0403 04:03:08.616260 21144 net.cpp:91] Creating Layer inception_4d/relu_1x1
I0403 04:03:08.616277 21144 net.cpp:425] inception_4d/relu_1x1 <- inception_4d/1x1
I0403 04:03:08.616297 21144 net.cpp:386] inception_4d/relu_1x1 -> inception_4d/1x1 (in-place)
I0403 04:03:08.616317 21144 net.cpp:141] Setting up inception_4d/relu_1x1
I0403 04:03:08.616336 21144 net.cpp:148] Top shape: 24 112 14 14 (526848)
I0403 04:03:08.616351 21144 net.cpp:156] Memory required for data: 1115397312
I0403 04:03:08.616366 21144 layer_factory.hpp:77] Creating layer inception_4d/3x3_reduce
I0403 04:03:08.616389 21144 net.cpp:91] Creating Layer inception_4d/3x3_reduce
I0403 04:03:08.616410 21144 net.cpp:425] inception_4d/3x3_reduce <- inception_4c/output_inception_4c/output_0_split_1
I0403 04:03:08.616432 21144 net.cpp:399] inception_4d/3x3_reduce -> inception_4d/3x3_reduce
I0403 04:03:08.617122 21144 net.cpp:141] Setting up inception_4d/3x3_reduce
I0403 04:03:08.617149 21144 net.cpp:148] Top shape: 24 144 14 14 (677376)
I0403 04:03:08.617164 21144 net.cpp:156] Memory required for data: 1118106816
I0403 04:03:08.617183 21144 layer_factory.hpp:77] Creating layer inception_4d/relu_3x3_reduce
I0403 04:03:08.617203 21144 net.cpp:91] Creating Layer inception_4d/relu_3x3_reduce
I0403 04:03:08.617223 21144 net.cpp:425] inception_4d/relu_3x3_reduce <- inception_4d/3x3_reduce
I0403 04:03:08.617240 21144 net.cpp:386] inception_4d/relu_3x3_reduce -> inception_4d/3x3_reduce (in-place)
I0403 04:03:08.617262 21144 net.cpp:141] Setting up inception_4d/relu_3x3_reduce
I0403 04:03:08.617281 21144 net.cpp:148] Top shape: 24 144 14 14 (677376)
I0403 04:03:08.617296 21144 net.cpp:156] Memory required for data: 1120816320
I0403 04:03:08.617312 21144 layer_factory.hpp:77] Creating layer inception_4d/3x3
I0403 04:03:08.617336 21144 net.cpp:91] Creating Layer inception_4d/3x3
I0403 04:03:08.617357 21144 net.cpp:425] inception_4d/3x3 <- inception_4d/3x3_reduce
I0403 04:03:08.617379 21144 net.cpp:399] inception_4d/3x3 -> inception_4d/3x3
I0403 04:03:08.620635 21144 net.cpp:141] Setting up inception_4d/3x3
I0403 04:03:08.620666 21144 net.cpp:148] Top shape: 24 288 14 14 (1354752)
I0403 04:03:08.620683 21144 net.cpp:156] Memory required for data: 1126235328
I0403 04:03:08.620703 21144 layer_factory.hpp:77] Creating layer inception_4d/relu_3x3
I0403 04:03:08.620724 21144 net.cpp:91] Creating Layer inception_4d/relu_3x3
I0403 04:03:08.620743 21144 net.cpp:425] inception_4d/relu_3x3 <- inception_4d/3x3
I0403 04:03:08.620765 21144 net.cpp:386] inception_4d/relu_3x3 -> inception_4d/3x3 (in-place)
I0403 04:03:08.620789 21144 net.cpp:141] Setting up inception_4d/relu_3x3
I0403 04:03:08.620810 21144 net.cpp:148] Top shape: 24 288 14 14 (1354752)
I0403 04:03:08.620825 21144 net.cpp:156] Memory required for data: 1131654336
I0403 04:03:08.620841 21144 layer_factory.hpp:77] Creating layer inception_4d/5x5_reduce
I0403 04:03:08.620880 21144 net.cpp:91] Creating Layer inception_4d/5x5_reduce
I0403 04:03:08.620901 21144 net.cpp:425] inception_4d/5x5_reduce <- inception_4c/output_inception_4c/output_0_split_2
I0403 04:03:08.620923 21144 net.cpp:399] inception_4d/5x5_reduce -> inception_4d/5x5_reduce
I0403 04:03:08.621271 21144 net.cpp:141] Setting up inception_4d/5x5_reduce
I0403 04:03:08.621297 21144 net.cpp:148] Top shape: 24 32 14 14 (150528)
I0403 04:03:08.621314 21144 net.cpp:156] Memory required for data: 1132256448
I0403 04:03:08.621333 21144 layer_factory.hpp:77] Creating layer inception_4d/relu_5x5_reduce
I0403 04:03:08.621352 21144 net.cpp:91] Creating Layer inception_4d/relu_5x5_reduce
I0403 04:03:08.621369 21144 net.cpp:425] inception_4d/relu_5x5_reduce <- inception_4d/5x5_reduce
I0403 04:03:08.621390 21144 net.cpp:386] inception_4d/relu_5x5_reduce -> inception_4d/5x5_reduce (in-place)
I0403 04:03:08.621413 21144 net.cpp:141] Setting up inception_4d/relu_5x5_reduce
I0403 04:03:08.621431 21144 net.cpp:148] Top shape: 24 32 14 14 (150528)
I0403 04:03:08.621448 21144 net.cpp:156] Memory required for data: 1132858560
I0403 04:03:08.621467 21144 layer_factory.hpp:77] Creating layer inception_4d/5x5
I0403 04:03:08.621495 21144 net.cpp:91] Creating Layer inception_4d/5x5
I0403 04:03:08.621515 21144 net.cpp:425] inception_4d/5x5 <- inception_4d/5x5_reduce
I0403 04:03:08.621536 21144 net.cpp:399] inception_4d/5x5 -> inception_4d/5x5
I0403 04:03:08.622081 21144 net.cpp:141] Setting up inception_4d/5x5
I0403 04:03:08.622108 21144 net.cpp:148] Top shape: 24 64 14 14 (301056)
I0403 04:03:08.622123 21144 net.cpp:156] Memory required for data: 1134062784
I0403 04:03:08.622143 21144 layer_factory.hpp:77] Creating layer inception_4d/relu_5x5
I0403 04:03:08.622162 21144 net.cpp:91] Creating Layer inception_4d/relu_5x5
I0403 04:03:08.622179 21144 net.cpp:425] inception_4d/relu_5x5 <- inception_4d/5x5
I0403 04:03:08.622200 21144 net.cpp:386] inception_4d/relu_5x5 -> inception_4d/5x5 (in-place)
I0403 04:03:08.622223 21144 net.cpp:141] Setting up inception_4d/relu_5x5
I0403 04:03:08.622242 21144 net.cpp:148] Top shape: 24 64 14 14 (301056)
I0403 04:03:08.622258 21144 net.cpp:156] Memory required for data: 1135267008
I0403 04:03:08.622274 21144 layer_factory.hpp:77] Creating layer inception_4d/pool
I0403 04:03:08.622292 21144 net.cpp:91] Creating Layer inception_4d/pool
I0403 04:03:08.622309 21144 net.cpp:425] inception_4d/pool <- inception_4c/output_inception_4c/output_0_split_3
I0403 04:03:08.622331 21144 net.cpp:399] inception_4d/pool -> inception_4d/pool
I0403 04:03:08.622390 21144 net.cpp:141] Setting up inception_4d/pool
I0403 04:03:08.622414 21144 net.cpp:148] Top shape: 24 512 14 14 (2408448)
I0403 04:03:08.622431 21144 net.cpp:156] Memory required for data: 1144900800
I0403 04:03:08.622447 21144 layer_factory.hpp:77] Creating layer inception_4d/pool_proj
I0403 04:03:08.622480 21144 net.cpp:91] Creating Layer inception_4d/pool_proj
I0403 04:03:08.622503 21144 net.cpp:425] inception_4d/pool_proj <- inception_4d/pool
I0403 04:03:08.622525 21144 net.cpp:399] inception_4d/pool_proj -> inception_4d/pool_proj
I0403 04:03:08.622954 21144 net.cpp:141] Setting up inception_4d/pool_proj
I0403 04:03:08.622982 21144 net.cpp:148] Top shape: 24 64 14 14 (301056)
I0403 04:03:08.622997 21144 net.cpp:156] Memory required for data: 1146105024
I0403 04:03:08.623018 21144 layer_factory.hpp:77] Creating layer inception_4d/relu_pool_proj
I0403 04:03:08.623036 21144 net.cpp:91] Creating Layer inception_4d/relu_pool_proj
I0403 04:03:08.623054 21144 net.cpp:425] inception_4d/relu_pool_proj <- inception_4d/pool_proj
I0403 04:03:08.623072 21144 net.cpp:386] inception_4d/relu_pool_proj -> inception_4d/pool_proj (in-place)
I0403 04:03:08.623093 21144 net.cpp:141] Setting up inception_4d/relu_pool_proj
I0403 04:03:08.623113 21144 net.cpp:148] Top shape: 24 64 14 14 (301056)
I0403 04:03:08.623129 21144 net.cpp:156] Memory required for data: 1147309248
I0403 04:03:08.623145 21144 layer_factory.hpp:77] Creating layer inception_4d/output
I0403 04:03:08.623179 21144 net.cpp:91] Creating Layer inception_4d/output
I0403 04:03:08.623199 21144 net.cpp:425] inception_4d/output <- inception_4d/1x1
I0403 04:03:08.623219 21144 net.cpp:425] inception_4d/output <- inception_4d/3x3
I0403 04:03:08.623237 21144 net.cpp:425] inception_4d/output <- inception_4d/5x5
I0403 04:03:08.623260 21144 net.cpp:425] inception_4d/output <- inception_4d/pool_proj
I0403 04:03:08.623286 21144 net.cpp:399] inception_4d/output -> inception_4d/output
I0403 04:03:08.623342 21144 net.cpp:141] Setting up inception_4d/output
I0403 04:03:08.623368 21144 net.cpp:148] Top shape: 24 528 14 14 (2483712)
I0403 04:03:08.623383 21144 net.cpp:156] Memory required for data: 1157244096
I0403 04:03:08.623399 21144 layer_factory.hpp:77] Creating layer inception_4d/output_inception_4d/output_0_split
I0403 04:03:08.623420 21144 net.cpp:91] Creating Layer inception_4d/output_inception_4d/output_0_split
I0403 04:03:08.623435 21144 net.cpp:425] inception_4d/output_inception_4d/output_0_split <- inception_4d/output
I0403 04:03:08.623457 21144 net.cpp:399] inception_4d/output_inception_4d/output_0_split -> inception_4d/output_inception_4d/output_0_split_0
I0403 04:03:08.623486 21144 net.cpp:399] inception_4d/output_inception_4d/output_0_split -> inception_4d/output_inception_4d/output_0_split_1
I0403 04:03:08.623509 21144 net.cpp:399] inception_4d/output_inception_4d/output_0_split -> inception_4d/output_inception_4d/output_0_split_2
I0403 04:03:08.623531 21144 net.cpp:399] inception_4d/output_inception_4d/output_0_split -> inception_4d/output_inception_4d/output_0_split_3
I0403 04:03:08.623553 21144 net.cpp:399] inception_4d/output_inception_4d/output_0_split -> inception_4d/output_inception_4d/output_0_split_4
I0403 04:03:08.623641 21144 net.cpp:141] Setting up inception_4d/output_inception_4d/output_0_split
I0403 04:03:08.623668 21144 net.cpp:148] Top shape: 24 528 14 14 (2483712)
I0403 04:03:08.623687 21144 net.cpp:148] Top shape: 24 528 14 14 (2483712)
I0403 04:03:08.623704 21144 net.cpp:148] Top shape: 24 528 14 14 (2483712)
I0403 04:03:08.623720 21144 net.cpp:148] Top shape: 24 528 14 14 (2483712)
I0403 04:03:08.623736 21144 net.cpp:148] Top shape: 24 528 14 14 (2483712)
I0403 04:03:08.623751 21144 net.cpp:156] Memory required for data: 1206918336
I0403 04:03:08.623766 21144 layer_factory.hpp:77] Creating layer loss2/ave_pool
I0403 04:03:08.623785 21144 net.cpp:91] Creating Layer loss2/ave_pool
I0403 04:03:08.623802 21144 net.cpp:425] loss2/ave_pool <- inception_4d/output_inception_4d/output_0_split_0
I0403 04:03:08.623822 21144 net.cpp:399] loss2/ave_pool -> loss2/ave_pool
I0403 04:03:08.623867 21144 net.cpp:141] Setting up loss2/ave_pool
I0403 04:03:08.623893 21144 net.cpp:148] Top shape: 24 528 4 4 (202752)
I0403 04:03:08.623908 21144 net.cpp:156] Memory required for data: 1207729344
I0403 04:03:08.623924 21144 layer_factory.hpp:77] Creating layer loss2/conv
I0403 04:03:08.623949 21144 net.cpp:91] Creating Layer loss2/conv
I0403 04:03:08.623967 21144 net.cpp:425] loss2/conv <- loss2/ave_pool
I0403 04:03:08.623993 21144 net.cpp:399] loss2/conv -> loss2/conv
I0403 04:03:08.625218 21144 net.cpp:141] Setting up loss2/conv
I0403 04:03:08.625249 21144 net.cpp:148] Top shape: 24 128 4 4 (49152)
I0403 04:03:08.625267 21144 net.cpp:156] Memory required for data: 1207925952
I0403 04:03:08.625286 21144 layer_factory.hpp:77] Creating layer loss2/relu_conv
I0403 04:03:08.625309 21144 net.cpp:91] Creating Layer loss2/relu_conv
I0403 04:03:08.625329 21144 net.cpp:425] loss2/relu_conv <- loss2/conv
I0403 04:03:08.625349 21144 net.cpp:386] loss2/relu_conv -> loss2/conv (in-place)
I0403 04:03:08.625370 21144 net.cpp:141] Setting up loss2/relu_conv
I0403 04:03:08.625391 21144 net.cpp:148] Top shape: 24 128 4 4 (49152)
I0403 04:03:08.625406 21144 net.cpp:156] Memory required for data: 1208122560
I0403 04:03:08.625422 21144 layer_factory.hpp:77] Creating layer loss2/fc
I0403 04:03:08.625470 21144 net.cpp:91] Creating Layer loss2/fc
I0403 04:03:08.625490 21144 net.cpp:425] loss2/fc <- loss2/conv
I0403 04:03:08.625510 21144 net.cpp:399] loss2/fc -> loss2/fc
I0403 04:03:08.641628 21144 net.cpp:141] Setting up loss2/fc
I0403 04:03:08.641676 21144 net.cpp:148] Top shape: 24 1024 (24576)
I0403 04:03:08.641700 21144 net.cpp:156] Memory required for data: 1208220864
I0403 04:03:08.641731 21144 layer_factory.hpp:77] Creating layer loss2/relu_fc
I0403 04:03:08.641755 21144 net.cpp:91] Creating Layer loss2/relu_fc
I0403 04:03:08.641774 21144 net.cpp:425] loss2/relu_fc <- loss2/fc
I0403 04:03:08.641796 21144 net.cpp:386] loss2/relu_fc -> loss2/fc (in-place)
I0403 04:03:08.641819 21144 net.cpp:141] Setting up loss2/relu_fc
I0403 04:03:08.641839 21144 net.cpp:148] Top shape: 24 1024 (24576)
I0403 04:03:08.641855 21144 net.cpp:156] Memory required for data: 1208319168
I0403 04:03:08.641870 21144 layer_factory.hpp:77] Creating layer loss2/drop_fc
I0403 04:03:08.641892 21144 net.cpp:91] Creating Layer loss2/drop_fc
I0403 04:03:08.641912 21144 net.cpp:425] loss2/drop_fc <- loss2/fc
I0403 04:03:08.641932 21144 net.cpp:386] loss2/drop_fc -> loss2/fc (in-place)
I0403 04:03:08.641976 21144 net.cpp:141] Setting up loss2/drop_fc
I0403 04:03:08.642002 21144 net.cpp:148] Top shape: 24 1024 (24576)
I0403 04:03:08.642020 21144 net.cpp:156] Memory required for data: 1208417472
I0403 04:03:08.642036 21144 layer_factory.hpp:77] Creating layer loss2/classifier_plantvillage
I0403 04:03:08.642056 21144 net.cpp:91] Creating Layer loss2/classifier_plantvillage
I0403 04:03:08.642074 21144 net.cpp:425] loss2/classifier_plantvillage <- loss2/fc
I0403 04:03:08.642097 21144 net.cpp:399] loss2/classifier_plantvillage -> loss2/classifier_plantvillage
I0403 04:03:08.642452 21144 net.cpp:141] Setting up loss2/classifier_plantvillage
I0403 04:03:08.642490 21144 net.cpp:148] Top shape: 24 38 (912)
I0403 04:03:08.642506 21144 net.cpp:156] Memory required for data: 1208421120
I0403 04:03:08.642524 21144 layer_factory.hpp:77] Creating layer loss2/classifier_plantvillage_loss2/classifier_plantvillage_0_split
I0403 04:03:08.642546 21144 net.cpp:91] Creating Layer loss2/classifier_plantvillage_loss2/classifier_plantvillage_0_split
I0403 04:03:08.642565 21144 net.cpp:425] loss2/classifier_plantvillage_loss2/classifier_plantvillage_0_split <- loss2/classifier_plantvillage
I0403 04:03:08.642585 21144 net.cpp:399] loss2/classifier_plantvillage_loss2/classifier_plantvillage_0_split -> loss2/classifier_plantvillage_loss2/classifier_plantvillage_0_split_0
I0403 04:03:08.642606 21144 net.cpp:399] loss2/classifier_plantvillage_loss2/classifier_plantvillage_0_split -> loss2/classifier_plantvillage_loss2/classifier_plantvillage_0_split_1
I0403 04:03:08.642627 21144 net.cpp:399] loss2/classifier_plantvillage_loss2/classifier_plantvillage_0_split -> loss2/classifier_plantvillage_loss2/classifier_plantvillage_0_split_2
I0403 04:03:08.642696 21144 net.cpp:141] Setting up loss2/classifier_plantvillage_loss2/classifier_plantvillage_0_split
I0403 04:03:08.642721 21144 net.cpp:148] Top shape: 24 38 (912)
I0403 04:03:08.642738 21144 net.cpp:148] Top shape: 24 38 (912)
I0403 04:03:08.642756 21144 net.cpp:148] Top shape: 24 38 (912)
I0403 04:03:08.642771 21144 net.cpp:156] Memory required for data: 1208432064
I0403 04:03:08.642786 21144 layer_factory.hpp:77] Creating layer inception_4e/1x1
I0403 04:03:08.642812 21144 net.cpp:91] Creating Layer inception_4e/1x1
I0403 04:03:08.642833 21144 net.cpp:425] inception_4e/1x1 <- inception_4d/output_inception_4d/output_0_split_1
I0403 04:03:08.642859 21144 net.cpp:399] inception_4e/1x1 -> inception_4e/1x1
I0403 04:03:08.643906 21144 net.cpp:141] Setting up inception_4e/1x1
I0403 04:03:08.643934 21144 net.cpp:148] Top shape: 24 256 14 14 (1204224)
I0403 04:03:08.643951 21144 net.cpp:156] Memory required for data: 1213248960
I0403 04:03:08.643970 21144 layer_factory.hpp:77] Creating layer inception_4e/relu_1x1
I0403 04:03:08.643990 21144 net.cpp:91] Creating Layer inception_4e/relu_1x1
I0403 04:03:08.644012 21144 net.cpp:425] inception_4e/relu_1x1 <- inception_4e/1x1
I0403 04:03:08.644034 21144 net.cpp:386] inception_4e/relu_1x1 -> inception_4e/1x1 (in-place)
I0403 04:03:08.644079 21144 net.cpp:141] Setting up inception_4e/relu_1x1
I0403 04:03:08.644100 21144 net.cpp:148] Top shape: 24 256 14 14 (1204224)
I0403 04:03:08.644115 21144 net.cpp:156] Memory required for data: 1218065856
I0403 04:03:08.644134 21144 layer_factory.hpp:77] Creating layer inception_4e/3x3_reduce
I0403 04:03:08.644163 21144 net.cpp:91] Creating Layer inception_4e/3x3_reduce
I0403 04:03:08.644186 21144 net.cpp:425] inception_4e/3x3_reduce <- inception_4d/output_inception_4d/output_0_split_2
I0403 04:03:08.644208 21144 net.cpp:399] inception_4e/3x3_reduce -> inception_4e/3x3_reduce
I0403 04:03:08.645535 21144 net.cpp:141] Setting up inception_4e/3x3_reduce
I0403 04:03:08.645567 21144 net.cpp:148] Top shape: 24 160 14 14 (752640)
I0403 04:03:08.645594 21144 net.cpp:156] Memory required for data: 1221076416
I0403 04:03:08.645614 21144 layer_factory.hpp:77] Creating layer inception_4e/relu_3x3_reduce
I0403 04:03:08.645633 21144 net.cpp:91] Creating Layer inception_4e/relu_3x3_reduce
I0403 04:03:08.645653 21144 net.cpp:425] inception_4e/relu_3x3_reduce <- inception_4e/3x3_reduce
I0403 04:03:08.645675 21144 net.cpp:386] inception_4e/relu_3x3_reduce -> inception_4e/3x3_reduce (in-place)
I0403 04:03:08.645699 21144 net.cpp:141] Setting up inception_4e/relu_3x3_reduce
I0403 04:03:08.645717 21144 net.cpp:148] Top shape: 24 160 14 14 (752640)
I0403 04:03:08.645732 21144 net.cpp:156] Memory required for data: 1224086976
I0403 04:03:08.645748 21144 layer_factory.hpp:77] Creating layer inception_4e/3x3
I0403 04:03:08.645772 21144 net.cpp:91] Creating Layer inception_4e/3x3
I0403 04:03:08.645792 21144 net.cpp:425] inception_4e/3x3 <- inception_4e/3x3_reduce
I0403 04:03:08.645815 21144 net.cpp:399] inception_4e/3x3 -> inception_4e/3x3
I0403 04:03:08.649814 21144 net.cpp:141] Setting up inception_4e/3x3
I0403 04:03:08.649852 21144 net.cpp:148] Top shape: 24 320 14 14 (1505280)
I0403 04:03:08.649869 21144 net.cpp:156] Memory required for data: 1230108096
I0403 04:03:08.649891 21144 layer_factory.hpp:77] Creating layer inception_4e/relu_3x3
I0403 04:03:08.649914 21144 net.cpp:91] Creating Layer inception_4e/relu_3x3
I0403 04:03:08.649932 21144 net.cpp:425] inception_4e/relu_3x3 <- inception_4e/3x3
I0403 04:03:08.649952 21144 net.cpp:386] inception_4e/relu_3x3 -> inception_4e/3x3 (in-place)
I0403 04:03:08.649972 21144 net.cpp:141] Setting up inception_4e/relu_3x3
I0403 04:03:08.649992 21144 net.cpp:148] Top shape: 24 320 14 14 (1505280)
I0403 04:03:08.650008 21144 net.cpp:156] Memory required for data: 1236129216
I0403 04:03:08.650023 21144 layer_factory.hpp:77] Creating layer inception_4e/5x5_reduce
I0403 04:03:08.650048 21144 net.cpp:91] Creating Layer inception_4e/5x5_reduce
I0403 04:03:08.650068 21144 net.cpp:425] inception_4e/5x5_reduce <- inception_4d/output_inception_4d/output_0_split_3
I0403 04:03:08.650090 21144 net.cpp:399] inception_4e/5x5_reduce -> inception_4e/5x5_reduce
I0403 04:03:08.650959 21144 net.cpp:141] Setting up inception_4e/5x5_reduce
I0403 04:03:08.650990 21144 net.cpp:148] Top shape: 24 32 14 14 (150528)
I0403 04:03:08.651008 21144 net.cpp:156] Memory required for data: 1236731328
I0403 04:03:08.651027 21144 layer_factory.hpp:77] Creating layer inception_4e/relu_5x5_reduce
I0403 04:03:08.651047 21144 net.cpp:91] Creating Layer inception_4e/relu_5x5_reduce
I0403 04:03:08.651067 21144 net.cpp:425] inception_4e/relu_5x5_reduce <- inception_4e/5x5_reduce
I0403 04:03:08.651089 21144 net.cpp:386] inception_4e/relu_5x5_reduce -> inception_4e/5x5_reduce (in-place)
I0403 04:03:08.651113 21144 net.cpp:141] Setting up inception_4e/relu_5x5_reduce
I0403 04:03:08.651132 21144 net.cpp:148] Top shape: 24 32 14 14 (150528)
I0403 04:03:08.651147 21144 net.cpp:156] Memory required for data: 1237333440
I0403 04:03:08.651161 21144 layer_factory.hpp:77] Creating layer inception_4e/5x5
I0403 04:03:08.651204 21144 net.cpp:91] Creating Layer inception_4e/5x5
I0403 04:03:08.651226 21144 net.cpp:425] inception_4e/5x5 <- inception_4e/5x5_reduce
I0403 04:03:08.651252 21144 net.cpp:399] inception_4e/5x5 -> inception_4e/5x5
I0403 04:03:08.652048 21144 net.cpp:141] Setting up inception_4e/5x5
I0403 04:03:08.652093 21144 net.cpp:148] Top shape: 24 128 14 14 (602112)
I0403 04:03:08.652110 21144 net.cpp:156] Memory required for data: 1239741888
I0403 04:03:08.652130 21144 layer_factory.hpp:77] Creating layer inception_4e/relu_5x5
I0403 04:03:08.652158 21144 net.cpp:91] Creating Layer inception_4e/relu_5x5
I0403 04:03:08.652178 21144 net.cpp:425] inception_4e/relu_5x5 <- inception_4e/5x5
I0403 04:03:08.652196 21144 net.cpp:386] inception_4e/relu_5x5 -> inception_4e/5x5 (in-place)
I0403 04:03:08.652218 21144 net.cpp:141] Setting up inception_4e/relu_5x5
I0403 04:03:08.652237 21144 net.cpp:148] Top shape: 24 128 14 14 (602112)
I0403 04:03:08.652253 21144 net.cpp:156] Memory required for data: 1242150336
I0403 04:03:08.652268 21144 layer_factory.hpp:77] Creating layer inception_4e/pool
I0403 04:03:08.652290 21144 net.cpp:91] Creating Layer inception_4e/pool
I0403 04:03:08.652309 21144 net.cpp:425] inception_4e/pool <- inception_4d/output_inception_4d/output_0_split_4
I0403 04:03:08.652334 21144 net.cpp:399] inception_4e/pool -> inception_4e/pool
I0403 04:03:08.652391 21144 net.cpp:141] Setting up inception_4e/pool
I0403 04:03:08.652418 21144 net.cpp:148] Top shape: 24 528 14 14 (2483712)
I0403 04:03:08.652436 21144 net.cpp:156] Memory required for data: 1252085184
I0403 04:03:08.652454 21144 layer_factory.hpp:77] Creating layer inception_4e/pool_proj
I0403 04:03:08.652490 21144 net.cpp:91] Creating Layer inception_4e/pool_proj
I0403 04:03:08.652510 21144 net.cpp:425] inception_4e/pool_proj <- inception_4e/pool
I0403 04:03:08.652535 21144 net.cpp:399] inception_4e/pool_proj -> inception_4e/pool_proj
I0403 04:03:08.653137 21144 net.cpp:141] Setting up inception_4e/pool_proj
I0403 04:03:08.653164 21144 net.cpp:148] Top shape: 24 128 14 14 (602112)
I0403 04:03:08.653182 21144 net.cpp:156] Memory required for data: 1254493632
I0403 04:03:08.653201 21144 layer_factory.hpp:77] Creating layer inception_4e/relu_pool_proj
I0403 04:03:08.653223 21144 net.cpp:91] Creating Layer inception_4e/relu_pool_proj
I0403 04:03:08.653240 21144 net.cpp:425] inception_4e/relu_pool_proj <- inception_4e/pool_proj
I0403 04:03:08.653261 21144 net.cpp:386] inception_4e/relu_pool_proj -> inception_4e/pool_proj (in-place)
I0403 04:03:08.653282 21144 net.cpp:141] Setting up inception_4e/relu_pool_proj
I0403 04:03:08.653303 21144 net.cpp:148] Top shape: 24 128 14 14 (602112)
I0403 04:03:08.653319 21144 net.cpp:156] Memory required for data: 1256902080
I0403 04:03:08.653336 21144 layer_factory.hpp:77] Creating layer inception_4e/output
I0403 04:03:08.653357 21144 net.cpp:91] Creating Layer inception_4e/output
I0403 04:03:08.653375 21144 net.cpp:425] inception_4e/output <- inception_4e/1x1
I0403 04:03:08.653398 21144 net.cpp:425] inception_4e/output <- inception_4e/3x3
I0403 04:03:08.653415 21144 net.cpp:425] inception_4e/output <- inception_4e/5x5
I0403 04:03:08.653436 21144 net.cpp:425] inception_4e/output <- inception_4e/pool_proj
I0403 04:03:08.653457 21144 net.cpp:399] inception_4e/output -> inception_4e/output
I0403 04:03:08.653506 21144 net.cpp:141] Setting up inception_4e/output
I0403 04:03:08.653530 21144 net.cpp:148] Top shape: 24 832 14 14 (3913728)
I0403 04:03:08.653547 21144 net.cpp:156] Memory required for data: 1272556992
I0403 04:03:08.653563 21144 layer_factory.hpp:77] Creating layer pool4/3x3_s2
I0403 04:03:08.653587 21144 net.cpp:91] Creating Layer pool4/3x3_s2
I0403 04:03:08.653607 21144 net.cpp:425] pool4/3x3_s2 <- inception_4e/output
I0403 04:03:08.653630 21144 net.cpp:399] pool4/3x3_s2 -> pool4/3x3_s2
I0403 04:03:08.653683 21144 net.cpp:141] Setting up pool4/3x3_s2
I0403 04:03:08.653708 21144 net.cpp:148] Top shape: 24 832 7 7 (978432)
I0403 04:03:08.653724 21144 net.cpp:156] Memory required for data: 1276470720
I0403 04:03:08.653739 21144 layer_factory.hpp:77] Creating layer pool4/3x3_s2_pool4/3x3_s2_0_split
I0403 04:03:08.653761 21144 net.cpp:91] Creating Layer pool4/3x3_s2_pool4/3x3_s2_0_split
I0403 04:03:08.653779 21144 net.cpp:425] pool4/3x3_s2_pool4/3x3_s2_0_split <- pool4/3x3_s2
I0403 04:03:08.653815 21144 net.cpp:399] pool4/3x3_s2_pool4/3x3_s2_0_split -> pool4/3x3_s2_pool4/3x3_s2_0_split_0
I0403 04:03:08.653841 21144 net.cpp:399] pool4/3x3_s2_pool4/3x3_s2_0_split -> pool4/3x3_s2_pool4/3x3_s2_0_split_1
I0403 04:03:08.653866 21144 net.cpp:399] pool4/3x3_s2_pool4/3x3_s2_0_split -> pool4/3x3_s2_pool4/3x3_s2_0_split_2
I0403 04:03:08.653890 21144 net.cpp:399] pool4/3x3_s2_pool4/3x3_s2_0_split -> pool4/3x3_s2_pool4/3x3_s2_0_split_3
I0403 04:03:08.653959 21144 net.cpp:141] Setting up pool4/3x3_s2_pool4/3x3_s2_0_split
I0403 04:03:08.653983 21144 net.cpp:148] Top shape: 24 832 7 7 (978432)
I0403 04:03:08.654005 21144 net.cpp:148] Top shape: 24 832 7 7 (978432)
I0403 04:03:08.654028 21144 net.cpp:148] Top shape: 24 832 7 7 (978432)
I0403 04:03:08.654045 21144 net.cpp:148] Top shape: 24 832 7 7 (978432)
I0403 04:03:08.654062 21144 net.cpp:156] Memory required for data: 1292125632
I0403 04:03:08.654078 21144 layer_factory.hpp:77] Creating layer inception_5a/1x1
I0403 04:03:08.654104 21144 net.cpp:91] Creating Layer inception_5a/1x1
I0403 04:03:08.654125 21144 net.cpp:425] inception_5a/1x1 <- pool4/3x3_s2_pool4/3x3_s2_0_split_0
I0403 04:03:08.654148 21144 net.cpp:399] inception_5a/1x1 -> inception_5a/1x1
I0403 04:03:08.656112 21144 net.cpp:141] Setting up inception_5a/1x1
I0403 04:03:08.656142 21144 net.cpp:148] Top shape: 24 256 7 7 (301056)
I0403 04:03:08.656159 21144 net.cpp:156] Memory required for data: 1293329856
I0403 04:03:08.656178 21144 layer_factory.hpp:77] Creating layer inception_5a/relu_1x1
I0403 04:03:08.656198 21144 net.cpp:91] Creating Layer inception_5a/relu_1x1
I0403 04:03:08.656215 21144 net.cpp:425] inception_5a/relu_1x1 <- inception_5a/1x1
I0403 04:03:08.656237 21144 net.cpp:386] inception_5a/relu_1x1 -> inception_5a/1x1 (in-place)
I0403 04:03:08.656260 21144 net.cpp:141] Setting up inception_5a/relu_1x1
I0403 04:03:08.656280 21144 net.cpp:148] Top shape: 24 256 7 7 (301056)
I0403 04:03:08.656296 21144 net.cpp:156] Memory required for data: 1294534080
I0403 04:03:08.656311 21144 layer_factory.hpp:77] Creating layer inception_5a/3x3_reduce
I0403 04:03:08.656338 21144 net.cpp:91] Creating Layer inception_5a/3x3_reduce
I0403 04:03:08.656361 21144 net.cpp:425] inception_5a/3x3_reduce <- pool4/3x3_s2_pool4/3x3_s2_0_split_1
I0403 04:03:08.656384 21144 net.cpp:399] inception_5a/3x3_reduce -> inception_5a/3x3_reduce
I0403 04:03:08.657898 21144 net.cpp:141] Setting up inception_5a/3x3_reduce
I0403 04:03:08.657928 21144 net.cpp:148] Top shape: 24 160 7 7 (188160)
I0403 04:03:08.657945 21144 net.cpp:156] Memory required for data: 1295286720
I0403 04:03:08.657964 21144 layer_factory.hpp:77] Creating layer inception_5a/relu_3x3_reduce
I0403 04:03:08.657984 21144 net.cpp:91] Creating Layer inception_5a/relu_3x3_reduce
I0403 04:03:08.658004 21144 net.cpp:425] inception_5a/relu_3x3_reduce <- inception_5a/3x3_reduce
I0403 04:03:08.658026 21144 net.cpp:386] inception_5a/relu_3x3_reduce -> inception_5a/3x3_reduce (in-place)
I0403 04:03:08.658047 21144 net.cpp:141] Setting up inception_5a/relu_3x3_reduce
I0403 04:03:08.658067 21144 net.cpp:148] Top shape: 24 160 7 7 (188160)
I0403 04:03:08.658082 21144 net.cpp:156] Memory required for data: 1296039360
I0403 04:03:08.658098 21144 layer_factory.hpp:77] Creating layer inception_5a/3x3
I0403 04:03:08.658124 21144 net.cpp:91] Creating Layer inception_5a/3x3
I0403 04:03:08.658143 21144 net.cpp:425] inception_5a/3x3 <- inception_5a/3x3_reduce
I0403 04:03:08.658164 21144 net.cpp:399] inception_5a/3x3 -> inception_5a/3x3
I0403 04:03:08.662984 21144 net.cpp:141] Setting up inception_5a/3x3
I0403 04:03:08.663015 21144 net.cpp:148] Top shape: 24 320 7 7 (376320)
I0403 04:03:08.663033 21144 net.cpp:156] Memory required for data: 1297544640
I0403 04:03:08.663053 21144 layer_factory.hpp:77] Creating layer inception_5a/relu_3x3
I0403 04:03:08.663072 21144 net.cpp:91] Creating Layer inception_5a/relu_3x3
I0403 04:03:08.663091 21144 net.cpp:425] inception_5a/relu_3x3 <- inception_5a/3x3
I0403 04:03:08.663112 21144 net.cpp:386] inception_5a/relu_3x3 -> inception_5a/3x3 (in-place)
I0403 04:03:08.663151 21144 net.cpp:141] Setting up inception_5a/relu_3x3
I0403 04:03:08.663172 21144 net.cpp:148] Top shape: 24 320 7 7 (376320)
I0403 04:03:08.663188 21144 net.cpp:156] Memory required for data: 1299049920
I0403 04:03:08.663203 21144 layer_factory.hpp:77] Creating layer inception_5a/5x5_reduce
I0403 04:03:08.663228 21144 net.cpp:91] Creating Layer inception_5a/5x5_reduce
I0403 04:03:08.663249 21144 net.cpp:425] inception_5a/5x5_reduce <- pool4/3x3_s2_pool4/3x3_s2_0_split_2
I0403 04:03:08.663269 21144 net.cpp:399] inception_5a/5x5_reduce -> inception_5a/5x5_reduce
I0403 04:03:08.663660 21144 net.cpp:141] Setting up inception_5a/5x5_reduce
I0403 04:03:08.663687 21144 net.cpp:148] Top shape: 24 32 7 7 (37632)
I0403 04:03:08.663702 21144 net.cpp:156] Memory required for data: 1299200448
I0403 04:03:08.663722 21144 layer_factory.hpp:77] Creating layer inception_5a/relu_5x5_reduce
I0403 04:03:08.663741 21144 net.cpp:91] Creating Layer inception_5a/relu_5x5_reduce
I0403 04:03:08.663758 21144 net.cpp:425] inception_5a/relu_5x5_reduce <- inception_5a/5x5_reduce
I0403 04:03:08.663780 21144 net.cpp:386] inception_5a/relu_5x5_reduce -> inception_5a/5x5_reduce (in-place)
I0403 04:03:08.663802 21144 net.cpp:141] Setting up inception_5a/relu_5x5_reduce
I0403 04:03:08.663822 21144 net.cpp:148] Top shape: 24 32 7 7 (37632)
I0403 04:03:08.663837 21144 net.cpp:156] Memory required for data: 1299350976
I0403 04:03:08.663852 21144 layer_factory.hpp:77] Creating layer inception_5a/5x5
I0403 04:03:08.663877 21144 net.cpp:91] Creating Layer inception_5a/5x5
I0403 04:03:08.663897 21144 net.cpp:425] inception_5a/5x5 <- inception_5a/5x5_reduce
I0403 04:03:08.663918 21144 net.cpp:399] inception_5a/5x5 -> inception_5a/5x5
I0403 04:03:08.664728 21144 net.cpp:141] Setting up inception_5a/5x5
I0403 04:03:08.664758 21144 net.cpp:148] Top shape: 24 128 7 7 (150528)
I0403 04:03:08.664788 21144 net.cpp:156] Memory required for data: 1299953088
I0403 04:03:08.664808 21144 layer_factory.hpp:77] Creating layer inception_5a/relu_5x5
I0403 04:03:08.664826 21144 net.cpp:91] Creating Layer inception_5a/relu_5x5
I0403 04:03:08.664844 21144 net.cpp:425] inception_5a/relu_5x5 <- inception_5a/5x5
I0403 04:03:08.664862 21144 net.cpp:386] inception_5a/relu_5x5 -> inception_5a/5x5 (in-place)
I0403 04:03:08.664882 21144 net.cpp:141] Setting up inception_5a/relu_5x5
I0403 04:03:08.664901 21144 net.cpp:148] Top shape: 24 128 7 7 (150528)
I0403 04:03:08.664916 21144 net.cpp:156] Memory required for data: 1300555200
I0403 04:03:08.664930 21144 layer_factory.hpp:77] Creating layer inception_5a/pool
I0403 04:03:08.664949 21144 net.cpp:91] Creating Layer inception_5a/pool
I0403 04:03:08.664966 21144 net.cpp:425] inception_5a/pool <- pool4/3x3_s2_pool4/3x3_s2_0_split_3
I0403 04:03:08.664990 21144 net.cpp:399] inception_5a/pool -> inception_5a/pool
I0403 04:03:08.665046 21144 net.cpp:141] Setting up inception_5a/pool
I0403 04:03:08.665082 21144 net.cpp:148] Top shape: 24 832 7 7 (978432)
I0403 04:03:08.665097 21144 net.cpp:156] Memory required for data: 1304468928
I0403 04:03:08.665112 21144 layer_factory.hpp:77] Creating layer inception_5a/pool_proj
I0403 04:03:08.665135 21144 net.cpp:91] Creating Layer inception_5a/pool_proj
I0403 04:03:08.665154 21144 net.cpp:425] inception_5a/pool_proj <- inception_5a/pool
I0403 04:03:08.665175 21144 net.cpp:399] inception_5a/pool_proj -> inception_5a/pool_proj
I0403 04:03:08.667173 21144 net.cpp:141] Setting up inception_5a/pool_proj
I0403 04:03:08.667202 21144 net.cpp:148] Top shape: 24 128 7 7 (150528)
I0403 04:03:08.667218 21144 net.cpp:156] Memory required for data: 1305071040
I0403 04:03:08.667237 21144 layer_factory.hpp:77] Creating layer inception_5a/relu_pool_proj
I0403 04:03:08.667256 21144 net.cpp:91] Creating Layer inception_5a/relu_pool_proj
I0403 04:03:08.667274 21144 net.cpp:425] inception_5a/relu_pool_proj <- inception_5a/pool_proj
I0403 04:03:08.667292 21144 net.cpp:386] inception_5a/relu_pool_proj -> inception_5a/pool_proj (in-place)
I0403 04:03:08.667314 21144 net.cpp:141] Setting up inception_5a/relu_pool_proj
I0403 04:03:08.667346 21144 net.cpp:148] Top shape: 24 128 7 7 (150528)
I0403 04:03:08.667361 21144 net.cpp:156] Memory required for data: 1305673152
I0403 04:03:08.667376 21144 layer_factory.hpp:77] Creating layer inception_5a/output
I0403 04:03:08.667397 21144 net.cpp:91] Creating Layer inception_5a/output
I0403 04:03:08.667415 21144 net.cpp:425] inception_5a/output <- inception_5a/1x1
I0403 04:03:08.667433 21144 net.cpp:425] inception_5a/output <- inception_5a/3x3
I0403 04:03:08.667449 21144 net.cpp:425] inception_5a/output <- inception_5a/5x5
I0403 04:03:08.667472 21144 net.cpp:425] inception_5a/output <- inception_5a/pool_proj
I0403 04:03:08.667492 21144 net.cpp:399] inception_5a/output -> inception_5a/output
I0403 04:03:08.667533 21144 net.cpp:141] Setting up inception_5a/output
I0403 04:03:08.667556 21144 net.cpp:148] Top shape: 24 832 7 7 (978432)
I0403 04:03:08.667570 21144 net.cpp:156] Memory required for data: 1309586880
I0403 04:03:08.667585 21144 layer_factory.hpp:77] Creating layer inception_5a/output_inception_5a/output_0_split
I0403 04:03:08.667604 21144 net.cpp:91] Creating Layer inception_5a/output_inception_5a/output_0_split
I0403 04:03:08.667620 21144 net.cpp:425] inception_5a/output_inception_5a/output_0_split <- inception_5a/output
I0403 04:03:08.667640 21144 net.cpp:399] inception_5a/output_inception_5a/output_0_split -> inception_5a/output_inception_5a/output_0_split_0
I0403 04:03:08.667661 21144 net.cpp:399] inception_5a/output_inception_5a/output_0_split -> inception_5a/output_inception_5a/output_0_split_1
I0403 04:03:08.667683 21144 net.cpp:399] inception_5a/output_inception_5a/output_0_split -> inception_5a/output_inception_5a/output_0_split_2
I0403 04:03:08.667704 21144 net.cpp:399] inception_5a/output_inception_5a/output_0_split -> inception_5a/output_inception_5a/output_0_split_3
I0403 04:03:08.667773 21144 net.cpp:141] Setting up inception_5a/output_inception_5a/output_0_split
I0403 04:03:08.667798 21144 net.cpp:148] Top shape: 24 832 7 7 (978432)
I0403 04:03:08.667816 21144 net.cpp:148] Top shape: 24 832 7 7 (978432)
I0403 04:03:08.667834 21144 net.cpp:148] Top shape: 24 832 7 7 (978432)
I0403 04:03:08.667848 21144 net.cpp:148] Top shape: 24 832 7 7 (978432)
I0403 04:03:08.667862 21144 net.cpp:156] Memory required for data: 1325241792
I0403 04:03:08.667877 21144 layer_factory.hpp:77] Creating layer inception_5b/1x1
I0403 04:03:08.667901 21144 net.cpp:91] Creating Layer inception_5b/1x1
I0403 04:03:08.667918 21144 net.cpp:425] inception_5b/1x1 <- inception_5a/output_inception_5a/output_0_split_0
I0403 04:03:08.667938 21144 net.cpp:399] inception_5b/1x1 -> inception_5b/1x1
I0403 04:03:08.671655 21144 net.cpp:141] Setting up inception_5b/1x1
I0403 04:03:08.671685 21144 net.cpp:148] Top shape: 24 384 7 7 (451584)
I0403 04:03:08.671701 21144 net.cpp:156] Memory required for data: 1327048128
I0403 04:03:08.671721 21144 layer_factory.hpp:77] Creating layer inception_5b/relu_1x1
I0403 04:03:08.671744 21144 net.cpp:91] Creating Layer inception_5b/relu_1x1
I0403 04:03:08.671769 21144 net.cpp:425] inception_5b/relu_1x1 <- inception_5b/1x1
I0403 04:03:08.671794 21144 net.cpp:386] inception_5b/relu_1x1 -> inception_5b/1x1 (in-place)
I0403 04:03:08.671815 21144 net.cpp:141] Setting up inception_5b/relu_1x1
I0403 04:03:08.671834 21144 net.cpp:148] Top shape: 24 384 7 7 (451584)
I0403 04:03:08.671849 21144 net.cpp:156] Memory required for data: 1328854464
I0403 04:03:08.671864 21144 layer_factory.hpp:77] Creating layer inception_5b/3x3_reduce
I0403 04:03:08.671888 21144 net.cpp:91] Creating Layer inception_5b/3x3_reduce
I0403 04:03:08.671908 21144 net.cpp:425] inception_5b/3x3_reduce <- inception_5a/output_inception_5a/output_0_split_1
I0403 04:03:08.671931 21144 net.cpp:399] inception_5b/3x3_reduce -> inception_5b/3x3_reduce
I0403 04:03:08.675060 21144 net.cpp:141] Setting up inception_5b/3x3_reduce
I0403 04:03:08.675089 21144 net.cpp:148] Top shape: 24 192 7 7 (225792)
I0403 04:03:08.675107 21144 net.cpp:156] Memory required for data: 1329757632
I0403 04:03:08.675127 21144 layer_factory.hpp:77] Creating layer inception_5b/relu_3x3_reduce
I0403 04:03:08.675159 21144 net.cpp:91] Creating Layer inception_5b/relu_3x3_reduce
I0403 04:03:08.675179 21144 net.cpp:425] inception_5b/relu_3x3_reduce <- inception_5b/3x3_reduce
I0403 04:03:08.675199 21144 net.cpp:386] inception_5b/relu_3x3_reduce -> inception_5b/3x3_reduce (in-place)
I0403 04:03:08.675220 21144 net.cpp:141] Setting up inception_5b/relu_3x3_reduce
I0403 04:03:08.675238 21144 net.cpp:148] Top shape: 24 192 7 7 (225792)
I0403 04:03:08.675253 21144 net.cpp:156] Memory required for data: 1330660800
I0403 04:03:08.675268 21144 layer_factory.hpp:77] Creating layer inception_5b/3x3
I0403 04:03:08.675292 21144 net.cpp:91] Creating Layer inception_5b/3x3
I0403 04:03:08.675312 21144 net.cpp:425] inception_5b/3x3 <- inception_5b/3x3_reduce
I0403 04:03:08.675334 21144 net.cpp:399] inception_5b/3x3 -> inception_5b/3x3
I0403 04:03:08.681630 21144 net.cpp:141] Setting up inception_5b/3x3
I0403 04:03:08.681659 21144 net.cpp:148] Top shape: 24 384 7 7 (451584)
I0403 04:03:08.681675 21144 net.cpp:156] Memory required for data: 1332467136
I0403 04:03:08.681695 21144 layer_factory.hpp:77] Creating layer inception_5b/relu_3x3
I0403 04:03:08.681716 21144 net.cpp:91] Creating Layer inception_5b/relu_3x3
I0403 04:03:08.681735 21144 net.cpp:425] inception_5b/relu_3x3 <- inception_5b/3x3
I0403 04:03:08.681754 21144 net.cpp:386] inception_5b/relu_3x3 -> inception_5b/3x3 (in-place)
I0403 04:03:08.681774 21144 net.cpp:141] Setting up inception_5b/relu_3x3
I0403 04:03:08.681793 21144 net.cpp:148] Top shape: 24 384 7 7 (451584)
I0403 04:03:08.681809 21144 net.cpp:156] Memory required for data: 1334273472
I0403 04:03:08.681823 21144 layer_factory.hpp:77] Creating layer inception_5b/5x5_reduce
I0403 04:03:08.681848 21144 net.cpp:91] Creating Layer inception_5b/5x5_reduce
I0403 04:03:08.681866 21144 net.cpp:425] inception_5b/5x5_reduce <- inception_5a/output_inception_5a/output_0_split_2
I0403 04:03:08.681887 21144 net.cpp:399] inception_5b/5x5_reduce -> inception_5b/5x5_reduce
I0403 04:03:08.682868 21144 net.cpp:141] Setting up inception_5b/5x5_reduce
I0403 04:03:08.682896 21144 net.cpp:148] Top shape: 24 48 7 7 (56448)
I0403 04:03:08.682914 21144 net.cpp:156] Memory required for data: 1334499264
I0403 04:03:08.682934 21144 layer_factory.hpp:77] Creating layer inception_5b/relu_5x5_reduce
I0403 04:03:08.682952 21144 net.cpp:91] Creating Layer inception_5b/relu_5x5_reduce
I0403 04:03:08.682973 21144 net.cpp:425] inception_5b/relu_5x5_reduce <- inception_5b/5x5_reduce
I0403 04:03:08.682992 21144 net.cpp:386] inception_5b/relu_5x5_reduce -> inception_5b/5x5_reduce (in-place)
I0403 04:03:08.683014 21144 net.cpp:141] Setting up inception_5b/relu_5x5_reduce
I0403 04:03:08.683033 21144 net.cpp:148] Top shape: 24 48 7 7 (56448)
I0403 04:03:08.683049 21144 net.cpp:156] Memory required for data: 1334725056
I0403 04:03:08.683063 21144 layer_factory.hpp:77] Creating layer inception_5b/5x5
I0403 04:03:08.683087 21144 net.cpp:91] Creating Layer inception_5b/5x5
I0403 04:03:08.683106 21144 net.cpp:425] inception_5b/5x5 <- inception_5b/5x5_reduce
I0403 04:03:08.683127 21144 net.cpp:399] inception_5b/5x5 -> inception_5b/5x5
I0403 04:03:08.684203 21144 net.cpp:141] Setting up inception_5b/5x5
I0403 04:03:08.684229 21144 net.cpp:148] Top shape: 24 128 7 7 (150528)
I0403 04:03:08.684245 21144 net.cpp:156] Memory required for data: 1335327168
I0403 04:03:08.684263 21144 layer_factory.hpp:77] Creating layer inception_5b/relu_5x5
I0403 04:03:08.684283 21144 net.cpp:91] Creating Layer inception_5b/relu_5x5
I0403 04:03:08.684306 21144 net.cpp:425] inception_5b/relu_5x5 <- inception_5b/5x5
I0403 04:03:08.684334 21144 net.cpp:386] inception_5b/relu_5x5 -> inception_5b/5x5 (in-place)
I0403 04:03:08.684356 21144 net.cpp:141] Setting up inception_5b/relu_5x5
I0403 04:03:08.684377 21144 net.cpp:148] Top shape: 24 128 7 7 (150528)
I0403 04:03:08.684392 21144 net.cpp:156] Memory required for data: 1335929280
I0403 04:03:08.684406 21144 layer_factory.hpp:77] Creating layer inception_5b/pool
I0403 04:03:08.684425 21144 net.cpp:91] Creating Layer inception_5b/pool
I0403 04:03:08.684458 21144 net.cpp:425] inception_5b/pool <- inception_5a/output_inception_5a/output_0_split_3
I0403 04:03:08.684484 21144 net.cpp:399] inception_5b/pool -> inception_5b/pool
I0403 04:03:08.684542 21144 net.cpp:141] Setting up inception_5b/pool
I0403 04:03:08.684567 21144 net.cpp:148] Top shape: 24 832 7 7 (978432)
I0403 04:03:08.684582 21144 net.cpp:156] Memory required for data: 1339843008
I0403 04:03:08.684597 21144 layer_factory.hpp:77] Creating layer inception_5b/pool_proj
I0403 04:03:08.684622 21144 net.cpp:91] Creating Layer inception_5b/pool_proj
I0403 04:03:08.684641 21144 net.cpp:425] inception_5b/pool_proj <- inception_5b/pool
I0403 04:03:08.684665 21144 net.cpp:399] inception_5b/pool_proj -> inception_5b/pool_proj
I0403 04:03:08.685992 21144 net.cpp:141] Setting up inception_5b/pool_proj
I0403 04:03:08.686022 21144 net.cpp:148] Top shape: 24 128 7 7 (150528)
I0403 04:03:08.686038 21144 net.cpp:156] Memory required for data: 1340445120
I0403 04:03:08.686058 21144 layer_factory.hpp:77] Creating layer inception_5b/relu_pool_proj
I0403 04:03:08.686077 21144 net.cpp:91] Creating Layer inception_5b/relu_pool_proj
I0403 04:03:08.686094 21144 net.cpp:425] inception_5b/relu_pool_proj <- inception_5b/pool_proj
I0403 04:03:08.686116 21144 net.cpp:386] inception_5b/relu_pool_proj -> inception_5b/pool_proj (in-place)
I0403 04:03:08.686138 21144 net.cpp:141] Setting up inception_5b/relu_pool_proj
I0403 04:03:08.686158 21144 net.cpp:148] Top shape: 24 128 7 7 (150528)
I0403 04:03:08.686173 21144 net.cpp:156] Memory required for data: 1341047232
I0403 04:03:08.686189 21144 layer_factory.hpp:77] Creating layer inception_5b/output
I0403 04:03:08.686208 21144 net.cpp:91] Creating Layer inception_5b/output
I0403 04:03:08.686225 21144 net.cpp:425] inception_5b/output <- inception_5b/1x1
I0403 04:03:08.686244 21144 net.cpp:425] inception_5b/output <- inception_5b/3x3
I0403 04:03:08.686261 21144 net.cpp:425] inception_5b/output <- inception_5b/5x5
I0403 04:03:08.686278 21144 net.cpp:425] inception_5b/output <- inception_5b/pool_proj
I0403 04:03:08.686300 21144 net.cpp:399] inception_5b/output -> inception_5b/output
I0403 04:03:08.686339 21144 net.cpp:141] Setting up inception_5b/output
I0403 04:03:08.686363 21144 net.cpp:148] Top shape: 24 1024 7 7 (1204224)
I0403 04:03:08.686378 21144 net.cpp:156] Memory required for data: 1345864128
I0403 04:03:08.686394 21144 layer_factory.hpp:77] Creating layer pool5/7x7_s1
I0403 04:03:08.686417 21144 net.cpp:91] Creating Layer pool5/7x7_s1
I0403 04:03:08.686436 21144 net.cpp:425] pool5/7x7_s1 <- inception_5b/output
I0403 04:03:08.686455 21144 net.cpp:399] pool5/7x7_s1 -> pool5/7x7_s1
I0403 04:03:08.686502 21144 net.cpp:141] Setting up pool5/7x7_s1
I0403 04:03:08.686527 21144 net.cpp:148] Top shape: 24 1024 1 1 (24576)
I0403 04:03:08.686542 21144 net.cpp:156] Memory required for data: 1345962432
I0403 04:03:08.686558 21144 layer_factory.hpp:77] Creating layer pool5/drop_7x7_s1
I0403 04:03:08.686578 21144 net.cpp:91] Creating Layer pool5/drop_7x7_s1
I0403 04:03:08.686594 21144 net.cpp:425] pool5/drop_7x7_s1 <- pool5/7x7_s1
I0403 04:03:08.686615 21144 net.cpp:386] pool5/drop_7x7_s1 -> pool5/7x7_s1 (in-place)
I0403 04:03:08.686655 21144 net.cpp:141] Setting up pool5/drop_7x7_s1
I0403 04:03:08.686681 21144 net.cpp:148] Top shape: 24 1024 1 1 (24576)
I0403 04:03:08.686697 21144 net.cpp:156] Memory required for data: 1346060736
I0403 04:03:08.686713 21144 layer_factory.hpp:77] Creating layer loss3/classifier_plantvillage
I0403 04:03:08.686735 21144 net.cpp:91] Creating Layer loss3/classifier_plantvillage
I0403 04:03:08.686753 21144 net.cpp:425] loss3/classifier_plantvillage <- pool5/7x7_s1
I0403 04:03:08.686775 21144 net.cpp:399] loss3/classifier_plantvillage -> loss3/classifier_plantvillage
I0403 04:03:08.687108 21144 net.cpp:141] Setting up loss3/classifier_plantvillage
I0403 04:03:08.687132 21144 net.cpp:148] Top shape: 24 38 (912)
I0403 04:03:08.687149 21144 net.cpp:156] Memory required for data: 1346064384
I0403 04:03:08.687167 21144 layer_factory.hpp:77] Creating layer loss3/classifier_plantvillage_loss3/classifier_plantvillage_0_split
I0403 04:03:08.687203 21144 net.cpp:91] Creating Layer loss3/classifier_plantvillage_loss3/classifier_plantvillage_0_split
I0403 04:03:08.687223 21144 net.cpp:425] loss3/classifier_plantvillage_loss3/classifier_plantvillage_0_split <- loss3/classifier_plantvillage
I0403 04:03:08.687242 21144 net.cpp:399] loss3/classifier_plantvillage_loss3/classifier_plantvillage_0_split -> loss3/classifier_plantvillage_loss3/classifier_plantvillage_0_split_0
I0403 04:03:08.687265 21144 net.cpp:399] loss3/classifier_plantvillage_loss3/classifier_plantvillage_0_split -> loss3/classifier_plantvillage_loss3/classifier_plantvillage_0_split_1
I0403 04:03:08.687288 21144 net.cpp:399] loss3/classifier_plantvillage_loss3/classifier_plantvillage_0_split -> loss3/classifier_plantvillage_loss3/classifier_plantvillage_0_split_2
I0403 04:03:08.687353 21144 net.cpp:141] Setting up loss3/classifier_plantvillage_loss3/classifier_plantvillage_0_split
I0403 04:03:08.687377 21144 net.cpp:148] Top shape: 24 38 (912)
I0403 04:03:08.687394 21144 net.cpp:148] Top shape: 24 38 (912)
I0403 04:03:08.687410 21144 net.cpp:148] Top shape: 24 38 (912)
I0403 04:03:08.687427 21144 net.cpp:156] Memory required for data: 1346075328
I0403 04:03:08.687441 21144 layer_factory.hpp:77] Creating layer loss1/loss
I0403 04:03:08.687464 21144 net.cpp:91] Creating Layer loss1/loss
I0403 04:03:08.687496 21144 net.cpp:425] loss1/loss <- loss1/classifier_plantvillage_loss1/classifier_plantvillage_0_split_0
I0403 04:03:08.687515 21144 net.cpp:425] loss1/loss <- label_data_1_split_0
…
