…
I0403 14:39:28.016037 17321 net.cpp:313] The NetState phase (1) differed from the phase (0) specified by a rule in layer data
I0403 14:39:28.016366 17321 net.cpp:49] Initializing net from parameters: 
state {
  phase: TEST
}
layer {
  name: "data"
  type: "Data"
  top: "data"
  top: "label"
  include {
    phase: TEST
  }
  transform_param {
    crop_size: 227
    mean_file: "/home/mohanty/data/final_dataset/lmdb/grayscale-40-60/mean.binaryproto"
  }
  data_param {
    source: "/home/mohanty/data/final_dataset/lmdb/grayscale-40-60/test_db"
    batch_size: 100
    backend: LMDB
  }
}
layer {
  name: "conv1"
  type: "Convolution"
  bottom: "data"
  top: "conv1"
  param {
    lr_mult: 1
    decay_mult: 1
  }
  param {
    lr_mult: 2
    decay_mult: 0
  }
  convolution_param {
    num_output: 96
    kernel_size: 11
    stride: 4
    weight_filler {
      type: "gaussian"
      std: 0.01
    }
    bias_filler {
      type: "constant"
      value: 0
    }
  }
}
layer {
  name: "relu1"
  type: "ReLU"
  bottom: "conv1"
  top: "conv1"
}
layer {
  name: "norm1"
  type: "LRN"
  bottom: "conv1"
  top: "norm1"
  lrn_param {
    local_size: 5
    alpha: 0.0001
    beta: 0.75
  }
}
layer {
  name: "pool1"
  type: "Pooling"
  bottom: "norm1"
  top: "pool1"
  pooling_param {
    pool: MAX
    kernel_size: 3
    stride: 2
  }
}
layer {
  name: "conv2"
  type: "Convolution"
  bottom: "pool1"
  top: "conv2"
  param {
    lr_mult: 1
    decay_mult: 1
  }
  param {
    lr_mult: 2
    decay_mult: 0
  }
  convolution_param {
    num_output: 256
    pad: 2
    kernel_size: 5
    group: 2
    weight_filler {
      type: "gaussian"
      std: 0.01
    }
    bias_filler {
      type: "constant"
      value: 0.1
    }
  }
}
layer {
  name: "relu2"
  type: "ReLU"
  bottom: "conv2"
  top: "conv2"
}
layer {
  name: "norm2"
  type: "LRN"
  bottom: "conv2"
  top: "norm2"
  lrn_param {
    local_size: 5
    alpha: 0.0001
    beta: 0.75
  }
}
layer {
  name: "pool2"
  type: "Pooling"
  bottom: "norm2"
  top: "pool2"
  pooling_param {
    pool: MAX
    kernel_size: 3
    stride: 2
  }
}
layer {
  name: "conv3"
  type: "Convolution"
  bottom: "pool2"
  top: "conv3"
  param {
    lr_mult: 1
    decay_mult: 1
  }
  param {
    lr_mult: 2
    decay_mult: 0
  }
  convolution_param {
    num_output: 384
    pad: 1
    kernel_size: 3
    weight_filler {
      type: "gaussian"
      std: 0.01
    }
    bias_filler {
      type: "constant"
      value: 0
    }
  }
}
layer {
  name: "relu3"
  type: "ReLU"
  bottom: "conv3"
  top: "conv3"
}
layer {
  name: "conv4"
  type: "Convolution"
  bottom: "conv3"
  top: "conv4"
  param {
    lr_mult: 1
    decay_mult: 1
  }
  param {
    lr_mult: 2
    decay_mult: 0
  }
  convolution_param {
    num_output: 384
    pad: 1
    kernel_size: 3
    group: 2
    weight_filler {
      type: "gaussian"
      std: 0.01
    }
    bias_filler {
      type: "constant"
      value: 0.1
    }
  }
}
layer {
  name: "relu4"
  type: "ReLU"
  bottom: "conv4"
  top: "conv4"
}
layer {
  name: "conv5"
  type: "Convolution"
  bottom: "conv4"
  top: "conv5"
  param {
    lr_mult: 1
    decay_mult: 1
  }
  param {
    lr_mult: 2
    decay_mult: 0
  }
  convolution_param {
    num_output: 256
    pad: 1
    kernel_size: 3
    group: 2
    weight_filler {
      type: "gaussian"
      std: 0.01
    }
    bias_filler {
      type: "constant"
      value: 0.1
    }
  }
}
layer {
  name: "relu5"
  type: "ReLU"
  bottom: "conv5"
  top: "conv5"
}
layer {
  name: "pool5"
  type: "Pooling"
  bottom: "conv5"
  top: "pool5"
  pooling_param {
    pool: MAX
    kernel_size: 3
    stride: 2
  }
}
layer {
  name: "fc6"
  type: "InnerProduct"
  bottom: "pool5"
  top: "fc6"
  param {
    lr_mult: 1
    decay_mult: 1
  }
  param {
    lr_mult: 2
    decay_mult: 0
  }
  inner_product_param {
    num_output: 4096
    weight_filler {
      type: "gaussian"
      std: 0.005
    }
    bias_filler {
      type: "constant"
      value: 0.1
    }
  }
}
layer {
  name: "relu6"
  type: "ReLU"
  bottom: "fc6"
  top: "fc6"
}
layer {
  name: "drop6"
  type: "Dropout"
  bottom: "fc6"
  top: "fc6"
  dropout_param {
    dropout_ratio: 0.5
  }
}
layer {
  name: "fc7"
  type: "InnerProduct"
  bottom: "fc6"
  top: "fc7"
  param {
    lr_mult: 1
    decay_mult: 1
  }
  param {
    lr_mult: 2
    decay_mult: 0
  }
  inner_product_param {
    num_output: 4096
    weight_filler {
      type: "gaussian"
      std: 0.005
    }
    bias_filler {
      type: "constant"
      value: 0.1
    }
  }
}
layer {
  name: "relu7"
  type: "ReLU"
  bottom: "fc7"
  top: "fc7"
}
layer {
  name: "drop7"
  type: "Dropout"
  bottom: "fc7"
  top: "fc7"
  dropout_param {
    dropout_ratio: 0.5
  }
}
layer {
  name: "fc8_plantvillage"
  type: "InnerProduct"
  bottom: "fc7"
  top: "fc8_plantvillage"
  param {
    lr_mult: 1
    decay_mult: 1
  }
  param {
    lr_mult: 2
    decay_mult: 0
  }
  inner_product_param {
    num_output: 38
    weight_filler {
      type: "gaussian"
      std: 0.01
    }
    bias_filler {
      type: "constant"
      value: 0
    }
  }
}
layer {
  name: "prob"
  type: "Softmax"
  bottom: "fc8_plantvillage"
  top: "prob"
  include {
    phase: TEST
  }
}
layer {
  name: "hdf5out"
  type: "HDF5Output"
  bottom: "prob"
  bottom: "label"
  include {
    phase: TEST
  }
  hdf5_output_param {
    file_name: "hdf5_dumps/iter_2847.h5"
  }
}
layer {
  name: "loss"
  type: "SoftmaxWithLoss"
  bottom: "fc8_plantvillage"
  bottom: "label"
  top: "loss"
}
layer {
  name: "accuracy"
  type: "Accuracy"
  bottom: "fc8_plantvillage"
  bottom: "label"
  top: "accuracy"
  include {
    phase: TEST
  }
}
I0403 14:39:28.016921 17321 layer_factory.hpp:77] Creating layer data
I0403 14:39:28.017559 17321 net.cpp:91] Creating Layer data
I0403 14:39:28.017592 17321 net.cpp:399] data -> data
I0403 14:39:28.017642 17321 net.cpp:399] data -> label
I0403 14:39:28.017679 17321 data_transformer.cpp:25] Loading mean file from: /home/mohanty/data/final_dataset/lmdb/grayscale-40-60/mean.binaryproto
I0403 14:39:28.020865 17326 db_lmdb.cpp:38] Opened lmdb /home/mohanty/data/final_dataset/lmdb/grayscale-40-60/test_db
I0403 14:39:28.031890 17321 data_layer.cpp:41] output data size: 100,3,227,227
I0403 14:39:28.149461 17321 net.cpp:141] Setting up data
I0403 14:39:28.149570 17321 net.cpp:148] Top shape: 100 3 227 227 (15458700)
I0403 14:39:28.149595 17321 net.cpp:148] Top shape: 100 (100)
I0403 14:39:28.149610 17321 net.cpp:156] Memory required for data: 61835200
I0403 14:39:28.149637 17321 layer_factory.hpp:77] Creating layer label_data_1_split
I0403 14:39:28.149663 17321 net.cpp:91] Creating Layer label_data_1_split
I0403 14:39:28.149680 17321 net.cpp:425] label_data_1_split <- label
I0403 14:39:28.149713 17321 net.cpp:399] label_data_1_split -> label_data_1_split_0
I0403 14:39:28.149740 17321 net.cpp:399] label_data_1_split -> label_data_1_split_1
I0403 14:39:28.149760 17321 net.cpp:399] label_data_1_split -> label_data_1_split_2
I0403 14:39:28.149822 17321 net.cpp:141] Setting up label_data_1_split
I0403 14:39:28.149847 17321 net.cpp:148] Top shape: 100 (100)
I0403 14:39:28.149863 17321 net.cpp:148] Top shape: 100 (100)
I0403 14:39:28.149878 17321 net.cpp:148] Top shape: 100 (100)
I0403 14:39:28.149891 17321 net.cpp:156] Memory required for data: 61836400
I0403 14:39:28.149905 17321 layer_factory.hpp:77] Creating layer conv1
I0403 14:39:28.149937 17321 net.cpp:91] Creating Layer conv1
I0403 14:39:28.149956 17321 net.cpp:425] conv1 <- data
I0403 14:39:28.149976 17321 net.cpp:399] conv1 -> conv1
I0403 14:39:28.289587 17321 net.cpp:141] Setting up conv1
I0403 14:39:28.289677 17321 net.cpp:148] Top shape: 100 96 55 55 (29040000)
I0403 14:39:28.289696 17321 net.cpp:156] Memory required for data: 177996400
I0403 14:39:28.289728 17321 layer_factory.hpp:77] Creating layer relu1
I0403 14:39:28.289755 17321 net.cpp:91] Creating Layer relu1
I0403 14:39:28.289773 17321 net.cpp:425] relu1 <- conv1
I0403 14:39:28.289793 17321 net.cpp:386] relu1 -> conv1 (in-place)
I0403 14:39:28.290076 17321 net.cpp:141] Setting up relu1
I0403 14:39:28.290104 17321 net.cpp:148] Top shape: 100 96 55 55 (29040000)
I0403 14:39:28.290153 17321 net.cpp:156] Memory required for data: 294156400
I0403 14:39:28.290171 17321 layer_factory.hpp:77] Creating layer norm1
I0403 14:39:28.290200 17321 net.cpp:91] Creating Layer norm1
I0403 14:39:28.290220 17321 net.cpp:425] norm1 <- conv1
I0403 14:39:28.290238 17321 net.cpp:399] norm1 -> norm1
I0403 14:39:28.290539 17321 net.cpp:141] Setting up norm1
I0403 14:39:28.290567 17321 net.cpp:148] Top shape: 100 96 55 55 (29040000)
I0403 14:39:28.290583 17321 net.cpp:156] Memory required for data: 410316400
I0403 14:39:28.290599 17321 layer_factory.hpp:77] Creating layer pool1
I0403 14:39:28.290621 17321 net.cpp:91] Creating Layer pool1
I0403 14:39:28.290639 17321 net.cpp:425] pool1 <- norm1
I0403 14:39:28.290657 17321 net.cpp:399] pool1 -> pool1
I0403 14:39:28.290722 17321 net.cpp:141] Setting up pool1
I0403 14:39:28.290747 17321 net.cpp:148] Top shape: 100 96 27 27 (6998400)
I0403 14:39:28.290763 17321 net.cpp:156] Memory required for data: 438310000
I0403 14:39:28.290778 17321 layer_factory.hpp:77] Creating layer conv2
I0403 14:39:28.290803 17321 net.cpp:91] Creating Layer conv2
I0403 14:39:28.290818 17321 net.cpp:425] conv2 <- pool1
I0403 14:39:28.290837 17321 net.cpp:399] conv2 -> conv2
I0403 14:39:28.306130 17321 net.cpp:141] Setting up conv2
I0403 14:39:28.306190 17321 net.cpp:148] Top shape: 100 256 27 27 (18662400)
I0403 14:39:28.306210 17321 net.cpp:156] Memory required for data: 512959600
I0403 14:39:28.306233 17321 layer_factory.hpp:77] Creating layer relu2
I0403 14:39:28.306254 17321 net.cpp:91] Creating Layer relu2
I0403 14:39:28.306272 17321 net.cpp:425] relu2 <- conv2
I0403 14:39:28.306289 17321 net.cpp:386] relu2 -> conv2 (in-place)
I0403 14:39:28.306618 17321 net.cpp:141] Setting up relu2
I0403 14:39:28.306648 17321 net.cpp:148] Top shape: 100 256 27 27 (18662400)
I0403 14:39:28.306664 17321 net.cpp:156] Memory required for data: 587609200
I0403 14:39:28.306679 17321 layer_factory.hpp:77] Creating layer norm2
I0403 14:39:28.306700 17321 net.cpp:91] Creating Layer norm2
I0403 14:39:28.306716 17321 net.cpp:425] norm2 <- conv2
I0403 14:39:28.306737 17321 net.cpp:399] norm2 -> norm2
I0403 14:39:28.306936 17321 net.cpp:141] Setting up norm2
I0403 14:39:28.306962 17321 net.cpp:148] Top shape: 100 256 27 27 (18662400)
I0403 14:39:28.306983 17321 net.cpp:156] Memory required for data: 662258800
I0403 14:39:28.306998 17321 layer_factory.hpp:77] Creating layer pool2
I0403 14:39:28.307018 17321 net.cpp:91] Creating Layer pool2
I0403 14:39:28.307032 17321 net.cpp:425] pool2 <- norm2
I0403 14:39:28.307054 17321 net.cpp:399] pool2 -> pool2
I0403 14:39:28.307109 17321 net.cpp:141] Setting up pool2
I0403 14:39:28.307132 17321 net.cpp:148] Top shape: 100 256 13 13 (4326400)
I0403 14:39:28.307147 17321 net.cpp:156] Memory required for data: 679564400
I0403 14:39:28.307163 17321 layer_factory.hpp:77] Creating layer conv3
I0403 14:39:28.307186 17321 net.cpp:91] Creating Layer conv3
I0403 14:39:28.307204 17321 net.cpp:425] conv3 <- pool2
I0403 14:39:28.307225 17321 net.cpp:399] conv3 -> conv3
I0403 14:39:28.348837 17321 net.cpp:141] Setting up conv3
I0403 14:39:28.348927 17321 net.cpp:148] Top shape: 100 384 13 13 (6489600)
I0403 14:39:28.348942 17321 net.cpp:156] Memory required for data: 705522800
I0403 14:39:28.348969 17321 layer_factory.hpp:77] Creating layer relu3
I0403 14:39:28.348995 17321 net.cpp:91] Creating Layer relu3
I0403 14:39:28.349014 17321 net.cpp:425] relu3 <- conv3
I0403 14:39:28.349033 17321 net.cpp:386] relu3 -> conv3 (in-place)
I0403 14:39:28.349315 17321 net.cpp:141] Setting up relu3
I0403 14:39:28.349342 17321 net.cpp:148] Top shape: 100 384 13 13 (6489600)
I0403 14:39:28.349359 17321 net.cpp:156] Memory required for data: 731481200
I0403 14:39:28.349373 17321 layer_factory.hpp:77] Creating layer conv4
I0403 14:39:28.349400 17321 net.cpp:91] Creating Layer conv4
I0403 14:39:28.349417 17321 net.cpp:425] conv4 <- conv3
I0403 14:39:28.349436 17321 net.cpp:399] conv4 -> conv4
I0403 14:39:28.379904 17321 net.cpp:141] Setting up conv4
I0403 14:39:28.379990 17321 net.cpp:148] Top shape: 100 384 13 13 (6489600)
I0403 14:39:28.380039 17321 net.cpp:156] Memory required for data: 757439600
I0403 14:39:28.380066 17321 layer_factory.hpp:77] Creating layer relu4
I0403 14:39:28.380091 17321 net.cpp:91] Creating Layer relu4
I0403 14:39:28.380110 17321 net.cpp:425] relu4 <- conv4
I0403 14:39:28.380131 17321 net.cpp:386] relu4 -> conv4 (in-place)
I0403 14:39:28.380412 17321 net.cpp:141] Setting up relu4
I0403 14:39:28.380439 17321 net.cpp:148] Top shape: 100 384 13 13 (6489600)
I0403 14:39:28.380455 17321 net.cpp:156] Memory required for data: 783398000
I0403 14:39:28.380470 17321 layer_factory.hpp:77] Creating layer conv5
I0403 14:39:28.380496 17321 net.cpp:91] Creating Layer conv5
I0403 14:39:28.380514 17321 net.cpp:425] conv5 <- conv4
I0403 14:39:28.380537 17321 net.cpp:399] conv5 -> conv5
I0403 14:39:28.401454 17321 net.cpp:141] Setting up conv5
I0403 14:39:28.401492 17321 net.cpp:148] Top shape: 100 256 13 13 (4326400)
I0403 14:39:28.401509 17321 net.cpp:156] Memory required for data: 800703600
I0403 14:39:28.401549 17321 layer_factory.hpp:77] Creating layer relu5
I0403 14:39:28.401572 17321 net.cpp:91] Creating Layer relu5
I0403 14:39:28.401589 17321 net.cpp:425] relu5 <- conv5
I0403 14:39:28.401608 17321 net.cpp:386] relu5 -> conv5 (in-place)
I0403 14:39:28.401903 17321 net.cpp:141] Setting up relu5
I0403 14:39:28.401932 17321 net.cpp:148] Top shape: 100 256 13 13 (4326400)
I0403 14:39:28.401947 17321 net.cpp:156] Memory required for data: 818009200
I0403 14:39:28.401962 17321 layer_factory.hpp:77] Creating layer pool5
I0403 14:39:28.401983 17321 net.cpp:91] Creating Layer pool5
I0403 14:39:28.401998 17321 net.cpp:425] pool5 <- conv5
I0403 14:39:28.402019 17321 net.cpp:399] pool5 -> pool5
I0403 14:39:28.402082 17321 net.cpp:141] Setting up pool5
I0403 14:39:28.402107 17321 net.cpp:148] Top shape: 100 256 6 6 (921600)
I0403 14:39:28.402119 17321 net.cpp:156] Memory required for data: 821695600
I0403 14:39:28.402134 17321 layer_factory.hpp:77] Creating layer fc6
I0403 14:39:28.402163 17321 net.cpp:91] Creating Layer fc6
I0403 14:39:28.402180 17321 net.cpp:425] fc6 <- pool5
I0403 14:39:28.402200 17321 net.cpp:399] fc6 -> fc6
I0403 14:39:29.988777 17321 net.cpp:141] Setting up fc6
I0403 14:39:29.988857 17321 net.cpp:148] Top shape: 100 4096 (409600)
I0403 14:39:29.988874 17321 net.cpp:156] Memory required for data: 823334000
I0403 14:39:29.988898 17321 layer_factory.hpp:77] Creating layer relu6
I0403 14:39:29.988920 17321 net.cpp:91] Creating Layer relu6
I0403 14:39:29.988939 17321 net.cpp:425] relu6 <- fc6
I0403 14:39:29.988962 17321 net.cpp:386] relu6 -> fc6 (in-place)
I0403 14:39:29.989195 17321 net.cpp:141] Setting up relu6
I0403 14:39:29.989225 17321 net.cpp:148] Top shape: 100 4096 (409600)
I0403 14:39:29.989241 17321 net.cpp:156] Memory required for data: 824972400
I0403 14:39:29.989256 17321 layer_factory.hpp:77] Creating layer drop6
I0403 14:39:29.989276 17321 net.cpp:91] Creating Layer drop6
I0403 14:39:29.989292 17321 net.cpp:425] drop6 <- fc6
I0403 14:39:29.989310 17321 net.cpp:386] drop6 -> fc6 (in-place)
I0403 14:39:29.989367 17321 net.cpp:141] Setting up drop6
I0403 14:39:29.989389 17321 net.cpp:148] Top shape: 100 4096 (409600)
I0403 14:39:29.989405 17321 net.cpp:156] Memory required for data: 826610800
I0403 14:39:29.989420 17321 layer_factory.hpp:77] Creating layer fc7
I0403 14:39:29.989444 17321 net.cpp:91] Creating Layer fc7
I0403 14:39:29.989460 17321 net.cpp:425] fc7 <- fc6
I0403 14:39:29.989480 17321 net.cpp:399] fc7 -> fc7
I0403 14:39:30.688840 17321 net.cpp:141] Setting up fc7
I0403 14:39:30.688928 17321 net.cpp:148] Top shape: 100 4096 (409600)
I0403 14:39:30.688946 17321 net.cpp:156] Memory required for data: 828249200
I0403 14:39:30.688966 17321 layer_factory.hpp:77] Creating layer relu7
I0403 14:39:30.688990 17321 net.cpp:91] Creating Layer relu7
I0403 14:39:30.689009 17321 net.cpp:425] relu7 <- fc7
I0403 14:39:30.689030 17321 net.cpp:386] relu7 -> fc7 (in-place)
I0403 14:39:30.689457 17321 net.cpp:141] Setting up relu7
I0403 14:39:30.689484 17321 net.cpp:148] Top shape: 100 4096 (409600)
I0403 14:39:30.689532 17321 net.cpp:156] Memory required for data: 829887600
I0403 14:39:30.689548 17321 layer_factory.hpp:77] Creating layer drop7
I0403 14:39:30.689570 17321 net.cpp:91] Creating Layer drop7
I0403 14:39:30.689599 17321 net.cpp:425] drop7 <- fc7
I0403 14:39:30.689618 17321 net.cpp:386] drop7 -> fc7 (in-place)
I0403 14:39:30.689664 17321 net.cpp:141] Setting up drop7
I0403 14:39:30.689687 17321 net.cpp:148] Top shape: 100 4096 (409600)
I0403 14:39:30.689700 17321 net.cpp:156] Memory required for data: 831526000
I0403 14:39:30.689714 17321 layer_factory.hpp:77] Creating layer fc8_plantvillage
I0403 14:39:30.689733 17321 net.cpp:91] Creating Layer fc8_plantvillage
I0403 14:39:30.689749 17321 net.cpp:425] fc8_plantvillage <- fc7
I0403 14:39:30.689769 17321 net.cpp:399] fc8_plantvillage -> fc8_plantvillage
I0403 14:39:30.696477 17321 net.cpp:141] Setting up fc8_plantvillage
I0403 14:39:30.696514 17321 net.cpp:148] Top shape: 100 38 (3800)
I0403 14:39:30.696530 17321 net.cpp:156] Memory required for data: 831541200
I0403 14:39:30.696549 17321 layer_factory.hpp:77] Creating layer fc8_plantvillage_fc8_plantvillage_0_split
I0403 14:39:30.696568 17321 net.cpp:91] Creating Layer fc8_plantvillage_fc8_plantvillage_0_split
I0403 14:39:30.696584 17321 net.cpp:425] fc8_plantvillage_fc8_plantvillage_0_split <- fc8_plantvillage
I0403 14:39:30.696601 17321 net.cpp:399] fc8_plantvillage_fc8_plantvillage_0_split -> fc8_plantvillage_fc8_plantvillage_0_split_0
I0403 14:39:30.696624 17321 net.cpp:399] fc8_plantvillage_fc8_plantvillage_0_split -> fc8_plantvillage_fc8_plantvillage_0_split_1
I0403 14:39:30.696645 17321 net.cpp:399] fc8_plantvillage_fc8_plantvillage_0_split -> fc8_plantvillage_fc8_plantvillage_0_split_2
I0403 14:39:30.696722 17321 net.cpp:141] Setting up fc8_plantvillage_fc8_plantvillage_0_split
I0403 14:39:30.696745 17321 net.cpp:148] Top shape: 100 38 (3800)
I0403 14:39:30.696763 17321 net.cpp:148] Top shape: 100 38 (3800)
I0403 14:39:30.696777 17321 net.cpp:148] Top shape: 100 38 (3800)
I0403 14:39:30.696790 17321 net.cpp:156] Memory required for data: 831586800
I0403 14:39:30.696805 17321 layer_factory.hpp:77] Creating layer prob
I0403 14:39:30.696822 17321 net.cpp:91] Creating Layer prob
I0403 14:39:30.696837 17321 net.cpp:425] prob <- fc8_plantvillage_fc8_plantvillage_0_split_0
I0403 14:39:30.696856 17321 net.cpp:399] prob -> prob
I0403 14:39:30.697082 17321 net.cpp:141] Setting up prob
I0403 14:39:30.697108 17321 net.cpp:148] Top shape: 100 38 (3800)
I0403 14:39:30.697123 17321 net.cpp:156] Memory required for data: 831602000
I0403 14:39:30.697137 17321 layer_factory.hpp:77] Creating layer hdf5out
I0403 14:39:30.697160 17321 net.cpp:91] Creating Layer hdf5out
I0403 14:39:30.697175 17321 net.cpp:425] hdf5out <- prob
I0403 14:39:30.697190 17321 net.cpp:425] hdf5out <- label_data_1_split_0
I0403 14:39:30.699473 17321 net.cpp:141] Setting up hdf5out
…
