…
I0403 14:37:16.944442 17251 net.cpp:313] The NetState phase (1) differed from the phase (0) specified by a rule in layer data
I0403 14:37:16.944738 17251 net.cpp:49] Initializing net from parameters: 
state {
  phase: TEST
}
layer {
  name: "data"
  type: "Data"
  top: "data"
  top: "label"
  include {
    phase: TEST
  }
  transform_param {
    crop_size: 227
    mean_file: "/home/mohanty/data/final_dataset/lmdb/grayscale-40-60/mean.binaryproto"
  }
  data_param {
    source: "/home/mohanty/data/final_dataset/lmdb/grayscale-40-60/test_db"
    batch_size: 100
    backend: LMDB
  }
}
layer {
  name: "conv1"
  type: "Convolution"
  bottom: "data"
  top: "conv1"
  param {
    lr_mult: 1
    decay_mult: 1
  }
  param {
    lr_mult: 2
    decay_mult: 0
  }
  convolution_param {
    num_output: 96
    kernel_size: 11
    stride: 4
    weight_filler {
      type: "gaussian"
      std: 0.01
    }
    bias_filler {
      type: "constant"
      value: 0
    }
  }
}
layer {
  name: "relu1"
  type: "ReLU"
  bottom: "conv1"
  top: "conv1"
}
layer {
  name: "norm1"
  type: "LRN"
  bottom: "conv1"
  top: "norm1"
  lrn_param {
    local_size: 5
    alpha: 0.0001
    beta: 0.75
  }
}
layer {
  name: "pool1"
  type: "Pooling"
  bottom: "norm1"
  top: "pool1"
  pooling_param {
    pool: MAX
    kernel_size: 3
    stride: 2
  }
}
layer {
  name: "conv2"
  type: "Convolution"
  bottom: "pool1"
  top: "conv2"
  param {
    lr_mult: 1
    decay_mult: 1
  }
  param {
    lr_mult: 2
    decay_mult: 0
  }
  convolution_param {
    num_output: 256
    pad: 2
    kernel_size: 5
    group: 2
    weight_filler {
      type: "gaussian"
      std: 0.01
    }
    bias_filler {
      type: "constant"
      value: 0.1
    }
  }
}
layer {
  name: "relu2"
  type: "ReLU"
  bottom: "conv2"
  top: "conv2"
}
layer {
  name: "norm2"
  type: "LRN"
  bottom: "conv2"
  top: "norm2"
  lrn_param {
    local_size: 5
    alpha: 0.0001
    beta: 0.75
  }
}
layer {
  name: "pool2"
  type: "Pooling"
  bottom: "norm2"
  top: "pool2"
  pooling_param {
    pool: MAX
    kernel_size: 3
    stride: 2
  }
}
layer {
  name: "conv3"
  type: "Convolution"
  bottom: "pool2"
  top: "conv3"
  param {
    lr_mult: 1
    decay_mult: 1
  }
  param {
    lr_mult: 2
    decay_mult: 0
  }
  convolution_param {
    num_output: 384
    pad: 1
    kernel_size: 3
    weight_filler {
      type: "gaussian"
      std: 0.01
    }
    bias_filler {
      type: "constant"
      value: 0
    }
  }
}
layer {
  name: "relu3"
  type: "ReLU"
  bottom: "conv3"
  top: "conv3"
}
layer {
  name: "conv4"
  type: "Convolution"
  bottom: "conv3"
  top: "conv4"
  param {
    lr_mult: 1
    decay_mult: 1
  }
  param {
    lr_mult: 2
    decay_mult: 0
  }
  convolution_param {
    num_output: 384
    pad: 1
    kernel_size: 3
    group: 2
    weight_filler {
      type: "gaussian"
      std: 0.01
    }
    bias_filler {
      type: "constant"
      value: 0.1
    }
  }
}
layer {
  name: "relu4"
  type: "ReLU"
  bottom: "conv4"
  top: "conv4"
}
layer {
  name: "conv5"
  type: "Convolution"
  bottom: "conv4"
  top: "conv5"
  param {
    lr_mult: 1
    decay_mult: 1
  }
  param {
    lr_mult: 2
    decay_mult: 0
  }
  convolution_param {
    num_output: 256
    pad: 1
    kernel_size: 3
    group: 2
    weight_filler {
      type: "gaussian"
      std: 0.01
    }
    bias_filler {
      type: "constant"
      value: 0.1
    }
  }
}
layer {
  name: "relu5"
  type: "ReLU"
  bottom: "conv5"
  top: "conv5"
}
layer {
  name: "pool5"
  type: "Pooling"
  bottom: "conv5"
  top: "pool5"
  pooling_param {
    pool: MAX
    kernel_size: 3
    stride: 2
  }
}
layer {
  name: "fc6"
  type: "InnerProduct"
  bottom: "pool5"
  top: "fc6"
  param {
    lr_mult: 1
    decay_mult: 1
  }
  param {
    lr_mult: 2
    decay_mult: 0
  }
  inner_product_param {
    num_output: 4096
    weight_filler {
      type: "gaussian"
      std: 0.005
    }
    bias_filler {
      type: "constant"
      value: 0.1
    }
  }
}
layer {
  name: "relu6"
  type: "ReLU"
  bottom: "fc6"
  top: "fc6"
}
layer {
  name: "drop6"
  type: "Dropout"
  bottom: "fc6"
  top: "fc6"
  dropout_param {
    dropout_ratio: 0.5
  }
}
layer {
  name: "fc7"
  type: "InnerProduct"
  bottom: "fc6"
  top: "fc7"
  param {
    lr_mult: 1
    decay_mult: 1
  }
  param {
    lr_mult: 2
    decay_mult: 0
  }
  inner_product_param {
    num_output: 4096
    weight_filler {
      type: "gaussian"
      std: 0.005
    }
    bias_filler {
      type: "constant"
      value: 0.1
    }
  }
}
layer {
  name: "relu7"
  type: "ReLU"
  bottom: "fc7"
  top: "fc7"
}
layer {
  name: "drop7"
  type: "Dropout"
  bottom: "fc7"
  top: "fc7"
  dropout_param {
    dropout_ratio: 0.5
  }
}
layer {
  name: "fc8_plantvillage"
  type: "InnerProduct"
  bottom: "fc7"
  top: "fc8_plantvillage"
  param {
    lr_mult: 1
    decay_mult: 1
  }
  param {
    lr_mult: 2
    decay_mult: 0
  }
  inner_product_param {
    num_output: 38
    weight_filler {
      type: "gaussian"
      std: 0.01
    }
    bias_filler {
      type: "constant"
      value: 0
    }
  }
}
layer {
  name: "prob"
  type: "Softmax"
  bottom: "fc8_plantvillage"
  top: "prob"
  include {
    phase: TEST
  }
}
layer {
  name: "hdf5out"
  type: "HDF5Output"
  bottom: "prob"
  bottom: "label"
  include {
    phase: TEST
  }
  hdf5_output_param {
    file_name: "hdf5_dumps/iter_2409.h5"
  }
}
layer {
  name: "loss"
  type: "SoftmaxWithLoss"
  bottom: "fc8_plantvillage"
  bottom: "label"
  top: "loss"
}
layer {
  name: "accuracy"
  type: "Accuracy"
  bottom: "fc8_plantvillage"
  bottom: "label"
  top: "accuracy"
  include {
    phase: TEST
  }
}
I0403 14:37:16.945262 17251 layer_factory.hpp:77] Creating layer data
I0403 14:37:16.945907 17251 net.cpp:91] Creating Layer data
I0403 14:37:16.945936 17251 net.cpp:399] data -> data
I0403 14:37:16.945991 17251 net.cpp:399] data -> label
I0403 14:37:16.946045 17251 data_transformer.cpp:25] Loading mean file from: /home/mohanty/data/final_dataset/lmdb/grayscale-40-60/mean.binaryproto
I0403 14:37:16.948700 17254 db_lmdb.cpp:38] Opened lmdb /home/mohanty/data/final_dataset/lmdb/grayscale-40-60/test_db
I0403 14:37:16.980837 17251 data_layer.cpp:41] output data size: 100,3,227,227
I0403 14:37:17.100033 17251 net.cpp:141] Setting up data
I0403 14:37:17.100141 17251 net.cpp:148] Top shape: 100 3 227 227 (15458700)
I0403 14:37:17.100163 17251 net.cpp:148] Top shape: 100 (100)
I0403 14:37:17.100178 17251 net.cpp:156] Memory required for data: 61835200
I0403 14:37:17.100206 17251 layer_factory.hpp:77] Creating layer label_data_1_split
I0403 14:37:17.100231 17251 net.cpp:91] Creating Layer label_data_1_split
I0403 14:37:17.100250 17251 net.cpp:425] label_data_1_split <- label
I0403 14:37:17.100281 17251 net.cpp:399] label_data_1_split -> label_data_1_split_0
I0403 14:37:17.100308 17251 net.cpp:399] label_data_1_split -> label_data_1_split_1
I0403 14:37:17.100327 17251 net.cpp:399] label_data_1_split -> label_data_1_split_2
I0403 14:37:17.100391 17251 net.cpp:141] Setting up label_data_1_split
I0403 14:37:17.100414 17251 net.cpp:148] Top shape: 100 (100)
I0403 14:37:17.100431 17251 net.cpp:148] Top shape: 100 (100)
I0403 14:37:17.100447 17251 net.cpp:148] Top shape: 100 (100)
I0403 14:37:17.100461 17251 net.cpp:156] Memory required for data: 61836400
I0403 14:37:17.100476 17251 layer_factory.hpp:77] Creating layer conv1
I0403 14:37:17.100507 17251 net.cpp:91] Creating Layer conv1
I0403 14:37:17.100525 17251 net.cpp:425] conv1 <- data
I0403 14:37:17.100544 17251 net.cpp:399] conv1 -> conv1
I0403 14:37:17.242995 17251 net.cpp:141] Setting up conv1
I0403 14:37:17.243116 17251 net.cpp:148] Top shape: 100 96 55 55 (29040000)
I0403 14:37:17.243137 17251 net.cpp:156] Memory required for data: 177996400
I0403 14:37:17.243170 17251 layer_factory.hpp:77] Creating layer relu1
I0403 14:37:17.243198 17251 net.cpp:91] Creating Layer relu1
I0403 14:37:17.243217 17251 net.cpp:425] relu1 <- conv1
I0403 14:37:17.243237 17251 net.cpp:386] relu1 -> conv1 (in-place)
I0403 14:37:17.243501 17251 net.cpp:141] Setting up relu1
I0403 14:37:17.243530 17251 net.cpp:148] Top shape: 100 96 55 55 (29040000)
I0403 14:37:17.243579 17251 net.cpp:156] Memory required for data: 294156400
I0403 14:37:17.243597 17251 layer_factory.hpp:77] Creating layer norm1
I0403 14:37:17.243623 17251 net.cpp:91] Creating Layer norm1
I0403 14:37:17.243641 17251 net.cpp:425] norm1 <- conv1
I0403 14:37:17.243659 17251 net.cpp:399] norm1 -> norm1
I0403 14:37:17.243974 17251 net.cpp:141] Setting up norm1
I0403 14:37:17.244004 17251 net.cpp:148] Top shape: 100 96 55 55 (29040000)
I0403 14:37:17.244024 17251 net.cpp:156] Memory required for data: 410316400
I0403 14:37:17.244040 17251 layer_factory.hpp:77] Creating layer pool1
I0403 14:37:17.244063 17251 net.cpp:91] Creating Layer pool1
I0403 14:37:17.244082 17251 net.cpp:425] pool1 <- norm1
I0403 14:37:17.244101 17251 net.cpp:399] pool1 -> pool1
I0403 14:37:17.244173 17251 net.cpp:141] Setting up pool1
I0403 14:37:17.244197 17251 net.cpp:148] Top shape: 100 96 27 27 (6998400)
I0403 14:37:17.244213 17251 net.cpp:156] Memory required for data: 438310000
I0403 14:37:17.244228 17251 layer_factory.hpp:77] Creating layer conv2
I0403 14:37:17.244256 17251 net.cpp:91] Creating Layer conv2
I0403 14:37:17.244272 17251 net.cpp:425] conv2 <- pool1
I0403 14:37:17.244292 17251 net.cpp:399] conv2 -> conv2
I0403 14:37:17.260200 17251 net.cpp:141] Setting up conv2
I0403 14:37:17.260263 17251 net.cpp:148] Top shape: 100 256 27 27 (18662400)
I0403 14:37:17.260282 17251 net.cpp:156] Memory required for data: 512959600
I0403 14:37:17.260303 17251 layer_factory.hpp:77] Creating layer relu2
I0403 14:37:17.260325 17251 net.cpp:91] Creating Layer relu2
I0403 14:37:17.260341 17251 net.cpp:425] relu2 <- conv2
I0403 14:37:17.260360 17251 net.cpp:386] relu2 -> conv2 (in-place)
I0403 14:37:17.260735 17251 net.cpp:141] Setting up relu2
I0403 14:37:17.260762 17251 net.cpp:148] Top shape: 100 256 27 27 (18662400)
I0403 14:37:17.260777 17251 net.cpp:156] Memory required for data: 587609200
I0403 14:37:17.260793 17251 layer_factory.hpp:77] Creating layer norm2
I0403 14:37:17.260819 17251 net.cpp:91] Creating Layer norm2
I0403 14:37:17.260836 17251 net.cpp:425] norm2 <- conv2
I0403 14:37:17.260855 17251 net.cpp:399] norm2 -> norm2
I0403 14:37:17.261062 17251 net.cpp:141] Setting up norm2
I0403 14:37:17.261093 17251 net.cpp:148] Top shape: 100 256 27 27 (18662400)
I0403 14:37:17.261111 17251 net.cpp:156] Memory required for data: 662258800
I0403 14:37:17.261126 17251 layer_factory.hpp:77] Creating layer pool2
I0403 14:37:17.261144 17251 net.cpp:91] Creating Layer pool2
I0403 14:37:17.261160 17251 net.cpp:425] pool2 <- norm2
I0403 14:37:17.261178 17251 net.cpp:399] pool2 -> pool2
I0403 14:37:17.261232 17251 net.cpp:141] Setting up pool2
I0403 14:37:17.261256 17251 net.cpp:148] Top shape: 100 256 13 13 (4326400)
I0403 14:37:17.261272 17251 net.cpp:156] Memory required for data: 679564400
I0403 14:37:17.261287 17251 layer_factory.hpp:77] Creating layer conv3
I0403 14:37:17.261312 17251 net.cpp:91] Creating Layer conv3
I0403 14:37:17.261330 17251 net.cpp:425] conv3 <- pool2
I0403 14:37:17.261351 17251 net.cpp:399] conv3 -> conv3
I0403 14:37:17.302186 17251 net.cpp:141] Setting up conv3
I0403 14:37:17.302258 17251 net.cpp:148] Top shape: 100 384 13 13 (6489600)
I0403 14:37:17.302278 17251 net.cpp:156] Memory required for data: 705522800
I0403 14:37:17.302304 17251 layer_factory.hpp:77] Creating layer relu3
I0403 14:37:17.302327 17251 net.cpp:91] Creating Layer relu3
I0403 14:37:17.302345 17251 net.cpp:425] relu3 <- conv3
I0403 14:37:17.302368 17251 net.cpp:386] relu3 -> conv3 (in-place)
I0403 14:37:17.302659 17251 net.cpp:141] Setting up relu3
I0403 14:37:17.302690 17251 net.cpp:148] Top shape: 100 384 13 13 (6489600)
I0403 14:37:17.302706 17251 net.cpp:156] Memory required for data: 731481200
I0403 14:37:17.302721 17251 layer_factory.hpp:77] Creating layer conv4
I0403 14:37:17.302749 17251 net.cpp:91] Creating Layer conv4
I0403 14:37:17.302767 17251 net.cpp:425] conv4 <- conv3
I0403 14:37:17.302788 17251 net.cpp:399] conv4 -> conv4
I0403 14:37:17.333940 17251 net.cpp:141] Setting up conv4
I0403 14:37:17.334027 17251 net.cpp:148] Top shape: 100 384 13 13 (6489600)
I0403 14:37:17.334077 17251 net.cpp:156] Memory required for data: 757439600
I0403 14:37:17.334100 17251 layer_factory.hpp:77] Creating layer relu4
I0403 14:37:17.334125 17251 net.cpp:91] Creating Layer relu4
I0403 14:37:17.334141 17251 net.cpp:425] relu4 <- conv4
I0403 14:37:17.334161 17251 net.cpp:386] relu4 -> conv4 (in-place)
I0403 14:37:17.334445 17251 net.cpp:141] Setting up relu4
I0403 14:37:17.334472 17251 net.cpp:148] Top shape: 100 384 13 13 (6489600)
I0403 14:37:17.334487 17251 net.cpp:156] Memory required for data: 783398000
I0403 14:37:17.334502 17251 layer_factory.hpp:77] Creating layer conv5
I0403 14:37:17.334529 17251 net.cpp:91] Creating Layer conv5
I0403 14:37:17.334547 17251 net.cpp:425] conv5 <- conv4
I0403 14:37:17.334564 17251 net.cpp:399] conv5 -> conv5
I0403 14:37:17.355947 17251 net.cpp:141] Setting up conv5
I0403 14:37:17.356008 17251 net.cpp:148] Top shape: 100 256 13 13 (4326400)
I0403 14:37:17.356029 17251 net.cpp:156] Memory required for data: 800703600
I0403 14:37:17.356056 17251 layer_factory.hpp:77] Creating layer relu5
I0403 14:37:17.356077 17251 net.cpp:91] Creating Layer relu5
I0403 14:37:17.356094 17251 net.cpp:425] relu5 <- conv5
I0403 14:37:17.356112 17251 net.cpp:386] relu5 -> conv5 (in-place)
I0403 14:37:17.356401 17251 net.cpp:141] Setting up relu5
I0403 14:37:17.356434 17251 net.cpp:148] Top shape: 100 256 13 13 (4326400)
I0403 14:37:17.356454 17251 net.cpp:156] Memory required for data: 818009200
I0403 14:37:17.356469 17251 layer_factory.hpp:77] Creating layer pool5
I0403 14:37:17.356492 17251 net.cpp:91] Creating Layer pool5
I0403 14:37:17.356508 17251 net.cpp:425] pool5 <- conv5
I0403 14:37:17.356529 17251 net.cpp:399] pool5 -> pool5
I0403 14:37:17.356592 17251 net.cpp:141] Setting up pool5
I0403 14:37:17.356616 17251 net.cpp:148] Top shape: 100 256 6 6 (921600)
I0403 14:37:17.356631 17251 net.cpp:156] Memory required for data: 821695600
I0403 14:37:17.356647 17251 layer_factory.hpp:77] Creating layer fc6
I0403 14:37:17.356678 17251 net.cpp:91] Creating Layer fc6
I0403 14:37:17.356696 17251 net.cpp:425] fc6 <- pool5
I0403 14:37:17.356717 17251 net.cpp:399] fc6 -> fc6
I0403 14:37:18.976466 17251 net.cpp:141] Setting up fc6
I0403 14:37:18.976557 17251 net.cpp:148] Top shape: 100 4096 (409600)
I0403 14:37:18.976573 17251 net.cpp:156] Memory required for data: 823334000
I0403 14:37:18.976595 17251 layer_factory.hpp:77] Creating layer relu6
I0403 14:37:18.976622 17251 net.cpp:91] Creating Layer relu6
I0403 14:37:18.976640 17251 net.cpp:425] relu6 <- fc6
I0403 14:37:18.976660 17251 net.cpp:386] relu6 -> fc6 (in-place)
I0403 14:37:18.976881 17251 net.cpp:141] Setting up relu6
I0403 14:37:18.976909 17251 net.cpp:148] Top shape: 100 4096 (409600)
I0403 14:37:18.976924 17251 net.cpp:156] Memory required for data: 824972400
I0403 14:37:18.976939 17251 layer_factory.hpp:77] Creating layer drop6
I0403 14:37:18.976958 17251 net.cpp:91] Creating Layer drop6
I0403 14:37:18.976974 17251 net.cpp:425] drop6 <- fc6
I0403 14:37:18.976990 17251 net.cpp:386] drop6 -> fc6 (in-place)
I0403 14:37:18.977049 17251 net.cpp:141] Setting up drop6
I0403 14:37:18.977073 17251 net.cpp:148] Top shape: 100 4096 (409600)
I0403 14:37:18.977087 17251 net.cpp:156] Memory required for data: 826610800
I0403 14:37:18.977103 17251 layer_factory.hpp:77] Creating layer fc7
I0403 14:37:18.977124 17251 net.cpp:91] Creating Layer fc7
I0403 14:37:18.977141 17251 net.cpp:425] fc7 <- fc6
I0403 14:37:18.977159 17251 net.cpp:399] fc7 -> fc7
I0403 14:37:19.689354 17251 net.cpp:141] Setting up fc7
I0403 14:37:19.689414 17251 net.cpp:148] Top shape: 100 4096 (409600)
I0403 14:37:19.689430 17251 net.cpp:156] Memory required for data: 828249200
I0403 14:37:19.689451 17251 layer_factory.hpp:77] Creating layer relu7
I0403 14:37:19.689476 17251 net.cpp:91] Creating Layer relu7
I0403 14:37:19.689496 17251 net.cpp:425] relu7 <- fc7
I0403 14:37:19.689515 17251 net.cpp:386] relu7 -> fc7 (in-place)
I0403 14:37:19.689936 17251 net.cpp:141] Setting up relu7
I0403 14:37:19.689965 17251 net.cpp:148] Top shape: 100 4096 (409600)
I0403 14:37:19.690012 17251 net.cpp:156] Memory required for data: 829887600
I0403 14:37:19.690035 17251 layer_factory.hpp:77] Creating layer drop7
I0403 14:37:19.690055 17251 net.cpp:91] Creating Layer drop7
I0403 14:37:19.690071 17251 net.cpp:425] drop7 <- fc7
I0403 14:37:19.690089 17251 net.cpp:386] drop7 -> fc7 (in-place)
I0403 14:37:19.690136 17251 net.cpp:141] Setting up drop7
I0403 14:37:19.690160 17251 net.cpp:148] Top shape: 100 4096 (409600)
I0403 14:37:19.690173 17251 net.cpp:156] Memory required for data: 831526000
I0403 14:37:19.690188 17251 layer_factory.hpp:77] Creating layer fc8_plantvillage
I0403 14:37:19.690210 17251 net.cpp:91] Creating Layer fc8_plantvillage
I0403 14:37:19.690227 17251 net.cpp:425] fc8_plantvillage <- fc7
I0403 14:37:19.690244 17251 net.cpp:399] fc8_plantvillage -> fc8_plantvillage
I0403 14:37:19.697389 17251 net.cpp:141] Setting up fc8_plantvillage
I0403 14:37:19.697419 17251 net.cpp:148] Top shape: 100 38 (3800)
I0403 14:37:19.697434 17251 net.cpp:156] Memory required for data: 831541200
I0403 14:37:19.697453 17251 layer_factory.hpp:77] Creating layer fc8_plantvillage_fc8_plantvillage_0_split
I0403 14:37:19.697473 17251 net.cpp:91] Creating Layer fc8_plantvillage_fc8_plantvillage_0_split
I0403 14:37:19.697487 17251 net.cpp:425] fc8_plantvillage_fc8_plantvillage_0_split <- fc8_plantvillage
I0403 14:37:19.697504 17251 net.cpp:399] fc8_plantvillage_fc8_plantvillage_0_split -> fc8_plantvillage_fc8_plantvillage_0_split_0
I0403 14:37:19.697525 17251 net.cpp:399] fc8_plantvillage_fc8_plantvillage_0_split -> fc8_plantvillage_fc8_plantvillage_0_split_1
I0403 14:37:19.697546 17251 net.cpp:399] fc8_plantvillage_fc8_plantvillage_0_split -> fc8_plantvillage_fc8_plantvillage_0_split_2
I0403 14:37:19.697625 17251 net.cpp:141] Setting up fc8_plantvillage_fc8_plantvillage_0_split
I0403 14:37:19.697649 17251 net.cpp:148] Top shape: 100 38 (3800)
I0403 14:37:19.697664 17251 net.cpp:148] Top shape: 100 38 (3800)
I0403 14:37:19.697679 17251 net.cpp:148] Top shape: 100 38 (3800)
I0403 14:37:19.697693 17251 net.cpp:156] Memory required for data: 831586800
I0403 14:37:19.697707 17251 layer_factory.hpp:77] Creating layer prob
I0403 14:37:19.697726 17251 net.cpp:91] Creating Layer prob
I0403 14:37:19.697739 17251 net.cpp:425] prob <- fc8_plantvillage_fc8_plantvillage_0_split_0
I0403 14:37:19.697757 17251 net.cpp:399] prob -> prob
I0403 14:37:19.697998 17251 net.cpp:141] Setting up prob
I0403 14:37:19.698035 17251 net.cpp:148] Top shape: 100 38 (3800)
I0403 14:37:19.698053 17251 net.cpp:156] Memory required for data: 831602000
I0403 14:37:19.698068 17251 layer_factory.hpp:77] Creating layer hdf5out
I0403 14:37:19.698102 17251 net.cpp:91] Creating Layer hdf5out
I0403 14:37:19.698118 17251 net.cpp:425] hdf5out <- prob
I0403 14:37:19.698133 17251 net.cpp:425] hdf5out <- label_data_1_split_0
I0403 14:37:19.700419 17251 net.cpp:141] Setting up hdf5out
…
