…
I0403 14:38:22.405251 17275 net.cpp:313] The NetState phase (1) differed from the phase (0) specified by a rule in layer data
I0403 14:38:22.405570 17275 net.cpp:49] Initializing net from parameters: 
state {
  phase: TEST
}
layer {
  name: "data"
  type: "Data"
  top: "data"
  top: "label"
  include {
    phase: TEST
  }
  transform_param {
    crop_size: 227
    mean_file: "/home/mohanty/data/final_dataset/lmdb/grayscale-40-60/mean.binaryproto"
  }
  data_param {
    source: "/home/mohanty/data/final_dataset/lmdb/grayscale-40-60/test_db"
    batch_size: 100
    backend: LMDB
  }
}
layer {
  name: "conv1"
  type: "Convolution"
  bottom: "data"
  top: "conv1"
  param {
    lr_mult: 1
    decay_mult: 1
  }
  param {
    lr_mult: 2
    decay_mult: 0
  }
  convolution_param {
    num_output: 96
    kernel_size: 11
    stride: 4
    weight_filler {
      type: "gaussian"
      std: 0.01
    }
    bias_filler {
      type: "constant"
      value: 0
    }
  }
}
layer {
  name: "relu1"
  type: "ReLU"
  bottom: "conv1"
  top: "conv1"
}
layer {
  name: "norm1"
  type: "LRN"
  bottom: "conv1"
  top: "norm1"
  lrn_param {
    local_size: 5
    alpha: 0.0001
    beta: 0.75
  }
}
layer {
  name: "pool1"
  type: "Pooling"
  bottom: "norm1"
  top: "pool1"
  pooling_param {
    pool: MAX
    kernel_size: 3
    stride: 2
  }
}
layer {
  name: "conv2"
  type: "Convolution"
  bottom: "pool1"
  top: "conv2"
  param {
    lr_mult: 1
    decay_mult: 1
  }
  param {
    lr_mult: 2
    decay_mult: 0
  }
  convolution_param {
    num_output: 256
    pad: 2
    kernel_size: 5
    group: 2
    weight_filler {
      type: "gaussian"
      std: 0.01
    }
    bias_filler {
      type: "constant"
      value: 0.1
    }
  }
}
layer {
  name: "relu2"
  type: "ReLU"
  bottom: "conv2"
  top: "conv2"
}
layer {
  name: "norm2"
  type: "LRN"
  bottom: "conv2"
  top: "norm2"
  lrn_param {
    local_size: 5
    alpha: 0.0001
    beta: 0.75
  }
}
layer {
  name: "pool2"
  type: "Pooling"
  bottom: "norm2"
  top: "pool2"
  pooling_param {
    pool: MAX
    kernel_size: 3
    stride: 2
  }
}
layer {
  name: "conv3"
  type: "Convolution"
  bottom: "pool2"
  top: "conv3"
  param {
    lr_mult: 1
    decay_mult: 1
  }
  param {
    lr_mult: 2
    decay_mult: 0
  }
  convolution_param {
    num_output: 384
    pad: 1
    kernel_size: 3
    weight_filler {
      type: "gaussian"
      std: 0.01
    }
    bias_filler {
      type: "constant"
      value: 0
    }
  }
}
layer {
  name: "relu3"
  type: "ReLU"
  bottom: "conv3"
  top: "conv3"
}
layer {
  name: "conv4"
  type: "Convolution"
  bottom: "conv3"
  top: "conv4"
  param {
    lr_mult: 1
    decay_mult: 1
  }
  param {
    lr_mult: 2
    decay_mult: 0
  }
  convolution_param {
    num_output: 384
    pad: 1
    kernel_size: 3
    group: 2
    weight_filler {
      type: "gaussian"
      std: 0.01
    }
    bias_filler {
      type: "constant"
      value: 0.1
    }
  }
}
layer {
  name: "relu4"
  type: "ReLU"
  bottom: "conv4"
  top: "conv4"
}
layer {
  name: "conv5"
  type: "Convolution"
  bottom: "conv4"
  top: "conv5"
  param {
    lr_mult: 1
    decay_mult: 1
  }
  param {
    lr_mult: 2
    decay_mult: 0
  }
  convolution_param {
    num_output: 256
    pad: 1
    kernel_size: 3
    group: 2
    weight_filler {
      type: "gaussian"
      std: 0.01
    }
    bias_filler {
      type: "constant"
      value: 0.1
    }
  }
}
layer {
  name: "relu5"
  type: "ReLU"
  bottom: "conv5"
  top: "conv5"
}
layer {
  name: "pool5"
  type: "Pooling"
  bottom: "conv5"
  top: "pool5"
  pooling_param {
    pool: MAX
    kernel_size: 3
    stride: 2
  }
}
layer {
  name: "fc6"
  type: "InnerProduct"
  bottom: "pool5"
  top: "fc6"
  param {
    lr_mult: 1
    decay_mult: 1
  }
  param {
    lr_mult: 2
    decay_mult: 0
  }
  inner_product_param {
    num_output: 4096
    weight_filler {
      type: "gaussian"
      std: 0.005
    }
    bias_filler {
      type: "constant"
      value: 0.1
    }
  }
}
layer {
  name: "relu6"
  type: "ReLU"
  bottom: "fc6"
  top: "fc6"
}
layer {
  name: "drop6"
  type: "Dropout"
  bottom: "fc6"
  top: "fc6"
  dropout_param {
    dropout_ratio: 0.5
  }
}
layer {
  name: "fc7"
  type: "InnerProduct"
  bottom: "fc6"
  top: "fc7"
  param {
    lr_mult: 1
    decay_mult: 1
  }
  param {
    lr_mult: 2
    decay_mult: 0
  }
  inner_product_param {
    num_output: 4096
    weight_filler {
      type: "gaussian"
      std: 0.005
    }
    bias_filler {
      type: "constant"
      value: 0.1
    }
  }
}
layer {
  name: "relu7"
  type: "ReLU"
  bottom: "fc7"
  top: "fc7"
}
layer {
  name: "drop7"
  type: "Dropout"
  bottom: "fc7"
  top: "fc7"
  dropout_param {
    dropout_ratio: 0.5
  }
}
layer {
  name: "fc8_plantvillage"
  type: "InnerProduct"
  bottom: "fc7"
  top: "fc8_plantvillage"
  param {
    lr_mult: 1
    decay_mult: 1
  }
  param {
    lr_mult: 2
    decay_mult: 0
  }
  inner_product_param {
    num_output: 38
    weight_filler {
      type: "gaussian"
      std: 0.01
    }
    bias_filler {
      type: "constant"
      value: 0
    }
  }
}
layer {
  name: "prob"
  type: "Softmax"
  bottom: "fc8_plantvillage"
  top: "prob"
  include {
    phase: TEST
  }
}
layer {
  name: "hdf5out"
  type: "HDF5Output"
  bottom: "prob"
  bottom: "label"
  include {
    phase: TEST
  }
  hdf5_output_param {
    file_name: "hdf5_dumps/iter_2628.h5"
  }
}
layer {
  name: "loss"
  type: "SoftmaxWithLoss"
  bottom: "fc8_plantvillage"
  bottom: "label"
  top: "loss"
}
layer {
  name: "accuracy"
  type: "Accuracy"
  bottom: "fc8_plantvillage"
  bottom: "label"
  top: "accuracy"
  include {
    phase: TEST
  }
}
I0403 14:38:22.406185 17275 layer_factory.hpp:77] Creating layer data
I0403 14:38:22.406847 17275 net.cpp:91] Creating Layer data
I0403 14:38:22.406877 17275 net.cpp:399] data -> data
I0403 14:38:22.406927 17275 net.cpp:399] data -> label
I0403 14:38:22.406966 17275 data_transformer.cpp:25] Loading mean file from: /home/mohanty/data/final_dataset/lmdb/grayscale-40-60/mean.binaryproto
I0403 14:38:22.409566 17278 db_lmdb.cpp:38] Opened lmdb /home/mohanty/data/final_dataset/lmdb/grayscale-40-60/test_db
I0403 14:38:22.421636 17275 data_layer.cpp:41] output data size: 100,3,227,227
I0403 14:38:22.540962 17275 net.cpp:141] Setting up data
I0403 14:38:22.541075 17275 net.cpp:148] Top shape: 100 3 227 227 (15458700)
I0403 14:38:22.541098 17275 net.cpp:148] Top shape: 100 (100)
I0403 14:38:22.541112 17275 net.cpp:156] Memory required for data: 61835200
I0403 14:38:22.541141 17275 layer_factory.hpp:77] Creating layer label_data_1_split
I0403 14:38:22.541165 17275 net.cpp:91] Creating Layer label_data_1_split
I0403 14:38:22.541182 17275 net.cpp:425] label_data_1_split <- label
I0403 14:38:22.541214 17275 net.cpp:399] label_data_1_split -> label_data_1_split_0
I0403 14:38:22.541240 17275 net.cpp:399] label_data_1_split -> label_data_1_split_1
I0403 14:38:22.541260 17275 net.cpp:399] label_data_1_split -> label_data_1_split_2
I0403 14:38:22.541323 17275 net.cpp:141] Setting up label_data_1_split
I0403 14:38:22.541347 17275 net.cpp:148] Top shape: 100 (100)
I0403 14:38:22.541363 17275 net.cpp:148] Top shape: 100 (100)
I0403 14:38:22.541378 17275 net.cpp:148] Top shape: 100 (100)
I0403 14:38:22.541391 17275 net.cpp:156] Memory required for data: 61836400
I0403 14:38:22.541405 17275 layer_factory.hpp:77] Creating layer conv1
I0403 14:38:22.541435 17275 net.cpp:91] Creating Layer conv1
I0403 14:38:22.541453 17275 net.cpp:425] conv1 <- data
I0403 14:38:22.541471 17275 net.cpp:399] conv1 -> conv1
I0403 14:38:22.683333 17275 net.cpp:141] Setting up conv1
I0403 14:38:22.683425 17275 net.cpp:148] Top shape: 100 96 55 55 (29040000)
I0403 14:38:22.683441 17275 net.cpp:156] Memory required for data: 177996400
I0403 14:38:22.683472 17275 layer_factory.hpp:77] Creating layer relu1
I0403 14:38:22.683501 17275 net.cpp:91] Creating Layer relu1
I0403 14:38:22.683519 17275 net.cpp:425] relu1 <- conv1
I0403 14:38:22.683537 17275 net.cpp:386] relu1 -> conv1 (in-place)
I0403 14:38:22.683794 17275 net.cpp:141] Setting up relu1
I0403 14:38:22.683822 17275 net.cpp:148] Top shape: 100 96 55 55 (29040000)
I0403 14:38:22.683874 17275 net.cpp:156] Memory required for data: 294156400
I0403 14:38:22.683892 17275 layer_factory.hpp:77] Creating layer norm1
I0403 14:38:22.683922 17275 net.cpp:91] Creating Layer norm1
I0403 14:38:22.683939 17275 net.cpp:425] norm1 <- conv1
I0403 14:38:22.683957 17275 net.cpp:399] norm1 -> norm1
I0403 14:38:22.684281 17275 net.cpp:141] Setting up norm1
I0403 14:38:22.684309 17275 net.cpp:148] Top shape: 100 96 55 55 (29040000)
I0403 14:38:22.684325 17275 net.cpp:156] Memory required for data: 410316400
I0403 14:38:22.684340 17275 layer_factory.hpp:77] Creating layer pool1
I0403 14:38:22.684362 17275 net.cpp:91] Creating Layer pool1
I0403 14:38:22.684379 17275 net.cpp:425] pool1 <- norm1
I0403 14:38:22.684396 17275 net.cpp:399] pool1 -> pool1
I0403 14:38:22.684464 17275 net.cpp:141] Setting up pool1
I0403 14:38:22.684489 17275 net.cpp:148] Top shape: 100 96 27 27 (6998400)
I0403 14:38:22.684504 17275 net.cpp:156] Memory required for data: 438310000
I0403 14:38:22.684517 17275 layer_factory.hpp:77] Creating layer conv2
I0403 14:38:22.684541 17275 net.cpp:91] Creating Layer conv2
I0403 14:38:22.684557 17275 net.cpp:425] conv2 <- pool1
I0403 14:38:22.684576 17275 net.cpp:399] conv2 -> conv2
I0403 14:38:22.699494 17275 net.cpp:141] Setting up conv2
I0403 14:38:22.699533 17275 net.cpp:148] Top shape: 100 256 27 27 (18662400)
I0403 14:38:22.699548 17275 net.cpp:156] Memory required for data: 512959600
I0403 14:38:22.699571 17275 layer_factory.hpp:77] Creating layer relu2
I0403 14:38:22.699589 17275 net.cpp:91] Creating Layer relu2
I0403 14:38:22.699605 17275 net.cpp:425] relu2 <- conv2
I0403 14:38:22.699625 17275 net.cpp:386] relu2 -> conv2 (in-place)
I0403 14:38:22.699898 17275 net.cpp:141] Setting up relu2
I0403 14:38:22.699925 17275 net.cpp:148] Top shape: 100 256 27 27 (18662400)
I0403 14:38:22.699940 17275 net.cpp:156] Memory required for data: 587609200
I0403 14:38:22.699955 17275 layer_factory.hpp:77] Creating layer norm2
I0403 14:38:22.699990 17275 net.cpp:91] Creating Layer norm2
I0403 14:38:22.700007 17275 net.cpp:425] norm2 <- conv2
I0403 14:38:22.700026 17275 net.cpp:399] norm2 -> norm2
I0403 14:38:22.700233 17275 net.cpp:141] Setting up norm2
I0403 14:38:22.700259 17275 net.cpp:148] Top shape: 100 256 27 27 (18662400)
I0403 14:38:22.700274 17275 net.cpp:156] Memory required for data: 662258800
I0403 14:38:22.700289 17275 layer_factory.hpp:77] Creating layer pool2
I0403 14:38:22.700307 17275 net.cpp:91] Creating Layer pool2
I0403 14:38:22.700322 17275 net.cpp:425] pool2 <- norm2
I0403 14:38:22.700341 17275 net.cpp:399] pool2 -> pool2
I0403 14:38:22.700394 17275 net.cpp:141] Setting up pool2
I0403 14:38:22.700417 17275 net.cpp:148] Top shape: 100 256 13 13 (4326400)
I0403 14:38:22.700433 17275 net.cpp:156] Memory required for data: 679564400
I0403 14:38:22.700446 17275 layer_factory.hpp:77] Creating layer conv3
I0403 14:38:22.700472 17275 net.cpp:91] Creating Layer conv3
I0403 14:38:22.700489 17275 net.cpp:425] conv3 <- pool2
I0403 14:38:22.700507 17275 net.cpp:399] conv3 -> conv3
I0403 14:38:22.742436 17275 net.cpp:141] Setting up conv3
I0403 14:38:22.742523 17275 net.cpp:148] Top shape: 100 384 13 13 (6489600)
I0403 14:38:22.742540 17275 net.cpp:156] Memory required for data: 705522800
I0403 14:38:22.742566 17275 layer_factory.hpp:77] Creating layer relu3
I0403 14:38:22.742588 17275 net.cpp:91] Creating Layer relu3
I0403 14:38:22.742604 17275 net.cpp:425] relu3 <- conv3
I0403 14:38:22.742626 17275 net.cpp:386] relu3 -> conv3 (in-place)
I0403 14:38:22.742899 17275 net.cpp:141] Setting up relu3
I0403 14:38:22.742925 17275 net.cpp:148] Top shape: 100 384 13 13 (6489600)
I0403 14:38:22.742939 17275 net.cpp:156] Memory required for data: 731481200
I0403 14:38:22.742954 17275 layer_factory.hpp:77] Creating layer conv4
I0403 14:38:22.742980 17275 net.cpp:91] Creating Layer conv4
I0403 14:38:22.742997 17275 net.cpp:425] conv4 <- conv3
I0403 14:38:22.743017 17275 net.cpp:399] conv4 -> conv4
I0403 14:38:22.772728 17275 net.cpp:141] Setting up conv4
I0403 14:38:22.772802 17275 net.cpp:148] Top shape: 100 384 13 13 (6489600)
I0403 14:38:22.772851 17275 net.cpp:156] Memory required for data: 757439600
I0403 14:38:22.772874 17275 layer_factory.hpp:77] Creating layer relu4
I0403 14:38:22.772897 17275 net.cpp:91] Creating Layer relu4
I0403 14:38:22.772913 17275 net.cpp:425] relu4 <- conv4
I0403 14:38:22.772935 17275 net.cpp:386] relu4 -> conv4 (in-place)
I0403 14:38:22.773243 17275 net.cpp:141] Setting up relu4
I0403 14:38:22.773274 17275 net.cpp:148] Top shape: 100 384 13 13 (6489600)
I0403 14:38:22.773290 17275 net.cpp:156] Memory required for data: 783398000
I0403 14:38:22.773305 17275 layer_factory.hpp:77] Creating layer conv5
I0403 14:38:22.773330 17275 net.cpp:91] Creating Layer conv5
I0403 14:38:22.773347 17275 net.cpp:425] conv5 <- conv4
I0403 14:38:22.773366 17275 net.cpp:399] conv5 -> conv5
I0403 14:38:22.793975 17275 net.cpp:141] Setting up conv5
I0403 14:38:22.794034 17275 net.cpp:148] Top shape: 100 256 13 13 (4326400)
I0403 14:38:22.794055 17275 net.cpp:156] Memory required for data: 800703600
I0403 14:38:22.794082 17275 layer_factory.hpp:77] Creating layer relu5
I0403 14:38:22.794105 17275 net.cpp:91] Creating Layer relu5
I0403 14:38:22.794121 17275 net.cpp:425] relu5 <- conv5
I0403 14:38:22.794142 17275 net.cpp:386] relu5 -> conv5 (in-place)
I0403 14:38:22.794437 17275 net.cpp:141] Setting up relu5
I0403 14:38:22.794466 17275 net.cpp:148] Top shape: 100 256 13 13 (4326400)
I0403 14:38:22.794481 17275 net.cpp:156] Memory required for data: 818009200
I0403 14:38:22.794497 17275 layer_factory.hpp:77] Creating layer pool5
I0403 14:38:22.794522 17275 net.cpp:91] Creating Layer pool5
I0403 14:38:22.794539 17275 net.cpp:425] pool5 <- conv5
I0403 14:38:22.794558 17275 net.cpp:399] pool5 -> pool5
I0403 14:38:22.794620 17275 net.cpp:141] Setting up pool5
I0403 14:38:22.794644 17275 net.cpp:148] Top shape: 100 256 6 6 (921600)
I0403 14:38:22.794658 17275 net.cpp:156] Memory required for data: 821695600
I0403 14:38:22.794673 17275 layer_factory.hpp:77] Creating layer fc6
I0403 14:38:22.794700 17275 net.cpp:91] Creating Layer fc6
I0403 14:38:22.794718 17275 net.cpp:425] fc6 <- pool5
I0403 14:38:22.794739 17275 net.cpp:399] fc6 -> fc6
I0403 14:38:24.365490 17275 net.cpp:141] Setting up fc6
I0403 14:38:24.365530 17275 net.cpp:148] Top shape: 100 4096 (409600)
I0403 14:38:24.365545 17275 net.cpp:156] Memory required for data: 823334000
I0403 14:38:24.365566 17275 layer_factory.hpp:77] Creating layer relu6
I0403 14:38:24.365588 17275 net.cpp:91] Creating Layer relu6
I0403 14:38:24.365604 17275 net.cpp:425] relu6 <- fc6
I0403 14:38:24.365623 17275 net.cpp:386] relu6 -> fc6 (in-place)
I0403 14:38:24.365835 17275 net.cpp:141] Setting up relu6
I0403 14:38:24.365859 17275 net.cpp:148] Top shape: 100 4096 (409600)
I0403 14:38:24.365874 17275 net.cpp:156] Memory required for data: 824972400
I0403 14:38:24.365886 17275 layer_factory.hpp:77] Creating layer drop6
I0403 14:38:24.365905 17275 net.cpp:91] Creating Layer drop6
I0403 14:38:24.365919 17275 net.cpp:425] drop6 <- fc6
I0403 14:38:24.365937 17275 net.cpp:386] drop6 -> fc6 (in-place)
I0403 14:38:24.365986 17275 net.cpp:141] Setting up drop6
I0403 14:38:24.366011 17275 net.cpp:148] Top shape: 100 4096 (409600)
I0403 14:38:24.366026 17275 net.cpp:156] Memory required for data: 826610800
I0403 14:38:24.366040 17275 layer_factory.hpp:77] Creating layer fc7
I0403 14:38:24.366065 17275 net.cpp:91] Creating Layer fc7
I0403 14:38:24.366080 17275 net.cpp:425] fc7 <- fc6
I0403 14:38:24.366099 17275 net.cpp:399] fc7 -> fc7
I0403 14:38:25.050603 17275 net.cpp:141] Setting up fc7
I0403 14:38:25.050679 17275 net.cpp:148] Top shape: 100 4096 (409600)
I0403 14:38:25.050695 17275 net.cpp:156] Memory required for data: 828249200
I0403 14:38:25.050715 17275 layer_factory.hpp:77] Creating layer relu7
I0403 14:38:25.050736 17275 net.cpp:91] Creating Layer relu7
I0403 14:38:25.050752 17275 net.cpp:425] relu7 <- fc7
I0403 14:38:25.050773 17275 net.cpp:386] relu7 -> fc7 (in-place)
I0403 14:38:25.051203 17275 net.cpp:141] Setting up relu7
I0403 14:38:25.051229 17275 net.cpp:148] Top shape: 100 4096 (409600)
I0403 14:38:25.051275 17275 net.cpp:156] Memory required for data: 829887600
I0403 14:38:25.051290 17275 layer_factory.hpp:77] Creating layer drop7
I0403 14:38:25.051308 17275 net.cpp:91] Creating Layer drop7
I0403 14:38:25.051323 17275 net.cpp:425] drop7 <- fc7
I0403 14:38:25.051342 17275 net.cpp:386] drop7 -> fc7 (in-place)
I0403 14:38:25.051384 17275 net.cpp:141] Setting up drop7
I0403 14:38:25.051406 17275 net.cpp:148] Top shape: 100 4096 (409600)
I0403 14:38:25.051420 17275 net.cpp:156] Memory required for data: 831526000
I0403 14:38:25.051435 17275 layer_factory.hpp:77] Creating layer fc8_plantvillage
I0403 14:38:25.051456 17275 net.cpp:91] Creating Layer fc8_plantvillage
I0403 14:38:25.051472 17275 net.cpp:425] fc8_plantvillage <- fc7
I0403 14:38:25.051492 17275 net.cpp:399] fc8_plantvillage -> fc8_plantvillage
I0403 14:38:25.058182 17275 net.cpp:141] Setting up fc8_plantvillage
I0403 14:38:25.058208 17275 net.cpp:148] Top shape: 100 38 (3800)
I0403 14:38:25.058223 17275 net.cpp:156] Memory required for data: 831541200
I0403 14:38:25.058241 17275 layer_factory.hpp:77] Creating layer fc8_plantvillage_fc8_plantvillage_0_split
I0403 14:38:25.058259 17275 net.cpp:91] Creating Layer fc8_plantvillage_fc8_plantvillage_0_split
I0403 14:38:25.058274 17275 net.cpp:425] fc8_plantvillage_fc8_plantvillage_0_split <- fc8_plantvillage
I0403 14:38:25.058295 17275 net.cpp:399] fc8_plantvillage_fc8_plantvillage_0_split -> fc8_plantvillage_fc8_plantvillage_0_split_0
I0403 14:38:25.058315 17275 net.cpp:399] fc8_plantvillage_fc8_plantvillage_0_split -> fc8_plantvillage_fc8_plantvillage_0_split_1
I0403 14:38:25.058334 17275 net.cpp:399] fc8_plantvillage_fc8_plantvillage_0_split -> fc8_plantvillage_fc8_plantvillage_0_split_2
I0403 14:38:25.058408 17275 net.cpp:141] Setting up fc8_plantvillage_fc8_plantvillage_0_split
I0403 14:38:25.058430 17275 net.cpp:148] Top shape: 100 38 (3800)
I0403 14:38:25.058446 17275 net.cpp:148] Top shape: 100 38 (3800)
I0403 14:38:25.058461 17275 net.cpp:148] Top shape: 100 38 (3800)
I0403 14:38:25.058475 17275 net.cpp:156] Memory required for data: 831586800
I0403 14:38:25.058488 17275 layer_factory.hpp:77] Creating layer prob
I0403 14:38:25.058506 17275 net.cpp:91] Creating Layer prob
I0403 14:38:25.058521 17275 net.cpp:425] prob <- fc8_plantvillage_fc8_plantvillage_0_split_0
I0403 14:38:25.058539 17275 net.cpp:399] prob -> prob
I0403 14:38:25.058758 17275 net.cpp:141] Setting up prob
I0403 14:38:25.058785 17275 net.cpp:148] Top shape: 100 38 (3800)
I0403 14:38:25.058800 17275 net.cpp:156] Memory required for data: 831602000
I0403 14:38:25.058815 17275 layer_factory.hpp:77] Creating layer hdf5out
I0403 14:38:25.058832 17275 net.cpp:91] Creating Layer hdf5out
I0403 14:38:25.058847 17275 net.cpp:425] hdf5out <- prob
I0403 14:38:25.058861 17275 net.cpp:425] hdf5out <- label_data_1_split_0
I0403 14:38:25.061228 17275 net.cpp:141] Setting up hdf5out
…
