…
I0403 14:55:45.336663 17852 net.cpp:313] The NetState phase (1) differed from the phase (0) specified by a rule in layer data
I0403 14:55:45.336983 17852 net.cpp:49] Initializing net from parameters: 
state {
  phase: TEST
}
layer {
  name: "data"
  type: "Data"
  top: "data"
  top: "label"
  include {
    phase: TEST
  }
  transform_param {
    crop_size: 227
    mean_file: "/home/mohanty/data/final_dataset/lmdb/grayscale-40-60/mean.binaryproto"
  }
  data_param {
    source: "/home/mohanty/data/final_dataset/lmdb/grayscale-40-60/test_db"
    batch_size: 100
    backend: LMDB
  }
}
layer {
  name: "conv1"
  type: "Convolution"
  bottom: "data"
  top: "conv1"
  param {
    lr_mult: 1
    decay_mult: 1
  }
  param {
    lr_mult: 2
    decay_mult: 0
  }
  convolution_param {
    num_output: 96
    kernel_size: 11
    stride: 4
    weight_filler {
      type: "gaussian"
      std: 0.01
    }
    bias_filler {
      type: "constant"
      value: 0
    }
  }
}
layer {
  name: "relu1"
  type: "ReLU"
  bottom: "conv1"
  top: "conv1"
}
layer {
  name: "norm1"
  type: "LRN"
  bottom: "conv1"
  top: "norm1"
  lrn_param {
    local_size: 5
    alpha: 0.0001
    beta: 0.75
  }
}
layer {
  name: "pool1"
  type: "Pooling"
  bottom: "norm1"
  top: "pool1"
  pooling_param {
    pool: MAX
    kernel_size: 3
    stride: 2
  }
}
layer {
  name: "conv2"
  type: "Convolution"
  bottom: "pool1"
  top: "conv2"
  param {
    lr_mult: 1
    decay_mult: 1
  }
  param {
    lr_mult: 2
    decay_mult: 0
  }
  convolution_param {
    num_output: 256
    pad: 2
    kernel_size: 5
    group: 2
    weight_filler {
      type: "gaussian"
      std: 0.01
    }
    bias_filler {
      type: "constant"
      value: 0.1
    }
  }
}
layer {
  name: "relu2"
  type: "ReLU"
  bottom: "conv2"
  top: "conv2"
}
layer {
  name: "norm2"
  type: "LRN"
  bottom: "conv2"
  top: "norm2"
  lrn_param {
    local_size: 5
    alpha: 0.0001
    beta: 0.75
  }
}
layer {
  name: "pool2"
  type: "Pooling"
  bottom: "norm2"
  top: "pool2"
  pooling_param {
    pool: MAX
    kernel_size: 3
    stride: 2
  }
}
layer {
  name: "conv3"
  type: "Convolution"
  bottom: "pool2"
  top: "conv3"
  param {
    lr_mult: 1
    decay_mult: 1
  }
  param {
    lr_mult: 2
    decay_mult: 0
  }
  convolution_param {
    num_output: 384
    pad: 1
    kernel_size: 3
    weight_filler {
      type: "gaussian"
      std: 0.01
    }
    bias_filler {
      type: "constant"
      value: 0
    }
  }
}
layer {
  name: "relu3"
  type: "ReLU"
  bottom: "conv3"
  top: "conv3"
}
layer {
  name: "conv4"
  type: "Convolution"
  bottom: "conv3"
  top: "conv4"
  param {
    lr_mult: 1
    decay_mult: 1
  }
  param {
    lr_mult: 2
    decay_mult: 0
  }
  convolution_param {
    num_output: 384
    pad: 1
    kernel_size: 3
    group: 2
    weight_filler {
      type: "gaussian"
      std: 0.01
    }
    bias_filler {
      type: "constant"
      value: 0.1
    }
  }
}
layer {
  name: "relu4"
  type: "ReLU"
  bottom: "conv4"
  top: "conv4"
}
layer {
  name: "conv5"
  type: "Convolution"
  bottom: "conv4"
  top: "conv5"
  param {
    lr_mult: 1
    decay_mult: 1
  }
  param {
    lr_mult: 2
    decay_mult: 0
  }
  convolution_param {
    num_output: 256
    pad: 1
    kernel_size: 3
    group: 2
    weight_filler {
      type: "gaussian"
      std: 0.01
    }
    bias_filler {
      type: "constant"
      value: 0.1
    }
  }
}
layer {
  name: "relu5"
  type: "ReLU"
  bottom: "conv5"
  top: "conv5"
}
layer {
  name: "pool5"
  type: "Pooling"
  bottom: "conv5"
  top: "pool5"
  pooling_param {
    pool: MAX
    kernel_size: 3
    stride: 2
  }
}
layer {
  name: "fc6"
  type: "InnerProduct"
  bottom: "pool5"
  top: "fc6"
  param {
    lr_mult: 1
    decay_mult: 1
  }
  param {
    lr_mult: 2
    decay_mult: 0
  }
  inner_product_param {
    num_output: 4096
    weight_filler {
      type: "gaussian"
      std: 0.005
    }
    bias_filler {
      type: "constant"
      value: 0.1
    }
  }
}
layer {
  name: "relu6"
  type: "ReLU"
  bottom: "fc6"
  top: "fc6"
}
layer {
  name: "drop6"
  type: "Dropout"
  bottom: "fc6"
  top: "fc6"
  dropout_param {
    dropout_ratio: 0.5
  }
}
layer {
  name: "fc7"
  type: "InnerProduct"
  bottom: "fc6"
  top: "fc7"
  param {
    lr_mult: 1
    decay_mult: 1
  }
  param {
    lr_mult: 2
    decay_mult: 0
  }
  inner_product_param {
    num_output: 4096
    weight_filler {
      type: "gaussian"
      std: 0.005
    }
    bias_filler {
      type: "constant"
      value: 0.1
    }
  }
}
layer {
  name: "relu7"
  type: "ReLU"
  bottom: "fc7"
  top: "fc7"
}
layer {
  name: "drop7"
  type: "Dropout"
  bottom: "fc7"
  top: "fc7"
  dropout_param {
    dropout_ratio: 0.5
  }
}
layer {
  name: "fc8_plantvillage"
  type: "InnerProduct"
  bottom: "fc7"
  top: "fc8_plantvillage"
  param {
    lr_mult: 1
    decay_mult: 1
  }
  param {
    lr_mult: 2
    decay_mult: 0
  }
  inner_product_param {
    num_output: 38
    weight_filler {
      type: "gaussian"
      std: 0.01
    }
    bias_filler {
      type: "constant"
      value: 0
    }
  }
}
layer {
  name: "prob"
  type: "Softmax"
  bottom: "fc8_plantvillage"
  top: "prob"
  include {
    phase: TEST
  }
}
layer {
  name: "hdf5out"
  type: "HDF5Output"
  bottom: "prob"
  bottom: "label"
  include {
    phase: TEST
  }
  hdf5_output_param {
    file_name: "hdf5_dumps/iter_6132.h5"
  }
}
layer {
  name: "loss"
  type: "SoftmaxWithLoss"
  bottom: "fc8_plantvillage"
  bottom: "label"
  top: "loss"
}
layer {
  name: "accuracy"
  type: "Accuracy"
  bottom: "fc8_plantvillage"
  bottom: "label"
  top: "accuracy"
  include {
    phase: TEST
  }
}
I0403 14:55:45.337559 17852 layer_factory.hpp:77] Creating layer data
I0403 14:55:45.338237 17852 net.cpp:91] Creating Layer data
I0403 14:55:45.338271 17852 net.cpp:399] data -> data
I0403 14:55:45.338332 17852 net.cpp:399] data -> label
I0403 14:55:45.338371 17852 data_transformer.cpp:25] Loading mean file from: /home/mohanty/data/final_dataset/lmdb/grayscale-40-60/mean.binaryproto
I0403 14:55:45.340706 17857 db_lmdb.cpp:38] Opened lmdb /home/mohanty/data/final_dataset/lmdb/grayscale-40-60/test_db
I0403 14:55:45.353174 17852 data_layer.cpp:41] output data size: 100,3,227,227
I0403 14:55:45.476379 17852 net.cpp:141] Setting up data
I0403 14:55:45.476490 17852 net.cpp:148] Top shape: 100 3 227 227 (15458700)
I0403 14:55:45.476513 17852 net.cpp:148] Top shape: 100 (100)
I0403 14:55:45.476528 17852 net.cpp:156] Memory required for data: 61835200
I0403 14:55:45.476557 17852 layer_factory.hpp:77] Creating layer label_data_1_split
I0403 14:55:45.476583 17852 net.cpp:91] Creating Layer label_data_1_split
I0403 14:55:45.476600 17852 net.cpp:425] label_data_1_split <- label
I0403 14:55:45.476632 17852 net.cpp:399] label_data_1_split -> label_data_1_split_0
I0403 14:55:45.476660 17852 net.cpp:399] label_data_1_split -> label_data_1_split_1
I0403 14:55:45.476680 17852 net.cpp:399] label_data_1_split -> label_data_1_split_2
I0403 14:55:45.476744 17852 net.cpp:141] Setting up label_data_1_split
I0403 14:55:45.476768 17852 net.cpp:148] Top shape: 100 (100)
I0403 14:55:45.476783 17852 net.cpp:148] Top shape: 100 (100)
I0403 14:55:45.476799 17852 net.cpp:148] Top shape: 100 (100)
I0403 14:55:45.476812 17852 net.cpp:156] Memory required for data: 61836400
I0403 14:55:45.476826 17852 layer_factory.hpp:77] Creating layer conv1
I0403 14:55:45.476858 17852 net.cpp:91] Creating Layer conv1
I0403 14:55:45.476876 17852 net.cpp:425] conv1 <- data
I0403 14:55:45.476896 17852 net.cpp:399] conv1 -> conv1
I0403 14:55:45.623512 17852 net.cpp:141] Setting up conv1
I0403 14:55:45.623600 17852 net.cpp:148] Top shape: 100 96 55 55 (29040000)
I0403 14:55:45.623616 17852 net.cpp:156] Memory required for data: 177996400
I0403 14:55:45.623648 17852 layer_factory.hpp:77] Creating layer relu1
I0403 14:55:45.623675 17852 net.cpp:91] Creating Layer relu1
I0403 14:55:45.623693 17852 net.cpp:425] relu1 <- conv1
I0403 14:55:45.623713 17852 net.cpp:386] relu1 -> conv1 (in-place)
I0403 14:55:45.624020 17852 net.cpp:141] Setting up relu1
I0403 14:55:45.624060 17852 net.cpp:148] Top shape: 100 96 55 55 (29040000)
I0403 14:55:45.624107 17852 net.cpp:156] Memory required for data: 294156400
I0403 14:55:45.624125 17852 layer_factory.hpp:77] Creating layer norm1
I0403 14:55:45.624151 17852 net.cpp:91] Creating Layer norm1
I0403 14:55:45.624169 17852 net.cpp:425] norm1 <- conv1
I0403 14:55:45.624187 17852 net.cpp:399] norm1 -> norm1
I0403 14:55:45.624496 17852 net.cpp:141] Setting up norm1
I0403 14:55:45.624524 17852 net.cpp:148] Top shape: 100 96 55 55 (29040000)
I0403 14:55:45.624539 17852 net.cpp:156] Memory required for data: 410316400
I0403 14:55:45.624554 17852 layer_factory.hpp:77] Creating layer pool1
I0403 14:55:45.624577 17852 net.cpp:91] Creating Layer pool1
I0403 14:55:45.624594 17852 net.cpp:425] pool1 <- norm1
I0403 14:55:45.624613 17852 net.cpp:399] pool1 -> pool1
I0403 14:55:45.624680 17852 net.cpp:141] Setting up pool1
I0403 14:55:45.624704 17852 net.cpp:148] Top shape: 100 96 27 27 (6998400)
I0403 14:55:45.624719 17852 net.cpp:156] Memory required for data: 438310000
I0403 14:55:45.624734 17852 layer_factory.hpp:77] Creating layer conv2
I0403 14:55:45.624758 17852 net.cpp:91] Creating Layer conv2
I0403 14:55:45.624773 17852 net.cpp:425] conv2 <- pool1
I0403 14:55:45.624793 17852 net.cpp:399] conv2 -> conv2
I0403 14:55:45.639992 17852 net.cpp:141] Setting up conv2
I0403 14:55:45.640027 17852 net.cpp:148] Top shape: 100 256 27 27 (18662400)
I0403 14:55:45.640051 17852 net.cpp:156] Memory required for data: 512959600
I0403 14:55:45.640076 17852 layer_factory.hpp:77] Creating layer relu2
I0403 14:55:45.640100 17852 net.cpp:91] Creating Layer relu2
I0403 14:55:45.640118 17852 net.cpp:425] relu2 <- conv2
I0403 14:55:45.640136 17852 net.cpp:386] relu2 -> conv2 (in-place)
I0403 14:55:45.640424 17852 net.cpp:141] Setting up relu2
I0403 14:55:45.640455 17852 net.cpp:148] Top shape: 100 256 27 27 (18662400)
I0403 14:55:45.640472 17852 net.cpp:156] Memory required for data: 587609200
I0403 14:55:45.640489 17852 layer_factory.hpp:77] Creating layer norm2
I0403 14:55:45.640511 17852 net.cpp:91] Creating Layer norm2
I0403 14:55:45.640529 17852 net.cpp:425] norm2 <- conv2
I0403 14:55:45.640547 17852 net.cpp:399] norm2 -> norm2
I0403 14:55:45.640749 17852 net.cpp:141] Setting up norm2
I0403 14:55:45.640774 17852 net.cpp:148] Top shape: 100 256 27 27 (18662400)
I0403 14:55:45.640789 17852 net.cpp:156] Memory required for data: 662258800
I0403 14:55:45.640805 17852 layer_factory.hpp:77] Creating layer pool2
I0403 14:55:45.640825 17852 net.cpp:91] Creating Layer pool2
I0403 14:55:45.640841 17852 net.cpp:425] pool2 <- norm2
I0403 14:55:45.640858 17852 net.cpp:399] pool2 -> pool2
I0403 14:55:45.640950 17852 net.cpp:141] Setting up pool2
I0403 14:55:45.640974 17852 net.cpp:148] Top shape: 100 256 13 13 (4326400)
I0403 14:55:45.640990 17852 net.cpp:156] Memory required for data: 679564400
I0403 14:55:45.641005 17852 layer_factory.hpp:77] Creating layer conv3
I0403 14:55:45.641026 17852 net.cpp:91] Creating Layer conv3
I0403 14:55:45.641044 17852 net.cpp:425] conv3 <- pool2
I0403 14:55:45.641069 17852 net.cpp:399] conv3 -> conv3
I0403 14:55:45.680738 17852 net.cpp:141] Setting up conv3
I0403 14:55:45.680814 17852 net.cpp:148] Top shape: 100 384 13 13 (6489600)
I0403 14:55:45.680831 17852 net.cpp:156] Memory required for data: 705522800
I0403 14:55:45.680856 17852 layer_factory.hpp:77] Creating layer relu3
I0403 14:55:45.680878 17852 net.cpp:91] Creating Layer relu3
I0403 14:55:45.680896 17852 net.cpp:425] relu3 <- conv3
I0403 14:55:45.680915 17852 net.cpp:386] relu3 -> conv3 (in-place)
I0403 14:55:45.681210 17852 net.cpp:141] Setting up relu3
I0403 14:55:45.681241 17852 net.cpp:148] Top shape: 100 384 13 13 (6489600)
I0403 14:55:45.681257 17852 net.cpp:156] Memory required for data: 731481200
I0403 14:55:45.681272 17852 layer_factory.hpp:77] Creating layer conv4
I0403 14:55:45.681298 17852 net.cpp:91] Creating Layer conv4
I0403 14:55:45.681315 17852 net.cpp:425] conv4 <- conv3
I0403 14:55:45.681335 17852 net.cpp:399] conv4 -> conv4
I0403 14:55:45.712394 17852 net.cpp:141] Setting up conv4
I0403 14:55:45.712446 17852 net.cpp:148] Top shape: 100 384 13 13 (6489600)
I0403 14:55:45.712494 17852 net.cpp:156] Memory required for data: 757439600
I0403 14:55:45.712517 17852 layer_factory.hpp:77] Creating layer relu4
I0403 14:55:45.712541 17852 net.cpp:91] Creating Layer relu4
I0403 14:55:45.712559 17852 net.cpp:425] relu4 <- conv4
I0403 14:55:45.712577 17852 net.cpp:386] relu4 -> conv4 (in-place)
I0403 14:55:45.712898 17852 net.cpp:141] Setting up relu4
I0403 14:55:45.712925 17852 net.cpp:148] Top shape: 100 384 13 13 (6489600)
I0403 14:55:45.712939 17852 net.cpp:156] Memory required for data: 783398000
I0403 14:55:45.712954 17852 layer_factory.hpp:77] Creating layer conv5
I0403 14:55:45.712978 17852 net.cpp:91] Creating Layer conv5
I0403 14:55:45.712996 17852 net.cpp:425] conv5 <- conv4
I0403 14:55:45.713016 17852 net.cpp:399] conv5 -> conv5
I0403 14:55:45.733253 17852 net.cpp:141] Setting up conv5
I0403 14:55:45.733289 17852 net.cpp:148] Top shape: 100 256 13 13 (4326400)
I0403 14:55:45.733304 17852 net.cpp:156] Memory required for data: 800703600
I0403 14:55:45.733327 17852 layer_factory.hpp:77] Creating layer relu5
I0403 14:55:45.733348 17852 net.cpp:91] Creating Layer relu5
I0403 14:55:45.733366 17852 net.cpp:425] relu5 <- conv5
I0403 14:55:45.733382 17852 net.cpp:386] relu5 -> conv5 (in-place)
I0403 14:55:45.733670 17852 net.cpp:141] Setting up relu5
I0403 14:55:45.733700 17852 net.cpp:148] Top shape: 100 256 13 13 (4326400)
I0403 14:55:45.733716 17852 net.cpp:156] Memory required for data: 818009200
I0403 14:55:45.733731 17852 layer_factory.hpp:77] Creating layer pool5
I0403 14:55:45.733753 17852 net.cpp:91] Creating Layer pool5
I0403 14:55:45.733768 17852 net.cpp:425] pool5 <- conv5
I0403 14:55:45.733791 17852 net.cpp:399] pool5 -> pool5
I0403 14:55:45.733852 17852 net.cpp:141] Setting up pool5
I0403 14:55:45.733889 17852 net.cpp:148] Top shape: 100 256 6 6 (921600)
I0403 14:55:45.733904 17852 net.cpp:156] Memory required for data: 821695600
I0403 14:55:45.733918 17852 layer_factory.hpp:77] Creating layer fc6
I0403 14:55:45.733944 17852 net.cpp:91] Creating Layer fc6
I0403 14:55:45.733963 17852 net.cpp:425] fc6 <- pool5
I0403 14:55:45.733983 17852 net.cpp:399] fc6 -> fc6
I0403 14:55:47.291534 17852 net.cpp:141] Setting up fc6
I0403 14:55:47.291576 17852 net.cpp:148] Top shape: 100 4096 (409600)
I0403 14:55:47.291592 17852 net.cpp:156] Memory required for data: 823334000
I0403 14:55:47.291613 17852 layer_factory.hpp:77] Creating layer relu6
I0403 14:55:47.291638 17852 net.cpp:91] Creating Layer relu6
I0403 14:55:47.291654 17852 net.cpp:425] relu6 <- fc6
I0403 14:55:47.291673 17852 net.cpp:386] relu6 -> fc6 (in-place)
I0403 14:55:47.291889 17852 net.cpp:141] Setting up relu6
I0403 14:55:47.291913 17852 net.cpp:148] Top shape: 100 4096 (409600)
I0403 14:55:47.291928 17852 net.cpp:156] Memory required for data: 824972400
I0403 14:55:47.291941 17852 layer_factory.hpp:77] Creating layer drop6
I0403 14:55:47.291962 17852 net.cpp:91] Creating Layer drop6
I0403 14:55:47.291978 17852 net.cpp:425] drop6 <- fc6
I0403 14:55:47.291996 17852 net.cpp:386] drop6 -> fc6 (in-place)
I0403 14:55:47.292053 17852 net.cpp:141] Setting up drop6
I0403 14:55:47.292076 17852 net.cpp:148] Top shape: 100 4096 (409600)
I0403 14:55:47.292090 17852 net.cpp:156] Memory required for data: 826610800
I0403 14:55:47.292105 17852 layer_factory.hpp:77] Creating layer fc7
I0403 14:55:47.292129 17852 net.cpp:91] Creating Layer fc7
I0403 14:55:47.292145 17852 net.cpp:425] fc7 <- fc6
I0403 14:55:47.292163 17852 net.cpp:399] fc7 -> fc7
I0403 14:55:47.998967 17852 net.cpp:141] Setting up fc7
I0403 14:55:47.999017 17852 net.cpp:148] Top shape: 100 4096 (409600)
I0403 14:55:47.999035 17852 net.cpp:156] Memory required for data: 828249200
I0403 14:55:47.999063 17852 layer_factory.hpp:77] Creating layer relu7
I0403 14:55:47.999089 17852 net.cpp:91] Creating Layer relu7
I0403 14:55:47.999109 17852 net.cpp:425] relu7 <- fc7
I0403 14:55:47.999127 17852 net.cpp:386] relu7 -> fc7 (in-place)
I0403 14:55:47.999553 17852 net.cpp:141] Setting up relu7
I0403 14:55:47.999585 17852 net.cpp:148] Top shape: 100 4096 (409600)
I0403 14:55:47.999629 17852 net.cpp:156] Memory required for data: 829887600
I0403 14:55:47.999646 17852 layer_factory.hpp:77] Creating layer drop7
I0403 14:55:47.999667 17852 net.cpp:91] Creating Layer drop7
I0403 14:55:47.999683 17852 net.cpp:425] drop7 <- fc7
I0403 14:55:47.999701 17852 net.cpp:386] drop7 -> fc7 (in-place)
I0403 14:55:47.999749 17852 net.cpp:141] Setting up drop7
I0403 14:55:47.999773 17852 net.cpp:148] Top shape: 100 4096 (409600)
I0403 14:55:47.999788 17852 net.cpp:156] Memory required for data: 831526000
I0403 14:55:47.999804 17852 layer_factory.hpp:77] Creating layer fc8_plantvillage
I0403 14:55:47.999826 17852 net.cpp:91] Creating Layer fc8_plantvillage
I0403 14:55:47.999843 17852 net.cpp:425] fc8_plantvillage <- fc7
I0403 14:55:47.999862 17852 net.cpp:399] fc8_plantvillage -> fc8_plantvillage
I0403 14:55:48.007017 17852 net.cpp:141] Setting up fc8_plantvillage
I0403 14:55:48.007052 17852 net.cpp:148] Top shape: 100 38 (3800)
I0403 14:55:48.007071 17852 net.cpp:156] Memory required for data: 831541200
I0403 14:55:48.007092 17852 layer_factory.hpp:77] Creating layer fc8_plantvillage_fc8_plantvillage_0_split
I0403 14:55:48.007115 17852 net.cpp:91] Creating Layer fc8_plantvillage_fc8_plantvillage_0_split
I0403 14:55:48.007133 17852 net.cpp:425] fc8_plantvillage_fc8_plantvillage_0_split <- fc8_plantvillage
I0403 14:55:48.007153 17852 net.cpp:399] fc8_plantvillage_fc8_plantvillage_0_split -> fc8_plantvillage_fc8_plantvillage_0_split_0
I0403 14:55:48.007177 17852 net.cpp:399] fc8_plantvillage_fc8_plantvillage_0_split -> fc8_plantvillage_fc8_plantvillage_0_split_1
I0403 14:55:48.007200 17852 net.cpp:399] fc8_plantvillage_fc8_plantvillage_0_split -> fc8_plantvillage_fc8_plantvillage_0_split_2
I0403 14:55:48.007282 17852 net.cpp:141] Setting up fc8_plantvillage_fc8_plantvillage_0_split
I0403 14:55:48.007308 17852 net.cpp:148] Top shape: 100 38 (3800)
I0403 14:55:48.007324 17852 net.cpp:148] Top shape: 100 38 (3800)
I0403 14:55:48.007339 17852 net.cpp:148] Top shape: 100 38 (3800)
I0403 14:55:48.007354 17852 net.cpp:156] Memory required for data: 831586800
I0403 14:55:48.007369 17852 layer_factory.hpp:77] Creating layer prob
I0403 14:55:48.007390 17852 net.cpp:91] Creating Layer prob
I0403 14:55:48.007406 17852 net.cpp:425] prob <- fc8_plantvillage_fc8_plantvillage_0_split_0
I0403 14:55:48.007426 17852 net.cpp:399] prob -> prob
I0403 14:55:48.007666 17852 net.cpp:141] Setting up prob
I0403 14:55:48.007694 17852 net.cpp:148] Top shape: 100 38 (3800)
I0403 14:55:48.007709 17852 net.cpp:156] Memory required for data: 831602000
I0403 14:55:48.007725 17852 layer_factory.hpp:77] Creating layer hdf5out
I0403 14:55:48.007746 17852 net.cpp:91] Creating Layer hdf5out
I0403 14:55:48.007763 17852 net.cpp:425] hdf5out <- prob
I0403 14:55:48.007781 17852 net.cpp:425] hdf5out <- label_data_1_split_0
I0403 14:55:48.009891 17852 net.cpp:141] Setting up hdf5out
…
