…
I0403 14:31:49.599383 17095 net.cpp:313] The NetState phase (1) differed from the phase (0) specified by a rule in layer data
I0403 14:31:49.599711 17095 net.cpp:49] Initializing net from parameters: 
state {
  phase: TEST
}
layer {
  name: "data"
  type: "Data"
  top: "data"
  top: "label"
  include {
    phase: TEST
  }
  transform_param {
    crop_size: 227
    mean_file: "/home/mohanty/data/final_dataset/lmdb/grayscale-40-60/mean.binaryproto"
  }
  data_param {
    source: "/home/mohanty/data/final_dataset/lmdb/grayscale-40-60/test_db"
    batch_size: 100
    backend: LMDB
  }
}
layer {
  name: "conv1"
  type: "Convolution"
  bottom: "data"
  top: "conv1"
  param {
    lr_mult: 1
    decay_mult: 1
  }
  param {
    lr_mult: 2
    decay_mult: 0
  }
  convolution_param {
    num_output: 96
    kernel_size: 11
    stride: 4
    weight_filler {
      type: "gaussian"
      std: 0.01
    }
    bias_filler {
      type: "constant"
      value: 0
    }
  }
}
layer {
  name: "relu1"
  type: "ReLU"
  bottom: "conv1"
  top: "conv1"
}
layer {
  name: "norm1"
  type: "LRN"
  bottom: "conv1"
  top: "norm1"
  lrn_param {
    local_size: 5
    alpha: 0.0001
    beta: 0.75
  }
}
layer {
  name: "pool1"
  type: "Pooling"
  bottom: "norm1"
  top: "pool1"
  pooling_param {
    pool: MAX
    kernel_size: 3
    stride: 2
  }
}
layer {
  name: "conv2"
  type: "Convolution"
  bottom: "pool1"
  top: "conv2"
  param {
    lr_mult: 1
    decay_mult: 1
  }
  param {
    lr_mult: 2
    decay_mult: 0
  }
  convolution_param {
    num_output: 256
    pad: 2
    kernel_size: 5
    group: 2
    weight_filler {
      type: "gaussian"
      std: 0.01
    }
    bias_filler {
      type: "constant"
      value: 0.1
    }
  }
}
layer {
  name: "relu2"
  type: "ReLU"
  bottom: "conv2"
  top: "conv2"
}
layer {
  name: "norm2"
  type: "LRN"
  bottom: "conv2"
  top: "norm2"
  lrn_param {
    local_size: 5
    alpha: 0.0001
    beta: 0.75
  }
}
layer {
  name: "pool2"
  type: "Pooling"
  bottom: "norm2"
  top: "pool2"
  pooling_param {
    pool: MAX
    kernel_size: 3
    stride: 2
  }
}
layer {
  name: "conv3"
  type: "Convolution"
  bottom: "pool2"
  top: "conv3"
  param {
    lr_mult: 1
    decay_mult: 1
  }
  param {
    lr_mult: 2
    decay_mult: 0
  }
  convolution_param {
    num_output: 384
    pad: 1
    kernel_size: 3
    weight_filler {
      type: "gaussian"
      std: 0.01
    }
    bias_filler {
      type: "constant"
      value: 0
    }
  }
}
layer {
  name: "relu3"
  type: "ReLU"
  bottom: "conv3"
  top: "conv3"
}
layer {
  name: "conv4"
  type: "Convolution"
  bottom: "conv3"
  top: "conv4"
  param {
    lr_mult: 1
    decay_mult: 1
  }
  param {
    lr_mult: 2
    decay_mult: 0
  }
  convolution_param {
    num_output: 384
    pad: 1
    kernel_size: 3
    group: 2
    weight_filler {
      type: "gaussian"
      std: 0.01
    }
    bias_filler {
      type: "constant"
      value: 0.1
    }
  }
}
layer {
  name: "relu4"
  type: "ReLU"
  bottom: "conv4"
  top: "conv4"
}
layer {
  name: "conv5"
  type: "Convolution"
  bottom: "conv4"
  top: "conv5"
  param {
    lr_mult: 1
    decay_mult: 1
  }
  param {
    lr_mult: 2
    decay_mult: 0
  }
  convolution_param {
    num_output: 256
    pad: 1
    kernel_size: 3
    group: 2
    weight_filler {
      type: "gaussian"
      std: 0.01
    }
    bias_filler {
      type: "constant"
      value: 0.1
    }
  }
}
layer {
  name: "relu5"
  type: "ReLU"
  bottom: "conv5"
  top: "conv5"
}
layer {
  name: "pool5"
  type: "Pooling"
  bottom: "conv5"
  top: "pool5"
  pooling_param {
    pool: MAX
    kernel_size: 3
    stride: 2
  }
}
layer {
  name: "fc6"
  type: "InnerProduct"
  bottom: "pool5"
  top: "fc6"
  param {
    lr_mult: 1
    decay_mult: 1
  }
  param {
    lr_mult: 2
    decay_mult: 0
  }
  inner_product_param {
    num_output: 4096
    weight_filler {
      type: "gaussian"
      std: 0.005
    }
    bias_filler {
      type: "constant"
      value: 0.1
    }
  }
}
layer {
  name: "relu6"
  type: "ReLU"
  bottom: "fc6"
  top: "fc6"
}
layer {
  name: "drop6"
  type: "Dropout"
  bottom: "fc6"
  top: "fc6"
  dropout_param {
    dropout_ratio: 0.5
  }
}
layer {
  name: "fc7"
  type: "InnerProduct"
  bottom: "fc6"
  top: "fc7"
  param {
    lr_mult: 1
    decay_mult: 1
  }
  param {
    lr_mult: 2
    decay_mult: 0
  }
  inner_product_param {
    num_output: 4096
    weight_filler {
      type: "gaussian"
      std: 0.005
    }
    bias_filler {
      type: "constant"
      value: 0.1
    }
  }
}
layer {
  name: "relu7"
  type: "ReLU"
  bottom: "fc7"
  top: "fc7"
}
layer {
  name: "drop7"
  type: "Dropout"
  bottom: "fc7"
  top: "fc7"
  dropout_param {
    dropout_ratio: 0.5
  }
}
layer {
  name: "fc8_plantvillage"
  type: "InnerProduct"
  bottom: "fc7"
  top: "fc8_plantvillage"
  param {
    lr_mult: 1
    decay_mult: 1
  }
  param {
    lr_mult: 2
    decay_mult: 0
  }
  inner_product_param {
    num_output: 38
    weight_filler {
      type: "gaussian"
      std: 0.01
    }
    bias_filler {
      type: "constant"
      value: 0
    }
  }
}
layer {
  name: "prob"
  type: "Softmax"
  bottom: "fc8_plantvillage"
  top: "prob"
  include {
    phase: TEST
  }
}
layer {
  name: "hdf5out"
  type: "HDF5Output"
  bottom: "prob"
  bottom: "label"
  include {
    phase: TEST
  }
  hdf5_output_param {
    file_name: "hdf5_dumps/iter_1314.h5"
  }
}
layer {
  name: "loss"
  type: "SoftmaxWithLoss"
  bottom: "fc8_plantvillage"
  bottom: "label"
  top: "loss"
}
layer {
  name: "accuracy"
  type: "Accuracy"
  bottom: "fc8_plantvillage"
  bottom: "label"
  top: "accuracy"
  include {
    phase: TEST
  }
}
I0403 14:31:49.600283 17095 layer_factory.hpp:77] Creating layer data
I0403 14:31:49.600934 17095 net.cpp:91] Creating Layer data
I0403 14:31:49.600966 17095 net.cpp:399] data -> data
I0403 14:31:49.601018 17095 net.cpp:399] data -> label
I0403 14:31:49.601075 17095 data_transformer.cpp:25] Loading mean file from: /home/mohanty/data/final_dataset/lmdb/grayscale-40-60/mean.binaryproto
I0403 14:31:49.603914 17098 db_lmdb.cpp:38] Opened lmdb /home/mohanty/data/final_dataset/lmdb/grayscale-40-60/test_db
I0403 14:31:49.615723 17095 data_layer.cpp:41] output data size: 100,3,227,227
I0403 14:31:49.738507 17095 net.cpp:141] Setting up data
I0403 14:31:49.738569 17095 net.cpp:148] Top shape: 100 3 227 227 (15458700)
I0403 14:31:49.738595 17095 net.cpp:148] Top shape: 100 (100)
I0403 14:31:49.738610 17095 net.cpp:156] Memory required for data: 61835200
I0403 14:31:49.738641 17095 layer_factory.hpp:77] Creating layer label_data_1_split
I0403 14:31:49.738667 17095 net.cpp:91] Creating Layer label_data_1_split
I0403 14:31:49.738687 17095 net.cpp:425] label_data_1_split <- label
I0403 14:31:49.738721 17095 net.cpp:399] label_data_1_split -> label_data_1_split_0
I0403 14:31:49.738749 17095 net.cpp:399] label_data_1_split -> label_data_1_split_1
I0403 14:31:49.738771 17095 net.cpp:399] label_data_1_split -> label_data_1_split_2
I0403 14:31:49.738837 17095 net.cpp:141] Setting up label_data_1_split
I0403 14:31:49.738863 17095 net.cpp:148] Top shape: 100 (100)
I0403 14:31:49.738880 17095 net.cpp:148] Top shape: 100 (100)
I0403 14:31:49.738898 17095 net.cpp:148] Top shape: 100 (100)
I0403 14:31:49.738914 17095 net.cpp:156] Memory required for data: 61836400
I0403 14:31:49.738930 17095 layer_factory.hpp:77] Creating layer conv1
I0403 14:31:49.738962 17095 net.cpp:91] Creating Layer conv1
I0403 14:31:49.738983 17095 net.cpp:425] conv1 <- data
I0403 14:31:49.739003 17095 net.cpp:399] conv1 -> conv1
I0403 14:31:49.883633 17095 net.cpp:141] Setting up conv1
I0403 14:31:49.883721 17095 net.cpp:148] Top shape: 100 96 55 55 (29040000)
I0403 14:31:49.883739 17095 net.cpp:156] Memory required for data: 177996400
I0403 14:31:49.883771 17095 layer_factory.hpp:77] Creating layer relu1
I0403 14:31:49.883798 17095 net.cpp:91] Creating Layer relu1
I0403 14:31:49.883817 17095 net.cpp:425] relu1 <- conv1
I0403 14:31:49.883836 17095 net.cpp:386] relu1 -> conv1 (in-place)
I0403 14:31:49.884098 17095 net.cpp:141] Setting up relu1
I0403 14:31:49.884125 17095 net.cpp:148] Top shape: 100 96 55 55 (29040000)
I0403 14:31:49.884173 17095 net.cpp:156] Memory required for data: 294156400
I0403 14:31:49.884189 17095 layer_factory.hpp:77] Creating layer norm1
I0403 14:31:49.884217 17095 net.cpp:91] Creating Layer norm1
I0403 14:31:49.884235 17095 net.cpp:425] norm1 <- conv1
I0403 14:31:49.884253 17095 net.cpp:399] norm1 -> norm1
I0403 14:31:49.884572 17095 net.cpp:141] Setting up norm1
I0403 14:31:49.884599 17095 net.cpp:148] Top shape: 100 96 55 55 (29040000)
I0403 14:31:49.884615 17095 net.cpp:156] Memory required for data: 410316400
I0403 14:31:49.884631 17095 layer_factory.hpp:77] Creating layer pool1
I0403 14:31:49.884654 17095 net.cpp:91] Creating Layer pool1
I0403 14:31:49.884671 17095 net.cpp:425] pool1 <- norm1
I0403 14:31:49.884690 17095 net.cpp:399] pool1 -> pool1
I0403 14:31:49.884757 17095 net.cpp:141] Setting up pool1
I0403 14:31:49.884779 17095 net.cpp:148] Top shape: 100 96 27 27 (6998400)
I0403 14:31:49.884794 17095 net.cpp:156] Memory required for data: 438310000
I0403 14:31:49.884809 17095 layer_factory.hpp:77] Creating layer conv2
I0403 14:31:49.884835 17095 net.cpp:91] Creating Layer conv2
I0403 14:31:49.884851 17095 net.cpp:425] conv2 <- pool1
I0403 14:31:49.884868 17095 net.cpp:399] conv2 -> conv2
I0403 14:31:49.899751 17095 net.cpp:141] Setting up conv2
I0403 14:31:49.899798 17095 net.cpp:148] Top shape: 100 256 27 27 (18662400)
I0403 14:31:49.899814 17095 net.cpp:156] Memory required for data: 512959600
I0403 14:31:49.899837 17095 layer_factory.hpp:77] Creating layer relu2
I0403 14:31:49.899858 17095 net.cpp:91] Creating Layer relu2
I0403 14:31:49.899874 17095 net.cpp:425] relu2 <- conv2
I0403 14:31:49.899893 17095 net.cpp:386] relu2 -> conv2 (in-place)
I0403 14:31:49.900161 17095 net.cpp:141] Setting up relu2
I0403 14:31:49.900187 17095 net.cpp:148] Top shape: 100 256 27 27 (18662400)
I0403 14:31:49.900202 17095 net.cpp:156] Memory required for data: 587609200
I0403 14:31:49.900218 17095 layer_factory.hpp:77] Creating layer norm2
I0403 14:31:49.900238 17095 net.cpp:91] Creating Layer norm2
I0403 14:31:49.900254 17095 net.cpp:425] norm2 <- conv2
I0403 14:31:49.900271 17095 net.cpp:399] norm2 -> norm2
I0403 14:31:49.900452 17095 net.cpp:141] Setting up norm2
I0403 14:31:49.900477 17095 net.cpp:148] Top shape: 100 256 27 27 (18662400)
I0403 14:31:49.900493 17095 net.cpp:156] Memory required for data: 662258800
I0403 14:31:49.900507 17095 layer_factory.hpp:77] Creating layer pool2
I0403 14:31:49.900527 17095 net.cpp:91] Creating Layer pool2
I0403 14:31:49.900542 17095 net.cpp:425] pool2 <- norm2
I0403 14:31:49.900559 17095 net.cpp:399] pool2 -> pool2
I0403 14:31:49.900609 17095 net.cpp:141] Setting up pool2
I0403 14:31:49.900630 17095 net.cpp:148] Top shape: 100 256 13 13 (4326400)
I0403 14:31:49.900645 17095 net.cpp:156] Memory required for data: 679564400
I0403 14:31:49.900660 17095 layer_factory.hpp:77] Creating layer conv3
I0403 14:31:49.900681 17095 net.cpp:91] Creating Layer conv3
I0403 14:31:49.900696 17095 net.cpp:425] conv3 <- pool2
I0403 14:31:49.900713 17095 net.cpp:399] conv3 -> conv3
I0403 14:31:49.944304 17095 net.cpp:141] Setting up conv3
I0403 14:31:49.944391 17095 net.cpp:148] Top shape: 100 384 13 13 (6489600)
I0403 14:31:49.944407 17095 net.cpp:156] Memory required for data: 705522800
I0403 14:31:49.944432 17095 layer_factory.hpp:77] Creating layer relu3
I0403 14:31:49.944454 17095 net.cpp:91] Creating Layer relu3
I0403 14:31:49.944471 17095 net.cpp:425] relu3 <- conv3
I0403 14:31:49.944490 17095 net.cpp:386] relu3 -> conv3 (in-place)
I0403 14:31:49.944766 17095 net.cpp:141] Setting up relu3
I0403 14:31:49.944795 17095 net.cpp:148] Top shape: 100 384 13 13 (6489600)
I0403 14:31:49.944811 17095 net.cpp:156] Memory required for data: 731481200
I0403 14:31:49.944826 17095 layer_factory.hpp:77] Creating layer conv4
I0403 14:31:49.944851 17095 net.cpp:91] Creating Layer conv4
I0403 14:31:49.944867 17095 net.cpp:425] conv4 <- conv3
I0403 14:31:49.944888 17095 net.cpp:399] conv4 -> conv4
I0403 14:31:49.974666 17095 net.cpp:141] Setting up conv4
I0403 14:31:49.974745 17095 net.cpp:148] Top shape: 100 384 13 13 (6489600)
I0403 14:31:49.974797 17095 net.cpp:156] Memory required for data: 757439600
I0403 14:31:49.974820 17095 layer_factory.hpp:77] Creating layer relu4
I0403 14:31:49.974843 17095 net.cpp:91] Creating Layer relu4
I0403 14:31:49.974860 17095 net.cpp:425] relu4 <- conv4
I0403 14:31:49.974880 17095 net.cpp:386] relu4 -> conv4 (in-place)
I0403 14:31:49.975164 17095 net.cpp:141] Setting up relu4
I0403 14:31:49.975191 17095 net.cpp:148] Top shape: 100 384 13 13 (6489600)
I0403 14:31:49.975234 17095 net.cpp:156] Memory required for data: 783398000
I0403 14:31:49.975251 17095 layer_factory.hpp:77] Creating layer conv5
I0403 14:31:49.975278 17095 net.cpp:91] Creating Layer conv5
I0403 14:31:49.975297 17095 net.cpp:425] conv5 <- conv4
I0403 14:31:49.975318 17095 net.cpp:399] conv5 -> conv5
I0403 14:31:49.995900 17095 net.cpp:141] Setting up conv5
I0403 14:31:49.995964 17095 net.cpp:148] Top shape: 100 256 13 13 (4326400)
I0403 14:31:49.995980 17095 net.cpp:156] Memory required for data: 800703600
I0403 14:31:49.996007 17095 layer_factory.hpp:77] Creating layer relu5
I0403 14:31:49.996036 17095 net.cpp:91] Creating Layer relu5
I0403 14:31:49.996052 17095 net.cpp:425] relu5 <- conv5
I0403 14:31:49.996073 17095 net.cpp:386] relu5 -> conv5 (in-place)
I0403 14:31:49.996374 17095 net.cpp:141] Setting up relu5
I0403 14:31:49.996405 17095 net.cpp:148] Top shape: 100 256 13 13 (4326400)
I0403 14:31:49.996422 17095 net.cpp:156] Memory required for data: 818009200
I0403 14:31:49.996438 17095 layer_factory.hpp:77] Creating layer pool5
I0403 14:31:49.996459 17095 net.cpp:91] Creating Layer pool5
I0403 14:31:49.996475 17095 net.cpp:425] pool5 <- conv5
I0403 14:31:49.996496 17095 net.cpp:399] pool5 -> pool5
I0403 14:31:49.996558 17095 net.cpp:141] Setting up pool5
I0403 14:31:49.996585 17095 net.cpp:148] Top shape: 100 256 6 6 (921600)
I0403 14:31:49.996600 17095 net.cpp:156] Memory required for data: 821695600
I0403 14:31:49.996615 17095 layer_factory.hpp:77] Creating layer fc6
I0403 14:31:49.996644 17095 net.cpp:91] Creating Layer fc6
I0403 14:31:49.996661 17095 net.cpp:425] fc6 <- pool5
I0403 14:31:49.996682 17095 net.cpp:399] fc6 -> fc6
I0403 14:31:51.549186 17095 net.cpp:141] Setting up fc6
I0403 14:31:51.549231 17095 net.cpp:148] Top shape: 100 4096 (409600)
I0403 14:31:51.549247 17095 net.cpp:156] Memory required for data: 823334000
I0403 14:31:51.549268 17095 layer_factory.hpp:77] Creating layer relu6
I0403 14:31:51.549289 17095 net.cpp:91] Creating Layer relu6
I0403 14:31:51.549306 17095 net.cpp:425] relu6 <- fc6
I0403 14:31:51.549325 17095 net.cpp:386] relu6 -> fc6 (in-place)
I0403 14:31:51.549541 17095 net.cpp:141] Setting up relu6
I0403 14:31:51.549569 17095 net.cpp:148] Top shape: 100 4096 (409600)
I0403 14:31:51.549584 17095 net.cpp:156] Memory required for data: 824972400
I0403 14:31:51.549599 17095 layer_factory.hpp:77] Creating layer drop6
I0403 14:31:51.549617 17095 net.cpp:91] Creating Layer drop6
I0403 14:31:51.549631 17095 net.cpp:425] drop6 <- fc6
I0403 14:31:51.549651 17095 net.cpp:386] drop6 -> fc6 (in-place)
I0403 14:31:51.549700 17095 net.cpp:141] Setting up drop6
I0403 14:31:51.549722 17095 net.cpp:148] Top shape: 100 4096 (409600)
I0403 14:31:51.549737 17095 net.cpp:156] Memory required for data: 826610800
I0403 14:31:51.549751 17095 layer_factory.hpp:77] Creating layer fc7
I0403 14:31:51.549777 17095 net.cpp:91] Creating Layer fc7
I0403 14:31:51.549793 17095 net.cpp:425] fc7 <- fc6
I0403 14:31:51.549814 17095 net.cpp:399] fc7 -> fc7
I0403 14:31:52.239379 17095 net.cpp:141] Setting up fc7
I0403 14:31:52.239466 17095 net.cpp:148] Top shape: 100 4096 (409600)
I0403 14:31:52.239482 17095 net.cpp:156] Memory required for data: 828249200
I0403 14:31:52.239503 17095 layer_factory.hpp:77] Creating layer relu7
I0403 14:31:52.239524 17095 net.cpp:91] Creating Layer relu7
I0403 14:31:52.239542 17095 net.cpp:425] relu7 <- fc7
I0403 14:31:52.239559 17095 net.cpp:386] relu7 -> fc7 (in-place)
I0403 14:31:52.240025 17095 net.cpp:141] Setting up relu7
I0403 14:31:52.240056 17095 net.cpp:148] Top shape: 100 4096 (409600)
I0403 14:31:52.240104 17095 net.cpp:156] Memory required for data: 829887600
I0403 14:31:52.240121 17095 layer_factory.hpp:77] Creating layer drop7
I0403 14:31:52.240140 17095 net.cpp:91] Creating Layer drop7
I0403 14:31:52.240156 17095 net.cpp:425] drop7 <- fc7
I0403 14:31:52.240173 17095 net.cpp:386] drop7 -> fc7 (in-place)
I0403 14:31:52.240231 17095 net.cpp:141] Setting up drop7
I0403 14:31:52.240254 17095 net.cpp:148] Top shape: 100 4096 (409600)
I0403 14:31:52.240268 17095 net.cpp:156] Memory required for data: 831526000
I0403 14:31:52.240295 17095 layer_factory.hpp:77] Creating layer fc8_plantvillage
I0403 14:31:52.240317 17095 net.cpp:91] Creating Layer fc8_plantvillage
I0403 14:31:52.240334 17095 net.cpp:425] fc8_plantvillage <- fc7
I0403 14:31:52.240351 17095 net.cpp:399] fc8_plantvillage -> fc8_plantvillage
I0403 14:31:52.247009 17095 net.cpp:141] Setting up fc8_plantvillage
I0403 14:31:52.247042 17095 net.cpp:148] Top shape: 100 38 (3800)
I0403 14:31:52.247057 17095 net.cpp:156] Memory required for data: 831541200
I0403 14:31:52.247076 17095 layer_factory.hpp:77] Creating layer fc8_plantvillage_fc8_plantvillage_0_split
I0403 14:31:52.247094 17095 net.cpp:91] Creating Layer fc8_plantvillage_fc8_plantvillage_0_split
I0403 14:31:52.247109 17095 net.cpp:425] fc8_plantvillage_fc8_plantvillage_0_split <- fc8_plantvillage
I0403 14:31:52.247129 17095 net.cpp:399] fc8_plantvillage_fc8_plantvillage_0_split -> fc8_plantvillage_fc8_plantvillage_0_split_0
I0403 14:31:52.247149 17095 net.cpp:399] fc8_plantvillage_fc8_plantvillage_0_split -> fc8_plantvillage_fc8_plantvillage_0_split_1
I0403 14:31:52.247169 17095 net.cpp:399] fc8_plantvillage_fc8_plantvillage_0_split -> fc8_plantvillage_fc8_plantvillage_0_split_2
I0403 14:31:52.247246 17095 net.cpp:141] Setting up fc8_plantvillage_fc8_plantvillage_0_split
I0403 14:31:52.247268 17095 net.cpp:148] Top shape: 100 38 (3800)
I0403 14:31:52.247283 17095 net.cpp:148] Top shape: 100 38 (3800)
I0403 14:31:52.247298 17095 net.cpp:148] Top shape: 100 38 (3800)
I0403 14:31:52.247311 17095 net.cpp:156] Memory required for data: 831586800
I0403 14:31:52.247324 17095 layer_factory.hpp:77] Creating layer prob
I0403 14:31:52.247344 17095 net.cpp:91] Creating Layer prob
I0403 14:31:52.247360 17095 net.cpp:425] prob <- fc8_plantvillage_fc8_plantvillage_0_split_0
I0403 14:31:52.247377 17095 net.cpp:399] prob -> prob
I0403 14:31:52.247599 17095 net.cpp:141] Setting up prob
I0403 14:31:52.247627 17095 net.cpp:148] Top shape: 100 38 (3800)
I0403 14:31:52.247642 17095 net.cpp:156] Memory required for data: 831602000
I0403 14:31:52.247656 17095 layer_factory.hpp:77] Creating layer hdf5out
I0403 14:31:52.247674 17095 net.cpp:91] Creating Layer hdf5out
I0403 14:31:52.247689 17095 net.cpp:425] hdf5out <- prob
I0403 14:31:52.247704 17095 net.cpp:425] hdf5out <- label_data_1_split_0
I0403 14:31:52.249991 17095 net.cpp:141] Setting up hdf5out
…
