…
I0403 14:26:13.949601 16941 net.cpp:313] The NetState phase (1) differed from the phase (0) specified by a rule in layer data
I0403 14:26:13.950117 16941 net.cpp:49] Initializing net from parameters: 
state {
  phase: TEST
}
layer {
  name: "data"
  type: "Data"
  top: "data"
  top: "label"
  include {
    phase: TEST
  }
  transform_param {
    crop_size: 227
    mean_file: "/home/mohanty/data/final_dataset/lmdb/grayscale-40-60/mean.binaryproto"
  }
  data_param {
    source: "/home/mohanty/data/final_dataset/lmdb/grayscale-40-60/test_db"
    batch_size: 100
    backend: LMDB
  }
}
layer {
  name: "conv1"
  type: "Convolution"
  bottom: "data"
  top: "conv1"
  param {
    lr_mult: 1
    decay_mult: 1
  }
  param {
    lr_mult: 2
    decay_mult: 0
  }
  convolution_param {
    num_output: 96
    kernel_size: 11
    stride: 4
    weight_filler {
      type: "gaussian"
      std: 0.01
    }
    bias_filler {
      type: "constant"
      value: 0
    }
  }
}
layer {
  name: "relu1"
  type: "ReLU"
  bottom: "conv1"
  top: "conv1"
}
layer {
  name: "norm1"
  type: "LRN"
  bottom: "conv1"
  top: "norm1"
  lrn_param {
    local_size: 5
    alpha: 0.0001
    beta: 0.75
  }
}
layer {
  name: "pool1"
  type: "Pooling"
  bottom: "norm1"
  top: "pool1"
  pooling_param {
    pool: MAX
    kernel_size: 3
    stride: 2
  }
}
layer {
  name: "conv2"
  type: "Convolution"
  bottom: "pool1"
  top: "conv2"
  param {
    lr_mult: 1
    decay_mult: 1
  }
  param {
    lr_mult: 2
    decay_mult: 0
  }
  convolution_param {
    num_output: 256
    pad: 2
    kernel_size: 5
    group: 2
    weight_filler {
      type: "gaussian"
      std: 0.01
    }
    bias_filler {
      type: "constant"
      value: 0.1
    }
  }
}
layer {
  name: "relu2"
  type: "ReLU"
  bottom: "conv2"
  top: "conv2"
}
layer {
  name: "norm2"
  type: "LRN"
  bottom: "conv2"
  top: "norm2"
  lrn_param {
    local_size: 5
    alpha: 0.0001
    beta: 0.75
  }
}
layer {
  name: "pool2"
  type: "Pooling"
  bottom: "norm2"
  top: "pool2"
  pooling_param {
    pool: MAX
    kernel_size: 3
    stride: 2
  }
}
layer {
  name: "conv3"
  type: "Convolution"
  bottom: "pool2"
  top: "conv3"
  param {
    lr_mult: 1
    decay_mult: 1
  }
  param {
    lr_mult: 2
    decay_mult: 0
  }
  convolution_param {
    num_output: 384
    pad: 1
    kernel_size: 3
    weight_filler {
      type: "gaussian"
      std: 0.01
    }
    bias_filler {
      type: "constant"
      value: 0
    }
  }
}
layer {
  name: "relu3"
  type: "ReLU"
  bottom: "conv3"
  top: "conv3"
}
layer {
  name: "conv4"
  type: "Convolution"
  bottom: "conv3"
  top: "conv4"
  param {
    lr_mult: 1
    decay_mult: 1
  }
  param {
    lr_mult: 2
    decay_mult: 0
  }
  convolution_param {
    num_output: 384
    pad: 1
    kernel_size: 3
    group: 2
    weight_filler {
      type: "gaussian"
      std: 0.01
    }
    bias_filler {
      type: "constant"
      value: 0.1
    }
  }
}
layer {
  name: "relu4"
  type: "ReLU"
  bottom: "conv4"
  top: "conv4"
}
layer {
  name: "conv5"
  type: "Convolution"
  bottom: "conv4"
  top: "conv5"
  param {
    lr_mult: 1
    decay_mult: 1
  }
  param {
    lr_mult: 2
    decay_mult: 0
  }
  convolution_param {
    num_output: 256
    pad: 1
    kernel_size: 3
    group: 2
    weight_filler {
      type: "gaussian"
      std: 0.01
    }
    bias_filler {
      type: "constant"
      value: 0.1
    }
  }
}
layer {
  name: "relu5"
  type: "ReLU"
  bottom: "conv5"
  top: "conv5"
}
layer {
  name: "pool5"
  type: "Pooling"
  bottom: "conv5"
  top: "pool5"
  pooling_param {
    pool: MAX
    kernel_size: 3
    stride: 2
  }
}
layer {
  name: "fc6"
  type: "InnerProduct"
  bottom: "pool5"
  top: "fc6"
  param {
    lr_mult: 1
    decay_mult: 1
  }
  param {
    lr_mult: 2
    decay_mult: 0
  }
  inner_product_param {
    num_output: 4096
    weight_filler {
      type: "gaussian"
      std: 0.005
    }
    bias_filler {
      type: "constant"
      value: 0.1
    }
  }
}
layer {
  name: "relu6"
  type: "ReLU"
  bottom: "fc6"
  top: "fc6"
}
layer {
  name: "drop6"
  type: "Dropout"
  bottom: "fc6"
  top: "fc6"
  dropout_param {
    dropout_ratio: 0.5
  }
}
layer {
  name: "fc7"
  type: "InnerProduct"
  bottom: "fc6"
  top: "fc7"
  param {
    lr_mult: 1
    decay_mult: 1
  }
  param {
    lr_mult: 2
    decay_mult: 0
  }
  inner_product_param {
    num_output: 4096
    weight_filler {
      type: "gaussian"
      std: 0.005
    }
    bias_filler {
      type: "constant"
      value: 0.1
    }
  }
}
layer {
  name: "relu7"
  type: "ReLU"
  bottom: "fc7"
  top: "fc7"
}
layer {
  name: "drop7"
  type: "Dropout"
  bottom: "fc7"
  top: "fc7"
  dropout_param {
    dropout_ratio: 0.5
  }
}
layer {
  name: "fc8_plantvillage"
  type: "InnerProduct"
  bottom: "fc7"
  top: "fc8_plantvillage"
  param {
    lr_mult: 1
    decay_mult: 1
  }
  param {
    lr_mult: 2
    decay_mult: 0
  }
  inner_product_param {
    num_output: 38
    weight_filler {
      type: "gaussian"
      std: 0.01
    }
    bias_filler {
      type: "constant"
      value: 0
    }
  }
}
layer {
  name: "prob"
  type: "Softmax"
  bottom: "fc8_plantvillage"
  top: "prob"
  include {
    phase: TEST
  }
}
layer {
  name: "hdf5out"
  type: "HDF5Output"
  bottom: "prob"
  bottom: "label"
  include {
    phase: TEST
  }
  hdf5_output_param {
    file_name: "hdf5_dumps/iter_219.h5"
  }
}
layer {
  name: "loss"
  type: "SoftmaxWithLoss"
  bottom: "fc8_plantvillage"
  bottom: "label"
  top: "loss"
}
layer {
  name: "accuracy"
  type: "Accuracy"
  bottom: "fc8_plantvillage"
  bottom: "label"
  top: "accuracy"
  include {
    phase: TEST
  }
}
I0403 14:26:13.952004 16941 layer_factory.hpp:77] Creating layer data
I0403 14:26:13.953053 16941 net.cpp:91] Creating Layer data
I0403 14:26:13.953091 16941 net.cpp:399] data -> data
I0403 14:26:13.953202 16941 net.cpp:399] data -> label
I0403 14:26:13.953302 16941 data_transformer.cpp:25] Loading mean file from: /home/mohanty/data/final_dataset/lmdb/grayscale-40-60/mean.binaryproto
I0403 14:26:14.065160 16947 db_lmdb.cpp:38] Opened lmdb /home/mohanty/data/final_dataset/lmdb/grayscale-40-60/test_db
I0403 14:26:14.100296 16941 data_layer.cpp:41] output data size: 100,3,227,227
I0403 14:26:14.286346 16941 net.cpp:141] Setting up data
I0403 14:26:14.286450 16941 net.cpp:148] Top shape: 100 3 227 227 (15458700)
I0403 14:26:14.286478 16941 net.cpp:148] Top shape: 100 (100)
I0403 14:26:14.286497 16941 net.cpp:156] Memory required for data: 61835200
I0403 14:26:14.286540 16941 layer_factory.hpp:77] Creating layer label_data_1_split
I0403 14:26:14.286571 16941 net.cpp:91] Creating Layer label_data_1_split
I0403 14:26:14.286592 16941 net.cpp:425] label_data_1_split <- label
I0403 14:26:14.286630 16941 net.cpp:399] label_data_1_split -> label_data_1_split_0
I0403 14:26:14.286664 16941 net.cpp:399] label_data_1_split -> label_data_1_split_1
I0403 14:26:14.286689 16941 net.cpp:399] label_data_1_split -> label_data_1_split_2
I0403 14:26:14.286770 16941 net.cpp:141] Setting up label_data_1_split
I0403 14:26:14.286799 16941 net.cpp:148] Top shape: 100 (100)
I0403 14:26:14.286819 16941 net.cpp:148] Top shape: 100 (100)
I0403 14:26:14.286839 16941 net.cpp:148] Top shape: 100 (100)
I0403 14:26:14.286856 16941 net.cpp:156] Memory required for data: 61836400
I0403 14:26:14.286875 16941 layer_factory.hpp:77] Creating layer conv1
I0403 14:26:14.286911 16941 net.cpp:91] Creating Layer conv1
I0403 14:26:14.286932 16941 net.cpp:425] conv1 <- data
I0403 14:26:14.286955 16941 net.cpp:399] conv1 -> conv1
I0403 14:26:16.821789 16941 net.cpp:141] Setting up conv1
I0403 14:26:16.821837 16941 net.cpp:148] Top shape: 100 96 55 55 (29040000)
I0403 14:26:16.821857 16941 net.cpp:156] Memory required for data: 177996400
I0403 14:26:16.821889 16941 layer_factory.hpp:77] Creating layer relu1
I0403 14:26:16.821919 16941 net.cpp:91] Creating Layer relu1
I0403 14:26:16.821940 16941 net.cpp:425] relu1 <- conv1
I0403 14:26:16.821961 16941 net.cpp:386] relu1 -> conv1 (in-place)
I0403 14:26:16.826782 16941 net.cpp:141] Setting up relu1
I0403 14:26:16.826822 16941 net.cpp:148] Top shape: 100 96 55 55 (29040000)
I0403 14:26:16.826864 16941 net.cpp:156] Memory required for data: 294156400
I0403 14:26:16.826884 16941 layer_factory.hpp:77] Creating layer norm1
I0403 14:26:16.827005 16941 net.cpp:91] Creating Layer norm1
I0403 14:26:16.827042 16941 net.cpp:425] norm1 <- conv1
I0403 14:26:16.827075 16941 net.cpp:399] norm1 -> norm1
I0403 14:26:16.827491 16941 net.cpp:141] Setting up norm1
I0403 14:26:16.827527 16941 net.cpp:148] Top shape: 100 96 55 55 (29040000)
I0403 14:26:16.827548 16941 net.cpp:156] Memory required for data: 410316400
I0403 14:26:16.827566 16941 layer_factory.hpp:77] Creating layer pool1
I0403 14:26:16.827594 16941 net.cpp:91] Creating Layer pool1
I0403 14:26:16.827615 16941 net.cpp:425] pool1 <- norm1
I0403 14:26:16.827636 16941 net.cpp:399] pool1 -> pool1
I0403 14:26:16.827713 16941 net.cpp:141] Setting up pool1
I0403 14:26:16.827742 16941 net.cpp:148] Top shape: 100 96 27 27 (6998400)
I0403 14:26:16.827761 16941 net.cpp:156] Memory required for data: 438310000
I0403 14:26:16.827780 16941 layer_factory.hpp:77] Creating layer conv2
I0403 14:26:16.827806 16941 net.cpp:91] Creating Layer conv2
I0403 14:26:16.827827 16941 net.cpp:425] conv2 <- pool1
I0403 14:26:16.827849 16941 net.cpp:399] conv2 -> conv2
I0403 14:26:16.846012 16941 net.cpp:141] Setting up conv2
I0403 14:26:16.846066 16941 net.cpp:148] Top shape: 100 256 27 27 (18662400)
I0403 14:26:16.846089 16941 net.cpp:156] Memory required for data: 512959600
I0403 14:26:16.846118 16941 layer_factory.hpp:77] Creating layer relu2
I0403 14:26:16.846143 16941 net.cpp:91] Creating Layer relu2
I0403 14:26:16.846163 16941 net.cpp:425] relu2 <- conv2
I0403 14:26:16.846189 16941 net.cpp:386] relu2 -> conv2 (in-place)
I0403 14:26:16.846690 16941 net.cpp:141] Setting up relu2
I0403 14:26:16.846724 16941 net.cpp:148] Top shape: 100 256 27 27 (18662400)
I0403 14:26:16.846742 16941 net.cpp:156] Memory required for data: 587609200
I0403 14:26:16.846761 16941 layer_factory.hpp:77] Creating layer norm2
I0403 14:26:16.846789 16941 net.cpp:91] Creating Layer norm2
I0403 14:26:16.846809 16941 net.cpp:425] norm2 <- conv2
I0403 14:26:16.846832 16941 net.cpp:399] norm2 -> norm2
I0403 14:26:16.847075 16941 net.cpp:141] Setting up norm2
I0403 14:26:16.847110 16941 net.cpp:148] Top shape: 100 256 27 27 (18662400)
I0403 14:26:16.847129 16941 net.cpp:156] Memory required for data: 662258800
I0403 14:26:16.847147 16941 layer_factory.hpp:77] Creating layer pool2
I0403 14:26:16.847170 16941 net.cpp:91] Creating Layer pool2
I0403 14:26:16.847189 16941 net.cpp:425] pool2 <- norm2
I0403 14:26:16.847213 16941 net.cpp:399] pool2 -> pool2
I0403 14:26:16.847280 16941 net.cpp:141] Setting up pool2
I0403 14:26:16.847311 16941 net.cpp:148] Top shape: 100 256 13 13 (4326400)
I0403 14:26:16.847329 16941 net.cpp:156] Memory required for data: 679564400
I0403 14:26:16.847348 16941 layer_factory.hpp:77] Creating layer conv3
I0403 14:26:16.847378 16941 net.cpp:91] Creating Layer conv3
I0403 14:26:16.847399 16941 net.cpp:425] conv3 <- pool2
I0403 14:26:16.847421 16941 net.cpp:399] conv3 -> conv3
I0403 14:26:16.896633 16941 net.cpp:141] Setting up conv3
I0403 14:26:16.896679 16941 net.cpp:148] Top shape: 100 384 13 13 (6489600)
I0403 14:26:16.896698 16941 net.cpp:156] Memory required for data: 705522800
I0403 14:26:16.896728 16941 layer_factory.hpp:77] Creating layer relu3
I0403 14:26:16.896752 16941 net.cpp:91] Creating Layer relu3
I0403 14:26:16.896773 16941 net.cpp:425] relu3 <- conv3
I0403 14:26:16.896797 16941 net.cpp:386] relu3 -> conv3 (in-place)
I0403 14:26:16.897126 16941 net.cpp:141] Setting up relu3
I0403 14:26:16.897158 16941 net.cpp:148] Top shape: 100 384 13 13 (6489600)
I0403 14:26:16.897176 16941 net.cpp:156] Memory required for data: 731481200
I0403 14:26:16.897195 16941 layer_factory.hpp:77] Creating layer conv4
I0403 14:26:16.897223 16941 net.cpp:91] Creating Layer conv4
I0403 14:26:16.897246 16941 net.cpp:425] conv4 <- conv3
I0403 14:26:16.897271 16941 net.cpp:399] conv4 -> conv4
I0403 14:26:16.934883 16941 net.cpp:141] Setting up conv4
I0403 14:26:16.934929 16941 net.cpp:148] Top shape: 100 384 13 13 (6489600)
I0403 14:26:16.934973 16941 net.cpp:156] Memory required for data: 757439600
I0403 14:26:16.934999 16941 layer_factory.hpp:77] Creating layer relu4
I0403 14:26:16.935024 16941 net.cpp:91] Creating Layer relu4
I0403 14:26:16.935045 16941 net.cpp:425] relu4 <- conv4
I0403 14:26:16.935072 16941 net.cpp:386] relu4 -> conv4 (in-place)
I0403 14:26:16.935402 16941 net.cpp:141] Setting up relu4
I0403 14:26:16.935439 16941 net.cpp:148] Top shape: 100 384 13 13 (6489600)
I0403 14:26:16.935459 16941 net.cpp:156] Memory required for data: 783398000
I0403 14:26:16.935477 16941 layer_factory.hpp:77] Creating layer conv5
I0403 14:26:16.935508 16941 net.cpp:91] Creating Layer conv5
I0403 14:26:16.935530 16941 net.cpp:425] conv5 <- conv4
I0403 14:26:16.935554 16941 net.cpp:399] conv5 -> conv5
I0403 14:26:16.961488 16941 net.cpp:141] Setting up conv5
I0403 14:26:16.961552 16941 net.cpp:148] Top shape: 100 256 13 13 (4326400)
I0403 14:26:16.961573 16941 net.cpp:156] Memory required for data: 800703600
I0403 14:26:16.961604 16941 layer_factory.hpp:77] Creating layer relu5
I0403 14:26:16.961630 16941 net.cpp:91] Creating Layer relu5
I0403 14:26:16.961652 16941 net.cpp:425] relu5 <- conv5
I0403 14:26:16.961678 16941 net.cpp:386] relu5 -> conv5 (in-place)
I0403 14:26:16.962014 16941 net.cpp:141] Setting up relu5
I0403 14:26:16.962051 16941 net.cpp:148] Top shape: 100 256 13 13 (4326400)
I0403 14:26:16.962072 16941 net.cpp:156] Memory required for data: 818009200
I0403 14:26:16.962090 16941 layer_factory.hpp:77] Creating layer pool5
I0403 14:26:16.962121 16941 net.cpp:91] Creating Layer pool5
I0403 14:26:16.962141 16941 net.cpp:425] pool5 <- conv5
I0403 14:26:16.962163 16941 net.cpp:399] pool5 -> pool5
I0403 14:26:16.962239 16941 net.cpp:141] Setting up pool5
I0403 14:26:16.962267 16941 net.cpp:148] Top shape: 100 256 6 6 (921600)
I0403 14:26:16.962285 16941 net.cpp:156] Memory required for data: 821695600
I0403 14:26:16.962303 16941 layer_factory.hpp:77] Creating layer fc6
I0403 14:26:16.962334 16941 net.cpp:91] Creating Layer fc6
I0403 14:26:16.962355 16941 net.cpp:425] fc6 <- pool5
I0403 14:26:16.962381 16941 net.cpp:399] fc6 -> fc6
I0403 14:26:18.618219 16941 net.cpp:141] Setting up fc6
I0403 14:26:18.618258 16941 net.cpp:148] Top shape: 100 4096 (409600)
I0403 14:26:18.618274 16941 net.cpp:156] Memory required for data: 823334000
I0403 14:26:18.618294 16941 layer_factory.hpp:77] Creating layer relu6
I0403 14:26:18.618312 16941 net.cpp:91] Creating Layer relu6
I0403 14:26:18.618330 16941 net.cpp:425] relu6 <- fc6
I0403 14:26:18.618346 16941 net.cpp:386] relu6 -> fc6 (in-place)
I0403 14:26:18.618554 16941 net.cpp:141] Setting up relu6
I0403 14:26:18.618579 16941 net.cpp:148] Top shape: 100 4096 (409600)
I0403 14:26:18.618593 16941 net.cpp:156] Memory required for data: 824972400
I0403 14:26:18.618607 16941 layer_factory.hpp:77] Creating layer drop6
I0403 14:26:18.618624 16941 net.cpp:91] Creating Layer drop6
I0403 14:26:18.618639 16941 net.cpp:425] drop6 <- fc6
I0403 14:26:18.618657 16941 net.cpp:386] drop6 -> fc6 (in-place)
I0403 14:26:18.618705 16941 net.cpp:141] Setting up drop6
I0403 14:26:18.618727 16941 net.cpp:148] Top shape: 100 4096 (409600)
I0403 14:26:18.618741 16941 net.cpp:156] Memory required for data: 826610800
I0403 14:26:18.618755 16941 layer_factory.hpp:77] Creating layer fc7
I0403 14:26:18.618777 16941 net.cpp:91] Creating Layer fc7
I0403 14:26:18.618791 16941 net.cpp:425] fc7 <- fc6
I0403 14:26:18.618810 16941 net.cpp:399] fc7 -> fc7
I0403 14:26:19.286738 16941 net.cpp:141] Setting up fc7
I0403 14:26:19.286777 16941 net.cpp:148] Top shape: 100 4096 (409600)
I0403 14:26:19.286793 16941 net.cpp:156] Memory required for data: 828249200
I0403 14:26:19.286813 16941 layer_factory.hpp:77] Creating layer relu7
I0403 14:26:19.286833 16941 net.cpp:91] Creating Layer relu7
I0403 14:26:19.286849 16941 net.cpp:425] relu7 <- fc7
I0403 14:26:19.286869 16941 net.cpp:386] relu7 -> fc7 (in-place)
I0403 14:26:19.287304 16941 net.cpp:141] Setting up relu7
I0403 14:26:19.287330 16941 net.cpp:148] Top shape: 100 4096 (409600)
I0403 14:26:19.287363 16941 net.cpp:156] Memory required for data: 829887600
I0403 14:26:19.287379 16941 layer_factory.hpp:77] Creating layer drop7
I0403 14:26:19.287396 16941 net.cpp:91] Creating Layer drop7
I0403 14:26:19.287411 16941 net.cpp:425] drop7 <- fc7
I0403 14:26:19.287431 16941 net.cpp:386] drop7 -> fc7 (in-place)
I0403 14:26:19.287472 16941 net.cpp:141] Setting up drop7
I0403 14:26:19.287497 16941 net.cpp:148] Top shape: 100 4096 (409600)
I0403 14:26:19.287513 16941 net.cpp:156] Memory required for data: 831526000
I0403 14:26:19.287526 16941 layer_factory.hpp:77] Creating layer fc8_plantvillage
I0403 14:26:19.287544 16941 net.cpp:91] Creating Layer fc8_plantvillage
I0403 14:26:19.287559 16941 net.cpp:425] fc8_plantvillage <- fc7
I0403 14:26:19.287580 16941 net.cpp:399] fc8_plantvillage -> fc8_plantvillage
I0403 14:26:19.294103 16941 net.cpp:141] Setting up fc8_plantvillage
I0403 14:26:19.294147 16941 net.cpp:148] Top shape: 100 38 (3800)
I0403 14:26:19.294165 16941 net.cpp:156] Memory required for data: 831541200
I0403 14:26:19.294198 16941 layer_factory.hpp:77] Creating layer fc8_plantvillage_fc8_plantvillage_0_split
I0403 14:26:19.294217 16941 net.cpp:91] Creating Layer fc8_plantvillage_fc8_plantvillage_0_split
I0403 14:26:19.294232 16941 net.cpp:425] fc8_plantvillage_fc8_plantvillage_0_split <- fc8_plantvillage
I0403 14:26:19.294267 16941 net.cpp:399] fc8_plantvillage_fc8_plantvillage_0_split -> fc8_plantvillage_fc8_plantvillage_0_split_0
I0403 14:26:19.294292 16941 net.cpp:399] fc8_plantvillage_fc8_plantvillage_0_split -> fc8_plantvillage_fc8_plantvillage_0_split_1
I0403 14:26:19.294313 16941 net.cpp:399] fc8_plantvillage_fc8_plantvillage_0_split -> fc8_plantvillage_fc8_plantvillage_0_split_2
I0403 14:26:19.294396 16941 net.cpp:141] Setting up fc8_plantvillage_fc8_plantvillage_0_split
I0403 14:26:19.294431 16941 net.cpp:148] Top shape: 100 38 (3800)
I0403 14:26:19.294471 16941 net.cpp:148] Top shape: 100 38 (3800)
I0403 14:26:19.294493 16941 net.cpp:148] Top shape: 100 38 (3800)
I0403 14:26:19.294512 16941 net.cpp:156] Memory required for data: 831586800
I0403 14:26:19.294548 16941 layer_factory.hpp:77] Creating layer prob
I0403 14:26:19.294571 16941 net.cpp:91] Creating Layer prob
I0403 14:26:19.294600 16941 net.cpp:425] prob <- fc8_plantvillage_fc8_plantvillage_0_split_0
I0403 14:26:19.294620 16941 net.cpp:399] prob -> prob
I0403 14:26:19.294885 16941 net.cpp:141] Setting up prob
I0403 14:26:19.294910 16941 net.cpp:148] Top shape: 100 38 (3800)
I0403 14:26:19.294924 16941 net.cpp:156] Memory required for data: 831602000
I0403 14:26:19.294939 16941 layer_factory.hpp:77] Creating layer hdf5out
I0403 14:26:19.294955 16941 net.cpp:91] Creating Layer hdf5out
I0403 14:26:19.294971 16941 net.cpp:425] hdf5out <- prob
I0403 14:26:19.294987 16941 net.cpp:425] hdf5out <- label_data_1_split_0
I0403 14:26:19.339867 16941 net.cpp:141] Setting up hdf5out
…
