…
I0403 14:32:55.118041 17126 net.cpp:313] The NetState phase (1) differed from the phase (0) specified by a rule in layer data
I0403 14:32:55.118378 17126 net.cpp:49] Initializing net from parameters: 
state {
  phase: TEST
}
layer {
  name: "data"
  type: "Data"
  top: "data"
  top: "label"
  include {
    phase: TEST
  }
  transform_param {
    crop_size: 227
    mean_file: "/home/mohanty/data/final_dataset/lmdb/grayscale-40-60/mean.binaryproto"
  }
  data_param {
    source: "/home/mohanty/data/final_dataset/lmdb/grayscale-40-60/test_db"
    batch_size: 100
    backend: LMDB
  }
}
layer {
  name: "conv1"
  type: "Convolution"
  bottom: "data"
  top: "conv1"
  param {
    lr_mult: 1
    decay_mult: 1
  }
  param {
    lr_mult: 2
    decay_mult: 0
  }
  convolution_param {
    num_output: 96
    kernel_size: 11
    stride: 4
    weight_filler {
      type: "gaussian"
      std: 0.01
    }
    bias_filler {
      type: "constant"
      value: 0
    }
  }
}
layer {
  name: "relu1"
  type: "ReLU"
  bottom: "conv1"
  top: "conv1"
}
layer {
  name: "norm1"
  type: "LRN"
  bottom: "conv1"
  top: "norm1"
  lrn_param {
    local_size: 5
    alpha: 0.0001
    beta: 0.75
  }
}
layer {
  name: "pool1"
  type: "Pooling"
  bottom: "norm1"
  top: "pool1"
  pooling_param {
    pool: MAX
    kernel_size: 3
    stride: 2
  }
}
layer {
  name: "conv2"
  type: "Convolution"
  bottom: "pool1"
  top: "conv2"
  param {
    lr_mult: 1
    decay_mult: 1
  }
  param {
    lr_mult: 2
    decay_mult: 0
  }
  convolution_param {
    num_output: 256
    pad: 2
    kernel_size: 5
    group: 2
    weight_filler {
      type: "gaussian"
      std: 0.01
    }
    bias_filler {
      type: "constant"
      value: 0.1
    }
  }
}
layer {
  name: "relu2"
  type: "ReLU"
  bottom: "conv2"
  top: "conv2"
}
layer {
  name: "norm2"
  type: "LRN"
  bottom: "conv2"
  top: "norm2"
  lrn_param {
    local_size: 5
    alpha: 0.0001
    beta: 0.75
  }
}
layer {
  name: "pool2"
  type: "Pooling"
  bottom: "norm2"
  top: "pool2"
  pooling_param {
    pool: MAX
    kernel_size: 3
    stride: 2
  }
}
layer {
  name: "conv3"
  type: "Convolution"
  bottom: "pool2"
  top: "conv3"
  param {
    lr_mult: 1
    decay_mult: 1
  }
  param {
    lr_mult: 2
    decay_mult: 0
  }
  convolution_param {
    num_output: 384
    pad: 1
    kernel_size: 3
    weight_filler {
      type: "gaussian"
      std: 0.01
    }
    bias_filler {
      type: "constant"
      value: 0
    }
  }
}
layer {
  name: "relu3"
  type: "ReLU"
  bottom: "conv3"
  top: "conv3"
}
layer {
  name: "conv4"
  type: "Convolution"
  bottom: "conv3"
  top: "conv4"
  param {
    lr_mult: 1
    decay_mult: 1
  }
  param {
    lr_mult: 2
    decay_mult: 0
  }
  convolution_param {
    num_output: 384
    pad: 1
    kernel_size: 3
    group: 2
    weight_filler {
      type: "gaussian"
      std: 0.01
    }
    bias_filler {
      type: "constant"
      value: 0.1
    }
  }
}
layer {
  name: "relu4"
  type: "ReLU"
  bottom: "conv4"
  top: "conv4"
}
layer {
  name: "conv5"
  type: "Convolution"
  bottom: "conv4"
  top: "conv5"
  param {
    lr_mult: 1
    decay_mult: 1
  }
  param {
    lr_mult: 2
    decay_mult: 0
  }
  convolution_param {
    num_output: 256
    pad: 1
    kernel_size: 3
    group: 2
    weight_filler {
      type: "gaussian"
      std: 0.01
    }
    bias_filler {
      type: "constant"
      value: 0.1
    }
  }
}
layer {
  name: "relu5"
  type: "ReLU"
  bottom: "conv5"
  top: "conv5"
}
layer {
  name: "pool5"
  type: "Pooling"
  bottom: "conv5"
  top: "pool5"
  pooling_param {
    pool: MAX
    kernel_size: 3
    stride: 2
  }
}
layer {
  name: "fc6"
  type: "InnerProduct"
  bottom: "pool5"
  top: "fc6"
  param {
    lr_mult: 1
    decay_mult: 1
  }
  param {
    lr_mult: 2
    decay_mult: 0
  }
  inner_product_param {
    num_output: 4096
    weight_filler {
      type: "gaussian"
      std: 0.005
    }
    bias_filler {
      type: "constant"
      value: 0.1
    }
  }
}
layer {
  name: "relu6"
  type: "ReLU"
  bottom: "fc6"
  top: "fc6"
}
layer {
  name: "drop6"
  type: "Dropout"
  bottom: "fc6"
  top: "fc6"
  dropout_param {
    dropout_ratio: 0.5
  }
}
layer {
  name: "fc7"
  type: "InnerProduct"
  bottom: "fc6"
  top: "fc7"
  param {
    lr_mult: 1
    decay_mult: 1
  }
  param {
    lr_mult: 2
    decay_mult: 0
  }
  inner_product_param {
    num_output: 4096
    weight_filler {
      type: "gaussian"
      std: 0.005
    }
    bias_filler {
      type: "constant"
      value: 0.1
    }
  }
}
layer {
  name: "relu7"
  type: "ReLU"
  bottom: "fc7"
  top: "fc7"
}
layer {
  name: "drop7"
  type: "Dropout"
  bottom: "fc7"
  top: "fc7"
  dropout_param {
    dropout_ratio: 0.5
  }
}
layer {
  name: "fc8_plantvillage"
  type: "InnerProduct"
  bottom: "fc7"
  top: "fc8_plantvillage"
  param {
    lr_mult: 1
    decay_mult: 1
  }
  param {
    lr_mult: 2
    decay_mult: 0
  }
  inner_product_param {
    num_output: 38
    weight_filler {
      type: "gaussian"
      std: 0.01
    }
    bias_filler {
      type: "constant"
      value: 0
    }
  }
}
layer {
  name: "prob"
  type: "Softmax"
  bottom: "fc8_plantvillage"
  top: "prob"
  include {
    phase: TEST
  }
}
layer {
  name: "hdf5out"
  type: "HDF5Output"
  bottom: "prob"
  bottom: "label"
  include {
    phase: TEST
  }
  hdf5_output_param {
    file_name: "hdf5_dumps/iter_1533.h5"
  }
}
layer {
  name: "loss"
  type: "SoftmaxWithLoss"
  bottom: "fc8_plantvillage"
  bottom: "label"
  top: "loss"
}
layer {
  name: "accuracy"
  type: "Accuracy"
  bottom: "fc8_plantvillage"
  bottom: "label"
  top: "accuracy"
  include {
    phase: TEST
  }
}
I0403 14:32:55.118911 17126 layer_factory.hpp:77] Creating layer data
I0403 14:32:55.119590 17126 net.cpp:91] Creating Layer data
I0403 14:32:55.119632 17126 net.cpp:399] data -> data
I0403 14:32:55.119686 17126 net.cpp:399] data -> label
I0403 14:32:55.119724 17126 data_transformer.cpp:25] Loading mean file from: /home/mohanty/data/final_dataset/lmdb/grayscale-40-60/mean.binaryproto
I0403 14:32:55.122812 17130 db_lmdb.cpp:38] Opened lmdb /home/mohanty/data/final_dataset/lmdb/grayscale-40-60/test_db
I0403 14:32:55.134376 17126 data_layer.cpp:41] output data size: 100,3,227,227
I0403 14:32:55.257071 17126 net.cpp:141] Setting up data
I0403 14:32:55.257170 17126 net.cpp:148] Top shape: 100 3 227 227 (15458700)
I0403 14:32:55.257194 17126 net.cpp:148] Top shape: 100 (100)
I0403 14:32:55.257210 17126 net.cpp:156] Memory required for data: 61835200
I0403 14:32:55.257236 17126 layer_factory.hpp:77] Creating layer label_data_1_split
I0403 14:32:55.257262 17126 net.cpp:91] Creating Layer label_data_1_split
I0403 14:32:55.257280 17126 net.cpp:425] label_data_1_split <- label
I0403 14:32:55.257313 17126 net.cpp:399] label_data_1_split -> label_data_1_split_0
I0403 14:32:55.257341 17126 net.cpp:399] label_data_1_split -> label_data_1_split_1
I0403 14:32:55.257361 17126 net.cpp:399] label_data_1_split -> label_data_1_split_2
I0403 14:32:55.257427 17126 net.cpp:141] Setting up label_data_1_split
I0403 14:32:55.257452 17126 net.cpp:148] Top shape: 100 (100)
I0403 14:32:55.257469 17126 net.cpp:148] Top shape: 100 (100)
I0403 14:32:55.257485 17126 net.cpp:148] Top shape: 100 (100)
I0403 14:32:55.257499 17126 net.cpp:156] Memory required for data: 61836400
I0403 14:32:55.257514 17126 layer_factory.hpp:77] Creating layer conv1
I0403 14:32:55.257545 17126 net.cpp:91] Creating Layer conv1
I0403 14:32:55.257565 17126 net.cpp:425] conv1 <- data
I0403 14:32:55.257585 17126 net.cpp:399] conv1 -> conv1
I0403 14:32:55.402612 17126 net.cpp:141] Setting up conv1
I0403 14:32:55.402672 17126 net.cpp:148] Top shape: 100 96 55 55 (29040000)
I0403 14:32:55.402689 17126 net.cpp:156] Memory required for data: 177996400
I0403 14:32:55.402721 17126 layer_factory.hpp:77] Creating layer relu1
I0403 14:32:55.402750 17126 net.cpp:91] Creating Layer relu1
I0403 14:32:55.402768 17126 net.cpp:425] relu1 <- conv1
I0403 14:32:55.402788 17126 net.cpp:386] relu1 -> conv1 (in-place)
I0403 14:32:55.403055 17126 net.cpp:141] Setting up relu1
I0403 14:32:55.403084 17126 net.cpp:148] Top shape: 100 96 55 55 (29040000)
I0403 14:32:55.403132 17126 net.cpp:156] Memory required for data: 294156400
I0403 14:32:55.403151 17126 layer_factory.hpp:77] Creating layer norm1
I0403 14:32:55.403178 17126 net.cpp:91] Creating Layer norm1
I0403 14:32:55.403198 17126 net.cpp:425] norm1 <- conv1
I0403 14:32:55.403218 17126 net.cpp:399] norm1 -> norm1
I0403 14:32:55.403534 17126 net.cpp:141] Setting up norm1
I0403 14:32:55.403563 17126 net.cpp:148] Top shape: 100 96 55 55 (29040000)
I0403 14:32:55.403580 17126 net.cpp:156] Memory required for data: 410316400
I0403 14:32:55.403597 17126 layer_factory.hpp:77] Creating layer pool1
I0403 14:32:55.403621 17126 net.cpp:91] Creating Layer pool1
I0403 14:32:55.403640 17126 net.cpp:425] pool1 <- norm1
I0403 14:32:55.403658 17126 net.cpp:399] pool1 -> pool1
I0403 14:32:55.403728 17126 net.cpp:141] Setting up pool1
I0403 14:32:55.403753 17126 net.cpp:148] Top shape: 100 96 27 27 (6998400)
I0403 14:32:55.403769 17126 net.cpp:156] Memory required for data: 438310000
I0403 14:32:55.403784 17126 layer_factory.hpp:77] Creating layer conv2
I0403 14:32:55.403810 17126 net.cpp:91] Creating Layer conv2
I0403 14:32:55.403826 17126 net.cpp:425] conv2 <- pool1
I0403 14:32:55.403846 17126 net.cpp:399] conv2 -> conv2
I0403 14:32:55.419183 17126 net.cpp:141] Setting up conv2
I0403 14:32:55.419240 17126 net.cpp:148] Top shape: 100 256 27 27 (18662400)
I0403 14:32:55.419258 17126 net.cpp:156] Memory required for data: 512959600
I0403 14:32:55.419282 17126 layer_factory.hpp:77] Creating layer relu2
I0403 14:32:55.419303 17126 net.cpp:91] Creating Layer relu2
I0403 14:32:55.419320 17126 net.cpp:425] relu2 <- conv2
I0403 14:32:55.419340 17126 net.cpp:386] relu2 -> conv2 (in-place)
I0403 14:32:55.419621 17126 net.cpp:141] Setting up relu2
I0403 14:32:55.419651 17126 net.cpp:148] Top shape: 100 256 27 27 (18662400)
I0403 14:32:55.419667 17126 net.cpp:156] Memory required for data: 587609200
I0403 14:32:55.419682 17126 layer_factory.hpp:77] Creating layer norm2
I0403 14:32:55.419705 17126 net.cpp:91] Creating Layer norm2
I0403 14:32:55.419723 17126 net.cpp:425] norm2 <- conv2
I0403 14:32:55.419741 17126 net.cpp:399] norm2 -> norm2
I0403 14:32:55.419934 17126 net.cpp:141] Setting up norm2
I0403 14:32:55.419961 17126 net.cpp:148] Top shape: 100 256 27 27 (18662400)
I0403 14:32:55.419976 17126 net.cpp:156] Memory required for data: 662258800
I0403 14:32:55.419992 17126 layer_factory.hpp:77] Creating layer pool2
I0403 14:32:55.420011 17126 net.cpp:91] Creating Layer pool2
I0403 14:32:55.420027 17126 net.cpp:425] pool2 <- norm2
I0403 14:32:55.420045 17126 net.cpp:399] pool2 -> pool2
I0403 14:32:55.420104 17126 net.cpp:141] Setting up pool2
I0403 14:32:55.420127 17126 net.cpp:148] Top shape: 100 256 13 13 (4326400)
I0403 14:32:55.420145 17126 net.cpp:156] Memory required for data: 679564400
I0403 14:32:55.420163 17126 layer_factory.hpp:77] Creating layer conv3
I0403 14:32:55.420186 17126 net.cpp:91] Creating Layer conv3
I0403 14:32:55.420207 17126 net.cpp:425] conv3 <- pool2
I0403 14:32:55.420228 17126 net.cpp:399] conv3 -> conv3
I0403 14:32:55.463351 17126 net.cpp:141] Setting up conv3
I0403 14:32:55.463433 17126 net.cpp:148] Top shape: 100 384 13 13 (6489600)
I0403 14:32:55.463450 17126 net.cpp:156] Memory required for data: 705522800
I0403 14:32:55.463475 17126 layer_factory.hpp:77] Creating layer relu3
I0403 14:32:55.463501 17126 net.cpp:91] Creating Layer relu3
I0403 14:32:55.463521 17126 net.cpp:425] relu3 <- conv3
I0403 14:32:55.463541 17126 net.cpp:386] relu3 -> conv3 (in-place)
I0403 14:32:55.463825 17126 net.cpp:141] Setting up relu3
I0403 14:32:55.463853 17126 net.cpp:148] Top shape: 100 384 13 13 (6489600)
I0403 14:32:55.463870 17126 net.cpp:156] Memory required for data: 731481200
I0403 14:32:55.463886 17126 layer_factory.hpp:77] Creating layer conv4
I0403 14:32:55.463912 17126 net.cpp:91] Creating Layer conv4
I0403 14:32:55.463929 17126 net.cpp:425] conv4 <- conv3
I0403 14:32:55.463953 17126 net.cpp:399] conv4 -> conv4
I0403 14:32:55.494673 17126 net.cpp:141] Setting up conv4
I0403 14:32:55.494753 17126 net.cpp:148] Top shape: 100 384 13 13 (6489600)
I0403 14:32:55.494807 17126 net.cpp:156] Memory required for data: 757439600
I0403 14:32:55.494830 17126 layer_factory.hpp:77] Creating layer relu4
I0403 14:32:55.494854 17126 net.cpp:91] Creating Layer relu4
I0403 14:32:55.494874 17126 net.cpp:425] relu4 <- conv4
I0403 14:32:55.494895 17126 net.cpp:386] relu4 -> conv4 (in-place)
I0403 14:32:55.495187 17126 net.cpp:141] Setting up relu4
I0403 14:32:55.495218 17126 net.cpp:148] Top shape: 100 384 13 13 (6489600)
I0403 14:32:55.495234 17126 net.cpp:156] Memory required for data: 783398000
I0403 14:32:55.495249 17126 layer_factory.hpp:77] Creating layer conv5
I0403 14:32:55.495275 17126 net.cpp:91] Creating Layer conv5
I0403 14:32:55.495293 17126 net.cpp:425] conv5 <- conv4
I0403 14:32:55.495318 17126 net.cpp:399] conv5 -> conv5
I0403 14:32:55.515864 17126 net.cpp:141] Setting up conv5
I0403 14:32:55.515923 17126 net.cpp:148] Top shape: 100 256 13 13 (4326400)
I0403 14:32:55.515950 17126 net.cpp:156] Memory required for data: 800703600
I0403 14:32:55.515977 17126 layer_factory.hpp:77] Creating layer relu5
I0403 14:32:55.516001 17126 net.cpp:91] Creating Layer relu5
I0403 14:32:55.516021 17126 net.cpp:425] relu5 <- conv5
I0403 14:32:55.516038 17126 net.cpp:386] relu5 -> conv5 (in-place)
I0403 14:32:55.516340 17126 net.cpp:141] Setting up relu5
I0403 14:32:55.516367 17126 net.cpp:148] Top shape: 100 256 13 13 (4326400)
I0403 14:32:55.516384 17126 net.cpp:156] Memory required for data: 818009200
I0403 14:32:55.516402 17126 layer_factory.hpp:77] Creating layer pool5
I0403 14:32:55.516427 17126 net.cpp:91] Creating Layer pool5
I0403 14:32:55.516448 17126 net.cpp:425] pool5 <- conv5
I0403 14:32:55.516466 17126 net.cpp:399] pool5 -> pool5
I0403 14:32:55.516531 17126 net.cpp:141] Setting up pool5
I0403 14:32:55.516556 17126 net.cpp:148] Top shape: 100 256 6 6 (921600)
I0403 14:32:55.516571 17126 net.cpp:156] Memory required for data: 821695600
I0403 14:32:55.516585 17126 layer_factory.hpp:77] Creating layer fc6
I0403 14:32:55.516613 17126 net.cpp:91] Creating Layer fc6
I0403 14:32:55.516633 17126 net.cpp:425] fc6 <- pool5
I0403 14:32:55.516649 17126 net.cpp:399] fc6 -> fc6
I0403 14:32:57.084188 17126 net.cpp:141] Setting up fc6
I0403 14:32:57.084235 17126 net.cpp:148] Top shape: 100 4096 (409600)
I0403 14:32:57.084251 17126 net.cpp:156] Memory required for data: 823334000
I0403 14:32:57.084271 17126 layer_factory.hpp:77] Creating layer relu6
I0403 14:32:57.084292 17126 net.cpp:91] Creating Layer relu6
I0403 14:32:57.084309 17126 net.cpp:425] relu6 <- fc6
I0403 14:32:57.084331 17126 net.cpp:386] relu6 -> fc6 (in-place)
I0403 14:32:57.084545 17126 net.cpp:141] Setting up relu6
I0403 14:32:57.084570 17126 net.cpp:148] Top shape: 100 4096 (409600)
I0403 14:32:57.084584 17126 net.cpp:156] Memory required for data: 824972400
I0403 14:32:57.084599 17126 layer_factory.hpp:77] Creating layer drop6
I0403 14:32:57.084619 17126 net.cpp:91] Creating Layer drop6
I0403 14:32:57.084635 17126 net.cpp:425] drop6 <- fc6
I0403 14:32:57.084651 17126 net.cpp:386] drop6 -> fc6 (in-place)
I0403 14:32:57.084700 17126 net.cpp:141] Setting up drop6
I0403 14:32:57.084725 17126 net.cpp:148] Top shape: 100 4096 (409600)
I0403 14:32:57.084739 17126 net.cpp:156] Memory required for data: 826610800
I0403 14:32:57.084754 17126 layer_factory.hpp:77] Creating layer fc7
I0403 14:32:57.084774 17126 net.cpp:91] Creating Layer fc7
I0403 14:32:57.084789 17126 net.cpp:425] fc7 <- fc6
I0403 14:32:57.084820 17126 net.cpp:399] fc7 -> fc7
I0403 14:32:57.774305 17126 net.cpp:141] Setting up fc7
I0403 14:32:57.774381 17126 net.cpp:148] Top shape: 100 4096 (409600)
I0403 14:32:57.774397 17126 net.cpp:156] Memory required for data: 828249200
I0403 14:32:57.774420 17126 layer_factory.hpp:77] Creating layer relu7
I0403 14:32:57.774441 17126 net.cpp:91] Creating Layer relu7
I0403 14:32:57.774457 17126 net.cpp:425] relu7 <- fc7
I0403 14:32:57.774482 17126 net.cpp:386] relu7 -> fc7 (in-place)
I0403 14:32:57.774875 17126 net.cpp:141] Setting up relu7
I0403 14:32:57.774901 17126 net.cpp:148] Top shape: 100 4096 (409600)
I0403 14:32:57.774947 17126 net.cpp:156] Memory required for data: 829887600
I0403 14:32:57.774963 17126 layer_factory.hpp:77] Creating layer drop7
I0403 14:32:57.774981 17126 net.cpp:91] Creating Layer drop7
I0403 14:32:57.774996 17126 net.cpp:425] drop7 <- fc7
I0403 14:32:57.775015 17126 net.cpp:386] drop7 -> fc7 (in-place)
I0403 14:32:57.775065 17126 net.cpp:141] Setting up drop7
I0403 14:32:57.775087 17126 net.cpp:148] Top shape: 100 4096 (409600)
I0403 14:32:57.775101 17126 net.cpp:156] Memory required for data: 831526000
I0403 14:32:57.775115 17126 layer_factory.hpp:77] Creating layer fc8_plantvillage
I0403 14:32:57.775133 17126 net.cpp:91] Creating Layer fc8_plantvillage
I0403 14:32:57.775149 17126 net.cpp:425] fc8_plantvillage <- fc7
I0403 14:32:57.775169 17126 net.cpp:399] fc8_plantvillage -> fc8_plantvillage
I0403 14:32:57.781838 17126 net.cpp:141] Setting up fc8_plantvillage
I0403 14:32:57.781870 17126 net.cpp:148] Top shape: 100 38 (3800)
I0403 14:32:57.781886 17126 net.cpp:156] Memory required for data: 831541200
I0403 14:32:57.781905 17126 layer_factory.hpp:77] Creating layer fc8_plantvillage_fc8_plantvillage_0_split
I0403 14:32:57.781924 17126 net.cpp:91] Creating Layer fc8_plantvillage_fc8_plantvillage_0_split
I0403 14:32:57.781940 17126 net.cpp:425] fc8_plantvillage_fc8_plantvillage_0_split <- fc8_plantvillage
I0403 14:32:57.781956 17126 net.cpp:399] fc8_plantvillage_fc8_plantvillage_0_split -> fc8_plantvillage_fc8_plantvillage_0_split_0
I0403 14:32:57.781976 17126 net.cpp:399] fc8_plantvillage_fc8_plantvillage_0_split -> fc8_plantvillage_fc8_plantvillage_0_split_1
I0403 14:32:57.781996 17126 net.cpp:399] fc8_plantvillage_fc8_plantvillage_0_split -> fc8_plantvillage_fc8_plantvillage_0_split_2
I0403 14:32:57.782083 17126 net.cpp:141] Setting up fc8_plantvillage_fc8_plantvillage_0_split
I0403 14:32:57.782107 17126 net.cpp:148] Top shape: 100 38 (3800)
I0403 14:32:57.782124 17126 net.cpp:148] Top shape: 100 38 (3800)
I0403 14:32:57.782138 17126 net.cpp:148] Top shape: 100 38 (3800)
I0403 14:32:57.782152 17126 net.cpp:156] Memory required for data: 831586800
I0403 14:32:57.782168 17126 layer_factory.hpp:77] Creating layer prob
I0403 14:32:57.782186 17126 net.cpp:91] Creating Layer prob
I0403 14:32:57.782202 17126 net.cpp:425] prob <- fc8_plantvillage_fc8_plantvillage_0_split_0
I0403 14:32:57.782232 17126 net.cpp:399] prob -> prob
I0403 14:32:57.782464 17126 net.cpp:141] Setting up prob
I0403 14:32:57.782490 17126 net.cpp:148] Top shape: 100 38 (3800)
I0403 14:32:57.782516 17126 net.cpp:156] Memory required for data: 831602000
I0403 14:32:57.782531 17126 layer_factory.hpp:77] Creating layer hdf5out
I0403 14:32:57.782549 17126 net.cpp:91] Creating Layer hdf5out
I0403 14:32:57.782565 17126 net.cpp:425] hdf5out <- prob
I0403 14:32:57.782583 17126 net.cpp:425] hdf5out <- label_data_1_split_0
I0403 14:32:57.785153 17126 net.cpp:141] Setting up hdf5out
…
