…
I0403 14:47:07.153120 17537 net.cpp:313] The NetState phase (1) differed from the phase (0) specified by a rule in layer data
I0403 14:47:07.153450 17537 net.cpp:49] Initializing net from parameters: 
state {
  phase: TEST
}
layer {
  name: "data"
  type: "Data"
  top: "data"
  top: "label"
  include {
    phase: TEST
  }
  transform_param {
    crop_size: 227
    mean_file: "/home/mohanty/data/final_dataset/lmdb/grayscale-40-60/mean.binaryproto"
  }
  data_param {
    source: "/home/mohanty/data/final_dataset/lmdb/grayscale-40-60/test_db"
    batch_size: 100
    backend: LMDB
  }
}
layer {
  name: "conv1"
  type: "Convolution"
  bottom: "data"
  top: "conv1"
  param {
    lr_mult: 1
    decay_mult: 1
  }
  param {
    lr_mult: 2
    decay_mult: 0
  }
  convolution_param {
    num_output: 96
    kernel_size: 11
    stride: 4
    weight_filler {
      type: "gaussian"
      std: 0.01
    }
    bias_filler {
      type: "constant"
      value: 0
    }
  }
}
layer {
  name: "relu1"
  type: "ReLU"
  bottom: "conv1"
  top: "conv1"
}
layer {
  name: "norm1"
  type: "LRN"
  bottom: "conv1"
  top: "norm1"
  lrn_param {
    local_size: 5
    alpha: 0.0001
    beta: 0.75
  }
}
layer {
  name: "pool1"
  type: "Pooling"
  bottom: "norm1"
  top: "pool1"
  pooling_param {
    pool: MAX
    kernel_size: 3
    stride: 2
  }
}
layer {
  name: "conv2"
  type: "Convolution"
  bottom: "pool1"
  top: "conv2"
  param {
    lr_mult: 1
    decay_mult: 1
  }
  param {
    lr_mult: 2
    decay_mult: 0
  }
  convolution_param {
    num_output: 256
    pad: 2
    kernel_size: 5
    group: 2
    weight_filler {
      type: "gaussian"
      std: 0.01
    }
    bias_filler {
      type: "constant"
      value: 0.1
    }
  }
}
layer {
  name: "relu2"
  type: "ReLU"
  bottom: "conv2"
  top: "conv2"
}
layer {
  name: "norm2"
  type: "LRN"
  bottom: "conv2"
  top: "norm2"
  lrn_param {
    local_size: 5
    alpha: 0.0001
    beta: 0.75
  }
}
layer {
  name: "pool2"
  type: "Pooling"
  bottom: "norm2"
  top: "pool2"
  pooling_param {
    pool: MAX
    kernel_size: 3
    stride: 2
  }
}
layer {
  name: "conv3"
  type: "Convolution"
  bottom: "pool2"
  top: "conv3"
  param {
    lr_mult: 1
    decay_mult: 1
  }
  param {
    lr_mult: 2
    decay_mult: 0
  }
  convolution_param {
    num_output: 384
    pad: 1
    kernel_size: 3
    weight_filler {
      type: "gaussian"
      std: 0.01
    }
    bias_filler {
      type: "constant"
      value: 0
    }
  }
}
layer {
  name: "relu3"
  type: "ReLU"
  bottom: "conv3"
  top: "conv3"
}
layer {
  name: "conv4"
  type: "Convolution"
  bottom: "conv3"
  top: "conv4"
  param {
    lr_mult: 1
    decay_mult: 1
  }
  param {
    lr_mult: 2
    decay_mult: 0
  }
  convolution_param {
    num_output: 384
    pad: 1
    kernel_size: 3
    group: 2
    weight_filler {
      type: "gaussian"
      std: 0.01
    }
    bias_filler {
      type: "constant"
      value: 0.1
    }
  }
}
layer {
  name: "relu4"
  type: "ReLU"
  bottom: "conv4"
  top: "conv4"
}
layer {
  name: "conv5"
  type: "Convolution"
  bottom: "conv4"
  top: "conv5"
  param {
    lr_mult: 1
    decay_mult: 1
  }
  param {
    lr_mult: 2
    decay_mult: 0
  }
  convolution_param {
    num_output: 256
    pad: 1
    kernel_size: 3
    group: 2
    weight_filler {
      type: "gaussian"
      std: 0.01
    }
    bias_filler {
      type: "constant"
      value: 0.1
    }
  }
}
layer {
  name: "relu5"
  type: "ReLU"
  bottom: "conv5"
  top: "conv5"
}
layer {
  name: "pool5"
  type: "Pooling"
  bottom: "conv5"
  top: "pool5"
  pooling_param {
    pool: MAX
    kernel_size: 3
    stride: 2
  }
}
layer {
  name: "fc6"
  type: "InnerProduct"
  bottom: "pool5"
  top: "fc6"
  param {
    lr_mult: 1
    decay_mult: 1
  }
  param {
    lr_mult: 2
    decay_mult: 0
  }
  inner_product_param {
    num_output: 4096
    weight_filler {
      type: "gaussian"
      std: 0.005
    }
    bias_filler {
      type: "constant"
      value: 0.1
    }
  }
}
layer {
  name: "relu6"
  type: "ReLU"
  bottom: "fc6"
  top: "fc6"
}
layer {
  name: "drop6"
  type: "Dropout"
  bottom: "fc6"
  top: "fc6"
  dropout_param {
    dropout_ratio: 0.5
  }
}
layer {
  name: "fc7"
  type: "InnerProduct"
  bottom: "fc6"
  top: "fc7"
  param {
    lr_mult: 1
    decay_mult: 1
  }
  param {
    lr_mult: 2
    decay_mult: 0
  }
  inner_product_param {
    num_output: 4096
    weight_filler {
      type: "gaussian"
      std: 0.005
    }
    bias_filler {
      type: "constant"
      value: 0.1
    }
  }
}
layer {
  name: "relu7"
  type: "ReLU"
  bottom: "fc7"
  top: "fc7"
}
layer {
  name: "drop7"
  type: "Dropout"
  bottom: "fc7"
  top: "fc7"
  dropout_param {
    dropout_ratio: 0.5
  }
}
layer {
  name: "fc8_plantvillage"
  type: "InnerProduct"
  bottom: "fc7"
  top: "fc8_plantvillage"
  param {
    lr_mult: 1
    decay_mult: 1
  }
  param {
    lr_mult: 2
    decay_mult: 0
  }
  inner_product_param {
    num_output: 38
    weight_filler {
      type: "gaussian"
      std: 0.01
    }
    bias_filler {
      type: "constant"
      value: 0
    }
  }
}
layer {
  name: "prob"
  type: "Softmax"
  bottom: "fc8_plantvillage"
  top: "prob"
  include {
    phase: TEST
  }
}
layer {
  name: "hdf5out"
  type: "HDF5Output"
  bottom: "prob"
  bottom: "label"
  include {
    phase: TEST
  }
  hdf5_output_param {
    file_name: "hdf5_dumps/iter_4380.h5"
  }
}
layer {
  name: "loss"
  type: "SoftmaxWithLoss"
  bottom: "fc8_plantvillage"
  bottom: "label"
  top: "loss"
}
layer {
  name: "accuracy"
  type: "Accuracy"
  bottom: "fc8_plantvillage"
  bottom: "label"
  top: "accuracy"
  include {
    phase: TEST
  }
}
I0403 14:47:07.154029 17537 layer_factory.hpp:77] Creating layer data
I0403 14:47:07.154685 17537 net.cpp:91] Creating Layer data
I0403 14:47:07.154716 17537 net.cpp:399] data -> data
I0403 14:47:07.154767 17537 net.cpp:399] data -> label
I0403 14:47:07.154806 17537 data_transformer.cpp:25] Loading mean file from: /home/mohanty/data/final_dataset/lmdb/grayscale-40-60/mean.binaryproto
I0403 14:47:07.157691 17540 db_lmdb.cpp:38] Opened lmdb /home/mohanty/data/final_dataset/lmdb/grayscale-40-60/test_db
I0403 14:47:07.169387 17537 data_layer.cpp:41] output data size: 100,3,227,227
I0403 14:47:07.291734 17537 net.cpp:141] Setting up data
I0403 14:47:07.291795 17537 net.cpp:148] Top shape: 100 3 227 227 (15458700)
I0403 14:47:07.291818 17537 net.cpp:148] Top shape: 100 (100)
I0403 14:47:07.291834 17537 net.cpp:156] Memory required for data: 61835200
I0403 14:47:07.291862 17537 layer_factory.hpp:77] Creating layer label_data_1_split
I0403 14:47:07.291888 17537 net.cpp:91] Creating Layer label_data_1_split
I0403 14:47:07.291906 17537 net.cpp:425] label_data_1_split <- label
I0403 14:47:07.291939 17537 net.cpp:399] label_data_1_split -> label_data_1_split_0
I0403 14:47:07.291966 17537 net.cpp:399] label_data_1_split -> label_data_1_split_1
I0403 14:47:07.291988 17537 net.cpp:399] label_data_1_split -> label_data_1_split_2
I0403 14:47:07.292057 17537 net.cpp:141] Setting up label_data_1_split
I0403 14:47:07.292083 17537 net.cpp:148] Top shape: 100 (100)
I0403 14:47:07.292099 17537 net.cpp:148] Top shape: 100 (100)
I0403 14:47:07.292115 17537 net.cpp:148] Top shape: 100 (100)
I0403 14:47:07.292130 17537 net.cpp:156] Memory required for data: 61836400
I0403 14:47:07.292145 17537 layer_factory.hpp:77] Creating layer conv1
I0403 14:47:07.292178 17537 net.cpp:91] Creating Layer conv1
I0403 14:47:07.292196 17537 net.cpp:425] conv1 <- data
I0403 14:47:07.292217 17537 net.cpp:399] conv1 -> conv1
I0403 14:47:07.437657 17537 net.cpp:141] Setting up conv1
I0403 14:47:07.437747 17537 net.cpp:148] Top shape: 100 96 55 55 (29040000)
I0403 14:47:07.437767 17537 net.cpp:156] Memory required for data: 177996400
I0403 14:47:07.437798 17537 layer_factory.hpp:77] Creating layer relu1
I0403 14:47:07.437825 17537 net.cpp:91] Creating Layer relu1
I0403 14:47:07.437845 17537 net.cpp:425] relu1 <- conv1
I0403 14:47:07.437865 17537 net.cpp:386] relu1 -> conv1 (in-place)
I0403 14:47:07.438135 17537 net.cpp:141] Setting up relu1
I0403 14:47:07.438164 17537 net.cpp:148] Top shape: 100 96 55 55 (29040000)
I0403 14:47:07.438216 17537 net.cpp:156] Memory required for data: 294156400
I0403 14:47:07.438233 17537 layer_factory.hpp:77] Creating layer norm1
I0403 14:47:07.438261 17537 net.cpp:91] Creating Layer norm1
I0403 14:47:07.438279 17537 net.cpp:425] norm1 <- conv1
I0403 14:47:07.438298 17537 net.cpp:399] norm1 -> norm1
I0403 14:47:07.438623 17537 net.cpp:141] Setting up norm1
I0403 14:47:07.438652 17537 net.cpp:148] Top shape: 100 96 55 55 (29040000)
I0403 14:47:07.438668 17537 net.cpp:156] Memory required for data: 410316400
I0403 14:47:07.438683 17537 layer_factory.hpp:77] Creating layer pool1
I0403 14:47:07.438706 17537 net.cpp:91] Creating Layer pool1
I0403 14:47:07.438724 17537 net.cpp:425] pool1 <- norm1
I0403 14:47:07.438742 17537 net.cpp:399] pool1 -> pool1
I0403 14:47:07.438812 17537 net.cpp:141] Setting up pool1
I0403 14:47:07.438835 17537 net.cpp:148] Top shape: 100 96 27 27 (6998400)
I0403 14:47:07.438850 17537 net.cpp:156] Memory required for data: 438310000
I0403 14:47:07.438865 17537 layer_factory.hpp:77] Creating layer conv2
I0403 14:47:07.438890 17537 net.cpp:91] Creating Layer conv2
I0403 14:47:07.438907 17537 net.cpp:425] conv2 <- pool1
I0403 14:47:07.438926 17537 net.cpp:399] conv2 -> conv2
I0403 14:47:07.454336 17537 net.cpp:141] Setting up conv2
I0403 14:47:07.454375 17537 net.cpp:148] Top shape: 100 256 27 27 (18662400)
I0403 14:47:07.454393 17537 net.cpp:156] Memory required for data: 512959600
I0403 14:47:07.454417 17537 layer_factory.hpp:77] Creating layer relu2
I0403 14:47:07.454442 17537 net.cpp:91] Creating Layer relu2
I0403 14:47:07.454459 17537 net.cpp:425] relu2 <- conv2
I0403 14:47:07.454478 17537 net.cpp:386] relu2 -> conv2 (in-place)
I0403 14:47:07.454766 17537 net.cpp:141] Setting up relu2
I0403 14:47:07.454794 17537 net.cpp:148] Top shape: 100 256 27 27 (18662400)
I0403 14:47:07.454810 17537 net.cpp:156] Memory required for data: 587609200
I0403 14:47:07.454825 17537 layer_factory.hpp:77] Creating layer norm2
I0403 14:47:07.454850 17537 net.cpp:91] Creating Layer norm2
I0403 14:47:07.454867 17537 net.cpp:425] norm2 <- conv2
I0403 14:47:07.454888 17537 net.cpp:399] norm2 -> norm2
I0403 14:47:07.455099 17537 net.cpp:141] Setting up norm2
I0403 14:47:07.455127 17537 net.cpp:148] Top shape: 100 256 27 27 (18662400)
I0403 14:47:07.455142 17537 net.cpp:156] Memory required for data: 662258800
I0403 14:47:07.455157 17537 layer_factory.hpp:77] Creating layer pool2
I0403 14:47:07.455176 17537 net.cpp:91] Creating Layer pool2
I0403 14:47:07.455193 17537 net.cpp:425] pool2 <- norm2
I0403 14:47:07.455214 17537 net.cpp:399] pool2 -> pool2
I0403 14:47:07.455271 17537 net.cpp:141] Setting up pool2
I0403 14:47:07.455296 17537 net.cpp:148] Top shape: 100 256 13 13 (4326400)
I0403 14:47:07.455310 17537 net.cpp:156] Memory required for data: 679564400
I0403 14:47:07.455325 17537 layer_factory.hpp:77] Creating layer conv3
I0403 14:47:07.455351 17537 net.cpp:91] Creating Layer conv3
I0403 14:47:07.455369 17537 net.cpp:425] conv3 <- pool2
I0403 14:47:07.455389 17537 net.cpp:399] conv3 -> conv3
I0403 14:47:07.498435 17537 net.cpp:141] Setting up conv3
I0403 14:47:07.498522 17537 net.cpp:148] Top shape: 100 384 13 13 (6489600)
I0403 14:47:07.498539 17537 net.cpp:156] Memory required for data: 705522800
I0403 14:47:07.498566 17537 layer_factory.hpp:77] Creating layer relu3
I0403 14:47:07.498590 17537 net.cpp:91] Creating Layer relu3
I0403 14:47:07.498610 17537 net.cpp:425] relu3 <- conv3
I0403 14:47:07.498630 17537 net.cpp:386] relu3 -> conv3 (in-place)
I0403 14:47:07.498917 17537 net.cpp:141] Setting up relu3
I0403 14:47:07.498945 17537 net.cpp:148] Top shape: 100 384 13 13 (6489600)
I0403 14:47:07.498961 17537 net.cpp:156] Memory required for data: 731481200
I0403 14:47:07.498977 17537 layer_factory.hpp:77] Creating layer conv4
I0403 14:47:07.499004 17537 net.cpp:91] Creating Layer conv4
I0403 14:47:07.499025 17537 net.cpp:425] conv4 <- conv3
I0403 14:47:07.499049 17537 net.cpp:399] conv4 -> conv4
I0403 14:47:07.529763 17537 net.cpp:141] Setting up conv4
I0403 14:47:07.529840 17537 net.cpp:148] Top shape: 100 384 13 13 (6489600)
I0403 14:47:07.529881 17537 net.cpp:156] Memory required for data: 757439600
I0403 14:47:07.529902 17537 layer_factory.hpp:77] Creating layer relu4
I0403 14:47:07.529925 17537 net.cpp:91] Creating Layer relu4
I0403 14:47:07.529943 17537 net.cpp:425] relu4 <- conv4
I0403 14:47:07.529965 17537 net.cpp:386] relu4 -> conv4 (in-place)
I0403 14:47:07.530273 17537 net.cpp:141] Setting up relu4
I0403 14:47:07.530303 17537 net.cpp:148] Top shape: 100 384 13 13 (6489600)
I0403 14:47:07.530318 17537 net.cpp:156] Memory required for data: 783398000
I0403 14:47:07.530333 17537 layer_factory.hpp:77] Creating layer conv5
I0403 14:47:07.530360 17537 net.cpp:91] Creating Layer conv5
I0403 14:47:07.530378 17537 net.cpp:425] conv5 <- conv4
I0403 14:47:07.530411 17537 net.cpp:399] conv5 -> conv5
I0403 14:47:07.551650 17537 net.cpp:141] Setting up conv5
I0403 14:47:07.551715 17537 net.cpp:148] Top shape: 100 256 13 13 (4326400)
I0403 14:47:07.551733 17537 net.cpp:156] Memory required for data: 800703600
I0403 14:47:07.551759 17537 layer_factory.hpp:77] Creating layer relu5
I0403 14:47:07.551779 17537 net.cpp:91] Creating Layer relu5
I0403 14:47:07.551797 17537 net.cpp:425] relu5 <- conv5
I0403 14:47:07.551823 17537 net.cpp:386] relu5 -> conv5 (in-place)
I0403 14:47:07.552114 17537 net.cpp:141] Setting up relu5
I0403 14:47:07.552144 17537 net.cpp:148] Top shape: 100 256 13 13 (4326400)
I0403 14:47:07.552160 17537 net.cpp:156] Memory required for data: 818009200
I0403 14:47:07.552180 17537 layer_factory.hpp:77] Creating layer pool5
I0403 14:47:07.552206 17537 net.cpp:91] Creating Layer pool5
I0403 14:47:07.552224 17537 net.cpp:425] pool5 <- conv5
I0403 14:47:07.552245 17537 net.cpp:399] pool5 -> pool5
I0403 14:47:07.552311 17537 net.cpp:141] Setting up pool5
I0403 14:47:07.552336 17537 net.cpp:148] Top shape: 100 256 6 6 (921600)
I0403 14:47:07.552351 17537 net.cpp:156] Memory required for data: 821695600
I0403 14:47:07.552366 17537 layer_factory.hpp:77] Creating layer fc6
I0403 14:47:07.552397 17537 net.cpp:91] Creating Layer fc6
I0403 14:47:07.552417 17537 net.cpp:425] fc6 <- pool5
I0403 14:47:07.552435 17537 net.cpp:399] fc6 -> fc6
I0403 14:47:09.118682 17537 net.cpp:141] Setting up fc6
I0403 14:47:09.118724 17537 net.cpp:148] Top shape: 100 4096 (409600)
I0403 14:47:09.118741 17537 net.cpp:156] Memory required for data: 823334000
I0403 14:47:09.118762 17537 layer_factory.hpp:77] Creating layer relu6
I0403 14:47:09.118783 17537 net.cpp:91] Creating Layer relu6
I0403 14:47:09.118800 17537 net.cpp:425] relu6 <- fc6
I0403 14:47:09.118823 17537 net.cpp:386] relu6 -> fc6 (in-place)
I0403 14:47:09.119051 17537 net.cpp:141] Setting up relu6
I0403 14:47:09.119076 17537 net.cpp:148] Top shape: 100 4096 (409600)
I0403 14:47:09.119089 17537 net.cpp:156] Memory required for data: 824972400
I0403 14:47:09.119104 17537 layer_factory.hpp:77] Creating layer drop6
I0403 14:47:09.119122 17537 net.cpp:91] Creating Layer drop6
I0403 14:47:09.119135 17537 net.cpp:425] drop6 <- fc6
I0403 14:47:09.119153 17537 net.cpp:386] drop6 -> fc6 (in-place)
I0403 14:47:09.119202 17537 net.cpp:141] Setting up drop6
I0403 14:47:09.119227 17537 net.cpp:148] Top shape: 100 4096 (409600)
I0403 14:47:09.119241 17537 net.cpp:156] Memory required for data: 826610800
I0403 14:47:09.119256 17537 layer_factory.hpp:77] Creating layer fc7
I0403 14:47:09.119273 17537 net.cpp:91] Creating Layer fc7
I0403 14:47:09.119289 17537 net.cpp:425] fc7 <- fc6
I0403 14:47:09.119308 17537 net.cpp:399] fc7 -> fc7
I0403 14:47:09.819700 17537 net.cpp:141] Setting up fc7
I0403 14:47:09.819780 17537 net.cpp:148] Top shape: 100 4096 (409600)
I0403 14:47:09.819798 17537 net.cpp:156] Memory required for data: 828249200
I0403 14:47:09.819819 17537 layer_factory.hpp:77] Creating layer relu7
I0403 14:47:09.819840 17537 net.cpp:91] Creating Layer relu7
I0403 14:47:09.819861 17537 net.cpp:425] relu7 <- fc7
I0403 14:47:09.819880 17537 net.cpp:386] relu7 -> fc7 (in-place)
I0403 14:47:09.820328 17537 net.cpp:141] Setting up relu7
I0403 14:47:09.820354 17537 net.cpp:148] Top shape: 100 4096 (409600)
I0403 14:47:09.820399 17537 net.cpp:156] Memory required for data: 829887600
I0403 14:47:09.820415 17537 layer_factory.hpp:77] Creating layer drop7
I0403 14:47:09.820433 17537 net.cpp:91] Creating Layer drop7
I0403 14:47:09.820449 17537 net.cpp:425] drop7 <- fc7
I0403 14:47:09.820468 17537 net.cpp:386] drop7 -> fc7 (in-place)
I0403 14:47:09.820510 17537 net.cpp:141] Setting up drop7
I0403 14:47:09.820534 17537 net.cpp:148] Top shape: 100 4096 (409600)
I0403 14:47:09.820549 17537 net.cpp:156] Memory required for data: 831526000
I0403 14:47:09.820562 17537 layer_factory.hpp:77] Creating layer fc8_plantvillage
I0403 14:47:09.820581 17537 net.cpp:91] Creating Layer fc8_plantvillage
I0403 14:47:09.820596 17537 net.cpp:425] fc8_plantvillage <- fc7
I0403 14:47:09.820616 17537 net.cpp:399] fc8_plantvillage -> fc8_plantvillage
I0403 14:47:09.827425 17537 net.cpp:141] Setting up fc8_plantvillage
I0403 14:47:09.827451 17537 net.cpp:148] Top shape: 100 38 (3800)
I0403 14:47:09.827466 17537 net.cpp:156] Memory required for data: 831541200
I0403 14:47:09.827483 17537 layer_factory.hpp:77] Creating layer fc8_plantvillage_fc8_plantvillage_0_split
I0403 14:47:09.827500 17537 net.cpp:91] Creating Layer fc8_plantvillage_fc8_plantvillage_0_split
I0403 14:47:09.827515 17537 net.cpp:425] fc8_plantvillage_fc8_plantvillage_0_split <- fc8_plantvillage
I0403 14:47:09.827533 17537 net.cpp:399] fc8_plantvillage_fc8_plantvillage_0_split -> fc8_plantvillage_fc8_plantvillage_0_split_0
I0403 14:47:09.827554 17537 net.cpp:399] fc8_plantvillage_fc8_plantvillage_0_split -> fc8_plantvillage_fc8_plantvillage_0_split_1
I0403 14:47:09.827574 17537 net.cpp:399] fc8_plantvillage_fc8_plantvillage_0_split -> fc8_plantvillage_fc8_plantvillage_0_split_2
I0403 14:47:09.827648 17537 net.cpp:141] Setting up fc8_plantvillage_fc8_plantvillage_0_split
I0403 14:47:09.827671 17537 net.cpp:148] Top shape: 100 38 (3800)
I0403 14:47:09.827687 17537 net.cpp:148] Top shape: 100 38 (3800)
I0403 14:47:09.827700 17537 net.cpp:148] Top shape: 100 38 (3800)
I0403 14:47:09.827713 17537 net.cpp:156] Memory required for data: 831586800
I0403 14:47:09.827728 17537 layer_factory.hpp:77] Creating layer prob
I0403 14:47:09.827745 17537 net.cpp:91] Creating Layer prob
I0403 14:47:09.827759 17537 net.cpp:425] prob <- fc8_plantvillage_fc8_plantvillage_0_split_0
I0403 14:47:09.827778 17537 net.cpp:399] prob -> prob
I0403 14:47:09.828011 17537 net.cpp:141] Setting up prob
I0403 14:47:09.828049 17537 net.cpp:148] Top shape: 100 38 (3800)
I0403 14:47:09.828064 17537 net.cpp:156] Memory required for data: 831602000
I0403 14:47:09.828079 17537 layer_factory.hpp:77] Creating layer hdf5out
I0403 14:47:09.828099 17537 net.cpp:91] Creating Layer hdf5out
I0403 14:47:09.828117 17537 net.cpp:425] hdf5out <- prob
I0403 14:47:09.828133 17537 net.cpp:425] hdf5out <- label_data_1_split_0
I0403 14:47:09.830538 17537 net.cpp:141] Setting up hdf5out
…
