…
I0403 14:29:38.823915 17035 net.cpp:313] The NetState phase (1) differed from the phase (0) specified by a rule in layer data
I0403 14:29:38.824235 17035 net.cpp:49] Initializing net from parameters: 
state {
  phase: TEST
}
layer {
  name: "data"
  type: "Data"
  top: "data"
  top: "label"
  include {
    phase: TEST
  }
  transform_param {
    crop_size: 227
    mean_file: "/home/mohanty/data/final_dataset/lmdb/grayscale-40-60/mean.binaryproto"
  }
  data_param {
    source: "/home/mohanty/data/final_dataset/lmdb/grayscale-40-60/test_db"
    batch_size: 100
    backend: LMDB
  }
}
layer {
  name: "conv1"
  type: "Convolution"
  bottom: "data"
  top: "conv1"
  param {
    lr_mult: 1
    decay_mult: 1
  }
  param {
    lr_mult: 2
    decay_mult: 0
  }
  convolution_param {
    num_output: 96
    kernel_size: 11
    stride: 4
    weight_filler {
      type: "gaussian"
      std: 0.01
    }
    bias_filler {
      type: "constant"
      value: 0
    }
  }
}
layer {
  name: "relu1"
  type: "ReLU"
  bottom: "conv1"
  top: "conv1"
}
layer {
  name: "norm1"
  type: "LRN"
  bottom: "conv1"
  top: "norm1"
  lrn_param {
    local_size: 5
    alpha: 0.0001
    beta: 0.75
  }
}
layer {
  name: "pool1"
  type: "Pooling"
  bottom: "norm1"
  top: "pool1"
  pooling_param {
    pool: MAX
    kernel_size: 3
    stride: 2
  }
}
layer {
  name: "conv2"
  type: "Convolution"
  bottom: "pool1"
  top: "conv2"
  param {
    lr_mult: 1
    decay_mult: 1
  }
  param {
    lr_mult: 2
    decay_mult: 0
  }
  convolution_param {
    num_output: 256
    pad: 2
    kernel_size: 5
    group: 2
    weight_filler {
      type: "gaussian"
      std: 0.01
    }
    bias_filler {
      type: "constant"
      value: 0.1
    }
  }
}
layer {
  name: "relu2"
  type: "ReLU"
  bottom: "conv2"
  top: "conv2"
}
layer {
  name: "norm2"
  type: "LRN"
  bottom: "conv2"
  top: "norm2"
  lrn_param {
    local_size: 5
    alpha: 0.0001
    beta: 0.75
  }
}
layer {
  name: "pool2"
  type: "Pooling"
  bottom: "norm2"
  top: "pool2"
  pooling_param {
    pool: MAX
    kernel_size: 3
    stride: 2
  }
}
layer {
  name: "conv3"
  type: "Convolution"
  bottom: "pool2"
  top: "conv3"
  param {
    lr_mult: 1
    decay_mult: 1
  }
  param {
    lr_mult: 2
    decay_mult: 0
  }
  convolution_param {
    num_output: 384
    pad: 1
    kernel_size: 3
    weight_filler {
      type: "gaussian"
      std: 0.01
    }
    bias_filler {
      type: "constant"
      value: 0
    }
  }
}
layer {
  name: "relu3"
  type: "ReLU"
  bottom: "conv3"
  top: "conv3"
}
layer {
  name: "conv4"
  type: "Convolution"
  bottom: "conv3"
  top: "conv4"
  param {
    lr_mult: 1
    decay_mult: 1
  }
  param {
    lr_mult: 2
    decay_mult: 0
  }
  convolution_param {
    num_output: 384
    pad: 1
    kernel_size: 3
    group: 2
    weight_filler {
      type: "gaussian"
      std: 0.01
    }
    bias_filler {
      type: "constant"
      value: 0.1
    }
  }
}
layer {
  name: "relu4"
  type: "ReLU"
  bottom: "conv4"
  top: "conv4"
}
layer {
  name: "conv5"
  type: "Convolution"
  bottom: "conv4"
  top: "conv5"
  param {
    lr_mult: 1
    decay_mult: 1
  }
  param {
    lr_mult: 2
    decay_mult: 0
  }
  convolution_param {
    num_output: 256
    pad: 1
    kernel_size: 3
    group: 2
    weight_filler {
      type: "gaussian"
      std: 0.01
    }
    bias_filler {
      type: "constant"
      value: 0.1
    }
  }
}
layer {
  name: "relu5"
  type: "ReLU"
  bottom: "conv5"
  top: "conv5"
}
layer {
  name: "pool5"
  type: "Pooling"
  bottom: "conv5"
  top: "pool5"
  pooling_param {
    pool: MAX
    kernel_size: 3
    stride: 2
  }
}
layer {
  name: "fc6"
  type: "InnerProduct"
  bottom: "pool5"
  top: "fc6"
  param {
    lr_mult: 1
    decay_mult: 1
  }
  param {
    lr_mult: 2
    decay_mult: 0
  }
  inner_product_param {
    num_output: 4096
    weight_filler {
      type: "gaussian"
      std: 0.005
    }
    bias_filler {
      type: "constant"
      value: 0.1
    }
  }
}
layer {
  name: "relu6"
  type: "ReLU"
  bottom: "fc6"
  top: "fc6"
}
layer {
  name: "drop6"
  type: "Dropout"
  bottom: "fc6"
  top: "fc6"
  dropout_param {
    dropout_ratio: 0.5
  }
}
layer {
  name: "fc7"
  type: "InnerProduct"
  bottom: "fc6"
  top: "fc7"
  param {
    lr_mult: 1
    decay_mult: 1
  }
  param {
    lr_mult: 2
    decay_mult: 0
  }
  inner_product_param {
    num_output: 4096
    weight_filler {
      type: "gaussian"
      std: 0.005
    }
    bias_filler {
      type: "constant"
      value: 0.1
    }
  }
}
layer {
  name: "relu7"
  type: "ReLU"
  bottom: "fc7"
  top: "fc7"
}
layer {
  name: "drop7"
  type: "Dropout"
  bottom: "fc7"
  top: "fc7"
  dropout_param {
    dropout_ratio: 0.5
  }
}
layer {
  name: "fc8_plantvillage"
  type: "InnerProduct"
  bottom: "fc7"
  top: "fc8_plantvillage"
  param {
    lr_mult: 1
    decay_mult: 1
  }
  param {
    lr_mult: 2
    decay_mult: 0
  }
  inner_product_param {
    num_output: 38
    weight_filler {
      type: "gaussian"
      std: 0.01
    }
    bias_filler {
      type: "constant"
      value: 0
    }
  }
}
layer {
  name: "prob"
  type: "Softmax"
  bottom: "fc8_plantvillage"
  top: "prob"
  include {
    phase: TEST
  }
}
layer {
  name: "hdf5out"
  type: "HDF5Output"
  bottom: "prob"
  bottom: "label"
  include {
    phase: TEST
  }
  hdf5_output_param {
    file_name: "hdf5_dumps/iter_876.h5"
  }
}
layer {
  name: "loss"
  type: "SoftmaxWithLoss"
  bottom: "fc8_plantvillage"
  bottom: "label"
  top: "loss"
}
layer {
  name: "accuracy"
  type: "Accuracy"
  bottom: "fc8_plantvillage"
  bottom: "label"
  top: "accuracy"
  include {
    phase: TEST
  }
}
I0403 14:29:38.824829 17035 layer_factory.hpp:77] Creating layer data
I0403 14:29:38.825470 17035 net.cpp:91] Creating Layer data
I0403 14:29:38.825500 17035 net.cpp:399] data -> data
I0403 14:29:38.825552 17035 net.cpp:399] data -> label
I0403 14:29:38.825589 17035 data_transformer.cpp:25] Loading mean file from: /home/mohanty/data/final_dataset/lmdb/grayscale-40-60/mean.binaryproto
I0403 14:29:38.828272 17038 db_lmdb.cpp:38] Opened lmdb /home/mohanty/data/final_dataset/lmdb/grayscale-40-60/test_db
I0403 14:29:38.840003 17035 data_layer.cpp:41] output data size: 100,3,227,227
I0403 14:29:38.959918 17035 net.cpp:141] Setting up data
I0403 14:29:38.960023 17035 net.cpp:148] Top shape: 100 3 227 227 (15458700)
I0403 14:29:38.960050 17035 net.cpp:148] Top shape: 100 (100)
I0403 14:29:38.960067 17035 net.cpp:156] Memory required for data: 61835200
I0403 14:29:38.960098 17035 layer_factory.hpp:77] Creating layer label_data_1_split
I0403 14:29:38.960122 17035 net.cpp:91] Creating Layer label_data_1_split
I0403 14:29:38.960140 17035 net.cpp:425] label_data_1_split <- label
I0403 14:29:38.960172 17035 net.cpp:399] label_data_1_split -> label_data_1_split_0
I0403 14:29:38.960199 17035 net.cpp:399] label_data_1_split -> label_data_1_split_1
I0403 14:29:38.960219 17035 net.cpp:399] label_data_1_split -> label_data_1_split_2
I0403 14:29:38.960281 17035 net.cpp:141] Setting up label_data_1_split
I0403 14:29:38.960305 17035 net.cpp:148] Top shape: 100 (100)
I0403 14:29:38.960322 17035 net.cpp:148] Top shape: 100 (100)
I0403 14:29:38.960340 17035 net.cpp:148] Top shape: 100 (100)
I0403 14:29:38.960353 17035 net.cpp:156] Memory required for data: 61836400
I0403 14:29:38.960368 17035 layer_factory.hpp:77] Creating layer conv1
I0403 14:29:38.960399 17035 net.cpp:91] Creating Layer conv1
I0403 14:29:38.960418 17035 net.cpp:425] conv1 <- data
I0403 14:29:38.960438 17035 net.cpp:399] conv1 -> conv1
I0403 14:29:39.099573 17035 net.cpp:141] Setting up conv1
I0403 14:29:39.099652 17035 net.cpp:148] Top shape: 100 96 55 55 (29040000)
I0403 14:29:39.099668 17035 net.cpp:156] Memory required for data: 177996400
I0403 14:29:39.099700 17035 layer_factory.hpp:77] Creating layer relu1
I0403 14:29:39.099728 17035 net.cpp:91] Creating Layer relu1
I0403 14:29:39.099746 17035 net.cpp:425] relu1 <- conv1
I0403 14:29:39.099766 17035 net.cpp:386] relu1 -> conv1 (in-place)
I0403 14:29:39.100041 17035 net.cpp:141] Setting up relu1
I0403 14:29:39.100071 17035 net.cpp:148] Top shape: 100 96 55 55 (29040000)
I0403 14:29:39.100118 17035 net.cpp:156] Memory required for data: 294156400
I0403 14:29:39.100134 17035 layer_factory.hpp:77] Creating layer norm1
I0403 14:29:39.100160 17035 net.cpp:91] Creating Layer norm1
I0403 14:29:39.100178 17035 net.cpp:425] norm1 <- conv1
I0403 14:29:39.100198 17035 net.cpp:399] norm1 -> norm1
I0403 14:29:39.100520 17035 net.cpp:141] Setting up norm1
I0403 14:29:39.100549 17035 net.cpp:148] Top shape: 100 96 55 55 (29040000)
I0403 14:29:39.100566 17035 net.cpp:156] Memory required for data: 410316400
I0403 14:29:39.100582 17035 layer_factory.hpp:77] Creating layer pool1
I0403 14:29:39.100603 17035 net.cpp:91] Creating Layer pool1
I0403 14:29:39.100620 17035 net.cpp:425] pool1 <- norm1
I0403 14:29:39.100641 17035 net.cpp:399] pool1 -> pool1
I0403 14:29:39.100711 17035 net.cpp:141] Setting up pool1
I0403 14:29:39.100735 17035 net.cpp:148] Top shape: 100 96 27 27 (6998400)
I0403 14:29:39.100751 17035 net.cpp:156] Memory required for data: 438310000
I0403 14:29:39.100766 17035 layer_factory.hpp:77] Creating layer conv2
I0403 14:29:39.100792 17035 net.cpp:91] Creating Layer conv2
I0403 14:29:39.100808 17035 net.cpp:425] conv2 <- pool1
I0403 14:29:39.100828 17035 net.cpp:399] conv2 -> conv2
I0403 14:29:39.115816 17035 net.cpp:141] Setting up conv2
I0403 14:29:39.115871 17035 net.cpp:148] Top shape: 100 256 27 27 (18662400)
I0403 14:29:39.115888 17035 net.cpp:156] Memory required for data: 512959600
I0403 14:29:39.115911 17035 layer_factory.hpp:77] Creating layer relu2
I0403 14:29:39.115931 17035 net.cpp:91] Creating Layer relu2
I0403 14:29:39.115947 17035 net.cpp:425] relu2 <- conv2
I0403 14:29:39.115968 17035 net.cpp:386] relu2 -> conv2 (in-place)
I0403 14:29:39.116253 17035 net.cpp:141] Setting up relu2
I0403 14:29:39.116281 17035 net.cpp:148] Top shape: 100 256 27 27 (18662400)
I0403 14:29:39.116297 17035 net.cpp:156] Memory required for data: 587609200
I0403 14:29:39.116312 17035 layer_factory.hpp:77] Creating layer norm2
I0403 14:29:39.116334 17035 net.cpp:91] Creating Layer norm2
I0403 14:29:39.116351 17035 net.cpp:425] norm2 <- conv2
I0403 14:29:39.116369 17035 net.cpp:399] norm2 -> norm2
I0403 14:29:39.116566 17035 net.cpp:141] Setting up norm2
I0403 14:29:39.116595 17035 net.cpp:148] Top shape: 100 256 27 27 (18662400)
I0403 14:29:39.116610 17035 net.cpp:156] Memory required for data: 662258800
I0403 14:29:39.116624 17035 layer_factory.hpp:77] Creating layer pool2
I0403 14:29:39.116642 17035 net.cpp:91] Creating Layer pool2
I0403 14:29:39.116657 17035 net.cpp:425] pool2 <- norm2
I0403 14:29:39.116677 17035 net.cpp:399] pool2 -> pool2
I0403 14:29:39.116730 17035 net.cpp:141] Setting up pool2
I0403 14:29:39.116753 17035 net.cpp:148] Top shape: 100 256 13 13 (4326400)
I0403 14:29:39.116768 17035 net.cpp:156] Memory required for data: 679564400
I0403 14:29:39.116783 17035 layer_factory.hpp:77] Creating layer conv3
I0403 14:29:39.116807 17035 net.cpp:91] Creating Layer conv3
I0403 14:29:39.116824 17035 net.cpp:425] conv3 <- pool2
I0403 14:29:39.116844 17035 net.cpp:399] conv3 -> conv3
I0403 14:29:39.160351 17035 net.cpp:141] Setting up conv3
I0403 14:29:39.160436 17035 net.cpp:148] Top shape: 100 384 13 13 (6489600)
I0403 14:29:39.160454 17035 net.cpp:156] Memory required for data: 705522800
I0403 14:29:39.160480 17035 layer_factory.hpp:77] Creating layer relu3
I0403 14:29:39.160503 17035 net.cpp:91] Creating Layer relu3
I0403 14:29:39.160521 17035 net.cpp:425] relu3 <- conv3
I0403 14:29:39.160543 17035 net.cpp:386] relu3 -> conv3 (in-place)
I0403 14:29:39.160825 17035 net.cpp:141] Setting up relu3
I0403 14:29:39.160853 17035 net.cpp:148] Top shape: 100 384 13 13 (6489600)
I0403 14:29:39.160871 17035 net.cpp:156] Memory required for data: 731481200
I0403 14:29:39.160887 17035 layer_factory.hpp:77] Creating layer conv4
I0403 14:29:39.160913 17035 net.cpp:91] Creating Layer conv4
I0403 14:29:39.160931 17035 net.cpp:425] conv4 <- conv3
I0403 14:29:39.160950 17035 net.cpp:399] conv4 -> conv4
I0403 14:29:39.191213 17035 net.cpp:141] Setting up conv4
I0403 14:29:39.191292 17035 net.cpp:148] Top shape: 100 384 13 13 (6489600)
I0403 14:29:39.191340 17035 net.cpp:156] Memory required for data: 757439600
I0403 14:29:39.191362 17035 layer_factory.hpp:77] Creating layer relu4
I0403 14:29:39.191387 17035 net.cpp:91] Creating Layer relu4
I0403 14:29:39.191406 17035 net.cpp:425] relu4 <- conv4
I0403 14:29:39.191426 17035 net.cpp:386] relu4 -> conv4 (in-place)
I0403 14:29:39.191741 17035 net.cpp:141] Setting up relu4
I0403 14:29:39.191768 17035 net.cpp:148] Top shape: 100 384 13 13 (6489600)
I0403 14:29:39.191792 17035 net.cpp:156] Memory required for data: 783398000
I0403 14:29:39.191808 17035 layer_factory.hpp:77] Creating layer conv5
I0403 14:29:39.191835 17035 net.cpp:91] Creating Layer conv5
I0403 14:29:39.191854 17035 net.cpp:425] conv5 <- conv4
I0403 14:29:39.191874 17035 net.cpp:399] conv5 -> conv5
I0403 14:29:39.212688 17035 net.cpp:141] Setting up conv5
I0403 14:29:39.212756 17035 net.cpp:148] Top shape: 100 256 13 13 (4326400)
I0403 14:29:39.212775 17035 net.cpp:156] Memory required for data: 800703600
I0403 14:29:39.212801 17035 layer_factory.hpp:77] Creating layer relu5
I0403 14:29:39.212824 17035 net.cpp:91] Creating Layer relu5
I0403 14:29:39.212841 17035 net.cpp:425] relu5 <- conv5
I0403 14:29:39.212862 17035 net.cpp:386] relu5 -> conv5 (in-place)
I0403 14:29:39.213163 17035 net.cpp:141] Setting up relu5
I0403 14:29:39.213191 17035 net.cpp:148] Top shape: 100 256 13 13 (4326400)
I0403 14:29:39.213208 17035 net.cpp:156] Memory required for data: 818009200
I0403 14:29:39.213225 17035 layer_factory.hpp:77] Creating layer pool5
I0403 14:29:39.213248 17035 net.cpp:91] Creating Layer pool5
I0403 14:29:39.213265 17035 net.cpp:425] pool5 <- conv5
I0403 14:29:39.213296 17035 net.cpp:399] pool5 -> pool5
I0403 14:29:39.213361 17035 net.cpp:141] Setting up pool5
I0403 14:29:39.213387 17035 net.cpp:148] Top shape: 100 256 6 6 (921600)
I0403 14:29:39.213402 17035 net.cpp:156] Memory required for data: 821695600
I0403 14:29:39.213418 17035 layer_factory.hpp:77] Creating layer fc6
I0403 14:29:39.213449 17035 net.cpp:91] Creating Layer fc6
I0403 14:29:39.213469 17035 net.cpp:425] fc6 <- pool5
I0403 14:29:39.213490 17035 net.cpp:399] fc6 -> fc6
I0403 14:29:40.782713 17035 net.cpp:141] Setting up fc6
I0403 14:29:40.782786 17035 net.cpp:148] Top shape: 100 4096 (409600)
I0403 14:29:40.782802 17035 net.cpp:156] Memory required for data: 823334000
I0403 14:29:40.782824 17035 layer_factory.hpp:77] Creating layer relu6
I0403 14:29:40.782848 17035 net.cpp:91] Creating Layer relu6
I0403 14:29:40.782866 17035 net.cpp:425] relu6 <- fc6
I0403 14:29:40.782886 17035 net.cpp:386] relu6 -> fc6 (in-place)
I0403 14:29:40.783109 17035 net.cpp:141] Setting up relu6
I0403 14:29:40.783136 17035 net.cpp:148] Top shape: 100 4096 (409600)
I0403 14:29:40.783151 17035 net.cpp:156] Memory required for data: 824972400
I0403 14:29:40.783166 17035 layer_factory.hpp:77] Creating layer drop6
I0403 14:29:40.783185 17035 net.cpp:91] Creating Layer drop6
I0403 14:29:40.783198 17035 net.cpp:425] drop6 <- fc6
I0403 14:29:40.783215 17035 net.cpp:386] drop6 -> fc6 (in-place)
I0403 14:29:40.783267 17035 net.cpp:141] Setting up drop6
I0403 14:29:40.783289 17035 net.cpp:148] Top shape: 100 4096 (409600)
I0403 14:29:40.783303 17035 net.cpp:156] Memory required for data: 826610800
I0403 14:29:40.783318 17035 layer_factory.hpp:77] Creating layer fc7
I0403 14:29:40.783339 17035 net.cpp:91] Creating Layer fc7
I0403 14:29:40.783355 17035 net.cpp:425] fc7 <- fc6
I0403 14:29:40.783372 17035 net.cpp:399] fc7 -> fc7
I0403 14:29:41.473482 17035 net.cpp:141] Setting up fc7
I0403 14:29:41.473572 17035 net.cpp:148] Top shape: 100 4096 (409600)
I0403 14:29:41.473588 17035 net.cpp:156] Memory required for data: 828249200
I0403 14:29:41.473609 17035 layer_factory.hpp:77] Creating layer relu7
I0403 14:29:41.473631 17035 net.cpp:91] Creating Layer relu7
I0403 14:29:41.473649 17035 net.cpp:425] relu7 <- fc7
I0403 14:29:41.473670 17035 net.cpp:386] relu7 -> fc7 (in-place)
I0403 14:29:41.474074 17035 net.cpp:141] Setting up relu7
I0403 14:29:41.474102 17035 net.cpp:148] Top shape: 100 4096 (409600)
I0403 14:29:41.474150 17035 net.cpp:156] Memory required for data: 829887600
I0403 14:29:41.474167 17035 layer_factory.hpp:77] Creating layer drop7
I0403 14:29:41.474186 17035 net.cpp:91] Creating Layer drop7
I0403 14:29:41.474201 17035 net.cpp:425] drop7 <- fc7
I0403 14:29:41.474221 17035 net.cpp:386] drop7 -> fc7 (in-place)
I0403 14:29:41.474267 17035 net.cpp:141] Setting up drop7
I0403 14:29:41.474289 17035 net.cpp:148] Top shape: 100 4096 (409600)
I0403 14:29:41.474304 17035 net.cpp:156] Memory required for data: 831526000
I0403 14:29:41.474319 17035 layer_factory.hpp:77] Creating layer fc8_plantvillage
I0403 14:29:41.474341 17035 net.cpp:91] Creating Layer fc8_plantvillage
I0403 14:29:41.474356 17035 net.cpp:425] fc8_plantvillage <- fc7
I0403 14:29:41.474378 17035 net.cpp:399] fc8_plantvillage -> fc8_plantvillage
I0403 14:29:41.481165 17035 net.cpp:141] Setting up fc8_plantvillage
I0403 14:29:41.481194 17035 net.cpp:148] Top shape: 100 38 (3800)
I0403 14:29:41.481209 17035 net.cpp:156] Memory required for data: 831541200
I0403 14:29:41.481227 17035 layer_factory.hpp:77] Creating layer fc8_plantvillage_fc8_plantvillage_0_split
I0403 14:29:41.481246 17035 net.cpp:91] Creating Layer fc8_plantvillage_fc8_plantvillage_0_split
I0403 14:29:41.481262 17035 net.cpp:425] fc8_plantvillage_fc8_plantvillage_0_split <- fc8_plantvillage
I0403 14:29:41.481281 17035 net.cpp:399] fc8_plantvillage_fc8_plantvillage_0_split -> fc8_plantvillage_fc8_plantvillage_0_split_0
I0403 14:29:41.481302 17035 net.cpp:399] fc8_plantvillage_fc8_plantvillage_0_split -> fc8_plantvillage_fc8_plantvillage_0_split_1
I0403 14:29:41.481322 17035 net.cpp:399] fc8_plantvillage_fc8_plantvillage_0_split -> fc8_plantvillage_fc8_plantvillage_0_split_2
I0403 14:29:41.481400 17035 net.cpp:141] Setting up fc8_plantvillage_fc8_plantvillage_0_split
I0403 14:29:41.481423 17035 net.cpp:148] Top shape: 100 38 (3800)
I0403 14:29:41.481439 17035 net.cpp:148] Top shape: 100 38 (3800)
I0403 14:29:41.481456 17035 net.cpp:148] Top shape: 100 38 (3800)
I0403 14:29:41.481469 17035 net.cpp:156] Memory required for data: 831586800
I0403 14:29:41.481483 17035 layer_factory.hpp:77] Creating layer prob
I0403 14:29:41.481503 17035 net.cpp:91] Creating Layer prob
I0403 14:29:41.481518 17035 net.cpp:425] prob <- fc8_plantvillage_fc8_plantvillage_0_split_0
I0403 14:29:41.481539 17035 net.cpp:399] prob -> prob
I0403 14:29:41.481762 17035 net.cpp:141] Setting up prob
I0403 14:29:41.481791 17035 net.cpp:148] Top shape: 100 38 (3800)
I0403 14:29:41.481807 17035 net.cpp:156] Memory required for data: 831602000
I0403 14:29:41.481822 17035 layer_factory.hpp:77] Creating layer hdf5out
I0403 14:29:41.481840 17035 net.cpp:91] Creating Layer hdf5out
I0403 14:29:41.481856 17035 net.cpp:425] hdf5out <- prob
I0403 14:29:41.481873 17035 net.cpp:425] hdf5out <- label_data_1_split_0
I0403 14:29:41.484086 17035 net.cpp:141] Setting up hdf5out
…
