…
I0403 14:46:01.725239 17513 net.cpp:313] The NetState phase (1) differed from the phase (0) specified by a rule in layer data
I0403 14:46:01.725560 17513 net.cpp:49] Initializing net from parameters: 
state {
  phase: TEST
}
layer {
  name: "data"
  type: "Data"
  top: "data"
  top: "label"
  include {
    phase: TEST
  }
  transform_param {
    crop_size: 227
    mean_file: "/home/mohanty/data/final_dataset/lmdb/grayscale-40-60/mean.binaryproto"
  }
  data_param {
    source: "/home/mohanty/data/final_dataset/lmdb/grayscale-40-60/test_db"
    batch_size: 100
    backend: LMDB
  }
}
layer {
  name: "conv1"
  type: "Convolution"
  bottom: "data"
  top: "conv1"
  param {
    lr_mult: 1
    decay_mult: 1
  }
  param {
    lr_mult: 2
    decay_mult: 0
  }
  convolution_param {
    num_output: 96
    kernel_size: 11
    stride: 4
    weight_filler {
      type: "gaussian"
      std: 0.01
    }
    bias_filler {
      type: "constant"
      value: 0
    }
  }
}
layer {
  name: "relu1"
  type: "ReLU"
  bottom: "conv1"
  top: "conv1"
}
layer {
  name: "norm1"
  type: "LRN"
  bottom: "conv1"
  top: "norm1"
  lrn_param {
    local_size: 5
    alpha: 0.0001
    beta: 0.75
  }
}
layer {
  name: "pool1"
  type: "Pooling"
  bottom: "norm1"
  top: "pool1"
  pooling_param {
    pool: MAX
    kernel_size: 3
    stride: 2
  }
}
layer {
  name: "conv2"
  type: "Convolution"
  bottom: "pool1"
  top: "conv2"
  param {
    lr_mult: 1
    decay_mult: 1
  }
  param {
    lr_mult: 2
    decay_mult: 0
  }
  convolution_param {
    num_output: 256
    pad: 2
    kernel_size: 5
    group: 2
    weight_filler {
      type: "gaussian"
      std: 0.01
    }
    bias_filler {
      type: "constant"
      value: 0.1
    }
  }
}
layer {
  name: "relu2"
  type: "ReLU"
  bottom: "conv2"
  top: "conv2"
}
layer {
  name: "norm2"
  type: "LRN"
  bottom: "conv2"
  top: "norm2"
  lrn_param {
    local_size: 5
    alpha: 0.0001
    beta: 0.75
  }
}
layer {
  name: "pool2"
  type: "Pooling"
  bottom: "norm2"
  top: "pool2"
  pooling_param {
    pool: MAX
    kernel_size: 3
    stride: 2
  }
}
layer {
  name: "conv3"
  type: "Convolution"
  bottom: "pool2"
  top: "conv3"
  param {
    lr_mult: 1
    decay_mult: 1
  }
  param {
    lr_mult: 2
    decay_mult: 0
  }
  convolution_param {
    num_output: 384
    pad: 1
    kernel_size: 3
    weight_filler {
      type: "gaussian"
      std: 0.01
    }
    bias_filler {
      type: "constant"
      value: 0
    }
  }
}
layer {
  name: "relu3"
  type: "ReLU"
  bottom: "conv3"
  top: "conv3"
}
layer {
  name: "conv4"
  type: "Convolution"
  bottom: "conv3"
  top: "conv4"
  param {
    lr_mult: 1
    decay_mult: 1
  }
  param {
    lr_mult: 2
    decay_mult: 0
  }
  convolution_param {
    num_output: 384
    pad: 1
    kernel_size: 3
    group: 2
    weight_filler {
      type: "gaussian"
      std: 0.01
    }
    bias_filler {
      type: "constant"
      value: 0.1
    }
  }
}
layer {
  name: "relu4"
  type: "ReLU"
  bottom: "conv4"
  top: "conv4"
}
layer {
  name: "conv5"
  type: "Convolution"
  bottom: "conv4"
  top: "conv5"
  param {
    lr_mult: 1
    decay_mult: 1
  }
  param {
    lr_mult: 2
    decay_mult: 0
  }
  convolution_param {
    num_output: 256
    pad: 1
    kernel_size: 3
    group: 2
    weight_filler {
      type: "gaussian"
      std: 0.01
    }
    bias_filler {
      type: "constant"
      value: 0.1
    }
  }
}
layer {
  name: "relu5"
  type: "ReLU"
  bottom: "conv5"
  top: "conv5"
}
layer {
  name: "pool5"
  type: "Pooling"
  bottom: "conv5"
  top: "pool5"
  pooling_param {
    pool: MAX
    kernel_size: 3
    stride: 2
  }
}
layer {
  name: "fc6"
  type: "InnerProduct"
  bottom: "pool5"
  top: "fc6"
  param {
    lr_mult: 1
    decay_mult: 1
  }
  param {
    lr_mult: 2
    decay_mult: 0
  }
  inner_product_param {
    num_output: 4096
    weight_filler {
      type: "gaussian"
      std: 0.005
    }
    bias_filler {
      type: "constant"
      value: 0.1
    }
  }
}
layer {
  name: "relu6"
  type: "ReLU"
  bottom: "fc6"
  top: "fc6"
}
layer {
  name: "drop6"
  type: "Dropout"
  bottom: "fc6"
  top: "fc6"
  dropout_param {
    dropout_ratio: 0.5
  }
}
layer {
  name: "fc7"
  type: "InnerProduct"
  bottom: "fc6"
  top: "fc7"
  param {
    lr_mult: 1
    decay_mult: 1
  }
  param {
    lr_mult: 2
    decay_mult: 0
  }
  inner_product_param {
    num_output: 4096
    weight_filler {
      type: "gaussian"
      std: 0.005
    }
    bias_filler {
      type: "constant"
      value: 0.1
    }
  }
}
layer {
  name: "relu7"
  type: "ReLU"
  bottom: "fc7"
  top: "fc7"
}
layer {
  name: "drop7"
  type: "Dropout"
  bottom: "fc7"
  top: "fc7"
  dropout_param {
    dropout_ratio: 0.5
  }
}
layer {
  name: "fc8_plantvillage"
  type: "InnerProduct"
  bottom: "fc7"
  top: "fc8_plantvillage"
  param {
    lr_mult: 1
    decay_mult: 1
  }
  param {
    lr_mult: 2
    decay_mult: 0
  }
  inner_product_param {
    num_output: 38
    weight_filler {
      type: "gaussian"
      std: 0.01
    }
    bias_filler {
      type: "constant"
      value: 0
    }
  }
}
layer {
  name: "prob"
  type: "Softmax"
  bottom: "fc8_plantvillage"
  top: "prob"
  include {
    phase: TEST
  }
}
layer {
  name: "hdf5out"
  type: "HDF5Output"
  bottom: "prob"
  bottom: "label"
  include {
    phase: TEST
  }
  hdf5_output_param {
    file_name: "hdf5_dumps/iter_4161.h5"
  }
}
layer {
  name: "loss"
  type: "SoftmaxWithLoss"
  bottom: "fc8_plantvillage"
  bottom: "label"
  top: "loss"
}
layer {
  name: "accuracy"
  type: "Accuracy"
  bottom: "fc8_plantvillage"
  bottom: "label"
  top: "accuracy"
  include {
    phase: TEST
  }
}
I0403 14:46:01.726227 17513 layer_factory.hpp:77] Creating layer data
I0403 14:46:01.726891 17513 net.cpp:91] Creating Layer data
I0403 14:46:01.726925 17513 net.cpp:399] data -> data
I0403 14:46:01.726977 17513 net.cpp:399] data -> label
I0403 14:46:01.727015 17513 data_transformer.cpp:25] Loading mean file from: /home/mohanty/data/final_dataset/lmdb/grayscale-40-60/mean.binaryproto
I0403 14:46:01.729856 17516 db_lmdb.cpp:38] Opened lmdb /home/mohanty/data/final_dataset/lmdb/grayscale-40-60/test_db
I0403 14:46:01.741739 17513 data_layer.cpp:41] output data size: 100,3,227,227
I0403 14:46:01.862139 17513 net.cpp:141] Setting up data
I0403 14:46:01.862247 17513 net.cpp:148] Top shape: 100 3 227 227 (15458700)
I0403 14:46:01.862272 17513 net.cpp:148] Top shape: 100 (100)
I0403 14:46:01.862287 17513 net.cpp:156] Memory required for data: 61835200
I0403 14:46:01.862315 17513 layer_factory.hpp:77] Creating layer label_data_1_split
I0403 14:46:01.862339 17513 net.cpp:91] Creating Layer label_data_1_split
I0403 14:46:01.862357 17513 net.cpp:425] label_data_1_split <- label
I0403 14:46:01.862390 17513 net.cpp:399] label_data_1_split -> label_data_1_split_0
I0403 14:46:01.862418 17513 net.cpp:399] label_data_1_split -> label_data_1_split_1
I0403 14:46:01.862439 17513 net.cpp:399] label_data_1_split -> label_data_1_split_2
I0403 14:46:01.862501 17513 net.cpp:141] Setting up label_data_1_split
I0403 14:46:01.862524 17513 net.cpp:148] Top shape: 100 (100)
I0403 14:46:01.862541 17513 net.cpp:148] Top shape: 100 (100)
I0403 14:46:01.862556 17513 net.cpp:148] Top shape: 100 (100)
I0403 14:46:01.862571 17513 net.cpp:156] Memory required for data: 61836400
I0403 14:46:01.862586 17513 layer_factory.hpp:77] Creating layer conv1
I0403 14:46:01.862617 17513 net.cpp:91] Creating Layer conv1
I0403 14:46:01.862634 17513 net.cpp:425] conv1 <- data
I0403 14:46:01.862654 17513 net.cpp:399] conv1 -> conv1
I0403 14:46:02.002514 17513 net.cpp:141] Setting up conv1
I0403 14:46:02.002604 17513 net.cpp:148] Top shape: 100 96 55 55 (29040000)
I0403 14:46:02.002622 17513 net.cpp:156] Memory required for data: 177996400
I0403 14:46:02.002655 17513 layer_factory.hpp:77] Creating layer relu1
I0403 14:46:02.002696 17513 net.cpp:91] Creating Layer relu1
I0403 14:46:02.002714 17513 net.cpp:425] relu1 <- conv1
I0403 14:46:02.002733 17513 net.cpp:386] relu1 -> conv1 (in-place)
I0403 14:46:02.003005 17513 net.cpp:141] Setting up relu1
I0403 14:46:02.003036 17513 net.cpp:148] Top shape: 100 96 55 55 (29040000)
I0403 14:46:02.003082 17513 net.cpp:156] Memory required for data: 294156400
I0403 14:46:02.003098 17513 layer_factory.hpp:77] Creating layer norm1
I0403 14:46:02.003125 17513 net.cpp:91] Creating Layer norm1
I0403 14:46:02.003144 17513 net.cpp:425] norm1 <- conv1
I0403 14:46:02.003162 17513 net.cpp:399] norm1 -> norm1
I0403 14:46:02.003471 17513 net.cpp:141] Setting up norm1
I0403 14:46:02.003499 17513 net.cpp:148] Top shape: 100 96 55 55 (29040000)
I0403 14:46:02.003515 17513 net.cpp:156] Memory required for data: 410316400
I0403 14:46:02.003530 17513 layer_factory.hpp:77] Creating layer pool1
I0403 14:46:02.003553 17513 net.cpp:91] Creating Layer pool1
I0403 14:46:02.003571 17513 net.cpp:425] pool1 <- norm1
I0403 14:46:02.003588 17513 net.cpp:399] pool1 -> pool1
I0403 14:46:02.003656 17513 net.cpp:141] Setting up pool1
I0403 14:46:02.003680 17513 net.cpp:148] Top shape: 100 96 27 27 (6998400)
I0403 14:46:02.003696 17513 net.cpp:156] Memory required for data: 438310000
I0403 14:46:02.003711 17513 layer_factory.hpp:77] Creating layer conv2
I0403 14:46:02.003736 17513 net.cpp:91] Creating Layer conv2
I0403 14:46:02.003753 17513 net.cpp:425] conv2 <- pool1
I0403 14:46:02.003770 17513 net.cpp:399] conv2 -> conv2
I0403 14:46:02.019076 17513 net.cpp:141] Setting up conv2
I0403 14:46:02.019137 17513 net.cpp:148] Top shape: 100 256 27 27 (18662400)
I0403 14:46:02.019155 17513 net.cpp:156] Memory required for data: 512959600
I0403 14:46:02.019177 17513 layer_factory.hpp:77] Creating layer relu2
I0403 14:46:02.019198 17513 net.cpp:91] Creating Layer relu2
I0403 14:46:02.019214 17513 net.cpp:425] relu2 <- conv2
I0403 14:46:02.019232 17513 net.cpp:386] relu2 -> conv2 (in-place)
I0403 14:46:02.019502 17513 net.cpp:141] Setting up relu2
I0403 14:46:02.019529 17513 net.cpp:148] Top shape: 100 256 27 27 (18662400)
I0403 14:46:02.019546 17513 net.cpp:156] Memory required for data: 587609200
I0403 14:46:02.019561 17513 layer_factory.hpp:77] Creating layer norm2
I0403 14:46:02.019582 17513 net.cpp:91] Creating Layer norm2
I0403 14:46:02.019598 17513 net.cpp:425] norm2 <- conv2
I0403 14:46:02.019616 17513 net.cpp:399] norm2 -> norm2
I0403 14:46:02.019804 17513 net.cpp:141] Setting up norm2
I0403 14:46:02.019830 17513 net.cpp:148] Top shape: 100 256 27 27 (18662400)
I0403 14:46:02.019845 17513 net.cpp:156] Memory required for data: 662258800
I0403 14:46:02.019860 17513 layer_factory.hpp:77] Creating layer pool2
I0403 14:46:02.019879 17513 net.cpp:91] Creating Layer pool2
I0403 14:46:02.019896 17513 net.cpp:425] pool2 <- norm2
I0403 14:46:02.019914 17513 net.cpp:399] pool2 -> pool2
I0403 14:46:02.019963 17513 net.cpp:141] Setting up pool2
I0403 14:46:02.019987 17513 net.cpp:148] Top shape: 100 256 13 13 (4326400)
I0403 14:46:02.020001 17513 net.cpp:156] Memory required for data: 679564400
I0403 14:46:02.020020 17513 layer_factory.hpp:77] Creating layer conv3
I0403 14:46:02.020045 17513 net.cpp:91] Creating Layer conv3
I0403 14:46:02.020074 17513 net.cpp:425] conv3 <- pool2
I0403 14:46:02.020093 17513 net.cpp:399] conv3 -> conv3
I0403 14:46:02.062361 17513 net.cpp:141] Setting up conv3
I0403 14:46:02.062446 17513 net.cpp:148] Top shape: 100 384 13 13 (6489600)
I0403 14:46:02.062463 17513 net.cpp:156] Memory required for data: 705522800
I0403 14:46:02.062494 17513 layer_factory.hpp:77] Creating layer relu3
I0403 14:46:02.062517 17513 net.cpp:91] Creating Layer relu3
I0403 14:46:02.062536 17513 net.cpp:425] relu3 <- conv3
I0403 14:46:02.062553 17513 net.cpp:386] relu3 -> conv3 (in-place)
I0403 14:46:02.062830 17513 net.cpp:141] Setting up relu3
I0403 14:46:02.062860 17513 net.cpp:148] Top shape: 100 384 13 13 (6489600)
I0403 14:46:02.062877 17513 net.cpp:156] Memory required for data: 731481200
I0403 14:46:02.062892 17513 layer_factory.hpp:77] Creating layer conv4
I0403 14:46:02.062918 17513 net.cpp:91] Creating Layer conv4
I0403 14:46:02.062937 17513 net.cpp:425] conv4 <- conv3
I0403 14:46:02.062958 17513 net.cpp:399] conv4 -> conv4
I0403 14:46:02.093192 17513 net.cpp:141] Setting up conv4
I0403 14:46:02.093286 17513 net.cpp:148] Top shape: 100 384 13 13 (6489600)
I0403 14:46:02.093348 17513 net.cpp:156] Memory required for data: 757439600
I0403 14:46:02.093371 17513 layer_factory.hpp:77] Creating layer relu4
I0403 14:46:02.093396 17513 net.cpp:91] Creating Layer relu4
I0403 14:46:02.093415 17513 net.cpp:425] relu4 <- conv4
I0403 14:46:02.093435 17513 net.cpp:386] relu4 -> conv4 (in-place)
I0403 14:46:02.093731 17513 net.cpp:141] Setting up relu4
I0403 14:46:02.093758 17513 net.cpp:148] Top shape: 100 384 13 13 (6489600)
I0403 14:46:02.093773 17513 net.cpp:156] Memory required for data: 783398000
I0403 14:46:02.093789 17513 layer_factory.hpp:77] Creating layer conv5
I0403 14:46:02.093814 17513 net.cpp:91] Creating Layer conv5
I0403 14:46:02.093832 17513 net.cpp:425] conv5 <- conv4
I0403 14:46:02.093854 17513 net.cpp:399] conv5 -> conv5
I0403 14:46:02.114701 17513 net.cpp:141] Setting up conv5
I0403 14:46:02.114763 17513 net.cpp:148] Top shape: 100 256 13 13 (4326400)
I0403 14:46:02.114779 17513 net.cpp:156] Memory required for data: 800703600
I0403 14:46:02.114804 17513 layer_factory.hpp:77] Creating layer relu5
I0403 14:46:02.114830 17513 net.cpp:91] Creating Layer relu5
I0403 14:46:02.114847 17513 net.cpp:425] relu5 <- conv5
I0403 14:46:02.114879 17513 net.cpp:386] relu5 -> conv5 (in-place)
I0403 14:46:02.115175 17513 net.cpp:141] Setting up relu5
I0403 14:46:02.115203 17513 net.cpp:148] Top shape: 100 256 13 13 (4326400)
I0403 14:46:02.115218 17513 net.cpp:156] Memory required for data: 818009200
I0403 14:46:02.115233 17513 layer_factory.hpp:77] Creating layer pool5
I0403 14:46:02.115258 17513 net.cpp:91] Creating Layer pool5
I0403 14:46:02.115274 17513 net.cpp:425] pool5 <- conv5
I0403 14:46:02.115293 17513 net.cpp:399] pool5 -> pool5
I0403 14:46:02.115357 17513 net.cpp:141] Setting up pool5
I0403 14:46:02.115381 17513 net.cpp:148] Top shape: 100 256 6 6 (921600)
I0403 14:46:02.115396 17513 net.cpp:156] Memory required for data: 821695600
I0403 14:46:02.115409 17513 layer_factory.hpp:77] Creating layer fc6
I0403 14:46:02.115438 17513 net.cpp:91] Creating Layer fc6
I0403 14:46:02.115458 17513 net.cpp:425] fc6 <- pool5
I0403 14:46:02.115475 17513 net.cpp:399] fc6 -> fc6
I0403 14:46:03.709882 17513 net.cpp:141] Setting up fc6
I0403 14:46:03.709969 17513 net.cpp:148] Top shape: 100 4096 (409600)
I0403 14:46:03.709986 17513 net.cpp:156] Memory required for data: 823334000
I0403 14:46:03.710006 17513 layer_factory.hpp:77] Creating layer relu6
I0403 14:46:03.710034 17513 net.cpp:91] Creating Layer relu6
I0403 14:46:03.710052 17513 net.cpp:425] relu6 <- fc6
I0403 14:46:03.710073 17513 net.cpp:386] relu6 -> fc6 (in-place)
I0403 14:46:03.710288 17513 net.cpp:141] Setting up relu6
I0403 14:46:03.710312 17513 net.cpp:148] Top shape: 100 4096 (409600)
I0403 14:46:03.710326 17513 net.cpp:156] Memory required for data: 824972400
I0403 14:46:03.710340 17513 layer_factory.hpp:77] Creating layer drop6
I0403 14:46:03.710357 17513 net.cpp:91] Creating Layer drop6
I0403 14:46:03.710371 17513 net.cpp:425] drop6 <- fc6
I0403 14:46:03.710391 17513 net.cpp:386] drop6 -> fc6 (in-place)
I0403 14:46:03.710444 17513 net.cpp:141] Setting up drop6
I0403 14:46:03.710467 17513 net.cpp:148] Top shape: 100 4096 (409600)
I0403 14:46:03.710481 17513 net.cpp:156] Memory required for data: 826610800
I0403 14:46:03.710496 17513 layer_factory.hpp:77] Creating layer fc7
I0403 14:46:03.710515 17513 net.cpp:91] Creating Layer fc7
I0403 14:46:03.710530 17513 net.cpp:425] fc7 <- fc6
I0403 14:46:03.710552 17513 net.cpp:399] fc7 -> fc7
I0403 14:46:04.414165 17513 net.cpp:141] Setting up fc7
I0403 14:46:04.414255 17513 net.cpp:148] Top shape: 100 4096 (409600)
I0403 14:46:04.414271 17513 net.cpp:156] Memory required for data: 828249200
I0403 14:46:04.414294 17513 layer_factory.hpp:77] Creating layer relu7
I0403 14:46:04.414319 17513 net.cpp:91] Creating Layer relu7
I0403 14:46:04.414346 17513 net.cpp:425] relu7 <- fc7
I0403 14:46:04.414366 17513 net.cpp:386] relu7 -> fc7 (in-place)
I0403 14:46:04.414786 17513 net.cpp:141] Setting up relu7
I0403 14:46:04.414813 17513 net.cpp:148] Top shape: 100 4096 (409600)
I0403 14:46:04.414875 17513 net.cpp:156] Memory required for data: 829887600
I0403 14:46:04.414891 17513 layer_factory.hpp:77] Creating layer drop7
I0403 14:46:04.414912 17513 net.cpp:91] Creating Layer drop7
I0403 14:46:04.414928 17513 net.cpp:425] drop7 <- fc7
I0403 14:46:04.414947 17513 net.cpp:386] drop7 -> fc7 (in-place)
I0403 14:46:04.414989 17513 net.cpp:141] Setting up drop7
I0403 14:46:04.415019 17513 net.cpp:148] Top shape: 100 4096 (409600)
I0403 14:46:04.415036 17513 net.cpp:156] Memory required for data: 831526000
I0403 14:46:04.415050 17513 layer_factory.hpp:77] Creating layer fc8_plantvillage
I0403 14:46:04.415071 17513 net.cpp:91] Creating Layer fc8_plantvillage
I0403 14:46:04.415086 17513 net.cpp:425] fc8_plantvillage <- fc7
I0403 14:46:04.415107 17513 net.cpp:399] fc8_plantvillage -> fc8_plantvillage
I0403 14:46:04.424703 17513 net.cpp:141] Setting up fc8_plantvillage
I0403 14:46:04.424733 17513 net.cpp:148] Top shape: 100 38 (3800)
I0403 14:46:04.424749 17513 net.cpp:156] Memory required for data: 831541200
I0403 14:46:04.424767 17513 layer_factory.hpp:77] Creating layer fc8_plantvillage_fc8_plantvillage_0_split
I0403 14:46:04.424792 17513 net.cpp:91] Creating Layer fc8_plantvillage_fc8_plantvillage_0_split
I0403 14:46:04.424809 17513 net.cpp:425] fc8_plantvillage_fc8_plantvillage_0_split <- fc8_plantvillage
I0403 14:46:04.424829 17513 net.cpp:399] fc8_plantvillage_fc8_plantvillage_0_split -> fc8_plantvillage_fc8_plantvillage_0_split_0
I0403 14:46:04.424849 17513 net.cpp:399] fc8_plantvillage_fc8_plantvillage_0_split -> fc8_plantvillage_fc8_plantvillage_0_split_1
I0403 14:46:04.424868 17513 net.cpp:399] fc8_plantvillage_fc8_plantvillage_0_split -> fc8_plantvillage_fc8_plantvillage_0_split_2
I0403 14:46:04.424949 17513 net.cpp:141] Setting up fc8_plantvillage_fc8_plantvillage_0_split
I0403 14:46:04.424978 17513 net.cpp:148] Top shape: 100 38 (3800)
I0403 14:46:04.424995 17513 net.cpp:148] Top shape: 100 38 (3800)
I0403 14:46:04.425011 17513 net.cpp:148] Top shape: 100 38 (3800)
I0403 14:46:04.425030 17513 net.cpp:156] Memory required for data: 831586800
I0403 14:46:04.425048 17513 layer_factory.hpp:77] Creating layer prob
I0403 14:46:04.425066 17513 net.cpp:91] Creating Layer prob
I0403 14:46:04.425082 17513 net.cpp:425] prob <- fc8_plantvillage_fc8_plantvillage_0_split_0
I0403 14:46:04.425103 17513 net.cpp:399] prob -> prob
I0403 14:46:04.425331 17513 net.cpp:141] Setting up prob
I0403 14:46:04.425357 17513 net.cpp:148] Top shape: 100 38 (3800)
I0403 14:46:04.425372 17513 net.cpp:156] Memory required for data: 831602000
I0403 14:46:04.425387 17513 layer_factory.hpp:77] Creating layer hdf5out
I0403 14:46:04.425410 17513 net.cpp:91] Creating Layer hdf5out
I0403 14:46:04.425426 17513 net.cpp:425] hdf5out <- prob
I0403 14:46:04.425441 17513 net.cpp:425] hdf5out <- label_data_1_split_0
I0403 14:46:04.427960 17513 net.cpp:141] Setting up hdf5out
…
