…
I0403 14:57:54.760591 17893 net.cpp:313] The NetState phase (1) differed from the phase (0) specified by a rule in layer data
I0403 14:57:54.760913 17893 net.cpp:49] Initializing net from parameters: 
state {
  phase: TEST
}
layer {
  name: "data"
  type: "Data"
  top: "data"
  top: "label"
  include {
    phase: TEST
  }
  transform_param {
    crop_size: 227
    mean_file: "/home/mohanty/data/final_dataset/lmdb/grayscale-40-60/mean.binaryproto"
  }
  data_param {
    source: "/home/mohanty/data/final_dataset/lmdb/grayscale-40-60/test_db"
    batch_size: 100
    backend: LMDB
  }
}
layer {
  name: "conv1"
  type: "Convolution"
  bottom: "data"
  top: "conv1"
  param {
    lr_mult: 1
    decay_mult: 1
  }
  param {
    lr_mult: 2
    decay_mult: 0
  }
  convolution_param {
    num_output: 96
    kernel_size: 11
    stride: 4
    weight_filler {
      type: "gaussian"
      std: 0.01
    }
    bias_filler {
      type: "constant"
      value: 0
    }
  }
}
layer {
  name: "relu1"
  type: "ReLU"
  bottom: "conv1"
  top: "conv1"
}
layer {
  name: "norm1"
  type: "LRN"
  bottom: "conv1"
  top: "norm1"
  lrn_param {
    local_size: 5
    alpha: 0.0001
    beta: 0.75
  }
}
layer {
  name: "pool1"
  type: "Pooling"
  bottom: "norm1"
  top: "pool1"
  pooling_param {
    pool: MAX
    kernel_size: 3
    stride: 2
  }
}
layer {
  name: "conv2"
  type: "Convolution"
  bottom: "pool1"
  top: "conv2"
  param {
    lr_mult: 1
    decay_mult: 1
  }
  param {
    lr_mult: 2
    decay_mult: 0
  }
  convolution_param {
    num_output: 256
    pad: 2
    kernel_size: 5
    group: 2
    weight_filler {
      type: "gaussian"
      std: 0.01
    }
    bias_filler {
      type: "constant"
      value: 0.1
    }
  }
}
layer {
  name: "relu2"
  type: "ReLU"
  bottom: "conv2"
  top: "conv2"
}
layer {
  name: "norm2"
  type: "LRN"
  bottom: "conv2"
  top: "norm2"
  lrn_param {
    local_size: 5
    alpha: 0.0001
    beta: 0.75
  }
}
layer {
  name: "pool2"
  type: "Pooling"
  bottom: "norm2"
  top: "pool2"
  pooling_param {
    pool: MAX
    kernel_size: 3
    stride: 2
  }
}
layer {
  name: "conv3"
  type: "Convolution"
  bottom: "pool2"
  top: "conv3"
  param {
    lr_mult: 1
    decay_mult: 1
  }
  param {
    lr_mult: 2
    decay_mult: 0
  }
  convolution_param {
    num_output: 384
    pad: 1
    kernel_size: 3
    weight_filler {
      type: "gaussian"
      std: 0.01
    }
    bias_filler {
      type: "constant"
      value: 0
    }
  }
}
layer {
  name: "relu3"
  type: "ReLU"
  bottom: "conv3"
  top: "conv3"
}
layer {
  name: "conv4"
  type: "Convolution"
  bottom: "conv3"
  top: "conv4"
  param {
    lr_mult: 1
    decay_mult: 1
  }
  param {
    lr_mult: 2
    decay_mult: 0
  }
  convolution_param {
    num_output: 384
    pad: 1
    kernel_size: 3
    group: 2
    weight_filler {
      type: "gaussian"
      std: 0.01
    }
    bias_filler {
      type: "constant"
      value: 0.1
    }
  }
}
layer {
  name: "relu4"
  type: "ReLU"
  bottom: "conv4"
  top: "conv4"
}
layer {
  name: "conv5"
  type: "Convolution"
  bottom: "conv4"
  top: "conv5"
  param {
    lr_mult: 1
    decay_mult: 1
  }
  param {
    lr_mult: 2
    decay_mult: 0
  }
  convolution_param {
    num_output: 256
    pad: 1
    kernel_size: 3
    group: 2
    weight_filler {
      type: "gaussian"
      std: 0.01
    }
    bias_filler {
      type: "constant"
      value: 0.1
    }
  }
}
layer {
  name: "relu5"
  type: "ReLU"
  bottom: "conv5"
  top: "conv5"
}
layer {
  name: "pool5"
  type: "Pooling"
  bottom: "conv5"
  top: "pool5"
  pooling_param {
    pool: MAX
    kernel_size: 3
    stride: 2
  }
}
layer {
  name: "fc6"
  type: "InnerProduct"
  bottom: "pool5"
  top: "fc6"
  param {
    lr_mult: 1
    decay_mult: 1
  }
  param {
    lr_mult: 2
    decay_mult: 0
  }
  inner_product_param {
    num_output: 4096
    weight_filler {
      type: "gaussian"
      std: 0.005
    }
    bias_filler {
      type: "constant"
      value: 0.1
    }
  }
}
layer {
  name: "relu6"
  type: "ReLU"
  bottom: "fc6"
  top: "fc6"
}
layer {
  name: "drop6"
  type: "Dropout"
  bottom: "fc6"
  top: "fc6"
  dropout_param {
    dropout_ratio: 0.5
  }
}
layer {
  name: "fc7"
  type: "InnerProduct"
  bottom: "fc6"
  top: "fc7"
  param {
    lr_mult: 1
    decay_mult: 1
  }
  param {
    lr_mult: 2
    decay_mult: 0
  }
  inner_product_param {
    num_output: 4096
    weight_filler {
      type: "gaussian"
      std: 0.005
    }
    bias_filler {
      type: "constant"
      value: 0.1
    }
  }
}
layer {
  name: "relu7"
  type: "ReLU"
  bottom: "fc7"
  top: "fc7"
}
layer {
  name: "drop7"
  type: "Dropout"
  bottom: "fc7"
  top: "fc7"
  dropout_param {
    dropout_ratio: 0.5
  }
}
layer {
  name: "fc8_plantvillage"
  type: "InnerProduct"
  bottom: "fc7"
  top: "fc8_plantvillage"
  param {
    lr_mult: 1
    decay_mult: 1
  }
  param {
    lr_mult: 2
    decay_mult: 0
  }
  inner_product_param {
    num_output: 38
    weight_filler {
      type: "gaussian"
      std: 0.01
    }
    bias_filler {
      type: "constant"
      value: 0
    }
  }
}
layer {
  name: "prob"
  type: "Softmax"
  bottom: "fc8_plantvillage"
  top: "prob"
  include {
    phase: TEST
  }
}
layer {
  name: "hdf5out"
  type: "HDF5Output"
  bottom: "prob"
  bottom: "label"
  include {
    phase: TEST
  }
  hdf5_output_param {
    file_name: "hdf5_dumps/iter_6570.h5"
  }
}
layer {
  name: "loss"
  type: "SoftmaxWithLoss"
  bottom: "fc8_plantvillage"
  bottom: "label"
  top: "loss"
}
layer {
  name: "accuracy"
  type: "Accuracy"
  bottom: "fc8_plantvillage"
  bottom: "label"
  top: "accuracy"
  include {
    phase: TEST
  }
}
I0403 14:57:54.761456 17893 layer_factory.hpp:77] Creating layer data
I0403 14:57:54.762127 17893 net.cpp:91] Creating Layer data
I0403 14:57:54.762161 17893 net.cpp:399] data -> data
I0403 14:57:54.762210 17893 net.cpp:399] data -> label
I0403 14:57:54.762248 17893 data_transformer.cpp:25] Loading mean file from: /home/mohanty/data/final_dataset/lmdb/grayscale-40-60/mean.binaryproto
I0403 14:57:54.764437 17897 db_lmdb.cpp:38] Opened lmdb /home/mohanty/data/final_dataset/lmdb/grayscale-40-60/test_db
I0403 14:57:54.777158 17893 data_layer.cpp:41] output data size: 100,3,227,227
I0403 14:57:54.899890 17893 net.cpp:141] Setting up data
I0403 14:57:54.899984 17893 net.cpp:148] Top shape: 100 3 227 227 (15458700)
I0403 14:57:54.900007 17893 net.cpp:148] Top shape: 100 (100)
I0403 14:57:54.900038 17893 net.cpp:156] Memory required for data: 61835200
I0403 14:57:54.900068 17893 layer_factory.hpp:77] Creating layer label_data_1_split
I0403 14:57:54.900094 17893 net.cpp:91] Creating Layer label_data_1_split
I0403 14:57:54.900111 17893 net.cpp:425] label_data_1_split <- label
I0403 14:57:54.900143 17893 net.cpp:399] label_data_1_split -> label_data_1_split_0
I0403 14:57:54.900171 17893 net.cpp:399] label_data_1_split -> label_data_1_split_1
I0403 14:57:54.900192 17893 net.cpp:399] label_data_1_split -> label_data_1_split_2
I0403 14:57:54.900254 17893 net.cpp:141] Setting up label_data_1_split
I0403 14:57:54.900277 17893 net.cpp:148] Top shape: 100 (100)
I0403 14:57:54.900295 17893 net.cpp:148] Top shape: 100 (100)
I0403 14:57:54.900310 17893 net.cpp:148] Top shape: 100 (100)
I0403 14:57:54.900336 17893 net.cpp:156] Memory required for data: 61836400
I0403 14:57:54.900352 17893 layer_factory.hpp:77] Creating layer conv1
I0403 14:57:54.900382 17893 net.cpp:91] Creating Layer conv1
I0403 14:57:54.900399 17893 net.cpp:425] conv1 <- data
I0403 14:57:54.900419 17893 net.cpp:399] conv1 -> conv1
I0403 14:57:55.042827 17893 net.cpp:141] Setting up conv1
I0403 14:57:55.042872 17893 net.cpp:148] Top shape: 100 96 55 55 (29040000)
I0403 14:57:55.042891 17893 net.cpp:156] Memory required for data: 177996400
I0403 14:57:55.042920 17893 layer_factory.hpp:77] Creating layer relu1
I0403 14:57:55.042948 17893 net.cpp:91] Creating Layer relu1
I0403 14:57:55.042970 17893 net.cpp:425] relu1 <- conv1
I0403 14:57:55.042990 17893 net.cpp:386] relu1 -> conv1 (in-place)
I0403 14:57:55.043267 17893 net.cpp:141] Setting up relu1
I0403 14:57:55.043294 17893 net.cpp:148] Top shape: 100 96 55 55 (29040000)
I0403 14:57:55.043344 17893 net.cpp:156] Memory required for data: 294156400
I0403 14:57:55.043360 17893 layer_factory.hpp:77] Creating layer norm1
I0403 14:57:55.043388 17893 net.cpp:91] Creating Layer norm1
I0403 14:57:55.043407 17893 net.cpp:425] norm1 <- conv1
I0403 14:57:55.043427 17893 net.cpp:399] norm1 -> norm1
I0403 14:57:55.043751 17893 net.cpp:141] Setting up norm1
I0403 14:57:55.043782 17893 net.cpp:148] Top shape: 100 96 55 55 (29040000)
I0403 14:57:55.043798 17893 net.cpp:156] Memory required for data: 410316400
I0403 14:57:55.043814 17893 layer_factory.hpp:77] Creating layer pool1
I0403 14:57:55.043838 17893 net.cpp:91] Creating Layer pool1
I0403 14:57:55.043856 17893 net.cpp:425] pool1 <- norm1
I0403 14:57:55.043875 17893 net.cpp:399] pool1 -> pool1
I0403 14:57:55.043944 17893 net.cpp:141] Setting up pool1
I0403 14:57:55.043972 17893 net.cpp:148] Top shape: 100 96 27 27 (6998400)
I0403 14:57:55.043987 17893 net.cpp:156] Memory required for data: 438310000
I0403 14:57:55.044003 17893 layer_factory.hpp:77] Creating layer conv2
I0403 14:57:55.044031 17893 net.cpp:91] Creating Layer conv2
I0403 14:57:55.044050 17893 net.cpp:425] conv2 <- pool1
I0403 14:57:55.044070 17893 net.cpp:399] conv2 -> conv2
I0403 14:57:55.059303 17893 net.cpp:141] Setting up conv2
I0403 14:57:55.059352 17893 net.cpp:148] Top shape: 100 256 27 27 (18662400)
I0403 14:57:55.059370 17893 net.cpp:156] Memory required for data: 512959600
I0403 14:57:55.059392 17893 layer_factory.hpp:77] Creating layer relu2
I0403 14:57:55.059412 17893 net.cpp:91] Creating Layer relu2
I0403 14:57:55.059440 17893 net.cpp:425] relu2 <- conv2
I0403 14:57:55.059459 17893 net.cpp:386] relu2 -> conv2 (in-place)
I0403 14:57:55.059762 17893 net.cpp:141] Setting up relu2
I0403 14:57:55.059789 17893 net.cpp:148] Top shape: 100 256 27 27 (18662400)
I0403 14:57:55.059804 17893 net.cpp:156] Memory required for data: 587609200
I0403 14:57:55.059819 17893 layer_factory.hpp:77] Creating layer norm2
I0403 14:57:55.059840 17893 net.cpp:91] Creating Layer norm2
I0403 14:57:55.059857 17893 net.cpp:425] norm2 <- conv2
I0403 14:57:55.059875 17893 net.cpp:399] norm2 -> norm2
I0403 14:57:55.060094 17893 net.cpp:141] Setting up norm2
I0403 14:57:55.060125 17893 net.cpp:148] Top shape: 100 256 27 27 (18662400)
I0403 14:57:55.060142 17893 net.cpp:156] Memory required for data: 662258800
I0403 14:57:55.060158 17893 layer_factory.hpp:77] Creating layer pool2
I0403 14:57:55.060176 17893 net.cpp:91] Creating Layer pool2
I0403 14:57:55.060191 17893 net.cpp:425] pool2 <- norm2
I0403 14:57:55.060210 17893 net.cpp:399] pool2 -> pool2
I0403 14:57:55.060264 17893 net.cpp:141] Setting up pool2
I0403 14:57:55.060288 17893 net.cpp:148] Top shape: 100 256 13 13 (4326400)
I0403 14:57:55.060303 17893 net.cpp:156] Memory required for data: 679564400
I0403 14:57:55.060331 17893 layer_factory.hpp:77] Creating layer conv3
I0403 14:57:55.060354 17893 net.cpp:91] Creating Layer conv3
I0403 14:57:55.060371 17893 net.cpp:425] conv3 <- pool2
I0403 14:57:55.060392 17893 net.cpp:399] conv3 -> conv3
I0403 14:57:55.100647 17893 net.cpp:141] Setting up conv3
I0403 14:57:55.100714 17893 net.cpp:148] Top shape: 100 384 13 13 (6489600)
I0403 14:57:55.100733 17893 net.cpp:156] Memory required for data: 705522800
I0403 14:57:55.100757 17893 layer_factory.hpp:77] Creating layer relu3
I0403 14:57:55.100780 17893 net.cpp:91] Creating Layer relu3
I0403 14:57:55.100798 17893 net.cpp:425] relu3 <- conv3
I0403 14:57:55.100821 17893 net.cpp:386] relu3 -> conv3 (in-place)
I0403 14:57:55.101106 17893 net.cpp:141] Setting up relu3
I0403 14:57:55.101140 17893 net.cpp:148] Top shape: 100 384 13 13 (6489600)
I0403 14:57:55.101157 17893 net.cpp:156] Memory required for data: 731481200
I0403 14:57:55.101172 17893 layer_factory.hpp:77] Creating layer conv4
I0403 14:57:55.101199 17893 net.cpp:91] Creating Layer conv4
I0403 14:57:55.101219 17893 net.cpp:425] conv4 <- conv3
I0403 14:57:55.101240 17893 net.cpp:399] conv4 -> conv4
I0403 14:57:55.132169 17893 net.cpp:141] Setting up conv4
I0403 14:57:55.132210 17893 net.cpp:148] Top shape: 100 384 13 13 (6489600)
I0403 14:57:55.132259 17893 net.cpp:156] Memory required for data: 757439600
I0403 14:57:55.132282 17893 layer_factory.hpp:77] Creating layer relu4
I0403 14:57:55.132308 17893 net.cpp:91] Creating Layer relu4
I0403 14:57:55.132328 17893 net.cpp:425] relu4 <- conv4
I0403 14:57:55.132349 17893 net.cpp:386] relu4 -> conv4 (in-place)
I0403 14:57:55.132647 17893 net.cpp:141] Setting up relu4
I0403 14:57:55.132674 17893 net.cpp:148] Top shape: 100 384 13 13 (6489600)
I0403 14:57:55.132690 17893 net.cpp:156] Memory required for data: 783398000
I0403 14:57:55.132706 17893 layer_factory.hpp:77] Creating layer conv5
I0403 14:57:55.132736 17893 net.cpp:91] Creating Layer conv5
I0403 14:57:55.132757 17893 net.cpp:425] conv5 <- conv4
I0403 14:57:55.132781 17893 net.cpp:399] conv5 -> conv5
I0403 14:57:55.153642 17893 net.cpp:141] Setting up conv5
I0403 14:57:55.153689 17893 net.cpp:148] Top shape: 100 256 13 13 (4326400)
I0403 14:57:55.153707 17893 net.cpp:156] Memory required for data: 800703600
I0403 14:57:55.153730 17893 layer_factory.hpp:77] Creating layer relu5
I0403 14:57:55.153750 17893 net.cpp:91] Creating Layer relu5
I0403 14:57:55.153766 17893 net.cpp:425] relu5 <- conv5
I0403 14:57:55.153784 17893 net.cpp:386] relu5 -> conv5 (in-place)
I0403 14:57:55.154088 17893 net.cpp:141] Setting up relu5
I0403 14:57:55.154116 17893 net.cpp:148] Top shape: 100 256 13 13 (4326400)
I0403 14:57:55.154131 17893 net.cpp:156] Memory required for data: 818009200
I0403 14:57:55.154146 17893 layer_factory.hpp:77] Creating layer pool5
I0403 14:57:55.154168 17893 net.cpp:91] Creating Layer pool5
I0403 14:57:55.154186 17893 net.cpp:425] pool5 <- conv5
I0403 14:57:55.154207 17893 net.cpp:399] pool5 -> pool5
I0403 14:57:55.154270 17893 net.cpp:141] Setting up pool5
I0403 14:57:55.154294 17893 net.cpp:148] Top shape: 100 256 6 6 (921600)
I0403 14:57:55.154309 17893 net.cpp:156] Memory required for data: 821695600
I0403 14:57:55.154325 17893 layer_factory.hpp:77] Creating layer fc6
I0403 14:57:55.154353 17893 net.cpp:91] Creating Layer fc6
I0403 14:57:55.154372 17893 net.cpp:425] fc6 <- pool5
I0403 14:57:55.154393 17893 net.cpp:399] fc6 -> fc6
I0403 14:57:56.877676 17893 net.cpp:141] Setting up fc6
I0403 14:57:56.877763 17893 net.cpp:148] Top shape: 100 4096 (409600)
I0403 14:57:56.877779 17893 net.cpp:156] Memory required for data: 823334000
I0403 14:57:56.877799 17893 layer_factory.hpp:77] Creating layer relu6
I0403 14:57:56.877825 17893 net.cpp:91] Creating Layer relu6
I0403 14:57:56.877842 17893 net.cpp:425] relu6 <- fc6
I0403 14:57:56.877862 17893 net.cpp:386] relu6 -> fc6 (in-place)
I0403 14:57:56.878082 17893 net.cpp:141] Setting up relu6
I0403 14:57:56.878110 17893 net.cpp:148] Top shape: 100 4096 (409600)
I0403 14:57:56.878125 17893 net.cpp:156] Memory required for data: 824972400
I0403 14:57:56.878140 17893 layer_factory.hpp:77] Creating layer drop6
I0403 14:57:56.878159 17893 net.cpp:91] Creating Layer drop6
I0403 14:57:56.878175 17893 net.cpp:425] drop6 <- fc6
I0403 14:57:56.878192 17893 net.cpp:386] drop6 -> fc6 (in-place)
I0403 14:57:56.878247 17893 net.cpp:141] Setting up drop6
I0403 14:57:56.878268 17893 net.cpp:148] Top shape: 100 4096 (409600)
I0403 14:57:56.878283 17893 net.cpp:156] Memory required for data: 826610800
I0403 14:57:56.878298 17893 layer_factory.hpp:77] Creating layer fc7
I0403 14:57:56.878319 17893 net.cpp:91] Creating Layer fc7
I0403 14:57:56.878335 17893 net.cpp:425] fc7 <- fc6
I0403 14:57:56.878353 17893 net.cpp:399] fc7 -> fc7
I0403 14:57:57.638041 17893 net.cpp:141] Setting up fc7
I0403 14:57:57.638100 17893 net.cpp:148] Top shape: 100 4096 (409600)
I0403 14:57:57.638115 17893 net.cpp:156] Memory required for data: 828249200
I0403 14:57:57.638135 17893 layer_factory.hpp:77] Creating layer relu7
I0403 14:57:57.638159 17893 net.cpp:91] Creating Layer relu7
I0403 14:57:57.638176 17893 net.cpp:425] relu7 <- fc7
I0403 14:57:57.638195 17893 net.cpp:386] relu7 -> fc7 (in-place)
I0403 14:57:57.638591 17893 net.cpp:141] Setting up relu7
I0403 14:57:57.638617 17893 net.cpp:148] Top shape: 100 4096 (409600)
I0403 14:57:57.638664 17893 net.cpp:156] Memory required for data: 829887600
I0403 14:57:57.638679 17893 layer_factory.hpp:77] Creating layer drop7
I0403 14:57:57.638710 17893 net.cpp:91] Creating Layer drop7
I0403 14:57:57.638725 17893 net.cpp:425] drop7 <- fc7
I0403 14:57:57.638744 17893 net.cpp:386] drop7 -> fc7 (in-place)
I0403 14:57:57.638787 17893 net.cpp:141] Setting up drop7
I0403 14:57:57.638809 17893 net.cpp:148] Top shape: 100 4096 (409600)
I0403 14:57:57.638824 17893 net.cpp:156] Memory required for data: 831526000
I0403 14:57:57.638839 17893 layer_factory.hpp:77] Creating layer fc8_plantvillage
I0403 14:57:57.638861 17893 net.cpp:91] Creating Layer fc8_plantvillage
I0403 14:57:57.638878 17893 net.cpp:425] fc8_plantvillage <- fc7
I0403 14:57:57.638900 17893 net.cpp:399] fc8_plantvillage -> fc8_plantvillage
I0403 14:57:57.646340 17893 net.cpp:141] Setting up fc8_plantvillage
I0403 14:57:57.646368 17893 net.cpp:148] Top shape: 100 38 (3800)
I0403 14:57:57.646384 17893 net.cpp:156] Memory required for data: 831541200
I0403 14:57:57.646401 17893 layer_factory.hpp:77] Creating layer fc8_plantvillage_fc8_plantvillage_0_split
I0403 14:57:57.646420 17893 net.cpp:91] Creating Layer fc8_plantvillage_fc8_plantvillage_0_split
I0403 14:57:57.646435 17893 net.cpp:425] fc8_plantvillage_fc8_plantvillage_0_split <- fc8_plantvillage
I0403 14:57:57.646457 17893 net.cpp:399] fc8_plantvillage_fc8_plantvillage_0_split -> fc8_plantvillage_fc8_plantvillage_0_split_0
I0403 14:57:57.646479 17893 net.cpp:399] fc8_plantvillage_fc8_plantvillage_0_split -> fc8_plantvillage_fc8_plantvillage_0_split_1
I0403 14:57:57.646499 17893 net.cpp:399] fc8_plantvillage_fc8_plantvillage_0_split -> fc8_plantvillage_fc8_plantvillage_0_split_2
I0403 14:57:57.646574 17893 net.cpp:141] Setting up fc8_plantvillage_fc8_plantvillage_0_split
I0403 14:57:57.646598 17893 net.cpp:148] Top shape: 100 38 (3800)
I0403 14:57:57.646615 17893 net.cpp:148] Top shape: 100 38 (3800)
I0403 14:57:57.646631 17893 net.cpp:148] Top shape: 100 38 (3800)
I0403 14:57:57.646644 17893 net.cpp:156] Memory required for data: 831586800
I0403 14:57:57.646658 17893 layer_factory.hpp:77] Creating layer prob
I0403 14:57:57.646677 17893 net.cpp:91] Creating Layer prob
I0403 14:57:57.646692 17893 net.cpp:425] prob <- fc8_plantvillage_fc8_plantvillage_0_split_0
I0403 14:57:57.646710 17893 net.cpp:399] prob -> prob
I0403 14:57:57.646936 17893 net.cpp:141] Setting up prob
I0403 14:57:57.646965 17893 net.cpp:148] Top shape: 100 38 (3800)
I0403 14:57:57.646981 17893 net.cpp:156] Memory required for data: 831602000
I0403 14:57:57.646996 17893 layer_factory.hpp:77] Creating layer hdf5out
I0403 14:57:57.647014 17893 net.cpp:91] Creating Layer hdf5out
I0403 14:57:57.647035 17893 net.cpp:425] hdf5out <- prob
I0403 14:57:57.647052 17893 net.cpp:425] hdf5out <- label_data_1_split_0
I0403 14:57:57.649380 17893 net.cpp:141] Setting up hdf5out
…
