…
I0403 14:54:40.508779 17833 net.cpp:313] The NetState phase (1) differed from the phase (0) specified by a rule in layer data
I0403 14:54:40.509114 17833 net.cpp:49] Initializing net from parameters: 
state {
  phase: TEST
}
layer {
  name: "data"
  type: "Data"
  top: "data"
  top: "label"
  include {
    phase: TEST
  }
  transform_param {
    crop_size: 227
    mean_file: "/home/mohanty/data/final_dataset/lmdb/grayscale-40-60/mean.binaryproto"
  }
  data_param {
    source: "/home/mohanty/data/final_dataset/lmdb/grayscale-40-60/test_db"
    batch_size: 100
    backend: LMDB
  }
}
layer {
  name: "conv1"
  type: "Convolution"
  bottom: "data"
  top: "conv1"
  param {
    lr_mult: 1
    decay_mult: 1
  }
  param {
    lr_mult: 2
    decay_mult: 0
  }
  convolution_param {
    num_output: 96
    kernel_size: 11
    stride: 4
    weight_filler {
      type: "gaussian"
      std: 0.01
    }
    bias_filler {
      type: "constant"
      value: 0
    }
  }
}
layer {
  name: "relu1"
  type: "ReLU"
  bottom: "conv1"
  top: "conv1"
}
layer {
  name: "norm1"
  type: "LRN"
  bottom: "conv1"
  top: "norm1"
  lrn_param {
    local_size: 5
    alpha: 0.0001
    beta: 0.75
  }
}
layer {
  name: "pool1"
  type: "Pooling"
  bottom: "norm1"
  top: "pool1"
  pooling_param {
    pool: MAX
    kernel_size: 3
    stride: 2
  }
}
layer {
  name: "conv2"
  type: "Convolution"
  bottom: "pool1"
  top: "conv2"
  param {
    lr_mult: 1
    decay_mult: 1
  }
  param {
    lr_mult: 2
    decay_mult: 0
  }
  convolution_param {
    num_output: 256
    pad: 2
    kernel_size: 5
    group: 2
    weight_filler {
      type: "gaussian"
      std: 0.01
    }
    bias_filler {
      type: "constant"
      value: 0.1
    }
  }
}
layer {
  name: "relu2"
  type: "ReLU"
  bottom: "conv2"
  top: "conv2"
}
layer {
  name: "norm2"
  type: "LRN"
  bottom: "conv2"
  top: "norm2"
  lrn_param {
    local_size: 5
    alpha: 0.0001
    beta: 0.75
  }
}
layer {
  name: "pool2"
  type: "Pooling"
  bottom: "norm2"
  top: "pool2"
  pooling_param {
    pool: MAX
    kernel_size: 3
    stride: 2
  }
}
layer {
  name: "conv3"
  type: "Convolution"
  bottom: "pool2"
  top: "conv3"
  param {
    lr_mult: 1
    decay_mult: 1
  }
  param {
    lr_mult: 2
    decay_mult: 0
  }
  convolution_param {
    num_output: 384
    pad: 1
    kernel_size: 3
    weight_filler {
      type: "gaussian"
      std: 0.01
    }
    bias_filler {
      type: "constant"
      value: 0
    }
  }
}
layer {
  name: "relu3"
  type: "ReLU"
  bottom: "conv3"
  top: "conv3"
}
layer {
  name: "conv4"
  type: "Convolution"
  bottom: "conv3"
  top: "conv4"
  param {
    lr_mult: 1
    decay_mult: 1
  }
  param {
    lr_mult: 2
    decay_mult: 0
  }
  convolution_param {
    num_output: 384
    pad: 1
    kernel_size: 3
    group: 2
    weight_filler {
      type: "gaussian"
      std: 0.01
    }
    bias_filler {
      type: "constant"
      value: 0.1
    }
  }
}
layer {
  name: "relu4"
  type: "ReLU"
  bottom: "conv4"
  top: "conv4"
}
layer {
  name: "conv5"
  type: "Convolution"
  bottom: "conv4"
  top: "conv5"
  param {
    lr_mult: 1
    decay_mult: 1
  }
  param {
    lr_mult: 2
    decay_mult: 0
  }
  convolution_param {
    num_output: 256
    pad: 1
    kernel_size: 3
    group: 2
    weight_filler {
      type: "gaussian"
      std: 0.01
    }
    bias_filler {
      type: "constant"
      value: 0.1
    }
  }
}
layer {
  name: "relu5"
  type: "ReLU"
  bottom: "conv5"
  top: "conv5"
}
layer {
  name: "pool5"
  type: "Pooling"
  bottom: "conv5"
  top: "pool5"
  pooling_param {
    pool: MAX
    kernel_size: 3
    stride: 2
  }
}
layer {
  name: "fc6"
  type: "InnerProduct"
  bottom: "pool5"
  top: "fc6"
  param {
    lr_mult: 1
    decay_mult: 1
  }
  param {
    lr_mult: 2
    decay_mult: 0
  }
  inner_product_param {
    num_output: 4096
    weight_filler {
      type: "gaussian"
      std: 0.005
    }
    bias_filler {
      type: "constant"
      value: 0.1
    }
  }
}
layer {
  name: "relu6"
  type: "ReLU"
  bottom: "fc6"
  top: "fc6"
}
layer {
  name: "drop6"
  type: "Dropout"
  bottom: "fc6"
  top: "fc6"
  dropout_param {
    dropout_ratio: 0.5
  }
}
layer {
  name: "fc7"
  type: "InnerProduct"
  bottom: "fc6"
  top: "fc7"
  param {
    lr_mult: 1
    decay_mult: 1
  }
  param {
    lr_mult: 2
    decay_mult: 0
  }
  inner_product_param {
    num_output: 4096
    weight_filler {
      type: "gaussian"
      std: 0.005
    }
    bias_filler {
      type: "constant"
      value: 0.1
    }
  }
}
layer {
  name: "relu7"
  type: "ReLU"
  bottom: "fc7"
  top: "fc7"
}
layer {
  name: "drop7"
  type: "Dropout"
  bottom: "fc7"
  top: "fc7"
  dropout_param {
    dropout_ratio: 0.5
  }
}
layer {
  name: "fc8_plantvillage"
  type: "InnerProduct"
  bottom: "fc7"
  top: "fc8_plantvillage"
  param {
    lr_mult: 1
    decay_mult: 1
  }
  param {
    lr_mult: 2
    decay_mult: 0
  }
  inner_product_param {
    num_output: 38
    weight_filler {
      type: "gaussian"
      std: 0.01
    }
    bias_filler {
      type: "constant"
      value: 0
    }
  }
}
layer {
  name: "prob"
  type: "Softmax"
  bottom: "fc8_plantvillage"
  top: "prob"
  include {
    phase: TEST
  }
}
layer {
  name: "hdf5out"
  type: "HDF5Output"
  bottom: "prob"
  bottom: "label"
  include {
    phase: TEST
  }
  hdf5_output_param {
    file_name: "hdf5_dumps/iter_5913.h5"
  }
}
layer {
  name: "loss"
  type: "SoftmaxWithLoss"
  bottom: "fc8_plantvillage"
  bottom: "label"
  top: "loss"
}
layer {
  name: "accuracy"
  type: "Accuracy"
  bottom: "fc8_plantvillage"
  bottom: "label"
  top: "accuracy"
  include {
    phase: TEST
  }
}
I0403 14:54:40.509707 17833 layer_factory.hpp:77] Creating layer data
I0403 14:54:40.510354 17833 net.cpp:91] Creating Layer data
I0403 14:54:40.510385 17833 net.cpp:399] data -> data
I0403 14:54:40.510433 17833 net.cpp:399] data -> label
I0403 14:54:40.510473 17833 data_transformer.cpp:25] Loading mean file from: /home/mohanty/data/final_dataset/lmdb/grayscale-40-60/mean.binaryproto
I0403 14:54:40.512902 17836 db_lmdb.cpp:38] Opened lmdb /home/mohanty/data/final_dataset/lmdb/grayscale-40-60/test_db
I0403 14:54:40.525109 17833 data_layer.cpp:41] output data size: 100,3,227,227
I0403 14:54:40.647289 17833 net.cpp:141] Setting up data
I0403 14:54:40.647348 17833 net.cpp:148] Top shape: 100 3 227 227 (15458700)
I0403 14:54:40.647372 17833 net.cpp:148] Top shape: 100 (100)
I0403 14:54:40.647388 17833 net.cpp:156] Memory required for data: 61835200
I0403 14:54:40.647418 17833 layer_factory.hpp:77] Creating layer label_data_1_split
I0403 14:54:40.647442 17833 net.cpp:91] Creating Layer label_data_1_split
I0403 14:54:40.647461 17833 net.cpp:425] label_data_1_split <- label
I0403 14:54:40.647493 17833 net.cpp:399] label_data_1_split -> label_data_1_split_0
I0403 14:54:40.647521 17833 net.cpp:399] label_data_1_split -> label_data_1_split_1
I0403 14:54:40.647542 17833 net.cpp:399] label_data_1_split -> label_data_1_split_2
I0403 14:54:40.647608 17833 net.cpp:141] Setting up label_data_1_split
I0403 14:54:40.647631 17833 net.cpp:148] Top shape: 100 (100)
I0403 14:54:40.647650 17833 net.cpp:148] Top shape: 100 (100)
I0403 14:54:40.647665 17833 net.cpp:148] Top shape: 100 (100)
I0403 14:54:40.647680 17833 net.cpp:156] Memory required for data: 61836400
I0403 14:54:40.647694 17833 layer_factory.hpp:77] Creating layer conv1
I0403 14:54:40.647727 17833 net.cpp:91] Creating Layer conv1
I0403 14:54:40.647747 17833 net.cpp:425] conv1 <- data
I0403 14:54:40.647766 17833 net.cpp:399] conv1 -> conv1
I0403 14:54:40.794757 17833 net.cpp:141] Setting up conv1
I0403 14:54:40.794849 17833 net.cpp:148] Top shape: 100 96 55 55 (29040000)
I0403 14:54:40.794867 17833 net.cpp:156] Memory required for data: 177996400
I0403 14:54:40.794899 17833 layer_factory.hpp:77] Creating layer relu1
I0403 14:54:40.794927 17833 net.cpp:91] Creating Layer relu1
I0403 14:54:40.794945 17833 net.cpp:425] relu1 <- conv1
I0403 14:54:40.794965 17833 net.cpp:386] relu1 -> conv1 (in-place)
I0403 14:54:40.795234 17833 net.cpp:141] Setting up relu1
I0403 14:54:40.795261 17833 net.cpp:148] Top shape: 100 96 55 55 (29040000)
I0403 14:54:40.795308 17833 net.cpp:156] Memory required for data: 294156400
I0403 14:54:40.795325 17833 layer_factory.hpp:77] Creating layer norm1
I0403 14:54:40.795352 17833 net.cpp:91] Creating Layer norm1
I0403 14:54:40.795370 17833 net.cpp:425] norm1 <- conv1
I0403 14:54:40.795389 17833 net.cpp:399] norm1 -> norm1
I0403 14:54:40.795697 17833 net.cpp:141] Setting up norm1
I0403 14:54:40.795725 17833 net.cpp:148] Top shape: 100 96 55 55 (29040000)
I0403 14:54:40.795742 17833 net.cpp:156] Memory required for data: 410316400
I0403 14:54:40.795758 17833 layer_factory.hpp:77] Creating layer pool1
I0403 14:54:40.795780 17833 net.cpp:91] Creating Layer pool1
I0403 14:54:40.795797 17833 net.cpp:425] pool1 <- norm1
I0403 14:54:40.795814 17833 net.cpp:399] pool1 -> pool1
I0403 14:54:40.795881 17833 net.cpp:141] Setting up pool1
I0403 14:54:40.795905 17833 net.cpp:148] Top shape: 100 96 27 27 (6998400)
I0403 14:54:40.795920 17833 net.cpp:156] Memory required for data: 438310000
I0403 14:54:40.795935 17833 layer_factory.hpp:77] Creating layer conv2
I0403 14:54:40.795959 17833 net.cpp:91] Creating Layer conv2
I0403 14:54:40.795976 17833 net.cpp:425] conv2 <- pool1
I0403 14:54:40.795994 17833 net.cpp:399] conv2 -> conv2
I0403 14:54:40.811020 17833 net.cpp:141] Setting up conv2
I0403 14:54:40.811069 17833 net.cpp:148] Top shape: 100 256 27 27 (18662400)
I0403 14:54:40.811089 17833 net.cpp:156] Memory required for data: 512959600
I0403 14:54:40.811112 17833 layer_factory.hpp:77] Creating layer relu2
I0403 14:54:40.811132 17833 net.cpp:91] Creating Layer relu2
I0403 14:54:40.811148 17833 net.cpp:425] relu2 <- conv2
I0403 14:54:40.811167 17833 net.cpp:386] relu2 -> conv2 (in-place)
I0403 14:54:40.811453 17833 net.cpp:141] Setting up relu2
I0403 14:54:40.811481 17833 net.cpp:148] Top shape: 100 256 27 27 (18662400)
I0403 14:54:40.811498 17833 net.cpp:156] Memory required for data: 587609200
I0403 14:54:40.811514 17833 layer_factory.hpp:77] Creating layer norm2
I0403 14:54:40.811538 17833 net.cpp:91] Creating Layer norm2
I0403 14:54:40.811558 17833 net.cpp:425] norm2 <- conv2
I0403 14:54:40.811576 17833 net.cpp:399] norm2 -> norm2
I0403 14:54:40.811779 17833 net.cpp:141] Setting up norm2
I0403 14:54:40.811807 17833 net.cpp:148] Top shape: 100 256 27 27 (18662400)
I0403 14:54:40.811825 17833 net.cpp:156] Memory required for data: 662258800
I0403 14:54:40.811839 17833 layer_factory.hpp:77] Creating layer pool2
I0403 14:54:40.811857 17833 net.cpp:91] Creating Layer pool2
I0403 14:54:40.811873 17833 net.cpp:425] pool2 <- norm2
I0403 14:54:40.811890 17833 net.cpp:399] pool2 -> pool2
I0403 14:54:40.811944 17833 net.cpp:141] Setting up pool2
I0403 14:54:40.811969 17833 net.cpp:148] Top shape: 100 256 13 13 (4326400)
I0403 14:54:40.811983 17833 net.cpp:156] Memory required for data: 679564400
I0403 14:54:40.811998 17833 layer_factory.hpp:77] Creating layer conv3
I0403 14:54:40.812021 17833 net.cpp:91] Creating Layer conv3
I0403 14:54:40.812039 17833 net.cpp:425] conv3 <- pool2
I0403 14:54:40.812067 17833 net.cpp:399] conv3 -> conv3
I0403 14:54:40.851435 17833 net.cpp:141] Setting up conv3
I0403 14:54:40.851514 17833 net.cpp:148] Top shape: 100 384 13 13 (6489600)
I0403 14:54:40.851536 17833 net.cpp:156] Memory required for data: 705522800
I0403 14:54:40.851562 17833 layer_factory.hpp:77] Creating layer relu3
I0403 14:54:40.851588 17833 net.cpp:91] Creating Layer relu3
I0403 14:54:40.851606 17833 net.cpp:425] relu3 <- conv3
I0403 14:54:40.851629 17833 net.cpp:386] relu3 -> conv3 (in-place)
I0403 14:54:40.851915 17833 net.cpp:141] Setting up relu3
I0403 14:54:40.851946 17833 net.cpp:148] Top shape: 100 384 13 13 (6489600)
I0403 14:54:40.851963 17833 net.cpp:156] Memory required for data: 731481200
I0403 14:54:40.851979 17833 layer_factory.hpp:77] Creating layer conv4
I0403 14:54:40.852006 17833 net.cpp:91] Creating Layer conv4
I0403 14:54:40.852025 17833 net.cpp:425] conv4 <- conv3
I0403 14:54:40.852046 17833 net.cpp:399] conv4 -> conv4
I0403 14:54:40.882473 17833 net.cpp:141] Setting up conv4
I0403 14:54:40.882541 17833 net.cpp:148] Top shape: 100 384 13 13 (6489600)
I0403 14:54:40.882589 17833 net.cpp:156] Memory required for data: 757439600
I0403 14:54:40.882611 17833 layer_factory.hpp:77] Creating layer relu4
I0403 14:54:40.882635 17833 net.cpp:91] Creating Layer relu4
I0403 14:54:40.882653 17833 net.cpp:425] relu4 <- conv4
I0403 14:54:40.882673 17833 net.cpp:386] relu4 -> conv4 (in-place)
I0403 14:54:40.882962 17833 net.cpp:141] Setting up relu4
I0403 14:54:40.882990 17833 net.cpp:148] Top shape: 100 384 13 13 (6489600)
I0403 14:54:40.883004 17833 net.cpp:156] Memory required for data: 783398000
I0403 14:54:40.883019 17833 layer_factory.hpp:77] Creating layer conv5
I0403 14:54:40.883045 17833 net.cpp:91] Creating Layer conv5
I0403 14:54:40.883069 17833 net.cpp:425] conv5 <- conv4
I0403 14:54:40.883088 17833 net.cpp:399] conv5 -> conv5
I0403 14:54:40.903518 17833 net.cpp:141] Setting up conv5
I0403 14:54:40.903555 17833 net.cpp:148] Top shape: 100 256 13 13 (4326400)
I0403 14:54:40.903573 17833 net.cpp:156] Memory required for data: 800703600
I0403 14:54:40.903599 17833 layer_factory.hpp:77] Creating layer relu5
I0403 14:54:40.903617 17833 net.cpp:91] Creating Layer relu5
I0403 14:54:40.903633 17833 net.cpp:425] relu5 <- conv5
I0403 14:54:40.903650 17833 net.cpp:386] relu5 -> conv5 (in-place)
I0403 14:54:40.903949 17833 net.cpp:141] Setting up relu5
I0403 14:54:40.903977 17833 net.cpp:148] Top shape: 100 256 13 13 (4326400)
I0403 14:54:40.903992 17833 net.cpp:156] Memory required for data: 818009200
I0403 14:54:40.904008 17833 layer_factory.hpp:77] Creating layer pool5
I0403 14:54:40.904031 17833 net.cpp:91] Creating Layer pool5
I0403 14:54:40.904050 17833 net.cpp:425] pool5 <- conv5
I0403 14:54:40.904073 17833 net.cpp:399] pool5 -> pool5
I0403 14:54:40.904134 17833 net.cpp:141] Setting up pool5
I0403 14:54:40.904158 17833 net.cpp:148] Top shape: 100 256 6 6 (921600)
I0403 14:54:40.904173 17833 net.cpp:156] Memory required for data: 821695600
I0403 14:54:40.904188 17833 layer_factory.hpp:77] Creating layer fc6
I0403 14:54:40.904219 17833 net.cpp:91] Creating Layer fc6
I0403 14:54:40.904237 17833 net.cpp:425] fc6 <- pool5
I0403 14:54:40.904258 17833 net.cpp:399] fc6 -> fc6
I0403 14:54:42.466681 17833 net.cpp:141] Setting up fc6
I0403 14:54:42.466755 17833 net.cpp:148] Top shape: 100 4096 (409600)
I0403 14:54:42.466771 17833 net.cpp:156] Memory required for data: 823334000
I0403 14:54:42.466791 17833 layer_factory.hpp:77] Creating layer relu6
I0403 14:54:42.466815 17833 net.cpp:91] Creating Layer relu6
I0403 14:54:42.466833 17833 net.cpp:425] relu6 <- fc6
I0403 14:54:42.466852 17833 net.cpp:386] relu6 -> fc6 (in-place)
I0403 14:54:42.467083 17833 net.cpp:141] Setting up relu6
I0403 14:54:42.467110 17833 net.cpp:148] Top shape: 100 4096 (409600)
I0403 14:54:42.467125 17833 net.cpp:156] Memory required for data: 824972400
I0403 14:54:42.467140 17833 layer_factory.hpp:77] Creating layer drop6
I0403 14:54:42.467157 17833 net.cpp:91] Creating Layer drop6
I0403 14:54:42.467172 17833 net.cpp:425] drop6 <- fc6
I0403 14:54:42.467190 17833 net.cpp:386] drop6 -> fc6 (in-place)
I0403 14:54:42.467242 17833 net.cpp:141] Setting up drop6
I0403 14:54:42.467265 17833 net.cpp:148] Top shape: 100 4096 (409600)
I0403 14:54:42.467279 17833 net.cpp:156] Memory required for data: 826610800
I0403 14:54:42.467293 17833 layer_factory.hpp:77] Creating layer fc7
I0403 14:54:42.467314 17833 net.cpp:91] Creating Layer fc7
I0403 14:54:42.467331 17833 net.cpp:425] fc7 <- fc6
I0403 14:54:42.467360 17833 net.cpp:399] fc7 -> fc7
I0403 14:54:43.147215 17833 net.cpp:141] Setting up fc7
I0403 14:54:43.147266 17833 net.cpp:148] Top shape: 100 4096 (409600)
I0403 14:54:43.147282 17833 net.cpp:156] Memory required for data: 828249200
I0403 14:54:43.147303 17833 layer_factory.hpp:77] Creating layer relu7
I0403 14:54:43.147326 17833 net.cpp:91] Creating Layer relu7
I0403 14:54:43.147344 17833 net.cpp:425] relu7 <- fc7
I0403 14:54:43.147364 17833 net.cpp:386] relu7 -> fc7 (in-place)
I0403 14:54:43.147771 17833 net.cpp:141] Setting up relu7
I0403 14:54:43.147800 17833 net.cpp:148] Top shape: 100 4096 (409600)
I0403 14:54:43.147848 17833 net.cpp:156] Memory required for data: 829887600
I0403 14:54:43.147864 17833 layer_factory.hpp:77] Creating layer drop7
I0403 14:54:43.147882 17833 net.cpp:91] Creating Layer drop7
I0403 14:54:43.147898 17833 net.cpp:425] drop7 <- fc7
I0403 14:54:43.147917 17833 net.cpp:386] drop7 -> fc7 (in-place)
I0403 14:54:43.147961 17833 net.cpp:141] Setting up drop7
I0403 14:54:43.147984 17833 net.cpp:148] Top shape: 100 4096 (409600)
I0403 14:54:43.147997 17833 net.cpp:156] Memory required for data: 831526000
I0403 14:54:43.148011 17833 layer_factory.hpp:77] Creating layer fc8_plantvillage
I0403 14:54:43.148033 17833 net.cpp:91] Creating Layer fc8_plantvillage
I0403 14:54:43.148052 17833 net.cpp:425] fc8_plantvillage <- fc7
I0403 14:54:43.148077 17833 net.cpp:399] fc8_plantvillage -> fc8_plantvillage
I0403 14:54:43.154832 17833 net.cpp:141] Setting up fc8_plantvillage
I0403 14:54:43.154861 17833 net.cpp:148] Top shape: 100 38 (3800)
I0403 14:54:43.154877 17833 net.cpp:156] Memory required for data: 831541200
I0403 14:54:43.154896 17833 layer_factory.hpp:77] Creating layer fc8_plantvillage_fc8_plantvillage_0_split
I0403 14:54:43.154916 17833 net.cpp:91] Creating Layer fc8_plantvillage_fc8_plantvillage_0_split
I0403 14:54:43.154930 17833 net.cpp:425] fc8_plantvillage_fc8_plantvillage_0_split <- fc8_plantvillage
I0403 14:54:43.154950 17833 net.cpp:399] fc8_plantvillage_fc8_plantvillage_0_split -> fc8_plantvillage_fc8_plantvillage_0_split_0
I0403 14:54:43.154971 17833 net.cpp:399] fc8_plantvillage_fc8_plantvillage_0_split -> fc8_plantvillage_fc8_plantvillage_0_split_1
I0403 14:54:43.154994 17833 net.cpp:399] fc8_plantvillage_fc8_plantvillage_0_split -> fc8_plantvillage_fc8_plantvillage_0_split_2
I0403 14:54:43.155076 17833 net.cpp:141] Setting up fc8_plantvillage_fc8_plantvillage_0_split
I0403 14:54:43.155102 17833 net.cpp:148] Top shape: 100 38 (3800)
I0403 14:54:43.155120 17833 net.cpp:148] Top shape: 100 38 (3800)
I0403 14:54:43.155136 17833 net.cpp:148] Top shape: 100 38 (3800)
I0403 14:54:43.155150 17833 net.cpp:156] Memory required for data: 831586800
I0403 14:54:43.155165 17833 layer_factory.hpp:77] Creating layer prob
I0403 14:54:43.155184 17833 net.cpp:91] Creating Layer prob
I0403 14:54:43.155200 17833 net.cpp:425] prob <- fc8_plantvillage_fc8_plantvillage_0_split_0
I0403 14:54:43.155217 17833 net.cpp:399] prob -> prob
I0403 14:54:43.155443 17833 net.cpp:141] Setting up prob
I0403 14:54:43.155473 17833 net.cpp:148] Top shape: 100 38 (3800)
I0403 14:54:43.155490 17833 net.cpp:156] Memory required for data: 831602000
I0403 14:54:43.155504 17833 layer_factory.hpp:77] Creating layer hdf5out
I0403 14:54:43.155524 17833 net.cpp:91] Creating Layer hdf5out
I0403 14:54:43.155539 17833 net.cpp:425] hdf5out <- prob
I0403 14:54:43.155555 17833 net.cpp:425] hdf5out <- label_data_1_split_0
I0403 14:54:43.157992 17833 net.cpp:141] Setting up hdf5out
…
