…
I0403 14:53:35.806299 17802 net.cpp:313] The NetState phase (1) differed from the phase (0) specified by a rule in layer data
I0403 14:53:35.806607 17802 net.cpp:49] Initializing net from parameters: 
state {
  phase: TEST
}
layer {
  name: "data"
  type: "Data"
  top: "data"
  top: "label"
  include {
    phase: TEST
  }
  transform_param {
    crop_size: 227
    mean_file: "/home/mohanty/data/final_dataset/lmdb/grayscale-40-60/mean.binaryproto"
  }
  data_param {
    source: "/home/mohanty/data/final_dataset/lmdb/grayscale-40-60/test_db"
    batch_size: 100
    backend: LMDB
  }
}
layer {
  name: "conv1"
  type: "Convolution"
  bottom: "data"
  top: "conv1"
  param {
    lr_mult: 1
    decay_mult: 1
  }
  param {
    lr_mult: 2
    decay_mult: 0
  }
  convolution_param {
    num_output: 96
    kernel_size: 11
    stride: 4
    weight_filler {
      type: "gaussian"
      std: 0.01
    }
    bias_filler {
      type: "constant"
      value: 0
    }
  }
}
layer {
  name: "relu1"
  type: "ReLU"
  bottom: "conv1"
  top: "conv1"
}
layer {
  name: "norm1"
  type: "LRN"
  bottom: "conv1"
  top: "norm1"
  lrn_param {
    local_size: 5
    alpha: 0.0001
    beta: 0.75
  }
}
layer {
  name: "pool1"
  type: "Pooling"
  bottom: "norm1"
  top: "pool1"
  pooling_param {
    pool: MAX
    kernel_size: 3
    stride: 2
  }
}
layer {
  name: "conv2"
  type: "Convolution"
  bottom: "pool1"
  top: "conv2"
  param {
    lr_mult: 1
    decay_mult: 1
  }
  param {
    lr_mult: 2
    decay_mult: 0
  }
  convolution_param {
    num_output: 256
    pad: 2
    kernel_size: 5
    group: 2
    weight_filler {
      type: "gaussian"
      std: 0.01
    }
    bias_filler {
      type: "constant"
      value: 0.1
    }
  }
}
layer {
  name: "relu2"
  type: "ReLU"
  bottom: "conv2"
  top: "conv2"
}
layer {
  name: "norm2"
  type: "LRN"
  bottom: "conv2"
  top: "norm2"
  lrn_param {
    local_size: 5
    alpha: 0.0001
    beta: 0.75
  }
}
layer {
  name: "pool2"
  type: "Pooling"
  bottom: "norm2"
  top: "pool2"
  pooling_param {
    pool: MAX
    kernel_size: 3
    stride: 2
  }
}
layer {
  name: "conv3"
  type: "Convolution"
  bottom: "pool2"
  top: "conv3"
  param {
    lr_mult: 1
    decay_mult: 1
  }
  param {
    lr_mult: 2
    decay_mult: 0
  }
  convolution_param {
    num_output: 384
    pad: 1
    kernel_size: 3
    weight_filler {
      type: "gaussian"
      std: 0.01
    }
    bias_filler {
      type: "constant"
      value: 0
    }
  }
}
layer {
  name: "relu3"
  type: "ReLU"
  bottom: "conv3"
  top: "conv3"
}
layer {
  name: "conv4"
  type: "Convolution"
  bottom: "conv3"
  top: "conv4"
  param {
    lr_mult: 1
    decay_mult: 1
  }
  param {
    lr_mult: 2
    decay_mult: 0
  }
  convolution_param {
    num_output: 384
    pad: 1
    kernel_size: 3
    group: 2
    weight_filler {
      type: "gaussian"
      std: 0.01
    }
    bias_filler {
      type: "constant"
      value: 0.1
    }
  }
}
layer {
  name: "relu4"
  type: "ReLU"
  bottom: "conv4"
  top: "conv4"
}
layer {
  name: "conv5"
  type: "Convolution"
  bottom: "conv4"
  top: "conv5"
  param {
    lr_mult: 1
    decay_mult: 1
  }
  param {
    lr_mult: 2
    decay_mult: 0
  }
  convolution_param {
    num_output: 256
    pad: 1
    kernel_size: 3
    group: 2
    weight_filler {
      type: "gaussian"
      std: 0.01
    }
    bias_filler {
      type: "constant"
      value: 0.1
    }
  }
}
layer {
  name: "relu5"
  type: "ReLU"
  bottom: "conv5"
  top: "conv5"
}
layer {
  name: "pool5"
  type: "Pooling"
  bottom: "conv5"
  top: "pool5"
  pooling_param {
    pool: MAX
    kernel_size: 3
    stride: 2
  }
}
layer {
  name: "fc6"
  type: "InnerProduct"
  bottom: "pool5"
  top: "fc6"
  param {
    lr_mult: 1
    decay_mult: 1
  }
  param {
    lr_mult: 2
    decay_mult: 0
  }
  inner_product_param {
    num_output: 4096
    weight_filler {
      type: "gaussian"
      std: 0.005
    }
    bias_filler {
      type: "constant"
      value: 0.1
    }
  }
}
layer {
  name: "relu6"
  type: "ReLU"
  bottom: "fc6"
  top: "fc6"
}
layer {
  name: "drop6"
  type: "Dropout"
  bottom: "fc6"
  top: "fc6"
  dropout_param {
    dropout_ratio: 0.5
  }
}
layer {
  name: "fc7"
  type: "InnerProduct"
  bottom: "fc6"
  top: "fc7"
  param {
    lr_mult: 1
    decay_mult: 1
  }
  param {
    lr_mult: 2
    decay_mult: 0
  }
  inner_product_param {
    num_output: 4096
    weight_filler {
      type: "gaussian"
      std: 0.005
    }
    bias_filler {
      type: "constant"
      value: 0.1
    }
  }
}
layer {
  name: "relu7"
  type: "ReLU"
  bottom: "fc7"
  top: "fc7"
}
layer {
  name: "drop7"
  type: "Dropout"
  bottom: "fc7"
  top: "fc7"
  dropout_param {
    dropout_ratio: 0.5
  }
}
layer {
  name: "fc8_plantvillage"
  type: "InnerProduct"
  bottom: "fc7"
  top: "fc8_plantvillage"
  param {
    lr_mult: 1
    decay_mult: 1
  }
  param {
    lr_mult: 2
    decay_mult: 0
  }
  inner_product_param {
    num_output: 38
    weight_filler {
      type: "gaussian"
      std: 0.01
    }
    bias_filler {
      type: "constant"
      value: 0
    }
  }
}
layer {
  name: "prob"
  type: "Softmax"
  bottom: "fc8_plantvillage"
  top: "prob"
  include {
    phase: TEST
  }
}
layer {
  name: "hdf5out"
  type: "HDF5Output"
  bottom: "prob"
  bottom: "label"
  include {
    phase: TEST
  }
  hdf5_output_param {
    file_name: "hdf5_dumps/iter_5694.h5"
  }
}
layer {
  name: "loss"
  type: "SoftmaxWithLoss"
  bottom: "fc8_plantvillage"
  bottom: "label"
  top: "loss"
}
layer {
  name: "accuracy"
  type: "Accuracy"
  bottom: "fc8_plantvillage"
  bottom: "label"
  top: "accuracy"
  include {
    phase: TEST
  }
}
I0403 14:53:35.807178 17802 layer_factory.hpp:77] Creating layer data
I0403 14:53:35.807811 17802 net.cpp:91] Creating Layer data
I0403 14:53:35.807843 17802 net.cpp:399] data -> data
I0403 14:53:35.807893 17802 net.cpp:399] data -> label
I0403 14:53:35.807927 17802 data_transformer.cpp:25] Loading mean file from: /home/mohanty/data/final_dataset/lmdb/grayscale-40-60/mean.binaryproto
I0403 14:53:35.810820 17805 db_lmdb.cpp:38] Opened lmdb /home/mohanty/data/final_dataset/lmdb/grayscale-40-60/test_db
I0403 14:53:35.822415 17802 data_layer.cpp:41] output data size: 100,3,227,227
I0403 14:53:35.948251 17802 net.cpp:141] Setting up data
I0403 14:53:35.948364 17802 net.cpp:148] Top shape: 100 3 227 227 (15458700)
I0403 14:53:35.948388 17802 net.cpp:148] Top shape: 100 (100)
I0403 14:53:35.948415 17802 net.cpp:156] Memory required for data: 61835200
I0403 14:53:35.948443 17802 layer_factory.hpp:77] Creating layer label_data_1_split
I0403 14:53:35.948470 17802 net.cpp:91] Creating Layer label_data_1_split
I0403 14:53:35.948490 17802 net.cpp:425] label_data_1_split <- label
I0403 14:53:35.948523 17802 net.cpp:399] label_data_1_split -> label_data_1_split_0
I0403 14:53:35.948561 17802 net.cpp:399] label_data_1_split -> label_data_1_split_1
I0403 14:53:35.948583 17802 net.cpp:399] label_data_1_split -> label_data_1_split_2
I0403 14:53:35.948649 17802 net.cpp:141] Setting up label_data_1_split
I0403 14:53:35.948685 17802 net.cpp:148] Top shape: 100 (100)
I0403 14:53:35.948704 17802 net.cpp:148] Top shape: 100 (100)
I0403 14:53:35.948720 17802 net.cpp:148] Top shape: 100 (100)
I0403 14:53:35.948737 17802 net.cpp:156] Memory required for data: 61836400
I0403 14:53:35.948757 17802 layer_factory.hpp:77] Creating layer conv1
I0403 14:53:35.948792 17802 net.cpp:91] Creating Layer conv1
I0403 14:53:35.948812 17802 net.cpp:425] conv1 <- data
I0403 14:53:35.948830 17802 net.cpp:399] conv1 -> conv1
I0403 14:53:36.099669 17802 net.cpp:141] Setting up conv1
I0403 14:53:36.099761 17802 net.cpp:148] Top shape: 100 96 55 55 (29040000)
I0403 14:53:36.099777 17802 net.cpp:156] Memory required for data: 177996400
I0403 14:53:36.099809 17802 layer_factory.hpp:77] Creating layer relu1
I0403 14:53:36.099836 17802 net.cpp:91] Creating Layer relu1
I0403 14:53:36.099855 17802 net.cpp:425] relu1 <- conv1
I0403 14:53:36.099875 17802 net.cpp:386] relu1 -> conv1 (in-place)
I0403 14:53:36.100148 17802 net.cpp:141] Setting up relu1
I0403 14:53:36.100178 17802 net.cpp:148] Top shape: 100 96 55 55 (29040000)
I0403 14:53:36.100224 17802 net.cpp:156] Memory required for data: 294156400
I0403 14:53:36.100241 17802 layer_factory.hpp:77] Creating layer norm1
I0403 14:53:36.100270 17802 net.cpp:91] Creating Layer norm1
I0403 14:53:36.100289 17802 net.cpp:425] norm1 <- conv1
I0403 14:53:36.100307 17802 net.cpp:399] norm1 -> norm1
I0403 14:53:36.100631 17802 net.cpp:141] Setting up norm1
I0403 14:53:36.100661 17802 net.cpp:148] Top shape: 100 96 55 55 (29040000)
I0403 14:53:36.100677 17802 net.cpp:156] Memory required for data: 410316400
I0403 14:53:36.100692 17802 layer_factory.hpp:77] Creating layer pool1
I0403 14:53:36.100715 17802 net.cpp:91] Creating Layer pool1
I0403 14:53:36.100735 17802 net.cpp:425] pool1 <- norm1
I0403 14:53:36.100785 17802 net.cpp:399] pool1 -> pool1
I0403 14:53:36.100859 17802 net.cpp:141] Setting up pool1
I0403 14:53:36.100885 17802 net.cpp:148] Top shape: 100 96 27 27 (6998400)
I0403 14:53:36.100900 17802 net.cpp:156] Memory required for data: 438310000
I0403 14:53:36.100915 17802 layer_factory.hpp:77] Creating layer conv2
I0403 14:53:36.100940 17802 net.cpp:91] Creating Layer conv2
I0403 14:53:36.100957 17802 net.cpp:425] conv2 <- pool1
I0403 14:53:36.100975 17802 net.cpp:399] conv2 -> conv2
I0403 14:53:36.116648 17802 net.cpp:141] Setting up conv2
I0403 14:53:36.116699 17802 net.cpp:148] Top shape: 100 256 27 27 (18662400)
I0403 14:53:36.116717 17802 net.cpp:156] Memory required for data: 512959600
I0403 14:53:36.116740 17802 layer_factory.hpp:77] Creating layer relu2
I0403 14:53:36.116765 17802 net.cpp:91] Creating Layer relu2
I0403 14:53:36.116783 17802 net.cpp:425] relu2 <- conv2
I0403 14:53:36.116802 17802 net.cpp:386] relu2 -> conv2 (in-place)
I0403 14:53:36.117189 17802 net.cpp:141] Setting up relu2
I0403 14:53:36.117218 17802 net.cpp:148] Top shape: 100 256 27 27 (18662400)
I0403 14:53:36.117233 17802 net.cpp:156] Memory required for data: 587609200
I0403 14:53:36.117249 17802 layer_factory.hpp:77] Creating layer norm2
I0403 14:53:36.117272 17802 net.cpp:91] Creating Layer norm2
I0403 14:53:36.117290 17802 net.cpp:425] norm2 <- conv2
I0403 14:53:36.117311 17802 net.cpp:399] norm2 -> norm2
I0403 14:53:36.117519 17802 net.cpp:141] Setting up norm2
I0403 14:53:36.117547 17802 net.cpp:148] Top shape: 100 256 27 27 (18662400)
I0403 14:53:36.117561 17802 net.cpp:156] Memory required for data: 662258800
I0403 14:53:36.117576 17802 layer_factory.hpp:77] Creating layer pool2
I0403 14:53:36.117597 17802 net.cpp:91] Creating Layer pool2
I0403 14:53:36.117614 17802 net.cpp:425] pool2 <- norm2
I0403 14:53:36.117632 17802 net.cpp:399] pool2 -> pool2
I0403 14:53:36.117691 17802 net.cpp:141] Setting up pool2
I0403 14:53:36.117714 17802 net.cpp:148] Top shape: 100 256 13 13 (4326400)
I0403 14:53:36.117729 17802 net.cpp:156] Memory required for data: 679564400
I0403 14:53:36.117744 17802 layer_factory.hpp:77] Creating layer conv3
I0403 14:53:36.117769 17802 net.cpp:91] Creating Layer conv3
I0403 14:53:36.117786 17802 net.cpp:425] conv3 <- pool2
I0403 14:53:36.117807 17802 net.cpp:399] conv3 -> conv3
I0403 14:53:36.157997 17802 net.cpp:141] Setting up conv3
I0403 14:53:36.158035 17802 net.cpp:148] Top shape: 100 384 13 13 (6489600)
I0403 14:53:36.158062 17802 net.cpp:156] Memory required for data: 705522800
I0403 14:53:36.158093 17802 layer_factory.hpp:77] Creating layer relu3
I0403 14:53:36.158115 17802 net.cpp:91] Creating Layer relu3
I0403 14:53:36.158133 17802 net.cpp:425] relu3 <- conv3
I0403 14:53:36.158151 17802 net.cpp:386] relu3 -> conv3 (in-place)
I0403 14:53:36.158440 17802 net.cpp:141] Setting up relu3
I0403 14:53:36.158468 17802 net.cpp:148] Top shape: 100 384 13 13 (6489600)
I0403 14:53:36.158483 17802 net.cpp:156] Memory required for data: 731481200
I0403 14:53:36.158499 17802 layer_factory.hpp:77] Creating layer conv4
I0403 14:53:36.158522 17802 net.cpp:91] Creating Layer conv4
I0403 14:53:36.158540 17802 net.cpp:425] conv4 <- conv3
I0403 14:53:36.158562 17802 net.cpp:399] conv4 -> conv4
I0403 14:53:36.189996 17802 net.cpp:141] Setting up conv4
I0403 14:53:36.190080 17802 net.cpp:148] Top shape: 100 384 13 13 (6489600)
I0403 14:53:36.190130 17802 net.cpp:156] Memory required for data: 757439600
I0403 14:53:36.190155 17802 layer_factory.hpp:77] Creating layer relu4
I0403 14:53:36.190179 17802 net.cpp:91] Creating Layer relu4
I0403 14:53:36.190198 17802 net.cpp:425] relu4 <- conv4
I0403 14:53:36.190218 17802 net.cpp:386] relu4 -> conv4 (in-place)
I0403 14:53:36.190557 17802 net.cpp:141] Setting up relu4
I0403 14:53:36.190584 17802 net.cpp:148] Top shape: 100 384 13 13 (6489600)
I0403 14:53:36.190599 17802 net.cpp:156] Memory required for data: 783398000
I0403 14:53:36.190615 17802 layer_factory.hpp:77] Creating layer conv5
I0403 14:53:36.190640 17802 net.cpp:91] Creating Layer conv5
I0403 14:53:36.190659 17802 net.cpp:425] conv5 <- conv4
I0403 14:53:36.190680 17802 net.cpp:399] conv5 -> conv5
I0403 14:53:36.212316 17802 net.cpp:141] Setting up conv5
I0403 14:53:36.212368 17802 net.cpp:148] Top shape: 100 256 13 13 (4326400)
I0403 14:53:36.212385 17802 net.cpp:156] Memory required for data: 800703600
I0403 14:53:36.212411 17802 layer_factory.hpp:77] Creating layer relu5
I0403 14:53:36.212436 17802 net.cpp:91] Creating Layer relu5
I0403 14:53:36.212455 17802 net.cpp:425] relu5 <- conv5
I0403 14:53:36.212473 17802 net.cpp:386] relu5 -> conv5 (in-place)
I0403 14:53:36.212764 17802 net.cpp:141] Setting up relu5
I0403 14:53:36.212792 17802 net.cpp:148] Top shape: 100 256 13 13 (4326400)
I0403 14:53:36.212808 17802 net.cpp:156] Memory required for data: 818009200
I0403 14:53:36.212824 17802 layer_factory.hpp:77] Creating layer pool5
I0403 14:53:36.212848 17802 net.cpp:91] Creating Layer pool5
I0403 14:53:36.212867 17802 net.cpp:425] pool5 <- conv5
I0403 14:53:36.212888 17802 net.cpp:399] pool5 -> pool5
I0403 14:53:36.212950 17802 net.cpp:141] Setting up pool5
I0403 14:53:36.212975 17802 net.cpp:148] Top shape: 100 256 6 6 (921600)
I0403 14:53:36.212990 17802 net.cpp:156] Memory required for data: 821695600
I0403 14:53:36.213004 17802 layer_factory.hpp:77] Creating layer fc6
I0403 14:53:36.213034 17802 net.cpp:91] Creating Layer fc6
I0403 14:53:36.213057 17802 net.cpp:425] fc6 <- pool5
I0403 14:53:36.213076 17802 net.cpp:399] fc6 -> fc6
I0403 14:53:37.816952 17802 net.cpp:141] Setting up fc6
I0403 14:53:37.817045 17802 net.cpp:148] Top shape: 100 4096 (409600)
I0403 14:53:37.817065 17802 net.cpp:156] Memory required for data: 823334000
I0403 14:53:37.817087 17802 layer_factory.hpp:77] Creating layer relu6
I0403 14:53:37.817111 17802 net.cpp:91] Creating Layer relu6
I0403 14:53:37.817128 17802 net.cpp:425] relu6 <- fc6
I0403 14:53:37.817150 17802 net.cpp:386] relu6 -> fc6 (in-place)
I0403 14:53:37.817391 17802 net.cpp:141] Setting up relu6
I0403 14:53:37.817417 17802 net.cpp:148] Top shape: 100 4096 (409600)
I0403 14:53:37.817431 17802 net.cpp:156] Memory required for data: 824972400
I0403 14:53:37.817446 17802 layer_factory.hpp:77] Creating layer drop6
I0403 14:53:37.817466 17802 net.cpp:91] Creating Layer drop6
I0403 14:53:37.817482 17802 net.cpp:425] drop6 <- fc6
I0403 14:53:37.817500 17802 net.cpp:386] drop6 -> fc6 (in-place)
I0403 14:53:37.817553 17802 net.cpp:141] Setting up drop6
I0403 14:53:37.817575 17802 net.cpp:148] Top shape: 100 4096 (409600)
I0403 14:53:37.817589 17802 net.cpp:156] Memory required for data: 826610800
I0403 14:53:37.817605 17802 layer_factory.hpp:77] Creating layer fc7
I0403 14:53:37.817623 17802 net.cpp:91] Creating Layer fc7
I0403 14:53:37.817639 17802 net.cpp:425] fc7 <- fc6
I0403 14:53:37.817662 17802 net.cpp:399] fc7 -> fc7
I0403 14:53:38.498316 17802 net.cpp:141] Setting up fc7
I0403 14:53:38.498389 17802 net.cpp:148] Top shape: 100 4096 (409600)
I0403 14:53:38.498404 17802 net.cpp:156] Memory required for data: 828249200
I0403 14:53:38.498425 17802 layer_factory.hpp:77] Creating layer relu7
I0403 14:53:38.498447 17802 net.cpp:91] Creating Layer relu7
I0403 14:53:38.498466 17802 net.cpp:425] relu7 <- fc7
I0403 14:53:38.498484 17802 net.cpp:386] relu7 -> fc7 (in-place)
I0403 14:53:38.498888 17802 net.cpp:141] Setting up relu7
I0403 14:53:38.498914 17802 net.cpp:148] Top shape: 100 4096 (409600)
I0403 14:53:38.498957 17802 net.cpp:156] Memory required for data: 829887600
I0403 14:53:38.498972 17802 layer_factory.hpp:77] Creating layer drop7
I0403 14:53:38.498993 17802 net.cpp:91] Creating Layer drop7
I0403 14:53:38.499009 17802 net.cpp:425] drop7 <- fc7
I0403 14:53:38.499025 17802 net.cpp:386] drop7 -> fc7 (in-place)
I0403 14:53:38.499079 17802 net.cpp:141] Setting up drop7
I0403 14:53:38.499102 17802 net.cpp:148] Top shape: 100 4096 (409600)
I0403 14:53:38.499115 17802 net.cpp:156] Memory required for data: 831526000
I0403 14:53:38.499130 17802 layer_factory.hpp:77] Creating layer fc8_plantvillage
I0403 14:53:38.499150 17802 net.cpp:91] Creating Layer fc8_plantvillage
I0403 14:53:38.499163 17802 net.cpp:425] fc8_plantvillage <- fc7
I0403 14:53:38.499182 17802 net.cpp:399] fc8_plantvillage -> fc8_plantvillage
I0403 14:53:38.505959 17802 net.cpp:141] Setting up fc8_plantvillage
I0403 14:53:38.505985 17802 net.cpp:148] Top shape: 100 38 (3800)
I0403 14:53:38.506000 17802 net.cpp:156] Memory required for data: 831541200
I0403 14:53:38.506017 17802 layer_factory.hpp:77] Creating layer fc8_plantvillage_fc8_plantvillage_0_split
I0403 14:53:38.506037 17802 net.cpp:91] Creating Layer fc8_plantvillage_fc8_plantvillage_0_split
I0403 14:53:38.506058 17802 net.cpp:425] fc8_plantvillage_fc8_plantvillage_0_split <- fc8_plantvillage
I0403 14:53:38.506077 17802 net.cpp:399] fc8_plantvillage_fc8_plantvillage_0_split -> fc8_plantvillage_fc8_plantvillage_0_split_0
I0403 14:53:38.506094 17802 net.cpp:399] fc8_plantvillage_fc8_plantvillage_0_split -> fc8_plantvillage_fc8_plantvillage_0_split_1
I0403 14:53:38.506116 17802 net.cpp:399] fc8_plantvillage_fc8_plantvillage_0_split -> fc8_plantvillage_fc8_plantvillage_0_split_2
I0403 14:53:38.506192 17802 net.cpp:141] Setting up fc8_plantvillage_fc8_plantvillage_0_split
I0403 14:53:38.506217 17802 net.cpp:148] Top shape: 100 38 (3800)
I0403 14:53:38.506230 17802 net.cpp:148] Top shape: 100 38 (3800)
I0403 14:53:38.506245 17802 net.cpp:148] Top shape: 100 38 (3800)
I0403 14:53:38.506258 17802 net.cpp:156] Memory required for data: 831586800
I0403 14:53:38.506271 17802 layer_factory.hpp:77] Creating layer prob
I0403 14:53:38.506289 17802 net.cpp:91] Creating Layer prob
I0403 14:53:38.506304 17802 net.cpp:425] prob <- fc8_plantvillage_fc8_plantvillage_0_split_0
I0403 14:53:38.506321 17802 net.cpp:399] prob -> prob
I0403 14:53:38.506539 17802 net.cpp:141] Setting up prob
I0403 14:53:38.506563 17802 net.cpp:148] Top shape: 100 38 (3800)
I0403 14:53:38.506578 17802 net.cpp:156] Memory required for data: 831602000
I0403 14:53:38.506592 17802 layer_factory.hpp:77] Creating layer hdf5out
I0403 14:53:38.506613 17802 net.cpp:91] Creating Layer hdf5out
I0403 14:53:38.506628 17802 net.cpp:425] hdf5out <- prob
I0403 14:53:38.506642 17802 net.cpp:425] hdf5out <- label_data_1_split_0
I0403 14:53:38.509093 17802 net.cpp:141] Setting up hdf5out
…
