…
I0403 14:49:16.101872 17696 net.cpp:313] The NetState phase (1) differed from the phase (0) specified by a rule in layer data
I0403 14:49:16.102610 17696 net.cpp:49] Initializing net from parameters: 
state {
  phase: TEST
}
layer {
  name: "data"
  type: "Data"
  top: "data"
  top: "label"
  include {
    phase: TEST
  }
  transform_param {
    crop_size: 227
    mean_file: "/home/mohanty/data/final_dataset/lmdb/grayscale-40-60/mean.binaryproto"
  }
  data_param {
    source: "/home/mohanty/data/final_dataset/lmdb/grayscale-40-60/test_db"
    batch_size: 100
    backend: LMDB
  }
}
layer {
  name: "conv1"
  type: "Convolution"
  bottom: "data"
  top: "conv1"
  param {
    lr_mult: 1
    decay_mult: 1
  }
  param {
    lr_mult: 2
    decay_mult: 0
  }
  convolution_param {
    num_output: 96
    kernel_size: 11
    stride: 4
    weight_filler {
      type: "gaussian"
      std: 0.01
    }
    bias_filler {
      type: "constant"
      value: 0
    }
  }
}
layer {
  name: "relu1"
  type: "ReLU"
  bottom: "conv1"
  top: "conv1"
}
layer {
  name: "norm1"
  type: "LRN"
  bottom: "conv1"
  top: "norm1"
  lrn_param {
    local_size: 5
    alpha: 0.0001
    beta: 0.75
  }
}
layer {
  name: "pool1"
  type: "Pooling"
  bottom: "norm1"
  top: "pool1"
  pooling_param {
    pool: MAX
    kernel_size: 3
    stride: 2
  }
}
layer {
  name: "conv2"
  type: "Convolution"
  bottom: "pool1"
  top: "conv2"
  param {
    lr_mult: 1
    decay_mult: 1
  }
  param {
    lr_mult: 2
    decay_mult: 0
  }
  convolution_param {
    num_output: 256
    pad: 2
    kernel_size: 5
    group: 2
    weight_filler {
      type: "gaussian"
      std: 0.01
    }
    bias_filler {
      type: "constant"
      value: 0.1
    }
  }
}
layer {
  name: "relu2"
  type: "ReLU"
  bottom: "conv2"
  top: "conv2"
}
layer {
  name: "norm2"
  type: "LRN"
  bottom: "conv2"
  top: "norm2"
  lrn_param {
    local_size: 5
    alpha: 0.0001
    beta: 0.75
  }
}
layer {
  name: "pool2"
  type: "Pooling"
  bottom: "norm2"
  top: "pool2"
  pooling_param {
    pool: MAX
    kernel_size: 3
    stride: 2
  }
}
layer {
  name: "conv3"
  type: "Convolution"
  bottom: "pool2"
  top: "conv3"
  param {
    lr_mult: 1
    decay_mult: 1
  }
  param {
    lr_mult: 2
    decay_mult: 0
  }
  convolution_param {
    num_output: 384
    pad: 1
    kernel_size: 3
    weight_filler {
      type: "gaussian"
      std: 0.01
    }
    bias_filler {
      type: "constant"
      value: 0
    }
  }
}
layer {
  name: "relu3"
  type: "ReLU"
  bottom: "conv3"
  top: "conv3"
}
layer {
  name: "conv4"
  type: "Convolution"
  bottom: "conv3"
  top: "conv4"
  param {
    lr_mult: 1
    decay_mult: 1
  }
  param {
    lr_mult: 2
    decay_mult: 0
  }
  convolution_param {
    num_output: 384
    pad: 1
    kernel_size: 3
    group: 2
    weight_filler {
      type: "gaussian"
      std: 0.01
    }
    bias_filler {
      type: "constant"
      value: 0.1
    }
  }
}
layer {
  name: "relu4"
  type: "ReLU"
  bottom: "conv4"
  top: "conv4"
}
layer {
  name: "conv5"
  type: "Convolution"
  bottom: "conv4"
  top: "conv5"
  param {
    lr_mult: 1
    decay_mult: 1
  }
  param {
    lr_mult: 2
    decay_mult: 0
  }
  convolution_param {
    num_output: 256
    pad: 1
    kernel_size: 3
    group: 2
    weight_filler {
      type: "gaussian"
      std: 0.01
    }
    bias_filler {
      type: "constant"
      value: 0.1
    }
  }
}
layer {
  name: "relu5"
  type: "ReLU"
  bottom: "conv5"
  top: "conv5"
}
layer {
  name: "pool5"
  type: "Pooling"
  bottom: "conv5"
  top: "pool5"
  pooling_param {
    pool: MAX
    kernel_size: 3
    stride: 2
  }
}
layer {
  name: "fc6"
  type: "InnerProduct"
  bottom: "pool5"
  top: "fc6"
  param {
    lr_mult: 1
    decay_mult: 1
  }
  param {
    lr_mult: 2
    decay_mult: 0
  }
  inner_product_param {
    num_output: 4096
    weight_filler {
      type: "gaussian"
      std: 0.005
    }
    bias_filler {
      type: "constant"
      value: 0.1
    }
  }
}
layer {
  name: "relu6"
  type: "ReLU"
  bottom: "fc6"
  top: "fc6"
}
layer {
  name: "drop6"
  type: "Dropout"
  bottom: "fc6"
  top: "fc6"
  dropout_param {
    dropout_ratio: 0.5
  }
}
layer {
  name: "fc7"
  type: "InnerProduct"
  bottom: "fc6"
  top: "fc7"
  param {
    lr_mult: 1
    decay_mult: 1
  }
  param {
    lr_mult: 2
    decay_mult: 0
  }
  inner_product_param {
    num_output: 4096
    weight_filler {
      type: "gaussian"
      std: 0.005
    }
    bias_filler {
      type: "constant"
      value: 0.1
    }
  }
}
layer {
  name: "relu7"
  type: "ReLU"
  bottom: "fc7"
  top: "fc7"
}
layer {
  name: "drop7"
  type: "Dropout"
  bottom: "fc7"
  top: "fc7"
  dropout_param {
    dropout_ratio: 0.5
  }
}
layer {
  name: "fc8_plantvillage"
  type: "InnerProduct"
  bottom: "fc7"
  top: "fc8_plantvillage"
  param {
    lr_mult: 1
    decay_mult: 1
  }
  param {
    lr_mult: 2
    decay_mult: 0
  }
  inner_product_param {
    num_output: 38
    weight_filler {
      type: "gaussian"
      std: 0.01
    }
    bias_filler {
      type: "constant"
      value: 0
    }
  }
}
layer {
  name: "prob"
  type: "Softmax"
  bottom: "fc8_plantvillage"
  top: "prob"
  include {
    phase: TEST
  }
}
layer {
  name: "hdf5out"
  type: "HDF5Output"
  bottom: "prob"
  bottom: "label"
  include {
    phase: TEST
  }
  hdf5_output_param {
    file_name: "hdf5_dumps/iter_4818.h5"
  }
}
layer {
  name: "loss"
  type: "SoftmaxWithLoss"
  bottom: "fc8_plantvillage"
  bottom: "label"
  top: "loss"
}
layer {
  name: "accuracy"
  type: "Accuracy"
  bottom: "fc8_plantvillage"
  bottom: "label"
  top: "accuracy"
  include {
    phase: TEST
  }
}
I0403 14:49:16.103840 17696 layer_factory.hpp:77] Creating layer data
I0403 14:49:16.105451 17696 net.cpp:91] Creating Layer data
I0403 14:49:16.105533 17696 net.cpp:399] data -> data
I0403 14:49:16.105649 17696 net.cpp:399] data -> label
I0403 14:49:16.105738 17696 data_transformer.cpp:25] Loading mean file from: /home/mohanty/data/final_dataset/lmdb/grayscale-40-60/mean.binaryproto
I0403 14:49:16.110155 17714 db_lmdb.cpp:38] Opened lmdb /home/mohanty/data/final_dataset/lmdb/grayscale-40-60/test_db
I0403 14:49:16.129809 17696 data_layer.cpp:41] output data size: 100,3,227,227
I0403 14:49:16.267405 17696 net.cpp:141] Setting up data
I0403 14:49:16.267508 17696 net.cpp:148] Top shape: 100 3 227 227 (15458700)
I0403 14:49:16.267534 17696 net.cpp:148] Top shape: 100 (100)
I0403 14:49:16.267552 17696 net.cpp:156] Memory required for data: 61835200
I0403 14:49:16.267585 17696 layer_factory.hpp:77] Creating layer label_data_1_split
I0403 14:49:16.267616 17696 net.cpp:91] Creating Layer label_data_1_split
I0403 14:49:16.267637 17696 net.cpp:425] label_data_1_split <- label
I0403 14:49:16.267675 17696 net.cpp:399] label_data_1_split -> label_data_1_split_0
I0403 14:49:16.267707 17696 net.cpp:399] label_data_1_split -> label_data_1_split_1
I0403 14:49:16.267732 17696 net.cpp:399] label_data_1_split -> label_data_1_split_2
I0403 14:49:16.267809 17696 net.cpp:141] Setting up label_data_1_split
I0403 14:49:16.267838 17696 net.cpp:148] Top shape: 100 (100)
I0403 14:49:16.267858 17696 net.cpp:148] Top shape: 100 (100)
I0403 14:49:16.267876 17696 net.cpp:148] Top shape: 100 (100)
I0403 14:49:16.267894 17696 net.cpp:156] Memory required for data: 61836400
I0403 14:49:16.267910 17696 layer_factory.hpp:77] Creating layer conv1
I0403 14:49:16.267948 17696 net.cpp:91] Creating Layer conv1
I0403 14:49:16.267971 17696 net.cpp:425] conv1 <- data
I0403 14:49:16.267995 17696 net.cpp:399] conv1 -> conv1
I0403 14:49:16.435314 17696 net.cpp:141] Setting up conv1
I0403 14:49:16.435426 17696 net.cpp:148] Top shape: 100 96 55 55 (29040000)
I0403 14:49:16.435447 17696 net.cpp:156] Memory required for data: 177996400
I0403 14:49:16.435485 17696 layer_factory.hpp:77] Creating layer relu1
I0403 14:49:16.435521 17696 net.cpp:91] Creating Layer relu1
I0403 14:49:16.435544 17696 net.cpp:425] relu1 <- conv1
I0403 14:49:16.435566 17696 net.cpp:386] relu1 -> conv1 (in-place)
I0403 14:49:16.435905 17696 net.cpp:141] Setting up relu1
I0403 14:49:16.435938 17696 net.cpp:148] Top shape: 100 96 55 55 (29040000)
I0403 14:49:16.435997 17696 net.cpp:156] Memory required for data: 294156400
I0403 14:49:16.436017 17696 layer_factory.hpp:77] Creating layer norm1
I0403 14:49:16.436058 17696 net.cpp:91] Creating Layer norm1
I0403 14:49:16.436082 17696 net.cpp:425] norm1 <- conv1
I0403 14:49:16.436108 17696 net.cpp:399] norm1 -> norm1
I0403 14:49:16.436504 17696 net.cpp:141] Setting up norm1
I0403 14:49:16.436542 17696 net.cpp:148] Top shape: 100 96 55 55 (29040000)
I0403 14:49:16.436561 17696 net.cpp:156] Memory required for data: 410316400
I0403 14:49:16.436579 17696 layer_factory.hpp:77] Creating layer pool1
I0403 14:49:16.436606 17696 net.cpp:91] Creating Layer pool1
I0403 14:49:16.436627 17696 net.cpp:425] pool1 <- norm1
I0403 14:49:16.436653 17696 net.cpp:399] pool1 -> pool1
I0403 14:49:16.436738 17696 net.cpp:141] Setting up pool1
I0403 14:49:16.436769 17696 net.cpp:148] Top shape: 100 96 27 27 (6998400)
I0403 14:49:16.436786 17696 net.cpp:156] Memory required for data: 438310000
I0403 14:49:16.436805 17696 layer_factory.hpp:77] Creating layer conv2
I0403 14:49:16.436836 17696 net.cpp:91] Creating Layer conv2
I0403 14:49:16.436859 17696 net.cpp:425] conv2 <- pool1
I0403 14:49:16.436882 17696 net.cpp:399] conv2 -> conv2
I0403 14:49:16.455018 17696 net.cpp:141] Setting up conv2
I0403 14:49:16.455068 17696 net.cpp:148] Top shape: 100 256 27 27 (18662400)
I0403 14:49:16.455091 17696 net.cpp:156] Memory required for data: 512959600
I0403 14:49:16.455118 17696 layer_factory.hpp:77] Creating layer relu2
I0403 14:49:16.455142 17696 net.cpp:91] Creating Layer relu2
I0403 14:49:16.455159 17696 net.cpp:425] relu2 <- conv2
I0403 14:49:16.455183 17696 net.cpp:386] relu2 -> conv2 (in-place)
I0403 14:49:16.455513 17696 net.cpp:141] Setting up relu2
I0403 14:49:16.455587 17696 net.cpp:148] Top shape: 100 256 27 27 (18662400)
I0403 14:49:16.455611 17696 net.cpp:156] Memory required for data: 587609200
I0403 14:49:16.455631 17696 layer_factory.hpp:77] Creating layer norm2
I0403 14:49:16.455660 17696 net.cpp:91] Creating Layer norm2
I0403 14:49:16.455682 17696 net.cpp:425] norm2 <- conv2
I0403 14:49:16.455704 17696 net.cpp:399] norm2 -> norm2
I0403 14:49:16.455946 17696 net.cpp:141] Setting up norm2
I0403 14:49:16.455981 17696 net.cpp:148] Top shape: 100 256 27 27 (18662400)
I0403 14:49:16.456001 17696 net.cpp:156] Memory required for data: 662258800
I0403 14:49:16.456020 17696 layer_factory.hpp:77] Creating layer pool2
I0403 14:49:16.456043 17696 net.cpp:91] Creating Layer pool2
I0403 14:49:16.456069 17696 net.cpp:425] pool2 <- norm2
I0403 14:49:16.456094 17696 net.cpp:399] pool2 -> pool2
I0403 14:49:16.456158 17696 net.cpp:141] Setting up pool2
I0403 14:49:16.456187 17696 net.cpp:148] Top shape: 100 256 13 13 (4326400)
I0403 14:49:16.456205 17696 net.cpp:156] Memory required for data: 679564400
I0403 14:49:16.456224 17696 layer_factory.hpp:77] Creating layer conv3
I0403 14:49:16.456253 17696 net.cpp:91] Creating Layer conv3
I0403 14:49:16.456274 17696 net.cpp:425] conv3 <- pool2
I0403 14:49:16.456298 17696 net.cpp:399] conv3 -> conv3
I0403 14:49:16.503355 17696 net.cpp:141] Setting up conv3
I0403 14:49:16.503424 17696 net.cpp:148] Top shape: 100 384 13 13 (6489600)
I0403 14:49:16.503446 17696 net.cpp:156] Memory required for data: 705522800
I0403 14:49:16.503475 17696 layer_factory.hpp:77] Creating layer relu3
I0403 14:49:16.503500 17696 net.cpp:91] Creating Layer relu3
I0403 14:49:16.503521 17696 net.cpp:425] relu3 <- conv3
I0403 14:49:16.503543 17696 net.cpp:386] relu3 -> conv3 (in-place)
I0403 14:49:16.503870 17696 net.cpp:141] Setting up relu3
I0403 14:49:16.503906 17696 net.cpp:148] Top shape: 100 384 13 13 (6489600)
I0403 14:49:16.503923 17696 net.cpp:156] Memory required for data: 731481200
I0403 14:49:16.503942 17696 layer_factory.hpp:77] Creating layer conv4
I0403 14:49:16.503971 17696 net.cpp:91] Creating Layer conv4
I0403 14:49:16.503991 17696 net.cpp:425] conv4 <- conv3
I0403 14:49:16.504016 17696 net.cpp:399] conv4 -> conv4
I0403 14:49:16.540261 17696 net.cpp:141] Setting up conv4
I0403 14:49:16.540319 17696 net.cpp:148] Top shape: 100 384 13 13 (6489600)
I0403 14:49:16.540377 17696 net.cpp:156] Memory required for data: 757439600
I0403 14:49:16.540402 17696 layer_factory.hpp:77] Creating layer relu4
I0403 14:49:16.540427 17696 net.cpp:91] Creating Layer relu4
I0403 14:49:16.540447 17696 net.cpp:425] relu4 <- conv4
I0403 14:49:16.540470 17696 net.cpp:386] relu4 -> conv4 (in-place)
I0403 14:49:16.540802 17696 net.cpp:141] Setting up relu4
I0403 14:49:16.540834 17696 net.cpp:148] Top shape: 100 384 13 13 (6489600)
I0403 14:49:16.540858 17696 net.cpp:156] Memory required for data: 783398000
I0403 14:49:16.540876 17696 layer_factory.hpp:77] Creating layer conv5
I0403 14:49:16.540904 17696 net.cpp:91] Creating Layer conv5
I0403 14:49:16.540925 17696 net.cpp:425] conv5 <- conv4
I0403 14:49:16.540949 17696 net.cpp:399] conv5 -> conv5
I0403 14:49:16.565901 17696 net.cpp:141] Setting up conv5
I0403 14:49:16.565946 17696 net.cpp:148] Top shape: 100 256 13 13 (4326400)
I0403 14:49:16.565968 17696 net.cpp:156] Memory required for data: 800703600
I0403 14:49:16.565999 17696 layer_factory.hpp:77] Creating layer relu5
I0403 14:49:16.566027 17696 net.cpp:91] Creating Layer relu5
I0403 14:49:16.566052 17696 net.cpp:425] relu5 <- conv5
I0403 14:49:16.566081 17696 net.cpp:386] relu5 -> conv5 (in-place)
I0403 14:49:16.566411 17696 net.cpp:141] Setting up relu5
I0403 14:49:16.566453 17696 net.cpp:148] Top shape: 100 256 13 13 (4326400)
I0403 14:49:16.566495 17696 net.cpp:156] Memory required for data: 818009200
I0403 14:49:16.566521 17696 layer_factory.hpp:77] Creating layer pool5
I0403 14:49:16.566555 17696 net.cpp:91] Creating Layer pool5
I0403 14:49:16.566581 17696 net.cpp:425] pool5 <- conv5
I0403 14:49:16.566614 17696 net.cpp:399] pool5 -> pool5
I0403 14:49:16.566699 17696 net.cpp:141] Setting up pool5
I0403 14:49:16.566738 17696 net.cpp:148] Top shape: 100 256 6 6 (921600)
I0403 14:49:16.566776 17696 net.cpp:156] Memory required for data: 821695600
I0403 14:49:16.566797 17696 layer_factory.hpp:77] Creating layer fc6
I0403 14:49:16.566830 17696 net.cpp:91] Creating Layer fc6
I0403 14:49:16.566860 17696 net.cpp:425] fc6 <- pool5
I0403 14:49:16.566890 17696 net.cpp:399] fc6 -> fc6
I0403 14:49:18.446337 17696 net.cpp:141] Setting up fc6
I0403 14:49:18.446427 17696 net.cpp:148] Top shape: 100 4096 (409600)
I0403 14:49:18.446444 17696 net.cpp:156] Memory required for data: 823334000
I0403 14:49:18.446465 17696 layer_factory.hpp:77] Creating layer relu6
I0403 14:49:18.446486 17696 net.cpp:91] Creating Layer relu6
I0403 14:49:18.446502 17696 net.cpp:425] relu6 <- fc6
I0403 14:49:18.446521 17696 net.cpp:386] relu6 -> fc6 (in-place)
I0403 14:49:18.446740 17696 net.cpp:141] Setting up relu6
I0403 14:49:18.446766 17696 net.cpp:148] Top shape: 100 4096 (409600)
I0403 14:49:18.446781 17696 net.cpp:156] Memory required for data: 824972400
I0403 14:49:18.446795 17696 layer_factory.hpp:77] Creating layer drop6
I0403 14:49:18.446813 17696 net.cpp:91] Creating Layer drop6
I0403 14:49:18.446828 17696 net.cpp:425] drop6 <- fc6
I0403 14:49:18.446846 17696 net.cpp:386] drop6 -> fc6 (in-place)
I0403 14:49:18.446897 17696 net.cpp:141] Setting up drop6
I0403 14:49:18.446918 17696 net.cpp:148] Top shape: 100 4096 (409600)
I0403 14:49:18.446930 17696 net.cpp:156] Memory required for data: 826610800
I0403 14:49:18.446944 17696 layer_factory.hpp:77] Creating layer fc7
I0403 14:49:18.446972 17696 net.cpp:91] Creating Layer fc7
I0403 14:49:18.446990 17696 net.cpp:425] fc7 <- fc6
I0403 14:49:18.447008 17696 net.cpp:399] fc7 -> fc7
I0403 14:49:19.647531 17696 net.cpp:141] Setting up fc7
I0403 14:49:19.647574 17696 net.cpp:148] Top shape: 100 4096 (409600)
I0403 14:49:19.647591 17696 net.cpp:156] Memory required for data: 828249200
I0403 14:49:19.647611 17696 layer_factory.hpp:77] Creating layer relu7
I0403 14:49:19.647630 17696 net.cpp:91] Creating Layer relu7
I0403 14:49:19.647646 17696 net.cpp:425] relu7 <- fc7
I0403 14:49:19.647663 17696 net.cpp:386] relu7 -> fc7 (in-place)
I0403 14:49:19.648010 17696 net.cpp:141] Setting up relu7
I0403 14:49:19.648038 17696 net.cpp:148] Top shape: 100 4096 (409600)
I0403 14:49:19.648075 17696 net.cpp:156] Memory required for data: 829887600
I0403 14:49:19.648090 17696 layer_factory.hpp:77] Creating layer drop7
I0403 14:49:19.648108 17696 net.cpp:91] Creating Layer drop7
I0403 14:49:19.648124 17696 net.cpp:425] drop7 <- fc7
I0403 14:49:19.648140 17696 net.cpp:386] drop7 -> fc7 (in-place)
I0403 14:49:19.648183 17696 net.cpp:141] Setting up drop7
I0403 14:49:19.648205 17696 net.cpp:148] Top shape: 100 4096 (409600)
I0403 14:49:19.648221 17696 net.cpp:156] Memory required for data: 831526000
I0403 14:49:19.648234 17696 layer_factory.hpp:77] Creating layer fc8_plantvillage
I0403 14:49:19.648255 17696 net.cpp:91] Creating Layer fc8_plantvillage
I0403 14:49:19.648272 17696 net.cpp:425] fc8_plantvillage <- fc7
I0403 14:49:19.648289 17696 net.cpp:399] fc8_plantvillage -> fc8_plantvillage
I0403 14:49:19.655133 17696 net.cpp:141] Setting up fc8_plantvillage
I0403 14:49:19.655160 17696 net.cpp:148] Top shape: 100 38 (3800)
I0403 14:49:19.655175 17696 net.cpp:156] Memory required for data: 831541200
I0403 14:49:19.655192 17696 layer_factory.hpp:77] Creating layer fc8_plantvillage_fc8_plantvillage_0_split
I0403 14:49:19.655210 17696 net.cpp:91] Creating Layer fc8_plantvillage_fc8_plantvillage_0_split
I0403 14:49:19.655225 17696 net.cpp:425] fc8_plantvillage_fc8_plantvillage_0_split <- fc8_plantvillage
I0403 14:49:19.655246 17696 net.cpp:399] fc8_plantvillage_fc8_plantvillage_0_split -> fc8_plantvillage_fc8_plantvillage_0_split_0
I0403 14:49:19.655267 17696 net.cpp:399] fc8_plantvillage_fc8_plantvillage_0_split -> fc8_plantvillage_fc8_plantvillage_0_split_1
I0403 14:49:19.655285 17696 net.cpp:399] fc8_plantvillage_fc8_plantvillage_0_split -> fc8_plantvillage_fc8_plantvillage_0_split_2
I0403 14:49:19.655357 17696 net.cpp:141] Setting up fc8_plantvillage_fc8_plantvillage_0_split
I0403 14:49:19.655380 17696 net.cpp:148] Top shape: 100 38 (3800)
I0403 14:49:19.655395 17696 net.cpp:148] Top shape: 100 38 (3800)
I0403 14:49:19.655410 17696 net.cpp:148] Top shape: 100 38 (3800)
I0403 14:49:19.655422 17696 net.cpp:156] Memory required for data: 831586800
I0403 14:49:19.655436 17696 layer_factory.hpp:77] Creating layer prob
I0403 14:49:19.655454 17696 net.cpp:91] Creating Layer prob
I0403 14:49:19.655469 17696 net.cpp:425] prob <- fc8_plantvillage_fc8_plantvillage_0_split_0
I0403 14:49:19.655486 17696 net.cpp:399] prob -> prob
I0403 14:49:19.655697 17696 net.cpp:141] Setting up prob
I0403 14:49:19.655725 17696 net.cpp:148] Top shape: 100 38 (3800)
I0403 14:49:19.655740 17696 net.cpp:156] Memory required for data: 831602000
I0403 14:49:19.655753 17696 layer_factory.hpp:77] Creating layer hdf5out
I0403 14:49:19.655771 17696 net.cpp:91] Creating Layer hdf5out
I0403 14:49:19.655786 17696 net.cpp:425] hdf5out <- prob
I0403 14:49:19.655802 17696 net.cpp:425] hdf5out <- label_data_1_split_0
I0403 14:49:19.657975 17696 net.cpp:141] Setting up hdf5out
…
