…
I0403 14:41:38.779640 17383 net.cpp:313] The NetState phase (1) differed from the phase (0) specified by a rule in layer data
I0403 14:41:38.779932 17383 net.cpp:49] Initializing net from parameters: 
state {
  phase: TEST
}
layer {
  name: "data"
  type: "Data"
  top: "data"
  top: "label"
  include {
    phase: TEST
  }
  transform_param {
    crop_size: 227
    mean_file: "/home/mohanty/data/final_dataset/lmdb/grayscale-40-60/mean.binaryproto"
  }
  data_param {
    source: "/home/mohanty/data/final_dataset/lmdb/grayscale-40-60/test_db"
    batch_size: 100
    backend: LMDB
  }
}
layer {
  name: "conv1"
  type: "Convolution"
  bottom: "data"
  top: "conv1"
  param {
    lr_mult: 1
    decay_mult: 1
  }
  param {
    lr_mult: 2
    decay_mult: 0
  }
  convolution_param {
    num_output: 96
    kernel_size: 11
    stride: 4
    weight_filler {
      type: "gaussian"
      std: 0.01
    }
    bias_filler {
      type: "constant"
      value: 0
    }
  }
}
layer {
  name: "relu1"
  type: "ReLU"
  bottom: "conv1"
  top: "conv1"
}
layer {
  name: "norm1"
  type: "LRN"
  bottom: "conv1"
  top: "norm1"
  lrn_param {
    local_size: 5
    alpha: 0.0001
    beta: 0.75
  }
}
layer {
  name: "pool1"
  type: "Pooling"
  bottom: "norm1"
  top: "pool1"
  pooling_param {
    pool: MAX
    kernel_size: 3
    stride: 2
  }
}
layer {
  name: "conv2"
  type: "Convolution"
  bottom: "pool1"
  top: "conv2"
  param {
    lr_mult: 1
    decay_mult: 1
  }
  param {
    lr_mult: 2
    decay_mult: 0
  }
  convolution_param {
    num_output: 256
    pad: 2
    kernel_size: 5
    group: 2
    weight_filler {
      type: "gaussian"
      std: 0.01
    }
    bias_filler {
      type: "constant"
      value: 0.1
    }
  }
}
layer {
  name: "relu2"
  type: "ReLU"
  bottom: "conv2"
  top: "conv2"
}
layer {
  name: "norm2"
  type: "LRN"
  bottom: "conv2"
  top: "norm2"
  lrn_param {
    local_size: 5
    alpha: 0.0001
    beta: 0.75
  }
}
layer {
  name: "pool2"
  type: "Pooling"
  bottom: "norm2"
  top: "pool2"
  pooling_param {
    pool: MAX
    kernel_size: 3
    stride: 2
  }
}
layer {
  name: "conv3"
  type: "Convolution"
  bottom: "pool2"
  top: "conv3"
  param {
    lr_mult: 1
    decay_mult: 1
  }
  param {
    lr_mult: 2
    decay_mult: 0
  }
  convolution_param {
    num_output: 384
    pad: 1
    kernel_size: 3
    weight_filler {
      type: "gaussian"
      std: 0.01
    }
    bias_filler {
      type: "constant"
      value: 0
    }
  }
}
layer {
  name: "relu3"
  type: "ReLU"
  bottom: "conv3"
  top: "conv3"
}
layer {
  name: "conv4"
  type: "Convolution"
  bottom: "conv3"
  top: "conv4"
  param {
    lr_mult: 1
    decay_mult: 1
  }
  param {
    lr_mult: 2
    decay_mult: 0
  }
  convolution_param {
    num_output: 384
    pad: 1
    kernel_size: 3
    group: 2
    weight_filler {
      type: "gaussian"
      std: 0.01
    }
    bias_filler {
      type: "constant"
      value: 0.1
    }
  }
}
layer {
  name: "relu4"
  type: "ReLU"
  bottom: "conv4"
  top: "conv4"
}
layer {
  name: "conv5"
  type: "Convolution"
  bottom: "conv4"
  top: "conv5"
  param {
    lr_mult: 1
    decay_mult: 1
  }
  param {
    lr_mult: 2
    decay_mult: 0
  }
  convolution_param {
    num_output: 256
    pad: 1
    kernel_size: 3
    group: 2
    weight_filler {
      type: "gaussian"
      std: 0.01
    }
    bias_filler {
      type: "constant"
      value: 0.1
    }
  }
}
layer {
  name: "relu5"
  type: "ReLU"
  bottom: "conv5"
  top: "conv5"
}
layer {
  name: "pool5"
  type: "Pooling"
  bottom: "conv5"
  top: "pool5"
  pooling_param {
    pool: MAX
    kernel_size: 3
    stride: 2
  }
}
layer {
  name: "fc6"
  type: "InnerProduct"
  bottom: "pool5"
  top: "fc6"
  param {
    lr_mult: 1
    decay_mult: 1
  }
  param {
    lr_mult: 2
    decay_mult: 0
  }
  inner_product_param {
    num_output: 4096
    weight_filler {
      type: "gaussian"
      std: 0.005
    }
    bias_filler {
      type: "constant"
      value: 0.1
    }
  }
}
layer {
  name: "relu6"
  type: "ReLU"
  bottom: "fc6"
  top: "fc6"
}
layer {
  name: "drop6"
  type: "Dropout"
  bottom: "fc6"
  top: "fc6"
  dropout_param {
    dropout_ratio: 0.5
  }
}
layer {
  name: "fc7"
  type: "InnerProduct"
  bottom: "fc6"
  top: "fc7"
  param {
    lr_mult: 1
    decay_mult: 1
  }
  param {
    lr_mult: 2
    decay_mult: 0
  }
  inner_product_param {
    num_output: 4096
    weight_filler {
      type: "gaussian"
      std: 0.005
    }
    bias_filler {
      type: "constant"
      value: 0.1
    }
  }
}
layer {
  name: "relu7"
  type: "ReLU"
  bottom: "fc7"
  top: "fc7"
}
layer {
  name: "drop7"
  type: "Dropout"
  bottom: "fc7"
  top: "fc7"
  dropout_param {
    dropout_ratio: 0.5
  }
}
layer {
  name: "fc8_plantvillage"
  type: "InnerProduct"
  bottom: "fc7"
  top: "fc8_plantvillage"
  param {
    lr_mult: 1
    decay_mult: 1
  }
  param {
    lr_mult: 2
    decay_mult: 0
  }
  inner_product_param {
    num_output: 38
    weight_filler {
      type: "gaussian"
      std: 0.01
    }
    bias_filler {
      type: "constant"
      value: 0
    }
  }
}
layer {
  name: "prob"
  type: "Softmax"
  bottom: "fc8_plantvillage"
  top: "prob"
  include {
    phase: TEST
  }
}
layer {
  name: "hdf5out"
  type: "HDF5Output"
  bottom: "prob"
  bottom: "label"
  include {
    phase: TEST
  }
  hdf5_output_param {
    file_name: "hdf5_dumps/iter_3285.h5"
  }
}
layer {
  name: "loss"
  type: "SoftmaxWithLoss"
  bottom: "fc8_plantvillage"
  bottom: "label"
  top: "loss"
}
layer {
  name: "accuracy"
  type: "Accuracy"
  bottom: "fc8_plantvillage"
  bottom: "label"
  top: "accuracy"
  include {
    phase: TEST
  }
}
I0403 14:41:38.780580 17383 layer_factory.hpp:77] Creating layer data
I0403 14:41:38.781229 17383 net.cpp:91] Creating Layer data
I0403 14:41:38.781262 17383 net.cpp:399] data -> data
I0403 14:41:38.781312 17383 net.cpp:399] data -> label
I0403 14:41:38.781348 17383 data_transformer.cpp:25] Loading mean file from: /home/mohanty/data/final_dataset/lmdb/grayscale-40-60/mean.binaryproto
I0403 14:41:38.784687 17386 db_lmdb.cpp:38] Opened lmdb /home/mohanty/data/final_dataset/lmdb/grayscale-40-60/test_db
I0403 14:41:38.795951 17383 data_layer.cpp:41] output data size: 100,3,227,227
I0403 14:41:38.916213 17383 net.cpp:141] Setting up data
I0403 14:41:38.916329 17383 net.cpp:148] Top shape: 100 3 227 227 (15458700)
I0403 14:41:38.916353 17383 net.cpp:148] Top shape: 100 (100)
I0403 14:41:38.916369 17383 net.cpp:156] Memory required for data: 61835200
I0403 14:41:38.916399 17383 layer_factory.hpp:77] Creating layer label_data_1_split
I0403 14:41:38.916426 17383 net.cpp:91] Creating Layer label_data_1_split
I0403 14:41:38.916445 17383 net.cpp:425] label_data_1_split <- label
I0403 14:41:38.916476 17383 net.cpp:399] label_data_1_split -> label_data_1_split_0
I0403 14:41:38.916504 17383 net.cpp:399] label_data_1_split -> label_data_1_split_1
I0403 14:41:38.916525 17383 net.cpp:399] label_data_1_split -> label_data_1_split_2
I0403 14:41:38.916591 17383 net.cpp:141] Setting up label_data_1_split
I0403 14:41:38.916622 17383 net.cpp:148] Top shape: 100 (100)
I0403 14:41:38.916640 17383 net.cpp:148] Top shape: 100 (100)
I0403 14:41:38.916656 17383 net.cpp:148] Top shape: 100 (100)
I0403 14:41:38.916671 17383 net.cpp:156] Memory required for data: 61836400
I0403 14:41:38.916685 17383 layer_factory.hpp:77] Creating layer conv1
I0403 14:41:38.916717 17383 net.cpp:91] Creating Layer conv1
I0403 14:41:38.916735 17383 net.cpp:425] conv1 <- data
I0403 14:41:38.916754 17383 net.cpp:399] conv1 -> conv1
I0403 14:41:39.058662 17383 net.cpp:141] Setting up conv1
I0403 14:41:39.058754 17383 net.cpp:148] Top shape: 100 96 55 55 (29040000)
I0403 14:41:39.058771 17383 net.cpp:156] Memory required for data: 177996400
I0403 14:41:39.058804 17383 layer_factory.hpp:77] Creating layer relu1
I0403 14:41:39.058830 17383 net.cpp:91] Creating Layer relu1
I0403 14:41:39.058848 17383 net.cpp:425] relu1 <- conv1
I0403 14:41:39.058866 17383 net.cpp:386] relu1 -> conv1 (in-place)
I0403 14:41:39.059149 17383 net.cpp:141] Setting up relu1
I0403 14:41:39.059177 17383 net.cpp:148] Top shape: 100 96 55 55 (29040000)
I0403 14:41:39.059224 17383 net.cpp:156] Memory required for data: 294156400
I0403 14:41:39.059240 17383 layer_factory.hpp:77] Creating layer norm1
I0403 14:41:39.059278 17383 net.cpp:91] Creating Layer norm1
I0403 14:41:39.059295 17383 net.cpp:425] norm1 <- conv1
I0403 14:41:39.059314 17383 net.cpp:399] norm1 -> norm1
I0403 14:41:39.059648 17383 net.cpp:141] Setting up norm1
I0403 14:41:39.059676 17383 net.cpp:148] Top shape: 100 96 55 55 (29040000)
I0403 14:41:39.059692 17383 net.cpp:156] Memory required for data: 410316400
I0403 14:41:39.059708 17383 layer_factory.hpp:77] Creating layer pool1
I0403 14:41:39.059731 17383 net.cpp:91] Creating Layer pool1
I0403 14:41:39.059748 17383 net.cpp:425] pool1 <- norm1
I0403 14:41:39.059768 17383 net.cpp:399] pool1 -> pool1
I0403 14:41:39.059840 17383 net.cpp:141] Setting up pool1
I0403 14:41:39.059867 17383 net.cpp:148] Top shape: 100 96 27 27 (6998400)
I0403 14:41:39.059883 17383 net.cpp:156] Memory required for data: 438310000
I0403 14:41:39.059898 17383 layer_factory.hpp:77] Creating layer conv2
I0403 14:41:39.059926 17383 net.cpp:91] Creating Layer conv2
I0403 14:41:39.059944 17383 net.cpp:425] conv2 <- pool1
I0403 14:41:39.059962 17383 net.cpp:399] conv2 -> conv2
I0403 14:41:39.075287 17383 net.cpp:141] Setting up conv2
I0403 14:41:39.075346 17383 net.cpp:148] Top shape: 100 256 27 27 (18662400)
I0403 14:41:39.075363 17383 net.cpp:156] Memory required for data: 512959600
I0403 14:41:39.075386 17383 layer_factory.hpp:77] Creating layer relu2
I0403 14:41:39.075405 17383 net.cpp:91] Creating Layer relu2
I0403 14:41:39.075423 17383 net.cpp:425] relu2 <- conv2
I0403 14:41:39.075444 17383 net.cpp:386] relu2 -> conv2 (in-place)
I0403 14:41:39.075774 17383 net.cpp:141] Setting up relu2
I0403 14:41:39.075804 17383 net.cpp:148] Top shape: 100 256 27 27 (18662400)
I0403 14:41:39.075820 17383 net.cpp:156] Memory required for data: 587609200
I0403 14:41:39.075836 17383 layer_factory.hpp:77] Creating layer norm2
I0403 14:41:39.075860 17383 net.cpp:91] Creating Layer norm2
I0403 14:41:39.075878 17383 net.cpp:425] norm2 <- conv2
I0403 14:41:39.075896 17383 net.cpp:399] norm2 -> norm2
I0403 14:41:39.076105 17383 net.cpp:141] Setting up norm2
I0403 14:41:39.076133 17383 net.cpp:148] Top shape: 100 256 27 27 (18662400)
I0403 14:41:39.076148 17383 net.cpp:156] Memory required for data: 662258800
I0403 14:41:39.076161 17383 layer_factory.hpp:77] Creating layer pool2
I0403 14:41:39.076180 17383 net.cpp:91] Creating Layer pool2
I0403 14:41:39.076196 17383 net.cpp:425] pool2 <- norm2
I0403 14:41:39.076216 17383 net.cpp:399] pool2 -> pool2
I0403 14:41:39.076269 17383 net.cpp:141] Setting up pool2
I0403 14:41:39.076293 17383 net.cpp:148] Top shape: 100 256 13 13 (4326400)
I0403 14:41:39.076308 17383 net.cpp:156] Memory required for data: 679564400
I0403 14:41:39.076321 17383 layer_factory.hpp:77] Creating layer conv3
I0403 14:41:39.076346 17383 net.cpp:91] Creating Layer conv3
I0403 14:41:39.076364 17383 net.cpp:425] conv3 <- pool2
I0403 14:41:39.076381 17383 net.cpp:399] conv3 -> conv3
I0403 14:41:39.118108 17383 net.cpp:141] Setting up conv3
I0403 14:41:39.118160 17383 net.cpp:148] Top shape: 100 384 13 13 (6489600)
I0403 14:41:39.118175 17383 net.cpp:156] Memory required for data: 705522800
I0403 14:41:39.118201 17383 layer_factory.hpp:77] Creating layer relu3
I0403 14:41:39.118222 17383 net.cpp:91] Creating Layer relu3
I0403 14:41:39.118250 17383 net.cpp:425] relu3 <- conv3
I0403 14:41:39.118273 17383 net.cpp:386] relu3 -> conv3 (in-place)
I0403 14:41:39.118551 17383 net.cpp:141] Setting up relu3
I0403 14:41:39.118590 17383 net.cpp:148] Top shape: 100 384 13 13 (6489600)
I0403 14:41:39.118605 17383 net.cpp:156] Memory required for data: 731481200
I0403 14:41:39.118619 17383 layer_factory.hpp:77] Creating layer conv4
I0403 14:41:39.118644 17383 net.cpp:91] Creating Layer conv4
I0403 14:41:39.118661 17383 net.cpp:425] conv4 <- conv3
I0403 14:41:39.118682 17383 net.cpp:399] conv4 -> conv4
I0403 14:41:39.149070 17383 net.cpp:141] Setting up conv4
I0403 14:41:39.149158 17383 net.cpp:148] Top shape: 100 384 13 13 (6489600)
I0403 14:41:39.149209 17383 net.cpp:156] Memory required for data: 757439600
I0403 14:41:39.149231 17383 layer_factory.hpp:77] Creating layer relu4
I0403 14:41:39.149267 17383 net.cpp:91] Creating Layer relu4
I0403 14:41:39.149284 17383 net.cpp:425] relu4 <- conv4
I0403 14:41:39.149307 17383 net.cpp:386] relu4 -> conv4 (in-place)
I0403 14:41:39.149585 17383 net.cpp:141] Setting up relu4
I0403 14:41:39.149616 17383 net.cpp:148] Top shape: 100 384 13 13 (6489600)
I0403 14:41:39.149632 17383 net.cpp:156] Memory required for data: 783398000
I0403 14:41:39.149647 17383 layer_factory.hpp:77] Creating layer conv5
I0403 14:41:39.149672 17383 net.cpp:91] Creating Layer conv5
I0403 14:41:39.149691 17383 net.cpp:425] conv5 <- conv4
I0403 14:41:39.149711 17383 net.cpp:399] conv5 -> conv5
I0403 14:41:39.170613 17383 net.cpp:141] Setting up conv5
I0403 14:41:39.170666 17383 net.cpp:148] Top shape: 100 256 13 13 (4326400)
I0403 14:41:39.170683 17383 net.cpp:156] Memory required for data: 800703600
I0403 14:41:39.170707 17383 layer_factory.hpp:77] Creating layer relu5
I0403 14:41:39.170727 17383 net.cpp:91] Creating Layer relu5
I0403 14:41:39.170745 17383 net.cpp:425] relu5 <- conv5
I0403 14:41:39.170765 17383 net.cpp:386] relu5 -> conv5 (in-place)
I0403 14:41:39.171054 17383 net.cpp:141] Setting up relu5
I0403 14:41:39.171083 17383 net.cpp:148] Top shape: 100 256 13 13 (4326400)
I0403 14:41:39.171100 17383 net.cpp:156] Memory required for data: 818009200
I0403 14:41:39.171116 17383 layer_factory.hpp:77] Creating layer pool5
I0403 14:41:39.171145 17383 net.cpp:91] Creating Layer pool5
I0403 14:41:39.171164 17383 net.cpp:425] pool5 <- conv5
I0403 14:41:39.171182 17383 net.cpp:399] pool5 -> pool5
I0403 14:41:39.171244 17383 net.cpp:141] Setting up pool5
I0403 14:41:39.171268 17383 net.cpp:148] Top shape: 100 256 6 6 (921600)
I0403 14:41:39.171284 17383 net.cpp:156] Memory required for data: 821695600
I0403 14:41:39.171298 17383 layer_factory.hpp:77] Creating layer fc6
I0403 14:41:39.171324 17383 net.cpp:91] Creating Layer fc6
I0403 14:41:39.171341 17383 net.cpp:425] fc6 <- pool5
I0403 14:41:39.171362 17383 net.cpp:399] fc6 -> fc6
I0403 14:41:40.726774 17383 net.cpp:141] Setting up fc6
I0403 14:41:40.726866 17383 net.cpp:148] Top shape: 100 4096 (409600)
I0403 14:41:40.726882 17383 net.cpp:156] Memory required for data: 823334000
I0403 14:41:40.726903 17383 layer_factory.hpp:77] Creating layer relu6
I0403 14:41:40.726927 17383 net.cpp:91] Creating Layer relu6
I0403 14:41:40.726944 17383 net.cpp:425] relu6 <- fc6
I0403 14:41:40.726963 17383 net.cpp:386] relu6 -> fc6 (in-place)
I0403 14:41:40.727197 17383 net.cpp:141] Setting up relu6
I0403 14:41:40.727223 17383 net.cpp:148] Top shape: 100 4096 (409600)
I0403 14:41:40.727237 17383 net.cpp:156] Memory required for data: 824972400
I0403 14:41:40.727252 17383 layer_factory.hpp:77] Creating layer drop6
I0403 14:41:40.727272 17383 net.cpp:91] Creating Layer drop6
I0403 14:41:40.727288 17383 net.cpp:425] drop6 <- fc6
I0403 14:41:40.727309 17383 net.cpp:386] drop6 -> fc6 (in-place)
I0403 14:41:40.727361 17383 net.cpp:141] Setting up drop6
I0403 14:41:40.727386 17383 net.cpp:148] Top shape: 100 4096 (409600)
I0403 14:41:40.727402 17383 net.cpp:156] Memory required for data: 826610800
I0403 14:41:40.727416 17383 layer_factory.hpp:77] Creating layer fc7
I0403 14:41:40.727437 17383 net.cpp:91] Creating Layer fc7
I0403 14:41:40.727452 17383 net.cpp:425] fc7 <- fc6
I0403 14:41:40.727470 17383 net.cpp:399] fc7 -> fc7
I0403 14:41:41.419127 17383 net.cpp:141] Setting up fc7
I0403 14:41:41.419168 17383 net.cpp:148] Top shape: 100 4096 (409600)
I0403 14:41:41.419183 17383 net.cpp:156] Memory required for data: 828249200
I0403 14:41:41.419203 17383 layer_factory.hpp:77] Creating layer relu7
I0403 14:41:41.419224 17383 net.cpp:91] Creating Layer relu7
I0403 14:41:41.419241 17383 net.cpp:425] relu7 <- fc7
I0403 14:41:41.419275 17383 net.cpp:386] relu7 -> fc7 (in-place)
I0403 14:41:41.419678 17383 net.cpp:141] Setting up relu7
I0403 14:41:41.419704 17383 net.cpp:148] Top shape: 100 4096 (409600)
I0403 14:41:41.419735 17383 net.cpp:156] Memory required for data: 829887600
I0403 14:41:41.419751 17383 layer_factory.hpp:77] Creating layer drop7
I0403 14:41:41.419770 17383 net.cpp:91] Creating Layer drop7
I0403 14:41:41.419785 17383 net.cpp:425] drop7 <- fc7
I0403 14:41:41.419803 17383 net.cpp:386] drop7 -> fc7 (in-place)
I0403 14:41:41.419847 17383 net.cpp:141] Setting up drop7
I0403 14:41:41.419867 17383 net.cpp:148] Top shape: 100 4096 (409600)
I0403 14:41:41.419881 17383 net.cpp:156] Memory required for data: 831526000
I0403 14:41:41.419895 17383 layer_factory.hpp:77] Creating layer fc8_plantvillage
I0403 14:41:41.419916 17383 net.cpp:91] Creating Layer fc8_plantvillage
I0403 14:41:41.419931 17383 net.cpp:425] fc8_plantvillage <- fc7
I0403 14:41:41.419951 17383 net.cpp:399] fc8_plantvillage -> fc8_plantvillage
I0403 14:41:41.426623 17383 net.cpp:141] Setting up fc8_plantvillage
I0403 14:41:41.426651 17383 net.cpp:148] Top shape: 100 38 (3800)
I0403 14:41:41.426666 17383 net.cpp:156] Memory required for data: 831541200
I0403 14:41:41.426683 17383 layer_factory.hpp:77] Creating layer fc8_plantvillage_fc8_plantvillage_0_split
I0403 14:41:41.426702 17383 net.cpp:91] Creating Layer fc8_plantvillage_fc8_plantvillage_0_split
I0403 14:41:41.426715 17383 net.cpp:425] fc8_plantvillage_fc8_plantvillage_0_split <- fc8_plantvillage
I0403 14:41:41.426733 17383 net.cpp:399] fc8_plantvillage_fc8_plantvillage_0_split -> fc8_plantvillage_fc8_plantvillage_0_split_0
I0403 14:41:41.426753 17383 net.cpp:399] fc8_plantvillage_fc8_plantvillage_0_split -> fc8_plantvillage_fc8_plantvillage_0_split_1
I0403 14:41:41.426772 17383 net.cpp:399] fc8_plantvillage_fc8_plantvillage_0_split -> fc8_plantvillage_fc8_plantvillage_0_split_2
I0403 14:41:41.426848 17383 net.cpp:141] Setting up fc8_plantvillage_fc8_plantvillage_0_split
I0403 14:41:41.426870 17383 net.cpp:148] Top shape: 100 38 (3800)
I0403 14:41:41.426887 17383 net.cpp:148] Top shape: 100 38 (3800)
I0403 14:41:41.426900 17383 net.cpp:148] Top shape: 100 38 (3800)
I0403 14:41:41.426913 17383 net.cpp:156] Memory required for data: 831586800
I0403 14:41:41.426928 17383 layer_factory.hpp:77] Creating layer prob
I0403 14:41:41.426945 17383 net.cpp:91] Creating Layer prob
I0403 14:41:41.426959 17383 net.cpp:425] prob <- fc8_plantvillage_fc8_plantvillage_0_split_0
I0403 14:41:41.426978 17383 net.cpp:399] prob -> prob
I0403 14:41:41.427232 17383 net.cpp:141] Setting up prob
I0403 14:41:41.427261 17383 net.cpp:148] Top shape: 100 38 (3800)
I0403 14:41:41.427278 17383 net.cpp:156] Memory required for data: 831602000
I0403 14:41:41.427292 17383 layer_factory.hpp:77] Creating layer hdf5out
I0403 14:41:41.427312 17383 net.cpp:91] Creating Layer hdf5out
I0403 14:41:41.427327 17383 net.cpp:425] hdf5out <- prob
I0403 14:41:41.427356 17383 net.cpp:425] hdf5out <- label_data_1_split_0
I0403 14:41:41.429548 17383 net.cpp:141] Setting up hdf5out
…
