…
I0403 14:50:21.738826 17739 net.cpp:313] The NetState phase (1) differed from the phase (0) specified by a rule in layer data
I0403 14:50:21.739151 17739 net.cpp:49] Initializing net from parameters: 
state {
  phase: TEST
}
layer {
  name: "data"
  type: "Data"
  top: "data"
  top: "label"
  include {
    phase: TEST
  }
  transform_param {
    crop_size: 227
    mean_file: "/home/mohanty/data/final_dataset/lmdb/grayscale-40-60/mean.binaryproto"
  }
  data_param {
    source: "/home/mohanty/data/final_dataset/lmdb/grayscale-40-60/test_db"
    batch_size: 100
    backend: LMDB
  }
}
layer {
  name: "conv1"
  type: "Convolution"
  bottom: "data"
  top: "conv1"
  param {
    lr_mult: 1
    decay_mult: 1
  }
  param {
    lr_mult: 2
    decay_mult: 0
  }
  convolution_param {
    num_output: 96
    kernel_size: 11
    stride: 4
    weight_filler {
      type: "gaussian"
      std: 0.01
    }
    bias_filler {
      type: "constant"
      value: 0
    }
  }
}
layer {
  name: "relu1"
  type: "ReLU"
  bottom: "conv1"
  top: "conv1"
}
layer {
  name: "norm1"
  type: "LRN"
  bottom: "conv1"
  top: "norm1"
  lrn_param {
    local_size: 5
    alpha: 0.0001
    beta: 0.75
  }
}
layer {
  name: "pool1"
  type: "Pooling"
  bottom: "norm1"
  top: "pool1"
  pooling_param {
    pool: MAX
    kernel_size: 3
    stride: 2
  }
}
layer {
  name: "conv2"
  type: "Convolution"
  bottom: "pool1"
  top: "conv2"
  param {
    lr_mult: 1
    decay_mult: 1
  }
  param {
    lr_mult: 2
    decay_mult: 0
  }
  convolution_param {
    num_output: 256
    pad: 2
    kernel_size: 5
    group: 2
    weight_filler {
      type: "gaussian"
      std: 0.01
    }
    bias_filler {
      type: "constant"
      value: 0.1
    }
  }
}
layer {
  name: "relu2"
  type: "ReLU"
  bottom: "conv2"
  top: "conv2"
}
layer {
  name: "norm2"
  type: "LRN"
  bottom: "conv2"
  top: "norm2"
  lrn_param {
    local_size: 5
    alpha: 0.0001
    beta: 0.75
  }
}
layer {
  name: "pool2"
  type: "Pooling"
  bottom: "norm2"
  top: "pool2"
  pooling_param {
    pool: MAX
    kernel_size: 3
    stride: 2
  }
}
layer {
  name: "conv3"
  type: "Convolution"
  bottom: "pool2"
  top: "conv3"
  param {
    lr_mult: 1
    decay_mult: 1
  }
  param {
    lr_mult: 2
    decay_mult: 0
  }
  convolution_param {
    num_output: 384
    pad: 1
    kernel_size: 3
    weight_filler {
      type: "gaussian"
      std: 0.01
    }
    bias_filler {
      type: "constant"
      value: 0
    }
  }
}
layer {
  name: "relu3"
  type: "ReLU"
  bottom: "conv3"
  top: "conv3"
}
layer {
  name: "conv4"
  type: "Convolution"
  bottom: "conv3"
  top: "conv4"
  param {
    lr_mult: 1
    decay_mult: 1
  }
  param {
    lr_mult: 2
    decay_mult: 0
  }
  convolution_param {
    num_output: 384
    pad: 1
    kernel_size: 3
    group: 2
    weight_filler {
      type: "gaussian"
      std: 0.01
    }
    bias_filler {
      type: "constant"
      value: 0.1
    }
  }
}
layer {
  name: "relu4"
  type: "ReLU"
  bottom: "conv4"
  top: "conv4"
}
layer {
  name: "conv5"
  type: "Convolution"
  bottom: "conv4"
  top: "conv5"
  param {
    lr_mult: 1
    decay_mult: 1
  }
  param {
    lr_mult: 2
    decay_mult: 0
  }
  convolution_param {
    num_output: 256
    pad: 1
    kernel_size: 3
    group: 2
    weight_filler {
      type: "gaussian"
      std: 0.01
    }
    bias_filler {
      type: "constant"
      value: 0.1
    }
  }
}
layer {
  name: "relu5"
  type: "ReLU"
  bottom: "conv5"
  top: "conv5"
}
layer {
  name: "pool5"
  type: "Pooling"
  bottom: "conv5"
  top: "pool5"
  pooling_param {
    pool: MAX
    kernel_size: 3
    stride: 2
  }
}
layer {
  name: "fc6"
  type: "InnerProduct"
  bottom: "pool5"
  top: "fc6"
  param {
    lr_mult: 1
    decay_mult: 1
  }
  param {
    lr_mult: 2
    decay_mult: 0
  }
  inner_product_param {
    num_output: 4096
    weight_filler {
      type: "gaussian"
      std: 0.005
    }
    bias_filler {
      type: "constant"
      value: 0.1
    }
  }
}
layer {
  name: "relu6"
  type: "ReLU"
  bottom: "fc6"
  top: "fc6"
}
layer {
  name: "drop6"
  type: "Dropout"
  bottom: "fc6"
  top: "fc6"
  dropout_param {
    dropout_ratio: 0.5
  }
}
layer {
  name: "fc7"
  type: "InnerProduct"
  bottom: "fc6"
  top: "fc7"
  param {
    lr_mult: 1
    decay_mult: 1
  }
  param {
    lr_mult: 2
    decay_mult: 0
  }
  inner_product_param {
    num_output: 4096
    weight_filler {
      type: "gaussian"
      std: 0.005
    }
    bias_filler {
      type: "constant"
      value: 0.1
    }
  }
}
layer {
  name: "relu7"
  type: "ReLU"
  bottom: "fc7"
  top: "fc7"
}
layer {
  name: "drop7"
  type: "Dropout"
  bottom: "fc7"
  top: "fc7"
  dropout_param {
    dropout_ratio: 0.5
  }
}
layer {
  name: "fc8_plantvillage"
  type: "InnerProduct"
  bottom: "fc7"
  top: "fc8_plantvillage"
  param {
    lr_mult: 1
    decay_mult: 1
  }
  param {
    lr_mult: 2
    decay_mult: 0
  }
  inner_product_param {
    num_output: 38
    weight_filler {
      type: "gaussian"
      std: 0.01
    }
    bias_filler {
      type: "constant"
      value: 0
    }
  }
}
layer {
  name: "prob"
  type: "Softmax"
  bottom: "fc8_plantvillage"
  top: "prob"
  include {
    phase: TEST
  }
}
layer {
  name: "hdf5out"
  type: "HDF5Output"
  bottom: "prob"
  bottom: "label"
  include {
    phase: TEST
  }
  hdf5_output_param {
    file_name: "hdf5_dumps/iter_5037.h5"
  }
}
layer {
  name: "loss"
  type: "SoftmaxWithLoss"
  bottom: "fc8_plantvillage"
  bottom: "label"
  top: "loss"
}
layer {
  name: "accuracy"
  type: "Accuracy"
  bottom: "fc8_plantvillage"
  bottom: "label"
  top: "accuracy"
  include {
    phase: TEST
  }
}
I0403 14:50:21.739745 17739 layer_factory.hpp:77] Creating layer data
I0403 14:50:21.740383 17739 net.cpp:91] Creating Layer data
I0403 14:50:21.740414 17739 net.cpp:399] data -> data
I0403 14:50:21.740466 17739 net.cpp:399] data -> label
I0403 14:50:21.740502 17739 data_transformer.cpp:25] Loading mean file from: /home/mohanty/data/final_dataset/lmdb/grayscale-40-60/mean.binaryproto
I0403 14:50:21.743080 17742 db_lmdb.cpp:38] Opened lmdb /home/mohanty/data/final_dataset/lmdb/grayscale-40-60/test_db
I0403 14:50:21.755278 17739 data_layer.cpp:41] output data size: 100,3,227,227
I0403 14:50:21.874637 17739 net.cpp:141] Setting up data
I0403 14:50:21.874694 17739 net.cpp:148] Top shape: 100 3 227 227 (15458700)
I0403 14:50:21.874718 17739 net.cpp:148] Top shape: 100 (100)
I0403 14:50:21.874733 17739 net.cpp:156] Memory required for data: 61835200
I0403 14:50:21.874760 17739 layer_factory.hpp:77] Creating layer label_data_1_split
I0403 14:50:21.874784 17739 net.cpp:91] Creating Layer label_data_1_split
I0403 14:50:21.874802 17739 net.cpp:425] label_data_1_split <- label
I0403 14:50:21.874833 17739 net.cpp:399] label_data_1_split -> label_data_1_split_0
I0403 14:50:21.874861 17739 net.cpp:399] label_data_1_split -> label_data_1_split_1
I0403 14:50:21.874881 17739 net.cpp:399] label_data_1_split -> label_data_1_split_2
I0403 14:50:21.874943 17739 net.cpp:141] Setting up label_data_1_split
I0403 14:50:21.874965 17739 net.cpp:148] Top shape: 100 (100)
I0403 14:50:21.874982 17739 net.cpp:148] Top shape: 100 (100)
I0403 14:50:21.875000 17739 net.cpp:148] Top shape: 100 (100)
I0403 14:50:21.875015 17739 net.cpp:156] Memory required for data: 61836400
I0403 14:50:21.875035 17739 layer_factory.hpp:77] Creating layer conv1
I0403 14:50:21.875066 17739 net.cpp:91] Creating Layer conv1
I0403 14:50:21.875084 17739 net.cpp:425] conv1 <- data
I0403 14:50:21.875103 17739 net.cpp:399] conv1 -> conv1
I0403 14:50:22.018620 17739 net.cpp:141] Setting up conv1
I0403 14:50:22.018687 17739 net.cpp:148] Top shape: 100 96 55 55 (29040000)
I0403 14:50:22.018705 17739 net.cpp:156] Memory required for data: 177996400
I0403 14:50:22.018738 17739 layer_factory.hpp:77] Creating layer relu1
I0403 14:50:22.018765 17739 net.cpp:91] Creating Layer relu1
I0403 14:50:22.018784 17739 net.cpp:425] relu1 <- conv1
I0403 14:50:22.018805 17739 net.cpp:386] relu1 -> conv1 (in-place)
I0403 14:50:22.019078 17739 net.cpp:141] Setting up relu1
I0403 14:50:22.019105 17739 net.cpp:148] Top shape: 100 96 55 55 (29040000)
I0403 14:50:22.019146 17739 net.cpp:156] Memory required for data: 294156400
I0403 14:50:22.019165 17739 layer_factory.hpp:77] Creating layer norm1
I0403 14:50:22.019193 17739 net.cpp:91] Creating Layer norm1
I0403 14:50:22.019212 17739 net.cpp:425] norm1 <- conv1
I0403 14:50:22.019232 17739 net.cpp:399] norm1 -> norm1
I0403 14:50:22.019593 17739 net.cpp:141] Setting up norm1
I0403 14:50:22.019623 17739 net.cpp:148] Top shape: 100 96 55 55 (29040000)
I0403 14:50:22.019639 17739 net.cpp:156] Memory required for data: 410316400
I0403 14:50:22.019654 17739 layer_factory.hpp:77] Creating layer pool1
I0403 14:50:22.019678 17739 net.cpp:91] Creating Layer pool1
I0403 14:50:22.019696 17739 net.cpp:425] pool1 <- norm1
I0403 14:50:22.019716 17739 net.cpp:399] pool1 -> pool1
I0403 14:50:22.019783 17739 net.cpp:141] Setting up pool1
I0403 14:50:22.019809 17739 net.cpp:148] Top shape: 100 96 27 27 (6998400)
I0403 14:50:22.019824 17739 net.cpp:156] Memory required for data: 438310000
I0403 14:50:22.019839 17739 layer_factory.hpp:77] Creating layer conv2
I0403 14:50:22.019863 17739 net.cpp:91] Creating Layer conv2
I0403 14:50:22.019881 17739 net.cpp:425] conv2 <- pool1
I0403 14:50:22.019899 17739 net.cpp:399] conv2 -> conv2
I0403 14:50:22.035625 17739 net.cpp:141] Setting up conv2
I0403 14:50:22.035676 17739 net.cpp:148] Top shape: 100 256 27 27 (18662400)
I0403 14:50:22.035692 17739 net.cpp:156] Memory required for data: 512959600
I0403 14:50:22.035717 17739 layer_factory.hpp:77] Creating layer relu2
I0403 14:50:22.035737 17739 net.cpp:91] Creating Layer relu2
I0403 14:50:22.035753 17739 net.cpp:425] relu2 <- conv2
I0403 14:50:22.035773 17739 net.cpp:386] relu2 -> conv2 (in-place)
I0403 14:50:22.036062 17739 net.cpp:141] Setting up relu2
I0403 14:50:22.036092 17739 net.cpp:148] Top shape: 100 256 27 27 (18662400)
I0403 14:50:22.036106 17739 net.cpp:156] Memory required for data: 587609200
I0403 14:50:22.036128 17739 layer_factory.hpp:77] Creating layer norm2
I0403 14:50:22.036151 17739 net.cpp:91] Creating Layer norm2
I0403 14:50:22.036169 17739 net.cpp:425] norm2 <- conv2
I0403 14:50:22.036186 17739 net.cpp:399] norm2 -> norm2
I0403 14:50:22.036387 17739 net.cpp:141] Setting up norm2
I0403 14:50:22.036427 17739 net.cpp:148] Top shape: 100 256 27 27 (18662400)
I0403 14:50:22.036442 17739 net.cpp:156] Memory required for data: 662258800
I0403 14:50:22.036468 17739 layer_factory.hpp:77] Creating layer pool2
I0403 14:50:22.036496 17739 net.cpp:91] Creating Layer pool2
I0403 14:50:22.036511 17739 net.cpp:425] pool2 <- norm2
I0403 14:50:22.036531 17739 net.cpp:399] pool2 -> pool2
I0403 14:50:22.036592 17739 net.cpp:141] Setting up pool2
I0403 14:50:22.036615 17739 net.cpp:148] Top shape: 100 256 13 13 (4326400)
I0403 14:50:22.036629 17739 net.cpp:156] Memory required for data: 679564400
I0403 14:50:22.036644 17739 layer_factory.hpp:77] Creating layer conv3
I0403 14:50:22.036670 17739 net.cpp:91] Creating Layer conv3
I0403 14:50:22.036689 17739 net.cpp:425] conv3 <- pool2
I0403 14:50:22.036710 17739 net.cpp:399] conv3 -> conv3
I0403 14:50:22.075076 17739 net.cpp:141] Setting up conv3
I0403 14:50:22.075134 17739 net.cpp:148] Top shape: 100 384 13 13 (6489600)
I0403 14:50:22.075153 17739 net.cpp:156] Memory required for data: 705522800
I0403 14:50:22.075177 17739 layer_factory.hpp:77] Creating layer relu3
I0403 14:50:22.075197 17739 net.cpp:91] Creating Layer relu3
I0403 14:50:22.075213 17739 net.cpp:425] relu3 <- conv3
I0403 14:50:22.075232 17739 net.cpp:386] relu3 -> conv3 (in-place)
I0403 14:50:22.075526 17739 net.cpp:141] Setting up relu3
I0403 14:50:22.075556 17739 net.cpp:148] Top shape: 100 384 13 13 (6489600)
I0403 14:50:22.075570 17739 net.cpp:156] Memory required for data: 731481200
I0403 14:50:22.075587 17739 layer_factory.hpp:77] Creating layer conv4
I0403 14:50:22.075608 17739 net.cpp:91] Creating Layer conv4
I0403 14:50:22.075626 17739 net.cpp:425] conv4 <- conv3
I0403 14:50:22.075646 17739 net.cpp:399] conv4 -> conv4
I0403 14:50:22.106101 17739 net.cpp:141] Setting up conv4
I0403 14:50:22.106181 17739 net.cpp:148] Top shape: 100 384 13 13 (6489600)
I0403 14:50:22.106230 17739 net.cpp:156] Memory required for data: 757439600
I0403 14:50:22.106252 17739 layer_factory.hpp:77] Creating layer relu4
I0403 14:50:22.106279 17739 net.cpp:91] Creating Layer relu4
I0403 14:50:22.106297 17739 net.cpp:425] relu4 <- conv4
I0403 14:50:22.106317 17739 net.cpp:386] relu4 -> conv4 (in-place)
I0403 14:50:22.106654 17739 net.cpp:141] Setting up relu4
I0403 14:50:22.106683 17739 net.cpp:148] Top shape: 100 384 13 13 (6489600)
I0403 14:50:22.106698 17739 net.cpp:156] Memory required for data: 783398000
I0403 14:50:22.106714 17739 layer_factory.hpp:77] Creating layer conv5
I0403 14:50:22.106739 17739 net.cpp:91] Creating Layer conv5
I0403 14:50:22.106755 17739 net.cpp:425] conv5 <- conv4
I0403 14:50:22.106777 17739 net.cpp:399] conv5 -> conv5
I0403 14:50:22.127542 17739 net.cpp:141] Setting up conv5
I0403 14:50:22.127583 17739 net.cpp:148] Top shape: 100 256 13 13 (4326400)
I0403 14:50:22.127599 17739 net.cpp:156] Memory required for data: 800703600
I0403 14:50:22.127627 17739 layer_factory.hpp:77] Creating layer relu5
I0403 14:50:22.127650 17739 net.cpp:91] Creating Layer relu5
I0403 14:50:22.127667 17739 net.cpp:425] relu5 <- conv5
I0403 14:50:22.127689 17739 net.cpp:386] relu5 -> conv5 (in-place)
I0403 14:50:22.127961 17739 net.cpp:141] Setting up relu5
I0403 14:50:22.127991 17739 net.cpp:148] Top shape: 100 256 13 13 (4326400)
I0403 14:50:22.128007 17739 net.cpp:156] Memory required for data: 818009200
I0403 14:50:22.128021 17739 layer_factory.hpp:77] Creating layer pool5
I0403 14:50:22.128043 17739 net.cpp:91] Creating Layer pool5
I0403 14:50:22.128072 17739 net.cpp:425] pool5 <- conv5
I0403 14:50:22.128093 17739 net.cpp:399] pool5 -> pool5
I0403 14:50:22.128154 17739 net.cpp:141] Setting up pool5
I0403 14:50:22.128180 17739 net.cpp:148] Top shape: 100 256 6 6 (921600)
I0403 14:50:22.128195 17739 net.cpp:156] Memory required for data: 821695600
I0403 14:50:22.128208 17739 layer_factory.hpp:77] Creating layer fc6
I0403 14:50:22.128235 17739 net.cpp:91] Creating Layer fc6
I0403 14:50:22.128252 17739 net.cpp:425] fc6 <- pool5
I0403 14:50:22.128283 17739 net.cpp:399] fc6 -> fc6
I0403 14:50:23.671290 17739 net.cpp:141] Setting up fc6
I0403 14:50:23.671370 17739 net.cpp:148] Top shape: 100 4096 (409600)
I0403 14:50:23.671386 17739 net.cpp:156] Memory required for data: 823334000
I0403 14:50:23.671407 17739 layer_factory.hpp:77] Creating layer relu6
I0403 14:50:23.671429 17739 net.cpp:91] Creating Layer relu6
I0403 14:50:23.671447 17739 net.cpp:425] relu6 <- fc6
I0403 14:50:23.671465 17739 net.cpp:386] relu6 -> fc6 (in-place)
I0403 14:50:23.671682 17739 net.cpp:141] Setting up relu6
I0403 14:50:23.671711 17739 net.cpp:148] Top shape: 100 4096 (409600)
I0403 14:50:23.671726 17739 net.cpp:156] Memory required for data: 824972400
I0403 14:50:23.671741 17739 layer_factory.hpp:77] Creating layer drop6
I0403 14:50:23.671759 17739 net.cpp:91] Creating Layer drop6
I0403 14:50:23.671774 17739 net.cpp:425] drop6 <- fc6
I0403 14:50:23.671794 17739 net.cpp:386] drop6 -> fc6 (in-place)
I0403 14:50:23.671844 17739 net.cpp:141] Setting up drop6
I0403 14:50:23.671867 17739 net.cpp:148] Top shape: 100 4096 (409600)
I0403 14:50:23.671881 17739 net.cpp:156] Memory required for data: 826610800
I0403 14:50:23.671895 17739 layer_factory.hpp:77] Creating layer fc7
I0403 14:50:23.671917 17739 net.cpp:91] Creating Layer fc7
I0403 14:50:23.671932 17739 net.cpp:425] fc7 <- fc6
I0403 14:50:23.671953 17739 net.cpp:399] fc7 -> fc7
I0403 14:50:24.364995 17739 net.cpp:141] Setting up fc7
I0403 14:50:24.365036 17739 net.cpp:148] Top shape: 100 4096 (409600)
I0403 14:50:24.365057 17739 net.cpp:156] Memory required for data: 828249200
I0403 14:50:24.365079 17739 layer_factory.hpp:77] Creating layer relu7
I0403 14:50:24.365102 17739 net.cpp:91] Creating Layer relu7
I0403 14:50:24.365118 17739 net.cpp:425] relu7 <- fc7
I0403 14:50:24.365139 17739 net.cpp:386] relu7 -> fc7 (in-place)
I0403 14:50:24.365563 17739 net.cpp:141] Setting up relu7
I0403 14:50:24.365592 17739 net.cpp:148] Top shape: 100 4096 (409600)
I0403 14:50:24.365636 17739 net.cpp:156] Memory required for data: 829887600
I0403 14:50:24.365651 17739 layer_factory.hpp:77] Creating layer drop7
I0403 14:50:24.365670 17739 net.cpp:91] Creating Layer drop7
I0403 14:50:24.365685 17739 net.cpp:425] drop7 <- fc7
I0403 14:50:24.365701 17739 net.cpp:386] drop7 -> fc7 (in-place)
I0403 14:50:24.365744 17739 net.cpp:141] Setting up drop7
I0403 14:50:24.365766 17739 net.cpp:148] Top shape: 100 4096 (409600)
I0403 14:50:24.365779 17739 net.cpp:156] Memory required for data: 831526000
I0403 14:50:24.365793 17739 layer_factory.hpp:77] Creating layer fc8_plantvillage
I0403 14:50:24.365814 17739 net.cpp:91] Creating Layer fc8_plantvillage
I0403 14:50:24.365829 17739 net.cpp:425] fc8_plantvillage <- fc7
I0403 14:50:24.365846 17739 net.cpp:399] fc8_plantvillage -> fc8_plantvillage
I0403 14:50:24.372409 17739 net.cpp:141] Setting up fc8_plantvillage
I0403 14:50:24.372437 17739 net.cpp:148] Top shape: 100 38 (3800)
I0403 14:50:24.372452 17739 net.cpp:156] Memory required for data: 831541200
I0403 14:50:24.372468 17739 layer_factory.hpp:77] Creating layer fc8_plantvillage_fc8_plantvillage_0_split
I0403 14:50:24.372485 17739 net.cpp:91] Creating Layer fc8_plantvillage_fc8_plantvillage_0_split
I0403 14:50:24.372499 17739 net.cpp:425] fc8_plantvillage_fc8_plantvillage_0_split <- fc8_plantvillage
I0403 14:50:24.372519 17739 net.cpp:399] fc8_plantvillage_fc8_plantvillage_0_split -> fc8_plantvillage_fc8_plantvillage_0_split_0
I0403 14:50:24.372539 17739 net.cpp:399] fc8_plantvillage_fc8_plantvillage_0_split -> fc8_plantvillage_fc8_plantvillage_0_split_1
I0403 14:50:24.372556 17739 net.cpp:399] fc8_plantvillage_fc8_plantvillage_0_split -> fc8_plantvillage_fc8_plantvillage_0_split_2
I0403 14:50:24.372632 17739 net.cpp:141] Setting up fc8_plantvillage_fc8_plantvillage_0_split
I0403 14:50:24.372654 17739 net.cpp:148] Top shape: 100 38 (3800)
I0403 14:50:24.372669 17739 net.cpp:148] Top shape: 100 38 (3800)
I0403 14:50:24.372684 17739 net.cpp:148] Top shape: 100 38 (3800)
I0403 14:50:24.372697 17739 net.cpp:156] Memory required for data: 831586800
I0403 14:50:24.372711 17739 layer_factory.hpp:77] Creating layer prob
I0403 14:50:24.372731 17739 net.cpp:91] Creating Layer prob
I0403 14:50:24.372746 17739 net.cpp:425] prob <- fc8_plantvillage_fc8_plantvillage_0_split_0
I0403 14:50:24.372763 17739 net.cpp:399] prob -> prob
I0403 14:50:24.372982 17739 net.cpp:141] Setting up prob
I0403 14:50:24.373009 17739 net.cpp:148] Top shape: 100 38 (3800)
I0403 14:50:24.373024 17739 net.cpp:156] Memory required for data: 831602000
I0403 14:50:24.373039 17739 layer_factory.hpp:77] Creating layer hdf5out
I0403 14:50:24.373064 17739 net.cpp:91] Creating Layer hdf5out
I0403 14:50:24.373080 17739 net.cpp:425] hdf5out <- prob
I0403 14:50:24.373095 17739 net.cpp:425] hdf5out <- label_data_1_split_0
I0403 14:50:24.375283 17739 net.cpp:141] Setting up hdf5out
…
