…
I0403 14:43:50.484760 17445 net.cpp:313] The NetState phase (1) differed from the phase (0) specified by a rule in layer data
I0403 14:43:50.485080 17445 net.cpp:49] Initializing net from parameters: 
state {
  phase: TEST
}
layer {
  name: "data"
  type: "Data"
  top: "data"
  top: "label"
  include {
    phase: TEST
  }
  transform_param {
    crop_size: 227
    mean_file: "/home/mohanty/data/final_dataset/lmdb/grayscale-40-60/mean.binaryproto"
  }
  data_param {
    source: "/home/mohanty/data/final_dataset/lmdb/grayscale-40-60/test_db"
    batch_size: 100
    backend: LMDB
  }
}
layer {
  name: "conv1"
  type: "Convolution"
  bottom: "data"
  top: "conv1"
  param {
    lr_mult: 1
    decay_mult: 1
  }
  param {
    lr_mult: 2
    decay_mult: 0
  }
  convolution_param {
    num_output: 96
    kernel_size: 11
    stride: 4
    weight_filler {
      type: "gaussian"
      std: 0.01
    }
    bias_filler {
      type: "constant"
      value: 0
    }
  }
}
layer {
  name: "relu1"
  type: "ReLU"
  bottom: "conv1"
  top: "conv1"
}
layer {
  name: "norm1"
  type: "LRN"
  bottom: "conv1"
  top: "norm1"
  lrn_param {
    local_size: 5
    alpha: 0.0001
    beta: 0.75
  }
}
layer {
  name: "pool1"
  type: "Pooling"
  bottom: "norm1"
  top: "pool1"
  pooling_param {
    pool: MAX
    kernel_size: 3
    stride: 2
  }
}
layer {
  name: "conv2"
  type: "Convolution"
  bottom: "pool1"
  top: "conv2"
  param {
    lr_mult: 1
    decay_mult: 1
  }
  param {
    lr_mult: 2
    decay_mult: 0
  }
  convolution_param {
    num_output: 256
    pad: 2
    kernel_size: 5
    group: 2
    weight_filler {
      type: "gaussian"
      std: 0.01
    }
    bias_filler {
      type: "constant"
      value: 0.1
    }
  }
}
layer {
  name: "relu2"
  type: "ReLU"
  bottom: "conv2"
  top: "conv2"
}
layer {
  name: "norm2"
  type: "LRN"
  bottom: "conv2"
  top: "norm2"
  lrn_param {
    local_size: 5
    alpha: 0.0001
    beta: 0.75
  }
}
layer {
  name: "pool2"
  type: "Pooling"
  bottom: "norm2"
  top: "pool2"
  pooling_param {
    pool: MAX
    kernel_size: 3
    stride: 2
  }
}
layer {
  name: "conv3"
  type: "Convolution"
  bottom: "pool2"
  top: "conv3"
  param {
    lr_mult: 1
    decay_mult: 1
  }
  param {
    lr_mult: 2
    decay_mult: 0
  }
  convolution_param {
    num_output: 384
    pad: 1
    kernel_size: 3
    weight_filler {
      type: "gaussian"
      std: 0.01
    }
    bias_filler {
      type: "constant"
      value: 0
    }
  }
}
layer {
  name: "relu3"
  type: "ReLU"
  bottom: "conv3"
  top: "conv3"
}
layer {
  name: "conv4"
  type: "Convolution"
  bottom: "conv3"
  top: "conv4"
  param {
    lr_mult: 1
    decay_mult: 1
  }
  param {
    lr_mult: 2
    decay_mult: 0
  }
  convolution_param {
    num_output: 384
    pad: 1
    kernel_size: 3
    group: 2
    weight_filler {
      type: "gaussian"
      std: 0.01
    }
    bias_filler {
      type: "constant"
      value: 0.1
    }
  }
}
layer {
  name: "relu4"
  type: "ReLU"
  bottom: "conv4"
  top: "conv4"
}
layer {
  name: "conv5"
  type: "Convolution"
  bottom: "conv4"
  top: "conv5"
  param {
    lr_mult: 1
    decay_mult: 1
  }
  param {
    lr_mult: 2
    decay_mult: 0
  }
  convolution_param {
    num_output: 256
    pad: 1
    kernel_size: 3
    group: 2
    weight_filler {
      type: "gaussian"
      std: 0.01
    }
    bias_filler {
      type: "constant"
      value: 0.1
    }
  }
}
layer {
  name: "relu5"
  type: "ReLU"
  bottom: "conv5"
  top: "conv5"
}
layer {
  name: "pool5"
  type: "Pooling"
  bottom: "conv5"
  top: "pool5"
  pooling_param {
    pool: MAX
    kernel_size: 3
    stride: 2
  }
}
layer {
  name: "fc6"
  type: "InnerProduct"
  bottom: "pool5"
  top: "fc6"
  param {
    lr_mult: 1
    decay_mult: 1
  }
  param {
    lr_mult: 2
    decay_mult: 0
  }
  inner_product_param {
    num_output: 4096
    weight_filler {
      type: "gaussian"
      std: 0.005
    }
    bias_filler {
      type: "constant"
      value: 0.1
    }
  }
}
layer {
  name: "relu6"
  type: "ReLU"
  bottom: "fc6"
  top: "fc6"
}
layer {
  name: "drop6"
  type: "Dropout"
  bottom: "fc6"
  top: "fc6"
  dropout_param {
    dropout_ratio: 0.5
  }
}
layer {
  name: "fc7"
  type: "InnerProduct"
  bottom: "fc6"
  top: "fc7"
  param {
    lr_mult: 1
    decay_mult: 1
  }
  param {
    lr_mult: 2
    decay_mult: 0
  }
  inner_product_param {
    num_output: 4096
    weight_filler {
      type: "gaussian"
      std: 0.005
    }
    bias_filler {
      type: "constant"
      value: 0.1
    }
  }
}
layer {
  name: "relu7"
  type: "ReLU"
  bottom: "fc7"
  top: "fc7"
}
layer {
  name: "drop7"
  type: "Dropout"
  bottom: "fc7"
  top: "fc7"
  dropout_param {
    dropout_ratio: 0.5
  }
}
layer {
  name: "fc8_plantvillage"
  type: "InnerProduct"
  bottom: "fc7"
  top: "fc8_plantvillage"
  param {
    lr_mult: 1
    decay_mult: 1
  }
  param {
    lr_mult: 2
    decay_mult: 0
  }
  inner_product_param {
    num_output: 38
    weight_filler {
      type: "gaussian"
      std: 0.01
    }
    bias_filler {
      type: "constant"
      value: 0
    }
  }
}
layer {
  name: "prob"
  type: "Softmax"
  bottom: "fc8_plantvillage"
  top: "prob"
  include {
    phase: TEST
  }
}
layer {
  name: "hdf5out"
  type: "HDF5Output"
  bottom: "prob"
  bottom: "label"
  include {
    phase: TEST
  }
  hdf5_output_param {
    file_name: "hdf5_dumps/iter_3723.h5"
  }
}
layer {
  name: "loss"
  type: "SoftmaxWithLoss"
  bottom: "fc8_plantvillage"
  bottom: "label"
  top: "loss"
}
layer {
  name: "accuracy"
  type: "Accuracy"
  bottom: "fc8_plantvillage"
  bottom: "label"
  top: "accuracy"
  include {
    phase: TEST
  }
}
I0403 14:43:50.485667 17445 layer_factory.hpp:77] Creating layer data
I0403 14:43:50.486320 17445 net.cpp:91] Creating Layer data
I0403 14:43:50.486349 17445 net.cpp:399] data -> data
I0403 14:43:50.486402 17445 net.cpp:399] data -> label
I0403 14:43:50.486438 17445 data_transformer.cpp:25] Loading mean file from: /home/mohanty/data/final_dataset/lmdb/grayscale-40-60/mean.binaryproto
I0403 14:43:50.489683 17448 db_lmdb.cpp:38] Opened lmdb /home/mohanty/data/final_dataset/lmdb/grayscale-40-60/test_db
I0403 14:43:50.501124 17445 data_layer.cpp:41] output data size: 100,3,227,227
I0403 14:43:50.619961 17445 net.cpp:141] Setting up data
I0403 14:43:50.620076 17445 net.cpp:148] Top shape: 100 3 227 227 (15458700)
I0403 14:43:50.620101 17445 net.cpp:148] Top shape: 100 (100)
I0403 14:43:50.620117 17445 net.cpp:156] Memory required for data: 61835200
I0403 14:43:50.620147 17445 layer_factory.hpp:77] Creating layer label_data_1_split
I0403 14:43:50.620173 17445 net.cpp:91] Creating Layer label_data_1_split
I0403 14:43:50.620193 17445 net.cpp:425] label_data_1_split <- label
I0403 14:43:50.620228 17445 net.cpp:399] label_data_1_split -> label_data_1_split_0
I0403 14:43:50.620256 17445 net.cpp:399] label_data_1_split -> label_data_1_split_1
I0403 14:43:50.620277 17445 net.cpp:399] label_data_1_split -> label_data_1_split_2
I0403 14:43:50.620342 17445 net.cpp:141] Setting up label_data_1_split
I0403 14:43:50.620367 17445 net.cpp:148] Top shape: 100 (100)
I0403 14:43:50.620383 17445 net.cpp:148] Top shape: 100 (100)
I0403 14:43:50.620398 17445 net.cpp:148] Top shape: 100 (100)
I0403 14:43:50.620414 17445 net.cpp:156] Memory required for data: 61836400
I0403 14:43:50.620429 17445 layer_factory.hpp:77] Creating layer conv1
I0403 14:43:50.620460 17445 net.cpp:91] Creating Layer conv1
I0403 14:43:50.620477 17445 net.cpp:425] conv1 <- data
I0403 14:43:50.620499 17445 net.cpp:399] conv1 -> conv1
I0403 14:43:50.764317 17445 net.cpp:141] Setting up conv1
I0403 14:43:50.764406 17445 net.cpp:148] Top shape: 100 96 55 55 (29040000)
I0403 14:43:50.764425 17445 net.cpp:156] Memory required for data: 177996400
I0403 14:43:50.764456 17445 layer_factory.hpp:77] Creating layer relu1
I0403 14:43:50.764483 17445 net.cpp:91] Creating Layer relu1
I0403 14:43:50.764502 17445 net.cpp:425] relu1 <- conv1
I0403 14:43:50.764521 17445 net.cpp:386] relu1 -> conv1 (in-place)
I0403 14:43:50.764775 17445 net.cpp:141] Setting up relu1
I0403 14:43:50.764803 17445 net.cpp:148] Top shape: 100 96 55 55 (29040000)
I0403 14:43:50.764852 17445 net.cpp:156] Memory required for data: 294156400
I0403 14:43:50.764868 17445 layer_factory.hpp:77] Creating layer norm1
I0403 14:43:50.764895 17445 net.cpp:91] Creating Layer norm1
I0403 14:43:50.764914 17445 net.cpp:425] norm1 <- conv1
I0403 14:43:50.764930 17445 net.cpp:399] norm1 -> norm1
I0403 14:43:50.765286 17445 net.cpp:141] Setting up norm1
I0403 14:43:50.765316 17445 net.cpp:148] Top shape: 100 96 55 55 (29040000)
I0403 14:43:50.765331 17445 net.cpp:156] Memory required for data: 410316400
I0403 14:43:50.765347 17445 layer_factory.hpp:77] Creating layer pool1
I0403 14:43:50.765372 17445 net.cpp:91] Creating Layer pool1
I0403 14:43:50.765388 17445 net.cpp:425] pool1 <- norm1
I0403 14:43:50.765406 17445 net.cpp:399] pool1 -> pool1
I0403 14:43:50.765473 17445 net.cpp:141] Setting up pool1
I0403 14:43:50.765497 17445 net.cpp:148] Top shape: 100 96 27 27 (6998400)
I0403 14:43:50.765512 17445 net.cpp:156] Memory required for data: 438310000
I0403 14:43:50.765527 17445 layer_factory.hpp:77] Creating layer conv2
I0403 14:43:50.765552 17445 net.cpp:91] Creating Layer conv2
I0403 14:43:50.765568 17445 net.cpp:425] conv2 <- pool1
I0403 14:43:50.765586 17445 net.cpp:399] conv2 -> conv2
I0403 14:43:50.780869 17445 net.cpp:141] Setting up conv2
I0403 14:43:50.780926 17445 net.cpp:148] Top shape: 100 256 27 27 (18662400)
I0403 14:43:50.780946 17445 net.cpp:156] Memory required for data: 512959600
I0403 14:43:50.780971 17445 layer_factory.hpp:77] Creating layer relu2
I0403 14:43:50.780992 17445 net.cpp:91] Creating Layer relu2
I0403 14:43:50.781009 17445 net.cpp:425] relu2 <- conv2
I0403 14:43:50.781033 17445 net.cpp:386] relu2 -> conv2 (in-place)
I0403 14:43:50.781319 17445 net.cpp:141] Setting up relu2
I0403 14:43:50.781347 17445 net.cpp:148] Top shape: 100 256 27 27 (18662400)
I0403 14:43:50.781361 17445 net.cpp:156] Memory required for data: 587609200
I0403 14:43:50.781376 17445 layer_factory.hpp:77] Creating layer norm2
I0403 14:43:50.781399 17445 net.cpp:91] Creating Layer norm2
I0403 14:43:50.781417 17445 net.cpp:425] norm2 <- conv2
I0403 14:43:50.781435 17445 net.cpp:399] norm2 -> norm2
I0403 14:43:50.781631 17445 net.cpp:141] Setting up norm2
I0403 14:43:50.781659 17445 net.cpp:148] Top shape: 100 256 27 27 (18662400)
I0403 14:43:50.781675 17445 net.cpp:156] Memory required for data: 662258800
I0403 14:43:50.781689 17445 layer_factory.hpp:77] Creating layer pool2
I0403 14:43:50.781708 17445 net.cpp:91] Creating Layer pool2
I0403 14:43:50.781723 17445 net.cpp:425] pool2 <- norm2
I0403 14:43:50.781740 17445 net.cpp:399] pool2 -> pool2
I0403 14:43:50.781793 17445 net.cpp:141] Setting up pool2
I0403 14:43:50.781816 17445 net.cpp:148] Top shape: 100 256 13 13 (4326400)
I0403 14:43:50.781831 17445 net.cpp:156] Memory required for data: 679564400
I0403 14:43:50.781846 17445 layer_factory.hpp:77] Creating layer conv3
I0403 14:43:50.781869 17445 net.cpp:91] Creating Layer conv3
I0403 14:43:50.781885 17445 net.cpp:425] conv3 <- pool2
I0403 14:43:50.781906 17445 net.cpp:399] conv3 -> conv3
I0403 14:43:50.821924 17445 net.cpp:141] Setting up conv3
I0403 14:43:50.822012 17445 net.cpp:148] Top shape: 100 384 13 13 (6489600)
I0403 14:43:50.822036 17445 net.cpp:156] Memory required for data: 705522800
I0403 14:43:50.822062 17445 layer_factory.hpp:77] Creating layer relu3
I0403 14:43:50.822084 17445 net.cpp:91] Creating Layer relu3
I0403 14:43:50.822103 17445 net.cpp:425] relu3 <- conv3
I0403 14:43:50.822124 17445 net.cpp:386] relu3 -> conv3 (in-place)
I0403 14:43:50.822401 17445 net.cpp:141] Setting up relu3
I0403 14:43:50.822429 17445 net.cpp:148] Top shape: 100 384 13 13 (6489600)
I0403 14:43:50.822446 17445 net.cpp:156] Memory required for data: 731481200
I0403 14:43:50.822461 17445 layer_factory.hpp:77] Creating layer conv4
I0403 14:43:50.822489 17445 net.cpp:91] Creating Layer conv4
I0403 14:43:50.822506 17445 net.cpp:425] conv4 <- conv3
I0403 14:43:50.822525 17445 net.cpp:399] conv4 -> conv4
I0403 14:43:50.853090 17445 net.cpp:141] Setting up conv4
I0403 14:43:50.853130 17445 net.cpp:148] Top shape: 100 384 13 13 (6489600)
I0403 14:43:50.853178 17445 net.cpp:156] Memory required for data: 757439600
I0403 14:43:50.853199 17445 layer_factory.hpp:77] Creating layer relu4
I0403 14:43:50.853224 17445 net.cpp:91] Creating Layer relu4
I0403 14:43:50.853241 17445 net.cpp:425] relu4 <- conv4
I0403 14:43:50.853260 17445 net.cpp:386] relu4 -> conv4 (in-place)
I0403 14:43:50.853538 17445 net.cpp:141] Setting up relu4
I0403 14:43:50.853565 17445 net.cpp:148] Top shape: 100 384 13 13 (6489600)
I0403 14:43:50.853579 17445 net.cpp:156] Memory required for data: 783398000
I0403 14:43:50.853595 17445 layer_factory.hpp:77] Creating layer conv5
I0403 14:43:50.853621 17445 net.cpp:91] Creating Layer conv5
I0403 14:43:50.853639 17445 net.cpp:425] conv5 <- conv4
I0403 14:43:50.853657 17445 net.cpp:399] conv5 -> conv5
I0403 14:43:50.874235 17445 net.cpp:141] Setting up conv5
I0403 14:43:50.874297 17445 net.cpp:148] Top shape: 100 256 13 13 (4326400)
I0403 14:43:50.874315 17445 net.cpp:156] Memory required for data: 800703600
I0403 14:43:50.874341 17445 layer_factory.hpp:77] Creating layer relu5
I0403 14:43:50.874361 17445 net.cpp:91] Creating Layer relu5
I0403 14:43:50.874378 17445 net.cpp:425] relu5 <- conv5
I0403 14:43:50.874397 17445 net.cpp:386] relu5 -> conv5 (in-place)
I0403 14:43:50.874670 17445 net.cpp:141] Setting up relu5
I0403 14:43:50.874701 17445 net.cpp:148] Top shape: 100 256 13 13 (4326400)
I0403 14:43:50.874716 17445 net.cpp:156] Memory required for data: 818009200
I0403 14:43:50.874732 17445 layer_factory.hpp:77] Creating layer pool5
I0403 14:43:50.874754 17445 net.cpp:91] Creating Layer pool5
I0403 14:43:50.874770 17445 net.cpp:425] pool5 <- conv5
I0403 14:43:50.874793 17445 net.cpp:399] pool5 -> pool5
I0403 14:43:50.874855 17445 net.cpp:141] Setting up pool5
I0403 14:43:50.874877 17445 net.cpp:148] Top shape: 100 256 6 6 (921600)
I0403 14:43:50.874891 17445 net.cpp:156] Memory required for data: 821695600
I0403 14:43:50.874907 17445 layer_factory.hpp:77] Creating layer fc6
I0403 14:43:50.874936 17445 net.cpp:91] Creating Layer fc6
I0403 14:43:50.874954 17445 net.cpp:425] fc6 <- pool5
I0403 14:43:50.874975 17445 net.cpp:399] fc6 -> fc6
I0403 14:43:52.447990 17445 net.cpp:141] Setting up fc6
I0403 14:43:52.448096 17445 net.cpp:148] Top shape: 100 4096 (409600)
I0403 14:43:52.448113 17445 net.cpp:156] Memory required for data: 823334000
I0403 14:43:52.448135 17445 layer_factory.hpp:77] Creating layer relu6
I0403 14:43:52.448160 17445 net.cpp:91] Creating Layer relu6
I0403 14:43:52.448179 17445 net.cpp:425] relu6 <- fc6
I0403 14:43:52.448197 17445 net.cpp:386] relu6 -> fc6 (in-place)
I0403 14:43:52.448415 17445 net.cpp:141] Setting up relu6
I0403 14:43:52.448442 17445 net.cpp:148] Top shape: 100 4096 (409600)
I0403 14:43:52.448457 17445 net.cpp:156] Memory required for data: 824972400
I0403 14:43:52.448472 17445 layer_factory.hpp:77] Creating layer drop6
I0403 14:43:52.448490 17445 net.cpp:91] Creating Layer drop6
I0403 14:43:52.448505 17445 net.cpp:425] drop6 <- fc6
I0403 14:43:52.448521 17445 net.cpp:386] drop6 -> fc6 (in-place)
I0403 14:43:52.448575 17445 net.cpp:141] Setting up drop6
I0403 14:43:52.448598 17445 net.cpp:148] Top shape: 100 4096 (409600)
I0403 14:43:52.448612 17445 net.cpp:156] Memory required for data: 826610800
I0403 14:43:52.448626 17445 layer_factory.hpp:77] Creating layer fc7
I0403 14:43:52.448648 17445 net.cpp:91] Creating Layer fc7
I0403 14:43:52.448664 17445 net.cpp:425] fc7 <- fc6
I0403 14:43:52.448681 17445 net.cpp:399] fc7 -> fc7
I0403 14:43:53.138962 17445 net.cpp:141] Setting up fc7
I0403 14:43:53.139057 17445 net.cpp:148] Top shape: 100 4096 (409600)
I0403 14:43:53.139075 17445 net.cpp:156] Memory required for data: 828249200
I0403 14:43:53.139096 17445 layer_factory.hpp:77] Creating layer relu7
I0403 14:43:53.139122 17445 net.cpp:91] Creating Layer relu7
I0403 14:43:53.139140 17445 net.cpp:425] relu7 <- fc7
I0403 14:43:53.139159 17445 net.cpp:386] relu7 -> fc7 (in-place)
I0403 14:43:53.139601 17445 net.cpp:141] Setting up relu7
I0403 14:43:53.139631 17445 net.cpp:148] Top shape: 100 4096 (409600)
I0403 14:43:53.139690 17445 net.cpp:156] Memory required for data: 829887600
I0403 14:43:53.139706 17445 layer_factory.hpp:77] Creating layer drop7
I0403 14:43:53.139724 17445 net.cpp:91] Creating Layer drop7
I0403 14:43:53.139740 17445 net.cpp:425] drop7 <- fc7
I0403 14:43:53.139756 17445 net.cpp:386] drop7 -> fc7 (in-place)
I0403 14:43:53.139802 17445 net.cpp:141] Setting up drop7
I0403 14:43:53.139824 17445 net.cpp:148] Top shape: 100 4096 (409600)
I0403 14:43:53.139838 17445 net.cpp:156] Memory required for data: 831526000
I0403 14:43:53.139853 17445 layer_factory.hpp:77] Creating layer fc8_plantvillage
I0403 14:43:53.139874 17445 net.cpp:91] Creating Layer fc8_plantvillage
I0403 14:43:53.139891 17445 net.cpp:425] fc8_plantvillage <- fc7
I0403 14:43:53.139909 17445 net.cpp:399] fc8_plantvillage -> fc8_plantvillage
I0403 14:43:53.146693 17445 net.cpp:141] Setting up fc8_plantvillage
I0403 14:43:53.146721 17445 net.cpp:148] Top shape: 100 38 (3800)
I0403 14:43:53.146738 17445 net.cpp:156] Memory required for data: 831541200
I0403 14:43:53.146754 17445 layer_factory.hpp:77] Creating layer fc8_plantvillage_fc8_plantvillage_0_split
I0403 14:43:53.146775 17445 net.cpp:91] Creating Layer fc8_plantvillage_fc8_plantvillage_0_split
I0403 14:43:53.146790 17445 net.cpp:425] fc8_plantvillage_fc8_plantvillage_0_split <- fc8_plantvillage
I0403 14:43:53.146806 17445 net.cpp:399] fc8_plantvillage_fc8_plantvillage_0_split -> fc8_plantvillage_fc8_plantvillage_0_split_0
I0403 14:43:53.146828 17445 net.cpp:399] fc8_plantvillage_fc8_plantvillage_0_split -> fc8_plantvillage_fc8_plantvillage_0_split_1
I0403 14:43:53.146848 17445 net.cpp:399] fc8_plantvillage_fc8_plantvillage_0_split -> fc8_plantvillage_fc8_plantvillage_0_split_2
I0403 14:43:53.146924 17445 net.cpp:141] Setting up fc8_plantvillage_fc8_plantvillage_0_split
I0403 14:43:53.146949 17445 net.cpp:148] Top shape: 100 38 (3800)
I0403 14:43:53.146965 17445 net.cpp:148] Top shape: 100 38 (3800)
I0403 14:43:53.146980 17445 net.cpp:148] Top shape: 100 38 (3800)
I0403 14:43:53.146993 17445 net.cpp:156] Memory required for data: 831586800
I0403 14:43:53.147007 17445 layer_factory.hpp:77] Creating layer prob
I0403 14:43:53.147024 17445 net.cpp:91] Creating Layer prob
I0403 14:43:53.147042 17445 net.cpp:425] prob <- fc8_plantvillage_fc8_plantvillage_0_split_0
I0403 14:43:53.147065 17445 net.cpp:399] prob -> prob
I0403 14:43:53.147289 17445 net.cpp:141] Setting up prob
I0403 14:43:53.147315 17445 net.cpp:148] Top shape: 100 38 (3800)
I0403 14:43:53.147330 17445 net.cpp:156] Memory required for data: 831602000
I0403 14:43:53.147343 17445 layer_factory.hpp:77] Creating layer hdf5out
I0403 14:43:53.147364 17445 net.cpp:91] Creating Layer hdf5out
I0403 14:43:53.147382 17445 net.cpp:425] hdf5out <- prob
I0403 14:43:53.147397 17445 net.cpp:425] hdf5out <- label_data_1_split_0
I0403 14:43:53.149621 17445 net.cpp:141] Setting up hdf5out
…
