…
I0403 14:48:12.523201 17568 net.cpp:313] The NetState phase (1) differed from the phase (0) specified by a rule in layer data
I0403 14:48:12.523517 17568 net.cpp:49] Initializing net from parameters: 
state {
  phase: TEST
}
layer {
  name: "data"
  type: "Data"
  top: "data"
  top: "label"
  include {
    phase: TEST
  }
  transform_param {
    crop_size: 227
    mean_file: "/home/mohanty/data/final_dataset/lmdb/grayscale-40-60/mean.binaryproto"
  }
  data_param {
    source: "/home/mohanty/data/final_dataset/lmdb/grayscale-40-60/test_db"
    batch_size: 100
    backend: LMDB
  }
}
layer {
  name: "conv1"
  type: "Convolution"
  bottom: "data"
  top: "conv1"
  param {
    lr_mult: 1
    decay_mult: 1
  }
  param {
    lr_mult: 2
    decay_mult: 0
  }
  convolution_param {
    num_output: 96
    kernel_size: 11
    stride: 4
    weight_filler {
      type: "gaussian"
      std: 0.01
    }
    bias_filler {
      type: "constant"
      value: 0
    }
  }
}
layer {
  name: "relu1"
  type: "ReLU"
  bottom: "conv1"
  top: "conv1"
}
layer {
  name: "norm1"
  type: "LRN"
  bottom: "conv1"
  top: "norm1"
  lrn_param {
    local_size: 5
    alpha: 0.0001
    beta: 0.75
  }
}
layer {
  name: "pool1"
  type: "Pooling"
  bottom: "norm1"
  top: "pool1"
  pooling_param {
    pool: MAX
    kernel_size: 3
    stride: 2
  }
}
layer {
  name: "conv2"
  type: "Convolution"
  bottom: "pool1"
  top: "conv2"
  param {
    lr_mult: 1
    decay_mult: 1
  }
  param {
    lr_mult: 2
    decay_mult: 0
  }
  convolution_param {
    num_output: 256
    pad: 2
    kernel_size: 5
    group: 2
    weight_filler {
      type: "gaussian"
      std: 0.01
    }
    bias_filler {
      type: "constant"
      value: 0.1
    }
  }
}
layer {
  name: "relu2"
  type: "ReLU"
  bottom: "conv2"
  top: "conv2"
}
layer {
  name: "norm2"
  type: "LRN"
  bottom: "conv2"
  top: "norm2"
  lrn_param {
    local_size: 5
    alpha: 0.0001
    beta: 0.75
  }
}
layer {
  name: "pool2"
  type: "Pooling"
  bottom: "norm2"
  top: "pool2"
  pooling_param {
    pool: MAX
    kernel_size: 3
    stride: 2
  }
}
layer {
  name: "conv3"
  type: "Convolution"
  bottom: "pool2"
  top: "conv3"
  param {
    lr_mult: 1
    decay_mult: 1
  }
  param {
    lr_mult: 2
    decay_mult: 0
  }
  convolution_param {
    num_output: 384
    pad: 1
    kernel_size: 3
    weight_filler {
      type: "gaussian"
      std: 0.01
    }
    bias_filler {
      type: "constant"
      value: 0
    }
  }
}
layer {
  name: "relu3"
  type: "ReLU"
  bottom: "conv3"
  top: "conv3"
}
layer {
  name: "conv4"
  type: "Convolution"
  bottom: "conv3"
  top: "conv4"
  param {
    lr_mult: 1
    decay_mult: 1
  }
  param {
    lr_mult: 2
    decay_mult: 0
  }
  convolution_param {
    num_output: 384
    pad: 1
    kernel_size: 3
    group: 2
    weight_filler {
      type: "gaussian"
      std: 0.01
    }
    bias_filler {
      type: "constant"
      value: 0.1
    }
  }
}
layer {
  name: "relu4"
  type: "ReLU"
  bottom: "conv4"
  top: "conv4"
}
layer {
  name: "conv5"
  type: "Convolution"
  bottom: "conv4"
  top: "conv5"
  param {
    lr_mult: 1
    decay_mult: 1
  }
  param {
    lr_mult: 2
    decay_mult: 0
  }
  convolution_param {
    num_output: 256
    pad: 1
    kernel_size: 3
    group: 2
    weight_filler {
      type: "gaussian"
      std: 0.01
    }
    bias_filler {
      type: "constant"
      value: 0.1
    }
  }
}
layer {
  name: "relu5"
  type: "ReLU"
  bottom: "conv5"
  top: "conv5"
}
layer {
  name: "pool5"
  type: "Pooling"
  bottom: "conv5"
  top: "pool5"
  pooling_param {
    pool: MAX
    kernel_size: 3
    stride: 2
  }
}
layer {
  name: "fc6"
  type: "InnerProduct"
  bottom: "pool5"
  top: "fc6"
  param {
    lr_mult: 1
    decay_mult: 1
  }
  param {
    lr_mult: 2
    decay_mult: 0
  }
  inner_product_param {
    num_output: 4096
    weight_filler {
      type: "gaussian"
      std: 0.005
    }
    bias_filler {
      type: "constant"
      value: 0.1
    }
  }
}
layer {
  name: "relu6"
  type: "ReLU"
  bottom: "fc6"
  top: "fc6"
}
layer {
  name: "drop6"
  type: "Dropout"
  bottom: "fc6"
  top: "fc6"
  dropout_param {
    dropout_ratio: 0.5
  }
}
layer {
  name: "fc7"
  type: "InnerProduct"
  bottom: "fc6"
  top: "fc7"
  param {
    lr_mult: 1
    decay_mult: 1
  }
  param {
    lr_mult: 2
    decay_mult: 0
  }
  inner_product_param {
    num_output: 4096
    weight_filler {
      type: "gaussian"
      std: 0.005
    }
    bias_filler {
      type: "constant"
      value: 0.1
    }
  }
}
layer {
  name: "relu7"
  type: "ReLU"
  bottom: "fc7"
  top: "fc7"
}
layer {
  name: "drop7"
  type: "Dropout"
  bottom: "fc7"
  top: "fc7"
  dropout_param {
    dropout_ratio: 0.5
  }
}
layer {
  name: "fc8_plantvillage"
  type: "InnerProduct"
  bottom: "fc7"
  top: "fc8_plantvillage"
  param {
    lr_mult: 1
    decay_mult: 1
  }
  param {
    lr_mult: 2
    decay_mult: 0
  }
  inner_product_param {
    num_output: 38
    weight_filler {
      type: "gaussian"
      std: 0.01
    }
    bias_filler {
      type: "constant"
      value: 0
    }
  }
}
layer {
  name: "prob"
  type: "Softmax"
  bottom: "fc8_plantvillage"
  top: "prob"
  include {
    phase: TEST
  }
}
layer {
  name: "hdf5out"
  type: "HDF5Output"
  bottom: "prob"
  bottom: "label"
  include {
    phase: TEST
  }
  hdf5_output_param {
    file_name: "hdf5_dumps/iter_4599.h5"
  }
}
layer {
  name: "loss"
  type: "SoftmaxWithLoss"
  bottom: "fc8_plantvillage"
  bottom: "label"
  top: "loss"
}
layer {
  name: "accuracy"
  type: "Accuracy"
  bottom: "fc8_plantvillage"
  bottom: "label"
  top: "accuracy"
  include {
    phase: TEST
  }
}
I0403 14:48:12.524094 17568 layer_factory.hpp:77] Creating layer data
I0403 14:48:12.524751 17568 net.cpp:91] Creating Layer data
I0403 14:48:12.524785 17568 net.cpp:399] data -> data
I0403 14:48:12.524834 17568 net.cpp:399] data -> label
I0403 14:48:12.524871 17568 data_transformer.cpp:25] Loading mean file from: /home/mohanty/data/final_dataset/lmdb/grayscale-40-60/mean.binaryproto
I0403 14:48:12.527701 17571 db_lmdb.cpp:38] Opened lmdb /home/mohanty/data/final_dataset/lmdb/grayscale-40-60/test_db
I0403 14:48:12.539455 17568 data_layer.cpp:41] output data size: 100,3,227,227
I0403 14:48:12.659320 17568 net.cpp:141] Setting up data
I0403 14:48:12.659415 17568 net.cpp:148] Top shape: 100 3 227 227 (15458700)
I0403 14:48:12.659437 17568 net.cpp:148] Top shape: 100 (100)
I0403 14:48:12.659453 17568 net.cpp:156] Memory required for data: 61835200
I0403 14:48:12.659482 17568 layer_factory.hpp:77] Creating layer label_data_1_split
I0403 14:48:12.659507 17568 net.cpp:91] Creating Layer label_data_1_split
I0403 14:48:12.659525 17568 net.cpp:425] label_data_1_split <- label
I0403 14:48:12.659559 17568 net.cpp:399] label_data_1_split -> label_data_1_split_0
I0403 14:48:12.659586 17568 net.cpp:399] label_data_1_split -> label_data_1_split_1
I0403 14:48:12.659607 17568 net.cpp:399] label_data_1_split -> label_data_1_split_2
I0403 14:48:12.659672 17568 net.cpp:141] Setting up label_data_1_split
I0403 14:48:12.659696 17568 net.cpp:148] Top shape: 100 (100)
I0403 14:48:12.659714 17568 net.cpp:148] Top shape: 100 (100)
I0403 14:48:12.659730 17568 net.cpp:148] Top shape: 100 (100)
I0403 14:48:12.659744 17568 net.cpp:156] Memory required for data: 61836400
I0403 14:48:12.659759 17568 layer_factory.hpp:77] Creating layer conv1
I0403 14:48:12.659791 17568 net.cpp:91] Creating Layer conv1
I0403 14:48:12.659811 17568 net.cpp:425] conv1 <- data
I0403 14:48:12.659829 17568 net.cpp:399] conv1 -> conv1
I0403 14:48:12.802301 17568 net.cpp:141] Setting up conv1
I0403 14:48:12.802363 17568 net.cpp:148] Top shape: 100 96 55 55 (29040000)
I0403 14:48:12.802381 17568 net.cpp:156] Memory required for data: 177996400
I0403 14:48:12.802410 17568 layer_factory.hpp:77] Creating layer relu1
I0403 14:48:12.802436 17568 net.cpp:91] Creating Layer relu1
I0403 14:48:12.802454 17568 net.cpp:425] relu1 <- conv1
I0403 14:48:12.802472 17568 net.cpp:386] relu1 -> conv1 (in-place)
I0403 14:48:12.802726 17568 net.cpp:141] Setting up relu1
I0403 14:48:12.802752 17568 net.cpp:148] Top shape: 100 96 55 55 (29040000)
I0403 14:48:12.802798 17568 net.cpp:156] Memory required for data: 294156400
I0403 14:48:12.802814 17568 layer_factory.hpp:77] Creating layer norm1
I0403 14:48:12.802841 17568 net.cpp:91] Creating Layer norm1
I0403 14:48:12.802860 17568 net.cpp:425] norm1 <- conv1
I0403 14:48:12.802876 17568 net.cpp:399] norm1 -> norm1
I0403 14:48:12.803197 17568 net.cpp:141] Setting up norm1
I0403 14:48:12.803227 17568 net.cpp:148] Top shape: 100 96 55 55 (29040000)
I0403 14:48:12.803243 17568 net.cpp:156] Memory required for data: 410316400
I0403 14:48:12.803258 17568 layer_factory.hpp:77] Creating layer pool1
I0403 14:48:12.803282 17568 net.cpp:91] Creating Layer pool1
I0403 14:48:12.803299 17568 net.cpp:425] pool1 <- norm1
I0403 14:48:12.803318 17568 net.cpp:399] pool1 -> pool1
I0403 14:48:12.803387 17568 net.cpp:141] Setting up pool1
I0403 14:48:12.803412 17568 net.cpp:148] Top shape: 100 96 27 27 (6998400)
I0403 14:48:12.803427 17568 net.cpp:156] Memory required for data: 438310000
I0403 14:48:12.803442 17568 layer_factory.hpp:77] Creating layer conv2
I0403 14:48:12.803465 17568 net.cpp:91] Creating Layer conv2
I0403 14:48:12.803483 17568 net.cpp:425] conv2 <- pool1
I0403 14:48:12.803500 17568 net.cpp:399] conv2 -> conv2
I0403 14:48:12.818421 17568 net.cpp:141] Setting up conv2
I0403 14:48:12.818478 17568 net.cpp:148] Top shape: 100 256 27 27 (18662400)
I0403 14:48:12.818496 17568 net.cpp:156] Memory required for data: 512959600
I0403 14:48:12.818518 17568 layer_factory.hpp:77] Creating layer relu2
I0403 14:48:12.818541 17568 net.cpp:91] Creating Layer relu2
I0403 14:48:12.818557 17568 net.cpp:425] relu2 <- conv2
I0403 14:48:12.818575 17568 net.cpp:386] relu2 -> conv2 (in-place)
I0403 14:48:12.818852 17568 net.cpp:141] Setting up relu2
I0403 14:48:12.818879 17568 net.cpp:148] Top shape: 100 256 27 27 (18662400)
I0403 14:48:12.818894 17568 net.cpp:156] Memory required for data: 587609200
I0403 14:48:12.818908 17568 layer_factory.hpp:77] Creating layer norm2
I0403 14:48:12.818931 17568 net.cpp:91] Creating Layer norm2
I0403 14:48:12.818948 17568 net.cpp:425] norm2 <- conv2
I0403 14:48:12.818980 17568 net.cpp:399] norm2 -> norm2
I0403 14:48:12.819195 17568 net.cpp:141] Setting up norm2
I0403 14:48:12.819223 17568 net.cpp:148] Top shape: 100 256 27 27 (18662400)
I0403 14:48:12.819241 17568 net.cpp:156] Memory required for data: 662258800
I0403 14:48:12.819257 17568 layer_factory.hpp:77] Creating layer pool2
I0403 14:48:12.819283 17568 net.cpp:91] Creating Layer pool2
I0403 14:48:12.819314 17568 net.cpp:425] pool2 <- norm2
I0403 14:48:12.819330 17568 net.cpp:399] pool2 -> pool2
I0403 14:48:12.819385 17568 net.cpp:141] Setting up pool2
I0403 14:48:12.819407 17568 net.cpp:148] Top shape: 100 256 13 13 (4326400)
I0403 14:48:12.819422 17568 net.cpp:156] Memory required for data: 679564400
I0403 14:48:12.819437 17568 layer_factory.hpp:77] Creating layer conv3
I0403 14:48:12.819460 17568 net.cpp:91] Creating Layer conv3
I0403 14:48:12.819478 17568 net.cpp:425] conv3 <- pool2
I0403 14:48:12.819497 17568 net.cpp:399] conv3 -> conv3
I0403 14:48:12.859549 17568 net.cpp:141] Setting up conv3
I0403 14:48:12.859630 17568 net.cpp:148] Top shape: 100 384 13 13 (6489600)
I0403 14:48:12.859647 17568 net.cpp:156] Memory required for data: 705522800
I0403 14:48:12.859675 17568 layer_factory.hpp:77] Creating layer relu3
I0403 14:48:12.859699 17568 net.cpp:91] Creating Layer relu3
I0403 14:48:12.859716 17568 net.cpp:425] relu3 <- conv3
I0403 14:48:12.859735 17568 net.cpp:386] relu3 -> conv3 (in-place)
I0403 14:48:12.860020 17568 net.cpp:141] Setting up relu3
I0403 14:48:12.860049 17568 net.cpp:148] Top shape: 100 384 13 13 (6489600)
I0403 14:48:12.860064 17568 net.cpp:156] Memory required for data: 731481200
I0403 14:48:12.860080 17568 layer_factory.hpp:77] Creating layer conv4
I0403 14:48:12.860106 17568 net.cpp:91] Creating Layer conv4
I0403 14:48:12.860124 17568 net.cpp:425] conv4 <- conv3
I0403 14:48:12.860146 17568 net.cpp:399] conv4 -> conv4
I0403 14:48:12.889951 17568 net.cpp:141] Setting up conv4
I0403 14:48:12.890036 17568 net.cpp:148] Top shape: 100 384 13 13 (6489600)
I0403 14:48:12.890087 17568 net.cpp:156] Memory required for data: 757439600
I0403 14:48:12.890110 17568 layer_factory.hpp:77] Creating layer relu4
I0403 14:48:12.890136 17568 net.cpp:91] Creating Layer relu4
I0403 14:48:12.890153 17568 net.cpp:425] relu4 <- conv4
I0403 14:48:12.890172 17568 net.cpp:386] relu4 -> conv4 (in-place)
I0403 14:48:12.890455 17568 net.cpp:141] Setting up relu4
I0403 14:48:12.890482 17568 net.cpp:148] Top shape: 100 384 13 13 (6489600)
I0403 14:48:12.890499 17568 net.cpp:156] Memory required for data: 783398000
I0403 14:48:12.890517 17568 layer_factory.hpp:77] Creating layer conv5
I0403 14:48:12.890545 17568 net.cpp:91] Creating Layer conv5
I0403 14:48:12.890565 17568 net.cpp:425] conv5 <- conv4
I0403 14:48:12.890588 17568 net.cpp:399] conv5 -> conv5
I0403 14:48:12.911118 17568 net.cpp:141] Setting up conv5
I0403 14:48:12.911185 17568 net.cpp:148] Top shape: 100 256 13 13 (4326400)
I0403 14:48:12.911201 17568 net.cpp:156] Memory required for data: 800703600
I0403 14:48:12.911226 17568 layer_factory.hpp:77] Creating layer relu5
I0403 14:48:12.911254 17568 net.cpp:91] Creating Layer relu5
I0403 14:48:12.911273 17568 net.cpp:425] relu5 <- conv5
I0403 14:48:12.911291 17568 net.cpp:386] relu5 -> conv5 (in-place)
I0403 14:48:12.911600 17568 net.cpp:141] Setting up relu5
I0403 14:48:12.911628 17568 net.cpp:148] Top shape: 100 256 13 13 (4326400)
I0403 14:48:12.911644 17568 net.cpp:156] Memory required for data: 818009200
I0403 14:48:12.911659 17568 layer_factory.hpp:77] Creating layer pool5
I0403 14:48:12.911684 17568 net.cpp:91] Creating Layer pool5
I0403 14:48:12.911701 17568 net.cpp:425] pool5 <- conv5
I0403 14:48:12.911723 17568 net.cpp:399] pool5 -> pool5
I0403 14:48:12.911785 17568 net.cpp:141] Setting up pool5
I0403 14:48:12.911810 17568 net.cpp:148] Top shape: 100 256 6 6 (921600)
I0403 14:48:12.911825 17568 net.cpp:156] Memory required for data: 821695600
I0403 14:48:12.911840 17568 layer_factory.hpp:77] Creating layer fc6
I0403 14:48:12.911870 17568 net.cpp:91] Creating Layer fc6
I0403 14:48:12.911890 17568 net.cpp:425] fc6 <- pool5
I0403 14:48:12.911907 17568 net.cpp:399] fc6 -> fc6
I0403 14:48:14.475738 17568 net.cpp:141] Setting up fc6
I0403 14:48:14.475787 17568 net.cpp:148] Top shape: 100 4096 (409600)
I0403 14:48:14.475803 17568 net.cpp:156] Memory required for data: 823334000
I0403 14:48:14.475823 17568 layer_factory.hpp:77] Creating layer relu6
I0403 14:48:14.475846 17568 net.cpp:91] Creating Layer relu6
I0403 14:48:14.475862 17568 net.cpp:425] relu6 <- fc6
I0403 14:48:14.475883 17568 net.cpp:386] relu6 -> fc6 (in-place)
I0403 14:48:14.476105 17568 net.cpp:141] Setting up relu6
I0403 14:48:14.476130 17568 net.cpp:148] Top shape: 100 4096 (409600)
I0403 14:48:14.476145 17568 net.cpp:156] Memory required for data: 824972400
I0403 14:48:14.476160 17568 layer_factory.hpp:77] Creating layer drop6
I0403 14:48:14.476181 17568 net.cpp:91] Creating Layer drop6
I0403 14:48:14.476197 17568 net.cpp:425] drop6 <- fc6
I0403 14:48:14.476215 17568 net.cpp:386] drop6 -> fc6 (in-place)
I0403 14:48:14.476268 17568 net.cpp:141] Setting up drop6
I0403 14:48:14.476290 17568 net.cpp:148] Top shape: 100 4096 (409600)
I0403 14:48:14.476305 17568 net.cpp:156] Memory required for data: 826610800
I0403 14:48:14.476320 17568 layer_factory.hpp:77] Creating layer fc7
I0403 14:48:14.476338 17568 net.cpp:91] Creating Layer fc7
I0403 14:48:14.476354 17568 net.cpp:425] fc7 <- fc6
I0403 14:48:14.476373 17568 net.cpp:399] fc7 -> fc7
I0403 14:48:15.162317 17568 net.cpp:141] Setting up fc7
I0403 14:48:15.162398 17568 net.cpp:148] Top shape: 100 4096 (409600)
I0403 14:48:15.162415 17568 net.cpp:156] Memory required for data: 828249200
I0403 14:48:15.162436 17568 layer_factory.hpp:77] Creating layer relu7
I0403 14:48:15.162461 17568 net.cpp:91] Creating Layer relu7
I0403 14:48:15.162478 17568 net.cpp:425] relu7 <- fc7
I0403 14:48:15.162497 17568 net.cpp:386] relu7 -> fc7 (in-place)
I0403 14:48:15.162904 17568 net.cpp:141] Setting up relu7
I0403 14:48:15.162931 17568 net.cpp:148] Top shape: 100 4096 (409600)
I0403 14:48:15.162981 17568 net.cpp:156] Memory required for data: 829887600
I0403 14:48:15.162997 17568 layer_factory.hpp:77] Creating layer drop7
I0403 14:48:15.163022 17568 net.cpp:91] Creating Layer drop7
I0403 14:48:15.163039 17568 net.cpp:425] drop7 <- fc7
I0403 14:48:15.163058 17568 net.cpp:386] drop7 -> fc7 (in-place)
I0403 14:48:15.163101 17568 net.cpp:141] Setting up drop7
I0403 14:48:15.163125 17568 net.cpp:148] Top shape: 100 4096 (409600)
I0403 14:48:15.163138 17568 net.cpp:156] Memory required for data: 831526000
I0403 14:48:15.163153 17568 layer_factory.hpp:77] Creating layer fc8_plantvillage
I0403 14:48:15.163172 17568 net.cpp:91] Creating Layer fc8_plantvillage
I0403 14:48:15.163187 17568 net.cpp:425] fc8_plantvillage <- fc7
I0403 14:48:15.163208 17568 net.cpp:399] fc8_plantvillage -> fc8_plantvillage
I0403 14:48:15.169953 17568 net.cpp:141] Setting up fc8_plantvillage
I0403 14:48:15.169981 17568 net.cpp:148] Top shape: 100 38 (3800)
I0403 14:48:15.169997 17568 net.cpp:156] Memory required for data: 831541200
I0403 14:48:15.170016 17568 layer_factory.hpp:77] Creating layer fc8_plantvillage_fc8_plantvillage_0_split
I0403 14:48:15.170040 17568 net.cpp:91] Creating Layer fc8_plantvillage_fc8_plantvillage_0_split
I0403 14:48:15.170058 17568 net.cpp:425] fc8_plantvillage_fc8_plantvillage_0_split <- fc8_plantvillage
I0403 14:48:15.170074 17568 net.cpp:399] fc8_plantvillage_fc8_plantvillage_0_split -> fc8_plantvillage_fc8_plantvillage_0_split_0
I0403 14:48:15.170094 17568 net.cpp:399] fc8_plantvillage_fc8_plantvillage_0_split -> fc8_plantvillage_fc8_plantvillage_0_split_1
I0403 14:48:15.170116 17568 net.cpp:399] fc8_plantvillage_fc8_plantvillage_0_split -> fc8_plantvillage_fc8_plantvillage_0_split_2
I0403 14:48:15.170193 17568 net.cpp:141] Setting up fc8_plantvillage_fc8_plantvillage_0_split
I0403 14:48:15.170219 17568 net.cpp:148] Top shape: 100 38 (3800)
I0403 14:48:15.170235 17568 net.cpp:148] Top shape: 100 38 (3800)
I0403 14:48:15.170253 17568 net.cpp:148] Top shape: 100 38 (3800)
I0403 14:48:15.170265 17568 net.cpp:156] Memory required for data: 831586800
I0403 14:48:15.170280 17568 layer_factory.hpp:77] Creating layer prob
I0403 14:48:15.170298 17568 net.cpp:91] Creating Layer prob
I0403 14:48:15.170313 17568 net.cpp:425] prob <- fc8_plantvillage_fc8_plantvillage_0_split_0
I0403 14:48:15.170333 17568 net.cpp:399] prob -> prob
I0403 14:48:15.170557 17568 net.cpp:141] Setting up prob
I0403 14:48:15.170583 17568 net.cpp:148] Top shape: 100 38 (3800)
I0403 14:48:15.170598 17568 net.cpp:156] Memory required for data: 831602000
I0403 14:48:15.170613 17568 layer_factory.hpp:77] Creating layer hdf5out
I0403 14:48:15.170636 17568 net.cpp:91] Creating Layer hdf5out
I0403 14:48:15.170653 17568 net.cpp:425] hdf5out <- prob
I0403 14:48:15.170670 17568 net.cpp:425] hdf5out <- label_data_1_split_0
I0403 14:48:15.172866 17568 net.cpp:141] Setting up hdf5out
…
