…
I0403 14:30:44.255357 17070 net.cpp:313] The NetState phase (1) differed from the phase (0) specified by a rule in layer data
I0403 14:30:44.255640 17070 net.cpp:49] Initializing net from parameters: 
state {
  phase: TEST
}
layer {
  name: "data"
  type: "Data"
  top: "data"
  top: "label"
  include {
    phase: TEST
  }
  transform_param {
    crop_size: 227
    mean_file: "/home/mohanty/data/final_dataset/lmdb/grayscale-40-60/mean.binaryproto"
  }
  data_param {
    source: "/home/mohanty/data/final_dataset/lmdb/grayscale-40-60/test_db"
    batch_size: 100
    backend: LMDB
  }
}
layer {
  name: "conv1"
  type: "Convolution"
  bottom: "data"
  top: "conv1"
  param {
    lr_mult: 1
    decay_mult: 1
  }
  param {
    lr_mult: 2
    decay_mult: 0
  }
  convolution_param {
    num_output: 96
    kernel_size: 11
    stride: 4
    weight_filler {
      type: "gaussian"
      std: 0.01
    }
    bias_filler {
      type: "constant"
      value: 0
    }
  }
}
layer {
  name: "relu1"
  type: "ReLU"
  bottom: "conv1"
  top: "conv1"
}
layer {
  name: "norm1"
  type: "LRN"
  bottom: "conv1"
  top: "norm1"
  lrn_param {
    local_size: 5
    alpha: 0.0001
    beta: 0.75
  }
}
layer {
  name: "pool1"
  type: "Pooling"
  bottom: "norm1"
  top: "pool1"
  pooling_param {
    pool: MAX
    kernel_size: 3
    stride: 2
  }
}
layer {
  name: "conv2"
  type: "Convolution"
  bottom: "pool1"
  top: "conv2"
  param {
    lr_mult: 1
    decay_mult: 1
  }
  param {
    lr_mult: 2
    decay_mult: 0
  }
  convolution_param {
    num_output: 256
    pad: 2
    kernel_size: 5
    group: 2
    weight_filler {
      type: "gaussian"
      std: 0.01
    }
    bias_filler {
      type: "constant"
      value: 0.1
    }
  }
}
layer {
  name: "relu2"
  type: "ReLU"
  bottom: "conv2"
  top: "conv2"
}
layer {
  name: "norm2"
  type: "LRN"
  bottom: "conv2"
  top: "norm2"
  lrn_param {
    local_size: 5
    alpha: 0.0001
    beta: 0.75
  }
}
layer {
  name: "pool2"
  type: "Pooling"
  bottom: "norm2"
  top: "pool2"
  pooling_param {
    pool: MAX
    kernel_size: 3
    stride: 2
  }
}
layer {
  name: "conv3"
  type: "Convolution"
  bottom: "pool2"
  top: "conv3"
  param {
    lr_mult: 1
    decay_mult: 1
  }
  param {
    lr_mult: 2
    decay_mult: 0
  }
  convolution_param {
    num_output: 384
    pad: 1
    kernel_size: 3
    weight_filler {
      type: "gaussian"
      std: 0.01
    }
    bias_filler {
      type: "constant"
      value: 0
    }
  }
}
layer {
  name: "relu3"
  type: "ReLU"
  bottom: "conv3"
  top: "conv3"
}
layer {
  name: "conv4"
  type: "Convolution"
  bottom: "conv3"
  top: "conv4"
  param {
    lr_mult: 1
    decay_mult: 1
  }
  param {
    lr_mult: 2
    decay_mult: 0
  }
  convolution_param {
    num_output: 384
    pad: 1
    kernel_size: 3
    group: 2
    weight_filler {
      type: "gaussian"
      std: 0.01
    }
    bias_filler {
      type: "constant"
      value: 0.1
    }
  }
}
layer {
  name: "relu4"
  type: "ReLU"
  bottom: "conv4"
  top: "conv4"
}
layer {
  name: "conv5"
  type: "Convolution"
  bottom: "conv4"
  top: "conv5"
  param {
    lr_mult: 1
    decay_mult: 1
  }
  param {
    lr_mult: 2
    decay_mult: 0
  }
  convolution_param {
    num_output: 256
    pad: 1
    kernel_size: 3
    group: 2
    weight_filler {
      type: "gaussian"
      std: 0.01
    }
    bias_filler {
      type: "constant"
      value: 0.1
    }
  }
}
layer {
  name: "relu5"
  type: "ReLU"
  bottom: "conv5"
  top: "conv5"
}
layer {
  name: "pool5"
  type: "Pooling"
  bottom: "conv5"
  top: "pool5"
  pooling_param {
    pool: MAX
    kernel_size: 3
    stride: 2
  }
}
layer {
  name: "fc6"
  type: "InnerProduct"
  bottom: "pool5"
  top: "fc6"
  param {
    lr_mult: 1
    decay_mult: 1
  }
  param {
    lr_mult: 2
    decay_mult: 0
  }
  inner_product_param {
    num_output: 4096
    weight_filler {
      type: "gaussian"
      std: 0.005
    }
    bias_filler {
      type: "constant"
      value: 0.1
    }
  }
}
layer {
  name: "relu6"
  type: "ReLU"
  bottom: "fc6"
  top: "fc6"
}
layer {
  name: "drop6"
  type: "Dropout"
  bottom: "fc6"
  top: "fc6"
  dropout_param {
    dropout_ratio: 0.5
  }
}
layer {
  name: "fc7"
  type: "InnerProduct"
  bottom: "fc6"
  top: "fc7"
  param {
    lr_mult: 1
    decay_mult: 1
  }
  param {
    lr_mult: 2
    decay_mult: 0
  }
  inner_product_param {
    num_output: 4096
    weight_filler {
      type: "gaussian"
      std: 0.005
    }
    bias_filler {
      type: "constant"
      value: 0.1
    }
  }
}
layer {
  name: "relu7"
  type: "ReLU"
  bottom: "fc7"
  top: "fc7"
}
layer {
  name: "drop7"
  type: "Dropout"
  bottom: "fc7"
  top: "fc7"
  dropout_param {
    dropout_ratio: 0.5
  }
}
layer {
  name: "fc8_plantvillage"
  type: "InnerProduct"
  bottom: "fc7"
  top: "fc8_plantvillage"
  param {
    lr_mult: 1
    decay_mult: 1
  }
  param {
    lr_mult: 2
    decay_mult: 0
  }
  inner_product_param {
    num_output: 38
    weight_filler {
      type: "gaussian"
      std: 0.01
    }
    bias_filler {
      type: "constant"
      value: 0
    }
  }
}
layer {
  name: "prob"
  type: "Softmax"
  bottom: "fc8_plantvillage"
  top: "prob"
  include {
    phase: TEST
  }
}
layer {
  name: "hdf5out"
  type: "HDF5Output"
  bottom: "prob"
  bottom: "label"
  include {
    phase: TEST
  }
  hdf5_output_param {
    file_name: "hdf5_dumps/iter_1095.h5"
  }
}
layer {
  name: "loss"
  type: "SoftmaxWithLoss"
  bottom: "fc8_plantvillage"
  bottom: "label"
  top: "loss"
}
layer {
  name: "accuracy"
  type: "Accuracy"
  bottom: "fc8_plantvillage"
  bottom: "label"
  top: "accuracy"
  include {
    phase: TEST
  }
}
I0403 14:30:44.256186 17070 layer_factory.hpp:77] Creating layer data
I0403 14:30:44.256839 17070 net.cpp:91] Creating Layer data
I0403 14:30:44.256870 17070 net.cpp:399] data -> data
I0403 14:30:44.256938 17070 net.cpp:399] data -> label
I0403 14:30:44.256974 17070 data_transformer.cpp:25] Loading mean file from: /home/mohanty/data/final_dataset/lmdb/grayscale-40-60/mean.binaryproto
I0403 14:30:44.260293 17075 db_lmdb.cpp:38] Opened lmdb /home/mohanty/data/final_dataset/lmdb/grayscale-40-60/test_db
I0403 14:30:44.271347 17070 data_layer.cpp:41] output data size: 100,3,227,227
I0403 14:30:44.389575 17070 net.cpp:141] Setting up data
I0403 14:30:44.389683 17070 net.cpp:148] Top shape: 100 3 227 227 (15458700)
I0403 14:30:44.389705 17070 net.cpp:148] Top shape: 100 (100)
I0403 14:30:44.389719 17070 net.cpp:156] Memory required for data: 61835200
I0403 14:30:44.389747 17070 layer_factory.hpp:77] Creating layer label_data_1_split
I0403 14:30:44.389773 17070 net.cpp:91] Creating Layer label_data_1_split
I0403 14:30:44.389791 17070 net.cpp:425] label_data_1_split <- label
I0403 14:30:44.389822 17070 net.cpp:399] label_data_1_split -> label_data_1_split_0
I0403 14:30:44.389848 17070 net.cpp:399] label_data_1_split -> label_data_1_split_1
I0403 14:30:44.389868 17070 net.cpp:399] label_data_1_split -> label_data_1_split_2
I0403 14:30:44.389932 17070 net.cpp:141] Setting up label_data_1_split
I0403 14:30:44.389955 17070 net.cpp:148] Top shape: 100 (100)
I0403 14:30:44.389971 17070 net.cpp:148] Top shape: 100 (100)
I0403 14:30:44.389988 17070 net.cpp:148] Top shape: 100 (100)
I0403 14:30:44.390002 17070 net.cpp:156] Memory required for data: 61836400
I0403 14:30:44.390020 17070 layer_factory.hpp:77] Creating layer conv1
I0403 14:30:44.390054 17070 net.cpp:91] Creating Layer conv1
I0403 14:30:44.390072 17070 net.cpp:425] conv1 <- data
I0403 14:30:44.390091 17070 net.cpp:399] conv1 -> conv1
I0403 14:30:44.535351 17070 net.cpp:141] Setting up conv1
I0403 14:30:44.535442 17070 net.cpp:148] Top shape: 100 96 55 55 (29040000)
I0403 14:30:44.535460 17070 net.cpp:156] Memory required for data: 177996400
I0403 14:30:44.535492 17070 layer_factory.hpp:77] Creating layer relu1
I0403 14:30:44.535521 17070 net.cpp:91] Creating Layer relu1
I0403 14:30:44.535540 17070 net.cpp:425] relu1 <- conv1
I0403 14:30:44.535560 17070 net.cpp:386] relu1 -> conv1 (in-place)
I0403 14:30:44.535876 17070 net.cpp:141] Setting up relu1
I0403 14:30:44.535907 17070 net.cpp:148] Top shape: 100 96 55 55 (29040000)
I0403 14:30:44.535958 17070 net.cpp:156] Memory required for data: 294156400
I0403 14:30:44.535974 17070 layer_factory.hpp:77] Creating layer norm1
I0403 14:30:44.536002 17070 net.cpp:91] Creating Layer norm1
I0403 14:30:44.536021 17070 net.cpp:425] norm1 <- conv1
I0403 14:30:44.536041 17070 net.cpp:399] norm1 -> norm1
I0403 14:30:44.536380 17070 net.cpp:141] Setting up norm1
I0403 14:30:44.536408 17070 net.cpp:148] Top shape: 100 96 55 55 (29040000)
I0403 14:30:44.536425 17070 net.cpp:156] Memory required for data: 410316400
I0403 14:30:44.536442 17070 layer_factory.hpp:77] Creating layer pool1
I0403 14:30:44.536464 17070 net.cpp:91] Creating Layer pool1
I0403 14:30:44.536483 17070 net.cpp:425] pool1 <- norm1
I0403 14:30:44.536504 17070 net.cpp:399] pool1 -> pool1
I0403 14:30:44.536582 17070 net.cpp:141] Setting up pool1
I0403 14:30:44.536607 17070 net.cpp:148] Top shape: 100 96 27 27 (6998400)
I0403 14:30:44.536623 17070 net.cpp:156] Memory required for data: 438310000
I0403 14:30:44.536639 17070 layer_factory.hpp:77] Creating layer conv2
I0403 14:30:44.536665 17070 net.cpp:91] Creating Layer conv2
I0403 14:30:44.536682 17070 net.cpp:425] conv2 <- pool1
I0403 14:30:44.536701 17070 net.cpp:399] conv2 -> conv2
I0403 14:30:44.552399 17070 net.cpp:141] Setting up conv2
I0403 14:30:44.552454 17070 net.cpp:148] Top shape: 100 256 27 27 (18662400)
I0403 14:30:44.552471 17070 net.cpp:156] Memory required for data: 512959600
I0403 14:30:44.552495 17070 layer_factory.hpp:77] Creating layer relu2
I0403 14:30:44.552515 17070 net.cpp:91] Creating Layer relu2
I0403 14:30:44.552532 17070 net.cpp:425] relu2 <- conv2
I0403 14:30:44.552551 17070 net.cpp:386] relu2 -> conv2 (in-place)
I0403 14:30:44.552830 17070 net.cpp:141] Setting up relu2
I0403 14:30:44.552858 17070 net.cpp:148] Top shape: 100 256 27 27 (18662400)
I0403 14:30:44.552875 17070 net.cpp:156] Memory required for data: 587609200
I0403 14:30:44.552889 17070 layer_factory.hpp:77] Creating layer norm2
I0403 14:30:44.552911 17070 net.cpp:91] Creating Layer norm2
I0403 14:30:44.552927 17070 net.cpp:425] norm2 <- conv2
I0403 14:30:44.552947 17070 net.cpp:399] norm2 -> norm2
I0403 14:30:44.553153 17070 net.cpp:141] Setting up norm2
I0403 14:30:44.553179 17070 net.cpp:148] Top shape: 100 256 27 27 (18662400)
I0403 14:30:44.553194 17070 net.cpp:156] Memory required for data: 662258800
I0403 14:30:44.553236 17070 layer_factory.hpp:77] Creating layer pool2
I0403 14:30:44.553263 17070 net.cpp:91] Creating Layer pool2
I0403 14:30:44.553280 17070 net.cpp:425] pool2 <- norm2
I0403 14:30:44.553298 17070 net.cpp:399] pool2 -> pool2
I0403 14:30:44.553352 17070 net.cpp:141] Setting up pool2
I0403 14:30:44.553376 17070 net.cpp:148] Top shape: 100 256 13 13 (4326400)
I0403 14:30:44.553391 17070 net.cpp:156] Memory required for data: 679564400
I0403 14:30:44.553406 17070 layer_factory.hpp:77] Creating layer conv3
I0403 14:30:44.553428 17070 net.cpp:91] Creating Layer conv3
I0403 14:30:44.553444 17070 net.cpp:425] conv3 <- pool2
I0403 14:30:44.553463 17070 net.cpp:399] conv3 -> conv3
I0403 14:30:44.593776 17070 net.cpp:141] Setting up conv3
I0403 14:30:44.593822 17070 net.cpp:148] Top shape: 100 384 13 13 (6489600)
I0403 14:30:44.593838 17070 net.cpp:156] Memory required for data: 705522800
I0403 14:30:44.593863 17070 layer_factory.hpp:77] Creating layer relu3
I0403 14:30:44.593886 17070 net.cpp:91] Creating Layer relu3
I0403 14:30:44.593904 17070 net.cpp:425] relu3 <- conv3
I0403 14:30:44.593926 17070 net.cpp:386] relu3 -> conv3 (in-place)
I0403 14:30:44.594214 17070 net.cpp:141] Setting up relu3
I0403 14:30:44.594241 17070 net.cpp:148] Top shape: 100 384 13 13 (6489600)
I0403 14:30:44.594257 17070 net.cpp:156] Memory required for data: 731481200
I0403 14:30:44.594272 17070 layer_factory.hpp:77] Creating layer conv4
I0403 14:30:44.594298 17070 net.cpp:91] Creating Layer conv4
I0403 14:30:44.594316 17070 net.cpp:425] conv4 <- conv3
I0403 14:30:44.594337 17070 net.cpp:399] conv4 -> conv4
I0403 14:30:44.625505 17070 net.cpp:141] Setting up conv4
I0403 14:30:44.625589 17070 net.cpp:148] Top shape: 100 384 13 13 (6489600)
I0403 14:30:44.625638 17070 net.cpp:156] Memory required for data: 757439600
I0403 14:30:44.625674 17070 layer_factory.hpp:77] Creating layer relu4
I0403 14:30:44.625696 17070 net.cpp:91] Creating Layer relu4
I0403 14:30:44.625715 17070 net.cpp:425] relu4 <- conv4
I0403 14:30:44.625737 17070 net.cpp:386] relu4 -> conv4 (in-place)
I0403 14:30:44.626103 17070 net.cpp:141] Setting up relu4
I0403 14:30:44.626132 17070 net.cpp:148] Top shape: 100 384 13 13 (6489600)
I0403 14:30:44.626147 17070 net.cpp:156] Memory required for data: 783398000
I0403 14:30:44.626163 17070 layer_factory.hpp:77] Creating layer conv5
I0403 14:30:44.626188 17070 net.cpp:91] Creating Layer conv5
I0403 14:30:44.626204 17070 net.cpp:425] conv5 <- conv4
I0403 14:30:44.626225 17070 net.cpp:399] conv5 -> conv5
I0403 14:30:44.647503 17070 net.cpp:141] Setting up conv5
I0403 14:30:44.647558 17070 net.cpp:148] Top shape: 100 256 13 13 (4326400)
I0403 14:30:44.647577 17070 net.cpp:156] Memory required for data: 800703600
I0403 14:30:44.647601 17070 layer_factory.hpp:77] Creating layer relu5
I0403 14:30:44.647622 17070 net.cpp:91] Creating Layer relu5
I0403 14:30:44.647639 17070 net.cpp:425] relu5 <- conv5
I0403 14:30:44.647660 17070 net.cpp:386] relu5 -> conv5 (in-place)
I0403 14:30:44.647950 17070 net.cpp:141] Setting up relu5
I0403 14:30:44.647977 17070 net.cpp:148] Top shape: 100 256 13 13 (4326400)
I0403 14:30:44.647992 17070 net.cpp:156] Memory required for data: 818009200
I0403 14:30:44.648007 17070 layer_factory.hpp:77] Creating layer pool5
I0403 14:30:44.648031 17070 net.cpp:91] Creating Layer pool5
I0403 14:30:44.648053 17070 net.cpp:425] pool5 <- conv5
I0403 14:30:44.648073 17070 net.cpp:399] pool5 -> pool5
I0403 14:30:44.648140 17070 net.cpp:141] Setting up pool5
I0403 14:30:44.648164 17070 net.cpp:148] Top shape: 100 256 6 6 (921600)
I0403 14:30:44.648178 17070 net.cpp:156] Memory required for data: 821695600
I0403 14:30:44.648193 17070 layer_factory.hpp:77] Creating layer fc6
I0403 14:30:44.648221 17070 net.cpp:91] Creating Layer fc6
I0403 14:30:44.648238 17070 net.cpp:425] fc6 <- pool5
I0403 14:30:44.648259 17070 net.cpp:399] fc6 -> fc6
I0403 14:30:46.205835 17070 net.cpp:141] Setting up fc6
I0403 14:30:46.205940 17070 net.cpp:148] Top shape: 100 4096 (409600)
I0403 14:30:46.205956 17070 net.cpp:156] Memory required for data: 823334000
I0403 14:30:46.205976 17070 layer_factory.hpp:77] Creating layer relu6
I0403 14:30:46.205998 17070 net.cpp:91] Creating Layer relu6
I0403 14:30:46.206017 17070 net.cpp:425] relu6 <- fc6
I0403 14:30:46.206035 17070 net.cpp:386] relu6 -> fc6 (in-place)
I0403 14:30:46.206279 17070 net.cpp:141] Setting up relu6
I0403 14:30:46.206305 17070 net.cpp:148] Top shape: 100 4096 (409600)
I0403 14:30:46.206321 17070 net.cpp:156] Memory required for data: 824972400
I0403 14:30:46.206336 17070 layer_factory.hpp:77] Creating layer drop6
I0403 14:30:46.206353 17070 net.cpp:91] Creating Layer drop6
I0403 14:30:46.206368 17070 net.cpp:425] drop6 <- fc6
I0403 14:30:46.206387 17070 net.cpp:386] drop6 -> fc6 (in-place)
I0403 14:30:46.206440 17070 net.cpp:141] Setting up drop6
I0403 14:30:46.206466 17070 net.cpp:148] Top shape: 100 4096 (409600)
I0403 14:30:46.206482 17070 net.cpp:156] Memory required for data: 826610800
I0403 14:30:46.206496 17070 layer_factory.hpp:77] Creating layer fc7
I0403 14:30:46.206516 17070 net.cpp:91] Creating Layer fc7
I0403 14:30:46.206532 17070 net.cpp:425] fc7 <- fc6
I0403 14:30:46.206552 17070 net.cpp:399] fc7 -> fc7
I0403 14:30:46.891131 17070 net.cpp:141] Setting up fc7
I0403 14:30:46.891186 17070 net.cpp:148] Top shape: 100 4096 (409600)
I0403 14:30:46.891201 17070 net.cpp:156] Memory required for data: 828249200
I0403 14:30:46.891223 17070 layer_factory.hpp:77] Creating layer relu7
I0403 14:30:46.891245 17070 net.cpp:91] Creating Layer relu7
I0403 14:30:46.891263 17070 net.cpp:425] relu7 <- fc7
I0403 14:30:46.891284 17070 net.cpp:386] relu7 -> fc7 (in-place)
I0403 14:30:46.891732 17070 net.cpp:141] Setting up relu7
I0403 14:30:46.891758 17070 net.cpp:148] Top shape: 100 4096 (409600)
I0403 14:30:46.891808 17070 net.cpp:156] Memory required for data: 829887600
I0403 14:30:46.891824 17070 layer_factory.hpp:77] Creating layer drop7
I0403 14:30:46.891842 17070 net.cpp:91] Creating Layer drop7
I0403 14:30:46.891857 17070 net.cpp:425] drop7 <- fc7
I0403 14:30:46.891876 17070 net.cpp:386] drop7 -> fc7 (in-place)
I0403 14:30:46.891921 17070 net.cpp:141] Setting up drop7
I0403 14:30:46.891945 17070 net.cpp:148] Top shape: 100 4096 (409600)
I0403 14:30:46.891960 17070 net.cpp:156] Memory required for data: 831526000
I0403 14:30:46.891974 17070 layer_factory.hpp:77] Creating layer fc8_plantvillage
I0403 14:30:46.891993 17070 net.cpp:91] Creating Layer fc8_plantvillage
I0403 14:30:46.892009 17070 net.cpp:425] fc8_plantvillage <- fc7
I0403 14:30:46.892029 17070 net.cpp:399] fc8_plantvillage -> fc8_plantvillage
I0403 14:30:46.899091 17070 net.cpp:141] Setting up fc8_plantvillage
I0403 14:30:46.899118 17070 net.cpp:148] Top shape: 100 38 (3800)
I0403 14:30:46.899133 17070 net.cpp:156] Memory required for data: 831541200
I0403 14:30:46.899152 17070 layer_factory.hpp:77] Creating layer fc8_plantvillage_fc8_plantvillage_0_split
I0403 14:30:46.899169 17070 net.cpp:91] Creating Layer fc8_plantvillage_fc8_plantvillage_0_split
I0403 14:30:46.899188 17070 net.cpp:425] fc8_plantvillage_fc8_plantvillage_0_split <- fc8_plantvillage
I0403 14:30:46.899206 17070 net.cpp:399] fc8_plantvillage_fc8_plantvillage_0_split -> fc8_plantvillage_fc8_plantvillage_0_split_0
I0403 14:30:46.899225 17070 net.cpp:399] fc8_plantvillage_fc8_plantvillage_0_split -> fc8_plantvillage_fc8_plantvillage_0_split_1
I0403 14:30:46.899245 17070 net.cpp:399] fc8_plantvillage_fc8_plantvillage_0_split -> fc8_plantvillage_fc8_plantvillage_0_split_2
I0403 14:30:46.899336 17070 net.cpp:141] Setting up fc8_plantvillage_fc8_plantvillage_0_split
I0403 14:30:46.899363 17070 net.cpp:148] Top shape: 100 38 (3800)
I0403 14:30:46.899379 17070 net.cpp:148] Top shape: 100 38 (3800)
I0403 14:30:46.899395 17070 net.cpp:148] Top shape: 100 38 (3800)
I0403 14:30:46.899410 17070 net.cpp:156] Memory required for data: 831586800
I0403 14:30:46.899425 17070 layer_factory.hpp:77] Creating layer prob
I0403 14:30:46.899442 17070 net.cpp:91] Creating Layer prob
I0403 14:30:46.899457 17070 net.cpp:425] prob <- fc8_plantvillage_fc8_plantvillage_0_split_0
I0403 14:30:46.899476 17070 net.cpp:399] prob -> prob
I0403 14:30:46.899720 17070 net.cpp:141] Setting up prob
I0403 14:30:46.899745 17070 net.cpp:148] Top shape: 100 38 (3800)
I0403 14:30:46.899772 17070 net.cpp:156] Memory required for data: 831602000
I0403 14:30:46.899787 17070 layer_factory.hpp:77] Creating layer hdf5out
I0403 14:30:46.899806 17070 net.cpp:91] Creating Layer hdf5out
I0403 14:30:46.899823 17070 net.cpp:425] hdf5out <- prob
I0403 14:30:46.899839 17070 net.cpp:425] hdf5out <- label_data_1_split_0
I0403 14:30:46.909068 17070 net.cpp:141] Setting up hdf5out
…
