…
I0403 14:44:56.128530 17480 net.cpp:313] The NetState phase (1) differed from the phase (0) specified by a rule in layer data
I0403 14:44:56.128837 17480 net.cpp:49] Initializing net from parameters: 
state {
  phase: TEST
}
layer {
  name: "data"
  type: "Data"
  top: "data"
  top: "label"
  include {
    phase: TEST
  }
  transform_param {
    crop_size: 227
    mean_file: "/home/mohanty/data/final_dataset/lmdb/grayscale-40-60/mean.binaryproto"
  }
  data_param {
    source: "/home/mohanty/data/final_dataset/lmdb/grayscale-40-60/test_db"
    batch_size: 100
    backend: LMDB
  }
}
layer {
  name: "conv1"
  type: "Convolution"
  bottom: "data"
  top: "conv1"
  param {
    lr_mult: 1
    decay_mult: 1
  }
  param {
    lr_mult: 2
    decay_mult: 0
  }
  convolution_param {
    num_output: 96
    kernel_size: 11
    stride: 4
    weight_filler {
      type: "gaussian"
      std: 0.01
    }
    bias_filler {
      type: "constant"
      value: 0
    }
  }
}
layer {
  name: "relu1"
  type: "ReLU"
  bottom: "conv1"
  top: "conv1"
}
layer {
  name: "norm1"
  type: "LRN"
  bottom: "conv1"
  top: "norm1"
  lrn_param {
    local_size: 5
    alpha: 0.0001
    beta: 0.75
  }
}
layer {
  name: "pool1"
  type: "Pooling"
  bottom: "norm1"
  top: "pool1"
  pooling_param {
    pool: MAX
    kernel_size: 3
    stride: 2
  }
}
layer {
  name: "conv2"
  type: "Convolution"
  bottom: "pool1"
  top: "conv2"
  param {
    lr_mult: 1
    decay_mult: 1
  }
  param {
    lr_mult: 2
    decay_mult: 0
  }
  convolution_param {
    num_output: 256
    pad: 2
    kernel_size: 5
    group: 2
    weight_filler {
      type: "gaussian"
      std: 0.01
    }
    bias_filler {
      type: "constant"
      value: 0.1
    }
  }
}
layer {
  name: "relu2"
  type: "ReLU"
  bottom: "conv2"
  top: "conv2"
}
layer {
  name: "norm2"
  type: "LRN"
  bottom: "conv2"
  top: "norm2"
  lrn_param {
    local_size: 5
    alpha: 0.0001
    beta: 0.75
  }
}
layer {
  name: "pool2"
  type: "Pooling"
  bottom: "norm2"
  top: "pool2"
  pooling_param {
    pool: MAX
    kernel_size: 3
    stride: 2
  }
}
layer {
  name: "conv3"
  type: "Convolution"
  bottom: "pool2"
  top: "conv3"
  param {
    lr_mult: 1
    decay_mult: 1
  }
  param {
    lr_mult: 2
    decay_mult: 0
  }
  convolution_param {
    num_output: 384
    pad: 1
    kernel_size: 3
    weight_filler {
      type: "gaussian"
      std: 0.01
    }
    bias_filler {
      type: "constant"
      value: 0
    }
  }
}
layer {
  name: "relu3"
  type: "ReLU"
  bottom: "conv3"
  top: "conv3"
}
layer {
  name: "conv4"
  type: "Convolution"
  bottom: "conv3"
  top: "conv4"
  param {
    lr_mult: 1
    decay_mult: 1
  }
  param {
    lr_mult: 2
    decay_mult: 0
  }
  convolution_param {
    num_output: 384
    pad: 1
    kernel_size: 3
    group: 2
    weight_filler {
      type: "gaussian"
      std: 0.01
    }
    bias_filler {
      type: "constant"
      value: 0.1
    }
  }
}
layer {
  name: "relu4"
  type: "ReLU"
  bottom: "conv4"
  top: "conv4"
}
layer {
  name: "conv5"
  type: "Convolution"
  bottom: "conv4"
  top: "conv5"
  param {
    lr_mult: 1
    decay_mult: 1
  }
  param {
    lr_mult: 2
    decay_mult: 0
  }
  convolution_param {
    num_output: 256
    pad: 1
    kernel_size: 3
    group: 2
    weight_filler {
      type: "gaussian"
      std: 0.01
    }
    bias_filler {
      type: "constant"
      value: 0.1
    }
  }
}
layer {
  name: "relu5"
  type: "ReLU"
  bottom: "conv5"
  top: "conv5"
}
layer {
  name: "pool5"
  type: "Pooling"
  bottom: "conv5"
  top: "pool5"
  pooling_param {
    pool: MAX
    kernel_size: 3
    stride: 2
  }
}
layer {
  name: "fc6"
  type: "InnerProduct"
  bottom: "pool5"
  top: "fc6"
  param {
    lr_mult: 1
    decay_mult: 1
  }
  param {
    lr_mult: 2
    decay_mult: 0
  }
  inner_product_param {
    num_output: 4096
    weight_filler {
      type: "gaussian"
      std: 0.005
    }
    bias_filler {
      type: "constant"
      value: 0.1
    }
  }
}
layer {
  name: "relu6"
  type: "ReLU"
  bottom: "fc6"
  top: "fc6"
}
layer {
  name: "drop6"
  type: "Dropout"
  bottom: "fc6"
  top: "fc6"
  dropout_param {
    dropout_ratio: 0.5
  }
}
layer {
  name: "fc7"
  type: "InnerProduct"
  bottom: "fc6"
  top: "fc7"
  param {
    lr_mult: 1
    decay_mult: 1
  }
  param {
    lr_mult: 2
    decay_mult: 0
  }
  inner_product_param {
    num_output: 4096
    weight_filler {
      type: "gaussian"
      std: 0.005
    }
    bias_filler {
      type: "constant"
      value: 0.1
    }
  }
}
layer {
  name: "relu7"
  type: "ReLU"
  bottom: "fc7"
  top: "fc7"
}
layer {
  name: "drop7"
  type: "Dropout"
  bottom: "fc7"
  top: "fc7"
  dropout_param {
    dropout_ratio: 0.5
  }
}
layer {
  name: "fc8_plantvillage"
  type: "InnerProduct"
  bottom: "fc7"
  top: "fc8_plantvillage"
  param {
    lr_mult: 1
    decay_mult: 1
  }
  param {
    lr_mult: 2
    decay_mult: 0
  }
  inner_product_param {
    num_output: 38
    weight_filler {
      type: "gaussian"
      std: 0.01
    }
    bias_filler {
      type: "constant"
      value: 0
    }
  }
}
layer {
  name: "prob"
  type: "Softmax"
  bottom: "fc8_plantvillage"
  top: "prob"
  include {
    phase: TEST
  }
}
layer {
  name: "hdf5out"
  type: "HDF5Output"
  bottom: "prob"
  bottom: "label"
  include {
    phase: TEST
  }
  hdf5_output_param {
    file_name: "hdf5_dumps/iter_3942.h5"
  }
}
layer {
  name: "loss"
  type: "SoftmaxWithLoss"
  bottom: "fc8_plantvillage"
  bottom: "label"
  top: "loss"
}
layer {
  name: "accuracy"
  type: "Accuracy"
  bottom: "fc8_plantvillage"
  bottom: "label"
  top: "accuracy"
  include {
    phase: TEST
  }
}
I0403 14:44:56.129422 17480 layer_factory.hpp:77] Creating layer data
I0403 14:44:56.130064 17480 net.cpp:91] Creating Layer data
I0403 14:44:56.130108 17480 net.cpp:399] data -> data
I0403 14:44:56.130172 17480 net.cpp:399] data -> label
I0403 14:44:56.130211 17480 data_transformer.cpp:25] Loading mean file from: /home/mohanty/data/final_dataset/lmdb/grayscale-40-60/mean.binaryproto
I0403 14:44:56.132755 17482 db_lmdb.cpp:38] Opened lmdb /home/mohanty/data/final_dataset/lmdb/grayscale-40-60/test_db
I0403 14:44:56.144903 17480 data_layer.cpp:41] output data size: 100,3,227,227
I0403 14:44:56.262886 17480 net.cpp:141] Setting up data
I0403 14:44:56.262992 17480 net.cpp:148] Top shape: 100 3 227 227 (15458700)
I0403 14:44:56.263015 17480 net.cpp:148] Top shape: 100 (100)
I0403 14:44:56.263036 17480 net.cpp:156] Memory required for data: 61835200
I0403 14:44:56.263063 17480 layer_factory.hpp:77] Creating layer label_data_1_split
I0403 14:44:56.263087 17480 net.cpp:91] Creating Layer label_data_1_split
I0403 14:44:56.263106 17480 net.cpp:425] label_data_1_split <- label
I0403 14:44:56.263137 17480 net.cpp:399] label_data_1_split -> label_data_1_split_0
I0403 14:44:56.263164 17480 net.cpp:399] label_data_1_split -> label_data_1_split_1
I0403 14:44:56.263185 17480 net.cpp:399] label_data_1_split -> label_data_1_split_2
I0403 14:44:56.263247 17480 net.cpp:141] Setting up label_data_1_split
I0403 14:44:56.263269 17480 net.cpp:148] Top shape: 100 (100)
I0403 14:44:56.263286 17480 net.cpp:148] Top shape: 100 (100)
I0403 14:44:56.263303 17480 net.cpp:148] Top shape: 100 (100)
I0403 14:44:56.263316 17480 net.cpp:156] Memory required for data: 61836400
I0403 14:44:56.263330 17480 layer_factory.hpp:77] Creating layer conv1
I0403 14:44:56.263361 17480 net.cpp:91] Creating Layer conv1
I0403 14:44:56.263381 17480 net.cpp:425] conv1 <- data
I0403 14:44:56.263399 17480 net.cpp:399] conv1 -> conv1
I0403 14:44:56.408417 17480 net.cpp:141] Setting up conv1
I0403 14:44:56.408510 17480 net.cpp:148] Top shape: 100 96 55 55 (29040000)
I0403 14:44:56.408527 17480 net.cpp:156] Memory required for data: 177996400
I0403 14:44:56.408560 17480 layer_factory.hpp:77] Creating layer relu1
I0403 14:44:56.408588 17480 net.cpp:91] Creating Layer relu1
I0403 14:44:56.408607 17480 net.cpp:425] relu1 <- conv1
I0403 14:44:56.408625 17480 net.cpp:386] relu1 -> conv1 (in-place)
I0403 14:44:56.408921 17480 net.cpp:141] Setting up relu1
I0403 14:44:56.408948 17480 net.cpp:148] Top shape: 100 96 55 55 (29040000)
I0403 14:44:56.408996 17480 net.cpp:156] Memory required for data: 294156400
I0403 14:44:56.409013 17480 layer_factory.hpp:77] Creating layer norm1
I0403 14:44:56.409054 17480 net.cpp:91] Creating Layer norm1
I0403 14:44:56.409072 17480 net.cpp:425] norm1 <- conv1
I0403 14:44:56.409090 17480 net.cpp:399] norm1 -> norm1
I0403 14:44:56.409407 17480 net.cpp:141] Setting up norm1
I0403 14:44:56.409435 17480 net.cpp:148] Top shape: 100 96 55 55 (29040000)
I0403 14:44:56.409449 17480 net.cpp:156] Memory required for data: 410316400
I0403 14:44:56.409463 17480 layer_factory.hpp:77] Creating layer pool1
I0403 14:44:56.409485 17480 net.cpp:91] Creating Layer pool1
I0403 14:44:56.409502 17480 net.cpp:425] pool1 <- norm1
I0403 14:44:56.409519 17480 net.cpp:399] pool1 -> pool1
I0403 14:44:56.409584 17480 net.cpp:141] Setting up pool1
I0403 14:44:56.409608 17480 net.cpp:148] Top shape: 100 96 27 27 (6998400)
I0403 14:44:56.409622 17480 net.cpp:156] Memory required for data: 438310000
I0403 14:44:56.409637 17480 layer_factory.hpp:77] Creating layer conv2
I0403 14:44:56.409662 17480 net.cpp:91] Creating Layer conv2
I0403 14:44:56.409677 17480 net.cpp:425] conv2 <- pool1
I0403 14:44:56.409694 17480 net.cpp:399] conv2 -> conv2
I0403 14:44:56.424937 17480 net.cpp:141] Setting up conv2
I0403 14:44:56.424998 17480 net.cpp:148] Top shape: 100 256 27 27 (18662400)
I0403 14:44:56.425014 17480 net.cpp:156] Memory required for data: 512959600
I0403 14:44:56.425041 17480 layer_factory.hpp:77] Creating layer relu2
I0403 14:44:56.425065 17480 net.cpp:91] Creating Layer relu2
I0403 14:44:56.425083 17480 net.cpp:425] relu2 <- conv2
I0403 14:44:56.425101 17480 net.cpp:386] relu2 -> conv2 (in-place)
I0403 14:44:56.425384 17480 net.cpp:141] Setting up relu2
I0403 14:44:56.425412 17480 net.cpp:148] Top shape: 100 256 27 27 (18662400)
I0403 14:44:56.425428 17480 net.cpp:156] Memory required for data: 587609200
I0403 14:44:56.425443 17480 layer_factory.hpp:77] Creating layer norm2
I0403 14:44:56.425467 17480 net.cpp:91] Creating Layer norm2
I0403 14:44:56.425484 17480 net.cpp:425] norm2 <- conv2
I0403 14:44:56.425503 17480 net.cpp:399] norm2 -> norm2
I0403 14:44:56.425747 17480 net.cpp:141] Setting up norm2
I0403 14:44:56.425775 17480 net.cpp:148] Top shape: 100 256 27 27 (18662400)
I0403 14:44:56.425789 17480 net.cpp:156] Memory required for data: 662258800
I0403 14:44:56.425803 17480 layer_factory.hpp:77] Creating layer pool2
I0403 14:44:56.425824 17480 net.cpp:91] Creating Layer pool2
I0403 14:44:56.425840 17480 net.cpp:425] pool2 <- norm2
I0403 14:44:56.425858 17480 net.cpp:399] pool2 -> pool2
I0403 14:44:56.425914 17480 net.cpp:141] Setting up pool2
I0403 14:44:56.425936 17480 net.cpp:148] Top shape: 100 256 13 13 (4326400)
I0403 14:44:56.425951 17480 net.cpp:156] Memory required for data: 679564400
I0403 14:44:56.425964 17480 layer_factory.hpp:77] Creating layer conv3
I0403 14:44:56.425988 17480 net.cpp:91] Creating Layer conv3
I0403 14:44:56.426005 17480 net.cpp:425] conv3 <- pool2
I0403 14:44:56.426030 17480 net.cpp:399] conv3 -> conv3
I0403 14:44:56.465080 17480 net.cpp:141] Setting up conv3
I0403 14:44:56.465167 17480 net.cpp:148] Top shape: 100 384 13 13 (6489600)
I0403 14:44:56.465188 17480 net.cpp:156] Memory required for data: 705522800
I0403 14:44:56.465214 17480 layer_factory.hpp:77] Creating layer relu3
I0403 14:44:56.465235 17480 net.cpp:91] Creating Layer relu3
I0403 14:44:56.465253 17480 net.cpp:425] relu3 <- conv3
I0403 14:44:56.465272 17480 net.cpp:386] relu3 -> conv3 (in-place)
I0403 14:44:56.465556 17480 net.cpp:141] Setting up relu3
I0403 14:44:56.465586 17480 net.cpp:148] Top shape: 100 384 13 13 (6489600)
I0403 14:44:56.465603 17480 net.cpp:156] Memory required for data: 731481200
I0403 14:44:56.465618 17480 layer_factory.hpp:77] Creating layer conv4
I0403 14:44:56.465643 17480 net.cpp:91] Creating Layer conv4
I0403 14:44:56.465661 17480 net.cpp:425] conv4 <- conv3
I0403 14:44:56.465678 17480 net.cpp:399] conv4 -> conv4
I0403 14:44:56.496167 17480 net.cpp:141] Setting up conv4
I0403 14:44:56.496261 17480 net.cpp:148] Top shape: 100 384 13 13 (6489600)
I0403 14:44:56.496309 17480 net.cpp:156] Memory required for data: 757439600
I0403 14:44:56.496332 17480 layer_factory.hpp:77] Creating layer relu4
I0403 14:44:56.496357 17480 net.cpp:91] Creating Layer relu4
I0403 14:44:56.496376 17480 net.cpp:425] relu4 <- conv4
I0403 14:44:56.496395 17480 net.cpp:386] relu4 -> conv4 (in-place)
I0403 14:44:56.496718 17480 net.cpp:141] Setting up relu4
I0403 14:44:56.496747 17480 net.cpp:148] Top shape: 100 384 13 13 (6489600)
I0403 14:44:56.496762 17480 net.cpp:156] Memory required for data: 783398000
I0403 14:44:56.496776 17480 layer_factory.hpp:77] Creating layer conv5
I0403 14:44:56.496803 17480 net.cpp:91] Creating Layer conv5
I0403 14:44:56.496820 17480 net.cpp:425] conv5 <- conv4
I0403 14:44:56.496841 17480 net.cpp:399] conv5 -> conv5
I0403 14:44:56.517953 17480 net.cpp:141] Setting up conv5
I0403 14:44:56.517990 17480 net.cpp:148] Top shape: 100 256 13 13 (4326400)
I0403 14:44:56.518007 17480 net.cpp:156] Memory required for data: 800703600
I0403 14:44:56.518044 17480 layer_factory.hpp:77] Creating layer relu5
I0403 14:44:56.518070 17480 net.cpp:91] Creating Layer relu5
I0403 14:44:56.518088 17480 net.cpp:425] relu5 <- conv5
I0403 14:44:56.518106 17480 net.cpp:386] relu5 -> conv5 (in-place)
I0403 14:44:56.518394 17480 net.cpp:141] Setting up relu5
I0403 14:44:56.518422 17480 net.cpp:148] Top shape: 100 256 13 13 (4326400)
I0403 14:44:56.518438 17480 net.cpp:156] Memory required for data: 818009200
I0403 14:44:56.518453 17480 layer_factory.hpp:77] Creating layer pool5
I0403 14:44:56.518474 17480 net.cpp:91] Creating Layer pool5
I0403 14:44:56.518491 17480 net.cpp:425] pool5 <- conv5
I0403 14:44:56.518510 17480 net.cpp:399] pool5 -> pool5
I0403 14:44:56.518569 17480 net.cpp:141] Setting up pool5
I0403 14:44:56.518595 17480 net.cpp:148] Top shape: 100 256 6 6 (921600)
I0403 14:44:56.518610 17480 net.cpp:156] Memory required for data: 821695600
I0403 14:44:56.518625 17480 layer_factory.hpp:77] Creating layer fc6
I0403 14:44:56.518651 17480 net.cpp:91] Creating Layer fc6
I0403 14:44:56.518667 17480 net.cpp:425] fc6 <- pool5
I0403 14:44:56.518687 17480 net.cpp:399] fc6 -> fc6
I0403 14:44:58.106390 17480 net.cpp:141] Setting up fc6
I0403 14:44:58.106480 17480 net.cpp:148] Top shape: 100 4096 (409600)
I0403 14:44:58.106504 17480 net.cpp:156] Memory required for data: 823334000
I0403 14:44:58.106526 17480 layer_factory.hpp:77] Creating layer relu6
I0403 14:44:58.106551 17480 net.cpp:91] Creating Layer relu6
I0403 14:44:58.106570 17480 net.cpp:425] relu6 <- fc6
I0403 14:44:58.106590 17480 net.cpp:386] relu6 -> fc6 (in-place)
I0403 14:44:58.106806 17480 net.cpp:141] Setting up relu6
I0403 14:44:58.106832 17480 net.cpp:148] Top shape: 100 4096 (409600)
I0403 14:44:58.106845 17480 net.cpp:156] Memory required for data: 824972400
I0403 14:44:58.106859 17480 layer_factory.hpp:77] Creating layer drop6
I0403 14:44:58.106880 17480 net.cpp:91] Creating Layer drop6
I0403 14:44:58.106897 17480 net.cpp:425] drop6 <- fc6
I0403 14:44:58.106914 17480 net.cpp:386] drop6 -> fc6 (in-place)
I0403 14:44:58.106967 17480 net.cpp:141] Setting up drop6
I0403 14:44:58.106992 17480 net.cpp:148] Top shape: 100 4096 (409600)
I0403 14:44:58.107005 17480 net.cpp:156] Memory required for data: 826610800
I0403 14:44:58.107026 17480 layer_factory.hpp:77] Creating layer fc7
I0403 14:44:58.107050 17480 net.cpp:91] Creating Layer fc7
I0403 14:44:58.107066 17480 net.cpp:425] fc7 <- fc6
I0403 14:44:58.107084 17480 net.cpp:399] fc7 -> fc7
I0403 14:44:58.792829 17480 net.cpp:141] Setting up fc7
I0403 14:44:58.792927 17480 net.cpp:148] Top shape: 100 4096 (409600)
I0403 14:44:58.792943 17480 net.cpp:156] Memory required for data: 828249200
I0403 14:44:58.792964 17480 layer_factory.hpp:77] Creating layer relu7
I0403 14:44:58.792986 17480 net.cpp:91] Creating Layer relu7
I0403 14:44:58.793004 17480 net.cpp:425] relu7 <- fc7
I0403 14:44:58.793026 17480 net.cpp:386] relu7 -> fc7 (in-place)
I0403 14:44:58.793457 17480 net.cpp:141] Setting up relu7
I0403 14:44:58.793484 17480 net.cpp:148] Top shape: 100 4096 (409600)
I0403 14:44:58.793531 17480 net.cpp:156] Memory required for data: 829887600
I0403 14:44:58.793547 17480 layer_factory.hpp:77] Creating layer drop7
I0403 14:44:58.793566 17480 net.cpp:91] Creating Layer drop7
I0403 14:44:58.793581 17480 net.cpp:425] drop7 <- fc7
I0403 14:44:58.793598 17480 net.cpp:386] drop7 -> fc7 (in-place)
I0403 14:44:58.793642 17480 net.cpp:141] Setting up drop7
I0403 14:44:58.793664 17480 net.cpp:148] Top shape: 100 4096 (409600)
I0403 14:44:58.793678 17480 net.cpp:156] Memory required for data: 831526000
I0403 14:44:58.793692 17480 layer_factory.hpp:77] Creating layer fc8_plantvillage
I0403 14:44:58.793714 17480 net.cpp:91] Creating Layer fc8_plantvillage
I0403 14:44:58.793730 17480 net.cpp:425] fc8_plantvillage <- fc7
I0403 14:44:58.793747 17480 net.cpp:399] fc8_plantvillage -> fc8_plantvillage
I0403 14:44:58.800562 17480 net.cpp:141] Setting up fc8_plantvillage
I0403 14:44:58.800590 17480 net.cpp:148] Top shape: 100 38 (3800)
I0403 14:44:58.800606 17480 net.cpp:156] Memory required for data: 831541200
I0403 14:44:58.800623 17480 layer_factory.hpp:77] Creating layer fc8_plantvillage_fc8_plantvillage_0_split
I0403 14:44:58.800647 17480 net.cpp:91] Creating Layer fc8_plantvillage_fc8_plantvillage_0_split
I0403 14:44:58.800663 17480 net.cpp:425] fc8_plantvillage_fc8_plantvillage_0_split <- fc8_plantvillage
I0403 14:44:58.800680 17480 net.cpp:399] fc8_plantvillage_fc8_plantvillage_0_split -> fc8_plantvillage_fc8_plantvillage_0_split_0
I0403 14:44:58.800704 17480 net.cpp:399] fc8_plantvillage_fc8_plantvillage_0_split -> fc8_plantvillage_fc8_plantvillage_0_split_1
I0403 14:44:58.800724 17480 net.cpp:399] fc8_plantvillage_fc8_plantvillage_0_split -> fc8_plantvillage_fc8_plantvillage_0_split_2
I0403 14:44:58.800801 17480 net.cpp:141] Setting up fc8_plantvillage_fc8_plantvillage_0_split
I0403 14:44:58.800824 17480 net.cpp:148] Top shape: 100 38 (3800)
I0403 14:44:58.800839 17480 net.cpp:148] Top shape: 100 38 (3800)
I0403 14:44:58.800855 17480 net.cpp:148] Top shape: 100 38 (3800)
I0403 14:44:58.800869 17480 net.cpp:156] Memory required for data: 831586800
I0403 14:44:58.800884 17480 layer_factory.hpp:77] Creating layer prob
I0403 14:44:58.800904 17480 net.cpp:91] Creating Layer prob
I0403 14:44:58.800920 17480 net.cpp:425] prob <- fc8_plantvillage_fc8_plantvillage_0_split_0
I0403 14:44:58.800938 17480 net.cpp:399] prob -> prob
I0403 14:44:58.801169 17480 net.cpp:141] Setting up prob
I0403 14:44:58.801194 17480 net.cpp:148] Top shape: 100 38 (3800)
I0403 14:44:58.801210 17480 net.cpp:156] Memory required for data: 831602000
I0403 14:44:58.801224 17480 layer_factory.hpp:77] Creating layer hdf5out
I0403 14:44:58.801244 17480 net.cpp:91] Creating Layer hdf5out
I0403 14:44:58.801261 17480 net.cpp:425] hdf5out <- prob
I0403 14:44:58.801277 17480 net.cpp:425] hdf5out <- label_data_1_split_0
I0403 14:44:58.803833 17480 net.cpp:141] Setting up hdf5out
…
