…
I0403 14:35:06.177089 17193 net.cpp:313] The NetState phase (1) differed from the phase (0) specified by a rule in layer data
I0403 14:35:06.177418 17193 net.cpp:49] Initializing net from parameters: 
state {
  phase: TEST
}
layer {
  name: "data"
  type: "Data"
  top: "data"
  top: "label"
  include {
    phase: TEST
  }
  transform_param {
    crop_size: 227
    mean_file: "/home/mohanty/data/final_dataset/lmdb/grayscale-40-60/mean.binaryproto"
  }
  data_param {
    source: "/home/mohanty/data/final_dataset/lmdb/grayscale-40-60/test_db"
    batch_size: 100
    backend: LMDB
  }
}
layer {
  name: "conv1"
  type: "Convolution"
  bottom: "data"
  top: "conv1"
  param {
    lr_mult: 1
    decay_mult: 1
  }
  param {
    lr_mult: 2
    decay_mult: 0
  }
  convolution_param {
    num_output: 96
    kernel_size: 11
    stride: 4
    weight_filler {
      type: "gaussian"
      std: 0.01
    }
    bias_filler {
      type: "constant"
      value: 0
    }
  }
}
layer {
  name: "relu1"
  type: "ReLU"
  bottom: "conv1"
  top: "conv1"
}
layer {
  name: "norm1"
  type: "LRN"
  bottom: "conv1"
  top: "norm1"
  lrn_param {
    local_size: 5
    alpha: 0.0001
    beta: 0.75
  }
}
layer {
  name: "pool1"
  type: "Pooling"
  bottom: "norm1"
  top: "pool1"
  pooling_param {
    pool: MAX
    kernel_size: 3
    stride: 2
  }
}
layer {
  name: "conv2"
  type: "Convolution"
  bottom: "pool1"
  top: "conv2"
  param {
    lr_mult: 1
    decay_mult: 1
  }
  param {
    lr_mult: 2
    decay_mult: 0
  }
  convolution_param {
    num_output: 256
    pad: 2
    kernel_size: 5
    group: 2
    weight_filler {
      type: "gaussian"
      std: 0.01
    }
    bias_filler {
      type: "constant"
      value: 0.1
    }
  }
}
layer {
  name: "relu2"
  type: "ReLU"
  bottom: "conv2"
  top: "conv2"
}
layer {
  name: "norm2"
  type: "LRN"
  bottom: "conv2"
  top: "norm2"
  lrn_param {
    local_size: 5
    alpha: 0.0001
    beta: 0.75
  }
}
layer {
  name: "pool2"
  type: "Pooling"
  bottom: "norm2"
  top: "pool2"
  pooling_param {
    pool: MAX
    kernel_size: 3
    stride: 2
  }
}
layer {
  name: "conv3"
  type: "Convolution"
  bottom: "pool2"
  top: "conv3"
  param {
    lr_mult: 1
    decay_mult: 1
  }
  param {
    lr_mult: 2
    decay_mult: 0
  }
  convolution_param {
    num_output: 384
    pad: 1
    kernel_size: 3
    weight_filler {
      type: "gaussian"
      std: 0.01
    }
    bias_filler {
      type: "constant"
      value: 0
    }
  }
}
layer {
  name: "relu3"
  type: "ReLU"
  bottom: "conv3"
  top: "conv3"
}
layer {
  name: "conv4"
  type: "Convolution"
  bottom: "conv3"
  top: "conv4"
  param {
    lr_mult: 1
    decay_mult: 1
  }
  param {
    lr_mult: 2
    decay_mult: 0
  }
  convolution_param {
    num_output: 384
    pad: 1
    kernel_size: 3
    group: 2
    weight_filler {
      type: "gaussian"
      std: 0.01
    }
    bias_filler {
      type: "constant"
      value: 0.1
    }
  }
}
layer {
  name: "relu4"
  type: "ReLU"
  bottom: "conv4"
  top: "conv4"
}
layer {
  name: "conv5"
  type: "Convolution"
  bottom: "conv4"
  top: "conv5"
  param {
    lr_mult: 1
    decay_mult: 1
  }
  param {
    lr_mult: 2
    decay_mult: 0
  }
  convolution_param {
    num_output: 256
    pad: 1
    kernel_size: 3
    group: 2
    weight_filler {
      type: "gaussian"
      std: 0.01
    }
    bias_filler {
      type: "constant"
      value: 0.1
    }
  }
}
layer {
  name: "relu5"
  type: "ReLU"
  bottom: "conv5"
  top: "conv5"
}
layer {
  name: "pool5"
  type: "Pooling"
  bottom: "conv5"
  top: "pool5"
  pooling_param {
    pool: MAX
    kernel_size: 3
    stride: 2
  }
}
layer {
  name: "fc6"
  type: "InnerProduct"
  bottom: "pool5"
  top: "fc6"
  param {
    lr_mult: 1
    decay_mult: 1
  }
  param {
    lr_mult: 2
    decay_mult: 0
  }
  inner_product_param {
    num_output: 4096
    weight_filler {
      type: "gaussian"
      std: 0.005
    }
    bias_filler {
      type: "constant"
      value: 0.1
    }
  }
}
layer {
  name: "relu6"
  type: "ReLU"
  bottom: "fc6"
  top: "fc6"
}
layer {
  name: "drop6"
  type: "Dropout"
  bottom: "fc6"
  top: "fc6"
  dropout_param {
    dropout_ratio: 0.5
  }
}
layer {
  name: "fc7"
  type: "InnerProduct"
  bottom: "fc6"
  top: "fc7"
  param {
    lr_mult: 1
    decay_mult: 1
  }
  param {
    lr_mult: 2
    decay_mult: 0
  }
  inner_product_param {
    num_output: 4096
    weight_filler {
      type: "gaussian"
      std: 0.005
    }
    bias_filler {
      type: "constant"
      value: 0.1
    }
  }
}
layer {
  name: "relu7"
  type: "ReLU"
  bottom: "fc7"
  top: "fc7"
}
layer {
  name: "drop7"
  type: "Dropout"
  bottom: "fc7"
  top: "fc7"
  dropout_param {
    dropout_ratio: 0.5
  }
}
layer {
  name: "fc8_plantvillage"
  type: "InnerProduct"
  bottom: "fc7"
  top: "fc8_plantvillage"
  param {
    lr_mult: 1
    decay_mult: 1
  }
  param {
    lr_mult: 2
    decay_mult: 0
  }
  inner_product_param {
    num_output: 38
    weight_filler {
      type: "gaussian"
      std: 0.01
    }
    bias_filler {
      type: "constant"
      value: 0
    }
  }
}
layer {
  name: "prob"
  type: "Softmax"
  bottom: "fc8_plantvillage"
  top: "prob"
  include {
    phase: TEST
  }
}
layer {
  name: "hdf5out"
  type: "HDF5Output"
  bottom: "prob"
  bottom: "label"
  include {
    phase: TEST
  }
  hdf5_output_param {
    file_name: "hdf5_dumps/iter_1971.h5"
  }
}
layer {
  name: "loss"
  type: "SoftmaxWithLoss"
  bottom: "fc8_plantvillage"
  bottom: "label"
  top: "loss"
}
layer {
  name: "accuracy"
  type: "Accuracy"
  bottom: "fc8_plantvillage"
  bottom: "label"
  top: "accuracy"
  include {
    phase: TEST
  }
}
I0403 14:35:06.178022 17193 layer_factory.hpp:77] Creating layer data
I0403 14:35:06.178671 17193 net.cpp:91] Creating Layer data
I0403 14:35:06.178705 17193 net.cpp:399] data -> data
I0403 14:35:06.178756 17193 net.cpp:399] data -> label
I0403 14:35:06.178794 17193 data_transformer.cpp:25] Loading mean file from: /home/mohanty/data/final_dataset/lmdb/grayscale-40-60/mean.binaryproto
I0403 14:35:06.181299 17196 db_lmdb.cpp:38] Opened lmdb /home/mohanty/data/final_dataset/lmdb/grayscale-40-60/test_db
I0403 14:35:06.193480 17193 data_layer.cpp:41] output data size: 100,3,227,227
I0403 14:35:06.314704 17193 net.cpp:141] Setting up data
I0403 14:35:06.314810 17193 net.cpp:148] Top shape: 100 3 227 227 (15458700)
I0403 14:35:06.314832 17193 net.cpp:148] Top shape: 100 (100)
I0403 14:35:06.314846 17193 net.cpp:156] Memory required for data: 61835200
I0403 14:35:06.314875 17193 layer_factory.hpp:77] Creating layer label_data_1_split
I0403 14:35:06.314901 17193 net.cpp:91] Creating Layer label_data_1_split
I0403 14:35:06.314919 17193 net.cpp:425] label_data_1_split <- label
I0403 14:35:06.314951 17193 net.cpp:399] label_data_1_split -> label_data_1_split_0
I0403 14:35:06.314978 17193 net.cpp:399] label_data_1_split -> label_data_1_split_1
I0403 14:35:06.314998 17193 net.cpp:399] label_data_1_split -> label_data_1_split_2
I0403 14:35:06.315068 17193 net.cpp:141] Setting up label_data_1_split
I0403 14:35:06.315091 17193 net.cpp:148] Top shape: 100 (100)
I0403 14:35:06.315107 17193 net.cpp:148] Top shape: 100 (100)
I0403 14:35:06.315124 17193 net.cpp:148] Top shape: 100 (100)
I0403 14:35:06.315137 17193 net.cpp:156] Memory required for data: 61836400
I0403 14:35:06.315152 17193 layer_factory.hpp:77] Creating layer conv1
I0403 14:35:06.315197 17193 net.cpp:91] Creating Layer conv1
I0403 14:35:06.315218 17193 net.cpp:425] conv1 <- data
I0403 14:35:06.315238 17193 net.cpp:399] conv1 -> conv1
I0403 14:35:06.455796 17193 net.cpp:141] Setting up conv1
I0403 14:35:06.455874 17193 net.cpp:148] Top shape: 100 96 55 55 (29040000)
I0403 14:35:06.455891 17193 net.cpp:156] Memory required for data: 177996400
I0403 14:35:06.455922 17193 layer_factory.hpp:77] Creating layer relu1
I0403 14:35:06.455962 17193 net.cpp:91] Creating Layer relu1
I0403 14:35:06.455981 17193 net.cpp:425] relu1 <- conv1
I0403 14:35:06.456001 17193 net.cpp:386] relu1 -> conv1 (in-place)
I0403 14:35:06.456254 17193 net.cpp:141] Setting up relu1
I0403 14:35:06.456282 17193 net.cpp:148] Top shape: 100 96 55 55 (29040000)
I0403 14:35:06.456327 17193 net.cpp:156] Memory required for data: 294156400
I0403 14:35:06.456343 17193 layer_factory.hpp:77] Creating layer norm1
I0403 14:35:06.456370 17193 net.cpp:91] Creating Layer norm1
I0403 14:35:06.456388 17193 net.cpp:425] norm1 <- conv1
I0403 14:35:06.456406 17193 net.cpp:399] norm1 -> norm1
I0403 14:35:06.456714 17193 net.cpp:141] Setting up norm1
I0403 14:35:06.456742 17193 net.cpp:148] Top shape: 100 96 55 55 (29040000)
I0403 14:35:06.456756 17193 net.cpp:156] Memory required for data: 410316400
I0403 14:35:06.456771 17193 layer_factory.hpp:77] Creating layer pool1
I0403 14:35:06.456794 17193 net.cpp:91] Creating Layer pool1
I0403 14:35:06.456810 17193 net.cpp:425] pool1 <- norm1
I0403 14:35:06.456828 17193 net.cpp:399] pool1 -> pool1
I0403 14:35:06.456893 17193 net.cpp:141] Setting up pool1
I0403 14:35:06.456917 17193 net.cpp:148] Top shape: 100 96 27 27 (6998400)
I0403 14:35:06.456930 17193 net.cpp:156] Memory required for data: 438310000
I0403 14:35:06.456945 17193 layer_factory.hpp:77] Creating layer conv2
I0403 14:35:06.456969 17193 net.cpp:91] Creating Layer conv2
I0403 14:35:06.456985 17193 net.cpp:425] conv2 <- pool1
I0403 14:35:06.457002 17193 net.cpp:399] conv2 -> conv2
I0403 14:35:06.471837 17193 net.cpp:141] Setting up conv2
I0403 14:35:06.471889 17193 net.cpp:148] Top shape: 100 256 27 27 (18662400)
I0403 14:35:06.471904 17193 net.cpp:156] Memory required for data: 512959600
I0403 14:35:06.471930 17193 layer_factory.hpp:77] Creating layer relu2
I0403 14:35:06.471951 17193 net.cpp:91] Creating Layer relu2
I0403 14:35:06.471968 17193 net.cpp:425] relu2 <- conv2
I0403 14:35:06.471987 17193 net.cpp:386] relu2 -> conv2 (in-place)
I0403 14:35:06.472267 17193 net.cpp:141] Setting up relu2
I0403 14:35:06.472296 17193 net.cpp:148] Top shape: 100 256 27 27 (18662400)
I0403 14:35:06.472312 17193 net.cpp:156] Memory required for data: 587609200
I0403 14:35:06.472327 17193 layer_factory.hpp:77] Creating layer norm2
I0403 14:35:06.472348 17193 net.cpp:91] Creating Layer norm2
I0403 14:35:06.472364 17193 net.cpp:425] norm2 <- conv2
I0403 14:35:06.472384 17193 net.cpp:399] norm2 -> norm2
I0403 14:35:06.472594 17193 net.cpp:141] Setting up norm2
I0403 14:35:06.472618 17193 net.cpp:148] Top shape: 100 256 27 27 (18662400)
I0403 14:35:06.472633 17193 net.cpp:156] Memory required for data: 662258800
I0403 14:35:06.472648 17193 layer_factory.hpp:77] Creating layer pool2
I0403 14:35:06.472668 17193 net.cpp:91] Creating Layer pool2
I0403 14:35:06.472686 17193 net.cpp:425] pool2 <- norm2
I0403 14:35:06.472703 17193 net.cpp:399] pool2 -> pool2
I0403 14:35:06.472757 17193 net.cpp:141] Setting up pool2
I0403 14:35:06.472781 17193 net.cpp:148] Top shape: 100 256 13 13 (4326400)
I0403 14:35:06.472796 17193 net.cpp:156] Memory required for data: 679564400
I0403 14:35:06.472822 17193 layer_factory.hpp:77] Creating layer conv3
I0403 14:35:06.472846 17193 net.cpp:91] Creating Layer conv3
I0403 14:35:06.472862 17193 net.cpp:425] conv3 <- pool2
I0403 14:35:06.472882 17193 net.cpp:399] conv3 -> conv3
I0403 14:35:06.511004 17193 net.cpp:141] Setting up conv3
I0403 14:35:06.511085 17193 net.cpp:148] Top shape: 100 384 13 13 (6489600)
I0403 14:35:06.511101 17193 net.cpp:156] Memory required for data: 705522800
I0403 14:35:06.511127 17193 layer_factory.hpp:77] Creating layer relu3
I0403 14:35:06.511152 17193 net.cpp:91] Creating Layer relu3
I0403 14:35:06.511170 17193 net.cpp:425] relu3 <- conv3
I0403 14:35:06.511190 17193 net.cpp:386] relu3 -> conv3 (in-place)
I0403 14:35:06.517397 17193 net.cpp:141] Setting up relu3
I0403 14:35:06.517433 17193 net.cpp:148] Top shape: 100 384 13 13 (6489600)
I0403 14:35:06.517449 17193 net.cpp:156] Memory required for data: 731481200
I0403 14:35:06.517465 17193 layer_factory.hpp:77] Creating layer conv4
I0403 14:35:06.517493 17193 net.cpp:91] Creating Layer conv4
I0403 14:35:06.517513 17193 net.cpp:425] conv4 <- conv3
I0403 14:35:06.517531 17193 net.cpp:399] conv4 -> conv4
I0403 14:35:06.547325 17193 net.cpp:141] Setting up conv4
I0403 14:35:06.547407 17193 net.cpp:148] Top shape: 100 384 13 13 (6489600)
I0403 14:35:06.547456 17193 net.cpp:156] Memory required for data: 757439600
I0403 14:35:06.547478 17193 layer_factory.hpp:77] Creating layer relu4
I0403 14:35:06.547503 17193 net.cpp:91] Creating Layer relu4
I0403 14:35:06.547523 17193 net.cpp:425] relu4 <- conv4
I0403 14:35:06.547549 17193 net.cpp:386] relu4 -> conv4 (in-place)
I0403 14:35:06.547838 17193 net.cpp:141] Setting up relu4
I0403 14:35:06.547864 17193 net.cpp:148] Top shape: 100 384 13 13 (6489600)
I0403 14:35:06.547879 17193 net.cpp:156] Memory required for data: 783398000
I0403 14:35:06.547894 17193 layer_factory.hpp:77] Creating layer conv5
I0403 14:35:06.547919 17193 net.cpp:91] Creating Layer conv5
I0403 14:35:06.547937 17193 net.cpp:425] conv5 <- conv4
I0403 14:35:06.547958 17193 net.cpp:399] conv5 -> conv5
I0403 14:35:06.568500 17193 net.cpp:141] Setting up conv5
I0403 14:35:06.568560 17193 net.cpp:148] Top shape: 100 256 13 13 (4326400)
I0403 14:35:06.568578 17193 net.cpp:156] Memory required for data: 800703600
I0403 14:35:06.568605 17193 layer_factory.hpp:77] Creating layer relu5
I0403 14:35:06.568629 17193 net.cpp:91] Creating Layer relu5
I0403 14:35:06.568646 17193 net.cpp:425] relu5 <- conv5
I0403 14:35:06.568665 17193 net.cpp:386] relu5 -> conv5 (in-place)
I0403 14:35:06.568948 17193 net.cpp:141] Setting up relu5
I0403 14:35:06.568979 17193 net.cpp:148] Top shape: 100 256 13 13 (4326400)
I0403 14:35:06.568997 17193 net.cpp:156] Memory required for data: 818009200
I0403 14:35:06.569012 17193 layer_factory.hpp:77] Creating layer pool5
I0403 14:35:06.569039 17193 net.cpp:91] Creating Layer pool5
I0403 14:35:06.569057 17193 net.cpp:425] pool5 <- conv5
I0403 14:35:06.569080 17193 net.cpp:399] pool5 -> pool5
I0403 14:35:06.569142 17193 net.cpp:141] Setting up pool5
I0403 14:35:06.569167 17193 net.cpp:148] Top shape: 100 256 6 6 (921600)
I0403 14:35:06.569182 17193 net.cpp:156] Memory required for data: 821695600
I0403 14:35:06.569197 17193 layer_factory.hpp:77] Creating layer fc6
I0403 14:35:06.569226 17193 net.cpp:91] Creating Layer fc6
I0403 14:35:06.569244 17193 net.cpp:425] fc6 <- pool5
I0403 14:35:06.569267 17193 net.cpp:399] fc6 -> fc6
I0403 14:35:08.151098 17193 net.cpp:141] Setting up fc6
I0403 14:35:08.151151 17193 net.cpp:148] Top shape: 100 4096 (409600)
I0403 14:35:08.151168 17193 net.cpp:156] Memory required for data: 823334000
I0403 14:35:08.151190 17193 layer_factory.hpp:77] Creating layer relu6
I0403 14:35:08.151211 17193 net.cpp:91] Creating Layer relu6
I0403 14:35:08.151228 17193 net.cpp:425] relu6 <- fc6
I0403 14:35:08.151252 17193 net.cpp:386] relu6 -> fc6 (in-place)
I0403 14:35:08.151479 17193 net.cpp:141] Setting up relu6
I0403 14:35:08.151504 17193 net.cpp:148] Top shape: 100 4096 (409600)
I0403 14:35:08.151518 17193 net.cpp:156] Memory required for data: 824972400
I0403 14:35:08.151532 17193 layer_factory.hpp:77] Creating layer drop6
I0403 14:35:08.151553 17193 net.cpp:91] Creating Layer drop6
I0403 14:35:08.151569 17193 net.cpp:425] drop6 <- fc6
I0403 14:35:08.151587 17193 net.cpp:386] drop6 -> fc6 (in-place)
I0403 14:35:08.151638 17193 net.cpp:141] Setting up drop6
I0403 14:35:08.151661 17193 net.cpp:148] Top shape: 100 4096 (409600)
I0403 14:35:08.151675 17193 net.cpp:156] Memory required for data: 826610800
I0403 14:35:08.151690 17193 layer_factory.hpp:77] Creating layer fc7
I0403 14:35:08.151712 17193 net.cpp:91] Creating Layer fc7
I0403 14:35:08.151728 17193 net.cpp:425] fc7 <- fc6
I0403 14:35:08.151746 17193 net.cpp:399] fc7 -> fc7
I0403 14:35:08.836331 17193 net.cpp:141] Setting up fc7
I0403 14:35:08.836412 17193 net.cpp:148] Top shape: 100 4096 (409600)
I0403 14:35:08.836428 17193 net.cpp:156] Memory required for data: 828249200
I0403 14:35:08.836449 17193 layer_factory.hpp:77] Creating layer relu7
I0403 14:35:08.836473 17193 net.cpp:91] Creating Layer relu7
I0403 14:35:08.836493 17193 net.cpp:425] relu7 <- fc7
I0403 14:35:08.836513 17193 net.cpp:386] relu7 -> fc7 (in-place)
I0403 14:35:08.836913 17193 net.cpp:141] Setting up relu7
I0403 14:35:08.836940 17193 net.cpp:148] Top shape: 100 4096 (409600)
I0403 14:35:08.836987 17193 net.cpp:156] Memory required for data: 829887600
I0403 14:35:08.837003 17193 layer_factory.hpp:77] Creating layer drop7
I0403 14:35:08.837031 17193 net.cpp:91] Creating Layer drop7
I0403 14:35:08.837049 17193 net.cpp:425] drop7 <- fc7
I0403 14:35:08.837066 17193 net.cpp:386] drop7 -> fc7 (in-place)
I0403 14:35:08.837111 17193 net.cpp:141] Setting up drop7
I0403 14:35:08.837133 17193 net.cpp:148] Top shape: 100 4096 (409600)
I0403 14:35:08.837147 17193 net.cpp:156] Memory required for data: 831526000
I0403 14:35:08.837162 17193 layer_factory.hpp:77] Creating layer fc8_plantvillage
I0403 14:35:08.837182 17193 net.cpp:91] Creating Layer fc8_plantvillage
I0403 14:35:08.837196 17193 net.cpp:425] fc8_plantvillage <- fc7
I0403 14:35:08.837216 17193 net.cpp:399] fc8_plantvillage -> fc8_plantvillage
I0403 14:35:08.843963 17193 net.cpp:141] Setting up fc8_plantvillage
I0403 14:35:08.843996 17193 net.cpp:148] Top shape: 100 38 (3800)
I0403 14:35:08.844012 17193 net.cpp:156] Memory required for data: 831541200
I0403 14:35:08.844036 17193 layer_factory.hpp:77] Creating layer fc8_plantvillage_fc8_plantvillage_0_split
I0403 14:35:08.844055 17193 net.cpp:91] Creating Layer fc8_plantvillage_fc8_plantvillage_0_split
I0403 14:35:08.844070 17193 net.cpp:425] fc8_plantvillage_fc8_plantvillage_0_split <- fc8_plantvillage
I0403 14:35:08.844087 17193 net.cpp:399] fc8_plantvillage_fc8_plantvillage_0_split -> fc8_plantvillage_fc8_plantvillage_0_split_0
I0403 14:35:08.844107 17193 net.cpp:399] fc8_plantvillage_fc8_plantvillage_0_split -> fc8_plantvillage_fc8_plantvillage_0_split_1
I0403 14:35:08.844130 17193 net.cpp:399] fc8_plantvillage_fc8_plantvillage_0_split -> fc8_plantvillage_fc8_plantvillage_0_split_2
I0403 14:35:08.844208 17193 net.cpp:141] Setting up fc8_plantvillage_fc8_plantvillage_0_split
I0403 14:35:08.844231 17193 net.cpp:148] Top shape: 100 38 (3800)
I0403 14:35:08.844249 17193 net.cpp:148] Top shape: 100 38 (3800)
I0403 14:35:08.844264 17193 net.cpp:148] Top shape: 100 38 (3800)
I0403 14:35:08.844276 17193 net.cpp:156] Memory required for data: 831586800
I0403 14:35:08.844291 17193 layer_factory.hpp:77] Creating layer prob
I0403 14:35:08.844310 17193 net.cpp:91] Creating Layer prob
I0403 14:35:08.844326 17193 net.cpp:425] prob <- fc8_plantvillage_fc8_plantvillage_0_split_0
I0403 14:35:08.844342 17193 net.cpp:399] prob -> prob
I0403 14:35:08.844568 17193 net.cpp:141] Setting up prob
I0403 14:35:08.844593 17193 net.cpp:148] Top shape: 100 38 (3800)
I0403 14:35:08.844607 17193 net.cpp:156] Memory required for data: 831602000
I0403 14:35:08.844622 17193 layer_factory.hpp:77] Creating layer hdf5out
I0403 14:35:08.844643 17193 net.cpp:91] Creating Layer hdf5out
I0403 14:35:08.844660 17193 net.cpp:425] hdf5out <- prob
I0403 14:35:08.844676 17193 net.cpp:425] hdf5out <- label_data_1_split_0
I0403 14:35:08.846889 17193 net.cpp:141] Setting up hdf5out
…
