…
I0403 14:52:31.035080 17777 net.cpp:313] The NetState phase (1) differed from the phase (0) specified by a rule in layer data
I0403 14:52:31.035399 17777 net.cpp:49] Initializing net from parameters: 
state {
  phase: TEST
}
layer {
  name: "data"
  type: "Data"
  top: "data"
  top: "label"
  include {
    phase: TEST
  }
  transform_param {
    crop_size: 227
    mean_file: "/home/mohanty/data/final_dataset/lmdb/grayscale-40-60/mean.binaryproto"
  }
  data_param {
    source: "/home/mohanty/data/final_dataset/lmdb/grayscale-40-60/test_db"
    batch_size: 100
    backend: LMDB
  }
}
layer {
  name: "conv1"
  type: "Convolution"
  bottom: "data"
  top: "conv1"
  param {
    lr_mult: 1
    decay_mult: 1
  }
  param {
    lr_mult: 2
    decay_mult: 0
  }
  convolution_param {
    num_output: 96
    kernel_size: 11
    stride: 4
    weight_filler {
      type: "gaussian"
      std: 0.01
    }
    bias_filler {
      type: "constant"
      value: 0
    }
  }
}
layer {
  name: "relu1"
  type: "ReLU"
  bottom: "conv1"
  top: "conv1"
}
layer {
  name: "norm1"
  type: "LRN"
  bottom: "conv1"
  top: "norm1"
  lrn_param {
    local_size: 5
    alpha: 0.0001
    beta: 0.75
  }
}
layer {
  name: "pool1"
  type: "Pooling"
  bottom: "norm1"
  top: "pool1"
  pooling_param {
    pool: MAX
    kernel_size: 3
    stride: 2
  }
}
layer {
  name: "conv2"
  type: "Convolution"
  bottom: "pool1"
  top: "conv2"
  param {
    lr_mult: 1
    decay_mult: 1
  }
  param {
    lr_mult: 2
    decay_mult: 0
  }
  convolution_param {
    num_output: 256
    pad: 2
    kernel_size: 5
    group: 2
    weight_filler {
      type: "gaussian"
      std: 0.01
    }
    bias_filler {
      type: "constant"
      value: 0.1
    }
  }
}
layer {
  name: "relu2"
  type: "ReLU"
  bottom: "conv2"
  top: "conv2"
}
layer {
  name: "norm2"
  type: "LRN"
  bottom: "conv2"
  top: "norm2"
  lrn_param {
    local_size: 5
    alpha: 0.0001
    beta: 0.75
  }
}
layer {
  name: "pool2"
  type: "Pooling"
  bottom: "norm2"
  top: "pool2"
  pooling_param {
    pool: MAX
    kernel_size: 3
    stride: 2
  }
}
layer {
  name: "conv3"
  type: "Convolution"
  bottom: "pool2"
  top: "conv3"
  param {
    lr_mult: 1
    decay_mult: 1
  }
  param {
    lr_mult: 2
    decay_mult: 0
  }
  convolution_param {
    num_output: 384
    pad: 1
    kernel_size: 3
    weight_filler {
      type: "gaussian"
      std: 0.01
    }
    bias_filler {
      type: "constant"
      value: 0
    }
  }
}
layer {
  name: "relu3"
  type: "ReLU"
  bottom: "conv3"
  top: "conv3"
}
layer {
  name: "conv4"
  type: "Convolution"
  bottom: "conv3"
  top: "conv4"
  param {
    lr_mult: 1
    decay_mult: 1
  }
  param {
    lr_mult: 2
    decay_mult: 0
  }
  convolution_param {
    num_output: 384
    pad: 1
    kernel_size: 3
    group: 2
    weight_filler {
      type: "gaussian"
      std: 0.01
    }
    bias_filler {
      type: "constant"
      value: 0.1
    }
  }
}
layer {
  name: "relu4"
  type: "ReLU"
  bottom: "conv4"
  top: "conv4"
}
layer {
  name: "conv5"
  type: "Convolution"
  bottom: "conv4"
  top: "conv5"
  param {
    lr_mult: 1
    decay_mult: 1
  }
  param {
    lr_mult: 2
    decay_mult: 0
  }
  convolution_param {
    num_output: 256
    pad: 1
    kernel_size: 3
    group: 2
    weight_filler {
      type: "gaussian"
      std: 0.01
    }
    bias_filler {
      type: "constant"
      value: 0.1
    }
  }
}
layer {
  name: "relu5"
  type: "ReLU"
  bottom: "conv5"
  top: "conv5"
}
layer {
  name: "pool5"
  type: "Pooling"
  bottom: "conv5"
  top: "pool5"
  pooling_param {
    pool: MAX
    kernel_size: 3
    stride: 2
  }
}
layer {
  name: "fc6"
  type: "InnerProduct"
  bottom: "pool5"
  top: "fc6"
  param {
    lr_mult: 1
    decay_mult: 1
  }
  param {
    lr_mult: 2
    decay_mult: 0
  }
  inner_product_param {
    num_output: 4096
    weight_filler {
      type: "gaussian"
      std: 0.005
    }
    bias_filler {
      type: "constant"
      value: 0.1
    }
  }
}
layer {
  name: "relu6"
  type: "ReLU"
  bottom: "fc6"
  top: "fc6"
}
layer {
  name: "drop6"
  type: "Dropout"
  bottom: "fc6"
  top: "fc6"
  dropout_param {
    dropout_ratio: 0.5
  }
}
layer {
  name: "fc7"
  type: "InnerProduct"
  bottom: "fc6"
  top: "fc7"
  param {
    lr_mult: 1
    decay_mult: 1
  }
  param {
    lr_mult: 2
    decay_mult: 0
  }
  inner_product_param {
    num_output: 4096
    weight_filler {
      type: "gaussian"
      std: 0.005
    }
    bias_filler {
      type: "constant"
      value: 0.1
    }
  }
}
layer {
  name: "relu7"
  type: "ReLU"
  bottom: "fc7"
  top: "fc7"
}
layer {
  name: "drop7"
  type: "Dropout"
  bottom: "fc7"
  top: "fc7"
  dropout_param {
    dropout_ratio: 0.5
  }
}
layer {
  name: "fc8_plantvillage"
  type: "InnerProduct"
  bottom: "fc7"
  top: "fc8_plantvillage"
  param {
    lr_mult: 1
    decay_mult: 1
  }
  param {
    lr_mult: 2
    decay_mult: 0
  }
  inner_product_param {
    num_output: 38
    weight_filler {
      type: "gaussian"
      std: 0.01
    }
    bias_filler {
      type: "constant"
      value: 0
    }
  }
}
layer {
  name: "prob"
  type: "Softmax"
  bottom: "fc8_plantvillage"
  top: "prob"
  include {
    phase: TEST
  }
}
layer {
  name: "hdf5out"
  type: "HDF5Output"
  bottom: "prob"
  bottom: "label"
  include {
    phase: TEST
  }
  hdf5_output_param {
    file_name: "hdf5_dumps/iter_5475.h5"
  }
}
layer {
  name: "loss"
  type: "SoftmaxWithLoss"
  bottom: "fc8_plantvillage"
  bottom: "label"
  top: "loss"
}
layer {
  name: "accuracy"
  type: "Accuracy"
  bottom: "fc8_plantvillage"
  bottom: "label"
  top: "accuracy"
  include {
    phase: TEST
  }
}
I0403 14:52:31.035986 17777 layer_factory.hpp:77] Creating layer data
I0403 14:52:31.036640 17777 net.cpp:91] Creating Layer data
I0403 14:52:31.036674 17777 net.cpp:399] data -> data
I0403 14:52:31.036725 17777 net.cpp:399] data -> label
I0403 14:52:31.036761 17777 data_transformer.cpp:25] Loading mean file from: /home/mohanty/data/final_dataset/lmdb/grayscale-40-60/mean.binaryproto
I0403 14:52:31.039950 17782 db_lmdb.cpp:38] Opened lmdb /home/mohanty/data/final_dataset/lmdb/grayscale-40-60/test_db
I0403 14:52:31.051518 17777 data_layer.cpp:41] output data size: 100,3,227,227
I0403 14:52:31.172375 17777 net.cpp:141] Setting up data
I0403 14:52:31.172435 17777 net.cpp:148] Top shape: 100 3 227 227 (15458700)
I0403 14:52:31.172458 17777 net.cpp:148] Top shape: 100 (100)
I0403 14:52:31.172473 17777 net.cpp:156] Memory required for data: 61835200
I0403 14:52:31.172502 17777 layer_factory.hpp:77] Creating layer label_data_1_split
I0403 14:52:31.172526 17777 net.cpp:91] Creating Layer label_data_1_split
I0403 14:52:31.172544 17777 net.cpp:425] label_data_1_split <- label
I0403 14:52:31.172576 17777 net.cpp:399] label_data_1_split -> label_data_1_split_0
I0403 14:52:31.172605 17777 net.cpp:399] label_data_1_split -> label_data_1_split_1
I0403 14:52:31.172626 17777 net.cpp:399] label_data_1_split -> label_data_1_split_2
I0403 14:52:31.172688 17777 net.cpp:141] Setting up label_data_1_split
I0403 14:52:31.172713 17777 net.cpp:148] Top shape: 100 (100)
I0403 14:52:31.172729 17777 net.cpp:148] Top shape: 100 (100)
I0403 14:52:31.172745 17777 net.cpp:148] Top shape: 100 (100)
I0403 14:52:31.172760 17777 net.cpp:156] Memory required for data: 61836400
I0403 14:52:31.172775 17777 layer_factory.hpp:77] Creating layer conv1
I0403 14:52:31.172806 17777 net.cpp:91] Creating Layer conv1
I0403 14:52:31.172824 17777 net.cpp:425] conv1 <- data
I0403 14:52:31.172844 17777 net.cpp:399] conv1 -> conv1
I0403 14:52:31.318730 17777 net.cpp:141] Setting up conv1
I0403 14:52:31.318825 17777 net.cpp:148] Top shape: 100 96 55 55 (29040000)
I0403 14:52:31.318845 17777 net.cpp:156] Memory required for data: 177996400
I0403 14:52:31.318877 17777 layer_factory.hpp:77] Creating layer relu1
I0403 14:52:31.318907 17777 net.cpp:91] Creating Layer relu1
I0403 14:52:31.318928 17777 net.cpp:425] relu1 <- conv1
I0403 14:52:31.318949 17777 net.cpp:386] relu1 -> conv1 (in-place)
I0403 14:52:31.319303 17777 net.cpp:141] Setting up relu1
I0403 14:52:31.319332 17777 net.cpp:148] Top shape: 100 96 55 55 (29040000)
I0403 14:52:31.319380 17777 net.cpp:156] Memory required for data: 294156400
I0403 14:52:31.319398 17777 layer_factory.hpp:77] Creating layer norm1
I0403 14:52:31.319425 17777 net.cpp:91] Creating Layer norm1
I0403 14:52:31.319444 17777 net.cpp:425] norm1 <- conv1
I0403 14:52:31.319466 17777 net.cpp:399] norm1 -> norm1
I0403 14:52:31.319818 17777 net.cpp:141] Setting up norm1
I0403 14:52:31.319845 17777 net.cpp:148] Top shape: 100 96 55 55 (29040000)
I0403 14:52:31.319862 17777 net.cpp:156] Memory required for data: 410316400
I0403 14:52:31.319878 17777 layer_factory.hpp:77] Creating layer pool1
I0403 14:52:31.319901 17777 net.cpp:91] Creating Layer pool1
I0403 14:52:31.319919 17777 net.cpp:425] pool1 <- norm1
I0403 14:52:31.319941 17777 net.cpp:399] pool1 -> pool1
I0403 14:52:31.320021 17777 net.cpp:141] Setting up pool1
I0403 14:52:31.320050 17777 net.cpp:148] Top shape: 100 96 27 27 (6998400)
I0403 14:52:31.320065 17777 net.cpp:156] Memory required for data: 438310000
I0403 14:52:31.320081 17777 layer_factory.hpp:77] Creating layer conv2
I0403 14:52:31.320108 17777 net.cpp:91] Creating Layer conv2
I0403 14:52:31.320127 17777 net.cpp:425] conv2 <- pool1
I0403 14:52:31.320147 17777 net.cpp:399] conv2 -> conv2
I0403 14:52:31.336002 17777 net.cpp:141] Setting up conv2
I0403 14:52:31.336047 17777 net.cpp:148] Top shape: 100 256 27 27 (18662400)
I0403 14:52:31.336066 17777 net.cpp:156] Memory required for data: 512959600
I0403 14:52:31.336091 17777 layer_factory.hpp:77] Creating layer relu2
I0403 14:52:31.336114 17777 net.cpp:91] Creating Layer relu2
I0403 14:52:31.336133 17777 net.cpp:425] relu2 <- conv2
I0403 14:52:31.336151 17777 net.cpp:386] relu2 -> conv2 (in-place)
I0403 14:52:31.336449 17777 net.cpp:141] Setting up relu2
I0403 14:52:31.336477 17777 net.cpp:148] Top shape: 100 256 27 27 (18662400)
I0403 14:52:31.336493 17777 net.cpp:156] Memory required for data: 587609200
I0403 14:52:31.336509 17777 layer_factory.hpp:77] Creating layer norm2
I0403 14:52:31.336534 17777 net.cpp:91] Creating Layer norm2
I0403 14:52:31.336590 17777 net.cpp:425] norm2 <- conv2
I0403 14:52:31.336618 17777 net.cpp:399] norm2 -> norm2
I0403 14:52:31.336833 17777 net.cpp:141] Setting up norm2
I0403 14:52:31.336859 17777 net.cpp:148] Top shape: 100 256 27 27 (18662400)
I0403 14:52:31.336875 17777 net.cpp:156] Memory required for data: 662258800
I0403 14:52:31.336891 17777 layer_factory.hpp:77] Creating layer pool2
I0403 14:52:31.336912 17777 net.cpp:91] Creating Layer pool2
I0403 14:52:31.336930 17777 net.cpp:425] pool2 <- norm2
I0403 14:52:31.336947 17777 net.cpp:399] pool2 -> pool2
I0403 14:52:31.337003 17777 net.cpp:141] Setting up pool2
I0403 14:52:31.337033 17777 net.cpp:148] Top shape: 100 256 13 13 (4326400)
I0403 14:52:31.337049 17777 net.cpp:156] Memory required for data: 679564400
I0403 14:52:31.337065 17777 layer_factory.hpp:77] Creating layer conv3
I0403 14:52:31.337092 17777 net.cpp:91] Creating Layer conv3
I0403 14:52:31.337110 17777 net.cpp:425] conv3 <- pool2
I0403 14:52:31.337131 17777 net.cpp:399] conv3 -> conv3
I0403 14:52:31.376204 17777 net.cpp:141] Setting up conv3
I0403 14:52:31.376263 17777 net.cpp:148] Top shape: 100 384 13 13 (6489600)
I0403 14:52:31.376281 17777 net.cpp:156] Memory required for data: 705522800
I0403 14:52:31.376305 17777 layer_factory.hpp:77] Creating layer relu3
I0403 14:52:31.376327 17777 net.cpp:91] Creating Layer relu3
I0403 14:52:31.376345 17777 net.cpp:425] relu3 <- conv3
I0403 14:52:31.376363 17777 net.cpp:386] relu3 -> conv3 (in-place)
I0403 14:52:31.376641 17777 net.cpp:141] Setting up relu3
I0403 14:52:31.376672 17777 net.cpp:148] Top shape: 100 384 13 13 (6489600)
I0403 14:52:31.376688 17777 net.cpp:156] Memory required for data: 731481200
I0403 14:52:31.376703 17777 layer_factory.hpp:77] Creating layer conv4
I0403 14:52:31.376729 17777 net.cpp:91] Creating Layer conv4
I0403 14:52:31.376746 17777 net.cpp:425] conv4 <- conv3
I0403 14:52:31.376767 17777 net.cpp:399] conv4 -> conv4
I0403 14:52:31.407436 17777 net.cpp:141] Setting up conv4
I0403 14:52:31.407518 17777 net.cpp:148] Top shape: 100 384 13 13 (6489600)
I0403 14:52:31.407567 17777 net.cpp:156] Memory required for data: 757439600
I0403 14:52:31.407590 17777 layer_factory.hpp:77] Creating layer relu4
I0403 14:52:31.407613 17777 net.cpp:91] Creating Layer relu4
I0403 14:52:31.407630 17777 net.cpp:425] relu4 <- conv4
I0403 14:52:31.407654 17777 net.cpp:386] relu4 -> conv4 (in-place)
I0403 14:52:31.407943 17777 net.cpp:141] Setting up relu4
I0403 14:52:31.407971 17777 net.cpp:148] Top shape: 100 384 13 13 (6489600)
I0403 14:52:31.407987 17777 net.cpp:156] Memory required for data: 783398000
I0403 14:52:31.408004 17777 layer_factory.hpp:77] Creating layer conv5
I0403 14:52:31.408037 17777 net.cpp:91] Creating Layer conv5
I0403 14:52:31.408056 17777 net.cpp:425] conv5 <- conv4
I0403 14:52:31.408078 17777 net.cpp:399] conv5 -> conv5
I0403 14:52:31.429296 17777 net.cpp:141] Setting up conv5
I0403 14:52:31.429338 17777 net.cpp:148] Top shape: 100 256 13 13 (4326400)
I0403 14:52:31.429355 17777 net.cpp:156] Memory required for data: 800703600
I0403 14:52:31.429380 17777 layer_factory.hpp:77] Creating layer relu5
I0403 14:52:31.429404 17777 net.cpp:91] Creating Layer relu5
I0403 14:52:31.429422 17777 net.cpp:425] relu5 <- conv5
I0403 14:52:31.429440 17777 net.cpp:386] relu5 -> conv5 (in-place)
I0403 14:52:31.429719 17777 net.cpp:141] Setting up relu5
I0403 14:52:31.429746 17777 net.cpp:148] Top shape: 100 256 13 13 (4326400)
I0403 14:52:31.429762 17777 net.cpp:156] Memory required for data: 818009200
I0403 14:52:31.429777 17777 layer_factory.hpp:77] Creating layer pool5
I0403 14:52:31.429802 17777 net.cpp:91] Creating Layer pool5
I0403 14:52:31.429819 17777 net.cpp:425] pool5 <- conv5
I0403 14:52:31.429837 17777 net.cpp:399] pool5 -> pool5
I0403 14:52:31.429900 17777 net.cpp:141] Setting up pool5
I0403 14:52:31.429924 17777 net.cpp:148] Top shape: 100 256 6 6 (921600)
I0403 14:52:31.429939 17777 net.cpp:156] Memory required for data: 821695600
I0403 14:52:31.429954 17777 layer_factory.hpp:77] Creating layer fc6
I0403 14:52:31.429982 17777 net.cpp:91] Creating Layer fc6
I0403 14:52:31.430001 17777 net.cpp:425] fc6 <- pool5
I0403 14:52:31.430022 17777 net.cpp:399] fc6 -> fc6
I0403 14:52:32.975317 17777 net.cpp:141] Setting up fc6
I0403 14:52:32.975370 17777 net.cpp:148] Top shape: 100 4096 (409600)
I0403 14:52:32.975385 17777 net.cpp:156] Memory required for data: 823334000
I0403 14:52:32.975405 17777 layer_factory.hpp:77] Creating layer relu6
I0403 14:52:32.975426 17777 net.cpp:91] Creating Layer relu6
I0403 14:52:32.975442 17777 net.cpp:425] relu6 <- fc6
I0403 14:52:32.975462 17777 net.cpp:386] relu6 -> fc6 (in-place)
I0403 14:52:32.975677 17777 net.cpp:141] Setting up relu6
I0403 14:52:32.975702 17777 net.cpp:148] Top shape: 100 4096 (409600)
I0403 14:52:32.975716 17777 net.cpp:156] Memory required for data: 824972400
I0403 14:52:32.975730 17777 layer_factory.hpp:77] Creating layer drop6
I0403 14:52:32.975750 17777 net.cpp:91] Creating Layer drop6
I0403 14:52:32.975765 17777 net.cpp:425] drop6 <- fc6
I0403 14:52:32.975781 17777 net.cpp:386] drop6 -> fc6 (in-place)
I0403 14:52:32.975831 17777 net.cpp:141] Setting up drop6
I0403 14:52:32.975857 17777 net.cpp:148] Top shape: 100 4096 (409600)
I0403 14:52:32.975870 17777 net.cpp:156] Memory required for data: 826610800
I0403 14:52:32.975885 17777 layer_factory.hpp:77] Creating layer fc7
I0403 14:52:32.975903 17777 net.cpp:91] Creating Layer fc7
I0403 14:52:32.975919 17777 net.cpp:425] fc7 <- fc6
I0403 14:52:32.975940 17777 net.cpp:399] fc7 -> fc7
I0403 14:52:33.658530 17777 net.cpp:141] Setting up fc7
I0403 14:52:33.658571 17777 net.cpp:148] Top shape: 100 4096 (409600)
I0403 14:52:33.658586 17777 net.cpp:156] Memory required for data: 828249200
I0403 14:52:33.658607 17777 layer_factory.hpp:77] Creating layer relu7
I0403 14:52:33.658628 17777 net.cpp:91] Creating Layer relu7
I0403 14:52:33.658644 17777 net.cpp:425] relu7 <- fc7
I0403 14:52:33.658665 17777 net.cpp:386] relu7 -> fc7 (in-place)
I0403 14:52:33.659066 17777 net.cpp:141] Setting up relu7
I0403 14:52:33.659092 17777 net.cpp:148] Top shape: 100 4096 (409600)
I0403 14:52:33.659124 17777 net.cpp:156] Memory required for data: 829887600
I0403 14:52:33.659140 17777 layer_factory.hpp:77] Creating layer drop7
I0403 14:52:33.659158 17777 net.cpp:91] Creating Layer drop7
I0403 14:52:33.659173 17777 net.cpp:425] drop7 <- fc7
I0403 14:52:33.659191 17777 net.cpp:386] drop7 -> fc7 (in-place)
I0403 14:52:33.659235 17777 net.cpp:141] Setting up drop7
I0403 14:52:33.659258 17777 net.cpp:148] Top shape: 100 4096 (409600)
I0403 14:52:33.659272 17777 net.cpp:156] Memory required for data: 831526000
I0403 14:52:33.659286 17777 layer_factory.hpp:77] Creating layer fc8_plantvillage
I0403 14:52:33.659304 17777 net.cpp:91] Creating Layer fc8_plantvillage
I0403 14:52:33.659319 17777 net.cpp:425] fc8_plantvillage <- fc7
I0403 14:52:33.659343 17777 net.cpp:399] fc8_plantvillage -> fc8_plantvillage
I0403 14:52:33.665892 17777 net.cpp:141] Setting up fc8_plantvillage
I0403 14:52:33.665920 17777 net.cpp:148] Top shape: 100 38 (3800)
I0403 14:52:33.665935 17777 net.cpp:156] Memory required for data: 831541200
I0403 14:52:33.665952 17777 layer_factory.hpp:77] Creating layer fc8_plantvillage_fc8_plantvillage_0_split
I0403 14:52:33.665973 17777 net.cpp:91] Creating Layer fc8_plantvillage_fc8_plantvillage_0_split
I0403 14:52:33.665988 17777 net.cpp:425] fc8_plantvillage_fc8_plantvillage_0_split <- fc8_plantvillage
I0403 14:52:33.666005 17777 net.cpp:399] fc8_plantvillage_fc8_plantvillage_0_split -> fc8_plantvillage_fc8_plantvillage_0_split_0
I0403 14:52:33.666028 17777 net.cpp:399] fc8_plantvillage_fc8_plantvillage_0_split -> fc8_plantvillage_fc8_plantvillage_0_split_1
I0403 14:52:33.666049 17777 net.cpp:399] fc8_plantvillage_fc8_plantvillage_0_split -> fc8_plantvillage_fc8_plantvillage_0_split_2
I0403 14:52:33.666124 17777 net.cpp:141] Setting up fc8_plantvillage_fc8_plantvillage_0_split
I0403 14:52:33.666146 17777 net.cpp:148] Top shape: 100 38 (3800)
I0403 14:52:33.666162 17777 net.cpp:148] Top shape: 100 38 (3800)
I0403 14:52:33.666177 17777 net.cpp:148] Top shape: 100 38 (3800)
I0403 14:52:33.666190 17777 net.cpp:156] Memory required for data: 831586800
I0403 14:52:33.666204 17777 layer_factory.hpp:77] Creating layer prob
I0403 14:52:33.666221 17777 net.cpp:91] Creating Layer prob
I0403 14:52:33.666235 17777 net.cpp:425] prob <- fc8_plantvillage_fc8_plantvillage_0_split_0
I0403 14:52:33.666252 17777 net.cpp:399] prob -> prob
I0403 14:52:33.666471 17777 net.cpp:141] Setting up prob
I0403 14:52:33.666496 17777 net.cpp:148] Top shape: 100 38 (3800)
I0403 14:52:33.666508 17777 net.cpp:156] Memory required for data: 831602000
I0403 14:52:33.666522 17777 layer_factory.hpp:77] Creating layer hdf5out
I0403 14:52:33.666540 17777 net.cpp:91] Creating Layer hdf5out
I0403 14:52:33.666554 17777 net.cpp:425] hdf5out <- prob
I0403 14:52:33.666569 17777 net.cpp:425] hdf5out <- label_data_1_split_0
I0403 14:52:33.668843 17777 net.cpp:141] Setting up hdf5out
…
