…
I0403 14:56:49.972887 17869 net.cpp:313] The NetState phase (1) differed from the phase (0) specified by a rule in layer data
I0403 14:56:49.973197 17869 net.cpp:49] Initializing net from parameters: 
state {
  phase: TEST
}
layer {
  name: "data"
  type: "Data"
  top: "data"
  top: "label"
  include {
    phase: TEST
  }
  transform_param {
    crop_size: 227
    mean_file: "/home/mohanty/data/final_dataset/lmdb/grayscale-40-60/mean.binaryproto"
  }
  data_param {
    source: "/home/mohanty/data/final_dataset/lmdb/grayscale-40-60/test_db"
    batch_size: 100
    backend: LMDB
  }
}
layer {
  name: "conv1"
  type: "Convolution"
  bottom: "data"
  top: "conv1"
  param {
    lr_mult: 1
    decay_mult: 1
  }
  param {
    lr_mult: 2
    decay_mult: 0
  }
  convolution_param {
    num_output: 96
    kernel_size: 11
    stride: 4
    weight_filler {
      type: "gaussian"
      std: 0.01
    }
    bias_filler {
      type: "constant"
      value: 0
    }
  }
}
layer {
  name: "relu1"
  type: "ReLU"
  bottom: "conv1"
  top: "conv1"
}
layer {
  name: "norm1"
  type: "LRN"
  bottom: "conv1"
  top: "norm1"
  lrn_param {
    local_size: 5
    alpha: 0.0001
    beta: 0.75
  }
}
layer {
  name: "pool1"
  type: "Pooling"
  bottom: "norm1"
  top: "pool1"
  pooling_param {
    pool: MAX
    kernel_size: 3
    stride: 2
  }
}
layer {
  name: "conv2"
  type: "Convolution"
  bottom: "pool1"
  top: "conv2"
  param {
    lr_mult: 1
    decay_mult: 1
  }
  param {
    lr_mult: 2
    decay_mult: 0
  }
  convolution_param {
    num_output: 256
    pad: 2
    kernel_size: 5
    group: 2
    weight_filler {
      type: "gaussian"
      std: 0.01
    }
    bias_filler {
      type: "constant"
      value: 0.1
    }
  }
}
layer {
  name: "relu2"
  type: "ReLU"
  bottom: "conv2"
  top: "conv2"
}
layer {
  name: "norm2"
  type: "LRN"
  bottom: "conv2"
  top: "norm2"
  lrn_param {
    local_size: 5
    alpha: 0.0001
    beta: 0.75
  }
}
layer {
  name: "pool2"
  type: "Pooling"
  bottom: "norm2"
  top: "pool2"
  pooling_param {
    pool: MAX
    kernel_size: 3
    stride: 2
  }
}
layer {
  name: "conv3"
  type: "Convolution"
  bottom: "pool2"
  top: "conv3"
  param {
    lr_mult: 1
    decay_mult: 1
  }
  param {
    lr_mult: 2
    decay_mult: 0
  }
  convolution_param {
    num_output: 384
    pad: 1
    kernel_size: 3
    weight_filler {
      type: "gaussian"
      std: 0.01
    }
    bias_filler {
      type: "constant"
      value: 0
    }
  }
}
layer {
  name: "relu3"
  type: "ReLU"
  bottom: "conv3"
  top: "conv3"
}
layer {
  name: "conv4"
  type: "Convolution"
  bottom: "conv3"
  top: "conv4"
  param {
    lr_mult: 1
    decay_mult: 1
  }
  param {
    lr_mult: 2
    decay_mult: 0
  }
  convolution_param {
    num_output: 384
    pad: 1
    kernel_size: 3
    group: 2
    weight_filler {
      type: "gaussian"
      std: 0.01
    }
    bias_filler {
      type: "constant"
      value: 0.1
    }
  }
}
layer {
  name: "relu4"
  type: "ReLU"
  bottom: "conv4"
  top: "conv4"
}
layer {
  name: "conv5"
  type: "Convolution"
  bottom: "conv4"
  top: "conv5"
  param {
    lr_mult: 1
    decay_mult: 1
  }
  param {
    lr_mult: 2
    decay_mult: 0
  }
  convolution_param {
    num_output: 256
    pad: 1
    kernel_size: 3
    group: 2
    weight_filler {
      type: "gaussian"
      std: 0.01
    }
    bias_filler {
      type: "constant"
      value: 0.1
    }
  }
}
layer {
  name: "relu5"
  type: "ReLU"
  bottom: "conv5"
  top: "conv5"
}
layer {
  name: "pool5"
  type: "Pooling"
  bottom: "conv5"
  top: "pool5"
  pooling_param {
    pool: MAX
    kernel_size: 3
    stride: 2
  }
}
layer {
  name: "fc6"
  type: "InnerProduct"
  bottom: "pool5"
  top: "fc6"
  param {
    lr_mult: 1
    decay_mult: 1
  }
  param {
    lr_mult: 2
    decay_mult: 0
  }
  inner_product_param {
    num_output: 4096
    weight_filler {
      type: "gaussian"
      std: 0.005
    }
    bias_filler {
      type: "constant"
      value: 0.1
    }
  }
}
layer {
  name: "relu6"
  type: "ReLU"
  bottom: "fc6"
  top: "fc6"
}
layer {
  name: "drop6"
  type: "Dropout"
  bottom: "fc6"
  top: "fc6"
  dropout_param {
    dropout_ratio: 0.5
  }
}
layer {
  name: "fc7"
  type: "InnerProduct"
  bottom: "fc6"
  top: "fc7"
  param {
    lr_mult: 1
    decay_mult: 1
  }
  param {
    lr_mult: 2
    decay_mult: 0
  }
  inner_product_param {
    num_output: 4096
    weight_filler {
      type: "gaussian"
      std: 0.005
    }
    bias_filler {
      type: "constant"
      value: 0.1
    }
  }
}
layer {
  name: "relu7"
  type: "ReLU"
  bottom: "fc7"
  top: "fc7"
}
layer {
  name: "drop7"
  type: "Dropout"
  bottom: "fc7"
  top: "fc7"
  dropout_param {
    dropout_ratio: 0.5
  }
}
layer {
  name: "fc8_plantvillage"
  type: "InnerProduct"
  bottom: "fc7"
  top: "fc8_plantvillage"
  param {
    lr_mult: 1
    decay_mult: 1
  }
  param {
    lr_mult: 2
    decay_mult: 0
  }
  inner_product_param {
    num_output: 38
    weight_filler {
      type: "gaussian"
      std: 0.01
    }
    bias_filler {
      type: "constant"
      value: 0
    }
  }
}
layer {
  name: "prob"
  type: "Softmax"
  bottom: "fc8_plantvillage"
  top: "prob"
  include {
    phase: TEST
  }
}
layer {
  name: "hdf5out"
  type: "HDF5Output"
  bottom: "prob"
  bottom: "label"
  include {
    phase: TEST
  }
  hdf5_output_param {
    file_name: "hdf5_dumps/iter_6351.h5"
  }
}
layer {
  name: "loss"
  type: "SoftmaxWithLoss"
  bottom: "fc8_plantvillage"
  bottom: "label"
  top: "loss"
}
layer {
  name: "accuracy"
  type: "Accuracy"
  bottom: "fc8_plantvillage"
  bottom: "label"
  top: "accuracy"
  include {
    phase: TEST
  }
}
I0403 14:56:49.973768 17869 layer_factory.hpp:77] Creating layer data
I0403 14:56:49.974436 17869 net.cpp:91] Creating Layer data
I0403 14:56:49.974468 17869 net.cpp:399] data -> data
I0403 14:56:49.974521 17869 net.cpp:399] data -> label
I0403 14:56:49.974557 17869 data_transformer.cpp:25] Loading mean file from: /home/mohanty/data/final_dataset/lmdb/grayscale-40-60/mean.binaryproto
I0403 14:56:49.977470 17873 db_lmdb.cpp:38] Opened lmdb /home/mohanty/data/final_dataset/lmdb/grayscale-40-60/test_db
I0403 14:56:49.989377 17869 data_layer.cpp:41] output data size: 100,3,227,227
I0403 14:56:50.113440 17869 net.cpp:141] Setting up data
I0403 14:56:50.113549 17869 net.cpp:148] Top shape: 100 3 227 227 (15458700)
I0403 14:56:50.113572 17869 net.cpp:148] Top shape: 100 (100)
I0403 14:56:50.113587 17869 net.cpp:156] Memory required for data: 61835200
I0403 14:56:50.113615 17869 layer_factory.hpp:77] Creating layer label_data_1_split
I0403 14:56:50.113639 17869 net.cpp:91] Creating Layer label_data_1_split
I0403 14:56:50.113656 17869 net.cpp:425] label_data_1_split <- label
I0403 14:56:50.113687 17869 net.cpp:399] label_data_1_split -> label_data_1_split_0
I0403 14:56:50.113713 17869 net.cpp:399] label_data_1_split -> label_data_1_split_1
I0403 14:56:50.113734 17869 net.cpp:399] label_data_1_split -> label_data_1_split_2
I0403 14:56:50.113796 17869 net.cpp:141] Setting up label_data_1_split
I0403 14:56:50.113819 17869 net.cpp:148] Top shape: 100 (100)
I0403 14:56:50.113836 17869 net.cpp:148] Top shape: 100 (100)
I0403 14:56:50.113850 17869 net.cpp:148] Top shape: 100 (100)
I0403 14:56:50.113864 17869 net.cpp:156] Memory required for data: 61836400
I0403 14:56:50.113878 17869 layer_factory.hpp:77] Creating layer conv1
I0403 14:56:50.113909 17869 net.cpp:91] Creating Layer conv1
I0403 14:56:50.113927 17869 net.cpp:425] conv1 <- data
I0403 14:56:50.113946 17869 net.cpp:399] conv1 -> conv1
I0403 14:56:50.258143 17869 net.cpp:141] Setting up conv1
I0403 14:56:50.258234 17869 net.cpp:148] Top shape: 100 96 55 55 (29040000)
I0403 14:56:50.258251 17869 net.cpp:156] Memory required for data: 177996400
I0403 14:56:50.258296 17869 layer_factory.hpp:77] Creating layer relu1
I0403 14:56:50.258322 17869 net.cpp:91] Creating Layer relu1
I0403 14:56:50.258340 17869 net.cpp:425] relu1 <- conv1
I0403 14:56:50.258359 17869 net.cpp:386] relu1 -> conv1 (in-place)
I0403 14:56:50.258615 17869 net.cpp:141] Setting up relu1
I0403 14:56:50.258642 17869 net.cpp:148] Top shape: 100 96 55 55 (29040000)
I0403 14:56:50.258690 17869 net.cpp:156] Memory required for data: 294156400
I0403 14:56:50.258707 17869 layer_factory.hpp:77] Creating layer norm1
I0403 14:56:50.258733 17869 net.cpp:91] Creating Layer norm1
I0403 14:56:50.258751 17869 net.cpp:425] norm1 <- conv1
I0403 14:56:50.258769 17869 net.cpp:399] norm1 -> norm1
I0403 14:56:50.259083 17869 net.cpp:141] Setting up norm1
I0403 14:56:50.259109 17869 net.cpp:148] Top shape: 100 96 55 55 (29040000)
I0403 14:56:50.259124 17869 net.cpp:156] Memory required for data: 410316400
I0403 14:56:50.259140 17869 layer_factory.hpp:77] Creating layer pool1
I0403 14:56:50.259162 17869 net.cpp:91] Creating Layer pool1
I0403 14:56:50.259179 17869 net.cpp:425] pool1 <- norm1
I0403 14:56:50.259197 17869 net.cpp:399] pool1 -> pool1
I0403 14:56:50.259268 17869 net.cpp:141] Setting up pool1
I0403 14:56:50.259291 17869 net.cpp:148] Top shape: 100 96 27 27 (6998400)
I0403 14:56:50.259306 17869 net.cpp:156] Memory required for data: 438310000
I0403 14:56:50.259320 17869 layer_factory.hpp:77] Creating layer conv2
I0403 14:56:50.259344 17869 net.cpp:91] Creating Layer conv2
I0403 14:56:50.259361 17869 net.cpp:425] conv2 <- pool1
I0403 14:56:50.259379 17869 net.cpp:399] conv2 -> conv2
I0403 14:56:50.274368 17869 net.cpp:141] Setting up conv2
I0403 14:56:50.274416 17869 net.cpp:148] Top shape: 100 256 27 27 (18662400)
I0403 14:56:50.274432 17869 net.cpp:156] Memory required for data: 512959600
I0403 14:56:50.274454 17869 layer_factory.hpp:77] Creating layer relu2
I0403 14:56:50.274474 17869 net.cpp:91] Creating Layer relu2
I0403 14:56:50.274489 17869 net.cpp:425] relu2 <- conv2
I0403 14:56:50.274507 17869 net.cpp:386] relu2 -> conv2 (in-place)
I0403 14:56:50.274763 17869 net.cpp:141] Setting up relu2
I0403 14:56:50.274791 17869 net.cpp:148] Top shape: 100 256 27 27 (18662400)
I0403 14:56:50.274804 17869 net.cpp:156] Memory required for data: 587609200
I0403 14:56:50.274819 17869 layer_factory.hpp:77] Creating layer norm2
I0403 14:56:50.274840 17869 net.cpp:91] Creating Layer norm2
I0403 14:56:50.274857 17869 net.cpp:425] norm2 <- conv2
I0403 14:56:50.274874 17869 net.cpp:399] norm2 -> norm2
I0403 14:56:50.275122 17869 net.cpp:141] Setting up norm2
I0403 14:56:50.275148 17869 net.cpp:148] Top shape: 100 256 27 27 (18662400)
I0403 14:56:50.275162 17869 net.cpp:156] Memory required for data: 662258800
I0403 14:56:50.275177 17869 layer_factory.hpp:77] Creating layer pool2
I0403 14:56:50.275194 17869 net.cpp:91] Creating Layer pool2
I0403 14:56:50.275212 17869 net.cpp:425] pool2 <- norm2
I0403 14:56:50.275228 17869 net.cpp:399] pool2 -> pool2
I0403 14:56:50.275279 17869 net.cpp:141] Setting up pool2
I0403 14:56:50.275300 17869 net.cpp:148] Top shape: 100 256 13 13 (4326400)
I0403 14:56:50.275315 17869 net.cpp:156] Memory required for data: 679564400
I0403 14:56:50.275328 17869 layer_factory.hpp:77] Creating layer conv3
I0403 14:56:50.275349 17869 net.cpp:91] Creating Layer conv3
I0403 14:56:50.275365 17869 net.cpp:425] conv3 <- pool2
I0403 14:56:50.275382 17869 net.cpp:399] conv3 -> conv3
I0403 14:56:50.314273 17869 net.cpp:141] Setting up conv3
I0403 14:56:50.314314 17869 net.cpp:148] Top shape: 100 384 13 13 (6489600)
I0403 14:56:50.314330 17869 net.cpp:156] Memory required for data: 705522800
I0403 14:56:50.314353 17869 layer_factory.hpp:77] Creating layer relu3
I0403 14:56:50.314373 17869 net.cpp:91] Creating Layer relu3
I0403 14:56:50.314388 17869 net.cpp:425] relu3 <- conv3
I0403 14:56:50.314409 17869 net.cpp:386] relu3 -> conv3 (in-place)
I0403 14:56:50.314687 17869 net.cpp:141] Setting up relu3
I0403 14:56:50.314714 17869 net.cpp:148] Top shape: 100 384 13 13 (6489600)
I0403 14:56:50.314729 17869 net.cpp:156] Memory required for data: 731481200
I0403 14:56:50.314743 17869 layer_factory.hpp:77] Creating layer conv4
I0403 14:56:50.314769 17869 net.cpp:91] Creating Layer conv4
I0403 14:56:50.314787 17869 net.cpp:425] conv4 <- conv3
I0403 14:56:50.314808 17869 net.cpp:399] conv4 -> conv4
I0403 14:56:50.345209 17869 net.cpp:141] Setting up conv4
I0403 14:56:50.345294 17869 net.cpp:148] Top shape: 100 384 13 13 (6489600)
I0403 14:56:50.345341 17869 net.cpp:156] Memory required for data: 757439600
I0403 14:56:50.345363 17869 layer_factory.hpp:77] Creating layer relu4
I0403 14:56:50.345386 17869 net.cpp:91] Creating Layer relu4
I0403 14:56:50.345402 17869 net.cpp:425] relu4 <- conv4
I0403 14:56:50.345422 17869 net.cpp:386] relu4 -> conv4 (in-place)
I0403 14:56:50.345703 17869 net.cpp:141] Setting up relu4
I0403 14:56:50.345732 17869 net.cpp:148] Top shape: 100 384 13 13 (6489600)
I0403 14:56:50.345749 17869 net.cpp:156] Memory required for data: 783398000
I0403 14:56:50.345764 17869 layer_factory.hpp:77] Creating layer conv5
I0403 14:56:50.345789 17869 net.cpp:91] Creating Layer conv5
I0403 14:56:50.345806 17869 net.cpp:425] conv5 <- conv4
I0403 14:56:50.345824 17869 net.cpp:399] conv5 -> conv5
I0403 14:56:50.366514 17869 net.cpp:141] Setting up conv5
I0403 14:56:50.366571 17869 net.cpp:148] Top shape: 100 256 13 13 (4326400)
I0403 14:56:50.366590 17869 net.cpp:156] Memory required for data: 800703600
I0403 14:56:50.366616 17869 layer_factory.hpp:77] Creating layer relu5
I0403 14:56:50.366636 17869 net.cpp:91] Creating Layer relu5
I0403 14:56:50.366652 17869 net.cpp:425] relu5 <- conv5
I0403 14:56:50.366673 17869 net.cpp:386] relu5 -> conv5 (in-place)
I0403 14:56:50.366953 17869 net.cpp:141] Setting up relu5
I0403 14:56:50.366981 17869 net.cpp:148] Top shape: 100 256 13 13 (4326400)
I0403 14:56:50.366996 17869 net.cpp:156] Memory required for data: 818009200
I0403 14:56:50.367022 17869 layer_factory.hpp:77] Creating layer pool5
I0403 14:56:50.367044 17869 net.cpp:91] Creating Layer pool5
I0403 14:56:50.367066 17869 net.cpp:425] pool5 <- conv5
I0403 14:56:50.367084 17869 net.cpp:399] pool5 -> pool5
I0403 14:56:50.367146 17869 net.cpp:141] Setting up pool5
I0403 14:56:50.367168 17869 net.cpp:148] Top shape: 100 256 6 6 (921600)
I0403 14:56:50.367182 17869 net.cpp:156] Memory required for data: 821695600
I0403 14:56:50.367197 17869 layer_factory.hpp:77] Creating layer fc6
I0403 14:56:50.367224 17869 net.cpp:91] Creating Layer fc6
I0403 14:56:50.367243 17869 net.cpp:425] fc6 <- pool5
I0403 14:56:50.367262 17869 net.cpp:399] fc6 -> fc6
I0403 14:56:51.914607 17869 net.cpp:141] Setting up fc6
I0403 14:56:51.914651 17869 net.cpp:148] Top shape: 100 4096 (409600)
I0403 14:56:51.914667 17869 net.cpp:156] Memory required for data: 823334000
I0403 14:56:51.914688 17869 layer_factory.hpp:77] Creating layer relu6
I0403 14:56:51.914710 17869 net.cpp:91] Creating Layer relu6
I0403 14:56:51.914727 17869 net.cpp:425] relu6 <- fc6
I0403 14:56:51.914746 17869 net.cpp:386] relu6 -> fc6 (in-place)
I0403 14:56:51.914959 17869 net.cpp:141] Setting up relu6
I0403 14:56:51.914985 17869 net.cpp:148] Top shape: 100 4096 (409600)
I0403 14:56:51.915001 17869 net.cpp:156] Memory required for data: 824972400
I0403 14:56:51.915015 17869 layer_factory.hpp:77] Creating layer drop6
I0403 14:56:51.915033 17869 net.cpp:91] Creating Layer drop6
I0403 14:56:51.915051 17869 net.cpp:425] drop6 <- fc6
I0403 14:56:51.915072 17869 net.cpp:386] drop6 -> fc6 (in-place)
I0403 14:56:51.915122 17869 net.cpp:141] Setting up drop6
I0403 14:56:51.915145 17869 net.cpp:148] Top shape: 100 4096 (409600)
I0403 14:56:51.915159 17869 net.cpp:156] Memory required for data: 826610800
I0403 14:56:51.915174 17869 layer_factory.hpp:77] Creating layer fc7
I0403 14:56:51.915194 17869 net.cpp:91] Creating Layer fc7
I0403 14:56:51.915210 17869 net.cpp:425] fc7 <- fc6
I0403 14:56:51.915230 17869 net.cpp:399] fc7 -> fc7
I0403 14:56:52.591043 17869 net.cpp:141] Setting up fc7
I0403 14:56:52.591122 17869 net.cpp:148] Top shape: 100 4096 (409600)
I0403 14:56:52.591137 17869 net.cpp:156] Memory required for data: 828249200
I0403 14:56:52.591156 17869 layer_factory.hpp:77] Creating layer relu7
I0403 14:56:52.591177 17869 net.cpp:91] Creating Layer relu7
I0403 14:56:52.591193 17869 net.cpp:425] relu7 <- fc7
I0403 14:56:52.591213 17869 net.cpp:386] relu7 -> fc7 (in-place)
I0403 14:56:52.591621 17869 net.cpp:141] Setting up relu7
I0403 14:56:52.591647 17869 net.cpp:148] Top shape: 100 4096 (409600)
I0403 14:56:52.591693 17869 net.cpp:156] Memory required for data: 829887600
I0403 14:56:52.591708 17869 layer_factory.hpp:77] Creating layer drop7
I0403 14:56:52.591725 17869 net.cpp:91] Creating Layer drop7
I0403 14:56:52.591740 17869 net.cpp:425] drop7 <- fc7
I0403 14:56:52.591758 17869 net.cpp:386] drop7 -> fc7 (in-place)
I0403 14:56:52.591801 17869 net.cpp:141] Setting up drop7
I0403 14:56:52.591822 17869 net.cpp:148] Top shape: 100 4096 (409600)
I0403 14:56:52.591835 17869 net.cpp:156] Memory required for data: 831526000
I0403 14:56:52.591850 17869 layer_factory.hpp:77] Creating layer fc8_plantvillage
I0403 14:56:52.591871 17869 net.cpp:91] Creating Layer fc8_plantvillage
I0403 14:56:52.591887 17869 net.cpp:425] fc8_plantvillage <- fc7
I0403 14:56:52.591907 17869 net.cpp:399] fc8_plantvillage -> fc8_plantvillage
I0403 14:56:52.598609 17869 net.cpp:141] Setting up fc8_plantvillage
I0403 14:56:52.598637 17869 net.cpp:148] Top shape: 100 38 (3800)
I0403 14:56:52.598652 17869 net.cpp:156] Memory required for data: 831541200
I0403 14:56:52.598670 17869 layer_factory.hpp:77] Creating layer fc8_plantvillage_fc8_plantvillage_0_split
I0403 14:56:52.598688 17869 net.cpp:91] Creating Layer fc8_plantvillage_fc8_plantvillage_0_split
I0403 14:56:52.598703 17869 net.cpp:425] fc8_plantvillage_fc8_plantvillage_0_split <- fc8_plantvillage
I0403 14:56:52.598722 17869 net.cpp:399] fc8_plantvillage_fc8_plantvillage_0_split -> fc8_plantvillage_fc8_plantvillage_0_split_0
I0403 14:56:52.598742 17869 net.cpp:399] fc8_plantvillage_fc8_plantvillage_0_split -> fc8_plantvillage_fc8_plantvillage_0_split_1
I0403 14:56:52.598762 17869 net.cpp:399] fc8_plantvillage_fc8_plantvillage_0_split -> fc8_plantvillage_fc8_plantvillage_0_split_2
I0403 14:56:52.598839 17869 net.cpp:141] Setting up fc8_plantvillage_fc8_plantvillage_0_split
I0403 14:56:52.598863 17869 net.cpp:148] Top shape: 100 38 (3800)
I0403 14:56:52.598881 17869 net.cpp:148] Top shape: 100 38 (3800)
I0403 14:56:52.598896 17869 net.cpp:148] Top shape: 100 38 (3800)
I0403 14:56:52.598909 17869 net.cpp:156] Memory required for data: 831586800
I0403 14:56:52.598922 17869 layer_factory.hpp:77] Creating layer prob
I0403 14:56:52.598939 17869 net.cpp:91] Creating Layer prob
I0403 14:56:52.598954 17869 net.cpp:425] prob <- fc8_plantvillage_fc8_plantvillage_0_split_0
I0403 14:56:52.598973 17869 net.cpp:399] prob -> prob
I0403 14:56:52.599205 17869 net.cpp:141] Setting up prob
I0403 14:56:52.599233 17869 net.cpp:148] Top shape: 100 38 (3800)
I0403 14:56:52.599248 17869 net.cpp:156] Memory required for data: 831602000
I0403 14:56:52.599262 17869 layer_factory.hpp:77] Creating layer hdf5out
I0403 14:56:52.599282 17869 net.cpp:91] Creating Layer hdf5out
I0403 14:56:52.599298 17869 net.cpp:425] hdf5out <- prob
I0403 14:56:52.599313 17869 net.cpp:425] hdf5out <- label_data_1_split_0
I0403 14:56:52.601510 17869 net.cpp:141] Setting up hdf5out
…
