…
I0403 14:40:33.484917 17352 net.cpp:313] The NetState phase (1) differed from the phase (0) specified by a rule in layer data
I0403 14:40:33.485247 17352 net.cpp:49] Initializing net from parameters: 
state {
  phase: TEST
}
layer {
  name: "data"
  type: "Data"
  top: "data"
  top: "label"
  include {
    phase: TEST
  }
  transform_param {
    crop_size: 227
    mean_file: "/home/mohanty/data/final_dataset/lmdb/grayscale-40-60/mean.binaryproto"
  }
  data_param {
    source: "/home/mohanty/data/final_dataset/lmdb/grayscale-40-60/test_db"
    batch_size: 100
    backend: LMDB
  }
}
layer {
  name: "conv1"
  type: "Convolution"
  bottom: "data"
  top: "conv1"
  param {
    lr_mult: 1
    decay_mult: 1
  }
  param {
    lr_mult: 2
    decay_mult: 0
  }
  convolution_param {
    num_output: 96
    kernel_size: 11
    stride: 4
    weight_filler {
      type: "gaussian"
      std: 0.01
    }
    bias_filler {
      type: "constant"
      value: 0
    }
  }
}
layer {
  name: "relu1"
  type: "ReLU"
  bottom: "conv1"
  top: "conv1"
}
layer {
  name: "norm1"
  type: "LRN"
  bottom: "conv1"
  top: "norm1"
  lrn_param {
    local_size: 5
    alpha: 0.0001
    beta: 0.75
  }
}
layer {
  name: "pool1"
  type: "Pooling"
  bottom: "norm1"
  top: "pool1"
  pooling_param {
    pool: MAX
    kernel_size: 3
    stride: 2
  }
}
layer {
  name: "conv2"
  type: "Convolution"
  bottom: "pool1"
  top: "conv2"
  param {
    lr_mult: 1
    decay_mult: 1
  }
  param {
    lr_mult: 2
    decay_mult: 0
  }
  convolution_param {
    num_output: 256
    pad: 2
    kernel_size: 5
    group: 2
    weight_filler {
      type: "gaussian"
      std: 0.01
    }
    bias_filler {
      type: "constant"
      value: 0.1
    }
  }
}
layer {
  name: "relu2"
  type: "ReLU"
  bottom: "conv2"
  top: "conv2"
}
layer {
  name: "norm2"
  type: "LRN"
  bottom: "conv2"
  top: "norm2"
  lrn_param {
    local_size: 5
    alpha: 0.0001
    beta: 0.75
  }
}
layer {
  name: "pool2"
  type: "Pooling"
  bottom: "norm2"
  top: "pool2"
  pooling_param {
    pool: MAX
    kernel_size: 3
    stride: 2
  }
}
layer {
  name: "conv3"
  type: "Convolution"
  bottom: "pool2"
  top: "conv3"
  param {
    lr_mult: 1
    decay_mult: 1
  }
  param {
    lr_mult: 2
    decay_mult: 0
  }
  convolution_param {
    num_output: 384
    pad: 1
    kernel_size: 3
    weight_filler {
      type: "gaussian"
      std: 0.01
    }
    bias_filler {
      type: "constant"
      value: 0
    }
  }
}
layer {
  name: "relu3"
  type: "ReLU"
  bottom: "conv3"
  top: "conv3"
}
layer {
  name: "conv4"
  type: "Convolution"
  bottom: "conv3"
  top: "conv4"
  param {
    lr_mult: 1
    decay_mult: 1
  }
  param {
    lr_mult: 2
    decay_mult: 0
  }
  convolution_param {
    num_output: 384
    pad: 1
    kernel_size: 3
    group: 2
    weight_filler {
      type: "gaussian"
      std: 0.01
    }
    bias_filler {
      type: "constant"
      value: 0.1
    }
  }
}
layer {
  name: "relu4"
  type: "ReLU"
  bottom: "conv4"
  top: "conv4"
}
layer {
  name: "conv5"
  type: "Convolution"
  bottom: "conv4"
  top: "conv5"
  param {
    lr_mult: 1
    decay_mult: 1
  }
  param {
    lr_mult: 2
    decay_mult: 0
  }
  convolution_param {
    num_output: 256
    pad: 1
    kernel_size: 3
    group: 2
    weight_filler {
      type: "gaussian"
      std: 0.01
    }
    bias_filler {
      type: "constant"
      value: 0.1
    }
  }
}
layer {
  name: "relu5"
  type: "ReLU"
  bottom: "conv5"
  top: "conv5"
}
layer {
  name: "pool5"
  type: "Pooling"
  bottom: "conv5"
  top: "pool5"
  pooling_param {
    pool: MAX
    kernel_size: 3
    stride: 2
  }
}
layer {
  name: "fc6"
  type: "InnerProduct"
  bottom: "pool5"
  top: "fc6"
  param {
    lr_mult: 1
    decay_mult: 1
  }
  param {
    lr_mult: 2
    decay_mult: 0
  }
  inner_product_param {
    num_output: 4096
    weight_filler {
      type: "gaussian"
      std: 0.005
    }
    bias_filler {
      type: "constant"
      value: 0.1
    }
  }
}
layer {
  name: "relu6"
  type: "ReLU"
  bottom: "fc6"
  top: "fc6"
}
layer {
  name: "drop6"
  type: "Dropout"
  bottom: "fc6"
  top: "fc6"
  dropout_param {
    dropout_ratio: 0.5
  }
}
layer {
  name: "fc7"
  type: "InnerProduct"
  bottom: "fc6"
  top: "fc7"
  param {
    lr_mult: 1
    decay_mult: 1
  }
  param {
    lr_mult: 2
    decay_mult: 0
  }
  inner_product_param {
    num_output: 4096
    weight_filler {
      type: "gaussian"
      std: 0.005
    }
    bias_filler {
      type: "constant"
      value: 0.1
    }
  }
}
layer {
  name: "relu7"
  type: "ReLU"
  bottom: "fc7"
  top: "fc7"
}
layer {
  name: "drop7"
  type: "Dropout"
  bottom: "fc7"
  top: "fc7"
  dropout_param {
    dropout_ratio: 0.5
  }
}
layer {
  name: "fc8_plantvillage"
  type: "InnerProduct"
  bottom: "fc7"
  top: "fc8_plantvillage"
  param {
    lr_mult: 1
    decay_mult: 1
  }
  param {
    lr_mult: 2
    decay_mult: 0
  }
  inner_product_param {
    num_output: 38
    weight_filler {
      type: "gaussian"
      std: 0.01
    }
    bias_filler {
      type: "constant"
      value: 0
    }
  }
}
layer {
  name: "prob"
  type: "Softmax"
  bottom: "fc8_plantvillage"
  top: "prob"
  include {
    phase: TEST
  }
}
layer {
  name: "hdf5out"
  type: "HDF5Output"
  bottom: "prob"
  bottom: "label"
  include {
    phase: TEST
  }
  hdf5_output_param {
    file_name: "hdf5_dumps/iter_3066.h5"
  }
}
layer {
  name: "loss"
  type: "SoftmaxWithLoss"
  bottom: "fc8_plantvillage"
  bottom: "label"
  top: "loss"
}
layer {
  name: "accuracy"
  type: "Accuracy"
  bottom: "fc8_plantvillage"
  bottom: "label"
  top: "accuracy"
  include {
    phase: TEST
  }
}
I0403 14:40:33.485817 17352 layer_factory.hpp:77] Creating layer data
I0403 14:40:33.486467 17352 net.cpp:91] Creating Layer data
I0403 14:40:33.486500 17352 net.cpp:399] data -> data
I0403 14:40:33.486552 17352 net.cpp:399] data -> label
I0403 14:40:33.486588 17352 data_transformer.cpp:25] Loading mean file from: /home/mohanty/data/final_dataset/lmdb/grayscale-40-60/mean.binaryproto
I0403 14:40:33.489135 17355 db_lmdb.cpp:38] Opened lmdb /home/mohanty/data/final_dataset/lmdb/grayscale-40-60/test_db
I0403 14:40:33.501237 17352 data_layer.cpp:41] output data size: 100,3,227,227
I0403 14:40:33.621541 17352 net.cpp:141] Setting up data
I0403 14:40:33.621645 17352 net.cpp:148] Top shape: 100 3 227 227 (15458700)
I0403 14:40:33.621668 17352 net.cpp:148] Top shape: 100 (100)
I0403 14:40:33.621685 17352 net.cpp:156] Memory required for data: 61835200
I0403 14:40:33.621726 17352 layer_factory.hpp:77] Creating layer label_data_1_split
I0403 14:40:33.621753 17352 net.cpp:91] Creating Layer label_data_1_split
I0403 14:40:33.621772 17352 net.cpp:425] label_data_1_split <- label
I0403 14:40:33.621805 17352 net.cpp:399] label_data_1_split -> label_data_1_split_0
I0403 14:40:33.621834 17352 net.cpp:399] label_data_1_split -> label_data_1_split_1
I0403 14:40:33.621855 17352 net.cpp:399] label_data_1_split -> label_data_1_split_2
I0403 14:40:33.621920 17352 net.cpp:141] Setting up label_data_1_split
I0403 14:40:33.621944 17352 net.cpp:148] Top shape: 100 (100)
I0403 14:40:33.621963 17352 net.cpp:148] Top shape: 100 (100)
I0403 14:40:33.621979 17352 net.cpp:148] Top shape: 100 (100)
I0403 14:40:33.621994 17352 net.cpp:156] Memory required for data: 61836400
I0403 14:40:33.622010 17352 layer_factory.hpp:77] Creating layer conv1
I0403 14:40:33.622058 17352 net.cpp:91] Creating Layer conv1
I0403 14:40:33.622078 17352 net.cpp:425] conv1 <- data
I0403 14:40:33.622097 17352 net.cpp:399] conv1 -> conv1
I0403 14:40:33.765743 17352 net.cpp:141] Setting up conv1
I0403 14:40:33.765825 17352 net.cpp:148] Top shape: 100 96 55 55 (29040000)
I0403 14:40:33.765843 17352 net.cpp:156] Memory required for data: 177996400
I0403 14:40:33.765877 17352 layer_factory.hpp:77] Creating layer relu1
I0403 14:40:33.765905 17352 net.cpp:91] Creating Layer relu1
I0403 14:40:33.765923 17352 net.cpp:425] relu1 <- conv1
I0403 14:40:33.765944 17352 net.cpp:386] relu1 -> conv1 (in-place)
I0403 14:40:33.766222 17352 net.cpp:141] Setting up relu1
I0403 14:40:33.766250 17352 net.cpp:148] Top shape: 100 96 55 55 (29040000)
I0403 14:40:33.766299 17352 net.cpp:156] Memory required for data: 294156400
I0403 14:40:33.766315 17352 layer_factory.hpp:77] Creating layer norm1
I0403 14:40:33.766346 17352 net.cpp:91] Creating Layer norm1
I0403 14:40:33.766366 17352 net.cpp:425] norm1 <- conv1
I0403 14:40:33.766384 17352 net.cpp:399] norm1 -> norm1
I0403 14:40:33.766710 17352 net.cpp:141] Setting up norm1
I0403 14:40:33.766739 17352 net.cpp:148] Top shape: 100 96 55 55 (29040000)
I0403 14:40:33.766757 17352 net.cpp:156] Memory required for data: 410316400
I0403 14:40:33.766772 17352 layer_factory.hpp:77] Creating layer pool1
I0403 14:40:33.766795 17352 net.cpp:91] Creating Layer pool1
I0403 14:40:33.766813 17352 net.cpp:425] pool1 <- norm1
I0403 14:40:33.766832 17352 net.cpp:399] pool1 -> pool1
I0403 14:40:33.766902 17352 net.cpp:141] Setting up pool1
I0403 14:40:33.766927 17352 net.cpp:148] Top shape: 100 96 27 27 (6998400)
I0403 14:40:33.766943 17352 net.cpp:156] Memory required for data: 438310000
I0403 14:40:33.766958 17352 layer_factory.hpp:77] Creating layer conv2
I0403 14:40:33.766983 17352 net.cpp:91] Creating Layer conv2
I0403 14:40:33.766999 17352 net.cpp:425] conv2 <- pool1
I0403 14:40:33.767024 17352 net.cpp:399] conv2 -> conv2
I0403 14:40:33.782513 17352 net.cpp:141] Setting up conv2
I0403 14:40:33.782570 17352 net.cpp:148] Top shape: 100 256 27 27 (18662400)
I0403 14:40:33.782588 17352 net.cpp:156] Memory required for data: 512959600
I0403 14:40:33.782611 17352 layer_factory.hpp:77] Creating layer relu2
I0403 14:40:33.782632 17352 net.cpp:91] Creating Layer relu2
I0403 14:40:33.782649 17352 net.cpp:425] relu2 <- conv2
I0403 14:40:33.782668 17352 net.cpp:386] relu2 -> conv2 (in-place)
I0403 14:40:33.782963 17352 net.cpp:141] Setting up relu2
I0403 14:40:33.783013 17352 net.cpp:148] Top shape: 100 256 27 27 (18662400)
I0403 14:40:33.783057 17352 net.cpp:156] Memory required for data: 587609200
I0403 14:40:33.783073 17352 layer_factory.hpp:77] Creating layer norm2
I0403 14:40:33.783094 17352 net.cpp:91] Creating Layer norm2
I0403 14:40:33.783112 17352 net.cpp:425] norm2 <- conv2
I0403 14:40:33.783133 17352 net.cpp:399] norm2 -> norm2
I0403 14:40:33.783334 17352 net.cpp:141] Setting up norm2
I0403 14:40:33.783360 17352 net.cpp:148] Top shape: 100 256 27 27 (18662400)
I0403 14:40:33.783375 17352 net.cpp:156] Memory required for data: 662258800
I0403 14:40:33.783390 17352 layer_factory.hpp:77] Creating layer pool2
I0403 14:40:33.783411 17352 net.cpp:91] Creating Layer pool2
I0403 14:40:33.783429 17352 net.cpp:425] pool2 <- norm2
I0403 14:40:33.783447 17352 net.cpp:399] pool2 -> pool2
I0403 14:40:33.783501 17352 net.cpp:141] Setting up pool2
I0403 14:40:33.783525 17352 net.cpp:148] Top shape: 100 256 13 13 (4326400)
I0403 14:40:33.783542 17352 net.cpp:156] Memory required for data: 679564400
I0403 14:40:33.783557 17352 layer_factory.hpp:77] Creating layer conv3
I0403 14:40:33.783581 17352 net.cpp:91] Creating Layer conv3
I0403 14:40:33.783599 17352 net.cpp:425] conv3 <- pool2
I0403 14:40:33.783620 17352 net.cpp:399] conv3 -> conv3
I0403 14:40:33.826006 17352 net.cpp:141] Setting up conv3
I0403 14:40:33.826093 17352 net.cpp:148] Top shape: 100 384 13 13 (6489600)
I0403 14:40:33.826110 17352 net.cpp:156] Memory required for data: 705522800
I0403 14:40:33.826136 17352 layer_factory.hpp:77] Creating layer relu3
I0403 14:40:33.826162 17352 net.cpp:91] Creating Layer relu3
I0403 14:40:33.826181 17352 net.cpp:425] relu3 <- conv3
I0403 14:40:33.826201 17352 net.cpp:386] relu3 -> conv3 (in-place)
I0403 14:40:33.826496 17352 net.cpp:141] Setting up relu3
I0403 14:40:33.826524 17352 net.cpp:148] Top shape: 100 384 13 13 (6489600)
I0403 14:40:33.826539 17352 net.cpp:156] Memory required for data: 731481200
I0403 14:40:33.826553 17352 layer_factory.hpp:77] Creating layer conv4
I0403 14:40:33.826580 17352 net.cpp:91] Creating Layer conv4
I0403 14:40:33.826597 17352 net.cpp:425] conv4 <- conv3
I0403 14:40:33.826618 17352 net.cpp:399] conv4 -> conv4
I0403 14:40:33.857342 17352 net.cpp:141] Setting up conv4
I0403 14:40:33.857424 17352 net.cpp:148] Top shape: 100 384 13 13 (6489600)
I0403 14:40:33.857472 17352 net.cpp:156] Memory required for data: 757439600
I0403 14:40:33.857494 17352 layer_factory.hpp:77] Creating layer relu4
I0403 14:40:33.857517 17352 net.cpp:91] Creating Layer relu4
I0403 14:40:33.857533 17352 net.cpp:425] relu4 <- conv4
I0403 14:40:33.857555 17352 net.cpp:386] relu4 -> conv4 (in-place)
I0403 14:40:33.857838 17352 net.cpp:141] Setting up relu4
I0403 14:40:33.857866 17352 net.cpp:148] Top shape: 100 384 13 13 (6489600)
I0403 14:40:33.857880 17352 net.cpp:156] Memory required for data: 783398000
I0403 14:40:33.857897 17352 layer_factory.hpp:77] Creating layer conv5
I0403 14:40:33.857921 17352 net.cpp:91] Creating Layer conv5
I0403 14:40:33.857939 17352 net.cpp:425] conv5 <- conv4
I0403 14:40:33.857975 17352 net.cpp:399] conv5 -> conv5
I0403 14:40:33.879259 17352 net.cpp:141] Setting up conv5
I0403 14:40:33.879333 17352 net.cpp:148] Top shape: 100 256 13 13 (4326400)
I0403 14:40:33.879348 17352 net.cpp:156] Memory required for data: 800703600
I0403 14:40:33.879374 17352 layer_factory.hpp:77] Creating layer relu5
I0403 14:40:33.879396 17352 net.cpp:91] Creating Layer relu5
I0403 14:40:33.879415 17352 net.cpp:425] relu5 <- conv5
I0403 14:40:33.879433 17352 net.cpp:386] relu5 -> conv5 (in-place)
I0403 14:40:33.879714 17352 net.cpp:141] Setting up relu5
I0403 14:40:33.879741 17352 net.cpp:148] Top shape: 100 256 13 13 (4326400)
I0403 14:40:33.879757 17352 net.cpp:156] Memory required for data: 818009200
I0403 14:40:33.879772 17352 layer_factory.hpp:77] Creating layer pool5
I0403 14:40:33.879796 17352 net.cpp:91] Creating Layer pool5
I0403 14:40:33.879813 17352 net.cpp:425] pool5 <- conv5
I0403 14:40:33.879832 17352 net.cpp:399] pool5 -> pool5
I0403 14:40:33.879894 17352 net.cpp:141] Setting up pool5
I0403 14:40:33.879919 17352 net.cpp:148] Top shape: 100 256 6 6 (921600)
I0403 14:40:33.879932 17352 net.cpp:156] Memory required for data: 821695600
I0403 14:40:33.879947 17352 layer_factory.hpp:77] Creating layer fc6
I0403 14:40:33.879979 17352 net.cpp:91] Creating Layer fc6
I0403 14:40:33.879997 17352 net.cpp:425] fc6 <- pool5
I0403 14:40:33.880020 17352 net.cpp:399] fc6 -> fc6
I0403 14:40:35.460274 17352 net.cpp:141] Setting up fc6
I0403 14:40:35.460345 17352 net.cpp:148] Top shape: 100 4096 (409600)
I0403 14:40:35.460361 17352 net.cpp:156] Memory required for data: 823334000
I0403 14:40:35.460384 17352 layer_factory.hpp:77] Creating layer relu6
I0403 14:40:35.460407 17352 net.cpp:91] Creating Layer relu6
I0403 14:40:35.460425 17352 net.cpp:425] relu6 <- fc6
I0403 14:40:35.460448 17352 net.cpp:386] relu6 -> fc6 (in-place)
I0403 14:40:35.460695 17352 net.cpp:141] Setting up relu6
I0403 14:40:35.460721 17352 net.cpp:148] Top shape: 100 4096 (409600)
I0403 14:40:35.460736 17352 net.cpp:156] Memory required for data: 824972400
I0403 14:40:35.460750 17352 layer_factory.hpp:77] Creating layer drop6
I0403 14:40:35.460772 17352 net.cpp:91] Creating Layer drop6
I0403 14:40:35.460788 17352 net.cpp:425] drop6 <- fc6
I0403 14:40:35.460805 17352 net.cpp:386] drop6 -> fc6 (in-place)
I0403 14:40:35.460857 17352 net.cpp:141] Setting up drop6
I0403 14:40:35.460885 17352 net.cpp:148] Top shape: 100 4096 (409600)
I0403 14:40:35.460899 17352 net.cpp:156] Memory required for data: 826610800
I0403 14:40:35.460914 17352 layer_factory.hpp:77] Creating layer fc7
I0403 14:40:35.460934 17352 net.cpp:91] Creating Layer fc7
I0403 14:40:35.460952 17352 net.cpp:425] fc7 <- fc6
I0403 14:40:35.460971 17352 net.cpp:399] fc7 -> fc7
I0403 14:40:36.167676 17352 net.cpp:141] Setting up fc7
I0403 14:40:36.167747 17352 net.cpp:148] Top shape: 100 4096 (409600)
I0403 14:40:36.167763 17352 net.cpp:156] Memory required for data: 828249200
I0403 14:40:36.167783 17352 layer_factory.hpp:77] Creating layer relu7
I0403 14:40:36.167809 17352 net.cpp:91] Creating Layer relu7
I0403 14:40:36.167825 17352 net.cpp:425] relu7 <- fc7
I0403 14:40:36.167845 17352 net.cpp:386] relu7 -> fc7 (in-place)
I0403 14:40:36.168275 17352 net.cpp:141] Setting up relu7
I0403 14:40:36.168301 17352 net.cpp:148] Top shape: 100 4096 (409600)
I0403 14:40:36.168347 17352 net.cpp:156] Memory required for data: 829887600
I0403 14:40:36.168364 17352 layer_factory.hpp:77] Creating layer drop7
I0403 14:40:36.168381 17352 net.cpp:91] Creating Layer drop7
I0403 14:40:36.168397 17352 net.cpp:425] drop7 <- fc7
I0403 14:40:36.168418 17352 net.cpp:386] drop7 -> fc7 (in-place)
I0403 14:40:36.168464 17352 net.cpp:141] Setting up drop7
I0403 14:40:36.168488 17352 net.cpp:148] Top shape: 100 4096 (409600)
I0403 14:40:36.168511 17352 net.cpp:156] Memory required for data: 831526000
I0403 14:40:36.168526 17352 layer_factory.hpp:77] Creating layer fc8_plantvillage
I0403 14:40:36.168545 17352 net.cpp:91] Creating Layer fc8_plantvillage
I0403 14:40:36.168560 17352 net.cpp:425] fc8_plantvillage <- fc7
I0403 14:40:36.168581 17352 net.cpp:399] fc8_plantvillage -> fc8_plantvillage
I0403 14:40:36.175546 17352 net.cpp:141] Setting up fc8_plantvillage
I0403 14:40:36.175577 17352 net.cpp:148] Top shape: 100 38 (3800)
I0403 14:40:36.175595 17352 net.cpp:156] Memory required for data: 831541200
I0403 14:40:36.175613 17352 layer_factory.hpp:77] Creating layer fc8_plantvillage_fc8_plantvillage_0_split
I0403 14:40:36.175631 17352 net.cpp:91] Creating Layer fc8_plantvillage_fc8_plantvillage_0_split
I0403 14:40:36.175647 17352 net.cpp:425] fc8_plantvillage_fc8_plantvillage_0_split <- fc8_plantvillage
I0403 14:40:36.175664 17352 net.cpp:399] fc8_plantvillage_fc8_plantvillage_0_split -> fc8_plantvillage_fc8_plantvillage_0_split_0
I0403 14:40:36.175684 17352 net.cpp:399] fc8_plantvillage_fc8_plantvillage_0_split -> fc8_plantvillage_fc8_plantvillage_0_split_1
I0403 14:40:36.175704 17352 net.cpp:399] fc8_plantvillage_fc8_plantvillage_0_split -> fc8_plantvillage_fc8_plantvillage_0_split_2
I0403 14:40:36.175786 17352 net.cpp:141] Setting up fc8_plantvillage_fc8_plantvillage_0_split
I0403 14:40:36.175809 17352 net.cpp:148] Top shape: 100 38 (3800)
I0403 14:40:36.175827 17352 net.cpp:148] Top shape: 100 38 (3800)
I0403 14:40:36.175843 17352 net.cpp:148] Top shape: 100 38 (3800)
I0403 14:40:36.175856 17352 net.cpp:156] Memory required for data: 831586800
I0403 14:40:36.175871 17352 layer_factory.hpp:77] Creating layer prob
I0403 14:40:36.175890 17352 net.cpp:91] Creating Layer prob
I0403 14:40:36.175905 17352 net.cpp:425] prob <- fc8_plantvillage_fc8_plantvillage_0_split_0
I0403 14:40:36.175925 17352 net.cpp:399] prob -> prob
I0403 14:40:36.176162 17352 net.cpp:141] Setting up prob
I0403 14:40:36.176188 17352 net.cpp:148] Top shape: 100 38 (3800)
I0403 14:40:36.176204 17352 net.cpp:156] Memory required for data: 831602000
I0403 14:40:36.176219 17352 layer_factory.hpp:77] Creating layer hdf5out
I0403 14:40:36.176239 17352 net.cpp:91] Creating Layer hdf5out
I0403 14:40:36.176255 17352 net.cpp:425] hdf5out <- prob
I0403 14:40:36.176275 17352 net.cpp:425] hdf5out <- label_data_1_split_0
I0403 14:40:36.178493 17352 net.cpp:141] Setting up hdf5out
…
