…
I0403 14:34:00.637694 17153 net.cpp:313] The NetState phase (1) differed from the phase (0) specified by a rule in layer data
I0403 14:34:00.638036 17153 net.cpp:49] Initializing net from parameters: 
state {
  phase: TEST
}
layer {
  name: "data"
  type: "Data"
  top: "data"
  top: "label"
  include {
    phase: TEST
  }
  transform_param {
    crop_size: 227
    mean_file: "/home/mohanty/data/final_dataset/lmdb/grayscale-40-60/mean.binaryproto"
  }
  data_param {
    source: "/home/mohanty/data/final_dataset/lmdb/grayscale-40-60/test_db"
    batch_size: 100
    backend: LMDB
  }
}
layer {
  name: "conv1"
  type: "Convolution"
  bottom: "data"
  top: "conv1"
  param {
    lr_mult: 1
    decay_mult: 1
  }
  param {
    lr_mult: 2
    decay_mult: 0
  }
  convolution_param {
    num_output: 96
    kernel_size: 11
    stride: 4
    weight_filler {
      type: "gaussian"
      std: 0.01
    }
    bias_filler {
      type: "constant"
      value: 0
    }
  }
}
layer {
  name: "relu1"
  type: "ReLU"
  bottom: "conv1"
  top: "conv1"
}
layer {
  name: "norm1"
  type: "LRN"
  bottom: "conv1"
  top: "norm1"
  lrn_param {
    local_size: 5
    alpha: 0.0001
    beta: 0.75
  }
}
layer {
  name: "pool1"
  type: "Pooling"
  bottom: "norm1"
  top: "pool1"
  pooling_param {
    pool: MAX
    kernel_size: 3
    stride: 2
  }
}
layer {
  name: "conv2"
  type: "Convolution"
  bottom: "pool1"
  top: "conv2"
  param {
    lr_mult: 1
    decay_mult: 1
  }
  param {
    lr_mult: 2
    decay_mult: 0
  }
  convolution_param {
    num_output: 256
    pad: 2
    kernel_size: 5
    group: 2
    weight_filler {
      type: "gaussian"
      std: 0.01
    }
    bias_filler {
      type: "constant"
      value: 0.1
    }
  }
}
layer {
  name: "relu2"
  type: "ReLU"
  bottom: "conv2"
  top: "conv2"
}
layer {
  name: "norm2"
  type: "LRN"
  bottom: "conv2"
  top: "norm2"
  lrn_param {
    local_size: 5
    alpha: 0.0001
    beta: 0.75
  }
}
layer {
  name: "pool2"
  type: "Pooling"
  bottom: "norm2"
  top: "pool2"
  pooling_param {
    pool: MAX
    kernel_size: 3
    stride: 2
  }
}
layer {
  name: "conv3"
  type: "Convolution"
  bottom: "pool2"
  top: "conv3"
  param {
    lr_mult: 1
    decay_mult: 1
  }
  param {
    lr_mult: 2
    decay_mult: 0
  }
  convolution_param {
    num_output: 384
    pad: 1
    kernel_size: 3
    weight_filler {
      type: "gaussian"
      std: 0.01
    }
    bias_filler {
      type: "constant"
      value: 0
    }
  }
}
layer {
  name: "relu3"
  type: "ReLU"
  bottom: "conv3"
  top: "conv3"
}
layer {
  name: "conv4"
  type: "Convolution"
  bottom: "conv3"
  top: "conv4"
  param {
    lr_mult: 1
    decay_mult: 1
  }
  param {
    lr_mult: 2
    decay_mult: 0
  }
  convolution_param {
    num_output: 384
    pad: 1
    kernel_size: 3
    group: 2
    weight_filler {
      type: "gaussian"
      std: 0.01
    }
    bias_filler {
      type: "constant"
      value: 0.1
    }
  }
}
layer {
  name: "relu4"
  type: "ReLU"
  bottom: "conv4"
  top: "conv4"
}
layer {
  name: "conv5"
  type: "Convolution"
  bottom: "conv4"
  top: "conv5"
  param {
    lr_mult: 1
    decay_mult: 1
  }
  param {
    lr_mult: 2
    decay_mult: 0
  }
  convolution_param {
    num_output: 256
    pad: 1
    kernel_size: 3
    group: 2
    weight_filler {
      type: "gaussian"
      std: 0.01
    }
    bias_filler {
      type: "constant"
      value: 0.1
    }
  }
}
layer {
  name: "relu5"
  type: "ReLU"
  bottom: "conv5"
  top: "conv5"
}
layer {
  name: "pool5"
  type: "Pooling"
  bottom: "conv5"
  top: "pool5"
  pooling_param {
    pool: MAX
    kernel_size: 3
    stride: 2
  }
}
layer {
  name: "fc6"
  type: "InnerProduct"
  bottom: "pool5"
  top: "fc6"
  param {
    lr_mult: 1
    decay_mult: 1
  }
  param {
    lr_mult: 2
    decay_mult: 0
  }
  inner_product_param {
    num_output: 4096
    weight_filler {
      type: "gaussian"
      std: 0.005
    }
    bias_filler {
      type: "constant"
      value: 0.1
    }
  }
}
layer {
  name: "relu6"
  type: "ReLU"
  bottom: "fc6"
  top: "fc6"
}
layer {
  name: "drop6"
  type: "Dropout"
  bottom: "fc6"
  top: "fc6"
  dropout_param {
    dropout_ratio: 0.5
  }
}
layer {
  name: "fc7"
  type: "InnerProduct"
  bottom: "fc6"
  top: "fc7"
  param {
    lr_mult: 1
    decay_mult: 1
  }
  param {
    lr_mult: 2
    decay_mult: 0
  }
  inner_product_param {
    num_output: 4096
    weight_filler {
      type: "gaussian"
      std: 0.005
    }
    bias_filler {
      type: "constant"
      value: 0.1
    }
  }
}
layer {
  name: "relu7"
  type: "ReLU"
  bottom: "fc7"
  top: "fc7"
}
layer {
  name: "drop7"
  type: "Dropout"
  bottom: "fc7"
  top: "fc7"
  dropout_param {
    dropout_ratio: 0.5
  }
}
layer {
  name: "fc8_plantvillage"
  type: "InnerProduct"
  bottom: "fc7"
  top: "fc8_plantvillage"
  param {
    lr_mult: 1
    decay_mult: 1
  }
  param {
    lr_mult: 2
    decay_mult: 0
  }
  inner_product_param {
    num_output: 38
    weight_filler {
      type: "gaussian"
      std: 0.01
    }
    bias_filler {
      type: "constant"
      value: 0
    }
  }
}
layer {
  name: "prob"
  type: "Softmax"
  bottom: "fc8_plantvillage"
  top: "prob"
  include {
    phase: TEST
  }
}
layer {
  name: "hdf5out"
  type: "HDF5Output"
  bottom: "prob"
  bottom: "label"
  include {
    phase: TEST
  }
  hdf5_output_param {
    file_name: "hdf5_dumps/iter_1752.h5"
  }
}
layer {
  name: "loss"
  type: "SoftmaxWithLoss"
  bottom: "fc8_plantvillage"
  bottom: "label"
  top: "loss"
}
layer {
  name: "accuracy"
  type: "Accuracy"
  bottom: "fc8_plantvillage"
  bottom: "label"
  top: "accuracy"
  include {
    phase: TEST
  }
}
I0403 14:34:00.638651 17153 layer_factory.hpp:77] Creating layer data
I0403 14:34:00.639302 17153 net.cpp:91] Creating Layer data
I0403 14:34:00.639333 17153 net.cpp:399] data -> data
I0403 14:34:00.639385 17153 net.cpp:399] data -> label
I0403 14:34:00.639422 17153 data_transformer.cpp:25] Loading mean file from: /home/mohanty/data/final_dataset/lmdb/grayscale-40-60/mean.binaryproto
I0403 14:34:00.642205 17156 db_lmdb.cpp:38] Opened lmdb /home/mohanty/data/final_dataset/lmdb/grayscale-40-60/test_db
I0403 14:34:00.654104 17153 data_layer.cpp:41] output data size: 100,3,227,227
I0403 14:34:00.776350 17153 net.cpp:141] Setting up data
I0403 14:34:00.776459 17153 net.cpp:148] Top shape: 100 3 227 227 (15458700)
I0403 14:34:00.776482 17153 net.cpp:148] Top shape: 100 (100)
I0403 14:34:00.776497 17153 net.cpp:156] Memory required for data: 61835200
I0403 14:34:00.776525 17153 layer_factory.hpp:77] Creating layer label_data_1_split
I0403 14:34:00.776551 17153 net.cpp:91] Creating Layer label_data_1_split
I0403 14:34:00.776568 17153 net.cpp:425] label_data_1_split <- label
I0403 14:34:00.776600 17153 net.cpp:399] label_data_1_split -> label_data_1_split_0
I0403 14:34:00.776628 17153 net.cpp:399] label_data_1_split -> label_data_1_split_1
I0403 14:34:00.776648 17153 net.cpp:399] label_data_1_split -> label_data_1_split_2
I0403 14:34:00.776710 17153 net.cpp:141] Setting up label_data_1_split
I0403 14:34:00.776733 17153 net.cpp:148] Top shape: 100 (100)
I0403 14:34:00.776751 17153 net.cpp:148] Top shape: 100 (100)
I0403 14:34:00.776767 17153 net.cpp:148] Top shape: 100 (100)
I0403 14:34:00.776780 17153 net.cpp:156] Memory required for data: 61836400
I0403 14:34:00.776795 17153 layer_factory.hpp:77] Creating layer conv1
I0403 14:34:00.776828 17153 net.cpp:91] Creating Layer conv1
I0403 14:34:00.776846 17153 net.cpp:425] conv1 <- data
I0403 14:34:00.776865 17153 net.cpp:399] conv1 -> conv1
I0403 14:34:00.921821 17153 net.cpp:141] Setting up conv1
I0403 14:34:00.921913 17153 net.cpp:148] Top shape: 100 96 55 55 (29040000)
I0403 14:34:00.921933 17153 net.cpp:156] Memory required for data: 177996400
I0403 14:34:00.921967 17153 layer_factory.hpp:77] Creating layer relu1
I0403 14:34:00.921996 17153 net.cpp:91] Creating Layer relu1
I0403 14:34:00.922019 17153 net.cpp:425] relu1 <- conv1
I0403 14:34:00.922044 17153 net.cpp:386] relu1 -> conv1 (in-place)
I0403 14:34:00.922320 17153 net.cpp:141] Setting up relu1
I0403 14:34:00.922348 17153 net.cpp:148] Top shape: 100 96 55 55 (29040000)
I0403 14:34:00.922395 17153 net.cpp:156] Memory required for data: 294156400
I0403 14:34:00.922412 17153 layer_factory.hpp:77] Creating layer norm1
I0403 14:34:00.922442 17153 net.cpp:91] Creating Layer norm1
I0403 14:34:00.922461 17153 net.cpp:425] norm1 <- conv1
I0403 14:34:00.922478 17153 net.cpp:399] norm1 -> norm1
I0403 14:34:00.922808 17153 net.cpp:141] Setting up norm1
I0403 14:34:00.922837 17153 net.cpp:148] Top shape: 100 96 55 55 (29040000)
I0403 14:34:00.922852 17153 net.cpp:156] Memory required for data: 410316400
I0403 14:34:00.922868 17153 layer_factory.hpp:77] Creating layer pool1
I0403 14:34:00.922894 17153 net.cpp:91] Creating Layer pool1
I0403 14:34:00.922910 17153 net.cpp:425] pool1 <- norm1
I0403 14:34:00.922929 17153 net.cpp:399] pool1 -> pool1
I0403 14:34:00.923002 17153 net.cpp:141] Setting up pool1
I0403 14:34:00.923029 17153 net.cpp:148] Top shape: 100 96 27 27 (6998400)
I0403 14:34:00.923045 17153 net.cpp:156] Memory required for data: 438310000
I0403 14:34:00.923060 17153 layer_factory.hpp:77] Creating layer conv2
I0403 14:34:00.923086 17153 net.cpp:91] Creating Layer conv2
I0403 14:34:00.923105 17153 net.cpp:425] conv2 <- pool1
I0403 14:34:00.923125 17153 net.cpp:399] conv2 -> conv2
I0403 14:34:00.938525 17153 net.cpp:141] Setting up conv2
I0403 14:34:00.938576 17153 net.cpp:148] Top shape: 100 256 27 27 (18662400)
I0403 14:34:00.938593 17153 net.cpp:156] Memory required for data: 512959600
I0403 14:34:00.938616 17153 layer_factory.hpp:77] Creating layer relu2
I0403 14:34:00.938639 17153 net.cpp:91] Creating Layer relu2
I0403 14:34:00.938658 17153 net.cpp:425] relu2 <- conv2
I0403 14:34:00.938676 17153 net.cpp:386] relu2 -> conv2 (in-place)
I0403 14:34:00.938969 17153 net.cpp:141] Setting up relu2
I0403 14:34:00.938998 17153 net.cpp:148] Top shape: 100 256 27 27 (18662400)
I0403 14:34:00.939015 17153 net.cpp:156] Memory required for data: 587609200
I0403 14:34:00.939045 17153 layer_factory.hpp:77] Creating layer norm2
I0403 14:34:00.939074 17153 net.cpp:91] Creating Layer norm2
I0403 14:34:00.939091 17153 net.cpp:425] norm2 <- conv2
I0403 14:34:00.939112 17153 net.cpp:399] norm2 -> norm2
I0403 14:34:00.939323 17153 net.cpp:141] Setting up norm2
I0403 14:34:00.939350 17153 net.cpp:148] Top shape: 100 256 27 27 (18662400)
I0403 14:34:00.939365 17153 net.cpp:156] Memory required for data: 662258800
I0403 14:34:00.939380 17153 layer_factory.hpp:77] Creating layer pool2
I0403 14:34:00.939402 17153 net.cpp:91] Creating Layer pool2
I0403 14:34:00.939419 17153 net.cpp:425] pool2 <- norm2
I0403 14:34:00.939436 17153 net.cpp:399] pool2 -> pool2
I0403 14:34:00.939498 17153 net.cpp:141] Setting up pool2
I0403 14:34:00.939523 17153 net.cpp:148] Top shape: 100 256 13 13 (4326400)
I0403 14:34:00.939541 17153 net.cpp:156] Memory required for data: 679564400
I0403 14:34:00.939558 17153 layer_factory.hpp:77] Creating layer conv3
I0403 14:34:00.939581 17153 net.cpp:91] Creating Layer conv3
I0403 14:34:00.939597 17153 net.cpp:425] conv3 <- pool2
I0403 14:34:00.939618 17153 net.cpp:399] conv3 -> conv3
I0403 14:34:00.980880 17153 net.cpp:141] Setting up conv3
I0403 14:34:00.980968 17153 net.cpp:148] Top shape: 100 384 13 13 (6489600)
I0403 14:34:00.980985 17153 net.cpp:156] Memory required for data: 705522800
I0403 14:34:00.981014 17153 layer_factory.hpp:77] Creating layer relu3
I0403 14:34:00.981045 17153 net.cpp:91] Creating Layer relu3
I0403 14:34:00.981062 17153 net.cpp:425] relu3 <- conv3
I0403 14:34:00.981081 17153 net.cpp:386] relu3 -> conv3 (in-place)
I0403 14:34:00.981367 17153 net.cpp:141] Setting up relu3
I0403 14:34:00.981395 17153 net.cpp:148] Top shape: 100 384 13 13 (6489600)
I0403 14:34:00.981411 17153 net.cpp:156] Memory required for data: 731481200
I0403 14:34:00.981426 17153 layer_factory.hpp:77] Creating layer conv4
I0403 14:34:00.981452 17153 net.cpp:91] Creating Layer conv4
I0403 14:34:00.981469 17153 net.cpp:425] conv4 <- conv3
I0403 14:34:00.981490 17153 net.cpp:399] conv4 -> conv4
I0403 14:34:01.012207 17153 net.cpp:141] Setting up conv4
I0403 14:34:01.012284 17153 net.cpp:148] Top shape: 100 384 13 13 (6489600)
I0403 14:34:01.012331 17153 net.cpp:156] Memory required for data: 757439600
I0403 14:34:01.012356 17153 layer_factory.hpp:77] Creating layer relu4
I0403 14:34:01.012380 17153 net.cpp:91] Creating Layer relu4
I0403 14:34:01.012399 17153 net.cpp:425] relu4 <- conv4
I0403 14:34:01.012420 17153 net.cpp:386] relu4 -> conv4 (in-place)
I0403 14:34:01.012713 17153 net.cpp:141] Setting up relu4
I0403 14:34:01.012742 17153 net.cpp:148] Top shape: 100 384 13 13 (6489600)
I0403 14:34:01.012758 17153 net.cpp:156] Memory required for data: 783398000
I0403 14:34:01.012773 17153 layer_factory.hpp:77] Creating layer conv5
I0403 14:34:01.012801 17153 net.cpp:91] Creating Layer conv5
I0403 14:34:01.012820 17153 net.cpp:425] conv5 <- conv4
I0403 14:34:01.012850 17153 net.cpp:399] conv5 -> conv5
I0403 14:34:01.034024 17153 net.cpp:141] Setting up conv5
I0403 14:34:01.034061 17153 net.cpp:148] Top shape: 100 256 13 13 (4326400)
I0403 14:34:01.034077 17153 net.cpp:156] Memory required for data: 800703600
I0403 14:34:01.034102 17153 layer_factory.hpp:77] Creating layer relu5
I0403 14:34:01.034126 17153 net.cpp:91] Creating Layer relu5
I0403 14:34:01.034144 17153 net.cpp:425] relu5 <- conv5
I0403 14:34:01.034162 17153 net.cpp:386] relu5 -> conv5 (in-place)
I0403 14:34:01.034462 17153 net.cpp:141] Setting up relu5
I0403 14:34:01.034490 17153 net.cpp:148] Top shape: 100 256 13 13 (4326400)
I0403 14:34:01.034505 17153 net.cpp:156] Memory required for data: 818009200
I0403 14:34:01.034523 17153 layer_factory.hpp:77] Creating layer pool5
I0403 14:34:01.034550 17153 net.cpp:91] Creating Layer pool5
I0403 14:34:01.034571 17153 net.cpp:425] pool5 <- conv5
I0403 14:34:01.034595 17153 net.cpp:399] pool5 -> pool5
I0403 14:34:01.034670 17153 net.cpp:141] Setting up pool5
I0403 14:34:01.034693 17153 net.cpp:148] Top shape: 100 256 6 6 (921600)
I0403 14:34:01.034708 17153 net.cpp:156] Memory required for data: 821695600
I0403 14:34:01.034723 17153 layer_factory.hpp:77] Creating layer fc6
I0403 14:34:01.034752 17153 net.cpp:91] Creating Layer fc6
I0403 14:34:01.034770 17153 net.cpp:425] fc6 <- pool5
I0403 14:34:01.034787 17153 net.cpp:399] fc6 -> fc6
I0403 14:34:02.592939 17153 net.cpp:141] Setting up fc6
I0403 14:34:02.593034 17153 net.cpp:148] Top shape: 100 4096 (409600)
I0403 14:34:02.593050 17153 net.cpp:156] Memory required for data: 823334000
I0403 14:34:02.593070 17153 layer_factory.hpp:77] Creating layer relu6
I0403 14:34:02.593092 17153 net.cpp:91] Creating Layer relu6
I0403 14:34:02.593109 17153 net.cpp:425] relu6 <- fc6
I0403 14:34:02.593132 17153 net.cpp:386] relu6 -> fc6 (in-place)
I0403 14:34:02.593351 17153 net.cpp:141] Setting up relu6
I0403 14:34:02.593376 17153 net.cpp:148] Top shape: 100 4096 (409600)
I0403 14:34:02.593391 17153 net.cpp:156] Memory required for data: 824972400
I0403 14:34:02.593405 17153 layer_factory.hpp:77] Creating layer drop6
I0403 14:34:02.593426 17153 net.cpp:91] Creating Layer drop6
I0403 14:34:02.593443 17153 net.cpp:425] drop6 <- fc6
I0403 14:34:02.593461 17153 net.cpp:386] drop6 -> fc6 (in-place)
I0403 14:34:02.593513 17153 net.cpp:141] Setting up drop6
I0403 14:34:02.593535 17153 net.cpp:148] Top shape: 100 4096 (409600)
I0403 14:34:02.593550 17153 net.cpp:156] Memory required for data: 826610800
I0403 14:34:02.593564 17153 layer_factory.hpp:77] Creating layer fc7
I0403 14:34:02.593583 17153 net.cpp:91] Creating Layer fc7
I0403 14:34:02.593600 17153 net.cpp:425] fc7 <- fc6
I0403 14:34:02.593622 17153 net.cpp:399] fc7 -> fc7
I0403 14:34:03.278951 17153 net.cpp:141] Setting up fc7
I0403 14:34:03.279049 17153 net.cpp:148] Top shape: 100 4096 (409600)
I0403 14:34:03.279067 17153 net.cpp:156] Memory required for data: 828249200
I0403 14:34:03.279088 17153 layer_factory.hpp:77] Creating layer relu7
I0403 14:34:03.279111 17153 net.cpp:91] Creating Layer relu7
I0403 14:34:03.279129 17153 net.cpp:425] relu7 <- fc7
I0403 14:34:03.279150 17153 net.cpp:386] relu7 -> fc7 (in-place)
I0403 14:34:03.279567 17153 net.cpp:141] Setting up relu7
I0403 14:34:03.279593 17153 net.cpp:148] Top shape: 100 4096 (409600)
I0403 14:34:03.279639 17153 net.cpp:156] Memory required for data: 829887600
I0403 14:34:03.279654 17153 layer_factory.hpp:77] Creating layer drop7
I0403 14:34:03.279675 17153 net.cpp:91] Creating Layer drop7
I0403 14:34:03.279691 17153 net.cpp:425] drop7 <- fc7
I0403 14:34:03.279708 17153 net.cpp:386] drop7 -> fc7 (in-place)
I0403 14:34:03.279752 17153 net.cpp:141] Setting up drop7
I0403 14:34:03.279774 17153 net.cpp:148] Top shape: 100 4096 (409600)
I0403 14:34:03.279788 17153 net.cpp:156] Memory required for data: 831526000
I0403 14:34:03.279803 17153 layer_factory.hpp:77] Creating layer fc8_plantvillage
I0403 14:34:03.279821 17153 net.cpp:91] Creating Layer fc8_plantvillage
I0403 14:34:03.279837 17153 net.cpp:425] fc8_plantvillage <- fc7
I0403 14:34:03.279857 17153 net.cpp:399] fc8_plantvillage -> fc8_plantvillage
I0403 14:34:03.286603 17153 net.cpp:141] Setting up fc8_plantvillage
I0403 14:34:03.286631 17153 net.cpp:148] Top shape: 100 38 (3800)
I0403 14:34:03.286646 17153 net.cpp:156] Memory required for data: 831541200
I0403 14:34:03.286664 17153 layer_factory.hpp:77] Creating layer fc8_plantvillage_fc8_plantvillage_0_split
I0403 14:34:03.286685 17153 net.cpp:91] Creating Layer fc8_plantvillage_fc8_plantvillage_0_split
I0403 14:34:03.286702 17153 net.cpp:425] fc8_plantvillage_fc8_plantvillage_0_split <- fc8_plantvillage
I0403 14:34:03.286720 17153 net.cpp:399] fc8_plantvillage_fc8_plantvillage_0_split -> fc8_plantvillage_fc8_plantvillage_0_split_0
I0403 14:34:03.286741 17153 net.cpp:399] fc8_plantvillage_fc8_plantvillage_0_split -> fc8_plantvillage_fc8_plantvillage_0_split_1
I0403 14:34:03.286761 17153 net.cpp:399] fc8_plantvillage_fc8_plantvillage_0_split -> fc8_plantvillage_fc8_plantvillage_0_split_2
I0403 14:34:03.286840 17153 net.cpp:141] Setting up fc8_plantvillage_fc8_plantvillage_0_split
I0403 14:34:03.286862 17153 net.cpp:148] Top shape: 100 38 (3800)
I0403 14:34:03.286878 17153 net.cpp:148] Top shape: 100 38 (3800)
I0403 14:34:03.286892 17153 net.cpp:148] Top shape: 100 38 (3800)
I0403 14:34:03.286906 17153 net.cpp:156] Memory required for data: 831586800
I0403 14:34:03.286923 17153 layer_factory.hpp:77] Creating layer prob
I0403 14:34:03.286942 17153 net.cpp:91] Creating Layer prob
I0403 14:34:03.286957 17153 net.cpp:425] prob <- fc8_plantvillage_fc8_plantvillage_0_split_0
I0403 14:34:03.286978 17153 net.cpp:399] prob -> prob
I0403 14:34:03.287207 17153 net.cpp:141] Setting up prob
I0403 14:34:03.287233 17153 net.cpp:148] Top shape: 100 38 (3800)
I0403 14:34:03.287248 17153 net.cpp:156] Memory required for data: 831602000
I0403 14:34:03.287262 17153 layer_factory.hpp:77] Creating layer hdf5out
I0403 14:34:03.287283 17153 net.cpp:91] Creating Layer hdf5out
I0403 14:34:03.287300 17153 net.cpp:425] hdf5out <- prob
I0403 14:34:03.287317 17153 net.cpp:425] hdf5out <- label_data_1_split_0
I0403 14:34:03.289614 17153 net.cpp:141] Setting up hdf5out
…
