…
I0403 14:28:33.146301 16997 net.cpp:313] The NetState phase (1) differed from the phase (0) specified by a rule in layer data
I0403 14:28:33.146678 16997 net.cpp:49] Initializing net from parameters: 
state {
  phase: TEST
}
layer {
  name: "data"
  type: "Data"
  top: "data"
  top: "label"
  include {
    phase: TEST
  }
  transform_param {
    crop_size: 227
    mean_file: "/home/mohanty/data/final_dataset/lmdb/grayscale-40-60/mean.binaryproto"
  }
  data_param {
    source: "/home/mohanty/data/final_dataset/lmdb/grayscale-40-60/test_db"
    batch_size: 100
    backend: LMDB
  }
}
layer {
  name: "conv1"
  type: "Convolution"
  bottom: "data"
  top: "conv1"
  param {
    lr_mult: 1
    decay_mult: 1
  }
  param {
    lr_mult: 2
    decay_mult: 0
  }
  convolution_param {
    num_output: 96
    kernel_size: 11
    stride: 4
    weight_filler {
      type: "gaussian"
      std: 0.01
    }
    bias_filler {
      type: "constant"
      value: 0
    }
  }
}
layer {
  name: "relu1"
  type: "ReLU"
  bottom: "conv1"
  top: "conv1"
}
layer {
  name: "norm1"
  type: "LRN"
  bottom: "conv1"
  top: "norm1"
  lrn_param {
    local_size: 5
    alpha: 0.0001
    beta: 0.75
  }
}
layer {
  name: "pool1"
  type: "Pooling"
  bottom: "norm1"
  top: "pool1"
  pooling_param {
    pool: MAX
    kernel_size: 3
    stride: 2
  }
}
layer {
  name: "conv2"
  type: "Convolution"
  bottom: "pool1"
  top: "conv2"
  param {
    lr_mult: 1
    decay_mult: 1
  }
  param {
    lr_mult: 2
    decay_mult: 0
  }
  convolution_param {
    num_output: 256
    pad: 2
    kernel_size: 5
    group: 2
    weight_filler {
      type: "gaussian"
      std: 0.01
    }
    bias_filler {
      type: "constant"
      value: 0.1
    }
  }
}
layer {
  name: "relu2"
  type: "ReLU"
  bottom: "conv2"
  top: "conv2"
}
layer {
  name: "norm2"
  type: "LRN"
  bottom: "conv2"
  top: "norm2"
  lrn_param {
    local_size: 5
    alpha: 0.0001
    beta: 0.75
  }
}
layer {
  name: "pool2"
  type: "Pooling"
  bottom: "norm2"
  top: "pool2"
  pooling_param {
    pool: MAX
    kernel_size: 3
    stride: 2
  }
}
layer {
  name: "conv3"
  type: "Convolution"
  bottom: "pool2"
  top: "conv3"
  param {
    lr_mult: 1
    decay_mult: 1
  }
  param {
    lr_mult: 2
    decay_mult: 0
  }
  convolution_param {
    num_output: 384
    pad: 1
    kernel_size: 3
    weight_filler {
      type: "gaussian"
      std: 0.01
    }
    bias_filler {
      type: "constant"
      value: 0
    }
  }
}
layer {
  name: "relu3"
  type: "ReLU"
  bottom: "conv3"
  top: "conv3"
}
layer {
  name: "conv4"
  type: "Convolution"
  bottom: "conv3"
  top: "conv4"
  param {
    lr_mult: 1
    decay_mult: 1
  }
  param {
    lr_mult: 2
    decay_mult: 0
  }
  convolution_param {
    num_output: 384
    pad: 1
    kernel_size: 3
    group: 2
    weight_filler {
      type: "gaussian"
      std: 0.01
    }
    bias_filler {
      type: "constant"
      value: 0.1
    }
  }
}
layer {
  name: "relu4"
  type: "ReLU"
  bottom: "conv4"
  top: "conv4"
}
layer {
  name: "conv5"
  type: "Convolution"
  bottom: "conv4"
  top: "conv5"
  param {
    lr_mult: 1
    decay_mult: 1
  }
  param {
    lr_mult: 2
    decay_mult: 0
  }
  convolution_param {
    num_output: 256
    pad: 1
    kernel_size: 3
    group: 2
    weight_filler {
      type: "gaussian"
      std: 0.01
    }
    bias_filler {
      type: "constant"
      value: 0.1
    }
  }
}
layer {
  name: "relu5"
  type: "ReLU"
  bottom: "conv5"
  top: "conv5"
}
layer {
  name: "pool5"
  type: "Pooling"
  bottom: "conv5"
  top: "pool5"
  pooling_param {
    pool: MAX
    kernel_size: 3
    stride: 2
  }
}
layer {
  name: "fc6"
  type: "InnerProduct"
  bottom: "pool5"
  top: "fc6"
  param {
    lr_mult: 1
    decay_mult: 1
  }
  param {
    lr_mult: 2
    decay_mult: 0
  }
  inner_product_param {
    num_output: 4096
    weight_filler {
      type: "gaussian"
      std: 0.005
    }
    bias_filler {
      type: "constant"
      value: 0.1
    }
  }
}
layer {
  name: "relu6"
  type: "ReLU"
  bottom: "fc6"
  top: "fc6"
}
layer {
  name: "drop6"
  type: "Dropout"
  bottom: "fc6"
  top: "fc6"
  dropout_param {
    dropout_ratio: 0.5
  }
}
layer {
  name: "fc7"
  type: "InnerProduct"
  bottom: "fc6"
  top: "fc7"
  param {
    lr_mult: 1
    decay_mult: 1
  }
  param {
    lr_mult: 2
    decay_mult: 0
  }
  inner_product_param {
    num_output: 4096
    weight_filler {
      type: "gaussian"
      std: 0.005
    }
    bias_filler {
      type: "constant"
      value: 0.1
    }
  }
}
layer {
  name: "relu7"
  type: "ReLU"
  bottom: "fc7"
  top: "fc7"
}
layer {
  name: "drop7"
  type: "Dropout"
  bottom: "fc7"
  top: "fc7"
  dropout_param {
    dropout_ratio: 0.5
  }
}
layer {
  name: "fc8_plantvillage"
  type: "InnerProduct"
  bottom: "fc7"
  top: "fc8_plantvillage"
  param {
    lr_mult: 1
    decay_mult: 1
  }
  param {
    lr_mult: 2
    decay_mult: 0
  }
  inner_product_param {
    num_output: 38
    weight_filler {
      type: "gaussian"
      std: 0.01
    }
    bias_filler {
      type: "constant"
      value: 0
    }
  }
}
layer {
  name: "prob"
  type: "Softmax"
  bottom: "fc8_plantvillage"
  top: "prob"
  include {
    phase: TEST
  }
}
layer {
  name: "hdf5out"
  type: "HDF5Output"
  bottom: "prob"
  bottom: "label"
  include {
    phase: TEST
  }
  hdf5_output_param {
    file_name: "hdf5_dumps/iter_657.h5"
  }
}
layer {
  name: "loss"
  type: "SoftmaxWithLoss"
  bottom: "fc8_plantvillage"
  bottom: "label"
  top: "loss"
}
layer {
  name: "accuracy"
  type: "Accuracy"
  bottom: "fc8_plantvillage"
  bottom: "label"
  top: "accuracy"
  include {
    phase: TEST
  }
}
I0403 14:28:33.147272 16997 layer_factory.hpp:77] Creating layer data
I0403 14:28:33.147967 16997 net.cpp:91] Creating Layer data
I0403 14:28:33.147999 16997 net.cpp:399] data -> data
I0403 14:28:33.148056 16997 net.cpp:399] data -> label
I0403 14:28:33.148095 16997 data_transformer.cpp:25] Loading mean file from: /home/mohanty/data/final_dataset/lmdb/grayscale-40-60/mean.binaryproto
I0403 14:28:33.150908 17000 db_lmdb.cpp:38] Opened lmdb /home/mohanty/data/final_dataset/lmdb/grayscale-40-60/test_db
I0403 14:28:33.163146 16997 data_layer.cpp:41] output data size: 100,3,227,227
I0403 14:28:33.287974 16997 net.cpp:141] Setting up data
I0403 14:28:33.288082 16997 net.cpp:148] Top shape: 100 3 227 227 (15458700)
I0403 14:28:33.288110 16997 net.cpp:148] Top shape: 100 (100)
I0403 14:28:33.288130 16997 net.cpp:156] Memory required for data: 61835200
I0403 14:28:33.288161 16997 layer_factory.hpp:77] Creating layer label_data_1_split
I0403 14:28:33.288190 16997 net.cpp:91] Creating Layer label_data_1_split
I0403 14:28:33.288209 16997 net.cpp:425] label_data_1_split <- label
I0403 14:28:33.288246 16997 net.cpp:399] label_data_1_split -> label_data_1_split_0
I0403 14:28:33.288275 16997 net.cpp:399] label_data_1_split -> label_data_1_split_1
I0403 14:28:33.288300 16997 net.cpp:399] label_data_1_split -> label_data_1_split_2
I0403 14:28:33.288374 16997 net.cpp:141] Setting up label_data_1_split
I0403 14:28:33.288399 16997 net.cpp:148] Top shape: 100 (100)
I0403 14:28:33.288419 16997 net.cpp:148] Top shape: 100 (100)
I0403 14:28:33.288434 16997 net.cpp:148] Top shape: 100 (100)
I0403 14:28:33.288450 16997 net.cpp:156] Memory required for data: 61836400
I0403 14:28:33.288468 16997 layer_factory.hpp:77] Creating layer conv1
I0403 14:28:33.288502 16997 net.cpp:91] Creating Layer conv1
I0403 14:28:33.288523 16997 net.cpp:425] conv1 <- data
I0403 14:28:33.288547 16997 net.cpp:399] conv1 -> conv1
I0403 14:28:33.442621 16997 net.cpp:141] Setting up conv1
I0403 14:28:33.442693 16997 net.cpp:148] Top shape: 100 96 55 55 (29040000)
I0403 14:28:33.442713 16997 net.cpp:156] Memory required for data: 177996400
I0403 14:28:33.442747 16997 layer_factory.hpp:77] Creating layer relu1
I0403 14:28:33.442777 16997 net.cpp:91] Creating Layer relu1
I0403 14:28:33.442798 16997 net.cpp:425] relu1 <- conv1
I0403 14:28:33.442819 16997 net.cpp:386] relu1 -> conv1 (in-place)
I0403 14:28:33.443107 16997 net.cpp:141] Setting up relu1
I0403 14:28:33.443135 16997 net.cpp:148] Top shape: 100 96 55 55 (29040000)
I0403 14:28:33.443183 16997 net.cpp:156] Memory required for data: 294156400
I0403 14:28:33.443200 16997 layer_factory.hpp:77] Creating layer norm1
I0403 14:28:33.443231 16997 net.cpp:91] Creating Layer norm1
I0403 14:28:33.443251 16997 net.cpp:425] norm1 <- conv1
I0403 14:28:33.443272 16997 net.cpp:399] norm1 -> norm1
I0403 14:28:33.443614 16997 net.cpp:141] Setting up norm1
I0403 14:28:33.443644 16997 net.cpp:148] Top shape: 100 96 55 55 (29040000)
I0403 14:28:33.443661 16997 net.cpp:156] Memory required for data: 410316400
I0403 14:28:33.443677 16997 layer_factory.hpp:77] Creating layer pool1
I0403 14:28:33.443706 16997 net.cpp:91] Creating Layer pool1
I0403 14:28:33.443725 16997 net.cpp:425] pool1 <- norm1
I0403 14:28:33.443744 16997 net.cpp:399] pool1 -> pool1
I0403 14:28:33.443819 16997 net.cpp:141] Setting up pool1
I0403 14:28:33.443845 16997 net.cpp:148] Top shape: 100 96 27 27 (6998400)
I0403 14:28:33.443861 16997 net.cpp:156] Memory required for data: 438310000
I0403 14:28:33.443878 16997 layer_factory.hpp:77] Creating layer conv2
I0403 14:28:33.443907 16997 net.cpp:91] Creating Layer conv2
I0403 14:28:33.443927 16997 net.cpp:425] conv2 <- pool1
I0403 14:28:33.443950 16997 net.cpp:399] conv2 -> conv2
I0403 14:28:33.459460 16997 net.cpp:141] Setting up conv2
I0403 14:28:33.459530 16997 net.cpp:148] Top shape: 100 256 27 27 (18662400)
I0403 14:28:33.459549 16997 net.cpp:156] Memory required for data: 512959600
I0403 14:28:33.459578 16997 layer_factory.hpp:77] Creating layer relu2
I0403 14:28:33.459605 16997 net.cpp:91] Creating Layer relu2
I0403 14:28:33.459625 16997 net.cpp:425] relu2 <- conv2
I0403 14:28:33.459645 16997 net.cpp:386] relu2 -> conv2 (in-place)
I0403 14:28:33.459933 16997 net.cpp:141] Setting up relu2
I0403 14:28:33.459964 16997 net.cpp:148] Top shape: 100 256 27 27 (18662400)
I0403 14:28:33.459980 16997 net.cpp:156] Memory required for data: 587609200
I0403 14:28:33.459997 16997 layer_factory.hpp:77] Creating layer norm2
I0403 14:28:33.460029 16997 net.cpp:91] Creating Layer norm2
I0403 14:28:33.460049 16997 net.cpp:425] norm2 <- conv2
I0403 14:28:33.460072 16997 net.cpp:399] norm2 -> norm2
I0403 14:28:33.460283 16997 net.cpp:141] Setting up norm2
I0403 14:28:33.460311 16997 net.cpp:148] Top shape: 100 256 27 27 (18662400)
I0403 14:28:33.460326 16997 net.cpp:156] Memory required for data: 662258800
I0403 14:28:33.460342 16997 layer_factory.hpp:77] Creating layer pool2
I0403 14:28:33.460363 16997 net.cpp:91] Creating Layer pool2
I0403 14:28:33.460381 16997 net.cpp:425] pool2 <- norm2
I0403 14:28:33.460402 16997 net.cpp:399] pool2 -> pool2
I0403 14:28:33.460460 16997 net.cpp:141] Setting up pool2
I0403 14:28:33.460484 16997 net.cpp:148] Top shape: 100 256 13 13 (4326400)
I0403 14:28:33.460500 16997 net.cpp:156] Memory required for data: 679564400
I0403 14:28:33.460515 16997 layer_factory.hpp:77] Creating layer conv3
I0403 14:28:33.460544 16997 net.cpp:91] Creating Layer conv3
I0403 14:28:33.460562 16997 net.cpp:425] conv3 <- pool2
I0403 14:28:33.460585 16997 net.cpp:399] conv3 -> conv3
I0403 14:28:33.501087 16997 net.cpp:141] Setting up conv3
I0403 14:28:33.501157 16997 net.cpp:148] Top shape: 100 384 13 13 (6489600)
I0403 14:28:33.501183 16997 net.cpp:156] Memory required for data: 705522800
I0403 14:28:33.501210 16997 layer_factory.hpp:77] Creating layer relu3
I0403 14:28:33.501240 16997 net.cpp:91] Creating Layer relu3
I0403 14:28:33.501260 16997 net.cpp:425] relu3 <- conv3
I0403 14:28:33.501282 16997 net.cpp:386] relu3 -> conv3 (in-place)
I0403 14:28:33.501560 16997 net.cpp:141] Setting up relu3
I0403 14:28:33.501590 16997 net.cpp:148] Top shape: 100 384 13 13 (6489600)
I0403 14:28:33.501606 16997 net.cpp:156] Memory required for data: 731481200
I0403 14:28:33.501623 16997 layer_factory.hpp:77] Creating layer conv4
I0403 14:28:33.501660 16997 net.cpp:91] Creating Layer conv4
I0403 14:28:33.501679 16997 net.cpp:425] conv4 <- conv3
I0403 14:28:33.501703 16997 net.cpp:399] conv4 -> conv4
I0403 14:28:33.531667 16997 net.cpp:141] Setting up conv4
I0403 14:28:33.531754 16997 net.cpp:148] Top shape: 100 384 13 13 (6489600)
I0403 14:28:33.531806 16997 net.cpp:156] Memory required for data: 757439600
I0403 14:28:33.531831 16997 layer_factory.hpp:77] Creating layer relu4
I0403 14:28:33.531855 16997 net.cpp:91] Creating Layer relu4
I0403 14:28:33.531877 16997 net.cpp:425] relu4 <- conv4
I0403 14:28:33.531896 16997 net.cpp:386] relu4 -> conv4 (in-place)
I0403 14:28:33.532201 16997 net.cpp:141] Setting up relu4
I0403 14:28:33.532228 16997 net.cpp:148] Top shape: 100 384 13 13 (6489600)
I0403 14:28:33.532243 16997 net.cpp:156] Memory required for data: 783398000
I0403 14:28:33.532259 16997 layer_factory.hpp:77] Creating layer conv5
I0403 14:28:33.532287 16997 net.cpp:91] Creating Layer conv5
I0403 14:28:33.532305 16997 net.cpp:425] conv5 <- conv4
I0403 14:28:33.532327 16997 net.cpp:399] conv5 -> conv5
I0403 14:28:33.553172 16997 net.cpp:141] Setting up conv5
I0403 14:28:33.553274 16997 net.cpp:148] Top shape: 100 256 13 13 (4326400)
I0403 14:28:33.553292 16997 net.cpp:156] Memory required for data: 800703600
I0403 14:28:33.553319 16997 layer_factory.hpp:77] Creating layer relu5
I0403 14:28:33.553346 16997 net.cpp:91] Creating Layer relu5
I0403 14:28:33.553365 16997 net.cpp:425] relu5 <- conv5
I0403 14:28:33.553385 16997 net.cpp:386] relu5 -> conv5 (in-place)
I0403 14:28:33.553668 16997 net.cpp:141] Setting up relu5
I0403 14:28:33.553695 16997 net.cpp:148] Top shape: 100 256 13 13 (4326400)
I0403 14:28:33.553712 16997 net.cpp:156] Memory required for data: 818009200
I0403 14:28:33.553727 16997 layer_factory.hpp:77] Creating layer pool5
I0403 14:28:33.553756 16997 net.cpp:91] Creating Layer pool5
I0403 14:28:33.553777 16997 net.cpp:425] pool5 <- conv5
I0403 14:28:33.553797 16997 net.cpp:399] pool5 -> pool5
I0403 14:28:33.553864 16997 net.cpp:141] Setting up pool5
I0403 14:28:33.553887 16997 net.cpp:148] Top shape: 100 256 6 6 (921600)
I0403 14:28:33.553903 16997 net.cpp:156] Memory required for data: 821695600
I0403 14:28:33.553917 16997 layer_factory.hpp:77] Creating layer fc6
I0403 14:28:33.553947 16997 net.cpp:91] Creating Layer fc6
I0403 14:28:33.553966 16997 net.cpp:425] fc6 <- pool5
I0403 14:28:33.553984 16997 net.cpp:399] fc6 -> fc6
I0403 14:28:35.108918 16997 net.cpp:141] Setting up fc6
I0403 14:28:35.109009 16997 net.cpp:148] Top shape: 100 4096 (409600)
I0403 14:28:35.109030 16997 net.cpp:156] Memory required for data: 823334000
I0403 14:28:35.109053 16997 layer_factory.hpp:77] Creating layer relu6
I0403 14:28:35.109076 16997 net.cpp:91] Creating Layer relu6
I0403 14:28:35.109092 16997 net.cpp:425] relu6 <- fc6
I0403 14:28:35.109115 16997 net.cpp:386] relu6 -> fc6 (in-place)
I0403 14:28:35.109344 16997 net.cpp:141] Setting up relu6
I0403 14:28:35.109369 16997 net.cpp:148] Top shape: 100 4096 (409600)
I0403 14:28:35.109383 16997 net.cpp:156] Memory required for data: 824972400
I0403 14:28:35.109397 16997 layer_factory.hpp:77] Creating layer drop6
I0403 14:28:35.109416 16997 net.cpp:91] Creating Layer drop6
I0403 14:28:35.109431 16997 net.cpp:425] drop6 <- fc6
I0403 14:28:35.109450 16997 net.cpp:386] drop6 -> fc6 (in-place)
I0403 14:28:35.109503 16997 net.cpp:141] Setting up drop6
I0403 14:28:35.109526 16997 net.cpp:148] Top shape: 100 4096 (409600)
I0403 14:28:35.109541 16997 net.cpp:156] Memory required for data: 826610800
I0403 14:28:35.109555 16997 layer_factory.hpp:77] Creating layer fc7
I0403 14:28:35.109576 16997 net.cpp:91] Creating Layer fc7
I0403 14:28:35.109591 16997 net.cpp:425] fc7 <- fc6
I0403 14:28:35.109614 16997 net.cpp:399] fc7 -> fc7
I0403 14:28:35.796725 16997 net.cpp:141] Setting up fc7
I0403 14:28:35.796764 16997 net.cpp:148] Top shape: 100 4096 (409600)
I0403 14:28:35.796780 16997 net.cpp:156] Memory required for data: 828249200
I0403 14:28:35.796802 16997 layer_factory.hpp:77] Creating layer relu7
I0403 14:28:35.796825 16997 net.cpp:91] Creating Layer relu7
I0403 14:28:35.796844 16997 net.cpp:425] relu7 <- fc7
I0403 14:28:35.796861 16997 net.cpp:386] relu7 -> fc7 (in-place)
I0403 14:28:35.797330 16997 net.cpp:141] Setting up relu7
I0403 14:28:35.797358 16997 net.cpp:148] Top shape: 100 4096 (409600)
I0403 14:28:35.797413 16997 net.cpp:156] Memory required for data: 829887600
I0403 14:28:35.797430 16997 layer_factory.hpp:77] Creating layer drop7
I0403 14:28:35.797451 16997 net.cpp:91] Creating Layer drop7
I0403 14:28:35.797467 16997 net.cpp:425] drop7 <- fc7
I0403 14:28:35.797484 16997 net.cpp:386] drop7 -> fc7 (in-place)
I0403 14:28:35.797528 16997 net.cpp:141] Setting up drop7
I0403 14:28:35.797554 16997 net.cpp:148] Top shape: 100 4096 (409600)
I0403 14:28:35.797569 16997 net.cpp:156] Memory required for data: 831526000
I0403 14:28:35.797583 16997 layer_factory.hpp:77] Creating layer fc8_plantvillage
I0403 14:28:35.797602 16997 net.cpp:91] Creating Layer fc8_plantvillage
I0403 14:28:35.797617 16997 net.cpp:425] fc8_plantvillage <- fc7
I0403 14:28:35.797637 16997 net.cpp:399] fc8_plantvillage -> fc8_plantvillage
I0403 14:28:35.804618 16997 net.cpp:141] Setting up fc8_plantvillage
I0403 14:28:35.804649 16997 net.cpp:148] Top shape: 100 38 (3800)
I0403 14:28:35.804666 16997 net.cpp:156] Memory required for data: 831541200
I0403 14:28:35.804684 16997 layer_factory.hpp:77] Creating layer fc8_plantvillage_fc8_plantvillage_0_split
I0403 14:28:35.804705 16997 net.cpp:91] Creating Layer fc8_plantvillage_fc8_plantvillage_0_split
I0403 14:28:35.804723 16997 net.cpp:425] fc8_plantvillage_fc8_plantvillage_0_split <- fc8_plantvillage
I0403 14:28:35.804740 16997 net.cpp:399] fc8_plantvillage_fc8_plantvillage_0_split -> fc8_plantvillage_fc8_plantvillage_0_split_0
I0403 14:28:35.804761 16997 net.cpp:399] fc8_plantvillage_fc8_plantvillage_0_split -> fc8_plantvillage_fc8_plantvillage_0_split_1
I0403 14:28:35.804781 16997 net.cpp:399] fc8_plantvillage_fc8_plantvillage_0_split -> fc8_plantvillage_fc8_plantvillage_0_split_2
I0403 14:28:35.804872 16997 net.cpp:141] Setting up fc8_plantvillage_fc8_plantvillage_0_split
I0403 14:28:35.804894 16997 net.cpp:148] Top shape: 100 38 (3800)
I0403 14:28:35.804910 16997 net.cpp:148] Top shape: 100 38 (3800)
I0403 14:28:35.804926 16997 net.cpp:148] Top shape: 100 38 (3800)
I0403 14:28:35.804939 16997 net.cpp:156] Memory required for data: 831586800
I0403 14:28:35.804955 16997 layer_factory.hpp:77] Creating layer prob
I0403 14:28:35.804972 16997 net.cpp:91] Creating Layer prob
I0403 14:28:35.804987 16997 net.cpp:425] prob <- fc8_plantvillage_fc8_plantvillage_0_split_0
I0403 14:28:35.805007 16997 net.cpp:399] prob -> prob
I0403 14:28:35.805241 16997 net.cpp:141] Setting up prob
I0403 14:28:35.805268 16997 net.cpp:148] Top shape: 100 38 (3800)
I0403 14:28:35.805281 16997 net.cpp:156] Memory required for data: 831602000
I0403 14:28:35.805296 16997 layer_factory.hpp:77] Creating layer hdf5out
I0403 14:28:35.805316 16997 net.cpp:91] Creating Layer hdf5out
I0403 14:28:35.805332 16997 net.cpp:425] hdf5out <- prob
I0403 14:28:35.805348 16997 net.cpp:425] hdf5out <- label_data_1_split_0
I0403 14:28:35.807327 16997 net.cpp:141] Setting up hdf5out
…
