…
I0403 14:59:00.112315 17909 net.cpp:313] The NetState phase (1) differed from the phase (0) specified by a rule in layer data
I0403 14:59:00.112622 17909 net.cpp:49] Initializing net from parameters: 
state {
  phase: TEST
}
layer {
  name: "data"
  type: "Data"
  top: "data"
  top: "label"
  include {
    phase: TEST
  }
  transform_param {
    crop_size: 227
    mean_file: "/home/mohanty/data/final_dataset/lmdb/grayscale-40-60/mean.binaryproto"
  }
  data_param {
    source: "/home/mohanty/data/final_dataset/lmdb/grayscale-40-60/test_db"
    batch_size: 100
    backend: LMDB
  }
}
layer {
  name: "conv1"
  type: "Convolution"
  bottom: "data"
  top: "conv1"
  param {
    lr_mult: 1
    decay_mult: 1
  }
  param {
    lr_mult: 2
    decay_mult: 0
  }
  convolution_param {
    num_output: 96
    kernel_size: 11
    stride: 4
    weight_filler {
      type: "gaussian"
      std: 0.01
    }
    bias_filler {
      type: "constant"
      value: 0
    }
  }
}
layer {
  name: "relu1"
  type: "ReLU"
  bottom: "conv1"
  top: "conv1"
}
layer {
  name: "norm1"
  type: "LRN"
  bottom: "conv1"
  top: "norm1"
  lrn_param {
    local_size: 5
    alpha: 0.0001
    beta: 0.75
  }
}
layer {
  name: "pool1"
  type: "Pooling"
  bottom: "norm1"
  top: "pool1"
  pooling_param {
    pool: MAX
    kernel_size: 3
    stride: 2
  }
}
layer {
  name: "conv2"
  type: "Convolution"
  bottom: "pool1"
  top: "conv2"
  param {
    lr_mult: 1
    decay_mult: 1
  }
  param {
    lr_mult: 2
    decay_mult: 0
  }
  convolution_param {
    num_output: 256
    pad: 2
    kernel_size: 5
    group: 2
    weight_filler {
      type: "gaussian"
      std: 0.01
    }
    bias_filler {
      type: "constant"
      value: 0.1
    }
  }
}
layer {
  name: "relu2"
  type: "ReLU"
  bottom: "conv2"
  top: "conv2"
}
layer {
  name: "norm2"
  type: "LRN"
  bottom: "conv2"
  top: "norm2"
  lrn_param {
    local_size: 5
    alpha: 0.0001
    beta: 0.75
  }
}
layer {
  name: "pool2"
  type: "Pooling"
  bottom: "norm2"
  top: "pool2"
  pooling_param {
    pool: MAX
    kernel_size: 3
    stride: 2
  }
}
layer {
  name: "conv3"
  type: "Convolution"
  bottom: "pool2"
  top: "conv3"
  param {
    lr_mult: 1
    decay_mult: 1
  }
  param {
    lr_mult: 2
    decay_mult: 0
  }
  convolution_param {
    num_output: 384
    pad: 1
    kernel_size: 3
    weight_filler {
      type: "gaussian"
      std: 0.01
    }
    bias_filler {
      type: "constant"
      value: 0
    }
  }
}
layer {
  name: "relu3"
  type: "ReLU"
  bottom: "conv3"
  top: "conv3"
}
layer {
  name: "conv4"
  type: "Convolution"
  bottom: "conv3"
  top: "conv4"
  param {
    lr_mult: 1
    decay_mult: 1
  }
  param {
    lr_mult: 2
    decay_mult: 0
  }
  convolution_param {
    num_output: 384
    pad: 1
    kernel_size: 3
    group: 2
    weight_filler {
      type: "gaussian"
      std: 0.01
    }
    bias_filler {
      type: "constant"
      value: 0.1
    }
  }
}
layer {
  name: "relu4"
  type: "ReLU"
  bottom: "conv4"
  top: "conv4"
}
layer {
  name: "conv5"
  type: "Convolution"
  bottom: "conv4"
  top: "conv5"
  param {
    lr_mult: 1
    decay_mult: 1
  }
  param {
    lr_mult: 2
    decay_mult: 0
  }
  convolution_param {
    num_output: 256
    pad: 1
    kernel_size: 3
    group: 2
    weight_filler {
      type: "gaussian"
      std: 0.01
    }
    bias_filler {
      type: "constant"
      value: 0.1
    }
  }
}
layer {
  name: "relu5"
  type: "ReLU"
  bottom: "conv5"
  top: "conv5"
}
layer {
  name: "pool5"
  type: "Pooling"
  bottom: "conv5"
  top: "pool5"
  pooling_param {
    pool: MAX
    kernel_size: 3
    stride: 2
  }
}
layer {
  name: "fc6"
  type: "InnerProduct"
  bottom: "pool5"
  top: "fc6"
  param {
    lr_mult: 1
    decay_mult: 1
  }
  param {
    lr_mult: 2
    decay_mult: 0
  }
  inner_product_param {
    num_output: 4096
    weight_filler {
      type: "gaussian"
      std: 0.005
    }
    bias_filler {
      type: "constant"
      value: 0.1
    }
  }
}
layer {
  name: "relu6"
  type: "ReLU"
  bottom: "fc6"
  top: "fc6"
}
layer {
  name: "drop6"
  type: "Dropout"
  bottom: "fc6"
  top: "fc6"
  dropout_param {
    dropout_ratio: 0.5
  }
}
layer {
  name: "fc7"
  type: "InnerProduct"
  bottom: "fc6"
  top: "fc7"
  param {
    lr_mult: 1
    decay_mult: 1
  }
  param {
    lr_mult: 2
    decay_mult: 0
  }
  inner_product_param {
    num_output: 4096
    weight_filler {
      type: "gaussian"
      std: 0.005
    }
    bias_filler {
      type: "constant"
      value: 0.1
    }
  }
}
layer {
  name: "relu7"
  type: "ReLU"
  bottom: "fc7"
  top: "fc7"
}
layer {
  name: "drop7"
  type: "Dropout"
  bottom: "fc7"
  top: "fc7"
  dropout_param {
    dropout_ratio: 0.5
  }
}
layer {
  name: "fc8_plantvillage"
  type: "InnerProduct"
  bottom: "fc7"
  top: "fc8_plantvillage"
  param {
    lr_mult: 1
    decay_mult: 1
  }
  param {
    lr_mult: 2
    decay_mult: 0
  }
  inner_product_param {
    num_output: 38
    weight_filler {
      type: "gaussian"
      std: 0.01
    }
    bias_filler {
      type: "constant"
      value: 0
    }
  }
}
layer {
  name: "prob"
  type: "Softmax"
  bottom: "fc8_plantvillage"
  top: "prob"
  include {
    phase: TEST
  }
}
layer {
  name: "hdf5out"
  type: "HDF5Output"
  bottom: "prob"
  bottom: "label"
  include {
    phase: TEST
  }
  hdf5_output_param {
    file_name: "hdf5_dumps/iter_6589.h5"
  }
}
layer {
  name: "loss"
  type: "SoftmaxWithLoss"
  bottom: "fc8_plantvillage"
  bottom: "label"
  top: "loss"
}
layer {
  name: "accuracy"
  type: "Accuracy"
  bottom: "fc8_plantvillage"
  bottom: "label"
  top: "accuracy"
  include {
    phase: TEST
  }
}
I0403 14:59:00.113171 17909 layer_factory.hpp:77] Creating layer data
I0403 14:59:00.113842 17909 net.cpp:91] Creating Layer data
I0403 14:59:00.113876 17909 net.cpp:399] data -> data
I0403 14:59:00.113926 17909 net.cpp:399] data -> label
I0403 14:59:00.113963 17909 data_transformer.cpp:25] Loading mean file from: /home/mohanty/data/final_dataset/lmdb/grayscale-40-60/mean.binaryproto
I0403 14:59:00.116680 17914 db_lmdb.cpp:38] Opened lmdb /home/mohanty/data/final_dataset/lmdb/grayscale-40-60/test_db
I0403 14:59:00.128691 17909 data_layer.cpp:41] output data size: 100,3,227,227
I0403 14:59:00.250856 17909 net.cpp:141] Setting up data
I0403 14:59:00.250965 17909 net.cpp:148] Top shape: 100 3 227 227 (15458700)
I0403 14:59:00.250988 17909 net.cpp:148] Top shape: 100 (100)
I0403 14:59:00.251003 17909 net.cpp:156] Memory required for data: 61835200
I0403 14:59:00.251036 17909 layer_factory.hpp:77] Creating layer label_data_1_split
I0403 14:59:00.251063 17909 net.cpp:91] Creating Layer label_data_1_split
I0403 14:59:00.251081 17909 net.cpp:425] label_data_1_split <- label
I0403 14:59:00.251113 17909 net.cpp:399] label_data_1_split -> label_data_1_split_0
I0403 14:59:00.251139 17909 net.cpp:399] label_data_1_split -> label_data_1_split_1
I0403 14:59:00.251159 17909 net.cpp:399] label_data_1_split -> label_data_1_split_2
I0403 14:59:00.251221 17909 net.cpp:141] Setting up label_data_1_split
I0403 14:59:00.251245 17909 net.cpp:148] Top shape: 100 (100)
I0403 14:59:00.251261 17909 net.cpp:148] Top shape: 100 (100)
I0403 14:59:00.251277 17909 net.cpp:148] Top shape: 100 (100)
I0403 14:59:00.251291 17909 net.cpp:156] Memory required for data: 61836400
I0403 14:59:00.251305 17909 layer_factory.hpp:77] Creating layer conv1
I0403 14:59:00.251337 17909 net.cpp:91] Creating Layer conv1
I0403 14:59:00.251354 17909 net.cpp:425] conv1 <- data
I0403 14:59:00.251374 17909 net.cpp:399] conv1 -> conv1
I0403 14:59:00.396911 17909 net.cpp:141] Setting up conv1
I0403 14:59:00.397001 17909 net.cpp:148] Top shape: 100 96 55 55 (29040000)
I0403 14:59:00.397023 17909 net.cpp:156] Memory required for data: 177996400
I0403 14:59:00.397055 17909 layer_factory.hpp:77] Creating layer relu1
I0403 14:59:00.397084 17909 net.cpp:91] Creating Layer relu1
I0403 14:59:00.397102 17909 net.cpp:425] relu1 <- conv1
I0403 14:59:00.397121 17909 net.cpp:386] relu1 -> conv1 (in-place)
I0403 14:59:00.397377 17909 net.cpp:141] Setting up relu1
I0403 14:59:00.397405 17909 net.cpp:148] Top shape: 100 96 55 55 (29040000)
I0403 14:59:00.397452 17909 net.cpp:156] Memory required for data: 294156400
I0403 14:59:00.397469 17909 layer_factory.hpp:77] Creating layer norm1
I0403 14:59:00.397496 17909 net.cpp:91] Creating Layer norm1
I0403 14:59:00.397514 17909 net.cpp:425] norm1 <- conv1
I0403 14:59:00.397533 17909 net.cpp:399] norm1 -> norm1
I0403 14:59:00.397861 17909 net.cpp:141] Setting up norm1
I0403 14:59:00.397888 17909 net.cpp:148] Top shape: 100 96 55 55 (29040000)
I0403 14:59:00.397904 17909 net.cpp:156] Memory required for data: 410316400
I0403 14:59:00.397919 17909 layer_factory.hpp:77] Creating layer pool1
I0403 14:59:00.397943 17909 net.cpp:91] Creating Layer pool1
I0403 14:59:00.397964 17909 net.cpp:425] pool1 <- norm1
I0403 14:59:00.397982 17909 net.cpp:399] pool1 -> pool1
I0403 14:59:00.398061 17909 net.cpp:141] Setting up pool1
I0403 14:59:00.398087 17909 net.cpp:148] Top shape: 100 96 27 27 (6998400)
I0403 14:59:00.398102 17909 net.cpp:156] Memory required for data: 438310000
I0403 14:59:00.398116 17909 layer_factory.hpp:77] Creating layer conv2
I0403 14:59:00.398141 17909 net.cpp:91] Creating Layer conv2
I0403 14:59:00.398159 17909 net.cpp:425] conv2 <- pool1
I0403 14:59:00.398176 17909 net.cpp:399] conv2 -> conv2
I0403 14:59:00.413297 17909 net.cpp:141] Setting up conv2
I0403 14:59:00.413333 17909 net.cpp:148] Top shape: 100 256 27 27 (18662400)
I0403 14:59:00.413350 17909 net.cpp:156] Memory required for data: 512959600
I0403 14:59:00.413372 17909 layer_factory.hpp:77] Creating layer relu2
I0403 14:59:00.413393 17909 net.cpp:91] Creating Layer relu2
I0403 14:59:00.413410 17909 net.cpp:425] relu2 <- conv2
I0403 14:59:00.413430 17909 net.cpp:386] relu2 -> conv2 (in-place)
I0403 14:59:00.413733 17909 net.cpp:141] Setting up relu2
I0403 14:59:00.413763 17909 net.cpp:148] Top shape: 100 256 27 27 (18662400)
I0403 14:59:00.413779 17909 net.cpp:156] Memory required for data: 587609200
I0403 14:59:00.413794 17909 layer_factory.hpp:77] Creating layer norm2
I0403 14:59:00.413815 17909 net.cpp:91] Creating Layer norm2
I0403 14:59:00.413832 17909 net.cpp:425] norm2 <- conv2
I0403 14:59:00.413851 17909 net.cpp:399] norm2 -> norm2
I0403 14:59:00.414043 17909 net.cpp:141] Setting up norm2
I0403 14:59:00.414069 17909 net.cpp:148] Top shape: 100 256 27 27 (18662400)
I0403 14:59:00.414085 17909 net.cpp:156] Memory required for data: 662258800
I0403 14:59:00.414109 17909 layer_factory.hpp:77] Creating layer pool2
I0403 14:59:00.414129 17909 net.cpp:91] Creating Layer pool2
I0403 14:59:00.414144 17909 net.cpp:425] pool2 <- norm2
I0403 14:59:00.414162 17909 net.cpp:399] pool2 -> pool2
I0403 14:59:00.414209 17909 net.cpp:141] Setting up pool2
I0403 14:59:00.414232 17909 net.cpp:148] Top shape: 100 256 13 13 (4326400)
I0403 14:59:00.414247 17909 net.cpp:156] Memory required for data: 679564400
I0403 14:59:00.414263 17909 layer_factory.hpp:77] Creating layer conv3
I0403 14:59:00.414283 17909 net.cpp:91] Creating Layer conv3
I0403 14:59:00.414299 17909 net.cpp:425] conv3 <- pool2
I0403 14:59:00.414317 17909 net.cpp:399] conv3 -> conv3
I0403 14:59:00.454182 17909 net.cpp:141] Setting up conv3
I0403 14:59:00.454262 17909 net.cpp:148] Top shape: 100 384 13 13 (6489600)
I0403 14:59:00.454279 17909 net.cpp:156] Memory required for data: 705522800
I0403 14:59:00.454306 17909 layer_factory.hpp:77] Creating layer relu3
I0403 14:59:00.454332 17909 net.cpp:91] Creating Layer relu3
I0403 14:59:00.454351 17909 net.cpp:425] relu3 <- conv3
I0403 14:59:00.454375 17909 net.cpp:386] relu3 -> conv3 (in-place)
I0403 14:59:00.454658 17909 net.cpp:141] Setting up relu3
I0403 14:59:00.454685 17909 net.cpp:148] Top shape: 100 384 13 13 (6489600)
I0403 14:59:00.454701 17909 net.cpp:156] Memory required for data: 731481200
I0403 14:59:00.454717 17909 layer_factory.hpp:77] Creating layer conv4
I0403 14:59:00.454743 17909 net.cpp:91] Creating Layer conv4
I0403 14:59:00.454762 17909 net.cpp:425] conv4 <- conv3
I0403 14:59:00.454784 17909 net.cpp:399] conv4 -> conv4
I0403 14:59:00.485442 17909 net.cpp:141] Setting up conv4
I0403 14:59:00.485503 17909 net.cpp:148] Top shape: 100 384 13 13 (6489600)
I0403 14:59:00.485551 17909 net.cpp:156] Memory required for data: 757439600
I0403 14:59:00.485574 17909 layer_factory.hpp:77] Creating layer relu4
I0403 14:59:00.485594 17909 net.cpp:91] Creating Layer relu4
I0403 14:59:00.485610 17909 net.cpp:425] relu4 <- conv4
I0403 14:59:00.485628 17909 net.cpp:386] relu4 -> conv4 (in-place)
I0403 14:59:00.485947 17909 net.cpp:141] Setting up relu4
I0403 14:59:00.485976 17909 net.cpp:148] Top shape: 100 384 13 13 (6489600)
I0403 14:59:00.485992 17909 net.cpp:156] Memory required for data: 783398000
I0403 14:59:00.486007 17909 layer_factory.hpp:77] Creating layer conv5
I0403 14:59:00.486037 17909 net.cpp:91] Creating Layer conv5
I0403 14:59:00.486055 17909 net.cpp:425] conv5 <- conv4
I0403 14:59:00.486073 17909 net.cpp:399] conv5 -> conv5
I0403 14:59:00.506382 17909 net.cpp:141] Setting up conv5
I0403 14:59:00.506420 17909 net.cpp:148] Top shape: 100 256 13 13 (4326400)
I0403 14:59:00.506438 17909 net.cpp:156] Memory required for data: 800703600
I0403 14:59:00.506463 17909 layer_factory.hpp:77] Creating layer relu5
I0403 14:59:00.506481 17909 net.cpp:91] Creating Layer relu5
I0403 14:59:00.506497 17909 net.cpp:425] relu5 <- conv5
I0403 14:59:00.506517 17909 net.cpp:386] relu5 -> conv5 (in-place)
I0403 14:59:00.506785 17909 net.cpp:141] Setting up relu5
I0403 14:59:00.506810 17909 net.cpp:148] Top shape: 100 256 13 13 (4326400)
I0403 14:59:00.506825 17909 net.cpp:156] Memory required for data: 818009200
I0403 14:59:00.506840 17909 layer_factory.hpp:77] Creating layer pool5
I0403 14:59:00.506865 17909 net.cpp:91] Creating Layer pool5
I0403 14:59:00.506881 17909 net.cpp:425] pool5 <- conv5
I0403 14:59:00.506899 17909 net.cpp:399] pool5 -> pool5
I0403 14:59:00.506971 17909 net.cpp:141] Setting up pool5
I0403 14:59:00.506994 17909 net.cpp:148] Top shape: 100 256 6 6 (921600)
I0403 14:59:00.507009 17909 net.cpp:156] Memory required for data: 821695600
I0403 14:59:00.507030 17909 layer_factory.hpp:77] Creating layer fc6
I0403 14:59:00.507056 17909 net.cpp:91] Creating Layer fc6
I0403 14:59:00.507074 17909 net.cpp:425] fc6 <- pool5
I0403 14:59:00.507096 17909 net.cpp:399] fc6 -> fc6
I0403 14:59:02.057422 17909 net.cpp:141] Setting up fc6
I0403 14:59:02.057466 17909 net.cpp:148] Top shape: 100 4096 (409600)
I0403 14:59:02.057483 17909 net.cpp:156] Memory required for data: 823334000
I0403 14:59:02.057504 17909 layer_factory.hpp:77] Creating layer relu6
I0403 14:59:02.057525 17909 net.cpp:91] Creating Layer relu6
I0403 14:59:02.057543 17909 net.cpp:425] relu6 <- fc6
I0403 14:59:02.057561 17909 net.cpp:386] relu6 -> fc6 (in-place)
I0403 14:59:02.057770 17909 net.cpp:141] Setting up relu6
I0403 14:59:02.057795 17909 net.cpp:148] Top shape: 100 4096 (409600)
I0403 14:59:02.057808 17909 net.cpp:156] Memory required for data: 824972400
I0403 14:59:02.057822 17909 layer_factory.hpp:77] Creating layer drop6
I0403 14:59:02.057840 17909 net.cpp:91] Creating Layer drop6
I0403 14:59:02.057855 17909 net.cpp:425] drop6 <- fc6
I0403 14:59:02.057876 17909 net.cpp:386] drop6 -> fc6 (in-place)
I0403 14:59:02.057926 17909 net.cpp:141] Setting up drop6
I0403 14:59:02.057947 17909 net.cpp:148] Top shape: 100 4096 (409600)
I0403 14:59:02.057962 17909 net.cpp:156] Memory required for data: 826610800
I0403 14:59:02.057976 17909 layer_factory.hpp:77] Creating layer fc7
I0403 14:59:02.057998 17909 net.cpp:91] Creating Layer fc7
I0403 14:59:02.058014 17909 net.cpp:425] fc7 <- fc6
I0403 14:59:02.058048 17909 net.cpp:399] fc7 -> fc7
I0403 14:59:02.741569 17909 net.cpp:141] Setting up fc7
I0403 14:59:02.741647 17909 net.cpp:148] Top shape: 100 4096 (409600)
I0403 14:59:02.741662 17909 net.cpp:156] Memory required for data: 828249200
I0403 14:59:02.741683 17909 layer_factory.hpp:77] Creating layer relu7
I0403 14:59:02.741704 17909 net.cpp:91] Creating Layer relu7
I0403 14:59:02.741721 17909 net.cpp:425] relu7 <- fc7
I0403 14:59:02.741742 17909 net.cpp:386] relu7 -> fc7 (in-place)
I0403 14:59:02.742156 17909 net.cpp:141] Setting up relu7
I0403 14:59:02.742183 17909 net.cpp:148] Top shape: 100 4096 (409600)
I0403 14:59:02.742228 17909 net.cpp:156] Memory required for data: 829887600
I0403 14:59:02.742243 17909 layer_factory.hpp:77] Creating layer drop7
I0403 14:59:02.742261 17909 net.cpp:91] Creating Layer drop7
I0403 14:59:02.742277 17909 net.cpp:425] drop7 <- fc7
I0403 14:59:02.742297 17909 net.cpp:386] drop7 -> fc7 (in-place)
I0403 14:59:02.742341 17909 net.cpp:141] Setting up drop7
I0403 14:59:02.742367 17909 net.cpp:148] Top shape: 100 4096 (409600)
I0403 14:59:02.742383 17909 net.cpp:156] Memory required for data: 831526000
I0403 14:59:02.742398 17909 layer_factory.hpp:77] Creating layer fc8_plantvillage
I0403 14:59:02.742418 17909 net.cpp:91] Creating Layer fc8_plantvillage
I0403 14:59:02.742432 17909 net.cpp:425] fc8_plantvillage <- fc7
I0403 14:59:02.742452 17909 net.cpp:399] fc8_plantvillage -> fc8_plantvillage
I0403 14:59:02.749234 17909 net.cpp:141] Setting up fc8_plantvillage
I0403 14:59:02.749265 17909 net.cpp:148] Top shape: 100 38 (3800)
I0403 14:59:02.749281 17909 net.cpp:156] Memory required for data: 831541200
I0403 14:59:02.749300 17909 layer_factory.hpp:77] Creating layer fc8_plantvillage_fc8_plantvillage_0_split
I0403 14:59:02.749320 17909 net.cpp:91] Creating Layer fc8_plantvillage_fc8_plantvillage_0_split
I0403 14:59:02.749337 17909 net.cpp:425] fc8_plantvillage_fc8_plantvillage_0_split <- fc8_plantvillage
I0403 14:59:02.749357 17909 net.cpp:399] fc8_plantvillage_fc8_plantvillage_0_split -> fc8_plantvillage_fc8_plantvillage_0_split_0
I0403 14:59:02.749378 17909 net.cpp:399] fc8_plantvillage_fc8_plantvillage_0_split -> fc8_plantvillage_fc8_plantvillage_0_split_1
I0403 14:59:02.749398 17909 net.cpp:399] fc8_plantvillage_fc8_plantvillage_0_split -> fc8_plantvillage_fc8_plantvillage_0_split_2
I0403 14:59:02.749480 17909 net.cpp:141] Setting up fc8_plantvillage_fc8_plantvillage_0_split
I0403 14:59:02.749518 17909 net.cpp:148] Top shape: 100 38 (3800)
I0403 14:59:02.749536 17909 net.cpp:148] Top shape: 100 38 (3800)
I0403 14:59:02.749550 17909 net.cpp:148] Top shape: 100 38 (3800)
I0403 14:59:02.749563 17909 net.cpp:156] Memory required for data: 831586800
I0403 14:59:02.749578 17909 layer_factory.hpp:77] Creating layer prob
I0403 14:59:02.749596 17909 net.cpp:91] Creating Layer prob
I0403 14:59:02.749611 17909 net.cpp:425] prob <- fc8_plantvillage_fc8_plantvillage_0_split_0
I0403 14:59:02.749629 17909 net.cpp:399] prob -> prob
I0403 14:59:02.749853 17909 net.cpp:141] Setting up prob
I0403 14:59:02.749878 17909 net.cpp:148] Top shape: 100 38 (3800)
I0403 14:59:02.749893 17909 net.cpp:156] Memory required for data: 831602000
I0403 14:59:02.749908 17909 layer_factory.hpp:77] Creating layer hdf5out
I0403 14:59:02.749927 17909 net.cpp:91] Creating Layer hdf5out
I0403 14:59:02.749941 17909 net.cpp:425] hdf5out <- prob
I0403 14:59:02.749958 17909 net.cpp:425] hdf5out <- label_data_1_split_0
I0403 14:59:02.752241 17909 net.cpp:141] Setting up hdf5out
…
