…
I0403 14:36:11.542475 17217 net.cpp:313] The NetState phase (1) differed from the phase (0) specified by a rule in layer data
I0403 14:36:11.542791 17217 net.cpp:49] Initializing net from parameters: 
state {
  phase: TEST
}
layer {
  name: "data"
  type: "Data"
  top: "data"
  top: "label"
  include {
    phase: TEST
  }
  transform_param {
    crop_size: 227
    mean_file: "/home/mohanty/data/final_dataset/lmdb/grayscale-40-60/mean.binaryproto"
  }
  data_param {
    source: "/home/mohanty/data/final_dataset/lmdb/grayscale-40-60/test_db"
    batch_size: 100
    backend: LMDB
  }
}
layer {
  name: "conv1"
  type: "Convolution"
  bottom: "data"
  top: "conv1"
  param {
    lr_mult: 1
    decay_mult: 1
  }
  param {
    lr_mult: 2
    decay_mult: 0
  }
  convolution_param {
    num_output: 96
    kernel_size: 11
    stride: 4
    weight_filler {
      type: "gaussian"
      std: 0.01
    }
    bias_filler {
      type: "constant"
      value: 0
    }
  }
}
layer {
  name: "relu1"
  type: "ReLU"
  bottom: "conv1"
  top: "conv1"
}
layer {
  name: "norm1"
  type: "LRN"
  bottom: "conv1"
  top: "norm1"
  lrn_param {
    local_size: 5
    alpha: 0.0001
    beta: 0.75
  }
}
layer {
  name: "pool1"
  type: "Pooling"
  bottom: "norm1"
  top: "pool1"
  pooling_param {
    pool: MAX
    kernel_size: 3
    stride: 2
  }
}
layer {
  name: "conv2"
  type: "Convolution"
  bottom: "pool1"
  top: "conv2"
  param {
    lr_mult: 1
    decay_mult: 1
  }
  param {
    lr_mult: 2
    decay_mult: 0
  }
  convolution_param {
    num_output: 256
    pad: 2
    kernel_size: 5
    group: 2
    weight_filler {
      type: "gaussian"
      std: 0.01
    }
    bias_filler {
      type: "constant"
      value: 0.1
    }
  }
}
layer {
  name: "relu2"
  type: "ReLU"
  bottom: "conv2"
  top: "conv2"
}
layer {
  name: "norm2"
  type: "LRN"
  bottom: "conv2"
  top: "norm2"
  lrn_param {
    local_size: 5
    alpha: 0.0001
    beta: 0.75
  }
}
layer {
  name: "pool2"
  type: "Pooling"
  bottom: "norm2"
  top: "pool2"
  pooling_param {
    pool: MAX
    kernel_size: 3
    stride: 2
  }
}
layer {
  name: "conv3"
  type: "Convolution"
  bottom: "pool2"
  top: "conv3"
  param {
    lr_mult: 1
    decay_mult: 1
  }
  param {
    lr_mult: 2
    decay_mult: 0
  }
  convolution_param {
    num_output: 384
    pad: 1
    kernel_size: 3
    weight_filler {
      type: "gaussian"
      std: 0.01
    }
    bias_filler {
      type: "constant"
      value: 0
    }
  }
}
layer {
  name: "relu3"
  type: "ReLU"
  bottom: "conv3"
  top: "conv3"
}
layer {
  name: "conv4"
  type: "Convolution"
  bottom: "conv3"
  top: "conv4"
  param {
    lr_mult: 1
    decay_mult: 1
  }
  param {
    lr_mult: 2
    decay_mult: 0
  }
  convolution_param {
    num_output: 384
    pad: 1
    kernel_size: 3
    group: 2
    weight_filler {
      type: "gaussian"
      std: 0.01
    }
    bias_filler {
      type: "constant"
      value: 0.1
    }
  }
}
layer {
  name: "relu4"
  type: "ReLU"
  bottom: "conv4"
  top: "conv4"
}
layer {
  name: "conv5"
  type: "Convolution"
  bottom: "conv4"
  top: "conv5"
  param {
    lr_mult: 1
    decay_mult: 1
  }
  param {
    lr_mult: 2
    decay_mult: 0
  }
  convolution_param {
    num_output: 256
    pad: 1
    kernel_size: 3
    group: 2
    weight_filler {
      type: "gaussian"
      std: 0.01
    }
    bias_filler {
      type: "constant"
      value: 0.1
    }
  }
}
layer {
  name: "relu5"
  type: "ReLU"
  bottom: "conv5"
  top: "conv5"
}
layer {
  name: "pool5"
  type: "Pooling"
  bottom: "conv5"
  top: "pool5"
  pooling_param {
    pool: MAX
    kernel_size: 3
    stride: 2
  }
}
layer {
  name: "fc6"
  type: "InnerProduct"
  bottom: "pool5"
  top: "fc6"
  param {
    lr_mult: 1
    decay_mult: 1
  }
  param {
    lr_mult: 2
    decay_mult: 0
  }
  inner_product_param {
    num_output: 4096
    weight_filler {
      type: "gaussian"
      std: 0.005
    }
    bias_filler {
      type: "constant"
      value: 0.1
    }
  }
}
layer {
  name: "relu6"
  type: "ReLU"
  bottom: "fc6"
  top: "fc6"
}
layer {
  name: "drop6"
  type: "Dropout"
  bottom: "fc6"
  top: "fc6"
  dropout_param {
    dropout_ratio: 0.5
  }
}
layer {
  name: "fc7"
  type: "InnerProduct"
  bottom: "fc6"
  top: "fc7"
  param {
    lr_mult: 1
    decay_mult: 1
  }
  param {
    lr_mult: 2
    decay_mult: 0
  }
  inner_product_param {
    num_output: 4096
    weight_filler {
      type: "gaussian"
      std: 0.005
    }
    bias_filler {
      type: "constant"
      value: 0.1
    }
  }
}
layer {
  name: "relu7"
  type: "ReLU"
  bottom: "fc7"
  top: "fc7"
}
layer {
  name: "drop7"
  type: "Dropout"
  bottom: "fc7"
  top: "fc7"
  dropout_param {
    dropout_ratio: 0.5
  }
}
layer {
  name: "fc8_plantvillage"
  type: "InnerProduct"
  bottom: "fc7"
  top: "fc8_plantvillage"
  param {
    lr_mult: 1
    decay_mult: 1
  }
  param {
    lr_mult: 2
    decay_mult: 0
  }
  inner_product_param {
    num_output: 38
    weight_filler {
      type: "gaussian"
      std: 0.01
    }
    bias_filler {
      type: "constant"
      value: 0
    }
  }
}
layer {
  name: "prob"
  type: "Softmax"
  bottom: "fc8_plantvillage"
  top: "prob"
  include {
    phase: TEST
  }
}
layer {
  name: "hdf5out"
  type: "HDF5Output"
  bottom: "prob"
  bottom: "label"
  include {
    phase: TEST
  }
  hdf5_output_param {
    file_name: "hdf5_dumps/iter_2190.h5"
  }
}
layer {
  name: "loss"
  type: "SoftmaxWithLoss"
  bottom: "fc8_plantvillage"
  bottom: "label"
  top: "loss"
}
layer {
  name: "accuracy"
  type: "Accuracy"
  bottom: "fc8_plantvillage"
  bottom: "label"
  top: "accuracy"
  include {
    phase: TEST
  }
}
I0403 14:36:11.543406 17217 layer_factory.hpp:77] Creating layer data
I0403 14:36:11.544067 17217 net.cpp:91] Creating Layer data
I0403 14:36:11.544101 17217 net.cpp:399] data -> data
I0403 14:36:11.544152 17217 net.cpp:399] data -> label
I0403 14:36:11.544189 17217 data_transformer.cpp:25] Loading mean file from: /home/mohanty/data/final_dataset/lmdb/grayscale-40-60/mean.binaryproto
I0403 14:36:11.546921 17220 db_lmdb.cpp:38] Opened lmdb /home/mohanty/data/final_dataset/lmdb/grayscale-40-60/test_db
I0403 14:36:11.558853 17217 data_layer.cpp:41] output data size: 100,3,227,227
I0403 14:36:11.679963 17217 net.cpp:141] Setting up data
I0403 14:36:11.680073 17217 net.cpp:148] Top shape: 100 3 227 227 (15458700)
I0403 14:36:11.680099 17217 net.cpp:148] Top shape: 100 (100)
I0403 14:36:11.680117 17217 net.cpp:156] Memory required for data: 61835200
I0403 14:36:11.680146 17217 layer_factory.hpp:77] Creating layer label_data_1_split
I0403 14:36:11.680172 17217 net.cpp:91] Creating Layer label_data_1_split
I0403 14:36:11.680192 17217 net.cpp:425] label_data_1_split <- label
I0403 14:36:11.680228 17217 net.cpp:399] label_data_1_split -> label_data_1_split_0
I0403 14:36:11.680256 17217 net.cpp:399] label_data_1_split -> label_data_1_split_1
I0403 14:36:11.680277 17217 net.cpp:399] label_data_1_split -> label_data_1_split_2
I0403 14:36:11.680342 17217 net.cpp:141] Setting up label_data_1_split
I0403 14:36:11.680366 17217 net.cpp:148] Top shape: 100 (100)
I0403 14:36:11.680384 17217 net.cpp:148] Top shape: 100 (100)
I0403 14:36:11.680402 17217 net.cpp:148] Top shape: 100 (100)
I0403 14:36:11.680415 17217 net.cpp:156] Memory required for data: 61836400
I0403 14:36:11.680431 17217 layer_factory.hpp:77] Creating layer conv1
I0403 14:36:11.680475 17217 net.cpp:91] Creating Layer conv1
I0403 14:36:11.680495 17217 net.cpp:425] conv1 <- data
I0403 14:36:11.680516 17217 net.cpp:399] conv1 -> conv1
I0403 14:36:11.824800 17217 net.cpp:141] Setting up conv1
I0403 14:36:11.824870 17217 net.cpp:148] Top shape: 100 96 55 55 (29040000)
I0403 14:36:11.824887 17217 net.cpp:156] Memory required for data: 177996400
I0403 14:36:11.824918 17217 layer_factory.hpp:77] Creating layer relu1
I0403 14:36:11.824946 17217 net.cpp:91] Creating Layer relu1
I0403 14:36:11.824965 17217 net.cpp:425] relu1 <- conv1
I0403 14:36:11.824985 17217 net.cpp:386] relu1 -> conv1 (in-place)
I0403 14:36:11.825299 17217 net.cpp:141] Setting up relu1
I0403 14:36:11.825327 17217 net.cpp:148] Top shape: 100 96 55 55 (29040000)
I0403 14:36:11.825378 17217 net.cpp:156] Memory required for data: 294156400
I0403 14:36:11.825397 17217 layer_factory.hpp:77] Creating layer norm1
I0403 14:36:11.825429 17217 net.cpp:91] Creating Layer norm1
I0403 14:36:11.825451 17217 net.cpp:425] norm1 <- conv1
I0403 14:36:11.825472 17217 net.cpp:399] norm1 -> norm1
I0403 14:36:11.825834 17217 net.cpp:141] Setting up norm1
I0403 14:36:11.825863 17217 net.cpp:148] Top shape: 100 96 55 55 (29040000)
I0403 14:36:11.825881 17217 net.cpp:156] Memory required for data: 410316400
I0403 14:36:11.825897 17217 layer_factory.hpp:77] Creating layer pool1
I0403 14:36:11.825929 17217 net.cpp:91] Creating Layer pool1
I0403 14:36:11.825948 17217 net.cpp:425] pool1 <- norm1
I0403 14:36:11.825966 17217 net.cpp:399] pool1 -> pool1
I0403 14:36:11.826043 17217 net.cpp:141] Setting up pool1
I0403 14:36:11.826076 17217 net.cpp:148] Top shape: 100 96 27 27 (6998400)
I0403 14:36:11.826092 17217 net.cpp:156] Memory required for data: 438310000
I0403 14:36:11.826108 17217 layer_factory.hpp:77] Creating layer conv2
I0403 14:36:11.826136 17217 net.cpp:91] Creating Layer conv2
I0403 14:36:11.826156 17217 net.cpp:425] conv2 <- pool1
I0403 14:36:11.826179 17217 net.cpp:399] conv2 -> conv2
I0403 14:36:11.842010 17217 net.cpp:141] Setting up conv2
I0403 14:36:11.842079 17217 net.cpp:148] Top shape: 100 256 27 27 (18662400)
I0403 14:36:11.842097 17217 net.cpp:156] Memory required for data: 512959600
I0403 14:36:11.842124 17217 layer_factory.hpp:77] Creating layer relu2
I0403 14:36:11.842147 17217 net.cpp:91] Creating Layer relu2
I0403 14:36:11.842165 17217 net.cpp:425] relu2 <- conv2
I0403 14:36:11.842186 17217 net.cpp:386] relu2 -> conv2 (in-place)
I0403 14:36:11.842515 17217 net.cpp:141] Setting up relu2
I0403 14:36:11.842553 17217 net.cpp:148] Top shape: 100 256 27 27 (18662400)
I0403 14:36:11.842571 17217 net.cpp:156] Memory required for data: 587609200
I0403 14:36:11.842587 17217 layer_factory.hpp:77] Creating layer norm2
I0403 14:36:11.842610 17217 net.cpp:91] Creating Layer norm2
I0403 14:36:11.842628 17217 net.cpp:425] norm2 <- conv2
I0403 14:36:11.842650 17217 net.cpp:399] norm2 -> norm2
I0403 14:36:11.842865 17217 net.cpp:141] Setting up norm2
I0403 14:36:11.842895 17217 net.cpp:148] Top shape: 100 256 27 27 (18662400)
I0403 14:36:11.842911 17217 net.cpp:156] Memory required for data: 662258800
I0403 14:36:11.842927 17217 layer_factory.hpp:77] Creating layer pool2
I0403 14:36:11.842949 17217 net.cpp:91] Creating Layer pool2
I0403 14:36:11.842967 17217 net.cpp:425] pool2 <- norm2
I0403 14:36:11.842985 17217 net.cpp:399] pool2 -> pool2
I0403 14:36:11.843044 17217 net.cpp:141] Setting up pool2
I0403 14:36:11.843073 17217 net.cpp:148] Top shape: 100 256 13 13 (4326400)
I0403 14:36:11.843089 17217 net.cpp:156] Memory required for data: 679564400
I0403 14:36:11.843106 17217 layer_factory.hpp:77] Creating layer conv3
I0403 14:36:11.843129 17217 net.cpp:91] Creating Layer conv3
I0403 14:36:11.843147 17217 net.cpp:425] conv3 <- pool2
I0403 14:36:11.843169 17217 net.cpp:399] conv3 -> conv3
I0403 14:36:11.883994 17217 net.cpp:141] Setting up conv3
I0403 14:36:11.884096 17217 net.cpp:148] Top shape: 100 384 13 13 (6489600)
I0403 14:36:11.884126 17217 net.cpp:156] Memory required for data: 705522800
I0403 14:36:11.884166 17217 layer_factory.hpp:77] Creating layer relu3
I0403 14:36:11.884193 17217 net.cpp:91] Creating Layer relu3
I0403 14:36:11.884213 17217 net.cpp:425] relu3 <- conv3
I0403 14:36:11.884234 17217 net.cpp:386] relu3 -> conv3 (in-place)
I0403 14:36:11.884518 17217 net.cpp:141] Setting up relu3
I0403 14:36:11.884551 17217 net.cpp:148] Top shape: 100 384 13 13 (6489600)
I0403 14:36:11.884572 17217 net.cpp:156] Memory required for data: 731481200
I0403 14:36:11.884589 17217 layer_factory.hpp:77] Creating layer conv4
I0403 14:36:11.884618 17217 net.cpp:91] Creating Layer conv4
I0403 14:36:11.884641 17217 net.cpp:425] conv4 <- conv3
I0403 14:36:11.884663 17217 net.cpp:399] conv4 -> conv4
I0403 14:36:11.916220 17217 net.cpp:141] Setting up conv4
I0403 14:36:11.916307 17217 net.cpp:148] Top shape: 100 384 13 13 (6489600)
I0403 14:36:11.916358 17217 net.cpp:156] Memory required for data: 757439600
I0403 14:36:11.916383 17217 layer_factory.hpp:77] Creating layer relu4
I0403 14:36:11.916406 17217 net.cpp:91] Creating Layer relu4
I0403 14:36:11.916425 17217 net.cpp:425] relu4 <- conv4
I0403 14:36:11.916447 17217 net.cpp:386] relu4 -> conv4 (in-place)
I0403 14:36:11.916740 17217 net.cpp:141] Setting up relu4
I0403 14:36:11.916769 17217 net.cpp:148] Top shape: 100 384 13 13 (6489600)
I0403 14:36:11.916786 17217 net.cpp:156] Memory required for data: 783398000
I0403 14:36:11.916802 17217 layer_factory.hpp:77] Creating layer conv5
I0403 14:36:11.916831 17217 net.cpp:91] Creating Layer conv5
I0403 14:36:11.916848 17217 net.cpp:425] conv5 <- conv4
I0403 14:36:11.916872 17217 net.cpp:399] conv5 -> conv5
I0403 14:36:11.938645 17217 net.cpp:141] Setting up conv5
I0403 14:36:11.938714 17217 net.cpp:148] Top shape: 100 256 13 13 (4326400)
I0403 14:36:11.938733 17217 net.cpp:156] Memory required for data: 800703600
I0403 14:36:11.938765 17217 layer_factory.hpp:77] Creating layer relu5
I0403 14:36:11.938789 17217 net.cpp:91] Creating Layer relu5
I0403 14:36:11.938810 17217 net.cpp:425] relu5 <- conv5
I0403 14:36:11.938830 17217 net.cpp:386] relu5 -> conv5 (in-place)
I0403 14:36:11.939131 17217 net.cpp:141] Setting up relu5
I0403 14:36:11.939159 17217 net.cpp:148] Top shape: 100 256 13 13 (4326400)
I0403 14:36:11.939175 17217 net.cpp:156] Memory required for data: 818009200
I0403 14:36:11.939191 17217 layer_factory.hpp:77] Creating layer pool5
I0403 14:36:11.939218 17217 net.cpp:91] Creating Layer pool5
I0403 14:36:11.939235 17217 net.cpp:425] pool5 <- conv5
I0403 14:36:11.939255 17217 net.cpp:399] pool5 -> pool5
I0403 14:36:11.939321 17217 net.cpp:141] Setting up pool5
I0403 14:36:11.939345 17217 net.cpp:148] Top shape: 100 256 6 6 (921600)
I0403 14:36:11.939362 17217 net.cpp:156] Memory required for data: 821695600
I0403 14:36:11.939378 17217 layer_factory.hpp:77] Creating layer fc6
I0403 14:36:11.939407 17217 net.cpp:91] Creating Layer fc6
I0403 14:36:11.939426 17217 net.cpp:425] fc6 <- pool5
I0403 14:36:11.939446 17217 net.cpp:399] fc6 -> fc6
I0403 14:36:13.506288 17217 net.cpp:141] Setting up fc6
I0403 14:36:13.506378 17217 net.cpp:148] Top shape: 100 4096 (409600)
I0403 14:36:13.506395 17217 net.cpp:156] Memory required for data: 823334000
I0403 14:36:13.506417 17217 layer_factory.hpp:77] Creating layer relu6
I0403 14:36:13.506439 17217 net.cpp:91] Creating Layer relu6
I0403 14:36:13.506469 17217 net.cpp:425] relu6 <- fc6
I0403 14:36:13.506492 17217 net.cpp:386] relu6 -> fc6 (in-place)
I0403 14:36:13.506707 17217 net.cpp:141] Setting up relu6
I0403 14:36:13.506731 17217 net.cpp:148] Top shape: 100 4096 (409600)
I0403 14:36:13.506747 17217 net.cpp:156] Memory required for data: 824972400
I0403 14:36:13.506760 17217 layer_factory.hpp:77] Creating layer drop6
I0403 14:36:13.506780 17217 net.cpp:91] Creating Layer drop6
I0403 14:36:13.506796 17217 net.cpp:425] drop6 <- fc6
I0403 14:36:13.506813 17217 net.cpp:386] drop6 -> fc6 (in-place)
I0403 14:36:13.506866 17217 net.cpp:141] Setting up drop6
I0403 14:36:13.506889 17217 net.cpp:148] Top shape: 100 4096 (409600)
I0403 14:36:13.506903 17217 net.cpp:156] Memory required for data: 826610800
I0403 14:36:13.506918 17217 layer_factory.hpp:77] Creating layer fc7
I0403 14:36:13.506937 17217 net.cpp:91] Creating Layer fc7
I0403 14:36:13.506952 17217 net.cpp:425] fc7 <- fc6
I0403 14:36:13.506973 17217 net.cpp:399] fc7 -> fc7
I0403 14:36:14.191668 17217 net.cpp:141] Setting up fc7
I0403 14:36:14.191758 17217 net.cpp:148] Top shape: 100 4096 (409600)
I0403 14:36:14.191774 17217 net.cpp:156] Memory required for data: 828249200
I0403 14:36:14.191795 17217 layer_factory.hpp:77] Creating layer relu7
I0403 14:36:14.191820 17217 net.cpp:91] Creating Layer relu7
I0403 14:36:14.191838 17217 net.cpp:425] relu7 <- fc7
I0403 14:36:14.191859 17217 net.cpp:386] relu7 -> fc7 (in-place)
I0403 14:36:14.192276 17217 net.cpp:141] Setting up relu7
I0403 14:36:14.192302 17217 net.cpp:148] Top shape: 100 4096 (409600)
I0403 14:36:14.192349 17217 net.cpp:156] Memory required for data: 829887600
I0403 14:36:14.192366 17217 layer_factory.hpp:77] Creating layer drop7
I0403 14:36:14.192385 17217 net.cpp:91] Creating Layer drop7
I0403 14:36:14.192400 17217 net.cpp:425] drop7 <- fc7
I0403 14:36:14.192420 17217 net.cpp:386] drop7 -> fc7 (in-place)
I0403 14:36:14.192467 17217 net.cpp:141] Setting up drop7
I0403 14:36:14.192490 17217 net.cpp:148] Top shape: 100 4096 (409600)
I0403 14:36:14.192505 17217 net.cpp:156] Memory required for data: 831526000
I0403 14:36:14.192520 17217 layer_factory.hpp:77] Creating layer fc8_plantvillage
I0403 14:36:14.192540 17217 net.cpp:91] Creating Layer fc8_plantvillage
I0403 14:36:14.192555 17217 net.cpp:425] fc8_plantvillage <- fc7
I0403 14:36:14.192577 17217 net.cpp:399] fc8_plantvillage -> fc8_plantvillage
I0403 14:36:14.199321 17217 net.cpp:141] Setting up fc8_plantvillage
I0403 14:36:14.199352 17217 net.cpp:148] Top shape: 100 38 (3800)
I0403 14:36:14.199369 17217 net.cpp:156] Memory required for data: 831541200
I0403 14:36:14.199388 17217 layer_factory.hpp:77] Creating layer fc8_plantvillage_fc8_plantvillage_0_split
I0403 14:36:14.199406 17217 net.cpp:91] Creating Layer fc8_plantvillage_fc8_plantvillage_0_split
I0403 14:36:14.199422 17217 net.cpp:425] fc8_plantvillage_fc8_plantvillage_0_split <- fc8_plantvillage
I0403 14:36:14.199440 17217 net.cpp:399] fc8_plantvillage_fc8_plantvillage_0_split -> fc8_plantvillage_fc8_plantvillage_0_split_0
I0403 14:36:14.199460 17217 net.cpp:399] fc8_plantvillage_fc8_plantvillage_0_split -> fc8_plantvillage_fc8_plantvillage_0_split_1
I0403 14:36:14.199481 17217 net.cpp:399] fc8_plantvillage_fc8_plantvillage_0_split -> fc8_plantvillage_fc8_plantvillage_0_split_2
I0403 14:36:14.199568 17217 net.cpp:141] Setting up fc8_plantvillage_fc8_plantvillage_0_split
I0403 14:36:14.199591 17217 net.cpp:148] Top shape: 100 38 (3800)
I0403 14:36:14.199609 17217 net.cpp:148] Top shape: 100 38 (3800)
I0403 14:36:14.199625 17217 net.cpp:148] Top shape: 100 38 (3800)
I0403 14:36:14.199640 17217 net.cpp:156] Memory required for data: 831586800
I0403 14:36:14.199653 17217 layer_factory.hpp:77] Creating layer prob
I0403 14:36:14.199672 17217 net.cpp:91] Creating Layer prob
I0403 14:36:14.199688 17217 net.cpp:425] prob <- fc8_plantvillage_fc8_plantvillage_0_split_0
I0403 14:36:14.199707 17217 net.cpp:399] prob -> prob
I0403 14:36:14.199934 17217 net.cpp:141] Setting up prob
I0403 14:36:14.199959 17217 net.cpp:148] Top shape: 100 38 (3800)
I0403 14:36:14.199975 17217 net.cpp:156] Memory required for data: 831602000
I0403 14:36:14.199990 17217 layer_factory.hpp:77] Creating layer hdf5out
I0403 14:36:14.200011 17217 net.cpp:91] Creating Layer hdf5out
I0403 14:36:14.200028 17217 net.cpp:425] hdf5out <- prob
I0403 14:36:14.200045 17217 net.cpp:425] hdf5out <- label_data_1_split_0
I0403 14:36:14.202435 17217 net.cpp:141] Setting up hdf5out
…
