…
I0403 14:27:27.384855 16967 net.cpp:313] The NetState phase (1) differed from the phase (0) specified by a rule in layer data
I0403 14:27:27.385184 16967 net.cpp:49] Initializing net from parameters: 
state {
  phase: TEST
}
layer {
  name: "data"
  type: "Data"
  top: "data"
  top: "label"
  include {
    phase: TEST
  }
  transform_param {
    crop_size: 227
    mean_file: "/home/mohanty/data/final_dataset/lmdb/grayscale-40-60/mean.binaryproto"
  }
  data_param {
    source: "/home/mohanty/data/final_dataset/lmdb/grayscale-40-60/test_db"
    batch_size: 100
    backend: LMDB
  }
}
layer {
  name: "conv1"
  type: "Convolution"
  bottom: "data"
  top: "conv1"
  param {
    lr_mult: 1
    decay_mult: 1
  }
  param {
    lr_mult: 2
    decay_mult: 0
  }
  convolution_param {
    num_output: 96
    kernel_size: 11
    stride: 4
    weight_filler {
      type: "gaussian"
      std: 0.01
    }
    bias_filler {
      type: "constant"
      value: 0
    }
  }
}
layer {
  name: "relu1"
  type: "ReLU"
  bottom: "conv1"
  top: "conv1"
}
layer {
  name: "norm1"
  type: "LRN"
  bottom: "conv1"
  top: "norm1"
  lrn_param {
    local_size: 5
    alpha: 0.0001
    beta: 0.75
  }
}
layer {
  name: "pool1"
  type: "Pooling"
  bottom: "norm1"
  top: "pool1"
  pooling_param {
    pool: MAX
    kernel_size: 3
    stride: 2
  }
}
layer {
  name: "conv2"
  type: "Convolution"
  bottom: "pool1"
  top: "conv2"
  param {
    lr_mult: 1
    decay_mult: 1
  }
  param {
    lr_mult: 2
    decay_mult: 0
  }
  convolution_param {
    num_output: 256
    pad: 2
    kernel_size: 5
    group: 2
    weight_filler {
      type: "gaussian"
      std: 0.01
    }
    bias_filler {
      type: "constant"
      value: 0.1
    }
  }
}
layer {
  name: "relu2"
  type: "ReLU"
  bottom: "conv2"
  top: "conv2"
}
layer {
  name: "norm2"
  type: "LRN"
  bottom: "conv2"
  top: "norm2"
  lrn_param {
    local_size: 5
    alpha: 0.0001
    beta: 0.75
  }
}
layer {
  name: "pool2"
  type: "Pooling"
  bottom: "norm2"
  top: "pool2"
  pooling_param {
    pool: MAX
    kernel_size: 3
    stride: 2
  }
}
layer {
  name: "conv3"
  type: "Convolution"
  bottom: "pool2"
  top: "conv3"
  param {
    lr_mult: 1
    decay_mult: 1
  }
  param {
    lr_mult: 2
    decay_mult: 0
  }
  convolution_param {
    num_output: 384
    pad: 1
    kernel_size: 3
    weight_filler {
      type: "gaussian"
      std: 0.01
    }
    bias_filler {
      type: "constant"
      value: 0
    }
  }
}
layer {
  name: "relu3"
  type: "ReLU"
  bottom: "conv3"
  top: "conv3"
}
layer {
  name: "conv4"
  type: "Convolution"
  bottom: "conv3"
  top: "conv4"
  param {
    lr_mult: 1
    decay_mult: 1
  }
  param {
    lr_mult: 2
    decay_mult: 0
  }
  convolution_param {
    num_output: 384
    pad: 1
    kernel_size: 3
    group: 2
    weight_filler {
      type: "gaussian"
      std: 0.01
    }
    bias_filler {
      type: "constant"
      value: 0.1
    }
  }
}
layer {
  name: "relu4"
  type: "ReLU"
  bottom: "conv4"
  top: "conv4"
}
layer {
  name: "conv5"
  type: "Convolution"
  bottom: "conv4"
  top: "conv5"
  param {
    lr_mult: 1
    decay_mult: 1
  }
  param {
    lr_mult: 2
    decay_mult: 0
  }
  convolution_param {
    num_output: 256
    pad: 1
    kernel_size: 3
    group: 2
    weight_filler {
      type: "gaussian"
      std: 0.01
    }
    bias_filler {
      type: "constant"
      value: 0.1
    }
  }
}
layer {
  name: "relu5"
  type: "ReLU"
  bottom: "conv5"
  top: "conv5"
}
layer {
  name: "pool5"
  type: "Pooling"
  bottom: "conv5"
  top: "pool5"
  pooling_param {
    pool: MAX
    kernel_size: 3
    stride: 2
  }
}
layer {
  name: "fc6"
  type: "InnerProduct"
  bottom: "pool5"
  top: "fc6"
  param {
    lr_mult: 1
    decay_mult: 1
  }
  param {
    lr_mult: 2
    decay_mult: 0
  }
  inner_product_param {
    num_output: 4096
    weight_filler {
      type: "gaussian"
      std: 0.005
    }
    bias_filler {
      type: "constant"
      value: 0.1
    }
  }
}
layer {
  name: "relu6"
  type: "ReLU"
  bottom: "fc6"
  top: "fc6"
}
layer {
  name: "drop6"
  type: "Dropout"
  bottom: "fc6"
  top: "fc6"
  dropout_param {
    dropout_ratio: 0.5
  }
}
layer {
  name: "fc7"
  type: "InnerProduct"
  bottom: "fc6"
  top: "fc7"
  param {
    lr_mult: 1
    decay_mult: 1
  }
  param {
    lr_mult: 2
    decay_mult: 0
  }
  inner_product_param {
    num_output: 4096
    weight_filler {
      type: "gaussian"
      std: 0.005
    }
    bias_filler {
      type: "constant"
      value: 0.1
    }
  }
}
layer {
  name: "relu7"
  type: "ReLU"
  bottom: "fc7"
  top: "fc7"
}
layer {
  name: "drop7"
  type: "Dropout"
  bottom: "fc7"
  top: "fc7"
  dropout_param {
    dropout_ratio: 0.5
  }
}
layer {
  name: "fc8_plantvillage"
  type: "InnerProduct"
  bottom: "fc7"
  top: "fc8_plantvillage"
  param {
    lr_mult: 1
    decay_mult: 1
  }
  param {
    lr_mult: 2
    decay_mult: 0
  }
  inner_product_param {
    num_output: 38
    weight_filler {
      type: "gaussian"
      std: 0.01
    }
    bias_filler {
      type: "constant"
      value: 0
    }
  }
}
layer {
  name: "prob"
  type: "Softmax"
  bottom: "fc8_plantvillage"
  top: "prob"
  include {
    phase: TEST
  }
}
layer {
  name: "hdf5out"
  type: "HDF5Output"
  bottom: "prob"
  bottom: "label"
  include {
    phase: TEST
  }
  hdf5_output_param {
    file_name: "hdf5_dumps/iter_438.h5"
  }
}
layer {
  name: "loss"
  type: "SoftmaxWithLoss"
  bottom: "fc8_plantvillage"
  bottom: "label"
  top: "loss"
}
layer {
  name: "accuracy"
  type: "Accuracy"
  bottom: "fc8_plantvillage"
  bottom: "label"
  top: "accuracy"
  include {
    phase: TEST
  }
}
I0403 14:27:27.385710 16967 layer_factory.hpp:77] Creating layer data
I0403 14:27:27.386389 16967 net.cpp:91] Creating Layer data
I0403 14:27:27.386423 16967 net.cpp:399] data -> data
I0403 14:27:27.386474 16967 net.cpp:399] data -> label
I0403 14:27:27.386510 16967 data_transformer.cpp:25] Loading mean file from: /home/mohanty/data/final_dataset/lmdb/grayscale-40-60/mean.binaryproto
I0403 14:27:27.395136 16972 db_lmdb.cpp:38] Opened lmdb /home/mohanty/data/final_dataset/lmdb/grayscale-40-60/test_db
I0403 14:27:27.405447 16967 data_layer.cpp:41] output data size: 100,3,227,227
I0403 14:27:27.525974 16967 net.cpp:141] Setting up data
I0403 14:27:27.526098 16967 net.cpp:148] Top shape: 100 3 227 227 (15458700)
I0403 14:27:27.526123 16967 net.cpp:148] Top shape: 100 (100)
I0403 14:27:27.526139 16967 net.cpp:156] Memory required for data: 61835200
I0403 14:27:27.526166 16967 layer_factory.hpp:77] Creating layer label_data_1_split
I0403 14:27:27.526191 16967 net.cpp:91] Creating Layer label_data_1_split
I0403 14:27:27.526209 16967 net.cpp:425] label_data_1_split <- label
I0403 14:27:27.526242 16967 net.cpp:399] label_data_1_split -> label_data_1_split_0
I0403 14:27:27.526268 16967 net.cpp:399] label_data_1_split -> label_data_1_split_1
I0403 14:27:27.526289 16967 net.cpp:399] label_data_1_split -> label_data_1_split_2
I0403 14:27:27.526363 16967 net.cpp:141] Setting up label_data_1_split
I0403 14:27:27.526386 16967 net.cpp:148] Top shape: 100 (100)
I0403 14:27:27.526402 16967 net.cpp:148] Top shape: 100 (100)
I0403 14:27:27.526419 16967 net.cpp:148] Top shape: 100 (100)
I0403 14:27:27.526433 16967 net.cpp:156] Memory required for data: 61836400
I0403 14:27:27.526448 16967 layer_factory.hpp:77] Creating layer conv1
I0403 14:27:27.526479 16967 net.cpp:91] Creating Layer conv1
I0403 14:27:27.526497 16967 net.cpp:425] conv1 <- data
I0403 14:27:27.526516 16967 net.cpp:399] conv1 -> conv1
I0403 14:27:27.669780 16967 net.cpp:141] Setting up conv1
I0403 14:27:27.669869 16967 net.cpp:148] Top shape: 100 96 55 55 (29040000)
I0403 14:27:27.669886 16967 net.cpp:156] Memory required for data: 177996400
I0403 14:27:27.669917 16967 layer_factory.hpp:77] Creating layer relu1
I0403 14:27:27.669945 16967 net.cpp:91] Creating Layer relu1
I0403 14:27:27.669963 16967 net.cpp:425] relu1 <- conv1
I0403 14:27:27.669983 16967 net.cpp:386] relu1 -> conv1 (in-place)
I0403 14:27:27.670248 16967 net.cpp:141] Setting up relu1
I0403 14:27:27.670274 16967 net.cpp:148] Top shape: 100 96 55 55 (29040000)
I0403 14:27:27.670315 16967 net.cpp:156] Memory required for data: 294156400
I0403 14:27:27.670331 16967 layer_factory.hpp:77] Creating layer norm1
I0403 14:27:27.670361 16967 net.cpp:91] Creating Layer norm1
I0403 14:27:27.670380 16967 net.cpp:425] norm1 <- conv1
I0403 14:27:27.670398 16967 net.cpp:399] norm1 -> norm1
I0403 14:27:27.670701 16967 net.cpp:141] Setting up norm1
I0403 14:27:27.670728 16967 net.cpp:148] Top shape: 100 96 55 55 (29040000)
I0403 14:27:27.670743 16967 net.cpp:156] Memory required for data: 410316400
I0403 14:27:27.670758 16967 layer_factory.hpp:77] Creating layer pool1
I0403 14:27:27.670780 16967 net.cpp:91] Creating Layer pool1
I0403 14:27:27.670797 16967 net.cpp:425] pool1 <- norm1
I0403 14:27:27.670814 16967 net.cpp:399] pool1 -> pool1
I0403 14:27:27.670878 16967 net.cpp:141] Setting up pool1
I0403 14:27:27.670902 16967 net.cpp:148] Top shape: 100 96 27 27 (6998400)
I0403 14:27:27.670917 16967 net.cpp:156] Memory required for data: 438310000
I0403 14:27:27.670931 16967 layer_factory.hpp:77] Creating layer conv2
I0403 14:27:27.670954 16967 net.cpp:91] Creating Layer conv2
I0403 14:27:27.670970 16967 net.cpp:425] conv2 <- pool1
I0403 14:27:27.670989 16967 net.cpp:399] conv2 -> conv2
I0403 14:27:27.685770 16967 net.cpp:141] Setting up conv2
I0403 14:27:27.685813 16967 net.cpp:148] Top shape: 100 256 27 27 (18662400)
I0403 14:27:27.685829 16967 net.cpp:156] Memory required for data: 512959600
I0403 14:27:27.685852 16967 layer_factory.hpp:77] Creating layer relu2
I0403 14:27:27.685871 16967 net.cpp:91] Creating Layer relu2
I0403 14:27:27.685886 16967 net.cpp:425] relu2 <- conv2
I0403 14:27:27.685904 16967 net.cpp:386] relu2 -> conv2 (in-place)
I0403 14:27:27.686182 16967 net.cpp:141] Setting up relu2
I0403 14:27:27.686209 16967 net.cpp:148] Top shape: 100 256 27 27 (18662400)
I0403 14:27:27.686224 16967 net.cpp:156] Memory required for data: 587609200
I0403 14:27:27.686239 16967 layer_factory.hpp:77] Creating layer norm2
I0403 14:27:27.686259 16967 net.cpp:91] Creating Layer norm2
I0403 14:27:27.686276 16967 net.cpp:425] norm2 <- conv2
I0403 14:27:27.686295 16967 net.cpp:399] norm2 -> norm2
I0403 14:27:27.686485 16967 net.cpp:141] Setting up norm2
I0403 14:27:27.686511 16967 net.cpp:148] Top shape: 100 256 27 27 (18662400)
I0403 14:27:27.686525 16967 net.cpp:156] Memory required for data: 662258800
I0403 14:27:27.686539 16967 layer_factory.hpp:77] Creating layer pool2
I0403 14:27:27.686558 16967 net.cpp:91] Creating Layer pool2
I0403 14:27:27.686573 16967 net.cpp:425] pool2 <- norm2
I0403 14:27:27.686592 16967 net.cpp:399] pool2 -> pool2
I0403 14:27:27.686646 16967 net.cpp:141] Setting up pool2
I0403 14:27:27.686669 16967 net.cpp:148] Top shape: 100 256 13 13 (4326400)
I0403 14:27:27.686684 16967 net.cpp:156] Memory required for data: 679564400
I0403 14:27:27.686698 16967 layer_factory.hpp:77] Creating layer conv3
I0403 14:27:27.686723 16967 net.cpp:91] Creating Layer conv3
I0403 14:27:27.686740 16967 net.cpp:425] conv3 <- pool2
I0403 14:27:27.686758 16967 net.cpp:399] conv3 -> conv3
I0403 14:27:27.729041 16967 net.cpp:141] Setting up conv3
I0403 14:27:27.729132 16967 net.cpp:148] Top shape: 100 384 13 13 (6489600)
I0403 14:27:27.729149 16967 net.cpp:156] Memory required for data: 705522800
I0403 14:27:27.729176 16967 layer_factory.hpp:77] Creating layer relu3
I0403 14:27:27.729199 16967 net.cpp:91] Creating Layer relu3
I0403 14:27:27.729218 16967 net.cpp:425] relu3 <- conv3
I0403 14:27:27.729238 16967 net.cpp:386] relu3 -> conv3 (in-place)
I0403 14:27:27.729521 16967 net.cpp:141] Setting up relu3
I0403 14:27:27.729548 16967 net.cpp:148] Top shape: 100 384 13 13 (6489600)
I0403 14:27:27.729563 16967 net.cpp:156] Memory required for data: 731481200
I0403 14:27:27.729578 16967 layer_factory.hpp:77] Creating layer conv4
I0403 14:27:27.729604 16967 net.cpp:91] Creating Layer conv4
I0403 14:27:27.729622 16967 net.cpp:425] conv4 <- conv3
I0403 14:27:27.729643 16967 net.cpp:399] conv4 -> conv4
I0403 14:27:27.759789 16967 net.cpp:141] Setting up conv4
I0403 14:27:27.759871 16967 net.cpp:148] Top shape: 100 384 13 13 (6489600)
I0403 14:27:27.759923 16967 net.cpp:156] Memory required for data: 757439600
I0403 14:27:27.759945 16967 layer_factory.hpp:77] Creating layer relu4
I0403 14:27:27.759979 16967 net.cpp:91] Creating Layer relu4
I0403 14:27:27.759996 16967 net.cpp:425] relu4 <- conv4
I0403 14:27:27.760020 16967 net.cpp:386] relu4 -> conv4 (in-place)
I0403 14:27:27.760329 16967 net.cpp:141] Setting up relu4
I0403 14:27:27.760362 16967 net.cpp:148] Top shape: 100 384 13 13 (6489600)
I0403 14:27:27.760380 16967 net.cpp:156] Memory required for data: 783398000
I0403 14:27:27.760396 16967 layer_factory.hpp:77] Creating layer conv5
I0403 14:27:27.760421 16967 net.cpp:91] Creating Layer conv5
I0403 14:27:27.760439 16967 net.cpp:425] conv5 <- conv4
I0403 14:27:27.760458 16967 net.cpp:399] conv5 -> conv5
I0403 14:27:27.781297 16967 net.cpp:141] Setting up conv5
I0403 14:27:27.781358 16967 net.cpp:148] Top shape: 100 256 13 13 (4326400)
I0403 14:27:27.781374 16967 net.cpp:156] Memory required for data: 800703600
I0403 14:27:27.781399 16967 layer_factory.hpp:77] Creating layer relu5
I0403 14:27:27.781419 16967 net.cpp:91] Creating Layer relu5
I0403 14:27:27.781435 16967 net.cpp:425] relu5 <- conv5
I0403 14:27:27.781455 16967 net.cpp:386] relu5 -> conv5 (in-place)
I0403 14:27:27.781762 16967 net.cpp:141] Setting up relu5
I0403 14:27:27.781790 16967 net.cpp:148] Top shape: 100 256 13 13 (4326400)
I0403 14:27:27.781805 16967 net.cpp:156] Memory required for data: 818009200
I0403 14:27:27.781821 16967 layer_factory.hpp:77] Creating layer pool5
I0403 14:27:27.781846 16967 net.cpp:91] Creating Layer pool5
I0403 14:27:27.781862 16967 net.cpp:425] pool5 <- conv5
I0403 14:27:27.781882 16967 net.cpp:399] pool5 -> pool5
I0403 14:27:27.781944 16967 net.cpp:141] Setting up pool5
I0403 14:27:27.781980 16967 net.cpp:148] Top shape: 100 256 6 6 (921600)
I0403 14:27:27.781996 16967 net.cpp:156] Memory required for data: 821695600
I0403 14:27:27.782011 16967 layer_factory.hpp:77] Creating layer fc6
I0403 14:27:27.782040 16967 net.cpp:91] Creating Layer fc6
I0403 14:27:27.782064 16967 net.cpp:425] fc6 <- pool5
I0403 14:27:27.782084 16967 net.cpp:399] fc6 -> fc6
I0403 14:27:29.349344 16967 net.cpp:141] Setting up fc6
I0403 14:27:29.349423 16967 net.cpp:148] Top shape: 100 4096 (409600)
I0403 14:27:29.349439 16967 net.cpp:156] Memory required for data: 823334000
I0403 14:27:29.349460 16967 layer_factory.hpp:77] Creating layer relu6
I0403 14:27:29.349483 16967 net.cpp:91] Creating Layer relu6
I0403 14:27:29.349499 16967 net.cpp:425] relu6 <- fc6
I0403 14:27:29.349524 16967 net.cpp:386] relu6 -> fc6 (in-place)
I0403 14:27:29.349741 16967 net.cpp:141] Setting up relu6
I0403 14:27:29.349766 16967 net.cpp:148] Top shape: 100 4096 (409600)
I0403 14:27:29.349781 16967 net.cpp:156] Memory required for data: 824972400
I0403 14:27:29.349795 16967 layer_factory.hpp:77] Creating layer drop6
I0403 14:27:29.349813 16967 net.cpp:91] Creating Layer drop6
I0403 14:27:29.349828 16967 net.cpp:425] drop6 <- fc6
I0403 14:27:29.349850 16967 net.cpp:386] drop6 -> fc6 (in-place)
I0403 14:27:29.349902 16967 net.cpp:141] Setting up drop6
I0403 14:27:29.349928 16967 net.cpp:148] Top shape: 100 4096 (409600)
I0403 14:27:29.349943 16967 net.cpp:156] Memory required for data: 826610800
I0403 14:27:29.349957 16967 layer_factory.hpp:77] Creating layer fc7
I0403 14:27:29.349977 16967 net.cpp:91] Creating Layer fc7
I0403 14:27:29.349992 16967 net.cpp:425] fc7 <- fc6
I0403 14:27:29.350013 16967 net.cpp:399] fc7 -> fc7
I0403 14:27:30.047541 16967 net.cpp:141] Setting up fc7
I0403 14:27:30.047637 16967 net.cpp:148] Top shape: 100 4096 (409600)
I0403 14:27:30.047654 16967 net.cpp:156] Memory required for data: 828249200
I0403 14:27:30.047677 16967 layer_factory.hpp:77] Creating layer relu7
I0403 14:27:30.047699 16967 net.cpp:91] Creating Layer relu7
I0403 14:27:30.047716 16967 net.cpp:425] relu7 <- fc7
I0403 14:27:30.047739 16967 net.cpp:386] relu7 -> fc7 (in-place)
I0403 14:27:30.048190 16967 net.cpp:141] Setting up relu7
I0403 14:27:30.048218 16967 net.cpp:148] Top shape: 100 4096 (409600)
I0403 14:27:30.048266 16967 net.cpp:156] Memory required for data: 829887600
I0403 14:27:30.048283 16967 layer_factory.hpp:77] Creating layer drop7
I0403 14:27:30.048302 16967 net.cpp:91] Creating Layer drop7
I0403 14:27:30.048318 16967 net.cpp:425] drop7 <- fc7
I0403 14:27:30.048341 16967 net.cpp:386] drop7 -> fc7 (in-place)
I0403 14:27:30.048384 16967 net.cpp:141] Setting up drop7
I0403 14:27:30.048409 16967 net.cpp:148] Top shape: 100 4096 (409600)
I0403 14:27:30.048424 16967 net.cpp:156] Memory required for data: 831526000
I0403 14:27:30.048439 16967 layer_factory.hpp:77] Creating layer fc8_plantvillage
I0403 14:27:30.048459 16967 net.cpp:91] Creating Layer fc8_plantvillage
I0403 14:27:30.048475 16967 net.cpp:425] fc8_plantvillage <- fc7
I0403 14:27:30.048496 16967 net.cpp:399] fc8_plantvillage -> fc8_plantvillage
I0403 14:27:30.055449 16967 net.cpp:141] Setting up fc8_plantvillage
I0403 14:27:30.055477 16967 net.cpp:148] Top shape: 100 38 (3800)
I0403 14:27:30.055492 16967 net.cpp:156] Memory required for data: 831541200
I0403 14:27:30.055511 16967 layer_factory.hpp:77] Creating layer fc8_plantvillage_fc8_plantvillage_0_split
I0403 14:27:30.055531 16967 net.cpp:91] Creating Layer fc8_plantvillage_fc8_plantvillage_0_split
I0403 14:27:30.055546 16967 net.cpp:425] fc8_plantvillage_fc8_plantvillage_0_split <- fc8_plantvillage
I0403 14:27:30.055564 16967 net.cpp:399] fc8_plantvillage_fc8_plantvillage_0_split -> fc8_plantvillage_fc8_plantvillage_0_split_0
I0403 14:27:30.055585 16967 net.cpp:399] fc8_plantvillage_fc8_plantvillage_0_split -> fc8_plantvillage_fc8_plantvillage_0_split_1
I0403 14:27:30.055605 16967 net.cpp:399] fc8_plantvillage_fc8_plantvillage_0_split -> fc8_plantvillage_fc8_plantvillage_0_split_2
I0403 14:27:30.055687 16967 net.cpp:141] Setting up fc8_plantvillage_fc8_plantvillage_0_split
I0403 14:27:30.055711 16967 net.cpp:148] Top shape: 100 38 (3800)
I0403 14:27:30.055727 16967 net.cpp:148] Top shape: 100 38 (3800)
I0403 14:27:30.055742 16967 net.cpp:148] Top shape: 100 38 (3800)
I0403 14:27:30.055757 16967 net.cpp:156] Memory required for data: 831586800
I0403 14:27:30.055770 16967 layer_factory.hpp:77] Creating layer prob
I0403 14:27:30.055789 16967 net.cpp:91] Creating Layer prob
I0403 14:27:30.055804 16967 net.cpp:425] prob <- fc8_plantvillage_fc8_plantvillage_0_split_0
I0403 14:27:30.055825 16967 net.cpp:399] prob -> prob
I0403 14:27:30.056069 16967 net.cpp:141] Setting up prob
I0403 14:27:30.056095 16967 net.cpp:148] Top shape: 100 38 (3800)
I0403 14:27:30.056110 16967 net.cpp:156] Memory required for data: 831602000
I0403 14:27:30.056125 16967 layer_factory.hpp:77] Creating layer hdf5out
I0403 14:27:30.056144 16967 net.cpp:91] Creating Layer hdf5out
I0403 14:27:30.056160 16967 net.cpp:425] hdf5out <- prob
I0403 14:27:30.056175 16967 net.cpp:425] hdf5out <- label_data_1_split_0
I0403 14:27:30.058464 16967 net.cpp:141] Setting up hdf5out
…
