…
I0403 14:42:44.482163 17409 net.cpp:313] The NetState phase (1) differed from the phase (0) specified by a rule in layer data
I0403 14:42:44.482477 17409 net.cpp:49] Initializing net from parameters: 
state {
  phase: TEST
}
layer {
  name: "data"
  type: "Data"
  top: "data"
  top: "label"
  include {
    phase: TEST
  }
  transform_param {
    crop_size: 227
    mean_file: "/home/mohanty/data/final_dataset/lmdb/grayscale-40-60/mean.binaryproto"
  }
  data_param {
    source: "/home/mohanty/data/final_dataset/lmdb/grayscale-40-60/test_db"
    batch_size: 100
    backend: LMDB
  }
}
layer {
  name: "conv1"
  type: "Convolution"
  bottom: "data"
  top: "conv1"
  param {
    lr_mult: 1
    decay_mult: 1
  }
  param {
    lr_mult: 2
    decay_mult: 0
  }
  convolution_param {
    num_output: 96
    kernel_size: 11
    stride: 4
    weight_filler {
      type: "gaussian"
      std: 0.01
    }
    bias_filler {
      type: "constant"
      value: 0
    }
  }
}
layer {
  name: "relu1"
  type: "ReLU"
  bottom: "conv1"
  top: "conv1"
}
layer {
  name: "norm1"
  type: "LRN"
  bottom: "conv1"
  top: "norm1"
  lrn_param {
    local_size: 5
    alpha: 0.0001
    beta: 0.75
  }
}
layer {
  name: "pool1"
  type: "Pooling"
  bottom: "norm1"
  top: "pool1"
  pooling_param {
    pool: MAX
    kernel_size: 3
    stride: 2
  }
}
layer {
  name: "conv2"
  type: "Convolution"
  bottom: "pool1"
  top: "conv2"
  param {
    lr_mult: 1
    decay_mult: 1
  }
  param {
    lr_mult: 2
    decay_mult: 0
  }
  convolution_param {
    num_output: 256
    pad: 2
    kernel_size: 5
    group: 2
    weight_filler {
      type: "gaussian"
      std: 0.01
    }
    bias_filler {
      type: "constant"
      value: 0.1
    }
  }
}
layer {
  name: "relu2"
  type: "ReLU"
  bottom: "conv2"
  top: "conv2"
}
layer {
  name: "norm2"
  type: "LRN"
  bottom: "conv2"
  top: "norm2"
  lrn_param {
    local_size: 5
    alpha: 0.0001
    beta: 0.75
  }
}
layer {
  name: "pool2"
  type: "Pooling"
  bottom: "norm2"
  top: "pool2"
  pooling_param {
    pool: MAX
    kernel_size: 3
    stride: 2
  }
}
layer {
  name: "conv3"
  type: "Convolution"
  bottom: "pool2"
  top: "conv3"
  param {
    lr_mult: 1
    decay_mult: 1
  }
  param {
    lr_mult: 2
    decay_mult: 0
  }
  convolution_param {
    num_output: 384
    pad: 1
    kernel_size: 3
    weight_filler {
      type: "gaussian"
      std: 0.01
    }
    bias_filler {
      type: "constant"
      value: 0
    }
  }
}
layer {
  name: "relu3"
  type: "ReLU"
  bottom: "conv3"
  top: "conv3"
}
layer {
  name: "conv4"
  type: "Convolution"
  bottom: "conv3"
  top: "conv4"
  param {
    lr_mult: 1
    decay_mult: 1
  }
  param {
    lr_mult: 2
    decay_mult: 0
  }
  convolution_param {
    num_output: 384
    pad: 1
    kernel_size: 3
    group: 2
    weight_filler {
      type: "gaussian"
      std: 0.01
    }
    bias_filler {
      type: "constant"
      value: 0.1
    }
  }
}
layer {
  name: "relu4"
  type: "ReLU"
  bottom: "conv4"
  top: "conv4"
}
layer {
  name: "conv5"
  type: "Convolution"
  bottom: "conv4"
  top: "conv5"
  param {
    lr_mult: 1
    decay_mult: 1
  }
  param {
    lr_mult: 2
    decay_mult: 0
  }
  convolution_param {
    num_output: 256
    pad: 1
    kernel_size: 3
    group: 2
    weight_filler {
      type: "gaussian"
      std: 0.01
    }
    bias_filler {
      type: "constant"
      value: 0.1
    }
  }
}
layer {
  name: "relu5"
  type: "ReLU"
  bottom: "conv5"
  top: "conv5"
}
layer {
  name: "pool5"
  type: "Pooling"
  bottom: "conv5"
  top: "pool5"
  pooling_param {
    pool: MAX
    kernel_size: 3
    stride: 2
  }
}
layer {
  name: "fc6"
  type: "InnerProduct"
  bottom: "pool5"
  top: "fc6"
  param {
    lr_mult: 1
    decay_mult: 1
  }
  param {
    lr_mult: 2
    decay_mult: 0
  }
  inner_product_param {
    num_output: 4096
    weight_filler {
      type: "gaussian"
      std: 0.005
    }
    bias_filler {
      type: "constant"
      value: 0.1
    }
  }
}
layer {
  name: "relu6"
  type: "ReLU"
  bottom: "fc6"
  top: "fc6"
}
layer {
  name: "drop6"
  type: "Dropout"
  bottom: "fc6"
  top: "fc6"
  dropout_param {
    dropout_ratio: 0.5
  }
}
layer {
  name: "fc7"
  type: "InnerProduct"
  bottom: "fc6"
  top: "fc7"
  param {
    lr_mult: 1
    decay_mult: 1
  }
  param {
    lr_mult: 2
    decay_mult: 0
  }
  inner_product_param {
    num_output: 4096
    weight_filler {
      type: "gaussian"
      std: 0.005
    }
    bias_filler {
      type: "constant"
      value: 0.1
    }
  }
}
layer {
  name: "relu7"
  type: "ReLU"
  bottom: "fc7"
  top: "fc7"
}
layer {
  name: "drop7"
  type: "Dropout"
  bottom: "fc7"
  top: "fc7"
  dropout_param {
    dropout_ratio: 0.5
  }
}
layer {
  name: "fc8_plantvillage"
  type: "InnerProduct"
  bottom: "fc7"
  top: "fc8_plantvillage"
  param {
    lr_mult: 1
    decay_mult: 1
  }
  param {
    lr_mult: 2
    decay_mult: 0
  }
  inner_product_param {
    num_output: 38
    weight_filler {
      type: "gaussian"
      std: 0.01
    }
    bias_filler {
      type: "constant"
      value: 0
    }
  }
}
layer {
  name: "prob"
  type: "Softmax"
  bottom: "fc8_plantvillage"
  top: "prob"
  include {
    phase: TEST
  }
}
layer {
  name: "hdf5out"
  type: "HDF5Output"
  bottom: "prob"
  bottom: "label"
  include {
    phase: TEST
  }
  hdf5_output_param {
    file_name: "hdf5_dumps/iter_3504.h5"
  }
}
layer {
  name: "loss"
  type: "SoftmaxWithLoss"
  bottom: "fc8_plantvillage"
  bottom: "label"
  top: "loss"
}
layer {
  name: "accuracy"
  type: "Accuracy"
  bottom: "fc8_plantvillage"
  bottom: "label"
  top: "accuracy"
  include {
    phase: TEST
  }
}
I0403 14:42:44.483072 17409 layer_factory.hpp:77] Creating layer data
I0403 14:42:44.483707 17409 net.cpp:91] Creating Layer data
I0403 14:42:44.483737 17409 net.cpp:399] data -> data
I0403 14:42:44.483788 17409 net.cpp:399] data -> label
I0403 14:42:44.483825 17409 data_transformer.cpp:25] Loading mean file from: /home/mohanty/data/final_dataset/lmdb/grayscale-40-60/mean.binaryproto
I0403 14:42:44.487074 17414 db_lmdb.cpp:38] Opened lmdb /home/mohanty/data/final_dataset/lmdb/grayscale-40-60/test_db
I0403 14:42:44.498162 17409 data_layer.cpp:41] output data size: 100,3,227,227
I0403 14:42:44.616402 17409 net.cpp:141] Setting up data
I0403 14:42:44.616466 17409 net.cpp:148] Top shape: 100 3 227 227 (15458700)
I0403 14:42:44.616487 17409 net.cpp:148] Top shape: 100 (100)
I0403 14:42:44.616503 17409 net.cpp:156] Memory required for data: 61835200
I0403 14:42:44.616528 17409 layer_factory.hpp:77] Creating layer label_data_1_split
I0403 14:42:44.616554 17409 net.cpp:91] Creating Layer label_data_1_split
I0403 14:42:44.616570 17409 net.cpp:425] label_data_1_split <- label
I0403 14:42:44.616600 17409 net.cpp:399] label_data_1_split -> label_data_1_split_0
I0403 14:42:44.616626 17409 net.cpp:399] label_data_1_split -> label_data_1_split_1
I0403 14:42:44.616646 17409 net.cpp:399] label_data_1_split -> label_data_1_split_2
I0403 14:42:44.616705 17409 net.cpp:141] Setting up label_data_1_split
I0403 14:42:44.616729 17409 net.cpp:148] Top shape: 100 (100)
I0403 14:42:44.616744 17409 net.cpp:148] Top shape: 100 (100)
I0403 14:42:44.616760 17409 net.cpp:148] Top shape: 100 (100)
I0403 14:42:44.616773 17409 net.cpp:156] Memory required for data: 61836400
I0403 14:42:44.616786 17409 layer_factory.hpp:77] Creating layer conv1
I0403 14:42:44.616817 17409 net.cpp:91] Creating Layer conv1
I0403 14:42:44.616848 17409 net.cpp:425] conv1 <- data
I0403 14:42:44.616868 17409 net.cpp:399] conv1 -> conv1
I0403 14:42:44.759832 17409 net.cpp:141] Setting up conv1
I0403 14:42:44.759873 17409 net.cpp:148] Top shape: 100 96 55 55 (29040000)
I0403 14:42:44.759891 17409 net.cpp:156] Memory required for data: 177996400
I0403 14:42:44.759919 17409 layer_factory.hpp:77] Creating layer relu1
I0403 14:42:44.759948 17409 net.cpp:91] Creating Layer relu1
I0403 14:42:44.759966 17409 net.cpp:425] relu1 <- conv1
I0403 14:42:44.759987 17409 net.cpp:386] relu1 -> conv1 (in-place)
I0403 14:42:44.760274 17409 net.cpp:141] Setting up relu1
I0403 14:42:44.760304 17409 net.cpp:148] Top shape: 100 96 55 55 (29040000)
I0403 14:42:44.760351 17409 net.cpp:156] Memory required for data: 294156400
I0403 14:42:44.760367 17409 layer_factory.hpp:77] Creating layer norm1
I0403 14:42:44.760396 17409 net.cpp:91] Creating Layer norm1
I0403 14:42:44.760414 17409 net.cpp:425] norm1 <- conv1
I0403 14:42:44.760432 17409 net.cpp:399] norm1 -> norm1
I0403 14:42:44.760762 17409 net.cpp:141] Setting up norm1
I0403 14:42:44.760789 17409 net.cpp:148] Top shape: 100 96 55 55 (29040000)
I0403 14:42:44.760805 17409 net.cpp:156] Memory required for data: 410316400
I0403 14:42:44.760819 17409 layer_factory.hpp:77] Creating layer pool1
I0403 14:42:44.760843 17409 net.cpp:91] Creating Layer pool1
I0403 14:42:44.760860 17409 net.cpp:425] pool1 <- norm1
I0403 14:42:44.760879 17409 net.cpp:399] pool1 -> pool1
I0403 14:42:44.760948 17409 net.cpp:141] Setting up pool1
I0403 14:42:44.760972 17409 net.cpp:148] Top shape: 100 96 27 27 (6998400)
I0403 14:42:44.760985 17409 net.cpp:156] Memory required for data: 438310000
I0403 14:42:44.760999 17409 layer_factory.hpp:77] Creating layer conv2
I0403 14:42:44.761024 17409 net.cpp:91] Creating Layer conv2
I0403 14:42:44.761041 17409 net.cpp:425] conv2 <- pool1
I0403 14:42:44.761103 17409 net.cpp:399] conv2 -> conv2
I0403 14:42:44.776263 17409 net.cpp:141] Setting up conv2
I0403 14:42:44.776311 17409 net.cpp:148] Top shape: 100 256 27 27 (18662400)
I0403 14:42:44.776329 17409 net.cpp:156] Memory required for data: 512959600
I0403 14:42:44.776351 17409 layer_factory.hpp:77] Creating layer relu2
I0403 14:42:44.776373 17409 net.cpp:91] Creating Layer relu2
I0403 14:42:44.776391 17409 net.cpp:425] relu2 <- conv2
I0403 14:42:44.776408 17409 net.cpp:386] relu2 -> conv2 (in-place)
I0403 14:42:44.776689 17409 net.cpp:141] Setting up relu2
I0403 14:42:44.776715 17409 net.cpp:148] Top shape: 100 256 27 27 (18662400)
I0403 14:42:44.776731 17409 net.cpp:156] Memory required for data: 587609200
I0403 14:42:44.776744 17409 layer_factory.hpp:77] Creating layer norm2
I0403 14:42:44.776768 17409 net.cpp:91] Creating Layer norm2
I0403 14:42:44.776784 17409 net.cpp:425] norm2 <- conv2
I0403 14:42:44.776804 17409 net.cpp:399] norm2 -> norm2
I0403 14:42:44.777001 17409 net.cpp:141] Setting up norm2
I0403 14:42:44.777027 17409 net.cpp:148] Top shape: 100 256 27 27 (18662400)
I0403 14:42:44.777042 17409 net.cpp:156] Memory required for data: 662258800
I0403 14:42:44.777063 17409 layer_factory.hpp:77] Creating layer pool2
I0403 14:42:44.777081 17409 net.cpp:91] Creating Layer pool2
I0403 14:42:44.777096 17409 net.cpp:425] pool2 <- norm2
I0403 14:42:44.777117 17409 net.cpp:399] pool2 -> pool2
I0403 14:42:44.777169 17409 net.cpp:141] Setting up pool2
I0403 14:42:44.777194 17409 net.cpp:148] Top shape: 100 256 13 13 (4326400)
I0403 14:42:44.777209 17409 net.cpp:156] Memory required for data: 679564400
I0403 14:42:44.777225 17409 layer_factory.hpp:77] Creating layer conv3
I0403 14:42:44.777250 17409 net.cpp:91] Creating Layer conv3
I0403 14:42:44.777266 17409 net.cpp:425] conv3 <- pool2
I0403 14:42:44.777284 17409 net.cpp:399] conv3 -> conv3
I0403 14:42:44.816686 17409 net.cpp:141] Setting up conv3
I0403 14:42:44.816769 17409 net.cpp:148] Top shape: 100 384 13 13 (6489600)
I0403 14:42:44.816786 17409 net.cpp:156] Memory required for data: 705522800
I0403 14:42:44.816810 17409 layer_factory.hpp:77] Creating layer relu3
I0403 14:42:44.816835 17409 net.cpp:91] Creating Layer relu3
I0403 14:42:44.816854 17409 net.cpp:425] relu3 <- conv3
I0403 14:42:44.816874 17409 net.cpp:386] relu3 -> conv3 (in-place)
I0403 14:42:44.817149 17409 net.cpp:141] Setting up relu3
I0403 14:42:44.817176 17409 net.cpp:148] Top shape: 100 384 13 13 (6489600)
I0403 14:42:44.817191 17409 net.cpp:156] Memory required for data: 731481200
I0403 14:42:44.817208 17409 layer_factory.hpp:77] Creating layer conv4
I0403 14:42:44.817232 17409 net.cpp:91] Creating Layer conv4
I0403 14:42:44.817250 17409 net.cpp:425] conv4 <- conv3
I0403 14:42:44.817271 17409 net.cpp:399] conv4 -> conv4
I0403 14:42:44.847726 17409 net.cpp:141] Setting up conv4
I0403 14:42:44.847805 17409 net.cpp:148] Top shape: 100 384 13 13 (6489600)
I0403 14:42:44.847853 17409 net.cpp:156] Memory required for data: 757439600
I0403 14:42:44.847875 17409 layer_factory.hpp:77] Creating layer relu4
I0403 14:42:44.847898 17409 net.cpp:91] Creating Layer relu4
I0403 14:42:44.847915 17409 net.cpp:425] relu4 <- conv4
I0403 14:42:44.847939 17409 net.cpp:386] relu4 -> conv4 (in-place)
I0403 14:42:44.848268 17409 net.cpp:141] Setting up relu4
I0403 14:42:44.848295 17409 net.cpp:148] Top shape: 100 384 13 13 (6489600)
I0403 14:42:44.848311 17409 net.cpp:156] Memory required for data: 783398000
I0403 14:42:44.848326 17409 layer_factory.hpp:77] Creating layer conv5
I0403 14:42:44.848352 17409 net.cpp:91] Creating Layer conv5
I0403 14:42:44.848369 17409 net.cpp:425] conv5 <- conv4
I0403 14:42:44.848392 17409 net.cpp:399] conv5 -> conv5
I0403 14:42:44.869364 17409 net.cpp:141] Setting up conv5
I0403 14:42:44.869426 17409 net.cpp:148] Top shape: 100 256 13 13 (4326400)
I0403 14:42:44.869443 17409 net.cpp:156] Memory required for data: 800703600
I0403 14:42:44.869467 17409 layer_factory.hpp:77] Creating layer relu5
I0403 14:42:44.869490 17409 net.cpp:91] Creating Layer relu5
I0403 14:42:44.869506 17409 net.cpp:425] relu5 <- conv5
I0403 14:42:44.869529 17409 net.cpp:386] relu5 -> conv5 (in-place)
I0403 14:42:44.869819 17409 net.cpp:141] Setting up relu5
I0403 14:42:44.869848 17409 net.cpp:148] Top shape: 100 256 13 13 (4326400)
I0403 14:42:44.869864 17409 net.cpp:156] Memory required for data: 818009200
I0403 14:42:44.869879 17409 layer_factory.hpp:77] Creating layer pool5
I0403 14:42:44.869904 17409 net.cpp:91] Creating Layer pool5
I0403 14:42:44.869920 17409 net.cpp:425] pool5 <- conv5
I0403 14:42:44.869938 17409 net.cpp:399] pool5 -> pool5
I0403 14:42:44.870002 17409 net.cpp:141] Setting up pool5
I0403 14:42:44.870025 17409 net.cpp:148] Top shape: 100 256 6 6 (921600)
I0403 14:42:44.870039 17409 net.cpp:156] Memory required for data: 821695600
I0403 14:42:44.870059 17409 layer_factory.hpp:77] Creating layer fc6
I0403 14:42:44.870088 17409 net.cpp:91] Creating Layer fc6
I0403 14:42:44.870106 17409 net.cpp:425] fc6 <- pool5
I0403 14:42:44.870124 17409 net.cpp:399] fc6 -> fc6
I0403 14:42:46.424382 17409 net.cpp:141] Setting up fc6
I0403 14:42:46.424423 17409 net.cpp:148] Top shape: 100 4096 (409600)
I0403 14:42:46.424439 17409 net.cpp:156] Memory required for data: 823334000
I0403 14:42:46.424460 17409 layer_factory.hpp:77] Creating layer relu6
I0403 14:42:46.424481 17409 net.cpp:91] Creating Layer relu6
I0403 14:42:46.424497 17409 net.cpp:425] relu6 <- fc6
I0403 14:42:46.424518 17409 net.cpp:386] relu6 -> fc6 (in-place)
I0403 14:42:46.424727 17409 net.cpp:141] Setting up relu6
I0403 14:42:46.424751 17409 net.cpp:148] Top shape: 100 4096 (409600)
I0403 14:42:46.424765 17409 net.cpp:156] Memory required for data: 824972400
I0403 14:42:46.424779 17409 layer_factory.hpp:77] Creating layer drop6
I0403 14:42:46.424798 17409 net.cpp:91] Creating Layer drop6
I0403 14:42:46.424811 17409 net.cpp:425] drop6 <- fc6
I0403 14:42:46.424829 17409 net.cpp:386] drop6 -> fc6 (in-place)
I0403 14:42:46.424880 17409 net.cpp:141] Setting up drop6
I0403 14:42:46.424904 17409 net.cpp:148] Top shape: 100 4096 (409600)
I0403 14:42:46.424918 17409 net.cpp:156] Memory required for data: 826610800
I0403 14:42:46.424932 17409 layer_factory.hpp:77] Creating layer fc7
I0403 14:42:46.424964 17409 net.cpp:91] Creating Layer fc7
I0403 14:42:46.424980 17409 net.cpp:425] fc7 <- fc6
I0403 14:42:46.425000 17409 net.cpp:399] fc7 -> fc7
I0403 14:42:47.117676 17409 net.cpp:141] Setting up fc7
I0403 14:42:47.117754 17409 net.cpp:148] Top shape: 100 4096 (409600)
I0403 14:42:47.117770 17409 net.cpp:156] Memory required for data: 828249200
I0403 14:42:47.117792 17409 layer_factory.hpp:77] Creating layer relu7
I0403 14:42:47.117815 17409 net.cpp:91] Creating Layer relu7
I0403 14:42:47.117846 17409 net.cpp:425] relu7 <- fc7
I0403 14:42:47.117866 17409 net.cpp:386] relu7 -> fc7 (in-place)
I0403 14:42:47.118296 17409 net.cpp:141] Setting up relu7
I0403 14:42:47.118322 17409 net.cpp:148] Top shape: 100 4096 (409600)
I0403 14:42:47.118368 17409 net.cpp:156] Memory required for data: 829887600
I0403 14:42:47.118383 17409 layer_factory.hpp:77] Creating layer drop7
I0403 14:42:47.118402 17409 net.cpp:91] Creating Layer drop7
I0403 14:42:47.118417 17409 net.cpp:425] drop7 <- fc7
I0403 14:42:47.118435 17409 net.cpp:386] drop7 -> fc7 (in-place)
I0403 14:42:47.118479 17409 net.cpp:141] Setting up drop7
I0403 14:42:47.118516 17409 net.cpp:148] Top shape: 100 4096 (409600)
I0403 14:42:47.118531 17409 net.cpp:156] Memory required for data: 831526000
I0403 14:42:47.118546 17409 layer_factory.hpp:77] Creating layer fc8_plantvillage
I0403 14:42:47.118567 17409 net.cpp:91] Creating Layer fc8_plantvillage
I0403 14:42:47.118582 17409 net.cpp:425] fc8_plantvillage <- fc7
I0403 14:42:47.118602 17409 net.cpp:399] fc8_plantvillage -> fc8_plantvillage
I0403 14:42:47.125474 17409 net.cpp:141] Setting up fc8_plantvillage
I0403 14:42:47.125502 17409 net.cpp:148] Top shape: 100 38 (3800)
I0403 14:42:47.125517 17409 net.cpp:156] Memory required for data: 831541200
I0403 14:42:47.125535 17409 layer_factory.hpp:77] Creating layer fc8_plantvillage_fc8_plantvillage_0_split
I0403 14:42:47.125551 17409 net.cpp:91] Creating Layer fc8_plantvillage_fc8_plantvillage_0_split
I0403 14:42:47.125566 17409 net.cpp:425] fc8_plantvillage_fc8_plantvillage_0_split <- fc8_plantvillage
I0403 14:42:47.125583 17409 net.cpp:399] fc8_plantvillage_fc8_plantvillage_0_split -> fc8_plantvillage_fc8_plantvillage_0_split_0
I0403 14:42:47.125603 17409 net.cpp:399] fc8_plantvillage_fc8_plantvillage_0_split -> fc8_plantvillage_fc8_plantvillage_0_split_1
I0403 14:42:47.125622 17409 net.cpp:399] fc8_plantvillage_fc8_plantvillage_0_split -> fc8_plantvillage_fc8_plantvillage_0_split_2
I0403 14:42:47.125697 17409 net.cpp:141] Setting up fc8_plantvillage_fc8_plantvillage_0_split
I0403 14:42:47.125720 17409 net.cpp:148] Top shape: 100 38 (3800)
I0403 14:42:47.125735 17409 net.cpp:148] Top shape: 100 38 (3800)
I0403 14:42:47.125751 17409 net.cpp:148] Top shape: 100 38 (3800)
I0403 14:42:47.125763 17409 net.cpp:156] Memory required for data: 831586800
I0403 14:42:47.125777 17409 layer_factory.hpp:77] Creating layer prob
I0403 14:42:47.125793 17409 net.cpp:91] Creating Layer prob
I0403 14:42:47.125808 17409 net.cpp:425] prob <- fc8_plantvillage_fc8_plantvillage_0_split_0
I0403 14:42:47.125829 17409 net.cpp:399] prob -> prob
I0403 14:42:47.126054 17409 net.cpp:141] Setting up prob
I0403 14:42:47.126077 17409 net.cpp:148] Top shape: 100 38 (3800)
I0403 14:42:47.126091 17409 net.cpp:156] Memory required for data: 831602000
I0403 14:42:47.126106 17409 layer_factory.hpp:77] Creating layer hdf5out
I0403 14:42:47.126122 17409 net.cpp:91] Creating Layer hdf5out
I0403 14:42:47.126140 17409 net.cpp:425] hdf5out <- prob
I0403 14:42:47.126154 17409 net.cpp:425] hdf5out <- label_data_1_split_0
I0403 14:42:47.128657 17409 net.cpp:141] Setting up hdf5out
…
