…
I0403 14:51:26.542666 17760 net.cpp:313] The NetState phase (1) differed from the phase (0) specified by a rule in layer data
I0403 14:51:26.542979 17760 net.cpp:49] Initializing net from parameters: 
state {
  phase: TEST
}
layer {
  name: "data"
  type: "Data"
  top: "data"
  top: "label"
  include {
    phase: TEST
  }
  transform_param {
    crop_size: 227
    mean_file: "/home/mohanty/data/final_dataset/lmdb/grayscale-40-60/mean.binaryproto"
  }
  data_param {
    source: "/home/mohanty/data/final_dataset/lmdb/grayscale-40-60/test_db"
    batch_size: 100
    backend: LMDB
  }
}
layer {
  name: "conv1"
  type: "Convolution"
  bottom: "data"
  top: "conv1"
  param {
    lr_mult: 1
    decay_mult: 1
  }
  param {
    lr_mult: 2
    decay_mult: 0
  }
  convolution_param {
    num_output: 96
    kernel_size: 11
    stride: 4
    weight_filler {
      type: "gaussian"
      std: 0.01
    }
    bias_filler {
      type: "constant"
      value: 0
    }
  }
}
layer {
  name: "relu1"
  type: "ReLU"
  bottom: "conv1"
  top: "conv1"
}
layer {
  name: "norm1"
  type: "LRN"
  bottom: "conv1"
  top: "norm1"
  lrn_param {
    local_size: 5
    alpha: 0.0001
    beta: 0.75
  }
}
layer {
  name: "pool1"
  type: "Pooling"
  bottom: "norm1"
  top: "pool1"
  pooling_param {
    pool: MAX
    kernel_size: 3
    stride: 2
  }
}
layer {
  name: "conv2"
  type: "Convolution"
  bottom: "pool1"
  top: "conv2"
  param {
    lr_mult: 1
    decay_mult: 1
  }
  param {
    lr_mult: 2
    decay_mult: 0
  }
  convolution_param {
    num_output: 256
    pad: 2
    kernel_size: 5
    group: 2
    weight_filler {
      type: "gaussian"
      std: 0.01
    }
    bias_filler {
      type: "constant"
      value: 0.1
    }
  }
}
layer {
  name: "relu2"
  type: "ReLU"
  bottom: "conv2"
  top: "conv2"
}
layer {
  name: "norm2"
  type: "LRN"
  bottom: "conv2"
  top: "norm2"
  lrn_param {
    local_size: 5
    alpha: 0.0001
    beta: 0.75
  }
}
layer {
  name: "pool2"
  type: "Pooling"
  bottom: "norm2"
  top: "pool2"
  pooling_param {
    pool: MAX
    kernel_size: 3
    stride: 2
  }
}
layer {
  name: "conv3"
  type: "Convolution"
  bottom: "pool2"
  top: "conv3"
  param {
    lr_mult: 1
    decay_mult: 1
  }
  param {
    lr_mult: 2
    decay_mult: 0
  }
  convolution_param {
    num_output: 384
    pad: 1
    kernel_size: 3
    weight_filler {
      type: "gaussian"
      std: 0.01
    }
    bias_filler {
      type: "constant"
      value: 0
    }
  }
}
layer {
  name: "relu3"
  type: "ReLU"
  bottom: "conv3"
  top: "conv3"
}
layer {
  name: "conv4"
  type: "Convolution"
  bottom: "conv3"
  top: "conv4"
  param {
    lr_mult: 1
    decay_mult: 1
  }
  param {
    lr_mult: 2
    decay_mult: 0
  }
  convolution_param {
    num_output: 384
    pad: 1
    kernel_size: 3
    group: 2
    weight_filler {
      type: "gaussian"
      std: 0.01
    }
    bias_filler {
      type: "constant"
      value: 0.1
    }
  }
}
layer {
  name: "relu4"
  type: "ReLU"
  bottom: "conv4"
  top: "conv4"
}
layer {
  name: "conv5"
  type: "Convolution"
  bottom: "conv4"
  top: "conv5"
  param {
    lr_mult: 1
    decay_mult: 1
  }
  param {
    lr_mult: 2
    decay_mult: 0
  }
  convolution_param {
    num_output: 256
    pad: 1
    kernel_size: 3
    group: 2
    weight_filler {
      type: "gaussian"
      std: 0.01
    }
    bias_filler {
      type: "constant"
      value: 0.1
    }
  }
}
layer {
  name: "relu5"
  type: "ReLU"
  bottom: "conv5"
  top: "conv5"
}
layer {
  name: "pool5"
  type: "Pooling"
  bottom: "conv5"
  top: "pool5"
  pooling_param {
    pool: MAX
    kernel_size: 3
    stride: 2
  }
}
layer {
  name: "fc6"
  type: "InnerProduct"
  bottom: "pool5"
  top: "fc6"
  param {
    lr_mult: 1
    decay_mult: 1
  }
  param {
    lr_mult: 2
    decay_mult: 0
  }
  inner_product_param {
    num_output: 4096
    weight_filler {
      type: "gaussian"
      std: 0.005
    }
    bias_filler {
      type: "constant"
      value: 0.1
    }
  }
}
layer {
  name: "relu6"
  type: "ReLU"
  bottom: "fc6"
  top: "fc6"
}
layer {
  name: "drop6"
  type: "Dropout"
  bottom: "fc6"
  top: "fc6"
  dropout_param {
    dropout_ratio: 0.5
  }
}
layer {
  name: "fc7"
  type: "InnerProduct"
  bottom: "fc6"
  top: "fc7"
  param {
    lr_mult: 1
    decay_mult: 1
  }
  param {
    lr_mult: 2
    decay_mult: 0
  }
  inner_product_param {
    num_output: 4096
    weight_filler {
      type: "gaussian"
      std: 0.005
    }
    bias_filler {
      type: "constant"
      value: 0.1
    }
  }
}
layer {
  name: "relu7"
  type: "ReLU"
  bottom: "fc7"
  top: "fc7"
}
layer {
  name: "drop7"
  type: "Dropout"
  bottom: "fc7"
  top: "fc7"
  dropout_param {
    dropout_ratio: 0.5
  }
}
layer {
  name: "fc8_plantvillage"
  type: "InnerProduct"
  bottom: "fc7"
  top: "fc8_plantvillage"
  param {
    lr_mult: 1
    decay_mult: 1
  }
  param {
    lr_mult: 2
    decay_mult: 0
  }
  inner_product_param {
    num_output: 38
    weight_filler {
      type: "gaussian"
      std: 0.01
    }
    bias_filler {
      type: "constant"
      value: 0
    }
  }
}
layer {
  name: "prob"
  type: "Softmax"
  bottom: "fc8_plantvillage"
  top: "prob"
  include {
    phase: TEST
  }
}
layer {
  name: "hdf5out"
  type: "HDF5Output"
  bottom: "prob"
  bottom: "label"
  include {
    phase: TEST
  }
  hdf5_output_param {
    file_name: "hdf5_dumps/iter_5256.h5"
  }
}
layer {
  name: "loss"
  type: "SoftmaxWithLoss"
  bottom: "fc8_plantvillage"
  bottom: "label"
  top: "loss"
}
layer {
  name: "accuracy"
  type: "Accuracy"
  bottom: "fc8_plantvillage"
  bottom: "label"
  top: "accuracy"
  include {
    phase: TEST
  }
}
I0403 14:51:26.543597 17760 layer_factory.hpp:77] Creating layer data
I0403 14:51:26.544245 17760 net.cpp:91] Creating Layer data
I0403 14:51:26.544275 17760 net.cpp:399] data -> data
I0403 14:51:26.544324 17760 net.cpp:399] data -> label
I0403 14:51:26.544360 17760 data_transformer.cpp:25] Loading mean file from: /home/mohanty/data/final_dataset/lmdb/grayscale-40-60/mean.binaryproto
I0403 14:51:26.548135 17763 db_lmdb.cpp:38] Opened lmdb /home/mohanty/data/final_dataset/lmdb/grayscale-40-60/test_db
I0403 14:51:26.559648 17760 data_layer.cpp:41] output data size: 100,3,227,227
I0403 14:51:26.679849 17760 net.cpp:141] Setting up data
I0403 14:51:26.679905 17760 net.cpp:148] Top shape: 100 3 227 227 (15458700)
I0403 14:51:26.679927 17760 net.cpp:148] Top shape: 100 (100)
I0403 14:51:26.679941 17760 net.cpp:156] Memory required for data: 61835200
I0403 14:51:26.679970 17760 layer_factory.hpp:77] Creating layer label_data_1_split
I0403 14:51:26.679993 17760 net.cpp:91] Creating Layer label_data_1_split
I0403 14:51:26.680011 17760 net.cpp:425] label_data_1_split <- label
I0403 14:51:26.680040 17760 net.cpp:399] label_data_1_split -> label_data_1_split_0
I0403 14:51:26.680070 17760 net.cpp:399] label_data_1_split -> label_data_1_split_1
I0403 14:51:26.680091 17760 net.cpp:399] label_data_1_split -> label_data_1_split_2
I0403 14:51:26.680150 17760 net.cpp:141] Setting up label_data_1_split
I0403 14:51:26.680173 17760 net.cpp:148] Top shape: 100 (100)
I0403 14:51:26.680188 17760 net.cpp:148] Top shape: 100 (100)
I0403 14:51:26.680204 17760 net.cpp:148] Top shape: 100 (100)
I0403 14:51:26.680218 17760 net.cpp:156] Memory required for data: 61836400
I0403 14:51:26.680233 17760 layer_factory.hpp:77] Creating layer conv1
I0403 14:51:26.680263 17760 net.cpp:91] Creating Layer conv1
I0403 14:51:26.680280 17760 net.cpp:425] conv1 <- data
I0403 14:51:26.680299 17760 net.cpp:399] conv1 -> conv1
I0403 14:51:26.822096 17760 net.cpp:141] Setting up conv1
I0403 14:51:26.822186 17760 net.cpp:148] Top shape: 100 96 55 55 (29040000)
I0403 14:51:26.822203 17760 net.cpp:156] Memory required for data: 177996400
I0403 14:51:26.822234 17760 layer_factory.hpp:77] Creating layer relu1
I0403 14:51:26.822263 17760 net.cpp:91] Creating Layer relu1
I0403 14:51:26.822279 17760 net.cpp:425] relu1 <- conv1
I0403 14:51:26.822299 17760 net.cpp:386] relu1 -> conv1 (in-place)
I0403 14:51:26.822562 17760 net.cpp:141] Setting up relu1
I0403 14:51:26.822589 17760 net.cpp:148] Top shape: 100 96 55 55 (29040000)
I0403 14:51:26.822636 17760 net.cpp:156] Memory required for data: 294156400
I0403 14:51:26.822654 17760 layer_factory.hpp:77] Creating layer norm1
I0403 14:51:26.822680 17760 net.cpp:91] Creating Layer norm1
I0403 14:51:26.822697 17760 net.cpp:425] norm1 <- conv1
I0403 14:51:26.822715 17760 net.cpp:399] norm1 -> norm1
I0403 14:51:26.823032 17760 net.cpp:141] Setting up norm1
I0403 14:51:26.823065 17760 net.cpp:148] Top shape: 100 96 55 55 (29040000)
I0403 14:51:26.823081 17760 net.cpp:156] Memory required for data: 410316400
I0403 14:51:26.823096 17760 layer_factory.hpp:77] Creating layer pool1
I0403 14:51:26.823119 17760 net.cpp:91] Creating Layer pool1
I0403 14:51:26.823137 17760 net.cpp:425] pool1 <- norm1
I0403 14:51:26.823156 17760 net.cpp:399] pool1 -> pool1
I0403 14:51:26.823222 17760 net.cpp:141] Setting up pool1
I0403 14:51:26.823246 17760 net.cpp:148] Top shape: 100 96 27 27 (6998400)
I0403 14:51:26.823261 17760 net.cpp:156] Memory required for data: 438310000
I0403 14:51:26.823276 17760 layer_factory.hpp:77] Creating layer conv2
I0403 14:51:26.823299 17760 net.cpp:91] Creating Layer conv2
I0403 14:51:26.823315 17760 net.cpp:425] conv2 <- pool1
I0403 14:51:26.823379 17760 net.cpp:399] conv2 -> conv2
I0403 14:51:26.838645 17760 net.cpp:141] Setting up conv2
I0403 14:51:26.838696 17760 net.cpp:148] Top shape: 100 256 27 27 (18662400)
I0403 14:51:26.838713 17760 net.cpp:156] Memory required for data: 512959600
I0403 14:51:26.838735 17760 layer_factory.hpp:77] Creating layer relu2
I0403 14:51:26.838755 17760 net.cpp:91] Creating Layer relu2
I0403 14:51:26.838771 17760 net.cpp:425] relu2 <- conv2
I0403 14:51:26.838789 17760 net.cpp:386] relu2 -> conv2 (in-place)
I0403 14:51:26.839067 17760 net.cpp:141] Setting up relu2
I0403 14:51:26.839094 17760 net.cpp:148] Top shape: 100 256 27 27 (18662400)
I0403 14:51:26.839110 17760 net.cpp:156] Memory required for data: 587609200
I0403 14:51:26.839125 17760 layer_factory.hpp:77] Creating layer norm2
I0403 14:51:26.839146 17760 net.cpp:91] Creating Layer norm2
I0403 14:51:26.839162 17760 net.cpp:425] norm2 <- conv2
I0403 14:51:26.839180 17760 net.cpp:399] norm2 -> norm2
I0403 14:51:26.839367 17760 net.cpp:141] Setting up norm2
I0403 14:51:26.839393 17760 net.cpp:148] Top shape: 100 256 27 27 (18662400)
I0403 14:51:26.839408 17760 net.cpp:156] Memory required for data: 662258800
I0403 14:51:26.839423 17760 layer_factory.hpp:77] Creating layer pool2
I0403 14:51:26.839442 17760 net.cpp:91] Creating Layer pool2
I0403 14:51:26.839457 17760 net.cpp:425] pool2 <- norm2
I0403 14:51:26.839474 17760 net.cpp:399] pool2 -> pool2
I0403 14:51:26.839524 17760 net.cpp:141] Setting up pool2
I0403 14:51:26.839546 17760 net.cpp:148] Top shape: 100 256 13 13 (4326400)
I0403 14:51:26.839561 17760 net.cpp:156] Memory required for data: 679564400
I0403 14:51:26.839576 17760 layer_factory.hpp:77] Creating layer conv3
I0403 14:51:26.839599 17760 net.cpp:91] Creating Layer conv3
I0403 14:51:26.839615 17760 net.cpp:425] conv3 <- pool2
I0403 14:51:26.839634 17760 net.cpp:399] conv3 -> conv3
I0403 14:51:26.878533 17760 net.cpp:141] Setting up conv3
I0403 14:51:26.878599 17760 net.cpp:148] Top shape: 100 384 13 13 (6489600)
I0403 14:51:26.878615 17760 net.cpp:156] Memory required for data: 705522800
I0403 14:51:26.878639 17760 layer_factory.hpp:77] Creating layer relu3
I0403 14:51:26.878664 17760 net.cpp:91] Creating Layer relu3
I0403 14:51:26.878681 17760 net.cpp:425] relu3 <- conv3
I0403 14:51:26.878700 17760 net.cpp:386] relu3 -> conv3 (in-place)
I0403 14:51:26.878983 17760 net.cpp:141] Setting up relu3
I0403 14:51:26.879012 17760 net.cpp:148] Top shape: 100 384 13 13 (6489600)
I0403 14:51:26.879029 17760 net.cpp:156] Memory required for data: 731481200
I0403 14:51:26.879042 17760 layer_factory.hpp:77] Creating layer conv4
I0403 14:51:26.879073 17760 net.cpp:91] Creating Layer conv4
I0403 14:51:26.879091 17760 net.cpp:425] conv4 <- conv3
I0403 14:51:26.879111 17760 net.cpp:399] conv4 -> conv4
I0403 14:51:26.910099 17760 net.cpp:141] Setting up conv4
I0403 14:51:26.910161 17760 net.cpp:148] Top shape: 100 384 13 13 (6489600)
I0403 14:51:26.910209 17760 net.cpp:156] Memory required for data: 757439600
I0403 14:51:26.910231 17760 layer_factory.hpp:77] Creating layer relu4
I0403 14:51:26.910255 17760 net.cpp:91] Creating Layer relu4
I0403 14:51:26.910274 17760 net.cpp:425] relu4 <- conv4
I0403 14:51:26.910292 17760 net.cpp:386] relu4 -> conv4 (in-place)
I0403 14:51:26.910581 17760 net.cpp:141] Setting up relu4
I0403 14:51:26.910609 17760 net.cpp:148] Top shape: 100 384 13 13 (6489600)
I0403 14:51:26.910625 17760 net.cpp:156] Memory required for data: 783398000
I0403 14:51:26.910640 17760 layer_factory.hpp:77] Creating layer conv5
I0403 14:51:26.910702 17760 net.cpp:91] Creating Layer conv5
I0403 14:51:26.910725 17760 net.cpp:425] conv5 <- conv4
I0403 14:51:26.910748 17760 net.cpp:399] conv5 -> conv5
I0403 14:51:26.932370 17760 net.cpp:141] Setting up conv5
I0403 14:51:26.932431 17760 net.cpp:148] Top shape: 100 256 13 13 (4326400)
I0403 14:51:26.932447 17760 net.cpp:156] Memory required for data: 800703600
I0403 14:51:26.932476 17760 layer_factory.hpp:77] Creating layer relu5
I0403 14:51:26.932500 17760 net.cpp:91] Creating Layer relu5
I0403 14:51:26.932518 17760 net.cpp:425] relu5 <- conv5
I0403 14:51:26.932536 17760 net.cpp:386] relu5 -> conv5 (in-place)
I0403 14:51:26.932831 17760 net.cpp:141] Setting up relu5
I0403 14:51:26.932862 17760 net.cpp:148] Top shape: 100 256 13 13 (4326400)
I0403 14:51:26.932878 17760 net.cpp:156] Memory required for data: 818009200
I0403 14:51:26.932901 17760 layer_factory.hpp:77] Creating layer pool5
I0403 14:51:26.932924 17760 net.cpp:91] Creating Layer pool5
I0403 14:51:26.932941 17760 net.cpp:425] pool5 <- conv5
I0403 14:51:26.932962 17760 net.cpp:399] pool5 -> pool5
I0403 14:51:26.933025 17760 net.cpp:141] Setting up pool5
I0403 14:51:26.933059 17760 net.cpp:148] Top shape: 100 256 6 6 (921600)
I0403 14:51:26.933075 17760 net.cpp:156] Memory required for data: 821695600
I0403 14:51:26.933095 17760 layer_factory.hpp:77] Creating layer fc6
I0403 14:51:26.933127 17760 net.cpp:91] Creating Layer fc6
I0403 14:51:26.933146 17760 net.cpp:425] fc6 <- pool5
I0403 14:51:26.933168 17760 net.cpp:399] fc6 -> fc6
I0403 14:51:28.499377 17760 net.cpp:141] Setting up fc6
I0403 14:51:28.499421 17760 net.cpp:148] Top shape: 100 4096 (409600)
I0403 14:51:28.499438 17760 net.cpp:156] Memory required for data: 823334000
I0403 14:51:28.499457 17760 layer_factory.hpp:77] Creating layer relu6
I0403 14:51:28.499481 17760 net.cpp:91] Creating Layer relu6
I0403 14:51:28.499500 17760 net.cpp:425] relu6 <- fc6
I0403 14:51:28.499518 17760 net.cpp:386] relu6 -> fc6 (in-place)
I0403 14:51:28.499732 17760 net.cpp:141] Setting up relu6
I0403 14:51:28.499761 17760 net.cpp:148] Top shape: 100 4096 (409600)
I0403 14:51:28.499779 17760 net.cpp:156] Memory required for data: 824972400
I0403 14:51:28.499794 17760 layer_factory.hpp:77] Creating layer drop6
I0403 14:51:28.499812 17760 net.cpp:91] Creating Layer drop6
I0403 14:51:28.499826 17760 net.cpp:425] drop6 <- fc6
I0403 14:51:28.499842 17760 net.cpp:386] drop6 -> fc6 (in-place)
I0403 14:51:28.499894 17760 net.cpp:141] Setting up drop6
I0403 14:51:28.499917 17760 net.cpp:148] Top shape: 100 4096 (409600)
I0403 14:51:28.499932 17760 net.cpp:156] Memory required for data: 826610800
I0403 14:51:28.499946 17760 layer_factory.hpp:77] Creating layer fc7
I0403 14:51:28.499969 17760 net.cpp:91] Creating Layer fc7
I0403 14:51:28.499984 17760 net.cpp:425] fc7 <- fc6
I0403 14:51:28.500000 17760 net.cpp:399] fc7 -> fc7
I0403 14:51:29.179949 17760 net.cpp:141] Setting up fc7
I0403 14:51:29.179991 17760 net.cpp:148] Top shape: 100 4096 (409600)
I0403 14:51:29.180006 17760 net.cpp:156] Memory required for data: 828249200
I0403 14:51:29.180027 17760 layer_factory.hpp:77] Creating layer relu7
I0403 14:51:29.180052 17760 net.cpp:91] Creating Layer relu7
I0403 14:51:29.180071 17760 net.cpp:425] relu7 <- fc7
I0403 14:51:29.180090 17760 net.cpp:386] relu7 -> fc7 (in-place)
I0403 14:51:29.180488 17760 net.cpp:141] Setting up relu7
I0403 14:51:29.180515 17760 net.cpp:148] Top shape: 100 4096 (409600)
I0403 14:51:29.180560 17760 net.cpp:156] Memory required for data: 829887600
I0403 14:51:29.180575 17760 layer_factory.hpp:77] Creating layer drop7
I0403 14:51:29.180595 17760 net.cpp:91] Creating Layer drop7
I0403 14:51:29.180610 17760 net.cpp:425] drop7 <- fc7
I0403 14:51:29.180627 17760 net.cpp:386] drop7 -> fc7 (in-place)
I0403 14:51:29.180671 17760 net.cpp:141] Setting up drop7
I0403 14:51:29.180693 17760 net.cpp:148] Top shape: 100 4096 (409600)
I0403 14:51:29.180706 17760 net.cpp:156] Memory required for data: 831526000
I0403 14:51:29.180721 17760 layer_factory.hpp:77] Creating layer fc8_plantvillage
I0403 14:51:29.180742 17760 net.cpp:91] Creating Layer fc8_plantvillage
I0403 14:51:29.180757 17760 net.cpp:425] fc8_plantvillage <- fc7
I0403 14:51:29.180773 17760 net.cpp:399] fc8_plantvillage -> fc8_plantvillage
I0403 14:51:29.187314 17760 net.cpp:141] Setting up fc8_plantvillage
I0403 14:51:29.187340 17760 net.cpp:148] Top shape: 100 38 (3800)
I0403 14:51:29.187355 17760 net.cpp:156] Memory required for data: 831541200
I0403 14:51:29.187371 17760 layer_factory.hpp:77] Creating layer fc8_plantvillage_fc8_plantvillage_0_split
I0403 14:51:29.187388 17760 net.cpp:91] Creating Layer fc8_plantvillage_fc8_plantvillage_0_split
I0403 14:51:29.187402 17760 net.cpp:425] fc8_plantvillage_fc8_plantvillage_0_split <- fc8_plantvillage
I0403 14:51:29.187418 17760 net.cpp:399] fc8_plantvillage_fc8_plantvillage_0_split -> fc8_plantvillage_fc8_plantvillage_0_split_0
I0403 14:51:29.187441 17760 net.cpp:399] fc8_plantvillage_fc8_plantvillage_0_split -> fc8_plantvillage_fc8_plantvillage_0_split_1
I0403 14:51:29.187463 17760 net.cpp:399] fc8_plantvillage_fc8_plantvillage_0_split -> fc8_plantvillage_fc8_plantvillage_0_split_2
I0403 14:51:29.187537 17760 net.cpp:141] Setting up fc8_plantvillage_fc8_plantvillage_0_split
I0403 14:51:29.187561 17760 net.cpp:148] Top shape: 100 38 (3800)
I0403 14:51:29.187575 17760 net.cpp:148] Top shape: 100 38 (3800)
I0403 14:51:29.187589 17760 net.cpp:148] Top shape: 100 38 (3800)
I0403 14:51:29.187602 17760 net.cpp:156] Memory required for data: 831586800
I0403 14:51:29.187616 17760 layer_factory.hpp:77] Creating layer prob
I0403 14:51:29.187633 17760 net.cpp:91] Creating Layer prob
I0403 14:51:29.187649 17760 net.cpp:425] prob <- fc8_plantvillage_fc8_plantvillage_0_split_0
I0403 14:51:29.187665 17760 net.cpp:399] prob -> prob
I0403 14:51:29.187882 17760 net.cpp:141] Setting up prob
I0403 14:51:29.187906 17760 net.cpp:148] Top shape: 100 38 (3800)
I0403 14:51:29.187921 17760 net.cpp:156] Memory required for data: 831602000
I0403 14:51:29.187934 17760 layer_factory.hpp:77] Creating layer hdf5out
I0403 14:51:29.187955 17760 net.cpp:91] Creating Layer hdf5out
I0403 14:51:29.187971 17760 net.cpp:425] hdf5out <- prob
I0403 14:51:29.187986 17760 net.cpp:425] hdf5out <- label_data_1_split_0
I0403 14:51:29.190135 17760 net.cpp:141] Setting up hdf5out
…
