…
I0403 08:23:16.000599  8106 net.cpp:313] The NetState phase (0) differed from the phase (1) specified by a rule in layer accuracy
I0403 08:23:16.002243  8106 net.cpp:49] Initializing net from parameters: 
state {
  phase: TRAIN
}
layer {
  name: "data"
  type: "Data"
  top: "data"
  top: "label"
  include {
    phase: TRAIN
  }
  transform_param {
    mirror: true
    crop_size: 227
    mean_file: "/home/mohanty/data/final_dataset/lmdb/grayscale-50-50/mean.binaryproto"
  }
  data_param {
    source: "/home/mohanty/data/final_dataset/lmdb/grayscale-50-50/train_db"
    batch_size: 100
    backend: LMDB
  }
}
layer {
  name: "conv1"
  type: "Convolution"
  bottom: "data"
  top: "conv1"
  param {
    lr_mult: 1
    decay_mult: 1
  }
  param {
    lr_mult: 2
    decay_mult: 0
  }
  convolution_param {
    num_output: 96
    kernel_size: 11
    stride: 4
    weight_filler {
      type: "gaussian"
      std: 0.01
    }
    bias_filler {
      type: "constant"
      value: 0
    }
  }
}
layer {
  name: "relu1"
  type: "ReLU"
  bottom: "conv1"
  top: "conv1"
}
layer {
  name: "norm1"
  type: "LRN"
  bottom: "conv1"
  top: "norm1"
  lrn_param {
    local_size: 5
    alpha: 0.0001
    beta: 0.75
  }
}
layer {
  name: "pool1"
  type: "Pooling"
  bottom: "norm1"
  top: "pool1"
  pooling_param {
    pool: MAX
    kernel_size: 3
    stride: 2
  }
}
layer {
  name: "conv2"
  type: "Convolution"
  bottom: "pool1"
  top: "conv2"
  param {
    lr_mult: 1
    decay_mult: 1
  }
  param {
    lr_mult: 2
    decay_mult: 0
  }
  convolution_param {
    num_output: 256
    pad: 2
    kernel_size: 5
    group: 2
    weight_filler {
      type: "gaussian"
      std: 0.01
    }
    bias_filler {
      type: "constant"
      value: 0.1
    }
  }
}
layer {
  name: "relu2"
  type: "ReLU"
  bottom: "conv2"
  top: "conv2"
}
layer {
  name: "norm2"
  type: "LRN"
  bottom: "conv2"
  top: "norm2"
  lrn_param {
    local_size: 5
    alpha: 0.0001
    beta: 0.75
  }
}
layer {
  name: "pool2"
  type: "Pooling"
  bottom: "norm2"
  top: "pool2"
  pooling_param {
    pool: MAX
    kernel_size: 3
    stride: 2
  }
}
layer {
  name: "conv3"
  type: "Convolution"
  bottom: "pool2"
  top: "conv3"
  param {
    lr_mult: 1
    decay_mult: 1
  }
  param {
    lr_mult: 2
    decay_mult: 0
  }
  convolution_param {
    num_output: 384
    pad: 1
    kernel_size: 3
    weight_filler {
      type: "gaussian"
      std: 0.01
    }
    bias_filler {
      type: "constant"
      value: 0
    }
  }
}
layer {
  name: "relu3"
  type: "ReLU"
  bottom: "conv3"
  top: "conv3"
}
layer {
  name: "conv4"
  type: "Convolution"
  bottom: "conv3"
  top: "conv4"
  param {
    lr_mult: 1
    decay_mult: 1
  }
  param {
    lr_mult: 2
    decay_mult: 0
  }
  convolution_param {
    num_output: 384
    pad: 1
    kernel_size: 3
    group: 2
    weight_filler {
      type: "gaussian"
      std: 0.01
    }
    bias_filler {
      type: "constant"
      value: 0.1
    }
  }
}
layer {
  name: "relu4"
  type: "ReLU"
  bottom: "conv4"
  top: "conv4"
}
layer {
  name: "conv5"
  type: "Convolution"
  bottom: "conv4"
  top: "conv5"
  param {
    lr_mult: 1
    decay_mult: 1
  }
  param {
    lr_mult: 2
    decay_mult: 0
  }
  convolution_param {
    num_output: 256
    pad: 1
    kernel_size: 3
    group: 2
    weight_filler {
      type: "gaussian"
      std: 0.01
    }
    bias_filler {
      type: "constant"
      value: 0.1
    }
  }
}
layer {
  name: "relu5"
  type: "ReLU"
  bottom: "conv5"
  top: "conv5"
}
layer {
  name: "pool5"
  type: "Pooling"
  bottom: "conv5"
  top: "pool5"
  pooling_param {
    pool: MAX
    kernel_size: 3
    stride: 2
  }
}
layer {
  name: "fc6"
  type: "InnerProduct"
  bottom: "pool5"
  top: "fc6"
  param {
    lr_mult: 1
    decay_mult: 1
  }
  param {
    lr_mult: 2
    decay_mult: 0
  }
  inner_product_param {
    num_output: 4096
    weight_filler {
      type: "gaussian"
      std: 0.005
    }
    bias_filler {
      type: "constant"
      value: 0.1
    }
  }
}
layer {
  name: "relu6"
  type: "ReLU"
  bottom: "fc6"
  top: "fc6"
}
layer {
  name: "drop6"
  type: "Dropout"
  bottom: "fc6"
  top: "fc6"
  dropout_param {
    dropout_ratio: 0.5
  }
}
layer {
  name: "fc7"
  type: "InnerProduct"
  bottom: "fc6"
  top: "fc7"
  param {
    lr_mult: 1
    decay_mult: 1
  }
  param {
    lr_mult: 2
    decay_mult: 0
  }
  inner_product_param {
    num_output: 4096
    weight_filler {
      type: "gaussian"
      std: 0.005
    }
    bias_filler {
      type: "constant"
      value: 0.1
    }
  }
}
layer {
  name: "relu7"
  type: "ReLU"
  bottom: "fc7"
  top: "fc7"
}
layer {
  name: "drop7"
  type: "Dropout"
  bottom: "fc7"
  top: "fc7"
  dropout_param {
    dropout_ratio: 0.5
  }
}
layer {
  name: "fc8_plantvillage"
  type: "InnerProduct"
  bottom: "fc7"
  top: "fc8_plantvillage"
  param {
    lr_mult: 1
    decay_mult: 1
  }
  param {
    lr_mult: 2
    decay_mult: 0
  }
  inner_product_param {
    num_output: 38
    weight_filler {
      type: "gaussian"
      std: 0.01
    }
    bias_filler {
      type: "constant"
      value: 0
    }
  }
}
layer {
  name: "loss"
  type: "SoftmaxWithLoss"
  bottom: "fc8_plantvillage"
  bottom: "label"
  top: "loss"
}
I0403 08:23:16.003036  8106 layer_factory.hpp:77] Creating layer data
I0403 08:23:16.004714  8106 net.cpp:91] Creating Layer data
I0403 08:23:16.004802  8106 net.cpp:399] data -> data
I0403 08:23:16.004927  8106 net.cpp:399] data -> label
I0403 08:23:16.005012  8106 data_transformer.cpp:25] Loading mean file from: /home/mohanty/data/final_dataset/lmdb/grayscale-50-50/mean.binaryproto
I0403 08:23:16.069759  8109 db_lmdb.cpp:38] Opened lmdb /home/mohanty/data/final_dataset/lmdb/grayscale-50-50/train_db
I0403 08:23:16.074039  8106 data_layer.cpp:41] output data size: 100,3,227,227
I0403 08:23:16.212666  8106 net.cpp:141] Setting up data
I0403 08:23:16.212770  8106 net.cpp:148] Top shape: 100 3 227 227 (15458700)
I0403 08:23:16.212797  8106 net.cpp:148] Top shape: 100 (100)
I0403 08:23:16.212818  8106 net.cpp:156] Memory required for data: 61835200
I0403 08:23:16.212855  8106 layer_factory.hpp:77] Creating layer conv1
I0403 08:23:16.212908  8106 net.cpp:91] Creating Layer conv1
I0403 08:23:16.212936  8106 net.cpp:425] conv1 <- data
I0403 08:23:16.212975  8106 net.cpp:399] conv1 -> conv1
I0403 08:23:16.216130  8106 net.cpp:141] Setting up conv1
I0403 08:23:16.216167  8106 net.cpp:148] Top shape: 100 96 55 55 (29040000)
I0403 08:23:16.216187  8106 net.cpp:156] Memory required for data: 177995200
I0403 08:23:16.216230  8106 layer_factory.hpp:77] Creating layer relu1
I0403 08:23:16.216264  8106 net.cpp:91] Creating Layer relu1
I0403 08:23:16.216285  8106 net.cpp:425] relu1 <- conv1
I0403 08:23:16.216307  8106 net.cpp:386] relu1 -> conv1 (in-place)
I0403 08:23:16.216336  8106 net.cpp:141] Setting up relu1
I0403 08:23:16.216359  8106 net.cpp:148] Top shape: 100 96 55 55 (29040000)
I0403 08:23:16.216377  8106 net.cpp:156] Memory required for data: 294155200
I0403 08:23:16.216394  8106 layer_factory.hpp:77] Creating layer norm1
I0403 08:23:16.216455  8106 net.cpp:91] Creating Layer norm1
I0403 08:23:16.216476  8106 net.cpp:425] norm1 <- conv1
I0403 08:23:16.216500  8106 net.cpp:399] norm1 -> norm1
I0403 08:23:16.222056  8106 net.cpp:141] Setting up norm1
I0403 08:23:16.222087  8106 net.cpp:148] Top shape: 100 96 55 55 (29040000)
I0403 08:23:16.222105  8106 net.cpp:156] Memory required for data: 410315200
I0403 08:23:16.222123  8106 layer_factory.hpp:77] Creating layer pool1
I0403 08:23:16.222149  8106 net.cpp:91] Creating Layer pool1
I0403 08:23:16.222170  8106 net.cpp:425] pool1 <- norm1
I0403 08:23:16.222192  8106 net.cpp:399] pool1 -> pool1
I0403 08:23:16.222266  8106 net.cpp:141] Setting up pool1
I0403 08:23:16.222296  8106 net.cpp:148] Top shape: 100 96 27 27 (6998400)
I0403 08:23:16.222316  8106 net.cpp:156] Memory required for data: 438308800
I0403 08:23:16.222334  8106 layer_factory.hpp:77] Creating layer conv2
I0403 08:23:16.222362  8106 net.cpp:91] Creating Layer conv2
I0403 08:23:16.222383  8106 net.cpp:425] conv2 <- pool1
I0403 08:23:16.222407  8106 net.cpp:399] conv2 -> conv2
I0403 08:23:16.224184  8110 blocking_queue.cpp:50] Waiting for data
I0403 08:23:16.241509  8106 net.cpp:141] Setting up conv2
I0403 08:23:16.241550  8106 net.cpp:148] Top shape: 100 256 27 27 (18662400)
I0403 08:23:16.241572  8106 net.cpp:156] Memory required for data: 512958400
I0403 08:23:16.241598  8106 layer_factory.hpp:77] Creating layer relu2
I0403 08:23:16.241623  8106 net.cpp:91] Creating Layer relu2
I0403 08:23:16.241644  8106 net.cpp:425] relu2 <- conv2
I0403 08:23:16.241667  8106 net.cpp:386] relu2 -> conv2 (in-place)
I0403 08:23:16.241690  8106 net.cpp:141] Setting up relu2
I0403 08:23:16.241713  8106 net.cpp:148] Top shape: 100 256 27 27 (18662400)
I0403 08:23:16.241730  8106 net.cpp:156] Memory required for data: 587608000
I0403 08:23:16.241749  8106 layer_factory.hpp:77] Creating layer norm2
I0403 08:23:16.241772  8106 net.cpp:91] Creating Layer norm2
I0403 08:23:16.241791  8106 net.cpp:425] norm2 <- conv2
I0403 08:23:16.241813  8106 net.cpp:399] norm2 -> norm2
I0403 08:23:16.241870  8106 net.cpp:141] Setting up norm2
I0403 08:23:16.241897  8106 net.cpp:148] Top shape: 100 256 27 27 (18662400)
I0403 08:23:16.241915  8106 net.cpp:156] Memory required for data: 662257600
I0403 08:23:16.241932  8106 layer_factory.hpp:77] Creating layer pool2
I0403 08:23:16.241957  8106 net.cpp:91] Creating Layer pool2
I0403 08:23:16.241977  8106 net.cpp:425] pool2 <- norm2
I0403 08:23:16.242000  8106 net.cpp:399] pool2 -> pool2
I0403 08:23:16.242053  8106 net.cpp:141] Setting up pool2
I0403 08:23:16.242080  8106 net.cpp:148] Top shape: 100 256 13 13 (4326400)
I0403 08:23:16.242099  8106 net.cpp:156] Memory required for data: 679563200
I0403 08:23:16.242116  8106 layer_factory.hpp:77] Creating layer conv3
I0403 08:23:16.242143  8106 net.cpp:91] Creating Layer conv3
I0403 08:23:16.242164  8106 net.cpp:425] conv3 <- pool2
I0403 08:23:16.242189  8106 net.cpp:399] conv3 -> conv3
I0403 08:23:16.283956  8106 net.cpp:141] Setting up conv3
I0403 08:23:16.283993  8106 net.cpp:148] Top shape: 100 384 13 13 (6489600)
I0403 08:23:16.284013  8106 net.cpp:156] Memory required for data: 705521600
I0403 08:23:16.284040  8106 layer_factory.hpp:77] Creating layer relu3
I0403 08:23:16.284065  8106 net.cpp:91] Creating Layer relu3
I0403 08:23:16.284085  8106 net.cpp:425] relu3 <- conv3
I0403 08:23:16.284106  8106 net.cpp:386] relu3 -> conv3 (in-place)
I0403 08:23:16.284128  8106 net.cpp:141] Setting up relu3
I0403 08:23:16.284149  8106 net.cpp:148] Top shape: 100 384 13 13 (6489600)
I0403 08:23:16.284168  8106 net.cpp:156] Memory required for data: 731480000
I0403 08:23:16.284186  8106 layer_factory.hpp:77] Creating layer conv4
I0403 08:23:16.284214  8106 net.cpp:91] Creating Layer conv4
I0403 08:23:16.284235  8106 net.cpp:425] conv4 <- conv3
I0403 08:23:16.284260  8106 net.cpp:399] conv4 -> conv4
I0403 08:23:16.315706  8106 net.cpp:141] Setting up conv4
I0403 08:23:16.315743  8106 net.cpp:148] Top shape: 100 384 13 13 (6489600)
I0403 08:23:16.315765  8106 net.cpp:156] Memory required for data: 757438400
I0403 08:23:16.315807  8106 layer_factory.hpp:77] Creating layer relu4
I0403 08:23:16.315834  8106 net.cpp:91] Creating Layer relu4
I0403 08:23:16.315853  8106 net.cpp:425] relu4 <- conv4
I0403 08:23:16.315876  8106 net.cpp:386] relu4 -> conv4 (in-place)
I0403 08:23:16.315899  8106 net.cpp:141] Setting up relu4
I0403 08:23:16.315922  8106 net.cpp:148] Top shape: 100 384 13 13 (6489600)
I0403 08:23:16.315939  8106 net.cpp:156] Memory required for data: 783396800
I0403 08:23:16.315958  8106 layer_factory.hpp:77] Creating layer conv5
I0403 08:23:16.315986  8106 net.cpp:91] Creating Layer conv5
I0403 08:23:16.316006  8106 net.cpp:425] conv5 <- conv4
I0403 08:23:16.316030  8106 net.cpp:399] conv5 -> conv5
I0403 08:23:16.337119  8106 net.cpp:141] Setting up conv5
I0403 08:23:16.337157  8106 net.cpp:148] Top shape: 100 256 13 13 (4326400)
I0403 08:23:16.337178  8106 net.cpp:156] Memory required for data: 800702400
I0403 08:23:16.337204  8106 layer_factory.hpp:77] Creating layer relu5
I0403 08:23:16.337229  8106 net.cpp:91] Creating Layer relu5
I0403 08:23:16.337249  8106 net.cpp:425] relu5 <- conv5
I0403 08:23:16.337270  8106 net.cpp:386] relu5 -> conv5 (in-place)
I0403 08:23:16.337294  8106 net.cpp:141] Setting up relu5
I0403 08:23:16.337316  8106 net.cpp:148] Top shape: 100 256 13 13 (4326400)
I0403 08:23:16.337333  8106 net.cpp:156] Memory required for data: 818008000
I0403 08:23:16.337352  8106 layer_factory.hpp:77] Creating layer pool5
I0403 08:23:16.337373  8106 net.cpp:91] Creating Layer pool5
I0403 08:23:16.337393  8106 net.cpp:425] pool5 <- conv5
I0403 08:23:16.337417  8106 net.cpp:399] pool5 -> pool5
I0403 08:23:16.337476  8106 net.cpp:141] Setting up pool5
I0403 08:23:16.337505  8106 net.cpp:148] Top shape: 100 256 6 6 (921600)
I0403 08:23:16.337523  8106 net.cpp:156] Memory required for data: 821694400
I0403 08:23:16.337545  8106 layer_factory.hpp:77] Creating layer fc6
I0403 08:23:16.337582  8106 net.cpp:91] Creating Layer fc6
I0403 08:23:16.337605  8106 net.cpp:425] fc6 <- pool5
I0403 08:23:16.337631  8106 net.cpp:399] fc6 -> fc6
I0403 08:23:17.878368  8106 net.cpp:141] Setting up fc6
I0403 08:23:17.878458  8106 net.cpp:148] Top shape: 100 4096 (409600)
I0403 08:23:17.878474  8106 net.cpp:156] Memory required for data: 823332800
I0403 08:23:17.878497  8106 layer_factory.hpp:77] Creating layer relu6
I0403 08:23:17.878532  8106 net.cpp:91] Creating Layer relu6
I0403 08:23:17.878552  8106 net.cpp:425] relu6 <- fc6
I0403 08:23:17.878572  8106 net.cpp:386] relu6 -> fc6 (in-place)
I0403 08:23:17.878594  8106 net.cpp:141] Setting up relu6
I0403 08:23:17.878612  8106 net.cpp:148] Top shape: 100 4096 (409600)
I0403 08:23:17.878625  8106 net.cpp:156] Memory required for data: 824971200
I0403 08:23:17.878640  8106 layer_factory.hpp:77] Creating layer drop6
I0403 08:23:17.878667  8106 net.cpp:91] Creating Layer drop6
I0403 08:23:17.878684  8106 net.cpp:425] drop6 <- fc6
I0403 08:23:17.878701  8106 net.cpp:386] drop6 -> fc6 (in-place)
I0403 08:23:17.878746  8106 net.cpp:141] Setting up drop6
I0403 08:23:17.878770  8106 net.cpp:148] Top shape: 100 4096 (409600)
I0403 08:23:17.878787  8106 net.cpp:156] Memory required for data: 826609600
I0403 08:23:17.878800  8106 layer_factory.hpp:77] Creating layer fc7
I0403 08:23:17.878821  8106 net.cpp:91] Creating Layer fc7
I0403 08:23:17.878837  8106 net.cpp:425] fc7 <- fc6
I0403 08:23:17.878854  8106 net.cpp:399] fc7 -> fc7
I0403 08:23:18.484287  8106 net.cpp:141] Setting up fc7
I0403 08:23:18.484370  8106 net.cpp:148] Top shape: 100 4096 (409600)
I0403 08:23:18.484387  8106 net.cpp:156] Memory required for data: 828248000
I0403 08:23:18.484410  8106 layer_factory.hpp:77] Creating layer relu7
I0403 08:23:18.484434  8106 net.cpp:91] Creating Layer relu7
I0403 08:23:18.484452  8106 net.cpp:425] relu7 <- fc7
I0403 08:23:18.484472  8106 net.cpp:386] relu7 -> fc7 (in-place)
I0403 08:23:18.484493  8106 net.cpp:141] Setting up relu7
I0403 08:23:18.484520  8106 net.cpp:148] Top shape: 100 4096 (409600)
I0403 08:23:18.484539  8106 net.cpp:156] Memory required for data: 829886400
I0403 08:23:18.484588  8106 layer_factory.hpp:77] Creating layer drop7
I0403 08:23:18.484611  8106 net.cpp:91] Creating Layer drop7
I0403 08:23:18.484629  8106 net.cpp:425] drop7 <- fc7
I0403 08:23:18.484645  8106 net.cpp:386] drop7 -> fc7 (in-place)
I0403 08:23:18.484686  8106 net.cpp:141] Setting up drop7
I0403 08:23:18.484709  8106 net.cpp:148] Top shape: 100 4096 (409600)
I0403 08:23:18.484724  8106 net.cpp:156] Memory required for data: 831524800
I0403 08:23:18.484736  8106 layer_factory.hpp:77] Creating layer fc8_plantvillage
I0403 08:23:18.484756  8106 net.cpp:91] Creating Layer fc8_plantvillage
I0403 08:23:18.484771  8106 net.cpp:425] fc8_plantvillage <- fc7
I0403 08:23:18.484791  8106 net.cpp:399] fc8_plantvillage -> fc8_plantvillage
I0403 08:23:18.490774  8106 net.cpp:141] Setting up fc8_plantvillage
I0403 08:23:18.490804  8106 net.cpp:148] Top shape: 100 38 (3800)
I0403 08:23:18.490820  8106 net.cpp:156] Memory required for data: 831540000
I0403 08:23:18.490839  8106 layer_factory.hpp:77] Creating layer loss
I0403 08:23:18.490862  8106 net.cpp:91] Creating Layer loss
I0403 08:23:18.490880  8106 net.cpp:425] loss <- fc8_plantvillage
I0403 08:23:18.490896  8106 net.cpp:425] loss <- label
I0403 08:23:18.490917  8106 net.cpp:399] loss -> loss
I0403 08:23:18.490943  8106 layer_factory.hpp:77] Creating layer loss
…
I0403 08:23:18.492588  8106 net.cpp:313] The NetState phase (1) differed from the phase (0) specified by a rule in layer data
I0403 08:23:18.493183  8106 net.cpp:49] Initializing net from parameters: 
state {
  phase: TEST
}
layer {
  name: "data"
  type: "Data"
  top: "data"
  top: "label"
  include {
    phase: TEST
  }
  transform_param {
    crop_size: 227
    mean_file: "/home/mohanty/data/final_dataset/lmdb/grayscale-50-50/mean.binaryproto"
  }
  data_param {
    source: "/home/mohanty/data/final_dataset/lmdb/grayscale-50-50/test_db"
    batch_size: 100
    backend: LMDB
  }
}
layer {
  name: "conv1"
  type: "Convolution"
  bottom: "data"
  top: "conv1"
  param {
    lr_mult: 1
    decay_mult: 1
  }
  param {
    lr_mult: 2
    decay_mult: 0
  }
  convolution_param {
    num_output: 96
    kernel_size: 11
    stride: 4
    weight_filler {
      type: "gaussian"
      std: 0.01
    }
    bias_filler {
      type: "constant"
      value: 0
    }
  }
}
layer {
  name: "relu1"
  type: "ReLU"
  bottom: "conv1"
  top: "conv1"
}
layer {
  name: "norm1"
  type: "LRN"
  bottom: "conv1"
  top: "norm1"
  lrn_param {
    local_size: 5
    alpha: 0.0001
    beta: 0.75
  }
}
layer {
  name: "pool1"
  type: "Pooling"
  bottom: "norm1"
  top: "pool1"
  pooling_param {
    pool: MAX
    kernel_size: 3
    stride: 2
  }
}
layer {
  name: "conv2"
  type: "Convolution"
  bottom: "pool1"
  top: "conv2"
  param {
    lr_mult: 1
    decay_mult: 1
  }
  param {
    lr_mult: 2
    decay_mult: 0
  }
  convolution_param {
    num_output: 256
    pad: 2
    kernel_size: 5
    group: 2
    weight_filler {
      type: "gaussian"
      std: 0.01
    }
    bias_filler {
      type: "constant"
      value: 0.1
    }
  }
}
layer {
  name: "relu2"
  type: "ReLU"
  bottom: "conv2"
  top: "conv2"
}
layer {
  name: "norm2"
  type: "LRN"
  bottom: "conv2"
  top: "norm2"
  lrn_param {
    local_size: 5
    alpha: 0.0001
    beta: 0.75
  }
}
layer {
  name: "pool2"
  type: "Pooling"
  bottom: "norm2"
  top: "pool2"
  pooling_param {
    pool: MAX
    kernel_size: 3
    stride: 2
  }
}
layer {
  name: "conv3"
  type: "Convolution"
  bottom: "pool2"
  top: "conv3"
  param {
    lr_mult: 1
    decay_mult: 1
  }
  param {
    lr_mult: 2
    decay_mult: 0
  }
  convolution_param {
    num_output: 384
    pad: 1
    kernel_size: 3
    weight_filler {
      type: "gaussian"
      std: 0.01
    }
    bias_filler {
      type: "constant"
      value: 0
    }
  }
}
layer {
  name: "relu3"
  type: "ReLU"
  bottom: "conv3"
  top: "conv3"
}
layer {
  name: "conv4"
  type: "Convolution"
  bottom: "conv3"
  top: "conv4"
  param {
    lr_mult: 1
    decay_mult: 1
  }
  param {
    lr_mult: 2
    decay_mult: 0
  }
  convolution_param {
    num_output: 384
    pad: 1
    kernel_size: 3
    group: 2
    weight_filler {
      type: "gaussian"
      std: 0.01
    }
    bias_filler {
      type: "constant"
      value: 0.1
    }
  }
}
layer {
  name: "relu4"
  type: "ReLU"
  bottom: "conv4"
  top: "conv4"
}
layer {
  name: "conv5"
  type: "Convolution"
  bottom: "conv4"
  top: "conv5"
  param {
    lr_mult: 1
    decay_mult: 1
  }
  param {
    lr_mult: 2
    decay_mult: 0
  }
  convolution_param {
    num_output: 256
    pad: 1
    kernel_size: 3
    group: 2
    weight_filler {
      type: "gaussian"
      std: 0.01
    }
    bias_filler {
      type: "constant"
      value: 0.1
    }
  }
}
layer {
  name: "relu5"
  type: "ReLU"
  bottom: "conv5"
  top: "conv5"
}
layer {
  name: "pool5"
  type: "Pooling"
  bottom: "conv5"
  top: "pool5"
  pooling_param {
    pool: MAX
    kernel_size: 3
    stride: 2
  }
}
layer {
  name: "fc6"
  type: "InnerProduct"
  bottom: "pool5"
  top: "fc6"
  param {
    lr_mult: 1
    decay_mult: 1
  }
  param {
    lr_mult: 2
    decay_mult: 0
  }
  inner_product_param {
    num_output: 4096
    weight_filler {
      type: "gaussian"
      std: 0.005
    }
    bias_filler {
      type: "constant"
      value: 0.1
    }
  }
}
layer {
  name: "relu6"
  type: "ReLU"
  bottom: "fc6"
  top: "fc6"
}
layer {
  name: "drop6"
  type: "Dropout"
  bottom: "fc6"
  top: "fc6"
  dropout_param {
    dropout_ratio: 0.5
  }
}
layer {
  name: "fc7"
  type: "InnerProduct"
  bottom: "fc6"
  top: "fc7"
  param {
    lr_mult: 1
    decay_mult: 1
  }
  param {
    lr_mult: 2
    decay_mult: 0
  }
  inner_product_param {
    num_output: 4096
    weight_filler {
      type: "gaussian"
      std: 0.005
    }
    bias_filler {
      type: "constant"
      value: 0.1
    }
  }
}
layer {
  name: "relu7"
  type: "ReLU"
  bottom: "fc7"
  top: "fc7"
}
layer {
  name: "drop7"
  type: "Dropout"
  bottom: "fc7"
  top: "fc7"
  dropout_param {
    dropout_ratio: 0.5
  }
}
layer {
  name: "fc8_plantvillage"
  type: "InnerProduct"
  bottom: "fc7"
  top: "fc8_plantvillage"
  param {
    lr_mult: 1
    decay_mult: 1
  }
  param {
    lr_mult: 2
    decay_mult: 0
  }
  inner_product_param {
    num_output: 38
    weight_filler {
      type: "gaussian"
      std: 0.01
    }
    bias_filler {
      type: "constant"
      value: 0
    }
  }
}
layer {
  name: "loss"
  type: "SoftmaxWithLoss"
  bottom: "fc8_plantvillage"
  bottom: "label"
  top: "loss"
}
layer {
  name: "accuracy"
  type: "Accuracy"
  bottom: "fc8_plantvillage"
  bottom: "label"
  top: "accuracy"
  include {
    phase: TEST
  }
}
I0403 08:23:18.493342  8106 layer_factory.hpp:77] Creating layer data
I0403 08:23:18.493502  8106 net.cpp:91] Creating Layer data
I0403 08:23:18.493537  8106 net.cpp:399] data -> data
I0403 08:23:18.493562  8106 net.cpp:399] data -> label
I0403 08:23:18.493587  8106 data_transformer.cpp:25] Loading mean file from: /home/mohanty/data/final_dataset/lmdb/grayscale-50-50/mean.binaryproto
I0403 08:23:18.556053  8111 db_lmdb.cpp:38] Opened lmdb /home/mohanty/data/final_dataset/lmdb/grayscale-50-50/test_db
I0403 08:23:18.562553  8106 data_layer.cpp:41] output data size: 100,3,227,227
I0403 08:23:18.685838  8106 net.cpp:141] Setting up data
I0403 08:23:18.685925  8106 net.cpp:148] Top shape: 100 3 227 227 (15458700)
I0403 08:23:18.685946  8106 net.cpp:148] Top shape: 100 (100)
I0403 08:23:18.685962  8106 net.cpp:156] Memory required for data: 61835200
I0403 08:23:18.685981  8106 layer_factory.hpp:77] Creating layer label_data_1_split
I0403 08:23:18.686012  8106 net.cpp:91] Creating Layer label_data_1_split
I0403 08:23:18.686029  8106 net.cpp:425] label_data_1_split <- label
I0403 08:23:18.686053  8106 net.cpp:399] label_data_1_split -> label_data_1_split_0
I0403 08:23:18.686079  8106 net.cpp:399] label_data_1_split -> label_data_1_split_1
I0403 08:23:18.686138  8106 net.cpp:141] Setting up label_data_1_split
I0403 08:23:18.686163  8106 net.cpp:148] Top shape: 100 (100)
I0403 08:23:18.686182  8106 net.cpp:148] Top shape: 100 (100)
I0403 08:23:18.686197  8106 net.cpp:156] Memory required for data: 61836000
I0403 08:23:18.686213  8106 layer_factory.hpp:77] Creating layer conv1
I0403 08:23:18.686244  8106 net.cpp:91] Creating Layer conv1
I0403 08:23:18.686262  8106 net.cpp:425] conv1 <- data
I0403 08:23:18.686283  8106 net.cpp:399] conv1 -> conv1
I0403 08:23:18.687882  8106 net.cpp:141] Setting up conv1
I0403 08:23:18.687911  8106 net.cpp:148] Top shape: 100 96 55 55 (29040000)
I0403 08:23:18.687928  8106 net.cpp:156] Memory required for data: 177996000
I0403 08:23:18.687953  8106 layer_factory.hpp:77] Creating layer relu1
I0403 08:23:18.687975  8106 net.cpp:91] Creating Layer relu1
I0403 08:23:18.687993  8106 net.cpp:425] relu1 <- conv1
I0403 08:23:18.688011  8106 net.cpp:386] relu1 -> conv1 (in-place)
I0403 08:23:18.688032  8106 net.cpp:141] Setting up relu1
I0403 08:23:18.688051  8106 net.cpp:148] Top shape: 100 96 55 55 (29040000)
I0403 08:23:18.688066  8106 net.cpp:156] Memory required for data: 294156000
I0403 08:23:18.688082  8106 layer_factory.hpp:77] Creating layer norm1
I0403 08:23:18.688103  8106 net.cpp:91] Creating Layer norm1
I0403 08:23:18.688120  8106 net.cpp:425] norm1 <- conv1
I0403 08:23:18.688139  8106 net.cpp:399] norm1 -> norm1
I0403 08:23:18.694330  8106 net.cpp:141] Setting up norm1
I0403 08:23:18.694365  8106 net.cpp:148] Top shape: 100 96 55 55 (29040000)
I0403 08:23:18.694383  8106 net.cpp:156] Memory required for data: 410316000
I0403 08:23:18.694399  8106 layer_factory.hpp:77] Creating layer pool1
I0403 08:23:18.694421  8106 net.cpp:91] Creating Layer pool1
I0403 08:23:18.694437  8106 net.cpp:425] pool1 <- norm1
I0403 08:23:18.694455  8106 net.cpp:399] pool1 -> pool1
I0403 08:23:18.694505  8106 net.cpp:141] Setting up pool1
I0403 08:23:18.694535  8106 net.cpp:148] Top shape: 100 96 27 27 (6998400)
I0403 08:23:18.694550  8106 net.cpp:156] Memory required for data: 438309600
I0403 08:23:18.694588  8106 layer_factory.hpp:77] Creating layer conv2
I0403 08:23:18.694726  8106 net.cpp:91] Creating Layer conv2
I0403 08:23:18.694747  8106 net.cpp:425] conv2 <- pool1
I0403 08:23:18.694769  8106 net.cpp:399] conv2 -> conv2
I0403 08:23:18.706923  8106 net.cpp:141] Setting up conv2
I0403 08:23:18.706954  8106 net.cpp:148] Top shape: 100 256 27 27 (18662400)
I0403 08:23:18.706970  8106 net.cpp:156] Memory required for data: 512959200
I0403 08:23:18.706991  8106 layer_factory.hpp:77] Creating layer relu2
I0403 08:23:18.707011  8106 net.cpp:91] Creating Layer relu2
I0403 08:23:18.707028  8106 net.cpp:425] relu2 <- conv2
I0403 08:23:18.707046  8106 net.cpp:386] relu2 -> conv2 (in-place)
I0403 08:23:18.707067  8106 net.cpp:141] Setting up relu2
I0403 08:23:18.707084  8106 net.cpp:148] Top shape: 100 256 27 27 (18662400)
I0403 08:23:18.707098  8106 net.cpp:156] Memory required for data: 587608800
I0403 08:23:18.707113  8106 layer_factory.hpp:77] Creating layer norm2
I0403 08:23:18.707131  8106 net.cpp:91] Creating Layer norm2
I0403 08:23:18.707149  8106 net.cpp:425] norm2 <- conv2
I0403 08:23:18.707167  8106 net.cpp:399] norm2 -> norm2
I0403 08:23:18.707216  8106 net.cpp:141] Setting up norm2
I0403 08:23:18.707238  8106 net.cpp:148] Top shape: 100 256 27 27 (18662400)
I0403 08:23:18.707253  8106 net.cpp:156] Memory required for data: 662258400
I0403 08:23:18.707268  8106 layer_factory.hpp:77] Creating layer pool2
I0403 08:23:18.707288  8106 net.cpp:91] Creating Layer pool2
I0403 08:23:18.707304  8106 net.cpp:425] pool2 <- norm2
I0403 08:23:18.707321  8106 net.cpp:399] pool2 -> pool2
I0403 08:23:18.707376  8106 net.cpp:141] Setting up pool2
I0403 08:23:18.707403  8106 net.cpp:148] Top shape: 100 256 13 13 (4326400)
I0403 08:23:18.707425  8106 net.cpp:156] Memory required for data: 679564000
I0403 08:23:18.707443  8106 layer_factory.hpp:77] Creating layer conv3
I0403 08:23:18.707474  8106 net.cpp:91] Creating Layer conv3
I0403 08:23:18.707500  8106 net.cpp:425] conv3 <- pool2
I0403 08:23:18.707536  8106 net.cpp:399] conv3 -> conv3
I0403 08:23:18.742657  8106 net.cpp:141] Setting up conv3
I0403 08:23:18.757766  8106 net.cpp:148] Top shape: 100 384 13 13 (6489600)
I0403 08:23:18.757802  8106 net.cpp:156] Memory required for data: 705522400
I0403 08:23:18.757836  8106 layer_factory.hpp:77] Creating layer relu3
I0403 08:23:18.757863  8106 net.cpp:91] Creating Layer relu3
I0403 08:23:18.757882  8106 net.cpp:425] relu3 <- conv3
I0403 08:23:18.757905  8106 net.cpp:386] relu3 -> conv3 (in-place)
I0403 08:23:18.757930  8106 net.cpp:141] Setting up relu3
I0403 08:23:18.757948  8106 net.cpp:148] Top shape: 100 384 13 13 (6489600)
I0403 08:23:18.757964  8106 net.cpp:156] Memory required for data: 731480800
I0403 08:23:18.757979  8106 layer_factory.hpp:77] Creating layer conv4
I0403 08:23:18.758007  8106 net.cpp:91] Creating Layer conv4
I0403 08:23:18.758023  8106 net.cpp:425] conv4 <- conv3
I0403 08:23:18.758044  8106 net.cpp:399] conv4 -> conv4
I0403 08:23:18.786252  8106 net.cpp:141] Setting up conv4
I0403 08:23:18.786299  8106 net.cpp:148] Top shape: 100 384 13 13 (6489600)
I0403 08:23:18.786317  8106 net.cpp:156] Memory required for data: 757439200
I0403 08:23:18.786339  8106 layer_factory.hpp:77] Creating layer relu4
I0403 08:23:18.786360  8106 net.cpp:91] Creating Layer relu4
I0403 08:23:18.786377  8106 net.cpp:425] relu4 <- conv4
I0403 08:23:18.786398  8106 net.cpp:386] relu4 -> conv4 (in-place)
I0403 08:23:18.786420  8106 net.cpp:141] Setting up relu4
I0403 08:23:18.786440  8106 net.cpp:148] Top shape: 100 384 13 13 (6489600)
I0403 08:23:18.786455  8106 net.cpp:156] Memory required for data: 783397600
I0403 08:23:18.786471  8106 layer_factory.hpp:77] Creating layer conv5
I0403 08:23:18.786496  8106 net.cpp:91] Creating Layer conv5
I0403 08:23:18.786519  8106 net.cpp:425] conv5 <- conv4
I0403 08:23:18.786541  8106 net.cpp:399] conv5 -> conv5
I0403 08:23:18.805126  8106 net.cpp:141] Setting up conv5
I0403 08:23:18.805160  8106 net.cpp:148] Top shape: 100 256 13 13 (4326400)
I0403 08:23:18.805210  8106 net.cpp:156] Memory required for data: 800703200
I0403 08:23:18.805236  8106 layer_factory.hpp:77] Creating layer relu5
I0403 08:23:18.805259  8106 net.cpp:91] Creating Layer relu5
I0403 08:23:18.805277  8106 net.cpp:425] relu5 <- conv5
I0403 08:23:18.805297  8106 net.cpp:386] relu5 -> conv5 (in-place)
I0403 08:23:18.805320  8106 net.cpp:141] Setting up relu5
I0403 08:23:18.805340  8106 net.cpp:148] Top shape: 100 256 13 13 (4326400)
I0403 08:23:18.805356  8106 net.cpp:156] Memory required for data: 818008800
I0403 08:23:18.805371  8106 layer_factory.hpp:77] Creating layer pool5
I0403 08:23:18.805397  8106 net.cpp:91] Creating Layer pool5
I0403 08:23:18.805416  8106 net.cpp:425] pool5 <- conv5
I0403 08:23:18.805438  8106 net.cpp:399] pool5 -> pool5
I0403 08:23:18.805495  8106 net.cpp:141] Setting up pool5
I0403 08:23:18.805588  8106 net.cpp:148] Top shape: 100 256 6 6 (921600)
I0403 08:23:18.805611  8106 net.cpp:156] Memory required for data: 821695200
I0403 08:23:18.805629  8106 layer_factory.hpp:77] Creating layer fc6
I0403 08:23:18.805655  8106 net.cpp:91] Creating Layer fc6
I0403 08:23:18.805675  8106 net.cpp:425] fc6 <- pool5
I0403 08:23:18.805696  8106 net.cpp:399] fc6 -> fc6
I0403 08:23:20.195515  8106 net.cpp:141] Setting up fc6
I0403 08:23:20.195601  8106 net.cpp:148] Top shape: 100 4096 (409600)
I0403 08:23:20.195621  8106 net.cpp:156] Memory required for data: 823333600
I0403 08:23:20.195642  8106 layer_factory.hpp:77] Creating layer relu6
I0403 08:23:20.195670  8106 net.cpp:91] Creating Layer relu6
I0403 08:23:20.195689  8106 net.cpp:425] relu6 <- fc6
I0403 08:23:20.195709  8106 net.cpp:386] relu6 -> fc6 (in-place)
I0403 08:23:20.195732  8106 net.cpp:141] Setting up relu6
I0403 08:23:20.195749  8106 net.cpp:148] Top shape: 100 4096 (409600)
I0403 08:23:20.195763  8106 net.cpp:156] Memory required for data: 824972000
I0403 08:23:20.195777  8106 layer_factory.hpp:77] Creating layer drop6
I0403 08:23:20.195802  8106 net.cpp:91] Creating Layer drop6
I0403 08:23:20.195819  8106 net.cpp:425] drop6 <- fc6
I0403 08:23:20.195837  8106 net.cpp:386] drop6 -> fc6 (in-place)
I0403 08:23:20.195874  8106 net.cpp:141] Setting up drop6
I0403 08:23:20.195899  8106 net.cpp:148] Top shape: 100 4096 (409600)
I0403 08:23:20.195914  8106 net.cpp:156] Memory required for data: 826610400
I0403 08:23:20.195929  8106 layer_factory.hpp:77] Creating layer fc7
I0403 08:23:20.195950  8106 net.cpp:91] Creating Layer fc7
I0403 08:23:20.195966  8106 net.cpp:425] fc7 <- fc6
I0403 08:23:20.195983  8106 net.cpp:399] fc7 -> fc7
I0403 08:23:20.799024  8106 net.cpp:141] Setting up fc7
I0403 08:23:20.799108  8106 net.cpp:148] Top shape: 100 4096 (409600)
I0403 08:23:20.799124  8106 net.cpp:156] Memory required for data: 828248800
I0403 08:23:20.799146  8106 layer_factory.hpp:77] Creating layer relu7
I0403 08:23:20.799171  8106 net.cpp:91] Creating Layer relu7
I0403 08:23:20.799190  8106 net.cpp:425] relu7 <- fc7
I0403 08:23:20.799211  8106 net.cpp:386] relu7 -> fc7 (in-place)
I0403 08:23:20.799233  8106 net.cpp:141] Setting up relu7
I0403 08:23:20.799250  8106 net.cpp:148] Top shape: 100 4096 (409600)
I0403 08:23:20.799264  8106 net.cpp:156] Memory required for data: 829887200
I0403 08:23:20.799278  8106 layer_factory.hpp:77] Creating layer drop7
I0403 08:23:20.799299  8106 net.cpp:91] Creating Layer drop7
I0403 08:23:20.799316  8106 net.cpp:425] drop7 <- fc7
I0403 08:23:20.799332  8106 net.cpp:386] drop7 -> fc7 (in-place)
I0403 08:23:20.799374  8106 net.cpp:141] Setting up drop7
I0403 08:23:20.799396  8106 net.cpp:148] Top shape: 100 4096 (409600)
I0403 08:23:20.799410  8106 net.cpp:156] Memory required for data: 831525600
I0403 08:23:20.799425  8106 layer_factory.hpp:77] Creating layer fc8_plantvillage
I0403 08:23:20.799446  8106 net.cpp:91] Creating Layer fc8_plantvillage
I0403 08:23:20.799461  8106 net.cpp:425] fc8_plantvillage <- fc7
I0403 08:23:20.799481  8106 net.cpp:399] fc8_plantvillage -> fc8_plantvillage
I0403 08:23:20.805639  8106 net.cpp:141] Setting up fc8_plantvillage
I0403 08:23:20.805668  8106 net.cpp:148] Top shape: 100 38 (3800)
I0403 08:23:20.805716  8106 net.cpp:156] Memory required for data: 831540800
I0403 08:23:20.805735  8106 layer_factory.hpp:77] Creating layer fc8_plantvillage_fc8_plantvillage_0_split
I0403 08:23:20.805755  8106 net.cpp:91] Creating Layer fc8_plantvillage_fc8_plantvillage_0_split
I0403 08:23:20.805771  8106 net.cpp:425] fc8_plantvillage_fc8_plantvillage_0_split <- fc8_plantvillage
I0403 08:23:20.805788  8106 net.cpp:399] fc8_plantvillage_fc8_plantvillage_0_split -> fc8_plantvillage_fc8_plantvillage_0_split_0
I0403 08:23:20.805807  8106 net.cpp:399] fc8_plantvillage_fc8_plantvillage_0_split -> fc8_plantvillage_fc8_plantvillage_0_split_1
I0403 08:23:20.805856  8106 net.cpp:141] Setting up fc8_plantvillage_fc8_plantvillage_0_split
I0403 08:23:20.805879  8106 net.cpp:148] Top shape: 100 38 (3800)
I0403 08:23:20.805896  8106 net.cpp:148] Top shape: 100 38 (3800)
I0403 08:23:20.805908  8106 net.cpp:156] Memory required for data: 831571200
I0403 08:23:20.805922  8106 layer_factory.hpp:77] Creating layer loss
I0403 08:23:20.805939  8106 net.cpp:91] Creating Layer loss
I0403 08:23:20.805955  8106 net.cpp:425] loss <- fc8_plantvillage_fc8_plantvillage_0_split_0
I0403 08:23:20.805971  8106 net.cpp:425] loss <- label_data_1_split_0
I0403 08:23:20.805990  8106 net.cpp:399] loss -> loss
…
