…
I0403 14:37:14.433989 10885 net.cpp:313] The NetState phase (1) differed from the phase (0) specified by a rule in layer data
I0403 14:37:14.434295 10885 net.cpp:49] Initializing net from parameters: 
state {
  phase: TEST
}
layer {
  name: "data"
  type: "Data"
  top: "data"
  top: "label"
  include {
    phase: TEST
  }
  transform_param {
    crop_size: 227
    mean_file: "/home/mohanty/data/final_dataset/lmdb/grayscale-50-50/mean.binaryproto"
  }
  data_param {
    source: "/home/mohanty/data/final_dataset/lmdb/grayscale-50-50/test_db"
    batch_size: 100
    backend: LMDB
  }
}
layer {
  name: "conv1"
  type: "Convolution"
  bottom: "data"
  top: "conv1"
  param {
    lr_mult: 1
    decay_mult: 1
  }
  param {
    lr_mult: 2
    decay_mult: 0
  }
  convolution_param {
    num_output: 96
    kernel_size: 11
    stride: 4
    weight_filler {
      type: "gaussian"
      std: 0.01
    }
    bias_filler {
      type: "constant"
      value: 0
    }
  }
}
layer {
  name: "relu1"
  type: "ReLU"
  bottom: "conv1"
  top: "conv1"
}
layer {
  name: "norm1"
  type: "LRN"
  bottom: "conv1"
  top: "norm1"
  lrn_param {
    local_size: 5
    alpha: 0.0001
    beta: 0.75
  }
}
layer {
  name: "pool1"
  type: "Pooling"
  bottom: "norm1"
  top: "pool1"
  pooling_param {
    pool: MAX
    kernel_size: 3
    stride: 2
  }
}
layer {
  name: "conv2"
  type: "Convolution"
  bottom: "pool1"
  top: "conv2"
  param {
    lr_mult: 1
    decay_mult: 1
  }
  param {
    lr_mult: 2
    decay_mult: 0
  }
  convolution_param {
    num_output: 256
    pad: 2
    kernel_size: 5
    group: 2
    weight_filler {
      type: "gaussian"
      std: 0.01
    }
    bias_filler {
      type: "constant"
      value: 0.1
    }
  }
}
layer {
  name: "relu2"
  type: "ReLU"
  bottom: "conv2"
  top: "conv2"
}
layer {
  name: "norm2"
  type: "LRN"
  bottom: "conv2"
  top: "norm2"
  lrn_param {
    local_size: 5
    alpha: 0.0001
    beta: 0.75
  }
}
layer {
  name: "pool2"
  type: "Pooling"
  bottom: "norm2"
  top: "pool2"
  pooling_param {
    pool: MAX
    kernel_size: 3
    stride: 2
  }
}
layer {
  name: "conv3"
  type: "Convolution"
  bottom: "pool2"
  top: "conv3"
  param {
    lr_mult: 1
    decay_mult: 1
  }
  param {
    lr_mult: 2
    decay_mult: 0
  }
  convolution_param {
    num_output: 384
    pad: 1
    kernel_size: 3
    weight_filler {
      type: "gaussian"
      std: 0.01
    }
    bias_filler {
      type: "constant"
      value: 0
    }
  }
}
layer {
  name: "relu3"
  type: "ReLU"
  bottom: "conv3"
  top: "conv3"
}
layer {
  name: "conv4"
  type: "Convolution"
  bottom: "conv3"
  top: "conv4"
  param {
    lr_mult: 1
    decay_mult: 1
  }
  param {
    lr_mult: 2
    decay_mult: 0
  }
  convolution_param {
    num_output: 384
    pad: 1
    kernel_size: 3
    group: 2
    weight_filler {
      type: "gaussian"
      std: 0.01
    }
    bias_filler {
      type: "constant"
      value: 0.1
    }
  }
}
layer {
  name: "relu4"
  type: "ReLU"
  bottom: "conv4"
  top: "conv4"
}
layer {
  name: "conv5"
  type: "Convolution"
  bottom: "conv4"
  top: "conv5"
  param {
    lr_mult: 1
    decay_mult: 1
  }
  param {
    lr_mult: 2
    decay_mult: 0
  }
  convolution_param {
    num_output: 256
    pad: 1
    kernel_size: 3
    group: 2
    weight_filler {
      type: "gaussian"
      std: 0.01
    }
    bias_filler {
      type: "constant"
      value: 0.1
    }
  }
}
layer {
  name: "relu5"
  type: "ReLU"
  bottom: "conv5"
  top: "conv5"
}
layer {
  name: "pool5"
  type: "Pooling"
  bottom: "conv5"
  top: "pool5"
  pooling_param {
    pool: MAX
    kernel_size: 3
    stride: 2
  }
}
layer {
  name: "fc6"
  type: "InnerProduct"
  bottom: "pool5"
  top: "fc6"
  param {
    lr_mult: 1
    decay_mult: 1
  }
  param {
    lr_mult: 2
    decay_mult: 0
  }
  inner_product_param {
    num_output: 4096
    weight_filler {
      type: "gaussian"
      std: 0.005
    }
    bias_filler {
      type: "constant"
      value: 0.1
    }
  }
}
layer {
  name: "relu6"
  type: "ReLU"
  bottom: "fc6"
  top: "fc6"
}
layer {
  name: "drop6"
  type: "Dropout"
  bottom: "fc6"
  top: "fc6"
  dropout_param {
    dropout_ratio: 0.5
  }
}
layer {
  name: "fc7"
  type: "InnerProduct"
  bottom: "fc6"
  top: "fc7"
  param {
    lr_mult: 1
    decay_mult: 1
  }
  param {
    lr_mult: 2
    decay_mult: 0
  }
  inner_product_param {
    num_output: 4096
    weight_filler {
      type: "gaussian"
      std: 0.005
    }
    bias_filler {
      type: "constant"
      value: 0.1
    }
  }
}
layer {
  name: "relu7"
  type: "ReLU"
  bottom: "fc7"
  top: "fc7"
}
layer {
  name: "drop7"
  type: "Dropout"
  bottom: "fc7"
  top: "fc7"
  dropout_param {
    dropout_ratio: 0.5
  }
}
layer {
  name: "fc8_plantvillage"
  type: "InnerProduct"
  bottom: "fc7"
  top: "fc8_plantvillage"
  param {
    lr_mult: 1
    decay_mult: 1
  }
  param {
    lr_mult: 2
    decay_mult: 0
  }
  inner_product_param {
    num_output: 38
    weight_filler {
      type: "gaussian"
      std: 0.01
    }
    bias_filler {
      type: "constant"
      value: 0
    }
  }
}
layer {
  name: "prob"
  type: "Softmax"
  bottom: "fc8_plantvillage"
  top: "prob"
  include {
    phase: TEST
  }
}
layer {
  name: "hdf5out"
  type: "HDF5Output"
  bottom: "prob"
  bottom: "label"
  include {
    phase: TEST
  }
  hdf5_output_param {
    file_name: "hdf5_dumps/iter_801.h5"
  }
}
layer {
  name: "loss"
  type: "SoftmaxWithLoss"
  bottom: "fc8_plantvillage"
  bottom: "label"
  top: "loss"
}
layer {
  name: "accuracy"
  type: "Accuracy"
  bottom: "fc8_plantvillage"
  bottom: "label"
  top: "accuracy"
  include {
    phase: TEST
  }
}
I0403 14:37:14.434841 10885 layer_factory.hpp:77] Creating layer data
I0403 14:37:14.435469 10885 net.cpp:91] Creating Layer data
I0403 14:37:14.435498 10885 net.cpp:399] data -> data
I0403 14:37:14.435550 10885 net.cpp:399] data -> label
I0403 14:37:14.435586 10885 data_transformer.cpp:25] Loading mean file from: /home/mohanty/data/final_dataset/lmdb/grayscale-50-50/mean.binaryproto
I0403 14:37:14.438475 10891 db_lmdb.cpp:38] Opened lmdb /home/mohanty/data/final_dataset/lmdb/grayscale-50-50/test_db
I0403 14:37:14.449728 10885 data_layer.cpp:41] output data size: 100,3,227,227
I0403 14:37:14.567512 10885 net.cpp:141] Setting up data
I0403 14:37:14.567582 10885 net.cpp:148] Top shape: 100 3 227 227 (15458700)
I0403 14:37:14.567606 10885 net.cpp:148] Top shape: 100 (100)
I0403 14:37:14.567622 10885 net.cpp:156] Memory required for data: 61835200
I0403 14:37:14.567651 10885 layer_factory.hpp:77] Creating layer label_data_1_split
I0403 14:37:14.567677 10885 net.cpp:91] Creating Layer label_data_1_split
I0403 14:37:14.567695 10885 net.cpp:425] label_data_1_split <- label
I0403 14:37:14.567728 10885 net.cpp:399] label_data_1_split -> label_data_1_split_0
I0403 14:37:14.567755 10885 net.cpp:399] label_data_1_split -> label_data_1_split_1
I0403 14:37:14.567778 10885 net.cpp:399] label_data_1_split -> label_data_1_split_2
I0403 14:37:14.567843 10885 net.cpp:141] Setting up label_data_1_split
I0403 14:37:14.567867 10885 net.cpp:148] Top shape: 100 (100)
I0403 14:37:14.567884 10885 net.cpp:148] Top shape: 100 (100)
I0403 14:37:14.567901 10885 net.cpp:148] Top shape: 100 (100)
I0403 14:37:14.567915 10885 net.cpp:156] Memory required for data: 61836400
I0403 14:37:14.567931 10885 layer_factory.hpp:77] Creating layer conv1
I0403 14:37:14.567962 10885 net.cpp:91] Creating Layer conv1
I0403 14:37:14.567984 10885 net.cpp:425] conv1 <- data
I0403 14:37:14.568004 10885 net.cpp:399] conv1 -> conv1
I0403 14:37:14.713002 10885 net.cpp:141] Setting up conv1
I0403 14:37:14.713045 10885 net.cpp:148] Top shape: 100 96 55 55 (29040000)
I0403 14:37:14.713063 10885 net.cpp:156] Memory required for data: 177996400
I0403 14:37:14.713095 10885 layer_factory.hpp:77] Creating layer relu1
I0403 14:37:14.713122 10885 net.cpp:91] Creating Layer relu1
I0403 14:37:14.713142 10885 net.cpp:425] relu1 <- conv1
I0403 14:37:14.713168 10885 net.cpp:386] relu1 -> conv1 (in-place)
I0403 14:37:14.713428 10885 net.cpp:141] Setting up relu1
I0403 14:37:14.713455 10885 net.cpp:148] Top shape: 100 96 55 55 (29040000)
I0403 14:37:14.713505 10885 net.cpp:156] Memory required for data: 294156400
I0403 14:37:14.713522 10885 layer_factory.hpp:77] Creating layer norm1
I0403 14:37:14.713551 10885 net.cpp:91] Creating Layer norm1
I0403 14:37:14.713569 10885 net.cpp:425] norm1 <- conv1
I0403 14:37:14.713588 10885 net.cpp:399] norm1 -> norm1
I0403 14:37:14.713894 10885 net.cpp:141] Setting up norm1
I0403 14:37:14.713923 10885 net.cpp:148] Top shape: 100 96 55 55 (29040000)
I0403 14:37:14.713939 10885 net.cpp:156] Memory required for data: 410316400
I0403 14:37:14.713955 10885 layer_factory.hpp:77] Creating layer pool1
I0403 14:37:14.713979 10885 net.cpp:91] Creating Layer pool1
I0403 14:37:14.713997 10885 net.cpp:425] pool1 <- norm1
I0403 14:37:14.714016 10885 net.cpp:399] pool1 -> pool1
I0403 14:37:14.714083 10885 net.cpp:141] Setting up pool1
I0403 14:37:14.714110 10885 net.cpp:148] Top shape: 100 96 27 27 (6998400)
I0403 14:37:14.714128 10885 net.cpp:156] Memory required for data: 438310000
I0403 14:37:14.714143 10885 layer_factory.hpp:77] Creating layer conv2
I0403 14:37:14.714172 10885 net.cpp:91] Creating Layer conv2
I0403 14:37:14.714191 10885 net.cpp:425] conv2 <- pool1
I0403 14:37:14.714259 10885 net.cpp:399] conv2 -> conv2
I0403 14:37:14.729528 10885 net.cpp:141] Setting up conv2
I0403 14:37:14.729581 10885 net.cpp:148] Top shape: 100 256 27 27 (18662400)
I0403 14:37:14.729599 10885 net.cpp:156] Memory required for data: 512959600
I0403 14:37:14.729624 10885 layer_factory.hpp:77] Creating layer relu2
I0403 14:37:14.729645 10885 net.cpp:91] Creating Layer relu2
I0403 14:37:14.729661 10885 net.cpp:425] relu2 <- conv2
I0403 14:37:14.729682 10885 net.cpp:386] relu2 -> conv2 (in-place)
I0403 14:37:14.729997 10885 net.cpp:141] Setting up relu2
I0403 14:37:14.730026 10885 net.cpp:148] Top shape: 100 256 27 27 (18662400)
I0403 14:37:14.730042 10885 net.cpp:156] Memory required for data: 587609200
I0403 14:37:14.730058 10885 layer_factory.hpp:77] Creating layer norm2
I0403 14:37:14.730082 10885 net.cpp:91] Creating Layer norm2
I0403 14:37:14.730101 10885 net.cpp:425] norm2 <- conv2
I0403 14:37:14.730123 10885 net.cpp:399] norm2 -> norm2
I0403 14:37:14.730334 10885 net.cpp:141] Setting up norm2
I0403 14:37:14.730362 10885 net.cpp:148] Top shape: 100 256 27 27 (18662400)
I0403 14:37:14.730378 10885 net.cpp:156] Memory required for data: 662258800
I0403 14:37:14.730394 10885 layer_factory.hpp:77] Creating layer pool2
I0403 14:37:14.730413 10885 net.cpp:91] Creating Layer pool2
I0403 14:37:14.730429 10885 net.cpp:425] pool2 <- norm2
I0403 14:37:14.730449 10885 net.cpp:399] pool2 -> pool2
I0403 14:37:14.730504 10885 net.cpp:141] Setting up pool2
I0403 14:37:14.730530 10885 net.cpp:148] Top shape: 100 256 13 13 (4326400)
I0403 14:37:14.730545 10885 net.cpp:156] Memory required for data: 679564400
I0403 14:37:14.730561 10885 layer_factory.hpp:77] Creating layer conv3
I0403 14:37:14.730587 10885 net.cpp:91] Creating Layer conv3
I0403 14:37:14.730604 10885 net.cpp:425] conv3 <- pool2
I0403 14:37:14.730623 10885 net.cpp:399] conv3 -> conv3
I0403 14:37:14.769289 10885 net.cpp:141] Setting up conv3
I0403 14:37:14.769368 10885 net.cpp:148] Top shape: 100 384 13 13 (6489600)
I0403 14:37:14.769387 10885 net.cpp:156] Memory required for data: 705522800
I0403 14:37:14.769412 10885 layer_factory.hpp:77] Creating layer relu3
I0403 14:37:14.769438 10885 net.cpp:91] Creating Layer relu3
I0403 14:37:14.769456 10885 net.cpp:425] relu3 <- conv3
I0403 14:37:14.769474 10885 net.cpp:386] relu3 -> conv3 (in-place)
I0403 14:37:14.769742 10885 net.cpp:141] Setting up relu3
I0403 14:37:14.769768 10885 net.cpp:148] Top shape: 100 384 13 13 (6489600)
I0403 14:37:14.769784 10885 net.cpp:156] Memory required for data: 731481200
I0403 14:37:14.769799 10885 layer_factory.hpp:77] Creating layer conv4
I0403 14:37:14.769825 10885 net.cpp:91] Creating Layer conv4
I0403 14:37:14.769843 10885 net.cpp:425] conv4 <- conv3
I0403 14:37:14.769865 10885 net.cpp:399] conv4 -> conv4
I0403 14:37:14.799513 10885 net.cpp:141] Setting up conv4
I0403 14:37:14.799551 10885 net.cpp:148] Top shape: 100 384 13 13 (6489600)
I0403 14:37:14.799599 10885 net.cpp:156] Memory required for data: 757439600
I0403 14:37:14.799623 10885 layer_factory.hpp:77] Creating layer relu4
I0403 14:37:14.799643 10885 net.cpp:91] Creating Layer relu4
I0403 14:37:14.799659 10885 net.cpp:425] relu4 <- conv4
I0403 14:37:14.799681 10885 net.cpp:386] relu4 -> conv4 (in-place)
I0403 14:37:14.800042 10885 net.cpp:141] Setting up relu4
I0403 14:37:14.800073 10885 net.cpp:148] Top shape: 100 384 13 13 (6489600)
I0403 14:37:14.800091 10885 net.cpp:156] Memory required for data: 783398000
I0403 14:37:14.800107 10885 layer_factory.hpp:77] Creating layer conv5
I0403 14:37:14.800130 10885 net.cpp:91] Creating Layer conv5
I0403 14:37:14.800149 10885 net.cpp:425] conv5 <- conv4
I0403 14:37:14.800179 10885 net.cpp:399] conv5 -> conv5
I0403 14:37:14.821208 10885 net.cpp:141] Setting up conv5
I0403 14:37:14.821266 10885 net.cpp:148] Top shape: 100 256 13 13 (4326400)
I0403 14:37:14.821283 10885 net.cpp:156] Memory required for data: 800703600
I0403 14:37:14.821308 10885 layer_factory.hpp:77] Creating layer relu5
I0403 14:37:14.821331 10885 net.cpp:91] Creating Layer relu5
I0403 14:37:14.821347 10885 net.cpp:425] relu5 <- conv5
I0403 14:37:14.821368 10885 net.cpp:386] relu5 -> conv5 (in-place)
I0403 14:37:14.821650 10885 net.cpp:141] Setting up relu5
I0403 14:37:14.821678 10885 net.cpp:148] Top shape: 100 256 13 13 (4326400)
I0403 14:37:14.821696 10885 net.cpp:156] Memory required for data: 818009200
I0403 14:37:14.821712 10885 layer_factory.hpp:77] Creating layer pool5
I0403 14:37:14.821737 10885 net.cpp:91] Creating Layer pool5
I0403 14:37:14.821755 10885 net.cpp:425] pool5 <- conv5
I0403 14:37:14.821774 10885 net.cpp:399] pool5 -> pool5
I0403 14:37:14.821841 10885 net.cpp:141] Setting up pool5
I0403 14:37:14.821866 10885 net.cpp:148] Top shape: 100 256 6 6 (921600)
I0403 14:37:14.821882 10885 net.cpp:156] Memory required for data: 821695600
I0403 14:37:14.821897 10885 layer_factory.hpp:77] Creating layer fc6
I0403 14:37:14.821926 10885 net.cpp:91] Creating Layer fc6
I0403 14:37:14.821946 10885 net.cpp:425] fc6 <- pool5
I0403 14:37:14.821965 10885 net.cpp:399] fc6 -> fc6
I0403 14:37:16.394824 10885 net.cpp:141] Setting up fc6
I0403 14:37:16.394904 10885 net.cpp:148] Top shape: 100 4096 (409600)
I0403 14:37:16.394922 10885 net.cpp:156] Memory required for data: 823334000
I0403 14:37:16.394943 10885 layer_factory.hpp:77] Creating layer relu6
I0403 14:37:16.394966 10885 net.cpp:91] Creating Layer relu6
I0403 14:37:16.394984 10885 net.cpp:425] relu6 <- fc6
I0403 14:37:16.395005 10885 net.cpp:386] relu6 -> fc6 (in-place)
I0403 14:37:16.395231 10885 net.cpp:141] Setting up relu6
I0403 14:37:16.395257 10885 net.cpp:148] Top shape: 100 4096 (409600)
I0403 14:37:16.395273 10885 net.cpp:156] Memory required for data: 824972400
I0403 14:37:16.395289 10885 layer_factory.hpp:77] Creating layer drop6
I0403 14:37:16.395309 10885 net.cpp:91] Creating Layer drop6
I0403 14:37:16.395325 10885 net.cpp:425] drop6 <- fc6
I0403 14:37:16.395349 10885 net.cpp:386] drop6 -> fc6 (in-place)
I0403 14:37:16.395401 10885 net.cpp:141] Setting up drop6
I0403 14:37:16.395429 10885 net.cpp:148] Top shape: 100 4096 (409600)
I0403 14:37:16.395445 10885 net.cpp:156] Memory required for data: 826610800
I0403 14:37:16.395460 10885 layer_factory.hpp:77] Creating layer fc7
I0403 14:37:16.395481 10885 net.cpp:91] Creating Layer fc7
I0403 14:37:16.395498 10885 net.cpp:425] fc7 <- fc6
I0403 14:37:16.395519 10885 net.cpp:399] fc7 -> fc7
I0403 14:37:17.092877 10885 net.cpp:141] Setting up fc7
I0403 14:37:17.092968 10885 net.cpp:148] Top shape: 100 4096 (409600)
I0403 14:37:17.092986 10885 net.cpp:156] Memory required for data: 828249200
I0403 14:37:17.093008 10885 layer_factory.hpp:77] Creating layer relu7
I0403 14:37:17.093029 10885 net.cpp:91] Creating Layer relu7
I0403 14:37:17.093047 10885 net.cpp:425] relu7 <- fc7
I0403 14:37:17.093070 10885 net.cpp:386] relu7 -> fc7 (in-place)
I0403 14:37:17.093475 10885 net.cpp:141] Setting up relu7
I0403 14:37:17.093502 10885 net.cpp:148] Top shape: 100 4096 (409600)
I0403 14:37:17.093551 10885 net.cpp:156] Memory required for data: 829887600
I0403 14:37:17.093569 10885 layer_factory.hpp:77] Creating layer drop7
I0403 14:37:17.093587 10885 net.cpp:91] Creating Layer drop7
I0403 14:37:17.093603 10885 net.cpp:425] drop7 <- fc7
I0403 14:37:17.093623 10885 net.cpp:386] drop7 -> fc7 (in-place)
I0403 14:37:17.093665 10885 net.cpp:141] Setting up drop7
I0403 14:37:17.093690 10885 net.cpp:148] Top shape: 100 4096 (409600)
I0403 14:37:17.093708 10885 net.cpp:156] Memory required for data: 831526000
I0403 14:37:17.093722 10885 layer_factory.hpp:77] Creating layer fc8_plantvillage
I0403 14:37:17.093741 10885 net.cpp:91] Creating Layer fc8_plantvillage
I0403 14:37:17.093757 10885 net.cpp:425] fc8_plantvillage <- fc7
I0403 14:37:17.093777 10885 net.cpp:399] fc8_plantvillage -> fc8_plantvillage
I0403 14:37:17.100337 10885 net.cpp:141] Setting up fc8_plantvillage
I0403 14:37:17.100366 10885 net.cpp:148] Top shape: 100 38 (3800)
I0403 14:37:17.100383 10885 net.cpp:156] Memory required for data: 831541200
I0403 14:37:17.100400 10885 layer_factory.hpp:77] Creating layer fc8_plantvillage_fc8_plantvillage_0_split
I0403 14:37:17.100419 10885 net.cpp:91] Creating Layer fc8_plantvillage_fc8_plantvillage_0_split
I0403 14:37:17.100433 10885 net.cpp:425] fc8_plantvillage_fc8_plantvillage_0_split <- fc8_plantvillage
I0403 14:37:17.100452 10885 net.cpp:399] fc8_plantvillage_fc8_plantvillage_0_split -> fc8_plantvillage_fc8_plantvillage_0_split_0
I0403 14:37:17.100474 10885 net.cpp:399] fc8_plantvillage_fc8_plantvillage_0_split -> fc8_plantvillage_fc8_plantvillage_0_split_1
I0403 14:37:17.100494 10885 net.cpp:399] fc8_plantvillage_fc8_plantvillage_0_split -> fc8_plantvillage_fc8_plantvillage_0_split_2
I0403 14:37:17.100569 10885 net.cpp:141] Setting up fc8_plantvillage_fc8_plantvillage_0_split
I0403 14:37:17.100592 10885 net.cpp:148] Top shape: 100 38 (3800)
I0403 14:37:17.100608 10885 net.cpp:148] Top shape: 100 38 (3800)
I0403 14:37:17.100623 10885 net.cpp:148] Top shape: 100 38 (3800)
I0403 14:37:17.100637 10885 net.cpp:156] Memory required for data: 831586800
I0403 14:37:17.100651 10885 layer_factory.hpp:77] Creating layer prob
I0403 14:37:17.100671 10885 net.cpp:91] Creating Layer prob
I0403 14:37:17.100685 10885 net.cpp:425] prob <- fc8_plantvillage_fc8_plantvillage_0_split_0
I0403 14:37:17.100704 10885 net.cpp:399] prob -> prob
I0403 14:37:17.100940 10885 net.cpp:141] Setting up prob
I0403 14:37:17.100966 10885 net.cpp:148] Top shape: 100 38 (3800)
I0403 14:37:17.100981 10885 net.cpp:156] Memory required for data: 831602000
I0403 14:37:17.100996 10885 layer_factory.hpp:77] Creating layer hdf5out
I0403 14:37:17.101016 10885 net.cpp:91] Creating Layer hdf5out
I0403 14:37:17.101030 10885 net.cpp:425] hdf5out <- prob
I0403 14:37:17.101047 10885 net.cpp:425] hdf5out <- label_data_1_split_0
I0403 14:37:17.103266 10885 net.cpp:141] Setting up hdf5out
…
