…
I0403 14:35:16.973294 10846 net.cpp:313] The NetState phase (1) differed from the phase (0) specified by a rule in layer data
I0403 14:35:16.973829 10846 net.cpp:49] Initializing net from parameters: 
state {
  phase: TEST
}
layer {
  name: "data"
  type: "Data"
  top: "data"
  top: "label"
  include {
    phase: TEST
  }
  transform_param {
    crop_size: 227
    mean_file: "/home/mohanty/data/final_dataset/lmdb/grayscale-50-50/mean.binaryproto"
  }
  data_param {
    source: "/home/mohanty/data/final_dataset/lmdb/grayscale-50-50/test_db"
    batch_size: 100
    backend: LMDB
  }
}
layer {
  name: "conv1"
  type: "Convolution"
  bottom: "data"
  top: "conv1"
  param {
    lr_mult: 1
    decay_mult: 1
  }
  param {
    lr_mult: 2
    decay_mult: 0
  }
  convolution_param {
    num_output: 96
    kernel_size: 11
    stride: 4
    weight_filler {
      type: "gaussian"
      std: 0.01
    }
    bias_filler {
      type: "constant"
      value: 0
    }
  }
}
layer {
  name: "relu1"
  type: "ReLU"
  bottom: "conv1"
  top: "conv1"
}
layer {
  name: "norm1"
  type: "LRN"
  bottom: "conv1"
  top: "norm1"
  lrn_param {
    local_size: 5
    alpha: 0.0001
    beta: 0.75
  }
}
layer {
  name: "pool1"
  type: "Pooling"
  bottom: "norm1"
  top: "pool1"
  pooling_param {
    pool: MAX
    kernel_size: 3
    stride: 2
  }
}
layer {
  name: "conv2"
  type: "Convolution"
  bottom: "pool1"
  top: "conv2"
  param {
    lr_mult: 1
    decay_mult: 1
  }
  param {
    lr_mult: 2
    decay_mult: 0
  }
  convolution_param {
    num_output: 256
    pad: 2
    kernel_size: 5
    group: 2
    weight_filler {
      type: "gaussian"
      std: 0.01
    }
    bias_filler {
      type: "constant"
      value: 0.1
    }
  }
}
layer {
  name: "relu2"
  type: "ReLU"
  bottom: "conv2"
  top: "conv2"
}
layer {
  name: "norm2"
  type: "LRN"
  bottom: "conv2"
  top: "norm2"
  lrn_param {
    local_size: 5
    alpha: 0.0001
    beta: 0.75
  }
}
layer {
  name: "pool2"
  type: "Pooling"
  bottom: "norm2"
  top: "pool2"
  pooling_param {
    pool: MAX
    kernel_size: 3
    stride: 2
  }
}
layer {
  name: "conv3"
  type: "Convolution"
  bottom: "pool2"
  top: "conv3"
  param {
    lr_mult: 1
    decay_mult: 1
  }
  param {
    lr_mult: 2
    decay_mult: 0
  }
  convolution_param {
    num_output: 384
    pad: 1
    kernel_size: 3
    weight_filler {
      type: "gaussian"
      std: 0.01
    }
    bias_filler {
      type: "constant"
      value: 0
    }
  }
}
layer {
  name: "relu3"
  type: "ReLU"
  bottom: "conv3"
  top: "conv3"
}
layer {
  name: "conv4"
  type: "Convolution"
  bottom: "conv3"
  top: "conv4"
  param {
    lr_mult: 1
    decay_mult: 1
  }
  param {
    lr_mult: 2
    decay_mult: 0
  }
  convolution_param {
    num_output: 384
    pad: 1
    kernel_size: 3
    group: 2
    weight_filler {
      type: "gaussian"
      std: 0.01
    }
    bias_filler {
      type: "constant"
      value: 0.1
    }
  }
}
layer {
  name: "relu4"
  type: "ReLU"
  bottom: "conv4"
  top: "conv4"
}
layer {
  name: "conv5"
  type: "Convolution"
  bottom: "conv4"
  top: "conv5"
  param {
    lr_mult: 1
    decay_mult: 1
  }
  param {
    lr_mult: 2
    decay_mult: 0
  }
  convolution_param {
    num_output: 256
    pad: 1
    kernel_size: 3
    group: 2
    weight_filler {
      type: "gaussian"
      std: 0.01
    }
    bias_filler {
      type: "constant"
      value: 0.1
    }
  }
}
layer {
  name: "relu5"
  type: "ReLU"
  bottom: "conv5"
  top: "conv5"
}
layer {
  name: "pool5"
  type: "Pooling"
  bottom: "conv5"
  top: "pool5"
  pooling_param {
    pool: MAX
    kernel_size: 3
    stride: 2
  }
}
layer {
  name: "fc6"
  type: "InnerProduct"
  bottom: "pool5"
  top: "fc6"
  param {
    lr_mult: 1
    decay_mult: 1
  }
  param {
    lr_mult: 2
    decay_mult: 0
  }
  inner_product_param {
    num_output: 4096
    weight_filler {
      type: "gaussian"
      std: 0.005
    }
    bias_filler {
      type: "constant"
      value: 0.1
    }
  }
}
layer {
  name: "relu6"
  type: "ReLU"
  bottom: "fc6"
  top: "fc6"
}
layer {
  name: "drop6"
  type: "Dropout"
  bottom: "fc6"
  top: "fc6"
  dropout_param {
    dropout_ratio: 0.5
  }
}
layer {
  name: "fc7"
  type: "InnerProduct"
  bottom: "fc6"
  top: "fc7"
  param {
    lr_mult: 1
    decay_mult: 1
  }
  param {
    lr_mult: 2
    decay_mult: 0
  }
  inner_product_param {
    num_output: 4096
    weight_filler {
      type: "gaussian"
      std: 0.005
    }
    bias_filler {
      type: "constant"
      value: 0.1
    }
  }
}
layer {
  name: "relu7"
  type: "ReLU"
  bottom: "fc7"
  top: "fc7"
}
layer {
  name: "drop7"
  type: "Dropout"
  bottom: "fc7"
  top: "fc7"
  dropout_param {
    dropout_ratio: 0.5
  }
}
layer {
  name: "fc8_plantvillage"
  type: "InnerProduct"
  bottom: "fc7"
  top: "fc8_plantvillage"
  param {
    lr_mult: 1
    decay_mult: 1
  }
  param {
    lr_mult: 2
    decay_mult: 0
  }
  inner_product_param {
    num_output: 38
    weight_filler {
      type: "gaussian"
      std: 0.01
    }
    bias_filler {
      type: "constant"
      value: 0
    }
  }
}
layer {
  name: "prob"
  type: "Softmax"
  bottom: "fc8_plantvillage"
  top: "prob"
  include {
    phase: TEST
  }
}
layer {
  name: "hdf5out"
  type: "HDF5Output"
  bottom: "prob"
  bottom: "label"
  include {
    phase: TEST
  }
  hdf5_output_param {
    file_name: "hdf5_dumps/iter_267.h5"
  }
}
layer {
  name: "loss"
  type: "SoftmaxWithLoss"
  bottom: "fc8_plantvillage"
  bottom: "label"
  top: "loss"
}
layer {
  name: "accuracy"
  type: "Accuracy"
  bottom: "fc8_plantvillage"
  bottom: "label"
  top: "accuracy"
  include {
    phase: TEST
  }
}
I0403 14:35:16.983443 10846 layer_factory.hpp:77] Creating layer data
I0403 14:35:16.984503 10846 net.cpp:91] Creating Layer data
I0403 14:35:16.984541 10846 net.cpp:399] data -> data
I0403 14:35:16.984679 10846 net.cpp:399] data -> label
I0403 14:35:16.984824 10846 data_transformer.cpp:25] Loading mean file from: /home/mohanty/data/final_dataset/lmdb/grayscale-50-50/mean.binaryproto
I0403 14:35:17.044529 10854 db_lmdb.cpp:38] Opened lmdb /home/mohanty/data/final_dataset/lmdb/grayscale-50-50/test_db
I0403 14:35:17.075119 10846 data_layer.cpp:41] output data size: 100,3,227,227
I0403 14:35:17.290529 10846 net.cpp:141] Setting up data
I0403 14:35:17.290639 10846 net.cpp:148] Top shape: 100 3 227 227 (15458700)
I0403 14:35:17.290680 10846 net.cpp:148] Top shape: 100 (100)
I0403 14:35:17.290714 10846 net.cpp:156] Memory required for data: 61835200
I0403 14:35:17.290747 10846 layer_factory.hpp:77] Creating layer label_data_1_split
I0403 14:35:17.290791 10846 net.cpp:91] Creating Layer label_data_1_split
I0403 14:35:17.290818 10846 net.cpp:425] label_data_1_split <- label
I0403 14:35:17.290866 10846 net.cpp:399] label_data_1_split -> label_data_1_split_0
I0403 14:35:17.290907 10846 net.cpp:399] label_data_1_split -> label_data_1_split_1
I0403 14:35:17.290937 10846 net.cpp:399] label_data_1_split -> label_data_1_split_2
I0403 14:35:17.291023 10846 net.cpp:141] Setting up label_data_1_split
I0403 14:35:17.291065 10846 net.cpp:148] Top shape: 100 (100)
I0403 14:35:17.291095 10846 net.cpp:148] Top shape: 100 (100)
I0403 14:35:17.291118 10846 net.cpp:148] Top shape: 100 (100)
I0403 14:35:17.291148 10846 net.cpp:156] Memory required for data: 61836400
I0403 14:35:17.291210 10846 layer_factory.hpp:77] Creating layer conv1
I0403 14:35:17.291271 10846 net.cpp:91] Creating Layer conv1
I0403 14:35:17.291306 10846 net.cpp:425] conv1 <- data
I0403 14:35:17.291345 10846 net.cpp:399] conv1 -> conv1
I0403 14:35:17.751360 10846 net.cpp:141] Setting up conv1
I0403 14:35:17.751433 10846 net.cpp:148] Top shape: 100 96 55 55 (29040000)
I0403 14:35:17.751454 10846 net.cpp:156] Memory required for data: 177996400
I0403 14:35:17.751493 10846 layer_factory.hpp:77] Creating layer relu1
I0403 14:35:17.751543 10846 net.cpp:91] Creating Layer relu1
I0403 14:35:17.751567 10846 net.cpp:425] relu1 <- conv1
I0403 14:35:17.751592 10846 net.cpp:386] relu1 -> conv1 (in-place)
I0403 14:35:17.751906 10846 net.cpp:141] Setting up relu1
I0403 14:35:17.751940 10846 net.cpp:148] Top shape: 100 96 55 55 (29040000)
I0403 14:35:17.751986 10846 net.cpp:156] Memory required for data: 294156400
I0403 14:35:17.752007 10846 layer_factory.hpp:77] Creating layer norm1
I0403 14:35:17.752053 10846 net.cpp:91] Creating Layer norm1
I0403 14:35:17.752079 10846 net.cpp:425] norm1 <- conv1
I0403 14:35:17.752100 10846 net.cpp:399] norm1 -> norm1
I0403 14:35:17.752498 10846 net.cpp:141] Setting up norm1
I0403 14:35:17.752532 10846 net.cpp:148] Top shape: 100 96 55 55 (29040000)
I0403 14:35:17.752552 10846 net.cpp:156] Memory required for data: 410316400
I0403 14:35:17.752570 10846 layer_factory.hpp:77] Creating layer pool1
I0403 14:35:17.752614 10846 net.cpp:91] Creating Layer pool1
I0403 14:35:17.752637 10846 net.cpp:425] pool1 <- norm1
I0403 14:35:17.752660 10846 net.cpp:399] pool1 -> pool1
I0403 14:35:17.752774 10846 net.cpp:141] Setting up pool1
I0403 14:35:17.752804 10846 net.cpp:148] Top shape: 100 96 27 27 (6998400)
I0403 14:35:17.752821 10846 net.cpp:156] Memory required for data: 438310000
I0403 14:35:17.752840 10846 layer_factory.hpp:77] Creating layer conv2
I0403 14:35:17.752869 10846 net.cpp:91] Creating Layer conv2
I0403 14:35:17.752889 10846 net.cpp:425] conv2 <- pool1
I0403 14:35:17.752912 10846 net.cpp:399] conv2 -> conv2
I0403 14:35:17.770831 10846 net.cpp:141] Setting up conv2
I0403 14:35:17.770897 10846 net.cpp:148] Top shape: 100 256 27 27 (18662400)
I0403 14:35:17.770917 10846 net.cpp:156] Memory required for data: 512959600
I0403 14:35:17.770948 10846 layer_factory.hpp:77] Creating layer relu2
I0403 14:35:17.770977 10846 net.cpp:91] Creating Layer relu2
I0403 14:35:17.770998 10846 net.cpp:425] relu2 <- conv2
I0403 14:35:17.771021 10846 net.cpp:386] relu2 -> conv2 (in-place)
I0403 14:35:17.771374 10846 net.cpp:141] Setting up relu2
I0403 14:35:17.771409 10846 net.cpp:148] Top shape: 100 256 27 27 (18662400)
I0403 14:35:17.771427 10846 net.cpp:156] Memory required for data: 587609200
I0403 14:35:17.771447 10846 layer_factory.hpp:77] Creating layer norm2
I0403 14:35:17.771476 10846 net.cpp:91] Creating Layer norm2
I0403 14:35:17.771495 10846 net.cpp:425] norm2 <- conv2
I0403 14:35:17.771518 10846 net.cpp:399] norm2 -> norm2
I0403 14:35:17.771759 10846 net.cpp:141] Setting up norm2
I0403 14:35:17.771792 10846 net.cpp:148] Top shape: 100 256 27 27 (18662400)
I0403 14:35:17.771813 10846 net.cpp:156] Memory required for data: 662258800
I0403 14:35:17.771832 10846 layer_factory.hpp:77] Creating layer pool2
I0403 14:35:17.771857 10846 net.cpp:91] Creating Layer pool2
I0403 14:35:17.771875 10846 net.cpp:425] pool2 <- norm2
I0403 14:35:17.771899 10846 net.cpp:399] pool2 -> pool2
I0403 14:35:17.771965 10846 net.cpp:141] Setting up pool2
I0403 14:35:17.771994 10846 net.cpp:148] Top shape: 100 256 13 13 (4326400)
I0403 14:35:17.772013 10846 net.cpp:156] Memory required for data: 679564400
I0403 14:35:17.772030 10846 layer_factory.hpp:77] Creating layer conv3
I0403 14:35:17.772060 10846 net.cpp:91] Creating Layer conv3
I0403 14:35:17.772083 10846 net.cpp:425] conv3 <- pool2
I0403 14:35:17.772110 10846 net.cpp:399] conv3 -> conv3
I0403 14:35:17.818014 10846 net.cpp:141] Setting up conv3
I0403 14:35:17.818065 10846 net.cpp:148] Top shape: 100 384 13 13 (6489600)
I0403 14:35:17.818089 10846 net.cpp:156] Memory required for data: 705522800
I0403 14:35:17.818116 10846 layer_factory.hpp:77] Creating layer relu3
I0403 14:35:17.818141 10846 net.cpp:91] Creating Layer relu3
I0403 14:35:17.818162 10846 net.cpp:425] relu3 <- conv3
I0403 14:35:17.818184 10846 net.cpp:386] relu3 -> conv3 (in-place)
I0403 14:35:17.818523 10846 net.cpp:141] Setting up relu3
I0403 14:35:17.818559 10846 net.cpp:148] Top shape: 100 384 13 13 (6489600)
I0403 14:35:17.818580 10846 net.cpp:156] Memory required for data: 731481200
I0403 14:35:17.818598 10846 layer_factory.hpp:77] Creating layer conv4
I0403 14:35:17.818627 10846 net.cpp:91] Creating Layer conv4
I0403 14:35:17.818650 10846 net.cpp:425] conv4 <- conv3
I0403 14:35:17.818673 10846 net.cpp:399] conv4 -> conv4
I0403 14:35:17.853996 10846 net.cpp:141] Setting up conv4
I0403 14:35:17.854038 10846 net.cpp:148] Top shape: 100 384 13 13 (6489600)
I0403 14:35:17.854080 10846 net.cpp:156] Memory required for data: 757439600
I0403 14:35:17.854107 10846 layer_factory.hpp:77] Creating layer relu4
I0403 14:35:17.854143 10846 net.cpp:91] Creating Layer relu4
I0403 14:35:17.854169 10846 net.cpp:425] relu4 <- conv4
I0403 14:35:17.854199 10846 net.cpp:386] relu4 -> conv4 (in-place)
I0403 14:35:17.854537 10846 net.cpp:141] Setting up relu4
I0403 14:35:17.854569 10846 net.cpp:148] Top shape: 100 384 13 13 (6489600)
I0403 14:35:17.854588 10846 net.cpp:156] Memory required for data: 783398000
I0403 14:35:17.854607 10846 layer_factory.hpp:77] Creating layer conv5
I0403 14:35:17.854636 10846 net.cpp:91] Creating Layer conv5
I0403 14:35:17.854657 10846 net.cpp:425] conv5 <- conv4
I0403 14:35:17.854683 10846 net.cpp:399] conv5 -> conv5
I0403 14:35:17.879179 10846 net.cpp:141] Setting up conv5
I0403 14:35:17.879233 10846 net.cpp:148] Top shape: 100 256 13 13 (4326400)
I0403 14:35:17.879259 10846 net.cpp:156] Memory required for data: 800703600
I0403 14:35:17.879289 10846 layer_factory.hpp:77] Creating layer relu5
I0403 14:35:17.879323 10846 net.cpp:91] Creating Layer relu5
I0403 14:35:17.879361 10846 net.cpp:425] relu5 <- conv5
I0403 14:35:17.879390 10846 net.cpp:386] relu5 -> conv5 (in-place)
I0403 14:35:17.879729 10846 net.cpp:141] Setting up relu5
I0403 14:35:17.879765 10846 net.cpp:148] Top shape: 100 256 13 13 (4326400)
I0403 14:35:17.879786 10846 net.cpp:156] Memory required for data: 818009200
I0403 14:35:17.879804 10846 layer_factory.hpp:77] Creating layer pool5
I0403 14:35:17.879832 10846 net.cpp:91] Creating Layer pool5
I0403 14:35:17.879851 10846 net.cpp:425] pool5 <- conv5
I0403 14:35:17.879878 10846 net.cpp:399] pool5 -> pool5
I0403 14:35:17.879951 10846 net.cpp:141] Setting up pool5
I0403 14:35:17.879982 10846 net.cpp:148] Top shape: 100 256 6 6 (921600)
I0403 14:35:17.880002 10846 net.cpp:156] Memory required for data: 821695600
I0403 14:35:17.880020 10846 layer_factory.hpp:77] Creating layer fc6
I0403 14:35:17.880050 10846 net.cpp:91] Creating Layer fc6
I0403 14:35:17.880071 10846 net.cpp:425] fc6 <- pool5
I0403 14:35:17.880097 10846 net.cpp:399] fc6 -> fc6
I0403 14:35:19.607059 10846 net.cpp:141] Setting up fc6
I0403 14:35:19.607103 10846 net.cpp:148] Top shape: 100 4096 (409600)
I0403 14:35:19.607122 10846 net.cpp:156] Memory required for data: 823334000
I0403 14:35:19.607143 10846 layer_factory.hpp:77] Creating layer relu6
I0403 14:35:19.607167 10846 net.cpp:91] Creating Layer relu6
I0403 14:35:19.607187 10846 net.cpp:425] relu6 <- fc6
I0403 14:35:19.607214 10846 net.cpp:386] relu6 -> fc6 (in-place)
I0403 14:35:19.607450 10846 net.cpp:141] Setting up relu6
I0403 14:35:19.607488 10846 net.cpp:148] Top shape: 100 4096 (409600)
I0403 14:35:19.607604 10846 net.cpp:156] Memory required for data: 824972400
I0403 14:35:19.607633 10846 layer_factory.hpp:77] Creating layer drop6
I0403 14:35:19.607666 10846 net.cpp:91] Creating Layer drop6
I0403 14:35:19.607725 10846 net.cpp:425] drop6 <- fc6
I0403 14:35:19.607758 10846 net.cpp:386] drop6 -> fc6 (in-place)
I0403 14:35:19.607825 10846 net.cpp:141] Setting up drop6
I0403 14:35:19.607859 10846 net.cpp:148] Top shape: 100 4096 (409600)
I0403 14:35:19.607877 10846 net.cpp:156] Memory required for data: 826610800
I0403 14:35:19.607915 10846 layer_factory.hpp:77] Creating layer fc7
I0403 14:35:19.607952 10846 net.cpp:91] Creating Layer fc7
I0403 14:35:19.607987 10846 net.cpp:425] fc7 <- fc6
I0403 14:35:19.608016 10846 net.cpp:399] fc7 -> fc7
I0403 14:35:20.319288 10846 net.cpp:141] Setting up fc7
I0403 14:35:20.319330 10846 net.cpp:148] Top shape: 100 4096 (409600)
I0403 14:35:20.319349 10846 net.cpp:156] Memory required for data: 828249200
I0403 14:35:20.319370 10846 layer_factory.hpp:77] Creating layer relu7
I0403 14:35:20.319392 10846 net.cpp:91] Creating Layer relu7
I0403 14:35:20.319419 10846 net.cpp:425] relu7 <- fc7
I0403 14:35:20.319445 10846 net.cpp:386] relu7 -> fc7 (in-place)
I0403 14:35:20.319857 10846 net.cpp:141] Setting up relu7
I0403 14:35:20.319888 10846 net.cpp:148] Top shape: 100 4096 (409600)
I0403 14:35:20.319936 10846 net.cpp:156] Memory required for data: 829887600
I0403 14:35:20.319952 10846 layer_factory.hpp:77] Creating layer drop7
I0403 14:35:20.319972 10846 net.cpp:91] Creating Layer drop7
I0403 14:35:20.319988 10846 net.cpp:425] drop7 <- fc7
I0403 14:35:20.320004 10846 net.cpp:386] drop7 -> fc7 (in-place)
I0403 14:35:20.320052 10846 net.cpp:141] Setting up drop7
I0403 14:35:20.320076 10846 net.cpp:148] Top shape: 100 4096 (409600)
I0403 14:35:20.320091 10846 net.cpp:156] Memory required for data: 831526000
I0403 14:35:20.320107 10846 layer_factory.hpp:77] Creating layer fc8_plantvillage
I0403 14:35:20.320129 10846 net.cpp:91] Creating Layer fc8_plantvillage
I0403 14:35:20.320147 10846 net.cpp:425] fc8_plantvillage <- fc7
I0403 14:35:20.320164 10846 net.cpp:399] fc8_plantvillage -> fc8_plantvillage
I0403 14:35:20.326884 10846 net.cpp:141] Setting up fc8_plantvillage
I0403 14:35:20.326913 10846 net.cpp:148] Top shape: 100 38 (3800)
I0403 14:35:20.326930 10846 net.cpp:156] Memory required for data: 831541200
I0403 14:35:20.326948 10846 layer_factory.hpp:77] Creating layer fc8_plantvillage_fc8_plantvillage_0_split
I0403 14:35:20.326968 10846 net.cpp:91] Creating Layer fc8_plantvillage_fc8_plantvillage_0_split
I0403 14:35:20.326983 10846 net.cpp:425] fc8_plantvillage_fc8_plantvillage_0_split <- fc8_plantvillage
I0403 14:35:20.327004 10846 net.cpp:399] fc8_plantvillage_fc8_plantvillage_0_split -> fc8_plantvillage_fc8_plantvillage_0_split_0
I0403 14:35:20.327026 10846 net.cpp:399] fc8_plantvillage_fc8_plantvillage_0_split -> fc8_plantvillage_fc8_plantvillage_0_split_1
I0403 14:35:20.327049 10846 net.cpp:399] fc8_plantvillage_fc8_plantvillage_0_split -> fc8_plantvillage_fc8_plantvillage_0_split_2
I0403 14:35:20.327126 10846 net.cpp:141] Setting up fc8_plantvillage_fc8_plantvillage_0_split
I0403 14:35:20.327150 10846 net.cpp:148] Top shape: 100 38 (3800)
I0403 14:35:20.327167 10846 net.cpp:148] Top shape: 100 38 (3800)
I0403 14:35:20.327183 10846 net.cpp:148] Top shape: 100 38 (3800)
I0403 14:35:20.327219 10846 net.cpp:156] Memory required for data: 831586800
I0403 14:35:20.327234 10846 layer_factory.hpp:77] Creating layer prob
I0403 14:35:20.327256 10846 net.cpp:91] Creating Layer prob
I0403 14:35:20.327287 10846 net.cpp:425] prob <- fc8_plantvillage_fc8_plantvillage_0_split_0
I0403 14:35:20.327307 10846 net.cpp:399] prob -> prob
I0403 14:35:20.327559 10846 net.cpp:141] Setting up prob
I0403 14:35:20.327589 10846 net.cpp:148] Top shape: 100 38 (3800)
I0403 14:35:20.327606 10846 net.cpp:156] Memory required for data: 831602000
I0403 14:35:20.327622 10846 layer_factory.hpp:77] Creating layer hdf5out
I0403 14:35:20.327642 10846 net.cpp:91] Creating Layer hdf5out
I0403 14:35:20.327658 10846 net.cpp:425] hdf5out <- prob
I0403 14:35:20.327675 10846 net.cpp:425] hdf5out <- label_data_1_split_0
I0403 14:35:20.339920 10846 net.cpp:141] Setting up hdf5out
…
