…
I0403 15:01:51.286773 11460 net.cpp:313] The NetState phase (1) differed from the phase (0) specified by a rule in layer data
I0403 15:01:51.287093 11460 net.cpp:49] Initializing net from parameters: 
state {
  phase: TEST
}
layer {
  name: "data"
  type: "Data"
  top: "data"
  top: "label"
  include {
    phase: TEST
  }
  transform_param {
    crop_size: 227
    mean_file: "/home/mohanty/data/final_dataset/lmdb/grayscale-50-50/mean.binaryproto"
  }
  data_param {
    source: "/home/mohanty/data/final_dataset/lmdb/grayscale-50-50/test_db"
    batch_size: 100
    backend: LMDB
  }
}
layer {
  name: "conv1"
  type: "Convolution"
  bottom: "data"
  top: "conv1"
  param {
    lr_mult: 1
    decay_mult: 1
  }
  param {
    lr_mult: 2
    decay_mult: 0
  }
  convolution_param {
    num_output: 96
    kernel_size: 11
    stride: 4
    weight_filler {
      type: "gaussian"
      std: 0.01
    }
    bias_filler {
      type: "constant"
      value: 0
    }
  }
}
layer {
  name: "relu1"
  type: "ReLU"
  bottom: "conv1"
  top: "conv1"
}
layer {
  name: "norm1"
  type: "LRN"
  bottom: "conv1"
  top: "norm1"
  lrn_param {
    local_size: 5
    alpha: 0.0001
    beta: 0.75
  }
}
layer {
  name: "pool1"
  type: "Pooling"
  bottom: "norm1"
  top: "pool1"
  pooling_param {
    pool: MAX
    kernel_size: 3
    stride: 2
  }
}
layer {
  name: "conv2"
  type: "Convolution"
  bottom: "pool1"
  top: "conv2"
  param {
    lr_mult: 1
    decay_mult: 1
  }
  param {
    lr_mult: 2
    decay_mult: 0
  }
  convolution_param {
    num_output: 256
    pad: 2
    kernel_size: 5
    group: 2
    weight_filler {
      type: "gaussian"
      std: 0.01
    }
    bias_filler {
      type: "constant"
      value: 0.1
    }
  }
}
layer {
  name: "relu2"
  type: "ReLU"
  bottom: "conv2"
  top: "conv2"
}
layer {
  name: "norm2"
  type: "LRN"
  bottom: "conv2"
  top: "norm2"
  lrn_param {
    local_size: 5
    alpha: 0.0001
    beta: 0.75
  }
}
layer {
  name: "pool2"
  type: "Pooling"
  bottom: "norm2"
  top: "pool2"
  pooling_param {
    pool: MAX
    kernel_size: 3
    stride: 2
  }
}
layer {
  name: "conv3"
  type: "Convolution"
  bottom: "pool2"
  top: "conv3"
  param {
    lr_mult: 1
    decay_mult: 1
  }
  param {
    lr_mult: 2
    decay_mult: 0
  }
  convolution_param {
    num_output: 384
    pad: 1
    kernel_size: 3
    weight_filler {
      type: "gaussian"
      std: 0.01
    }
    bias_filler {
      type: "constant"
      value: 0
    }
  }
}
layer {
  name: "relu3"
  type: "ReLU"
  bottom: "conv3"
  top: "conv3"
}
layer {
  name: "conv4"
  type: "Convolution"
  bottom: "conv3"
  top: "conv4"
  param {
    lr_mult: 1
    decay_mult: 1
  }
  param {
    lr_mult: 2
    decay_mult: 0
  }
  convolution_param {
    num_output: 384
    pad: 1
    kernel_size: 3
    group: 2
    weight_filler {
      type: "gaussian"
      std: 0.01
    }
    bias_filler {
      type: "constant"
      value: 0.1
    }
  }
}
layer {
  name: "relu4"
  type: "ReLU"
  bottom: "conv4"
  top: "conv4"
}
layer {
  name: "conv5"
  type: "Convolution"
  bottom: "conv4"
  top: "conv5"
  param {
    lr_mult: 1
    decay_mult: 1
  }
  param {
    lr_mult: 2
    decay_mult: 0
  }
  convolution_param {
    num_output: 256
    pad: 1
    kernel_size: 3
    group: 2
    weight_filler {
      type: "gaussian"
      std: 0.01
    }
    bias_filler {
      type: "constant"
      value: 0.1
    }
  }
}
layer {
  name: "relu5"
  type: "ReLU"
  bottom: "conv5"
  top: "conv5"
}
layer {
  name: "pool5"
  type: "Pooling"
  bottom: "conv5"
  top: "pool5"
  pooling_param {
    pool: MAX
    kernel_size: 3
    stride: 2
  }
}
layer {
  name: "fc6"
  type: "InnerProduct"
  bottom: "pool5"
  top: "fc6"
  param {
    lr_mult: 1
    decay_mult: 1
  }
  param {
    lr_mult: 2
    decay_mult: 0
  }
  inner_product_param {
    num_output: 4096
    weight_filler {
      type: "gaussian"
      std: 0.005
    }
    bias_filler {
      type: "constant"
      value: 0.1
    }
  }
}
layer {
  name: "relu6"
  type: "ReLU"
  bottom: "fc6"
  top: "fc6"
}
layer {
  name: "drop6"
  type: "Dropout"
  bottom: "fc6"
  top: "fc6"
  dropout_param {
    dropout_ratio: 0.5
  }
}
layer {
  name: "fc7"
  type: "InnerProduct"
  bottom: "fc6"
  top: "fc7"
  param {
    lr_mult: 1
    decay_mult: 1
  }
  param {
    lr_mult: 2
    decay_mult: 0
  }
  inner_product_param {
    num_output: 4096
    weight_filler {
      type: "gaussian"
      std: 0.005
    }
    bias_filler {
      type: "constant"
      value: 0.1
    }
  }
}
layer {
  name: "relu7"
  type: "ReLU"
  bottom: "fc7"
  top: "fc7"
}
layer {
  name: "drop7"
  type: "Dropout"
  bottom: "fc7"
  top: "fc7"
  dropout_param {
    dropout_ratio: 0.5
  }
}
layer {
  name: "fc8_plantvillage"
  type: "InnerProduct"
  bottom: "fc7"
  top: "fc8_plantvillage"
  param {
    lr_mult: 1
    decay_mult: 1
  }
  param {
    lr_mult: 2
    decay_mult: 0
  }
  inner_product_param {
    num_output: 38
    weight_filler {
      type: "gaussian"
      std: 0.01
    }
    bias_filler {
      type: "constant"
      value: 0
    }
  }
}
layer {
  name: "prob"
  type: "Softmax"
  bottom: "fc8_plantvillage"
  top: "prob"
  include {
    phase: TEST
  }
}
layer {
  name: "hdf5out"
  type: "HDF5Output"
  bottom: "prob"
  bottom: "label"
  include {
    phase: TEST
  }
  hdf5_output_param {
    file_name: "hdf5_dumps/iter_7743.h5"
  }
}
layer {
  name: "loss"
  type: "SoftmaxWithLoss"
  bottom: "fc8_plantvillage"
  bottom: "label"
  top: "loss"
}
layer {
  name: "accuracy"
  type: "Accuracy"
  bottom: "fc8_plantvillage"
  bottom: "label"
  top: "accuracy"
  include {
    phase: TEST
  }
}
I0403 15:01:51.287648 11460 layer_factory.hpp:77] Creating layer data
I0403 15:01:51.288326 11460 net.cpp:91] Creating Layer data
I0403 15:01:51.288365 11460 net.cpp:399] data -> data
I0403 15:01:51.288419 11460 net.cpp:399] data -> label
I0403 15:01:51.288461 11460 data_transformer.cpp:25] Loading mean file from: /home/mohanty/data/final_dataset/lmdb/grayscale-50-50/mean.binaryproto
I0403 15:01:51.291491 11464 db_lmdb.cpp:38] Opened lmdb /home/mohanty/data/final_dataset/lmdb/grayscale-50-50/test_db
I0403 15:01:51.303283 11460 data_layer.cpp:41] output data size: 100,3,227,227
I0403 15:01:51.426463 11460 net.cpp:141] Setting up data
I0403 15:01:51.426571 11460 net.cpp:148] Top shape: 100 3 227 227 (15458700)
I0403 15:01:51.426594 11460 net.cpp:148] Top shape: 100 (100)
I0403 15:01:51.426610 11460 net.cpp:156] Memory required for data: 61835200
I0403 15:01:51.426638 11460 layer_factory.hpp:77] Creating layer label_data_1_split
I0403 15:01:51.426664 11460 net.cpp:91] Creating Layer label_data_1_split
I0403 15:01:51.426682 11460 net.cpp:425] label_data_1_split <- label
I0403 15:01:51.426714 11460 net.cpp:399] label_data_1_split -> label_data_1_split_0
I0403 15:01:51.426741 11460 net.cpp:399] label_data_1_split -> label_data_1_split_1
I0403 15:01:51.426764 11460 net.cpp:399] label_data_1_split -> label_data_1_split_2
I0403 15:01:51.426829 11460 net.cpp:141] Setting up label_data_1_split
I0403 15:01:51.426852 11460 net.cpp:148] Top shape: 100 (100)
I0403 15:01:51.426868 11460 net.cpp:148] Top shape: 100 (100)
I0403 15:01:51.426885 11460 net.cpp:148] Top shape: 100 (100)
I0403 15:01:51.426898 11460 net.cpp:156] Memory required for data: 61836400
I0403 15:01:51.426913 11460 layer_factory.hpp:77] Creating layer conv1
I0403 15:01:51.426945 11460 net.cpp:91] Creating Layer conv1
I0403 15:01:51.426964 11460 net.cpp:425] conv1 <- data
I0403 15:01:51.426985 11460 net.cpp:399] conv1 -> conv1
I0403 15:01:51.567422 11460 net.cpp:141] Setting up conv1
I0403 15:01:51.567492 11460 net.cpp:148] Top shape: 100 96 55 55 (29040000)
I0403 15:01:51.567510 11460 net.cpp:156] Memory required for data: 177996400
I0403 15:01:51.567543 11460 layer_factory.hpp:77] Creating layer relu1
I0403 15:01:51.567570 11460 net.cpp:91] Creating Layer relu1
I0403 15:01:51.567589 11460 net.cpp:425] relu1 <- conv1
I0403 15:01:51.567608 11460 net.cpp:386] relu1 -> conv1 (in-place)
I0403 15:01:51.567896 11460 net.cpp:141] Setting up relu1
I0403 15:01:51.567925 11460 net.cpp:148] Top shape: 100 96 55 55 (29040000)
I0403 15:01:51.567970 11460 net.cpp:156] Memory required for data: 294156400
I0403 15:01:51.567986 11460 layer_factory.hpp:77] Creating layer norm1
I0403 15:01:51.568014 11460 net.cpp:91] Creating Layer norm1
I0403 15:01:51.568032 11460 net.cpp:425] norm1 <- conv1
I0403 15:01:51.568050 11460 net.cpp:399] norm1 -> norm1
I0403 15:01:51.568370 11460 net.cpp:141] Setting up norm1
I0403 15:01:51.568399 11460 net.cpp:148] Top shape: 100 96 55 55 (29040000)
I0403 15:01:51.568415 11460 net.cpp:156] Memory required for data: 410316400
I0403 15:01:51.568431 11460 layer_factory.hpp:77] Creating layer pool1
I0403 15:01:51.568454 11460 net.cpp:91] Creating Layer pool1
I0403 15:01:51.568470 11460 net.cpp:425] pool1 <- norm1
I0403 15:01:51.568491 11460 net.cpp:399] pool1 -> pool1
I0403 15:01:51.568562 11460 net.cpp:141] Setting up pool1
I0403 15:01:51.568588 11460 net.cpp:148] Top shape: 100 96 27 27 (6998400)
I0403 15:01:51.568603 11460 net.cpp:156] Memory required for data: 438310000
I0403 15:01:51.568617 11460 layer_factory.hpp:77] Creating layer conv2
I0403 15:01:51.568646 11460 net.cpp:91] Creating Layer conv2
I0403 15:01:51.568665 11460 net.cpp:425] conv2 <- pool1
I0403 15:01:51.568683 11460 net.cpp:399] conv2 -> conv2
I0403 15:01:51.583904 11460 net.cpp:141] Setting up conv2
I0403 15:01:51.583945 11460 net.cpp:148] Top shape: 100 256 27 27 (18662400)
I0403 15:01:51.583963 11460 net.cpp:156] Memory required for data: 512959600
I0403 15:01:51.583986 11460 layer_factory.hpp:77] Creating layer relu2
I0403 15:01:51.584004 11460 net.cpp:91] Creating Layer relu2
I0403 15:01:51.584022 11460 net.cpp:425] relu2 <- conv2
I0403 15:01:51.584041 11460 net.cpp:386] relu2 -> conv2 (in-place)
I0403 15:01:51.584327 11460 net.cpp:141] Setting up relu2
I0403 15:01:51.584355 11460 net.cpp:148] Top shape: 100 256 27 27 (18662400)
I0403 15:01:51.584372 11460 net.cpp:156] Memory required for data: 587609200
I0403 15:01:51.584385 11460 layer_factory.hpp:77] Creating layer norm2
I0403 15:01:51.584408 11460 net.cpp:91] Creating Layer norm2
I0403 15:01:51.584425 11460 net.cpp:425] norm2 <- conv2
I0403 15:01:51.584444 11460 net.cpp:399] norm2 -> norm2
I0403 15:01:51.584642 11460 net.cpp:141] Setting up norm2
I0403 15:01:51.584673 11460 net.cpp:148] Top shape: 100 256 27 27 (18662400)
I0403 15:01:51.584692 11460 net.cpp:156] Memory required for data: 662258800
I0403 15:01:51.584707 11460 layer_factory.hpp:77] Creating layer pool2
I0403 15:01:51.584724 11460 net.cpp:91] Creating Layer pool2
I0403 15:01:51.584740 11460 net.cpp:425] pool2 <- norm2
I0403 15:01:51.584761 11460 net.cpp:399] pool2 -> pool2
I0403 15:01:51.584813 11460 net.cpp:141] Setting up pool2
I0403 15:01:51.584839 11460 net.cpp:148] Top shape: 100 256 13 13 (4326400)
I0403 15:01:51.584887 11460 net.cpp:156] Memory required for data: 679564400
I0403 15:01:51.584906 11460 layer_factory.hpp:77] Creating layer conv3
I0403 15:01:51.584928 11460 net.cpp:91] Creating Layer conv3
I0403 15:01:51.584944 11460 net.cpp:425] conv3 <- pool2
I0403 15:01:51.584965 11460 net.cpp:399] conv3 -> conv3
I0403 15:01:51.624249 11460 net.cpp:141] Setting up conv3
I0403 15:01:51.624320 11460 net.cpp:148] Top shape: 100 384 13 13 (6489600)
I0403 15:01:51.624336 11460 net.cpp:156] Memory required for data: 705522800
I0403 15:01:51.624362 11460 layer_factory.hpp:77] Creating layer relu3
I0403 15:01:51.624384 11460 net.cpp:91] Creating Layer relu3
I0403 15:01:51.624402 11460 net.cpp:425] relu3 <- conv3
I0403 15:01:51.624424 11460 net.cpp:386] relu3 -> conv3 (in-place)
I0403 15:01:51.624718 11460 net.cpp:141] Setting up relu3
I0403 15:01:51.624747 11460 net.cpp:148] Top shape: 100 384 13 13 (6489600)
I0403 15:01:51.624764 11460 net.cpp:156] Memory required for data: 731481200
I0403 15:01:51.624780 11460 layer_factory.hpp:77] Creating layer conv4
I0403 15:01:51.624806 11460 net.cpp:91] Creating Layer conv4
I0403 15:01:51.624825 11460 net.cpp:425] conv4 <- conv3
I0403 15:01:51.624848 11460 net.cpp:399] conv4 -> conv4
I0403 15:01:51.656155 11460 net.cpp:141] Setting up conv4
I0403 15:01:51.656205 11460 net.cpp:148] Top shape: 100 384 13 13 (6489600)
I0403 15:01:51.656255 11460 net.cpp:156] Memory required for data: 757439600
I0403 15:01:51.656278 11460 layer_factory.hpp:77] Creating layer relu4
I0403 15:01:51.656299 11460 net.cpp:91] Creating Layer relu4
I0403 15:01:51.656318 11460 net.cpp:425] relu4 <- conv4
I0403 15:01:51.656337 11460 net.cpp:386] relu4 -> conv4 (in-place)
I0403 15:01:51.656621 11460 net.cpp:141] Setting up relu4
I0403 15:01:51.656651 11460 net.cpp:148] Top shape: 100 384 13 13 (6489600)
I0403 15:01:51.656668 11460 net.cpp:156] Memory required for data: 783398000
I0403 15:01:51.656685 11460 layer_factory.hpp:77] Creating layer conv5
I0403 15:01:51.656710 11460 net.cpp:91] Creating Layer conv5
I0403 15:01:51.656728 11460 net.cpp:425] conv5 <- conv4
I0403 15:01:51.656749 11460 net.cpp:399] conv5 -> conv5
I0403 15:01:51.677268 11460 net.cpp:141] Setting up conv5
I0403 15:01:51.677309 11460 net.cpp:148] Top shape: 100 256 13 13 (4326400)
I0403 15:01:51.677326 11460 net.cpp:156] Memory required for data: 800703600
I0403 15:01:51.677350 11460 layer_factory.hpp:77] Creating layer relu5
I0403 15:01:51.677369 11460 net.cpp:91] Creating Layer relu5
I0403 15:01:51.677386 11460 net.cpp:425] relu5 <- conv5
I0403 15:01:51.677415 11460 net.cpp:386] relu5 -> conv5 (in-place)
I0403 15:01:51.677688 11460 net.cpp:141] Setting up relu5
I0403 15:01:51.677716 11460 net.cpp:148] Top shape: 100 256 13 13 (4326400)
I0403 15:01:51.677731 11460 net.cpp:156] Memory required for data: 818009200
I0403 15:01:51.677747 11460 layer_factory.hpp:77] Creating layer pool5
I0403 15:01:51.677772 11460 net.cpp:91] Creating Layer pool5
I0403 15:01:51.677789 11460 net.cpp:425] pool5 <- conv5
I0403 15:01:51.677808 11460 net.cpp:399] pool5 -> pool5
I0403 15:01:51.677866 11460 net.cpp:141] Setting up pool5
I0403 15:01:51.677891 11460 net.cpp:148] Top shape: 100 256 6 6 (921600)
I0403 15:01:51.677904 11460 net.cpp:156] Memory required for data: 821695600
I0403 15:01:51.677920 11460 layer_factory.hpp:77] Creating layer fc6
I0403 15:01:51.677944 11460 net.cpp:91] Creating Layer fc6
I0403 15:01:51.677961 11460 net.cpp:425] fc6 <- pool5
I0403 15:01:51.677981 11460 net.cpp:399] fc6 -> fc6
I0403 15:01:53.270872 11460 net.cpp:141] Setting up fc6
I0403 15:01:53.270915 11460 net.cpp:148] Top shape: 100 4096 (409600)
I0403 15:01:53.270932 11460 net.cpp:156] Memory required for data: 823334000
I0403 15:01:53.270952 11460 layer_factory.hpp:77] Creating layer relu6
I0403 15:01:53.270973 11460 net.cpp:91] Creating Layer relu6
I0403 15:01:53.270990 11460 net.cpp:425] relu6 <- fc6
I0403 15:01:53.271009 11460 net.cpp:386] relu6 -> fc6 (in-place)
I0403 15:01:53.271220 11460 net.cpp:141] Setting up relu6
I0403 15:01:53.271248 11460 net.cpp:148] Top shape: 100 4096 (409600)
I0403 15:01:53.271265 11460 net.cpp:156] Memory required for data: 824972400
I0403 15:01:53.271280 11460 layer_factory.hpp:77] Creating layer drop6
I0403 15:01:53.271298 11460 net.cpp:91] Creating Layer drop6
I0403 15:01:53.271312 11460 net.cpp:425] drop6 <- fc6
I0403 15:01:53.271332 11460 net.cpp:386] drop6 -> fc6 (in-place)
I0403 15:01:53.271383 11460 net.cpp:141] Setting up drop6
I0403 15:01:53.271404 11460 net.cpp:148] Top shape: 100 4096 (409600)
I0403 15:01:53.271419 11460 net.cpp:156] Memory required for data: 826610800
I0403 15:01:53.271432 11460 layer_factory.hpp:77] Creating layer fc7
I0403 15:01:53.271453 11460 net.cpp:91] Creating Layer fc7
I0403 15:01:53.271471 11460 net.cpp:425] fc7 <- fc6
I0403 15:01:53.271494 11460 net.cpp:399] fc7 -> fc7
I0403 15:01:53.948457 11460 net.cpp:141] Setting up fc7
I0403 15:01:53.948496 11460 net.cpp:148] Top shape: 100 4096 (409600)
I0403 15:01:53.948513 11460 net.cpp:156] Memory required for data: 828249200
I0403 15:01:53.948534 11460 layer_factory.hpp:77] Creating layer relu7
I0403 15:01:53.948556 11460 net.cpp:91] Creating Layer relu7
I0403 15:01:53.948573 11460 net.cpp:425] relu7 <- fc7
I0403 15:01:53.948596 11460 net.cpp:386] relu7 -> fc7 (in-place)
I0403 15:01:53.948979 11460 net.cpp:141] Setting up relu7
I0403 15:01:53.949004 11460 net.cpp:148] Top shape: 100 4096 (409600)
I0403 15:01:53.949054 11460 net.cpp:156] Memory required for data: 829887600
I0403 15:01:53.949069 11460 layer_factory.hpp:77] Creating layer drop7
I0403 15:01:53.949087 11460 net.cpp:91] Creating Layer drop7
I0403 15:01:53.949102 11460 net.cpp:425] drop7 <- fc7
I0403 15:01:53.949121 11460 net.cpp:386] drop7 -> fc7 (in-place)
I0403 15:01:53.949167 11460 net.cpp:141] Setting up drop7
I0403 15:01:53.949190 11460 net.cpp:148] Top shape: 100 4096 (409600)
I0403 15:01:53.949203 11460 net.cpp:156] Memory required for data: 831526000
I0403 15:01:53.949218 11460 layer_factory.hpp:77] Creating layer fc8_plantvillage
I0403 15:01:53.949239 11460 net.cpp:91] Creating Layer fc8_plantvillage
I0403 15:01:53.949255 11460 net.cpp:425] fc8_plantvillage <- fc7
I0403 15:01:53.949275 11460 net.cpp:399] fc8_plantvillage -> fc8_plantvillage
I0403 15:01:53.955812 11460 net.cpp:141] Setting up fc8_plantvillage
I0403 15:01:53.955842 11460 net.cpp:148] Top shape: 100 38 (3800)
I0403 15:01:53.955857 11460 net.cpp:156] Memory required for data: 831541200
I0403 15:01:53.955874 11460 layer_factory.hpp:77] Creating layer fc8_plantvillage_fc8_plantvillage_0_split
I0403 15:01:53.955893 11460 net.cpp:91] Creating Layer fc8_plantvillage_fc8_plantvillage_0_split
I0403 15:01:53.955909 11460 net.cpp:425] fc8_plantvillage_fc8_plantvillage_0_split <- fc8_plantvillage
I0403 15:01:53.955927 11460 net.cpp:399] fc8_plantvillage_fc8_plantvillage_0_split -> fc8_plantvillage_fc8_plantvillage_0_split_0
I0403 15:01:53.955948 11460 net.cpp:399] fc8_plantvillage_fc8_plantvillage_0_split -> fc8_plantvillage_fc8_plantvillage_0_split_1
I0403 15:01:53.955967 11460 net.cpp:399] fc8_plantvillage_fc8_plantvillage_0_split -> fc8_plantvillage_fc8_plantvillage_0_split_2
I0403 15:01:53.956042 11460 net.cpp:141] Setting up fc8_plantvillage_fc8_plantvillage_0_split
I0403 15:01:53.956068 11460 net.cpp:148] Top shape: 100 38 (3800)
I0403 15:01:53.956084 11460 net.cpp:148] Top shape: 100 38 (3800)
I0403 15:01:53.956100 11460 net.cpp:148] Top shape: 100 38 (3800)
I0403 15:01:53.956115 11460 net.cpp:156] Memory required for data: 831586800
I0403 15:01:53.956127 11460 layer_factory.hpp:77] Creating layer prob
I0403 15:01:53.956146 11460 net.cpp:91] Creating Layer prob
I0403 15:01:53.956164 11460 net.cpp:425] prob <- fc8_plantvillage_fc8_plantvillage_0_split_0
I0403 15:01:53.956184 11460 net.cpp:399] prob -> prob
I0403 15:01:53.956399 11460 net.cpp:141] Setting up prob
I0403 15:01:53.956426 11460 net.cpp:148] Top shape: 100 38 (3800)
I0403 15:01:53.956442 11460 net.cpp:156] Memory required for data: 831602000
I0403 15:01:53.956457 11460 layer_factory.hpp:77] Creating layer hdf5out
I0403 15:01:53.956475 11460 net.cpp:91] Creating Layer hdf5out
I0403 15:01:53.956491 11460 net.cpp:425] hdf5out <- prob
I0403 15:01:53.956507 11460 net.cpp:425] hdf5out <- label_data_1_split_0
I0403 15:01:53.958570 11460 net.cpp:141] Setting up hdf5out
…
