…
I0403 14:57:06.506549 11339 net.cpp:313] The NetState phase (1) differed from the phase (0) specified by a rule in layer data
I0403 14:57:06.506856 11339 net.cpp:49] Initializing net from parameters: 
state {
  phase: TEST
}
layer {
  name: "data"
  type: "Data"
  top: "data"
  top: "label"
  include {
    phase: TEST
  }
  transform_param {
    crop_size: 227
    mean_file: "/home/mohanty/data/final_dataset/lmdb/grayscale-50-50/mean.binaryproto"
  }
  data_param {
    source: "/home/mohanty/data/final_dataset/lmdb/grayscale-50-50/test_db"
    batch_size: 100
    backend: LMDB
  }
}
layer {
  name: "conv1"
  type: "Convolution"
  bottom: "data"
  top: "conv1"
  param {
    lr_mult: 1
    decay_mult: 1
  }
  param {
    lr_mult: 2
    decay_mult: 0
  }
  convolution_param {
    num_output: 96
    kernel_size: 11
    stride: 4
    weight_filler {
      type: "gaussian"
      std: 0.01
    }
    bias_filler {
      type: "constant"
      value: 0
    }
  }
}
layer {
  name: "relu1"
  type: "ReLU"
  bottom: "conv1"
  top: "conv1"
}
layer {
  name: "norm1"
  type: "LRN"
  bottom: "conv1"
  top: "norm1"
  lrn_param {
    local_size: 5
    alpha: 0.0001
    beta: 0.75
  }
}
layer {
  name: "pool1"
  type: "Pooling"
  bottom: "norm1"
  top: "pool1"
  pooling_param {
    pool: MAX
    kernel_size: 3
    stride: 2
  }
}
layer {
  name: "conv2"
  type: "Convolution"
  bottom: "pool1"
  top: "conv2"
  param {
    lr_mult: 1
    decay_mult: 1
  }
  param {
    lr_mult: 2
    decay_mult: 0
  }
  convolution_param {
    num_output: 256
    pad: 2
    kernel_size: 5
    group: 2
    weight_filler {
      type: "gaussian"
      std: 0.01
    }
    bias_filler {
      type: "constant"
      value: 0.1
    }
  }
}
layer {
  name: "relu2"
  type: "ReLU"
  bottom: "conv2"
  top: "conv2"
}
layer {
  name: "norm2"
  type: "LRN"
  bottom: "conv2"
  top: "norm2"
  lrn_param {
    local_size: 5
    alpha: 0.0001
    beta: 0.75
  }
}
layer {
  name: "pool2"
  type: "Pooling"
  bottom: "norm2"
  top: "pool2"
  pooling_param {
    pool: MAX
    kernel_size: 3
    stride: 2
  }
}
layer {
  name: "conv3"
  type: "Convolution"
  bottom: "pool2"
  top: "conv3"
  param {
    lr_mult: 1
    decay_mult: 1
  }
  param {
    lr_mult: 2
    decay_mult: 0
  }
  convolution_param {
    num_output: 384
    pad: 1
    kernel_size: 3
    weight_filler {
      type: "gaussian"
      std: 0.01
    }
    bias_filler {
      type: "constant"
      value: 0
    }
  }
}
layer {
  name: "relu3"
  type: "ReLU"
  bottom: "conv3"
  top: "conv3"
}
layer {
  name: "conv4"
  type: "Convolution"
  bottom: "conv3"
  top: "conv4"
  param {
    lr_mult: 1
    decay_mult: 1
  }
  param {
    lr_mult: 2
    decay_mult: 0
  }
  convolution_param {
    num_output: 384
    pad: 1
    kernel_size: 3
    group: 2
    weight_filler {
      type: "gaussian"
      std: 0.01
    }
    bias_filler {
      type: "constant"
      value: 0.1
    }
  }
}
layer {
  name: "relu4"
  type: "ReLU"
  bottom: "conv4"
  top: "conv4"
}
layer {
  name: "conv5"
  type: "Convolution"
  bottom: "conv4"
  top: "conv5"
  param {
    lr_mult: 1
    decay_mult: 1
  }
  param {
    lr_mult: 2
    decay_mult: 0
  }
  convolution_param {
    num_output: 256
    pad: 1
    kernel_size: 3
    group: 2
    weight_filler {
      type: "gaussian"
      std: 0.01
    }
    bias_filler {
      type: "constant"
      value: 0.1
    }
  }
}
layer {
  name: "relu5"
  type: "ReLU"
  bottom: "conv5"
  top: "conv5"
}
layer {
  name: "pool5"
  type: "Pooling"
  bottom: "conv5"
  top: "pool5"
  pooling_param {
    pool: MAX
    kernel_size: 3
    stride: 2
  }
}
layer {
  name: "fc6"
  type: "InnerProduct"
  bottom: "pool5"
  top: "fc6"
  param {
    lr_mult: 1
    decay_mult: 1
  }
  param {
    lr_mult: 2
    decay_mult: 0
  }
  inner_product_param {
    num_output: 4096
    weight_filler {
      type: "gaussian"
      std: 0.005
    }
    bias_filler {
      type: "constant"
      value: 0.1
    }
  }
}
layer {
  name: "relu6"
  type: "ReLU"
  bottom: "fc6"
  top: "fc6"
}
layer {
  name: "drop6"
  type: "Dropout"
  bottom: "fc6"
  top: "fc6"
  dropout_param {
    dropout_ratio: 0.5
  }
}
layer {
  name: "fc7"
  type: "InnerProduct"
  bottom: "fc6"
  top: "fc7"
  param {
    lr_mult: 1
    decay_mult: 1
  }
  param {
    lr_mult: 2
    decay_mult: 0
  }
  inner_product_param {
    num_output: 4096
    weight_filler {
      type: "gaussian"
      std: 0.005
    }
    bias_filler {
      type: "constant"
      value: 0.1
    }
  }
}
layer {
  name: "relu7"
  type: "ReLU"
  bottom: "fc7"
  top: "fc7"
}
layer {
  name: "drop7"
  type: "Dropout"
  bottom: "fc7"
  top: "fc7"
  dropout_param {
    dropout_ratio: 0.5
  }
}
layer {
  name: "fc8_plantvillage"
  type: "InnerProduct"
  bottom: "fc7"
  top: "fc8_plantvillage"
  param {
    lr_mult: 1
    decay_mult: 1
  }
  param {
    lr_mult: 2
    decay_mult: 0
  }
  inner_product_param {
    num_output: 38
    weight_filler {
      type: "gaussian"
      std: 0.01
    }
    bias_filler {
      type: "constant"
      value: 0
    }
  }
}
layer {
  name: "prob"
  type: "Softmax"
  bottom: "fc8_plantvillage"
  top: "prob"
  include {
    phase: TEST
  }
}
layer {
  name: "hdf5out"
  type: "HDF5Output"
  bottom: "prob"
  bottom: "label"
  include {
    phase: TEST
  }
  hdf5_output_param {
    file_name: "hdf5_dumps/iter_6408.h5"
  }
}
layer {
  name: "loss"
  type: "SoftmaxWithLoss"
  bottom: "fc8_plantvillage"
  bottom: "label"
  top: "loss"
}
layer {
  name: "accuracy"
  type: "Accuracy"
  bottom: "fc8_plantvillage"
  bottom: "label"
  top: "accuracy"
  include {
    phase: TEST
  }
}
I0403 14:57:06.507446 11339 layer_factory.hpp:77] Creating layer data
I0403 14:57:06.508095 11339 net.cpp:91] Creating Layer data
I0403 14:57:06.508129 11339 net.cpp:399] data -> data
I0403 14:57:06.508186 11339 net.cpp:399] data -> label
I0403 14:57:06.508224 11339 data_transformer.cpp:25] Loading mean file from: /home/mohanty/data/final_dataset/lmdb/grayscale-50-50/mean.binaryproto
I0403 14:57:06.511178 11342 db_lmdb.cpp:38] Opened lmdb /home/mohanty/data/final_dataset/lmdb/grayscale-50-50/test_db
I0403 14:57:06.532779 11339 data_layer.cpp:41] output data size: 100,3,227,227
I0403 14:57:06.656651 11339 net.cpp:141] Setting up data
I0403 14:57:06.656713 11339 net.cpp:148] Top shape: 100 3 227 227 (15458700)
I0403 14:57:06.656735 11339 net.cpp:148] Top shape: 100 (100)
I0403 14:57:06.656751 11339 net.cpp:156] Memory required for data: 61835200
I0403 14:57:06.656780 11339 layer_factory.hpp:77] Creating layer label_data_1_split
I0403 14:57:06.656806 11339 net.cpp:91] Creating Layer label_data_1_split
I0403 14:57:06.656824 11339 net.cpp:425] label_data_1_split <- label
I0403 14:57:06.656857 11339 net.cpp:399] label_data_1_split -> label_data_1_split_0
I0403 14:57:06.656884 11339 net.cpp:399] label_data_1_split -> label_data_1_split_1
I0403 14:57:06.656904 11339 net.cpp:399] label_data_1_split -> label_data_1_split_2
I0403 14:57:06.656970 11339 net.cpp:141] Setting up label_data_1_split
I0403 14:57:06.656996 11339 net.cpp:148] Top shape: 100 (100)
I0403 14:57:06.657012 11339 net.cpp:148] Top shape: 100 (100)
I0403 14:57:06.657029 11339 net.cpp:148] Top shape: 100 (100)
I0403 14:57:06.657043 11339 net.cpp:156] Memory required for data: 61836400
I0403 14:57:06.657058 11339 layer_factory.hpp:77] Creating layer conv1
I0403 14:57:06.657091 11339 net.cpp:91] Creating Layer conv1
I0403 14:57:06.657111 11339 net.cpp:425] conv1 <- data
I0403 14:57:06.657133 11339 net.cpp:399] conv1 -> conv1
I0403 14:57:06.799113 11339 net.cpp:141] Setting up conv1
I0403 14:57:06.799202 11339 net.cpp:148] Top shape: 100 96 55 55 (29040000)
I0403 14:57:06.799221 11339 net.cpp:156] Memory required for data: 177996400
I0403 14:57:06.799253 11339 layer_factory.hpp:77] Creating layer relu1
I0403 14:57:06.799280 11339 net.cpp:91] Creating Layer relu1
I0403 14:57:06.799299 11339 net.cpp:425] relu1 <- conv1
I0403 14:57:06.799319 11339 net.cpp:386] relu1 -> conv1 (in-place)
I0403 14:57:06.799598 11339 net.cpp:141] Setting up relu1
I0403 14:57:06.799626 11339 net.cpp:148] Top shape: 100 96 55 55 (29040000)
I0403 14:57:06.799675 11339 net.cpp:156] Memory required for data: 294156400
I0403 14:57:06.799692 11339 layer_factory.hpp:77] Creating layer norm1
I0403 14:57:06.799720 11339 net.cpp:91] Creating Layer norm1
I0403 14:57:06.799737 11339 net.cpp:425] norm1 <- conv1
I0403 14:57:06.799756 11339 net.cpp:399] norm1 -> norm1
I0403 14:57:06.800050 11339 net.cpp:141] Setting up norm1
I0403 14:57:06.800078 11339 net.cpp:148] Top shape: 100 96 55 55 (29040000)
I0403 14:57:06.800096 11339 net.cpp:156] Memory required for data: 410316400
I0403 14:57:06.800110 11339 layer_factory.hpp:77] Creating layer pool1
I0403 14:57:06.800133 11339 net.cpp:91] Creating Layer pool1
I0403 14:57:06.800150 11339 net.cpp:425] pool1 <- norm1
I0403 14:57:06.800173 11339 net.cpp:399] pool1 -> pool1
I0403 14:57:06.800238 11339 net.cpp:141] Setting up pool1
I0403 14:57:06.800263 11339 net.cpp:148] Top shape: 100 96 27 27 (6998400)
I0403 14:57:06.800279 11339 net.cpp:156] Memory required for data: 438310000
I0403 14:57:06.800295 11339 layer_factory.hpp:77] Creating layer conv2
I0403 14:57:06.800319 11339 net.cpp:91] Creating Layer conv2
I0403 14:57:06.800335 11339 net.cpp:425] conv2 <- pool1
I0403 14:57:06.800353 11339 net.cpp:399] conv2 -> conv2
I0403 14:57:06.815827 11339 net.cpp:141] Setting up conv2
I0403 14:57:06.815867 11339 net.cpp:148] Top shape: 100 256 27 27 (18662400)
I0403 14:57:06.815883 11339 net.cpp:156] Memory required for data: 512959600
I0403 14:57:06.815906 11339 layer_factory.hpp:77] Creating layer relu2
I0403 14:57:06.815930 11339 net.cpp:91] Creating Layer relu2
I0403 14:57:06.815948 11339 net.cpp:425] relu2 <- conv2
I0403 14:57:06.815966 11339 net.cpp:386] relu2 -> conv2 (in-place)
I0403 14:57:06.816248 11339 net.cpp:141] Setting up relu2
I0403 14:57:06.816277 11339 net.cpp:148] Top shape: 100 256 27 27 (18662400)
I0403 14:57:06.816293 11339 net.cpp:156] Memory required for data: 587609200
I0403 14:57:06.816308 11339 layer_factory.hpp:77] Creating layer norm2
I0403 14:57:06.816331 11339 net.cpp:91] Creating Layer norm2
I0403 14:57:06.816350 11339 net.cpp:425] norm2 <- conv2
I0403 14:57:06.816370 11339 net.cpp:399] norm2 -> norm2
I0403 14:57:06.816571 11339 net.cpp:141] Setting up norm2
I0403 14:57:06.816597 11339 net.cpp:148] Top shape: 100 256 27 27 (18662400)
I0403 14:57:06.816613 11339 net.cpp:156] Memory required for data: 662258800
I0403 14:57:06.816628 11339 layer_factory.hpp:77] Creating layer pool2
I0403 14:57:06.816647 11339 net.cpp:91] Creating Layer pool2
I0403 14:57:06.816663 11339 net.cpp:425] pool2 <- norm2
I0403 14:57:06.816684 11339 net.cpp:399] pool2 -> pool2
I0403 14:57:06.816737 11339 net.cpp:141] Setting up pool2
I0403 14:57:06.816761 11339 net.cpp:148] Top shape: 100 256 13 13 (4326400)
I0403 14:57:06.816776 11339 net.cpp:156] Memory required for data: 679564400
I0403 14:57:06.816792 11339 layer_factory.hpp:77] Creating layer conv3
I0403 14:57:06.816815 11339 net.cpp:91] Creating Layer conv3
I0403 14:57:06.816833 11339 net.cpp:425] conv3 <- pool2
I0403 14:57:06.816854 11339 net.cpp:399] conv3 -> conv3
I0403 14:57:06.856361 11339 net.cpp:141] Setting up conv3
I0403 14:57:06.856464 11339 net.cpp:148] Top shape: 100 384 13 13 (6489600)
I0403 14:57:06.856482 11339 net.cpp:156] Memory required for data: 705522800
I0403 14:57:06.856508 11339 layer_factory.hpp:77] Creating layer relu3
I0403 14:57:06.856529 11339 net.cpp:91] Creating Layer relu3
I0403 14:57:06.856547 11339 net.cpp:425] relu3 <- conv3
I0403 14:57:06.856569 11339 net.cpp:386] relu3 -> conv3 (in-place)
I0403 14:57:06.856847 11339 net.cpp:141] Setting up relu3
I0403 14:57:06.856874 11339 net.cpp:148] Top shape: 100 384 13 13 (6489600)
I0403 14:57:06.856890 11339 net.cpp:156] Memory required for data: 731481200
I0403 14:57:06.856905 11339 layer_factory.hpp:77] Creating layer conv4
I0403 14:57:06.856931 11339 net.cpp:91] Creating Layer conv4
I0403 14:57:06.856947 11339 net.cpp:425] conv4 <- conv3
I0403 14:57:06.856969 11339 net.cpp:399] conv4 -> conv4
I0403 14:57:06.887656 11339 net.cpp:141] Setting up conv4
I0403 14:57:06.887730 11339 net.cpp:148] Top shape: 100 384 13 13 (6489600)
I0403 14:57:06.887780 11339 net.cpp:156] Memory required for data: 757439600
I0403 14:57:06.887804 11339 layer_factory.hpp:77] Creating layer relu4
I0403 14:57:06.887825 11339 net.cpp:91] Creating Layer relu4
I0403 14:57:06.887842 11339 net.cpp:425] relu4 <- conv4
I0403 14:57:06.887864 11339 net.cpp:386] relu4 -> conv4 (in-place)
I0403 14:57:06.888151 11339 net.cpp:141] Setting up relu4
I0403 14:57:06.888183 11339 net.cpp:148] Top shape: 100 384 13 13 (6489600)
I0403 14:57:06.888200 11339 net.cpp:156] Memory required for data: 783398000
I0403 14:57:06.888216 11339 layer_factory.hpp:77] Creating layer conv5
I0403 14:57:06.888242 11339 net.cpp:91] Creating Layer conv5
I0403 14:57:06.888259 11339 net.cpp:425] conv5 <- conv4
I0403 14:57:06.888281 11339 net.cpp:399] conv5 -> conv5
I0403 14:57:06.909576 11339 net.cpp:141] Setting up conv5
I0403 14:57:06.909646 11339 net.cpp:148] Top shape: 100 256 13 13 (4326400)
I0403 14:57:06.909664 11339 net.cpp:156] Memory required for data: 800703600
I0403 14:57:06.909694 11339 layer_factory.hpp:77] Creating layer relu5
I0403 14:57:06.909718 11339 net.cpp:91] Creating Layer relu5
I0403 14:57:06.909736 11339 net.cpp:425] relu5 <- conv5
I0403 14:57:06.909755 11339 net.cpp:386] relu5 -> conv5 (in-place)
I0403 14:57:06.910033 11339 net.cpp:141] Setting up relu5
I0403 14:57:06.910060 11339 net.cpp:148] Top shape: 100 256 13 13 (4326400)
I0403 14:57:06.910076 11339 net.cpp:156] Memory required for data: 818009200
I0403 14:57:06.910091 11339 layer_factory.hpp:77] Creating layer pool5
I0403 14:57:06.910117 11339 net.cpp:91] Creating Layer pool5
I0403 14:57:06.910135 11339 net.cpp:425] pool5 <- conv5
I0403 14:57:06.910154 11339 net.cpp:399] pool5 -> pool5
I0403 14:57:06.910223 11339 net.cpp:141] Setting up pool5
I0403 14:57:06.910248 11339 net.cpp:148] Top shape: 100 256 6 6 (921600)
I0403 14:57:06.910264 11339 net.cpp:156] Memory required for data: 821695600
I0403 14:57:06.910279 11339 layer_factory.hpp:77] Creating layer fc6
I0403 14:57:06.910306 11339 net.cpp:91] Creating Layer fc6
I0403 14:57:06.910323 11339 net.cpp:425] fc6 <- pool5
I0403 14:57:06.910346 11339 net.cpp:399] fc6 -> fc6
I0403 14:57:08.512255 11339 net.cpp:141] Setting up fc6
I0403 14:57:08.512301 11339 net.cpp:148] Top shape: 100 4096 (409600)
I0403 14:57:08.512318 11339 net.cpp:156] Memory required for data: 823334000
I0403 14:57:08.512341 11339 layer_factory.hpp:77] Creating layer relu6
I0403 14:57:08.512362 11339 net.cpp:91] Creating Layer relu6
I0403 14:57:08.512380 11339 net.cpp:425] relu6 <- fc6
I0403 14:57:08.512398 11339 net.cpp:386] relu6 -> fc6 (in-place)
I0403 14:57:08.512634 11339 net.cpp:141] Setting up relu6
I0403 14:57:08.512660 11339 net.cpp:148] Top shape: 100 4096 (409600)
I0403 14:57:08.512673 11339 net.cpp:156] Memory required for data: 824972400
I0403 14:57:08.512688 11339 layer_factory.hpp:77] Creating layer drop6
I0403 14:57:08.512707 11339 net.cpp:91] Creating Layer drop6
I0403 14:57:08.512722 11339 net.cpp:425] drop6 <- fc6
I0403 14:57:08.512740 11339 net.cpp:386] drop6 -> fc6 (in-place)
I0403 14:57:08.512790 11339 net.cpp:141] Setting up drop6
I0403 14:57:08.512815 11339 net.cpp:148] Top shape: 100 4096 (409600)
I0403 14:57:08.512831 11339 net.cpp:156] Memory required for data: 826610800
I0403 14:57:08.512846 11339 layer_factory.hpp:77] Creating layer fc7
I0403 14:57:08.512866 11339 net.cpp:91] Creating Layer fc7
I0403 14:57:08.512881 11339 net.cpp:425] fc7 <- fc6
I0403 14:57:08.512900 11339 net.cpp:399] fc7 -> fc7
I0403 14:57:09.213420 11339 net.cpp:141] Setting up fc7
I0403 14:57:09.213465 11339 net.cpp:148] Top shape: 100 4096 (409600)
I0403 14:57:09.213482 11339 net.cpp:156] Memory required for data: 828249200
I0403 14:57:09.213505 11339 layer_factory.hpp:77] Creating layer relu7
I0403 14:57:09.213528 11339 net.cpp:91] Creating Layer relu7
I0403 14:57:09.213547 11339 net.cpp:425] relu7 <- fc7
I0403 14:57:09.213569 11339 net.cpp:386] relu7 -> fc7 (in-place)
I0403 14:57:09.214011 11339 net.cpp:141] Setting up relu7
I0403 14:57:09.214040 11339 net.cpp:148] Top shape: 100 4096 (409600)
I0403 14:57:09.214089 11339 net.cpp:156] Memory required for data: 829887600
I0403 14:57:09.214107 11339 layer_factory.hpp:77] Creating layer drop7
I0403 14:57:09.214126 11339 net.cpp:91] Creating Layer drop7
I0403 14:57:09.214141 11339 net.cpp:425] drop7 <- fc7
I0403 14:57:09.214161 11339 net.cpp:386] drop7 -> fc7 (in-place)
I0403 14:57:09.214211 11339 net.cpp:141] Setting up drop7
I0403 14:57:09.214241 11339 net.cpp:148] Top shape: 100 4096 (409600)
I0403 14:57:09.214257 11339 net.cpp:156] Memory required for data: 831526000
I0403 14:57:09.214272 11339 layer_factory.hpp:77] Creating layer fc8_plantvillage
I0403 14:57:09.214293 11339 net.cpp:91] Creating Layer fc8_plantvillage
I0403 14:57:09.214309 11339 net.cpp:425] fc8_plantvillage <- fc7
I0403 14:57:09.214341 11339 net.cpp:399] fc8_plantvillage -> fc8_plantvillage
I0403 14:57:09.221261 11339 net.cpp:141] Setting up fc8_plantvillage
I0403 14:57:09.221290 11339 net.cpp:148] Top shape: 100 38 (3800)
I0403 14:57:09.221307 11339 net.cpp:156] Memory required for data: 831541200
I0403 14:57:09.221325 11339 layer_factory.hpp:77] Creating layer fc8_plantvillage_fc8_plantvillage_0_split
I0403 14:57:09.221346 11339 net.cpp:91] Creating Layer fc8_plantvillage_fc8_plantvillage_0_split
I0403 14:57:09.221377 11339 net.cpp:425] fc8_plantvillage_fc8_plantvillage_0_split <- fc8_plantvillage
I0403 14:57:09.221396 11339 net.cpp:399] fc8_plantvillage_fc8_plantvillage_0_split -> fc8_plantvillage_fc8_plantvillage_0_split_0
I0403 14:57:09.221417 11339 net.cpp:399] fc8_plantvillage_fc8_plantvillage_0_split -> fc8_plantvillage_fc8_plantvillage_0_split_1
I0403 14:57:09.221437 11339 net.cpp:399] fc8_plantvillage_fc8_plantvillage_0_split -> fc8_plantvillage_fc8_plantvillage_0_split_2
I0403 14:57:09.221518 11339 net.cpp:141] Setting up fc8_plantvillage_fc8_plantvillage_0_split
I0403 14:57:09.221544 11339 net.cpp:148] Top shape: 100 38 (3800)
I0403 14:57:09.221560 11339 net.cpp:148] Top shape: 100 38 (3800)
I0403 14:57:09.221575 11339 net.cpp:148] Top shape: 100 38 (3800)
I0403 14:57:09.221590 11339 net.cpp:156] Memory required for data: 831586800
I0403 14:57:09.221606 11339 layer_factory.hpp:77] Creating layer prob
I0403 14:57:09.221624 11339 net.cpp:91] Creating Layer prob
I0403 14:57:09.221652 11339 net.cpp:425] prob <- fc8_plantvillage_fc8_plantvillage_0_split_0
I0403 14:57:09.221670 11339 net.cpp:399] prob -> prob
I0403 14:57:09.221894 11339 net.cpp:141] Setting up prob
I0403 14:57:09.221920 11339 net.cpp:148] Top shape: 100 38 (3800)
I0403 14:57:09.221936 11339 net.cpp:156] Memory required for data: 831602000
I0403 14:57:09.221951 11339 layer_factory.hpp:77] Creating layer hdf5out
I0403 14:57:09.221971 11339 net.cpp:91] Creating Layer hdf5out
I0403 14:57:09.221987 11339 net.cpp:425] hdf5out <- prob
I0403 14:57:09.222002 11339 net.cpp:425] hdf5out <- label_data_1_split_0
I0403 14:57:09.224583 11339 net.cpp:141] Setting up hdf5out
…
