…
I0403 14:51:24.582839 11210 net.cpp:313] The NetState phase (1) differed from the phase (0) specified by a rule in layer data
I0403 14:51:24.583154 11210 net.cpp:49] Initializing net from parameters: 
state {
  phase: TEST
}
layer {
  name: "data"
  type: "Data"
  top: "data"
  top: "label"
  include {
    phase: TEST
  }
  transform_param {
    crop_size: 227
    mean_file: "/home/mohanty/data/final_dataset/lmdb/grayscale-50-50/mean.binaryproto"
  }
  data_param {
    source: "/home/mohanty/data/final_dataset/lmdb/grayscale-50-50/test_db"
    batch_size: 100
    backend: LMDB
  }
}
layer {
  name: "conv1"
  type: "Convolution"
  bottom: "data"
  top: "conv1"
  param {
    lr_mult: 1
    decay_mult: 1
  }
  param {
    lr_mult: 2
    decay_mult: 0
  }
  convolution_param {
    num_output: 96
    kernel_size: 11
    stride: 4
    weight_filler {
      type: "gaussian"
      std: 0.01
    }
    bias_filler {
      type: "constant"
      value: 0
    }
  }
}
layer {
  name: "relu1"
  type: "ReLU"
  bottom: "conv1"
  top: "conv1"
}
layer {
  name: "norm1"
  type: "LRN"
  bottom: "conv1"
  top: "norm1"
  lrn_param {
    local_size: 5
    alpha: 0.0001
    beta: 0.75
  }
}
layer {
  name: "pool1"
  type: "Pooling"
  bottom: "norm1"
  top: "pool1"
  pooling_param {
    pool: MAX
    kernel_size: 3
    stride: 2
  }
}
layer {
  name: "conv2"
  type: "Convolution"
  bottom: "pool1"
  top: "conv2"
  param {
    lr_mult: 1
    decay_mult: 1
  }
  param {
    lr_mult: 2
    decay_mult: 0
  }
  convolution_param {
    num_output: 256
    pad: 2
    kernel_size: 5
    group: 2
    weight_filler {
      type: "gaussian"
      std: 0.01
    }
    bias_filler {
      type: "constant"
      value: 0.1
    }
  }
}
layer {
  name: "relu2"
  type: "ReLU"
  bottom: "conv2"
  top: "conv2"
}
layer {
  name: "norm2"
  type: "LRN"
  bottom: "conv2"
  top: "norm2"
  lrn_param {
    local_size: 5
    alpha: 0.0001
    beta: 0.75
  }
}
layer {
  name: "pool2"
  type: "Pooling"
  bottom: "norm2"
  top: "pool2"
  pooling_param {
    pool: MAX
    kernel_size: 3
    stride: 2
  }
}
layer {
  name: "conv3"
  type: "Convolution"
  bottom: "pool2"
  top: "conv3"
  param {
    lr_mult: 1
    decay_mult: 1
  }
  param {
    lr_mult: 2
    decay_mult: 0
  }
  convolution_param {
    num_output: 384
    pad: 1
    kernel_size: 3
    weight_filler {
      type: "gaussian"
      std: 0.01
    }
    bias_filler {
      type: "constant"
      value: 0
    }
  }
}
layer {
  name: "relu3"
  type: "ReLU"
  bottom: "conv3"
  top: "conv3"
}
layer {
  name: "conv4"
  type: "Convolution"
  bottom: "conv3"
  top: "conv4"
  param {
    lr_mult: 1
    decay_mult: 1
  }
  param {
    lr_mult: 2
    decay_mult: 0
  }
  convolution_param {
    num_output: 384
    pad: 1
    kernel_size: 3
    group: 2
    weight_filler {
      type: "gaussian"
      std: 0.01
    }
    bias_filler {
      type: "constant"
      value: 0.1
    }
  }
}
layer {
  name: "relu4"
  type: "ReLU"
  bottom: "conv4"
  top: "conv4"
}
layer {
  name: "conv5"
  type: "Convolution"
  bottom: "conv4"
  top: "conv5"
  param {
    lr_mult: 1
    decay_mult: 1
  }
  param {
    lr_mult: 2
    decay_mult: 0
  }
  convolution_param {
    num_output: 256
    pad: 1
    kernel_size: 3
    group: 2
    weight_filler {
      type: "gaussian"
      std: 0.01
    }
    bias_filler {
      type: "constant"
      value: 0.1
    }
  }
}
layer {
  name: "relu5"
  type: "ReLU"
  bottom: "conv5"
  top: "conv5"
}
layer {
  name: "pool5"
  type: "Pooling"
  bottom: "conv5"
  top: "pool5"
  pooling_param {
    pool: MAX
    kernel_size: 3
    stride: 2
  }
}
layer {
  name: "fc6"
  type: "InnerProduct"
  bottom: "pool5"
  top: "fc6"
  param {
    lr_mult: 1
    decay_mult: 1
  }
  param {
    lr_mult: 2
    decay_mult: 0
  }
  inner_product_param {
    num_output: 4096
    weight_filler {
      type: "gaussian"
      std: 0.005
    }
    bias_filler {
      type: "constant"
      value: 0.1
    }
  }
}
layer {
  name: "relu6"
  type: "ReLU"
  bottom: "fc6"
  top: "fc6"
}
layer {
  name: "drop6"
  type: "Dropout"
  bottom: "fc6"
  top: "fc6"
  dropout_param {
    dropout_ratio: 0.5
  }
}
layer {
  name: "fc7"
  type: "InnerProduct"
  bottom: "fc6"
  top: "fc7"
  param {
    lr_mult: 1
    decay_mult: 1
  }
  param {
    lr_mult: 2
    decay_mult: 0
  }
  inner_product_param {
    num_output: 4096
    weight_filler {
      type: "gaussian"
      std: 0.005
    }
    bias_filler {
      type: "constant"
      value: 0.1
    }
  }
}
layer {
  name: "relu7"
  type: "ReLU"
  bottom: "fc7"
  top: "fc7"
}
layer {
  name: "drop7"
  type: "Dropout"
  bottom: "fc7"
  top: "fc7"
  dropout_param {
    dropout_ratio: 0.5
  }
}
layer {
  name: "fc8_plantvillage"
  type: "InnerProduct"
  bottom: "fc7"
  top: "fc8_plantvillage"
  param {
    lr_mult: 1
    decay_mult: 1
  }
  param {
    lr_mult: 2
    decay_mult: 0
  }
  inner_product_param {
    num_output: 38
    weight_filler {
      type: "gaussian"
      std: 0.01
    }
    bias_filler {
      type: "constant"
      value: 0
    }
  }
}
layer {
  name: "prob"
  type: "Softmax"
  bottom: "fc8_plantvillage"
  top: "prob"
  include {
    phase: TEST
  }
}
layer {
  name: "hdf5out"
  type: "HDF5Output"
  bottom: "prob"
  bottom: "label"
  include {
    phase: TEST
  }
  hdf5_output_param {
    file_name: "hdf5_dumps/iter_4806.h5"
  }
}
layer {
  name: "loss"
  type: "SoftmaxWithLoss"
  bottom: "fc8_plantvillage"
  bottom: "label"
  top: "loss"
}
layer {
  name: "accuracy"
  type: "Accuracy"
  bottom: "fc8_plantvillage"
  bottom: "label"
  top: "accuracy"
  include {
    phase: TEST
  }
}
I0403 14:51:24.583783 11210 layer_factory.hpp:77] Creating layer data
I0403 14:51:24.584419 11210 net.cpp:91] Creating Layer data
I0403 14:51:24.584450 11210 net.cpp:399] data -> data
I0403 14:51:24.584501 11210 net.cpp:399] data -> label
I0403 14:51:24.584539 11210 data_transformer.cpp:25] Loading mean file from: /home/mohanty/data/final_dataset/lmdb/grayscale-50-50/mean.binaryproto
I0403 14:51:24.587901 11214 db_lmdb.cpp:38] Opened lmdb /home/mohanty/data/final_dataset/lmdb/grayscale-50-50/test_db
I0403 14:51:24.598727 11210 data_layer.cpp:41] output data size: 100,3,227,227
I0403 14:51:24.718777 11210 net.cpp:141] Setting up data
I0403 14:51:24.718881 11210 net.cpp:148] Top shape: 100 3 227 227 (15458700)
I0403 14:51:24.718904 11210 net.cpp:148] Top shape: 100 (100)
I0403 14:51:24.718919 11210 net.cpp:156] Memory required for data: 61835200
I0403 14:51:24.718946 11210 layer_factory.hpp:77] Creating layer label_data_1_split
I0403 14:51:24.718971 11210 net.cpp:91] Creating Layer label_data_1_split
I0403 14:51:24.718989 11210 net.cpp:425] label_data_1_split <- label
I0403 14:51:24.719020 11210 net.cpp:399] label_data_1_split -> label_data_1_split_0
I0403 14:51:24.719048 11210 net.cpp:399] label_data_1_split -> label_data_1_split_1
I0403 14:51:24.719069 11210 net.cpp:399] label_data_1_split -> label_data_1_split_2
I0403 14:51:24.719130 11210 net.cpp:141] Setting up label_data_1_split
I0403 14:51:24.719153 11210 net.cpp:148] Top shape: 100 (100)
I0403 14:51:24.719171 11210 net.cpp:148] Top shape: 100 (100)
I0403 14:51:24.719190 11210 net.cpp:148] Top shape: 100 (100)
I0403 14:51:24.719207 11210 net.cpp:156] Memory required for data: 61836400
I0403 14:51:24.719221 11210 layer_factory.hpp:77] Creating layer conv1
I0403 14:51:24.719254 11210 net.cpp:91] Creating Layer conv1
I0403 14:51:24.719271 11210 net.cpp:425] conv1 <- data
I0403 14:51:24.719290 11210 net.cpp:399] conv1 -> conv1
I0403 14:51:24.861641 11210 net.cpp:141] Setting up conv1
I0403 14:51:24.861729 11210 net.cpp:148] Top shape: 100 96 55 55 (29040000)
I0403 14:51:24.861775 11210 net.cpp:156] Memory required for data: 177996400
I0403 14:51:24.861812 11210 layer_factory.hpp:77] Creating layer relu1
I0403 14:51:24.861840 11210 net.cpp:91] Creating Layer relu1
I0403 14:51:24.861860 11210 net.cpp:425] relu1 <- conv1
I0403 14:51:24.861878 11210 net.cpp:386] relu1 -> conv1 (in-place)
I0403 14:51:24.862148 11210 net.cpp:141] Setting up relu1
I0403 14:51:24.862175 11210 net.cpp:148] Top shape: 100 96 55 55 (29040000)
I0403 14:51:24.862236 11210 net.cpp:156] Memory required for data: 294156400
I0403 14:51:24.862254 11210 layer_factory.hpp:77] Creating layer norm1
I0403 14:51:24.862282 11210 net.cpp:91] Creating Layer norm1
I0403 14:51:24.862301 11210 net.cpp:425] norm1 <- conv1
I0403 14:51:24.862320 11210 net.cpp:399] norm1 -> norm1
I0403 14:51:24.862637 11210 net.cpp:141] Setting up norm1
I0403 14:51:24.862664 11210 net.cpp:148] Top shape: 100 96 55 55 (29040000)
I0403 14:51:24.862680 11210 net.cpp:156] Memory required for data: 410316400
I0403 14:51:24.862695 11210 layer_factory.hpp:77] Creating layer pool1
I0403 14:51:24.862718 11210 net.cpp:91] Creating Layer pool1
I0403 14:51:24.862736 11210 net.cpp:425] pool1 <- norm1
I0403 14:51:24.862754 11210 net.cpp:399] pool1 -> pool1
I0403 14:51:24.862820 11210 net.cpp:141] Setting up pool1
I0403 14:51:24.862845 11210 net.cpp:148] Top shape: 100 96 27 27 (6998400)
I0403 14:51:24.862860 11210 net.cpp:156] Memory required for data: 438310000
I0403 14:51:24.862875 11210 layer_factory.hpp:77] Creating layer conv2
I0403 14:51:24.862900 11210 net.cpp:91] Creating Layer conv2
I0403 14:51:24.862915 11210 net.cpp:425] conv2 <- pool1
I0403 14:51:24.862933 11210 net.cpp:399] conv2 -> conv2
I0403 14:51:24.877609 11210 net.cpp:141] Setting up conv2
I0403 14:51:24.877645 11210 net.cpp:148] Top shape: 100 256 27 27 (18662400)
I0403 14:51:24.877662 11210 net.cpp:156] Memory required for data: 512959600
I0403 14:51:24.877684 11210 layer_factory.hpp:77] Creating layer relu2
I0403 14:51:24.877704 11210 net.cpp:91] Creating Layer relu2
I0403 14:51:24.877720 11210 net.cpp:425] relu2 <- conv2
I0403 14:51:24.877737 11210 net.cpp:386] relu2 -> conv2 (in-place)
I0403 14:51:24.877995 11210 net.cpp:141] Setting up relu2
I0403 14:51:24.878022 11210 net.cpp:148] Top shape: 100 256 27 27 (18662400)
I0403 14:51:24.878038 11210 net.cpp:156] Memory required for data: 587609200
I0403 14:51:24.878054 11210 layer_factory.hpp:77] Creating layer norm2
I0403 14:51:24.878074 11210 net.cpp:91] Creating Layer norm2
I0403 14:51:24.878090 11210 net.cpp:425] norm2 <- conv2
I0403 14:51:24.878108 11210 net.cpp:399] norm2 -> norm2
I0403 14:51:24.878293 11210 net.cpp:141] Setting up norm2
I0403 14:51:24.878322 11210 net.cpp:148] Top shape: 100 256 27 27 (18662400)
I0403 14:51:24.878340 11210 net.cpp:156] Memory required for data: 662258800
I0403 14:51:24.878355 11210 layer_factory.hpp:77] Creating layer pool2
I0403 14:51:24.878371 11210 net.cpp:91] Creating Layer pool2
I0403 14:51:24.878387 11210 net.cpp:425] pool2 <- norm2
I0403 14:51:24.878407 11210 net.cpp:399] pool2 -> pool2
I0403 14:51:24.878461 11210 net.cpp:141] Setting up pool2
I0403 14:51:24.878485 11210 net.cpp:148] Top shape: 100 256 13 13 (4326400)
I0403 14:51:24.878500 11210 net.cpp:156] Memory required for data: 679564400
I0403 14:51:24.878515 11210 layer_factory.hpp:77] Creating layer conv3
I0403 14:51:24.878537 11210 net.cpp:91] Creating Layer conv3
I0403 14:51:24.878557 11210 net.cpp:425] conv3 <- pool2
I0403 14:51:24.878576 11210 net.cpp:399] conv3 -> conv3
I0403 14:51:24.916528 11210 net.cpp:141] Setting up conv3
I0403 14:51:24.916576 11210 net.cpp:148] Top shape: 100 384 13 13 (6489600)
I0403 14:51:24.916595 11210 net.cpp:156] Memory required for data: 705522800
I0403 14:51:24.916620 11210 layer_factory.hpp:77] Creating layer relu3
I0403 14:51:24.916641 11210 net.cpp:91] Creating Layer relu3
I0403 14:51:24.916659 11210 net.cpp:425] relu3 <- conv3
I0403 14:51:24.916682 11210 net.cpp:386] relu3 -> conv3 (in-place)
I0403 14:51:24.916992 11210 net.cpp:141] Setting up relu3
I0403 14:51:24.917023 11210 net.cpp:148] Top shape: 100 384 13 13 (6489600)
I0403 14:51:24.917040 11210 net.cpp:156] Memory required for data: 731481200
I0403 14:51:24.917057 11210 layer_factory.hpp:77] Creating layer conv4
I0403 14:51:24.917081 11210 net.cpp:91] Creating Layer conv4
I0403 14:51:24.917103 11210 net.cpp:425] conv4 <- conv3
I0403 14:51:24.917122 11210 net.cpp:399] conv4 -> conv4
I0403 14:51:24.947916 11210 net.cpp:141] Setting up conv4
I0403 14:51:24.947995 11210 net.cpp:148] Top shape: 100 384 13 13 (6489600)
I0403 14:51:24.948045 11210 net.cpp:156] Memory required for data: 757439600
I0403 14:51:24.948068 11210 layer_factory.hpp:77] Creating layer relu4
I0403 14:51:24.948092 11210 net.cpp:91] Creating Layer relu4
I0403 14:51:24.948110 11210 net.cpp:425] relu4 <- conv4
I0403 14:51:24.948132 11210 net.cpp:386] relu4 -> conv4 (in-place)
I0403 14:51:24.948420 11210 net.cpp:141] Setting up relu4
I0403 14:51:24.948447 11210 net.cpp:148] Top shape: 100 384 13 13 (6489600)
I0403 14:51:24.948463 11210 net.cpp:156] Memory required for data: 783398000
I0403 14:51:24.948479 11210 layer_factory.hpp:77] Creating layer conv5
I0403 14:51:24.948505 11210 net.cpp:91] Creating Layer conv5
I0403 14:51:24.948524 11210 net.cpp:425] conv5 <- conv4
I0403 14:51:24.948544 11210 net.cpp:399] conv5 -> conv5
I0403 14:51:24.969161 11210 net.cpp:141] Setting up conv5
I0403 14:51:24.969205 11210 net.cpp:148] Top shape: 100 256 13 13 (4326400)
I0403 14:51:24.969224 11210 net.cpp:156] Memory required for data: 800703600
I0403 14:51:24.969249 11210 layer_factory.hpp:77] Creating layer relu5
I0403 14:51:24.969267 11210 net.cpp:91] Creating Layer relu5
I0403 14:51:24.969282 11210 net.cpp:425] relu5 <- conv5
I0403 14:51:24.969302 11210 net.cpp:386] relu5 -> conv5 (in-place)
I0403 14:51:24.969578 11210 net.cpp:141] Setting up relu5
I0403 14:51:24.969605 11210 net.cpp:148] Top shape: 100 256 13 13 (4326400)
I0403 14:51:24.969621 11210 net.cpp:156] Memory required for data: 818009200
I0403 14:51:24.969636 11210 layer_factory.hpp:77] Creating layer pool5
I0403 14:51:24.969658 11210 net.cpp:91] Creating Layer pool5
I0403 14:51:24.969673 11210 net.cpp:425] pool5 <- conv5
I0403 14:51:24.969694 11210 net.cpp:399] pool5 -> pool5
I0403 14:51:24.969754 11210 net.cpp:141] Setting up pool5
I0403 14:51:24.969779 11210 net.cpp:148] Top shape: 100 256 6 6 (921600)
I0403 14:51:24.969795 11210 net.cpp:156] Memory required for data: 821695600
I0403 14:51:24.969810 11210 layer_factory.hpp:77] Creating layer fc6
I0403 14:51:24.969837 11210 net.cpp:91] Creating Layer fc6
I0403 14:51:24.969856 11210 net.cpp:425] fc6 <- pool5
I0403 14:51:24.969877 11210 net.cpp:399] fc6 -> fc6
I0403 14:51:26.521011 11210 net.cpp:141] Setting up fc6
I0403 14:51:26.521056 11210 net.cpp:148] Top shape: 100 4096 (409600)
I0403 14:51:26.521073 11210 net.cpp:156] Memory required for data: 823334000
I0403 14:51:26.521095 11210 layer_factory.hpp:77] Creating layer relu6
I0403 14:51:26.521121 11210 net.cpp:91] Creating Layer relu6
I0403 14:51:26.521141 11210 net.cpp:425] relu6 <- fc6
I0403 14:51:26.521159 11210 net.cpp:386] relu6 -> fc6 (in-place)
I0403 14:51:26.521397 11210 net.cpp:141] Setting up relu6
I0403 14:51:26.521425 11210 net.cpp:148] Top shape: 100 4096 (409600)
I0403 14:51:26.521440 11210 net.cpp:156] Memory required for data: 824972400
I0403 14:51:26.521456 11210 layer_factory.hpp:77] Creating layer drop6
I0403 14:51:26.521476 11210 net.cpp:91] Creating Layer drop6
I0403 14:51:26.521503 11210 net.cpp:425] drop6 <- fc6
I0403 14:51:26.521524 11210 net.cpp:386] drop6 -> fc6 (in-place)
I0403 14:51:26.521575 11210 net.cpp:141] Setting up drop6
I0403 14:51:26.521600 11210 net.cpp:148] Top shape: 100 4096 (409600)
I0403 14:51:26.521615 11210 net.cpp:156] Memory required for data: 826610800
I0403 14:51:26.521630 11210 layer_factory.hpp:77] Creating layer fc7
I0403 14:51:26.521652 11210 net.cpp:91] Creating Layer fc7
I0403 14:51:26.521670 11210 net.cpp:425] fc7 <- fc6
I0403 14:51:26.521690 11210 net.cpp:399] fc7 -> fc7
I0403 14:51:27.216312 11210 net.cpp:141] Setting up fc7
I0403 14:51:27.216356 11210 net.cpp:148] Top shape: 100 4096 (409600)
I0403 14:51:27.216373 11210 net.cpp:156] Memory required for data: 828249200
I0403 14:51:27.216395 11210 layer_factory.hpp:77] Creating layer relu7
I0403 14:51:27.216418 11210 net.cpp:91] Creating Layer relu7
I0403 14:51:27.216436 11210 net.cpp:425] relu7 <- fc7
I0403 14:51:27.216461 11210 net.cpp:386] relu7 -> fc7 (in-place)
I0403 14:51:27.216867 11210 net.cpp:141] Setting up relu7
I0403 14:51:27.216898 11210 net.cpp:148] Top shape: 100 4096 (409600)
I0403 14:51:27.216948 11210 net.cpp:156] Memory required for data: 829887600
I0403 14:51:27.216964 11210 layer_factory.hpp:77] Creating layer drop7
I0403 14:51:27.216985 11210 net.cpp:91] Creating Layer drop7
I0403 14:51:27.217001 11210 net.cpp:425] drop7 <- fc7
I0403 14:51:27.217021 11210 net.cpp:386] drop7 -> fc7 (in-place)
I0403 14:51:27.217066 11210 net.cpp:141] Setting up drop7
I0403 14:51:27.217088 11210 net.cpp:148] Top shape: 100 4096 (409600)
I0403 14:51:27.217104 11210 net.cpp:156] Memory required for data: 831526000
I0403 14:51:27.217119 11210 layer_factory.hpp:77] Creating layer fc8_plantvillage
I0403 14:51:27.217142 11210 net.cpp:91] Creating Layer fc8_plantvillage
I0403 14:51:27.217159 11210 net.cpp:425] fc8_plantvillage <- fc7
I0403 14:51:27.217181 11210 net.cpp:399] fc8_plantvillage -> fc8_plantvillage
I0403 14:51:27.224149 11210 net.cpp:141] Setting up fc8_plantvillage
I0403 14:51:27.224179 11210 net.cpp:148] Top shape: 100 38 (3800)
I0403 14:51:27.224205 11210 net.cpp:156] Memory required for data: 831541200
I0403 14:51:27.224225 11210 layer_factory.hpp:77] Creating layer fc8_plantvillage_fc8_plantvillage_0_split
I0403 14:51:27.224243 11210 net.cpp:91] Creating Layer fc8_plantvillage_fc8_plantvillage_0_split
I0403 14:51:27.224259 11210 net.cpp:425] fc8_plantvillage_fc8_plantvillage_0_split <- fc8_plantvillage
I0403 14:51:27.224280 11210 net.cpp:399] fc8_plantvillage_fc8_plantvillage_0_split -> fc8_plantvillage_fc8_plantvillage_0_split_0
I0403 14:51:27.224303 11210 net.cpp:399] fc8_plantvillage_fc8_plantvillage_0_split -> fc8_plantvillage_fc8_plantvillage_0_split_1
I0403 14:51:27.224323 11210 net.cpp:399] fc8_plantvillage_fc8_plantvillage_0_split -> fc8_plantvillage_fc8_plantvillage_0_split_2
I0403 14:51:27.224405 11210 net.cpp:141] Setting up fc8_plantvillage_fc8_plantvillage_0_split
I0403 14:51:27.224428 11210 net.cpp:148] Top shape: 100 38 (3800)
I0403 14:51:27.224447 11210 net.cpp:148] Top shape: 100 38 (3800)
I0403 14:51:27.224462 11210 net.cpp:148] Top shape: 100 38 (3800)
I0403 14:51:27.224477 11210 net.cpp:156] Memory required for data: 831586800
I0403 14:51:27.224493 11210 layer_factory.hpp:77] Creating layer prob
I0403 14:51:27.224511 11210 net.cpp:91] Creating Layer prob
I0403 14:51:27.224526 11210 net.cpp:425] prob <- fc8_plantvillage_fc8_plantvillage_0_split_0
I0403 14:51:27.224546 11210 net.cpp:399] prob -> prob
I0403 14:51:27.224777 11210 net.cpp:141] Setting up prob
I0403 14:51:27.224808 11210 net.cpp:148] Top shape: 100 38 (3800)
I0403 14:51:27.224825 11210 net.cpp:156] Memory required for data: 831602000
I0403 14:51:27.224841 11210 layer_factory.hpp:77] Creating layer hdf5out
I0403 14:51:27.224861 11210 net.cpp:91] Creating Layer hdf5out
I0403 14:51:27.224877 11210 net.cpp:425] hdf5out <- prob
I0403 14:51:27.224894 11210 net.cpp:425] hdf5out <- label_data_1_split_0
I0403 14:51:27.227362 11210 net.cpp:141] Setting up hdf5out
…
