…
I0403 14:59:01.051614 11375 net.cpp:313] The NetState phase (1) differed from the phase (0) specified by a rule in layer data
I0403 14:59:01.051918 11375 net.cpp:49] Initializing net from parameters: 
state {
  phase: TEST
}
layer {
  name: "data"
  type: "Data"
  top: "data"
  top: "label"
  include {
    phase: TEST
  }
  transform_param {
    crop_size: 227
    mean_file: "/home/mohanty/data/final_dataset/lmdb/grayscale-50-50/mean.binaryproto"
  }
  data_param {
    source: "/home/mohanty/data/final_dataset/lmdb/grayscale-50-50/test_db"
    batch_size: 100
    backend: LMDB
  }
}
layer {
  name: "conv1"
  type: "Convolution"
  bottom: "data"
  top: "conv1"
  param {
    lr_mult: 1
    decay_mult: 1
  }
  param {
    lr_mult: 2
    decay_mult: 0
  }
  convolution_param {
    num_output: 96
    kernel_size: 11
    stride: 4
    weight_filler {
      type: "gaussian"
      std: 0.01
    }
    bias_filler {
      type: "constant"
      value: 0
    }
  }
}
layer {
  name: "relu1"
  type: "ReLU"
  bottom: "conv1"
  top: "conv1"
}
layer {
  name: "norm1"
  type: "LRN"
  bottom: "conv1"
  top: "norm1"
  lrn_param {
    local_size: 5
    alpha: 0.0001
    beta: 0.75
  }
}
layer {
  name: "pool1"
  type: "Pooling"
  bottom: "norm1"
  top: "pool1"
  pooling_param {
    pool: MAX
    kernel_size: 3
    stride: 2
  }
}
layer {
  name: "conv2"
  type: "Convolution"
  bottom: "pool1"
  top: "conv2"
  param {
    lr_mult: 1
    decay_mult: 1
  }
  param {
    lr_mult: 2
    decay_mult: 0
  }
  convolution_param {
    num_output: 256
    pad: 2
    kernel_size: 5
    group: 2
    weight_filler {
      type: "gaussian"
      std: 0.01
    }
    bias_filler {
      type: "constant"
      value: 0.1
    }
  }
}
layer {
  name: "relu2"
  type: "ReLU"
  bottom: "conv2"
  top: "conv2"
}
layer {
  name: "norm2"
  type: "LRN"
  bottom: "conv2"
  top: "norm2"
  lrn_param {
    local_size: 5
    alpha: 0.0001
    beta: 0.75
  }
}
layer {
  name: "pool2"
  type: "Pooling"
  bottom: "norm2"
  top: "pool2"
  pooling_param {
    pool: MAX
    kernel_size: 3
    stride: 2
  }
}
layer {
  name: "conv3"
  type: "Convolution"
  bottom: "pool2"
  top: "conv3"
  param {
    lr_mult: 1
    decay_mult: 1
  }
  param {
    lr_mult: 2
    decay_mult: 0
  }
  convolution_param {
    num_output: 384
    pad: 1
    kernel_size: 3
    weight_filler {
      type: "gaussian"
      std: 0.01
    }
    bias_filler {
      type: "constant"
      value: 0
    }
  }
}
layer {
  name: "relu3"
  type: "ReLU"
  bottom: "conv3"
  top: "conv3"
}
layer {
  name: "conv4"
  type: "Convolution"
  bottom: "conv3"
  top: "conv4"
  param {
    lr_mult: 1
    decay_mult: 1
  }
  param {
    lr_mult: 2
    decay_mult: 0
  }
  convolution_param {
    num_output: 384
    pad: 1
    kernel_size: 3
    group: 2
    weight_filler {
      type: "gaussian"
      std: 0.01
    }
    bias_filler {
      type: "constant"
      value: 0.1
    }
  }
}
layer {
  name: "relu4"
  type: "ReLU"
  bottom: "conv4"
  top: "conv4"
}
layer {
  name: "conv5"
  type: "Convolution"
  bottom: "conv4"
  top: "conv5"
  param {
    lr_mult: 1
    decay_mult: 1
  }
  param {
    lr_mult: 2
    decay_mult: 0
  }
  convolution_param {
    num_output: 256
    pad: 1
    kernel_size: 3
    group: 2
    weight_filler {
      type: "gaussian"
      std: 0.01
    }
    bias_filler {
      type: "constant"
      value: 0.1
    }
  }
}
layer {
  name: "relu5"
  type: "ReLU"
  bottom: "conv5"
  top: "conv5"
}
layer {
  name: "pool5"
  type: "Pooling"
  bottom: "conv5"
  top: "pool5"
  pooling_param {
    pool: MAX
    kernel_size: 3
    stride: 2
  }
}
layer {
  name: "fc6"
  type: "InnerProduct"
  bottom: "pool5"
  top: "fc6"
  param {
    lr_mult: 1
    decay_mult: 1
  }
  param {
    lr_mult: 2
    decay_mult: 0
  }
  inner_product_param {
    num_output: 4096
    weight_filler {
      type: "gaussian"
      std: 0.005
    }
    bias_filler {
      type: "constant"
      value: 0.1
    }
  }
}
layer {
  name: "relu6"
  type: "ReLU"
  bottom: "fc6"
  top: "fc6"
}
layer {
  name: "drop6"
  type: "Dropout"
  bottom: "fc6"
  top: "fc6"
  dropout_param {
    dropout_ratio: 0.5
  }
}
layer {
  name: "fc7"
  type: "InnerProduct"
  bottom: "fc6"
  top: "fc7"
  param {
    lr_mult: 1
    decay_mult: 1
  }
  param {
    lr_mult: 2
    decay_mult: 0
  }
  inner_product_param {
    num_output: 4096
    weight_filler {
      type: "gaussian"
      std: 0.005
    }
    bias_filler {
      type: "constant"
      value: 0.1
    }
  }
}
layer {
  name: "relu7"
  type: "ReLU"
  bottom: "fc7"
  top: "fc7"
}
layer {
  name: "drop7"
  type: "Dropout"
  bottom: "fc7"
  top: "fc7"
  dropout_param {
    dropout_ratio: 0.5
  }
}
layer {
  name: "fc8_plantvillage"
  type: "InnerProduct"
  bottom: "fc7"
  top: "fc8_plantvillage"
  param {
    lr_mult: 1
    decay_mult: 1
  }
  param {
    lr_mult: 2
    decay_mult: 0
  }
  inner_product_param {
    num_output: 38
    weight_filler {
      type: "gaussian"
      std: 0.01
    }
    bias_filler {
      type: "constant"
      value: 0
    }
  }
}
layer {
  name: "prob"
  type: "Softmax"
  bottom: "fc8_plantvillage"
  top: "prob"
  include {
    phase: TEST
  }
}
layer {
  name: "hdf5out"
  type: "HDF5Output"
  bottom: "prob"
  bottom: "label"
  include {
    phase: TEST
  }
  hdf5_output_param {
    file_name: "hdf5_dumps/iter_6942.h5"
  }
}
layer {
  name: "loss"
  type: "SoftmaxWithLoss"
  bottom: "fc8_plantvillage"
  bottom: "label"
  top: "loss"
}
layer {
  name: "accuracy"
  type: "Accuracy"
  bottom: "fc8_plantvillage"
  bottom: "label"
  top: "accuracy"
  include {
    phase: TEST
  }
}
I0403 14:59:01.052546 11375 layer_factory.hpp:77] Creating layer data
I0403 14:59:01.053191 11375 net.cpp:91] Creating Layer data
I0403 14:59:01.053222 11375 net.cpp:399] data -> data
I0403 14:59:01.053274 11375 net.cpp:399] data -> label
I0403 14:59:01.053314 11375 data_transformer.cpp:25] Loading mean file from: /home/mohanty/data/final_dataset/lmdb/grayscale-50-50/mean.binaryproto
I0403 14:59:01.055982 11380 db_lmdb.cpp:38] Opened lmdb /home/mohanty/data/final_dataset/lmdb/grayscale-50-50/test_db
I0403 14:59:01.067756 11375 data_layer.cpp:41] output data size: 100,3,227,227
I0403 14:59:01.189249 11375 net.cpp:141] Setting up data
I0403 14:59:01.189306 11375 net.cpp:148] Top shape: 100 3 227 227 (15458700)
I0403 14:59:01.189329 11375 net.cpp:148] Top shape: 100 (100)
I0403 14:59:01.189344 11375 net.cpp:156] Memory required for data: 61835200
I0403 14:59:01.189371 11375 layer_factory.hpp:77] Creating layer label_data_1_split
I0403 14:59:01.189396 11375 net.cpp:91] Creating Layer label_data_1_split
I0403 14:59:01.189414 11375 net.cpp:425] label_data_1_split <- label
I0403 14:59:01.189445 11375 net.cpp:399] label_data_1_split -> label_data_1_split_0
I0403 14:59:01.189472 11375 net.cpp:399] label_data_1_split -> label_data_1_split_1
I0403 14:59:01.189492 11375 net.cpp:399] label_data_1_split -> label_data_1_split_2
I0403 14:59:01.189553 11375 net.cpp:141] Setting up label_data_1_split
I0403 14:59:01.189576 11375 net.cpp:148] Top shape: 100 (100)
I0403 14:59:01.189592 11375 net.cpp:148] Top shape: 100 (100)
I0403 14:59:01.189610 11375 net.cpp:148] Top shape: 100 (100)
I0403 14:59:01.189622 11375 net.cpp:156] Memory required for data: 61836400
I0403 14:59:01.189636 11375 layer_factory.hpp:77] Creating layer conv1
I0403 14:59:01.189668 11375 net.cpp:91] Creating Layer conv1
I0403 14:59:01.189687 11375 net.cpp:425] conv1 <- data
I0403 14:59:01.189707 11375 net.cpp:399] conv1 -> conv1
I0403 14:59:01.330113 11375 net.cpp:141] Setting up conv1
I0403 14:59:01.330206 11375 net.cpp:148] Top shape: 100 96 55 55 (29040000)
I0403 14:59:01.330224 11375 net.cpp:156] Memory required for data: 177996400
I0403 14:59:01.330255 11375 layer_factory.hpp:77] Creating layer relu1
I0403 14:59:01.330283 11375 net.cpp:91] Creating Layer relu1
I0403 14:59:01.330303 11375 net.cpp:425] relu1 <- conv1
I0403 14:59:01.330322 11375 net.cpp:386] relu1 -> conv1 (in-place)
I0403 14:59:01.330586 11375 net.cpp:141] Setting up relu1
I0403 14:59:01.330615 11375 net.cpp:148] Top shape: 100 96 55 55 (29040000)
I0403 14:59:01.330665 11375 net.cpp:156] Memory required for data: 294156400
I0403 14:59:01.330682 11375 layer_factory.hpp:77] Creating layer norm1
I0403 14:59:01.330710 11375 net.cpp:91] Creating Layer norm1
I0403 14:59:01.330729 11375 net.cpp:425] norm1 <- conv1
I0403 14:59:01.330749 11375 net.cpp:399] norm1 -> norm1
I0403 14:59:01.331073 11375 net.cpp:141] Setting up norm1
I0403 14:59:01.331104 11375 net.cpp:148] Top shape: 100 96 55 55 (29040000)
I0403 14:59:01.331135 11375 net.cpp:156] Memory required for data: 410316400
I0403 14:59:01.331151 11375 layer_factory.hpp:77] Creating layer pool1
I0403 14:59:01.331179 11375 net.cpp:91] Creating Layer pool1
I0403 14:59:01.331199 11375 net.cpp:425] pool1 <- norm1
I0403 14:59:01.331223 11375 net.cpp:399] pool1 -> pool1
I0403 14:59:01.331295 11375 net.cpp:141] Setting up pool1
I0403 14:59:01.331321 11375 net.cpp:148] Top shape: 100 96 27 27 (6998400)
I0403 14:59:01.331336 11375 net.cpp:156] Memory required for data: 438310000
I0403 14:59:01.331352 11375 layer_factory.hpp:77] Creating layer conv2
I0403 14:59:01.331380 11375 net.cpp:91] Creating Layer conv2
I0403 14:59:01.331398 11375 net.cpp:425] conv2 <- pool1
I0403 14:59:01.331419 11375 net.cpp:399] conv2 -> conv2
I0403 14:59:01.346555 11375 net.cpp:141] Setting up conv2
I0403 14:59:01.346595 11375 net.cpp:148] Top shape: 100 256 27 27 (18662400)
I0403 14:59:01.346613 11375 net.cpp:156] Memory required for data: 512959600
I0403 14:59:01.346637 11375 layer_factory.hpp:77] Creating layer relu2
I0403 14:59:01.346657 11375 net.cpp:91] Creating Layer relu2
I0403 14:59:01.346673 11375 net.cpp:425] relu2 <- conv2
I0403 14:59:01.346691 11375 net.cpp:386] relu2 -> conv2 (in-place)
I0403 14:59:01.346981 11375 net.cpp:141] Setting up relu2
I0403 14:59:01.347008 11375 net.cpp:148] Top shape: 100 256 27 27 (18662400)
I0403 14:59:01.347025 11375 net.cpp:156] Memory required for data: 587609200
I0403 14:59:01.347041 11375 layer_factory.hpp:77] Creating layer norm2
I0403 14:59:01.347066 11375 net.cpp:91] Creating Layer norm2
I0403 14:59:01.347084 11375 net.cpp:425] norm2 <- conv2
I0403 14:59:01.347103 11375 net.cpp:399] norm2 -> norm2
I0403 14:59:01.347312 11375 net.cpp:141] Setting up norm2
I0403 14:59:01.347342 11375 net.cpp:148] Top shape: 100 256 27 27 (18662400)
I0403 14:59:01.347359 11375 net.cpp:156] Memory required for data: 662258800
I0403 14:59:01.347374 11375 layer_factory.hpp:77] Creating layer pool2
I0403 14:59:01.347393 11375 net.cpp:91] Creating Layer pool2
I0403 14:59:01.347409 11375 net.cpp:425] pool2 <- norm2
I0403 14:59:01.347426 11375 net.cpp:399] pool2 -> pool2
I0403 14:59:01.347484 11375 net.cpp:141] Setting up pool2
I0403 14:59:01.347509 11375 net.cpp:148] Top shape: 100 256 13 13 (4326400)
I0403 14:59:01.347525 11375 net.cpp:156] Memory required for data: 679564400
I0403 14:59:01.347542 11375 layer_factory.hpp:77] Creating layer conv3
I0403 14:59:01.347566 11375 net.cpp:91] Creating Layer conv3
I0403 14:59:01.347584 11375 net.cpp:425] conv3 <- pool2
I0403 14:59:01.347605 11375 net.cpp:399] conv3 -> conv3
I0403 14:59:01.384969 11375 net.cpp:141] Setting up conv3
I0403 14:59:01.385028 11375 net.cpp:148] Top shape: 100 384 13 13 (6489600)
I0403 14:59:01.385045 11375 net.cpp:156] Memory required for data: 705522800
I0403 14:59:01.385071 11375 layer_factory.hpp:77] Creating layer relu3
I0403 14:59:01.385092 11375 net.cpp:91] Creating Layer relu3
I0403 14:59:01.385109 11375 net.cpp:425] relu3 <- conv3
I0403 14:59:01.385126 11375 net.cpp:386] relu3 -> conv3 (in-place)
I0403 14:59:01.385401 11375 net.cpp:141] Setting up relu3
I0403 14:59:01.385432 11375 net.cpp:148] Top shape: 100 384 13 13 (6489600)
I0403 14:59:01.385447 11375 net.cpp:156] Memory required for data: 731481200
I0403 14:59:01.385463 11375 layer_factory.hpp:77] Creating layer conv4
I0403 14:59:01.385488 11375 net.cpp:91] Creating Layer conv4
I0403 14:59:01.385506 11375 net.cpp:425] conv4 <- conv3
I0403 14:59:01.385525 11375 net.cpp:399] conv4 -> conv4
I0403 14:59:01.414940 11375 net.cpp:141] Setting up conv4
I0403 14:59:01.415012 11375 net.cpp:148] Top shape: 100 384 13 13 (6489600)
I0403 14:59:01.415062 11375 net.cpp:156] Memory required for data: 757439600
I0403 14:59:01.415086 11375 layer_factory.hpp:77] Creating layer relu4
I0403 14:59:01.415110 11375 net.cpp:91] Creating Layer relu4
I0403 14:59:01.415128 11375 net.cpp:425] relu4 <- conv4
I0403 14:59:01.415148 11375 net.cpp:386] relu4 -> conv4 (in-place)
I0403 14:59:01.415433 11375 net.cpp:141] Setting up relu4
I0403 14:59:01.415462 11375 net.cpp:148] Top shape: 100 384 13 13 (6489600)
I0403 14:59:01.415477 11375 net.cpp:156] Memory required for data: 783398000
I0403 14:59:01.415493 11375 layer_factory.hpp:77] Creating layer conv5
I0403 14:59:01.415518 11375 net.cpp:91] Creating Layer conv5
I0403 14:59:01.415536 11375 net.cpp:425] conv5 <- conv4
I0403 14:59:01.415556 11375 net.cpp:399] conv5 -> conv5
I0403 14:59:01.436167 11375 net.cpp:141] Setting up conv5
I0403 14:59:01.436205 11375 net.cpp:148] Top shape: 100 256 13 13 (4326400)
I0403 14:59:01.436225 11375 net.cpp:156] Memory required for data: 800703600
I0403 14:59:01.436251 11375 layer_factory.hpp:77] Creating layer relu5
I0403 14:59:01.436278 11375 net.cpp:91] Creating Layer relu5
I0403 14:59:01.436296 11375 net.cpp:425] relu5 <- conv5
I0403 14:59:01.436319 11375 net.cpp:386] relu5 -> conv5 (in-place)
I0403 14:59:01.436604 11375 net.cpp:141] Setting up relu5
I0403 14:59:01.436635 11375 net.cpp:148] Top shape: 100 256 13 13 (4326400)
I0403 14:59:01.436652 11375 net.cpp:156] Memory required for data: 818009200
I0403 14:59:01.436667 11375 layer_factory.hpp:77] Creating layer pool5
I0403 14:59:01.436689 11375 net.cpp:91] Creating Layer pool5
I0403 14:59:01.436707 11375 net.cpp:425] pool5 <- conv5
I0403 14:59:01.436728 11375 net.cpp:399] pool5 -> pool5
I0403 14:59:01.436790 11375 net.cpp:141] Setting up pool5
I0403 14:59:01.436815 11375 net.cpp:148] Top shape: 100 256 6 6 (921600)
I0403 14:59:01.436830 11375 net.cpp:156] Memory required for data: 821695600
I0403 14:59:01.436846 11375 layer_factory.hpp:77] Creating layer fc6
I0403 14:59:01.436875 11375 net.cpp:91] Creating Layer fc6
I0403 14:59:01.436894 11375 net.cpp:425] fc6 <- pool5
I0403 14:59:01.436915 11375 net.cpp:399] fc6 -> fc6
I0403 14:59:02.984733 11375 net.cpp:141] Setting up fc6
I0403 14:59:02.984777 11375 net.cpp:148] Top shape: 100 4096 (409600)
I0403 14:59:02.984793 11375 net.cpp:156] Memory required for data: 823334000
I0403 14:59:02.984814 11375 layer_factory.hpp:77] Creating layer relu6
I0403 14:59:02.984836 11375 net.cpp:91] Creating Layer relu6
I0403 14:59:02.984854 11375 net.cpp:425] relu6 <- fc6
I0403 14:59:02.984874 11375 net.cpp:386] relu6 -> fc6 (in-place)
I0403 14:59:02.985083 11375 net.cpp:141] Setting up relu6
I0403 14:59:02.985110 11375 net.cpp:148] Top shape: 100 4096 (409600)
I0403 14:59:02.985127 11375 net.cpp:156] Memory required for data: 824972400
I0403 14:59:02.985142 11375 layer_factory.hpp:77] Creating layer drop6
I0403 14:59:02.985165 11375 net.cpp:91] Creating Layer drop6
I0403 14:59:02.985183 11375 net.cpp:425] drop6 <- fc6
I0403 14:59:02.985199 11375 net.cpp:386] drop6 -> fc6 (in-place)
I0403 14:59:02.985250 11375 net.cpp:141] Setting up drop6
I0403 14:59:02.985273 11375 net.cpp:148] Top shape: 100 4096 (409600)
I0403 14:59:02.985288 11375 net.cpp:156] Memory required for data: 826610800
I0403 14:59:02.985302 11375 layer_factory.hpp:77] Creating layer fc7
I0403 14:59:02.985324 11375 net.cpp:91] Creating Layer fc7
I0403 14:59:02.985342 11375 net.cpp:425] fc7 <- fc6
I0403 14:59:02.985358 11375 net.cpp:399] fc7 -> fc7
I0403 14:59:03.666941 11375 net.cpp:141] Setting up fc7
I0403 14:59:03.666992 11375 net.cpp:148] Top shape: 100 4096 (409600)
I0403 14:59:03.667009 11375 net.cpp:156] Memory required for data: 828249200
I0403 14:59:03.667029 11375 layer_factory.hpp:77] Creating layer relu7
I0403 14:59:03.667054 11375 net.cpp:91] Creating Layer relu7
I0403 14:59:03.667073 11375 net.cpp:425] relu7 <- fc7
I0403 14:59:03.667091 11375 net.cpp:386] relu7 -> fc7 (in-place)
I0403 14:59:03.667464 11375 net.cpp:141] Setting up relu7
I0403 14:59:03.667493 11375 net.cpp:148] Top shape: 100 4096 (409600)
I0403 14:59:03.667541 11375 net.cpp:156] Memory required for data: 829887600
I0403 14:59:03.667557 11375 layer_factory.hpp:77] Creating layer drop7
I0403 14:59:03.667577 11375 net.cpp:91] Creating Layer drop7
I0403 14:59:03.667590 11375 net.cpp:425] drop7 <- fc7
I0403 14:59:03.667608 11375 net.cpp:386] drop7 -> fc7 (in-place)
I0403 14:59:03.667650 11375 net.cpp:141] Setting up drop7
I0403 14:59:03.667673 11375 net.cpp:148] Top shape: 100 4096 (409600)
I0403 14:59:03.667686 11375 net.cpp:156] Memory required for data: 831526000
I0403 14:59:03.667701 11375 layer_factory.hpp:77] Creating layer fc8_plantvillage
I0403 14:59:03.667722 11375 net.cpp:91] Creating Layer fc8_plantvillage
I0403 14:59:03.667737 11375 net.cpp:425] fc8_plantvillage <- fc7
I0403 14:59:03.667755 11375 net.cpp:399] fc8_plantvillage -> fc8_plantvillage
I0403 14:59:03.674299 11375 net.cpp:141] Setting up fc8_plantvillage
I0403 14:59:03.674326 11375 net.cpp:148] Top shape: 100 38 (3800)
I0403 14:59:03.674341 11375 net.cpp:156] Memory required for data: 831541200
I0403 14:59:03.674360 11375 layer_factory.hpp:77] Creating layer fc8_plantvillage_fc8_plantvillage_0_split
I0403 14:59:03.674377 11375 net.cpp:91] Creating Layer fc8_plantvillage_fc8_plantvillage_0_split
I0403 14:59:03.674393 11375 net.cpp:425] fc8_plantvillage_fc8_plantvillage_0_split <- fc8_plantvillage
I0403 14:59:03.674410 11375 net.cpp:399] fc8_plantvillage_fc8_plantvillage_0_split -> fc8_plantvillage_fc8_plantvillage_0_split_0
I0403 14:59:03.674432 11375 net.cpp:399] fc8_plantvillage_fc8_plantvillage_0_split -> fc8_plantvillage_fc8_plantvillage_0_split_1
I0403 14:59:03.674465 11375 net.cpp:399] fc8_plantvillage_fc8_plantvillage_0_split -> fc8_plantvillage_fc8_plantvillage_0_split_2
I0403 14:59:03.674543 11375 net.cpp:141] Setting up fc8_plantvillage_fc8_plantvillage_0_split
I0403 14:59:03.674567 11375 net.cpp:148] Top shape: 100 38 (3800)
I0403 14:59:03.674584 11375 net.cpp:148] Top shape: 100 38 (3800)
I0403 14:59:03.674600 11375 net.cpp:148] Top shape: 100 38 (3800)
I0403 14:59:03.674614 11375 net.cpp:156] Memory required for data: 831586800
I0403 14:59:03.674629 11375 layer_factory.hpp:77] Creating layer prob
I0403 14:59:03.674649 11375 net.cpp:91] Creating Layer prob
I0403 14:59:03.674664 11375 net.cpp:425] prob <- fc8_plantvillage_fc8_plantvillage_0_split_0
I0403 14:59:03.674681 11375 net.cpp:399] prob -> prob
I0403 14:59:03.674911 11375 net.cpp:141] Setting up prob
I0403 14:59:03.674937 11375 net.cpp:148] Top shape: 100 38 (3800)
I0403 14:59:03.674952 11375 net.cpp:156] Memory required for data: 831602000
I0403 14:59:03.674964 11375 layer_factory.hpp:77] Creating layer hdf5out
I0403 14:59:03.674986 11375 net.cpp:91] Creating Layer hdf5out
I0403 14:59:03.675004 11375 net.cpp:425] hdf5out <- prob
I0403 14:59:03.675019 11375 net.cpp:425] hdf5out <- label_data_1_split_0
I0403 14:59:03.677253 11375 net.cpp:141] Setting up hdf5out
…
