…
I0403 14:46:40.145602 11095 net.cpp:313] The NetState phase (1) differed from the phase (0) specified by a rule in layer data
I0403 14:46:40.146222 11095 net.cpp:49] Initializing net from parameters: 
state {
  phase: TEST
}
layer {
  name: "data"
  type: "Data"
  top: "data"
  top: "label"
  include {
    phase: TEST
  }
  transform_param {
    crop_size: 227
    mean_file: "/home/mohanty/data/final_dataset/lmdb/grayscale-50-50/mean.binaryproto"
  }
  data_param {
    source: "/home/mohanty/data/final_dataset/lmdb/grayscale-50-50/test_db"
    batch_size: 100
    backend: LMDB
  }
}
layer {
  name: "conv1"
  type: "Convolution"
  bottom: "data"
  top: "conv1"
  param {
    lr_mult: 1
    decay_mult: 1
  }
  param {
    lr_mult: 2
    decay_mult: 0
  }
  convolution_param {
    num_output: 96
    kernel_size: 11
    stride: 4
    weight_filler {
      type: "gaussian"
      std: 0.01
    }
    bias_filler {
      type: "constant"
      value: 0
    }
  }
}
layer {
  name: "relu1"
  type: "ReLU"
  bottom: "conv1"
  top: "conv1"
}
layer {
  name: "norm1"
  type: "LRN"
  bottom: "conv1"
  top: "norm1"
  lrn_param {
    local_size: 5
    alpha: 0.0001
    beta: 0.75
  }
}
layer {
  name: "pool1"
  type: "Pooling"
  bottom: "norm1"
  top: "pool1"
  pooling_param {
    pool: MAX
    kernel_size: 3
    stride: 2
  }
}
layer {
  name: "conv2"
  type: "Convolution"
  bottom: "pool1"
  top: "conv2"
  param {
    lr_mult: 1
    decay_mult: 1
  }
  param {
    lr_mult: 2
    decay_mult: 0
  }
  convolution_param {
    num_output: 256
    pad: 2
    kernel_size: 5
    group: 2
    weight_filler {
      type: "gaussian"
      std: 0.01
    }
    bias_filler {
      type: "constant"
      value: 0.1
    }
  }
}
layer {
  name: "relu2"
  type: "ReLU"
  bottom: "conv2"
  top: "conv2"
}
layer {
  name: "norm2"
  type: "LRN"
  bottom: "conv2"
  top: "norm2"
  lrn_param {
    local_size: 5
    alpha: 0.0001
    beta: 0.75
  }
}
layer {
  name: "pool2"
  type: "Pooling"
  bottom: "norm2"
  top: "pool2"
  pooling_param {
    pool: MAX
    kernel_size: 3
    stride: 2
  }
}
layer {
  name: "conv3"
  type: "Convolution"
  bottom: "pool2"
  top: "conv3"
  param {
    lr_mult: 1
    decay_mult: 1
  }
  param {
    lr_mult: 2
    decay_mult: 0
  }
  convolution_param {
    num_output: 384
    pad: 1
    kernel_size: 3
    weight_filler {
      type: "gaussian"
      std: 0.01
    }
    bias_filler {
      type: "constant"
      value: 0
    }
  }
}
layer {
  name: "relu3"
  type: "ReLU"
  bottom: "conv3"
  top: "conv3"
}
layer {
  name: "conv4"
  type: "Convolution"
  bottom: "conv3"
  top: "conv4"
  param {
    lr_mult: 1
    decay_mult: 1
  }
  param {
    lr_mult: 2
    decay_mult: 0
  }
  convolution_param {
    num_output: 384
    pad: 1
    kernel_size: 3
    group: 2
    weight_filler {
      type: "gaussian"
      std: 0.01
    }
    bias_filler {
      type: "constant"
      value: 0.1
    }
  }
}
layer {
  name: "relu4"
  type: "ReLU"
  bottom: "conv4"
  top: "conv4"
}
layer {
  name: "conv5"
  type: "Convolution"
  bottom: "conv4"
  top: "conv5"
  param {
    lr_mult: 1
    decay_mult: 1
  }
  param {
    lr_mult: 2
    decay_mult: 0
  }
  convolution_param {
    num_output: 256
    pad: 1
    kernel_size: 3
    group: 2
    weight_filler {
      type: "gaussian"
      std: 0.01
    }
    bias_filler {
      type: "constant"
      value: 0.1
    }
  }
}
layer {
  name: "relu5"
  type: "ReLU"
  bottom: "conv5"
  top: "conv5"
}
layer {
  name: "pool5"
  type: "Pooling"
  bottom: "conv5"
  top: "pool5"
  pooling_param {
    pool: MAX
    kernel_size: 3
    stride: 2
  }
}
layer {
  name: "fc6"
  type: "InnerProduct"
  bottom: "pool5"
  top: "fc6"
  param {
    lr_mult: 1
    decay_mult: 1
  }
  param {
    lr_mult: 2
    decay_mult: 0
  }
  inner_product_param {
    num_output: 4096
    weight_filler {
      type: "gaussian"
      std: 0.005
    }
    bias_filler {
      type: "constant"
      value: 0.1
    }
  }
}
layer {
  name: "relu6"
  type: "ReLU"
  bottom: "fc6"
  top: "fc6"
}
layer {
  name: "drop6"
  type: "Dropout"
  bottom: "fc6"
  top: "fc6"
  dropout_param {
    dropout_ratio: 0.5
  }
}
layer {
  name: "fc7"
  type: "InnerProduct"
  bottom: "fc6"
  top: "fc7"
  param {
    lr_mult: 1
    decay_mult: 1
  }
  param {
    lr_mult: 2
    decay_mult: 0
  }
  inner_product_param {
    num_output: 4096
    weight_filler {
      type: "gaussian"
      std: 0.005
    }
    bias_filler {
      type: "constant"
      value: 0.1
    }
  }
}
layer {
  name: "relu7"
  type: "ReLU"
  bottom: "fc7"
  top: "fc7"
}
layer {
  name: "drop7"
  type: "Dropout"
  bottom: "fc7"
  top: "fc7"
  dropout_param {
    dropout_ratio: 0.5
  }
}
layer {
  name: "fc8_plantvillage"
  type: "InnerProduct"
  bottom: "fc7"
  top: "fc8_plantvillage"
  param {
    lr_mult: 1
    decay_mult: 1
  }
  param {
    lr_mult: 2
    decay_mult: 0
  }
  inner_product_param {
    num_output: 38
    weight_filler {
      type: "gaussian"
      std: 0.01
    }
    bias_filler {
      type: "constant"
      value: 0
    }
  }
}
layer {
  name: "prob"
  type: "Softmax"
  bottom: "fc8_plantvillage"
  top: "prob"
  include {
    phase: TEST
  }
}
layer {
  name: "hdf5out"
  type: "HDF5Output"
  bottom: "prob"
  bottom: "label"
  include {
    phase: TEST
  }
  hdf5_output_param {
    file_name: "hdf5_dumps/iter_3471.h5"
  }
}
layer {
  name: "loss"
  type: "SoftmaxWithLoss"
  bottom: "fc8_plantvillage"
  bottom: "label"
  top: "loss"
}
layer {
  name: "accuracy"
  type: "Accuracy"
  bottom: "fc8_plantvillage"
  bottom: "label"
  top: "accuracy"
  include {
    phase: TEST
  }
}
I0403 14:46:40.147338 11095 layer_factory.hpp:77] Creating layer data
I0403 14:46:40.148195 11095 net.cpp:91] Creating Layer data
I0403 14:46:40.148279 11095 net.cpp:399] data -> data
I0403 14:46:40.148392 11095 net.cpp:399] data -> label
I0403 14:46:40.148478 11095 data_transformer.cpp:25] Loading mean file from: /home/mohanty/data/final_dataset/lmdb/grayscale-50-50/mean.binaryproto
I0403 14:46:40.152079 11100 db_lmdb.cpp:38] Opened lmdb /home/mohanty/data/final_dataset/lmdb/grayscale-50-50/test_db
I0403 14:46:40.165093 11095 data_layer.cpp:41] output data size: 100,3,227,227
I0403 14:46:42.332883 11095 net.cpp:141] Setting up data
I0403 14:46:42.333006 11095 net.cpp:148] Top shape: 100 3 227 227 (15458700)
I0403 14:46:42.333031 11095 net.cpp:148] Top shape: 100 (100)
I0403 14:46:42.333047 11095 net.cpp:156] Memory required for data: 61835200
I0403 14:46:42.333077 11095 layer_factory.hpp:77] Creating layer label_data_1_split
I0403 14:46:42.333104 11095 net.cpp:91] Creating Layer label_data_1_split
I0403 14:46:42.333122 11095 net.cpp:425] label_data_1_split <- label
I0403 14:46:42.333153 11095 net.cpp:399] label_data_1_split -> label_data_1_split_0
I0403 14:46:42.333204 11095 net.cpp:399] label_data_1_split -> label_data_1_split_1
I0403 14:46:42.333225 11095 net.cpp:399] label_data_1_split -> label_data_1_split_2
I0403 14:46:42.333294 11095 net.cpp:141] Setting up label_data_1_split
I0403 14:46:42.333317 11095 net.cpp:148] Top shape: 100 (100)
I0403 14:46:42.333335 11095 net.cpp:148] Top shape: 100 (100)
I0403 14:46:42.333350 11095 net.cpp:148] Top shape: 100 (100)
I0403 14:46:42.333365 11095 net.cpp:156] Memory required for data: 61836400
I0403 14:46:42.333380 11095 layer_factory.hpp:77] Creating layer conv1
I0403 14:46:42.333411 11095 net.cpp:91] Creating Layer conv1
I0403 14:46:42.333431 11095 net.cpp:425] conv1 <- data
I0403 14:46:42.333451 11095 net.cpp:399] conv1 -> conv1
I0403 14:46:42.517442 11095 net.cpp:141] Setting up conv1
I0403 14:46:42.517535 11095 net.cpp:148] Top shape: 100 96 55 55 (29040000)
I0403 14:46:42.517554 11095 net.cpp:156] Memory required for data: 177996400
I0403 14:46:42.517583 11095 layer_factory.hpp:77] Creating layer relu1
I0403 14:46:42.517611 11095 net.cpp:91] Creating Layer relu1
I0403 14:46:42.517629 11095 net.cpp:425] relu1 <- conv1
I0403 14:46:42.517650 11095 net.cpp:386] relu1 -> conv1 (in-place)
I0403 14:46:42.517956 11095 net.cpp:141] Setting up relu1
I0403 14:46:42.517982 11095 net.cpp:148] Top shape: 100 96 55 55 (29040000)
I0403 14:46:42.518033 11095 net.cpp:156] Memory required for data: 294156400
I0403 14:46:42.518051 11095 layer_factory.hpp:77] Creating layer norm1
I0403 14:46:42.518079 11095 net.cpp:91] Creating Layer norm1
I0403 14:46:42.518100 11095 net.cpp:425] norm1 <- conv1
I0403 14:46:42.518117 11095 net.cpp:399] norm1 -> norm1
I0403 14:46:42.518445 11095 net.cpp:141] Setting up norm1
I0403 14:46:42.518472 11095 net.cpp:148] Top shape: 100 96 55 55 (29040000)
I0403 14:46:42.518488 11095 net.cpp:156] Memory required for data: 410316400
I0403 14:46:42.518502 11095 layer_factory.hpp:77] Creating layer pool1
I0403 14:46:42.518527 11095 net.cpp:91] Creating Layer pool1
I0403 14:46:42.518545 11095 net.cpp:425] pool1 <- norm1
I0403 14:46:42.518563 11095 net.cpp:399] pool1 -> pool1
I0403 14:46:42.518633 11095 net.cpp:141] Setting up pool1
I0403 14:46:42.518657 11095 net.cpp:148] Top shape: 100 96 27 27 (6998400)
I0403 14:46:42.518672 11095 net.cpp:156] Memory required for data: 438310000
I0403 14:46:42.518687 11095 layer_factory.hpp:77] Creating layer conv2
I0403 14:46:42.518713 11095 net.cpp:91] Creating Layer conv2
I0403 14:46:42.518730 11095 net.cpp:425] conv2 <- pool1
I0403 14:46:42.518750 11095 net.cpp:399] conv2 -> conv2
I0403 14:46:42.533668 11095 net.cpp:141] Setting up conv2
I0403 14:46:42.533745 11095 net.cpp:148] Top shape: 100 256 27 27 (18662400)
I0403 14:46:42.533761 11095 net.cpp:156] Memory required for data: 512959600
I0403 14:46:42.533789 11095 layer_factory.hpp:77] Creating layer relu2
I0403 14:46:42.533810 11095 net.cpp:91] Creating Layer relu2
I0403 14:46:42.533826 11095 net.cpp:425] relu2 <- conv2
I0403 14:46:42.533844 11095 net.cpp:386] relu2 -> conv2 (in-place)
I0403 14:46:42.534122 11095 net.cpp:141] Setting up relu2
I0403 14:46:42.534152 11095 net.cpp:148] Top shape: 100 256 27 27 (18662400)
I0403 14:46:42.534173 11095 net.cpp:156] Memory required for data: 587609200
I0403 14:46:42.534190 11095 layer_factory.hpp:77] Creating layer norm2
I0403 14:46:42.534212 11095 net.cpp:91] Creating Layer norm2
I0403 14:46:42.534229 11095 net.cpp:425] norm2 <- conv2
I0403 14:46:42.534276 11095 net.cpp:399] norm2 -> norm2
I0403 14:46:42.534476 11095 net.cpp:141] Setting up norm2
I0403 14:46:42.534502 11095 net.cpp:148] Top shape: 100 256 27 27 (18662400)
I0403 14:46:42.534518 11095 net.cpp:156] Memory required for data: 662258800
I0403 14:46:42.534533 11095 layer_factory.hpp:77] Creating layer pool2
I0403 14:46:42.534554 11095 net.cpp:91] Creating Layer pool2
I0403 14:46:42.534569 11095 net.cpp:425] pool2 <- norm2
I0403 14:46:42.534586 11095 net.cpp:399] pool2 -> pool2
I0403 14:46:42.534641 11095 net.cpp:141] Setting up pool2
I0403 14:46:42.534664 11095 net.cpp:148] Top shape: 100 256 13 13 (4326400)
I0403 14:46:42.534679 11095 net.cpp:156] Memory required for data: 679564400
I0403 14:46:42.534694 11095 layer_factory.hpp:77] Creating layer conv3
I0403 14:46:42.534719 11095 net.cpp:91] Creating Layer conv3
I0403 14:46:42.534739 11095 net.cpp:425] conv3 <- pool2
I0403 14:46:42.534773 11095 net.cpp:399] conv3 -> conv3
I0403 14:46:42.575068 11095 net.cpp:141] Setting up conv3
I0403 14:46:42.575114 11095 net.cpp:148] Top shape: 100 384 13 13 (6489600)
I0403 14:46:42.575134 11095 net.cpp:156] Memory required for data: 705522800
I0403 14:46:42.575165 11095 layer_factory.hpp:77] Creating layer relu3
I0403 14:46:42.575192 11095 net.cpp:91] Creating Layer relu3
I0403 14:46:42.575214 11095 net.cpp:425] relu3 <- conv3
I0403 14:46:42.575235 11095 net.cpp:386] relu3 -> conv3 (in-place)
I0403 14:46:42.575518 11095 net.cpp:141] Setting up relu3
I0403 14:46:42.575547 11095 net.cpp:148] Top shape: 100 384 13 13 (6489600)
I0403 14:46:42.575564 11095 net.cpp:156] Memory required for data: 731481200
I0403 14:46:42.575580 11095 layer_factory.hpp:77] Creating layer conv4
I0403 14:46:42.575606 11095 net.cpp:91] Creating Layer conv4
I0403 14:46:42.575625 11095 net.cpp:425] conv4 <- conv3
I0403 14:46:42.575647 11095 net.cpp:399] conv4 -> conv4
I0403 14:46:42.607221 11095 net.cpp:141] Setting up conv4
I0403 14:46:42.607305 11095 net.cpp:148] Top shape: 100 384 13 13 (6489600)
I0403 14:46:42.607357 11095 net.cpp:156] Memory required for data: 757439600
I0403 14:46:42.607380 11095 layer_factory.hpp:77] Creating layer relu4
I0403 14:46:42.607404 11095 net.cpp:91] Creating Layer relu4
I0403 14:46:42.607421 11095 net.cpp:425] relu4 <- conv4
I0403 14:46:42.607444 11095 net.cpp:386] relu4 -> conv4 (in-place)
I0403 14:46:42.607738 11095 net.cpp:141] Setting up relu4
I0403 14:46:42.607767 11095 net.cpp:148] Top shape: 100 384 13 13 (6489600)
I0403 14:46:42.607784 11095 net.cpp:156] Memory required for data: 783398000
I0403 14:46:42.607800 11095 layer_factory.hpp:77] Creating layer conv5
I0403 14:46:42.607828 11095 net.cpp:91] Creating Layer conv5
I0403 14:46:42.607847 11095 net.cpp:425] conv5 <- conv4
I0403 14:46:42.607870 11095 net.cpp:399] conv5 -> conv5
I0403 14:46:42.629662 11095 net.cpp:141] Setting up conv5
I0403 14:46:42.629748 11095 net.cpp:148] Top shape: 100 256 13 13 (4326400)
I0403 14:46:42.629765 11095 net.cpp:156] Memory required for data: 800703600
I0403 14:46:42.629796 11095 layer_factory.hpp:77] Creating layer relu5
I0403 14:46:42.629822 11095 net.cpp:91] Creating Layer relu5
I0403 14:46:42.629840 11095 net.cpp:425] relu5 <- conv5
I0403 14:46:42.629861 11095 net.cpp:386] relu5 -> conv5 (in-place)
I0403 14:46:42.630153 11095 net.cpp:141] Setting up relu5
I0403 14:46:42.630187 11095 net.cpp:148] Top shape: 100 256 13 13 (4326400)
I0403 14:46:42.630203 11095 net.cpp:156] Memory required for data: 818009200
I0403 14:46:42.630219 11095 layer_factory.hpp:77] Creating layer pool5
I0403 14:46:42.630245 11095 net.cpp:91] Creating Layer pool5
I0403 14:46:42.630264 11095 net.cpp:425] pool5 <- conv5
I0403 14:46:42.630282 11095 net.cpp:399] pool5 -> pool5
I0403 14:46:42.630350 11095 net.cpp:141] Setting up pool5
I0403 14:46:42.630375 11095 net.cpp:148] Top shape: 100 256 6 6 (921600)
I0403 14:46:42.630390 11095 net.cpp:156] Memory required for data: 821695600
I0403 14:46:42.630409 11095 layer_factory.hpp:77] Creating layer fc6
I0403 14:46:42.630440 11095 net.cpp:91] Creating Layer fc6
I0403 14:46:42.630460 11095 net.cpp:425] fc6 <- pool5
I0403 14:46:42.630481 11095 net.cpp:399] fc6 -> fc6
I0403 14:46:44.204054 11095 net.cpp:141] Setting up fc6
I0403 14:46:44.204097 11095 net.cpp:148] Top shape: 100 4096 (409600)
I0403 14:46:44.204113 11095 net.cpp:156] Memory required for data: 823334000
I0403 14:46:44.204135 11095 layer_factory.hpp:77] Creating layer relu6
I0403 14:46:44.204161 11095 net.cpp:91] Creating Layer relu6
I0403 14:46:44.204180 11095 net.cpp:425] relu6 <- fc6
I0403 14:46:44.204205 11095 net.cpp:386] relu6 -> fc6 (in-place)
I0403 14:46:44.204418 11095 net.cpp:141] Setting up relu6
I0403 14:46:44.204444 11095 net.cpp:148] Top shape: 100 4096 (409600)
I0403 14:46:44.204459 11095 net.cpp:156] Memory required for data: 824972400
I0403 14:46:44.204474 11095 layer_factory.hpp:77] Creating layer drop6
I0403 14:46:44.204498 11095 net.cpp:91] Creating Layer drop6
I0403 14:46:44.204514 11095 net.cpp:425] drop6 <- fc6
I0403 14:46:44.204531 11095 net.cpp:386] drop6 -> fc6 (in-place)
I0403 14:46:44.204582 11095 net.cpp:141] Setting up drop6
I0403 14:46:44.204607 11095 net.cpp:148] Top shape: 100 4096 (409600)
I0403 14:46:44.204622 11095 net.cpp:156] Memory required for data: 826610800
I0403 14:46:44.204637 11095 layer_factory.hpp:77] Creating layer fc7
I0403 14:46:44.204655 11095 net.cpp:91] Creating Layer fc7
I0403 14:46:44.204670 11095 net.cpp:425] fc7 <- fc6
I0403 14:46:44.204691 11095 net.cpp:399] fc7 -> fc7
I0403 14:46:44.886042 11095 net.cpp:141] Setting up fc7
I0403 14:46:44.886121 11095 net.cpp:148] Top shape: 100 4096 (409600)
I0403 14:46:44.886137 11095 net.cpp:156] Memory required for data: 828249200
I0403 14:46:44.886159 11095 layer_factory.hpp:77] Creating layer relu7
I0403 14:46:44.886184 11095 net.cpp:91] Creating Layer relu7
I0403 14:46:44.886204 11095 net.cpp:425] relu7 <- fc7
I0403 14:46:44.886222 11095 net.cpp:386] relu7 -> fc7 (in-place)
I0403 14:46:44.886591 11095 net.cpp:141] Setting up relu7
I0403 14:46:44.886617 11095 net.cpp:148] Top shape: 100 4096 (409600)
I0403 14:46:44.886667 11095 net.cpp:156] Memory required for data: 829887600
I0403 14:46:44.886682 11095 layer_factory.hpp:77] Creating layer drop7
I0403 14:46:44.886703 11095 net.cpp:91] Creating Layer drop7
I0403 14:46:44.886718 11095 net.cpp:425] drop7 <- fc7
I0403 14:46:44.886735 11095 net.cpp:386] drop7 -> fc7 (in-place)
I0403 14:46:44.886778 11095 net.cpp:141] Setting up drop7
I0403 14:46:44.886800 11095 net.cpp:148] Top shape: 100 4096 (409600)
I0403 14:46:44.886813 11095 net.cpp:156] Memory required for data: 831526000
I0403 14:46:44.886828 11095 layer_factory.hpp:77] Creating layer fc8_plantvillage
I0403 14:46:44.886847 11095 net.cpp:91] Creating Layer fc8_plantvillage
I0403 14:46:44.886862 11095 net.cpp:425] fc8_plantvillage <- fc7
I0403 14:46:44.886881 11095 net.cpp:399] fc8_plantvillage -> fc8_plantvillage
I0403 14:46:44.893376 11095 net.cpp:141] Setting up fc8_plantvillage
I0403 14:46:44.893407 11095 net.cpp:148] Top shape: 100 38 (3800)
I0403 14:46:44.893424 11095 net.cpp:156] Memory required for data: 831541200
I0403 14:46:44.893441 11095 layer_factory.hpp:77] Creating layer fc8_plantvillage_fc8_plantvillage_0_split
I0403 14:46:44.893460 11095 net.cpp:91] Creating Layer fc8_plantvillage_fc8_plantvillage_0_split
I0403 14:46:44.893474 11095 net.cpp:425] fc8_plantvillage_fc8_plantvillage_0_split <- fc8_plantvillage
I0403 14:46:44.893491 11095 net.cpp:399] fc8_plantvillage_fc8_plantvillage_0_split -> fc8_plantvillage_fc8_plantvillage_0_split_0
I0403 14:46:44.893509 11095 net.cpp:399] fc8_plantvillage_fc8_plantvillage_0_split -> fc8_plantvillage_fc8_plantvillage_0_split_1
I0403 14:46:44.893528 11095 net.cpp:399] fc8_plantvillage_fc8_plantvillage_0_split -> fc8_plantvillage_fc8_plantvillage_0_split_2
I0403 14:46:44.893601 11095 net.cpp:141] Setting up fc8_plantvillage_fc8_plantvillage_0_split
I0403 14:46:44.893625 11095 net.cpp:148] Top shape: 100 38 (3800)
I0403 14:46:44.893641 11095 net.cpp:148] Top shape: 100 38 (3800)
I0403 14:46:44.893656 11095 net.cpp:148] Top shape: 100 38 (3800)
I0403 14:46:44.893669 11095 net.cpp:156] Memory required for data: 831586800
I0403 14:46:44.893683 11095 layer_factory.hpp:77] Creating layer prob
I0403 14:46:44.893700 11095 net.cpp:91] Creating Layer prob
I0403 14:46:44.893715 11095 net.cpp:425] prob <- fc8_plantvillage_fc8_plantvillage_0_split_0
I0403 14:46:44.893733 11095 net.cpp:399] prob -> prob
I0403 14:46:44.893945 11095 net.cpp:141] Setting up prob
I0403 14:46:44.893970 11095 net.cpp:148] Top shape: 100 38 (3800)
I0403 14:46:44.893985 11095 net.cpp:156] Memory required for data: 831602000
I0403 14:46:44.893999 11095 layer_factory.hpp:77] Creating layer hdf5out
I0403 14:46:44.894021 11095 net.cpp:91] Creating Layer hdf5out
I0403 14:46:44.894038 11095 net.cpp:425] hdf5out <- prob
I0403 14:46:44.894054 11095 net.cpp:425] hdf5out <- label_data_1_split_0
I0403 14:46:44.896087 11095 net.cpp:141] Setting up hdf5out
…
