…
I0403 14:39:07.610488 10924 net.cpp:313] The NetState phase (1) differed from the phase (0) specified by a rule in layer data
I0403 14:39:07.610781 10924 net.cpp:49] Initializing net from parameters: 
state {
  phase: TEST
}
layer {
  name: "data"
  type: "Data"
  top: "data"
  top: "label"
  include {
    phase: TEST
  }
  transform_param {
    crop_size: 227
    mean_file: "/home/mohanty/data/final_dataset/lmdb/grayscale-50-50/mean.binaryproto"
  }
  data_param {
    source: "/home/mohanty/data/final_dataset/lmdb/grayscale-50-50/test_db"
    batch_size: 100
    backend: LMDB
  }
}
layer {
  name: "conv1"
  type: "Convolution"
  bottom: "data"
  top: "conv1"
  param {
    lr_mult: 1
    decay_mult: 1
  }
  param {
    lr_mult: 2
    decay_mult: 0
  }
  convolution_param {
    num_output: 96
    kernel_size: 11
    stride: 4
    weight_filler {
      type: "gaussian"
      std: 0.01
    }
    bias_filler {
      type: "constant"
      value: 0
    }
  }
}
layer {
  name: "relu1"
  type: "ReLU"
  bottom: "conv1"
  top: "conv1"
}
layer {
  name: "norm1"
  type: "LRN"
  bottom: "conv1"
  top: "norm1"
  lrn_param {
    local_size: 5
    alpha: 0.0001
    beta: 0.75
  }
}
layer {
  name: "pool1"
  type: "Pooling"
  bottom: "norm1"
  top: "pool1"
  pooling_param {
    pool: MAX
    kernel_size: 3
    stride: 2
  }
}
layer {
  name: "conv2"
  type: "Convolution"
  bottom: "pool1"
  top: "conv2"
  param {
    lr_mult: 1
    decay_mult: 1
  }
  param {
    lr_mult: 2
    decay_mult: 0
  }
  convolution_param {
    num_output: 256
    pad: 2
    kernel_size: 5
    group: 2
    weight_filler {
      type: "gaussian"
      std: 0.01
    }
    bias_filler {
      type: "constant"
      value: 0.1
    }
  }
}
layer {
  name: "relu2"
  type: "ReLU"
  bottom: "conv2"
  top: "conv2"
}
layer {
  name: "norm2"
  type: "LRN"
  bottom: "conv2"
  top: "norm2"
  lrn_param {
    local_size: 5
    alpha: 0.0001
    beta: 0.75
  }
}
layer {
  name: "pool2"
  type: "Pooling"
  bottom: "norm2"
  top: "pool2"
  pooling_param {
    pool: MAX
    kernel_size: 3
    stride: 2
  }
}
layer {
  name: "conv3"
  type: "Convolution"
  bottom: "pool2"
  top: "conv3"
  param {
    lr_mult: 1
    decay_mult: 1
  }
  param {
    lr_mult: 2
    decay_mult: 0
  }
  convolution_param {
    num_output: 384
    pad: 1
    kernel_size: 3
    weight_filler {
      type: "gaussian"
      std: 0.01
    }
    bias_filler {
      type: "constant"
      value: 0
    }
  }
}
layer {
  name: "relu3"
  type: "ReLU"
  bottom: "conv3"
  top: "conv3"
}
layer {
  name: "conv4"
  type: "Convolution"
  bottom: "conv3"
  top: "conv4"
  param {
    lr_mult: 1
    decay_mult: 1
  }
  param {
    lr_mult: 2
    decay_mult: 0
  }
  convolution_param {
    num_output: 384
    pad: 1
    kernel_size: 3
    group: 2
    weight_filler {
      type: "gaussian"
      std: 0.01
    }
    bias_filler {
      type: "constant"
      value: 0.1
    }
  }
}
layer {
  name: "relu4"
  type: "ReLU"
  bottom: "conv4"
  top: "conv4"
}
layer {
  name: "conv5"
  type: "Convolution"
  bottom: "conv4"
  top: "conv5"
  param {
    lr_mult: 1
    decay_mult: 1
  }
  param {
    lr_mult: 2
    decay_mult: 0
  }
  convolution_param {
    num_output: 256
    pad: 1
    kernel_size: 3
    group: 2
    weight_filler {
      type: "gaussian"
      std: 0.01
    }
    bias_filler {
      type: "constant"
      value: 0.1
    }
  }
}
layer {
  name: "relu5"
  type: "ReLU"
  bottom: "conv5"
  top: "conv5"
}
layer {
  name: "pool5"
  type: "Pooling"
  bottom: "conv5"
  top: "pool5"
  pooling_param {
    pool: MAX
    kernel_size: 3
    stride: 2
  }
}
layer {
  name: "fc6"
  type: "InnerProduct"
  bottom: "pool5"
  top: "fc6"
  param {
    lr_mult: 1
    decay_mult: 1
  }
  param {
    lr_mult: 2
    decay_mult: 0
  }
  inner_product_param {
    num_output: 4096
    weight_filler {
      type: "gaussian"
      std: 0.005
    }
    bias_filler {
      type: "constant"
      value: 0.1
    }
  }
}
layer {
  name: "relu6"
  type: "ReLU"
  bottom: "fc6"
  top: "fc6"
}
layer {
  name: "drop6"
  type: "Dropout"
  bottom: "fc6"
  top: "fc6"
  dropout_param {
    dropout_ratio: 0.5
  }
}
layer {
  name: "fc7"
  type: "InnerProduct"
  bottom: "fc6"
  top: "fc7"
  param {
    lr_mult: 1
    decay_mult: 1
  }
  param {
    lr_mult: 2
    decay_mult: 0
  }
  inner_product_param {
    num_output: 4096
    weight_filler {
      type: "gaussian"
      std: 0.005
    }
    bias_filler {
      type: "constant"
      value: 0.1
    }
  }
}
layer {
  name: "relu7"
  type: "ReLU"
  bottom: "fc7"
  top: "fc7"
}
layer {
  name: "drop7"
  type: "Dropout"
  bottom: "fc7"
  top: "fc7"
  dropout_param {
    dropout_ratio: 0.5
  }
}
layer {
  name: "fc8_plantvillage"
  type: "InnerProduct"
  bottom: "fc7"
  top: "fc8_plantvillage"
  param {
    lr_mult: 1
    decay_mult: 1
  }
  param {
    lr_mult: 2
    decay_mult: 0
  }
  inner_product_param {
    num_output: 38
    weight_filler {
      type: "gaussian"
      std: 0.01
    }
    bias_filler {
      type: "constant"
      value: 0
    }
  }
}
layer {
  name: "prob"
  type: "Softmax"
  bottom: "fc8_plantvillage"
  top: "prob"
  include {
    phase: TEST
  }
}
layer {
  name: "hdf5out"
  type: "HDF5Output"
  bottom: "prob"
  bottom: "label"
  include {
    phase: TEST
  }
  hdf5_output_param {
    file_name: "hdf5_dumps/iter_1335.h5"
  }
}
layer {
  name: "loss"
  type: "SoftmaxWithLoss"
  bottom: "fc8_plantvillage"
  bottom: "label"
  top: "loss"
}
layer {
  name: "accuracy"
  type: "Accuracy"
  bottom: "fc8_plantvillage"
  bottom: "label"
  top: "accuracy"
  include {
    phase: TEST
  }
}
I0403 14:39:07.611325 10924 layer_factory.hpp:77] Creating layer data
I0403 14:39:07.611932 10924 net.cpp:91] Creating Layer data
I0403 14:39:07.611963 10924 net.cpp:399] data -> data
I0403 14:39:07.612012 10924 net.cpp:399] data -> label
I0403 14:39:07.612048 10924 data_transformer.cpp:25] Loading mean file from: /home/mohanty/data/final_dataset/lmdb/grayscale-50-50/mean.binaryproto
I0403 14:39:07.614872 10928 db_lmdb.cpp:38] Opened lmdb /home/mohanty/data/final_dataset/lmdb/grayscale-50-50/test_db
I0403 14:39:07.626123 10924 data_layer.cpp:41] output data size: 100,3,227,227
I0403 14:39:07.745983 10924 net.cpp:141] Setting up data
I0403 14:39:07.746089 10924 net.cpp:148] Top shape: 100 3 227 227 (15458700)
I0403 14:39:07.746114 10924 net.cpp:148] Top shape: 100 (100)
I0403 14:39:07.746131 10924 net.cpp:156] Memory required for data: 61835200
I0403 14:39:07.746161 10924 layer_factory.hpp:77] Creating layer label_data_1_split
I0403 14:39:07.746192 10924 net.cpp:91] Creating Layer label_data_1_split
I0403 14:39:07.746212 10924 net.cpp:425] label_data_1_split <- label
I0403 14:39:07.746244 10924 net.cpp:399] label_data_1_split -> label_data_1_split_0
I0403 14:39:07.746273 10924 net.cpp:399] label_data_1_split -> label_data_1_split_1
I0403 14:39:07.746294 10924 net.cpp:399] label_data_1_split -> label_data_1_split_2
I0403 14:39:07.746358 10924 net.cpp:141] Setting up label_data_1_split
I0403 14:39:07.746384 10924 net.cpp:148] Top shape: 100 (100)
I0403 14:39:07.746402 10924 net.cpp:148] Top shape: 100 (100)
I0403 14:39:07.746419 10924 net.cpp:148] Top shape: 100 (100)
I0403 14:39:07.746433 10924 net.cpp:156] Memory required for data: 61836400
I0403 14:39:07.746449 10924 layer_factory.hpp:77] Creating layer conv1
I0403 14:39:07.746482 10924 net.cpp:91] Creating Layer conv1
I0403 14:39:07.746501 10924 net.cpp:425] conv1 <- data
I0403 14:39:07.746520 10924 net.cpp:399] conv1 -> conv1
I0403 14:39:07.890264 10924 net.cpp:141] Setting up conv1
I0403 14:39:07.890352 10924 net.cpp:148] Top shape: 100 96 55 55 (29040000)
I0403 14:39:07.890370 10924 net.cpp:156] Memory required for data: 177996400
I0403 14:39:07.890403 10924 layer_factory.hpp:77] Creating layer relu1
I0403 14:39:07.890430 10924 net.cpp:91] Creating Layer relu1
I0403 14:39:07.890450 10924 net.cpp:425] relu1 <- conv1
I0403 14:39:07.890468 10924 net.cpp:386] relu1 -> conv1 (in-place)
I0403 14:39:07.890718 10924 net.cpp:141] Setting up relu1
I0403 14:39:07.890746 10924 net.cpp:148] Top shape: 100 96 55 55 (29040000)
I0403 14:39:07.890796 10924 net.cpp:156] Memory required for data: 294156400
I0403 14:39:07.890813 10924 layer_factory.hpp:77] Creating layer norm1
I0403 14:39:07.890841 10924 net.cpp:91] Creating Layer norm1
I0403 14:39:07.890861 10924 net.cpp:425] norm1 <- conv1
I0403 14:39:07.890878 10924 net.cpp:399] norm1 -> norm1
I0403 14:39:07.891177 10924 net.cpp:141] Setting up norm1
I0403 14:39:07.891209 10924 net.cpp:148] Top shape: 100 96 55 55 (29040000)
I0403 14:39:07.891227 10924 net.cpp:156] Memory required for data: 410316400
I0403 14:39:07.891242 10924 layer_factory.hpp:77] Creating layer pool1
I0403 14:39:07.891263 10924 net.cpp:91] Creating Layer pool1
I0403 14:39:07.891283 10924 net.cpp:425] pool1 <- norm1
I0403 14:39:07.891327 10924 net.cpp:399] pool1 -> pool1
I0403 14:39:07.891398 10924 net.cpp:141] Setting up pool1
I0403 14:39:07.891423 10924 net.cpp:148] Top shape: 100 96 27 27 (6998400)
I0403 14:39:07.891439 10924 net.cpp:156] Memory required for data: 438310000
I0403 14:39:07.891455 10924 layer_factory.hpp:77] Creating layer conv2
I0403 14:39:07.891479 10924 net.cpp:91] Creating Layer conv2
I0403 14:39:07.891495 10924 net.cpp:425] conv2 <- pool1
I0403 14:39:07.891512 10924 net.cpp:399] conv2 -> conv2
I0403 14:39:07.906361 10924 net.cpp:141] Setting up conv2
I0403 14:39:07.906397 10924 net.cpp:148] Top shape: 100 256 27 27 (18662400)
I0403 14:39:07.906414 10924 net.cpp:156] Memory required for data: 512959600
I0403 14:39:07.906436 10924 layer_factory.hpp:77] Creating layer relu2
I0403 14:39:07.906458 10924 net.cpp:91] Creating Layer relu2
I0403 14:39:07.906476 10924 net.cpp:425] relu2 <- conv2
I0403 14:39:07.906494 10924 net.cpp:386] relu2 -> conv2 (in-place)
I0403 14:39:07.906806 10924 net.cpp:141] Setting up relu2
I0403 14:39:07.906834 10924 net.cpp:148] Top shape: 100 256 27 27 (18662400)
I0403 14:39:07.906852 10924 net.cpp:156] Memory required for data: 587609200
I0403 14:39:07.906867 10924 layer_factory.hpp:77] Creating layer norm2
I0403 14:39:07.906888 10924 net.cpp:91] Creating Layer norm2
I0403 14:39:07.906906 10924 net.cpp:425] norm2 <- conv2
I0403 14:39:07.906926 10924 net.cpp:399] norm2 -> norm2
I0403 14:39:07.907116 10924 net.cpp:141] Setting up norm2
I0403 14:39:07.907142 10924 net.cpp:148] Top shape: 100 256 27 27 (18662400)
I0403 14:39:07.907158 10924 net.cpp:156] Memory required for data: 662258800
I0403 14:39:07.907173 10924 layer_factory.hpp:77] Creating layer pool2
I0403 14:39:07.907197 10924 net.cpp:91] Creating Layer pool2
I0403 14:39:07.907217 10924 net.cpp:425] pool2 <- norm2
I0403 14:39:07.907233 10924 net.cpp:399] pool2 -> pool2
I0403 14:39:07.907286 10924 net.cpp:141] Setting up pool2
I0403 14:39:07.907310 10924 net.cpp:148] Top shape: 100 256 13 13 (4326400)
I0403 14:39:07.907325 10924 net.cpp:156] Memory required for data: 679564400
I0403 14:39:07.907351 10924 layer_factory.hpp:77] Creating layer conv3
I0403 14:39:07.907374 10924 net.cpp:91] Creating Layer conv3
I0403 14:39:07.907390 10924 net.cpp:425] conv3 <- pool2
I0403 14:39:07.907412 10924 net.cpp:399] conv3 -> conv3
I0403 14:39:07.947726 10924 net.cpp:141] Setting up conv3
I0403 14:39:07.947769 10924 net.cpp:148] Top shape: 100 384 13 13 (6489600)
I0403 14:39:07.947787 10924 net.cpp:156] Memory required for data: 705522800
I0403 14:39:07.947814 10924 layer_factory.hpp:77] Creating layer relu3
I0403 14:39:07.947840 10924 net.cpp:91] Creating Layer relu3
I0403 14:39:07.947861 10924 net.cpp:425] relu3 <- conv3
I0403 14:39:07.947880 10924 net.cpp:386] relu3 -> conv3 (in-place)
I0403 14:39:07.948213 10924 net.cpp:141] Setting up relu3
I0403 14:39:07.948243 10924 net.cpp:148] Top shape: 100 384 13 13 (6489600)
I0403 14:39:07.948259 10924 net.cpp:156] Memory required for data: 731481200
I0403 14:39:07.948276 10924 layer_factory.hpp:77] Creating layer conv4
I0403 14:39:07.948302 10924 net.cpp:91] Creating Layer conv4
I0403 14:39:07.948320 10924 net.cpp:425] conv4 <- conv3
I0403 14:39:07.948343 10924 net.cpp:399] conv4 -> conv4
I0403 14:39:07.979568 10924 net.cpp:141] Setting up conv4
I0403 14:39:07.979636 10924 net.cpp:148] Top shape: 100 384 13 13 (6489600)
I0403 14:39:07.979683 10924 net.cpp:156] Memory required for data: 757439600
I0403 14:39:07.979707 10924 layer_factory.hpp:77] Creating layer relu4
I0403 14:39:07.979727 10924 net.cpp:91] Creating Layer relu4
I0403 14:39:07.979744 10924 net.cpp:425] relu4 <- conv4
I0403 14:39:07.979768 10924 net.cpp:386] relu4 -> conv4 (in-place)
I0403 14:39:07.980057 10924 net.cpp:141] Setting up relu4
I0403 14:39:07.980085 10924 net.cpp:148] Top shape: 100 384 13 13 (6489600)
I0403 14:39:07.980103 10924 net.cpp:156] Memory required for data: 783398000
I0403 14:39:07.980118 10924 layer_factory.hpp:77] Creating layer conv5
I0403 14:39:07.980144 10924 net.cpp:91] Creating Layer conv5
I0403 14:39:07.980161 10924 net.cpp:425] conv5 <- conv4
I0403 14:39:07.980182 10924 net.cpp:399] conv5 -> conv5
I0403 14:39:08.001605 10924 net.cpp:141] Setting up conv5
I0403 14:39:08.001643 10924 net.cpp:148] Top shape: 100 256 13 13 (4326400)
I0403 14:39:08.001662 10924 net.cpp:156] Memory required for data: 800703600
I0403 14:39:08.001696 10924 layer_factory.hpp:77] Creating layer relu5
I0403 14:39:08.001721 10924 net.cpp:91] Creating Layer relu5
I0403 14:39:08.001749 10924 net.cpp:425] relu5 <- conv5
I0403 14:39:08.001768 10924 net.cpp:386] relu5 -> conv5 (in-place)
I0403 14:39:08.002055 10924 net.cpp:141] Setting up relu5
I0403 14:39:08.002084 10924 net.cpp:148] Top shape: 100 256 13 13 (4326400)
I0403 14:39:08.002104 10924 net.cpp:156] Memory required for data: 818009200
I0403 14:39:08.002120 10924 layer_factory.hpp:77] Creating layer pool5
I0403 14:39:08.002146 10924 net.cpp:91] Creating Layer pool5
I0403 14:39:08.002163 10924 net.cpp:425] pool5 <- conv5
I0403 14:39:08.002183 10924 net.cpp:399] pool5 -> pool5
I0403 14:39:08.002261 10924 net.cpp:141] Setting up pool5
I0403 14:39:08.002287 10924 net.cpp:148] Top shape: 100 256 6 6 (921600)
I0403 14:39:08.002305 10924 net.cpp:156] Memory required for data: 821695600
I0403 14:39:08.002321 10924 layer_factory.hpp:77] Creating layer fc6
I0403 14:39:08.002349 10924 net.cpp:91] Creating Layer fc6
I0403 14:39:08.002368 10924 net.cpp:425] fc6 <- pool5
I0403 14:39:08.002393 10924 net.cpp:399] fc6 -> fc6
I0403 14:39:09.555454 10924 net.cpp:141] Setting up fc6
I0403 14:39:09.555495 10924 net.cpp:148] Top shape: 100 4096 (409600)
I0403 14:39:09.555512 10924 net.cpp:156] Memory required for data: 823334000
I0403 14:39:09.555533 10924 layer_factory.hpp:77] Creating layer relu6
I0403 14:39:09.555553 10924 net.cpp:91] Creating Layer relu6
I0403 14:39:09.555570 10924 net.cpp:425] relu6 <- fc6
I0403 14:39:09.555590 10924 net.cpp:386] relu6 -> fc6 (in-place)
I0403 14:39:09.555806 10924 net.cpp:141] Setting up relu6
I0403 14:39:09.555831 10924 net.cpp:148] Top shape: 100 4096 (409600)
I0403 14:39:09.555846 10924 net.cpp:156] Memory required for data: 824972400
I0403 14:39:09.555861 10924 layer_factory.hpp:77] Creating layer drop6
I0403 14:39:09.555881 10924 net.cpp:91] Creating Layer drop6
I0403 14:39:09.555897 10924 net.cpp:425] drop6 <- fc6
I0403 14:39:09.555914 10924 net.cpp:386] drop6 -> fc6 (in-place)
I0403 14:39:09.555963 10924 net.cpp:141] Setting up drop6
I0403 14:39:09.555989 10924 net.cpp:148] Top shape: 100 4096 (409600)
I0403 14:39:09.556005 10924 net.cpp:156] Memory required for data: 826610800
I0403 14:39:09.556020 10924 layer_factory.hpp:77] Creating layer fc7
I0403 14:39:09.556040 10924 net.cpp:91] Creating Layer fc7
I0403 14:39:09.556054 10924 net.cpp:425] fc7 <- fc6
I0403 14:39:09.556074 10924 net.cpp:399] fc7 -> fc7
I0403 14:39:10.255147 10924 net.cpp:141] Setting up fc7
I0403 14:39:10.255229 10924 net.cpp:148] Top shape: 100 4096 (409600)
I0403 14:39:10.255247 10924 net.cpp:156] Memory required for data: 828249200
I0403 14:39:10.255269 10924 layer_factory.hpp:77] Creating layer relu7
I0403 14:39:10.255290 10924 net.cpp:91] Creating Layer relu7
I0403 14:39:10.255308 10924 net.cpp:425] relu7 <- fc7
I0403 14:39:10.255329 10924 net.cpp:386] relu7 -> fc7 (in-place)
I0403 14:39:10.255724 10924 net.cpp:141] Setting up relu7
I0403 14:39:10.255751 10924 net.cpp:148] Top shape: 100 4096 (409600)
I0403 14:39:10.255803 10924 net.cpp:156] Memory required for data: 829887600
I0403 14:39:10.255820 10924 layer_factory.hpp:77] Creating layer drop7
I0403 14:39:10.255839 10924 net.cpp:91] Creating Layer drop7
I0403 14:39:10.255856 10924 net.cpp:425] drop7 <- fc7
I0403 14:39:10.255875 10924 net.cpp:386] drop7 -> fc7 (in-place)
I0403 14:39:10.255923 10924 net.cpp:141] Setting up drop7
I0403 14:39:10.255946 10924 net.cpp:148] Top shape: 100 4096 (409600)
I0403 14:39:10.255961 10924 net.cpp:156] Memory required for data: 831526000
I0403 14:39:10.255976 10924 layer_factory.hpp:77] Creating layer fc8_plantvillage
I0403 14:39:10.255995 10924 net.cpp:91] Creating Layer fc8_plantvillage
I0403 14:39:10.256011 10924 net.cpp:425] fc8_plantvillage <- fc7
I0403 14:39:10.256032 10924 net.cpp:399] fc8_plantvillage -> fc8_plantvillage
I0403 14:39:10.262842 10924 net.cpp:141] Setting up fc8_plantvillage
I0403 14:39:10.262871 10924 net.cpp:148] Top shape: 100 38 (3800)
I0403 14:39:10.262887 10924 net.cpp:156] Memory required for data: 831541200
I0403 14:39:10.262905 10924 layer_factory.hpp:77] Creating layer fc8_plantvillage_fc8_plantvillage_0_split
I0403 14:39:10.262928 10924 net.cpp:91] Creating Layer fc8_plantvillage_fc8_plantvillage_0_split
I0403 14:39:10.262943 10924 net.cpp:425] fc8_plantvillage_fc8_plantvillage_0_split <- fc8_plantvillage
I0403 14:39:10.262961 10924 net.cpp:399] fc8_plantvillage_fc8_plantvillage_0_split -> fc8_plantvillage_fc8_plantvillage_0_split_0
I0403 14:39:10.262980 10924 net.cpp:399] fc8_plantvillage_fc8_plantvillage_0_split -> fc8_plantvillage_fc8_plantvillage_0_split_1
I0403 14:39:10.263000 10924 net.cpp:399] fc8_plantvillage_fc8_plantvillage_0_split -> fc8_plantvillage_fc8_plantvillage_0_split_2
I0403 14:39:10.263082 10924 net.cpp:141] Setting up fc8_plantvillage_fc8_plantvillage_0_split
I0403 14:39:10.263106 10924 net.cpp:148] Top shape: 100 38 (3800)
I0403 14:39:10.263123 10924 net.cpp:148] Top shape: 100 38 (3800)
I0403 14:39:10.263139 10924 net.cpp:148] Top shape: 100 38 (3800)
I0403 14:39:10.263152 10924 net.cpp:156] Memory required for data: 831586800
I0403 14:39:10.263166 10924 layer_factory.hpp:77] Creating layer prob
I0403 14:39:10.263185 10924 net.cpp:91] Creating Layer prob
I0403 14:39:10.263209 10924 net.cpp:425] prob <- fc8_plantvillage_fc8_plantvillage_0_split_0
I0403 14:39:10.263227 10924 net.cpp:399] prob -> prob
I0403 14:39:10.263453 10924 net.cpp:141] Setting up prob
I0403 14:39:10.263478 10924 net.cpp:148] Top shape: 100 38 (3800)
I0403 14:39:10.263494 10924 net.cpp:156] Memory required for data: 831602000
I0403 14:39:10.263509 10924 layer_factory.hpp:77] Creating layer hdf5out
I0403 14:39:10.263528 10924 net.cpp:91] Creating Layer hdf5out
I0403 14:39:10.263543 10924 net.cpp:425] hdf5out <- prob
I0403 14:39:10.263559 10924 net.cpp:425] hdf5out <- label_data_1_split_0
I0403 14:39:10.265727 10924 net.cpp:141] Setting up hdf5out
…
