…
I0403 14:53:18.886684 11248 net.cpp:313] The NetState phase (1) differed from the phase (0) specified by a rule in layer data
I0403 14:53:18.886983 11248 net.cpp:49] Initializing net from parameters: 
state {
  phase: TEST
}
layer {
  name: "data"
  type: "Data"
  top: "data"
  top: "label"
  include {
    phase: TEST
  }
  transform_param {
    crop_size: 227
    mean_file: "/home/mohanty/data/final_dataset/lmdb/grayscale-50-50/mean.binaryproto"
  }
  data_param {
    source: "/home/mohanty/data/final_dataset/lmdb/grayscale-50-50/test_db"
    batch_size: 100
    backend: LMDB
  }
}
layer {
  name: "conv1"
  type: "Convolution"
  bottom: "data"
  top: "conv1"
  param {
    lr_mult: 1
    decay_mult: 1
  }
  param {
    lr_mult: 2
    decay_mult: 0
  }
  convolution_param {
    num_output: 96
    kernel_size: 11
    stride: 4
    weight_filler {
      type: "gaussian"
      std: 0.01
    }
    bias_filler {
      type: "constant"
      value: 0
    }
  }
}
layer {
  name: "relu1"
  type: "ReLU"
  bottom: "conv1"
  top: "conv1"
}
layer {
  name: "norm1"
  type: "LRN"
  bottom: "conv1"
  top: "norm1"
  lrn_param {
    local_size: 5
    alpha: 0.0001
    beta: 0.75
  }
}
layer {
  name: "pool1"
  type: "Pooling"
  bottom: "norm1"
  top: "pool1"
  pooling_param {
    pool: MAX
    kernel_size: 3
    stride: 2
  }
}
layer {
  name: "conv2"
  type: "Convolution"
  bottom: "pool1"
  top: "conv2"
  param {
    lr_mult: 1
    decay_mult: 1
  }
  param {
    lr_mult: 2
    decay_mult: 0
  }
  convolution_param {
    num_output: 256
    pad: 2
    kernel_size: 5
    group: 2
    weight_filler {
      type: "gaussian"
      std: 0.01
    }
    bias_filler {
      type: "constant"
      value: 0.1
    }
  }
}
layer {
  name: "relu2"
  type: "ReLU"
  bottom: "conv2"
  top: "conv2"
}
layer {
  name: "norm2"
  type: "LRN"
  bottom: "conv2"
  top: "norm2"
  lrn_param {
    local_size: 5
    alpha: 0.0001
    beta: 0.75
  }
}
layer {
  name: "pool2"
  type: "Pooling"
  bottom: "norm2"
  top: "pool2"
  pooling_param {
    pool: MAX
    kernel_size: 3
    stride: 2
  }
}
layer {
  name: "conv3"
  type: "Convolution"
  bottom: "pool2"
  top: "conv3"
  param {
    lr_mult: 1
    decay_mult: 1
  }
  param {
    lr_mult: 2
    decay_mult: 0
  }
  convolution_param {
    num_output: 384
    pad: 1
    kernel_size: 3
    weight_filler {
      type: "gaussian"
      std: 0.01
    }
    bias_filler {
      type: "constant"
      value: 0
    }
  }
}
layer {
  name: "relu3"
  type: "ReLU"
  bottom: "conv3"
  top: "conv3"
}
layer {
  name: "conv4"
  type: "Convolution"
  bottom: "conv3"
  top: "conv4"
  param {
    lr_mult: 1
    decay_mult: 1
  }
  param {
    lr_mult: 2
    decay_mult: 0
  }
  convolution_param {
    num_output: 384
    pad: 1
    kernel_size: 3
    group: 2
    weight_filler {
      type: "gaussian"
      std: 0.01
    }
    bias_filler {
      type: "constant"
      value: 0.1
    }
  }
}
layer {
  name: "relu4"
  type: "ReLU"
  bottom: "conv4"
  top: "conv4"
}
layer {
  name: "conv5"
  type: "Convolution"
  bottom: "conv4"
  top: "conv5"
  param {
    lr_mult: 1
    decay_mult: 1
  }
  param {
    lr_mult: 2
    decay_mult: 0
  }
  convolution_param {
    num_output: 256
    pad: 1
    kernel_size: 3
    group: 2
    weight_filler {
      type: "gaussian"
      std: 0.01
    }
    bias_filler {
      type: "constant"
      value: 0.1
    }
  }
}
layer {
  name: "relu5"
  type: "ReLU"
  bottom: "conv5"
  top: "conv5"
}
layer {
  name: "pool5"
  type: "Pooling"
  bottom: "conv5"
  top: "pool5"
  pooling_param {
    pool: MAX
    kernel_size: 3
    stride: 2
  }
}
layer {
  name: "fc6"
  type: "InnerProduct"
  bottom: "pool5"
  top: "fc6"
  param {
    lr_mult: 1
    decay_mult: 1
  }
  param {
    lr_mult: 2
    decay_mult: 0
  }
  inner_product_param {
    num_output: 4096
    weight_filler {
      type: "gaussian"
      std: 0.005
    }
    bias_filler {
      type: "constant"
      value: 0.1
    }
  }
}
layer {
  name: "relu6"
  type: "ReLU"
  bottom: "fc6"
  top: "fc6"
}
layer {
  name: "drop6"
  type: "Dropout"
  bottom: "fc6"
  top: "fc6"
  dropout_param {
    dropout_ratio: 0.5
  }
}
layer {
  name: "fc7"
  type: "InnerProduct"
  bottom: "fc6"
  top: "fc7"
  param {
    lr_mult: 1
    decay_mult: 1
  }
  param {
    lr_mult: 2
    decay_mult: 0
  }
  inner_product_param {
    num_output: 4096
    weight_filler {
      type: "gaussian"
      std: 0.005
    }
    bias_filler {
      type: "constant"
      value: 0.1
    }
  }
}
layer {
  name: "relu7"
  type: "ReLU"
  bottom: "fc7"
  top: "fc7"
}
layer {
  name: "drop7"
  type: "Dropout"
  bottom: "fc7"
  top: "fc7"
  dropout_param {
    dropout_ratio: 0.5
  }
}
layer {
  name: "fc8_plantvillage"
  type: "InnerProduct"
  bottom: "fc7"
  top: "fc8_plantvillage"
  param {
    lr_mult: 1
    decay_mult: 1
  }
  param {
    lr_mult: 2
    decay_mult: 0
  }
  inner_product_param {
    num_output: 38
    weight_filler {
      type: "gaussian"
      std: 0.01
    }
    bias_filler {
      type: "constant"
      value: 0
    }
  }
}
layer {
  name: "prob"
  type: "Softmax"
  bottom: "fc8_plantvillage"
  top: "prob"
  include {
    phase: TEST
  }
}
layer {
  name: "hdf5out"
  type: "HDF5Output"
  bottom: "prob"
  bottom: "label"
  include {
    phase: TEST
  }
  hdf5_output_param {
    file_name: "hdf5_dumps/iter_5340.h5"
  }
}
layer {
  name: "loss"
  type: "SoftmaxWithLoss"
  bottom: "fc8_plantvillage"
  bottom: "label"
  top: "loss"
}
layer {
  name: "accuracy"
  type: "Accuracy"
  bottom: "fc8_plantvillage"
  bottom: "label"
  top: "accuracy"
  include {
    phase: TEST
  }
}
I0403 14:53:18.887534 11248 layer_factory.hpp:77] Creating layer data
I0403 14:53:18.888187 11248 net.cpp:91] Creating Layer data
I0403 14:53:18.888222 11248 net.cpp:399] data -> data
I0403 14:53:18.888274 11248 net.cpp:399] data -> label
I0403 14:53:18.888312 11248 data_transformer.cpp:25] Loading mean file from: /home/mohanty/data/final_dataset/lmdb/grayscale-50-50/mean.binaryproto
I0403 14:53:18.890523 11251 db_lmdb.cpp:38] Opened lmdb /home/mohanty/data/final_dataset/lmdb/grayscale-50-50/test_db
I0403 14:53:18.902884 11248 data_layer.cpp:41] output data size: 100,3,227,227
I0403 14:53:19.023844 11248 net.cpp:141] Setting up data
I0403 14:53:19.023903 11248 net.cpp:148] Top shape: 100 3 227 227 (15458700)
I0403 14:53:19.023928 11248 net.cpp:148] Top shape: 100 (100)
I0403 14:53:19.023944 11248 net.cpp:156] Memory required for data: 61835200
I0403 14:53:19.023973 11248 layer_factory.hpp:77] Creating layer label_data_1_split
I0403 14:53:19.023999 11248 net.cpp:91] Creating Layer label_data_1_split
I0403 14:53:19.024019 11248 net.cpp:425] label_data_1_split <- label
I0403 14:53:19.024051 11248 net.cpp:399] label_data_1_split -> label_data_1_split_0
I0403 14:53:19.024080 11248 net.cpp:399] label_data_1_split -> label_data_1_split_1
I0403 14:53:19.024101 11248 net.cpp:399] label_data_1_split -> label_data_1_split_2
I0403 14:53:19.024169 11248 net.cpp:141] Setting up label_data_1_split
I0403 14:53:19.024195 11248 net.cpp:148] Top shape: 100 (100)
I0403 14:53:19.024212 11248 net.cpp:148] Top shape: 100 (100)
I0403 14:53:19.024230 11248 net.cpp:148] Top shape: 100 (100)
I0403 14:53:19.024245 11248 net.cpp:156] Memory required for data: 61836400
I0403 14:53:19.024260 11248 layer_factory.hpp:77] Creating layer conv1
I0403 14:53:19.024293 11248 net.cpp:91] Creating Layer conv1
I0403 14:53:19.024313 11248 net.cpp:425] conv1 <- data
I0403 14:53:19.024333 11248 net.cpp:399] conv1 -> conv1
I0403 14:53:19.163944 11248 net.cpp:141] Setting up conv1
I0403 14:53:19.164032 11248 net.cpp:148] Top shape: 100 96 55 55 (29040000)
I0403 14:53:19.164052 11248 net.cpp:156] Memory required for data: 177996400
I0403 14:53:19.164084 11248 layer_factory.hpp:77] Creating layer relu1
I0403 14:53:19.164113 11248 net.cpp:91] Creating Layer relu1
I0403 14:53:19.164131 11248 net.cpp:425] relu1 <- conv1
I0403 14:53:19.164151 11248 net.cpp:386] relu1 -> conv1 (in-place)
I0403 14:53:19.164417 11248 net.cpp:141] Setting up relu1
I0403 14:53:19.164445 11248 net.cpp:148] Top shape: 100 96 55 55 (29040000)
I0403 14:53:19.164495 11248 net.cpp:156] Memory required for data: 294156400
I0403 14:53:19.164512 11248 layer_factory.hpp:77] Creating layer norm1
I0403 14:53:19.164541 11248 net.cpp:91] Creating Layer norm1
I0403 14:53:19.164561 11248 net.cpp:425] norm1 <- conv1
I0403 14:53:19.164579 11248 net.cpp:399] norm1 -> norm1
I0403 14:53:19.164892 11248 net.cpp:141] Setting up norm1
I0403 14:53:19.164924 11248 net.cpp:148] Top shape: 100 96 55 55 (29040000)
I0403 14:53:19.164942 11248 net.cpp:156] Memory required for data: 410316400
I0403 14:53:19.164958 11248 layer_factory.hpp:77] Creating layer pool1
I0403 14:53:19.164981 11248 net.cpp:91] Creating Layer pool1
I0403 14:53:19.164999 11248 net.cpp:425] pool1 <- norm1
I0403 14:53:19.165019 11248 net.cpp:399] pool1 -> pool1
I0403 14:53:19.165086 11248 net.cpp:141] Setting up pool1
I0403 14:53:19.165112 11248 net.cpp:148] Top shape: 100 96 27 27 (6998400)
I0403 14:53:19.165127 11248 net.cpp:156] Memory required for data: 438310000
I0403 14:53:19.165143 11248 layer_factory.hpp:77] Creating layer conv2
I0403 14:53:19.165174 11248 net.cpp:91] Creating Layer conv2
I0403 14:53:19.165191 11248 net.cpp:425] conv2 <- pool1
I0403 14:53:19.165210 11248 net.cpp:399] conv2 -> conv2
I0403 14:53:19.180059 11248 net.cpp:141] Setting up conv2
I0403 14:53:19.180114 11248 net.cpp:148] Top shape: 100 256 27 27 (18662400)
I0403 14:53:19.180132 11248 net.cpp:156] Memory required for data: 512959600
I0403 14:53:19.180160 11248 layer_factory.hpp:77] Creating layer relu2
I0403 14:53:19.180182 11248 net.cpp:91] Creating Layer relu2
I0403 14:53:19.180199 11248 net.cpp:425] relu2 <- conv2
I0403 14:53:19.180222 11248 net.cpp:386] relu2 -> conv2 (in-place)
I0403 14:53:19.180492 11248 net.cpp:141] Setting up relu2
I0403 14:53:19.180521 11248 net.cpp:148] Top shape: 100 256 27 27 (18662400)
I0403 14:53:19.180536 11248 net.cpp:156] Memory required for data: 587609200
I0403 14:53:19.180552 11248 layer_factory.hpp:77] Creating layer norm2
I0403 14:53:19.180574 11248 net.cpp:91] Creating Layer norm2
I0403 14:53:19.180591 11248 net.cpp:425] norm2 <- conv2
I0403 14:53:19.180610 11248 net.cpp:399] norm2 -> norm2
I0403 14:53:19.180797 11248 net.cpp:141] Setting up norm2
I0403 14:53:19.180824 11248 net.cpp:148] Top shape: 100 256 27 27 (18662400)
I0403 14:53:19.180840 11248 net.cpp:156] Memory required for data: 662258800
I0403 14:53:19.180855 11248 layer_factory.hpp:77] Creating layer pool2
I0403 14:53:19.180873 11248 net.cpp:91] Creating Layer pool2
I0403 14:53:19.180891 11248 net.cpp:425] pool2 <- norm2
I0403 14:53:19.180909 11248 net.cpp:399] pool2 -> pool2
I0403 14:53:19.180960 11248 net.cpp:141] Setting up pool2
I0403 14:53:19.180985 11248 net.cpp:148] Top shape: 100 256 13 13 (4326400)
I0403 14:53:19.181001 11248 net.cpp:156] Memory required for data: 679564400
I0403 14:53:19.181017 11248 layer_factory.hpp:77] Creating layer conv3
I0403 14:53:19.181040 11248 net.cpp:91] Creating Layer conv3
I0403 14:53:19.181056 11248 net.cpp:425] conv3 <- pool2
I0403 14:53:19.181076 11248 net.cpp:399] conv3 -> conv3
I0403 14:53:19.220455 11248 net.cpp:141] Setting up conv3
I0403 14:53:19.220509 11248 net.cpp:148] Top shape: 100 384 13 13 (6489600)
I0403 14:53:19.220525 11248 net.cpp:156] Memory required for data: 705522800
I0403 14:53:19.220554 11248 layer_factory.hpp:77] Creating layer relu3
I0403 14:53:19.220577 11248 net.cpp:91] Creating Layer relu3
I0403 14:53:19.220594 11248 net.cpp:425] relu3 <- conv3
I0403 14:53:19.220613 11248 net.cpp:386] relu3 -> conv3 (in-place)
I0403 14:53:19.220893 11248 net.cpp:141] Setting up relu3
I0403 14:53:19.220921 11248 net.cpp:148] Top shape: 100 384 13 13 (6489600)
I0403 14:53:19.220938 11248 net.cpp:156] Memory required for data: 731481200
I0403 14:53:19.220953 11248 layer_factory.hpp:77] Creating layer conv4
I0403 14:53:19.220976 11248 net.cpp:91] Creating Layer conv4
I0403 14:53:19.220993 11248 net.cpp:425] conv4 <- conv3
I0403 14:53:19.221014 11248 net.cpp:399] conv4 -> conv4
I0403 14:53:19.249794 11248 net.cpp:141] Setting up conv4
I0403 14:53:19.249840 11248 net.cpp:148] Top shape: 100 384 13 13 (6489600)
I0403 14:53:19.249889 11248 net.cpp:156] Memory required for data: 757439600
I0403 14:53:19.249912 11248 layer_factory.hpp:77] Creating layer relu4
I0403 14:53:19.249933 11248 net.cpp:91] Creating Layer relu4
I0403 14:53:19.249950 11248 net.cpp:425] relu4 <- conv4
I0403 14:53:19.249969 11248 net.cpp:386] relu4 -> conv4 (in-place)
I0403 14:53:19.250263 11248 net.cpp:141] Setting up relu4
I0403 14:53:19.250294 11248 net.cpp:148] Top shape: 100 384 13 13 (6489600)
I0403 14:53:19.250314 11248 net.cpp:156] Memory required for data: 783398000
I0403 14:53:19.250330 11248 layer_factory.hpp:77] Creating layer conv5
I0403 14:53:19.250356 11248 net.cpp:91] Creating Layer conv5
I0403 14:53:19.250375 11248 net.cpp:425] conv5 <- conv4
I0403 14:53:19.250397 11248 net.cpp:399] conv5 -> conv5
I0403 14:53:19.270906 11248 net.cpp:141] Setting up conv5
I0403 14:53:19.270966 11248 net.cpp:148] Top shape: 100 256 13 13 (4326400)
I0403 14:53:19.270983 11248 net.cpp:156] Memory required for data: 800703600
I0403 14:53:19.271008 11248 layer_factory.hpp:77] Creating layer relu5
I0403 14:53:19.271036 11248 net.cpp:91] Creating Layer relu5
I0403 14:53:19.271056 11248 net.cpp:425] relu5 <- conv5
I0403 14:53:19.271075 11248 net.cpp:386] relu5 -> conv5 (in-place)
I0403 14:53:19.271364 11248 net.cpp:141] Setting up relu5
I0403 14:53:19.271391 11248 net.cpp:148] Top shape: 100 256 13 13 (4326400)
I0403 14:53:19.271407 11248 net.cpp:156] Memory required for data: 818009200
I0403 14:53:19.271423 11248 layer_factory.hpp:77] Creating layer pool5
I0403 14:53:19.271450 11248 net.cpp:91] Creating Layer pool5
I0403 14:53:19.271467 11248 net.cpp:425] pool5 <- conv5
I0403 14:53:19.271491 11248 net.cpp:399] pool5 -> pool5
I0403 14:53:19.271551 11248 net.cpp:141] Setting up pool5
I0403 14:53:19.271576 11248 net.cpp:148] Top shape: 100 256 6 6 (921600)
I0403 14:53:19.271592 11248 net.cpp:156] Memory required for data: 821695600
I0403 14:53:19.271607 11248 layer_factory.hpp:77] Creating layer fc6
I0403 14:53:19.271637 11248 net.cpp:91] Creating Layer fc6
I0403 14:53:19.271656 11248 net.cpp:425] fc6 <- pool5
I0403 14:53:19.271677 11248 net.cpp:399] fc6 -> fc6
I0403 14:53:20.815865 11248 net.cpp:141] Setting up fc6
I0403 14:53:20.815915 11248 net.cpp:148] Top shape: 100 4096 (409600)
I0403 14:53:20.815932 11248 net.cpp:156] Memory required for data: 823334000
I0403 14:53:20.815953 11248 layer_factory.hpp:77] Creating layer relu6
I0403 14:53:20.815974 11248 net.cpp:91] Creating Layer relu6
I0403 14:53:20.815994 11248 net.cpp:425] relu6 <- fc6
I0403 14:53:20.816015 11248 net.cpp:386] relu6 -> fc6 (in-place)
I0403 14:53:20.816236 11248 net.cpp:141] Setting up relu6
I0403 14:53:20.816262 11248 net.cpp:148] Top shape: 100 4096 (409600)
I0403 14:53:20.816277 11248 net.cpp:156] Memory required for data: 824972400
I0403 14:53:20.816292 11248 layer_factory.hpp:77] Creating layer drop6
I0403 14:53:20.816311 11248 net.cpp:91] Creating Layer drop6
I0403 14:53:20.816328 11248 net.cpp:425] drop6 <- fc6
I0403 14:53:20.816344 11248 net.cpp:386] drop6 -> fc6 (in-place)
I0403 14:53:20.816396 11248 net.cpp:141] Setting up drop6
I0403 14:53:20.816421 11248 net.cpp:148] Top shape: 100 4096 (409600)
I0403 14:53:20.816434 11248 net.cpp:156] Memory required for data: 826610800
I0403 14:53:20.816449 11248 layer_factory.hpp:77] Creating layer fc7
I0403 14:53:20.816469 11248 net.cpp:91] Creating Layer fc7
I0403 14:53:20.816484 11248 net.cpp:425] fc7 <- fc6
I0403 14:53:20.816504 11248 net.cpp:399] fc7 -> fc7
I0403 14:53:21.498333 11248 net.cpp:141] Setting up fc7
I0403 14:53:21.498378 11248 net.cpp:148] Top shape: 100 4096 (409600)
I0403 14:53:21.498395 11248 net.cpp:156] Memory required for data: 828249200
I0403 14:53:21.498417 11248 layer_factory.hpp:77] Creating layer relu7
I0403 14:53:21.498440 11248 net.cpp:91] Creating Layer relu7
I0403 14:53:21.498456 11248 net.cpp:425] relu7 <- fc7
I0403 14:53:21.498476 11248 net.cpp:386] relu7 -> fc7 (in-place)
I0403 14:53:21.498867 11248 net.cpp:141] Setting up relu7
I0403 14:53:21.498893 11248 net.cpp:148] Top shape: 100 4096 (409600)
I0403 14:53:21.498944 11248 net.cpp:156] Memory required for data: 829887600
I0403 14:53:21.498960 11248 layer_factory.hpp:77] Creating layer drop7
I0403 14:53:21.498982 11248 net.cpp:91] Creating Layer drop7
I0403 14:53:21.498999 11248 net.cpp:425] drop7 <- fc7
I0403 14:53:21.499017 11248 net.cpp:386] drop7 -> fc7 (in-place)
I0403 14:53:21.499063 11248 net.cpp:141] Setting up drop7
I0403 14:53:21.499085 11248 net.cpp:148] Top shape: 100 4096 (409600)
I0403 14:53:21.499100 11248 net.cpp:156] Memory required for data: 831526000
I0403 14:53:21.499116 11248 layer_factory.hpp:77] Creating layer fc8_plantvillage
I0403 14:53:21.499138 11248 net.cpp:91] Creating Layer fc8_plantvillage
I0403 14:53:21.499155 11248 net.cpp:425] fc8_plantvillage <- fc7
I0403 14:53:21.499181 11248 net.cpp:399] fc8_plantvillage -> fc8_plantvillage
I0403 14:53:21.505797 11248 net.cpp:141] Setting up fc8_plantvillage
I0403 14:53:21.505826 11248 net.cpp:148] Top shape: 100 38 (3800)
I0403 14:53:21.505842 11248 net.cpp:156] Memory required for data: 831541200
I0403 14:53:21.505861 11248 layer_factory.hpp:77] Creating layer fc8_plantvillage_fc8_plantvillage_0_split
I0403 14:53:21.505882 11248 net.cpp:91] Creating Layer fc8_plantvillage_fc8_plantvillage_0_split
I0403 14:53:21.505898 11248 net.cpp:425] fc8_plantvillage_fc8_plantvillage_0_split <- fc8_plantvillage
I0403 14:53:21.505915 11248 net.cpp:399] fc8_plantvillage_fc8_plantvillage_0_split -> fc8_plantvillage_fc8_plantvillage_0_split_0
I0403 14:53:21.505938 11248 net.cpp:399] fc8_plantvillage_fc8_plantvillage_0_split -> fc8_plantvillage_fc8_plantvillage_0_split_1
I0403 14:53:21.505959 11248 net.cpp:399] fc8_plantvillage_fc8_plantvillage_0_split -> fc8_plantvillage_fc8_plantvillage_0_split_2
I0403 14:53:21.506033 11248 net.cpp:141] Setting up fc8_plantvillage_fc8_plantvillage_0_split
I0403 14:53:21.506058 11248 net.cpp:148] Top shape: 100 38 (3800)
I0403 14:53:21.506074 11248 net.cpp:148] Top shape: 100 38 (3800)
I0403 14:53:21.506089 11248 net.cpp:148] Top shape: 100 38 (3800)
I0403 14:53:21.506103 11248 net.cpp:156] Memory required for data: 831586800
I0403 14:53:21.506116 11248 layer_factory.hpp:77] Creating layer prob
I0403 14:53:21.506136 11248 net.cpp:91] Creating Layer prob
I0403 14:53:21.506153 11248 net.cpp:425] prob <- fc8_plantvillage_fc8_plantvillage_0_split_0
I0403 14:53:21.506177 11248 net.cpp:399] prob -> prob
I0403 14:53:21.506398 11248 net.cpp:141] Setting up prob
I0403 14:53:21.506424 11248 net.cpp:148] Top shape: 100 38 (3800)
I0403 14:53:21.506439 11248 net.cpp:156] Memory required for data: 831602000
I0403 14:53:21.506454 11248 layer_factory.hpp:77] Creating layer hdf5out
I0403 14:53:21.506474 11248 net.cpp:91] Creating Layer hdf5out
I0403 14:53:21.506490 11248 net.cpp:425] hdf5out <- prob
I0403 14:53:21.506505 11248 net.cpp:425] hdf5out <- label_data_1_split_0
I0403 14:53:21.508816 11248 net.cpp:141] Setting up hdf5out
…
