…
I0403 14:41:57.941272 10995 net.cpp:313] The NetState phase (1) differed from the phase (0) specified by a rule in layer data
I0403 14:41:57.941565 10995 net.cpp:49] Initializing net from parameters: 
state {
  phase: TEST
}
layer {
  name: "data"
  type: "Data"
  top: "data"
  top: "label"
  include {
    phase: TEST
  }
  transform_param {
    crop_size: 227
    mean_file: "/home/mohanty/data/final_dataset/lmdb/grayscale-50-50/mean.binaryproto"
  }
  data_param {
    source: "/home/mohanty/data/final_dataset/lmdb/grayscale-50-50/test_db"
    batch_size: 100
    backend: LMDB
  }
}
layer {
  name: "conv1"
  type: "Convolution"
  bottom: "data"
  top: "conv1"
  param {
    lr_mult: 1
    decay_mult: 1
  }
  param {
    lr_mult: 2
    decay_mult: 0
  }
  convolution_param {
    num_output: 96
    kernel_size: 11
    stride: 4
    weight_filler {
      type: "gaussian"
      std: 0.01
    }
    bias_filler {
      type: "constant"
      value: 0
    }
  }
}
layer {
  name: "relu1"
  type: "ReLU"
  bottom: "conv1"
  top: "conv1"
}
layer {
  name: "norm1"
  type: "LRN"
  bottom: "conv1"
  top: "norm1"
  lrn_param {
    local_size: 5
    alpha: 0.0001
    beta: 0.75
  }
}
layer {
  name: "pool1"
  type: "Pooling"
  bottom: "norm1"
  top: "pool1"
  pooling_param {
    pool: MAX
    kernel_size: 3
    stride: 2
  }
}
layer {
  name: "conv2"
  type: "Convolution"
  bottom: "pool1"
  top: "conv2"
  param {
    lr_mult: 1
    decay_mult: 1
  }
  param {
    lr_mult: 2
    decay_mult: 0
  }
  convolution_param {
    num_output: 256
    pad: 2
    kernel_size: 5
    group: 2
    weight_filler {
      type: "gaussian"
      std: 0.01
    }
    bias_filler {
      type: "constant"
      value: 0.1
    }
  }
}
layer {
  name: "relu2"
  type: "ReLU"
  bottom: "conv2"
  top: "conv2"
}
layer {
  name: "norm2"
  type: "LRN"
  bottom: "conv2"
  top: "norm2"
  lrn_param {
    local_size: 5
    alpha: 0.0001
    beta: 0.75
  }
}
layer {
  name: "pool2"
  type: "Pooling"
  bottom: "norm2"
  top: "pool2"
  pooling_param {
    pool: MAX
    kernel_size: 3
    stride: 2
  }
}
layer {
  name: "conv3"
  type: "Convolution"
  bottom: "pool2"
  top: "conv3"
  param {
    lr_mult: 1
    decay_mult: 1
  }
  param {
    lr_mult: 2
    decay_mult: 0
  }
  convolution_param {
    num_output: 384
    pad: 1
    kernel_size: 3
    weight_filler {
      type: "gaussian"
      std: 0.01
    }
    bias_filler {
      type: "constant"
      value: 0
    }
  }
}
layer {
  name: "relu3"
  type: "ReLU"
  bottom: "conv3"
  top: "conv3"
}
layer {
  name: "conv4"
  type: "Convolution"
  bottom: "conv3"
  top: "conv4"
  param {
    lr_mult: 1
    decay_mult: 1
  }
  param {
    lr_mult: 2
    decay_mult: 0
  }
  convolution_param {
    num_output: 384
    pad: 1
    kernel_size: 3
    group: 2
    weight_filler {
      type: "gaussian"
      std: 0.01
    }
    bias_filler {
      type: "constant"
      value: 0.1
    }
  }
}
layer {
  name: "relu4"
  type: "ReLU"
  bottom: "conv4"
  top: "conv4"
}
layer {
  name: "conv5"
  type: "Convolution"
  bottom: "conv4"
  top: "conv5"
  param {
    lr_mult: 1
    decay_mult: 1
  }
  param {
    lr_mult: 2
    decay_mult: 0
  }
  convolution_param {
    num_output: 256
    pad: 1
    kernel_size: 3
    group: 2
    weight_filler {
      type: "gaussian"
      std: 0.01
    }
    bias_filler {
      type: "constant"
      value: 0.1
    }
  }
}
layer {
  name: "relu5"
  type: "ReLU"
  bottom: "conv5"
  top: "conv5"
}
layer {
  name: "pool5"
  type: "Pooling"
  bottom: "conv5"
  top: "pool5"
  pooling_param {
    pool: MAX
    kernel_size: 3
    stride: 2
  }
}
layer {
  name: "fc6"
  type: "InnerProduct"
  bottom: "pool5"
  top: "fc6"
  param {
    lr_mult: 1
    decay_mult: 1
  }
  param {
    lr_mult: 2
    decay_mult: 0
  }
  inner_product_param {
    num_output: 4096
    weight_filler {
      type: "gaussian"
      std: 0.005
    }
    bias_filler {
      type: "constant"
      value: 0.1
    }
  }
}
layer {
  name: "relu6"
  type: "ReLU"
  bottom: "fc6"
  top: "fc6"
}
layer {
  name: "drop6"
  type: "Dropout"
  bottom: "fc6"
  top: "fc6"
  dropout_param {
    dropout_ratio: 0.5
  }
}
layer {
  name: "fc7"
  type: "InnerProduct"
  bottom: "fc6"
  top: "fc7"
  param {
    lr_mult: 1
    decay_mult: 1
  }
  param {
    lr_mult: 2
    decay_mult: 0
  }
  inner_product_param {
    num_output: 4096
    weight_filler {
      type: "gaussian"
      std: 0.005
    }
    bias_filler {
      type: "constant"
      value: 0.1
    }
  }
}
layer {
  name: "relu7"
  type: "ReLU"
  bottom: "fc7"
  top: "fc7"
}
layer {
  name: "drop7"
  type: "Dropout"
  bottom: "fc7"
  top: "fc7"
  dropout_param {
    dropout_ratio: 0.5
  }
}
layer {
  name: "fc8_plantvillage"
  type: "InnerProduct"
  bottom: "fc7"
  top: "fc8_plantvillage"
  param {
    lr_mult: 1
    decay_mult: 1
  }
  param {
    lr_mult: 2
    decay_mult: 0
  }
  inner_product_param {
    num_output: 38
    weight_filler {
      type: "gaussian"
      std: 0.01
    }
    bias_filler {
      type: "constant"
      value: 0
    }
  }
}
layer {
  name: "prob"
  type: "Softmax"
  bottom: "fc8_plantvillage"
  top: "prob"
  include {
    phase: TEST
  }
}
layer {
  name: "hdf5out"
  type: "HDF5Output"
  bottom: "prob"
  bottom: "label"
  include {
    phase: TEST
  }
  hdf5_output_param {
    file_name: "hdf5_dumps/iter_2136.h5"
  }
}
layer {
  name: "loss"
  type: "SoftmaxWithLoss"
  bottom: "fc8_plantvillage"
  bottom: "label"
  top: "loss"
}
layer {
  name: "accuracy"
  type: "Accuracy"
  bottom: "fc8_plantvillage"
  bottom: "label"
  top: "accuracy"
  include {
    phase: TEST
  }
}
I0403 14:41:57.942133 10995 layer_factory.hpp:77] Creating layer data
I0403 14:41:57.942790 10995 net.cpp:91] Creating Layer data
I0403 14:41:57.942823 10995 net.cpp:399] data -> data
I0403 14:41:57.942873 10995 net.cpp:399] data -> label
I0403 14:41:57.942910 10995 data_transformer.cpp:25] Loading mean file from: /home/mohanty/data/final_dataset/lmdb/grayscale-50-50/mean.binaryproto
I0403 14:41:57.945719 10998 db_lmdb.cpp:38] Opened lmdb /home/mohanty/data/final_dataset/lmdb/grayscale-50-50/test_db
I0403 14:41:57.957301 10995 data_layer.cpp:41] output data size: 100,3,227,227
I0403 14:41:58.077100 10995 net.cpp:141] Setting up data
I0403 14:41:58.077206 10995 net.cpp:148] Top shape: 100 3 227 227 (15458700)
I0403 14:41:58.077232 10995 net.cpp:148] Top shape: 100 (100)
I0403 14:41:58.077250 10995 net.cpp:156] Memory required for data: 61835200
I0403 14:41:58.077278 10995 layer_factory.hpp:77] Creating layer label_data_1_split
I0403 14:41:58.077304 10995 net.cpp:91] Creating Layer label_data_1_split
I0403 14:41:58.077323 10995 net.cpp:425] label_data_1_split <- label
I0403 14:41:58.077356 10995 net.cpp:399] label_data_1_split -> label_data_1_split_0
I0403 14:41:58.077384 10995 net.cpp:399] label_data_1_split -> label_data_1_split_1
I0403 14:41:58.077406 10995 net.cpp:399] label_data_1_split -> label_data_1_split_2
I0403 14:41:58.077471 10995 net.cpp:141] Setting up label_data_1_split
I0403 14:41:58.077497 10995 net.cpp:148] Top shape: 100 (100)
I0403 14:41:58.077515 10995 net.cpp:148] Top shape: 100 (100)
I0403 14:41:58.077532 10995 net.cpp:148] Top shape: 100 (100)
I0403 14:41:58.077546 10995 net.cpp:156] Memory required for data: 61836400
I0403 14:41:58.077563 10995 layer_factory.hpp:77] Creating layer conv1
I0403 14:41:58.077594 10995 net.cpp:91] Creating Layer conv1
I0403 14:41:58.077613 10995 net.cpp:425] conv1 <- data
I0403 14:41:58.077635 10995 net.cpp:399] conv1 -> conv1
I0403 14:41:58.219965 10995 net.cpp:141] Setting up conv1
I0403 14:41:58.220052 10995 net.cpp:148] Top shape: 100 96 55 55 (29040000)
I0403 14:41:58.220069 10995 net.cpp:156] Memory required for data: 177996400
I0403 14:41:58.220099 10995 layer_factory.hpp:77] Creating layer relu1
I0403 14:41:58.220129 10995 net.cpp:91] Creating Layer relu1
I0403 14:41:58.220147 10995 net.cpp:425] relu1 <- conv1
I0403 14:41:58.220167 10995 net.cpp:386] relu1 -> conv1 (in-place)
I0403 14:41:58.220428 10995 net.cpp:141] Setting up relu1
I0403 14:41:58.220455 10995 net.cpp:148] Top shape: 100 96 55 55 (29040000)
I0403 14:41:58.220509 10995 net.cpp:156] Memory required for data: 294156400
I0403 14:41:58.220526 10995 layer_factory.hpp:77] Creating layer norm1
I0403 14:41:58.220554 10995 net.cpp:91] Creating Layer norm1
I0403 14:41:58.220573 10995 net.cpp:425] norm1 <- conv1
I0403 14:41:58.220592 10995 net.cpp:399] norm1 -> norm1
I0403 14:41:58.220903 10995 net.cpp:141] Setting up norm1
I0403 14:41:58.220932 10995 net.cpp:148] Top shape: 100 96 55 55 (29040000)
I0403 14:41:58.220947 10995 net.cpp:156] Memory required for data: 410316400
I0403 14:41:58.220963 10995 layer_factory.hpp:77] Creating layer pool1
I0403 14:41:58.220986 10995 net.cpp:91] Creating Layer pool1
I0403 14:41:58.221004 10995 net.cpp:425] pool1 <- norm1
I0403 14:41:58.221021 10995 net.cpp:399] pool1 -> pool1
I0403 14:41:58.221088 10995 net.cpp:141] Setting up pool1
I0403 14:41:58.221115 10995 net.cpp:148] Top shape: 100 96 27 27 (6998400)
I0403 14:41:58.221130 10995 net.cpp:156] Memory required for data: 438310000
I0403 14:41:58.221145 10995 layer_factory.hpp:77] Creating layer conv2
I0403 14:41:58.221171 10995 net.cpp:91] Creating Layer conv2
I0403 14:41:58.221192 10995 net.cpp:425] conv2 <- pool1
I0403 14:41:58.221215 10995 net.cpp:399] conv2 -> conv2
I0403 14:41:58.236769 10995 net.cpp:141] Setting up conv2
I0403 14:41:58.236824 10995 net.cpp:148] Top shape: 100 256 27 27 (18662400)
I0403 14:41:58.236842 10995 net.cpp:156] Memory required for data: 512959600
I0403 14:41:58.236866 10995 layer_factory.hpp:77] Creating layer relu2
I0403 14:41:58.236887 10995 net.cpp:91] Creating Layer relu2
I0403 14:41:58.236904 10995 net.cpp:425] relu2 <- conv2
I0403 14:41:58.236925 10995 net.cpp:386] relu2 -> conv2 (in-place)
I0403 14:41:58.237221 10995 net.cpp:141] Setting up relu2
I0403 14:41:58.237249 10995 net.cpp:148] Top shape: 100 256 27 27 (18662400)
I0403 14:41:58.237267 10995 net.cpp:156] Memory required for data: 587609200
I0403 14:41:58.237282 10995 layer_factory.hpp:77] Creating layer norm2
I0403 14:41:58.237306 10995 net.cpp:91] Creating Layer norm2
I0403 14:41:58.237325 10995 net.cpp:425] norm2 <- conv2
I0403 14:41:58.237344 10995 net.cpp:399] norm2 -> norm2
I0403 14:41:58.237578 10995 net.cpp:141] Setting up norm2
I0403 14:41:58.237609 10995 net.cpp:148] Top shape: 100 256 27 27 (18662400)
I0403 14:41:58.237627 10995 net.cpp:156] Memory required for data: 662258800
I0403 14:41:58.237643 10995 layer_factory.hpp:77] Creating layer pool2
I0403 14:41:58.237663 10995 net.cpp:91] Creating Layer pool2
I0403 14:41:58.237679 10995 net.cpp:425] pool2 <- norm2
I0403 14:41:58.237699 10995 net.cpp:399] pool2 -> pool2
I0403 14:41:58.237754 10995 net.cpp:141] Setting up pool2
I0403 14:41:58.237781 10995 net.cpp:148] Top shape: 100 256 13 13 (4326400)
I0403 14:41:58.237797 10995 net.cpp:156] Memory required for data: 679564400
I0403 14:41:58.237812 10995 layer_factory.hpp:77] Creating layer conv3
I0403 14:41:58.237836 10995 net.cpp:91] Creating Layer conv3
I0403 14:41:58.237854 10995 net.cpp:425] conv3 <- pool2
I0403 14:41:58.237876 10995 net.cpp:399] conv3 -> conv3
I0403 14:41:58.277859 10995 net.cpp:141] Setting up conv3
I0403 14:41:58.277909 10995 net.cpp:148] Top shape: 100 384 13 13 (6489600)
I0403 14:41:58.277926 10995 net.cpp:156] Memory required for data: 705522800
I0403 14:41:58.277952 10995 layer_factory.hpp:77] Creating layer relu3
I0403 14:41:58.277974 10995 net.cpp:91] Creating Layer relu3
I0403 14:41:58.277992 10995 net.cpp:425] relu3 <- conv3
I0403 14:41:58.278013 10995 net.cpp:386] relu3 -> conv3 (in-place)
I0403 14:41:58.278313 10995 net.cpp:141] Setting up relu3
I0403 14:41:58.278342 10995 net.cpp:148] Top shape: 100 384 13 13 (6489600)
I0403 14:41:58.278359 10995 net.cpp:156] Memory required for data: 731481200
I0403 14:41:58.278376 10995 layer_factory.hpp:77] Creating layer conv4
I0403 14:41:58.278404 10995 net.cpp:91] Creating Layer conv4
I0403 14:41:58.278424 10995 net.cpp:425] conv4 <- conv3
I0403 14:41:58.278448 10995 net.cpp:399] conv4 -> conv4
I0403 14:41:58.309053 10995 net.cpp:141] Setting up conv4
I0403 14:41:58.309109 10995 net.cpp:148] Top shape: 100 384 13 13 (6489600)
I0403 14:41:58.309157 10995 net.cpp:156] Memory required for data: 757439600
I0403 14:41:58.309180 10995 layer_factory.hpp:77] Creating layer relu4
I0403 14:41:58.309206 10995 net.cpp:91] Creating Layer relu4
I0403 14:41:58.309223 10995 net.cpp:425] relu4 <- conv4
I0403 14:41:58.309242 10995 net.cpp:386] relu4 -> conv4 (in-place)
I0403 14:41:58.309520 10995 net.cpp:141] Setting up relu4
I0403 14:41:58.309551 10995 net.cpp:148] Top shape: 100 384 13 13 (6489600)
I0403 14:41:58.309567 10995 net.cpp:156] Memory required for data: 783398000
I0403 14:41:58.309583 10995 layer_factory.hpp:77] Creating layer conv5
I0403 14:41:58.309617 10995 net.cpp:91] Creating Layer conv5
I0403 14:41:58.309636 10995 net.cpp:425] conv5 <- conv4
I0403 14:41:58.309656 10995 net.cpp:399] conv5 -> conv5
I0403 14:41:58.331271 10995 net.cpp:141] Setting up conv5
I0403 14:41:58.331327 10995 net.cpp:148] Top shape: 100 256 13 13 (4326400)
I0403 14:41:58.331346 10995 net.cpp:156] Memory required for data: 800703600
I0403 14:41:58.331370 10995 layer_factory.hpp:77] Creating layer relu5
I0403 14:41:58.331392 10995 net.cpp:91] Creating Layer relu5
I0403 14:41:58.331408 10995 net.cpp:425] relu5 <- conv5
I0403 14:41:58.331430 10995 net.cpp:386] relu5 -> conv5 (in-place)
I0403 14:41:58.331725 10995 net.cpp:141] Setting up relu5
I0403 14:41:58.331754 10995 net.cpp:148] Top shape: 100 256 13 13 (4326400)
I0403 14:41:58.331770 10995 net.cpp:156] Memory required for data: 818009200
I0403 14:41:58.331786 10995 layer_factory.hpp:77] Creating layer pool5
I0403 14:41:58.331812 10995 net.cpp:91] Creating Layer pool5
I0403 14:41:58.331831 10995 net.cpp:425] pool5 <- conv5
I0403 14:41:58.331851 10995 net.cpp:399] pool5 -> pool5
I0403 14:41:58.331915 10995 net.cpp:141] Setting up pool5
I0403 14:41:58.331941 10995 net.cpp:148] Top shape: 100 256 6 6 (921600)
I0403 14:41:58.331957 10995 net.cpp:156] Memory required for data: 821695600
I0403 14:41:58.331972 10995 layer_factory.hpp:77] Creating layer fc6
I0403 14:41:58.332001 10995 net.cpp:91] Creating Layer fc6
I0403 14:41:58.332020 10995 net.cpp:425] fc6 <- pool5
I0403 14:41:58.332042 10995 net.cpp:399] fc6 -> fc6
I0403 14:41:59.894526 10995 net.cpp:141] Setting up fc6
I0403 14:41:59.894570 10995 net.cpp:148] Top shape: 100 4096 (409600)
I0403 14:41:59.894588 10995 net.cpp:156] Memory required for data: 823334000
I0403 14:41:59.894608 10995 layer_factory.hpp:77] Creating layer relu6
I0403 14:41:59.894629 10995 net.cpp:91] Creating Layer relu6
I0403 14:41:59.894647 10995 net.cpp:425] relu6 <- fc6
I0403 14:41:59.894666 10995 net.cpp:386] relu6 -> fc6 (in-place)
I0403 14:41:59.894870 10995 net.cpp:141] Setting up relu6
I0403 14:41:59.894897 10995 net.cpp:148] Top shape: 100 4096 (409600)
I0403 14:41:59.894912 10995 net.cpp:156] Memory required for data: 824972400
I0403 14:41:59.894927 10995 layer_factory.hpp:77] Creating layer drop6
I0403 14:41:59.894945 10995 net.cpp:91] Creating Layer drop6
I0403 14:41:59.894960 10995 net.cpp:425] drop6 <- fc6
I0403 14:41:59.894981 10995 net.cpp:386] drop6 -> fc6 (in-place)
I0403 14:41:59.895033 10995 net.cpp:141] Setting up drop6
I0403 14:41:59.895056 10995 net.cpp:148] Top shape: 100 4096 (409600)
I0403 14:41:59.895071 10995 net.cpp:156] Memory required for data: 826610800
I0403 14:41:59.895084 10995 layer_factory.hpp:77] Creating layer fc7
I0403 14:41:59.895119 10995 net.cpp:91] Creating Layer fc7
I0403 14:41:59.895134 10995 net.cpp:425] fc7 <- fc6
I0403 14:41:59.895155 10995 net.cpp:399] fc7 -> fc7
I0403 14:42:00.576129 10995 net.cpp:141] Setting up fc7
I0403 14:42:00.576174 10995 net.cpp:148] Top shape: 100 4096 (409600)
I0403 14:42:00.576197 10995 net.cpp:156] Memory required for data: 828249200
I0403 14:42:00.576220 10995 layer_factory.hpp:77] Creating layer relu7
I0403 14:42:00.576243 10995 net.cpp:91] Creating Layer relu7
I0403 14:42:00.576261 10995 net.cpp:425] relu7 <- fc7
I0403 14:42:00.576279 10995 net.cpp:386] relu7 -> fc7 (in-place)
I0403 14:42:00.576702 10995 net.cpp:141] Setting up relu7
I0403 14:42:00.576730 10995 net.cpp:148] Top shape: 100 4096 (409600)
I0403 14:42:00.576764 10995 net.cpp:156] Memory required for data: 829887600
I0403 14:42:00.576781 10995 layer_factory.hpp:77] Creating layer drop7
I0403 14:42:00.576800 10995 net.cpp:91] Creating Layer drop7
I0403 14:42:00.576815 10995 net.cpp:425] drop7 <- fc7
I0403 14:42:00.576834 10995 net.cpp:386] drop7 -> fc7 (in-place)
I0403 14:42:00.576879 10995 net.cpp:141] Setting up drop7
I0403 14:42:00.576901 10995 net.cpp:148] Top shape: 100 4096 (409600)
I0403 14:42:00.576916 10995 net.cpp:156] Memory required for data: 831526000
I0403 14:42:00.576932 10995 layer_factory.hpp:77] Creating layer fc8_plantvillage
I0403 14:42:00.576954 10995 net.cpp:91] Creating Layer fc8_plantvillage
I0403 14:42:00.576972 10995 net.cpp:425] fc8_plantvillage <- fc7
I0403 14:42:00.576992 10995 net.cpp:399] fc8_plantvillage -> fc8_plantvillage
I0403 14:42:00.583782 10995 net.cpp:141] Setting up fc8_plantvillage
I0403 14:42:00.583812 10995 net.cpp:148] Top shape: 100 38 (3800)
I0403 14:42:00.583828 10995 net.cpp:156] Memory required for data: 831541200
I0403 14:42:00.583847 10995 layer_factory.hpp:77] Creating layer fc8_plantvillage_fc8_plantvillage_0_split
I0403 14:42:00.583864 10995 net.cpp:91] Creating Layer fc8_plantvillage_fc8_plantvillage_0_split
I0403 14:42:00.583880 10995 net.cpp:425] fc8_plantvillage_fc8_plantvillage_0_split <- fc8_plantvillage
I0403 14:42:00.583900 10995 net.cpp:399] fc8_plantvillage_fc8_plantvillage_0_split -> fc8_plantvillage_fc8_plantvillage_0_split_0
I0403 14:42:00.583921 10995 net.cpp:399] fc8_plantvillage_fc8_plantvillage_0_split -> fc8_plantvillage_fc8_plantvillage_0_split_1
I0403 14:42:00.583941 10995 net.cpp:399] fc8_plantvillage_fc8_plantvillage_0_split -> fc8_plantvillage_fc8_plantvillage_0_split_2
I0403 14:42:00.584018 10995 net.cpp:141] Setting up fc8_plantvillage_fc8_plantvillage_0_split
I0403 14:42:00.584050 10995 net.cpp:148] Top shape: 100 38 (3800)
I0403 14:42:00.584069 10995 net.cpp:148] Top shape: 100 38 (3800)
I0403 14:42:00.584084 10995 net.cpp:148] Top shape: 100 38 (3800)
I0403 14:42:00.584098 10995 net.cpp:156] Memory required for data: 831586800
I0403 14:42:00.584120 10995 layer_factory.hpp:77] Creating layer prob
I0403 14:42:00.584141 10995 net.cpp:91] Creating Layer prob
I0403 14:42:00.584157 10995 net.cpp:425] prob <- fc8_plantvillage_fc8_plantvillage_0_split_0
I0403 14:42:00.584177 10995 net.cpp:399] prob -> prob
I0403 14:42:00.584409 10995 net.cpp:141] Setting up prob
I0403 14:42:00.584439 10995 net.cpp:148] Top shape: 100 38 (3800)
I0403 14:42:00.584456 10995 net.cpp:156] Memory required for data: 831602000
I0403 14:42:00.584475 10995 layer_factory.hpp:77] Creating layer hdf5out
I0403 14:42:00.584493 10995 net.cpp:91] Creating Layer hdf5out
I0403 14:42:00.584509 10995 net.cpp:425] hdf5out <- prob
I0403 14:42:00.584527 10995 net.cpp:425] hdf5out <- label_data_1_split_0
I0403 14:42:00.586908 10995 net.cpp:141] Setting up hdf5out
…
