…
I0403 14:48:34.350251 11139 net.cpp:313] The NetState phase (1) differed from the phase (0) specified by a rule in layer data
I0403 14:48:34.350570 11139 net.cpp:49] Initializing net from parameters: 
state {
  phase: TEST
}
layer {
  name: "data"
  type: "Data"
  top: "data"
  top: "label"
  include {
    phase: TEST
  }
  transform_param {
    crop_size: 227
    mean_file: "/home/mohanty/data/final_dataset/lmdb/grayscale-50-50/mean.binaryproto"
  }
  data_param {
    source: "/home/mohanty/data/final_dataset/lmdb/grayscale-50-50/test_db"
    batch_size: 100
    backend: LMDB
  }
}
layer {
  name: "conv1"
  type: "Convolution"
  bottom: "data"
  top: "conv1"
  param {
    lr_mult: 1
    decay_mult: 1
  }
  param {
    lr_mult: 2
    decay_mult: 0
  }
  convolution_param {
    num_output: 96
    kernel_size: 11
    stride: 4
    weight_filler {
      type: "gaussian"
      std: 0.01
    }
    bias_filler {
      type: "constant"
      value: 0
    }
  }
}
layer {
  name: "relu1"
  type: "ReLU"
  bottom: "conv1"
  top: "conv1"
}
layer {
  name: "norm1"
  type: "LRN"
  bottom: "conv1"
  top: "norm1"
  lrn_param {
    local_size: 5
    alpha: 0.0001
    beta: 0.75
  }
}
layer {
  name: "pool1"
  type: "Pooling"
  bottom: "norm1"
  top: "pool1"
  pooling_param {
    pool: MAX
    kernel_size: 3
    stride: 2
  }
}
layer {
  name: "conv2"
  type: "Convolution"
  bottom: "pool1"
  top: "conv2"
  param {
    lr_mult: 1
    decay_mult: 1
  }
  param {
    lr_mult: 2
    decay_mult: 0
  }
  convolution_param {
    num_output: 256
    pad: 2
    kernel_size: 5
    group: 2
    weight_filler {
      type: "gaussian"
      std: 0.01
    }
    bias_filler {
      type: "constant"
      value: 0.1
    }
  }
}
layer {
  name: "relu2"
  type: "ReLU"
  bottom: "conv2"
  top: "conv2"
}
layer {
  name: "norm2"
  type: "LRN"
  bottom: "conv2"
  top: "norm2"
  lrn_param {
    local_size: 5
    alpha: 0.0001
    beta: 0.75
  }
}
layer {
  name: "pool2"
  type: "Pooling"
  bottom: "norm2"
  top: "pool2"
  pooling_param {
    pool: MAX
    kernel_size: 3
    stride: 2
  }
}
layer {
  name: "conv3"
  type: "Convolution"
  bottom: "pool2"
  top: "conv3"
  param {
    lr_mult: 1
    decay_mult: 1
  }
  param {
    lr_mult: 2
    decay_mult: 0
  }
  convolution_param {
    num_output: 384
    pad: 1
    kernel_size: 3
    weight_filler {
      type: "gaussian"
      std: 0.01
    }
    bias_filler {
      type: "constant"
      value: 0
    }
  }
}
layer {
  name: "relu3"
  type: "ReLU"
  bottom: "conv3"
  top: "conv3"
}
layer {
  name: "conv4"
  type: "Convolution"
  bottom: "conv3"
  top: "conv4"
  param {
    lr_mult: 1
    decay_mult: 1
  }
  param {
    lr_mult: 2
    decay_mult: 0
  }
  convolution_param {
    num_output: 384
    pad: 1
    kernel_size: 3
    group: 2
    weight_filler {
      type: "gaussian"
      std: 0.01
    }
    bias_filler {
      type: "constant"
      value: 0.1
    }
  }
}
layer {
  name: "relu4"
  type: "ReLU"
  bottom: "conv4"
  top: "conv4"
}
layer {
  name: "conv5"
  type: "Convolution"
  bottom: "conv4"
  top: "conv5"
  param {
    lr_mult: 1
    decay_mult: 1
  }
  param {
    lr_mult: 2
    decay_mult: 0
  }
  convolution_param {
    num_output: 256
    pad: 1
    kernel_size: 3
    group: 2
    weight_filler {
      type: "gaussian"
      std: 0.01
    }
    bias_filler {
      type: "constant"
      value: 0.1
    }
  }
}
layer {
  name: "relu5"
  type: "ReLU"
  bottom: "conv5"
  top: "conv5"
}
layer {
  name: "pool5"
  type: "Pooling"
  bottom: "conv5"
  top: "pool5"
  pooling_param {
    pool: MAX
    kernel_size: 3
    stride: 2
  }
}
layer {
  name: "fc6"
  type: "InnerProduct"
  bottom: "pool5"
  top: "fc6"
  param {
    lr_mult: 1
    decay_mult: 1
  }
  param {
    lr_mult: 2
    decay_mult: 0
  }
  inner_product_param {
    num_output: 4096
    weight_filler {
      type: "gaussian"
      std: 0.005
    }
    bias_filler {
      type: "constant"
      value: 0.1
    }
  }
}
layer {
  name: "relu6"
  type: "ReLU"
  bottom: "fc6"
  top: "fc6"
}
layer {
  name: "drop6"
  type: "Dropout"
  bottom: "fc6"
  top: "fc6"
  dropout_param {
    dropout_ratio: 0.5
  }
}
layer {
  name: "fc7"
  type: "InnerProduct"
  bottom: "fc6"
  top: "fc7"
  param {
    lr_mult: 1
    decay_mult: 1
  }
  param {
    lr_mult: 2
    decay_mult: 0
  }
  inner_product_param {
    num_output: 4096
    weight_filler {
      type: "gaussian"
      std: 0.005
    }
    bias_filler {
      type: "constant"
      value: 0.1
    }
  }
}
layer {
  name: "relu7"
  type: "ReLU"
  bottom: "fc7"
  top: "fc7"
}
layer {
  name: "drop7"
  type: "Dropout"
  bottom: "fc7"
  top: "fc7"
  dropout_param {
    dropout_ratio: 0.5
  }
}
layer {
  name: "fc8_plantvillage"
  type: "InnerProduct"
  bottom: "fc7"
  top: "fc8_plantvillage"
  param {
    lr_mult: 1
    decay_mult: 1
  }
  param {
    lr_mult: 2
    decay_mult: 0
  }
  inner_product_param {
    num_output: 38
    weight_filler {
      type: "gaussian"
      std: 0.01
    }
    bias_filler {
      type: "constant"
      value: 0
    }
  }
}
layer {
  name: "prob"
  type: "Softmax"
  bottom: "fc8_plantvillage"
  top: "prob"
  include {
    phase: TEST
  }
}
layer {
  name: "hdf5out"
  type: "HDF5Output"
  bottom: "prob"
  bottom: "label"
  include {
    phase: TEST
  }
  hdf5_output_param {
    file_name: "hdf5_dumps/iter_4005.h5"
  }
}
layer {
  name: "loss"
  type: "SoftmaxWithLoss"
  bottom: "fc8_plantvillage"
  bottom: "label"
  top: "loss"
}
layer {
  name: "accuracy"
  type: "Accuracy"
  bottom: "fc8_plantvillage"
  bottom: "label"
  top: "accuracy"
  include {
    phase: TEST
  }
}
I0403 14:48:34.351140 11139 layer_factory.hpp:77] Creating layer data
I0403 14:48:34.351796 11139 net.cpp:91] Creating Layer data
I0403 14:48:34.351830 11139 net.cpp:399] data -> data
I0403 14:48:34.351884 11139 net.cpp:399] data -> label
I0403 14:48:34.351923 11139 data_transformer.cpp:25] Loading mean file from: /home/mohanty/data/final_dataset/lmdb/grayscale-50-50/mean.binaryproto
I0403 14:48:34.354796 11142 db_lmdb.cpp:38] Opened lmdb /home/mohanty/data/final_dataset/lmdb/grayscale-50-50/test_db
I0403 14:48:34.366446 11139 data_layer.cpp:41] output data size: 100,3,227,227
I0403 14:48:34.487908 11139 net.cpp:141] Setting up data
I0403 14:48:34.487967 11139 net.cpp:148] Top shape: 100 3 227 227 (15458700)
I0403 14:48:34.487992 11139 net.cpp:148] Top shape: 100 (100)
I0403 14:48:34.488006 11139 net.cpp:156] Memory required for data: 61835200
I0403 14:48:34.488034 11139 layer_factory.hpp:77] Creating layer label_data_1_split
I0403 14:48:34.488059 11139 net.cpp:91] Creating Layer label_data_1_split
I0403 14:48:34.488077 11139 net.cpp:425] label_data_1_split <- label
I0403 14:48:34.488108 11139 net.cpp:399] label_data_1_split -> label_data_1_split_0
I0403 14:48:34.488138 11139 net.cpp:399] label_data_1_split -> label_data_1_split_1
I0403 14:48:34.488159 11139 net.cpp:399] label_data_1_split -> label_data_1_split_2
I0403 14:48:34.488225 11139 net.cpp:141] Setting up label_data_1_split
I0403 14:48:34.488250 11139 net.cpp:148] Top shape: 100 (100)
I0403 14:48:34.488267 11139 net.cpp:148] Top shape: 100 (100)
I0403 14:48:34.488283 11139 net.cpp:148] Top shape: 100 (100)
I0403 14:48:34.488297 11139 net.cpp:156] Memory required for data: 61836400
I0403 14:48:34.488312 11139 layer_factory.hpp:77] Creating layer conv1
I0403 14:48:34.488345 11139 net.cpp:91] Creating Layer conv1
I0403 14:48:34.488364 11139 net.cpp:425] conv1 <- data
I0403 14:48:34.488384 11139 net.cpp:399] conv1 -> conv1
I0403 14:48:34.636157 11139 net.cpp:141] Setting up conv1
I0403 14:48:34.636207 11139 net.cpp:148] Top shape: 100 96 55 55 (29040000)
I0403 14:48:34.636229 11139 net.cpp:156] Memory required for data: 177996400
I0403 14:48:34.636291 11139 layer_factory.hpp:77] Creating layer relu1
I0403 14:48:34.636324 11139 net.cpp:91] Creating Layer relu1
I0403 14:48:34.636343 11139 net.cpp:425] relu1 <- conv1
I0403 14:48:34.636373 11139 net.cpp:386] relu1 -> conv1 (in-place)
I0403 14:48:34.636662 11139 net.cpp:141] Setting up relu1
I0403 14:48:34.636690 11139 net.cpp:148] Top shape: 100 96 55 55 (29040000)
I0403 14:48:34.636742 11139 net.cpp:156] Memory required for data: 294156400
I0403 14:48:34.636759 11139 layer_factory.hpp:77] Creating layer norm1
I0403 14:48:34.636790 11139 net.cpp:91] Creating Layer norm1
I0403 14:48:34.636809 11139 net.cpp:425] norm1 <- conv1
I0403 14:48:34.636831 11139 net.cpp:399] norm1 -> norm1
I0403 14:48:34.637171 11139 net.cpp:141] Setting up norm1
I0403 14:48:34.637207 11139 net.cpp:148] Top shape: 100 96 55 55 (29040000)
I0403 14:48:34.637224 11139 net.cpp:156] Memory required for data: 410316400
I0403 14:48:34.637240 11139 layer_factory.hpp:77] Creating layer pool1
I0403 14:48:34.637264 11139 net.cpp:91] Creating Layer pool1
I0403 14:48:34.637282 11139 net.cpp:425] pool1 <- norm1
I0403 14:48:34.637305 11139 net.cpp:399] pool1 -> pool1
I0403 14:48:34.637377 11139 net.cpp:141] Setting up pool1
I0403 14:48:34.637406 11139 net.cpp:148] Top shape: 100 96 27 27 (6998400)
I0403 14:48:34.637423 11139 net.cpp:156] Memory required for data: 438310000
I0403 14:48:34.637439 11139 layer_factory.hpp:77] Creating layer conv2
I0403 14:48:34.637466 11139 net.cpp:91] Creating Layer conv2
I0403 14:48:34.637485 11139 net.cpp:425] conv2 <- pool1
I0403 14:48:34.637506 11139 net.cpp:399] conv2 -> conv2
I0403 14:48:34.652961 11139 net.cpp:141] Setting up conv2
I0403 14:48:34.653009 11139 net.cpp:148] Top shape: 100 256 27 27 (18662400)
I0403 14:48:34.653026 11139 net.cpp:156] Memory required for data: 512959600
I0403 14:48:34.653049 11139 layer_factory.hpp:77] Creating layer relu2
I0403 14:48:34.653069 11139 net.cpp:91] Creating Layer relu2
I0403 14:48:34.653086 11139 net.cpp:425] relu2 <- conv2
I0403 14:48:34.653106 11139 net.cpp:386] relu2 -> conv2 (in-place)
I0403 14:48:34.653394 11139 net.cpp:141] Setting up relu2
I0403 14:48:34.653424 11139 net.cpp:148] Top shape: 100 256 27 27 (18662400)
I0403 14:48:34.653439 11139 net.cpp:156] Memory required for data: 587609200
I0403 14:48:34.653455 11139 layer_factory.hpp:77] Creating layer norm2
I0403 14:48:34.653477 11139 net.cpp:91] Creating Layer norm2
I0403 14:48:34.653496 11139 net.cpp:425] norm2 <- conv2
I0403 14:48:34.653514 11139 net.cpp:399] norm2 -> norm2
I0403 14:48:34.653749 11139 net.cpp:141] Setting up norm2
I0403 14:48:34.653777 11139 net.cpp:148] Top shape: 100 256 27 27 (18662400)
I0403 14:48:34.653792 11139 net.cpp:156] Memory required for data: 662258800
I0403 14:48:34.653807 11139 layer_factory.hpp:77] Creating layer pool2
I0403 14:48:34.653826 11139 net.cpp:91] Creating Layer pool2
I0403 14:48:34.653842 11139 net.cpp:425] pool2 <- norm2
I0403 14:48:34.653862 11139 net.cpp:399] pool2 -> pool2
I0403 14:48:34.653916 11139 net.cpp:141] Setting up pool2
I0403 14:48:34.653941 11139 net.cpp:148] Top shape: 100 256 13 13 (4326400)
I0403 14:48:34.653956 11139 net.cpp:156] Memory required for data: 679564400
I0403 14:48:34.653970 11139 layer_factory.hpp:77] Creating layer conv3
I0403 14:48:34.653995 11139 net.cpp:91] Creating Layer conv3
I0403 14:48:34.654012 11139 net.cpp:425] conv3 <- pool2
I0403 14:48:34.654031 11139 net.cpp:399] conv3 -> conv3
I0403 14:48:34.692749 11139 net.cpp:141] Setting up conv3
I0403 14:48:34.692814 11139 net.cpp:148] Top shape: 100 384 13 13 (6489600)
I0403 14:48:34.692833 11139 net.cpp:156] Memory required for data: 705522800
I0403 14:48:34.692857 11139 layer_factory.hpp:77] Creating layer relu3
I0403 14:48:34.692878 11139 net.cpp:91] Creating Layer relu3
I0403 14:48:34.692895 11139 net.cpp:425] relu3 <- conv3
I0403 14:48:34.692917 11139 net.cpp:386] relu3 -> conv3 (in-place)
I0403 14:48:34.693225 11139 net.cpp:141] Setting up relu3
I0403 14:48:34.693253 11139 net.cpp:148] Top shape: 100 384 13 13 (6489600)
I0403 14:48:34.693269 11139 net.cpp:156] Memory required for data: 731481200
I0403 14:48:34.693285 11139 layer_factory.hpp:77] Creating layer conv4
I0403 14:48:34.693310 11139 net.cpp:91] Creating Layer conv4
I0403 14:48:34.693327 11139 net.cpp:425] conv4 <- conv3
I0403 14:48:34.693349 11139 net.cpp:399] conv4 -> conv4
I0403 14:48:34.723781 11139 net.cpp:141] Setting up conv4
I0403 14:48:34.723824 11139 net.cpp:148] Top shape: 100 384 13 13 (6489600)
I0403 14:48:34.723875 11139 net.cpp:156] Memory required for data: 757439600
I0403 14:48:34.723898 11139 layer_factory.hpp:77] Creating layer relu4
I0403 14:48:34.723919 11139 net.cpp:91] Creating Layer relu4
I0403 14:48:34.723937 11139 net.cpp:425] relu4 <- conv4
I0403 14:48:34.723959 11139 net.cpp:386] relu4 -> conv4 (in-place)
I0403 14:48:34.724323 11139 net.cpp:141] Setting up relu4
I0403 14:48:34.724354 11139 net.cpp:148] Top shape: 100 384 13 13 (6489600)
I0403 14:48:34.724370 11139 net.cpp:156] Memory required for data: 783398000
I0403 14:48:34.724385 11139 layer_factory.hpp:77] Creating layer conv5
I0403 14:48:34.724411 11139 net.cpp:91] Creating Layer conv5
I0403 14:48:34.724428 11139 net.cpp:425] conv5 <- conv4
I0403 14:48:34.724447 11139 net.cpp:399] conv5 -> conv5
I0403 14:48:34.745491 11139 net.cpp:141] Setting up conv5
I0403 14:48:34.745549 11139 net.cpp:148] Top shape: 100 256 13 13 (4326400)
I0403 14:48:34.745566 11139 net.cpp:156] Memory required for data: 800703600
I0403 14:48:34.745591 11139 layer_factory.hpp:77] Creating layer relu5
I0403 14:48:34.745612 11139 net.cpp:91] Creating Layer relu5
I0403 14:48:34.745630 11139 net.cpp:425] relu5 <- conv5
I0403 14:48:34.745652 11139 net.cpp:386] relu5 -> conv5 (in-place)
I0403 14:48:34.745944 11139 net.cpp:141] Setting up relu5
I0403 14:48:34.745971 11139 net.cpp:148] Top shape: 100 256 13 13 (4326400)
I0403 14:48:34.745987 11139 net.cpp:156] Memory required for data: 818009200
I0403 14:48:34.746003 11139 layer_factory.hpp:77] Creating layer pool5
I0403 14:48:34.746027 11139 net.cpp:91] Creating Layer pool5
I0403 14:48:34.746047 11139 net.cpp:425] pool5 <- conv5
I0403 14:48:34.746065 11139 net.cpp:399] pool5 -> pool5
I0403 14:48:34.746129 11139 net.cpp:141] Setting up pool5
I0403 14:48:34.746152 11139 net.cpp:148] Top shape: 100 256 6 6 (921600)
I0403 14:48:34.746167 11139 net.cpp:156] Memory required for data: 821695600
I0403 14:48:34.746183 11139 layer_factory.hpp:77] Creating layer fc6
I0403 14:48:34.746215 11139 net.cpp:91] Creating Layer fc6
I0403 14:48:34.746233 11139 net.cpp:425] fc6 <- pool5
I0403 14:48:34.746255 11139 net.cpp:399] fc6 -> fc6
I0403 14:48:36.284276 11139 net.cpp:141] Setting up fc6
I0403 14:48:36.284350 11139 net.cpp:148] Top shape: 100 4096 (409600)
I0403 14:48:36.284368 11139 net.cpp:156] Memory required for data: 823334000
I0403 14:48:36.284389 11139 layer_factory.hpp:77] Creating layer relu6
I0403 14:48:36.284415 11139 net.cpp:91] Creating Layer relu6
I0403 14:48:36.284432 11139 net.cpp:425] relu6 <- fc6
I0403 14:48:36.284452 11139 net.cpp:386] relu6 -> fc6 (in-place)
I0403 14:48:36.284677 11139 net.cpp:141] Setting up relu6
I0403 14:48:36.284703 11139 net.cpp:148] Top shape: 100 4096 (409600)
I0403 14:48:36.284718 11139 net.cpp:156] Memory required for data: 824972400
I0403 14:48:36.284734 11139 layer_factory.hpp:77] Creating layer drop6
I0403 14:48:36.284754 11139 net.cpp:91] Creating Layer drop6
I0403 14:48:36.284768 11139 net.cpp:425] drop6 <- fc6
I0403 14:48:36.284787 11139 net.cpp:386] drop6 -> fc6 (in-place)
I0403 14:48:36.284839 11139 net.cpp:141] Setting up drop6
I0403 14:48:36.284867 11139 net.cpp:148] Top shape: 100 4096 (409600)
I0403 14:48:36.284881 11139 net.cpp:156] Memory required for data: 826610800
I0403 14:48:36.284896 11139 layer_factory.hpp:77] Creating layer fc7
I0403 14:48:36.284917 11139 net.cpp:91] Creating Layer fc7
I0403 14:48:36.284932 11139 net.cpp:425] fc7 <- fc6
I0403 14:48:36.284952 11139 net.cpp:399] fc7 -> fc7
I0403 14:48:36.963850 11139 net.cpp:141] Setting up fc7
I0403 14:48:36.963906 11139 net.cpp:148] Top shape: 100 4096 (409600)
I0403 14:48:36.963922 11139 net.cpp:156] Memory required for data: 828249200
I0403 14:48:36.963942 11139 layer_factory.hpp:77] Creating layer relu7
I0403 14:48:36.963963 11139 net.cpp:91] Creating Layer relu7
I0403 14:48:36.963979 11139 net.cpp:425] relu7 <- fc7
I0403 14:48:36.963999 11139 net.cpp:386] relu7 -> fc7 (in-place)
I0403 14:48:36.964393 11139 net.cpp:141] Setting up relu7
I0403 14:48:36.964422 11139 net.cpp:148] Top shape: 100 4096 (409600)
I0403 14:48:36.964473 11139 net.cpp:156] Memory required for data: 829887600
I0403 14:48:36.964488 11139 layer_factory.hpp:77] Creating layer drop7
I0403 14:48:36.964520 11139 net.cpp:91] Creating Layer drop7
I0403 14:48:36.964535 11139 net.cpp:425] drop7 <- fc7
I0403 14:48:36.964555 11139 net.cpp:386] drop7 -> fc7 (in-place)
I0403 14:48:36.964598 11139 net.cpp:141] Setting up drop7
I0403 14:48:36.964622 11139 net.cpp:148] Top shape: 100 4096 (409600)
I0403 14:48:36.964637 11139 net.cpp:156] Memory required for data: 831526000
I0403 14:48:36.964653 11139 layer_factory.hpp:77] Creating layer fc8_plantvillage
I0403 14:48:36.964674 11139 net.cpp:91] Creating Layer fc8_plantvillage
I0403 14:48:36.964692 11139 net.cpp:425] fc8_plantvillage <- fc7
I0403 14:48:36.964711 11139 net.cpp:399] fc8_plantvillage -> fc8_plantvillage
I0403 14:48:36.971349 11139 net.cpp:141] Setting up fc8_plantvillage
I0403 14:48:36.971377 11139 net.cpp:148] Top shape: 100 38 (3800)
I0403 14:48:36.971405 11139 net.cpp:156] Memory required for data: 831541200
I0403 14:48:36.971422 11139 layer_factory.hpp:77] Creating layer fc8_plantvillage_fc8_plantvillage_0_split
I0403 14:48:36.971441 11139 net.cpp:91] Creating Layer fc8_plantvillage_fc8_plantvillage_0_split
I0403 14:48:36.971457 11139 net.cpp:425] fc8_plantvillage_fc8_plantvillage_0_split <- fc8_plantvillage
I0403 14:48:36.971477 11139 net.cpp:399] fc8_plantvillage_fc8_plantvillage_0_split -> fc8_plantvillage_fc8_plantvillage_0_split_0
I0403 14:48:36.971498 11139 net.cpp:399] fc8_plantvillage_fc8_plantvillage_0_split -> fc8_plantvillage_fc8_plantvillage_0_split_1
I0403 14:48:36.971518 11139 net.cpp:399] fc8_plantvillage_fc8_plantvillage_0_split -> fc8_plantvillage_fc8_plantvillage_0_split_2
I0403 14:48:36.971592 11139 net.cpp:141] Setting up fc8_plantvillage_fc8_plantvillage_0_split
I0403 14:48:36.971616 11139 net.cpp:148] Top shape: 100 38 (3800)
I0403 14:48:36.971632 11139 net.cpp:148] Top shape: 100 38 (3800)
I0403 14:48:36.971647 11139 net.cpp:148] Top shape: 100 38 (3800)
I0403 14:48:36.971660 11139 net.cpp:156] Memory required for data: 831586800
I0403 14:48:36.971674 11139 layer_factory.hpp:77] Creating layer prob
I0403 14:48:36.971693 11139 net.cpp:91] Creating Layer prob
I0403 14:48:36.971709 11139 net.cpp:425] prob <- fc8_plantvillage_fc8_plantvillage_0_split_0
I0403 14:48:36.971729 11139 net.cpp:399] prob -> prob
I0403 14:48:36.971946 11139 net.cpp:141] Setting up prob
I0403 14:48:36.971976 11139 net.cpp:148] Top shape: 100 38 (3800)
I0403 14:48:36.971992 11139 net.cpp:156] Memory required for data: 831602000
I0403 14:48:36.972008 11139 layer_factory.hpp:77] Creating layer hdf5out
I0403 14:48:36.972028 11139 net.cpp:91] Creating Layer hdf5out
I0403 14:48:36.972043 11139 net.cpp:425] hdf5out <- prob
I0403 14:48:36.972059 11139 net.cpp:425] hdf5out <- label_data_1_split_0
I0403 14:48:36.974407 11139 net.cpp:141] Setting up hdf5out
…
