…
I0403 14:45:44.026633 11080 net.cpp:313] The NetState phase (1) differed from the phase (0) specified by a rule in layer data
I0403 14:45:44.026937 11080 net.cpp:49] Initializing net from parameters: 
state {
  phase: TEST
}
layer {
  name: "data"
  type: "Data"
  top: "data"
  top: "label"
  include {
    phase: TEST
  }
  transform_param {
    crop_size: 227
    mean_file: "/home/mohanty/data/final_dataset/lmdb/grayscale-50-50/mean.binaryproto"
  }
  data_param {
    source: "/home/mohanty/data/final_dataset/lmdb/grayscale-50-50/test_db"
    batch_size: 100
    backend: LMDB
  }
}
layer {
  name: "conv1"
  type: "Convolution"
  bottom: "data"
  top: "conv1"
  param {
    lr_mult: 1
    decay_mult: 1
  }
  param {
    lr_mult: 2
    decay_mult: 0
  }
  convolution_param {
    num_output: 96
    kernel_size: 11
    stride: 4
    weight_filler {
      type: "gaussian"
      std: 0.01
    }
    bias_filler {
      type: "constant"
      value: 0
    }
  }
}
layer {
  name: "relu1"
  type: "ReLU"
  bottom: "conv1"
  top: "conv1"
}
layer {
  name: "norm1"
  type: "LRN"
  bottom: "conv1"
  top: "norm1"
  lrn_param {
    local_size: 5
    alpha: 0.0001
    beta: 0.75
  }
}
layer {
  name: "pool1"
  type: "Pooling"
  bottom: "norm1"
  top: "pool1"
  pooling_param {
    pool: MAX
    kernel_size: 3
    stride: 2
  }
}
layer {
  name: "conv2"
  type: "Convolution"
  bottom: "pool1"
  top: "conv2"
  param {
    lr_mult: 1
    decay_mult: 1
  }
  param {
    lr_mult: 2
    decay_mult: 0
  }
  convolution_param {
    num_output: 256
    pad: 2
    kernel_size: 5
    group: 2
    weight_filler {
      type: "gaussian"
      std: 0.01
    }
    bias_filler {
      type: "constant"
      value: 0.1
    }
  }
}
layer {
  name: "relu2"
  type: "ReLU"
  bottom: "conv2"
  top: "conv2"
}
layer {
  name: "norm2"
  type: "LRN"
  bottom: "conv2"
  top: "norm2"
  lrn_param {
    local_size: 5
    alpha: 0.0001
    beta: 0.75
  }
}
layer {
  name: "pool2"
  type: "Pooling"
  bottom: "norm2"
  top: "pool2"
  pooling_param {
    pool: MAX
    kernel_size: 3
    stride: 2
  }
}
layer {
  name: "conv3"
  type: "Convolution"
  bottom: "pool2"
  top: "conv3"
  param {
    lr_mult: 1
    decay_mult: 1
  }
  param {
    lr_mult: 2
    decay_mult: 0
  }
  convolution_param {
    num_output: 384
    pad: 1
    kernel_size: 3
    weight_filler {
      type: "gaussian"
      std: 0.01
    }
    bias_filler {
      type: "constant"
      value: 0
    }
  }
}
layer {
  name: "relu3"
  type: "ReLU"
  bottom: "conv3"
  top: "conv3"
}
layer {
  name: "conv4"
  type: "Convolution"
  bottom: "conv3"
  top: "conv4"
  param {
    lr_mult: 1
    decay_mult: 1
  }
  param {
    lr_mult: 2
    decay_mult: 0
  }
  convolution_param {
    num_output: 384
    pad: 1
    kernel_size: 3
    group: 2
    weight_filler {
      type: "gaussian"
      std: 0.01
    }
    bias_filler {
      type: "constant"
      value: 0.1
    }
  }
}
layer {
  name: "relu4"
  type: "ReLU"
  bottom: "conv4"
  top: "conv4"
}
layer {
  name: "conv5"
  type: "Convolution"
  bottom: "conv4"
  top: "conv5"
  param {
    lr_mult: 1
    decay_mult: 1
  }
  param {
    lr_mult: 2
    decay_mult: 0
  }
  convolution_param {
    num_output: 256
    pad: 1
    kernel_size: 3
    group: 2
    weight_filler {
      type: "gaussian"
      std: 0.01
    }
    bias_filler {
      type: "constant"
      value: 0.1
    }
  }
}
layer {
  name: "relu5"
  type: "ReLU"
  bottom: "conv5"
  top: "conv5"
}
layer {
  name: "pool5"
  type: "Pooling"
  bottom: "conv5"
  top: "pool5"
  pooling_param {
    pool: MAX
    kernel_size: 3
    stride: 2
  }
}
layer {
  name: "fc6"
  type: "InnerProduct"
  bottom: "pool5"
  top: "fc6"
  param {
    lr_mult: 1
    decay_mult: 1
  }
  param {
    lr_mult: 2
    decay_mult: 0
  }
  inner_product_param {
    num_output: 4096
    weight_filler {
      type: "gaussian"
      std: 0.005
    }
    bias_filler {
      type: "constant"
      value: 0.1
    }
  }
}
layer {
  name: "relu6"
  type: "ReLU"
  bottom: "fc6"
  top: "fc6"
}
layer {
  name: "drop6"
  type: "Dropout"
  bottom: "fc6"
  top: "fc6"
  dropout_param {
    dropout_ratio: 0.5
  }
}
layer {
  name: "fc7"
  type: "InnerProduct"
  bottom: "fc6"
  top: "fc7"
  param {
    lr_mult: 1
    decay_mult: 1
  }
  param {
    lr_mult: 2
    decay_mult: 0
  }
  inner_product_param {
    num_output: 4096
    weight_filler {
      type: "gaussian"
      std: 0.005
    }
    bias_filler {
      type: "constant"
      value: 0.1
    }
  }
}
layer {
  name: "relu7"
  type: "ReLU"
  bottom: "fc7"
  top: "fc7"
}
layer {
  name: "drop7"
  type: "Dropout"
  bottom: "fc7"
  top: "fc7"
  dropout_param {
    dropout_ratio: 0.5
  }
}
layer {
  name: "fc8_plantvillage"
  type: "InnerProduct"
  bottom: "fc7"
  top: "fc8_plantvillage"
  param {
    lr_mult: 1
    decay_mult: 1
  }
  param {
    lr_mult: 2
    decay_mult: 0
  }
  inner_product_param {
    num_output: 38
    weight_filler {
      type: "gaussian"
      std: 0.01
    }
    bias_filler {
      type: "constant"
      value: 0
    }
  }
}
layer {
  name: "prob"
  type: "Softmax"
  bottom: "fc8_plantvillage"
  top: "prob"
  include {
    phase: TEST
  }
}
layer {
  name: "hdf5out"
  type: "HDF5Output"
  bottom: "prob"
  bottom: "label"
  include {
    phase: TEST
  }
  hdf5_output_param {
    file_name: "hdf5_dumps/iter_3204.h5"
  }
}
layer {
  name: "loss"
  type: "SoftmaxWithLoss"
  bottom: "fc8_plantvillage"
  bottom: "label"
  top: "loss"
}
layer {
  name: "accuracy"
  type: "Accuracy"
  bottom: "fc8_plantvillage"
  bottom: "label"
  top: "accuracy"
  include {
    phase: TEST
  }
}
I0403 14:45:44.027472 11080 layer_factory.hpp:77] Creating layer data
I0403 14:45:44.028136 11080 net.cpp:91] Creating Layer data
I0403 14:45:44.028175 11080 net.cpp:399] data -> data
I0403 14:45:44.028228 11080 net.cpp:399] data -> label
I0403 14:45:44.028266 11080 data_transformer.cpp:25] Loading mean file from: /home/mohanty/data/final_dataset/lmdb/grayscale-50-50/mean.binaryproto
I0403 14:45:44.031671 11083 db_lmdb.cpp:38] Opened lmdb /home/mohanty/data/final_dataset/lmdb/grayscale-50-50/test_db
I0403 14:45:44.042600 11080 data_layer.cpp:41] output data size: 100,3,227,227
I0403 14:45:44.161638 11080 net.cpp:141] Setting up data
I0403 14:45:44.161703 11080 net.cpp:148] Top shape: 100 3 227 227 (15458700)
I0403 14:45:44.161728 11080 net.cpp:148] Top shape: 100 (100)
I0403 14:45:44.161753 11080 net.cpp:156] Memory required for data: 61835200
I0403 14:45:44.161780 11080 layer_factory.hpp:77] Creating layer label_data_1_split
I0403 14:45:44.161806 11080 net.cpp:91] Creating Layer label_data_1_split
I0403 14:45:44.161825 11080 net.cpp:425] label_data_1_split <- label
I0403 14:45:44.161856 11080 net.cpp:399] label_data_1_split -> label_data_1_split_0
I0403 14:45:44.161882 11080 net.cpp:399] label_data_1_split -> label_data_1_split_1
I0403 14:45:44.161903 11080 net.cpp:399] label_data_1_split -> label_data_1_split_2
I0403 14:45:44.161967 11080 net.cpp:141] Setting up label_data_1_split
I0403 14:45:44.161993 11080 net.cpp:148] Top shape: 100 (100)
I0403 14:45:44.162010 11080 net.cpp:148] Top shape: 100 (100)
I0403 14:45:44.162026 11080 net.cpp:148] Top shape: 100 (100)
I0403 14:45:44.162041 11080 net.cpp:156] Memory required for data: 61836400
I0403 14:45:44.162055 11080 layer_factory.hpp:77] Creating layer conv1
I0403 14:45:44.162087 11080 net.cpp:91] Creating Layer conv1
I0403 14:45:44.162107 11080 net.cpp:425] conv1 <- data
I0403 14:45:44.162127 11080 net.cpp:399] conv1 -> conv1
I0403 14:45:44.303210 11080 net.cpp:141] Setting up conv1
I0403 14:45:44.303300 11080 net.cpp:148] Top shape: 100 96 55 55 (29040000)
I0403 14:45:44.303320 11080 net.cpp:156] Memory required for data: 177996400
I0403 14:45:44.303352 11080 layer_factory.hpp:77] Creating layer relu1
I0403 14:45:44.303381 11080 net.cpp:91] Creating Layer relu1
I0403 14:45:44.303400 11080 net.cpp:425] relu1 <- conv1
I0403 14:45:44.303422 11080 net.cpp:386] relu1 -> conv1 (in-place)
I0403 14:45:44.303702 11080 net.cpp:141] Setting up relu1
I0403 14:45:44.303732 11080 net.cpp:148] Top shape: 100 96 55 55 (29040000)
I0403 14:45:44.303782 11080 net.cpp:156] Memory required for data: 294156400
I0403 14:45:44.303812 11080 layer_factory.hpp:77] Creating layer norm1
I0403 14:45:44.303843 11080 net.cpp:91] Creating Layer norm1
I0403 14:45:44.303861 11080 net.cpp:425] norm1 <- conv1
I0403 14:45:44.303880 11080 net.cpp:399] norm1 -> norm1
I0403 14:45:44.304286 11080 net.cpp:141] Setting up norm1
I0403 14:45:44.304317 11080 net.cpp:148] Top shape: 100 96 55 55 (29040000)
I0403 14:45:44.304333 11080 net.cpp:156] Memory required for data: 410316400
I0403 14:45:44.304348 11080 layer_factory.hpp:77] Creating layer pool1
I0403 14:45:44.304373 11080 net.cpp:91] Creating Layer pool1
I0403 14:45:44.304393 11080 net.cpp:425] pool1 <- norm1
I0403 14:45:44.304411 11080 net.cpp:399] pool1 -> pool1
I0403 14:45:44.304497 11080 net.cpp:141] Setting up pool1
I0403 14:45:44.304522 11080 net.cpp:148] Top shape: 100 96 27 27 (6998400)
I0403 14:45:44.304538 11080 net.cpp:156] Memory required for data: 438310000
I0403 14:45:44.304553 11080 layer_factory.hpp:77] Creating layer conv2
I0403 14:45:44.304579 11080 net.cpp:91] Creating Layer conv2
I0403 14:45:44.304596 11080 net.cpp:425] conv2 <- pool1
I0403 14:45:44.304617 11080 net.cpp:399] conv2 -> conv2
I0403 14:45:44.321270 11080 net.cpp:141] Setting up conv2
I0403 14:45:44.321331 11080 net.cpp:148] Top shape: 100 256 27 27 (18662400)
I0403 14:45:44.321347 11080 net.cpp:156] Memory required for data: 512959600
I0403 14:45:44.321372 11080 layer_factory.hpp:77] Creating layer relu2
I0403 14:45:44.321393 11080 net.cpp:91] Creating Layer relu2
I0403 14:45:44.321410 11080 net.cpp:425] relu2 <- conv2
I0403 14:45:44.321429 11080 net.cpp:386] relu2 -> conv2 (in-place)
I0403 14:45:44.321738 11080 net.cpp:141] Setting up relu2
I0403 14:45:44.321766 11080 net.cpp:148] Top shape: 100 256 27 27 (18662400)
I0403 14:45:44.321782 11080 net.cpp:156] Memory required for data: 587609200
I0403 14:45:44.321797 11080 layer_factory.hpp:77] Creating layer norm2
I0403 14:45:44.321822 11080 net.cpp:91] Creating Layer norm2
I0403 14:45:44.321841 11080 net.cpp:425] norm2 <- conv2
I0403 14:45:44.321861 11080 net.cpp:399] norm2 -> norm2
I0403 14:45:44.322059 11080 net.cpp:141] Setting up norm2
I0403 14:45:44.322087 11080 net.cpp:148] Top shape: 100 256 27 27 (18662400)
I0403 14:45:44.322103 11080 net.cpp:156] Memory required for data: 662258800
I0403 14:45:44.322118 11080 layer_factory.hpp:77] Creating layer pool2
I0403 14:45:44.322136 11080 net.cpp:91] Creating Layer pool2
I0403 14:45:44.322152 11080 net.cpp:425] pool2 <- norm2
I0403 14:45:44.322185 11080 net.cpp:399] pool2 -> pool2
I0403 14:45:44.322242 11080 net.cpp:141] Setting up pool2
I0403 14:45:44.322265 11080 net.cpp:148] Top shape: 100 256 13 13 (4326400)
I0403 14:45:44.322281 11080 net.cpp:156] Memory required for data: 679564400
I0403 14:45:44.322296 11080 layer_factory.hpp:77] Creating layer conv3
I0403 14:45:44.322322 11080 net.cpp:91] Creating Layer conv3
I0403 14:45:44.322340 11080 net.cpp:425] conv3 <- pool2
I0403 14:45:44.322358 11080 net.cpp:399] conv3 -> conv3
I0403 14:45:44.364573 11080 net.cpp:141] Setting up conv3
I0403 14:45:44.364622 11080 net.cpp:148] Top shape: 100 384 13 13 (6489600)
I0403 14:45:44.364639 11080 net.cpp:156] Memory required for data: 705522800
I0403 14:45:44.364665 11080 layer_factory.hpp:77] Creating layer relu3
I0403 14:45:44.364689 11080 net.cpp:91] Creating Layer relu3
I0403 14:45:44.364707 11080 net.cpp:425] relu3 <- conv3
I0403 14:45:44.364727 11080 net.cpp:386] relu3 -> conv3 (in-place)
I0403 14:45:44.364997 11080 net.cpp:141] Setting up relu3
I0403 14:45:44.365025 11080 net.cpp:148] Top shape: 100 384 13 13 (6489600)
I0403 14:45:44.365041 11080 net.cpp:156] Memory required for data: 731481200
I0403 14:45:44.365054 11080 layer_factory.hpp:77] Creating layer conv4
I0403 14:45:44.365080 11080 net.cpp:91] Creating Layer conv4
I0403 14:45:44.365098 11080 net.cpp:425] conv4 <- conv3
I0403 14:45:44.365119 11080 net.cpp:399] conv4 -> conv4
I0403 14:45:44.397572 11080 net.cpp:141] Setting up conv4
I0403 14:45:44.397626 11080 net.cpp:148] Top shape: 100 384 13 13 (6489600)
I0403 14:45:44.397676 11080 net.cpp:156] Memory required for data: 757439600
I0403 14:45:44.397698 11080 layer_factory.hpp:77] Creating layer relu4
I0403 14:45:44.397722 11080 net.cpp:91] Creating Layer relu4
I0403 14:45:44.397739 11080 net.cpp:425] relu4 <- conv4
I0403 14:45:44.397760 11080 net.cpp:386] relu4 -> conv4 (in-place)
I0403 14:45:44.398087 11080 net.cpp:141] Setting up relu4
I0403 14:45:44.398115 11080 net.cpp:148] Top shape: 100 384 13 13 (6489600)
I0403 14:45:44.398133 11080 net.cpp:156] Memory required for data: 783398000
I0403 14:45:44.398149 11080 layer_factory.hpp:77] Creating layer conv5
I0403 14:45:44.398177 11080 net.cpp:91] Creating Layer conv5
I0403 14:45:44.398196 11080 net.cpp:425] conv5 <- conv4
I0403 14:45:44.398217 11080 net.cpp:399] conv5 -> conv5
I0403 14:45:44.421025 11080 net.cpp:141] Setting up conv5
I0403 14:45:44.421092 11080 net.cpp:148] Top shape: 100 256 13 13 (4326400)
I0403 14:45:44.421111 11080 net.cpp:156] Memory required for data: 800703600
I0403 14:45:44.421136 11080 layer_factory.hpp:77] Creating layer relu5
I0403 14:45:44.421161 11080 net.cpp:91] Creating Layer relu5
I0403 14:45:44.421180 11080 net.cpp:425] relu5 <- conv5
I0403 14:45:44.421200 11080 net.cpp:386] relu5 -> conv5 (in-place)
I0403 14:45:44.421483 11080 net.cpp:141] Setting up relu5
I0403 14:45:44.421511 11080 net.cpp:148] Top shape: 100 256 13 13 (4326400)
I0403 14:45:44.421526 11080 net.cpp:156] Memory required for data: 818009200
I0403 14:45:44.421542 11080 layer_factory.hpp:77] Creating layer pool5
I0403 14:45:44.421566 11080 net.cpp:91] Creating Layer pool5
I0403 14:45:44.421584 11080 net.cpp:425] pool5 <- conv5
I0403 14:45:44.421602 11080 net.cpp:399] pool5 -> pool5
I0403 14:45:44.421665 11080 net.cpp:141] Setting up pool5
I0403 14:45:44.421690 11080 net.cpp:148] Top shape: 100 256 6 6 (921600)
I0403 14:45:44.421706 11080 net.cpp:156] Memory required for data: 821695600
I0403 14:45:44.421721 11080 layer_factory.hpp:77] Creating layer fc6
I0403 14:45:44.421751 11080 net.cpp:91] Creating Layer fc6
I0403 14:45:44.421769 11080 net.cpp:425] fc6 <- pool5
I0403 14:45:44.421787 11080 net.cpp:399] fc6 -> fc6
I0403 14:45:45.985365 11080 net.cpp:141] Setting up fc6
I0403 14:45:45.985411 11080 net.cpp:148] Top shape: 100 4096 (409600)
I0403 14:45:45.985429 11080 net.cpp:156] Memory required for data: 823334000
I0403 14:45:45.985450 11080 layer_factory.hpp:77] Creating layer relu6
I0403 14:45:45.985473 11080 net.cpp:91] Creating Layer relu6
I0403 14:45:45.985491 11080 net.cpp:425] relu6 <- fc6
I0403 14:45:45.985515 11080 net.cpp:386] relu6 -> fc6 (in-place)
I0403 14:45:45.985743 11080 net.cpp:141] Setting up relu6
I0403 14:45:45.985769 11080 net.cpp:148] Top shape: 100 4096 (409600)
I0403 14:45:45.985785 11080 net.cpp:156] Memory required for data: 824972400
I0403 14:45:45.985801 11080 layer_factory.hpp:77] Creating layer drop6
I0403 14:45:45.985821 11080 net.cpp:91] Creating Layer drop6
I0403 14:45:45.985837 11080 net.cpp:425] drop6 <- fc6
I0403 14:45:45.985857 11080 net.cpp:386] drop6 -> fc6 (in-place)
I0403 14:45:45.985913 11080 net.cpp:141] Setting up drop6
I0403 14:45:45.985939 11080 net.cpp:148] Top shape: 100 4096 (409600)
I0403 14:45:45.985954 11080 net.cpp:156] Memory required for data: 826610800
I0403 14:45:45.985970 11080 layer_factory.hpp:77] Creating layer fc7
I0403 14:45:45.985991 11080 net.cpp:91] Creating Layer fc7
I0403 14:45:45.986007 11080 net.cpp:425] fc7 <- fc6
I0403 14:45:45.986032 11080 net.cpp:399] fc7 -> fc7
I0403 14:45:46.691505 11080 net.cpp:141] Setting up fc7
I0403 14:45:46.691545 11080 net.cpp:148] Top shape: 100 4096 (409600)
I0403 14:45:46.691562 11080 net.cpp:156] Memory required for data: 828249200
I0403 14:45:46.691582 11080 layer_factory.hpp:77] Creating layer relu7
I0403 14:45:46.691606 11080 net.cpp:91] Creating Layer relu7
I0403 14:45:46.691623 11080 net.cpp:425] relu7 <- fc7
I0403 14:45:46.691642 11080 net.cpp:386] relu7 -> fc7 (in-place)
I0403 14:45:46.692028 11080 net.cpp:141] Setting up relu7
I0403 14:45:46.692054 11080 net.cpp:148] Top shape: 100 4096 (409600)
I0403 14:45:46.692101 11080 net.cpp:156] Memory required for data: 829887600
I0403 14:45:46.692117 11080 layer_factory.hpp:77] Creating layer drop7
I0403 14:45:46.692137 11080 net.cpp:91] Creating Layer drop7
I0403 14:45:46.692152 11080 net.cpp:425] drop7 <- fc7
I0403 14:45:46.692183 11080 net.cpp:386] drop7 -> fc7 (in-place)
I0403 14:45:46.692227 11080 net.cpp:141] Setting up drop7
I0403 14:45:46.692253 11080 net.cpp:148] Top shape: 100 4096 (409600)
I0403 14:45:46.692268 11080 net.cpp:156] Memory required for data: 831526000
I0403 14:45:46.692283 11080 layer_factory.hpp:77] Creating layer fc8_plantvillage
I0403 14:45:46.692302 11080 net.cpp:91] Creating Layer fc8_plantvillage
I0403 14:45:46.692318 11080 net.cpp:425] fc8_plantvillage <- fc7
I0403 14:45:46.692337 11080 net.cpp:399] fc8_plantvillage -> fc8_plantvillage
I0403 14:45:46.698911 11080 net.cpp:141] Setting up fc8_plantvillage
I0403 14:45:46.698940 11080 net.cpp:148] Top shape: 100 38 (3800)
I0403 14:45:46.698954 11080 net.cpp:156] Memory required for data: 831541200
I0403 14:45:46.698972 11080 layer_factory.hpp:77] Creating layer fc8_plantvillage_fc8_plantvillage_0_split
I0403 14:45:46.698994 11080 net.cpp:91] Creating Layer fc8_plantvillage_fc8_plantvillage_0_split
I0403 14:45:46.699012 11080 net.cpp:425] fc8_plantvillage_fc8_plantvillage_0_split <- fc8_plantvillage
I0403 14:45:46.699028 11080 net.cpp:399] fc8_plantvillage_fc8_plantvillage_0_split -> fc8_plantvillage_fc8_plantvillage_0_split_0
I0403 14:45:46.699048 11080 net.cpp:399] fc8_plantvillage_fc8_plantvillage_0_split -> fc8_plantvillage_fc8_plantvillage_0_split_1
I0403 14:45:46.699066 11080 net.cpp:399] fc8_plantvillage_fc8_plantvillage_0_split -> fc8_plantvillage_fc8_plantvillage_0_split_2
I0403 14:45:46.699156 11080 net.cpp:141] Setting up fc8_plantvillage_fc8_plantvillage_0_split
I0403 14:45:46.699183 11080 net.cpp:148] Top shape: 100 38 (3800)
I0403 14:45:46.699199 11080 net.cpp:148] Top shape: 100 38 (3800)
I0403 14:45:46.699214 11080 net.cpp:148] Top shape: 100 38 (3800)
I0403 14:45:46.699228 11080 net.cpp:156] Memory required for data: 831586800
I0403 14:45:46.699242 11080 layer_factory.hpp:77] Creating layer prob
I0403 14:45:46.699260 11080 net.cpp:91] Creating Layer prob
I0403 14:45:46.699276 11080 net.cpp:425] prob <- fc8_plantvillage_fc8_plantvillage_0_split_0
I0403 14:45:46.699297 11080 net.cpp:399] prob -> prob
I0403 14:45:46.699532 11080 net.cpp:141] Setting up prob
I0403 14:45:46.699558 11080 net.cpp:148] Top shape: 100 38 (3800)
I0403 14:45:46.699571 11080 net.cpp:156] Memory required for data: 831602000
I0403 14:45:46.699586 11080 layer_factory.hpp:77] Creating layer hdf5out
I0403 14:45:46.699605 11080 net.cpp:91] Creating Layer hdf5out
I0403 14:45:46.699625 11080 net.cpp:425] hdf5out <- prob
I0403 14:45:46.699640 11080 net.cpp:425] hdf5out <- label_data_1_split_0
I0403 14:45:46.701838 11080 net.cpp:141] Setting up hdf5out
…
