…
I0403 14:55:12.036444 11297 net.cpp:313] The NetState phase (1) differed from the phase (0) specified by a rule in layer data
I0403 14:55:12.037174 11297 net.cpp:49] Initializing net from parameters: 
state {
  phase: TEST
}
layer {
  name: "data"
  type: "Data"
  top: "data"
  top: "label"
  include {
    phase: TEST
  }
  transform_param {
    crop_size: 227
    mean_file: "/home/mohanty/data/final_dataset/lmdb/grayscale-50-50/mean.binaryproto"
  }
  data_param {
    source: "/home/mohanty/data/final_dataset/lmdb/grayscale-50-50/test_db"
    batch_size: 100
    backend: LMDB
  }
}
layer {
  name: "conv1"
  type: "Convolution"
  bottom: "data"
  top: "conv1"
  param {
    lr_mult: 1
    decay_mult: 1
  }
  param {
    lr_mult: 2
    decay_mult: 0
  }
  convolution_param {
    num_output: 96
    kernel_size: 11
    stride: 4
    weight_filler {
      type: "gaussian"
      std: 0.01
    }
    bias_filler {
      type: "constant"
      value: 0
    }
  }
}
layer {
  name: "relu1"
  type: "ReLU"
  bottom: "conv1"
  top: "conv1"
}
layer {
  name: "norm1"
  type: "LRN"
  bottom: "conv1"
  top: "norm1"
  lrn_param {
    local_size: 5
    alpha: 0.0001
    beta: 0.75
  }
}
layer {
  name: "pool1"
  type: "Pooling"
  bottom: "norm1"
  top: "pool1"
  pooling_param {
    pool: MAX
    kernel_size: 3
    stride: 2
  }
}
layer {
  name: "conv2"
  type: "Convolution"
  bottom: "pool1"
  top: "conv2"
  param {
    lr_mult: 1
    decay_mult: 1
  }
  param {
    lr_mult: 2
    decay_mult: 0
  }
  convolution_param {
    num_output: 256
    pad: 2
    kernel_size: 5
    group: 2
    weight_filler {
      type: "gaussian"
      std: 0.01
    }
    bias_filler {
      type: "constant"
      value: 0.1
    }
  }
}
layer {
  name: "relu2"
  type: "ReLU"
  bottom: "conv2"
  top: "conv2"
}
layer {
  name: "norm2"
  type: "LRN"
  bottom: "conv2"
  top: "norm2"
  lrn_param {
    local_size: 5
    alpha: 0.0001
    beta: 0.75
  }
}
layer {
  name: "pool2"
  type: "Pooling"
  bottom: "norm2"
  top: "pool2"
  pooling_param {
    pool: MAX
    kernel_size: 3
    stride: 2
  }
}
layer {
  name: "conv3"
  type: "Convolution"
  bottom: "pool2"
  top: "conv3"
  param {
    lr_mult: 1
    decay_mult: 1
  }
  param {
    lr_mult: 2
    decay_mult: 0
  }
  convolution_param {
    num_output: 384
    pad: 1
    kernel_size: 3
    weight_filler {
      type: "gaussian"
      std: 0.01
    }
    bias_filler {
      type: "constant"
      value: 0
    }
  }
}
layer {
  name: "relu3"
  type: "ReLU"
  bottom: "conv3"
  top: "conv3"
}
layer {
  name: "conv4"
  type: "Convolution"
  bottom: "conv3"
  top: "conv4"
  param {
    lr_mult: 1
    decay_mult: 1
  }
  param {
    lr_mult: 2
    decay_mult: 0
  }
  convolution_param {
    num_output: 384
    pad: 1
    kernel_size: 3
    group: 2
    weight_filler {
      type: "gaussian"
      std: 0.01
    }
    bias_filler {
      type: "constant"
      value: 0.1
    }
  }
}
layer {
  name: "relu4"
  type: "ReLU"
  bottom: "conv4"
  top: "conv4"
}
layer {
  name: "conv5"
  type: "Convolution"
  bottom: "conv4"
  top: "conv5"
  param {
    lr_mult: 1
    decay_mult: 1
  }
  param {
    lr_mult: 2
    decay_mult: 0
  }
  convolution_param {
    num_output: 256
    pad: 1
    kernel_size: 3
    group: 2
    weight_filler {
      type: "gaussian"
      std: 0.01
    }
    bias_filler {
      type: "constant"
      value: 0.1
    }
  }
}
layer {
  name: "relu5"
  type: "ReLU"
  bottom: "conv5"
  top: "conv5"
}
layer {
  name: "pool5"
  type: "Pooling"
  bottom: "conv5"
  top: "pool5"
  pooling_param {
    pool: MAX
    kernel_size: 3
    stride: 2
  }
}
layer {
  name: "fc6"
  type: "InnerProduct"
  bottom: "pool5"
  top: "fc6"
  param {
    lr_mult: 1
    decay_mult: 1
  }
  param {
    lr_mult: 2
    decay_mult: 0
  }
  inner_product_param {
    num_output: 4096
    weight_filler {
      type: "gaussian"
      std: 0.005
    }
    bias_filler {
      type: "constant"
      value: 0.1
    }
  }
}
layer {
  name: "relu6"
  type: "ReLU"
  bottom: "fc6"
  top: "fc6"
}
layer {
  name: "drop6"
  type: "Dropout"
  bottom: "fc6"
  top: "fc6"
  dropout_param {
    dropout_ratio: 0.5
  }
}
layer {
  name: "fc7"
  type: "InnerProduct"
  bottom: "fc6"
  top: "fc7"
  param {
    lr_mult: 1
    decay_mult: 1
  }
  param {
    lr_mult: 2
    decay_mult: 0
  }
  inner_product_param {
    num_output: 4096
    weight_filler {
      type: "gaussian"
      std: 0.005
    }
    bias_filler {
      type: "constant"
      value: 0.1
    }
  }
}
layer {
  name: "relu7"
  type: "ReLU"
  bottom: "fc7"
  top: "fc7"
}
layer {
  name: "drop7"
  type: "Dropout"
  bottom: "fc7"
  top: "fc7"
  dropout_param {
    dropout_ratio: 0.5
  }
}
layer {
  name: "fc8_plantvillage"
  type: "InnerProduct"
  bottom: "fc7"
  top: "fc8_plantvillage"
  param {
    lr_mult: 1
    decay_mult: 1
  }
  param {
    lr_mult: 2
    decay_mult: 0
  }
  inner_product_param {
    num_output: 38
    weight_filler {
      type: "gaussian"
      std: 0.01
    }
    bias_filler {
      type: "constant"
      value: 0
    }
  }
}
layer {
  name: "prob"
  type: "Softmax"
  bottom: "fc8_plantvillage"
  top: "prob"
  include {
    phase: TEST
  }
}
layer {
  name: "hdf5out"
  type: "HDF5Output"
  bottom: "prob"
  bottom: "label"
  include {
    phase: TEST
  }
  hdf5_output_param {
    file_name: "hdf5_dumps/iter_5874.h5"
  }
}
layer {
  name: "loss"
  type: "SoftmaxWithLoss"
  bottom: "fc8_plantvillage"
  bottom: "label"
  top: "loss"
}
layer {
  name: "accuracy"
  type: "Accuracy"
  bottom: "fc8_plantvillage"
  bottom: "label"
  top: "accuracy"
  include {
    phase: TEST
  }
}
I0403 14:55:12.038139 11297 layer_factory.hpp:77] Creating layer data
I0403 14:55:12.039763 11297 net.cpp:91] Creating Layer data
I0403 14:55:12.039845 11297 net.cpp:399] data -> data
I0403 14:55:12.039963 11297 net.cpp:399] data -> label
I0403 14:55:12.040050 11297 data_transformer.cpp:25] Loading mean file from: /home/mohanty/data/final_dataset/lmdb/grayscale-50-50/mean.binaryproto
I0403 14:55:12.044275 11301 db_lmdb.cpp:38] Opened lmdb /home/mohanty/data/final_dataset/lmdb/grayscale-50-50/test_db
I0403 14:55:12.058485 11297 data_layer.cpp:41] output data size: 100,3,227,227
I0403 14:55:14.234694 11297 net.cpp:141] Setting up data
I0403 14:55:14.234843 11297 net.cpp:148] Top shape: 100 3 227 227 (15458700)
I0403 14:55:14.234948 11297 net.cpp:148] Top shape: 100 (100)
I0403 14:55:14.234973 11297 net.cpp:156] Memory required for data: 61835200
I0403 14:55:14.235013 11297 layer_factory.hpp:77] Creating layer label_data_1_split
I0403 14:55:14.235045 11297 net.cpp:91] Creating Layer label_data_1_split
I0403 14:55:14.235066 11297 net.cpp:425] label_data_1_split <- label
I0403 14:55:14.235105 11297 net.cpp:399] label_data_1_split -> label_data_1_split_0
I0403 14:55:14.235139 11297 net.cpp:399] label_data_1_split -> label_data_1_split_1
I0403 14:55:14.235163 11297 net.cpp:399] label_data_1_split -> label_data_1_split_2
I0403 14:55:14.235275 11297 net.cpp:141] Setting up label_data_1_split
I0403 14:55:14.235306 11297 net.cpp:148] Top shape: 100 (100)
I0403 14:55:14.235327 11297 net.cpp:148] Top shape: 100 (100)
I0403 14:55:14.235345 11297 net.cpp:148] Top shape: 100 (100)
I0403 14:55:14.235362 11297 net.cpp:156] Memory required for data: 61836400
I0403 14:55:14.235379 11297 layer_factory.hpp:77] Creating layer conv1
I0403 14:55:14.235421 11297 net.cpp:91] Creating Layer conv1
I0403 14:55:14.235443 11297 net.cpp:425] conv1 <- data
I0403 14:55:14.235466 11297 net.cpp:399] conv1 -> conv1
I0403 14:55:14.431908 11297 net.cpp:141] Setting up conv1
I0403 14:55:14.431977 11297 net.cpp:148] Top shape: 100 96 55 55 (29040000)
I0403 14:55:14.431998 11297 net.cpp:156] Memory required for data: 177996400
I0403 14:55:14.432036 11297 layer_factory.hpp:77] Creating layer relu1
I0403 14:55:14.432070 11297 net.cpp:91] Creating Layer relu1
I0403 14:55:14.432092 11297 net.cpp:425] relu1 <- conv1
I0403 14:55:14.432116 11297 net.cpp:386] relu1 -> conv1 (in-place)
I0403 14:55:14.432417 11297 net.cpp:141] Setting up relu1
I0403 14:55:14.432451 11297 net.cpp:148] Top shape: 100 96 55 55 (29040000)
I0403 14:55:14.432505 11297 net.cpp:156] Memory required for data: 294156400
I0403 14:55:14.432526 11297 layer_factory.hpp:77] Creating layer norm1
I0403 14:55:14.432559 11297 net.cpp:91] Creating Layer norm1
I0403 14:55:14.432581 11297 net.cpp:425] norm1 <- conv1
I0403 14:55:14.432603 11297 net.cpp:399] norm1 -> norm1
I0403 14:55:14.432953 11297 net.cpp:141] Setting up norm1
I0403 14:55:14.432988 11297 net.cpp:148] Top shape: 100 96 55 55 (29040000)
I0403 14:55:14.433007 11297 net.cpp:156] Memory required for data: 410316400
I0403 14:55:14.433025 11297 layer_factory.hpp:77] Creating layer pool1
I0403 14:55:14.433053 11297 net.cpp:91] Creating Layer pool1
I0403 14:55:14.433073 11297 net.cpp:425] pool1 <- norm1
I0403 14:55:14.433094 11297 net.cpp:399] pool1 -> pool1
I0403 14:55:14.433171 11297 net.cpp:141] Setting up pool1
I0403 14:55:14.433215 11297 net.cpp:148] Top shape: 100 96 27 27 (6998400)
I0403 14:55:14.433264 11297 net.cpp:156] Memory required for data: 438310000
I0403 14:55:14.433290 11297 layer_factory.hpp:77] Creating layer conv2
I0403 14:55:14.433320 11297 net.cpp:91] Creating Layer conv2
I0403 14:55:14.433341 11297 net.cpp:425] conv2 <- pool1
I0403 14:55:14.433362 11297 net.cpp:399] conv2 -> conv2
I0403 14:55:14.451431 11297 net.cpp:141] Setting up conv2
I0403 14:55:14.451503 11297 net.cpp:148] Top shape: 100 256 27 27 (18662400)
I0403 14:55:14.451524 11297 net.cpp:156] Memory required for data: 512959600
I0403 14:55:14.451558 11297 layer_factory.hpp:77] Creating layer relu2
I0403 14:55:14.451586 11297 net.cpp:91] Creating Layer relu2
I0403 14:55:14.451606 11297 net.cpp:425] relu2 <- conv2
I0403 14:55:14.451630 11297 net.cpp:386] relu2 -> conv2 (in-place)
I0403 14:55:14.451956 11297 net.cpp:141] Setting up relu2
I0403 14:55:14.451993 11297 net.cpp:148] Top shape: 100 256 27 27 (18662400)
I0403 14:55:14.452013 11297 net.cpp:156] Memory required for data: 587609200
I0403 14:55:14.452031 11297 layer_factory.hpp:77] Creating layer norm2
I0403 14:55:14.452065 11297 net.cpp:91] Creating Layer norm2
I0403 14:55:14.452086 11297 net.cpp:425] norm2 <- conv2
I0403 14:55:14.452108 11297 net.cpp:399] norm2 -> norm2
I0403 14:55:14.452347 11297 net.cpp:141] Setting up norm2
I0403 14:55:14.452380 11297 net.cpp:148] Top shape: 100 256 27 27 (18662400)
I0403 14:55:14.452400 11297 net.cpp:156] Memory required for data: 662258800
I0403 14:55:14.452419 11297 layer_factory.hpp:77] Creating layer pool2
I0403 14:55:14.452440 11297 net.cpp:91] Creating Layer pool2
I0403 14:55:14.452460 11297 net.cpp:425] pool2 <- norm2
I0403 14:55:14.452483 11297 net.cpp:399] pool2 -> pool2
I0403 14:55:14.452546 11297 net.cpp:141] Setting up pool2
I0403 14:55:14.452575 11297 net.cpp:148] Top shape: 100 256 13 13 (4326400)
I0403 14:55:14.452592 11297 net.cpp:156] Memory required for data: 679564400
I0403 14:55:14.452610 11297 layer_factory.hpp:77] Creating layer conv3
I0403 14:55:14.452641 11297 net.cpp:91] Creating Layer conv3
I0403 14:55:14.452661 11297 net.cpp:425] conv3 <- pool2
I0403 14:55:14.452685 11297 net.cpp:399] conv3 -> conv3
I0403 14:55:14.499043 11297 net.cpp:141] Setting up conv3
I0403 14:55:14.499128 11297 net.cpp:148] Top shape: 100 384 13 13 (6489600)
I0403 14:55:14.499150 11297 net.cpp:156] Memory required for data: 705522800
I0403 14:55:14.499179 11297 layer_factory.hpp:77] Creating layer relu3
I0403 14:55:14.499212 11297 net.cpp:91] Creating Layer relu3
I0403 14:55:14.499233 11297 net.cpp:425] relu3 <- conv3
I0403 14:55:14.499256 11297 net.cpp:386] relu3 -> conv3 (in-place)
I0403 14:55:14.499577 11297 net.cpp:141] Setting up relu3
I0403 14:55:14.499613 11297 net.cpp:148] Top shape: 100 384 13 13 (6489600)
I0403 14:55:14.499632 11297 net.cpp:156] Memory required for data: 731481200
I0403 14:55:14.499651 11297 layer_factory.hpp:77] Creating layer conv4
I0403 14:55:14.499682 11297 net.cpp:91] Creating Layer conv4
I0403 14:55:14.499706 11297 net.cpp:425] conv4 <- conv3
I0403 14:55:14.499778 11297 net.cpp:399] conv4 -> conv4
I0403 14:55:14.536100 11297 net.cpp:141] Setting up conv4
I0403 14:55:14.536196 11297 net.cpp:148] Top shape: 100 384 13 13 (6489600)
I0403 14:55:14.536253 11297 net.cpp:156] Memory required for data: 757439600
I0403 14:55:14.536280 11297 layer_factory.hpp:77] Creating layer relu4
I0403 14:55:14.536311 11297 net.cpp:91] Creating Layer relu4
I0403 14:55:14.536334 11297 net.cpp:425] relu4 <- conv4
I0403 14:55:14.536356 11297 net.cpp:386] relu4 -> conv4 (in-place)
I0403 14:55:14.536695 11297 net.cpp:141] Setting up relu4
I0403 14:55:14.536727 11297 net.cpp:148] Top shape: 100 384 13 13 (6489600)
I0403 14:55:14.536744 11297 net.cpp:156] Memory required for data: 783398000
I0403 14:55:14.536763 11297 layer_factory.hpp:77] Creating layer conv5
I0403 14:55:14.536795 11297 net.cpp:91] Creating Layer conv5
I0403 14:55:14.536815 11297 net.cpp:425] conv5 <- conv4
I0403 14:55:14.536842 11297 net.cpp:399] conv5 -> conv5
I0403 14:55:14.561545 11297 net.cpp:141] Setting up conv5
I0403 14:55:14.561636 11297 net.cpp:148] Top shape: 100 256 13 13 (4326400)
I0403 14:55:14.561656 11297 net.cpp:156] Memory required for data: 800703600
I0403 14:55:14.561688 11297 layer_factory.hpp:77] Creating layer relu5
I0403 14:55:14.561720 11297 net.cpp:91] Creating Layer relu5
I0403 14:55:14.561743 11297 net.cpp:425] relu5 <- conv5
I0403 14:55:14.561769 11297 net.cpp:386] relu5 -> conv5 (in-place)
I0403 14:55:14.562098 11297 net.cpp:141] Setting up relu5
I0403 14:55:14.562134 11297 net.cpp:148] Top shape: 100 256 13 13 (4326400)
I0403 14:55:14.562155 11297 net.cpp:156] Memory required for data: 818009200
I0403 14:55:14.562173 11297 layer_factory.hpp:77] Creating layer pool5
I0403 14:55:14.562214 11297 net.cpp:91] Creating Layer pool5
I0403 14:55:14.562238 11297 net.cpp:425] pool5 <- conv5
I0403 14:55:14.562263 11297 net.cpp:399] pool5 -> pool5
I0403 14:55:14.562340 11297 net.cpp:141] Setting up pool5
I0403 14:55:14.562372 11297 net.cpp:148] Top shape: 100 256 6 6 (921600)
I0403 14:55:14.562392 11297 net.cpp:156] Memory required for data: 821695600
I0403 14:55:14.562412 11297 layer_factory.hpp:77] Creating layer fc6
I0403 14:55:14.562444 11297 net.cpp:91] Creating Layer fc6
I0403 14:55:14.562465 11297 net.cpp:425] fc6 <- pool5
I0403 14:55:14.562490 11297 net.cpp:399] fc6 -> fc6
I0403 14:55:16.294919 11297 net.cpp:141] Setting up fc6
I0403 14:55:16.294981 11297 net.cpp:148] Top shape: 100 4096 (409600)
I0403 14:55:16.294998 11297 net.cpp:156] Memory required for data: 823334000
I0403 14:55:16.295022 11297 layer_factory.hpp:77] Creating layer relu6
I0403 14:55:16.295047 11297 net.cpp:91] Creating Layer relu6
I0403 14:55:16.295064 11297 net.cpp:425] relu6 <- fc6
I0403 14:55:16.295085 11297 net.cpp:386] relu6 -> fc6 (in-place)
I0403 14:55:16.295315 11297 net.cpp:141] Setting up relu6
I0403 14:55:16.295344 11297 net.cpp:148] Top shape: 100 4096 (409600)
I0403 14:55:16.295361 11297 net.cpp:156] Memory required for data: 824972400
I0403 14:55:16.295378 11297 layer_factory.hpp:77] Creating layer drop6
I0403 14:55:16.295398 11297 net.cpp:91] Creating Layer drop6
I0403 14:55:16.295413 11297 net.cpp:425] drop6 <- fc6
I0403 14:55:16.295431 11297 net.cpp:386] drop6 -> fc6 (in-place)
I0403 14:55:16.295487 11297 net.cpp:141] Setting up drop6
I0403 14:55:16.295512 11297 net.cpp:148] Top shape: 100 4096 (409600)
I0403 14:55:16.295528 11297 net.cpp:156] Memory required for data: 826610800
I0403 14:55:16.295544 11297 layer_factory.hpp:77] Creating layer fc7
I0403 14:55:16.295567 11297 net.cpp:91] Creating Layer fc7
I0403 14:55:16.295586 11297 net.cpp:425] fc7 <- fc6
I0403 14:55:16.295604 11297 net.cpp:399] fc7 -> fc7
I0403 14:55:16.998196 11297 net.cpp:141] Setting up fc7
I0403 14:55:16.998250 11297 net.cpp:148] Top shape: 100 4096 (409600)
I0403 14:55:16.998266 11297 net.cpp:156] Memory required for data: 828249200
I0403 14:55:16.998287 11297 layer_factory.hpp:77] Creating layer relu7
I0403 14:55:16.998311 11297 net.cpp:91] Creating Layer relu7
I0403 14:55:16.998328 11297 net.cpp:425] relu7 <- fc7
I0403 14:55:16.998347 11297 net.cpp:386] relu7 -> fc7 (in-place)
I0403 14:55:16.998747 11297 net.cpp:141] Setting up relu7
I0403 14:55:16.998777 11297 net.cpp:148] Top shape: 100 4096 (409600)
I0403 14:55:16.998831 11297 net.cpp:156] Memory required for data: 829887600
I0403 14:55:16.998847 11297 layer_factory.hpp:77] Creating layer drop7
I0403 14:55:16.998867 11297 net.cpp:91] Creating Layer drop7
I0403 14:55:16.998881 11297 net.cpp:425] drop7 <- fc7
I0403 14:55:16.998898 11297 net.cpp:386] drop7 -> fc7 (in-place)
I0403 14:55:16.998944 11297 net.cpp:141] Setting up drop7
I0403 14:55:16.998966 11297 net.cpp:148] Top shape: 100 4096 (409600)
I0403 14:55:16.998981 11297 net.cpp:156] Memory required for data: 831526000
I0403 14:55:16.998996 11297 layer_factory.hpp:77] Creating layer fc8_plantvillage
I0403 14:55:16.999017 11297 net.cpp:91] Creating Layer fc8_plantvillage
I0403 14:55:16.999033 11297 net.cpp:425] fc8_plantvillage <- fc7
I0403 14:55:16.999052 11297 net.cpp:399] fc8_plantvillage -> fc8_plantvillage
I0403 14:55:17.005785 11297 net.cpp:141] Setting up fc8_plantvillage
I0403 14:55:17.005815 11297 net.cpp:148] Top shape: 100 38 (3800)
I0403 14:55:17.005832 11297 net.cpp:156] Memory required for data: 831541200
I0403 14:55:17.005851 11297 layer_factory.hpp:77] Creating layer fc8_plantvillage_fc8_plantvillage_0_split
I0403 14:55:17.005869 11297 net.cpp:91] Creating Layer fc8_plantvillage_fc8_plantvillage_0_split
I0403 14:55:17.005885 11297 net.cpp:425] fc8_plantvillage_fc8_plantvillage_0_split <- fc8_plantvillage
I0403 14:55:17.005905 11297 net.cpp:399] fc8_plantvillage_fc8_plantvillage_0_split -> fc8_plantvillage_fc8_plantvillage_0_split_0
I0403 14:55:17.005928 11297 net.cpp:399] fc8_plantvillage_fc8_plantvillage_0_split -> fc8_plantvillage_fc8_plantvillage_0_split_1
I0403 14:55:17.005946 11297 net.cpp:399] fc8_plantvillage_fc8_plantvillage_0_split -> fc8_plantvillage_fc8_plantvillage_0_split_2
I0403 14:55:17.006021 11297 net.cpp:141] Setting up fc8_plantvillage_fc8_plantvillage_0_split
I0403 14:55:17.006047 11297 net.cpp:148] Top shape: 100 38 (3800)
I0403 14:55:17.006062 11297 net.cpp:148] Top shape: 100 38 (3800)
I0403 14:55:17.006078 11297 net.cpp:148] Top shape: 100 38 (3800)
I0403 14:55:17.006093 11297 net.cpp:156] Memory required for data: 831586800
I0403 14:55:17.006106 11297 layer_factory.hpp:77] Creating layer prob
I0403 14:55:17.006127 11297 net.cpp:91] Creating Layer prob
I0403 14:55:17.006145 11297 net.cpp:425] prob <- fc8_plantvillage_fc8_plantvillage_0_split_0
I0403 14:55:17.006167 11297 net.cpp:399] prob -> prob
I0403 14:55:17.006388 11297 net.cpp:141] Setting up prob
I0403 14:55:17.006418 11297 net.cpp:148] Top shape: 100 38 (3800)
I0403 14:55:17.006435 11297 net.cpp:156] Memory required for data: 831602000
I0403 14:55:17.006450 11297 layer_factory.hpp:77] Creating layer hdf5out
I0403 14:55:17.006469 11297 net.cpp:91] Creating Layer hdf5out
I0403 14:55:17.006485 11297 net.cpp:425] hdf5out <- prob
I0403 14:55:17.006501 11297 net.cpp:425] hdf5out <- label_data_1_split_0
I0403 14:55:17.008693 11297 net.cpp:141] Setting up hdf5out
…
