…
I0403 14:49:30.594496 11164 net.cpp:313] The NetState phase (1) differed from the phase (0) specified by a rule in layer data
I0403 14:49:30.594794 11164 net.cpp:49] Initializing net from parameters: 
state {
  phase: TEST
}
layer {
  name: "data"
  type: "Data"
  top: "data"
  top: "label"
  include {
    phase: TEST
  }
  transform_param {
    crop_size: 227
    mean_file: "/home/mohanty/data/final_dataset/lmdb/grayscale-50-50/mean.binaryproto"
  }
  data_param {
    source: "/home/mohanty/data/final_dataset/lmdb/grayscale-50-50/test_db"
    batch_size: 100
    backend: LMDB
  }
}
layer {
  name: "conv1"
  type: "Convolution"
  bottom: "data"
  top: "conv1"
  param {
    lr_mult: 1
    decay_mult: 1
  }
  param {
    lr_mult: 2
    decay_mult: 0
  }
  convolution_param {
    num_output: 96
    kernel_size: 11
    stride: 4
    weight_filler {
      type: "gaussian"
      std: 0.01
    }
    bias_filler {
      type: "constant"
      value: 0
    }
  }
}
layer {
  name: "relu1"
  type: "ReLU"
  bottom: "conv1"
  top: "conv1"
}
layer {
  name: "norm1"
  type: "LRN"
  bottom: "conv1"
  top: "norm1"
  lrn_param {
    local_size: 5
    alpha: 0.0001
    beta: 0.75
  }
}
layer {
  name: "pool1"
  type: "Pooling"
  bottom: "norm1"
  top: "pool1"
  pooling_param {
    pool: MAX
    kernel_size: 3
    stride: 2
  }
}
layer {
  name: "conv2"
  type: "Convolution"
  bottom: "pool1"
  top: "conv2"
  param {
    lr_mult: 1
    decay_mult: 1
  }
  param {
    lr_mult: 2
    decay_mult: 0
  }
  convolution_param {
    num_output: 256
    pad: 2
    kernel_size: 5
    group: 2
    weight_filler {
      type: "gaussian"
      std: 0.01
    }
    bias_filler {
      type: "constant"
      value: 0.1
    }
  }
}
layer {
  name: "relu2"
  type: "ReLU"
  bottom: "conv2"
  top: "conv2"
}
layer {
  name: "norm2"
  type: "LRN"
  bottom: "conv2"
  top: "norm2"
  lrn_param {
    local_size: 5
    alpha: 0.0001
    beta: 0.75
  }
}
layer {
  name: "pool2"
  type: "Pooling"
  bottom: "norm2"
  top: "pool2"
  pooling_param {
    pool: MAX
    kernel_size: 3
    stride: 2
  }
}
layer {
  name: "conv3"
  type: "Convolution"
  bottom: "pool2"
  top: "conv3"
  param {
    lr_mult: 1
    decay_mult: 1
  }
  param {
    lr_mult: 2
    decay_mult: 0
  }
  convolution_param {
    num_output: 384
    pad: 1
    kernel_size: 3
    weight_filler {
      type: "gaussian"
      std: 0.01
    }
    bias_filler {
      type: "constant"
      value: 0
    }
  }
}
layer {
  name: "relu3"
  type: "ReLU"
  bottom: "conv3"
  top: "conv3"
}
layer {
  name: "conv4"
  type: "Convolution"
  bottom: "conv3"
  top: "conv4"
  param {
    lr_mult: 1
    decay_mult: 1
  }
  param {
    lr_mult: 2
    decay_mult: 0
  }
  convolution_param {
    num_output: 384
    pad: 1
    kernel_size: 3
    group: 2
    weight_filler {
      type: "gaussian"
      std: 0.01
    }
    bias_filler {
      type: "constant"
      value: 0.1
    }
  }
}
layer {
  name: "relu4"
  type: "ReLU"
  bottom: "conv4"
  top: "conv4"
}
layer {
  name: "conv5"
  type: "Convolution"
  bottom: "conv4"
  top: "conv5"
  param {
    lr_mult: 1
    decay_mult: 1
  }
  param {
    lr_mult: 2
    decay_mult: 0
  }
  convolution_param {
    num_output: 256
    pad: 1
    kernel_size: 3
    group: 2
    weight_filler {
      type: "gaussian"
      std: 0.01
    }
    bias_filler {
      type: "constant"
      value: 0.1
    }
  }
}
layer {
  name: "relu5"
  type: "ReLU"
  bottom: "conv5"
  top: "conv5"
}
layer {
  name: "pool5"
  type: "Pooling"
  bottom: "conv5"
  top: "pool5"
  pooling_param {
    pool: MAX
    kernel_size: 3
    stride: 2
  }
}
layer {
  name: "fc6"
  type: "InnerProduct"
  bottom: "pool5"
  top: "fc6"
  param {
    lr_mult: 1
    decay_mult: 1
  }
  param {
    lr_mult: 2
    decay_mult: 0
  }
  inner_product_param {
    num_output: 4096
    weight_filler {
      type: "gaussian"
      std: 0.005
    }
    bias_filler {
      type: "constant"
      value: 0.1
    }
  }
}
layer {
  name: "relu6"
  type: "ReLU"
  bottom: "fc6"
  top: "fc6"
}
layer {
  name: "drop6"
  type: "Dropout"
  bottom: "fc6"
  top: "fc6"
  dropout_param {
    dropout_ratio: 0.5
  }
}
layer {
  name: "fc7"
  type: "InnerProduct"
  bottom: "fc6"
  top: "fc7"
  param {
    lr_mult: 1
    decay_mult: 1
  }
  param {
    lr_mult: 2
    decay_mult: 0
  }
  inner_product_param {
    num_output: 4096
    weight_filler {
      type: "gaussian"
      std: 0.005
    }
    bias_filler {
      type: "constant"
      value: 0.1
    }
  }
}
layer {
  name: "relu7"
  type: "ReLU"
  bottom: "fc7"
  top: "fc7"
}
layer {
  name: "drop7"
  type: "Dropout"
  bottom: "fc7"
  top: "fc7"
  dropout_param {
    dropout_ratio: 0.5
  }
}
layer {
  name: "fc8_plantvillage"
  type: "InnerProduct"
  bottom: "fc7"
  top: "fc8_plantvillage"
  param {
    lr_mult: 1
    decay_mult: 1
  }
  param {
    lr_mult: 2
    decay_mult: 0
  }
  inner_product_param {
    num_output: 38
    weight_filler {
      type: "gaussian"
      std: 0.01
    }
    bias_filler {
      type: "constant"
      value: 0
    }
  }
}
layer {
  name: "prob"
  type: "Softmax"
  bottom: "fc8_plantvillage"
  top: "prob"
  include {
    phase: TEST
  }
}
layer {
  name: "hdf5out"
  type: "HDF5Output"
  bottom: "prob"
  bottom: "label"
  include {
    phase: TEST
  }
  hdf5_output_param {
    file_name: "hdf5_dumps/iter_4272.h5"
  }
}
layer {
  name: "loss"
  type: "SoftmaxWithLoss"
  bottom: "fc8_plantvillage"
  bottom: "label"
  top: "loss"
}
layer {
  name: "accuracy"
  type: "Accuracy"
  bottom: "fc8_plantvillage"
  bottom: "label"
  top: "accuracy"
  include {
    phase: TEST
  }
}
I0403 14:49:30.595324 11164 layer_factory.hpp:77] Creating layer data
I0403 14:49:30.596101 11164 net.cpp:91] Creating Layer data
I0403 14:49:30.596201 11164 net.cpp:399] data -> data
I0403 14:49:30.596315 11164 net.cpp:399] data -> label
I0403 14:49:30.596401 11164 data_transformer.cpp:25] Loading mean file from: /home/mohanty/data/final_dataset/lmdb/grayscale-50-50/mean.binaryproto
I0403 14:49:30.600397 11170 db_lmdb.cpp:38] Opened lmdb /home/mohanty/data/final_dataset/lmdb/grayscale-50-50/test_db
I0403 14:49:30.613374 11164 data_layer.cpp:41] output data size: 100,3,227,227
I0403 14:49:32.758220 11164 net.cpp:141] Setting up data
I0403 14:49:32.758782 11164 net.cpp:148] Top shape: 100 3 227 227 (15458700)
I0403 14:49:32.758836 11164 net.cpp:148] Top shape: 100 (100)
I0403 14:49:32.758852 11164 net.cpp:156] Memory required for data: 61835200
I0403 14:49:32.758880 11164 layer_factory.hpp:77] Creating layer label_data_1_split
I0403 14:49:32.758905 11164 net.cpp:91] Creating Layer label_data_1_split
I0403 14:49:32.758924 11164 net.cpp:425] label_data_1_split <- label
I0403 14:49:32.758955 11164 net.cpp:399] label_data_1_split -> label_data_1_split_0
I0403 14:49:32.758983 11164 net.cpp:399] label_data_1_split -> label_data_1_split_1
I0403 14:49:32.759003 11164 net.cpp:399] label_data_1_split -> label_data_1_split_2
I0403 14:49:32.759083 11164 net.cpp:141] Setting up label_data_1_split
I0403 14:49:32.759109 11164 net.cpp:148] Top shape: 100 (100)
I0403 14:49:32.759124 11164 net.cpp:148] Top shape: 100 (100)
I0403 14:49:32.759140 11164 net.cpp:148] Top shape: 100 (100)
I0403 14:49:32.759152 11164 net.cpp:156] Memory required for data: 61836400
I0403 14:49:32.759172 11164 layer_factory.hpp:77] Creating layer conv1
I0403 14:49:32.759205 11164 net.cpp:91] Creating Layer conv1
I0403 14:49:32.759223 11164 net.cpp:425] conv1 <- data
I0403 14:49:32.759243 11164 net.cpp:399] conv1 -> conv1
I0403 14:49:32.948248 11164 net.cpp:141] Setting up conv1
I0403 14:49:32.948335 11164 net.cpp:148] Top shape: 100 96 55 55 (29040000)
I0403 14:49:32.948353 11164 net.cpp:156] Memory required for data: 177996400
I0403 14:49:32.948384 11164 layer_factory.hpp:77] Creating layer relu1
I0403 14:49:32.948410 11164 net.cpp:91] Creating Layer relu1
I0403 14:49:32.948441 11164 net.cpp:425] relu1 <- conv1
I0403 14:49:32.948459 11164 net.cpp:386] relu1 -> conv1 (in-place)
I0403 14:49:32.948729 11164 net.cpp:141] Setting up relu1
I0403 14:49:32.948757 11164 net.cpp:148] Top shape: 100 96 55 55 (29040000)
I0403 14:49:32.948804 11164 net.cpp:156] Memory required for data: 294156400
I0403 14:49:32.948822 11164 layer_factory.hpp:77] Creating layer norm1
I0403 14:49:32.948848 11164 net.cpp:91] Creating Layer norm1
I0403 14:49:32.948866 11164 net.cpp:425] norm1 <- conv1
I0403 14:49:32.948885 11164 net.cpp:399] norm1 -> norm1
I0403 14:49:32.949193 11164 net.cpp:141] Setting up norm1
I0403 14:49:32.949220 11164 net.cpp:148] Top shape: 100 96 55 55 (29040000)
I0403 14:49:32.949236 11164 net.cpp:156] Memory required for data: 410316400
I0403 14:49:32.949251 11164 layer_factory.hpp:77] Creating layer pool1
I0403 14:49:32.949273 11164 net.cpp:91] Creating Layer pool1
I0403 14:49:32.949292 11164 net.cpp:425] pool1 <- norm1
I0403 14:49:32.949312 11164 net.cpp:399] pool1 -> pool1
I0403 14:49:32.949381 11164 net.cpp:141] Setting up pool1
I0403 14:49:32.949406 11164 net.cpp:148] Top shape: 100 96 27 27 (6998400)
I0403 14:49:32.949420 11164 net.cpp:156] Memory required for data: 438310000
I0403 14:49:32.949435 11164 layer_factory.hpp:77] Creating layer conv2
I0403 14:49:32.949491 11164 net.cpp:91] Creating Layer conv2
I0403 14:49:32.949513 11164 net.cpp:425] conv2 <- pool1
I0403 14:49:32.949532 11164 net.cpp:399] conv2 -> conv2
I0403 14:49:32.964366 11164 net.cpp:141] Setting up conv2
I0403 14:49:32.964437 11164 net.cpp:148] Top shape: 100 256 27 27 (18662400)
I0403 14:49:32.964453 11164 net.cpp:156] Memory required for data: 512959600
I0403 14:49:32.964475 11164 layer_factory.hpp:77] Creating layer relu2
I0403 14:49:32.964496 11164 net.cpp:91] Creating Layer relu2
I0403 14:49:32.964512 11164 net.cpp:425] relu2 <- conv2
I0403 14:49:32.964532 11164 net.cpp:386] relu2 -> conv2 (in-place)
I0403 14:49:32.964807 11164 net.cpp:141] Setting up relu2
I0403 14:49:32.964835 11164 net.cpp:148] Top shape: 100 256 27 27 (18662400)
I0403 14:49:32.964850 11164 net.cpp:156] Memory required for data: 587609200
I0403 14:49:32.964865 11164 layer_factory.hpp:77] Creating layer norm2
I0403 14:49:32.964890 11164 net.cpp:91] Creating Layer norm2
I0403 14:49:32.964907 11164 net.cpp:425] norm2 <- conv2
I0403 14:49:32.964926 11164 net.cpp:399] norm2 -> norm2
I0403 14:49:32.965122 11164 net.cpp:141] Setting up norm2
I0403 14:49:32.965147 11164 net.cpp:148] Top shape: 100 256 27 27 (18662400)
I0403 14:49:32.965169 11164 net.cpp:156] Memory required for data: 662258800
I0403 14:49:32.965186 11164 layer_factory.hpp:77] Creating layer pool2
I0403 14:49:32.965205 11164 net.cpp:91] Creating Layer pool2
I0403 14:49:32.965221 11164 net.cpp:425] pool2 <- norm2
I0403 14:49:32.965240 11164 net.cpp:399] pool2 -> pool2
I0403 14:49:32.965292 11164 net.cpp:141] Setting up pool2
I0403 14:49:32.965317 11164 net.cpp:148] Top shape: 100 256 13 13 (4326400)
I0403 14:49:32.965332 11164 net.cpp:156] Memory required for data: 679564400
I0403 14:49:32.965348 11164 layer_factory.hpp:77] Creating layer conv3
I0403 14:49:32.965374 11164 net.cpp:91] Creating Layer conv3
I0403 14:49:32.965392 11164 net.cpp:425] conv3 <- pool2
I0403 14:49:32.965410 11164 net.cpp:399] conv3 -> conv3
I0403 14:49:33.004288 11164 net.cpp:141] Setting up conv3
I0403 14:49:33.004349 11164 net.cpp:148] Top shape: 100 384 13 13 (6489600)
I0403 14:49:33.004366 11164 net.cpp:156] Memory required for data: 705522800
I0403 14:49:33.004392 11164 layer_factory.hpp:77] Creating layer relu3
I0403 14:49:33.004416 11164 net.cpp:91] Creating Layer relu3
I0403 14:49:33.004434 11164 net.cpp:425] relu3 <- conv3
I0403 14:49:33.004457 11164 net.cpp:386] relu3 -> conv3 (in-place)
I0403 14:49:33.004771 11164 net.cpp:141] Setting up relu3
I0403 14:49:33.004799 11164 net.cpp:148] Top shape: 100 384 13 13 (6489600)
I0403 14:49:33.004815 11164 net.cpp:156] Memory required for data: 731481200
I0403 14:49:33.004830 11164 layer_factory.hpp:77] Creating layer conv4
I0403 14:49:33.004856 11164 net.cpp:91] Creating Layer conv4
I0403 14:49:33.004875 11164 net.cpp:425] conv4 <- conv3
I0403 14:49:33.004896 11164 net.cpp:399] conv4 -> conv4
I0403 14:49:33.035995 11164 net.cpp:141] Setting up conv4
I0403 14:49:33.036056 11164 net.cpp:148] Top shape: 100 384 13 13 (6489600)
I0403 14:49:33.036101 11164 net.cpp:156] Memory required for data: 757439600
I0403 14:49:33.036125 11164 layer_factory.hpp:77] Creating layer relu4
I0403 14:49:33.036147 11164 net.cpp:91] Creating Layer relu4
I0403 14:49:33.036171 11164 net.cpp:425] relu4 <- conv4
I0403 14:49:33.036195 11164 net.cpp:386] relu4 -> conv4 (in-place)
I0403 14:49:33.036483 11164 net.cpp:141] Setting up relu4
I0403 14:49:33.036512 11164 net.cpp:148] Top shape: 100 384 13 13 (6489600)
I0403 14:49:33.036530 11164 net.cpp:156] Memory required for data: 783398000
I0403 14:49:33.036545 11164 layer_factory.hpp:77] Creating layer conv5
I0403 14:49:33.036571 11164 net.cpp:91] Creating Layer conv5
I0403 14:49:33.036591 11164 net.cpp:425] conv5 <- conv4
I0403 14:49:33.036609 11164 net.cpp:399] conv5 -> conv5
I0403 14:49:33.058006 11164 net.cpp:141] Setting up conv5
I0403 14:49:33.058048 11164 net.cpp:148] Top shape: 100 256 13 13 (4326400)
I0403 14:49:33.058068 11164 net.cpp:156] Memory required for data: 800703600
I0403 14:49:33.058094 11164 layer_factory.hpp:77] Creating layer relu5
I0403 14:49:33.058127 11164 net.cpp:91] Creating Layer relu5
I0403 14:49:33.058145 11164 net.cpp:425] relu5 <- conv5
I0403 14:49:33.058171 11164 net.cpp:386] relu5 -> conv5 (in-place)
I0403 14:49:33.058472 11164 net.cpp:141] Setting up relu5
I0403 14:49:33.058501 11164 net.cpp:148] Top shape: 100 256 13 13 (4326400)
I0403 14:49:33.058517 11164 net.cpp:156] Memory required for data: 818009200
I0403 14:49:33.058532 11164 layer_factory.hpp:77] Creating layer pool5
I0403 14:49:33.058558 11164 net.cpp:91] Creating Layer pool5
I0403 14:49:33.058576 11164 net.cpp:425] pool5 <- conv5
I0403 14:49:33.058595 11164 net.cpp:399] pool5 -> pool5
I0403 14:49:33.058660 11164 net.cpp:141] Setting up pool5
I0403 14:49:33.058686 11164 net.cpp:148] Top shape: 100 256 6 6 (921600)
I0403 14:49:33.058701 11164 net.cpp:156] Memory required for data: 821695600
I0403 14:49:33.058715 11164 layer_factory.hpp:77] Creating layer fc6
I0403 14:49:33.058742 11164 net.cpp:91] Creating Layer fc6
I0403 14:49:33.058760 11164 net.cpp:425] fc6 <- pool5
I0403 14:49:33.058781 11164 net.cpp:399] fc6 -> fc6
I0403 14:49:34.660943 11164 net.cpp:141] Setting up fc6
I0403 14:49:34.660994 11164 net.cpp:148] Top shape: 100 4096 (409600)
I0403 14:49:34.661010 11164 net.cpp:156] Memory required for data: 823334000
I0403 14:49:34.661033 11164 layer_factory.hpp:77] Creating layer relu6
I0403 14:49:34.661056 11164 net.cpp:91] Creating Layer relu6
I0403 14:49:34.661072 11164 net.cpp:425] relu6 <- fc6
I0403 14:49:34.661092 11164 net.cpp:386] relu6 -> fc6 (in-place)
I0403 14:49:34.661346 11164 net.cpp:141] Setting up relu6
I0403 14:49:34.661373 11164 net.cpp:148] Top shape: 100 4096 (409600)
I0403 14:49:34.661387 11164 net.cpp:156] Memory required for data: 824972400
I0403 14:49:34.661403 11164 layer_factory.hpp:77] Creating layer drop6
I0403 14:49:34.661423 11164 net.cpp:91] Creating Layer drop6
I0403 14:49:34.661438 11164 net.cpp:425] drop6 <- fc6
I0403 14:49:34.661459 11164 net.cpp:386] drop6 -> fc6 (in-place)
I0403 14:49:34.661510 11164 net.cpp:141] Setting up drop6
I0403 14:49:34.661535 11164 net.cpp:148] Top shape: 100 4096 (409600)
I0403 14:49:34.661559 11164 net.cpp:156] Memory required for data: 826610800
I0403 14:49:34.661574 11164 layer_factory.hpp:77] Creating layer fc7
I0403 14:49:34.661602 11164 net.cpp:91] Creating Layer fc7
I0403 14:49:34.661620 11164 net.cpp:425] fc7 <- fc6
I0403 14:49:34.661640 11164 net.cpp:399] fc7 -> fc7
I0403 14:49:35.340050 11164 net.cpp:141] Setting up fc7
I0403 14:49:35.340128 11164 net.cpp:148] Top shape: 100 4096 (409600)
I0403 14:49:35.340144 11164 net.cpp:156] Memory required for data: 828249200
I0403 14:49:35.340169 11164 layer_factory.hpp:77] Creating layer relu7
I0403 14:49:35.340193 11164 net.cpp:91] Creating Layer relu7
I0403 14:49:35.340210 11164 net.cpp:425] relu7 <- fc7
I0403 14:49:35.340230 11164 net.cpp:386] relu7 -> fc7 (in-place)
I0403 14:49:35.340600 11164 net.cpp:141] Setting up relu7
I0403 14:49:35.340626 11164 net.cpp:148] Top shape: 100 4096 (409600)
I0403 14:49:35.340675 11164 net.cpp:156] Memory required for data: 829887600
I0403 14:49:35.340692 11164 layer_factory.hpp:77] Creating layer drop7
I0403 14:49:35.340709 11164 net.cpp:91] Creating Layer drop7
I0403 14:49:35.340724 11164 net.cpp:425] drop7 <- fc7
I0403 14:49:35.340742 11164 net.cpp:386] drop7 -> fc7 (in-place)
I0403 14:49:35.340782 11164 net.cpp:141] Setting up drop7
I0403 14:49:35.340807 11164 net.cpp:148] Top shape: 100 4096 (409600)
I0403 14:49:35.340821 11164 net.cpp:156] Memory required for data: 831526000
I0403 14:49:35.340836 11164 layer_factory.hpp:77] Creating layer fc8_plantvillage
I0403 14:49:35.340854 11164 net.cpp:91] Creating Layer fc8_plantvillage
I0403 14:49:35.340870 11164 net.cpp:425] fc8_plantvillage <- fc7
I0403 14:49:35.340888 11164 net.cpp:399] fc8_plantvillage -> fc8_plantvillage
I0403 14:49:35.347561 11164 net.cpp:141] Setting up fc8_plantvillage
I0403 14:49:35.347589 11164 net.cpp:148] Top shape: 100 38 (3800)
I0403 14:49:35.347604 11164 net.cpp:156] Memory required for data: 831541200
I0403 14:49:35.347622 11164 layer_factory.hpp:77] Creating layer fc8_plantvillage_fc8_plantvillage_0_split
I0403 14:49:35.347641 11164 net.cpp:91] Creating Layer fc8_plantvillage_fc8_plantvillage_0_split
I0403 14:49:35.347656 11164 net.cpp:425] fc8_plantvillage_fc8_plantvillage_0_split <- fc8_plantvillage
I0403 14:49:35.347676 11164 net.cpp:399] fc8_plantvillage_fc8_plantvillage_0_split -> fc8_plantvillage_fc8_plantvillage_0_split_0
I0403 14:49:35.347697 11164 net.cpp:399] fc8_plantvillage_fc8_plantvillage_0_split -> fc8_plantvillage_fc8_plantvillage_0_split_1
I0403 14:49:35.347718 11164 net.cpp:399] fc8_plantvillage_fc8_plantvillage_0_split -> fc8_plantvillage_fc8_plantvillage_0_split_2
I0403 14:49:35.347790 11164 net.cpp:141] Setting up fc8_plantvillage_fc8_plantvillage_0_split
I0403 14:49:35.347816 11164 net.cpp:148] Top shape: 100 38 (3800)
I0403 14:49:35.347833 11164 net.cpp:148] Top shape: 100 38 (3800)
I0403 14:49:35.347849 11164 net.cpp:148] Top shape: 100 38 (3800)
I0403 14:49:35.347863 11164 net.cpp:156] Memory required for data: 831586800
I0403 14:49:35.347877 11164 layer_factory.hpp:77] Creating layer prob
I0403 14:49:35.347895 11164 net.cpp:91] Creating Layer prob
I0403 14:49:35.347911 11164 net.cpp:425] prob <- fc8_plantvillage_fc8_plantvillage_0_split_0
I0403 14:49:35.347929 11164 net.cpp:399] prob -> prob
I0403 14:49:35.348147 11164 net.cpp:141] Setting up prob
I0403 14:49:35.348178 11164 net.cpp:148] Top shape: 100 38 (3800)
I0403 14:49:35.348193 11164 net.cpp:156] Memory required for data: 831602000
I0403 14:49:35.348208 11164 layer_factory.hpp:77] Creating layer hdf5out
I0403 14:49:35.348227 11164 net.cpp:91] Creating Layer hdf5out
I0403 14:49:35.348243 11164 net.cpp:425] hdf5out <- prob
I0403 14:49:35.348259 11164 net.cpp:425] hdf5out <- label_data_1_split_0
I0403 14:49:35.350414 11164 net.cpp:141] Setting up hdf5out
…
