…
I0403 15:03:43.555470 11495 net.cpp:313] The NetState phase (1) differed from the phase (0) specified by a rule in layer data
I0403 15:03:43.555762 11495 net.cpp:49] Initializing net from parameters: 
state {
  phase: TEST
}
layer {
  name: "data"
  type: "Data"
  top: "data"
  top: "label"
  include {
    phase: TEST
  }
  transform_param {
    crop_size: 227
    mean_file: "/home/mohanty/data/final_dataset/lmdb/grayscale-50-50/mean.binaryproto"
  }
  data_param {
    source: "/home/mohanty/data/final_dataset/lmdb/grayscale-50-50/test_db"
    batch_size: 100
    backend: LMDB
  }
}
layer {
  name: "conv1"
  type: "Convolution"
  bottom: "data"
  top: "conv1"
  param {
    lr_mult: 1
    decay_mult: 1
  }
  param {
    lr_mult: 2
    decay_mult: 0
  }
  convolution_param {
    num_output: 96
    kernel_size: 11
    stride: 4
    weight_filler {
      type: "gaussian"
      std: 0.01
    }
    bias_filler {
      type: "constant"
      value: 0
    }
  }
}
layer {
  name: "relu1"
  type: "ReLU"
  bottom: "conv1"
  top: "conv1"
}
layer {
  name: "norm1"
  type: "LRN"
  bottom: "conv1"
  top: "norm1"
  lrn_param {
    local_size: 5
    alpha: 0.0001
    beta: 0.75
  }
}
layer {
  name: "pool1"
  type: "Pooling"
  bottom: "norm1"
  top: "pool1"
  pooling_param {
    pool: MAX
    kernel_size: 3
    stride: 2
  }
}
layer {
  name: "conv2"
  type: "Convolution"
  bottom: "pool1"
  top: "conv2"
  param {
    lr_mult: 1
    decay_mult: 1
  }
  param {
    lr_mult: 2
    decay_mult: 0
  }
  convolution_param {
    num_output: 256
    pad: 2
    kernel_size: 5
    group: 2
    weight_filler {
      type: "gaussian"
      std: 0.01
    }
    bias_filler {
      type: "constant"
      value: 0.1
    }
  }
}
layer {
  name: "relu2"
  type: "ReLU"
  bottom: "conv2"
  top: "conv2"
}
layer {
  name: "norm2"
  type: "LRN"
  bottom: "conv2"
  top: "norm2"
  lrn_param {
    local_size: 5
    alpha: 0.0001
    beta: 0.75
  }
}
layer {
  name: "pool2"
  type: "Pooling"
  bottom: "norm2"
  top: "pool2"
  pooling_param {
    pool: MAX
    kernel_size: 3
    stride: 2
  }
}
layer {
  name: "conv3"
  type: "Convolution"
  bottom: "pool2"
  top: "conv3"
  param {
    lr_mult: 1
    decay_mult: 1
  }
  param {
    lr_mult: 2
    decay_mult: 0
  }
  convolution_param {
    num_output: 384
    pad: 1
    kernel_size: 3
    weight_filler {
      type: "gaussian"
      std: 0.01
    }
    bias_filler {
      type: "constant"
      value: 0
    }
  }
}
layer {
  name: "relu3"
  type: "ReLU"
  bottom: "conv3"
  top: "conv3"
}
layer {
  name: "conv4"
  type: "Convolution"
  bottom: "conv3"
  top: "conv4"
  param {
    lr_mult: 1
    decay_mult: 1
  }
  param {
    lr_mult: 2
    decay_mult: 0
  }
  convolution_param {
    num_output: 384
    pad: 1
    kernel_size: 3
    group: 2
    weight_filler {
      type: "gaussian"
      std: 0.01
    }
    bias_filler {
      type: "constant"
      value: 0.1
    }
  }
}
layer {
  name: "relu4"
  type: "ReLU"
  bottom: "conv4"
  top: "conv4"
}
layer {
  name: "conv5"
  type: "Convolution"
  bottom: "conv4"
  top: "conv5"
  param {
    lr_mult: 1
    decay_mult: 1
  }
  param {
    lr_mult: 2
    decay_mult: 0
  }
  convolution_param {
    num_output: 256
    pad: 1
    kernel_size: 3
    group: 2
    weight_filler {
      type: "gaussian"
      std: 0.01
    }
    bias_filler {
      type: "constant"
      value: 0.1
    }
  }
}
layer {
  name: "relu5"
  type: "ReLU"
  bottom: "conv5"
  top: "conv5"
}
layer {
  name: "pool5"
  type: "Pooling"
  bottom: "conv5"
  top: "pool5"
  pooling_param {
    pool: MAX
    kernel_size: 3
    stride: 2
  }
}
layer {
  name: "fc6"
  type: "InnerProduct"
  bottom: "pool5"
  top: "fc6"
  param {
    lr_mult: 1
    decay_mult: 1
  }
  param {
    lr_mult: 2
    decay_mult: 0
  }
  inner_product_param {
    num_output: 4096
    weight_filler {
      type: "gaussian"
      std: 0.005
    }
    bias_filler {
      type: "constant"
      value: 0.1
    }
  }
}
layer {
  name: "relu6"
  type: "ReLU"
  bottom: "fc6"
  top: "fc6"
}
layer {
  name: "drop6"
  type: "Dropout"
  bottom: "fc6"
  top: "fc6"
  dropout_param {
    dropout_ratio: 0.5
  }
}
layer {
  name: "fc7"
  type: "InnerProduct"
  bottom: "fc6"
  top: "fc7"
  param {
    lr_mult: 1
    decay_mult: 1
  }
  param {
    lr_mult: 2
    decay_mult: 0
  }
  inner_product_param {
    num_output: 4096
    weight_filler {
      type: "gaussian"
      std: 0.005
    }
    bias_filler {
      type: "constant"
      value: 0.1
    }
  }
}
layer {
  name: "relu7"
  type: "ReLU"
  bottom: "fc7"
  top: "fc7"
}
layer {
  name: "drop7"
  type: "Dropout"
  bottom: "fc7"
  top: "fc7"
  dropout_param {
    dropout_ratio: 0.5
  }
}
layer {
  name: "fc8_plantvillage"
  type: "InnerProduct"
  bottom: "fc7"
  top: "fc8_plantvillage"
  param {
    lr_mult: 1
    decay_mult: 1
  }
  param {
    lr_mult: 2
    decay_mult: 0
  }
  inner_product_param {
    num_output: 38
    weight_filler {
      type: "gaussian"
      std: 0.01
    }
    bias_filler {
      type: "constant"
      value: 0
    }
  }
}
layer {
  name: "prob"
  type: "Softmax"
  bottom: "fc8_plantvillage"
  top: "prob"
  include {
    phase: TEST
  }
}
layer {
  name: "hdf5out"
  type: "HDF5Output"
  bottom: "prob"
  bottom: "label"
  include {
    phase: TEST
  }
  hdf5_output_param {
    file_name: "hdf5_dumps/iter_8023.h5"
  }
}
layer {
  name: "loss"
  type: "SoftmaxWithLoss"
  bottom: "fc8_plantvillage"
  bottom: "label"
  top: "loss"
}
layer {
  name: "accuracy"
  type: "Accuracy"
  bottom: "fc8_plantvillage"
  bottom: "label"
  top: "accuracy"
  include {
    phase: TEST
  }
}
I0403 15:03:43.556298 11495 layer_factory.hpp:77] Creating layer data
I0403 15:03:43.556942 11495 net.cpp:91] Creating Layer data
I0403 15:03:43.556975 11495 net.cpp:399] data -> data
I0403 15:03:43.557024 11495 net.cpp:399] data -> label
I0403 15:03:43.557060 11495 data_transformer.cpp:25] Loading mean file from: /home/mohanty/data/final_dataset/lmdb/grayscale-50-50/mean.binaryproto
I0403 15:03:43.567148 11500 db_lmdb.cpp:38] Opened lmdb /home/mohanty/data/final_dataset/lmdb/grayscale-50-50/test_db
I0403 15:03:43.572530 11495 data_layer.cpp:41] output data size: 100,3,227,227
I0403 15:03:45.759941 11495 net.cpp:141] Setting up data
I0403 15:03:45.760076 11495 net.cpp:148] Top shape: 100 3 227 227 (15458700)
I0403 15:03:45.760169 11495 net.cpp:148] Top shape: 100 (100)
I0403 15:03:45.760205 11495 net.cpp:156] Memory required for data: 61835200
I0403 15:03:45.760246 11495 layer_factory.hpp:77] Creating layer label_data_1_split
I0403 15:03:45.760275 11495 net.cpp:91] Creating Layer label_data_1_split
I0403 15:03:45.760298 11495 net.cpp:425] label_data_1_split <- label
I0403 15:03:45.760334 11495 net.cpp:399] label_data_1_split -> label_data_1_split_0
I0403 15:03:45.760365 11495 net.cpp:399] label_data_1_split -> label_data_1_split_1
I0403 15:03:45.760386 11495 net.cpp:399] label_data_1_split -> label_data_1_split_2
I0403 15:03:45.760475 11495 net.cpp:141] Setting up label_data_1_split
I0403 15:03:45.760501 11495 net.cpp:148] Top shape: 100 (100)
I0403 15:03:45.760520 11495 net.cpp:148] Top shape: 100 (100)
I0403 15:03:45.760537 11495 net.cpp:148] Top shape: 100 (100)
I0403 15:03:45.760552 11495 net.cpp:156] Memory required for data: 61836400
I0403 15:03:45.760577 11495 layer_factory.hpp:77] Creating layer conv1
I0403 15:03:45.760614 11495 net.cpp:91] Creating Layer conv1
I0403 15:03:45.760635 11495 net.cpp:425] conv1 <- data
I0403 15:03:45.760655 11495 net.cpp:399] conv1 -> conv1
I0403 15:03:45.945683 11495 net.cpp:141] Setting up conv1
I0403 15:03:45.945783 11495 net.cpp:148] Top shape: 100 96 55 55 (29040000)
I0403 15:03:45.945802 11495 net.cpp:156] Memory required for data: 177996400
I0403 15:03:45.945837 11495 layer_factory.hpp:77] Creating layer relu1
I0403 15:03:45.945864 11495 net.cpp:91] Creating Layer relu1
I0403 15:03:45.945888 11495 net.cpp:425] relu1 <- conv1
I0403 15:03:45.945909 11495 net.cpp:386] relu1 -> conv1 (in-place)
I0403 15:03:45.946197 11495 net.cpp:141] Setting up relu1
I0403 15:03:45.946230 11495 net.cpp:148] Top shape: 100 96 55 55 (29040000)
I0403 15:03:45.946280 11495 net.cpp:156] Memory required for data: 294156400
I0403 15:03:45.946297 11495 layer_factory.hpp:77] Creating layer norm1
I0403 15:03:45.946326 11495 net.cpp:91] Creating Layer norm1
I0403 15:03:45.946346 11495 net.cpp:425] norm1 <- conv1
I0403 15:03:45.946367 11495 net.cpp:399] norm1 -> norm1
I0403 15:03:45.946708 11495 net.cpp:141] Setting up norm1
I0403 15:03:45.946743 11495 net.cpp:148] Top shape: 100 96 55 55 (29040000)
I0403 15:03:45.946766 11495 net.cpp:156] Memory required for data: 410316400
I0403 15:03:45.946784 11495 layer_factory.hpp:77] Creating layer pool1
I0403 15:03:45.946807 11495 net.cpp:91] Creating Layer pool1
I0403 15:03:45.946827 11495 net.cpp:425] pool1 <- norm1
I0403 15:03:45.946848 11495 net.cpp:399] pool1 -> pool1
I0403 15:03:45.946921 11495 net.cpp:141] Setting up pool1
I0403 15:03:45.946949 11495 net.cpp:148] Top shape: 100 96 27 27 (6998400)
I0403 15:03:45.946964 11495 net.cpp:156] Memory required for data: 438310000
I0403 15:03:45.946980 11495 layer_factory.hpp:77] Creating layer conv2
I0403 15:03:45.947010 11495 net.cpp:91] Creating Layer conv2
I0403 15:03:45.947032 11495 net.cpp:425] conv2 <- pool1
I0403 15:03:45.947055 11495 net.cpp:399] conv2 -> conv2
I0403 15:03:45.962860 11495 net.cpp:141] Setting up conv2
I0403 15:03:45.962939 11495 net.cpp:148] Top shape: 100 256 27 27 (18662400)
I0403 15:03:45.962956 11495 net.cpp:156] Memory required for data: 512959600
I0403 15:03:45.962982 11495 layer_factory.hpp:77] Creating layer relu2
I0403 15:03:45.963008 11495 net.cpp:91] Creating Layer relu2
I0403 15:03:45.963027 11495 net.cpp:425] relu2 <- conv2
I0403 15:03:45.963047 11495 net.cpp:386] relu2 -> conv2 (in-place)
I0403 15:03:45.963372 11495 net.cpp:141] Setting up relu2
I0403 15:03:45.963402 11495 net.cpp:148] Top shape: 100 256 27 27 (18662400)
I0403 15:03:45.963418 11495 net.cpp:156] Memory required for data: 587609200
I0403 15:03:45.963435 11495 layer_factory.hpp:77] Creating layer norm2
I0403 15:03:45.963461 11495 net.cpp:91] Creating Layer norm2
I0403 15:03:45.963479 11495 net.cpp:425] norm2 <- conv2
I0403 15:03:45.963500 11495 net.cpp:399] norm2 -> norm2
I0403 15:03:45.963706 11495 net.cpp:141] Setting up norm2
I0403 15:03:45.963735 11495 net.cpp:148] Top shape: 100 256 27 27 (18662400)
I0403 15:03:45.963752 11495 net.cpp:156] Memory required for data: 662258800
I0403 15:03:45.963768 11495 layer_factory.hpp:77] Creating layer pool2
I0403 15:03:45.963788 11495 net.cpp:91] Creating Layer pool2
I0403 15:03:45.963804 11495 net.cpp:425] pool2 <- norm2
I0403 15:03:45.963825 11495 net.cpp:399] pool2 -> pool2
I0403 15:03:45.963882 11495 net.cpp:141] Setting up pool2
I0403 15:03:45.963909 11495 net.cpp:148] Top shape: 100 256 13 13 (4326400)
I0403 15:03:45.963925 11495 net.cpp:156] Memory required for data: 679564400
I0403 15:03:45.963943 11495 layer_factory.hpp:77] Creating layer conv3
I0403 15:03:45.963970 11495 net.cpp:91] Creating Layer conv3
I0403 15:03:45.963990 11495 net.cpp:425] conv3 <- pool2
I0403 15:03:45.964013 11495 net.cpp:399] conv3 -> conv3
I0403 15:03:46.004108 11495 net.cpp:141] Setting up conv3
I0403 15:03:46.004158 11495 net.cpp:148] Top shape: 100 384 13 13 (6489600)
I0403 15:03:46.004175 11495 net.cpp:156] Memory required for data: 705522800
I0403 15:03:46.004207 11495 layer_factory.hpp:77] Creating layer relu3
I0403 15:03:46.004233 11495 net.cpp:91] Creating Layer relu3
I0403 15:03:46.004252 11495 net.cpp:425] relu3 <- conv3
I0403 15:03:46.004276 11495 net.cpp:386] relu3 -> conv3 (in-place)
I0403 15:03:46.004561 11495 net.cpp:141] Setting up relu3
I0403 15:03:46.004590 11495 net.cpp:148] Top shape: 100 384 13 13 (6489600)
I0403 15:03:46.004606 11495 net.cpp:156] Memory required for data: 731481200
I0403 15:03:46.004623 11495 layer_factory.hpp:77] Creating layer conv4
I0403 15:03:46.004650 11495 net.cpp:91] Creating Layer conv4
I0403 15:03:46.004668 11495 net.cpp:425] conv4 <- conv3
I0403 15:03:46.004691 11495 net.cpp:399] conv4 -> conv4
I0403 15:03:46.036141 11495 net.cpp:141] Setting up conv4
I0403 15:03:46.036192 11495 net.cpp:148] Top shape: 100 384 13 13 (6489600)
I0403 15:03:46.036231 11495 net.cpp:156] Memory required for data: 757439600
I0403 15:03:46.036254 11495 layer_factory.hpp:77] Creating layer relu4
I0403 15:03:46.036276 11495 net.cpp:91] Creating Layer relu4
I0403 15:03:46.036294 11495 net.cpp:425] relu4 <- conv4
I0403 15:03:46.036316 11495 net.cpp:386] relu4 -> conv4 (in-place)
I0403 15:03:46.036602 11495 net.cpp:141] Setting up relu4
I0403 15:03:46.036631 11495 net.cpp:148] Top shape: 100 384 13 13 (6489600)
I0403 15:03:46.036648 11495 net.cpp:156] Memory required for data: 783398000
I0403 15:03:46.036665 11495 layer_factory.hpp:77] Creating layer conv5
I0403 15:03:46.036691 11495 net.cpp:91] Creating Layer conv5
I0403 15:03:46.036711 11495 net.cpp:425] conv5 <- conv4
I0403 15:03:46.036736 11495 net.cpp:399] conv5 -> conv5
I0403 15:03:46.058471 11495 net.cpp:141] Setting up conv5
I0403 15:03:46.058557 11495 net.cpp:148] Top shape: 100 256 13 13 (4326400)
I0403 15:03:46.058575 11495 net.cpp:156] Memory required for data: 800703600
I0403 15:03:46.058604 11495 layer_factory.hpp:77] Creating layer relu5
I0403 15:03:46.058631 11495 net.cpp:91] Creating Layer relu5
I0403 15:03:46.058651 11495 net.cpp:425] relu5 <- conv5
I0403 15:03:46.058672 11495 net.cpp:386] relu5 -> conv5 (in-place)
I0403 15:03:46.058957 11495 net.cpp:141] Setting up relu5
I0403 15:03:46.058986 11495 net.cpp:148] Top shape: 100 256 13 13 (4326400)
I0403 15:03:46.059002 11495 net.cpp:156] Memory required for data: 818009200
I0403 15:03:46.059018 11495 layer_factory.hpp:77] Creating layer pool5
I0403 15:03:46.059044 11495 net.cpp:91] Creating Layer pool5
I0403 15:03:46.059063 11495 net.cpp:425] pool5 <- conv5
I0403 15:03:46.059083 11495 net.cpp:399] pool5 -> pool5
I0403 15:03:46.059146 11495 net.cpp:141] Setting up pool5
I0403 15:03:46.059171 11495 net.cpp:148] Top shape: 100 256 6 6 (921600)
I0403 15:03:46.059192 11495 net.cpp:156] Memory required for data: 821695600
I0403 15:03:46.059209 11495 layer_factory.hpp:77] Creating layer fc6
I0403 15:03:46.059239 11495 net.cpp:91] Creating Layer fc6
I0403 15:03:46.059258 11495 net.cpp:425] fc6 <- pool5
I0403 15:03:46.059281 11495 net.cpp:399] fc6 -> fc6
I0403 15:03:47.644685 11495 net.cpp:141] Setting up fc6
I0403 15:03:47.644734 11495 net.cpp:148] Top shape: 100 4096 (409600)
I0403 15:03:47.644750 11495 net.cpp:156] Memory required for data: 823334000
I0403 15:03:47.644773 11495 layer_factory.hpp:77] Creating layer relu6
I0403 15:03:47.644794 11495 net.cpp:91] Creating Layer relu6
I0403 15:03:47.644811 11495 net.cpp:425] relu6 <- fc6
I0403 15:03:47.644830 11495 net.cpp:386] relu6 -> fc6 (in-place)
I0403 15:03:47.645043 11495 net.cpp:141] Setting up relu6
I0403 15:03:47.645069 11495 net.cpp:148] Top shape: 100 4096 (409600)
I0403 15:03:47.645084 11495 net.cpp:156] Memory required for data: 824972400
I0403 15:03:47.645098 11495 layer_factory.hpp:77] Creating layer drop6
I0403 15:03:47.645117 11495 net.cpp:91] Creating Layer drop6
I0403 15:03:47.645133 11495 net.cpp:425] drop6 <- fc6
I0403 15:03:47.645153 11495 net.cpp:386] drop6 -> fc6 (in-place)
I0403 15:03:47.645210 11495 net.cpp:141] Setting up drop6
I0403 15:03:47.645236 11495 net.cpp:148] Top shape: 100 4096 (409600)
I0403 15:03:47.645253 11495 net.cpp:156] Memory required for data: 826610800
I0403 15:03:47.645268 11495 layer_factory.hpp:77] Creating layer fc7
I0403 15:03:47.645287 11495 net.cpp:91] Creating Layer fc7
I0403 15:03:47.645303 11495 net.cpp:425] fc7 <- fc6
I0403 15:03:47.645323 11495 net.cpp:399] fc7 -> fc7
I0403 15:03:48.324717 11495 net.cpp:141] Setting up fc7
I0403 15:03:48.324796 11495 net.cpp:148] Top shape: 100 4096 (409600)
I0403 15:03:48.324812 11495 net.cpp:156] Memory required for data: 828249200
I0403 15:03:48.324832 11495 layer_factory.hpp:77] Creating layer relu7
I0403 15:03:48.324854 11495 net.cpp:91] Creating Layer relu7
I0403 15:03:48.324872 11495 net.cpp:425] relu7 <- fc7
I0403 15:03:48.324892 11495 net.cpp:386] relu7 -> fc7 (in-place)
I0403 15:03:48.325266 11495 net.cpp:141] Setting up relu7
I0403 15:03:48.325294 11495 net.cpp:148] Top shape: 100 4096 (409600)
I0403 15:03:48.325345 11495 net.cpp:156] Memory required for data: 829887600
I0403 15:03:48.325361 11495 layer_factory.hpp:77] Creating layer drop7
I0403 15:03:48.325378 11495 net.cpp:91] Creating Layer drop7
I0403 15:03:48.325394 11495 net.cpp:425] drop7 <- fc7
I0403 15:03:48.325414 11495 net.cpp:386] drop7 -> fc7 (in-place)
I0403 15:03:48.325454 11495 net.cpp:141] Setting up drop7
I0403 15:03:48.325479 11495 net.cpp:148] Top shape: 100 4096 (409600)
I0403 15:03:48.325495 11495 net.cpp:156] Memory required for data: 831526000
I0403 15:03:48.325508 11495 layer_factory.hpp:77] Creating layer fc8_plantvillage
I0403 15:03:48.325528 11495 net.cpp:91] Creating Layer fc8_plantvillage
I0403 15:03:48.325543 11495 net.cpp:425] fc8_plantvillage <- fc7
I0403 15:03:48.325563 11495 net.cpp:399] fc8_plantvillage -> fc8_plantvillage
I0403 15:03:48.332265 11495 net.cpp:141] Setting up fc8_plantvillage
I0403 15:03:48.332294 11495 net.cpp:148] Top shape: 100 38 (3800)
I0403 15:03:48.332310 11495 net.cpp:156] Memory required for data: 831541200
I0403 15:03:48.332329 11495 layer_factory.hpp:77] Creating layer fc8_plantvillage_fc8_plantvillage_0_split
I0403 15:03:48.332350 11495 net.cpp:91] Creating Layer fc8_plantvillage_fc8_plantvillage_0_split
I0403 15:03:48.332365 11495 net.cpp:425] fc8_plantvillage_fc8_plantvillage_0_split <- fc8_plantvillage
I0403 15:03:48.332384 11495 net.cpp:399] fc8_plantvillage_fc8_plantvillage_0_split -> fc8_plantvillage_fc8_plantvillage_0_split_0
I0403 15:03:48.332404 11495 net.cpp:399] fc8_plantvillage_fc8_plantvillage_0_split -> fc8_plantvillage_fc8_plantvillage_0_split_1
I0403 15:03:48.332424 11495 net.cpp:399] fc8_plantvillage_fc8_plantvillage_0_split -> fc8_plantvillage_fc8_plantvillage_0_split_2
I0403 15:03:48.332499 11495 net.cpp:141] Setting up fc8_plantvillage_fc8_plantvillage_0_split
I0403 15:03:48.332523 11495 net.cpp:148] Top shape: 100 38 (3800)
I0403 15:03:48.332540 11495 net.cpp:148] Top shape: 100 38 (3800)
I0403 15:03:48.332556 11495 net.cpp:148] Top shape: 100 38 (3800)
I0403 15:03:48.332571 11495 net.cpp:156] Memory required for data: 831586800
I0403 15:03:48.332587 11495 layer_factory.hpp:77] Creating layer prob
I0403 15:03:48.332604 11495 net.cpp:91] Creating Layer prob
I0403 15:03:48.332620 11495 net.cpp:425] prob <- fc8_plantvillage_fc8_plantvillage_0_split_0
I0403 15:03:48.332639 11495 net.cpp:399] prob -> prob
I0403 15:03:48.332860 11495 net.cpp:141] Setting up prob
I0403 15:03:48.332886 11495 net.cpp:148] Top shape: 100 38 (3800)
I0403 15:03:48.332901 11495 net.cpp:156] Memory required for data: 831602000
I0403 15:03:48.332916 11495 layer_factory.hpp:77] Creating layer hdf5out
I0403 15:03:48.332937 11495 net.cpp:91] Creating Layer hdf5out
I0403 15:03:48.332952 11495 net.cpp:425] hdf5out <- prob
I0403 15:03:48.332968 11495 net.cpp:425] hdf5out <- label_data_1_split_0
I0403 15:03:48.335142 11495 net.cpp:141] Setting up hdf5out
…
