…
I0403 14:36:17.890352 10868 net.cpp:313] The NetState phase (1) differed from the phase (0) specified by a rule in layer data
I0403 14:36:17.890655 10868 net.cpp:49] Initializing net from parameters: 
state {
  phase: TEST
}
layer {
  name: "data"
  type: "Data"
  top: "data"
  top: "label"
  include {
    phase: TEST
  }
  transform_param {
    crop_size: 227
    mean_file: "/home/mohanty/data/final_dataset/lmdb/grayscale-50-50/mean.binaryproto"
  }
  data_param {
    source: "/home/mohanty/data/final_dataset/lmdb/grayscale-50-50/test_db"
    batch_size: 100
    backend: LMDB
  }
}
layer {
  name: "conv1"
  type: "Convolution"
  bottom: "data"
  top: "conv1"
  param {
    lr_mult: 1
    decay_mult: 1
  }
  param {
    lr_mult: 2
    decay_mult: 0
  }
  convolution_param {
    num_output: 96
    kernel_size: 11
    stride: 4
    weight_filler {
      type: "gaussian"
      std: 0.01
    }
    bias_filler {
      type: "constant"
      value: 0
    }
  }
}
layer {
  name: "relu1"
  type: "ReLU"
  bottom: "conv1"
  top: "conv1"
}
layer {
  name: "norm1"
  type: "LRN"
  bottom: "conv1"
  top: "norm1"
  lrn_param {
    local_size: 5
    alpha: 0.0001
    beta: 0.75
  }
}
layer {
  name: "pool1"
  type: "Pooling"
  bottom: "norm1"
  top: "pool1"
  pooling_param {
    pool: MAX
    kernel_size: 3
    stride: 2
  }
}
layer {
  name: "conv2"
  type: "Convolution"
  bottom: "pool1"
  top: "conv2"
  param {
    lr_mult: 1
    decay_mult: 1
  }
  param {
    lr_mult: 2
    decay_mult: 0
  }
  convolution_param {
    num_output: 256
    pad: 2
    kernel_size: 5
    group: 2
    weight_filler {
      type: "gaussian"
      std: 0.01
    }
    bias_filler {
      type: "constant"
      value: 0.1
    }
  }
}
layer {
  name: "relu2"
  type: "ReLU"
  bottom: "conv2"
  top: "conv2"
}
layer {
  name: "norm2"
  type: "LRN"
  bottom: "conv2"
  top: "norm2"
  lrn_param {
    local_size: 5
    alpha: 0.0001
    beta: 0.75
  }
}
layer {
  name: "pool2"
  type: "Pooling"
  bottom: "norm2"
  top: "pool2"
  pooling_param {
    pool: MAX
    kernel_size: 3
    stride: 2
  }
}
layer {
  name: "conv3"
  type: "Convolution"
  bottom: "pool2"
  top: "conv3"
  param {
    lr_mult: 1
    decay_mult: 1
  }
  param {
    lr_mult: 2
    decay_mult: 0
  }
  convolution_param {
    num_output: 384
    pad: 1
    kernel_size: 3
    weight_filler {
      type: "gaussian"
      std: 0.01
    }
    bias_filler {
      type: "constant"
      value: 0
    }
  }
}
layer {
  name: "relu3"
  type: "ReLU"
  bottom: "conv3"
  top: "conv3"
}
layer {
  name: "conv4"
  type: "Convolution"
  bottom: "conv3"
  top: "conv4"
  param {
    lr_mult: 1
    decay_mult: 1
  }
  param {
    lr_mult: 2
    decay_mult: 0
  }
  convolution_param {
    num_output: 384
    pad: 1
    kernel_size: 3
    group: 2
    weight_filler {
      type: "gaussian"
      std: 0.01
    }
    bias_filler {
      type: "constant"
      value: 0.1
    }
  }
}
layer {
  name: "relu4"
  type: "ReLU"
  bottom: "conv4"
  top: "conv4"
}
layer {
  name: "conv5"
  type: "Convolution"
  bottom: "conv4"
  top: "conv5"
  param {
    lr_mult: 1
    decay_mult: 1
  }
  param {
    lr_mult: 2
    decay_mult: 0
  }
  convolution_param {
    num_output: 256
    pad: 1
    kernel_size: 3
    group: 2
    weight_filler {
      type: "gaussian"
      std: 0.01
    }
    bias_filler {
      type: "constant"
      value: 0.1
    }
  }
}
layer {
  name: "relu5"
  type: "ReLU"
  bottom: "conv5"
  top: "conv5"
}
layer {
  name: "pool5"
  type: "Pooling"
  bottom: "conv5"
  top: "pool5"
  pooling_param {
    pool: MAX
    kernel_size: 3
    stride: 2
  }
}
layer {
  name: "fc6"
  type: "InnerProduct"
  bottom: "pool5"
  top: "fc6"
  param {
    lr_mult: 1
    decay_mult: 1
  }
  param {
    lr_mult: 2
    decay_mult: 0
  }
  inner_product_param {
    num_output: 4096
    weight_filler {
      type: "gaussian"
      std: 0.005
    }
    bias_filler {
      type: "constant"
      value: 0.1
    }
  }
}
layer {
  name: "relu6"
  type: "ReLU"
  bottom: "fc6"
  top: "fc6"
}
layer {
  name: "drop6"
  type: "Dropout"
  bottom: "fc6"
  top: "fc6"
  dropout_param {
    dropout_ratio: 0.5
  }
}
layer {
  name: "fc7"
  type: "InnerProduct"
  bottom: "fc6"
  top: "fc7"
  param {
    lr_mult: 1
    decay_mult: 1
  }
  param {
    lr_mult: 2
    decay_mult: 0
  }
  inner_product_param {
    num_output: 4096
    weight_filler {
      type: "gaussian"
      std: 0.005
    }
    bias_filler {
      type: "constant"
      value: 0.1
    }
  }
}
layer {
  name: "relu7"
  type: "ReLU"
  bottom: "fc7"
  top: "fc7"
}
layer {
  name: "drop7"
  type: "Dropout"
  bottom: "fc7"
  top: "fc7"
  dropout_param {
    dropout_ratio: 0.5
  }
}
layer {
  name: "fc8_plantvillage"
  type: "InnerProduct"
  bottom: "fc7"
  top: "fc8_plantvillage"
  param {
    lr_mult: 1
    decay_mult: 1
  }
  param {
    lr_mult: 2
    decay_mult: 0
  }
  inner_product_param {
    num_output: 38
    weight_filler {
      type: "gaussian"
      std: 0.01
    }
    bias_filler {
      type: "constant"
      value: 0
    }
  }
}
layer {
  name: "prob"
  type: "Softmax"
  bottom: "fc8_plantvillage"
  top: "prob"
  include {
    phase: TEST
  }
}
layer {
  name: "hdf5out"
  type: "HDF5Output"
  bottom: "prob"
  bottom: "label"
  include {
    phase: TEST
  }
  hdf5_output_param {
    file_name: "hdf5_dumps/iter_534.h5"
  }
}
layer {
  name: "loss"
  type: "SoftmaxWithLoss"
  bottom: "fc8_plantvillage"
  bottom: "label"
  top: "loss"
}
layer {
  name: "accuracy"
  type: "Accuracy"
  bottom: "fc8_plantvillage"
  bottom: "label"
  top: "accuracy"
  include {
    phase: TEST
  }
}
I0403 14:36:17.891178 10868 layer_factory.hpp:77] Creating layer data
I0403 14:36:17.891821 10868 net.cpp:91] Creating Layer data
I0403 14:36:17.891850 10868 net.cpp:399] data -> data
I0403 14:36:17.891901 10868 net.cpp:399] data -> label
I0403 14:36:17.891937 10868 data_transformer.cpp:25] Loading mean file from: /home/mohanty/data/final_dataset/lmdb/grayscale-50-50/mean.binaryproto
I0403 14:36:17.898212 10871 db_lmdb.cpp:38] Opened lmdb /home/mohanty/data/final_dataset/lmdb/grayscale-50-50/test_db
I0403 14:36:17.908692 10868 data_layer.cpp:41] output data size: 100,3,227,227
I0403 14:36:18.030539 10868 net.cpp:141] Setting up data
I0403 14:36:18.030625 10868 net.cpp:148] Top shape: 100 3 227 227 (15458700)
I0403 14:36:18.030650 10868 net.cpp:148] Top shape: 100 (100)
I0403 14:36:18.030666 10868 net.cpp:156] Memory required for data: 61835200
I0403 14:36:18.030696 10868 layer_factory.hpp:77] Creating layer label_data_1_split
I0403 14:36:18.030731 10868 net.cpp:91] Creating Layer label_data_1_split
I0403 14:36:18.030760 10868 net.cpp:425] label_data_1_split <- label
I0403 14:36:18.030791 10868 net.cpp:399] label_data_1_split -> label_data_1_split_0
I0403 14:36:18.030818 10868 net.cpp:399] label_data_1_split -> label_data_1_split_1
I0403 14:36:18.030839 10868 net.cpp:399] label_data_1_split -> label_data_1_split_2
I0403 14:36:18.030905 10868 net.cpp:141] Setting up label_data_1_split
I0403 14:36:18.030930 10868 net.cpp:148] Top shape: 100 (100)
I0403 14:36:18.030946 10868 net.cpp:148] Top shape: 100 (100)
I0403 14:36:18.030962 10868 net.cpp:148] Top shape: 100 (100)
I0403 14:36:18.030977 10868 net.cpp:156] Memory required for data: 61836400
I0403 14:36:18.030992 10868 layer_factory.hpp:77] Creating layer conv1
I0403 14:36:18.031024 10868 net.cpp:91] Creating Layer conv1
I0403 14:36:18.031044 10868 net.cpp:425] conv1 <- data
I0403 14:36:18.031064 10868 net.cpp:399] conv1 -> conv1
I0403 14:36:18.173887 10868 net.cpp:141] Setting up conv1
I0403 14:36:18.173940 10868 net.cpp:148] Top shape: 100 96 55 55 (29040000)
I0403 14:36:18.173959 10868 net.cpp:156] Memory required for data: 177996400
I0403 14:36:18.173991 10868 layer_factory.hpp:77] Creating layer relu1
I0403 14:36:18.174021 10868 net.cpp:91] Creating Layer relu1
I0403 14:36:18.174041 10868 net.cpp:425] relu1 <- conv1
I0403 14:36:18.174062 10868 net.cpp:386] relu1 -> conv1 (in-place)
I0403 14:36:18.174335 10868 net.cpp:141] Setting up relu1
I0403 14:36:18.174365 10868 net.cpp:148] Top shape: 100 96 55 55 (29040000)
I0403 14:36:18.174413 10868 net.cpp:156] Memory required for data: 294156400
I0403 14:36:18.174432 10868 layer_factory.hpp:77] Creating layer norm1
I0403 14:36:18.174459 10868 net.cpp:91] Creating Layer norm1
I0403 14:36:18.174479 10868 net.cpp:425] norm1 <- conv1
I0403 14:36:18.174497 10868 net.cpp:399] norm1 -> norm1
I0403 14:36:18.174811 10868 net.cpp:141] Setting up norm1
I0403 14:36:18.174840 10868 net.cpp:148] Top shape: 100 96 55 55 (29040000)
I0403 14:36:18.174856 10868 net.cpp:156] Memory required for data: 410316400
I0403 14:36:18.174872 10868 layer_factory.hpp:77] Creating layer pool1
I0403 14:36:18.174896 10868 net.cpp:91] Creating Layer pool1
I0403 14:36:18.174913 10868 net.cpp:425] pool1 <- norm1
I0403 14:36:18.174933 10868 net.cpp:399] pool1 -> pool1
I0403 14:36:18.175001 10868 net.cpp:141] Setting up pool1
I0403 14:36:18.175027 10868 net.cpp:148] Top shape: 100 96 27 27 (6998400)
I0403 14:36:18.175042 10868 net.cpp:156] Memory required for data: 438310000
I0403 14:36:18.175058 10868 layer_factory.hpp:77] Creating layer conv2
I0403 14:36:18.175084 10868 net.cpp:91] Creating Layer conv2
I0403 14:36:18.175101 10868 net.cpp:425] conv2 <- pool1
I0403 14:36:18.175119 10868 net.cpp:399] conv2 -> conv2
I0403 14:36:18.190753 10868 net.cpp:141] Setting up conv2
I0403 14:36:18.190804 10868 net.cpp:148] Top shape: 100 256 27 27 (18662400)
I0403 14:36:18.190821 10868 net.cpp:156] Memory required for data: 512959600
I0403 14:36:18.190845 10868 layer_factory.hpp:77] Creating layer relu2
I0403 14:36:18.190867 10868 net.cpp:91] Creating Layer relu2
I0403 14:36:18.190884 10868 net.cpp:425] relu2 <- conv2
I0403 14:36:18.190903 10868 net.cpp:386] relu2 -> conv2 (in-place)
I0403 14:36:18.191189 10868 net.cpp:141] Setting up relu2
I0403 14:36:18.191220 10868 net.cpp:148] Top shape: 100 256 27 27 (18662400)
I0403 14:36:18.191265 10868 net.cpp:156] Memory required for data: 587609200
I0403 14:36:18.191282 10868 layer_factory.hpp:77] Creating layer norm2
I0403 14:36:18.191303 10868 net.cpp:91] Creating Layer norm2
I0403 14:36:18.191320 10868 net.cpp:425] norm2 <- conv2
I0403 14:36:18.191342 10868 net.cpp:399] norm2 -> norm2
I0403 14:36:18.191546 10868 net.cpp:141] Setting up norm2
I0403 14:36:18.191575 10868 net.cpp:148] Top shape: 100 256 27 27 (18662400)
I0403 14:36:18.191593 10868 net.cpp:156] Memory required for data: 662258800
I0403 14:36:18.191609 10868 layer_factory.hpp:77] Creating layer pool2
I0403 14:36:18.191627 10868 net.cpp:91] Creating Layer pool2
I0403 14:36:18.191653 10868 net.cpp:425] pool2 <- norm2
I0403 14:36:18.191670 10868 net.cpp:399] pool2 -> pool2
I0403 14:36:18.191730 10868 net.cpp:141] Setting up pool2
I0403 14:36:18.191761 10868 net.cpp:148] Top shape: 100 256 13 13 (4326400)
I0403 14:36:18.191798 10868 net.cpp:156] Memory required for data: 679564400
I0403 14:36:18.191814 10868 layer_factory.hpp:77] Creating layer conv3
I0403 14:36:18.191840 10868 net.cpp:91] Creating Layer conv3
I0403 14:36:18.191859 10868 net.cpp:425] conv3 <- pool2
I0403 14:36:18.191880 10868 net.cpp:399] conv3 -> conv3
I0403 14:36:18.231956 10868 net.cpp:141] Setting up conv3
I0403 14:36:18.232024 10868 net.cpp:148] Top shape: 100 384 13 13 (6489600)
I0403 14:36:18.232041 10868 net.cpp:156] Memory required for data: 705522800
I0403 14:36:18.232069 10868 layer_factory.hpp:77] Creating layer relu3
I0403 14:36:18.232095 10868 net.cpp:91] Creating Layer relu3
I0403 14:36:18.232115 10868 net.cpp:425] relu3 <- conv3
I0403 14:36:18.232134 10868 net.cpp:386] relu3 -> conv3 (in-place)
I0403 14:36:18.232436 10868 net.cpp:141] Setting up relu3
I0403 14:36:18.232465 10868 net.cpp:148] Top shape: 100 384 13 13 (6489600)
I0403 14:36:18.232481 10868 net.cpp:156] Memory required for data: 731481200
I0403 14:36:18.232496 10868 layer_factory.hpp:77] Creating layer conv4
I0403 14:36:18.232523 10868 net.cpp:91] Creating Layer conv4
I0403 14:36:18.232542 10868 net.cpp:425] conv4 <- conv3
I0403 14:36:18.232563 10868 net.cpp:399] conv4 -> conv4
I0403 14:36:18.263850 10868 net.cpp:141] Setting up conv4
I0403 14:36:18.263891 10868 net.cpp:148] Top shape: 100 384 13 13 (6489600)
I0403 14:36:18.263945 10868 net.cpp:156] Memory required for data: 757439600
I0403 14:36:18.263968 10868 layer_factory.hpp:77] Creating layer relu4
I0403 14:36:18.263994 10868 net.cpp:91] Creating Layer relu4
I0403 14:36:18.264013 10868 net.cpp:425] relu4 <- conv4
I0403 14:36:18.264034 10868 net.cpp:386] relu4 -> conv4 (in-place)
I0403 14:36:18.264333 10868 net.cpp:141] Setting up relu4
I0403 14:36:18.264363 10868 net.cpp:148] Top shape: 100 384 13 13 (6489600)
I0403 14:36:18.264379 10868 net.cpp:156] Memory required for data: 783398000
I0403 14:36:18.264394 10868 layer_factory.hpp:77] Creating layer conv5
I0403 14:36:18.264420 10868 net.cpp:91] Creating Layer conv5
I0403 14:36:18.264437 10868 net.cpp:425] conv5 <- conv4
I0403 14:36:18.264461 10868 net.cpp:399] conv5 -> conv5
I0403 14:36:18.286099 10868 net.cpp:141] Setting up conv5
I0403 14:36:18.286154 10868 net.cpp:148] Top shape: 100 256 13 13 (4326400)
I0403 14:36:18.286176 10868 net.cpp:156] Memory required for data: 800703600
I0403 14:36:18.286214 10868 layer_factory.hpp:77] Creating layer relu5
I0403 14:36:18.286242 10868 net.cpp:91] Creating Layer relu5
I0403 14:36:18.286267 10868 net.cpp:425] relu5 <- conv5
I0403 14:36:18.286286 10868 net.cpp:386] relu5 -> conv5 (in-place)
I0403 14:36:18.286573 10868 net.cpp:141] Setting up relu5
I0403 14:36:18.286604 10868 net.cpp:148] Top shape: 100 256 13 13 (4326400)
I0403 14:36:18.286623 10868 net.cpp:156] Memory required for data: 818009200
I0403 14:36:18.286638 10868 layer_factory.hpp:77] Creating layer pool5
I0403 14:36:18.286660 10868 net.cpp:91] Creating Layer pool5
I0403 14:36:18.286677 10868 net.cpp:425] pool5 <- conv5
I0403 14:36:18.286700 10868 net.cpp:399] pool5 -> pool5
I0403 14:36:18.286767 10868 net.cpp:141] Setting up pool5
I0403 14:36:18.286792 10868 net.cpp:148] Top shape: 100 256 6 6 (921600)
I0403 14:36:18.286808 10868 net.cpp:156] Memory required for data: 821695600
I0403 14:36:18.286823 10868 layer_factory.hpp:77] Creating layer fc6
I0403 14:36:18.286852 10868 net.cpp:91] Creating Layer fc6
I0403 14:36:18.286872 10868 net.cpp:425] fc6 <- pool5
I0403 14:36:18.286895 10868 net.cpp:399] fc6 -> fc6
I0403 14:36:19.875666 10868 net.cpp:141] Setting up fc6
I0403 14:36:19.875713 10868 net.cpp:148] Top shape: 100 4096 (409600)
I0403 14:36:19.875730 10868 net.cpp:156] Memory required for data: 823334000
I0403 14:36:19.875751 10868 layer_factory.hpp:77] Creating layer relu6
I0403 14:36:19.875774 10868 net.cpp:91] Creating Layer relu6
I0403 14:36:19.875792 10868 net.cpp:425] relu6 <- fc6
I0403 14:36:19.875813 10868 net.cpp:386] relu6 -> fc6 (in-place)
I0403 14:36:19.876029 10868 net.cpp:141] Setting up relu6
I0403 14:36:19.876060 10868 net.cpp:148] Top shape: 100 4096 (409600)
I0403 14:36:19.876075 10868 net.cpp:156] Memory required for data: 824972400
I0403 14:36:19.876091 10868 layer_factory.hpp:77] Creating layer drop6
I0403 14:36:19.876108 10868 net.cpp:91] Creating Layer drop6
I0403 14:36:19.876123 10868 net.cpp:425] drop6 <- fc6
I0403 14:36:19.876142 10868 net.cpp:386] drop6 -> fc6 (in-place)
I0403 14:36:19.876197 10868 net.cpp:141] Setting up drop6
I0403 14:36:19.876222 10868 net.cpp:148] Top shape: 100 4096 (409600)
I0403 14:36:19.876237 10868 net.cpp:156] Memory required for data: 826610800
I0403 14:36:19.876252 10868 layer_factory.hpp:77] Creating layer fc7
I0403 14:36:19.876273 10868 net.cpp:91] Creating Layer fc7
I0403 14:36:19.876289 10868 net.cpp:425] fc7 <- fc6
I0403 14:36:19.876307 10868 net.cpp:399] fc7 -> fc7
I0403 14:36:20.580029 10868 net.cpp:141] Setting up fc7
I0403 14:36:20.580072 10868 net.cpp:148] Top shape: 100 4096 (409600)
I0403 14:36:20.580090 10868 net.cpp:156] Memory required for data: 828249200
I0403 14:36:20.580112 10868 layer_factory.hpp:77] Creating layer relu7
I0403 14:36:20.580137 10868 net.cpp:91] Creating Layer relu7
I0403 14:36:20.580162 10868 net.cpp:425] relu7 <- fc7
I0403 14:36:20.580183 10868 net.cpp:386] relu7 -> fc7 (in-place)
I0403 14:36:20.580590 10868 net.cpp:141] Setting up relu7
I0403 14:36:20.580620 10868 net.cpp:148] Top shape: 100 4096 (409600)
I0403 14:36:20.580658 10868 net.cpp:156] Memory required for data: 829887600
I0403 14:36:20.580684 10868 layer_factory.hpp:77] Creating layer drop7
I0403 14:36:20.580713 10868 net.cpp:91] Creating Layer drop7
I0403 14:36:20.580736 10868 net.cpp:425] drop7 <- fc7
I0403 14:36:20.580762 10868 net.cpp:386] drop7 -> fc7 (in-place)
I0403 14:36:20.580809 10868 net.cpp:141] Setting up drop7
I0403 14:36:20.580833 10868 net.cpp:148] Top shape: 100 4096 (409600)
I0403 14:36:20.580848 10868 net.cpp:156] Memory required for data: 831526000
I0403 14:36:20.580864 10868 layer_factory.hpp:77] Creating layer fc8_plantvillage
I0403 14:36:20.580885 10868 net.cpp:91] Creating Layer fc8_plantvillage
I0403 14:36:20.580901 10868 net.cpp:425] fc8_plantvillage <- fc7
I0403 14:36:20.580922 10868 net.cpp:399] fc8_plantvillage -> fc8_plantvillage
I0403 14:36:20.588062 10868 net.cpp:141] Setting up fc8_plantvillage
I0403 14:36:20.588094 10868 net.cpp:148] Top shape: 100 38 (3800)
I0403 14:36:20.588111 10868 net.cpp:156] Memory required for data: 831541200
I0403 14:36:20.588131 10868 layer_factory.hpp:77] Creating layer fc8_plantvillage_fc8_plantvillage_0_split
I0403 14:36:20.588151 10868 net.cpp:91] Creating Layer fc8_plantvillage_fc8_plantvillage_0_split
I0403 14:36:20.588176 10868 net.cpp:425] fc8_plantvillage_fc8_plantvillage_0_split <- fc8_plantvillage
I0403 14:36:20.588194 10868 net.cpp:399] fc8_plantvillage_fc8_plantvillage_0_split -> fc8_plantvillage_fc8_plantvillage_0_split_0
I0403 14:36:20.588215 10868 net.cpp:399] fc8_plantvillage_fc8_plantvillage_0_split -> fc8_plantvillage_fc8_plantvillage_0_split_1
I0403 14:36:20.588239 10868 net.cpp:399] fc8_plantvillage_fc8_plantvillage_0_split -> fc8_plantvillage_fc8_plantvillage_0_split_2
I0403 14:36:20.588321 10868 net.cpp:141] Setting up fc8_plantvillage_fc8_plantvillage_0_split
I0403 14:36:20.588351 10868 net.cpp:148] Top shape: 100 38 (3800)
I0403 14:36:20.588374 10868 net.cpp:148] Top shape: 100 38 (3800)
I0403 14:36:20.588392 10868 net.cpp:148] Top shape: 100 38 (3800)
I0403 14:36:20.588405 10868 net.cpp:156] Memory required for data: 831586800
I0403 14:36:20.588420 10868 layer_factory.hpp:77] Creating layer prob
I0403 14:36:20.588440 10868 net.cpp:91] Creating Layer prob
I0403 14:36:20.588457 10868 net.cpp:425] prob <- fc8_plantvillage_fc8_plantvillage_0_split_0
I0403 14:36:20.588476 10868 net.cpp:399] prob -> prob
I0403 14:36:20.588714 10868 net.cpp:141] Setting up prob
I0403 14:36:20.588742 10868 net.cpp:148] Top shape: 100 38 (3800)
I0403 14:36:20.588757 10868 net.cpp:156] Memory required for data: 831602000
I0403 14:36:20.588773 10868 layer_factory.hpp:77] Creating layer hdf5out
I0403 14:36:20.588796 10868 net.cpp:91] Creating Layer hdf5out
I0403 14:36:20.588814 10868 net.cpp:425] hdf5out <- prob
I0403 14:36:20.588830 10868 net.cpp:425] hdf5out <- label_data_1_split_0
I0403 14:36:20.591404 10868 net.cpp:141] Setting up hdf5out
…
