…
I0403 14:38:11.319031 10907 net.cpp:313] The NetState phase (1) differed from the phase (0) specified by a rule in layer data
I0403 14:38:11.319329 10907 net.cpp:49] Initializing net from parameters: 
state {
  phase: TEST
}
layer {
  name: "data"
  type: "Data"
  top: "data"
  top: "label"
  include {
    phase: TEST
  }
  transform_param {
    crop_size: 227
    mean_file: "/home/mohanty/data/final_dataset/lmdb/grayscale-50-50/mean.binaryproto"
  }
  data_param {
    source: "/home/mohanty/data/final_dataset/lmdb/grayscale-50-50/test_db"
    batch_size: 100
    backend: LMDB
  }
}
layer {
  name: "conv1"
  type: "Convolution"
  bottom: "data"
  top: "conv1"
  param {
    lr_mult: 1
    decay_mult: 1
  }
  param {
    lr_mult: 2
    decay_mult: 0
  }
  convolution_param {
    num_output: 96
    kernel_size: 11
    stride: 4
    weight_filler {
      type: "gaussian"
      std: 0.01
    }
    bias_filler {
      type: "constant"
      value: 0
    }
  }
}
layer {
  name: "relu1"
  type: "ReLU"
  bottom: "conv1"
  top: "conv1"
}
layer {
  name: "norm1"
  type: "LRN"
  bottom: "conv1"
  top: "norm1"
  lrn_param {
    local_size: 5
    alpha: 0.0001
    beta: 0.75
  }
}
layer {
  name: "pool1"
  type: "Pooling"
  bottom: "norm1"
  top: "pool1"
  pooling_param {
    pool: MAX
    kernel_size: 3
    stride: 2
  }
}
layer {
  name: "conv2"
  type: "Convolution"
  bottom: "pool1"
  top: "conv2"
  param {
    lr_mult: 1
    decay_mult: 1
  }
  param {
    lr_mult: 2
    decay_mult: 0
  }
  convolution_param {
    num_output: 256
    pad: 2
    kernel_size: 5
    group: 2
    weight_filler {
      type: "gaussian"
      std: 0.01
    }
    bias_filler {
      type: "constant"
      value: 0.1
    }
  }
}
layer {
  name: "relu2"
  type: "ReLU"
  bottom: "conv2"
  top: "conv2"
}
layer {
  name: "norm2"
  type: "LRN"
  bottom: "conv2"
  top: "norm2"
  lrn_param {
    local_size: 5
    alpha: 0.0001
    beta: 0.75
  }
}
layer {
  name: "pool2"
  type: "Pooling"
  bottom: "norm2"
  top: "pool2"
  pooling_param {
    pool: MAX
    kernel_size: 3
    stride: 2
  }
}
layer {
  name: "conv3"
  type: "Convolution"
  bottom: "pool2"
  top: "conv3"
  param {
    lr_mult: 1
    decay_mult: 1
  }
  param {
    lr_mult: 2
    decay_mult: 0
  }
  convolution_param {
    num_output: 384
    pad: 1
    kernel_size: 3
    weight_filler {
      type: "gaussian"
      std: 0.01
    }
    bias_filler {
      type: "constant"
      value: 0
    }
  }
}
layer {
  name: "relu3"
  type: "ReLU"
  bottom: "conv3"
  top: "conv3"
}
layer {
  name: "conv4"
  type: "Convolution"
  bottom: "conv3"
  top: "conv4"
  param {
    lr_mult: 1
    decay_mult: 1
  }
  param {
    lr_mult: 2
    decay_mult: 0
  }
  convolution_param {
    num_output: 384
    pad: 1
    kernel_size: 3
    group: 2
    weight_filler {
      type: "gaussian"
      std: 0.01
    }
    bias_filler {
      type: "constant"
      value: 0.1
    }
  }
}
layer {
  name: "relu4"
  type: "ReLU"
  bottom: "conv4"
  top: "conv4"
}
layer {
  name: "conv5"
  type: "Convolution"
  bottom: "conv4"
  top: "conv5"
  param {
    lr_mult: 1
    decay_mult: 1
  }
  param {
    lr_mult: 2
    decay_mult: 0
  }
  convolution_param {
    num_output: 256
    pad: 1
    kernel_size: 3
    group: 2
    weight_filler {
      type: "gaussian"
      std: 0.01
    }
    bias_filler {
      type: "constant"
      value: 0.1
    }
  }
}
layer {
  name: "relu5"
  type: "ReLU"
  bottom: "conv5"
  top: "conv5"
}
layer {
  name: "pool5"
  type: "Pooling"
  bottom: "conv5"
  top: "pool5"
  pooling_param {
    pool: MAX
    kernel_size: 3
    stride: 2
  }
}
layer {
  name: "fc6"
  type: "InnerProduct"
  bottom: "pool5"
  top: "fc6"
  param {
    lr_mult: 1
    decay_mult: 1
  }
  param {
    lr_mult: 2
    decay_mult: 0
  }
  inner_product_param {
    num_output: 4096
    weight_filler {
      type: "gaussian"
      std: 0.005
    }
    bias_filler {
      type: "constant"
      value: 0.1
    }
  }
}
layer {
  name: "relu6"
  type: "ReLU"
  bottom: "fc6"
  top: "fc6"
}
layer {
  name: "drop6"
  type: "Dropout"
  bottom: "fc6"
  top: "fc6"
  dropout_param {
    dropout_ratio: 0.5
  }
}
layer {
  name: "fc7"
  type: "InnerProduct"
  bottom: "fc6"
  top: "fc7"
  param {
    lr_mult: 1
    decay_mult: 1
  }
  param {
    lr_mult: 2
    decay_mult: 0
  }
  inner_product_param {
    num_output: 4096
    weight_filler {
      type: "gaussian"
      std: 0.005
    }
    bias_filler {
      type: "constant"
      value: 0.1
    }
  }
}
layer {
  name: "relu7"
  type: "ReLU"
  bottom: "fc7"
  top: "fc7"
}
layer {
  name: "drop7"
  type: "Dropout"
  bottom: "fc7"
  top: "fc7"
  dropout_param {
    dropout_ratio: 0.5
  }
}
layer {
  name: "fc8_plantvillage"
  type: "InnerProduct"
  bottom: "fc7"
  top: "fc8_plantvillage"
  param {
    lr_mult: 1
    decay_mult: 1
  }
  param {
    lr_mult: 2
    decay_mult: 0
  }
  inner_product_param {
    num_output: 38
    weight_filler {
      type: "gaussian"
      std: 0.01
    }
    bias_filler {
      type: "constant"
      value: 0
    }
  }
}
layer {
  name: "prob"
  type: "Softmax"
  bottom: "fc8_plantvillage"
  top: "prob"
  include {
    phase: TEST
  }
}
layer {
  name: "hdf5out"
  type: "HDF5Output"
  bottom: "prob"
  bottom: "label"
  include {
    phase: TEST
  }
  hdf5_output_param {
    file_name: "hdf5_dumps/iter_1068.h5"
  }
}
layer {
  name: "loss"
  type: "SoftmaxWithLoss"
  bottom: "fc8_plantvillage"
  bottom: "label"
  top: "loss"
}
layer {
  name: "accuracy"
  type: "Accuracy"
  bottom: "fc8_plantvillage"
  bottom: "label"
  top: "accuracy"
  include {
    phase: TEST
  }
}
I0403 14:38:11.319844 10907 layer_factory.hpp:77] Creating layer data
I0403 14:38:11.320531 10907 net.cpp:91] Creating Layer data
I0403 14:38:11.320567 10907 net.cpp:399] data -> data
I0403 14:38:11.320616 10907 net.cpp:399] data -> label
I0403 14:38:11.320657 10907 data_transformer.cpp:25] Loading mean file from: /home/mohanty/data/final_dataset/lmdb/grayscale-50-50/mean.binaryproto
I0403 14:38:11.323583 10910 db_lmdb.cpp:38] Opened lmdb /home/mohanty/data/final_dataset/lmdb/grayscale-50-50/test_db
I0403 14:38:11.335077 10907 data_layer.cpp:41] output data size: 100,3,227,227
I0403 14:38:11.459810 10907 net.cpp:141] Setting up data
I0403 14:38:11.459902 10907 net.cpp:148] Top shape: 100 3 227 227 (15458700)
I0403 14:38:11.459926 10907 net.cpp:148] Top shape: 100 (100)
I0403 14:38:11.459944 10907 net.cpp:156] Memory required for data: 61835200
I0403 14:38:11.459977 10907 layer_factory.hpp:77] Creating layer label_data_1_split
I0403 14:38:11.460005 10907 net.cpp:91] Creating Layer label_data_1_split
I0403 14:38:11.460024 10907 net.cpp:425] label_data_1_split <- label
I0403 14:38:11.460058 10907 net.cpp:399] label_data_1_split -> label_data_1_split_0
I0403 14:38:11.460088 10907 net.cpp:399] label_data_1_split -> label_data_1_split_1
I0403 14:38:11.460111 10907 net.cpp:399] label_data_1_split -> label_data_1_split_2
I0403 14:38:11.460186 10907 net.cpp:141] Setting up label_data_1_split
I0403 14:38:11.460213 10907 net.cpp:148] Top shape: 100 (100)
I0403 14:38:11.460233 10907 net.cpp:148] Top shape: 100 (100)
I0403 14:38:11.460252 10907 net.cpp:148] Top shape: 100 (100)
I0403 14:38:11.460268 10907 net.cpp:156] Memory required for data: 61836400
I0403 14:38:11.460283 10907 layer_factory.hpp:77] Creating layer conv1
I0403 14:38:11.460317 10907 net.cpp:91] Creating Layer conv1
I0403 14:38:11.460338 10907 net.cpp:425] conv1 <- data
I0403 14:38:11.460361 10907 net.cpp:399] conv1 -> conv1
I0403 14:38:11.610290 10907 net.cpp:141] Setting up conv1
I0403 14:38:11.610378 10907 net.cpp:148] Top shape: 100 96 55 55 (29040000)
I0403 14:38:11.610396 10907 net.cpp:156] Memory required for data: 177996400
I0403 14:38:11.610430 10907 layer_factory.hpp:77] Creating layer relu1
I0403 14:38:11.610460 10907 net.cpp:91] Creating Layer relu1
I0403 14:38:11.610479 10907 net.cpp:425] relu1 <- conv1
I0403 14:38:11.610501 10907 net.cpp:386] relu1 -> conv1 (in-place)
I0403 14:38:11.610765 10907 net.cpp:141] Setting up relu1
I0403 14:38:11.610795 10907 net.cpp:148] Top shape: 100 96 55 55 (29040000)
I0403 14:38:11.610846 10907 net.cpp:156] Memory required for data: 294156400
I0403 14:38:11.610862 10907 layer_factory.hpp:77] Creating layer norm1
I0403 14:38:11.610891 10907 net.cpp:91] Creating Layer norm1
I0403 14:38:11.610910 10907 net.cpp:425] norm1 <- conv1
I0403 14:38:11.610930 10907 net.cpp:399] norm1 -> norm1
I0403 14:38:11.611246 10907 net.cpp:141] Setting up norm1
I0403 14:38:11.611276 10907 net.cpp:148] Top shape: 100 96 55 55 (29040000)
I0403 14:38:11.611294 10907 net.cpp:156] Memory required for data: 410316400
I0403 14:38:11.611310 10907 layer_factory.hpp:77] Creating layer pool1
I0403 14:38:11.611335 10907 net.cpp:91] Creating Layer pool1
I0403 14:38:11.611356 10907 net.cpp:425] pool1 <- norm1
I0403 14:38:11.611374 10907 net.cpp:399] pool1 -> pool1
I0403 14:38:11.611443 10907 net.cpp:141] Setting up pool1
I0403 14:38:11.611467 10907 net.cpp:148] Top shape: 100 96 27 27 (6998400)
I0403 14:38:11.611484 10907 net.cpp:156] Memory required for data: 438310000
I0403 14:38:11.611500 10907 layer_factory.hpp:77] Creating layer conv2
I0403 14:38:11.611526 10907 net.cpp:91] Creating Layer conv2
I0403 14:38:11.611544 10907 net.cpp:425] conv2 <- pool1
I0403 14:38:11.611563 10907 net.cpp:399] conv2 -> conv2
I0403 14:38:11.626868 10907 net.cpp:141] Setting up conv2
I0403 14:38:11.626927 10907 net.cpp:148] Top shape: 100 256 27 27 (18662400)
I0403 14:38:11.626946 10907 net.cpp:156] Memory required for data: 512959600
I0403 14:38:11.626971 10907 layer_factory.hpp:77] Creating layer relu2
I0403 14:38:11.626992 10907 net.cpp:91] Creating Layer relu2
I0403 14:38:11.627012 10907 net.cpp:425] relu2 <- conv2
I0403 14:38:11.627032 10907 net.cpp:386] relu2 -> conv2 (in-place)
I0403 14:38:11.627328 10907 net.cpp:141] Setting up relu2
I0403 14:38:11.627357 10907 net.cpp:148] Top shape: 100 256 27 27 (18662400)
I0403 14:38:11.627373 10907 net.cpp:156] Memory required for data: 587609200
I0403 14:38:11.627390 10907 layer_factory.hpp:77] Creating layer norm2
I0403 14:38:11.627418 10907 net.cpp:91] Creating Layer norm2
I0403 14:38:11.627437 10907 net.cpp:425] norm2 <- conv2
I0403 14:38:11.627456 10907 net.cpp:399] norm2 -> norm2
I0403 14:38:11.627666 10907 net.cpp:141] Setting up norm2
I0403 14:38:11.627696 10907 net.cpp:148] Top shape: 100 256 27 27 (18662400)
I0403 14:38:11.627714 10907 net.cpp:156] Memory required for data: 662258800
I0403 14:38:11.627732 10907 layer_factory.hpp:77] Creating layer pool2
I0403 14:38:11.627750 10907 net.cpp:91] Creating Layer pool2
I0403 14:38:11.627766 10907 net.cpp:425] pool2 <- norm2
I0403 14:38:11.627789 10907 net.cpp:399] pool2 -> pool2
I0403 14:38:11.627845 10907 net.cpp:141] Setting up pool2
I0403 14:38:11.627872 10907 net.cpp:148] Top shape: 100 256 13 13 (4326400)
I0403 14:38:11.627889 10907 net.cpp:156] Memory required for data: 679564400
I0403 14:38:11.627907 10907 layer_factory.hpp:77] Creating layer conv3
I0403 14:38:11.627931 10907 net.cpp:91] Creating Layer conv3
I0403 14:38:11.627949 10907 net.cpp:425] conv3 <- pool2
I0403 14:38:11.627969 10907 net.cpp:399] conv3 -> conv3
I0403 14:38:11.667220 10907 net.cpp:141] Setting up conv3
I0403 14:38:11.667290 10907 net.cpp:148] Top shape: 100 384 13 13 (6489600)
I0403 14:38:11.667307 10907 net.cpp:156] Memory required for data: 705522800
I0403 14:38:11.667333 10907 layer_factory.hpp:77] Creating layer relu3
I0403 14:38:11.667357 10907 net.cpp:91] Creating Layer relu3
I0403 14:38:11.667374 10907 net.cpp:425] relu3 <- conv3
I0403 14:38:11.667395 10907 net.cpp:386] relu3 -> conv3 (in-place)
I0403 14:38:11.667670 10907 net.cpp:141] Setting up relu3
I0403 14:38:11.667698 10907 net.cpp:148] Top shape: 100 384 13 13 (6489600)
I0403 14:38:11.667714 10907 net.cpp:156] Memory required for data: 731481200
I0403 14:38:11.667731 10907 layer_factory.hpp:77] Creating layer conv4
I0403 14:38:11.667755 10907 net.cpp:91] Creating Layer conv4
I0403 14:38:11.667773 10907 net.cpp:425] conv4 <- conv3
I0403 14:38:11.667796 10907 net.cpp:399] conv4 -> conv4
I0403 14:38:11.698073 10907 net.cpp:141] Setting up conv4
I0403 14:38:11.698130 10907 net.cpp:148] Top shape: 100 384 13 13 (6489600)
I0403 14:38:11.698185 10907 net.cpp:156] Memory required for data: 757439600
I0403 14:38:11.698210 10907 layer_factory.hpp:77] Creating layer relu4
I0403 14:38:11.698233 10907 net.cpp:91] Creating Layer relu4
I0403 14:38:11.698251 10907 net.cpp:425] relu4 <- conv4
I0403 14:38:11.698271 10907 net.cpp:386] relu4 -> conv4 (in-place)
I0403 14:38:11.698565 10907 net.cpp:141] Setting up relu4
I0403 14:38:11.698607 10907 net.cpp:148] Top shape: 100 384 13 13 (6489600)
I0403 14:38:11.698629 10907 net.cpp:156] Memory required for data: 783398000
I0403 14:38:11.698647 10907 layer_factory.hpp:77] Creating layer conv5
I0403 14:38:11.698673 10907 net.cpp:91] Creating Layer conv5
I0403 14:38:11.698691 10907 net.cpp:425] conv5 <- conv4
I0403 14:38:11.698711 10907 net.cpp:399] conv5 -> conv5
I0403 14:38:11.719874 10907 net.cpp:141] Setting up conv5
I0403 14:38:11.719938 10907 net.cpp:148] Top shape: 100 256 13 13 (4326400)
I0403 14:38:11.719955 10907 net.cpp:156] Memory required for data: 800703600
I0403 14:38:11.719985 10907 layer_factory.hpp:77] Creating layer relu5
I0403 14:38:11.720006 10907 net.cpp:91] Creating Layer relu5
I0403 14:38:11.720024 10907 net.cpp:425] relu5 <- conv5
I0403 14:38:11.720046 10907 net.cpp:386] relu5 -> conv5 (in-place)
I0403 14:38:11.720340 10907 net.cpp:141] Setting up relu5
I0403 14:38:11.720369 10907 net.cpp:148] Top shape: 100 256 13 13 (4326400)
I0403 14:38:11.720386 10907 net.cpp:156] Memory required for data: 818009200
I0403 14:38:11.720403 10907 layer_factory.hpp:77] Creating layer pool5
I0403 14:38:11.720429 10907 net.cpp:91] Creating Layer pool5
I0403 14:38:11.720448 10907 net.cpp:425] pool5 <- conv5
I0403 14:38:11.720468 10907 net.cpp:399] pool5 -> pool5
I0403 14:38:11.720535 10907 net.cpp:141] Setting up pool5
I0403 14:38:11.720561 10907 net.cpp:148] Top shape: 100 256 6 6 (921600)
I0403 14:38:11.720577 10907 net.cpp:156] Memory required for data: 821695600
I0403 14:38:11.720593 10907 layer_factory.hpp:77] Creating layer fc6
I0403 14:38:11.720621 10907 net.cpp:91] Creating Layer fc6
I0403 14:38:11.720641 10907 net.cpp:425] fc6 <- pool5
I0403 14:38:11.720664 10907 net.cpp:399] fc6 -> fc6
I0403 14:38:13.273756 10907 net.cpp:141] Setting up fc6
I0403 14:38:13.273835 10907 net.cpp:148] Top shape: 100 4096 (409600)
I0403 14:38:13.273850 10907 net.cpp:156] Memory required for data: 823334000
I0403 14:38:13.273871 10907 layer_factory.hpp:77] Creating layer relu6
I0403 14:38:13.273893 10907 net.cpp:91] Creating Layer relu6
I0403 14:38:13.273910 10907 net.cpp:425] relu6 <- fc6
I0403 14:38:13.273929 10907 net.cpp:386] relu6 -> fc6 (in-place)
I0403 14:38:13.274139 10907 net.cpp:141] Setting up relu6
I0403 14:38:13.274168 10907 net.cpp:148] Top shape: 100 4096 (409600)
I0403 14:38:13.274184 10907 net.cpp:156] Memory required for data: 824972400
I0403 14:38:13.274199 10907 layer_factory.hpp:77] Creating layer drop6
I0403 14:38:13.274219 10907 net.cpp:91] Creating Layer drop6
I0403 14:38:13.274233 10907 net.cpp:425] drop6 <- fc6
I0403 14:38:13.274256 10907 net.cpp:386] drop6 -> fc6 (in-place)
I0403 14:38:13.274307 10907 net.cpp:141] Setting up drop6
I0403 14:38:13.274329 10907 net.cpp:148] Top shape: 100 4096 (409600)
I0403 14:38:13.274344 10907 net.cpp:156] Memory required for data: 826610800
I0403 14:38:13.274358 10907 layer_factory.hpp:77] Creating layer fc7
I0403 14:38:13.274381 10907 net.cpp:91] Creating Layer fc7
I0403 14:38:13.274399 10907 net.cpp:425] fc7 <- fc6
I0403 14:38:13.274420 10907 net.cpp:399] fc7 -> fc7
I0403 14:38:13.951019 10907 net.cpp:141] Setting up fc7
I0403 14:38:13.951095 10907 net.cpp:148] Top shape: 100 4096 (409600)
I0403 14:38:13.951112 10907 net.cpp:156] Memory required for data: 828249200
I0403 14:38:13.951133 10907 layer_factory.hpp:77] Creating layer relu7
I0403 14:38:13.951155 10907 net.cpp:91] Creating Layer relu7
I0403 14:38:13.951179 10907 net.cpp:425] relu7 <- fc7
I0403 14:38:13.951200 10907 net.cpp:386] relu7 -> fc7 (in-place)
I0403 14:38:13.951587 10907 net.cpp:141] Setting up relu7
I0403 14:38:13.951614 10907 net.cpp:148] Top shape: 100 4096 (409600)
I0403 14:38:13.951664 10907 net.cpp:156] Memory required for data: 829887600
I0403 14:38:13.951680 10907 layer_factory.hpp:77] Creating layer drop7
I0403 14:38:13.951699 10907 net.cpp:91] Creating Layer drop7
I0403 14:38:13.951714 10907 net.cpp:425] drop7 <- fc7
I0403 14:38:13.951735 10907 net.cpp:386] drop7 -> fc7 (in-place)
I0403 14:38:13.951776 10907 net.cpp:141] Setting up drop7
I0403 14:38:13.951804 10907 net.cpp:148] Top shape: 100 4096 (409600)
I0403 14:38:13.951819 10907 net.cpp:156] Memory required for data: 831526000
I0403 14:38:13.951834 10907 layer_factory.hpp:77] Creating layer fc8_plantvillage
I0403 14:38:13.951853 10907 net.cpp:91] Creating Layer fc8_plantvillage
I0403 14:38:13.951869 10907 net.cpp:425] fc8_plantvillage <- fc7
I0403 14:38:13.951887 10907 net.cpp:399] fc8_plantvillage -> fc8_plantvillage
I0403 14:38:13.958389 10907 net.cpp:141] Setting up fc8_plantvillage
I0403 14:38:13.958418 10907 net.cpp:148] Top shape: 100 38 (3800)
I0403 14:38:13.958433 10907 net.cpp:156] Memory required for data: 831541200
I0403 14:38:13.958452 10907 layer_factory.hpp:77] Creating layer fc8_plantvillage_fc8_plantvillage_0_split
I0403 14:38:13.958470 10907 net.cpp:91] Creating Layer fc8_plantvillage_fc8_plantvillage_0_split
I0403 14:38:13.958485 10907 net.cpp:425] fc8_plantvillage_fc8_plantvillage_0_split <- fc8_plantvillage
I0403 14:38:13.958504 10907 net.cpp:399] fc8_plantvillage_fc8_plantvillage_0_split -> fc8_plantvillage_fc8_plantvillage_0_split_0
I0403 14:38:13.958525 10907 net.cpp:399] fc8_plantvillage_fc8_plantvillage_0_split -> fc8_plantvillage_fc8_plantvillage_0_split_1
I0403 14:38:13.958546 10907 net.cpp:399] fc8_plantvillage_fc8_plantvillage_0_split -> fc8_plantvillage_fc8_plantvillage_0_split_2
I0403 14:38:13.958621 10907 net.cpp:141] Setting up fc8_plantvillage_fc8_plantvillage_0_split
I0403 14:38:13.958650 10907 net.cpp:148] Top shape: 100 38 (3800)
I0403 14:38:13.958667 10907 net.cpp:148] Top shape: 100 38 (3800)
I0403 14:38:13.958683 10907 net.cpp:148] Top shape: 100 38 (3800)
I0403 14:38:13.958699 10907 net.cpp:156] Memory required for data: 831586800
I0403 14:38:13.958714 10907 layer_factory.hpp:77] Creating layer prob
I0403 14:38:13.958730 10907 net.cpp:91] Creating Layer prob
I0403 14:38:13.958746 10907 net.cpp:425] prob <- fc8_plantvillage_fc8_plantvillage_0_split_0
I0403 14:38:13.958765 10907 net.cpp:399] prob -> prob
I0403 14:38:13.958981 10907 net.cpp:141] Setting up prob
I0403 14:38:13.959007 10907 net.cpp:148] Top shape: 100 38 (3800)
I0403 14:38:13.959020 10907 net.cpp:156] Memory required for data: 831602000
I0403 14:38:13.959036 10907 layer_factory.hpp:77] Creating layer hdf5out
I0403 14:38:13.959054 10907 net.cpp:91] Creating Layer hdf5out
I0403 14:38:13.959070 10907 net.cpp:425] hdf5out <- prob
I0403 14:38:13.959085 10907 net.cpp:425] hdf5out <- label_data_1_split_0
I0403 14:38:13.961555 10907 net.cpp:141] Setting up hdf5out
…
