…
I0403 15:00:53.427572 11428 net.cpp:313] The NetState phase (1) differed from the phase (0) specified by a rule in layer data
I0403 15:00:53.428133 11428 net.cpp:49] Initializing net from parameters: 
state {
  phase: TEST
}
layer {
  name: "data"
  type: "Data"
  top: "data"
  top: "label"
  include {
    phase: TEST
  }
  transform_param {
    crop_size: 227
    mean_file: "/home/mohanty/data/final_dataset/lmdb/grayscale-50-50/mean.binaryproto"
  }
  data_param {
    source: "/home/mohanty/data/final_dataset/lmdb/grayscale-50-50/test_db"
    batch_size: 100
    backend: LMDB
  }
}
layer {
  name: "conv1"
  type: "Convolution"
  bottom: "data"
  top: "conv1"
  param {
    lr_mult: 1
    decay_mult: 1
  }
  param {
    lr_mult: 2
    decay_mult: 0
  }
  convolution_param {
    num_output: 96
    kernel_size: 11
    stride: 4
    weight_filler {
      type: "gaussian"
      std: 0.01
    }
    bias_filler {
      type: "constant"
      value: 0
    }
  }
}
layer {
  name: "relu1"
  type: "ReLU"
  bottom: "conv1"
  top: "conv1"
}
layer {
  name: "norm1"
  type: "LRN"
  bottom: "conv1"
  top: "norm1"
  lrn_param {
    local_size: 5
    alpha: 0.0001
    beta: 0.75
  }
}
layer {
  name: "pool1"
  type: "Pooling"
  bottom: "norm1"
  top: "pool1"
  pooling_param {
    pool: MAX
    kernel_size: 3
    stride: 2
  }
}
layer {
  name: "conv2"
  type: "Convolution"
  bottom: "pool1"
  top: "conv2"
  param {
    lr_mult: 1
    decay_mult: 1
  }
  param {
    lr_mult: 2
    decay_mult: 0
  }
  convolution_param {
    num_output: 256
    pad: 2
    kernel_size: 5
    group: 2
    weight_filler {
      type: "gaussian"
      std: 0.01
    }
    bias_filler {
      type: "constant"
      value: 0.1
    }
  }
}
layer {
  name: "relu2"
  type: "ReLU"
  bottom: "conv2"
  top: "conv2"
}
layer {
  name: "norm2"
  type: "LRN"
  bottom: "conv2"
  top: "norm2"
  lrn_param {
    local_size: 5
    alpha: 0.0001
    beta: 0.75
  }
}
layer {
  name: "pool2"
  type: "Pooling"
  bottom: "norm2"
  top: "pool2"
  pooling_param {
    pool: MAX
    kernel_size: 3
    stride: 2
  }
}
layer {
  name: "conv3"
  type: "Convolution"
  bottom: "pool2"
  top: "conv3"
  param {
    lr_mult: 1
    decay_mult: 1
  }
  param {
    lr_mult: 2
    decay_mult: 0
  }
  convolution_param {
    num_output: 384
    pad: 1
    kernel_size: 3
    weight_filler {
      type: "gaussian"
      std: 0.01
    }
    bias_filler {
      type: "constant"
      value: 0
    }
  }
}
layer {
  name: "relu3"
  type: "ReLU"
  bottom: "conv3"
  top: "conv3"
}
layer {
  name: "conv4"
  type: "Convolution"
  bottom: "conv3"
  top: "conv4"
  param {
    lr_mult: 1
    decay_mult: 1
  }
  param {
    lr_mult: 2
    decay_mult: 0
  }
  convolution_param {
    num_output: 384
    pad: 1
    kernel_size: 3
    group: 2
    weight_filler {
      type: "gaussian"
      std: 0.01
    }
    bias_filler {
      type: "constant"
      value: 0.1
    }
  }
}
layer {
  name: "relu4"
  type: "ReLU"
  bottom: "conv4"
  top: "conv4"
}
layer {
  name: "conv5"
  type: "Convolution"
  bottom: "conv4"
  top: "conv5"
  param {
    lr_mult: 1
    decay_mult: 1
  }
  param {
    lr_mult: 2
    decay_mult: 0
  }
  convolution_param {
    num_output: 256
    pad: 1
    kernel_size: 3
    group: 2
    weight_filler {
      type: "gaussian"
      std: 0.01
    }
    bias_filler {
      type: "constant"
      value: 0.1
    }
  }
}
layer {
  name: "relu5"
  type: "ReLU"
  bottom: "conv5"
  top: "conv5"
}
layer {
  name: "pool5"
  type: "Pooling"
  bottom: "conv5"
  top: "pool5"
  pooling_param {
    pool: MAX
    kernel_size: 3
    stride: 2
  }
}
layer {
  name: "fc6"
  type: "InnerProduct"
  bottom: "pool5"
  top: "fc6"
  param {
    lr_mult: 1
    decay_mult: 1
  }
  param {
    lr_mult: 2
    decay_mult: 0
  }
  inner_product_param {
    num_output: 4096
    weight_filler {
      type: "gaussian"
      std: 0.005
    }
    bias_filler {
      type: "constant"
      value: 0.1
    }
  }
}
layer {
  name: "relu6"
  type: "ReLU"
  bottom: "fc6"
  top: "fc6"
}
layer {
  name: "drop6"
  type: "Dropout"
  bottom: "fc6"
  top: "fc6"
  dropout_param {
    dropout_ratio: 0.5
  }
}
layer {
  name: "fc7"
  type: "InnerProduct"
  bottom: "fc6"
  top: "fc7"
  param {
    lr_mult: 1
    decay_mult: 1
  }
  param {
    lr_mult: 2
    decay_mult: 0
  }
  inner_product_param {
    num_output: 4096
    weight_filler {
      type: "gaussian"
      std: 0.005
    }
    bias_filler {
      type: "constant"
      value: 0.1
    }
  }
}
layer {
  name: "relu7"
  type: "ReLU"
  bottom: "fc7"
  top: "fc7"
}
layer {
  name: "drop7"
  type: "Dropout"
  bottom: "fc7"
  top: "fc7"
  dropout_param {
    dropout_ratio: 0.5
  }
}
layer {
  name: "fc8_plantvillage"
  type: "InnerProduct"
  bottom: "fc7"
  top: "fc8_plantvillage"
  param {
    lr_mult: 1
    decay_mult: 1
  }
  param {
    lr_mult: 2
    decay_mult: 0
  }
  inner_product_param {
    num_output: 38
    weight_filler {
      type: "gaussian"
      std: 0.01
    }
    bias_filler {
      type: "constant"
      value: 0
    }
  }
}
layer {
  name: "prob"
  type: "Softmax"
  bottom: "fc8_plantvillage"
  top: "prob"
  include {
    phase: TEST
  }
}
layer {
  name: "hdf5out"
  type: "HDF5Output"
  bottom: "prob"
  bottom: "label"
  include {
    phase: TEST
  }
  hdf5_output_param {
    file_name: "hdf5_dumps/iter_7476.h5"
  }
}
layer {
  name: "loss"
  type: "SoftmaxWithLoss"
  bottom: "fc8_plantvillage"
  bottom: "label"
  top: "loss"
}
layer {
  name: "accuracy"
  type: "Accuracy"
  bottom: "fc8_plantvillage"
  bottom: "label"
  top: "accuracy"
  include {
    phase: TEST
  }
}
I0403 15:00:53.429285 11428 layer_factory.hpp:77] Creating layer data
I0403 15:00:53.430575 11428 net.cpp:91] Creating Layer data
I0403 15:00:53.430630 11428 net.cpp:399] data -> data
I0403 15:00:53.430691 11428 net.cpp:399] data -> label
I0403 15:00:53.430737 11428 data_transformer.cpp:25] Loading mean file from: /home/mohanty/data/final_dataset/lmdb/grayscale-50-50/mean.binaryproto
I0403 15:00:53.436400 11432 db_lmdb.cpp:38] Opened lmdb /home/mohanty/data/final_dataset/lmdb/grayscale-50-50/test_db
I0403 15:00:53.447876 11428 data_layer.cpp:41] output data size: 100,3,227,227
I0403 15:00:55.599228 11428 net.cpp:141] Setting up data
I0403 15:00:55.599349 11428 net.cpp:148] Top shape: 100 3 227 227 (15458700)
I0403 15:00:55.599373 11428 net.cpp:148] Top shape: 100 (100)
I0403 15:00:55.599390 11428 net.cpp:156] Memory required for data: 61835200
I0403 15:00:55.599417 11428 layer_factory.hpp:77] Creating layer label_data_1_split
I0403 15:00:55.599443 11428 net.cpp:91] Creating Layer label_data_1_split
I0403 15:00:55.599460 11428 net.cpp:425] label_data_1_split <- label
I0403 15:00:55.599493 11428 net.cpp:399] label_data_1_split -> label_data_1_split_0
I0403 15:00:55.599522 11428 net.cpp:399] label_data_1_split -> label_data_1_split_1
I0403 15:00:55.599544 11428 net.cpp:399] label_data_1_split -> label_data_1_split_2
I0403 15:00:55.599609 11428 net.cpp:141] Setting up label_data_1_split
I0403 15:00:55.599633 11428 net.cpp:148] Top shape: 100 (100)
I0403 15:00:55.599650 11428 net.cpp:148] Top shape: 100 (100)
I0403 15:00:55.599668 11428 net.cpp:148] Top shape: 100 (100)
I0403 15:00:55.599681 11428 net.cpp:156] Memory required for data: 61836400
I0403 15:00:55.599696 11428 layer_factory.hpp:77] Creating layer conv1
I0403 15:00:55.599728 11428 net.cpp:91] Creating Layer conv1
I0403 15:00:55.599747 11428 net.cpp:425] conv1 <- data
I0403 15:00:55.599766 11428 net.cpp:399] conv1 -> conv1
I0403 15:00:55.789250 11428 net.cpp:141] Setting up conv1
I0403 15:00:55.789338 11428 net.cpp:148] Top shape: 100 96 55 55 (29040000)
I0403 15:00:55.789356 11428 net.cpp:156] Memory required for data: 177996400
I0403 15:00:55.789389 11428 layer_factory.hpp:77] Creating layer relu1
I0403 15:00:55.789417 11428 net.cpp:91] Creating Layer relu1
I0403 15:00:55.789436 11428 net.cpp:425] relu1 <- conv1
I0403 15:00:55.789455 11428 net.cpp:386] relu1 -> conv1 (in-place)
I0403 15:00:55.789710 11428 net.cpp:141] Setting up relu1
I0403 15:00:55.789738 11428 net.cpp:148] Top shape: 100 96 55 55 (29040000)
I0403 15:00:55.789785 11428 net.cpp:156] Memory required for data: 294156400
I0403 15:00:55.789803 11428 layer_factory.hpp:77] Creating layer norm1
I0403 15:00:55.789831 11428 net.cpp:91] Creating Layer norm1
I0403 15:00:55.789850 11428 net.cpp:425] norm1 <- conv1
I0403 15:00:55.789868 11428 net.cpp:399] norm1 -> norm1
I0403 15:00:55.790215 11428 net.cpp:141] Setting up norm1
I0403 15:00:55.790243 11428 net.cpp:148] Top shape: 100 96 55 55 (29040000)
I0403 15:00:55.790261 11428 net.cpp:156] Memory required for data: 410316400
I0403 15:00:55.790276 11428 layer_factory.hpp:77] Creating layer pool1
I0403 15:00:55.790302 11428 net.cpp:91] Creating Layer pool1
I0403 15:00:55.790319 11428 net.cpp:425] pool1 <- norm1
I0403 15:00:55.790341 11428 net.cpp:399] pool1 -> pool1
I0403 15:00:55.790412 11428 net.cpp:141] Setting up pool1
I0403 15:00:55.790438 11428 net.cpp:148] Top shape: 100 96 27 27 (6998400)
I0403 15:00:55.790453 11428 net.cpp:156] Memory required for data: 438310000
I0403 15:00:55.790468 11428 layer_factory.hpp:77] Creating layer conv2
I0403 15:00:55.790495 11428 net.cpp:91] Creating Layer conv2
I0403 15:00:55.790513 11428 net.cpp:425] conv2 <- pool1
I0403 15:00:55.790535 11428 net.cpp:399] conv2 -> conv2
I0403 15:00:55.805995 11428 net.cpp:141] Setting up conv2
I0403 15:00:55.806056 11428 net.cpp:148] Top shape: 100 256 27 27 (18662400)
I0403 15:00:55.806076 11428 net.cpp:156] Memory required for data: 512959600
I0403 15:00:55.806099 11428 layer_factory.hpp:77] Creating layer relu2
I0403 15:00:55.806121 11428 net.cpp:91] Creating Layer relu2
I0403 15:00:55.806138 11428 net.cpp:425] relu2 <- conv2
I0403 15:00:55.806156 11428 net.cpp:386] relu2 -> conv2 (in-place)
I0403 15:00:55.806470 11428 net.cpp:141] Setting up relu2
I0403 15:00:55.806499 11428 net.cpp:148] Top shape: 100 256 27 27 (18662400)
I0403 15:00:55.806517 11428 net.cpp:156] Memory required for data: 587609200
I0403 15:00:55.806536 11428 layer_factory.hpp:77] Creating layer norm2
I0403 15:00:55.806566 11428 net.cpp:91] Creating Layer norm2
I0403 15:00:55.806589 11428 net.cpp:425] norm2 <- conv2
I0403 15:00:55.806612 11428 net.cpp:399] norm2 -> norm2
I0403 15:00:55.806823 11428 net.cpp:141] Setting up norm2
I0403 15:00:55.806851 11428 net.cpp:148] Top shape: 100 256 27 27 (18662400)
I0403 15:00:55.806869 11428 net.cpp:156] Memory required for data: 662258800
I0403 15:00:55.806884 11428 layer_factory.hpp:77] Creating layer pool2
I0403 15:00:55.806903 11428 net.cpp:91] Creating Layer pool2
I0403 15:00:55.806920 11428 net.cpp:425] pool2 <- norm2
I0403 15:00:55.806936 11428 net.cpp:399] pool2 -> pool2
I0403 15:00:55.807003 11428 net.cpp:141] Setting up pool2
I0403 15:00:55.807027 11428 net.cpp:148] Top shape: 100 256 13 13 (4326400)
I0403 15:00:55.807044 11428 net.cpp:156] Memory required for data: 679564400
I0403 15:00:55.807060 11428 layer_factory.hpp:77] Creating layer conv3
I0403 15:00:55.807087 11428 net.cpp:91] Creating Layer conv3
I0403 15:00:55.807109 11428 net.cpp:425] conv3 <- pool2
I0403 15:00:55.807131 11428 net.cpp:399] conv3 -> conv3
I0403 15:00:55.847371 11428 net.cpp:141] Setting up conv3
I0403 15:00:55.847416 11428 net.cpp:148] Top shape: 100 384 13 13 (6489600)
I0403 15:00:55.847434 11428 net.cpp:156] Memory required for data: 705522800
I0403 15:00:55.847462 11428 layer_factory.hpp:77] Creating layer relu3
I0403 15:00:55.847489 11428 net.cpp:91] Creating Layer relu3
I0403 15:00:55.847511 11428 net.cpp:425] relu3 <- conv3
I0403 15:00:55.847532 11428 net.cpp:386] relu3 -> conv3 (in-place)
I0403 15:00:55.847822 11428 net.cpp:141] Setting up relu3
I0403 15:00:55.847854 11428 net.cpp:148] Top shape: 100 384 13 13 (6489600)
I0403 15:00:55.847873 11428 net.cpp:156] Memory required for data: 731481200
I0403 15:00:55.847890 11428 layer_factory.hpp:77] Creating layer conv4
I0403 15:00:55.847918 11428 net.cpp:91] Creating Layer conv4
I0403 15:00:55.847939 11428 net.cpp:425] conv4 <- conv3
I0403 15:00:55.847959 11428 net.cpp:399] conv4 -> conv4
I0403 15:00:55.879573 11428 net.cpp:141] Setting up conv4
I0403 15:00:55.879616 11428 net.cpp:148] Top shape: 100 384 13 13 (6489600)
I0403 15:00:55.879655 11428 net.cpp:156] Memory required for data: 757439600
I0403 15:00:55.879679 11428 layer_factory.hpp:77] Creating layer relu4
I0403 15:00:55.879703 11428 net.cpp:91] Creating Layer relu4
I0403 15:00:55.879722 11428 net.cpp:425] relu4 <- conv4
I0403 15:00:55.879741 11428 net.cpp:386] relu4 -> conv4 (in-place)
I0403 15:00:55.880056 11428 net.cpp:141] Setting up relu4
I0403 15:00:55.880085 11428 net.cpp:148] Top shape: 100 384 13 13 (6489600)
I0403 15:00:55.880102 11428 net.cpp:156] Memory required for data: 783398000
I0403 15:00:55.880117 11428 layer_factory.hpp:77] Creating layer conv5
I0403 15:00:55.880144 11428 net.cpp:91] Creating Layer conv5
I0403 15:00:55.880163 11428 net.cpp:425] conv5 <- conv4
I0403 15:00:55.880190 11428 net.cpp:399] conv5 -> conv5
I0403 15:00:55.902062 11428 net.cpp:141] Setting up conv5
I0403 15:00:55.902144 11428 net.cpp:148] Top shape: 100 256 13 13 (4326400)
I0403 15:00:55.902165 11428 net.cpp:156] Memory required for data: 800703600
I0403 15:00:55.902199 11428 layer_factory.hpp:77] Creating layer relu5
I0403 15:00:55.902223 11428 net.cpp:91] Creating Layer relu5
I0403 15:00:55.902241 11428 net.cpp:425] relu5 <- conv5
I0403 15:00:55.902262 11428 net.cpp:386] relu5 -> conv5 (in-place)
I0403 15:00:55.902550 11428 net.cpp:141] Setting up relu5
I0403 15:00:55.902582 11428 net.cpp:148] Top shape: 100 256 13 13 (4326400)
I0403 15:00:55.902601 11428 net.cpp:156] Memory required for data: 818009200
I0403 15:00:55.902617 11428 layer_factory.hpp:77] Creating layer pool5
I0403 15:00:55.902639 11428 net.cpp:91] Creating Layer pool5
I0403 15:00:55.902657 11428 net.cpp:425] pool5 <- conv5
I0403 15:00:55.902679 11428 net.cpp:399] pool5 -> pool5
I0403 15:00:55.902743 11428 net.cpp:141] Setting up pool5
I0403 15:00:55.902770 11428 net.cpp:148] Top shape: 100 256 6 6 (921600)
I0403 15:00:55.902786 11428 net.cpp:156] Memory required for data: 821695600
I0403 15:00:55.902801 11428 layer_factory.hpp:77] Creating layer fc6
I0403 15:00:55.902832 11428 net.cpp:91] Creating Layer fc6
I0403 15:00:55.902851 11428 net.cpp:425] fc6 <- pool5
I0403 15:00:55.902873 11428 net.cpp:399] fc6 -> fc6
I0403 15:00:57.484966 11428 net.cpp:141] Setting up fc6
I0403 15:00:57.485009 11428 net.cpp:148] Top shape: 100 4096 (409600)
I0403 15:00:57.485026 11428 net.cpp:156] Memory required for data: 823334000
I0403 15:00:57.485047 11428 layer_factory.hpp:77] Creating layer relu6
I0403 15:00:57.485072 11428 net.cpp:91] Creating Layer relu6
I0403 15:00:57.485090 11428 net.cpp:425] relu6 <- fc6
I0403 15:00:57.485112 11428 net.cpp:386] relu6 -> fc6 (in-place)
I0403 15:00:57.485326 11428 net.cpp:141] Setting up relu6
I0403 15:00:57.485354 11428 net.cpp:148] Top shape: 100 4096 (409600)
I0403 15:00:57.485370 11428 net.cpp:156] Memory required for data: 824972400
I0403 15:00:57.485385 11428 layer_factory.hpp:77] Creating layer drop6
I0403 15:00:57.485404 11428 net.cpp:91] Creating Layer drop6
I0403 15:00:57.485419 11428 net.cpp:425] drop6 <- fc6
I0403 15:00:57.485436 11428 net.cpp:386] drop6 -> fc6 (in-place)
I0403 15:00:57.485487 11428 net.cpp:141] Setting up drop6
I0403 15:00:57.485512 11428 net.cpp:148] Top shape: 100 4096 (409600)
I0403 15:00:57.485527 11428 net.cpp:156] Memory required for data: 826610800
I0403 15:00:57.485540 11428 layer_factory.hpp:77] Creating layer fc7
I0403 15:00:57.485564 11428 net.cpp:91] Creating Layer fc7
I0403 15:00:57.485581 11428 net.cpp:425] fc7 <- fc6
I0403 15:00:57.485599 11428 net.cpp:399] fc7 -> fc7
I0403 15:00:58.194447 11428 net.cpp:141] Setting up fc7
I0403 15:00:58.194491 11428 net.cpp:148] Top shape: 100 4096 (409600)
I0403 15:00:58.194509 11428 net.cpp:156] Memory required for data: 828249200
I0403 15:00:58.194530 11428 layer_factory.hpp:77] Creating layer relu7
I0403 15:00:58.194556 11428 net.cpp:91] Creating Layer relu7
I0403 15:00:58.194576 11428 net.cpp:425] relu7 <- fc7
I0403 15:00:58.194597 11428 net.cpp:386] relu7 -> fc7 (in-place)
I0403 15:00:58.194994 11428 net.cpp:141] Setting up relu7
I0403 15:00:58.195024 11428 net.cpp:148] Top shape: 100 4096 (409600)
I0403 15:00:58.195060 11428 net.cpp:156] Memory required for data: 829887600
I0403 15:00:58.195076 11428 layer_factory.hpp:77] Creating layer drop7
I0403 15:00:58.195098 11428 net.cpp:91] Creating Layer drop7
I0403 15:00:58.195117 11428 net.cpp:425] drop7 <- fc7
I0403 15:00:58.195135 11428 net.cpp:386] drop7 -> fc7 (in-place)
I0403 15:00:58.195183 11428 net.cpp:141] Setting up drop7
I0403 15:00:58.195211 11428 net.cpp:148] Top shape: 100 4096 (409600)
I0403 15:00:58.195226 11428 net.cpp:156] Memory required for data: 831526000
I0403 15:00:58.195241 11428 layer_factory.hpp:77] Creating layer fc8_plantvillage
I0403 15:00:58.195266 11428 net.cpp:91] Creating Layer fc8_plantvillage
I0403 15:00:58.195284 11428 net.cpp:425] fc8_plantvillage <- fc7
I0403 15:00:58.195303 11428 net.cpp:399] fc8_plantvillage -> fc8_plantvillage
I0403 15:00:58.202428 11428 net.cpp:141] Setting up fc8_plantvillage
I0403 15:00:58.202460 11428 net.cpp:148] Top shape: 100 38 (3800)
I0403 15:00:58.202476 11428 net.cpp:156] Memory required for data: 831541200
I0403 15:00:58.202494 11428 layer_factory.hpp:77] Creating layer fc8_plantvillage_fc8_plantvillage_0_split
I0403 15:00:58.202514 11428 net.cpp:91] Creating Layer fc8_plantvillage_fc8_plantvillage_0_split
I0403 15:00:58.202532 11428 net.cpp:425] fc8_plantvillage_fc8_plantvillage_0_split <- fc8_plantvillage
I0403 15:00:58.202551 11428 net.cpp:399] fc8_plantvillage_fc8_plantvillage_0_split -> fc8_plantvillage_fc8_plantvillage_0_split_0
I0403 15:00:58.202574 11428 net.cpp:399] fc8_plantvillage_fc8_plantvillage_0_split -> fc8_plantvillage_fc8_plantvillage_0_split_1
I0403 15:00:58.202596 11428 net.cpp:399] fc8_plantvillage_fc8_plantvillage_0_split -> fc8_plantvillage_fc8_plantvillage_0_split_2
I0403 15:00:58.202677 11428 net.cpp:141] Setting up fc8_plantvillage_fc8_plantvillage_0_split
I0403 15:00:58.202702 11428 net.cpp:148] Top shape: 100 38 (3800)
I0403 15:00:58.202720 11428 net.cpp:148] Top shape: 100 38 (3800)
I0403 15:00:58.202738 11428 net.cpp:148] Top shape: 100 38 (3800)
I0403 15:00:58.202752 11428 net.cpp:156] Memory required for data: 831586800
I0403 15:00:58.202767 11428 layer_factory.hpp:77] Creating layer prob
I0403 15:00:58.202787 11428 net.cpp:91] Creating Layer prob
I0403 15:00:58.202803 11428 net.cpp:425] prob <- fc8_plantvillage_fc8_plantvillage_0_split_0
I0403 15:00:58.202823 11428 net.cpp:399] prob -> prob
I0403 15:00:58.203059 11428 net.cpp:141] Setting up prob
I0403 15:00:58.203088 11428 net.cpp:148] Top shape: 100 38 (3800)
I0403 15:00:58.203104 11428 net.cpp:156] Memory required for data: 831602000
I0403 15:00:58.203119 11428 layer_factory.hpp:77] Creating layer hdf5out
I0403 15:00:58.203143 11428 net.cpp:91] Creating Layer hdf5out
I0403 15:00:58.203162 11428 net.cpp:425] hdf5out <- prob
I0403 15:00:58.203179 11428 net.cpp:425] hdf5out <- label_data_1_split_0
I0403 15:00:58.205739 11428 net.cpp:141] Setting up hdf5out
…
