…
I0403 14:44:47.883074 11061 net.cpp:313] The NetState phase (1) differed from the phase (0) specified by a rule in layer data
I0403 14:44:47.883400 11061 net.cpp:49] Initializing net from parameters: 
state {
  phase: TEST
}
layer {
  name: "data"
  type: "Data"
  top: "data"
  top: "label"
  include {
    phase: TEST
  }
  transform_param {
    crop_size: 227
    mean_file: "/home/mohanty/data/final_dataset/lmdb/grayscale-50-50/mean.binaryproto"
  }
  data_param {
    source: "/home/mohanty/data/final_dataset/lmdb/grayscale-50-50/test_db"
    batch_size: 100
    backend: LMDB
  }
}
layer {
  name: "conv1"
  type: "Convolution"
  bottom: "data"
  top: "conv1"
  param {
    lr_mult: 1
    decay_mult: 1
  }
  param {
    lr_mult: 2
    decay_mult: 0
  }
  convolution_param {
    num_output: 96
    kernel_size: 11
    stride: 4
    weight_filler {
      type: "gaussian"
      std: 0.01
    }
    bias_filler {
      type: "constant"
      value: 0
    }
  }
}
layer {
  name: "relu1"
  type: "ReLU"
  bottom: "conv1"
  top: "conv1"
}
layer {
  name: "norm1"
  type: "LRN"
  bottom: "conv1"
  top: "norm1"
  lrn_param {
    local_size: 5
    alpha: 0.0001
    beta: 0.75
  }
}
layer {
  name: "pool1"
  type: "Pooling"
  bottom: "norm1"
  top: "pool1"
  pooling_param {
    pool: MAX
    kernel_size: 3
    stride: 2
  }
}
layer {
  name: "conv2"
  type: "Convolution"
  bottom: "pool1"
  top: "conv2"
  param {
    lr_mult: 1
    decay_mult: 1
  }
  param {
    lr_mult: 2
    decay_mult: 0
  }
  convolution_param {
    num_output: 256
    pad: 2
    kernel_size: 5
    group: 2
    weight_filler {
      type: "gaussian"
      std: 0.01
    }
    bias_filler {
      type: "constant"
      value: 0.1
    }
  }
}
layer {
  name: "relu2"
  type: "ReLU"
  bottom: "conv2"
  top: "conv2"
}
layer {
  name: "norm2"
  type: "LRN"
  bottom: "conv2"
  top: "norm2"
  lrn_param {
    local_size: 5
    alpha: 0.0001
    beta: 0.75
  }
}
layer {
  name: "pool2"
  type: "Pooling"
  bottom: "norm2"
  top: "pool2"
  pooling_param {
    pool: MAX
    kernel_size: 3
    stride: 2
  }
}
layer {
  name: "conv3"
  type: "Convolution"
  bottom: "pool2"
  top: "conv3"
  param {
    lr_mult: 1
    decay_mult: 1
  }
  param {
    lr_mult: 2
    decay_mult: 0
  }
  convolution_param {
    num_output: 384
    pad: 1
    kernel_size: 3
    weight_filler {
      type: "gaussian"
      std: 0.01
    }
    bias_filler {
      type: "constant"
      value: 0
    }
  }
}
layer {
  name: "relu3"
  type: "ReLU"
  bottom: "conv3"
  top: "conv3"
}
layer {
  name: "conv4"
  type: "Convolution"
  bottom: "conv3"
  top: "conv4"
  param {
    lr_mult: 1
    decay_mult: 1
  }
  param {
    lr_mult: 2
    decay_mult: 0
  }
  convolution_param {
    num_output: 384
    pad: 1
    kernel_size: 3
    group: 2
    weight_filler {
      type: "gaussian"
      std: 0.01
    }
    bias_filler {
      type: "constant"
      value: 0.1
    }
  }
}
layer {
  name: "relu4"
  type: "ReLU"
  bottom: "conv4"
  top: "conv4"
}
layer {
  name: "conv5"
  type: "Convolution"
  bottom: "conv4"
  top: "conv5"
  param {
    lr_mult: 1
    decay_mult: 1
  }
  param {
    lr_mult: 2
    decay_mult: 0
  }
  convolution_param {
    num_output: 256
    pad: 1
    kernel_size: 3
    group: 2
    weight_filler {
      type: "gaussian"
      std: 0.01
    }
    bias_filler {
      type: "constant"
      value: 0.1
    }
  }
}
layer {
  name: "relu5"
  type: "ReLU"
  bottom: "conv5"
  top: "conv5"
}
layer {
  name: "pool5"
  type: "Pooling"
  bottom: "conv5"
  top: "pool5"
  pooling_param {
    pool: MAX
    kernel_size: 3
    stride: 2
  }
}
layer {
  name: "fc6"
  type: "InnerProduct"
  bottom: "pool5"
  top: "fc6"
  param {
    lr_mult: 1
    decay_mult: 1
  }
  param {
    lr_mult: 2
    decay_mult: 0
  }
  inner_product_param {
    num_output: 4096
    weight_filler {
      type: "gaussian"
      std: 0.005
    }
    bias_filler {
      type: "constant"
      value: 0.1
    }
  }
}
layer {
  name: "relu6"
  type: "ReLU"
  bottom: "fc6"
  top: "fc6"
}
layer {
  name: "drop6"
  type: "Dropout"
  bottom: "fc6"
  top: "fc6"
  dropout_param {
    dropout_ratio: 0.5
  }
}
layer {
  name: "fc7"
  type: "InnerProduct"
  bottom: "fc6"
  top: "fc7"
  param {
    lr_mult: 1
    decay_mult: 1
  }
  param {
    lr_mult: 2
    decay_mult: 0
  }
  inner_product_param {
    num_output: 4096
    weight_filler {
      type: "gaussian"
      std: 0.005
    }
    bias_filler {
      type: "constant"
      value: 0.1
    }
  }
}
layer {
  name: "relu7"
  type: "ReLU"
  bottom: "fc7"
  top: "fc7"
}
layer {
  name: "drop7"
  type: "Dropout"
  bottom: "fc7"
  top: "fc7"
  dropout_param {
    dropout_ratio: 0.5
  }
}
layer {
  name: "fc8_plantvillage"
  type: "InnerProduct"
  bottom: "fc7"
  top: "fc8_plantvillage"
  param {
    lr_mult: 1
    decay_mult: 1
  }
  param {
    lr_mult: 2
    decay_mult: 0
  }
  inner_product_param {
    num_output: 38
    weight_filler {
      type: "gaussian"
      std: 0.01
    }
    bias_filler {
      type: "constant"
      value: 0
    }
  }
}
layer {
  name: "prob"
  type: "Softmax"
  bottom: "fc8_plantvillage"
  top: "prob"
  include {
    phase: TEST
  }
}
layer {
  name: "hdf5out"
  type: "HDF5Output"
  bottom: "prob"
  bottom: "label"
  include {
    phase: TEST
  }
  hdf5_output_param {
    file_name: "hdf5_dumps/iter_2937.h5"
  }
}
layer {
  name: "loss"
  type: "SoftmaxWithLoss"
  bottom: "fc8_plantvillage"
  bottom: "label"
  top: "loss"
}
layer {
  name: "accuracy"
  type: "Accuracy"
  bottom: "fc8_plantvillage"
  bottom: "label"
  top: "accuracy"
  include {
    phase: TEST
  }
}
I0403 14:44:47.884050 11061 layer_factory.hpp:77] Creating layer data
I0403 14:44:47.884692 11061 net.cpp:91] Creating Layer data
I0403 14:44:47.884724 11061 net.cpp:399] data -> data
I0403 14:44:47.884776 11061 net.cpp:399] data -> label
I0403 14:44:47.884816 11061 data_transformer.cpp:25] Loading mean file from: /home/mohanty/data/final_dataset/lmdb/grayscale-50-50/mean.binaryproto
I0403 14:44:47.887338 11064 db_lmdb.cpp:38] Opened lmdb /home/mohanty/data/final_dataset/lmdb/grayscale-50-50/test_db
I0403 14:44:47.899080 11061 data_layer.cpp:41] output data size: 100,3,227,227
I0403 14:44:48.018015 11061 net.cpp:141] Setting up data
I0403 14:44:48.018074 11061 net.cpp:148] Top shape: 100 3 227 227 (15458700)
I0403 14:44:48.018097 11061 net.cpp:148] Top shape: 100 (100)
I0403 14:44:48.018112 11061 net.cpp:156] Memory required for data: 61835200
I0403 14:44:48.018139 11061 layer_factory.hpp:77] Creating layer label_data_1_split
I0403 14:44:48.018164 11061 net.cpp:91] Creating Layer label_data_1_split
I0403 14:44:48.018182 11061 net.cpp:425] label_data_1_split <- label
I0403 14:44:48.018216 11061 net.cpp:399] label_data_1_split -> label_data_1_split_0
I0403 14:44:48.018244 11061 net.cpp:399] label_data_1_split -> label_data_1_split_1
I0403 14:44:48.018265 11061 net.cpp:399] label_data_1_split -> label_data_1_split_2
I0403 14:44:48.018324 11061 net.cpp:141] Setting up label_data_1_split
I0403 14:44:48.018348 11061 net.cpp:148] Top shape: 100 (100)
I0403 14:44:48.018365 11061 net.cpp:148] Top shape: 100 (100)
I0403 14:44:48.018381 11061 net.cpp:148] Top shape: 100 (100)
I0403 14:44:48.018394 11061 net.cpp:156] Memory required for data: 61836400
I0403 14:44:48.018409 11061 layer_factory.hpp:77] Creating layer conv1
I0403 14:44:48.018440 11061 net.cpp:91] Creating Layer conv1
I0403 14:44:48.018457 11061 net.cpp:425] conv1 <- data
I0403 14:44:48.018477 11061 net.cpp:399] conv1 -> conv1
I0403 14:44:48.159657 11061 net.cpp:141] Setting up conv1
I0403 14:44:48.159744 11061 net.cpp:148] Top shape: 100 96 55 55 (29040000)
I0403 14:44:48.159762 11061 net.cpp:156] Memory required for data: 177996400
I0403 14:44:48.159795 11061 layer_factory.hpp:77] Creating layer relu1
I0403 14:44:48.159822 11061 net.cpp:91] Creating Layer relu1
I0403 14:44:48.159840 11061 net.cpp:425] relu1 <- conv1
I0403 14:44:48.159860 11061 net.cpp:386] relu1 -> conv1 (in-place)
I0403 14:44:48.160125 11061 net.cpp:141] Setting up relu1
I0403 14:44:48.160152 11061 net.cpp:148] Top shape: 100 96 55 55 (29040000)
I0403 14:44:48.160207 11061 net.cpp:156] Memory required for data: 294156400
I0403 14:44:48.160224 11061 layer_factory.hpp:77] Creating layer norm1
I0403 14:44:48.160251 11061 net.cpp:91] Creating Layer norm1
I0403 14:44:48.160270 11061 net.cpp:425] norm1 <- conv1
I0403 14:44:48.160290 11061 net.cpp:399] norm1 -> norm1
I0403 14:44:48.160601 11061 net.cpp:141] Setting up norm1
I0403 14:44:48.160629 11061 net.cpp:148] Top shape: 100 96 55 55 (29040000)
I0403 14:44:48.160645 11061 net.cpp:156] Memory required for data: 410316400
I0403 14:44:48.160660 11061 layer_factory.hpp:77] Creating layer pool1
I0403 14:44:48.160683 11061 net.cpp:91] Creating Layer pool1
I0403 14:44:48.160701 11061 net.cpp:425] pool1 <- norm1
I0403 14:44:48.160719 11061 net.cpp:399] pool1 -> pool1
I0403 14:44:48.160786 11061 net.cpp:141] Setting up pool1
I0403 14:44:48.160810 11061 net.cpp:148] Top shape: 100 96 27 27 (6998400)
I0403 14:44:48.160826 11061 net.cpp:156] Memory required for data: 438310000
I0403 14:44:48.160840 11061 layer_factory.hpp:77] Creating layer conv2
I0403 14:44:48.160866 11061 net.cpp:91] Creating Layer conv2
I0403 14:44:48.160882 11061 net.cpp:425] conv2 <- pool1
I0403 14:44:48.160900 11061 net.cpp:399] conv2 -> conv2
I0403 14:44:48.176070 11061 net.cpp:141] Setting up conv2
I0403 14:44:48.176107 11061 net.cpp:148] Top shape: 100 256 27 27 (18662400)
I0403 14:44:48.176126 11061 net.cpp:156] Memory required for data: 512959600
I0403 14:44:48.176151 11061 layer_factory.hpp:77] Creating layer relu2
I0403 14:44:48.176172 11061 net.cpp:91] Creating Layer relu2
I0403 14:44:48.176193 11061 net.cpp:425] relu2 <- conv2
I0403 14:44:48.176215 11061 net.cpp:386] relu2 -> conv2 (in-place)
I0403 14:44:48.176491 11061 net.cpp:141] Setting up relu2
I0403 14:44:48.176519 11061 net.cpp:148] Top shape: 100 256 27 27 (18662400)
I0403 14:44:48.176534 11061 net.cpp:156] Memory required for data: 587609200
I0403 14:44:48.176549 11061 layer_factory.hpp:77] Creating layer norm2
I0403 14:44:48.176584 11061 net.cpp:91] Creating Layer norm2
I0403 14:44:48.176604 11061 net.cpp:425] norm2 <- conv2
I0403 14:44:48.176622 11061 net.cpp:399] norm2 -> norm2
I0403 14:44:48.176816 11061 net.cpp:141] Setting up norm2
I0403 14:44:48.176844 11061 net.cpp:148] Top shape: 100 256 27 27 (18662400)
I0403 14:44:48.176859 11061 net.cpp:156] Memory required for data: 662258800
I0403 14:44:48.176875 11061 layer_factory.hpp:77] Creating layer pool2
I0403 14:44:48.176895 11061 net.cpp:91] Creating Layer pool2
I0403 14:44:48.176923 11061 net.cpp:425] pool2 <- norm2
I0403 14:44:48.176941 11061 net.cpp:399] pool2 -> pool2
I0403 14:44:48.177018 11061 net.cpp:141] Setting up pool2
I0403 14:44:48.177044 11061 net.cpp:148] Top shape: 100 256 13 13 (4326400)
I0403 14:44:48.177060 11061 net.cpp:156] Memory required for data: 679564400
I0403 14:44:48.177075 11061 layer_factory.hpp:77] Creating layer conv3
I0403 14:44:48.177098 11061 net.cpp:91] Creating Layer conv3
I0403 14:44:48.177115 11061 net.cpp:425] conv3 <- pool2
I0403 14:44:48.177134 11061 net.cpp:399] conv3 -> conv3
I0403 14:44:48.214959 11061 net.cpp:141] Setting up conv3
I0403 14:44:48.215020 11061 net.cpp:148] Top shape: 100 384 13 13 (6489600)
I0403 14:44:48.215039 11061 net.cpp:156] Memory required for data: 705522800
I0403 14:44:48.215062 11061 layer_factory.hpp:77] Creating layer relu3
I0403 14:44:48.215083 11061 net.cpp:91] Creating Layer relu3
I0403 14:44:48.215128 11061 net.cpp:425] relu3 <- conv3
I0403 14:44:48.215157 11061 net.cpp:386] relu3 -> conv3 (in-place)
I0403 14:44:48.215430 11061 net.cpp:141] Setting up relu3
I0403 14:44:48.215457 11061 net.cpp:148] Top shape: 100 384 13 13 (6489600)
I0403 14:44:48.215472 11061 net.cpp:156] Memory required for data: 731481200
I0403 14:44:48.215488 11061 layer_factory.hpp:77] Creating layer conv4
I0403 14:44:48.215512 11061 net.cpp:91] Creating Layer conv4
I0403 14:44:48.215529 11061 net.cpp:425] conv4 <- conv3
I0403 14:44:48.215549 11061 net.cpp:399] conv4 -> conv4
I0403 14:44:48.245717 11061 net.cpp:141] Setting up conv4
I0403 14:44:48.245792 11061 net.cpp:148] Top shape: 100 384 13 13 (6489600)
I0403 14:44:48.245841 11061 net.cpp:156] Memory required for data: 757439600
I0403 14:44:48.245865 11061 layer_factory.hpp:77] Creating layer relu4
I0403 14:44:48.245887 11061 net.cpp:91] Creating Layer relu4
I0403 14:44:48.245903 11061 net.cpp:425] relu4 <- conv4
I0403 14:44:48.245924 11061 net.cpp:386] relu4 -> conv4 (in-place)
I0403 14:44:48.246212 11061 net.cpp:141] Setting up relu4
I0403 14:44:48.246243 11061 net.cpp:148] Top shape: 100 384 13 13 (6489600)
I0403 14:44:48.246260 11061 net.cpp:156] Memory required for data: 783398000
I0403 14:44:48.246278 11061 layer_factory.hpp:77] Creating layer conv5
I0403 14:44:48.246304 11061 net.cpp:91] Creating Layer conv5
I0403 14:44:48.246322 11061 net.cpp:425] conv5 <- conv4
I0403 14:44:48.246342 11061 net.cpp:399] conv5 -> conv5
I0403 14:44:48.267549 11061 net.cpp:141] Setting up conv5
I0403 14:44:48.267586 11061 net.cpp:148] Top shape: 100 256 13 13 (4326400)
I0403 14:44:48.267604 11061 net.cpp:156] Memory required for data: 800703600
I0403 14:44:48.267629 11061 layer_factory.hpp:77] Creating layer relu5
I0403 14:44:48.267652 11061 net.cpp:91] Creating Layer relu5
I0403 14:44:48.267669 11061 net.cpp:425] relu5 <- conv5
I0403 14:44:48.267691 11061 net.cpp:386] relu5 -> conv5 (in-place)
I0403 14:44:48.267981 11061 net.cpp:141] Setting up relu5
I0403 14:44:48.268007 11061 net.cpp:148] Top shape: 100 256 13 13 (4326400)
I0403 14:44:48.268023 11061 net.cpp:156] Memory required for data: 818009200
I0403 14:44:48.268039 11061 layer_factory.hpp:77] Creating layer pool5
I0403 14:44:48.268065 11061 net.cpp:91] Creating Layer pool5
I0403 14:44:48.268085 11061 net.cpp:425] pool5 <- conv5
I0403 14:44:48.268105 11061 net.cpp:399] pool5 -> pool5
I0403 14:44:48.268169 11061 net.cpp:141] Setting up pool5
I0403 14:44:48.268198 11061 net.cpp:148] Top shape: 100 256 6 6 (921600)
I0403 14:44:48.268216 11061 net.cpp:156] Memory required for data: 821695600
I0403 14:44:48.268231 11061 layer_factory.hpp:77] Creating layer fc6
I0403 14:44:48.268259 11061 net.cpp:91] Creating Layer fc6
I0403 14:44:48.268276 11061 net.cpp:425] fc6 <- pool5
I0403 14:44:48.268298 11061 net.cpp:399] fc6 -> fc6
I0403 14:44:49.820804 11061 net.cpp:141] Setting up fc6
I0403 14:44:49.820849 11061 net.cpp:148] Top shape: 100 4096 (409600)
I0403 14:44:49.820865 11061 net.cpp:156] Memory required for data: 823334000
I0403 14:44:49.820888 11061 layer_factory.hpp:77] Creating layer relu6
I0403 14:44:49.820912 11061 net.cpp:91] Creating Layer relu6
I0403 14:44:49.820930 11061 net.cpp:425] relu6 <- fc6
I0403 14:44:49.820950 11061 net.cpp:386] relu6 -> fc6 (in-place)
I0403 14:44:49.821164 11061 net.cpp:141] Setting up relu6
I0403 14:44:49.821193 11061 net.cpp:148] Top shape: 100 4096 (409600)
I0403 14:44:49.821210 11061 net.cpp:156] Memory required for data: 824972400
I0403 14:44:49.821228 11061 layer_factory.hpp:77] Creating layer drop6
I0403 14:44:49.821245 11061 net.cpp:91] Creating Layer drop6
I0403 14:44:49.821261 11061 net.cpp:425] drop6 <- fc6
I0403 14:44:49.821285 11061 net.cpp:386] drop6 -> fc6 (in-place)
I0403 14:44:49.821336 11061 net.cpp:141] Setting up drop6
I0403 14:44:49.821364 11061 net.cpp:148] Top shape: 100 4096 (409600)
I0403 14:44:49.821380 11061 net.cpp:156] Memory required for data: 826610800
I0403 14:44:49.821396 11061 layer_factory.hpp:77] Creating layer fc7
I0403 14:44:49.821416 11061 net.cpp:91] Creating Layer fc7
I0403 14:44:49.821434 11061 net.cpp:425] fc7 <- fc6
I0403 14:44:49.821454 11061 net.cpp:399] fc7 -> fc7
I0403 14:44:50.497464 11061 net.cpp:141] Setting up fc7
I0403 14:44:50.497504 11061 net.cpp:148] Top shape: 100 4096 (409600)
I0403 14:44:50.497520 11061 net.cpp:156] Memory required for data: 828249200
I0403 14:44:50.497540 11061 layer_factory.hpp:77] Creating layer relu7
I0403 14:44:50.497562 11061 net.cpp:91] Creating Layer relu7
I0403 14:44:50.497581 11061 net.cpp:425] relu7 <- fc7
I0403 14:44:50.497602 11061 net.cpp:386] relu7 -> fc7 (in-place)
I0403 14:44:50.497977 11061 net.cpp:141] Setting up relu7
I0403 14:44:50.498003 11061 net.cpp:148] Top shape: 100 4096 (409600)
I0403 14:44:50.498051 11061 net.cpp:156] Memory required for data: 829887600
I0403 14:44:50.498066 11061 layer_factory.hpp:77] Creating layer drop7
I0403 14:44:50.498085 11061 net.cpp:91] Creating Layer drop7
I0403 14:44:50.498100 11061 net.cpp:425] drop7 <- fc7
I0403 14:44:50.498118 11061 net.cpp:386] drop7 -> fc7 (in-place)
I0403 14:44:50.498162 11061 net.cpp:141] Setting up drop7
I0403 14:44:50.498183 11061 net.cpp:148] Top shape: 100 4096 (409600)
I0403 14:44:50.498203 11061 net.cpp:156] Memory required for data: 831526000
I0403 14:44:50.498219 11061 layer_factory.hpp:77] Creating layer fc8_plantvillage
I0403 14:44:50.498241 11061 net.cpp:91] Creating Layer fc8_plantvillage
I0403 14:44:50.498258 11061 net.cpp:425] fc8_plantvillage <- fc7
I0403 14:44:50.498278 11061 net.cpp:399] fc8_plantvillage -> fc8_plantvillage
I0403 14:44:50.504781 11061 net.cpp:141] Setting up fc8_plantvillage
I0403 14:44:50.504809 11061 net.cpp:148] Top shape: 100 38 (3800)
I0403 14:44:50.504825 11061 net.cpp:156] Memory required for data: 831541200
I0403 14:44:50.504843 11061 layer_factory.hpp:77] Creating layer fc8_plantvillage_fc8_plantvillage_0_split
I0403 14:44:50.504861 11061 net.cpp:91] Creating Layer fc8_plantvillage_fc8_plantvillage_0_split
I0403 14:44:50.504878 11061 net.cpp:425] fc8_plantvillage_fc8_plantvillage_0_split <- fc8_plantvillage
I0403 14:44:50.504899 11061 net.cpp:399] fc8_plantvillage_fc8_plantvillage_0_split -> fc8_plantvillage_fc8_plantvillage_0_split_0
I0403 14:44:50.504920 11061 net.cpp:399] fc8_plantvillage_fc8_plantvillage_0_split -> fc8_plantvillage_fc8_plantvillage_0_split_1
I0403 14:44:50.504940 11061 net.cpp:399] fc8_plantvillage_fc8_plantvillage_0_split -> fc8_plantvillage_fc8_plantvillage_0_split_2
I0403 14:44:50.505013 11061 net.cpp:141] Setting up fc8_plantvillage_fc8_plantvillage_0_split
I0403 14:44:50.505038 11061 net.cpp:148] Top shape: 100 38 (3800)
I0403 14:44:50.505053 11061 net.cpp:148] Top shape: 100 38 (3800)
I0403 14:44:50.505069 11061 net.cpp:148] Top shape: 100 38 (3800)
I0403 14:44:50.505082 11061 net.cpp:156] Memory required for data: 831586800
I0403 14:44:50.505097 11061 layer_factory.hpp:77] Creating layer prob
I0403 14:44:50.505115 11061 net.cpp:91] Creating Layer prob
I0403 14:44:50.505131 11061 net.cpp:425] prob <- fc8_plantvillage_fc8_plantvillage_0_split_0
I0403 14:44:50.505149 11061 net.cpp:399] prob -> prob
I0403 14:44:50.505368 11061 net.cpp:141] Setting up prob
I0403 14:44:50.505398 11061 net.cpp:148] Top shape: 100 38 (3800)
I0403 14:44:50.505414 11061 net.cpp:156] Memory required for data: 831602000
I0403 14:44:50.505429 11061 layer_factory.hpp:77] Creating layer hdf5out
I0403 14:44:50.505447 11061 net.cpp:91] Creating Layer hdf5out
I0403 14:44:50.505463 11061 net.cpp:425] hdf5out <- prob
I0403 14:44:50.505480 11061 net.cpp:425] hdf5out <- label_data_1_split_0
I0403 14:44:50.507629 11061 net.cpp:141] Setting up hdf5out
…
