…
I0403 14:59:57.316068 11406 net.cpp:313] The NetState phase (1) differed from the phase (0) specified by a rule in layer data
I0403 14:59:57.316396 11406 net.cpp:49] Initializing net from parameters: 
state {
  phase: TEST
}
layer {
  name: "data"
  type: "Data"
  top: "data"
  top: "label"
  include {
    phase: TEST
  }
  transform_param {
    crop_size: 227
    mean_file: "/home/mohanty/data/final_dataset/lmdb/grayscale-50-50/mean.binaryproto"
  }
  data_param {
    source: "/home/mohanty/data/final_dataset/lmdb/grayscale-50-50/test_db"
    batch_size: 100
    backend: LMDB
  }
}
layer {
  name: "conv1"
  type: "Convolution"
  bottom: "data"
  top: "conv1"
  param {
    lr_mult: 1
    decay_mult: 1
  }
  param {
    lr_mult: 2
    decay_mult: 0
  }
  convolution_param {
    num_output: 96
    kernel_size: 11
    stride: 4
    weight_filler {
      type: "gaussian"
      std: 0.01
    }
    bias_filler {
      type: "constant"
      value: 0
    }
  }
}
layer {
  name: "relu1"
  type: "ReLU"
  bottom: "conv1"
  top: "conv1"
}
layer {
  name: "norm1"
  type: "LRN"
  bottom: "conv1"
  top: "norm1"
  lrn_param {
    local_size: 5
    alpha: 0.0001
    beta: 0.75
  }
}
layer {
  name: "pool1"
  type: "Pooling"
  bottom: "norm1"
  top: "pool1"
  pooling_param {
    pool: MAX
    kernel_size: 3
    stride: 2
  }
}
layer {
  name: "conv2"
  type: "Convolution"
  bottom: "pool1"
  top: "conv2"
  param {
    lr_mult: 1
    decay_mult: 1
  }
  param {
    lr_mult: 2
    decay_mult: 0
  }
  convolution_param {
    num_output: 256
    pad: 2
    kernel_size: 5
    group: 2
    weight_filler {
      type: "gaussian"
      std: 0.01
    }
    bias_filler {
      type: "constant"
      value: 0.1
    }
  }
}
layer {
  name: "relu2"
  type: "ReLU"
  bottom: "conv2"
  top: "conv2"
}
layer {
  name: "norm2"
  type: "LRN"
  bottom: "conv2"
  top: "norm2"
  lrn_param {
    local_size: 5
    alpha: 0.0001
    beta: 0.75
  }
}
layer {
  name: "pool2"
  type: "Pooling"
  bottom: "norm2"
  top: "pool2"
  pooling_param {
    pool: MAX
    kernel_size: 3
    stride: 2
  }
}
layer {
  name: "conv3"
  type: "Convolution"
  bottom: "pool2"
  top: "conv3"
  param {
    lr_mult: 1
    decay_mult: 1
  }
  param {
    lr_mult: 2
    decay_mult: 0
  }
  convolution_param {
    num_output: 384
    pad: 1
    kernel_size: 3
    weight_filler {
      type: "gaussian"
      std: 0.01
    }
    bias_filler {
      type: "constant"
      value: 0
    }
  }
}
layer {
  name: "relu3"
  type: "ReLU"
  bottom: "conv3"
  top: "conv3"
}
layer {
  name: "conv4"
  type: "Convolution"
  bottom: "conv3"
  top: "conv4"
  param {
    lr_mult: 1
    decay_mult: 1
  }
  param {
    lr_mult: 2
    decay_mult: 0
  }
  convolution_param {
    num_output: 384
    pad: 1
    kernel_size: 3
    group: 2
    weight_filler {
      type: "gaussian"
      std: 0.01
    }
    bias_filler {
      type: "constant"
      value: 0.1
    }
  }
}
layer {
  name: "relu4"
  type: "ReLU"
  bottom: "conv4"
  top: "conv4"
}
layer {
  name: "conv5"
  type: "Convolution"
  bottom: "conv4"
  top: "conv5"
  param {
    lr_mult: 1
    decay_mult: 1
  }
  param {
    lr_mult: 2
    decay_mult: 0
  }
  convolution_param {
    num_output: 256
    pad: 1
    kernel_size: 3
    group: 2
    weight_filler {
      type: "gaussian"
      std: 0.01
    }
    bias_filler {
      type: "constant"
      value: 0.1
    }
  }
}
layer {
  name: "relu5"
  type: "ReLU"
  bottom: "conv5"
  top: "conv5"
}
layer {
  name: "pool5"
  type: "Pooling"
  bottom: "conv5"
  top: "pool5"
  pooling_param {
    pool: MAX
    kernel_size: 3
    stride: 2
  }
}
layer {
  name: "fc6"
  type: "InnerProduct"
  bottom: "pool5"
  top: "fc6"
  param {
    lr_mult: 1
    decay_mult: 1
  }
  param {
    lr_mult: 2
    decay_mult: 0
  }
  inner_product_param {
    num_output: 4096
    weight_filler {
      type: "gaussian"
      std: 0.005
    }
    bias_filler {
      type: "constant"
      value: 0.1
    }
  }
}
layer {
  name: "relu6"
  type: "ReLU"
  bottom: "fc6"
  top: "fc6"
}
layer {
  name: "drop6"
  type: "Dropout"
  bottom: "fc6"
  top: "fc6"
  dropout_param {
    dropout_ratio: 0.5
  }
}
layer {
  name: "fc7"
  type: "InnerProduct"
  bottom: "fc6"
  top: "fc7"
  param {
    lr_mult: 1
    decay_mult: 1
  }
  param {
    lr_mult: 2
    decay_mult: 0
  }
  inner_product_param {
    num_output: 4096
    weight_filler {
      type: "gaussian"
      std: 0.005
    }
    bias_filler {
      type: "constant"
      value: 0.1
    }
  }
}
layer {
  name: "relu7"
  type: "ReLU"
  bottom: "fc7"
  top: "fc7"
}
layer {
  name: "drop7"
  type: "Dropout"
  bottom: "fc7"
  top: "fc7"
  dropout_param {
    dropout_ratio: 0.5
  }
}
layer {
  name: "fc8_plantvillage"
  type: "InnerProduct"
  bottom: "fc7"
  top: "fc8_plantvillage"
  param {
    lr_mult: 1
    decay_mult: 1
  }
  param {
    lr_mult: 2
    decay_mult: 0
  }
  inner_product_param {
    num_output: 38
    weight_filler {
      type: "gaussian"
      std: 0.01
    }
    bias_filler {
      type: "constant"
      value: 0
    }
  }
}
layer {
  name: "prob"
  type: "Softmax"
  bottom: "fc8_plantvillage"
  top: "prob"
  include {
    phase: TEST
  }
}
layer {
  name: "hdf5out"
  type: "HDF5Output"
  bottom: "prob"
  bottom: "label"
  include {
    phase: TEST
  }
  hdf5_output_param {
    file_name: "hdf5_dumps/iter_7209.h5"
  }
}
layer {
  name: "loss"
  type: "SoftmaxWithLoss"
  bottom: "fc8_plantvillage"
  bottom: "label"
  top: "loss"
}
layer {
  name: "accuracy"
  type: "Accuracy"
  bottom: "fc8_plantvillage"
  bottom: "label"
  top: "accuracy"
  include {
    phase: TEST
  }
}
I0403 14:59:57.316920 11406 layer_factory.hpp:77] Creating layer data
I0403 14:59:57.317550 11406 net.cpp:91] Creating Layer data
I0403 14:59:57.317584 11406 net.cpp:399] data -> data
I0403 14:59:57.317636 11406 net.cpp:399] data -> label
I0403 14:59:57.317672 11406 data_transformer.cpp:25] Loading mean file from: /home/mohanty/data/final_dataset/lmdb/grayscale-50-50/mean.binaryproto
I0403 14:59:57.320464 11411 db_lmdb.cpp:38] Opened lmdb /home/mohanty/data/final_dataset/lmdb/grayscale-50-50/test_db
I0403 14:59:57.331840 11406 data_layer.cpp:41] output data size: 100,3,227,227
I0403 14:59:57.452647 11406 net.cpp:141] Setting up data
I0403 14:59:57.452713 11406 net.cpp:148] Top shape: 100 3 227 227 (15458700)
I0403 14:59:57.452736 11406 net.cpp:148] Top shape: 100 (100)
I0403 14:59:57.452752 11406 net.cpp:156] Memory required for data: 61835200
I0403 14:59:57.452782 11406 layer_factory.hpp:77] Creating layer label_data_1_split
I0403 14:59:57.452810 11406 net.cpp:91] Creating Layer label_data_1_split
I0403 14:59:57.452828 11406 net.cpp:425] label_data_1_split <- label
I0403 14:59:57.452859 11406 net.cpp:399] label_data_1_split -> label_data_1_split_0
I0403 14:59:57.452888 11406 net.cpp:399] label_data_1_split -> label_data_1_split_1
I0403 14:59:57.452909 11406 net.cpp:399] label_data_1_split -> label_data_1_split_2
I0403 14:59:57.452973 11406 net.cpp:141] Setting up label_data_1_split
I0403 14:59:57.452999 11406 net.cpp:148] Top shape: 100 (100)
I0403 14:59:57.453016 11406 net.cpp:148] Top shape: 100 (100)
I0403 14:59:57.453033 11406 net.cpp:148] Top shape: 100 (100)
I0403 14:59:57.453048 11406 net.cpp:156] Memory required for data: 61836400
I0403 14:59:57.453063 11406 layer_factory.hpp:77] Creating layer conv1
I0403 14:59:57.453096 11406 net.cpp:91] Creating Layer conv1
I0403 14:59:57.453116 11406 net.cpp:425] conv1 <- data
I0403 14:59:57.453137 11406 net.cpp:399] conv1 -> conv1
I0403 14:59:57.594971 11406 net.cpp:141] Setting up conv1
I0403 14:59:57.595057 11406 net.cpp:148] Top shape: 100 96 55 55 (29040000)
I0403 14:59:57.595075 11406 net.cpp:156] Memory required for data: 177996400
I0403 14:59:57.595108 11406 layer_factory.hpp:77] Creating layer relu1
I0403 14:59:57.595136 11406 net.cpp:91] Creating Layer relu1
I0403 14:59:57.595155 11406 net.cpp:425] relu1 <- conv1
I0403 14:59:57.595173 11406 net.cpp:386] relu1 -> conv1 (in-place)
I0403 14:59:57.595430 11406 net.cpp:141] Setting up relu1
I0403 14:59:57.595458 11406 net.cpp:148] Top shape: 100 96 55 55 (29040000)
I0403 14:59:57.595505 11406 net.cpp:156] Memory required for data: 294156400
I0403 14:59:57.595521 11406 layer_factory.hpp:77] Creating layer norm1
I0403 14:59:57.595548 11406 net.cpp:91] Creating Layer norm1
I0403 14:59:57.595595 11406 net.cpp:425] norm1 <- conv1
I0403 14:59:57.595619 11406 net.cpp:399] norm1 -> norm1
I0403 14:59:57.595917 11406 net.cpp:141] Setting up norm1
I0403 14:59:57.595944 11406 net.cpp:148] Top shape: 100 96 55 55 (29040000)
I0403 14:59:57.595962 11406 net.cpp:156] Memory required for data: 410316400
I0403 14:59:57.595976 11406 layer_factory.hpp:77] Creating layer pool1
I0403 14:59:57.595999 11406 net.cpp:91] Creating Layer pool1
I0403 14:59:57.596017 11406 net.cpp:425] pool1 <- norm1
I0403 14:59:57.596035 11406 net.cpp:399] pool1 -> pool1
I0403 14:59:57.596101 11406 net.cpp:141] Setting up pool1
I0403 14:59:57.596124 11406 net.cpp:148] Top shape: 100 96 27 27 (6998400)
I0403 14:59:57.596140 11406 net.cpp:156] Memory required for data: 438310000
I0403 14:59:57.596155 11406 layer_factory.hpp:77] Creating layer conv2
I0403 14:59:57.596179 11406 net.cpp:91] Creating Layer conv2
I0403 14:59:57.596201 11406 net.cpp:425] conv2 <- pool1
I0403 14:59:57.596220 11406 net.cpp:399] conv2 -> conv2
I0403 14:59:57.611042 11406 net.cpp:141] Setting up conv2
I0403 14:59:57.611079 11406 net.cpp:148] Top shape: 100 256 27 27 (18662400)
I0403 14:59:57.611101 11406 net.cpp:156] Memory required for data: 512959600
I0403 14:59:57.611125 11406 layer_factory.hpp:77] Creating layer relu2
I0403 14:59:57.611145 11406 net.cpp:91] Creating Layer relu2
I0403 14:59:57.611162 11406 net.cpp:425] relu2 <- conv2
I0403 14:59:57.611181 11406 net.cpp:386] relu2 -> conv2 (in-place)
I0403 14:59:57.611452 11406 net.cpp:141] Setting up relu2
I0403 14:59:57.611481 11406 net.cpp:148] Top shape: 100 256 27 27 (18662400)
I0403 14:59:57.611497 11406 net.cpp:156] Memory required for data: 587609200
I0403 14:59:57.611513 11406 layer_factory.hpp:77] Creating layer norm2
I0403 14:59:57.611534 11406 net.cpp:91] Creating Layer norm2
I0403 14:59:57.611551 11406 net.cpp:425] norm2 <- conv2
I0403 14:59:57.611569 11406 net.cpp:399] norm2 -> norm2
I0403 14:59:57.611752 11406 net.cpp:141] Setting up norm2
I0403 14:59:57.611779 11406 net.cpp:148] Top shape: 100 256 27 27 (18662400)
I0403 14:59:57.611795 11406 net.cpp:156] Memory required for data: 662258800
I0403 14:59:57.611811 11406 layer_factory.hpp:77] Creating layer pool2
I0403 14:59:57.611829 11406 net.cpp:91] Creating Layer pool2
I0403 14:59:57.611845 11406 net.cpp:425] pool2 <- norm2
I0403 14:59:57.611863 11406 net.cpp:399] pool2 -> pool2
I0403 14:59:57.611914 11406 net.cpp:141] Setting up pool2
I0403 14:59:57.611937 11406 net.cpp:148] Top shape: 100 256 13 13 (4326400)
I0403 14:59:57.611953 11406 net.cpp:156] Memory required for data: 679564400
I0403 14:59:57.611968 11406 layer_factory.hpp:77] Creating layer conv3
I0403 14:59:57.611989 11406 net.cpp:91] Creating Layer conv3
I0403 14:59:57.612005 11406 net.cpp:425] conv3 <- pool2
I0403 14:59:57.612025 11406 net.cpp:399] conv3 -> conv3
I0403 14:59:57.650876 11406 net.cpp:141] Setting up conv3
I0403 14:59:57.650961 11406 net.cpp:148] Top shape: 100 384 13 13 (6489600)
I0403 14:59:57.650979 11406 net.cpp:156] Memory required for data: 705522800
I0403 14:59:57.651005 11406 layer_factory.hpp:77] Creating layer relu3
I0403 14:59:57.651028 11406 net.cpp:91] Creating Layer relu3
I0403 14:59:57.651047 11406 net.cpp:425] relu3 <- conv3
I0403 14:59:57.651067 11406 net.cpp:386] relu3 -> conv3 (in-place)
I0403 14:59:57.651336 11406 net.cpp:141] Setting up relu3
I0403 14:59:57.651365 11406 net.cpp:148] Top shape: 100 384 13 13 (6489600)
I0403 14:59:57.651379 11406 net.cpp:156] Memory required for data: 731481200
I0403 14:59:57.651394 11406 layer_factory.hpp:77] Creating layer conv4
I0403 14:59:57.651451 11406 net.cpp:91] Creating Layer conv4
I0403 14:59:57.651473 11406 net.cpp:425] conv4 <- conv3
I0403 14:59:57.651492 11406 net.cpp:399] conv4 -> conv4
I0403 14:59:57.680956 11406 net.cpp:141] Setting up conv4
I0403 14:59:57.681012 11406 net.cpp:148] Top shape: 100 384 13 13 (6489600)
I0403 14:59:57.681061 11406 net.cpp:156] Memory required for data: 757439600
I0403 14:59:57.681082 11406 layer_factory.hpp:77] Creating layer relu4
I0403 14:59:57.681103 11406 net.cpp:91] Creating Layer relu4
I0403 14:59:57.681119 11406 net.cpp:425] relu4 <- conv4
I0403 14:59:57.681141 11406 net.cpp:386] relu4 -> conv4 (in-place)
I0403 14:59:57.681437 11406 net.cpp:141] Setting up relu4
I0403 14:59:57.681476 11406 net.cpp:148] Top shape: 100 384 13 13 (6489600)
I0403 14:59:57.681493 11406 net.cpp:156] Memory required for data: 783398000
I0403 14:59:57.681509 11406 layer_factory.hpp:77] Creating layer conv5
I0403 14:59:57.681532 11406 net.cpp:91] Creating Layer conv5
I0403 14:59:57.681551 11406 net.cpp:425] conv5 <- conv4
I0403 14:59:57.681571 11406 net.cpp:399] conv5 -> conv5
I0403 14:59:57.702275 11406 net.cpp:141] Setting up conv5
I0403 14:59:57.702316 11406 net.cpp:148] Top shape: 100 256 13 13 (4326400)
I0403 14:59:57.702334 11406 net.cpp:156] Memory required for data: 800703600
I0403 14:59:57.702361 11406 layer_factory.hpp:77] Creating layer relu5
I0403 14:59:57.702383 11406 net.cpp:91] Creating Layer relu5
I0403 14:59:57.702400 11406 net.cpp:425] relu5 <- conv5
I0403 14:59:57.702422 11406 net.cpp:386] relu5 -> conv5 (in-place)
I0403 14:59:57.702710 11406 net.cpp:141] Setting up relu5
I0403 14:59:57.702740 11406 net.cpp:148] Top shape: 100 256 13 13 (4326400)
I0403 14:59:57.702756 11406 net.cpp:156] Memory required for data: 818009200
I0403 14:59:57.702771 11406 layer_factory.hpp:77] Creating layer pool5
I0403 14:59:57.702797 11406 net.cpp:91] Creating Layer pool5
I0403 14:59:57.702816 11406 net.cpp:425] pool5 <- conv5
I0403 14:59:57.702836 11406 net.cpp:399] pool5 -> pool5
I0403 14:59:57.702903 11406 net.cpp:141] Setting up pool5
I0403 14:59:57.702929 11406 net.cpp:148] Top shape: 100 256 6 6 (921600)
I0403 14:59:57.702944 11406 net.cpp:156] Memory required for data: 821695600
I0403 14:59:57.702958 11406 layer_factory.hpp:77] Creating layer fc6
I0403 14:59:57.702986 11406 net.cpp:91] Creating Layer fc6
I0403 14:59:57.703006 11406 net.cpp:425] fc6 <- pool5
I0403 14:59:57.703028 11406 net.cpp:399] fc6 -> fc6
I0403 14:59:59.288661 11406 net.cpp:141] Setting up fc6
I0403 14:59:59.288704 11406 net.cpp:148] Top shape: 100 4096 (409600)
I0403 14:59:59.288720 11406 net.cpp:156] Memory required for data: 823334000
I0403 14:59:59.288741 11406 layer_factory.hpp:77] Creating layer relu6
I0403 14:59:59.288766 11406 net.cpp:91] Creating Layer relu6
I0403 14:59:59.288784 11406 net.cpp:425] relu6 <- fc6
I0403 14:59:59.288805 11406 net.cpp:386] relu6 -> fc6 (in-place)
I0403 14:59:59.289018 11406 net.cpp:141] Setting up relu6
I0403 14:59:59.289043 11406 net.cpp:148] Top shape: 100 4096 (409600)
I0403 14:59:59.289058 11406 net.cpp:156] Memory required for data: 824972400
I0403 14:59:59.289073 11406 layer_factory.hpp:77] Creating layer drop6
I0403 14:59:59.289091 11406 net.cpp:91] Creating Layer drop6
I0403 14:59:59.289108 11406 net.cpp:425] drop6 <- fc6
I0403 14:59:59.289129 11406 net.cpp:386] drop6 -> fc6 (in-place)
I0403 14:59:59.289177 11406 net.cpp:141] Setting up drop6
I0403 14:59:59.289209 11406 net.cpp:148] Top shape: 100 4096 (409600)
I0403 14:59:59.289227 11406 net.cpp:156] Memory required for data: 826610800
I0403 14:59:59.289242 11406 layer_factory.hpp:77] Creating layer fc7
I0403 14:59:59.289263 11406 net.cpp:91] Creating Layer fc7
I0403 14:59:59.289278 11406 net.cpp:425] fc7 <- fc6
I0403 14:59:59.289300 11406 net.cpp:399] fc7 -> fc7
I0403 14:59:59.970971 11406 net.cpp:141] Setting up fc7
I0403 14:59:59.971056 11406 net.cpp:148] Top shape: 100 4096 (409600)
I0403 14:59:59.971073 11406 net.cpp:156] Memory required for data: 828249200
I0403 14:59:59.971093 11406 layer_factory.hpp:77] Creating layer relu7
I0403 14:59:59.971117 11406 net.cpp:91] Creating Layer relu7
I0403 14:59:59.971135 11406 net.cpp:425] relu7 <- fc7
I0403 14:59:59.971158 11406 net.cpp:386] relu7 -> fc7 (in-place)
I0403 14:59:59.971554 11406 net.cpp:141] Setting up relu7
I0403 14:59:59.971582 11406 net.cpp:148] Top shape: 100 4096 (409600)
I0403 14:59:59.971633 11406 net.cpp:156] Memory required for data: 829887600
I0403 14:59:59.971650 11406 layer_factory.hpp:77] Creating layer drop7
I0403 14:59:59.971671 11406 net.cpp:91] Creating Layer drop7
I0403 14:59:59.971688 11406 net.cpp:425] drop7 <- fc7
I0403 14:59:59.971709 11406 net.cpp:386] drop7 -> fc7 (in-place)
I0403 14:59:59.971752 11406 net.cpp:141] Setting up drop7
I0403 14:59:59.971776 11406 net.cpp:148] Top shape: 100 4096 (409600)
I0403 14:59:59.971791 11406 net.cpp:156] Memory required for data: 831526000
I0403 14:59:59.971806 11406 layer_factory.hpp:77] Creating layer fc8_plantvillage
I0403 14:59:59.971827 11406 net.cpp:91] Creating Layer fc8_plantvillage
I0403 14:59:59.971844 11406 net.cpp:425] fc8_plantvillage <- fc7
I0403 14:59:59.971868 11406 net.cpp:399] fc8_plantvillage -> fc8_plantvillage
I0403 14:59:59.979167 11406 net.cpp:141] Setting up fc8_plantvillage
I0403 14:59:59.979200 11406 net.cpp:148] Top shape: 100 38 (3800)
I0403 14:59:59.979218 11406 net.cpp:156] Memory required for data: 831541200
I0403 14:59:59.979238 11406 layer_factory.hpp:77] Creating layer fc8_plantvillage_fc8_plantvillage_0_split
I0403 14:59:59.979257 11406 net.cpp:91] Creating Layer fc8_plantvillage_fc8_plantvillage_0_split
I0403 14:59:59.979274 11406 net.cpp:425] fc8_plantvillage_fc8_plantvillage_0_split <- fc8_plantvillage
I0403 14:59:59.979292 11406 net.cpp:399] fc8_plantvillage_fc8_plantvillage_0_split -> fc8_plantvillage_fc8_plantvillage_0_split_0
I0403 14:59:59.979315 11406 net.cpp:399] fc8_plantvillage_fc8_plantvillage_0_split -> fc8_plantvillage_fc8_plantvillage_0_split_1
I0403 14:59:59.979336 11406 net.cpp:399] fc8_plantvillage_fc8_plantvillage_0_split -> fc8_plantvillage_fc8_plantvillage_0_split_2
I0403 14:59:59.979413 11406 net.cpp:141] Setting up fc8_plantvillage_fc8_plantvillage_0_split
I0403 14:59:59.979436 11406 net.cpp:148] Top shape: 100 38 (3800)
I0403 14:59:59.979452 11406 net.cpp:148] Top shape: 100 38 (3800)
I0403 14:59:59.979467 11406 net.cpp:148] Top shape: 100 38 (3800)
I0403 14:59:59.979482 11406 net.cpp:156] Memory required for data: 831586800
I0403 14:59:59.979497 11406 layer_factory.hpp:77] Creating layer prob
I0403 14:59:59.979516 11406 net.cpp:91] Creating Layer prob
I0403 14:59:59.979531 11406 net.cpp:425] prob <- fc8_plantvillage_fc8_plantvillage_0_split_0
I0403 14:59:59.979550 11406 net.cpp:399] prob -> prob
I0403 14:59:59.979797 11406 net.cpp:141] Setting up prob
I0403 14:59:59.979826 11406 net.cpp:148] Top shape: 100 38 (3800)
I0403 14:59:59.979842 11406 net.cpp:156] Memory required for data: 831602000
I0403 14:59:59.979857 11406 layer_factory.hpp:77] Creating layer hdf5out
I0403 14:59:59.979877 11406 net.cpp:91] Creating Layer hdf5out
I0403 14:59:59.979893 11406 net.cpp:425] hdf5out <- prob
I0403 14:59:59.979909 11406 net.cpp:425] hdf5out <- label_data_1_split_0
I0403 14:59:59.982206 11406 net.cpp:141] Setting up hdf5out
…
