…
I0403 14:43:49.948014 11032 net.cpp:313] The NetState phase (1) differed from the phase (0) specified by a rule in layer data
I0403 14:43:49.948366 11032 net.cpp:49] Initializing net from parameters: 
state {
  phase: TEST
}
layer {
  name: "data"
  type: "Data"
  top: "data"
  top: "label"
  include {
    phase: TEST
  }
  transform_param {
    crop_size: 227
    mean_file: "/home/mohanty/data/final_dataset/lmdb/grayscale-50-50/mean.binaryproto"
  }
  data_param {
    source: "/home/mohanty/data/final_dataset/lmdb/grayscale-50-50/test_db"
    batch_size: 100
    backend: LMDB
  }
}
layer {
  name: "conv1"
  type: "Convolution"
  bottom: "data"
  top: "conv1"
  param {
    lr_mult: 1
    decay_mult: 1
  }
  param {
    lr_mult: 2
    decay_mult: 0
  }
  convolution_param {
    num_output: 96
    kernel_size: 11
    stride: 4
    weight_filler {
      type: "gaussian"
      std: 0.01
    }
    bias_filler {
      type: "constant"
      value: 0
    }
  }
}
layer {
  name: "relu1"
  type: "ReLU"
  bottom: "conv1"
  top: "conv1"
}
layer {
  name: "norm1"
  type: "LRN"
  bottom: "conv1"
  top: "norm1"
  lrn_param {
    local_size: 5
    alpha: 0.0001
    beta: 0.75
  }
}
layer {
  name: "pool1"
  type: "Pooling"
  bottom: "norm1"
  top: "pool1"
  pooling_param {
    pool: MAX
    kernel_size: 3
    stride: 2
  }
}
layer {
  name: "conv2"
  type: "Convolution"
  bottom: "pool1"
  top: "conv2"
  param {
    lr_mult: 1
    decay_mult: 1
  }
  param {
    lr_mult: 2
    decay_mult: 0
  }
  convolution_param {
    num_output: 256
    pad: 2
    kernel_size: 5
    group: 2
    weight_filler {
      type: "gaussian"
      std: 0.01
    }
    bias_filler {
      type: "constant"
      value: 0.1
    }
  }
}
layer {
  name: "relu2"
  type: "ReLU"
  bottom: "conv2"
  top: "conv2"
}
layer {
  name: "norm2"
  type: "LRN"
  bottom: "conv2"
  top: "norm2"
  lrn_param {
    local_size: 5
    alpha: 0.0001
    beta: 0.75
  }
}
layer {
  name: "pool2"
  type: "Pooling"
  bottom: "norm2"
  top: "pool2"
  pooling_param {
    pool: MAX
    kernel_size: 3
    stride: 2
  }
}
layer {
  name: "conv3"
  type: "Convolution"
  bottom: "pool2"
  top: "conv3"
  param {
    lr_mult: 1
    decay_mult: 1
  }
  param {
    lr_mult: 2
    decay_mult: 0
  }
  convolution_param {
    num_output: 384
    pad: 1
    kernel_size: 3
    weight_filler {
      type: "gaussian"
      std: 0.01
    }
    bias_filler {
      type: "constant"
      value: 0
    }
  }
}
layer {
  name: "relu3"
  type: "ReLU"
  bottom: "conv3"
  top: "conv3"
}
layer {
  name: "conv4"
  type: "Convolution"
  bottom: "conv3"
  top: "conv4"
  param {
    lr_mult: 1
    decay_mult: 1
  }
  param {
    lr_mult: 2
    decay_mult: 0
  }
  convolution_param {
    num_output: 384
    pad: 1
    kernel_size: 3
    group: 2
    weight_filler {
      type: "gaussian"
      std: 0.01
    }
    bias_filler {
      type: "constant"
      value: 0.1
    }
  }
}
layer {
  name: "relu4"
  type: "ReLU"
  bottom: "conv4"
  top: "conv4"
}
layer {
  name: "conv5"
  type: "Convolution"
  bottom: "conv4"
  top: "conv5"
  param {
    lr_mult: 1
    decay_mult: 1
  }
  param {
    lr_mult: 2
    decay_mult: 0
  }
  convolution_param {
    num_output: 256
    pad: 1
    kernel_size: 3
    group: 2
    weight_filler {
      type: "gaussian"
      std: 0.01
    }
    bias_filler {
      type: "constant"
      value: 0.1
    }
  }
}
layer {
  name: "relu5"
  type: "ReLU"
  bottom: "conv5"
  top: "conv5"
}
layer {
  name: "pool5"
  type: "Pooling"
  bottom: "conv5"
  top: "pool5"
  pooling_param {
    pool: MAX
    kernel_size: 3
    stride: 2
  }
}
layer {
  name: "fc6"
  type: "InnerProduct"
  bottom: "pool5"
  top: "fc6"
  param {
    lr_mult: 1
    decay_mult: 1
  }
  param {
    lr_mult: 2
    decay_mult: 0
  }
  inner_product_param {
    num_output: 4096
    weight_filler {
      type: "gaussian"
      std: 0.005
    }
    bias_filler {
      type: "constant"
      value: 0.1
    }
  }
}
layer {
  name: "relu6"
  type: "ReLU"
  bottom: "fc6"
  top: "fc6"
}
layer {
  name: "drop6"
  type: "Dropout"
  bottom: "fc6"
  top: "fc6"
  dropout_param {
    dropout_ratio: 0.5
  }
}
layer {
  name: "fc7"
  type: "InnerProduct"
  bottom: "fc6"
  top: "fc7"
  param {
    lr_mult: 1
    decay_mult: 1
  }
  param {
    lr_mult: 2
    decay_mult: 0
  }
  inner_product_param {
    num_output: 4096
    weight_filler {
      type: "gaussian"
      std: 0.005
    }
    bias_filler {
      type: "constant"
      value: 0.1
    }
  }
}
layer {
  name: "relu7"
  type: "ReLU"
  bottom: "fc7"
  top: "fc7"
}
layer {
  name: "drop7"
  type: "Dropout"
  bottom: "fc7"
  top: "fc7"
  dropout_param {
    dropout_ratio: 0.5
  }
}
layer {
  name: "fc8_plantvillage"
  type: "InnerProduct"
  bottom: "fc7"
  top: "fc8_plantvillage"
  param {
    lr_mult: 1
    decay_mult: 1
  }
  param {
    lr_mult: 2
    decay_mult: 0
  }
  inner_product_param {
    num_output: 38
    weight_filler {
      type: "gaussian"
      std: 0.01
    }
    bias_filler {
      type: "constant"
      value: 0
    }
  }
}
layer {
  name: "prob"
  type: "Softmax"
  bottom: "fc8_plantvillage"
  top: "prob"
  include {
    phase: TEST
  }
}
layer {
  name: "hdf5out"
  type: "HDF5Output"
  bottom: "prob"
  bottom: "label"
  include {
    phase: TEST
  }
  hdf5_output_param {
    file_name: "hdf5_dumps/iter_2670.h5"
  }
}
layer {
  name: "loss"
  type: "SoftmaxWithLoss"
  bottom: "fc8_plantvillage"
  bottom: "label"
  top: "loss"
}
layer {
  name: "accuracy"
  type: "Accuracy"
  bottom: "fc8_plantvillage"
  bottom: "label"
  top: "accuracy"
  include {
    phase: TEST
  }
}
I0403 14:43:49.949214 11032 layer_factory.hpp:77] Creating layer data
I0403 14:43:49.950340 11032 net.cpp:91] Creating Layer data
I0403 14:43:49.950376 11032 net.cpp:399] data -> data
I0403 14:43:49.950435 11032 net.cpp:399] data -> label
I0403 14:43:49.950472 11032 data_transformer.cpp:25] Loading mean file from: /home/mohanty/data/final_dataset/lmdb/grayscale-50-50/mean.binaryproto
I0403 14:43:49.954460 11036 db_lmdb.cpp:38] Opened lmdb /home/mohanty/data/final_dataset/lmdb/grayscale-50-50/test_db
I0403 14:43:49.966112 11032 data_layer.cpp:41] output data size: 100,3,227,227
I0403 14:43:52.139811 11032 net.cpp:141] Setting up data
I0403 14:43:52.139931 11032 net.cpp:148] Top shape: 100 3 227 227 (15458700)
I0403 14:43:52.139956 11032 net.cpp:148] Top shape: 100 (100)
I0403 14:43:52.139971 11032 net.cpp:156] Memory required for data: 61835200
I0403 14:43:52.139999 11032 layer_factory.hpp:77] Creating layer label_data_1_split
I0403 14:43:52.140025 11032 net.cpp:91] Creating Layer label_data_1_split
I0403 14:43:52.140043 11032 net.cpp:425] label_data_1_split <- label
I0403 14:43:52.140076 11032 net.cpp:399] label_data_1_split -> label_data_1_split_0
I0403 14:43:52.140105 11032 net.cpp:399] label_data_1_split -> label_data_1_split_1
I0403 14:43:52.140127 11032 net.cpp:399] label_data_1_split -> label_data_1_split_2
I0403 14:43:52.140199 11032 net.cpp:141] Setting up label_data_1_split
I0403 14:43:52.140223 11032 net.cpp:148] Top shape: 100 (100)
I0403 14:43:52.140240 11032 net.cpp:148] Top shape: 100 (100)
I0403 14:43:52.140256 11032 net.cpp:148] Top shape: 100 (100)
I0403 14:43:52.140271 11032 net.cpp:156] Memory required for data: 61836400
I0403 14:43:52.140286 11032 layer_factory.hpp:77] Creating layer conv1
I0403 14:43:52.140319 11032 net.cpp:91] Creating Layer conv1
I0403 14:43:52.140338 11032 net.cpp:425] conv1 <- data
I0403 14:43:52.140358 11032 net.cpp:399] conv1 -> conv1
I0403 14:43:52.323846 11032 net.cpp:141] Setting up conv1
I0403 14:43:52.323935 11032 net.cpp:148] Top shape: 100 96 55 55 (29040000)
I0403 14:43:52.323954 11032 net.cpp:156] Memory required for data: 177996400
I0403 14:43:52.323987 11032 layer_factory.hpp:77] Creating layer relu1
I0403 14:43:52.324017 11032 net.cpp:91] Creating Layer relu1
I0403 14:43:52.324038 11032 net.cpp:425] relu1 <- conv1
I0403 14:43:52.324059 11032 net.cpp:386] relu1 -> conv1 (in-place)
I0403 14:43:52.324352 11032 net.cpp:141] Setting up relu1
I0403 14:43:52.324380 11032 net.cpp:148] Top shape: 100 96 55 55 (29040000)
I0403 14:43:52.324434 11032 net.cpp:156] Memory required for data: 294156400
I0403 14:43:52.324451 11032 layer_factory.hpp:77] Creating layer norm1
I0403 14:43:52.324481 11032 net.cpp:91] Creating Layer norm1
I0403 14:43:52.324501 11032 net.cpp:425] norm1 <- conv1
I0403 14:43:52.324519 11032 net.cpp:399] norm1 -> norm1
I0403 14:43:52.324826 11032 net.cpp:141] Setting up norm1
I0403 14:43:52.324856 11032 net.cpp:148] Top shape: 100 96 55 55 (29040000)
I0403 14:43:52.324872 11032 net.cpp:156] Memory required for data: 410316400
I0403 14:43:52.324888 11032 layer_factory.hpp:77] Creating layer pool1
I0403 14:43:52.324913 11032 net.cpp:91] Creating Layer pool1
I0403 14:43:52.324933 11032 net.cpp:425] pool1 <- norm1
I0403 14:43:52.324952 11032 net.cpp:399] pool1 -> pool1
I0403 14:43:52.325019 11032 net.cpp:141] Setting up pool1
I0403 14:43:52.325044 11032 net.cpp:148] Top shape: 100 96 27 27 (6998400)
I0403 14:43:52.325060 11032 net.cpp:156] Memory required for data: 438310000
I0403 14:43:52.325075 11032 layer_factory.hpp:77] Creating layer conv2
I0403 14:43:52.325101 11032 net.cpp:91] Creating Layer conv2
I0403 14:43:52.325119 11032 net.cpp:425] conv2 <- pool1
I0403 14:43:52.325139 11032 net.cpp:399] conv2 -> conv2
I0403 14:43:52.340476 11032 net.cpp:141] Setting up conv2
I0403 14:43:52.340549 11032 net.cpp:148] Top shape: 100 256 27 27 (18662400)
I0403 14:43:52.340569 11032 net.cpp:156] Memory required for data: 512959600
I0403 14:43:52.340593 11032 layer_factory.hpp:77] Creating layer relu2
I0403 14:43:52.340617 11032 net.cpp:91] Creating Layer relu2
I0403 14:43:52.340636 11032 net.cpp:425] relu2 <- conv2
I0403 14:43:52.340656 11032 net.cpp:386] relu2 -> conv2 (in-place)
I0403 14:43:52.340944 11032 net.cpp:141] Setting up relu2
I0403 14:43:52.340971 11032 net.cpp:148] Top shape: 100 256 27 27 (18662400)
I0403 14:43:52.340987 11032 net.cpp:156] Memory required for data: 587609200
I0403 14:43:52.341004 11032 layer_factory.hpp:77] Creating layer norm2
I0403 14:43:52.341029 11032 net.cpp:91] Creating Layer norm2
I0403 14:43:52.341048 11032 net.cpp:425] norm2 <- conv2
I0403 14:43:52.341068 11032 net.cpp:399] norm2 -> norm2
I0403 14:43:52.341270 11032 net.cpp:141] Setting up norm2
I0403 14:43:52.341328 11032 net.cpp:148] Top shape: 100 256 27 27 (18662400)
I0403 14:43:52.341348 11032 net.cpp:156] Memory required for data: 662258800
I0403 14:43:52.341364 11032 layer_factory.hpp:77] Creating layer pool2
I0403 14:43:52.341383 11032 net.cpp:91] Creating Layer pool2
I0403 14:43:52.341400 11032 net.cpp:425] pool2 <- norm2
I0403 14:43:52.341419 11032 net.cpp:399] pool2 -> pool2
I0403 14:43:52.341475 11032 net.cpp:141] Setting up pool2
I0403 14:43:52.341500 11032 net.cpp:148] Top shape: 100 256 13 13 (4326400)
I0403 14:43:52.341516 11032 net.cpp:156] Memory required for data: 679564400
I0403 14:43:52.341532 11032 layer_factory.hpp:77] Creating layer conv3
I0403 14:43:52.341558 11032 net.cpp:91] Creating Layer conv3
I0403 14:43:52.341577 11032 net.cpp:425] conv3 <- pool2
I0403 14:43:52.341598 11032 net.cpp:399] conv3 -> conv3
I0403 14:43:52.380488 11032 net.cpp:141] Setting up conv3
I0403 14:43:52.380527 11032 net.cpp:148] Top shape: 100 384 13 13 (6489600)
I0403 14:43:52.380545 11032 net.cpp:156] Memory required for data: 705522800
I0403 14:43:52.380574 11032 layer_factory.hpp:77] Creating layer relu3
I0403 14:43:52.380599 11032 net.cpp:91] Creating Layer relu3
I0403 14:43:52.380619 11032 net.cpp:425] relu3 <- conv3
I0403 14:43:52.380638 11032 net.cpp:386] relu3 -> conv3 (in-place)
I0403 14:43:52.380955 11032 net.cpp:141] Setting up relu3
I0403 14:43:52.380987 11032 net.cpp:148] Top shape: 100 384 13 13 (6489600)
I0403 14:43:52.381007 11032 net.cpp:156] Memory required for data: 731481200
I0403 14:43:52.381023 11032 layer_factory.hpp:77] Creating layer conv4
I0403 14:43:52.381049 11032 net.cpp:91] Creating Layer conv4
I0403 14:43:52.381072 11032 net.cpp:425] conv4 <- conv3
I0403 14:43:52.381091 11032 net.cpp:399] conv4 -> conv4
I0403 14:43:52.412611 11032 net.cpp:141] Setting up conv4
I0403 14:43:52.412699 11032 net.cpp:148] Top shape: 100 384 13 13 (6489600)
I0403 14:43:52.412750 11032 net.cpp:156] Memory required for data: 757439600
I0403 14:43:52.412775 11032 layer_factory.hpp:77] Creating layer relu4
I0403 14:43:52.412803 11032 net.cpp:91] Creating Layer relu4
I0403 14:43:52.412825 11032 net.cpp:425] relu4 <- conv4
I0403 14:43:52.412847 11032 net.cpp:386] relu4 -> conv4 (in-place)
I0403 14:43:52.413141 11032 net.cpp:141] Setting up relu4
I0403 14:43:52.413174 11032 net.cpp:148] Top shape: 100 384 13 13 (6489600)
I0403 14:43:52.413192 11032 net.cpp:156] Memory required for data: 783398000
I0403 14:43:52.413209 11032 layer_factory.hpp:77] Creating layer conv5
I0403 14:43:52.413240 11032 net.cpp:91] Creating Layer conv5
I0403 14:43:52.413264 11032 net.cpp:425] conv5 <- conv4
I0403 14:43:52.413286 11032 net.cpp:399] conv5 -> conv5
I0403 14:43:52.434975 11032 net.cpp:141] Setting up conv5
I0403 14:43:52.435050 11032 net.cpp:148] Top shape: 100 256 13 13 (4326400)
I0403 14:43:52.435071 11032 net.cpp:156] Memory required for data: 800703600
I0403 14:43:52.435098 11032 layer_factory.hpp:77] Creating layer relu5
I0403 14:43:52.435122 11032 net.cpp:91] Creating Layer relu5
I0403 14:43:52.435142 11032 net.cpp:425] relu5 <- conv5
I0403 14:43:52.435166 11032 net.cpp:386] relu5 -> conv5 (in-place)
I0403 14:43:52.435528 11032 net.cpp:141] Setting up relu5
I0403 14:43:52.435560 11032 net.cpp:148] Top shape: 100 256 13 13 (4326400)
I0403 14:43:52.435577 11032 net.cpp:156] Memory required for data: 818009200
I0403 14:43:52.435595 11032 layer_factory.hpp:77] Creating layer pool5
I0403 14:43:52.435617 11032 net.cpp:91] Creating Layer pool5
I0403 14:43:52.435636 11032 net.cpp:425] pool5 <- conv5
I0403 14:43:52.435658 11032 net.cpp:399] pool5 -> pool5
I0403 14:43:52.435722 11032 net.cpp:141] Setting up pool5
I0403 14:43:52.435750 11032 net.cpp:148] Top shape: 100 256 6 6 (921600)
I0403 14:43:52.435766 11032 net.cpp:156] Memory required for data: 821695600
I0403 14:43:52.435782 11032 layer_factory.hpp:77] Creating layer fc6
I0403 14:43:52.435814 11032 net.cpp:91] Creating Layer fc6
I0403 14:43:52.435834 11032 net.cpp:425] fc6 <- pool5
I0403 14:43:52.435856 11032 net.cpp:399] fc6 -> fc6
I0403 14:43:54.017146 11032 net.cpp:141] Setting up fc6
I0403 14:43:54.017192 11032 net.cpp:148] Top shape: 100 4096 (409600)
I0403 14:43:54.017210 11032 net.cpp:156] Memory required for data: 823334000
I0403 14:43:54.017232 11032 layer_factory.hpp:77] Creating layer relu6
I0403 14:43:54.017257 11032 net.cpp:91] Creating Layer relu6
I0403 14:43:54.017277 11032 net.cpp:425] relu6 <- fc6
I0403 14:43:54.017297 11032 net.cpp:386] relu6 -> fc6 (in-place)
I0403 14:43:54.017505 11032 net.cpp:141] Setting up relu6
I0403 14:43:54.017534 11032 net.cpp:148] Top shape: 100 4096 (409600)
I0403 14:43:54.017551 11032 net.cpp:156] Memory required for data: 824972400
I0403 14:43:54.017567 11032 layer_factory.hpp:77] Creating layer drop6
I0403 14:43:54.017586 11032 net.cpp:91] Creating Layer drop6
I0403 14:43:54.017603 11032 net.cpp:425] drop6 <- fc6
I0403 14:43:54.017621 11032 net.cpp:386] drop6 -> fc6 (in-place)
I0403 14:43:54.017673 11032 net.cpp:141] Setting up drop6
I0403 14:43:54.017696 11032 net.cpp:148] Top shape: 100 4096 (409600)
I0403 14:43:54.017712 11032 net.cpp:156] Memory required for data: 826610800
I0403 14:43:54.017729 11032 layer_factory.hpp:77] Creating layer fc7
I0403 14:43:54.017751 11032 net.cpp:91] Creating Layer fc7
I0403 14:43:54.017768 11032 net.cpp:425] fc7 <- fc6
I0403 14:43:54.017788 11032 net.cpp:399] fc7 -> fc7
I0403 14:43:54.692615 11032 net.cpp:141] Setting up fc7
I0403 14:43:54.692693 11032 net.cpp:148] Top shape: 100 4096 (409600)
I0403 14:43:54.692710 11032 net.cpp:156] Memory required for data: 828249200
I0403 14:43:54.692730 11032 layer_factory.hpp:77] Creating layer relu7
I0403 14:43:54.692755 11032 net.cpp:91] Creating Layer relu7
I0403 14:43:54.692775 11032 net.cpp:425] relu7 <- fc7
I0403 14:43:54.692795 11032 net.cpp:386] relu7 -> fc7 (in-place)
I0403 14:43:54.693168 11032 net.cpp:141] Setting up relu7
I0403 14:43:54.693197 11032 net.cpp:148] Top shape: 100 4096 (409600)
I0403 14:43:54.693244 11032 net.cpp:156] Memory required for data: 829887600
I0403 14:43:54.693261 11032 layer_factory.hpp:77] Creating layer drop7
I0403 14:43:54.693279 11032 net.cpp:91] Creating Layer drop7
I0403 14:43:54.693295 11032 net.cpp:425] drop7 <- fc7
I0403 14:43:54.693313 11032 net.cpp:386] drop7 -> fc7 (in-place)
I0403 14:43:54.693356 11032 net.cpp:141] Setting up drop7
I0403 14:43:54.693378 11032 net.cpp:148] Top shape: 100 4096 (409600)
I0403 14:43:54.693394 11032 net.cpp:156] Memory required for data: 831526000
I0403 14:43:54.693408 11032 layer_factory.hpp:77] Creating layer fc8_plantvillage
I0403 14:43:54.693430 11032 net.cpp:91] Creating Layer fc8_plantvillage
I0403 14:43:54.693447 11032 net.cpp:425] fc8_plantvillage <- fc7
I0403 14:43:54.693466 11032 net.cpp:399] fc8_plantvillage -> fc8_plantvillage
I0403 14:43:54.699996 11032 net.cpp:141] Setting up fc8_plantvillage
I0403 14:43:54.700024 11032 net.cpp:148] Top shape: 100 38 (3800)
I0403 14:43:54.700040 11032 net.cpp:156] Memory required for data: 831541200
I0403 14:43:54.700059 11032 layer_factory.hpp:77] Creating layer fc8_plantvillage_fc8_plantvillage_0_split
I0403 14:43:54.700079 11032 net.cpp:91] Creating Layer fc8_plantvillage_fc8_plantvillage_0_split
I0403 14:43:54.700095 11032 net.cpp:425] fc8_plantvillage_fc8_plantvillage_0_split <- fc8_plantvillage
I0403 14:43:54.700114 11032 net.cpp:399] fc8_plantvillage_fc8_plantvillage_0_split -> fc8_plantvillage_fc8_plantvillage_0_split_0
I0403 14:43:54.700136 11032 net.cpp:399] fc8_plantvillage_fc8_plantvillage_0_split -> fc8_plantvillage_fc8_plantvillage_0_split_1
I0403 14:43:54.700161 11032 net.cpp:399] fc8_plantvillage_fc8_plantvillage_0_split -> fc8_plantvillage_fc8_plantvillage_0_split_2
I0403 14:43:54.700237 11032 net.cpp:141] Setting up fc8_plantvillage_fc8_plantvillage_0_split
I0403 14:43:54.700261 11032 net.cpp:148] Top shape: 100 38 (3800)
I0403 14:43:54.700278 11032 net.cpp:148] Top shape: 100 38 (3800)
I0403 14:43:54.700294 11032 net.cpp:148] Top shape: 100 38 (3800)
I0403 14:43:54.700307 11032 net.cpp:156] Memory required for data: 831586800
I0403 14:43:54.700321 11032 layer_factory.hpp:77] Creating layer prob
I0403 14:43:54.700340 11032 net.cpp:91] Creating Layer prob
I0403 14:43:54.700356 11032 net.cpp:425] prob <- fc8_plantvillage_fc8_plantvillage_0_split_0
I0403 14:43:54.700374 11032 net.cpp:399] prob -> prob
I0403 14:43:54.700585 11032 net.cpp:141] Setting up prob
I0403 14:43:54.700611 11032 net.cpp:148] Top shape: 100 38 (3800)
I0403 14:43:54.700626 11032 net.cpp:156] Memory required for data: 831602000
I0403 14:43:54.700640 11032 layer_factory.hpp:77] Creating layer hdf5out
I0403 14:43:54.700664 11032 net.cpp:91] Creating Layer hdf5out
I0403 14:43:54.700680 11032 net.cpp:425] hdf5out <- prob
I0403 14:43:54.700697 11032 net.cpp:425] hdf5out <- label_data_1_split_0
I0403 14:43:54.702883 11032 net.cpp:141] Setting up hdf5out
…
