…
I0403 14:56:10.354334 11317 net.cpp:313] The NetState phase (1) differed from the phase (0) specified by a rule in layer data
I0403 14:56:10.354656 11317 net.cpp:49] Initializing net from parameters: 
state {
  phase: TEST
}
layer {
  name: "data"
  type: "Data"
  top: "data"
  top: "label"
  include {
    phase: TEST
  }
  transform_param {
    crop_size: 227
    mean_file: "/home/mohanty/data/final_dataset/lmdb/grayscale-50-50/mean.binaryproto"
  }
  data_param {
    source: "/home/mohanty/data/final_dataset/lmdb/grayscale-50-50/test_db"
    batch_size: 100
    backend: LMDB
  }
}
layer {
  name: "conv1"
  type: "Convolution"
  bottom: "data"
  top: "conv1"
  param {
    lr_mult: 1
    decay_mult: 1
  }
  param {
    lr_mult: 2
    decay_mult: 0
  }
  convolution_param {
    num_output: 96
    kernel_size: 11
    stride: 4
    weight_filler {
      type: "gaussian"
      std: 0.01
    }
    bias_filler {
      type: "constant"
      value: 0
    }
  }
}
layer {
  name: "relu1"
  type: "ReLU"
  bottom: "conv1"
  top: "conv1"
}
layer {
  name: "norm1"
  type: "LRN"
  bottom: "conv1"
  top: "norm1"
  lrn_param {
    local_size: 5
    alpha: 0.0001
    beta: 0.75
  }
}
layer {
  name: "pool1"
  type: "Pooling"
  bottom: "norm1"
  top: "pool1"
  pooling_param {
    pool: MAX
    kernel_size: 3
    stride: 2
  }
}
layer {
  name: "conv2"
  type: "Convolution"
  bottom: "pool1"
  top: "conv2"
  param {
    lr_mult: 1
    decay_mult: 1
  }
  param {
    lr_mult: 2
    decay_mult: 0
  }
  convolution_param {
    num_output: 256
    pad: 2
    kernel_size: 5
    group: 2
    weight_filler {
      type: "gaussian"
      std: 0.01
    }
    bias_filler {
      type: "constant"
      value: 0.1
    }
  }
}
layer {
  name: "relu2"
  type: "ReLU"
  bottom: "conv2"
  top: "conv2"
}
layer {
  name: "norm2"
  type: "LRN"
  bottom: "conv2"
  top: "norm2"
  lrn_param {
    local_size: 5
    alpha: 0.0001
    beta: 0.75
  }
}
layer {
  name: "pool2"
  type: "Pooling"
  bottom: "norm2"
  top: "pool2"
  pooling_param {
    pool: MAX
    kernel_size: 3
    stride: 2
  }
}
layer {
  name: "conv3"
  type: "Convolution"
  bottom: "pool2"
  top: "conv3"
  param {
    lr_mult: 1
    decay_mult: 1
  }
  param {
    lr_mult: 2
    decay_mult: 0
  }
  convolution_param {
    num_output: 384
    pad: 1
    kernel_size: 3
    weight_filler {
      type: "gaussian"
      std: 0.01
    }
    bias_filler {
      type: "constant"
      value: 0
    }
  }
}
layer {
  name: "relu3"
  type: "ReLU"
  bottom: "conv3"
  top: "conv3"
}
layer {
  name: "conv4"
  type: "Convolution"
  bottom: "conv3"
  top: "conv4"
  param {
    lr_mult: 1
    decay_mult: 1
  }
  param {
    lr_mult: 2
    decay_mult: 0
  }
  convolution_param {
    num_output: 384
    pad: 1
    kernel_size: 3
    group: 2
    weight_filler {
      type: "gaussian"
      std: 0.01
    }
    bias_filler {
      type: "constant"
      value: 0.1
    }
  }
}
layer {
  name: "relu4"
  type: "ReLU"
  bottom: "conv4"
  top: "conv4"
}
layer {
  name: "conv5"
  type: "Convolution"
  bottom: "conv4"
  top: "conv5"
  param {
    lr_mult: 1
    decay_mult: 1
  }
  param {
    lr_mult: 2
    decay_mult: 0
  }
  convolution_param {
    num_output: 256
    pad: 1
    kernel_size: 3
    group: 2
    weight_filler {
      type: "gaussian"
      std: 0.01
    }
    bias_filler {
      type: "constant"
      value: 0.1
    }
  }
}
layer {
  name: "relu5"
  type: "ReLU"
  bottom: "conv5"
  top: "conv5"
}
layer {
  name: "pool5"
  type: "Pooling"
  bottom: "conv5"
  top: "pool5"
  pooling_param {
    pool: MAX
    kernel_size: 3
    stride: 2
  }
}
layer {
  name: "fc6"
  type: "InnerProduct"
  bottom: "pool5"
  top: "fc6"
  param {
    lr_mult: 1
    decay_mult: 1
  }
  param {
    lr_mult: 2
    decay_mult: 0
  }
  inner_product_param {
    num_output: 4096
    weight_filler {
      type: "gaussian"
      std: 0.005
    }
    bias_filler {
      type: "constant"
      value: 0.1
    }
  }
}
layer {
  name: "relu6"
  type: "ReLU"
  bottom: "fc6"
  top: "fc6"
}
layer {
  name: "drop6"
  type: "Dropout"
  bottom: "fc6"
  top: "fc6"
  dropout_param {
    dropout_ratio: 0.5
  }
}
layer {
  name: "fc7"
  type: "InnerProduct"
  bottom: "fc6"
  top: "fc7"
  param {
    lr_mult: 1
    decay_mult: 1
  }
  param {
    lr_mult: 2
    decay_mult: 0
  }
  inner_product_param {
    num_output: 4096
    weight_filler {
      type: "gaussian"
      std: 0.005
    }
    bias_filler {
      type: "constant"
      value: 0.1
    }
  }
}
layer {
  name: "relu7"
  type: "ReLU"
  bottom: "fc7"
  top: "fc7"
}
layer {
  name: "drop7"
  type: "Dropout"
  bottom: "fc7"
  top: "fc7"
  dropout_param {
    dropout_ratio: 0.5
  }
}
layer {
  name: "fc8_plantvillage"
  type: "InnerProduct"
  bottom: "fc7"
  top: "fc8_plantvillage"
  param {
    lr_mult: 1
    decay_mult: 1
  }
  param {
    lr_mult: 2
    decay_mult: 0
  }
  inner_product_param {
    num_output: 38
    weight_filler {
      type: "gaussian"
      std: 0.01
    }
    bias_filler {
      type: "constant"
      value: 0
    }
  }
}
layer {
  name: "prob"
  type: "Softmax"
  bottom: "fc8_plantvillage"
  top: "prob"
  include {
    phase: TEST
  }
}
layer {
  name: "hdf5out"
  type: "HDF5Output"
  bottom: "prob"
  bottom: "label"
  include {
    phase: TEST
  }
  hdf5_output_param {
    file_name: "hdf5_dumps/iter_6141.h5"
  }
}
layer {
  name: "loss"
  type: "SoftmaxWithLoss"
  bottom: "fc8_plantvillage"
  bottom: "label"
  top: "loss"
}
layer {
  name: "accuracy"
  type: "Accuracy"
  bottom: "fc8_plantvillage"
  bottom: "label"
  top: "accuracy"
  include {
    phase: TEST
  }
}
I0403 14:56:10.355265 11317 layer_factory.hpp:77] Creating layer data
I0403 14:56:10.355934 11317 net.cpp:91] Creating Layer data
I0403 14:56:10.355968 11317 net.cpp:399] data -> data
I0403 14:56:10.356020 11317 net.cpp:399] data -> label
I0403 14:56:10.356058 11317 data_transformer.cpp:25] Loading mean file from: /home/mohanty/data/final_dataset/lmdb/grayscale-50-50/mean.binaryproto
I0403 14:56:10.358614 11320 db_lmdb.cpp:38] Opened lmdb /home/mohanty/data/final_dataset/lmdb/grayscale-50-50/test_db
I0403 14:56:10.370481 11317 data_layer.cpp:41] output data size: 100,3,227,227
I0403 14:56:10.493187 11317 net.cpp:141] Setting up data
I0403 14:56:10.493247 11317 net.cpp:148] Top shape: 100 3 227 227 (15458700)
I0403 14:56:10.493270 11317 net.cpp:148] Top shape: 100 (100)
I0403 14:56:10.493286 11317 net.cpp:156] Memory required for data: 61835200
I0403 14:56:10.493314 11317 layer_factory.hpp:77] Creating layer label_data_1_split
I0403 14:56:10.493340 11317 net.cpp:91] Creating Layer label_data_1_split
I0403 14:56:10.493357 11317 net.cpp:425] label_data_1_split <- label
I0403 14:56:10.493387 11317 net.cpp:399] label_data_1_split -> label_data_1_split_0
I0403 14:56:10.493417 11317 net.cpp:399] label_data_1_split -> label_data_1_split_1
I0403 14:56:10.493437 11317 net.cpp:399] label_data_1_split -> label_data_1_split_2
I0403 14:56:10.493499 11317 net.cpp:141] Setting up label_data_1_split
I0403 14:56:10.493525 11317 net.cpp:148] Top shape: 100 (100)
I0403 14:56:10.493541 11317 net.cpp:148] Top shape: 100 (100)
I0403 14:56:10.493556 11317 net.cpp:148] Top shape: 100 (100)
I0403 14:56:10.493571 11317 net.cpp:156] Memory required for data: 61836400
I0403 14:56:10.493587 11317 layer_factory.hpp:77] Creating layer conv1
I0403 14:56:10.493618 11317 net.cpp:91] Creating Layer conv1
I0403 14:56:10.493636 11317 net.cpp:425] conv1 <- data
I0403 14:56:10.493656 11317 net.cpp:399] conv1 -> conv1
I0403 14:56:10.636463 11317 net.cpp:141] Setting up conv1
I0403 14:56:10.636548 11317 net.cpp:148] Top shape: 100 96 55 55 (29040000)
I0403 14:56:10.636569 11317 net.cpp:156] Memory required for data: 177996400
I0403 14:56:10.636600 11317 layer_factory.hpp:77] Creating layer relu1
I0403 14:56:10.636627 11317 net.cpp:91] Creating Layer relu1
I0403 14:56:10.636644 11317 net.cpp:425] relu1 <- conv1
I0403 14:56:10.636662 11317 net.cpp:386] relu1 -> conv1 (in-place)
I0403 14:56:10.636924 11317 net.cpp:141] Setting up relu1
I0403 14:56:10.636951 11317 net.cpp:148] Top shape: 100 96 55 55 (29040000)
I0403 14:56:10.636999 11317 net.cpp:156] Memory required for data: 294156400
I0403 14:56:10.637017 11317 layer_factory.hpp:77] Creating layer norm1
I0403 14:56:10.637043 11317 net.cpp:91] Creating Layer norm1
I0403 14:56:10.637061 11317 net.cpp:425] norm1 <- conv1
I0403 14:56:10.637079 11317 net.cpp:399] norm1 -> norm1
I0403 14:56:10.637392 11317 net.cpp:141] Setting up norm1
I0403 14:56:10.637420 11317 net.cpp:148] Top shape: 100 96 55 55 (29040000)
I0403 14:56:10.637436 11317 net.cpp:156] Memory required for data: 410316400
I0403 14:56:10.637451 11317 layer_factory.hpp:77] Creating layer pool1
I0403 14:56:10.637475 11317 net.cpp:91] Creating Layer pool1
I0403 14:56:10.637493 11317 net.cpp:425] pool1 <- norm1
I0403 14:56:10.637512 11317 net.cpp:399] pool1 -> pool1
I0403 14:56:10.637581 11317 net.cpp:141] Setting up pool1
I0403 14:56:10.637606 11317 net.cpp:148] Top shape: 100 96 27 27 (6998400)
I0403 14:56:10.637621 11317 net.cpp:156] Memory required for data: 438310000
I0403 14:56:10.637636 11317 layer_factory.hpp:77] Creating layer conv2
I0403 14:56:10.637662 11317 net.cpp:91] Creating Layer conv2
I0403 14:56:10.637679 11317 net.cpp:425] conv2 <- pool1
I0403 14:56:10.637697 11317 net.cpp:399] conv2 -> conv2
I0403 14:56:10.652643 11317 net.cpp:141] Setting up conv2
I0403 14:56:10.652690 11317 net.cpp:148] Top shape: 100 256 27 27 (18662400)
I0403 14:56:10.652709 11317 net.cpp:156] Memory required for data: 512959600
I0403 14:56:10.652729 11317 layer_factory.hpp:77] Creating layer relu2
I0403 14:56:10.652750 11317 net.cpp:91] Creating Layer relu2
I0403 14:56:10.652765 11317 net.cpp:425] relu2 <- conv2
I0403 14:56:10.652786 11317 net.cpp:386] relu2 -> conv2 (in-place)
I0403 14:56:10.653059 11317 net.cpp:141] Setting up relu2
I0403 14:56:10.653084 11317 net.cpp:148] Top shape: 100 256 27 27 (18662400)
I0403 14:56:10.653100 11317 net.cpp:156] Memory required for data: 587609200
I0403 14:56:10.653113 11317 layer_factory.hpp:77] Creating layer norm2
I0403 14:56:10.653138 11317 net.cpp:91] Creating Layer norm2
I0403 14:56:10.653159 11317 net.cpp:425] norm2 <- conv2
I0403 14:56:10.653179 11317 net.cpp:399] norm2 -> norm2
I0403 14:56:10.653372 11317 net.cpp:141] Setting up norm2
I0403 14:56:10.653400 11317 net.cpp:148] Top shape: 100 256 27 27 (18662400)
I0403 14:56:10.653415 11317 net.cpp:156] Memory required for data: 662258800
I0403 14:56:10.653429 11317 layer_factory.hpp:77] Creating layer pool2
I0403 14:56:10.653447 11317 net.cpp:91] Creating Layer pool2
I0403 14:56:10.653462 11317 net.cpp:425] pool2 <- norm2
I0403 14:56:10.653481 11317 net.cpp:399] pool2 -> pool2
I0403 14:56:10.653533 11317 net.cpp:141] Setting up pool2
I0403 14:56:10.653556 11317 net.cpp:148] Top shape: 100 256 13 13 (4326400)
I0403 14:56:10.653570 11317 net.cpp:156] Memory required for data: 679564400
I0403 14:56:10.653585 11317 layer_factory.hpp:77] Creating layer conv3
I0403 14:56:10.653607 11317 net.cpp:91] Creating Layer conv3
I0403 14:56:10.653625 11317 net.cpp:425] conv3 <- pool2
I0403 14:56:10.653645 11317 net.cpp:399] conv3 -> conv3
I0403 14:56:10.691664 11317 net.cpp:141] Setting up conv3
I0403 14:56:10.691720 11317 net.cpp:148] Top shape: 100 384 13 13 (6489600)
I0403 14:56:10.691737 11317 net.cpp:156] Memory required for data: 705522800
I0403 14:56:10.691761 11317 layer_factory.hpp:77] Creating layer relu3
I0403 14:56:10.691781 11317 net.cpp:91] Creating Layer relu3
I0403 14:56:10.691797 11317 net.cpp:425] relu3 <- conv3
I0403 14:56:10.691815 11317 net.cpp:386] relu3 -> conv3 (in-place)
I0403 14:56:10.692082 11317 net.cpp:141] Setting up relu3
I0403 14:56:10.692109 11317 net.cpp:148] Top shape: 100 384 13 13 (6489600)
I0403 14:56:10.692124 11317 net.cpp:156] Memory required for data: 731481200
I0403 14:56:10.692142 11317 layer_factory.hpp:77] Creating layer conv4
I0403 14:56:10.692174 11317 net.cpp:91] Creating Layer conv4
I0403 14:56:10.692194 11317 net.cpp:425] conv4 <- conv3
I0403 14:56:10.692216 11317 net.cpp:399] conv4 -> conv4
I0403 14:56:10.722102 11317 net.cpp:141] Setting up conv4
I0403 14:56:10.722208 11317 net.cpp:148] Top shape: 100 384 13 13 (6489600)
I0403 14:56:10.722257 11317 net.cpp:156] Memory required for data: 757439600
I0403 14:56:10.722281 11317 layer_factory.hpp:77] Creating layer relu4
I0403 14:56:10.722304 11317 net.cpp:91] Creating Layer relu4
I0403 14:56:10.722323 11317 net.cpp:425] relu4 <- conv4
I0403 14:56:10.722343 11317 net.cpp:386] relu4 -> conv4 (in-place)
I0403 14:56:10.722641 11317 net.cpp:141] Setting up relu4
I0403 14:56:10.722671 11317 net.cpp:148] Top shape: 100 384 13 13 (6489600)
I0403 14:56:10.722687 11317 net.cpp:156] Memory required for data: 783398000
I0403 14:56:10.722702 11317 layer_factory.hpp:77] Creating layer conv5
I0403 14:56:10.722725 11317 net.cpp:91] Creating Layer conv5
I0403 14:56:10.722741 11317 net.cpp:425] conv5 <- conv4
I0403 14:56:10.722764 11317 net.cpp:399] conv5 -> conv5
I0403 14:56:10.743371 11317 net.cpp:141] Setting up conv5
I0403 14:56:10.743418 11317 net.cpp:148] Top shape: 100 256 13 13 (4326400)
I0403 14:56:10.743438 11317 net.cpp:156] Memory required for data: 800703600
I0403 14:56:10.743463 11317 layer_factory.hpp:77] Creating layer relu5
I0403 14:56:10.743484 11317 net.cpp:91] Creating Layer relu5
I0403 14:56:10.743501 11317 net.cpp:425] relu5 <- conv5
I0403 14:56:10.743522 11317 net.cpp:386] relu5 -> conv5 (in-place)
I0403 14:56:10.743798 11317 net.cpp:141] Setting up relu5
I0403 14:56:10.743831 11317 net.cpp:148] Top shape: 100 256 13 13 (4326400)
I0403 14:56:10.743847 11317 net.cpp:156] Memory required for data: 818009200
I0403 14:56:10.743862 11317 layer_factory.hpp:77] Creating layer pool5
I0403 14:56:10.743885 11317 net.cpp:91] Creating Layer pool5
I0403 14:56:10.743903 11317 net.cpp:425] pool5 <- conv5
I0403 14:56:10.743921 11317 net.cpp:399] pool5 -> pool5
I0403 14:56:10.743979 11317 net.cpp:141] Setting up pool5
I0403 14:56:10.744005 11317 net.cpp:148] Top shape: 100 256 6 6 (921600)
I0403 14:56:10.744020 11317 net.cpp:156] Memory required for data: 821695600
I0403 14:56:10.744035 11317 layer_factory.hpp:77] Creating layer fc6
I0403 14:56:10.744060 11317 net.cpp:91] Creating Layer fc6
I0403 14:56:10.744078 11317 net.cpp:425] fc6 <- pool5
I0403 14:56:10.744104 11317 net.cpp:399] fc6 -> fc6
I0403 14:56:12.290102 11317 net.cpp:141] Setting up fc6
I0403 14:56:12.290151 11317 net.cpp:148] Top shape: 100 4096 (409600)
I0403 14:56:12.290174 11317 net.cpp:156] Memory required for data: 823334000
I0403 14:56:12.290196 11317 layer_factory.hpp:77] Creating layer relu6
I0403 14:56:12.290217 11317 net.cpp:91] Creating Layer relu6
I0403 14:56:12.290235 11317 net.cpp:425] relu6 <- fc6
I0403 14:56:12.290252 11317 net.cpp:386] relu6 -> fc6 (in-place)
I0403 14:56:12.290477 11317 net.cpp:141] Setting up relu6
I0403 14:56:12.290504 11317 net.cpp:148] Top shape: 100 4096 (409600)
I0403 14:56:12.290520 11317 net.cpp:156] Memory required for data: 824972400
I0403 14:56:12.290534 11317 layer_factory.hpp:77] Creating layer drop6
I0403 14:56:12.290551 11317 net.cpp:91] Creating Layer drop6
I0403 14:56:12.290567 11317 net.cpp:425] drop6 <- fc6
I0403 14:56:12.290586 11317 net.cpp:386] drop6 -> fc6 (in-place)
I0403 14:56:12.290637 11317 net.cpp:141] Setting up drop6
I0403 14:56:12.290659 11317 net.cpp:148] Top shape: 100 4096 (409600)
I0403 14:56:12.290685 11317 net.cpp:156] Memory required for data: 826610800
I0403 14:56:12.290699 11317 layer_factory.hpp:77] Creating layer fc7
I0403 14:56:12.290720 11317 net.cpp:91] Creating Layer fc7
I0403 14:56:12.290736 11317 net.cpp:425] fc7 <- fc6
I0403 14:56:12.290756 11317 net.cpp:399] fc7 -> fc7
I0403 14:56:12.973448 11317 net.cpp:141] Setting up fc7
I0403 14:56:12.973490 11317 net.cpp:148] Top shape: 100 4096 (409600)
I0403 14:56:12.973506 11317 net.cpp:156] Memory required for data: 828249200
I0403 14:56:12.973527 11317 layer_factory.hpp:77] Creating layer relu7
I0403 14:56:12.973548 11317 net.cpp:91] Creating Layer relu7
I0403 14:56:12.973567 11317 net.cpp:425] relu7 <- fc7
I0403 14:56:12.973584 11317 net.cpp:386] relu7 -> fc7 (in-place)
I0403 14:56:12.973989 11317 net.cpp:141] Setting up relu7
I0403 14:56:12.974020 11317 net.cpp:148] Top shape: 100 4096 (409600)
I0403 14:56:12.974066 11317 net.cpp:156] Memory required for data: 829887600
I0403 14:56:12.974081 11317 layer_factory.hpp:77] Creating layer drop7
I0403 14:56:12.974100 11317 net.cpp:91] Creating Layer drop7
I0403 14:56:12.974115 11317 net.cpp:425] drop7 <- fc7
I0403 14:56:12.974131 11317 net.cpp:386] drop7 -> fc7 (in-place)
I0403 14:56:12.974192 11317 net.cpp:141] Setting up drop7
I0403 14:56:12.974216 11317 net.cpp:148] Top shape: 100 4096 (409600)
I0403 14:56:12.974231 11317 net.cpp:156] Memory required for data: 831526000
I0403 14:56:12.974246 11317 layer_factory.hpp:77] Creating layer fc8_plantvillage
I0403 14:56:12.974267 11317 net.cpp:91] Creating Layer fc8_plantvillage
I0403 14:56:12.974282 11317 net.cpp:425] fc8_plantvillage <- fc7
I0403 14:56:12.974299 11317 net.cpp:399] fc8_plantvillage -> fc8_plantvillage
I0403 14:56:12.980878 11317 net.cpp:141] Setting up fc8_plantvillage
I0403 14:56:12.980906 11317 net.cpp:148] Top shape: 100 38 (3800)
I0403 14:56:12.980921 11317 net.cpp:156] Memory required for data: 831541200
I0403 14:56:12.980937 11317 layer_factory.hpp:77] Creating layer fc8_plantvillage_fc8_plantvillage_0_split
I0403 14:56:12.980954 11317 net.cpp:91] Creating Layer fc8_plantvillage_fc8_plantvillage_0_split
I0403 14:56:12.980969 11317 net.cpp:425] fc8_plantvillage_fc8_plantvillage_0_split <- fc8_plantvillage
I0403 14:56:12.980988 11317 net.cpp:399] fc8_plantvillage_fc8_plantvillage_0_split -> fc8_plantvillage_fc8_plantvillage_0_split_0
I0403 14:56:12.981009 11317 net.cpp:399] fc8_plantvillage_fc8_plantvillage_0_split -> fc8_plantvillage_fc8_plantvillage_0_split_1
I0403 14:56:12.981026 11317 net.cpp:399] fc8_plantvillage_fc8_plantvillage_0_split -> fc8_plantvillage_fc8_plantvillage_0_split_2
I0403 14:56:12.981099 11317 net.cpp:141] Setting up fc8_plantvillage_fc8_plantvillage_0_split
I0403 14:56:12.981122 11317 net.cpp:148] Top shape: 100 38 (3800)
I0403 14:56:12.981137 11317 net.cpp:148] Top shape: 100 38 (3800)
I0403 14:56:12.981153 11317 net.cpp:148] Top shape: 100 38 (3800)
I0403 14:56:12.981171 11317 net.cpp:156] Memory required for data: 831586800
I0403 14:56:12.981187 11317 layer_factory.hpp:77] Creating layer prob
I0403 14:56:12.981207 11317 net.cpp:91] Creating Layer prob
I0403 14:56:12.981223 11317 net.cpp:425] prob <- fc8_plantvillage_fc8_plantvillage_0_split_0
I0403 14:56:12.981240 11317 net.cpp:399] prob -> prob
I0403 14:56:12.981458 11317 net.cpp:141] Setting up prob
I0403 14:56:12.981487 11317 net.cpp:148] Top shape: 100 38 (3800)
I0403 14:56:12.981501 11317 net.cpp:156] Memory required for data: 831602000
I0403 14:56:12.981515 11317 layer_factory.hpp:77] Creating layer hdf5out
I0403 14:56:12.981534 11317 net.cpp:91] Creating Layer hdf5out
I0403 14:56:12.981549 11317 net.cpp:425] hdf5out <- prob
I0403 14:56:12.981564 11317 net.cpp:425] hdf5out <- label_data_1_split_0
I0403 14:56:12.984002 11317 net.cpp:141] Setting up hdf5out
…
