…
I0403 15:02:47.413739 11480 net.cpp:313] The NetState phase (1) differed from the phase (0) specified by a rule in layer data
I0403 15:02:47.414033 11480 net.cpp:49] Initializing net from parameters: 
state {
  phase: TEST
}
layer {
  name: "data"
  type: "Data"
  top: "data"
  top: "label"
  include {
    phase: TEST
  }
  transform_param {
    crop_size: 227
    mean_file: "/home/mohanty/data/final_dataset/lmdb/grayscale-50-50/mean.binaryproto"
  }
  data_param {
    source: "/home/mohanty/data/final_dataset/lmdb/grayscale-50-50/test_db"
    batch_size: 100
    backend: LMDB
  }
}
layer {
  name: "conv1"
  type: "Convolution"
  bottom: "data"
  top: "conv1"
  param {
    lr_mult: 1
    decay_mult: 1
  }
  param {
    lr_mult: 2
    decay_mult: 0
  }
  convolution_param {
    num_output: 96
    kernel_size: 11
    stride: 4
    weight_filler {
      type: "gaussian"
      std: 0.01
    }
    bias_filler {
      type: "constant"
      value: 0
    }
  }
}
layer {
  name: "relu1"
  type: "ReLU"
  bottom: "conv1"
  top: "conv1"
}
layer {
  name: "norm1"
  type: "LRN"
  bottom: "conv1"
  top: "norm1"
  lrn_param {
    local_size: 5
    alpha: 0.0001
    beta: 0.75
  }
}
layer {
  name: "pool1"
  type: "Pooling"
  bottom: "norm1"
  top: "pool1"
  pooling_param {
    pool: MAX
    kernel_size: 3
    stride: 2
  }
}
layer {
  name: "conv2"
  type: "Convolution"
  bottom: "pool1"
  top: "conv2"
  param {
    lr_mult: 1
    decay_mult: 1
  }
  param {
    lr_mult: 2
    decay_mult: 0
  }
  convolution_param {
    num_output: 256
    pad: 2
    kernel_size: 5
    group: 2
    weight_filler {
      type: "gaussian"
      std: 0.01
    }
    bias_filler {
      type: "constant"
      value: 0.1
    }
  }
}
layer {
  name: "relu2"
  type: "ReLU"
  bottom: "conv2"
  top: "conv2"
}
layer {
  name: "norm2"
  type: "LRN"
  bottom: "conv2"
  top: "norm2"
  lrn_param {
    local_size: 5
    alpha: 0.0001
    beta: 0.75
  }
}
layer {
  name: "pool2"
  type: "Pooling"
  bottom: "norm2"
  top: "pool2"
  pooling_param {
    pool: MAX
    kernel_size: 3
    stride: 2
  }
}
layer {
  name: "conv3"
  type: "Convolution"
  bottom: "pool2"
  top: "conv3"
  param {
    lr_mult: 1
    decay_mult: 1
  }
  param {
    lr_mult: 2
    decay_mult: 0
  }
  convolution_param {
    num_output: 384
    pad: 1
    kernel_size: 3
    weight_filler {
      type: "gaussian"
      std: 0.01
    }
    bias_filler {
      type: "constant"
      value: 0
    }
  }
}
layer {
  name: "relu3"
  type: "ReLU"
  bottom: "conv3"
  top: "conv3"
}
layer {
  name: "conv4"
  type: "Convolution"
  bottom: "conv3"
  top: "conv4"
  param {
    lr_mult: 1
    decay_mult: 1
  }
  param {
    lr_mult: 2
    decay_mult: 0
  }
  convolution_param {
    num_output: 384
    pad: 1
    kernel_size: 3
    group: 2
    weight_filler {
      type: "gaussian"
      std: 0.01
    }
    bias_filler {
      type: "constant"
      value: 0.1
    }
  }
}
layer {
  name: "relu4"
  type: "ReLU"
  bottom: "conv4"
  top: "conv4"
}
layer {
  name: "conv5"
  type: "Convolution"
  bottom: "conv4"
  top: "conv5"
  param {
    lr_mult: 1
    decay_mult: 1
  }
  param {
    lr_mult: 2
    decay_mult: 0
  }
  convolution_param {
    num_output: 256
    pad: 1
    kernel_size: 3
    group: 2
    weight_filler {
      type: "gaussian"
      std: 0.01
    }
    bias_filler {
      type: "constant"
      value: 0.1
    }
  }
}
layer {
  name: "relu5"
  type: "ReLU"
  bottom: "conv5"
  top: "conv5"
}
layer {
  name: "pool5"
  type: "Pooling"
  bottom: "conv5"
  top: "pool5"
  pooling_param {
    pool: MAX
    kernel_size: 3
    stride: 2
  }
}
layer {
  name: "fc6"
  type: "InnerProduct"
  bottom: "pool5"
  top: "fc6"
  param {
    lr_mult: 1
    decay_mult: 1
  }
  param {
    lr_mult: 2
    decay_mult: 0
  }
  inner_product_param {
    num_output: 4096
    weight_filler {
      type: "gaussian"
      std: 0.005
    }
    bias_filler {
      type: "constant"
      value: 0.1
    }
  }
}
layer {
  name: "relu6"
  type: "ReLU"
  bottom: "fc6"
  top: "fc6"
}
layer {
  name: "drop6"
  type: "Dropout"
  bottom: "fc6"
  top: "fc6"
  dropout_param {
    dropout_ratio: 0.5
  }
}
layer {
  name: "fc7"
  type: "InnerProduct"
  bottom: "fc6"
  top: "fc7"
  param {
    lr_mult: 1
    decay_mult: 1
  }
  param {
    lr_mult: 2
    decay_mult: 0
  }
  inner_product_param {
    num_output: 4096
    weight_filler {
      type: "gaussian"
      std: 0.005
    }
    bias_filler {
      type: "constant"
      value: 0.1
    }
  }
}
layer {
  name: "relu7"
  type: "ReLU"
  bottom: "fc7"
  top: "fc7"
}
layer {
  name: "drop7"
  type: "Dropout"
  bottom: "fc7"
  top: "fc7"
  dropout_param {
    dropout_ratio: 0.5
  }
}
layer {
  name: "fc8_plantvillage"
  type: "InnerProduct"
  bottom: "fc7"
  top: "fc8_plantvillage"
  param {
    lr_mult: 1
    decay_mult: 1
  }
  param {
    lr_mult: 2
    decay_mult: 0
  }
  inner_product_param {
    num_output: 38
    weight_filler {
      type: "gaussian"
      std: 0.01
    }
    bias_filler {
      type: "constant"
      value: 0
    }
  }
}
layer {
  name: "prob"
  type: "Softmax"
  bottom: "fc8_plantvillage"
  top: "prob"
  include {
    phase: TEST
  }
}
layer {
  name: "hdf5out"
  type: "HDF5Output"
  bottom: "prob"
  bottom: "label"
  include {
    phase: TEST
  }
  hdf5_output_param {
    file_name: "hdf5_dumps/iter_8010.h5"
  }
}
layer {
  name: "loss"
  type: "SoftmaxWithLoss"
  bottom: "fc8_plantvillage"
  bottom: "label"
  top: "loss"
}
layer {
  name: "accuracy"
  type: "Accuracy"
  bottom: "fc8_plantvillage"
  bottom: "label"
  top: "accuracy"
  include {
    phase: TEST
  }
}
I0403 15:02:47.414540 11480 layer_factory.hpp:77] Creating layer data
I0403 15:02:47.415176 11480 net.cpp:91] Creating Layer data
I0403 15:02:47.415215 11480 net.cpp:399] data -> data
I0403 15:02:47.415268 11480 net.cpp:399] data -> label
I0403 15:02:47.415307 11480 data_transformer.cpp:25] Loading mean file from: /home/mohanty/data/final_dataset/lmdb/grayscale-50-50/mean.binaryproto
I0403 15:02:47.419384 11484 db_lmdb.cpp:38] Opened lmdb /home/mohanty/data/final_dataset/lmdb/grayscale-50-50/test_db
I0403 15:02:47.429589 11480 data_layer.cpp:41] output data size: 100,3,227,227
I0403 15:02:47.548771 11480 net.cpp:141] Setting up data
I0403 15:02:47.548876 11480 net.cpp:148] Top shape: 100 3 227 227 (15458700)
I0403 15:02:47.548899 11480 net.cpp:148] Top shape: 100 (100)
I0403 15:02:47.548914 11480 net.cpp:156] Memory required for data: 61835200
I0403 15:02:47.548943 11480 layer_factory.hpp:77] Creating layer label_data_1_split
I0403 15:02:47.548966 11480 net.cpp:91] Creating Layer label_data_1_split
I0403 15:02:47.548985 11480 net.cpp:425] label_data_1_split <- label
I0403 15:02:47.549015 11480 net.cpp:399] label_data_1_split -> label_data_1_split_0
I0403 15:02:47.549042 11480 net.cpp:399] label_data_1_split -> label_data_1_split_1
I0403 15:02:47.549063 11480 net.cpp:399] label_data_1_split -> label_data_1_split_2
I0403 15:02:47.549127 11480 net.cpp:141] Setting up label_data_1_split
I0403 15:02:47.549152 11480 net.cpp:148] Top shape: 100 (100)
I0403 15:02:47.549175 11480 net.cpp:148] Top shape: 100 (100)
I0403 15:02:47.549192 11480 net.cpp:148] Top shape: 100 (100)
I0403 15:02:47.549206 11480 net.cpp:156] Memory required for data: 61836400
I0403 15:02:47.549222 11480 layer_factory.hpp:77] Creating layer conv1
I0403 15:02:47.549254 11480 net.cpp:91] Creating Layer conv1
I0403 15:02:47.549273 11480 net.cpp:425] conv1 <- data
I0403 15:02:47.549293 11480 net.cpp:399] conv1 -> conv1
I0403 15:02:47.690337 11480 net.cpp:141] Setting up conv1
I0403 15:02:47.690424 11480 net.cpp:148] Top shape: 100 96 55 55 (29040000)
I0403 15:02:47.690441 11480 net.cpp:156] Memory required for data: 177996400
I0403 15:02:47.690472 11480 layer_factory.hpp:77] Creating layer relu1
I0403 15:02:47.690500 11480 net.cpp:91] Creating Layer relu1
I0403 15:02:47.690518 11480 net.cpp:425] relu1 <- conv1
I0403 15:02:47.690537 11480 net.cpp:386] relu1 -> conv1 (in-place)
I0403 15:02:47.690790 11480 net.cpp:141] Setting up relu1
I0403 15:02:47.690819 11480 net.cpp:148] Top shape: 100 96 55 55 (29040000)
I0403 15:02:47.690896 11480 net.cpp:156] Memory required for data: 294156400
I0403 15:02:47.690914 11480 layer_factory.hpp:77] Creating layer norm1
I0403 15:02:47.690940 11480 net.cpp:91] Creating Layer norm1
I0403 15:02:47.690959 11480 net.cpp:425] norm1 <- conv1
I0403 15:02:47.690978 11480 net.cpp:399] norm1 -> norm1
I0403 15:02:47.691282 11480 net.cpp:141] Setting up norm1
I0403 15:02:47.691310 11480 net.cpp:148] Top shape: 100 96 55 55 (29040000)
I0403 15:02:47.691326 11480 net.cpp:156] Memory required for data: 410316400
I0403 15:02:47.691341 11480 layer_factory.hpp:77] Creating layer pool1
I0403 15:02:47.691365 11480 net.cpp:91] Creating Layer pool1
I0403 15:02:47.691383 11480 net.cpp:425] pool1 <- norm1
I0403 15:02:47.691401 11480 net.cpp:399] pool1 -> pool1
I0403 15:02:47.691468 11480 net.cpp:141] Setting up pool1
I0403 15:02:47.691491 11480 net.cpp:148] Top shape: 100 96 27 27 (6998400)
I0403 15:02:47.691507 11480 net.cpp:156] Memory required for data: 438310000
I0403 15:02:47.691522 11480 layer_factory.hpp:77] Creating layer conv2
I0403 15:02:47.691547 11480 net.cpp:91] Creating Layer conv2
I0403 15:02:47.691563 11480 net.cpp:425] conv2 <- pool1
I0403 15:02:47.691581 11480 net.cpp:399] conv2 -> conv2
I0403 15:02:47.706341 11480 net.cpp:141] Setting up conv2
I0403 15:02:47.706387 11480 net.cpp:148] Top shape: 100 256 27 27 (18662400)
I0403 15:02:47.706404 11480 net.cpp:156] Memory required for data: 512959600
I0403 15:02:47.706428 11480 layer_factory.hpp:77] Creating layer relu2
I0403 15:02:47.706449 11480 net.cpp:91] Creating Layer relu2
I0403 15:02:47.706464 11480 net.cpp:425] relu2 <- conv2
I0403 15:02:47.706482 11480 net.cpp:386] relu2 -> conv2 (in-place)
I0403 15:02:47.706749 11480 net.cpp:141] Setting up relu2
I0403 15:02:47.706779 11480 net.cpp:148] Top shape: 100 256 27 27 (18662400)
I0403 15:02:47.706794 11480 net.cpp:156] Memory required for data: 587609200
I0403 15:02:47.706810 11480 layer_factory.hpp:77] Creating layer norm2
I0403 15:02:47.706831 11480 net.cpp:91] Creating Layer norm2
I0403 15:02:47.706850 11480 net.cpp:425] norm2 <- conv2
I0403 15:02:47.706867 11480 net.cpp:399] norm2 -> norm2
I0403 15:02:47.707056 11480 net.cpp:141] Setting up norm2
I0403 15:02:47.707083 11480 net.cpp:148] Top shape: 100 256 27 27 (18662400)
I0403 15:02:47.707098 11480 net.cpp:156] Memory required for data: 662258800
I0403 15:02:47.707113 11480 layer_factory.hpp:77] Creating layer pool2
I0403 15:02:47.707134 11480 net.cpp:91] Creating Layer pool2
I0403 15:02:47.707151 11480 net.cpp:425] pool2 <- norm2
I0403 15:02:47.707175 11480 net.cpp:399] pool2 -> pool2
I0403 15:02:47.707226 11480 net.cpp:141] Setting up pool2
I0403 15:02:47.707249 11480 net.cpp:148] Top shape: 100 256 13 13 (4326400)
I0403 15:02:47.707264 11480 net.cpp:156] Memory required for data: 679564400
I0403 15:02:47.707279 11480 layer_factory.hpp:77] Creating layer conv3
I0403 15:02:47.707299 11480 net.cpp:91] Creating Layer conv3
I0403 15:02:47.707316 11480 net.cpp:425] conv3 <- pool2
I0403 15:02:47.707335 11480 net.cpp:399] conv3 -> conv3
I0403 15:02:47.746392 11480 net.cpp:141] Setting up conv3
I0403 15:02:47.746443 11480 net.cpp:148] Top shape: 100 384 13 13 (6489600)
I0403 15:02:47.746460 11480 net.cpp:156] Memory required for data: 705522800
I0403 15:02:47.746487 11480 layer_factory.hpp:77] Creating layer relu3
I0403 15:02:47.746510 11480 net.cpp:91] Creating Layer relu3
I0403 15:02:47.746529 11480 net.cpp:425] relu3 <- conv3
I0403 15:02:47.746547 11480 net.cpp:386] relu3 -> conv3 (in-place)
I0403 15:02:47.746831 11480 net.cpp:141] Setting up relu3
I0403 15:02:47.746894 11480 net.cpp:148] Top shape: 100 384 13 13 (6489600)
I0403 15:02:47.746917 11480 net.cpp:156] Memory required for data: 731481200
I0403 15:02:47.746933 11480 layer_factory.hpp:77] Creating layer conv4
I0403 15:02:47.746958 11480 net.cpp:91] Creating Layer conv4
I0403 15:02:47.746976 11480 net.cpp:425] conv4 <- conv3
I0403 15:02:47.746995 11480 net.cpp:399] conv4 -> conv4
I0403 15:02:47.776671 11480 net.cpp:141] Setting up conv4
I0403 15:02:47.776722 11480 net.cpp:148] Top shape: 100 384 13 13 (6489600)
I0403 15:02:47.776768 11480 net.cpp:156] Memory required for data: 757439600
I0403 15:02:47.776789 11480 layer_factory.hpp:77] Creating layer relu4
I0403 15:02:47.776813 11480 net.cpp:91] Creating Layer relu4
I0403 15:02:47.776830 11480 net.cpp:425] relu4 <- conv4
I0403 15:02:47.776849 11480 net.cpp:386] relu4 -> conv4 (in-place)
I0403 15:02:47.777123 11480 net.cpp:141] Setting up relu4
I0403 15:02:47.777151 11480 net.cpp:148] Top shape: 100 384 13 13 (6489600)
I0403 15:02:47.777173 11480 net.cpp:156] Memory required for data: 783398000
I0403 15:02:47.777189 11480 layer_factory.hpp:77] Creating layer conv5
I0403 15:02:47.777212 11480 net.cpp:91] Creating Layer conv5
I0403 15:02:47.777230 11480 net.cpp:425] conv5 <- conv4
I0403 15:02:47.777251 11480 net.cpp:399] conv5 -> conv5
I0403 15:02:47.797837 11480 net.cpp:141] Setting up conv5
I0403 15:02:47.797881 11480 net.cpp:148] Top shape: 100 256 13 13 (4326400)
I0403 15:02:47.797899 11480 net.cpp:156] Memory required for data: 800703600
I0403 15:02:47.797924 11480 layer_factory.hpp:77] Creating layer relu5
I0403 15:02:47.797948 11480 net.cpp:91] Creating Layer relu5
I0403 15:02:47.797967 11480 net.cpp:425] relu5 <- conv5
I0403 15:02:47.797987 11480 net.cpp:386] relu5 -> conv5 (in-place)
I0403 15:02:47.798269 11480 net.cpp:141] Setting up relu5
I0403 15:02:47.798300 11480 net.cpp:148] Top shape: 100 256 13 13 (4326400)
I0403 15:02:47.798317 11480 net.cpp:156] Memory required for data: 818009200
I0403 15:02:47.798333 11480 layer_factory.hpp:77] Creating layer pool5
I0403 15:02:47.798357 11480 net.cpp:91] Creating Layer pool5
I0403 15:02:47.798374 11480 net.cpp:425] pool5 <- conv5
I0403 15:02:47.798398 11480 net.cpp:399] pool5 -> pool5
I0403 15:02:47.798460 11480 net.cpp:141] Setting up pool5
I0403 15:02:47.798487 11480 net.cpp:148] Top shape: 100 256 6 6 (921600)
I0403 15:02:47.798504 11480 net.cpp:156] Memory required for data: 821695600
I0403 15:02:47.798521 11480 layer_factory.hpp:77] Creating layer fc6
I0403 15:02:47.798547 11480 net.cpp:91] Creating Layer fc6
I0403 15:02:47.798566 11480 net.cpp:425] fc6 <- pool5
I0403 15:02:47.798588 11480 net.cpp:399] fc6 -> fc6
I0403 15:02:49.347964 11480 net.cpp:141] Setting up fc6
I0403 15:02:49.348017 11480 net.cpp:148] Top shape: 100 4096 (409600)
I0403 15:02:49.348036 11480 net.cpp:156] Memory required for data: 823334000
I0403 15:02:49.348057 11480 layer_factory.hpp:77] Creating layer relu6
I0403 15:02:49.348081 11480 net.cpp:91] Creating Layer relu6
I0403 15:02:49.348099 11480 net.cpp:425] relu6 <- fc6
I0403 15:02:49.348119 11480 net.cpp:386] relu6 -> fc6 (in-place)
I0403 15:02:49.348351 11480 net.cpp:141] Setting up relu6
I0403 15:02:49.348381 11480 net.cpp:148] Top shape: 100 4096 (409600)
I0403 15:02:49.348397 11480 net.cpp:156] Memory required for data: 824972400
I0403 15:02:49.348412 11480 layer_factory.hpp:77] Creating layer drop6
I0403 15:02:49.348431 11480 net.cpp:91] Creating Layer drop6
I0403 15:02:49.348448 11480 net.cpp:425] drop6 <- fc6
I0403 15:02:49.348464 11480 net.cpp:386] drop6 -> fc6 (in-place)
I0403 15:02:49.348520 11480 net.cpp:141] Setting up drop6
I0403 15:02:49.348544 11480 net.cpp:148] Top shape: 100 4096 (409600)
I0403 15:02:49.348559 11480 net.cpp:156] Memory required for data: 826610800
I0403 15:02:49.348574 11480 layer_factory.hpp:77] Creating layer fc7
I0403 15:02:49.348598 11480 net.cpp:91] Creating Layer fc7
I0403 15:02:49.348615 11480 net.cpp:425] fc7 <- fc6
I0403 15:02:49.348634 11480 net.cpp:399] fc7 -> fc7
I0403 15:02:50.032215 11480 net.cpp:141] Setting up fc7
I0403 15:02:50.032259 11480 net.cpp:148] Top shape: 100 4096 (409600)
I0403 15:02:50.032275 11480 net.cpp:156] Memory required for data: 828249200
I0403 15:02:50.032296 11480 layer_factory.hpp:77] Creating layer relu7
I0403 15:02:50.032320 11480 net.cpp:91] Creating Layer relu7
I0403 15:02:50.032337 11480 net.cpp:425] relu7 <- fc7
I0403 15:02:50.032357 11480 net.cpp:386] relu7 -> fc7 (in-place)
I0403 15:02:50.032758 11480 net.cpp:141] Setting up relu7
I0403 15:02:50.032789 11480 net.cpp:148] Top shape: 100 4096 (409600)
I0403 15:02:50.032840 11480 net.cpp:156] Memory required for data: 829887600
I0403 15:02:50.032855 11480 layer_factory.hpp:77] Creating layer drop7
I0403 15:02:50.032874 11480 net.cpp:91] Creating Layer drop7
I0403 15:02:50.032891 11480 net.cpp:425] drop7 <- fc7
I0403 15:02:50.032908 11480 net.cpp:386] drop7 -> fc7 (in-place)
I0403 15:02:50.032953 11480 net.cpp:141] Setting up drop7
I0403 15:02:50.032977 11480 net.cpp:148] Top shape: 100 4096 (409600)
I0403 15:02:50.032992 11480 net.cpp:156] Memory required for data: 831526000
I0403 15:02:50.033006 11480 layer_factory.hpp:77] Creating layer fc8_plantvillage
I0403 15:02:50.033030 11480 net.cpp:91] Creating Layer fc8_plantvillage
I0403 15:02:50.033047 11480 net.cpp:425] fc8_plantvillage <- fc7
I0403 15:02:50.033066 11480 net.cpp:399] fc8_plantvillage -> fc8_plantvillage
I0403 15:02:50.039775 11480 net.cpp:141] Setting up fc8_plantvillage
I0403 15:02:50.039805 11480 net.cpp:148] Top shape: 100 38 (3800)
I0403 15:02:50.039821 11480 net.cpp:156] Memory required for data: 831541200
I0403 15:02:50.039840 11480 layer_factory.hpp:77] Creating layer fc8_plantvillage_fc8_plantvillage_0_split
I0403 15:02:50.039860 11480 net.cpp:91] Creating Layer fc8_plantvillage_fc8_plantvillage_0_split
I0403 15:02:50.039875 11480 net.cpp:425] fc8_plantvillage_fc8_plantvillage_0_split <- fc8_plantvillage
I0403 15:02:50.039894 11480 net.cpp:399] fc8_plantvillage_fc8_plantvillage_0_split -> fc8_plantvillage_fc8_plantvillage_0_split_0
I0403 15:02:50.039916 11480 net.cpp:399] fc8_plantvillage_fc8_plantvillage_0_split -> fc8_plantvillage_fc8_plantvillage_0_split_1
I0403 15:02:50.039937 11480 net.cpp:399] fc8_plantvillage_fc8_plantvillage_0_split -> fc8_plantvillage_fc8_plantvillage_0_split_2
I0403 15:02:50.040011 11480 net.cpp:141] Setting up fc8_plantvillage_fc8_plantvillage_0_split
I0403 15:02:50.040036 11480 net.cpp:148] Top shape: 100 38 (3800)
I0403 15:02:50.040052 11480 net.cpp:148] Top shape: 100 38 (3800)
I0403 15:02:50.040068 11480 net.cpp:148] Top shape: 100 38 (3800)
I0403 15:02:50.040082 11480 net.cpp:156] Memory required for data: 831586800
I0403 15:02:50.040096 11480 layer_factory.hpp:77] Creating layer prob
I0403 15:02:50.040115 11480 net.cpp:91] Creating Layer prob
I0403 15:02:50.040132 11480 net.cpp:425] prob <- fc8_plantvillage_fc8_plantvillage_0_split_0
I0403 15:02:50.040150 11480 net.cpp:399] prob -> prob
I0403 15:02:50.040374 11480 net.cpp:141] Setting up prob
I0403 15:02:50.040403 11480 net.cpp:148] Top shape: 100 38 (3800)
I0403 15:02:50.040421 11480 net.cpp:156] Memory required for data: 831602000
I0403 15:02:50.040436 11480 layer_factory.hpp:77] Creating layer hdf5out
I0403 15:02:50.040453 11480 net.cpp:91] Creating Layer hdf5out
I0403 15:02:50.040469 11480 net.cpp:425] hdf5out <- prob
I0403 15:02:50.040487 11480 net.cpp:425] hdf5out <- label_data_1_split_0
I0403 15:02:50.042680 11480 net.cpp:141] Setting up hdf5out
…
