…
I0403 14:40:03.395748 10957 net.cpp:313] The NetState phase (1) differed from the phase (0) specified by a rule in layer data
I0403 14:40:03.396052 10957 net.cpp:49] Initializing net from parameters: 
state {
  phase: TEST
}
layer {
  name: "data"
  type: "Data"
  top: "data"
  top: "label"
  include {
    phase: TEST
  }
  transform_param {
    crop_size: 227
    mean_file: "/home/mohanty/data/final_dataset/lmdb/grayscale-50-50/mean.binaryproto"
  }
  data_param {
    source: "/home/mohanty/data/final_dataset/lmdb/grayscale-50-50/test_db"
    batch_size: 100
    backend: LMDB
  }
}
layer {
  name: "conv1"
  type: "Convolution"
  bottom: "data"
  top: "conv1"
  param {
    lr_mult: 1
    decay_mult: 1
  }
  param {
    lr_mult: 2
    decay_mult: 0
  }
  convolution_param {
    num_output: 96
    kernel_size: 11
    stride: 4
    weight_filler {
      type: "gaussian"
      std: 0.01
    }
    bias_filler {
      type: "constant"
      value: 0
    }
  }
}
layer {
  name: "relu1"
  type: "ReLU"
  bottom: "conv1"
  top: "conv1"
}
layer {
  name: "norm1"
  type: "LRN"
  bottom: "conv1"
  top: "norm1"
  lrn_param {
    local_size: 5
    alpha: 0.0001
    beta: 0.75
  }
}
layer {
  name: "pool1"
  type: "Pooling"
  bottom: "norm1"
  top: "pool1"
  pooling_param {
    pool: MAX
    kernel_size: 3
    stride: 2
  }
}
layer {
  name: "conv2"
  type: "Convolution"
  bottom: "pool1"
  top: "conv2"
  param {
    lr_mult: 1
    decay_mult: 1
  }
  param {
    lr_mult: 2
    decay_mult: 0
  }
  convolution_param {
    num_output: 256
    pad: 2
    kernel_size: 5
    group: 2
    weight_filler {
      type: "gaussian"
      std: 0.01
    }
    bias_filler {
      type: "constant"
      value: 0.1
    }
  }
}
layer {
  name: "relu2"
  type: "ReLU"
  bottom: "conv2"
  top: "conv2"
}
layer {
  name: "norm2"
  type: "LRN"
  bottom: "conv2"
  top: "norm2"
  lrn_param {
    local_size: 5
    alpha: 0.0001
    beta: 0.75
  }
}
layer {
  name: "pool2"
  type: "Pooling"
  bottom: "norm2"
  top: "pool2"
  pooling_param {
    pool: MAX
    kernel_size: 3
    stride: 2
  }
}
layer {
  name: "conv3"
  type: "Convolution"
  bottom: "pool2"
  top: "conv3"
  param {
    lr_mult: 1
    decay_mult: 1
  }
  param {
    lr_mult: 2
    decay_mult: 0
  }
  convolution_param {
    num_output: 384
    pad: 1
    kernel_size: 3
    weight_filler {
      type: "gaussian"
      std: 0.01
    }
    bias_filler {
      type: "constant"
      value: 0
    }
  }
}
layer {
  name: "relu3"
  type: "ReLU"
  bottom: "conv3"
  top: "conv3"
}
layer {
  name: "conv4"
  type: "Convolution"
  bottom: "conv3"
  top: "conv4"
  param {
    lr_mult: 1
    decay_mult: 1
  }
  param {
    lr_mult: 2
    decay_mult: 0
  }
  convolution_param {
    num_output: 384
    pad: 1
    kernel_size: 3
    group: 2
    weight_filler {
      type: "gaussian"
      std: 0.01
    }
    bias_filler {
      type: "constant"
      value: 0.1
    }
  }
}
layer {
  name: "relu4"
  type: "ReLU"
  bottom: "conv4"
  top: "conv4"
}
layer {
  name: "conv5"
  type: "Convolution"
  bottom: "conv4"
  top: "conv5"
  param {
    lr_mult: 1
    decay_mult: 1
  }
  param {
    lr_mult: 2
    decay_mult: 0
  }
  convolution_param {
    num_output: 256
    pad: 1
    kernel_size: 3
    group: 2
    weight_filler {
      type: "gaussian"
      std: 0.01
    }
    bias_filler {
      type: "constant"
      value: 0.1
    }
  }
}
layer {
  name: "relu5"
  type: "ReLU"
  bottom: "conv5"
  top: "conv5"
}
layer {
  name: "pool5"
  type: "Pooling"
  bottom: "conv5"
  top: "pool5"
  pooling_param {
    pool: MAX
    kernel_size: 3
    stride: 2
  }
}
layer {
  name: "fc6"
  type: "InnerProduct"
  bottom: "pool5"
  top: "fc6"
  param {
    lr_mult: 1
    decay_mult: 1
  }
  param {
    lr_mult: 2
    decay_mult: 0
  }
  inner_product_param {
    num_output: 4096
    weight_filler {
      type: "gaussian"
      std: 0.005
    }
    bias_filler {
      type: "constant"
      value: 0.1
    }
  }
}
layer {
  name: "relu6"
  type: "ReLU"
  bottom: "fc6"
  top: "fc6"
}
layer {
  name: "drop6"
  type: "Dropout"
  bottom: "fc6"
  top: "fc6"
  dropout_param {
    dropout_ratio: 0.5
  }
}
layer {
  name: "fc7"
  type: "InnerProduct"
  bottom: "fc6"
  top: "fc7"
  param {
    lr_mult: 1
    decay_mult: 1
  }
  param {
    lr_mult: 2
    decay_mult: 0
  }
  inner_product_param {
    num_output: 4096
    weight_filler {
      type: "gaussian"
      std: 0.005
    }
    bias_filler {
      type: "constant"
      value: 0.1
    }
  }
}
layer {
  name: "relu7"
  type: "ReLU"
  bottom: "fc7"
  top: "fc7"
}
layer {
  name: "drop7"
  type: "Dropout"
  bottom: "fc7"
  top: "fc7"
  dropout_param {
    dropout_ratio: 0.5
  }
}
layer {
  name: "fc8_plantvillage"
  type: "InnerProduct"
  bottom: "fc7"
  top: "fc8_plantvillage"
  param {
    lr_mult: 1
    decay_mult: 1
  }
  param {
    lr_mult: 2
    decay_mult: 0
  }
  inner_product_param {
    num_output: 38
    weight_filler {
      type: "gaussian"
      std: 0.01
    }
    bias_filler {
      type: "constant"
      value: 0
    }
  }
}
layer {
  name: "prob"
  type: "Softmax"
  bottom: "fc8_plantvillage"
  top: "prob"
  include {
    phase: TEST
  }
}
layer {
  name: "hdf5out"
  type: "HDF5Output"
  bottom: "prob"
  bottom: "label"
  include {
    phase: TEST
  }
  hdf5_output_param {
    file_name: "hdf5_dumps/iter_1602.h5"
  }
}
layer {
  name: "loss"
  type: "SoftmaxWithLoss"
  bottom: "fc8_plantvillage"
  bottom: "label"
  top: "loss"
}
layer {
  name: "accuracy"
  type: "Accuracy"
  bottom: "fc8_plantvillage"
  bottom: "label"
  top: "accuracy"
  include {
    phase: TEST
  }
}
I0403 14:40:03.396728 10957 layer_factory.hpp:77] Creating layer data
I0403 14:40:03.397368 10957 net.cpp:91] Creating Layer data
I0403 14:40:03.397402 10957 net.cpp:399] data -> data
I0403 14:40:03.397454 10957 net.cpp:399] data -> label
I0403 14:40:03.397490 10957 data_transformer.cpp:25] Loading mean file from: /home/mohanty/data/final_dataset/lmdb/grayscale-50-50/mean.binaryproto
I0403 14:40:03.400538 10964 db_lmdb.cpp:38] Opened lmdb /home/mohanty/data/final_dataset/lmdb/grayscale-50-50/test_db
I0403 14:40:03.411576 10957 data_layer.cpp:41] output data size: 100,3,227,227
I0403 14:40:03.528093 10957 net.cpp:141] Setting up data
I0403 14:40:03.528153 10957 net.cpp:148] Top shape: 100 3 227 227 (15458700)
I0403 14:40:03.528177 10957 net.cpp:148] Top shape: 100 (100)
I0403 14:40:03.528195 10957 net.cpp:156] Memory required for data: 61835200
I0403 14:40:03.528224 10957 layer_factory.hpp:77] Creating layer label_data_1_split
I0403 14:40:03.528249 10957 net.cpp:91] Creating Layer label_data_1_split
I0403 14:40:03.528266 10957 net.cpp:425] label_data_1_split <- label
I0403 14:40:03.528298 10957 net.cpp:399] label_data_1_split -> label_data_1_split_0
I0403 14:40:03.528323 10957 net.cpp:399] label_data_1_split -> label_data_1_split_1
I0403 14:40:03.528342 10957 net.cpp:399] label_data_1_split -> label_data_1_split_2
I0403 14:40:03.528403 10957 net.cpp:141] Setting up label_data_1_split
I0403 14:40:03.528426 10957 net.cpp:148] Top shape: 100 (100)
I0403 14:40:03.528444 10957 net.cpp:148] Top shape: 100 (100)
I0403 14:40:03.528458 10957 net.cpp:148] Top shape: 100 (100)
I0403 14:40:03.528472 10957 net.cpp:156] Memory required for data: 61836400
I0403 14:40:03.528488 10957 layer_factory.hpp:77] Creating layer conv1
I0403 14:40:03.528520 10957 net.cpp:91] Creating Layer conv1
I0403 14:40:03.528538 10957 net.cpp:425] conv1 <- data
I0403 14:40:03.528558 10957 net.cpp:399] conv1 -> conv1
I0403 14:40:03.668225 10957 net.cpp:141] Setting up conv1
I0403 14:40:03.668316 10957 net.cpp:148] Top shape: 100 96 55 55 (29040000)
I0403 14:40:03.668334 10957 net.cpp:156] Memory required for data: 177996400
I0403 14:40:03.668366 10957 layer_factory.hpp:77] Creating layer relu1
I0403 14:40:03.668395 10957 net.cpp:91] Creating Layer relu1
I0403 14:40:03.668414 10957 net.cpp:425] relu1 <- conv1
I0403 14:40:03.668433 10957 net.cpp:386] relu1 -> conv1 (in-place)
I0403 14:40:03.668691 10957 net.cpp:141] Setting up relu1
I0403 14:40:03.668720 10957 net.cpp:148] Top shape: 100 96 55 55 (29040000)
I0403 14:40:03.668769 10957 net.cpp:156] Memory required for data: 294156400
I0403 14:40:03.668787 10957 layer_factory.hpp:77] Creating layer norm1
I0403 14:40:03.668814 10957 net.cpp:91] Creating Layer norm1
I0403 14:40:03.668834 10957 net.cpp:425] norm1 <- conv1
I0403 14:40:03.668853 10957 net.cpp:399] norm1 -> norm1
I0403 14:40:03.669160 10957 net.cpp:141] Setting up norm1
I0403 14:40:03.669193 10957 net.cpp:148] Top shape: 100 96 55 55 (29040000)
I0403 14:40:03.669211 10957 net.cpp:156] Memory required for data: 410316400
I0403 14:40:03.669227 10957 layer_factory.hpp:77] Creating layer pool1
I0403 14:40:03.669251 10957 net.cpp:91] Creating Layer pool1
I0403 14:40:03.669270 10957 net.cpp:425] pool1 <- norm1
I0403 14:40:03.669289 10957 net.cpp:399] pool1 -> pool1
I0403 14:40:03.669359 10957 net.cpp:141] Setting up pool1
I0403 14:40:03.669384 10957 net.cpp:148] Top shape: 100 96 27 27 (6998400)
I0403 14:40:03.669399 10957 net.cpp:156] Memory required for data: 438310000
I0403 14:40:03.669415 10957 layer_factory.hpp:77] Creating layer conv2
I0403 14:40:03.669440 10957 net.cpp:91] Creating Layer conv2
I0403 14:40:03.669457 10957 net.cpp:425] conv2 <- pool1
I0403 14:40:03.669476 10957 net.cpp:399] conv2 -> conv2
I0403 14:40:03.684353 10957 net.cpp:141] Setting up conv2
I0403 14:40:03.684411 10957 net.cpp:148] Top shape: 100 256 27 27 (18662400)
I0403 14:40:03.684428 10957 net.cpp:156] Memory required for data: 512959600
I0403 14:40:03.684453 10957 layer_factory.hpp:77] Creating layer relu2
I0403 14:40:03.684474 10957 net.cpp:91] Creating Layer relu2
I0403 14:40:03.684491 10957 net.cpp:425] relu2 <- conv2
I0403 14:40:03.684509 10957 net.cpp:386] relu2 -> conv2 (in-place)
I0403 14:40:03.684777 10957 net.cpp:141] Setting up relu2
I0403 14:40:03.684805 10957 net.cpp:148] Top shape: 100 256 27 27 (18662400)
I0403 14:40:03.684821 10957 net.cpp:156] Memory required for data: 587609200
I0403 14:40:03.684836 10957 layer_factory.hpp:77] Creating layer norm2
I0403 14:40:03.684859 10957 net.cpp:91] Creating Layer norm2
I0403 14:40:03.684875 10957 net.cpp:425] norm2 <- conv2
I0403 14:40:03.684895 10957 net.cpp:399] norm2 -> norm2
I0403 14:40:03.685081 10957 net.cpp:141] Setting up norm2
I0403 14:40:03.685108 10957 net.cpp:148] Top shape: 100 256 27 27 (18662400)
I0403 14:40:03.685124 10957 net.cpp:156] Memory required for data: 662258800
I0403 14:40:03.685153 10957 layer_factory.hpp:77] Creating layer pool2
I0403 14:40:03.685173 10957 net.cpp:91] Creating Layer pool2
I0403 14:40:03.685194 10957 net.cpp:425] pool2 <- norm2
I0403 14:40:03.685214 10957 net.cpp:399] pool2 -> pool2
I0403 14:40:03.685269 10957 net.cpp:141] Setting up pool2
I0403 14:40:03.685293 10957 net.cpp:148] Top shape: 100 256 13 13 (4326400)
I0403 14:40:03.685309 10957 net.cpp:156] Memory required for data: 679564400
I0403 14:40:03.685324 10957 layer_factory.hpp:77] Creating layer conv3
I0403 14:40:03.685348 10957 net.cpp:91] Creating Layer conv3
I0403 14:40:03.685364 10957 net.cpp:425] conv3 <- pool2
I0403 14:40:03.685384 10957 net.cpp:399] conv3 -> conv3
I0403 14:40:03.724974 10957 net.cpp:141] Setting up conv3
I0403 14:40:03.725036 10957 net.cpp:148] Top shape: 100 384 13 13 (6489600)
I0403 14:40:03.725054 10957 net.cpp:156] Memory required for data: 705522800
I0403 14:40:03.725081 10957 layer_factory.hpp:77] Creating layer relu3
I0403 14:40:03.725106 10957 net.cpp:91] Creating Layer relu3
I0403 14:40:03.725123 10957 net.cpp:425] relu3 <- conv3
I0403 14:40:03.725144 10957 net.cpp:386] relu3 -> conv3 (in-place)
I0403 14:40:03.725425 10957 net.cpp:141] Setting up relu3
I0403 14:40:03.725453 10957 net.cpp:148] Top shape: 100 384 13 13 (6489600)
I0403 14:40:03.725469 10957 net.cpp:156] Memory required for data: 731481200
I0403 14:40:03.725484 10957 layer_factory.hpp:77] Creating layer conv4
I0403 14:40:03.725509 10957 net.cpp:91] Creating Layer conv4
I0403 14:40:03.725528 10957 net.cpp:425] conv4 <- conv3
I0403 14:40:03.725548 10957 net.cpp:399] conv4 -> conv4
I0403 14:40:03.756165 10957 net.cpp:141] Setting up conv4
I0403 14:40:03.756235 10957 net.cpp:148] Top shape: 100 384 13 13 (6489600)
I0403 14:40:03.756285 10957 net.cpp:156] Memory required for data: 757439600
I0403 14:40:03.756309 10957 layer_factory.hpp:77] Creating layer relu4
I0403 14:40:03.756331 10957 net.cpp:91] Creating Layer relu4
I0403 14:40:03.756348 10957 net.cpp:425] relu4 <- conv4
I0403 14:40:03.756371 10957 net.cpp:386] relu4 -> conv4 (in-place)
I0403 14:40:03.756657 10957 net.cpp:141] Setting up relu4
I0403 14:40:03.756686 10957 net.cpp:148] Top shape: 100 384 13 13 (6489600)
I0403 14:40:03.756702 10957 net.cpp:156] Memory required for data: 783398000
I0403 14:40:03.756718 10957 layer_factory.hpp:77] Creating layer conv5
I0403 14:40:03.756744 10957 net.cpp:91] Creating Layer conv5
I0403 14:40:03.756764 10957 net.cpp:425] conv5 <- conv4
I0403 14:40:03.756788 10957 net.cpp:399] conv5 -> conv5
I0403 14:40:03.778079 10957 net.cpp:141] Setting up conv5
I0403 14:40:03.778120 10957 net.cpp:148] Top shape: 100 256 13 13 (4326400)
I0403 14:40:03.778142 10957 net.cpp:156] Memory required for data: 800703600
I0403 14:40:03.778168 10957 layer_factory.hpp:77] Creating layer relu5
I0403 14:40:03.778195 10957 net.cpp:91] Creating Layer relu5
I0403 14:40:03.778228 10957 net.cpp:425] relu5 <- conv5
I0403 14:40:03.778247 10957 net.cpp:386] relu5 -> conv5 (in-place)
I0403 14:40:03.778537 10957 net.cpp:141] Setting up relu5
I0403 14:40:03.778568 10957 net.cpp:148] Top shape: 100 256 13 13 (4326400)
I0403 14:40:03.778584 10957 net.cpp:156] Memory required for data: 818009200
I0403 14:40:03.778600 10957 layer_factory.hpp:77] Creating layer pool5
I0403 14:40:03.778627 10957 net.cpp:91] Creating Layer pool5
I0403 14:40:03.778653 10957 net.cpp:425] pool5 <- conv5
I0403 14:40:03.778674 10957 net.cpp:399] pool5 -> pool5
I0403 14:40:03.778743 10957 net.cpp:141] Setting up pool5
I0403 14:40:03.778769 10957 net.cpp:148] Top shape: 100 256 6 6 (921600)
I0403 14:40:03.778784 10957 net.cpp:156] Memory required for data: 821695600
I0403 14:40:03.778800 10957 layer_factory.hpp:77] Creating layer fc6
I0403 14:40:03.778836 10957 net.cpp:91] Creating Layer fc6
I0403 14:40:03.778854 10957 net.cpp:425] fc6 <- pool5
I0403 14:40:03.778877 10957 net.cpp:399] fc6 -> fc6
I0403 14:40:05.326485 10957 net.cpp:141] Setting up fc6
I0403 14:40:05.326530 10957 net.cpp:148] Top shape: 100 4096 (409600)
I0403 14:40:05.326546 10957 net.cpp:156] Memory required for data: 823334000
I0403 14:40:05.326567 10957 layer_factory.hpp:77] Creating layer relu6
I0403 14:40:05.326589 10957 net.cpp:91] Creating Layer relu6
I0403 14:40:05.326606 10957 net.cpp:425] relu6 <- fc6
I0403 14:40:05.326637 10957 net.cpp:386] relu6 -> fc6 (in-place)
I0403 14:40:05.326874 10957 net.cpp:141] Setting up relu6
I0403 14:40:05.326900 10957 net.cpp:148] Top shape: 100 4096 (409600)
I0403 14:40:05.326915 10957 net.cpp:156] Memory required for data: 824972400
I0403 14:40:05.326930 10957 layer_factory.hpp:77] Creating layer drop6
I0403 14:40:05.326947 10957 net.cpp:91] Creating Layer drop6
I0403 14:40:05.326962 10957 net.cpp:425] drop6 <- fc6
I0403 14:40:05.326982 10957 net.cpp:386] drop6 -> fc6 (in-place)
I0403 14:40:05.327038 10957 net.cpp:141] Setting up drop6
I0403 14:40:05.327064 10957 net.cpp:148] Top shape: 100 4096 (409600)
I0403 14:40:05.327080 10957 net.cpp:156] Memory required for data: 826610800
I0403 14:40:05.327095 10957 layer_factory.hpp:77] Creating layer fc7
I0403 14:40:05.327116 10957 net.cpp:91] Creating Layer fc7
I0403 14:40:05.327132 10957 net.cpp:425] fc7 <- fc6
I0403 14:40:05.327152 10957 net.cpp:399] fc7 -> fc7
I0403 14:40:06.009464 10957 net.cpp:141] Setting up fc7
I0403 14:40:06.009506 10957 net.cpp:148] Top shape: 100 4096 (409600)
I0403 14:40:06.009523 10957 net.cpp:156] Memory required for data: 828249200
I0403 14:40:06.009544 10957 layer_factory.hpp:77] Creating layer relu7
I0403 14:40:06.009567 10957 net.cpp:91] Creating Layer relu7
I0403 14:40:06.009583 10957 net.cpp:425] relu7 <- fc7
I0403 14:40:06.009604 10957 net.cpp:386] relu7 -> fc7 (in-place)
I0403 14:40:06.010001 10957 net.cpp:141] Setting up relu7
I0403 14:40:06.010027 10957 net.cpp:148] Top shape: 100 4096 (409600)
I0403 14:40:06.010076 10957 net.cpp:156] Memory required for data: 829887600
I0403 14:40:06.010092 10957 layer_factory.hpp:77] Creating layer drop7
I0403 14:40:06.010112 10957 net.cpp:91] Creating Layer drop7
I0403 14:40:06.010125 10957 net.cpp:425] drop7 <- fc7
I0403 14:40:06.010144 10957 net.cpp:386] drop7 -> fc7 (in-place)
I0403 14:40:06.010185 10957 net.cpp:141] Setting up drop7
I0403 14:40:06.010216 10957 net.cpp:148] Top shape: 100 4096 (409600)
I0403 14:40:06.010232 10957 net.cpp:156] Memory required for data: 831526000
I0403 14:40:06.010247 10957 layer_factory.hpp:77] Creating layer fc8_plantvillage
I0403 14:40:06.010267 10957 net.cpp:91] Creating Layer fc8_plantvillage
I0403 14:40:06.010282 10957 net.cpp:425] fc8_plantvillage <- fc7
I0403 14:40:06.010300 10957 net.cpp:399] fc8_plantvillage -> fc8_plantvillage
I0403 14:40:06.016886 10957 net.cpp:141] Setting up fc8_plantvillage
I0403 14:40:06.016916 10957 net.cpp:148] Top shape: 100 38 (3800)
I0403 14:40:06.016930 10957 net.cpp:156] Memory required for data: 831541200
I0403 14:40:06.016948 10957 layer_factory.hpp:77] Creating layer fc8_plantvillage_fc8_plantvillage_0_split
I0403 14:40:06.016969 10957 net.cpp:91] Creating Layer fc8_plantvillage_fc8_plantvillage_0_split
I0403 14:40:06.016986 10957 net.cpp:425] fc8_plantvillage_fc8_plantvillage_0_split <- fc8_plantvillage
I0403 14:40:06.017004 10957 net.cpp:399] fc8_plantvillage_fc8_plantvillage_0_split -> fc8_plantvillage_fc8_plantvillage_0_split_0
I0403 14:40:06.017022 10957 net.cpp:399] fc8_plantvillage_fc8_plantvillage_0_split -> fc8_plantvillage_fc8_plantvillage_0_split_1
I0403 14:40:06.017040 10957 net.cpp:399] fc8_plantvillage_fc8_plantvillage_0_split -> fc8_plantvillage_fc8_plantvillage_0_split_2
I0403 14:40:06.017118 10957 net.cpp:141] Setting up fc8_plantvillage_fc8_plantvillage_0_split
I0403 14:40:06.017141 10957 net.cpp:148] Top shape: 100 38 (3800)
I0403 14:40:06.017158 10957 net.cpp:148] Top shape: 100 38 (3800)
I0403 14:40:06.017173 10957 net.cpp:148] Top shape: 100 38 (3800)
I0403 14:40:06.017186 10957 net.cpp:156] Memory required for data: 831586800
I0403 14:40:06.017205 10957 layer_factory.hpp:77] Creating layer prob
I0403 14:40:06.017225 10957 net.cpp:91] Creating Layer prob
I0403 14:40:06.017240 10957 net.cpp:425] prob <- fc8_plantvillage_fc8_plantvillage_0_split_0
I0403 14:40:06.017256 10957 net.cpp:399] prob -> prob
I0403 14:40:06.017488 10957 net.cpp:141] Setting up prob
I0403 14:40:06.017513 10957 net.cpp:148] Top shape: 100 38 (3800)
I0403 14:40:06.017527 10957 net.cpp:156] Memory required for data: 831602000
I0403 14:40:06.017542 10957 layer_factory.hpp:77] Creating layer hdf5out
I0403 14:40:06.017560 10957 net.cpp:91] Creating Layer hdf5out
I0403 14:40:06.017576 10957 net.cpp:425] hdf5out <- prob
I0403 14:40:06.017592 10957 net.cpp:425] hdf5out <- label_data_1_split_0
I0403 14:40:06.282373 10957 net.cpp:141] Setting up hdf5out
…
