…
I0403 14:52:20.859634 11227 net.cpp:313] The NetState phase (1) differed from the phase (0) specified by a rule in layer data
I0403 14:52:20.859928 11227 net.cpp:49] Initializing net from parameters: 
state {
  phase: TEST
}
layer {
  name: "data"
  type: "Data"
  top: "data"
  top: "label"
  include {
    phase: TEST
  }
  transform_param {
    crop_size: 227
    mean_file: "/home/mohanty/data/final_dataset/lmdb/grayscale-50-50/mean.binaryproto"
  }
  data_param {
    source: "/home/mohanty/data/final_dataset/lmdb/grayscale-50-50/test_db"
    batch_size: 100
    backend: LMDB
  }
}
layer {
  name: "conv1"
  type: "Convolution"
  bottom: "data"
  top: "conv1"
  param {
    lr_mult: 1
    decay_mult: 1
  }
  param {
    lr_mult: 2
    decay_mult: 0
  }
  convolution_param {
    num_output: 96
    kernel_size: 11
    stride: 4
    weight_filler {
      type: "gaussian"
      std: 0.01
    }
    bias_filler {
      type: "constant"
      value: 0
    }
  }
}
layer {
  name: "relu1"
  type: "ReLU"
  bottom: "conv1"
  top: "conv1"
}
layer {
  name: "norm1"
  type: "LRN"
  bottom: "conv1"
  top: "norm1"
  lrn_param {
    local_size: 5
    alpha: 0.0001
    beta: 0.75
  }
}
layer {
  name: "pool1"
  type: "Pooling"
  bottom: "norm1"
  top: "pool1"
  pooling_param {
    pool: MAX
    kernel_size: 3
    stride: 2
  }
}
layer {
  name: "conv2"
  type: "Convolution"
  bottom: "pool1"
  top: "conv2"
  param {
    lr_mult: 1
    decay_mult: 1
  }
  param {
    lr_mult: 2
    decay_mult: 0
  }
  convolution_param {
    num_output: 256
    pad: 2
    kernel_size: 5
    group: 2
    weight_filler {
      type: "gaussian"
      std: 0.01
    }
    bias_filler {
      type: "constant"
      value: 0.1
    }
  }
}
layer {
  name: "relu2"
  type: "ReLU"
  bottom: "conv2"
  top: "conv2"
}
layer {
  name: "norm2"
  type: "LRN"
  bottom: "conv2"
  top: "norm2"
  lrn_param {
    local_size: 5
    alpha: 0.0001
    beta: 0.75
  }
}
layer {
  name: "pool2"
  type: "Pooling"
  bottom: "norm2"
  top: "pool2"
  pooling_param {
    pool: MAX
    kernel_size: 3
    stride: 2
  }
}
layer {
  name: "conv3"
  type: "Convolution"
  bottom: "pool2"
  top: "conv3"
  param {
    lr_mult: 1
    decay_mult: 1
  }
  param {
    lr_mult: 2
    decay_mult: 0
  }
  convolution_param {
    num_output: 384
    pad: 1
    kernel_size: 3
    weight_filler {
      type: "gaussian"
      std: 0.01
    }
    bias_filler {
      type: "constant"
      value: 0
    }
  }
}
layer {
  name: "relu3"
  type: "ReLU"
  bottom: "conv3"
  top: "conv3"
}
layer {
  name: "conv4"
  type: "Convolution"
  bottom: "conv3"
  top: "conv4"
  param {
    lr_mult: 1
    decay_mult: 1
  }
  param {
    lr_mult: 2
    decay_mult: 0
  }
  convolution_param {
    num_output: 384
    pad: 1
    kernel_size: 3
    group: 2
    weight_filler {
      type: "gaussian"
      std: 0.01
    }
    bias_filler {
      type: "constant"
      value: 0.1
    }
  }
}
layer {
  name: "relu4"
  type: "ReLU"
  bottom: "conv4"
  top: "conv4"
}
layer {
  name: "conv5"
  type: "Convolution"
  bottom: "conv4"
  top: "conv5"
  param {
    lr_mult: 1
    decay_mult: 1
  }
  param {
    lr_mult: 2
    decay_mult: 0
  }
  convolution_param {
    num_output: 256
    pad: 1
    kernel_size: 3
    group: 2
    weight_filler {
      type: "gaussian"
      std: 0.01
    }
    bias_filler {
      type: "constant"
      value: 0.1
    }
  }
}
layer {
  name: "relu5"
  type: "ReLU"
  bottom: "conv5"
  top: "conv5"
}
layer {
  name: "pool5"
  type: "Pooling"
  bottom: "conv5"
  top: "pool5"
  pooling_param {
    pool: MAX
    kernel_size: 3
    stride: 2
  }
}
layer {
  name: "fc6"
  type: "InnerProduct"
  bottom: "pool5"
  top: "fc6"
  param {
    lr_mult: 1
    decay_mult: 1
  }
  param {
    lr_mult: 2
    decay_mult: 0
  }
  inner_product_param {
    num_output: 4096
    weight_filler {
      type: "gaussian"
      std: 0.005
    }
    bias_filler {
      type: "constant"
      value: 0.1
    }
  }
}
layer {
  name: "relu6"
  type: "ReLU"
  bottom: "fc6"
  top: "fc6"
}
layer {
  name: "drop6"
  type: "Dropout"
  bottom: "fc6"
  top: "fc6"
  dropout_param {
    dropout_ratio: 0.5
  }
}
layer {
  name: "fc7"
  type: "InnerProduct"
  bottom: "fc6"
  top: "fc7"
  param {
    lr_mult: 1
    decay_mult: 1
  }
  param {
    lr_mult: 2
    decay_mult: 0
  }
  inner_product_param {
    num_output: 4096
    weight_filler {
      type: "gaussian"
      std: 0.005
    }
    bias_filler {
      type: "constant"
      value: 0.1
    }
  }
}
layer {
  name: "relu7"
  type: "ReLU"
  bottom: "fc7"
  top: "fc7"
}
layer {
  name: "drop7"
  type: "Dropout"
  bottom: "fc7"
  top: "fc7"
  dropout_param {
    dropout_ratio: 0.5
  }
}
layer {
  name: "fc8_plantvillage"
  type: "InnerProduct"
  bottom: "fc7"
  top: "fc8_plantvillage"
  param {
    lr_mult: 1
    decay_mult: 1
  }
  param {
    lr_mult: 2
    decay_mult: 0
  }
  inner_product_param {
    num_output: 38
    weight_filler {
      type: "gaussian"
      std: 0.01
    }
    bias_filler {
      type: "constant"
      value: 0
    }
  }
}
layer {
  name: "prob"
  type: "Softmax"
  bottom: "fc8_plantvillage"
  top: "prob"
  include {
    phase: TEST
  }
}
layer {
  name: "hdf5out"
  type: "HDF5Output"
  bottom: "prob"
  bottom: "label"
  include {
    phase: TEST
  }
  hdf5_output_param {
    file_name: "hdf5_dumps/iter_5073.h5"
  }
}
layer {
  name: "loss"
  type: "SoftmaxWithLoss"
  bottom: "fc8_plantvillage"
  bottom: "label"
  top: "loss"
}
layer {
  name: "accuracy"
  type: "Accuracy"
  bottom: "fc8_plantvillage"
  bottom: "label"
  top: "accuracy"
  include {
    phase: TEST
  }
}
I0403 14:52:20.860430 11227 layer_factory.hpp:77] Creating layer data
I0403 14:52:20.861059 11227 net.cpp:91] Creating Layer data
I0403 14:52:20.861093 11227 net.cpp:399] data -> data
I0403 14:52:20.861140 11227 net.cpp:399] data -> label
I0403 14:52:20.861177 11227 data_transformer.cpp:25] Loading mean file from: /home/mohanty/data/final_dataset/lmdb/grayscale-50-50/mean.binaryproto
I0403 14:52:20.863867 11231 db_lmdb.cpp:38] Opened lmdb /home/mohanty/data/final_dataset/lmdb/grayscale-50-50/test_db
I0403 14:52:20.875741 11227 data_layer.cpp:41] output data size: 100,3,227,227
I0403 14:52:23.041965 11227 net.cpp:141] Setting up data
I0403 14:52:23.042085 11227 net.cpp:148] Top shape: 100 3 227 227 (15458700)
I0403 14:52:23.042110 11227 net.cpp:148] Top shape: 100 (100)
I0403 14:52:23.042125 11227 net.cpp:156] Memory required for data: 61835200
I0403 14:52:23.042152 11227 layer_factory.hpp:77] Creating layer label_data_1_split
I0403 14:52:23.042178 11227 net.cpp:91] Creating Layer label_data_1_split
I0403 14:52:23.042214 11227 net.cpp:425] label_data_1_split <- label
I0403 14:52:23.042248 11227 net.cpp:399] label_data_1_split -> label_data_1_split_0
I0403 14:52:23.042276 11227 net.cpp:399] label_data_1_split -> label_data_1_split_1
I0403 14:52:23.042296 11227 net.cpp:399] label_data_1_split -> label_data_1_split_2
I0403 14:52:23.042366 11227 net.cpp:141] Setting up label_data_1_split
I0403 14:52:23.042389 11227 net.cpp:148] Top shape: 100 (100)
I0403 14:52:23.042407 11227 net.cpp:148] Top shape: 100 (100)
I0403 14:52:23.042423 11227 net.cpp:148] Top shape: 100 (100)
I0403 14:52:23.042436 11227 net.cpp:156] Memory required for data: 61836400
I0403 14:52:23.042453 11227 layer_factory.hpp:77] Creating layer conv1
I0403 14:52:23.042484 11227 net.cpp:91] Creating Layer conv1
I0403 14:52:23.042502 11227 net.cpp:425] conv1 <- data
I0403 14:52:23.042521 11227 net.cpp:399] conv1 -> conv1
I0403 14:52:23.229131 11227 net.cpp:141] Setting up conv1
I0403 14:52:23.229221 11227 net.cpp:148] Top shape: 100 96 55 55 (29040000)
I0403 14:52:23.229241 11227 net.cpp:156] Memory required for data: 177996400
I0403 14:52:23.229272 11227 layer_factory.hpp:77] Creating layer relu1
I0403 14:52:23.229301 11227 net.cpp:91] Creating Layer relu1
I0403 14:52:23.229321 11227 net.cpp:425] relu1 <- conv1
I0403 14:52:23.229341 11227 net.cpp:386] relu1 -> conv1 (in-place)
I0403 14:52:23.229590 11227 net.cpp:141] Setting up relu1
I0403 14:52:23.229619 11227 net.cpp:148] Top shape: 100 96 55 55 (29040000)
I0403 14:52:23.229665 11227 net.cpp:156] Memory required for data: 294156400
I0403 14:52:23.229682 11227 layer_factory.hpp:77] Creating layer norm1
I0403 14:52:23.229709 11227 net.cpp:91] Creating Layer norm1
I0403 14:52:23.229727 11227 net.cpp:425] norm1 <- conv1
I0403 14:52:23.229745 11227 net.cpp:399] norm1 -> norm1
I0403 14:52:23.230044 11227 net.cpp:141] Setting up norm1
I0403 14:52:23.230073 11227 net.cpp:148] Top shape: 100 96 55 55 (29040000)
I0403 14:52:23.230090 11227 net.cpp:156] Memory required for data: 410316400
I0403 14:52:23.230105 11227 layer_factory.hpp:77] Creating layer pool1
I0403 14:52:23.230129 11227 net.cpp:91] Creating Layer pool1
I0403 14:52:23.230145 11227 net.cpp:425] pool1 <- norm1
I0403 14:52:23.230165 11227 net.cpp:399] pool1 -> pool1
I0403 14:52:23.230235 11227 net.cpp:141] Setting up pool1
I0403 14:52:23.230260 11227 net.cpp:148] Top shape: 100 96 27 27 (6998400)
I0403 14:52:23.230275 11227 net.cpp:156] Memory required for data: 438310000
I0403 14:52:23.230290 11227 layer_factory.hpp:77] Creating layer conv2
I0403 14:52:23.230315 11227 net.cpp:91] Creating Layer conv2
I0403 14:52:23.230331 11227 net.cpp:425] conv2 <- pool1
I0403 14:52:23.230350 11227 net.cpp:399] conv2 -> conv2
I0403 14:52:23.245196 11227 net.cpp:141] Setting up conv2
I0403 14:52:23.245256 11227 net.cpp:148] Top shape: 100 256 27 27 (18662400)
I0403 14:52:23.245275 11227 net.cpp:156] Memory required for data: 512959600
I0403 14:52:23.245301 11227 layer_factory.hpp:77] Creating layer relu2
I0403 14:52:23.245323 11227 net.cpp:91] Creating Layer relu2
I0403 14:52:23.245342 11227 net.cpp:425] relu2 <- conv2
I0403 14:52:23.245373 11227 net.cpp:386] relu2 -> conv2 (in-place)
I0403 14:52:23.245723 11227 net.cpp:141] Setting up relu2
I0403 14:52:23.245753 11227 net.cpp:148] Top shape: 100 256 27 27 (18662400)
I0403 14:52:23.245769 11227 net.cpp:156] Memory required for data: 587609200
I0403 14:52:23.245786 11227 layer_factory.hpp:77] Creating layer norm2
I0403 14:52:23.245812 11227 net.cpp:91] Creating Layer norm2
I0403 14:52:23.245829 11227 net.cpp:425] norm2 <- conv2
I0403 14:52:23.245849 11227 net.cpp:399] norm2 -> norm2
I0403 14:52:23.246055 11227 net.cpp:141] Setting up norm2
I0403 14:52:23.246084 11227 net.cpp:148] Top shape: 100 256 27 27 (18662400)
I0403 14:52:23.246100 11227 net.cpp:156] Memory required for data: 662258800
I0403 14:52:23.246116 11227 layer_factory.hpp:77] Creating layer pool2
I0403 14:52:23.246136 11227 net.cpp:91] Creating Layer pool2
I0403 14:52:23.246152 11227 net.cpp:425] pool2 <- norm2
I0403 14:52:23.246184 11227 net.cpp:399] pool2 -> pool2
I0403 14:52:23.246254 11227 net.cpp:141] Setting up pool2
I0403 14:52:23.246280 11227 net.cpp:148] Top shape: 100 256 13 13 (4326400)
I0403 14:52:23.246295 11227 net.cpp:156] Memory required for data: 679564400
I0403 14:52:23.246310 11227 layer_factory.hpp:77] Creating layer conv3
I0403 14:52:23.246333 11227 net.cpp:91] Creating Layer conv3
I0403 14:52:23.246348 11227 net.cpp:425] conv3 <- pool2
I0403 14:52:23.246367 11227 net.cpp:399] conv3 -> conv3
I0403 14:52:23.284745 11227 net.cpp:141] Setting up conv3
I0403 14:52:23.284790 11227 net.cpp:148] Top shape: 100 384 13 13 (6489600)
I0403 14:52:23.284807 11227 net.cpp:156] Memory required for data: 705522800
I0403 14:52:23.284832 11227 layer_factory.hpp:77] Creating layer relu3
I0403 14:52:23.284855 11227 net.cpp:91] Creating Layer relu3
I0403 14:52:23.284873 11227 net.cpp:425] relu3 <- conv3
I0403 14:52:23.284893 11227 net.cpp:386] relu3 -> conv3 (in-place)
I0403 14:52:23.285166 11227 net.cpp:141] Setting up relu3
I0403 14:52:23.285199 11227 net.cpp:148] Top shape: 100 384 13 13 (6489600)
I0403 14:52:23.285218 11227 net.cpp:156] Memory required for data: 731481200
I0403 14:52:23.285234 11227 layer_factory.hpp:77] Creating layer conv4
I0403 14:52:23.285259 11227 net.cpp:91] Creating Layer conv4
I0403 14:52:23.285276 11227 net.cpp:425] conv4 <- conv3
I0403 14:52:23.285297 11227 net.cpp:399] conv4 -> conv4
I0403 14:52:23.315284 11227 net.cpp:141] Setting up conv4
I0403 14:52:23.315327 11227 net.cpp:148] Top shape: 100 384 13 13 (6489600)
I0403 14:52:23.315364 11227 net.cpp:156] Memory required for data: 757439600
I0403 14:52:23.315389 11227 layer_factory.hpp:77] Creating layer relu4
I0403 14:52:23.315414 11227 net.cpp:91] Creating Layer relu4
I0403 14:52:23.315434 11227 net.cpp:425] relu4 <- conv4
I0403 14:52:23.315453 11227 net.cpp:386] relu4 -> conv4 (in-place)
I0403 14:52:23.315752 11227 net.cpp:141] Setting up relu4
I0403 14:52:23.315780 11227 net.cpp:148] Top shape: 100 384 13 13 (6489600)
I0403 14:52:23.315798 11227 net.cpp:156] Memory required for data: 783398000
I0403 14:52:23.315814 11227 layer_factory.hpp:77] Creating layer conv5
I0403 14:52:23.315841 11227 net.cpp:91] Creating Layer conv5
I0403 14:52:23.315861 11227 net.cpp:425] conv5 <- conv4
I0403 14:52:23.315881 11227 net.cpp:399] conv5 -> conv5
I0403 14:52:23.337622 11227 net.cpp:141] Setting up conv5
I0403 14:52:23.337708 11227 net.cpp:148] Top shape: 100 256 13 13 (4326400)
I0403 14:52:23.337726 11227 net.cpp:156] Memory required for data: 800703600
I0403 14:52:23.337754 11227 layer_factory.hpp:77] Creating layer relu5
I0403 14:52:23.337777 11227 net.cpp:91] Creating Layer relu5
I0403 14:52:23.337795 11227 net.cpp:425] relu5 <- conv5
I0403 14:52:23.337816 11227 net.cpp:386] relu5 -> conv5 (in-place)
I0403 14:52:23.338104 11227 net.cpp:141] Setting up relu5
I0403 14:52:23.338131 11227 net.cpp:148] Top shape: 100 256 13 13 (4326400)
I0403 14:52:23.338147 11227 net.cpp:156] Memory required for data: 818009200
I0403 14:52:23.338163 11227 layer_factory.hpp:77] Creating layer pool5
I0403 14:52:23.338186 11227 net.cpp:91] Creating Layer pool5
I0403 14:52:23.338209 11227 net.cpp:425] pool5 <- conv5
I0403 14:52:23.338230 11227 net.cpp:399] pool5 -> pool5
I0403 14:52:23.338294 11227 net.cpp:141] Setting up pool5
I0403 14:52:23.338320 11227 net.cpp:148] Top shape: 100 256 6 6 (921600)
I0403 14:52:23.338336 11227 net.cpp:156] Memory required for data: 821695600
I0403 14:52:23.338351 11227 layer_factory.hpp:77] Creating layer fc6
I0403 14:52:23.338382 11227 net.cpp:91] Creating Layer fc6
I0403 14:52:23.338400 11227 net.cpp:425] fc6 <- pool5
I0403 14:52:23.338421 11227 net.cpp:399] fc6 -> fc6
I0403 14:52:24.904588 11227 net.cpp:141] Setting up fc6
I0403 14:52:24.904664 11227 net.cpp:148] Top shape: 100 4096 (409600)
I0403 14:52:24.904680 11227 net.cpp:156] Memory required for data: 823334000
I0403 14:52:24.904700 11227 layer_factory.hpp:77] Creating layer relu6
I0403 14:52:24.904724 11227 net.cpp:91] Creating Layer relu6
I0403 14:52:24.904743 11227 net.cpp:425] relu6 <- fc6
I0403 14:52:24.904763 11227 net.cpp:386] relu6 -> fc6 (in-place)
I0403 14:52:24.904966 11227 net.cpp:141] Setting up relu6
I0403 14:52:24.904995 11227 net.cpp:148] Top shape: 100 4096 (409600)
I0403 14:52:24.905010 11227 net.cpp:156] Memory required for data: 824972400
I0403 14:52:24.905025 11227 layer_factory.hpp:77] Creating layer drop6
I0403 14:52:24.905042 11227 net.cpp:91] Creating Layer drop6
I0403 14:52:24.905056 11227 net.cpp:425] drop6 <- fc6
I0403 14:52:24.905073 11227 net.cpp:386] drop6 -> fc6 (in-place)
I0403 14:52:24.905125 11227 net.cpp:141] Setting up drop6
I0403 14:52:24.905149 11227 net.cpp:148] Top shape: 100 4096 (409600)
I0403 14:52:24.905164 11227 net.cpp:156] Memory required for data: 826610800
I0403 14:52:24.905177 11227 layer_factory.hpp:77] Creating layer fc7
I0403 14:52:24.905203 11227 net.cpp:91] Creating Layer fc7
I0403 14:52:24.905220 11227 net.cpp:425] fc7 <- fc6
I0403 14:52:24.905237 11227 net.cpp:399] fc7 -> fc7
I0403 14:52:25.581987 11227 net.cpp:141] Setting up fc7
I0403 14:52:25.582054 11227 net.cpp:148] Top shape: 100 4096 (409600)
I0403 14:52:25.582070 11227 net.cpp:156] Memory required for data: 828249200
I0403 14:52:25.582093 11227 layer_factory.hpp:77] Creating layer relu7
I0403 14:52:25.582113 11227 net.cpp:91] Creating Layer relu7
I0403 14:52:25.582130 11227 net.cpp:425] relu7 <- fc7
I0403 14:52:25.582151 11227 net.cpp:386] relu7 -> fc7 (in-place)
I0403 14:52:25.582538 11227 net.cpp:141] Setting up relu7
I0403 14:52:25.582568 11227 net.cpp:148] Top shape: 100 4096 (409600)
I0403 14:52:25.582618 11227 net.cpp:156] Memory required for data: 829887600
I0403 14:52:25.582635 11227 layer_factory.hpp:77] Creating layer drop7
I0403 14:52:25.582654 11227 net.cpp:91] Creating Layer drop7
I0403 14:52:25.582669 11227 net.cpp:425] drop7 <- fc7
I0403 14:52:25.582689 11227 net.cpp:386] drop7 -> fc7 (in-place)
I0403 14:52:25.582731 11227 net.cpp:141] Setting up drop7
I0403 14:52:25.582756 11227 net.cpp:148] Top shape: 100 4096 (409600)
I0403 14:52:25.582769 11227 net.cpp:156] Memory required for data: 831526000
I0403 14:52:25.582784 11227 layer_factory.hpp:77] Creating layer fc8_plantvillage
I0403 14:52:25.582805 11227 net.cpp:91] Creating Layer fc8_plantvillage
I0403 14:52:25.582823 11227 net.cpp:425] fc8_plantvillage <- fc7
I0403 14:52:25.582844 11227 net.cpp:399] fc8_plantvillage -> fc8_plantvillage
I0403 14:52:25.589473 11227 net.cpp:141] Setting up fc8_plantvillage
I0403 14:52:25.589501 11227 net.cpp:148] Top shape: 100 38 (3800)
I0403 14:52:25.589516 11227 net.cpp:156] Memory required for data: 831541200
I0403 14:52:25.589534 11227 layer_factory.hpp:77] Creating layer fc8_plantvillage_fc8_plantvillage_0_split
I0403 14:52:25.589552 11227 net.cpp:91] Creating Layer fc8_plantvillage_fc8_plantvillage_0_split
I0403 14:52:25.589567 11227 net.cpp:425] fc8_plantvillage_fc8_plantvillage_0_split <- fc8_plantvillage
I0403 14:52:25.589586 11227 net.cpp:399] fc8_plantvillage_fc8_plantvillage_0_split -> fc8_plantvillage_fc8_plantvillage_0_split_0
I0403 14:52:25.589608 11227 net.cpp:399] fc8_plantvillage_fc8_plantvillage_0_split -> fc8_plantvillage_fc8_plantvillage_0_split_1
I0403 14:52:25.589627 11227 net.cpp:399] fc8_plantvillage_fc8_plantvillage_0_split -> fc8_plantvillage_fc8_plantvillage_0_split_2
I0403 14:52:25.589700 11227 net.cpp:141] Setting up fc8_plantvillage_fc8_plantvillage_0_split
I0403 14:52:25.589723 11227 net.cpp:148] Top shape: 100 38 (3800)
I0403 14:52:25.589738 11227 net.cpp:148] Top shape: 100 38 (3800)
I0403 14:52:25.589754 11227 net.cpp:148] Top shape: 100 38 (3800)
I0403 14:52:25.589768 11227 net.cpp:156] Memory required for data: 831586800
I0403 14:52:25.589781 11227 layer_factory.hpp:77] Creating layer prob
I0403 14:52:25.589800 11227 net.cpp:91] Creating Layer prob
I0403 14:52:25.589814 11227 net.cpp:425] prob <- fc8_plantvillage_fc8_plantvillage_0_split_0
I0403 14:52:25.589834 11227 net.cpp:399] prob -> prob
I0403 14:52:25.590049 11227 net.cpp:141] Setting up prob
I0403 14:52:25.590077 11227 net.cpp:148] Top shape: 100 38 (3800)
I0403 14:52:25.590093 11227 net.cpp:156] Memory required for data: 831602000
I0403 14:52:25.590108 11227 layer_factory.hpp:77] Creating layer hdf5out
I0403 14:52:25.590126 11227 net.cpp:91] Creating Layer hdf5out
I0403 14:52:25.590142 11227 net.cpp:425] hdf5out <- prob
I0403 14:52:25.590157 11227 net.cpp:425] hdf5out <- label_data_1_split_0
I0403 14:52:25.592540 11227 net.cpp:141] Setting up hdf5out
…
