…
I0403 14:54:14.716867 11268 net.cpp:313] The NetState phase (1) differed from the phase (0) specified by a rule in layer data
I0403 14:54:14.717185 11268 net.cpp:49] Initializing net from parameters: 
state {
  phase: TEST
}
layer {
  name: "data"
  type: "Data"
  top: "data"
  top: "label"
  include {
    phase: TEST
  }
  transform_param {
    crop_size: 227
    mean_file: "/home/mohanty/data/final_dataset/lmdb/grayscale-50-50/mean.binaryproto"
  }
  data_param {
    source: "/home/mohanty/data/final_dataset/lmdb/grayscale-50-50/test_db"
    batch_size: 100
    backend: LMDB
  }
}
layer {
  name: "conv1"
  type: "Convolution"
  bottom: "data"
  top: "conv1"
  param {
    lr_mult: 1
    decay_mult: 1
  }
  param {
    lr_mult: 2
    decay_mult: 0
  }
  convolution_param {
    num_output: 96
    kernel_size: 11
    stride: 4
    weight_filler {
      type: "gaussian"
      std: 0.01
    }
    bias_filler {
      type: "constant"
      value: 0
    }
  }
}
layer {
  name: "relu1"
  type: "ReLU"
  bottom: "conv1"
  top: "conv1"
}
layer {
  name: "norm1"
  type: "LRN"
  bottom: "conv1"
  top: "norm1"
  lrn_param {
    local_size: 5
    alpha: 0.0001
    beta: 0.75
  }
}
layer {
  name: "pool1"
  type: "Pooling"
  bottom: "norm1"
  top: "pool1"
  pooling_param {
    pool: MAX
    kernel_size: 3
    stride: 2
  }
}
layer {
  name: "conv2"
  type: "Convolution"
  bottom: "pool1"
  top: "conv2"
  param {
    lr_mult: 1
    decay_mult: 1
  }
  param {
    lr_mult: 2
    decay_mult: 0
  }
  convolution_param {
    num_output: 256
    pad: 2
    kernel_size: 5
    group: 2
    weight_filler {
      type: "gaussian"
      std: 0.01
    }
    bias_filler {
      type: "constant"
      value: 0.1
    }
  }
}
layer {
  name: "relu2"
  type: "ReLU"
  bottom: "conv2"
  top: "conv2"
}
layer {
  name: "norm2"
  type: "LRN"
  bottom: "conv2"
  top: "norm2"
  lrn_param {
    local_size: 5
    alpha: 0.0001
    beta: 0.75
  }
}
layer {
  name: "pool2"
  type: "Pooling"
  bottom: "norm2"
  top: "pool2"
  pooling_param {
    pool: MAX
    kernel_size: 3
    stride: 2
  }
}
layer {
  name: "conv3"
  type: "Convolution"
  bottom: "pool2"
  top: "conv3"
  param {
    lr_mult: 1
    decay_mult: 1
  }
  param {
    lr_mult: 2
    decay_mult: 0
  }
  convolution_param {
    num_output: 384
    pad: 1
    kernel_size: 3
    weight_filler {
      type: "gaussian"
      std: 0.01
    }
    bias_filler {
      type: "constant"
      value: 0
    }
  }
}
layer {
  name: "relu3"
  type: "ReLU"
  bottom: "conv3"
  top: "conv3"
}
layer {
  name: "conv4"
  type: "Convolution"
  bottom: "conv3"
  top: "conv4"
  param {
    lr_mult: 1
    decay_mult: 1
  }
  param {
    lr_mult: 2
    decay_mult: 0
  }
  convolution_param {
    num_output: 384
    pad: 1
    kernel_size: 3
    group: 2
    weight_filler {
      type: "gaussian"
      std: 0.01
    }
    bias_filler {
      type: "constant"
      value: 0.1
    }
  }
}
layer {
  name: "relu4"
  type: "ReLU"
  bottom: "conv4"
  top: "conv4"
}
layer {
  name: "conv5"
  type: "Convolution"
  bottom: "conv4"
  top: "conv5"
  param {
    lr_mult: 1
    decay_mult: 1
  }
  param {
    lr_mult: 2
    decay_mult: 0
  }
  convolution_param {
    num_output: 256
    pad: 1
    kernel_size: 3
    group: 2
    weight_filler {
      type: "gaussian"
      std: 0.01
    }
    bias_filler {
      type: "constant"
      value: 0.1
    }
  }
}
layer {
  name: "relu5"
  type: "ReLU"
  bottom: "conv5"
  top: "conv5"
}
layer {
  name: "pool5"
  type: "Pooling"
  bottom: "conv5"
  top: "pool5"
  pooling_param {
    pool: MAX
    kernel_size: 3
    stride: 2
  }
}
layer {
  name: "fc6"
  type: "InnerProduct"
  bottom: "pool5"
  top: "fc6"
  param {
    lr_mult: 1
    decay_mult: 1
  }
  param {
    lr_mult: 2
    decay_mult: 0
  }
  inner_product_param {
    num_output: 4096
    weight_filler {
      type: "gaussian"
      std: 0.005
    }
    bias_filler {
      type: "constant"
      value: 0.1
    }
  }
}
layer {
  name: "relu6"
  type: "ReLU"
  bottom: "fc6"
  top: "fc6"
}
layer {
  name: "drop6"
  type: "Dropout"
  bottom: "fc6"
  top: "fc6"
  dropout_param {
    dropout_ratio: 0.5
  }
}
layer {
  name: "fc7"
  type: "InnerProduct"
  bottom: "fc6"
  top: "fc7"
  param {
    lr_mult: 1
    decay_mult: 1
  }
  param {
    lr_mult: 2
    decay_mult: 0
  }
  inner_product_param {
    num_output: 4096
    weight_filler {
      type: "gaussian"
      std: 0.005
    }
    bias_filler {
      type: "constant"
      value: 0.1
    }
  }
}
layer {
  name: "relu7"
  type: "ReLU"
  bottom: "fc7"
  top: "fc7"
}
layer {
  name: "drop7"
  type: "Dropout"
  bottom: "fc7"
  top: "fc7"
  dropout_param {
    dropout_ratio: 0.5
  }
}
layer {
  name: "fc8_plantvillage"
  type: "InnerProduct"
  bottom: "fc7"
  top: "fc8_plantvillage"
  param {
    lr_mult: 1
    decay_mult: 1
  }
  param {
    lr_mult: 2
    decay_mult: 0
  }
  inner_product_param {
    num_output: 38
    weight_filler {
      type: "gaussian"
      std: 0.01
    }
    bias_filler {
      type: "constant"
      value: 0
    }
  }
}
layer {
  name: "prob"
  type: "Softmax"
  bottom: "fc8_plantvillage"
  top: "prob"
  include {
    phase: TEST
  }
}
layer {
  name: "hdf5out"
  type: "HDF5Output"
  bottom: "prob"
  bottom: "label"
  include {
    phase: TEST
  }
  hdf5_output_param {
    file_name: "hdf5_dumps/iter_5607.h5"
  }
}
layer {
  name: "loss"
  type: "SoftmaxWithLoss"
  bottom: "fc8_plantvillage"
  bottom: "label"
  top: "loss"
}
layer {
  name: "accuracy"
  type: "Accuracy"
  bottom: "fc8_plantvillage"
  bottom: "label"
  top: "accuracy"
  include {
    phase: TEST
  }
}
I0403 14:54:14.717813 11268 layer_factory.hpp:77] Creating layer data
I0403 14:54:14.718480 11268 net.cpp:91] Creating Layer data
I0403 14:54:14.718511 11268 net.cpp:399] data -> data
I0403 14:54:14.718560 11268 net.cpp:399] data -> label
I0403 14:54:14.718598 11268 data_transformer.cpp:25] Loading mean file from: /home/mohanty/data/final_dataset/lmdb/grayscale-50-50/mean.binaryproto
I0403 14:54:14.733599 11283 db_lmdb.cpp:38] Opened lmdb /home/mohanty/data/final_dataset/lmdb/grayscale-50-50/test_db
I0403 14:54:14.735671 11268 data_layer.cpp:41] output data size: 100,3,227,227
I0403 14:54:14.870918 11268 net.cpp:141] Setting up data
I0403 14:54:14.871007 11268 net.cpp:148] Top shape: 100 3 227 227 (15458700)
I0403 14:54:14.871031 11268 net.cpp:148] Top shape: 100 (100)
I0403 14:54:14.871047 11268 net.cpp:156] Memory required for data: 61835200
I0403 14:54:14.871075 11268 layer_factory.hpp:77] Creating layer label_data_1_split
I0403 14:54:14.871101 11268 net.cpp:91] Creating Layer label_data_1_split
I0403 14:54:14.871120 11268 net.cpp:425] label_data_1_split <- label
I0403 14:54:14.871151 11268 net.cpp:399] label_data_1_split -> label_data_1_split_0
I0403 14:54:14.871179 11268 net.cpp:399] label_data_1_split -> label_data_1_split_1
I0403 14:54:14.871206 11268 net.cpp:399] label_data_1_split -> label_data_1_split_2
I0403 14:54:14.871273 11268 net.cpp:141] Setting up label_data_1_split
I0403 14:54:14.871297 11268 net.cpp:148] Top shape: 100 (100)
I0403 14:54:14.871315 11268 net.cpp:148] Top shape: 100 (100)
I0403 14:54:14.871331 11268 net.cpp:148] Top shape: 100 (100)
I0403 14:54:14.871346 11268 net.cpp:156] Memory required for data: 61836400
I0403 14:54:14.871362 11268 layer_factory.hpp:77] Creating layer conv1
I0403 14:54:14.871393 11268 net.cpp:91] Creating Layer conv1
I0403 14:54:14.871413 11268 net.cpp:425] conv1 <- data
I0403 14:54:14.871433 11268 net.cpp:399] conv1 -> conv1
I0403 14:54:15.129343 11268 net.cpp:141] Setting up conv1
I0403 14:54:15.129431 11268 net.cpp:148] Top shape: 100 96 55 55 (29040000)
I0403 14:54:15.129451 11268 net.cpp:156] Memory required for data: 177996400
I0403 14:54:15.129482 11268 layer_factory.hpp:77] Creating layer relu1
I0403 14:54:15.129509 11268 net.cpp:91] Creating Layer relu1
I0403 14:54:15.129528 11268 net.cpp:425] relu1 <- conv1
I0403 14:54:15.129549 11268 net.cpp:386] relu1 -> conv1 (in-place)
I0403 14:54:15.129823 11268 net.cpp:141] Setting up relu1
I0403 14:54:15.129854 11268 net.cpp:148] Top shape: 100 96 55 55 (29040000)
I0403 14:54:15.129901 11268 net.cpp:156] Memory required for data: 294156400
I0403 14:54:15.129919 11268 layer_factory.hpp:77] Creating layer norm1
I0403 14:54:15.129947 11268 net.cpp:91] Creating Layer norm1
I0403 14:54:15.129967 11268 net.cpp:425] norm1 <- conv1
I0403 14:54:15.129986 11268 net.cpp:399] norm1 -> norm1
I0403 14:54:15.130328 11268 net.cpp:141] Setting up norm1
I0403 14:54:15.130358 11268 net.cpp:148] Top shape: 100 96 55 55 (29040000)
I0403 14:54:15.130374 11268 net.cpp:156] Memory required for data: 410316400
I0403 14:54:15.130390 11268 layer_factory.hpp:77] Creating layer pool1
I0403 14:54:15.130415 11268 net.cpp:91] Creating Layer pool1
I0403 14:54:15.130434 11268 net.cpp:425] pool1 <- norm1
I0403 14:54:15.130452 11268 net.cpp:399] pool1 -> pool1
I0403 14:54:15.130523 11268 net.cpp:141] Setting up pool1
I0403 14:54:15.130549 11268 net.cpp:148] Top shape: 100 96 27 27 (6998400)
I0403 14:54:15.130563 11268 net.cpp:156] Memory required for data: 438310000
I0403 14:54:15.130578 11268 layer_factory.hpp:77] Creating layer conv2
I0403 14:54:15.130604 11268 net.cpp:91] Creating Layer conv2
I0403 14:54:15.130621 11268 net.cpp:425] conv2 <- pool1
I0403 14:54:15.130642 11268 net.cpp:399] conv2 -> conv2
I0403 14:54:15.167282 11268 net.cpp:141] Setting up conv2
I0403 14:54:15.167346 11268 net.cpp:148] Top shape: 100 256 27 27 (18662400)
I0403 14:54:15.167364 11268 net.cpp:156] Memory required for data: 512959600
I0403 14:54:15.167388 11268 layer_factory.hpp:77] Creating layer relu2
I0403 14:54:15.167409 11268 net.cpp:91] Creating Layer relu2
I0403 14:54:15.167426 11268 net.cpp:425] relu2 <- conv2
I0403 14:54:15.167451 11268 net.cpp:386] relu2 -> conv2 (in-place)
I0403 14:54:15.167742 11268 net.cpp:141] Setting up relu2
I0403 14:54:15.167771 11268 net.cpp:148] Top shape: 100 256 27 27 (18662400)
I0403 14:54:15.167788 11268 net.cpp:156] Memory required for data: 587609200
I0403 14:54:15.167803 11268 layer_factory.hpp:77] Creating layer norm2
I0403 14:54:15.167827 11268 net.cpp:91] Creating Layer norm2
I0403 14:54:15.167845 11268 net.cpp:425] norm2 <- conv2
I0403 14:54:15.167866 11268 net.cpp:399] norm2 -> norm2
I0403 14:54:15.168077 11268 net.cpp:141] Setting up norm2
I0403 14:54:15.168104 11268 net.cpp:148] Top shape: 100 256 27 27 (18662400)
I0403 14:54:15.168122 11268 net.cpp:156] Memory required for data: 662258800
I0403 14:54:15.168138 11268 layer_factory.hpp:77] Creating layer pool2
I0403 14:54:15.168156 11268 net.cpp:91] Creating Layer pool2
I0403 14:54:15.168172 11268 net.cpp:425] pool2 <- norm2
I0403 14:54:15.168198 11268 net.cpp:399] pool2 -> pool2
I0403 14:54:15.168256 11268 net.cpp:141] Setting up pool2
I0403 14:54:15.168282 11268 net.cpp:148] Top shape: 100 256 13 13 (4326400)
I0403 14:54:15.168298 11268 net.cpp:156] Memory required for data: 679564400
I0403 14:54:15.168313 11268 layer_factory.hpp:77] Creating layer conv3
I0403 14:54:15.168339 11268 net.cpp:91] Creating Layer conv3
I0403 14:54:15.168359 11268 net.cpp:425] conv3 <- pool2
I0403 14:54:15.168378 11268 net.cpp:399] conv3 -> conv3
I0403 14:54:15.249668 11268 net.cpp:141] Setting up conv3
I0403 14:54:15.249744 11268 net.cpp:148] Top shape: 100 384 13 13 (6489600)
I0403 14:54:15.249763 11268 net.cpp:156] Memory required for data: 705522800
I0403 14:54:15.249788 11268 layer_factory.hpp:77] Creating layer relu3
I0403 14:54:15.249811 11268 net.cpp:91] Creating Layer relu3
I0403 14:54:15.249828 11268 net.cpp:425] relu3 <- conv3
I0403 14:54:15.249848 11268 net.cpp:386] relu3 -> conv3 (in-place)
I0403 14:54:15.250134 11268 net.cpp:141] Setting up relu3
I0403 14:54:15.250162 11268 net.cpp:148] Top shape: 100 384 13 13 (6489600)
I0403 14:54:15.250182 11268 net.cpp:156] Memory required for data: 731481200
I0403 14:54:15.250205 11268 layer_factory.hpp:77] Creating layer conv4
I0403 14:54:15.250231 11268 net.cpp:91] Creating Layer conv4
I0403 14:54:15.250248 11268 net.cpp:425] conv4 <- conv3
I0403 14:54:15.250268 11268 net.cpp:399] conv4 -> conv4
I0403 14:54:15.308368 11268 net.cpp:141] Setting up conv4
I0403 14:54:15.308416 11268 net.cpp:148] Top shape: 100 384 13 13 (6489600)
I0403 14:54:15.308465 11268 net.cpp:156] Memory required for data: 757439600
I0403 14:54:15.308485 11268 layer_factory.hpp:77] Creating layer relu4
I0403 14:54:15.308508 11268 net.cpp:91] Creating Layer relu4
I0403 14:54:15.308526 11268 net.cpp:425] relu4 <- conv4
I0403 14:54:15.308549 11268 net.cpp:386] relu4 -> conv4 (in-place)
I0403 14:54:15.308828 11268 net.cpp:141] Setting up relu4
I0403 14:54:15.308858 11268 net.cpp:148] Top shape: 100 384 13 13 (6489600)
I0403 14:54:15.308874 11268 net.cpp:156] Memory required for data: 783398000
I0403 14:54:15.308890 11268 layer_factory.hpp:77] Creating layer conv5
I0403 14:54:15.308915 11268 net.cpp:91] Creating Layer conv5
I0403 14:54:15.308933 11268 net.cpp:425] conv5 <- conv4
I0403 14:54:15.308950 11268 net.cpp:399] conv5 -> conv5
I0403 14:54:15.348866 11268 net.cpp:141] Setting up conv5
I0403 14:54:15.348927 11268 net.cpp:148] Top shape: 100 256 13 13 (4326400)
I0403 14:54:15.348945 11268 net.cpp:156] Memory required for data: 800703600
I0403 14:54:15.348971 11268 layer_factory.hpp:77] Creating layer relu5
I0403 14:54:15.348991 11268 net.cpp:91] Creating Layer relu5
I0403 14:54:15.349009 11268 net.cpp:425] relu5 <- conv5
I0403 14:54:15.349030 11268 net.cpp:386] relu5 -> conv5 (in-place)
I0403 14:54:15.349315 11268 net.cpp:141] Setting up relu5
I0403 14:54:15.349344 11268 net.cpp:148] Top shape: 100 256 13 13 (4326400)
I0403 14:54:15.349360 11268 net.cpp:156] Memory required for data: 818009200
I0403 14:54:15.349376 11268 layer_factory.hpp:77] Creating layer pool5
I0403 14:54:15.349402 11268 net.cpp:91] Creating Layer pool5
I0403 14:54:15.349421 11268 net.cpp:425] pool5 <- conv5
I0403 14:54:15.349438 11268 net.cpp:399] pool5 -> pool5
I0403 14:54:15.349499 11268 net.cpp:141] Setting up pool5
I0403 14:54:15.349524 11268 net.cpp:148] Top shape: 100 256 6 6 (921600)
I0403 14:54:15.349539 11268 net.cpp:156] Memory required for data: 821695600
I0403 14:54:15.349553 11268 layer_factory.hpp:77] Creating layer fc6
I0403 14:54:15.349581 11268 net.cpp:91] Creating Layer fc6
I0403 14:54:15.349599 11268 net.cpp:425] fc6 <- pool5
I0403 14:54:15.349620 11268 net.cpp:399] fc6 -> fc6
I0403 14:54:17.318150 11268 net.cpp:141] Setting up fc6
I0403 14:54:17.318212 11268 net.cpp:148] Top shape: 100 4096 (409600)
I0403 14:54:17.318231 11268 net.cpp:156] Memory required for data: 823334000
I0403 14:54:17.318254 11268 layer_factory.hpp:77] Creating layer relu6
I0403 14:54:17.318280 11268 net.cpp:91] Creating Layer relu6
I0403 14:54:17.318300 11268 net.cpp:425] relu6 <- fc6
I0403 14:54:17.318321 11268 net.cpp:386] relu6 -> fc6 (in-place)
I0403 14:54:17.318549 11268 net.cpp:141] Setting up relu6
I0403 14:54:17.318578 11268 net.cpp:148] Top shape: 100 4096 (409600)
I0403 14:54:17.318593 11268 net.cpp:156] Memory required for data: 824972400
I0403 14:54:17.318608 11268 layer_factory.hpp:77] Creating layer drop6
I0403 14:54:17.318627 11268 net.cpp:91] Creating Layer drop6
I0403 14:54:17.318645 11268 net.cpp:425] drop6 <- fc6
I0403 14:54:17.318667 11268 net.cpp:386] drop6 -> fc6 (in-place)
I0403 14:54:17.318723 11268 net.cpp:141] Setting up drop6
I0403 14:54:17.318752 11268 net.cpp:148] Top shape: 100 4096 (409600)
I0403 14:54:17.318768 11268 net.cpp:156] Memory required for data: 826610800
I0403 14:54:17.318784 11268 layer_factory.hpp:77] Creating layer fc7
I0403 14:54:17.318804 11268 net.cpp:91] Creating Layer fc7
I0403 14:54:17.318821 11268 net.cpp:425] fc7 <- fc6
I0403 14:54:17.318841 11268 net.cpp:399] fc7 -> fc7
I0403 14:54:18.030454 11268 net.cpp:141] Setting up fc7
I0403 14:54:18.030531 11268 net.cpp:148] Top shape: 100 4096 (409600)
I0403 14:54:18.030550 11268 net.cpp:156] Memory required for data: 828249200
I0403 14:54:18.030570 11268 layer_factory.hpp:77] Creating layer relu7
I0403 14:54:18.030593 11268 net.cpp:91] Creating Layer relu7
I0403 14:54:18.030612 11268 net.cpp:425] relu7 <- fc7
I0403 14:54:18.030635 11268 net.cpp:386] relu7 -> fc7 (in-place)
I0403 14:54:18.031043 11268 net.cpp:141] Setting up relu7
I0403 14:54:18.031074 11268 net.cpp:148] Top shape: 100 4096 (409600)
I0403 14:54:18.031124 11268 net.cpp:156] Memory required for data: 829887600
I0403 14:54:18.031142 11268 layer_factory.hpp:77] Creating layer drop7
I0403 14:54:18.031162 11268 net.cpp:91] Creating Layer drop7
I0403 14:54:18.031193 11268 net.cpp:425] drop7 <- fc7
I0403 14:54:18.031215 11268 net.cpp:386] drop7 -> fc7 (in-place)
I0403 14:54:18.031263 11268 net.cpp:141] Setting up drop7
I0403 14:54:18.031288 11268 net.cpp:148] Top shape: 100 4096 (409600)
I0403 14:54:18.031304 11268 net.cpp:156] Memory required for data: 831526000
I0403 14:54:18.031318 11268 layer_factory.hpp:77] Creating layer fc8_plantvillage
I0403 14:54:18.031342 11268 net.cpp:91] Creating Layer fc8_plantvillage
I0403 14:54:18.031359 11268 net.cpp:425] fc8_plantvillage <- fc7
I0403 14:54:18.031381 11268 net.cpp:399] fc8_plantvillage -> fc8_plantvillage
I0403 14:54:18.038539 11268 net.cpp:141] Setting up fc8_plantvillage
I0403 14:54:18.038570 11268 net.cpp:148] Top shape: 100 38 (3800)
I0403 14:54:18.038588 11268 net.cpp:156] Memory required for data: 831541200
I0403 14:54:18.038606 11268 layer_factory.hpp:77] Creating layer fc8_plantvillage_fc8_plantvillage_0_split
I0403 14:54:18.038625 11268 net.cpp:91] Creating Layer fc8_plantvillage_fc8_plantvillage_0_split
I0403 14:54:18.038642 11268 net.cpp:425] fc8_plantvillage_fc8_plantvillage_0_split <- fc8_plantvillage
I0403 14:54:18.038663 11268 net.cpp:399] fc8_plantvillage_fc8_plantvillage_0_split -> fc8_plantvillage_fc8_plantvillage_0_split_0
I0403 14:54:18.038686 11268 net.cpp:399] fc8_plantvillage_fc8_plantvillage_0_split -> fc8_plantvillage_fc8_plantvillage_0_split_1
I0403 14:54:18.038707 11268 net.cpp:399] fc8_plantvillage_fc8_plantvillage_0_split -> fc8_plantvillage_fc8_plantvillage_0_split_2
I0403 14:54:18.038789 11268 net.cpp:141] Setting up fc8_plantvillage_fc8_plantvillage_0_split
I0403 14:54:18.038815 11268 net.cpp:148] Top shape: 100 38 (3800)
I0403 14:54:18.038832 11268 net.cpp:148] Top shape: 100 38 (3800)
I0403 14:54:18.038848 11268 net.cpp:148] Top shape: 100 38 (3800)
I0403 14:54:18.038863 11268 net.cpp:156] Memory required for data: 831586800
I0403 14:54:18.038879 11268 layer_factory.hpp:77] Creating layer prob
I0403 14:54:18.038897 11268 net.cpp:91] Creating Layer prob
I0403 14:54:18.038914 11268 net.cpp:425] prob <- fc8_plantvillage_fc8_plantvillage_0_split_0
I0403 14:54:18.038936 11268 net.cpp:399] prob -> prob
I0403 14:54:18.039175 11268 net.cpp:141] Setting up prob
I0403 14:54:18.039212 11268 net.cpp:148] Top shape: 100 38 (3800)
I0403 14:54:18.039230 11268 net.cpp:156] Memory required for data: 831602000
I0403 14:54:18.039247 11268 layer_factory.hpp:77] Creating layer hdf5out
I0403 14:54:18.039266 11268 net.cpp:91] Creating Layer hdf5out
I0403 14:54:18.039283 11268 net.cpp:425] hdf5out <- prob
I0403 14:54:18.039300 11268 net.cpp:425] hdf5out <- label_data_1_split_0
I0403 14:54:18.042037 11268 net.cpp:141] Setting up hdf5out
…
