…
I0403 14:58:02.540666 11357 net.cpp:313] The NetState phase (1) differed from the phase (0) specified by a rule in layer data
I0403 14:58:02.540959 11357 net.cpp:49] Initializing net from parameters: 
state {
  phase: TEST
}
layer {
  name: "data"
  type: "Data"
  top: "data"
  top: "label"
  include {
    phase: TEST
  }
  transform_param {
    crop_size: 227
    mean_file: "/home/mohanty/data/final_dataset/lmdb/grayscale-50-50/mean.binaryproto"
  }
  data_param {
    source: "/home/mohanty/data/final_dataset/lmdb/grayscale-50-50/test_db"
    batch_size: 100
    backend: LMDB
  }
}
layer {
  name: "conv1"
  type: "Convolution"
  bottom: "data"
  top: "conv1"
  param {
    lr_mult: 1
    decay_mult: 1
  }
  param {
    lr_mult: 2
    decay_mult: 0
  }
  convolution_param {
    num_output: 96
    kernel_size: 11
    stride: 4
    weight_filler {
      type: "gaussian"
      std: 0.01
    }
    bias_filler {
      type: "constant"
      value: 0
    }
  }
}
layer {
  name: "relu1"
  type: "ReLU"
  bottom: "conv1"
  top: "conv1"
}
layer {
  name: "norm1"
  type: "LRN"
  bottom: "conv1"
  top: "norm1"
  lrn_param {
    local_size: 5
    alpha: 0.0001
    beta: 0.75
  }
}
layer {
  name: "pool1"
  type: "Pooling"
  bottom: "norm1"
  top: "pool1"
  pooling_param {
    pool: MAX
    kernel_size: 3
    stride: 2
  }
}
layer {
  name: "conv2"
  type: "Convolution"
  bottom: "pool1"
  top: "conv2"
  param {
    lr_mult: 1
    decay_mult: 1
  }
  param {
    lr_mult: 2
    decay_mult: 0
  }
  convolution_param {
    num_output: 256
    pad: 2
    kernel_size: 5
    group: 2
    weight_filler {
      type: "gaussian"
      std: 0.01
    }
    bias_filler {
      type: "constant"
      value: 0.1
    }
  }
}
layer {
  name: "relu2"
  type: "ReLU"
  bottom: "conv2"
  top: "conv2"
}
layer {
  name: "norm2"
  type: "LRN"
  bottom: "conv2"
  top: "norm2"
  lrn_param {
    local_size: 5
    alpha: 0.0001
    beta: 0.75
  }
}
layer {
  name: "pool2"
  type: "Pooling"
  bottom: "norm2"
  top: "pool2"
  pooling_param {
    pool: MAX
    kernel_size: 3
    stride: 2
  }
}
layer {
  name: "conv3"
  type: "Convolution"
  bottom: "pool2"
  top: "conv3"
  param {
    lr_mult: 1
    decay_mult: 1
  }
  param {
    lr_mult: 2
    decay_mult: 0
  }
  convolution_param {
    num_output: 384
    pad: 1
    kernel_size: 3
    weight_filler {
      type: "gaussian"
      std: 0.01
    }
    bias_filler {
      type: "constant"
      value: 0
    }
  }
}
layer {
  name: "relu3"
  type: "ReLU"
  bottom: "conv3"
  top: "conv3"
}
layer {
  name: "conv4"
  type: "Convolution"
  bottom: "conv3"
  top: "conv4"
  param {
    lr_mult: 1
    decay_mult: 1
  }
  param {
    lr_mult: 2
    decay_mult: 0
  }
  convolution_param {
    num_output: 384
    pad: 1
    kernel_size: 3
    group: 2
    weight_filler {
      type: "gaussian"
      std: 0.01
    }
    bias_filler {
      type: "constant"
      value: 0.1
    }
  }
}
layer {
  name: "relu4"
  type: "ReLU"
  bottom: "conv4"
  top: "conv4"
}
layer {
  name: "conv5"
  type: "Convolution"
  bottom: "conv4"
  top: "conv5"
  param {
    lr_mult: 1
    decay_mult: 1
  }
  param {
    lr_mult: 2
    decay_mult: 0
  }
  convolution_param {
    num_output: 256
    pad: 1
    kernel_size: 3
    group: 2
    weight_filler {
      type: "gaussian"
      std: 0.01
    }
    bias_filler {
      type: "constant"
      value: 0.1
    }
  }
}
layer {
  name: "relu5"
  type: "ReLU"
  bottom: "conv5"
  top: "conv5"
}
layer {
  name: "pool5"
  type: "Pooling"
  bottom: "conv5"
  top: "pool5"
  pooling_param {
    pool: MAX
    kernel_size: 3
    stride: 2
  }
}
layer {
  name: "fc6"
  type: "InnerProduct"
  bottom: "pool5"
  top: "fc6"
  param {
    lr_mult: 1
    decay_mult: 1
  }
  param {
    lr_mult: 2
    decay_mult: 0
  }
  inner_product_param {
    num_output: 4096
    weight_filler {
      type: "gaussian"
      std: 0.005
    }
    bias_filler {
      type: "constant"
      value: 0.1
    }
  }
}
layer {
  name: "relu6"
  type: "ReLU"
  bottom: "fc6"
  top: "fc6"
}
layer {
  name: "drop6"
  type: "Dropout"
  bottom: "fc6"
  top: "fc6"
  dropout_param {
    dropout_ratio: 0.5
  }
}
layer {
  name: "fc7"
  type: "InnerProduct"
  bottom: "fc6"
  top: "fc7"
  param {
    lr_mult: 1
    decay_mult: 1
  }
  param {
    lr_mult: 2
    decay_mult: 0
  }
  inner_product_param {
    num_output: 4096
    weight_filler {
      type: "gaussian"
      std: 0.005
    }
    bias_filler {
      type: "constant"
      value: 0.1
    }
  }
}
layer {
  name: "relu7"
  type: "ReLU"
  bottom: "fc7"
  top: "fc7"
}
layer {
  name: "drop7"
  type: "Dropout"
  bottom: "fc7"
  top: "fc7"
  dropout_param {
    dropout_ratio: 0.5
  }
}
layer {
  name: "fc8_plantvillage"
  type: "InnerProduct"
  bottom: "fc7"
  top: "fc8_plantvillage"
  param {
    lr_mult: 1
    decay_mult: 1
  }
  param {
    lr_mult: 2
    decay_mult: 0
  }
  inner_product_param {
    num_output: 38
    weight_filler {
      type: "gaussian"
      std: 0.01
    }
    bias_filler {
      type: "constant"
      value: 0
    }
  }
}
layer {
  name: "prob"
  type: "Softmax"
  bottom: "fc8_plantvillage"
  top: "prob"
  include {
    phase: TEST
  }
}
layer {
  name: "hdf5out"
  type: "HDF5Output"
  bottom: "prob"
  bottom: "label"
  include {
    phase: TEST
  }
  hdf5_output_param {
    file_name: "hdf5_dumps/iter_6675.h5"
  }
}
layer {
  name: "loss"
  type: "SoftmaxWithLoss"
  bottom: "fc8_plantvillage"
  bottom: "label"
  top: "loss"
}
layer {
  name: "accuracy"
  type: "Accuracy"
  bottom: "fc8_plantvillage"
  bottom: "label"
  top: "accuracy"
  include {
    phase: TEST
  }
}
I0403 14:58:02.541476 11357 layer_factory.hpp:77] Creating layer data
I0403 14:58:02.542111 11357 net.cpp:91] Creating Layer data
I0403 14:58:02.542145 11357 net.cpp:399] data -> data
I0403 14:58:02.542196 11357 net.cpp:399] data -> label
I0403 14:58:02.542233 11357 data_transformer.cpp:25] Loading mean file from: /home/mohanty/data/final_dataset/lmdb/grayscale-50-50/mean.binaryproto
I0403 14:58:02.546958 11361 db_lmdb.cpp:38] Opened lmdb /home/mohanty/data/final_dataset/lmdb/grayscale-50-50/test_db
I0403 14:58:02.556959 11357 data_layer.cpp:41] output data size: 100,3,227,227
I0403 14:58:04.684553 11357 net.cpp:141] Setting up data
I0403 14:58:04.684710 11357 net.cpp:148] Top shape: 100 3 227 227 (15458700)
I0403 14:58:04.684739 11357 net.cpp:148] Top shape: 100 (100)
I0403 14:58:04.684757 11357 net.cpp:156] Memory required for data: 61835200
I0403 14:58:04.684792 11357 layer_factory.hpp:77] Creating layer label_data_1_split
I0403 14:58:04.684823 11357 net.cpp:91] Creating Layer label_data_1_split
I0403 14:58:04.684844 11357 net.cpp:425] label_data_1_split <- label
I0403 14:58:04.684881 11357 net.cpp:399] label_data_1_split -> label_data_1_split_0
I0403 14:58:04.684922 11357 net.cpp:399] label_data_1_split -> label_data_1_split_1
I0403 14:58:04.684950 11357 net.cpp:399] label_data_1_split -> label_data_1_split_2
I0403 14:58:04.685045 11357 net.cpp:141] Setting up label_data_1_split
I0403 14:58:04.685077 11357 net.cpp:148] Top shape: 100 (100)
I0403 14:58:04.685108 11357 net.cpp:148] Top shape: 100 (100)
I0403 14:58:04.685135 11357 net.cpp:148] Top shape: 100 (100)
I0403 14:58:04.685158 11357 net.cpp:156] Memory required for data: 61836400
I0403 14:58:04.685174 11357 layer_factory.hpp:77] Creating layer conv1
I0403 14:58:04.685220 11357 net.cpp:91] Creating Layer conv1
I0403 14:58:04.685245 11357 net.cpp:425] conv1 <- data
I0403 14:58:04.685273 11357 net.cpp:399] conv1 -> conv1
I0403 14:58:04.894748 11357 net.cpp:141] Setting up conv1
I0403 14:58:04.894850 11357 net.cpp:148] Top shape: 100 96 55 55 (29040000)
I0403 14:58:04.894870 11357 net.cpp:156] Memory required for data: 177996400
I0403 14:58:04.894908 11357 layer_factory.hpp:77] Creating layer relu1
I0403 14:58:04.894942 11357 net.cpp:91] Creating Layer relu1
I0403 14:58:04.894964 11357 net.cpp:425] relu1 <- conv1
I0403 14:58:04.894986 11357 net.cpp:386] relu1 -> conv1 (in-place)
I0403 14:58:04.895285 11357 net.cpp:141] Setting up relu1
I0403 14:58:04.895319 11357 net.cpp:148] Top shape: 100 96 55 55 (29040000)
I0403 14:58:04.895377 11357 net.cpp:156] Memory required for data: 294156400
I0403 14:58:04.895397 11357 layer_factory.hpp:77] Creating layer norm1
I0403 14:58:04.895431 11357 net.cpp:91] Creating Layer norm1
I0403 14:58:04.895453 11357 net.cpp:425] norm1 <- conv1
I0403 14:58:04.895476 11357 net.cpp:399] norm1 -> norm1
I0403 14:58:04.895834 11357 net.cpp:141] Setting up norm1
I0403 14:58:04.895869 11357 net.cpp:148] Top shape: 100 96 55 55 (29040000)
I0403 14:58:04.895889 11357 net.cpp:156] Memory required for data: 410316400
I0403 14:58:04.895946 11357 layer_factory.hpp:77] Creating layer pool1
I0403 14:58:04.895980 11357 net.cpp:91] Creating Layer pool1
I0403 14:58:04.896003 11357 net.cpp:425] pool1 <- norm1
I0403 14:58:04.896025 11357 net.cpp:399] pool1 -> pool1
I0403 14:58:04.896105 11357 net.cpp:141] Setting up pool1
I0403 14:58:04.896134 11357 net.cpp:148] Top shape: 100 96 27 27 (6998400)
I0403 14:58:04.896153 11357 net.cpp:156] Memory required for data: 438310000
I0403 14:58:04.896170 11357 layer_factory.hpp:77] Creating layer conv2
I0403 14:58:04.896205 11357 net.cpp:91] Creating Layer conv2
I0403 14:58:04.896229 11357 net.cpp:425] conv2 <- pool1
I0403 14:58:04.896250 11357 net.cpp:399] conv2 -> conv2
I0403 14:58:04.914397 11357 net.cpp:141] Setting up conv2
I0403 14:58:04.914458 11357 net.cpp:148] Top shape: 100 256 27 27 (18662400)
I0403 14:58:04.914479 11357 net.cpp:156] Memory required for data: 512959600
I0403 14:58:04.914507 11357 layer_factory.hpp:77] Creating layer relu2
I0403 14:58:04.914532 11357 net.cpp:91] Creating Layer relu2
I0403 14:58:04.914552 11357 net.cpp:425] relu2 <- conv2
I0403 14:58:04.914577 11357 net.cpp:386] relu2 -> conv2 (in-place)
I0403 14:58:04.914911 11357 net.cpp:141] Setting up relu2
I0403 14:58:04.914944 11357 net.cpp:148] Top shape: 100 256 27 27 (18662400)
I0403 14:58:04.914963 11357 net.cpp:156] Memory required for data: 587609200
I0403 14:58:04.914981 11357 layer_factory.hpp:77] Creating layer norm2
I0403 14:58:04.915010 11357 net.cpp:91] Creating Layer norm2
I0403 14:58:04.915032 11357 net.cpp:425] norm2 <- conv2
I0403 14:58:04.915055 11357 net.cpp:399] norm2 -> norm2
I0403 14:58:04.915302 11357 net.cpp:141] Setting up norm2
I0403 14:58:04.915335 11357 net.cpp:148] Top shape: 100 256 27 27 (18662400)
I0403 14:58:04.915355 11357 net.cpp:156] Memory required for data: 662258800
I0403 14:58:04.915374 11357 layer_factory.hpp:77] Creating layer pool2
I0403 14:58:04.915396 11357 net.cpp:91] Creating Layer pool2
I0403 14:58:04.915416 11357 net.cpp:425] pool2 <- norm2
I0403 14:58:04.915438 11357 net.cpp:399] pool2 -> pool2
I0403 14:58:04.915503 11357 net.cpp:141] Setting up pool2
I0403 14:58:04.915531 11357 net.cpp:148] Top shape: 100 256 13 13 (4326400)
I0403 14:58:04.915551 11357 net.cpp:156] Memory required for data: 679564400
I0403 14:58:04.915570 11357 layer_factory.hpp:77] Creating layer conv3
I0403 14:58:04.915601 11357 net.cpp:91] Creating Layer conv3
I0403 14:58:04.915622 11357 net.cpp:425] conv3 <- pool2
I0403 14:58:04.915645 11357 net.cpp:399] conv3 -> conv3
I0403 14:58:04.961977 11357 net.cpp:141] Setting up conv3
I0403 14:58:04.962049 11357 net.cpp:148] Top shape: 100 384 13 13 (6489600)
I0403 14:58:04.962069 11357 net.cpp:156] Memory required for data: 705522800
I0403 14:58:04.962101 11357 layer_factory.hpp:77] Creating layer relu3
I0403 14:58:04.962129 11357 net.cpp:91] Creating Layer relu3
I0403 14:58:04.962152 11357 net.cpp:425] relu3 <- conv3
I0403 14:58:04.962177 11357 net.cpp:386] relu3 -> conv3 (in-place)
I0403 14:58:04.962538 11357 net.cpp:141] Setting up relu3
I0403 14:58:04.962571 11357 net.cpp:148] Top shape: 100 384 13 13 (6489600)
I0403 14:58:04.962590 11357 net.cpp:156] Memory required for data: 731481200
I0403 14:58:04.962609 11357 layer_factory.hpp:77] Creating layer conv4
I0403 14:58:04.962641 11357 net.cpp:91] Creating Layer conv4
I0403 14:58:04.962664 11357 net.cpp:425] conv4 <- conv3
I0403 14:58:04.962689 11357 net.cpp:399] conv4 -> conv4
I0403 14:58:04.998941 11357 net.cpp:141] Setting up conv4
I0403 14:58:04.999022 11357 net.cpp:148] Top shape: 100 384 13 13 (6489600)
I0403 14:58:04.999074 11357 net.cpp:156] Memory required for data: 757439600
I0403 14:58:04.999101 11357 layer_factory.hpp:77] Creating layer relu4
I0403 14:58:04.999130 11357 net.cpp:91] Creating Layer relu4
I0403 14:58:04.999152 11357 net.cpp:425] relu4 <- conv4
I0403 14:58:04.999178 11357 net.cpp:386] relu4 -> conv4 (in-place)
I0403 14:58:04.999511 11357 net.cpp:141] Setting up relu4
I0403 14:58:04.999550 11357 net.cpp:148] Top shape: 100 384 13 13 (6489600)
I0403 14:58:04.999573 11357 net.cpp:156] Memory required for data: 783398000
I0403 14:58:04.999591 11357 layer_factory.hpp:77] Creating layer conv5
I0403 14:58:04.999621 11357 net.cpp:91] Creating Layer conv5
I0403 14:58:04.999642 11357 net.cpp:425] conv5 <- conv4
I0403 14:58:04.999665 11357 net.cpp:399] conv5 -> conv5
I0403 14:58:05.024708 11357 net.cpp:141] Setting up conv5
I0403 14:58:05.024809 11357 net.cpp:148] Top shape: 100 256 13 13 (4326400)
I0403 14:58:05.024829 11357 net.cpp:156] Memory required for data: 800703600
I0403 14:58:05.024862 11357 layer_factory.hpp:77] Creating layer relu5
I0403 14:58:05.024889 11357 net.cpp:91] Creating Layer relu5
I0403 14:58:05.024910 11357 net.cpp:425] relu5 <- conv5
I0403 14:58:05.024937 11357 net.cpp:386] relu5 -> conv5 (in-place)
I0403 14:58:05.025267 11357 net.cpp:141] Setting up relu5
I0403 14:58:05.025301 11357 net.cpp:148] Top shape: 100 256 13 13 (4326400)
I0403 14:58:05.025321 11357 net.cpp:156] Memory required for data: 818009200
I0403 14:58:05.025338 11357 layer_factory.hpp:77] Creating layer pool5
I0403 14:58:05.025369 11357 net.cpp:91] Creating Layer pool5
I0403 14:58:05.025391 11357 net.cpp:425] pool5 <- conv5
I0403 14:58:05.025414 11357 net.cpp:399] pool5 -> pool5
I0403 14:58:05.025488 11357 net.cpp:141] Setting up pool5
I0403 14:58:05.025518 11357 net.cpp:148] Top shape: 100 256 6 6 (921600)
I0403 14:58:05.025537 11357 net.cpp:156] Memory required for data: 821695600
I0403 14:58:05.025555 11357 layer_factory.hpp:77] Creating layer fc6
I0403 14:58:05.025589 11357 net.cpp:91] Creating Layer fc6
I0403 14:58:05.025610 11357 net.cpp:425] fc6 <- pool5
I0403 14:58:05.025635 11357 net.cpp:399] fc6 -> fc6
I0403 14:58:06.734657 11357 net.cpp:141] Setting up fc6
I0403 14:58:06.734736 11357 net.cpp:148] Top shape: 100 4096 (409600)
I0403 14:58:06.734752 11357 net.cpp:156] Memory required for data: 823334000
I0403 14:58:06.734772 11357 layer_factory.hpp:77] Creating layer relu6
I0403 14:58:06.734796 11357 net.cpp:91] Creating Layer relu6
I0403 14:58:06.734814 11357 net.cpp:425] relu6 <- fc6
I0403 14:58:06.734834 11357 net.cpp:386] relu6 -> fc6 (in-place)
I0403 14:58:06.735041 11357 net.cpp:141] Setting up relu6
I0403 14:58:06.735065 11357 net.cpp:148] Top shape: 100 4096 (409600)
I0403 14:58:06.735080 11357 net.cpp:156] Memory required for data: 824972400
I0403 14:58:06.735095 11357 layer_factory.hpp:77] Creating layer drop6
I0403 14:58:06.735113 11357 net.cpp:91] Creating Layer drop6
I0403 14:58:06.735128 11357 net.cpp:425] drop6 <- fc6
I0403 14:58:06.735149 11357 net.cpp:386] drop6 -> fc6 (in-place)
I0403 14:58:06.735205 11357 net.cpp:141] Setting up drop6
I0403 14:58:06.735232 11357 net.cpp:148] Top shape: 100 4096 (409600)
I0403 14:58:06.735246 11357 net.cpp:156] Memory required for data: 826610800
I0403 14:58:06.735261 11357 layer_factory.hpp:77] Creating layer fc7
I0403 14:58:06.735281 11357 net.cpp:91] Creating Layer fc7
I0403 14:58:06.735296 11357 net.cpp:425] fc7 <- fc6
I0403 14:58:06.735316 11357 net.cpp:399] fc7 -> fc7
I0403 14:58:07.433343 11357 net.cpp:141] Setting up fc7
I0403 14:58:07.433418 11357 net.cpp:148] Top shape: 100 4096 (409600)
I0403 14:58:07.433434 11357 net.cpp:156] Memory required for data: 828249200
I0403 14:58:07.433455 11357 layer_factory.hpp:77] Creating layer relu7
I0403 14:58:07.433480 11357 net.cpp:91] Creating Layer relu7
I0403 14:58:07.433497 11357 net.cpp:425] relu7 <- fc7
I0403 14:58:07.433518 11357 net.cpp:386] relu7 -> fc7 (in-place)
I0403 14:58:07.433895 11357 net.cpp:141] Setting up relu7
I0403 14:58:07.433923 11357 net.cpp:148] Top shape: 100 4096 (409600)
I0403 14:58:07.433966 11357 net.cpp:156] Memory required for data: 829887600
I0403 14:58:07.433984 11357 layer_factory.hpp:77] Creating layer drop7
I0403 14:58:07.434001 11357 net.cpp:91] Creating Layer drop7
I0403 14:58:07.434016 11357 net.cpp:425] drop7 <- fc7
I0403 14:58:07.434036 11357 net.cpp:386] drop7 -> fc7 (in-place)
I0403 14:58:07.434077 11357 net.cpp:141] Setting up drop7
I0403 14:58:07.434099 11357 net.cpp:148] Top shape: 100 4096 (409600)
I0403 14:58:07.434113 11357 net.cpp:156] Memory required for data: 831526000
I0403 14:58:07.434128 11357 layer_factory.hpp:77] Creating layer fc8_plantvillage
I0403 14:58:07.434149 11357 net.cpp:91] Creating Layer fc8_plantvillage
I0403 14:58:07.434165 11357 net.cpp:425] fc8_plantvillage <- fc7
I0403 14:58:07.434183 11357 net.cpp:399] fc8_plantvillage -> fc8_plantvillage
I0403 14:58:07.440877 11357 net.cpp:141] Setting up fc8_plantvillage
I0403 14:58:07.440907 11357 net.cpp:148] Top shape: 100 38 (3800)
I0403 14:58:07.440923 11357 net.cpp:156] Memory required for data: 831541200
I0403 14:58:07.440942 11357 layer_factory.hpp:77] Creating layer fc8_plantvillage_fc8_plantvillage_0_split
I0403 14:58:07.440960 11357 net.cpp:91] Creating Layer fc8_plantvillage_fc8_plantvillage_0_split
I0403 14:58:07.440975 11357 net.cpp:425] fc8_plantvillage_fc8_plantvillage_0_split <- fc8_plantvillage
I0403 14:58:07.440994 11357 net.cpp:399] fc8_plantvillage_fc8_plantvillage_0_split -> fc8_plantvillage_fc8_plantvillage_0_split_0
I0403 14:58:07.441015 11357 net.cpp:399] fc8_plantvillage_fc8_plantvillage_0_split -> fc8_plantvillage_fc8_plantvillage_0_split_1
I0403 14:58:07.441035 11357 net.cpp:399] fc8_plantvillage_fc8_plantvillage_0_split -> fc8_plantvillage_fc8_plantvillage_0_split_2
I0403 14:58:07.441108 11357 net.cpp:141] Setting up fc8_plantvillage_fc8_plantvillage_0_split
I0403 14:58:07.441133 11357 net.cpp:148] Top shape: 100 38 (3800)
I0403 14:58:07.441148 11357 net.cpp:148] Top shape: 100 38 (3800)
I0403 14:58:07.441162 11357 net.cpp:148] Top shape: 100 38 (3800)
I0403 14:58:07.441176 11357 net.cpp:156] Memory required for data: 831586800
I0403 14:58:07.441195 11357 layer_factory.hpp:77] Creating layer prob
I0403 14:58:07.441213 11357 net.cpp:91] Creating Layer prob
I0403 14:58:07.441229 11357 net.cpp:425] prob <- fc8_plantvillage_fc8_plantvillage_0_split_0
I0403 14:58:07.441251 11357 net.cpp:399] prob -> prob
I0403 14:58:07.441464 11357 net.cpp:141] Setting up prob
I0403 14:58:07.441493 11357 net.cpp:148] Top shape: 100 38 (3800)
I0403 14:58:07.441509 11357 net.cpp:156] Memory required for data: 831602000
I0403 14:58:07.441524 11357 layer_factory.hpp:77] Creating layer hdf5out
I0403 14:58:07.441542 11357 net.cpp:91] Creating Layer hdf5out
I0403 14:58:07.441557 11357 net.cpp:425] hdf5out <- prob
I0403 14:58:07.441573 11357 net.cpp:425] hdf5out <- label_data_1_split_0
I0403 14:58:07.523227 11357 net.cpp:141] Setting up hdf5out
…
