…
I0403 14:41:01.840219 10975 net.cpp:313] The NetState phase (1) differed from the phase (0) specified by a rule in layer data
I0403 14:41:01.840956 10975 net.cpp:49] Initializing net from parameters: 
state {
  phase: TEST
}
layer {
  name: "data"
  type: "Data"
  top: "data"
  top: "label"
  include {
    phase: TEST
  }
  transform_param {
    crop_size: 227
    mean_file: "/home/mohanty/data/final_dataset/lmdb/grayscale-50-50/mean.binaryproto"
  }
  data_param {
    source: "/home/mohanty/data/final_dataset/lmdb/grayscale-50-50/test_db"
    batch_size: 100
    backend: LMDB
  }
}
layer {
  name: "conv1"
  type: "Convolution"
  bottom: "data"
  top: "conv1"
  param {
    lr_mult: 1
    decay_mult: 1
  }
  param {
    lr_mult: 2
    decay_mult: 0
  }
  convolution_param {
    num_output: 96
    kernel_size: 11
    stride: 4
    weight_filler {
      type: "gaussian"
      std: 0.01
    }
    bias_filler {
      type: "constant"
      value: 0
    }
  }
}
layer {
  name: "relu1"
  type: "ReLU"
  bottom: "conv1"
  top: "conv1"
}
layer {
  name: "norm1"
  type: "LRN"
  bottom: "conv1"
  top: "norm1"
  lrn_param {
    local_size: 5
    alpha: 0.0001
    beta: 0.75
  }
}
layer {
  name: "pool1"
  type: "Pooling"
  bottom: "norm1"
  top: "pool1"
  pooling_param {
    pool: MAX
    kernel_size: 3
    stride: 2
  }
}
layer {
  name: "conv2"
  type: "Convolution"
  bottom: "pool1"
  top: "conv2"
  param {
    lr_mult: 1
    decay_mult: 1
  }
  param {
    lr_mult: 2
    decay_mult: 0
  }
  convolution_param {
    num_output: 256
    pad: 2
    kernel_size: 5
    group: 2
    weight_filler {
      type: "gaussian"
      std: 0.01
    }
    bias_filler {
      type: "constant"
      value: 0.1
    }
  }
}
layer {
  name: "relu2"
  type: "ReLU"
  bottom: "conv2"
  top: "conv2"
}
layer {
  name: "norm2"
  type: "LRN"
  bottom: "conv2"
  top: "norm2"
  lrn_param {
    local_size: 5
    alpha: 0.0001
    beta: 0.75
  }
}
layer {
  name: "pool2"
  type: "Pooling"
  bottom: "norm2"
  top: "pool2"
  pooling_param {
    pool: MAX
    kernel_size: 3
    stride: 2
  }
}
layer {
  name: "conv3"
  type: "Convolution"
  bottom: "pool2"
  top: "conv3"
  param {
    lr_mult: 1
    decay_mult: 1
  }
  param {
    lr_mult: 2
    decay_mult: 0
  }
  convolution_param {
    num_output: 384
    pad: 1
    kernel_size: 3
    weight_filler {
      type: "gaussian"
      std: 0.01
    }
    bias_filler {
      type: "constant"
      value: 0
    }
  }
}
layer {
  name: "relu3"
  type: "ReLU"
  bottom: "conv3"
  top: "conv3"
}
layer {
  name: "conv4"
  type: "Convolution"
  bottom: "conv3"
  top: "conv4"
  param {
    lr_mult: 1
    decay_mult: 1
  }
  param {
    lr_mult: 2
    decay_mult: 0
  }
  convolution_param {
    num_output: 384
    pad: 1
    kernel_size: 3
    group: 2
    weight_filler {
      type: "gaussian"
      std: 0.01
    }
    bias_filler {
      type: "constant"
      value: 0.1
    }
  }
}
layer {
  name: "relu4"
  type: "ReLU"
  bottom: "conv4"
  top: "conv4"
}
layer {
  name: "conv5"
  type: "Convolution"
  bottom: "conv4"
  top: "conv5"
  param {
    lr_mult: 1
    decay_mult: 1
  }
  param {
    lr_mult: 2
    decay_mult: 0
  }
  convolution_param {
    num_output: 256
    pad: 1
    kernel_size: 3
    group: 2
    weight_filler {
      type: "gaussian"
      std: 0.01
    }
    bias_filler {
      type: "constant"
      value: 0.1
    }
  }
}
layer {
  name: "relu5"
  type: "ReLU"
  bottom: "conv5"
  top: "conv5"
}
layer {
  name: "pool5"
  type: "Pooling"
  bottom: "conv5"
  top: "pool5"
  pooling_param {
    pool: MAX
    kernel_size: 3
    stride: 2
  }
}
layer {
  name: "fc6"
  type: "InnerProduct"
  bottom: "pool5"
  top: "fc6"
  param {
    lr_mult: 1
    decay_mult: 1
  }
  param {
    lr_mult: 2
    decay_mult: 0
  }
  inner_product_param {
    num_output: 4096
    weight_filler {
      type: "gaussian"
      std: 0.005
    }
    bias_filler {
      type: "constant"
      value: 0.1
    }
  }
}
layer {
  name: "relu6"
  type: "ReLU"
  bottom: "fc6"
  top: "fc6"
}
layer {
  name: "drop6"
  type: "Dropout"
  bottom: "fc6"
  top: "fc6"
  dropout_param {
    dropout_ratio: 0.5
  }
}
layer {
  name: "fc7"
  type: "InnerProduct"
  bottom: "fc6"
  top: "fc7"
  param {
    lr_mult: 1
    decay_mult: 1
  }
  param {
    lr_mult: 2
    decay_mult: 0
  }
  inner_product_param {
    num_output: 4096
    weight_filler {
      type: "gaussian"
      std: 0.005
    }
    bias_filler {
      type: "constant"
      value: 0.1
    }
  }
}
layer {
  name: "relu7"
  type: "ReLU"
  bottom: "fc7"
  top: "fc7"
}
layer {
  name: "drop7"
  type: "Dropout"
  bottom: "fc7"
  top: "fc7"
  dropout_param {
    dropout_ratio: 0.5
  }
}
layer {
  name: "fc8_plantvillage"
  type: "InnerProduct"
  bottom: "fc7"
  top: "fc8_plantvillage"
  param {
    lr_mult: 1
    decay_mult: 1
  }
  param {
    lr_mult: 2
    decay_mult: 0
  }
  inner_product_param {
    num_output: 38
    weight_filler {
      type: "gaussian"
      std: 0.01
    }
    bias_filler {
      type: "constant"
      value: 0
    }
  }
}
layer {
  name: "prob"
  type: "Softmax"
  bottom: "fc8_plantvillage"
  top: "prob"
  include {
    phase: TEST
  }
}
layer {
  name: "hdf5out"
  type: "HDF5Output"
  bottom: "prob"
  bottom: "label"
  include {
    phase: TEST
  }
  hdf5_output_param {
    file_name: "hdf5_dumps/iter_1869.h5"
  }
}
layer {
  name: "loss"
  type: "SoftmaxWithLoss"
  bottom: "fc8_plantvillage"
  bottom: "label"
  top: "loss"
}
layer {
  name: "accuracy"
  type: "Accuracy"
  bottom: "fc8_plantvillage"
  bottom: "label"
  top: "accuracy"
  include {
    phase: TEST
  }
}
I0403 14:41:01.842186 10975 layer_factory.hpp:77] Creating layer data
I0403 14:41:01.843804 10975 net.cpp:91] Creating Layer data
I0403 14:41:01.843881 10975 net.cpp:399] data -> data
I0403 14:41:01.843997 10975 net.cpp:399] data -> label
I0403 14:41:01.844085 10975 data_transformer.cpp:25] Loading mean file from: /home/mohanty/data/final_dataset/lmdb/grayscale-50-50/mean.binaryproto
I0403 14:41:01.848755 10982 db_lmdb.cpp:38] Opened lmdb /home/mohanty/data/final_dataset/lmdb/grayscale-50-50/test_db
I0403 14:41:01.865794 10975 data_layer.cpp:41] output data size: 100,3,227,227
I0403 14:41:02.002982 10975 net.cpp:141] Setting up data
I0403 14:41:02.003099 10975 net.cpp:148] Top shape: 100 3 227 227 (15458700)
I0403 14:41:02.003128 10975 net.cpp:148] Top shape: 100 (100)
I0403 14:41:02.003146 10975 net.cpp:156] Memory required for data: 61835200
I0403 14:41:02.003190 10975 layer_factory.hpp:77] Creating layer label_data_1_split
I0403 14:41:02.003221 10975 net.cpp:91] Creating Layer label_data_1_split
I0403 14:41:02.003242 10975 net.cpp:425] label_data_1_split <- label
I0403 14:41:02.003280 10975 net.cpp:399] label_data_1_split -> label_data_1_split_0
I0403 14:41:02.003314 10975 net.cpp:399] label_data_1_split -> label_data_1_split_1
I0403 14:41:02.003339 10975 net.cpp:399] label_data_1_split -> label_data_1_split_2
I0403 14:41:02.003419 10975 net.cpp:141] Setting up label_data_1_split
I0403 14:41:02.003448 10975 net.cpp:148] Top shape: 100 (100)
I0403 14:41:02.003469 10975 net.cpp:148] Top shape: 100 (100)
I0403 14:41:02.003489 10975 net.cpp:148] Top shape: 100 (100)
I0403 14:41:02.003505 10975 net.cpp:156] Memory required for data: 61836400
I0403 14:41:02.003523 10975 layer_factory.hpp:77] Creating layer conv1
I0403 14:41:02.003562 10975 net.cpp:91] Creating Layer conv1
I0403 14:41:02.003584 10975 net.cpp:425] conv1 <- data
I0403 14:41:02.003607 10975 net.cpp:399] conv1 -> conv1
I0403 14:41:02.165280 10975 net.cpp:141] Setting up conv1
I0403 14:41:02.165334 10975 net.cpp:148] Top shape: 100 96 55 55 (29040000)
I0403 14:41:02.165364 10975 net.cpp:156] Memory required for data: 177996400
I0403 14:41:02.165408 10975 layer_factory.hpp:77] Creating layer relu1
I0403 14:41:02.165443 10975 net.cpp:91] Creating Layer relu1
I0403 14:41:02.165472 10975 net.cpp:425] relu1 <- conv1
I0403 14:41:02.165500 10975 net.cpp:386] relu1 -> conv1 (in-place)
I0403 14:41:02.165817 10975 net.cpp:141] Setting up relu1
I0403 14:41:02.165850 10975 net.cpp:148] Top shape: 100 96 55 55 (29040000)
I0403 14:41:02.165891 10975 net.cpp:156] Memory required for data: 294156400
I0403 14:41:02.165911 10975 layer_factory.hpp:77] Creating layer norm1
I0403 14:41:02.165946 10975 net.cpp:91] Creating Layer norm1
I0403 14:41:02.165968 10975 net.cpp:425] norm1 <- conv1
I0403 14:41:02.165993 10975 net.cpp:399] norm1 -> norm1
I0403 14:41:02.166396 10975 net.cpp:141] Setting up norm1
I0403 14:41:02.166434 10975 net.cpp:148] Top shape: 100 96 55 55 (29040000)
I0403 14:41:02.166455 10975 net.cpp:156] Memory required for data: 410316400
I0403 14:41:02.166472 10975 layer_factory.hpp:77] Creating layer pool1
I0403 14:41:02.166501 10975 net.cpp:91] Creating Layer pool1
I0403 14:41:02.166522 10975 net.cpp:425] pool1 <- norm1
I0403 14:41:02.166546 10975 net.cpp:399] pool1 -> pool1
I0403 14:41:02.166630 10975 net.cpp:141] Setting up pool1
I0403 14:41:02.166662 10975 net.cpp:148] Top shape: 100 96 27 27 (6998400)
I0403 14:41:02.166685 10975 net.cpp:156] Memory required for data: 438310000
I0403 14:41:02.166704 10975 layer_factory.hpp:77] Creating layer conv2
I0403 14:41:02.166730 10975 net.cpp:91] Creating Layer conv2
I0403 14:41:02.166750 10975 net.cpp:425] conv2 <- pool1
I0403 14:41:02.166775 10975 net.cpp:399] conv2 -> conv2
I0403 14:41:02.184559 10975 net.cpp:141] Setting up conv2
I0403 14:41:02.184602 10975 net.cpp:148] Top shape: 100 256 27 27 (18662400)
I0403 14:41:02.184624 10975 net.cpp:156] Memory required for data: 512959600
I0403 14:41:02.184650 10975 layer_factory.hpp:77] Creating layer relu2
I0403 14:41:02.184674 10975 net.cpp:91] Creating Layer relu2
I0403 14:41:02.184694 10975 net.cpp:425] relu2 <- conv2
I0403 14:41:02.184717 10975 net.cpp:386] relu2 -> conv2 (in-place)
I0403 14:41:02.185050 10975 net.cpp:141] Setting up relu2
I0403 14:41:02.185086 10975 net.cpp:148] Top shape: 100 256 27 27 (18662400)
I0403 14:41:02.185107 10975 net.cpp:156] Memory required for data: 587609200
I0403 14:41:02.185127 10975 layer_factory.hpp:77] Creating layer norm2
I0403 14:41:02.185173 10975 net.cpp:91] Creating Layer norm2
I0403 14:41:02.185197 10975 net.cpp:425] norm2 <- conv2
I0403 14:41:02.185220 10975 net.cpp:399] norm2 -> norm2
I0403 14:41:02.185459 10975 net.cpp:141] Setting up norm2
I0403 14:41:02.185494 10975 net.cpp:148] Top shape: 100 256 27 27 (18662400)
I0403 14:41:02.185513 10975 net.cpp:156] Memory required for data: 662258800
I0403 14:41:02.185531 10975 layer_factory.hpp:77] Creating layer pool2
I0403 14:41:02.185554 10975 net.cpp:91] Creating Layer pool2
I0403 14:41:02.185571 10975 net.cpp:425] pool2 <- norm2
I0403 14:41:02.185595 10975 net.cpp:399] pool2 -> pool2
I0403 14:41:02.185658 10975 net.cpp:141] Setting up pool2
I0403 14:41:02.185688 10975 net.cpp:148] Top shape: 100 256 13 13 (4326400)
I0403 14:41:02.185704 10975 net.cpp:156] Memory required for data: 679564400
I0403 14:41:02.185721 10975 layer_factory.hpp:77] Creating layer conv3
I0403 14:41:02.185748 10975 net.cpp:91] Creating Layer conv3
I0403 14:41:02.185775 10975 net.cpp:425] conv3 <- pool2
I0403 14:41:02.185797 10975 net.cpp:399] conv3 -> conv3
I0403 14:41:02.235108 10975 net.cpp:141] Setting up conv3
I0403 14:41:02.235165 10975 net.cpp:148] Top shape: 100 384 13 13 (6489600)
I0403 14:41:02.235189 10975 net.cpp:156] Memory required for data: 705522800
I0403 14:41:02.235219 10975 layer_factory.hpp:77] Creating layer relu3
I0403 14:41:02.235245 10975 net.cpp:91] Creating Layer relu3
I0403 14:41:02.235266 10975 net.cpp:425] relu3 <- conv3
I0403 14:41:02.235291 10975 net.cpp:386] relu3 -> conv3 (in-place)
I0403 14:41:02.235616 10975 net.cpp:141] Setting up relu3
I0403 14:41:02.235651 10975 net.cpp:148] Top shape: 100 384 13 13 (6489600)
I0403 14:41:02.235671 10975 net.cpp:156] Memory required for data: 731481200
I0403 14:41:02.235688 10975 layer_factory.hpp:77] Creating layer conv4
I0403 14:41:02.235719 10975 net.cpp:91] Creating Layer conv4
I0403 14:41:02.235741 10975 net.cpp:425] conv4 <- conv3
I0403 14:41:02.235770 10975 net.cpp:399] conv4 -> conv4
I0403 14:41:02.271246 10975 net.cpp:141] Setting up conv4
I0403 14:41:02.271291 10975 net.cpp:148] Top shape: 100 384 13 13 (6489600)
I0403 14:41:02.271334 10975 net.cpp:156] Memory required for data: 757439600
I0403 14:41:02.271361 10975 layer_factory.hpp:77] Creating layer relu4
I0403 14:41:02.271389 10975 net.cpp:91] Creating Layer relu4
I0403 14:41:02.271411 10975 net.cpp:425] relu4 <- conv4
I0403 14:41:02.271433 10975 net.cpp:386] relu4 -> conv4 (in-place)
I0403 14:41:02.271759 10975 net.cpp:141] Setting up relu4
I0403 14:41:02.271796 10975 net.cpp:148] Top shape: 100 384 13 13 (6489600)
I0403 14:41:02.271826 10975 net.cpp:156] Memory required for data: 783398000
I0403 14:41:02.271853 10975 layer_factory.hpp:77] Creating layer conv5
I0403 14:41:02.271911 10975 net.cpp:91] Creating Layer conv5
I0403 14:41:02.271941 10975 net.cpp:425] conv5 <- conv4
I0403 14:41:02.271966 10975 net.cpp:399] conv5 -> conv5
I0403 14:41:02.296442 10975 net.cpp:141] Setting up conv5
I0403 14:41:02.296491 10975 net.cpp:148] Top shape: 100 256 13 13 (4326400)
I0403 14:41:02.296514 10975 net.cpp:156] Memory required for data: 800703600
I0403 14:41:02.296542 10975 layer_factory.hpp:77] Creating layer relu5
I0403 14:41:02.296567 10975 net.cpp:91] Creating Layer relu5
I0403 14:41:02.296587 10975 net.cpp:425] relu5 <- conv5
I0403 14:41:02.296613 10975 net.cpp:386] relu5 -> conv5 (in-place)
I0403 14:41:02.296953 10975 net.cpp:141] Setting up relu5
I0403 14:41:02.296986 10975 net.cpp:148] Top shape: 100 256 13 13 (4326400)
I0403 14:41:02.297004 10975 net.cpp:156] Memory required for data: 818009200
I0403 14:41:02.297024 10975 layer_factory.hpp:77] Creating layer pool5
I0403 14:41:02.297049 10975 net.cpp:91] Creating Layer pool5
I0403 14:41:02.297067 10975 net.cpp:425] pool5 <- conv5
I0403 14:41:02.297093 10975 net.cpp:399] pool5 -> pool5
I0403 14:41:02.297178 10975 net.cpp:141] Setting up pool5
I0403 14:41:02.297207 10975 net.cpp:148] Top shape: 100 256 6 6 (921600)
I0403 14:41:02.297225 10975 net.cpp:156] Memory required for data: 821695600
I0403 14:41:02.297245 10975 layer_factory.hpp:77] Creating layer fc6
I0403 14:41:02.297278 10975 net.cpp:91] Creating Layer fc6
I0403 14:41:02.297302 10975 net.cpp:425] fc6 <- pool5
I0403 14:41:02.297336 10975 net.cpp:399] fc6 -> fc6
I0403 14:41:03.984885 10975 net.cpp:141] Setting up fc6
I0403 14:41:03.984962 10975 net.cpp:148] Top shape: 100 4096 (409600)
I0403 14:41:03.984980 10975 net.cpp:156] Memory required for data: 823334000
I0403 14:41:03.985002 10975 layer_factory.hpp:77] Creating layer relu6
I0403 14:41:03.985030 10975 net.cpp:91] Creating Layer relu6
I0403 14:41:03.985051 10975 net.cpp:425] relu6 <- fc6
I0403 14:41:03.985072 10975 net.cpp:386] relu6 -> fc6 (in-place)
I0403 14:41:03.985307 10975 net.cpp:141] Setting up relu6
I0403 14:41:03.985335 10975 net.cpp:148] Top shape: 100 4096 (409600)
I0403 14:41:03.985352 10975 net.cpp:156] Memory required for data: 824972400
I0403 14:41:03.985366 10975 layer_factory.hpp:77] Creating layer drop6
I0403 14:41:03.985385 10975 net.cpp:91] Creating Layer drop6
I0403 14:41:03.985402 10975 net.cpp:425] drop6 <- fc6
I0403 14:41:03.985422 10975 net.cpp:386] drop6 -> fc6 (in-place)
I0403 14:41:03.985476 10975 net.cpp:141] Setting up drop6
I0403 14:41:03.985502 10975 net.cpp:148] Top shape: 100 4096 (409600)
I0403 14:41:03.985517 10975 net.cpp:156] Memory required for data: 826610800
I0403 14:41:03.985533 10975 layer_factory.hpp:77] Creating layer fc7
I0403 14:41:03.985556 10975 net.cpp:91] Creating Layer fc7
I0403 14:41:03.985574 10975 net.cpp:425] fc7 <- fc6
I0403 14:41:03.985596 10975 net.cpp:399] fc7 -> fc7
I0403 14:41:04.674455 10975 net.cpp:141] Setting up fc7
I0403 14:41:04.674531 10975 net.cpp:148] Top shape: 100 4096 (409600)
I0403 14:41:04.674548 10975 net.cpp:156] Memory required for data: 828249200
I0403 14:41:04.674571 10975 layer_factory.hpp:77] Creating layer relu7
I0403 14:41:04.674593 10975 net.cpp:91] Creating Layer relu7
I0403 14:41:04.674612 10975 net.cpp:425] relu7 <- fc7
I0403 14:41:04.674634 10975 net.cpp:386] relu7 -> fc7 (in-place)
I0403 14:41:04.675048 10975 net.cpp:141] Setting up relu7
I0403 14:41:04.675078 10975 net.cpp:148] Top shape: 100 4096 (409600)
I0403 14:41:04.675127 10975 net.cpp:156] Memory required for data: 829887600
I0403 14:41:04.675143 10975 layer_factory.hpp:77] Creating layer drop7
I0403 14:41:04.675166 10975 net.cpp:91] Creating Layer drop7
I0403 14:41:04.675184 10975 net.cpp:425] drop7 <- fc7
I0403 14:41:04.675204 10975 net.cpp:386] drop7 -> fc7 (in-place)
I0403 14:41:04.675248 10975 net.cpp:141] Setting up drop7
I0403 14:41:04.675272 10975 net.cpp:148] Top shape: 100 4096 (409600)
I0403 14:41:04.675287 10975 net.cpp:156] Memory required for data: 831526000
I0403 14:41:04.675303 10975 layer_factory.hpp:77] Creating layer fc8_plantvillage
I0403 14:41:04.675325 10975 net.cpp:91] Creating Layer fc8_plantvillage
I0403 14:41:04.675343 10975 net.cpp:425] fc8_plantvillage <- fc7
I0403 14:41:04.675362 10975 net.cpp:399] fc8_plantvillage -> fc8_plantvillage
I0403 14:41:04.682101 10975 net.cpp:141] Setting up fc8_plantvillage
I0403 14:41:04.682129 10975 net.cpp:148] Top shape: 100 38 (3800)
I0403 14:41:04.682145 10975 net.cpp:156] Memory required for data: 831541200
I0403 14:41:04.682179 10975 layer_factory.hpp:77] Creating layer fc8_plantvillage_fc8_plantvillage_0_split
I0403 14:41:04.682201 10975 net.cpp:91] Creating Layer fc8_plantvillage_fc8_plantvillage_0_split
I0403 14:41:04.682217 10975 net.cpp:425] fc8_plantvillage_fc8_plantvillage_0_split <- fc8_plantvillage
I0403 14:41:04.682237 10975 net.cpp:399] fc8_plantvillage_fc8_plantvillage_0_split -> fc8_plantvillage_fc8_plantvillage_0_split_0
I0403 14:41:04.682260 10975 net.cpp:399] fc8_plantvillage_fc8_plantvillage_0_split -> fc8_plantvillage_fc8_plantvillage_0_split_1
I0403 14:41:04.682279 10975 net.cpp:399] fc8_plantvillage_fc8_plantvillage_0_split -> fc8_plantvillage_fc8_plantvillage_0_split_2
I0403 14:41:04.682358 10975 net.cpp:141] Setting up fc8_plantvillage_fc8_plantvillage_0_split
I0403 14:41:04.682382 10975 net.cpp:148] Top shape: 100 38 (3800)
I0403 14:41:04.682399 10975 net.cpp:148] Top shape: 100 38 (3800)
I0403 14:41:04.682415 10975 net.cpp:148] Top shape: 100 38 (3800)
I0403 14:41:04.682428 10975 net.cpp:156] Memory required for data: 831586800
I0403 14:41:04.682443 10975 layer_factory.hpp:77] Creating layer prob
I0403 14:41:04.682461 10975 net.cpp:91] Creating Layer prob
I0403 14:41:04.682476 10975 net.cpp:425] prob <- fc8_plantvillage_fc8_plantvillage_0_split_0
I0403 14:41:04.682497 10975 net.cpp:399] prob -> prob
I0403 14:41:04.682721 10975 net.cpp:141] Setting up prob
I0403 14:41:04.682751 10975 net.cpp:148] Top shape: 100 38 (3800)
I0403 14:41:04.682768 10975 net.cpp:156] Memory required for data: 831602000
I0403 14:41:04.682783 10975 layer_factory.hpp:77] Creating layer hdf5out
I0403 14:41:04.682801 10975 net.cpp:91] Creating Layer hdf5out
I0403 14:41:04.682817 10975 net.cpp:425] hdf5out <- prob
I0403 14:41:04.682833 10975 net.cpp:425] hdf5out <- label_data_1_split_0
I0403 14:41:04.684932 10975 net.cpp:141] Setting up hdf5out
…
