…
I0403 14:50:28.605732 11188 net.cpp:313] The NetState phase (1) differed from the phase (0) specified by a rule in layer data
I0403 14:50:28.606029 11188 net.cpp:49] Initializing net from parameters: 
state {
  phase: TEST
}
layer {
  name: "data"
  type: "Data"
  top: "data"
  top: "label"
  include {
    phase: TEST
  }
  transform_param {
    crop_size: 227
    mean_file: "/home/mohanty/data/final_dataset/lmdb/grayscale-50-50/mean.binaryproto"
  }
  data_param {
    source: "/home/mohanty/data/final_dataset/lmdb/grayscale-50-50/test_db"
    batch_size: 100
    backend: LMDB
  }
}
layer {
  name: "conv1"
  type: "Convolution"
  bottom: "data"
  top: "conv1"
  param {
    lr_mult: 1
    decay_mult: 1
  }
  param {
    lr_mult: 2
    decay_mult: 0
  }
  convolution_param {
    num_output: 96
    kernel_size: 11
    stride: 4
    weight_filler {
      type: "gaussian"
      std: 0.01
    }
    bias_filler {
      type: "constant"
      value: 0
    }
  }
}
layer {
  name: "relu1"
  type: "ReLU"
  bottom: "conv1"
  top: "conv1"
}
layer {
  name: "norm1"
  type: "LRN"
  bottom: "conv1"
  top: "norm1"
  lrn_param {
    local_size: 5
    alpha: 0.0001
    beta: 0.75
  }
}
layer {
  name: "pool1"
  type: "Pooling"
  bottom: "norm1"
  top: "pool1"
  pooling_param {
    pool: MAX
    kernel_size: 3
    stride: 2
  }
}
layer {
  name: "conv2"
  type: "Convolution"
  bottom: "pool1"
  top: "conv2"
  param {
    lr_mult: 1
    decay_mult: 1
  }
  param {
    lr_mult: 2
    decay_mult: 0
  }
  convolution_param {
    num_output: 256
    pad: 2
    kernel_size: 5
    group: 2
    weight_filler {
      type: "gaussian"
      std: 0.01
    }
    bias_filler {
      type: "constant"
      value: 0.1
    }
  }
}
layer {
  name: "relu2"
  type: "ReLU"
  bottom: "conv2"
  top: "conv2"
}
layer {
  name: "norm2"
  type: "LRN"
  bottom: "conv2"
  top: "norm2"
  lrn_param {
    local_size: 5
    alpha: 0.0001
    beta: 0.75
  }
}
layer {
  name: "pool2"
  type: "Pooling"
  bottom: "norm2"
  top: "pool2"
  pooling_param {
    pool: MAX
    kernel_size: 3
    stride: 2
  }
}
layer {
  name: "conv3"
  type: "Convolution"
  bottom: "pool2"
  top: "conv3"
  param {
    lr_mult: 1
    decay_mult: 1
  }
  param {
    lr_mult: 2
    decay_mult: 0
  }
  convolution_param {
    num_output: 384
    pad: 1
    kernel_size: 3
    weight_filler {
      type: "gaussian"
      std: 0.01
    }
    bias_filler {
      type: "constant"
      value: 0
    }
  }
}
layer {
  name: "relu3"
  type: "ReLU"
  bottom: "conv3"
  top: "conv3"
}
layer {
  name: "conv4"
  type: "Convolution"
  bottom: "conv3"
  top: "conv4"
  param {
    lr_mult: 1
    decay_mult: 1
  }
  param {
    lr_mult: 2
    decay_mult: 0
  }
  convolution_param {
    num_output: 384
    pad: 1
    kernel_size: 3
    group: 2
    weight_filler {
      type: "gaussian"
      std: 0.01
    }
    bias_filler {
      type: "constant"
      value: 0.1
    }
  }
}
layer {
  name: "relu4"
  type: "ReLU"
  bottom: "conv4"
  top: "conv4"
}
layer {
  name: "conv5"
  type: "Convolution"
  bottom: "conv4"
  top: "conv5"
  param {
    lr_mult: 1
    decay_mult: 1
  }
  param {
    lr_mult: 2
    decay_mult: 0
  }
  convolution_param {
    num_output: 256
    pad: 1
    kernel_size: 3
    group: 2
    weight_filler {
      type: "gaussian"
      std: 0.01
    }
    bias_filler {
      type: "constant"
      value: 0.1
    }
  }
}
layer {
  name: "relu5"
  type: "ReLU"
  bottom: "conv5"
  top: "conv5"
}
layer {
  name: "pool5"
  type: "Pooling"
  bottom: "conv5"
  top: "pool5"
  pooling_param {
    pool: MAX
    kernel_size: 3
    stride: 2
  }
}
layer {
  name: "fc6"
  type: "InnerProduct"
  bottom: "pool5"
  top: "fc6"
  param {
    lr_mult: 1
    decay_mult: 1
  }
  param {
    lr_mult: 2
    decay_mult: 0
  }
  inner_product_param {
    num_output: 4096
    weight_filler {
      type: "gaussian"
      std: 0.005
    }
    bias_filler {
      type: "constant"
      value: 0.1
    }
  }
}
layer {
  name: "relu6"
  type: "ReLU"
  bottom: "fc6"
  top: "fc6"
}
layer {
  name: "drop6"
  type: "Dropout"
  bottom: "fc6"
  top: "fc6"
  dropout_param {
    dropout_ratio: 0.5
  }
}
layer {
  name: "fc7"
  type: "InnerProduct"
  bottom: "fc6"
  top: "fc7"
  param {
    lr_mult: 1
    decay_mult: 1
  }
  param {
    lr_mult: 2
    decay_mult: 0
  }
  inner_product_param {
    num_output: 4096
    weight_filler {
      type: "gaussian"
      std: 0.005
    }
    bias_filler {
      type: "constant"
      value: 0.1
    }
  }
}
layer {
  name: "relu7"
  type: "ReLU"
  bottom: "fc7"
  top: "fc7"
}
layer {
  name: "drop7"
  type: "Dropout"
  bottom: "fc7"
  top: "fc7"
  dropout_param {
    dropout_ratio: 0.5
  }
}
layer {
  name: "fc8_plantvillage"
  type: "InnerProduct"
  bottom: "fc7"
  top: "fc8_plantvillage"
  param {
    lr_mult: 1
    decay_mult: 1
  }
  param {
    lr_mult: 2
    decay_mult: 0
  }
  inner_product_param {
    num_output: 38
    weight_filler {
      type: "gaussian"
      std: 0.01
    }
    bias_filler {
      type: "constant"
      value: 0
    }
  }
}
layer {
  name: "prob"
  type: "Softmax"
  bottom: "fc8_plantvillage"
  top: "prob"
  include {
    phase: TEST
  }
}
layer {
  name: "hdf5out"
  type: "HDF5Output"
  bottom: "prob"
  bottom: "label"
  include {
    phase: TEST
  }
  hdf5_output_param {
    file_name: "hdf5_dumps/iter_4539.h5"
  }
}
layer {
  name: "loss"
  type: "SoftmaxWithLoss"
  bottom: "fc8_plantvillage"
  bottom: "label"
  top: "loss"
}
layer {
  name: "accuracy"
  type: "Accuracy"
  bottom: "fc8_plantvillage"
  bottom: "label"
  top: "accuracy"
  include {
    phase: TEST
  }
}
I0403 14:50:28.606575 11188 layer_factory.hpp:77] Creating layer data
I0403 14:50:28.607183 11188 net.cpp:91] Creating Layer data
I0403 14:50:28.607219 11188 net.cpp:399] data -> data
I0403 14:50:28.607270 11188 net.cpp:399] data -> label
I0403 14:50:28.607306 11188 data_transformer.cpp:25] Loading mean file from: /home/mohanty/data/final_dataset/lmdb/grayscale-50-50/mean.binaryproto
I0403 14:50:28.610563 11191 db_lmdb.cpp:38] Opened lmdb /home/mohanty/data/final_dataset/lmdb/grayscale-50-50/test_db
I0403 14:50:28.621611 11188 data_layer.cpp:41] output data size: 100,3,227,227
I0403 14:50:28.741338 11188 net.cpp:141] Setting up data
I0403 14:50:28.741437 11188 net.cpp:148] Top shape: 100 3 227 227 (15458700)
I0403 14:50:28.741462 11188 net.cpp:148] Top shape: 100 (100)
I0403 14:50:28.741478 11188 net.cpp:156] Memory required for data: 61835200
I0403 14:50:28.741508 11188 layer_factory.hpp:77] Creating layer label_data_1_split
I0403 14:50:28.741535 11188 net.cpp:91] Creating Layer label_data_1_split
I0403 14:50:28.741554 11188 net.cpp:425] label_data_1_split <- label
I0403 14:50:28.741585 11188 net.cpp:399] label_data_1_split -> label_data_1_split_0
I0403 14:50:28.741614 11188 net.cpp:399] label_data_1_split -> label_data_1_split_1
I0403 14:50:28.741636 11188 net.cpp:399] label_data_1_split -> label_data_1_split_2
I0403 14:50:28.741703 11188 net.cpp:141] Setting up label_data_1_split
I0403 14:50:28.741729 11188 net.cpp:148] Top shape: 100 (100)
I0403 14:50:28.741746 11188 net.cpp:148] Top shape: 100 (100)
I0403 14:50:28.741762 11188 net.cpp:148] Top shape: 100 (100)
I0403 14:50:28.741777 11188 net.cpp:156] Memory required for data: 61836400
I0403 14:50:28.741793 11188 layer_factory.hpp:77] Creating layer conv1
I0403 14:50:28.741825 11188 net.cpp:91] Creating Layer conv1
I0403 14:50:28.741844 11188 net.cpp:425] conv1 <- data
I0403 14:50:28.741864 11188 net.cpp:399] conv1 -> conv1
I0403 14:50:28.885066 11188 net.cpp:141] Setting up conv1
I0403 14:50:28.885113 11188 net.cpp:148] Top shape: 100 96 55 55 (29040000)
I0403 14:50:28.885133 11188 net.cpp:156] Memory required for data: 177996400
I0403 14:50:28.885164 11188 layer_factory.hpp:77] Creating layer relu1
I0403 14:50:28.885197 11188 net.cpp:91] Creating Layer relu1
I0403 14:50:28.885217 11188 net.cpp:425] relu1 <- conv1
I0403 14:50:28.885241 11188 net.cpp:386] relu1 -> conv1 (in-place)
I0403 14:50:28.885532 11188 net.cpp:141] Setting up relu1
I0403 14:50:28.885561 11188 net.cpp:148] Top shape: 100 96 55 55 (29040000)
I0403 14:50:28.885610 11188 net.cpp:156] Memory required for data: 294156400
I0403 14:50:28.885627 11188 layer_factory.hpp:77] Creating layer norm1
I0403 14:50:28.885716 11188 net.cpp:91] Creating Layer norm1
I0403 14:50:28.885738 11188 net.cpp:425] norm1 <- conv1
I0403 14:50:28.885757 11188 net.cpp:399] norm1 -> norm1
I0403 14:50:28.886106 11188 net.cpp:141] Setting up norm1
I0403 14:50:28.886135 11188 net.cpp:148] Top shape: 100 96 55 55 (29040000)
I0403 14:50:28.886152 11188 net.cpp:156] Memory required for data: 410316400
I0403 14:50:28.886168 11188 layer_factory.hpp:77] Creating layer pool1
I0403 14:50:28.886199 11188 net.cpp:91] Creating Layer pool1
I0403 14:50:28.886221 11188 net.cpp:425] pool1 <- norm1
I0403 14:50:28.886240 11188 net.cpp:399] pool1 -> pool1
I0403 14:50:28.886318 11188 net.cpp:141] Setting up pool1
I0403 14:50:28.886344 11188 net.cpp:148] Top shape: 100 96 27 27 (6998400)
I0403 14:50:28.886359 11188 net.cpp:156] Memory required for data: 438310000
I0403 14:50:28.886376 11188 layer_factory.hpp:77] Creating layer conv2
I0403 14:50:28.886404 11188 net.cpp:91] Creating Layer conv2
I0403 14:50:28.886422 11188 net.cpp:425] conv2 <- pool1
I0403 14:50:28.886443 11188 net.cpp:399] conv2 -> conv2
I0403 14:50:28.901768 11188 net.cpp:141] Setting up conv2
I0403 14:50:28.901829 11188 net.cpp:148] Top shape: 100 256 27 27 (18662400)
I0403 14:50:28.901844 11188 net.cpp:156] Memory required for data: 512959600
I0403 14:50:28.901867 11188 layer_factory.hpp:77] Creating layer relu2
I0403 14:50:28.901891 11188 net.cpp:91] Creating Layer relu2
I0403 14:50:28.901909 11188 net.cpp:425] relu2 <- conv2
I0403 14:50:28.901927 11188 net.cpp:386] relu2 -> conv2 (in-place)
I0403 14:50:28.902222 11188 net.cpp:141] Setting up relu2
I0403 14:50:28.902251 11188 net.cpp:148] Top shape: 100 256 27 27 (18662400)
I0403 14:50:28.902267 11188 net.cpp:156] Memory required for data: 587609200
I0403 14:50:28.902283 11188 layer_factory.hpp:77] Creating layer norm2
I0403 14:50:28.902307 11188 net.cpp:91] Creating Layer norm2
I0403 14:50:28.902325 11188 net.cpp:425] norm2 <- conv2
I0403 14:50:28.902346 11188 net.cpp:399] norm2 -> norm2
I0403 14:50:28.902549 11188 net.cpp:141] Setting up norm2
I0403 14:50:28.902576 11188 net.cpp:148] Top shape: 100 256 27 27 (18662400)
I0403 14:50:28.902592 11188 net.cpp:156] Memory required for data: 662258800
I0403 14:50:28.902607 11188 layer_factory.hpp:77] Creating layer pool2
I0403 14:50:28.902627 11188 net.cpp:91] Creating Layer pool2
I0403 14:50:28.902642 11188 net.cpp:425] pool2 <- norm2
I0403 14:50:28.902662 11188 net.cpp:399] pool2 -> pool2
I0403 14:50:28.902719 11188 net.cpp:141] Setting up pool2
I0403 14:50:28.902743 11188 net.cpp:148] Top shape: 100 256 13 13 (4326400)
I0403 14:50:28.902758 11188 net.cpp:156] Memory required for data: 679564400
I0403 14:50:28.902773 11188 layer_factory.hpp:77] Creating layer conv3
I0403 14:50:28.902797 11188 net.cpp:91] Creating Layer conv3
I0403 14:50:28.902815 11188 net.cpp:425] conv3 <- pool2
I0403 14:50:28.902837 11188 net.cpp:399] conv3 -> conv3
I0403 14:50:28.941225 11188 net.cpp:141] Setting up conv3
I0403 14:50:28.941303 11188 net.cpp:148] Top shape: 100 384 13 13 (6489600)
I0403 14:50:28.941320 11188 net.cpp:156] Memory required for data: 705522800
I0403 14:50:28.941347 11188 layer_factory.hpp:77] Creating layer relu3
I0403 14:50:28.941370 11188 net.cpp:91] Creating Layer relu3
I0403 14:50:28.941387 11188 net.cpp:425] relu3 <- conv3
I0403 14:50:28.941406 11188 net.cpp:386] relu3 -> conv3 (in-place)
I0403 14:50:28.941716 11188 net.cpp:141] Setting up relu3
I0403 14:50:28.941745 11188 net.cpp:148] Top shape: 100 384 13 13 (6489600)
I0403 14:50:28.941759 11188 net.cpp:156] Memory required for data: 731481200
I0403 14:50:28.941774 11188 layer_factory.hpp:77] Creating layer conv4
I0403 14:50:28.941799 11188 net.cpp:91] Creating Layer conv4
I0403 14:50:28.941817 11188 net.cpp:425] conv4 <- conv3
I0403 14:50:28.941838 11188 net.cpp:399] conv4 -> conv4
I0403 14:50:28.971223 11188 net.cpp:141] Setting up conv4
I0403 14:50:28.971256 11188 net.cpp:148] Top shape: 100 384 13 13 (6489600)
I0403 14:50:28.971303 11188 net.cpp:156] Memory required for data: 757439600
I0403 14:50:28.971324 11188 layer_factory.hpp:77] Creating layer relu4
I0403 14:50:28.971349 11188 net.cpp:91] Creating Layer relu4
I0403 14:50:28.971366 11188 net.cpp:425] relu4 <- conv4
I0403 14:50:28.971385 11188 net.cpp:386] relu4 -> conv4 (in-place)
I0403 14:50:28.971658 11188 net.cpp:141] Setting up relu4
I0403 14:50:28.971686 11188 net.cpp:148] Top shape: 100 384 13 13 (6489600)
I0403 14:50:28.971701 11188 net.cpp:156] Memory required for data: 783398000
I0403 14:50:28.971716 11188 layer_factory.hpp:77] Creating layer conv5
I0403 14:50:28.971741 11188 net.cpp:91] Creating Layer conv5
I0403 14:50:28.971761 11188 net.cpp:425] conv5 <- conv4
I0403 14:50:28.971796 11188 net.cpp:399] conv5 -> conv5
I0403 14:50:28.993518 11188 net.cpp:141] Setting up conv5
I0403 14:50:28.993587 11188 net.cpp:148] Top shape: 100 256 13 13 (4326400)
I0403 14:50:28.993603 11188 net.cpp:156] Memory required for data: 800703600
I0403 14:50:28.993630 11188 layer_factory.hpp:77] Creating layer relu5
I0403 14:50:28.993654 11188 net.cpp:91] Creating Layer relu5
I0403 14:50:28.993674 11188 net.cpp:425] relu5 <- conv5
I0403 14:50:28.993692 11188 net.cpp:386] relu5 -> conv5 (in-place)
I0403 14:50:28.993978 11188 net.cpp:141] Setting up relu5
I0403 14:50:28.994005 11188 net.cpp:148] Top shape: 100 256 13 13 (4326400)
I0403 14:50:28.994021 11188 net.cpp:156] Memory required for data: 818009200
I0403 14:50:28.994036 11188 layer_factory.hpp:77] Creating layer pool5
I0403 14:50:28.994061 11188 net.cpp:91] Creating Layer pool5
I0403 14:50:28.994078 11188 net.cpp:425] pool5 <- conv5
I0403 14:50:28.994099 11188 net.cpp:399] pool5 -> pool5
I0403 14:50:28.994163 11188 net.cpp:141] Setting up pool5
I0403 14:50:28.994192 11188 net.cpp:148] Top shape: 100 256 6 6 (921600)
I0403 14:50:28.994210 11188 net.cpp:156] Memory required for data: 821695600
I0403 14:50:28.994225 11188 layer_factory.hpp:77] Creating layer fc6
I0403 14:50:28.994254 11188 net.cpp:91] Creating Layer fc6
I0403 14:50:28.994273 11188 net.cpp:425] fc6 <- pool5
I0403 14:50:28.994292 11188 net.cpp:399] fc6 -> fc6
I0403 14:50:30.534199 11188 net.cpp:141] Setting up fc6
I0403 14:50:30.534277 11188 net.cpp:148] Top shape: 100 4096 (409600)
I0403 14:50:30.534293 11188 net.cpp:156] Memory required for data: 823334000
I0403 14:50:30.534314 11188 layer_factory.hpp:77] Creating layer relu6
I0403 14:50:30.534335 11188 net.cpp:91] Creating Layer relu6
I0403 14:50:30.534354 11188 net.cpp:425] relu6 <- fc6
I0403 14:50:30.534375 11188 net.cpp:386] relu6 -> fc6 (in-place)
I0403 14:50:30.534591 11188 net.cpp:141] Setting up relu6
I0403 14:50:30.534616 11188 net.cpp:148] Top shape: 100 4096 (409600)
I0403 14:50:30.534631 11188 net.cpp:156] Memory required for data: 824972400
I0403 14:50:30.534646 11188 layer_factory.hpp:77] Creating layer drop6
I0403 14:50:30.534662 11188 net.cpp:91] Creating Layer drop6
I0403 14:50:30.534678 11188 net.cpp:425] drop6 <- fc6
I0403 14:50:30.534696 11188 net.cpp:386] drop6 -> fc6 (in-place)
I0403 14:50:30.534749 11188 net.cpp:141] Setting up drop6
I0403 14:50:30.534772 11188 net.cpp:148] Top shape: 100 4096 (409600)
I0403 14:50:30.534786 11188 net.cpp:156] Memory required for data: 826610800
I0403 14:50:30.534801 11188 layer_factory.hpp:77] Creating layer fc7
I0403 14:50:30.534821 11188 net.cpp:91] Creating Layer fc7
I0403 14:50:30.534837 11188 net.cpp:425] fc7 <- fc6
I0403 14:50:30.534859 11188 net.cpp:399] fc7 -> fc7
I0403 14:50:31.214362 11188 net.cpp:141] Setting up fc7
I0403 14:50:31.214413 11188 net.cpp:148] Top shape: 100 4096 (409600)
I0403 14:50:31.214431 11188 net.cpp:156] Memory required for data: 828249200
I0403 14:50:31.214452 11188 layer_factory.hpp:77] Creating layer relu7
I0403 14:50:31.214476 11188 net.cpp:91] Creating Layer relu7
I0403 14:50:31.214493 11188 net.cpp:425] relu7 <- fc7
I0403 14:50:31.214514 11188 net.cpp:386] relu7 -> fc7 (in-place)
I0403 14:50:31.214903 11188 net.cpp:141] Setting up relu7
I0403 14:50:31.214931 11188 net.cpp:148] Top shape: 100 4096 (409600)
I0403 14:50:31.214967 11188 net.cpp:156] Memory required for data: 829887600
I0403 14:50:31.214984 11188 layer_factory.hpp:77] Creating layer drop7
I0403 14:50:31.215005 11188 net.cpp:91] Creating Layer drop7
I0403 14:50:31.215021 11188 net.cpp:425] drop7 <- fc7
I0403 14:50:31.215039 11188 net.cpp:386] drop7 -> fc7 (in-place)
I0403 14:50:31.215081 11188 net.cpp:141] Setting up drop7
I0403 14:50:31.215108 11188 net.cpp:148] Top shape: 100 4096 (409600)
I0403 14:50:31.215124 11188 net.cpp:156] Memory required for data: 831526000
I0403 14:50:31.215139 11188 layer_factory.hpp:77] Creating layer fc8_plantvillage
I0403 14:50:31.215158 11188 net.cpp:91] Creating Layer fc8_plantvillage
I0403 14:50:31.215174 11188 net.cpp:425] fc8_plantvillage <- fc7
I0403 14:50:31.215214 11188 net.cpp:399] fc8_plantvillage -> fc8_plantvillage
I0403 14:50:31.222230 11188 net.cpp:141] Setting up fc8_plantvillage
I0403 14:50:31.222265 11188 net.cpp:148] Top shape: 100 38 (3800)
I0403 14:50:31.222280 11188 net.cpp:156] Memory required for data: 831541200
I0403 14:50:31.222300 11188 layer_factory.hpp:77] Creating layer fc8_plantvillage_fc8_plantvillage_0_split
I0403 14:50:31.222321 11188 net.cpp:91] Creating Layer fc8_plantvillage_fc8_plantvillage_0_split
I0403 14:50:31.222337 11188 net.cpp:425] fc8_plantvillage_fc8_plantvillage_0_split <- fc8_plantvillage
I0403 14:50:31.222357 11188 net.cpp:399] fc8_plantvillage_fc8_plantvillage_0_split -> fc8_plantvillage_fc8_plantvillage_0_split_0
I0403 14:50:31.222376 11188 net.cpp:399] fc8_plantvillage_fc8_plantvillage_0_split -> fc8_plantvillage_fc8_plantvillage_0_split_1
I0403 14:50:31.222398 11188 net.cpp:399] fc8_plantvillage_fc8_plantvillage_0_split -> fc8_plantvillage_fc8_plantvillage_0_split_2
I0403 14:50:31.222479 11188 net.cpp:141] Setting up fc8_plantvillage_fc8_plantvillage_0_split
I0403 14:50:31.222506 11188 net.cpp:148] Top shape: 100 38 (3800)
I0403 14:50:31.222522 11188 net.cpp:148] Top shape: 100 38 (3800)
I0403 14:50:31.222537 11188 net.cpp:148] Top shape: 100 38 (3800)
I0403 14:50:31.222551 11188 net.cpp:156] Memory required for data: 831586800
I0403 14:50:31.222566 11188 layer_factory.hpp:77] Creating layer prob
I0403 14:50:31.222586 11188 net.cpp:91] Creating Layer prob
I0403 14:50:31.222604 11188 net.cpp:425] prob <- fc8_plantvillage_fc8_plantvillage_0_split_0
I0403 14:50:31.222623 11188 net.cpp:399] prob -> prob
I0403 14:50:31.222864 11188 net.cpp:141] Setting up prob
I0403 14:50:31.222892 11188 net.cpp:148] Top shape: 100 38 (3800)
I0403 14:50:31.222908 11188 net.cpp:156] Memory required for data: 831602000
I0403 14:50:31.222924 11188 layer_factory.hpp:77] Creating layer hdf5out
I0403 14:50:31.222946 11188 net.cpp:91] Creating Layer hdf5out
I0403 14:50:31.222965 11188 net.cpp:425] hdf5out <- prob
I0403 14:50:31.222981 11188 net.cpp:425] hdf5out <- label_data_1_split_0
I0403 14:50:31.225118 11188 net.cpp:141] Setting up hdf5out
…
