…
I0403 14:47:38.281492 11118 net.cpp:313] The NetState phase (1) differed from the phase (0) specified by a rule in layer data
I0403 14:47:38.281790 11118 net.cpp:49] Initializing net from parameters: 
state {
  phase: TEST
}
layer {
  name: "data"
  type: "Data"
  top: "data"
  top: "label"
  include {
    phase: TEST
  }
  transform_param {
    crop_size: 227
    mean_file: "/home/mohanty/data/final_dataset/lmdb/grayscale-50-50/mean.binaryproto"
  }
  data_param {
    source: "/home/mohanty/data/final_dataset/lmdb/grayscale-50-50/test_db"
    batch_size: 100
    backend: LMDB
  }
}
layer {
  name: "conv1"
  type: "Convolution"
  bottom: "data"
  top: "conv1"
  param {
    lr_mult: 1
    decay_mult: 1
  }
  param {
    lr_mult: 2
    decay_mult: 0
  }
  convolution_param {
    num_output: 96
    kernel_size: 11
    stride: 4
    weight_filler {
      type: "gaussian"
      std: 0.01
    }
    bias_filler {
      type: "constant"
      value: 0
    }
  }
}
layer {
  name: "relu1"
  type: "ReLU"
  bottom: "conv1"
  top: "conv1"
}
layer {
  name: "norm1"
  type: "LRN"
  bottom: "conv1"
  top: "norm1"
  lrn_param {
    local_size: 5
    alpha: 0.0001
    beta: 0.75
  }
}
layer {
  name: "pool1"
  type: "Pooling"
  bottom: "norm1"
  top: "pool1"
  pooling_param {
    pool: MAX
    kernel_size: 3
    stride: 2
  }
}
layer {
  name: "conv2"
  type: "Convolution"
  bottom: "pool1"
  top: "conv2"
  param {
    lr_mult: 1
    decay_mult: 1
  }
  param {
    lr_mult: 2
    decay_mult: 0
  }
  convolution_param {
    num_output: 256
    pad: 2
    kernel_size: 5
    group: 2
    weight_filler {
      type: "gaussian"
      std: 0.01
    }
    bias_filler {
      type: "constant"
      value: 0.1
    }
  }
}
layer {
  name: "relu2"
  type: "ReLU"
  bottom: "conv2"
  top: "conv2"
}
layer {
  name: "norm2"
  type: "LRN"
  bottom: "conv2"
  top: "norm2"
  lrn_param {
    local_size: 5
    alpha: 0.0001
    beta: 0.75
  }
}
layer {
  name: "pool2"
  type: "Pooling"
  bottom: "norm2"
  top: "pool2"
  pooling_param {
    pool: MAX
    kernel_size: 3
    stride: 2
  }
}
layer {
  name: "conv3"
  type: "Convolution"
  bottom: "pool2"
  top: "conv3"
  param {
    lr_mult: 1
    decay_mult: 1
  }
  param {
    lr_mult: 2
    decay_mult: 0
  }
  convolution_param {
    num_output: 384
    pad: 1
    kernel_size: 3
    weight_filler {
      type: "gaussian"
      std: 0.01
    }
    bias_filler {
      type: "constant"
      value: 0
    }
  }
}
layer {
  name: "relu3"
  type: "ReLU"
  bottom: "conv3"
  top: "conv3"
}
layer {
  name: "conv4"
  type: "Convolution"
  bottom: "conv3"
  top: "conv4"
  param {
    lr_mult: 1
    decay_mult: 1
  }
  param {
    lr_mult: 2
    decay_mult: 0
  }
  convolution_param {
    num_output: 384
    pad: 1
    kernel_size: 3
    group: 2
    weight_filler {
      type: "gaussian"
      std: 0.01
    }
    bias_filler {
      type: "constant"
      value: 0.1
    }
  }
}
layer {
  name: "relu4"
  type: "ReLU"
  bottom: "conv4"
  top: "conv4"
}
layer {
  name: "conv5"
  type: "Convolution"
  bottom: "conv4"
  top: "conv5"
  param {
    lr_mult: 1
    decay_mult: 1
  }
  param {
    lr_mult: 2
    decay_mult: 0
  }
  convolution_param {
    num_output: 256
    pad: 1
    kernel_size: 3
    group: 2
    weight_filler {
      type: "gaussian"
      std: 0.01
    }
    bias_filler {
      type: "constant"
      value: 0.1
    }
  }
}
layer {
  name: "relu5"
  type: "ReLU"
  bottom: "conv5"
  top: "conv5"
}
layer {
  name: "pool5"
  type: "Pooling"
  bottom: "conv5"
  top: "pool5"
  pooling_param {
    pool: MAX
    kernel_size: 3
    stride: 2
  }
}
layer {
  name: "fc6"
  type: "InnerProduct"
  bottom: "pool5"
  top: "fc6"
  param {
    lr_mult: 1
    decay_mult: 1
  }
  param {
    lr_mult: 2
    decay_mult: 0
  }
  inner_product_param {
    num_output: 4096
    weight_filler {
      type: "gaussian"
      std: 0.005
    }
    bias_filler {
      type: "constant"
      value: 0.1
    }
  }
}
layer {
  name: "relu6"
  type: "ReLU"
  bottom: "fc6"
  top: "fc6"
}
layer {
  name: "drop6"
  type: "Dropout"
  bottom: "fc6"
  top: "fc6"
  dropout_param {
    dropout_ratio: 0.5
  }
}
layer {
  name: "fc7"
  type: "InnerProduct"
  bottom: "fc6"
  top: "fc7"
  param {
    lr_mult: 1
    decay_mult: 1
  }
  param {
    lr_mult: 2
    decay_mult: 0
  }
  inner_product_param {
    num_output: 4096
    weight_filler {
      type: "gaussian"
      std: 0.005
    }
    bias_filler {
      type: "constant"
      value: 0.1
    }
  }
}
layer {
  name: "relu7"
  type: "ReLU"
  bottom: "fc7"
  top: "fc7"
}
layer {
  name: "drop7"
  type: "Dropout"
  bottom: "fc7"
  top: "fc7"
  dropout_param {
    dropout_ratio: 0.5
  }
}
layer {
  name: "fc8_plantvillage"
  type: "InnerProduct"
  bottom: "fc7"
  top: "fc8_plantvillage"
  param {
    lr_mult: 1
    decay_mult: 1
  }
  param {
    lr_mult: 2
    decay_mult: 0
  }
  inner_product_param {
    num_output: 38
    weight_filler {
      type: "gaussian"
      std: 0.01
    }
    bias_filler {
      type: "constant"
      value: 0
    }
  }
}
layer {
  name: "prob"
  type: "Softmax"
  bottom: "fc8_plantvillage"
  top: "prob"
  include {
    phase: TEST
  }
}
layer {
  name: "hdf5out"
  type: "HDF5Output"
  bottom: "prob"
  bottom: "label"
  include {
    phase: TEST
  }
  hdf5_output_param {
    file_name: "hdf5_dumps/iter_3738.h5"
  }
}
layer {
  name: "loss"
  type: "SoftmaxWithLoss"
  bottom: "fc8_plantvillage"
  bottom: "label"
  top: "loss"
}
layer {
  name: "accuracy"
  type: "Accuracy"
  bottom: "fc8_plantvillage"
  bottom: "label"
  top: "accuracy"
  include {
    phase: TEST
  }
}
I0403 14:47:38.282325 11118 layer_factory.hpp:77] Creating layer data
I0403 14:47:38.282979 11118 net.cpp:91] Creating Layer data
I0403 14:47:38.283012 11118 net.cpp:399] data -> data
I0403 14:47:38.283066 11118 net.cpp:399] data -> label
I0403 14:47:38.283103 11118 data_transformer.cpp:25] Loading mean file from: /home/mohanty/data/final_dataset/lmdb/grayscale-50-50/mean.binaryproto
I0403 14:47:38.285537 11121 db_lmdb.cpp:38] Opened lmdb /home/mohanty/data/final_dataset/lmdb/grayscale-50-50/test_db
I0403 14:47:38.297716 11118 data_layer.cpp:41] output data size: 100,3,227,227
I0403 14:47:38.420670 11118 net.cpp:141] Setting up data
I0403 14:47:38.420776 11118 net.cpp:148] Top shape: 100 3 227 227 (15458700)
I0403 14:47:38.420799 11118 net.cpp:148] Top shape: 100 (100)
I0403 14:47:38.420816 11118 net.cpp:156] Memory required for data: 61835200
I0403 14:47:38.420845 11118 layer_factory.hpp:77] Creating layer label_data_1_split
I0403 14:47:38.420871 11118 net.cpp:91] Creating Layer label_data_1_split
I0403 14:47:38.420889 11118 net.cpp:425] label_data_1_split <- label
I0403 14:47:38.420922 11118 net.cpp:399] label_data_1_split -> label_data_1_split_0
I0403 14:47:38.420950 11118 net.cpp:399] label_data_1_split -> label_data_1_split_1
I0403 14:47:38.420972 11118 net.cpp:399] label_data_1_split -> label_data_1_split_2
I0403 14:47:38.421037 11118 net.cpp:141] Setting up label_data_1_split
I0403 14:47:38.421062 11118 net.cpp:148] Top shape: 100 (100)
I0403 14:47:38.421080 11118 net.cpp:148] Top shape: 100 (100)
I0403 14:47:38.421097 11118 net.cpp:148] Top shape: 100 (100)
I0403 14:47:38.421113 11118 net.cpp:156] Memory required for data: 61836400
I0403 14:47:38.421128 11118 layer_factory.hpp:77] Creating layer conv1
I0403 14:47:38.421160 11118 net.cpp:91] Creating Layer conv1
I0403 14:47:38.421180 11118 net.cpp:425] conv1 <- data
I0403 14:47:38.421206 11118 net.cpp:399] conv1 -> conv1
I0403 14:47:38.566093 11118 net.cpp:141] Setting up conv1
I0403 14:47:38.566184 11118 net.cpp:148] Top shape: 100 96 55 55 (29040000)
I0403 14:47:38.566210 11118 net.cpp:156] Memory required for data: 177996400
I0403 14:47:38.566243 11118 layer_factory.hpp:77] Creating layer relu1
I0403 14:47:38.566272 11118 net.cpp:91] Creating Layer relu1
I0403 14:47:38.566292 11118 net.cpp:425] relu1 <- conv1
I0403 14:47:38.566311 11118 net.cpp:386] relu1 -> conv1 (in-place)
I0403 14:47:38.566584 11118 net.cpp:141] Setting up relu1
I0403 14:47:38.566613 11118 net.cpp:148] Top shape: 100 96 55 55 (29040000)
I0403 14:47:38.566664 11118 net.cpp:156] Memory required for data: 294156400
I0403 14:47:38.566682 11118 layer_factory.hpp:77] Creating layer norm1
I0403 14:47:38.566711 11118 net.cpp:91] Creating Layer norm1
I0403 14:47:38.566730 11118 net.cpp:425] norm1 <- conv1
I0403 14:47:38.566751 11118 net.cpp:399] norm1 -> norm1
I0403 14:47:38.567067 11118 net.cpp:141] Setting up norm1
I0403 14:47:38.567097 11118 net.cpp:148] Top shape: 100 96 55 55 (29040000)
I0403 14:47:38.567116 11118 net.cpp:156] Memory required for data: 410316400
I0403 14:47:38.567134 11118 layer_factory.hpp:77] Creating layer pool1
I0403 14:47:38.567159 11118 net.cpp:91] Creating Layer pool1
I0403 14:47:38.567178 11118 net.cpp:425] pool1 <- norm1
I0403 14:47:38.567203 11118 net.cpp:399] pool1 -> pool1
I0403 14:47:38.567277 11118 net.cpp:141] Setting up pool1
I0403 14:47:38.567304 11118 net.cpp:148] Top shape: 100 96 27 27 (6998400)
I0403 14:47:38.567320 11118 net.cpp:156] Memory required for data: 438310000
I0403 14:47:38.567338 11118 layer_factory.hpp:77] Creating layer conv2
I0403 14:47:38.567419 11118 net.cpp:91] Creating Layer conv2
I0403 14:47:38.567440 11118 net.cpp:425] conv2 <- pool1
I0403 14:47:38.567461 11118 net.cpp:399] conv2 -> conv2
I0403 14:47:38.583114 11118 net.cpp:141] Setting up conv2
I0403 14:47:38.583155 11118 net.cpp:148] Top shape: 100 256 27 27 (18662400)
I0403 14:47:38.583174 11118 net.cpp:156] Memory required for data: 512959600
I0403 14:47:38.583202 11118 layer_factory.hpp:77] Creating layer relu2
I0403 14:47:38.583225 11118 net.cpp:91] Creating Layer relu2
I0403 14:47:38.583242 11118 net.cpp:425] relu2 <- conv2
I0403 14:47:38.583261 11118 net.cpp:386] relu2 -> conv2 (in-place)
I0403 14:47:38.583587 11118 net.cpp:141] Setting up relu2
I0403 14:47:38.583617 11118 net.cpp:148] Top shape: 100 256 27 27 (18662400)
I0403 14:47:38.583634 11118 net.cpp:156] Memory required for data: 587609200
I0403 14:47:38.583652 11118 layer_factory.hpp:77] Creating layer norm2
I0403 14:47:38.583675 11118 net.cpp:91] Creating Layer norm2
I0403 14:47:38.583695 11118 net.cpp:425] norm2 <- conv2
I0403 14:47:38.583714 11118 net.cpp:399] norm2 -> norm2
I0403 14:47:38.583922 11118 net.cpp:141] Setting up norm2
I0403 14:47:38.583953 11118 net.cpp:148] Top shape: 100 256 27 27 (18662400)
I0403 14:47:38.583969 11118 net.cpp:156] Memory required for data: 662258800
I0403 14:47:38.583986 11118 layer_factory.hpp:77] Creating layer pool2
I0403 14:47:38.584003 11118 net.cpp:91] Creating Layer pool2
I0403 14:47:38.584020 11118 net.cpp:425] pool2 <- norm2
I0403 14:47:38.584038 11118 net.cpp:399] pool2 -> pool2
I0403 14:47:38.584095 11118 net.cpp:141] Setting up pool2
I0403 14:47:38.584120 11118 net.cpp:148] Top shape: 100 256 13 13 (4326400)
I0403 14:47:38.584136 11118 net.cpp:156] Memory required for data: 679564400
I0403 14:47:38.584152 11118 layer_factory.hpp:77] Creating layer conv3
I0403 14:47:38.584175 11118 net.cpp:91] Creating Layer conv3
I0403 14:47:38.584200 11118 net.cpp:425] conv3 <- pool2
I0403 14:47:38.584223 11118 net.cpp:399] conv3 -> conv3
I0403 14:47:38.624317 11118 net.cpp:141] Setting up conv3
I0403 14:47:38.624403 11118 net.cpp:148] Top shape: 100 384 13 13 (6489600)
I0403 14:47:38.624420 11118 net.cpp:156] Memory required for data: 705522800
I0403 14:47:38.624450 11118 layer_factory.hpp:77] Creating layer relu3
I0403 14:47:38.624475 11118 net.cpp:91] Creating Layer relu3
I0403 14:47:38.624492 11118 net.cpp:425] relu3 <- conv3
I0403 14:47:38.624516 11118 net.cpp:386] relu3 -> conv3 (in-place)
I0403 14:47:38.624801 11118 net.cpp:141] Setting up relu3
I0403 14:47:38.624872 11118 net.cpp:148] Top shape: 100 384 13 13 (6489600)
I0403 14:47:38.624893 11118 net.cpp:156] Memory required for data: 731481200
I0403 14:47:38.624910 11118 layer_factory.hpp:77] Creating layer conv4
I0403 14:47:38.624938 11118 net.cpp:91] Creating Layer conv4
I0403 14:47:38.624958 11118 net.cpp:425] conv4 <- conv3
I0403 14:47:38.624977 11118 net.cpp:399] conv4 -> conv4
I0403 14:47:38.656333 11118 net.cpp:141] Setting up conv4
I0403 14:47:38.656395 11118 net.cpp:148] Top shape: 100 384 13 13 (6489600)
I0403 14:47:38.656447 11118 net.cpp:156] Memory required for data: 757439600
I0403 14:47:38.656471 11118 layer_factory.hpp:77] Creating layer relu4
I0403 14:47:38.656497 11118 net.cpp:91] Creating Layer relu4
I0403 14:47:38.656517 11118 net.cpp:425] relu4 <- conv4
I0403 14:47:38.656536 11118 net.cpp:386] relu4 -> conv4 (in-place)
I0403 14:47:38.656831 11118 net.cpp:141] Setting up relu4
I0403 14:47:38.656858 11118 net.cpp:148] Top shape: 100 384 13 13 (6489600)
I0403 14:47:38.656874 11118 net.cpp:156] Memory required for data: 783398000
I0403 14:47:38.656891 11118 layer_factory.hpp:77] Creating layer conv5
I0403 14:47:38.656918 11118 net.cpp:91] Creating Layer conv5
I0403 14:47:38.656939 11118 net.cpp:425] conv5 <- conv4
I0403 14:47:38.656958 11118 net.cpp:399] conv5 -> conv5
I0403 14:47:38.678549 11118 net.cpp:141] Setting up conv5
I0403 14:47:38.678589 11118 net.cpp:148] Top shape: 100 256 13 13 (4326400)
I0403 14:47:38.678609 11118 net.cpp:156] Memory required for data: 800703600
I0403 14:47:38.678635 11118 layer_factory.hpp:77] Creating layer relu5
I0403 14:47:38.678658 11118 net.cpp:91] Creating Layer relu5
I0403 14:47:38.678674 11118 net.cpp:425] relu5 <- conv5
I0403 14:47:38.678692 11118 net.cpp:386] relu5 -> conv5 (in-place)
I0403 14:47:38.678983 11118 net.cpp:141] Setting up relu5
I0403 14:47:38.679015 11118 net.cpp:148] Top shape: 100 256 13 13 (4326400)
I0403 14:47:38.679033 11118 net.cpp:156] Memory required for data: 818009200
I0403 14:47:38.679049 11118 layer_factory.hpp:77] Creating layer pool5
I0403 14:47:38.679071 11118 net.cpp:91] Creating Layer pool5
I0403 14:47:38.679090 11118 net.cpp:425] pool5 <- conv5
I0403 14:47:38.679111 11118 net.cpp:399] pool5 -> pool5
I0403 14:47:38.679177 11118 net.cpp:141] Setting up pool5
I0403 14:47:38.679208 11118 net.cpp:148] Top shape: 100 256 6 6 (921600)
I0403 14:47:38.679226 11118 net.cpp:156] Memory required for data: 821695600
I0403 14:47:38.679244 11118 layer_factory.hpp:77] Creating layer fc6
I0403 14:47:38.679273 11118 net.cpp:91] Creating Layer fc6
I0403 14:47:38.679293 11118 net.cpp:425] fc6 <- pool5
I0403 14:47:38.679316 11118 net.cpp:399] fc6 -> fc6
I0403 14:47:40.260538 11118 net.cpp:141] Setting up fc6
I0403 14:47:40.260615 11118 net.cpp:148] Top shape: 100 4096 (409600)
I0403 14:47:40.260635 11118 net.cpp:156] Memory required for data: 823334000
I0403 14:47:40.260658 11118 layer_factory.hpp:77] Creating layer relu6
I0403 14:47:40.260682 11118 net.cpp:91] Creating Layer relu6
I0403 14:47:40.260702 11118 net.cpp:425] relu6 <- fc6
I0403 14:47:40.260721 11118 net.cpp:386] relu6 -> fc6 (in-place)
I0403 14:47:40.260942 11118 net.cpp:141] Setting up relu6
I0403 14:47:40.260972 11118 net.cpp:148] Top shape: 100 4096 (409600)
I0403 14:47:40.260988 11118 net.cpp:156] Memory required for data: 824972400
I0403 14:47:40.261005 11118 layer_factory.hpp:77] Creating layer drop6
I0403 14:47:40.261024 11118 net.cpp:91] Creating Layer drop6
I0403 14:47:40.261041 11118 net.cpp:425] drop6 <- fc6
I0403 14:47:40.261059 11118 net.cpp:386] drop6 -> fc6 (in-place)
I0403 14:47:40.261119 11118 net.cpp:141] Setting up drop6
I0403 14:47:40.261145 11118 net.cpp:148] Top shape: 100 4096 (409600)
I0403 14:47:40.261165 11118 net.cpp:156] Memory required for data: 826610800
I0403 14:47:40.261183 11118 layer_factory.hpp:77] Creating layer fc7
I0403 14:47:40.261206 11118 net.cpp:91] Creating Layer fc7
I0403 14:47:40.261225 11118 net.cpp:425] fc7 <- fc6
I0403 14:47:40.261243 11118 net.cpp:399] fc7 -> fc7
I0403 14:47:40.948685 11118 net.cpp:141] Setting up fc7
I0403 14:47:40.948729 11118 net.cpp:148] Top shape: 100 4096 (409600)
I0403 14:47:40.948746 11118 net.cpp:156] Memory required for data: 828249200
I0403 14:47:40.948768 11118 layer_factory.hpp:77] Creating layer relu7
I0403 14:47:40.948791 11118 net.cpp:91] Creating Layer relu7
I0403 14:47:40.948809 11118 net.cpp:425] relu7 <- fc7
I0403 14:47:40.948829 11118 net.cpp:386] relu7 -> fc7 (in-place)
I0403 14:47:40.949229 11118 net.cpp:141] Setting up relu7
I0403 14:47:40.949257 11118 net.cpp:148] Top shape: 100 4096 (409600)
I0403 14:47:40.949307 11118 net.cpp:156] Memory required for data: 829887600
I0403 14:47:40.949324 11118 layer_factory.hpp:77] Creating layer drop7
I0403 14:47:40.949342 11118 net.cpp:91] Creating Layer drop7
I0403 14:47:40.949358 11118 net.cpp:425] drop7 <- fc7
I0403 14:47:40.949375 11118 net.cpp:386] drop7 -> fc7 (in-place)
I0403 14:47:40.949420 11118 net.cpp:141] Setting up drop7
I0403 14:47:40.949443 11118 net.cpp:148] Top shape: 100 4096 (409600)
I0403 14:47:40.949457 11118 net.cpp:156] Memory required for data: 831526000
I0403 14:47:40.949471 11118 layer_factory.hpp:77] Creating layer fc8_plantvillage
I0403 14:47:40.949493 11118 net.cpp:91] Creating Layer fc8_plantvillage
I0403 14:47:40.949511 11118 net.cpp:425] fc8_plantvillage <- fc7
I0403 14:47:40.949528 11118 net.cpp:399] fc8_plantvillage -> fc8_plantvillage
I0403 14:47:40.956028 11118 net.cpp:141] Setting up fc8_plantvillage
I0403 14:47:40.956056 11118 net.cpp:148] Top shape: 100 38 (3800)
I0403 14:47:40.956073 11118 net.cpp:156] Memory required for data: 831541200
I0403 14:47:40.956090 11118 layer_factory.hpp:77] Creating layer fc8_plantvillage_fc8_plantvillage_0_split
I0403 14:47:40.956110 11118 net.cpp:91] Creating Layer fc8_plantvillage_fc8_plantvillage_0_split
I0403 14:47:40.956125 11118 net.cpp:425] fc8_plantvillage_fc8_plantvillage_0_split <- fc8_plantvillage
I0403 14:47:40.956143 11118 net.cpp:399] fc8_plantvillage_fc8_plantvillage_0_split -> fc8_plantvillage_fc8_plantvillage_0_split_0
I0403 14:47:40.956172 11118 net.cpp:399] fc8_plantvillage_fc8_plantvillage_0_split -> fc8_plantvillage_fc8_plantvillage_0_split_1
I0403 14:47:40.956195 11118 net.cpp:399] fc8_plantvillage_fc8_plantvillage_0_split -> fc8_plantvillage_fc8_plantvillage_0_split_2
I0403 14:47:40.956269 11118 net.cpp:141] Setting up fc8_plantvillage_fc8_plantvillage_0_split
I0403 14:47:40.956293 11118 net.cpp:148] Top shape: 100 38 (3800)
I0403 14:47:40.956310 11118 net.cpp:148] Top shape: 100 38 (3800)
I0403 14:47:40.956326 11118 net.cpp:148] Top shape: 100 38 (3800)
I0403 14:47:40.956339 11118 net.cpp:156] Memory required for data: 831586800
I0403 14:47:40.956356 11118 layer_factory.hpp:77] Creating layer prob
I0403 14:47:40.956373 11118 net.cpp:91] Creating Layer prob
I0403 14:47:40.956389 11118 net.cpp:425] prob <- fc8_plantvillage_fc8_plantvillage_0_split_0
I0403 14:47:40.956408 11118 net.cpp:399] prob -> prob
I0403 14:47:40.956624 11118 net.cpp:141] Setting up prob
I0403 14:47:40.956650 11118 net.cpp:148] Top shape: 100 38 (3800)
I0403 14:47:40.956665 11118 net.cpp:156] Memory required for data: 831602000
I0403 14:47:40.956678 11118 layer_factory.hpp:77] Creating layer hdf5out
I0403 14:47:40.956702 11118 net.cpp:91] Creating Layer hdf5out
I0403 14:47:40.956718 11118 net.cpp:425] hdf5out <- prob
I0403 14:47:40.956737 11118 net.cpp:425] hdf5out <- label_data_1_split_0
I0403 14:47:40.958850 11118 net.cpp:141] Setting up hdf5out
…
