…
I0403 14:42:53.832881 11016 net.cpp:313] The NetState phase (1) differed from the phase (0) specified by a rule in layer data
I0403 14:42:53.833194 11016 net.cpp:49] Initializing net from parameters: 
state {
  phase: TEST
}
layer {
  name: "data"
  type: "Data"
  top: "data"
  top: "label"
  include {
    phase: TEST
  }
  transform_param {
    crop_size: 227
    mean_file: "/home/mohanty/data/final_dataset/lmdb/grayscale-50-50/mean.binaryproto"
  }
  data_param {
    source: "/home/mohanty/data/final_dataset/lmdb/grayscale-50-50/test_db"
    batch_size: 100
    backend: LMDB
  }
}
layer {
  name: "conv1"
  type: "Convolution"
  bottom: "data"
  top: "conv1"
  param {
    lr_mult: 1
    decay_mult: 1
  }
  param {
    lr_mult: 2
    decay_mult: 0
  }
  convolution_param {
    num_output: 96
    kernel_size: 11
    stride: 4
    weight_filler {
      type: "gaussian"
      std: 0.01
    }
    bias_filler {
      type: "constant"
      value: 0
    }
  }
}
layer {
  name: "relu1"
  type: "ReLU"
  bottom: "conv1"
  top: "conv1"
}
layer {
  name: "norm1"
  type: "LRN"
  bottom: "conv1"
  top: "norm1"
  lrn_param {
    local_size: 5
    alpha: 0.0001
    beta: 0.75
  }
}
layer {
  name: "pool1"
  type: "Pooling"
  bottom: "norm1"
  top: "pool1"
  pooling_param {
    pool: MAX
    kernel_size: 3
    stride: 2
  }
}
layer {
  name: "conv2"
  type: "Convolution"
  bottom: "pool1"
  top: "conv2"
  param {
    lr_mult: 1
    decay_mult: 1
  }
  param {
    lr_mult: 2
    decay_mult: 0
  }
  convolution_param {
    num_output: 256
    pad: 2
    kernel_size: 5
    group: 2
    weight_filler {
      type: "gaussian"
      std: 0.01
    }
    bias_filler {
      type: "constant"
      value: 0.1
    }
  }
}
layer {
  name: "relu2"
  type: "ReLU"
  bottom: "conv2"
  top: "conv2"
}
layer {
  name: "norm2"
  type: "LRN"
  bottom: "conv2"
  top: "norm2"
  lrn_param {
    local_size: 5
    alpha: 0.0001
    beta: 0.75
  }
}
layer {
  name: "pool2"
  type: "Pooling"
  bottom: "norm2"
  top: "pool2"
  pooling_param {
    pool: MAX
    kernel_size: 3
    stride: 2
  }
}
layer {
  name: "conv3"
  type: "Convolution"
  bottom: "pool2"
  top: "conv3"
  param {
    lr_mult: 1
    decay_mult: 1
  }
  param {
    lr_mult: 2
    decay_mult: 0
  }
  convolution_param {
    num_output: 384
    pad: 1
    kernel_size: 3
    weight_filler {
      type: "gaussian"
      std: 0.01
    }
    bias_filler {
      type: "constant"
      value: 0
    }
  }
}
layer {
  name: "relu3"
  type: "ReLU"
  bottom: "conv3"
  top: "conv3"
}
layer {
  name: "conv4"
  type: "Convolution"
  bottom: "conv3"
  top: "conv4"
  param {
    lr_mult: 1
    decay_mult: 1
  }
  param {
    lr_mult: 2
    decay_mult: 0
  }
  convolution_param {
    num_output: 384
    pad: 1
    kernel_size: 3
    group: 2
    weight_filler {
      type: "gaussian"
      std: 0.01
    }
    bias_filler {
      type: "constant"
      value: 0.1
    }
  }
}
layer {
  name: "relu4"
  type: "ReLU"
  bottom: "conv4"
  top: "conv4"
}
layer {
  name: "conv5"
  type: "Convolution"
  bottom: "conv4"
  top: "conv5"
  param {
    lr_mult: 1
    decay_mult: 1
  }
  param {
    lr_mult: 2
    decay_mult: 0
  }
  convolution_param {
    num_output: 256
    pad: 1
    kernel_size: 3
    group: 2
    weight_filler {
      type: "gaussian"
      std: 0.01
    }
    bias_filler {
      type: "constant"
      value: 0.1
    }
  }
}
layer {
  name: "relu5"
  type: "ReLU"
  bottom: "conv5"
  top: "conv5"
}
layer {
  name: "pool5"
  type: "Pooling"
  bottom: "conv5"
  top: "pool5"
  pooling_param {
    pool: MAX
    kernel_size: 3
    stride: 2
  }
}
layer {
  name: "fc6"
  type: "InnerProduct"
  bottom: "pool5"
  top: "fc6"
  param {
    lr_mult: 1
    decay_mult: 1
  }
  param {
    lr_mult: 2
    decay_mult: 0
  }
  inner_product_param {
    num_output: 4096
    weight_filler {
      type: "gaussian"
      std: 0.005
    }
    bias_filler {
      type: "constant"
      value: 0.1
    }
  }
}
layer {
  name: "relu6"
  type: "ReLU"
  bottom: "fc6"
  top: "fc6"
}
layer {
  name: "drop6"
  type: "Dropout"
  bottom: "fc6"
  top: "fc6"
  dropout_param {
    dropout_ratio: 0.5
  }
}
layer {
  name: "fc7"
  type: "InnerProduct"
  bottom: "fc6"
  top: "fc7"
  param {
    lr_mult: 1
    decay_mult: 1
  }
  param {
    lr_mult: 2
    decay_mult: 0
  }
  inner_product_param {
    num_output: 4096
    weight_filler {
      type: "gaussian"
      std: 0.005
    }
    bias_filler {
      type: "constant"
      value: 0.1
    }
  }
}
layer {
  name: "relu7"
  type: "ReLU"
  bottom: "fc7"
  top: "fc7"
}
layer {
  name: "drop7"
  type: "Dropout"
  bottom: "fc7"
  top: "fc7"
  dropout_param {
    dropout_ratio: 0.5
  }
}
layer {
  name: "fc8_plantvillage"
  type: "InnerProduct"
  bottom: "fc7"
  top: "fc8_plantvillage"
  param {
    lr_mult: 1
    decay_mult: 1
  }
  param {
    lr_mult: 2
    decay_mult: 0
  }
  inner_product_param {
    num_output: 38
    weight_filler {
      type: "gaussian"
      std: 0.01
    }
    bias_filler {
      type: "constant"
      value: 0
    }
  }
}
layer {
  name: "prob"
  type: "Softmax"
  bottom: "fc8_plantvillage"
  top: "prob"
  include {
    phase: TEST
  }
}
layer {
  name: "hdf5out"
  type: "HDF5Output"
  bottom: "prob"
  bottom: "label"
  include {
    phase: TEST
  }
  hdf5_output_param {
    file_name: "hdf5_dumps/iter_2403.h5"
  }
}
layer {
  name: "loss"
  type: "SoftmaxWithLoss"
  bottom: "fc8_plantvillage"
  bottom: "label"
  top: "loss"
}
layer {
  name: "accuracy"
  type: "Accuracy"
  bottom: "fc8_plantvillage"
  bottom: "label"
  top: "accuracy"
  include {
    phase: TEST
  }
}
I0403 14:42:53.833717 11016 layer_factory.hpp:77] Creating layer data
I0403 14:42:53.834352 11016 net.cpp:91] Creating Layer data
I0403 14:42:53.834386 11016 net.cpp:399] data -> data
I0403 14:42:53.834437 11016 net.cpp:399] data -> label
I0403 14:42:53.834475 11016 data_transformer.cpp:25] Loading mean file from: /home/mohanty/data/final_dataset/lmdb/grayscale-50-50/mean.binaryproto
I0403 14:42:53.836953 11019 db_lmdb.cpp:38] Opened lmdb /home/mohanty/data/final_dataset/lmdb/grayscale-50-50/test_db
I0403 14:42:53.849017 11016 data_layer.cpp:41] output data size: 100,3,227,227
I0403 14:42:53.968377 11016 net.cpp:141] Setting up data
I0403 14:42:53.968442 11016 net.cpp:148] Top shape: 100 3 227 227 (15458700)
I0403 14:42:53.968466 11016 net.cpp:148] Top shape: 100 (100)
I0403 14:42:53.968483 11016 net.cpp:156] Memory required for data: 61835200
I0403 14:42:53.968513 11016 layer_factory.hpp:77] Creating layer label_data_1_split
I0403 14:42:53.968538 11016 net.cpp:91] Creating Layer label_data_1_split
I0403 14:42:53.968557 11016 net.cpp:425] label_data_1_split <- label
I0403 14:42:53.968590 11016 net.cpp:399] label_data_1_split -> label_data_1_split_0
I0403 14:42:53.968616 11016 net.cpp:399] label_data_1_split -> label_data_1_split_1
I0403 14:42:53.968639 11016 net.cpp:399] label_data_1_split -> label_data_1_split_2
I0403 14:42:53.968704 11016 net.cpp:141] Setting up label_data_1_split
I0403 14:42:53.968730 11016 net.cpp:148] Top shape: 100 (100)
I0403 14:42:53.968749 11016 net.cpp:148] Top shape: 100 (100)
I0403 14:42:53.968765 11016 net.cpp:148] Top shape: 100 (100)
I0403 14:42:53.968781 11016 net.cpp:156] Memory required for data: 61836400
I0403 14:42:53.968797 11016 layer_factory.hpp:77] Creating layer conv1
I0403 14:42:53.968832 11016 net.cpp:91] Creating Layer conv1
I0403 14:42:53.968853 11016 net.cpp:425] conv1 <- data
I0403 14:42:53.968873 11016 net.cpp:399] conv1 -> conv1
I0403 14:42:54.109169 11016 net.cpp:141] Setting up conv1
I0403 14:42:54.109268 11016 net.cpp:148] Top shape: 100 96 55 55 (29040000)
I0403 14:42:54.109287 11016 net.cpp:156] Memory required for data: 177996400
I0403 14:42:54.109318 11016 layer_factory.hpp:77] Creating layer relu1
I0403 14:42:54.109345 11016 net.cpp:91] Creating Layer relu1
I0403 14:42:54.109364 11016 net.cpp:425] relu1 <- conv1
I0403 14:42:54.109386 11016 net.cpp:386] relu1 -> conv1 (in-place)
I0403 14:42:54.109660 11016 net.cpp:141] Setting up relu1
I0403 14:42:54.109690 11016 net.cpp:148] Top shape: 100 96 55 55 (29040000)
I0403 14:42:54.109737 11016 net.cpp:156] Memory required for data: 294156400
I0403 14:42:54.109755 11016 layer_factory.hpp:77] Creating layer norm1
I0403 14:42:54.109784 11016 net.cpp:91] Creating Layer norm1
I0403 14:42:54.109804 11016 net.cpp:425] norm1 <- conv1
I0403 14:42:54.109825 11016 net.cpp:399] norm1 -> norm1
I0403 14:42:54.110149 11016 net.cpp:141] Setting up norm1
I0403 14:42:54.110182 11016 net.cpp:148] Top shape: 100 96 55 55 (29040000)
I0403 14:42:54.110205 11016 net.cpp:156] Memory required for data: 410316400
I0403 14:42:54.110222 11016 layer_factory.hpp:77] Creating layer pool1
I0403 14:42:54.110246 11016 net.cpp:91] Creating Layer pool1
I0403 14:42:54.110265 11016 net.cpp:425] pool1 <- norm1
I0403 14:42:54.110334 11016 net.cpp:399] pool1 -> pool1
I0403 14:42:54.110411 11016 net.cpp:141] Setting up pool1
I0403 14:42:54.110436 11016 net.cpp:148] Top shape: 100 96 27 27 (6998400)
I0403 14:42:54.110451 11016 net.cpp:156] Memory required for data: 438310000
I0403 14:42:54.110466 11016 layer_factory.hpp:77] Creating layer conv2
I0403 14:42:54.110493 11016 net.cpp:91] Creating Layer conv2
I0403 14:42:54.110510 11016 net.cpp:425] conv2 <- pool1
I0403 14:42:54.110532 11016 net.cpp:399] conv2 -> conv2
I0403 14:42:54.125643 11016 net.cpp:141] Setting up conv2
I0403 14:42:54.125691 11016 net.cpp:148] Top shape: 100 256 27 27 (18662400)
I0403 14:42:54.125710 11016 net.cpp:156] Memory required for data: 512959600
I0403 14:42:54.125735 11016 layer_factory.hpp:77] Creating layer relu2
I0403 14:42:54.125756 11016 net.cpp:91] Creating Layer relu2
I0403 14:42:54.125807 11016 net.cpp:425] relu2 <- conv2
I0403 14:42:54.125828 11016 net.cpp:386] relu2 -> conv2 (in-place)
I0403 14:42:54.126114 11016 net.cpp:141] Setting up relu2
I0403 14:42:54.126144 11016 net.cpp:148] Top shape: 100 256 27 27 (18662400)
I0403 14:42:54.126160 11016 net.cpp:156] Memory required for data: 587609200
I0403 14:42:54.126197 11016 layer_factory.hpp:77] Creating layer norm2
I0403 14:42:54.126224 11016 net.cpp:91] Creating Layer norm2
I0403 14:42:54.126243 11016 net.cpp:425] norm2 <- conv2
I0403 14:42:54.126263 11016 net.cpp:399] norm2 -> norm2
I0403 14:42:54.126483 11016 net.cpp:141] Setting up norm2
I0403 14:42:54.126514 11016 net.cpp:148] Top shape: 100 256 27 27 (18662400)
I0403 14:42:54.126533 11016 net.cpp:156] Memory required for data: 662258800
I0403 14:42:54.126549 11016 layer_factory.hpp:77] Creating layer pool2
I0403 14:42:54.126567 11016 net.cpp:91] Creating Layer pool2
I0403 14:42:54.126585 11016 net.cpp:425] pool2 <- norm2
I0403 14:42:54.126602 11016 net.cpp:399] pool2 -> pool2
I0403 14:42:54.126657 11016 net.cpp:141] Setting up pool2
I0403 14:42:54.126682 11016 net.cpp:148] Top shape: 100 256 13 13 (4326400)
I0403 14:42:54.126699 11016 net.cpp:156] Memory required for data: 679564400
I0403 14:42:54.126714 11016 layer_factory.hpp:77] Creating layer conv3
I0403 14:42:54.126737 11016 net.cpp:91] Creating Layer conv3
I0403 14:42:54.126755 11016 net.cpp:425] conv3 <- pool2
I0403 14:42:54.126776 11016 net.cpp:399] conv3 -> conv3
I0403 14:42:54.165796 11016 net.cpp:141] Setting up conv3
I0403 14:42:54.165884 11016 net.cpp:148] Top shape: 100 384 13 13 (6489600)
I0403 14:42:54.165902 11016 net.cpp:156] Memory required for data: 705522800
I0403 14:42:54.165931 11016 layer_factory.hpp:77] Creating layer relu3
I0403 14:42:54.165953 11016 net.cpp:91] Creating Layer relu3
I0403 14:42:54.165971 11016 net.cpp:425] relu3 <- conv3
I0403 14:42:54.165993 11016 net.cpp:386] relu3 -> conv3 (in-place)
I0403 14:42:54.166272 11016 net.cpp:141] Setting up relu3
I0403 14:42:54.166302 11016 net.cpp:148] Top shape: 100 384 13 13 (6489600)
I0403 14:42:54.166321 11016 net.cpp:156] Memory required for data: 731481200
I0403 14:42:54.166337 11016 layer_factory.hpp:77] Creating layer conv4
I0403 14:42:54.166362 11016 net.cpp:91] Creating Layer conv4
I0403 14:42:54.166381 11016 net.cpp:425] conv4 <- conv3
I0403 14:42:54.166400 11016 net.cpp:399] conv4 -> conv4
I0403 14:42:54.196298 11016 net.cpp:141] Setting up conv4
I0403 14:42:54.196346 11016 net.cpp:148] Top shape: 100 384 13 13 (6489600)
I0403 14:42:54.196406 11016 net.cpp:156] Memory required for data: 757439600
I0403 14:42:54.196429 11016 layer_factory.hpp:77] Creating layer relu4
I0403 14:42:54.196455 11016 net.cpp:91] Creating Layer relu4
I0403 14:42:54.196473 11016 net.cpp:425] relu4 <- conv4
I0403 14:42:54.196493 11016 net.cpp:386] relu4 -> conv4 (in-place)
I0403 14:42:54.196784 11016 net.cpp:141] Setting up relu4
I0403 14:42:54.196812 11016 net.cpp:148] Top shape: 100 384 13 13 (6489600)
I0403 14:42:54.196828 11016 net.cpp:156] Memory required for data: 783398000
I0403 14:42:54.196844 11016 layer_factory.hpp:77] Creating layer conv5
I0403 14:42:54.196871 11016 net.cpp:91] Creating Layer conv5
I0403 14:42:54.196888 11016 net.cpp:425] conv5 <- conv4
I0403 14:42:54.196907 11016 net.cpp:399] conv5 -> conv5
I0403 14:42:54.217842 11016 net.cpp:141] Setting up conv5
I0403 14:42:54.217890 11016 net.cpp:148] Top shape: 100 256 13 13 (4326400)
I0403 14:42:54.217911 11016 net.cpp:156] Memory required for data: 800703600
I0403 14:42:54.217937 11016 layer_factory.hpp:77] Creating layer relu5
I0403 14:42:54.217957 11016 net.cpp:91] Creating Layer relu5
I0403 14:42:54.217974 11016 net.cpp:425] relu5 <- conv5
I0403 14:42:54.217994 11016 net.cpp:386] relu5 -> conv5 (in-place)
I0403 14:42:54.218284 11016 net.cpp:141] Setting up relu5
I0403 14:42:54.218317 11016 net.cpp:148] Top shape: 100 256 13 13 (4326400)
I0403 14:42:54.218335 11016 net.cpp:156] Memory required for data: 818009200
I0403 14:42:54.218353 11016 layer_factory.hpp:77] Creating layer pool5
I0403 14:42:54.218376 11016 net.cpp:91] Creating Layer pool5
I0403 14:42:54.218394 11016 net.cpp:425] pool5 <- conv5
I0403 14:42:54.218415 11016 net.cpp:399] pool5 -> pool5
I0403 14:42:54.218478 11016 net.cpp:141] Setting up pool5
I0403 14:42:54.218504 11016 net.cpp:148] Top shape: 100 256 6 6 (921600)
I0403 14:42:54.218520 11016 net.cpp:156] Memory required for data: 821695600
I0403 14:42:54.218538 11016 layer_factory.hpp:77] Creating layer fc6
I0403 14:42:54.218567 11016 net.cpp:91] Creating Layer fc6
I0403 14:42:54.218586 11016 net.cpp:425] fc6 <- pool5
I0403 14:42:54.218610 11016 net.cpp:399] fc6 -> fc6
I0403 14:42:55.775270 11016 net.cpp:141] Setting up fc6
I0403 14:42:55.775347 11016 net.cpp:148] Top shape: 100 4096 (409600)
I0403 14:42:55.775363 11016 net.cpp:156] Memory required for data: 823334000
I0403 14:42:55.775384 11016 layer_factory.hpp:77] Creating layer relu6
I0403 14:42:55.775408 11016 net.cpp:91] Creating Layer relu6
I0403 14:42:55.775426 11016 net.cpp:425] relu6 <- fc6
I0403 14:42:55.775447 11016 net.cpp:386] relu6 -> fc6 (in-place)
I0403 14:42:55.775660 11016 net.cpp:141] Setting up relu6
I0403 14:42:55.775687 11016 net.cpp:148] Top shape: 100 4096 (409600)
I0403 14:42:55.775703 11016 net.cpp:156] Memory required for data: 824972400
I0403 14:42:55.775718 11016 layer_factory.hpp:77] Creating layer drop6
I0403 14:42:55.775737 11016 net.cpp:91] Creating Layer drop6
I0403 14:42:55.775753 11016 net.cpp:425] drop6 <- fc6
I0403 14:42:55.775769 11016 net.cpp:386] drop6 -> fc6 (in-place)
I0403 14:42:55.775820 11016 net.cpp:141] Setting up drop6
I0403 14:42:55.775845 11016 net.cpp:148] Top shape: 100 4096 (409600)
I0403 14:42:55.775858 11016 net.cpp:156] Memory required for data: 826610800
I0403 14:42:55.775873 11016 layer_factory.hpp:77] Creating layer fc7
I0403 14:42:55.775895 11016 net.cpp:91] Creating Layer fc7
I0403 14:42:55.775913 11016 net.cpp:425] fc7 <- fc6
I0403 14:42:55.775930 11016 net.cpp:399] fc7 -> fc7
I0403 14:42:56.454448 11016 net.cpp:141] Setting up fc7
I0403 14:42:56.454507 11016 net.cpp:148] Top shape: 100 4096 (409600)
I0403 14:42:56.454524 11016 net.cpp:156] Memory required for data: 828249200
I0403 14:42:56.454545 11016 layer_factory.hpp:77] Creating layer relu7
I0403 14:42:56.454568 11016 net.cpp:91] Creating Layer relu7
I0403 14:42:56.454587 11016 net.cpp:425] relu7 <- fc7
I0403 14:42:56.454608 11016 net.cpp:386] relu7 -> fc7 (in-place)
I0403 14:42:56.455006 11016 net.cpp:141] Setting up relu7
I0403 14:42:56.455035 11016 net.cpp:148] Top shape: 100 4096 (409600)
I0403 14:42:56.455085 11016 net.cpp:156] Memory required for data: 829887600
I0403 14:42:56.455102 11016 layer_factory.hpp:77] Creating layer drop7
I0403 14:42:56.455121 11016 net.cpp:91] Creating Layer drop7
I0403 14:42:56.455137 11016 net.cpp:425] drop7 <- fc7
I0403 14:42:56.455157 11016 net.cpp:386] drop7 -> fc7 (in-place)
I0403 14:42:56.455205 11016 net.cpp:141] Setting up drop7
I0403 14:42:56.455229 11016 net.cpp:148] Top shape: 100 4096 (409600)
I0403 14:42:56.455243 11016 net.cpp:156] Memory required for data: 831526000
I0403 14:42:56.455258 11016 layer_factory.hpp:77] Creating layer fc8_plantvillage
I0403 14:42:56.455281 11016 net.cpp:91] Creating Layer fc8_plantvillage
I0403 14:42:56.455297 11016 net.cpp:425] fc8_plantvillage <- fc7
I0403 14:42:56.455315 11016 net.cpp:399] fc8_plantvillage -> fc8_plantvillage
I0403 14:42:56.462069 11016 net.cpp:141] Setting up fc8_plantvillage
I0403 14:42:56.462098 11016 net.cpp:148] Top shape: 100 38 (3800)
I0403 14:42:56.462115 11016 net.cpp:156] Memory required for data: 831541200
I0403 14:42:56.462133 11016 layer_factory.hpp:77] Creating layer fc8_plantvillage_fc8_plantvillage_0_split
I0403 14:42:56.462152 11016 net.cpp:91] Creating Layer fc8_plantvillage_fc8_plantvillage_0_split
I0403 14:42:56.462167 11016 net.cpp:425] fc8_plantvillage_fc8_plantvillage_0_split <- fc8_plantvillage
I0403 14:42:56.462185 11016 net.cpp:399] fc8_plantvillage_fc8_plantvillage_0_split -> fc8_plantvillage_fc8_plantvillage_0_split_0
I0403 14:42:56.462221 11016 net.cpp:399] fc8_plantvillage_fc8_plantvillage_0_split -> fc8_plantvillage_fc8_plantvillage_0_split_1
I0403 14:42:56.462244 11016 net.cpp:399] fc8_plantvillage_fc8_plantvillage_0_split -> fc8_plantvillage_fc8_plantvillage_0_split_2
I0403 14:42:56.462321 11016 net.cpp:141] Setting up fc8_plantvillage_fc8_plantvillage_0_split
I0403 14:42:56.462345 11016 net.cpp:148] Top shape: 100 38 (3800)
I0403 14:42:56.462363 11016 net.cpp:148] Top shape: 100 38 (3800)
I0403 14:42:56.462379 11016 net.cpp:148] Top shape: 100 38 (3800)
I0403 14:42:56.462393 11016 net.cpp:156] Memory required for data: 831586800
I0403 14:42:56.462409 11016 layer_factory.hpp:77] Creating layer prob
I0403 14:42:56.462426 11016 net.cpp:91] Creating Layer prob
I0403 14:42:56.462442 11016 net.cpp:425] prob <- fc8_plantvillage_fc8_plantvillage_0_split_0
I0403 14:42:56.462460 11016 net.cpp:399] prob -> prob
I0403 14:42:56.462684 11016 net.cpp:141] Setting up prob
I0403 14:42:56.462710 11016 net.cpp:148] Top shape: 100 38 (3800)
I0403 14:42:56.462725 11016 net.cpp:156] Memory required for data: 831602000
I0403 14:42:56.462739 11016 layer_factory.hpp:77] Creating layer hdf5out
I0403 14:42:56.462764 11016 net.cpp:91] Creating Layer hdf5out
I0403 14:42:56.462781 11016 net.cpp:425] hdf5out <- prob
I0403 14:42:56.462798 11016 net.cpp:425] hdf5out <- label_data_1_split_0
I0403 14:42:56.465100 11016 net.cpp:141] Setting up hdf5out
…
