…
I0403 02:30:37.043555 32196 net.cpp:313] The NetState phase (0) differed from the phase (1) specified by a rule in layer accuracy
I0403 02:30:37.044422 32196 net.cpp:49] Initializing net from parameters: 
state {
  phase: TRAIN
}
layer {
  name: "data"
  type: "Data"
  top: "data"
  top: "label"
  include {
    phase: TRAIN
  }
  transform_param {
    mirror: true
    crop_size: 227
    mean_file: "/home/mohanty/data/final_dataset/lmdb/color-60-40/mean.binaryproto"
  }
  data_param {
    source: "/home/mohanty/data/final_dataset/lmdb/color-60-40/train_db"
    batch_size: 100
    backend: LMDB
  }
}
layer {
  name: "conv1"
  type: "Convolution"
  bottom: "data"
  top: "conv1"
  param {
    lr_mult: 1
    decay_mult: 1
  }
  param {
    lr_mult: 2
    decay_mult: 0
  }
  convolution_param {
    num_output: 96
    kernel_size: 11
    stride: 4
    weight_filler {
      type: "gaussian"
      std: 0.01
    }
    bias_filler {
      type: "constant"
      value: 0
    }
  }
}
layer {
  name: "relu1"
  type: "ReLU"
  bottom: "conv1"
  top: "conv1"
}
layer {
  name: "norm1"
  type: "LRN"
  bottom: "conv1"
  top: "norm1"
  lrn_param {
    local_size: 5
    alpha: 0.0001
    beta: 0.75
  }
}
layer {
  name: "pool1"
  type: "Pooling"
  bottom: "norm1"
  top: "pool1"
  pooling_param {
    pool: MAX
    kernel_size: 3
    stride: 2
  }
}
layer {
  name: "conv2"
  type: "Convolution"
  bottom: "pool1"
  top: "conv2"
  param {
    lr_mult: 1
    decay_mult: 1
  }
  param {
    lr_mult: 2
    decay_mult: 0
  }
  convolution_param {
    num_output: 256
    pad: 2
    kernel_size: 5
    group: 2
    weight_filler {
      type: "gaussian"
      std: 0.01
    }
    bias_filler {
      type: "constant"
      value: 0.1
    }
  }
}
layer {
  name: "relu2"
  type: "ReLU"
  bottom: "conv2"
  top: "conv2"
}
layer {
  name: "norm2"
  type: "LRN"
  bottom: "conv2"
  top: "norm2"
  lrn_param {
    local_size: 5
    alpha: 0.0001
    beta: 0.75
  }
}
layer {
  name: "pool2"
  type: "Pooling"
  bottom: "norm2"
  top: "pool2"
  pooling_param {
    pool: MAX
    kernel_size: 3
    stride: 2
  }
}
layer {
  name: "conv3"
  type: "Convolution"
  bottom: "pool2"
  top: "conv3"
  param {
    lr_mult: 1
    decay_mult: 1
  }
  param {
    lr_mult: 2
    decay_mult: 0
  }
  convolution_param {
    num_output: 384
    pad: 1
    kernel_size: 3
    weight_filler {
      type: "gaussian"
      std: 0.01
    }
    bias_filler {
      type: "constant"
      value: 0
    }
  }
}
layer {
  name: "relu3"
  type: "ReLU"
  bottom: "conv3"
  top: "conv3"
}
layer {
  name: "conv4"
  type: "Convolution"
  bottom: "conv3"
  top: "conv4"
  param {
    lr_mult: 1
    decay_mult: 1
  }
  param {
    lr_mult: 2
    decay_mult: 0
  }
  convolution_param {
    num_output: 384
    pad: 1
    kernel_size: 3
    group: 2
    weight_filler {
      type: "gaussian"
      std: 0.01
    }
    bias_filler {
      type: "constant"
      value: 0.1
    }
  }
}
layer {
  name: "relu4"
  type: "ReLU"
  bottom: "conv4"
  top: "conv4"
}
layer {
  name: "conv5"
  type: "Convolution"
  bottom: "conv4"
  top: "conv5"
  param {
    lr_mult: 1
    decay_mult: 1
  }
  param {
    lr_mult: 2
    decay_mult: 0
  }
  convolution_param {
    num_output: 256
    pad: 1
    kernel_size: 3
    group: 2
    weight_filler {
      type: "gaussian"
      std: 0.01
    }
    bias_filler {
      type: "constant"
      value: 0.1
    }
  }
}
layer {
  name: "relu5"
  type: "ReLU"
  bottom: "conv5"
  top: "conv5"
}
layer {
  name: "pool5"
  type: "Pooling"
  bottom: "conv5"
  top: "pool5"
  pooling_param {
    pool: MAX
    kernel_size: 3
    stride: 2
  }
}
layer {
  name: "fc6"
  type: "InnerProduct"
  bottom: "pool5"
  top: "fc6"
  param {
    lr_mult: 1
    decay_mult: 1
  }
  param {
    lr_mult: 2
    decay_mult: 0
  }
  inner_product_param {
    num_output: 4096
    weight_filler {
      type: "gaussian"
      std: 0.005
    }
    bias_filler {
      type: "constant"
      value: 0.1
    }
  }
}
layer {
  name: "relu6"
  type: "ReLU"
  bottom: "fc6"
  top: "fc6"
}
layer {
  name: "drop6"
  type: "Dropout"
  bottom: "fc6"
  top: "fc6"
  dropout_param {
    dropout_ratio: 0.5
  }
}
layer {
  name: "fc7"
  type: "InnerProduct"
  bottom: "fc6"
  top: "fc7"
  param {
    lr_mult: 1
    decay_mult: 1
  }
  param {
    lr_mult: 2
    decay_mult: 0
  }
  inner_product_param {
    num_output: 4096
    weight_filler {
      type: "gaussian"
      std: 0.005
    }
    bias_filler {
      type: "constant"
      value: 0.1
    }
  }
}
layer {
  name: "relu7"
  type: "ReLU"
  bottom: "fc7"
  top: "fc7"
}
layer {
  name: "drop7"
  type: "Dropout"
  bottom: "fc7"
  top: "fc7"
  dropout_param {
    dropout_ratio: 0.5
  }
}
layer {
  name: "fc8_plantvillage"
  type: "InnerProduct"
  bottom: "fc7"
  top: "fc8_plantvillage"
  param {
    lr_mult: 1
    decay_mult: 1
  }
  param {
    lr_mult: 2
    decay_mult: 0
  }
  inner_product_param {
    num_output: 38
    weight_filler {
      type: "gaussian"
      std: 0.01
    }
    bias_filler {
      type: "constant"
      value: 0
    }
  }
}
layer {
  name: "loss"
  type: "SoftmaxWithLoss"
  bottom: "fc8_plantvillage"
  bottom: "label"
  top: "loss"
}
I0403 02:30:37.046617 32196 layer_factory.hpp:77] Creating layer data
I0403 02:30:37.047629 32196 net.cpp:91] Creating Layer data
I0403 02:30:37.047705 32196 net.cpp:399] data -> data
I0403 02:30:37.047842 32196 net.cpp:399] data -> label
I0403 02:30:37.047919 32196 data_transformer.cpp:25] Loading mean file from: /home/mohanty/data/final_dataset/lmdb/color-60-40/mean.binaryproto
I0403 02:30:37.096025 32203 db_lmdb.cpp:38] Opened lmdb /home/mohanty/data/final_dataset/lmdb/color-60-40/train_db
I0403 02:30:37.117033 32196 data_layer.cpp:41] output data size: 100,3,227,227
I0403 02:30:37.255220 32196 net.cpp:141] Setting up data
I0403 02:30:37.255321 32196 net.cpp:148] Top shape: 100 3 227 227 (15458700)
I0403 02:30:37.255347 32196 net.cpp:148] Top shape: 100 (100)
I0403 02:30:37.255365 32196 net.cpp:156] Memory required for data: 61835200
I0403 02:30:37.255403 32196 layer_factory.hpp:77] Creating layer conv1
I0403 02:30:37.255453 32196 net.cpp:91] Creating Layer conv1
I0403 02:30:37.255480 32196 net.cpp:425] conv1 <- data
I0403 02:30:37.255517 32196 net.cpp:399] conv1 -> conv1
I0403 02:30:37.258755 32196 net.cpp:141] Setting up conv1
I0403 02:30:37.258795 32196 net.cpp:148] Top shape: 100 96 55 55 (29040000)
I0403 02:30:37.258816 32196 net.cpp:156] Memory required for data: 177995200
I0403 02:30:37.258862 32196 layer_factory.hpp:77] Creating layer relu1
I0403 02:30:37.258929 32196 net.cpp:91] Creating Layer relu1
I0403 02:30:37.258955 32196 net.cpp:425] relu1 <- conv1
I0403 02:30:37.258976 32196 net.cpp:386] relu1 -> conv1 (in-place)
I0403 02:30:37.259006 32196 net.cpp:141] Setting up relu1
I0403 02:30:37.259032 32196 net.cpp:148] Top shape: 100 96 55 55 (29040000)
I0403 02:30:37.259049 32196 net.cpp:156] Memory required for data: 294155200
I0403 02:30:37.259068 32196 layer_factory.hpp:77] Creating layer norm1
I0403 02:30:37.259093 32196 net.cpp:91] Creating Layer norm1
I0403 02:30:37.259153 32196 net.cpp:425] norm1 <- conv1
I0403 02:30:37.259179 32196 net.cpp:399] norm1 -> norm1
I0403 02:30:37.264772 32196 net.cpp:141] Setting up norm1
I0403 02:30:37.264804 32196 net.cpp:148] Top shape: 100 96 55 55 (29040000)
I0403 02:30:37.264823 32196 net.cpp:156] Memory required for data: 410315200
I0403 02:30:37.264842 32196 layer_factory.hpp:77] Creating layer pool1
I0403 02:30:37.264869 32196 net.cpp:91] Creating Layer pool1
I0403 02:30:37.264889 32196 net.cpp:425] pool1 <- norm1
I0403 02:30:37.264912 32196 net.cpp:399] pool1 -> pool1
I0403 02:30:37.264986 32196 net.cpp:141] Setting up pool1
I0403 02:30:37.265017 32196 net.cpp:148] Top shape: 100 96 27 27 (6998400)
I0403 02:30:37.265034 32196 net.cpp:156] Memory required for data: 438308800
I0403 02:30:37.265050 32196 layer_factory.hpp:77] Creating layer conv2
I0403 02:30:37.265079 32196 net.cpp:91] Creating Layer conv2
I0403 02:30:37.265100 32196 net.cpp:425] conv2 <- pool1
I0403 02:30:37.265141 32196 net.cpp:399] conv2 -> conv2
I0403 02:30:37.266922 32206 blocking_queue.cpp:50] Waiting for data
I0403 02:30:37.281805 32196 net.cpp:141] Setting up conv2
I0403 02:30:37.281842 32196 net.cpp:148] Top shape: 100 256 27 27 (18662400)
I0403 02:30:37.281862 32196 net.cpp:156] Memory required for data: 512958400
I0403 02:30:37.281889 32196 layer_factory.hpp:77] Creating layer relu2
I0403 02:30:37.281915 32196 net.cpp:91] Creating Layer relu2
I0403 02:30:37.281935 32196 net.cpp:425] relu2 <- conv2
I0403 02:30:37.281957 32196 net.cpp:386] relu2 -> conv2 (in-place)
I0403 02:30:37.281981 32196 net.cpp:141] Setting up relu2
I0403 02:30:37.282003 32196 net.cpp:148] Top shape: 100 256 27 27 (18662400)
I0403 02:30:37.282021 32196 net.cpp:156] Memory required for data: 587608000
I0403 02:30:37.282039 32196 layer_factory.hpp:77] Creating layer norm2
I0403 02:30:37.282061 32196 net.cpp:91] Creating Layer norm2
I0403 02:30:37.282081 32196 net.cpp:425] norm2 <- conv2
I0403 02:30:37.282104 32196 net.cpp:399] norm2 -> norm2
I0403 02:30:37.282166 32196 net.cpp:141] Setting up norm2
I0403 02:30:37.282194 32196 net.cpp:148] Top shape: 100 256 27 27 (18662400)
I0403 02:30:37.282213 32196 net.cpp:156] Memory required for data: 662257600
I0403 02:30:37.282232 32196 layer_factory.hpp:77] Creating layer pool2
I0403 02:30:37.282255 32196 net.cpp:91] Creating Layer pool2
I0403 02:30:37.282275 32196 net.cpp:425] pool2 <- norm2
I0403 02:30:37.282297 32196 net.cpp:399] pool2 -> pool2
I0403 02:30:37.282351 32196 net.cpp:141] Setting up pool2
I0403 02:30:37.282379 32196 net.cpp:148] Top shape: 100 256 13 13 (4326400)
I0403 02:30:37.282397 32196 net.cpp:156] Memory required for data: 679563200
I0403 02:30:37.282415 32196 layer_factory.hpp:77] Creating layer conv3
I0403 02:30:37.282441 32196 net.cpp:91] Creating Layer conv3
I0403 02:30:37.282461 32196 net.cpp:425] conv3 <- pool2
I0403 02:30:37.282486 32196 net.cpp:399] conv3 -> conv3
I0403 02:30:37.324208 32196 net.cpp:141] Setting up conv3
I0403 02:30:37.324250 32196 net.cpp:148] Top shape: 100 384 13 13 (6489600)
I0403 02:30:37.324271 32196 net.cpp:156] Memory required for data: 705521600
I0403 02:30:37.324300 32196 layer_factory.hpp:77] Creating layer relu3
I0403 02:30:37.324324 32196 net.cpp:91] Creating Layer relu3
I0403 02:30:37.324347 32196 net.cpp:425] relu3 <- conv3
I0403 02:30:37.324368 32196 net.cpp:386] relu3 -> conv3 (in-place)
I0403 02:30:37.324393 32196 net.cpp:141] Setting up relu3
I0403 02:30:37.324414 32196 net.cpp:148] Top shape: 100 384 13 13 (6489600)
I0403 02:30:37.324432 32196 net.cpp:156] Memory required for data: 731480000
I0403 02:30:37.324450 32196 layer_factory.hpp:77] Creating layer conv4
I0403 02:30:37.324478 32196 net.cpp:91] Creating Layer conv4
I0403 02:30:37.324501 32196 net.cpp:425] conv4 <- conv3
I0403 02:30:37.324523 32196 net.cpp:399] conv4 -> conv4
I0403 02:30:37.355906 32196 net.cpp:141] Setting up conv4
I0403 02:30:37.355945 32196 net.cpp:148] Top shape: 100 384 13 13 (6489600)
I0403 02:30:37.355965 32196 net.cpp:156] Memory required for data: 757438400
I0403 02:30:37.355986 32196 layer_factory.hpp:77] Creating layer relu4
I0403 02:30:37.356031 32196 net.cpp:91] Creating Layer relu4
I0403 02:30:37.356052 32196 net.cpp:425] relu4 <- conv4
I0403 02:30:37.356076 32196 net.cpp:386] relu4 -> conv4 (in-place)
I0403 02:30:37.356101 32196 net.cpp:141] Setting up relu4
I0403 02:30:37.356122 32196 net.cpp:148] Top shape: 100 384 13 13 (6489600)
I0403 02:30:37.356144 32196 net.cpp:156] Memory required for data: 783396800
I0403 02:30:37.356164 32196 layer_factory.hpp:77] Creating layer conv5
I0403 02:30:37.356192 32196 net.cpp:91] Creating Layer conv5
I0403 02:30:37.356214 32196 net.cpp:425] conv5 <- conv4
I0403 02:30:37.356237 32196 net.cpp:399] conv5 -> conv5
I0403 02:30:37.377279 32196 net.cpp:141] Setting up conv5
I0403 02:30:37.377320 32196 net.cpp:148] Top shape: 100 256 13 13 (4326400)
I0403 02:30:37.377339 32196 net.cpp:156] Memory required for data: 800702400
I0403 02:30:37.377367 32196 layer_factory.hpp:77] Creating layer relu5
I0403 02:30:37.377395 32196 net.cpp:91] Creating Layer relu5
I0403 02:30:37.377418 32196 net.cpp:425] relu5 <- conv5
I0403 02:30:37.377440 32196 net.cpp:386] relu5 -> conv5 (in-place)
I0403 02:30:37.377465 32196 net.cpp:141] Setting up relu5
I0403 02:30:37.377485 32196 net.cpp:148] Top shape: 100 256 13 13 (4326400)
I0403 02:30:37.377502 32196 net.cpp:156] Memory required for data: 818008000
I0403 02:30:37.377519 32196 layer_factory.hpp:77] Creating layer pool5
I0403 02:30:37.377542 32196 net.cpp:91] Creating Layer pool5
I0403 02:30:37.377560 32196 net.cpp:425] pool5 <- conv5
I0403 02:30:37.377583 32196 net.cpp:399] pool5 -> pool5
I0403 02:30:37.377645 32196 net.cpp:141] Setting up pool5
I0403 02:30:37.377674 32196 net.cpp:148] Top shape: 100 256 6 6 (921600)
I0403 02:30:37.377691 32196 net.cpp:156] Memory required for data: 821694400
I0403 02:30:37.377709 32196 layer_factory.hpp:77] Creating layer fc6
I0403 02:30:37.377742 32196 net.cpp:91] Creating Layer fc6
I0403 02:30:37.377763 32196 net.cpp:425] fc6 <- pool5
I0403 02:30:37.377790 32196 net.cpp:399] fc6 -> fc6
I0403 02:30:38.942307 32196 net.cpp:141] Setting up fc6
I0403 02:30:38.942409 32196 net.cpp:148] Top shape: 100 4096 (409600)
I0403 02:30:38.942427 32196 net.cpp:156] Memory required for data: 823332800
I0403 02:30:38.942451 32196 layer_factory.hpp:77] Creating layer relu6
I0403 02:30:38.942476 32196 net.cpp:91] Creating Layer relu6
I0403 02:30:38.942492 32196 net.cpp:425] relu6 <- fc6
I0403 02:30:38.942512 32196 net.cpp:386] relu6 -> fc6 (in-place)
I0403 02:30:38.942535 32196 net.cpp:141] Setting up relu6
I0403 02:30:38.942553 32196 net.cpp:148] Top shape: 100 4096 (409600)
I0403 02:30:38.942567 32196 net.cpp:156] Memory required for data: 824971200
I0403 02:30:38.942581 32196 layer_factory.hpp:77] Creating layer drop6
I0403 02:30:38.942606 32196 net.cpp:91] Creating Layer drop6
I0403 02:30:38.942623 32196 net.cpp:425] drop6 <- fc6
I0403 02:30:38.942643 32196 net.cpp:386] drop6 -> fc6 (in-place)
I0403 02:30:38.942692 32196 net.cpp:141] Setting up drop6
I0403 02:30:38.942714 32196 net.cpp:148] Top shape: 100 4096 (409600)
I0403 02:30:38.942729 32196 net.cpp:156] Memory required for data: 826609600
I0403 02:30:38.942744 32196 layer_factory.hpp:77] Creating layer fc7
I0403 02:30:38.942765 32196 net.cpp:91] Creating Layer fc7
I0403 02:30:38.942781 32196 net.cpp:425] fc7 <- fc6
I0403 02:30:38.942800 32196 net.cpp:399] fc7 -> fc7
I0403 02:30:39.553808 32196 net.cpp:141] Setting up fc7
I0403 02:30:39.553905 32196 net.cpp:148] Top shape: 100 4096 (409600)
I0403 02:30:39.553922 32196 net.cpp:156] Memory required for data: 828248000
I0403 02:30:39.553946 32196 layer_factory.hpp:77] Creating layer relu7
I0403 02:30:39.553978 32196 net.cpp:91] Creating Layer relu7
I0403 02:30:39.553997 32196 net.cpp:425] relu7 <- fc7
I0403 02:30:39.554018 32196 net.cpp:386] relu7 -> fc7 (in-place)
I0403 02:30:39.554042 32196 net.cpp:141] Setting up relu7
I0403 02:30:39.554061 32196 net.cpp:148] Top shape: 100 4096 (409600)
I0403 02:30:39.554076 32196 net.cpp:156] Memory required for data: 829886400
I0403 02:30:39.554091 32196 layer_factory.hpp:77] Creating layer drop7
I0403 02:30:39.554155 32196 net.cpp:91] Creating Layer drop7
I0403 02:30:39.554175 32196 net.cpp:425] drop7 <- fc7
I0403 02:30:39.554193 32196 net.cpp:386] drop7 -> fc7 (in-place)
I0403 02:30:39.554234 32196 net.cpp:141] Setting up drop7
I0403 02:30:39.554260 32196 net.cpp:148] Top shape: 100 4096 (409600)
I0403 02:30:39.554276 32196 net.cpp:156] Memory required for data: 831524800
I0403 02:30:39.554291 32196 layer_factory.hpp:77] Creating layer fc8_plantvillage
I0403 02:30:39.554313 32196 net.cpp:91] Creating Layer fc8_plantvillage
I0403 02:30:39.554329 32196 net.cpp:425] fc8_plantvillage <- fc7
I0403 02:30:39.554352 32196 net.cpp:399] fc8_plantvillage -> fc8_plantvillage
I0403 02:30:39.560807 32196 net.cpp:141] Setting up fc8_plantvillage
I0403 02:30:39.560855 32196 net.cpp:148] Top shape: 100 38 (3800)
I0403 02:30:39.560878 32196 net.cpp:156] Memory required for data: 831540000
I0403 02:30:39.560911 32196 layer_factory.hpp:77] Creating layer loss
I0403 02:30:39.560967 32196 net.cpp:91] Creating Layer loss
I0403 02:30:39.560988 32196 net.cpp:425] loss <- fc8_plantvillage
I0403 02:30:39.561022 32196 net.cpp:425] loss <- label
I0403 02:30:39.561069 32196 net.cpp:399] loss -> loss
I0403 02:30:39.561107 32196 layer_factory.hpp:77] Creating layer loss
…
I0403 02:30:39.563765 32196 net.cpp:313] The NetState phase (1) differed from the phase (0) specified by a rule in layer data
I0403 02:30:39.564831 32196 net.cpp:49] Initializing net from parameters: 
state {
  phase: TEST
}
layer {
  name: "data"
  type: "Data"
  top: "data"
  top: "label"
  include {
    phase: TEST
  }
  transform_param {
    crop_size: 227
    mean_file: "/home/mohanty/data/final_dataset/lmdb/color-60-40/mean.binaryproto"
  }
  data_param {
    source: "/home/mohanty/data/final_dataset/lmdb/color-60-40/test_db"
    batch_size: 100
    backend: LMDB
  }
}
layer {
  name: "conv1"
  type: "Convolution"
  bottom: "data"
  top: "conv1"
  param {
    lr_mult: 1
    decay_mult: 1
  }
  param {
    lr_mult: 2
    decay_mult: 0
  }
  convolution_param {
    num_output: 96
    kernel_size: 11
    stride: 4
    weight_filler {
      type: "gaussian"
      std: 0.01
    }
    bias_filler {
      type: "constant"
      value: 0
    }
  }
}
layer {
  name: "relu1"
  type: "ReLU"
  bottom: "conv1"
  top: "conv1"
}
layer {
  name: "norm1"
  type: "LRN"
  bottom: "conv1"
  top: "norm1"
  lrn_param {
    local_size: 5
    alpha: 0.0001
    beta: 0.75
  }
}
layer {
  name: "pool1"
  type: "Pooling"
  bottom: "norm1"
  top: "pool1"
  pooling_param {
    pool: MAX
    kernel_size: 3
    stride: 2
  }
}
layer {
  name: "conv2"
  type: "Convolution"
  bottom: "pool1"
  top: "conv2"
  param {
    lr_mult: 1
    decay_mult: 1
  }
  param {
    lr_mult: 2
    decay_mult: 0
  }
  convolution_param {
    num_output: 256
    pad: 2
    kernel_size: 5
    group: 2
    weight_filler {
      type: "gaussian"
      std: 0.01
    }
    bias_filler {
      type: "constant"
      value: 0.1
    }
  }
}
layer {
  name: "relu2"
  type: "ReLU"
  bottom: "conv2"
  top: "conv2"
}
layer {
  name: "norm2"
  type: "LRN"
  bottom: "conv2"
  top: "norm2"
  lrn_param {
    local_size: 5
    alpha: 0.0001
    beta: 0.75
  }
}
layer {
  name: "pool2"
  type: "Pooling"
  bottom: "norm2"
  top: "pool2"
  pooling_param {
    pool: MAX
    kernel_size: 3
    stride: 2
  }
}
layer {
  name: "conv3"
  type: "Convolution"
  bottom: "pool2"
  top: "conv3"
  param {
    lr_mult: 1
    decay_mult: 1
  }
  param {
    lr_mult: 2
    decay_mult: 0
  }
  convolution_param {
    num_output: 384
    pad: 1
    kernel_size: 3
    weight_filler {
      type: "gaussian"
      std: 0.01
    }
    bias_filler {
      type: "constant"
      value: 0
    }
  }
}
layer {
  name: "relu3"
  type: "ReLU"
  bottom: "conv3"
  top: "conv3"
}
layer {
  name: "conv4"
  type: "Convolution"
  bottom: "conv3"
  top: "conv4"
  param {
    lr_mult: 1
    decay_mult: 1
  }
  param {
    lr_mult: 2
    decay_mult: 0
  }
  convolution_param {
    num_output: 384
    pad: 1
    kernel_size: 3
    group: 2
    weight_filler {
      type: "gaussian"
      std: 0.01
    }
    bias_filler {
      type: "constant"
      value: 0.1
    }
  }
}
layer {
  name: "relu4"
  type: "ReLU"
  bottom: "conv4"
  top: "conv4"
}
layer {
  name: "conv5"
  type: "Convolution"
  bottom: "conv4"
  top: "conv5"
  param {
    lr_mult: 1
    decay_mult: 1
  }
  param {
    lr_mult: 2
    decay_mult: 0
  }
  convolution_param {
    num_output: 256
    pad: 1
    kernel_size: 3
    group: 2
    weight_filler {
      type: "gaussian"
      std: 0.01
    }
    bias_filler {
      type: "constant"
      value: 0.1
    }
  }
}
layer {
  name: "relu5"
  type: "ReLU"
  bottom: "conv5"
  top: "conv5"
}
layer {
  name: "pool5"
  type: "Pooling"
  bottom: "conv5"
  top: "pool5"
  pooling_param {
    pool: MAX
    kernel_size: 3
    stride: 2
  }
}
layer {
  name: "fc6"
  type: "InnerProduct"
  bottom: "pool5"
  top: "fc6"
  param {
    lr_mult: 1
    decay_mult: 1
  }
  param {
    lr_mult: 2
    decay_mult: 0
  }
  inner_product_param {
    num_output: 4096
    weight_filler {
      type: "gaussian"
      std: 0.005
    }
    bias_filler {
      type: "constant"
      value: 0.1
    }
  }
}
layer {
  name: "relu6"
  type: "ReLU"
  bottom: "fc6"
  top: "fc6"
}
layer {
  name: "drop6"
  type: "Dropout"
  bottom: "fc6"
  top: "fc6"
  dropout_param {
    dropout_ratio: 0.5
  }
}
layer {
  name: "fc7"
  type: "InnerProduct"
  bottom: "fc6"
  top: "fc7"
  param {
    lr_mult: 1
    decay_mult: 1
  }
  param {
    lr_mult: 2
    decay_mult: 0
  }
  inner_product_param {
    num_output: 4096
    weight_filler {
      type: "gaussian"
      std: 0.005
    }
    bias_filler {
      type: "constant"
      value: 0.1
    }
  }
}
layer {
  name: "relu7"
  type: "ReLU"
  bottom: "fc7"
  top: "fc7"
}
layer {
  name: "drop7"
  type: "Dropout"
  bottom: "fc7"
  top: "fc7"
  dropout_param {
    dropout_ratio: 0.5
  }
}
layer {
  name: "fc8_plantvillage"
  type: "InnerProduct"
  bottom: "fc7"
  top: "fc8_plantvillage"
  param {
    lr_mult: 1
    decay_mult: 1
  }
  param {
    lr_mult: 2
    decay_mult: 0
  }
  inner_product_param {
    num_output: 38
    weight_filler {
      type: "gaussian"
      std: 0.01
    }
    bias_filler {
      type: "constant"
      value: 0
    }
  }
}
layer {
  name: "loss"
  type: "SoftmaxWithLoss"
  bottom: "fc8_plantvillage"
  bottom: "label"
  top: "loss"
}
layer {
  name: "accuracy"
  type: "Accuracy"
  bottom: "fc8_plantvillage"
  bottom: "label"
  top: "accuracy"
  include {
    phase: TEST
  }
}
I0403 02:30:39.565402 32196 layer_factory.hpp:77] Creating layer data
I0403 02:30:39.565714 32196 net.cpp:91] Creating Layer data
I0403 02:30:39.565798 32196 net.cpp:399] data -> data
I0403 02:30:39.565862 32196 net.cpp:399] data -> label
I0403 02:30:39.565960 32196 data_transformer.cpp:25] Loading mean file from: /home/mohanty/data/final_dataset/lmdb/color-60-40/mean.binaryproto
I0403 02:30:39.586228 32209 db_lmdb.cpp:38] Opened lmdb /home/mohanty/data/final_dataset/lmdb/color-60-40/test_db
I0403 02:30:39.594321 32196 data_layer.cpp:41] output data size: 100,3,227,227
I0403 02:30:39.736269 32196 net.cpp:141] Setting up data
I0403 02:30:39.825271 32196 net.cpp:148] Top shape: 100 3 227 227 (15458700)
I0403 02:30:39.825316 32196 net.cpp:148] Top shape: 100 (100)
I0403 02:30:39.825336 32196 net.cpp:156] Memory required for data: 61835200
I0403 02:30:39.825356 32196 layer_factory.hpp:77] Creating layer label_data_1_split
I0403 02:30:39.825384 32196 net.cpp:91] Creating Layer label_data_1_split
I0403 02:30:39.825404 32196 net.cpp:425] label_data_1_split <- label
I0403 02:30:39.825428 32196 net.cpp:399] label_data_1_split -> label_data_1_split_0
I0403 02:30:39.825456 32196 net.cpp:399] label_data_1_split -> label_data_1_split_1
I0403 02:30:39.825551 32196 net.cpp:141] Setting up label_data_1_split
I0403 02:30:39.825577 32196 net.cpp:148] Top shape: 100 (100)
I0403 02:30:39.825600 32196 net.cpp:148] Top shape: 100 (100)
I0403 02:30:39.825650 32196 net.cpp:156] Memory required for data: 61836000
I0403 02:30:39.825667 32196 layer_factory.hpp:77] Creating layer conv1
I0403 02:30:39.825698 32196 net.cpp:91] Creating Layer conv1
I0403 02:30:39.825717 32196 net.cpp:425] conv1 <- data
I0403 02:30:39.825739 32196 net.cpp:399] conv1 -> conv1
I0403 02:30:39.827406 32196 net.cpp:141] Setting up conv1
I0403 02:30:39.827436 32196 net.cpp:148] Top shape: 100 96 55 55 (29040000)
I0403 02:30:39.827452 32196 net.cpp:156] Memory required for data: 177996000
I0403 02:30:39.827478 32196 layer_factory.hpp:77] Creating layer relu1
I0403 02:30:39.827502 32196 net.cpp:91] Creating Layer relu1
I0403 02:30:39.827522 32196 net.cpp:425] relu1 <- conv1
I0403 02:30:39.827541 32196 net.cpp:386] relu1 -> conv1 (in-place)
I0403 02:30:39.827563 32196 net.cpp:141] Setting up relu1
I0403 02:30:39.827586 32196 net.cpp:148] Top shape: 100 96 55 55 (29040000)
I0403 02:30:39.827605 32196 net.cpp:156] Memory required for data: 294156000
I0403 02:30:39.827621 32196 layer_factory.hpp:77] Creating layer norm1
I0403 02:30:39.827646 32196 net.cpp:91] Creating Layer norm1
I0403 02:30:39.827664 32196 net.cpp:425] norm1 <- conv1
I0403 02:30:39.827684 32196 net.cpp:399] norm1 -> norm1
I0403 02:30:39.827740 32196 net.cpp:141] Setting up norm1
I0403 02:30:39.827767 32196 net.cpp:148] Top shape: 100 96 55 55 (29040000)
I0403 02:30:39.827785 32196 net.cpp:156] Memory required for data: 410316000
I0403 02:30:39.827802 32196 layer_factory.hpp:77] Creating layer pool1
I0403 02:30:39.827824 32196 net.cpp:91] Creating Layer pool1
I0403 02:30:39.827841 32196 net.cpp:425] pool1 <- norm1
I0403 02:30:39.827860 32196 net.cpp:399] pool1 -> pool1
I0403 02:30:39.827913 32196 net.cpp:141] Setting up pool1
I0403 02:30:39.827939 32196 net.cpp:148] Top shape: 100 96 27 27 (6998400)
I0403 02:30:39.827955 32196 net.cpp:156] Memory required for data: 438309600
I0403 02:30:39.828009 32196 layer_factory.hpp:77] Creating layer conv2
I0403 02:30:39.828037 32196 net.cpp:91] Creating Layer conv2
I0403 02:30:39.828057 32196 net.cpp:425] conv2 <- pool1
I0403 02:30:39.828083 32196 net.cpp:399] conv2 -> conv2
I0403 02:30:39.842118 32196 net.cpp:141] Setting up conv2
I0403 02:30:39.842155 32196 net.cpp:148] Top shape: 100 256 27 27 (18662400)
I0403 02:30:39.842175 32196 net.cpp:156] Memory required for data: 512959200
I0403 02:30:39.842197 32196 layer_factory.hpp:77] Creating layer relu2
I0403 02:30:39.842219 32196 net.cpp:91] Creating Layer relu2
I0403 02:30:39.842236 32196 net.cpp:425] relu2 <- conv2
I0403 02:30:39.842255 32196 net.cpp:386] relu2 -> conv2 (in-place)
I0403 02:30:39.842277 32196 net.cpp:141] Setting up relu2
I0403 02:30:39.842295 32196 net.cpp:148] Top shape: 100 256 27 27 (18662400)
I0403 02:30:39.842313 32196 net.cpp:156] Memory required for data: 587608800
I0403 02:30:39.842327 32196 layer_factory.hpp:77] Creating layer norm2
I0403 02:30:39.842349 32196 net.cpp:91] Creating Layer norm2
I0403 02:30:39.842365 32196 net.cpp:425] norm2 <- conv2
I0403 02:30:39.842384 32196 net.cpp:399] norm2 -> norm2
I0403 02:30:39.842438 32196 net.cpp:141] Setting up norm2
I0403 02:30:39.842463 32196 net.cpp:148] Top shape: 100 256 27 27 (18662400)
I0403 02:30:39.842480 32196 net.cpp:156] Memory required for data: 662258400
I0403 02:30:39.842496 32196 layer_factory.hpp:77] Creating layer pool2
I0403 02:30:39.842515 32196 net.cpp:91] Creating Layer pool2
I0403 02:30:39.842532 32196 net.cpp:425] pool2 <- norm2
I0403 02:30:39.842550 32196 net.cpp:399] pool2 -> pool2
I0403 02:30:39.842599 32196 net.cpp:141] Setting up pool2
I0403 02:30:39.842623 32196 net.cpp:148] Top shape: 100 256 13 13 (4326400)
I0403 02:30:39.842639 32196 net.cpp:156] Memory required for data: 679564000
I0403 02:30:39.842654 32196 layer_factory.hpp:77] Creating layer conv3
I0403 02:30:39.842679 32196 net.cpp:91] Creating Layer conv3
I0403 02:30:39.842696 32196 net.cpp:425] conv3 <- pool2
I0403 02:30:39.842717 32196 net.cpp:399] conv3 -> conv3
I0403 02:30:39.879349 32196 net.cpp:141] Setting up conv3
I0403 02:30:39.879418 32196 net.cpp:148] Top shape: 100 384 13 13 (6489600)
I0403 02:30:39.879451 32196 net.cpp:156] Memory required for data: 705522400
I0403 02:30:39.879480 32196 layer_factory.hpp:77] Creating layer relu3
I0403 02:30:39.879513 32196 net.cpp:91] Creating Layer relu3
I0403 02:30:39.879534 32196 net.cpp:425] relu3 <- conv3
I0403 02:30:39.879559 32196 net.cpp:386] relu3 -> conv3 (in-place)
I0403 02:30:39.879581 32196 net.cpp:141] Setting up relu3
I0403 02:30:39.879601 32196 net.cpp:148] Top shape: 100 384 13 13 (6489600)
I0403 02:30:39.879616 32196 net.cpp:156] Memory required for data: 731480800
I0403 02:30:39.879633 32196 layer_factory.hpp:77] Creating layer conv4
I0403 02:30:39.879658 32196 net.cpp:91] Creating Layer conv4
I0403 02:30:39.879676 32196 net.cpp:425] conv4 <- conv3
I0403 02:30:39.879698 32196 net.cpp:399] conv4 -> conv4
I0403 02:30:39.907817 32196 net.cpp:141] Setting up conv4
I0403 02:30:39.915041 32196 net.cpp:148] Top shape: 100 384 13 13 (6489600)
I0403 02:30:39.915108 32196 net.cpp:156] Memory required for data: 757439200
I0403 02:30:39.915196 32196 layer_factory.hpp:77] Creating layer relu4
I0403 02:30:39.915277 32196 net.cpp:91] Creating Layer relu4
I0403 02:30:39.915307 32196 net.cpp:425] relu4 <- conv4
I0403 02:30:39.915326 32196 net.cpp:386] relu4 -> conv4 (in-place)
I0403 02:30:39.915346 32196 net.cpp:141] Setting up relu4
I0403 02:30:39.915366 32196 net.cpp:148] Top shape: 100 384 13 13 (6489600)
I0403 02:30:39.915381 32196 net.cpp:156] Memory required for data: 783397600
I0403 02:30:39.915396 32196 layer_factory.hpp:77] Creating layer conv5
I0403 02:30:39.915419 32196 net.cpp:91] Creating Layer conv5
I0403 02:30:39.915436 32196 net.cpp:425] conv5 <- conv4
I0403 02:30:39.915457 32196 net.cpp:399] conv5 -> conv5
I0403 02:30:39.934478 32196 net.cpp:141] Setting up conv5
I0403 02:30:39.934525 32196 net.cpp:148] Top shape: 100 256 13 13 (4326400)
I0403 02:30:39.934542 32196 net.cpp:156] Memory required for data: 800703200
I0403 02:30:39.934602 32196 layer_factory.hpp:77] Creating layer relu5
I0403 02:30:39.934625 32196 net.cpp:91] Creating Layer relu5
I0403 02:30:39.934643 32196 net.cpp:425] relu5 <- conv5
I0403 02:30:39.934661 32196 net.cpp:386] relu5 -> conv5 (in-place)
I0403 02:30:39.934681 32196 net.cpp:141] Setting up relu5
I0403 02:30:39.934700 32196 net.cpp:148] Top shape: 100 256 13 13 (4326400)
I0403 02:30:39.934715 32196 net.cpp:156] Memory required for data: 818008800
I0403 02:30:39.934728 32196 layer_factory.hpp:77] Creating layer pool5
I0403 02:30:39.934751 32196 net.cpp:91] Creating Layer pool5
I0403 02:30:39.934768 32196 net.cpp:425] pool5 <- conv5
I0403 02:30:39.934788 32196 net.cpp:399] pool5 -> pool5
I0403 02:30:39.934846 32196 net.cpp:141] Setting up pool5
I0403 02:30:39.934870 32196 net.cpp:148] Top shape: 100 256 6 6 (921600)
I0403 02:30:39.934885 32196 net.cpp:156] Memory required for data: 821695200
I0403 02:30:39.934903 32196 layer_factory.hpp:77] Creating layer fc6
I0403 02:30:39.934937 32196 net.cpp:91] Creating Layer fc6
I0403 02:30:39.934962 32196 net.cpp:425] fc6 <- pool5
I0403 02:30:39.934994 32196 net.cpp:399] fc6 -> fc6
I0403 02:30:41.363801 32196 net.cpp:141] Setting up fc6
I0403 02:30:41.363899 32196 net.cpp:148] Top shape: 100 4096 (409600)
I0403 02:30:41.363915 32196 net.cpp:156] Memory required for data: 823333600
I0403 02:30:41.363940 32196 layer_factory.hpp:77] Creating layer relu6
I0403 02:30:41.363966 32196 net.cpp:91] Creating Layer relu6
I0403 02:30:41.363986 32196 net.cpp:425] relu6 <- fc6
I0403 02:30:41.364006 32196 net.cpp:386] relu6 -> fc6 (in-place)
I0403 02:30:41.364027 32196 net.cpp:141] Setting up relu6
I0403 02:30:41.364043 32196 net.cpp:148] Top shape: 100 4096 (409600)
I0403 02:30:41.364058 32196 net.cpp:156] Memory required for data: 824972000
I0403 02:30:41.364071 32196 layer_factory.hpp:77] Creating layer drop6
I0403 02:30:41.364090 32196 net.cpp:91] Creating Layer drop6
I0403 02:30:41.364106 32196 net.cpp:425] drop6 <- fc6
I0403 02:30:41.364132 32196 net.cpp:386] drop6 -> fc6 (in-place)
I0403 02:30:41.364174 32196 net.cpp:141] Setting up drop6
I0403 02:30:41.364197 32196 net.cpp:148] Top shape: 100 4096 (409600)
I0403 02:30:41.364210 32196 net.cpp:156] Memory required for data: 826610400
I0403 02:30:41.364224 32196 layer_factory.hpp:77] Creating layer fc7
I0403 02:30:41.364244 32196 net.cpp:91] Creating Layer fc7
I0403 02:30:41.364259 32196 net.cpp:425] fc7 <- fc6
I0403 02:30:41.364277 32196 net.cpp:399] fc7 -> fc7
I0403 02:30:41.965502 32196 net.cpp:141] Setting up fc7
I0403 02:30:41.965600 32196 net.cpp:148] Top shape: 100 4096 (409600)
I0403 02:30:41.965616 32196 net.cpp:156] Memory required for data: 828248800
I0403 02:30:41.965639 32196 layer_factory.hpp:77] Creating layer relu7
I0403 02:30:41.965667 32196 net.cpp:91] Creating Layer relu7
I0403 02:30:41.965687 32196 net.cpp:425] relu7 <- fc7
I0403 02:30:41.965706 32196 net.cpp:386] relu7 -> fc7 (in-place)
I0403 02:30:41.965728 32196 net.cpp:141] Setting up relu7
I0403 02:30:41.965746 32196 net.cpp:148] Top shape: 100 4096 (409600)
I0403 02:30:41.965760 32196 net.cpp:156] Memory required for data: 829887200
I0403 02:30:41.965773 32196 layer_factory.hpp:77] Creating layer drop7
I0403 02:30:41.965795 32196 net.cpp:91] Creating Layer drop7
I0403 02:30:41.965811 32196 net.cpp:425] drop7 <- fc7
I0403 02:30:41.965828 32196 net.cpp:386] drop7 -> fc7 (in-place)
I0403 02:30:41.965867 32196 net.cpp:141] Setting up drop7
I0403 02:30:41.965893 32196 net.cpp:148] Top shape: 100 4096 (409600)
I0403 02:30:41.965909 32196 net.cpp:156] Memory required for data: 831525600
I0403 02:30:41.965922 32196 layer_factory.hpp:77] Creating layer fc8_plantvillage
I0403 02:30:41.965944 32196 net.cpp:91] Creating Layer fc8_plantvillage
I0403 02:30:41.965958 32196 net.cpp:425] fc8_plantvillage <- fc7
I0403 02:30:41.965981 32196 net.cpp:399] fc8_plantvillage -> fc8_plantvillage
I0403 02:30:41.972098 32196 net.cpp:141] Setting up fc8_plantvillage
I0403 02:30:41.972132 32196 net.cpp:148] Top shape: 100 38 (3800)
I0403 02:30:41.972160 32196 net.cpp:156] Memory required for data: 831540800
I0403 02:30:41.972211 32196 layer_factory.hpp:77] Creating layer fc8_plantvillage_fc8_plantvillage_0_split
I0403 02:30:41.972234 32196 net.cpp:91] Creating Layer fc8_plantvillage_fc8_plantvillage_0_split
I0403 02:30:41.972250 32196 net.cpp:425] fc8_plantvillage_fc8_plantvillage_0_split <- fc8_plantvillage
I0403 02:30:41.972270 32196 net.cpp:399] fc8_plantvillage_fc8_plantvillage_0_split -> fc8_plantvillage_fc8_plantvillage_0_split_0
I0403 02:30:41.972292 32196 net.cpp:399] fc8_plantvillage_fc8_plantvillage_0_split -> fc8_plantvillage_fc8_plantvillage_0_split_1
I0403 02:30:41.972343 32196 net.cpp:141] Setting up fc8_plantvillage_fc8_plantvillage_0_split
I0403 02:30:41.972367 32196 net.cpp:148] Top shape: 100 38 (3800)
I0403 02:30:41.972383 32196 net.cpp:148] Top shape: 100 38 (3800)
I0403 02:30:41.972396 32196 net.cpp:156] Memory required for data: 831571200
I0403 02:30:41.972411 32196 layer_factory.hpp:77] Creating layer loss
I0403 02:30:41.972440 32196 net.cpp:91] Creating Layer loss
I0403 02:30:41.972455 32196 net.cpp:425] loss <- fc8_plantvillage_fc8_plantvillage_0_split_0
I0403 02:30:41.972470 32196 net.cpp:425] loss <- label_data_1_split_0
I0403 02:30:41.972488 32196 net.cpp:399] loss -> loss
…
