…
I0404 13:44:16.121477 11586 net.cpp:313] The NetState phase (1) differed from the phase (0) specified by a rule in layer data
I0404 13:44:16.122551 11586 net.cpp:49] Initializing net from parameters: 
state {
  phase: TEST
}
layer {
  name: "data"
  type: "Data"
  top: "data"
  top: "label"
  include {
    phase: TEST
  }
  transform_param {
    mirror: false
    crop_size: 224
    mean_file: "/home/mohanty/data/bing_images/lmdb/bing-0-100/mean.binaryproto"
  }
  data_param {
    source: "/home/mohanty/data/bing_images/lmdb/bing-0-100/bing_test_db"
    batch_size: 132
    backend: LMDB
  }
}
layer {
  name: "conv1/7x7_s2"
  type: "Convolution"
  bottom: "data"
  top: "conv1/7x7_s2"
  param {
    lr_mult: 1
    decay_mult: 1
  }
  param {
    lr_mult: 2
    decay_mult: 0
  }
  convolution_param {
    num_output: 64
    pad: 3
    kernel_size: 7
    stride: 2
    weight_filler {
      type: "xavier"
      std: 0.1
    }
    bias_filler {
      type: "constant"
      value: 0.2
    }
  }
}
layer {
  name: "conv1/relu_7x7"
  type: "ReLU"
  bottom: "conv1/7x7_s2"
  top: "conv1/7x7_s2"
}
layer {
  name: "pool1/3x3_s2"
  type: "Pooling"
  bottom: "conv1/7x7_s2"
  top: "pool1/3x3_s2"
  pooling_param {
    pool: MAX
    kernel_size: 3
    stride: 2
  }
}
layer {
  name: "pool1/norm1"
  type: "LRN"
  bottom: "pool1/3x3_s2"
  top: "pool1/norm1"
  lrn_param {
    local_size: 5
    alpha: 0.0001
    beta: 0.75
  }
}
layer {
  name: "conv2/3x3_reduce"
  type: "Convolution"
  bottom: "pool1/norm1"
  top: "conv2/3x3_reduce"
  param {
    lr_mult: 1
    decay_mult: 1
  }
  param {
    lr_mult: 2
    decay_mult: 0
  }
  convolution_param {
    num_output: 64
    kernel_size: 1
    weight_filler {
      type: "xavier"
      std: 0.1
    }
    bias_filler {
      type: "constant"
      value: 0.2
    }
  }
}
layer {
  name: "conv2/relu_3x3_reduce"
  type: "ReLU"
  bottom: "conv2/3x3_reduce"
  top: "conv2/3x3_reduce"
}
layer {
  name: "conv2/3x3"
  type: "Convolution"
  bottom: "conv2/3x3_reduce"
  top: "conv2/3x3"
  param {
    lr_mult: 1
    decay_mult: 1
  }
  param {
    lr_mult: 2
    decay_mult: 0
  }
  convolution_param {
    num_output: 192
    pad: 1
    kernel_size: 3
    weight_filler {
      type: "xavier"
      std: 0.03
    }
    bias_filler {
      type: "constant"
      value: 0.2
    }
  }
}
layer {
  name: "conv2/relu_3x3"
  type: "ReLU"
  bottom: "conv2/3x3"
  top: "conv2/3x3"
}
layer {
  name: "conv2/norm2"
  type: "LRN"
  bottom: "conv2/3x3"
  top: "conv2/norm2"
  lrn_param {
    local_size: 5
    alpha: 0.0001
    beta: 0.75
  }
}
layer {
  name: "pool2/3x3_s2"
  type: "Pooling"
  bottom: "conv2/norm2"
  top: "pool2/3x3_s2"
  pooling_param {
    pool: MAX
    kernel_size: 3
    stride: 2
  }
}
layer {
  name: "inception_3a/1x1"
  type: "Convolution"
  bottom: "pool2/3x3_s2"
  top: "inception_3a/1x1"
  param {
    lr_mult: 1
    decay_mult: 1
  }
  param {
    lr_mult: 2
    decay_mult: 0
  }
  convolution_param {
    num_output: 64
    kernel_size: 1
    weight_filler {
      type: "xavier"
      std: 0.03
    }
    bias_filler {
      type: "constant"
      value: 0.2
    }
  }
}
layer {
  name: "inception_3a/relu_1x1"
  type: "ReLU"
  bottom: "inception_3a/1x1"
  top: "inception_3a/1x1"
}
layer {
  name: "inception_3a/3x3_reduce"
  type: "Convolution"
  bottom: "pool2/3x3_s2"
  top: "inception_3a/3x3_reduce"
  param {
    lr_mult: 1
    decay_mult: 1
  }
  param {
    lr_mult: 2
    decay_mult: 0
  }
  convolution_param {
    num_output: 96
    kernel_size: 1
    weight_filler {
      type: "xavier"
      std: 0.09
    }
    bias_filler {
      type: "constant"
      value: 0.2
    }
  }
}
layer {
  name: "inception_3a/relu_3x3_reduce"
  type: "ReLU"
  bottom: "inception_3a/3x3_reduce"
  top: "inception_3a/3x3_reduce"
}
layer {
  name: "inception_3a/3x3"
  type: "Convolution"
  bottom: "inception_3a/3x3_reduce"
  top: "inception_3a/3x3"
  param {
    lr_mult: 1
    decay_mult: 1
  }
  param {
    lr_mult: 2
    decay_mult: 0
  }
  convolution_param {
    num_output: 128
    pad: 1
    kernel_size: 3
    weight_filler {
      type: "xavier"
      std: 0.03
    }
    bias_filler {
      type: "constant"
      value: 0.2
    }
  }
}
layer {
  name: "inception_3a/relu_3x3"
  type: "ReLU"
  bottom: "inception_3a/3x3"
  top: "inception_3a/3x3"
}
layer {
  name: "inception_3a/5x5_reduce"
  type: "Convolution"
  bottom: "pool2/3x3_s2"
  top: "inception_3a/5x5_reduce"
  param {
    lr_mult: 1
    decay_mult: 1
  }
  param {
    lr_mult: 2
    decay_mult: 0
  }
  convolution_param {
    num_output: 16
    kernel_size: 1
    weight_filler {
      type: "xavier"
      std: 0.2
    }
    bias_filler {
      type: "constant"
      value: 0.2
    }
  }
}
layer {
  name: "inception_3a/relu_5x5_reduce"
  type: "ReLU"
  bottom: "inception_3a/5x5_reduce"
  top: "inception_3a/5x5_reduce"
}
layer {
  name: "inception_3a/5x5"
  type: "Convolution"
  bottom: "inception_3a/5x5_reduce"
  top: "inception_3a/5x5"
  param {
    lr_mult: 1
    decay_mult: 1
  }
  param {
    lr_mult: 2
    decay_mult: 0
  }
  convolution_param {
    num_output: 32
    pad: 2
    kernel_size: 5
    weight_filler {
      type: "xavier"
      std: 0.03
    }
    bias_filler {
      type: "constant"
      value: 0.2
    }
  }
}
layer {
  name: "inception_3a/relu_5x5"
  type: "ReLU"
  bottom: "inception_3a/5x5"
  top: "inception_3a/5x5"
}
layer {
  name: "inception_3a/pool"
  type: "Pooling"
  bottom: "pool2/3x3_s2"
  top: "inception_3a/pool"
  pooling_param {
    pool: MAX
    kernel_size: 3
    stride: 1
    pad: 1
  }
}
layer {
  name: "inception_3a/pool_proj"
  type: "Convolution"
  bottom: "inception_3a/pool"
  top: "inception_3a/pool_proj"
  param {
    lr_mult: 1
    decay_mult: 1
  }
  param {
    lr_mult: 2
    decay_mult: 0
  }
  convolution_param {
    num_output: 32
    kernel_size: 1
    weight_filler {
      type: "xavier"
      std: 0.1
    }
    bias_filler {
      type: "constant"
      value: 0.2
    }
  }
}
layer {
  name: "inception_3a/relu_pool_proj"
  type: "ReLU"
  bottom: "inception_3a/pool_proj"
  top: "inception_3a/pool_proj"
}
layer {
  name: "inception_3a/output"
  type: "Concat"
  bottom: "inception_3a/1x1"
  bottom: "inception_3a/3x3"
  bottom: "inception_3a/5x5"
  bottom: "inception_3a/pool_proj"
  top: "inception_3a/output"
}
layer {
  name: "inception_3b/1x1"
  type: "Convolution"
  bottom: "inception_3a/output"
  top: "inception_3b/1x1"
  param {
    lr_mult: 1
    decay_mult: 1
  }
  param {
    lr_mult: 2
    decay_mult: 0
  }
  convolution_param {
    num_output: 128
    kernel_size: 1
    weight_filler {
      type: "xavier"
      std: 0.03
    }
    bias_filler {
      type: "constant"
      value: 0.2
    }
  }
}
layer {
  name: "inception_3b/relu_1x1"
  type: "ReLU"
  bottom: "inception_3b/1x1"
  top: "inception_3b/1x1"
}
layer {
  name: "inception_3b/3x3_reduce"
  type: "Convolution"
  bottom: "inception_3a/output"
  top: "inception_3b/3x3_reduce"
  param {
    lr_mult: 1
    decay_mult: 1
  }
  param {
    lr_mult: 2
    decay_mult: 0
  }
  convolution_param {
    num_output: 128
    kernel_size: 1
    weight_filler {
      type: "xavier"
      std: 0.09
    }
    bias_filler {
      type: "constant"
      value: 0.2
    }
  }
}
layer {
  name: "inception_3b/relu_3x3_reduce"
  type: "ReLU"
  bottom: "inception_3b/3x3_reduce"
  top: "inception_3b/3x3_reduce"
}
layer {
  name: "inception_3b/3x3"
  type: "Convolution"
  bottom: "inception_3b/3x3_reduce"
  top: "inception_3b/3x3"
  param {
    lr_mult: 1
    decay_mult: 1
  }
  param {
    lr_mult: 2
    decay_mult: 0
  }
  convolution_param {
    num_output: 192
    pad: 1
    kernel_size: 3
    weight_filler {
      type: "xavier"
      std: 0.03
    }
    bias_filler {
      type: "constant"
      value: 0.2
    }
  }
}
layer {
  name: "inception_3b/relu_3x3"
  type: "ReLU"
  bottom: "inception_3b/3x3"
  top: "inception_3b/3x3"
}
layer {
  name: "inception_3b/5x5_reduce"
  type: "Convolution"
  bottom: "inception_3a/output"
  top: "inception_3b/5x5_reduce"
  param {
    lr_mult: 1
    decay_mult: 1
  }
  param {
    lr_mult: 2
    decay_mult: 0
  }
  convolution_param {
    num_output: 32
    kernel_size: 1
    weight_filler {
      type: "xavier"
      std: 0.2
    }
    bias_filler {
      type: "constant"
      value: 0.2
    }
  }
}
layer {
  name: "inception_3b/relu_5x5_reduce"
  type: "ReLU"
  bottom: "inception_3b/5x5_reduce"
  top: "inception_3b/5x5_reduce"
}
layer {
  name: "inception_3b/5x5"
  type: "Convolution"
  bottom: "inception_3b/5x5_reduce"
  top: "inception_3b/5x5"
  param {
    lr_mult: 1
    decay_mult: 1
  }
  param {
    lr_mult: 2
    decay_mult: 0
  }
  convolution_param {
    num_output: 96
    pad: 2
    kernel_size: 5
    weight_filler {
      type: "xavier"
      std: 0.03
    }
    bias_filler {
      type: "constant"
      value: 0.2
    }
  }
}
layer {
  name: "inception_3b/relu_5x5"
  type: "ReLU"
  bottom: "inception_3b/5x5"
  top: "inception_3b/5x5"
}
layer {
  name: "inception_3b/pool"
  type: "Pooling"
  bottom: "inception_3a/output"
  top: "inception_3b/pool"
  pooling_param {
    pool: MAX
    kernel_size: 3
    stride: 1
    pad: 1
  }
}
layer {
  name: "inception_3b/pool_proj"
  type: "Convolution"
  bottom: "inception_3b/pool"
  top: "inception_3b/pool_proj"
  param {
    lr_mult: 1
    decay_mult: 1
  }
  param {
    lr_mult: 2
    decay_mult: 0
  }
  convolution_param {
    num_output: 64
    kernel_size: 1
    weight_filler {
      type: "xavier"
      std: 0.1
    }
    bias_filler {
      type: "constant"
      value: 0.2
    }
  }
}
layer {
  name: "inception_3b/relu_pool_proj"
  type: "ReLU"
  bottom: "inception_3b/pool_proj"
  top: "inception_3b/pool_proj"
}
layer {
  name: "inception_3b/output"
  type: "Concat"
  bottom: "inception_3b/1x1"
  bottom: "inception_3b/3x3"
  bottom: "inception_3b/5x5"
  bottom: "inception_3b/pool_proj"
  top: "inception_3b/output"
}
layer {
  name: "pool3/3x3_s2"
  type: "Pooling"
  bottom: "inception_3b/output"
  top: "pool3/3x3_s2"
  pooling_param {
    pool: MAX
    kernel_size: 3
    stride: 2
  }
}
layer {
  name: "inception_4a/1x1"
  type: "Convolution"
  bottom: "pool3/3x3_s2"
  top: "inception_4a/1x1"
  param {
    lr_mult: 1
    decay_mult: 1
  }
  param {
    lr_mult: 2
    decay_mult: 0
  }
  convolution_param {
    num_output: 192
    kernel_size: 1
    weight_filler {
      type: "xavier"
      std: 0.03
    }
    bias_filler {
      type: "constant"
      value: 0.2
    }
  }
}
layer {
  name: "inception_4a/relu_1x1"
  type: "ReLU"
  bottom: "inception_4a/1x1"
  top: "inception_4a/1x1"
}
layer {
  name: "inception_4a/3x3_reduce"
  type: "Convolution"
  bottom: "pool3/3x3_s2"
  top: "inception_4a/3x3_reduce"
  param {
    lr_mult: 1
    decay_mult: 1
  }
  param {
    lr_mult: 2
    decay_mult: 0
  }
  convolution_param {
    num_output: 96
    kernel_size: 1
    weight_filler {
      type: "xavier"
      std: 0.09
    }
    bias_filler {
      type: "constant"
      value: 0.2
    }
  }
}
layer {
  name: "inception_4a/relu_3x3_reduce"
  type: "ReLU"
  bottom: "inception_4a/3x3_reduce"
  top: "inception_4a/3x3_reduce"
}
layer {
  name: "inception_4a/3x3"
  type: "Convolution"
  bottom: "inception_4a/3x3_reduce"
  top: "inception_4a/3x3"
  param {
    lr_mult: 1
    decay_mult: 1
  }
  param {
    lr_mult: 2
    decay_mult: 0
  }
  convolution_param {
    num_output: 208
    pad: 1
    kernel_size: 3
    weight_filler {
      type: "xavier"
      std: 0.03
    }
    bias_filler {
      type: "constant"
      value: 0.2
    }
  }
}
layer {
  name: "inception_4a/relu_3x3"
  type: "ReLU"
  bottom: "inception_4a/3x3"
  top: "inception_4a/3x3"
}
layer {
  name: "inception_4a/5x5_reduce"
  type: "Convolution"
  bottom: "pool3/3x3_s2"
  top: "inception_4a/5x5_reduce"
  param {
    lr_mult: 1
    decay_mult: 1
  }
  param {
    lr_mult: 2
    decay_mult: 0
  }
  convolution_param {
    num_output: 16
    kernel_size: 1
    weight_filler {
      type: "xavier"
      std: 0.2
    }
    bias_filler {
      type: "constant"
      value: 0.2
    }
  }
}
layer {
  name: "inception_4a/relu_5x5_reduce"
  type: "ReLU"
  bottom: "inception_4a/5x5_reduce"
  top: "inception_4a/5x5_reduce"
}
layer {
  name: "inception_4a/5x5"
  type: "Convolution"
  bottom: "inception_4a/5x5_reduce"
  top: "inception_4a/5x5"
  param {
    lr_mult: 1
    decay_mult: 1
  }
  param {
    lr_mult: 2
    decay_mult: 0
  }
  convolution_param {
    num_output: 48
    pad: 2
    kernel_size: 5
    weight_filler {
      type: "xavier"
      std: 0.03
    }
    bias_filler {
      type: "constant"
      value: 0.2
    }
  }
}
layer {
  name: "inception_4a/relu_5x5"
  type: "ReLU"
  bottom: "inception_4a/5x5"
  top: "inception_4a/5x5"
}
layer {
  name: "inception_4a/pool"
  type: "Pooling"
  bottom: "pool3/3x3_s2"
  top: "inception_4a/pool"
  pooling_param {
    pool: MAX
    kernel_size: 3
    stride: 1
    pad: 1
  }
}
layer {
  name: "inception_4a/pool_proj"
  type: "Convolution"
  bottom: "inception_4a/pool"
  top: "inception_4a/pool_proj"
  param {
    lr_mult: 1
    decay_mult: 1
  }
  param {
    lr_mult: 2
    decay_mult: 0
  }
  convolution_param {
    num_output: 64
    kernel_size: 1
    weight_filler {
      type: "xavier"
      std: 0.1
    }
    bias_filler {
      type: "constant"
      value: 0.2
    }
  }
}
layer {
  name: "inception_4a/relu_pool_proj"
  type: "ReLU"
  bottom: "inception_4a/pool_proj"
  top: "inception_4a/pool_proj"
}
layer {
  name: "inception_4a/output"
  type: "Concat"
  bottom: "inception_4a/1x1"
  bottom: "inception_4a/3x3"
  bottom: "inception_4a/5x5"
  bottom: "inception_4a/pool_proj"
  top: "inception_4a/output"
}
layer {
  name: "loss1/ave_pool"
  type: "Pooling"
  bottom: "inception_4a/output"
  top: "loss1/ave_pool"
  pooling_param {
    pool: AVE
    kernel_size: 5
    stride: 3
  }
}
layer {
  name: "loss1/conv"
  type: "Convolution"
  bottom: "loss1/ave_pool"
  top: "loss1/conv"
  param {
    lr_mult: 1
    decay_mult: 1
  }
  param {
    lr_mult: 2
    decay_mult: 0
  }
  convolution_param {
    num_output: 128
    kernel_size: 1
    weight_filler {
      type: "xavier"
      std: 0.08
    }
    bias_filler {
      type: "constant"
      value: 0.2
    }
  }
}
layer {
  name: "loss1/relu_conv"
  type: "ReLU"
  bottom: "loss1/conv"
  top: "loss1/conv"
}
layer {
  name: "loss1/fc"
  type: "InnerProduct"
  bottom: "loss1/conv"
  top: "loss1/fc"
  param {
    lr_mult: 1
    decay_mult: 1
  }
  param {
    lr_mult: 2
    decay_mult: 0
  }
  inner_product_param {
    num_output: 1024
    weight_filler {
      type: "xavier"
      std: 0.02
    }
    bias_filler {
      type: "constant"
      value: 0.2
    }
  }
}
layer {
  name: "loss1/relu_fc"
  type: "ReLU"
  bottom: "loss1/fc"
  top: "loss1/fc"
}
layer {
  name: "loss1/drop_fc"
  type: "Dropout"
  bottom: "loss1/fc"
  top: "loss1/fc"
  dropout_param {
    dropout_ratio: 0.7
  }
}
layer {
  name: "loss1/classifier_plantvillage"
  type: "InnerProduct"
  bottom: "loss1/fc"
  top: "loss1/classifier_plantvillage"
  param {
    lr_mult: 1
    decay_mult: 1
  }
  param {
    lr_mult: 2
    decay_mult: 0
  }
  inner_product_param {
    num_output: 38
    weight_filler {
      type: "xavier"
      std: 0.0009765625
    }
    bias_filler {
      type: "constant"
      value: 0
    }
  }
}
layer {
  name: "inception_4b/1x1"
  type: "Convolution"
  bottom: "inception_4a/output"
  top: "inception_4b/1x1"
  param {
    lr_mult: 1
    decay_mult: 1
  }
  param {
    lr_mult: 2
    decay_mult: 0
  }
  convolution_param {
    num_output: 160
    kernel_size: 1
    weight_filler {
      type: "xavier"
      std: 0.03
    }
    bias_filler {
      type: "constant"
      value: 0.2
    }
  }
}
layer {
  name: "inception_4b/relu_1x1"
  type: "ReLU"
  bottom: "inception_4b/1x1"
  top: "inception_4b/1x1"
}
layer {
  name: "inception_4b/3x3_reduce"
  type: "Convolution"
  bottom: "inception_4a/output"
  top: "inception_4b/3x3_reduce"
  param {
    lr_mult: 1
    decay_mult: 1
  }
  param {
    lr_mult: 2
    decay_mult: 0
  }
  convolution_param {
    num_output: 112
    kernel_size: 1
    weight_filler {
      type: "xavier"
      std: 0.09
    }
    bias_filler {
      type: "constant"
      value: 0.2
    }
  }
}
layer {
  name: "inception_4b/relu_3x3_reduce"
  type: "ReLU"
  bottom: "inception_4b/3x3_reduce"
  top: "inception_4b/3x3_reduce"
}
layer {
  name: "inception_4b/3x3"
  type: "Convolution"
  bottom: "inception_4b/3x3_reduce"
  top: "inception_4b/3x3"
  param {
    lr_mult: 1
    decay_mult: 1
  }
  param {
    lr_mult: 2
    decay_mult: 0
  }
  convolution_param {
    num_output: 224
    pad: 1
    kernel_size: 3
    weight_filler {
      type: "xavier"
      std: 0.03
    }
    bias_filler {
      type: "constant"
      value: 0.2
    }
  }
}
layer {
  name: "inception_4b/relu_3x3"
  type: "ReLU"
  bottom: "inception_4b/3x3"
  top: "inception_4b/3x3"
}
layer {
  name: "inception_4b/5x5_reduce"
  type: "Convolution"
  bottom: "inception_4a/output"
  top: "inception_4b/5x5_reduce"
  param {
    lr_mult: 1
    decay_mult: 1
  }
  param {
    lr_mult: 2
    decay_mult: 0
  }
  convolution_param {
    num_output: 24
    kernel_size: 1
    weight_filler {
      type: "xavier"
      std: 0.2
    }
    bias_filler {
      type: "constant"
      value: 0.2
    }
  }
}
layer {
  name: "inception_4b/relu_5x5_reduce"
  type: "ReLU"
  bottom: "inception_4b/5x5_reduce"
  top: "inception_4b/5x5_reduce"
}
layer {
  name: "inception_4b/5x5"
  type: "Convolution"
  bottom: "inception_4b/5x5_reduce"
  top: "inception_4b/5x5"
  param {
    lr_mult: 1
    decay_mult: 1
  }
  param {
    lr_mult: 2
    decay_mult: 0
  }
  convolution_param {
    num_output: 64
    pad: 2
    kernel_size: 5
    weight_filler {
      type: "xavier"
      std: 0.03
    }
    bias_filler {
      type: "constant"
      value: 0.2
    }
  }
}
layer {
  name: "inception_4b/relu_5x5"
  type: "ReLU"
  bottom: "inception_4b/5x5"
  top: "inception_4b/5x5"
}
layer {
  name: "inception_4b/pool"
  type: "Pooling"
  bottom: "inception_4a/output"
  top: "inception_4b/pool"
  pooling_param {
    pool: MAX
    kernel_size: 3
    stride: 1
    pad: 1
  }
}
layer {
  name: "inception_4b/pool_proj"
  type: "Convolution"
  bottom: "inception_4b/pool"
  top: "inception_4b/pool_proj"
  param {
    lr_mult: 1
    decay_mult: 1
  }
  param {
    lr_mult: 2
    decay_mult: 0
  }
  convolution_param {
    num_output: 64
    kernel_size: 1
    weight_filler {
      type: "xavier"
      std: 0.1
    }
    bias_filler {
      type: "constant"
      value: 0.2
    }
  }
}
layer {
  name: "inception_4b/relu_pool_proj"
  type: "ReLU"
  bottom: "inception_4b/pool_proj"
  top: "inception_4b/pool_proj"
}
layer {
  name: "inception_4b/output"
  type: "Concat"
  bottom: "inception_4b/1x1"
  bottom: "inception_4b/3x3"
  bottom: "inception_4b/5x5"
  bottom: "inception_4b/pool_proj"
  top: "inception_4b/output"
}
layer {
  name: "inception_4c/1x1"
  type: "Convolution"
  bottom: "inception_4b/output"
  top: "inception_4c/1x1"
  param {
    lr_mult: 1
    decay_mult: 1
  }
  param {
    lr_mult: 2
    decay_mult: 0
  }
  convolution_param {
    num_output: 128
    kernel_size: 1
    weight_filler {
      type: "xavier"
      std: 0.03
    }
    bias_filler {
      type: "constant"
      value: 0.2
    }
  }
}
layer {
  name: "inception_4c/relu_1x1"
  type: "ReLU"
  bottom: "inception_4c/1x1"
  top: "inception_4c/1x1"
}
layer {
  name: "inception_4c/3x3_reduce"
  type: "Convolution"
  bottom: "inception_4b/output"
  top: "inception_4c/3x3_reduce"
  param {
    lr_mult: 1
    decay_mult: 1
  }
  param {
    lr_mult: 2
    decay_mult: 0
  }
  convolution_param {
    num_output: 128
    kernel_size: 1
    weight_filler {
      type: "xavier"
      std: 0.09
    }
    bias_filler {
      type: "constant"
      value: 0.2
    }
  }
}
layer {
  name: "inception_4c/relu_3x3_reduce"
  type: "ReLU"
  bottom: "inception_4c/3x3_reduce"
  top: "inception_4c/3x3_reduce"
}
layer {
  name: "inception_4c/3x3"
  type: "Convolution"
  bottom: "inception_4c/3x3_reduce"
  top: "inception_4c/3x3"
  param {
    lr_mult: 1
    decay_mult: 1
  }
  param {
    lr_mult: 2
    decay_mult: 0
  }
  convolution_param {
    num_output: 256
    pad: 1
    kernel_size: 3
    weight_filler {
      type: "xavier"
      std: 0.03
    }
    bias_filler {
      type: "constant"
      value: 0.2
    }
  }
}
layer {
  name: "inception_4c/relu_3x3"
  type: "ReLU"
  bottom: "inception_4c/3x3"
  top: "inception_4c/3x3"
}
layer {
  name: "inception_4c/5x5_reduce"
  type: "Convolution"
  bottom: "inception_4b/output"
  top: "inception_4c/5x5_reduce"
  param {
    lr_mult: 1
    decay_mult: 1
  }
  param {
    lr_mult: 2
    decay_mult: 0
  }
  convolution_param {
    num_output: 24
    kernel_size: 1
    weight_filler {
      type: "xavier"
      std: 0.2
    }
    bias_filler {
      type: "constant"
      value: 0.2
    }
  }
}
layer {
  name: "inception_4c/relu_5x5_reduce"
  type: "ReLU"
  bottom: "inception_4c/5x5_reduce"
  top: "inception_4c/5x5_reduce"
}
layer {
  name: "inception_4c/5x5"
  type: "Convolution"
  bottom: "inception_4c/5x5_reduce"
  top: "inception_4c/5x5"
  param {
    lr_mult: 1
    decay_mult: 1
  }
  param {
    lr_mult: 2
    decay_mult: 0
  }
  convolution_param {
    num_output: 64
    pad: 2
    kernel_size: 5
    weight_filler {
      type: "xavier"
      std: 0.03
    }
    bias_filler {
      type: "constant"
      value: 0.2
    }
  }
}
layer {
  name: "inception_4c/relu_5x5"
  type: "ReLU"
  bottom: "inception_4c/5x5"
  top: "inception_4c/5x5"
}
layer {
  name: "inception_4c/pool"
  type: "Pooling"
  bottom: "inception_4b/output"
  top: "inception_4c/pool"
  pooling_param {
    pool: MAX
    kernel_size: 3
    stride: 1
    pad: 1
  }
}
layer {
  name: "inception_4c/pool_proj"
  type: "Convolution"
  bottom: "inception_4c/pool"
  top: "inception_4c/pool_proj"
  param {
    lr_mult: 1
    decay_mult: 1
  }
  param {
    lr_mult: 2
    decay_mult: 0
  }
  convolution_param {
    num_output: 64
    kernel_size: 1
    weight_filler {
      type: "xavier"
      std: 0.1
    }
    bias_filler {
      type: "constant"
      value: 0.2
    }
  }
}
layer {
  name: "inception_4c/relu_pool_proj"
  type: "ReLU"
  bottom: "inception_4c/pool_proj"
  top: "inception_4c/pool_proj"
}
layer {
  name: "inception_4c/output"
  type: "Concat"
  bottom: "inception_4c/1x1"
  bottom: "inception_4c/3x3"
  bottom: "inception_4c/5x5"
  bottom: "inception_4c/pool_proj"
  top: "inception_4c/output"
}
layer {
  name: "inception_4d/1x1"
  type: "Convolution"
  bottom: "inception_4c/output"
  top: "inception_4d/1x1"
  param {
    lr_mult: 1
    decay_mult: 1
  }
  param {
    lr_mult: 2
    decay_mult: 0
  }
  convolution_param {
    num_output: 112
    kernel_size: 1
    weight_filler {
      type: "xavier"
      std: 0.03
    }
    bias_filler {
      type: "constant"
      value: 0.2
    }
  }
}
layer {
  name: "inception_4d/relu_1x1"
  type: "ReLU"
  bottom: "inception_4d/1x1"
  top: "inception_4d/1x1"
}
layer {
  name: "inception_4d/3x3_reduce"
  type: "Convolution"
  bottom: "inception_4c/output"
  top: "inception_4d/3x3_reduce"
  param {
    lr_mult: 1
    decay_mult: 1
  }
  param {
    lr_mult: 2
    decay_mult: 0
  }
  convolution_param {
    num_output: 144
    kernel_size: 1
    weight_filler {
      type: "xavier"
      std: 0.09
    }
    bias_filler {
      type: "constant"
      value: 0.2
    }
  }
}
layer {
  name: "inception_4d/relu_3x3_reduce"
  type: "ReLU"
  bottom: "inception_4d/3x3_reduce"
  top: "inception_4d/3x3_reduce"
}
layer {
  name: "inception_4d/3x3"
  type: "Convolution"
  bottom: "inception_4d/3x3_reduce"
  top: "inception_4d/3x3"
  param {
    lr_mult: 1
    decay_mult: 1
  }
  param {
    lr_mult: 2
    decay_mult: 0
  }
  convolution_param {
    num_output: 288
    pad: 1
    kernel_size: 3
    weight_filler {
      type: "xavier"
      std: 0.03
    }
    bias_filler {
      type: "constant"
      value: 0.2
    }
  }
}
layer {
  name: "inception_4d/relu_3x3"
  type: "ReLU"
  bottom: "inception_4d/3x3"
  top: "inception_4d/3x3"
}
layer {
  name: "inception_4d/5x5_reduce"
  type: "Convolution"
  bottom: "inception_4c/output"
  top: "inception_4d/5x5_reduce"
  param {
    lr_mult: 1
    decay_mult: 1
  }
  param {
    lr_mult: 2
    decay_mult: 0
  }
  convolution_param {
    num_output: 32
    kernel_size: 1
    weight_filler {
      type: "xavier"
      std: 0.2
    }
    bias_filler {
      type: "constant"
      value: 0.2
    }
  }
}
layer {
  name: "inception_4d/relu_5x5_reduce"
  type: "ReLU"
  bottom: "inception_4d/5x5_reduce"
  top: "inception_4d/5x5_reduce"
}
layer {
  name: "inception_4d/5x5"
  type: "Convolution"
  bottom: "inception_4d/5x5_reduce"
  top: "inception_4d/5x5"
  param {
    lr_mult: 1
    decay_mult: 1
  }
  param {
    lr_mult: 2
    decay_mult: 0
  }
  convolution_param {
    num_output: 64
    pad: 2
    kernel_size: 5
    weight_filler {
      type: "xavier"
      std: 0.03
    }
    bias_filler {
      type: "constant"
      value: 0.2
    }
  }
}
layer {
  name: "inception_4d/relu_5x5"
  type: "ReLU"
  bottom: "inception_4d/5x5"
  top: "inception_4d/5x5"
}
layer {
  name: "inception_4d/pool"
  type: "Pooling"
  bottom: "inception_4c/output"
  top: "inception_4d/pool"
  pooling_param {
    pool: MAX
    kernel_size: 3
    stride: 1
    pad: 1
  }
}
layer {
  name: "inception_4d/pool_proj"
  type: "Convolution"
  bottom: "inception_4d/pool"
  top: "inception_4d/pool_proj"
  param {
    lr_mult: 1
    decay_mult: 1
  }
  param {
    lr_mult: 2
    decay_mult: 0
  }
  convolution_param {
    num_output: 64
    kernel_size: 1
    weight_filler {
      type: "xavier"
      std: 0.1
    }
    bias_filler {
      type: "constant"
      value: 0.2
    }
  }
}
layer {
  name: "inception_4d/relu_pool_proj"
  type: "ReLU"
  bottom: "inception_4d/pool_proj"
  top: "inception_4d/pool_proj"
}
layer {
  name: "inception_4d/output"
  type: "Concat"
  bottom: "inception_4d/1x1"
  bottom: "inception_4d/3x3"
  bottom: "inception_4d/5x5"
  bottom: "inception_4d/pool_proj"
  top: "inception_4d/output"
}
layer {
  name: "loss2/ave_pool"
  type: "Pooling"
  bottom: "inception_4d/output"
  top: "loss2/ave_pool"
  pooling_param {
    pool: AVE
    kernel_size: 5
    stride: 3
  }
}
layer {
  name: "loss2/conv"
  type: "Convolution"
  bottom: "loss2/ave_pool"
  top: "loss2/conv"
  param {
    lr_mult: 1
    decay_mult: 1
  }
  param {
    lr_mult: 2
    decay_mult: 0
  }
  convolution_param {
    num_output: 128
    kernel_size: 1
    weight_filler {
      type: "xavier"
      std: 0.08
    }
    bias_filler {
      type: "constant"
      value: 0.2
    }
  }
}
layer {
  name: "loss2/relu_conv"
  type: "ReLU"
  bottom: "loss2/conv"
  top: "loss2/conv"
}
layer {
  name: "loss2/fc"
  type: "InnerProduct"
  bottom: "loss2/conv"
  top: "loss2/fc"
  param {
    lr_mult: 1
    decay_mult: 1
  }
  param {
    lr_mult: 2
    decay_mult: 0
  }
  inner_product_param {
    num_output: 1024
    weight_filler {
      type: "xavier"
      std: 0.02
    }
    bias_filler {
      type: "constant"
      value: 0.2
    }
  }
}
layer {
  name: "loss2/relu_fc"
  type: "ReLU"
  bottom: "loss2/fc"
  top: "loss2/fc"
}
layer {
  name: "loss2/drop_fc"
  type: "Dropout"
  bottom: "loss2/fc"
  top: "loss2/fc"
  dropout_param {
    dropout_ratio: 0.7
  }
}
layer {
  name: "loss2/classifier_plantvillage"
  type: "InnerProduct"
  bottom: "loss2/fc"
  top: "loss2/classifier_plantvillage"
  param {
    lr_mult: 1
    decay_mult: 1
  }
  param {
    lr_mult: 2
    decay_mult: 0
  }
  inner_product_param {
    num_output: 38
    weight_filler {
      type: "xavier"
      std: 0.0009765625
    }
    bias_filler {
      type: "constant"
      value: 0
    }
  }
}
layer {
  name: "inception_4e/1x1"
  type: "Convolution"
  bottom: "inception_4d/output"
  top: "inception_4e/1x1"
  param {
    lr_mult: 1
    decay_mult: 1
  }
  param {
    lr_mult: 2
    decay_mult: 0
  }
  convolution_param {
    num_output: 256
    kernel_size: 1
    weight_filler {
      type: "xavier"
      std: 0.03
    }
    bias_filler {
      type: "constant"
      value: 0.2
    }
  }
}
layer {
  name: "inception_4e/relu_1x1"
  type: "ReLU"
  bottom: "inception_4e/1x1"
  top: "inception_4e/1x1"
}
layer {
  name: "inception_4e/3x3_reduce"
  type: "Convolution"
  bottom: "inception_4d/output"
  top: "inception_4e/3x3_reduce"
  param {
    lr_mult: 1
    decay_mult: 1
  }
  param {
    lr_mult: 2
    decay_mult: 0
  }
  convolution_param {
    num_output: 160
    kernel_size: 1
    weight_filler {
      type: "xavier"
      std: 0.09
    }
    bias_filler {
      type: "constant"
      value: 0.2
    }
  }
}
layer {
  name: "inception_4e/relu_3x3_reduce"
  type: "ReLU"
  bottom: "inception_4e/3x3_reduce"
  top: "inception_4e/3x3_reduce"
}
layer {
  name: "inception_4e/3x3"
  type: "Convolution"
  bottom: "inception_4e/3x3_reduce"
  top: "inception_4e/3x3"
  param {
    lr_mult: 1
    decay_mult: 1
  }
  param {
    lr_mult: 2
    decay_mult: 0
  }
  convolution_param {
    num_output: 320
    pad: 1
    kernel_size: 3
    weight_filler {
      type: "xavier"
      std: 0.03
    }
    bias_filler {
      type: "constant"
      value: 0.2
    }
  }
}
layer {
  name: "inception_4e/relu_3x3"
  type: "ReLU"
  bottom: "inception_4e/3x3"
  top: "inception_4e/3x3"
}
layer {
  name: "inception_4e/5x5_reduce"
  type: "Convolution"
  bottom: "inception_4d/output"
  top: "inception_4e/5x5_reduce"
  param {
    lr_mult: 1
    decay_mult: 1
  }
  param {
    lr_mult: 2
    decay_mult: 0
  }
  convolution_param {
    num_output: 32
    kernel_size: 1
    weight_filler {
      type: "xavier"
      std: 0.2
    }
    bias_filler {
      type: "constant"
      value: 0.2
    }
  }
}
layer {
  name: "inception_4e/relu_5x5_reduce"
  type: "ReLU"
  bottom: "inception_4e/5x5_reduce"
  top: "inception_4e/5x5_reduce"
}
layer {
  name: "inception_4e/5x5"
  type: "Convolution"
  bottom: "inception_4e/5x5_reduce"
  top: "inception_4e/5x5"
  p
I0404 13:44:16.124933 11586 layer_factory.hpp:77] Creating layer data
I0404 13:44:16.125597 11586 net.cpp:91] Creating Layer data
I0404 13:44:16.125629 11586 net.cpp:399] data -> data
I0404 13:44:16.125679 11586 net.cpp:399] data -> label
I0404 13:44:16.125718 11586 data_transformer.cpp:25] Loading mean file from: /home/mohanty/data/bing_images/lmdb/bing-0-100/mean.binaryproto
I0404 13:44:16.191385 11589 db_lmdb.cpp:38] Opened lmdb /home/mohanty/data/bing_images/lmdb/bing-0-100/bing_test_db
I0404 13:44:16.216789 11586 data_layer.cpp:41] output data size: 132,3,224,224
I0404 13:44:16.386720 11586 net.cpp:141] Setting up data
I0404 13:44:16.386817 11586 net.cpp:148] Top shape: 132 3 224 224 (19869696)
I0404 13:44:16.386838 11586 net.cpp:148] Top shape: 132 (132)
I0404 13:44:16.386854 11586 net.cpp:156] Memory required for data: 79479312
I0404 13:44:16.386883 11586 layer_factory.hpp:77] Creating layer label_data_1_split
I0404 13:44:16.386909 11586 net.cpp:91] Creating Layer label_data_1_split
I0404 13:44:16.386926 11586 net.cpp:425] label_data_1_split <- label
I0404 13:44:16.386960 11586 net.cpp:399] label_data_1_split -> label_data_1_split_0
I0404 13:44:16.386986 11586 net.cpp:399] label_data_1_split -> label_data_1_split_1
I0404 13:44:16.387007 11586 net.cpp:399] label_data_1_split -> label_data_1_split_2
I0404 13:44:16.387028 11586 net.cpp:399] label_data_1_split -> label_data_1_split_3
I0404 13:44:16.387047 11586 net.cpp:399] label_data_1_split -> label_data_1_split_4
I0404 13:44:16.387064 11586 net.cpp:399] label_data_1_split -> label_data_1_split_5
I0404 13:44:16.387084 11586 net.cpp:399] label_data_1_split -> label_data_1_split_6
I0404 13:44:16.387102 11586 net.cpp:399] label_data_1_split -> label_data_1_split_7
I0404 13:44:16.387121 11586 net.cpp:399] label_data_1_split -> label_data_1_split_8
I0404 13:44:16.387230 11586 net.cpp:141] Setting up label_data_1_split
I0404 13:44:16.387253 11586 net.cpp:148] Top shape: 132 (132)
I0404 13:44:16.387270 11586 net.cpp:148] Top shape: 132 (132)
I0404 13:44:16.387285 11586 net.cpp:148] Top shape: 132 (132)
I0404 13:44:16.387300 11586 net.cpp:148] Top shape: 132 (132)
I0404 13:44:16.387315 11586 net.cpp:148] Top shape: 132 (132)
I0404 13:44:16.387331 11586 net.cpp:148] Top shape: 132 (132)
I0404 13:44:16.387346 11586 net.cpp:148] Top shape: 132 (132)
I0404 13:44:16.387361 11586 net.cpp:148] Top shape: 132 (132)
I0404 13:44:16.387374 11586 net.cpp:148] Top shape: 132 (132)
I0404 13:44:16.387387 11586 net.cpp:156] Memory required for data: 79484064
I0404 13:44:16.387403 11586 layer_factory.hpp:77] Creating layer conv1/7x7_s2
I0404 13:44:16.387466 11586 net.cpp:91] Creating Layer conv1/7x7_s2
I0404 13:44:16.387485 11586 net.cpp:425] conv1/7x7_s2 <- data
I0404 13:44:16.387504 11586 net.cpp:399] conv1/7x7_s2 -> conv1/7x7_s2
I0404 13:44:16.818445 11586 net.cpp:141] Setting up conv1/7x7_s2
I0404 13:44:16.818506 11586 net.cpp:148] Top shape: 132 64 112 112 (105971712)
I0404 13:44:16.818523 11586 net.cpp:156] Memory required for data: 503370912
I0404 13:44:16.818558 11586 layer_factory.hpp:77] Creating layer conv1/relu_7x7
I0404 13:44:16.818588 11586 net.cpp:91] Creating Layer conv1/relu_7x7
I0404 13:44:16.818606 11586 net.cpp:425] conv1/relu_7x7 <- conv1/7x7_s2
I0404 13:44:16.818624 11586 net.cpp:386] conv1/relu_7x7 -> conv1/7x7_s2 (in-place)
I0404 13:44:16.819316 11586 net.cpp:141] Setting up conv1/relu_7x7
I0404 13:44:16.819350 11586 net.cpp:148] Top shape: 132 64 112 112 (105971712)
I0404 13:44:16.819366 11586 net.cpp:156] Memory required for data: 927257760
I0404 13:44:16.819381 11586 layer_factory.hpp:77] Creating layer pool1/3x3_s2
I0404 13:44:16.819407 11586 net.cpp:91] Creating Layer pool1/3x3_s2
I0404 13:44:16.819425 11586 net.cpp:425] pool1/3x3_s2 <- conv1/7x7_s2
I0404 13:44:16.819443 11586 net.cpp:399] pool1/3x3_s2 -> pool1/3x3_s2
I0404 13:44:16.819524 11586 net.cpp:141] Setting up pool1/3x3_s2
I0404 13:44:16.819555 11586 net.cpp:148] Top shape: 132 64 56 56 (26492928)
I0404 13:44:16.819571 11586 net.cpp:156] Memory required for data: 1033229472
I0404 13:44:16.819584 11586 layer_factory.hpp:77] Creating layer pool1/norm1
I0404 13:44:16.819615 11586 net.cpp:91] Creating Layer pool1/norm1
I0404 13:44:16.819633 11586 net.cpp:425] pool1/norm1 <- pool1/3x3_s2
I0404 13:44:16.819650 11586 net.cpp:399] pool1/norm1 -> pool1/norm1
I0404 13:44:16.819953 11586 net.cpp:141] Setting up pool1/norm1
I0404 13:44:16.819980 11586 net.cpp:148] Top shape: 132 64 56 56 (26492928)
I0404 13:44:16.819995 11586 net.cpp:156] Memory required for data: 1139201184
I0404 13:44:16.820009 11586 layer_factory.hpp:77] Creating layer conv2/3x3_reduce
I0404 13:44:16.820035 11586 net.cpp:91] Creating Layer conv2/3x3_reduce
I0404 13:44:16.820053 11586 net.cpp:425] conv2/3x3_reduce <- pool1/norm1
I0404 13:44:16.820073 11586 net.cpp:399] conv2/3x3_reduce -> conv2/3x3_reduce
I0404 13:44:16.821501 11586 net.cpp:141] Setting up conv2/3x3_reduce
I0404 13:44:16.821529 11586 net.cpp:148] Top shape: 132 64 56 56 (26492928)
I0404 13:44:16.821550 11586 net.cpp:156] Memory required for data: 1245172896
I0404 13:44:16.821573 11586 layer_factory.hpp:77] Creating layer conv2/relu_3x3_reduce
I0404 13:44:16.821591 11586 net.cpp:91] Creating Layer conv2/relu_3x3_reduce
I0404 13:44:16.821606 11586 net.cpp:425] conv2/relu_3x3_reduce <- conv2/3x3_reduce
I0404 13:44:16.821626 11586 net.cpp:386] conv2/relu_3x3_reduce -> conv2/3x3_reduce (in-place)
I0404 13:44:16.821892 11586 net.cpp:141] Setting up conv2/relu_3x3_reduce
I0404 13:44:16.821920 11586 net.cpp:148] Top shape: 132 64 56 56 (26492928)
I0404 13:44:16.821936 11586 net.cpp:156] Memory required for data: 1351144608
I0404 13:44:16.821950 11586 layer_factory.hpp:77] Creating layer conv2/3x3
I0404 13:44:16.821974 11586 net.cpp:91] Creating Layer conv2/3x3
I0404 13:44:16.821991 11586 net.cpp:425] conv2/3x3 <- conv2/3x3_reduce
I0404 13:44:16.822013 11586 net.cpp:399] conv2/3x3 -> conv2/3x3
I0404 13:44:16.824291 11586 net.cpp:141] Setting up conv2/3x3
I0404 13:44:16.824323 11586 net.cpp:148] Top shape: 132 192 56 56 (79478784)
I0404 13:44:16.824340 11586 net.cpp:156] Memory required for data: 1669059744
I0404 13:44:16.824362 11586 layer_factory.hpp:77] Creating layer conv2/relu_3x3
I0404 13:44:16.824379 11586 net.cpp:91] Creating Layer conv2/relu_3x3
I0404 13:44:16.824395 11586 net.cpp:425] conv2/relu_3x3 <- conv2/3x3
I0404 13:44:16.824416 11586 net.cpp:386] conv2/relu_3x3 -> conv2/3x3 (in-place)
I0404 13:44:16.824611 11586 net.cpp:141] Setting up conv2/relu_3x3
I0404 13:44:16.824636 11586 net.cpp:148] Top shape: 132 192 56 56 (79478784)
I0404 13:44:16.824652 11586 net.cpp:156] Memory required for data: 1986974880
I0404 13:44:16.824695 11586 layer_factory.hpp:77] Creating layer conv2/norm2
I0404 13:44:16.824717 11586 net.cpp:91] Creating Layer conv2/norm2
I0404 13:44:16.824733 11586 net.cpp:425] conv2/norm2 <- conv2/3x3
I0404 13:44:16.824750 11586 net.cpp:399] conv2/norm2 -> conv2/norm2
I0404 13:44:16.825054 11586 net.cpp:141] Setting up conv2/norm2
I0404 13:44:16.825084 11586 net.cpp:148] Top shape: 132 192 56 56 (79478784)
I0404 13:44:16.825101 11586 net.cpp:156] Memory required for data: 2304890016
I0404 13:44:16.825115 11586 layer_factory.hpp:77] Creating layer pool2/3x3_s2
I0404 13:44:16.825134 11586 net.cpp:91] Creating Layer pool2/3x3_s2
I0404 13:44:16.825147 11586 net.cpp:425] pool2/3x3_s2 <- conv2/norm2
I0404 13:44:16.825167 11586 net.cpp:399] pool2/3x3_s2 -> pool2/3x3_s2
I0404 13:44:16.825218 11586 net.cpp:141] Setting up pool2/3x3_s2
I0404 13:44:16.825240 11586 net.cpp:148] Top shape: 132 192 28 28 (19869696)
I0404 13:44:16.825255 11586 net.cpp:156] Memory required for data: 2384368800
I0404 13:44:16.825269 11586 layer_factory.hpp:77] Creating layer pool2/3x3_s2_pool2/3x3_s2_0_split
I0404 13:44:16.825289 11586 net.cpp:91] Creating Layer pool2/3x3_s2_pool2/3x3_s2_0_split
I0404 13:44:16.825304 11586 net.cpp:425] pool2/3x3_s2_pool2/3x3_s2_0_split <- pool2/3x3_s2
I0404 13:44:16.825321 11586 net.cpp:399] pool2/3x3_s2_pool2/3x3_s2_0_split -> pool2/3x3_s2_pool2/3x3_s2_0_split_0
I0404 13:44:16.825340 11586 net.cpp:399] pool2/3x3_s2_pool2/3x3_s2_0_split -> pool2/3x3_s2_pool2/3x3_s2_0_split_1
I0404 13:44:16.825358 11586 net.cpp:399] pool2/3x3_s2_pool2/3x3_s2_0_split -> pool2/3x3_s2_pool2/3x3_s2_0_split_2
I0404 13:44:16.825381 11586 net.cpp:399] pool2/3x3_s2_pool2/3x3_s2_0_split -> pool2/3x3_s2_pool2/3x3_s2_0_split_3
I0404 13:44:16.825451 11586 net.cpp:141] Setting up pool2/3x3_s2_pool2/3x3_s2_0_split
I0404 13:44:16.825474 11586 net.cpp:148] Top shape: 132 192 28 28 (19869696)
I0404 13:44:16.825489 11586 net.cpp:148] Top shape: 132 192 28 28 (19869696)
I0404 13:44:16.825505 11586 net.cpp:148] Top shape: 132 192 28 28 (19869696)
I0404 13:44:16.825520 11586 net.cpp:148] Top shape: 132 192 28 28 (19869696)
I0404 13:44:16.825532 11586 net.cpp:156] Memory required for data: 2702283936
I0404 13:44:16.825552 11586 layer_factory.hpp:77] Creating layer inception_3a/1x1
I0404 13:44:16.825575 11586 net.cpp:91] Creating Layer inception_3a/1x1
I0404 13:44:16.825592 11586 net.cpp:425] inception_3a/1x1 <- pool2/3x3_s2_pool2/3x3_s2_0_split_0
I0404 13:44:16.825613 11586 net.cpp:399] inception_3a/1x1 -> inception_3a/1x1
I0404 13:44:16.827097 11586 net.cpp:141] Setting up inception_3a/1x1
I0404 13:44:16.827127 11586 net.cpp:148] Top shape: 132 64 28 28 (6623232)
I0404 13:44:16.827143 11586 net.cpp:156] Memory required for data: 2728776864
I0404 13:44:16.827160 11586 layer_factory.hpp:77] Creating layer inception_3a/relu_1x1
I0404 13:44:16.827178 11586 net.cpp:91] Creating Layer inception_3a/relu_1x1
I0404 13:44:16.827193 11586 net.cpp:425] inception_3a/relu_1x1 <- inception_3a/1x1
I0404 13:44:16.827214 11586 net.cpp:386] inception_3a/relu_1x1 -> inception_3a/1x1 (in-place)
I0404 13:44:16.827385 11586 net.cpp:141] Setting up inception_3a/relu_1x1
I0404 13:44:16.827410 11586 net.cpp:148] Top shape: 132 64 28 28 (6623232)
I0404 13:44:16.827425 11586 net.cpp:156] Memory required for data: 2755269792
I0404 13:44:16.827438 11586 layer_factory.hpp:77] Creating layer inception_3a/3x3_reduce
I0404 13:44:16.827461 11586 net.cpp:91] Creating Layer inception_3a/3x3_reduce
I0404 13:44:16.827477 11586 net.cpp:425] inception_3a/3x3_reduce <- pool2/3x3_s2_pool2/3x3_s2_0_split_1
I0404 13:44:16.827498 11586 net.cpp:399] inception_3a/3x3_reduce -> inception_3a/3x3_reduce
I0404 13:44:16.829229 11586 net.cpp:141] Setting up inception_3a/3x3_reduce
I0404 13:44:16.829260 11586 net.cpp:148] Top shape: 132 96 28 28 (9934848)
I0404 13:44:16.829279 11586 net.cpp:156] Memory required for data: 2795009184
I0404 13:44:16.829303 11586 layer_factory.hpp:77] Creating layer inception_3a/relu_3x3_reduce
I0404 13:44:16.829326 11586 net.cpp:91] Creating Layer inception_3a/relu_3x3_reduce
I0404 13:44:16.829358 11586 net.cpp:425] inception_3a/relu_3x3_reduce <- inception_3a/3x3_reduce
I0404 13:44:16.829377 11586 net.cpp:386] inception_3a/relu_3x3_reduce -> inception_3a/3x3_reduce (in-place)
I0404 13:44:16.829583 11586 net.cpp:141] Setting up inception_3a/relu_3x3_reduce
I0404 13:44:16.829612 11586 net.cpp:148] Top shape: 132 96 28 28 (9934848)
I0404 13:44:16.829627 11586 net.cpp:156] Memory required for data: 2834748576
I0404 13:44:16.829643 11586 layer_factory.hpp:77] Creating layer inception_3a/3x3
I0404 13:44:16.829664 11586 net.cpp:91] Creating Layer inception_3a/3x3
I0404 13:44:16.829681 11586 net.cpp:425] inception_3a/3x3 <- inception_3a/3x3_reduce
I0404 13:44:16.829699 11586 net.cpp:399] inception_3a/3x3 -> inception_3a/3x3
I0404 13:44:16.831411 11586 net.cpp:141] Setting up inception_3a/3x3
I0404 13:44:16.831440 11586 net.cpp:148] Top shape: 132 128 28 28 (13246464)
I0404 13:44:16.831455 11586 net.cpp:156] Memory required for data: 2887734432
I0404 13:44:16.831475 11586 layer_factory.hpp:77] Creating layer inception_3a/relu_3x3
I0404 13:44:16.831492 11586 net.cpp:91] Creating Layer inception_3a/relu_3x3
I0404 13:44:16.831508 11586 net.cpp:425] inception_3a/relu_3x3 <- inception_3a/3x3
I0404 13:44:16.831527 11586 net.cpp:386] inception_3a/relu_3x3 -> inception_3a/3x3 (in-place)
I0404 13:44:16.831817 11586 net.cpp:141] Setting up inception_3a/relu_3x3
I0404 13:44:16.831845 11586 net.cpp:148] Top shape: 132 128 28 28 (13246464)
I0404 13:44:16.831861 11586 net.cpp:156] Memory required for data: 2940720288
I0404 13:44:16.831874 11586 layer_factory.hpp:77] Creating layer inception_3a/5x5_reduce
I0404 13:44:16.831898 11586 net.cpp:91] Creating Layer inception_3a/5x5_reduce
I0404 13:44:16.831915 11586 net.cpp:425] inception_3a/5x5_reduce <- pool2/3x3_s2_pool2/3x3_s2_0_split_2
I0404 13:44:16.831938 11586 net.cpp:399] inception_3a/5x5_reduce -> inception_3a/5x5_reduce
I0404 13:44:16.832931 11586 net.cpp:141] Setting up inception_3a/5x5_reduce
I0404 13:44:16.832962 11586 net.cpp:148] Top shape: 132 16 28 28 (1655808)
I0404 13:44:16.832979 11586 net.cpp:156] Memory required for data: 2947343520
I0404 13:44:16.832998 11586 layer_factory.hpp:77] Creating layer inception_3a/relu_5x5_reduce
I0404 13:44:16.833016 11586 net.cpp:91] Creating Layer inception_3a/relu_5x5_reduce
I0404 13:44:16.833032 11586 net.cpp:425] inception_3a/relu_5x5_reduce <- inception_3a/5x5_reduce
I0404 13:44:16.833050 11586 net.cpp:386] inception_3a/relu_5x5_reduce -> inception_3a/5x5_reduce (in-place)
I0404 13:44:16.833353 11586 net.cpp:141] Setting up inception_3a/relu_5x5_reduce
I0404 13:44:16.833381 11586 net.cpp:148] Top shape: 132 16 28 28 (1655808)
I0404 13:44:16.833396 11586 net.cpp:156] Memory required for data: 2953966752
I0404 13:44:16.833410 11586 layer_factory.hpp:77] Creating layer inception_3a/5x5
I0404 13:44:16.833433 11586 net.cpp:91] Creating Layer inception_3a/5x5
I0404 13:44:16.833451 11586 net.cpp:425] inception_3a/5x5 <- inception_3a/5x5_reduce
I0404 13:44:16.833473 11586 net.cpp:399] inception_3a/5x5 -> inception_3a/5x5
I0404 13:44:16.834522 11586 net.cpp:141] Setting up inception_3a/5x5
I0404 13:44:16.834561 11586 net.cpp:148] Top shape: 132 32 28 28 (3311616)
I0404 13:44:16.834579 11586 net.cpp:156] Memory required for data: 2967213216
I0404 13:44:16.834599 11586 layer_factory.hpp:77] Creating layer inception_3a/relu_5x5
I0404 13:44:16.834619 11586 net.cpp:91] Creating Layer inception_3a/relu_5x5
I0404 13:44:16.834636 11586 net.cpp:425] inception_3a/relu_5x5 <- inception_3a/5x5
I0404 13:44:16.834655 11586 net.cpp:386] inception_3a/relu_5x5 -> inception_3a/5x5 (in-place)
I0404 13:44:16.834828 11586 net.cpp:141] Setting up inception_3a/relu_5x5
I0404 13:44:16.834856 11586 net.cpp:148] Top shape: 132 32 28 28 (3311616)
I0404 13:44:16.834872 11586 net.cpp:156] Memory required for data: 2980459680
I0404 13:44:16.834887 11586 layer_factory.hpp:77] Creating layer inception_3a/pool
I0404 13:44:16.834904 11586 net.cpp:91] Creating Layer inception_3a/pool
I0404 13:44:16.834919 11586 net.cpp:425] inception_3a/pool <- pool2/3x3_s2_pool2/3x3_s2_0_split_3
I0404 13:44:16.834955 11586 net.cpp:399] inception_3a/pool -> inception_3a/pool
I0404 13:44:16.835016 11586 net.cpp:141] Setting up inception_3a/pool
I0404 13:44:16.835039 11586 net.cpp:148] Top shape: 132 192 28 28 (19869696)
I0404 13:44:16.835053 11586 net.cpp:156] Memory required for data: 3059938464
I0404 13:44:16.835068 11586 layer_factory.hpp:77] Creating layer inception_3a/pool_proj
I0404 13:44:16.835090 11586 net.cpp:91] Creating Layer inception_3a/pool_proj
I0404 13:44:16.835108 11586 net.cpp:425] inception_3a/pool_proj <- inception_3a/pool
I0404 13:44:16.835129 11586 net.cpp:399] inception_3a/pool_proj -> inception_3a/pool_proj
I0404 13:44:16.836112 11586 net.cpp:141] Setting up inception_3a/pool_proj
I0404 13:44:16.836140 11586 net.cpp:148] Top shape: 132 32 28 28 (3311616)
I0404 13:44:16.836155 11586 net.cpp:156] Memory required for data: 3073184928
I0404 13:44:16.836179 11586 layer_factory.hpp:77] Creating layer inception_3a/relu_pool_proj
I0404 13:44:16.836199 11586 net.cpp:91] Creating Layer inception_3a/relu_pool_proj
I0404 13:44:16.836215 11586 net.cpp:425] inception_3a/relu_pool_proj <- inception_3a/pool_proj
I0404 13:44:16.836236 11586 net.cpp:386] inception_3a/relu_pool_proj -> inception_3a/pool_proj (in-place)
I0404 13:44:16.836509 11586 net.cpp:141] Setting up inception_3a/relu_pool_proj
I0404 13:44:16.836542 11586 net.cpp:148] Top shape: 132 32 28 28 (3311616)
I0404 13:44:16.836560 11586 net.cpp:156] Memory required for data: 3086431392
I0404 13:44:16.836575 11586 layer_factory.hpp:77] Creating layer inception_3a/output
I0404 13:44:16.836592 11586 net.cpp:91] Creating Layer inception_3a/output
I0404 13:44:16.836607 11586 net.cpp:425] inception_3a/output <- inception_3a/1x1
I0404 13:44:16.836624 11586 net.cpp:425] inception_3a/output <- inception_3a/3x3
I0404 13:44:16.836640 11586 net.cpp:425] inception_3a/output <- inception_3a/5x5
I0404 13:44:16.836657 11586 net.cpp:425] inception_3a/output <- inception_3a/pool_proj
I0404 13:44:16.836676 11586 net.cpp:399] inception_3a/output -> inception_3a/output
I0404 13:44:16.836724 11586 net.cpp:141] Setting up inception_3a/output
I0404 13:44:16.836746 11586 net.cpp:148] Top shape: 132 256 28 28 (26492928)
I0404 13:44:16.836761 11586 net.cpp:156] Memory required for data: 3192403104
I0404 13:44:16.836776 11586 layer_factory.hpp:77] Creating layer inception_3a/output_inception_3a/output_0_split
I0404 13:44:16.836796 11586 net.cpp:91] Creating Layer inception_3a/output_inception_3a/output_0_split
I0404 13:44:16.836812 11586 net.cpp:425] inception_3a/output_inception_3a/output_0_split <- inception_3a/output
I0404 13:44:16.836830 11586 net.cpp:399] inception_3a/output_inception_3a/output_0_split -> inception_3a/output_inception_3a/output_0_split_0
I0404 13:44:16.836849 11586 net.cpp:399] inception_3a/output_inception_3a/output_0_split -> inception_3a/output_inception_3a/output_0_split_1
I0404 13:44:16.836871 11586 net.cpp:399] inception_3a/output_inception_3a/output_0_split -> inception_3a/output_inception_3a/output_0_split_2
I0404 13:44:16.836895 11586 net.cpp:399] inception_3a/output_inception_3a/output_0_split -> inception_3a/output_inception_3a/output_0_split_3
I0404 13:44:16.836973 11586 net.cpp:141] Setting up inception_3a/output_inception_3a/output_0_split
I0404 13:44:16.836998 11586 net.cpp:148] Top shape: 132 256 28 28 (26492928)
I0404 13:44:16.837016 11586 net.cpp:148] Top shape: 132 256 28 28 (26492928)
I0404 13:44:16.837033 11586 net.cpp:148] Top shape: 132 256 28 28 (26492928)
I0404 13:44:16.837049 11586 net.cpp:148] Top shape: 132 256 28 28 (26492928)
I0404 13:44:16.837062 11586 net.cpp:156] Memory required for data: 3616289952
I0404 13:44:16.837075 11586 layer_factory.hpp:77] Creating layer inception_3b/1x1
I0404 13:44:16.837098 11586 net.cpp:91] Creating Layer inception_3b/1x1
I0404 13:44:16.837116 11586 net.cpp:425] inception_3b/1x1 <- inception_3a/output_inception_3a/output_0_split_0
I0404 13:44:16.837136 11586 net.cpp:399] inception_3b/1x1 -> inception_3b/1x1
I0404 13:44:16.838299 11586 net.cpp:141] Setting up inception_3b/1x1
I0404 13:44:16.838340 11586 net.cpp:148] Top shape: 132 128 28 28 (13246464)
I0404 13:44:16.838359 11586 net.cpp:156] Memory required for data: 3669275808
I0404 13:44:16.838377 11586 layer_factory.hpp:77] Creating layer inception_3b/relu_1x1
I0404 13:44:16.838397 11586 net.cpp:91] Creating Layer inception_3b/relu_1x1
I0404 13:44:16.838413 11586 net.cpp:425] inception_3b/relu_1x1 <- inception_3b/1x1
I0404 13:44:16.838429 11586 net.cpp:386] inception_3b/relu_1x1 -> inception_3b/1x1 (in-place)
I0404 13:44:16.838613 11586 net.cpp:141] Setting up inception_3b/relu_1x1
I0404 13:44:16.838640 11586 net.cpp:148] Top shape: 132 128 28 28 (13246464)
I0404 13:44:16.838656 11586 net.cpp:156] Memory required for data: 3722261664
I0404 13:44:16.838671 11586 layer_factory.hpp:77] Creating layer inception_3b/3x3_reduce
I0404 13:44:16.838695 11586 net.cpp:91] Creating Layer inception_3b/3x3_reduce
I0404 13:44:16.838712 11586 net.cpp:425] inception_3b/3x3_reduce <- inception_3a/output_inception_3a/output_0_split_1
I0404 13:44:16.838731 11586 net.cpp:399] inception_3b/3x3_reduce -> inception_3b/3x3_reduce
I0404 13:44:16.839896 11586 net.cpp:141] Setting up inception_3b/3x3_reduce
I0404 13:44:16.839926 11586 net.cpp:148] Top shape: 132 128 28 28 (13246464)
I0404 13:44:16.839941 11586 net.cpp:156] Memory required for data: 3775247520
I0404 13:44:16.839958 11586 layer_factory.hpp:77] Creating layer inception_3b/relu_3x3_reduce
I0404 13:44:16.839979 11586 net.cpp:91] Creating Layer inception_3b/relu_3x3_reduce
I0404 13:44:16.839997 11586 net.cpp:425] inception_3b/relu_3x3_reduce <- inception_3b/3x3_reduce
I0404 13:44:16.840013 11586 net.cpp:386] inception_3b/relu_3x3_reduce -> inception_3b/3x3_reduce (in-place)
I0404 13:44:16.840189 11586 net.cpp:141] Setting up inception_3b/relu_3x3_reduce
I0404 13:44:16.840214 11586 net.cpp:148] Top shape: 132 128 28 28 (13246464)
I0404 13:44:16.840230 11586 net.cpp:156] Memory required for data: 3828233376
I0404 13:44:16.840245 11586 layer_factory.hpp:77] Creating layer inception_3b/3x3
I0404 13:44:16.840272 11586 net.cpp:91] Creating Layer inception_3b/3x3
I0404 13:44:16.840291 11586 net.cpp:425] inception_3b/3x3 <- inception_3b/3x3_reduce
I0404 13:44:16.840312 11586 net.cpp:399] inception_3b/3x3 -> inception_3b/3x3
I0404 13:44:16.843283 11586 net.cpp:141] Setting up inception_3b/3x3
I0404 13:44:16.843315 11586 net.cpp:148] Top shape: 132 192 28 28 (19869696)
I0404 13:44:16.843333 11586 net.cpp:156] Memory required for data: 3907712160
I0404 13:44:16.843351 11586 layer_factory.hpp:77] Creating layer inception_3b/relu_3x3
I0404 13:44:16.843369 11586 net.cpp:91] Creating Layer inception_3b/relu_3x3
I0404 13:44:16.843385 11586 net.cpp:425] inception_3b/relu_3x3 <- inception_3b/3x3
I0404 13:44:16.843405 11586 net.cpp:386] inception_3b/relu_3x3 -> inception_3b/3x3 (in-place)
I0404 13:44:16.843691 11586 net.cpp:141] Setting up inception_3b/relu_3x3
I0404 13:44:16.843720 11586 net.cpp:148] Top shape: 132 192 28 28 (19869696)
I0404 13:44:16.843737 11586 net.cpp:156] Memory required for data: 3987190944
I0404 13:44:16.843752 11586 layer_factory.hpp:77] Creating layer inception_3b/5x5_reduce
I0404 13:44:16.843775 11586 net.cpp:91] Creating Layer inception_3b/5x5_reduce
I0404 13:44:16.843793 11586 net.cpp:425] inception_3b/5x5_reduce <- inception_3a/output_inception_3a/output_0_split_2
I0404 13:44:16.843812 11586 net.cpp:399] inception_3b/5x5_reduce -> inception_3b/5x5_reduce
I0404 13:44:16.844856 11586 net.cpp:141] Setting up inception_3b/5x5_reduce
I0404 13:44:16.844883 11586 net.cpp:148] Top shape: 132 32 28 28 (3311616)
I0404 13:44:16.844899 11586 net.cpp:156] Memory required for data: 4000437408
I0404 13:44:16.844918 11586 layer_factory.hpp:77] Creating layer inception_3b/relu_5x5_reduce
I0404 13:44:16.844938 11586 net.cpp:91] Creating Layer inception_3b/relu_5x5_reduce
I0404 13:44:16.844955 11586 net.cpp:425] inception_3b/relu_5x5_reduce <- inception_3b/5x5_reduce
I0404 13:44:16.844974 11586 net.cpp:386] inception_3b/relu_5x5_reduce -> inception_3b/5x5_reduce (in-place)
I0404 13:44:16.845152 11586 net.cpp:141] Setting up inception_3b/relu_5x5_reduce
I0404 13:44:16.845193 11586 net.cpp:148] Top shape: 132 32 28 28 (3311616)
I0404 13:44:16.845209 11586 net.cpp:156] Memory required for data: 4013683872
I0404 13:44:16.845224 11586 layer_factory.hpp:77] Creating layer inception_3b/5x5
I0404 13:44:16.845247 11586 net.cpp:91] Creating Layer inception_3b/5x5
I0404 13:44:16.845266 11586 net.cpp:425] inception_3b/5x5 <- inception_3b/5x5_reduce
I0404 13:44:16.845285 11586 net.cpp:399] inception_3b/5x5 -> inception_3b/5x5
I0404 13:44:16.847311 11586 net.cpp:141] Setting up inception_3b/5x5
I0404 13:44:16.847342 11586 net.cpp:148] Top shape: 132 96 28 28 (9934848)
I0404 13:44:16.847357 11586 net.cpp:156] Memory required for data: 4053423264
I0404 13:44:16.847375 11586 layer_factory.hpp:77] Creating layer inception_3b/relu_5x5
I0404 13:44:16.847393 11586 net.cpp:91] Creating Layer inception_3b/relu_5x5
I0404 13:44:16.847409 11586 net.cpp:425] inception_3b/relu_5x5 <- inception_3b/5x5
I0404 13:44:16.847431 11586 net.cpp:386] inception_3b/relu_5x5 -> inception_3b/5x5 (in-place)
I0404 13:44:16.847645 11586 net.cpp:141] Setting up inception_3b/relu_5x5
I0404 13:44:16.847671 11586 net.cpp:148] Top shape: 132 96 28 28 (9934848)
I0404 13:44:16.847687 11586 net.cpp:156] Memory required for data: 4093162656
I0404 13:44:16.847702 11586 layer_factory.hpp:77] Creating layer inception_3b/pool
I0404 13:44:16.847718 11586 net.cpp:91] Creating Layer inception_3b/pool
I0404 13:44:16.847735 11586 net.cpp:425] inception_3b/pool <- inception_3a/output_inception_3a/output_0_split_3
I0404 13:44:16.847754 11586 net.cpp:399] inception_3b/pool -> inception_3b/pool
I0404 13:44:16.847810 11586 net.cpp:141] Setting up inception_3b/pool
I0404 13:44:16.847832 11586 net.cpp:148] Top shape: 132 256 28 28 (26492928)
I0404 13:44:16.847846 11586 net.cpp:156] Memory required for data: 4199134368
I0404 13:44:16.847861 11586 layer_factory.hpp:77] Creating layer inception_3b/pool_proj
I0404 13:44:16.847883 11586 net.cpp:91] Creating Layer inception_3b/pool_proj
I0404 13:44:16.847901 11586 net.cpp:425] inception_3b/pool_proj <- inception_3b/pool
I0404 13:44:16.847921 11586 net.cpp:399] inception_3b/pool_proj -> inception_3b/pool_proj
I0404 13:44:16.848989 11586 net.cpp:141] Setting up inception_3b/pool_proj
I0404 13:44:16.849016 11586 net.cpp:148] Top shape: 132 64 28 28 (6623232)
I0404 13:44:16.849035 11586 net.cpp:156] Memory required for data: 4225627296
I0404 13:44:16.849056 11586 layer_factory.hpp:77] Creating layer inception_3b/relu_pool_proj
I0404 13:44:16.849076 11586 net.cpp:91] Creating Layer inception_3b/relu_pool_proj
I0404 13:44:16.849097 11586 net.cpp:425] inception_3b/relu_pool_proj <- inception_3b/pool_proj
I0404 13:44:16.849117 11586 net.cpp:386] inception_3b/relu_pool_proj -> inception_3b/pool_proj (in-place)
I0404 13:44:16.849519 11586 net.cpp:141] Setting up inception_3b/relu_pool_proj
I0404 13:44:16.849550 11586 net.cpp:148] Top shape: 132 64 28 28 (6623232)
I0404 13:44:16.849565 11586 net.cpp:156] Memory required for data: 4252120224
I0404 13:44:16.849581 11586 layer_factory.hpp:77] Creating layer inception_3b/output
I0404 13:44:16.849597 11586 net.cpp:91] Creating Layer inception_3b/output
I0404 13:44:16.849612 11586 net.cpp:425] inception_3b/output <- inception_3b/1x1
I0404 13:44:16.849628 11586 net.cpp:425] inception_3b/output <- inception_3b/3x3
I0404 13:44:16.849645 11586 net.cpp:425] inception_3b/output <- inception_3b/5x5
I0404 13:44:16.849660 11586 net.cpp:425] inception_3b/output <- inception_3b/pool_proj
I0404 13:44:16.849680 11586 net.cpp:399] inception_3b/output -> inception_3b/output
I0404 13:44:16.849728 11586 net.cpp:141] Setting up inception_3b/output
I0404 13:44:16.849752 11586 net.cpp:148] Top shape: 132 480 28 28 (49674240)
I0404 13:44:16.849767 11586 net.cpp:156] Memory required for data: 4450817184
I0404 13:44:16.849781 11586 layer_factory.hpp:77] Creating layer pool3/3x3_s2
I0404 13:44:16.849798 11586 net.cpp:91] Creating Layer pool3/3x3_s2
I0404 13:44:16.849813 11586 net.cpp:425] pool3/3x3_s2 <- inception_3b/output
I0404 13:44:16.849833 11586 net.cpp:399] pool3/3x3_s2 -> pool3/3x3_s2
I0404 13:44:16.849908 11586 net.cpp:141] Setting up pool3/3x3_s2
I0404 13:44:16.849932 11586 net.cpp:148] Top shape: 132 480 14 14 (12418560)
I0404 13:44:16.849947 11586 net.cpp:156] Memory required for data: 4500491424
I0404 13:44:16.849961 11586 layer_factory.hpp:77] Creating layer pool3/3x3_s2_pool3/3x3_s2_0_split
I0404 13:44:16.849980 11586 net.cpp:91] Creating Layer pool3/3x3_s2_pool3/3x3_s2_0_split
I0404 13:44:16.849997 11586 net.cpp:425] pool3/3x3_s2_pool3/3x3_s2_0_split <- pool3/3x3_s2
I0404 13:44:16.850014 11586 net.cpp:399] pool3/3x3_s2_pool3/3x3_s2_0_split -> pool3/3x3_s2_pool3/3x3_s2_0_split_0
I0404 13:44:16.850033 11586 net.cpp:399] pool3/3x3_s2_pool3/3x3_s2_0_split -> pool3/3x3_s2_pool3/3x3_s2_0_split_1
I0404 13:44:16.850056 11586 net.cpp:399] pool3/3x3_s2_pool3/3x3_s2_0_split -> pool3/3x3_s2_pool3/3x3_s2_0_split_2
I0404 13:44:16.850075 11586 net.cpp:399] pool3/3x3_s2_pool3/3x3_s2_0_split -> pool3/3x3_s2_pool3/3x3_s2_0_split_3
I0404 13:44:16.850154 11586 net.cpp:141] Setting up pool3/3x3_s2_pool3/3x3_s2_0_split
I0404 13:44:16.850178 11586 net.cpp:148] Top shape: 132 480 14 14 (12418560)
I0404 13:44:16.850193 11586 net.cpp:148] Top shape: 132 480 14 14 (12418560)
I0404 13:44:16.850209 11586 net.cpp:148] Top shape: 132 480 14 14 (12418560)
I0404 13:44:16.850224 11586 net.cpp:148] Top shape: 132 480 14 14 (12418560)
I0404 13:44:16.850237 11586 net.cpp:156] Memory required for data: 4699188384
I0404 13:44:16.850251 11586 layer_factory.hpp:77] Creating layer inception_4a/1x1
I0404 13:44:16.850275 11586 net.cpp:91] Creating Layer inception_4a/1x1
I0404 13:44:16.850292 11586 net.cpp:425] inception_4a/1x1 <- pool3/3x3_s2_pool3/3x3_s2_0_split_0
I0404 13:44:16.850313 11586 net.cpp:399] inception_4a/1x1 -> inception_4a/1x1
I0404 13:44:16.851933 11586 net.cpp:141] Setting up inception_4a/1x1
I0404 13:44:16.851960 11586 net.cpp:148] Top shape: 132 192 14 14 (4967424)
I0404 13:44:16.851975 11586 net.cpp:156] Memory required for data: 4719058080
I0404 13:44:16.851994 11586 layer_factory.hpp:77] Creating layer inception_4a/relu_1x1
I0404 13:44:16.852013 11586 net.cpp:91] Creating Layer inception_4a/relu_1x1
I0404 13:44:16.852031 11586 net.cpp:425] inception_4a/relu_1x1 <- inception_4a/1x1
I0404 13:44:16.852047 11586 net.cpp:386] inception_4a/relu_1x1 -> inception_4a/1x1 (in-place)
I0404 13:44:16.852222 11586 net.cpp:141] Setting up inception_4a/relu_1x1
I0404 13:44:16.852249 11586 net.cpp:148] Top shape: 132 192 14 14 (4967424)
I0404 13:44:16.852267 11586 net.cpp:156] Memory required for data: 4738927776
I0404 13:44:16.852280 11586 layer_factory.hpp:77] Creating layer inception_4a/3x3_reduce
I0404 13:44:16.852301 11586 net.cpp:91] Creating Layer inception_4a/3x3_reduce
I0404 13:44:16.852319 11586 net.cpp:425] inception_4a/3x3_reduce <- pool3/3x3_s2_pool3/3x3_s2_0_split_1
I0404 13:44:16.852337 11586 net.cpp:399] inception_4a/3x3_reduce -> inception_4a/3x3_reduce
I0404 13:44:16.853615 11586 net.cpp:141] Setting up inception_4a/3x3_reduce
I0404 13:44:16.853642 11586 net.cpp:148] Top shape: 132 96 14 14 (2483712)
I0404 13:44:16.853657 11586 net.cpp:156] Memory required for data: 4748862624
I0404 13:44:16.853682 11586 layer_factory.hpp:77] Creating layer inception_4a/relu_3x3_reduce
I0404 13:44:16.853703 11586 net.cpp:91] Creating Layer inception_4a/relu_3x3_reduce
I0404 13:44:16.853720 11586 net.cpp:425] inception_4a/relu_3x3_reduce <- inception_4a/3x3_reduce
I0404 13:44:16.853737 11586 net.cpp:386] inception_4a/relu_3x3_reduce -> inception_4a/3x3_reduce (in-place)
I0404 13:44:16.853904 11586 net.cpp:141] Setting up inception_4a/relu_3x3_reduce
I0404 13:44:16.853931 11586 net.cpp:148] Top shape: 132 96 14 14 (2483712)
I0404 13:44:16.853946 11586 net.cpp:156] Memory required for data: 4758797472
I0404 13:44:16.853960 11586 layer_factory.hpp:77] Creating layer inception_4a/3x3
I0404 13:44:16.853982 11586 net.cpp:91] Creating Layer inception_4a/3x3
I0404 13:44:16.853999 11586 net.cpp:425] inception_4a/3x3 <- inception_4a/3x3_reduce
I0404 13:44:16.854017 11586 net.cpp:399] inception_4a/3x3 -> inception_4a/3x3
I0404 13:44:16.856714 11586 net.cpp:141] Setting up inception_4a/3x3
I0404 13:44:16.856745 11586 net.cpp:148] Top shape: 132 208 14 14 (5381376)
I0404 13:44:16.856761 11586 net.cpp:156] Memory required for data: 4780322976
I0404 13:44:16.856780 11586 layer_factory.hpp:77] Creating layer inception_4a/relu_3x3
I0404 13:44:16.856797 11586 net.cpp:91] Creating Layer inception_4a/relu_3x3
I0404 13:44:16.856812 11586 net.cpp:425] inception_4a/relu_3x3 <- inception_4a/3x3
I0404 13:44:16.856829 11586 net.cpp:386] inception_4a/relu_3x3 -> inception_4a/3x3 (in-place)
I0404 13:44:16.857105 11586 net.cpp:141] Setting up inception_4a/relu_3x3
I0404 13:44:16.857134 11586 net.cpp:148] Top shape: 132 208 14 14 (5381376)
I0404 13:44:16.857151 11586 net.cpp:156] Memory required for data: 4801848480
I0404 13:44:16.857166 11586 layer_factory.hpp:77] Creating layer inception_4a/5x5_reduce
I0404 13:44:16.857187 11586 net.cpp:91] Creating Layer inception_4a/5x5_reduce
I0404 13:44:16.857204 11586 net.cpp:425] inception_4a/5x5_reduce <- pool3/3x3_s2_pool3/3x3_s2_0_split_2
I0404 13:44:16.857223 11586 net.cpp:399] inception_4a/5x5_reduce -> inception_4a/5x5_reduce
I0404 13:44:16.858289 11586 net.cpp:141] Setting up inception_4a/5x5_reduce
I0404 13:44:16.858315 11586 net.cpp:148] Top shape: 132 16 14 14 (413952)
I0404 13:44:16.858330 11586 net.cpp:156] Memory required for data: 4803504288
I0404 13:44:16.858348 11586 layer_factory.hpp:77] Creating layer inception_4a/relu_5x5_reduce
I0404 13:44:16.858366 11586 net.cpp:91] Creating Layer inception_4a/relu_5x5_reduce
I0404 13:44:16.858381 11586 net.cpp:425] inception_4a/relu_5x5_reduce <- inception_4a/5x5_reduce
I0404 13:44:16.858400 11586 net.cpp:386] inception_4a/relu_5x5_reduce -> inception_4a/5x5_reduce (in-place)
I0404 13:44:16.858582 11586 net.cpp:141] Setting up inception_4a/relu_5x5_reduce
I0404 13:44:16.858608 11586 net.cpp:148] Top shape: 132 16 14 14 (413952)
I0404 13:44:16.858623 11586 net.cpp:156] Memory required for data: 4805160096
I0404 13:44:16.858638 11586 layer_factory.hpp:77] Creating layer inception_4a/5x5
I0404 13:44:16.858659 11586 net.cpp:91] Creating Layer inception_4a/5x5
I0404 13:44:16.858676 11586 net.cpp:425] inception_4a/5x5 <- inception_4a/5x5_reduce
I0404 13:44:16.858697 11586 net.cpp:399] inception_4a/5x5 -> inception_4a/5x5
I0404 13:44:16.859802 11586 net.cpp:141] Setting up inception_4a/5x5
I0404 13:44:16.859829 11586 net.cpp:148] Top shape: 132 48 14 14 (1241856)
I0404 13:44:16.859844 11586 net.cpp:156] Memory required for data: 4810127520
I0404 13:44:16.859861 11586 layer_factory.hpp:77] Creating layer inception_4a/relu_5x5
I0404 13:44:16.859884 11586 net.cpp:91] Creating Layer inception_4a/relu_5x5
I0404 13:44:16.859901 11586 net.cpp:425] inception_4a/relu_5x5 <- inception_4a/5x5
I0404 13:44:16.859920 11586 net.cpp:386] inception_4a/relu_5x5 -> inception_4a/5x5 (in-place)
I0404 13:44:16.860093 11586 net.cpp:141] Setting up inception_4a/relu_5x5
I0404 13:44:16.860121 11586 net.cpp:148] Top shape: 132 48 14 14 (1241856)
I0404 13:44:16.860136 11586 net.cpp:156] Memory required for data: 4815094944
I0404 13:44:16.860151 11586 layer_factory.hpp:77] Creating layer inception_4a/pool
I0404 13:44:16.860167 11586 net.cpp:91] Creating Layer inception_4a/pool
I0404 13:44:16.860183 11586 net.cpp:425] inception_4a/pool <- pool3/3x3_s2_pool3/3x3_s2_0_split_3
I0404 13:44:16.860199 11586 net.cpp:399] inception_4a/pool -> inception_4a/pool
I0404 13:44:16.860260 11586 net.cpp:141] Setting up inception_4a/pool
I0404 13:44:16.860282 11586 net.cpp:148] Top shape: 132 480 14 14 (12418560)
I0404 13:44:16.860297 11586 net.cpp:156] Memory required for data: 4864769184
I0404 13:44:16.860311 11586 layer_factory.hpp:77] Creating layer inception_4a/pool_proj
I0404 13:44:16.860333 11586 net.cpp:91] Creating Layer inception_4a/pool_proj
I0404 13:44:16.860350 11586 net.cpp:425] inception_4a/pool_proj <- inception_4a/pool
I0404 13:44:16.860371 11586 net.cpp:399] inception_4a/pool_proj -> inception_4a/pool_proj
I0404 13:44:16.861575 11586 net.cpp:141] Setting up inception_4a/pool_proj
I0404 13:44:16.861618 11586 net.cpp:148] Top shape: 132 64 14 14 (1655808)
I0404 13:44:16.861634 11586 net.cpp:156] Memory required for data: 4871392416
I0404 13:44:16.861652 11586 layer_factory.hpp:77] Creating layer inception_4a/relu_pool_proj
I0404 13:44:16.861670 11586 net.cpp:91] Creating Layer inception_4a/relu_pool_proj
I0404 13:44:16.861685 11586 net.cpp:425] inception_4a/relu_pool_proj <- inception_4a/pool_proj
I0404 13:44:16.861706 11586 net.cpp:386] inception_4a/relu_pool_proj -> inception_4a/pool_proj (in-place)
I0404 13:44:16.861990 11586 net.cpp:141] Setting up inception_4a/relu_pool_proj
I0404 13:44:16.862018 11586 net.cpp:148] Top shape: 132 64 14 14 (1655808)
I0404 13:44:16.862033 11586 net.cpp:156] Memory required for data: 4878015648
I0404 13:44:16.862048 11586 layer_factory.hpp:77] Creating layer inception_4a/output
I0404 13:44:16.862064 11586 net.cpp:91] Creating Layer inception_4a/output
I0404 13:44:16.862079 11586 net.cpp:425] inception_4a/output <- inception_4a/1x1
I0404 13:44:16.862095 11586 net.cpp:425] inception_4a/output <- inception_4a/3x3
I0404 13:44:16.862112 11586 net.cpp:425] inception_4a/output <- inception_4a/5x5
I0404 13:44:16.862126 11586 net.cpp:425] inception_4a/output <- inception_4a/pool_proj
I0404 13:44:16.862143 11586 net.cpp:399] inception_4a/output -> inception_4a/output
I0404 13:44:16.862188 11586 net.cpp:141] Setting up inception_4a/output
I0404 13:44:16.862211 11586 net.cpp:148] Top shape: 132 512 14 14 (13246464)
I0404 13:44:16.862226 11586 net.cpp:156] Memory required for data: 4931001504
I0404 13:44:16.862238 11586 layer_factory.hpp:77] Creating layer inception_4a/output_inception_4a/output_0_split
I0404 13:44:16.862257 11586 net.cpp:91] Creating Layer inception_4a/output_inception_4a/output_0_split
I0404 13:44:16.862273 11586 net.cpp:425] inception_4a/output_inception_4a/output_0_split <- inception_4a/output
I0404 13:44:16.862290 11586 net.cpp:399] inception_4a/output_inception_4a/output_0_split -> inception_4a/output_inception_4a/output_0_split_0
I0404 13:44:16.862313 11586 net.cpp:399] inception_4a/output_inception_4a/output_0_split -> inception_4a/output_inception_4a/output_0_split_1
I0404 13:44:16.862331 11586 net.cpp:399] inception_4a/output_inception_4a/output_0_split -> inception_4a/output_inception_4a/output_0_split_2
I0404 13:44:16.862354 11586 net.cpp:399] inception_4a/output_inception_4a/output_0_split -> inception_4a/output_inception_4a/output_0_split_3
I0404 13:44:16.862375 11586 net.cpp:399] inception_4a/output_inception_4a/output_0_split -> inception_4a/output_inception_4a/output_0_split_4
I0404 13:44:16.862467 11586 net.cpp:141] Setting up inception_4a/output_inception_4a/output_0_split
I0404 13:44:16.862490 11586 net.cpp:148] Top shape: 132 512 14 14 (13246464)
I0404 13:44:16.862506 11586 net.cpp:148] Top shape: 132 512 14 14 (13246464)
I0404 13:44:16.862521 11586 net.cpp:148] Top shape: 132 512 14 14 (13246464)
I0404 13:44:16.862535 11586 net.cpp:148] Top shape: 132 512 14 14 (13246464)
I0404 13:44:16.862571 11586 net.cpp:148] Top shape: 132 512 14 14 (13246464)
I0404 13:44:16.862587 11586 net.cpp:156] Memory required for data: 5195930784
I0404 13:44:16.862602 11586 layer_factory.hpp:77] Creating layer loss1/ave_pool
I0404 13:44:16.862635 11586 net.cpp:91] Creating Layer loss1/ave_pool
I0404 13:44:16.862659 11586 net.cpp:425] loss1/ave_pool <- inception_4a/output_inception_4a/output_0_split_0
I0404 13:44:16.862678 11586 net.cpp:399] loss1/ave_pool -> loss1/ave_pool
I0404 13:44:16.862891 11586 net.cpp:141] Setting up loss1/ave_pool
I0404 13:44:16.862920 11586 net.cpp:148] Top shape: 132 512 4 4 (1081344)
I0404 13:44:16.862938 11586 net.cpp:156] Memory required for data: 5200256160
I0404 13:44:16.862953 11586 layer_factory.hpp:77] Creating layer loss1/conv
I0404 13:44:16.862975 11586 net.cpp:91] Creating Layer loss1/conv
I0404 13:44:16.862993 11586 net.cpp:425] loss1/conv <- loss1/ave_pool
I0404 13:44:16.863013 11586 net.cpp:399] loss1/conv -> loss1/conv
I0404 13:44:16.864471 11586 net.cpp:141] Setting up loss1/conv
I0404 13:44:16.864500 11586 net.cpp:148] Top shape: 132 128 4 4 (270336)
I0404 13:44:16.864529 11586 net.cpp:156] Memory required for data: 5201337504
I0404 13:44:16.864562 11586 layer_factory.hpp:77] Creating layer loss1/relu_conv
I0404 13:44:16.864584 11586 net.cpp:91] Creating Layer loss1/relu_conv
I0404 13:44:16.864601 11586 net.cpp:425] loss1/relu_conv <- loss1/conv
I0404 13:44:16.864619 11586 net.cpp:386] loss1/relu_conv -> loss1/conv (in-place)
I0404 13:44:16.864902 11586 net.cpp:141] Setting up loss1/relu_conv
I0404 13:44:16.864928 11586 net.cpp:148] Top shape: 132 128 4 4 (270336)
I0404 13:44:16.864943 11586 net.cpp:156] Memory required for data: 5202418848
I0404 13:44:16.864959 11586 layer_factory.hpp:77] Creating layer loss1/fc
I0404 13:44:16.864984 11586 net.cpp:91] Creating Layer loss1/fc
I0404 13:44:16.865003 11586 net.cpp:425] loss1/fc <- loss1/conv
I0404 13:44:16.865022 11586 net.cpp:399] loss1/fc -> loss1/fc
I0404 13:44:16.883121 11586 net.cpp:141] Setting up loss1/fc
I0404 13:44:16.883173 11586 net.cpp:148] Top shape: 132 1024 (135168)
I0404 13:44:16.883189 11586 net.cpp:156] Memory required for data: 5202959520
I0404 13:44:16.883208 11586 layer_factory.hpp:77] Creating layer loss1/relu_fc
I0404 13:44:16.883227 11586 net.cpp:91] Creating Layer loss1/relu_fc
I0404 13:44:16.883244 11586 net.cpp:425] loss1/relu_fc <- loss1/fc
I0404 13:44:16.883268 11586 net.cpp:386] loss1/relu_fc -> loss1/fc (in-place)
I0404 13:44:16.883476 11586 net.cpp:141] Setting up loss1/relu_fc
I0404 13:44:16.883501 11586 net.cpp:148] Top shape: 132 1024 (135168)
I0404 13:44:16.883515 11586 net.cpp:156] Memory required for data: 5203500192
I0404 13:44:16.883530 11586 layer_factory.hpp:77] Creating layer loss1/drop_fc
I0404 13:44:16.883563 11586 net.cpp:91] Creating Layer loss1/drop_fc
I0404 13:44:16.883584 11586 net.cpp:425] loss1/drop_fc <- loss1/fc
I0404 13:44:16.883600 11586 net.cpp:386] loss1/drop_fc -> loss1/fc (in-place)
I0404 13:44:16.883654 11586 net.cpp:141] Setting up loss1/drop_fc
I0404 13:44:16.883677 11586 net.cpp:148] Top shape: 132 1024 (135168)
I0404 13:44:16.883692 11586 net.cpp:156] Memory required for data: 5204040864
I0404 13:44:16.883707 11586 layer_factory.hpp:77] Creating layer loss1/classifier_plantvillage
I0404 13:44:16.883729 11586 net.cpp:91] Creating Layer loss1/classifier_plantvillage
I0404 13:44:16.883746 11586 net.cpp:425] loss1/classifier_plantvillage <- loss1/fc
I0404 13:44:16.883767 11586 net.cpp:399] loss1/classifier_plantvillage -> loss1/classifier_plantvillage
I0404 13:44:16.884696 11586 net.cpp:141] Setting up loss1/classifier_plantvillage
I0404 13:44:16.884722 11586 net.cpp:148] Top shape: 132 38 (5016)
I0404 13:44:16.884737 11586 net.cpp:156] Memory required for data: 5204060928
I0404 13:44:16.884754 11586 layer_factory.hpp:77] Creating layer loss1/classifier_plantvillage_loss1/classifier_plantvillage_0_split
I0404 13:44:16.884773 11586 net.cpp:91] Creating Layer loss1/classifier_plantvillage_loss1/classifier_plantvillage_0_split
I0404 13:44:16.884788 11586 net.cpp:425] loss1/classifier_plantvillage_loss1/classifier_plantvillage_0_split <- loss1/classifier_plantvillage
I0404 13:44:16.884809 11586 net.cpp:399] loss1/classifier_plantvillage_loss1/classifier_plantvillage_0_split -> loss1/classifier_plantvillage_loss1/classifier_plantvillage_0_split_0
I0404 13:44:16.884838 11586 net.cpp:399] loss1/classifier_plantvillage_loss1/classifier_plantvillage_0_split -> loss1/classifier_plantvillage_loss1/classifier_plantvillage_0_split_1
I0404 13:44:16.884860 11586 net.cpp:399] loss1/classifier_plantvillage_loss1/classifier_plantvillage_0_split -> loss1/classifier_plantvillage_loss1/classifier_plantvillage_0_split_2
I0404 13:44:16.884927 11586 net.cpp:141] Setting up loss1/classifier_plantvillage_loss1/classifier_plantvillage_0_split
I0404 13:44:16.884950 11586 net.cpp:148] Top shape: 132 38 (5016)
I0404 13:44:16.884966 11586 net.cpp:148] Top shape: 132 38 (5016)
I0404 13:44:16.884981 11586 net.cpp:148] Top shape: 132 38 (5016)
I0404 13:44:16.884995 11586 net.cpp:156] Memory required for data: 5204121120
I0404 13:44:16.885010 11586 layer_factory.hpp:77] Creating layer inception_4b/1x1
I0404 13:44:16.885057 11586 net.cpp:91] Creating Layer inception_4b/1x1
I0404 13:44:16.885076 11586 net.cpp:425] inception_4b/1x1 <- inception_4a/output_inception_4a/output_0_split_1
I0404 13:44:16.885094 11586 net.cpp:399] inception_4b/1x1 -> inception_4b/1x1
I0404 13:44:16.887048 11586 net.cpp:141] Setting up inception_4b/1x1
I0404 13:44:16.887076 11586 net.cpp:148] Top shape: 132 160 14 14 (4139520)
I0404 13:44:16.887092 11586 net.cpp:156] Memory required for data: 5220679200
I0404 13:44:16.887110 11586 layer_factory.hpp:77] Creating layer inception_4b/relu_1x1
I0404 13:44:16.887131 11586 net.cpp:91] Creating Layer inception_4b/relu_1x1
I0404 13:44:16.887148 11586 net.cpp:425] inception_4b/relu_1x1 <- inception_4b/1x1
I0404 13:44:16.887166 11586 net.cpp:386] inception_4b/relu_1x1 -> inception_4b/1x1 (in-place)
I0404 13:44:16.887346 11586 net.cpp:141] Setting up inception_4b/relu_1x1
I0404 13:44:16.887370 11586 net.cpp:148] Top shape: 132 160 14 14 (4139520)
I0404 13:44:16.887385 11586 net.cpp:156] Memory required for data: 5237237280
I0404 13:44:16.887399 11586 layer_factory.hpp:77] Creating layer inception_4b/3x3_reduce
I0404 13:44:16.887423 11586 net.cpp:91] Creating Layer inception_4b/3x3_reduce
I0404 13:44:16.887440 11586 net.cpp:425] inception_4b/3x3_reduce <- inception_4a/output_inception_4a/output_0_split_2
I0404 13:44:16.887459 11586 net.cpp:399] inception_4b/3x3_reduce -> inception_4b/3x3_reduce
I0404 13:44:16.888823 11586 net.cpp:141] Setting up inception_4b/3x3_reduce
I0404 13:44:16.888851 11586 net.cpp:148] Top shape: 132 112 14 14 (2897664)
I0404 13:44:16.888867 11586 net.cpp:156] Memory required for data: 5248827936
I0404 13:44:16.888885 11586 layer_factory.hpp:77] Creating layer inception_4b/relu_3x3_reduce
I0404 13:44:16.888905 11586 net.cpp:91] Creating Layer inception_4b/relu_3x3_reduce
I0404 13:44:16.888921 11586 net.cpp:425] inception_4b/relu_3x3_reduce <- inception_4b/3x3_reduce
I0404 13:44:16.888938 11586 net.cpp:386] inception_4b/relu_3x3_reduce -> inception_4b/3x3_reduce (in-place)
I0404 13:44:16.889221 11586 net.cpp:141] Setting up inception_4b/relu_3x3_reduce
I0404 13:44:16.889247 11586 net.cpp:148] Top shape: 132 112 14 14 (2897664)
I0404 13:44:16.889263 11586 net.cpp:156] Memory required for data: 5260418592
I0404 13:44:16.889277 11586 layer_factory.hpp:77] Creating layer inception_4b/3x3
I0404 13:44:16.889302 11586 net.cpp:91] Creating Layer inception_4b/3x3
I0404 13:44:16.889319 11586 net.cpp:425] inception_4b/3x3 <- inception_4b/3x3_reduce
I0404 13:44:16.889338 11586 net.cpp:399] inception_4b/3x3 -> inception_4b/3x3
I0404 13:44:16.892366 11586 net.cpp:141] Setting up inception_4b/3x3
I0404 13:44:16.892397 11586 net.cpp:148] Top shape: 132 224 14 14 (5795328)
I0404 13:44:16.892413 11586 net.cpp:156] Memory required for data: 5283599904
I0404 13:44:16.892431 11586 layer_factory.hpp:77] Creating layer inception_4b/relu_3x3
I0404 13:44:16.892449 11586 net.cpp:91] Creating Layer inception_4b/relu_3x3
I0404 13:44:16.892465 11586 net.cpp:425] inception_4b/relu_3x3 <- inception_4b/3x3
I0404 13:44:16.892485 11586 net.cpp:386] inception_4b/relu_3x3 -> inception_4b/3x3 (in-place)
I0404 13:44:16.892669 11586 net.cpp:141] Setting up inception_4b/relu_3x3
I0404 13:44:16.892694 11586 net.cpp:148] Top shape: 132 224 14 14 (5795328)
I0404 13:44:16.892709 11586 net.cpp:156] Memory required for data: 5306781216
I0404 13:44:16.892724 11586 layer_factory.hpp:77] Creating layer inception_4b/5x5_reduce
I0404 13:44:16.892745 11586 net.cpp:91] Creating Layer inception_4b/5x5_reduce
I0404 13:44:16.892762 11586 net.cpp:425] inception_4b/5x5_reduce <- inception_4a/output_inception_4a/output_0_split_3
I0404 13:44:16.892783 11586 net.cpp:399] inception_4b/5x5_reduce -> inception_4b/5x5_reduce
I0404 13:44:16.893862 11586 net.cpp:141] Setting up inception_4b/5x5_reduce
I0404 13:44:16.893890 11586 net.cpp:148] Top shape: 132 24 14 14 (620928)
I0404 13:44:16.893905 11586 net.cpp:156] Memory required for data: 5309264928
I0404 13:44:16.893923 11586 layer_factory.hpp:77] Creating layer inception_4b/relu_5x5_reduce
I0404 13:44:16.893959 11586 net.cpp:91] Creating Layer inception_4b/relu_5x5_reduce
I0404 13:44:16.893975 11586 net.cpp:425] inception_4b/relu_5x5_reduce <- inception_4b/5x5_reduce
I0404 13:44:16.893992 11586 net.cpp:386] inception_4b/relu_5x5_reduce -> inception_4b/5x5_reduce (in-place)
I0404 13:44:16.894172 11586 net.cpp:141] Setting up inception_4b/relu_5x5_reduce
I0404 13:44:16.894199 11586 net.cpp:148] Top shape: 132 24 14 14 (620928)
I0404 13:44:16.894215 11586 net.cpp:156] Memory required for data: 5311748640
I0404 13:44:16.894229 11586 layer_factory.hpp:77] Creating layer inception_4b/5x5
I0404 13:44:16.894250 11586 net.cpp:91] Creating Layer inception_4b/5x5
I0404 13:44:16.894270 11586 net.cpp:425] inception_4b/5x5 <- inception_4b/5x5_reduce
I0404 13:44:16.894289 11586 net.cpp:399] inception_4b/5x5 -> inception_4b/5x5
I0404 13:44:16.895608 11586 net.cpp:141] Setting up inception_4b/5x5
I0404 13:44:16.895635 11586 net.cpp:148] Top shape: 132 64 14 14 (1655808)
I0404 13:44:16.895650 11586 net.cpp:156] Memory required for data: 5318371872
I0404 13:44:16.895668 11586 layer_factory.hpp:77] Creating layer inception_4b/relu_5x5
I0404 13:44:16.895689 11586 net.cpp:91] Creating Layer inception_4b/relu_5x5
I0404 13:44:16.895706 11586 net.cpp:425] inception_4b/relu_5x5 <- inception_4b/5x5
I0404 13:44:16.895722 11586 net.cpp:386] inception_4b/relu_5x5 -> inception_4b/5x5 (in-place)
I0404 13:44:16.896009 11586 net.cpp:141] Setting up inception_4b/relu_5x5
I0404 13:44:16.896035 11586 net.cpp:148] Top shape: 132 64 14 14 (1655808)
I0404 13:44:16.896050 11586 net.cpp:156] Memory required for data: 5324995104
I0404 13:44:16.896064 11586 layer_factory.hpp:77] Creating layer inception_4b/pool
I0404 13:44:16.896085 11586 net.cpp:91] Creating Layer inception_4b/pool
I0404 13:44:16.896101 11586 net.cpp:425] inception_4b/pool <- inception_4a/output_inception_4a/output_0_split_4
I0404 13:44:16.896119 11586 net.cpp:399] inception_4b/pool -> inception_4b/pool
I0404 13:44:16.896186 11586 net.cpp:141] Setting up inception_4b/pool
I0404 13:44:16.896209 11586 net.cpp:148] Top shape: 132 512 14 14 (13246464)
I0404 13:44:16.896224 11586 net.cpp:156] Memory required for data: 5377980960
I0404 13:44:16.896239 11586 layer_factory.hpp:77] Creating layer inception_4b/pool_proj
I0404 13:44:16.896260 11586 net.cpp:91] Creating Layer inception_4b/pool_proj
I0404 13:44:16.896276 11586 net.cpp:425] inception_4b/pool_proj <- inception_4b/pool
I0404 13:44:16.896297 11586 net.cpp:399] inception_4b/pool_proj -> inception_4b/pool_proj
I0404 13:44:16.897510 11586 net.cpp:141] Setting up inception_4b/pool_proj
I0404 13:44:16.897544 11586 net.cpp:148] Top shape: 132 64 14 14 (1655808)
I0404 13:44:16.897562 11586 net.cpp:156] Memory required for data: 5384604192
I0404 13:44:16.897589 11586 layer_factory.hpp:77] Creating layer inception_4b/relu_pool_proj
I0404 13:44:16.897608 11586 net.cpp:91] Creating Layer inception_4b/relu_pool_proj
I0404 13:44:16.897624 11586 net.cpp:425] inception_4b/relu_pool_proj <- inception_4b/pool_proj
I0404 13:44:16.897644 11586 net.cpp:386] inception_4b/relu_pool_proj -> inception_4b/pool_proj (in-place)
I0404 13:44:16.897822 11586 net.cpp:141] Setting up inception_4b/relu_pool_proj
I0404 13:44:16.897846 11586 net.cpp:148] Top shape: 132 64 14 14 (1655808)
I0404 13:44:16.897861 11586 net.cpp:156] Memory required for data: 5391227424
I0404 13:44:16.897876 11586 layer_factory.hpp:77] Creating layer inception_4b/output
I0404 13:44:16.897892 11586 net.cpp:91] Creating Layer inception_4b/output
I0404 13:44:16.897907 11586 net.cpp:425] inception_4b/output <- inception_4b/1x1
I0404 13:44:16.897923 11586 net.cpp:425] inception_4b/output <- inception_4b/3x3
I0404 13:44:16.897938 11586 net.cpp:425] inception_4b/output <- inception_4b/5x5
I0404 13:44:16.897953 11586 net.cpp:425] inception_4b/output <- inception_4b/pool_proj
I0404 13:44:16.897971 11586 net.cpp:399] inception_4b/output -> inception_4b/output
I0404 13:44:16.898020 11586 net.cpp:141] Setting up inception_4b/output
I0404 13:44:16.898043 11586 net.cpp:148] Top shape: 132 512 14 14 (13246464)
I0404 13:44:16.898072 11586 net.cpp:156] Memory required for data: 5444213280
I0404 13:44:16.898087 11586 layer_factory.hpp:77] Creating layer inception_4b/output_inception_4b/output_0_split
I0404 13:44:16.898104 11586 net.cpp:91] Creating Layer inception_4b/output_inception_4b/output_0_split
I0404 13:44:16.898119 11586 net.cpp:425] inception_4b/output_inception_4b/output_0_split <- inception_4b/output
I0404 13:44:16.898144 11586 net.cpp:399] inception_4b/output_inception_4b/output_0_split -> inception_4b/output_inception_4b/output_0_split_0
I0404 13:44:16.898169 11586 net.cpp:399] inception_4b/output_inception_4b/output_0_split -> inception_4b/output_inception_4b/output_0_split_1
I0404 13:44:16.898190 11586 net.cpp:399] inception_4b/output_inception_4b/output_0_split -> inception_4b/output_inception_4b/output_0_split_2
I0404 13:44:16.898210 11586 net.cpp:399] inception_4b/output_inception_4b/output_0_split -> inception_4b/output_inception_4b/output_0_split_3
I0404 13:44:16.898295 11586 net.cpp:141] Setting up inception_4b/output_inception_4b/output_0_split
I0404 13:44:16.898322 11586 net.cpp:148] Top shape: 132 512 14 14 (13246464)
I0404 13:44:16.898339 11586 net.cpp:148] Top shape: 132 512 14 14 (13246464)
I0404 13:44:16.898355 11586 net.cpp:148] Top shape: 132 512 14 14 (13246464)
I0404 13:44:16.898370 11586 net.cpp:148] Top shape: 132 512 14 14 (13246464)
I0404 13:44:16.898382 11586 net.cpp:156] Memory required for data: 5656156704
I0404 13:44:16.898396 11586 layer_factory.hpp:77] Creating layer inception_4c/1x1
I0404 13:44:16.898417 11586 net.cpp:91] Creating Layer inception_4c/1x1
I0404 13:44:16.898434 11586 net.cpp:425] inception_4c/1x1 <- inception_4b/output_inception_4b/output_0_split_0
I0404 13:44:16.898452 11586 net.cpp:399] inception_4c/1x1 -> inception_4c/1x1
I0404 13:44:16.899899 11586 net.cpp:141] Setting up inception_4c/1x1
I0404 13:44:16.899927 11586 net.cpp:148] Top shape: 132 128 14 14 (3311616)
I0404 13:44:16.899943 11586 net.cpp:156] Memory required for data: 5669403168
I0404 13:44:16.899960 11586 layer_factory.hpp:77] Creating layer inception_4c/relu_1x1
I0404 13:44:16.899981 11586 net.cpp:91] Creating Layer inception_4c/relu_1x1
I0404 13:44:16.899997 11586 net.cpp:425] inception_4c/relu_1x1 <- inception_4c/1x1
I0404 13:44:16.900014 11586 net.cpp:386] inception_4c/relu_1x1 -> inception_4c/1x1 (in-place)
I0404 13:44:16.900192 11586 net.cpp:141] Setting up inception_4c/relu_1x1
I0404 13:44:16.900218 11586 net.cpp:148] Top shape: 132 128 14 14 (3311616)
I0404 13:44:16.900233 11586 net.cpp:156] Memory required for data: 5682649632
I0404 13:44:16.900249 11586 layer_factory.hpp:77] Creating layer inception_4c/3x3_reduce
I0404 13:44:16.900270 11586 net.cpp:91] Creating Layer inception_4c/3x3_reduce
I0404 13:44:16.900288 11586 net.cpp:425] inception_4c/3x3_reduce <- inception_4b/output_inception_4b/output_0_split_1
I0404 13:44:16.900312 11586 net.cpp:399] inception_4c/3x3_reduce -> inception_4c/3x3_reduce
I0404 13:44:16.902277 11586 net.cpp:141] Setting up inception_4c/3x3_reduce
I0404 13:44:16.902309 11586 net.cpp:148] Top shape: 132 128 14 14 (3311616)
I0404 13:44:16.902325 11586 net.cpp:156] Memory required for data: 5695896096
I0404 13:44:16.902344 11586 layer_factory.hpp:77] Creating layer inception_4c/relu_3x3_reduce
I0404 13:44:16.902361 11586 net.cpp:91] Creating Layer inception_4c/relu_3x3_reduce
I0404 13:44:16.902377 11586 net.cpp:425] inception_4c/relu_3x3_reduce <- inception_4c/3x3_reduce
I0404 13:44:16.902397 11586 net.cpp:386] inception_4c/relu_3x3_reduce -> inception_4c/3x3_reduce (in-place)
I0404 13:44:16.902684 11586 net.cpp:141] Setting up inception_4c/relu_3x3_reduce
I0404 13:44:16.902714 11586 net.cpp:148] Top shape: 132 128 14 14 (3311616)
I0404 13:44:16.902729 11586 net.cpp:156] Memory required for data: 5709142560
I0404 13:44:16.902743 11586 layer_factory.hpp:77] Creating layer inception_4c/3x3
I0404 13:44:16.902766 11586 net.cpp:91] Creating Layer inception_4c/3x3
I0404 13:44:16.902784 11586 net.cpp:425] inception_4c/3x3 <- inception_4c/3x3_reduce
I0404 13:44:16.902817 11586 net.cpp:399] inception_4c/3x3 -> inception_4c/3x3
I0404 13:44:16.906455 11586 net.cpp:141] Setting up inception_4c/3x3
I0404 13:44:16.906487 11586 net.cpp:148] Top shape: 132 256 14 14 (6623232)
I0404 13:44:16.906503 11586 net.cpp:156] Memory required for data: 5735635488
I0404 13:44:16.906539 11586 layer_factory.hpp:77] Creating layer inception_4c/relu_3x3
I0404 13:44:16.906560 11586 net.cpp:91] Creating Layer inception_4c/relu_3x3
I0404 13:44:16.906576 11586 net.cpp:425] inception_4c/relu_3x3 <- inception_4c/3x3
I0404 13:44:16.906595 11586 net.cpp:386] inception_4c/relu_3x3 -> inception_4c/3x3 (in-place)
I0404 13:44:16.906779 11586 net.cpp:141] Setting up inception_4c/relu_3x3
I0404 13:44:16.906803 11586 net.cpp:148] Top shape: 132 256 14 14 (6623232)
I0404 13:44:16.906818 11586 net.cpp:156] Memory required for data: 5762128416
I0404 13:44:16.906832 11586 layer_factory.hpp:77] Creating layer inception_4c/5x5_reduce
I0404 13:44:16.906855 11586 net.cpp:91] Creating Layer inception_4c/5x5_reduce
I0404 13:44:16.906874 11586 net.cpp:425] inception_4c/5x5_reduce <- inception_4b/output_inception_4b/output_0_split_2
I0404 13:44:16.906896 11586 net.cpp:399] inception_4c/5x5_reduce -> inception_4c/5x5_reduce
I0404 13:44:16.908020 11586 net.cpp:141] Setting up inception_4c/5x5_reduce
I0404 13:44:16.908048 11586 net.cpp:148] Top shape: 132 24 14 14 (620928)
I0404 13:44:16.908063 11586 net.cpp:156] Memory required for data: 5764612128
I0404 13:44:16.908082 11586 layer_factory.hpp:77] Creating layer inception_4c/relu_5x5_reduce
I0404 13:44:16.908099 11586 net.cpp:91] Creating Layer inception_4c/relu_5x5_reduce
I0404 13:44:16.908114 11586 net.cpp:425] inception_4c/relu_5x5_reduce <- inception_4c/5x5_reduce
I0404 13:44:16.908134 11586 net.cpp:386] inception_4c/relu_5x5_reduce -> inception_4c/5x5_reduce (in-place)
I0404 13:44:16.908318 11586 net.cpp:141] Setting up inception_4c/relu_5x5_reduce
I0404 13:44:16.908342 11586 net.cpp:148] Top shape: 132 24 14 14 (620928)
I0404 13:44:16.908357 11586 net.cpp:156] Memory required for data: 5767095840
I0404 13:44:16.908371 11586 layer_factory.hpp:77] Creating layer inception_4c/5x5
I0404 13:44:16.908393 11586 net.cpp:91] Creating Layer inception_4c/5x5
I0404 13:44:16.908411 11586 net.cpp:425] inception_4c/5x5 <- inception_4c/5x5_reduce
I0404 13:44:16.908432 11586 net.cpp:399] inception_4c/5x5 -> inception_4c/5x5
I0404 13:44:16.909695 11586 net.cpp:141] Setting up inception_4c/5x5
I0404 13:44:16.909723 11586 net.cpp:148] Top shape: 132 64 14 14 (1655808)
I0404 13:44:16.909737 11586 net.cpp:156] Memory required for data: 5773719072
I0404 13:44:16.909755 11586 layer_factory.hpp:77] Creating layer inception_4c/relu_5x5
I0404 13:44:16.909776 11586 net.cpp:91] Creating Layer inception_4c/relu_5x5
I0404 13:44:16.909792 11586 net.cpp:425] inception_4c/relu_5x5 <- inception_4c/5x5
I0404 13:44:16.909809 11586 net.cpp:386] inception_4c/relu_5x5 -> inception_4c/5x5 (in-place)
I0404 13:44:16.910099 11586 net.cpp:141] Setting up inception_4c/relu_5x5
I0404 13:44:16.910125 11586 net.cpp:148] Top shape: 132 64 14 14 (1655808)
I0404 13:44:16.910140 11586 net.cpp:156] Memory required for data: 5780342304
I0404 13:44:16.910152 11586 layer_factory.hpp:77] Creating layer inception_4c/pool
I0404 13:44:16.910172 11586 net.cpp:91] Creating Layer inception_4c/pool
I0404 13:44:16.910189 11586 net.cpp:425] inception_4c/pool <- inception_4b/output_inception_4b/output_0_split_3
I0404 13:44:16.910207 11586 net.cpp:399] inception_4c/pool -> inception_4c/pool
I0404 13:44:16.910276 11586 net.cpp:141] Setting up inception_4c/pool
I0404 13:44:16.910300 11586 net.cpp:148] Top shape: 132 512 14 14 (13246464)
I0404 13:44:16.910318 11586 net.cpp:156] Memory required for data: 5833328160
I0404 13:44:16.910333 11586 layer_factory.hpp:77] Creating layer inception_4c/pool_proj
I0404 13:44:16.910356 11586 net.cpp:91] Creating Layer inception_4c/pool_proj
I0404 13:44:16.910372 11586 net.cpp:425] inception_4c/pool_proj <- inception_4c/pool
I0404 13:44:16.910393 11586 net.cpp:399] inception_4c/pool_proj -> inception_4c/pool_proj
I0404 13:44:16.911620 11586 net.cpp:141] Setting up inception_4c/pool_proj
I0404 13:44:16.911648 11586 net.cpp:148] Top shape: 132 64 14 14 (1655808)
I0404 13:44:16.911664 11586 net.cpp:156] Memory required for data: 5839951392
I0404 13:44:16.911681 11586 layer_factory.hpp:77] Creating layer inception_4c/relu_pool_proj
I0404 13:44:16.911701 11586 net.cpp:91] Creating Layer inception_4c/relu_pool_proj
I0404 13:44:16.911718 11586 net.cpp:425] inception_4c/relu_pool_proj <- inception_4c/pool_proj
I0404 13:44:16.911734 11586 net.cpp:386] inception_4c/relu_pool_proj -> inception_4c/pool_proj (in-place)
I0404 13:44:16.911927 11586 net.cpp:141] Setting up inception_4c/relu_pool_proj
I0404 13:44:16.911953 11586 net.cpp:148] Top shape: 132 64 14 14 (1655808)
I0404 13:44:16.911968 11586 net.cpp:156] Memory required for data: 5846574624
I0404 13:44:16.911981 11586 layer_factory.hpp:77] Creating layer inception_4c/output
I0404 13:44:16.911998 11586 net.cpp:91] Creating Layer inception_4c/output
I0404 13:44:16.912014 11586 net.cpp:425] inception_4c/output <- inception_4c/1x1
I0404 13:44:16.912029 11586 net.cpp:425] inception_4c/output <- inception_4c/3x3
I0404 13:44:16.912045 11586 net.cpp:425] inception_4c/output <- inception_4c/5x5
I0404 13:44:16.912060 11586 net.cpp:425] inception_4c/output <- inception_4c/pool_proj
I0404 13:44:16.912076 11586 net.cpp:399] inception_4c/output -> inception_4c/output
I0404 13:44:16.912124 11586 net.cpp:141] Setting up inception_4c/output
I0404 13:44:16.912147 11586 net.cpp:148] Top shape: 132 512 14 14 (13246464)
I0404 13:44:16.912163 11586 net.cpp:156] Memory required for data: 5899560480
I0404 13:44:16.912176 11586 layer_factory.hpp:77] Creating layer inception_4c/output_inception_4c/output_0_split
I0404 13:44:16.912195 11586 net.cpp:91] Creating Layer inception_4c/output_inception_4c/output_0_split
I0404 13:44:16.912211 11586 net.cpp:425] inception_4c/output_inception_4c/output_0_split <- inception_4c/output
I0404 13:44:16.912228 11586 net.cpp:399] inception_4c/output_inception_4c/output_0_split -> inception_4c/output_inception_4c/output_0_split_0
I0404 13:44:16.912247 11586 net.cpp:399] inception_4c/output_inception_4c/output_0_split -> inception_4c/output_inception_4c/output_0_split_1
I0404 13:44:16.912269 11586 net.cpp:399] inception_4c/output_inception_4c/output_0_split -> inception_4c/output_inception_4c/output_0_split_2
I0404 13:44:16.912292 11586 net.cpp:399] inception_4c/output_inception_4c/output_0_split -> inception_4c/output_inception_4c/output_0_split_3
I0404 13:44:16.912380 11586 net.cpp:141] Setting up inception_4c/output_inception_4c/output_0_split
I0404 13:44:16.912402 11586 net.cpp:148] Top shape: 132 512 14 14 (13246464)
I0404 13:44:16.912418 11586 net.cpp:148] Top shape: 132 512 14 14 (13246464)
I0404 13:44:16.912433 11586 net.cpp:148] Top shape: 132 512 14 14 (13246464)
I0404 13:44:16.912447 11586 net.cpp:148] Top shape: 132 512 14 14 (13246464)
I0404 13:44:16.912461 11586 net.cpp:156] Memory required for data: 6111503904
I0404 13:44:16.912474 11586 layer_factory.hpp:77] Creating layer inception_4d/1x1
I0404 13:44:16.912497 11586 net.cpp:91] Creating Layer inception_4d/1x1
I0404 13:44:16.912514 11586 net.cpp:425] inception_4d/1x1 <- inception_4c/output_inception_4c/output_0_split_0
I0404 13:44:16.912534 11586 net.cpp:399] inception_4d/1x1 -> inception_4d/1x1
I0404 13:44:16.914011 11586 net.cpp:141] Setting up inception_4d/1x1
I0404 13:44:16.914041 11586 net.cpp:148] Top shape: 132 112 14 14 (2897664)
I0404 13:44:16.914057 11586 net.cpp:156] Memory required for data: 6123094560
I0404 13:44:16.914074 11586 layer_factory.hpp:77] Creating layer inception_4d/relu_1x1
I0404 13:44:16.914093 11586 net.cpp:91] Creating Layer inception_4d/relu_1x1
I0404 13:44:16.914109 11586 net.cpp:425] inception_4d/relu_1x1 <- inception_4d/1x1
I0404 13:44:16.914129 11586 net.cpp:386] inception_4d/relu_1x1 -> inception_4d/1x1 (in-place)
I0404 13:44:16.914322 11586 net.cpp:141] Setting up inception_4d/relu_1x1
I0404 13:44:16.914350 11586 net.cpp:148] Top shape: 132 112 14 14 (2897664)
I0404 13:44:16.914378 11586 net.cpp:156] Memory required for data: 6134685216
I0404 13:44:16.914394 11586 layer_factory.hpp:77] Creating layer inception_4d/3x3_reduce
I0404 13:44:16.914417 11586 net.cpp:91] Creating Layer inception_4d/3x3_reduce
I0404 13:44:16.914436 11586 net.cpp:425] inception_4d/3x3_reduce <- inception_4c/output_inception_4c/output_0_split_1
I0404 13:44:16.914458 11586 net.cpp:399] inception_4d/3x3_reduce -> inception_4d/3x3_reduce
I0404 13:44:16.916059 11586 net.cpp:141] Setting up inception_4d/3x3_reduce
I0404 13:44:16.916090 11586 net.cpp:148] Top shape: 132 144 14 14 (3725568)
I0404 13:44:16.916105 11586 net.cpp:156] Memory required for data: 6149587488
I0404 13:44:16.916124 11586 layer_factory.hpp:77] Creating layer inception_4d/relu_3x3_reduce
I0404 13:44:16.916142 11586 net.cpp:91] Creating Layer inception_4d/relu_3x3_reduce
I0404 13:44:16.916159 11586 net.cpp:425] inception_4d/relu_3x3_reduce <- inception_4d/3x3_reduce
I0404 13:44:16.916179 11586 net.cpp:386] inception_4d/relu_3x3_reduce -> inception_4d/3x3_reduce (in-place)
I0404 13:44:16.916476 11586 net.cpp:141] Setting up inception_4d/relu_3x3_reduce
I0404 13:44:16.916507 11586 net.cpp:148] Top shape: 132 144 14 14 (3725568)
I0404 13:44:16.916522 11586 net.cpp:156] Memory required for data: 6164489760
I0404 13:44:16.916541 11586 layer_factory.hpp:77] Creating layer inception_4d/3x3
I0404 13:44:16.916565 11586 net.cpp:91] Creating Layer inception_4d/3x3
I0404 13:44:16.916584 11586 net.cpp:425] inception_4d/3x3 <- inception_4d/3x3_reduce
I0404 13:44:16.916606 11586 net.cpp:399] inception_4d/3x3 -> inception_4d/3x3
I0404 13:44:16.921046 11586 net.cpp:141] Setting up inception_4d/3x3
I0404 13:44:16.921077 11586 net.cpp:148] Top shape: 132 288 14 14 (7451136)
I0404 13:44:16.921092 11586 net.cpp:156] Memory required for data: 6194294304
I0404 13:44:16.921110 11586 layer_factory.hpp:77] Creating layer inception_4d/relu_3x3
I0404 13:44:16.921131 11586 net.cpp:91] Creating Layer inception_4d/relu_3x3
I0404 13:44:16.921149 11586 net.cpp:425] inception_4d/relu_3x3 <- inception_4d/3x3
I0404 13:44:16.921165 11586 net.cpp:386] inception_4d/relu_3x3 -> inception_4d/3x3 (in-place)
I0404 13:44:16.921355 11586 net.cpp:141] Setting up inception_4d/relu_3x3
I0404 13:44:16.921380 11586 net.cpp:148] Top shape: 132 288 14 14 (7451136)
I0404 13:44:16.921396 11586 net.cpp:156] Memory required for data: 6224098848
I0404 13:44:16.921411 11586 layer_factory.hpp:77] Creating layer inception_4d/5x5_reduce
I0404 13:44:16.921434 11586 net.cpp:91] Creating Layer inception_4d/5x5_reduce
I0404 13:44:16.921452 11586 net.cpp:425] inception_4d/5x5_reduce <- inception_4c/output_inception_4c/output_0_split_2
I0404 13:44:16.921471 11586 net.cpp:399] inception_4d/5x5_reduce -> inception_4d/5x5_reduce
I0404 13:44:16.922675 11586 net.cpp:141] Setting up inception_4d/5x5_reduce
I0404 13:44:16.922705 11586 net.cpp:148] Top shape: 132 32 14 14 (827904)
I0404 13:44:16.922722 11586 net.cpp:156] Memory required for data: 6227410464
I0404 13:44:16.922740 11586 layer_factory.hpp:77] Creating layer inception_4d/relu_5x5_reduce
I0404 13:44:16.922760 11586 net.cpp:91] Creating Layer inception_4d/relu_5x5_reduce
I0404 13:44:16.922775 11586 net.cpp:425] inception_4d/relu_5x5_reduce <- inception_4d/5x5_reduce
I0404 13:44:16.922792 11586 net.cpp:386] inception_4d/relu_5x5_reduce -> inception_4d/5x5_reduce (in-place)
I0404 13:44:16.922983 11586 net.cpp:141] Setting up inception_4d/relu_5x5_reduce
I0404 13:44:16.923012 11586 net.cpp:148] Top shape: 132 32 14 14 (827904)
I0404 13:44:16.923028 11586 net.cpp:156] Memory required for data: 6230722080
I0404 13:44:16.923043 11586 layer_factory.hpp:77] Creating layer inception_4d/5x5
I0404 13:44:16.923065 11586 net.cpp:91] Creating Layer inception_4d/5x5
I0404 13:44:16.923082 11586 net.cpp:425] inception_4d/5x5 <- inception_4d/5x5_reduce
I0404 13:44:16.923104 11586 net.cpp:399] inception_4d/5x5 -> inception_4d/5x5
I0404 13:44:16.924669 11586 net.cpp:141] Setting up inception_4d/5x5
I0404 13:44:16.924697 11586 net.cpp:148] Top shape: 132 64 14 14 (1655808)
I0404 13:44:16.924729 11586 net.cpp:156] Memory required for data: 6237345312
I0404 13:44:16.924748 11586 layer_factory.hpp:77] Creating layer inception_4d/relu_5x5
I0404 13:44:16.924767 11586 net.cpp:91] Creating Layer inception_4d/relu_5x5
I0404 13:44:16.924787 11586 net.cpp:425] inception_4d/relu_5x5 <- inception_4d/5x5
I0404 13:44:16.924803 11586 net.cpp:386] inception_4d/relu_5x5 -> inception_4d/5x5 (in-place)
I0404 13:44:16.925109 11586 net.cpp:141] Setting up inception_4d/relu_5x5
I0404 13:44:16.925137 11586 net.cpp:148] Top shape: 132 64 14 14 (1655808)
I0404 13:44:16.925151 11586 net.cpp:156] Memory required for data: 6243968544
I0404 13:44:16.925165 11586 layer_factory.hpp:77] Creating layer inception_4d/pool
I0404 13:44:16.925184 11586 net.cpp:91] Creating Layer inception_4d/pool
I0404 13:44:16.925199 11586 net.cpp:425] inception_4d/pool <- inception_4c/output_inception_4c/output_0_split_3
I0404 13:44:16.925220 11586 net.cpp:399] inception_4d/pool -> inception_4d/pool
I0404 13:44:16.925288 11586 net.cpp:141] Setting up inception_4d/pool
I0404 13:44:16.925315 11586 net.cpp:148] Top shape: 132 512 14 14 (13246464)
I0404 13:44:16.925331 11586 net.cpp:156] Memory required for data: 6296954400
I0404 13:44:16.925345 11586 layer_factory.hpp:77] Creating layer inception_4d/pool_proj
I0404 13:44:16.925367 11586 net.cpp:91] Creating Layer inception_4d/pool_proj
I0404 13:44:16.925385 11586 net.cpp:425] inception_4d/pool_proj <- inception_4d/pool
I0404 13:44:16.925405 11586 net.cpp:399] inception_4d/pool_proj -> inception_4d/pool_proj
I0404 13:44:16.927242 11586 net.cpp:141] Setting up inception_4d/pool_proj
I0404 13:44:16.927274 11586 net.cpp:148] Top shape: 132 64 14 14 (1655808)
I0404 13:44:16.927290 11586 net.cpp:156] Memory required for data: 6303577632
I0404 13:44:16.927314 11586 layer_factory.hpp:77] Creating layer inception_4d/relu_pool_proj
I0404 13:44:16.927335 11586 net.cpp:91] Creating Layer inception_4d/relu_pool_proj
I0404 13:44:16.927353 11586 net.cpp:425] inception_4d/relu_pool_proj <- inception_4d/pool_proj
I0404 13:44:16.927371 11586 net.cpp:386] inception_4d/relu_pool_proj -> inception_4d/pool_proj (in-place)
I0404 13:44:16.927566 11586 net.cpp:141] Setting up inception_4d/relu_pool_proj
I0404 13:44:16.927592 11586 net.cpp:148] Top shape: 132 64 14 14 (1655808)
I0404 13:44:16.927609 11586 net.cpp:156] Memory required for data: 6310200864
I0404 13:44:16.927624 11586 layer_factory.hpp:77] Creating layer inception_4d/output
I0404 13:44:16.927641 11586 net.cpp:91] Creating Layer inception_4d/output
I0404 13:44:16.927657 11586 net.cpp:425] inception_4d/output <- inception_4d/1x1
I0404 13:44:16.927673 11586 net.cpp:425] inception_4d/output <- inception_4d/3x3
I0404 13:44:16.927692 11586 net.cpp:425] inception_4d/output <- inception_4d/5x5
I0404 13:44:16.927708 11586 net.cpp:425] inception_4d/output <- inception_4d/pool_proj
I0404 13:44:16.927731 11586 net.cpp:399] inception_4d/output -> inception_4d/output
I0404 13:44:16.927784 11586 net.cpp:141] Setting up inception_4d/output
I0404 13:44:16.927809 11586 net.cpp:148] Top shape: 132 528 14 14 (13660416)
I0404 13:44:16.927824 11586 net.cpp:156] Memory required for data: 6364842528
I0404 13:44:16.927837 11586 layer_factory.hpp:77] Creating layer inception_4d/output_inception_4d/output_0_split
I0404 13:44:16.927855 11586 net.cpp:91] Creating Layer inception_4d/output_inception_4d/output_0_split
I0404 13:44:16.927873 11586 net.cpp:425] inception_4d/output_inception_4d/output_0_split <- inception_4d/output
I0404 13:44:16.927891 11586 net.cpp:399] inception_4d/output_inception_4d/output_0_split -> inception_4d/output_inception_4d/output_0_split_0
I0404 13:44:16.927912 11586 net.cpp:399] inception_4d/output_inception_4d/output_0_split -> inception_4d/output_inception_4d/output_0_split_1
I0404 13:44:16.927932 11586 net.cpp:399] inception_4d/output_inception_4d/output_0_split -> inception_4d/output_inception_4d/output_0_split_2
I0404 13:44:16.927953 11586 net.cpp:399] inception_4d/output_inception_4d/output_0_split -> inception_4d/output_inception_4d/output_0_split_3
I0404 13:44:16.927989 11586 net.cpp:399] inception_4d/output_inception_4d/output_0_split -> inception_4d/output_inception_4d/output_0_split_4
I0404 13:44:16.928099 11586 net.cpp:141] Setting up inception_4d/output_inception_4d/output_0_split
I0404 13:44:16.928123 11586 net.cpp:148] Top shape: 132 528 14 14 (13660416)
I0404 13:44:16.928139 11586 net.cpp:148] Top shape: 132 528 14 14 (13660416)
I0404 13:44:16.928155 11586 net.cpp:148] Top shape: 132 528 14 14 (13660416)
I0404 13:44:16.928170 11586 net.cpp:148] Top shape: 132 528 14 14 (13660416)
I0404 13:44:16.928185 11586 net.cpp:148] Top shape: 132 528 14 14 (13660416)
I0404 13:44:16.928199 11586 net.cpp:156] Memory required for data: 6638050848
I0404 13:44:16.928212 11586 layer_factory.hpp:77] Creating layer loss2/ave_pool
I0404 13:44:16.928231 11586 net.cpp:91] Creating Layer loss2/ave_pool
I0404 13:44:16.928246 11586 net.cpp:425] loss2/ave_pool <- inception_4d/output_inception_4d/output_0_split_0
I0404 13:44:16.928267 11586 net.cpp:399] loss2/ave_pool -> loss2/ave_pool
I0404 13:44:16.928598 11586 net.cpp:141] Setting up loss2/ave_pool
I0404 13:44:16.928625 11586 net.cpp:148] Top shape: 132 528 4 4 (1115136)
I0404 13:44:16.928640 11586 net.cpp:156] Memory required for data: 6642511392
I0404 13:44:16.928655 11586 layer_factory.hpp:77] Creating layer loss2/conv
I0404 13:44:16.928678 11586 net.cpp:91] Creating Layer loss2/conv
I0404 13:44:16.928695 11586 net.cpp:425] loss2/conv <- loss2/ave_pool
I0404 13:44:16.928716 11586 net.cpp:399] loss2/conv -> loss2/conv
I0404 13:44:16.930678 11586 net.cpp:141] Setting up loss2/conv
I0404 13:44:16.930708 11586 net.cpp:148] Top shape: 132 128 4 4 (270336)
I0404 13:44:16.930724 11586 net.cpp:156] Memory required for data: 6643592736
I0404 13:44:16.930742 11586 layer_factory.hpp:77] Creating layer loss2/relu_conv
I0404 13:44:16.930760 11586 net.cpp:91] Creating Layer loss2/relu_conv
I0404 13:44:16.930778 11586 net.cpp:425] loss2/relu_conv <- loss2/conv
I0404 13:44:16.930796 11586 net.cpp:386] loss2/relu_conv -> loss2/conv (in-place)
I0404 13:44:16.931095 11586 net.cpp:141] Setting up loss2/relu_conv
I0404 13:44:16.931121 11586 net.cpp:148] Top shape: 132 128 4 4 (270336)
I0404 13:44:16.931136 11586 net.cpp:156] Memory required for data: 6644674080
I0404 13:44:16.931150 11586 layer_factory.hpp:77] Creating layer loss2/fc
I0404 13:44:16.931169 11586 net.cpp:91] Creating Layer loss2/fc
I0404 13:44:16.931185 11586 net.cpp:425] loss2/fc <- loss2/conv
I0404 13:44:16.931207 11586 net.cpp:399] loss2/fc -> loss2/fc
I0404 13:44:16.948871 11586 net.cpp:141] Setting up loss2/fc
I0404 13:44:16.948922 11586 net.cpp:148] Top shape: 132 1024 (135168)
I0404 13:44:16.948940 11586 net.cpp:156] Memory required for data: 6645214752
I0404 13:44:16.948959 11586 layer_factory.hpp:77] Creating layer loss2/relu_fc
I0404 13:44:16.948977 11586 net.cpp:91] Creating Layer loss2/relu_fc
I0404 13:44:16.948994 11586 net.cpp:425] loss2/relu_fc <- loss2/fc
I0404 13:44:16.949010 11586 net.cpp:386] loss2/relu_fc -> loss2/fc (in-place)
I0404 13:44:16.949339 11586 net.cpp:141] Setting up loss2/relu_fc
I0404 13:44:16.949368 11586 net.cpp:148] Top shape: 132 1024 (135168)
I0404 13:44:16.949385 11586 net.cpp:156] Memory required for data: 6645755424
I0404 13:44:16.949399 11586 layer_factory.hpp:77] Creating layer loss2/drop_fc
I0404 13:44:16.949417 11586 net.cpp:91] Creating Layer loss2/drop_fc
I0404 13:44:16.949432 11586 net.cpp:425] loss2/drop_fc <- loss2/fc
I0404 13:44:16.949450 11586 net.cpp:386] loss2/drop_fc -> loss2/fc (in-place)
I0404 13:44:16.949502 11586 net.cpp:141] Setting up loss2/drop_fc
I0404 13:44:16.949525 11586 net.cpp:148] Top shape: 132 1024 (135168)
I0404 13:44:16.949544 11586 net.cpp:156] Memory required for data: 6646296096
I0404 13:44:16.949559 11586 layer_factory.hpp:77] Creating layer loss2/classifier_plantvillage
I0404 13:44:16.949580 11586 net.cpp:91] Creating Layer loss2/classifier_plantvillage
I0404 13:44:16.949597 11586 net.cpp:425] loss2/classifier_plantvillage <- loss2/fc
I0404 13:44:16.949615 11586 net.cpp:399] loss2/classifier_plantvillage -> loss2/classifier_plantvillage
I0404 13:44:16.950055 11586 net.cpp:141] Setting up loss2/classifier_plantvillage
I0404 13:44:16.950079 11586 net.cpp:148] Top shape: 132 38 (5016)
I0404 13:44:16.950093 11586 net.cpp:156] Memory required for data: 6646316160
I0404 13:44:16.950110 11586 layer_factory.hpp:77] Creating layer loss2/classifier_plantvillage_loss2/classifier_plantvillage_0_split
I0404 13:44:16.950129 11586 net.cpp:91] Creating Layer loss2/classifier_plantvillage_loss2/classifier_plantvillage_0_split
I0404 13:44:16.950144 11586 net.cpp:425] loss2/classifier_plantvillage_loss2/classifier_plantvillage_0_split <- loss2/classifier_plantvillage
I0404 13:44:16.950162 11586 net.cpp:399] loss2/classifier_plantvillage_loss2/classifier_plantvillage_0_split -> loss2/classifier_plantvillage_loss2/classifier_plantvillage_0_split_0
I0404 13:44:16.950183 11586 net.cpp:399] loss2/classifier_plantvillage_loss2/classifier_plantvillage_0_split -> loss2/classifier_plantvillage_loss2/classifier_plantvillage_0_split_1
I0404 13:44:16.950203 11586 net.cpp:399] loss2/classifier_plantvillage_loss2/classifier_plantvillage_0_split -> loss2/classifier_plantvillage_loss2/classifier_plantvillage_0_split_2
I0404 13:44:16.950280 11586 net.cpp:141] Setting up loss2/classifier_plantvillage_loss2/classifier_plantvillage_0_split
I0404 13:44:16.950306 11586 net.cpp:148] Top shape: 132 38 (5016)
I0404 13:44:16.950323 11586 net.cpp:148] Top shape: 132 38 (5016)
I0404 13:44:16.950340 11586 net.cpp:148] Top shape: 132 38 (5016)
I0404 13:44:16.950355 11586 net.cpp:156] Memory required for data: 6646376352
I0404 13:44:16.950369 11586 layer_factory.hpp:77] Creating layer inception_4e/1x1
I0404 13:44:16.950395 11586 net.cpp:91] Creating Layer inception_4e/1x1
I0404 13:44:16.950413 11586 net.cpp:425] inception_4e/1x1 <- inception_4d/output_inception_4d/output_0_split_1
I0404 13:44:16.950431 11586 net.cpp:399] inception_4e/1x1 -> inception_4e/1x1
I0404 13:44:16.952316 11586 net.cpp:141] Setting up inception_4e/1x1
I0404 13:44:16.952345 11586 net.cpp:148] Top shape: 132 256 14 14 (6623232)
I0404 13:44:16.952361 11586 net.cpp:156] Memory required for data: 6672869280
I0404 13:44:16.952378 11586 layer_factory.hpp:77] Creating layer inception_4e/relu_1x1
I0404 13:44:16.952395 11586 net.cpp:91] Creating Layer inception_4e/relu_1x1
I0404 13:44:16.952410 11586 net.cpp:425] inception_4e/relu_1x1 <- inception_4e/1x1
I0404 13:44:16.952430 11586 net.cpp:386] inception_4e/relu_1x1 -> inception_4e/1x1 (in-place)
I0404 13:44:16.952736 11586 net.cpp:141] Setting up inception_4e/relu_1x1
I0404 13:44:16.952762 11586 net.cpp:148] Top shape: 132 256 14 14 (6623232)
I0404 13:44:16.952777 11586 net.cpp:156] Memory required for data: 6699362208
I0404 13:44:16.952791 11586 layer_factory.hpp:77] Creating layer inception_4e/3x3_reduce
I0404 13:44:16.952813 11586 net.cpp:91] Creating Layer inception_4e/3x3_reduce
I0404 13:44:16.952831 11586 net.cpp:425] inception_4e/3x3_reduce <- inception_4d/output_inception_4d/output_0_split_2
I0404 13:44:16.952852 11586 net.cpp:399] inception_4e/3x3_reduce -> inception_4e/3x3_reduce
I0404 13:44:16.955005 11586 net.cpp:141] Setting up inception_4e/3x3_reduce
I0404 13:44:16.955037 11586 net.cpp:148] Top shape: 132 160 14 14 (4139520)
I0404 13:44:16.955054 11586 net.cpp:156] Memory required for data: 6715920288
I0404 13:44:16.955071 11586 layer_factory.hpp:77] Creating layer inception_4e/relu_3x3_reduce
I0404 13:44:16.955090 11586 net.cpp:91] Creating Layer inception_4e/relu_3x3_reduce
I0404 13:44:16.955106 11586 net.cpp:425] inception_4e/relu_3x3_reduce <- inception_4e/3x3_reduce
I0404 13:44:16.955124 11586 net.cpp:386] inception_4e/relu_3x3_reduce -> inception_4e/3x3_reduce (in-place)
I0404 13:44:16.955312 11586 net.cpp:141] Setting up inception_4e/relu_3x3_reduce
I0404 13:44:16.955338 11586 net.cpp:148] Top shape: 132 160 14 14 (4139520)
I0404 13:44:16.955353 11586 net.cpp:156] Memory required for data: 6732478368
I0404 13:44:16.955368 11586 layer_factory.hpp:77] Creating layer inception_4e/3x3
I0404 13:44:16.955392 11586 net.cpp:91] Creating Layer inception_4e/3x3
I0404 13:44:16.955430 11586 net.cpp:425] inception_4e/3x3 <- inception_4e/3x3_reduce
I0404 13:44:16.955451 11586 net.cpp:399] inception_4e/3x3 -> inception_4e/3x3
I0404 13:44:16.960495 11586 net.cpp:141] Setting up inception_4e/3x3
I0404 13:44:16.960525 11586 net.cpp:148] Top shape: 132 320 14 14 (8279040)
I0404 13:44:16.960544 11586 net.cpp:156] Memory required for data: 6765594528
I0404 13:44:16.960563 11586 layer_factory.hpp:77] Creating layer inception_4e/relu_3x3
I0404 13:44:16.960584 11586 net.cpp:91] Creating Layer inception_4e/relu_3x3
I0404 13:44:16.960602 11586 net.cpp:425] inception_4e/relu_3x3 <- inception_4e/3x3
I0404 13:44:16.960618 11586 net.cpp:386] inception_4e/relu_3x3 -> inception_4e/3x3 (in-place)
I0404 13:44:16.960921 11586 net.cpp:141] Setting up inception_4e/relu_3x3
I0404 13:44:16.960947 11586 net.cpp:148] Top shape: 132 320 14 14 (8279040)
I0404 13:44:16.960961 11586 net.cpp:156] Memory required for data: 6798710688
I0404 13:44:16.960976 11586 layer_factory.hpp:77] Creating layer inception_4e/5x5_reduce
I0404 13:44:16.960999 11586 net.cpp:91] Creating Layer inception_4e/5x5_reduce
I0404 13:44:16.961016 11586 net.cpp:425] inception_4e/5x5_reduce <- inception_4d/output_inception_4d/output_0_split_3
I0404 13:44:16.961037 11586 net.cpp:399] inception_4e/5x5_reduce -> inception_4e/5x5_reduce
I0404 13:44:16.962146 11586 net.cpp:141] Setting up inception_4e/5x5_reduce
I0404 13:44:16.962172 11586 net.cpp:148] Top shape: 132 32 14 14 (827904)
I0404 13:44:16.962188 11586 net.cpp:156] Memory required for data: 6802022304
I0404 13:44:16.962205 11586 layer_factory.hpp:77] Creating layer inception_4e/relu_5x5_reduce
I0404 13:44:16.962225 11586 net.cpp:91] Creating Layer inception_4e/relu_5x5_reduce
I0404 13:44:16.962242 11586 net.cpp:425] inception_4e/relu_5x5_reduce <- inception_4e/5x5_reduce
I0404 13:44:16.962260 11586 net.cpp:386] inception_4e/relu_5x5_reduce -> inception_4e/5x5_reduce (in-place)
I0404 13:44:16.962559 11586 net.cpp:141] Setting up inception_4e/relu_5x5_reduce
I0404 13:44:16.962585 11586 net.cpp:148] Top shape: 132 32 14 14 (827904)
I0404 13:44:16.962600 11586 net.cpp:156] Memory required for data: 6805333920
I0404 13:44:16.962615 11586 layer_factory.hpp:77] Creating layer inception_4e/5x5
I0404 13:44:16.962653 11586 net.cpp:91] Creating Layer inception_4e/5x5
I0404 13:44:16.962672 11586 net.cpp:425] inception_4e/5x5 <- inception_4e/5x5_reduce
I0404 13:44:16.962692 11586 net.cpp:399] inception_4e/5x5 -> inception_4e/5x5
I0404 13:44:16.964555 11586 net.cpp:141] Setting up inception_4e/5x5
I0404 13:44:16.964583 11586 net.cpp:148] Top shape: 132 128 14 14 (3311616)
I0404 13:44:16.964598 11586 net.cpp:156] Memory required for data: 6818580384
I0404 13:44:16.964618 11586 layer_factory.hpp:77] Creating layer inception_4e/relu_5x5
I0404 13:44:16.964638 11586 net.cpp:91] Creating Layer inception_4e/relu_5x5
I0404 13:44:16.964654 11586 net.cpp:425] inception_4e/relu_5x5 <- inception_4e/5x5
I0404 13:44:16.964671 11586 net.cpp:386] inception_4e/relu_5x5 -> inception_4e/5x5 (in-place)
I0404 13:44:16.964871 11586 net.cpp:141] Setting up inception_4e/relu_5x5
I0404 13:44:16.964900 11586 net.cpp:148] Top shape: 132 128 14 14 (3311616)
I0404 13:44:16.964915 11586 net.cpp:156] Memory required for data: 6831826848
I0404 13:44:16.964929 11586 layer_factory.hpp:77] Creating layer inception_4e/pool
I0404 13:44:16.964946 11586 net.cpp:91] Creating Layer inception_4e/pool
I0404 13:44:16.964962 11586 net.cpp:425] inception_4e/pool <- inception_4d/output_inception_4d/output_0_split_4
I0404 13:44:16.964982 11586 net.cpp:399] inception_4e/pool -> inception_4e/pool
I0404 13:44:16.965054 11586 net.cpp:141] Setting up inception_4e/pool
I0404 13:44:16.965080 11586 net.cpp:148] Top shape: 132 528 14 14 (13660416)
I0404 13:44:16.965093 11586 net.cpp:156] Memory required for data: 6886468512
I0404 13:44:16.965111 11586 layer_factory.hpp:77] Creating layer inception_4e/pool_proj
I0404 13:44:16.965134 11586 net.cpp:91] Creating Layer inception_4e/pool_proj
I0404 13:44:16.965152 11586 net.cpp:425] inception_4e/pool_proj <- inception_4e/pool
I0404 13:44:16.965191 11586 net.cpp:399] inception_4e/pool_proj -> inception_4e/pool_proj
I0404 13:44:16.966711 11586 net.cpp:141] Setting up inception_4e/pool_proj
I0404 13:44:16.966742 11586 net.cpp:148] Top shape: 132 128 14 14 (3311616)
I0404 13:44:16.966758 11586 net.cpp:156] Memory required for data: 6899714976
I0404 13:44:16.966776 11586 layer_factory.hpp:77] Creating layer inception_4e/relu_pool_proj
I0404 13:44:16.966799 11586 net.cpp:91] Creating Layer inception_4e/relu_pool_proj
I0404 13:44:16.966815 11586 net.cpp:425] inception_4e/relu_pool_proj <- inception_4e/pool_proj
I0404 13:44:16.966832 11586 net.cpp:386] inception_4e/relu_pool_proj -> inception_4e/pool_proj (in-place)
I0404 13:44:16.967126 11586 net.cpp:141] Setting up inception_4e/relu_pool_proj
I0404 13:44:16.967152 11586 net.cpp:148] Top shape: 132 128 14 14 (3311616)
I0404 13:44:16.967167 11586 net.cpp:156] Memory required for data: 6912961440
I0404 13:44:16.967181 11586 layer_factory.hpp:77] Creating layer inception_4e/output
I0404 13:44:16.967198 11586 net.cpp:91] Creating Layer inception_4e/output
I0404 13:44:16.967214 11586 net.cpp:425] inception_4e/output <- inception_4e/1x1
I0404 13:44:16.967233 11586 net.cpp:425] inception_4e/output <- inception_4e/3x3
I0404 13:44:16.967249 11586 net.cpp:425] inception_4e/output <- inception_4e/5x5
I0404 13:44:16.967267 11586 net.cpp:425] inception_4e/output <- inception_4e/pool_proj
I0404 13:44:16.967283 11586 net.cpp:399] inception_4e/output -> inception_4e/output
I0404 13:44:16.967331 11586 net.cpp:141] Setting up inception_4e/output
I0404 13:44:16.967357 11586 net.cpp:148] Top shape: 132 832 14 14 (21525504)
I0404 13:44:16.967373 11586 net.cpp:156] Memory required for data: 6999063456
I0404 13:44:16.967388 11586 layer_factory.hpp:77] Creating layer pool4/3x3_s2
I0404 13:44:16.967406 11586 net.cpp:91] Creating Layer pool4/3x3_s2
I0404 13:44:16.967420 11586 net.cpp:425] pool4/3x3_s2 <- inception_4e/output
I0404 13:44:16.967444 11586 net.cpp:399] pool4/3x3_s2 -> pool4/3x3_s2
I0404 13:44:16.967511 11586 net.cpp:141] Setting up pool4/3x3_s2
I0404 13:44:16.967541 11586 net.cpp:148] Top shape: 132 832 7 7 (5381376)
I0404 13:44:16.967558 11586 net.cpp:156] Memory required for data: 7020588960
I0404 13:44:16.967573 11586 layer_factory.hpp:77] Creating layer pool4/3x3_s2_pool4/3x3_s2_0_split
I0404 13:44:16.967597 11586 net.cpp:91] Creating Layer pool4/3x3_s2_pool4/3x3_s2_0_split
I0404 13:44:16.967612 11586 net.cpp:425] pool4/3x3_s2_pool4/3x3_s2_0_split <- pool4/3x3_s2
I0404 13:44:16.967628 11586 net.cpp:399] pool4/3x3_s2_pool4/3x3_s2_0_split -> pool4/3x3_s2_pool4/3x3_s2_0_split_0
I0404 13:44:16.967648 11586 net.cpp:399] pool4/3x3_s2_pool4/3x3_s2_0_split -> pool4/3x3_s2_pool4/3x3_s2_0_split_1
I0404 13:44:16.967671 11586 net.cpp:399] pool4/3x3_s2_pool4/3x3_s2_0_split -> pool4/3x3_s2_pool4/3x3_s2_0_split_2
I0404 13:44:16.967694 11586 net.cpp:399] pool4/3x3_s2_pool4/3x3_s2_0_split -> pool4/3x3_s2_pool4/3x3_s2_0_split_3
I0404 13:44:16.967788 11586 net.cpp:141] Setting up pool4/3x3_s2_pool4/3x3_s2_0_split
I0404 13:44:16.967811 11586 net.cpp:148] Top shape: 132 832 7 7 (5381376)
I0404 13:44:16.967828 11586 net.cpp:148] Top shape: 132 832 7 7 (5381376)
I0404 13:44:16.967841 11586 net.cpp:148] Top shape: 132 832 7 7 (5381376)
I0404 13:44:16.967856 11586 net.cpp:148] Top shape: 132 832 7 7 (5381376)
I0404 13:44:16.967870 11586 net.cpp:156] Memory required for data: 7106690976
I0404 13:44:16.967885 11586 layer_factory.hpp:77] Creating layer inception_5a/1x1
I0404 13:44:16.967905 11586 net.cpp:91] Creating Layer inception_5a/1x1
I0404 13:44:16.967922 11586 net.cpp:425] inception_5a/1x1 <- pool4/3x3_s2_pool4/3x3_s2_0_split_0
I0404 13:44:16.967942 11586 net.cpp:399] inception_5a/1x1 -> inception_5a/1x1
I0404 13:44:16.970922 11586 net.cpp:141] Setting up inception_5a/1x1
I0404 13:44:16.970953 11586 net.cpp:148] Top shape: 132 256 7 7 (1655808)
I0404 13:44:16.970969 11586 net.cpp:156] Memory required for data: 7113314208
I0404 13:44:16.970988 11586 layer_factory.hpp:77] Creating layer inception_5a/relu_1x1
I0404 13:44:16.971024 11586 net.cpp:91] Creating Layer inception_5a/relu_1x1
I0404 13:44:16.971041 11586 net.cpp:425] inception_5a/relu_1x1 <- inception_5a/1x1
I0404 13:44:16.971060 11586 net.cpp:386] inception_5a/relu_1x1 -> inception_5a/1x1 (in-place)
I0404 13:44:16.971367 11586 net.cpp:141] Setting up inception_5a/relu_1x1
I0404 13:44:16.971395 11586 net.cpp:148] Top shape: 132 256 7 7 (1655808)
I0404 13:44:16.971410 11586 net.cpp:156] Memory required for data: 7119937440
I0404 13:44:16.971424 11586 layer_factory.hpp:77] Creating layer inception_5a/3x3_reduce
I0404 13:44:16.971448 11586 net.cpp:91] Creating Layer inception_5a/3x3_reduce
I0404 13:44:16.971468 11586 net.cpp:425] inception_5a/3x3_reduce <- pool4/3x3_s2_pool4/3x3_s2_0_split_1
I0404 13:44:16.971488 11586 net.cpp:399] inception_5a/3x3_reduce -> inception_5a/3x3_reduce
I0404 13:44:16.974067 11586 net.cpp:141] Setting up inception_5a/3x3_reduce
I0404 13:44:16.974097 11586 net.cpp:148] Top shape: 132 160 7 7 (1034880)
I0404 13:44:16.974113 11586 net.cpp:156] Memory required for data: 7124076960
I0404 13:44:16.974131 11586 layer_factory.hpp:77] Creating layer inception_5a/relu_3x3_reduce
I0404 13:44:16.974149 11586 net.cpp:91] Creating Layer inception_5a/relu_3x3_reduce
I0404 13:44:16.974169 11586 net.cpp:425] inception_5a/relu_3x3_reduce <- inception_5a/3x3_reduce
I0404 13:44:16.974187 11586 net.cpp:386] inception_5a/relu_3x3_reduce -> inception_5a/3x3_reduce (in-place)
I0404 13:44:16.974397 11586 net.cpp:141] Setting up inception_5a/relu_3x3_reduce
I0404 13:44:16.974423 11586 net.cpp:148] Top shape: 132 160 7 7 (1034880)
I0404 13:44:16.974438 11586 net.cpp:156] Memory required for data: 7128216480
I0404 13:44:16.974452 11586 layer_factory.hpp:77] Creating layer inception_5a/3x3
I0404 13:44:16.974474 11586 net.cpp:91] Creating Layer inception_5a/3x3
I0404 13:44:16.974493 11586 net.cpp:425] inception_5a/3x3 <- inception_5a/3x3_reduce
I0404 13:44:16.974515 11586 net.cpp:399] inception_5a/3x3 -> inception_5a/3x3
I0404 13:44:16.979720 11586 net.cpp:141] Setting up inception_5a/3x3
I0404 13:44:16.979751 11586 net.cpp:148] Top shape: 132 320 7 7 (2069760)
I0404 13:44:16.979768 11586 net.cpp:156] Memory required for data: 7136495520
I0404 13:44:16.979786 11586 layer_factory.hpp:77] Creating layer inception_5a/relu_3x3
I0404 13:44:16.979806 11586 net.cpp:91] Creating Layer inception_5a/relu_3x3
I0404 13:44:16.979825 11586 net.cpp:425] inception_5a/relu_3x3 <- inception_5a/3x3
I0404 13:44:16.979841 11586 net.cpp:386] inception_5a/relu_3x3 -> inception_5a/3x3 (in-place)
I0404 13:44:16.980150 11586 net.cpp:141] Setting up inception_5a/relu_3x3
I0404 13:44:16.980176 11586 net.cpp:148] Top shape: 132 320 7 7 (2069760)
I0404 13:44:16.980191 11586 net.cpp:156] Memory required for data: 7144774560
I0404 13:44:16.980206 11586 layer_factory.hpp:77] Creating layer inception_5a/5x5_reduce
I0404 13:44:16.980229 11586 net.cpp:91] Creating Layer inception_5a/5x5_reduce
I0404 13:44:16.980247 11586 net.cpp:425] inception_5a/5x5_reduce <- pool4/3x3_s2_pool4/3x3_s2_0_split_2
I0404 13:44:16.980271 11586 net.cpp:399] inception_5a/5x5_reduce -> inception_5a/5x5_reduce
I0404 13:44:16.981473 11586 net.cpp:141] Setting up inception_5a/5x5_reduce
I0404 13:44:16.981503 11586 net.cpp:148] Top shape: 132 32 7 7 (206976)
I0404 13:44:16.981518 11586 net.cpp:156] Memory required for data: 7145602464
I0404 13:44:16.981539 11586 layer_factory.hpp:77] Creating layer inception_5a/relu_5x5_reduce
I0404 13:44:16.981562 11586 net.cpp:91] Creating Layer inception_5a/relu_5x5_reduce
I0404 13:44:16.981580 11586 net.cpp:425] inception_5a/relu_5x5_reduce <- inception_5a/5x5_reduce
I0404 13:44:16.981596 11586 net.cpp:386] inception_5a/relu_5x5_reduce -> inception_5a/5x5_reduce (in-place)
I0404 13:44:16.981904 11586 net.cpp:141] Setting up inception_5a/relu_5x5_reduce
I0404 13:44:16.981931 11586 net.cpp:148] Top shape: 132 32 7 7 (206976)
I0404 13:44:16.981947 11586 net.cpp:156] Memory required for data: 7146430368
I0404 13:44:16.981962 11586 layer_factory.hpp:77] Creating layer inception_5a/5x5
I0404 13:44:16.982013 11586 net.cpp:91] Creating Layer inception_5a/5x5
I0404 13:44:16.982038 11586 net.cpp:425] inception_5a/5x5 <- inception_5a/5x5_reduce
I0404 13:44:16.982059 11586 net.cpp:399] inception_5a/5x5 -> inception_5a/5x5
I0404 13:44:16.983875 11586 net.cpp:141] Setting up inception_5a/5x5
I0404 13:44:16.983906 11586 net.cpp:148] Top shape: 132 128 7 7 (827904)
I0404 13:44:16.983923 11586 net.cpp:156] Memory required for data: 7149741984
I0404 13:44:16.983942 11586 layer_factory.hpp:77] Creating layer inception_5a/relu_5x5
I0404 13:44:16.983959 11586 net.cpp:91] Creating Layer inception_5a/relu_5x5
I0404 13:44:16.983976 11586 net.cpp:425] inception_5a/relu_5x5 <- inception_5a/5x5
I0404 13:44:16.983996 11586 net.cpp:386] inception_5a/relu_5x5 -> inception_5a/5x5 (in-place)
I0404 13:44:16.984191 11586 net.cpp:141] Setting up inception_5a/relu_5x5
I0404 13:44:16.984217 11586 net.cpp:148] Top shape: 132 128 7 7 (827904)
I0404 13:44:16.984232 11586 net.cpp:156] Memory required for data: 7153053600
I0404 13:44:16.984246 11586 layer_factory.hpp:77] Creating layer inception_5a/pool
I0404 13:44:16.984266 11586 net.cpp:91] Creating Layer inception_5a/pool
I0404 13:44:16.984282 11586 net.cpp:425] inception_5a/pool <- pool4/3x3_s2_pool4/3x3_s2_0_split_3
I0404 13:44:16.984302 11586 net.cpp:399] inception_5a/pool -> inception_5a/pool
I0404 13:44:16.984377 11586 net.cpp:141] Setting up inception_5a/pool
I0404 13:44:16.984400 11586 net.cpp:148] Top shape: 132 832 7 7 (5381376)
I0404 13:44:16.984416 11586 net.cpp:156] Memory required for data: 7174579104
I0404 13:44:16.984431 11586 layer_factory.hpp:77] Creating layer inception_5a/pool_proj
I0404 13:44:16.984454 11586 net.cpp:91] Creating Layer inception_5a/pool_proj
I0404 13:44:16.984473 11586 net.cpp:425] inception_5a/pool_proj <- inception_5a/pool
I0404 13:44:16.984493 11586 net.cpp:399] inception_5a/pool_proj -> inception_5a/pool_proj
I0404 13:44:16.986917 11586 net.cpp:141] Setting up inception_5a/pool_proj
I0404 13:44:16.986948 11586 net.cpp:148] Top shape: 132 128 7 7 (827904)
I0404 13:44:16.986971 11586 net.cpp:156] Memory required for data: 7177890720
I0404 13:44:16.986990 11586 layer_factory.hpp:77] Creating layer inception_5a/relu_pool_proj
I0404 13:44:16.987009 11586 net.cpp:91] Creating Layer inception_5a/relu_pool_proj
I0404 13:44:16.987025 11586 net.cpp:425] inception_5a/relu_pool_proj <- inception_5a/pool_proj
I0404 13:44:16.987042 11586 net.cpp:386] inception_5a/relu_pool_proj -> inception_5a/pool_proj (in-place)
I0404 13:44:16.987360 11586 net.cpp:141] Setting up inception_5a/relu_pool_proj
I0404 13:44:16.987387 11586 net.cpp:148] Top shape: 132 128 7 7 (827904)
I0404 13:44:16.987403 11586 net.cpp:156] Memory required for data: 7181202336
I0404 13:44:16.987418 11586 layer_factory.hpp:77] Creating layer inception_5a/output
I0404 13:44:16.987435 11586 net.cpp:91] Creating Layer inception_5a/output
I0404 13:44:16.987452 11586 net.cpp:425] inception_5a/output <- inception_5a/1x1
I0404 13:44:16.987468 11586 net.cpp:425] inception_5a/output <- inception_5a/3x3
I0404 13:44:16.987483 11586 net.cpp:425] inception_5a/output <- inception_5a/5x5
I0404 13:44:16.987499 11586 net.cpp:425] inception_5a/output <- inception_5a/pool_proj
I0404 13:44:16.987515 11586 net.cpp:399] inception_5a/output -> inception_5a/output
I0404 13:44:16.987571 11586 net.cpp:141] Setting up inception_5a/output
I0404 13:44:16.987593 11586 net.cpp:148] Top shape: 132 832 7 7 (5381376)
I0404 13:44:16.987608 11586 net.cpp:156] Memory required for data: 7202727840
I0404 13:44:16.987623 11586 layer_factory.hpp:77] Creating layer inception_5a/output_inception_5a/output_0_split
I0404 13:44:16.987639 11586 net.cpp:91] Creating Layer inception_5a/output_inception_5a/output_0_split
I0404 13:44:16.987658 11586 net.cpp:425] inception_5a/output_inception_5a/output_0_split <- inception_5a/output
I0404 13:44:16.987675 11586 net.cpp:399] inception_5a/output_inception_5a/output_0_split -> inception_5a/output_inception_5a/output_0_split_0
I0404 13:44:16.987695 11586 net.cpp:399] inception_5a/output_inception_5a/output_0_split -> inception_5a/output_inception_5a/output_0_split_1
I0404 13:44:16.987731 11586 net.cpp:399] inception_5a/output_inception_5a/output_0_split -> inception_5a/output_inception_5a/output_0_split_2
I0404 13:44:16.987753 11586 net.cpp:399] inception_5a/output_inception_5a/output_0_split -> inception_5a/output_inception_5a/output_0_split_3
I0404 13:44:16.987853 11586 net.cpp:141] Setting up inception_5a/output_inception_5a/output_0_split
I0404 13:44:16.987875 11586 net.cpp:148] Top shape: 132 832 7 7 (5381376)
I0404 13:44:16.987891 11586 net.cpp:148] Top shape: 132 832 7 7 (5381376)
I0404 13:44:16.987906 11586 net.cpp:148] Top shape: 132 832 7 7 (5381376)
I0404 13:44:16.987921 11586 net.cpp:148] Top shape: 132 832 7 7 (5381376)
I0404 13:44:16.987936 11586 net.cpp:156] Memory required for data: 7288829856
I0404 13:44:16.987949 11586 layer_factory.hpp:77] Creating layer inception_5b/1x1
I0404 13:44:16.987970 11586 net.cpp:91] Creating Layer inception_5b/1x1
I0404 13:44:16.987988 11586 net.cpp:425] inception_5b/1x1 <- inception_5a/output_inception_5a/output_0_split_0
I0404 13:44:16.988009 11586 net.cpp:399] inception_5b/1x1 -> inception_5b/1x1
I0404 13:44:16.991822 11586 net.cpp:141] Setting up inception_5b/1x1
I0404 13:44:16.991854 11586 net.cpp:148] Top shape: 132 384 7 7 (2483712)
I0404 13:44:16.991871 11586 net.cpp:156] Memory required for data: 7298764704
I0404 13:44:16.991889 11586 layer_factory.hpp:77] Creating layer inception_5b/relu_1x1
I0404 13:44:16.991907 11586 net.cpp:91] Creating Layer inception_5b/relu_1x1
I0404 13:44:16.991924 11586 net.cpp:425] inception_5b/relu_1x1 <- inception_5b/1x1
I0404 13:44:16.991942 11586 net.cpp:386] inception_5b/relu_1x1 -> inception_5b/1x1 (in-place)
I0404 13:44:16.992259 11586 net.cpp:141] Setting up inception_5b/relu_1x1
I0404 13:44:16.992287 11586 net.cpp:148] Top shape: 132 384 7 7 (2483712)
I0404 13:44:16.992303 11586 net.cpp:156] Memory required for data: 7308699552
I0404 13:44:16.992317 11586 layer_factory.hpp:77] Creating layer inception_5b/3x3_reduce
I0404 13:44:16.992341 11586 net.cpp:91] Creating Layer inception_5b/3x3_reduce
I0404 13:44:16.992358 11586 net.cpp:425] inception_5b/3x3_reduce <- inception_5a/output_inception_5a/output_0_split_1
I0404 13:44:16.992377 11586 net.cpp:399] inception_5b/3x3_reduce -> inception_5b/3x3_reduce
I0404 13:44:16.995064 11586 net.cpp:141] Setting up inception_5b/3x3_reduce
I0404 13:44:16.995095 11586 net.cpp:148] Top shape: 132 192 7 7 (1241856)
I0404 13:44:16.995111 11586 net.cpp:156] Memory required for data: 7313666976
I0404 13:44:16.995129 11586 layer_factory.hpp:77] Creating layer inception_5b/relu_3x3_reduce
I0404 13:44:16.995147 11586 net.cpp:91] Creating Layer inception_5b/relu_3x3_reduce
I0404 13:44:16.995163 11586 net.cpp:425] inception_5b/relu_3x3_reduce <- inception_5b/3x3_reduce
I0404 13:44:16.995183 11586 net.cpp:386] inception_5b/relu_3x3_reduce -> inception_5b/3x3_reduce (in-place)
I0404 13:44:16.995394 11586 net.cpp:141] Setting up inception_5b/relu_3x3_reduce
I0404 13:44:16.995419 11586 net.cpp:148] Top shape: 132 192 7 7 (1241856)
I0404 13:44:16.995434 11586 net.cpp:156] Memory required for data: 7318634400
I0404 13:44:16.995447 11586 layer_factory.hpp:77] Creating layer inception_5b/3x3
I0404 13:44:16.995470 11586 net.cpp:91] Creating Layer inception_5b/3x3
I0404 13:44:16.995486 11586 net.cpp:425] inception_5b/3x3 <- inception_5b/3x3_reduce
I0404 13:44:16.995507 11586 net.cpp:399] inception_5b/3x3 -> inception_5b/3x3
I0404 13:44:17.002302 11586 net.cpp:141] Setting up inception_5b/3x3
I0404 13:44:17.002331 11586 net.cpp:148] Top shape: 132 384 7 7 (2483712)
I0404 13:44:17.002353 11586 net.cpp:156] Memory required for data: 7328569248
I0404 13:44:17.002372 11586 layer_factory.hpp:77] Creating layer inception_5b/relu_3x3
I0404 13:44:17.002389 11586 net.cpp:91] Creating Layer inception_5b/relu_3x3
I0404 13:44:17.002406 11586 net.cpp:425] inception_5b/relu_3x3 <- inception_5b/3x3
I0404 13:44:17.002427 11586 net.cpp:386] inception_5b/relu_3x3 -> inception_5b/3x3 (in-place)
I0404 13:44:17.002734 11586 net.cpp:141] Setting up inception_5b/relu_3x3
I0404 13:44:17.002774 11586 net.cpp:148] Top shape: 132 384 7 7 (2483712)
I0404 13:44:17.002790 11586 net.cpp:156] Memory required for data: 7338504096
I0404 13:44:17.002804 11586 layer_factory.hpp:77] Creating layer inception_5b/5x5_reduce
I0404 13:44:17.002827 11586 net.cpp:91] Creating Layer inception_5b/5x5_reduce
I0404 13:44:17.002845 11586 net.cpp:425] inception_5b/5x5_reduce <- inception_5a/output_inception_5a/output_0_split_2
I0404 13:44:17.002866 11586 net.cpp:399] inception_5b/5x5_reduce -> inception_5b/5x5_reduce
I0404 13:44:17.004155 11586 net.cpp:141] Setting up inception_5b/5x5_reduce
I0404 13:44:17.004181 11586 net.cpp:148] Top shape: 132 48 7 7 (310464)
I0404 13:44:17.004196 11586 net.cpp:156] Memory required for data: 7339745952
I0404 13:44:17.004215 11586 layer_factory.hpp:77] Creating layer inception_5b/relu_5x5_reduce
I0404 13:44:17.004235 11586 net.cpp:91] Creating Layer inception_5b/relu_5x5_reduce
I0404 13:44:17.004251 11586 net.cpp:425] inception_5b/relu_5x5_reduce <- inception_5b/5x5_reduce
I0404 13:44:17.004271 11586 net.cpp:386] inception_5b/relu_5x5_reduce -> inception_5b/5x5_reduce (in-place)
I0404 13:44:17.004655 11586 net.cpp:141] Setting up inception_5b/relu_5x5_reduce
I0404 13:44:17.004683 11586 net.cpp:148] Top shape: 132 48 7 7 (310464)
I0404 13:44:17.004698 11586 net.cpp:156] Memory required for data: 7340987808
I0404 13:44:17.004712 11586 layer_factory.hpp:77] Creating layer inception_5b/5x5
I0404 13:44:17.004731 11586 net.cpp:91] Creating Layer inception_5b/5x5
I0404 13:44:17.004748 11586 net.cpp:425] inception_5b/5x5 <- inception_5b/5x5_reduce
I0404 13:44:17.004767 11586 net.cpp:399] inception_5b/5x5 -> inception_5b/5x5
I0404 13:44:17.006876 11586 net.cpp:141] Setting up inception_5b/5x5
I0404 13:44:17.006904 11586 net.cpp:148] Top shape: 132 128 7 7 (827904)
I0404 13:44:17.006921 11586 net.cpp:156] Memory required for data: 7344299424
I0404 13:44:17.006942 11586 layer_factory.hpp:77] Creating layer inception_5b/relu_5x5
I0404 13:44:17.006963 11586 net.cpp:91] Creating Layer inception_5b/relu_5x5
I0404 13:44:17.006981 11586 net.cpp:425] inception_5b/relu_5x5 <- inception_5b/5x5
I0404 13:44:17.006997 11586 net.cpp:386] inception_5b/relu_5x5 -> inception_5b/5x5 (in-place)
I0404 13:44:17.007191 11586 net.cpp:141] Setting up inception_5b/relu_5x5
I0404 13:44:17.007220 11586 net.cpp:148] Top shape: 132 128 7 7 (827904)
I0404 13:44:17.007246 11586 net.cpp:156] Memory required for data: 7347611040
I0404 13:44:17.007261 11586 layer_factory.hpp:77] Creating layer inception_5b/pool
I0404 13:44:17.007279 11586 net.cpp:91] Creating Layer inception_5b/pool
I0404 13:44:17.007294 11586 net.cpp:425] inception_5b/pool <- inception_5a/output_inception_5a/output_0_split_3
I0404 13:44:17.007314 11586 net.cpp:399] inception_5b/pool -> inception_5b/pool
I0404 13:44:17.007388 11586 net.cpp:141] Setting up inception_5b/pool
I0404 13:44:17.007412 11586 net.cpp:148] Top shape: 132 832 7 7 (5381376)
I0404 13:44:17.007426 11586 net.cpp:156] Memory required for data: 7369136544
I0404 13:44:17.007441 11586 layer_factory.hpp:77] Creating layer inception_5b/pool_proj
I0404 13:44:17.007462 11586 net.cpp:91] Creating Layer inception_5b/pool_proj
I0404 13:44:17.007480 11586 net.cpp:425] inception_5b/pool_proj <- inception_5b/pool
I0404 13:44:17.007500 11586 net.cpp:399] inception_5b/pool_proj -> inception_5b/pool_proj
I0404 13:44:17.009845 11586 net.cpp:141] Setting up inception_5b/pool_proj
I0404 13:44:17.009876 11586 net.cpp:148] Top shape: 132 128 7 7 (827904)
I0404 13:44:17.009891 11586 net.cpp:156] Memory required for data: 7372448160
I0404 13:44:17.009908 11586 layer_factory.hpp:77] Creating layer inception_5b/relu_pool_proj
I0404 13:44:17.009927 11586 net.cpp:91] Creating Layer inception_5b/relu_pool_proj
I0404 13:44:17.009944 11586 net.cpp:425] inception_5b/relu_pool_proj <- inception_5b/pool_proj
I0404 13:44:17.009961 11586 net.cpp:386] inception_5b/relu_pool_proj -> inception_5b/pool_proj (in-place)
I0404 13:44:17.010262 11586 net.cpp:141] Setting up inception_5b/relu_pool_proj
I0404 13:44:17.010301 11586 net.cpp:148] Top shape: 132 128 7 7 (827904)
I0404 13:44:17.010316 11586 net.cpp:156] Memory required for data: 7375759776
I0404 13:44:17.010330 11586 layer_factory.hpp:77] Creating layer inception_5b/output
I0404 13:44:17.010347 11586 net.cpp:91] Creating Layer inception_5b/output
I0404 13:44:17.010362 11586 net.cpp:425] inception_5b/output <- inception_5b/1x1
I0404 13:44:17.010381 11586 net.cpp:425] inception_5b/output <- inception_5b/3x3
I0404 13:44:17.010398 11586 net.cpp:425] inception_5b/output <- inception_5b/5x5
I0404 13:44:17.010414 11586 net.cpp:425] inception_5b/output <- inception_5b/pool_proj
I0404 13:44:17.010432 11586 net.cpp:399] inception_5b/output -> inception_5b/output
I0404 13:44:17.010484 11586 net.cpp:141] Setting up inception_5b/output
I0404 13:44:17.010507 11586 net.cpp:148] Top shape: 132 1024 7 7 (6623232)
I0404 13:44:17.010522 11586 net.cpp:156] Memory required for data: 7402252704
I0404 13:44:17.010540 11586 layer_factory.hpp:77] Creating layer pool5/7x7_s1
I0404 13:44:17.010558 11586 net.cpp:91] Creating Layer pool5/7x7_s1
I0404 13:44:17.010574 11586 net.cpp:425] pool5/7x7_s1 <- inception_5b/output
I0404 13:44:17.010596 11586 net.cpp:399] pool5/7x7_s1 -> pool5/7x7_s1
I0404 13:44:17.010809 11586 net.cpp:141] Setting up pool5/7x7_s1
I0404 13:44:17.010835 11586 net.cpp:148] Top shape: 132 1024 1 1 (135168)
I0404 13:44:17.010849 11586 net.cpp:156] Memory required for data: 7402793376
I0404 13:44:17.010864 11586 layer_factory.hpp:77] Creating layer pool5/drop_7x7_s1
I0404 13:44:17.010884 11586 net.cpp:91] Creating Layer pool5/drop_7x7_s1
I0404 13:44:17.010901 11586 net.cpp:425] pool5/drop_7x7_s1 <- pool5/7x7_s1
I0404 13:44:17.010918 11586 net.cpp:386] pool5/drop_7x7_s1 -> pool5/7x7_s1 (in-place)
I0404 13:44:17.010969 11586 net.cpp:141] Setting up pool5/drop_7x7_s1
I0404 13:44:17.010993 11586 net.cpp:148] Top shape: 132 1024 1 1 (135168)
I0404 13:44:17.011008 11586 net.cpp:156] Memory required for data: 7403334048
I0404 13:44:17.011020 11586 layer_factory.hpp:77] Creating layer loss3/classifier_plantvillage
I0404 13:44:17.011039 11586 net.cpp:91] Creating Layer loss3/classifier_plantvillage
I0404 13:44:17.011054 11586 net.cpp:425] loss3/classifier_plantvillage <- pool5/7x7_s1
I0404 13:44:17.011075 11586 net.cpp:399] loss3/classifier_plantvillage -> loss3/classifier_plantvillage
I0404 13:44:17.011526 11586 net.cpp:141] Setting up loss3/classifier_plantvillage
I0404 13:44:17.011554 11586 net.cpp:148] Top shape: 132 38 (5016)
I0404 13:44:17.011570 11586 net.cpp:156] Memory required for data: 7403354112
I0404 13:44:17.011586 11586 layer_factory.hpp:77] Creating layer loss3/classifier_plantvillage_loss3/classifier_plantvillage_0_split
I0404 13:44:17.011605 11586 net.cpp:91] Creating Layer loss3/classifier_plantvillage_loss3/classifier_plantvillage_0_split
I0404 13:44:17.011620 11586 net.cpp:425] loss3/classifier_plantvillage_loss3/classifier_plantvillage_0_split <- loss3/classifier_plantvillage
I0404 13:44:17.011641 11586 net.cpp:399] loss3/classifier_plantvillage_loss3/classifier_plantvillage_0_split -> loss3/classifier_plantvillage_loss3/classifier_plantvillage_0_split_0
I0404 13:44:17.011661 11586 net.cpp:399] loss3/classifier_plantvillage_loss3/classifier_plantvillage_0_split -> loss3/classifier_plantvillage_loss3/classifier_plantvillage_0_split_1
I0404 13:44:17.011680 11586 net.cpp:399] loss3/classifier_plantvillage_loss3/classifier_plantvillage_0_split -> loss3/classifier_plantvillage_loss3/classifier_plantvillage_0_split_2
I0404 13:44:17.011765 11586 net.cpp:141] Setting up loss3/classifier_plantvillage_loss3/classifier_plantvillage_0_split
I0404 13:44:17.011790 11586 net.cpp:148] Top shape: 132 38 (5016)
I0404 13:44:17.011806 11586 net.cpp:148] Top shape: 132 38 (5016)
I0404 13:44:17.011821 11586 net.cpp:148] Top shape: 132 38 (5016)
I0404 13:44:17.011834 11586 net.cpp:156] Memory required for data: 7403414304
I0404 13:44:17.011848 11586 layer_factory.hpp:77] Creating layer loss1/loss
I0404 13:44:17.011870 11586 net.cpp:91] Creating Layer loss1/loss
I0404 13:44:17.011899 11586 net.cpp:425] loss1/loss <- loss1/classifier_plantvillage_loss1/classifier_plantvillage_0_split_0
I0404 13:44:17.011917 11586 net.cpp:425] loss1/loss <- label_data_1_split_0
…
