…
I0403 04:48:03.350389  8068 net.cpp:313] The NetState phase (0) differed from the phase (1) specified by a rule in layer loss3/top-5
I0403 04:48:03.355047  8068 net.cpp:49] Initializing net from parameters: 
state {
  phase: TRAIN
}
layer {
  name: "data"
  type: "Data"
  top: "data"
  top: "label"
  include {
    phase: TRAIN
  }
  transform_param {
    mirror: true
    crop_size: 224
    mean_file: "/home/mohanty/data/final_dataset/lmdb/segmented-80-20/mean.binaryproto"
  }
  data_param {
    source: "/home/mohanty/data/final_dataset/lmdb/segmented-80-20/train_db"
    batch_size: 24
    backend: LMDB
  }
}
layer {
  name: "conv1/7x7_s2"
  type: "Convolution"
  bottom: "data"
  top: "conv1/7x7_s2"
  param {
    lr_mult: 1
    decay_mult: 1
  }
  param {
    lr_mult: 2
    decay_mult: 0
  }
  convolution_param {
    num_output: 64
    pad: 3
    kernel_size: 7
    stride: 2
    weight_filler {
      type: "xavier"
      std: 0.1
    }
    bias_filler {
      type: "constant"
      value: 0.2
    }
  }
}
layer {
  name: "conv1/relu_7x7"
  type: "ReLU"
  bottom: "conv1/7x7_s2"
  top: "conv1/7x7_s2"
}
layer {
  name: "pool1/3x3_s2"
  type: "Pooling"
  bottom: "conv1/7x7_s2"
  top: "pool1/3x3_s2"
  pooling_param {
    pool: MAX
    kernel_size: 3
    stride: 2
  }
}
layer {
  name: "pool1/norm1"
  type: "LRN"
  bottom: "pool1/3x3_s2"
  top: "pool1/norm1"
  lrn_param {
    local_size: 5
    alpha: 0.0001
    beta: 0.75
  }
}
layer {
  name: "conv2/3x3_reduce"
  type: "Convolution"
  bottom: "pool1/norm1"
  top: "conv2/3x3_reduce"
  param {
    lr_mult: 1
    decay_mult: 1
  }
  param {
    lr_mult: 2
    decay_mult: 0
  }
  convolution_param {
    num_output: 64
    kernel_size: 1
    weight_filler {
      type: "xavier"
      std: 0.1
    }
    bias_filler {
      type: "constant"
      value: 0.2
    }
  }
}
layer {
  name: "conv2/relu_3x3_reduce"
  type: "ReLU"
  bottom: "conv2/3x3_reduce"
  top: "conv2/3x3_reduce"
}
layer {
  name: "conv2/3x3"
  type: "Convolution"
  bottom: "conv2/3x3_reduce"
  top: "conv2/3x3"
  param {
    lr_mult: 1
    decay_mult: 1
  }
  param {
    lr_mult: 2
    decay_mult: 0
  }
  convolution_param {
    num_output: 192
    pad: 1
    kernel_size: 3
    weight_filler {
      type: "xavier"
      std: 0.03
    }
    bias_filler {
      type: "constant"
      value: 0.2
    }
  }
}
layer {
  name: "conv2/relu_3x3"
  type: "ReLU"
  bottom: "conv2/3x3"
  top: "conv2/3x3"
}
layer {
  name: "conv2/norm2"
  type: "LRN"
  bottom: "conv2/3x3"
  top: "conv2/norm2"
  lrn_param {
    local_size: 5
    alpha: 0.0001
    beta: 0.75
  }
}
layer {
  name: "pool2/3x3_s2"
  type: "Pooling"
  bottom: "conv2/norm2"
  top: "pool2/3x3_s2"
  pooling_param {
    pool: MAX
    kernel_size: 3
    stride: 2
  }
}
layer {
  name: "inception_3a/1x1"
  type: "Convolution"
  bottom: "pool2/3x3_s2"
  top: "inception_3a/1x1"
  param {
    lr_mult: 1
    decay_mult: 1
  }
  param {
    lr_mult: 2
    decay_mult: 0
  }
  convolution_param {
    num_output: 64
    kernel_size: 1
    weight_filler {
      type: "xavier"
      std: 0.03
    }
    bias_filler {
      type: "constant"
      value: 0.2
    }
  }
}
layer {
  name: "inception_3a/relu_1x1"
  type: "ReLU"
  bottom: "inception_3a/1x1"
  top: "inception_3a/1x1"
}
layer {
  name: "inception_3a/3x3_reduce"
  type: "Convolution"
  bottom: "pool2/3x3_s2"
  top: "inception_3a/3x3_reduce"
  param {
    lr_mult: 1
    decay_mult: 1
  }
  param {
    lr_mult: 2
    decay_mult: 0
  }
  convolution_param {
    num_output: 96
    kernel_size: 1
    weight_filler {
      type: "xavier"
      std: 0.09
    }
    bias_filler {
      type: "constant"
      value: 0.2
    }
  }
}
layer {
  name: "inception_3a/relu_3x3_reduce"
  type: "ReLU"
  bottom: "inception_3a/3x3_reduce"
  top: "inception_3a/3x3_reduce"
}
layer {
  name: "inception_3a/3x3"
  type: "Convolution"
  bottom: "inception_3a/3x3_reduce"
  top: "inception_3a/3x3"
  param {
    lr_mult: 1
    decay_mult: 1
  }
  param {
    lr_mult: 2
    decay_mult: 0
  }
  convolution_param {
    num_output: 128
    pad: 1
    kernel_size: 3
    weight_filler {
      type: "xavier"
      std: 0.03
    }
    bias_filler {
      type: "constant"
      value: 0.2
    }
  }
}
layer {
  name: "inception_3a/relu_3x3"
  type: "ReLU"
  bottom: "inception_3a/3x3"
  top: "inception_3a/3x3"
}
layer {
  name: "inception_3a/5x5_reduce"
  type: "Convolution"
  bottom: "pool2/3x3_s2"
  top: "inception_3a/5x5_reduce"
  param {
    lr_mult: 1
    decay_mult: 1
  }
  param {
    lr_mult: 2
    decay_mult: 0
  }
  convolution_param {
    num_output: 16
    kernel_size: 1
    weight_filler {
      type: "xavier"
      std: 0.2
    }
    bias_filler {
      type: "constant"
      value: 0.2
    }
  }
}
layer {
  name: "inception_3a/relu_5x5_reduce"
  type: "ReLU"
  bottom: "inception_3a/5x5_reduce"
  top: "inception_3a/5x5_reduce"
}
layer {
  name: "inception_3a/5x5"
  type: "Convolution"
  bottom: "inception_3a/5x5_reduce"
  top: "inception_3a/5x5"
  param {
    lr_mult: 1
    decay_mult: 1
  }
  param {
    lr_mult: 2
    decay_mult: 0
  }
  convolution_param {
    num_output: 32
    pad: 2
    kernel_size: 5
    weight_filler {
      type: "xavier"
      std: 0.03
    }
    bias_filler {
      type: "constant"
      value: 0.2
    }
  }
}
layer {
  name: "inception_3a/relu_5x5"
  type: "ReLU"
  bottom: "inception_3a/5x5"
  top: "inception_3a/5x5"
}
layer {
  name: "inception_3a/pool"
  type: "Pooling"
  bottom: "pool2/3x3_s2"
  top: "inception_3a/pool"
  pooling_param {
    pool: MAX
    kernel_size: 3
    stride: 1
    pad: 1
  }
}
layer {
  name: "inception_3a/pool_proj"
  type: "Convolution"
  bottom: "inception_3a/pool"
  top: "inception_3a/pool_proj"
  param {
    lr_mult: 1
    decay_mult: 1
  }
  param {
    lr_mult: 2
    decay_mult: 0
  }
  convolution_param {
    num_output: 32
    kernel_size: 1
    weight_filler {
      type: "xavier"
      std: 0.1
    }
    bias_filler {
      type: "constant"
      value: 0.2
    }
  }
}
layer {
  name: "inception_3a/relu_pool_proj"
  type: "ReLU"
  bottom: "inception_3a/pool_proj"
  top: "inception_3a/pool_proj"
}
layer {
  name: "inception_3a/output"
  type: "Concat"
  bottom: "inception_3a/1x1"
  bottom: "inception_3a/3x3"
  bottom: "inception_3a/5x5"
  bottom: "inception_3a/pool_proj"
  top: "inception_3a/output"
}
layer {
  name: "inception_3b/1x1"
  type: "Convolution"
  bottom: "inception_3a/output"
  top: "inception_3b/1x1"
  param {
    lr_mult: 1
    decay_mult: 1
  }
  param {
    lr_mult: 2
    decay_mult: 0
  }
  convolution_param {
    num_output: 128
    kernel_size: 1
    weight_filler {
      type: "xavier"
      std: 0.03
    }
    bias_filler {
      type: "constant"
      value: 0.2
    }
  }
}
layer {
  name: "inception_3b/relu_1x1"
  type: "ReLU"
  bottom: "inception_3b/1x1"
  top: "inception_3b/1x1"
}
layer {
  name: "inception_3b/3x3_reduce"
  type: "Convolution"
  bottom: "inception_3a/output"
  top: "inception_3b/3x3_reduce"
  param {
    lr_mult: 1
    decay_mult: 1
  }
  param {
    lr_mult: 2
    decay_mult: 0
  }
  convolution_param {
    num_output: 128
    kernel_size: 1
    weight_filler {
      type: "xavier"
      std: 0.09
    }
    bias_filler {
      type: "constant"
      value: 0.2
    }
  }
}
layer {
  name: "inception_3b/relu_3x3_reduce"
  type: "ReLU"
  bottom: "inception_3b/3x3_reduce"
  top: "inception_3b/3x3_reduce"
}
layer {
  name: "inception_3b/3x3"
  type: "Convolution"
  bottom: "inception_3b/3x3_reduce"
  top: "inception_3b/3x3"
  param {
    lr_mult: 1
    decay_mult: 1
  }
  param {
    lr_mult: 2
    decay_mult: 0
  }
  convolution_param {
    num_output: 192
    pad: 1
    kernel_size: 3
    weight_filler {
      type: "xavier"
      std: 0.03
    }
    bias_filler {
      type: "constant"
      value: 0.2
    }
  }
}
layer {
  name: "inception_3b/relu_3x3"
  type: "ReLU"
  bottom: "inception_3b/3x3"
  top: "inception_3b/3x3"
}
layer {
  name: "inception_3b/5x5_reduce"
  type: "Convolution"
  bottom: "inception_3a/output"
  top: "inception_3b/5x5_reduce"
  param {
    lr_mult: 1
    decay_mult: 1
  }
  param {
    lr_mult: 2
    decay_mult: 0
  }
  convolution_param {
    num_output: 32
    kernel_size: 1
    weight_filler {
      type: "xavier"
      std: 0.2
    }
    bias_filler {
      type: "constant"
      value: 0.2
    }
  }
}
layer {
  name: "inception_3b/relu_5x5_reduce"
  type: "ReLU"
  bottom: "inception_3b/5x5_reduce"
  top: "inception_3b/5x5_reduce"
}
layer {
  name: "inception_3b/5x5"
  type: "Convolution"
  bottom: "inception_3b/5x5_reduce"
  top: "inception_3b/5x5"
  param {
    lr_mult: 1
    decay_mult: 1
  }
  param {
    lr_mult: 2
    decay_mult: 0
  }
  convolution_param {
    num_output: 96
    pad: 2
    kernel_size: 5
    weight_filler {
      type: "xavier"
      std: 0.03
    }
    bias_filler {
      type: "constant"
      value: 0.2
    }
  }
}
layer {
  name: "inception_3b/relu_5x5"
  type: "ReLU"
  bottom: "inception_3b/5x5"
  top: "inception_3b/5x5"
}
layer {
  name: "inception_3b/pool"
  type: "Pooling"
  bottom: "inception_3a/output"
  top: "inception_3b/pool"
  pooling_param {
    pool: MAX
    kernel_size: 3
    stride: 1
    pad: 1
  }
}
layer {
  name: "inception_3b/pool_proj"
  type: "Convolution"
  bottom: "inception_3b/pool"
  top: "inception_3b/pool_proj"
  param {
    lr_mult: 1
    decay_mult: 1
  }
  param {
    lr_mult: 2
    decay_mult: 0
  }
  convolution_param {
    num_output: 64
    kernel_size: 1
    weight_filler {
      type: "xavier"
      std: 0.1
    }
    bias_filler {
      type: "constant"
      value: 0.2
    }
  }
}
layer {
  name: "inception_3b/relu_pool_proj"
  type: "ReLU"
  bottom: "inception_3b/pool_proj"
  top: "inception_3b/pool_proj"
}
layer {
  name: "inception_3b/output"
  type: "Concat"
  bottom: "inception_3b/1x1"
  bottom: "inception_3b/3x3"
  bottom: "inception_3b/5x5"
  bottom: "inception_3b/pool_proj"
  top: "inception_3b/output"
}
layer {
  name: "pool3/3x3_s2"
  type: "Pooling"
  bottom: "inception_3b/output"
  top: "pool3/3x3_s2"
  pooling_param {
    pool: MAX
    kernel_size: 3
    stride: 2
  }
}
layer {
  name: "inception_4a/1x1"
  type: "Convolution"
  bottom: "pool3/3x3_s2"
  top: "inception_4a/1x1"
  param {
    lr_mult: 1
    decay_mult: 1
  }
  param {
    lr_mult: 2
    decay_mult: 0
  }
  convolution_param {
    num_output: 192
    kernel_size: 1
    weight_filler {
      type: "xavier"
      std: 0.03
    }
    bias_filler {
      type: "constant"
      value: 0.2
    }
  }
}
layer {
  name: "inception_4a/relu_1x1"
  type: "ReLU"
  bottom: "inception_4a/1x1"
  top: "inception_4a/1x1"
}
layer {
  name: "inception_4a/3x3_reduce"
  type: "Convolution"
  bottom: "pool3/3x3_s2"
  top: "inception_4a/3x3_reduce"
  param {
    lr_mult: 1
    decay_mult: 1
  }
  param {
    lr_mult: 2
    decay_mult: 0
  }
  convolution_param {
    num_output: 96
    kernel_size: 1
    weight_filler {
      type: "xavier"
      std: 0.09
    }
    bias_filler {
      type: "constant"
      value: 0.2
    }
  }
}
layer {
  name: "inception_4a/relu_3x3_reduce"
  type: "ReLU"
  bottom: "inception_4a/3x3_reduce"
  top: "inception_4a/3x3_reduce"
}
layer {
  name: "inception_4a/3x3"
  type: "Convolution"
  bottom: "inception_4a/3x3_reduce"
  top: "inception_4a/3x3"
  param {
    lr_mult: 1
    decay_mult: 1
  }
  param {
    lr_mult: 2
    decay_mult: 0
  }
  convolution_param {
    num_output: 208
    pad: 1
    kernel_size: 3
    weight_filler {
      type: "xavier"
      std: 0.03
    }
    bias_filler {
      type: "constant"
      value: 0.2
    }
  }
}
layer {
  name: "inception_4a/relu_3x3"
  type: "ReLU"
  bottom: "inception_4a/3x3"
  top: "inception_4a/3x3"
}
layer {
  name: "inception_4a/5x5_reduce"
  type: "Convolution"
  bottom: "pool3/3x3_s2"
  top: "inception_4a/5x5_reduce"
  param {
    lr_mult: 1
    decay_mult: 1
  }
  param {
    lr_mult: 2
    decay_mult: 0
  }
  convolution_param {
    num_output: 16
    kernel_size: 1
    weight_filler {
      type: "xavier"
      std: 0.2
    }
    bias_filler {
      type: "constant"
      value: 0.2
    }
  }
}
layer {
  name: "inception_4a/relu_5x5_reduce"
  type: "ReLU"
  bottom: "inception_4a/5x5_reduce"
  top: "inception_4a/5x5_reduce"
}
layer {
  name: "inception_4a/5x5"
  type: "Convolution"
  bottom: "inception_4a/5x5_reduce"
  top: "inception_4a/5x5"
  param {
    lr_mult: 1
    decay_mult: 1
  }
  param {
    lr_mult: 2
    decay_mult: 0
  }
  convolution_param {
    num_output: 48
    pad: 2
    kernel_size: 5
    weight_filler {
      type: "xavier"
      std: 0.03
    }
    bias_filler {
      type: "constant"
      value: 0.2
    }
  }
}
layer {
  name: "inception_4a/relu_5x5"
  type: "ReLU"
  bottom: "inception_4a/5x5"
  top: "inception_4a/5x5"
}
layer {
  name: "inception_4a/pool"
  type: "Pooling"
  bottom: "pool3/3x3_s2"
  top: "inception_4a/pool"
  pooling_param {
    pool: MAX
    kernel_size: 3
    stride: 1
    pad: 1
  }
}
layer {
  name: "inception_4a/pool_proj"
  type: "Convolution"
  bottom: "inception_4a/pool"
  top: "inception_4a/pool_proj"
  param {
    lr_mult: 1
    decay_mult: 1
  }
  param {
    lr_mult: 2
    decay_mult: 0
  }
  convolution_param {
    num_output: 64
    kernel_size: 1
    weight_filler {
      type: "xavier"
      std: 0.1
    }
    bias_filler {
      type: "constant"
      value: 0.2
    }
  }
}
layer {
  name: "inception_4a/relu_pool_proj"
  type: "ReLU"
  bottom: "inception_4a/pool_proj"
  top: "inception_4a/pool_proj"
}
layer {
  name: "inception_4a/output"
  type: "Concat"
  bottom: "inception_4a/1x1"
  bottom: "inception_4a/3x3"
  bottom: "inception_4a/5x5"
  bottom: "inception_4a/pool_proj"
  top: "inception_4a/output"
}
layer {
  name: "loss1/ave_pool"
  type: "Pooling"
  bottom: "inception_4a/output"
  top: "loss1/ave_pool"
  pooling_param {
    pool: AVE
    kernel_size: 5
    stride: 3
  }
}
layer {
  name: "loss1/conv"
  type: "Convolution"
  bottom: "loss1/ave_pool"
  top: "loss1/conv"
  param {
    lr_mult: 1
    decay_mult: 1
  }
  param {
    lr_mult: 2
    decay_mult: 0
  }
  convolution_param {
    num_output: 128
    kernel_size: 1
    weight_filler {
      type: "xavier"
      std: 0.08
    }
    bias_filler {
      type: "constant"
      value: 0.2
    }
  }
}
layer {
  name: "loss1/relu_conv"
  type: "ReLU"
  bottom: "loss1/conv"
  top: "loss1/conv"
}
layer {
  name: "loss1/fc"
  type: "InnerProduct"
  bottom: "loss1/conv"
  top: "loss1/fc"
  param {
    lr_mult: 1
    decay_mult: 1
  }
  param {
    lr_mult: 2
    decay_mult: 0
  }
  inner_product_param {
    num_output: 1024
    weight_filler {
      type: "xavier"
      std: 0.02
    }
    bias_filler {
      type: "constant"
      value: 0.2
    }
  }
}
layer {
  name: "loss1/relu_fc"
  type: "ReLU"
  bottom: "loss1/fc"
  top: "loss1/fc"
}
layer {
  name: "loss1/drop_fc"
  type: "Dropout"
  bottom: "loss1/fc"
  top: "loss1/fc"
  dropout_param {
    dropout_ratio: 0.7
  }
}
layer {
  name: "loss1/classifier_plantvillage"
  type: "InnerProduct"
  bottom: "loss1/fc"
  top: "loss1/classifier_plantvillage"
  param {
    lr_mult: 1
    decay_mult: 1
  }
  param {
    lr_mult: 2
    decay_mult: 0
  }
  inner_product_param {
    num_output: 38
    weight_filler {
      type: "xavier"
      std: 0.0009765625
    }
    bias_filler {
      type: "constant"
      value: 0
    }
  }
}
layer {
  name: "inception_4b/1x1"
  type: "Convolution"
  bottom: "inception_4a/output"
  top: "inception_4b/1x1"
  param {
    lr_mult: 1
    decay_mult: 1
  }
  param {
    lr_mult: 2
    decay_mult: 0
  }
  convolution_param {
    num_output: 160
    kernel_size: 1
    weight_filler {
      type: "xavier"
      std: 0.03
    }
    bias_filler {
      type: "constant"
      value: 0.2
    }
  }
}
layer {
  name: "inception_4b/relu_1x1"
  type: "ReLU"
  bottom: "inception_4b/1x1"
  top: "inception_4b/1x1"
}
layer {
  name: "inception_4b/3x3_reduce"
  type: "Convolution"
  bottom: "inception_4a/output"
  top: "inception_4b/3x3_reduce"
  param {
    lr_mult: 1
    decay_mult: 1
  }
  param {
    lr_mult: 2
    decay_mult: 0
  }
  convolution_param {
    num_output: 112
    kernel_size: 1
    weight_filler {
      type: "xavier"
      std: 0.09
    }
    bias_filler {
      type: "constant"
      value: 0.2
    }
  }
}
layer {
  name: "inception_4b/relu_3x3_reduce"
  type: "ReLU"
  bottom: "inception_4b/3x3_reduce"
  top: "inception_4b/3x3_reduce"
}
layer {
  name: "inception_4b/3x3"
  type: "Convolution"
  bottom: "inception_4b/3x3_reduce"
  top: "inception_4b/3x3"
  param {
    lr_mult: 1
    decay_mult: 1
  }
  param {
    lr_mult: 2
    decay_mult: 0
  }
  convolution_param {
    num_output: 224
    pad: 1
    kernel_size: 3
    weight_filler {
      type: "xavier"
      std: 0.03
    }
    bias_filler {
      type: "constant"
      value: 0.2
    }
  }
}
layer {
  name: "inception_4b/relu_3x3"
  type: "ReLU"
  bottom: "inception_4b/3x3"
  top: "inception_4b/3x3"
}
layer {
  name: "inception_4b/5x5_reduce"
  type: "Convolution"
  bottom: "inception_4a/output"
  top: "inception_4b/5x5_reduce"
  param {
    lr_mult: 1
    decay_mult: 1
  }
  param {
    lr_mult: 2
    decay_mult: 0
  }
  convolution_param {
    num_output: 24
    kernel_size: 1
    weight_filler {
      type: "xavier"
      std: 0.2
    }
    bias_filler {
      type: "constant"
      value: 0.2
    }
  }
}
layer {
  name: "inception_4b/relu_5x5_reduce"
  type: "ReLU"
  bottom: "inception_4b/5x5_reduce"
  top: "inception_4b/5x5_reduce"
}
layer {
  name: "inception_4b/5x5"
  type: "Convolution"
  bottom: "inception_4b/5x5_reduce"
  top: "inception_4b/5x5"
  param {
    lr_mult: 1
    decay_mult: 1
  }
  param {
    lr_mult: 2
    decay_mult: 0
  }
  convolution_param {
    num_output: 64
    pad: 2
    kernel_size: 5
    weight_filler {
      type: "xavier"
      std: 0.03
    }
    bias_filler {
      type: "constant"
      value: 0.2
    }
  }
}
layer {
  name: "inception_4b/relu_5x5"
  type: "ReLU"
  bottom: "inception_4b/5x5"
  top: "inception_4b/5x5"
}
layer {
  name: "inception_4b/pool"
  type: "Pooling"
  bottom: "inception_4a/output"
  top: "inception_4b/pool"
  pooling_param {
    pool: MAX
    kernel_size: 3
    stride: 1
    pad: 1
  }
}
layer {
  name: "inception_4b/pool_proj"
  type: "Convolution"
  bottom: "inception_4b/pool"
  top: "inception_4b/pool_proj"
  param {
    lr_mult: 1
    decay_mult: 1
  }
  param {
    lr_mult: 2
    decay_mult: 0
  }
  convolution_param {
    num_output: 64
    kernel_size: 1
    weight_filler {
      type: "xavier"
      std: 0.1
    }
    bias_filler {
      type: "constant"
      value: 0.2
    }
  }
}
layer {
  name: "inception_4b/relu_pool_proj"
  type: "ReLU"
  bottom: "inception_4b/pool_proj"
  top: "inception_4b/pool_proj"
}
layer {
  name: "inception_4b/output"
  type: "Concat"
  bottom: "inception_4b/1x1"
  bottom: "inception_4b/3x3"
  bottom: "inception_4b/5x5"
  bottom: "inception_4b/pool_proj"
  top: "inception_4b/output"
}
layer {
  name: "inception_4c/1x1"
  type: "Convolution"
  bottom: "inception_4b/output"
  top: "inception_4c/1x1"
  param {
    lr_mult: 1
    decay_mult: 1
  }
  param {
    lr_mult: 2
    decay_mult: 0
  }
  convolution_param {
    num_output: 128
    kernel_size: 1
    weight_filler {
      type: "xavier"
      std: 0.03
    }
    bias_filler {
      type: "constant"
      value: 0.2
    }
  }
}
layer {
  name: "inception_4c/relu_1x1"
  type: "ReLU"
  bottom: "inception_4c/1x1"
  top: "inception_4c/1x1"
}
layer {
  name: "inception_4c/3x3_reduce"
  type: "Convolution"
  bottom: "inception_4b/output"
  top: "inception_4c/3x3_reduce"
  param {
    lr_mult: 1
    decay_mult: 1
  }
  param {
    lr_mult: 2
    decay_mult: 0
  }
  convolution_param {
    num_output: 128
    kernel_size: 1
    weight_filler {
      type: "xavier"
      std: 0.09
    }
    bias_filler {
      type: "constant"
      value: 0.2
    }
  }
}
layer {
  name: "inception_4c/relu_3x3_reduce"
  type: "ReLU"
  bottom: "inception_4c/3x3_reduce"
  top: "inception_4c/3x3_reduce"
}
layer {
  name: "inception_4c/3x3"
  type: "Convolution"
  bottom: "inception_4c/3x3_reduce"
  top: "inception_4c/3x3"
  param {
    lr_mult: 1
    decay_mult: 1
  }
  param {
    lr_mult: 2
    decay_mult: 0
  }
  convolution_param {
    num_output: 256
    pad: 1
    kernel_size: 3
    weight_filler {
      type: "xavier"
      std: 0.03
    }
    bias_filler {
      type: "constant"
      value: 0.2
    }
  }
}
layer {
  name: "inception_4c/relu_3x3"
  type: "ReLU"
  bottom: "inception_4c/3x3"
  top: "inception_4c/3x3"
}
layer {
  name: "inception_4c/5x5_reduce"
  type: "Convolution"
  bottom: "inception_4b/output"
  top: "inception_4c/5x5_reduce"
  param {
    lr_mult: 1
    decay_mult: 1
  }
  param {
    lr_mult: 2
    decay_mult: 0
  }
  convolution_param {
    num_output: 24
    kernel_size: 1
    weight_filler {
      type: "xavier"
      std: 0.2
    }
    bias_filler {
      type: "constant"
      value: 0.2
    }
  }
}
layer {
  name: "inception_4c/relu_5x5_reduce"
  type: "ReLU"
  bottom: "inception_4c/5x5_reduce"
  top: "inception_4c/5x5_reduce"
}
layer {
  name: "inception_4c/5x5"
  type: "Convolution"
  bottom: "inception_4c/5x5_reduce"
  top: "inception_4c/5x5"
  param {
    lr_mult: 1
    decay_mult: 1
  }
  param {
    lr_mult: 2
    decay_mult: 0
  }
  convolution_param {
    num_output: 64
    pad: 2
    kernel_size: 5
    weight_filler {
      type: "xavier"
      std: 0.03
    }
    bias_filler {
      type: "constant"
      value: 0.2
    }
  }
}
layer {
  name: "inception_4c/relu_5x5"
  type: "ReLU"
  bottom: "inception_4c/5x5"
  top: "inception_4c/5x5"
}
layer {
  name: "inception_4c/pool"
  type: "Pooling"
  bottom: "inception_4b/output"
  top: "inception_4c/pool"
  pooling_param {
    pool: MAX
    kernel_size: 3
    stride: 1
    pad: 1
  }
}
layer {
  name: "inception_4c/pool_proj"
  type: "Convolution"
  bottom: "inception_4c/pool"
  top: "inception_4c/pool_proj"
  param {
    lr_mult: 1
    decay_mult: 1
  }
  param {
    lr_mult: 2
    decay_mult: 0
  }
  convolution_param {
    num_output: 64
    kernel_size: 1
    weight_filler {
      type: "xavier"
      std: 0.1
    }
    bias_filler {
      type: "constant"
      value: 0.2
    }
  }
}
layer {
  name: "inception_4c/relu_pool_proj"
  type: "ReLU"
  bottom: "inception_4c/pool_proj"
  top: "inception_4c/pool_proj"
}
layer {
  name: "inception_4c/output"
  type: "Concat"
  bottom: "inception_4c/1x1"
  bottom: "inception_4c/3x3"
  bottom: "inception_4c/5x5"
  bottom: "inception_4c/pool_proj"
  top: "inception_4c/output"
}
layer {
  name: "inception_4d/1x1"
  type: "Convolution"
  bottom: "inception_4c/output"
  top: "inception_4d/1x1"
  param {
    lr_mult: 1
    decay_mult: 1
  }
  param {
    lr_mult: 2
    decay_mult: 0
  }
  convolution_param {
    num_output: 112
    kernel_size: 1
    weight_filler {
      type: "xavier"
      std: 0.03
    }
    bias_filler {
      type: "constant"
      value: 0.2
    }
  }
}
layer {
  name: "inception_4d/relu_1x1"
  type: "ReLU"
  bottom: "inception_4d/1x1"
  top: "inception_4d/1x1"
}
layer {
  name: "inception_4d/3x3_reduce"
  type: "Convolution"
  bottom: "inception_4c/output"
  top: "inception_4d/3x3_reduce"
  param {
    lr_mult: 1
    decay_mult: 1
  }
  param {
    lr_mult: 2
    decay_mult: 0
  }
  convolution_param {
    num_output: 144
    kernel_size: 1
    weight_filler {
      type: "xavier"
      std: 0.09
    }
    bias_filler {
      type: "constant"
      value: 0.2
    }
  }
}
layer {
  name: "inception_4d/relu_3x3_reduce"
  type: "ReLU"
  bottom: "inception_4d/3x3_reduce"
  top: "inception_4d/3x3_reduce"
}
layer {
  name: "inception_4d/3x3"
  type: "Convolution"
  bottom: "inception_4d/3x3_reduce"
  top: "inception_4d/3x3"
  param {
    lr_mult: 1
    decay_mult: 1
  }
  param {
    lr_mult: 2
    decay_mult: 0
  }
  convolution_param {
    num_output: 288
    pad: 1
    kernel_size: 3
    weight_filler {
      type: "xavier"
      std: 0.03
    }
    bias_filler {
      type: "constant"
      value: 0.2
    }
  }
}
layer {
  name: "inception_4d/relu_3x3"
  type: "ReLU"
  bottom: "inception_4d/3x3"
  top: "inception_4d/3x3"
}
layer {
  name: "inception_4d/5x5_reduce"
  type: "Convolution"
  bottom: "inception_4c/output"
  top: "inception_4d/5x5_reduce"
  param {
    lr_mult: 1
    decay_mult: 1
  }
  param {
    lr_mult: 2
    decay_mult: 0
  }
  convolution_param {
    num_output: 32
    kernel_size: 1
    weight_filler {
      type: "xavier"
      std: 0.2
    }
    bias_filler {
      type: "constant"
      value: 0.2
    }
  }
}
layer {
  name: "inception_4d/relu_5x5_reduce"
  type: "ReLU"
  bottom: "inception_4d/5x5_reduce"
  top: "inception_4d/5x5_reduce"
}
layer {
  name: "inception_4d/5x5"
  type: "Convolution"
  bottom: "inception_4d/5x5_reduce"
  top: "inception_4d/5x5"
  param {
    lr_mult: 1
    decay_mult: 1
  }
  param {
    lr_mult: 2
    decay_mult: 0
  }
  convolution_param {
    num_output: 64
    pad: 2
    kernel_size: 5
    weight_filler {
      type: "xavier"
      std: 0.03
    }
    bias_filler {
      type: "constant"
      value: 0.2
    }
  }
}
layer {
  name: "inception_4d/relu_5x5"
  type: "ReLU"
  bottom: "inception_4d/5x5"
  top: "inception_4d/5x5"
}
layer {
  name: "inception_4d/pool"
  type: "Pooling"
  bottom: "inception_4c/output"
  top: "inception_4d/pool"
  pooling_param {
    pool: MAX
    kernel_size: 3
    stride: 1
    pad: 1
  }
}
layer {
  name: "inception_4d/pool_proj"
  type: "Convolution"
  bottom: "inception_4d/pool"
  top: "inception_4d/pool_proj"
  param {
    lr_mult: 1
    decay_mult: 1
  }
  param {
    lr_mult: 2
    decay_mult: 0
  }
  convolution_param {
    num_output: 64
    kernel_size: 1
    weight_filler {
      type: "xavier"
      std: 0.1
    }
    bias_filler {
      type: "constant"
      value: 0.2
    }
  }
}
layer {
  name: "inception_4d/relu_pool_proj"
  type: "ReLU"
  bottom: "inception_4d/pool_proj"
  top: "inception_4d/pool_proj"
}
layer {
  name: "inception_4d/output"
  type: "Concat"
  bottom: "inception_4d/1x1"
  bottom: "inception_4d/3x3"
  bottom: "inception_4d/5x5"
  bottom: "inception_4d/pool_proj"
  top: "inception_4d/output"
}
layer {
  name: "loss2/ave_pool"
  type: "Pooling"
  bottom: "inception_4d/output"
  top: "loss2/ave_pool"
  pooling_param {
    pool: AVE
    kernel_size: 5
    stride: 3
  }
}
layer {
  name: "loss2/conv"
  type: "Convolution"
  bottom: "loss2/ave_pool"
  top: "loss2/conv"
  param {
    lr_mult: 1
    decay_mult: 1
  }
  param {
    lr_mult: 2
    decay_mult: 0
  }
  convolution_param {
    num_output: 128
    kernel_size: 1
    weight_filler {
      type: "xavier"
      std: 0.08
    }
    bias_filler {
      type: "constant"
      value: 0.2
    }
  }
}
layer {
  name: "loss2/relu_conv"
  type: "ReLU"
  bottom: "loss2/conv"
  top: "loss2/conv"
}
layer {
  name: "loss2/fc"
  type: "InnerProduct"
  bottom: "loss2/conv"
  top: "loss2/fc"
  param {
    lr_mult: 1
    decay_mult: 1
  }
  param {
    lr_mult: 2
    decay_mult: 0
  }
  inner_product_param {
    num_output: 1024
    weight_filler {
      type: "xavier"
      std: 0.02
    }
    bias_filler {
      type: "constant"
      value: 0.2
    }
  }
}
layer {
  name: "loss2/relu_fc"
  type: "ReLU"
  bottom: "loss2/fc"
  top: "loss2/fc"
}
layer {
  name: "loss2/drop_fc"
  type: "Dropout"
  bottom: "loss2/fc"
  top: "loss2/fc"
  dropout_param {
    dropout_ratio: 0.7
  }
}
layer {
  name: "loss2/classifier_plantvillage"
  type: "InnerProduct"
  bottom: "loss2/fc"
  top: "loss2/classifier_plantvillage"
  param {
    lr_mult: 1
    decay_mult: 1
  }
  param {
    lr_mult: 2
    decay_mult: 0
  }
  inner_product_param {
    num_output: 38
    weight_filler {
      type: "xavier"
      std: 0.0009765625
    }
    bias_filler {
      type: "constant"
      value: 0
    }
  }
}
layer {
  name: "inception_4e/1x1"
  type: "Convolution"
  bottom: "inception_4d/output"
  top: "inception_4e/1x1"
  param {
    lr_mult: 1
    decay_mult: 1
  }
  param {
    lr_mult: 2
    decay_mult: 0
  }
  convolution_param {
    num_output: 256
    kernel_size: 1
    weight_filler {
      type: "xavier"
      std: 0.03
    }
    bias_filler {
      type: "constant"
      value: 0.2
    }
  }
}
layer {
  name: "inception_4e/relu_1x1"
  type: "ReLU"
  bottom: "inception_4e/1x1"
  top: "inception_4e/1x1"
}
layer {
  name: "inception_4e/3x3_reduce"
  type: "Convolution"
  bottom: "inception_4d/output"
  top: "inception_4e/3x3_reduce"
  param {
    lr_mult: 1
    decay_mult: 1
  }
  param {
    lr_mult: 2
    decay_mult: 0
  }
  convolution_param {
    num_output: 160
    kernel_size: 1
    weight_filler {
      type: "xavier"
      std: 0.09
    }
    bias_filler {
      type: "constant"
      value: 0.2
    }
  }
}
layer {
  name: "inception_4e/relu_3x3_reduce"
  type: "ReLU"
  bottom: "inception_4e/3x3_reduce"
  top: "inception_4e/3x3_reduce"
}
layer {
  name: "inception_4e/3x3"
  type: "Convolution"
  bottom: "inception_4e/3x3_reduce"
  top: "inception_4e/3x3"
  param {
    lr_mult: 1
    decay_mult: 1
  }
  param {
    lr_mult: 2
    decay_mult: 0
  }
  convolution_param {
    num_output: 320
    pad: 1
    kernel_size: 3
    weight_filler {
      type: "xavier"
      std: 0.03
    }
    bias_filler {
      type: "constant"
      value: 0.2
    }
  }
}
layer {
  name: "inception_4e/relu_3x3"
  type: "ReLU"
  bottom: "inception_4e/3x3"
  top: "inception_4e/3x3"
}
layer {
  name: "inception_4e/5x5_reduce"
  type: "Convolution"
  bottom: "inception_4d/output"
  top: "inception_4e/5x5_reduce"
  param {
    lr_mult: 1
    decay_mult: 1
  }
  param {
    lr_mult: 2
    decay_mult: 0
  }
  convolution_param {
    num_output: 32
    kernel_size: 1
    weight_filler {
      type: "xavier"
      std: 0.2
    }
    bias_filler {
      type: "constant"
      value: 0.2
    }
  }
}
layer {
  name: "inception_4e/relu_5x5_reduce"
  type: "ReLU"
  bottom: "inception_4e/5x5_reduce"
  top: "inception_4e/5x5_reduce"
}
layer {
  name: "inception_4e/5x5"
  type: "Convolution"
  bottom: "inception_4e/5x5_reduce"
  top: "inception_4
I0403 04:48:03.378211  8068 layer_factory.hpp:77] Creating layer data
I0403 04:48:03.379431  8068 net.cpp:91] Creating Layer data
I0403 04:48:03.379477  8068 net.cpp:399] data -> data
I0403 04:48:03.379541  8068 net.cpp:399] data -> label
I0403 04:48:03.379585  8068 data_transformer.cpp:25] Loading mean file from: /home/mohanty/data/final_dataset/lmdb/segmented-80-20/mean.binaryproto
I0403 04:48:03.410917  8071 db_lmdb.cpp:38] Opened lmdb /home/mohanty/data/final_dataset/lmdb/segmented-80-20/train_db
I0403 04:48:03.430639  8068 data_layer.cpp:41] output data size: 24,3,224,224
I0403 04:48:03.465886  8068 net.cpp:141] Setting up data
I0403 04:48:03.465981  8068 net.cpp:148] Top shape: 24 3 224 224 (3612672)
I0403 04:48:03.466023  8068 net.cpp:148] Top shape: 24 (24)
I0403 04:48:03.466043  8068 net.cpp:156] Memory required for data: 14450784
I0403 04:48:03.466125  8068 layer_factory.hpp:77] Creating layer label_data_1_split
I0403 04:48:03.466162  8068 net.cpp:91] Creating Layer label_data_1_split
I0403 04:48:03.466188  8068 net.cpp:425] label_data_1_split <- label
I0403 04:48:03.466225  8068 net.cpp:399] label_data_1_split -> label_data_1_split_0
I0403 04:48:03.466259  8068 net.cpp:399] label_data_1_split -> label_data_1_split_1
I0403 04:48:03.466295  8068 net.cpp:399] label_data_1_split -> label_data_1_split_2
I0403 04:48:03.466384  8068 net.cpp:141] Setting up label_data_1_split
I0403 04:48:03.466413  8068 net.cpp:148] Top shape: 24 (24)
I0403 04:48:03.466434  8068 net.cpp:148] Top shape: 24 (24)
I0403 04:48:03.466454  8068 net.cpp:148] Top shape: 24 (24)
I0403 04:48:03.466471  8068 net.cpp:156] Memory required for data: 14451072
I0403 04:48:03.466488  8068 layer_factory.hpp:77] Creating layer conv1/7x7_s2
I0403 04:48:03.466533  8068 net.cpp:91] Creating Layer conv1/7x7_s2
I0403 04:48:03.466557  8068 net.cpp:425] conv1/7x7_s2 <- data
I0403 04:48:03.466583  8068 net.cpp:399] conv1/7x7_s2 -> conv1/7x7_s2
I0403 04:48:03.467725  8068 net.cpp:141] Setting up conv1/7x7_s2
I0403 04:48:03.467758  8068 net.cpp:148] Top shape: 24 64 112 112 (19267584)
I0403 04:48:03.467778  8068 net.cpp:156] Memory required for data: 91521408
I0403 04:48:03.467821  8068 layer_factory.hpp:77] Creating layer conv1/relu_7x7
I0403 04:48:03.467852  8068 net.cpp:91] Creating Layer conv1/relu_7x7
I0403 04:48:03.467875  8068 net.cpp:425] conv1/relu_7x7 <- conv1/7x7_s2
I0403 04:48:03.467898  8068 net.cpp:386] conv1/relu_7x7 -> conv1/7x7_s2 (in-place)
I0403 04:48:03.467926  8068 net.cpp:141] Setting up conv1/relu_7x7
I0403 04:48:03.467948  8068 net.cpp:148] Top shape: 24 64 112 112 (19267584)
I0403 04:48:03.467967  8068 net.cpp:156] Memory required for data: 168591744
I0403 04:48:03.467990  8068 layer_factory.hpp:77] Creating layer pool1/3x3_s2
I0403 04:48:03.468016  8068 net.cpp:91] Creating Layer pool1/3x3_s2
I0403 04:48:03.468039  8068 net.cpp:425] pool1/3x3_s2 <- conv1/7x7_s2
I0403 04:48:03.468061  8068 net.cpp:399] pool1/3x3_s2 -> pool1/3x3_s2
I0403 04:48:03.468142  8068 net.cpp:141] Setting up pool1/3x3_s2
I0403 04:48:03.468171  8068 net.cpp:148] Top shape: 24 64 56 56 (4816896)
I0403 04:48:03.468190  8068 net.cpp:156] Memory required for data: 187859328
I0403 04:48:03.468210  8068 layer_factory.hpp:77] Creating layer pool1/norm1
I0403 04:48:03.468235  8068 net.cpp:91] Creating Layer pool1/norm1
I0403 04:48:03.468256  8068 net.cpp:425] pool1/norm1 <- pool1/3x3_s2
I0403 04:48:03.468278  8068 net.cpp:399] pool1/norm1 -> pool1/norm1
I0403 04:48:03.468343  8068 net.cpp:141] Setting up pool1/norm1
I0403 04:48:03.468370  8068 net.cpp:148] Top shape: 24 64 56 56 (4816896)
I0403 04:48:03.468389  8068 net.cpp:156] Memory required for data: 207126912
I0403 04:48:03.468407  8068 layer_factory.hpp:77] Creating layer conv2/3x3_reduce
I0403 04:48:03.468436  8068 net.cpp:91] Creating Layer conv2/3x3_reduce
I0403 04:48:03.468456  8068 net.cpp:425] conv2/3x3_reduce <- pool1/norm1
I0403 04:48:03.468480  8068 net.cpp:399] conv2/3x3_reduce -> conv2/3x3_reduce
I0403 04:48:03.471622  8068 net.cpp:141] Setting up conv2/3x3_reduce
I0403 04:48:03.471671  8068 net.cpp:148] Top shape: 24 64 56 56 (4816896)
I0403 04:48:03.471693  8068 net.cpp:156] Memory required for data: 226394496
I0403 04:48:03.471720  8068 layer_factory.hpp:77] Creating layer conv2/relu_3x3_reduce
I0403 04:48:03.471746  8068 net.cpp:91] Creating Layer conv2/relu_3x3_reduce
I0403 04:48:03.471767  8068 net.cpp:425] conv2/relu_3x3_reduce <- conv2/3x3_reduce
I0403 04:48:03.471791  8068 net.cpp:386] conv2/relu_3x3_reduce -> conv2/3x3_reduce (in-place)
I0403 04:48:03.471817  8068 net.cpp:141] Setting up conv2/relu_3x3_reduce
I0403 04:48:03.471838  8068 net.cpp:148] Top shape: 24 64 56 56 (4816896)
I0403 04:48:03.471858  8068 net.cpp:156] Memory required for data: 245662080
I0403 04:48:03.471876  8068 layer_factory.hpp:77] Creating layer conv2/3x3
I0403 04:48:03.471905  8068 net.cpp:91] Creating Layer conv2/3x3
I0403 04:48:03.471927  8068 net.cpp:425] conv2/3x3 <- conv2/3x3_reduce
I0403 04:48:03.471972  8068 net.cpp:399] conv2/3x3 -> conv2/3x3
I0403 04:48:03.473422  8072 blocking_queue.cpp:50] Waiting for data
I0403 04:48:03.473606  8068 net.cpp:141] Setting up conv2/3x3
I0403 04:48:03.473644  8068 net.cpp:148] Top shape: 24 192 56 56 (14450688)
I0403 04:48:03.473664  8068 net.cpp:156] Memory required for data: 303464832
I0403 04:48:03.473690  8068 layer_factory.hpp:77] Creating layer conv2/relu_3x3
I0403 04:48:03.473713  8068 net.cpp:91] Creating Layer conv2/relu_3x3
I0403 04:48:03.473734  8068 net.cpp:425] conv2/relu_3x3 <- conv2/3x3
I0403 04:48:03.473757  8068 net.cpp:386] conv2/relu_3x3 -> conv2/3x3 (in-place)
I0403 04:48:03.473783  8068 net.cpp:141] Setting up conv2/relu_3x3
I0403 04:48:03.473805  8068 net.cpp:148] Top shape: 24 192 56 56 (14450688)
I0403 04:48:03.473822  8068 net.cpp:156] Memory required for data: 361267584
I0403 04:48:03.473841  8068 layer_factory.hpp:77] Creating layer conv2/norm2
I0403 04:48:03.473865  8068 net.cpp:91] Creating Layer conv2/norm2
I0403 04:48:03.473886  8068 net.cpp:425] conv2/norm2 <- conv2/3x3
I0403 04:48:03.473907  8068 net.cpp:399] conv2/norm2 -> conv2/norm2
I0403 04:48:03.473965  8068 net.cpp:141] Setting up conv2/norm2
I0403 04:48:03.473999  8068 net.cpp:148] Top shape: 24 192 56 56 (14450688)
I0403 04:48:03.474020  8068 net.cpp:156] Memory required for data: 419070336
I0403 04:48:03.474037  8068 layer_factory.hpp:77] Creating layer pool2/3x3_s2
I0403 04:48:03.474061  8068 net.cpp:91] Creating Layer pool2/3x3_s2
I0403 04:48:03.474081  8068 net.cpp:425] pool2/3x3_s2 <- conv2/norm2
I0403 04:48:03.474103  8068 net.cpp:399] pool2/3x3_s2 -> pool2/3x3_s2
I0403 04:48:03.474159  8068 net.cpp:141] Setting up pool2/3x3_s2
I0403 04:48:03.474186  8068 net.cpp:148] Top shape: 24 192 28 28 (3612672)
I0403 04:48:03.474206  8068 net.cpp:156] Memory required for data: 433521024
I0403 04:48:03.474225  8068 layer_factory.hpp:77] Creating layer pool2/3x3_s2_pool2/3x3_s2_0_split
I0403 04:48:03.474248  8068 net.cpp:91] Creating Layer pool2/3x3_s2_pool2/3x3_s2_0_split
I0403 04:48:03.474268  8068 net.cpp:425] pool2/3x3_s2_pool2/3x3_s2_0_split <- pool2/3x3_s2
I0403 04:48:03.474292  8068 net.cpp:399] pool2/3x3_s2_pool2/3x3_s2_0_split -> pool2/3x3_s2_pool2/3x3_s2_0_split_0
I0403 04:48:03.474316  8068 net.cpp:399] pool2/3x3_s2_pool2/3x3_s2_0_split -> pool2/3x3_s2_pool2/3x3_s2_0_split_1
I0403 04:48:03.474342  8068 net.cpp:399] pool2/3x3_s2_pool2/3x3_s2_0_split -> pool2/3x3_s2_pool2/3x3_s2_0_split_2
I0403 04:48:03.474369  8068 net.cpp:399] pool2/3x3_s2_pool2/3x3_s2_0_split -> pool2/3x3_s2_pool2/3x3_s2_0_split_3
I0403 04:48:03.474441  8068 net.cpp:141] Setting up pool2/3x3_s2_pool2/3x3_s2_0_split
I0403 04:48:03.474470  8068 net.cpp:148] Top shape: 24 192 28 28 (3612672)
I0403 04:48:03.474490  8068 net.cpp:148] Top shape: 24 192 28 28 (3612672)
I0403 04:48:03.474509  8068 net.cpp:148] Top shape: 24 192 28 28 (3612672)
I0403 04:48:03.474529  8068 net.cpp:148] Top shape: 24 192 28 28 (3612672)
I0403 04:48:03.474545  8068 net.cpp:156] Memory required for data: 491323776
I0403 04:48:03.474566  8068 layer_factory.hpp:77] Creating layer inception_3a/1x1
I0403 04:48:03.474594  8068 net.cpp:91] Creating Layer inception_3a/1x1
I0403 04:48:03.474617  8068 net.cpp:425] inception_3a/1x1 <- pool2/3x3_s2_pool2/3x3_s2_0_split_0
I0403 04:48:03.474642  8068 net.cpp:399] inception_3a/1x1 -> inception_3a/1x1
I0403 04:48:03.475584  8068 net.cpp:141] Setting up inception_3a/1x1
I0403 04:48:03.475618  8068 net.cpp:148] Top shape: 24 64 28 28 (1204224)
I0403 04:48:03.475637  8068 net.cpp:156] Memory required for data: 496140672
I0403 04:48:03.475661  8068 layer_factory.hpp:77] Creating layer inception_3a/relu_1x1
I0403 04:48:03.475685  8068 net.cpp:91] Creating Layer inception_3a/relu_1x1
I0403 04:48:03.475705  8068 net.cpp:425] inception_3a/relu_1x1 <- inception_3a/1x1
I0403 04:48:03.475728  8068 net.cpp:386] inception_3a/relu_1x1 -> inception_3a/1x1 (in-place)
I0403 04:48:03.475751  8068 net.cpp:141] Setting up inception_3a/relu_1x1
I0403 04:48:03.475774  8068 net.cpp:148] Top shape: 24 64 28 28 (1204224)
I0403 04:48:03.475810  8068 net.cpp:156] Memory required for data: 500957568
I0403 04:48:03.475829  8068 layer_factory.hpp:77] Creating layer inception_3a/3x3_reduce
I0403 04:48:03.475862  8068 net.cpp:91] Creating Layer inception_3a/3x3_reduce
I0403 04:48:03.475885  8068 net.cpp:425] inception_3a/3x3_reduce <- pool2/3x3_s2_pool2/3x3_s2_0_split_1
I0403 04:48:03.475911  8068 net.cpp:399] inception_3a/3x3_reduce -> inception_3a/3x3_reduce
I0403 04:48:03.476899  8068 net.cpp:141] Setting up inception_3a/3x3_reduce
I0403 04:48:03.476936  8068 net.cpp:148] Top shape: 24 96 28 28 (1806336)
I0403 04:48:03.476956  8068 net.cpp:156] Memory required for data: 508182912
I0403 04:48:03.476990  8068 layer_factory.hpp:77] Creating layer inception_3a/relu_3x3_reduce
I0403 04:48:03.477020  8068 net.cpp:91] Creating Layer inception_3a/relu_3x3_reduce
I0403 04:48:03.477042  8068 net.cpp:425] inception_3a/relu_3x3_reduce <- inception_3a/3x3_reduce
I0403 04:48:03.477066  8068 net.cpp:386] inception_3a/relu_3x3_reduce -> inception_3a/3x3_reduce (in-place)
I0403 04:48:03.477090  8068 net.cpp:141] Setting up inception_3a/relu_3x3_reduce
I0403 04:48:03.477113  8068 net.cpp:148] Top shape: 24 96 28 28 (1806336)
I0403 04:48:03.477131  8068 net.cpp:156] Memory required for data: 515408256
I0403 04:48:03.477149  8068 layer_factory.hpp:77] Creating layer inception_3a/3x3
I0403 04:48:03.477179  8068 net.cpp:91] Creating Layer inception_3a/3x3
I0403 04:48:03.477202  8068 net.cpp:425] inception_3a/3x3 <- inception_3a/3x3_reduce
I0403 04:48:03.477228  8068 net.cpp:399] inception_3a/3x3 -> inception_3a/3x3
I0403 04:48:03.478209  8068 net.cpp:141] Setting up inception_3a/3x3
I0403 04:48:03.478241  8068 net.cpp:148] Top shape: 24 128 28 28 (2408448)
I0403 04:48:03.478260  8068 net.cpp:156] Memory required for data: 525042048
I0403 04:48:03.478282  8068 layer_factory.hpp:77] Creating layer inception_3a/relu_3x3
I0403 04:48:03.478305  8068 net.cpp:91] Creating Layer inception_3a/relu_3x3
I0403 04:48:03.478325  8068 net.cpp:425] inception_3a/relu_3x3 <- inception_3a/3x3
I0403 04:48:03.478350  8068 net.cpp:386] inception_3a/relu_3x3 -> inception_3a/3x3 (in-place)
I0403 04:48:03.478377  8068 net.cpp:141] Setting up inception_3a/relu_3x3
I0403 04:48:03.478400  8068 net.cpp:148] Top shape: 24 128 28 28 (2408448)
I0403 04:48:03.478420  8068 net.cpp:156] Memory required for data: 534675840
I0403 04:48:03.478438  8068 layer_factory.hpp:77] Creating layer inception_3a/5x5_reduce
I0403 04:48:03.478467  8068 net.cpp:91] Creating Layer inception_3a/5x5_reduce
I0403 04:48:03.478489  8068 net.cpp:425] inception_3a/5x5_reduce <- pool2/3x3_s2_pool2/3x3_s2_0_split_2
I0403 04:48:03.478515  8068 net.cpp:399] inception_3a/5x5_reduce -> inception_3a/5x5_reduce
I0403 04:48:03.478785  8068 net.cpp:141] Setting up inception_3a/5x5_reduce
I0403 04:48:03.478819  8068 net.cpp:148] Top shape: 24 16 28 28 (301056)
I0403 04:48:03.478840  8068 net.cpp:156] Memory required for data: 535880064
I0403 04:48:03.478864  8068 layer_factory.hpp:77] Creating layer inception_3a/relu_5x5_reduce
I0403 04:48:03.478888  8068 net.cpp:91] Creating Layer inception_3a/relu_5x5_reduce
I0403 04:48:03.478909  8068 net.cpp:425] inception_3a/relu_5x5_reduce <- inception_3a/5x5_reduce
I0403 04:48:03.478930  8068 net.cpp:386] inception_3a/relu_5x5_reduce -> inception_3a/5x5_reduce (in-place)
I0403 04:48:03.478953  8068 net.cpp:141] Setting up inception_3a/relu_5x5_reduce
I0403 04:48:03.478974  8068 net.cpp:148] Top shape: 24 16 28 28 (301056)
I0403 04:48:03.479019  8068 net.cpp:156] Memory required for data: 537084288
I0403 04:48:03.479058  8068 layer_factory.hpp:77] Creating layer inception_3a/5x5
I0403 04:48:03.479109  8068 net.cpp:91] Creating Layer inception_3a/5x5
I0403 04:48:03.479131  8068 net.cpp:425] inception_3a/5x5 <- inception_3a/5x5_reduce
I0403 04:48:03.479157  8068 net.cpp:399] inception_3a/5x5 -> inception_3a/5x5
I0403 04:48:03.479495  8068 net.cpp:141] Setting up inception_3a/5x5
I0403 04:48:03.479526  8068 net.cpp:148] Top shape: 24 32 28 28 (602112)
I0403 04:48:03.479562  8068 net.cpp:156] Memory required for data: 539492736
I0403 04:48:03.479586  8068 layer_factory.hpp:77] Creating layer inception_3a/relu_5x5
I0403 04:48:03.479614  8068 net.cpp:91] Creating Layer inception_3a/relu_5x5
I0403 04:48:03.479636  8068 net.cpp:425] inception_3a/relu_5x5 <- inception_3a/5x5
I0403 04:48:03.479658  8068 net.cpp:386] inception_3a/relu_5x5 -> inception_3a/5x5 (in-place)
I0403 04:48:03.479681  8068 net.cpp:141] Setting up inception_3a/relu_5x5
I0403 04:48:03.479702  8068 net.cpp:148] Top shape: 24 32 28 28 (602112)
I0403 04:48:03.479720  8068 net.cpp:156] Memory required for data: 541901184
I0403 04:48:03.479738  8068 layer_factory.hpp:77] Creating layer inception_3a/pool
I0403 04:48:03.479763  8068 net.cpp:91] Creating Layer inception_3a/pool
I0403 04:48:03.479786  8068 net.cpp:425] inception_3a/pool <- pool2/3x3_s2_pool2/3x3_s2_0_split_3
I0403 04:48:03.479809  8068 net.cpp:399] inception_3a/pool -> inception_3a/pool
I0403 04:48:03.479871  8068 net.cpp:141] Setting up inception_3a/pool
I0403 04:48:03.479898  8068 net.cpp:148] Top shape: 24 192 28 28 (3612672)
I0403 04:48:03.479918  8068 net.cpp:156] Memory required for data: 556351872
I0403 04:48:03.479936  8068 layer_factory.hpp:77] Creating layer inception_3a/pool_proj
I0403 04:48:03.479965  8068 net.cpp:91] Creating Layer inception_3a/pool_proj
I0403 04:48:03.479992  8068 net.cpp:425] inception_3a/pool_proj <- inception_3a/pool
I0403 04:48:03.480018  8068 net.cpp:399] inception_3a/pool_proj -> inception_3a/pool_proj
I0403 04:48:03.480298  8068 net.cpp:141] Setting up inception_3a/pool_proj
I0403 04:48:03.480327  8068 net.cpp:148] Top shape: 24 32 28 28 (602112)
I0403 04:48:03.480346  8068 net.cpp:156] Memory required for data: 558760320
I0403 04:48:03.480376  8068 layer_factory.hpp:77] Creating layer inception_3a/relu_pool_proj
I0403 04:48:03.480399  8068 net.cpp:91] Creating Layer inception_3a/relu_pool_proj
I0403 04:48:03.480422  8068 net.cpp:425] inception_3a/relu_pool_proj <- inception_3a/pool_proj
I0403 04:48:03.480443  8068 net.cpp:386] inception_3a/relu_pool_proj -> inception_3a/pool_proj (in-place)
I0403 04:48:03.480468  8068 net.cpp:141] Setting up inception_3a/relu_pool_proj
I0403 04:48:03.480491  8068 net.cpp:148] Top shape: 24 32 28 28 (602112)
I0403 04:48:03.480509  8068 net.cpp:156] Memory required for data: 561168768
I0403 04:48:03.480528  8068 layer_factory.hpp:77] Creating layer inception_3a/output
I0403 04:48:03.480551  8068 net.cpp:91] Creating Layer inception_3a/output
I0403 04:48:03.480574  8068 net.cpp:425] inception_3a/output <- inception_3a/1x1
I0403 04:48:03.480595  8068 net.cpp:425] inception_3a/output <- inception_3a/3x3
I0403 04:48:03.480615  8068 net.cpp:425] inception_3a/output <- inception_3a/5x5
I0403 04:48:03.480636  8068 net.cpp:425] inception_3a/output <- inception_3a/pool_proj
I0403 04:48:03.480659  8068 net.cpp:399] inception_3a/output -> inception_3a/output
I0403 04:48:03.480742  8068 net.cpp:141] Setting up inception_3a/output
I0403 04:48:03.480777  8068 net.cpp:148] Top shape: 24 256 28 28 (4816896)
I0403 04:48:03.480799  8068 net.cpp:156] Memory required for data: 580436352
I0403 04:48:03.480818  8068 layer_factory.hpp:77] Creating layer inception_3a/output_inception_3a/output_0_split
I0403 04:48:03.480841  8068 net.cpp:91] Creating Layer inception_3a/output_inception_3a/output_0_split
I0403 04:48:03.480862  8068 net.cpp:425] inception_3a/output_inception_3a/output_0_split <- inception_3a/output
I0403 04:48:03.480887  8068 net.cpp:399] inception_3a/output_inception_3a/output_0_split -> inception_3a/output_inception_3a/output_0_split_0
I0403 04:48:03.480916  8068 net.cpp:399] inception_3a/output_inception_3a/output_0_split -> inception_3a/output_inception_3a/output_0_split_1
I0403 04:48:03.480944  8068 net.cpp:399] inception_3a/output_inception_3a/output_0_split -> inception_3a/output_inception_3a/output_0_split_2
I0403 04:48:03.480969  8068 net.cpp:399] inception_3a/output_inception_3a/output_0_split -> inception_3a/output_inception_3a/output_0_split_3
I0403 04:48:03.481053  8068 net.cpp:141] Setting up inception_3a/output_inception_3a/output_0_split
I0403 04:48:03.481096  8068 net.cpp:148] Top shape: 24 256 28 28 (4816896)
I0403 04:48:03.481122  8068 net.cpp:148] Top shape: 24 256 28 28 (4816896)
I0403 04:48:03.481142  8068 net.cpp:148] Top shape: 24 256 28 28 (4816896)
I0403 04:48:03.481161  8068 net.cpp:148] Top shape: 24 256 28 28 (4816896)
I0403 04:48:03.481180  8068 net.cpp:156] Memory required for data: 657506688
I0403 04:48:03.481199  8068 layer_factory.hpp:77] Creating layer inception_3b/1x1
I0403 04:48:03.481225  8068 net.cpp:91] Creating Layer inception_3b/1x1
I0403 04:48:03.481246  8068 net.cpp:425] inception_3b/1x1 <- inception_3a/output_inception_3a/output_0_split_0
I0403 04:48:03.481274  8068 net.cpp:399] inception_3b/1x1 -> inception_3b/1x1
I0403 04:48:03.481734  8068 net.cpp:141] Setting up inception_3b/1x1
I0403 04:48:03.481766  8068 net.cpp:148] Top shape: 24 128 28 28 (2408448)
I0403 04:48:03.481784  8068 net.cpp:156] Memory required for data: 667140480
I0403 04:48:03.481806  8068 layer_factory.hpp:77] Creating layer inception_3b/relu_1x1
I0403 04:48:03.481829  8068 net.cpp:91] Creating Layer inception_3b/relu_1x1
I0403 04:48:03.481850  8068 net.cpp:425] inception_3b/relu_1x1 <- inception_3b/1x1
I0403 04:48:03.481873  8068 net.cpp:386] inception_3b/relu_1x1 -> inception_3b/1x1 (in-place)
I0403 04:48:03.481896  8068 net.cpp:141] Setting up inception_3b/relu_1x1
I0403 04:48:03.481917  8068 net.cpp:148] Top shape: 24 128 28 28 (2408448)
I0403 04:48:03.481935  8068 net.cpp:156] Memory required for data: 676774272
I0403 04:48:03.481952  8068 layer_factory.hpp:77] Creating layer inception_3b/3x3_reduce
I0403 04:48:03.481982  8068 net.cpp:91] Creating Layer inception_3b/3x3_reduce
I0403 04:48:03.482010  8068 net.cpp:425] inception_3b/3x3_reduce <- inception_3a/output_inception_3a/output_0_split_1
I0403 04:48:03.482038  8068 net.cpp:399] inception_3b/3x3_reduce -> inception_3b/3x3_reduce
I0403 04:48:03.482499  8068 net.cpp:141] Setting up inception_3b/3x3_reduce
I0403 04:48:03.482530  8068 net.cpp:148] Top shape: 24 128 28 28 (2408448)
I0403 04:48:03.482552  8068 net.cpp:156] Memory required for data: 686408064
I0403 04:48:03.482574  8068 layer_factory.hpp:77] Creating layer inception_3b/relu_3x3_reduce
I0403 04:48:03.482597  8068 net.cpp:91] Creating Layer inception_3b/relu_3x3_reduce
I0403 04:48:03.482620  8068 net.cpp:425] inception_3b/relu_3x3_reduce <- inception_3b/3x3_reduce
I0403 04:48:03.482645  8068 net.cpp:386] inception_3b/relu_3x3_reduce -> inception_3b/3x3_reduce (in-place)
I0403 04:48:03.482669  8068 net.cpp:141] Setting up inception_3b/relu_3x3_reduce
I0403 04:48:03.482691  8068 net.cpp:148] Top shape: 24 128 28 28 (2408448)
I0403 04:48:03.482708  8068 net.cpp:156] Memory required for data: 696041856
I0403 04:48:03.482727  8068 layer_factory.hpp:77] Creating layer inception_3b/3x3
I0403 04:48:03.482758  8068 net.cpp:91] Creating Layer inception_3b/3x3
I0403 04:48:03.482781  8068 net.cpp:425] inception_3b/3x3 <- inception_3b/3x3_reduce
I0403 04:48:03.482808  8068 net.cpp:399] inception_3b/3x3 -> inception_3b/3x3
I0403 04:48:03.485173  8068 net.cpp:141] Setting up inception_3b/3x3
I0403 04:48:03.485210  8068 net.cpp:148] Top shape: 24 192 28 28 (3612672)
I0403 04:48:03.485230  8068 net.cpp:156] Memory required for data: 710492544
I0403 04:48:03.485254  8068 layer_factory.hpp:77] Creating layer inception_3b/relu_3x3
I0403 04:48:03.485280  8068 net.cpp:91] Creating Layer inception_3b/relu_3x3
I0403 04:48:03.485301  8068 net.cpp:425] inception_3b/relu_3x3 <- inception_3b/3x3
I0403 04:48:03.485324  8068 net.cpp:386] inception_3b/relu_3x3 -> inception_3b/3x3 (in-place)
I0403 04:48:03.485349  8068 net.cpp:141] Setting up inception_3b/relu_3x3
I0403 04:48:03.485370  8068 net.cpp:148] Top shape: 24 192 28 28 (3612672)
I0403 04:48:03.485389  8068 net.cpp:156] Memory required for data: 724943232
I0403 04:48:03.485407  8068 layer_factory.hpp:77] Creating layer inception_3b/5x5_reduce
I0403 04:48:03.485436  8068 net.cpp:91] Creating Layer inception_3b/5x5_reduce
I0403 04:48:03.485460  8068 net.cpp:425] inception_3b/5x5_reduce <- inception_3a/output_inception_3a/output_0_split_2
I0403 04:48:03.485508  8068 net.cpp:399] inception_3b/5x5_reduce -> inception_3b/5x5_reduce
I0403 04:48:03.485816  8068 net.cpp:141] Setting up inception_3b/5x5_reduce
I0403 04:48:03.485848  8068 net.cpp:148] Top shape: 24 32 28 28 (602112)
I0403 04:48:03.485868  8068 net.cpp:156] Memory required for data: 727351680
I0403 04:48:03.485890  8068 layer_factory.hpp:77] Creating layer inception_3b/relu_5x5_reduce
I0403 04:48:03.485913  8068 net.cpp:91] Creating Layer inception_3b/relu_5x5_reduce
I0403 04:48:03.485932  8068 net.cpp:425] inception_3b/relu_5x5_reduce <- inception_3b/5x5_reduce
I0403 04:48:03.485955  8068 net.cpp:386] inception_3b/relu_5x5_reduce -> inception_3b/5x5_reduce (in-place)
I0403 04:48:03.485980  8068 net.cpp:141] Setting up inception_3b/relu_5x5_reduce
I0403 04:48:03.486007  8068 net.cpp:148] Top shape: 24 32 28 28 (602112)
I0403 04:48:03.486027  8068 net.cpp:156] Memory required for data: 729760128
I0403 04:48:03.486044  8068 layer_factory.hpp:77] Creating layer inception_3b/5x5
I0403 04:48:03.486073  8068 net.cpp:91] Creating Layer inception_3b/5x5
I0403 04:48:03.486096  8068 net.cpp:425] inception_3b/5x5 <- inception_3b/5x5_reduce
I0403 04:48:03.486124  8068 net.cpp:399] inception_3b/5x5 -> inception_3b/5x5
I0403 04:48:03.487530  8068 net.cpp:141] Setting up inception_3b/5x5
I0403 04:48:03.487566  8068 net.cpp:148] Top shape: 24 96 28 28 (1806336)
I0403 04:48:03.487586  8068 net.cpp:156] Memory required for data: 736985472
I0403 04:48:03.487608  8068 layer_factory.hpp:77] Creating layer inception_3b/relu_5x5
I0403 04:48:03.487632  8068 net.cpp:91] Creating Layer inception_3b/relu_5x5
I0403 04:48:03.487653  8068 net.cpp:425] inception_3b/relu_5x5 <- inception_3b/5x5
I0403 04:48:03.487679  8068 net.cpp:386] inception_3b/relu_5x5 -> inception_3b/5x5 (in-place)
I0403 04:48:03.487704  8068 net.cpp:141] Setting up inception_3b/relu_5x5
I0403 04:48:03.487726  8068 net.cpp:148] Top shape: 24 96 28 28 (1806336)
I0403 04:48:03.487743  8068 net.cpp:156] Memory required for data: 744210816
I0403 04:48:03.487761  8068 layer_factory.hpp:77] Creating layer inception_3b/pool
I0403 04:48:03.487783  8068 net.cpp:91] Creating Layer inception_3b/pool
I0403 04:48:03.487803  8068 net.cpp:425] inception_3b/pool <- inception_3a/output_inception_3a/output_0_split_3
I0403 04:48:03.487826  8068 net.cpp:399] inception_3b/pool -> inception_3b/pool
I0403 04:48:03.487890  8068 net.cpp:141] Setting up inception_3b/pool
I0403 04:48:03.487916  8068 net.cpp:148] Top shape: 24 256 28 28 (4816896)
I0403 04:48:03.487936  8068 net.cpp:156] Memory required for data: 763478400
I0403 04:48:03.487953  8068 layer_factory.hpp:77] Creating layer inception_3b/pool_proj
I0403 04:48:03.487983  8068 net.cpp:91] Creating Layer inception_3b/pool_proj
I0403 04:48:03.488013  8068 net.cpp:425] inception_3b/pool_proj <- inception_3b/pool
I0403 04:48:03.488041  8068 net.cpp:399] inception_3b/pool_proj -> inception_3b/pool_proj
I0403 04:48:03.488401  8068 net.cpp:141] Setting up inception_3b/pool_proj
I0403 04:48:03.488432  8068 net.cpp:148] Top shape: 24 64 28 28 (1204224)
I0403 04:48:03.488451  8068 net.cpp:156] Memory required for data: 768295296
I0403 04:48:03.488476  8068 layer_factory.hpp:77] Creating layer inception_3b/relu_pool_proj
I0403 04:48:03.488499  8068 net.cpp:91] Creating Layer inception_3b/relu_pool_proj
I0403 04:48:03.488520  8068 net.cpp:425] inception_3b/relu_pool_proj <- inception_3b/pool_proj
I0403 04:48:03.488544  8068 net.cpp:386] inception_3b/relu_pool_proj -> inception_3b/pool_proj (in-place)
I0403 04:48:03.488569  8068 net.cpp:141] Setting up inception_3b/relu_pool_proj
I0403 04:48:03.488590  8068 net.cpp:148] Top shape: 24 64 28 28 (1204224)
I0403 04:48:03.488608  8068 net.cpp:156] Memory required for data: 773112192
I0403 04:48:03.488626  8068 layer_factory.hpp:77] Creating layer inception_3b/output
I0403 04:48:03.488652  8068 net.cpp:91] Creating Layer inception_3b/output
I0403 04:48:03.488673  8068 net.cpp:425] inception_3b/output <- inception_3b/1x1
I0403 04:48:03.488711  8068 net.cpp:425] inception_3b/output <- inception_3b/3x3
I0403 04:48:03.488732  8068 net.cpp:425] inception_3b/output <- inception_3b/5x5
I0403 04:48:03.488754  8068 net.cpp:425] inception_3b/output <- inception_3b/pool_proj
I0403 04:48:03.488775  8068 net.cpp:399] inception_3b/output -> inception_3b/output
I0403 04:48:03.488826  8068 net.cpp:141] Setting up inception_3b/output
I0403 04:48:03.488853  8068 net.cpp:148] Top shape: 24 480 28 28 (9031680)
I0403 04:48:03.488872  8068 net.cpp:156] Memory required for data: 809238912
I0403 04:48:03.488890  8068 layer_factory.hpp:77] Creating layer pool3/3x3_s2
I0403 04:48:03.488912  8068 net.cpp:91] Creating Layer pool3/3x3_s2
I0403 04:48:03.488934  8068 net.cpp:425] pool3/3x3_s2 <- inception_3b/output
I0403 04:48:03.488956  8068 net.cpp:399] pool3/3x3_s2 -> pool3/3x3_s2
I0403 04:48:03.489042  8068 net.cpp:141] Setting up pool3/3x3_s2
I0403 04:48:03.489073  8068 net.cpp:148] Top shape: 24 480 14 14 (2257920)
I0403 04:48:03.489092  8068 net.cpp:156] Memory required for data: 818270592
I0403 04:48:03.489110  8068 layer_factory.hpp:77] Creating layer pool3/3x3_s2_pool3/3x3_s2_0_split
I0403 04:48:03.489135  8068 net.cpp:91] Creating Layer pool3/3x3_s2_pool3/3x3_s2_0_split
I0403 04:48:03.489157  8068 net.cpp:425] pool3/3x3_s2_pool3/3x3_s2_0_split <- pool3/3x3_s2
I0403 04:48:03.489181  8068 net.cpp:399] pool3/3x3_s2_pool3/3x3_s2_0_split -> pool3/3x3_s2_pool3/3x3_s2_0_split_0
I0403 04:48:03.489207  8068 net.cpp:399] pool3/3x3_s2_pool3/3x3_s2_0_split -> pool3/3x3_s2_pool3/3x3_s2_0_split_1
I0403 04:48:03.489233  8068 net.cpp:399] pool3/3x3_s2_pool3/3x3_s2_0_split -> pool3/3x3_s2_pool3/3x3_s2_0_split_2
I0403 04:48:03.489261  8068 net.cpp:399] pool3/3x3_s2_pool3/3x3_s2_0_split -> pool3/3x3_s2_pool3/3x3_s2_0_split_3
I0403 04:48:03.489346  8068 net.cpp:141] Setting up pool3/3x3_s2_pool3/3x3_s2_0_split
I0403 04:48:03.489375  8068 net.cpp:148] Top shape: 24 480 14 14 (2257920)
I0403 04:48:03.489397  8068 net.cpp:148] Top shape: 24 480 14 14 (2257920)
I0403 04:48:03.489416  8068 net.cpp:148] Top shape: 24 480 14 14 (2257920)
I0403 04:48:03.489435  8068 net.cpp:148] Top shape: 24 480 14 14 (2257920)
I0403 04:48:03.489454  8068 net.cpp:156] Memory required for data: 854397312
I0403 04:48:03.489472  8068 layer_factory.hpp:77] Creating layer inception_4a/1x1
I0403 04:48:03.489501  8068 net.cpp:91] Creating Layer inception_4a/1x1
I0403 04:48:03.489523  8068 net.cpp:425] inception_4a/1x1 <- pool3/3x3_s2_pool3/3x3_s2_0_split_0
I0403 04:48:03.489548  8068 net.cpp:399] inception_4a/1x1 -> inception_4a/1x1
I0403 04:48:03.490403  8068 net.cpp:141] Setting up inception_4a/1x1
I0403 04:48:03.490437  8068 net.cpp:148] Top shape: 24 192 14 14 (903168)
I0403 04:48:03.490458  8068 net.cpp:156] Memory required for data: 858009984
I0403 04:48:03.490480  8068 layer_factory.hpp:77] Creating layer inception_4a/relu_1x1
I0403 04:48:03.490502  8068 net.cpp:91] Creating Layer inception_4a/relu_1x1
I0403 04:48:03.490522  8068 net.cpp:425] inception_4a/relu_1x1 <- inception_4a/1x1
I0403 04:48:03.490545  8068 net.cpp:386] inception_4a/relu_1x1 -> inception_4a/1x1 (in-place)
I0403 04:48:03.490566  8068 net.cpp:141] Setting up inception_4a/relu_1x1
I0403 04:48:03.490588  8068 net.cpp:148] Top shape: 24 192 14 14 (903168)
I0403 04:48:03.490607  8068 net.cpp:156] Memory required for data: 861622656
I0403 04:48:03.490625  8068 layer_factory.hpp:77] Creating layer inception_4a/3x3_reduce
I0403 04:48:03.490654  8068 net.cpp:91] Creating Layer inception_4a/3x3_reduce
I0403 04:48:03.490677  8068 net.cpp:425] inception_4a/3x3_reduce <- pool3/3x3_s2_pool3/3x3_s2_0_split_1
I0403 04:48:03.490705  8068 net.cpp:399] inception_4a/3x3_reduce -> inception_4a/3x3_reduce
I0403 04:48:03.491276  8068 net.cpp:141] Setting up inception_4a/3x3_reduce
I0403 04:48:03.491308  8068 net.cpp:148] Top shape: 24 96 14 14 (451584)
I0403 04:48:03.491328  8068 net.cpp:156] Memory required for data: 863428992
I0403 04:48:03.491360  8068 layer_factory.hpp:77] Creating layer inception_4a/relu_3x3_reduce
I0403 04:48:03.491400  8068 net.cpp:91] Creating Layer inception_4a/relu_3x3_reduce
I0403 04:48:03.491423  8068 net.cpp:425] inception_4a/relu_3x3_reduce <- inception_4a/3x3_reduce
I0403 04:48:03.491446  8068 net.cpp:386] inception_4a/relu_3x3_reduce -> inception_4a/3x3_reduce (in-place)
I0403 04:48:03.491471  8068 net.cpp:141] Setting up inception_4a/relu_3x3_reduce
I0403 04:48:03.491493  8068 net.cpp:148] Top shape: 24 96 14 14 (451584)
I0403 04:48:03.491511  8068 net.cpp:156] Memory required for data: 865235328
I0403 04:48:03.491531  8068 layer_factory.hpp:77] Creating layer inception_4a/3x3
I0403 04:48:03.491560  8068 net.cpp:91] Creating Layer inception_4a/3x3
I0403 04:48:03.491585  8068 net.cpp:425] inception_4a/3x3 <- inception_4a/3x3_reduce
I0403 04:48:03.491611  8068 net.cpp:399] inception_4a/3x3 -> inception_4a/3x3
I0403 04:48:03.493705  8068 net.cpp:141] Setting up inception_4a/3x3
I0403 04:48:03.493739  8068 net.cpp:148] Top shape: 24 208 14 14 (978432)
I0403 04:48:03.493758  8068 net.cpp:156] Memory required for data: 869149056
I0403 04:48:03.493782  8068 layer_factory.hpp:77] Creating layer inception_4a/relu_3x3
I0403 04:48:03.493808  8068 net.cpp:91] Creating Layer inception_4a/relu_3x3
I0403 04:48:03.493829  8068 net.cpp:425] inception_4a/relu_3x3 <- inception_4a/3x3
I0403 04:48:03.493851  8068 net.cpp:386] inception_4a/relu_3x3 -> inception_4a/3x3 (in-place)
I0403 04:48:03.493876  8068 net.cpp:141] Setting up inception_4a/relu_3x3
I0403 04:48:03.493898  8068 net.cpp:148] Top shape: 24 208 14 14 (978432)
I0403 04:48:03.493917  8068 net.cpp:156] Memory required for data: 873062784
I0403 04:48:03.493935  8068 layer_factory.hpp:77] Creating layer inception_4a/5x5_reduce
I0403 04:48:03.493965  8068 net.cpp:91] Creating Layer inception_4a/5x5_reduce
I0403 04:48:03.493993  8068 net.cpp:425] inception_4a/5x5_reduce <- pool3/3x3_s2_pool3/3x3_s2_0_split_2
I0403 04:48:03.494029  8068 net.cpp:399] inception_4a/5x5_reduce -> inception_4a/5x5_reduce
I0403 04:48:03.494341  8068 net.cpp:141] Setting up inception_4a/5x5_reduce
I0403 04:48:03.494372  8068 net.cpp:148] Top shape: 24 16 14 14 (75264)
I0403 04:48:03.494391  8068 net.cpp:156] Memory required for data: 873363840
I0403 04:48:03.494413  8068 layer_factory.hpp:77] Creating layer inception_4a/relu_5x5_reduce
I0403 04:48:03.494437  8068 net.cpp:91] Creating Layer inception_4a/relu_5x5_reduce
I0403 04:48:03.494458  8068 net.cpp:425] inception_4a/relu_5x5_reduce <- inception_4a/5x5_reduce
I0403 04:48:03.494483  8068 net.cpp:386] inception_4a/relu_5x5_reduce -> inception_4a/5x5_reduce (in-place)
I0403 04:48:03.494509  8068 net.cpp:141] Setting up inception_4a/relu_5x5_reduce
I0403 04:48:03.494532  8068 net.cpp:148] Top shape: 24 16 14 14 (75264)
I0403 04:48:03.494549  8068 net.cpp:156] Memory required for data: 873664896
I0403 04:48:03.494567  8068 layer_factory.hpp:77] Creating layer inception_4a/5x5
I0403 04:48:03.494597  8068 net.cpp:91] Creating Layer inception_4a/5x5
I0403 04:48:03.494621  8068 net.cpp:425] inception_4a/5x5 <- inception_4a/5x5_reduce
I0403 04:48:03.494644  8068 net.cpp:399] inception_4a/5x5 -> inception_4a/5x5
I0403 04:48:03.495029  8068 net.cpp:141] Setting up inception_4a/5x5
I0403 04:48:03.495061  8068 net.cpp:148] Top shape: 24 48 14 14 (225792)
I0403 04:48:03.495080  8068 net.cpp:156] Memory required for data: 874568064
I0403 04:48:03.495103  8068 layer_factory.hpp:77] Creating layer inception_4a/relu_5x5
I0403 04:48:03.495129  8068 net.cpp:91] Creating Layer inception_4a/relu_5x5
I0403 04:48:03.495152  8068 net.cpp:425] inception_4a/relu_5x5 <- inception_4a/5x5
I0403 04:48:03.495174  8068 net.cpp:386] inception_4a/relu_5x5 -> inception_4a/5x5 (in-place)
I0403 04:48:03.495198  8068 net.cpp:141] Setting up inception_4a/relu_5x5
I0403 04:48:03.495220  8068 net.cpp:148] Top shape: 24 48 14 14 (225792)
I0403 04:48:03.495239  8068 net.cpp:156] Memory required for data: 875471232
I0403 04:48:03.495259  8068 layer_factory.hpp:77] Creating layer inception_4a/pool
I0403 04:48:03.495281  8068 net.cpp:91] Creating Layer inception_4a/pool
I0403 04:48:03.495301  8068 net.cpp:425] inception_4a/pool <- pool3/3x3_s2_pool3/3x3_s2_0_split_3
I0403 04:48:03.495352  8068 net.cpp:399] inception_4a/pool -> inception_4a/pool
I0403 04:48:03.495415  8068 net.cpp:141] Setting up inception_4a/pool
I0403 04:48:03.495445  8068 net.cpp:148] Top shape: 24 480 14 14 (2257920)
I0403 04:48:03.495463  8068 net.cpp:156] Memory required for data: 884502912
I0403 04:48:03.495482  8068 layer_factory.hpp:77] Creating layer inception_4a/pool_proj
I0403 04:48:03.495512  8068 net.cpp:91] Creating Layer inception_4a/pool_proj
I0403 04:48:03.495535  8068 net.cpp:425] inception_4a/pool_proj <- inception_4a/pool
I0403 04:48:03.495563  8068 net.cpp:399] inception_4a/pool_proj -> inception_4a/pool_proj
I0403 04:48:03.496031  8068 net.cpp:141] Setting up inception_4a/pool_proj
I0403 04:48:03.496073  8068 net.cpp:148] Top shape: 24 64 14 14 (301056)
I0403 04:48:03.496091  8068 net.cpp:156] Memory required for data: 885707136
I0403 04:48:03.496114  8068 layer_factory.hpp:77] Creating layer inception_4a/relu_pool_proj
I0403 04:48:03.496139  8068 net.cpp:91] Creating Layer inception_4a/relu_pool_proj
I0403 04:48:03.496158  8068 net.cpp:425] inception_4a/relu_pool_proj <- inception_4a/pool_proj
I0403 04:48:03.496183  8068 net.cpp:386] inception_4a/relu_pool_proj -> inception_4a/pool_proj (in-place)
I0403 04:48:03.496208  8068 net.cpp:141] Setting up inception_4a/relu_pool_proj
I0403 04:48:03.496232  8068 net.cpp:148] Top shape: 24 64 14 14 (301056)
I0403 04:48:03.496251  8068 net.cpp:156] Memory required for data: 886911360
I0403 04:48:03.496268  8068 layer_factory.hpp:77] Creating layer inception_4a/output
I0403 04:48:03.496290  8068 net.cpp:91] Creating Layer inception_4a/output
I0403 04:48:03.496320  8068 net.cpp:425] inception_4a/output <- inception_4a/1x1
I0403 04:48:03.496340  8068 net.cpp:425] inception_4a/output <- inception_4a/3x3
I0403 04:48:03.496361  8068 net.cpp:425] inception_4a/output <- inception_4a/5x5
I0403 04:48:03.496382  8068 net.cpp:425] inception_4a/output <- inception_4a/pool_proj
I0403 04:48:03.496403  8068 net.cpp:399] inception_4a/output -> inception_4a/output
I0403 04:48:03.496451  8068 net.cpp:141] Setting up inception_4a/output
I0403 04:48:03.496479  8068 net.cpp:148] Top shape: 24 512 14 14 (2408448)
I0403 04:48:03.496498  8068 net.cpp:156] Memory required for data: 896545152
I0403 04:48:03.496516  8068 layer_factory.hpp:77] Creating layer inception_4a/output_inception_4a/output_0_split
I0403 04:48:03.496538  8068 net.cpp:91] Creating Layer inception_4a/output_inception_4a/output_0_split
I0403 04:48:03.496558  8068 net.cpp:425] inception_4a/output_inception_4a/output_0_split <- inception_4a/output
I0403 04:48:03.496584  8068 net.cpp:399] inception_4a/output_inception_4a/output_0_split -> inception_4a/output_inception_4a/output_0_split_0
I0403 04:48:03.496610  8068 net.cpp:399] inception_4a/output_inception_4a/output_0_split -> inception_4a/output_inception_4a/output_0_split_1
I0403 04:48:03.496637  8068 net.cpp:399] inception_4a/output_inception_4a/output_0_split -> inception_4a/output_inception_4a/output_0_split_2
I0403 04:48:03.496664  8068 net.cpp:399] inception_4a/output_inception_4a/output_0_split -> inception_4a/output_inception_4a/output_0_split_3
I0403 04:48:03.496688  8068 net.cpp:399] inception_4a/output_inception_4a/output_0_split -> inception_4a/output_inception_4a/output_0_split_4
I0403 04:48:03.496779  8068 net.cpp:141] Setting up inception_4a/output_inception_4a/output_0_split
I0403 04:48:03.496808  8068 net.cpp:148] Top shape: 24 512 14 14 (2408448)
I0403 04:48:03.496827  8068 net.cpp:148] Top shape: 24 512 14 14 (2408448)
I0403 04:48:03.496846  8068 net.cpp:148] Top shape: 24 512 14 14 (2408448)
I0403 04:48:03.496867  8068 net.cpp:148] Top shape: 24 512 14 14 (2408448)
I0403 04:48:03.496886  8068 net.cpp:148] Top shape: 24 512 14 14 (2408448)
I0403 04:48:03.496903  8068 net.cpp:156] Memory required for data: 944714112
I0403 04:48:03.496922  8068 layer_factory.hpp:77] Creating layer loss1/ave_pool
I0403 04:48:03.496947  8068 net.cpp:91] Creating Layer loss1/ave_pool
I0403 04:48:03.496983  8068 net.cpp:425] loss1/ave_pool <- inception_4a/output_inception_4a/output_0_split_0
I0403 04:48:03.497015  8068 net.cpp:399] loss1/ave_pool -> loss1/ave_pool
I0403 04:48:03.497063  8068 net.cpp:141] Setting up loss1/ave_pool
I0403 04:48:03.497092  8068 net.cpp:148] Top shape: 24 512 4 4 (196608)
I0403 04:48:03.497109  8068 net.cpp:156] Memory required for data: 945500544
I0403 04:48:03.497128  8068 layer_factory.hpp:77] Creating layer loss1/conv
I0403 04:48:03.497158  8068 net.cpp:91] Creating Layer loss1/conv
I0403 04:48:03.497181  8068 net.cpp:425] loss1/conv <- loss1/ave_pool
I0403 04:48:03.497207  8068 net.cpp:399] loss1/conv -> loss1/conv
I0403 04:48:03.497884  8068 net.cpp:141] Setting up loss1/conv
I0403 04:48:03.497916  8068 net.cpp:148] Top shape: 24 128 4 4 (49152)
I0403 04:48:03.497937  8068 net.cpp:156] Memory required for data: 945697152
I0403 04:48:03.497959  8068 layer_factory.hpp:77] Creating layer loss1/relu_conv
I0403 04:48:03.497989  8068 net.cpp:91] Creating Layer loss1/relu_conv
I0403 04:48:03.498018  8068 net.cpp:425] loss1/relu_conv <- loss1/conv
I0403 04:48:03.498042  8068 net.cpp:386] loss1/relu_conv -> loss1/conv (in-place)
I0403 04:48:03.498065  8068 net.cpp:141] Setting up loss1/relu_conv
I0403 04:48:03.498087  8068 net.cpp:148] Top shape: 24 128 4 4 (49152)
I0403 04:48:03.498106  8068 net.cpp:156] Memory required for data: 945893760
I0403 04:48:03.498123  8068 layer_factory.hpp:77] Creating layer loss1/fc
I0403 04:48:03.498157  8068 net.cpp:91] Creating Layer loss1/fc
I0403 04:48:03.498178  8068 net.cpp:425] loss1/fc <- loss1/conv
I0403 04:48:03.498203  8068 net.cpp:399] loss1/fc -> loss1/fc
I0403 04:48:03.518074  8068 net.cpp:141] Setting up loss1/fc
I0403 04:48:03.518129  8068 net.cpp:148] Top shape: 24 1024 (24576)
I0403 04:48:03.518151  8068 net.cpp:156] Memory required for data: 945992064
I0403 04:48:03.518174  8068 layer_factory.hpp:77] Creating layer loss1/relu_fc
I0403 04:48:03.518199  8068 net.cpp:91] Creating Layer loss1/relu_fc
I0403 04:48:03.518223  8068 net.cpp:425] loss1/relu_fc <- loss1/fc
I0403 04:48:03.518257  8068 net.cpp:386] loss1/relu_fc -> loss1/fc (in-place)
I0403 04:48:03.518283  8068 net.cpp:141] Setting up loss1/relu_fc
I0403 04:48:03.518306  8068 net.cpp:148] Top shape: 24 1024 (24576)
I0403 04:48:03.518322  8068 net.cpp:156] Memory required for data: 946090368
I0403 04:48:03.518342  8068 layer_factory.hpp:77] Creating layer loss1/drop_fc
I0403 04:48:03.518381  8068 net.cpp:91] Creating Layer loss1/drop_fc
I0403 04:48:03.518404  8068 net.cpp:425] loss1/drop_fc <- loss1/fc
I0403 04:48:03.518426  8068 net.cpp:386] loss1/drop_fc -> loss1/fc (in-place)
I0403 04:48:03.518483  8068 net.cpp:141] Setting up loss1/drop_fc
I0403 04:48:03.518515  8068 net.cpp:148] Top shape: 24 1024 (24576)
I0403 04:48:03.518533  8068 net.cpp:156] Memory required for data: 946188672
I0403 04:48:03.518553  8068 layer_factory.hpp:77] Creating layer loss1/classifier_plantvillage
I0403 04:48:03.518579  8068 net.cpp:91] Creating Layer loss1/classifier_plantvillage
I0403 04:48:03.518600  8068 net.cpp:425] loss1/classifier_plantvillage <- loss1/fc
I0403 04:48:03.518627  8068 net.cpp:399] loss1/classifier_plantvillage -> loss1/classifier_plantvillage
I0403 04:48:03.519659  8068 net.cpp:141] Setting up loss1/classifier_plantvillage
I0403 04:48:03.519692  8068 net.cpp:148] Top shape: 24 38 (912)
I0403 04:48:03.519712  8068 net.cpp:156] Memory required for data: 946192320
I0403 04:48:03.519736  8068 layer_factory.hpp:77] Creating layer inception_4b/1x1
I0403 04:48:03.519767  8068 net.cpp:91] Creating Layer inception_4b/1x1
I0403 04:48:03.519791  8068 net.cpp:425] inception_4b/1x1 <- inception_4a/output_inception_4a/output_0_split_1
I0403 04:48:03.519819  8068 net.cpp:399] inception_4b/1x1 -> inception_4b/1x1
I0403 04:48:03.520630  8068 net.cpp:141] Setting up inception_4b/1x1
I0403 04:48:03.520663  8068 net.cpp:148] Top shape: 24 160 14 14 (752640)
I0403 04:48:03.520683  8068 net.cpp:156] Memory required for data: 949202880
I0403 04:48:03.520704  8068 layer_factory.hpp:77] Creating layer inception_4b/relu_1x1
I0403 04:48:03.520750  8068 net.cpp:91] Creating Layer inception_4b/relu_1x1
I0403 04:48:03.520771  8068 net.cpp:425] inception_4b/relu_1x1 <- inception_4b/1x1
I0403 04:48:03.520793  8068 net.cpp:386] inception_4b/relu_1x1 -> inception_4b/1x1 (in-place)
I0403 04:48:03.520818  8068 net.cpp:141] Setting up inception_4b/relu_1x1
I0403 04:48:03.520841  8068 net.cpp:148] Top shape: 24 160 14 14 (752640)
I0403 04:48:03.520859  8068 net.cpp:156] Memory required for data: 952213440
I0403 04:48:03.520877  8068 layer_factory.hpp:77] Creating layer inception_4b/3x3_reduce
I0403 04:48:03.520907  8068 net.cpp:91] Creating Layer inception_4b/3x3_reduce
I0403 04:48:03.520930  8068 net.cpp:425] inception_4b/3x3_reduce <- inception_4a/output_inception_4a/output_0_split_2
I0403 04:48:03.520956  8068 net.cpp:399] inception_4b/3x3_reduce -> inception_4b/3x3_reduce
I0403 04:48:03.521603  8068 net.cpp:141] Setting up inception_4b/3x3_reduce
I0403 04:48:03.521634  8068 net.cpp:148] Top shape: 24 112 14 14 (526848)
I0403 04:48:03.521654  8068 net.cpp:156] Memory required for data: 954320832
I0403 04:48:03.521677  8068 layer_factory.hpp:77] Creating layer inception_4b/relu_3x3_reduce
I0403 04:48:03.521703  8068 net.cpp:91] Creating Layer inception_4b/relu_3x3_reduce
I0403 04:48:03.521725  8068 net.cpp:425] inception_4b/relu_3x3_reduce <- inception_4b/3x3_reduce
I0403 04:48:03.521747  8068 net.cpp:386] inception_4b/relu_3x3_reduce -> inception_4b/3x3_reduce (in-place)
I0403 04:48:03.521773  8068 net.cpp:141] Setting up inception_4b/relu_3x3_reduce
I0403 04:48:03.521795  8068 net.cpp:148] Top shape: 24 112 14 14 (526848)
I0403 04:48:03.521813  8068 net.cpp:156] Memory required for data: 956428224
I0403 04:48:03.521831  8068 layer_factory.hpp:77] Creating layer inception_4b/3x3
I0403 04:48:03.521859  8068 net.cpp:91] Creating Layer inception_4b/3x3
I0403 04:48:03.521883  8068 net.cpp:425] inception_4b/3x3 <- inception_4b/3x3_reduce
I0403 04:48:03.521914  8068 net.cpp:399] inception_4b/3x3 -> inception_4b/3x3
I0403 04:48:03.524322  8068 net.cpp:141] Setting up inception_4b/3x3
I0403 04:48:03.524359  8068 net.cpp:148] Top shape: 24 224 14 14 (1053696)
I0403 04:48:03.524379  8068 net.cpp:156] Memory required for data: 960643008
I0403 04:48:03.524401  8068 layer_factory.hpp:77] Creating layer inception_4b/relu_3x3
I0403 04:48:03.524427  8068 net.cpp:91] Creating Layer inception_4b/relu_3x3
I0403 04:48:03.524449  8068 net.cpp:425] inception_4b/relu_3x3 <- inception_4b/3x3
I0403 04:48:03.524472  8068 net.cpp:386] inception_4b/relu_3x3 -> inception_4b/3x3 (in-place)
I0403 04:48:03.524497  8068 net.cpp:141] Setting up inception_4b/relu_3x3
I0403 04:48:03.524518  8068 net.cpp:148] Top shape: 24 224 14 14 (1053696)
I0403 04:48:03.524536  8068 net.cpp:156] Memory required for data: 964857792
I0403 04:48:03.524554  8068 layer_factory.hpp:77] Creating layer inception_4b/5x5_reduce
I0403 04:48:03.524582  8068 net.cpp:91] Creating Layer inception_4b/5x5_reduce
I0403 04:48:03.524605  8068 net.cpp:425] inception_4b/5x5_reduce <- inception_4a/output_inception_4a/output_0_split_3
I0403 04:48:03.524632  8068 net.cpp:399] inception_4b/5x5_reduce -> inception_4b/5x5_reduce
I0403 04:48:03.524977  8068 net.cpp:141] Setting up inception_4b/5x5_reduce
I0403 04:48:03.525015  8068 net.cpp:148] Top shape: 24 24 14 14 (112896)
I0403 04:48:03.525035  8068 net.cpp:156] Memory required for data: 965309376
I0403 04:48:03.525058  8068 layer_factory.hpp:77] Creating layer inception_4b/relu_5x5_reduce
I0403 04:48:03.525081  8068 net.cpp:91] Creating Layer inception_4b/relu_5x5_reduce
I0403 04:48:03.525104  8068 net.cpp:425] inception_4b/relu_5x5_reduce <- inception_4b/5x5_reduce
I0403 04:48:03.525126  8068 net.cpp:386] inception_4b/relu_5x5_reduce -> inception_4b/5x5_reduce (in-place)
I0403 04:48:03.525152  8068 net.cpp:141] Setting up inception_4b/relu_5x5_reduce
I0403 04:48:03.525173  8068 net.cpp:148] Top shape: 24 24 14 14 (112896)
I0403 04:48:03.525192  8068 net.cpp:156] Memory required for data: 965760960
I0403 04:48:03.525209  8068 layer_factory.hpp:77] Creating layer inception_4b/5x5
I0403 04:48:03.525257  8068 net.cpp:91] Creating Layer inception_4b/5x5
I0403 04:48:03.525281  8068 net.cpp:425] inception_4b/5x5 <- inception_4b/5x5_reduce
I0403 04:48:03.525308  8068 net.cpp:399] inception_4b/5x5 -> inception_4b/5x5
I0403 04:48:03.525827  8068 net.cpp:141] Setting up inception_4b/5x5
I0403 04:48:03.525859  8068 net.cpp:148] Top shape: 24 64 14 14 (301056)
I0403 04:48:03.525878  8068 net.cpp:156] Memory required for data: 966965184
I0403 04:48:03.525902  8068 layer_factory.hpp:77] Creating layer inception_4b/relu_5x5
I0403 04:48:03.525928  8068 net.cpp:91] Creating Layer inception_4b/relu_5x5
I0403 04:48:03.525951  8068 net.cpp:425] inception_4b/relu_5x5 <- inception_4b/5x5
I0403 04:48:03.525974  8068 net.cpp:386] inception_4b/relu_5x5 -> inception_4b/5x5 (in-place)
I0403 04:48:03.526005  8068 net.cpp:141] Setting up inception_4b/relu_5x5
I0403 04:48:03.526029  8068 net.cpp:148] Top shape: 24 64 14 14 (301056)
I0403 04:48:03.526047  8068 net.cpp:156] Memory required for data: 968169408
I0403 04:48:03.526067  8068 layer_factory.hpp:77] Creating layer inception_4b/pool
I0403 04:48:03.526092  8068 net.cpp:91] Creating Layer inception_4b/pool
I0403 04:48:03.526114  8068 net.cpp:425] inception_4b/pool <- inception_4a/output_inception_4a/output_0_split_4
I0403 04:48:03.526139  8068 net.cpp:399] inception_4b/pool -> inception_4b/pool
I0403 04:48:03.526202  8068 net.cpp:141] Setting up inception_4b/pool
I0403 04:48:03.526232  8068 net.cpp:148] Top shape: 24 512 14 14 (2408448)
I0403 04:48:03.526250  8068 net.cpp:156] Memory required for data: 977803200
I0403 04:48:03.526269  8068 layer_factory.hpp:77] Creating layer inception_4b/pool_proj
I0403 04:48:03.526298  8068 net.cpp:91] Creating Layer inception_4b/pool_proj
I0403 04:48:03.526321  8068 net.cpp:425] inception_4b/pool_proj <- inception_4b/pool
I0403 04:48:03.526345  8068 net.cpp:399] inception_4b/pool_proj -> inception_4b/pool_proj
I0403 04:48:03.526823  8068 net.cpp:141] Setting up inception_4b/pool_proj
I0403 04:48:03.526855  8068 net.cpp:148] Top shape: 24 64 14 14 (301056)
I0403 04:48:03.526875  8068 net.cpp:156] Memory required for data: 979007424
I0403 04:48:03.526896  8068 layer_factory.hpp:77] Creating layer inception_4b/relu_pool_proj
I0403 04:48:03.526919  8068 net.cpp:91] Creating Layer inception_4b/relu_pool_proj
I0403 04:48:03.526945  8068 net.cpp:425] inception_4b/relu_pool_proj <- inception_4b/pool_proj
I0403 04:48:03.526968  8068 net.cpp:386] inception_4b/relu_pool_proj -> inception_4b/pool_proj (in-place)
I0403 04:48:03.527001  8068 net.cpp:141] Setting up inception_4b/relu_pool_proj
I0403 04:48:03.527025  8068 net.cpp:148] Top shape: 24 64 14 14 (301056)
I0403 04:48:03.527042  8068 net.cpp:156] Memory required for data: 980211648
I0403 04:48:03.527067  8068 layer_factory.hpp:77] Creating layer inception_4b/output
I0403 04:48:03.527089  8068 net.cpp:91] Creating Layer inception_4b/output
I0403 04:48:03.527109  8068 net.cpp:425] inception_4b/output <- inception_4b/1x1
I0403 04:48:03.527130  8068 net.cpp:425] inception_4b/output <- inception_4b/3x3
I0403 04:48:03.527150  8068 net.cpp:425] inception_4b/output <- inception_4b/5x5
I0403 04:48:03.527170  8068 net.cpp:425] inception_4b/output <- inception_4b/pool_proj
I0403 04:48:03.527191  8068 net.cpp:399] inception_4b/output -> inception_4b/output
I0403 04:48:03.527240  8068 net.cpp:141] Setting up inception_4b/output
I0403 04:48:03.527268  8068 net.cpp:148] Top shape: 24 512 14 14 (2408448)
I0403 04:48:03.527287  8068 net.cpp:156] Memory required for data: 989845440
I0403 04:48:03.527307  8068 layer_factory.hpp:77] Creating layer inception_4b/output_inception_4b/output_0_split
I0403 04:48:03.527329  8068 net.cpp:91] Creating Layer inception_4b/output_inception_4b/output_0_split
I0403 04:48:03.527364  8068 net.cpp:425] inception_4b/output_inception_4b/output_0_split <- inception_4b/output
I0403 04:48:03.527387  8068 net.cpp:399] inception_4b/output_inception_4b/output_0_split -> inception_4b/output_inception_4b/output_0_split_0
I0403 04:48:03.527413  8068 net.cpp:399] inception_4b/output_inception_4b/output_0_split -> inception_4b/output_inception_4b/output_0_split_1
I0403 04:48:03.527456  8068 net.cpp:399] inception_4b/output_inception_4b/output_0_split -> inception_4b/output_inception_4b/output_0_split_2
I0403 04:48:03.527484  8068 net.cpp:399] inception_4b/output_inception_4b/output_0_split -> inception_4b/output_inception_4b/output_0_split_3
I0403 04:48:03.527568  8068 net.cpp:141] Setting up inception_4b/output_inception_4b/output_0_split
I0403 04:48:03.527597  8068 net.cpp:148] Top shape: 24 512 14 14 (2408448)
I0403 04:48:03.527618  8068 net.cpp:148] Top shape: 24 512 14 14 (2408448)
I0403 04:48:03.527638  8068 net.cpp:148] Top shape: 24 512 14 14 (2408448)
I0403 04:48:03.527657  8068 net.cpp:148] Top shape: 24 512 14 14 (2408448)
I0403 04:48:03.527674  8068 net.cpp:156] Memory required for data: 1028380608
I0403 04:48:03.527693  8068 layer_factory.hpp:77] Creating layer inception_4c/1x1
I0403 04:48:03.527722  8068 net.cpp:91] Creating Layer inception_4c/1x1
I0403 04:48:03.527745  8068 net.cpp:425] inception_4c/1x1 <- inception_4b/output_inception_4b/output_0_split_0
I0403 04:48:03.527770  8068 net.cpp:399] inception_4c/1x1 -> inception_4c/1x1
I0403 04:48:03.528475  8068 net.cpp:141] Setting up inception_4c/1x1
I0403 04:48:03.528507  8068 net.cpp:148] Top shape: 24 128 14 14 (602112)
I0403 04:48:03.528527  8068 net.cpp:156] Memory required for data: 1030789056
I0403 04:48:03.528548  8068 layer_factory.hpp:77] Creating layer inception_4c/relu_1x1
I0403 04:48:03.528571  8068 net.cpp:91] Creating Layer inception_4c/relu_1x1
I0403 04:48:03.528592  8068 net.cpp:425] inception_4c/relu_1x1 <- inception_4c/1x1
I0403 04:48:03.528619  8068 net.cpp:386] inception_4c/relu_1x1 -> inception_4c/1x1 (in-place)
I0403 04:48:03.528646  8068 net.cpp:141] Setting up inception_4c/relu_1x1
I0403 04:48:03.528668  8068 net.cpp:148] Top shape: 24 128 14 14 (602112)
I0403 04:48:03.528687  8068 net.cpp:156] Memory required for data: 1033197504
I0403 04:48:03.528703  8068 layer_factory.hpp:77] Creating layer inception_4c/3x3_reduce
I0403 04:48:03.528733  8068 net.cpp:91] Creating Layer inception_4c/3x3_reduce
I0403 04:48:03.528755  8068 net.cpp:425] inception_4c/3x3_reduce <- inception_4b/output_inception_4b/output_0_split_1
I0403 04:48:03.528780  8068 net.cpp:399] inception_4c/3x3_reduce -> inception_4c/3x3_reduce
I0403 04:48:03.530867  8068 net.cpp:141] Setting up inception_4c/3x3_reduce
I0403 04:48:03.530902  8068 net.cpp:148] Top shape: 24 128 14 14 (602112)
I0403 04:48:03.530922  8068 net.cpp:156] Memory required for data: 1035605952
I0403 04:48:03.530946  8068 layer_factory.hpp:77] Creating layer inception_4c/relu_3x3_reduce
I0403 04:48:03.530968  8068 net.cpp:91] Creating Layer inception_4c/relu_3x3_reduce
I0403 04:48:03.530995  8068 net.cpp:425] inception_4c/relu_3x3_reduce <- inception_4c/3x3_reduce
I0403 04:48:03.531020  8068 net.cpp:386] inception_4c/relu_3x3_reduce -> inception_4c/3x3_reduce (in-place)
I0403 04:48:03.531045  8068 net.cpp:141] Setting up inception_4c/relu_3x3_reduce
I0403 04:48:03.531065  8068 net.cpp:148] Top shape: 24 128 14 14 (602112)
I0403 04:48:03.531083  8068 net.cpp:156] Memory required for data: 1038014400
I0403 04:48:03.531101  8068 layer_factory.hpp:77] Creating layer inception_4c/3x3
I0403 04:48:03.531131  8068 net.cpp:91] Creating Layer inception_4c/3x3
I0403 04:48:03.531154  8068 net.cpp:425] inception_4c/3x3 <- inception_4c/3x3_reduce
I0403 04:48:03.531180  8068 net.cpp:399] inception_4c/3x3 -> inception_4c/3x3
I0403 04:48:03.535153  8068 net.cpp:141] Setting up inception_4c/3x3
I0403 04:48:03.535188  8068 net.cpp:148] Top shape: 24 256 14 14 (1204224)
I0403 04:48:03.535207  8068 net.cpp:156] Memory required for data: 1042831296
I0403 04:48:03.535255  8068 layer_factory.hpp:77] Creating layer inception_4c/relu_3x3
I0403 04:48:03.535284  8068 net.cpp:91] Creating Layer inception_4c/relu_3x3
I0403 04:48:03.535308  8068 net.cpp:425] inception_4c/relu_3x3 <- inception_4c/3x3
I0403 04:48:03.535331  8068 net.cpp:386] inception_4c/relu_3x3 -> inception_4c/3x3 (in-place)
I0403 04:48:03.535377  8068 net.cpp:141] Setting up inception_4c/relu_3x3
I0403 04:48:03.535401  8068 net.cpp:148] Top shape: 24 256 14 14 (1204224)
I0403 04:48:03.535419  8068 net.cpp:156] Memory required for data: 1047648192
I0403 04:48:03.535437  8068 layer_factory.hpp:77] Creating layer inception_4c/5x5_reduce
I0403 04:48:03.535462  8068 net.cpp:91] Creating Layer inception_4c/5x5_reduce
I0403 04:48:03.535485  8068 net.cpp:425] inception_4c/5x5_reduce <- inception_4b/output_inception_4b/output_0_split_2
I0403 04:48:03.535511  8068 net.cpp:399] inception_4c/5x5_reduce -> inception_4c/5x5_reduce
I0403 04:48:03.535861  8068 net.cpp:141] Setting up inception_4c/5x5_reduce
I0403 04:48:03.535893  8068 net.cpp:148] Top shape: 24 24 14 14 (112896)
I0403 04:48:03.535912  8068 net.cpp:156] Memory required for data: 1048099776
I0403 04:48:03.535934  8068 layer_factory.hpp:77] Creating layer inception_4c/relu_5x5_reduce
I0403 04:48:03.535958  8068 net.cpp:91] Creating Layer inception_4c/relu_5x5_reduce
I0403 04:48:03.535979  8068 net.cpp:425] inception_4c/relu_5x5_reduce <- inception_4c/5x5_reduce
I0403 04:48:03.536011  8068 net.cpp:386] inception_4c/relu_5x5_reduce -> inception_4c/5x5_reduce (in-place)
I0403 04:48:03.536039  8068 net.cpp:141] Setting up inception_4c/relu_5x5_reduce
I0403 04:48:03.536062  8068 net.cpp:148] Top shape: 24 24 14 14 (112896)
I0403 04:48:03.536079  8068 net.cpp:156] Memory required for data: 1048551360
I0403 04:48:03.536098  8068 layer_factory.hpp:77] Creating layer inception_4c/5x5
I0403 04:48:03.536128  8068 net.cpp:91] Creating Layer inception_4c/5x5
I0403 04:48:03.536151  8068 net.cpp:425] inception_4c/5x5 <- inception_4c/5x5_reduce
I0403 04:48:03.536175  8068 net.cpp:399] inception_4c/5x5 -> inception_4c/5x5
I0403 04:48:03.536694  8068 net.cpp:141] Setting up inception_4c/5x5
I0403 04:48:03.536725  8068 net.cpp:148] Top shape: 24 64 14 14 (301056)
I0403 04:48:03.536744  8068 net.cpp:156] Memory required for data: 1049755584
I0403 04:48:03.536767  8068 layer_factory.hpp:77] Creating layer inception_4c/relu_5x5
I0403 04:48:03.536789  8068 net.cpp:91] Creating Layer inception_4c/relu_5x5
I0403 04:48:03.536811  8068 net.cpp:425] inception_4c/relu_5x5 <- inception_4c/5x5
I0403 04:48:03.536835  8068 net.cpp:386] inception_4c/relu_5x5 -> inception_4c/5x5 (in-place)
I0403 04:48:03.536861  8068 net.cpp:141] Setting up inception_4c/relu_5x5
I0403 04:48:03.536883  8068 net.cpp:148] Top shape: 24 64 14 14 (301056)
I0403 04:48:03.536902  8068 net.cpp:156] Memory required for data: 1050959808
I0403 04:48:03.536921  8068 layer_factory.hpp:77] Creating layer inception_4c/pool
I0403 04:48:03.536942  8068 net.cpp:91] Creating Layer inception_4c/pool
I0403 04:48:03.536963  8068 net.cpp:425] inception_4c/pool <- inception_4b/output_inception_4b/output_0_split_3
I0403 04:48:03.536993  8068 net.cpp:399] inception_4c/pool -> inception_4c/pool
I0403 04:48:03.537060  8068 net.cpp:141] Setting up inception_4c/pool
I0403 04:48:03.537091  8068 net.cpp:148] Top shape: 24 512 14 14 (2408448)
I0403 04:48:03.537108  8068 net.cpp:156] Memory required for data: 1060593600
I0403 04:48:03.537127  8068 layer_factory.hpp:77] Creating layer inception_4c/pool_proj
I0403 04:48:03.537154  8068 net.cpp:91] Creating Layer inception_4c/pool_proj
I0403 04:48:03.537178  8068 net.cpp:425] inception_4c/pool_proj <- inception_4c/pool
I0403 04:48:03.537204  8068 net.cpp:399] inception_4c/pool_proj -> inception_4c/pool_proj
I0403 04:48:03.537685  8068 net.cpp:141] Setting up inception_4c/pool_proj
I0403 04:48:03.537716  8068 net.cpp:148] Top shape: 24 64 14 14 (301056)
I0403 04:48:03.537735  8068 net.cpp:156] Memory required for data: 1061797824
I0403 04:48:03.537757  8068 layer_factory.hpp:77] Creating layer inception_4c/relu_pool_proj
I0403 04:48:03.537781  8068 net.cpp:91] Creating Layer inception_4c/relu_pool_proj
I0403 04:48:03.537801  8068 net.cpp:425] inception_4c/relu_pool_proj <- inception_4c/pool_proj
I0403 04:48:03.537824  8068 net.cpp:386] inception_4c/relu_pool_proj -> inception_4c/pool_proj (in-place)
I0403 04:48:03.537848  8068 net.cpp:141] Setting up inception_4c/relu_pool_proj
I0403 04:48:03.537886  8068 net.cpp:148] Top shape: 24 64 14 14 (301056)
I0403 04:48:03.537905  8068 net.cpp:156] Memory required for data: 1063002048
I0403 04:48:03.537924  8068 layer_factory.hpp:77] Creating layer inception_4c/output
I0403 04:48:03.537950  8068 net.cpp:91] Creating Layer inception_4c/output
I0403 04:48:03.537972  8068 net.cpp:425] inception_4c/output <- inception_4c/1x1
I0403 04:48:03.538010  8068 net.cpp:425] inception_4c/output <- inception_4c/3x3
I0403 04:48:03.538034  8068 net.cpp:425] inception_4c/output <- inception_4c/5x5
I0403 04:48:03.538056  8068 net.cpp:425] inception_4c/output <- inception_4c/pool_proj
I0403 04:48:03.538079  8068 net.cpp:399] inception_4c/output -> inception_4c/output
I0403 04:48:03.538126  8068 net.cpp:141] Setting up inception_4c/output
I0403 04:48:03.538158  8068 net.cpp:148] Top shape: 24 512 14 14 (2408448)
I0403 04:48:03.538178  8068 net.cpp:156] Memory required for data: 1072635840
I0403 04:48:03.538197  8068 layer_factory.hpp:77] Creating layer inception_4c/output_inception_4c/output_0_split
I0403 04:48:03.538220  8068 net.cpp:91] Creating Layer inception_4c/output_inception_4c/output_0_split
I0403 04:48:03.538240  8068 net.cpp:425] inception_4c/output_inception_4c/output_0_split <- inception_4c/output
I0403 04:48:03.538265  8068 net.cpp:399] inception_4c/output_inception_4c/output_0_split -> inception_4c/output_inception_4c/output_0_split_0
I0403 04:48:03.538293  8068 net.cpp:399] inception_4c/output_inception_4c/output_0_split -> inception_4c/output_inception_4c/output_0_split_1
I0403 04:48:03.538329  8068 net.cpp:399] inception_4c/output_inception_4c/output_0_split -> inception_4c/output_inception_4c/output_0_split_2
I0403 04:48:03.538355  8068 net.cpp:399] inception_4c/output_inception_4c/output_0_split -> inception_4c/output_inception_4c/output_0_split_3
I0403 04:48:03.538441  8068 net.cpp:141] Setting up inception_4c/output_inception_4c/output_0_split
I0403 04:48:03.538473  8068 net.cpp:148] Top shape: 24 512 14 14 (2408448)
I0403 04:48:03.538496  8068 net.cpp:148] Top shape: 24 512 14 14 (2408448)
I0403 04:48:03.538516  8068 net.cpp:148] Top shape: 24 512 14 14 (2408448)
I0403 04:48:03.538534  8068 net.cpp:148] Top shape: 24 512 14 14 (2408448)
I0403 04:48:03.538553  8068 net.cpp:156] Memory required for data: 1111171008
I0403 04:48:03.538571  8068 layer_factory.hpp:77] Creating layer inception_4d/1x1
I0403 04:48:03.538599  8068 net.cpp:91] Creating Layer inception_4d/1x1
I0403 04:48:03.538619  8068 net.cpp:425] inception_4d/1x1 <- inception_4c/output_inception_4c/output_0_split_0
I0403 04:48:03.538646  8068 net.cpp:399] inception_4d/1x1 -> inception_4d/1x1
I0403 04:48:03.539301  8068 net.cpp:141] Setting up inception_4d/1x1
I0403 04:48:03.539332  8068 net.cpp:148] Top shape: 24 112 14 14 (526848)
I0403 04:48:03.539351  8068 net.cpp:156] Memory required for data: 1113278400
I0403 04:48:03.539374  8068 layer_factory.hpp:77] Creating layer inception_4d/relu_1x1
I0403 04:48:03.539397  8068 net.cpp:91] Creating Layer inception_4d/relu_1x1
I0403 04:48:03.539417  8068 net.cpp:425] inception_4d/relu_1x1 <- inception_4d/1x1
I0403 04:48:03.539439  8068 net.cpp:386] inception_4d/relu_1x1 -> inception_4d/1x1 (in-place)
I0403 04:48:03.539463  8068 net.cpp:141] Setting up inception_4d/relu_1x1
I0403 04:48:03.539484  8068 net.cpp:148] Top shape: 24 112 14 14 (526848)
I0403 04:48:03.539512  8068 net.cpp:156] Memory required for data: 1115385792
I0403 04:48:03.539531  8068 layer_factory.hpp:77] Creating layer inception_4d/3x3_reduce
I0403 04:48:03.539561  8068 net.cpp:91] Creating Layer inception_4d/3x3_reduce
I0403 04:48:03.539583  8068 net.cpp:425] inception_4d/3x3_reduce <- inception_4c/output_inception_4c/output_0_split_1
I0403 04:48:03.539610  8068 net.cpp:399] inception_4d/3x3_reduce -> inception_4d/3x3_reduce
I0403 04:48:03.540388  8068 net.cpp:141] Setting up inception_4d/3x3_reduce
I0403 04:48:03.540419  8068 net.cpp:148] Top shape: 24 144 14 14 (677376)
I0403 04:48:03.540438  8068 net.cpp:156] Memory required for data: 1118095296
I0403 04:48:03.540477  8068 layer_factory.hpp:77] Creating layer inception_4d/relu_3x3_reduce
I0403 04:48:03.540501  8068 net.cpp:91] Creating Layer inception_4d/relu_3x3_reduce
I0403 04:48:03.540529  8068 net.cpp:425] inception_4d/relu_3x3_reduce <- inception_4d/3x3_reduce
I0403 04:48:03.540555  8068 net.cpp:386] inception_4d/relu_3x3_reduce -> inception_4d/3x3_reduce (in-place)
I0403 04:48:03.540580  8068 net.cpp:141] Setting up inception_4d/relu_3x3_reduce
I0403 04:48:03.540603  8068 net.cpp:148] Top shape: 24 144 14 14 (677376)
I0403 04:48:03.540621  8068 net.cpp:156] Memory required for data: 1120804800
I0403 04:48:03.540640  8068 layer_factory.hpp:77] Creating layer inception_4d/3x3
I0403 04:48:03.540668  8068 net.cpp:91] Creating Layer inception_4d/3x3
I0403 04:48:03.540688  8068 net.cpp:425] inception_4d/3x3 <- inception_4d/3x3_reduce
I0403 04:48:03.540715  8068 net.cpp:399] inception_4d/3x3 -> inception_4d/3x3
I0403 04:48:03.545336  8068 net.cpp:141] Setting up inception_4d/3x3
I0403 04:48:03.545369  8068 net.cpp:148] Top shape: 24 288 14 14 (1354752)
I0403 04:48:03.545389  8068 net.cpp:156] Memory required for data: 1126223808
I0403 04:48:03.545413  8068 layer_factory.hpp:77] Creating layer inception_4d/relu_3x3
I0403 04:48:03.545436  8068 net.cpp:91] Creating Layer inception_4d/relu_3x3
I0403 04:48:03.545459  8068 net.cpp:425] inception_4d/relu_3x3 <- inception_4d/3x3
I0403 04:48:03.545483  8068 net.cpp:386] inception_4d/relu_3x3 -> inception_4d/3x3 (in-place)
I0403 04:48:03.545509  8068 net.cpp:141] Setting up inception_4d/relu_3x3
I0403 04:48:03.545532  8068 net.cpp:148] Top shape: 24 288 14 14 (1354752)
I0403 04:48:03.545552  8068 net.cpp:156] Memory required for data: 1131642816
I0403 04:48:03.545569  8068 layer_factory.hpp:77] Creating layer inception_4d/5x5_reduce
I0403 04:48:03.545598  8068 net.cpp:91] Creating Layer inception_4d/5x5_reduce
I0403 04:48:03.545621  8068 net.cpp:425] inception_4d/5x5_reduce <- inception_4c/output_inception_4c/output_0_split_2
I0403 04:48:03.545646  8068 net.cpp:399] inception_4d/5x5_reduce -> inception_4d/5x5_reduce
I0403 04:48:03.546036  8068 net.cpp:141] Setting up inception_4d/5x5_reduce
I0403 04:48:03.546066  8068 net.cpp:148] Top shape: 24 32 14 14 (150528)
I0403 04:48:03.546087  8068 net.cpp:156] Memory required for data: 1132244928
I0403 04:48:03.546108  8068 layer_factory.hpp:77] Creating layer inception_4d/relu_5x5_reduce
I0403 04:48:03.546134  8068 net.cpp:91] Creating Layer inception_4d/relu_5x5_reduce
I0403 04:48:03.546156  8068 net.cpp:425] inception_4d/relu_5x5_reduce <- inception_4d/5x5_reduce
I0403 04:48:03.546178  8068 net.cpp:386] inception_4d/relu_5x5_reduce -> inception_4d/5x5_reduce (in-place)
I0403 04:48:03.546205  8068 net.cpp:141] Setting up inception_4d/relu_5x5_reduce
I0403 04:48:03.546226  8068 net.cpp:148] Top shape: 24 32 14 14 (150528)
I0403 04:48:03.546243  8068 net.cpp:156] Memory required for data: 1132847040
I0403 04:48:03.546260  8068 layer_factory.hpp:77] Creating layer inception_4d/5x5
I0403 04:48:03.546289  8068 net.cpp:91] Creating Layer inception_4d/5x5
I0403 04:48:03.546311  8068 net.cpp:425] inception_4d/5x5 <- inception_4d/5x5_reduce
I0403 04:48:03.546336  8068 net.cpp:399] inception_4d/5x5 -> inception_4d/5x5
I0403 04:48:03.546947  8068 net.cpp:141] Setting up inception_4d/5x5
I0403 04:48:03.546978  8068 net.cpp:148] Top shape: 24 64 14 14 (301056)
I0403 04:48:03.547004  8068 net.cpp:156] Memory required for data: 1134051264
I0403 04:48:03.547027  8068 layer_factory.hpp:77] Creating layer inception_4d/relu_5x5
I0403 04:48:03.547050  8068 net.cpp:91] Creating Layer inception_4d/relu_5x5
I0403 04:48:03.547071  8068 net.cpp:425] inception_4d/relu_5x5 <- inception_4d/5x5
I0403 04:48:03.547097  8068 net.cpp:386] inception_4d/relu_5x5 -> inception_4d/5x5 (in-place)
I0403 04:48:03.547122  8068 net.cpp:141] Setting up inception_4d/relu_5x5
I0403 04:48:03.547145  8068 net.cpp:148] Top shape: 24 64 14 14 (301056)
I0403 04:48:03.547164  8068 net.cpp:156] Memory required for data: 1135255488
I0403 04:48:03.547183  8068 layer_factory.hpp:77] Creating layer inception_4d/pool
I0403 04:48:03.547232  8068 net.cpp:91] Creating Layer inception_4d/pool
I0403 04:48:03.547256  8068 net.cpp:425] inception_4d/pool <- inception_4c/output_inception_4c/output_0_split_3
I0403 04:48:03.547282  8068 net.cpp:399] inception_4d/pool -> inception_4d/pool
I0403 04:48:03.547348  8068 net.cpp:141] Setting up inception_4d/pool
I0403 04:48:03.547379  8068 net.cpp:148] Top shape: 24 512 14 14 (2408448)
I0403 04:48:03.547399  8068 net.cpp:156] Memory required for data: 1144889280
I0403 04:48:03.547417  8068 layer_factory.hpp:77] Creating layer inception_4d/pool_proj
I0403 04:48:03.547442  8068 net.cpp:91] Creating Layer inception_4d/pool_proj
I0403 04:48:03.547463  8068 net.cpp:425] inception_4d/pool_proj <- inception_4d/pool
I0403 04:48:03.547492  8068 net.cpp:399] inception_4d/pool_proj -> inception_4d/pool_proj
I0403 04:48:03.548624  8068 net.cpp:141] Setting up inception_4d/pool_proj
I0403 04:48:03.548660  8068 net.cpp:148] Top shape: 24 64 14 14 (301056)
I0403 04:48:03.548679  8068 net.cpp:156] Memory required for data: 1146093504
I0403 04:48:03.548702  8068 layer_factory.hpp:77] Creating layer inception_4d/relu_pool_proj
I0403 04:48:03.548727  8068 net.cpp:91] Creating Layer inception_4d/relu_pool_proj
I0403 04:48:03.548748  8068 net.cpp:425] inception_4d/relu_pool_proj <- inception_4d/pool_proj
I0403 04:48:03.548770  8068 net.cpp:386] inception_4d/relu_pool_proj -> inception_4d/pool_proj (in-place)
I0403 04:48:03.548799  8068 net.cpp:141] Setting up inception_4d/relu_pool_proj
I0403 04:48:03.548821  8068 net.cpp:148] Top shape: 24 64 14 14 (301056)
I0403 04:48:03.548840  8068 net.cpp:156] Memory required for data: 1147297728
I0403 04:48:03.548858  8068 layer_factory.hpp:77] Creating layer inception_4d/output
I0403 04:48:03.548882  8068 net.cpp:91] Creating Layer inception_4d/output
I0403 04:48:03.548902  8068 net.cpp:425] inception_4d/output <- inception_4d/1x1
I0403 04:48:03.548921  8068 net.cpp:425] inception_4d/output <- inception_4d/3x3
I0403 04:48:03.548941  8068 net.cpp:425] inception_4d/output <- inception_4d/5x5
I0403 04:48:03.548962  8068 net.cpp:425] inception_4d/output <- inception_4d/pool_proj
I0403 04:48:03.548990  8068 net.cpp:399] inception_4d/output -> inception_4d/output
I0403 04:48:03.549043  8068 net.cpp:141] Setting up inception_4d/output
I0403 04:48:03.549072  8068 net.cpp:148] Top shape: 24 528 14 14 (2483712)
I0403 04:48:03.549091  8068 net.cpp:156] Memory required for data: 1157232576
I0403 04:48:03.549110  8068 layer_factory.hpp:77] Creating layer inception_4d/output_inception_4d/output_0_split
I0403 04:48:03.549134  8068 net.cpp:91] Creating Layer inception_4d/output_inception_4d/output_0_split
I0403 04:48:03.549155  8068 net.cpp:425] inception_4d/output_inception_4d/output_0_split <- inception_4d/output
I0403 04:48:03.549182  8068 net.cpp:399] inception_4d/output_inception_4d/output_0_split -> inception_4d/output_inception_4d/output_0_split_0
I0403 04:48:03.549209  8068 net.cpp:399] inception_4d/output_inception_4d/output_0_split -> inception_4d/output_inception_4d/output_0_split_1
I0403 04:48:03.549237  8068 net.cpp:399] inception_4d/output_inception_4d/output_0_split -> inception_4d/output_inception_4d/output_0_split_2
I0403 04:48:03.549263  8068 net.cpp:399] inception_4d/output_inception_4d/output_0_split -> inception_4d/output_inception_4d/output_0_split_3
I0403 04:48:03.549288  8068 net.cpp:399] inception_4d/output_inception_4d/output_0_split -> inception_4d/output_inception_4d/output_0_split_4
I0403 04:48:03.549384  8068 net.cpp:141] Setting up inception_4d/output_inception_4d/output_0_split
I0403 04:48:03.549412  8068 net.cpp:148] Top shape: 24 528 14 14 (2483712)
I0403 04:48:03.549433  8068 net.cpp:148] Top shape: 24 528 14 14 (2483712)
I0403 04:48:03.549453  8068 net.cpp:148] Top shape: 24 528 14 14 (2483712)
I0403 04:48:03.549471  8068 net.cpp:148] Top shape: 24 528 14 14 (2483712)
I0403 04:48:03.549490  8068 net.cpp:148] Top shape: 24 528 14 14 (2483712)
I0403 04:48:03.549509  8068 net.cpp:156] Memory required for data: 1206906816
I0403 04:48:03.549551  8068 layer_factory.hpp:77] Creating layer loss2/ave_pool
I0403 04:48:03.549577  8068 net.cpp:91] Creating Layer loss2/ave_pool
I0403 04:48:03.549599  8068 net.cpp:425] loss2/ave_pool <- inception_4d/output_inception_4d/output_0_split_0
I0403 04:48:03.549625  8068 net.cpp:399] loss2/ave_pool -> loss2/ave_pool
I0403 04:48:03.549674  8068 net.cpp:141] Setting up loss2/ave_pool
I0403 04:48:03.549700  8068 net.cpp:148] Top shape: 24 528 4 4 (202752)
I0403 04:48:03.549720  8068 net.cpp:156] Memory required for data: 1207717824
I0403 04:48:03.549739  8068 layer_factory.hpp:77] Creating layer loss2/conv
I0403 04:48:03.549767  8068 net.cpp:91] Creating Layer loss2/conv
I0403 04:48:03.549792  8068 net.cpp:425] loss2/conv <- loss2/ave_pool
I0403 04:48:03.549818  8068 net.cpp:399] loss2/conv -> loss2/conv
I0403 04:48:03.551159  8068 net.cpp:141] Setting up loss2/conv
I0403 04:48:03.551194  8068 net.cpp:148] Top shape: 24 128 4 4 (49152)
I0403 04:48:03.551214  8068 net.cpp:156] Memory required for data: 1207914432
I0403 04:48:03.551236  8068 layer_factory.hpp:77] Creating layer loss2/relu_conv
I0403 04:48:03.551260  8068 net.cpp:91] Creating Layer loss2/relu_conv
I0403 04:48:03.551280  8068 net.cpp:425] loss2/relu_conv <- loss2/conv
I0403 04:48:03.551302  8068 net.cpp:386] loss2/relu_conv -> loss2/conv (in-place)
I0403 04:48:03.551327  8068 net.cpp:141] Setting up loss2/relu_conv
I0403 04:48:03.551350  8068 net.cpp:148] Top shape: 24 128 4 4 (49152)
I0403 04:48:03.551368  8068 net.cpp:156] Memory required for data: 1208111040
I0403 04:48:03.551386  8068 layer_factory.hpp:77] Creating layer loss2/fc
I0403 04:48:03.551415  8068 net.cpp:91] Creating Layer loss2/fc
I0403 04:48:03.551439  8068 net.cpp:425] loss2/fc <- loss2/conv
I0403 04:48:03.551461  8068 net.cpp:399] loss2/fc -> loss2/fc
I0403 04:48:03.571225  8068 net.cpp:141] Setting up loss2/fc
I0403 04:48:03.571271  8068 net.cpp:148] Top shape: 24 1024 (24576)
I0403 04:48:03.571291  8068 net.cpp:156] Memory required for data: 1208209344
I0403 04:48:03.571316  8068 layer_factory.hpp:77] Creating layer loss2/relu_fc
I0403 04:48:03.571341  8068 net.cpp:91] Creating Layer loss2/relu_fc
I0403 04:48:03.571362  8068 net.cpp:425] loss2/relu_fc <- loss2/fc
I0403 04:48:03.571385  8068 net.cpp:386] loss2/relu_fc -> loss2/fc (in-place)
I0403 04:48:03.571411  8068 net.cpp:141] Setting up loss2/relu_fc
I0403 04:48:03.571434  8068 net.cpp:148] Top shape: 24 1024 (24576)
I0403 04:48:03.571451  8068 net.cpp:156] Memory required for data: 1208307648
I0403 04:48:03.571470  8068 layer_factory.hpp:77] Creating layer loss2/drop_fc
I0403 04:48:03.571494  8068 net.cpp:91] Creating Layer loss2/drop_fc
I0403 04:48:03.571523  8068 net.cpp:425] loss2/drop_fc <- loss2/fc
I0403 04:48:03.571545  8068 net.cpp:386] loss2/drop_fc -> loss2/fc (in-place)
I0403 04:48:03.571595  8068 net.cpp:141] Setting up loss2/drop_fc
I0403 04:48:03.571624  8068 net.cpp:148] Top shape: 24 1024 (24576)
I0403 04:48:03.571641  8068 net.cpp:156] Memory required for data: 1208405952
I0403 04:48:03.571660  8068 layer_factory.hpp:77] Creating layer loss2/classifier_plantvillage
I0403 04:48:03.571683  8068 net.cpp:91] Creating Layer loss2/classifier_plantvillage
I0403 04:48:03.571703  8068 net.cpp:425] loss2/classifier_plantvillage <- loss2/fc
I0403 04:48:03.571730  8068 net.cpp:399] loss2/classifier_plantvillage -> loss2/classifier_plantvillage
I0403 04:48:03.572139  8068 net.cpp:141] Setting up loss2/classifier_plantvillage
I0403 04:48:03.572170  8068 net.cpp:148] Top shape: 24 38 (912)
I0403 04:48:03.572190  8068 net.cpp:156] Memory required for data: 1208409600
I0403 04:48:03.572213  8068 layer_factory.hpp:77] Creating layer inception_4e/1x1
I0403 04:48:03.572245  8068 net.cpp:91] Creating Layer inception_4e/1x1
I0403 04:48:03.572269  8068 net.cpp:425] inception_4e/1x1 <- inception_4d/output_inception_4d/output_0_split_1
I0403 04:48:03.572293  8068 net.cpp:399] inception_4e/1x1 -> inception_4e/1x1
I0403 04:48:03.573472  8068 net.cpp:141] Setting up inception_4e/1x1
I0403 04:48:03.573503  8068 net.cpp:148] Top shape: 24 256 14 14 (1204224)
I0403 04:48:03.573540  8068 net.cpp:156] Memory required for data: 1213226496
I0403 04:48:03.573565  8068 layer_factory.hpp:77] Creating layer inception_4e/relu_1x1
I0403 04:48:03.573588  8068 net.cpp:91] Creating Layer inception_4e/relu_1x1
I0403 04:48:03.573608  8068 net.cpp:425] inception_4e/relu_1x1 <- inception_4e/1x1
I0403 04:48:03.573629  8068 net.cpp:386] inception_4e/relu_1x1 -> inception_4e/1x1 (in-place)
I0403 04:48:03.573658  8068 net.cpp:141] Setting up inception_4e/relu_1x1
I0403 04:48:03.573680  8068 net.cpp:148] Top shape: 24 256 14 14 (1204224)
I0403 04:48:03.573698  8068 net.cpp:156] Memory required for data: 1218043392
I0403 04:48:03.573717  8068 layer_factory.hpp:77] Creating layer inception_4e/3x3_reduce
I0403 04:48:03.573743  8068 net.cpp:91] Creating Layer inception_4e/3x3_reduce
I0403 04:48:03.573765  8068 net.cpp:425] inception_4e/3x3_reduce <- inception_4d/output_inception_4d/output_0_split_2
I0403 04:48:03.573791  8068 net.cpp:399] inception_4e/3x3_reduce -> inception_4e/3x3_reduce
I0403 04:48:03.575263  8068 net.cpp:141] Setting up inception_4e/3x3_reduce
I0403 04:48:03.575299  8068 net.cpp:148] Top shape: 24 160 14 14 (752640)
I0403 04:48:03.575319  8068 net.cpp:156] Memory required for data: 1221053952
I0403 04:48:03.575341  8068 layer_factory.hpp:77] Creating layer inception_4e/relu_3x3_reduce
I0403 04:48:03.575367  8068 net.cpp:91] Creating Layer inception_4e/relu_3x3_reduce
I0403 04:48:03.575390  8068 net.cpp:425] inception_4e/relu_3x3_reduce <- inception_4e/3x3_reduce
I0403 04:48:03.575413  8068 net.cpp:386] inception_4e/relu_3x3_reduce -> inception_4e/3x3_reduce (in-place)
I0403 04:48:03.575438  8068 net.cpp:141] Setting up inception_4e/relu_3x3_reduce
I0403 04:48:03.575460  8068 net.cpp:148] Top shape: 24 160 14 14 (752640)
I0403 04:48:03.575479  8068 net.cpp:156] Memory required for data: 1224064512
I0403 04:48:03.575497  8068 layer_factory.hpp:77] Creating layer inception_4e/3x3
I0403 04:48:03.575533  8068 net.cpp:91] Creating Layer inception_4e/3x3
I0403 04:48:03.575557  8068 net.cpp:425] inception_4e/3x3 <- inception_4e/3x3_reduce
I0403 04:48:03.575585  8068 net.cpp:399] inception_4e/3x3 -> inception_4e/3x3
I0403 04:48:03.580302  8068 net.cpp:141] Setting up inception_4e/3x3
I0403 04:48:03.580338  8068 net.cpp:148] Top shape: 24 320 14 14 (1505280)
I0403 04:48:03.580358  8068 net.cpp:156] Memory required for data: 1230085632
I0403 04:48:03.580379  8068 layer_factory.hpp:77] Creating layer inception_4e/relu_3x3
I0403 04:48:03.580404  8068 net.cpp:91] Creating Layer inception_4e/relu_3x3
I0403 04:48:03.580425  8068 net.cpp:425] inception_4e/relu_3x3 <- inception_4e/3x3
I0403 04:48:03.580451  8068 net.cpp:386] inception_4e/relu_3x3 -> inception_4e/3x3 (in-place)
I0403 04:48:03.580477  8068 net.cpp:141] Setting up inception_4e/relu_3x3
I0403 04:48:03.580498  8068 net.cpp:148] Top shape: 24 320 14 14 (1505280)
I0403 04:48:03.580516  8068 net.cpp:156] Memory required for data: 1236106752
I0403 04:48:03.580534  8068 layer_factory.hpp:77] Creating layer inception_4e/5x5_reduce
I0403 04:48:03.580564  8068 net.cpp:91] Creating Layer inception_4e/5x5_reduce
I0403 04:48:03.580587  8068 net.cpp:425] inception_4e/5x5_reduce <- inception_4d/output_inception_4d/output_0_split_3
I0403 04:48:03.580612  8068 net.cpp:399] inception_4e/5x5_reduce -> inception_4e/5x5_reduce
I0403 04:48:03.581007  8068 net.cpp:141] Setting up inception_4e/5x5_reduce
I0403 04:48:03.581038  8068 net.cpp:148] Top shape: 24 32 14 14 (150528)
I0403 04:48:03.581058  8068 net.cpp:156] Memory required for data: 1236708864
I0403 04:48:03.581079  8068 layer_factory.hpp:77] Creating layer inception_4e/relu_5x5_reduce
I0403 04:48:03.581104  8068 net.cpp:91] Creating Layer inception_4e/relu_5x5_reduce
I0403 04:48:03.581125  8068 net.cpp:425] inception_4e/relu_5x5_reduce <- inception_4e/5x5_reduce
I0403 04:48:03.581151  8068 net.cpp:386] inception_4e/relu_5x5_reduce -> inception_4e/5x5_reduce (in-place)
I0403 04:48:03.581177  8068 net.cpp:141] Setting up inception_4e/relu_5x5_reduce
I0403 04:48:03.581198  8068 net.cpp:148] Top shape: 24 32 14 14 (150528)
I0403 04:48:03.581234  8068 net.cpp:156] Memory required for data: 1237310976
I0403 04:48:03.581255  8068 layer_factory.hpp:77] Creating layer inception_4e/5x5
I0403 04:48:03.581284  8068 net.cpp:91] Creating Layer inception_4e/5x5
I0403 04:48:03.581306  8068 net.cpp:425] inception_4e/5x5 <- inception_4e/5x5_reduce
I0403 04:48:03.581331  8068 net.cpp:399] inception_4e/5x5 -> inception_4e/5x5
I0403 04:48:03.582290  8068 net.cpp:141] Setting up inception_4e/5x5
I0403 04:48:03.582322  8068 net.cpp:148] Top shape: 24 128 14 14 (602112)
I0403 04:48:03.582341  8068 net.cpp:156] Memory required for data: 1239719424
I0403 04:48:03.582365  8068 layer_factory.hpp:77] Creating layer inception_4e/relu_5x5
I0403 04:48:03.582387  8068 net.cpp:91] Creating Layer inception_4e/relu_5x5
I0403 04:48:03.582409  8068 net.cpp:425] inception_4e/relu_5x5 <- inception_4e/5x5
I0403 04:48:03.582432  8068 net.cpp:386] inception_4e/relu_5x5 -> inception_4e/5x5 (in-place)
I0403 04:48:03.582455  8068 net.cpp:141] Setting up inception_4e/relu_5x5
I0403 04:48:03.582479  8068 net.cpp:148] Top shape: 24 128 14 14 (602112)
I0403 04:48:03.582495  8068 net.cpp:156] Memory required for data: 1242127872
I0403 04:48:03.582515  8068 layer_factory.hpp:77] Creating layer inception_4e/pool
I0403 04:48:03.582557  8068 net.cpp:91] Creating Layer inception_4e/pool
I0403 04:48:03.582581  8068 net.cpp:425] inception_4e/pool <- inception_4d/output_inception_4d/output_0_split_4
I0403 04:48:03.582603  8068 net.cpp:399] inception_4e/pool -> inception_4e/pool
I0403 04:48:03.582669  8068 net.cpp:141] Setting up inception_4e/pool
I0403 04:48:03.582698  8068 net.cpp:148] Top shape: 24 528 14 14 (2483712)
I0403 04:48:03.582716  8068 net.cpp:156] Memory required for data: 1252062720
I0403 04:48:03.582736  8068 layer_factory.hpp:77] Creating layer inception_4e/pool_proj
I0403 04:48:03.582765  8068 net.cpp:91] Creating Layer inception_4e/pool_proj
I0403 04:48:03.582789  8068 net.cpp:425] inception_4e/pool_proj <- inception_4e/pool
I0403 04:48:03.582814  8068 net.cpp:399] inception_4e/pool_proj -> inception_4e/pool_proj
I0403 04:48:03.583533  8068 net.cpp:141] Setting up inception_4e/pool_proj
I0403 04:48:03.583565  8068 net.cpp:148] Top shape: 24 128 14 14 (602112)
I0403 04:48:03.583585  8068 net.cpp:156] Memory required for data: 1254471168
I0403 04:48:03.583606  8068 layer_factory.hpp:77] Creating layer inception_4e/relu_pool_proj
I0403 04:48:03.583631  8068 net.cpp:91] Creating Layer inception_4e/relu_pool_proj
I0403 04:48:03.583653  8068 net.cpp:425] inception_4e/relu_pool_proj <- inception_4e/pool_proj
I0403 04:48:03.583676  8068 net.cpp:386] inception_4e/relu_pool_proj -> inception_4e/pool_proj (in-place)
I0403 04:48:03.583703  8068 net.cpp:141] Setting up inception_4e/relu_pool_proj
I0403 04:48:03.583724  8068 net.cpp:148] Top shape: 24 128 14 14 (602112)
I0403 04:48:03.583742  8068 net.cpp:156] Memory required for data: 1256879616
I0403 04:48:03.583760  8068 layer_factory.hpp:77] Creating layer inception_4e/output
I0403 04:48:03.583784  8068 net.cpp:91] Creating Layer inception_4e/output
I0403 04:48:03.583806  8068 net.cpp:425] inception_4e/output <- inception_4e/1x1
I0403 04:48:03.583827  8068 net.cpp:425] inception_4e/output <- inception_4e/3x3
I0403 04:48:03.583848  8068 net.cpp:425] inception_4e/output <- inception_4e/5x5
I0403 04:48:03.583868  8068 net.cpp:425] inception_4e/output <- inception_4e/pool_proj
I0403 04:48:03.583889  8068 net.cpp:399] inception_4e/output -> inception_4e/output
I0403 04:48:03.583937  8068 net.cpp:141] Setting up inception_4e/output
I0403 04:48:03.583968  8068 net.cpp:148] Top shape: 24 832 14 14 (3913728)
I0403 04:48:03.583995  8068 net.cpp:156] Memory required for data: 1272534528
I0403 04:48:03.584015  8068 layer_factory.hpp:77] Creating layer pool4/3x3_s2
I0403 04:48:03.584038  8068 net.cpp:91] Creating Layer pool4/3x3_s2
I0403 04:48:03.584059  8068 net.cpp:425] pool4/3x3_s2 <- inception_4e/output
I0403 04:48:03.584084  8068 net.cpp:399] pool4/3x3_s2 -> pool4/3x3_s2
I0403 04:48:03.584148  8068 net.cpp:141] Setting up pool4/3x3_s2
I0403 04:48:03.584189  8068 net.cpp:148] Top shape: 24 832 7 7 (978432)
I0403 04:48:03.584210  8068 net.cpp:156] Memory required for data: 1276448256
I0403 04:48:03.584229  8068 layer_factory.hpp:77] Creating layer pool4/3x3_s2_pool4/3x3_s2_0_split
I0403 04:48:03.584254  8068 net.cpp:91] Creating Layer pool4/3x3_s2_pool4/3x3_s2_0_split
I0403 04:48:03.584275  8068 net.cpp:425] pool4/3x3_s2_pool4/3x3_s2_0_split <- pool4/3x3_s2
I0403 04:48:03.584300  8068 net.cpp:399] pool4/3x3_s2_pool4/3x3_s2_0_split -> pool4/3x3_s2_pool4/3x3_s2_0_split_0
I0403 04:48:03.584326  8068 net.cpp:399] pool4/3x3_s2_pool4/3x3_s2_0_split -> pool4/3x3_s2_pool4/3x3_s2_0_split_1
I0403 04:48:03.584353  8068 net.cpp:399] pool4/3x3_s2_pool4/3x3_s2_0_split -> pool4/3x3_s2_pool4/3x3_s2_0_split_2
I0403 04:48:03.584379  8068 net.cpp:399] pool4/3x3_s2_pool4/3x3_s2_0_split -> pool4/3x3_s2_pool4/3x3_s2_0_split_3
I0403 04:48:03.584465  8068 net.cpp:141] Setting up pool4/3x3_s2_pool4/3x3_s2_0_split
I0403 04:48:03.584493  8068 net.cpp:148] Top shape: 24 832 7 7 (978432)
I0403 04:48:03.584513  8068 net.cpp:148] Top shape: 24 832 7 7 (978432)
I0403 04:48:03.584533  8068 net.cpp:148] Top shape: 24 832 7 7 (978432)
I0403 04:48:03.584553  8068 net.cpp:148] Top shape: 24 832 7 7 (978432)
I0403 04:48:03.584571  8068 net.cpp:156] Memory required for data: 1292103168
I0403 04:48:03.584590  8068 layer_factory.hpp:77] Creating layer inception_5a/1x1
I0403 04:48:03.584621  8068 net.cpp:91] Creating Layer inception_5a/1x1
I0403 04:48:03.584645  8068 net.cpp:425] inception_5a/1x1 <- pool4/3x3_s2_pool4/3x3_s2_0_split_0
I0403 04:48:03.584673  8068 net.cpp:399] inception_5a/1x1 -> inception_5a/1x1
I0403 04:48:03.587016  8068 net.cpp:141] Setting up inception_5a/1x1
I0403 04:48:03.587051  8068 net.cpp:148] Top shape: 24 256 7 7 (301056)
I0403 04:48:03.587071  8068 net.cpp:156] Memory required for data: 1293307392
I0403 04:48:03.587093  8068 layer_factory.hpp:77] Creating layer inception_5a/relu_1x1
I0403 04:48:03.587116  8068 net.cpp:91] Creating Layer inception_5a/relu_1x1
I0403 04:48:03.587138  8068 net.cpp:425] inception_5a/relu_1x1 <- inception_5a/1x1
I0403 04:48:03.587163  8068 net.cpp:386] inception_5a/relu_1x1 -> inception_5a/1x1 (in-place)
I0403 04:48:03.587191  8068 net.cpp:141] Setting up inception_5a/relu_1x1
I0403 04:48:03.587214  8068 net.cpp:148] Top shape: 24 256 7 7 (301056)
I0403 04:48:03.587232  8068 net.cpp:156] Memory required for data: 1294511616
I0403 04:48:03.587250  8068 layer_factory.hpp:77] Creating layer inception_5a/3x3_reduce
I0403 04:48:03.587280  8068 net.cpp:91] Creating Layer inception_5a/3x3_reduce
I0403 04:48:03.587303  8068 net.cpp:425] inception_5a/3x3_reduce <- pool4/3x3_s2_pool4/3x3_s2_0_split_1
I0403 04:48:03.587329  8068 net.cpp:399] inception_5a/3x3_reduce -> inception_5a/3x3_reduce
I0403 04:48:03.589133  8068 net.cpp:141] Setting up inception_5a/3x3_reduce
I0403 04:48:03.589169  8068 net.cpp:148] Top shape: 24 160 7 7 (188160)
I0403 04:48:03.589190  8068 net.cpp:156] Memory required for data: 1295264256
I0403 04:48:03.589212  8068 layer_factory.hpp:77] Creating layer inception_5a/relu_3x3_reduce
I0403 04:48:03.589234  8068 net.cpp:91] Creating Layer inception_5a/relu_3x3_reduce
I0403 04:48:03.589257  8068 net.cpp:425] inception_5a/relu_3x3_reduce <- inception_5a/3x3_reduce
I0403 04:48:03.589282  8068 net.cpp:386] inception_5a/relu_3x3_reduce -> inception_5a/3x3_reduce (in-place)
I0403 04:48:03.589309  8068 net.cpp:141] Setting up inception_5a/relu_3x3_reduce
I0403 04:48:03.589332  8068 net.cpp:148] Top shape: 24 160 7 7 (188160)
I0403 04:48:03.589350  8068 net.cpp:156] Memory required for data: 1296016896
I0403 04:48:03.589370  8068 layer_factory.hpp:77] Creating layer inception_5a/3x3
I0403 04:48:03.589398  8068 net.cpp:91] Creating Layer inception_5a/3x3
I0403 04:48:03.589421  8068 net.cpp:425] inception_5a/3x3 <- inception_5a/3x3_reduce
I0403 04:48:03.589447  8068 net.cpp:399] inception_5a/3x3 -> inception_5a/3x3
I0403 04:48:03.594104  8068 net.cpp:141] Setting up inception_5a/3x3
I0403 04:48:03.594153  8068 net.cpp:148] Top shape: 24 320 7 7 (376320)
I0403 04:48:03.594174  8068 net.cpp:156] Memory required for data: 1297522176
I0403 04:48:03.594197  8068 layer_factory.hpp:77] Creating layer inception_5a/relu_3x3
I0403 04:48:03.594221  8068 net.cpp:91] Creating Layer inception_5a/relu_3x3
I0403 04:48:03.594241  8068 net.cpp:425] inception_5a/relu_3x3 <- inception_5a/3x3
I0403 04:48:03.594266  8068 net.cpp:386] inception_5a/relu_3x3 -> inception_5a/3x3 (in-place)
I0403 04:48:03.594291  8068 net.cpp:141] Setting up inception_5a/relu_3x3
I0403 04:48:03.594313  8068 net.cpp:148] Top shape: 24 320 7 7 (376320)
I0403 04:48:03.594331  8068 net.cpp:156] Memory required for data: 1299027456
I0403 04:48:03.594349  8068 layer_factory.hpp:77] Creating layer inception_5a/5x5_reduce
I0403 04:48:03.594377  8068 net.cpp:91] Creating Layer inception_5a/5x5_reduce
I0403 04:48:03.594398  8068 net.cpp:425] inception_5a/5x5_reduce <- pool4/3x3_s2_pool4/3x3_s2_0_split_2
I0403 04:48:03.594425  8068 net.cpp:399] inception_5a/5x5_reduce -> inception_5a/5x5_reduce
I0403 04:48:03.594897  8068 net.cpp:141] Setting up inception_5a/5x5_reduce
I0403 04:48:03.594928  8068 net.cpp:148] Top shape: 24 32 7 7 (37632)
I0403 04:48:03.594947  8068 net.cpp:156] Memory required for data: 1299177984
I0403 04:48:03.594970  8068 layer_factory.hpp:77] Creating layer inception_5a/relu_5x5_reduce
I0403 04:48:03.595001  8068 net.cpp:91] Creating Layer inception_5a/relu_5x5_reduce
I0403 04:48:03.595024  8068 net.cpp:425] inception_5a/relu_5x5_reduce <- inception_5a/5x5_reduce
I0403 04:48:03.595046  8068 net.cpp:386] inception_5a/relu_5x5_reduce -> inception_5a/5x5_reduce (in-place)
I0403 04:48:03.595073  8068 net.cpp:141] Setting up inception_5a/relu_5x5_reduce
I0403 04:48:03.595098  8068 net.cpp:148] Top shape: 24 32 7 7 (37632)
I0403 04:48:03.595115  8068 net.cpp:156] Memory required for data: 1299328512
I0403 04:48:03.595135  8068 layer_factory.hpp:77] Creating layer inception_5a/5x5
I0403 04:48:03.595165  8068 net.cpp:91] Creating Layer inception_5a/5x5
I0403 04:48:03.595188  8068 net.cpp:425] inception_5a/5x5 <- inception_5a/5x5_reduce
I0403 04:48:03.595213  8068 net.cpp:399] inception_5a/5x5 -> inception_5a/5x5
I0403 04:48:03.596176  8068 net.cpp:141] Setting up inception_5a/5x5
I0403 04:48:03.596207  8068 net.cpp:148] Top shape: 24 128 7 7 (150528)
I0403 04:48:03.596226  8068 net.cpp:156] Memory required for data: 1299930624
I0403 04:48:03.596249  8068 layer_factory.hpp:77] Creating layer inception_5a/relu_5x5
I0403 04:48:03.596276  8068 net.cpp:91] Creating Layer inception_5a/relu_5x5
I0403 04:48:03.596298  8068 net.cpp:425] inception_5a/relu_5x5 <- inception_5a/5x5
I0403 04:48:03.596320  8068 net.cpp:386] inception_5a/relu_5x5 -> inception_5a/5x5 (in-place)
I0403 04:48:03.596345  8068 net.cpp:141] Setting up inception_5a/relu_5x5
I0403 04:48:03.596367  8068 net.cpp:148] Top shape: 24 128 7 7 (150528)
I0403 04:48:03.596385  8068 net.cpp:156] Memory required for data: 1300532736
I0403 04:48:03.596403  8068 layer_factory.hpp:77] Creating layer inception_5a/pool
I0403 04:48:03.596428  8068 net.cpp:91] Creating Layer inception_5a/pool
I0403 04:48:03.596451  8068 net.cpp:425] inception_5a/pool <- pool4/3x3_s2_pool4/3x3_s2_0_split_3
I0403 04:48:03.596474  8068 net.cpp:399] inception_5a/pool -> inception_5a/pool
I0403 04:48:03.596544  8068 net.cpp:141] Setting up inception_5a/pool
I0403 04:48:03.596572  8068 net.cpp:148] Top shape: 24 832 7 7 (978432)
I0403 04:48:03.596591  8068 net.cpp:156] Memory required for data: 1304446464
I0403 04:48:03.596609  8068 layer_factory.hpp:77] Creating layer inception_5a/pool_proj
I0403 04:48:03.596639  8068 net.cpp:91] Creating Layer inception_5a/pool_proj
I0403 04:48:03.596662  8068 net.cpp:425] inception_5a/pool_proj <- inception_5a/pool
I0403 04:48:03.596688  8068 net.cpp:399] inception_5a/pool_proj -> inception_5a/pool_proj
I0403 04:48:03.598309  8068 net.cpp:141] Setting up inception_5a/pool_proj
I0403 04:48:03.598345  8068 net.cpp:148] Top shape: 24 128 7 7 (150528)
I0403 04:48:03.598366  8068 net.cpp:156] Memory required for data: 1305048576
I0403 04:48:03.598407  8068 layer_factory.hpp:77] Creating layer inception_5a/relu_pool_proj
I0403 04:48:03.598430  8068 net.cpp:91] Creating Layer inception_5a/relu_pool_proj
I0403 04:48:03.598453  8068 net.cpp:425] inception_5a/relu_pool_proj <- inception_5a/pool_proj
I0403 04:48:03.598479  8068 net.cpp:386] inception_5a/relu_pool_proj -> inception_5a/pool_proj (in-place)
I0403 04:48:03.598506  8068 net.cpp:141] Setting up inception_5a/relu_pool_proj
I0403 04:48:03.598529  8068 net.cpp:148] Top shape: 24 128 7 7 (150528)
I0403 04:48:03.598547  8068 net.cpp:156] Memory required for data: 1305650688
I0403 04:48:03.598565  8068 layer_factory.hpp:77] Creating layer inception_5a/output
I0403 04:48:03.598588  8068 net.cpp:91] Creating Layer inception_5a/output
I0403 04:48:03.598609  8068 net.cpp:425] inception_5a/output <- inception_5a/1x1
I0403 04:48:03.598630  8068 net.cpp:425] inception_5a/output <- inception_5a/3x3
I0403 04:48:03.598651  8068 net.cpp:425] inception_5a/output <- inception_5a/5x5
I0403 04:48:03.598672  8068 net.cpp:425] inception_5a/output <- inception_5a/pool_proj
I0403 04:48:03.598695  8068 net.cpp:399] inception_5a/output -> inception_5a/output
I0403 04:48:03.598747  8068 net.cpp:141] Setting up inception_5a/output
I0403 04:48:03.598775  8068 net.cpp:148] Top shape: 24 832 7 7 (978432)
I0403 04:48:03.598794  8068 net.cpp:156] Memory required for data: 1309564416
I0403 04:48:03.598812  8068 layer_factory.hpp:77] Creating layer inception_5a/output_inception_5a/output_0_split
I0403 04:48:03.598834  8068 net.cpp:91] Creating Layer inception_5a/output_inception_5a/output_0_split
I0403 04:48:03.598856  8068 net.cpp:425] inception_5a/output_inception_5a/output_0_split <- inception_5a/output
I0403 04:48:03.598881  8068 net.cpp:399] inception_5a/output_inception_5a/output_0_split -> inception_5a/output_inception_5a/output_0_split_0
I0403 04:48:03.598909  8068 net.cpp:399] inception_5a/output_inception_5a/output_0_split -> inception_5a/output_inception_5a/output_0_split_1
I0403 04:48:03.598937  8068 net.cpp:399] inception_5a/output_inception_5a/output_0_split -> inception_5a/output_inception_5a/output_0_split_2
I0403 04:48:03.598963  8068 net.cpp:399] inception_5a/output_inception_5a/output_0_split -> inception_5a/output_inception_5a/output_0_split_3
I0403 04:48:03.599055  8068 net.cpp:141] Setting up inception_5a/output_inception_5a/output_0_split
I0403 04:48:03.599084  8068 net.cpp:148] Top shape: 24 832 7 7 (978432)
I0403 04:48:03.599104  8068 net.cpp:148] Top shape: 24 832 7 7 (978432)
I0403 04:48:03.599124  8068 net.cpp:148] Top shape: 24 832 7 7 (978432)
I0403 04:48:03.599143  8068 net.cpp:148] Top shape: 24 832 7 7 (978432)
I0403 04:48:03.599160  8068 net.cpp:156] Memory required for data: 1325219328
I0403 04:48:03.599179  8068 layer_factory.hpp:77] Creating layer inception_5b/1x1
I0403 04:48:03.599207  8068 net.cpp:91] Creating Layer inception_5b/1x1
I0403 04:48:03.599231  8068 net.cpp:425] inception_5b/1x1 <- inception_5a/output_inception_5a/output_0_split_0
I0403 04:48:03.599256  8068 net.cpp:399] inception_5b/1x1 -> inception_5b/1x1
I0403 04:48:03.602401  8068 net.cpp:141] Setting up inception_5b/1x1
I0403 04:48:03.602437  8068 net.cpp:148] Top shape: 24 384 7 7 (451584)
I0403 04:48:03.602458  8068 net.cpp:156] Memory required for data: 1327025664
I0403 04:48:03.602481  8068 layer_factory.hpp:77] Creating layer inception_5b/relu_1x1
I0403 04:48:03.602504  8068 net.cpp:91] Creating Layer inception_5b/relu_1x1
I0403 04:48:03.602524  8068 net.cpp:425] inception_5b/relu_1x1 <- inception_5b/1x1
I0403 04:48:03.602550  8068 net.cpp:386] inception_5b/relu_1x1 -> inception_5b/1x1 (in-place)
I0403 04:48:03.602576  8068 net.cpp:141] Setting up inception_5b/relu_1x1
I0403 04:48:03.602597  8068 net.cpp:148] Top shape: 24 384 7 7 (451584)
I0403 04:48:03.602615  8068 net.cpp:156] Memory required for data: 1328832000
I0403 04:48:03.602633  8068 layer_factory.hpp:77] Creating layer inception_5b/3x3_reduce
I0403 04:48:03.602661  8068 net.cpp:91] Creating Layer inception_5b/3x3_reduce
I0403 04:48:03.602700  8068 net.cpp:425] inception_5b/3x3_reduce <- inception_5a/output_inception_5a/output_0_split_1
I0403 04:48:03.602725  8068 net.cpp:399] inception_5b/3x3_reduce -> inception_5b/3x3_reduce
I0403 04:48:03.604725  8068 net.cpp:141] Setting up inception_5b/3x3_reduce
I0403 04:48:03.604759  8068 net.cpp:148] Top shape: 24 192 7 7 (225792)
I0403 04:48:03.604779  8068 net.cpp:156] Memory required for data: 1329735168
I0403 04:48:03.604801  8068 layer_factory.hpp:77] Creating layer inception_5b/relu_3x3_reduce
I0403 04:48:03.604825  8068 net.cpp:91] Creating Layer inception_5b/relu_3x3_reduce
I0403 04:48:03.604846  8068 net.cpp:425] inception_5b/relu_3x3_reduce <- inception_5b/3x3_reduce
I0403 04:48:03.604872  8068 net.cpp:386] inception_5b/relu_3x3_reduce -> inception_5b/3x3_reduce (in-place)
I0403 04:48:03.604897  8068 net.cpp:141] Setting up inception_5b/relu_3x3_reduce
I0403 04:48:03.604919  8068 net.cpp:148] Top shape: 24 192 7 7 (225792)
I0403 04:48:03.604938  8068 net.cpp:156] Memory required for data: 1330638336
I0403 04:48:03.604956  8068 layer_factory.hpp:77] Creating layer inception_5b/3x3
I0403 04:48:03.604982  8068 net.cpp:91] Creating Layer inception_5b/3x3
I0403 04:48:03.605013  8068 net.cpp:425] inception_5b/3x3 <- inception_5b/3x3_reduce
I0403 04:48:03.605041  8068 net.cpp:399] inception_5b/3x3 -> inception_5b/3x3
I0403 04:48:03.611830  8068 net.cpp:141] Setting up inception_5b/3x3
I0403 04:48:03.611865  8068 net.cpp:148] Top shape: 24 384 7 7 (451584)
I0403 04:48:03.611884  8068 net.cpp:156] Memory required for data: 1332444672
I0403 04:48:03.611907  8068 layer_factory.hpp:77] Creating layer inception_5b/relu_3x3
I0403 04:48:03.611935  8068 net.cpp:91] Creating Layer inception_5b/relu_3x3
I0403 04:48:03.611956  8068 net.cpp:425] inception_5b/relu_3x3 <- inception_5b/3x3
I0403 04:48:03.611979  8068 net.cpp:386] inception_5b/relu_3x3 -> inception_5b/3x3 (in-place)
I0403 04:48:03.612010  8068 net.cpp:141] Setting up inception_5b/relu_3x3
I0403 04:48:03.612033  8068 net.cpp:148] Top shape: 24 384 7 7 (451584)
I0403 04:48:03.612051  8068 net.cpp:156] Memory required for data: 1334251008
I0403 04:48:03.612071  8068 layer_factory.hpp:77] Creating layer inception_5b/5x5_reduce
I0403 04:48:03.612099  8068 net.cpp:91] Creating Layer inception_5b/5x5_reduce
I0403 04:48:03.612123  8068 net.cpp:425] inception_5b/5x5_reduce <- inception_5a/output_inception_5a/output_0_split_2
I0403 04:48:03.612149  8068 net.cpp:399] inception_5b/5x5_reduce -> inception_5b/5x5_reduce
I0403 04:48:03.612715  8068 net.cpp:141] Setting up inception_5b/5x5_reduce
I0403 04:48:03.612746  8068 net.cpp:148] Top shape: 24 48 7 7 (56448)
I0403 04:48:03.612766  8068 net.cpp:156] Memory required for data: 1334476800
I0403 04:48:03.612787  8068 layer_factory.hpp:77] Creating layer inception_5b/relu_5x5_reduce
I0403 04:48:03.612812  8068 net.cpp:91] Creating Layer inception_5b/relu_5x5_reduce
I0403 04:48:03.612833  8068 net.cpp:425] inception_5b/relu_5x5_reduce <- inception_5b/5x5_reduce
I0403 04:48:03.612855  8068 net.cpp:386] inception_5b/relu_5x5_reduce -> inception_5b/5x5_reduce (in-place)
I0403 04:48:03.612879  8068 net.cpp:141] Setting up inception_5b/relu_5x5_reduce
I0403 04:48:03.612902  8068 net.cpp:148] Top shape: 24 48 7 7 (56448)
I0403 04:48:03.612920  8068 net.cpp:156] Memory required for data: 1334702592
I0403 04:48:03.612937  8068 layer_factory.hpp:77] Creating layer inception_5b/5x5
I0403 04:48:03.612967  8068 net.cpp:91] Creating Layer inception_5b/5x5
I0403 04:48:03.612994  8068 net.cpp:425] inception_5b/5x5 <- inception_5b/5x5_reduce
I0403 04:48:03.613026  8068 net.cpp:399] inception_5b/5x5 -> inception_5b/5x5
I0403 04:48:03.614346  8068 net.cpp:141] Setting up inception_5b/5x5
I0403 04:48:03.614378  8068 net.cpp:148] Top shape: 24 128 7 7 (150528)
I0403 04:48:03.614398  8068 net.cpp:156] Memory required for data: 1335304704
I0403 04:48:03.614419  8068 layer_factory.hpp:77] Creating layer inception_5b/relu_5x5
I0403 04:48:03.614446  8068 net.cpp:91] Creating Layer inception_5b/relu_5x5
I0403 04:48:03.614470  8068 net.cpp:425] inception_5b/relu_5x5 <- inception_5b/5x5
I0403 04:48:03.614511  8068 net.cpp:386] inception_5b/relu_5x5 -> inception_5b/5x5 (in-place)
I0403 04:48:03.614537  8068 net.cpp:141] Setting up inception_5b/relu_5x5
I0403 04:48:03.614559  8068 net.cpp:148] Top shape: 24 128 7 7 (150528)
I0403 04:48:03.614578  8068 net.cpp:156] Memory required for data: 1335906816
I0403 04:48:03.614595  8068 layer_factory.hpp:77] Creating layer inception_5b/pool
I0403 04:48:03.614619  8068 net.cpp:91] Creating Layer inception_5b/pool
I0403 04:48:03.614639  8068 net.cpp:425] inception_5b/pool <- inception_5a/output_inception_5a/output_0_split_3
I0403 04:48:03.614665  8068 net.cpp:399] inception_5b/pool -> inception_5b/pool
I0403 04:48:03.614733  8068 net.cpp:141] Setting up inception_5b/pool
I0403 04:48:03.614763  8068 net.cpp:148] Top shape: 24 832 7 7 (978432)
I0403 04:48:03.614780  8068 net.cpp:156] Memory required for data: 1339820544
I0403 04:48:03.614799  8068 layer_factory.hpp:77] Creating layer inception_5b/pool_proj
I0403 04:48:03.614827  8068 net.cpp:91] Creating Layer inception_5b/pool_proj
I0403 04:48:03.614850  8068 net.cpp:425] inception_5b/pool_proj <- inception_5b/pool
I0403 04:48:03.614876  8068 net.cpp:399] inception_5b/pool_proj -> inception_5b/pool_proj
I0403 04:48:03.616494  8068 net.cpp:141] Setting up inception_5b/pool_proj
I0403 04:48:03.616529  8068 net.cpp:148] Top shape: 24 128 7 7 (150528)
I0403 04:48:03.616549  8068 net.cpp:156] Memory required for data: 1340422656
I0403 04:48:03.616572  8068 layer_factory.hpp:77] Creating layer inception_5b/relu_pool_proj
I0403 04:48:03.616600  8068 net.cpp:91] Creating Layer inception_5b/relu_pool_proj
I0403 04:48:03.616621  8068 net.cpp:425] inception_5b/relu_pool_proj <- inception_5b/pool_proj
I0403 04:48:03.616644  8068 net.cpp:386] inception_5b/relu_pool_proj -> inception_5b/pool_proj (in-place)
I0403 04:48:03.616668  8068 net.cpp:141] Setting up inception_5b/relu_pool_proj
I0403 04:48:03.616690  8068 net.cpp:148] Top shape: 24 128 7 7 (150528)
I0403 04:48:03.616708  8068 net.cpp:156] Memory required for data: 1341024768
I0403 04:48:03.616725  8068 layer_factory.hpp:77] Creating layer inception_5b/output
I0403 04:48:03.616749  8068 net.cpp:91] Creating Layer inception_5b/output
I0403 04:48:03.616768  8068 net.cpp:425] inception_5b/output <- inception_5b/1x1
I0403 04:48:03.616789  8068 net.cpp:425] inception_5b/output <- inception_5b/3x3
I0403 04:48:03.616808  8068 net.cpp:425] inception_5b/output <- inception_5b/5x5
I0403 04:48:03.616829  8068 net.cpp:425] inception_5b/output <- inception_5b/pool_proj
I0403 04:48:03.616857  8068 net.cpp:399] inception_5b/output -> inception_5b/output
I0403 04:48:03.616905  8068 net.cpp:141] Setting up inception_5b/output
I0403 04:48:03.616936  8068 net.cpp:148] Top shape: 24 1024 7 7 (1204224)
I0403 04:48:03.616956  8068 net.cpp:156] Memory required for data: 1345841664
I0403 04:48:03.616976  8068 layer_factory.hpp:77] Creating layer pool5/7x7_s1
I0403 04:48:03.617004  8068 net.cpp:91] Creating Layer pool5/7x7_s1
I0403 04:48:03.617027  8068 net.cpp:425] pool5/7x7_s1 <- inception_5b/output
I0403 04:48:03.617050  8068 net.cpp:399] pool5/7x7_s1 -> pool5/7x7_s1
I0403 04:48:03.617101  8068 net.cpp:141] Setting up pool5/7x7_s1
I0403 04:48:03.617130  8068 net.cpp:148] Top shape: 24 1024 1 1 (24576)
I0403 04:48:03.617149  8068 net.cpp:156] Memory required for data: 1345939968
I0403 04:48:03.617168  8068 layer_factory.hpp:77] Creating layer pool5/drop_7x7_s1
I0403 04:48:03.617192  8068 net.cpp:91] Creating Layer pool5/drop_7x7_s1
I0403 04:48:03.617213  8068 net.cpp:425] pool5/drop_7x7_s1 <- pool5/7x7_s1
I0403 04:48:03.617236  8068 net.cpp:386] pool5/drop_7x7_s1 -> pool5/7x7_s1 (in-place)
I0403 04:48:03.617287  8068 net.cpp:141] Setting up pool5/drop_7x7_s1
I0403 04:48:03.617316  8068 net.cpp:148] Top shape: 24 1024 1 1 (24576)
I0403 04:48:03.617334  8068 net.cpp:156] Memory required for data: 1346038272
I0403 04:48:03.617352  8068 layer_factory.hpp:77] Creating layer loss3/classifier_plantvillage
I0403 04:48:03.617377  8068 net.cpp:91] Creating Layer loss3/classifier_plantvillage
I0403 04:48:03.617416  8068 net.cpp:425] loss3/classifier_plantvillage <- pool5/7x7_s1
I0403 04:48:03.617446  8068 net.cpp:399] loss3/classifier_plantvillage -> loss3/classifier_plantvillage
I0403 04:48:03.617862  8068 net.cpp:141] Setting up loss3/classifier_plantvillage
I0403 04:48:03.617893  8068 net.cpp:148] Top shape: 24 38 (912)
I0403 04:48:03.617911  8068 net.cpp:156] Memory required for data: 1346041920
I0403 04:48:03.617934  8068 layer_factory.hpp:77] Creating layer loss1/loss
I0403 04:48:03.617969  8068 net.cpp:91] Creating Layer loss1/loss
I0403 04:48:03.618005  8068 net.cpp:425] loss1/loss <- loss1/classifier_plantvillage
I0403 04:48:03.618031  8068 net.cpp:425] loss1/loss <- label_data_1_split_0
I0403 04:48:03.618054  8068 net.cpp:399] loss1/loss -> loss1/loss
…
I0403 04:48:03.630252  8068 net.cpp:313] The NetState phase (1) differed from the phase (0) specified by a rule in layer data
I0403 04:48:03.635054  8068 net.cpp:49] Initializing net from parameters: 
state {
  phase: TEST
}
layer {
  name: "data"
  type: "Data"
  top: "data"
  top: "label"
  include {
    phase: TEST
  }
  transform_param {
    mirror: false
    crop_size: 224
    mean_file: "/home/mohanty/data/final_dataset/lmdb/segmented-80-20/mean.binaryproto"
  }
  data_param {
    source: "/home/mohanty/data/final_dataset/lmdb/segmented-80-20/test_db"
    batch_size: 24
    backend: LMDB
  }
}
layer {
  name: "conv1/7x7_s2"
  type: "Convolution"
  bottom: "data"
  top: "conv1/7x7_s2"
  param {
    lr_mult: 1
    decay_mult: 1
  }
  param {
    lr_mult: 2
    decay_mult: 0
  }
  convolution_param {
    num_output: 64
    pad: 3
    kernel_size: 7
    stride: 2
    weight_filler {
      type: "xavier"
      std: 0.1
    }
    bias_filler {
      type: "constant"
      value: 0.2
    }
  }
}
layer {
  name: "conv1/relu_7x7"
  type: "ReLU"
  bottom: "conv1/7x7_s2"
  top: "conv1/7x7_s2"
}
layer {
  name: "pool1/3x3_s2"
  type: "Pooling"
  bottom: "conv1/7x7_s2"
  top: "pool1/3x3_s2"
  pooling_param {
    pool: MAX
    kernel_size: 3
    stride: 2
  }
}
layer {
  name: "pool1/norm1"
  type: "LRN"
  bottom: "pool1/3x3_s2"
  top: "pool1/norm1"
  lrn_param {
    local_size: 5
    alpha: 0.0001
    beta: 0.75
  }
}
layer {
  name: "conv2/3x3_reduce"
  type: "Convolution"
  bottom: "pool1/norm1"
  top: "conv2/3x3_reduce"
  param {
    lr_mult: 1
    decay_mult: 1
  }
  param {
    lr_mult: 2
    decay_mult: 0
  }
  convolution_param {
    num_output: 64
    kernel_size: 1
    weight_filler {
      type: "xavier"
      std: 0.1
    }
    bias_filler {
      type: "constant"
      value: 0.2
    }
  }
}
layer {
  name: "conv2/relu_3x3_reduce"
  type: "ReLU"
  bottom: "conv2/3x3_reduce"
  top: "conv2/3x3_reduce"
}
layer {
  name: "conv2/3x3"
  type: "Convolution"
  bottom: "conv2/3x3_reduce"
  top: "conv2/3x3"
  param {
    lr_mult: 1
    decay_mult: 1
  }
  param {
    lr_mult: 2
    decay_mult: 0
  }
  convolution_param {
    num_output: 192
    pad: 1
    kernel_size: 3
    weight_filler {
      type: "xavier"
      std: 0.03
    }
    bias_filler {
      type: "constant"
      value: 0.2
    }
  }
}
layer {
  name: "conv2/relu_3x3"
  type: "ReLU"
  bottom: "conv2/3x3"
  top: "conv2/3x3"
}
layer {
  name: "conv2/norm2"
  type: "LRN"
  bottom: "conv2/3x3"
  top: "conv2/norm2"
  lrn_param {
    local_size: 5
    alpha: 0.0001
    beta: 0.75
  }
}
layer {
  name: "pool2/3x3_s2"
  type: "Pooling"
  bottom: "conv2/norm2"
  top: "pool2/3x3_s2"
  pooling_param {
    pool: MAX
    kernel_size: 3
    stride: 2
  }
}
layer {
  name: "inception_3a/1x1"
  type: "Convolution"
  bottom: "pool2/3x3_s2"
  top: "inception_3a/1x1"
  param {
    lr_mult: 1
    decay_mult: 1
  }
  param {
    lr_mult: 2
    decay_mult: 0
  }
  convolution_param {
    num_output: 64
    kernel_size: 1
    weight_filler {
      type: "xavier"
      std: 0.03
    }
    bias_filler {
      type: "constant"
      value: 0.2
    }
  }
}
layer {
  name: "inception_3a/relu_1x1"
  type: "ReLU"
  bottom: "inception_3a/1x1"
  top: "inception_3a/1x1"
}
layer {
  name: "inception_3a/3x3_reduce"
  type: "Convolution"
  bottom: "pool2/3x3_s2"
  top: "inception_3a/3x3_reduce"
  param {
    lr_mult: 1
    decay_mult: 1
  }
  param {
    lr_mult: 2
    decay_mult: 0
  }
  convolution_param {
    num_output: 96
    kernel_size: 1
    weight_filler {
      type: "xavier"
      std: 0.09
    }
    bias_filler {
      type: "constant"
      value: 0.2
    }
  }
}
layer {
  name: "inception_3a/relu_3x3_reduce"
  type: "ReLU"
  bottom: "inception_3a/3x3_reduce"
  top: "inception_3a/3x3_reduce"
}
layer {
  name: "inception_3a/3x3"
  type: "Convolution"
  bottom: "inception_3a/3x3_reduce"
  top: "inception_3a/3x3"
  param {
    lr_mult: 1
    decay_mult: 1
  }
  param {
    lr_mult: 2
    decay_mult: 0
  }
  convolution_param {
    num_output: 128
    pad: 1
    kernel_size: 3
    weight_filler {
      type: "xavier"
      std: 0.03
    }
    bias_filler {
      type: "constant"
      value: 0.2
    }
  }
}
layer {
  name: "inception_3a/relu_3x3"
  type: "ReLU"
  bottom: "inception_3a/3x3"
  top: "inception_3a/3x3"
}
layer {
  name: "inception_3a/5x5_reduce"
  type: "Convolution"
  bottom: "pool2/3x3_s2"
  top: "inception_3a/5x5_reduce"
  param {
    lr_mult: 1
    decay_mult: 1
  }
  param {
    lr_mult: 2
    decay_mult: 0
  }
  convolution_param {
    num_output: 16
    kernel_size: 1
    weight_filler {
      type: "xavier"
      std: 0.2
    }
    bias_filler {
      type: "constant"
      value: 0.2
    }
  }
}
layer {
  name: "inception_3a/relu_5x5_reduce"
  type: "ReLU"
  bottom: "inception_3a/5x5_reduce"
  top: "inception_3a/5x5_reduce"
}
layer {
  name: "inception_3a/5x5"
  type: "Convolution"
  bottom: "inception_3a/5x5_reduce"
  top: "inception_3a/5x5"
  param {
    lr_mult: 1
    decay_mult: 1
  }
  param {
    lr_mult: 2
    decay_mult: 0
  }
  convolution_param {
    num_output: 32
    pad: 2
    kernel_size: 5
    weight_filler {
      type: "xavier"
      std: 0.03
    }
    bias_filler {
      type: "constant"
      value: 0.2
    }
  }
}
layer {
  name: "inception_3a/relu_5x5"
  type: "ReLU"
  bottom: "inception_3a/5x5"
  top: "inception_3a/5x5"
}
layer {
  name: "inception_3a/pool"
  type: "Pooling"
  bottom: "pool2/3x3_s2"
  top: "inception_3a/pool"
  pooling_param {
    pool: MAX
    kernel_size: 3
    stride: 1
    pad: 1
  }
}
layer {
  name: "inception_3a/pool_proj"
  type: "Convolution"
  bottom: "inception_3a/pool"
  top: "inception_3a/pool_proj"
  param {
    lr_mult: 1
    decay_mult: 1
  }
  param {
    lr_mult: 2
    decay_mult: 0
  }
  convolution_param {
    num_output: 32
    kernel_size: 1
    weight_filler {
      type: "xavier"
      std: 0.1
    }
    bias_filler {
      type: "constant"
      value: 0.2
    }
  }
}
layer {
  name: "inception_3a/relu_pool_proj"
  type: "ReLU"
  bottom: "inception_3a/pool_proj"
  top: "inception_3a/pool_proj"
}
layer {
  name: "inception_3a/output"
  type: "Concat"
  bottom: "inception_3a/1x1"
  bottom: "inception_3a/3x3"
  bottom: "inception_3a/5x5"
  bottom: "inception_3a/pool_proj"
  top: "inception_3a/output"
}
layer {
  name: "inception_3b/1x1"
  type: "Convolution"
  bottom: "inception_3a/output"
  top: "inception_3b/1x1"
  param {
    lr_mult: 1
    decay_mult: 1
  }
  param {
    lr_mult: 2
    decay_mult: 0
  }
  convolution_param {
    num_output: 128
    kernel_size: 1
    weight_filler {
      type: "xavier"
      std: 0.03
    }
    bias_filler {
      type: "constant"
      value: 0.2
    }
  }
}
layer {
  name: "inception_3b/relu_1x1"
  type: "ReLU"
  bottom: "inception_3b/1x1"
  top: "inception_3b/1x1"
}
layer {
  name: "inception_3b/3x3_reduce"
  type: "Convolution"
  bottom: "inception_3a/output"
  top: "inception_3b/3x3_reduce"
  param {
    lr_mult: 1
    decay_mult: 1
  }
  param {
    lr_mult: 2
    decay_mult: 0
  }
  convolution_param {
    num_output: 128
    kernel_size: 1
    weight_filler {
      type: "xavier"
      std: 0.09
    }
    bias_filler {
      type: "constant"
      value: 0.2
    }
  }
}
layer {
  name: "inception_3b/relu_3x3_reduce"
  type: "ReLU"
  bottom: "inception_3b/3x3_reduce"
  top: "inception_3b/3x3_reduce"
}
layer {
  name: "inception_3b/3x3"
  type: "Convolution"
  bottom: "inception_3b/3x3_reduce"
  top: "inception_3b/3x3"
  param {
    lr_mult: 1
    decay_mult: 1
  }
  param {
    lr_mult: 2
    decay_mult: 0
  }
  convolution_param {
    num_output: 192
    pad: 1
    kernel_size: 3
    weight_filler {
      type: "xavier"
      std: 0.03
    }
    bias_filler {
      type: "constant"
      value: 0.2
    }
  }
}
layer {
  name: "inception_3b/relu_3x3"
  type: "ReLU"
  bottom: "inception_3b/3x3"
  top: "inception_3b/3x3"
}
layer {
  name: "inception_3b/5x5_reduce"
  type: "Convolution"
  bottom: "inception_3a/output"
  top: "inception_3b/5x5_reduce"
  param {
    lr_mult: 1
    decay_mult: 1
  }
  param {
    lr_mult: 2
    decay_mult: 0
  }
  convolution_param {
    num_output: 32
    kernel_size: 1
    weight_filler {
      type: "xavier"
      std: 0.2
    }
    bias_filler {
      type: "constant"
      value: 0.2
    }
  }
}
layer {
  name: "inception_3b/relu_5x5_reduce"
  type: "ReLU"
  bottom: "inception_3b/5x5_reduce"
  top: "inception_3b/5x5_reduce"
}
layer {
  name: "inception_3b/5x5"
  type: "Convolution"
  bottom: "inception_3b/5x5_reduce"
  top: "inception_3b/5x5"
  param {
    lr_mult: 1
    decay_mult: 1
  }
  param {
    lr_mult: 2
    decay_mult: 0
  }
  convolution_param {
    num_output: 96
    pad: 2
    kernel_size: 5
    weight_filler {
      type: "xavier"
      std: 0.03
    }
    bias_filler {
      type: "constant"
      value: 0.2
    }
  }
}
layer {
  name: "inception_3b/relu_5x5"
  type: "ReLU"
  bottom: "inception_3b/5x5"
  top: "inception_3b/5x5"
}
layer {
  name: "inception_3b/pool"
  type: "Pooling"
  bottom: "inception_3a/output"
  top: "inception_3b/pool"
  pooling_param {
    pool: MAX
    kernel_size: 3
    stride: 1
    pad: 1
  }
}
layer {
  name: "inception_3b/pool_proj"
  type: "Convolution"
  bottom: "inception_3b/pool"
  top: "inception_3b/pool_proj"
  param {
    lr_mult: 1
    decay_mult: 1
  }
  param {
    lr_mult: 2
    decay_mult: 0
  }
  convolution_param {
    num_output: 64
    kernel_size: 1
    weight_filler {
      type: "xavier"
      std: 0.1
    }
    bias_filler {
      type: "constant"
      value: 0.2
    }
  }
}
layer {
  name: "inception_3b/relu_pool_proj"
  type: "ReLU"
  bottom: "inception_3b/pool_proj"
  top: "inception_3b/pool_proj"
}
layer {
  name: "inception_3b/output"
  type: "Concat"
  bottom: "inception_3b/1x1"
  bottom: "inception_3b/3x3"
  bottom: "inception_3b/5x5"
  bottom: "inception_3b/pool_proj"
  top: "inception_3b/output"
}
layer {
  name: "pool3/3x3_s2"
  type: "Pooling"
  bottom: "inception_3b/output"
  top: "pool3/3x3_s2"
  pooling_param {
    pool: MAX
    kernel_size: 3
    stride: 2
  }
}
layer {
  name: "inception_4a/1x1"
  type: "Convolution"
  bottom: "pool3/3x3_s2"
  top: "inception_4a/1x1"
  param {
    lr_mult: 1
    decay_mult: 1
  }
  param {
    lr_mult: 2
    decay_mult: 0
  }
  convolution_param {
    num_output: 192
    kernel_size: 1
    weight_filler {
      type: "xavier"
      std: 0.03
    }
    bias_filler {
      type: "constant"
      value: 0.2
    }
  }
}
layer {
  name: "inception_4a/relu_1x1"
  type: "ReLU"
  bottom: "inception_4a/1x1"
  top: "inception_4a/1x1"
}
layer {
  name: "inception_4a/3x3_reduce"
  type: "Convolution"
  bottom: "pool3/3x3_s2"
  top: "inception_4a/3x3_reduce"
  param {
    lr_mult: 1
    decay_mult: 1
  }
  param {
    lr_mult: 2
    decay_mult: 0
  }
  convolution_param {
    num_output: 96
    kernel_size: 1
    weight_filler {
      type: "xavier"
      std: 0.09
    }
    bias_filler {
      type: "constant"
      value: 0.2
    }
  }
}
layer {
  name: "inception_4a/relu_3x3_reduce"
  type: "ReLU"
  bottom: "inception_4a/3x3_reduce"
  top: "inception_4a/3x3_reduce"
}
layer {
  name: "inception_4a/3x3"
  type: "Convolution"
  bottom: "inception_4a/3x3_reduce"
  top: "inception_4a/3x3"
  param {
    lr_mult: 1
    decay_mult: 1
  }
  param {
    lr_mult: 2
    decay_mult: 0
  }
  convolution_param {
    num_output: 208
    pad: 1
    kernel_size: 3
    weight_filler {
      type: "xavier"
      std: 0.03
    }
    bias_filler {
      type: "constant"
      value: 0.2
    }
  }
}
layer {
  name: "inception_4a/relu_3x3"
  type: "ReLU"
  bottom: "inception_4a/3x3"
  top: "inception_4a/3x3"
}
layer {
  name: "inception_4a/5x5_reduce"
  type: "Convolution"
  bottom: "pool3/3x3_s2"
  top: "inception_4a/5x5_reduce"
  param {
    lr_mult: 1
    decay_mult: 1
  }
  param {
    lr_mult: 2
    decay_mult: 0
  }
  convolution_param {
    num_output: 16
    kernel_size: 1
    weight_filler {
      type: "xavier"
      std: 0.2
    }
    bias_filler {
      type: "constant"
      value: 0.2
    }
  }
}
layer {
  name: "inception_4a/relu_5x5_reduce"
  type: "ReLU"
  bottom: "inception_4a/5x5_reduce"
  top: "inception_4a/5x5_reduce"
}
layer {
  name: "inception_4a/5x5"
  type: "Convolution"
  bottom: "inception_4a/5x5_reduce"
  top: "inception_4a/5x5"
  param {
    lr_mult: 1
    decay_mult: 1
  }
  param {
    lr_mult: 2
    decay_mult: 0
  }
  convolution_param {
    num_output: 48
    pad: 2
    kernel_size: 5
    weight_filler {
      type: "xavier"
      std: 0.03
    }
    bias_filler {
      type: "constant"
      value: 0.2
    }
  }
}
layer {
  name: "inception_4a/relu_5x5"
  type: "ReLU"
  bottom: "inception_4a/5x5"
  top: "inception_4a/5x5"
}
layer {
  name: "inception_4a/pool"
  type: "Pooling"
  bottom: "pool3/3x3_s2"
  top: "inception_4a/pool"
  pooling_param {
    pool: MAX
    kernel_size: 3
    stride: 1
    pad: 1
  }
}
layer {
  name: "inception_4a/pool_proj"
  type: "Convolution"
  bottom: "inception_4a/pool"
  top: "inception_4a/pool_proj"
  param {
    lr_mult: 1
    decay_mult: 1
  }
  param {
    lr_mult: 2
    decay_mult: 0
  }
  convolution_param {
    num_output: 64
    kernel_size: 1
    weight_filler {
      type: "xavier"
      std: 0.1
    }
    bias_filler {
      type: "constant"
      value: 0.2
    }
  }
}
layer {
  name: "inception_4a/relu_pool_proj"
  type: "ReLU"
  bottom: "inception_4a/pool_proj"
  top: "inception_4a/pool_proj"
}
layer {
  name: "inception_4a/output"
  type: "Concat"
  bottom: "inception_4a/1x1"
  bottom: "inception_4a/3x3"
  bottom: "inception_4a/5x5"
  bottom: "inception_4a/pool_proj"
  top: "inception_4a/output"
}
layer {
  name: "loss1/ave_pool"
  type: "Pooling"
  bottom: "inception_4a/output"
  top: "loss1/ave_pool"
  pooling_param {
    pool: AVE
    kernel_size: 5
    stride: 3
  }
}
layer {
  name: "loss1/conv"
  type: "Convolution"
  bottom: "loss1/ave_pool"
  top: "loss1/conv"
  param {
    lr_mult: 1
    decay_mult: 1
  }
  param {
    lr_mult: 2
    decay_mult: 0
  }
  convolution_param {
    num_output: 128
    kernel_size: 1
    weight_filler {
      type: "xavier"
      std: 0.08
    }
    bias_filler {
      type: "constant"
      value: 0.2
    }
  }
}
layer {
  name: "loss1/relu_conv"
  type: "ReLU"
  bottom: "loss1/conv"
  top: "loss1/conv"
}
layer {
  name: "loss1/fc"
  type: "InnerProduct"
  bottom: "loss1/conv"
  top: "loss1/fc"
  param {
    lr_mult: 1
    decay_mult: 1
  }
  param {
    lr_mult: 2
    decay_mult: 0
  }
  inner_product_param {
    num_output: 1024
    weight_filler {
      type: "xavier"
      std: 0.02
    }
    bias_filler {
      type: "constant"
      value: 0.2
    }
  }
}
layer {
  name: "loss1/relu_fc"
  type: "ReLU"
  bottom: "loss1/fc"
  top: "loss1/fc"
}
layer {
  name: "loss1/drop_fc"
  type: "Dropout"
  bottom: "loss1/fc"
  top: "loss1/fc"
  dropout_param {
    dropout_ratio: 0.7
  }
}
layer {
  name: "loss1/classifier_plantvillage"
  type: "InnerProduct"
  bottom: "loss1/fc"
  top: "loss1/classifier_plantvillage"
  param {
    lr_mult: 1
    decay_mult: 1
  }
  param {
    lr_mult: 2
    decay_mult: 0
  }
  inner_product_param {
    num_output: 38
    weight_filler {
      type: "xavier"
      std: 0.0009765625
    }
    bias_filler {
      type: "constant"
      value: 0
    }
  }
}
layer {
  name: "inception_4b/1x1"
  type: "Convolution"
  bottom: "inception_4a/output"
  top: "inception_4b/1x1"
  param {
    lr_mult: 1
    decay_mult: 1
  }
  param {
    lr_mult: 2
    decay_mult: 0
  }
  convolution_param {
    num_output: 160
    kernel_size: 1
    weight_filler {
      type: "xavier"
      std: 0.03
    }
    bias_filler {
      type: "constant"
      value: 0.2
    }
  }
}
layer {
…
I0403 04:48:03.783859  8068 layer_factory.hpp:77] Creating layer inception_4c/pool
I0403 04:48:03.783886  8068 net.cpp:91] Creating Layer inception_4c/pool
I0403 04:48:03.783907  8068 net.cpp:425] inception_4c/pool <- inception_4b/output_inception_4b/output_0_split_3
I0403 04:48:03.783932  8068 net.cpp:399] inception_4c/pool -> inception_4c/pool
I0403 04:48:03.784018  8068 net.cpp:141] Setting up inception_4c/pool
I0403 04:48:03.784056  8068 net.cpp:148] Top shape: 24 512 14 14 (2408448)
I0403 04:48:03.784075  8068 net.cpp:156] Memory required for data: 1060605120
I0403 04:48:03.784095  8068 layer_factory.hpp:77] Creating layer inception_4c/pool_proj
I0403 04:48:03.784122  8068 net.cpp:91] Creating Layer inception_4c/pool_proj
I0403 04:48:03.784145  8068 net.cpp:425] inception_4c/pool_proj <- inception_4c/pool
I0403 04:48:03.784169  8068 net.cpp:399] inception_4c/pool_proj -> inception_4c/pool_proj
I0403 04:48:03.784689  8068 net.cpp:141] Setting up inception_4c/pool_proj
I0403 04:48:03.784723  8068 net.cpp:148] Top shape: 24 64 14 14 (301056)
I0403 04:48:03.784745  8068 net.cpp:156] Memory required for data: 1061809344
I0403 04:48:03.784768  8068 layer_factory.hpp:77] Creating layer inception_4c/relu_pool_proj
I0403 04:48:03.784792  8068 net.cpp:91] Creating Layer inception_4c/relu_pool_proj
I0403 04:48:03.784812  8068 net.cpp:425] inception_4c/relu_pool_proj <- inception_4c/pool_proj
I0403 04:48:03.784834  8068 net.cpp:386] inception_4c/relu_pool_proj -> inception_4c/pool_proj (in-place)
I0403 04:48:03.784858  8068 net.cpp:141] Setting up inception_4c/relu_pool_proj
I0403 04:48:03.784880  8068 net.cpp:148] Top shape: 24 64 14 14 (301056)
I0403 04:48:03.784898  8068 net.cpp:156] Memory required for data: 1063013568
I0403 04:48:03.784916  8068 layer_factory.hpp:77] Creating layer inception_4c/output
I0403 04:48:03.784940  8068 net.cpp:91] Creating Layer inception_4c/output
I0403 04:48:03.784958  8068 net.cpp:425] inception_4c/output <- inception_4c/1x1
I0403 04:48:03.784978  8068 net.cpp:425] inception_4c/output <- inception_4c/3x3
I0403 04:48:03.785004  8068 net.cpp:425] inception_4c/output <- inception_4c/5x5
I0403 04:48:03.785027  8068 net.cpp:425] inception_4c/output <- inception_4c/pool_proj
I0403 04:48:03.785053  8068 net.cpp:399] inception_4c/output -> inception_4c/output
I0403 04:48:03.785104  8068 net.cpp:141] Setting up inception_4c/output
I0403 04:48:03.785136  8068 net.cpp:148] Top shape: 24 512 14 14 (2408448)
I0403 04:48:03.785156  8068 net.cpp:156] Memory required for data: 1072647360
I0403 04:48:03.785174  8068 layer_factory.hpp:77] Creating layer inception_4c/output_inception_4c/output_0_split
I0403 04:48:03.785197  8068 net.cpp:91] Creating Layer inception_4c/output_inception_4c/output_0_split
I0403 04:48:03.785218  8068 net.cpp:425] inception_4c/output_inception_4c/output_0_split <- inception_4c/output
I0403 04:48:03.785243  8068 net.cpp:399] inception_4c/output_inception_4c/output_0_split -> inception_4c/output_inception_4c/output_0_split_0
I0403 04:48:03.785267  8068 net.cpp:399] inception_4c/output_inception_4c/output_0_split -> inception_4c/output_inception_4c/output_0_split_1
I0403 04:48:03.785293  8068 net.cpp:399] inception_4c/output_inception_4c/output_0_split -> inception_4c/output_inception_4c/output_0_split_2
I0403 04:48:03.785322  8068 net.cpp:399] inception_4c/output_inception_4c/output_0_split -> inception_4c/output_inception_4c/output_0_split_3
I0403 04:48:03.785435  8068 net.cpp:141] Setting up inception_4c/output_inception_4c/output_0_split
I0403 04:48:03.785465  8068 net.cpp:148] Top shape: 24 512 14 14 (2408448)
I0403 04:48:03.785486  8068 net.cpp:148] Top shape: 24 512 14 14 (2408448)
I0403 04:48:03.785508  8068 net.cpp:148] Top shape: 24 512 14 14 (2408448)
I0403 04:48:03.785528  8068 net.cpp:148] Top shape: 24 512 14 14 (2408448)
I0403 04:48:03.785547  8068 net.cpp:156] Memory required for data: 1111182528
I0403 04:48:03.785564  8068 layer_factory.hpp:77] Creating layer inception_4d/1x1
I0403 04:48:03.785594  8068 net.cpp:91] Creating Layer inception_4d/1x1
I0403 04:48:03.785617  8068 net.cpp:425] inception_4d/1x1 <- inception_4c/output_inception_4c/output_0_split_0
I0403 04:48:03.785645  8068 net.cpp:399] inception_4d/1x1 -> inception_4d/1x1
I0403 04:48:03.786332  8068 net.cpp:141] Setting up inception_4d/1x1
I0403 04:48:03.786365  8068 net.cpp:148] Top shape: 24 112 14 14 (526848)
I0403 04:48:03.786383  8068 net.cpp:156] Memory required for data: 1113289920
I0403 04:48:03.786406  8068 layer_factory.hpp:77] Creating layer inception_4d/relu_1x1
I0403 04:48:03.786432  8068 net.cpp:91] Creating Layer inception_4d/relu_1x1
I0403 04:48:03.786455  8068 net.cpp:425] inception_4d/relu_1x1 <- inception_4d/1x1
I0403 04:48:03.786478  8068 net.cpp:386] inception_4d/relu_1x1 -> inception_4d/1x1 (in-place)
I0403 04:48:03.786504  8068 net.cpp:141] Setting up inception_4d/relu_1x1
I0403 04:48:03.786525  8068 net.cpp:148] Top shape: 24 112 14 14 (526848)
I0403 04:48:03.786543  8068 net.cpp:156] Memory required for data: 1115397312
I0403 04:48:03.786561  8068 layer_factory.hpp:77] Creating layer inception_4d/3x3_reduce
I0403 04:48:03.786589  8068 net.cpp:91] Creating Layer inception_4d/3x3_reduce
I0403 04:48:03.786613  8068 net.cpp:425] inception_4d/3x3_reduce <- inception_4c/output_inception_4c/output_0_split_1
I0403 04:48:03.786644  8068 net.cpp:399] inception_4d/3x3_reduce -> inception_4d/3x3_reduce
I0403 04:48:03.787467  8068 net.cpp:141] Setting up inception_4d/3x3_reduce
I0403 04:48:03.787498  8068 net.cpp:148] Top shape: 24 144 14 14 (677376)
I0403 04:48:03.787518  8068 net.cpp:156] Memory required for data: 1118106816
I0403 04:48:03.787540  8068 layer_factory.hpp:77] Creating layer inception_4d/relu_3x3_reduce
I0403 04:48:03.787564  8068 net.cpp:91] Creating Layer inception_4d/relu_3x3_reduce
I0403 04:48:03.787586  8068 net.cpp:425] inception_4d/relu_3x3_reduce <- inception_4d/3x3_reduce
I0403 04:48:03.787608  8068 net.cpp:386] inception_4d/relu_3x3_reduce -> inception_4d/3x3_reduce (in-place)
I0403 04:48:03.787632  8068 net.cpp:141] Setting up inception_4d/relu_3x3_reduce
I0403 04:48:03.787654  8068 net.cpp:148] Top shape: 24 144 14 14 (677376)
I0403 04:48:03.787672  8068 net.cpp:156] Memory required for data: 1120816320
I0403 04:48:03.787691  8068 layer_factory.hpp:77] Creating layer inception_4d/3x3
I0403 04:48:03.787719  8068 net.cpp:91] Creating Layer inception_4d/3x3
I0403 04:48:03.787742  8068 net.cpp:425] inception_4d/3x3 <- inception_4d/3x3_reduce
I0403 04:48:03.787770  8068 net.cpp:399] inception_4d/3x3 -> inception_4d/3x3
I0403 04:48:03.791661  8068 net.cpp:141] Setting up inception_4d/3x3
I0403 04:48:03.791697  8068 net.cpp:148] Top shape: 24 288 14 14 (1354752)
I0403 04:48:03.791718  8068 net.cpp:156] Memory required for data: 1126235328
I0403 04:48:03.791740  8068 layer_factory.hpp:77] Creating layer inception_4d/relu_3x3
I0403 04:48:03.791769  8068 net.cpp:91] Creating Layer inception_4d/relu_3x3
I0403 04:48:03.791791  8068 net.cpp:425] inception_4d/relu_3x3 <- inception_4d/3x3
I0403 04:48:03.791815  8068 net.cpp:386] inception_4d/relu_3x3 -> inception_4d/3x3 (in-place)
I0403 04:48:03.791839  8068 net.cpp:141] Setting up inception_4d/relu_3x3
I0403 04:48:03.791862  8068 net.cpp:148] Top shape: 24 288 14 14 (1354752)
I0403 04:48:03.791880  8068 net.cpp:156] Memory required for data: 1131654336
I0403 04:48:03.791899  8068 layer_factory.hpp:77] Creating layer inception_4d/5x5_reduce
I0403 04:48:03.791949  8068 net.cpp:91] Creating Layer inception_4d/5x5_reduce
I0403 04:48:03.791972  8068 net.cpp:425] inception_4d/5x5_reduce <- inception_4c/output_inception_4c/output_0_split_2
I0403 04:48:03.792003  8068 net.cpp:399] inception_4d/5x5_reduce -> inception_4d/5x5_reduce
I0403 04:48:03.792429  8068 net.cpp:141] Setting up inception_4d/5x5_reduce
I0403 04:48:03.792461  8068 net.cpp:148] Top shape: 24 32 14 14 (150528)
I0403 04:48:03.792481  8068 net.cpp:156] Memory required for data: 1132256448
I0403 04:48:03.792505  8068 layer_factory.hpp:77] Creating layer inception_4d/relu_5x5_reduce
I0403 04:48:03.792528  8068 net.cpp:91] Creating Layer inception_4d/relu_5x5_reduce
I0403 04:48:03.792549  8068 net.cpp:425] inception_4d/relu_5x5_reduce <- inception_4d/5x5_reduce
I0403 04:48:03.792575  8068 net.cpp:386] inception_4d/relu_5x5_reduce -> inception_4d/5x5_reduce (in-place)
I0403 04:48:03.792603  8068 net.cpp:141] Setting up inception_4d/relu_5x5_reduce
I0403 04:48:03.792624  8068 net.cpp:148] Top shape: 24 32 14 14 (150528)
I0403 04:48:03.792642  8068 net.cpp:156] Memory required for data: 1132858560
I0403 04:48:03.792660  8068 layer_factory.hpp:77] Creating layer inception_4d/5x5
I0403 04:48:03.792688  8068 net.cpp:91] Creating Layer inception_4d/5x5
I0403 04:48:03.792711  8068 net.cpp:425] inception_4d/5x5 <- inception_4d/5x5_reduce
I0403 04:48:03.792735  8068 net.cpp:399] inception_4d/5x5 -> inception_4d/5x5
I0403 04:48:03.793392  8068 net.cpp:141] Setting up inception_4d/5x5
I0403 04:48:03.793424  8068 net.cpp:148] Top shape: 24 64 14 14 (301056)
I0403 04:48:03.793444  8068 net.cpp:156] Memory required for data: 1134062784
I0403 04:48:03.793467  8068 layer_factory.hpp:77] Creating layer inception_4d/relu_5x5
I0403 04:48:03.793494  8068 net.cpp:91] Creating Layer inception_4d/relu_5x5
I0403 04:48:03.793515  8068 net.cpp:425] inception_4d/relu_5x5 <- inception_4d/5x5
I0403 04:48:03.793537  8068 net.cpp:386] inception_4d/relu_5x5 -> inception_4d/5x5 (in-place)
I0403 04:48:03.793562  8068 net.cpp:141] Setting up inception_4d/relu_5x5
I0403 04:48:03.793583  8068 net.cpp:148] Top shape: 24 64 14 14 (301056)
I0403 04:48:03.793601  8068 net.cpp:156] Memory required for data: 1135267008
I0403 04:48:03.793620  8068 layer_factory.hpp:77] Creating layer inception_4d/pool
I0403 04:48:03.793642  8068 net.cpp:91] Creating Layer inception_4d/pool
I0403 04:48:03.793663  8068 net.cpp:425] inception_4d/pool <- inception_4c/output_inception_4c/output_0_split_3
I0403 04:48:03.793689  8068 net.cpp:399] inception_4d/pool -> inception_4d/pool
I0403 04:48:03.793761  8068 net.cpp:141] Setting up inception_4d/pool
I0403 04:48:03.793792  8068 net.cpp:148] Top shape: 24 512 14 14 (2408448)
I0403 04:48:03.793810  8068 net.cpp:156] Memory required for data: 1144900800
I0403 04:48:03.793829  8068 layer_factory.hpp:77] Creating layer inception_4d/pool_proj
I0403 04:48:03.793859  8068 net.cpp:91] Creating Layer inception_4d/pool_proj
I0403 04:48:03.793884  8068 net.cpp:425] inception_4d/pool_proj <- inception_4d/pool
I0403 04:48:03.793908  8068 net.cpp:399] inception_4d/pool_proj -> inception_4d/pool_proj
I0403 04:48:03.794436  8068 net.cpp:141] Setting up inception_4d/pool_proj
I0403 04:48:03.794468  8068 net.cpp:148] Top shape: 24 64 14 14 (301056)
I0403 04:48:03.794488  8068 net.cpp:156] Memory required for data: 1146105024
I0403 04:48:03.794510  8068 layer_factory.hpp:77] Creating layer inception_4d/relu_pool_proj
I0403 04:48:03.794533  8068 net.cpp:91] Creating Layer inception_4d/relu_pool_proj
I0403 04:48:03.794555  8068 net.cpp:425] inception_4d/relu_pool_proj <- inception_4d/pool_proj
I0403 04:48:03.794579  8068 net.cpp:386] inception_4d/relu_pool_proj -> inception_4d/pool_proj (in-place)
I0403 04:48:03.794606  8068 net.cpp:141] Setting up inception_4d/relu_pool_proj
I0403 04:48:03.794627  8068 net.cpp:148] Top shape: 24 64 14 14 (301056)
I0403 04:48:03.794646  8068 net.cpp:156] Memory required for data: 1147309248
I0403 04:48:03.794663  8068 layer_factory.hpp:77] Creating layer inception_4d/output
I0403 04:48:03.794703  8068 net.cpp:91] Creating Layer inception_4d/output
I0403 04:48:03.794723  8068 net.cpp:425] inception_4d/output <- inception_4d/1x1
I0403 04:48:03.794744  8068 net.cpp:425] inception_4d/output <- inception_4d/3x3
I0403 04:48:03.794764  8068 net.cpp:425] inception_4d/output <- inception_4d/5x5
I0403 04:48:03.794785  8068 net.cpp:425] inception_4d/output <- inception_4d/pool_proj
I0403 04:48:03.794806  8068 net.cpp:399] inception_4d/output -> inception_4d/output
I0403 04:48:03.794860  8068 net.cpp:141] Setting up inception_4d/output
I0403 04:48:03.794889  8068 net.cpp:148] Top shape: 24 528 14 14 (2483712)
I0403 04:48:03.794908  8068 net.cpp:156] Memory required for data: 1157244096
I0403 04:48:03.794925  8068 layer_factory.hpp:77] Creating layer inception_4d/output_inception_4d/output_0_split
I0403 04:48:03.794948  8068 net.cpp:91] Creating Layer inception_4d/output_inception_4d/output_0_split
I0403 04:48:03.794968  8068 net.cpp:425] inception_4d/output_inception_4d/output_0_split <- inception_4d/output
I0403 04:48:03.795002  8068 net.cpp:399] inception_4d/output_inception_4d/output_0_split -> inception_4d/output_inception_4d/output_0_split_0
I0403 04:48:03.795033  8068 net.cpp:399] inception_4d/output_inception_4d/output_0_split -> inception_4d/output_inception_4d/output_0_split_1
I0403 04:48:03.795060  8068 net.cpp:399] inception_4d/output_inception_4d/output_0_split -> inception_4d/output_inception_4d/output_0_split_2
I0403 04:48:03.795088  8068 net.cpp:399] inception_4d/output_inception_4d/output_0_split -> inception_4d/output_inception_4d/output_0_split_3
I0403 04:48:03.795112  8068 net.cpp:399] inception_4d/output_inception_4d/output_0_split -> inception_4d/output_inception_4d/output_0_split_4
I0403 04:48:03.795222  8068 net.cpp:141] Setting up inception_4d/output_inception_4d/output_0_split
I0403 04:48:03.795250  8068 net.cpp:148] Top shape: 24 528 14 14 (2483712)
I0403 04:48:03.795270  8068 net.cpp:148] Top shape: 24 528 14 14 (2483712)
I0403 04:48:03.795289  8068 net.cpp:148] Top shape: 24 528 14 14 (2483712)
I0403 04:48:03.795310  8068 net.cpp:148] Top shape: 24 528 14 14 (2483712)
I0403 04:48:03.795328  8068 net.cpp:148] Top shape: 24 528 14 14 (2483712)
I0403 04:48:03.795346  8068 net.cpp:156] Memory required for data: 1206918336
I0403 04:48:03.795366  8068 layer_factory.hpp:77] Creating layer loss2/ave_pool
I0403 04:48:03.795390  8068 net.cpp:91] Creating Layer loss2/ave_pool
I0403 04:48:03.795413  8068 net.cpp:425] loss2/ave_pool <- inception_4d/output_inception_4d/output_0_split_0
I0403 04:48:03.795439  8068 net.cpp:399] loss2/ave_pool -> loss2/ave_pool
I0403 04:48:03.795490  8068 net.cpp:141] Setting up loss2/ave_pool
I0403 04:48:03.795519  8068 net.cpp:148] Top shape: 24 528 4 4 (202752)
I0403 04:48:03.795538  8068 net.cpp:156] Memory required for data: 1207729344
I0403 04:48:03.795557  8068 layer_factory.hpp:77] Creating layer loss2/conv
I0403 04:48:03.795588  8068 net.cpp:91] Creating Layer loss2/conv
I0403 04:48:03.795611  8068 net.cpp:425] loss2/conv <- loss2/ave_pool
I0403 04:48:03.795636  8068 net.cpp:399] loss2/conv -> loss2/conv
I0403 04:48:03.797056  8068 net.cpp:141] Setting up loss2/conv
I0403 04:48:03.797094  8068 net.cpp:148] Top shape: 24 128 4 4 (49152)
I0403 04:48:03.797116  8068 net.cpp:156] Memory required for data: 1207925952
I0403 04:48:03.797137  8068 layer_factory.hpp:77] Creating layer loss2/relu_conv
I0403 04:48:03.797160  8068 net.cpp:91] Creating Layer loss2/relu_conv
I0403 04:48:03.797181  8068 net.cpp:425] loss2/relu_conv <- loss2/conv
I0403 04:48:03.797204  8068 net.cpp:386] loss2/relu_conv -> loss2/conv (in-place)
I0403 04:48:03.797230  8068 net.cpp:141] Setting up loss2/relu_conv
I0403 04:48:03.797252  8068 net.cpp:148] Top shape: 24 128 4 4 (49152)
I0403 04:48:03.797271  8068 net.cpp:156] Memory required for data: 1208122560
I0403 04:48:03.797288  8068 layer_factory.hpp:77] Creating layer loss2/fc
I0403 04:48:03.797315  8068 net.cpp:91] Creating Layer loss2/fc
I0403 04:48:03.797338  8068 net.cpp:425] loss2/fc <- loss2/conv
I0403 04:48:03.797363  8068 net.cpp:399] loss2/fc -> loss2/fc
I0403 04:48:03.817759  8068 net.cpp:141] Setting up loss2/fc
I0403 04:48:03.817829  8068 net.cpp:148] Top shape: 24 1024 (24576)
I0403 04:48:03.817849  8068 net.cpp:156] Memory required for data: 1208220864
I0403 04:48:03.817875  8068 layer_factory.hpp:77] Creating layer loss2/relu_fc
I0403 04:48:03.817903  8068 net.cpp:91] Creating Layer loss2/relu_fc
I0403 04:48:03.817925  8068 net.cpp:425] loss2/relu_fc <- loss2/fc
I0403 04:48:03.817950  8068 net.cpp:386] loss2/relu_fc -> loss2/fc (in-place)
I0403 04:48:03.817977  8068 net.cpp:141] Setting up loss2/relu_fc
I0403 04:48:03.818006  8068 net.cpp:148] Top shape: 24 1024 (24576)
I0403 04:48:03.818025  8068 net.cpp:156] Memory required for data: 1208319168
I0403 04:48:03.818044  8068 layer_factory.hpp:77] Creating layer loss2/drop_fc
I0403 04:48:03.818073  8068 net.cpp:91] Creating Layer loss2/drop_fc
I0403 04:48:03.818094  8068 net.cpp:425] loss2/drop_fc <- loss2/fc
I0403 04:48:03.818116  8068 net.cpp:386] loss2/drop_fc -> loss2/fc (in-place)
I0403 04:48:03.818176  8068 net.cpp:141] Setting up loss2/drop_fc
I0403 04:48:03.818204  8068 net.cpp:148] Top shape: 24 1024 (24576)
I0403 04:48:03.818222  8068 net.cpp:156] Memory required for data: 1208417472
I0403 04:48:03.818241  8068 layer_factory.hpp:77] Creating layer loss2/classifier_plantvillage
I0403 04:48:03.818267  8068 net.cpp:91] Creating Layer loss2/classifier_plantvillage
I0403 04:48:03.818287  8068 net.cpp:425] loss2/classifier_plantvillage <- loss2/fc
I0403 04:48:03.818315  8068 net.cpp:399] loss2/classifier_plantvillage -> loss2/classifier_plantvillage
I0403 04:48:03.818755  8068 net.cpp:141] Setting up loss2/classifier_plantvillage
I0403 04:48:03.818786  8068 net.cpp:148] Top shape: 24 38 (912)
I0403 04:48:03.818805  8068 net.cpp:156] Memory required for data: 1208421120
I0403 04:48:03.818827  8068 layer_factory.hpp:77] Creating layer loss2/classifier_plantvillage_loss2/classifier_plantvillage_0_split
I0403 04:48:03.818851  8068 net.cpp:91] Creating Layer loss2/classifier_plantvillage_loss2/classifier_plantvillage_0_split
I0403 04:48:03.818872  8068 net.cpp:425] loss2/classifier_plantvillage_loss2/classifier_plantvillage_0_split <- loss2/classifier_plantvillage
I0403 04:48:03.818895  8068 net.cpp:399] loss2/classifier_plantvillage_loss2/classifier_plantvillage_0_split -> loss2/classifier_plantvillage_loss2/classifier_plantvillage_0_split_0
I0403 04:48:03.818927  8068 net.cpp:399] loss2/classifier_plantvillage_loss2/classifier_plantvillage_0_split -> loss2/classifier_plantvillage_loss2/classifier_plantvillage_0_split_1
I0403 04:48:03.818953  8068 net.cpp:399] loss2/classifier_plantvillage_loss2/classifier_plantvillage_0_split -> loss2/classifier_plantvillage_loss2/classifier_plantvillage_0_split_2
I0403 04:48:03.819057  8068 net.cpp:141] Setting up loss2/classifier_plantvillage_loss2/classifier_plantvillage_0_split
I0403 04:48:03.819087  8068 net.cpp:148] Top shape: 24 38 (912)
I0403 04:48:03.819108  8068 net.cpp:148] Top shape: 24 38 (912)
I0403 04:48:03.819128  8068 net.cpp:148] Top shape: 24 38 (912)
I0403 04:48:03.819144  8068 net.cpp:156] Memory required for data: 1208432064
I0403 04:48:03.819162  8068 layer_factory.hpp:77] Creating layer inception_4e/1x1
I0403 04:48:03.819195  8068 net.cpp:91] Creating Layer inception_4e/1x1
I0403 04:48:03.819219  8068 net.cpp:425] inception_4e/1x1 <- inception_4d/output_inception_4d/output_0_split_1
I0403 04:48:03.819245  8068 net.cpp:399] inception_4e/1x1 -> inception_4e/1x1
I0403 04:48:03.820482  8068 net.cpp:141] Setting up inception_4e/1x1
I0403 04:48:03.820514  8068 net.cpp:148] Top shape: 24 256 14 14 (1204224)
I0403 04:48:03.820533  8068 net.cpp:156] Memory required for data: 1213248960
I0403 04:48:03.820556  8068 layer_factory.hpp:77] Creating layer inception_4e/relu_1x1
I0403 04:48:03.820582  8068 net.cpp:91] Creating Layer inception_4e/relu_1x1
I0403 04:48:03.820605  8068 net.cpp:425] inception_4e/relu_1x1 <- inception_4e/1x1
I0403 04:48:03.820628  8068 net.cpp:386] inception_4e/relu_1x1 -> inception_4e/1x1 (in-place)
I0403 04:48:03.820683  8068 net.cpp:141] Setting up inception_4e/relu_1x1
I0403 04:48:03.820706  8068 net.cpp:148] Top shape: 24 256 14 14 (1204224)
I0403 04:48:03.820724  8068 net.cpp:156] Memory required for data: 1218065856
I0403 04:48:03.820742  8068 layer_factory.hpp:77] Creating layer inception_4e/3x3_reduce
I0403 04:48:03.820771  8068 net.cpp:91] Creating Layer inception_4e/3x3_reduce
I0403 04:48:03.820794  8068 net.cpp:425] inception_4e/3x3_reduce <- inception_4d/output_inception_4d/output_0_split_2
I0403 04:48:03.820822  8068 net.cpp:399] inception_4e/3x3_reduce -> inception_4e/3x3_reduce
I0403 04:48:03.822386  8068 net.cpp:141] Setting up inception_4e/3x3_reduce
I0403 04:48:03.822422  8068 net.cpp:148] Top shape: 24 160 14 14 (752640)
I0403 04:48:03.822443  8068 net.cpp:156] Memory required for data: 1221076416
I0403 04:48:03.822465  8068 layer_factory.hpp:77] Creating layer inception_4e/relu_3x3_reduce
I0403 04:48:03.822489  8068 net.cpp:91] Creating Layer inception_4e/relu_3x3_reduce
I0403 04:48:03.822510  8068 net.cpp:425] inception_4e/relu_3x3_reduce <- inception_4e/3x3_reduce
I0403 04:48:03.822535  8068 net.cpp:386] inception_4e/relu_3x3_reduce -> inception_4e/3x3_reduce (in-place)
I0403 04:48:03.822561  8068 net.cpp:141] Setting up inception_4e/relu_3x3_reduce
I0403 04:48:03.822583  8068 net.cpp:148] Top shape: 24 160 14 14 (752640)
I0403 04:48:03.822602  8068 net.cpp:156] Memory required for data: 1224086976
I0403 04:48:03.822619  8068 layer_factory.hpp:77] Creating layer inception_4e/3x3
I0403 04:48:03.822649  8068 net.cpp:91] Creating Layer inception_4e/3x3
I0403 04:48:03.822670  8068 net.cpp:425] inception_4e/3x3 <- inception_4e/3x3_reduce
I0403 04:48:03.822695  8068 net.cpp:399] inception_4e/3x3 -> inception_4e/3x3
I0403 04:48:03.827417  8068 net.cpp:141] Setting up inception_4e/3x3
I0403 04:48:03.827453  8068 net.cpp:148] Top shape: 24 320 14 14 (1505280)
I0403 04:48:03.827474  8068 net.cpp:156] Memory required for data: 1230108096
I0403 04:48:03.827497  8068 layer_factory.hpp:77] Creating layer inception_4e/relu_3x3
I0403 04:48:03.827520  8068 net.cpp:91] Creating Layer inception_4e/relu_3x3
I0403 04:48:03.827543  8068 net.cpp:425] inception_4e/relu_3x3 <- inception_4e/3x3
I0403 04:48:03.827565  8068 net.cpp:386] inception_4e/relu_3x3 -> inception_4e/3x3 (in-place)
I0403 04:48:03.827590  8068 net.cpp:141] Setting up inception_4e/relu_3x3
I0403 04:48:03.827613  8068 net.cpp:148] Top shape: 24 320 14 14 (1505280)
I0403 04:48:03.827631  8068 net.cpp:156] Memory required for data: 1236129216
I0403 04:48:03.827651  8068 layer_factory.hpp:77] Creating layer inception_4e/5x5_reduce
I0403 04:48:03.827678  8068 net.cpp:91] Creating Layer inception_4e/5x5_reduce
I0403 04:48:03.827702  8068 net.cpp:425] inception_4e/5x5_reduce <- inception_4d/output_inception_4d/output_0_split_3
I0403 04:48:03.827733  8068 net.cpp:399] inception_4e/5x5_reduce -> inception_4e/5x5_reduce
I0403 04:48:03.828764  8068 net.cpp:141] Setting up inception_4e/5x5_reduce
I0403 04:48:03.828801  8068 net.cpp:148] Top shape: 24 32 14 14 (150528)
I0403 04:48:03.828821  8068 net.cpp:156] Memory required for data: 1236731328
I0403 04:48:03.828845  8068 layer_factory.hpp:77] Creating layer inception_4e/relu_5x5_reduce
I0403 04:48:03.828869  8068 net.cpp:91] Creating Layer inception_4e/relu_5x5_reduce
I0403 04:48:03.828891  8068 net.cpp:425] inception_4e/relu_5x5_reduce <- inception_4e/5x5_reduce
I0403 04:48:03.828913  8068 net.cpp:386] inception_4e/relu_5x5_reduce -> inception_4e/5x5_reduce (in-place)
I0403 04:48:03.828938  8068 net.cpp:141] Setting up inception_4e/relu_5x5_reduce
I0403 04:48:03.828960  8068 net.cpp:148] Top shape: 24 32 14 14 (150528)
I0403 04:48:03.828979  8068 net.cpp:156] Memory required for data: 1237333440
I0403 04:48:03.829013  8068 layer_factory.hpp:77] Creating layer inception_4e/5x5
I0403 04:48:03.829066  8068 net.cpp:91] Creating Layer inception_4e/5x5
I0403 04:48:03.829092  8068 net.cpp:425] inception_4e/5x5 <- inception_4e/5x5_reduce
I0403 04:48:03.829118  8068 net.cpp:399] inception_4e/5x5 -> inception_4e/5x5
I0403 04:48:03.830072  8068 net.cpp:141] Setting up inception_4e/5x5
I0403 04:48:03.830121  8068 net.cpp:148] Top shape: 24 128 14 14 (602112)
I0403 04:48:03.830140  8068 net.cpp:156] Memory required for data: 1239741888
I0403 04:48:03.830163  8068 layer_factory.hpp:77] Creating layer inception_4e/relu_5x5
I0403 04:48:03.830185  8068 net.cpp:91] Creating Layer inception_4e/relu_5x5
I0403 04:48:03.830209  8068 net.cpp:425] inception_4e/relu_5x5 <- inception_4e/5x5
I0403 04:48:03.830231  8068 net.cpp:386] inception_4e/relu_5x5 -> inception_4e/5x5 (in-place)
I0403 04:48:03.830255  8068 net.cpp:141] Setting up inception_4e/relu_5x5
I0403 04:48:03.830277  8068 net.cpp:148] Top shape: 24 128 14 14 (602112)
I0403 04:48:03.830296  8068 net.cpp:156] Memory required for data: 1242150336
I0403 04:48:03.830312  8068 layer_factory.hpp:77] Creating layer inception_4e/pool
I0403 04:48:03.830339  8068 net.cpp:91] Creating Layer inception_4e/pool
I0403 04:48:03.830360  8068 net.cpp:425] inception_4e/pool <- inception_4d/output_inception_4d/output_0_split_4
I0403 04:48:03.830384  8068 net.cpp:399] inception_4e/pool -> inception_4e/pool
I0403 04:48:03.830451  8068 net.cpp:141] Setting up inception_4e/pool
I0403 04:48:03.830479  8068 net.cpp:148] Top shape: 24 528 14 14 (2483712)
I0403 04:48:03.830498  8068 net.cpp:156] Memory required for data: 1252085184
I0403 04:48:03.830516  8068 layer_factory.hpp:77] Creating layer inception_4e/pool_proj
I0403 04:48:03.830549  8068 net.cpp:91] Creating Layer inception_4e/pool_proj
I0403 04:48:03.830571  8068 net.cpp:425] inception_4e/pool_proj <- inception_4e/pool
I0403 04:48:03.830595  8068 net.cpp:399] inception_4e/pool_proj -> inception_4e/pool_proj
I0403 04:48:03.831317  8068 net.cpp:141] Setting up inception_4e/pool_proj
I0403 04:48:03.831348  8068 net.cpp:148] Top shape: 24 128 14 14 (602112)
I0403 04:48:03.831367  8068 net.cpp:156] Memory required for data: 1254493632
I0403 04:48:03.831400  8068 layer_factory.hpp:77] Creating layer inception_4e/relu_pool_proj
I0403 04:48:03.831424  8068 net.cpp:91] Creating Layer inception_4e/relu_pool_proj
I0403 04:48:03.831446  8068 net.cpp:425] inception_4e/relu_pool_proj <- inception_4e/pool_proj
I0403 04:48:03.831471  8068 net.cpp:386] inception_4e/relu_pool_proj -> inception_4e/pool_proj (in-place)
I0403 04:48:03.831496  8068 net.cpp:141] Setting up inception_4e/relu_pool_proj
I0403 04:48:03.831519  8068 net.cpp:148] Top shape: 24 128 14 14 (602112)
I0403 04:48:03.831537  8068 net.cpp:156] Memory required for data: 1256902080
I0403 04:48:03.831555  8068 layer_factory.hpp:77] Creating layer inception_4e/output
I0403 04:48:03.831578  8068 net.cpp:91] Creating Layer inception_4e/output
I0403 04:48:03.831598  8068 net.cpp:425] inception_4e/output <- inception_4e/1x1
I0403 04:48:03.831619  8068 net.cpp:425] inception_4e/output <- inception_4e/3x3
I0403 04:48:03.831640  8068 net.cpp:425] inception_4e/output <- inception_4e/5x5
I0403 04:48:03.831658  8068 net.cpp:425] inception_4e/output <- inception_4e/pool_proj
I0403 04:48:03.831681  8068 net.cpp:399] inception_4e/output -> inception_4e/output
I0403 04:48:03.831737  8068 net.cpp:141] Setting up inception_4e/output
I0403 04:48:03.831764  8068 net.cpp:148] Top shape: 24 832 14 14 (3913728)
I0403 04:48:03.831784  8068 net.cpp:156] Memory required for data: 1272556992
I0403 04:48:03.831801  8068 layer_factory.hpp:77] Creating layer pool4/3x3_s2
I0403 04:48:03.831825  8068 net.cpp:91] Creating Layer pool4/3x3_s2
I0403 04:48:03.831846  8068 net.cpp:425] pool4/3x3_s2 <- inception_4e/output
I0403 04:48:03.831874  8068 net.cpp:399] pool4/3x3_s2 -> pool4/3x3_s2
I0403 04:48:03.831938  8068 net.cpp:141] Setting up pool4/3x3_s2
I0403 04:48:03.831969  8068 net.cpp:148] Top shape: 24 832 7 7 (978432)
I0403 04:48:03.831993  8068 net.cpp:156] Memory required for data: 1276470720
I0403 04:48:03.832012  8068 layer_factory.hpp:77] Creating layer pool4/3x3_s2_pool4/3x3_s2_0_split
I0403 04:48:03.832036  8068 net.cpp:91] Creating Layer pool4/3x3_s2_pool4/3x3_s2_0_split
I0403 04:48:03.832057  8068 net.cpp:425] pool4/3x3_s2_pool4/3x3_s2_0_split <- pool4/3x3_s2
I0403 04:48:03.832096  8068 net.cpp:399] pool4/3x3_s2_pool4/3x3_s2_0_split -> pool4/3x3_s2_pool4/3x3_s2_0_split_0
I0403 04:48:03.832123  8068 net.cpp:399] pool4/3x3_s2_pool4/3x3_s2_0_split -> pool4/3x3_s2_pool4/3x3_s2_0_split_1
I0403 04:48:03.832152  8068 net.cpp:399] pool4/3x3_s2_pool4/3x3_s2_0_split -> pool4/3x3_s2_pool4/3x3_s2_0_split_2
I0403 04:48:03.832180  8068 net.cpp:399] pool4/3x3_s2_pool4/3x3_s2_0_split -> pool4/3x3_s2_pool4/3x3_s2_0_split_3
I0403 04:48:03.832263  8068 net.cpp:141] Setting up pool4/3x3_s2_pool4/3x3_s2_0_split
I0403 04:48:03.832293  8068 net.cpp:148] Top shape: 24 832 7 7 (978432)
I0403 04:48:03.832311  8068 net.cpp:148] Top shape: 24 832 7 7 (978432)
I0403 04:48:03.832331  8068 net.cpp:148] Top shape: 24 832 7 7 (978432)
I0403 04:48:03.832350  8068 net.cpp:148] Top shape: 24 832 7 7 (978432)
I0403 04:48:03.832368  8068 net.cpp:156] Memory required for data: 1292125632
I0403 04:48:03.832386  8068 layer_factory.hpp:77] Creating layer inception_5a/1x1
I0403 04:48:03.832414  8068 net.cpp:91] Creating Layer inception_5a/1x1
I0403 04:48:03.832437  8068 net.cpp:425] inception_5a/1x1 <- pool4/3x3_s2_pool4/3x3_s2_0_split_0
I0403 04:48:03.832464  8068 net.cpp:399] inception_5a/1x1 -> inception_5a/1x1
I0403 04:48:03.834779  8068 net.cpp:141] Setting up inception_5a/1x1
I0403 04:48:03.834817  8068 net.cpp:148] Top shape: 24 256 7 7 (301056)
I0403 04:48:03.834837  8068 net.cpp:156] Memory required for data: 1293329856
I0403 04:48:03.834861  8068 layer_factory.hpp:77] Creating layer inception_5a/relu_1x1
I0403 04:48:03.834884  8068 net.cpp:91] Creating Layer inception_5a/relu_1x1
I0403 04:48:03.834905  8068 net.cpp:425] inception_5a/relu_1x1 <- inception_5a/1x1
I0403 04:48:03.834928  8068 net.cpp:386] inception_5a/relu_1x1 -> inception_5a/1x1 (in-place)
I0403 04:48:03.834952  8068 net.cpp:141] Setting up inception_5a/relu_1x1
I0403 04:48:03.834975  8068 net.cpp:148] Top shape: 24 256 7 7 (301056)
I0403 04:48:03.834997  8068 net.cpp:156] Memory required for data: 1294534080
I0403 04:48:03.835017  8068 layer_factory.hpp:77] Creating layer inception_5a/3x3_reduce
I0403 04:48:03.835047  8068 net.cpp:91] Creating Layer inception_5a/3x3_reduce
I0403 04:48:03.835072  8068 net.cpp:425] inception_5a/3x3_reduce <- pool4/3x3_s2_pool4/3x3_s2_0_split_1
I0403 04:48:03.835099  8068 net.cpp:399] inception_5a/3x3_reduce -> inception_5a/3x3_reduce
I0403 04:48:03.836912  8068 net.cpp:141] Setting up inception_5a/3x3_reduce
I0403 04:48:03.836951  8068 net.cpp:148] Top shape: 24 160 7 7 (188160)
I0403 04:48:03.836971  8068 net.cpp:156] Memory required for data: 1295286720
I0403 04:48:03.836999  8068 layer_factory.hpp:77] Creating layer inception_5a/relu_3x3_reduce
I0403 04:48:03.837024  8068 net.cpp:91] Creating Layer inception_5a/relu_3x3_reduce
I0403 04:48:03.837046  8068 net.cpp:425] inception_5a/relu_3x3_reduce <- inception_5a/3x3_reduce
I0403 04:48:03.837069  8068 net.cpp:386] inception_5a/relu_3x3_reduce -> inception_5a/3x3_reduce (in-place)
I0403 04:48:03.837095  8068 net.cpp:141] Setting up inception_5a/relu_3x3_reduce
I0403 04:48:03.837116  8068 net.cpp:148] Top shape: 24 160 7 7 (188160)
I0403 04:48:03.837133  8068 net.cpp:156] Memory required for data: 1296039360
I0403 04:48:03.837152  8068 layer_factory.hpp:77] Creating layer inception_5a/3x3
I0403 04:48:03.837180  8068 net.cpp:91] Creating Layer inception_5a/3x3
I0403 04:48:03.837203  8068 net.cpp:425] inception_5a/3x3 <- inception_5a/3x3_reduce
I0403 04:48:03.837231  8068 net.cpp:399] inception_5a/3x3 -> inception_5a/3x3
I0403 04:48:03.842243  8068 net.cpp:141] Setting up inception_5a/3x3
I0403 04:48:03.842281  8068 net.cpp:148] Top shape: 24 320 7 7 (376320)
I0403 04:48:03.842301  8068 net.cpp:156] Memory required for data: 1297544640
I0403 04:48:03.842324  8068 layer_factory.hpp:77] Creating layer inception_5a/relu_3x3
I0403 04:48:03.842351  8068 net.cpp:91] Creating Layer inception_5a/relu_3x3
I0403 04:48:03.842375  8068 net.cpp:425] inception_5a/relu_3x3 <- inception_5a/3x3
I0403 04:48:03.842396  8068 net.cpp:386] inception_5a/relu_3x3 -> inception_5a/3x3 (in-place)
I0403 04:48:03.842440  8068 net.cpp:141] Setting up inception_5a/relu_3x3
I0403 04:48:03.842464  8068 net.cpp:148] Top shape: 24 320 7 7 (376320)
I0403 04:48:03.842483  8068 net.cpp:156] Memory required for data: 1299049920
I0403 04:48:03.842501  8068 layer_factory.hpp:77] Creating layer inception_5a/5x5_reduce
I0403 04:48:03.842532  8068 net.cpp:91] Creating Layer inception_5a/5x5_reduce
I0403 04:48:03.842556  8068 net.cpp:425] inception_5a/5x5_reduce <- pool4/3x3_s2_pool4/3x3_s2_0_split_2
I0403 04:48:03.842582  8068 net.cpp:399] inception_5a/5x5_reduce -> inception_5a/5x5_reduce
I0403 04:48:03.843050  8068 net.cpp:141] Setting up inception_5a/5x5_reduce
I0403 04:48:03.843082  8068 net.cpp:148] Top shape: 24 32 7 7 (37632)
I0403 04:48:03.843102  8068 net.cpp:156] Memory required for data: 1299200448
I0403 04:48:03.843124  8068 layer_factory.hpp:77] Creating layer inception_5a/relu_5x5_reduce
I0403 04:48:03.843148  8068 net.cpp:91] Creating Layer inception_5a/relu_5x5_reduce
I0403 04:48:03.843168  8068 net.cpp:425] inception_5a/relu_5x5_reduce <- inception_5a/5x5_reduce
I0403 04:48:03.843194  8068 net.cpp:386] inception_5a/relu_5x5_reduce -> inception_5a/5x5_reduce (in-place)
I0403 04:48:03.843221  8068 net.cpp:141] Setting up inception_5a/relu_5x5_reduce
I0403 04:48:03.843243  8068 net.cpp:148] Top shape: 24 32 7 7 (37632)
I0403 04:48:03.843261  8068 net.cpp:156] Memory required for data: 1299350976
I0403 04:48:03.843281  8068 layer_factory.hpp:77] Creating layer inception_5a/5x5
I0403 04:48:03.843310  8068 net.cpp:91] Creating Layer inception_5a/5x5
I0403 04:48:03.843333  8068 net.cpp:425] inception_5a/5x5 <- inception_5a/5x5_reduce
I0403 04:48:03.843358  8068 net.cpp:399] inception_5a/5x5 -> inception_5a/5x5
I0403 04:48:03.844323  8068 net.cpp:141] Setting up inception_5a/5x5
I0403 04:48:03.844359  8068 net.cpp:148] Top shape: 24 128 7 7 (150528)
I0403 04:48:03.844379  8068 net.cpp:156] Memory required for data: 1299953088
I0403 04:48:03.844403  8068 layer_factory.hpp:77] Creating layer inception_5a/relu_5x5
I0403 04:48:03.844425  8068 net.cpp:91] Creating Layer inception_5a/relu_5x5
I0403 04:48:03.844446  8068 net.cpp:425] inception_5a/relu_5x5 <- inception_5a/5x5
I0403 04:48:03.844471  8068 net.cpp:386] inception_5a/relu_5x5 -> inception_5a/5x5 (in-place)
I0403 04:48:03.844497  8068 net.cpp:141] Setting up inception_5a/relu_5x5
I0403 04:48:03.844521  8068 net.cpp:148] Top shape: 24 128 7 7 (150528)
I0403 04:48:03.844538  8068 net.cpp:156] Memory required for data: 1300555200
I0403 04:48:03.844557  8068 layer_factory.hpp:77] Creating layer inception_5a/pool
I0403 04:48:03.844579  8068 net.cpp:91] Creating Layer inception_5a/pool
I0403 04:48:03.844599  8068 net.cpp:425] inception_5a/pool <- pool4/3x3_s2_pool4/3x3_s2_0_split_3
I0403 04:48:03.844624  8068 net.cpp:399] inception_5a/pool -> inception_5a/pool
I0403 04:48:03.844689  8068 net.cpp:141] Setting up inception_5a/pool
I0403 04:48:03.844719  8068 net.cpp:148] Top shape: 24 832 7 7 (978432)
I0403 04:48:03.844738  8068 net.cpp:156] Memory required for data: 1304468928
I0403 04:48:03.844756  8068 layer_factory.hpp:77] Creating layer inception_5a/pool_proj
I0403 04:48:03.844784  8068 net.cpp:91] Creating Layer inception_5a/pool_proj
I0403 04:48:03.844806  8068 net.cpp:425] inception_5a/pool_proj <- inception_5a/pool
I0403 04:48:03.844835  8068 net.cpp:399] inception_5a/pool_proj -> inception_5a/pool_proj
I0403 04:48:03.846447  8068 net.cpp:141] Setting up inception_5a/pool_proj
I0403 04:48:03.846483  8068 net.cpp:148] Top shape: 24 128 7 7 (150528)
I0403 04:48:03.846503  8068 net.cpp:156] Memory required for data: 1305071040
I0403 04:48:03.846526  8068 layer_factory.hpp:77] Creating layer inception_5a/relu_pool_proj
I0403 04:48:03.846549  8068 net.cpp:91] Creating Layer inception_5a/relu_pool_proj
I0403 04:48:03.846570  8068 net.cpp:425] inception_5a/relu_pool_proj <- inception_5a/pool_proj
I0403 04:48:03.846592  8068 net.cpp:386] inception_5a/relu_pool_proj -> inception_5a/pool_proj (in-place)
I0403 04:48:03.846617  8068 net.cpp:141] Setting up inception_5a/relu_pool_proj
I0403 04:48:03.846662  8068 net.cpp:148] Top shape: 24 128 7 7 (150528)
I0403 04:48:03.846680  8068 net.cpp:156] Memory required for data: 1305673152
I0403 04:48:03.846698  8068 layer_factory.hpp:77] Creating layer inception_5a/output
I0403 04:48:03.846721  8068 net.cpp:91] Creating Layer inception_5a/output
I0403 04:48:03.846741  8068 net.cpp:425] inception_5a/output <- inception_5a/1x1
I0403 04:48:03.846761  8068 net.cpp:425] inception_5a/output <- inception_5a/3x3
I0403 04:48:03.846782  8068 net.cpp:425] inception_5a/output <- inception_5a/5x5
I0403 04:48:03.846802  8068 net.cpp:425] inception_5a/output <- inception_5a/pool_proj
I0403 04:48:03.846824  8068 net.cpp:399] inception_5a/output -> inception_5a/output
I0403 04:48:03.846874  8068 net.cpp:141] Setting up inception_5a/output
I0403 04:48:03.846904  8068 net.cpp:148] Top shape: 24 832 7 7 (978432)
I0403 04:48:03.846921  8068 net.cpp:156] Memory required for data: 1309586880
I0403 04:48:03.846940  8068 layer_factory.hpp:77] Creating layer inception_5a/output_inception_5a/output_0_split
I0403 04:48:03.846963  8068 net.cpp:91] Creating Layer inception_5a/output_inception_5a/output_0_split
I0403 04:48:03.846989  8068 net.cpp:425] inception_5a/output_inception_5a/output_0_split <- inception_5a/output
I0403 04:48:03.847018  8068 net.cpp:399] inception_5a/output_inception_5a/output_0_split -> inception_5a/output_inception_5a/output_0_split_0
I0403 04:48:03.847046  8068 net.cpp:399] inception_5a/output_inception_5a/output_0_split -> inception_5a/output_inception_5a/output_0_split_1
I0403 04:48:03.847074  8068 net.cpp:399] inception_5a/output_inception_5a/output_0_split -> inception_5a/output_inception_5a/output_0_split_2
I0403 04:48:03.847100  8068 net.cpp:399] inception_5a/output_inception_5a/output_0_split -> inception_5a/output_inception_5a/output_0_split_3
I0403 04:48:03.847185  8068 net.cpp:141] Setting up inception_5a/output_inception_5a/output_0_split
I0403 04:48:03.847218  8068 net.cpp:148] Top shape: 24 832 7 7 (978432)
I0403 04:48:03.847239  8068 net.cpp:148] Top shape: 24 832 7 7 (978432)
I0403 04:48:03.847259  8068 net.cpp:148] Top shape: 24 832 7 7 (978432)
I0403 04:48:03.847280  8068 net.cpp:148] Top shape: 24 832 7 7 (978432)
I0403 04:48:03.847297  8068 net.cpp:156] Memory required for data: 1325241792
I0403 04:48:03.847316  8068 layer_factory.hpp:77] Creating layer inception_5b/1x1
I0403 04:48:03.847344  8068 net.cpp:91] Creating Layer inception_5b/1x1
I0403 04:48:03.847369  8068 net.cpp:425] inception_5b/1x1 <- inception_5a/output_inception_5a/output_0_split_0
I0403 04:48:03.847398  8068 net.cpp:399] inception_5b/1x1 -> inception_5b/1x1
I0403 04:48:03.850553  8068 net.cpp:141] Setting up inception_5b/1x1
I0403 04:48:03.850587  8068 net.cpp:148] Top shape: 24 384 7 7 (451584)
I0403 04:48:03.850607  8068 net.cpp:156] Memory required for data: 1327048128
I0403 04:48:03.850630  8068 layer_factory.hpp:77] Creating layer inception_5b/relu_1x1
I0403 04:48:03.850654  8068 net.cpp:91] Creating Layer inception_5b/relu_1x1
I0403 04:48:03.850675  8068 net.cpp:425] inception_5b/relu_1x1 <- inception_5b/1x1
I0403 04:48:03.850700  8068 net.cpp:386] inception_5b/relu_1x1 -> inception_5b/1x1 (in-place)
I0403 04:48:03.850726  8068 net.cpp:141] Setting up inception_5b/relu_1x1
I0403 04:48:03.850749  8068 net.cpp:148] Top shape: 24 384 7 7 (451584)
I0403 04:48:03.850769  8068 net.cpp:156] Memory required for data: 1328854464
I0403 04:48:03.850791  8068 layer_factory.hpp:77] Creating layer inception_5b/3x3_reduce
I0403 04:48:03.850817  8068 net.cpp:91] Creating Layer inception_5b/3x3_reduce
I0403 04:48:03.850839  8068 net.cpp:425] inception_5b/3x3_reduce <- inception_5a/output_inception_5a/output_0_split_1
I0403 04:48:03.850870  8068 net.cpp:399] inception_5b/3x3_reduce -> inception_5b/3x3_reduce
I0403 04:48:03.852850  8068 net.cpp:141] Setting up inception_5b/3x3_reduce
I0403 04:48:03.852888  8068 net.cpp:148] Top shape: 24 192 7 7 (225792)
I0403 04:48:03.852910  8068 net.cpp:156] Memory required for data: 1329757632
I0403 04:48:03.852932  8068 layer_factory.hpp:77] Creating layer inception_5b/relu_3x3_reduce
I0403 04:48:03.852977  8068 net.cpp:91] Creating Layer inception_5b/relu_3x3_reduce
I0403 04:48:03.853005  8068 net.cpp:425] inception_5b/relu_3x3_reduce <- inception_5b/3x3_reduce
I0403 04:48:03.853029  8068 net.cpp:386] inception_5b/relu_3x3_reduce -> inception_5b/3x3_reduce (in-place)
I0403 04:48:03.853058  8068 net.cpp:141] Setting up inception_5b/relu_3x3_reduce
I0403 04:48:03.853082  8068 net.cpp:148] Top shape: 24 192 7 7 (225792)
I0403 04:48:03.853101  8068 net.cpp:156] Memory required for data: 1330660800
I0403 04:48:03.853119  8068 layer_factory.hpp:77] Creating layer inception_5b/3x3
I0403 04:48:03.853147  8068 net.cpp:91] Creating Layer inception_5b/3x3
I0403 04:48:03.853168  8068 net.cpp:425] inception_5b/3x3 <- inception_5b/3x3_reduce
I0403 04:48:03.853195  8068 net.cpp:399] inception_5b/3x3 -> inception_5b/3x3
I0403 04:48:03.859751  8068 net.cpp:141] Setting up inception_5b/3x3
I0403 04:48:03.859787  8068 net.cpp:148] Top shape: 24 384 7 7 (451584)
I0403 04:48:03.859808  8068 net.cpp:156] Memory required for data: 1332467136
I0403 04:48:03.859832  8068 layer_factory.hpp:77] Creating layer inception_5b/relu_3x3
I0403 04:48:03.859858  8068 net.cpp:91] Creating Layer inception_5b/relu_3x3
I0403 04:48:03.859880  8068 net.cpp:425] inception_5b/relu_3x3 <- inception_5b/3x3
I0403 04:48:03.859904  8068 net.cpp:386] inception_5b/relu_3x3 -> inception_5b/3x3 (in-place)
I0403 04:48:03.859930  8068 net.cpp:141] Setting up inception_5b/relu_3x3
I0403 04:48:03.859951  8068 net.cpp:148] Top shape: 24 384 7 7 (451584)
I0403 04:48:03.859969  8068 net.cpp:156] Memory required for data: 1334273472
I0403 04:48:03.859990  8068 layer_factory.hpp:77] Creating layer inception_5b/5x5_reduce
I0403 04:48:03.860021  8068 net.cpp:91] Creating Layer inception_5b/5x5_reduce
I0403 04:48:03.860045  8068 net.cpp:425] inception_5b/5x5_reduce <- inception_5a/output_inception_5a/output_0_split_2
I0403 04:48:03.860071  8068 net.cpp:399] inception_5b/5x5_reduce -> inception_5b/5x5_reduce
I0403 04:48:03.861258  8068 net.cpp:141] Setting up inception_5b/5x5_reduce
I0403 04:48:03.861294  8068 net.cpp:148] Top shape: 24 48 7 7 (56448)
I0403 04:48:03.861313  8068 net.cpp:156] Memory required for data: 1334499264
I0403 04:48:03.861336  8068 layer_factory.hpp:77] Creating layer inception_5b/relu_5x5_reduce
I0403 04:48:03.861363  8068 net.cpp:91] Creating Layer inception_5b/relu_5x5_reduce
I0403 04:48:03.861385  8068 net.cpp:425] inception_5b/relu_5x5_reduce <- inception_5b/5x5_reduce
I0403 04:48:03.861408  8068 net.cpp:386] inception_5b/relu_5x5_reduce -> inception_5b/5x5_reduce (in-place)
I0403 04:48:03.861433  8068 net.cpp:141] Setting up inception_5b/relu_5x5_reduce
I0403 04:48:03.861454  8068 net.cpp:148] Top shape: 24 48 7 7 (56448)
I0403 04:48:03.861472  8068 net.cpp:156] Memory required for data: 1334725056
I0403 04:48:03.861490  8068 layer_factory.hpp:77] Creating layer inception_5b/5x5
I0403 04:48:03.861520  8068 net.cpp:91] Creating Layer inception_5b/5x5
I0403 04:48:03.861542  8068 net.cpp:425] inception_5b/5x5 <- inception_5b/5x5_reduce
I0403 04:48:03.861567  8068 net.cpp:399] inception_5b/5x5 -> inception_5b/5x5
I0403 04:48:03.862879  8068 net.cpp:141] Setting up inception_5b/5x5
I0403 04:48:03.862910  8068 net.cpp:148] Top shape: 24 128 7 7 (150528)
I0403 04:48:03.862928  8068 net.cpp:156] Memory required for data: 1335327168
I0403 04:48:03.862951  8068 layer_factory.hpp:77] Creating layer inception_5b/relu_5x5
I0403 04:48:03.862973  8068 net.cpp:91] Creating Layer inception_5b/relu_5x5
I0403 04:48:03.862998  8068 net.cpp:425] inception_5b/relu_5x5 <- inception_5b/5x5
I0403 04:48:03.863025  8068 net.cpp:386] inception_5b/relu_5x5 -> inception_5b/5x5 (in-place)
I0403 04:48:03.863050  8068 net.cpp:141] Setting up inception_5b/relu_5x5
I0403 04:48:03.863072  8068 net.cpp:148] Top shape: 24 128 7 7 (150528)
I0403 04:48:03.863090  8068 net.cpp:156] Memory required for data: 1335929280
I0403 04:48:03.863108  8068 layer_factory.hpp:77] Creating layer inception_5b/pool
I0403 04:48:03.863131  8068 net.cpp:91] Creating Layer inception_5b/pool
I0403 04:48:03.863168  8068 net.cpp:425] inception_5b/pool <- inception_5a/output_inception_5a/output_0_split_3
I0403 04:48:03.863193  8068 net.cpp:399] inception_5b/pool -> inception_5b/pool
I0403 04:48:03.863270  8068 net.cpp:141] Setting up inception_5b/pool
I0403 04:48:03.863299  8068 net.cpp:148] Top shape: 24 832 7 7 (978432)
I0403 04:48:03.863317  8068 net.cpp:156] Memory required for data: 1339843008
I0403 04:48:03.863337  8068 layer_factory.hpp:77] Creating layer inception_5b/pool_proj
I0403 04:48:03.863364  8068 net.cpp:91] Creating Layer inception_5b/pool_proj
I0403 04:48:03.863386  8068 net.cpp:425] inception_5b/pool_proj <- inception_5b/pool
I0403 04:48:03.863415  8068 net.cpp:399] inception_5b/pool_proj -> inception_5b/pool_proj
I0403 04:48:03.865047  8068 net.cpp:141] Setting up inception_5b/pool_proj
I0403 04:48:03.865085  8068 net.cpp:148] Top shape: 24 128 7 7 (150528)
I0403 04:48:03.865106  8068 net.cpp:156] Memory required for data: 1340445120
I0403 04:48:03.865129  8068 layer_factory.hpp:77] Creating layer inception_5b/relu_pool_proj
I0403 04:48:03.865154  8068 net.cpp:91] Creating Layer inception_5b/relu_pool_proj
I0403 04:48:03.865175  8068 net.cpp:425] inception_5b/relu_pool_proj <- inception_5b/pool_proj
I0403 04:48:03.865198  8068 net.cpp:386] inception_5b/relu_pool_proj -> inception_5b/pool_proj (in-place)
I0403 04:48:03.865224  8068 net.cpp:141] Setting up inception_5b/relu_pool_proj
I0403 04:48:03.865247  8068 net.cpp:148] Top shape: 24 128 7 7 (150528)
I0403 04:48:03.865265  8068 net.cpp:156] Memory required for data: 1341047232
I0403 04:48:03.865283  8068 layer_factory.hpp:77] Creating layer inception_5b/output
I0403 04:48:03.865304  8068 net.cpp:91] Creating Layer inception_5b/output
I0403 04:48:03.865324  8068 net.cpp:425] inception_5b/output <- inception_5b/1x1
I0403 04:48:03.865345  8068 net.cpp:425] inception_5b/output <- inception_5b/3x3
I0403 04:48:03.865365  8068 net.cpp:425] inception_5b/output <- inception_5b/5x5
I0403 04:48:03.865386  8068 net.cpp:425] inception_5b/output <- inception_5b/pool_proj
I0403 04:48:03.865411  8068 net.cpp:399] inception_5b/output -> inception_5b/output
I0403 04:48:03.865463  8068 net.cpp:141] Setting up inception_5b/output
I0403 04:48:03.865494  8068 net.cpp:148] Top shape: 24 1024 7 7 (1204224)
I0403 04:48:03.865514  8068 net.cpp:156] Memory required for data: 1345864128
I0403 04:48:03.865535  8068 layer_factory.hpp:77] Creating layer pool5/7x7_s1
I0403 04:48:03.865558  8068 net.cpp:91] Creating Layer pool5/7x7_s1
I0403 04:48:03.865578  8068 net.cpp:425] pool5/7x7_s1 <- inception_5b/output
I0403 04:48:03.865602  8068 net.cpp:399] pool5/7x7_s1 -> pool5/7x7_s1
I0403 04:48:03.865651  8068 net.cpp:141] Setting up pool5/7x7_s1
I0403 04:48:03.865680  8068 net.cpp:148] Top shape: 24 1024 1 1 (24576)
I0403 04:48:03.865700  8068 net.cpp:156] Memory required for data: 1345962432
I0403 04:48:03.865720  8068 layer_factory.hpp:77] Creating layer pool5/drop_7x7_s1
I0403 04:48:03.865746  8068 net.cpp:91] Creating Layer pool5/drop_7x7_s1
I0403 04:48:03.865768  8068 net.cpp:425] pool5/drop_7x7_s1 <- pool5/7x7_s1
I0403 04:48:03.865790  8068 net.cpp:386] pool5/drop_7x7_s1 -> pool5/7x7_s1 (in-place)
I0403 04:48:03.865838  8068 net.cpp:141] Setting up pool5/drop_7x7_s1
I0403 04:48:03.865867  8068 net.cpp:148] Top shape: 24 1024 1 1 (24576)
I0403 04:48:03.865888  8068 net.cpp:156] Memory required for data: 1346060736
I0403 04:48:03.865907  8068 layer_factory.hpp:77] Creating layer loss3/classifier_plantvillage
I0403 04:48:03.865932  8068 net.cpp:91] Creating Layer loss3/classifier_plantvillage
I0403 04:48:03.865953  8068 net.cpp:425] loss3/classifier_plantvillage <- pool5/7x7_s1
I0403 04:48:03.865980  8068 net.cpp:399] loss3/classifier_plantvillage -> loss3/classifier_plantvillage
I0403 04:48:03.866392  8068 net.cpp:141] Setting up loss3/classifier_plantvillage
I0403 04:48:03.866425  8068 net.cpp:148] Top shape: 24 38 (912)
I0403 04:48:03.866444  8068 net.cpp:156] Memory required for data: 1346064384
I0403 04:48:03.866467  8068 layer_factory.hpp:77] Creating layer loss3/classifier_plantvillage_loss3/classifier_plantvillage_0_split
I0403 04:48:03.866508  8068 net.cpp:91] Creating Layer loss3/classifier_plantvillage_loss3/classifier_plantvillage_0_split
I0403 04:48:03.866531  8068 net.cpp:425] loss3/classifier_plantvillage_loss3/classifier_plantvillage_0_split <- loss3/classifier_plantvillage
I0403 04:48:03.866554  8068 net.cpp:399] loss3/classifier_plantvillage_loss3/classifier_plantvillage_0_split -> loss3/classifier_plantvillage_loss3/classifier_plantvillage_0_split_0
I0403 04:48:03.866581  8068 net.cpp:399] loss3/classifier_plantvillage_loss3/classifier_plantvillage_0_split -> loss3/classifier_plantvillage_loss3/classifier_plantvillage_0_split_1
I0403 04:48:03.866610  8068 net.cpp:399] loss3/classifier_plantvillage_loss3/classifier_plantvillage_0_split -> loss3/classifier_plantvillage_loss3/classifier_plantvillage_0_split_2
I0403 04:48:03.866689  8068 net.cpp:141] Setting up loss3/classifier_plantvillage_loss3/classifier_plantvillage_0_split
I0403 04:48:03.866719  8068 net.cpp:148] Top shape: 24 38 (912)
I0403 04:48:03.866739  8068 net.cpp:148] Top shape: 24 38 (912)
I0403 04:48:03.866760  8068 net.cpp:148] Top shape: 24 38 (912)
I0403 04:48:03.866778  8068 net.cpp:156] Memory required for data: 1346075328
I0403 04:48:03.866797  8068 layer_factory.hpp:77] Creating layer loss1/loss
I0403 04:48:03.866822  8068 net.cpp:91] Creating Layer loss1/loss
I0403 04:48:03.866842  8068 net.cpp:425] loss1/loss <- loss1/classifier_plantvillage_loss1/classifier_plantvillage_0_split_0
I0403 04:48:03.866864  8068 net.cpp:425] loss1/loss <- label_data_1_split_0
…
