…
I0403 02:30:37.900137 25319 net.cpp:313] The NetState phase (0) differed from the phase (1) specified by a rule in layer loss3/top-5
I0403 02:30:37.905025 25319 net.cpp:49] Initializing net from parameters: 
state {
  phase: TRAIN
}
layer {
  name: "data"
  type: "Data"
  top: "data"
  top: "label"
  include {
    phase: TRAIN
  }
  transform_param {
    mirror: true
    crop_size: 224
    mean_file: "/home/mohanty/data/final_dataset/lmdb/grayscale-80-20/mean.binaryproto"
  }
  data_param {
    source: "/home/mohanty/data/final_dataset/lmdb/grayscale-80-20/train_db"
    batch_size: 24
    backend: LMDB
  }
}
layer {
  name: "conv1/7x7_s2"
  type: "Convolution"
  bottom: "data"
  top: "conv1/7x7_s2"
  param {
    lr_mult: 1
    decay_mult: 1
  }
  param {
    lr_mult: 2
    decay_mult: 0
  }
  convolution_param {
    num_output: 64
    pad: 3
    kernel_size: 7
    stride: 2
    weight_filler {
      type: "xavier"
      std: 0.1
    }
    bias_filler {
      type: "constant"
      value: 0.2
    }
  }
}
layer {
  name: "conv1/relu_7x7"
  type: "ReLU"
  bottom: "conv1/7x7_s2"
  top: "conv1/7x7_s2"
}
layer {
  name: "pool1/3x3_s2"
  type: "Pooling"
  bottom: "conv1/7x7_s2"
  top: "pool1/3x3_s2"
  pooling_param {
    pool: MAX
    kernel_size: 3
    stride: 2
  }
}
layer {
  name: "pool1/norm1"
  type: "LRN"
  bottom: "pool1/3x3_s2"
  top: "pool1/norm1"
  lrn_param {
    local_size: 5
    alpha: 0.0001
    beta: 0.75
  }
}
layer {
  name: "conv2/3x3_reduce"
  type: "Convolution"
  bottom: "pool1/norm1"
  top: "conv2/3x3_reduce"
  param {
    lr_mult: 1
    decay_mult: 1
  }
  param {
    lr_mult: 2
    decay_mult: 0
  }
  convolution_param {
    num_output: 64
    kernel_size: 1
    weight_filler {
      type: "xavier"
      std: 0.1
    }
    bias_filler {
      type: "constant"
      value: 0.2
    }
  }
}
layer {
  name: "conv2/relu_3x3_reduce"
  type: "ReLU"
  bottom: "conv2/3x3_reduce"
  top: "conv2/3x3_reduce"
}
layer {
  name: "conv2/3x3"
  type: "Convolution"
  bottom: "conv2/3x3_reduce"
  top: "conv2/3x3"
  param {
    lr_mult: 1
    decay_mult: 1
  }
  param {
    lr_mult: 2
    decay_mult: 0
  }
  convolution_param {
    num_output: 192
    pad: 1
    kernel_size: 3
    weight_filler {
      type: "xavier"
      std: 0.03
    }
    bias_filler {
      type: "constant"
      value: 0.2
    }
  }
}
layer {
  name: "conv2/relu_3x3"
  type: "ReLU"
  bottom: "conv2/3x3"
  top: "conv2/3x3"
}
layer {
  name: "conv2/norm2"
  type: "LRN"
  bottom: "conv2/3x3"
  top: "conv2/norm2"
  lrn_param {
    local_size: 5
    alpha: 0.0001
    beta: 0.75
  }
}
layer {
  name: "pool2/3x3_s2"
  type: "Pooling"
  bottom: "conv2/norm2"
  top: "pool2/3x3_s2"
  pooling_param {
    pool: MAX
    kernel_size: 3
    stride: 2
  }
}
layer {
  name: "inception_3a/1x1"
  type: "Convolution"
  bottom: "pool2/3x3_s2"
  top: "inception_3a/1x1"
  param {
    lr_mult: 1
    decay_mult: 1
  }
  param {
    lr_mult: 2
    decay_mult: 0
  }
  convolution_param {
    num_output: 64
    kernel_size: 1
    weight_filler {
      type: "xavier"
      std: 0.03
    }
    bias_filler {
      type: "constant"
      value: 0.2
    }
  }
}
layer {
  name: "inception_3a/relu_1x1"
  type: "ReLU"
  bottom: "inception_3a/1x1"
  top: "inception_3a/1x1"
}
layer {
  name: "inception_3a/3x3_reduce"
  type: "Convolution"
  bottom: "pool2/3x3_s2"
  top: "inception_3a/3x3_reduce"
  param {
    lr_mult: 1
    decay_mult: 1
  }
  param {
    lr_mult: 2
    decay_mult: 0
  }
  convolution_param {
    num_output: 96
    kernel_size: 1
    weight_filler {
      type: "xavier"
      std: 0.09
    }
    bias_filler {
      type: "constant"
      value: 0.2
    }
  }
}
layer {
  name: "inception_3a/relu_3x3_reduce"
  type: "ReLU"
  bottom: "inception_3a/3x3_reduce"
  top: "inception_3a/3x3_reduce"
}
layer {
  name: "inception_3a/3x3"
  type: "Convolution"
  bottom: "inception_3a/3x3_reduce"
  top: "inception_3a/3x3"
  param {
    lr_mult: 1
    decay_mult: 1
  }
  param {
    lr_mult: 2
    decay_mult: 0
  }
  convolution_param {
    num_output: 128
    pad: 1
    kernel_size: 3
    weight_filler {
      type: "xavier"
      std: 0.03
    }
    bias_filler {
      type: "constant"
      value: 0.2
    }
  }
}
layer {
  name: "inception_3a/relu_3x3"
  type: "ReLU"
  bottom: "inception_3a/3x3"
  top: "inception_3a/3x3"
}
layer {
  name: "inception_3a/5x5_reduce"
  type: "Convolution"
  bottom: "pool2/3x3_s2"
  top: "inception_3a/5x5_reduce"
  param {
    lr_mult: 1
    decay_mult: 1
  }
  param {
    lr_mult: 2
    decay_mult: 0
  }
  convolution_param {
    num_output: 16
    kernel_size: 1
    weight_filler {
      type: "xavier"
      std: 0.2
    }
    bias_filler {
      type: "constant"
      value: 0.2
    }
  }
}
layer {
  name: "inception_3a/relu_5x5_reduce"
  type: "ReLU"
  bottom: "inception_3a/5x5_reduce"
  top: "inception_3a/5x5_reduce"
}
layer {
  name: "inception_3a/5x5"
  type: "Convolution"
  bottom: "inception_3a/5x5_reduce"
  top: "inception_3a/5x5"
  param {
    lr_mult: 1
    decay_mult: 1
  }
  param {
    lr_mult: 2
    decay_mult: 0
  }
  convolution_param {
    num_output: 32
    pad: 2
    kernel_size: 5
    weight_filler {
      type: "xavier"
      std: 0.03
    }
    bias_filler {
      type: "constant"
      value: 0.2
    }
  }
}
layer {
  name: "inception_3a/relu_5x5"
  type: "ReLU"
  bottom: "inception_3a/5x5"
  top: "inception_3a/5x5"
}
layer {
  name: "inception_3a/pool"
  type: "Pooling"
  bottom: "pool2/3x3_s2"
  top: "inception_3a/pool"
  pooling_param {
    pool: MAX
    kernel_size: 3
    stride: 1
    pad: 1
  }
}
layer {
  name: "inception_3a/pool_proj"
  type: "Convolution"
  bottom: "inception_3a/pool"
  top: "inception_3a/pool_proj"
  param {
    lr_mult: 1
    decay_mult: 1
  }
  param {
    lr_mult: 2
    decay_mult: 0
  }
  convolution_param {
    num_output: 32
    kernel_size: 1
    weight_filler {
      type: "xavier"
      std: 0.1
    }
    bias_filler {
      type: "constant"
      value: 0.2
    }
  }
}
layer {
  name: "inception_3a/relu_pool_proj"
  type: "ReLU"
  bottom: "inception_3a/pool_proj"
  top: "inception_3a/pool_proj"
}
layer {
  name: "inception_3a/output"
  type: "Concat"
  bottom: "inception_3a/1x1"
  bottom: "inception_3a/3x3"
  bottom: "inception_3a/5x5"
  bottom: "inception_3a/pool_proj"
  top: "inception_3a/output"
}
layer {
  name: "inception_3b/1x1"
  type: "Convolution"
  bottom: "inception_3a/output"
  top: "inception_3b/1x1"
  param {
    lr_mult: 1
    decay_mult: 1
  }
  param {
    lr_mult: 2
    decay_mult: 0
  }
  convolution_param {
    num_output: 128
    kernel_size: 1
    weight_filler {
      type: "xavier"
      std: 0.03
    }
    bias_filler {
      type: "constant"
      value: 0.2
    }
  }
}
layer {
  name: "inception_3b/relu_1x1"
  type: "ReLU"
  bottom: "inception_3b/1x1"
  top: "inception_3b/1x1"
}
layer {
  name: "inception_3b/3x3_reduce"
  type: "Convolution"
  bottom: "inception_3a/output"
  top: "inception_3b/3x3_reduce"
  param {
    lr_mult: 1
    decay_mult: 1
  }
  param {
    lr_mult: 2
    decay_mult: 0
  }
  convolution_param {
    num_output: 128
    kernel_size: 1
    weight_filler {
      type: "xavier"
      std: 0.09
    }
    bias_filler {
      type: "constant"
      value: 0.2
    }
  }
}
layer {
  name: "inception_3b/relu_3x3_reduce"
  type: "ReLU"
  bottom: "inception_3b/3x3_reduce"
  top: "inception_3b/3x3_reduce"
}
layer {
  name: "inception_3b/3x3"
  type: "Convolution"
  bottom: "inception_3b/3x3_reduce"
  top: "inception_3b/3x3"
  param {
    lr_mult: 1
    decay_mult: 1
  }
  param {
    lr_mult: 2
    decay_mult: 0
  }
  convolution_param {
    num_output: 192
    pad: 1
    kernel_size: 3
    weight_filler {
      type: "xavier"
      std: 0.03
    }
    bias_filler {
      type: "constant"
      value: 0.2
    }
  }
}
layer {
  name: "inception_3b/relu_3x3"
  type: "ReLU"
  bottom: "inception_3b/3x3"
  top: "inception_3b/3x3"
}
layer {
  name: "inception_3b/5x5_reduce"
  type: "Convolution"
  bottom: "inception_3a/output"
  top: "inception_3b/5x5_reduce"
  param {
    lr_mult: 1
    decay_mult: 1
  }
  param {
    lr_mult: 2
    decay_mult: 0
  }
  convolution_param {
    num_output: 32
    kernel_size: 1
    weight_filler {
      type: "xavier"
      std: 0.2
    }
    bias_filler {
      type: "constant"
      value: 0.2
    }
  }
}
layer {
  name: "inception_3b/relu_5x5_reduce"
  type: "ReLU"
  bottom: "inception_3b/5x5_reduce"
  top: "inception_3b/5x5_reduce"
}
layer {
  name: "inception_3b/5x5"
  type: "Convolution"
  bottom: "inception_3b/5x5_reduce"
  top: "inception_3b/5x5"
  param {
    lr_mult: 1
    decay_mult: 1
  }
  param {
    lr_mult: 2
    decay_mult: 0
  }
  convolution_param {
    num_output: 96
    pad: 2
    kernel_size: 5
    weight_filler {
      type: "xavier"
      std: 0.03
    }
    bias_filler {
      type: "constant"
      value: 0.2
    }
  }
}
layer {
  name: "inception_3b/relu_5x5"
  type: "ReLU"
  bottom: "inception_3b/5x5"
  top: "inception_3b/5x5"
}
layer {
  name: "inception_3b/pool"
  type: "Pooling"
  bottom: "inception_3a/output"
  top: "inception_3b/pool"
  pooling_param {
    pool: MAX
    kernel_size: 3
    stride: 1
    pad: 1
  }
}
layer {
  name: "inception_3b/pool_proj"
  type: "Convolution"
  bottom: "inception_3b/pool"
  top: "inception_3b/pool_proj"
  param {
    lr_mult: 1
    decay_mult: 1
  }
  param {
    lr_mult: 2
    decay_mult: 0
  }
  convolution_param {
    num_output: 64
    kernel_size: 1
    weight_filler {
      type: "xavier"
      std: 0.1
    }
    bias_filler {
      type: "constant"
      value: 0.2
    }
  }
}
layer {
  name: "inception_3b/relu_pool_proj"
  type: "ReLU"
  bottom: "inception_3b/pool_proj"
  top: "inception_3b/pool_proj"
}
layer {
  name: "inception_3b/output"
  type: "Concat"
  bottom: "inception_3b/1x1"
  bottom: "inception_3b/3x3"
  bottom: "inception_3b/5x5"
  bottom: "inception_3b/pool_proj"
  top: "inception_3b/output"
}
layer {
  name: "pool3/3x3_s2"
  type: "Pooling"
  bottom: "inception_3b/output"
  top: "pool3/3x3_s2"
  pooling_param {
    pool: MAX
    kernel_size: 3
    stride: 2
  }
}
layer {
  name: "inception_4a/1x1"
  type: "Convolution"
  bottom: "pool3/3x3_s2"
  top: "inception_4a/1x1"
  param {
    lr_mult: 1
    decay_mult: 1
  }
  param {
    lr_mult: 2
    decay_mult: 0
  }
  convolution_param {
    num_output: 192
    kernel_size: 1
    weight_filler {
      type: "xavier"
      std: 0.03
    }
    bias_filler {
      type: "constant"
      value: 0.2
    }
  }
}
layer {
  name: "inception_4a/relu_1x1"
  type: "ReLU"
  bottom: "inception_4a/1x1"
  top: "inception_4a/1x1"
}
layer {
  name: "inception_4a/3x3_reduce"
  type: "Convolution"
  bottom: "pool3/3x3_s2"
  top: "inception_4a/3x3_reduce"
  param {
    lr_mult: 1
    decay_mult: 1
  }
  param {
    lr_mult: 2
    decay_mult: 0
  }
  convolution_param {
    num_output: 96
    kernel_size: 1
    weight_filler {
      type: "xavier"
      std: 0.09
    }
    bias_filler {
      type: "constant"
      value: 0.2
    }
  }
}
layer {
  name: "inception_4a/relu_3x3_reduce"
  type: "ReLU"
  bottom: "inception_4a/3x3_reduce"
  top: "inception_4a/3x3_reduce"
}
layer {
  name: "inception_4a/3x3"
  type: "Convolution"
  bottom: "inception_4a/3x3_reduce"
  top: "inception_4a/3x3"
  param {
    lr_mult: 1
    decay_mult: 1
  }
  param {
    lr_mult: 2
    decay_mult: 0
  }
  convolution_param {
    num_output: 208
    pad: 1
    kernel_size: 3
    weight_filler {
      type: "xavier"
      std: 0.03
    }
    bias_filler {
      type: "constant"
      value: 0.2
    }
  }
}
layer {
  name: "inception_4a/relu_3x3"
  type: "ReLU"
  bottom: "inception_4a/3x3"
  top: "inception_4a/3x3"
}
layer {
  name: "inception_4a/5x5_reduce"
  type: "Convolution"
  bottom: "pool3/3x3_s2"
  top: "inception_4a/5x5_reduce"
  param {
    lr_mult: 1
    decay_mult: 1
  }
  param {
    lr_mult: 2
    decay_mult: 0
  }
  convolution_param {
    num_output: 16
    kernel_size: 1
    weight_filler {
      type: "xavier"
      std: 0.2
    }
    bias_filler {
      type: "constant"
      value: 0.2
    }
  }
}
layer {
  name: "inception_4a/relu_5x5_reduce"
  type: "ReLU"
  bottom: "inception_4a/5x5_reduce"
  top: "inception_4a/5x5_reduce"
}
layer {
  name: "inception_4a/5x5"
  type: "Convolution"
  bottom: "inception_4a/5x5_reduce"
  top: "inception_4a/5x5"
  param {
    lr_mult: 1
    decay_mult: 1
  }
  param {
    lr_mult: 2
    decay_mult: 0
  }
  convolution_param {
    num_output: 48
    pad: 2
    kernel_size: 5
    weight_filler {
      type: "xavier"
      std: 0.03
    }
    bias_filler {
      type: "constant"
      value: 0.2
    }
  }
}
layer {
  name: "inception_4a/relu_5x5"
  type: "ReLU"
  bottom: "inception_4a/5x5"
  top: "inception_4a/5x5"
}
layer {
  name: "inception_4a/pool"
  type: "Pooling"
  bottom: "pool3/3x3_s2"
  top: "inception_4a/pool"
  pooling_param {
    pool: MAX
    kernel_size: 3
    stride: 1
    pad: 1
  }
}
layer {
  name: "inception_4a/pool_proj"
  type: "Convolution"
  bottom: "inception_4a/pool"
  top: "inception_4a/pool_proj"
  param {
    lr_mult: 1
    decay_mult: 1
  }
  param {
    lr_mult: 2
    decay_mult: 0
  }
  convolution_param {
    num_output: 64
    kernel_size: 1
    weight_filler {
      type: "xavier"
      std: 0.1
    }
    bias_filler {
      type: "constant"
      value: 0.2
    }
  }
}
layer {
  name: "inception_4a/relu_pool_proj"
  type: "ReLU"
  bottom: "inception_4a/pool_proj"
  top: "inception_4a/pool_proj"
}
layer {
  name: "inception_4a/output"
  type: "Concat"
  bottom: "inception_4a/1x1"
  bottom: "inception_4a/3x3"
  bottom: "inception_4a/5x5"
  bottom: "inception_4a/pool_proj"
  top: "inception_4a/output"
}
layer {
  name: "loss1/ave_pool"
  type: "Pooling"
  bottom: "inception_4a/output"
  top: "loss1/ave_pool"
  pooling_param {
    pool: AVE
    kernel_size: 5
    stride: 3
  }
}
layer {
  name: "loss1/conv"
  type: "Convolution"
  bottom: "loss1/ave_pool"
  top: "loss1/conv"
  param {
    lr_mult: 1
    decay_mult: 1
  }
  param {
    lr_mult: 2
    decay_mult: 0
  }
  convolution_param {
    num_output: 128
    kernel_size: 1
    weight_filler {
      type: "xavier"
      std: 0.08
    }
    bias_filler {
      type: "constant"
      value: 0.2
    }
  }
}
layer {
  name: "loss1/relu_conv"
  type: "ReLU"
  bottom: "loss1/conv"
  top: "loss1/conv"
}
layer {
  name: "loss1/fc"
  type: "InnerProduct"
  bottom: "loss1/conv"
  top: "loss1/fc"
  param {
    lr_mult: 1
    decay_mult: 1
  }
  param {
    lr_mult: 2
    decay_mult: 0
  }
  inner_product_param {
    num_output: 1024
    weight_filler {
      type: "xavier"
      std: 0.02
    }
    bias_filler {
      type: "constant"
      value: 0.2
    }
  }
}
layer {
  name: "loss1/relu_fc"
  type: "ReLU"
  bottom: "loss1/fc"
  top: "loss1/fc"
}
layer {
  name: "loss1/drop_fc"
  type: "Dropout"
  bottom: "loss1/fc"
  top: "loss1/fc"
  dropout_param {
    dropout_ratio: 0.7
  }
}
layer {
  name: "loss1/classifier_plantvillage"
  type: "InnerProduct"
  bottom: "loss1/fc"
  top: "loss1/classifier_plantvillage"
  param {
    lr_mult: 1
    decay_mult: 1
  }
  param {
    lr_mult: 2
    decay_mult: 0
  }
  inner_product_param {
    num_output: 38
    weight_filler {
      type: "xavier"
      std: 0.0009765625
    }
    bias_filler {
      type: "constant"
      value: 0
    }
  }
}
layer {
  name: "inception_4b/1x1"
  type: "Convolution"
  bottom: "inception_4a/output"
  top: "inception_4b/1x1"
  param {
    lr_mult: 1
    decay_mult: 1
  }
  param {
    lr_mult: 2
    decay_mult: 0
  }
  convolution_param {
    num_output: 160
    kernel_size: 1
    weight_filler {
      type: "xavier"
      std: 0.03
    }
    bias_filler {
      type: "constant"
      value: 0.2
    }
  }
}
layer {
  name: "inception_4b/relu_1x1"
  type: "ReLU"
  bottom: "inception_4b/1x1"
  top: "inception_4b/1x1"
}
layer {
  name: "inception_4b/3x3_reduce"
  type: "Convolution"
  bottom: "inception_4a/output"
  top: "inception_4b/3x3_reduce"
  param {
    lr_mult: 1
    decay_mult: 1
  }
  param {
    lr_mult: 2
    decay_mult: 0
  }
  convolution_param {
    num_output: 112
    kernel_size: 1
    weight_filler {
      type: "xavier"
      std: 0.09
    }
    bias_filler {
      type: "constant"
      value: 0.2
    }
  }
}
layer {
  name: "inception_4b/relu_3x3_reduce"
  type: "ReLU"
  bottom: "inception_4b/3x3_reduce"
  top: "inception_4b/3x3_reduce"
}
layer {
  name: "inception_4b/3x3"
  type: "Convolution"
  bottom: "inception_4b/3x3_reduce"
  top: "inception_4b/3x3"
  param {
    lr_mult: 1
    decay_mult: 1
  }
  param {
    lr_mult: 2
    decay_mult: 0
  }
  convolution_param {
    num_output: 224
    pad: 1
    kernel_size: 3
    weight_filler {
      type: "xavier"
      std: 0.03
    }
    bias_filler {
      type: "constant"
      value: 0.2
    }
  }
}
layer {
  name: "inception_4b/relu_3x3"
  type: "ReLU"
  bottom: "inception_4b/3x3"
  top: "inception_4b/3x3"
}
layer {
  name: "inception_4b/5x5_reduce"
  type: "Convolution"
  bottom: "inception_4a/output"
  top: "inception_4b/5x5_reduce"
  param {
    lr_mult: 1
    decay_mult: 1
  }
  param {
    lr_mult: 2
    decay_mult: 0
  }
  convolution_param {
    num_output: 24
    kernel_size: 1
    weight_filler {
      type: "xavier"
      std: 0.2
    }
    bias_filler {
      type: "constant"
      value: 0.2
    }
  }
}
layer {
  name: "inception_4b/relu_5x5_reduce"
  type: "ReLU"
  bottom: "inception_4b/5x5_reduce"
  top: "inception_4b/5x5_reduce"
}
layer {
  name: "inception_4b/5x5"
  type: "Convolution"
  bottom: "inception_4b/5x5_reduce"
  top: "inception_4b/5x5"
  param {
    lr_mult: 1
    decay_mult: 1
  }
  param {
    lr_mult: 2
    decay_mult: 0
  }
  convolution_param {
    num_output: 64
    pad: 2
    kernel_size: 5
    weight_filler {
      type: "xavier"
      std: 0.03
    }
    bias_filler {
      type: "constant"
      value: 0.2
    }
  }
}
layer {
  name: "inception_4b/relu_5x5"
  type: "ReLU"
  bottom: "inception_4b/5x5"
  top: "inception_4b/5x5"
}
layer {
  name: "inception_4b/pool"
  type: "Pooling"
  bottom: "inception_4a/output"
  top: "inception_4b/pool"
  pooling_param {
    pool: MAX
    kernel_size: 3
    stride: 1
    pad: 1
  }
}
layer {
  name: "inception_4b/pool_proj"
  type: "Convolution"
  bottom: "inception_4b/pool"
  top: "inception_4b/pool_proj"
  param {
    lr_mult: 1
    decay_mult: 1
  }
  param {
    lr_mult: 2
    decay_mult: 0
  }
  convolution_param {
    num_output: 64
    kernel_size: 1
    weight_filler {
      type: "xavier"
      std: 0.1
    }
    bias_filler {
      type: "constant"
      value: 0.2
    }
  }
}
layer {
  name: "inception_4b/relu_pool_proj"
  type: "ReLU"
  bottom: "inception_4b/pool_proj"
  top: "inception_4b/pool_proj"
}
layer {
  name: "inception_4b/output"
  type: "Concat"
  bottom: "inception_4b/1x1"
  bottom: "inception_4b/3x3"
  bottom: "inception_4b/5x5"
  bottom: "inception_4b/pool_proj"
  top: "inception_4b/output"
}
layer {
  name: "inception_4c/1x1"
  type: "Convolution"
  bottom: "inception_4b/output"
  top: "inception_4c/1x1"
  param {
    lr_mult: 1
    decay_mult: 1
  }
  param {
    lr_mult: 2
    decay_mult: 0
  }
  convolution_param {
    num_output: 128
    kernel_size: 1
    weight_filler {
      type: "xavier"
      std: 0.03
    }
    bias_filler {
      type: "constant"
      value: 0.2
    }
  }
}
layer {
  name: "inception_4c/relu_1x1"
  type: "ReLU"
  bottom: "inception_4c/1x1"
  top: "inception_4c/1x1"
}
layer {
  name: "inception_4c/3x3_reduce"
  type: "Convolution"
  bottom: "inception_4b/output"
  top: "inception_4c/3x3_reduce"
  param {
    lr_mult: 1
    decay_mult: 1
  }
  param {
    lr_mult: 2
    decay_mult: 0
  }
  convolution_param {
    num_output: 128
    kernel_size: 1
    weight_filler {
      type: "xavier"
      std: 0.09
    }
    bias_filler {
      type: "constant"
      value: 0.2
    }
  }
}
layer {
  name: "inception_4c/relu_3x3_reduce"
  type: "ReLU"
  bottom: "inception_4c/3x3_reduce"
  top: "inception_4c/3x3_reduce"
}
layer {
  name: "inception_4c/3x3"
  type: "Convolution"
  bottom: "inception_4c/3x3_reduce"
  top: "inception_4c/3x3"
  param {
    lr_mult: 1
    decay_mult: 1
  }
  param {
    lr_mult: 2
    decay_mult: 0
  }
  convolution_param {
    num_output: 256
    pad: 1
    kernel_size: 3
    weight_filler {
      type: "xavier"
      std: 0.03
    }
    bias_filler {
      type: "constant"
      value: 0.2
    }
  }
}
layer {
  name: "inception_4c/relu_3x3"
  type: "ReLU"
  bottom: "inception_4c/3x3"
  top: "inception_4c/3x3"
}
layer {
  name: "inception_4c/5x5_reduce"
  type: "Convolution"
  bottom: "inception_4b/output"
  top: "inception_4c/5x5_reduce"
  param {
    lr_mult: 1
    decay_mult: 1
  }
  param {
    lr_mult: 2
    decay_mult: 0
  }
  convolution_param {
    num_output: 24
    kernel_size: 1
    weight_filler {
      type: "xavier"
      std: 0.2
    }
    bias_filler {
      type: "constant"
      value: 0.2
    }
  }
}
layer {
  name: "inception_4c/relu_5x5_reduce"
  type: "ReLU"
  bottom: "inception_4c/5x5_reduce"
  top: "inception_4c/5x5_reduce"
}
layer {
  name: "inception_4c/5x5"
  type: "Convolution"
  bottom: "inception_4c/5x5_reduce"
  top: "inception_4c/5x5"
  param {
    lr_mult: 1
    decay_mult: 1
  }
  param {
    lr_mult: 2
    decay_mult: 0
  }
  convolution_param {
    num_output: 64
    pad: 2
    kernel_size: 5
    weight_filler {
      type: "xavier"
      std: 0.03
    }
    bias_filler {
      type: "constant"
      value: 0.2
    }
  }
}
layer {
  name: "inception_4c/relu_5x5"
  type: "ReLU"
  bottom: "inception_4c/5x5"
  top: "inception_4c/5x5"
}
layer {
  name: "inception_4c/pool"
  type: "Pooling"
  bottom: "inception_4b/output"
  top: "inception_4c/pool"
  pooling_param {
    pool: MAX
    kernel_size: 3
    stride: 1
    pad: 1
  }
}
layer {
  name: "inception_4c/pool_proj"
  type: "Convolution"
  bottom: "inception_4c/pool"
  top: "inception_4c/pool_proj"
  param {
    lr_mult: 1
    decay_mult: 1
  }
  param {
    lr_mult: 2
    decay_mult: 0
  }
  convolution_param {
    num_output: 64
    kernel_size: 1
    weight_filler {
      type: "xavier"
      std: 0.1
    }
    bias_filler {
      type: "constant"
      value: 0.2
    }
  }
}
layer {
  name: "inception_4c/relu_pool_proj"
  type: "ReLU"
  bottom: "inception_4c/pool_proj"
  top: "inception_4c/pool_proj"
}
layer {
  name: "inception_4c/output"
  type: "Concat"
  bottom: "inception_4c/1x1"
  bottom: "inception_4c/3x3"
  bottom: "inception_4c/5x5"
  bottom: "inception_4c/pool_proj"
  top: "inception_4c/output"
}
layer {
  name: "inception_4d/1x1"
  type: "Convolution"
  bottom: "inception_4c/output"
  top: "inception_4d/1x1"
  param {
    lr_mult: 1
    decay_mult: 1
  }
  param {
    lr_mult: 2
    decay_mult: 0
  }
  convolution_param {
    num_output: 112
    kernel_size: 1
    weight_filler {
      type: "xavier"
      std: 0.03
    }
    bias_filler {
      type: "constant"
      value: 0.2
    }
  }
}
layer {
  name: "inception_4d/relu_1x1"
  type: "ReLU"
  bottom: "inception_4d/1x1"
  top: "inception_4d/1x1"
}
layer {
  name: "inception_4d/3x3_reduce"
  type: "Convolution"
  bottom: "inception_4c/output"
  top: "inception_4d/3x3_reduce"
  param {
    lr_mult: 1
    decay_mult: 1
  }
  param {
    lr_mult: 2
    decay_mult: 0
  }
  convolution_param {
    num_output: 144
    kernel_size: 1
    weight_filler {
      type: "xavier"
      std: 0.09
    }
    bias_filler {
      type: "constant"
      value: 0.2
    }
  }
}
layer {
  name: "inception_4d/relu_3x3_reduce"
  type: "ReLU"
  bottom: "inception_4d/3x3_reduce"
  top: "inception_4d/3x3_reduce"
}
layer {
  name: "inception_4d/3x3"
  type: "Convolution"
  bottom: "inception_4d/3x3_reduce"
  top: "inception_4d/3x3"
  param {
    lr_mult: 1
    decay_mult: 1
  }
  param {
    lr_mult: 2
    decay_mult: 0
  }
  convolution_param {
    num_output: 288
    pad: 1
    kernel_size: 3
    weight_filler {
      type: "xavier"
      std: 0.03
    }
    bias_filler {
      type: "constant"
      value: 0.2
    }
  }
}
layer {
  name: "inception_4d/relu_3x3"
  type: "ReLU"
  bottom: "inception_4d/3x3"
  top: "inception_4d/3x3"
}
layer {
  name: "inception_4d/5x5_reduce"
  type: "Convolution"
  bottom: "inception_4c/output"
  top: "inception_4d/5x5_reduce"
  param {
    lr_mult: 1
    decay_mult: 1
  }
  param {
    lr_mult: 2
    decay_mult: 0
  }
  convolution_param {
    num_output: 32
    kernel_size: 1
    weight_filler {
      type: "xavier"
      std: 0.2
    }
    bias_filler {
      type: "constant"
      value: 0.2
    }
  }
}
layer {
  name: "inception_4d/relu_5x5_reduce"
  type: "ReLU"
  bottom: "inception_4d/5x5_reduce"
  top: "inception_4d/5x5_reduce"
}
layer {
  name: "inception_4d/5x5"
  type: "Convolution"
  bottom: "inception_4d/5x5_reduce"
  top: "inception_4d/5x5"
  param {
    lr_mult: 1
    decay_mult: 1
  }
  param {
    lr_mult: 2
    decay_mult: 0
  }
  convolution_param {
    num_output: 64
    pad: 2
    kernel_size: 5
    weight_filler {
      type: "xavier"
      std: 0.03
    }
    bias_filler {
      type: "constant"
      value: 0.2
    }
  }
}
layer {
  name: "inception_4d/relu_5x5"
  type: "ReLU"
  bottom: "inception_4d/5x5"
  top: "inception_4d/5x5"
}
layer {
  name: "inception_4d/pool"
  type: "Pooling"
  bottom: "inception_4c/output"
  top: "inception_4d/pool"
  pooling_param {
    pool: MAX
    kernel_size: 3
    stride: 1
    pad: 1
  }
}
layer {
  name: "inception_4d/pool_proj"
  type: "Convolution"
  bottom: "inception_4d/pool"
  top: "inception_4d/pool_proj"
  param {
    lr_mult: 1
    decay_mult: 1
  }
  param {
    lr_mult: 2
    decay_mult: 0
  }
  convolution_param {
    num_output: 64
    kernel_size: 1
    weight_filler {
      type: "xavier"
      std: 0.1
    }
    bias_filler {
      type: "constant"
      value: 0.2
    }
  }
}
layer {
  name: "inception_4d/relu_pool_proj"
  type: "ReLU"
  bottom: "inception_4d/pool_proj"
  top: "inception_4d/pool_proj"
}
layer {
  name: "inception_4d/output"
  type: "Concat"
  bottom: "inception_4d/1x1"
  bottom: "inception_4d/3x3"
  bottom: "inception_4d/5x5"
  bottom: "inception_4d/pool_proj"
  top: "inception_4d/output"
}
layer {
  name: "loss2/ave_pool"
  type: "Pooling"
  bottom: "inception_4d/output"
  top: "loss2/ave_pool"
  pooling_param {
    pool: AVE
    kernel_size: 5
    stride: 3
  }
}
layer {
  name: "loss2/conv"
  type: "Convolution"
  bottom: "loss2/ave_pool"
  top: "loss2/conv"
  param {
    lr_mult: 1
    decay_mult: 1
  }
  param {
    lr_mult: 2
    decay_mult: 0
  }
  convolution_param {
    num_output: 128
    kernel_size: 1
    weight_filler {
      type: "xavier"
      std: 0.08
    }
    bias_filler {
      type: "constant"
      value: 0.2
    }
  }
}
layer {
  name: "loss2/relu_conv"
  type: "ReLU"
  bottom: "loss2/conv"
  top: "loss2/conv"
}
layer {
  name: "loss2/fc"
  type: "InnerProduct"
  bottom: "loss2/conv"
  top: "loss2/fc"
  param {
    lr_mult: 1
    decay_mult: 1
  }
  param {
    lr_mult: 2
    decay_mult: 0
  }
  inner_product_param {
    num_output: 1024
    weight_filler {
      type: "xavier"
      std: 0.02
    }
    bias_filler {
      type: "constant"
      value: 0.2
    }
  }
}
layer {
  name: "loss2/relu_fc"
  type: "ReLU"
  bottom: "loss2/fc"
  top: "loss2/fc"
}
layer {
  name: "loss2/drop_fc"
  type: "Dropout"
  bottom: "loss2/fc"
  top: "loss2/fc"
  dropout_param {
    dropout_ratio: 0.7
  }
}
layer {
  name: "loss2/classifier_plantvillage"
  type: "InnerProduct"
  bottom: "loss2/fc"
  top: "loss2/classifier_plantvillage"
  param {
    lr_mult: 1
    decay_mult: 1
  }
  param {
    lr_mult: 2
    decay_mult: 0
  }
  inner_product_param {
    num_output: 38
    weight_filler {
      type: "xavier"
      std: 0.0009765625
    }
    bias_filler {
      type: "constant"
      value: 0
    }
  }
}
layer {
  name: "inception_4e/1x1"
  type: "Convolution"
  bottom: "inception_4d/output"
  top: "inception_4e/1x1"
  param {
    lr_mult: 1
    decay_mult: 1
  }
  param {
    lr_mult: 2
    decay_mult: 0
  }
  convolution_param {
    num_output: 256
    kernel_size: 1
    weight_filler {
      type: "xavier"
      std: 0.03
    }
    bias_filler {
      type: "constant"
      value: 0.2
    }
  }
}
layer {
  name: "inception_4e/relu_1x1"
  type: "ReLU"
  bottom: "inception_4e/1x1"
  top: "inception_4e/1x1"
}
layer {
  name: "inception_4e/3x3_reduce"
  type: "Convolution"
  bottom: "inception_4d/output"
  top: "inception_4e/3x3_reduce"
  param {
    lr_mult: 1
    decay_mult: 1
  }
  param {
    lr_mult: 2
    decay_mult: 0
  }
  convolution_param {
    num_output: 160
    kernel_size: 1
    weight_filler {
      type: "xavier"
      std: 0.09
    }
    bias_filler {
      type: "constant"
      value: 0.2
    }
  }
}
layer {
  name: "inception_4e/relu_3x3_reduce"
  type: "ReLU"
  bottom: "inception_4e/3x3_reduce"
  top: "inception_4e/3x3_reduce"
}
layer {
  name: "inception_4e/3x3"
  type: "Convolution"
  bottom: "inception_4e/3x3_reduce"
  top: "inception_4e/3x3"
  param {
    lr_mult: 1
    decay_mult: 1
  }
  param {
    lr_mult: 2
    decay_mult: 0
  }
  convolution_param {
    num_output: 320
    pad: 1
    kernel_size: 3
    weight_filler {
      type: "xavier"
      std: 0.03
    }
    bias_filler {
      type: "constant"
      value: 0.2
    }
  }
}
layer {
  name: "inception_4e/relu_3x3"
  type: "ReLU"
  bottom: "inception_4e/3x3"
  top: "inception_4e/3x3"
}
layer {
  name: "inception_4e/5x5_reduce"
  type: "Convolution"
  bottom: "inception_4d/output"
  top: "inception_4e/5x5_reduce"
  param {
    lr_mult: 1
    decay_mult: 1
  }
  param {
    lr_mult: 2
    decay_mult: 0
  }
  convolution_param {
    num_output: 32
    kernel_size: 1
    weight_filler {
      type: "xavier"
      std: 0.2
    }
    bias_filler {
      type: "constant"
      value: 0.2
    }
  }
}
layer {
  name: "inception_4e/relu_5x5_reduce"
  type: "ReLU"
  bottom: "inception_4e/5x5_reduce"
  top: "inception_4e/5x5_reduce"
}
layer {
  name: "inception_4e/5x5"
  type: "Convolution"
  bottom: "inception_4e/5x5_reduce"
  top: "inception_4
I0403 02:30:37.907979 25319 layer_factory.hpp:77] Creating layer data
I0403 02:30:37.908862 25319 net.cpp:91] Creating Layer data
I0403 02:30:37.908931 25319 net.cpp:399] data -> data
I0403 02:30:37.909051 25319 net.cpp:399] data -> label
I0403 02:30:37.909118 25319 data_transformer.cpp:25] Loading mean file from: /home/mohanty/data/final_dataset/lmdb/grayscale-80-20/mean.binaryproto
I0403 02:30:37.934495 25325 db_lmdb.cpp:38] Opened lmdb /home/mohanty/data/final_dataset/lmdb/grayscale-80-20/train_db
I0403 02:30:37.950456 25319 data_layer.cpp:41] output data size: 24,3,224,224
I0403 02:30:37.982758 25319 net.cpp:141] Setting up data
I0403 02:30:37.982862 25319 net.cpp:148] Top shape: 24 3 224 224 (3612672)
I0403 02:30:37.982892 25319 net.cpp:148] Top shape: 24 (24)
I0403 02:30:37.982909 25319 net.cpp:156] Memory required for data: 14450784
I0403 02:30:37.982985 25319 layer_factory.hpp:77] Creating layer label_data_1_split
I0403 02:30:37.983023 25319 net.cpp:91] Creating Layer label_data_1_split
I0403 02:30:37.983048 25319 net.cpp:425] label_data_1_split <- label
I0403 02:30:37.983085 25319 net.cpp:399] label_data_1_split -> label_data_1_split_0
I0403 02:30:37.983119 25319 net.cpp:399] label_data_1_split -> label_data_1_split_1
I0403 02:30:37.983142 25319 net.cpp:399] label_data_1_split -> label_data_1_split_2
I0403 02:30:37.983237 25319 net.cpp:141] Setting up label_data_1_split
I0403 02:30:37.983266 25319 net.cpp:148] Top shape: 24 (24)
I0403 02:30:37.983285 25319 net.cpp:148] Top shape: 24 (24)
I0403 02:30:37.983304 25319 net.cpp:148] Top shape: 24 (24)
I0403 02:30:37.983324 25319 net.cpp:156] Memory required for data: 14451072
I0403 02:30:37.983340 25319 layer_factory.hpp:77] Creating layer conv1/7x7_s2
I0403 02:30:37.983387 25319 net.cpp:91] Creating Layer conv1/7x7_s2
I0403 02:30:37.983412 25319 net.cpp:425] conv1/7x7_s2 <- data
I0403 02:30:37.983436 25319 net.cpp:399] conv1/7x7_s2 -> conv1/7x7_s2
I0403 02:30:37.984818 25319 net.cpp:141] Setting up conv1/7x7_s2
I0403 02:30:37.984851 25319 net.cpp:148] Top shape: 24 64 112 112 (19267584)
I0403 02:30:37.984870 25319 net.cpp:156] Memory required for data: 91521408
I0403 02:30:37.984930 25319 layer_factory.hpp:77] Creating layer conv1/relu_7x7
I0403 02:30:37.984977 25319 net.cpp:91] Creating Layer conv1/relu_7x7
I0403 02:30:37.984998 25319 net.cpp:425] conv1/relu_7x7 <- conv1/7x7_s2
I0403 02:30:37.985019 25319 net.cpp:386] conv1/relu_7x7 -> conv1/7x7_s2 (in-place)
I0403 02:30:37.985059 25319 net.cpp:141] Setting up conv1/relu_7x7
I0403 02:30:37.985083 25319 net.cpp:148] Top shape: 24 64 112 112 (19267584)
I0403 02:30:37.985101 25319 net.cpp:156] Memory required for data: 168591744
I0403 02:30:37.985117 25319 layer_factory.hpp:77] Creating layer pool1/3x3_s2
I0403 02:30:37.985142 25319 net.cpp:91] Creating Layer pool1/3x3_s2
I0403 02:30:37.985162 25319 net.cpp:425] pool1/3x3_s2 <- conv1/7x7_s2
I0403 02:30:37.985183 25319 net.cpp:399] pool1/3x3_s2 -> pool1/3x3_s2
I0403 02:30:37.985275 25319 net.cpp:141] Setting up pool1/3x3_s2
I0403 02:30:37.985303 25319 net.cpp:148] Top shape: 24 64 56 56 (4816896)
I0403 02:30:37.985326 25319 net.cpp:156] Memory required for data: 187859328
I0403 02:30:37.985347 25319 layer_factory.hpp:77] Creating layer pool1/norm1
I0403 02:30:37.985378 25319 net.cpp:91] Creating Layer pool1/norm1
I0403 02:30:37.985397 25319 net.cpp:425] pool1/norm1 <- pool1/3x3_s2
I0403 02:30:37.985419 25319 net.cpp:399] pool1/norm1 -> pool1/norm1
I0403 02:30:37.985512 25319 net.cpp:141] Setting up pool1/norm1
I0403 02:30:37.985538 25319 net.cpp:148] Top shape: 24 64 56 56 (4816896)
I0403 02:30:37.985555 25319 net.cpp:156] Memory required for data: 207126912
I0403 02:30:37.985572 25319 layer_factory.hpp:77] Creating layer conv2/3x3_reduce
I0403 02:30:37.985599 25319 net.cpp:91] Creating Layer conv2/3x3_reduce
I0403 02:30:37.985618 25319 net.cpp:425] conv2/3x3_reduce <- pool1/norm1
I0403 02:30:37.985641 25319 net.cpp:399] conv2/3x3_reduce -> conv2/3x3_reduce
I0403 02:30:37.987922 25319 net.cpp:141] Setting up conv2/3x3_reduce
I0403 02:30:37.987962 25319 net.cpp:148] Top shape: 24 64 56 56 (4816896)
I0403 02:30:37.987982 25319 net.cpp:156] Memory required for data: 226394496
I0403 02:30:37.988006 25319 layer_factory.hpp:77] Creating layer conv2/relu_3x3_reduce
I0403 02:30:37.988031 25319 net.cpp:91] Creating Layer conv2/relu_3x3_reduce
I0403 02:30:37.988050 25319 net.cpp:425] conv2/relu_3x3_reduce <- conv2/3x3_reduce
I0403 02:30:37.988071 25319 net.cpp:386] conv2/relu_3x3_reduce -> conv2/3x3_reduce (in-place)
I0403 02:30:37.988095 25319 net.cpp:141] Setting up conv2/relu_3x3_reduce
I0403 02:30:37.988116 25319 net.cpp:148] Top shape: 24 64 56 56 (4816896)
I0403 02:30:37.988134 25319 net.cpp:156] Memory required for data: 245662080
I0403 02:30:37.988152 25319 layer_factory.hpp:77] Creating layer conv2/3x3
I0403 02:30:37.988183 25319 net.cpp:91] Creating Layer conv2/3x3
I0403 02:30:37.988204 25319 net.cpp:425] conv2/3x3 <- conv2/3x3_reduce
I0403 02:30:37.988256 25319 net.cpp:399] conv2/3x3 -> conv2/3x3
I0403 02:30:37.989883 25319 net.cpp:141] Setting up conv2/3x3
I0403 02:30:37.989922 25319 net.cpp:148] Top shape: 24 192 56 56 (14450688)
I0403 02:30:37.989940 25319 net.cpp:156] Memory required for data: 303464832
I0403 02:30:37.989966 25319 layer_factory.hpp:77] Creating layer conv2/relu_3x3
I0403 02:30:37.989994 25319 net.cpp:91] Creating Layer conv2/relu_3x3
I0403 02:30:37.990012 25319 net.cpp:425] conv2/relu_3x3 <- conv2/3x3
I0403 02:30:37.990033 25319 net.cpp:386] conv2/relu_3x3 -> conv2/3x3 (in-place)
I0403 02:30:37.990056 25319 net.cpp:141] Setting up conv2/relu_3x3
I0403 02:30:37.990070 25327 blocking_queue.cpp:50] Waiting for data
I0403 02:30:37.990077 25319 net.cpp:148] Top shape: 24 192 56 56 (14450688)
I0403 02:30:37.990134 25319 net.cpp:156] Memory required for data: 361267584
I0403 02:30:37.990155 25319 layer_factory.hpp:77] Creating layer conv2/norm2
I0403 02:30:37.990177 25319 net.cpp:91] Creating Layer conv2/norm2
I0403 02:30:37.990196 25319 net.cpp:425] conv2/norm2 <- conv2/3x3
I0403 02:30:37.990218 25319 net.cpp:399] conv2/norm2 -> conv2/norm2
I0403 02:30:37.990275 25319 net.cpp:141] Setting up conv2/norm2
I0403 02:30:37.990303 25319 net.cpp:148] Top shape: 24 192 56 56 (14450688)
I0403 02:30:37.990320 25319 net.cpp:156] Memory required for data: 419070336
I0403 02:30:37.990337 25319 layer_factory.hpp:77] Creating layer pool2/3x3_s2
I0403 02:30:37.990365 25319 net.cpp:91] Creating Layer pool2/3x3_s2
I0403 02:30:37.990386 25319 net.cpp:425] pool2/3x3_s2 <- conv2/norm2
I0403 02:30:37.990408 25319 net.cpp:399] pool2/3x3_s2 -> pool2/3x3_s2
I0403 02:30:37.990463 25319 net.cpp:141] Setting up pool2/3x3_s2
I0403 02:30:37.990489 25319 net.cpp:148] Top shape: 24 192 28 28 (3612672)
I0403 02:30:37.990505 25319 net.cpp:156] Memory required for data: 433521024
I0403 02:30:37.990522 25319 layer_factory.hpp:77] Creating layer pool2/3x3_s2_pool2/3x3_s2_0_split
I0403 02:30:37.990545 25319 net.cpp:91] Creating Layer pool2/3x3_s2_pool2/3x3_s2_0_split
I0403 02:30:37.990564 25319 net.cpp:425] pool2/3x3_s2_pool2/3x3_s2_0_split <- pool2/3x3_s2
I0403 02:30:37.990586 25319 net.cpp:399] pool2/3x3_s2_pool2/3x3_s2_0_split -> pool2/3x3_s2_pool2/3x3_s2_0_split_0
I0403 02:30:37.990608 25319 net.cpp:399] pool2/3x3_s2_pool2/3x3_s2_0_split -> pool2/3x3_s2_pool2/3x3_s2_0_split_1
I0403 02:30:37.990633 25319 net.cpp:399] pool2/3x3_s2_pool2/3x3_s2_0_split -> pool2/3x3_s2_pool2/3x3_s2_0_split_2
I0403 02:30:37.990656 25319 net.cpp:399] pool2/3x3_s2_pool2/3x3_s2_0_split -> pool2/3x3_s2_pool2/3x3_s2_0_split_3
I0403 02:30:37.990728 25319 net.cpp:141] Setting up pool2/3x3_s2_pool2/3x3_s2_0_split
I0403 02:30:37.990754 25319 net.cpp:148] Top shape: 24 192 28 28 (3612672)
I0403 02:30:37.990774 25319 net.cpp:148] Top shape: 24 192 28 28 (3612672)
I0403 02:30:37.990793 25319 net.cpp:148] Top shape: 24 192 28 28 (3612672)
I0403 02:30:37.990811 25319 net.cpp:148] Top shape: 24 192 28 28 (3612672)
I0403 02:30:37.990828 25319 net.cpp:156] Memory required for data: 491323776
I0403 02:30:37.990846 25319 layer_factory.hpp:77] Creating layer inception_3a/1x1
I0403 02:30:37.990872 25319 net.cpp:91] Creating Layer inception_3a/1x1
I0403 02:30:37.990892 25319 net.cpp:425] inception_3a/1x1 <- pool2/3x3_s2_pool2/3x3_s2_0_split_0
I0403 02:30:37.990916 25319 net.cpp:399] inception_3a/1x1 -> inception_3a/1x1
I0403 02:30:37.991874 25319 net.cpp:141] Setting up inception_3a/1x1
I0403 02:30:37.991910 25319 net.cpp:148] Top shape: 24 64 28 28 (1204224)
I0403 02:30:37.991930 25319 net.cpp:156] Memory required for data: 496140672
I0403 02:30:37.991952 25319 layer_factory.hpp:77] Creating layer inception_3a/relu_1x1
I0403 02:30:37.991976 25319 net.cpp:91] Creating Layer inception_3a/relu_1x1
I0403 02:30:37.991994 25319 net.cpp:425] inception_3a/relu_1x1 <- inception_3a/1x1
I0403 02:30:37.992015 25319 net.cpp:386] inception_3a/relu_1x1 -> inception_3a/1x1 (in-place)
I0403 02:30:37.992038 25319 net.cpp:141] Setting up inception_3a/relu_1x1
I0403 02:30:37.992058 25319 net.cpp:148] Top shape: 24 64 28 28 (1204224)
I0403 02:30:37.992094 25319 net.cpp:156] Memory required for data: 500957568
I0403 02:30:37.992116 25319 layer_factory.hpp:77] Creating layer inception_3a/3x3_reduce
I0403 02:30:37.992143 25319 net.cpp:91] Creating Layer inception_3a/3x3_reduce
I0403 02:30:37.992163 25319 net.cpp:425] inception_3a/3x3_reduce <- pool2/3x3_s2_pool2/3x3_s2_0_split_1
I0403 02:30:37.992187 25319 net.cpp:399] inception_3a/3x3_reduce -> inception_3a/3x3_reduce
I0403 02:30:37.993186 25319 net.cpp:141] Setting up inception_3a/3x3_reduce
I0403 02:30:37.993221 25319 net.cpp:148] Top shape: 24 96 28 28 (1806336)
I0403 02:30:37.993242 25319 net.cpp:156] Memory required for data: 508182912
I0403 02:30:37.993268 25319 layer_factory.hpp:77] Creating layer inception_3a/relu_3x3_reduce
I0403 02:30:37.993302 25319 net.cpp:91] Creating Layer inception_3a/relu_3x3_reduce
I0403 02:30:37.993324 25319 net.cpp:425] inception_3a/relu_3x3_reduce <- inception_3a/3x3_reduce
I0403 02:30:37.993350 25319 net.cpp:386] inception_3a/relu_3x3_reduce -> inception_3a/3x3_reduce (in-place)
I0403 02:30:37.993379 25319 net.cpp:141] Setting up inception_3a/relu_3x3_reduce
I0403 02:30:37.993402 25319 net.cpp:148] Top shape: 24 96 28 28 (1806336)
I0403 02:30:37.993420 25319 net.cpp:156] Memory required for data: 515408256
I0403 02:30:37.993438 25319 layer_factory.hpp:77] Creating layer inception_3a/3x3
I0403 02:30:37.993463 25319 net.cpp:91] Creating Layer inception_3a/3x3
I0403 02:30:37.993489 25319 net.cpp:425] inception_3a/3x3 <- inception_3a/3x3_reduce
I0403 02:30:37.993521 25319 net.cpp:399] inception_3a/3x3 -> inception_3a/3x3
I0403 02:30:37.994498 25319 net.cpp:141] Setting up inception_3a/3x3
I0403 02:30:37.994541 25319 net.cpp:148] Top shape: 24 128 28 28 (2408448)
I0403 02:30:37.994560 25319 net.cpp:156] Memory required for data: 525042048
I0403 02:30:37.994583 25319 layer_factory.hpp:77] Creating layer inception_3a/relu_3x3
I0403 02:30:37.994609 25319 net.cpp:91] Creating Layer inception_3a/relu_3x3
I0403 02:30:37.994632 25319 net.cpp:425] inception_3a/relu_3x3 <- inception_3a/3x3
I0403 02:30:37.994652 25319 net.cpp:386] inception_3a/relu_3x3 -> inception_3a/3x3 (in-place)
I0403 02:30:37.994673 25319 net.cpp:141] Setting up inception_3a/relu_3x3
I0403 02:30:37.994693 25319 net.cpp:148] Top shape: 24 128 28 28 (2408448)
I0403 02:30:37.994711 25319 net.cpp:156] Memory required for data: 534675840
I0403 02:30:37.994729 25319 layer_factory.hpp:77] Creating layer inception_3a/5x5_reduce
I0403 02:30:37.994755 25319 net.cpp:91] Creating Layer inception_3a/5x5_reduce
I0403 02:30:37.994777 25319 net.cpp:425] inception_3a/5x5_reduce <- pool2/3x3_s2_pool2/3x3_s2_0_split_2
I0403 02:30:37.994803 25319 net.cpp:399] inception_3a/5x5_reduce -> inception_3a/5x5_reduce
I0403 02:30:37.995071 25319 net.cpp:141] Setting up inception_3a/5x5_reduce
I0403 02:30:37.995100 25319 net.cpp:148] Top shape: 24 16 28 28 (301056)
I0403 02:30:37.995121 25319 net.cpp:156] Memory required for data: 535880064
I0403 02:30:37.995141 25319 layer_factory.hpp:77] Creating layer inception_3a/relu_5x5_reduce
I0403 02:30:37.995163 25319 net.cpp:91] Creating Layer inception_3a/relu_5x5_reduce
I0403 02:30:37.995183 25319 net.cpp:425] inception_3a/relu_5x5_reduce <- inception_3a/5x5_reduce
I0403 02:30:37.995204 25319 net.cpp:386] inception_3a/relu_5x5_reduce -> inception_3a/5x5_reduce (in-place)
I0403 02:30:37.995228 25319 net.cpp:141] Setting up inception_3a/relu_5x5_reduce
I0403 02:30:37.995249 25319 net.cpp:148] Top shape: 24 16 28 28 (301056)
I0403 02:30:37.995265 25319 net.cpp:156] Memory required for data: 537084288
I0403 02:30:37.995283 25319 layer_factory.hpp:77] Creating layer inception_3a/5x5
I0403 02:30:37.995311 25319 net.cpp:91] Creating Layer inception_3a/5x5
I0403 02:30:37.995331 25319 net.cpp:425] inception_3a/5x5 <- inception_3a/5x5_reduce
I0403 02:30:37.995357 25319 net.cpp:399] inception_3a/5x5 -> inception_3a/5x5
I0403 02:30:37.995689 25319 net.cpp:141] Setting up inception_3a/5x5
I0403 02:30:37.995736 25319 net.cpp:148] Top shape: 24 32 28 28 (602112)
I0403 02:30:37.995786 25319 net.cpp:156] Memory required for data: 539492736
I0403 02:30:37.995820 25319 layer_factory.hpp:77] Creating layer inception_3a/relu_5x5
I0403 02:30:37.995857 25319 net.cpp:91] Creating Layer inception_3a/relu_5x5
I0403 02:30:37.995877 25319 net.cpp:425] inception_3a/relu_5x5 <- inception_3a/5x5
I0403 02:30:37.995901 25319 net.cpp:386] inception_3a/relu_5x5 -> inception_3a/5x5 (in-place)
I0403 02:30:37.995926 25319 net.cpp:141] Setting up inception_3a/relu_5x5
I0403 02:30:37.995946 25319 net.cpp:148] Top shape: 24 32 28 28 (602112)
I0403 02:30:37.995965 25319 net.cpp:156] Memory required for data: 541901184
I0403 02:30:37.995982 25319 layer_factory.hpp:77] Creating layer inception_3a/pool
I0403 02:30:37.996002 25319 net.cpp:91] Creating Layer inception_3a/pool
I0403 02:30:37.996022 25319 net.cpp:425] inception_3a/pool <- pool2/3x3_s2_pool2/3x3_s2_0_split_3
I0403 02:30:37.996042 25319 net.cpp:399] inception_3a/pool -> inception_3a/pool
I0403 02:30:37.996104 25319 net.cpp:141] Setting up inception_3a/pool
I0403 02:30:37.996132 25319 net.cpp:148] Top shape: 24 192 28 28 (3612672)
I0403 02:30:37.996150 25319 net.cpp:156] Memory required for data: 556351872
I0403 02:30:37.996168 25319 layer_factory.hpp:77] Creating layer inception_3a/pool_proj
I0403 02:30:37.996196 25319 net.cpp:91] Creating Layer inception_3a/pool_proj
I0403 02:30:37.996217 25319 net.cpp:425] inception_3a/pool_proj <- inception_3a/pool
I0403 02:30:37.996243 25319 net.cpp:399] inception_3a/pool_proj -> inception_3a/pool_proj
I0403 02:30:37.996526 25319 net.cpp:141] Setting up inception_3a/pool_proj
I0403 02:30:37.996556 25319 net.cpp:148] Top shape: 24 32 28 28 (602112)
I0403 02:30:37.996574 25319 net.cpp:156] Memory required for data: 558760320
I0403 02:30:37.996603 25319 layer_factory.hpp:77] Creating layer inception_3a/relu_pool_proj
I0403 02:30:37.996626 25319 net.cpp:91] Creating Layer inception_3a/relu_pool_proj
I0403 02:30:37.996646 25319 net.cpp:425] inception_3a/relu_pool_proj <- inception_3a/pool_proj
I0403 02:30:37.996670 25319 net.cpp:386] inception_3a/relu_pool_proj -> inception_3a/pool_proj (in-place)
I0403 02:30:37.996695 25319 net.cpp:141] Setting up inception_3a/relu_pool_proj
I0403 02:30:37.996716 25319 net.cpp:148] Top shape: 24 32 28 28 (602112)
I0403 02:30:37.996733 25319 net.cpp:156] Memory required for data: 561168768
I0403 02:30:37.996752 25319 layer_factory.hpp:77] Creating layer inception_3a/output
I0403 02:30:37.996772 25319 net.cpp:91] Creating Layer inception_3a/output
I0403 02:30:37.996790 25319 net.cpp:425] inception_3a/output <- inception_3a/1x1
I0403 02:30:37.996810 25319 net.cpp:425] inception_3a/output <- inception_3a/3x3
I0403 02:30:37.996829 25319 net.cpp:425] inception_3a/output <- inception_3a/5x5
I0403 02:30:37.996847 25319 net.cpp:425] inception_3a/output <- inception_3a/pool_proj
I0403 02:30:37.996872 25319 net.cpp:399] inception_3a/output -> inception_3a/output
I0403 02:30:37.997007 25319 net.cpp:141] Setting up inception_3a/output
I0403 02:30:37.997042 25319 net.cpp:148] Top shape: 24 256 28 28 (4816896)
I0403 02:30:37.997063 25319 net.cpp:156] Memory required for data: 580436352
I0403 02:30:37.997092 25319 layer_factory.hpp:77] Creating layer inception_3a/output_inception_3a/output_0_split
I0403 02:30:37.997123 25319 net.cpp:91] Creating Layer inception_3a/output_inception_3a/output_0_split
I0403 02:30:37.997150 25319 net.cpp:425] inception_3a/output_inception_3a/output_0_split <- inception_3a/output
I0403 02:30:37.997196 25319 net.cpp:399] inception_3a/output_inception_3a/output_0_split -> inception_3a/output_inception_3a/output_0_split_0
I0403 02:30:37.997248 25319 net.cpp:399] inception_3a/output_inception_3a/output_0_split -> inception_3a/output_inception_3a/output_0_split_1
I0403 02:30:37.997282 25319 net.cpp:399] inception_3a/output_inception_3a/output_0_split -> inception_3a/output_inception_3a/output_0_split_2
I0403 02:30:37.997306 25319 net.cpp:399] inception_3a/output_inception_3a/output_0_split -> inception_3a/output_inception_3a/output_0_split_3
I0403 02:30:37.997416 25319 net.cpp:141] Setting up inception_3a/output_inception_3a/output_0_split
I0403 02:30:37.997459 25319 net.cpp:148] Top shape: 24 256 28 28 (4816896)
I0403 02:30:37.997479 25319 net.cpp:148] Top shape: 24 256 28 28 (4816896)
I0403 02:30:37.997499 25319 net.cpp:148] Top shape: 24 256 28 28 (4816896)
I0403 02:30:37.997517 25319 net.cpp:148] Top shape: 24 256 28 28 (4816896)
I0403 02:30:37.997534 25319 net.cpp:156] Memory required for data: 657506688
I0403 02:30:37.997552 25319 layer_factory.hpp:77] Creating layer inception_3b/1x1
I0403 02:30:37.997580 25319 net.cpp:91] Creating Layer inception_3b/1x1
I0403 02:30:37.997601 25319 net.cpp:425] inception_3b/1x1 <- inception_3a/output_inception_3a/output_0_split_0
I0403 02:30:37.997623 25319 net.cpp:399] inception_3b/1x1 -> inception_3b/1x1
I0403 02:30:37.998075 25319 net.cpp:141] Setting up inception_3b/1x1
I0403 02:30:37.998106 25319 net.cpp:148] Top shape: 24 128 28 28 (2408448)
I0403 02:30:37.998123 25319 net.cpp:156] Memory required for data: 667140480
I0403 02:30:37.998147 25319 layer_factory.hpp:77] Creating layer inception_3b/relu_1x1
I0403 02:30:37.998168 25319 net.cpp:91] Creating Layer inception_3b/relu_1x1
I0403 02:30:37.998188 25319 net.cpp:425] inception_3b/relu_1x1 <- inception_3b/1x1
I0403 02:30:37.998209 25319 net.cpp:386] inception_3b/relu_1x1 -> inception_3b/1x1 (in-place)
I0403 02:30:37.998231 25319 net.cpp:141] Setting up inception_3b/relu_1x1
I0403 02:30:37.998251 25319 net.cpp:148] Top shape: 24 128 28 28 (2408448)
I0403 02:30:37.998268 25319 net.cpp:156] Memory required for data: 676774272
I0403 02:30:37.998286 25319 layer_factory.hpp:77] Creating layer inception_3b/3x3_reduce
I0403 02:30:37.998322 25319 net.cpp:91] Creating Layer inception_3b/3x3_reduce
I0403 02:30:37.998344 25319 net.cpp:425] inception_3b/3x3_reduce <- inception_3a/output_inception_3a/output_0_split_1
I0403 02:30:37.998374 25319 net.cpp:399] inception_3b/3x3_reduce -> inception_3b/3x3_reduce
I0403 02:30:37.998834 25319 net.cpp:141] Setting up inception_3b/3x3_reduce
I0403 02:30:37.998867 25319 net.cpp:148] Top shape: 24 128 28 28 (2408448)
I0403 02:30:37.998884 25319 net.cpp:156] Memory required for data: 686408064
I0403 02:30:37.998908 25319 layer_factory.hpp:77] Creating layer inception_3b/relu_3x3_reduce
I0403 02:30:37.998932 25319 net.cpp:91] Creating Layer inception_3b/relu_3x3_reduce
I0403 02:30:37.998953 25319 net.cpp:425] inception_3b/relu_3x3_reduce <- inception_3b/3x3_reduce
I0403 02:30:37.998975 25319 net.cpp:386] inception_3b/relu_3x3_reduce -> inception_3b/3x3_reduce (in-place)
I0403 02:30:37.998997 25319 net.cpp:141] Setting up inception_3b/relu_3x3_reduce
I0403 02:30:37.999017 25319 net.cpp:148] Top shape: 24 128 28 28 (2408448)
I0403 02:30:37.999035 25319 net.cpp:156] Memory required for data: 696041856
I0403 02:30:37.999053 25319 layer_factory.hpp:77] Creating layer inception_3b/3x3
I0403 02:30:37.999086 25319 net.cpp:91] Creating Layer inception_3b/3x3
I0403 02:30:37.999122 25319 net.cpp:425] inception_3b/3x3 <- inception_3b/3x3_reduce
I0403 02:30:37.999174 25319 net.cpp:399] inception_3b/3x3 -> inception_3b/3x3
I0403 02:30:38.001564 25319 net.cpp:141] Setting up inception_3b/3x3
I0403 02:30:38.001616 25319 net.cpp:148] Top shape: 24 192 28 28 (3612672)
I0403 02:30:38.001669 25319 net.cpp:156] Memory required for data: 710492544
I0403 02:30:38.001719 25319 layer_factory.hpp:77] Creating layer inception_3b/relu_3x3
I0403 02:30:38.001745 25319 net.cpp:91] Creating Layer inception_3b/relu_3x3
I0403 02:30:38.001768 25319 net.cpp:425] inception_3b/relu_3x3 <- inception_3b/3x3
I0403 02:30:38.001811 25319 net.cpp:386] inception_3b/relu_3x3 -> inception_3b/3x3 (in-place)
I0403 02:30:38.001858 25319 net.cpp:141] Setting up inception_3b/relu_3x3
I0403 02:30:38.001879 25319 net.cpp:148] Top shape: 24 192 28 28 (3612672)
I0403 02:30:38.001896 25319 net.cpp:156] Memory required for data: 724943232
I0403 02:30:38.001914 25319 layer_factory.hpp:77] Creating layer inception_3b/5x5_reduce
I0403 02:30:38.001938 25319 net.cpp:91] Creating Layer inception_3b/5x5_reduce
I0403 02:30:38.001957 25319 net.cpp:425] inception_3b/5x5_reduce <- inception_3a/output_inception_3a/output_0_split_2
I0403 02:30:38.002002 25319 net.cpp:399] inception_3b/5x5_reduce -> inception_3b/5x5_reduce
I0403 02:30:38.002303 25319 net.cpp:141] Setting up inception_3b/5x5_reduce
I0403 02:30:38.035943 25319 net.cpp:148] Top shape: 24 32 28 28 (602112)
I0403 02:30:38.035975 25319 net.cpp:156] Memory required for data: 727351680
I0403 02:30:38.036001 25319 layer_factory.hpp:77] Creating layer inception_3b/relu_5x5_reduce
I0403 02:30:38.036031 25319 net.cpp:91] Creating Layer inception_3b/relu_5x5_reduce
I0403 02:30:38.036053 25319 net.cpp:425] inception_3b/relu_5x5_reduce <- inception_3b/5x5_reduce
I0403 02:30:38.036082 25319 net.cpp:386] inception_3b/relu_5x5_reduce -> inception_3b/5x5_reduce (in-place)
I0403 02:30:38.036140 25319 net.cpp:141] Setting up inception_3b/relu_5x5_reduce
I0403 02:30:38.036170 25319 net.cpp:148] Top shape: 24 32 28 28 (602112)
I0403 02:30:38.036223 25319 net.cpp:156] Memory required for data: 729760128
I0403 02:30:38.036242 25319 layer_factory.hpp:77] Creating layer inception_3b/5x5
I0403 02:30:38.036296 25319 net.cpp:91] Creating Layer inception_3b/5x5
I0403 02:30:38.036337 25319 net.cpp:425] inception_3b/5x5 <- inception_3b/5x5_reduce
I0403 02:30:38.036396 25319 net.cpp:399] inception_3b/5x5 -> inception_3b/5x5
I0403 02:30:38.037894 25319 net.cpp:141] Setting up inception_3b/5x5
I0403 02:30:38.037955 25319 net.cpp:148] Top shape: 24 96 28 28 (1806336)
I0403 02:30:38.038017 25319 net.cpp:156] Memory required for data: 736985472
I0403 02:30:38.038041 25319 layer_factory.hpp:77] Creating layer inception_3b/relu_5x5
I0403 02:30:38.038113 25319 net.cpp:91] Creating Layer inception_3b/relu_5x5
I0403 02:30:38.038135 25319 net.cpp:425] inception_3b/relu_5x5 <- inception_3b/5x5
I0403 02:30:38.038182 25319 net.cpp:386] inception_3b/relu_5x5 -> inception_3b/5x5 (in-place)
I0403 02:30:38.038208 25319 net.cpp:141] Setting up inception_3b/relu_5x5
I0403 02:30:38.038270 25319 net.cpp:148] Top shape: 24 96 28 28 (1806336)
I0403 02:30:38.038307 25319 net.cpp:156] Memory required for data: 744210816
I0403 02:30:38.038337 25319 layer_factory.hpp:77] Creating layer inception_3b/pool
I0403 02:30:38.038391 25319 net.cpp:91] Creating Layer inception_3b/pool
I0403 02:30:38.038417 25319 net.cpp:425] inception_3b/pool <- inception_3a/output_inception_3a/output_0_split_3
I0403 02:30:38.038439 25319 net.cpp:399] inception_3b/pool -> inception_3b/pool
I0403 02:30:38.038496 25319 net.cpp:141] Setting up inception_3b/pool
I0403 02:30:38.038568 25319 net.cpp:148] Top shape: 24 256 28 28 (4816896)
I0403 02:30:38.038585 25319 net.cpp:156] Memory required for data: 763478400
I0403 02:30:38.038635 25319 layer_factory.hpp:77] Creating layer inception_3b/pool_proj
I0403 02:30:38.038662 25319 net.cpp:91] Creating Layer inception_3b/pool_proj
I0403 02:30:38.038683 25319 net.cpp:425] inception_3b/pool_proj <- inception_3b/pool
I0403 02:30:38.038708 25319 net.cpp:399] inception_3b/pool_proj -> inception_3b/pool_proj
I0403 02:30:38.039067 25319 net.cpp:141] Setting up inception_3b/pool_proj
I0403 02:30:38.039094 25319 net.cpp:148] Top shape: 24 64 28 28 (1204224)
I0403 02:30:38.039111 25319 net.cpp:156] Memory required for data: 768295296
I0403 02:30:38.039131 25319 layer_factory.hpp:77] Creating layer inception_3b/relu_pool_proj
I0403 02:30:38.039154 25319 net.cpp:91] Creating Layer inception_3b/relu_pool_proj
I0403 02:30:38.039172 25319 net.cpp:425] inception_3b/relu_pool_proj <- inception_3b/pool_proj
I0403 02:30:38.039192 25319 net.cpp:386] inception_3b/relu_pool_proj -> inception_3b/pool_proj (in-place)
I0403 02:30:38.039218 25319 net.cpp:141] Setting up inception_3b/relu_pool_proj
I0403 02:30:38.039242 25319 net.cpp:148] Top shape: 24 64 28 28 (1204224)
I0403 02:30:38.039258 25319 net.cpp:156] Memory required for data: 773112192
I0403 02:30:38.039275 25319 layer_factory.hpp:77] Creating layer inception_3b/output
I0403 02:30:38.039296 25319 net.cpp:91] Creating Layer inception_3b/output
I0403 02:30:38.039314 25319 net.cpp:425] inception_3b/output <- inception_3b/1x1
I0403 02:30:38.039355 25319 net.cpp:425] inception_3b/output <- inception_3b/3x3
I0403 02:30:38.039382 25319 net.cpp:425] inception_3b/output <- inception_3b/5x5
I0403 02:30:38.039402 25319 net.cpp:425] inception_3b/output <- inception_3b/pool_proj
I0403 02:30:38.039422 25319 net.cpp:399] inception_3b/output -> inception_3b/output
I0403 02:30:38.039470 25319 net.cpp:141] Setting up inception_3b/output
I0403 02:30:38.039497 25319 net.cpp:148] Top shape: 24 480 28 28 (9031680)
I0403 02:30:38.039515 25319 net.cpp:156] Memory required for data: 809238912
I0403 02:30:38.039531 25319 layer_factory.hpp:77] Creating layer pool3/3x3_s2
I0403 02:30:38.039552 25319 net.cpp:91] Creating Layer pool3/3x3_s2
I0403 02:30:38.039572 25319 net.cpp:425] pool3/3x3_s2 <- inception_3b/output
I0403 02:30:38.039594 25319 net.cpp:399] pool3/3x3_s2 -> pool3/3x3_s2
I0403 02:30:38.039650 25319 net.cpp:141] Setting up pool3/3x3_s2
I0403 02:30:38.039676 25319 net.cpp:148] Top shape: 24 480 14 14 (2257920)
I0403 02:30:38.039692 25319 net.cpp:156] Memory required for data: 818270592
I0403 02:30:38.039710 25319 layer_factory.hpp:77] Creating layer pool3/3x3_s2_pool3/3x3_s2_0_split
I0403 02:30:38.039733 25319 net.cpp:91] Creating Layer pool3/3x3_s2_pool3/3x3_s2_0_split
I0403 02:30:38.039752 25319 net.cpp:425] pool3/3x3_s2_pool3/3x3_s2_0_split <- pool3/3x3_s2
I0403 02:30:38.039772 25319 net.cpp:399] pool3/3x3_s2_pool3/3x3_s2_0_split -> pool3/3x3_s2_pool3/3x3_s2_0_split_0
I0403 02:30:38.039804 25319 net.cpp:399] pool3/3x3_s2_pool3/3x3_s2_0_split -> pool3/3x3_s2_pool3/3x3_s2_0_split_1
I0403 02:30:38.039829 25319 net.cpp:399] pool3/3x3_s2_pool3/3x3_s2_0_split -> pool3/3x3_s2_pool3/3x3_s2_0_split_2
I0403 02:30:38.039852 25319 net.cpp:399] pool3/3x3_s2_pool3/3x3_s2_0_split -> pool3/3x3_s2_pool3/3x3_s2_0_split_3
I0403 02:30:38.039927 25319 net.cpp:141] Setting up pool3/3x3_s2_pool3/3x3_s2_0_split
I0403 02:30:38.039955 25319 net.cpp:148] Top shape: 24 480 14 14 (2257920)
I0403 02:30:38.039973 25319 net.cpp:148] Top shape: 24 480 14 14 (2257920)
I0403 02:30:38.039990 25319 net.cpp:148] Top shape: 24 480 14 14 (2257920)
I0403 02:30:38.040009 25319 net.cpp:148] Top shape: 24 480 14 14 (2257920)
I0403 02:30:38.040024 25319 net.cpp:156] Memory required for data: 854397312
I0403 02:30:38.040040 25319 layer_factory.hpp:77] Creating layer inception_4a/1x1
I0403 02:30:38.040066 25319 net.cpp:91] Creating Layer inception_4a/1x1
I0403 02:30:38.040086 25319 net.cpp:425] inception_4a/1x1 <- pool3/3x3_s2_pool3/3x3_s2_0_split_0
I0403 02:30:38.040113 25319 net.cpp:399] inception_4a/1x1 -> inception_4a/1x1
I0403 02:30:38.040971 25319 net.cpp:141] Setting up inception_4a/1x1
I0403 02:30:38.041000 25319 net.cpp:148] Top shape: 24 192 14 14 (903168)
I0403 02:30:38.041018 25319 net.cpp:156] Memory required for data: 858009984
I0403 02:30:38.041039 25319 layer_factory.hpp:77] Creating layer inception_4a/relu_1x1
I0403 02:30:38.041060 25319 net.cpp:91] Creating Layer inception_4a/relu_1x1
I0403 02:30:38.041079 25319 net.cpp:425] inception_4a/relu_1x1 <- inception_4a/1x1
I0403 02:30:38.041098 25319 net.cpp:386] inception_4a/relu_1x1 -> inception_4a/1x1 (in-place)
I0403 02:30:38.041120 25319 net.cpp:141] Setting up inception_4a/relu_1x1
I0403 02:30:38.041139 25319 net.cpp:148] Top shape: 24 192 14 14 (903168)
I0403 02:30:38.041157 25319 net.cpp:156] Memory required for data: 861622656
I0403 02:30:38.041174 25319 layer_factory.hpp:77] Creating layer inception_4a/3x3_reduce
I0403 02:30:38.041203 25319 net.cpp:91] Creating Layer inception_4a/3x3_reduce
I0403 02:30:38.041223 25319 net.cpp:425] inception_4a/3x3_reduce <- pool3/3x3_s2_pool3/3x3_s2_0_split_1
I0403 02:30:38.041249 25319 net.cpp:399] inception_4a/3x3_reduce -> inception_4a/3x3_reduce
I0403 02:30:38.041816 25319 net.cpp:141] Setting up inception_4a/3x3_reduce
I0403 02:30:38.041844 25319 net.cpp:148] Top shape: 24 96 14 14 (451584)
I0403 02:30:38.041862 25319 net.cpp:156] Memory required for data: 863428992
I0403 02:30:38.041890 25319 layer_factory.hpp:77] Creating layer inception_4a/relu_3x3_reduce
I0403 02:30:38.041930 25319 net.cpp:91] Creating Layer inception_4a/relu_3x3_reduce
I0403 02:30:38.041950 25319 net.cpp:425] inception_4a/relu_3x3_reduce <- inception_4a/3x3_reduce
I0403 02:30:38.041971 25319 net.cpp:386] inception_4a/relu_3x3_reduce -> inception_4a/3x3_reduce (in-place)
I0403 02:30:38.041993 25319 net.cpp:141] Setting up inception_4a/relu_3x3_reduce
I0403 02:30:38.042013 25319 net.cpp:148] Top shape: 24 96 14 14 (451584)
I0403 02:30:38.042029 25319 net.cpp:156] Memory required for data: 865235328
I0403 02:30:38.042045 25319 layer_factory.hpp:77] Creating layer inception_4a/3x3
I0403 02:30:38.042073 25319 net.cpp:91] Creating Layer inception_4a/3x3
I0403 02:30:38.042093 25319 net.cpp:425] inception_4a/3x3 <- inception_4a/3x3_reduce
I0403 02:30:38.042117 25319 net.cpp:399] inception_4a/3x3 -> inception_4a/3x3
I0403 02:30:38.044234 25319 net.cpp:141] Setting up inception_4a/3x3
I0403 02:30:38.044270 25319 net.cpp:148] Top shape: 24 208 14 14 (978432)
I0403 02:30:38.044287 25319 net.cpp:156] Memory required for data: 869149056
I0403 02:30:38.044340 25319 layer_factory.hpp:77] Creating layer inception_4a/relu_3x3
I0403 02:30:38.044369 25319 net.cpp:91] Creating Layer inception_4a/relu_3x3
I0403 02:30:38.044389 25319 net.cpp:425] inception_4a/relu_3x3 <- inception_4a/3x3
I0403 02:30:38.044409 25319 net.cpp:386] inception_4a/relu_3x3 -> inception_4a/3x3 (in-place)
I0403 02:30:38.044431 25319 net.cpp:141] Setting up inception_4a/relu_3x3
I0403 02:30:38.044450 25319 net.cpp:148] Top shape: 24 208 14 14 (978432)
I0403 02:30:38.044466 25319 net.cpp:156] Memory required for data: 873062784
I0403 02:30:38.044483 25319 layer_factory.hpp:77] Creating layer inception_4a/5x5_reduce
I0403 02:30:38.044512 25319 net.cpp:91] Creating Layer inception_4a/5x5_reduce
I0403 02:30:38.044533 25319 net.cpp:425] inception_4a/5x5_reduce <- pool3/3x3_s2_pool3/3x3_s2_0_split_2
I0403 02:30:38.044559 25319 net.cpp:399] inception_4a/5x5_reduce -> inception_4a/5x5_reduce
I0403 02:30:38.044863 25319 net.cpp:141] Setting up inception_4a/5x5_reduce
I0403 02:30:38.044893 25319 net.cpp:148] Top shape: 24 16 14 14 (75264)
I0403 02:30:38.044909 25319 net.cpp:156] Memory required for data: 873363840
I0403 02:30:38.044931 25319 layer_factory.hpp:77] Creating layer inception_4a/relu_5x5_reduce
I0403 02:30:38.044955 25319 net.cpp:91] Creating Layer inception_4a/relu_5x5_reduce
I0403 02:30:38.044976 25319 net.cpp:425] inception_4a/relu_5x5_reduce <- inception_4a/5x5_reduce
I0403 02:30:38.044997 25319 net.cpp:386] inception_4a/relu_5x5_reduce -> inception_4a/5x5_reduce (in-place)
I0403 02:30:38.045049 25319 net.cpp:141] Setting up inception_4a/relu_5x5_reduce
I0403 02:30:38.045071 25319 net.cpp:148] Top shape: 24 16 14 14 (75264)
I0403 02:30:38.045115 25319 net.cpp:156] Memory required for data: 873664896
I0403 02:30:38.045145 25319 layer_factory.hpp:77] Creating layer inception_4a/5x5
I0403 02:30:38.045182 25319 net.cpp:91] Creating Layer inception_4a/5x5
I0403 02:30:38.045205 25319 net.cpp:425] inception_4a/5x5 <- inception_4a/5x5_reduce
I0403 02:30:38.045265 25319 net.cpp:399] inception_4a/5x5 -> inception_4a/5x5
I0403 02:30:38.045650 25319 net.cpp:141] Setting up inception_4a/5x5
I0403 02:30:38.045706 25319 net.cpp:148] Top shape: 24 48 14 14 (225792)
I0403 02:30:38.045725 25319 net.cpp:156] Memory required for data: 874568064
I0403 02:30:38.045749 25319 layer_factory.hpp:77] Creating layer inception_4a/relu_5x5
I0403 02:30:38.045794 25319 net.cpp:91] Creating Layer inception_4a/relu_5x5
I0403 02:30:38.045814 25319 net.cpp:425] inception_4a/relu_5x5 <- inception_4a/5x5
I0403 02:30:38.045832 25319 net.cpp:386] inception_4a/relu_5x5 -> inception_4a/5x5 (in-place)
I0403 02:30:38.045853 25319 net.cpp:141] Setting up inception_4a/relu_5x5
I0403 02:30:38.045873 25319 net.cpp:148] Top shape: 24 48 14 14 (225792)
I0403 02:30:38.045889 25319 net.cpp:156] Memory required for data: 875471232
I0403 02:30:38.045905 25319 layer_factory.hpp:77] Creating layer inception_4a/pool
I0403 02:30:38.045930 25319 net.cpp:91] Creating Layer inception_4a/pool
I0403 02:30:38.045950 25319 net.cpp:425] inception_4a/pool <- pool3/3x3_s2_pool3/3x3_s2_0_split_3
I0403 02:30:38.045989 25319 net.cpp:399] inception_4a/pool -> inception_4a/pool
I0403 02:30:38.046051 25319 net.cpp:141] Setting up inception_4a/pool
I0403 02:30:38.046077 25319 net.cpp:148] Top shape: 24 480 14 14 (2257920)
I0403 02:30:38.046094 25319 net.cpp:156] Memory required for data: 884502912
I0403 02:30:38.046111 25319 layer_factory.hpp:77] Creating layer inception_4a/pool_proj
I0403 02:30:38.046140 25319 net.cpp:91] Creating Layer inception_4a/pool_proj
I0403 02:30:38.046160 25319 net.cpp:425] inception_4a/pool_proj <- inception_4a/pool
I0403 02:30:38.046182 25319 net.cpp:399] inception_4a/pool_proj -> inception_4a/pool_proj
I0403 02:30:38.046650 25319 net.cpp:141] Setting up inception_4a/pool_proj
I0403 02:30:38.046680 25319 net.cpp:148] Top shape: 24 64 14 14 (301056)
I0403 02:30:38.046699 25319 net.cpp:156] Memory required for data: 885707136
I0403 02:30:38.046718 25319 layer_factory.hpp:77] Creating layer inception_4a/relu_pool_proj
I0403 02:30:38.046747 25319 net.cpp:91] Creating Layer inception_4a/relu_pool_proj
I0403 02:30:38.046768 25319 net.cpp:425] inception_4a/relu_pool_proj <- inception_4a/pool_proj
I0403 02:30:38.046788 25319 net.cpp:386] inception_4a/relu_pool_proj -> inception_4a/pool_proj (in-place)
I0403 02:30:38.046811 25319 net.cpp:141] Setting up inception_4a/relu_pool_proj
I0403 02:30:38.046830 25319 net.cpp:148] Top shape: 24 64 14 14 (301056)
I0403 02:30:38.046846 25319 net.cpp:156] Memory required for data: 886911360
I0403 02:30:38.046864 25319 layer_factory.hpp:77] Creating layer inception_4a/output
I0403 02:30:38.046885 25319 net.cpp:91] Creating Layer inception_4a/output
I0403 02:30:38.046901 25319 net.cpp:425] inception_4a/output <- inception_4a/1x1
I0403 02:30:38.046921 25319 net.cpp:425] inception_4a/output <- inception_4a/3x3
I0403 02:30:38.046938 25319 net.cpp:425] inception_4a/output <- inception_4a/5x5
I0403 02:30:38.046957 25319 net.cpp:425] inception_4a/output <- inception_4a/pool_proj
I0403 02:30:38.046977 25319 net.cpp:399] inception_4a/output -> inception_4a/output
I0403 02:30:38.047021 25319 net.cpp:141] Setting up inception_4a/output
I0403 02:30:38.047047 25319 net.cpp:148] Top shape: 24 512 14 14 (2408448)
I0403 02:30:38.047065 25319 net.cpp:156] Memory required for data: 896545152
I0403 02:30:38.047080 25319 layer_factory.hpp:77] Creating layer inception_4a/output_inception_4a/output_0_split
I0403 02:30:38.047104 25319 net.cpp:91] Creating Layer inception_4a/output_inception_4a/output_0_split
I0403 02:30:38.047123 25319 net.cpp:425] inception_4a/output_inception_4a/output_0_split <- inception_4a/output
I0403 02:30:38.047143 25319 net.cpp:399] inception_4a/output_inception_4a/output_0_split -> inception_4a/output_inception_4a/output_0_split_0
I0403 02:30:38.047168 25319 net.cpp:399] inception_4a/output_inception_4a/output_0_split -> inception_4a/output_inception_4a/output_0_split_1
I0403 02:30:38.047191 25319 net.cpp:399] inception_4a/output_inception_4a/output_0_split -> inception_4a/output_inception_4a/output_0_split_2
I0403 02:30:38.047215 25319 net.cpp:399] inception_4a/output_inception_4a/output_0_split -> inception_4a/output_inception_4a/output_0_split_3
I0403 02:30:38.047240 25319 net.cpp:399] inception_4a/output_inception_4a/output_0_split -> inception_4a/output_inception_4a/output_0_split_4
I0403 02:30:38.047330 25319 net.cpp:141] Setting up inception_4a/output_inception_4a/output_0_split
I0403 02:30:38.047358 25319 net.cpp:148] Top shape: 24 512 14 14 (2408448)
I0403 02:30:38.047381 25319 net.cpp:148] Top shape: 24 512 14 14 (2408448)
I0403 02:30:38.047400 25319 net.cpp:148] Top shape: 24 512 14 14 (2408448)
I0403 02:30:38.047417 25319 net.cpp:148] Top shape: 24 512 14 14 (2408448)
I0403 02:30:38.047435 25319 net.cpp:148] Top shape: 24 512 14 14 (2408448)
I0403 02:30:38.047451 25319 net.cpp:156] Memory required for data: 944714112
I0403 02:30:38.047468 25319 layer_factory.hpp:77] Creating layer loss1/ave_pool
I0403 02:30:38.047489 25319 net.cpp:91] Creating Layer loss1/ave_pool
I0403 02:30:38.047526 25319 net.cpp:425] loss1/ave_pool <- inception_4a/output_inception_4a/output_0_split_0
I0403 02:30:38.047549 25319 net.cpp:399] loss1/ave_pool -> loss1/ave_pool
I0403 02:30:38.047595 25319 net.cpp:141] Setting up loss1/ave_pool
I0403 02:30:38.047621 25319 net.cpp:148] Top shape: 24 512 4 4 (196608)
I0403 02:30:38.047637 25319 net.cpp:156] Memory required for data: 945500544
I0403 02:30:38.047654 25319 layer_factory.hpp:77] Creating layer loss1/conv
I0403 02:30:38.047682 25319 net.cpp:91] Creating Layer loss1/conv
I0403 02:30:38.047700 25319 net.cpp:425] loss1/conv <- loss1/ave_pool
I0403 02:30:38.047722 25319 net.cpp:399] loss1/conv -> loss1/conv
I0403 02:30:38.048399 25319 net.cpp:141] Setting up loss1/conv
I0403 02:30:38.048429 25319 net.cpp:148] Top shape: 24 128 4 4 (49152)
I0403 02:30:38.048446 25319 net.cpp:156] Memory required for data: 945697152
I0403 02:30:38.048467 25319 layer_factory.hpp:77] Creating layer loss1/relu_conv
I0403 02:30:38.048488 25319 net.cpp:91] Creating Layer loss1/relu_conv
I0403 02:30:38.048506 25319 net.cpp:425] loss1/relu_conv <- loss1/conv
I0403 02:30:38.048530 25319 net.cpp:386] loss1/relu_conv -> loss1/conv (in-place)
I0403 02:30:38.048553 25319 net.cpp:141] Setting up loss1/relu_conv
I0403 02:30:38.048573 25319 net.cpp:148] Top shape: 24 128 4 4 (49152)
I0403 02:30:38.048589 25319 net.cpp:156] Memory required for data: 945893760
I0403 02:30:38.048605 25319 layer_factory.hpp:77] Creating layer loss1/fc
I0403 02:30:38.048651 25319 net.cpp:91] Creating Layer loss1/fc
I0403 02:30:38.048673 25319 net.cpp:425] loss1/fc <- loss1/conv
I0403 02:30:38.048699 25319 net.cpp:399] loss1/fc -> loss1/fc
I0403 02:30:38.068464 25319 net.cpp:141] Setting up loss1/fc
I0403 02:30:38.068513 25319 net.cpp:148] Top shape: 24 1024 (24576)
I0403 02:30:38.068532 25319 net.cpp:156] Memory required for data: 945992064
I0403 02:30:38.068557 25319 layer_factory.hpp:77] Creating layer loss1/relu_fc
I0403 02:30:38.068579 25319 net.cpp:91] Creating Layer loss1/relu_fc
I0403 02:30:38.068598 25319 net.cpp:425] loss1/relu_fc <- loss1/fc
I0403 02:30:38.068620 25319 net.cpp:386] loss1/relu_fc -> loss1/fc (in-place)
I0403 02:30:38.068645 25319 net.cpp:141] Setting up loss1/relu_fc
I0403 02:30:38.068665 25319 net.cpp:148] Top shape: 24 1024 (24576)
I0403 02:30:38.068681 25319 net.cpp:156] Memory required for data: 946090368
I0403 02:30:38.068698 25319 layer_factory.hpp:77] Creating layer loss1/drop_fc
I0403 02:30:38.068753 25319 net.cpp:91] Creating Layer loss1/drop_fc
I0403 02:30:38.068775 25319 net.cpp:425] loss1/drop_fc <- loss1/fc
I0403 02:30:38.068799 25319 net.cpp:386] loss1/drop_fc -> loss1/fc (in-place)
I0403 02:30:38.068866 25319 net.cpp:141] Setting up loss1/drop_fc
I0403 02:30:38.068893 25319 net.cpp:148] Top shape: 24 1024 (24576)
I0403 02:30:38.068910 25319 net.cpp:156] Memory required for data: 946188672
I0403 02:30:38.068928 25319 layer_factory.hpp:77] Creating layer loss1/classifier_plantvillage
I0403 02:30:38.068951 25319 net.cpp:91] Creating Layer loss1/classifier_plantvillage
I0403 02:30:38.068969 25319 net.cpp:425] loss1/classifier_plantvillage <- loss1/fc
I0403 02:30:38.068994 25319 net.cpp:399] loss1/classifier_plantvillage -> loss1/classifier_plantvillage
I0403 02:30:38.070024 25319 net.cpp:141] Setting up loss1/classifier_plantvillage
I0403 02:30:38.070061 25319 net.cpp:148] Top shape: 24 38 (912)
I0403 02:30:38.070080 25319 net.cpp:156] Memory required for data: 946192320
I0403 02:30:38.070102 25319 layer_factory.hpp:77] Creating layer inception_4b/1x1
I0403 02:30:38.070129 25319 net.cpp:91] Creating Layer inception_4b/1x1
I0403 02:30:38.070150 25319 net.cpp:425] inception_4b/1x1 <- inception_4a/output_inception_4a/output_0_split_1
I0403 02:30:38.070176 25319 net.cpp:399] inception_4b/1x1 -> inception_4b/1x1
I0403 02:30:38.070986 25319 net.cpp:141] Setting up inception_4b/1x1
I0403 02:30:38.071015 25319 net.cpp:148] Top shape: 24 160 14 14 (752640)
I0403 02:30:38.071034 25319 net.cpp:156] Memory required for data: 949202880
I0403 02:30:38.071055 25319 layer_factory.hpp:77] Creating layer inception_4b/relu_1x1
I0403 02:30:38.071097 25319 net.cpp:91] Creating Layer inception_4b/relu_1x1
I0403 02:30:38.071118 25319 net.cpp:425] inception_4b/relu_1x1 <- inception_4b/1x1
I0403 02:30:38.071137 25319 net.cpp:386] inception_4b/relu_1x1 -> inception_4b/1x1 (in-place)
I0403 02:30:38.071163 25319 net.cpp:141] Setting up inception_4b/relu_1x1
I0403 02:30:38.071185 25319 net.cpp:148] Top shape: 24 160 14 14 (752640)
I0403 02:30:38.071202 25319 net.cpp:156] Memory required for data: 952213440
I0403 02:30:38.071219 25319 layer_factory.hpp:77] Creating layer inception_4b/3x3_reduce
I0403 02:30:38.071246 25319 net.cpp:91] Creating Layer inception_4b/3x3_reduce
I0403 02:30:38.071266 25319 net.cpp:425] inception_4b/3x3_reduce <- inception_4a/output_inception_4a/output_0_split_2
I0403 02:30:38.071290 25319 net.cpp:399] inception_4b/3x3_reduce -> inception_4b/3x3_reduce
I0403 02:30:38.071928 25319 net.cpp:141] Setting up inception_4b/3x3_reduce
I0403 02:30:38.071957 25319 net.cpp:148] Top shape: 24 112 14 14 (526848)
I0403 02:30:38.071975 25319 net.cpp:156] Memory required for data: 954320832
I0403 02:30:38.071995 25319 layer_factory.hpp:77] Creating layer inception_4b/relu_3x3_reduce
I0403 02:30:38.072017 25319 net.cpp:91] Creating Layer inception_4b/relu_3x3_reduce
I0403 02:30:38.072037 25319 net.cpp:425] inception_4b/relu_3x3_reduce <- inception_4b/3x3_reduce
I0403 02:30:38.072060 25319 net.cpp:386] inception_4b/relu_3x3_reduce -> inception_4b/3x3_reduce (in-place)
I0403 02:30:38.072084 25319 net.cpp:141] Setting up inception_4b/relu_3x3_reduce
I0403 02:30:38.072104 25319 net.cpp:148] Top shape: 24 112 14 14 (526848)
I0403 02:30:38.072120 25319 net.cpp:156] Memory required for data: 956428224
I0403 02:30:38.072137 25319 layer_factory.hpp:77] Creating layer inception_4b/3x3
I0403 02:30:38.072161 25319 net.cpp:91] Creating Layer inception_4b/3x3
I0403 02:30:38.072181 25319 net.cpp:425] inception_4b/3x3 <- inception_4b/3x3_reduce
I0403 02:30:38.072207 25319 net.cpp:399] inception_4b/3x3 -> inception_4b/3x3
I0403 02:30:38.074615 25319 net.cpp:141] Setting up inception_4b/3x3
I0403 02:30:38.074650 25319 net.cpp:148] Top shape: 24 224 14 14 (1053696)
I0403 02:30:38.074669 25319 net.cpp:156] Memory required for data: 960643008
I0403 02:30:38.074690 25319 layer_factory.hpp:77] Creating layer inception_4b/relu_3x3
I0403 02:30:38.074713 25319 net.cpp:91] Creating Layer inception_4b/relu_3x3
I0403 02:30:38.074733 25319 net.cpp:425] inception_4b/relu_3x3 <- inception_4b/3x3
I0403 02:30:38.074755 25319 net.cpp:386] inception_4b/relu_3x3 -> inception_4b/3x3 (in-place)
I0403 02:30:38.074780 25319 net.cpp:141] Setting up inception_4b/relu_3x3
I0403 02:30:38.074800 25319 net.cpp:148] Top shape: 24 224 14 14 (1053696)
I0403 02:30:38.074817 25319 net.cpp:156] Memory required for data: 964857792
I0403 02:30:38.074834 25319 layer_factory.hpp:77] Creating layer inception_4b/5x5_reduce
I0403 02:30:38.074858 25319 net.cpp:91] Creating Layer inception_4b/5x5_reduce
I0403 02:30:38.074878 25319 net.cpp:425] inception_4b/5x5_reduce <- inception_4a/output_inception_4a/output_0_split_3
I0403 02:30:38.074903 25319 net.cpp:399] inception_4b/5x5_reduce -> inception_4b/5x5_reduce
I0403 02:30:38.075242 25319 net.cpp:141] Setting up inception_4b/5x5_reduce
I0403 02:30:38.075271 25319 net.cpp:148] Top shape: 24 24 14 14 (112896)
I0403 02:30:38.075289 25319 net.cpp:156] Memory required for data: 965309376
I0403 02:30:38.075312 25319 layer_factory.hpp:77] Creating layer inception_4b/relu_5x5_reduce
I0403 02:30:38.075335 25319 net.cpp:91] Creating Layer inception_4b/relu_5x5_reduce
I0403 02:30:38.075355 25319 net.cpp:425] inception_4b/relu_5x5_reduce <- inception_4b/5x5_reduce
I0403 02:30:38.075381 25319 net.cpp:386] inception_4b/relu_5x5_reduce -> inception_4b/5x5_reduce (in-place)
I0403 02:30:38.075405 25319 net.cpp:141] Setting up inception_4b/relu_5x5_reduce
I0403 02:30:38.075426 25319 net.cpp:148] Top shape: 24 24 14 14 (112896)
I0403 02:30:38.075443 25319 net.cpp:156] Memory required for data: 965760960
I0403 02:30:38.075460 25319 layer_factory.hpp:77] Creating layer inception_4b/5x5
I0403 02:30:38.075508 25319 net.cpp:91] Creating Layer inception_4b/5x5
I0403 02:30:38.075531 25319 net.cpp:425] inception_4b/5x5 <- inception_4b/5x5_reduce
I0403 02:30:38.075557 25319 net.cpp:399] inception_4b/5x5 -> inception_4b/5x5
I0403 02:30:38.076069 25319 net.cpp:141] Setting up inception_4b/5x5
I0403 02:30:38.076098 25319 net.cpp:148] Top shape: 24 64 14 14 (301056)
I0403 02:30:38.076115 25319 net.cpp:156] Memory required for data: 966965184
I0403 02:30:38.076136 25319 layer_factory.hpp:77] Creating layer inception_4b/relu_5x5
I0403 02:30:38.076159 25319 net.cpp:91] Creating Layer inception_4b/relu_5x5
I0403 02:30:38.076179 25319 net.cpp:425] inception_4b/relu_5x5 <- inception_4b/5x5
I0403 02:30:38.076201 25319 net.cpp:386] inception_4b/relu_5x5 -> inception_4b/5x5 (in-place)
I0403 02:30:38.076226 25319 net.cpp:141] Setting up inception_4b/relu_5x5
I0403 02:30:38.076247 25319 net.cpp:148] Top shape: 24 64 14 14 (301056)
I0403 02:30:38.076266 25319 net.cpp:156] Memory required for data: 968169408
I0403 02:30:38.076282 25319 layer_factory.hpp:77] Creating layer inception_4b/pool
I0403 02:30:38.076303 25319 net.cpp:91] Creating Layer inception_4b/pool
I0403 02:30:38.076323 25319 net.cpp:425] inception_4b/pool <- inception_4a/output_inception_4a/output_0_split_4
I0403 02:30:38.076344 25319 net.cpp:399] inception_4b/pool -> inception_4b/pool
I0403 02:30:38.076416 25319 net.cpp:141] Setting up inception_4b/pool
I0403 02:30:38.076444 25319 net.cpp:148] Top shape: 24 512 14 14 (2408448)
I0403 02:30:38.076462 25319 net.cpp:156] Memory required for data: 977803200
I0403 02:30:38.076478 25319 layer_factory.hpp:77] Creating layer inception_4b/pool_proj
I0403 02:30:38.076505 25319 net.cpp:91] Creating Layer inception_4b/pool_proj
I0403 02:30:38.076526 25319 net.cpp:425] inception_4b/pool_proj <- inception_4b/pool
I0403 02:30:38.076552 25319 net.cpp:399] inception_4b/pool_proj -> inception_4b/pool_proj
I0403 02:30:38.077028 25319 net.cpp:141] Setting up inception_4b/pool_proj
I0403 02:30:38.077061 25319 net.cpp:148] Top shape: 24 64 14 14 (301056)
I0403 02:30:38.077080 25319 net.cpp:156] Memory required for data: 979007424
I0403 02:30:38.077101 25319 layer_factory.hpp:77] Creating layer inception_4b/relu_pool_proj
I0403 02:30:38.077124 25319 net.cpp:91] Creating Layer inception_4b/relu_pool_proj
I0403 02:30:38.077144 25319 net.cpp:425] inception_4b/relu_pool_proj <- inception_4b/pool_proj
I0403 02:30:38.077165 25319 net.cpp:386] inception_4b/relu_pool_proj -> inception_4b/pool_proj (in-place)
I0403 02:30:38.077188 25319 net.cpp:141] Setting up inception_4b/relu_pool_proj
I0403 02:30:38.077206 25319 net.cpp:148] Top shape: 24 64 14 14 (301056)
I0403 02:30:38.077224 25319 net.cpp:156] Memory required for data: 980211648
I0403 02:30:38.077240 25319 layer_factory.hpp:77] Creating layer inception_4b/output
I0403 02:30:38.077261 25319 net.cpp:91] Creating Layer inception_4b/output
I0403 02:30:38.077280 25319 net.cpp:425] inception_4b/output <- inception_4b/1x1
I0403 02:30:38.077298 25319 net.cpp:425] inception_4b/output <- inception_4b/3x3
I0403 02:30:38.077317 25319 net.cpp:425] inception_4b/output <- inception_4b/5x5
I0403 02:30:38.077334 25319 net.cpp:425] inception_4b/output <- inception_4b/pool_proj
I0403 02:30:38.077368 25319 net.cpp:399] inception_4b/output -> inception_4b/output
I0403 02:30:38.077419 25319 net.cpp:141] Setting up inception_4b/output
I0403 02:30:38.077450 25319 net.cpp:148] Top shape: 24 512 14 14 (2408448)
I0403 02:30:38.077468 25319 net.cpp:156] Memory required for data: 989845440
I0403 02:30:38.077486 25319 layer_factory.hpp:77] Creating layer inception_4b/output_inception_4b/output_0_split
I0403 02:30:38.077507 25319 net.cpp:91] Creating Layer inception_4b/output_inception_4b/output_0_split
I0403 02:30:38.077527 25319 net.cpp:425] inception_4b/output_inception_4b/output_0_split <- inception_4b/output
I0403 02:30:38.077548 25319 net.cpp:399] inception_4b/output_inception_4b/output_0_split -> inception_4b/output_inception_4b/output_0_split_0
I0403 02:30:38.077571 25319 net.cpp:399] inception_4b/output_inception_4b/output_0_split -> inception_4b/output_inception_4b/output_0_split_1
I0403 02:30:38.077613 25319 net.cpp:399] inception_4b/output_inception_4b/output_0_split -> inception_4b/output_inception_4b/output_0_split_2
I0403 02:30:38.085939 25319 net.cpp:399] inception_4b/output_inception_4b/output_0_split -> inception_4b/output_inception_4b/output_0_split_3
I0403 02:30:38.086030 25319 net.cpp:141] Setting up inception_4b/output_inception_4b/output_0_split
I0403 02:30:38.086069 25319 net.cpp:148] Top shape: 24 512 14 14 (2408448)
I0403 02:30:38.086098 25319 net.cpp:148] Top shape: 24 512 14 14 (2408448)
I0403 02:30:38.086148 25319 net.cpp:148] Top shape: 24 512 14 14 (2408448)
I0403 02:30:38.086166 25319 net.cpp:148] Top shape: 24 512 14 14 (2408448)
I0403 02:30:38.086182 25319 net.cpp:156] Memory required for data: 1028380608
I0403 02:30:38.086213 25319 layer_factory.hpp:77] Creating layer inception_4c/1x1
I0403 02:30:38.086258 25319 net.cpp:91] Creating Layer inception_4c/1x1
I0403 02:30:38.086321 25319 net.cpp:425] inception_4c/1x1 <- inception_4b/output_inception_4b/output_0_split_0
I0403 02:30:38.086349 25319 net.cpp:399] inception_4c/1x1 -> inception_4c/1x1
I0403 02:30:38.087076 25319 net.cpp:141] Setting up inception_4c/1x1
I0403 02:30:38.087123 25319 net.cpp:148] Top shape: 24 128 14 14 (602112)
I0403 02:30:38.087146 25319 net.cpp:156] Memory required for data: 1030789056
I0403 02:30:38.087167 25319 layer_factory.hpp:77] Creating layer inception_4c/relu_1x1
I0403 02:30:38.087226 25319 net.cpp:91] Creating Layer inception_4c/relu_1x1
I0403 02:30:38.087249 25319 net.cpp:425] inception_4c/relu_1x1 <- inception_4c/1x1
I0403 02:30:38.087268 25319 net.cpp:386] inception_4c/relu_1x1 -> inception_4c/1x1 (in-place)
I0403 02:30:38.087291 25319 net.cpp:141] Setting up inception_4c/relu_1x1
I0403 02:30:38.087311 25319 net.cpp:148] Top shape: 24 128 14 14 (602112)
I0403 02:30:38.087327 25319 net.cpp:156] Memory required for data: 1033197504
I0403 02:30:38.087343 25319 layer_factory.hpp:77] Creating layer inception_4c/3x3_reduce
I0403 02:30:38.087375 25319 net.cpp:91] Creating Layer inception_4c/3x3_reduce
I0403 02:30:38.087399 25319 net.cpp:425] inception_4c/3x3_reduce <- inception_4b/output_inception_4b/output_0_split_1
I0403 02:30:38.087421 25319 net.cpp:399] inception_4c/3x3_reduce -> inception_4c/3x3_reduce
I0403 02:30:38.088788 25319 net.cpp:141] Setting up inception_4c/3x3_reduce
I0403 02:30:38.088822 25319 net.cpp:148] Top shape: 24 128 14 14 (602112)
I0403 02:30:38.088841 25319 net.cpp:156] Memory required for data: 1035605952
I0403 02:30:38.088862 25319 layer_factory.hpp:77] Creating layer inception_4c/relu_3x3_reduce
I0403 02:30:38.088884 25319 net.cpp:91] Creating Layer inception_4c/relu_3x3_reduce
I0403 02:30:38.088902 25319 net.cpp:425] inception_4c/relu_3x3_reduce <- inception_4c/3x3_reduce
I0403 02:30:38.088927 25319 net.cpp:386] inception_4c/relu_3x3_reduce -> inception_4c/3x3_reduce (in-place)
I0403 02:30:38.088951 25319 net.cpp:141] Setting up inception_4c/relu_3x3_reduce
I0403 02:30:38.088973 25319 net.cpp:148] Top shape: 24 128 14 14 (602112)
I0403 02:30:38.088989 25319 net.cpp:156] Memory required for data: 1038014400
I0403 02:30:38.089006 25319 layer_factory.hpp:77] Creating layer inception_4c/3x3
I0403 02:30:38.089035 25319 net.cpp:91] Creating Layer inception_4c/3x3
I0403 02:30:38.089056 25319 net.cpp:425] inception_4c/3x3 <- inception_4c/3x3_reduce
I0403 02:30:38.089077 25319 net.cpp:399] inception_4c/3x3 -> inception_4c/3x3
I0403 02:30:38.092025 25319 net.cpp:141] Setting up inception_4c/3x3
I0403 02:30:38.092061 25319 net.cpp:148] Top shape: 24 256 14 14 (1204224)
I0403 02:30:38.092106 25319 net.cpp:156] Memory required for data: 1042831296
I0403 02:30:38.092160 25319 layer_factory.hpp:77] Creating layer inception_4c/relu_3x3
I0403 02:30:38.092186 25319 net.cpp:91] Creating Layer inception_4c/relu_3x3
I0403 02:30:38.092206 25319 net.cpp:425] inception_4c/relu_3x3 <- inception_4c/3x3
I0403 02:30:38.092228 25319 net.cpp:386] inception_4c/relu_3x3 -> inception_4c/3x3 (in-place)
I0403 02:30:38.092272 25319 net.cpp:141] Setting up inception_4c/relu_3x3
I0403 02:30:38.092295 25319 net.cpp:148] Top shape: 24 256 14 14 (1204224)
I0403 02:30:38.092313 25319 net.cpp:156] Memory required for data: 1047648192
I0403 02:30:38.092330 25319 layer_factory.hpp:77] Creating layer inception_4c/5x5_reduce
I0403 02:30:38.092362 25319 net.cpp:91] Creating Layer inception_4c/5x5_reduce
I0403 02:30:38.092384 25319 net.cpp:425] inception_4c/5x5_reduce <- inception_4b/output_inception_4b/output_0_split_2
I0403 02:30:38.092412 25319 net.cpp:399] inception_4c/5x5_reduce -> inception_4c/5x5_reduce
I0403 02:30:38.092763 25319 net.cpp:141] Setting up inception_4c/5x5_reduce
I0403 02:30:38.092792 25319 net.cpp:148] Top shape: 24 24 14 14 (112896)
I0403 02:30:38.092810 25319 net.cpp:156] Memory required for data: 1048099776
I0403 02:30:38.092831 25319 layer_factory.hpp:77] Creating layer inception_4c/relu_5x5_reduce
I0403 02:30:38.092856 25319 net.cpp:91] Creating Layer inception_4c/relu_5x5_reduce
I0403 02:30:38.092880 25319 net.cpp:425] inception_4c/relu_5x5_reduce <- inception_4c/5x5_reduce
I0403 02:30:38.092900 25319 net.cpp:386] inception_4c/relu_5x5_reduce -> inception_4c/5x5_reduce (in-place)
I0403 02:30:38.092923 25319 net.cpp:141] Setting up inception_4c/relu_5x5_reduce
I0403 02:30:38.092943 25319 net.cpp:148] Top shape: 24 24 14 14 (112896)
I0403 02:30:38.092962 25319 net.cpp:156] Memory required for data: 1048551360
I0403 02:30:38.092978 25319 layer_factory.hpp:77] Creating layer inception_4c/5x5
I0403 02:30:38.093006 25319 net.cpp:91] Creating Layer inception_4c/5x5
I0403 02:30:38.093026 25319 net.cpp:425] inception_4c/5x5 <- inception_4c/5x5_reduce
I0403 02:30:38.093050 25319 net.cpp:399] inception_4c/5x5 -> inception_4c/5x5
I0403 02:30:38.093575 25319 net.cpp:141] Setting up inception_4c/5x5
I0403 02:30:38.093637 25319 net.cpp:148] Top shape: 24 64 14 14 (301056)
I0403 02:30:38.093688 25319 net.cpp:156] Memory required for data: 1049755584
I0403 02:30:38.093710 25319 layer_factory.hpp:77] Creating layer inception_4c/relu_5x5
I0403 02:30:38.093762 25319 net.cpp:91] Creating Layer inception_4c/relu_5x5
I0403 02:30:38.093785 25319 net.cpp:425] inception_4c/relu_5x5 <- inception_4c/5x5
I0403 02:30:38.093837 25319 net.cpp:386] inception_4c/relu_5x5 -> inception_4c/5x5 (in-place)
I0403 02:30:38.093861 25319 net.cpp:141] Setting up inception_4c/relu_5x5
I0403 02:30:38.093914 25319 net.cpp:148] Top shape: 24 64 14 14 (301056)
I0403 02:30:38.093930 25319 net.cpp:156] Memory required for data: 1050959808
I0403 02:30:38.093992 25319 layer_factory.hpp:77] Creating layer inception_4c/pool
I0403 02:30:38.094015 25319 net.cpp:91] Creating Layer inception_4c/pool
I0403 02:30:38.094066 25319 net.cpp:425] inception_4c/pool <- inception_4b/output_inception_4b/output_0_split_3
I0403 02:30:38.094094 25319 net.cpp:399] inception_4c/pool -> inception_4c/pool
I0403 02:30:38.094198 25319 net.cpp:141] Setting up inception_4c/pool
I0403 02:30:38.094255 25319 net.cpp:148] Top shape: 24 512 14 14 (2408448)
I0403 02:30:38.094275 25319 net.cpp:156] Memory required for data: 1060593600
I0403 02:30:38.094292 25319 layer_factory.hpp:77] Creating layer inception_4c/pool_proj
I0403 02:30:38.094353 25319 net.cpp:91] Creating Layer inception_4c/pool_proj
I0403 02:30:38.094410 25319 net.cpp:425] inception_4c/pool_proj <- inception_4c/pool
I0403 02:30:38.094436 25319 net.cpp:399] inception_4c/pool_proj -> inception_4c/pool_proj
I0403 02:30:38.094921 25319 net.cpp:141] Setting up inception_4c/pool_proj
I0403 02:30:38.094952 25319 net.cpp:148] Top shape: 24 64 14 14 (301056)
I0403 02:30:38.094970 25319 net.cpp:156] Memory required for data: 1061797824
I0403 02:30:38.094992 25319 layer_factory.hpp:77] Creating layer inception_4c/relu_pool_proj
I0403 02:30:38.095016 25319 net.cpp:91] Creating Layer inception_4c/relu_pool_proj
I0403 02:30:38.095036 25319 net.cpp:425] inception_4c/relu_pool_proj <- inception_4c/pool_proj
I0403 02:30:38.095059 25319 net.cpp:386] inception_4c/relu_pool_proj -> inception_4c/pool_proj (in-place)
I0403 02:30:38.095083 25319 net.cpp:141] Setting up inception_4c/relu_pool_proj
I0403 02:30:38.095120 25319 net.cpp:148] Top shape: 24 64 14 14 (301056)
I0403 02:30:38.095137 25319 net.cpp:156] Memory required for data: 1063002048
I0403 02:30:38.095155 25319 layer_factory.hpp:77] Creating layer inception_4c/output
I0403 02:30:38.095175 25319 net.cpp:91] Creating Layer inception_4c/output
I0403 02:30:38.095193 25319 net.cpp:425] inception_4c/output <- inception_4c/1x1
I0403 02:30:38.095211 25319 net.cpp:425] inception_4c/output <- inception_4c/3x3
I0403 02:30:38.095229 25319 net.cpp:425] inception_4c/output <- inception_4c/5x5
I0403 02:30:38.095247 25319 net.cpp:425] inception_4c/output <- inception_4c/pool_proj
I0403 02:30:38.095266 25319 net.cpp:399] inception_4c/output -> inception_4c/output
I0403 02:30:38.095314 25319 net.cpp:141] Setting up inception_4c/output
I0403 02:30:38.095340 25319 net.cpp:148] Top shape: 24 512 14 14 (2408448)
I0403 02:30:38.095357 25319 net.cpp:156] Memory required for data: 1072635840
I0403 02:30:38.095379 25319 layer_factory.hpp:77] Creating layer inception_4c/output_inception_4c/output_0_split
I0403 02:30:38.095402 25319 net.cpp:91] Creating Layer inception_4c/output_inception_4c/output_0_split
I0403 02:30:38.095420 25319 net.cpp:425] inception_4c/output_inception_4c/output_0_split <- inception_4c/output
I0403 02:30:38.095443 25319 net.cpp:399] inception_4c/output_inception_4c/output_0_split -> inception_4c/output_inception_4c/output_0_split_0
I0403 02:30:38.095468 25319 net.cpp:399] inception_4c/output_inception_4c/output_0_split -> inception_4c/output_inception_4c/output_0_split_1
I0403 02:30:38.095491 25319 net.cpp:399] inception_4c/output_inception_4c/output_0_split -> inception_4c/output_inception_4c/output_0_split_2
I0403 02:30:38.095515 25319 net.cpp:399] inception_4c/output_inception_4c/output_0_split -> inception_4c/output_inception_4c/output_0_split_3
I0403 02:30:38.095597 25319 net.cpp:141] Setting up inception_4c/output_inception_4c/output_0_split
I0403 02:30:38.095621 25319 net.cpp:148] Top shape: 24 512 14 14 (2408448)
I0403 02:30:38.095640 25319 net.cpp:148] Top shape: 24 512 14 14 (2408448)
I0403 02:30:38.095657 25319 net.cpp:148] Top shape: 24 512 14 14 (2408448)
I0403 02:30:38.095674 25319 net.cpp:148] Top shape: 24 512 14 14 (2408448)
I0403 02:30:38.095691 25319 net.cpp:156] Memory required for data: 1111171008
I0403 02:30:38.095708 25319 layer_factory.hpp:77] Creating layer inception_4d/1x1
I0403 02:30:38.095736 25319 net.cpp:91] Creating Layer inception_4d/1x1
I0403 02:30:38.095755 25319 net.cpp:425] inception_4d/1x1 <- inception_4c/output_inception_4c/output_0_split_0
I0403 02:30:38.095777 25319 net.cpp:399] inception_4d/1x1 -> inception_4d/1x1
I0403 02:30:38.096439 25319 net.cpp:141] Setting up inception_4d/1x1
I0403 02:30:38.096469 25319 net.cpp:148] Top shape: 24 112 14 14 (526848)
I0403 02:30:38.096487 25319 net.cpp:156] Memory required for data: 1113278400
I0403 02:30:38.096509 25319 layer_factory.hpp:77] Creating layer inception_4d/relu_1x1
I0403 02:30:38.096531 25319 net.cpp:91] Creating Layer inception_4d/relu_1x1
I0403 02:30:38.096550 25319 net.cpp:425] inception_4d/relu_1x1 <- inception_4d/1x1
I0403 02:30:38.096575 25319 net.cpp:386] inception_4d/relu_1x1 -> inception_4d/1x1 (in-place)
I0403 02:30:38.096597 25319 net.cpp:141] Setting up inception_4d/relu_1x1
I0403 02:30:38.096618 25319 net.cpp:148] Top shape: 24 112 14 14 (526848)
I0403 02:30:38.096637 25319 net.cpp:156] Memory required for data: 1115385792
I0403 02:30:38.096652 25319 layer_factory.hpp:77] Creating layer inception_4d/3x3_reduce
I0403 02:30:38.096679 25319 net.cpp:91] Creating Layer inception_4d/3x3_reduce
I0403 02:30:38.096700 25319 net.cpp:425] inception_4d/3x3_reduce <- inception_4c/output_inception_4c/output_0_split_1
I0403 02:30:38.096724 25319 net.cpp:399] inception_4d/3x3_reduce -> inception_4d/3x3_reduce
I0403 02:30:38.097496 25319 net.cpp:141] Setting up inception_4d/3x3_reduce
I0403 02:30:38.097524 25319 net.cpp:148] Top shape: 24 144 14 14 (677376)
I0403 02:30:38.097542 25319 net.cpp:156] Memory required for data: 1118095296
I0403 02:30:38.097579 25319 layer_factory.hpp:77] Creating layer inception_4d/relu_3x3_reduce
I0403 02:30:38.097604 25319 net.cpp:91] Creating Layer inception_4d/relu_3x3_reduce
I0403 02:30:38.097625 25319 net.cpp:425] inception_4d/relu_3x3_reduce <- inception_4d/3x3_reduce
I0403 02:30:38.097645 25319 net.cpp:386] inception_4d/relu_3x3_reduce -> inception_4d/3x3_reduce (in-place)
I0403 02:30:38.097666 25319 net.cpp:141] Setting up inception_4d/relu_3x3_reduce
I0403 02:30:38.097687 25319 net.cpp:148] Top shape: 24 144 14 14 (677376)
I0403 02:30:38.097703 25319 net.cpp:156] Memory required for data: 1120804800
I0403 02:30:38.097720 25319 layer_factory.hpp:77] Creating layer inception_4d/3x3
I0403 02:30:38.097748 25319 net.cpp:91] Creating Layer inception_4d/3x3
I0403 02:30:38.097767 25319 net.cpp:425] inception_4d/3x3 <- inception_4d/3x3_reduce
I0403 02:30:38.097790 25319 net.cpp:399] inception_4d/3x3 -> inception_4d/3x3
I0403 02:30:38.101696 25319 net.cpp:141] Setting up inception_4d/3x3
I0403 02:30:38.101732 25319 net.cpp:148] Top shape: 24 288 14 14 (1354752)
I0403 02:30:38.101749 25319 net.cpp:156] Memory required for data: 1126223808
I0403 02:30:38.101770 25319 layer_factory.hpp:77] Creating layer inception_4d/relu_3x3
I0403 02:30:38.101794 25319 net.cpp:91] Creating Layer inception_4d/relu_3x3
I0403 02:30:38.101815 25319 net.cpp:425] inception_4d/relu_3x3 <- inception_4d/3x3
I0403 02:30:38.101836 25319 net.cpp:386] inception_4d/relu_3x3 -> inception_4d/3x3 (in-place)
I0403 02:30:38.101860 25319 net.cpp:141] Setting up inception_4d/relu_3x3
I0403 02:30:38.101879 25319 net.cpp:148] Top shape: 24 288 14 14 (1354752)
I0403 02:30:38.101896 25319 net.cpp:156] Memory required for data: 1131642816
I0403 02:30:38.101913 25319 layer_factory.hpp:77] Creating layer inception_4d/5x5_reduce
I0403 02:30:38.101940 25319 net.cpp:91] Creating Layer inception_4d/5x5_reduce
I0403 02:30:38.101960 25319 net.cpp:425] inception_4d/5x5_reduce <- inception_4c/output_inception_4c/output_0_split_2
I0403 02:30:38.101985 25319 net.cpp:399] inception_4d/5x5_reduce -> inception_4d/5x5_reduce
I0403 02:30:38.102362 25319 net.cpp:141] Setting up inception_4d/5x5_reduce
I0403 02:30:38.102414 25319 net.cpp:148] Top shape: 24 32 14 14 (150528)
I0403 02:30:38.102464 25319 net.cpp:156] Memory required for data: 1132244928
I0403 02:30:38.102517 25319 layer_factory.hpp:77] Creating layer inception_4d/relu_5x5_reduce
I0403 02:30:38.102571 25319 net.cpp:91] Creating Layer inception_4d/relu_5x5_reduce
I0403 02:30:38.102622 25319 net.cpp:425] inception_4d/relu_5x5_reduce <- inception_4d/5x5_reduce
I0403 02:30:38.102675 25319 net.cpp:386] inception_4d/relu_5x5_reduce -> inception_4d/5x5_reduce (in-place)
I0403 02:30:38.102728 25319 net.cpp:141] Setting up inception_4d/relu_5x5_reduce
I0403 02:30:38.102782 25319 net.cpp:148] Top shape: 24 32 14 14 (150528)
I0403 02:30:38.102828 25319 net.cpp:156] Memory required for data: 1132847040
I0403 02:30:38.102875 25319 layer_factory.hpp:77] Creating layer inception_4d/5x5
I0403 02:30:38.102937 25319 net.cpp:91] Creating Layer inception_4d/5x5
I0403 02:30:38.102988 25319 net.cpp:425] inception_4d/5x5 <- inception_4d/5x5_reduce
I0403 02:30:38.103045 25319 net.cpp:399] inception_4d/5x5 -> inception_4d/5x5
I0403 02:30:38.103677 25319 net.cpp:141] Setting up inception_4d/5x5
I0403 02:30:38.103708 25319 net.cpp:148] Top shape: 24 64 14 14 (301056)
I0403 02:30:38.103724 25319 net.cpp:156] Memory required for data: 1134051264
I0403 02:30:38.103744 25319 layer_factory.hpp:77] Creating layer inception_4d/relu_5x5
I0403 02:30:38.103768 25319 net.cpp:91] Creating Layer inception_4d/relu_5x5
I0403 02:30:38.103790 25319 net.cpp:425] inception_4d/relu_5x5 <- inception_4d/5x5
I0403 02:30:38.103809 25319 net.cpp:386] inception_4d/relu_5x5 -> inception_4d/5x5 (in-place)
I0403 02:30:38.103832 25319 net.cpp:141] Setting up inception_4d/relu_5x5
I0403 02:30:38.103850 25319 net.cpp:148] Top shape: 24 64 14 14 (301056)
I0403 02:30:38.103868 25319 net.cpp:156] Memory required for data: 1135255488
I0403 02:30:38.103884 25319 layer_factory.hpp:77] Creating layer inception_4d/pool
I0403 02:30:38.103927 25319 net.cpp:91] Creating Layer inception_4d/pool
I0403 02:30:38.103950 25319 net.cpp:425] inception_4d/pool <- inception_4c/output_inception_4c/output_0_split_3
I0403 02:30:38.103971 25319 net.cpp:399] inception_4d/pool -> inception_4d/pool
I0403 02:30:38.104034 25319 net.cpp:141] Setting up inception_4d/pool
I0403 02:30:38.104061 25319 net.cpp:148] Top shape: 24 512 14 14 (2408448)
I0403 02:30:38.104079 25319 net.cpp:156] Memory required for data: 1144889280
I0403 02:30:38.104096 25319 layer_factory.hpp:77] Creating layer inception_4d/pool_proj
I0403 02:30:38.104125 25319 net.cpp:91] Creating Layer inception_4d/pool_proj
I0403 02:30:38.104147 25319 net.cpp:425] inception_4d/pool_proj <- inception_4d/pool
I0403 02:30:38.104171 25319 net.cpp:399] inception_4d/pool_proj -> inception_4d/pool_proj
I0403 02:30:38.105281 25319 net.cpp:141] Setting up inception_4d/pool_proj
I0403 02:30:38.105315 25319 net.cpp:148] Top shape: 24 64 14 14 (301056)
I0403 02:30:38.105334 25319 net.cpp:156] Memory required for data: 1146093504
I0403 02:30:38.105355 25319 layer_factory.hpp:77] Creating layer inception_4d/relu_pool_proj
I0403 02:30:38.105384 25319 net.cpp:91] Creating Layer inception_4d/relu_pool_proj
I0403 02:30:38.105406 25319 net.cpp:425] inception_4d/relu_pool_proj <- inception_4d/pool_proj
I0403 02:30:38.105425 25319 net.cpp:386] inception_4d/relu_pool_proj -> inception_4d/pool_proj (in-place)
I0403 02:30:38.105449 25319 net.cpp:141] Setting up inception_4d/relu_pool_proj
I0403 02:30:38.105470 25319 net.cpp:148] Top shape: 24 64 14 14 (301056)
I0403 02:30:38.105487 25319 net.cpp:156] Memory required for data: 1147297728
I0403 02:30:38.105504 25319 layer_factory.hpp:77] Creating layer inception_4d/output
I0403 02:30:38.105525 25319 net.cpp:91] Creating Layer inception_4d/output
I0403 02:30:38.105541 25319 net.cpp:425] inception_4d/output <- inception_4d/1x1
I0403 02:30:38.105561 25319 net.cpp:425] inception_4d/output <- inception_4d/3x3
I0403 02:30:38.105578 25319 net.cpp:425] inception_4d/output <- inception_4d/5x5
I0403 02:30:38.105597 25319 net.cpp:425] inception_4d/output <- inception_4d/pool_proj
I0403 02:30:38.105617 25319 net.cpp:399] inception_4d/output -> inception_4d/output
I0403 02:30:38.105664 25319 net.cpp:141] Setting up inception_4d/output
I0403 02:30:38.105690 25319 net.cpp:148] Top shape: 24 528 14 14 (2483712)
I0403 02:30:38.105707 25319 net.cpp:156] Memory required for data: 1157232576
I0403 02:30:38.105723 25319 layer_factory.hpp:77] Creating layer inception_4d/output_inception_4d/output_0_split
I0403 02:30:38.105747 25319 net.cpp:91] Creating Layer inception_4d/output_inception_4d/output_0_split
I0403 02:30:38.105767 25319 net.cpp:425] inception_4d/output_inception_4d/output_0_split <- inception_4d/output
I0403 02:30:38.105787 25319 net.cpp:399] inception_4d/output_inception_4d/output_0_split -> inception_4d/output_inception_4d/output_0_split_0
I0403 02:30:38.105811 25319 net.cpp:399] inception_4d/output_inception_4d/output_0_split -> inception_4d/output_inception_4d/output_0_split_1
I0403 02:30:38.105835 25319 net.cpp:399] inception_4d/output_inception_4d/output_0_split -> inception_4d/output_inception_4d/output_0_split_2
I0403 02:30:38.105859 25319 net.cpp:399] inception_4d/output_inception_4d/output_0_split -> inception_4d/output_inception_4d/output_0_split_3
I0403 02:30:38.105885 25319 net.cpp:399] inception_4d/output_inception_4d/output_0_split -> inception_4d/output_inception_4d/output_0_split_4
I0403 02:30:38.105979 25319 net.cpp:141] Setting up inception_4d/output_inception_4d/output_0_split
I0403 02:30:38.106005 25319 net.cpp:148] Top shape: 24 528 14 14 (2483712)
I0403 02:30:38.106024 25319 net.cpp:148] Top shape: 24 528 14 14 (2483712)
I0403 02:30:38.106042 25319 net.cpp:148] Top shape: 24 528 14 14 (2483712)
I0403 02:30:38.106060 25319 net.cpp:148] Top shape: 24 528 14 14 (2483712)
I0403 02:30:38.106078 25319 net.cpp:148] Top shape: 24 528 14 14 (2483712)
I0403 02:30:38.106094 25319 net.cpp:156] Memory required for data: 1206906816
I0403 02:30:38.106129 25319 layer_factory.hpp:77] Creating layer loss2/ave_pool
I0403 02:30:38.106153 25319 net.cpp:91] Creating Layer loss2/ave_pool
I0403 02:30:38.106171 25319 net.cpp:425] loss2/ave_pool <- inception_4d/output_inception_4d/output_0_split_0
I0403 02:30:38.106196 25319 net.cpp:399] loss2/ave_pool -> loss2/ave_pool
I0403 02:30:38.106245 25319 net.cpp:141] Setting up loss2/ave_pool
I0403 02:30:38.106271 25319 net.cpp:148] Top shape: 24 528 4 4 (202752)
I0403 02:30:38.106288 25319 net.cpp:156] Memory required for data: 1207717824
I0403 02:30:38.106305 25319 layer_factory.hpp:77] Creating layer loss2/conv
I0403 02:30:38.106335 25319 net.cpp:91] Creating Layer loss2/conv
I0403 02:30:38.106356 25319 net.cpp:425] loss2/conv <- loss2/ave_pool
I0403 02:30:38.106395 25319 net.cpp:399] loss2/conv -> loss2/conv
I0403 02:30:38.107743 25319 net.cpp:141] Setting up loss2/conv
I0403 02:30:38.107777 25319 net.cpp:148] Top shape: 24 128 4 4 (49152)
I0403 02:30:38.107826 25319 net.cpp:156] Memory required for data: 1207914432
I0403 02:30:38.107861 25319 layer_factory.hpp:77] Creating layer loss2/relu_conv
I0403 02:30:38.107908 25319 net.cpp:91] Creating Layer loss2/relu_conv
I0403 02:30:38.107928 25319 net.cpp:425] loss2/relu_conv <- loss2/conv
I0403 02:30:38.107975 25319 net.cpp:386] loss2/relu_conv -> loss2/conv (in-place)
I0403 02:30:38.108016 25319 net.cpp:141] Setting up loss2/relu_conv
I0403 02:30:38.108059 25319 net.cpp:148] Top shape: 24 128 4 4 (49152)
I0403 02:30:38.108108 25319 net.cpp:156] Memory required for data: 1208111040
I0403 02:30:38.108129 25319 layer_factory.hpp:77] Creating layer loss2/fc
I0403 02:30:38.108163 25319 net.cpp:91] Creating Layer loss2/fc
I0403 02:30:38.108207 25319 net.cpp:425] loss2/fc <- loss2/conv
I0403 02:30:38.108263 25319 net.cpp:399] loss2/fc -> loss2/fc
I0403 02:30:38.127923 25319 net.cpp:141] Setting up loss2/fc
I0403 02:30:38.132905 25319 net.cpp:148] Top shape: 24 1024 (24576)
I0403 02:30:38.132956 25319 net.cpp:156] Memory required for data: 1208209344
I0403 02:30:38.132978 25319 layer_factory.hpp:77] Creating layer loss2/relu_fc
I0403 02:30:38.133033 25319 net.cpp:91] Creating Layer loss2/relu_fc
I0403 02:30:38.133075 25319 net.cpp:425] loss2/relu_fc <- loss2/fc
I0403 02:30:38.133100 25319 net.cpp:386] loss2/relu_fc -> loss2/fc (in-place)
I0403 02:30:38.133126 25319 net.cpp:141] Setting up loss2/relu_fc
I0403 02:30:38.133158 25319 net.cpp:148] Top shape: 24 1024 (24576)
I0403 02:30:38.133208 25319 net.cpp:156] Memory required for data: 1208307648
I0403 02:30:38.133226 25319 layer_factory.hpp:77] Creating layer loss2/drop_fc
I0403 02:30:38.133252 25319 net.cpp:91] Creating Layer loss2/drop_fc
I0403 02:30:38.133286 25319 net.cpp:425] loss2/drop_fc <- loss2/fc
I0403 02:30:38.133343 25319 net.cpp:386] loss2/drop_fc -> loss2/fc (in-place)
I0403 02:30:38.133404 25319 net.cpp:141] Setting up loss2/drop_fc
I0403 02:30:38.133458 25319 net.cpp:148] Top shape: 24 1024 (24576)
I0403 02:30:38.133477 25319 net.cpp:156] Memory required for data: 1208405952
I0403 02:30:38.133528 25319 layer_factory.hpp:77] Creating layer loss2/classifier_plantvillage
I0403 02:30:38.133554 25319 net.cpp:91] Creating Layer loss2/classifier_plantvillage
I0403 02:30:38.133584 25319 net.cpp:425] loss2/classifier_plantvillage <- loss2/fc
I0403 02:30:38.133626 25319 net.cpp:399] loss2/classifier_plantvillage -> loss2/classifier_plantvillage
I0403 02:30:38.134024 25319 net.cpp:141] Setting up loss2/classifier_plantvillage
I0403 02:30:38.134058 25319 net.cpp:148] Top shape: 24 38 (912)
I0403 02:30:38.134101 25319 net.cpp:156] Memory required for data: 1208409600
I0403 02:30:38.134124 25319 layer_factory.hpp:77] Creating layer inception_4e/1x1
I0403 02:30:38.134162 25319 net.cpp:91] Creating Layer inception_4e/1x1
I0403 02:30:38.134187 25319 net.cpp:425] inception_4e/1x1 <- inception_4d/output_inception_4d/output_0_split_1
I0403 02:30:38.134250 25319 net.cpp:399] inception_4e/1x1 -> inception_4e/1x1
I0403 02:30:38.135753 25319 net.cpp:141] Setting up inception_4e/1x1
I0403 02:30:38.135787 25319 net.cpp:148] Top shape: 24 256 14 14 (1204224)
I0403 02:30:38.135829 25319 net.cpp:156] Memory required for data: 1213226496
I0403 02:30:38.135853 25319 layer_factory.hpp:77] Creating layer inception_4e/relu_1x1
I0403 02:30:38.135875 25319 net.cpp:91] Creating Layer inception_4e/relu_1x1
I0403 02:30:38.135896 25319 net.cpp:425] inception_4e/relu_1x1 <- inception_4e/1x1
I0403 02:30:38.135916 25319 net.cpp:386] inception_4e/relu_1x1 -> inception_4e/1x1 (in-place)
I0403 02:30:38.135939 25319 net.cpp:141] Setting up inception_4e/relu_1x1
I0403 02:30:38.135959 25319 net.cpp:148] Top shape: 24 256 14 14 (1204224)
I0403 02:30:38.135977 25319 net.cpp:156] Memory required for data: 1218043392
I0403 02:30:38.135993 25319 layer_factory.hpp:77] Creating layer inception_4e/3x3_reduce
I0403 02:30:38.136020 25319 net.cpp:91] Creating Layer inception_4e/3x3_reduce
I0403 02:30:38.136044 25319 net.cpp:425] inception_4e/3x3_reduce <- inception_4d/output_inception_4d/output_0_split_2
I0403 02:30:38.136065 25319 net.cpp:399] inception_4e/3x3_reduce -> inception_4e/3x3_reduce
I0403 02:30:38.137562 25319 net.cpp:141] Setting up inception_4e/3x3_reduce
I0403 02:30:38.137605 25319 net.cpp:148] Top shape: 24 160 14 14 (752640)
I0403 02:30:38.137634 25319 net.cpp:156] Memory required for data: 1221053952
I0403 02:30:38.137676 25319 layer_factory.hpp:77] Creating layer inception_4e/relu_3x3_reduce
I0403 02:30:38.137719 25319 net.cpp:91] Creating Layer inception_4e/relu_3x3_reduce
I0403 02:30:38.137763 25319 net.cpp:425] inception_4e/relu_3x3_reduce <- inception_4e/3x3_reduce
I0403 02:30:38.137814 25319 net.cpp:386] inception_4e/relu_3x3_reduce -> inception_4e/3x3_reduce (in-place)
I0403 02:30:38.137863 25319 net.cpp:141] Setting up inception_4e/relu_3x3_reduce
I0403 02:30:38.137887 25319 net.cpp:148] Top shape: 24 160 14 14 (752640)
I0403 02:30:38.137926 25319 net.cpp:156] Memory required for data: 1224064512
I0403 02:30:38.137976 25319 layer_factory.hpp:77] Creating layer inception_4e/3x3
I0403 02:30:38.138017 25319 net.cpp:91] Creating Layer inception_4e/3x3
I0403 02:30:38.138038 25319 net.cpp:425] inception_4e/3x3 <- inception_4e/3x3_reduce
I0403 02:30:38.138064 25319 net.cpp:399] inception_4e/3x3 -> inception_4e/3x3
I0403 02:30:38.142740 25319 net.cpp:141] Setting up inception_4e/3x3
I0403 02:30:38.142776 25319 net.cpp:148] Top shape: 24 320 14 14 (1505280)
I0403 02:30:38.142794 25319 net.cpp:156] Memory required for data: 1230085632
I0403 02:30:38.142815 25319 layer_factory.hpp:77] Creating layer inception_4e/relu_3x3
I0403 02:30:38.142840 25319 net.cpp:91] Creating Layer inception_4e/relu_3x3
I0403 02:30:38.142860 25319 net.cpp:425] inception_4e/relu_3x3 <- inception_4e/3x3
I0403 02:30:38.142881 25319 net.cpp:386] inception_4e/relu_3x3 -> inception_4e/3x3 (in-place)
I0403 02:30:38.142904 25319 net.cpp:141] Setting up inception_4e/relu_3x3
I0403 02:30:38.142925 25319 net.cpp:148] Top shape: 24 320 14 14 (1505280)
I0403 02:30:38.142943 25319 net.cpp:156] Memory required for data: 1236106752
I0403 02:30:38.142961 25319 layer_factory.hpp:77] Creating layer inception_4e/5x5_reduce
I0403 02:30:38.142988 25319 net.cpp:91] Creating Layer inception_4e/5x5_reduce
I0403 02:30:38.143009 25319 net.cpp:425] inception_4e/5x5_reduce <- inception_4d/output_inception_4d/output_0_split_3
I0403 02:30:38.143033 25319 net.cpp:399] inception_4e/5x5_reduce -> inception_4e/5x5_reduce
I0403 02:30:38.143421 25319 net.cpp:141] Setting up inception_4e/5x5_reduce
I0403 02:30:38.143455 25319 net.cpp:148] Top shape: 24 32 14 14 (150528)
I0403 02:30:38.143473 25319 net.cpp:156] Memory required for data: 1236708864
I0403 02:30:38.143496 25319 layer_factory.hpp:77] Creating layer inception_4e/relu_5x5_reduce
I0403 02:30:38.143518 25319 net.cpp:91] Creating Layer inception_4e/relu_5x5_reduce
I0403 02:30:38.143538 25319 net.cpp:425] inception_4e/relu_5x5_reduce <- inception_4e/5x5_reduce
I0403 02:30:38.143559 25319 net.cpp:386] inception_4e/relu_5x5_reduce -> inception_4e/5x5_reduce (in-place)
I0403 02:30:38.143581 25319 net.cpp:141] Setting up inception_4e/relu_5x5_reduce
I0403 02:30:38.143602 25319 net.cpp:148] Top shape: 24 32 14 14 (150528)
I0403 02:30:38.143637 25319 net.cpp:156] Memory required for data: 1237310976
I0403 02:30:38.143656 25319 layer_factory.hpp:77] Creating layer inception_4e/5x5
I0403 02:30:38.143685 25319 net.cpp:91] Creating Layer inception_4e/5x5
I0403 02:30:38.143707 25319 net.cpp:425] inception_4e/5x5 <- inception_4e/5x5_reduce
I0403 02:30:38.143733 25319 net.cpp:399] inception_4e/5x5 -> inception_4e/5x5
I0403 02:30:38.144685 25319 net.cpp:141] Setting up inception_4e/5x5
I0403 02:30:38.144716 25319 net.cpp:148] Top shape: 24 128 14 14 (602112)
I0403 02:30:38.144732 25319 net.cpp:156] Memory required for data: 1239719424
I0403 02:30:38.144754 25319 layer_factory.hpp:77] Creating layer inception_4e/relu_5x5
I0403 02:30:38.144778 25319 net.cpp:91] Creating Layer inception_4e/relu_5x5
I0403 02:30:38.144798 25319 net.cpp:425] inception_4e/relu_5x5 <- inception_4e/5x5
I0403 02:30:38.144819 25319 net.cpp:386] inception_4e/relu_5x5 -> inception_4e/5x5 (in-place)
I0403 02:30:38.144845 25319 net.cpp:141] Setting up inception_4e/relu_5x5
I0403 02:30:38.144865 25319 net.cpp:148] Top shape: 24 128 14 14 (602112)
I0403 02:30:38.144882 25319 net.cpp:156] Memory required for data: 1242127872
I0403 02:30:38.144901 25319 layer_factory.hpp:77] Creating layer inception_4e/pool
I0403 02:30:38.144944 25319 net.cpp:91] Creating Layer inception_4e/pool
I0403 02:30:38.144968 25319 net.cpp:425] inception_4e/pool <- inception_4d/output_inception_4d/output_0_split_4
I0403 02:30:38.144990 25319 net.cpp:399] inception_4e/pool -> inception_4e/pool
I0403 02:30:38.145057 25319 net.cpp:141] Setting up inception_4e/pool
I0403 02:30:38.145086 25319 net.cpp:148] Top shape: 24 528 14 14 (2483712)
I0403 02:30:38.145103 25319 net.cpp:156] Memory required for data: 1252062720
I0403 02:30:38.145122 25319 layer_factory.hpp:77] Creating layer inception_4e/pool_proj
I0403 02:30:38.145149 25319 net.cpp:91] Creating Layer inception_4e/pool_proj
I0403 02:30:38.145169 25319 net.cpp:425] inception_4e/pool_proj <- inception_4e/pool
I0403 02:30:38.145192 25319 net.cpp:399] inception_4e/pool_proj -> inception_4e/pool_proj
I0403 02:30:38.145911 25319 net.cpp:141] Setting up inception_4e/pool_proj
I0403 02:30:38.145941 25319 net.cpp:148] Top shape: 24 128 14 14 (602112)
I0403 02:30:38.145958 25319 net.cpp:156] Memory required for data: 1254471168
I0403 02:30:38.145979 25319 layer_factory.hpp:77] Creating layer inception_4e/relu_pool_proj
I0403 02:30:38.146001 25319 net.cpp:91] Creating Layer inception_4e/relu_pool_proj
I0403 02:30:38.146019 25319 net.cpp:425] inception_4e/relu_pool_proj <- inception_4e/pool_proj
I0403 02:30:38.146042 25319 net.cpp:386] inception_4e/relu_pool_proj -> inception_4e/pool_proj (in-place)
I0403 02:30:38.146066 25319 net.cpp:141] Setting up inception_4e/relu_pool_proj
I0403 02:30:38.146086 25319 net.cpp:148] Top shape: 24 128 14 14 (602112)
I0403 02:30:38.146103 25319 net.cpp:156] Memory required for data: 1256879616
I0403 02:30:38.146119 25319 layer_factory.hpp:77] Creating layer inception_4e/output
I0403 02:30:38.146142 25319 net.cpp:91] Creating Layer inception_4e/output
I0403 02:30:38.146159 25319 net.cpp:425] inception_4e/output <- inception_4e/1x1
I0403 02:30:38.146178 25319 net.cpp:425] inception_4e/output <- inception_4e/3x3
I0403 02:30:38.146198 25319 net.cpp:425] inception_4e/output <- inception_4e/5x5
I0403 02:30:38.146216 25319 net.cpp:425] inception_4e/output <- inception_4e/pool_proj
I0403 02:30:38.146236 25319 net.cpp:399] inception_4e/output -> inception_4e/output
I0403 02:30:38.146282 25319 net.cpp:141] Setting up inception_4e/output
I0403 02:30:38.146311 25319 net.cpp:148] Top shape: 24 832 14 14 (3913728)
I0403 02:30:38.146328 25319 net.cpp:156] Memory required for data: 1272534528
I0403 02:30:38.146345 25319 layer_factory.hpp:77] Creating layer pool4/3x3_s2
I0403 02:30:38.146373 25319 net.cpp:91] Creating Layer pool4/3x3_s2
I0403 02:30:38.146399 25319 net.cpp:425] pool4/3x3_s2 <- inception_4e/output
I0403 02:30:38.146420 25319 net.cpp:399] pool4/3x3_s2 -> pool4/3x3_s2
I0403 02:30:38.146482 25319 net.cpp:141] Setting up pool4/3x3_s2
I0403 02:30:38.146524 25319 net.cpp:148] Top shape: 24 832 7 7 (978432)
I0403 02:30:38.146543 25319 net.cpp:156] Memory required for data: 1276448256
I0403 02:30:38.146560 25319 layer_factory.hpp:77] Creating layer pool4/3x3_s2_pool4/3x3_s2_0_split
I0403 02:30:38.146584 25319 net.cpp:91] Creating Layer pool4/3x3_s2_pool4/3x3_s2_0_split
I0403 02:30:38.146601 25319 net.cpp:425] pool4/3x3_s2_pool4/3x3_s2_0_split <- pool4/3x3_s2
I0403 02:30:38.146622 25319 net.cpp:399] pool4/3x3_s2_pool4/3x3_s2_0_split -> pool4/3x3_s2_pool4/3x3_s2_0_split_0
I0403 02:30:38.146649 25319 net.cpp:399] pool4/3x3_s2_pool4/3x3_s2_0_split -> pool4/3x3_s2_pool4/3x3_s2_0_split_1
I0403 02:30:38.146674 25319 net.cpp:399] pool4/3x3_s2_pool4/3x3_s2_0_split -> pool4/3x3_s2_pool4/3x3_s2_0_split_2
I0403 02:30:38.146698 25319 net.cpp:399] pool4/3x3_s2_pool4/3x3_s2_0_split -> pool4/3x3_s2_pool4/3x3_s2_0_split_3
I0403 02:30:38.146783 25319 net.cpp:141] Setting up pool4/3x3_s2_pool4/3x3_s2_0_split
I0403 02:30:38.146811 25319 net.cpp:148] Top shape: 24 832 7 7 (978432)
I0403 02:30:38.146829 25319 net.cpp:148] Top shape: 24 832 7 7 (978432)
I0403 02:30:38.146847 25319 net.cpp:148] Top shape: 24 832 7 7 (978432)
I0403 02:30:38.146867 25319 net.cpp:148] Top shape: 24 832 7 7 (978432)
I0403 02:30:38.146883 25319 net.cpp:156] Memory required for data: 1292103168
I0403 02:30:38.146900 25319 layer_factory.hpp:77] Creating layer inception_5a/1x1
I0403 02:30:38.146926 25319 net.cpp:91] Creating Layer inception_5a/1x1
I0403 02:30:38.146949 25319 net.cpp:425] inception_5a/1x1 <- pool4/3x3_s2_pool4/3x3_s2_0_split_0
I0403 02:30:38.146973 25319 net.cpp:399] inception_5a/1x1 -> inception_5a/1x1
I0403 02:30:38.149289 25319 net.cpp:141] Setting up inception_5a/1x1
I0403 02:30:38.149327 25319 net.cpp:148] Top shape: 24 256 7 7 (301056)
I0403 02:30:38.149345 25319 net.cpp:156] Memory required for data: 1293307392
I0403 02:30:38.149371 25319 layer_factory.hpp:77] Creating layer inception_5a/relu_1x1
I0403 02:30:38.149395 25319 net.cpp:91] Creating Layer inception_5a/relu_1x1
I0403 02:30:38.149415 25319 net.cpp:425] inception_5a/relu_1x1 <- inception_5a/1x1
I0403 02:30:38.149436 25319 net.cpp:386] inception_5a/relu_1x1 -> inception_5a/1x1 (in-place)
I0403 02:30:38.149459 25319 net.cpp:141] Setting up inception_5a/relu_1x1
I0403 02:30:38.149480 25319 net.cpp:148] Top shape: 24 256 7 7 (301056)
I0403 02:30:38.149497 25319 net.cpp:156] Memory required for data: 1294511616
I0403 02:30:38.149515 25319 layer_factory.hpp:77] Creating layer inception_5a/3x3_reduce
I0403 02:30:38.149545 25319 net.cpp:91] Creating Layer inception_5a/3x3_reduce
I0403 02:30:38.149569 25319 net.cpp:425] inception_5a/3x3_reduce <- pool4/3x3_s2_pool4/3x3_s2_0_split_1
I0403 02:30:38.149595 25319 net.cpp:399] inception_5a/3x3_reduce -> inception_5a/3x3_reduce
I0403 02:30:38.151525 25319 net.cpp:141] Setting up inception_5a/3x3_reduce
I0403 02:30:38.151561 25319 net.cpp:148] Top shape: 24 160 7 7 (188160)
I0403 02:30:38.151581 25319 net.cpp:156] Memory required for data: 1295264256
I0403 02:30:38.151602 25319 layer_factory.hpp:77] Creating layer inception_5a/relu_3x3_reduce
I0403 02:30:38.151625 25319 net.cpp:91] Creating Layer inception_5a/relu_3x3_reduce
I0403 02:30:38.151646 25319 net.cpp:425] inception_5a/relu_3x3_reduce <- inception_5a/3x3_reduce
I0403 02:30:38.151669 25319 net.cpp:386] inception_5a/relu_3x3_reduce -> inception_5a/3x3_reduce (in-place)
I0403 02:30:38.151691 25319 net.cpp:141] Setting up inception_5a/relu_3x3_reduce
I0403 02:30:38.151712 25319 net.cpp:148] Top shape: 24 160 7 7 (188160)
I0403 02:30:38.151729 25319 net.cpp:156] Memory required for data: 1296016896
I0403 02:30:38.151746 25319 layer_factory.hpp:77] Creating layer inception_5a/3x3
I0403 02:30:38.151773 25319 net.cpp:91] Creating Layer inception_5a/3x3
I0403 02:30:38.151794 25319 net.cpp:425] inception_5a/3x3 <- inception_5a/3x3_reduce
I0403 02:30:38.151821 25319 net.cpp:399] inception_5a/3x3 -> inception_5a/3x3
I0403 02:30:38.156479 25319 net.cpp:141] Setting up inception_5a/3x3
I0403 02:30:38.156528 25319 net.cpp:148] Top shape: 24 320 7 7 (376320)
I0403 02:30:38.156549 25319 net.cpp:156] Memory required for data: 1297522176
I0403 02:30:38.156571 25319 layer_factory.hpp:77] Creating layer inception_5a/relu_3x3
I0403 02:30:38.156597 25319 net.cpp:91] Creating Layer inception_5a/relu_3x3
I0403 02:30:38.156618 25319 net.cpp:425] inception_5a/relu_3x3 <- inception_5a/3x3
I0403 02:30:38.156640 25319 net.cpp:386] inception_5a/relu_3x3 -> inception_5a/3x3 (in-place)
I0403 02:30:38.156661 25319 net.cpp:141] Setting up inception_5a/relu_3x3
I0403 02:30:38.156682 25319 net.cpp:148] Top shape: 24 320 7 7 (376320)
I0403 02:30:38.156699 25319 net.cpp:156] Memory required for data: 1299027456
I0403 02:30:38.156716 25319 layer_factory.hpp:77] Creating layer inception_5a/5x5_reduce
I0403 02:30:38.156744 25319 net.cpp:91] Creating Layer inception_5a/5x5_reduce
I0403 02:30:38.156764 25319 net.cpp:425] inception_5a/5x5_reduce <- pool4/3x3_s2_pool4/3x3_s2_0_split_2
I0403 02:30:38.156787 25319 net.cpp:399] inception_5a/5x5_reduce -> inception_5a/5x5_reduce
I0403 02:30:38.157250 25319 net.cpp:141] Setting up inception_5a/5x5_reduce
I0403 02:30:38.157281 25319 net.cpp:148] Top shape: 24 32 7 7 (37632)
I0403 02:30:38.157300 25319 net.cpp:156] Memory required for data: 1299177984
I0403 02:30:38.157321 25319 layer_factory.hpp:77] Creating layer inception_5a/relu_5x5_reduce
I0403 02:30:38.157344 25319 net.cpp:91] Creating Layer inception_5a/relu_5x5_reduce
I0403 02:30:38.157376 25319 net.cpp:425] inception_5a/relu_5x5_reduce <- inception_5a/5x5_reduce
I0403 02:30:38.157404 25319 net.cpp:386] inception_5a/relu_5x5_reduce -> inception_5a/5x5_reduce (in-place)
I0403 02:30:38.157429 25319 net.cpp:141] Setting up inception_5a/relu_5x5_reduce
I0403 02:30:38.157450 25319 net.cpp:148] Top shape: 24 32 7 7 (37632)
I0403 02:30:38.157467 25319 net.cpp:156] Memory required for data: 1299328512
I0403 02:30:38.157485 25319 layer_factory.hpp:77] Creating layer inception_5a/5x5
I0403 02:30:38.157516 25319 net.cpp:91] Creating Layer inception_5a/5x5
I0403 02:30:38.157536 25319 net.cpp:425] inception_5a/5x5 <- inception_5a/5x5_reduce
I0403 02:30:38.157559 25319 net.cpp:399] inception_5a/5x5 -> inception_5a/5x5
I0403 02:30:38.158509 25319 net.cpp:141] Setting up inception_5a/5x5
I0403 02:30:38.158541 25319 net.cpp:148] Top shape: 24 128 7 7 (150528)
I0403 02:30:38.158560 25319 net.cpp:156] Memory required for data: 1299930624
I0403 02:30:38.158581 25319 layer_factory.hpp:77] Creating layer inception_5a/relu_5x5
I0403 02:30:38.158602 25319 net.cpp:91] Creating Layer inception_5a/relu_5x5
I0403 02:30:38.158622 25319 net.cpp:425] inception_5a/relu_5x5 <- inception_5a/5x5
I0403 02:30:38.158648 25319 net.cpp:386] inception_5a/relu_5x5 -> inception_5a/5x5 (in-place)
I0403 02:30:38.158689 25319 net.cpp:141] Setting up inception_5a/relu_5x5
I0403 02:30:38.158736 25319 net.cpp:148] Top shape: 24 128 7 7 (150528)
I0403 02:30:38.158776 25319 net.cpp:156] Memory required for data: 1300532736
I0403 02:30:38.158818 25319 layer_factory.hpp:77] Creating layer inception_5a/pool
I0403 02:30:38.158840 25319 net.cpp:91] Creating Layer inception_5a/pool
I0403 02:30:38.158875 25319 net.cpp:425] inception_5a/pool <- pool4/3x3_s2_pool4/3x3_s2_0_split_3
I0403 02:30:38.158917 25319 net.cpp:399] inception_5a/pool -> inception_5a/pool
I0403 02:30:38.159004 25319 net.cpp:141] Setting up inception_5a/pool
I0403 02:30:38.159034 25319 net.cpp:148] Top shape: 24 832 7 7 (978432)
I0403 02:30:38.159051 25319 net.cpp:156] Memory required for data: 1304446464
I0403 02:30:38.159070 25319 layer_factory.hpp:77] Creating layer inception_5a/pool_proj
I0403 02:30:38.159101 25319 net.cpp:91] Creating Layer inception_5a/pool_proj
I0403 02:30:38.159123 25319 net.cpp:425] inception_5a/pool_proj <- inception_5a/pool
I0403 02:30:38.159148 25319 net.cpp:399] inception_5a/pool_proj -> inception_5a/pool_proj
I0403 02:30:38.160742 25319 net.cpp:141] Setting up inception_5a/pool_proj
I0403 02:30:38.160780 25319 net.cpp:148] Top shape: 24 128 7 7 (150528)
I0403 02:30:38.160799 25319 net.cpp:156] Memory required for data: 1305048576
I0403 02:30:38.160838 25319 layer_factory.hpp:77] Creating layer inception_5a/relu_pool_proj
I0403 02:30:38.160861 25319 net.cpp:91] Creating Layer inception_5a/relu_pool_proj
I0403 02:30:38.160882 25319 net.cpp:425] inception_5a/relu_pool_proj <- inception_5a/pool_proj
I0403 02:30:38.160904 25319 net.cpp:386] inception_5a/relu_pool_proj -> inception_5a/pool_proj (in-place)
I0403 02:30:38.160928 25319 net.cpp:141] Setting up inception_5a/relu_pool_proj
I0403 02:30:38.160950 25319 net.cpp:148] Top shape: 24 128 7 7 (150528)
I0403 02:30:38.160967 25319 net.cpp:156] Memory required for data: 1305650688
I0403 02:30:38.160984 25319 layer_factory.hpp:77] Creating layer inception_5a/output
I0403 02:30:38.161003 25319 net.cpp:91] Creating Layer inception_5a/output
I0403 02:30:38.161022 25319 net.cpp:425] inception_5a/output <- inception_5a/1x1
I0403 02:30:38.161041 25319 net.cpp:425] inception_5a/output <- inception_5a/3x3
I0403 02:30:38.161061 25319 net.cpp:425] inception_5a/output <- inception_5a/5x5
I0403 02:30:38.161078 25319 net.cpp:425] inception_5a/output <- inception_5a/pool_proj
I0403 02:30:38.161101 25319 net.cpp:399] inception_5a/output -> inception_5a/output
I0403 02:30:38.161147 25319 net.cpp:141] Setting up inception_5a/output
I0403 02:30:38.161176 25319 net.cpp:148] Top shape: 24 832 7 7 (978432)
I0403 02:30:38.161195 25319 net.cpp:156] Memory required for data: 1309564416
I0403 02:30:38.161211 25319 layer_factory.hpp:77] Creating layer inception_5a/output_inception_5a/output_0_split
I0403 02:30:38.161232 25319 net.cpp:91] Creating Layer inception_5a/output_inception_5a/output_0_split
I0403 02:30:38.161250 25319 net.cpp:425] inception_5a/output_inception_5a/output_0_split <- inception_5a/output
I0403 02:30:38.161272 25319 net.cpp:399] inception_5a/output_inception_5a/output_0_split -> inception_5a/output_inception_5a/output_0_split_0
I0403 02:30:38.161295 25319 net.cpp:399] inception_5a/output_inception_5a/output_0_split -> inception_5a/output_inception_5a/output_0_split_1
I0403 02:30:38.161320 25319 net.cpp:399] inception_5a/output_inception_5a/output_0_split -> inception_5a/output_inception_5a/output_0_split_2
I0403 02:30:38.161348 25319 net.cpp:399] inception_5a/output_inception_5a/output_0_split -> inception_5a/output_inception_5a/output_0_split_3
I0403 02:30:38.161440 25319 net.cpp:141] Setting up inception_5a/output_inception_5a/output_0_split
I0403 02:30:38.161468 25319 net.cpp:148] Top shape: 24 832 7 7 (978432)
I0403 02:30:38.161487 25319 net.cpp:148] Top shape: 24 832 7 7 (978432)
I0403 02:30:38.161504 25319 net.cpp:148] Top shape: 24 832 7 7 (978432)
I0403 02:30:38.161523 25319 net.cpp:148] Top shape: 24 832 7 7 (978432)
I0403 02:30:38.161540 25319 net.cpp:156] Memory required for data: 1325219328
I0403 02:30:38.161558 25319 layer_factory.hpp:77] Creating layer inception_5b/1x1
I0403 02:30:38.161586 25319 net.cpp:91] Creating Layer inception_5b/1x1
I0403 02:30:38.161607 25319 net.cpp:425] inception_5b/1x1 <- inception_5a/output_inception_5a/output_0_split_0
I0403 02:30:38.161633 25319 net.cpp:399] inception_5b/1x1 -> inception_5b/1x1
I0403 02:30:38.164759 25319 net.cpp:141] Setting up inception_5b/1x1
I0403 02:30:38.164799 25319 net.cpp:148] Top shape: 24 384 7 7 (451584)
I0403 02:30:38.164819 25319 net.cpp:156] Memory required for data: 1327025664
I0403 02:30:38.164839 25319 layer_factory.hpp:77] Creating layer inception_5b/relu_1x1
I0403 02:30:38.164862 25319 net.cpp:91] Creating Layer inception_5b/relu_1x1
I0403 02:30:38.164881 25319 net.cpp:425] inception_5b/relu_1x1 <- inception_5b/1x1
I0403 02:30:38.164902 25319 net.cpp:386] inception_5b/relu_1x1 -> inception_5b/1x1 (in-place)
I0403 02:30:38.164924 25319 net.cpp:141] Setting up inception_5b/relu_1x1
I0403 02:30:38.164944 25319 net.cpp:148] Top shape: 24 384 7 7 (451584)
I0403 02:30:38.164961 25319 net.cpp:156] Memory required for data: 1328832000
I0403 02:30:38.164978 25319 layer_factory.hpp:77] Creating layer inception_5b/3x3_reduce
I0403 02:30:38.165009 25319 net.cpp:91] Creating Layer inception_5b/3x3_reduce
I0403 02:30:38.165050 25319 net.cpp:425] inception_5b/3x3_reduce <- inception_5a/output_inception_5a/output_0_split_1
I0403 02:30:38.165078 25319 net.cpp:399] inception_5b/3x3_reduce -> inception_5b/3x3_reduce
I0403 02:30:38.167047 25319 net.cpp:141] Setting up inception_5b/3x3_reduce
I0403 02:30:38.167109 25319 net.cpp:148] Top shape: 24 192 7 7 (225792)
I0403 02:30:38.167136 25319 net.cpp:156] Memory required for data: 1329735168
I0403 02:30:38.167165 25319 layer_factory.hpp:77] Creating layer inception_5b/relu_3x3_reduce
I0403 02:30:38.167215 25319 net.cpp:91] Creating Layer inception_5b/relu_3x3_reduce
I0403 02:30:38.167258 25319 net.cpp:425] inception_5b/relu_3x3_reduce <- inception_5b/3x3_reduce
I0403 02:30:38.167310 25319 net.cpp:386] inception_5b/relu_3x3_reduce -> inception_5b/3x3_reduce (in-place)
I0403 02:30:38.167374 25319 net.cpp:141] Setting up inception_5b/relu_3x3_reduce
I0403 02:30:38.167428 25319 net.cpp:148] Top shape: 24 192 7 7 (225792)
I0403 02:30:38.167475 25319 net.cpp:156] Memory required for data: 1330638336
I0403 02:30:38.167492 25319 layer_factory.hpp:77] Creating layer inception_5b/3x3
I0403 02:30:38.167543 25319 net.cpp:91] Creating Layer inception_5b/3x3
I0403 02:30:38.167568 25319 net.cpp:425] inception_5b/3x3 <- inception_5b/3x3_reduce
I0403 02:30:38.167601 25319 net.cpp:399] inception_5b/3x3 -> inception_5b/3x3
I0403 02:30:38.174132 25319 net.cpp:141] Setting up inception_5b/3x3
I0403 02:30:38.174185 25319 net.cpp:148] Top shape: 24 384 7 7 (451584)
I0403 02:30:38.174226 25319 net.cpp:156] Memory required for data: 1332444672
I0403 02:30:38.174268 25319 layer_factory.hpp:77] Creating layer inception_5b/relu_3x3
I0403 02:30:38.174298 25319 net.cpp:91] Creating Layer inception_5b/relu_3x3
I0403 02:30:38.174345 25319 net.cpp:425] inception_5b/relu_3x3 <- inception_5b/3x3
I0403 02:30:38.174406 25319 net.cpp:386] inception_5b/relu_3x3 -> inception_5b/3x3 (in-place)
I0403 02:30:38.174461 25319 net.cpp:141] Setting up inception_5b/relu_3x3
I0403 02:30:38.174484 25319 net.cpp:148] Top shape: 24 384 7 7 (451584)
I0403 02:30:38.174499 25319 net.cpp:156] Memory required for data: 1334251008
I0403 02:30:38.174517 25319 layer_factory.hpp:77] Creating layer inception_5b/5x5_reduce
I0403 02:30:38.174541 25319 net.cpp:91] Creating Layer inception_5b/5x5_reduce
I0403 02:30:38.174561 25319 net.cpp:425] inception_5b/5x5_reduce <- inception_5a/output_inception_5a/output_0_split_2
I0403 02:30:38.174585 25319 net.cpp:399] inception_5b/5x5_reduce -> inception_5b/5x5_reduce
I0403 02:30:38.175148 25319 net.cpp:141] Setting up inception_5b/5x5_reduce
I0403 02:30:38.175178 25319 net.cpp:148] Top shape: 24 48 7 7 (56448)
I0403 02:30:38.175195 25319 net.cpp:156] Memory required for data: 1334476800
I0403 02:30:38.175216 25319 layer_factory.hpp:77] Creating layer inception_5b/relu_5x5_reduce
I0403 02:30:38.175237 25319 net.cpp:91] Creating Layer inception_5b/relu_5x5_reduce
I0403 02:30:38.175257 25319 net.cpp:425] inception_5b/relu_5x5_reduce <- inception_5b/5x5_reduce
I0403 02:30:38.175278 25319 net.cpp:386] inception_5b/relu_5x5_reduce -> inception_5b/5x5_reduce (in-place)
I0403 02:30:38.175303 25319 net.cpp:141] Setting up inception_5b/relu_5x5_reduce
I0403 02:30:38.175324 25319 net.cpp:148] Top shape: 24 48 7 7 (56448)
I0403 02:30:38.175341 25319 net.cpp:156] Memory required for data: 1334702592
I0403 02:30:38.175357 25319 layer_factory.hpp:77] Creating layer inception_5b/5x5
I0403 02:30:38.175390 25319 net.cpp:91] Creating Layer inception_5b/5x5
I0403 02:30:38.175412 25319 net.cpp:425] inception_5b/5x5 <- inception_5b/5x5_reduce
I0403 02:30:38.175436 25319 net.cpp:399] inception_5b/5x5 -> inception_5b/5x5
I0403 02:30:38.176749 25319 net.cpp:141] Setting up inception_5b/5x5
I0403 02:30:38.176784 25319 net.cpp:148] Top shape: 24 128 7 7 (150528)
I0403 02:30:38.176803 25319 net.cpp:156] Memory required for data: 1335304704
I0403 02:30:38.176825 25319 layer_factory.hpp:77] Creating layer inception_5b/relu_5x5
I0403 02:30:38.176847 25319 net.cpp:91] Creating Layer inception_5b/relu_5x5
I0403 02:30:38.176867 25319 net.cpp:425] inception_5b/relu_5x5 <- inception_5b/5x5
I0403 02:30:38.176906 25319 net.cpp:386] inception_5b/relu_5x5 -> inception_5b/5x5 (in-place)
I0403 02:30:38.176931 25319 net.cpp:141] Setting up inception_5b/relu_5x5
I0403 02:30:38.176952 25319 net.cpp:148] Top shape: 24 128 7 7 (150528)
I0403 02:30:38.176970 25319 net.cpp:156] Memory required for data: 1335906816
I0403 02:30:38.176987 25319 layer_factory.hpp:77] Creating layer inception_5b/pool
I0403 02:30:38.177008 25319 net.cpp:91] Creating Layer inception_5b/pool
I0403 02:30:38.177027 25319 net.cpp:425] inception_5b/pool <- inception_5a/output_inception_5a/output_0_split_3
I0403 02:30:38.177050 25319 net.cpp:399] inception_5b/pool -> inception_5b/pool
I0403 02:30:38.177116 25319 net.cpp:141] Setting up inception_5b/pool
I0403 02:30:38.177145 25319 net.cpp:148] Top shape: 24 832 7 7 (978432)
I0403 02:30:38.177163 25319 net.cpp:156] Memory required for data: 1339820544
I0403 02:30:38.177181 25319 layer_factory.hpp:77] Creating layer inception_5b/pool_proj
I0403 02:30:38.177209 25319 net.cpp:91] Creating Layer inception_5b/pool_proj
I0403 02:30:38.177232 25319 net.cpp:425] inception_5b/pool_proj <- inception_5b/pool
I0403 02:30:38.177254 25319 net.cpp:399] inception_5b/pool_proj -> inception_5b/pool_proj
I0403 02:30:38.178872 25319 net.cpp:141] Setting up inception_5b/pool_proj
I0403 02:30:38.178908 25319 net.cpp:148] Top shape: 24 128 7 7 (150528)
I0403 02:30:38.178927 25319 net.cpp:156] Memory required for data: 1340422656
I0403 02:30:38.178949 25319 layer_factory.hpp:77] Creating layer inception_5b/relu_pool_proj
I0403 02:30:38.178972 25319 net.cpp:91] Creating Layer inception_5b/relu_pool_proj
I0403 02:30:38.178992 25319 net.cpp:425] inception_5b/relu_pool_proj <- inception_5b/pool_proj
I0403 02:30:38.179013 25319 net.cpp:386] inception_5b/relu_pool_proj -> inception_5b/pool_proj (in-place)
I0403 02:30:38.179036 25319 net.cpp:141] Setting up inception_5b/relu_pool_proj
I0403 02:30:38.179057 25319 net.cpp:148] Top shape: 24 128 7 7 (150528)
I0403 02:30:38.179075 25319 net.cpp:156] Memory required for data: 1341024768
I0403 02:30:38.179092 25319 layer_factory.hpp:77] Creating layer inception_5b/output
I0403 02:30:38.179116 25319 net.cpp:91] Creating Layer inception_5b/output
I0403 02:30:38.179136 25319 net.cpp:425] inception_5b/output <- inception_5b/1x1
I0403 02:30:38.179154 25319 net.cpp:425] inception_5b/output <- inception_5b/3x3
I0403 02:30:38.179173 25319 net.cpp:425] inception_5b/output <- inception_5b/5x5
I0403 02:30:38.179191 25319 net.cpp:425] inception_5b/output <- inception_5b/pool_proj
I0403 02:30:38.179213 25319 net.cpp:399] inception_5b/output -> inception_5b/output
I0403 02:30:38.179265 25319 net.cpp:141] Setting up inception_5b/output
I0403 02:30:38.179293 25319 net.cpp:148] Top shape: 24 1024 7 7 (1204224)
I0403 02:30:38.179311 25319 net.cpp:156] Memory required for data: 1345841664
I0403 02:30:38.179328 25319 layer_factory.hpp:77] Creating layer pool5/7x7_s1
I0403 02:30:38.179350 25319 net.cpp:91] Creating Layer pool5/7x7_s1
I0403 02:30:38.179374 25319 net.cpp:425] pool5/7x7_s1 <- inception_5b/output
I0403 02:30:38.179400 25319 net.cpp:399] pool5/7x7_s1 -> pool5/7x7_s1
I0403 02:30:38.179448 25319 net.cpp:141] Setting up pool5/7x7_s1
I0403 02:30:38.179476 25319 net.cpp:148] Top shape: 24 1024 1 1 (24576)
I0403 02:30:38.179493 25319 net.cpp:156] Memory required for data: 1345939968
I0403 02:30:38.179510 25319 layer_factory.hpp:77] Creating layer pool5/drop_7x7_s1
I0403 02:30:38.179534 25319 net.cpp:91] Creating Layer pool5/drop_7x7_s1
I0403 02:30:38.179554 25319 net.cpp:425] pool5/drop_7x7_s1 <- pool5/7x7_s1
I0403 02:30:38.179575 25319 net.cpp:386] pool5/drop_7x7_s1 -> pool5/7x7_s1 (in-place)
I0403 02:30:38.179623 25319 net.cpp:141] Setting up pool5/drop_7x7_s1
I0403 02:30:38.179649 25319 net.cpp:148] Top shape: 24 1024 1 1 (24576)
I0403 02:30:38.179668 25319 net.cpp:156] Memory required for data: 1346038272
I0403 02:30:38.179685 25319 layer_factory.hpp:77] Creating layer loss3/classifier_plantvillage
I0403 02:30:38.179713 25319 net.cpp:91] Creating Layer loss3/classifier_plantvillage
I0403 02:30:38.179749 25319 net.cpp:425] loss3/classifier_plantvillage <- pool5/7x7_s1
I0403 02:30:38.179774 25319 net.cpp:399] loss3/classifier_plantvillage -> loss3/classifier_plantvillage
I0403 02:30:38.180189 25319 net.cpp:141] Setting up loss3/classifier_plantvillage
I0403 02:30:38.180219 25319 net.cpp:148] Top shape: 24 38 (912)
I0403 02:30:38.180238 25319 net.cpp:156] Memory required for data: 1346041920
I0403 02:30:38.180258 25319 layer_factory.hpp:77] Creating layer loss1/loss
I0403 02:30:38.180316 25319 net.cpp:91] Creating Layer loss1/loss
I0403 02:30:38.180340 25319 net.cpp:425] loss1/loss <- loss1/classifier_plantvillage
I0403 02:30:38.180362 25319 net.cpp:425] loss1/loss <- label_data_1_split_0
I0403 02:30:38.180385 25319 net.cpp:399] loss1/loss -> loss1/loss
…
I0403 02:30:38.193462 25319 net.cpp:313] The NetState phase (1) differed from the phase (0) specified by a rule in layer data
I0403 02:30:38.198460 25319 net.cpp:49] Initializing net from parameters: 
state {
  phase: TEST
}
layer {
  name: "data"
  type: "Data"
  top: "data"
  top: "label"
  include {
    phase: TEST
  }
  transform_param {
    mirror: false
    crop_size: 224
    mean_file: "/home/mohanty/data/final_dataset/lmdb/grayscale-80-20/mean.binaryproto"
  }
  data_param {
    source: "/home/mohanty/data/final_dataset/lmdb/grayscale-80-20/test_db"
    batch_size: 24
    backend: LMDB
  }
}
layer {
  name: "conv1/7x7_s2"
  type: "Convolution"
  bottom: "data"
  top: "conv1/7x7_s2"
  param {
    lr_mult: 1
    decay_mult: 1
  }
  param {
    lr_mult: 2
    decay_mult: 0
  }
  convolution_param {
    num_output: 64
    pad: 3
    kernel_size: 7
    stride: 2
    weight_filler {
      type: "xavier"
      std: 0.1
    }
    bias_filler {
      type: "constant"
      value: 0.2
    }
  }
}
layer {
  name: "conv1/relu_7x7"
  type: "ReLU"
  bottom: "conv1/7x7_s2"
  top: "conv1/7x7_s2"
}
layer {
  name: "pool1/3x3_s2"
  type: "Pooling"
  bottom: "conv1/7x7_s2"
  top: "pool1/3x3_s2"
  pooling_param {
    pool: MAX
    kernel_size: 3
    stride: 2
  }
}
layer {
  name: "pool1/norm1"
  type: "LRN"
  bottom: "pool1/3x3_s2"
  top: "pool1/norm1"
  lrn_param {
    local_size: 5
    alpha: 0.0001
    beta: 0.75
  }
}
layer {
  name: "conv2/3x3_reduce"
  type: "Convolution"
  bottom: "pool1/norm1"
  top: "conv2/3x3_reduce"
  param {
    lr_mult: 1
    decay_mult: 1
  }
  param {
    lr_mult: 2
    decay_mult: 0
  }
  convolution_param {
    num_output: 64
    kernel_size: 1
    weight_filler {
      type: "xavier"
      std: 0.1
    }
    bias_filler {
      type: "constant"
      value: 0.2
    }
  }
}
layer {
  name: "conv2/relu_3x3_reduce"
  type: "ReLU"
  bottom: "conv2/3x3_reduce"
  top: "conv2/3x3_reduce"
}
layer {
  name: "conv2/3x3"
  type: "Convolution"
  bottom: "conv2/3x3_reduce"
  top: "conv2/3x3"
  param {
    lr_mult: 1
    decay_mult: 1
  }
  param {
    lr_mult: 2
    decay_mult: 0
  }
  convolution_param {
    num_output: 192
    pad: 1
    kernel_size: 3
    weight_filler {
      type: "xavier"
      std: 0.03
    }
    bias_filler {
      type: "constant"
      value: 0.2
    }
  }
}
layer {
  name: "conv2/relu_3x3"
  type: "ReLU"
  bottom: "conv2/3x3"
  top: "conv2/3x3"
}
layer {
  name: "conv2/norm2"
  type: "LRN"
  bottom: "conv2/3x3"
  top: "conv2/norm2"
  lrn_param {
    local_size: 5
    alpha: 0.0001
    beta: 0.75
  }
}
layer {
  name: "pool2/3x3_s2"
  type: "Pooling"
  bottom: "conv2/norm2"
  top: "pool2/3x3_s2"
  pooling_param {
    pool: MAX
    kernel_size: 3
    stride: 2
  }
}
layer {
  name: "inception_3a/1x1"
  type: "Convolution"
  bottom: "pool2/3x3_s2"
  top: "inception_3a/1x1"
  param {
    lr_mult: 1
    decay_mult: 1
  }
  param {
    lr_mult: 2
    decay_mult: 0
  }
  convolution_param {
    num_output: 64
    kernel_size: 1
    weight_filler {
      type: "xavier"
      std: 0.03
    }
    bias_filler {
      type: "constant"
      value: 0.2
    }
  }
}
layer {
  name: "inception_3a/relu_1x1"
  type: "ReLU"
  bottom: "inception_3a/1x1"
  top: "inception_3a/1x1"
}
layer {
  name: "inception_3a/3x3_reduce"
  type: "Convolution"
  bottom: "pool2/3x3_s2"
  top: "inception_3a/3x3_reduce"
  param {
    lr_mult: 1
    decay_mult: 1
  }
  param {
    lr_mult: 2
    decay_mult: 0
  }
  convolution_param {
    num_output: 96
    kernel_size: 1
    weight_filler {
      type: "xavier"
      std: 0.09
    }
    bias_filler {
      type: "constant"
      value: 0.2
    }
  }
}
layer {
  name: "inception_3a/relu_3x3_reduce"
  type: "ReLU"
  bottom: "inception_3a/3x3_reduce"
  top: "inception_3a/3x3_reduce"
}
layer {
  name: "inception_3a/3x3"
  type: "Convolution"
  bottom: "inception_3a/3x3_reduce"
  top: "inception_3a/3x3"
  param {
    lr_mult: 1
    decay_mult: 1
  }
  param {
    lr_mult: 2
    decay_mult: 0
  }
  convolution_param {
    num_output: 128
    pad: 1
    kernel_size: 3
    weight_filler {
      type: "xavier"
      std: 0.03
    }
    bias_filler {
      type: "constant"
      value: 0.2
    }
  }
}
layer {
  name: "inception_3a/relu_3x3"
  type: "ReLU"
  bottom: "inception_3a/3x3"
  top: "inception_3a/3x3"
}
layer {
  name: "inception_3a/5x5_reduce"
  type: "Convolution"
  bottom: "pool2/3x3_s2"
  top: "inception_3a/5x5_reduce"
  param {
    lr_mult: 1
    decay_mult: 1
  }
  param {
    lr_mult: 2
    decay_mult: 0
  }
  convolution_param {
    num_output: 16
    kernel_size: 1
    weight_filler {
      type: "xavier"
      std: 0.2
    }
    bias_filler {
      type: "constant"
      value: 0.2
    }
  }
}
layer {
  name: "inception_3a/relu_5x5_reduce"
  type: "ReLU"
  bottom: "inception_3a/5x5_reduce"
  top: "inception_3a/5x5_reduce"
}
layer {
  name: "inception_3a/5x5"
  type: "Convolution"
  bottom: "inception_3a/5x5_reduce"
  top: "inception_3a/5x5"
  param {
    lr_mult: 1
    decay_mult: 1
  }
  param {
    lr_mult: 2
    decay_mult: 0
  }
  convolution_param {
    num_output: 32
    pad: 2
    kernel_size: 5
    weight_filler {
      type: "xavier"
      std: 0.03
    }
    bias_filler {
      type: "constant"
      value: 0.2
    }
  }
}
layer {
  name: "inception_3a/relu_5x5"
  type: "ReLU"
  bottom: "inception_3a/5x5"
  top: "inception_3a/5x5"
}
layer {
  name: "inception_3a/pool"
  type: "Pooling"
  bottom: "pool2/3x3_s2"
  top: "inception_3a/pool"
  pooling_param {
    pool: MAX
    kernel_size: 3
    stride: 1
    pad: 1
  }
}
layer {
  name: "inception_3a/pool_proj"
  type: "Convolution"
  bottom: "inception_3a/pool"
  top: "inception_3a/pool_proj"
  param {
    lr_mult: 1
    decay_mult: 1
  }
  param {
    lr_mult: 2
    decay_mult: 0
  }
  convolution_param {
    num_output: 32
    kernel_size: 1
    weight_filler {
      type: "xavier"
      std: 0.1
    }
    bias_filler {
      type: "constant"
      value: 0.2
    }
  }
}
layer {
  name: "inception_3a/relu_pool_proj"
  type: "ReLU"
  bottom: "inception_3a/pool_proj"
  top: "inception_3a/pool_proj"
}
layer {
  name: "inception_3a/output"
  type: "Concat"
  bottom: "inception_3a/1x1"
  bottom: "inception_3a/3x3"
  bottom: "inception_3a/5x5"
  bottom: "inception_3a/pool_proj"
  top: "inception_3a/output"
}
layer {
  name: "inception_3b/1x1"
  type: "Convolution"
  bottom: "inception_3a/output"
  top: "inception_3b/1x1"
  param {
    lr_mult: 1
    decay_mult: 1
  }
  param {
    lr_mult: 2
    decay_mult: 0
  }
  convolution_param {
    num_output: 128
    kernel_size: 1
    weight_filler {
      type: "xavier"
      std: 0.03
    }
    bias_filler {
      type: "constant"
      value: 0.2
    }
  }
}
layer {
  name: "inception_3b/relu_1x1"
  type: "ReLU"
  bottom: "inception_3b/1x1"
  top: "inception_3b/1x1"
}
layer {
  name: "inception_3b/3x3_reduce"
  type: "Convolution"
  bottom: "inception_3a/output"
  top: "inception_3b/3x3_reduce"
  param {
    lr_mult: 1
    decay_mult: 1
  }
  param {
    lr_mult: 2
    decay_mult: 0
  }
  convolution_param {
    num_output: 128
    kernel_size: 1
    weight_filler {
      type: "xavier"
      std: 0.09
    }
    bias_filler {
      type: "constant"
      value: 0.2
    }
  }
}
layer {
  name: "inception_3b/relu_3x3_reduce"
  type: "ReLU"
  bottom: "inception_3b/3x3_reduce"
  top: "inception_3b/3x3_reduce"
}
layer {
  name: "inception_3b/3x3"
  type: "Convolution"
  bottom: "inception_3b/3x3_reduce"
  top: "inception_3b/3x3"
  param {
    lr_mult: 1
    decay_mult: 1
  }
  param {
    lr_mult: 2
    decay_mult: 0
  }
  convolution_param {
    num_output: 192
    pad: 1
    kernel_size: 3
    weight_filler {
      type: "xavier"
      std: 0.03
    }
    bias_filler {
      type: "constant"
      value: 0.2
    }
  }
}
layer {
  name: "inception_3b/relu_3x3"
  type: "ReLU"
  bottom: "inception_3b/3x3"
  top: "inception_3b/3x3"
}
layer {
  name: "inception_3b/5x5_reduce"
  type: "Convolution"
  bottom: "inception_3a/output"
  top: "inception_3b/5x5_reduce"
  param {
    lr_mult: 1
    decay_mult: 1
  }
  param {
    lr_mult: 2
    decay_mult: 0
  }
  convolution_param {
    num_output: 32
    kernel_size: 1
    weight_filler {
      type: "xavier"
      std: 0.2
    }
    bias_filler {
      type: "constant"
      value: 0.2
    }
  }
}
layer {
  name: "inception_3b/relu_5x5_reduce"
  type: "ReLU"
  bottom: "inception_3b/5x5_reduce"
  top: "inception_3b/5x5_reduce"
}
layer {
  name: "inception_3b/5x5"
  type: "Convolution"
  bottom: "inception_3b/5x5_reduce"
  top: "inception_3b/5x5"
  param {
    lr_mult: 1
    decay_mult: 1
  }
  param {
    lr_mult: 2
    decay_mult: 0
  }
  convolution_param {
    num_output: 96
    pad: 2
    kernel_size: 5
    weight_filler {
      type: "xavier"
      std: 0.03
    }
    bias_filler {
      type: "constant"
      value: 0.2
    }
  }
}
layer {
  name: "inception_3b/relu_5x5"
  type: "ReLU"
  bottom: "inception_3b/5x5"
  top: "inception_3b/5x5"
}
layer {
  name: "inception_3b/pool"
  type: "Pooling"
  bottom: "inception_3a/output"
  top: "inception_3b/pool"
  pooling_param {
    pool: MAX
    kernel_size: 3
    stride: 1
    pad: 1
  }
}
layer {
  name: "inception_3b/pool_proj"
  type: "Convolution"
  bottom: "inception_3b/pool"
  top: "inception_3b/pool_proj"
  param {
    lr_mult: 1
    decay_mult: 1
  }
  param {
    lr_mult: 2
    decay_mult: 0
  }
  convolution_param {
    num_output: 64
    kernel_size: 1
    weight_filler {
      type: "xavier"
      std: 0.1
    }
    bias_filler {
      type: "constant"
      value: 0.2
    }
  }
}
layer {
  name: "inception_3b/relu_pool_proj"
  type: "ReLU"
  bottom: "inception_3b/pool_proj"
  top: "inception_3b/pool_proj"
}
layer {
  name: "inception_3b/output"
  type: "Concat"
  bottom: "inception_3b/1x1"
  bottom: "inception_3b/3x3"
  bottom: "inception_3b/5x5"
  bottom: "inception_3b/pool_proj"
  top: "inception_3b/output"
}
layer {
  name: "pool3/3x3_s2"
  type: "Pooling"
  bottom: "inception_3b/output"
  top: "pool3/3x3_s2"
  pooling_param {
    pool: MAX
    kernel_size: 3
    stride: 2
  }
}
layer {
  name: "inception_4a/1x1"
  type: "Convolution"
  bottom: "pool3/3x3_s2"
  top: "inception_4a/1x1"
  param {
    lr_mult: 1
    decay_mult: 1
  }
  param {
    lr_mult: 2
    decay_mult: 0
  }
  convolution_param {
    num_output: 192
    kernel_size: 1
    weight_filler {
      type: "xavier"
      std: 0.03
    }
    bias_filler {
      type: "constant"
      value: 0.2
    }
  }
}
layer {
  name: "inception_4a/relu_1x1"
  type: "ReLU"
  bottom: "inception_4a/1x1"
  top: "inception_4a/1x1"
}
layer {
  name: "inception_4a/3x3_reduce"
  type: "Convolution"
  bottom: "pool3/3x3_s2"
  top: "inception_4a/3x3_reduce"
  param {
    lr_mult: 1
    decay_mult: 1
  }
  param {
    lr_mult: 2
    decay_mult: 0
  }
  convolution_param {
    num_output: 96
    kernel_size: 1
    weight_filler {
      type: "xavier"
      std: 0.09
    }
    bias_filler {
      type: "constant"
      value: 0.2
    }
  }
}
layer {
  name: "inception_4a/relu_3x3_reduce"
  type: "ReLU"
  bottom: "inception_4a/3x3_reduce"
  top: "inception_4a/3x3_reduce"
}
layer {
  name: "inception_4a/3x3"
  type: "Convolution"
  bottom: "inception_4a/3x3_reduce"
  top: "inception_4a/3x3"
  param {
    lr_mult: 1
    decay_mult: 1
  }
  param {
    lr_mult: 2
    decay_mult: 0
  }
  convolution_param {
    num_output: 208
    pad: 1
    kernel_size: 3
    weight_filler {
      type: "xavier"
      std: 0.03
    }
    bias_filler {
      type: "constant"
      value: 0.2
    }
  }
}
layer {
  name: "inception_4a/relu_3x3"
  type: "ReLU"
  bottom: "inception_4a/3x3"
  top: "inception_4a/3x3"
}
layer {
  name: "inception_4a/5x5_reduce"
  type: "Convolution"
  bottom: "pool3/3x3_s2"
  top: "inception_4a/5x5_reduce"
  param {
    lr_mult: 1
    decay_mult: 1
  }
  param {
    lr_mult: 2
    decay_mult: 0
  }
  convolution_param {
    num_output: 16
    kernel_size: 1
    weight_filler {
      type: "xavier"
      std: 0.2
    }
    bias_filler {
      type: "constant"
      value: 0.2
    }
  }
}
layer {
  name: "inception_4a/relu_5x5_reduce"
  type: "ReLU"
  bottom: "inception_4a/5x5_reduce"
  top: "inception_4a/5x5_reduce"
}
layer {
  name: "inception_4a/5x5"
  type: "Convolution"
  bottom: "inception_4a/5x5_reduce"
  top: "inception_4a/5x5"
  param {
    lr_mult: 1
    decay_mult: 1
  }
  param {
    lr_mult: 2
    decay_mult: 0
  }
  convolution_param {
    num_output: 48
    pad: 2
    kernel_size: 5
    weight_filler {
      type: "xavier"
      std: 0.03
    }
    bias_filler {
      type: "constant"
      value: 0.2
    }
  }
}
layer {
  name: "inception_4a/relu_5x5"
  type: "ReLU"
  bottom: "inception_4a/5x5"
  top: "inception_4a/5x5"
}
layer {
  name: "inception_4a/pool"
  type: "Pooling"
  bottom: "pool3/3x3_s2"
  top: "inception_4a/pool"
  pooling_param {
    pool: MAX
    kernel_size: 3
    stride: 1
    pad: 1
  }
}
layer {
  name: "inception_4a/pool_proj"
  type: "Convolution"
  bottom: "inception_4a/pool"
  top: "inception_4a/pool_proj"
  param {
    lr_mult: 1
    decay_mult: 1
  }
  param {
    lr_mult: 2
    decay_mult: 0
  }
  convolution_param {
    num_output: 64
    kernel_size: 1
    weight_filler {
      type: "xavier"
      std: 0.1
    }
    bias_filler {
      type: "constant"
      value: 0.2
    }
  }
}
layer {
  name: "inception_4a/relu_pool_proj"
  type: "ReLU"
  bottom: "inception_4a/pool_proj"
  top: "inception_4a/pool_proj"
}
layer {
  name: "inception_4a/output"
  type: "Concat"
  bottom: "inception_4a/1x1"
  bottom: "inception_4a/3x3"
  bottom: "inception_4a/5x5"
  bottom: "inception_4a/pool_proj"
  top: "inception_4a/output"
}
layer {
  name: "loss1/ave_pool"
  type: "Pooling"
  bottom: "inception_4a/output"
  top: "loss1/ave_pool"
  pooling_param {
    pool: AVE
    kernel_size: 5
    stride: 3
  }
}
layer {
  name: "loss1/conv"
  type: "Convolution"
  bottom: "loss1/ave_pool"
  top: "loss1/conv"
  param {
    lr_mult: 1
    decay_mult: 1
  }
  param {
    lr_mult: 2
    decay_mult: 0
  }
  convolution_param {
    num_output: 128
    kernel_size: 1
    weight_filler {
      type: "xavier"
      std: 0.08
    }
    bias_filler {
      type: "constant"
      value: 0.2
    }
  }
}
layer {
  name: "loss1/relu_conv"
  type: "ReLU"
  bottom: "loss1/conv"
  top: "loss1/conv"
}
layer {
  name: "loss1/fc"
  type: "InnerProduct"
  bottom: "loss1/conv"
  top: "loss1/fc"
  param {
    lr_mult: 1
    decay_mult: 1
  }
  param {
    lr_mult: 2
    decay_mult: 0
  }
  inner_product_param {
    num_output: 1024
    weight_filler {
      type: "xavier"
      std: 0.02
    }
    bias_filler {
      type: "constant"
      value: 0.2
    }
  }
}
layer {
  name: "loss1/relu_fc"
  type: "ReLU"
  bottom: "loss1/fc"
  top: "loss1/fc"
}
layer {
  name: "loss1/drop_fc"
  type: "Dropout"
  bottom: "loss1/fc"
  top: "loss1/fc"
  dropout_param {
    dropout_ratio: 0.7
  }
}
layer {
  name: "loss1/classifier_plantvillage"
  type: "InnerProduct"
  bottom: "loss1/fc"
  top: "loss1/classifier_plantvillage"
  param {
    lr_mult: 1
    decay_mult: 1
  }
  param {
    lr_mult: 2
    decay_mult: 0
  }
  inner_product_param {
    num_output: 38
    weight_filler {
      type: "xavier"
      std: 0.0009765625
    }
    bias_filler {
      type: "constant"
      value: 0
    }
  }
}
layer {
  name: "inception_4b/1x1"
  type: "Convolution"
  bottom: "inception_4a/output"
  top: "inception_4b/1x1"
  param {
    lr_mult: 1
    decay_mult: 1
  }
  param {
    lr_mult: 2
    decay_mult: 0
  }
  convolution_param {
    num_output: 160
    kernel_size: 1
    weight_filler {
      type: "xavier"
      std: 0.03
    }
    bias_filler {
      type: "constant"
      value: 0.2
    }
  }
}
layer {
…
I0403 02:30:38.435997 25319 layer_factory.hpp:77] Creating layer inception_4c/pool
I0403 02:30:38.436038 25319 net.cpp:91] Creating Layer inception_4c/pool
I0403 02:30:38.436076 25319 net.cpp:425] inception_4c/pool <- inception_4b/output_inception_4b/output_0_split_3
I0403 02:30:38.436116 25319 net.cpp:399] inception_4c/pool -> inception_4c/pool
I0403 02:30:38.436199 25319 net.cpp:141] Setting up inception_4c/pool
I0403 02:30:38.436249 25319 net.cpp:148] Top shape: 24 512 14 14 (2408448)
I0403 02:30:38.436266 25319 net.cpp:156] Memory required for data: 1060605120
I0403 02:30:38.436283 25319 layer_factory.hpp:77] Creating layer inception_4c/pool_proj
I0403 02:30:38.436311 25319 net.cpp:91] Creating Layer inception_4c/pool_proj
I0403 02:30:38.436331 25319 net.cpp:425] inception_4c/pool_proj <- inception_4c/pool
I0403 02:30:38.436357 25319 net.cpp:399] inception_4c/pool_proj -> inception_4c/pool_proj
I0403 02:30:38.436905 25319 net.cpp:141] Setting up inception_4c/pool_proj
I0403 02:30:38.436936 25319 net.cpp:148] Top shape: 24 64 14 14 (301056)
I0403 02:30:38.436952 25319 net.cpp:156] Memory required for data: 1061809344
I0403 02:30:38.436974 25319 layer_factory.hpp:77] Creating layer inception_4c/relu_pool_proj
I0403 02:30:38.436995 25319 net.cpp:91] Creating Layer inception_4c/relu_pool_proj
I0403 02:30:38.437014 25319 net.cpp:425] inception_4c/relu_pool_proj <- inception_4c/pool_proj
I0403 02:30:38.437034 25319 net.cpp:386] inception_4c/relu_pool_proj -> inception_4c/pool_proj (in-place)
I0403 02:30:38.437057 25319 net.cpp:141] Setting up inception_4c/relu_pool_proj
I0403 02:30:38.437077 25319 net.cpp:148] Top shape: 24 64 14 14 (301056)
I0403 02:30:38.437127 25319 net.cpp:156] Memory required for data: 1063013568
I0403 02:30:38.437144 25319 layer_factory.hpp:77] Creating layer inception_4c/output
I0403 02:30:38.437187 25319 net.cpp:91] Creating Layer inception_4c/output
I0403 02:30:38.437217 25319 net.cpp:425] inception_4c/output <- inception_4c/1x1
I0403 02:30:38.437266 25319 net.cpp:425] inception_4c/output <- inception_4c/3x3
I0403 02:30:38.437307 25319 net.cpp:425] inception_4c/output <- inception_4c/5x5
I0403 02:30:38.437353 25319 net.cpp:425] inception_4c/output <- inception_4c/pool_proj
I0403 02:30:38.437405 25319 net.cpp:399] inception_4c/output -> inception_4c/output
I0403 02:30:38.437476 25319 net.cpp:141] Setting up inception_4c/output
I0403 02:30:38.437508 25319 net.cpp:148] Top shape: 24 512 14 14 (2408448)
I0403 02:30:38.437538 25319 net.cpp:156] Memory required for data: 1072647360
I0403 02:30:38.437579 25319 layer_factory.hpp:77] Creating layer inception_4c/output_inception_4c/output_0_split
I0403 02:30:38.437608 25319 net.cpp:91] Creating Layer inception_4c/output_inception_4c/output_0_split
I0403 02:30:38.437628 25319 net.cpp:425] inception_4c/output_inception_4c/output_0_split <- inception_4c/output
I0403 02:30:38.437647 25319 net.cpp:399] inception_4c/output_inception_4c/output_0_split -> inception_4c/output_inception_4c/output_0_split_0
I0403 02:30:38.437674 25319 net.cpp:399] inception_4c/output_inception_4c/output_0_split -> inception_4c/output_inception_4c/output_0_split_1
I0403 02:30:38.437698 25319 net.cpp:399] inception_4c/output_inception_4c/output_0_split -> inception_4c/output_inception_4c/output_0_split_2
I0403 02:30:38.437722 25319 net.cpp:399] inception_4c/output_inception_4c/output_0_split -> inception_4c/output_inception_4c/output_0_split_3
I0403 02:30:38.437835 25319 net.cpp:141] Setting up inception_4c/output_inception_4c/output_0_split
I0403 02:30:38.437863 25319 net.cpp:148] Top shape: 24 512 14 14 (2408448)
I0403 02:30:38.438020 25319 net.cpp:148] Top shape: 24 512 14 14 (2408448)
I0403 02:30:38.438047 25319 net.cpp:148] Top shape: 24 512 14 14 (2408448)
I0403 02:30:38.438066 25319 net.cpp:148] Top shape: 24 512 14 14 (2408448)
I0403 02:30:38.438083 25319 net.cpp:156] Memory required for data: 1111182528
I0403 02:30:38.438100 25319 layer_factory.hpp:77] Creating layer inception_4d/1x1
I0403 02:30:38.438132 25319 net.cpp:91] Creating Layer inception_4d/1x1
I0403 02:30:38.438153 25319 net.cpp:425] inception_4d/1x1 <- inception_4c/output_inception_4c/output_0_split_0
I0403 02:30:38.438176 25319 net.cpp:399] inception_4d/1x1 -> inception_4d/1x1
I0403 02:30:38.438859 25319 net.cpp:141] Setting up inception_4d/1x1
I0403 02:30:38.438889 25319 net.cpp:148] Top shape: 24 112 14 14 (526848)
I0403 02:30:38.438906 25319 net.cpp:156] Memory required for data: 1113289920
I0403 02:30:38.438927 25319 layer_factory.hpp:77] Creating layer inception_4d/relu_1x1
I0403 02:30:38.438949 25319 net.cpp:91] Creating Layer inception_4d/relu_1x1
I0403 02:30:38.438968 25319 net.cpp:425] inception_4d/relu_1x1 <- inception_4d/1x1
I0403 02:30:38.438990 25319 net.cpp:386] inception_4d/relu_1x1 -> inception_4d/1x1 (in-place)
I0403 02:30:38.439013 25319 net.cpp:141] Setting up inception_4d/relu_1x1
I0403 02:30:38.439033 25319 net.cpp:148] Top shape: 24 112 14 14 (526848)
I0403 02:30:38.439049 25319 net.cpp:156] Memory required for data: 1115397312
I0403 02:30:38.439066 25319 layer_factory.hpp:77] Creating layer inception_4d/3x3_reduce
I0403 02:30:38.439090 25319 net.cpp:91] Creating Layer inception_4d/3x3_reduce
I0403 02:30:38.439110 25319 net.cpp:425] inception_4d/3x3_reduce <- inception_4c/output_inception_4c/output_0_split_1
I0403 02:30:38.439136 25319 net.cpp:399] inception_4d/3x3_reduce -> inception_4d/3x3_reduce
I0403 02:30:38.439954 25319 net.cpp:141] Setting up inception_4d/3x3_reduce
I0403 02:30:38.439983 25319 net.cpp:148] Top shape: 24 144 14 14 (677376)
I0403 02:30:38.440001 25319 net.cpp:156] Memory required for data: 1118106816
I0403 02:30:38.440022 25319 layer_factory.hpp:77] Creating layer inception_4d/relu_3x3_reduce
I0403 02:30:38.440043 25319 net.cpp:91] Creating Layer inception_4d/relu_3x3_reduce
I0403 02:30:38.440062 25319 net.cpp:425] inception_4d/relu_3x3_reduce <- inception_4d/3x3_reduce
I0403 02:30:38.440083 25319 net.cpp:386] inception_4d/relu_3x3_reduce -> inception_4d/3x3_reduce (in-place)
I0403 02:30:38.440109 25319 net.cpp:141] Setting up inception_4d/relu_3x3_reduce
I0403 02:30:38.440130 25319 net.cpp:148] Top shape: 24 144 14 14 (677376)
I0403 02:30:38.440146 25319 net.cpp:156] Memory required for data: 1120816320
I0403 02:30:38.440163 25319 layer_factory.hpp:77] Creating layer inception_4d/3x3
I0403 02:30:38.440189 25319 net.cpp:91] Creating Layer inception_4d/3x3
I0403 02:30:38.440320 25319 net.cpp:425] inception_4d/3x3 <- inception_4d/3x3_reduce
I0403 02:30:38.440352 25319 net.cpp:399] inception_4d/3x3 -> inception_4d/3x3
I0403 02:30:38.444572 25319 net.cpp:141] Setting up inception_4d/3x3
I0403 02:30:38.444605 25319 net.cpp:148] Top shape: 24 288 14 14 (1354752)
I0403 02:30:38.444628 25319 net.cpp:156] Memory required for data: 1126235328
I0403 02:30:38.444648 25319 layer_factory.hpp:77] Creating layer inception_4d/relu_3x3
I0403 02:30:38.444671 25319 net.cpp:91] Creating Layer inception_4d/relu_3x3
I0403 02:30:38.444692 25319 net.cpp:425] inception_4d/relu_3x3 <- inception_4d/3x3
I0403 02:30:38.444716 25319 net.cpp:386] inception_4d/relu_3x3 -> inception_4d/3x3 (in-place)
I0403 02:30:38.444741 25319 net.cpp:141] Setting up inception_4d/relu_3x3
I0403 02:30:38.444764 25319 net.cpp:148] Top shape: 24 288 14 14 (1354752)
I0403 02:30:38.444780 25319 net.cpp:156] Memory required for data: 1131654336
I0403 02:30:38.444797 25319 layer_factory.hpp:77] Creating layer inception_4d/5x5_reduce
I0403 02:30:38.444847 25319 net.cpp:91] Creating Layer inception_4d/5x5_reduce
I0403 02:30:38.444870 25319 net.cpp:425] inception_4d/5x5_reduce <- inception_4c/output_inception_4c/output_0_split_2
I0403 02:30:38.444898 25319 net.cpp:399] inception_4d/5x5_reduce -> inception_4d/5x5_reduce
I0403 02:30:38.445323 25319 net.cpp:141] Setting up inception_4d/5x5_reduce
I0403 02:30:38.445353 25319 net.cpp:148] Top shape: 24 32 14 14 (150528)
I0403 02:30:38.445379 25319 net.cpp:156] Memory required for data: 1132256448
I0403 02:30:38.445400 25319 layer_factory.hpp:77] Creating layer inception_4d/relu_5x5_reduce
I0403 02:30:38.445425 25319 net.cpp:91] Creating Layer inception_4d/relu_5x5_reduce
I0403 02:30:38.445446 25319 net.cpp:425] inception_4d/relu_5x5_reduce <- inception_4d/5x5_reduce
I0403 02:30:38.445466 25319 net.cpp:386] inception_4d/relu_5x5_reduce -> inception_4d/5x5_reduce (in-place)
I0403 02:30:38.445488 25319 net.cpp:141] Setting up inception_4d/relu_5x5_reduce
I0403 02:30:38.445510 25319 net.cpp:148] Top shape: 24 32 14 14 (150528)
I0403 02:30:38.445528 25319 net.cpp:156] Memory required for data: 1132858560
I0403 02:30:38.445544 25319 layer_factory.hpp:77] Creating layer inception_4d/5x5
I0403 02:30:38.445574 25319 net.cpp:91] Creating Layer inception_4d/5x5
I0403 02:30:38.445595 25319 net.cpp:425] inception_4d/5x5 <- inception_4d/5x5_reduce
I0403 02:30:38.445621 25319 net.cpp:399] inception_4d/5x5 -> inception_4d/5x5
I0403 02:30:38.446265 25319 net.cpp:141] Setting up inception_4d/5x5
I0403 02:30:38.446295 25319 net.cpp:148] Top shape: 24 64 14 14 (301056)
I0403 02:30:38.446313 25319 net.cpp:156] Memory required for data: 1134062784
I0403 02:30:38.446333 25319 layer_factory.hpp:77] Creating layer inception_4d/relu_5x5
I0403 02:30:38.472076 25319 net.cpp:91] Creating Layer inception_4d/relu_5x5
I0403 02:30:38.472324 25319 net.cpp:425] inception_4d/relu_5x5 <- inception_4d/5x5
I0403 02:30:38.472404 25319 net.cpp:386] inception_4d/relu_5x5 -> inception_4d/5x5 (in-place)
I0403 02:30:38.472434 25319 net.cpp:141] Setting up inception_4d/relu_5x5
I0403 02:30:38.472477 25319 net.cpp:148] Top shape: 24 64 14 14 (301056)
I0403 02:30:38.472524 25319 net.cpp:156] Memory required for data: 1135267008
I0403 02:30:38.472555 25319 layer_factory.hpp:77] Creating layer inception_4d/pool
I0403 02:30:38.472611 25319 net.cpp:91] Creating Layer inception_4d/pool
I0403 02:30:38.472652 25319 net.cpp:425] inception_4d/pool <- inception_4c/output_inception_4c/output_0_split_3
I0403 02:30:38.472674 25319 net.cpp:399] inception_4d/pool -> inception_4d/pool
I0403 02:30:38.472776 25319 net.cpp:141] Setting up inception_4d/pool
I0403 02:30:38.472836 25319 net.cpp:148] Top shape: 24 512 14 14 (2408448)
I0403 02:30:38.472880 25319 net.cpp:156] Memory required for data: 1144900800
I0403 02:30:38.472925 25319 layer_factory.hpp:77] Creating layer inception_4d/pool_proj
I0403 02:30:38.472982 25319 net.cpp:91] Creating Layer inception_4d/pool_proj
I0403 02:30:38.473022 25319 net.cpp:425] inception_4d/pool_proj <- inception_4d/pool
I0403 02:30:38.473075 25319 net.cpp:399] inception_4d/pool_proj -> inception_4d/pool_proj
I0403 02:30:38.473640 25319 net.cpp:141] Setting up inception_4d/pool_proj
I0403 02:30:38.473672 25319 net.cpp:148] Top shape: 24 64 14 14 (301056)
I0403 02:30:38.473700 25319 net.cpp:156] Memory required for data: 1146105024
I0403 02:30:38.473721 25319 layer_factory.hpp:77] Creating layer inception_4d/relu_pool_proj
I0403 02:30:38.473764 25319 net.cpp:91] Creating Layer inception_4d/relu_pool_proj
I0403 02:30:38.473794 25319 net.cpp:425] inception_4d/relu_pool_proj <- inception_4d/pool_proj
I0403 02:30:38.473847 25319 net.cpp:386] inception_4d/relu_pool_proj -> inception_4d/pool_proj (in-place)
I0403 02:30:38.473891 25319 net.cpp:141] Setting up inception_4d/relu_pool_proj
I0403 02:30:38.473949 25319 net.cpp:148] Top shape: 24 64 14 14 (301056)
I0403 02:30:38.473992 25319 net.cpp:156] Memory required for data: 1147309248
I0403 02:30:38.474042 25319 layer_factory.hpp:77] Creating layer inception_4d/output
I0403 02:30:38.474100 25319 net.cpp:91] Creating Layer inception_4d/output
I0403 02:30:38.474153 25319 net.cpp:425] inception_4d/output <- inception_4d/1x1
I0403 02:30:38.474180 25319 net.cpp:425] inception_4d/output <- inception_4d/3x3
I0403 02:30:38.474380 25319 net.cpp:425] inception_4d/output <- inception_4d/5x5
I0403 02:30:38.474421 25319 net.cpp:425] inception_4d/output <- inception_4d/pool_proj
I0403 02:30:38.474443 25319 net.cpp:399] inception_4d/output -> inception_4d/output
I0403 02:30:38.474515 25319 net.cpp:141] Setting up inception_4d/output
I0403 02:30:38.474545 25319 net.cpp:148] Top shape: 24 528 14 14 (2483712)
I0403 02:30:38.474561 25319 net.cpp:156] Memory required for data: 1157244096
I0403 02:30:38.474578 25319 layer_factory.hpp:77] Creating layer inception_4d/output_inception_4d/output_0_split
I0403 02:30:38.474604 25319 net.cpp:91] Creating Layer inception_4d/output_inception_4d/output_0_split
I0403 02:30:38.474627 25319 net.cpp:425] inception_4d/output_inception_4d/output_0_split <- inception_4d/output
I0403 02:30:38.474649 25319 net.cpp:399] inception_4d/output_inception_4d/output_0_split -> inception_4d/output_inception_4d/output_0_split_0
I0403 02:30:38.474673 25319 net.cpp:399] inception_4d/output_inception_4d/output_0_split -> inception_4d/output_inception_4d/output_0_split_1
I0403 02:30:38.474697 25319 net.cpp:399] inception_4d/output_inception_4d/output_0_split -> inception_4d/output_inception_4d/output_0_split_2
I0403 02:30:38.474721 25319 net.cpp:399] inception_4d/output_inception_4d/output_0_split -> inception_4d/output_inception_4d/output_0_split_3
I0403 02:30:38.474747 25319 net.cpp:399] inception_4d/output_inception_4d/output_0_split -> inception_4d/output_inception_4d/output_0_split_4
I0403 02:30:38.474860 25319 net.cpp:141] Setting up inception_4d/output_inception_4d/output_0_split
I0403 02:30:38.474889 25319 net.cpp:148] Top shape: 24 528 14 14 (2483712)
I0403 02:30:38.474907 25319 net.cpp:148] Top shape: 24 528 14 14 (2483712)
I0403 02:30:38.474925 25319 net.cpp:148] Top shape: 24 528 14 14 (2483712)
I0403 02:30:38.474943 25319 net.cpp:148] Top shape: 24 528 14 14 (2483712)
I0403 02:30:38.474961 25319 net.cpp:148] Top shape: 24 528 14 14 (2483712)
I0403 02:30:38.475008 25319 net.cpp:156] Memory required for data: 1206918336
I0403 02:30:38.475044 25319 layer_factory.hpp:77] Creating layer loss2/ave_pool
I0403 02:30:38.475085 25319 net.cpp:91] Creating Layer loss2/ave_pool
I0403 02:30:38.475118 25319 net.cpp:425] loss2/ave_pool <- inception_4d/output_inception_4d/output_0_split_0
I0403 02:30:38.475141 25319 net.cpp:399] loss2/ave_pool -> loss2/ave_pool
I0403 02:30:38.475214 25319 net.cpp:141] Setting up loss2/ave_pool
I0403 02:30:38.475249 25319 net.cpp:148] Top shape: 24 528 4 4 (202752)
I0403 02:30:38.475276 25319 net.cpp:156] Memory required for data: 1207729344
I0403 02:30:38.475306 25319 layer_factory.hpp:77] Creating layer loss2/conv
I0403 02:30:38.475355 25319 net.cpp:91] Creating Layer loss2/conv
I0403 02:30:38.475383 25319 net.cpp:425] loss2/conv <- loss2/ave_pool
I0403 02:30:38.475415 25319 net.cpp:399] loss2/conv -> loss2/conv
I0403 02:30:38.476971 25319 net.cpp:141] Setting up loss2/conv
I0403 02:30:38.477015 25319 net.cpp:148] Top shape: 24 128 4 4 (49152)
I0403 02:30:38.477035 25319 net.cpp:156] Memory required for data: 1207925952
I0403 02:30:38.477058 25319 layer_factory.hpp:77] Creating layer loss2/relu_conv
I0403 02:30:38.477116 25319 net.cpp:91] Creating Layer loss2/relu_conv
I0403 02:30:38.477161 25319 net.cpp:425] loss2/relu_conv <- loss2/conv
I0403 02:30:38.477200 25319 net.cpp:386] loss2/relu_conv -> loss2/conv (in-place)
I0403 02:30:38.477226 25319 net.cpp:141] Setting up loss2/relu_conv
I0403 02:30:38.477247 25319 net.cpp:148] Top shape: 24 128 4 4 (49152)
I0403 02:30:38.477264 25319 net.cpp:156] Memory required for data: 1208122560
I0403 02:30:38.477286 25319 layer_factory.hpp:77] Creating layer loss2/fc
I0403 02:30:38.477310 25319 net.cpp:91] Creating Layer loss2/fc
I0403 02:30:38.477329 25319 net.cpp:425] loss2/fc <- loss2/conv
I0403 02:30:38.477355 25319 net.cpp:399] loss2/fc -> loss2/fc
I0403 02:30:38.498255 25319 net.cpp:141] Setting up loss2/fc
I0403 02:30:38.498308 25319 net.cpp:148] Top shape: 24 1024 (24576)
I0403 02:30:38.498328 25319 net.cpp:156] Memory required for data: 1208220864
I0403 02:30:38.498353 25319 layer_factory.hpp:77] Creating layer loss2/relu_fc
I0403 02:30:38.498384 25319 net.cpp:91] Creating Layer loss2/relu_fc
I0403 02:30:38.498407 25319 net.cpp:425] loss2/relu_fc <- loss2/fc
I0403 02:30:38.498433 25319 net.cpp:386] loss2/relu_fc -> loss2/fc (in-place)
I0403 02:30:38.498459 25319 net.cpp:141] Setting up loss2/relu_fc
I0403 02:30:38.498481 25319 net.cpp:148] Top shape: 24 1024 (24576)
I0403 02:30:38.498497 25319 net.cpp:156] Memory required for data: 1208319168
I0403 02:30:38.498515 25319 layer_factory.hpp:77] Creating layer loss2/drop_fc
I0403 02:30:38.498538 25319 net.cpp:91] Creating Layer loss2/drop_fc
I0403 02:30:38.498558 25319 net.cpp:425] loss2/drop_fc <- loss2/fc
I0403 02:30:38.498581 25319 net.cpp:386] loss2/drop_fc -> loss2/fc (in-place)
I0403 02:30:38.498636 25319 net.cpp:141] Setting up loss2/drop_fc
I0403 02:30:38.498678 25319 net.cpp:148] Top shape: 24 1024 (24576)
I0403 02:30:38.498724 25319 net.cpp:156] Memory required for data: 1208417472
I0403 02:30:38.498775 25319 layer_factory.hpp:77] Creating layer loss2/classifier_plantvillage
I0403 02:30:38.498822 25319 net.cpp:91] Creating Layer loss2/classifier_plantvillage
I0403 02:30:38.498867 25319 net.cpp:425] loss2/classifier_plantvillage <- loss2/fc
I0403 02:30:38.498924 25319 net.cpp:399] loss2/classifier_plantvillage -> loss2/classifier_plantvillage
I0403 02:30:38.499496 25319 net.cpp:141] Setting up loss2/classifier_plantvillage
I0403 02:30:38.499527 25319 net.cpp:148] Top shape: 24 38 (912)
I0403 02:30:38.499547 25319 net.cpp:156] Memory required for data: 1208421120
I0403 02:30:38.499567 25319 layer_factory.hpp:77] Creating layer loss2/classifier_plantvillage_loss2/classifier_plantvillage_0_split
I0403 02:30:38.499590 25319 net.cpp:91] Creating Layer loss2/classifier_plantvillage_loss2/classifier_plantvillage_0_split
I0403 02:30:38.499610 25319 net.cpp:425] loss2/classifier_plantvillage_loss2/classifier_plantvillage_0_split <- loss2/classifier_plantvillage
I0403 02:30:38.499635 25319 net.cpp:399] loss2/classifier_plantvillage_loss2/classifier_plantvillage_0_split -> loss2/classifier_plantvillage_loss2/classifier_plantvillage_0_split_0
I0403 02:30:38.499662 25319 net.cpp:399] loss2/classifier_plantvillage_loss2/classifier_plantvillage_0_split -> loss2/classifier_plantvillage_loss2/classifier_plantvillage_0_split_1
I0403 02:30:38.499687 25319 net.cpp:399] loss2/classifier_plantvillage_loss2/classifier_plantvillage_0_split -> loss2/classifier_plantvillage_loss2/classifier_plantvillage_0_split_2
I0403 02:30:38.499770 25319 net.cpp:141] Setting up loss2/classifier_plantvillage_loss2/classifier_plantvillage_0_split
I0403 02:30:38.499801 25319 net.cpp:148] Top shape: 24 38 (912)
I0403 02:30:38.499821 25319 net.cpp:148] Top shape: 24 38 (912)
I0403 02:30:38.499840 25319 net.cpp:148] Top shape: 24 38 (912)
I0403 02:30:38.499856 25319 net.cpp:156] Memory required for data: 1208432064
I0403 02:30:38.499874 25319 layer_factory.hpp:77] Creating layer inception_4e/1x1
I0403 02:30:38.499899 25319 net.cpp:91] Creating Layer inception_4e/1x1
I0403 02:30:38.499920 25319 net.cpp:425] inception_4e/1x1 <- inception_4d/output_inception_4d/output_0_split_1
I0403 02:30:38.499956 25319 net.cpp:399] inception_4e/1x1 -> inception_4e/1x1
I0403 02:30:38.501233 25319 net.cpp:141] Setting up inception_4e/1x1
I0403 02:30:38.527458 25319 net.cpp:148] Top shape: 24 256 14 14 (1204224)
I0403 02:30:38.527505 25319 net.cpp:156] Memory required for data: 1213248960
I0403 02:30:38.527560 25319 layer_factory.hpp:77] Creating layer inception_4e/relu_1x1
I0403 02:30:38.527642 25319 net.cpp:91] Creating Layer inception_4e/relu_1x1
I0403 02:30:38.527701 25319 net.cpp:425] inception_4e/relu_1x1 <- inception_4e/1x1
I0403 02:30:38.527789 25319 net.cpp:386] inception_4e/relu_1x1 -> inception_4e/1x1 (in-place)
I0403 02:30:38.527907 25319 net.cpp:141] Setting up inception_4e/relu_1x1
I0403 02:30:38.528013 25319 net.cpp:148] Top shape: 24 256 14 14 (1204224)
I0403 02:30:38.528050 25319 net.cpp:156] Memory required for data: 1218065856
I0403 02:30:38.528089 25319 layer_factory.hpp:77] Creating layer inception_4e/3x3_reduce
I0403 02:30:38.528136 25319 net.cpp:91] Creating Layer inception_4e/3x3_reduce
I0403 02:30:38.528206 25319 net.cpp:425] inception_4e/3x3_reduce <- inception_4d/output_inception_4d/output_0_split_2
I0403 02:30:38.528234 25319 net.cpp:399] inception_4e/3x3_reduce -> inception_4e/3x3_reduce
I0403 02:30:38.529928 25319 net.cpp:141] Setting up inception_4e/3x3_reduce
I0403 02:30:38.529968 25319 net.cpp:148] Top shape: 24 160 14 14 (752640)
I0403 02:30:38.530014 25319 net.cpp:156] Memory required for data: 1221076416
I0403 02:30:38.530036 25319 layer_factory.hpp:77] Creating layer inception_4e/relu_3x3_reduce
I0403 02:30:38.530062 25319 net.cpp:91] Creating Layer inception_4e/relu_3x3_reduce
I0403 02:30:38.530087 25319 net.cpp:425] inception_4e/relu_3x3_reduce <- inception_4e/3x3_reduce
I0403 02:30:38.530112 25319 net.cpp:386] inception_4e/relu_3x3_reduce -> inception_4e/3x3_reduce (in-place)
I0403 02:30:38.530166 25319 net.cpp:141] Setting up inception_4e/relu_3x3_reduce
I0403 02:30:38.530187 25319 net.cpp:148] Top shape: 24 160 14 14 (752640)
I0403 02:30:38.530208 25319 net.cpp:156] Memory required for data: 1224086976
I0403 02:30:38.530378 25319 layer_factory.hpp:77] Creating layer inception_4e/3x3
I0403 02:30:38.530426 25319 net.cpp:91] Creating Layer inception_4e/3x3
I0403 02:30:38.530573 25319 net.cpp:425] inception_4e/3x3 <- inception_4e/3x3_reduce
I0403 02:30:38.530603 25319 net.cpp:399] inception_4e/3x3 -> inception_4e/3x3
I0403 02:30:38.535374 25319 net.cpp:141] Setting up inception_4e/3x3
I0403 02:30:38.535436 25319 net.cpp:148] Top shape: 24 320 14 14 (1505280)
I0403 02:30:38.535459 25319 net.cpp:156] Memory required for data: 1230108096
I0403 02:30:38.535480 25319 layer_factory.hpp:77] Creating layer inception_4e/relu_3x3
I0403 02:30:38.535532 25319 net.cpp:91] Creating Layer inception_4e/relu_3x3
I0403 02:30:38.535554 25319 net.cpp:425] inception_4e/relu_3x3 <- inception_4e/3x3
I0403 02:30:38.535584 25319 net.cpp:386] inception_4e/relu_3x3 -> inception_4e/3x3 (in-place)
I0403 02:30:38.535614 25319 net.cpp:141] Setting up inception_4e/relu_3x3
I0403 02:30:38.535675 25319 net.cpp:148] Top shape: 24 320 14 14 (1505280)
I0403 02:30:38.535691 25319 net.cpp:156] Memory required for data: 1236129216
I0403 02:30:38.535804 25319 layer_factory.hpp:77] Creating layer inception_4e/5x5_reduce
I0403 02:30:38.535832 25319 net.cpp:91] Creating Layer inception_4e/5x5_reduce
I0403 02:30:38.535853 25319 net.cpp:425] inception_4e/5x5_reduce <- inception_4d/output_inception_4d/output_0_split_3
I0403 02:30:38.535894 25319 net.cpp:399] inception_4e/5x5_reduce -> inception_4e/5x5_reduce
I0403 02:30:38.536955 25319 net.cpp:141] Setting up inception_4e/5x5_reduce
I0403 02:30:38.536994 25319 net.cpp:148] Top shape: 24 32 14 14 (150528)
I0403 02:30:38.537047 25319 net.cpp:156] Memory required for data: 1236731328
I0403 02:30:38.537071 25319 layer_factory.hpp:77] Creating layer inception_4e/relu_5x5_reduce
I0403 02:30:38.537109 25319 net.cpp:91] Creating Layer inception_4e/relu_5x5_reduce
I0403 02:30:38.537132 25319 net.cpp:425] inception_4e/relu_5x5_reduce <- inception_4e/5x5_reduce
I0403 02:30:38.537161 25319 net.cpp:386] inception_4e/relu_5x5_reduce -> inception_4e/5x5_reduce (in-place)
I0403 02:30:38.537194 25319 net.cpp:141] Setting up inception_4e/relu_5x5_reduce
I0403 02:30:38.537242 25319 net.cpp:148] Top shape: 24 32 14 14 (150528)
I0403 02:30:38.537292 25319 net.cpp:156] Memory required for data: 1237333440
I0403 02:30:38.537315 25319 layer_factory.hpp:77] Creating layer inception_4e/5x5
I0403 02:30:38.537384 25319 net.cpp:91] Creating Layer inception_4e/5x5
I0403 02:30:38.537417 25319 net.cpp:425] inception_4e/5x5 <- inception_4e/5x5_reduce
I0403 02:30:38.537509 25319 net.cpp:399] inception_4e/5x5 -> inception_4e/5x5
I0403 02:30:38.538540 25319 net.cpp:141] Setting up inception_4e/5x5
I0403 02:30:38.538589 25319 net.cpp:148] Top shape: 24 128 14 14 (602112)
I0403 02:30:38.538609 25319 net.cpp:156] Memory required for data: 1239741888
I0403 02:30:38.538631 25319 layer_factory.hpp:77] Creating layer inception_4e/relu_5x5
I0403 02:30:38.538653 25319 net.cpp:91] Creating Layer inception_4e/relu_5x5
I0403 02:30:38.538674 25319 net.cpp:425] inception_4e/relu_5x5 <- inception_4e/5x5
I0403 02:30:38.538696 25319 net.cpp:386] inception_4e/relu_5x5 -> inception_4e/5x5 (in-place)
I0403 02:30:38.538717 25319 net.cpp:141] Setting up inception_4e/relu_5x5
I0403 02:30:38.538738 25319 net.cpp:148] Top shape: 24 128 14 14 (602112)
I0403 02:30:38.538755 25319 net.cpp:156] Memory required for data: 1242150336
I0403 02:30:38.538771 25319 layer_factory.hpp:77] Creating layer inception_4e/pool
I0403 02:30:38.538796 25319 net.cpp:91] Creating Layer inception_4e/pool
I0403 02:30:38.538816 25319 net.cpp:425] inception_4e/pool <- inception_4d/output_inception_4d/output_0_split_4
I0403 02:30:38.538839 25319 net.cpp:399] inception_4e/pool -> inception_4e/pool
I0403 02:30:38.538908 25319 net.cpp:141] Setting up inception_4e/pool
I0403 02:30:38.538936 25319 net.cpp:148] Top shape: 24 528 14 14 (2483712)
I0403 02:30:38.538954 25319 net.cpp:156] Memory required for data: 1252085184
I0403 02:30:38.538971 25319 layer_factory.hpp:77] Creating layer inception_4e/pool_proj
I0403 02:30:38.539000 25319 net.cpp:91] Creating Layer inception_4e/pool_proj
I0403 02:30:38.539021 25319 net.cpp:425] inception_4e/pool_proj <- inception_4e/pool
I0403 02:30:38.539047 25319 net.cpp:399] inception_4e/pool_proj -> inception_4e/pool_proj
I0403 02:30:38.539788 25319 net.cpp:141] Setting up inception_4e/pool_proj
I0403 02:30:38.539840 25319 net.cpp:148] Top shape: 24 128 14 14 (602112)
I0403 02:30:38.539908 25319 net.cpp:156] Memory required for data: 1254493632
I0403 02:30:38.539990 25319 layer_factory.hpp:77] Creating layer inception_4e/relu_pool_proj
I0403 02:30:38.540035 25319 net.cpp:91] Creating Layer inception_4e/relu_pool_proj
I0403 02:30:38.540057 25319 net.cpp:425] inception_4e/relu_pool_proj <- inception_4e/pool_proj
I0403 02:30:38.540079 25319 net.cpp:386] inception_4e/relu_pool_proj -> inception_4e/pool_proj (in-place)
I0403 02:30:38.540105 25319 net.cpp:141] Setting up inception_4e/relu_pool_proj
I0403 02:30:38.540125 25319 net.cpp:148] Top shape: 24 128 14 14 (602112)
I0403 02:30:38.540141 25319 net.cpp:156] Memory required for data: 1256902080
I0403 02:30:38.540158 25319 layer_factory.hpp:77] Creating layer inception_4e/output
I0403 02:30:38.540179 25319 net.cpp:91] Creating Layer inception_4e/output
I0403 02:30:38.540196 25319 net.cpp:425] inception_4e/output <- inception_4e/1x1
I0403 02:30:38.540215 25319 net.cpp:425] inception_4e/output <- inception_4e/3x3
I0403 02:30:38.540233 25319 net.cpp:425] inception_4e/output <- inception_4e/5x5
I0403 02:30:38.540251 25319 net.cpp:425] inception_4e/output <- inception_4e/pool_proj
I0403 02:30:38.540271 25319 net.cpp:399] inception_4e/output -> inception_4e/output
I0403 02:30:38.540321 25319 net.cpp:141] Setting up inception_4e/output
I0403 02:30:38.540348 25319 net.cpp:148] Top shape: 24 832 14 14 (3913728)
I0403 02:30:38.540370 25319 net.cpp:156] Memory required for data: 1272556992
I0403 02:30:38.540388 25319 layer_factory.hpp:77] Creating layer pool4/3x3_s2
I0403 02:30:38.540415 25319 net.cpp:91] Creating Layer pool4/3x3_s2
I0403 02:30:38.540433 25319 net.cpp:425] pool4/3x3_s2 <- inception_4e/output
I0403 02:30:38.540454 25319 net.cpp:399] pool4/3x3_s2 -> pool4/3x3_s2
I0403 02:30:38.540516 25319 net.cpp:141] Setting up pool4/3x3_s2
I0403 02:30:38.540544 25319 net.cpp:148] Top shape: 24 832 7 7 (978432)
I0403 02:30:38.540561 25319 net.cpp:156] Memory required for data: 1276470720
I0403 02:30:38.540580 25319 layer_factory.hpp:77] Creating layer pool4/3x3_s2_pool4/3x3_s2_0_split
I0403 02:30:38.540599 25319 net.cpp:91] Creating Layer pool4/3x3_s2_pool4/3x3_s2_0_split
I0403 02:30:38.540618 25319 net.cpp:425] pool4/3x3_s2_pool4/3x3_s2_0_split <- pool4/3x3_s2
I0403 02:30:38.540659 25319 net.cpp:399] pool4/3x3_s2_pool4/3x3_s2_0_split -> pool4/3x3_s2_pool4/3x3_s2_0_split_0
I0403 02:30:38.540686 25319 net.cpp:399] pool4/3x3_s2_pool4/3x3_s2_0_split -> pool4/3x3_s2_pool4/3x3_s2_0_split_1
I0403 02:30:38.540712 25319 net.cpp:399] pool4/3x3_s2_pool4/3x3_s2_0_split -> pool4/3x3_s2_pool4/3x3_s2_0_split_2
I0403 02:30:38.540735 25319 net.cpp:399] pool4/3x3_s2_pool4/3x3_s2_0_split -> pool4/3x3_s2_pool4/3x3_s2_0_split_3
I0403 02:30:38.540822 25319 net.cpp:141] Setting up pool4/3x3_s2_pool4/3x3_s2_0_split
I0403 02:30:38.540851 25319 net.cpp:148] Top shape: 24 832 7 7 (978432)
I0403 02:30:38.540871 25319 net.cpp:148] Top shape: 24 832 7 7 (978432)
I0403 02:30:38.540889 25319 net.cpp:148] Top shape: 24 832 7 7 (978432)
I0403 02:30:38.540907 25319 net.cpp:148] Top shape: 24 832 7 7 (978432)
I0403 02:30:38.540923 25319 net.cpp:156] Memory required for data: 1292125632
I0403 02:30:38.540940 25319 layer_factory.hpp:77] Creating layer inception_5a/1x1
I0403 02:30:38.540968 25319 net.cpp:91] Creating Layer inception_5a/1x1
I0403 02:30:38.540989 25319 net.cpp:425] inception_5a/1x1 <- pool4/3x3_s2_pool4/3x3_s2_0_split_0
I0403 02:30:38.541012 25319 net.cpp:399] inception_5a/1x1 -> inception_5a/1x1
I0403 02:30:38.543326 25319 net.cpp:141] Setting up inception_5a/1x1
I0403 02:30:38.543365 25319 net.cpp:148] Top shape: 24 256 7 7 (301056)
I0403 02:30:38.543385 25319 net.cpp:156] Memory required for data: 1293329856
I0403 02:30:38.543407 25319 layer_factory.hpp:77] Creating layer inception_5a/relu_1x1
I0403 02:30:38.543428 25319 net.cpp:91] Creating Layer inception_5a/relu_1x1
I0403 02:30:38.543447 25319 net.cpp:425] inception_5a/relu_1x1 <- inception_5a/1x1
I0403 02:30:38.543468 25319 net.cpp:386] inception_5a/relu_1x1 -> inception_5a/1x1 (in-place)
I0403 02:30:38.543491 25319 net.cpp:141] Setting up inception_5a/relu_1x1
I0403 02:30:38.543511 25319 net.cpp:148] Top shape: 24 256 7 7 (301056)
I0403 02:30:38.543529 25319 net.cpp:156] Memory required for data: 1294534080
I0403 02:30:38.543545 25319 layer_factory.hpp:77] Creating layer inception_5a/3x3_reduce
I0403 02:30:38.543572 25319 net.cpp:91] Creating Layer inception_5a/3x3_reduce
I0403 02:30:38.543593 25319 net.cpp:425] inception_5a/3x3_reduce <- pool4/3x3_s2_pool4/3x3_s2_0_split_1
I0403 02:30:38.543619 25319 net.cpp:399] inception_5a/3x3_reduce -> inception_5a/3x3_reduce
I0403 02:30:38.545420 25319 net.cpp:141] Setting up inception_5a/3x3_reduce
I0403 02:30:38.545455 25319 net.cpp:148] Top shape: 24 160 7 7 (188160)
I0403 02:30:38.545475 25319 net.cpp:156] Memory required for data: 1295286720
I0403 02:30:38.545496 25319 layer_factory.hpp:77] Creating layer inception_5a/relu_3x3_reduce
I0403 02:30:38.545519 25319 net.cpp:91] Creating Layer inception_5a/relu_3x3_reduce
I0403 02:30:38.545539 25319 net.cpp:425] inception_5a/relu_3x3_reduce <- inception_5a/3x3_reduce
I0403 02:30:38.545560 25319 net.cpp:386] inception_5a/relu_3x3_reduce -> inception_5a/3x3_reduce (in-place)
I0403 02:30:38.545584 25319 net.cpp:141] Setting up inception_5a/relu_3x3_reduce
I0403 02:30:38.545604 25319 net.cpp:148] Top shape: 24 160 7 7 (188160)
I0403 02:30:38.545622 25319 net.cpp:156] Memory required for data: 1296039360
I0403 02:30:38.545640 25319 layer_factory.hpp:77] Creating layer inception_5a/3x3
I0403 02:30:38.545668 25319 net.cpp:91] Creating Layer inception_5a/3x3
I0403 02:30:38.545691 25319 net.cpp:425] inception_5a/3x3 <- inception_5a/3x3_reduce
I0403 02:30:38.545717 25319 net.cpp:399] inception_5a/3x3 -> inception_5a/3x3
I0403 02:30:38.550410 25319 net.cpp:141] Setting up inception_5a/3x3
I0403 02:30:38.550451 25319 net.cpp:148] Top shape: 24 320 7 7 (376320)
I0403 02:30:38.550470 25319 net.cpp:156] Memory required for data: 1297544640
I0403 02:30:38.550492 25319 layer_factory.hpp:77] Creating layer inception_5a/relu_3x3
I0403 02:30:38.550514 25319 net.cpp:91] Creating Layer inception_5a/relu_3x3
I0403 02:30:38.550535 25319 net.cpp:425] inception_5a/relu_3x3 <- inception_5a/3x3
I0403 02:30:38.550556 25319 net.cpp:386] inception_5a/relu_3x3 -> inception_5a/3x3 (in-place)
I0403 02:30:38.550598 25319 net.cpp:141] Setting up inception_5a/relu_3x3
I0403 02:30:38.550621 25319 net.cpp:148] Top shape: 24 320 7 7 (376320)
I0403 02:30:38.550637 25319 net.cpp:156] Memory required for data: 1299049920
I0403 02:30:38.550654 25319 layer_factory.hpp:77] Creating layer inception_5a/5x5_reduce
I0403 02:30:38.550681 25319 net.cpp:91] Creating Layer inception_5a/5x5_reduce
I0403 02:30:38.550703 25319 net.cpp:425] inception_5a/5x5_reduce <- pool4/3x3_s2_pool4/3x3_s2_0_split_2
I0403 02:30:38.550729 25319 net.cpp:399] inception_5a/5x5_reduce -> inception_5a/5x5_reduce
I0403 02:30:38.551189 25319 net.cpp:141] Setting up inception_5a/5x5_reduce
I0403 02:30:38.551219 25319 net.cpp:148] Top shape: 24 32 7 7 (37632)
I0403 02:30:38.551237 25319 net.cpp:156] Memory required for data: 1299200448
I0403 02:30:38.551259 25319 layer_factory.hpp:77] Creating layer inception_5a/relu_5x5_reduce
I0403 02:30:38.551290 25319 net.cpp:91] Creating Layer inception_5a/relu_5x5_reduce
I0403 02:30:38.551317 25319 net.cpp:425] inception_5a/relu_5x5_reduce <- inception_5a/5x5_reduce
I0403 02:30:38.551343 25319 net.cpp:386] inception_5a/relu_5x5_reduce -> inception_5a/5x5_reduce (in-place)
I0403 02:30:38.551372 25319 net.cpp:141] Setting up inception_5a/relu_5x5_reduce
I0403 02:30:38.551399 25319 net.cpp:148] Top shape: 24 32 7 7 (37632)
I0403 02:30:38.551417 25319 net.cpp:156] Memory required for data: 1299350976
I0403 02:30:38.551434 25319 layer_factory.hpp:77] Creating layer inception_5a/5x5
I0403 02:30:38.551462 25319 net.cpp:91] Creating Layer inception_5a/5x5
I0403 02:30:38.551484 25319 net.cpp:425] inception_5a/5x5 <- inception_5a/5x5_reduce
I0403 02:30:38.551512 25319 net.cpp:399] inception_5a/5x5 -> inception_5a/5x5
I0403 02:30:38.552472 25319 net.cpp:141] Setting up inception_5a/5x5
I0403 02:30:38.552505 25319 net.cpp:148] Top shape: 24 128 7 7 (150528)
I0403 02:30:38.552525 25319 net.cpp:156] Memory required for data: 1299953088
I0403 02:30:38.552546 25319 layer_factory.hpp:77] Creating layer inception_5a/relu_5x5
I0403 02:30:38.552572 25319 net.cpp:91] Creating Layer inception_5a/relu_5x5
I0403 02:30:38.552593 25319 net.cpp:425] inception_5a/relu_5x5 <- inception_5a/5x5
I0403 02:30:38.552613 25319 net.cpp:386] inception_5a/relu_5x5 -> inception_5a/5x5 (in-place)
I0403 02:30:38.552637 25319 net.cpp:141] Setting up inception_5a/relu_5x5
I0403 02:30:38.552657 25319 net.cpp:148] Top shape: 24 128 7 7 (150528)
I0403 02:30:38.552675 25319 net.cpp:156] Memory required for data: 1300555200
I0403 02:30:38.552691 25319 layer_factory.hpp:77] Creating layer inception_5a/pool
I0403 02:30:38.552711 25319 net.cpp:91] Creating Layer inception_5a/pool
I0403 02:30:38.552729 25319 net.cpp:425] inception_5a/pool <- pool4/3x3_s2_pool4/3x3_s2_0_split_3
I0403 02:30:38.552750 25319 net.cpp:399] inception_5a/pool -> inception_5a/pool
I0403 02:30:38.552814 25319 net.cpp:141] Setting up inception_5a/pool
I0403 02:30:38.552841 25319 net.cpp:148] Top shape: 24 832 7 7 (978432)
I0403 02:30:38.552860 25319 net.cpp:156] Memory required for data: 1304468928
I0403 02:30:38.552877 25319 layer_factory.hpp:77] Creating layer inception_5a/pool_proj
I0403 02:30:38.552904 25319 net.cpp:91] Creating Layer inception_5a/pool_proj
I0403 02:30:38.552927 25319 net.cpp:425] inception_5a/pool_proj <- inception_5a/pool
I0403 02:30:38.552953 25319 net.cpp:399] inception_5a/pool_proj -> inception_5a/pool_proj
I0403 02:30:38.554555 25319 net.cpp:141] Setting up inception_5a/pool_proj
I0403 02:30:38.554595 25319 net.cpp:148] Top shape: 24 128 7 7 (150528)
I0403 02:30:38.554616 25319 net.cpp:156] Memory required for data: 1305071040
I0403 02:30:38.554637 25319 layer_factory.hpp:77] Creating layer inception_5a/relu_pool_proj
I0403 02:30:38.554661 25319 net.cpp:91] Creating Layer inception_5a/relu_pool_proj
I0403 02:30:38.554679 25319 net.cpp:425] inception_5a/relu_pool_proj <- inception_5a/pool_proj
I0403 02:30:38.554702 25319 net.cpp:386] inception_5a/relu_pool_proj -> inception_5a/pool_proj (in-place)
I0403 02:30:38.554724 25319 net.cpp:141] Setting up inception_5a/relu_pool_proj
I0403 02:30:38.554764 25319 net.cpp:148] Top shape: 24 128 7 7 (150528)
I0403 02:30:38.554782 25319 net.cpp:156] Memory required for data: 1305673152
I0403 02:30:38.554800 25319 layer_factory.hpp:77] Creating layer inception_5a/output
I0403 02:30:38.554821 25319 net.cpp:91] Creating Layer inception_5a/output
I0403 02:30:38.554841 25319 net.cpp:425] inception_5a/output <- inception_5a/1x1
I0403 02:30:38.554859 25319 net.cpp:425] inception_5a/output <- inception_5a/3x3
I0403 02:30:38.554879 25319 net.cpp:425] inception_5a/output <- inception_5a/5x5
I0403 02:30:38.554898 25319 net.cpp:425] inception_5a/output <- inception_5a/pool_proj
I0403 02:30:38.554922 25319 net.cpp:399] inception_5a/output -> inception_5a/output
I0403 02:30:38.554970 25319 net.cpp:141] Setting up inception_5a/output
I0403 02:30:38.554999 25319 net.cpp:148] Top shape: 24 832 7 7 (978432)
I0403 02:30:38.555018 25319 net.cpp:156] Memory required for data: 1309586880
I0403 02:30:38.555035 25319 layer_factory.hpp:77] Creating layer inception_5a/output_inception_5a/output_0_split
I0403 02:30:38.555057 25319 net.cpp:91] Creating Layer inception_5a/output_inception_5a/output_0_split
I0403 02:30:38.555075 25319 net.cpp:425] inception_5a/output_inception_5a/output_0_split <- inception_5a/output
I0403 02:30:38.555097 25319 net.cpp:399] inception_5a/output_inception_5a/output_0_split -> inception_5a/output_inception_5a/output_0_split_0
I0403 02:30:38.555122 25319 net.cpp:399] inception_5a/output_inception_5a/output_0_split -> inception_5a/output_inception_5a/output_0_split_1
I0403 02:30:38.555146 25319 net.cpp:399] inception_5a/output_inception_5a/output_0_split -> inception_5a/output_inception_5a/output_0_split_2
I0403 02:30:38.555174 25319 net.cpp:399] inception_5a/output_inception_5a/output_0_split -> inception_5a/output_inception_5a/output_0_split_3
I0403 02:30:38.555258 25319 net.cpp:141] Setting up inception_5a/output_inception_5a/output_0_split
I0403 02:30:38.555285 25319 net.cpp:148] Top shape: 24 832 7 7 (978432)
I0403 02:30:38.555305 25319 net.cpp:148] Top shape: 24 832 7 7 (978432)
I0403 02:30:38.555322 25319 net.cpp:148] Top shape: 24 832 7 7 (978432)
I0403 02:30:38.555341 25319 net.cpp:148] Top shape: 24 832 7 7 (978432)
I0403 02:30:38.555356 25319 net.cpp:156] Memory required for data: 1325241792
I0403 02:30:38.555379 25319 layer_factory.hpp:77] Creating layer inception_5b/1x1
I0403 02:30:38.555408 25319 net.cpp:91] Creating Layer inception_5b/1x1
I0403 02:30:38.555429 25319 net.cpp:425] inception_5b/1x1 <- inception_5a/output_inception_5a/output_0_split_0
I0403 02:30:38.555454 25319 net.cpp:399] inception_5b/1x1 -> inception_5b/1x1
I0403 02:30:38.558588 25319 net.cpp:141] Setting up inception_5b/1x1
I0403 02:30:38.558630 25319 net.cpp:148] Top shape: 24 384 7 7 (451584)
I0403 02:30:38.558651 25319 net.cpp:156] Memory required for data: 1327048128
I0403 02:30:38.558677 25319 layer_factory.hpp:77] Creating layer inception_5b/relu_1x1
I0403 02:30:38.558701 25319 net.cpp:91] Creating Layer inception_5b/relu_1x1
I0403 02:30:38.558720 25319 net.cpp:425] inception_5b/relu_1x1 <- inception_5b/1x1
I0403 02:30:38.558743 25319 net.cpp:386] inception_5b/relu_1x1 -> inception_5b/1x1 (in-place)
I0403 02:30:38.558768 25319 net.cpp:141] Setting up inception_5b/relu_1x1
I0403 02:30:38.558787 25319 net.cpp:148] Top shape: 24 384 7 7 (451584)
I0403 02:30:38.558804 25319 net.cpp:156] Memory required for data: 1328854464
I0403 02:30:38.558820 25319 layer_factory.hpp:77] Creating layer inception_5b/3x3_reduce
I0403 02:30:38.558851 25319 net.cpp:91] Creating Layer inception_5b/3x3_reduce
I0403 02:30:38.558873 25319 net.cpp:425] inception_5b/3x3_reduce <- inception_5a/output_inception_5a/output_0_split_1
I0403 02:30:38.558897 25319 net.cpp:399] inception_5b/3x3_reduce -> inception_5b/3x3_reduce
I0403 02:30:38.560866 25319 net.cpp:141] Setting up inception_5b/3x3_reduce
I0403 02:30:38.560907 25319 net.cpp:148] Top shape: 24 192 7 7 (225792)
I0403 02:30:38.560935 25319 net.cpp:156] Memory required for data: 1329757632
I0403 02:30:38.560957 25319 layer_factory.hpp:77] Creating layer inception_5b/relu_3x3_reduce
I0403 02:30:38.561009 25319 net.cpp:91] Creating Layer inception_5b/relu_3x3_reduce
I0403 02:30:38.561033 25319 net.cpp:425] inception_5b/relu_3x3_reduce <- inception_5b/3x3_reduce
I0403 02:30:38.561058 25319 net.cpp:386] inception_5b/relu_3x3_reduce -> inception_5b/3x3_reduce (in-place)
I0403 02:30:38.561084 25319 net.cpp:141] Setting up inception_5b/relu_3x3_reduce
I0403 02:30:38.561106 25319 net.cpp:148] Top shape: 24 192 7 7 (225792)
I0403 02:30:38.561123 25319 net.cpp:156] Memory required for data: 1330660800
I0403 02:30:38.561141 25319 layer_factory.hpp:77] Creating layer inception_5b/3x3
I0403 02:30:38.561168 25319 net.cpp:91] Creating Layer inception_5b/3x3
I0403 02:30:38.561190 25319 net.cpp:425] inception_5b/3x3 <- inception_5b/3x3_reduce
I0403 02:30:38.561214 25319 net.cpp:399] inception_5b/3x3 -> inception_5b/3x3
I0403 02:30:38.582936 25319 net.cpp:141] Setting up inception_5b/3x3
I0403 02:30:38.582993 25319 net.cpp:148] Top shape: 24 384 7 7 (451584)
I0403 02:30:38.583052 25319 net.cpp:156] Memory required for data: 1332467136
I0403 02:30:38.583081 25319 layer_factory.hpp:77] Creating layer inception_5b/relu_3x3
I0403 02:30:38.583111 25319 net.cpp:91] Creating Layer inception_5b/relu_3x3
I0403 02:30:38.583142 25319 net.cpp:425] inception_5b/relu_3x3 <- inception_5b/3x3
I0403 02:30:38.583195 25319 net.cpp:386] inception_5b/relu_3x3 -> inception_5b/3x3 (in-place)
I0403 02:30:38.583222 25319 net.cpp:141] Setting up inception_5b/relu_3x3
I0403 02:30:38.583266 25319 net.cpp:148] Top shape: 24 384 7 7 (451584)
I0403 02:30:38.583319 25319 net.cpp:156] Memory required for data: 1334273472
I0403 02:30:38.583340 25319 layer_factory.hpp:77] Creating layer inception_5b/5x5_reduce
I0403 02:30:38.583420 25319 net.cpp:91] Creating Layer inception_5b/5x5_reduce
I0403 02:30:38.583444 25319 net.cpp:425] inception_5b/5x5_reduce <- inception_5a/output_inception_5a/output_0_split_2
I0403 02:30:38.583509 25319 net.cpp:399] inception_5b/5x5_reduce -> inception_5b/5x5_reduce
I0403 02:30:38.584755 25319 net.cpp:141] Setting up inception_5b/5x5_reduce
I0403 02:30:38.584792 25319 net.cpp:148] Top shape: 24 48 7 7 (56448)
I0403 02:30:38.584812 25319 net.cpp:156] Memory required for data: 1334499264
I0403 02:30:38.584835 25319 layer_factory.hpp:77] Creating layer inception_5b/relu_5x5_reduce
I0403 02:30:38.584859 25319 net.cpp:91] Creating Layer inception_5b/relu_5x5_reduce
I0403 02:30:38.584882 25319 net.cpp:425] inception_5b/relu_5x5_reduce <- inception_5b/5x5_reduce
I0403 02:30:38.584904 25319 net.cpp:386] inception_5b/relu_5x5_reduce -> inception_5b/5x5_reduce (in-place)
I0403 02:30:38.584928 25319 net.cpp:141] Setting up inception_5b/relu_5x5_reduce
I0403 02:30:38.584949 25319 net.cpp:148] Top shape: 24 48 7 7 (56448)
I0403 02:30:38.584965 25319 net.cpp:156] Memory required for data: 1334725056
I0403 02:30:38.584982 25319 layer_factory.hpp:77] Creating layer inception_5b/5x5
I0403 02:30:38.585013 25319 net.cpp:91] Creating Layer inception_5b/5x5
I0403 02:30:38.585041 25319 net.cpp:425] inception_5b/5x5 <- inception_5b/5x5_reduce
I0403 02:30:38.585078 25319 net.cpp:399] inception_5b/5x5 -> inception_5b/5x5
I0403 02:30:38.586419 25319 net.cpp:141] Setting up inception_5b/5x5
I0403 02:30:38.586452 25319 net.cpp:148] Top shape: 24 128 7 7 (150528)
I0403 02:30:38.586510 25319 net.cpp:156] Memory required for data: 1335327168
I0403 02:30:38.586534 25319 layer_factory.hpp:77] Creating layer inception_5b/relu_5x5
I0403 02:30:38.586555 25319 net.cpp:91] Creating Layer inception_5b/relu_5x5
I0403 02:30:38.586576 25319 net.cpp:425] inception_5b/relu_5x5 <- inception_5b/5x5
I0403 02:30:38.586597 25319 net.cpp:386] inception_5b/relu_5x5 -> inception_5b/5x5 (in-place)
I0403 02:30:38.586621 25319 net.cpp:141] Setting up inception_5b/relu_5x5
I0403 02:30:38.586640 25319 net.cpp:148] Top shape: 24 128 7 7 (150528)
I0403 02:30:38.586657 25319 net.cpp:156] Memory required for data: 1335929280
I0403 02:30:38.586674 25319 layer_factory.hpp:77] Creating layer inception_5b/pool
I0403 02:30:38.586696 25319 net.cpp:91] Creating Layer inception_5b/pool
I0403 02:30:38.586736 25319 net.cpp:425] inception_5b/pool <- inception_5a/output_inception_5a/output_0_split_3
I0403 02:30:38.586763 25319 net.cpp:399] inception_5b/pool -> inception_5b/pool
I0403 02:30:38.586830 25319 net.cpp:141] Setting up inception_5b/pool
I0403 02:30:38.586859 25319 net.cpp:148] Top shape: 24 832 7 7 (978432)
I0403 02:30:38.586876 25319 net.cpp:156] Memory required for data: 1339843008
I0403 02:30:38.586895 25319 layer_factory.hpp:77] Creating layer inception_5b/pool_proj
I0403 02:30:38.586926 25319 net.cpp:91] Creating Layer inception_5b/pool_proj
I0403 02:30:38.586948 25319 net.cpp:425] inception_5b/pool_proj <- inception_5b/pool
I0403 02:30:38.586971 25319 net.cpp:399] inception_5b/pool_proj -> inception_5b/pool_proj
I0403 02:30:38.588603 25319 net.cpp:141] Setting up inception_5b/pool_proj
I0403 02:30:38.588639 25319 net.cpp:148] Top shape: 24 128 7 7 (150528)
I0403 02:30:38.588657 25319 net.cpp:156] Memory required for data: 1340445120
I0403 02:30:38.588680 25319 layer_factory.hpp:77] Creating layer inception_5b/relu_pool_proj
I0403 02:30:38.588703 25319 net.cpp:91] Creating Layer inception_5b/relu_pool_proj
I0403 02:30:38.588724 25319 net.cpp:425] inception_5b/relu_pool_proj <- inception_5b/pool_proj
I0403 02:30:38.588745 25319 net.cpp:386] inception_5b/relu_pool_proj -> inception_5b/pool_proj (in-place)
I0403 02:30:38.588768 25319 net.cpp:141] Setting up inception_5b/relu_pool_proj
I0403 02:30:38.588789 25319 net.cpp:148] Top shape: 24 128 7 7 (150528)
I0403 02:30:38.588806 25319 net.cpp:156] Memory required for data: 1341047232
I0403 02:30:38.588824 25319 layer_factory.hpp:77] Creating layer inception_5b/output
I0403 02:30:38.588848 25319 net.cpp:91] Creating Layer inception_5b/output
I0403 02:30:38.588870 25319 net.cpp:425] inception_5b/output <- inception_5b/1x1
I0403 02:30:38.588888 25319 net.cpp:425] inception_5b/output <- inception_5b/3x3
I0403 02:30:38.588907 25319 net.cpp:425] inception_5b/output <- inception_5b/5x5
I0403 02:30:38.588925 25319 net.cpp:425] inception_5b/output <- inception_5b/pool_proj
I0403 02:30:38.588946 25319 net.cpp:399] inception_5b/output -> inception_5b/output
I0403 02:30:38.588997 25319 net.cpp:141] Setting up inception_5b/output
I0403 02:30:38.589025 25319 net.cpp:148] Top shape: 24 1024 7 7 (1204224)
I0403 02:30:38.589042 25319 net.cpp:156] Memory required for data: 1345864128
I0403 02:30:38.589059 25319 layer_factory.hpp:77] Creating layer pool5/7x7_s1
I0403 02:30:38.589081 25319 net.cpp:91] Creating Layer pool5/7x7_s1
I0403 02:30:38.589123 25319 net.cpp:425] pool5/7x7_s1 <- inception_5b/output
I0403 02:30:38.589169 25319 net.cpp:399] pool5/7x7_s1 -> pool5/7x7_s1
I0403 02:30:38.589237 25319 net.cpp:141] Setting up pool5/7x7_s1
I0403 02:30:38.589288 25319 net.cpp:148] Top shape: 24 1024 1 1 (24576)
I0403 02:30:38.589323 25319 net.cpp:156] Memory required for data: 1345962432
I0403 02:30:38.589378 25319 layer_factory.hpp:77] Creating layer pool5/drop_7x7_s1
I0403 02:30:38.589418 25319 net.cpp:91] Creating Layer pool5/drop_7x7_s1
I0403 02:30:38.589460 25319 net.cpp:425] pool5/drop_7x7_s1 <- pool5/7x7_s1
I0403 02:30:38.589504 25319 net.cpp:386] pool5/drop_7x7_s1 -> pool5/7x7_s1 (in-place)
I0403 02:30:38.589578 25319 net.cpp:141] Setting up pool5/drop_7x7_s1
I0403 02:30:38.589617 25319 net.cpp:148] Top shape: 24 1024 1 1 (24576)
I0403 02:30:38.589643 25319 net.cpp:156] Memory required for data: 1346060736
I0403 02:30:38.589681 25319 layer_factory.hpp:77] Creating layer loss3/classifier_plantvillage
I0403 02:30:38.589748 25319 net.cpp:91] Creating Layer loss3/classifier_plantvillage
I0403 02:30:38.589824 25319 net.cpp:425] loss3/classifier_plantvillage <- pool5/7x7_s1
I0403 02:30:38.589854 25319 net.cpp:399] loss3/classifier_plantvillage -> loss3/classifier_plantvillage
I0403 02:30:38.590291 25319 net.cpp:141] Setting up loss3/classifier_plantvillage
I0403 02:30:38.590324 25319 net.cpp:148] Top shape: 24 38 (912)
I0403 02:30:38.590344 25319 net.cpp:156] Memory required for data: 1346064384
I0403 02:30:38.590399 25319 layer_factory.hpp:77] Creating layer loss3/classifier_plantvillage_loss3/classifier_plantvillage_0_split
I0403 02:30:38.590443 25319 net.cpp:91] Creating Layer loss3/classifier_plantvillage_loss3/classifier_plantvillage_0_split
I0403 02:30:38.590464 25319 net.cpp:425] loss3/classifier_plantvillage_loss3/classifier_plantvillage_0_split <- loss3/classifier_plantvillage
I0403 02:30:38.590505 25319 net.cpp:399] loss3/classifier_plantvillage_loss3/classifier_plantvillage_0_split -> loss3/classifier_plantvillage_loss3/classifier_plantvillage_0_split_0
I0403 02:30:38.590559 25319 net.cpp:399] loss3/classifier_plantvillage_loss3/classifier_plantvillage_0_split -> loss3/classifier_plantvillage_loss3/classifier_plantvillage_0_split_1
I0403 02:30:38.590590 25319 net.cpp:399] loss3/classifier_plantvillage_loss3/classifier_plantvillage_0_split -> loss3/classifier_plantvillage_loss3/classifier_plantvillage_0_split_2
I0403 02:30:38.590688 25319 net.cpp:141] Setting up loss3/classifier_plantvillage_loss3/classifier_plantvillage_0_split
I0403 02:30:38.590724 25319 net.cpp:148] Top shape: 24 38 (912)
I0403 02:30:38.590745 25319 net.cpp:148] Top shape: 24 38 (912)
I0403 02:30:38.590798 25319 net.cpp:148] Top shape: 24 38 (912)
I0403 02:30:38.590816 25319 net.cpp:156] Memory required for data: 1346075328
I0403 02:30:38.590833 25319 layer_factory.hpp:77] Creating layer loss1/loss
I0403 02:30:38.590855 25319 net.cpp:91] Creating Layer loss1/loss
I0403 02:30:38.590874 25319 net.cpp:425] loss1/loss <- loss1/classifier_plantvillage_loss1/classifier_plantvillage_0_split_0
I0403 02:30:38.590893 25319 net.cpp:425] loss1/loss <- label_data_1_split_0
…
