…
I0403 09:49:07.526792  6831 net.cpp:313] The NetState phase (0) differed from the phase (1) specified by a rule in layer loss3/top-5
I0403 09:49:07.530604  6831 net.cpp:49] Initializing net from parameters: 
state {
  phase: TRAIN
}
layer {
  name: "data"
  type: "Data"
  top: "data"
  top: "label"
  include {
    phase: TRAIN
  }
  transform_param {
    mirror: true
    crop_size: 224
    mean_file: "/home/mohanty/data/final_dataset/lmdb/segmented-20-80/mean.binaryproto"
  }
  data_param {
    source: "/home/mohanty/data/final_dataset/lmdb/segmented-20-80/train_db"
    batch_size: 24
    backend: LMDB
  }
}
layer {
  name: "conv1/7x7_s2"
  type: "Convolution"
  bottom: "data"
  top: "conv1/7x7_s2"
  param {
    lr_mult: 1
    decay_mult: 1
  }
  param {
    lr_mult: 2
    decay_mult: 0
  }
  convolution_param {
    num_output: 64
    pad: 3
    kernel_size: 7
    stride: 2
    weight_filler {
      type: "xavier"
      std: 0.1
    }
    bias_filler {
      type: "constant"
      value: 0.2
    }
  }
}
layer {
  name: "conv1/relu_7x7"
  type: "ReLU"
  bottom: "conv1/7x7_s2"
  top: "conv1/7x7_s2"
}
layer {
  name: "pool1/3x3_s2"
  type: "Pooling"
  bottom: "conv1/7x7_s2"
  top: "pool1/3x3_s2"
  pooling_param {
    pool: MAX
    kernel_size: 3
    stride: 2
  }
}
layer {
  name: "pool1/norm1"
  type: "LRN"
  bottom: "pool1/3x3_s2"
  top: "pool1/norm1"
  lrn_param {
    local_size: 5
    alpha: 0.0001
    beta: 0.75
  }
}
layer {
  name: "conv2/3x3_reduce"
  type: "Convolution"
  bottom: "pool1/norm1"
  top: "conv2/3x3_reduce"
  param {
    lr_mult: 1
    decay_mult: 1
  }
  param {
    lr_mult: 2
    decay_mult: 0
  }
  convolution_param {
    num_output: 64
    kernel_size: 1
    weight_filler {
      type: "xavier"
      std: 0.1
    }
    bias_filler {
      type: "constant"
      value: 0.2
    }
  }
}
layer {
  name: "conv2/relu_3x3_reduce"
  type: "ReLU"
  bottom: "conv2/3x3_reduce"
  top: "conv2/3x3_reduce"
}
layer {
  name: "conv2/3x3"
  type: "Convolution"
  bottom: "conv2/3x3_reduce"
  top: "conv2/3x3"
  param {
    lr_mult: 1
    decay_mult: 1
  }
  param {
    lr_mult: 2
    decay_mult: 0
  }
  convolution_param {
    num_output: 192
    pad: 1
    kernel_size: 3
    weight_filler {
      type: "xavier"
      std: 0.03
    }
    bias_filler {
      type: "constant"
      value: 0.2
    }
  }
}
layer {
  name: "conv2/relu_3x3"
  type: "ReLU"
  bottom: "conv2/3x3"
  top: "conv2/3x3"
}
layer {
  name: "conv2/norm2"
  type: "LRN"
  bottom: "conv2/3x3"
  top: "conv2/norm2"
  lrn_param {
    local_size: 5
    alpha: 0.0001
    beta: 0.75
  }
}
layer {
  name: "pool2/3x3_s2"
  type: "Pooling"
  bottom: "conv2/norm2"
  top: "pool2/3x3_s2"
  pooling_param {
    pool: MAX
    kernel_size: 3
    stride: 2
  }
}
layer {
  name: "inception_3a/1x1"
  type: "Convolution"
  bottom: "pool2/3x3_s2"
  top: "inception_3a/1x1"
  param {
    lr_mult: 1
    decay_mult: 1
  }
  param {
    lr_mult: 2
    decay_mult: 0
  }
  convolution_param {
    num_output: 64
    kernel_size: 1
    weight_filler {
      type: "xavier"
      std: 0.03
    }
    bias_filler {
      type: "constant"
      value: 0.2
    }
  }
}
layer {
  name: "inception_3a/relu_1x1"
  type: "ReLU"
  bottom: "inception_3a/1x1"
  top: "inception_3a/1x1"
}
layer {
  name: "inception_3a/3x3_reduce"
  type: "Convolution"
  bottom: "pool2/3x3_s2"
  top: "inception_3a/3x3_reduce"
  param {
    lr_mult: 1
    decay_mult: 1
  }
  param {
    lr_mult: 2
    decay_mult: 0
  }
  convolution_param {
    num_output: 96
    kernel_size: 1
    weight_filler {
      type: "xavier"
      std: 0.09
    }
    bias_filler {
      type: "constant"
      value: 0.2
    }
  }
}
layer {
  name: "inception_3a/relu_3x3_reduce"
  type: "ReLU"
  bottom: "inception_3a/3x3_reduce"
  top: "inception_3a/3x3_reduce"
}
layer {
  name: "inception_3a/3x3"
  type: "Convolution"
  bottom: "inception_3a/3x3_reduce"
  top: "inception_3a/3x3"
  param {
    lr_mult: 1
    decay_mult: 1
  }
  param {
    lr_mult: 2
    decay_mult: 0
  }
  convolution_param {
    num_output: 128
    pad: 1
    kernel_size: 3
    weight_filler {
      type: "xavier"
      std: 0.03
    }
    bias_filler {
      type: "constant"
      value: 0.2
    }
  }
}
layer {
  name: "inception_3a/relu_3x3"
  type: "ReLU"
  bottom: "inception_3a/3x3"
  top: "inception_3a/3x3"
}
layer {
  name: "inception_3a/5x5_reduce"
  type: "Convolution"
  bottom: "pool2/3x3_s2"
  top: "inception_3a/5x5_reduce"
  param {
    lr_mult: 1
    decay_mult: 1
  }
  param {
    lr_mult: 2
    decay_mult: 0
  }
  convolution_param {
    num_output: 16
    kernel_size: 1
    weight_filler {
      type: "xavier"
      std: 0.2
    }
    bias_filler {
      type: "constant"
      value: 0.2
    }
  }
}
layer {
  name: "inception_3a/relu_5x5_reduce"
  type: "ReLU"
  bottom: "inception_3a/5x5_reduce"
  top: "inception_3a/5x5_reduce"
}
layer {
  name: "inception_3a/5x5"
  type: "Convolution"
  bottom: "inception_3a/5x5_reduce"
  top: "inception_3a/5x5"
  param {
    lr_mult: 1
    decay_mult: 1
  }
  param {
    lr_mult: 2
    decay_mult: 0
  }
  convolution_param {
    num_output: 32
    pad: 2
    kernel_size: 5
    weight_filler {
      type: "xavier"
      std: 0.03
    }
    bias_filler {
      type: "constant"
      value: 0.2
    }
  }
}
layer {
  name: "inception_3a/relu_5x5"
  type: "ReLU"
  bottom: "inception_3a/5x5"
  top: "inception_3a/5x5"
}
layer {
  name: "inception_3a/pool"
  type: "Pooling"
  bottom: "pool2/3x3_s2"
  top: "inception_3a/pool"
  pooling_param {
    pool: MAX
    kernel_size: 3
    stride: 1
    pad: 1
  }
}
layer {
  name: "inception_3a/pool_proj"
  type: "Convolution"
  bottom: "inception_3a/pool"
  top: "inception_3a/pool_proj"
  param {
    lr_mult: 1
    decay_mult: 1
  }
  param {
    lr_mult: 2
    decay_mult: 0
  }
  convolution_param {
    num_output: 32
    kernel_size: 1
    weight_filler {
      type: "xavier"
      std: 0.1
    }
    bias_filler {
      type: "constant"
      value: 0.2
    }
  }
}
layer {
  name: "inception_3a/relu_pool_proj"
  type: "ReLU"
  bottom: "inception_3a/pool_proj"
  top: "inception_3a/pool_proj"
}
layer {
  name: "inception_3a/output"
  type: "Concat"
  bottom: "inception_3a/1x1"
  bottom: "inception_3a/3x3"
  bottom: "inception_3a/5x5"
  bottom: "inception_3a/pool_proj"
  top: "inception_3a/output"
}
layer {
  name: "inception_3b/1x1"
  type: "Convolution"
  bottom: "inception_3a/output"
  top: "inception_3b/1x1"
  param {
    lr_mult: 1
    decay_mult: 1
  }
  param {
    lr_mult: 2
    decay_mult: 0
  }
  convolution_param {
    num_output: 128
    kernel_size: 1
    weight_filler {
      type: "xavier"
      std: 0.03
    }
    bias_filler {
      type: "constant"
      value: 0.2
    }
  }
}
layer {
  name: "inception_3b/relu_1x1"
  type: "ReLU"
  bottom: "inception_3b/1x1"
  top: "inception_3b/1x1"
}
layer {
  name: "inception_3b/3x3_reduce"
  type: "Convolution"
  bottom: "inception_3a/output"
  top: "inception_3b/3x3_reduce"
  param {
    lr_mult: 1
    decay_mult: 1
  }
  param {
    lr_mult: 2
    decay_mult: 0
  }
  convolution_param {
    num_output: 128
    kernel_size: 1
    weight_filler {
      type: "xavier"
      std: 0.09
    }
    bias_filler {
      type: "constant"
      value: 0.2
    }
  }
}
layer {
  name: "inception_3b/relu_3x3_reduce"
  type: "ReLU"
  bottom: "inception_3b/3x3_reduce"
  top: "inception_3b/3x3_reduce"
}
layer {
  name: "inception_3b/3x3"
  type: "Convolution"
  bottom: "inception_3b/3x3_reduce"
  top: "inception_3b/3x3"
  param {
    lr_mult: 1
    decay_mult: 1
  }
  param {
    lr_mult: 2
    decay_mult: 0
  }
  convolution_param {
    num_output: 192
    pad: 1
    kernel_size: 3
    weight_filler {
      type: "xavier"
      std: 0.03
    }
    bias_filler {
      type: "constant"
      value: 0.2
    }
  }
}
layer {
  name: "inception_3b/relu_3x3"
  type: "ReLU"
  bottom: "inception_3b/3x3"
  top: "inception_3b/3x3"
}
layer {
  name: "inception_3b/5x5_reduce"
  type: "Convolution"
  bottom: "inception_3a/output"
  top: "inception_3b/5x5_reduce"
  param {
    lr_mult: 1
    decay_mult: 1
  }
  param {
    lr_mult: 2
    decay_mult: 0
  }
  convolution_param {
    num_output: 32
    kernel_size: 1
    weight_filler {
      type: "xavier"
      std: 0.2
    }
    bias_filler {
      type: "constant"
      value: 0.2
    }
  }
}
layer {
  name: "inception_3b/relu_5x5_reduce"
  type: "ReLU"
  bottom: "inception_3b/5x5_reduce"
  top: "inception_3b/5x5_reduce"
}
layer {
  name: "inception_3b/5x5"
  type: "Convolution"
  bottom: "inception_3b/5x5_reduce"
  top: "inception_3b/5x5"
  param {
    lr_mult: 1
    decay_mult: 1
  }
  param {
    lr_mult: 2
    decay_mult: 0
  }
  convolution_param {
    num_output: 96
    pad: 2
    kernel_size: 5
    weight_filler {
      type: "xavier"
      std: 0.03
    }
    bias_filler {
      type: "constant"
      value: 0.2
    }
  }
}
layer {
  name: "inception_3b/relu_5x5"
  type: "ReLU"
  bottom: "inception_3b/5x5"
  top: "inception_3b/5x5"
}
layer {
  name: "inception_3b/pool"
  type: "Pooling"
  bottom: "inception_3a/output"
  top: "inception_3b/pool"
  pooling_param {
    pool: MAX
    kernel_size: 3
    stride: 1
    pad: 1
  }
}
layer {
  name: "inception_3b/pool_proj"
  type: "Convolution"
  bottom: "inception_3b/pool"
  top: "inception_3b/pool_proj"
  param {
    lr_mult: 1
    decay_mult: 1
  }
  param {
    lr_mult: 2
    decay_mult: 0
  }
  convolution_param {
    num_output: 64
    kernel_size: 1
    weight_filler {
      type: "xavier"
      std: 0.1
    }
    bias_filler {
      type: "constant"
      value: 0.2
    }
  }
}
layer {
  name: "inception_3b/relu_pool_proj"
  type: "ReLU"
  bottom: "inception_3b/pool_proj"
  top: "inception_3b/pool_proj"
}
layer {
  name: "inception_3b/output"
  type: "Concat"
  bottom: "inception_3b/1x1"
  bottom: "inception_3b/3x3"
  bottom: "inception_3b/5x5"
  bottom: "inception_3b/pool_proj"
  top: "inception_3b/output"
}
layer {
  name: "pool3/3x3_s2"
  type: "Pooling"
  bottom: "inception_3b/output"
  top: "pool3/3x3_s2"
  pooling_param {
    pool: MAX
    kernel_size: 3
    stride: 2
  }
}
layer {
  name: "inception_4a/1x1"
  type: "Convolution"
  bottom: "pool3/3x3_s2"
  top: "inception_4a/1x1"
  param {
    lr_mult: 1
    decay_mult: 1
  }
  param {
    lr_mult: 2
    decay_mult: 0
  }
  convolution_param {
    num_output: 192
    kernel_size: 1
    weight_filler {
      type: "xavier"
      std: 0.03
    }
    bias_filler {
      type: "constant"
      value: 0.2
    }
  }
}
layer {
  name: "inception_4a/relu_1x1"
  type: "ReLU"
  bottom: "inception_4a/1x1"
  top: "inception_4a/1x1"
}
layer {
  name: "inception_4a/3x3_reduce"
  type: "Convolution"
  bottom: "pool3/3x3_s2"
  top: "inception_4a/3x3_reduce"
  param {
    lr_mult: 1
    decay_mult: 1
  }
  param {
    lr_mult: 2
    decay_mult: 0
  }
  convolution_param {
    num_output: 96
    kernel_size: 1
    weight_filler {
      type: "xavier"
      std: 0.09
    }
    bias_filler {
      type: "constant"
      value: 0.2
    }
  }
}
layer {
  name: "inception_4a/relu_3x3_reduce"
  type: "ReLU"
  bottom: "inception_4a/3x3_reduce"
  top: "inception_4a/3x3_reduce"
}
layer {
  name: "inception_4a/3x3"
  type: "Convolution"
  bottom: "inception_4a/3x3_reduce"
  top: "inception_4a/3x3"
  param {
    lr_mult: 1
    decay_mult: 1
  }
  param {
    lr_mult: 2
    decay_mult: 0
  }
  convolution_param {
    num_output: 208
    pad: 1
    kernel_size: 3
    weight_filler {
      type: "xavier"
      std: 0.03
    }
    bias_filler {
      type: "constant"
      value: 0.2
    }
  }
}
layer {
  name: "inception_4a/relu_3x3"
  type: "ReLU"
  bottom: "inception_4a/3x3"
  top: "inception_4a/3x3"
}
layer {
  name: "inception_4a/5x5_reduce"
  type: "Convolution"
  bottom: "pool3/3x3_s2"
  top: "inception_4a/5x5_reduce"
  param {
    lr_mult: 1
    decay_mult: 1
  }
  param {
    lr_mult: 2
    decay_mult: 0
  }
  convolution_param {
    num_output: 16
    kernel_size: 1
    weight_filler {
      type: "xavier"
      std: 0.2
    }
    bias_filler {
      type: "constant"
      value: 0.2
    }
  }
}
layer {
  name: "inception_4a/relu_5x5_reduce"
  type: "ReLU"
  bottom: "inception_4a/5x5_reduce"
  top: "inception_4a/5x5_reduce"
}
layer {
  name: "inception_4a/5x5"
  type: "Convolution"
  bottom: "inception_4a/5x5_reduce"
  top: "inception_4a/5x5"
  param {
    lr_mult: 1
    decay_mult: 1
  }
  param {
    lr_mult: 2
    decay_mult: 0
  }
  convolution_param {
    num_output: 48
    pad: 2
    kernel_size: 5
    weight_filler {
      type: "xavier"
      std: 0.03
    }
    bias_filler {
      type: "constant"
      value: 0.2
    }
  }
}
layer {
  name: "inception_4a/relu_5x5"
  type: "ReLU"
  bottom: "inception_4a/5x5"
  top: "inception_4a/5x5"
}
layer {
  name: "inception_4a/pool"
  type: "Pooling"
  bottom: "pool3/3x3_s2"
  top: "inception_4a/pool"
  pooling_param {
    pool: MAX
    kernel_size: 3
    stride: 1
    pad: 1
  }
}
layer {
  name: "inception_4a/pool_proj"
  type: "Convolution"
  bottom: "inception_4a/pool"
  top: "inception_4a/pool_proj"
  param {
    lr_mult: 1
    decay_mult: 1
  }
  param {
    lr_mult: 2
    decay_mult: 0
  }
  convolution_param {
    num_output: 64
    kernel_size: 1
    weight_filler {
      type: "xavier"
      std: 0.1
    }
    bias_filler {
      type: "constant"
      value: 0.2
    }
  }
}
layer {
  name: "inception_4a/relu_pool_proj"
  type: "ReLU"
  bottom: "inception_4a/pool_proj"
  top: "inception_4a/pool_proj"
}
layer {
  name: "inception_4a/output"
  type: "Concat"
  bottom: "inception_4a/1x1"
  bottom: "inception_4a/3x3"
  bottom: "inception_4a/5x5"
  bottom: "inception_4a/pool_proj"
  top: "inception_4a/output"
}
layer {
  name: "loss1/ave_pool"
  type: "Pooling"
  bottom: "inception_4a/output"
  top: "loss1/ave_pool"
  pooling_param {
    pool: AVE
    kernel_size: 5
    stride: 3
  }
}
layer {
  name: "loss1/conv"
  type: "Convolution"
  bottom: "loss1/ave_pool"
  top: "loss1/conv"
  param {
    lr_mult: 1
    decay_mult: 1
  }
  param {
    lr_mult: 2
    decay_mult: 0
  }
  convolution_param {
    num_output: 128
    kernel_size: 1
    weight_filler {
      type: "xavier"
      std: 0.08
    }
    bias_filler {
      type: "constant"
      value: 0.2
    }
  }
}
layer {
  name: "loss1/relu_conv"
  type: "ReLU"
  bottom: "loss1/conv"
  top: "loss1/conv"
}
layer {
  name: "loss1/fc"
  type: "InnerProduct"
  bottom: "loss1/conv"
  top: "loss1/fc"
  param {
    lr_mult: 1
    decay_mult: 1
  }
  param {
    lr_mult: 2
    decay_mult: 0
  }
  inner_product_param {
    num_output: 1024
    weight_filler {
      type: "xavier"
      std: 0.02
    }
    bias_filler {
      type: "constant"
      value: 0.2
    }
  }
}
layer {
  name: "loss1/relu_fc"
  type: "ReLU"
  bottom: "loss1/fc"
  top: "loss1/fc"
}
layer {
  name: "loss1/drop_fc"
  type: "Dropout"
  bottom: "loss1/fc"
  top: "loss1/fc"
  dropout_param {
    dropout_ratio: 0.7
  }
}
layer {
  name: "loss1/classifier_plantvillage"
  type: "InnerProduct"
  bottom: "loss1/fc"
  top: "loss1/classifier_plantvillage"
  param {
    lr_mult: 1
    decay_mult: 1
  }
  param {
    lr_mult: 2
    decay_mult: 0
  }
  inner_product_param {
    num_output: 38
    weight_filler {
      type: "xavier"
      std: 0.0009765625
    }
    bias_filler {
      type: "constant"
      value: 0
    }
  }
}
layer {
  name: "inception_4b/1x1"
  type: "Convolution"
  bottom: "inception_4a/output"
  top: "inception_4b/1x1"
  param {
    lr_mult: 1
    decay_mult: 1
  }
  param {
    lr_mult: 2
    decay_mult: 0
  }
  convolution_param {
    num_output: 160
    kernel_size: 1
    weight_filler {
      type: "xavier"
      std: 0.03
    }
    bias_filler {
      type: "constant"
      value: 0.2
    }
  }
}
layer {
  name: "inception_4b/relu_1x1"
  type: "ReLU"
  bottom: "inception_4b/1x1"
  top: "inception_4b/1x1"
}
layer {
  name: "inception_4b/3x3_reduce"
  type: "Convolution"
  bottom: "inception_4a/output"
  top: "inception_4b/3x3_reduce"
  param {
    lr_mult: 1
    decay_mult: 1
  }
  param {
    lr_mult: 2
    decay_mult: 0
  }
  convolution_param {
    num_output: 112
    kernel_size: 1
    weight_filler {
      type: "xavier"
      std: 0.09
    }
    bias_filler {
      type: "constant"
      value: 0.2
    }
  }
}
layer {
  name: "inception_4b/relu_3x3_reduce"
  type: "ReLU"
  bottom: "inception_4b/3x3_reduce"
  top: "inception_4b/3x3_reduce"
}
layer {
  name: "inception_4b/3x3"
  type: "Convolution"
  bottom: "inception_4b/3x3_reduce"
  top: "inception_4b/3x3"
  param {
    lr_mult: 1
    decay_mult: 1
  }
  param {
    lr_mult: 2
    decay_mult: 0
  }
  convolution_param {
    num_output: 224
    pad: 1
    kernel_size: 3
    weight_filler {
      type: "xavier"
      std: 0.03
    }
    bias_filler {
      type: "constant"
      value: 0.2
    }
  }
}
layer {
  name: "inception_4b/relu_3x3"
  type: "ReLU"
  bottom: "inception_4b/3x3"
  top: "inception_4b/3x3"
}
layer {
  name: "inception_4b/5x5_reduce"
  type: "Convolution"
  bottom: "inception_4a/output"
  top: "inception_4b/5x5_reduce"
  param {
    lr_mult: 1
    decay_mult: 1
  }
  param {
    lr_mult: 2
    decay_mult: 0
  }
  convolution_param {
    num_output: 24
    kernel_size: 1
    weight_filler {
      type: "xavier"
      std: 0.2
    }
    bias_filler {
      type: "constant"
      value: 0.2
    }
  }
}
layer {
  name: "inception_4b/relu_5x5_reduce"
  type: "ReLU"
  bottom: "inception_4b/5x5_reduce"
  top: "inception_4b/5x5_reduce"
}
layer {
  name: "inception_4b/5x5"
  type: "Convolution"
  bottom: "inception_4b/5x5_reduce"
  top: "inception_4b/5x5"
  param {
    lr_mult: 1
    decay_mult: 1
  }
  param {
    lr_mult: 2
    decay_mult: 0
  }
  convolution_param {
    num_output: 64
    pad: 2
    kernel_size: 5
    weight_filler {
      type: "xavier"
      std: 0.03
    }
    bias_filler {
      type: "constant"
      value: 0.2
    }
  }
}
layer {
  name: "inception_4b/relu_5x5"
  type: "ReLU"
  bottom: "inception_4b/5x5"
  top: "inception_4b/5x5"
}
layer {
  name: "inception_4b/pool"
  type: "Pooling"
  bottom: "inception_4a/output"
  top: "inception_4b/pool"
  pooling_param {
    pool: MAX
    kernel_size: 3
    stride: 1
    pad: 1
  }
}
layer {
  name: "inception_4b/pool_proj"
  type: "Convolution"
  bottom: "inception_4b/pool"
  top: "inception_4b/pool_proj"
  param {
    lr_mult: 1
    decay_mult: 1
  }
  param {
    lr_mult: 2
    decay_mult: 0
  }
  convolution_param {
    num_output: 64
    kernel_size: 1
    weight_filler {
      type: "xavier"
      std: 0.1
    }
    bias_filler {
      type: "constant"
      value: 0.2
    }
  }
}
layer {
  name: "inception_4b/relu_pool_proj"
  type: "ReLU"
  bottom: "inception_4b/pool_proj"
  top: "inception_4b/pool_proj"
}
layer {
  name: "inception_4b/output"
  type: "Concat"
  bottom: "inception_4b/1x1"
  bottom: "inception_4b/3x3"
  bottom: "inception_4b/5x5"
  bottom: "inception_4b/pool_proj"
  top: "inception_4b/output"
}
layer {
  name: "inception_4c/1x1"
  type: "Convolution"
  bottom: "inception_4b/output"
  top: "inception_4c/1x1"
  param {
    lr_mult: 1
    decay_mult: 1
  }
  param {
    lr_mult: 2
    decay_mult: 0
  }
  convolution_param {
    num_output: 128
    kernel_size: 1
    weight_filler {
      type: "xavier"
      std: 0.03
    }
    bias_filler {
      type: "constant"
      value: 0.2
    }
  }
}
layer {
  name: "inception_4c/relu_1x1"
  type: "ReLU"
  bottom: "inception_4c/1x1"
  top: "inception_4c/1x1"
}
layer {
  name: "inception_4c/3x3_reduce"
  type: "Convolution"
  bottom: "inception_4b/output"
  top: "inception_4c/3x3_reduce"
  param {
    lr_mult: 1
    decay_mult: 1
  }
  param {
    lr_mult: 2
    decay_mult: 0
  }
  convolution_param {
    num_output: 128
    kernel_size: 1
    weight_filler {
      type: "xavier"
      std: 0.09
    }
    bias_filler {
      type: "constant"
      value: 0.2
    }
  }
}
layer {
  name: "inception_4c/relu_3x3_reduce"
  type: "ReLU"
  bottom: "inception_4c/3x3_reduce"
  top: "inception_4c/3x3_reduce"
}
layer {
  name: "inception_4c/3x3"
  type: "Convolution"
  bottom: "inception_4c/3x3_reduce"
  top: "inception_4c/3x3"
  param {
    lr_mult: 1
    decay_mult: 1
  }
  param {
    lr_mult: 2
    decay_mult: 0
  }
  convolution_param {
    num_output: 256
    pad: 1
    kernel_size: 3
    weight_filler {
      type: "xavier"
      std: 0.03
    }
    bias_filler {
      type: "constant"
      value: 0.2
    }
  }
}
layer {
  name: "inception_4c/relu_3x3"
  type: "ReLU"
  bottom: "inception_4c/3x3"
  top: "inception_4c/3x3"
}
layer {
  name: "inception_4c/5x5_reduce"
  type: "Convolution"
  bottom: "inception_4b/output"
  top: "inception_4c/5x5_reduce"
  param {
    lr_mult: 1
    decay_mult: 1
  }
  param {
    lr_mult: 2
    decay_mult: 0
  }
  convolution_param {
    num_output: 24
    kernel_size: 1
    weight_filler {
      type: "xavier"
      std: 0.2
    }
    bias_filler {
      type: "constant"
      value: 0.2
    }
  }
}
layer {
  name: "inception_4c/relu_5x5_reduce"
  type: "ReLU"
  bottom: "inception_4c/5x5_reduce"
  top: "inception_4c/5x5_reduce"
}
layer {
  name: "inception_4c/5x5"
  type: "Convolution"
  bottom: "inception_4c/5x5_reduce"
  top: "inception_4c/5x5"
  param {
    lr_mult: 1
    decay_mult: 1
  }
  param {
    lr_mult: 2
    decay_mult: 0
  }
  convolution_param {
    num_output: 64
    pad: 2
    kernel_size: 5
    weight_filler {
      type: "xavier"
      std: 0.03
    }
    bias_filler {
      type: "constant"
      value: 0.2
    }
  }
}
layer {
  name: "inception_4c/relu_5x5"
  type: "ReLU"
  bottom: "inception_4c/5x5"
  top: "inception_4c/5x5"
}
layer {
  name: "inception_4c/pool"
  type: "Pooling"
  bottom: "inception_4b/output"
  top: "inception_4c/pool"
  pooling_param {
    pool: MAX
    kernel_size: 3
    stride: 1
    pad: 1
  }
}
layer {
  name: "inception_4c/pool_proj"
  type: "Convolution"
  bottom: "inception_4c/pool"
  top: "inception_4c/pool_proj"
  param {
    lr_mult: 1
    decay_mult: 1
  }
  param {
    lr_mult: 2
    decay_mult: 0
  }
  convolution_param {
    num_output: 64
    kernel_size: 1
    weight_filler {
      type: "xavier"
      std: 0.1
    }
    bias_filler {
      type: "constant"
      value: 0.2
    }
  }
}
layer {
  name: "inception_4c/relu_pool_proj"
  type: "ReLU"
  bottom: "inception_4c/pool_proj"
  top: "inception_4c/pool_proj"
}
layer {
  name: "inception_4c/output"
  type: "Concat"
  bottom: "inception_4c/1x1"
  bottom: "inception_4c/3x3"
  bottom: "inception_4c/5x5"
  bottom: "inception_4c/pool_proj"
  top: "inception_4c/output"
}
layer {
  name: "inception_4d/1x1"
  type: "Convolution"
  bottom: "inception_4c/output"
  top: "inception_4d/1x1"
  param {
    lr_mult: 1
    decay_mult: 1
  }
  param {
    lr_mult: 2
    decay_mult: 0
  }
  convolution_param {
    num_output: 112
    kernel_size: 1
    weight_filler {
      type: "xavier"
      std: 0.03
    }
    bias_filler {
      type: "constant"
      value: 0.2
    }
  }
}
layer {
  name: "inception_4d/relu_1x1"
  type: "ReLU"
  bottom: "inception_4d/1x1"
  top: "inception_4d/1x1"
}
layer {
  name: "inception_4d/3x3_reduce"
  type: "Convolution"
  bottom: "inception_4c/output"
  top: "inception_4d/3x3_reduce"
  param {
    lr_mult: 1
    decay_mult: 1
  }
  param {
    lr_mult: 2
    decay_mult: 0
  }
  convolution_param {
    num_output: 144
    kernel_size: 1
    weight_filler {
      type: "xavier"
      std: 0.09
    }
    bias_filler {
      type: "constant"
      value: 0.2
    }
  }
}
layer {
  name: "inception_4d/relu_3x3_reduce"
  type: "ReLU"
  bottom: "inception_4d/3x3_reduce"
  top: "inception_4d/3x3_reduce"
}
layer {
  name: "inception_4d/3x3"
  type: "Convolution"
  bottom: "inception_4d/3x3_reduce"
  top: "inception_4d/3x3"
  param {
    lr_mult: 1
    decay_mult: 1
  }
  param {
    lr_mult: 2
    decay_mult: 0
  }
  convolution_param {
    num_output: 288
    pad: 1
    kernel_size: 3
    weight_filler {
      type: "xavier"
      std: 0.03
    }
    bias_filler {
      type: "constant"
      value: 0.2
    }
  }
}
layer {
  name: "inception_4d/relu_3x3"
  type: "ReLU"
  bottom: "inception_4d/3x3"
  top: "inception_4d/3x3"
}
layer {
  name: "inception_4d/5x5_reduce"
  type: "Convolution"
  bottom: "inception_4c/output"
  top: "inception_4d/5x5_reduce"
  param {
    lr_mult: 1
    decay_mult: 1
  }
  param {
    lr_mult: 2
    decay_mult: 0
  }
  convolution_param {
    num_output: 32
    kernel_size: 1
    weight_filler {
      type: "xavier"
      std: 0.2
    }
    bias_filler {
      type: "constant"
      value: 0.2
    }
  }
}
layer {
  name: "inception_4d/relu_5x5_reduce"
  type: "ReLU"
  bottom: "inception_4d/5x5_reduce"
  top: "inception_4d/5x5_reduce"
}
layer {
  name: "inception_4d/5x5"
  type: "Convolution"
  bottom: "inception_4d/5x5_reduce"
  top: "inception_4d/5x5"
  param {
    lr_mult: 1
    decay_mult: 1
  }
  param {
    lr_mult: 2
    decay_mult: 0
  }
  convolution_param {
    num_output: 64
    pad: 2
    kernel_size: 5
    weight_filler {
      type: "xavier"
      std: 0.03
    }
    bias_filler {
      type: "constant"
      value: 0.2
    }
  }
}
layer {
  name: "inception_4d/relu_5x5"
  type: "ReLU"
  bottom: "inception_4d/5x5"
  top: "inception_4d/5x5"
}
layer {
  name: "inception_4d/pool"
  type: "Pooling"
  bottom: "inception_4c/output"
  top: "inception_4d/pool"
  pooling_param {
    pool: MAX
    kernel_size: 3
    stride: 1
    pad: 1
  }
}
layer {
  name: "inception_4d/pool_proj"
  type: "Convolution"
  bottom: "inception_4d/pool"
  top: "inception_4d/pool_proj"
  param {
    lr_mult: 1
    decay_mult: 1
  }
  param {
    lr_mult: 2
    decay_mult: 0
  }
  convolution_param {
    num_output: 64
    kernel_size: 1
    weight_filler {
      type: "xavier"
      std: 0.1
    }
    bias_filler {
      type: "constant"
      value: 0.2
    }
  }
}
layer {
  name: "inception_4d/relu_pool_proj"
  type: "ReLU"
  bottom: "inception_4d/pool_proj"
  top: "inception_4d/pool_proj"
}
layer {
  name: "inception_4d/output"
  type: "Concat"
  bottom: "inception_4d/1x1"
  bottom: "inception_4d/3x3"
  bottom: "inception_4d/5x5"
  bottom: "inception_4d/pool_proj"
  top: "inception_4d/output"
}
layer {
  name: "loss2/ave_pool"
  type: "Pooling"
  bottom: "inception_4d/output"
  top: "loss2/ave_pool"
  pooling_param {
    pool: AVE
    kernel_size: 5
    stride: 3
  }
}
layer {
  name: "loss2/conv"
  type: "Convolution"
  bottom: "loss2/ave_pool"
  top: "loss2/conv"
  param {
    lr_mult: 1
    decay_mult: 1
  }
  param {
    lr_mult: 2
    decay_mult: 0
  }
  convolution_param {
    num_output: 128
    kernel_size: 1
    weight_filler {
      type: "xavier"
      std: 0.08
    }
    bias_filler {
      type: "constant"
      value: 0.2
    }
  }
}
layer {
  name: "loss2/relu_conv"
  type: "ReLU"
  bottom: "loss2/conv"
  top: "loss2/conv"
}
layer {
  name: "loss2/fc"
  type: "InnerProduct"
  bottom: "loss2/conv"
  top: "loss2/fc"
  param {
    lr_mult: 1
    decay_mult: 1
  }
  param {
    lr_mult: 2
    decay_mult: 0
  }
  inner_product_param {
    num_output: 1024
    weight_filler {
      type: "xavier"
      std: 0.02
    }
    bias_filler {
      type: "constant"
      value: 0.2
    }
  }
}
layer {
  name: "loss2/relu_fc"
  type: "ReLU"
  bottom: "loss2/fc"
  top: "loss2/fc"
}
layer {
  name: "loss2/drop_fc"
  type: "Dropout"
  bottom: "loss2/fc"
  top: "loss2/fc"
  dropout_param {
    dropout_ratio: 0.7
  }
}
layer {
  name: "loss2/classifier_plantvillage"
  type: "InnerProduct"
  bottom: "loss2/fc"
  top: "loss2/classifier_plantvillage"
  param {
    lr_mult: 1
    decay_mult: 1
  }
  param {
    lr_mult: 2
    decay_mult: 0
  }
  inner_product_param {
    num_output: 38
    weight_filler {
      type: "xavier"
      std: 0.0009765625
    }
    bias_filler {
      type: "constant"
      value: 0
    }
  }
}
layer {
  name: "inception_4e/1x1"
  type: "Convolution"
  bottom: "inception_4d/output"
  top: "inception_4e/1x1"
  param {
    lr_mult: 1
    decay_mult: 1
  }
  param {
    lr_mult: 2
    decay_mult: 0
  }
  convolution_param {
    num_output: 256
    kernel_size: 1
    weight_filler {
      type: "xavier"
      std: 0.03
    }
    bias_filler {
      type: "constant"
      value: 0.2
    }
  }
}
layer {
  name: "inception_4e/relu_1x1"
  type: "ReLU"
  bottom: "inception_4e/1x1"
  top: "inception_4e/1x1"
}
layer {
  name: "inception_4e/3x3_reduce"
  type: "Convolution"
  bottom: "inception_4d/output"
  top: "inception_4e/3x3_reduce"
  param {
    lr_mult: 1
    decay_mult: 1
  }
  param {
    lr_mult: 2
    decay_mult: 0
  }
  convolution_param {
    num_output: 160
    kernel_size: 1
    weight_filler {
      type: "xavier"
      std: 0.09
    }
    bias_filler {
      type: "constant"
      value: 0.2
    }
  }
}
layer {
  name: "inception_4e/relu_3x3_reduce"
  type: "ReLU"
  bottom: "inception_4e/3x3_reduce"
  top: "inception_4e/3x3_reduce"
}
layer {
  name: "inception_4e/3x3"
  type: "Convolution"
  bottom: "inception_4e/3x3_reduce"
  top: "inception_4e/3x3"
  param {
    lr_mult: 1
    decay_mult: 1
  }
  param {
    lr_mult: 2
    decay_mult: 0
  }
  convolution_param {
    num_output: 320
    pad: 1
    kernel_size: 3
    weight_filler {
      type: "xavier"
      std: 0.03
    }
    bias_filler {
      type: "constant"
      value: 0.2
    }
  }
}
layer {
  name: "inception_4e/relu_3x3"
  type: "ReLU"
  bottom: "inception_4e/3x3"
  top: "inception_4e/3x3"
}
layer {
  name: "inception_4e/5x5_reduce"
  type: "Convolution"
  bottom: "inception_4d/output"
  top: "inception_4e/5x5_reduce"
  param {
    lr_mult: 1
    decay_mult: 1
  }
  param {
    lr_mult: 2
    decay_mult: 0
  }
  convolution_param {
    num_output: 32
    kernel_size: 1
    weight_filler {
      type: "xavier"
      std: 0.2
    }
    bias_filler {
      type: "constant"
      value: 0.2
    }
  }
}
layer {
  name: "inception_4e/relu_5x5_reduce"
  type: "ReLU"
  bottom: "inception_4e/5x5_reduce"
  top: "inception_4e/5x5_reduce"
}
layer {
  name: "inception_4e/5x5"
  type: "Convolution"
  bottom: "inception_4e/5x5_reduce"
  top: "inception_4
I0403 09:49:07.531924  6831 layer_factory.hpp:77] Creating layer data
I0403 09:49:07.532567  6831 net.cpp:91] Creating Layer data
I0403 09:49:07.532606  6831 net.cpp:399] data -> data
I0403 09:49:07.532670  6831 net.cpp:399] data -> label
I0403 09:49:07.532703  6831 data_transformer.cpp:25] Loading mean file from: /home/mohanty/data/final_dataset/lmdb/segmented-20-80/mean.binaryproto
I0403 09:49:07.578898  6834 db_lmdb.cpp:38] Opened lmdb /home/mohanty/data/final_dataset/lmdb/segmented-20-80/train_db
I0403 09:49:07.584627  6831 data_layer.cpp:41] output data size: 24,3,224,224
I0403 09:49:07.618172  6831 net.cpp:141] Setting up data
I0403 09:49:07.618252  6831 net.cpp:148] Top shape: 24 3 224 224 (3612672)
I0403 09:49:07.618274  6831 net.cpp:148] Top shape: 24 (24)
I0403 09:49:07.618290  6831 net.cpp:156] Memory required for data: 14450784
I0403 09:49:07.618358  6831 layer_factory.hpp:77] Creating layer label_data_1_split
I0403 09:49:07.618391  6831 net.cpp:91] Creating Layer label_data_1_split
I0403 09:49:07.618412  6831 net.cpp:425] label_data_1_split <- label
I0403 09:49:07.618443  6831 net.cpp:399] label_data_1_split -> label_data_1_split_0
I0403 09:49:07.618469  6831 net.cpp:399] label_data_1_split -> label_data_1_split_1
I0403 09:49:07.618490  6831 net.cpp:399] label_data_1_split -> label_data_1_split_2
I0403 09:49:07.618556  6831 net.cpp:141] Setting up label_data_1_split
I0403 09:49:07.618582  6831 net.cpp:148] Top shape: 24 (24)
I0403 09:49:07.618599  6831 net.cpp:148] Top shape: 24 (24)
I0403 09:49:07.618615  6831 net.cpp:148] Top shape: 24 (24)
I0403 09:49:07.618630  6831 net.cpp:156] Memory required for data: 14451072
I0403 09:49:07.618645  6831 layer_factory.hpp:77] Creating layer conv1/7x7_s2
I0403 09:49:07.618680  6831 net.cpp:91] Creating Layer conv1/7x7_s2
I0403 09:49:07.618700  6831 net.cpp:425] conv1/7x7_s2 <- data
I0403 09:49:07.618719  6831 net.cpp:399] conv1/7x7_s2 -> conv1/7x7_s2
I0403 09:49:07.619679  6831 net.cpp:141] Setting up conv1/7x7_s2
I0403 09:49:07.619709  6831 net.cpp:148] Top shape: 24 64 112 112 (19267584)
I0403 09:49:07.619726  6831 net.cpp:156] Memory required for data: 91521408
I0403 09:49:07.619762  6831 layer_factory.hpp:77] Creating layer conv1/relu_7x7
I0403 09:49:07.619789  6831 net.cpp:91] Creating Layer conv1/relu_7x7
I0403 09:49:07.619807  6831 net.cpp:425] conv1/relu_7x7 <- conv1/7x7_s2
I0403 09:49:07.619827  6831 net.cpp:386] conv1/relu_7x7 -> conv1/7x7_s2 (in-place)
I0403 09:49:07.619848  6831 net.cpp:141] Setting up conv1/relu_7x7
I0403 09:49:07.619868  6831 net.cpp:148] Top shape: 24 64 112 112 (19267584)
I0403 09:49:07.619884  6831 net.cpp:156] Memory required for data: 168591744
I0403 09:49:07.619899  6831 layer_factory.hpp:77] Creating layer pool1/3x3_s2
I0403 09:49:07.619920  6831 net.cpp:91] Creating Layer pool1/3x3_s2
I0403 09:49:07.619936  6831 net.cpp:425] pool1/3x3_s2 <- conv1/7x7_s2
I0403 09:49:07.619954  6831 net.cpp:399] pool1/3x3_s2 -> pool1/3x3_s2
I0403 09:49:07.620018  6831 net.cpp:141] Setting up pool1/3x3_s2
I0403 09:49:07.620043  6831 net.cpp:148] Top shape: 24 64 56 56 (4816896)
I0403 09:49:07.620059  6831 net.cpp:156] Memory required for data: 187859328
I0403 09:49:07.620074  6831 layer_factory.hpp:77] Creating layer pool1/norm1
I0403 09:49:07.620095  6831 net.cpp:91] Creating Layer pool1/norm1
I0403 09:49:07.620110  6831 net.cpp:425] pool1/norm1 <- pool1/3x3_s2
I0403 09:49:07.620129  6831 net.cpp:399] pool1/norm1 -> pool1/norm1
I0403 09:49:07.620182  6831 net.cpp:141] Setting up pool1/norm1
I0403 09:49:07.620206  6831 net.cpp:148] Top shape: 24 64 56 56 (4816896)
I0403 09:49:07.620223  6831 net.cpp:156] Memory required for data: 207126912
I0403 09:49:07.620237  6831 layer_factory.hpp:77] Creating layer conv2/3x3_reduce
I0403 09:49:07.620260  6831 net.cpp:91] Creating Layer conv2/3x3_reduce
I0403 09:49:07.620276  6831 net.cpp:425] conv2/3x3_reduce <- pool1/norm1
I0403 09:49:07.620306  6831 net.cpp:399] conv2/3x3_reduce -> conv2/3x3_reduce
I0403 09:49:07.622593  6831 net.cpp:141] Setting up conv2/3x3_reduce
I0403 09:49:07.622632  6831 net.cpp:148] Top shape: 24 64 56 56 (4816896)
I0403 09:49:07.622650  6831 net.cpp:156] Memory required for data: 226394496
I0403 09:49:07.622673  6831 layer_factory.hpp:77] Creating layer conv2/relu_3x3_reduce
I0403 09:49:07.622694  6831 net.cpp:91] Creating Layer conv2/relu_3x3_reduce
I0403 09:49:07.622710  6831 net.cpp:425] conv2/relu_3x3_reduce <- conv2/3x3_reduce
I0403 09:49:07.622730  6831 net.cpp:386] conv2/relu_3x3_reduce -> conv2/3x3_reduce (in-place)
I0403 09:49:07.622750  6831 net.cpp:141] Setting up conv2/relu_3x3_reduce
I0403 09:49:07.622767  6831 net.cpp:148] Top shape: 24 64 56 56 (4816896)
I0403 09:49:07.622782  6831 net.cpp:156] Memory required for data: 245662080
I0403 09:49:07.622797  6831 layer_factory.hpp:77] Creating layer conv2/3x3
I0403 09:49:07.622822  6831 net.cpp:91] Creating Layer conv2/3x3
I0403 09:49:07.622839  6831 net.cpp:425] conv2/3x3 <- conv2/3x3_reduce
I0403 09:49:07.622879  6831 net.cpp:399] conv2/3x3 -> conv2/3x3
I0403 09:49:07.624092  6836 blocking_queue.cpp:50] Waiting for data
I0403 09:49:07.624300  6831 net.cpp:141] Setting up conv2/3x3
I0403 09:49:07.624337  6831 net.cpp:148] Top shape: 24 192 56 56 (14450688)
I0403 09:49:07.624356  6831 net.cpp:156] Memory required for data: 303464832
I0403 09:49:07.624377  6831 layer_factory.hpp:77] Creating layer conv2/relu_3x3
I0403 09:49:07.624398  6831 net.cpp:91] Creating Layer conv2/relu_3x3
I0403 09:49:07.624415  6831 net.cpp:425] conv2/relu_3x3 <- conv2/3x3
I0403 09:49:07.624434  6831 net.cpp:386] conv2/relu_3x3 -> conv2/3x3 (in-place)
I0403 09:49:07.624454  6831 net.cpp:141] Setting up conv2/relu_3x3
I0403 09:49:07.624471  6831 net.cpp:148] Top shape: 24 192 56 56 (14450688)
I0403 09:49:07.624486  6831 net.cpp:156] Memory required for data: 361267584
I0403 09:49:07.624501  6831 layer_factory.hpp:77] Creating layer conv2/norm2
I0403 09:49:07.624521  6831 net.cpp:91] Creating Layer conv2/norm2
I0403 09:49:07.624536  6831 net.cpp:425] conv2/norm2 <- conv2/3x3
I0403 09:49:07.624629  6831 net.cpp:399] conv2/norm2 -> conv2/norm2
I0403 09:49:07.624682  6831 net.cpp:141] Setting up conv2/norm2
I0403 09:49:07.624706  6831 net.cpp:148] Top shape: 24 192 56 56 (14450688)
I0403 09:49:07.624722  6831 net.cpp:156] Memory required for data: 419070336
I0403 09:49:07.624735  6831 layer_factory.hpp:77] Creating layer pool2/3x3_s2
I0403 09:49:07.624845  6831 net.cpp:91] Creating Layer pool2/3x3_s2
I0403 09:49:07.624866  6831 net.cpp:425] pool2/3x3_s2 <- conv2/norm2
I0403 09:49:07.624896  6831 net.cpp:399] pool2/3x3_s2 -> pool2/3x3_s2
I0403 09:49:07.624944  6831 net.cpp:141] Setting up pool2/3x3_s2
I0403 09:49:07.624968  6831 net.cpp:148] Top shape: 24 192 28 28 (3612672)
I0403 09:49:07.624984  6831 net.cpp:156] Memory required for data: 433521024
I0403 09:49:07.625000  6831 layer_factory.hpp:77] Creating layer pool2/3x3_s2_pool2/3x3_s2_0_split
I0403 09:49:07.625018  6831 net.cpp:91] Creating Layer pool2/3x3_s2_pool2/3x3_s2_0_split
I0403 09:49:07.625035  6831 net.cpp:425] pool2/3x3_s2_pool2/3x3_s2_0_split <- pool2/3x3_s2
I0403 09:49:07.625053  6831 net.cpp:399] pool2/3x3_s2_pool2/3x3_s2_0_split -> pool2/3x3_s2_pool2/3x3_s2_0_split_0
I0403 09:49:07.625073  6831 net.cpp:399] pool2/3x3_s2_pool2/3x3_s2_0_split -> pool2/3x3_s2_pool2/3x3_s2_0_split_1
I0403 09:49:07.625094  6831 net.cpp:399] pool2/3x3_s2_pool2/3x3_s2_0_split -> pool2/3x3_s2_pool2/3x3_s2_0_split_2
I0403 09:49:07.625114  6831 net.cpp:399] pool2/3x3_s2_pool2/3x3_s2_0_split -> pool2/3x3_s2_pool2/3x3_s2_0_split_3
I0403 09:49:07.625188  6831 net.cpp:141] Setting up pool2/3x3_s2_pool2/3x3_s2_0_split
I0403 09:49:07.625211  6831 net.cpp:148] Top shape: 24 192 28 28 (3612672)
I0403 09:49:07.625226  6831 net.cpp:148] Top shape: 24 192 28 28 (3612672)
I0403 09:49:07.625242  6831 net.cpp:148] Top shape: 24 192 28 28 (3612672)
I0403 09:49:07.625258  6831 net.cpp:148] Top shape: 24 192 28 28 (3612672)
I0403 09:49:07.625272  6831 net.cpp:156] Memory required for data: 491323776
I0403 09:49:07.625286  6831 layer_factory.hpp:77] Creating layer inception_3a/1x1
I0403 09:49:07.625308  6831 net.cpp:91] Creating Layer inception_3a/1x1
I0403 09:49:07.625332  6831 net.cpp:425] inception_3a/1x1 <- pool2/3x3_s2_pool2/3x3_s2_0_split_0
I0403 09:49:07.625366  6831 net.cpp:399] inception_3a/1x1 -> inception_3a/1x1
I0403 09:49:07.626199  6831 net.cpp:141] Setting up inception_3a/1x1
I0403 09:49:07.626226  6831 net.cpp:148] Top shape: 24 64 28 28 (1204224)
I0403 09:49:07.626243  6831 net.cpp:156] Memory required for data: 496140672
I0403 09:49:07.626262  6831 layer_factory.hpp:77] Creating layer inception_3a/relu_1x1
I0403 09:49:07.626281  6831 net.cpp:91] Creating Layer inception_3a/relu_1x1
I0403 09:49:07.626297  6831 net.cpp:425] inception_3a/relu_1x1 <- inception_3a/1x1
I0403 09:49:07.626322  6831 net.cpp:386] inception_3a/relu_1x1 -> inception_3a/1x1 (in-place)
I0403 09:49:07.626356  6831 net.cpp:141] Setting up inception_3a/relu_1x1
I0403 09:49:07.626376  6831 net.cpp:148] Top shape: 24 64 28 28 (1204224)
I0403 09:49:07.626407  6831 net.cpp:156] Memory required for data: 500957568
I0403 09:49:07.626425  6831 layer_factory.hpp:77] Creating layer inception_3a/3x3_reduce
I0403 09:49:07.626451  6831 net.cpp:91] Creating Layer inception_3a/3x3_reduce
I0403 09:49:07.626469  6831 net.cpp:425] inception_3a/3x3_reduce <- pool2/3x3_s2_pool2/3x3_s2_0_split_1
I0403 09:49:07.626490  6831 net.cpp:399] inception_3a/3x3_reduce -> inception_3a/3x3_reduce
I0403 09:49:07.627377  6831 net.cpp:141] Setting up inception_3a/3x3_reduce
I0403 09:49:07.627408  6831 net.cpp:148] Top shape: 24 96 28 28 (1806336)
I0403 09:49:07.627425  6831 net.cpp:156] Memory required for data: 508182912
I0403 09:49:07.627447  6831 layer_factory.hpp:77] Creating layer inception_3a/relu_3x3_reduce
I0403 09:49:07.627470  6831 net.cpp:91] Creating Layer inception_3a/relu_3x3_reduce
I0403 09:49:07.627487  6831 net.cpp:425] inception_3a/relu_3x3_reduce <- inception_3a/3x3_reduce
I0403 09:49:07.627508  6831 net.cpp:386] inception_3a/relu_3x3_reduce -> inception_3a/3x3_reduce (in-place)
I0403 09:49:07.627529  6831 net.cpp:141] Setting up inception_3a/relu_3x3_reduce
I0403 09:49:07.627548  6831 net.cpp:148] Top shape: 24 96 28 28 (1806336)
I0403 09:49:07.627563  6831 net.cpp:156] Memory required for data: 515408256
I0403 09:49:07.627578  6831 layer_factory.hpp:77] Creating layer inception_3a/3x3
I0403 09:49:07.627602  6831 net.cpp:91] Creating Layer inception_3a/3x3
I0403 09:49:07.627634  6831 net.cpp:425] inception_3a/3x3 <- inception_3a/3x3_reduce
I0403 09:49:07.627652  6831 net.cpp:399] inception_3a/3x3 -> inception_3a/3x3
I0403 09:49:07.628531  6831 net.cpp:141] Setting up inception_3a/3x3
I0403 09:49:07.628558  6831 net.cpp:148] Top shape: 24 128 28 28 (2408448)
I0403 09:49:07.628574  6831 net.cpp:156] Memory required for data: 525042048
I0403 09:49:07.628593  6831 layer_factory.hpp:77] Creating layer inception_3a/relu_3x3
I0403 09:49:07.628615  6831 net.cpp:91] Creating Layer inception_3a/relu_3x3
I0403 09:49:07.628633  6831 net.cpp:425] inception_3a/relu_3x3 <- inception_3a/3x3
I0403 09:49:07.628653  6831 net.cpp:386] inception_3a/relu_3x3 -> inception_3a/3x3 (in-place)
I0403 09:49:07.628671  6831 net.cpp:141] Setting up inception_3a/relu_3x3
I0403 09:49:07.628689  6831 net.cpp:148] Top shape: 24 128 28 28 (2408448)
I0403 09:49:07.628703  6831 net.cpp:156] Memory required for data: 534675840
I0403 09:49:07.628718  6831 layer_factory.hpp:77] Creating layer inception_3a/5x5_reduce
I0403 09:49:07.628742  6831 net.cpp:91] Creating Layer inception_3a/5x5_reduce
I0403 09:49:07.628761  6831 net.cpp:425] inception_3a/5x5_reduce <- pool2/3x3_s2_pool2/3x3_s2_0_split_2
I0403 09:49:07.628783  6831 net.cpp:399] inception_3a/5x5_reduce -> inception_3a/5x5_reduce
I0403 09:49:07.629019  6831 net.cpp:141] Setting up inception_3a/5x5_reduce
I0403 09:49:07.629045  6831 net.cpp:148] Top shape: 24 16 28 28 (301056)
I0403 09:49:07.629060  6831 net.cpp:156] Memory required for data: 535880064
I0403 09:49:07.629078  6831 layer_factory.hpp:77] Creating layer inception_3a/relu_5x5_reduce
I0403 09:49:07.629097  6831 net.cpp:91] Creating Layer inception_3a/relu_5x5_reduce
I0403 09:49:07.629114  6831 net.cpp:425] inception_3a/relu_5x5_reduce <- inception_3a/5x5_reduce
I0403 09:49:07.629132  6831 net.cpp:386] inception_3a/relu_5x5_reduce -> inception_3a/5x5_reduce (in-place)
I0403 09:49:07.629158  6831 net.cpp:141] Setting up inception_3a/relu_5x5_reduce
I0403 09:49:07.629176  6831 net.cpp:148] Top shape: 24 16 28 28 (301056)
I0403 09:49:07.629192  6831 net.cpp:156] Memory required for data: 537084288
I0403 09:49:07.629207  6831 layer_factory.hpp:77] Creating layer inception_3a/5x5
I0403 09:49:07.629232  6831 net.cpp:91] Creating Layer inception_3a/5x5
I0403 09:49:07.629251  6831 net.cpp:425] inception_3a/5x5 <- inception_3a/5x5_reduce
I0403 09:49:07.629271  6831 net.cpp:399] inception_3a/5x5 -> inception_3a/5x5
I0403 09:49:07.629559  6831 net.cpp:141] Setting up inception_3a/5x5
I0403 09:49:07.629585  6831 net.cpp:148] Top shape: 24 32 28 28 (602112)
I0403 09:49:07.629616  6831 net.cpp:156] Memory required for data: 539492736
I0403 09:49:07.629637  6831 layer_factory.hpp:77] Creating layer inception_3a/relu_5x5
I0403 09:49:07.629655  6831 net.cpp:91] Creating Layer inception_3a/relu_5x5
I0403 09:49:07.629672  6831 net.cpp:425] inception_3a/relu_5x5 <- inception_3a/5x5
I0403 09:49:07.629693  6831 net.cpp:386] inception_3a/relu_5x5 -> inception_3a/5x5 (in-place)
I0403 09:49:07.629714  6831 net.cpp:141] Setting up inception_3a/relu_5x5
I0403 09:49:07.629732  6831 net.cpp:148] Top shape: 24 32 28 28 (602112)
I0403 09:49:07.629747  6831 net.cpp:156] Memory required for data: 541901184
I0403 09:49:07.629762  6831 layer_factory.hpp:77] Creating layer inception_3a/pool
I0403 09:49:07.629781  6831 net.cpp:91] Creating Layer inception_3a/pool
I0403 09:49:07.629796  6831 net.cpp:425] inception_3a/pool <- pool2/3x3_s2_pool2/3x3_s2_0_split_3
I0403 09:49:07.629815  6831 net.cpp:399] inception_3a/pool -> inception_3a/pool
I0403 09:49:07.629868  6831 net.cpp:141] Setting up inception_3a/pool
I0403 09:49:07.629891  6831 net.cpp:148] Top shape: 24 192 28 28 (3612672)
I0403 09:49:07.629907  6831 net.cpp:156] Memory required for data: 556351872
I0403 09:49:07.629922  6831 layer_factory.hpp:77] Creating layer inception_3a/pool_proj
I0403 09:49:07.629946  6831 net.cpp:91] Creating Layer inception_3a/pool_proj
I0403 09:49:07.629964  6831 net.cpp:425] inception_3a/pool_proj <- inception_3a/pool
I0403 09:49:07.629987  6831 net.cpp:399] inception_3a/pool_proj -> inception_3a/pool_proj
I0403 09:49:07.630230  6831 net.cpp:141] Setting up inception_3a/pool_proj
I0403 09:49:07.630256  6831 net.cpp:148] Top shape: 24 32 28 28 (602112)
I0403 09:49:07.630271  6831 net.cpp:156] Memory required for data: 558760320
I0403 09:49:07.630295  6831 layer_factory.hpp:77] Creating layer inception_3a/relu_pool_proj
I0403 09:49:07.630323  6831 net.cpp:91] Creating Layer inception_3a/relu_pool_proj
I0403 09:49:07.630345  6831 net.cpp:425] inception_3a/relu_pool_proj <- inception_3a/pool_proj
I0403 09:49:07.630364  6831 net.cpp:386] inception_3a/relu_pool_proj -> inception_3a/pool_proj (in-place)
I0403 09:49:07.630385  6831 net.cpp:141] Setting up inception_3a/relu_pool_proj
I0403 09:49:07.630403  6831 net.cpp:148] Top shape: 24 32 28 28 (602112)
I0403 09:49:07.630417  6831 net.cpp:156] Memory required for data: 561168768
I0403 09:49:07.630432  6831 layer_factory.hpp:77] Creating layer inception_3a/output
I0403 09:49:07.630450  6831 net.cpp:91] Creating Layer inception_3a/output
I0403 09:49:07.630466  6831 net.cpp:425] inception_3a/output <- inception_3a/1x1
I0403 09:49:07.630482  6831 net.cpp:425] inception_3a/output <- inception_3a/3x3
I0403 09:49:07.630498  6831 net.cpp:425] inception_3a/output <- inception_3a/5x5
I0403 09:49:07.630514  6831 net.cpp:425] inception_3a/output <- inception_3a/pool_proj
I0403 09:49:07.630532  6831 net.cpp:399] inception_3a/output -> inception_3a/output
I0403 09:49:07.630578  6831 net.cpp:141] Setting up inception_3a/output
I0403 09:49:07.630602  6831 net.cpp:148] Top shape: 24 256 28 28 (4816896)
I0403 09:49:07.630619  6831 net.cpp:156] Memory required for data: 580436352
I0403 09:49:07.630632  6831 layer_factory.hpp:77] Creating layer inception_3a/output_inception_3a/output_0_split
I0403 09:49:07.630650  6831 net.cpp:91] Creating Layer inception_3a/output_inception_3a/output_0_split
I0403 09:49:07.630666  6831 net.cpp:425] inception_3a/output_inception_3a/output_0_split <- inception_3a/output
I0403 09:49:07.630689  6831 net.cpp:399] inception_3a/output_inception_3a/output_0_split -> inception_3a/output_inception_3a/output_0_split_0
I0403 09:49:07.630712  6831 net.cpp:399] inception_3a/output_inception_3a/output_0_split -> inception_3a/output_inception_3a/output_0_split_1
I0403 09:49:07.630733  6831 net.cpp:399] inception_3a/output_inception_3a/output_0_split -> inception_3a/output_inception_3a/output_0_split_2
I0403 09:49:07.630753  6831 net.cpp:399] inception_3a/output_inception_3a/output_0_split -> inception_3a/output_inception_3a/output_0_split_3
I0403 09:49:07.630820  6831 net.cpp:141] Setting up inception_3a/output_inception_3a/output_0_split
I0403 09:49:07.630856  6831 net.cpp:148] Top shape: 24 256 28 28 (4816896)
I0403 09:49:07.630873  6831 net.cpp:148] Top shape: 24 256 28 28 (4816896)
I0403 09:49:07.630890  6831 net.cpp:148] Top shape: 24 256 28 28 (4816896)
I0403 09:49:07.630906  6831 net.cpp:148] Top shape: 24 256 28 28 (4816896)
I0403 09:49:07.630921  6831 net.cpp:156] Memory required for data: 657506688
I0403 09:49:07.630936  6831 layer_factory.hpp:77] Creating layer inception_3b/1x1
I0403 09:49:07.630959  6831 net.cpp:91] Creating Layer inception_3b/1x1
I0403 09:49:07.630977  6831 net.cpp:425] inception_3b/1x1 <- inception_3a/output_inception_3a/output_0_split_0
I0403 09:49:07.630997  6831 net.cpp:399] inception_3b/1x1 -> inception_3b/1x1
I0403 09:49:07.631402  6831 net.cpp:141] Setting up inception_3b/1x1
I0403 09:49:07.631429  6831 net.cpp:148] Top shape: 24 128 28 28 (2408448)
I0403 09:49:07.631444  6831 net.cpp:156] Memory required for data: 667140480
I0403 09:49:07.631463  6831 layer_factory.hpp:77] Creating layer inception_3b/relu_1x1
I0403 09:49:07.631481  6831 net.cpp:91] Creating Layer inception_3b/relu_1x1
I0403 09:49:07.631499  6831 net.cpp:425] inception_3b/relu_1x1 <- inception_3b/1x1
I0403 09:49:07.631520  6831 net.cpp:386] inception_3b/relu_1x1 -> inception_3b/1x1 (in-place)
I0403 09:49:07.631539  6831 net.cpp:141] Setting up inception_3b/relu_1x1
I0403 09:49:07.631558  6831 net.cpp:148] Top shape: 24 128 28 28 (2408448)
I0403 09:49:07.631572  6831 net.cpp:156] Memory required for data: 676774272
I0403 09:49:07.631587  6831 layer_factory.hpp:77] Creating layer inception_3b/3x3_reduce
I0403 09:49:07.631611  6831 net.cpp:91] Creating Layer inception_3b/3x3_reduce
I0403 09:49:07.631629  6831 net.cpp:425] inception_3b/3x3_reduce <- inception_3a/output_inception_3a/output_0_split_1
I0403 09:49:07.631650  6831 net.cpp:399] inception_3b/3x3_reduce -> inception_3b/3x3_reduce
I0403 09:49:07.632050  6831 net.cpp:141] Setting up inception_3b/3x3_reduce
I0403 09:49:07.632076  6831 net.cpp:148] Top shape: 24 128 28 28 (2408448)
I0403 09:49:07.632091  6831 net.cpp:156] Memory required for data: 686408064
I0403 09:49:07.632110  6831 layer_factory.hpp:77] Creating layer inception_3b/relu_3x3_reduce
I0403 09:49:07.632129  6831 net.cpp:91] Creating Layer inception_3b/relu_3x3_reduce
I0403 09:49:07.632146  6831 net.cpp:425] inception_3b/relu_3x3_reduce <- inception_3b/3x3_reduce
I0403 09:49:07.632164  6831 net.cpp:386] inception_3b/relu_3x3_reduce -> inception_3b/3x3_reduce (in-place)
I0403 09:49:07.632184  6831 net.cpp:141] Setting up inception_3b/relu_3x3_reduce
I0403 09:49:07.632201  6831 net.cpp:148] Top shape: 24 128 28 28 (2408448)
I0403 09:49:07.632216  6831 net.cpp:156] Memory required for data: 696041856
I0403 09:49:07.632231  6831 layer_factory.hpp:77] Creating layer inception_3b/3x3
I0403 09:49:07.632258  6831 net.cpp:91] Creating Layer inception_3b/3x3
I0403 09:49:07.632277  6831 net.cpp:425] inception_3b/3x3 <- inception_3b/3x3_reduce
I0403 09:49:07.632297  6831 net.cpp:399] inception_3b/3x3 -> inception_3b/3x3
I0403 09:49:07.634357  6831 net.cpp:141] Setting up inception_3b/3x3
I0403 09:49:07.634387  6831 net.cpp:148] Top shape: 24 192 28 28 (3612672)
I0403 09:49:07.634403  6831 net.cpp:156] Memory required for data: 710492544
I0403 09:49:07.634423  6831 layer_factory.hpp:77] Creating layer inception_3b/relu_3x3
I0403 09:49:07.634443  6831 net.cpp:91] Creating Layer inception_3b/relu_3x3
I0403 09:49:07.634459  6831 net.cpp:425] inception_3b/relu_3x3 <- inception_3b/3x3
I0403 09:49:07.634480  6831 net.cpp:386] inception_3b/relu_3x3 -> inception_3b/3x3 (in-place)
I0403 09:49:07.634501  6831 net.cpp:141] Setting up inception_3b/relu_3x3
I0403 09:49:07.634519  6831 net.cpp:148] Top shape: 24 192 28 28 (3612672)
I0403 09:49:07.634534  6831 net.cpp:156] Memory required for data: 724943232
I0403 09:49:07.634551  6831 layer_factory.hpp:77] Creating layer inception_3b/5x5_reduce
I0403 09:49:07.634572  6831 net.cpp:91] Creating Layer inception_3b/5x5_reduce
I0403 09:49:07.634588  6831 net.cpp:425] inception_3b/5x5_reduce <- inception_3a/output_inception_3a/output_0_split_2
I0403 09:49:07.634627  6831 net.cpp:399] inception_3b/5x5_reduce -> inception_3b/5x5_reduce
I0403 09:49:07.634897  6831 net.cpp:141] Setting up inception_3b/5x5_reduce
I0403 09:49:07.634924  6831 net.cpp:148] Top shape: 24 32 28 28 (602112)
I0403 09:49:07.634939  6831 net.cpp:156] Memory required for data: 727351680
I0403 09:49:07.634958  6831 layer_factory.hpp:77] Creating layer inception_3b/relu_5x5_reduce
I0403 09:49:07.634977  6831 net.cpp:91] Creating Layer inception_3b/relu_5x5_reduce
I0403 09:49:07.634994  6831 net.cpp:425] inception_3b/relu_5x5_reduce <- inception_3b/5x5_reduce
I0403 09:49:07.635015  6831 net.cpp:386] inception_3b/relu_5x5_reduce -> inception_3b/5x5_reduce (in-place)
I0403 09:49:07.635035  6831 net.cpp:141] Setting up inception_3b/relu_5x5_reduce
I0403 09:49:07.635053  6831 net.cpp:148] Top shape: 24 32 28 28 (602112)
I0403 09:49:07.635068  6831 net.cpp:156] Memory required for data: 729760128
I0403 09:49:07.635084  6831 layer_factory.hpp:77] Creating layer inception_3b/5x5
I0403 09:49:07.635108  6831 net.cpp:91] Creating Layer inception_3b/5x5
I0403 09:49:07.635126  6831 net.cpp:425] inception_3b/5x5 <- inception_3b/5x5_reduce
I0403 09:49:07.635146  6831 net.cpp:399] inception_3b/5x5 -> inception_3b/5x5
I0403 09:49:07.636373  6831 net.cpp:141] Setting up inception_3b/5x5
I0403 09:49:07.636402  6831 net.cpp:148] Top shape: 24 96 28 28 (1806336)
I0403 09:49:07.636418  6831 net.cpp:156] Memory required for data: 736985472
I0403 09:49:07.636436  6831 layer_factory.hpp:77] Creating layer inception_3b/relu_5x5
I0403 09:49:07.636459  6831 net.cpp:91] Creating Layer inception_3b/relu_5x5
I0403 09:49:07.636477  6831 net.cpp:425] inception_3b/relu_5x5 <- inception_3b/5x5
I0403 09:49:07.636497  6831 net.cpp:386] inception_3b/relu_5x5 -> inception_3b/5x5 (in-place)
I0403 09:49:07.636517  6831 net.cpp:141] Setting up inception_3b/relu_5x5
I0403 09:49:07.636534  6831 net.cpp:148] Top shape: 24 96 28 28 (1806336)
I0403 09:49:07.636549  6831 net.cpp:156] Memory required for data: 744210816
I0403 09:49:07.636564  6831 layer_factory.hpp:77] Creating layer inception_3b/pool
I0403 09:49:07.636585  6831 net.cpp:91] Creating Layer inception_3b/pool
I0403 09:49:07.636603  6831 net.cpp:425] inception_3b/pool <- inception_3a/output_inception_3a/output_0_split_3
I0403 09:49:07.636622  6831 net.cpp:399] inception_3b/pool -> inception_3b/pool
I0403 09:49:07.636672  6831 net.cpp:141] Setting up inception_3b/pool
I0403 09:49:07.636698  6831 net.cpp:148] Top shape: 24 256 28 28 (4816896)
I0403 09:49:07.636715  6831 net.cpp:156] Memory required for data: 763478400
I0403 09:49:07.636730  6831 layer_factory.hpp:77] Creating layer inception_3b/pool_proj
I0403 09:49:07.636752  6831 net.cpp:91] Creating Layer inception_3b/pool_proj
I0403 09:49:07.636770  6831 net.cpp:425] inception_3b/pool_proj <- inception_3b/pool
I0403 09:49:07.636792  6831 net.cpp:399] inception_3b/pool_proj -> inception_3b/pool_proj
I0403 09:49:07.637106  6831 net.cpp:141] Setting up inception_3b/pool_proj
I0403 09:49:07.637131  6831 net.cpp:148] Top shape: 24 64 28 28 (1204224)
I0403 09:49:07.637147  6831 net.cpp:156] Memory required for data: 768295296
I0403 09:49:07.637166  6831 layer_factory.hpp:77] Creating layer inception_3b/relu_pool_proj
I0403 09:49:07.637184  6831 net.cpp:91] Creating Layer inception_3b/relu_pool_proj
I0403 09:49:07.637202  6831 net.cpp:425] inception_3b/relu_pool_proj <- inception_3b/pool_proj
I0403 09:49:07.637223  6831 net.cpp:386] inception_3b/relu_pool_proj -> inception_3b/pool_proj (in-place)
I0403 09:49:07.637245  6831 net.cpp:141] Setting up inception_3b/relu_pool_proj
I0403 09:49:07.637264  6831 net.cpp:148] Top shape: 24 64 28 28 (1204224)
I0403 09:49:07.637279  6831 net.cpp:156] Memory required for data: 773112192
I0403 09:49:07.637293  6831 layer_factory.hpp:77] Creating layer inception_3b/output
I0403 09:49:07.637311  6831 net.cpp:91] Creating Layer inception_3b/output
I0403 09:49:07.637334  6831 net.cpp:425] inception_3b/output <- inception_3b/1x1
I0403 09:49:07.637368  6831 net.cpp:425] inception_3b/output <- inception_3b/3x3
I0403 09:49:07.637387  6831 net.cpp:425] inception_3b/output <- inception_3b/5x5
I0403 09:49:07.637404  6831 net.cpp:425] inception_3b/output <- inception_3b/pool_proj
I0403 09:49:07.637423  6831 net.cpp:399] inception_3b/output -> inception_3b/output
I0403 09:49:07.637465  6831 net.cpp:141] Setting up inception_3b/output
I0403 09:49:07.637487  6831 net.cpp:148] Top shape: 24 480 28 28 (9031680)
I0403 09:49:07.637503  6831 net.cpp:156] Memory required for data: 809238912
I0403 09:49:07.637518  6831 layer_factory.hpp:77] Creating layer pool3/3x3_s2
I0403 09:49:07.637537  6831 net.cpp:91] Creating Layer pool3/3x3_s2
I0403 09:49:07.637553  6831 net.cpp:425] pool3/3x3_s2 <- inception_3b/output
I0403 09:49:07.637574  6831 net.cpp:399] pool3/3x3_s2 -> pool3/3x3_s2
I0403 09:49:07.637625  6831 net.cpp:141] Setting up pool3/3x3_s2
I0403 09:49:07.637650  6831 net.cpp:148] Top shape: 24 480 14 14 (2257920)
I0403 09:49:07.637665  6831 net.cpp:156] Memory required for data: 818270592
I0403 09:49:07.637679  6831 layer_factory.hpp:77] Creating layer pool3/3x3_s2_pool3/3x3_s2_0_split
I0403 09:49:07.637701  6831 net.cpp:91] Creating Layer pool3/3x3_s2_pool3/3x3_s2_0_split
I0403 09:49:07.637719  6831 net.cpp:425] pool3/3x3_s2_pool3/3x3_s2_0_split <- pool3/3x3_s2
I0403 09:49:07.637740  6831 net.cpp:399] pool3/3x3_s2_pool3/3x3_s2_0_split -> pool3/3x3_s2_pool3/3x3_s2_0_split_0
I0403 09:49:07.637761  6831 net.cpp:399] pool3/3x3_s2_pool3/3x3_s2_0_split -> pool3/3x3_s2_pool3/3x3_s2_0_split_1
I0403 09:49:07.637783  6831 net.cpp:399] pool3/3x3_s2_pool3/3x3_s2_0_split -> pool3/3x3_s2_pool3/3x3_s2_0_split_2
I0403 09:49:07.637802  6831 net.cpp:399] pool3/3x3_s2_pool3/3x3_s2_0_split -> pool3/3x3_s2_pool3/3x3_s2_0_split_3
I0403 09:49:07.637867  6831 net.cpp:141] Setting up pool3/3x3_s2_pool3/3x3_s2_0_split
I0403 09:49:07.637893  6831 net.cpp:148] Top shape: 24 480 14 14 (2257920)
I0403 09:49:07.637912  6831 net.cpp:148] Top shape: 24 480 14 14 (2257920)
I0403 09:49:07.637929  6831 net.cpp:148] Top shape: 24 480 14 14 (2257920)
I0403 09:49:07.637945  6831 net.cpp:148] Top shape: 24 480 14 14 (2257920)
I0403 09:49:07.637959  6831 net.cpp:156] Memory required for data: 854397312
I0403 09:49:07.637974  6831 layer_factory.hpp:77] Creating layer inception_4a/1x1
I0403 09:49:07.637996  6831 net.cpp:91] Creating Layer inception_4a/1x1
I0403 09:49:07.638015  6831 net.cpp:425] inception_4a/1x1 <- pool3/3x3_s2_pool3/3x3_s2_0_split_0
I0403 09:49:07.638036  6831 net.cpp:399] inception_4a/1x1 -> inception_4a/1x1
I0403 09:49:07.638787  6831 net.cpp:141] Setting up inception_4a/1x1
I0403 09:49:07.638813  6831 net.cpp:148] Top shape: 24 192 14 14 (903168)
I0403 09:49:07.638828  6831 net.cpp:156] Memory required for data: 858009984
I0403 09:49:07.638847  6831 layer_factory.hpp:77] Creating layer inception_4a/relu_1x1
I0403 09:49:07.638866  6831 net.cpp:91] Creating Layer inception_4a/relu_1x1
I0403 09:49:07.638882  6831 net.cpp:425] inception_4a/relu_1x1 <- inception_4a/1x1
I0403 09:49:07.638900  6831 net.cpp:386] inception_4a/relu_1x1 -> inception_4a/1x1 (in-place)
I0403 09:49:07.638919  6831 net.cpp:141] Setting up inception_4a/relu_1x1
I0403 09:49:07.638936  6831 net.cpp:148] Top shape: 24 192 14 14 (903168)
I0403 09:49:07.638952  6831 net.cpp:156] Memory required for data: 861622656
I0403 09:49:07.638967  6831 layer_factory.hpp:77] Creating layer inception_4a/3x3_reduce
I0403 09:49:07.638989  6831 net.cpp:91] Creating Layer inception_4a/3x3_reduce
I0403 09:49:07.639008  6831 net.cpp:425] inception_4a/3x3_reduce <- pool3/3x3_s2_pool3/3x3_s2_0_split_1
I0403 09:49:07.639031  6831 net.cpp:399] inception_4a/3x3_reduce -> inception_4a/3x3_reduce
I0403 09:49:07.639526  6831 net.cpp:141] Setting up inception_4a/3x3_reduce
I0403 09:49:07.639554  6831 net.cpp:148] Top shape: 24 96 14 14 (451584)
I0403 09:49:07.639569  6831 net.cpp:156] Memory required for data: 863428992
I0403 09:49:07.639595  6831 layer_factory.hpp:77] Creating layer inception_4a/relu_3x3_reduce
I0403 09:49:07.639628  6831 net.cpp:91] Creating Layer inception_4a/relu_3x3_reduce
I0403 09:49:07.639647  6831 net.cpp:425] inception_4a/relu_3x3_reduce <- inception_4a/3x3_reduce
I0403 09:49:07.639665  6831 net.cpp:386] inception_4a/relu_3x3_reduce -> inception_4a/3x3_reduce (in-place)
I0403 09:49:07.639684  6831 net.cpp:141] Setting up inception_4a/relu_3x3_reduce
I0403 09:49:07.639703  6831 net.cpp:148] Top shape: 24 96 14 14 (451584)
I0403 09:49:07.639717  6831 net.cpp:156] Memory required for data: 865235328
I0403 09:49:07.639734  6831 layer_factory.hpp:77] Creating layer inception_4a/3x3
I0403 09:49:07.639757  6831 net.cpp:91] Creating Layer inception_4a/3x3
I0403 09:49:07.639775  6831 net.cpp:425] inception_4a/3x3 <- inception_4a/3x3_reduce
I0403 09:49:07.639797  6831 net.cpp:399] inception_4a/3x3 -> inception_4a/3x3
I0403 09:49:07.641618  6831 net.cpp:141] Setting up inception_4a/3x3
I0403 09:49:07.641647  6831 net.cpp:148] Top shape: 24 208 14 14 (978432)
I0403 09:49:07.641664  6831 net.cpp:156] Memory required for data: 869149056
I0403 09:49:07.641682  6831 layer_factory.hpp:77] Creating layer inception_4a/relu_3x3
I0403 09:49:07.641701  6831 net.cpp:91] Creating Layer inception_4a/relu_3x3
I0403 09:49:07.641719  6831 net.cpp:425] inception_4a/relu_3x3 <- inception_4a/3x3
I0403 09:49:07.641737  6831 net.cpp:386] inception_4a/relu_3x3 -> inception_4a/3x3 (in-place)
I0403 09:49:07.641757  6831 net.cpp:141] Setting up inception_4a/relu_3x3
I0403 09:49:07.641775  6831 net.cpp:148] Top shape: 24 208 14 14 (978432)
I0403 09:49:07.641790  6831 net.cpp:156] Memory required for data: 873062784
I0403 09:49:07.641805  6831 layer_factory.hpp:77] Creating layer inception_4a/5x5_reduce
I0403 09:49:07.641829  6831 net.cpp:91] Creating Layer inception_4a/5x5_reduce
I0403 09:49:07.641847  6831 net.cpp:425] inception_4a/5x5_reduce <- pool3/3x3_s2_pool3/3x3_s2_0_split_2
I0403 09:49:07.641870  6831 net.cpp:399] inception_4a/5x5_reduce -> inception_4a/5x5_reduce
I0403 09:49:07.642132  6831 net.cpp:141] Setting up inception_4a/5x5_reduce
I0403 09:49:07.642158  6831 net.cpp:148] Top shape: 24 16 14 14 (75264)
I0403 09:49:07.642174  6831 net.cpp:156] Memory required for data: 873363840
I0403 09:49:07.642191  6831 layer_factory.hpp:77] Creating layer inception_4a/relu_5x5_reduce
I0403 09:49:07.642212  6831 net.cpp:91] Creating Layer inception_4a/relu_5x5_reduce
I0403 09:49:07.642230  6831 net.cpp:425] inception_4a/relu_5x5_reduce <- inception_4a/5x5_reduce
I0403 09:49:07.642249  6831 net.cpp:386] inception_4a/relu_5x5_reduce -> inception_4a/5x5_reduce (in-place)
I0403 09:49:07.642268  6831 net.cpp:141] Setting up inception_4a/relu_5x5_reduce
I0403 09:49:07.642285  6831 net.cpp:148] Top shape: 24 16 14 14 (75264)
I0403 09:49:07.642300  6831 net.cpp:156] Memory required for data: 873664896
I0403 09:49:07.642315  6831 layer_factory.hpp:77] Creating layer inception_4a/5x5
I0403 09:49:07.642356  6831 net.cpp:91] Creating Layer inception_4a/5x5
I0403 09:49:07.642375  6831 net.cpp:425] inception_4a/5x5 <- inception_4a/5x5_reduce
I0403 09:49:07.642397  6831 net.cpp:399] inception_4a/5x5 -> inception_4a/5x5
I0403 09:49:07.642727  6831 net.cpp:141] Setting up inception_4a/5x5
I0403 09:49:07.642753  6831 net.cpp:148] Top shape: 24 48 14 14 (225792)
I0403 09:49:07.642768  6831 net.cpp:156] Memory required for data: 874568064
I0403 09:49:07.642787  6831 layer_factory.hpp:77] Creating layer inception_4a/relu_5x5
I0403 09:49:07.642807  6831 net.cpp:91] Creating Layer inception_4a/relu_5x5
I0403 09:49:07.642823  6831 net.cpp:425] inception_4a/relu_5x5 <- inception_4a/5x5
I0403 09:49:07.642841  6831 net.cpp:386] inception_4a/relu_5x5 -> inception_4a/5x5 (in-place)
I0403 09:49:07.642860  6831 net.cpp:141] Setting up inception_4a/relu_5x5
I0403 09:49:07.642879  6831 net.cpp:148] Top shape: 24 48 14 14 (225792)
I0403 09:49:07.642894  6831 net.cpp:156] Memory required for data: 875471232
I0403 09:49:07.642909  6831 layer_factory.hpp:77] Creating layer inception_4a/pool
I0403 09:49:07.642930  6831 net.cpp:91] Creating Layer inception_4a/pool
I0403 09:49:07.642947  6831 net.cpp:425] inception_4a/pool <- pool3/3x3_s2_pool3/3x3_s2_0_split_3
I0403 09:49:07.642982  6831 net.cpp:399] inception_4a/pool -> inception_4a/pool
I0403 09:49:07.643041  6831 net.cpp:141] Setting up inception_4a/pool
I0403 09:49:07.643065  6831 net.cpp:148] Top shape: 24 480 14 14 (2257920)
I0403 09:49:07.643081  6831 net.cpp:156] Memory required for data: 884502912
I0403 09:49:07.643096  6831 layer_factory.hpp:77] Creating layer inception_4a/pool_proj
I0403 09:49:07.643121  6831 net.cpp:91] Creating Layer inception_4a/pool_proj
I0403 09:49:07.643138  6831 net.cpp:425] inception_4a/pool_proj <- inception_4a/pool
I0403 09:49:07.643158  6831 net.cpp:399] inception_4a/pool_proj -> inception_4a/pool_proj
I0403 09:49:07.643558  6831 net.cpp:141] Setting up inception_4a/pool_proj
I0403 09:49:07.643587  6831 net.cpp:148] Top shape: 24 64 14 14 (301056)
I0403 09:49:07.643605  6831 net.cpp:156] Memory required for data: 885707136
I0403 09:49:07.643623  6831 layer_factory.hpp:77] Creating layer inception_4a/relu_pool_proj
I0403 09:49:07.643642  6831 net.cpp:91] Creating Layer inception_4a/relu_pool_proj
I0403 09:49:07.643659  6831 net.cpp:425] inception_4a/relu_pool_proj <- inception_4a/pool_proj
I0403 09:49:07.643677  6831 net.cpp:386] inception_4a/relu_pool_proj -> inception_4a/pool_proj (in-place)
I0403 09:49:07.643697  6831 net.cpp:141] Setting up inception_4a/relu_pool_proj
I0403 09:49:07.643715  6831 net.cpp:148] Top shape: 24 64 14 14 (301056)
I0403 09:49:07.643731  6831 net.cpp:156] Memory required for data: 886911360
I0403 09:49:07.643745  6831 layer_factory.hpp:77] Creating layer inception_4a/output
I0403 09:49:07.643764  6831 net.cpp:91] Creating Layer inception_4a/output
I0403 09:49:07.643779  6831 net.cpp:425] inception_4a/output <- inception_4a/1x1
I0403 09:49:07.643795  6831 net.cpp:425] inception_4a/output <- inception_4a/3x3
I0403 09:49:07.643812  6831 net.cpp:425] inception_4a/output <- inception_4a/5x5
I0403 09:49:07.643829  6831 net.cpp:425] inception_4a/output <- inception_4a/pool_proj
I0403 09:49:07.643849  6831 net.cpp:399] inception_4a/output -> inception_4a/output
I0403 09:49:07.643887  6831 net.cpp:141] Setting up inception_4a/output
I0403 09:49:07.643914  6831 net.cpp:148] Top shape: 24 512 14 14 (2408448)
I0403 09:49:07.643931  6831 net.cpp:156] Memory required for data: 896545152
I0403 09:49:07.643946  6831 layer_factory.hpp:77] Creating layer inception_4a/output_inception_4a/output_0_split
I0403 09:49:07.643965  6831 net.cpp:91] Creating Layer inception_4a/output_inception_4a/output_0_split
I0403 09:49:07.643980  6831 net.cpp:425] inception_4a/output_inception_4a/output_0_split <- inception_4a/output
I0403 09:49:07.643999  6831 net.cpp:399] inception_4a/output_inception_4a/output_0_split -> inception_4a/output_inception_4a/output_0_split_0
I0403 09:49:07.644021  6831 net.cpp:399] inception_4a/output_inception_4a/output_0_split -> inception_4a/output_inception_4a/output_0_split_1
I0403 09:49:07.644042  6831 net.cpp:399] inception_4a/output_inception_4a/output_0_split -> inception_4a/output_inception_4a/output_0_split_2
I0403 09:49:07.644064  6831 net.cpp:399] inception_4a/output_inception_4a/output_0_split -> inception_4a/output_inception_4a/output_0_split_3
I0403 09:49:07.644086  6831 net.cpp:399] inception_4a/output_inception_4a/output_0_split -> inception_4a/output_inception_4a/output_0_split_4
I0403 09:49:07.644165  6831 net.cpp:141] Setting up inception_4a/output_inception_4a/output_0_split
I0403 09:49:07.644189  6831 net.cpp:148] Top shape: 24 512 14 14 (2408448)
I0403 09:49:07.644207  6831 net.cpp:148] Top shape: 24 512 14 14 (2408448)
I0403 09:49:07.644222  6831 net.cpp:148] Top shape: 24 512 14 14 (2408448)
I0403 09:49:07.644238  6831 net.cpp:148] Top shape: 24 512 14 14 (2408448)
I0403 09:49:07.644254  6831 net.cpp:148] Top shape: 24 512 14 14 (2408448)
I0403 09:49:07.644269  6831 net.cpp:156] Memory required for data: 944714112
I0403 09:49:07.644284  6831 layer_factory.hpp:77] Creating layer loss1/ave_pool
I0403 09:49:07.644304  6831 net.cpp:91] Creating Layer loss1/ave_pool
I0403 09:49:07.644342  6831 net.cpp:425] loss1/ave_pool <- inception_4a/output_inception_4a/output_0_split_0
I0403 09:49:07.644362  6831 net.cpp:399] loss1/ave_pool -> loss1/ave_pool
I0403 09:49:07.644403  6831 net.cpp:141] Setting up loss1/ave_pool
I0403 09:49:07.644428  6831 net.cpp:148] Top shape: 24 512 4 4 (196608)
I0403 09:49:07.644443  6831 net.cpp:156] Memory required for data: 945500544
I0403 09:49:07.644459  6831 layer_factory.hpp:77] Creating layer loss1/conv
I0403 09:49:07.644481  6831 net.cpp:91] Creating Layer loss1/conv
I0403 09:49:07.644500  6831 net.cpp:425] loss1/conv <- loss1/ave_pool
I0403 09:49:07.644520  6831 net.cpp:399] loss1/conv -> loss1/conv
I0403 09:49:07.645105  6831 net.cpp:141] Setting up loss1/conv
I0403 09:49:07.645133  6831 net.cpp:148] Top shape: 24 128 4 4 (49152)
I0403 09:49:07.645148  6831 net.cpp:156] Memory required for data: 945697152
I0403 09:49:07.645166  6831 layer_factory.hpp:77] Creating layer loss1/relu_conv
I0403 09:49:07.645185  6831 net.cpp:91] Creating Layer loss1/relu_conv
I0403 09:49:07.645201  6831 net.cpp:425] loss1/relu_conv <- loss1/conv
I0403 09:49:07.645223  6831 net.cpp:386] loss1/relu_conv -> loss1/conv (in-place)
I0403 09:49:07.645244  6831 net.cpp:141] Setting up loss1/relu_conv
I0403 09:49:07.645262  6831 net.cpp:148] Top shape: 24 128 4 4 (49152)
I0403 09:49:07.645277  6831 net.cpp:156] Memory required for data: 945893760
I0403 09:49:07.645292  6831 layer_factory.hpp:77] Creating layer loss1/fc
I0403 09:49:07.645315  6831 net.cpp:91] Creating Layer loss1/fc
I0403 09:49:07.645339  6831 net.cpp:425] loss1/fc <- loss1/conv
I0403 09:49:07.645364  6831 net.cpp:399] loss1/fc -> loss1/fc
I0403 09:49:07.662302  6831 net.cpp:141] Setting up loss1/fc
I0403 09:49:07.662359  6831 net.cpp:148] Top shape: 24 1024 (24576)
I0403 09:49:07.662379  6831 net.cpp:156] Memory required for data: 945992064
I0403 09:49:07.662398  6831 layer_factory.hpp:77] Creating layer loss1/relu_fc
I0403 09:49:07.662422  6831 net.cpp:91] Creating Layer loss1/relu_fc
I0403 09:49:07.662441  6831 net.cpp:425] loss1/relu_fc <- loss1/fc
I0403 09:49:07.662461  6831 net.cpp:386] loss1/relu_fc -> loss1/fc (in-place)
I0403 09:49:07.662480  6831 net.cpp:141] Setting up loss1/relu_fc
I0403 09:49:07.662497  6831 net.cpp:148] Top shape: 24 1024 (24576)
I0403 09:49:07.662513  6831 net.cpp:156] Memory required for data: 946090368
I0403 09:49:07.662528  6831 layer_factory.hpp:77] Creating layer loss1/drop_fc
I0403 09:49:07.662559  6831 net.cpp:91] Creating Layer loss1/drop_fc
I0403 09:49:07.662578  6831 net.cpp:425] loss1/drop_fc <- loss1/fc
I0403 09:49:07.662602  6831 net.cpp:386] loss1/drop_fc -> loss1/fc (in-place)
I0403 09:49:07.662652  6831 net.cpp:141] Setting up loss1/drop_fc
I0403 09:49:07.662674  6831 net.cpp:148] Top shape: 24 1024 (24576)
I0403 09:49:07.662690  6831 net.cpp:156] Memory required for data: 946188672
I0403 09:49:07.662706  6831 layer_factory.hpp:77] Creating layer loss1/classifier_plantvillage
I0403 09:49:07.662730  6831 net.cpp:91] Creating Layer loss1/classifier_plantvillage
I0403 09:49:07.662749  6831 net.cpp:425] loss1/classifier_plantvillage <- loss1/fc
I0403 09:49:07.662767  6831 net.cpp:399] loss1/classifier_plantvillage -> loss1/classifier_plantvillage
I0403 09:49:07.663656  6831 net.cpp:141] Setting up loss1/classifier_plantvillage
I0403 09:49:07.663687  6831 net.cpp:148] Top shape: 24 38 (912)
I0403 09:49:07.663703  6831 net.cpp:156] Memory required for data: 946192320
I0403 09:49:07.663723  6831 layer_factory.hpp:77] Creating layer inception_4b/1x1
I0403 09:49:07.663746  6831 net.cpp:91] Creating Layer inception_4b/1x1
I0403 09:49:07.663766  6831 net.cpp:425] inception_4b/1x1 <- inception_4a/output_inception_4a/output_0_split_1
I0403 09:49:07.663789  6831 net.cpp:399] inception_4b/1x1 -> inception_4b/1x1
I0403 09:49:07.664500  6831 net.cpp:141] Setting up inception_4b/1x1
I0403 09:49:07.664527  6831 net.cpp:148] Top shape: 24 160 14 14 (752640)
I0403 09:49:07.664543  6831 net.cpp:156] Memory required for data: 949202880
I0403 09:49:07.664561  6831 layer_factory.hpp:77] Creating layer inception_4b/relu_1x1
I0403 09:49:07.664602  6831 net.cpp:91] Creating Layer inception_4b/relu_1x1
I0403 09:49:07.664620  6831 net.cpp:425] inception_4b/relu_1x1 <- inception_4b/1x1
I0403 09:49:07.664641  6831 net.cpp:386] inception_4b/relu_1x1 -> inception_4b/1x1 (in-place)
I0403 09:49:07.664664  6831 net.cpp:141] Setting up inception_4b/relu_1x1
I0403 09:49:07.664681  6831 net.cpp:148] Top shape: 24 160 14 14 (752640)
I0403 09:49:07.664696  6831 net.cpp:156] Memory required for data: 952213440
I0403 09:49:07.664711  6831 layer_factory.hpp:77] Creating layer inception_4b/3x3_reduce
I0403 09:49:07.664736  6831 net.cpp:91] Creating Layer inception_4b/3x3_reduce
I0403 09:49:07.664753  6831 net.cpp:425] inception_4b/3x3_reduce <- inception_4a/output_inception_4a/output_0_split_2
I0403 09:49:07.664773  6831 net.cpp:399] inception_4b/3x3_reduce -> inception_4b/3x3_reduce
I0403 09:49:07.665330  6831 net.cpp:141] Setting up inception_4b/3x3_reduce
I0403 09:49:07.665357  6831 net.cpp:148] Top shape: 24 112 14 14 (526848)
I0403 09:49:07.665374  6831 net.cpp:156] Memory required for data: 954320832
I0403 09:49:07.665391  6831 layer_factory.hpp:77] Creating layer inception_4b/relu_3x3_reduce
I0403 09:49:07.665410  6831 net.cpp:91] Creating Layer inception_4b/relu_3x3_reduce
I0403 09:49:07.665427  6831 net.cpp:425] inception_4b/relu_3x3_reduce <- inception_4b/3x3_reduce
I0403 09:49:07.665448  6831 net.cpp:386] inception_4b/relu_3x3_reduce -> inception_4b/3x3_reduce (in-place)
I0403 09:49:07.665469  6831 net.cpp:141] Setting up inception_4b/relu_3x3_reduce
I0403 09:49:07.665488  6831 net.cpp:148] Top shape: 24 112 14 14 (526848)
I0403 09:49:07.665503  6831 net.cpp:156] Memory required for data: 956428224
I0403 09:49:07.665518  6831 layer_factory.hpp:77] Creating layer inception_4b/3x3
I0403 09:49:07.665539  6831 net.cpp:91] Creating Layer inception_4b/3x3
I0403 09:49:07.665555  6831 net.cpp:425] inception_4b/3x3 <- inception_4b/3x3_reduce
I0403 09:49:07.665577  6831 net.cpp:399] inception_4b/3x3 -> inception_4b/3x3
I0403 09:49:07.667667  6831 net.cpp:141] Setting up inception_4b/3x3
I0403 09:49:07.667697  6831 net.cpp:148] Top shape: 24 224 14 14 (1053696)
I0403 09:49:07.667714  6831 net.cpp:156] Memory required for data: 960643008
I0403 09:49:07.667733  6831 layer_factory.hpp:77] Creating layer inception_4b/relu_3x3
I0403 09:49:07.667752  6831 net.cpp:91] Creating Layer inception_4b/relu_3x3
I0403 09:49:07.667768  6831 net.cpp:425] inception_4b/relu_3x3 <- inception_4b/3x3
I0403 09:49:07.667789  6831 net.cpp:386] inception_4b/relu_3x3 -> inception_4b/3x3 (in-place)
I0403 09:49:07.667810  6831 net.cpp:141] Setting up inception_4b/relu_3x3
I0403 09:49:07.667829  6831 net.cpp:148] Top shape: 24 224 14 14 (1053696)
I0403 09:49:07.667843  6831 net.cpp:156] Memory required for data: 964857792
I0403 09:49:07.667858  6831 layer_factory.hpp:77] Creating layer inception_4b/5x5_reduce
I0403 09:49:07.667879  6831 net.cpp:91] Creating Layer inception_4b/5x5_reduce
I0403 09:49:07.667897  6831 net.cpp:425] inception_4b/5x5_reduce <- inception_4a/output_inception_4a/output_0_split_3
I0403 09:49:07.667920  6831 net.cpp:399] inception_4b/5x5_reduce -> inception_4b/5x5_reduce
I0403 09:49:07.668223  6831 net.cpp:141] Setting up inception_4b/5x5_reduce
I0403 09:49:07.668249  6831 net.cpp:148] Top shape: 24 24 14 14 (112896)
I0403 09:49:07.668264  6831 net.cpp:156] Memory required for data: 965309376
I0403 09:49:07.668282  6831 layer_factory.hpp:77] Creating layer inception_4b/relu_5x5_reduce
I0403 09:49:07.668301  6831 net.cpp:91] Creating Layer inception_4b/relu_5x5_reduce
I0403 09:49:07.668324  6831 net.cpp:425] inception_4b/relu_5x5_reduce <- inception_4b/5x5_reduce
I0403 09:49:07.668345  6831 net.cpp:386] inception_4b/relu_5x5_reduce -> inception_4b/5x5_reduce (in-place)
I0403 09:49:07.668367  6831 net.cpp:141] Setting up inception_4b/relu_5x5_reduce
I0403 09:49:07.668387  6831 net.cpp:148] Top shape: 24 24 14 14 (112896)
I0403 09:49:07.668402  6831 net.cpp:156] Memory required for data: 965760960
I0403 09:49:07.668417  6831 layer_factory.hpp:77] Creating layer inception_4b/5x5
I0403 09:49:07.668458  6831 net.cpp:91] Creating Layer inception_4b/5x5
I0403 09:49:07.668478  6831 net.cpp:425] inception_4b/5x5 <- inception_4b/5x5_reduce
I0403 09:49:07.668498  6831 net.cpp:399] inception_4b/5x5 -> inception_4b/5x5
I0403 09:49:07.668942  6831 net.cpp:141] Setting up inception_4b/5x5
I0403 09:49:07.668969  6831 net.cpp:148] Top shape: 24 64 14 14 (301056)
I0403 09:49:07.668984  6831 net.cpp:156] Memory required for data: 966965184
I0403 09:49:07.669003  6831 layer_factory.hpp:77] Creating layer inception_4b/relu_5x5
I0403 09:49:07.669021  6831 net.cpp:91] Creating Layer inception_4b/relu_5x5
I0403 09:49:07.669039  6831 net.cpp:425] inception_4b/relu_5x5 <- inception_4b/5x5
I0403 09:49:07.669064  6831 net.cpp:386] inception_4b/relu_5x5 -> inception_4b/5x5 (in-place)
I0403 09:49:07.669085  6831 net.cpp:141] Setting up inception_4b/relu_5x5
I0403 09:49:07.669102  6831 net.cpp:148] Top shape: 24 64 14 14 (301056)
I0403 09:49:07.669117  6831 net.cpp:156] Memory required for data: 968169408
I0403 09:49:07.669132  6831 layer_factory.hpp:77] Creating layer inception_4b/pool
I0403 09:49:07.669150  6831 net.cpp:91] Creating Layer inception_4b/pool
I0403 09:49:07.669167  6831 net.cpp:425] inception_4b/pool <- inception_4a/output_inception_4a/output_0_split_4
I0403 09:49:07.669184  6831 net.cpp:399] inception_4b/pool -> inception_4b/pool
I0403 09:49:07.669239  6831 net.cpp:141] Setting up inception_4b/pool
I0403 09:49:07.669263  6831 net.cpp:148] Top shape: 24 512 14 14 (2408448)
I0403 09:49:07.669280  6831 net.cpp:156] Memory required for data: 977803200
I0403 09:49:07.669294  6831 layer_factory.hpp:77] Creating layer inception_4b/pool_proj
I0403 09:49:07.669323  6831 net.cpp:91] Creating Layer inception_4b/pool_proj
I0403 09:49:07.669343  6831 net.cpp:425] inception_4b/pool_proj <- inception_4b/pool
I0403 09:49:07.669366  6831 net.cpp:399] inception_4b/pool_proj -> inception_4b/pool_proj
I0403 09:49:07.669785  6831 net.cpp:141] Setting up inception_4b/pool_proj
I0403 09:49:07.669813  6831 net.cpp:148] Top shape: 24 64 14 14 (301056)
I0403 09:49:07.669831  6831 net.cpp:156] Memory required for data: 979007424
I0403 09:49:07.669848  6831 layer_factory.hpp:77] Creating layer inception_4b/relu_pool_proj
I0403 09:49:07.669867  6831 net.cpp:91] Creating Layer inception_4b/relu_pool_proj
I0403 09:49:07.669883  6831 net.cpp:425] inception_4b/relu_pool_proj <- inception_4b/pool_proj
I0403 09:49:07.669901  6831 net.cpp:386] inception_4b/relu_pool_proj -> inception_4b/pool_proj (in-place)
I0403 09:49:07.669922  6831 net.cpp:141] Setting up inception_4b/relu_pool_proj
I0403 09:49:07.669939  6831 net.cpp:148] Top shape: 24 64 14 14 (301056)
I0403 09:49:07.669955  6831 net.cpp:156] Memory required for data: 980211648
I0403 09:49:07.669970  6831 layer_factory.hpp:77] Creating layer inception_4b/output
I0403 09:49:07.669987  6831 net.cpp:91] Creating Layer inception_4b/output
I0403 09:49:07.670003  6831 net.cpp:425] inception_4b/output <- inception_4b/1x1
I0403 09:49:07.670019  6831 net.cpp:425] inception_4b/output <- inception_4b/3x3
I0403 09:49:07.670035  6831 net.cpp:425] inception_4b/output <- inception_4b/5x5
I0403 09:49:07.670052  6831 net.cpp:425] inception_4b/output <- inception_4b/pool_proj
I0403 09:49:07.670071  6831 net.cpp:399] inception_4b/output -> inception_4b/output
I0403 09:49:07.670112  6831 net.cpp:141] Setting up inception_4b/output
I0403 09:49:07.670138  6831 net.cpp:148] Top shape: 24 512 14 14 (2408448)
I0403 09:49:07.670156  6831 net.cpp:156] Memory required for data: 989845440
I0403 09:49:07.670171  6831 layer_factory.hpp:77] Creating layer inception_4b/output_inception_4b/output_0_split
I0403 09:49:07.670189  6831 net.cpp:91] Creating Layer inception_4b/output_inception_4b/output_0_split
I0403 09:49:07.670207  6831 net.cpp:425] inception_4b/output_inception_4b/output_0_split <- inception_4b/output
I0403 09:49:07.670224  6831 net.cpp:399] inception_4b/output_inception_4b/output_0_split -> inception_4b/output_inception_4b/output_0_split_0
I0403 09:49:07.670245  6831 net.cpp:399] inception_4b/output_inception_4b/output_0_split -> inception_4b/output_inception_4b/output_0_split_1
I0403 09:49:07.670282  6831 net.cpp:399] inception_4b/output_inception_4b/output_0_split -> inception_4b/output_inception_4b/output_0_split_2
I0403 09:49:07.670307  6831 net.cpp:399] inception_4b/output_inception_4b/output_0_split -> inception_4b/output_inception_4b/output_0_split_3
I0403 09:49:07.670385  6831 net.cpp:141] Setting up inception_4b/output_inception_4b/output_0_split
I0403 09:49:07.670410  6831 net.cpp:148] Top shape: 24 512 14 14 (2408448)
I0403 09:49:07.670426  6831 net.cpp:148] Top shape: 24 512 14 14 (2408448)
I0403 09:49:07.670444  6831 net.cpp:148] Top shape: 24 512 14 14 (2408448)
I0403 09:49:07.670459  6831 net.cpp:148] Top shape: 24 512 14 14 (2408448)
I0403 09:49:07.670475  6831 net.cpp:156] Memory required for data: 1028380608
I0403 09:49:07.670490  6831 layer_factory.hpp:77] Creating layer inception_4c/1x1
I0403 09:49:07.670512  6831 net.cpp:91] Creating Layer inception_4c/1x1
I0403 09:49:07.670531  6831 net.cpp:425] inception_4c/1x1 <- inception_4b/output_inception_4b/output_0_split_0
I0403 09:49:07.670554  6831 net.cpp:399] inception_4c/1x1 -> inception_4c/1x1
I0403 09:49:07.671147  6831 net.cpp:141] Setting up inception_4c/1x1
I0403 09:49:07.671174  6831 net.cpp:148] Top shape: 24 128 14 14 (602112)
I0403 09:49:07.671188  6831 net.cpp:156] Memory required for data: 1030789056
I0403 09:49:07.671207  6831 layer_factory.hpp:77] Creating layer inception_4c/relu_1x1
I0403 09:49:07.671227  6831 net.cpp:91] Creating Layer inception_4c/relu_1x1
I0403 09:49:07.671246  6831 net.cpp:425] inception_4c/relu_1x1 <- inception_4c/1x1
I0403 09:49:07.671264  6831 net.cpp:386] inception_4c/relu_1x1 -> inception_4c/1x1 (in-place)
I0403 09:49:07.671283  6831 net.cpp:141] Setting up inception_4c/relu_1x1
I0403 09:49:07.671301  6831 net.cpp:148] Top shape: 24 128 14 14 (602112)
I0403 09:49:07.671321  6831 net.cpp:156] Memory required for data: 1033197504
I0403 09:49:07.671339  6831 layer_factory.hpp:77] Creating layer inception_4c/3x3_reduce
I0403 09:49:07.671363  6831 net.cpp:91] Creating Layer inception_4c/3x3_reduce
I0403 09:49:07.671381  6831 net.cpp:425] inception_4c/3x3_reduce <- inception_4b/output_inception_4b/output_0_split_1
I0403 09:49:07.671401  6831 net.cpp:399] inception_4c/3x3_reduce -> inception_4c/3x3_reduce
I0403 09:49:07.672570  6831 net.cpp:141] Setting up inception_4c/3x3_reduce
I0403 09:49:07.672600  6831 net.cpp:148] Top shape: 24 128 14 14 (602112)
I0403 09:49:07.672617  6831 net.cpp:156] Memory required for data: 1035605952
I0403 09:49:07.672636  6831 layer_factory.hpp:77] Creating layer inception_4c/relu_3x3_reduce
I0403 09:49:07.672654  6831 net.cpp:91] Creating Layer inception_4c/relu_3x3_reduce
I0403 09:49:07.672672  6831 net.cpp:425] inception_4c/relu_3x3_reduce <- inception_4c/3x3_reduce
I0403 09:49:07.672693  6831 net.cpp:386] inception_4c/relu_3x3_reduce -> inception_4c/3x3_reduce (in-place)
I0403 09:49:07.672714  6831 net.cpp:141] Setting up inception_4c/relu_3x3_reduce
I0403 09:49:07.672734  6831 net.cpp:148] Top shape: 24 128 14 14 (602112)
I0403 09:49:07.672749  6831 net.cpp:156] Memory required for data: 1038014400
I0403 09:49:07.672762  6831 layer_factory.hpp:77] Creating layer inception_4c/3x3
I0403 09:49:07.672787  6831 net.cpp:91] Creating Layer inception_4c/3x3
I0403 09:49:07.672806  6831 net.cpp:425] inception_4c/3x3 <- inception_4c/3x3_reduce
I0403 09:49:07.672826  6831 net.cpp:399] inception_4c/3x3 -> inception_4c/3x3
I0403 09:49:07.675379  6831 net.cpp:141] Setting up inception_4c/3x3
I0403 09:49:07.675406  6831 net.cpp:148] Top shape: 24 256 14 14 (1204224)
I0403 09:49:07.675423  6831 net.cpp:156] Memory required for data: 1042831296
I0403 09:49:07.675454  6831 layer_factory.hpp:77] Creating layer inception_4c/relu_3x3
I0403 09:49:07.675477  6831 net.cpp:91] Creating Layer inception_4c/relu_3x3
I0403 09:49:07.675493  6831 net.cpp:425] inception_4c/relu_3x3 <- inception_4c/3x3
I0403 09:49:07.675511  6831 net.cpp:386] inception_4c/relu_3x3 -> inception_4c/3x3 (in-place)
I0403 09:49:07.675547  6831 net.cpp:141] Setting up inception_4c/relu_3x3
I0403 09:49:07.675566  6831 net.cpp:148] Top shape: 24 256 14 14 (1204224)
I0403 09:49:07.675581  6831 net.cpp:156] Memory required for data: 1047648192
I0403 09:49:07.675595  6831 layer_factory.hpp:77] Creating layer inception_4c/5x5_reduce
I0403 09:49:07.675619  6831 net.cpp:91] Creating Layer inception_4c/5x5_reduce
I0403 09:49:07.675638  6831 net.cpp:425] inception_4c/5x5_reduce <- inception_4b/output_inception_4b/output_0_split_2
I0403 09:49:07.675663  6831 net.cpp:399] inception_4c/5x5_reduce -> inception_4c/5x5_reduce
I0403 09:49:07.675957  6831 net.cpp:141] Setting up inception_4c/5x5_reduce
I0403 09:49:07.675982  6831 net.cpp:148] Top shape: 24 24 14 14 (112896)
I0403 09:49:07.675997  6831 net.cpp:156] Memory required for data: 1048099776
I0403 09:49:07.676017  6831 layer_factory.hpp:77] Creating layer inception_4c/relu_5x5_reduce
I0403 09:49:07.676038  6831 net.cpp:91] Creating Layer inception_4c/relu_5x5_reduce
I0403 09:49:07.676054  6831 net.cpp:425] inception_4c/relu_5x5_reduce <- inception_4c/5x5_reduce
I0403 09:49:07.676072  6831 net.cpp:386] inception_4c/relu_5x5_reduce -> inception_4c/5x5_reduce (in-place)
I0403 09:49:07.676092  6831 net.cpp:141] Setting up inception_4c/relu_5x5_reduce
I0403 09:49:07.676110  6831 net.cpp:148] Top shape: 24 24 14 14 (112896)
I0403 09:49:07.676125  6831 net.cpp:156] Memory required for data: 1048551360
I0403 09:49:07.676138  6831 layer_factory.hpp:77] Creating layer inception_4c/5x5
I0403 09:49:07.676162  6831 net.cpp:91] Creating Layer inception_4c/5x5
I0403 09:49:07.676180  6831 net.cpp:425] inception_4c/5x5 <- inception_4c/5x5_reduce
I0403 09:49:07.676199  6831 net.cpp:399] inception_4c/5x5 -> inception_4c/5x5
I0403 09:49:07.676643  6831 net.cpp:141] Setting up inception_4c/5x5
I0403 09:49:07.676671  6831 net.cpp:148] Top shape: 24 64 14 14 (301056)
I0403 09:49:07.676688  6831 net.cpp:156] Memory required for data: 1049755584
I0403 09:49:07.676707  6831 layer_factory.hpp:77] Creating layer inception_4c/relu_5x5
I0403 09:49:07.676724  6831 net.cpp:91] Creating Layer inception_4c/relu_5x5
I0403 09:49:07.676739  6831 net.cpp:425] inception_4c/relu_5x5 <- inception_4c/5x5
I0403 09:49:07.676758  6831 net.cpp:386] inception_4c/relu_5x5 -> inception_4c/5x5 (in-place)
I0403 09:49:07.676776  6831 net.cpp:141] Setting up inception_4c/relu_5x5
I0403 09:49:07.676794  6831 net.cpp:148] Top shape: 24 64 14 14 (301056)
I0403 09:49:07.676807  6831 net.cpp:156] Memory required for data: 1050959808
I0403 09:49:07.676821  6831 layer_factory.hpp:77] Creating layer inception_4c/pool
I0403 09:49:07.676839  6831 net.cpp:91] Creating Layer inception_4c/pool
I0403 09:49:07.676856  6831 net.cpp:425] inception_4c/pool <- inception_4b/output_inception_4b/output_0_split_3
I0403 09:49:07.676875  6831 net.cpp:399] inception_4c/pool -> inception_4c/pool
I0403 09:49:07.676928  6831 net.cpp:141] Setting up inception_4c/pool
I0403 09:49:07.676964  6831 net.cpp:148] Top shape: 24 512 14 14 (2408448)
I0403 09:49:07.676978  6831 net.cpp:156] Memory required for data: 1060593600
I0403 09:49:07.676993  6831 layer_factory.hpp:77] Creating layer inception_4c/pool_proj
I0403 09:49:07.677018  6831 net.cpp:91] Creating Layer inception_4c/pool_proj
I0403 09:49:07.677037  6831 net.cpp:425] inception_4c/pool_proj <- inception_4c/pool
I0403 09:49:07.677057  6831 net.cpp:399] inception_4c/pool_proj -> inception_4c/pool_proj
I0403 09:49:07.677489  6831 net.cpp:141] Setting up inception_4c/pool_proj
I0403 09:49:07.677513  6831 net.cpp:148] Top shape: 24 64 14 14 (301056)
I0403 09:49:07.677528  6831 net.cpp:156] Memory required for data: 1061797824
I0403 09:49:07.677546  6831 layer_factory.hpp:77] Creating layer inception_4c/relu_pool_proj
I0403 09:49:07.677564  6831 net.cpp:91] Creating Layer inception_4c/relu_pool_proj
I0403 09:49:07.677580  6831 net.cpp:425] inception_4c/relu_pool_proj <- inception_4c/pool_proj
I0403 09:49:07.677602  6831 net.cpp:386] inception_4c/relu_pool_proj -> inception_4c/pool_proj (in-place)
I0403 09:49:07.677623  6831 net.cpp:141] Setting up inception_4c/relu_pool_proj
I0403 09:49:07.677654  6831 net.cpp:148] Top shape: 24 64 14 14 (301056)
I0403 09:49:07.677670  6831 net.cpp:156] Memory required for data: 1063002048
I0403 09:49:07.677685  6831 layer_factory.hpp:77] Creating layer inception_4c/output
I0403 09:49:07.677702  6831 net.cpp:91] Creating Layer inception_4c/output
I0403 09:49:07.677718  6831 net.cpp:425] inception_4c/output <- inception_4c/1x1
I0403 09:49:07.677734  6831 net.cpp:425] inception_4c/output <- inception_4c/3x3
I0403 09:49:07.677749  6831 net.cpp:425] inception_4c/output <- inception_4c/5x5
I0403 09:49:07.677765  6831 net.cpp:425] inception_4c/output <- inception_4c/pool_proj
I0403 09:49:07.677783  6831 net.cpp:399] inception_4c/output -> inception_4c/output
I0403 09:49:07.677824  6831 net.cpp:141] Setting up inception_4c/output
I0403 09:49:07.677848  6831 net.cpp:148] Top shape: 24 512 14 14 (2408448)
I0403 09:49:07.677865  6831 net.cpp:156] Memory required for data: 1072635840
I0403 09:49:07.677878  6831 layer_factory.hpp:77] Creating layer inception_4c/output_inception_4c/output_0_split
I0403 09:49:07.677898  6831 net.cpp:91] Creating Layer inception_4c/output_inception_4c/output_0_split
I0403 09:49:07.677917  6831 net.cpp:425] inception_4c/output_inception_4c/output_0_split <- inception_4c/output
I0403 09:49:07.677934  6831 net.cpp:399] inception_4c/output_inception_4c/output_0_split -> inception_4c/output_inception_4c/output_0_split_0
I0403 09:49:07.677955  6831 net.cpp:399] inception_4c/output_inception_4c/output_0_split -> inception_4c/output_inception_4c/output_0_split_1
I0403 09:49:07.677975  6831 net.cpp:399] inception_4c/output_inception_4c/output_0_split -> inception_4c/output_inception_4c/output_0_split_2
I0403 09:49:07.677996  6831 net.cpp:399] inception_4c/output_inception_4c/output_0_split -> inception_4c/output_inception_4c/output_0_split_3
I0403 09:49:07.678066  6831 net.cpp:141] Setting up inception_4c/output_inception_4c/output_0_split
I0403 09:49:07.678089  6831 net.cpp:148] Top shape: 24 512 14 14 (2408448)
I0403 09:49:07.678107  6831 net.cpp:148] Top shape: 24 512 14 14 (2408448)
I0403 09:49:07.678122  6831 net.cpp:148] Top shape: 24 512 14 14 (2408448)
I0403 09:49:07.678138  6831 net.cpp:148] Top shape: 24 512 14 14 (2408448)
I0403 09:49:07.678153  6831 net.cpp:156] Memory required for data: 1111171008
I0403 09:49:07.678166  6831 layer_factory.hpp:77] Creating layer inception_4d/1x1
I0403 09:49:07.678192  6831 net.cpp:91] Creating Layer inception_4d/1x1
I0403 09:49:07.678210  6831 net.cpp:425] inception_4d/1x1 <- inception_4c/output_inception_4c/output_0_split_0
I0403 09:49:07.678230  6831 net.cpp:399] inception_4d/1x1 -> inception_4d/1x1
I0403 09:49:07.678778  6831 net.cpp:141] Setting up inception_4d/1x1
I0403 09:49:07.678804  6831 net.cpp:148] Top shape: 24 112 14 14 (526848)
I0403 09:49:07.678819  6831 net.cpp:156] Memory required for data: 1113278400
I0403 09:49:07.678838  6831 layer_factory.hpp:77] Creating layer inception_4d/relu_1x1
I0403 09:49:07.678855  6831 net.cpp:91] Creating Layer inception_4d/relu_1x1
I0403 09:49:07.678872  6831 net.cpp:425] inception_4d/relu_1x1 <- inception_4d/1x1
I0403 09:49:07.678892  6831 net.cpp:386] inception_4d/relu_1x1 -> inception_4d/1x1 (in-place)
I0403 09:49:07.678913  6831 net.cpp:141] Setting up inception_4d/relu_1x1
I0403 09:49:07.678931  6831 net.cpp:148] Top shape: 24 112 14 14 (526848)
I0403 09:49:07.678946  6831 net.cpp:156] Memory required for data: 1115385792
I0403 09:49:07.678959  6831 layer_factory.hpp:77] Creating layer inception_4d/3x3_reduce
I0403 09:49:07.678983  6831 net.cpp:91] Creating Layer inception_4d/3x3_reduce
I0403 09:49:07.679002  6831 net.cpp:425] inception_4d/3x3_reduce <- inception_4c/output_inception_4c/output_0_split_1
I0403 09:49:07.679019  6831 net.cpp:399] inception_4d/3x3_reduce -> inception_4d/3x3_reduce
I0403 09:49:07.679699  6831 net.cpp:141] Setting up inception_4d/3x3_reduce
I0403 09:49:07.679728  6831 net.cpp:148] Top shape: 24 144 14 14 (677376)
I0403 09:49:07.679745  6831 net.cpp:156] Memory required for data: 1118095296
I0403 09:49:07.679777  6831 layer_factory.hpp:77] Creating layer inception_4d/relu_3x3_reduce
I0403 09:49:07.679798  6831 net.cpp:91] Creating Layer inception_4d/relu_3x3_reduce
I0403 09:49:07.679816  6831 net.cpp:425] inception_4d/relu_3x3_reduce <- inception_4d/3x3_reduce
I0403 09:49:07.679834  6831 net.cpp:386] inception_4d/relu_3x3_reduce -> inception_4d/3x3_reduce (in-place)
I0403 09:49:07.679853  6831 net.cpp:141] Setting up inception_4d/relu_3x3_reduce
I0403 09:49:07.679872  6831 net.cpp:148] Top shape: 24 144 14 14 (677376)
I0403 09:49:07.679886  6831 net.cpp:156] Memory required for data: 1120804800
I0403 09:49:07.679901  6831 layer_factory.hpp:77] Creating layer inception_4d/3x3
I0403 09:49:07.679924  6831 net.cpp:91] Creating Layer inception_4d/3x3
I0403 09:49:07.679942  6831 net.cpp:425] inception_4d/3x3 <- inception_4d/3x3_reduce
I0403 09:49:07.679961  6831 net.cpp:399] inception_4d/3x3 -> inception_4d/3x3
I0403 09:49:07.683279  6831 net.cpp:141] Setting up inception_4d/3x3
I0403 09:49:07.683310  6831 net.cpp:148] Top shape: 24 288 14 14 (1354752)
I0403 09:49:07.683334  6831 net.cpp:156] Memory required for data: 1126223808
I0403 09:49:07.683354  6831 layer_factory.hpp:77] Creating layer inception_4d/relu_3x3
I0403 09:49:07.683373  6831 net.cpp:91] Creating Layer inception_4d/relu_3x3
I0403 09:49:07.683389  6831 net.cpp:425] inception_4d/relu_3x3 <- inception_4d/3x3
I0403 09:49:07.683408  6831 net.cpp:386] inception_4d/relu_3x3 -> inception_4d/3x3 (in-place)
I0403 09:49:07.683429  6831 net.cpp:141] Setting up inception_4d/relu_3x3
I0403 09:49:07.683446  6831 net.cpp:148] Top shape: 24 288 14 14 (1354752)
I0403 09:49:07.683461  6831 net.cpp:156] Memory required for data: 1131642816
I0403 09:49:07.683476  6831 layer_factory.hpp:77] Creating layer inception_4d/5x5_reduce
I0403 09:49:07.683501  6831 net.cpp:91] Creating Layer inception_4d/5x5_reduce
I0403 09:49:07.683519  6831 net.cpp:425] inception_4d/5x5_reduce <- inception_4c/output_inception_4c/output_0_split_2
I0403 09:49:07.683542  6831 net.cpp:399] inception_4d/5x5_reduce -> inception_4d/5x5_reduce
I0403 09:49:07.683871  6831 net.cpp:141] Setting up inception_4d/5x5_reduce
I0403 09:49:07.683897  6831 net.cpp:148] Top shape: 24 32 14 14 (150528)
I0403 09:49:07.683912  6831 net.cpp:156] Memory required for data: 1132244928
I0403 09:49:07.683930  6831 layer_factory.hpp:77] Creating layer inception_4d/relu_5x5_reduce
I0403 09:49:07.683948  6831 net.cpp:91] Creating Layer inception_4d/relu_5x5_reduce
I0403 09:49:07.683965  6831 net.cpp:425] inception_4d/relu_5x5_reduce <- inception_4d/5x5_reduce
I0403 09:49:07.683982  6831 net.cpp:386] inception_4d/relu_5x5_reduce -> inception_4d/5x5_reduce (in-place)
I0403 09:49:07.684002  6831 net.cpp:141] Setting up inception_4d/relu_5x5_reduce
I0403 09:49:07.684020  6831 net.cpp:148] Top shape: 24 32 14 14 (150528)
I0403 09:49:07.684034  6831 net.cpp:156] Memory required for data: 1132847040
I0403 09:49:07.684048  6831 layer_factory.hpp:77] Creating layer inception_4d/5x5
I0403 09:49:07.684072  6831 net.cpp:91] Creating Layer inception_4d/5x5
I0403 09:49:07.684089  6831 net.cpp:425] inception_4d/5x5 <- inception_4d/5x5_reduce
I0403 09:49:07.684113  6831 net.cpp:399] inception_4d/5x5 -> inception_4d/5x5
I0403 09:49:07.684648  6831 net.cpp:141] Setting up inception_4d/5x5
I0403 09:49:07.684675  6831 net.cpp:148] Top shape: 24 64 14 14 (301056)
I0403 09:49:07.684690  6831 net.cpp:156] Memory required for data: 1134051264
I0403 09:49:07.684708  6831 layer_factory.hpp:77] Creating layer inception_4d/relu_5x5
I0403 09:49:07.684727  6831 net.cpp:91] Creating Layer inception_4d/relu_5x5
I0403 09:49:07.684743  6831 net.cpp:425] inception_4d/relu_5x5 <- inception_4d/5x5
I0403 09:49:07.684762  6831 net.cpp:386] inception_4d/relu_5x5 -> inception_4d/5x5 (in-place)
I0403 09:49:07.684782  6831 net.cpp:141] Setting up inception_4d/relu_5x5
I0403 09:49:07.684798  6831 net.cpp:148] Top shape: 24 64 14 14 (301056)
I0403 09:49:07.684813  6831 net.cpp:156] Memory required for data: 1135255488
I0403 09:49:07.684828  6831 layer_factory.hpp:77] Creating layer inception_4d/pool
I0403 09:49:07.684864  6831 net.cpp:91] Creating Layer inception_4d/pool
I0403 09:49:07.684883  6831 net.cpp:425] inception_4d/pool <- inception_4c/output_inception_4c/output_0_split_3
I0403 09:49:07.684903  6831 net.cpp:399] inception_4d/pool -> inception_4d/pool
I0403 09:49:07.684959  6831 net.cpp:141] Setting up inception_4d/pool
I0403 09:49:07.684983  6831 net.cpp:148] Top shape: 24 512 14 14 (2408448)
I0403 09:49:07.684998  6831 net.cpp:156] Memory required for data: 1144889280
I0403 09:49:07.685014  6831 layer_factory.hpp:77] Creating layer inception_4d/pool_proj
I0403 09:49:07.685037  6831 net.cpp:91] Creating Layer inception_4d/pool_proj
I0403 09:49:07.685056  6831 net.cpp:425] inception_4d/pool_proj <- inception_4d/pool
I0403 09:49:07.685076  6831 net.cpp:399] inception_4d/pool_proj -> inception_4d/pool_proj
I0403 09:49:07.686053  6831 net.cpp:141] Setting up inception_4d/pool_proj
I0403 09:49:07.686081  6831 net.cpp:148] Top shape: 24 64 14 14 (301056)
I0403 09:49:07.686097  6831 net.cpp:156] Memory required for data: 1146093504
I0403 09:49:07.686116  6831 layer_factory.hpp:77] Creating layer inception_4d/relu_pool_proj
I0403 09:49:07.686138  6831 net.cpp:91] Creating Layer inception_4d/relu_pool_proj
I0403 09:49:07.686157  6831 net.cpp:425] inception_4d/relu_pool_proj <- inception_4d/pool_proj
I0403 09:49:07.686177  6831 net.cpp:386] inception_4d/relu_pool_proj -> inception_4d/pool_proj (in-place)
I0403 09:49:07.686197  6831 net.cpp:141] Setting up inception_4d/relu_pool_proj
I0403 09:49:07.686215  6831 net.cpp:148] Top shape: 24 64 14 14 (301056)
I0403 09:49:07.686230  6831 net.cpp:156] Memory required for data: 1147297728
I0403 09:49:07.686245  6831 layer_factory.hpp:77] Creating layer inception_4d/output
I0403 09:49:07.686264  6831 net.cpp:91] Creating Layer inception_4d/output
I0403 09:49:07.686280  6831 net.cpp:425] inception_4d/output <- inception_4d/1x1
I0403 09:49:07.686296  6831 net.cpp:425] inception_4d/output <- inception_4d/3x3
I0403 09:49:07.686313  6831 net.cpp:425] inception_4d/output <- inception_4d/5x5
I0403 09:49:07.686337  6831 net.cpp:425] inception_4d/output <- inception_4d/pool_proj
I0403 09:49:07.686359  6831 net.cpp:399] inception_4d/output -> inception_4d/output
I0403 09:49:07.686401  6831 net.cpp:141] Setting up inception_4d/output
I0403 09:49:07.686424  6831 net.cpp:148] Top shape: 24 528 14 14 (2483712)
I0403 09:49:07.686445  6831 net.cpp:156] Memory required for data: 1157232576
I0403 09:49:07.686460  6831 layer_factory.hpp:77] Creating layer inception_4d/output_inception_4d/output_0_split
I0403 09:49:07.686480  6831 net.cpp:91] Creating Layer inception_4d/output_inception_4d/output_0_split
I0403 09:49:07.686496  6831 net.cpp:425] inception_4d/output_inception_4d/output_0_split <- inception_4d/output
I0403 09:49:07.686514  6831 net.cpp:399] inception_4d/output_inception_4d/output_0_split -> inception_4d/output_inception_4d/output_0_split_0
I0403 09:49:07.686535  6831 net.cpp:399] inception_4d/output_inception_4d/output_0_split -> inception_4d/output_inception_4d/output_0_split_1
I0403 09:49:07.686556  6831 net.cpp:399] inception_4d/output_inception_4d/output_0_split -> inception_4d/output_inception_4d/output_0_split_2
I0403 09:49:07.686579  6831 net.cpp:399] inception_4d/output_inception_4d/output_0_split -> inception_4d/output_inception_4d/output_0_split_3
I0403 09:49:07.686602  6831 net.cpp:399] inception_4d/output_inception_4d/output_0_split -> inception_4d/output_inception_4d/output_0_split_4
I0403 09:49:07.686686  6831 net.cpp:141] Setting up inception_4d/output_inception_4d/output_0_split
I0403 09:49:07.686710  6831 net.cpp:148] Top shape: 24 528 14 14 (2483712)
I0403 09:49:07.686728  6831 net.cpp:148] Top shape: 24 528 14 14 (2483712)
I0403 09:49:07.686743  6831 net.cpp:148] Top shape: 24 528 14 14 (2483712)
I0403 09:49:07.686759  6831 net.cpp:148] Top shape: 24 528 14 14 (2483712)
I0403 09:49:07.686775  6831 net.cpp:148] Top shape: 24 528 14 14 (2483712)
I0403 09:49:07.686790  6831 net.cpp:156] Memory required for data: 1206906816
I0403 09:49:07.686821  6831 layer_factory.hpp:77] Creating layer loss2/ave_pool
I0403 09:49:07.686844  6831 net.cpp:91] Creating Layer loss2/ave_pool
I0403 09:49:07.686863  6831 net.cpp:425] loss2/ave_pool <- inception_4d/output_inception_4d/output_0_split_0
I0403 09:49:07.686882  6831 net.cpp:399] loss2/ave_pool -> loss2/ave_pool
I0403 09:49:07.686928  6831 net.cpp:141] Setting up loss2/ave_pool
I0403 09:49:07.686952  6831 net.cpp:148] Top shape: 24 528 4 4 (202752)
I0403 09:49:07.686969  6831 net.cpp:156] Memory required for data: 1207717824
I0403 09:49:07.686985  6831 layer_factory.hpp:77] Creating layer loss2/conv
I0403 09:49:07.687008  6831 net.cpp:91] Creating Layer loss2/conv
I0403 09:49:07.687027  6831 net.cpp:425] loss2/conv <- loss2/ave_pool
I0403 09:49:07.687047  6831 net.cpp:399] loss2/conv -> loss2/conv
I0403 09:49:07.688221  6831 net.cpp:141] Setting up loss2/conv
I0403 09:49:07.688252  6831 net.cpp:148] Top shape: 24 128 4 4 (49152)
I0403 09:49:07.688269  6831 net.cpp:156] Memory required for data: 1207914432
I0403 09:49:07.688288  6831 layer_factory.hpp:77] Creating layer loss2/relu_conv
I0403 09:49:07.688308  6831 net.cpp:91] Creating Layer loss2/relu_conv
I0403 09:49:07.688331  6831 net.cpp:425] loss2/relu_conv <- loss2/conv
I0403 09:49:07.688357  6831 net.cpp:386] loss2/relu_conv -> loss2/conv (in-place)
I0403 09:49:07.688380  6831 net.cpp:141] Setting up loss2/relu_conv
I0403 09:49:07.688400  6831 net.cpp:148] Top shape: 24 128 4 4 (49152)
I0403 09:49:07.688415  6831 net.cpp:156] Memory required for data: 1208111040
I0403 09:49:07.688429  6831 layer_factory.hpp:77] Creating layer loss2/fc
I0403 09:49:07.688449  6831 net.cpp:91] Creating Layer loss2/fc
I0403 09:49:07.688465  6831 net.cpp:425] loss2/fc <- loss2/conv
I0403 09:49:07.688488  6831 net.cpp:399] loss2/fc -> loss2/fc
I0403 09:49:07.705005  6831 net.cpp:141] Setting up loss2/fc
I0403 09:49:07.705044  6831 net.cpp:148] Top shape: 24 1024 (24576)
I0403 09:49:07.705060  6831 net.cpp:156] Memory required for data: 1208209344
I0403 09:49:07.705080  6831 layer_factory.hpp:77] Creating layer loss2/relu_fc
I0403 09:49:07.705099  6831 net.cpp:91] Creating Layer loss2/relu_fc
I0403 09:49:07.705116  6831 net.cpp:425] loss2/relu_fc <- loss2/fc
I0403 09:49:07.705137  6831 net.cpp:386] loss2/relu_fc -> loss2/fc (in-place)
I0403 09:49:07.705157  6831 net.cpp:141] Setting up loss2/relu_fc
I0403 09:49:07.705175  6831 net.cpp:148] Top shape: 24 1024 (24576)
I0403 09:49:07.705189  6831 net.cpp:156] Memory required for data: 1208307648
I0403 09:49:07.705204  6831 layer_factory.hpp:77] Creating layer loss2/drop_fc
I0403 09:49:07.705221  6831 net.cpp:91] Creating Layer loss2/drop_fc
I0403 09:49:07.705237  6831 net.cpp:425] loss2/drop_fc <- loss2/fc
I0403 09:49:07.705258  6831 net.cpp:386] loss2/drop_fc -> loss2/fc (in-place)
I0403 09:49:07.705297  6831 net.cpp:141] Setting up loss2/drop_fc
I0403 09:49:07.705325  6831 net.cpp:148] Top shape: 24 1024 (24576)
I0403 09:49:07.705343  6831 net.cpp:156] Memory required for data: 1208405952
I0403 09:49:07.705358  6831 layer_factory.hpp:77] Creating layer loss2/classifier_plantvillage
I0403 09:49:07.705379  6831 net.cpp:91] Creating Layer loss2/classifier_plantvillage
I0403 09:49:07.705397  6831 net.cpp:425] loss2/classifier_plantvillage <- loss2/fc
I0403 09:49:07.705416  6831 net.cpp:399] loss2/classifier_plantvillage -> loss2/classifier_plantvillage
I0403 09:49:07.705749  6831 net.cpp:141] Setting up loss2/classifier_plantvillage
I0403 09:49:07.705775  6831 net.cpp:148] Top shape: 24 38 (912)
I0403 09:49:07.705790  6831 net.cpp:156] Memory required for data: 1208409600
I0403 09:49:07.705808  6831 layer_factory.hpp:77] Creating layer inception_4e/1x1
I0403 09:49:07.705833  6831 net.cpp:91] Creating Layer inception_4e/1x1
I0403 09:49:07.705852  6831 net.cpp:425] inception_4e/1x1 <- inception_4d/output_inception_4d/output_0_split_1
I0403 09:49:07.705873  6831 net.cpp:399] inception_4e/1x1 -> inception_4e/1x1
I0403 09:49:07.706864  6831 net.cpp:141] Setting up inception_4e/1x1
I0403 09:49:07.706890  6831 net.cpp:148] Top shape: 24 256 14 14 (1204224)
I0403 09:49:07.706933  6831 net.cpp:156] Memory required for data: 1213226496
I0403 09:49:07.706953  6831 layer_factory.hpp:77] Creating layer inception_4e/relu_1x1
I0403 09:49:07.706971  6831 net.cpp:91] Creating Layer inception_4e/relu_1x1
I0403 09:49:07.706989  6831 net.cpp:425] inception_4e/relu_1x1 <- inception_4e/1x1
I0403 09:49:07.707005  6831 net.cpp:386] inception_4e/relu_1x1 -> inception_4e/1x1 (in-place)
I0403 09:49:07.707026  6831 net.cpp:141] Setting up inception_4e/relu_1x1
I0403 09:49:07.707042  6831 net.cpp:148] Top shape: 24 256 14 14 (1204224)
I0403 09:49:07.707056  6831 net.cpp:156] Memory required for data: 1218043392
I0403 09:49:07.707072  6831 layer_factory.hpp:77] Creating layer inception_4e/3x3_reduce
I0403 09:49:07.707094  6831 net.cpp:91] Creating Layer inception_4e/3x3_reduce
I0403 09:49:07.707113  6831 net.cpp:425] inception_4e/3x3_reduce <- inception_4d/output_inception_4d/output_0_split_2
I0403 09:49:07.707131  6831 net.cpp:399] inception_4e/3x3_reduce -> inception_4e/3x3_reduce
I0403 09:49:07.708386  6831 net.cpp:141] Setting up inception_4e/3x3_reduce
I0403 09:49:07.708415  6831 net.cpp:148] Top shape: 24 160 14 14 (752640)
I0403 09:49:07.708431  6831 net.cpp:156] Memory required for data: 1221053952
I0403 09:49:07.708451  6831 layer_factory.hpp:77] Creating layer inception_4e/relu_3x3_reduce
I0403 09:49:07.708469  6831 net.cpp:91] Creating Layer inception_4e/relu_3x3_reduce
I0403 09:49:07.708487  6831 net.cpp:425] inception_4e/relu_3x3_reduce <- inception_4e/3x3_reduce
I0403 09:49:07.708508  6831 net.cpp:386] inception_4e/relu_3x3_reduce -> inception_4e/3x3_reduce (in-place)
I0403 09:49:07.708528  6831 net.cpp:141] Setting up inception_4e/relu_3x3_reduce
I0403 09:49:07.708546  6831 net.cpp:148] Top shape: 24 160 14 14 (752640)
I0403 09:49:07.708561  6831 net.cpp:156] Memory required for data: 1224064512
I0403 09:49:07.708576  6831 layer_factory.hpp:77] Creating layer inception_4e/3x3
I0403 09:49:07.708597  6831 net.cpp:91] Creating Layer inception_4e/3x3
I0403 09:49:07.708624  6831 net.cpp:425] inception_4e/3x3 <- inception_4e/3x3_reduce
I0403 09:49:07.708647  6831 net.cpp:399] inception_4e/3x3 -> inception_4e/3x3
I0403 09:49:07.712535  6831 net.cpp:141] Setting up inception_4e/3x3
I0403 09:49:07.712563  6831 net.cpp:148] Top shape: 24 320 14 14 (1505280)
I0403 09:49:07.712579  6831 net.cpp:156] Memory required for data: 1230085632
I0403 09:49:07.712597  6831 layer_factory.hpp:77] Creating layer inception_4e/relu_3x3
I0403 09:49:07.712622  6831 net.cpp:91] Creating Layer inception_4e/relu_3x3
I0403 09:49:07.712640  6831 net.cpp:425] inception_4e/relu_3x3 <- inception_4e/3x3
I0403 09:49:07.712658  6831 net.cpp:386] inception_4e/relu_3x3 -> inception_4e/3x3 (in-place)
I0403 09:49:07.712677  6831 net.cpp:141] Setting up inception_4e/relu_3x3
I0403 09:49:07.712695  6831 net.cpp:148] Top shape: 24 320 14 14 (1505280)
I0403 09:49:07.712709  6831 net.cpp:156] Memory required for data: 1236106752
I0403 09:49:07.712723  6831 layer_factory.hpp:77] Creating layer inception_4e/5x5_reduce
I0403 09:49:07.712746  6831 net.cpp:91] Creating Layer inception_4e/5x5_reduce
I0403 09:49:07.712764  6831 net.cpp:425] inception_4e/5x5_reduce <- inception_4d/output_inception_4d/output_0_split_3
I0403 09:49:07.712786  6831 net.cpp:399] inception_4e/5x5_reduce -> inception_4e/5x5_reduce
I0403 09:49:07.713122  6831 net.cpp:141] Setting up inception_4e/5x5_reduce
I0403 09:49:07.713148  6831 net.cpp:148] Top shape: 24 32 14 14 (150528)
I0403 09:49:07.713162  6831 net.cpp:156] Memory required for data: 1236708864
I0403 09:49:07.713181  6831 layer_factory.hpp:77] Creating layer inception_4e/relu_5x5_reduce
I0403 09:49:07.713198  6831 net.cpp:91] Creating Layer inception_4e/relu_5x5_reduce
I0403 09:49:07.713217  6831 net.cpp:425] inception_4e/relu_5x5_reduce <- inception_4e/5x5_reduce
I0403 09:49:07.713233  6831 net.cpp:386] inception_4e/relu_5x5_reduce -> inception_4e/5x5_reduce (in-place)
I0403 09:49:07.713253  6831 net.cpp:141] Setting up inception_4e/relu_5x5_reduce
I0403 09:49:07.713285  6831 net.cpp:148] Top shape: 24 32 14 14 (150528)
I0403 09:49:07.713301  6831 net.cpp:156] Memory required for data: 1237310976
I0403 09:49:07.713321  6831 layer_factory.hpp:77] Creating layer inception_4e/5x5
I0403 09:49:07.713347  6831 net.cpp:91] Creating Layer inception_4e/5x5
I0403 09:49:07.713366  6831 net.cpp:425] inception_4e/5x5 <- inception_4e/5x5_reduce
I0403 09:49:07.713387  6831 net.cpp:399] inception_4e/5x5 -> inception_4e/5x5
I0403 09:49:07.714185  6831 net.cpp:141] Setting up inception_4e/5x5
I0403 09:49:07.714210  6831 net.cpp:148] Top shape: 24 128 14 14 (602112)
I0403 09:49:07.714226  6831 net.cpp:156] Memory required for data: 1239719424
I0403 09:49:07.714243  6831 layer_factory.hpp:77] Creating layer inception_4e/relu_5x5
I0403 09:49:07.714262  6831 net.cpp:91] Creating Layer inception_4e/relu_5x5
I0403 09:49:07.714277  6831 net.cpp:425] inception_4e/relu_5x5 <- inception_4e/5x5
I0403 09:49:07.714313  6831 net.cpp:386] inception_4e/relu_5x5 -> inception_4e/5x5 (in-place)
I0403 09:49:07.714340  6831 net.cpp:141] Setting up inception_4e/relu_5x5
I0403 09:49:07.714359  6831 net.cpp:148] Top shape: 24 128 14 14 (602112)
I0403 09:49:07.714375  6831 net.cpp:156] Memory required for data: 1242127872
I0403 09:49:07.714390  6831 layer_factory.hpp:77] Creating layer inception_4e/pool
I0403 09:49:07.714426  6831 net.cpp:91] Creating Layer inception_4e/pool
I0403 09:49:07.714445  6831 net.cpp:425] inception_4e/pool <- inception_4d/output_inception_4d/output_0_split_4
I0403 09:49:07.714465  6831 net.cpp:399] inception_4e/pool -> inception_4e/pool
I0403 09:49:07.714524  6831 net.cpp:141] Setting up inception_4e/pool
I0403 09:49:07.714548  6831 net.cpp:148] Top shape: 24 528 14 14 (2483712)
I0403 09:49:07.714563  6831 net.cpp:156] Memory required for data: 1252062720
I0403 09:49:07.714581  6831 layer_factory.hpp:77] Creating layer inception_4e/pool_proj
I0403 09:49:07.714617  6831 net.cpp:91] Creating Layer inception_4e/pool_proj
I0403 09:49:07.714634  6831 net.cpp:425] inception_4e/pool_proj <- inception_4e/pool
I0403 09:49:07.714653  6831 net.cpp:399] inception_4e/pool_proj -> inception_4e/pool_proj
I0403 09:49:07.715250  6831 net.cpp:141] Setting up inception_4e/pool_proj
I0403 09:49:07.715276  6831 net.cpp:148] Top shape: 24 128 14 14 (602112)
I0403 09:49:07.715291  6831 net.cpp:156] Memory required for data: 1254471168
I0403 09:49:07.715309  6831 layer_factory.hpp:77] Creating layer inception_4e/relu_pool_proj
I0403 09:49:07.715334  6831 net.cpp:91] Creating Layer inception_4e/relu_pool_proj
I0403 09:49:07.715351  6831 net.cpp:425] inception_4e/relu_pool_proj <- inception_4e/pool_proj
I0403 09:49:07.715373  6831 net.cpp:386] inception_4e/relu_pool_proj -> inception_4e/pool_proj (in-place)
I0403 09:49:07.715394  6831 net.cpp:141] Setting up inception_4e/relu_pool_proj
I0403 09:49:07.715411  6831 net.cpp:148] Top shape: 24 128 14 14 (602112)
I0403 09:49:07.715425  6831 net.cpp:156] Memory required for data: 1256879616
I0403 09:49:07.715440  6831 layer_factory.hpp:77] Creating layer inception_4e/output
I0403 09:49:07.715464  6831 net.cpp:91] Creating Layer inception_4e/output
I0403 09:49:07.715479  6831 net.cpp:425] inception_4e/output <- inception_4e/1x1
I0403 09:49:07.715495  6831 net.cpp:425] inception_4e/output <- inception_4e/3x3
I0403 09:49:07.715512  6831 net.cpp:425] inception_4e/output <- inception_4e/5x5
I0403 09:49:07.715528  6831 net.cpp:425] inception_4e/output <- inception_4e/pool_proj
I0403 09:49:07.715546  6831 net.cpp:399] inception_4e/output -> inception_4e/output
I0403 09:49:07.715587  6831 net.cpp:141] Setting up inception_4e/output
I0403 09:49:07.715611  6831 net.cpp:148] Top shape: 24 832 14 14 (3913728)
I0403 09:49:07.715626  6831 net.cpp:156] Memory required for data: 1272534528
I0403 09:49:07.715641  6831 layer_factory.hpp:77] Creating layer pool4/3x3_s2
I0403 09:49:07.715662  6831 net.cpp:91] Creating Layer pool4/3x3_s2
I0403 09:49:07.715678  6831 net.cpp:425] pool4/3x3_s2 <- inception_4e/output
I0403 09:49:07.715697  6831 net.cpp:399] pool4/3x3_s2 -> pool4/3x3_s2
I0403 09:49:07.715769  6831 net.cpp:141] Setting up pool4/3x3_s2
I0403 09:49:07.715792  6831 net.cpp:148] Top shape: 24 832 7 7 (978432)
I0403 09:49:07.715807  6831 net.cpp:156] Memory required for data: 1276448256
I0403 09:49:07.715822  6831 layer_factory.hpp:77] Creating layer pool4/3x3_s2_pool4/3x3_s2_0_split
I0403 09:49:07.715840  6831 net.cpp:91] Creating Layer pool4/3x3_s2_pool4/3x3_s2_0_split
I0403 09:49:07.715855  6831 net.cpp:425] pool4/3x3_s2_pool4/3x3_s2_0_split <- pool4/3x3_s2
I0403 09:49:07.715873  6831 net.cpp:399] pool4/3x3_s2_pool4/3x3_s2_0_split -> pool4/3x3_s2_pool4/3x3_s2_0_split_0
I0403 09:49:07.715895  6831 net.cpp:399] pool4/3x3_s2_pool4/3x3_s2_0_split -> pool4/3x3_s2_pool4/3x3_s2_0_split_1
I0403 09:49:07.715919  6831 net.cpp:399] pool4/3x3_s2_pool4/3x3_s2_0_split -> pool4/3x3_s2_pool4/3x3_s2_0_split_2
I0403 09:49:07.715939  6831 net.cpp:399] pool4/3x3_s2_pool4/3x3_s2_0_split -> pool4/3x3_s2_pool4/3x3_s2_0_split_3
I0403 09:49:07.716011  6831 net.cpp:141] Setting up pool4/3x3_s2_pool4/3x3_s2_0_split
I0403 09:49:07.716033  6831 net.cpp:148] Top shape: 24 832 7 7 (978432)
I0403 09:49:07.716049  6831 net.cpp:148] Top shape: 24 832 7 7 (978432)
I0403 09:49:07.716065  6831 net.cpp:148] Top shape: 24 832 7 7 (978432)
I0403 09:49:07.716081  6831 net.cpp:148] Top shape: 24 832 7 7 (978432)
I0403 09:49:07.716095  6831 net.cpp:156] Memory required for data: 1292103168
I0403 09:49:07.716111  6831 layer_factory.hpp:77] Creating layer inception_5a/1x1
I0403 09:49:07.716136  6831 net.cpp:91] Creating Layer inception_5a/1x1
I0403 09:49:07.716156  6831 net.cpp:425] inception_5a/1x1 <- pool4/3x3_s2_pool4/3x3_s2_0_split_0
I0403 09:49:07.716178  6831 net.cpp:399] inception_5a/1x1 -> inception_5a/1x1
I0403 09:49:07.718138  6831 net.cpp:141] Setting up inception_5a/1x1
I0403 09:49:07.718168  6831 net.cpp:148] Top shape: 24 256 7 7 (301056)
I0403 09:49:07.718184  6831 net.cpp:156] Memory required for data: 1293307392
I0403 09:49:07.718202  6831 layer_factory.hpp:77] Creating layer inception_5a/relu_1x1
I0403 09:49:07.718220  6831 net.cpp:91] Creating Layer inception_5a/relu_1x1
I0403 09:49:07.718237  6831 net.cpp:425] inception_5a/relu_1x1 <- inception_5a/1x1
I0403 09:49:07.718255  6831 net.cpp:386] inception_5a/relu_1x1 -> inception_5a/1x1 (in-place)
I0403 09:49:07.718274  6831 net.cpp:141] Setting up inception_5a/relu_1x1
I0403 09:49:07.718291  6831 net.cpp:148] Top shape: 24 256 7 7 (301056)
I0403 09:49:07.718307  6831 net.cpp:156] Memory required for data: 1294511616
I0403 09:49:07.718327  6831 layer_factory.hpp:77] Creating layer inception_5a/3x3_reduce
I0403 09:49:07.718351  6831 net.cpp:91] Creating Layer inception_5a/3x3_reduce
I0403 09:49:07.718370  6831 net.cpp:425] inception_5a/3x3_reduce <- pool4/3x3_s2_pool4/3x3_s2_0_split_1
I0403 09:49:07.718392  6831 net.cpp:399] inception_5a/3x3_reduce -> inception_5a/3x3_reduce
I0403 09:49:07.719914  6831 net.cpp:141] Setting up inception_5a/3x3_reduce
I0403 09:49:07.719945  6831 net.cpp:148] Top shape: 24 160 7 7 (188160)
I0403 09:49:07.719962  6831 net.cpp:156] Memory required for data: 1295264256
I0403 09:49:07.719980  6831 layer_factory.hpp:77] Creating layer inception_5a/relu_3x3_reduce
I0403 09:49:07.720000  6831 net.cpp:91] Creating Layer inception_5a/relu_3x3_reduce
I0403 09:49:07.720016  6831 net.cpp:425] inception_5a/relu_3x3_reduce <- inception_5a/3x3_reduce
I0403 09:49:07.720034  6831 net.cpp:386] inception_5a/relu_3x3_reduce -> inception_5a/3x3_reduce (in-place)
I0403 09:49:07.720054  6831 net.cpp:141] Setting up inception_5a/relu_3x3_reduce
I0403 09:49:07.720072  6831 net.cpp:148] Top shape: 24 160 7 7 (188160)
I0403 09:49:07.720087  6831 net.cpp:156] Memory required for data: 1296016896
I0403 09:49:07.720100  6831 layer_factory.hpp:77] Creating layer inception_5a/3x3
I0403 09:49:07.720124  6831 net.cpp:91] Creating Layer inception_5a/3x3
I0403 09:49:07.720142  6831 net.cpp:425] inception_5a/3x3 <- inception_5a/3x3_reduce
I0403 09:49:07.720165  6831 net.cpp:399] inception_5a/3x3 -> inception_5a/3x3
I0403 09:49:07.724174  6831 net.cpp:141] Setting up inception_5a/3x3
I0403 09:49:07.724220  6831 net.cpp:148] Top shape: 24 320 7 7 (376320)
I0403 09:49:07.724237  6831 net.cpp:156] Memory required for data: 1297522176
I0403 09:49:07.724256  6831 layer_factory.hpp:77] Creating layer inception_5a/relu_3x3
I0403 09:49:07.724277  6831 net.cpp:91] Creating Layer inception_5a/relu_3x3
I0403 09:49:07.724294  6831 net.cpp:425] inception_5a/relu_3x3 <- inception_5a/3x3
I0403 09:49:07.724313  6831 net.cpp:386] inception_5a/relu_3x3 -> inception_5a/3x3 (in-place)
I0403 09:49:07.724341  6831 net.cpp:141] Setting up inception_5a/relu_3x3
I0403 09:49:07.724360  6831 net.cpp:148] Top shape: 24 320 7 7 (376320)
I0403 09:49:07.724375  6831 net.cpp:156] Memory required for data: 1299027456
I0403 09:49:07.724390  6831 layer_factory.hpp:77] Creating layer inception_5a/5x5_reduce
I0403 09:49:07.724416  6831 net.cpp:91] Creating Layer inception_5a/5x5_reduce
I0403 09:49:07.724434  6831 net.cpp:425] inception_5a/5x5_reduce <- pool4/3x3_s2_pool4/3x3_s2_0_split_2
I0403 09:49:07.724457  6831 net.cpp:399] inception_5a/5x5_reduce -> inception_5a/5x5_reduce
I0403 09:49:07.724861  6831 net.cpp:141] Setting up inception_5a/5x5_reduce
I0403 09:49:07.724887  6831 net.cpp:148] Top shape: 24 32 7 7 (37632)
I0403 09:49:07.724903  6831 net.cpp:156] Memory required for data: 1299177984
I0403 09:49:07.724923  6831 layer_factory.hpp:77] Creating layer inception_5a/relu_5x5_reduce
I0403 09:49:07.724944  6831 net.cpp:91] Creating Layer inception_5a/relu_5x5_reduce
I0403 09:49:07.724962  6831 net.cpp:425] inception_5a/relu_5x5_reduce <- inception_5a/5x5_reduce
I0403 09:49:07.724982  6831 net.cpp:386] inception_5a/relu_5x5_reduce -> inception_5a/5x5_reduce (in-place)
I0403 09:49:07.725002  6831 net.cpp:141] Setting up inception_5a/relu_5x5_reduce
I0403 09:49:07.725020  6831 net.cpp:148] Top shape: 24 32 7 7 (37632)
I0403 09:49:07.725034  6831 net.cpp:156] Memory required for data: 1299328512
I0403 09:49:07.725050  6831 layer_factory.hpp:77] Creating layer inception_5a/5x5
I0403 09:49:07.725075  6831 net.cpp:91] Creating Layer inception_5a/5x5
I0403 09:49:07.725095  6831 net.cpp:425] inception_5a/5x5 <- inception_5a/5x5_reduce
I0403 09:49:07.725116  6831 net.cpp:399] inception_5a/5x5 -> inception_5a/5x5
I0403 09:49:07.725944  6831 net.cpp:141] Setting up inception_5a/5x5
I0403 09:49:07.725971  6831 net.cpp:148] Top shape: 24 128 7 7 (150528)
I0403 09:49:07.725987  6831 net.cpp:156] Memory required for data: 1299930624
I0403 09:49:07.726006  6831 layer_factory.hpp:77] Creating layer inception_5a/relu_5x5
I0403 09:49:07.726024  6831 net.cpp:91] Creating Layer inception_5a/relu_5x5
I0403 09:49:07.726042  6831 net.cpp:425] inception_5a/relu_5x5 <- inception_5a/5x5
I0403 09:49:07.726061  6831 net.cpp:386] inception_5a/relu_5x5 -> inception_5a/5x5 (in-place)
I0403 09:49:07.726083  6831 net.cpp:141] Setting up inception_5a/relu_5x5
I0403 09:49:07.726101  6831 net.cpp:148] Top shape: 24 128 7 7 (150528)
I0403 09:49:07.726116  6831 net.cpp:156] Memory required for data: 1300532736
I0403 09:49:07.726130  6831 layer_factory.hpp:77] Creating layer inception_5a/pool
I0403 09:49:07.726150  6831 net.cpp:91] Creating Layer inception_5a/pool
I0403 09:49:07.726166  6831 net.cpp:425] inception_5a/pool <- pool4/3x3_s2_pool4/3x3_s2_0_split_3
I0403 09:49:07.726186  6831 net.cpp:399] inception_5a/pool -> inception_5a/pool
I0403 09:49:07.726245  6831 net.cpp:141] Setting up inception_5a/pool
I0403 09:49:07.726270  6831 net.cpp:148] Top shape: 24 832 7 7 (978432)
I0403 09:49:07.726285  6831 net.cpp:156] Memory required for data: 1304446464
I0403 09:49:07.726300  6831 layer_factory.hpp:77] Creating layer inception_5a/pool_proj
I0403 09:49:07.726330  6831 net.cpp:91] Creating Layer inception_5a/pool_proj
I0403 09:49:07.726351  6831 net.cpp:425] inception_5a/pool_proj <- inception_5a/pool
I0403 09:49:07.726374  6831 net.cpp:399] inception_5a/pool_proj -> inception_5a/pool_proj
I0403 09:49:07.727784  6831 net.cpp:141] Setting up inception_5a/pool_proj
I0403 09:49:07.727818  6831 net.cpp:148] Top shape: 24 128 7 7 (150528)
I0403 09:49:07.727835  6831 net.cpp:156] Memory required for data: 1305048576
I0403 09:49:07.727870  6831 layer_factory.hpp:77] Creating layer inception_5a/relu_pool_proj
I0403 09:49:07.727890  6831 net.cpp:91] Creating Layer inception_5a/relu_pool_proj
I0403 09:49:07.727908  6831 net.cpp:425] inception_5a/relu_pool_proj <- inception_5a/pool_proj
I0403 09:49:07.727927  6831 net.cpp:386] inception_5a/relu_pool_proj -> inception_5a/pool_proj (in-place)
I0403 09:49:07.727948  6831 net.cpp:141] Setting up inception_5a/relu_pool_proj
I0403 09:49:07.727967  6831 net.cpp:148] Top shape: 24 128 7 7 (150528)
I0403 09:49:07.727982  6831 net.cpp:156] Memory required for data: 1305650688
I0403 09:49:07.727995  6831 layer_factory.hpp:77] Creating layer inception_5a/output
I0403 09:49:07.728014  6831 net.cpp:91] Creating Layer inception_5a/output
I0403 09:49:07.728030  6831 net.cpp:425] inception_5a/output <- inception_5a/1x1
I0403 09:49:07.728047  6831 net.cpp:425] inception_5a/output <- inception_5a/3x3
I0403 09:49:07.728063  6831 net.cpp:425] inception_5a/output <- inception_5a/5x5
I0403 09:49:07.728080  6831 net.cpp:425] inception_5a/output <- inception_5a/pool_proj
I0403 09:49:07.728102  6831 net.cpp:399] inception_5a/output -> inception_5a/output
I0403 09:49:07.728144  6831 net.cpp:141] Setting up inception_5a/output
I0403 09:49:07.728171  6831 net.cpp:148] Top shape: 24 832 7 7 (978432)
I0403 09:49:07.728188  6831 net.cpp:156] Memory required for data: 1309564416
I0403 09:49:07.728204  6831 layer_factory.hpp:77] Creating layer inception_5a/output_inception_5a/output_0_split
I0403 09:49:07.728222  6831 net.cpp:91] Creating Layer inception_5a/output_inception_5a/output_0_split
I0403 09:49:07.728240  6831 net.cpp:425] inception_5a/output_inception_5a/output_0_split <- inception_5a/output
I0403 09:49:07.728258  6831 net.cpp:399] inception_5a/output_inception_5a/output_0_split -> inception_5a/output_inception_5a/output_0_split_0
I0403 09:49:07.728279  6831 net.cpp:399] inception_5a/output_inception_5a/output_0_split -> inception_5a/output_inception_5a/output_0_split_1
I0403 09:49:07.728302  6831 net.cpp:399] inception_5a/output_inception_5a/output_0_split -> inception_5a/output_inception_5a/output_0_split_2
I0403 09:49:07.728332  6831 net.cpp:399] inception_5a/output_inception_5a/output_0_split -> inception_5a/output_inception_5a/output_0_split_3
I0403 09:49:07.728411  6831 net.cpp:141] Setting up inception_5a/output_inception_5a/output_0_split
I0403 09:49:07.728436  6831 net.cpp:148] Top shape: 24 832 7 7 (978432)
I0403 09:49:07.728453  6831 net.cpp:148] Top shape: 24 832 7 7 (978432)
I0403 09:49:07.728469  6831 net.cpp:148] Top shape: 24 832 7 7 (978432)
I0403 09:49:07.728487  6831 net.cpp:148] Top shape: 24 832 7 7 (978432)
I0403 09:49:07.728500  6831 net.cpp:156] Memory required for data: 1325219328
I0403 09:49:07.728516  6831 layer_factory.hpp:77] Creating layer inception_5b/1x1
I0403 09:49:07.728540  6831 net.cpp:91] Creating Layer inception_5b/1x1
I0403 09:49:07.728559  6831 net.cpp:425] inception_5b/1x1 <- inception_5a/output_inception_5a/output_0_split_0
I0403 09:49:07.728581  6831 net.cpp:399] inception_5b/1x1 -> inception_5b/1x1
I0403 09:49:07.731331  6831 net.cpp:141] Setting up inception_5b/1x1
I0403 09:49:07.731364  6831 net.cpp:148] Top shape: 24 384 7 7 (451584)
I0403 09:49:07.731382  6831 net.cpp:156] Memory required for data: 1327025664
I0403 09:49:07.731401  6831 layer_factory.hpp:77] Creating layer inception_5b/relu_1x1
I0403 09:49:07.731421  6831 net.cpp:91] Creating Layer inception_5b/relu_1x1
I0403 09:49:07.731438  6831 net.cpp:425] inception_5b/relu_1x1 <- inception_5b/1x1
I0403 09:49:07.731456  6831 net.cpp:386] inception_5b/relu_1x1 -> inception_5b/1x1 (in-place)
I0403 09:49:07.731477  6831 net.cpp:141] Setting up inception_5b/relu_1x1
I0403 09:49:07.731495  6831 net.cpp:148] Top shape: 24 384 7 7 (451584)
I0403 09:49:07.731511  6831 net.cpp:156] Memory required for data: 1328832000
I0403 09:49:07.731526  6831 layer_factory.hpp:77] Creating layer inception_5b/3x3_reduce
I0403 09:49:07.731550  6831 net.cpp:91] Creating Layer inception_5b/3x3_reduce
I0403 09:49:07.731583  6831 net.cpp:425] inception_5b/3x3_reduce <- inception_5a/output_inception_5a/output_0_split_1
I0403 09:49:07.731607  6831 net.cpp:399] inception_5b/3x3_reduce -> inception_5b/3x3_reduce
I0403 09:49:07.733351  6831 net.cpp:141] Setting up inception_5b/3x3_reduce
I0403 09:49:07.733383  6831 net.cpp:148] Top shape: 24 192 7 7 (225792)
I0403 09:49:07.733400  6831 net.cpp:156] Memory required for data: 1329735168
I0403 09:49:07.733419  6831 layer_factory.hpp:77] Creating layer inception_5b/relu_3x3_reduce
I0403 09:49:07.733440  6831 net.cpp:91] Creating Layer inception_5b/relu_3x3_reduce
I0403 09:49:07.733458  6831 net.cpp:425] inception_5b/relu_3x3_reduce <- inception_5b/3x3_reduce
I0403 09:49:07.733477  6831 net.cpp:386] inception_5b/relu_3x3_reduce -> inception_5b/3x3_reduce (in-place)
I0403 09:49:07.733497  6831 net.cpp:141] Setting up inception_5b/relu_3x3_reduce
I0403 09:49:07.733515  6831 net.cpp:148] Top shape: 24 192 7 7 (225792)
I0403 09:49:07.733530  6831 net.cpp:156] Memory required for data: 1330638336
I0403 09:49:07.733546  6831 layer_factory.hpp:77] Creating layer inception_5b/3x3
I0403 09:49:07.733569  6831 net.cpp:91] Creating Layer inception_5b/3x3
I0403 09:49:07.733588  6831 net.cpp:425] inception_5b/3x3 <- inception_5b/3x3_reduce
I0403 09:49:07.733610  6831 net.cpp:399] inception_5b/3x3 -> inception_5b/3x3
I0403 09:49:07.739225  6831 net.cpp:141] Setting up inception_5b/3x3
I0403 09:49:07.739254  6831 net.cpp:148] Top shape: 24 384 7 7 (451584)
I0403 09:49:07.739270  6831 net.cpp:156] Memory required for data: 1332444672
I0403 09:49:07.739289  6831 layer_factory.hpp:77] Creating layer inception_5b/relu_3x3
I0403 09:49:07.739323  6831 net.cpp:91] Creating Layer inception_5b/relu_3x3
I0403 09:49:07.739341  6831 net.cpp:425] inception_5b/relu_3x3 <- inception_5b/3x3
I0403 09:49:07.739363  6831 net.cpp:386] inception_5b/relu_3x3 -> inception_5b/3x3 (in-place)
I0403 09:49:07.739384  6831 net.cpp:141] Setting up inception_5b/relu_3x3
I0403 09:49:07.739403  6831 net.cpp:148] Top shape: 24 384 7 7 (451584)
I0403 09:49:07.739418  6831 net.cpp:156] Memory required for data: 1334251008
I0403 09:49:07.739434  6831 layer_factory.hpp:77] Creating layer inception_5b/5x5_reduce
I0403 09:49:07.739454  6831 net.cpp:91] Creating Layer inception_5b/5x5_reduce
I0403 09:49:07.739471  6831 net.cpp:425] inception_5b/5x5_reduce <- inception_5a/output_inception_5a/output_0_split_2
I0403 09:49:07.739492  6831 net.cpp:399] inception_5b/5x5_reduce -> inception_5b/5x5_reduce
I0403 09:49:07.739972  6831 net.cpp:141] Setting up inception_5b/5x5_reduce
I0403 09:49:07.739997  6831 net.cpp:148] Top shape: 24 48 7 7 (56448)
I0403 09:49:07.740011  6831 net.cpp:156] Memory required for data: 1334476800
I0403 09:49:07.740030  6831 layer_factory.hpp:77] Creating layer inception_5b/relu_5x5_reduce
I0403 09:49:07.740047  6831 net.cpp:91] Creating Layer inception_5b/relu_5x5_reduce
I0403 09:49:07.740062  6831 net.cpp:425] inception_5b/relu_5x5_reduce <- inception_5b/5x5_reduce
I0403 09:49:07.740082  6831 net.cpp:386] inception_5b/relu_5x5_reduce -> inception_5b/5x5_reduce (in-place)
I0403 09:49:07.740103  6831 net.cpp:141] Setting up inception_5b/relu_5x5_reduce
I0403 09:49:07.740120  6831 net.cpp:148] Top shape: 24 48 7 7 (56448)
I0403 09:49:07.740134  6831 net.cpp:156] Memory required for data: 1334702592
I0403 09:49:07.740149  6831 layer_factory.hpp:77] Creating layer inception_5b/5x5
I0403 09:49:07.740171  6831 net.cpp:91] Creating Layer inception_5b/5x5
I0403 09:49:07.740188  6831 net.cpp:425] inception_5b/5x5 <- inception_5b/5x5_reduce
I0403 09:49:07.740207  6831 net.cpp:399] inception_5b/5x5 -> inception_5b/5x5
I0403 09:49:07.741284  6831 net.cpp:141] Setting up inception_5b/5x5
I0403 09:49:07.741313  6831 net.cpp:148] Top shape: 24 128 7 7 (150528)
I0403 09:49:07.741335  6831 net.cpp:156] Memory required for data: 1335304704
I0403 09:49:07.741353  6831 layer_factory.hpp:77] Creating layer inception_5b/relu_5x5
I0403 09:49:07.741372  6831 net.cpp:91] Creating Layer inception_5b/relu_5x5
I0403 09:49:07.741389  6831 net.cpp:425] inception_5b/relu_5x5 <- inception_5b/5x5
I0403 09:49:07.741421  6831 net.cpp:386] inception_5b/relu_5x5 -> inception_5b/5x5 (in-place)
I0403 09:49:07.741443  6831 net.cpp:141] Setting up inception_5b/relu_5x5
I0403 09:49:07.741461  6831 net.cpp:148] Top shape: 24 128 7 7 (150528)
I0403 09:49:07.741474  6831 net.cpp:156] Memory required for data: 1335906816
I0403 09:49:07.741488  6831 layer_factory.hpp:77] Creating layer inception_5b/pool
I0403 09:49:07.741506  6831 net.cpp:91] Creating Layer inception_5b/pool
I0403 09:49:07.741525  6831 net.cpp:425] inception_5b/pool <- inception_5a/output_inception_5a/output_0_split_3
I0403 09:49:07.741544  6831 net.cpp:399] inception_5b/pool -> inception_5b/pool
I0403 09:49:07.741611  6831 net.cpp:141] Setting up inception_5b/pool
I0403 09:49:07.741634  6831 net.cpp:148] Top shape: 24 832 7 7 (978432)
I0403 09:49:07.741649  6831 net.cpp:156] Memory required for data: 1339820544
I0403 09:49:07.741664  6831 layer_factory.hpp:77] Creating layer inception_5b/pool_proj
I0403 09:49:07.741688  6831 net.cpp:91] Creating Layer inception_5b/pool_proj
I0403 09:49:07.741706  6831 net.cpp:425] inception_5b/pool_proj <- inception_5b/pool
I0403 09:49:07.741727  6831 net.cpp:399] inception_5b/pool_proj -> inception_5b/pool_proj
I0403 09:49:07.743098  6831 net.cpp:141] Setting up inception_5b/pool_proj
I0403 09:49:07.743126  6831 net.cpp:148] Top shape: 24 128 7 7 (150528)
I0403 09:49:07.743142  6831 net.cpp:156] Memory required for data: 1340422656
I0403 09:49:07.743160  6831 layer_factory.hpp:77] Creating layer inception_5b/relu_pool_proj
I0403 09:49:07.743180  6831 net.cpp:91] Creating Layer inception_5b/relu_pool_proj
I0403 09:49:07.743196  6831 net.cpp:425] inception_5b/relu_pool_proj <- inception_5b/pool_proj
I0403 09:49:07.743213  6831 net.cpp:386] inception_5b/relu_pool_proj -> inception_5b/pool_proj (in-place)
I0403 09:49:07.743233  6831 net.cpp:141] Setting up inception_5b/relu_pool_proj
I0403 09:49:07.743254  6831 net.cpp:148] Top shape: 24 128 7 7 (150528)
I0403 09:49:07.743268  6831 net.cpp:156] Memory required for data: 1341024768
I0403 09:49:07.743283  6831 layer_factory.hpp:77] Creating layer inception_5b/output
I0403 09:49:07.743300  6831 net.cpp:91] Creating Layer inception_5b/output
I0403 09:49:07.743315  6831 net.cpp:425] inception_5b/output <- inception_5b/1x1
I0403 09:49:07.743338  6831 net.cpp:425] inception_5b/output <- inception_5b/3x3
I0403 09:49:07.743355  6831 net.cpp:425] inception_5b/output <- inception_5b/5x5
I0403 09:49:07.743369  6831 net.cpp:425] inception_5b/output <- inception_5b/pool_proj
I0403 09:49:07.743387  6831 net.cpp:399] inception_5b/output -> inception_5b/output
I0403 09:49:07.743428  6831 net.cpp:141] Setting up inception_5b/output
I0403 09:49:07.743453  6831 net.cpp:148] Top shape: 24 1024 7 7 (1204224)
I0403 09:49:07.743466  6831 net.cpp:156] Memory required for data: 1345841664
I0403 09:49:07.743481  6831 layer_factory.hpp:77] Creating layer pool5/7x7_s1
I0403 09:49:07.743499  6831 net.cpp:91] Creating Layer pool5/7x7_s1
I0403 09:49:07.743515  6831 net.cpp:425] pool5/7x7_s1 <- inception_5b/output
I0403 09:49:07.743535  6831 net.cpp:399] pool5/7x7_s1 -> pool5/7x7_s1
I0403 09:49:07.743574  6831 net.cpp:141] Setting up pool5/7x7_s1
I0403 09:49:07.743597  6831 net.cpp:148] Top shape: 24 1024 1 1 (24576)
I0403 09:49:07.743612  6831 net.cpp:156] Memory required for data: 1345939968
I0403 09:49:07.743625  6831 layer_factory.hpp:77] Creating layer pool5/drop_7x7_s1
I0403 09:49:07.743646  6831 net.cpp:91] Creating Layer pool5/drop_7x7_s1
I0403 09:49:07.743664  6831 net.cpp:425] pool5/drop_7x7_s1 <- pool5/7x7_s1
I0403 09:49:07.743681  6831 net.cpp:386] pool5/drop_7x7_s1 -> pool5/7x7_s1 (in-place)
I0403 09:49:07.743721  6831 net.cpp:141] Setting up pool5/drop_7x7_s1
I0403 09:49:07.743742  6831 net.cpp:148] Top shape: 24 1024 1 1 (24576)
I0403 09:49:07.743757  6831 net.cpp:156] Memory required for data: 1346038272
I0403 09:49:07.743772  6831 layer_factory.hpp:77] Creating layer loss3/classifier_plantvillage
I0403 09:49:07.743793  6831 net.cpp:91] Creating Layer loss3/classifier_plantvillage
I0403 09:49:07.743824  6831 net.cpp:425] loss3/classifier_plantvillage <- pool5/7x7_s1
I0403 09:49:07.743844  6831 net.cpp:399] loss3/classifier_plantvillage -> loss3/classifier_plantvillage
I0403 09:49:07.744185  6831 net.cpp:141] Setting up loss3/classifier_plantvillage
I0403 09:49:07.744210  6831 net.cpp:148] Top shape: 24 38 (912)
I0403 09:49:07.744225  6831 net.cpp:156] Memory required for data: 1346041920
I0403 09:49:07.744242  6831 layer_factory.hpp:77] Creating layer loss1/loss
I0403 09:49:07.744267  6831 net.cpp:91] Creating Layer loss1/loss
I0403 09:49:07.744284  6831 net.cpp:425] loss1/loss <- loss1/classifier_plantvillage
I0403 09:49:07.744313  6831 net.cpp:425] loss1/loss <- label_data_1_split_0
I0403 09:49:07.744338  6831 net.cpp:399] loss1/loss -> loss1/loss
…
I0403 09:49:07.754441  6831 net.cpp:313] The NetState phase (1) differed from the phase (0) specified by a rule in layer data
I0403 09:49:07.758399  6831 net.cpp:49] Initializing net from parameters: 
state {
  phase: TEST
}
layer {
  name: "data"
  type: "Data"
  top: "data"
  top: "label"
  include {
    phase: TEST
  }
  transform_param {
    mirror: false
    crop_size: 224
    mean_file: "/home/mohanty/data/final_dataset/lmdb/segmented-20-80/mean.binaryproto"
  }
  data_param {
    source: "/home/mohanty/data/final_dataset/lmdb/segmented-20-80/test_db"
    batch_size: 24
    backend: LMDB
  }
}
layer {
  name: "conv1/7x7_s2"
  type: "Convolution"
  bottom: "data"
  top: "conv1/7x7_s2"
  param {
    lr_mult: 1
    decay_mult: 1
  }
  param {
    lr_mult: 2
    decay_mult: 0
  }
  convolution_param {
    num_output: 64
    pad: 3
    kernel_size: 7
    stride: 2
    weight_filler {
      type: "xavier"
      std: 0.1
    }
    bias_filler {
      type: "constant"
      value: 0.2
    }
  }
}
layer {
  name: "conv1/relu_7x7"
  type: "ReLU"
  bottom: "conv1/7x7_s2"
  top: "conv1/7x7_s2"
}
layer {
  name: "pool1/3x3_s2"
  type: "Pooling"
  bottom: "conv1/7x7_s2"
  top: "pool1/3x3_s2"
  pooling_param {
    pool: MAX
    kernel_size: 3
    stride: 2
  }
}
layer {
  name: "pool1/norm1"
  type: "LRN"
  bottom: "pool1/3x3_s2"
  top: "pool1/norm1"
  lrn_param {
    local_size: 5
    alpha: 0.0001
    beta: 0.75
  }
}
layer {
  name: "conv2/3x3_reduce"
  type: "Convolution"
  bottom: "pool1/norm1"
  top: "conv2/3x3_reduce"
  param {
    lr_mult: 1
    decay_mult: 1
  }
  param {
    lr_mult: 2
    decay_mult: 0
  }
  convolution_param {
    num_output: 64
    kernel_size: 1
    weight_filler {
      type: "xavier"
      std: 0.1
    }
    bias_filler {
      type: "constant"
      value: 0.2
    }
  }
}
layer {
  name: "conv2/relu_3x3_reduce"
  type: "ReLU"
  bottom: "conv2/3x3_reduce"
  top: "conv2/3x3_reduce"
}
layer {
  name: "conv2/3x3"
  type: "Convolution"
  bottom: "conv2/3x3_reduce"
  top: "conv2/3x3"
  param {
    lr_mult: 1
    decay_mult: 1
  }
  param {
    lr_mult: 2
    decay_mult: 0
  }
  convolution_param {
    num_output: 192
    pad: 1
    kernel_size: 3
    weight_filler {
      type: "xavier"
      std: 0.03
    }
    bias_filler {
      type: "constant"
      value: 0.2
    }
  }
}
layer {
  name: "conv2/relu_3x3"
  type: "ReLU"
  bottom: "conv2/3x3"
  top: "conv2/3x3"
}
layer {
  name: "conv2/norm2"
  type: "LRN"
  bottom: "conv2/3x3"
  top: "conv2/norm2"
  lrn_param {
    local_size: 5
    alpha: 0.0001
    beta: 0.75
  }
}
layer {
  name: "pool2/3x3_s2"
  type: "Pooling"
  bottom: "conv2/norm2"
  top: "pool2/3x3_s2"
  pooling_param {
    pool: MAX
    kernel_size: 3
    stride: 2
  }
}
layer {
  name: "inception_3a/1x1"
  type: "Convolution"
  bottom: "pool2/3x3_s2"
  top: "inception_3a/1x1"
  param {
    lr_mult: 1
    decay_mult: 1
  }
  param {
    lr_mult: 2
    decay_mult: 0
  }
  convolution_param {
    num_output: 64
    kernel_size: 1
    weight_filler {
      type: "xavier"
      std: 0.03
    }
    bias_filler {
      type: "constant"
      value: 0.2
    }
  }
}
layer {
  name: "inception_3a/relu_1x1"
  type: "ReLU"
  bottom: "inception_3a/1x1"
  top: "inception_3a/1x1"
}
layer {
  name: "inception_3a/3x3_reduce"
  type: "Convolution"
  bottom: "pool2/3x3_s2"
  top: "inception_3a/3x3_reduce"
  param {
    lr_mult: 1
    decay_mult: 1
  }
  param {
    lr_mult: 2
    decay_mult: 0
  }
  convolution_param {
    num_output: 96
    kernel_size: 1
    weight_filler {
      type: "xavier"
      std: 0.09
    }
    bias_filler {
      type: "constant"
      value: 0.2
    }
  }
}
layer {
  name: "inception_3a/relu_3x3_reduce"
  type: "ReLU"
  bottom: "inception_3a/3x3_reduce"
  top: "inception_3a/3x3_reduce"
}
layer {
  name: "inception_3a/3x3"
  type: "Convolution"
  bottom: "inception_3a/3x3_reduce"
  top: "inception_3a/3x3"
  param {
    lr_mult: 1
    decay_mult: 1
  }
  param {
    lr_mult: 2
    decay_mult: 0
  }
  convolution_param {
    num_output: 128
    pad: 1
    kernel_size: 3
    weight_filler {
      type: "xavier"
      std: 0.03
    }
    bias_filler {
      type: "constant"
      value: 0.2
    }
  }
}
layer {
  name: "inception_3a/relu_3x3"
  type: "ReLU"
  bottom: "inception_3a/3x3"
  top: "inception_3a/3x3"
}
layer {
  name: "inception_3a/5x5_reduce"
  type: "Convolution"
  bottom: "pool2/3x3_s2"
  top: "inception_3a/5x5_reduce"
  param {
    lr_mult: 1
    decay_mult: 1
  }
  param {
    lr_mult: 2
    decay_mult: 0
  }
  convolution_param {
    num_output: 16
    kernel_size: 1
    weight_filler {
      type: "xavier"
      std: 0.2
    }
    bias_filler {
      type: "constant"
      value: 0.2
    }
  }
}
layer {
  name: "inception_3a/relu_5x5_reduce"
  type: "ReLU"
  bottom: "inception_3a/5x5_reduce"
  top: "inception_3a/5x5_reduce"
}
layer {
  name: "inception_3a/5x5"
  type: "Convolution"
  bottom: "inception_3a/5x5_reduce"
  top: "inception_3a/5x5"
  param {
    lr_mult: 1
    decay_mult: 1
  }
  param {
    lr_mult: 2
    decay_mult: 0
  }
  convolution_param {
    num_output: 32
    pad: 2
    kernel_size: 5
    weight_filler {
      type: "xavier"
      std: 0.03
    }
    bias_filler {
      type: "constant"
      value: 0.2
    }
  }
}
layer {
  name: "inception_3a/relu_5x5"
  type: "ReLU"
  bottom: "inception_3a/5x5"
  top: "inception_3a/5x5"
}
layer {
  name: "inception_3a/pool"
  type: "Pooling"
  bottom: "pool2/3x3_s2"
  top: "inception_3a/pool"
  pooling_param {
    pool: MAX
    kernel_size: 3
    stride: 1
    pad: 1
  }
}
layer {
  name: "inception_3a/pool_proj"
  type: "Convolution"
  bottom: "inception_3a/pool"
  top: "inception_3a/pool_proj"
  param {
    lr_mult: 1
    decay_mult: 1
  }
  param {
    lr_mult: 2
    decay_mult: 0
  }
  convolution_param {
    num_output: 32
    kernel_size: 1
    weight_filler {
      type: "xavier"
      std: 0.1
    }
    bias_filler {
      type: "constant"
      value: 0.2
    }
  }
}
layer {
  name: "inception_3a/relu_pool_proj"
  type: "ReLU"
  bottom: "inception_3a/pool_proj"
  top: "inception_3a/pool_proj"
}
layer {
  name: "inception_3a/output"
  type: "Concat"
  bottom: "inception_3a/1x1"
  bottom: "inception_3a/3x3"
  bottom: "inception_3a/5x5"
  bottom: "inception_3a/pool_proj"
  top: "inception_3a/output"
}
layer {
  name: "inception_3b/1x1"
  type: "Convolution"
  bottom: "inception_3a/output"
  top: "inception_3b/1x1"
  param {
    lr_mult: 1
    decay_mult: 1
  }
  param {
    lr_mult: 2
    decay_mult: 0
  }
  convolution_param {
    num_output: 128
    kernel_size: 1
    weight_filler {
      type: "xavier"
      std: 0.03
    }
    bias_filler {
      type: "constant"
      value: 0.2
    }
  }
}
layer {
  name: "inception_3b/relu_1x1"
  type: "ReLU"
  bottom: "inception_3b/1x1"
  top: "inception_3b/1x1"
}
layer {
  name: "inception_3b/3x3_reduce"
  type: "Convolution"
  bottom: "inception_3a/output"
  top: "inception_3b/3x3_reduce"
  param {
    lr_mult: 1
    decay_mult: 1
  }
  param {
    lr_mult: 2
    decay_mult: 0
  }
  convolution_param {
    num_output: 128
    kernel_size: 1
    weight_filler {
      type: "xavier"
      std: 0.09
    }
    bias_filler {
      type: "constant"
      value: 0.2
    }
  }
}
layer {
  name: "inception_3b/relu_3x3_reduce"
  type: "ReLU"
  bottom: "inception_3b/3x3_reduce"
  top: "inception_3b/3x3_reduce"
}
layer {
  name: "inception_3b/3x3"
  type: "Convolution"
  bottom: "inception_3b/3x3_reduce"
  top: "inception_3b/3x3"
  param {
    lr_mult: 1
    decay_mult: 1
  }
  param {
    lr_mult: 2
    decay_mult: 0
  }
  convolution_param {
    num_output: 192
    pad: 1
    kernel_size: 3
    weight_filler {
      type: "xavier"
      std: 0.03
    }
    bias_filler {
      type: "constant"
      value: 0.2
    }
  }
}
layer {
  name: "inception_3b/relu_3x3"
  type: "ReLU"
  bottom: "inception_3b/3x3"
  top: "inception_3b/3x3"
}
layer {
  name: "inception_3b/5x5_reduce"
  type: "Convolution"
  bottom: "inception_3a/output"
  top: "inception_3b/5x5_reduce"
  param {
    lr_mult: 1
    decay_mult: 1
  }
  param {
    lr_mult: 2
    decay_mult: 0
  }
  convolution_param {
    num_output: 32
    kernel_size: 1
    weight_filler {
      type: "xavier"
      std: 0.2
    }
    bias_filler {
      type: "constant"
      value: 0.2
    }
  }
}
layer {
  name: "inception_3b/relu_5x5_reduce"
  type: "ReLU"
  bottom: "inception_3b/5x5_reduce"
  top: "inception_3b/5x5_reduce"
}
layer {
  name: "inception_3b/5x5"
  type: "Convolution"
  bottom: "inception_3b/5x5_reduce"
  top: "inception_3b/5x5"
  param {
    lr_mult: 1
    decay_mult: 1
  }
  param {
    lr_mult: 2
    decay_mult: 0
  }
  convolution_param {
    num_output: 96
    pad: 2
    kernel_size: 5
    weight_filler {
      type: "xavier"
      std: 0.03
    }
    bias_filler {
      type: "constant"
      value: 0.2
    }
  }
}
layer {
  name: "inception_3b/relu_5x5"
  type: "ReLU"
  bottom: "inception_3b/5x5"
  top: "inception_3b/5x5"
}
layer {
  name: "inception_3b/pool"
  type: "Pooling"
  bottom: "inception_3a/output"
  top: "inception_3b/pool"
  pooling_param {
    pool: MAX
    kernel_size: 3
    stride: 1
    pad: 1
  }
}
layer {
  name: "inception_3b/pool_proj"
  type: "Convolution"
  bottom: "inception_3b/pool"
  top: "inception_3b/pool_proj"
  param {
    lr_mult: 1
    decay_mult: 1
  }
  param {
    lr_mult: 2
    decay_mult: 0
  }
  convolution_param {
    num_output: 64
    kernel_size: 1
    weight_filler {
      type: "xavier"
      std: 0.1
    }
    bias_filler {
      type: "constant"
      value: 0.2
    }
  }
}
layer {
  name: "inception_3b/relu_pool_proj"
  type: "ReLU"
  bottom: "inception_3b/pool_proj"
  top: "inception_3b/pool_proj"
}
layer {
  name: "inception_3b/output"
  type: "Concat"
  bottom: "inception_3b/1x1"
  bottom: "inception_3b/3x3"
  bottom: "inception_3b/5x5"
  bottom: "inception_3b/pool_proj"
  top: "inception_3b/output"
}
layer {
  name: "pool3/3x3_s2"
  type: "Pooling"
  bottom: "inception_3b/output"
  top: "pool3/3x3_s2"
  pooling_param {
    pool: MAX
    kernel_size: 3
    stride: 2
  }
}
layer {
  name: "inception_4a/1x1"
  type: "Convolution"
  bottom: "pool3/3x3_s2"
  top: "inception_4a/1x1"
  param {
    lr_mult: 1
    decay_mult: 1
  }
  param {
    lr_mult: 2
    decay_mult: 0
  }
  convolution_param {
    num_output: 192
    kernel_size: 1
    weight_filler {
      type: "xavier"
      std: 0.03
    }
    bias_filler {
      type: "constant"
      value: 0.2
    }
  }
}
layer {
  name: "inception_4a/relu_1x1"
  type: "ReLU"
  bottom: "inception_4a/1x1"
  top: "inception_4a/1x1"
}
layer {
  name: "inception_4a/3x3_reduce"
  type: "Convolution"
  bottom: "pool3/3x3_s2"
  top: "inception_4a/3x3_reduce"
  param {
    lr_mult: 1
    decay_mult: 1
  }
  param {
    lr_mult: 2
    decay_mult: 0
  }
  convolution_param {
    num_output: 96
    kernel_size: 1
    weight_filler {
      type: "xavier"
      std: 0.09
    }
    bias_filler {
      type: "constant"
      value: 0.2
    }
  }
}
layer {
  name: "inception_4a/relu_3x3_reduce"
  type: "ReLU"
  bottom: "inception_4a/3x3_reduce"
  top: "inception_4a/3x3_reduce"
}
layer {
  name: "inception_4a/3x3"
  type: "Convolution"
  bottom: "inception_4a/3x3_reduce"
  top: "inception_4a/3x3"
  param {
    lr_mult: 1
    decay_mult: 1
  }
  param {
    lr_mult: 2
    decay_mult: 0
  }
  convolution_param {
    num_output: 208
    pad: 1
    kernel_size: 3
    weight_filler {
      type: "xavier"
      std: 0.03
    }
    bias_filler {
      type: "constant"
      value: 0.2
    }
  }
}
layer {
  name: "inception_4a/relu_3x3"
  type: "ReLU"
  bottom: "inception_4a/3x3"
  top: "inception_4a/3x3"
}
layer {
  name: "inception_4a/5x5_reduce"
  type: "Convolution"
  bottom: "pool3/3x3_s2"
  top: "inception_4a/5x5_reduce"
  param {
    lr_mult: 1
    decay_mult: 1
  }
  param {
    lr_mult: 2
    decay_mult: 0
  }
  convolution_param {
    num_output: 16
    kernel_size: 1
    weight_filler {
      type: "xavier"
      std: 0.2
    }
    bias_filler {
      type: "constant"
      value: 0.2
    }
  }
}
layer {
  name: "inception_4a/relu_5x5_reduce"
  type: "ReLU"
  bottom: "inception_4a/5x5_reduce"
  top: "inception_4a/5x5_reduce"
}
layer {
  name: "inception_4a/5x5"
  type: "Convolution"
  bottom: "inception_4a/5x5_reduce"
  top: "inception_4a/5x5"
  param {
    lr_mult: 1
    decay_mult: 1
  }
  param {
    lr_mult: 2
    decay_mult: 0
  }
  convolution_param {
    num_output: 48
    pad: 2
    kernel_size: 5
    weight_filler {
      type: "xavier"
      std: 0.03
    }
    bias_filler {
      type: "constant"
      value: 0.2
    }
  }
}
layer {
  name: "inception_4a/relu_5x5"
  type: "ReLU"
  bottom: "inception_4a/5x5"
  top: "inception_4a/5x5"
}
layer {
  name: "inception_4a/pool"
  type: "Pooling"
  bottom: "pool3/3x3_s2"
  top: "inception_4a/pool"
  pooling_param {
    pool: MAX
    kernel_size: 3
    stride: 1
    pad: 1
  }
}
layer {
  name: "inception_4a/pool_proj"
  type: "Convolution"
  bottom: "inception_4a/pool"
  top: "inception_4a/pool_proj"
  param {
    lr_mult: 1
    decay_mult: 1
  }
  param {
    lr_mult: 2
    decay_mult: 0
  }
  convolution_param {
    num_output: 64
    kernel_size: 1
    weight_filler {
      type: "xavier"
      std: 0.1
    }
    bias_filler {
      type: "constant"
      value: 0.2
    }
  }
}
layer {
  name: "inception_4a/relu_pool_proj"
  type: "ReLU"
  bottom: "inception_4a/pool_proj"
  top: "inception_4a/pool_proj"
}
layer {
  name: "inception_4a/output"
  type: "Concat"
  bottom: "inception_4a/1x1"
  bottom: "inception_4a/3x3"
  bottom: "inception_4a/5x5"
  bottom: "inception_4a/pool_proj"
  top: "inception_4a/output"
}
layer {
  name: "loss1/ave_pool"
  type: "Pooling"
  bottom: "inception_4a/output"
  top: "loss1/ave_pool"
  pooling_param {
    pool: AVE
    kernel_size: 5
    stride: 3
  }
}
layer {
  name: "loss1/conv"
  type: "Convolution"
  bottom: "loss1/ave_pool"
  top: "loss1/conv"
  param {
    lr_mult: 1
    decay_mult: 1
  }
  param {
    lr_mult: 2
    decay_mult: 0
  }
  convolution_param {
    num_output: 128
    kernel_size: 1
    weight_filler {
      type: "xavier"
      std: 0.08
    }
    bias_filler {
      type: "constant"
      value: 0.2
    }
  }
}
layer {
  name: "loss1/relu_conv"
  type: "ReLU"
  bottom: "loss1/conv"
  top: "loss1/conv"
}
layer {
  name: "loss1/fc"
  type: "InnerProduct"
  bottom: "loss1/conv"
  top: "loss1/fc"
  param {
    lr_mult: 1
    decay_mult: 1
  }
  param {
    lr_mult: 2
    decay_mult: 0
  }
  inner_product_param {
    num_output: 1024
    weight_filler {
      type: "xavier"
      std: 0.02
    }
    bias_filler {
      type: "constant"
      value: 0.2
    }
  }
}
layer {
  name: "loss1/relu_fc"
  type: "ReLU"
  bottom: "loss1/fc"
  top: "loss1/fc"
}
layer {
  name: "loss1/drop_fc"
  type: "Dropout"
  bottom: "loss1/fc"
  top: "loss1/fc"
  dropout_param {
    dropout_ratio: 0.7
  }
}
layer {
  name: "loss1/classifier_plantvillage"
  type: "InnerProduct"
  bottom: "loss1/fc"
  top: "loss1/classifier_plantvillage"
  param {
    lr_mult: 1
    decay_mult: 1
  }
  param {
    lr_mult: 2
    decay_mult: 0
  }
  inner_product_param {
    num_output: 38
    weight_filler {
      type: "xavier"
      std: 0.0009765625
    }
    bias_filler {
      type: "constant"
      value: 0
    }
  }
}
layer {
  name: "inception_4b/1x1"
  type: "Convolution"
  bottom: "inception_4a/output"
  top: "inception_4b/1x1"
  param {
    lr_mult: 1
    decay_mult: 1
  }
  param {
    lr_mult: 2
    decay_mult: 0
  }
  convolution_param {
    num_output: 160
    kernel_size: 1
    weight_filler {
      type: "xavier"
      std: 0.03
    }
    bias_filler {
      type: "constant"
      value: 0.2
    }
  }
}
layer {
…
I0403 09:49:07.973342  6831 layer_factory.hpp:77] Creating layer inception_4c/pool
I0403 09:49:07.973363  6831 net.cpp:91] Creating Layer inception_4c/pool
I0403 09:49:07.973381  6831 net.cpp:425] inception_4c/pool <- inception_4b/output_inception_4b/output_0_split_3
I0403 09:49:07.973405  6831 net.cpp:399] inception_4c/pool -> inception_4c/pool
I0403 09:49:07.973469  6831 net.cpp:141] Setting up inception_4c/pool
I0403 09:49:07.973494  6831 net.cpp:148] Top shape: 24 512 14 14 (2408448)
I0403 09:49:07.973508  6831 net.cpp:156] Memory required for data: 1060605120
I0403 09:49:07.973525  6831 layer_factory.hpp:77] Creating layer inception_4c/pool_proj
I0403 09:49:07.973549  6831 net.cpp:91] Creating Layer inception_4c/pool_proj
I0403 09:49:07.973568  6831 net.cpp:425] inception_4c/pool_proj <- inception_4c/pool
I0403 09:49:07.973590  6831 net.cpp:399] inception_4c/pool_proj -> inception_4c/pool_proj
I0403 09:49:07.974104  6831 net.cpp:141] Setting up inception_4c/pool_proj
I0403 09:49:07.974133  6831 net.cpp:148] Top shape: 24 64 14 14 (301056)
I0403 09:49:07.974148  6831 net.cpp:156] Memory required for data: 1061809344
I0403 09:49:07.974167  6831 layer_factory.hpp:77] Creating layer inception_4c/relu_pool_proj
I0403 09:49:07.974186  6831 net.cpp:91] Creating Layer inception_4c/relu_pool_proj
I0403 09:49:07.974203  6831 net.cpp:425] inception_4c/relu_pool_proj <- inception_4c/pool_proj
I0403 09:49:07.974222  6831 net.cpp:386] inception_4c/relu_pool_proj -> inception_4c/pool_proj (in-place)
I0403 09:49:07.974241  6831 net.cpp:141] Setting up inception_4c/relu_pool_proj
I0403 09:49:07.974258  6831 net.cpp:148] Top shape: 24 64 14 14 (301056)
I0403 09:49:07.974273  6831 net.cpp:156] Memory required for data: 1063013568
I0403 09:49:07.974287  6831 layer_factory.hpp:77] Creating layer inception_4c/output
I0403 09:49:07.974308  6831 net.cpp:91] Creating Layer inception_4c/output
I0403 09:49:07.974333  6831 net.cpp:425] inception_4c/output <- inception_4c/1x1
I0403 09:49:07.974351  6831 net.cpp:425] inception_4c/output <- inception_4c/3x3
I0403 09:49:07.974367  6831 net.cpp:425] inception_4c/output <- inception_4c/5x5
I0403 09:49:07.974385  6831 net.cpp:425] inception_4c/output <- inception_4c/pool_proj
I0403 09:49:07.974402  6831 net.cpp:399] inception_4c/output -> inception_4c/output
I0403 09:49:07.974450  6831 net.cpp:141] Setting up inception_4c/output
I0403 09:49:07.974474  6831 net.cpp:148] Top shape: 24 512 14 14 (2408448)
I0403 09:49:07.974490  6831 net.cpp:156] Memory required for data: 1072647360
I0403 09:49:07.974504  6831 layer_factory.hpp:77] Creating layer inception_4c/output_inception_4c/output_0_split
I0403 09:49:07.974524  6831 net.cpp:91] Creating Layer inception_4c/output_inception_4c/output_0_split
I0403 09:49:07.974540  6831 net.cpp:425] inception_4c/output_inception_4c/output_0_split <- inception_4c/output
I0403 09:49:07.974561  6831 net.cpp:399] inception_4c/output_inception_4c/output_0_split -> inception_4c/output_inception_4c/output_0_split_0
I0403 09:49:07.974584  6831 net.cpp:399] inception_4c/output_inception_4c/output_0_split -> inception_4c/output_inception_4c/output_0_split_1
I0403 09:49:07.974606  6831 net.cpp:399] inception_4c/output_inception_4c/output_0_split -> inception_4c/output_inception_4c/output_0_split_2
I0403 09:49:07.974627  6831 net.cpp:399] inception_4c/output_inception_4c/output_0_split -> inception_4c/output_inception_4c/output_0_split_3
I0403 09:49:07.974728  6831 net.cpp:141] Setting up inception_4c/output_inception_4c/output_0_split
I0403 09:49:07.974756  6831 net.cpp:148] Top shape: 24 512 14 14 (2408448)
I0403 09:49:07.974774  6831 net.cpp:148] Top shape: 24 512 14 14 (2408448)
I0403 09:49:07.974792  6831 net.cpp:148] Top shape: 24 512 14 14 (2408448)
I0403 09:49:07.974807  6831 net.cpp:148] Top shape: 24 512 14 14 (2408448)
I0403 09:49:07.974822  6831 net.cpp:156] Memory required for data: 1111182528
I0403 09:49:07.974836  6831 layer_factory.hpp:77] Creating layer inception_4d/1x1
I0403 09:49:07.974860  6831 net.cpp:91] Creating Layer inception_4d/1x1
I0403 09:49:07.974879  6831 net.cpp:425] inception_4d/1x1 <- inception_4c/output_inception_4c/output_0_split_0
I0403 09:49:07.974900  6831 net.cpp:399] inception_4d/1x1 -> inception_4d/1x1
I0403 09:49:07.975561  6831 net.cpp:141] Setting up inception_4d/1x1
I0403 09:49:07.975589  6831 net.cpp:148] Top shape: 24 112 14 14 (526848)
I0403 09:49:07.975605  6831 net.cpp:156] Memory required for data: 1113289920
I0403 09:49:07.975625  6831 layer_factory.hpp:77] Creating layer inception_4d/relu_1x1
I0403 09:49:07.975643  6831 net.cpp:91] Creating Layer inception_4d/relu_1x1
I0403 09:49:07.975661  6831 net.cpp:425] inception_4d/relu_1x1 <- inception_4d/1x1
I0403 09:49:07.975682  6831 net.cpp:386] inception_4d/relu_1x1 -> inception_4d/1x1 (in-place)
I0403 09:49:07.975704  6831 net.cpp:141] Setting up inception_4d/relu_1x1
I0403 09:49:07.975723  6831 net.cpp:148] Top shape: 24 112 14 14 (526848)
I0403 09:49:07.975738  6831 net.cpp:156] Memory required for data: 1115397312
I0403 09:49:07.975752  6831 layer_factory.hpp:77] Creating layer inception_4d/3x3_reduce
I0403 09:49:07.975774  6831 net.cpp:91] Creating Layer inception_4d/3x3_reduce
I0403 09:49:07.975791  6831 net.cpp:425] inception_4d/3x3_reduce <- inception_4c/output_inception_4c/output_0_split_1
I0403 09:49:07.975814  6831 net.cpp:399] inception_4d/3x3_reduce -> inception_4d/3x3_reduce
I0403 09:49:07.976536  6831 net.cpp:141] Setting up inception_4d/3x3_reduce
I0403 09:49:07.976563  6831 net.cpp:148] Top shape: 24 144 14 14 (677376)
I0403 09:49:07.976578  6831 net.cpp:156] Memory required for data: 1118106816
I0403 09:49:07.976598  6831 layer_factory.hpp:77] Creating layer inception_4d/relu_3x3_reduce
I0403 09:49:07.976618  6831 net.cpp:91] Creating Layer inception_4d/relu_3x3_reduce
I0403 09:49:07.976634  6831 net.cpp:425] inception_4d/relu_3x3_reduce <- inception_4d/3x3_reduce
I0403 09:49:07.976655  6831 net.cpp:386] inception_4d/relu_3x3_reduce -> inception_4d/3x3_reduce (in-place)
I0403 09:49:07.976675  6831 net.cpp:141] Setting up inception_4d/relu_3x3_reduce
I0403 09:49:07.976693  6831 net.cpp:148] Top shape: 24 144 14 14 (677376)
I0403 09:49:07.976708  6831 net.cpp:156] Memory required for data: 1120816320
I0403 09:49:07.976723  6831 layer_factory.hpp:77] Creating layer inception_4d/3x3
I0403 09:49:07.976748  6831 net.cpp:91] Creating Layer inception_4d/3x3
I0403 09:49:07.976766  6831 net.cpp:425] inception_4d/3x3 <- inception_4d/3x3_reduce
I0403 09:49:07.976786  6831 net.cpp:399] inception_4d/3x3 -> inception_4d/3x3
I0403 09:49:07.980432  6831 net.cpp:141] Setting up inception_4d/3x3
I0403 09:49:07.980463  6831 net.cpp:148] Top shape: 24 288 14 14 (1354752)
I0403 09:49:07.980479  6831 net.cpp:156] Memory required for data: 1126235328
I0403 09:49:07.980499  6831 layer_factory.hpp:77] Creating layer inception_4d/relu_3x3
I0403 09:49:07.980530  6831 net.cpp:91] Creating Layer inception_4d/relu_3x3
I0403 09:49:07.980546  6831 net.cpp:425] inception_4d/relu_3x3 <- inception_4d/3x3
I0403 09:49:07.980566  6831 net.cpp:386] inception_4d/relu_3x3 -> inception_4d/3x3 (in-place)
I0403 09:49:07.980586  6831 net.cpp:141] Setting up inception_4d/relu_3x3
I0403 09:49:07.980603  6831 net.cpp:148] Top shape: 24 288 14 14 (1354752)
I0403 09:49:07.980618  6831 net.cpp:156] Memory required for data: 1131654336
I0403 09:49:07.980633  6831 layer_factory.hpp:77] Creating layer inception_4d/5x5_reduce
I0403 09:49:07.980674  6831 net.cpp:91] Creating Layer inception_4d/5x5_reduce
I0403 09:49:07.980705  6831 net.cpp:425] inception_4d/5x5_reduce <- inception_4c/output_inception_4c/output_0_split_2
I0403 09:49:07.980726  6831 net.cpp:399] inception_4d/5x5_reduce -> inception_4d/5x5_reduce
I0403 09:49:07.981091  6831 net.cpp:141] Setting up inception_4d/5x5_reduce
I0403 09:49:07.981115  6831 net.cpp:148] Top shape: 24 32 14 14 (150528)
I0403 09:49:07.981132  6831 net.cpp:156] Memory required for data: 1132256448
I0403 09:49:07.981149  6831 layer_factory.hpp:77] Creating layer inception_4d/relu_5x5_reduce
I0403 09:49:07.981168  6831 net.cpp:91] Creating Layer inception_4d/relu_5x5_reduce
I0403 09:49:07.981184  6831 net.cpp:425] inception_4d/relu_5x5_reduce <- inception_4d/5x5_reduce
I0403 09:49:07.981202  6831 net.cpp:386] inception_4d/relu_5x5_reduce -> inception_4d/5x5_reduce (in-place)
I0403 09:49:07.981221  6831 net.cpp:141] Setting up inception_4d/relu_5x5_reduce
I0403 09:49:07.981237  6831 net.cpp:148] Top shape: 24 32 14 14 (150528)
I0403 09:49:07.981252  6831 net.cpp:156] Memory required for data: 1132858560
I0403 09:49:07.981267  6831 layer_factory.hpp:77] Creating layer inception_4d/5x5
I0403 09:49:07.981290  6831 net.cpp:91] Creating Layer inception_4d/5x5
I0403 09:49:07.981308  6831 net.cpp:425] inception_4d/5x5 <- inception_4d/5x5_reduce
I0403 09:49:07.981336  6831 net.cpp:399] inception_4d/5x5 -> inception_4d/5x5
I0403 09:49:07.981984  6831 net.cpp:141] Setting up inception_4d/5x5
I0403 09:49:07.982012  6831 net.cpp:148] Top shape: 24 64 14 14 (301056)
I0403 09:49:07.982028  6831 net.cpp:156] Memory required for data: 1134062784
I0403 09:49:07.982046  6831 layer_factory.hpp:77] Creating layer inception_4d/relu_5x5
I0403 09:49:07.982065  6831 net.cpp:91] Creating Layer inception_4d/relu_5x5
I0403 09:49:07.982082  6831 net.cpp:425] inception_4d/relu_5x5 <- inception_4d/5x5
I0403 09:49:07.982100  6831 net.cpp:386] inception_4d/relu_5x5 -> inception_4d/5x5 (in-place)
I0403 09:49:07.982120  6831 net.cpp:141] Setting up inception_4d/relu_5x5
I0403 09:49:07.982137  6831 net.cpp:148] Top shape: 24 64 14 14 (301056)
I0403 09:49:07.982151  6831 net.cpp:156] Memory required for data: 1135267008
I0403 09:49:07.982167  6831 layer_factory.hpp:77] Creating layer inception_4d/pool
I0403 09:49:07.982187  6831 net.cpp:91] Creating Layer inception_4d/pool
I0403 09:49:07.982204  6831 net.cpp:425] inception_4d/pool <- inception_4c/output_inception_4c/output_0_split_3
I0403 09:49:07.982223  6831 net.cpp:399] inception_4d/pool -> inception_4d/pool
I0403 09:49:07.982281  6831 net.cpp:141] Setting up inception_4d/pool
I0403 09:49:07.982306  6831 net.cpp:148] Top shape: 24 512 14 14 (2408448)
I0403 09:49:07.982326  6831 net.cpp:156] Memory required for data: 1144900800
I0403 09:49:07.982342  6831 layer_factory.hpp:77] Creating layer inception_4d/pool_proj
I0403 09:49:07.982367  6831 net.cpp:91] Creating Layer inception_4d/pool_proj
I0403 09:49:07.982385  6831 net.cpp:425] inception_4d/pool_proj <- inception_4d/pool
I0403 09:49:07.982406  6831 net.cpp:399] inception_4d/pool_proj -> inception_4d/pool_proj
I0403 09:49:07.982911  6831 net.cpp:141] Setting up inception_4d/pool_proj
I0403 09:49:07.982940  6831 net.cpp:148] Top shape: 24 64 14 14 (301056)
I0403 09:49:07.982956  6831 net.cpp:156] Memory required for data: 1146105024
I0403 09:49:07.982975  6831 layer_factory.hpp:77] Creating layer inception_4d/relu_pool_proj
I0403 09:49:07.982993  6831 net.cpp:91] Creating Layer inception_4d/relu_pool_proj
I0403 09:49:07.983011  6831 net.cpp:425] inception_4d/relu_pool_proj <- inception_4d/pool_proj
I0403 09:49:07.983028  6831 net.cpp:386] inception_4d/relu_pool_proj -> inception_4d/pool_proj (in-place)
I0403 09:49:07.983048  6831 net.cpp:141] Setting up inception_4d/relu_pool_proj
I0403 09:49:07.983065  6831 net.cpp:148] Top shape: 24 64 14 14 (301056)
I0403 09:49:07.983079  6831 net.cpp:156] Memory required for data: 1147309248
I0403 09:49:07.983094  6831 layer_factory.hpp:77] Creating layer inception_4d/output
I0403 09:49:07.983129  6831 net.cpp:91] Creating Layer inception_4d/output
I0403 09:49:07.983145  6831 net.cpp:425] inception_4d/output <- inception_4d/1x1
I0403 09:49:07.983163  6831 net.cpp:425] inception_4d/output <- inception_4d/3x3
I0403 09:49:07.983180  6831 net.cpp:425] inception_4d/output <- inception_4d/5x5
I0403 09:49:07.983196  6831 net.cpp:425] inception_4d/output <- inception_4d/pool_proj
I0403 09:49:07.983216  6831 net.cpp:399] inception_4d/output -> inception_4d/output
I0403 09:49:07.983258  6831 net.cpp:141] Setting up inception_4d/output
I0403 09:49:07.983285  6831 net.cpp:148] Top shape: 24 528 14 14 (2483712)
I0403 09:49:07.983302  6831 net.cpp:156] Memory required for data: 1157244096
I0403 09:49:07.983327  6831 layer_factory.hpp:77] Creating layer inception_4d/output_inception_4d/output_0_split
I0403 09:49:07.983350  6831 net.cpp:91] Creating Layer inception_4d/output_inception_4d/output_0_split
I0403 09:49:07.983366  6831 net.cpp:425] inception_4d/output_inception_4d/output_0_split <- inception_4d/output
I0403 09:49:07.983384  6831 net.cpp:399] inception_4d/output_inception_4d/output_0_split -> inception_4d/output_inception_4d/output_0_split_0
I0403 09:49:07.983405  6831 net.cpp:399] inception_4d/output_inception_4d/output_0_split -> inception_4d/output_inception_4d/output_0_split_1
I0403 09:49:07.983427  6831 net.cpp:399] inception_4d/output_inception_4d/output_0_split -> inception_4d/output_inception_4d/output_0_split_2
I0403 09:49:07.983449  6831 net.cpp:399] inception_4d/output_inception_4d/output_0_split -> inception_4d/output_inception_4d/output_0_split_3
I0403 09:49:07.983470  6831 net.cpp:399] inception_4d/output_inception_4d/output_0_split -> inception_4d/output_inception_4d/output_0_split_4
I0403 09:49:07.983561  6831 net.cpp:141] Setting up inception_4d/output_inception_4d/output_0_split
I0403 09:49:07.983584  6831 net.cpp:148] Top shape: 24 528 14 14 (2483712)
I0403 09:49:07.983602  6831 net.cpp:148] Top shape: 24 528 14 14 (2483712)
I0403 09:49:07.983618  6831 net.cpp:148] Top shape: 24 528 14 14 (2483712)
I0403 09:49:07.983633  6831 net.cpp:148] Top shape: 24 528 14 14 (2483712)
I0403 09:49:07.983649  6831 net.cpp:148] Top shape: 24 528 14 14 (2483712)
I0403 09:49:07.983662  6831 net.cpp:156] Memory required for data: 1206918336
I0403 09:49:07.983677  6831 layer_factory.hpp:77] Creating layer loss2/ave_pool
I0403 09:49:07.983697  6831 net.cpp:91] Creating Layer loss2/ave_pool
I0403 09:49:07.983716  6831 net.cpp:425] loss2/ave_pool <- inception_4d/output_inception_4d/output_0_split_0
I0403 09:49:07.983734  6831 net.cpp:399] loss2/ave_pool -> loss2/ave_pool
I0403 09:49:07.983779  6831 net.cpp:141] Setting up loss2/ave_pool
I0403 09:49:07.983803  6831 net.cpp:148] Top shape: 24 528 4 4 (202752)
I0403 09:49:07.983819  6831 net.cpp:156] Memory required for data: 1207729344
I0403 09:49:07.983834  6831 layer_factory.hpp:77] Creating layer loss2/conv
I0403 09:49:07.983856  6831 net.cpp:91] Creating Layer loss2/conv
I0403 09:49:07.983875  6831 net.cpp:425] loss2/conv <- loss2/ave_pool
I0403 09:49:07.983893  6831 net.cpp:399] loss2/conv -> loss2/conv
I0403 09:49:07.985128  6831 net.cpp:141] Setting up loss2/conv
I0403 09:49:07.985157  6831 net.cpp:148] Top shape: 24 128 4 4 (49152)
I0403 09:49:07.985173  6831 net.cpp:156] Memory required for data: 1207925952
I0403 09:49:07.985193  6831 layer_factory.hpp:77] Creating layer loss2/relu_conv
I0403 09:49:07.985211  6831 net.cpp:91] Creating Layer loss2/relu_conv
I0403 09:49:07.985229  6831 net.cpp:425] loss2/relu_conv <- loss2/conv
I0403 09:49:07.985249  6831 net.cpp:386] loss2/relu_conv -> loss2/conv (in-place)
I0403 09:49:07.985270  6831 net.cpp:141] Setting up loss2/relu_conv
I0403 09:49:07.985288  6831 net.cpp:148] Top shape: 24 128 4 4 (49152)
I0403 09:49:07.985303  6831 net.cpp:156] Memory required for data: 1208122560
I0403 09:49:07.985322  6831 layer_factory.hpp:77] Creating layer loss2/fc
I0403 09:49:07.985345  6831 net.cpp:91] Creating Layer loss2/fc
I0403 09:49:07.985363  6831 net.cpp:425] loss2/fc <- loss2/conv
I0403 09:49:07.985383  6831 net.cpp:399] loss2/fc -> loss2/fc
I0403 09:49:08.002102  6831 net.cpp:141] Setting up loss2/fc
I0403 09:49:08.002152  6831 net.cpp:148] Top shape: 24 1024 (24576)
I0403 09:49:08.002168  6831 net.cpp:156] Memory required for data: 1208220864
I0403 09:49:08.002188  6831 layer_factory.hpp:77] Creating layer loss2/relu_fc
I0403 09:49:08.002209  6831 net.cpp:91] Creating Layer loss2/relu_fc
I0403 09:49:08.002226  6831 net.cpp:425] loss2/relu_fc <- loss2/fc
I0403 09:49:08.002248  6831 net.cpp:386] loss2/relu_fc -> loss2/fc (in-place)
I0403 09:49:08.002269  6831 net.cpp:141] Setting up loss2/relu_fc
I0403 09:49:08.002286  6831 net.cpp:148] Top shape: 24 1024 (24576)
I0403 09:49:08.002300  6831 net.cpp:156] Memory required for data: 1208319168
I0403 09:49:08.002315  6831 layer_factory.hpp:77] Creating layer loss2/drop_fc
I0403 09:49:08.002339  6831 net.cpp:91] Creating Layer loss2/drop_fc
I0403 09:49:08.002357  6831 net.cpp:425] loss2/drop_fc <- loss2/fc
I0403 09:49:08.002377  6831 net.cpp:386] loss2/drop_fc -> loss2/fc (in-place)
I0403 09:49:08.002424  6831 net.cpp:141] Setting up loss2/drop_fc
I0403 09:49:08.002445  6831 net.cpp:148] Top shape: 24 1024 (24576)
I0403 09:49:08.002460  6831 net.cpp:156] Memory required for data: 1208417472
I0403 09:49:08.002475  6831 layer_factory.hpp:77] Creating layer loss2/classifier_plantvillage
I0403 09:49:08.002496  6831 net.cpp:91] Creating Layer loss2/classifier_plantvillage
I0403 09:49:08.002514  6831 net.cpp:425] loss2/classifier_plantvillage <- loss2/fc
I0403 09:49:08.002535  6831 net.cpp:399] loss2/classifier_plantvillage -> loss2/classifier_plantvillage
I0403 09:49:08.002889  6831 net.cpp:141] Setting up loss2/classifier_plantvillage
I0403 09:49:08.002914  6831 net.cpp:148] Top shape: 24 38 (912)
I0403 09:49:08.002930  6831 net.cpp:156] Memory required for data: 1208421120
I0403 09:49:08.002948  6831 layer_factory.hpp:77] Creating layer loss2/classifier_plantvillage_loss2/classifier_plantvillage_0_split
I0403 09:49:08.002966  6831 net.cpp:91] Creating Layer loss2/classifier_plantvillage_loss2/classifier_plantvillage_0_split
I0403 09:49:08.002982  6831 net.cpp:425] loss2/classifier_plantvillage_loss2/classifier_plantvillage_0_split <- loss2/classifier_plantvillage
I0403 09:49:08.003005  6831 net.cpp:399] loss2/classifier_plantvillage_loss2/classifier_plantvillage_0_split -> loss2/classifier_plantvillage_loss2/classifier_plantvillage_0_split_0
I0403 09:49:08.003026  6831 net.cpp:399] loss2/classifier_plantvillage_loss2/classifier_plantvillage_0_split -> loss2/classifier_plantvillage_loss2/classifier_plantvillage_0_split_1
I0403 09:49:08.003047  6831 net.cpp:399] loss2/classifier_plantvillage_loss2/classifier_plantvillage_0_split -> loss2/classifier_plantvillage_loss2/classifier_plantvillage_0_split_2
I0403 09:49:08.003115  6831 net.cpp:141] Setting up loss2/classifier_plantvillage_loss2/classifier_plantvillage_0_split
I0403 09:49:08.003141  6831 net.cpp:148] Top shape: 24 38 (912)
I0403 09:49:08.003159  6831 net.cpp:148] Top shape: 24 38 (912)
I0403 09:49:08.003173  6831 net.cpp:148] Top shape: 24 38 (912)
I0403 09:49:08.003187  6831 net.cpp:156] Memory required for data: 1208432064
I0403 09:49:08.003202  6831 layer_factory.hpp:77] Creating layer inception_4e/1x1
I0403 09:49:08.003224  6831 net.cpp:91] Creating Layer inception_4e/1x1
I0403 09:49:08.003242  6831 net.cpp:425] inception_4e/1x1 <- inception_4d/output_inception_4d/output_0_split_1
I0403 09:49:08.003262  6831 net.cpp:399] inception_4e/1x1 -> inception_4e/1x1
I0403 09:49:08.004334  6831 net.cpp:141] Setting up inception_4e/1x1
I0403 09:49:08.004362  6831 net.cpp:148] Top shape: 24 256 14 14 (1204224)
I0403 09:49:08.004377  6831 net.cpp:156] Memory required for data: 1213248960
I0403 09:49:08.004395  6831 layer_factory.hpp:77] Creating layer inception_4e/relu_1x1
I0403 09:49:08.004413  6831 net.cpp:91] Creating Layer inception_4e/relu_1x1
I0403 09:49:08.004429  6831 net.cpp:425] inception_4e/relu_1x1 <- inception_4e/1x1
I0403 09:49:08.004451  6831 net.cpp:386] inception_4e/relu_1x1 -> inception_4e/1x1 (in-place)
I0403 09:49:08.004494  6831 net.cpp:141] Setting up inception_4e/relu_1x1
I0403 09:49:08.004513  6831 net.cpp:148] Top shape: 24 256 14 14 (1204224)
I0403 09:49:08.004528  6831 net.cpp:156] Memory required for data: 1218065856
I0403 09:49:08.004541  6831 layer_factory.hpp:77] Creating layer inception_4e/3x3_reduce
I0403 09:49:08.004562  6831 net.cpp:91] Creating Layer inception_4e/3x3_reduce
I0403 09:49:08.004580  6831 net.cpp:425] inception_4e/3x3_reduce <- inception_4d/output_inception_4d/output_0_split_2
I0403 09:49:08.004601  6831 net.cpp:399] inception_4e/3x3_reduce -> inception_4e/3x3_reduce
I0403 09:49:08.005925  6831 net.cpp:141] Setting up inception_4e/3x3_reduce
I0403 09:49:08.005954  6831 net.cpp:148] Top shape: 24 160 14 14 (752640)
I0403 09:49:08.005970  6831 net.cpp:156] Memory required for data: 1221076416
I0403 09:49:08.005988  6831 layer_factory.hpp:77] Creating layer inception_4e/relu_3x3_reduce
I0403 09:49:08.006009  6831 net.cpp:91] Creating Layer inception_4e/relu_3x3_reduce
I0403 09:49:08.006027  6831 net.cpp:425] inception_4e/relu_3x3_reduce <- inception_4e/3x3_reduce
I0403 09:49:08.006045  6831 net.cpp:386] inception_4e/relu_3x3_reduce -> inception_4e/3x3_reduce (in-place)
I0403 09:49:08.006064  6831 net.cpp:141] Setting up inception_4e/relu_3x3_reduce
I0403 09:49:08.006081  6831 net.cpp:148] Top shape: 24 160 14 14 (752640)
I0403 09:49:08.006095  6831 net.cpp:156] Memory required for data: 1224086976
I0403 09:49:08.006109  6831 layer_factory.hpp:77] Creating layer inception_4e/3x3
I0403 09:49:08.006178  6831 net.cpp:91] Creating Layer inception_4e/3x3
I0403 09:49:08.006201  6831 net.cpp:425] inception_4e/3x3 <- inception_4e/3x3_reduce
I0403 09:49:08.006222  6831 net.cpp:399] inception_4e/3x3 -> inception_4e/3x3
I0403 09:49:08.010154  6831 net.cpp:141] Setting up inception_4e/3x3
I0403 09:49:08.010181  6831 net.cpp:148] Top shape: 24 320 14 14 (1505280)
I0403 09:49:08.010197  6831 net.cpp:156] Memory required for data: 1230108096
I0403 09:49:08.010215  6831 layer_factory.hpp:77] Creating layer inception_4e/relu_3x3
I0403 09:49:08.010234  6831 net.cpp:91] Creating Layer inception_4e/relu_3x3
I0403 09:49:08.010251  6831 net.cpp:425] inception_4e/relu_3x3 <- inception_4e/3x3
I0403 09:49:08.010270  6831 net.cpp:386] inception_4e/relu_3x3 -> inception_4e/3x3 (in-place)
I0403 09:49:08.010291  6831 net.cpp:141] Setting up inception_4e/relu_3x3
I0403 09:49:08.010308  6831 net.cpp:148] Top shape: 24 320 14 14 (1505280)
I0403 09:49:08.010339  6831 net.cpp:156] Memory required for data: 1236129216
I0403 09:49:08.010357  6831 layer_factory.hpp:77] Creating layer inception_4e/5x5_reduce
I0403 09:49:08.010381  6831 net.cpp:91] Creating Layer inception_4e/5x5_reduce
I0403 09:49:08.010401  6831 net.cpp:425] inception_4e/5x5_reduce <- inception_4d/output_inception_4d/output_0_split_3
I0403 09:49:08.010421  6831 net.cpp:399] inception_4e/5x5_reduce -> inception_4e/5x5_reduce
I0403 09:49:08.011332  6831 net.cpp:141] Setting up inception_4e/5x5_reduce
I0403 09:49:08.011363  6831 net.cpp:148] Top shape: 24 32 14 14 (150528)
I0403 09:49:08.011379  6831 net.cpp:156] Memory required for data: 1236731328
I0403 09:49:08.011396  6831 layer_factory.hpp:77] Creating layer inception_4e/relu_5x5_reduce
I0403 09:49:08.011415  6831 net.cpp:91] Creating Layer inception_4e/relu_5x5_reduce
I0403 09:49:08.011430  6831 net.cpp:425] inception_4e/relu_5x5_reduce <- inception_4e/5x5_reduce
I0403 09:49:08.011447  6831 net.cpp:386] inception_4e/relu_5x5_reduce -> inception_4e/5x5_reduce (in-place)
I0403 09:49:08.011467  6831 net.cpp:141] Setting up inception_4e/relu_5x5_reduce
I0403 09:49:08.011484  6831 net.cpp:148] Top shape: 24 32 14 14 (150528)
I0403 09:49:08.011499  6831 net.cpp:156] Memory required for data: 1237333440
I0403 09:49:08.011513  6831 layer_factory.hpp:77] Creating layer inception_4e/5x5
I0403 09:49:08.011551  6831 net.cpp:91] Creating Layer inception_4e/5x5
I0403 09:49:08.011571  6831 net.cpp:425] inception_4e/5x5 <- inception_4e/5x5_reduce
I0403 09:49:08.011590  6831 net.cpp:399] inception_4e/5x5 -> inception_4e/5x5
I0403 09:49:08.012521  6831 net.cpp:141] Setting up inception_4e/5x5
I0403 09:49:08.012548  6831 net.cpp:148] Top shape: 24 128 14 14 (602112)
I0403 09:49:08.012563  6831 net.cpp:156] Memory required for data: 1239741888
I0403 09:49:08.012583  6831 layer_factory.hpp:77] Creating layer inception_4e/relu_5x5
I0403 09:49:08.012603  6831 net.cpp:91] Creating Layer inception_4e/relu_5x5
I0403 09:49:08.012619  6831 net.cpp:425] inception_4e/relu_5x5 <- inception_4e/5x5
I0403 09:49:08.012639  6831 net.cpp:386] inception_4e/relu_5x5 -> inception_4e/5x5 (in-place)
I0403 09:49:08.012660  6831 net.cpp:141] Setting up inception_4e/relu_5x5
I0403 09:49:08.012677  6831 net.cpp:148] Top shape: 24 128 14 14 (602112)
I0403 09:49:08.012692  6831 net.cpp:156] Memory required for data: 1242150336
I0403 09:49:08.012707  6831 layer_factory.hpp:77] Creating layer inception_4e/pool
I0403 09:49:08.012725  6831 net.cpp:91] Creating Layer inception_4e/pool
I0403 09:49:08.012742  6831 net.cpp:425] inception_4e/pool <- inception_4d/output_inception_4d/output_0_split_4
I0403 09:49:08.012760  6831 net.cpp:399] inception_4e/pool -> inception_4e/pool
I0403 09:49:08.012817  6831 net.cpp:141] Setting up inception_4e/pool
I0403 09:49:08.012841  6831 net.cpp:148] Top shape: 24 528 14 14 (2483712)
I0403 09:49:08.012857  6831 net.cpp:156] Memory required for data: 1252085184
I0403 09:49:08.012872  6831 layer_factory.hpp:77] Creating layer inception_4e/pool_proj
I0403 09:49:08.012897  6831 net.cpp:91] Creating Layer inception_4e/pool_proj
I0403 09:49:08.012914  6831 net.cpp:425] inception_4e/pool_proj <- inception_4e/pool
I0403 09:49:08.012936  6831 net.cpp:399] inception_4e/pool_proj -> inception_4e/pool_proj
I0403 09:49:08.013550  6831 net.cpp:141] Setting up inception_4e/pool_proj
I0403 09:49:08.013576  6831 net.cpp:148] Top shape: 24 128 14 14 (602112)
I0403 09:49:08.013592  6831 net.cpp:156] Memory required for data: 1254493632
I0403 09:49:08.013612  6831 layer_factory.hpp:77] Creating layer inception_4e/relu_pool_proj
I0403 09:49:08.013676  6831 net.cpp:91] Creating Layer inception_4e/relu_pool_proj
I0403 09:49:08.013700  6831 net.cpp:425] inception_4e/relu_pool_proj <- inception_4e/pool_proj
I0403 09:49:08.013720  6831 net.cpp:386] inception_4e/relu_pool_proj -> inception_4e/pool_proj (in-place)
I0403 09:49:08.013739  6831 net.cpp:141] Setting up inception_4e/relu_pool_proj
I0403 09:49:08.013758  6831 net.cpp:148] Top shape: 24 128 14 14 (602112)
I0403 09:49:08.013774  6831 net.cpp:156] Memory required for data: 1256902080
I0403 09:49:08.013789  6831 layer_factory.hpp:77] Creating layer inception_4e/output
I0403 09:49:08.013806  6831 net.cpp:91] Creating Layer inception_4e/output
I0403 09:49:08.013823  6831 net.cpp:425] inception_4e/output <- inception_4e/1x1
I0403 09:49:08.013840  6831 net.cpp:425] inception_4e/output <- inception_4e/3x3
I0403 09:49:08.013856  6831 net.cpp:425] inception_4e/output <- inception_4e/5x5
I0403 09:49:08.013872  6831 net.cpp:425] inception_4e/output <- inception_4e/pool_proj
I0403 09:49:08.013893  6831 net.cpp:399] inception_4e/output -> inception_4e/output
I0403 09:49:08.013936  6831 net.cpp:141] Setting up inception_4e/output
I0403 09:49:08.013962  6831 net.cpp:148] Top shape: 24 832 14 14 (3913728)
I0403 09:49:08.013979  6831 net.cpp:156] Memory required for data: 1272556992
I0403 09:49:08.013994  6831 layer_factory.hpp:77] Creating layer pool4/3x3_s2
I0403 09:49:08.014014  6831 net.cpp:91] Creating Layer pool4/3x3_s2
I0403 09:49:08.014029  6831 net.cpp:425] pool4/3x3_s2 <- inception_4e/output
I0403 09:49:08.014047  6831 net.cpp:399] pool4/3x3_s2 -> pool4/3x3_s2
I0403 09:49:08.014101  6831 net.cpp:141] Setting up pool4/3x3_s2
I0403 09:49:08.014124  6831 net.cpp:148] Top shape: 24 832 7 7 (978432)
I0403 09:49:08.014139  6831 net.cpp:156] Memory required for data: 1276470720
I0403 09:49:08.014154  6831 layer_factory.hpp:77] Creating layer pool4/3x3_s2_pool4/3x3_s2_0_split
I0403 09:49:08.014173  6831 net.cpp:91] Creating Layer pool4/3x3_s2_pool4/3x3_s2_0_split
I0403 09:49:08.014189  6831 net.cpp:425] pool4/3x3_s2_pool4/3x3_s2_0_split <- pool4/3x3_s2
I0403 09:49:08.014225  6831 net.cpp:399] pool4/3x3_s2_pool4/3x3_s2_0_split -> pool4/3x3_s2_pool4/3x3_s2_0_split_0
I0403 09:49:08.014247  6831 net.cpp:399] pool4/3x3_s2_pool4/3x3_s2_0_split -> pool4/3x3_s2_pool4/3x3_s2_0_split_1
I0403 09:49:08.014267  6831 net.cpp:399] pool4/3x3_s2_pool4/3x3_s2_0_split -> pool4/3x3_s2_pool4/3x3_s2_0_split_2
I0403 09:49:08.014288  6831 net.cpp:399] pool4/3x3_s2_pool4/3x3_s2_0_split -> pool4/3x3_s2_pool4/3x3_s2_0_split_3
I0403 09:49:08.014363  6831 net.cpp:141] Setting up pool4/3x3_s2_pool4/3x3_s2_0_split
I0403 09:49:08.014389  6831 net.cpp:148] Top shape: 24 832 7 7 (978432)
I0403 09:49:08.014408  6831 net.cpp:148] Top shape: 24 832 7 7 (978432)
I0403 09:49:08.014425  6831 net.cpp:148] Top shape: 24 832 7 7 (978432)
I0403 09:49:08.014441  6831 net.cpp:148] Top shape: 24 832 7 7 (978432)
I0403 09:49:08.014456  6831 net.cpp:156] Memory required for data: 1292125632
I0403 09:49:08.014470  6831 layer_factory.hpp:77] Creating layer inception_5a/1x1
I0403 09:49:08.014494  6831 net.cpp:91] Creating Layer inception_5a/1x1
I0403 09:49:08.014513  6831 net.cpp:425] inception_5a/1x1 <- pool4/3x3_s2_pool4/3x3_s2_0_split_0
I0403 09:49:08.014533  6831 net.cpp:399] inception_5a/1x1 -> inception_5a/1x1
I0403 09:49:08.016618  6831 net.cpp:141] Setting up inception_5a/1x1
I0403 09:49:08.016649  6831 net.cpp:148] Top shape: 24 256 7 7 (301056)
I0403 09:49:08.016665  6831 net.cpp:156] Memory required for data: 1293329856
I0403 09:49:08.016685  6831 layer_factory.hpp:77] Creating layer inception_5a/relu_1x1
I0403 09:49:08.016706  6831 net.cpp:91] Creating Layer inception_5a/relu_1x1
I0403 09:49:08.016723  6831 net.cpp:425] inception_5a/relu_1x1 <- inception_5a/1x1
I0403 09:49:08.016741  6831 net.cpp:386] inception_5a/relu_1x1 -> inception_5a/1x1 (in-place)
I0403 09:49:08.016762  6831 net.cpp:141] Setting up inception_5a/relu_1x1
I0403 09:49:08.016780  6831 net.cpp:148] Top shape: 24 256 7 7 (301056)
I0403 09:49:08.016795  6831 net.cpp:156] Memory required for data: 1294534080
I0403 09:49:08.016810  6831 layer_factory.hpp:77] Creating layer inception_5a/3x3_reduce
I0403 09:49:08.016834  6831 net.cpp:91] Creating Layer inception_5a/3x3_reduce
I0403 09:49:08.016854  6831 net.cpp:425] inception_5a/3x3_reduce <- pool4/3x3_s2_pool4/3x3_s2_0_split_1
I0403 09:49:08.016876  6831 net.cpp:399] inception_5a/3x3_reduce -> inception_5a/3x3_reduce
I0403 09:49:08.018515  6831 net.cpp:141] Setting up inception_5a/3x3_reduce
I0403 09:49:08.018546  6831 net.cpp:148] Top shape: 24 160 7 7 (188160)
I0403 09:49:08.018563  6831 net.cpp:156] Memory required for data: 1295286720
I0403 09:49:08.018582  6831 layer_factory.hpp:77] Creating layer inception_5a/relu_3x3_reduce
I0403 09:49:08.018602  6831 net.cpp:91] Creating Layer inception_5a/relu_3x3_reduce
I0403 09:49:08.018620  6831 net.cpp:425] inception_5a/relu_3x3_reduce <- inception_5a/3x3_reduce
I0403 09:49:08.018637  6831 net.cpp:386] inception_5a/relu_3x3_reduce -> inception_5a/3x3_reduce (in-place)
I0403 09:49:08.018710  6831 net.cpp:141] Setting up inception_5a/relu_3x3_reduce
I0403 09:49:08.018733  6831 net.cpp:148] Top shape: 24 160 7 7 (188160)
I0403 09:49:08.018749  6831 net.cpp:156] Memory required for data: 1296039360
I0403 09:49:08.018764  6831 layer_factory.hpp:77] Creating layer inception_5a/3x3
I0403 09:49:08.018790  6831 net.cpp:91] Creating Layer inception_5a/3x3
I0403 09:49:08.018810  6831 net.cpp:425] inception_5a/3x3 <- inception_5a/3x3_reduce
I0403 09:49:08.018831  6831 net.cpp:399] inception_5a/3x3 -> inception_5a/3x3
I0403 09:49:08.023002  6831 net.cpp:141] Setting up inception_5a/3x3
I0403 09:49:08.023035  6831 net.cpp:148] Top shape: 24 320 7 7 (376320)
I0403 09:49:08.023051  6831 net.cpp:156] Memory required for data: 1297544640
I0403 09:49:08.023071  6831 layer_factory.hpp:77] Creating layer inception_5a/relu_3x3
I0403 09:49:08.023089  6831 net.cpp:91] Creating Layer inception_5a/relu_3x3
I0403 09:49:08.023108  6831 net.cpp:425] inception_5a/relu_3x3 <- inception_5a/3x3
I0403 09:49:08.023125  6831 net.cpp:386] inception_5a/relu_3x3 -> inception_5a/3x3 (in-place)
I0403 09:49:08.023164  6831 net.cpp:141] Setting up inception_5a/relu_3x3
I0403 09:49:08.023185  6831 net.cpp:148] Top shape: 24 320 7 7 (376320)
I0403 09:49:08.023200  6831 net.cpp:156] Memory required for data: 1299049920
I0403 09:49:08.023214  6831 layer_factory.hpp:77] Creating layer inception_5a/5x5_reduce
I0403 09:49:08.023241  6831 net.cpp:91] Creating Layer inception_5a/5x5_reduce
I0403 09:49:08.023325  6831 net.cpp:425] inception_5a/5x5_reduce <- pool4/3x3_s2_pool4/3x3_s2_0_split_2
I0403 09:49:08.023360  6831 net.cpp:399] inception_5a/5x5_reduce -> inception_5a/5x5_reduce
I0403 09:49:08.023768  6831 net.cpp:141] Setting up inception_5a/5x5_reduce
I0403 09:49:08.023795  6831 net.cpp:148] Top shape: 24 32 7 7 (37632)
I0403 09:49:08.023811  6831 net.cpp:156] Memory required for data: 1299200448
I0403 09:49:08.023830  6831 layer_factory.hpp:77] Creating layer inception_5a/relu_5x5_reduce
I0403 09:49:08.023851  6831 net.cpp:91] Creating Layer inception_5a/relu_5x5_reduce
I0403 09:49:08.023870  6831 net.cpp:425] inception_5a/relu_5x5_reduce <- inception_5a/5x5_reduce
I0403 09:49:08.023890  6831 net.cpp:386] inception_5a/relu_5x5_reduce -> inception_5a/5x5_reduce (in-place)
I0403 09:49:08.023910  6831 net.cpp:141] Setting up inception_5a/relu_5x5_reduce
I0403 09:49:08.023928  6831 net.cpp:148] Top shape: 24 32 7 7 (37632)
I0403 09:49:08.023942  6831 net.cpp:156] Memory required for data: 1299350976
I0403 09:49:08.023957  6831 layer_factory.hpp:77] Creating layer inception_5a/5x5
I0403 09:49:08.023982  6831 net.cpp:91] Creating Layer inception_5a/5x5
I0403 09:49:08.024000  6831 net.cpp:425] inception_5a/5x5 <- inception_5a/5x5_reduce
I0403 09:49:08.024020  6831 net.cpp:399] inception_5a/5x5 -> inception_5a/5x5
I0403 09:49:08.024933  6831 net.cpp:141] Setting up inception_5a/5x5
I0403 09:49:08.025014  6831 net.cpp:148] Top shape: 24 128 7 7 (150528)
I0403 09:49:08.025034  6831 net.cpp:156] Memory required for data: 1299953088
I0403 09:49:08.025054  6831 layer_factory.hpp:77] Creating layer inception_5a/relu_5x5
I0403 09:49:08.025074  6831 net.cpp:91] Creating Layer inception_5a/relu_5x5
I0403 09:49:08.025090  6831 net.cpp:425] inception_5a/relu_5x5 <- inception_5a/5x5
I0403 09:49:08.025112  6831 net.cpp:386] inception_5a/relu_5x5 -> inception_5a/5x5 (in-place)
I0403 09:49:08.025133  6831 net.cpp:141] Setting up inception_5a/relu_5x5
I0403 09:49:08.025151  6831 net.cpp:148] Top shape: 24 128 7 7 (150528)
I0403 09:49:08.025166  6831 net.cpp:156] Memory required for data: 1300555200
I0403 09:49:08.025182  6831 layer_factory.hpp:77] Creating layer inception_5a/pool
I0403 09:49:08.025199  6831 net.cpp:91] Creating Layer inception_5a/pool
I0403 09:49:08.025216  6831 net.cpp:425] inception_5a/pool <- pool4/3x3_s2_pool4/3x3_s2_0_split_3
I0403 09:49:08.025236  6831 net.cpp:399] inception_5a/pool -> inception_5a/pool
I0403 09:49:08.025295  6831 net.cpp:141] Setting up inception_5a/pool
I0403 09:49:08.025324  6831 net.cpp:148] Top shape: 24 832 7 7 (978432)
I0403 09:49:08.025341  6831 net.cpp:156] Memory required for data: 1304468928
I0403 09:49:08.025358  6831 layer_factory.hpp:77] Creating layer inception_5a/pool_proj
I0403 09:49:08.025382  6831 net.cpp:91] Creating Layer inception_5a/pool_proj
I0403 09:49:08.025401  6831 net.cpp:425] inception_5a/pool_proj <- inception_5a/pool
I0403 09:49:08.025425  6831 net.cpp:399] inception_5a/pool_proj -> inception_5a/pool_proj
I0403 09:49:08.026883  6831 net.cpp:141] Setting up inception_5a/pool_proj
I0403 09:49:08.026912  6831 net.cpp:148] Top shape: 24 128 7 7 (150528)
I0403 09:49:08.026928  6831 net.cpp:156] Memory required for data: 1305071040
I0403 09:49:08.026948  6831 layer_factory.hpp:77] Creating layer inception_5a/relu_pool_proj
I0403 09:49:08.026968  6831 net.cpp:91] Creating Layer inception_5a/relu_pool_proj
I0403 09:49:08.026990  6831 net.cpp:425] inception_5a/relu_pool_proj <- inception_5a/pool_proj
I0403 09:49:08.027009  6831 net.cpp:386] inception_5a/relu_pool_proj -> inception_5a/pool_proj (in-place)
I0403 09:49:08.027030  6831 net.cpp:141] Setting up inception_5a/relu_pool_proj
I0403 09:49:08.027063  6831 net.cpp:148] Top shape: 24 128 7 7 (150528)
I0403 09:49:08.027081  6831 net.cpp:156] Memory required for data: 1305673152
I0403 09:49:08.027096  6831 layer_factory.hpp:77] Creating layer inception_5a/output
I0403 09:49:08.027115  6831 net.cpp:91] Creating Layer inception_5a/output
I0403 09:49:08.027132  6831 net.cpp:425] inception_5a/output <- inception_5a/1x1
I0403 09:49:08.027149  6831 net.cpp:425] inception_5a/output <- inception_5a/3x3
I0403 09:49:08.027166  6831 net.cpp:425] inception_5a/output <- inception_5a/5x5
I0403 09:49:08.027184  6831 net.cpp:425] inception_5a/output <- inception_5a/pool_proj
I0403 09:49:08.027201  6831 net.cpp:399] inception_5a/output -> inception_5a/output
I0403 09:49:08.027245  6831 net.cpp:141] Setting up inception_5a/output
I0403 09:49:08.027269  6831 net.cpp:148] Top shape: 24 832 7 7 (978432)
I0403 09:49:08.027286  6831 net.cpp:156] Memory required for data: 1309586880
I0403 09:49:08.027300  6831 layer_factory.hpp:77] Creating layer inception_5a/output_inception_5a/output_0_split
I0403 09:49:08.027325  6831 net.cpp:91] Creating Layer inception_5a/output_inception_5a/output_0_split
I0403 09:49:08.027345  6831 net.cpp:425] inception_5a/output_inception_5a/output_0_split <- inception_5a/output
I0403 09:49:08.027365  6831 net.cpp:399] inception_5a/output_inception_5a/output_0_split -> inception_5a/output_inception_5a/output_0_split_0
I0403 09:49:08.027387  6831 net.cpp:399] inception_5a/output_inception_5a/output_0_split -> inception_5a/output_inception_5a/output_0_split_1
I0403 09:49:08.027410  6831 net.cpp:399] inception_5a/output_inception_5a/output_0_split -> inception_5a/output_inception_5a/output_0_split_2
I0403 09:49:08.027431  6831 net.cpp:399] inception_5a/output_inception_5a/output_0_split -> inception_5a/output_inception_5a/output_0_split_3
I0403 09:49:08.027504  6831 net.cpp:141] Setting up inception_5a/output_inception_5a/output_0_split
I0403 09:49:08.027529  6831 net.cpp:148] Top shape: 24 832 7 7 (978432)
I0403 09:49:08.027546  6831 net.cpp:148] Top shape: 24 832 7 7 (978432)
I0403 09:49:08.027564  6831 net.cpp:148] Top shape: 24 832 7 7 (978432)
I0403 09:49:08.027580  6831 net.cpp:148] Top shape: 24 832 7 7 (978432)
I0403 09:49:08.027595  6831 net.cpp:156] Memory required for data: 1325241792
I0403 09:49:08.027611  6831 layer_factory.hpp:77] Creating layer inception_5b/1x1
I0403 09:49:08.027634  6831 net.cpp:91] Creating Layer inception_5b/1x1
I0403 09:49:08.027653  6831 net.cpp:425] inception_5b/1x1 <- inception_5a/output_inception_5a/output_0_split_0
I0403 09:49:08.027676  6831 net.cpp:399] inception_5b/1x1 -> inception_5b/1x1
I0403 09:49:08.030511  6831 net.cpp:141] Setting up inception_5b/1x1
I0403 09:49:08.030541  6831 net.cpp:148] Top shape: 24 384 7 7 (451584)
I0403 09:49:08.030558  6831 net.cpp:156] Memory required for data: 1327048128
I0403 09:49:08.030577  6831 layer_factory.hpp:77] Creating layer inception_5b/relu_1x1
I0403 09:49:08.030601  6831 net.cpp:91] Creating Layer inception_5b/relu_1x1
I0403 09:49:08.030621  6831 net.cpp:425] inception_5b/relu_1x1 <- inception_5b/1x1
I0403 09:49:08.030639  6831 net.cpp:386] inception_5b/relu_1x1 -> inception_5b/1x1 (in-place)
I0403 09:49:08.030659  6831 net.cpp:141] Setting up inception_5b/relu_1x1
I0403 09:49:08.030678  6831 net.cpp:148] Top shape: 24 384 7 7 (451584)
I0403 09:49:08.030692  6831 net.cpp:156] Memory required for data: 1328854464
I0403 09:49:08.030709  6831 layer_factory.hpp:77] Creating layer inception_5b/3x3_reduce
I0403 09:49:08.030735  6831 net.cpp:91] Creating Layer inception_5b/3x3_reduce
I0403 09:49:08.030753  6831 net.cpp:425] inception_5b/3x3_reduce <- inception_5a/output_inception_5a/output_0_split_1
I0403 09:49:08.030774  6831 net.cpp:399] inception_5b/3x3_reduce -> inception_5b/3x3_reduce
I0403 09:49:08.032554  6831 net.cpp:141] Setting up inception_5b/3x3_reduce
I0403 09:49:08.032658  6831 net.cpp:148] Top shape: 24 192 7 7 (225792)
I0403 09:49:08.032675  6831 net.cpp:156] Memory required for data: 1329757632
I0403 09:49:08.032696  6831 layer_factory.hpp:77] Creating layer inception_5b/relu_3x3_reduce
I0403 09:49:08.032737  6831 net.cpp:91] Creating Layer inception_5b/relu_3x3_reduce
I0403 09:49:08.032757  6831 net.cpp:425] inception_5b/relu_3x3_reduce <- inception_5b/3x3_reduce
I0403 09:49:08.032776  6831 net.cpp:386] inception_5b/relu_3x3_reduce -> inception_5b/3x3_reduce (in-place)
I0403 09:49:08.032798  6831 net.cpp:141] Setting up inception_5b/relu_3x3_reduce
I0403 09:49:08.032816  6831 net.cpp:148] Top shape: 24 192 7 7 (225792)
I0403 09:49:08.032831  6831 net.cpp:156] Memory required for data: 1330660800
I0403 09:49:08.032847  6831 layer_factory.hpp:77] Creating layer inception_5b/3x3
I0403 09:49:08.032872  6831 net.cpp:91] Creating Layer inception_5b/3x3
I0403 09:49:08.032891  6831 net.cpp:425] inception_5b/3x3 <- inception_5b/3x3_reduce
I0403 09:49:08.032912  6831 net.cpp:399] inception_5b/3x3 -> inception_5b/3x3
I0403 09:49:08.038516  6831 net.cpp:141] Setting up inception_5b/3x3
I0403 09:49:08.038544  6831 net.cpp:148] Top shape: 24 384 7 7 (451584)
I0403 09:49:08.038560  6831 net.cpp:156] Memory required for data: 1332467136
I0403 09:49:08.038578  6831 layer_factory.hpp:77] Creating layer inception_5b/relu_3x3
I0403 09:49:08.038599  6831 net.cpp:91] Creating Layer inception_5b/relu_3x3
I0403 09:49:08.038615  6831 net.cpp:425] inception_5b/relu_3x3 <- inception_5b/3x3
I0403 09:49:08.038633  6831 net.cpp:386] inception_5b/relu_3x3 -> inception_5b/3x3 (in-place)
I0403 09:49:08.038656  6831 net.cpp:141] Setting up inception_5b/relu_3x3
I0403 09:49:08.038676  6831 net.cpp:148] Top shape: 24 384 7 7 (451584)
I0403 09:49:08.038691  6831 net.cpp:156] Memory required for data: 1334273472
I0403 09:49:08.038705  6831 layer_factory.hpp:77] Creating layer inception_5b/5x5_reduce
I0403 09:49:08.038725  6831 net.cpp:91] Creating Layer inception_5b/5x5_reduce
I0403 09:49:08.038743  6831 net.cpp:425] inception_5b/5x5_reduce <- inception_5a/output_inception_5a/output_0_split_2
I0403 09:49:08.038764  6831 net.cpp:399] inception_5b/5x5_reduce -> inception_5b/5x5_reduce
I0403 09:49:08.039759  6831 net.cpp:141] Setting up inception_5b/5x5_reduce
I0403 09:49:08.039788  6831 net.cpp:148] Top shape: 24 48 7 7 (56448)
I0403 09:49:08.039804  6831 net.cpp:156] Memory required for data: 1334499264
I0403 09:49:08.039824  6831 layer_factory.hpp:77] Creating layer inception_5b/relu_5x5_reduce
I0403 09:49:08.039842  6831 net.cpp:91] Creating Layer inception_5b/relu_5x5_reduce
I0403 09:49:08.039860  6831 net.cpp:425] inception_5b/relu_5x5_reduce <- inception_5b/5x5_reduce
I0403 09:49:08.039877  6831 net.cpp:386] inception_5b/relu_5x5_reduce -> inception_5b/5x5_reduce (in-place)
I0403 09:49:08.039897  6831 net.cpp:141] Setting up inception_5b/relu_5x5_reduce
I0403 09:49:08.039916  6831 net.cpp:148] Top shape: 24 48 7 7 (56448)
I0403 09:49:08.039930  6831 net.cpp:156] Memory required for data: 1334725056
I0403 09:49:08.039944  6831 layer_factory.hpp:77] Creating layer inception_5b/5x5
I0403 09:49:08.039968  6831 net.cpp:91] Creating Layer inception_5b/5x5
I0403 09:49:08.039986  6831 net.cpp:425] inception_5b/5x5 <- inception_5b/5x5_reduce
I0403 09:49:08.040009  6831 net.cpp:399] inception_5b/5x5 -> inception_5b/5x5
I0403 09:49:08.041116  6831 net.cpp:141] Setting up inception_5b/5x5
I0403 09:49:08.041142  6831 net.cpp:148] Top shape: 24 128 7 7 (150528)
I0403 09:49:08.041158  6831 net.cpp:156] Memory required for data: 1335327168
I0403 09:49:08.041177  6831 layer_factory.hpp:77] Creating layer inception_5b/relu_5x5
I0403 09:49:08.041195  6831 net.cpp:91] Creating Layer inception_5b/relu_5x5
I0403 09:49:08.041213  6831 net.cpp:425] inception_5b/relu_5x5 <- inception_5b/5x5
I0403 09:49:08.041230  6831 net.cpp:386] inception_5b/relu_5x5 -> inception_5b/5x5 (in-place)
I0403 09:49:08.041250  6831 net.cpp:141] Setting up inception_5b/relu_5x5
I0403 09:49:08.041267  6831 net.cpp:148] Top shape: 24 128 7 7 (150528)
I0403 09:49:08.041281  6831 net.cpp:156] Memory required for data: 1335929280
I0403 09:49:08.041296  6831 layer_factory.hpp:77] Creating layer inception_5b/pool
I0403 09:49:08.041338  6831 net.cpp:91] Creating Layer inception_5b/pool
I0403 09:49:08.041358  6831 net.cpp:425] inception_5b/pool <- inception_5a/output_inception_5a/output_0_split_3
I0403 09:49:08.041391  6831 net.cpp:399] inception_5b/pool -> inception_5b/pool
I0403 09:49:08.041450  6831 net.cpp:141] Setting up inception_5b/pool
I0403 09:49:08.041476  6831 net.cpp:148] Top shape: 24 832 7 7 (978432)
I0403 09:49:08.041491  6831 net.cpp:156] Memory required for data: 1339843008
I0403 09:49:08.041506  6831 layer_factory.hpp:77] Creating layer inception_5b/pool_proj
I0403 09:49:08.041533  6831 net.cpp:91] Creating Layer inception_5b/pool_proj
I0403 09:49:08.041553  6831 net.cpp:425] inception_5b/pool_proj <- inception_5b/pool
I0403 09:49:08.041574  6831 net.cpp:399] inception_5b/pool_proj -> inception_5b/pool_proj
I0403 09:49:08.042944  6831 net.cpp:141] Setting up inception_5b/pool_proj
I0403 09:49:08.042974  6831 net.cpp:148] Top shape: 24 128 7 7 (150528)
I0403 09:49:08.042990  6831 net.cpp:156] Memory required for data: 1340445120
I0403 09:49:08.043009  6831 layer_factory.hpp:77] Creating layer inception_5b/relu_pool_proj
I0403 09:49:08.043028  6831 net.cpp:91] Creating Layer inception_5b/relu_pool_proj
I0403 09:49:08.043045  6831 net.cpp:425] inception_5b/relu_pool_proj <- inception_5b/pool_proj
I0403 09:49:08.043063  6831 net.cpp:386] inception_5b/relu_pool_proj -> inception_5b/pool_proj (in-place)
I0403 09:49:08.043083  6831 net.cpp:141] Setting up inception_5b/relu_pool_proj
I0403 09:49:08.043102  6831 net.cpp:148] Top shape: 24 128 7 7 (150528)
I0403 09:49:08.043117  6831 net.cpp:156] Memory required for data: 1341047232
I0403 09:49:08.043131  6831 layer_factory.hpp:77] Creating layer inception_5b/output
I0403 09:49:08.043154  6831 net.cpp:91] Creating Layer inception_5b/output
I0403 09:49:08.043171  6831 net.cpp:425] inception_5b/output <- inception_5b/1x1
I0403 09:49:08.043189  6831 net.cpp:425] inception_5b/output <- inception_5b/3x3
I0403 09:49:08.043205  6831 net.cpp:425] inception_5b/output <- inception_5b/5x5
I0403 09:49:08.043220  6831 net.cpp:425] inception_5b/output <- inception_5b/pool_proj
I0403 09:49:08.043238  6831 net.cpp:399] inception_5b/output -> inception_5b/output
I0403 09:49:08.043282  6831 net.cpp:141] Setting up inception_5b/output
I0403 09:49:08.043305  6831 net.cpp:148] Top shape: 24 1024 7 7 (1204224)
I0403 09:49:08.043331  6831 net.cpp:156] Memory required for data: 1345864128
I0403 09:49:08.043350  6831 layer_factory.hpp:77] Creating layer pool5/7x7_s1
I0403 09:49:08.043368  6831 net.cpp:91] Creating Layer pool5/7x7_s1
I0403 09:49:08.043386  6831 net.cpp:425] pool5/7x7_s1 <- inception_5b/output
I0403 09:49:08.043406  6831 net.cpp:399] pool5/7x7_s1 -> pool5/7x7_s1
I0403 09:49:08.043447  6831 net.cpp:141] Setting up pool5/7x7_s1
I0403 09:49:08.043473  6831 net.cpp:148] Top shape: 24 1024 1 1 (24576)
I0403 09:49:08.043490  6831 net.cpp:156] Memory required for data: 1345962432
I0403 09:49:08.043505  6831 layer_factory.hpp:77] Creating layer pool5/drop_7x7_s1
I0403 09:49:08.043525  6831 net.cpp:91] Creating Layer pool5/drop_7x7_s1
I0403 09:49:08.043541  6831 net.cpp:425] pool5/drop_7x7_s1 <- pool5/7x7_s1
I0403 09:49:08.043558  6831 net.cpp:386] pool5/drop_7x7_s1 -> pool5/7x7_s1 (in-place)
I0403 09:49:08.043598  6831 net.cpp:141] Setting up pool5/drop_7x7_s1
I0403 09:49:08.043622  6831 net.cpp:148] Top shape: 24 1024 1 1 (24576)
I0403 09:49:08.043637  6831 net.cpp:156] Memory required for data: 1346060736
I0403 09:49:08.043651  6831 layer_factory.hpp:77] Creating layer loss3/classifier_plantvillage
I0403 09:49:08.043674  6831 net.cpp:91] Creating Layer loss3/classifier_plantvillage
I0403 09:49:08.043692  6831 net.cpp:425] loss3/classifier_plantvillage <- pool5/7x7_s1
I0403 09:49:08.043711  6831 net.cpp:399] loss3/classifier_plantvillage -> loss3/classifier_plantvillage
I0403 09:49:08.044052  6831 net.cpp:141] Setting up loss3/classifier_plantvillage
I0403 09:49:08.044078  6831 net.cpp:148] Top shape: 24 38 (912)
I0403 09:49:08.044093  6831 net.cpp:156] Memory required for data: 1346064384
I0403 09:49:08.044127  6831 layer_factory.hpp:77] Creating layer loss3/classifier_plantvillage_loss3/classifier_plantvillage_0_split
I0403 09:49:08.044148  6831 net.cpp:91] Creating Layer loss3/classifier_plantvillage_loss3/classifier_plantvillage_0_split
I0403 09:49:08.044164  6831 net.cpp:425] loss3/classifier_plantvillage_loss3/classifier_plantvillage_0_split <- loss3/classifier_plantvillage
I0403 09:49:08.044186  6831 net.cpp:399] loss3/classifier_plantvillage_loss3/classifier_plantvillage_0_split -> loss3/classifier_plantvillage_loss3/classifier_plantvillage_0_split_0
I0403 09:49:08.044209  6831 net.cpp:399] loss3/classifier_plantvillage_loss3/classifier_plantvillage_0_split -> loss3/classifier_plantvillage_loss3/classifier_plantvillage_0_split_1
I0403 09:49:08.044230  6831 net.cpp:399] loss3/classifier_plantvillage_loss3/classifier_plantvillage_0_split -> loss3/classifier_plantvillage_loss3/classifier_plantvillage_0_split_2
I0403 09:49:08.044297  6831 net.cpp:141] Setting up loss3/classifier_plantvillage_loss3/classifier_plantvillage_0_split
I0403 09:49:08.044325  6831 net.cpp:148] Top shape: 24 38 (912)
I0403 09:49:08.044343  6831 net.cpp:148] Top shape: 24 38 (912)
I0403 09:49:08.044359  6831 net.cpp:148] Top shape: 24 38 (912)
I0403 09:49:08.044374  6831 net.cpp:156] Memory required for data: 1346075328
I0403 09:49:08.044389  6831 layer_factory.hpp:77] Creating layer loss1/loss
I0403 09:49:08.044407  6831 net.cpp:91] Creating Layer loss1/loss
I0403 09:49:08.044425  6831 net.cpp:425] loss1/loss <- loss1/classifier_plantvillage_loss1/classifier_plantvillage_0_split_0
I0403 09:49:08.044441  6831 net.cpp:425] loss1/loss <- label_data_1_split_0
…
