…
I0403 02:30:37.114022 16972 net.cpp:313] The NetState phase (0) differed from the phase (1) specified by a rule in layer accuracy
I0403 02:30:37.115761 16972 net.cpp:49] Initializing net from parameters: 
state {
  phase: TRAIN
}
layer {
  name: "data"
  type: "Data"
  top: "data"
  top: "label"
  include {
    phase: TRAIN
  }
  transform_param {
    mirror: true
    crop_size: 227
    mean_file: "/home/mohanty/data/final_dataset/lmdb/color-20-80/mean.binaryproto"
  }
  data_param {
    source: "/home/mohanty/data/final_dataset/lmdb/color-20-80/train_db"
    batch_size: 100
    backend: LMDB
  }
}
layer {
  name: "conv1"
  type: "Convolution"
  bottom: "data"
  top: "conv1"
  param {
    lr_mult: 1
    decay_mult: 1
  }
  param {
    lr_mult: 2
    decay_mult: 0
  }
  convolution_param {
    num_output: 96
    kernel_size: 11
    stride: 4
    weight_filler {
      type: "gaussian"
      std: 0.01
    }
    bias_filler {
      type: "constant"
      value: 0
    }
  }
}
layer {
  name: "relu1"
  type: "ReLU"
  bottom: "conv1"
  top: "conv1"
}
layer {
  name: "norm1"
  type: "LRN"
  bottom: "conv1"
  top: "norm1"
  lrn_param {
    local_size: 5
    alpha: 0.0001
    beta: 0.75
  }
}
layer {
  name: "pool1"
  type: "Pooling"
  bottom: "norm1"
  top: "pool1"
  pooling_param {
    pool: MAX
    kernel_size: 3
    stride: 2
  }
}
layer {
  name: "conv2"
  type: "Convolution"
  bottom: "pool1"
  top: "conv2"
  param {
    lr_mult: 1
    decay_mult: 1
  }
  param {
    lr_mult: 2
    decay_mult: 0
  }
  convolution_param {
    num_output: 256
    pad: 2
    kernel_size: 5
    group: 2
    weight_filler {
      type: "gaussian"
      std: 0.01
    }
    bias_filler {
      type: "constant"
      value: 0.1
    }
  }
}
layer {
  name: "relu2"
  type: "ReLU"
  bottom: "conv2"
  top: "conv2"
}
layer {
  name: "norm2"
  type: "LRN"
  bottom: "conv2"
  top: "norm2"
  lrn_param {
    local_size: 5
    alpha: 0.0001
    beta: 0.75
  }
}
layer {
  name: "pool2"
  type: "Pooling"
  bottom: "norm2"
  top: "pool2"
  pooling_param {
    pool: MAX
    kernel_size: 3
    stride: 2
  }
}
layer {
  name: "conv3"
  type: "Convolution"
  bottom: "pool2"
  top: "conv3"
  param {
    lr_mult: 1
    decay_mult: 1
  }
  param {
    lr_mult: 2
    decay_mult: 0
  }
  convolution_param {
    num_output: 384
    pad: 1
    kernel_size: 3
    weight_filler {
      type: "gaussian"
      std: 0.01
    }
    bias_filler {
      type: "constant"
      value: 0
    }
  }
}
layer {
  name: "relu3"
  type: "ReLU"
  bottom: "conv3"
  top: "conv3"
}
layer {
  name: "conv4"
  type: "Convolution"
  bottom: "conv3"
  top: "conv4"
  param {
    lr_mult: 1
    decay_mult: 1
  }
  param {
    lr_mult: 2
    decay_mult: 0
  }
  convolution_param {
    num_output: 384
    pad: 1
    kernel_size: 3
    group: 2
    weight_filler {
      type: "gaussian"
      std: 0.01
    }
    bias_filler {
      type: "constant"
      value: 0.1
    }
  }
}
layer {
  name: "relu4"
  type: "ReLU"
  bottom: "conv4"
  top: "conv4"
}
layer {
  name: "conv5"
  type: "Convolution"
  bottom: "conv4"
  top: "conv5"
  param {
    lr_mult: 1
    decay_mult: 1
  }
  param {
    lr_mult: 2
    decay_mult: 0
  }
  convolution_param {
    num_output: 256
    pad: 1
    kernel_size: 3
    group: 2
    weight_filler {
      type: "gaussian"
      std: 0.01
    }
    bias_filler {
      type: "constant"
      value: 0.1
    }
  }
}
layer {
  name: "relu5"
  type: "ReLU"
  bottom: "conv5"
  top: "conv5"
}
layer {
  name: "pool5"
  type: "Pooling"
  bottom: "conv5"
  top: "pool5"
  pooling_param {
    pool: MAX
    kernel_size: 3
    stride: 2
  }
}
layer {
  name: "fc6"
  type: "InnerProduct"
  bottom: "pool5"
  top: "fc6"
  param {
    lr_mult: 1
    decay_mult: 1
  }
  param {
    lr_mult: 2
    decay_mult: 0
  }
  inner_product_param {
    num_output: 4096
    weight_filler {
      type: "gaussian"
      std: 0.005
    }
    bias_filler {
      type: "constant"
      value: 0.1
    }
  }
}
layer {
  name: "relu6"
  type: "ReLU"
  bottom: "fc6"
  top: "fc6"
}
layer {
  name: "drop6"
  type: "Dropout"
  bottom: "fc6"
  top: "fc6"
  dropout_param {
    dropout_ratio: 0.5
  }
}
layer {
  name: "fc7"
  type: "InnerProduct"
  bottom: "fc6"
  top: "fc7"
  param {
    lr_mult: 1
    decay_mult: 1
  }
  param {
    lr_mult: 2
    decay_mult: 0
  }
  inner_product_param {
    num_output: 4096
    weight_filler {
      type: "gaussian"
      std: 0.005
    }
    bias_filler {
      type: "constant"
      value: 0.1
    }
  }
}
layer {
  name: "relu7"
  type: "ReLU"
  bottom: "fc7"
  top: "fc7"
}
layer {
  name: "drop7"
  type: "Dropout"
  bottom: "fc7"
  top: "fc7"
  dropout_param {
    dropout_ratio: 0.5
  }
}
layer {
  name: "fc8_plantvillage"
  type: "InnerProduct"
  bottom: "fc7"
  top: "fc8_plantvillage"
  param {
    lr_mult: 1
    decay_mult: 1
  }
  param {
    lr_mult: 2
    decay_mult: 0
  }
  inner_product_param {
    num_output: 38
    weight_filler {
      type: "gaussian"
      std: 0.01
    }
    bias_filler {
      type: "constant"
      value: 0
    }
  }
}
layer {
  name: "loss"
  type: "SoftmaxWithLoss"
  bottom: "fc8_plantvillage"
  bottom: "label"
  top: "loss"
}
I0403 02:30:37.116978 16972 layer_factory.hpp:77] Creating layer data
I0403 02:30:37.118643 16972 net.cpp:91] Creating Layer data
I0403 02:30:37.118804 16972 net.cpp:399] data -> data
I0403 02:30:37.118942 16972 net.cpp:399] data -> label
I0403 02:30:37.119037 16972 data_transformer.cpp:25] Loading mean file from: /home/mohanty/data/final_dataset/lmdb/color-20-80/mean.binaryproto
I0403 02:30:37.162235 16980 db_lmdb.cpp:38] Opened lmdb /home/mohanty/data/final_dataset/lmdb/color-20-80/train_db
I0403 02:30:37.169121 16972 data_layer.cpp:41] output data size: 100,3,227,227
I0403 02:30:37.326380 16972 net.cpp:141] Setting up data
I0403 02:30:37.326488 16972 net.cpp:148] Top shape: 100 3 227 227 (15458700)
I0403 02:30:37.326515 16972 net.cpp:148] Top shape: 100 (100)
I0403 02:30:37.326534 16972 net.cpp:156] Memory required for data: 61835200
I0403 02:30:37.326581 16972 layer_factory.hpp:77] Creating layer conv1
I0403 02:30:37.326630 16972 net.cpp:91] Creating Layer conv1
I0403 02:30:37.326658 16972 net.cpp:425] conv1 <- data
I0403 02:30:37.326695 16972 net.cpp:399] conv1 -> conv1
I0403 02:30:37.329913 16972 net.cpp:141] Setting up conv1
I0403 02:30:37.329953 16972 net.cpp:148] Top shape: 100 96 55 55 (29040000)
I0403 02:30:37.329975 16972 net.cpp:156] Memory required for data: 177995200
I0403 02:30:37.330020 16972 layer_factory.hpp:77] Creating layer relu1
I0403 02:30:37.330055 16972 net.cpp:91] Creating Layer relu1
I0403 02:30:37.330080 16972 net.cpp:425] relu1 <- conv1
I0403 02:30:37.330106 16972 net.cpp:386] relu1 -> conv1 (in-place)
I0403 02:30:37.330135 16972 net.cpp:141] Setting up relu1
I0403 02:30:37.330162 16972 net.cpp:148] Top shape: 100 96 55 55 (29040000)
I0403 02:30:37.330180 16972 net.cpp:156] Memory required for data: 294155200
I0403 02:30:37.330200 16972 layer_factory.hpp:77] Creating layer norm1
I0403 02:30:37.330226 16972 net.cpp:91] Creating Layer norm1
I0403 02:30:37.330296 16972 net.cpp:425] norm1 <- conv1
I0403 02:30:37.330322 16972 net.cpp:399] norm1 -> norm1
I0403 02:30:37.339409 16972 net.cpp:141] Setting up norm1
I0403 02:30:37.339452 16972 net.cpp:148] Top shape: 100 96 55 55 (29040000)
I0403 02:30:37.339473 16972 net.cpp:156] Memory required for data: 410315200
I0403 02:30:37.339493 16972 layer_factory.hpp:77] Creating layer pool1
I0403 02:30:37.339524 16972 net.cpp:91] Creating Layer pool1
I0403 02:30:37.339545 16972 net.cpp:425] pool1 <- norm1
I0403 02:30:37.339567 16972 net.cpp:399] pool1 -> pool1
I0403 02:30:37.339643 16972 net.cpp:141] Setting up pool1
I0403 02:30:37.339673 16972 net.cpp:148] Top shape: 100 96 27 27 (6998400)
I0403 02:30:37.339692 16972 net.cpp:156] Memory required for data: 438308800
I0403 02:30:37.339711 16972 layer_factory.hpp:77] Creating layer conv2
I0403 02:30:37.339740 16972 net.cpp:91] Creating Layer conv2
I0403 02:30:37.339759 16972 net.cpp:425] conv2 <- pool1
I0403 02:30:37.339784 16972 net.cpp:399] conv2 -> conv2
I0403 02:30:37.341513 16982 blocking_queue.cpp:50] Waiting for data
I0403 02:30:37.356070 16972 net.cpp:141] Setting up conv2
I0403 02:30:37.356109 16972 net.cpp:148] Top shape: 100 256 27 27 (18662400)
I0403 02:30:37.356132 16972 net.cpp:156] Memory required for data: 512958400
I0403 02:30:37.356158 16972 layer_factory.hpp:77] Creating layer relu2
I0403 02:30:37.356183 16972 net.cpp:91] Creating Layer relu2
I0403 02:30:37.356204 16972 net.cpp:425] relu2 <- conv2
I0403 02:30:37.356226 16972 net.cpp:386] relu2 -> conv2 (in-place)
I0403 02:30:37.356248 16972 net.cpp:141] Setting up relu2
I0403 02:30:37.356277 16972 net.cpp:148] Top shape: 100 256 27 27 (18662400)
I0403 02:30:37.356295 16972 net.cpp:156] Memory required for data: 587608000
I0403 02:30:37.356312 16972 layer_factory.hpp:77] Creating layer norm2
I0403 02:30:37.356335 16972 net.cpp:91] Creating Layer norm2
I0403 02:30:37.356356 16972 net.cpp:425] norm2 <- conv2
I0403 02:30:37.356379 16972 net.cpp:399] norm2 -> norm2
I0403 02:30:37.356434 16972 net.cpp:141] Setting up norm2
I0403 02:30:37.356462 16972 net.cpp:148] Top shape: 100 256 27 27 (18662400)
I0403 02:30:37.356480 16972 net.cpp:156] Memory required for data: 662257600
I0403 02:30:37.356498 16972 layer_factory.hpp:77] Creating layer pool2
I0403 02:30:37.356525 16972 net.cpp:91] Creating Layer pool2
I0403 02:30:37.356547 16972 net.cpp:425] pool2 <- norm2
I0403 02:30:37.356570 16972 net.cpp:399] pool2 -> pool2
I0403 02:30:37.356623 16972 net.cpp:141] Setting up pool2
I0403 02:30:37.356650 16972 net.cpp:148] Top shape: 100 256 13 13 (4326400)
I0403 02:30:37.356668 16972 net.cpp:156] Memory required for data: 679563200
I0403 02:30:37.356688 16972 layer_factory.hpp:77] Creating layer conv3
I0403 02:30:37.356714 16972 net.cpp:91] Creating Layer conv3
I0403 02:30:37.356734 16972 net.cpp:425] conv3 <- pool2
I0403 02:30:37.356760 16972 net.cpp:399] conv3 -> conv3
I0403 02:30:37.398489 16972 net.cpp:141] Setting up conv3
I0403 02:30:37.398531 16972 net.cpp:148] Top shape: 100 384 13 13 (6489600)
I0403 02:30:37.398552 16972 net.cpp:156] Memory required for data: 705521600
I0403 02:30:37.398579 16972 layer_factory.hpp:77] Creating layer relu3
I0403 02:30:37.398602 16972 net.cpp:91] Creating Layer relu3
I0403 02:30:37.398622 16972 net.cpp:425] relu3 <- conv3
I0403 02:30:37.398643 16972 net.cpp:386] relu3 -> conv3 (in-place)
I0403 02:30:37.398668 16972 net.cpp:141] Setting up relu3
I0403 02:30:37.398690 16972 net.cpp:148] Top shape: 100 384 13 13 (6489600)
I0403 02:30:37.398710 16972 net.cpp:156] Memory required for data: 731480000
I0403 02:30:37.398727 16972 layer_factory.hpp:77] Creating layer conv4
I0403 02:30:37.398756 16972 net.cpp:91] Creating Layer conv4
I0403 02:30:37.398777 16972 net.cpp:425] conv4 <- conv3
I0403 02:30:37.398800 16972 net.cpp:399] conv4 -> conv4
I0403 02:30:37.430147 16972 net.cpp:141] Setting up conv4
I0403 02:30:37.430186 16972 net.cpp:148] Top shape: 100 384 13 13 (6489600)
I0403 02:30:37.430205 16972 net.cpp:156] Memory required for data: 757438400
I0403 02:30:37.430227 16972 layer_factory.hpp:77] Creating layer relu4
I0403 02:30:37.430279 16972 net.cpp:91] Creating Layer relu4
I0403 02:30:37.430301 16972 net.cpp:425] relu4 <- conv4
I0403 02:30:37.430325 16972 net.cpp:386] relu4 -> conv4 (in-place)
I0403 02:30:37.430348 16972 net.cpp:141] Setting up relu4
I0403 02:30:37.430371 16972 net.cpp:148] Top shape: 100 384 13 13 (6489600)
I0403 02:30:37.430388 16972 net.cpp:156] Memory required for data: 783396800
I0403 02:30:37.430407 16972 layer_factory.hpp:77] Creating layer conv5
I0403 02:30:37.430433 16972 net.cpp:91] Creating Layer conv5
I0403 02:30:37.430451 16972 net.cpp:425] conv5 <- conv4
I0403 02:30:37.430477 16972 net.cpp:399] conv5 -> conv5
I0403 02:30:37.451503 16972 net.cpp:141] Setting up conv5
I0403 02:30:37.451541 16972 net.cpp:148] Top shape: 100 256 13 13 (4326400)
I0403 02:30:37.451561 16972 net.cpp:156] Memory required for data: 800702400
I0403 02:30:37.451588 16972 layer_factory.hpp:77] Creating layer relu5
I0403 02:30:37.451613 16972 net.cpp:91] Creating Layer relu5
I0403 02:30:37.451633 16972 net.cpp:425] relu5 <- conv5
I0403 02:30:37.451655 16972 net.cpp:386] relu5 -> conv5 (in-place)
I0403 02:30:37.451679 16972 net.cpp:141] Setting up relu5
I0403 02:30:37.451700 16972 net.cpp:148] Top shape: 100 256 13 13 (4326400)
I0403 02:30:37.451719 16972 net.cpp:156] Memory required for data: 818008000
I0403 02:30:37.451737 16972 layer_factory.hpp:77] Creating layer pool5
I0403 02:30:37.451758 16972 net.cpp:91] Creating Layer pool5
I0403 02:30:37.451776 16972 net.cpp:425] pool5 <- conv5
I0403 02:30:37.451800 16972 net.cpp:399] pool5 -> pool5
I0403 02:30:37.451858 16972 net.cpp:141] Setting up pool5
I0403 02:30:37.451885 16972 net.cpp:148] Top shape: 100 256 6 6 (921600)
I0403 02:30:37.451905 16972 net.cpp:156] Memory required for data: 821694400
I0403 02:30:37.451923 16972 layer_factory.hpp:77] Creating layer fc6
I0403 02:30:37.451958 16972 net.cpp:91] Creating Layer fc6
I0403 02:30:37.451982 16972 net.cpp:425] fc6 <- pool5
I0403 02:30:37.452008 16972 net.cpp:399] fc6 -> fc6
I0403 02:30:39.045506 16972 net.cpp:141] Setting up fc6
I0403 02:30:39.045591 16972 net.cpp:148] Top shape: 100 4096 (409600)
I0403 02:30:39.045608 16972 net.cpp:156] Memory required for data: 823332800
I0403 02:30:39.045630 16972 layer_factory.hpp:77] Creating layer relu6
I0403 02:30:39.045657 16972 net.cpp:91] Creating Layer relu6
I0403 02:30:39.045675 16972 net.cpp:425] relu6 <- fc6
I0403 02:30:39.045696 16972 net.cpp:386] relu6 -> fc6 (in-place)
I0403 02:30:39.045718 16972 net.cpp:141] Setting up relu6
I0403 02:30:39.045735 16972 net.cpp:148] Top shape: 100 4096 (409600)
I0403 02:30:39.045749 16972 net.cpp:156] Memory required for data: 824971200
I0403 02:30:39.045763 16972 layer_factory.hpp:77] Creating layer drop6
I0403 02:30:39.045788 16972 net.cpp:91] Creating Layer drop6
I0403 02:30:39.045802 16972 net.cpp:425] drop6 <- fc6
I0403 02:30:39.045822 16972 net.cpp:386] drop6 -> fc6 (in-place)
I0403 02:30:39.045869 16972 net.cpp:141] Setting up drop6
I0403 02:30:39.045892 16972 net.cpp:148] Top shape: 100 4096 (409600)
I0403 02:30:39.045907 16972 net.cpp:156] Memory required for data: 826609600
I0403 02:30:39.045922 16972 layer_factory.hpp:77] Creating layer fc7
I0403 02:30:39.045944 16972 net.cpp:91] Creating Layer fc7
I0403 02:30:39.045960 16972 net.cpp:425] fc7 <- fc6
I0403 02:30:39.045979 16972 net.cpp:399] fc7 -> fc7
I0403 02:30:39.663909 16972 net.cpp:141] Setting up fc7
I0403 02:30:39.664007 16972 net.cpp:148] Top shape: 100 4096 (409600)
I0403 02:30:39.664047 16972 net.cpp:156] Memory required for data: 828248000
I0403 02:30:39.664098 16972 layer_factory.hpp:77] Creating layer relu7
I0403 02:30:39.664127 16972 net.cpp:91] Creating Layer relu7
I0403 02:30:39.664186 16972 net.cpp:425] relu7 <- fc7
I0403 02:30:39.664227 16972 net.cpp:386] relu7 -> fc7 (in-place)
I0403 02:30:39.664283 16972 net.cpp:141] Setting up relu7
I0403 02:30:39.664314 16972 net.cpp:148] Top shape: 100 4096 (409600)
I0403 02:30:39.664355 16972 net.cpp:156] Memory required for data: 829886400
I0403 02:30:39.664397 16972 layer_factory.hpp:77] Creating layer drop7
I0403 02:30:39.664475 16972 net.cpp:91] Creating Layer drop7
I0403 02:30:39.664530 16972 net.cpp:425] drop7 <- fc7
I0403 02:30:39.664571 16972 net.cpp:386] drop7 -> fc7 (in-place)
I0403 02:30:39.664639 16972 net.cpp:141] Setting up drop7
I0403 02:30:39.664686 16972 net.cpp:148] Top shape: 100 4096 (409600)
I0403 02:30:39.664736 16972 net.cpp:156] Memory required for data: 831524800
I0403 02:30:39.664772 16972 layer_factory.hpp:77] Creating layer fc8_plantvillage
I0403 02:30:39.664819 16972 net.cpp:91] Creating Layer fc8_plantvillage
I0403 02:30:39.664862 16972 net.cpp:425] fc8_plantvillage <- fc7
I0403 02:30:39.664911 16972 net.cpp:399] fc8_plantvillage -> fc8_plantvillage
I0403 02:30:39.671648 16972 net.cpp:141] Setting up fc8_plantvillage
I0403 02:30:39.671679 16972 net.cpp:148] Top shape: 100 38 (3800)
I0403 02:30:39.671696 16972 net.cpp:156] Memory required for data: 831540000
I0403 02:30:39.671716 16972 layer_factory.hpp:77] Creating layer loss
I0403 02:30:39.671746 16972 net.cpp:91] Creating Layer loss
I0403 02:30:39.671764 16972 net.cpp:425] loss <- fc8_plantvillage
I0403 02:30:39.671782 16972 net.cpp:425] loss <- label
I0403 02:30:39.671805 16972 net.cpp:399] loss -> loss
I0403 02:30:39.671835 16972 layer_factory.hpp:77] Creating layer loss
…
I0403 02:30:39.673713 16972 net.cpp:313] The NetState phase (1) differed from the phase (0) specified by a rule in layer data
I0403 02:30:39.674435 16972 net.cpp:49] Initializing net from parameters: 
state {
  phase: TEST
}
layer {
  name: "data"
  type: "Data"
  top: "data"
  top: "label"
  include {
    phase: TEST
  }
  transform_param {
    crop_size: 227
    mean_file: "/home/mohanty/data/final_dataset/lmdb/color-20-80/mean.binaryproto"
  }
  data_param {
    source: "/home/mohanty/data/final_dataset/lmdb/color-20-80/test_db"
    batch_size: 100
    backend: LMDB
  }
}
layer {
  name: "conv1"
  type: "Convolution"
  bottom: "data"
  top: "conv1"
  param {
    lr_mult: 1
    decay_mult: 1
  }
  param {
    lr_mult: 2
    decay_mult: 0
  }
  convolution_param {
    num_output: 96
    kernel_size: 11
    stride: 4
    weight_filler {
      type: "gaussian"
      std: 0.01
    }
    bias_filler {
      type: "constant"
      value: 0
    }
  }
}
layer {
  name: "relu1"
  type: "ReLU"
  bottom: "conv1"
  top: "conv1"
}
layer {
  name: "norm1"
  type: "LRN"
  bottom: "conv1"
  top: "norm1"
  lrn_param {
    local_size: 5
    alpha: 0.0001
    beta: 0.75
  }
}
layer {
  name: "pool1"
  type: "Pooling"
  bottom: "norm1"
  top: "pool1"
  pooling_param {
    pool: MAX
    kernel_size: 3
    stride: 2
  }
}
layer {
  name: "conv2"
  type: "Convolution"
  bottom: "pool1"
  top: "conv2"
  param {
    lr_mult: 1
    decay_mult: 1
  }
  param {
    lr_mult: 2
    decay_mult: 0
  }
  convolution_param {
    num_output: 256
    pad: 2
    kernel_size: 5
    group: 2
    weight_filler {
      type: "gaussian"
      std: 0.01
    }
    bias_filler {
      type: "constant"
      value: 0.1
    }
  }
}
layer {
  name: "relu2"
  type: "ReLU"
  bottom: "conv2"
  top: "conv2"
}
layer {
  name: "norm2"
  type: "LRN"
  bottom: "conv2"
  top: "norm2"
  lrn_param {
    local_size: 5
    alpha: 0.0001
    beta: 0.75
  }
}
layer {
  name: "pool2"
  type: "Pooling"
  bottom: "norm2"
  top: "pool2"
  pooling_param {
    pool: MAX
    kernel_size: 3
    stride: 2
  }
}
layer {
  name: "conv3"
  type: "Convolution"
  bottom: "pool2"
  top: "conv3"
  param {
    lr_mult: 1
    decay_mult: 1
  }
  param {
    lr_mult: 2
    decay_mult: 0
  }
  convolution_param {
    num_output: 384
    pad: 1
    kernel_size: 3
    weight_filler {
      type: "gaussian"
      std: 0.01
    }
    bias_filler {
      type: "constant"
      value: 0
    }
  }
}
layer {
  name: "relu3"
  type: "ReLU"
  bottom: "conv3"
  top: "conv3"
}
layer {
  name: "conv4"
  type: "Convolution"
  bottom: "conv3"
  top: "conv4"
  param {
    lr_mult: 1
    decay_mult: 1
  }
  param {
    lr_mult: 2
    decay_mult: 0
  }
  convolution_param {
    num_output: 384
    pad: 1
    kernel_size: 3
    group: 2
    weight_filler {
      type: "gaussian"
      std: 0.01
    }
    bias_filler {
      type: "constant"
      value: 0.1
    }
  }
}
layer {
  name: "relu4"
  type: "ReLU"
  bottom: "conv4"
  top: "conv4"
}
layer {
  name: "conv5"
  type: "Convolution"
  bottom: "conv4"
  top: "conv5"
  param {
    lr_mult: 1
    decay_mult: 1
  }
  param {
    lr_mult: 2
    decay_mult: 0
  }
  convolution_param {
    num_output: 256
    pad: 1
    kernel_size: 3
    group: 2
    weight_filler {
      type: "gaussian"
      std: 0.01
    }
    bias_filler {
      type: "constant"
      value: 0.1
    }
  }
}
layer {
  name: "relu5"
  type: "ReLU"
  bottom: "conv5"
  top: "conv5"
}
layer {
  name: "pool5"
  type: "Pooling"
  bottom: "conv5"
  top: "pool5"
  pooling_param {
    pool: MAX
    kernel_size: 3
    stride: 2
  }
}
layer {
  name: "fc6"
  type: "InnerProduct"
  bottom: "pool5"
  top: "fc6"
  param {
    lr_mult: 1
    decay_mult: 1
  }
  param {
    lr_mult: 2
    decay_mult: 0
  }
  inner_product_param {
    num_output: 4096
    weight_filler {
      type: "gaussian"
      std: 0.005
    }
    bias_filler {
      type: "constant"
      value: 0.1
    }
  }
}
layer {
  name: "relu6"
  type: "ReLU"
  bottom: "fc6"
  top: "fc6"
}
layer {
  name: "drop6"
  type: "Dropout"
  bottom: "fc6"
  top: "fc6"
  dropout_param {
    dropout_ratio: 0.5
  }
}
layer {
  name: "fc7"
  type: "InnerProduct"
  bottom: "fc6"
  top: "fc7"
  param {
    lr_mult: 1
    decay_mult: 1
  }
  param {
    lr_mult: 2
    decay_mult: 0
  }
  inner_product_param {
    num_output: 4096
    weight_filler {
      type: "gaussian"
      std: 0.005
    }
    bias_filler {
      type: "constant"
      value: 0.1
    }
  }
}
layer {
  name: "relu7"
  type: "ReLU"
  bottom: "fc7"
  top: "fc7"
}
layer {
  name: "drop7"
  type: "Dropout"
  bottom: "fc7"
  top: "fc7"
  dropout_param {
    dropout_ratio: 0.5
  }
}
layer {
  name: "fc8_plantvillage"
  type: "InnerProduct"
  bottom: "fc7"
  top: "fc8_plantvillage"
  param {
    lr_mult: 1
    decay_mult: 1
  }
  param {
    lr_mult: 2
    decay_mult: 0
  }
  inner_product_param {
    num_output: 38
    weight_filler {
      type: "gaussian"
      std: 0.01
    }
    bias_filler {
      type: "constant"
      value: 0
    }
  }
}
layer {
  name: "loss"
  type: "SoftmaxWithLoss"
  bottom: "fc8_plantvillage"
  bottom: "label"
  top: "loss"
}
layer {
  name: "accuracy"
  type: "Accuracy"
  bottom: "fc8_plantvillage"
  bottom: "label"
  top: "accuracy"
  include {
    phase: TEST
  }
}
I0403 02:30:39.674608 16972 layer_factory.hpp:77] Creating layer data
I0403 02:30:39.674748 16972 net.cpp:91] Creating Layer data
I0403 02:30:39.674779 16972 net.cpp:399] data -> data
I0403 02:30:39.674806 16972 net.cpp:399] data -> label
I0403 02:30:39.674832 16972 data_transformer.cpp:25] Loading mean file from: /home/mohanty/data/final_dataset/lmdb/color-20-80/mean.binaryproto
I0403 02:30:39.687788 16985 db_lmdb.cpp:38] Opened lmdb /home/mohanty/data/final_dataset/lmdb/color-20-80/test_db
I0403 02:30:39.694705 16972 data_layer.cpp:41] output data size: 100,3,227,227
I0403 02:30:39.896811 16972 net.cpp:141] Setting up data
I0403 02:30:39.896921 16972 net.cpp:148] Top shape: 100 3 227 227 (15458700)
I0403 02:30:39.897063 16972 net.cpp:148] Top shape: 100 (100)
I0403 02:30:39.897142 16972 net.cpp:156] Memory required for data: 61835200
I0403 02:30:39.897209 16972 layer_factory.hpp:77] Creating layer label_data_1_split
I0403 02:30:39.897294 16972 net.cpp:91] Creating Layer label_data_1_split
I0403 02:30:39.897346 16972 net.cpp:425] label_data_1_split <- label
I0403 02:30:39.897394 16972 net.cpp:399] label_data_1_split -> label_data_1_split_0
I0403 02:30:39.897469 16972 net.cpp:399] label_data_1_split -> label_data_1_split_1
I0403 02:30:39.897598 16972 net.cpp:141] Setting up label_data_1_split
I0403 02:30:39.897639 16972 net.cpp:148] Top shape: 100 (100)
I0403 02:30:39.897691 16972 net.cpp:148] Top shape: 100 (100)
I0403 02:30:39.897709 16972 net.cpp:156] Memory required for data: 61836000
I0403 02:30:39.897778 16972 layer_factory.hpp:77] Creating layer conv1
I0403 02:30:39.897850 16972 net.cpp:91] Creating Layer conv1
I0403 02:30:39.897905 16972 net.cpp:425] conv1 <- data
I0403 02:30:39.898032 16972 net.cpp:399] conv1 -> conv1
I0403 02:30:39.901775 16972 net.cpp:141] Setting up conv1
I0403 02:30:39.901865 16972 net.cpp:148] Top shape: 100 96 55 55 (29040000)
I0403 02:30:39.901924 16972 net.cpp:156] Memory required for data: 177996000
I0403 02:30:39.901995 16972 layer_factory.hpp:77] Creating layer relu1
I0403 02:30:39.902071 16972 net.cpp:91] Creating Layer relu1
I0403 02:30:39.902113 16972 net.cpp:425] relu1 <- conv1
I0403 02:30:39.902178 16972 net.cpp:386] relu1 -> conv1 (in-place)
I0403 02:30:39.902243 16972 net.cpp:141] Setting up relu1
I0403 02:30:39.902321 16972 net.cpp:148] Top shape: 100 96 55 55 (29040000)
I0403 02:30:39.902446 16972 net.cpp:156] Memory required for data: 294156000
I0403 02:30:39.902504 16972 layer_factory.hpp:77] Creating layer norm1
I0403 02:30:39.902580 16972 net.cpp:91] Creating Layer norm1
I0403 02:30:39.902639 16972 net.cpp:425] norm1 <- conv1
I0403 02:30:39.902706 16972 net.cpp:399] norm1 -> norm1
I0403 02:30:39.902856 16972 net.cpp:141] Setting up norm1
I0403 02:30:39.902930 16972 net.cpp:148] Top shape: 100 96 55 55 (29040000)
I0403 02:30:39.902988 16972 net.cpp:156] Memory required for data: 410316000
I0403 02:30:39.903038 16972 layer_factory.hpp:77] Creating layer pool1
I0403 02:30:39.903102 16972 net.cpp:91] Creating Layer pool1
I0403 02:30:39.903162 16972 net.cpp:425] pool1 <- norm1
I0403 02:30:39.903223 16972 net.cpp:399] pool1 -> pool1
I0403 02:30:39.903367 16972 net.cpp:141] Setting up pool1
I0403 02:30:39.903436 16972 net.cpp:148] Top shape: 100 96 27 27 (6998400)
I0403 02:30:39.903484 16972 net.cpp:156] Memory required for data: 438309600
I0403 02:30:39.903600 16972 layer_factory.hpp:77] Creating layer conv2
I0403 02:30:39.903672 16972 net.cpp:91] Creating Layer conv2
I0403 02:30:39.903729 16972 net.cpp:425] conv2 <- pool1
I0403 02:30:39.903791 16972 net.cpp:399] conv2 -> conv2
I0403 02:30:39.917726 16972 net.cpp:141] Setting up conv2
I0403 02:30:39.936698 16972 net.cpp:148] Top shape: 100 256 27 27 (18662400)
I0403 02:30:39.936784 16972 net.cpp:156] Memory required for data: 512959200
I0403 02:30:39.936890 16972 layer_factory.hpp:77] Creating layer relu2
I0403 02:30:39.936997 16972 net.cpp:91] Creating Layer relu2
I0403 02:30:39.937072 16972 net.cpp:425] relu2 <- conv2
I0403 02:30:39.937142 16972 net.cpp:386] relu2 -> conv2 (in-place)
I0403 02:30:39.937237 16972 net.cpp:141] Setting up relu2
I0403 02:30:39.937335 16972 net.cpp:148] Top shape: 100 256 27 27 (18662400)
I0403 02:30:39.937409 16972 net.cpp:156] Memory required for data: 587608800
I0403 02:30:39.937487 16972 layer_factory.hpp:77] Creating layer norm2
I0403 02:30:39.937567 16972 net.cpp:91] Creating Layer norm2
I0403 02:30:39.937615 16972 net.cpp:425] norm2 <- conv2
I0403 02:30:39.937701 16972 net.cpp:399] norm2 -> norm2
I0403 02:30:39.937858 16972 net.cpp:141] Setting up norm2
I0403 02:30:39.937942 16972 net.cpp:148] Top shape: 100 256 27 27 (18662400)
I0403 02:30:39.938132 16972 net.cpp:156] Memory required for data: 662258400
I0403 02:30:39.938174 16972 layer_factory.hpp:77] Creating layer pool2
I0403 02:30:39.938220 16972 net.cpp:91] Creating Layer pool2
I0403 02:30:39.938328 16972 net.cpp:425] pool2 <- norm2
I0403 02:30:39.938411 16972 net.cpp:399] pool2 -> pool2
I0403 02:30:39.938551 16972 net.cpp:141] Setting up pool2
I0403 02:30:39.938608 16972 net.cpp:148] Top shape: 100 256 13 13 (4326400)
I0403 02:30:39.938644 16972 net.cpp:156] Memory required for data: 679564000
I0403 02:30:39.938683 16972 layer_factory.hpp:77] Creating layer conv3
I0403 02:30:39.938738 16972 net.cpp:91] Creating Layer conv3
I0403 02:30:39.938781 16972 net.cpp:425] conv3 <- pool2
I0403 02:30:39.938832 16972 net.cpp:399] conv3 -> conv3
I0403 02:30:39.979424 16972 net.cpp:141] Setting up conv3
I0403 02:30:39.979471 16972 net.cpp:148] Top shape: 100 384 13 13 (6489600)
I0403 02:30:39.979488 16972 net.cpp:156] Memory required for data: 705522400
I0403 02:30:39.979514 16972 layer_factory.hpp:77] Creating layer relu3
I0403 02:30:39.979537 16972 net.cpp:91] Creating Layer relu3
I0403 02:30:39.979555 16972 net.cpp:425] relu3 <- conv3
I0403 02:30:39.979575 16972 net.cpp:386] relu3 -> conv3 (in-place)
I0403 02:30:39.979598 16972 net.cpp:141] Setting up relu3
I0403 02:30:39.979616 16972 net.cpp:148] Top shape: 100 384 13 13 (6489600)
I0403 02:30:39.979631 16972 net.cpp:156] Memory required for data: 731480800
I0403 02:30:39.979645 16972 layer_factory.hpp:77] Creating layer conv4
I0403 02:30:39.979668 16972 net.cpp:91] Creating Layer conv4
I0403 02:30:39.979686 16972 net.cpp:425] conv4 <- conv3
I0403 02:30:39.979707 16972 net.cpp:399] conv4 -> conv4
I0403 02:30:40.005970 16972 net.cpp:141] Setting up conv4
I0403 02:30:40.006006 16972 net.cpp:148] Top shape: 100 384 13 13 (6489600)
I0403 02:30:40.006022 16972 net.cpp:156] Memory required for data: 757439200
I0403 02:30:40.006043 16972 layer_factory.hpp:77] Creating layer relu4
I0403 02:30:40.006063 16972 net.cpp:91] Creating Layer relu4
I0403 02:30:40.006080 16972 net.cpp:425] relu4 <- conv4
I0403 02:30:40.006099 16972 net.cpp:386] relu4 -> conv4 (in-place)
I0403 02:30:40.006121 16972 net.cpp:141] Setting up relu4
I0403 02:30:40.006139 16972 net.cpp:148] Top shape: 100 384 13 13 (6489600)
I0403 02:30:40.006155 16972 net.cpp:156] Memory required for data: 783397600
I0403 02:30:40.006170 16972 layer_factory.hpp:77] Creating layer conv5
I0403 02:30:40.006192 16972 net.cpp:91] Creating Layer conv5
I0403 02:30:40.006209 16972 net.cpp:425] conv5 <- conv4
I0403 02:30:40.006229 16972 net.cpp:399] conv5 -> conv5
I0403 02:30:40.023427 16972 net.cpp:141] Setting up conv5
I0403 02:30:40.023460 16972 net.cpp:148] Top shape: 100 256 13 13 (4326400)
I0403 02:30:40.023476 16972 net.cpp:156] Memory required for data: 800703200
I0403 02:30:40.023531 16972 layer_factory.hpp:77] Creating layer relu5
I0403 02:30:40.023555 16972 net.cpp:91] Creating Layer relu5
I0403 02:30:40.023581 16972 net.cpp:425] relu5 <- conv5
I0403 02:30:40.023604 16972 net.cpp:386] relu5 -> conv5 (in-place)
I0403 02:30:40.023633 16972 net.cpp:141] Setting up relu5
I0403 02:30:40.023650 16972 net.cpp:148] Top shape: 100 256 13 13 (4326400)
I0403 02:30:40.023669 16972 net.cpp:156] Memory required for data: 818008800
I0403 02:30:40.023684 16972 layer_factory.hpp:77] Creating layer pool5
I0403 02:30:40.023710 16972 net.cpp:91] Creating Layer pool5
I0403 02:30:40.023730 16972 net.cpp:425] pool5 <- conv5
I0403 02:30:40.023747 16972 net.cpp:399] pool5 -> pool5
I0403 02:30:40.023802 16972 net.cpp:141] Setting up pool5
I0403 02:30:40.023825 16972 net.cpp:148] Top shape: 100 256 6 6 (921600)
I0403 02:30:40.023840 16972 net.cpp:156] Memory required for data: 821695200
I0403 02:30:40.023854 16972 layer_factory.hpp:77] Creating layer fc6
I0403 02:30:40.023877 16972 net.cpp:91] Creating Layer fc6
I0403 02:30:40.023895 16972 net.cpp:425] fc6 <- pool5
I0403 02:30:40.023913 16972 net.cpp:399] fc6 -> fc6
I0403 02:30:41.456569 16972 net.cpp:141] Setting up fc6
I0403 02:30:41.456655 16972 net.cpp:148] Top shape: 100 4096 (409600)
I0403 02:30:41.456672 16972 net.cpp:156] Memory required for data: 823333600
I0403 02:30:41.456696 16972 layer_factory.hpp:77] Creating layer relu6
I0403 02:30:41.456725 16972 net.cpp:91] Creating Layer relu6
I0403 02:30:41.456745 16972 net.cpp:425] relu6 <- fc6
I0403 02:30:41.456765 16972 net.cpp:386] relu6 -> fc6 (in-place)
I0403 02:30:41.456789 16972 net.cpp:141] Setting up relu6
I0403 02:30:41.456807 16972 net.cpp:148] Top shape: 100 4096 (409600)
I0403 02:30:41.456821 16972 net.cpp:156] Memory required for data: 824972000
I0403 02:30:41.456835 16972 layer_factory.hpp:77] Creating layer drop6
I0403 02:30:41.456854 16972 net.cpp:91] Creating Layer drop6
I0403 02:30:41.456871 16972 net.cpp:425] drop6 <- fc6
I0403 02:30:41.456890 16972 net.cpp:386] drop6 -> fc6 (in-place)
I0403 02:30:41.456930 16972 net.cpp:141] Setting up drop6
I0403 02:30:41.456953 16972 net.cpp:148] Top shape: 100 4096 (409600)
I0403 02:30:41.456967 16972 net.cpp:156] Memory required for data: 826610400
I0403 02:30:41.456982 16972 layer_factory.hpp:77] Creating layer fc7
I0403 02:30:41.457005 16972 net.cpp:91] Creating Layer fc7
I0403 02:30:41.457021 16972 net.cpp:425] fc7 <- fc6
I0403 02:30:41.457039 16972 net.cpp:399] fc7 -> fc7
I0403 02:30:42.081710 16972 net.cpp:141] Setting up fc7
I0403 02:30:42.081794 16972 net.cpp:148] Top shape: 100 4096 (409600)
I0403 02:30:42.081815 16972 net.cpp:156] Memory required for data: 828248800
I0403 02:30:42.081840 16972 layer_factory.hpp:77] Creating layer relu7
I0403 02:30:42.081867 16972 net.cpp:91] Creating Layer relu7
I0403 02:30:42.081889 16972 net.cpp:425] relu7 <- fc7
I0403 02:30:42.081912 16972 net.cpp:386] relu7 -> fc7 (in-place)
I0403 02:30:42.081938 16972 net.cpp:141] Setting up relu7
I0403 02:30:42.081959 16972 net.cpp:148] Top shape: 100 4096 (409600)
I0403 02:30:42.081975 16972 net.cpp:156] Memory required for data: 829887200
I0403 02:30:42.081990 16972 layer_factory.hpp:77] Creating layer drop7
I0403 02:30:42.082015 16972 net.cpp:91] Creating Layer drop7
I0403 02:30:42.082032 16972 net.cpp:425] drop7 <- fc7
I0403 02:30:42.082051 16972 net.cpp:386] drop7 -> fc7 (in-place)
I0403 02:30:42.082095 16972 net.cpp:141] Setting up drop7
I0403 02:30:42.082134 16972 net.cpp:148] Top shape: 100 4096 (409600)
I0403 02:30:42.082164 16972 net.cpp:156] Memory required for data: 831525600
I0403 02:30:42.082191 16972 layer_factory.hpp:77] Creating layer fc8_plantvillage
I0403 02:30:42.082231 16972 net.cpp:91] Creating Layer fc8_plantvillage
I0403 02:30:42.082267 16972 net.cpp:425] fc8_plantvillage <- fc7
I0403 02:30:42.082341 16972 net.cpp:399] fc8_plantvillage -> fc8_plantvillage
I0403 02:30:42.090698 16972 net.cpp:141] Setting up fc8_plantvillage
I0403 02:30:42.090737 16972 net.cpp:148] Top shape: 100 38 (3800)
I0403 02:30:42.090757 16972 net.cpp:156] Memory required for data: 831540800
I0403 02:30:42.090822 16972 layer_factory.hpp:77] Creating layer fc8_plantvillage_fc8_plantvillage_0_split
I0403 02:30:42.090847 16972 net.cpp:91] Creating Layer fc8_plantvillage_fc8_plantvillage_0_split
I0403 02:30:42.090895 16972 net.cpp:425] fc8_plantvillage_fc8_plantvillage_0_split <- fc8_plantvillage
I0403 02:30:42.090944 16972 net.cpp:399] fc8_plantvillage_fc8_plantvillage_0_split -> fc8_plantvillage_fc8_plantvillage_0_split_0
I0403 02:30:42.091015 16972 net.cpp:399] fc8_plantvillage_fc8_plantvillage_0_split -> fc8_plantvillage_fc8_plantvillage_0_split_1
I0403 02:30:42.091116 16972 net.cpp:141] Setting up fc8_plantvillage_fc8_plantvillage_0_split
I0403 02:30:42.091143 16972 net.cpp:148] Top shape: 100 38 (3800)
I0403 02:30:42.091161 16972 net.cpp:148] Top shape: 100 38 (3800)
I0403 02:30:42.091177 16972 net.cpp:156] Memory required for data: 831571200
I0403 02:30:42.091193 16972 layer_factory.hpp:77] Creating layer loss
I0403 02:30:42.091213 16972 net.cpp:91] Creating Layer loss
I0403 02:30:42.091230 16972 net.cpp:425] loss <- fc8_plantvillage_fc8_plantvillage_0_split_0
I0403 02:30:42.091248 16972 net.cpp:425] loss <- label_data_1_split_0
I0403 02:30:42.091270 16972 net.cpp:399] loss -> loss
…
