…
I0403 19:53:33.829700  9801 net.cpp:313] The NetState phase (1) differed from the phase (0) specified by a rule in layer data
I0403 19:53:33.830876  9801 net.cpp:49] Initializing net from parameters: 
state {
  phase: TEST
}
layer {
  name: "data"
  type: "Data"
  top: "data"
  top: "label"
  include {
    phase: TEST
  }
  transform_param {
    mirror: false
    crop_size: 224
    mean_file: "/home/mohanty/data/final_dataset/lmdb/color-50-50/mean.binaryproto"
  }
  data_param {
    source: "/home/mohanty/data/final_dataset/lmdb/color-50-50/test_db"
    batch_size: 24
    backend: LMDB
  }
}
layer {
  name: "conv1/7x7_s2"
  type: "Convolution"
  bottom: "data"
  top: "conv1/7x7_s2"
  param {
    lr_mult: 1
    decay_mult: 1
  }
  param {
    lr_mult: 2
    decay_mult: 0
  }
  convolution_param {
    num_output: 64
    pad: 3
    kernel_size: 7
    stride: 2
    weight_filler {
      type: "xavier"
      std: 0.1
    }
    bias_filler {
      type: "constant"
      value: 0.2
    }
  }
}
layer {
  name: "conv1/relu_7x7"
  type: "ReLU"
  bottom: "conv1/7x7_s2"
  top: "conv1/7x7_s2"
}
layer {
  name: "pool1/3x3_s2"
  type: "Pooling"
  bottom: "conv1/7x7_s2"
  top: "pool1/3x3_s2"
  pooling_param {
    pool: MAX
    kernel_size: 3
    stride: 2
  }
}
layer {
  name: "pool1/norm1"
  type: "LRN"
  bottom: "pool1/3x3_s2"
  top: "pool1/norm1"
  lrn_param {
    local_size: 5
    alpha: 0.0001
    beta: 0.75
  }
}
layer {
  name: "conv2/3x3_reduce"
  type: "Convolution"
  bottom: "pool1/norm1"
  top: "conv2/3x3_reduce"
  param {
    lr_mult: 1
    decay_mult: 1
  }
  param {
    lr_mult: 2
    decay_mult: 0
  }
  convolution_param {
    num_output: 64
    kernel_size: 1
    weight_filler {
      type: "xavier"
      std: 0.1
    }
    bias_filler {
      type: "constant"
      value: 0.2
    }
  }
}
layer {
  name: "conv2/relu_3x3_reduce"
  type: "ReLU"
  bottom: "conv2/3x3_reduce"
  top: "conv2/3x3_reduce"
}
layer {
  name: "conv2/3x3"
  type: "Convolution"
  bottom: "conv2/3x3_reduce"
  top: "conv2/3x3"
  param {
    lr_mult: 1
    decay_mult: 1
  }
  param {
    lr_mult: 2
    decay_mult: 0
  }
  convolution_param {
    num_output: 192
    pad: 1
    kernel_size: 3
    weight_filler {
      type: "xavier"
      std: 0.03
    }
    bias_filler {
      type: "constant"
      value: 0.2
    }
  }
}
layer {
  name: "conv2/relu_3x3"
  type: "ReLU"
  bottom: "conv2/3x3"
  top: "conv2/3x3"
}
layer {
  name: "conv2/norm2"
  type: "LRN"
  bottom: "conv2/3x3"
  top: "conv2/norm2"
  lrn_param {
    local_size: 5
    alpha: 0.0001
    beta: 0.75
  }
}
layer {
  name: "pool2/3x3_s2"
  type: "Pooling"
  bottom: "conv2/norm2"
  top: "pool2/3x3_s2"
  pooling_param {
    pool: MAX
    kernel_size: 3
    stride: 2
  }
}
layer {
  name: "inception_3a/1x1"
  type: "Convolution"
  bottom: "pool2/3x3_s2"
  top: "inception_3a/1x1"
  param {
    lr_mult: 1
    decay_mult: 1
  }
  param {
    lr_mult: 2
    decay_mult: 0
  }
  convolution_param {
    num_output: 64
    kernel_size: 1
    weight_filler {
      type: "xavier"
      std: 0.03
    }
    bias_filler {
      type: "constant"
      value: 0.2
    }
  }
}
layer {
  name: "inception_3a/relu_1x1"
  type: "ReLU"
  bottom: "inception_3a/1x1"
  top: "inception_3a/1x1"
}
layer {
  name: "inception_3a/3x3_reduce"
  type: "Convolution"
  bottom: "pool2/3x3_s2"
  top: "inception_3a/3x3_reduce"
  param {
    lr_mult: 1
    decay_mult: 1
  }
  param {
    lr_mult: 2
    decay_mult: 0
  }
  convolution_param {
    num_output: 96
    kernel_size: 1
    weight_filler {
      type: "xavier"
      std: 0.09
    }
    bias_filler {
      type: "constant"
      value: 0.2
    }
  }
}
layer {
  name: "inception_3a/relu_3x3_reduce"
  type: "ReLU"
  bottom: "inception_3a/3x3_reduce"
  top: "inception_3a/3x3_reduce"
}
layer {
  name: "inception_3a/3x3"
  type: "Convolution"
  bottom: "inception_3a/3x3_reduce"
  top: "inception_3a/3x3"
  param {
    lr_mult: 1
    decay_mult: 1
  }
  param {
    lr_mult: 2
    decay_mult: 0
  }
  convolution_param {
    num_output: 128
    pad: 1
    kernel_size: 3
    weight_filler {
      type: "xavier"
      std: 0.03
    }
    bias_filler {
      type: "constant"
      value: 0.2
    }
  }
}
layer {
  name: "inception_3a/relu_3x3"
  type: "ReLU"
  bottom: "inception_3a/3x3"
  top: "inception_3a/3x3"
}
layer {
  name: "inception_3a/5x5_reduce"
  type: "Convolution"
  bottom: "pool2/3x3_s2"
  top: "inception_3a/5x5_reduce"
  param {
    lr_mult: 1
    decay_mult: 1
  }
  param {
    lr_mult: 2
    decay_mult: 0
  }
  convolution_param {
    num_output: 16
    kernel_size: 1
    weight_filler {
      type: "xavier"
      std: 0.2
    }
    bias_filler {
      type: "constant"
      value: 0.2
    }
  }
}
layer {
  name: "inception_3a/relu_5x5_reduce"
  type: "ReLU"
  bottom: "inception_3a/5x5_reduce"
  top: "inception_3a/5x5_reduce"
}
layer {
  name: "inception_3a/5x5"
  type: "Convolution"
  bottom: "inception_3a/5x5_reduce"
  top: "inception_3a/5x5"
  param {
    lr_mult: 1
    decay_mult: 1
  }
  param {
    lr_mult: 2
    decay_mult: 0
  }
  convolution_param {
    num_output: 32
    pad: 2
    kernel_size: 5
    weight_filler {
      type: "xavier"
      std: 0.03
    }
    bias_filler {
      type: "constant"
      value: 0.2
    }
  }
}
layer {
  name: "inception_3a/relu_5x5"
  type: "ReLU"
  bottom: "inception_3a/5x5"
  top: "inception_3a/5x5"
}
layer {
  name: "inception_3a/pool"
  type: "Pooling"
  bottom: "pool2/3x3_s2"
  top: "inception_3a/pool"
  pooling_param {
    pool: MAX
    kernel_size: 3
    stride: 1
    pad: 1
  }
}
layer {
  name: "inception_3a/pool_proj"
  type: "Convolution"
  bottom: "inception_3a/pool"
  top: "inception_3a/pool_proj"
  param {
    lr_mult: 1
    decay_mult: 1
  }
  param {
    lr_mult: 2
    decay_mult: 0
  }
  convolution_param {
    num_output: 32
    kernel_size: 1
    weight_filler {
      type: "xavier"
      std: 0.1
    }
    bias_filler {
      type: "constant"
      value: 0.2
    }
  }
}
layer {
  name: "inception_3a/relu_pool_proj"
  type: "ReLU"
  bottom: "inception_3a/pool_proj"
  top: "inception_3a/pool_proj"
}
layer {
  name: "inception_3a/output"
  type: "Concat"
  bottom: "inception_3a/1x1"
  bottom: "inception_3a/3x3"
  bottom: "inception_3a/5x5"
  bottom: "inception_3a/pool_proj"
  top: "inception_3a/output"
}
layer {
  name: "inception_3b/1x1"
  type: "Convolution"
  bottom: "inception_3a/output"
  top: "inception_3b/1x1"
  param {
    lr_mult: 1
    decay_mult: 1
  }
  param {
    lr_mult: 2
    decay_mult: 0
  }
  convolution_param {
    num_output: 128
    kernel_size: 1
    weight_filler {
      type: "xavier"
      std: 0.03
    }
    bias_filler {
      type: "constant"
      value: 0.2
    }
  }
}
layer {
  name: "inception_3b/relu_1x1"
  type: "ReLU"
  bottom: "inception_3b/1x1"
  top: "inception_3b/1x1"
}
layer {
  name: "inception_3b/3x3_reduce"
  type: "Convolution"
  bottom: "inception_3a/output"
  top: "inception_3b/3x3_reduce"
  param {
    lr_mult: 1
    decay_mult: 1
  }
  param {
    lr_mult: 2
    decay_mult: 0
  }
  convolution_param {
    num_output: 128
    kernel_size: 1
    weight_filler {
      type: "xavier"
      std: 0.09
    }
    bias_filler {
      type: "constant"
      value: 0.2
    }
  }
}
layer {
  name: "inception_3b/relu_3x3_reduce"
  type: "ReLU"
  bottom: "inception_3b/3x3_reduce"
  top: "inception_3b/3x3_reduce"
}
layer {
  name: "inception_3b/3x3"
  type: "Convolution"
  bottom: "inception_3b/3x3_reduce"
  top: "inception_3b/3x3"
  param {
    lr_mult: 1
    decay_mult: 1
  }
  param {
    lr_mult: 2
    decay_mult: 0
  }
  convolution_param {
    num_output: 192
    pad: 1
    kernel_size: 3
    weight_filler {
      type: "xavier"
      std: 0.03
    }
    bias_filler {
      type: "constant"
      value: 0.2
    }
  }
}
layer {
  name: "inception_3b/relu_3x3"
  type: "ReLU"
  bottom: "inception_3b/3x3"
  top: "inception_3b/3x3"
}
layer {
  name: "inception_3b/5x5_reduce"
  type: "Convolution"
  bottom: "inception_3a/output"
  top: "inception_3b/5x5_reduce"
  param {
    lr_mult: 1
    decay_mult: 1
  }
  param {
    lr_mult: 2
    decay_mult: 0
  }
  convolution_param {
    num_output: 32
    kernel_size: 1
    weight_filler {
      type: "xavier"
      std: 0.2
    }
    bias_filler {
      type: "constant"
      value: 0.2
    }
  }
}
layer {
  name: "inception_3b/relu_5x5_reduce"
  type: "ReLU"
  bottom: "inception_3b/5x5_reduce"
  top: "inception_3b/5x5_reduce"
}
layer {
  name: "inception_3b/5x5"
  type: "Convolution"
  bottom: "inception_3b/5x5_reduce"
  top: "inception_3b/5x5"
  param {
    lr_mult: 1
    decay_mult: 1
  }
  param {
    lr_mult: 2
    decay_mult: 0
  }
  convolution_param {
    num_output: 96
    pad: 2
    kernel_size: 5
    weight_filler {
      type: "xavier"
      std: 0.03
    }
    bias_filler {
      type: "constant"
      value: 0.2
    }
  }
}
layer {
  name: "inception_3b/relu_5x5"
  type: "ReLU"
  bottom: "inception_3b/5x5"
  top: "inception_3b/5x5"
}
layer {
  name: "inception_3b/pool"
  type: "Pooling"
  bottom: "inception_3a/output"
  top: "inception_3b/pool"
  pooling_param {
    pool: MAX
    kernel_size: 3
    stride: 1
    pad: 1
  }
}
layer {
  name: "inception_3b/pool_proj"
  type: "Convolution"
  bottom: "inception_3b/pool"
  top: "inception_3b/pool_proj"
  param {
    lr_mult: 1
    decay_mult: 1
  }
  param {
    lr_mult: 2
    decay_mult: 0
  }
  convolution_param {
    num_output: 64
    kernel_size: 1
    weight_filler {
      type: "xavier"
      std: 0.1
    }
    bias_filler {
      type: "constant"
      value: 0.2
    }
  }
}
layer {
  name: "inception_3b/relu_pool_proj"
  type: "ReLU"
  bottom: "inception_3b/pool_proj"
  top: "inception_3b/pool_proj"
}
layer {
  name: "inception_3b/output"
  type: "Concat"
  bottom: "inception_3b/1x1"
  bottom: "inception_3b/3x3"
  bottom: "inception_3b/5x5"
  bottom: "inception_3b/pool_proj"
  top: "inception_3b/output"
}
layer {
  name: "pool3/3x3_s2"
  type: "Pooling"
  bottom: "inception_3b/output"
  top: "pool3/3x3_s2"
  pooling_param {
    pool: MAX
    kernel_size: 3
    stride: 2
  }
}
layer {
  name: "inception_4a/1x1"
  type: "Convolution"
  bottom: "pool3/3x3_s2"
  top: "inception_4a/1x1"
  param {
    lr_mult: 1
    decay_mult: 1
  }
  param {
    lr_mult: 2
    decay_mult: 0
  }
  convolution_param {
    num_output: 192
    kernel_size: 1
    weight_filler {
      type: "xavier"
      std: 0.03
    }
    bias_filler {
      type: "constant"
      value: 0.2
    }
  }
}
layer {
  name: "inception_4a/relu_1x1"
  type: "ReLU"
  bottom: "inception_4a/1x1"
  top: "inception_4a/1x1"
}
layer {
  name: "inception_4a/3x3_reduce"
  type: "Convolution"
  bottom: "pool3/3x3_s2"
  top: "inception_4a/3x3_reduce"
  param {
    lr_mult: 1
    decay_mult: 1
  }
  param {
    lr_mult: 2
    decay_mult: 0
  }
  convolution_param {
    num_output: 96
    kernel_size: 1
    weight_filler {
      type: "xavier"
      std: 0.09
    }
    bias_filler {
      type: "constant"
      value: 0.2
    }
  }
}
layer {
  name: "inception_4a/relu_3x3_reduce"
  type: "ReLU"
  bottom: "inception_4a/3x3_reduce"
  top: "inception_4a/3x3_reduce"
}
layer {
  name: "inception_4a/3x3"
  type: "Convolution"
  bottom: "inception_4a/3x3_reduce"
  top: "inception_4a/3x3"
  param {
    lr_mult: 1
    decay_mult: 1
  }
  param {
    lr_mult: 2
    decay_mult: 0
  }
  convolution_param {
    num_output: 208
    pad: 1
    kernel_size: 3
    weight_filler {
      type: "xavier"
      std: 0.03
    }
    bias_filler {
      type: "constant"
      value: 0.2
    }
  }
}
layer {
  name: "inception_4a/relu_3x3"
  type: "ReLU"
  bottom: "inception_4a/3x3"
  top: "inception_4a/3x3"
}
layer {
  name: "inception_4a/5x5_reduce"
  type: "Convolution"
  bottom: "pool3/3x3_s2"
  top: "inception_4a/5x5_reduce"
  param {
    lr_mult: 1
    decay_mult: 1
  }
  param {
    lr_mult: 2
    decay_mult: 0
  }
  convolution_param {
    num_output: 16
    kernel_size: 1
    weight_filler {
      type: "xavier"
      std: 0.2
    }
    bias_filler {
      type: "constant"
      value: 0.2
    }
  }
}
layer {
  name: "inception_4a/relu_5x5_reduce"
  type: "ReLU"
  bottom: "inception_4a/5x5_reduce"
  top: "inception_4a/5x5_reduce"
}
layer {
  name: "inception_4a/5x5"
  type: "Convolution"
  bottom: "inception_4a/5x5_reduce"
  top: "inception_4a/5x5"
  param {
    lr_mult: 1
    decay_mult: 1
  }
  param {
    lr_mult: 2
    decay_mult: 0
  }
  convolution_param {
    num_output: 48
    pad: 2
    kernel_size: 5
    weight_filler {
      type: "xavier"
      std: 0.03
    }
    bias_filler {
      type: "constant"
      value: 0.2
    }
  }
}
layer {
  name: "inception_4a/relu_5x5"
  type: "ReLU"
  bottom: "inception_4a/5x5"
  top: "inception_4a/5x5"
}
layer {
  name: "inception_4a/pool"
  type: "Pooling"
  bottom: "pool3/3x3_s2"
  top: "inception_4a/pool"
  pooling_param {
    pool: MAX
    kernel_size: 3
    stride: 1
    pad: 1
  }
}
layer {
  name: "inception_4a/pool_proj"
  type: "Convolution"
  bottom: "inception_4a/pool"
  top: "inception_4a/pool_proj"
  param {
    lr_mult: 1
    decay_mult: 1
  }
  param {
    lr_mult: 2
    decay_mult: 0
  }
  convolution_param {
    num_output: 64
    kernel_size: 1
    weight_filler {
      type: "xavier"
      std: 0.1
    }
    bias_filler {
      type: "constant"
      value: 0.2
    }
  }
}
layer {
  name: "inception_4a/relu_pool_proj"
  type: "ReLU"
  bottom: "inception_4a/pool_proj"
  top: "inception_4a/pool_proj"
}
layer {
  name: "inception_4a/output"
  type: "Concat"
  bottom: "inception_4a/1x1"
  bottom: "inception_4a/3x3"
  bottom: "inception_4a/5x5"
  bottom: "inception_4a/pool_proj"
  top: "inception_4a/output"
}
layer {
  name: "loss1/ave_pool"
  type: "Pooling"
  bottom: "inception_4a/output"
  top: "loss1/ave_pool"
  pooling_param {
    pool: AVE
    kernel_size: 5
    stride: 3
  }
}
layer {
  name: "loss1/conv"
  type: "Convolution"
  bottom: "loss1/ave_pool"
  top: "loss1/conv"
  param {
    lr_mult: 1
    decay_mult: 1
  }
  param {
    lr_mult: 2
    decay_mult: 0
  }
  convolution_param {
    num_output: 128
    kernel_size: 1
    weight_filler {
      type: "xavier"
      std: 0.08
    }
    bias_filler {
      type: "constant"
      value: 0.2
    }
  }
}
layer {
  name: "loss1/relu_conv"
  type: "ReLU"
  bottom: "loss1/conv"
  top: "loss1/conv"
}
layer {
  name: "loss1/fc"
  type: "InnerProduct"
  bottom: "loss1/conv"
  top: "loss1/fc"
  param {
    lr_mult: 1
    decay_mult: 1
  }
  param {
    lr_mult: 2
    decay_mult: 0
  }
  inner_product_param {
    num_output: 1024
    weight_filler {
      type: "xavier"
      std: 0.02
    }
    bias_filler {
      type: "constant"
      value: 0.2
    }
  }
}
layer {
  name: "loss1/relu_fc"
  type: "ReLU"
  bottom: "loss1/fc"
  top: "loss1/fc"
}
layer {
  name: "loss1/drop_fc"
  type: "Dropout"
  bottom: "loss1/fc"
  top: "loss1/fc"
  dropout_param {
    dropout_ratio: 0.7
  }
}
layer {
  name: "loss1/classifier_plantvillage"
  type: "InnerProduct"
  bottom: "loss1/fc"
  top: "loss1/classifier_plantvillage"
  param {
    lr_mult: 1
    decay_mult: 1
  }
  param {
    lr_mult: 2
    decay_mult: 0
  }
  inner_product_param {
    num_output: 38
    weight_filler {
      type: "xavier"
      std: 0.0009765625
    }
    bias_filler {
      type: "constant"
      value: 0
    }
  }
}
layer {
  name: "inception_4b/1x1"
  type: "Convolution"
  bottom: "inception_4a/output"
  top: "inception_4b/1x1"
  param {
    lr_mult: 1
    decay_mult: 1
  }
  param {
    lr_mult: 2
    decay_mult: 0
  }
  convolution_param {
    num_output: 160
    kernel_size: 1
    weight_filler {
      type: "xavier"
      std: 0.03
    }
    bias_filler {
      type: "constant"
      value: 0.2
    }
  }
}
layer {
  name: "inception_4b/relu_1x1"
  type: "ReLU"
  bottom: "inception_4b/1x1"
  top: "inception_4b/1x1"
}
layer {
  name: "inception_4b/3x3_reduce"
  type: "Convolution"
  bottom: "inception_4a/output"
  top: "inception_4b/3x3_reduce"
  param {
    lr_mult: 1
    decay_mult: 1
  }
  param {
    lr_mult: 2
    decay_mult: 0
  }
  convolution_param {
    num_output: 112
    kernel_size: 1
    weight_filler {
      type: "xavier"
      std: 0.09
    }
    bias_filler {
      type: "constant"
      value: 0.2
    }
  }
}
layer {
  name: "inception_4b/relu_3x3_reduce"
  type: "ReLU"
  bottom: "inception_4b/3x3_reduce"
  top: "inception_4b/3x3_reduce"
}
layer {
  name: "inception_4b/3x3"
  type: "Convolution"
  bottom: "inception_4b/3x3_reduce"
  top: "inception_4b/3x3"
  param {
    lr_mult: 1
    decay_mult: 1
  }
  param {
    lr_mult: 2
    decay_mult: 0
  }
  convolution_param {
    num_output: 224
    pad: 1
    kernel_size: 3
    weight_filler {
      type: "xavier"
      std: 0.03
    }
    bias_filler {
      type: "constant"
      value: 0.2
    }
  }
}
layer {
  name: "inception_4b/relu_3x3"
  type: "ReLU"
  bottom: "inception_4b/3x3"
  top: "inception_4b/3x3"
}
layer {
  name: "inception_4b/5x5_reduce"
  type: "Convolution"
  bottom: "inception_4a/output"
  top: "inception_4b/5x5_reduce"
  param {
    lr_mult: 1
    decay_mult: 1
  }
  param {
    lr_mult: 2
    decay_mult: 0
  }
  convolution_param {
    num_output: 24
    kernel_size: 1
    weight_filler {
      type: "xavier"
      std: 0.2
    }
    bias_filler {
      type: "constant"
      value: 0.2
    }
  }
}
layer {
  name: "inception_4b/relu_5x5_reduce"
  type: "ReLU"
  bottom: "inception_4b/5x5_reduce"
  top: "inception_4b/5x5_reduce"
}
layer {
  name: "inception_4b/5x5"
  type: "Convolution"
  bottom: "inception_4b/5x5_reduce"
  top: "inception_4b/5x5"
  param {
    lr_mult: 1
    decay_mult: 1
  }
  param {
    lr_mult: 2
    decay_mult: 0
  }
  convolution_param {
    num_output: 64
    pad: 2
    kernel_size: 5
    weight_filler {
      type: "xavier"
      std: 0.03
    }
    bias_filler {
      type: "constant"
      value: 0.2
    }
  }
}
layer {
  name: "inception_4b/relu_5x5"
  type: "ReLU"
  bottom: "inception_4b/5x5"
  top: "inception_4b/5x5"
}
layer {
  name: "inception_4b/pool"
  type: "Pooling"
  bottom: "inception_4a/output"
  top: "inception_4b/pool"
  pooling_param {
    pool: MAX
    kernel_size: 3
    stride: 1
    pad: 1
  }
}
layer {
  name: "inception_4b/pool_proj"
  type: "Convolution"
  bottom: "inception_4b/pool"
  top: "inception_4b/pool_proj"
  param {
    lr_mult: 1
    decay_mult: 1
  }
  param {
    lr_mult: 2
    decay_mult: 0
  }
  convolution_param {
    num_output: 64
    kernel_size: 1
    weight_filler {
      type: "xavier"
      std: 0.1
    }
    bias_filler {
      type: "constant"
      value: 0.2
    }
  }
}
layer {
  name: "inception_4b/relu_pool_proj"
  type: "ReLU"
  bottom: "inception_4b/pool_proj"
  top: "inception_4b/pool_proj"
}
layer {
  name: "inception_4b/output"
  type: "Concat"
  bottom: "inception_4b/1x1"
  bottom: "inception_4b/3x3"
  bottom: "inception_4b/5x5"
  bottom: "inception_4b/pool_proj"
  top: "inception_4b/output"
}
layer {
  name: "inception_4c/1x1"
  type: "Convolution"
  bottom: "inception_4b/output"
  top: "inception_4c/1x1"
  param {
    lr_mult: 1
    decay_mult: 1
  }
  param {
    lr_mult: 2
    decay_mult: 0
  }
  convolution_param {
    num_output: 128
    kernel_size: 1
    weight_filler {
      type: "xavier"
      std: 0.03
    }
    bias_filler {
      type: "constant"
      value: 0.2
    }
  }
}
layer {
  name: "inception_4c/relu_1x1"
  type: "ReLU"
  bottom: "inception_4c/1x1"
  top: "inception_4c/1x1"
}
layer {
  name: "inception_4c/3x3_reduce"
  type: "Convolution"
  bottom: "inception_4b/output"
  top: "inception_4c/3x3_reduce"
  param {
    lr_mult: 1
    decay_mult: 1
  }
  param {
    lr_mult: 2
    decay_mult: 0
  }
  convolution_param {
    num_output: 128
    kernel_size: 1
    weight_filler {
      type: "xavier"
      std: 0.09
    }
    bias_filler {
      type: "constant"
      value: 0.2
    }
  }
}
layer {
  name: "inception_4c/relu_3x3_reduce"
  type: "ReLU"
  bottom: "inception_4c/3x3_reduce"
  top: "inception_4c/3x3_reduce"
}
layer {
  name: "inception_4c/3x3"
  type: "Convolution"
  bottom: "inception_4c/3x3_reduce"
  top: "inception_4c/3x3"
  param {
    lr_mult: 1
    decay_mult: 1
  }
  param {
    lr_mult: 2
    decay_mult: 0
  }
  convolution_param {
    num_output: 256
    pad: 1
    kernel_size: 3
    weight_filler {
      type: "xavier"
      std: 0.03
    }
    bias_filler {
      type: "constant"
      value: 0.2
    }
  }
}
layer {
  name: "inception_4c/relu_3x3"
  type: "ReLU"
  bottom: "inception_4c/3x3"
  top: "inception_4c/3x3"
}
layer {
  name: "inception_4c/5x5_reduce"
  type: "Convolution"
  bottom: "inception_4b/output"
  top: "inception_4c/5x5_reduce"
  param {
    lr_mult: 1
    decay_mult: 1
  }
  param {
    lr_mult: 2
    decay_mult: 0
  }
  convolution_param {
    num_output: 24
    kernel_size: 1
    weight_filler {
      type: "xavier"
      std: 0.2
    }
    bias_filler {
      type: "constant"
      value: 0.2
    }
  }
}
layer {
  name: "inception_4c/relu_5x5_reduce"
  type: "ReLU"
  bottom: "inception_4c/5x5_reduce"
  top: "inception_4c/5x5_reduce"
}
layer {
  name: "inception_4c/5x5"
  type: "Convolution"
  bottom: "inception_4c/5x5_reduce"
  top: "inception_4c/5x5"
  param {
    lr_mult: 1
    decay_mult: 1
  }
  param {
    lr_mult: 2
    decay_mult: 0
  }
  convolution_param {
    num_output: 64
    pad: 2
    kernel_size: 5
    weight_filler {
      type: "xavier"
      std: 0.03
    }
    bias_filler {
      type: "constant"
      value: 0.2
    }
  }
}
layer {
  name: "inception_4c/relu_5x5"
  type: "ReLU"
  bottom: "inception_4c/5x5"
  top: "inception_4c/5x5"
}
layer {
  name: "inception_4c/pool"
  type: "Pooling"
  bottom: "inception_4b/output"
  top: "inception_4c/pool"
  pooling_param {
    pool: MAX
    kernel_size: 3
    stride: 1
    pad: 1
  }
}
layer {
  name: "inception_4c/pool_proj"
  type: "Convolution"
  bottom: "inception_4c/pool"
  top: "inception_4c/pool_proj"
  param {
    lr_mult: 1
    decay_mult: 1
  }
  param {
    lr_mult: 2
    decay_mult: 0
  }
  convolution_param {
    num_output: 64
    kernel_size: 1
    weight_filler {
      type: "xavier"
      std: 0.1
    }
    bias_filler {
      type: "constant"
      value: 0.2
    }
  }
}
layer {
  name: "inception_4c/relu_pool_proj"
  type: "ReLU"
  bottom: "inception_4c/pool_proj"
  top: "inception_4c/pool_proj"
}
layer {
  name: "inception_4c/output"
  type: "Concat"
  bottom: "inception_4c/1x1"
  bottom: "inception_4c/3x3"
  bottom: "inception_4c/5x5"
  bottom: "inception_4c/pool_proj"
  top: "inception_4c/output"
}
layer {
  name: "inception_4d/1x1"
  type: "Convolution"
  bottom: "inception_4c/output"
  top: "inception_4d/1x1"
  param {
    lr_mult: 1
    decay_mult: 1
  }
  param {
    lr_mult: 2
    decay_mult: 0
  }
  convolution_param {
    num_output: 112
    kernel_size: 1
    weight_filler {
      type: "xavier"
      std: 0.03
    }
    bias_filler {
      type: "constant"
      value: 0.2
    }
  }
}
layer {
  name: "inception_4d/relu_1x1"
  type: "ReLU"
  bottom: "inception_4d/1x1"
  top: "inception_4d/1x1"
}
layer {
  name: "inception_4d/3x3_reduce"
  type: "Convolution"
  bottom: "inception_4c/output"
  top: "inception_4d/3x3_reduce"
  param {
    lr_mult: 1
    decay_mult: 1
  }
  param {
    lr_mult: 2
    decay_mult: 0
  }
  convolution_param {
    num_output: 144
    kernel_size: 1
    weight_filler {
      type: "xavier"
      std: 0.09
    }
    bias_filler {
      type: "constant"
      value: 0.2
    }
  }
}
layer {
  name: "inception_4d/relu_3x3_reduce"
  type: "ReLU"
  bottom: "inception_4d/3x3_reduce"
  top: "inception_4d/3x3_reduce"
}
layer {
  name: "inception_4d/3x3"
  type: "Convolution"
  bottom: "inception_4d/3x3_reduce"
  top: "inception_4d/3x3"
  param {
    lr_mult: 1
    decay_mult: 1
  }
  param {
    lr_mult: 2
    decay_mult: 0
  }
  convolution_param {
    num_output: 288
    pad: 1
    kernel_size: 3
    weight_filler {
      type: "xavier"
      std: 0.03
    }
    bias_filler {
      type: "constant"
      value: 0.2
    }
  }
}
layer {
  name: "inception_4d/relu_3x3"
  type: "ReLU"
  bottom: "inception_4d/3x3"
  top: "inception_4d/3x3"
}
layer {
  name: "inception_4d/5x5_reduce"
  type: "Convolution"
  bottom: "inception_4c/output"
  top: "inception_4d/5x5_reduce"
  param {
    lr_mult: 1
    decay_mult: 1
  }
  param {
    lr_mult: 2
    decay_mult: 0
  }
  convolution_param {
    num_output: 32
    kernel_size: 1
    weight_filler {
      type: "xavier"
      std: 0.2
    }
    bias_filler {
      type: "constant"
      value: 0.2
    }
  }
}
layer {
  name: "inception_4d/relu_5x5_reduce"
  type: "ReLU"
  bottom: "inception_4d/5x5_reduce"
  top: "inception_4d/5x5_reduce"
}
layer {
  name: "inception_4d/5x5"
  type: "Convolution"
  bottom: "inception_4d/5x5_reduce"
  top: "inception_4d/5x5"
  param {
    lr_mult: 1
    decay_mult: 1
  }
  param {
    lr_mult: 2
    decay_mult: 0
  }
  convolution_param {
    num_output: 64
    pad: 2
    kernel_size: 5
    weight_filler {
      type: "xavier"
      std: 0.03
    }
    bias_filler {
      type: "constant"
      value: 0.2
    }
  }
}
layer {
  name: "inception_4d/relu_5x5"
  type: "ReLU"
  bottom: "inception_4d/5x5"
  top: "inception_4d/5x5"
}
layer {
  name: "inception_4d/pool"
  type: "Pooling"
  bottom: "inception_4c/output"
  top: "inception_4d/pool"
  pooling_param {
    pool: MAX
    kernel_size: 3
    stride: 1
    pad: 1
  }
}
layer {
  name: "inception_4d/pool_proj"
  type: "Convolution"
  bottom: "inception_4d/pool"
  top: "inception_4d/pool_proj"
  param {
    lr_mult: 1
    decay_mult: 1
  }
  param {
    lr_mult: 2
    decay_mult: 0
  }
  convolution_param {
    num_output: 64
    kernel_size: 1
    weight_filler {
      type: "xavier"
      std: 0.1
    }
    bias_filler {
      type: "constant"
      value: 0.2
    }
  }
}
layer {
  name: "inception_4d/relu_pool_proj"
  type: "ReLU"
  bottom: "inception_4d/pool_proj"
  top: "inception_4d/pool_proj"
}
layer {
  name: "inception_4d/output"
  type: "Concat"
  bottom: "inception_4d/1x1"
  bottom: "inception_4d/3x3"
  bottom: "inception_4d/5x5"
  bottom: "inception_4d/pool_proj"
  top: "inception_4d/output"
}
layer {
  name: "loss2/ave_pool"
  type: "Pooling"
  bottom: "inception_4d/output"
  top: "loss2/ave_pool"
  pooling_param {
    pool: AVE
    kernel_size: 5
    stride: 3
  }
}
layer {
  name: "loss2/conv"
  type: "Convolution"
  bottom: "loss2/ave_pool"
  top: "loss2/conv"
  param {
    lr_mult: 1
    decay_mult: 1
  }
  param {
    lr_mult: 2
    decay_mult: 0
  }
  convolution_param {
    num_output: 128
    kernel_size: 1
    weight_filler {
      type: "xavier"
      std: 0.08
    }
    bias_filler {
      type: "constant"
      value: 0.2
    }
  }
}
layer {
  name: "loss2/relu_conv"
  type: "ReLU"
  bottom: "loss2/conv"
  top: "loss2/conv"
}
layer {
  name: "loss2/fc"
  type: "InnerProduct"
  bottom: "loss2/conv"
  top: "loss2/fc"
  param {
    lr_mult: 1
    decay_mult: 1
  }
  param {
    lr_mult: 2
    decay_mult: 0
  }
  inner_product_param {
    num_output: 1024
    weight_filler {
      type: "xavier"
      std: 0.02
    }
    bias_filler {
      type: "constant"
      value: 0.2
    }
  }
}
layer {
  name: "loss2/relu_fc"
  type: "ReLU"
  bottom: "loss2/fc"
  top: "loss2/fc"
}
layer {
  name: "loss2/drop_fc"
  type: "Dropout"
  bottom: "loss2/fc"
  top: "loss2/fc"
  dropout_param {
    dropout_ratio: 0.7
  }
}
layer {
  name: "loss2/classifier_plantvillage"
  type: "InnerProduct"
  bottom: "loss2/fc"
  top: "loss2/classifier_plantvillage"
  param {
    lr_mult: 1
    decay_mult: 1
  }
  param {
    lr_mult: 2
    decay_mult: 0
  }
  inner_product_param {
    num_output: 38
    weight_filler {
      type: "xavier"
      std: 0.0009765625
    }
    bias_filler {
      type: "constant"
      value: 0
    }
  }
}
layer {
  name: "inception_4e/1x1"
  type: "Convolution"
  bottom: "inception_4d/output"
  top: "inception_4e/1x1"
  param {
    lr_mult: 1
    decay_mult: 1
  }
  param {
    lr_mult: 2
    decay_mult: 0
  }
  convolution_param {
    num_output: 256
    kernel_size: 1
    weight_filler {
      type: "xavier"
      std: 0.03
    }
    bias_filler {
      type: "constant"
      value: 0.2
    }
  }
}
layer {
  name: "inception_4e/relu_1x1"
  type: "ReLU"
  bottom: "inception_4e/1x1"
  top: "inception_4e/1x1"
}
layer {
  name: "inception_4e/3x3_reduce"
  type: "Convolution"
  bottom: "inception_4d/output"
  top: "inception_4e/3x3_reduce"
  param {
    lr_mult: 1
    decay_mult: 1
  }
  param {
    lr_mult: 2
    decay_mult: 0
  }
  convolution_param {
    num_output: 160
    kernel_size: 1
    weight_filler {
      type: "xavier"
      std: 0.09
    }
    bias_filler {
      type: "constant"
      value: 0.2
    }
  }
}
layer {
  name: "inception_4e/relu_3x3_reduce"
  type: "ReLU"
  bottom: "inception_4e/3x3_reduce"
  top: "inception_4e/3x3_reduce"
}
layer {
  name: "inception_4e/3x3"
  type: "Convolution"
  bottom: "inception_4e/3x3_reduce"
  top: "inception_4e/3x3"
  param {
    lr_mult: 1
    decay_mult: 1
  }
  param {
    lr_mult: 2
    decay_mult: 0
  }
  convolution_param {
    num_output: 320
    pad: 1
    kernel_size: 3
    weight_filler {
      type: "xavier"
      std: 0.03
    }
    bias_filler {
      type: "constant"
      value: 0.2
    }
  }
}
layer {
  name: "inception_4e/relu_3x3"
  type: "ReLU"
  bottom: "inception_4e/3x3"
  top: "inception_4e/3x3"
}
layer {
  name: "inception_4e/5x5_reduce"
  type: "Convolution"
  bottom: "inception_4d/output"
  top: "inception_4e/5x5_reduce"
  param {
    lr_mult: 1
    decay_mult: 1
  }
  param {
    lr_mult: 2
    decay_mult: 0
  }
  convolution_param {
    num_output: 32
    kernel_size: 1
    weight_filler {
      type: "xavier"
      std: 0.2
    }
    bias_filler {
      type: "constant"
      value: 0.2
    }
  }
}
layer {
  name: "inception_4e/relu_5x5_reduce"
  type: "ReLU"
  bottom: "inception_4e/5x5_reduce"
  top: "inception_4e/5x5_reduce"
}
layer {
  name: "inception_4e/5x5"
  type: "Convolution"
  bottom: "inception_4e/5x5_reduce"
  top: "inception_4e/5x5"
  p
I0403 19:53:33.832363  9801 layer_factory.hpp:77] Creating layer data
I0403 19:53:33.833005  9801 net.cpp:91] Creating Layer data
I0403 19:53:33.833035  9801 net.cpp:399] data -> data
I0403 19:53:33.833087  9801 net.cpp:399] data -> label
I0403 19:53:33.833127  9801 data_transformer.cpp:25] Loading mean file from: /home/mohanty/data/final_dataset/lmdb/color-50-50/mean.binaryproto
I0403 19:53:33.846134  9805 db_lmdb.cpp:38] Opened lmdb /home/mohanty/data/final_dataset/lmdb/color-50-50/test_db
I0403 19:53:33.850731  9801 data_layer.cpp:41] output data size: 24,3,224,224
I0403 19:53:33.878783  9801 net.cpp:141] Setting up data
I0403 19:53:33.878870  9801 net.cpp:148] Top shape: 24 3 224 224 (3612672)
I0403 19:53:33.878892  9801 net.cpp:148] Top shape: 24 (24)
I0403 19:53:33.878909  9801 net.cpp:156] Memory required for data: 14450784
I0403 19:53:33.878938  9801 layer_factory.hpp:77] Creating layer label_data_1_split
I0403 19:53:33.878967  9801 net.cpp:91] Creating Layer label_data_1_split
I0403 19:53:33.878986  9801 net.cpp:425] label_data_1_split <- label
I0403 19:53:33.879019  9801 net.cpp:399] label_data_1_split -> label_data_1_split_0
I0403 19:53:33.879047  9801 net.cpp:399] label_data_1_split -> label_data_1_split_1
I0403 19:53:33.879071  9801 net.cpp:399] label_data_1_split -> label_data_1_split_2
I0403 19:53:33.879092  9801 net.cpp:399] label_data_1_split -> label_data_1_split_3
I0403 19:53:33.879112  9801 net.cpp:399] label_data_1_split -> label_data_1_split_4
I0403 19:53:33.879133  9801 net.cpp:399] label_data_1_split -> label_data_1_split_5
I0403 19:53:33.879153  9801 net.cpp:399] label_data_1_split -> label_data_1_split_6
I0403 19:53:33.879174  9801 net.cpp:399] label_data_1_split -> label_data_1_split_7
I0403 19:53:33.879195  9801 net.cpp:399] label_data_1_split -> label_data_1_split_8
I0403 19:53:33.879217  9801 net.cpp:399] label_data_1_split -> label_data_1_split_9
I0403 19:53:33.879350  9801 net.cpp:141] Setting up label_data_1_split
I0403 19:53:33.879375  9801 net.cpp:148] Top shape: 24 (24)
I0403 19:53:33.879395  9801 net.cpp:148] Top shape: 24 (24)
I0403 19:53:33.879411  9801 net.cpp:148] Top shape: 24 (24)
I0403 19:53:33.879428  9801 net.cpp:148] Top shape: 24 (24)
I0403 19:53:33.879446  9801 net.cpp:148] Top shape: 24 (24)
I0403 19:53:33.879462  9801 net.cpp:148] Top shape: 24 (24)
I0403 19:53:33.879478  9801 net.cpp:148] Top shape: 24 (24)
I0403 19:53:33.879494  9801 net.cpp:148] Top shape: 24 (24)
I0403 19:53:33.879511  9801 net.cpp:148] Top shape: 24 (24)
I0403 19:53:33.879529  9801 net.cpp:148] Top shape: 24 (24)
I0403 19:53:33.879587  9801 net.cpp:156] Memory required for data: 14451744
I0403 19:53:33.879603  9801 layer_factory.hpp:77] Creating layer conv1/7x7_s2
I0403 19:53:33.879637  9801 net.cpp:91] Creating Layer conv1/7x7_s2
I0403 19:53:33.879655  9801 net.cpp:425] conv1/7x7_s2 <- data
I0403 19:53:33.879675  9801 net.cpp:399] conv1/7x7_s2 -> conv1/7x7_s2
I0403 19:53:34.021589  9801 net.cpp:141] Setting up conv1/7x7_s2
I0403 19:53:34.021667  9801 net.cpp:148] Top shape: 24 64 112 112 (19267584)
I0403 19:53:34.021685  9801 net.cpp:156] Memory required for data: 91522080
I0403 19:53:34.021718  9801 layer_factory.hpp:77] Creating layer conv1/relu_7x7
I0403 19:53:34.021745  9801 net.cpp:91] Creating Layer conv1/relu_7x7
I0403 19:53:34.021764  9801 net.cpp:425] conv1/relu_7x7 <- conv1/7x7_s2
I0403 19:53:34.021786  9801 net.cpp:386] conv1/relu_7x7 -> conv1/7x7_s2 (in-place)
I0403 19:53:34.022047  9801 net.cpp:141] Setting up conv1/relu_7x7
I0403 19:53:34.022074  9801 net.cpp:148] Top shape: 24 64 112 112 (19267584)
I0403 19:53:34.022089  9801 net.cpp:156] Memory required for data: 168592416
I0403 19:53:34.022105  9801 layer_factory.hpp:77] Creating layer pool1/3x3_s2
I0403 19:53:34.022131  9801 net.cpp:91] Creating Layer pool1/3x3_s2
I0403 19:53:34.022150  9801 net.cpp:425] pool1/3x3_s2 <- conv1/7x7_s2
I0403 19:53:34.022168  9801 net.cpp:399] pool1/3x3_s2 -> pool1/3x3_s2
I0403 19:53:34.022241  9801 net.cpp:141] Setting up pool1/3x3_s2
I0403 19:53:34.022266  9801 net.cpp:148] Top shape: 24 64 56 56 (4816896)
I0403 19:53:34.022295  9801 net.cpp:156] Memory required for data: 187860000
I0403 19:53:34.022312  9801 layer_factory.hpp:77] Creating layer pool1/norm1
I0403 19:53:34.022337  9801 net.cpp:91] Creating Layer pool1/norm1
I0403 19:53:34.022356  9801 net.cpp:425] pool1/norm1 <- pool1/3x3_s2
I0403 19:53:34.022373  9801 net.cpp:399] pool1/norm1 -> pool1/norm1
I0403 19:53:34.022660  9801 net.cpp:141] Setting up pool1/norm1
I0403 19:53:34.022687  9801 net.cpp:148] Top shape: 24 64 56 56 (4816896)
I0403 19:53:34.022703  9801 net.cpp:156] Memory required for data: 207127584
I0403 19:53:34.022719  9801 layer_factory.hpp:77] Creating layer conv2/3x3_reduce
I0403 19:53:34.022745  9801 net.cpp:91] Creating Layer conv2/3x3_reduce
I0403 19:53:34.022763  9801 net.cpp:425] conv2/3x3_reduce <- pool1/norm1
I0403 19:53:34.022783  9801 net.cpp:399] conv2/3x3_reduce -> conv2/3x3_reduce
I0403 19:53:34.024266  9801 net.cpp:141] Setting up conv2/3x3_reduce
I0403 19:53:34.024301  9801 net.cpp:148] Top shape: 24 64 56 56 (4816896)
I0403 19:53:34.024317  9801 net.cpp:156] Memory required for data: 226395168
I0403 19:53:34.024340  9801 layer_factory.hpp:77] Creating layer conv2/relu_3x3_reduce
I0403 19:53:34.024361  9801 net.cpp:91] Creating Layer conv2/relu_3x3_reduce
I0403 19:53:34.024379  9801 net.cpp:425] conv2/relu_3x3_reduce <- conv2/3x3_reduce
I0403 19:53:34.024397  9801 net.cpp:386] conv2/relu_3x3_reduce -> conv2/3x3_reduce (in-place)
I0403 19:53:34.024678  9801 net.cpp:141] Setting up conv2/relu_3x3_reduce
I0403 19:53:34.024705  9801 net.cpp:148] Top shape: 24 64 56 56 (4816896)
I0403 19:53:34.024723  9801 net.cpp:156] Memory required for data: 245662752
I0403 19:53:34.024739  9801 layer_factory.hpp:77] Creating layer conv2/3x3
I0403 19:53:34.024763  9801 net.cpp:91] Creating Layer conv2/3x3
I0403 19:53:34.024782  9801 net.cpp:425] conv2/3x3 <- conv2/3x3_reduce
I0403 19:53:34.024806  9801 net.cpp:399] conv2/3x3 -> conv2/3x3
I0403 19:53:34.027299  9801 net.cpp:141] Setting up conv2/3x3
I0403 19:53:34.027330  9801 net.cpp:148] Top shape: 24 192 56 56 (14450688)
I0403 19:53:34.027346  9801 net.cpp:156] Memory required for data: 303465504
I0403 19:53:34.027369  9801 layer_factory.hpp:77] Creating layer conv2/relu_3x3
I0403 19:53:34.027390  9801 net.cpp:91] Creating Layer conv2/relu_3x3
I0403 19:53:34.027408  9801 net.cpp:425] conv2/relu_3x3 <- conv2/3x3
I0403 19:53:34.027426  9801 net.cpp:386] conv2/relu_3x3 -> conv2/3x3 (in-place)
I0403 19:53:34.027604  9801 net.cpp:141] Setting up conv2/relu_3x3
I0403 19:53:34.027633  9801 net.cpp:148] Top shape: 24 192 56 56 (14450688)
I0403 19:53:34.027678  9801 net.cpp:156] Memory required for data: 361268256
I0403 19:53:34.027695  9801 layer_factory.hpp:77] Creating layer conv2/norm2
I0403 19:53:34.027714  9801 net.cpp:91] Creating Layer conv2/norm2
I0403 19:53:34.027730  9801 net.cpp:425] conv2/norm2 <- conv2/3x3
I0403 19:53:34.027751  9801 net.cpp:399] conv2/norm2 -> conv2/norm2
I0403 19:53:34.028072  9801 net.cpp:141] Setting up conv2/norm2
I0403 19:53:34.028100  9801 net.cpp:148] Top shape: 24 192 56 56 (14450688)
I0403 19:53:34.028116  9801 net.cpp:156] Memory required for data: 419071008
I0403 19:53:34.028132  9801 layer_factory.hpp:77] Creating layer pool2/3x3_s2
I0403 19:53:34.028151  9801 net.cpp:91] Creating Layer pool2/3x3_s2
I0403 19:53:34.028167  9801 net.cpp:425] pool2/3x3_s2 <- conv2/norm2
I0403 19:53:34.028187  9801 net.cpp:399] pool2/3x3_s2 -> pool2/3x3_s2
I0403 19:53:34.028251  9801 net.cpp:141] Setting up pool2/3x3_s2
I0403 19:53:34.028280  9801 net.cpp:148] Top shape: 24 192 28 28 (3612672)
I0403 19:53:34.028296  9801 net.cpp:156] Memory required for data: 433521696
I0403 19:53:34.028312  9801 layer_factory.hpp:77] Creating layer pool2/3x3_s2_pool2/3x3_s2_0_split
I0403 19:53:34.028332  9801 net.cpp:91] Creating Layer pool2/3x3_s2_pool2/3x3_s2_0_split
I0403 19:53:34.028350  9801 net.cpp:425] pool2/3x3_s2_pool2/3x3_s2_0_split <- pool2/3x3_s2
I0403 19:53:34.028370  9801 net.cpp:399] pool2/3x3_s2_pool2/3x3_s2_0_split -> pool2/3x3_s2_pool2/3x3_s2_0_split_0
I0403 19:53:34.028391  9801 net.cpp:399] pool2/3x3_s2_pool2/3x3_s2_0_split -> pool2/3x3_s2_pool2/3x3_s2_0_split_1
I0403 19:53:34.028414  9801 net.cpp:399] pool2/3x3_s2_pool2/3x3_s2_0_split -> pool2/3x3_s2_pool2/3x3_s2_0_split_2
I0403 19:53:34.028434  9801 net.cpp:399] pool2/3x3_s2_pool2/3x3_s2_0_split -> pool2/3x3_s2_pool2/3x3_s2_0_split_3
I0403 19:53:34.028506  9801 net.cpp:141] Setting up pool2/3x3_s2_pool2/3x3_s2_0_split
I0403 19:53:34.028532  9801 net.cpp:148] Top shape: 24 192 28 28 (3612672)
I0403 19:53:34.028550  9801 net.cpp:148] Top shape: 24 192 28 28 (3612672)
I0403 19:53:34.028568  9801 net.cpp:148] Top shape: 24 192 28 28 (3612672)
I0403 19:53:34.028584  9801 net.cpp:148] Top shape: 24 192 28 28 (3612672)
I0403 19:53:34.028599  9801 net.cpp:156] Memory required for data: 491324448
I0403 19:53:34.028614  9801 layer_factory.hpp:77] Creating layer inception_3a/1x1
I0403 19:53:34.028635  9801 net.cpp:91] Creating Layer inception_3a/1x1
I0403 19:53:34.028653  9801 net.cpp:425] inception_3a/1x1 <- pool2/3x3_s2_pool2/3x3_s2_0_split_0
I0403 19:53:34.028715  9801 net.cpp:399] inception_3a/1x1 -> inception_3a/1x1
I0403 19:53:34.030294  9801 net.cpp:141] Setting up inception_3a/1x1
I0403 19:53:34.030325  9801 net.cpp:148] Top shape: 24 64 28 28 (1204224)
I0403 19:53:34.030342  9801 net.cpp:156] Memory required for data: 496141344
I0403 19:53:34.030361  9801 layer_factory.hpp:77] Creating layer inception_3a/relu_1x1
I0403 19:53:34.030383  9801 net.cpp:91] Creating Layer inception_3a/relu_1x1
I0403 19:53:34.030401  9801 net.cpp:425] inception_3a/relu_1x1 <- inception_3a/1x1
I0403 19:53:34.030421  9801 net.cpp:386] inception_3a/relu_1x1 -> inception_3a/1x1 (in-place)
I0403 19:53:34.030637  9801 net.cpp:141] Setting up inception_3a/relu_1x1
I0403 19:53:34.030663  9801 net.cpp:148] Top shape: 24 64 28 28 (1204224)
I0403 19:53:34.030678  9801 net.cpp:156] Memory required for data: 500958240
I0403 19:53:34.030694  9801 layer_factory.hpp:77] Creating layer inception_3a/3x3_reduce
I0403 19:53:34.030719  9801 net.cpp:91] Creating Layer inception_3a/3x3_reduce
I0403 19:53:34.030737  9801 net.cpp:425] inception_3a/3x3_reduce <- pool2/3x3_s2_pool2/3x3_s2_0_split_1
I0403 19:53:34.030756  9801 net.cpp:399] inception_3a/3x3_reduce -> inception_3a/3x3_reduce
I0403 19:53:34.032547  9801 net.cpp:141] Setting up inception_3a/3x3_reduce
I0403 19:53:34.032577  9801 net.cpp:148] Top shape: 24 96 28 28 (1806336)
I0403 19:53:34.032594  9801 net.cpp:156] Memory required for data: 508183584
I0403 19:53:34.032616  9801 layer_factory.hpp:77] Creating layer inception_3a/relu_3x3_reduce
I0403 19:53:34.032656  9801 net.cpp:91] Creating Layer inception_3a/relu_3x3_reduce
I0403 19:53:34.032675  9801 net.cpp:425] inception_3a/relu_3x3_reduce <- inception_3a/3x3_reduce
I0403 19:53:34.032696  9801 net.cpp:386] inception_3a/relu_3x3_reduce -> inception_3a/3x3_reduce (in-place)
I0403 19:53:34.032884  9801 net.cpp:141] Setting up inception_3a/relu_3x3_reduce
I0403 19:53:34.032910  9801 net.cpp:148] Top shape: 24 96 28 28 (1806336)
I0403 19:53:34.032927  9801 net.cpp:156] Memory required for data: 515408928
I0403 19:53:34.032943  9801 layer_factory.hpp:77] Creating layer inception_3a/3x3
I0403 19:53:34.032968  9801 net.cpp:91] Creating Layer inception_3a/3x3
I0403 19:53:34.032987  9801 net.cpp:425] inception_3a/3x3 <- inception_3a/3x3_reduce
I0403 19:53:34.033011  9801 net.cpp:399] inception_3a/3x3 -> inception_3a/3x3
I0403 19:53:34.034736  9801 net.cpp:141] Setting up inception_3a/3x3
I0403 19:53:34.034767  9801 net.cpp:148] Top shape: 24 128 28 28 (2408448)
I0403 19:53:34.034785  9801 net.cpp:156] Memory required for data: 525042720
I0403 19:53:34.034804  9801 layer_factory.hpp:77] Creating layer inception_3a/relu_3x3
I0403 19:53:34.034827  9801 net.cpp:91] Creating Layer inception_3a/relu_3x3
I0403 19:53:34.034847  9801 net.cpp:425] inception_3a/relu_3x3 <- inception_3a/3x3
I0403 19:53:34.034868  9801 net.cpp:386] inception_3a/relu_3x3 -> inception_3a/3x3 (in-place)
I0403 19:53:34.035148  9801 net.cpp:141] Setting up inception_3a/relu_3x3
I0403 19:53:34.035177  9801 net.cpp:148] Top shape: 24 128 28 28 (2408448)
I0403 19:53:34.035194  9801 net.cpp:156] Memory required for data: 534676512
I0403 19:53:34.035212  9801 layer_factory.hpp:77] Creating layer inception_3a/5x5_reduce
I0403 19:53:34.035234  9801 net.cpp:91] Creating Layer inception_3a/5x5_reduce
I0403 19:53:34.035254  9801 net.cpp:425] inception_3a/5x5_reduce <- pool2/3x3_s2_pool2/3x3_s2_0_split_2
I0403 19:53:34.035295  9801 net.cpp:399] inception_3a/5x5_reduce -> inception_3a/5x5_reduce
I0403 19:53:34.036296  9801 net.cpp:141] Setting up inception_3a/5x5_reduce
I0403 19:53:34.036327  9801 net.cpp:148] Top shape: 24 16 28 28 (301056)
I0403 19:53:34.036345  9801 net.cpp:156] Memory required for data: 535880736
I0403 19:53:34.036365  9801 layer_factory.hpp:77] Creating layer inception_3a/relu_5x5_reduce
I0403 19:53:34.036382  9801 net.cpp:91] Creating Layer inception_3a/relu_5x5_reduce
I0403 19:53:34.036398  9801 net.cpp:425] inception_3a/relu_5x5_reduce <- inception_3a/5x5_reduce
I0403 19:53:34.036417  9801 net.cpp:386] inception_3a/relu_5x5_reduce -> inception_3a/5x5_reduce (in-place)
I0403 19:53:34.036712  9801 net.cpp:141] Setting up inception_3a/relu_5x5_reduce
I0403 19:53:34.036741  9801 net.cpp:148] Top shape: 24 16 28 28 (301056)
I0403 19:53:34.036757  9801 net.cpp:156] Memory required for data: 537084960
I0403 19:53:34.036772  9801 layer_factory.hpp:77] Creating layer inception_3a/5x5
I0403 19:53:34.036797  9801 net.cpp:91] Creating Layer inception_3a/5x5
I0403 19:53:34.036814  9801 net.cpp:425] inception_3a/5x5 <- inception_3a/5x5_reduce
I0403 19:53:34.036837  9801 net.cpp:399] inception_3a/5x5 -> inception_3a/5x5
I0403 19:53:34.037865  9801 net.cpp:141] Setting up inception_3a/5x5
I0403 19:53:34.037906  9801 net.cpp:148] Top shape: 24 32 28 28 (602112)
I0403 19:53:34.037922  9801 net.cpp:156] Memory required for data: 539493408
I0403 19:53:34.037942  9801 layer_factory.hpp:77] Creating layer inception_3a/relu_5x5
I0403 19:53:34.037963  9801 net.cpp:91] Creating Layer inception_3a/relu_5x5
I0403 19:53:34.037981  9801 net.cpp:425] inception_3a/relu_5x5 <- inception_3a/5x5
I0403 19:53:34.037999  9801 net.cpp:386] inception_3a/relu_5x5 -> inception_3a/5x5 (in-place)
I0403 19:53:34.038172  9801 net.cpp:141] Setting up inception_3a/relu_5x5
I0403 19:53:34.038200  9801 net.cpp:148] Top shape: 24 32 28 28 (602112)
I0403 19:53:34.038218  9801 net.cpp:156] Memory required for data: 541901856
I0403 19:53:34.038234  9801 layer_factory.hpp:77] Creating layer inception_3a/pool
I0403 19:53:34.038252  9801 net.cpp:91] Creating Layer inception_3a/pool
I0403 19:53:34.038274  9801 net.cpp:425] inception_3a/pool <- pool2/3x3_s2_pool2/3x3_s2_0_split_3
I0403 19:53:34.038311  9801 net.cpp:399] inception_3a/pool -> inception_3a/pool
I0403 19:53:34.038369  9801 net.cpp:141] Setting up inception_3a/pool
I0403 19:53:34.038393  9801 net.cpp:148] Top shape: 24 192 28 28 (3612672)
I0403 19:53:34.038410  9801 net.cpp:156] Memory required for data: 556352544
I0403 19:53:34.038426  9801 layer_factory.hpp:77] Creating layer inception_3a/pool_proj
I0403 19:53:34.038449  9801 net.cpp:91] Creating Layer inception_3a/pool_proj
I0403 19:53:34.038466  9801 net.cpp:425] inception_3a/pool_proj <- inception_3a/pool
I0403 19:53:34.038487  9801 net.cpp:399] inception_3a/pool_proj -> inception_3a/pool_proj
I0403 19:53:34.039438  9801 net.cpp:141] Setting up inception_3a/pool_proj
I0403 19:53:34.039468  9801 net.cpp:148] Top shape: 24 32 28 28 (602112)
I0403 19:53:34.039484  9801 net.cpp:156] Memory required for data: 558760992
I0403 19:53:34.039507  9801 layer_factory.hpp:77] Creating layer inception_3a/relu_pool_proj
I0403 19:53:34.039527  9801 net.cpp:91] Creating Layer inception_3a/relu_pool_proj
I0403 19:53:34.039544  9801 net.cpp:425] inception_3a/relu_pool_proj <- inception_3a/pool_proj
I0403 19:53:34.039561  9801 net.cpp:386] inception_3a/relu_pool_proj -> inception_3a/pool_proj (in-place)
I0403 19:53:34.039839  9801 net.cpp:141] Setting up inception_3a/relu_pool_proj
I0403 19:53:34.039867  9801 net.cpp:148] Top shape: 24 32 28 28 (602112)
I0403 19:53:34.039883  9801 net.cpp:156] Memory required for data: 561169440
I0403 19:53:34.039898  9801 layer_factory.hpp:77] Creating layer inception_3a/output
I0403 19:53:34.039919  9801 net.cpp:91] Creating Layer inception_3a/output
I0403 19:53:34.039937  9801 net.cpp:425] inception_3a/output <- inception_3a/1x1
I0403 19:53:34.039955  9801 net.cpp:425] inception_3a/output <- inception_3a/3x3
I0403 19:53:34.039973  9801 net.cpp:425] inception_3a/output <- inception_3a/5x5
I0403 19:53:34.039999  9801 net.cpp:425] inception_3a/output <- inception_3a/pool_proj
I0403 19:53:34.040017  9801 net.cpp:399] inception_3a/output -> inception_3a/output
I0403 19:53:34.040066  9801 net.cpp:141] Setting up inception_3a/output
I0403 19:53:34.040089  9801 net.cpp:148] Top shape: 24 256 28 28 (4816896)
I0403 19:53:34.040104  9801 net.cpp:156] Memory required for data: 580437024
I0403 19:53:34.040119  9801 layer_factory.hpp:77] Creating layer inception_3a/output_inception_3a/output_0_split
I0403 19:53:34.040138  9801 net.cpp:91] Creating Layer inception_3a/output_inception_3a/output_0_split
I0403 19:53:34.040153  9801 net.cpp:425] inception_3a/output_inception_3a/output_0_split <- inception_3a/output
I0403 19:53:34.040174  9801 net.cpp:399] inception_3a/output_inception_3a/output_0_split -> inception_3a/output_inception_3a/output_0_split_0
I0403 19:53:34.040194  9801 net.cpp:399] inception_3a/output_inception_3a/output_0_split -> inception_3a/output_inception_3a/output_0_split_1
I0403 19:53:34.040217  9801 net.cpp:399] inception_3a/output_inception_3a/output_0_split -> inception_3a/output_inception_3a/output_0_split_2
I0403 19:53:34.040241  9801 net.cpp:399] inception_3a/output_inception_3a/output_0_split -> inception_3a/output_inception_3a/output_0_split_3
I0403 19:53:34.040323  9801 net.cpp:141] Setting up inception_3a/output_inception_3a/output_0_split
I0403 19:53:34.040345  9801 net.cpp:148] Top shape: 24 256 28 28 (4816896)
I0403 19:53:34.040364  9801 net.cpp:148] Top shape: 24 256 28 28 (4816896)
I0403 19:53:34.040380  9801 net.cpp:148] Top shape: 24 256 28 28 (4816896)
I0403 19:53:34.040395  9801 net.cpp:148] Top shape: 24 256 28 28 (4816896)
I0403 19:53:34.040408  9801 net.cpp:156] Memory required for data: 657507360
I0403 19:53:34.040423  9801 layer_factory.hpp:77] Creating layer inception_3b/1x1
I0403 19:53:34.040446  9801 net.cpp:91] Creating Layer inception_3b/1x1
I0403 19:53:34.040463  9801 net.cpp:425] inception_3b/1x1 <- inception_3a/output_inception_3a/output_0_split_0
I0403 19:53:34.040485  9801 net.cpp:399] inception_3b/1x1 -> inception_3b/1x1
I0403 19:53:34.041613  9801 net.cpp:141] Setting up inception_3b/1x1
I0403 19:53:34.041653  9801 net.cpp:148] Top shape: 24 128 28 28 (2408448)
I0403 19:53:34.041669  9801 net.cpp:156] Memory required for data: 667141152
I0403 19:53:34.041689  9801 layer_factory.hpp:77] Creating layer inception_3b/relu_1x1
I0403 19:53:34.041707  9801 net.cpp:91] Creating Layer inception_3b/relu_1x1
I0403 19:53:34.041723  9801 net.cpp:425] inception_3b/relu_1x1 <- inception_3b/1x1
I0403 19:53:34.041743  9801 net.cpp:386] inception_3b/relu_1x1 -> inception_3b/1x1 (in-place)
I0403 19:53:34.041916  9801 net.cpp:141] Setting up inception_3b/relu_1x1
I0403 19:53:34.041942  9801 net.cpp:148] Top shape: 24 128 28 28 (2408448)
I0403 19:53:34.041959  9801 net.cpp:156] Memory required for data: 676774944
I0403 19:53:34.041973  9801 layer_factory.hpp:77] Creating layer inception_3b/3x3_reduce
I0403 19:53:34.041996  9801 net.cpp:91] Creating Layer inception_3b/3x3_reduce
I0403 19:53:34.042013  9801 net.cpp:425] inception_3b/3x3_reduce <- inception_3a/output_inception_3a/output_0_split_1
I0403 19:53:34.042035  9801 net.cpp:399] inception_3b/3x3_reduce -> inception_3b/3x3_reduce
I0403 19:53:34.043179  9801 net.cpp:141] Setting up inception_3b/3x3_reduce
I0403 19:53:34.043207  9801 net.cpp:148] Top shape: 24 128 28 28 (2408448)
I0403 19:53:34.043223  9801 net.cpp:156] Memory required for data: 686408736
I0403 19:53:34.043241  9801 layer_factory.hpp:77] Creating layer inception_3b/relu_3x3_reduce
I0403 19:53:34.043263  9801 net.cpp:91] Creating Layer inception_3b/relu_3x3_reduce
I0403 19:53:34.043298  9801 net.cpp:425] inception_3b/relu_3x3_reduce <- inception_3b/3x3_reduce
I0403 19:53:34.043318  9801 net.cpp:386] inception_3b/relu_3x3_reduce -> inception_3b/3x3_reduce (in-place)
I0403 19:53:34.043493  9801 net.cpp:141] Setting up inception_3b/relu_3x3_reduce
I0403 19:53:34.043517  9801 net.cpp:148] Top shape: 24 128 28 28 (2408448)
I0403 19:53:34.043534  9801 net.cpp:156] Memory required for data: 696042528
I0403 19:53:34.043547  9801 layer_factory.hpp:77] Creating layer inception_3b/3x3
I0403 19:53:34.043587  9801 net.cpp:91] Creating Layer inception_3b/3x3
I0403 19:53:34.043606  9801 net.cpp:425] inception_3b/3x3 <- inception_3b/3x3_reduce
I0403 19:53:34.043624  9801 net.cpp:399] inception_3b/3x3 -> inception_3b/3x3
I0403 19:53:34.046589  9801 net.cpp:141] Setting up inception_3b/3x3
I0403 19:53:34.046618  9801 net.cpp:148] Top shape: 24 192 28 28 (3612672)
I0403 19:53:34.046634  9801 net.cpp:156] Memory required for data: 710493216
I0403 19:53:34.046653  9801 layer_factory.hpp:77] Creating layer inception_3b/relu_3x3
I0403 19:53:34.046674  9801 net.cpp:91] Creating Layer inception_3b/relu_3x3
I0403 19:53:34.046692  9801 net.cpp:425] inception_3b/relu_3x3 <- inception_3b/3x3
I0403 19:53:34.046710  9801 net.cpp:386] inception_3b/relu_3x3 -> inception_3b/3x3 (in-place)
I0403 19:53:34.046991  9801 net.cpp:141] Setting up inception_3b/relu_3x3
I0403 19:53:34.047019  9801 net.cpp:148] Top shape: 24 192 28 28 (3612672)
I0403 19:53:34.047034  9801 net.cpp:156] Memory required for data: 724943904
I0403 19:53:34.047049  9801 layer_factory.hpp:77] Creating layer inception_3b/5x5_reduce
I0403 19:53:34.047073  9801 net.cpp:91] Creating Layer inception_3b/5x5_reduce
I0403 19:53:34.047092  9801 net.cpp:425] inception_3b/5x5_reduce <- inception_3a/output_inception_3a/output_0_split_2
I0403 19:53:34.047116  9801 net.cpp:399] inception_3b/5x5_reduce -> inception_3b/5x5_reduce
I0403 19:53:34.048131  9801 net.cpp:141] Setting up inception_3b/5x5_reduce
I0403 19:53:34.048161  9801 net.cpp:148] Top shape: 24 32 28 28 (602112)
I0403 19:53:34.048177  9801 net.cpp:156] Memory required for data: 727352352
I0403 19:53:34.048195  9801 layer_factory.hpp:77] Creating layer inception_3b/relu_5x5_reduce
I0403 19:53:34.048218  9801 net.cpp:91] Creating Layer inception_3b/relu_5x5_reduce
I0403 19:53:34.048236  9801 net.cpp:425] inception_3b/relu_5x5_reduce <- inception_3b/5x5_reduce
I0403 19:53:34.048254  9801 net.cpp:386] inception_3b/relu_5x5_reduce -> inception_3b/5x5_reduce (in-place)
I0403 19:53:34.048440  9801 net.cpp:141] Setting up inception_3b/relu_5x5_reduce
I0403 19:53:34.048481  9801 net.cpp:148] Top shape: 24 32 28 28 (602112)
I0403 19:53:34.048497  9801 net.cpp:156] Memory required for data: 729760800
I0403 19:53:34.048513  9801 layer_factory.hpp:77] Creating layer inception_3b/5x5
I0403 19:53:34.048537  9801 net.cpp:91] Creating Layer inception_3b/5x5
I0403 19:53:34.048554  9801 net.cpp:425] inception_3b/5x5 <- inception_3b/5x5_reduce
I0403 19:53:34.048574  9801 net.cpp:399] inception_3b/5x5 -> inception_3b/5x5
I0403 19:53:34.050578  9801 net.cpp:141] Setting up inception_3b/5x5
I0403 19:53:34.050608  9801 net.cpp:148] Top shape: 24 96 28 28 (1806336)
I0403 19:53:34.050624  9801 net.cpp:156] Memory required for data: 736986144
I0403 19:53:34.050643  9801 layer_factory.hpp:77] Creating layer inception_3b/relu_5x5
I0403 19:53:34.050665  9801 net.cpp:91] Creating Layer inception_3b/relu_5x5
I0403 19:53:34.050683  9801 net.cpp:425] inception_3b/relu_5x5 <- inception_3b/5x5
I0403 19:53:34.050701  9801 net.cpp:386] inception_3b/relu_5x5 -> inception_3b/5x5 (in-place)
I0403 19:53:34.050901  9801 net.cpp:141] Setting up inception_3b/relu_5x5
I0403 19:53:34.050927  9801 net.cpp:148] Top shape: 24 96 28 28 (1806336)
I0403 19:53:34.050942  9801 net.cpp:156] Memory required for data: 744211488
I0403 19:53:34.050958  9801 layer_factory.hpp:77] Creating layer inception_3b/pool
I0403 19:53:34.050977  9801 net.cpp:91] Creating Layer inception_3b/pool
I0403 19:53:34.050994  9801 net.cpp:425] inception_3b/pool <- inception_3a/output_inception_3a/output_0_split_3
I0403 19:53:34.051012  9801 net.cpp:399] inception_3b/pool -> inception_3b/pool
I0403 19:53:34.051069  9801 net.cpp:141] Setting up inception_3b/pool
I0403 19:53:34.051093  9801 net.cpp:148] Top shape: 24 256 28 28 (4816896)
I0403 19:53:34.051110  9801 net.cpp:156] Memory required for data: 763479072
I0403 19:53:34.051126  9801 layer_factory.hpp:77] Creating layer inception_3b/pool_proj
I0403 19:53:34.051148  9801 net.cpp:91] Creating Layer inception_3b/pool_proj
I0403 19:53:34.051167  9801 net.cpp:425] inception_3b/pool_proj <- inception_3b/pool
I0403 19:53:34.051190  9801 net.cpp:399] inception_3b/pool_proj -> inception_3b/pool_proj
I0403 19:53:34.052319  9801 net.cpp:141] Setting up inception_3b/pool_proj
I0403 19:53:34.052351  9801 net.cpp:148] Top shape: 24 64 28 28 (1204224)
I0403 19:53:34.052369  9801 net.cpp:156] Memory required for data: 768295968
I0403 19:53:34.052388  9801 layer_factory.hpp:77] Creating layer inception_3b/relu_pool_proj
I0403 19:53:34.052408  9801 net.cpp:91] Creating Layer inception_3b/relu_pool_proj
I0403 19:53:34.052425  9801 net.cpp:425] inception_3b/relu_pool_proj <- inception_3b/pool_proj
I0403 19:53:34.052445  9801 net.cpp:386] inception_3b/relu_pool_proj -> inception_3b/pool_proj (in-place)
I0403 19:53:34.052839  9801 net.cpp:141] Setting up inception_3b/relu_pool_proj
I0403 19:53:34.052868  9801 net.cpp:148] Top shape: 24 64 28 28 (1204224)
I0403 19:53:34.052886  9801 net.cpp:156] Memory required for data: 773112864
I0403 19:53:34.052901  9801 layer_factory.hpp:77] Creating layer inception_3b/output
I0403 19:53:34.052919  9801 net.cpp:91] Creating Layer inception_3b/output
I0403 19:53:34.052935  9801 net.cpp:425] inception_3b/output <- inception_3b/1x1
I0403 19:53:34.052953  9801 net.cpp:425] inception_3b/output <- inception_3b/3x3
I0403 19:53:34.052969  9801 net.cpp:425] inception_3b/output <- inception_3b/5x5
I0403 19:53:34.052986  9801 net.cpp:425] inception_3b/output <- inception_3b/pool_proj
I0403 19:53:34.053004  9801 net.cpp:399] inception_3b/output -> inception_3b/output
I0403 19:53:34.053050  9801 net.cpp:141] Setting up inception_3b/output
I0403 19:53:34.053073  9801 net.cpp:148] Top shape: 24 480 28 28 (9031680)
I0403 19:53:34.053089  9801 net.cpp:156] Memory required for data: 809239584
I0403 19:53:34.053104  9801 layer_factory.hpp:77] Creating layer pool3/3x3_s2
I0403 19:53:34.053125  9801 net.cpp:91] Creating Layer pool3/3x3_s2
I0403 19:53:34.053143  9801 net.cpp:425] pool3/3x3_s2 <- inception_3b/output
I0403 19:53:34.053160  9801 net.cpp:399] pool3/3x3_s2 -> pool3/3x3_s2
I0403 19:53:34.053236  9801 net.cpp:141] Setting up pool3/3x3_s2
I0403 19:53:34.053259  9801 net.cpp:148] Top shape: 24 480 14 14 (2257920)
I0403 19:53:34.053279  9801 net.cpp:156] Memory required for data: 818271264
I0403 19:53:34.053295  9801 layer_factory.hpp:77] Creating layer pool3/3x3_s2_pool3/3x3_s2_0_split
I0403 19:53:34.053313  9801 net.cpp:91] Creating Layer pool3/3x3_s2_pool3/3x3_s2_0_split
I0403 19:53:34.053329  9801 net.cpp:425] pool3/3x3_s2_pool3/3x3_s2_0_split <- pool3/3x3_s2
I0403 19:53:34.053349  9801 net.cpp:399] pool3/3x3_s2_pool3/3x3_s2_0_split -> pool3/3x3_s2_pool3/3x3_s2_0_split_0
I0403 19:53:34.053370  9801 net.cpp:399] pool3/3x3_s2_pool3/3x3_s2_0_split -> pool3/3x3_s2_pool3/3x3_s2_0_split_1
I0403 19:53:34.053391  9801 net.cpp:399] pool3/3x3_s2_pool3/3x3_s2_0_split -> pool3/3x3_s2_pool3/3x3_s2_0_split_2
I0403 19:53:34.053411  9801 net.cpp:399] pool3/3x3_s2_pool3/3x3_s2_0_split -> pool3/3x3_s2_pool3/3x3_s2_0_split_3
I0403 19:53:34.053490  9801 net.cpp:141] Setting up pool3/3x3_s2_pool3/3x3_s2_0_split
I0403 19:53:34.053516  9801 net.cpp:148] Top shape: 24 480 14 14 (2257920)
I0403 19:53:34.053534  9801 net.cpp:148] Top shape: 24 480 14 14 (2257920)
I0403 19:53:34.053551  9801 net.cpp:148] Top shape: 24 480 14 14 (2257920)
I0403 19:53:34.053567  9801 net.cpp:148] Top shape: 24 480 14 14 (2257920)
I0403 19:53:34.053581  9801 net.cpp:156] Memory required for data: 854397984
I0403 19:53:34.053597  9801 layer_factory.hpp:77] Creating layer inception_4a/1x1
I0403 19:53:34.053620  9801 net.cpp:91] Creating Layer inception_4a/1x1
I0403 19:53:34.053638  9801 net.cpp:425] inception_4a/1x1 <- pool3/3x3_s2_pool3/3x3_s2_0_split_0
I0403 19:53:34.053658  9801 net.cpp:399] inception_4a/1x1 -> inception_4a/1x1
I0403 19:53:34.055266  9801 net.cpp:141] Setting up inception_4a/1x1
I0403 19:53:34.055316  9801 net.cpp:148] Top shape: 24 192 14 14 (903168)
I0403 19:53:34.055335  9801 net.cpp:156] Memory required for data: 858010656
I0403 19:53:34.055356  9801 layer_factory.hpp:77] Creating layer inception_4a/relu_1x1
I0403 19:53:34.055374  9801 net.cpp:91] Creating Layer inception_4a/relu_1x1
I0403 19:53:34.055397  9801 net.cpp:425] inception_4a/relu_1x1 <- inception_4a/1x1
I0403 19:53:34.055418  9801 net.cpp:386] inception_4a/relu_1x1 -> inception_4a/1x1 (in-place)
I0403 19:53:34.055618  9801 net.cpp:141] Setting up inception_4a/relu_1x1
I0403 19:53:34.055644  9801 net.cpp:148] Top shape: 24 192 14 14 (903168)
I0403 19:53:34.055660  9801 net.cpp:156] Memory required for data: 861623328
I0403 19:53:34.055675  9801 layer_factory.hpp:77] Creating layer inception_4a/3x3_reduce
I0403 19:53:34.055697  9801 net.cpp:91] Creating Layer inception_4a/3x3_reduce
I0403 19:53:34.055714  9801 net.cpp:425] inception_4a/3x3_reduce <- pool3/3x3_s2_pool3/3x3_s2_0_split_1
I0403 19:53:34.055737  9801 net.cpp:399] inception_4a/3x3_reduce -> inception_4a/3x3_reduce
I0403 19:53:34.057054  9801 net.cpp:141] Setting up inception_4a/3x3_reduce
I0403 19:53:34.057082  9801 net.cpp:148] Top shape: 24 96 14 14 (451584)
I0403 19:53:34.057111  9801 net.cpp:156] Memory required for data: 863429664
I0403 19:53:34.057135  9801 layer_factory.hpp:77] Creating layer inception_4a/relu_3x3_reduce
I0403 19:53:34.057157  9801 net.cpp:91] Creating Layer inception_4a/relu_3x3_reduce
I0403 19:53:34.057174  9801 net.cpp:425] inception_4a/relu_3x3_reduce <- inception_4a/3x3_reduce
I0403 19:53:34.057195  9801 net.cpp:386] inception_4a/relu_3x3_reduce -> inception_4a/3x3_reduce (in-place)
I0403 19:53:34.057385  9801 net.cpp:141] Setting up inception_4a/relu_3x3_reduce
I0403 19:53:34.057410  9801 net.cpp:148] Top shape: 24 96 14 14 (451584)
I0403 19:53:34.057425  9801 net.cpp:156] Memory required for data: 865236000
I0403 19:53:34.057441  9801 layer_factory.hpp:77] Creating layer inception_4a/3x3
I0403 19:53:34.057464  9801 net.cpp:91] Creating Layer inception_4a/3x3
I0403 19:53:34.057482  9801 net.cpp:425] inception_4a/3x3 <- inception_4a/3x3_reduce
I0403 19:53:34.057505  9801 net.cpp:399] inception_4a/3x3 -> inception_4a/3x3
I0403 19:53:34.060312  9801 net.cpp:141] Setting up inception_4a/3x3
I0403 19:53:34.060340  9801 net.cpp:148] Top shape: 24 208 14 14 (978432)
I0403 19:53:34.060356  9801 net.cpp:156] Memory required for data: 869149728
I0403 19:53:34.060374  9801 layer_factory.hpp:77] Creating layer inception_4a/relu_3x3
I0403 19:53:34.060402  9801 net.cpp:91] Creating Layer inception_4a/relu_3x3
I0403 19:53:34.060420  9801 net.cpp:425] inception_4a/relu_3x3 <- inception_4a/3x3
I0403 19:53:34.060438  9801 net.cpp:386] inception_4a/relu_3x3 -> inception_4a/3x3 (in-place)
I0403 19:53:34.060724  9801 net.cpp:141] Setting up inception_4a/relu_3x3
I0403 19:53:34.060750  9801 net.cpp:148] Top shape: 24 208 14 14 (978432)
I0403 19:53:34.060765  9801 net.cpp:156] Memory required for data: 873063456
I0403 19:53:34.060781  9801 layer_factory.hpp:77] Creating layer inception_4a/5x5_reduce
I0403 19:53:34.060803  9801 net.cpp:91] Creating Layer inception_4a/5x5_reduce
I0403 19:53:34.060822  9801 net.cpp:425] inception_4a/5x5_reduce <- pool3/3x3_s2_pool3/3x3_s2_0_split_2
I0403 19:53:34.060844  9801 net.cpp:399] inception_4a/5x5_reduce -> inception_4a/5x5_reduce
I0403 19:53:34.061859  9801 net.cpp:141] Setting up inception_4a/5x5_reduce
I0403 19:53:34.061887  9801 net.cpp:148] Top shape: 24 16 14 14 (75264)
I0403 19:53:34.061903  9801 net.cpp:156] Memory required for data: 873364512
I0403 19:53:34.061921  9801 layer_factory.hpp:77] Creating layer inception_4a/relu_5x5_reduce
I0403 19:53:34.061944  9801 net.cpp:91] Creating Layer inception_4a/relu_5x5_reduce
I0403 19:53:34.061961  9801 net.cpp:425] inception_4a/relu_5x5_reduce <- inception_4a/5x5_reduce
I0403 19:53:34.061978  9801 net.cpp:386] inception_4a/relu_5x5_reduce -> inception_4a/5x5_reduce (in-place)
I0403 19:53:34.062157  9801 net.cpp:141] Setting up inception_4a/relu_5x5_reduce
I0403 19:53:34.062186  9801 net.cpp:148] Top shape: 24 16 14 14 (75264)
I0403 19:53:34.062201  9801 net.cpp:156] Memory required for data: 873665568
I0403 19:53:34.062216  9801 layer_factory.hpp:77] Creating layer inception_4a/5x5
I0403 19:53:34.062252  9801 net.cpp:91] Creating Layer inception_4a/5x5
I0403 19:53:34.062279  9801 net.cpp:425] inception_4a/5x5 <- inception_4a/5x5_reduce
I0403 19:53:34.062304  9801 net.cpp:399] inception_4a/5x5 -> inception_4a/5x5
I0403 19:53:34.063403  9801 net.cpp:141] Setting up inception_4a/5x5
I0403 19:53:34.063433  9801 net.cpp:148] Top shape: 24 48 14 14 (225792)
I0403 19:53:34.063449  9801 net.cpp:156] Memory required for data: 874568736
I0403 19:53:34.063467  9801 layer_factory.hpp:77] Creating layer inception_4a/relu_5x5
I0403 19:53:34.063485  9801 net.cpp:91] Creating Layer inception_4a/relu_5x5
I0403 19:53:34.063501  9801 net.cpp:425] inception_4a/relu_5x5 <- inception_4a/5x5
I0403 19:53:34.063519  9801 net.cpp:386] inception_4a/relu_5x5 -> inception_4a/5x5 (in-place)
I0403 19:53:34.063704  9801 net.cpp:141] Setting up inception_4a/relu_5x5
I0403 19:53:34.063729  9801 net.cpp:148] Top shape: 24 48 14 14 (225792)
I0403 19:53:34.063745  9801 net.cpp:156] Memory required for data: 875471904
I0403 19:53:34.063760  9801 layer_factory.hpp:77] Creating layer inception_4a/pool
I0403 19:53:34.063777  9801 net.cpp:91] Creating Layer inception_4a/pool
I0403 19:53:34.063794  9801 net.cpp:425] inception_4a/pool <- pool3/3x3_s2_pool3/3x3_s2_0_split_3
I0403 19:53:34.063817  9801 net.cpp:399] inception_4a/pool -> inception_4a/pool
I0403 19:53:34.063877  9801 net.cpp:141] Setting up inception_4a/pool
I0403 19:53:34.063920  9801 net.cpp:148] Top shape: 24 480 14 14 (2257920)
I0403 19:53:34.063936  9801 net.cpp:156] Memory required for data: 884503584
I0403 19:53:34.063951  9801 layer_factory.hpp:77] Creating layer inception_4a/pool_proj
I0403 19:53:34.063985  9801 net.cpp:91] Creating Layer inception_4a/pool_proj
I0403 19:53:34.064003  9801 net.cpp:425] inception_4a/pool_proj <- inception_4a/pool
I0403 19:53:34.064024  9801 net.cpp:399] inception_4a/pool_proj -> inception_4a/pool_proj
I0403 19:53:34.065184  9801 net.cpp:141] Setting up inception_4a/pool_proj
I0403 19:53:34.065213  9801 net.cpp:148] Top shape: 24 64 14 14 (301056)
I0403 19:53:34.065244  9801 net.cpp:156] Memory required for data: 885707808
I0403 19:53:34.065263  9801 layer_factory.hpp:77] Creating layer inception_4a/relu_pool_proj
I0403 19:53:34.065287  9801 net.cpp:91] Creating Layer inception_4a/relu_pool_proj
I0403 19:53:34.065305  9801 net.cpp:425] inception_4a/relu_pool_proj <- inception_4a/pool_proj
I0403 19:53:34.065327  9801 net.cpp:386] inception_4a/relu_pool_proj -> inception_4a/pool_proj (in-place)
I0403 19:53:34.065603  9801 net.cpp:141] Setting up inception_4a/relu_pool_proj
I0403 19:53:34.065629  9801 net.cpp:148] Top shape: 24 64 14 14 (301056)
I0403 19:53:34.065644  9801 net.cpp:156] Memory required for data: 886912032
I0403 19:53:34.065659  9801 layer_factory.hpp:77] Creating layer inception_4a/output
I0403 19:53:34.065675  9801 net.cpp:91] Creating Layer inception_4a/output
I0403 19:53:34.065690  9801 net.cpp:425] inception_4a/output <- inception_4a/1x1
I0403 19:53:34.065706  9801 net.cpp:425] inception_4a/output <- inception_4a/3x3
I0403 19:53:34.065722  9801 net.cpp:425] inception_4a/output <- inception_4a/5x5
I0403 19:53:34.065738  9801 net.cpp:425] inception_4a/output <- inception_4a/pool_proj
I0403 19:53:34.065757  9801 net.cpp:399] inception_4a/output -> inception_4a/output
I0403 19:53:34.065800  9801 net.cpp:141] Setting up inception_4a/output
I0403 19:53:34.065824  9801 net.cpp:148] Top shape: 24 512 14 14 (2408448)
I0403 19:53:34.065840  9801 net.cpp:156] Memory required for data: 896545824
I0403 19:53:34.065855  9801 layer_factory.hpp:77] Creating layer inception_4a/output_inception_4a/output_0_split
I0403 19:53:34.065873  9801 net.cpp:91] Creating Layer inception_4a/output_inception_4a/output_0_split
I0403 19:53:34.065889  9801 net.cpp:425] inception_4a/output_inception_4a/output_0_split <- inception_4a/output
I0403 19:53:34.065907  9801 net.cpp:399] inception_4a/output_inception_4a/output_0_split -> inception_4a/output_inception_4a/output_0_split_0
I0403 19:53:34.065927  9801 net.cpp:399] inception_4a/output_inception_4a/output_0_split -> inception_4a/output_inception_4a/output_0_split_1
I0403 19:53:34.065949  9801 net.cpp:399] inception_4a/output_inception_4a/output_0_split -> inception_4a/output_inception_4a/output_0_split_2
I0403 19:53:34.065970  9801 net.cpp:399] inception_4a/output_inception_4a/output_0_split -> inception_4a/output_inception_4a/output_0_split_3
I0403 19:53:34.065990  9801 net.cpp:399] inception_4a/output_inception_4a/output_0_split -> inception_4a/output_inception_4a/output_0_split_4
I0403 19:53:34.066081  9801 net.cpp:141] Setting up inception_4a/output_inception_4a/output_0_split
I0403 19:53:34.066102  9801 net.cpp:148] Top shape: 24 512 14 14 (2408448)
I0403 19:53:34.066118  9801 net.cpp:148] Top shape: 24 512 14 14 (2408448)
I0403 19:53:34.066134  9801 net.cpp:148] Top shape: 24 512 14 14 (2408448)
I0403 19:53:34.066150  9801 net.cpp:148] Top shape: 24 512 14 14 (2408448)
I0403 19:53:34.066165  9801 net.cpp:148] Top shape: 24 512 14 14 (2408448)
I0403 19:53:34.066179  9801 net.cpp:156] Memory required for data: 944714784
I0403 19:53:34.066193  9801 layer_factory.hpp:77] Creating layer loss1/ave_pool
I0403 19:53:34.066215  9801 net.cpp:91] Creating Layer loss1/ave_pool
I0403 19:53:34.066231  9801 net.cpp:425] loss1/ave_pool <- inception_4a/output_inception_4a/output_0_split_0
I0403 19:53:34.066248  9801 net.cpp:399] loss1/ave_pool -> loss1/ave_pool
I0403 19:53:34.066453  9801 net.cpp:141] Setting up loss1/ave_pool
I0403 19:53:34.066479  9801 net.cpp:148] Top shape: 24 512 4 4 (196608)
I0403 19:53:34.066493  9801 net.cpp:156] Memory required for data: 945501216
I0403 19:53:34.066507  9801 layer_factory.hpp:77] Creating layer loss1/conv
I0403 19:53:34.066529  9801 net.cpp:91] Creating Layer loss1/conv
I0403 19:53:34.066546  9801 net.cpp:425] loss1/conv <- loss1/ave_pool
I0403 19:53:34.066566  9801 net.cpp:399] loss1/conv -> loss1/conv
I0403 19:53:34.067966  9801 net.cpp:141] Setting up loss1/conv
I0403 19:53:34.067996  9801 net.cpp:148] Top shape: 24 128 4 4 (49152)
I0403 19:53:34.068011  9801 net.cpp:156] Memory required for data: 945697824
I0403 19:53:34.068042  9801 layer_factory.hpp:77] Creating layer loss1/relu_conv
I0403 19:53:34.068063  9801 net.cpp:91] Creating Layer loss1/relu_conv
I0403 19:53:34.068079  9801 net.cpp:425] loss1/relu_conv <- loss1/conv
I0403 19:53:34.068097  9801 net.cpp:386] loss1/relu_conv -> loss1/conv (in-place)
I0403 19:53:34.068380  9801 net.cpp:141] Setting up loss1/relu_conv
I0403 19:53:34.068406  9801 net.cpp:148] Top shape: 24 128 4 4 (49152)
I0403 19:53:34.068421  9801 net.cpp:156] Memory required for data: 945894432
I0403 19:53:34.068436  9801 layer_factory.hpp:77] Creating layer loss1/fc
I0403 19:53:34.068462  9801 net.cpp:91] Creating Layer loss1/fc
I0403 19:53:34.068480  9801 net.cpp:425] loss1/fc <- loss1/conv
I0403 19:53:34.068498  9801 net.cpp:399] loss1/fc -> loss1/fc
I0403 19:53:34.085835  9801 net.cpp:141] Setting up loss1/fc
I0403 19:53:34.085865  9801 net.cpp:148] Top shape: 24 1024 (24576)
I0403 19:53:34.085881  9801 net.cpp:156] Memory required for data: 945992736
I0403 19:53:34.085901  9801 layer_factory.hpp:77] Creating layer loss1/relu_fc
I0403 19:53:34.085919  9801 net.cpp:91] Creating Layer loss1/relu_fc
I0403 19:53:34.085935  9801 net.cpp:425] loss1/relu_fc <- loss1/fc
I0403 19:53:34.085957  9801 net.cpp:386] loss1/relu_fc -> loss1/fc (in-place)
I0403 19:53:34.086151  9801 net.cpp:141] Setting up loss1/relu_fc
I0403 19:53:34.086175  9801 net.cpp:148] Top shape: 24 1024 (24576)
I0403 19:53:34.086190  9801 net.cpp:156] Memory required for data: 946091040
I0403 19:53:34.086206  9801 layer_factory.hpp:77] Creating layer loss1/drop_fc
I0403 19:53:34.086236  9801 net.cpp:91] Creating Layer loss1/drop_fc
I0403 19:53:34.086254  9801 net.cpp:425] loss1/drop_fc <- loss1/fc
I0403 19:53:34.086277  9801 net.cpp:386] loss1/drop_fc -> loss1/fc (in-place)
I0403 19:53:34.086328  9801 net.cpp:141] Setting up loss1/drop_fc
I0403 19:53:34.086352  9801 net.cpp:148] Top shape: 24 1024 (24576)
I0403 19:53:34.086366  9801 net.cpp:156] Memory required for data: 946189344
I0403 19:53:34.086382  9801 layer_factory.hpp:77] Creating layer loss1/classifier_plantvillage
I0403 19:53:34.086405  9801 net.cpp:91] Creating Layer loss1/classifier_plantvillage
I0403 19:53:34.086421  9801 net.cpp:425] loss1/classifier_plantvillage <- loss1/fc
I0403 19:53:34.086443  9801 net.cpp:399] loss1/classifier_plantvillage -> loss1/classifier_plantvillage
I0403 19:53:34.087352  9801 net.cpp:141] Setting up loss1/classifier_plantvillage
I0403 19:53:34.087379  9801 net.cpp:148] Top shape: 24 38 (912)
I0403 19:53:34.087394  9801 net.cpp:156] Memory required for data: 946192992
I0403 19:53:34.087412  9801 layer_factory.hpp:77] Creating layer loss1/classifier_plantvillage_loss1/classifier_plantvillage_0_split
I0403 19:53:34.087431  9801 net.cpp:91] Creating Layer loss1/classifier_plantvillage_loss1/classifier_plantvillage_0_split
I0403 19:53:34.087447  9801 net.cpp:425] loss1/classifier_plantvillage_loss1/classifier_plantvillage_0_split <- loss1/classifier_plantvillage
I0403 19:53:34.087467  9801 net.cpp:399] loss1/classifier_plantvillage_loss1/classifier_plantvillage_0_split -> loss1/classifier_plantvillage_loss1/classifier_plantvillage_0_split_0
I0403 19:53:34.087488  9801 net.cpp:399] loss1/classifier_plantvillage_loss1/classifier_plantvillage_0_split -> loss1/classifier_plantvillage_loss1/classifier_plantvillage_0_split_1
I0403 19:53:34.087509  9801 net.cpp:399] loss1/classifier_plantvillage_loss1/classifier_plantvillage_0_split -> loss1/classifier_plantvillage_loss1/classifier_plantvillage_0_split_2
I0403 19:53:34.087574  9801 net.cpp:141] Setting up loss1/classifier_plantvillage_loss1/classifier_plantvillage_0_split
I0403 19:53:34.087600  9801 net.cpp:148] Top shape: 24 38 (912)
I0403 19:53:34.087616  9801 net.cpp:148] Top shape: 24 38 (912)
I0403 19:53:34.087632  9801 net.cpp:148] Top shape: 24 38 (912)
I0403 19:53:34.087646  9801 net.cpp:156] Memory required for data: 946203936
I0403 19:53:34.087661  9801 layer_factory.hpp:77] Creating layer inception_4b/1x1
I0403 19:53:34.087682  9801 net.cpp:91] Creating Layer inception_4b/1x1
I0403 19:53:34.087713  9801 net.cpp:425] inception_4b/1x1 <- inception_4a/output_inception_4a/output_0_split_1
I0403 19:53:34.087733  9801 net.cpp:399] inception_4b/1x1 -> inception_4b/1x1
I0403 19:53:34.089432  9801 net.cpp:141] Setting up inception_4b/1x1
I0403 19:53:34.089459  9801 net.cpp:148] Top shape: 24 160 14 14 (752640)
I0403 19:53:34.089475  9801 net.cpp:156] Memory required for data: 949214496
I0403 19:53:34.089493  9801 layer_factory.hpp:77] Creating layer inception_4b/relu_1x1
I0403 19:53:34.089514  9801 net.cpp:91] Creating Layer inception_4b/relu_1x1
I0403 19:53:34.089531  9801 net.cpp:425] inception_4b/relu_1x1 <- inception_4b/1x1
I0403 19:53:34.089550  9801 net.cpp:386] inception_4b/relu_1x1 -> inception_4b/1x1 (in-place)
I0403 19:53:34.089737  9801 net.cpp:141] Setting up inception_4b/relu_1x1
I0403 19:53:34.089763  9801 net.cpp:148] Top shape: 24 160 14 14 (752640)
I0403 19:53:34.089778  9801 net.cpp:156] Memory required for data: 952225056
I0403 19:53:34.089792  9801 layer_factory.hpp:77] Creating layer inception_4b/3x3_reduce
I0403 19:53:34.089817  9801 net.cpp:91] Creating Layer inception_4b/3x3_reduce
I0403 19:53:34.089835  9801 net.cpp:425] inception_4b/3x3_reduce <- inception_4a/output_inception_4a/output_0_split_2
I0403 19:53:34.089854  9801 net.cpp:399] inception_4b/3x3_reduce -> inception_4b/3x3_reduce
I0403 19:53:34.091220  9801 net.cpp:141] Setting up inception_4b/3x3_reduce
I0403 19:53:34.091248  9801 net.cpp:148] Top shape: 24 112 14 14 (526848)
I0403 19:53:34.091264  9801 net.cpp:156] Memory required for data: 954332448
I0403 19:53:34.091303  9801 layer_factory.hpp:77] Creating layer inception_4b/relu_3x3_reduce
I0403 19:53:34.091327  9801 net.cpp:91] Creating Layer inception_4b/relu_3x3_reduce
I0403 19:53:34.091358  9801 net.cpp:425] inception_4b/relu_3x3_reduce <- inception_4b/3x3_reduce
I0403 19:53:34.091378  9801 net.cpp:386] inception_4b/relu_3x3_reduce -> inception_4b/3x3_reduce (in-place)
I0403 19:53:34.091706  9801 net.cpp:141] Setting up inception_4b/relu_3x3_reduce
I0403 19:53:34.091733  9801 net.cpp:148] Top shape: 24 112 14 14 (526848)
I0403 19:53:34.091749  9801 net.cpp:156] Memory required for data: 956439840
I0403 19:53:34.091765  9801 layer_factory.hpp:77] Creating layer inception_4b/3x3
I0403 19:53:34.091790  9801 net.cpp:91] Creating Layer inception_4b/3x3
I0403 19:53:34.091809  9801 net.cpp:425] inception_4b/3x3 <- inception_4b/3x3_reduce
I0403 19:53:34.091830  9801 net.cpp:399] inception_4b/3x3 -> inception_4b/3x3
I0403 19:53:34.094904  9801 net.cpp:141] Setting up inception_4b/3x3
I0403 19:53:34.094936  9801 net.cpp:148] Top shape: 24 224 14 14 (1053696)
I0403 19:53:34.094954  9801 net.cpp:156] Memory required for data: 960654624
I0403 19:53:34.094974  9801 layer_factory.hpp:77] Creating layer inception_4b/relu_3x3
I0403 19:53:34.094992  9801 net.cpp:91] Creating Layer inception_4b/relu_3x3
I0403 19:53:34.095010  9801 net.cpp:425] inception_4b/relu_3x3 <- inception_4b/3x3
I0403 19:53:34.095031  9801 net.cpp:386] inception_4b/relu_3x3 -> inception_4b/3x3 (in-place)
I0403 19:53:34.095218  9801 net.cpp:141] Setting up inception_4b/relu_3x3
I0403 19:53:34.095244  9801 net.cpp:148] Top shape: 24 224 14 14 (1053696)
I0403 19:53:34.095259  9801 net.cpp:156] Memory required for data: 964869408
I0403 19:53:34.095280  9801 layer_factory.hpp:77] Creating layer inception_4b/5x5_reduce
I0403 19:53:34.095305  9801 net.cpp:91] Creating Layer inception_4b/5x5_reduce
I0403 19:53:34.095324  9801 net.cpp:425] inception_4b/5x5_reduce <- inception_4a/output_inception_4a/output_0_split_3
I0403 19:53:34.095347  9801 net.cpp:399] inception_4b/5x5_reduce -> inception_4b/5x5_reduce
I0403 19:53:34.096474  9801 net.cpp:141] Setting up inception_4b/5x5_reduce
I0403 19:53:34.096503  9801 net.cpp:148] Top shape: 24 24 14 14 (112896)
I0403 19:53:34.096519  9801 net.cpp:156] Memory required for data: 965320992
I0403 19:53:34.096539  9801 layer_factory.hpp:77] Creating layer inception_4b/relu_5x5_reduce
I0403 19:53:34.096560  9801 net.cpp:91] Creating Layer inception_4b/relu_5x5_reduce
I0403 19:53:34.096592  9801 net.cpp:425] inception_4b/relu_5x5_reduce <- inception_4b/5x5_reduce
I0403 19:53:34.096611  9801 net.cpp:386] inception_4b/relu_5x5_reduce -> inception_4b/5x5_reduce (in-place)
I0403 19:53:34.096801  9801 net.cpp:141] Setting up inception_4b/relu_5x5_reduce
I0403 19:53:34.096828  9801 net.cpp:148] Top shape: 24 24 14 14 (112896)
I0403 19:53:34.096844  9801 net.cpp:156] Memory required for data: 965772576
I0403 19:53:34.096860  9801 layer_factory.hpp:77] Creating layer inception_4b/5x5
I0403 19:53:34.096884  9801 net.cpp:91] Creating Layer inception_4b/5x5
I0403 19:53:34.096902  9801 net.cpp:425] inception_4b/5x5 <- inception_4b/5x5_reduce
I0403 19:53:34.096922  9801 net.cpp:399] inception_4b/5x5 -> inception_4b/5x5
I0403 19:53:34.098191  9801 net.cpp:141] Setting up inception_4b/5x5
I0403 19:53:34.098218  9801 net.cpp:148] Top shape: 24 64 14 14 (301056)
I0403 19:53:34.098235  9801 net.cpp:156] Memory required for data: 966976800
I0403 19:53:34.098255  9801 layer_factory.hpp:77] Creating layer inception_4b/relu_5x5
I0403 19:53:34.098280  9801 net.cpp:91] Creating Layer inception_4b/relu_5x5
I0403 19:53:34.098301  9801 net.cpp:425] inception_4b/relu_5x5 <- inception_4b/5x5
I0403 19:53:34.098320  9801 net.cpp:386] inception_4b/relu_5x5 -> inception_4b/5x5 (in-place)
I0403 19:53:34.098613  9801 net.cpp:141] Setting up inception_4b/relu_5x5
I0403 19:53:34.098640  9801 net.cpp:148] Top shape: 24 64 14 14 (301056)
I0403 19:53:34.098657  9801 net.cpp:156] Memory required for data: 968181024
I0403 19:53:34.098673  9801 layer_factory.hpp:77] Creating layer inception_4b/pool
I0403 19:53:34.098695  9801 net.cpp:91] Creating Layer inception_4b/pool
I0403 19:53:34.098714  9801 net.cpp:425] inception_4b/pool <- inception_4a/output_inception_4a/output_0_split_4
I0403 19:53:34.098734  9801 net.cpp:399] inception_4b/pool -> inception_4b/pool
I0403 19:53:34.098803  9801 net.cpp:141] Setting up inception_4b/pool
I0403 19:53:34.098826  9801 net.cpp:148] Top shape: 24 512 14 14 (2408448)
I0403 19:53:34.098842  9801 net.cpp:156] Memory required for data: 977814816
I0403 19:53:34.098858  9801 layer_factory.hpp:77] Creating layer inception_4b/pool_proj
I0403 19:53:34.098881  9801 net.cpp:91] Creating Layer inception_4b/pool_proj
I0403 19:53:34.098901  9801 net.cpp:425] inception_4b/pool_proj <- inception_4b/pool
I0403 19:53:34.098923  9801 net.cpp:399] inception_4b/pool_proj -> inception_4b/pool_proj
I0403 19:53:34.100210  9801 net.cpp:141] Setting up inception_4b/pool_proj
I0403 19:53:34.100240  9801 net.cpp:148] Top shape: 24 64 14 14 (301056)
I0403 19:53:34.100256  9801 net.cpp:156] Memory required for data: 979019040
I0403 19:53:34.100281  9801 layer_factory.hpp:77] Creating layer inception_4b/relu_pool_proj
I0403 19:53:34.100303  9801 net.cpp:91] Creating Layer inception_4b/relu_pool_proj
I0403 19:53:34.100322  9801 net.cpp:425] inception_4b/relu_pool_proj <- inception_4b/pool_proj
I0403 19:53:34.100339  9801 net.cpp:386] inception_4b/relu_pool_proj -> inception_4b/pool_proj (in-place)
I0403 19:53:34.100528  9801 net.cpp:141] Setting up inception_4b/relu_pool_proj
I0403 19:53:34.100555  9801 net.cpp:148] Top shape: 24 64 14 14 (301056)
I0403 19:53:34.100570  9801 net.cpp:156] Memory required for data: 980223264
I0403 19:53:34.100586  9801 layer_factory.hpp:77] Creating layer inception_4b/output
I0403 19:53:34.100605  9801 net.cpp:91] Creating Layer inception_4b/output
I0403 19:53:34.100620  9801 net.cpp:425] inception_4b/output <- inception_4b/1x1
I0403 19:53:34.100637  9801 net.cpp:425] inception_4b/output <- inception_4b/3x3
I0403 19:53:34.100654  9801 net.cpp:425] inception_4b/output <- inception_4b/5x5
I0403 19:53:34.100671  9801 net.cpp:425] inception_4b/output <- inception_4b/pool_proj
I0403 19:53:34.100690  9801 net.cpp:399] inception_4b/output -> inception_4b/output
I0403 19:53:34.100739  9801 net.cpp:141] Setting up inception_4b/output
I0403 19:53:34.100762  9801 net.cpp:148] Top shape: 24 512 14 14 (2408448)
I0403 19:53:34.100778  9801 net.cpp:156] Memory required for data: 989857056
I0403 19:53:34.100810  9801 layer_factory.hpp:77] Creating layer inception_4b/output_inception_4b/output_0_split
I0403 19:53:34.100831  9801 net.cpp:91] Creating Layer inception_4b/output_inception_4b/output_0_split
I0403 19:53:34.100849  9801 net.cpp:425] inception_4b/output_inception_4b/output_0_split <- inception_4b/output
I0403 19:53:34.100868  9801 net.cpp:399] inception_4b/output_inception_4b/output_0_split -> inception_4b/output_inception_4b/output_0_split_0
I0403 19:53:34.100890  9801 net.cpp:399] inception_4b/output_inception_4b/output_0_split -> inception_4b/output_inception_4b/output_0_split_1
I0403 19:53:34.100913  9801 net.cpp:399] inception_4b/output_inception_4b/output_0_split -> inception_4b/output_inception_4b/output_0_split_2
I0403 19:53:34.100936  9801 net.cpp:399] inception_4b/output_inception_4b/output_0_split -> inception_4b/output_inception_4b/output_0_split_3
I0403 19:53:34.101029  9801 net.cpp:141] Setting up inception_4b/output_inception_4b/output_0_split
I0403 19:53:34.101053  9801 net.cpp:148] Top shape: 24 512 14 14 (2408448)
I0403 19:53:34.101070  9801 net.cpp:148] Top shape: 24 512 14 14 (2408448)
I0403 19:53:34.101086  9801 net.cpp:148] Top shape: 24 512 14 14 (2408448)
I0403 19:53:34.101102  9801 net.cpp:148] Top shape: 24 512 14 14 (2408448)
I0403 19:53:34.101117  9801 net.cpp:156] Memory required for data: 1028392224
I0403 19:53:34.101132  9801 layer_factory.hpp:77] Creating layer inception_4c/1x1
I0403 19:53:34.101155  9801 net.cpp:91] Creating Layer inception_4c/1x1
I0403 19:53:34.101173  9801 net.cpp:425] inception_4c/1x1 <- inception_4b/output_inception_4b/output_0_split_0
I0403 19:53:34.101198  9801 net.cpp:399] inception_4c/1x1 -> inception_4c/1x1
I0403 19:53:34.102705  9801 net.cpp:141] Setting up inception_4c/1x1
I0403 19:53:34.102736  9801 net.cpp:148] Top shape: 24 128 14 14 (602112)
I0403 19:53:34.102754  9801 net.cpp:156] Memory required for data: 1030800672
I0403 19:53:34.102773  9801 layer_factory.hpp:77] Creating layer inception_4c/relu_1x1
I0403 19:53:34.102793  9801 net.cpp:91] Creating Layer inception_4c/relu_1x1
I0403 19:53:34.102813  9801 net.cpp:425] inception_4c/relu_1x1 <- inception_4c/1x1
I0403 19:53:34.102834  9801 net.cpp:386] inception_4c/relu_1x1 -> inception_4c/1x1 (in-place)
I0403 19:53:34.103024  9801 net.cpp:141] Setting up inception_4c/relu_1x1
I0403 19:53:34.103051  9801 net.cpp:148] Top shape: 24 128 14 14 (602112)
I0403 19:53:34.103067  9801 net.cpp:156] Memory required for data: 1033209120
I0403 19:53:34.103082  9801 layer_factory.hpp:77] Creating layer inception_4c/3x3_reduce
I0403 19:53:34.103106  9801 net.cpp:91] Creating Layer inception_4c/3x3_reduce
I0403 19:53:34.103127  9801 net.cpp:425] inception_4c/3x3_reduce <- inception_4b/output_inception_4b/output_0_split_1
I0403 19:53:34.103149  9801 net.cpp:399] inception_4c/3x3_reduce -> inception_4c/3x3_reduce
I0403 19:53:34.105149  9801 net.cpp:141] Setting up inception_4c/3x3_reduce
I0403 19:53:34.105180  9801 net.cpp:148] Top shape: 24 128 14 14 (602112)
I0403 19:53:34.105198  9801 net.cpp:156] Memory required for data: 1035617568
I0403 19:53:34.105217  9801 layer_factory.hpp:77] Creating layer inception_4c/relu_3x3_reduce
I0403 19:53:34.105238  9801 net.cpp:91] Creating Layer inception_4c/relu_3x3_reduce
I0403 19:53:34.105257  9801 net.cpp:425] inception_4c/relu_3x3_reduce <- inception_4c/3x3_reduce
I0403 19:53:34.105278  9801 net.cpp:386] inception_4c/relu_3x3_reduce -> inception_4c/3x3_reduce (in-place)
I0403 19:53:34.105573  9801 net.cpp:141] Setting up inception_4c/relu_3x3_reduce
I0403 19:53:34.105602  9801 net.cpp:148] Top shape: 24 128 14 14 (602112)
I0403 19:53:34.105617  9801 net.cpp:156] Memory required for data: 1038026016
I0403 19:53:34.105638  9801 layer_factory.hpp:77] Creating layer inception_4c/3x3
I0403 19:53:34.105660  9801 net.cpp:91] Creating Layer inception_4c/3x3
I0403 19:53:34.105679  9801 net.cpp:425] inception_4c/3x3 <- inception_4c/3x3_reduce
I0403 19:53:34.105702  9801 net.cpp:399] inception_4c/3x3 -> inception_4c/3x3
I0403 19:53:34.109421  9801 net.cpp:141] Setting up inception_4c/3x3
I0403 19:53:34.109464  9801 net.cpp:148] Top shape: 24 256 14 14 (1204224)
I0403 19:53:34.109483  9801 net.cpp:156] Memory required for data: 1042842912
I0403 19:53:34.109514  9801 layer_factory.hpp:77] Creating layer inception_4c/relu_3x3
I0403 19:53:34.109539  9801 net.cpp:91] Creating Layer inception_4c/relu_3x3
I0403 19:53:34.109556  9801 net.cpp:425] inception_4c/relu_3x3 <- inception_4c/3x3
I0403 19:53:34.109575  9801 net.cpp:386] inception_4c/relu_3x3 -> inception_4c/3x3 (in-place)
I0403 19:53:34.109766  9801 net.cpp:141] Setting up inception_4c/relu_3x3
I0403 19:53:34.109791  9801 net.cpp:148] Top shape: 24 256 14 14 (1204224)
I0403 19:53:34.109807  9801 net.cpp:156] Memory required for data: 1047659808
I0403 19:53:34.109822  9801 layer_factory.hpp:77] Creating layer inception_4c/5x5_reduce
I0403 19:53:34.109844  9801 net.cpp:91] Creating Layer inception_4c/5x5_reduce
I0403 19:53:34.109865  9801 net.cpp:425] inception_4c/5x5_reduce <- inception_4b/output_inception_4b/output_0_split_2
I0403 19:53:34.109885  9801 net.cpp:399] inception_4c/5x5_reduce -> inception_4c/5x5_reduce
I0403 19:53:34.111016  9801 net.cpp:141] Setting up inception_4c/5x5_reduce
I0403 19:53:34.111044  9801 net.cpp:148] Top shape: 24 24 14 14 (112896)
I0403 19:53:34.111060  9801 net.cpp:156] Memory required for data: 1048111392
I0403 19:53:34.111078  9801 layer_factory.hpp:77] Creating layer inception_4c/relu_5x5_reduce
I0403 19:53:34.111099  9801 net.cpp:91] Creating Layer inception_4c/relu_5x5_reduce
I0403 19:53:34.111116  9801 net.cpp:425] inception_4c/relu_5x5_reduce <- inception_4c/5x5_reduce
I0403 19:53:34.111135  9801 net.cpp:386] inception_4c/relu_5x5_reduce -> inception_4c/5x5_reduce (in-place)
I0403 19:53:34.111325  9801 net.cpp:141] Setting up inception_4c/relu_5x5_reduce
I0403 19:53:34.111352  9801 net.cpp:148] Top shape: 24 24 14 14 (112896)
I0403 19:53:34.111368  9801 net.cpp:156] Memory required for data: 1048562976
I0403 19:53:34.111383  9801 layer_factory.hpp:77] Creating layer inception_4c/5x5
I0403 19:53:34.111405  9801 net.cpp:91] Creating Layer inception_4c/5x5
I0403 19:53:34.111423  9801 net.cpp:425] inception_4c/5x5 <- inception_4c/5x5_reduce
I0403 19:53:34.111443  9801 net.cpp:399] inception_4c/5x5 -> inception_4c/5x5
I0403 19:53:34.112694  9801 net.cpp:141] Setting up inception_4c/5x5
I0403 19:53:34.112723  9801 net.cpp:148] Top shape: 24 64 14 14 (301056)
I0403 19:53:34.112740  9801 net.cpp:156] Memory required for data: 1049767200
I0403 19:53:34.112758  9801 layer_factory.hpp:77] Creating layer inception_4c/relu_5x5
I0403 19:53:34.112777  9801 net.cpp:91] Creating Layer inception_4c/relu_5x5
I0403 19:53:34.112793  9801 net.cpp:425] inception_4c/relu_5x5 <- inception_4c/5x5
I0403 19:53:34.112813  9801 net.cpp:386] inception_4c/relu_5x5 -> inception_4c/5x5 (in-place)
I0403 19:53:34.113103  9801 net.cpp:141] Setting up inception_4c/relu_5x5
I0403 19:53:34.113132  9801 net.cpp:148] Top shape: 24 64 14 14 (301056)
I0403 19:53:34.113147  9801 net.cpp:156] Memory required for data: 1050971424
I0403 19:53:34.113163  9801 layer_factory.hpp:77] Creating layer inception_4c/pool
I0403 19:53:34.113181  9801 net.cpp:91] Creating Layer inception_4c/pool
I0403 19:53:34.113198  9801 net.cpp:425] inception_4c/pool <- inception_4b/output_inception_4b/output_0_split_3
I0403 19:53:34.113217  9801 net.cpp:399] inception_4c/pool -> inception_4c/pool
I0403 19:53:34.113287  9801 net.cpp:141] Setting up inception_4c/pool
I0403 19:53:34.113312  9801 net.cpp:148] Top shape: 24 512 14 14 (2408448)
I0403 19:53:34.113327  9801 net.cpp:156] Memory required for data: 1060605216
I0403 19:53:34.113343  9801 layer_factory.hpp:77] Creating layer inception_4c/pool_proj
I0403 19:53:34.113364  9801 net.cpp:91] Creating Layer inception_4c/pool_proj
I0403 19:53:34.113382  9801 net.cpp:425] inception_4c/pool_proj <- inception_4c/pool
I0403 19:53:34.113404  9801 net.cpp:399] inception_4c/pool_proj -> inception_4c/pool_proj
I0403 19:53:34.114631  9801 net.cpp:141] Setting up inception_4c/pool_proj
I0403 19:53:34.114660  9801 net.cpp:148] Top shape: 24 64 14 14 (301056)
I0403 19:53:34.114689  9801 net.cpp:156] Memory required for data: 1061809440
I0403 19:53:34.114709  9801 layer_factory.hpp:77] Creating layer inception_4c/relu_pool_proj
I0403 19:53:34.114732  9801 net.cpp:91] Creating Layer inception_4c/relu_pool_proj
I0403 19:53:34.114749  9801 net.cpp:425] inception_4c/relu_pool_proj <- inception_4c/pool_proj
I0403 19:53:34.114766  9801 net.cpp:386] inception_4c/relu_pool_proj -> inception_4c/pool_proj (in-place)
I0403 19:53:34.114951  9801 net.cpp:141] Setting up inception_4c/relu_pool_proj
I0403 19:53:34.114979  9801 net.cpp:148] Top shape: 24 64 14 14 (301056)
I0403 19:53:34.114995  9801 net.cpp:156] Memory required for data: 1063013664
I0403 19:53:34.115010  9801 layer_factory.hpp:77] Creating layer inception_4c/output
I0403 19:53:34.115028  9801 net.cpp:91] Creating Layer inception_4c/output
I0403 19:53:34.115043  9801 net.cpp:425] inception_4c/output <- inception_4c/1x1
I0403 19:53:34.115059  9801 net.cpp:425] inception_4c/output <- inception_4c/3x3
I0403 19:53:34.115075  9801 net.cpp:425] inception_4c/output <- inception_4c/5x5
I0403 19:53:34.115092  9801 net.cpp:425] inception_4c/output <- inception_4c/pool_proj
I0403 19:53:34.115108  9801 net.cpp:399] inception_4c/output -> inception_4c/output
I0403 19:53:34.115159  9801 net.cpp:141] Setting up inception_4c/output
I0403 19:53:34.115182  9801 net.cpp:148] Top shape: 24 512 14 14 (2408448)
I0403 19:53:34.115197  9801 net.cpp:156] Memory required for data: 1072647456
I0403 19:53:34.115212  9801 layer_factory.hpp:77] Creating layer inception_4c/output_inception_4c/output_0_split
I0403 19:53:34.115229  9801 net.cpp:91] Creating Layer inception_4c/output_inception_4c/output_0_split
I0403 19:53:34.115245  9801 net.cpp:425] inception_4c/output_inception_4c/output_0_split <- inception_4c/output
I0403 19:53:34.115267  9801 net.cpp:399] inception_4c/output_inception_4c/output_0_split -> inception_4c/output_inception_4c/output_0_split_0
I0403 19:53:34.115293  9801 net.cpp:399] inception_4c/output_inception_4c/output_0_split -> inception_4c/output_inception_4c/output_0_split_1
I0403 19:53:34.115314  9801 net.cpp:399] inception_4c/output_inception_4c/output_0_split -> inception_4c/output_inception_4c/output_0_split_2
I0403 19:53:34.115337  9801 net.cpp:399] inception_4c/output_inception_4c/output_0_split -> inception_4c/output_inception_4c/output_0_split_3
I0403 19:53:34.115425  9801 net.cpp:141] Setting up inception_4c/output_inception_4c/output_0_split
I0403 19:53:34.115449  9801 net.cpp:148] Top shape: 24 512 14 14 (2408448)
I0403 19:53:34.115465  9801 net.cpp:148] Top shape: 24 512 14 14 (2408448)
I0403 19:53:34.115481  9801 net.cpp:148] Top shape: 24 512 14 14 (2408448)
I0403 19:53:34.115497  9801 net.cpp:148] Top shape: 24 512 14 14 (2408448)
I0403 19:53:34.115510  9801 net.cpp:156] Memory required for data: 1111182624
I0403 19:53:34.115525  9801 layer_factory.hpp:77] Creating layer inception_4d/1x1
I0403 19:53:34.115548  9801 net.cpp:91] Creating Layer inception_4d/1x1
I0403 19:53:34.115566  9801 net.cpp:425] inception_4d/1x1 <- inception_4c/output_inception_4c/output_0_split_0
I0403 19:53:34.115587  9801 net.cpp:399] inception_4d/1x1 -> inception_4d/1x1
I0403 19:53:34.117012  9801 net.cpp:141] Setting up inception_4d/1x1
I0403 19:53:34.117039  9801 net.cpp:148] Top shape: 24 112 14 14 (526848)
I0403 19:53:34.117054  9801 net.cpp:156] Memory required for data: 1113290016
I0403 19:53:34.117074  9801 layer_factory.hpp:77] Creating layer inception_4d/relu_1x1
I0403 19:53:34.117091  9801 net.cpp:91] Creating Layer inception_4d/relu_1x1
I0403 19:53:34.117111  9801 net.cpp:425] inception_4d/relu_1x1 <- inception_4d/1x1
I0403 19:53:34.117128  9801 net.cpp:386] inception_4d/relu_1x1 -> inception_4d/1x1 (in-place)
I0403 19:53:34.117321  9801 net.cpp:141] Setting up inception_4d/relu_1x1
I0403 19:53:34.117346  9801 net.cpp:148] Top shape: 24 112 14 14 (526848)
I0403 19:53:34.117360  9801 net.cpp:156] Memory required for data: 1115397408
I0403 19:53:34.117375  9801 layer_factory.hpp:77] Creating layer inception_4d/3x3_reduce
I0403 19:53:34.117411  9801 net.cpp:91] Creating Layer inception_4d/3x3_reduce
I0403 19:53:34.117430  9801 net.cpp:425] inception_4d/3x3_reduce <- inception_4c/output_inception_4c/output_0_split_1
I0403 19:53:34.117452  9801 net.cpp:399] inception_4d/3x3_reduce -> inception_4d/3x3_reduce
I0403 19:53:34.118975  9801 net.cpp:141] Setting up inception_4d/3x3_reduce
I0403 19:53:34.119006  9801 net.cpp:148] Top shape: 24 144 14 14 (677376)
I0403 19:53:34.119024  9801 net.cpp:156] Memory required for data: 1118106912
I0403 19:53:34.119041  9801 layer_factory.hpp:77] Creating layer inception_4d/relu_3x3_reduce
I0403 19:53:34.119060  9801 net.cpp:91] Creating Layer inception_4d/relu_3x3_reduce
I0403 19:53:34.119076  9801 net.cpp:425] inception_4d/relu_3x3_reduce <- inception_4d/3x3_reduce
I0403 19:53:34.119097  9801 net.cpp:386] inception_4d/relu_3x3_reduce -> inception_4d/3x3_reduce (in-place)
I0403 19:53:34.119395  9801 net.cpp:141] Setting up inception_4d/relu_3x3_reduce
I0403 19:53:34.119423  9801 net.cpp:148] Top shape: 24 144 14 14 (677376)
I0403 19:53:34.119439  9801 net.cpp:156] Memory required for data: 1120816416
I0403 19:53:34.119453  9801 layer_factory.hpp:77] Creating layer inception_4d/3x3
I0403 19:53:34.119477  9801 net.cpp:91] Creating Layer inception_4d/3x3
I0403 19:53:34.119494  9801 net.cpp:425] inception_4d/3x3 <- inception_4d/3x3_reduce
I0403 19:53:34.119515  9801 net.cpp:399] inception_4d/3x3 -> inception_4d/3x3
I0403 19:53:34.123842  9801 net.cpp:141] Setting up inception_4d/3x3
I0403 19:53:34.123872  9801 net.cpp:148] Top shape: 24 288 14 14 (1354752)
I0403 19:53:34.123888  9801 net.cpp:156] Memory required for data: 1126235424
I0403 19:53:34.123905  9801 layer_factory.hpp:77] Creating layer inception_4d/relu_3x3
I0403 19:53:34.123924  9801 net.cpp:91] Creating Layer inception_4d/relu_3x3
I0403 19:53:34.123940  9801 net.cpp:425] inception_4d/relu_3x3 <- inception_4d/3x3
I0403 19:53:34.123960  9801 net.cpp:386] inception_4d/relu_3x3 -> inception_4d/3x3 (in-place)
I0403 19:53:34.124145  9801 net.cpp:141] Setting up inception_4d/relu_3x3
I0403 19:53:34.124169  9801 net.cpp:148] Top shape: 24 288 14 14 (1354752)
I0403 19:53:34.124186  9801 net.cpp:156] Memory required for data: 1131654432
I0403 19:53:34.124200  9801 layer_factory.hpp:77] Creating layer inception_4d/5x5_reduce
I0403 19:53:34.124222  9801 net.cpp:91] Creating Layer inception_4d/5x5_reduce
I0403 19:53:34.124253  9801 net.cpp:425] inception_4d/5x5_reduce <- inception_4c/output_inception_4c/output_0_split_2
I0403 19:53:34.124291  9801 net.cpp:399] inception_4d/5x5_reduce -> inception_4d/5x5_reduce
I0403 19:53:34.125476  9801 net.cpp:141] Setting up inception_4d/5x5_reduce
I0403 19:53:34.125505  9801 net.cpp:148] Top shape: 24 32 14 14 (150528)
I0403 19:53:34.125521  9801 net.cpp:156] Memory required for data: 1132256544
I0403 19:53:34.125540  9801 layer_factory.hpp:77] Creating layer inception_4d/relu_5x5_reduce
I0403 19:53:34.125560  9801 net.cpp:91] Creating Layer inception_4d/relu_5x5_reduce
I0403 19:53:34.125577  9801 net.cpp:425] inception_4d/relu_5x5_reduce <- inception_4d/5x5_reduce
I0403 19:53:34.125596  9801 net.cpp:386] inception_4d/relu_5x5_reduce -> inception_4d/5x5_reduce (in-place)
I0403 19:53:34.125784  9801 net.cpp:141] Setting up inception_4d/relu_5x5_reduce
I0403 19:53:34.125808  9801 net.cpp:148] Top shape: 24 32 14 14 (150528)
I0403 19:53:34.125823  9801 net.cpp:156] Memory required for data: 1132858656
I0403 19:53:34.125838  9801 layer_factory.hpp:77] Creating layer inception_4d/5x5
I0403 19:53:34.125860  9801 net.cpp:91] Creating Layer inception_4d/5x5
I0403 19:53:34.125879  9801 net.cpp:425] inception_4d/5x5 <- inception_4d/5x5_reduce
I0403 19:53:34.125900  9801 net.cpp:399] inception_4d/5x5 -> inception_4d/5x5
I0403 19:53:34.127354  9801 net.cpp:141] Setting up inception_4d/5x5
I0403 19:53:34.127382  9801 net.cpp:148] Top shape: 24 64 14 14 (301056)
I0403 19:53:34.127398  9801 net.cpp:156] Memory required for data: 1134062880
I0403 19:53:34.127416  9801 layer_factory.hpp:77] Creating layer inception_4d/relu_5x5
I0403 19:53:34.127450  9801 net.cpp:91] Creating Layer inception_4d/relu_5x5
I0403 19:53:34.127467  9801 net.cpp:425] inception_4d/relu_5x5 <- inception_4d/5x5
I0403 19:53:34.127485  9801 net.cpp:386] inception_4d/relu_5x5 -> inception_4d/5x5 (in-place)
I0403 19:53:34.127776  9801 net.cpp:141] Setting up inception_4d/relu_5x5
I0403 19:53:34.127802  9801 net.cpp:148] Top shape: 24 64 14 14 (301056)
I0403 19:53:34.127817  9801 net.cpp:156] Memory required for data: 1135267104
I0403 19:53:34.127832  9801 layer_factory.hpp:77] Creating layer inception_4d/pool
I0403 19:53:34.127851  9801 net.cpp:91] Creating Layer inception_4d/pool
I0403 19:53:34.127868  9801 net.cpp:425] inception_4d/pool <- inception_4c/output_inception_4c/output_0_split_3
I0403 19:53:34.127887  9801 net.cpp:399] inception_4d/pool -> inception_4d/pool
I0403 19:53:34.127953  9801 net.cpp:141] Setting up inception_4d/pool
I0403 19:53:34.127976  9801 net.cpp:148] Top shape: 24 512 14 14 (2408448)
I0403 19:53:34.127992  9801 net.cpp:156] Memory required for data: 1144900896
I0403 19:53:34.128007  9801 layer_factory.hpp:77] Creating layer inception_4d/pool_proj
I0403 19:53:34.128029  9801 net.cpp:91] Creating Layer inception_4d/pool_proj
I0403 19:53:34.128047  9801 net.cpp:425] inception_4d/pool_proj <- inception_4d/pool
I0403 19:53:34.128068  9801 net.cpp:399] inception_4d/pool_proj -> inception_4d/pool_proj
I0403 19:53:34.129864  9801 net.cpp:141] Setting up inception_4d/pool_proj
I0403 19:53:34.129894  9801 net.cpp:148] Top shape: 24 64 14 14 (301056)
I0403 19:53:34.129911  9801 net.cpp:156] Memory required for data: 1146105120
I0403 19:53:34.129930  9801 layer_factory.hpp:77] Creating layer inception_4d/relu_pool_proj
I0403 19:53:34.129950  9801 net.cpp:91] Creating Layer inception_4d/relu_pool_proj
I0403 19:53:34.129966  9801 net.cpp:425] inception_4d/relu_pool_proj <- inception_4d/pool_proj
I0403 19:53:34.129987  9801 net.cpp:386] inception_4d/relu_pool_proj -> inception_4d/pool_proj (in-place)
I0403 19:53:34.130180  9801 net.cpp:141] Setting up inception_4d/relu_pool_proj
I0403 19:53:34.130206  9801 net.cpp:148] Top shape: 24 64 14 14 (301056)
I0403 19:53:34.130221  9801 net.cpp:156] Memory required for data: 1147309344
I0403 19:53:34.130236  9801 layer_factory.hpp:77] Creating layer inception_4d/output
I0403 19:53:34.130256  9801 net.cpp:91] Creating Layer inception_4d/output
I0403 19:53:34.130277  9801 net.cpp:425] inception_4d/output <- inception_4d/1x1
I0403 19:53:34.130295  9801 net.cpp:425] inception_4d/output <- inception_4d/3x3
I0403 19:53:34.130312  9801 net.cpp:425] inception_4d/output <- inception_4d/5x5
I0403 19:53:34.130328  9801 net.cpp:425] inception_4d/output <- inception_4d/pool_proj
I0403 19:53:34.130345  9801 net.cpp:399] inception_4d/output -> inception_4d/output
I0403 19:53:34.130395  9801 net.cpp:141] Setting up inception_4d/output
I0403 19:53:34.130419  9801 net.cpp:148] Top shape: 24 528 14 14 (2483712)
I0403 19:53:34.130434  9801 net.cpp:156] Memory required for data: 1157244192
I0403 19:53:34.130447  9801 layer_factory.hpp:77] Creating layer inception_4d/output_inception_4d/output_0_split
I0403 19:53:34.130465  9801 net.cpp:91] Creating Layer inception_4d/output_inception_4d/output_0_split
I0403 19:53:34.130506  9801 net.cpp:425] inception_4d/output_inception_4d/output_0_split <- inception_4d/output
I0403 19:53:34.130538  9801 net.cpp:399] inception_4d/output_inception_4d/output_0_split -> inception_4d/output_inception_4d/output_0_split_0
I0403 19:53:34.130559  9801 net.cpp:399] inception_4d/output_inception_4d/output_0_split -> inception_4d/output_inception_4d/output_0_split_1
I0403 19:53:34.130580  9801 net.cpp:399] inception_4d/output_inception_4d/output_0_split -> inception_4d/output_inception_4d/output_0_split_2
I0403 19:53:34.130601  9801 net.cpp:399] inception_4d/output_inception_4d/output_0_split -> inception_4d/output_inception_4d/output_0_split_3
I0403 19:53:34.130622  9801 net.cpp:399] inception_4d/output_inception_4d/output_0_split -> inception_4d/output_inception_4d/output_0_split_4
I0403 19:53:34.130748  9801 net.cpp:141] Setting up inception_4d/output_inception_4d/output_0_split
I0403 19:53:34.130785  9801 net.cpp:148] Top shape: 24 528 14 14 (2483712)
I0403 19:53:34.130802  9801 net.cpp:148] Top shape: 24 528 14 14 (2483712)
I0403 19:53:34.130820  9801 net.cpp:148] Top shape: 24 528 14 14 (2483712)
I0403 19:53:34.130836  9801 net.cpp:148] Top shape: 24 528 14 14 (2483712)
I0403 19:53:34.130851  9801 net.cpp:148] Top shape: 24 528 14 14 (2483712)
I0403 19:53:34.130866  9801 net.cpp:156] Memory required for data: 1206918432
I0403 19:53:34.130879  9801 layer_factory.hpp:77] Creating layer loss2/ave_pool
I0403 19:53:34.130897  9801 net.cpp:91] Creating Layer loss2/ave_pool
I0403 19:53:34.130913  9801 net.cpp:425] loss2/ave_pool <- inception_4d/output_inception_4d/output_0_split_0
I0403 19:53:34.130935  9801 net.cpp:399] loss2/ave_pool -> loss2/ave_pool
I0403 19:53:34.131278  9801 net.cpp:141] Setting up loss2/ave_pool
I0403 19:53:34.131319  9801 net.cpp:148] Top shape: 24 528 4 4 (202752)
I0403 19:53:34.131335  9801 net.cpp:156] Memory required for data: 1207729440
I0403 19:53:34.131350  9801 layer_factory.hpp:77] Creating layer loss2/conv
I0403 19:53:34.131373  9801 net.cpp:91] Creating Layer loss2/conv
I0403 19:53:34.131392  9801 net.cpp:425] loss2/conv <- loss2/ave_pool
I0403 19:53:34.131414  9801 net.cpp:399] loss2/conv -> loss2/conv
I0403 19:53:34.133376  9801 net.cpp:141] Setting up loss2/conv
I0403 19:53:34.133407  9801 net.cpp:148] Top shape: 24 128 4 4 (49152)
I0403 19:53:34.133424  9801 net.cpp:156] Memory required for data: 1207926048
I0403 19:53:34.133442  9801 layer_factory.hpp:77] Creating layer loss2/relu_conv
I0403 19:53:34.133461  9801 net.cpp:91] Creating Layer loss2/relu_conv
I0403 19:53:34.133478  9801 net.cpp:425] loss2/relu_conv <- loss2/conv
I0403 19:53:34.133496  9801 net.cpp:386] loss2/relu_conv -> loss2/conv (in-place)
I0403 19:53:34.133785  9801 net.cpp:141] Setting up loss2/relu_conv
I0403 19:53:34.133815  9801 net.cpp:148] Top shape: 24 128 4 4 (49152)
I0403 19:53:34.133831  9801 net.cpp:156] Memory required for data: 1208122656
I0403 19:53:34.133846  9801 layer_factory.hpp:77] Creating layer loss2/fc
I0403 19:53:34.133865  9801 net.cpp:91] Creating Layer loss2/fc
I0403 19:53:34.133882  9801 net.cpp:425] loss2/fc <- loss2/conv
I0403 19:53:34.133903  9801 net.cpp:399] loss2/fc -> loss2/fc
I0403 19:53:34.151680  9801 net.cpp:141] Setting up loss2/fc
I0403 19:53:34.151713  9801 net.cpp:148] Top shape: 24 1024 (24576)
I0403 19:53:34.151728  9801 net.cpp:156] Memory required for data: 1208220960
I0403 19:53:34.151747  9801 layer_factory.hpp:77] Creating layer loss2/relu_fc
I0403 19:53:34.151769  9801 net.cpp:91] Creating Layer loss2/relu_fc
I0403 19:53:34.151787  9801 net.cpp:425] loss2/relu_fc <- loss2/fc
I0403 19:53:34.151804  9801 net.cpp:386] loss2/relu_fc -> loss2/fc (in-place)
I0403 19:53:34.152096  9801 net.cpp:141] Setting up loss2/relu_fc
I0403 19:53:34.152122  9801 net.cpp:148] Top shape: 24 1024 (24576)
I0403 19:53:34.152137  9801 net.cpp:156] Memory required for data: 1208319264
I0403 19:53:34.152151  9801 layer_factory.hpp:77] Creating layer loss2/drop_fc
I0403 19:53:34.152171  9801 net.cpp:91] Creating Layer loss2/drop_fc
I0403 19:53:34.152187  9801 net.cpp:425] loss2/drop_fc <- loss2/fc
I0403 19:53:34.152204  9801 net.cpp:386] loss2/drop_fc -> loss2/fc (in-place)
I0403 19:53:34.152252  9801 net.cpp:141] Setting up loss2/drop_fc
I0403 19:53:34.152279  9801 net.cpp:148] Top shape: 24 1024 (24576)
I0403 19:53:34.152297  9801 net.cpp:156] Memory required for data: 1208417568
I0403 19:53:34.152310  9801 layer_factory.hpp:77] Creating layer loss2/classifier_plantvillage
I0403 19:53:34.152328  9801 net.cpp:91] Creating Layer loss2/classifier_plantvillage
I0403 19:53:34.152343  9801 net.cpp:425] loss2/classifier_plantvillage <- loss2/fc
I0403 19:53:34.152364  9801 net.cpp:399] loss2/classifier_plantvillage -> loss2/classifier_plantvillage
I0403 19:53:34.152760  9801 net.cpp:141] Setting up loss2/classifier_plantvillage
I0403 19:53:34.152783  9801 net.cpp:148] Top shape: 24 38 (912)
I0403 19:53:34.152797  9801 net.cpp:156] Memory required for data: 1208421216
I0403 19:53:34.152832  9801 layer_factory.hpp:77] Creating layer loss2/classifier_plantvillage_loss2/classifier_plantvillage_0_split
I0403 19:53:34.152849  9801 net.cpp:91] Creating Layer loss2/classifier_plantvillage_loss2/classifier_plantvillage_0_split
I0403 19:53:34.152865  9801 net.cpp:425] loss2/classifier_plantvillage_loss2/classifier_plantvillage_0_split <- loss2/classifier_plantvillage
I0403 19:53:34.152884  9801 net.cpp:399] loss2/classifier_plantvillage_loss2/classifier_plantvillage_0_split -> loss2/classifier_plantvillage_loss2/classifier_plantvillage_0_split_0
I0403 19:53:34.152905  9801 net.cpp:399] loss2/classifier_plantvillage_loss2/classifier_plantvillage_0_split -> loss2/classifier_plantvillage_loss2/classifier_plantvillage_0_split_1
I0403 19:53:34.152926  9801 net.cpp:399] loss2/classifier_plantvillage_loss2/classifier_plantvillage_0_split -> loss2/classifier_plantvillage_loss2/classifier_plantvillage_0_split_2
I0403 19:53:34.153002  9801 net.cpp:141] Setting up loss2/classifier_plantvillage_loss2/classifier_plantvillage_0_split
I0403 19:53:34.153025  9801 net.cpp:148] Top shape: 24 38 (912)
I0403 19:53:34.153043  9801 net.cpp:148] Top shape: 24 38 (912)
I0403 19:53:34.153059  9801 net.cpp:148] Top shape: 24 38 (912)
I0403 19:53:34.153074  9801 net.cpp:156] Memory required for data: 1208432160
I0403 19:53:34.153087  9801 layer_factory.hpp:77] Creating layer inception_4e/1x1
I0403 19:53:34.153110  9801 net.cpp:91] Creating Layer inception_4e/1x1
I0403 19:53:34.153126  9801 net.cpp:425] inception_4e/1x1 <- inception_4d/output_inception_4d/output_0_split_1
I0403 19:53:34.153147  9801 net.cpp:399] inception_4e/1x1 -> inception_4e/1x1
I0403 19:53:34.154968  9801 net.cpp:141] Setting up inception_4e/1x1
I0403 19:53:34.154999  9801 net.cpp:148] Top shape: 24 256 14 14 (1204224)
I0403 19:53:34.155014  9801 net.cpp:156] Memory required for data: 1213249056
I0403 19:53:34.155033  9801 layer_factory.hpp:77] Creating layer inception_4e/relu_1x1
I0403 19:53:34.155051  9801 net.cpp:91] Creating Layer inception_4e/relu_1x1
I0403 19:53:34.155067  9801 net.cpp:425] inception_4e/relu_1x1 <- inception_4e/1x1
I0403 19:53:34.155087  9801 net.cpp:386] inception_4e/relu_1x1 -> inception_4e/1x1 (in-place)
I0403 19:53:34.155382  9801 net.cpp:141] Setting up inception_4e/relu_1x1
I0403 19:53:34.155411  9801 net.cpp:148] Top shape: 24 256 14 14 (1204224)
I0403 19:53:34.155426  9801 net.cpp:156] Memory required for data: 1218065952
I0403 19:53:34.155441  9801 layer_factory.hpp:77] Creating layer inception_4e/3x3_reduce
I0403 19:53:34.155463  9801 net.cpp:91] Creating Layer inception_4e/3x3_reduce
I0403 19:53:34.155481  9801 net.cpp:425] inception_4e/3x3_reduce <- inception_4d/output_inception_4d/output_0_split_2
I0403 19:53:34.155500  9801 net.cpp:399] inception_4e/3x3_reduce -> inception_4e/3x3_reduce
I0403 19:53:34.157593  9801 net.cpp:141] Setting up inception_4e/3x3_reduce
I0403 19:53:34.157620  9801 net.cpp:148] Top shape: 24 160 14 14 (752640)
I0403 19:53:34.157635  9801 net.cpp:156] Memory required for data: 1221076512
I0403 19:53:34.157654  9801 layer_factory.hpp:77] Creating layer inception_4e/relu_3x3_reduce
I0403 19:53:34.157675  9801 net.cpp:91] Creating Layer inception_4e/relu_3x3_reduce
I0403 19:53:34.157691  9801 net.cpp:425] inception_4e/relu_3x3_reduce <- inception_4e/3x3_reduce
I0403 19:53:34.157708  9801 net.cpp:386] inception_4e/relu_3x3_reduce -> inception_4e/3x3_reduce (in-place)
I0403 19:53:34.157891  9801 net.cpp:141] Setting up inception_4e/relu_3x3_reduce
I0403 19:53:34.157917  9801 net.cpp:148] Top shape: 24 160 14 14 (752640)
I0403 19:53:34.157932  9801 net.cpp:156] Memory required for data: 1224087072
I0403 19:53:34.157948  9801 layer_factory.hpp:77] Creating layer inception_4e/3x3
I0403 19:53:34.157969  9801 net.cpp:91] Creating Layer inception_4e/3x3
I0403 19:53:34.157986  9801 net.cpp:425] inception_4e/3x3 <- inception_4e/3x3_reduce
I0403 19:53:34.158005  9801 net.cpp:399] inception_4e/3x3 -> inception_4e/3x3
I0403 19:53:34.162905  9801 net.cpp:141] Setting up inception_4e/3x3
I0403 19:53:34.162947  9801 net.cpp:148] Top shape: 24 320 14 14 (1505280)
I0403 19:53:34.162963  9801 net.cpp:156] Memory required for data: 1230108192
I0403 19:53:34.162981  9801 layer_factory.hpp:77] Creating layer inception_4e/relu_3x3
I0403 19:53:34.162999  9801 net.cpp:91] Creating Layer inception_4e/relu_3x3
I0403 19:53:34.163017  9801 net.cpp:425] inception_4e/relu_3x3 <- inception_4e/3x3
I0403 19:53:34.163035  9801 net.cpp:386] inception_4e/relu_3x3 -> inception_4e/3x3 (in-place)
I0403 19:53:34.163346  9801 net.cpp:141] Setting up inception_4e/relu_3x3
I0403 19:53:34.163370  9801 net.cpp:148] Top shape: 24 320 14 14 (1505280)
I0403 19:53:34.163385  9801 net.cpp:156] Memory required for data: 1236129312
I0403 19:53:34.163400  9801 layer_factory.hpp:77] Creating layer inception_4e/5x5_reduce
I0403 19:53:34.163424  9801 net.cpp:91] Creating Layer inception_4e/5x5_reduce
I0403 19:53:34.163441  9801 net.cpp:425] inception_4e/5x5_reduce <- inception_4d/output_inception_4d/output_0_split_3
I0403 19:53:34.163463  9801 net.cpp:399] inception_4e/5x5_reduce -> inception_4e/5x5_reduce
I0403 19:53:34.164541  9801 net.cpp:141] Setting up inception_4e/5x5_reduce
I0403 19:53:34.164580  9801 net.cpp:148] Top shape: 24 32 14 14 (150528)
I0403 19:53:34.164595  9801 net.cpp:156] Memory required for data: 1236731424
I0403 19:53:34.164613  9801 layer_factory.hpp:77] Creating layer inception_4e/relu_5x5_reduce
I0403 19:53:34.164633  9801 net.cpp:91] Creating Layer inception_4e/relu_5x5_reduce
I0403 19:53:34.164649  9801 net.cpp:425] inception_4e/relu_5x5_reduce <- inception_4e/5x5_reduce
I0403 19:53:34.164666  9801 net.cpp:386] inception_4e/relu_5x5_reduce -> inception_4e/5x5_reduce (in-place)
I0403 19:53:34.164961  9801 net.cpp:141] Setting up inception_4e/relu_5x5_reduce
I0403 19:53:34.164986  9801 net.cpp:148] Top shape: 24 32 14 14 (150528)
I0403 19:53:34.165001  9801 net.cpp:156] Memory required for data: 1237333536
I0403 19:53:34.165015  9801 layer_factory.hpp:77] Creating layer inception_4e/5x5
I0403 19:53:34.165055  9801 net.cpp:91] Creating Layer inception_4e/5x5
I0403 19:53:34.165072  9801 net.cpp:425] inception_4e/5x5 <- inception_4e/5x5_reduce
I0403 19:53:34.165091  9801 net.cpp:399] inception_4e/5x5 -> inception_4e/5x5
I0403 19:53:34.166895  9801 net.cpp:141] Setting up inception_4e/5x5
I0403 19:53:34.166923  9801 net.cpp:148] Top shape: 24 128 14 14 (602112)
I0403 19:53:34.166939  9801 net.cpp:156] Memory required for data: 1239741984
I0403 19:53:34.166957  9801 layer_factory.hpp:77] Creating layer inception_4e/relu_5x5
I0403 19:53:34.166977  9801 net.cpp:91] Creating Layer inception_4e/relu_5x5
I0403 19:53:34.166995  9801 net.cpp:425] inception_4e/relu_5x5 <- inception_4e/5x5
I0403 19:53:34.167011  9801 net.cpp:386] inception_4e/relu_5x5 -> inception_4e/5x5 (in-place)
I0403 19:53:34.167203  9801 net.cpp:141] Setting up inception_4e/relu_5x5
I0403 19:53:34.167229  9801 net.cpp:148] Top shape: 24 128 14 14 (602112)
I0403 19:53:34.167245  9801 net.cpp:156] Memory required for data: 1242150432
I0403 19:53:34.167259  9801 layer_factory.hpp:77] Creating layer inception_4e/pool
I0403 19:53:34.167282  9801 net.cpp:91] Creating Layer inception_4e/pool
I0403 19:53:34.167299  9801 net.cpp:425] inception_4e/pool <- inception_4d/output_inception_4d/output_0_split_4
I0403 19:53:34.167317  9801 net.cpp:399] inception_4e/pool -> inception_4e/pool
I0403 19:53:34.167387  9801 net.cpp:141] Setting up inception_4e/pool
I0403 19:53:34.167410  9801 net.cpp:148] Top shape: 24 528 14 14 (2483712)
I0403 19:53:34.167425  9801 net.cpp:156] Memory required for data: 1252085280
I0403 19:53:34.167439  9801 layer_factory.hpp:77] Creating layer inception_4e/pool_proj
I0403 19:53:34.167461  9801 net.cpp:91] Creating Layer inception_4e/pool_proj
I0403 19:53:34.167479  9801 net.cpp:425] inception_4e/pool_proj <- inception_4e/pool
I0403 19:53:34.167500  9801 net.cpp:399] inception_4e/pool_proj -> inception_4e/pool_proj
I0403 19:53:34.168967  9801 net.cpp:141] Setting up inception_4e/pool_proj
I0403 19:53:34.168994  9801 net.cpp:148] Top shape: 24 128 14 14 (602112)
I0403 19:53:34.169023  9801 net.cpp:156] Memory required for data: 1254493728
I0403 19:53:34.169041  9801 layer_factory.hpp:77] Creating layer inception_4e/relu_pool_proj
I0403 19:53:34.169062  9801 net.cpp:91] Creating Layer inception_4e/relu_pool_proj
I0403 19:53:34.169080  9801 net.cpp:425] inception_4e/relu_pool_proj <- inception_4e/pool_proj
I0403 19:53:34.169097  9801 net.cpp:386] inception_4e/relu_pool_proj -> inception_4e/pool_proj (in-place)
I0403 19:53:34.169389  9801 net.cpp:141] Setting up inception_4e/relu_pool_proj
I0403 19:53:34.169415  9801 net.cpp:148] Top shape: 24 128 14 14 (602112)
I0403 19:53:34.169432  9801 net.cpp:156] Memory required for data: 1256902176
I0403 19:53:34.169447  9801 layer_factory.hpp:77] Creating layer inception_4e/output
I0403 19:53:34.169466  9801 net.cpp:91] Creating Layer inception_4e/output
I0403 19:53:34.169481  9801 net.cpp:425] inception_4e/output <- inception_4e/1x1
I0403 19:53:34.169497  9801 net.cpp:425] inception_4e/output <- inception_4e/3x3
I0403 19:53:34.169512  9801 net.cpp:425] inception_4e/output <- inception_4e/5x5
I0403 19:53:34.169528  9801 net.cpp:425] inception_4e/output <- inception_4e/pool_proj
I0403 19:53:34.169548  9801 net.cpp:399] inception_4e/output -> inception_4e/output
I0403 19:53:34.169596  9801 net.cpp:141] Setting up inception_4e/output
I0403 19:53:34.169622  9801 net.cpp:148] Top shape: 24 832 14 14 (3913728)
I0403 19:53:34.169636  9801 net.cpp:156] Memory required for data: 1272557088
I0403 19:53:34.169651  9801 layer_factory.hpp:77] Creating layer pool4/3x3_s2
I0403 19:53:34.169668  9801 net.cpp:91] Creating Layer pool4/3x3_s2
I0403 19:53:34.169683  9801 net.cpp:425] pool4/3x3_s2 <- inception_4e/output
I0403 19:53:34.169704  9801 net.cpp:399] pool4/3x3_s2 -> pool4/3x3_s2
I0403 19:53:34.169771  9801 net.cpp:141] Setting up pool4/3x3_s2
I0403 19:53:34.169795  9801 net.cpp:148] Top shape: 24 832 7 7 (978432)
I0403 19:53:34.169808  9801 net.cpp:156] Memory required for data: 1276470816
I0403 19:53:34.169822  9801 layer_factory.hpp:77] Creating layer pool4/3x3_s2_pool4/3x3_s2_0_split
I0403 19:53:34.169842  9801 net.cpp:91] Creating Layer pool4/3x3_s2_pool4/3x3_s2_0_split
I0403 19:53:34.169858  9801 net.cpp:425] pool4/3x3_s2_pool4/3x3_s2_0_split <- pool4/3x3_s2
I0403 19:53:34.169877  9801 net.cpp:399] pool4/3x3_s2_pool4/3x3_s2_0_split -> pool4/3x3_s2_pool4/3x3_s2_0_split_0
I0403 19:53:34.169895  9801 net.cpp:399] pool4/3x3_s2_pool4/3x3_s2_0_split -> pool4/3x3_s2_pool4/3x3_s2_0_split_1
I0403 19:53:34.169917  9801 net.cpp:399] pool4/3x3_s2_pool4/3x3_s2_0_split -> pool4/3x3_s2_pool4/3x3_s2_0_split_2
I0403 19:53:34.169937  9801 net.cpp:399] pool4/3x3_s2_pool4/3x3_s2_0_split -> pool4/3x3_s2_pool4/3x3_s2_0_split_3
I0403 19:53:34.170025  9801 net.cpp:141] Setting up pool4/3x3_s2_pool4/3x3_s2_0_split
I0403 19:53:34.170047  9801 net.cpp:148] Top shape: 24 832 7 7 (978432)
I0403 19:53:34.170063  9801 net.cpp:148] Top shape: 24 832 7 7 (978432)
I0403 19:53:34.170081  9801 net.cpp:148] Top shape: 24 832 7 7 (978432)
I0403 19:53:34.170100  9801 net.cpp:148] Top shape: 24 832 7 7 (978432)
I0403 19:53:34.170115  9801 net.cpp:156] Memory required for data: 1292125728
I0403 19:53:34.170130  9801 layer_factory.hpp:77] Creating layer inception_5a/1x1
I0403 19:53:34.170151  9801 net.cpp:91] Creating Layer inception_5a/1x1
I0403 19:53:34.170169  9801 net.cpp:425] inception_5a/1x1 <- pool4/3x3_s2_pool4/3x3_s2_0_split_0
I0403 19:53:34.170189  9801 net.cpp:399] inception_5a/1x1 -> inception_5a/1x1
I0403 19:53:34.173079  9801 net.cpp:141] Setting up inception_5a/1x1
I0403 19:53:34.173110  9801 net.cpp:148] Top shape: 24 256 7 7 (301056)
I0403 19:53:34.173126  9801 net.cpp:156] Memory required for data: 1293329952
I0403 19:53:34.173144  9801 layer_factory.hpp:77] Creating layer inception_5a/relu_1x1
I0403 19:53:34.173166  9801 net.cpp:91] Creating Layer inception_5a/relu_1x1
I0403 19:53:34.173183  9801 net.cpp:425] inception_5a/relu_1x1 <- inception_5a/1x1
I0403 19:53:34.173202  9801 net.cpp:386] inception_5a/relu_1x1 -> inception_5a/1x1 (in-place)
I0403 19:53:34.173528  9801 net.cpp:141] Setting up inception_5a/relu_1x1
I0403 19:53:34.173555  9801 net.cpp:148] Top shape: 24 256 7 7 (301056)
I0403 19:53:34.173570  9801 net.cpp:156] Memory required for data: 1294534176
I0403 19:53:34.173586  9801 layer_factory.hpp:77] Creating layer inception_5a/3x3_reduce
I0403 19:53:34.173611  9801 net.cpp:91] Creating Layer inception_5a/3x3_reduce
I0403 19:53:34.173629  9801 net.cpp:425] inception_5a/3x3_reduce <- pool4/3x3_s2_pool4/3x3_s2_0_split_1
I0403 19:53:34.173651  9801 net.cpp:399] inception_5a/3x3_reduce -> inception_5a/3x3_reduce
I0403 19:53:34.176127  9801 net.cpp:141] Setting up inception_5a/3x3_reduce
I0403 19:53:34.176156  9801 net.cpp:148] Top shape: 24 160 7 7 (188160)
I0403 19:53:34.176172  9801 net.cpp:156] Memory required for data: 1295286816
I0403 19:53:34.176192  9801 layer_factory.hpp:77] Creating layer inception_5a/relu_3x3_reduce
I0403 19:53:34.176209  9801 net.cpp:91] Creating Layer inception_5a/relu_3x3_reduce
I0403 19:53:34.176225  9801 net.cpp:425] inception_5a/relu_3x3_reduce <- inception_5a/3x3_reduce
I0403 19:53:34.176245  9801 net.cpp:386] inception_5a/relu_3x3_reduce -> inception_5a/3x3_reduce (in-place)
I0403 19:53:34.176440  9801 net.cpp:141] Setting up inception_5a/relu_3x3_reduce
I0403 19:53:34.176465  9801 net.cpp:148] Top shape: 24 160 7 7 (188160)
I0403 19:53:34.176479  9801 net.cpp:156] Memory required for data: 1296039456
I0403 19:53:34.176496  9801 layer_factory.hpp:77] Creating layer inception_5a/3x3
I0403 19:53:34.176518  9801 net.cpp:91] Creating Layer inception_5a/3x3
I0403 19:53:34.176535  9801 net.cpp:425] inception_5a/3x3 <- inception_5a/3x3_reduce
I0403 19:53:34.176558  9801 net.cpp:399] inception_5a/3x3 -> inception_5a/3x3
I0403 19:53:34.181617  9801 net.cpp:141] Setting up inception_5a/3x3
I0403 19:53:34.181648  9801 net.cpp:148] Top shape: 24 320 7 7 (376320)
I0403 19:53:34.181663  9801 net.cpp:156] Memory required for data: 1297544736
I0403 19:53:34.181681  9801 layer_factory.hpp:77] Creating layer inception_5a/relu_3x3
I0403 19:53:34.181701  9801 net.cpp:91] Creating Layer inception_5a/relu_3x3
I0403 19:53:34.181718  9801 net.cpp:425] inception_5a/relu_3x3 <- inception_5a/3x3
I0403 19:53:34.181736  9801 net.cpp:386] inception_5a/relu_3x3 -> inception_5a/3x3 (in-place)
I0403 19:53:34.182035  9801 net.cpp:141] Setting up inception_5a/relu_3x3
I0403 19:53:34.182062  9801 net.cpp:148] Top shape: 24 320 7 7 (376320)
I0403 19:53:34.182077  9801 net.cpp:156] Memory required for data: 1299050016
I0403 19:53:34.182092  9801 layer_factory.hpp:77] Creating layer inception_5a/5x5_reduce
I0403 19:53:34.182116  9801 net.cpp:91] Creating Layer inception_5a/5x5_reduce
I0403 19:53:34.182134  9801 net.cpp:425] inception_5a/5x5_reduce <- pool4/3x3_s2_pool4/3x3_s2_0_split_2
I0403 19:53:34.182157  9801 net.cpp:399] inception_5a/5x5_reduce -> inception_5a/5x5_reduce
I0403 19:53:34.183362  9801 net.cpp:141] Setting up inception_5a/5x5_reduce
I0403 19:53:34.183393  9801 net.cpp:148] Top shape: 24 32 7 7 (37632)
I0403 19:53:34.183409  9801 net.cpp:156] Memory required for data: 1299200544
I0403 19:53:34.183429  9801 layer_factory.hpp:77] Creating layer inception_5a/relu_5x5_reduce
I0403 19:53:34.183447  9801 net.cpp:91] Creating Layer inception_5a/relu_5x5_reduce
I0403 19:53:34.183464  9801 net.cpp:425] inception_5a/relu_5x5_reduce <- inception_5a/5x5_reduce
I0403 19:53:34.183481  9801 net.cpp:386] inception_5a/relu_5x5_reduce -> inception_5a/5x5_reduce (in-place)
I0403 19:53:34.183785  9801 net.cpp:141] Setting up inception_5a/relu_5x5_reduce
I0403 19:53:34.183815  9801 net.cpp:148] Top shape: 24 32 7 7 (37632)
I0403 19:53:34.183831  9801 net.cpp:156] Memory required for data: 1299351072
I0403 19:53:34.183847  9801 layer_factory.hpp:77] Creating layer inception_5a/5x5
I0403 19:53:34.183869  9801 net.cpp:91] Creating Layer inception_5a/5x5
I0403 19:53:34.183887  9801 net.cpp:425] inception_5a/5x5 <- inception_5a/5x5_reduce
I0403 19:53:34.183907  9801 net.cpp:399] inception_5a/5x5 -> inception_5a/5x5
I0403 19:53:34.185740  9801 net.cpp:141] Setting up inception_5a/5x5
I0403 19:53:34.185782  9801 net.cpp:148] Top shape: 24 128 7 7 (150528)
I0403 19:53:34.185799  9801 net.cpp:156] Memory required for data: 1299953184
I0403 19:53:34.185818  9801 layer_factory.hpp:77] Creating layer inception_5a/relu_5x5
I0403 19:53:34.185839  9801 net.cpp:91] Creating Layer inception_5a/relu_5x5
I0403 19:53:34.185858  9801 net.cpp:425] inception_5a/relu_5x5 <- inception_5a/5x5
I0403 19:53:34.185874  9801 net.cpp:386] inception_5a/relu_5x5 -> inception_5a/5x5 (in-place)
I0403 19:53:34.186072  9801 net.cpp:141] Setting up inception_5a/relu_5x5
I0403 19:53:34.186100  9801 net.cpp:148] Top shape: 24 128 7 7 (150528)
I0403 19:53:34.186116  9801 net.cpp:156] Memory required for data: 1300555296
I0403 19:53:34.186131  9801 layer_factory.hpp:77] Creating layer inception_5a/pool
I0403 19:53:34.186151  9801 net.cpp:91] Creating Layer inception_5a/pool
I0403 19:53:34.186167  9801 net.cpp:425] inception_5a/pool <- pool4/3x3_s2_pool4/3x3_s2_0_split_3
I0403 19:53:34.186188  9801 net.cpp:399] inception_5a/pool -> inception_5a/pool
I0403 19:53:34.186264  9801 net.cpp:141] Setting up inception_5a/pool
I0403 19:53:34.186292  9801 net.cpp:148] Top shape: 24 832 7 7 (978432)
I0403 19:53:34.186308  9801 net.cpp:156] Memory required for data: 1304469024
I0403 19:53:34.186324  9801 layer_factory.hpp:77] Creating layer inception_5a/pool_proj
I0403 19:53:34.186347  9801 net.cpp:91] Creating Layer inception_5a/pool_proj
I0403 19:53:34.186365  9801 net.cpp:425] inception_5a/pool_proj <- inception_5a/pool
I0403 19:53:34.186386  9801 net.cpp:399] inception_5a/pool_proj -> inception_5a/pool_proj
I0403 19:53:34.188786  9801 net.cpp:141] Setting up inception_5a/pool_proj
I0403 19:53:34.188817  9801 net.cpp:148] Top shape: 24 128 7 7 (150528)
I0403 19:53:34.188833  9801 net.cpp:156] Memory required for data: 1305071136
I0403 19:53:34.188853  9801 layer_factory.hpp:77] Creating layer inception_5a/relu_pool_proj
I0403 19:53:34.188874  9801 net.cpp:91] Creating Layer inception_5a/relu_pool_proj
I0403 19:53:34.188892  9801 net.cpp:425] inception_5a/relu_pool_proj <- inception_5a/pool_proj
I0403 19:53:34.188910  9801 net.cpp:386] inception_5a/relu_pool_proj -> inception_5a/pool_proj (in-place)
I0403 19:53:34.189215  9801 net.cpp:141] Setting up inception_5a/relu_pool_proj
I0403 19:53:34.189244  9801 net.cpp:148] Top shape: 24 128 7 7 (150528)
I0403 19:53:34.189259  9801 net.cpp:156] Memory required for data: 1305673248
I0403 19:53:34.189277  9801 layer_factory.hpp:77] Creating layer inception_5a/output
I0403 19:53:34.189298  9801 net.cpp:91] Creating Layer inception_5a/output
I0403 19:53:34.189316  9801 net.cpp:425] inception_5a/output <- inception_5a/1x1
I0403 19:53:34.189332  9801 net.cpp:425] inception_5a/output <- inception_5a/3x3
I0403 19:53:34.189353  9801 net.cpp:425] inception_5a/output <- inception_5a/5x5
I0403 19:53:34.189370  9801 net.cpp:425] inception_5a/output <- inception_5a/pool_proj
I0403 19:53:34.189388  9801 net.cpp:399] inception_5a/output -> inception_5a/output
I0403 19:53:34.189440  9801 net.cpp:141] Setting up inception_5a/output
I0403 19:53:34.189466  9801 net.cpp:148] Top shape: 24 832 7 7 (978432)
I0403 19:53:34.189483  9801 net.cpp:156] Memory required for data: 1309586976
I0403 19:53:34.189498  9801 layer_factory.hpp:77] Creating layer inception_5a/output_inception_5a/output_0_split
I0403 19:53:34.189518  9801 net.cpp:91] Creating Layer inception_5a/output_inception_5a/output_0_split
I0403 19:53:34.189535  9801 net.cpp:425] inception_5a/output_inception_5a/output_0_split <- inception_5a/output
I0403 19:53:34.189558  9801 net.cpp:399] inception_5a/output_inception_5a/output_0_split -> inception_5a/output_inception_5a/output_0_split_0
I0403 19:53:34.189579  9801 net.cpp:399] inception_5a/output_inception_5a/output_0_split -> inception_5a/output_inception_5a/output_0_split_1
I0403 19:53:34.189601  9801 net.cpp:399] inception_5a/output_inception_5a/output_0_split -> inception_5a/output_inception_5a/output_0_split_2
I0403 19:53:34.189623  9801 net.cpp:399] inception_5a/output_inception_5a/output_0_split -> inception_5a/output_inception_5a/output_0_split_3
I0403 19:53:34.189738  9801 net.cpp:141] Setting up inception_5a/output_inception_5a/output_0_split
I0403 19:53:34.189764  9801 net.cpp:148] Top shape: 24 832 7 7 (978432)
I0403 19:53:34.189782  9801 net.cpp:148] Top shape: 24 832 7 7 (978432)
I0403 19:53:34.189800  9801 net.cpp:148] Top shape: 24 832 7 7 (978432)
I0403 19:53:34.189815  9801 net.cpp:148] Top shape: 24 832 7 7 (978432)
I0403 19:53:34.189831  9801 net.cpp:156] Memory required for data: 1325241888
I0403 19:53:34.189846  9801 layer_factory.hpp:77] Creating layer inception_5b/1x1
I0403 19:53:34.189867  9801 net.cpp:91] Creating Layer inception_5b/1x1
I0403 19:53:34.189884  9801 net.cpp:425] inception_5b/1x1 <- inception_5a/output_inception_5a/output_0_split_0
I0403 19:53:34.189906  9801 net.cpp:399] inception_5b/1x1 -> inception_5b/1x1
I0403 19:53:34.193828  9801 net.cpp:141] Setting up inception_5b/1x1
I0403 19:53:34.193859  9801 net.cpp:148] Top shape: 24 384 7 7 (451584)
I0403 19:53:34.193876  9801 net.cpp:156] Memory required for data: 1327048224
I0403 19:53:34.193894  9801 layer_factory.hpp:77] Creating layer inception_5b/relu_1x1
I0403 19:53:34.193913  9801 net.cpp:91] Creating Layer inception_5b/relu_1x1
I0403 19:53:34.193930  9801 net.cpp:425] inception_5b/relu_1x1 <- inception_5b/1x1
I0403 19:53:34.193951  9801 net.cpp:386] inception_5b/relu_1x1 -> inception_5b/1x1 (in-place)
I0403 19:53:34.194279  9801 net.cpp:141] Setting up inception_5b/relu_1x1
I0403 19:53:34.194308  9801 net.cpp:148] Top shape: 24 384 7 7 (451584)
I0403 19:53:34.194322  9801 net.cpp:156] Memory required for data: 1328854560
I0403 19:53:34.194339  9801 layer_factory.hpp:77] Creating layer inception_5b/3x3_reduce
I0403 19:53:34.194361  9801 net.cpp:91] Creating Layer inception_5b/3x3_reduce
I0403 19:53:34.194380  9801 net.cpp:425] inception_5b/3x3_reduce <- inception_5a/output_inception_5a/output_0_split_1
I0403 19:53:34.194404  9801 net.cpp:399] inception_5b/3x3_reduce -> inception_5b/3x3_reduce
I0403 19:53:34.197196  9801 net.cpp:141] Setting up inception_5b/3x3_reduce
I0403 19:53:34.197227  9801 net.cpp:148] Top shape: 24 192 7 7 (225792)
I0403 19:53:34.197243  9801 net.cpp:156] Memory required for data: 1329757728
I0403 19:53:34.197263  9801 layer_factory.hpp:77] Creating layer inception_5b/relu_3x3_reduce
I0403 19:53:34.197288  9801 net.cpp:91] Creating Layer inception_5b/relu_3x3_reduce
I0403 19:53:34.197307  9801 net.cpp:425] inception_5b/relu_3x3_reduce <- inception_5b/3x3_reduce
I0403 19:53:34.197326  9801 net.cpp:386] inception_5b/relu_3x3_reduce -> inception_5b/3x3_reduce (in-place)
I0403 19:53:34.197523  9801 net.cpp:141] Setting up inception_5b/relu_3x3_reduce
I0403 19:53:34.197549  9801 net.cpp:148] Top shape: 24 192 7 7 (225792)
I0403 19:53:34.197564  9801 net.cpp:156] Memory required for data: 1330660896
I0403 19:53:34.197579  9801 layer_factory.hpp:77] Creating layer inception_5b/3x3
I0403 19:53:34.197602  9801 net.cpp:91] Creating Layer inception_5b/3x3
I0403 19:53:34.197623  9801 net.cpp:425] inception_5b/3x3 <- inception_5b/3x3_reduce
I0403 19:53:34.197643  9801 net.cpp:399] inception_5b/3x3 -> inception_5b/3x3
I0403 19:53:34.204607  9801 net.cpp:141] Setting up inception_5b/3x3
I0403 19:53:34.204637  9801 net.cpp:148] Top shape: 24 384 7 7 (451584)
I0403 19:53:34.204653  9801 net.cpp:156] Memory required for data: 1332467232
I0403 19:53:34.204671  9801 layer_factory.hpp:77] Creating layer inception_5b/relu_3x3
I0403 19:53:34.204692  9801 net.cpp:91] Creating Layer inception_5b/relu_3x3
I0403 19:53:34.204710  9801 net.cpp:425] inception_5b/relu_3x3 <- inception_5b/3x3
I0403 19:53:34.204728  9801 net.cpp:386] inception_5b/relu_3x3 -> inception_5b/3x3 (in-place)
I0403 19:53:34.205030  9801 net.cpp:141] Setting up inception_5b/relu_3x3
I0403 19:53:34.205057  9801 net.cpp:148] Top shape: 24 384 7 7 (451584)
I0403 19:53:34.205072  9801 net.cpp:156] Memory required for data: 1334273568
I0403 19:53:34.205088  9801 layer_factory.hpp:77] Creating layer inception_5b/5x5_reduce
I0403 19:53:34.205128  9801 net.cpp:91] Creating Layer inception_5b/5x5_reduce
I0403 19:53:34.205147  9801 net.cpp:425] inception_5b/5x5_reduce <- inception_5a/output_inception_5a/output_0_split_2
I0403 19:53:34.205170  9801 net.cpp:399] inception_5b/5x5_reduce -> inception_5b/5x5_reduce
I0403 19:53:34.206476  9801 net.cpp:141] Setting up inception_5b/5x5_reduce
I0403 19:53:34.206504  9801 net.cpp:148] Top shape: 24 48 7 7 (56448)
I0403 19:53:34.206521  9801 net.cpp:156] Memory required for data: 1334499360
I0403 19:53:34.206538  9801 layer_factory.hpp:77] Creating layer inception_5b/relu_5x5_reduce
I0403 19:53:34.206559  9801 net.cpp:91] Creating Layer inception_5b/relu_5x5_reduce
I0403 19:53:34.206578  9801 net.cpp:425] inception_5b/relu_5x5_reduce <- inception_5b/5x5_reduce
I0403 19:53:34.206595  9801 net.cpp:386] inception_5b/relu_5x5_reduce -> inception_5b/5x5_reduce (in-place)
I0403 19:53:34.206976  9801 net.cpp:141] Setting up inception_5b/relu_5x5_reduce
I0403 19:53:34.207003  9801 net.cpp:148] Top shape: 24 48 7 7 (56448)
I0403 19:53:34.207018  9801 net.cpp:156] Memory required for data: 1334725152
I0403 19:53:34.207034  9801 layer_factory.hpp:77] Creating layer inception_5b/5x5
I0403 19:53:34.207056  9801 net.cpp:91] Creating Layer inception_5b/5x5
I0403 19:53:34.207072  9801 net.cpp:425] inception_5b/5x5 <- inception_5b/5x5_reduce
I0403 19:53:34.207092  9801 net.cpp:399] inception_5b/5x5 -> inception_5b/5x5
I0403 19:53:34.209233  9801 net.cpp:141] Setting up inception_5b/5x5
I0403 19:53:34.209261  9801 net.cpp:148] Top shape: 24 128 7 7 (150528)
I0403 19:53:34.209282  9801 net.cpp:156] Memory required for data: 1335327264
I0403 19:53:34.209302  9801 layer_factory.hpp:77] Creating layer inception_5b/relu_5x5
I0403 19:53:34.209323  9801 net.cpp:91] Creating Layer inception_5b/relu_5x5
I0403 19:53:34.209342  9801 net.cpp:425] inception_5b/relu_5x5 <- inception_5b/5x5
I0403 19:53:34.209358  9801 net.cpp:386] inception_5b/relu_5x5 -> inception_5b/5x5 (in-place)
I0403 19:53:34.209558  9801 net.cpp:141] Setting up inception_5b/relu_5x5
I0403 19:53:34.209585  9801 net.cpp:148] Top shape: 24 128 7 7 (150528)
I0403 19:53:34.209601  9801 net.cpp:156] Memory required for data: 1335929376
I0403 19:53:34.209616  9801 layer_factory.hpp:77] Creating layer inception_5b/pool
I0403 19:53:34.209635  9801 net.cpp:91] Creating Layer inception_5b/pool
I0403 19:53:34.209651  9801 net.cpp:425] inception_5b/pool <- inception_5a/output_inception_5a/output_0_split_3
I0403 19:53:34.209671  9801 net.cpp:399] inception_5b/pool -> inception_5b/pool
I0403 19:53:34.209745  9801 net.cpp:141] Setting up inception_5b/pool
I0403 19:53:34.209769  9801 net.cpp:148] Top shape: 24 832 7 7 (978432)
I0403 19:53:34.209784  9801 net.cpp:156] Memory required for data: 1339843104
I0403 19:53:34.209800  9801 layer_factory.hpp:77] Creating layer inception_5b/pool_proj
I0403 19:53:34.209822  9801 net.cpp:91] Creating Layer inception_5b/pool_proj
I0403 19:53:34.209841  9801 net.cpp:425] inception_5b/pool_proj <- inception_5b/pool
I0403 19:53:34.209861  9801 net.cpp:399] inception_5b/pool_proj -> inception_5b/pool_proj
I0403 19:53:34.212188  9801 net.cpp:141] Setting up inception_5b/pool_proj
I0403 19:53:34.212216  9801 net.cpp:148] Top shape: 24 128 7 7 (150528)
I0403 19:53:34.212232  9801 net.cpp:156] Memory required for data: 1340445216
I0403 19:53:34.212251  9801 layer_factory.hpp:77] Creating layer inception_5b/relu_pool_proj
I0403 19:53:34.212294  9801 net.cpp:91] Creating Layer inception_5b/relu_pool_proj
I0403 19:53:34.212316  9801 net.cpp:425] inception_5b/relu_pool_proj <- inception_5b/pool_proj
I0403 19:53:34.212335  9801 net.cpp:386] inception_5b/relu_pool_proj -> inception_5b/pool_proj (in-place)
I0403 19:53:34.212654  9801 net.cpp:141] Setting up inception_5b/relu_pool_proj
I0403 19:53:34.212682  9801 net.cpp:148] Top shape: 24 128 7 7 (150528)
I0403 19:53:34.212697  9801 net.cpp:156] Memory required for data: 1341047328
I0403 19:53:34.212712  9801 layer_factory.hpp:77] Creating layer inception_5b/output
I0403 19:53:34.212729  9801 net.cpp:91] Creating Layer inception_5b/output
I0403 19:53:34.212760  9801 net.cpp:425] inception_5b/output <- inception_5b/1x1
I0403 19:53:34.212779  9801 net.cpp:425] inception_5b/output <- inception_5b/3x3
I0403 19:53:34.212795  9801 net.cpp:425] inception_5b/output <- inception_5b/5x5
I0403 19:53:34.212811  9801 net.cpp:425] inception_5b/output <- inception_5b/pool_proj
I0403 19:53:34.212831  9801 net.cpp:399] inception_5b/output -> inception_5b/output
I0403 19:53:34.212888  9801 net.cpp:141] Setting up inception_5b/output
I0403 19:53:34.212910  9801 net.cpp:148] Top shape: 24 1024 7 7 (1204224)
I0403 19:53:34.212926  9801 net.cpp:156] Memory required for data: 1345864224
I0403 19:53:34.212941  9801 layer_factory.hpp:77] Creating layer pool5/7x7_s1
I0403 19:53:34.212959  9801 net.cpp:91] Creating Layer pool5/7x7_s1
I0403 19:53:34.212975  9801 net.cpp:425] pool5/7x7_s1 <- inception_5b/output
I0403 19:53:34.212996  9801 net.cpp:399] pool5/7x7_s1 -> pool5/7x7_s1
I0403 19:53:34.213213  9801 net.cpp:141] Setting up pool5/7x7_s1
I0403 19:53:34.213239  9801 net.cpp:148] Top shape: 24 1024 1 1 (24576)
I0403 19:53:34.213254  9801 net.cpp:156] Memory required for data: 1345962528
I0403 19:53:34.213269  9801 layer_factory.hpp:77] Creating layer pool5/drop_7x7_s1
I0403 19:53:34.213294  9801 net.cpp:91] Creating Layer pool5/drop_7x7_s1
I0403 19:53:34.213312  9801 net.cpp:425] pool5/drop_7x7_s1 <- pool5/7x7_s1
I0403 19:53:34.213330  9801 net.cpp:386] pool5/drop_7x7_s1 -> pool5/7x7_s1 (in-place)
I0403 19:53:34.213382  9801 net.cpp:141] Setting up pool5/drop_7x7_s1
I0403 19:53:34.213405  9801 net.cpp:148] Top shape: 24 1024 1 1 (24576)
I0403 19:53:34.213420  9801 net.cpp:156] Memory required for data: 1346060832
I0403 19:53:34.213434  9801 layer_factory.hpp:77] Creating layer loss3/classifier_plantvillage
I0403 19:53:34.213454  9801 net.cpp:91] Creating Layer loss3/classifier_plantvillage
I0403 19:53:34.213470  9801 net.cpp:425] loss3/classifier_plantvillage <- pool5/7x7_s1
I0403 19:53:34.213491  9801 net.cpp:399] loss3/classifier_plantvillage -> loss3/classifier_plantvillage
I0403 19:53:34.213929  9801 net.cpp:141] Setting up loss3/classifier_plantvillage
I0403 19:53:34.213958  9801 net.cpp:148] Top shape: 24 38 (912)
I0403 19:53:34.213973  9801 net.cpp:156] Memory required for data: 1346064480
I0403 19:53:34.213991  9801 layer_factory.hpp:77] Creating layer loss3/classifier_plantvillage_loss3/classifier_plantvillage_0_split
I0403 19:53:34.214010  9801 net.cpp:91] Creating Layer loss3/classifier_plantvillage_loss3/classifier_plantvillage_0_split
I0403 19:53:34.214026  9801 net.cpp:425] loss3/classifier_plantvillage_loss3/classifier_plantvillage_0_split <- loss3/classifier_plantvillage
I0403 19:53:34.214046  9801 net.cpp:399] loss3/classifier_plantvillage_loss3/classifier_plantvillage_0_split -> loss3/classifier_plantvillage_loss3/classifier_plantvillage_0_split_0
I0403 19:53:34.214068  9801 net.cpp:399] loss3/classifier_plantvillage_loss3/classifier_plantvillage_0_split -> loss3/classifier_plantvillage_loss3/classifier_plantvillage_0_split_1
I0403 19:53:34.214088  9801 net.cpp:399] loss3/classifier_plantvillage_loss3/classifier_plantvillage_0_split -> loss3/classifier_plantvillage_loss3/classifier_plantvillage_0_split_2
I0403 19:53:34.214110  9801 net.cpp:399] loss3/classifier_plantvillage_loss3/classifier_plantvillage_0_split -> loss3/classifier_plantvillage_loss3/classifier_plantvillage_0_split_3
I0403 19:53:34.214226  9801 net.cpp:141] Setting up loss3/classifier_plantvillage_loss3/classifier_plantvillage_0_split
I0403 19:53:34.214249  9801 net.cpp:148] Top shape: 24 38 (912)
I0403 19:53:34.214264  9801 net.cpp:148] Top shape: 24 38 (912)
I0403 19:53:34.214284  9801 net.cpp:148] Top shape: 24 38 (912)
I0403 19:53:34.214300  9801 net.cpp:148] Top shape: 24 38 (912)
I0403 19:53:34.214314  9801 net.cpp:156] Memory required for data: 1346079072
I0403 19:53:34.214329  9801 layer_factory.hpp:77] Creating layer loss1/loss
I0403 19:53:34.214350  9801 net.cpp:91] Creating Layer loss1/loss
I0403 19:53:34.214367  9801 net.cpp:425] loss1/loss <- loss1/classifier_plantvillage_loss1/classifier_plantvillage_0_split_0
I0403 19:53:34.214397  9801 net.cpp:425] loss1/loss <- label_data_1_split_0
…
