…
I0403 19:44:43.192627  9611 net.cpp:313] The NetState phase (1) differed from the phase (0) specified by a rule in layer data
I0403 19:44:43.194165  9611 net.cpp:49] Initializing net from parameters: 
state {
  phase: TEST
}
layer {
  name: "data"
  type: "Data"
  top: "data"
  top: "label"
  include {
    phase: TEST
  }
  transform_param {
    mirror: false
    crop_size: 224
    mean_file: "/home/mohanty/data/final_dataset/lmdb/color-50-50/mean.binaryproto"
  }
  data_param {
    source: "/home/mohanty/data/final_dataset/lmdb/color-50-50/test_db"
    batch_size: 24
    backend: LMDB
  }
}
layer {
  name: "conv1/7x7_s2"
  type: "Convolution"
  bottom: "data"
  top: "conv1/7x7_s2"
  param {
    lr_mult: 1
    decay_mult: 1
  }
  param {
    lr_mult: 2
    decay_mult: 0
  }
  convolution_param {
    num_output: 64
    pad: 3
    kernel_size: 7
    stride: 2
    weight_filler {
      type: "xavier"
      std: 0.1
    }
    bias_filler {
      type: "constant"
      value: 0.2
    }
  }
}
layer {
  name: "conv1/relu_7x7"
  type: "ReLU"
  bottom: "conv1/7x7_s2"
  top: "conv1/7x7_s2"
}
layer {
  name: "pool1/3x3_s2"
  type: "Pooling"
  bottom: "conv1/7x7_s2"
  top: "pool1/3x3_s2"
  pooling_param {
    pool: MAX
    kernel_size: 3
    stride: 2
  }
}
layer {
  name: "pool1/norm1"
  type: "LRN"
  bottom: "pool1/3x3_s2"
  top: "pool1/norm1"
  lrn_param {
    local_size: 5
    alpha: 0.0001
    beta: 0.75
  }
}
layer {
  name: "conv2/3x3_reduce"
  type: "Convolution"
  bottom: "pool1/norm1"
  top: "conv2/3x3_reduce"
  param {
    lr_mult: 1
    decay_mult: 1
  }
  param {
    lr_mult: 2
    decay_mult: 0
  }
  convolution_param {
    num_output: 64
    kernel_size: 1
    weight_filler {
      type: "xavier"
      std: 0.1
    }
    bias_filler {
      type: "constant"
      value: 0.2
    }
  }
}
layer {
  name: "conv2/relu_3x3_reduce"
  type: "ReLU"
  bottom: "conv2/3x3_reduce"
  top: "conv2/3x3_reduce"
}
layer {
  name: "conv2/3x3"
  type: "Convolution"
  bottom: "conv2/3x3_reduce"
  top: "conv2/3x3"
  param {
    lr_mult: 1
    decay_mult: 1
  }
  param {
    lr_mult: 2
    decay_mult: 0
  }
  convolution_param {
    num_output: 192
    pad: 1
    kernel_size: 3
    weight_filler {
      type: "xavier"
      std: 0.03
    }
    bias_filler {
      type: "constant"
      value: 0.2
    }
  }
}
layer {
  name: "conv2/relu_3x3"
  type: "ReLU"
  bottom: "conv2/3x3"
  top: "conv2/3x3"
}
layer {
  name: "conv2/norm2"
  type: "LRN"
  bottom: "conv2/3x3"
  top: "conv2/norm2"
  lrn_param {
    local_size: 5
    alpha: 0.0001
    beta: 0.75
  }
}
layer {
  name: "pool2/3x3_s2"
  type: "Pooling"
  bottom: "conv2/norm2"
  top: "pool2/3x3_s2"
  pooling_param {
    pool: MAX
    kernel_size: 3
    stride: 2
  }
}
layer {
  name: "inception_3a/1x1"
  type: "Convolution"
  bottom: "pool2/3x3_s2"
  top: "inception_3a/1x1"
  param {
    lr_mult: 1
    decay_mult: 1
  }
  param {
    lr_mult: 2
    decay_mult: 0
  }
  convolution_param {
    num_output: 64
    kernel_size: 1
    weight_filler {
      type: "xavier"
      std: 0.03
    }
    bias_filler {
      type: "constant"
      value: 0.2
    }
  }
}
layer {
  name: "inception_3a/relu_1x1"
  type: "ReLU"
  bottom: "inception_3a/1x1"
  top: "inception_3a/1x1"
}
layer {
  name: "inception_3a/3x3_reduce"
  type: "Convolution"
  bottom: "pool2/3x3_s2"
  top: "inception_3a/3x3_reduce"
  param {
    lr_mult: 1
    decay_mult: 1
  }
  param {
    lr_mult: 2
    decay_mult: 0
  }
  convolution_param {
    num_output: 96
    kernel_size: 1
    weight_filler {
      type: "xavier"
      std: 0.09
    }
    bias_filler {
      type: "constant"
      value: 0.2
    }
  }
}
layer {
  name: "inception_3a/relu_3x3_reduce"
  type: "ReLU"
  bottom: "inception_3a/3x3_reduce"
  top: "inception_3a/3x3_reduce"
}
layer {
  name: "inception_3a/3x3"
  type: "Convolution"
  bottom: "inception_3a/3x3_reduce"
  top: "inception_3a/3x3"
  param {
    lr_mult: 1
    decay_mult: 1
  }
  param {
    lr_mult: 2
    decay_mult: 0
  }
  convolution_param {
    num_output: 128
    pad: 1
    kernel_size: 3
    weight_filler {
      type: "xavier"
      std: 0.03
    }
    bias_filler {
      type: "constant"
      value: 0.2
    }
  }
}
layer {
  name: "inception_3a/relu_3x3"
  type: "ReLU"
  bottom: "inception_3a/3x3"
  top: "inception_3a/3x3"
}
layer {
  name: "inception_3a/5x5_reduce"
  type: "Convolution"
  bottom: "pool2/3x3_s2"
  top: "inception_3a/5x5_reduce"
  param {
    lr_mult: 1
    decay_mult: 1
  }
  param {
    lr_mult: 2
    decay_mult: 0
  }
  convolution_param {
    num_output: 16
    kernel_size: 1
    weight_filler {
      type: "xavier"
      std: 0.2
    }
    bias_filler {
      type: "constant"
      value: 0.2
    }
  }
}
layer {
  name: "inception_3a/relu_5x5_reduce"
  type: "ReLU"
  bottom: "inception_3a/5x5_reduce"
  top: "inception_3a/5x5_reduce"
}
layer {
  name: "inception_3a/5x5"
  type: "Convolution"
  bottom: "inception_3a/5x5_reduce"
  top: "inception_3a/5x5"
  param {
    lr_mult: 1
    decay_mult: 1
  }
  param {
    lr_mult: 2
    decay_mult: 0
  }
  convolution_param {
    num_output: 32
    pad: 2
    kernel_size: 5
    weight_filler {
      type: "xavier"
      std: 0.03
    }
    bias_filler {
      type: "constant"
      value: 0.2
    }
  }
}
layer {
  name: "inception_3a/relu_5x5"
  type: "ReLU"
  bottom: "inception_3a/5x5"
  top: "inception_3a/5x5"
}
layer {
  name: "inception_3a/pool"
  type: "Pooling"
  bottom: "pool2/3x3_s2"
  top: "inception_3a/pool"
  pooling_param {
    pool: MAX
    kernel_size: 3
    stride: 1
    pad: 1
  }
}
layer {
  name: "inception_3a/pool_proj"
  type: "Convolution"
  bottom: "inception_3a/pool"
  top: "inception_3a/pool_proj"
  param {
    lr_mult: 1
    decay_mult: 1
  }
  param {
    lr_mult: 2
    decay_mult: 0
  }
  convolution_param {
    num_output: 32
    kernel_size: 1
    weight_filler {
      type: "xavier"
      std: 0.1
    }
    bias_filler {
      type: "constant"
      value: 0.2
    }
  }
}
layer {
  name: "inception_3a/relu_pool_proj"
  type: "ReLU"
  bottom: "inception_3a/pool_proj"
  top: "inception_3a/pool_proj"
}
layer {
  name: "inception_3a/output"
  type: "Concat"
  bottom: "inception_3a/1x1"
  bottom: "inception_3a/3x3"
  bottom: "inception_3a/5x5"
  bottom: "inception_3a/pool_proj"
  top: "inception_3a/output"
}
layer {
  name: "inception_3b/1x1"
  type: "Convolution"
  bottom: "inception_3a/output"
  top: "inception_3b/1x1"
  param {
    lr_mult: 1
    decay_mult: 1
  }
  param {
    lr_mult: 2
    decay_mult: 0
  }
  convolution_param {
    num_output: 128
    kernel_size: 1
    weight_filler {
      type: "xavier"
      std: 0.03
    }
    bias_filler {
      type: "constant"
      value: 0.2
    }
  }
}
layer {
  name: "inception_3b/relu_1x1"
  type: "ReLU"
  bottom: "inception_3b/1x1"
  top: "inception_3b/1x1"
}
layer {
  name: "inception_3b/3x3_reduce"
  type: "Convolution"
  bottom: "inception_3a/output"
  top: "inception_3b/3x3_reduce"
  param {
    lr_mult: 1
    decay_mult: 1
  }
  param {
    lr_mult: 2
    decay_mult: 0
  }
  convolution_param {
    num_output: 128
    kernel_size: 1
    weight_filler {
      type: "xavier"
      std: 0.09
    }
    bias_filler {
      type: "constant"
      value: 0.2
    }
  }
}
layer {
  name: "inception_3b/relu_3x3_reduce"
  type: "ReLU"
  bottom: "inception_3b/3x3_reduce"
  top: "inception_3b/3x3_reduce"
}
layer {
  name: "inception_3b/3x3"
  type: "Convolution"
  bottom: "inception_3b/3x3_reduce"
  top: "inception_3b/3x3"
  param {
    lr_mult: 1
    decay_mult: 1
  }
  param {
    lr_mult: 2
    decay_mult: 0
  }
  convolution_param {
    num_output: 192
    pad: 1
    kernel_size: 3
    weight_filler {
      type: "xavier"
      std: 0.03
    }
    bias_filler {
      type: "constant"
      value: 0.2
    }
  }
}
layer {
  name: "inception_3b/relu_3x3"
  type: "ReLU"
  bottom: "inception_3b/3x3"
  top: "inception_3b/3x3"
}
layer {
  name: "inception_3b/5x5_reduce"
  type: "Convolution"
  bottom: "inception_3a/output"
  top: "inception_3b/5x5_reduce"
  param {
    lr_mult: 1
    decay_mult: 1
  }
  param {
    lr_mult: 2
    decay_mult: 0
  }
  convolution_param {
    num_output: 32
    kernel_size: 1
    weight_filler {
      type: "xavier"
      std: 0.2
    }
    bias_filler {
      type: "constant"
      value: 0.2
    }
  }
}
layer {
  name: "inception_3b/relu_5x5_reduce"
  type: "ReLU"
  bottom: "inception_3b/5x5_reduce"
  top: "inception_3b/5x5_reduce"
}
layer {
  name: "inception_3b/5x5"
  type: "Convolution"
  bottom: "inception_3b/5x5_reduce"
  top: "inception_3b/5x5"
  param {
    lr_mult: 1
    decay_mult: 1
  }
  param {
    lr_mult: 2
    decay_mult: 0
  }
  convolution_param {
    num_output: 96
    pad: 2
    kernel_size: 5
    weight_filler {
      type: "xavier"
      std: 0.03
    }
    bias_filler {
      type: "constant"
      value: 0.2
    }
  }
}
layer {
  name: "inception_3b/relu_5x5"
  type: "ReLU"
  bottom: "inception_3b/5x5"
  top: "inception_3b/5x5"
}
layer {
  name: "inception_3b/pool"
  type: "Pooling"
  bottom: "inception_3a/output"
  top: "inception_3b/pool"
  pooling_param {
    pool: MAX
    kernel_size: 3
    stride: 1
    pad: 1
  }
}
layer {
  name: "inception_3b/pool_proj"
  type: "Convolution"
  bottom: "inception_3b/pool"
  top: "inception_3b/pool_proj"
  param {
    lr_mult: 1
    decay_mult: 1
  }
  param {
    lr_mult: 2
    decay_mult: 0
  }
  convolution_param {
    num_output: 64
    kernel_size: 1
    weight_filler {
      type: "xavier"
      std: 0.1
    }
    bias_filler {
      type: "constant"
      value: 0.2
    }
  }
}
layer {
  name: "inception_3b/relu_pool_proj"
  type: "ReLU"
  bottom: "inception_3b/pool_proj"
  top: "inception_3b/pool_proj"
}
layer {
  name: "inception_3b/output"
  type: "Concat"
  bottom: "inception_3b/1x1"
  bottom: "inception_3b/3x3"
  bottom: "inception_3b/5x5"
  bottom: "inception_3b/pool_proj"
  top: "inception_3b/output"
}
layer {
  name: "pool3/3x3_s2"
  type: "Pooling"
  bottom: "inception_3b/output"
  top: "pool3/3x3_s2"
  pooling_param {
    pool: MAX
    kernel_size: 3
    stride: 2
  }
}
layer {
  name: "inception_4a/1x1"
  type: "Convolution"
  bottom: "pool3/3x3_s2"
  top: "inception_4a/1x1"
  param {
    lr_mult: 1
    decay_mult: 1
  }
  param {
    lr_mult: 2
    decay_mult: 0
  }
  convolution_param {
    num_output: 192
    kernel_size: 1
    weight_filler {
      type: "xavier"
      std: 0.03
    }
    bias_filler {
      type: "constant"
      value: 0.2
    }
  }
}
layer {
  name: "inception_4a/relu_1x1"
  type: "ReLU"
  bottom: "inception_4a/1x1"
  top: "inception_4a/1x1"
}
layer {
  name: "inception_4a/3x3_reduce"
  type: "Convolution"
  bottom: "pool3/3x3_s2"
  top: "inception_4a/3x3_reduce"
  param {
    lr_mult: 1
    decay_mult: 1
  }
  param {
    lr_mult: 2
    decay_mult: 0
  }
  convolution_param {
    num_output: 96
    kernel_size: 1
    weight_filler {
      type: "xavier"
      std: 0.09
    }
    bias_filler {
      type: "constant"
      value: 0.2
    }
  }
}
layer {
  name: "inception_4a/relu_3x3_reduce"
  type: "ReLU"
  bottom: "inception_4a/3x3_reduce"
  top: "inception_4a/3x3_reduce"
}
layer {
  name: "inception_4a/3x3"
  type: "Convolution"
  bottom: "inception_4a/3x3_reduce"
  top: "inception_4a/3x3"
  param {
    lr_mult: 1
    decay_mult: 1
  }
  param {
    lr_mult: 2
    decay_mult: 0
  }
  convolution_param {
    num_output: 208
    pad: 1
    kernel_size: 3
    weight_filler {
      type: "xavier"
      std: 0.03
    }
    bias_filler {
      type: "constant"
      value: 0.2
    }
  }
}
layer {
  name: "inception_4a/relu_3x3"
  type: "ReLU"
  bottom: "inception_4a/3x3"
  top: "inception_4a/3x3"
}
layer {
  name: "inception_4a/5x5_reduce"
  type: "Convolution"
  bottom: "pool3/3x3_s2"
  top: "inception_4a/5x5_reduce"
  param {
    lr_mult: 1
    decay_mult: 1
  }
  param {
    lr_mult: 2
    decay_mult: 0
  }
  convolution_param {
    num_output: 16
    kernel_size: 1
    weight_filler {
      type: "xavier"
      std: 0.2
    }
    bias_filler {
      type: "constant"
      value: 0.2
    }
  }
}
layer {
  name: "inception_4a/relu_5x5_reduce"
  type: "ReLU"
  bottom: "inception_4a/5x5_reduce"
  top: "inception_4a/5x5_reduce"
}
layer {
  name: "inception_4a/5x5"
  type: "Convolution"
  bottom: "inception_4a/5x5_reduce"
  top: "inception_4a/5x5"
  param {
    lr_mult: 1
    decay_mult: 1
  }
  param {
    lr_mult: 2
    decay_mult: 0
  }
  convolution_param {
    num_output: 48
    pad: 2
    kernel_size: 5
    weight_filler {
      type: "xavier"
      std: 0.03
    }
    bias_filler {
      type: "constant"
      value: 0.2
    }
  }
}
layer {
  name: "inception_4a/relu_5x5"
  type: "ReLU"
  bottom: "inception_4a/5x5"
  top: "inception_4a/5x5"
}
layer {
  name: "inception_4a/pool"
  type: "Pooling"
  bottom: "pool3/3x3_s2"
  top: "inception_4a/pool"
  pooling_param {
    pool: MAX
    kernel_size: 3
    stride: 1
    pad: 1
  }
}
layer {
  name: "inception_4a/pool_proj"
  type: "Convolution"
  bottom: "inception_4a/pool"
  top: "inception_4a/pool_proj"
  param {
    lr_mult: 1
    decay_mult: 1
  }
  param {
    lr_mult: 2
    decay_mult: 0
  }
  convolution_param {
    num_output: 64
    kernel_size: 1
    weight_filler {
      type: "xavier"
      std: 0.1
    }
    bias_filler {
      type: "constant"
      value: 0.2
    }
  }
}
layer {
  name: "inception_4a/relu_pool_proj"
  type: "ReLU"
  bottom: "inception_4a/pool_proj"
  top: "inception_4a/pool_proj"
}
layer {
  name: "inception_4a/output"
  type: "Concat"
  bottom: "inception_4a/1x1"
  bottom: "inception_4a/3x3"
  bottom: "inception_4a/5x5"
  bottom: "inception_4a/pool_proj"
  top: "inception_4a/output"
}
layer {
  name: "loss1/ave_pool"
  type: "Pooling"
  bottom: "inception_4a/output"
  top: "loss1/ave_pool"
  pooling_param {
    pool: AVE
    kernel_size: 5
    stride: 3
  }
}
layer {
  name: "loss1/conv"
  type: "Convolution"
  bottom: "loss1/ave_pool"
  top: "loss1/conv"
  param {
    lr_mult: 1
    decay_mult: 1
  }
  param {
    lr_mult: 2
    decay_mult: 0
  }
  convolution_param {
    num_output: 128
    kernel_size: 1
    weight_filler {
      type: "xavier"
      std: 0.08
    }
    bias_filler {
      type: "constant"
      value: 0.2
    }
  }
}
layer {
  name: "loss1/relu_conv"
  type: "ReLU"
  bottom: "loss1/conv"
  top: "loss1/conv"
}
layer {
  name: "loss1/fc"
  type: "InnerProduct"
  bottom: "loss1/conv"
  top: "loss1/fc"
  param {
    lr_mult: 1
    decay_mult: 1
  }
  param {
    lr_mult: 2
    decay_mult: 0
  }
  inner_product_param {
    num_output: 1024
    weight_filler {
      type: "xavier"
      std: 0.02
    }
    bias_filler {
      type: "constant"
      value: 0.2
    }
  }
}
layer {
  name: "loss1/relu_fc"
  type: "ReLU"
  bottom: "loss1/fc"
  top: "loss1/fc"
}
layer {
  name: "loss1/drop_fc"
  type: "Dropout"
  bottom: "loss1/fc"
  top: "loss1/fc"
  dropout_param {
    dropout_ratio: 0.7
  }
}
layer {
  name: "loss1/classifier_plantvillage"
  type: "InnerProduct"
  bottom: "loss1/fc"
  top: "loss1/classifier_plantvillage"
  param {
    lr_mult: 1
    decay_mult: 1
  }
  param {
    lr_mult: 2
    decay_mult: 0
  }
  inner_product_param {
    num_output: 38
    weight_filler {
      type: "xavier"
      std: 0.0009765625
    }
    bias_filler {
      type: "constant"
      value: 0
    }
  }
}
layer {
  name: "inception_4b/1x1"
  type: "Convolution"
  bottom: "inception_4a/output"
  top: "inception_4b/1x1"
  param {
    lr_mult: 1
    decay_mult: 1
  }
  param {
    lr_mult: 2
    decay_mult: 0
  }
  convolution_param {
    num_output: 160
    kernel_size: 1
    weight_filler {
      type: "xavier"
      std: 0.03
    }
    bias_filler {
      type: "constant"
      value: 0.2
    }
  }
}
layer {
  name: "inception_4b/relu_1x1"
  type: "ReLU"
  bottom: "inception_4b/1x1"
  top: "inception_4b/1x1"
}
layer {
  name: "inception_4b/3x3_reduce"
  type: "Convolution"
  bottom: "inception_4a/output"
  top: "inception_4b/3x3_reduce"
  param {
    lr_mult: 1
    decay_mult: 1
  }
  param {
    lr_mult: 2
    decay_mult: 0
  }
  convolution_param {
    num_output: 112
    kernel_size: 1
    weight_filler {
      type: "xavier"
      std: 0.09
    }
    bias_filler {
      type: "constant"
      value: 0.2
    }
  }
}
layer {
  name: "inception_4b/relu_3x3_reduce"
  type: "ReLU"
  bottom: "inception_4b/3x3_reduce"
  top: "inception_4b/3x3_reduce"
}
layer {
  name: "inception_4b/3x3"
  type: "Convolution"
  bottom: "inception_4b/3x3_reduce"
  top: "inception_4b/3x3"
  param {
    lr_mult: 1
    decay_mult: 1
  }
  param {
    lr_mult: 2
    decay_mult: 0
  }
  convolution_param {
    num_output: 224
    pad: 1
    kernel_size: 3
    weight_filler {
      type: "xavier"
      std: 0.03
    }
    bias_filler {
      type: "constant"
      value: 0.2
    }
  }
}
layer {
  name: "inception_4b/relu_3x3"
  type: "ReLU"
  bottom: "inception_4b/3x3"
  top: "inception_4b/3x3"
}
layer {
  name: "inception_4b/5x5_reduce"
  type: "Convolution"
  bottom: "inception_4a/output"
  top: "inception_4b/5x5_reduce"
  param {
    lr_mult: 1
    decay_mult: 1
  }
  param {
    lr_mult: 2
    decay_mult: 0
  }
  convolution_param {
    num_output: 24
    kernel_size: 1
    weight_filler {
      type: "xavier"
      std: 0.2
    }
    bias_filler {
      type: "constant"
      value: 0.2
    }
  }
}
layer {
  name: "inception_4b/relu_5x5_reduce"
  type: "ReLU"
  bottom: "inception_4b/5x5_reduce"
  top: "inception_4b/5x5_reduce"
}
layer {
  name: "inception_4b/5x5"
  type: "Convolution"
  bottom: "inception_4b/5x5_reduce"
  top: "inception_4b/5x5"
  param {
    lr_mult: 1
    decay_mult: 1
  }
  param {
    lr_mult: 2
    decay_mult: 0
  }
  convolution_param {
    num_output: 64
    pad: 2
    kernel_size: 5
    weight_filler {
      type: "xavier"
      std: 0.03
    }
    bias_filler {
      type: "constant"
      value: 0.2
    }
  }
}
layer {
  name: "inception_4b/relu_5x5"
  type: "ReLU"
  bottom: "inception_4b/5x5"
  top: "inception_4b/5x5"
}
layer {
  name: "inception_4b/pool"
  type: "Pooling"
  bottom: "inception_4a/output"
  top: "inception_4b/pool"
  pooling_param {
    pool: MAX
    kernel_size: 3
    stride: 1
    pad: 1
  }
}
layer {
  name: "inception_4b/pool_proj"
  type: "Convolution"
  bottom: "inception_4b/pool"
  top: "inception_4b/pool_proj"
  param {
    lr_mult: 1
    decay_mult: 1
  }
  param {
    lr_mult: 2
    decay_mult: 0
  }
  convolution_param {
    num_output: 64
    kernel_size: 1
    weight_filler {
      type: "xavier"
      std: 0.1
    }
    bias_filler {
      type: "constant"
      value: 0.2
    }
  }
}
layer {
  name: "inception_4b/relu_pool_proj"
  type: "ReLU"
  bottom: "inception_4b/pool_proj"
  top: "inception_4b/pool_proj"
}
layer {
  name: "inception_4b/output"
  type: "Concat"
  bottom: "inception_4b/1x1"
  bottom: "inception_4b/3x3"
  bottom: "inception_4b/5x5"
  bottom: "inception_4b/pool_proj"
  top: "inception_4b/output"
}
layer {
  name: "inception_4c/1x1"
  type: "Convolution"
  bottom: "inception_4b/output"
  top: "inception_4c/1x1"
  param {
    lr_mult: 1
    decay_mult: 1
  }
  param {
    lr_mult: 2
    decay_mult: 0
  }
  convolution_param {
    num_output: 128
    kernel_size: 1
    weight_filler {
      type: "xavier"
      std: 0.03
    }
    bias_filler {
      type: "constant"
      value: 0.2
    }
  }
}
layer {
  name: "inception_4c/relu_1x1"
  type: "ReLU"
  bottom: "inception_4c/1x1"
  top: "inception_4c/1x1"
}
layer {
  name: "inception_4c/3x3_reduce"
  type: "Convolution"
  bottom: "inception_4b/output"
  top: "inception_4c/3x3_reduce"
  param {
    lr_mult: 1
    decay_mult: 1
  }
  param {
    lr_mult: 2
    decay_mult: 0
  }
  convolution_param {
    num_output: 128
    kernel_size: 1
    weight_filler {
      type: "xavier"
      std: 0.09
    }
    bias_filler {
      type: "constant"
      value: 0.2
    }
  }
}
layer {
  name: "inception_4c/relu_3x3_reduce"
  type: "ReLU"
  bottom: "inception_4c/3x3_reduce"
  top: "inception_4c/3x3_reduce"
}
layer {
  name: "inception_4c/3x3"
  type: "Convolution"
  bottom: "inception_4c/3x3_reduce"
  top: "inception_4c/3x3"
  param {
    lr_mult: 1
    decay_mult: 1
  }
  param {
    lr_mult: 2
    decay_mult: 0
  }
  convolution_param {
    num_output: 256
    pad: 1
    kernel_size: 3
    weight_filler {
      type: "xavier"
      std: 0.03
    }
    bias_filler {
      type: "constant"
      value: 0.2
    }
  }
}
layer {
  name: "inception_4c/relu_3x3"
  type: "ReLU"
  bottom: "inception_4c/3x3"
  top: "inception_4c/3x3"
}
layer {
  name: "inception_4c/5x5_reduce"
  type: "Convolution"
  bottom: "inception_4b/output"
  top: "inception_4c/5x5_reduce"
  param {
    lr_mult: 1
    decay_mult: 1
  }
  param {
    lr_mult: 2
    decay_mult: 0
  }
  convolution_param {
    num_output: 24
    kernel_size: 1
    weight_filler {
      type: "xavier"
      std: 0.2
    }
    bias_filler {
      type: "constant"
      value: 0.2
    }
  }
}
layer {
  name: "inception_4c/relu_5x5_reduce"
  type: "ReLU"
  bottom: "inception_4c/5x5_reduce"
  top: "inception_4c/5x5_reduce"
}
layer {
  name: "inception_4c/5x5"
  type: "Convolution"
  bottom: "inception_4c/5x5_reduce"
  top: "inception_4c/5x5"
  param {
    lr_mult: 1
    decay_mult: 1
  }
  param {
    lr_mult: 2
    decay_mult: 0
  }
  convolution_param {
    num_output: 64
    pad: 2
    kernel_size: 5
    weight_filler {
      type: "xavier"
      std: 0.03
    }
    bias_filler {
      type: "constant"
      value: 0.2
    }
  }
}
layer {
  name: "inception_4c/relu_5x5"
  type: "ReLU"
  bottom: "inception_4c/5x5"
  top: "inception_4c/5x5"
}
layer {
  name: "inception_4c/pool"
  type: "Pooling"
  bottom: "inception_4b/output"
  top: "inception_4c/pool"
  pooling_param {
    pool: MAX
    kernel_size: 3
    stride: 1
    pad: 1
  }
}
layer {
  name: "inception_4c/pool_proj"
  type: "Convolution"
  bottom: "inception_4c/pool"
  top: "inception_4c/pool_proj"
  param {
    lr_mult: 1
    decay_mult: 1
  }
  param {
    lr_mult: 2
    decay_mult: 0
  }
  convolution_param {
    num_output: 64
    kernel_size: 1
    weight_filler {
      type: "xavier"
      std: 0.1
    }
    bias_filler {
      type: "constant"
      value: 0.2
    }
  }
}
layer {
  name: "inception_4c/relu_pool_proj"
  type: "ReLU"
  bottom: "inception_4c/pool_proj"
  top: "inception_4c/pool_proj"
}
layer {
  name: "inception_4c/output"
  type: "Concat"
  bottom: "inception_4c/1x1"
  bottom: "inception_4c/3x3"
  bottom: "inception_4c/5x5"
  bottom: "inception_4c/pool_proj"
  top: "inception_4c/output"
}
layer {
  name: "inception_4d/1x1"
  type: "Convolution"
  bottom: "inception_4c/output"
  top: "inception_4d/1x1"
  param {
    lr_mult: 1
    decay_mult: 1
  }
  param {
    lr_mult: 2
    decay_mult: 0
  }
  convolution_param {
    num_output: 112
    kernel_size: 1
    weight_filler {
      type: "xavier"
      std: 0.03
    }
    bias_filler {
      type: "constant"
      value: 0.2
    }
  }
}
layer {
  name: "inception_4d/relu_1x1"
  type: "ReLU"
  bottom: "inception_4d/1x1"
  top: "inception_4d/1x1"
}
layer {
  name: "inception_4d/3x3_reduce"
  type: "Convolution"
  bottom: "inception_4c/output"
  top: "inception_4d/3x3_reduce"
  param {
    lr_mult: 1
    decay_mult: 1
  }
  param {
    lr_mult: 2
    decay_mult: 0
  }
  convolution_param {
    num_output: 144
    kernel_size: 1
    weight_filler {
      type: "xavier"
      std: 0.09
    }
    bias_filler {
      type: "constant"
      value: 0.2
    }
  }
}
layer {
  name: "inception_4d/relu_3x3_reduce"
  type: "ReLU"
  bottom: "inception_4d/3x3_reduce"
  top: "inception_4d/3x3_reduce"
}
layer {
  name: "inception_4d/3x3"
  type: "Convolution"
  bottom: "inception_4d/3x3_reduce"
  top: "inception_4d/3x3"
  param {
    lr_mult: 1
    decay_mult: 1
  }
  param {
    lr_mult: 2
    decay_mult: 0
  }
  convolution_param {
    num_output: 288
    pad: 1
    kernel_size: 3
    weight_filler {
      type: "xavier"
      std: 0.03
    }
    bias_filler {
      type: "constant"
      value: 0.2
    }
  }
}
layer {
  name: "inception_4d/relu_3x3"
  type: "ReLU"
  bottom: "inception_4d/3x3"
  top: "inception_4d/3x3"
}
layer {
  name: "inception_4d/5x5_reduce"
  type: "Convolution"
  bottom: "inception_4c/output"
  top: "inception_4d/5x5_reduce"
  param {
    lr_mult: 1
    decay_mult: 1
  }
  param {
    lr_mult: 2
    decay_mult: 0
  }
  convolution_param {
    num_output: 32
    kernel_size: 1
    weight_filler {
      type: "xavier"
      std: 0.2
    }
    bias_filler {
      type: "constant"
      value: 0.2
    }
  }
}
layer {
  name: "inception_4d/relu_5x5_reduce"
  type: "ReLU"
  bottom: "inception_4d/5x5_reduce"
  top: "inception_4d/5x5_reduce"
}
layer {
  name: "inception_4d/5x5"
  type: "Convolution"
  bottom: "inception_4d/5x5_reduce"
  top: "inception_4d/5x5"
  param {
    lr_mult: 1
    decay_mult: 1
  }
  param {
    lr_mult: 2
    decay_mult: 0
  }
  convolution_param {
    num_output: 64
    pad: 2
    kernel_size: 5
    weight_filler {
      type: "xavier"
      std: 0.03
    }
    bias_filler {
      type: "constant"
      value: 0.2
    }
  }
}
layer {
  name: "inception_4d/relu_5x5"
  type: "ReLU"
  bottom: "inception_4d/5x5"
  top: "inception_4d/5x5"
}
layer {
  name: "inception_4d/pool"
  type: "Pooling"
  bottom: "inception_4c/output"
  top: "inception_4d/pool"
  pooling_param {
    pool: MAX
    kernel_size: 3
    stride: 1
    pad: 1
  }
}
layer {
  name: "inception_4d/pool_proj"
  type: "Convolution"
  bottom: "inception_4d/pool"
  top: "inception_4d/pool_proj"
  param {
    lr_mult: 1
    decay_mult: 1
  }
  param {
    lr_mult: 2
    decay_mult: 0
  }
  convolution_param {
    num_output: 64
    kernel_size: 1
    weight_filler {
      type: "xavier"
      std: 0.1
    }
    bias_filler {
      type: "constant"
      value: 0.2
    }
  }
}
layer {
  name: "inception_4d/relu_pool_proj"
  type: "ReLU"
  bottom: "inception_4d/pool_proj"
  top: "inception_4d/pool_proj"
}
layer {
  name: "inception_4d/output"
  type: "Concat"
  bottom: "inception_4d/1x1"
  bottom: "inception_4d/3x3"
  bottom: "inception_4d/5x5"
  bottom: "inception_4d/pool_proj"
  top: "inception_4d/output"
}
layer {
  name: "loss2/ave_pool"
  type: "Pooling"
  bottom: "inception_4d/output"
  top: "loss2/ave_pool"
  pooling_param {
    pool: AVE
    kernel_size: 5
    stride: 3
  }
}
layer {
  name: "loss2/conv"
  type: "Convolution"
  bottom: "loss2/ave_pool"
  top: "loss2/conv"
  param {
    lr_mult: 1
    decay_mult: 1
  }
  param {
    lr_mult: 2
    decay_mult: 0
  }
  convolution_param {
    num_output: 128
    kernel_size: 1
    weight_filler {
      type: "xavier"
      std: 0.08
    }
    bias_filler {
      type: "constant"
      value: 0.2
    }
  }
}
layer {
  name: "loss2/relu_conv"
  type: "ReLU"
  bottom: "loss2/conv"
  top: "loss2/conv"
}
layer {
  name: "loss2/fc"
  type: "InnerProduct"
  bottom: "loss2/conv"
  top: "loss2/fc"
  param {
    lr_mult: 1
    decay_mult: 1
  }
  param {
    lr_mult: 2
    decay_mult: 0
  }
  inner_product_param {
    num_output: 1024
    weight_filler {
      type: "xavier"
      std: 0.02
    }
    bias_filler {
      type: "constant"
      value: 0.2
    }
  }
}
layer {
  name: "loss2/relu_fc"
  type: "ReLU"
  bottom: "loss2/fc"
  top: "loss2/fc"
}
layer {
  name: "loss2/drop_fc"
  type: "Dropout"
  bottom: "loss2/fc"
  top: "loss2/fc"
  dropout_param {
    dropout_ratio: 0.7
  }
}
layer {
  name: "loss2/classifier_plantvillage"
  type: "InnerProduct"
  bottom: "loss2/fc"
  top: "loss2/classifier_plantvillage"
  param {
    lr_mult: 1
    decay_mult: 1
  }
  param {
    lr_mult: 2
    decay_mult: 0
  }
  inner_product_param {
    num_output: 38
    weight_filler {
      type: "xavier"
      std: 0.0009765625
    }
    bias_filler {
      type: "constant"
      value: 0
    }
  }
}
layer {
  name: "inception_4e/1x1"
  type: "Convolution"
  bottom: "inception_4d/output"
  top: "inception_4e/1x1"
  param {
    lr_mult: 1
    decay_mult: 1
  }
  param {
    lr_mult: 2
    decay_mult: 0
  }
  convolution_param {
    num_output: 256
    kernel_size: 1
    weight_filler {
      type: "xavier"
      std: 0.03
    }
    bias_filler {
      type: "constant"
      value: 0.2
    }
  }
}
layer {
  name: "inception_4e/relu_1x1"
  type: "ReLU"
  bottom: "inception_4e/1x1"
  top: "inception_4e/1x1"
}
layer {
  name: "inception_4e/3x3_reduce"
  type: "Convolution"
  bottom: "inception_4d/output"
  top: "inception_4e/3x3_reduce"
  param {
    lr_mult: 1
    decay_mult: 1
  }
  param {
    lr_mult: 2
    decay_mult: 0
  }
  convolution_param {
    num_output: 160
    kernel_size: 1
    weight_filler {
      type: "xavier"
      std: 0.09
    }
    bias_filler {
      type: "constant"
      value: 0.2
    }
  }
}
layer {
  name: "inception_4e/relu_3x3_reduce"
  type: "ReLU"
  bottom: "inception_4e/3x3_reduce"
  top: "inception_4e/3x3_reduce"
}
layer {
  name: "inception_4e/3x3"
  type: "Convolution"
  bottom: "inception_4e/3x3_reduce"
  top: "inception_4e/3x3"
  param {
    lr_mult: 1
    decay_mult: 1
  }
  param {
    lr_mult: 2
    decay_mult: 0
  }
  convolution_param {
    num_output: 320
    pad: 1
    kernel_size: 3
    weight_filler {
      type: "xavier"
      std: 0.03
    }
    bias_filler {
      type: "constant"
      value: 0.2
    }
  }
}
layer {
  name: "inception_4e/relu_3x3"
  type: "ReLU"
  bottom: "inception_4e/3x3"
  top: "inception_4e/3x3"
}
layer {
  name: "inception_4e/5x5_reduce"
  type: "Convolution"
  bottom: "inception_4d/output"
  top: "inception_4e/5x5_reduce"
  param {
    lr_mult: 1
    decay_mult: 1
  }
  param {
    lr_mult: 2
    decay_mult: 0
  }
  convolution_param {
    num_output: 32
    kernel_size: 1
    weight_filler {
      type: "xavier"
      std: 0.2
    }
    bias_filler {
      type: "constant"
      value: 0.2
    }
  }
}
layer {
  name: "inception_4e/relu_5x5_reduce"
  type: "ReLU"
  bottom: "inception_4e/5x5_reduce"
  top: "inception_4e/5x5_reduce"
}
layer {
  name: "inception_4e/5x5"
  type: "Convolution"
  bottom: "inception_4e/5x5_reduce"
  top: "inception_4e/5x5"
  p
I0403 19:44:43.195905  9611 layer_factory.hpp:77] Creating layer data
I0403 19:44:43.196518  9611 net.cpp:91] Creating Layer data
I0403 19:44:43.196553  9611 net.cpp:399] data -> data
I0403 19:44:43.196602  9611 net.cpp:399] data -> label
I0403 19:44:43.196637  9611 data_transformer.cpp:25] Loading mean file from: /home/mohanty/data/final_dataset/lmdb/color-50-50/mean.binaryproto
I0403 19:44:43.197860  9615 db_lmdb.cpp:38] Opened lmdb /home/mohanty/data/final_dataset/lmdb/color-50-50/test_db
I0403 19:44:43.210515  9611 data_layer.cpp:41] output data size: 24,3,224,224
I0403 19:44:43.238467  9611 net.cpp:141] Setting up data
I0403 19:44:43.238546  9611 net.cpp:148] Top shape: 24 3 224 224 (3612672)
I0403 19:44:43.238570  9611 net.cpp:148] Top shape: 24 (24)
I0403 19:44:43.238587  9611 net.cpp:156] Memory required for data: 14450784
I0403 19:44:43.238613  9611 layer_factory.hpp:77] Creating layer label_data_1_split
I0403 19:44:43.238641  9611 net.cpp:91] Creating Layer label_data_1_split
I0403 19:44:43.238659  9611 net.cpp:425] label_data_1_split <- label
I0403 19:44:43.238692  9611 net.cpp:399] label_data_1_split -> label_data_1_split_0
I0403 19:44:43.238719  9611 net.cpp:399] label_data_1_split -> label_data_1_split_1
I0403 19:44:43.238741  9611 net.cpp:399] label_data_1_split -> label_data_1_split_2
I0403 19:44:43.238764  9611 net.cpp:399] label_data_1_split -> label_data_1_split_3
I0403 19:44:43.238783  9611 net.cpp:399] label_data_1_split -> label_data_1_split_4
I0403 19:44:43.238804  9611 net.cpp:399] label_data_1_split -> label_data_1_split_5
I0403 19:44:43.238824  9611 net.cpp:399] label_data_1_split -> label_data_1_split_6
I0403 19:44:43.238845  9611 net.cpp:399] label_data_1_split -> label_data_1_split_7
I0403 19:44:43.238867  9611 net.cpp:399] label_data_1_split -> label_data_1_split_8
I0403 19:44:43.238886  9611 net.cpp:399] label_data_1_split -> label_data_1_split_9
I0403 19:44:43.239004  9611 net.cpp:141] Setting up label_data_1_split
I0403 19:44:43.239028  9611 net.cpp:148] Top shape: 24 (24)
I0403 19:44:43.239045  9611 net.cpp:148] Top shape: 24 (24)
I0403 19:44:43.239061  9611 net.cpp:148] Top shape: 24 (24)
I0403 19:44:43.239078  9611 net.cpp:148] Top shape: 24 (24)
I0403 19:44:43.239094  9611 net.cpp:148] Top shape: 24 (24)
I0403 19:44:43.239110  9611 net.cpp:148] Top shape: 24 (24)
I0403 19:44:43.239126  9611 net.cpp:148] Top shape: 24 (24)
I0403 19:44:43.239142  9611 net.cpp:148] Top shape: 24 (24)
I0403 19:44:43.239158  9611 net.cpp:148] Top shape: 24 (24)
I0403 19:44:43.239176  9611 net.cpp:148] Top shape: 24 (24)
I0403 19:44:43.239220  9611 net.cpp:156] Memory required for data: 14451744
I0403 19:44:43.239236  9611 layer_factory.hpp:77] Creating layer conv1/7x7_s2
I0403 19:44:43.239289  9611 net.cpp:91] Creating Layer conv1/7x7_s2
I0403 19:44:43.239308  9611 net.cpp:425] conv1/7x7_s2 <- data
I0403 19:44:43.239328  9611 net.cpp:399] conv1/7x7_s2 -> conv1/7x7_s2
I0403 19:44:45.475235  9611 net.cpp:141] Setting up conv1/7x7_s2
I0403 19:44:45.475334  9611 net.cpp:148] Top shape: 24 64 112 112 (19267584)
I0403 19:44:45.475353  9611 net.cpp:156] Memory required for data: 91522080
I0403 19:44:45.475383  9611 layer_factory.hpp:77] Creating layer conv1/relu_7x7
I0403 19:44:45.475409  9611 net.cpp:91] Creating Layer conv1/relu_7x7
I0403 19:44:45.475425  9611 net.cpp:425] conv1/relu_7x7 <- conv1/7x7_s2
I0403 19:44:45.475445  9611 net.cpp:386] conv1/relu_7x7 -> conv1/7x7_s2 (in-place)
I0403 19:44:45.475689  9611 net.cpp:141] Setting up conv1/relu_7x7
I0403 19:44:45.475715  9611 net.cpp:148] Top shape: 24 64 112 112 (19267584)
I0403 19:44:45.475730  9611 net.cpp:156] Memory required for data: 168592416
I0403 19:44:45.475744  9611 layer_factory.hpp:77] Creating layer pool1/3x3_s2
I0403 19:44:45.475769  9611 net.cpp:91] Creating Layer pool1/3x3_s2
I0403 19:44:45.475786  9611 net.cpp:425] pool1/3x3_s2 <- conv1/7x7_s2
I0403 19:44:45.475803  9611 net.cpp:399] pool1/3x3_s2 -> pool1/3x3_s2
I0403 19:44:45.475873  9611 net.cpp:141] Setting up pool1/3x3_s2
I0403 19:44:45.475896  9611 net.cpp:148] Top shape: 24 64 56 56 (4816896)
I0403 19:44:45.475911  9611 net.cpp:156] Memory required for data: 187860000
I0403 19:44:45.475925  9611 layer_factory.hpp:77] Creating layer pool1/norm1
I0403 19:44:45.475950  9611 net.cpp:91] Creating Layer pool1/norm1
I0403 19:44:45.475965  9611 net.cpp:425] pool1/norm1 <- pool1/3x3_s2
I0403 19:44:45.475982  9611 net.cpp:399] pool1/norm1 -> pool1/norm1
I0403 19:44:45.476344  9611 net.cpp:141] Setting up pool1/norm1
I0403 19:44:45.476372  9611 net.cpp:148] Top shape: 24 64 56 56 (4816896)
I0403 19:44:45.476387  9611 net.cpp:156] Memory required for data: 207127584
I0403 19:44:45.476402  9611 layer_factory.hpp:77] Creating layer conv2/3x3_reduce
I0403 19:44:45.476428  9611 net.cpp:91] Creating Layer conv2/3x3_reduce
I0403 19:44:45.476446  9611 net.cpp:425] conv2/3x3_reduce <- pool1/norm1
I0403 19:44:45.476465  9611 net.cpp:399] conv2/3x3_reduce -> conv2/3x3_reduce
I0403 19:44:45.477779  9611 net.cpp:141] Setting up conv2/3x3_reduce
I0403 19:44:45.477808  9611 net.cpp:148] Top shape: 24 64 56 56 (4816896)
I0403 19:44:45.477823  9611 net.cpp:156] Memory required for data: 226395168
I0403 19:44:45.477843  9611 layer_factory.hpp:77] Creating layer conv2/relu_3x3_reduce
I0403 19:44:45.477861  9611 net.cpp:91] Creating Layer conv2/relu_3x3_reduce
I0403 19:44:45.477877  9611 net.cpp:425] conv2/relu_3x3_reduce <- conv2/3x3_reduce
I0403 19:44:45.477893  9611 net.cpp:386] conv2/relu_3x3_reduce -> conv2/3x3_reduce (in-place)
I0403 19:44:45.478147  9611 net.cpp:141] Setting up conv2/relu_3x3_reduce
I0403 19:44:45.478173  9611 net.cpp:148] Top shape: 24 64 56 56 (4816896)
I0403 19:44:45.478189  9611 net.cpp:156] Memory required for data: 245662752
I0403 19:44:45.478204  9611 layer_factory.hpp:77] Creating layer conv2/3x3
I0403 19:44:45.478224  9611 net.cpp:91] Creating Layer conv2/3x3
I0403 19:44:45.478240  9611 net.cpp:425] conv2/3x3 <- conv2/3x3_reduce
I0403 19:44:45.478258  9611 net.cpp:399] conv2/3x3 -> conv2/3x3
I0403 19:44:45.480543  9611 net.cpp:141] Setting up conv2/3x3
I0403 19:44:45.480572  9611 net.cpp:148] Top shape: 24 192 56 56 (14450688)
I0403 19:44:45.480588  9611 net.cpp:156] Memory required for data: 303465504
I0403 19:44:45.480608  9611 layer_factory.hpp:77] Creating layer conv2/relu_3x3
I0403 19:44:45.480628  9611 net.cpp:91] Creating Layer conv2/relu_3x3
I0403 19:44:45.480643  9611 net.cpp:425] conv2/relu_3x3 <- conv2/3x3
I0403 19:44:45.480661  9611 net.cpp:386] conv2/relu_3x3 -> conv2/3x3 (in-place)
I0403 19:44:45.480829  9611 net.cpp:141] Setting up conv2/relu_3x3
I0403 19:44:45.480854  9611 net.cpp:148] Top shape: 24 192 56 56 (14450688)
I0403 19:44:45.480898  9611 net.cpp:156] Memory required for data: 361268256
I0403 19:44:45.480913  9611 layer_factory.hpp:77] Creating layer conv2/norm2
I0403 19:44:45.480933  9611 net.cpp:91] Creating Layer conv2/norm2
I0403 19:44:45.480950  9611 net.cpp:425] conv2/norm2 <- conv2/3x3
I0403 19:44:45.480969  9611 net.cpp:399] conv2/norm2 -> conv2/norm2
I0403 19:44:45.481264  9611 net.cpp:141] Setting up conv2/norm2
I0403 19:44:45.481298  9611 net.cpp:148] Top shape: 24 192 56 56 (14450688)
I0403 19:44:45.481315  9611 net.cpp:156] Memory required for data: 419071008
I0403 19:44:45.481330  9611 layer_factory.hpp:77] Creating layer pool2/3x3_s2
I0403 19:44:45.481348  9611 net.cpp:91] Creating Layer pool2/3x3_s2
I0403 19:44:45.481362  9611 net.cpp:425] pool2/3x3_s2 <- conv2/norm2
I0403 19:44:45.481379  9611 net.cpp:399] pool2/3x3_s2 -> pool2/3x3_s2
I0403 19:44:45.481431  9611 net.cpp:141] Setting up pool2/3x3_s2
I0403 19:44:45.481453  9611 net.cpp:148] Top shape: 24 192 28 28 (3612672)
I0403 19:44:45.481467  9611 net.cpp:156] Memory required for data: 433521696
I0403 19:44:45.481482  9611 layer_factory.hpp:77] Creating layer pool2/3x3_s2_pool2/3x3_s2_0_split
I0403 19:44:45.481500  9611 net.cpp:91] Creating Layer pool2/3x3_s2_pool2/3x3_s2_0_split
I0403 19:44:45.481518  9611 net.cpp:425] pool2/3x3_s2_pool2/3x3_s2_0_split <- pool2/3x3_s2
I0403 19:44:45.481534  9611 net.cpp:399] pool2/3x3_s2_pool2/3x3_s2_0_split -> pool2/3x3_s2_pool2/3x3_s2_0_split_0
I0403 19:44:45.481552  9611 net.cpp:399] pool2/3x3_s2_pool2/3x3_s2_0_split -> pool2/3x3_s2_pool2/3x3_s2_0_split_1
I0403 19:44:45.481572  9611 net.cpp:399] pool2/3x3_s2_pool2/3x3_s2_0_split -> pool2/3x3_s2_pool2/3x3_s2_0_split_2
I0403 19:44:45.481595  9611 net.cpp:399] pool2/3x3_s2_pool2/3x3_s2_0_split -> pool2/3x3_s2_pool2/3x3_s2_0_split_3
I0403 19:44:45.481669  9611 net.cpp:141] Setting up pool2/3x3_s2_pool2/3x3_s2_0_split
I0403 19:44:45.481691  9611 net.cpp:148] Top shape: 24 192 28 28 (3612672)
I0403 19:44:45.481708  9611 net.cpp:148] Top shape: 24 192 28 28 (3612672)
I0403 19:44:45.481721  9611 net.cpp:148] Top shape: 24 192 28 28 (3612672)
I0403 19:44:45.481736  9611 net.cpp:148] Top shape: 24 192 28 28 (3612672)
I0403 19:44:45.481750  9611 net.cpp:156] Memory required for data: 491324448
I0403 19:44:45.481763  9611 layer_factory.hpp:77] Creating layer inception_3a/1x1
I0403 19:44:45.481786  9611 net.cpp:91] Creating Layer inception_3a/1x1
I0403 19:44:45.481802  9611 net.cpp:425] inception_3a/1x1 <- pool2/3x3_s2_pool2/3x3_s2_0_split_0
I0403 19:44:45.481823  9611 net.cpp:399] inception_3a/1x1 -> inception_3a/1x1
I0403 19:44:45.483635  9611 net.cpp:141] Setting up inception_3a/1x1
I0403 19:44:45.483667  9611 net.cpp:148] Top shape: 24 64 28 28 (1204224)
I0403 19:44:45.483683  9611 net.cpp:156] Memory required for data: 496141344
I0403 19:44:45.483703  9611 layer_factory.hpp:77] Creating layer inception_3a/relu_1x1
I0403 19:44:45.483721  9611 net.cpp:91] Creating Layer inception_3a/relu_1x1
I0403 19:44:45.483737  9611 net.cpp:425] inception_3a/relu_1x1 <- inception_3a/1x1
I0403 19:44:45.483758  9611 net.cpp:386] inception_3a/relu_1x1 -> inception_3a/1x1 (in-place)
I0403 19:44:45.483932  9611 net.cpp:141] Setting up inception_3a/relu_1x1
I0403 19:44:45.483958  9611 net.cpp:148] Top shape: 24 64 28 28 (1204224)
I0403 19:44:45.483971  9611 net.cpp:156] Memory required for data: 500958240
I0403 19:44:45.483986  9611 layer_factory.hpp:77] Creating layer inception_3a/3x3_reduce
I0403 19:44:45.484009  9611 net.cpp:91] Creating Layer inception_3a/3x3_reduce
I0403 19:44:45.484026  9611 net.cpp:425] inception_3a/3x3_reduce <- pool2/3x3_s2_pool2/3x3_s2_0_split_1
I0403 19:44:45.484047  9611 net.cpp:399] inception_3a/3x3_reduce -> inception_3a/3x3_reduce
I0403 19:44:45.485790  9611 net.cpp:141] Setting up inception_3a/3x3_reduce
I0403 19:44:45.485819  9611 net.cpp:148] Top shape: 24 96 28 28 (1806336)
I0403 19:44:45.485834  9611 net.cpp:156] Memory required for data: 508183584
I0403 19:44:45.485857  9611 layer_factory.hpp:77] Creating layer inception_3a/relu_3x3_reduce
I0403 19:44:45.485898  9611 net.cpp:91] Creating Layer inception_3a/relu_3x3_reduce
I0403 19:44:45.485915  9611 net.cpp:425] inception_3a/relu_3x3_reduce <- inception_3a/3x3_reduce
I0403 19:44:45.485932  9611 net.cpp:386] inception_3a/relu_3x3_reduce -> inception_3a/3x3_reduce (in-place)
I0403 19:44:45.486112  9611 net.cpp:141] Setting up inception_3a/relu_3x3_reduce
I0403 19:44:45.486140  9611 net.cpp:148] Top shape: 24 96 28 28 (1806336)
I0403 19:44:45.486155  9611 net.cpp:156] Memory required for data: 515408928
I0403 19:44:45.486171  9611 layer_factory.hpp:77] Creating layer inception_3a/3x3
I0403 19:44:45.486192  9611 net.cpp:91] Creating Layer inception_3a/3x3
I0403 19:44:45.486209  9611 net.cpp:425] inception_3a/3x3 <- inception_3a/3x3_reduce
I0403 19:44:45.486228  9611 net.cpp:399] inception_3a/3x3 -> inception_3a/3x3
I0403 19:44:45.487877  9611 net.cpp:141] Setting up inception_3a/3x3
I0403 19:44:45.487906  9611 net.cpp:148] Top shape: 24 128 28 28 (2408448)
I0403 19:44:45.487921  9611 net.cpp:156] Memory required for data: 525042720
I0403 19:44:45.487939  9611 layer_factory.hpp:77] Creating layer inception_3a/relu_3x3
I0403 19:44:45.487960  9611 net.cpp:91] Creating Layer inception_3a/relu_3x3
I0403 19:44:45.487977  9611 net.cpp:425] inception_3a/relu_3x3 <- inception_3a/3x3
I0403 19:44:45.487994  9611 net.cpp:386] inception_3a/relu_3x3 -> inception_3a/3x3 (in-place)
I0403 19:44:45.488265  9611 net.cpp:141] Setting up inception_3a/relu_3x3
I0403 19:44:45.488296  9611 net.cpp:148] Top shape: 24 128 28 28 (2408448)
I0403 19:44:45.488312  9611 net.cpp:156] Memory required for data: 534676512
I0403 19:44:45.488327  9611 layer_factory.hpp:77] Creating layer inception_3a/5x5_reduce
I0403 19:44:45.488353  9611 net.cpp:91] Creating Layer inception_3a/5x5_reduce
I0403 19:44:45.488371  9611 net.cpp:425] inception_3a/5x5_reduce <- pool2/3x3_s2_pool2/3x3_s2_0_split_2
I0403 19:44:45.488391  9611 net.cpp:399] inception_3a/5x5_reduce -> inception_3a/5x5_reduce
I0403 19:44:45.489491  9611 net.cpp:141] Setting up inception_3a/5x5_reduce
I0403 19:44:45.489521  9611 net.cpp:148] Top shape: 24 16 28 28 (301056)
I0403 19:44:45.489537  9611 net.cpp:156] Memory required for data: 535880736
I0403 19:44:45.489554  9611 layer_factory.hpp:77] Creating layer inception_3a/relu_5x5_reduce
I0403 19:44:45.489574  9611 net.cpp:91] Creating Layer inception_3a/relu_5x5_reduce
I0403 19:44:45.489591  9611 net.cpp:425] inception_3a/relu_5x5_reduce <- inception_3a/5x5_reduce
I0403 19:44:45.489609  9611 net.cpp:386] inception_3a/relu_5x5_reduce -> inception_3a/5x5_reduce (in-place)
I0403 19:44:45.490037  9611 net.cpp:141] Setting up inception_3a/relu_5x5_reduce
I0403 19:44:45.490063  9611 net.cpp:148] Top shape: 24 16 28 28 (301056)
I0403 19:44:45.490078  9611 net.cpp:156] Memory required for data: 537084960
I0403 19:44:45.490092  9611 layer_factory.hpp:77] Creating layer inception_3a/5x5
I0403 19:44:45.490115  9611 net.cpp:91] Creating Layer inception_3a/5x5
I0403 19:44:45.490134  9611 net.cpp:425] inception_3a/5x5 <- inception_3a/5x5_reduce
I0403 19:44:45.490154  9611 net.cpp:399] inception_3a/5x5 -> inception_3a/5x5
I0403 19:44:45.491163  9611 net.cpp:141] Setting up inception_3a/5x5
I0403 19:44:45.491194  9611 net.cpp:148] Top shape: 24 32 28 28 (602112)
I0403 19:44:45.491210  9611 net.cpp:156] Memory required for data: 539493408
I0403 19:44:45.491228  9611 layer_factory.hpp:77] Creating layer inception_3a/relu_5x5
I0403 19:44:45.491246  9611 net.cpp:91] Creating Layer inception_3a/relu_5x5
I0403 19:44:45.491262  9611 net.cpp:425] inception_3a/relu_5x5 <- inception_3a/5x5
I0403 19:44:45.491287  9611 net.cpp:386] inception_3a/relu_5x5 -> inception_3a/5x5 (in-place)
I0403 19:44:45.491461  9611 net.cpp:141] Setting up inception_3a/relu_5x5
I0403 19:44:45.491485  9611 net.cpp:148] Top shape: 24 32 28 28 (602112)
I0403 19:44:45.491500  9611 net.cpp:156] Memory required for data: 541901856
I0403 19:44:45.491514  9611 layer_factory.hpp:77] Creating layer inception_3a/pool
I0403 19:44:45.491534  9611 net.cpp:91] Creating Layer inception_3a/pool
I0403 19:44:45.491551  9611 net.cpp:425] inception_3a/pool <- pool2/3x3_s2_pool2/3x3_s2_0_split_3
I0403 19:44:45.491585  9611 net.cpp:399] inception_3a/pool -> inception_3a/pool
I0403 19:44:45.491648  9611 net.cpp:141] Setting up inception_3a/pool
I0403 19:44:45.491674  9611 net.cpp:148] Top shape: 24 192 28 28 (3612672)
I0403 19:44:45.491689  9611 net.cpp:156] Memory required for data: 556352544
I0403 19:44:45.491703  9611 layer_factory.hpp:77] Creating layer inception_3a/pool_proj
I0403 19:44:45.491725  9611 net.cpp:91] Creating Layer inception_3a/pool_proj
I0403 19:44:45.491742  9611 net.cpp:425] inception_3a/pool_proj <- inception_3a/pool
I0403 19:44:45.491765  9611 net.cpp:399] inception_3a/pool_proj -> inception_3a/pool_proj
I0403 19:44:45.492933  9611 net.cpp:141] Setting up inception_3a/pool_proj
I0403 19:44:45.492961  9611 net.cpp:148] Top shape: 24 32 28 28 (602112)
I0403 19:44:45.492979  9611 net.cpp:156] Memory required for data: 558760992
I0403 19:44:45.493002  9611 layer_factory.hpp:77] Creating layer inception_3a/relu_pool_proj
I0403 19:44:45.493024  9611 net.cpp:91] Creating Layer inception_3a/relu_pool_proj
I0403 19:44:45.493041  9611 net.cpp:425] inception_3a/relu_pool_proj <- inception_3a/pool_proj
I0403 19:44:45.493058  9611 net.cpp:386] inception_3a/relu_pool_proj -> inception_3a/pool_proj (in-place)
I0403 19:44:45.493458  9611 net.cpp:141] Setting up inception_3a/relu_pool_proj
I0403 19:44:45.493485  9611 net.cpp:148] Top shape: 24 32 28 28 (602112)
I0403 19:44:45.493500  9611 net.cpp:156] Memory required for data: 561169440
I0403 19:44:45.493515  9611 layer_factory.hpp:77] Creating layer inception_3a/output
I0403 19:44:45.493533  9611 net.cpp:91] Creating Layer inception_3a/output
I0403 19:44:45.493548  9611 net.cpp:425] inception_3a/output <- inception_3a/1x1
I0403 19:44:45.493564  9611 net.cpp:425] inception_3a/output <- inception_3a/3x3
I0403 19:44:45.493580  9611 net.cpp:425] inception_3a/output <- inception_3a/5x5
I0403 19:44:45.493597  9611 net.cpp:425] inception_3a/output <- inception_3a/pool_proj
I0403 19:44:45.493615  9611 net.cpp:399] inception_3a/output -> inception_3a/output
I0403 19:44:45.493662  9611 net.cpp:141] Setting up inception_3a/output
I0403 19:44:45.493690  9611 net.cpp:148] Top shape: 24 256 28 28 (4816896)
I0403 19:44:45.493705  9611 net.cpp:156] Memory required for data: 580437024
I0403 19:44:45.493719  9611 layer_factory.hpp:77] Creating layer inception_3a/output_inception_3a/output_0_split
I0403 19:44:45.493736  9611 net.cpp:91] Creating Layer inception_3a/output_inception_3a/output_0_split
I0403 19:44:45.493752  9611 net.cpp:425] inception_3a/output_inception_3a/output_0_split <- inception_3a/output
I0403 19:44:45.493770  9611 net.cpp:399] inception_3a/output_inception_3a/output_0_split -> inception_3a/output_inception_3a/output_0_split_0
I0403 19:44:45.493791  9611 net.cpp:399] inception_3a/output_inception_3a/output_0_split -> inception_3a/output_inception_3a/output_0_split_1
I0403 19:44:45.493814  9611 net.cpp:399] inception_3a/output_inception_3a/output_0_split -> inception_3a/output_inception_3a/output_0_split_2
I0403 19:44:45.493834  9611 net.cpp:399] inception_3a/output_inception_3a/output_0_split -> inception_3a/output_inception_3a/output_0_split_3
I0403 19:44:45.493906  9611 net.cpp:141] Setting up inception_3a/output_inception_3a/output_0_split
I0403 19:44:45.493930  9611 net.cpp:148] Top shape: 24 256 28 28 (4816896)
I0403 19:44:45.493947  9611 net.cpp:148] Top shape: 24 256 28 28 (4816896)
I0403 19:44:45.493963  9611 net.cpp:148] Top shape: 24 256 28 28 (4816896)
I0403 19:44:45.493978  9611 net.cpp:148] Top shape: 24 256 28 28 (4816896)
I0403 19:44:45.493990  9611 net.cpp:156] Memory required for data: 657507360
I0403 19:44:45.494005  9611 layer_factory.hpp:77] Creating layer inception_3b/1x1
I0403 19:44:45.494027  9611 net.cpp:91] Creating Layer inception_3b/1x1
I0403 19:44:45.494045  9611 net.cpp:425] inception_3b/1x1 <- inception_3a/output_inception_3a/output_0_split_0
I0403 19:44:45.494065  9611 net.cpp:399] inception_3b/1x1 -> inception_3b/1x1
I0403 19:44:45.495239  9611 net.cpp:141] Setting up inception_3b/1x1
I0403 19:44:45.495286  9611 net.cpp:148] Top shape: 24 128 28 28 (2408448)
I0403 19:44:45.495304  9611 net.cpp:156] Memory required for data: 667141152
I0403 19:44:45.495323  9611 layer_factory.hpp:77] Creating layer inception_3b/relu_1x1
I0403 19:44:45.495342  9611 net.cpp:91] Creating Layer inception_3b/relu_1x1
I0403 19:44:45.495358  9611 net.cpp:425] inception_3b/relu_1x1 <- inception_3b/1x1
I0403 19:44:45.495378  9611 net.cpp:386] inception_3b/relu_1x1 -> inception_3b/1x1 (in-place)
I0403 19:44:45.495559  9611 net.cpp:141] Setting up inception_3b/relu_1x1
I0403 19:44:45.495584  9611 net.cpp:148] Top shape: 24 128 28 28 (2408448)
I0403 19:44:45.495599  9611 net.cpp:156] Memory required for data: 676774944
I0403 19:44:45.495614  9611 layer_factory.hpp:77] Creating layer inception_3b/3x3_reduce
I0403 19:44:45.495635  9611 net.cpp:91] Creating Layer inception_3b/3x3_reduce
I0403 19:44:45.495653  9611 net.cpp:425] inception_3b/3x3_reduce <- inception_3a/output_inception_3a/output_0_split_1
I0403 19:44:45.495674  9611 net.cpp:399] inception_3b/3x3_reduce -> inception_3b/3x3_reduce
I0403 19:44:45.496803  9611 net.cpp:141] Setting up inception_3b/3x3_reduce
I0403 19:44:45.496832  9611 net.cpp:148] Top shape: 24 128 28 28 (2408448)
I0403 19:44:45.496850  9611 net.cpp:156] Memory required for data: 686408736
I0403 19:44:45.496867  9611 layer_factory.hpp:77] Creating layer inception_3b/relu_3x3_reduce
I0403 19:44:45.496886  9611 net.cpp:91] Creating Layer inception_3b/relu_3x3_reduce
I0403 19:44:45.496901  9611 net.cpp:425] inception_3b/relu_3x3_reduce <- inception_3b/3x3_reduce
I0403 19:44:45.496922  9611 net.cpp:386] inception_3b/relu_3x3_reduce -> inception_3b/3x3_reduce (in-place)
I0403 19:44:45.497090  9611 net.cpp:141] Setting up inception_3b/relu_3x3_reduce
I0403 19:44:45.497115  9611 net.cpp:148] Top shape: 24 128 28 28 (2408448)
I0403 19:44:45.497129  9611 net.cpp:156] Memory required for data: 696042528
I0403 19:44:45.497144  9611 layer_factory.hpp:77] Creating layer inception_3b/3x3
I0403 19:44:45.497170  9611 net.cpp:91] Creating Layer inception_3b/3x3
I0403 19:44:45.497189  9611 net.cpp:425] inception_3b/3x3 <- inception_3b/3x3_reduce
I0403 19:44:45.497208  9611 net.cpp:399] inception_3b/3x3 -> inception_3b/3x3
I0403 19:44:45.500258  9611 net.cpp:141] Setting up inception_3b/3x3
I0403 19:44:45.500294  9611 net.cpp:148] Top shape: 24 192 28 28 (3612672)
I0403 19:44:45.500311  9611 net.cpp:156] Memory required for data: 710493216
I0403 19:44:45.500329  9611 layer_factory.hpp:77] Creating layer inception_3b/relu_3x3
I0403 19:44:45.500354  9611 net.cpp:91] Creating Layer inception_3b/relu_3x3
I0403 19:44:45.500370  9611 net.cpp:425] inception_3b/relu_3x3 <- inception_3b/3x3
I0403 19:44:45.500387  9611 net.cpp:386] inception_3b/relu_3x3 -> inception_3b/3x3 (in-place)
I0403 19:44:45.500658  9611 net.cpp:141] Setting up inception_3b/relu_3x3
I0403 19:44:45.500684  9611 net.cpp:148] Top shape: 24 192 28 28 (3612672)
I0403 19:44:45.500699  9611 net.cpp:156] Memory required for data: 724943904
I0403 19:44:45.500715  9611 layer_factory.hpp:77] Creating layer inception_3b/5x5_reduce
I0403 19:44:45.500737  9611 net.cpp:91] Creating Layer inception_3b/5x5_reduce
I0403 19:44:45.500754  9611 net.cpp:425] inception_3b/5x5_reduce <- inception_3a/output_inception_3a/output_0_split_2
I0403 19:44:45.500777  9611 net.cpp:399] inception_3b/5x5_reduce -> inception_3b/5x5_reduce
I0403 19:44:45.501754  9611 net.cpp:141] Setting up inception_3b/5x5_reduce
I0403 19:44:45.501780  9611 net.cpp:148] Top shape: 24 32 28 28 (602112)
I0403 19:44:45.501796  9611 net.cpp:156] Memory required for data: 727352352
I0403 19:44:45.501812  9611 layer_factory.hpp:77] Creating layer inception_3b/relu_5x5_reduce
I0403 19:44:45.501829  9611 net.cpp:91] Creating Layer inception_3b/relu_5x5_reduce
I0403 19:44:45.501845  9611 net.cpp:425] inception_3b/relu_5x5_reduce <- inception_3b/5x5_reduce
I0403 19:44:45.501864  9611 net.cpp:386] inception_3b/relu_5x5_reduce -> inception_3b/5x5_reduce (in-place)
I0403 19:44:45.502034  9611 net.cpp:141] Setting up inception_3b/relu_5x5_reduce
I0403 19:44:45.502071  9611 net.cpp:148] Top shape: 24 32 28 28 (602112)
I0403 19:44:45.502086  9611 net.cpp:156] Memory required for data: 729760800
I0403 19:44:45.502101  9611 layer_factory.hpp:77] Creating layer inception_3b/5x5
I0403 19:44:45.502125  9611 net.cpp:91] Creating Layer inception_3b/5x5
I0403 19:44:45.502141  9611 net.cpp:425] inception_3b/5x5 <- inception_3b/5x5_reduce
I0403 19:44:45.502162  9611 net.cpp:399] inception_3b/5x5 -> inception_3b/5x5
I0403 19:44:45.504608  9611 net.cpp:141] Setting up inception_3b/5x5
I0403 19:44:45.504639  9611 net.cpp:148] Top shape: 24 96 28 28 (1806336)
I0403 19:44:45.504657  9611 net.cpp:156] Memory required for data: 736986144
I0403 19:44:45.504674  9611 layer_factory.hpp:77] Creating layer inception_3b/relu_5x5
I0403 19:44:45.504691  9611 net.cpp:91] Creating Layer inception_3b/relu_5x5
I0403 19:44:45.504708  9611 net.cpp:425] inception_3b/relu_5x5 <- inception_3b/5x5
I0403 19:44:45.504726  9611 net.cpp:386] inception_3b/relu_5x5 -> inception_3b/5x5 (in-place)
I0403 19:44:45.504912  9611 net.cpp:141] Setting up inception_3b/relu_5x5
I0403 19:44:45.504936  9611 net.cpp:148] Top shape: 24 96 28 28 (1806336)
I0403 19:44:45.504963  9611 net.cpp:156] Memory required for data: 744211488
I0403 19:44:45.504977  9611 layer_factory.hpp:77] Creating layer inception_3b/pool
I0403 19:44:45.504995  9611 net.cpp:91] Creating Layer inception_3b/pool
I0403 19:44:45.505012  9611 net.cpp:425] inception_3b/pool <- inception_3a/output_inception_3a/output_0_split_3
I0403 19:44:45.505030  9611 net.cpp:399] inception_3b/pool -> inception_3b/pool
I0403 19:44:45.505087  9611 net.cpp:141] Setting up inception_3b/pool
I0403 19:44:45.505111  9611 net.cpp:148] Top shape: 24 256 28 28 (4816896)
I0403 19:44:45.505125  9611 net.cpp:156] Memory required for data: 763479072
I0403 19:44:45.505139  9611 layer_factory.hpp:77] Creating layer inception_3b/pool_proj
I0403 19:44:45.505163  9611 net.cpp:91] Creating Layer inception_3b/pool_proj
I0403 19:44:45.505182  9611 net.cpp:425] inception_3b/pool_proj <- inception_3b/pool
I0403 19:44:45.505200  9611 net.cpp:399] inception_3b/pool_proj -> inception_3b/pool_proj
I0403 19:44:45.506233  9611 net.cpp:141] Setting up inception_3b/pool_proj
I0403 19:44:45.506261  9611 net.cpp:148] Top shape: 24 64 28 28 (1204224)
I0403 19:44:45.506280  9611 net.cpp:156] Memory required for data: 768295968
I0403 19:44:45.506299  9611 layer_factory.hpp:77] Creating layer inception_3b/relu_pool_proj
I0403 19:44:45.506320  9611 net.cpp:91] Creating Layer inception_3b/relu_pool_proj
I0403 19:44:45.506338  9611 net.cpp:425] inception_3b/relu_pool_proj <- inception_3b/pool_proj
I0403 19:44:45.506355  9611 net.cpp:386] inception_3b/relu_pool_proj -> inception_3b/pool_proj (in-place)
I0403 19:44:45.506736  9611 net.cpp:141] Setting up inception_3b/relu_pool_proj
I0403 19:44:45.506762  9611 net.cpp:148] Top shape: 24 64 28 28 (1204224)
I0403 19:44:45.506778  9611 net.cpp:156] Memory required for data: 773112864
I0403 19:44:45.506793  9611 layer_factory.hpp:77] Creating layer inception_3b/output
I0403 19:44:45.506814  9611 net.cpp:91] Creating Layer inception_3b/output
I0403 19:44:45.506829  9611 net.cpp:425] inception_3b/output <- inception_3b/1x1
I0403 19:44:45.506844  9611 net.cpp:425] inception_3b/output <- inception_3b/3x3
I0403 19:44:45.506860  9611 net.cpp:425] inception_3b/output <- inception_3b/5x5
I0403 19:44:45.506875  9611 net.cpp:425] inception_3b/output <- inception_3b/pool_proj
I0403 19:44:45.506891  9611 net.cpp:399] inception_3b/output -> inception_3b/output
I0403 19:44:45.506932  9611 net.cpp:141] Setting up inception_3b/output
I0403 19:44:45.506958  9611 net.cpp:148] Top shape: 24 480 28 28 (9031680)
I0403 19:44:45.506973  9611 net.cpp:156] Memory required for data: 809239584
I0403 19:44:45.506988  9611 layer_factory.hpp:77] Creating layer pool3/3x3_s2
I0403 19:44:45.507004  9611 net.cpp:91] Creating Layer pool3/3x3_s2
I0403 19:44:45.507019  9611 net.cpp:425] pool3/3x3_s2 <- inception_3b/output
I0403 19:44:45.507038  9611 net.cpp:399] pool3/3x3_s2 -> pool3/3x3_s2
I0403 19:44:45.507107  9611 net.cpp:141] Setting up pool3/3x3_s2
I0403 19:44:45.507133  9611 net.cpp:148] Top shape: 24 480 14 14 (2257920)
I0403 19:44:45.507146  9611 net.cpp:156] Memory required for data: 818271264
I0403 19:44:45.507161  9611 layer_factory.hpp:77] Creating layer pool3/3x3_s2_pool3/3x3_s2_0_split
I0403 19:44:45.507179  9611 net.cpp:91] Creating Layer pool3/3x3_s2_pool3/3x3_s2_0_split
I0403 19:44:45.507194  9611 net.cpp:425] pool3/3x3_s2_pool3/3x3_s2_0_split <- pool3/3x3_s2
I0403 19:44:45.507210  9611 net.cpp:399] pool3/3x3_s2_pool3/3x3_s2_0_split -> pool3/3x3_s2_pool3/3x3_s2_0_split_0
I0403 19:44:45.507230  9611 net.cpp:399] pool3/3x3_s2_pool3/3x3_s2_0_split -> pool3/3x3_s2_pool3/3x3_s2_0_split_1
I0403 19:44:45.507251  9611 net.cpp:399] pool3/3x3_s2_pool3/3x3_s2_0_split -> pool3/3x3_s2_pool3/3x3_s2_0_split_2
I0403 19:44:45.507277  9611 net.cpp:399] pool3/3x3_s2_pool3/3x3_s2_0_split -> pool3/3x3_s2_pool3/3x3_s2_0_split_3
I0403 19:44:45.507354  9611 net.cpp:141] Setting up pool3/3x3_s2_pool3/3x3_s2_0_split
I0403 19:44:45.507375  9611 net.cpp:148] Top shape: 24 480 14 14 (2257920)
I0403 19:44:45.507390  9611 net.cpp:148] Top shape: 24 480 14 14 (2257920)
I0403 19:44:45.507405  9611 net.cpp:148] Top shape: 24 480 14 14 (2257920)
I0403 19:44:45.507419  9611 net.cpp:148] Top shape: 24 480 14 14 (2257920)
I0403 19:44:45.507432  9611 net.cpp:156] Memory required for data: 854397984
I0403 19:44:45.507447  9611 layer_factory.hpp:77] Creating layer inception_4a/1x1
I0403 19:44:45.507468  9611 net.cpp:91] Creating Layer inception_4a/1x1
I0403 19:44:45.507485  9611 net.cpp:425] inception_4a/1x1 <- pool3/3x3_s2_pool3/3x3_s2_0_split_0
I0403 19:44:45.507505  9611 net.cpp:399] inception_4a/1x1 -> inception_4a/1x1
I0403 19:44:45.509039  9611 net.cpp:141] Setting up inception_4a/1x1
I0403 19:44:45.509066  9611 net.cpp:148] Top shape: 24 192 14 14 (903168)
I0403 19:44:45.509081  9611 net.cpp:156] Memory required for data: 858010656
I0403 19:44:45.509099  9611 layer_factory.hpp:77] Creating layer inception_4a/relu_1x1
I0403 19:44:45.509119  9611 net.cpp:91] Creating Layer inception_4a/relu_1x1
I0403 19:44:45.509135  9611 net.cpp:425] inception_4a/relu_1x1 <- inception_4a/1x1
I0403 19:44:45.509150  9611 net.cpp:386] inception_4a/relu_1x1 -> inception_4a/1x1 (in-place)
I0403 19:44:45.509325  9611 net.cpp:141] Setting up inception_4a/relu_1x1
I0403 19:44:45.509349  9611 net.cpp:148] Top shape: 24 192 14 14 (903168)
I0403 19:44:45.509363  9611 net.cpp:156] Memory required for data: 861623328
I0403 19:44:45.509377  9611 layer_factory.hpp:77] Creating layer inception_4a/3x3_reduce
I0403 19:44:45.509398  9611 net.cpp:91] Creating Layer inception_4a/3x3_reduce
I0403 19:44:45.509415  9611 net.cpp:425] inception_4a/3x3_reduce <- pool3/3x3_s2_pool3/3x3_s2_0_split_1
I0403 19:44:45.509436  9611 net.cpp:399] inception_4a/3x3_reduce -> inception_4a/3x3_reduce
I0403 19:44:45.510673  9611 net.cpp:141] Setting up inception_4a/3x3_reduce
I0403 19:44:45.510699  9611 net.cpp:148] Top shape: 24 96 14 14 (451584)
I0403 19:44:45.510715  9611 net.cpp:156] Memory required for data: 863429664
I0403 19:44:45.510740  9611 layer_factory.hpp:77] Creating layer inception_4a/relu_3x3_reduce
I0403 19:44:45.510762  9611 net.cpp:91] Creating Layer inception_4a/relu_3x3_reduce
I0403 19:44:45.510778  9611 net.cpp:425] inception_4a/relu_3x3_reduce <- inception_4a/3x3_reduce
I0403 19:44:45.510795  9611 net.cpp:386] inception_4a/relu_3x3_reduce -> inception_4a/3x3_reduce (in-place)
I0403 19:44:45.510967  9611 net.cpp:141] Setting up inception_4a/relu_3x3_reduce
I0403 19:44:45.511006  9611 net.cpp:148] Top shape: 24 96 14 14 (451584)
I0403 19:44:45.511021  9611 net.cpp:156] Memory required for data: 865236000
I0403 19:44:45.511036  9611 layer_factory.hpp:77] Creating layer inception_4a/3x3
I0403 19:44:45.511059  9611 net.cpp:91] Creating Layer inception_4a/3x3
I0403 19:44:45.511075  9611 net.cpp:425] inception_4a/3x3 <- inception_4a/3x3_reduce
I0403 19:44:45.511095  9611 net.cpp:399] inception_4a/3x3 -> inception_4a/3x3
I0403 19:44:45.513754  9611 net.cpp:141] Setting up inception_4a/3x3
I0403 19:44:45.513785  9611 net.cpp:148] Top shape: 24 208 14 14 (978432)
I0403 19:44:45.513802  9611 net.cpp:156] Memory required for data: 869149728
I0403 19:44:45.513819  9611 layer_factory.hpp:77] Creating layer inception_4a/relu_3x3
I0403 19:44:45.513838  9611 net.cpp:91] Creating Layer inception_4a/relu_3x3
I0403 19:44:45.513852  9611 net.cpp:425] inception_4a/relu_3x3 <- inception_4a/3x3
I0403 19:44:45.513871  9611 net.cpp:386] inception_4a/relu_3x3 -> inception_4a/3x3 (in-place)
I0403 19:44:45.514214  9611 net.cpp:141] Setting up inception_4a/relu_3x3
I0403 19:44:45.514241  9611 net.cpp:148] Top shape: 24 208 14 14 (978432)
I0403 19:44:45.514258  9611 net.cpp:156] Memory required for data: 873063456
I0403 19:44:45.514277  9611 layer_factory.hpp:77] Creating layer inception_4a/5x5_reduce
I0403 19:44:45.514305  9611 net.cpp:91] Creating Layer inception_4a/5x5_reduce
I0403 19:44:45.514323  9611 net.cpp:425] inception_4a/5x5_reduce <- pool3/3x3_s2_pool3/3x3_s2_0_split_2
I0403 19:44:45.514343  9611 net.cpp:399] inception_4a/5x5_reduce -> inception_4a/5x5_reduce
I0403 19:44:45.515391  9611 net.cpp:141] Setting up inception_4a/5x5_reduce
I0403 19:44:45.515420  9611 net.cpp:148] Top shape: 24 16 14 14 (75264)
I0403 19:44:45.515437  9611 net.cpp:156] Memory required for data: 873364512
I0403 19:44:45.515455  9611 layer_factory.hpp:77] Creating layer inception_4a/relu_5x5_reduce
I0403 19:44:45.515473  9611 net.cpp:91] Creating Layer inception_4a/relu_5x5_reduce
I0403 19:44:45.515489  9611 net.cpp:425] inception_4a/relu_5x5_reduce <- inception_4a/5x5_reduce
I0403 19:44:45.515508  9611 net.cpp:386] inception_4a/relu_5x5_reduce -> inception_4a/5x5_reduce (in-place)
I0403 19:44:45.515686  9611 net.cpp:141] Setting up inception_4a/relu_5x5_reduce
I0403 19:44:45.515710  9611 net.cpp:148] Top shape: 24 16 14 14 (75264)
I0403 19:44:45.515724  9611 net.cpp:156] Memory required for data: 873665568
I0403 19:44:45.515738  9611 layer_factory.hpp:77] Creating layer inception_4a/5x5
I0403 19:44:45.515760  9611 net.cpp:91] Creating Layer inception_4a/5x5
I0403 19:44:45.515777  9611 net.cpp:425] inception_4a/5x5 <- inception_4a/5x5_reduce
I0403 19:44:45.515797  9611 net.cpp:399] inception_4a/5x5 -> inception_4a/5x5
I0403 19:44:45.516960  9611 net.cpp:141] Setting up inception_4a/5x5
I0403 19:44:45.516988  9611 net.cpp:148] Top shape: 24 48 14 14 (225792)
I0403 19:44:45.517004  9611 net.cpp:156] Memory required for data: 874568736
I0403 19:44:45.517022  9611 layer_factory.hpp:77] Creating layer inception_4a/relu_5x5
I0403 19:44:45.517042  9611 net.cpp:91] Creating Layer inception_4a/relu_5x5
I0403 19:44:45.517060  9611 net.cpp:425] inception_4a/relu_5x5 <- inception_4a/5x5
I0403 19:44:45.517076  9611 net.cpp:386] inception_4a/relu_5x5 -> inception_4a/5x5 (in-place)
I0403 19:44:45.517254  9611 net.cpp:141] Setting up inception_4a/relu_5x5
I0403 19:44:45.517283  9611 net.cpp:148] Top shape: 24 48 14 14 (225792)
I0403 19:44:45.517299  9611 net.cpp:156] Memory required for data: 875471904
I0403 19:44:45.517314  9611 layer_factory.hpp:77] Creating layer inception_4a/pool
I0403 19:44:45.517335  9611 net.cpp:91] Creating Layer inception_4a/pool
I0403 19:44:45.517354  9611 net.cpp:425] inception_4a/pool <- pool3/3x3_s2_pool3/3x3_s2_0_split_3
I0403 19:44:45.517374  9611 net.cpp:399] inception_4a/pool -> inception_4a/pool
I0403 19:44:45.517434  9611 net.cpp:141] Setting up inception_4a/pool
I0403 19:44:45.517458  9611 net.cpp:148] Top shape: 24 480 14 14 (2257920)
I0403 19:44:45.517472  9611 net.cpp:156] Memory required for data: 884503584
I0403 19:44:45.517487  9611 layer_factory.hpp:77] Creating layer inception_4a/pool_proj
I0403 19:44:45.517508  9611 net.cpp:91] Creating Layer inception_4a/pool_proj
I0403 19:44:45.517525  9611 net.cpp:425] inception_4a/pool_proj <- inception_4a/pool
I0403 19:44:45.517550  9611 net.cpp:399] inception_4a/pool_proj -> inception_4a/pool_proj
I0403 19:44:45.518911  9611 net.cpp:141] Setting up inception_4a/pool_proj
I0403 19:44:45.518940  9611 net.cpp:148] Top shape: 24 64 14 14 (301056)
I0403 19:44:45.518970  9611 net.cpp:156] Memory required for data: 885707808
I0403 19:44:45.518990  9611 layer_factory.hpp:77] Creating layer inception_4a/relu_pool_proj
I0403 19:44:45.519011  9611 net.cpp:91] Creating Layer inception_4a/relu_pool_proj
I0403 19:44:45.519029  9611 net.cpp:425] inception_4a/relu_pool_proj <- inception_4a/pool_proj
I0403 19:44:45.519047  9611 net.cpp:386] inception_4a/relu_pool_proj -> inception_4a/pool_proj (in-place)
I0403 19:44:45.519338  9611 net.cpp:141] Setting up inception_4a/relu_pool_proj
I0403 19:44:45.519364  9611 net.cpp:148] Top shape: 24 64 14 14 (301056)
I0403 19:44:45.519379  9611 net.cpp:156] Memory required for data: 886912032
I0403 19:44:45.519394  9611 layer_factory.hpp:77] Creating layer inception_4a/output
I0403 19:44:45.519414  9611 net.cpp:91] Creating Layer inception_4a/output
I0403 19:44:45.519431  9611 net.cpp:425] inception_4a/output <- inception_4a/1x1
I0403 19:44:45.519448  9611 net.cpp:425] inception_4a/output <- inception_4a/3x3
I0403 19:44:45.519464  9611 net.cpp:425] inception_4a/output <- inception_4a/5x5
I0403 19:44:45.519480  9611 net.cpp:425] inception_4a/output <- inception_4a/pool_proj
I0403 19:44:45.519496  9611 net.cpp:399] inception_4a/output -> inception_4a/output
I0403 19:44:45.519543  9611 net.cpp:141] Setting up inception_4a/output
I0403 19:44:45.519567  9611 net.cpp:148] Top shape: 24 512 14 14 (2408448)
I0403 19:44:45.519580  9611 net.cpp:156] Memory required for data: 896545824
I0403 19:44:45.519596  9611 layer_factory.hpp:77] Creating layer inception_4a/output_inception_4a/output_0_split
I0403 19:44:45.519614  9611 net.cpp:91] Creating Layer inception_4a/output_inception_4a/output_0_split
I0403 19:44:45.519630  9611 net.cpp:425] inception_4a/output_inception_4a/output_0_split <- inception_4a/output
I0403 19:44:45.519649  9611 net.cpp:399] inception_4a/output_inception_4a/output_0_split -> inception_4a/output_inception_4a/output_0_split_0
I0403 19:44:45.519671  9611 net.cpp:399] inception_4a/output_inception_4a/output_0_split -> inception_4a/output_inception_4a/output_0_split_1
I0403 19:44:45.519691  9611 net.cpp:399] inception_4a/output_inception_4a/output_0_split -> inception_4a/output_inception_4a/output_0_split_2
I0403 19:44:45.519712  9611 net.cpp:399] inception_4a/output_inception_4a/output_0_split -> inception_4a/output_inception_4a/output_0_split_3
I0403 19:44:45.519732  9611 net.cpp:399] inception_4a/output_inception_4a/output_0_split -> inception_4a/output_inception_4a/output_0_split_4
I0403 19:44:45.519825  9611 net.cpp:141] Setting up inception_4a/output_inception_4a/output_0_split
I0403 19:44:45.519848  9611 net.cpp:148] Top shape: 24 512 14 14 (2408448)
I0403 19:44:45.519865  9611 net.cpp:148] Top shape: 24 512 14 14 (2408448)
I0403 19:44:45.519881  9611 net.cpp:148] Top shape: 24 512 14 14 (2408448)
I0403 19:44:45.519896  9611 net.cpp:148] Top shape: 24 512 14 14 (2408448)
I0403 19:44:45.519912  9611 net.cpp:148] Top shape: 24 512 14 14 (2408448)
I0403 19:44:45.519925  9611 net.cpp:156] Memory required for data: 944714784
I0403 19:44:45.519939  9611 layer_factory.hpp:77] Creating layer loss1/ave_pool
I0403 19:44:45.519956  9611 net.cpp:91] Creating Layer loss1/ave_pool
I0403 19:44:45.519973  9611 net.cpp:425] loss1/ave_pool <- inception_4a/output_inception_4a/output_0_split_0
I0403 19:44:45.519992  9611 net.cpp:399] loss1/ave_pool -> loss1/ave_pool
I0403 19:44:45.520205  9611 net.cpp:141] Setting up loss1/ave_pool
I0403 19:44:45.520231  9611 net.cpp:148] Top shape: 24 512 4 4 (196608)
I0403 19:44:45.520246  9611 net.cpp:156] Memory required for data: 945501216
I0403 19:44:45.520262  9611 layer_factory.hpp:77] Creating layer loss1/conv
I0403 19:44:45.520288  9611 net.cpp:91] Creating Layer loss1/conv
I0403 19:44:45.520306  9611 net.cpp:425] loss1/conv <- loss1/ave_pool
I0403 19:44:45.520328  9611 net.cpp:399] loss1/conv -> loss1/conv
I0403 19:44:45.521906  9611 net.cpp:141] Setting up loss1/conv
I0403 19:44:45.521940  9611 net.cpp:148] Top shape: 24 128 4 4 (49152)
I0403 19:44:45.521958  9611 net.cpp:156] Memory required for data: 945697824
I0403 19:44:45.521991  9611 layer_factory.hpp:77] Creating layer loss1/relu_conv
I0403 19:44:45.522011  9611 net.cpp:91] Creating Layer loss1/relu_conv
I0403 19:44:45.522027  9611 net.cpp:425] loss1/relu_conv <- loss1/conv
I0403 19:44:45.522045  9611 net.cpp:386] loss1/relu_conv -> loss1/conv (in-place)
I0403 19:44:45.522341  9611 net.cpp:141] Setting up loss1/relu_conv
I0403 19:44:45.522369  9611 net.cpp:148] Top shape: 24 128 4 4 (49152)
I0403 19:44:45.522385  9611 net.cpp:156] Memory required for data: 945894432
I0403 19:44:45.522399  9611 layer_factory.hpp:77] Creating layer loss1/fc
I0403 19:44:45.522423  9611 net.cpp:91] Creating Layer loss1/fc
I0403 19:44:45.522441  9611 net.cpp:425] loss1/fc <- loss1/conv
I0403 19:44:45.522462  9611 net.cpp:399] loss1/fc -> loss1/fc
I0403 19:44:45.540372  9611 net.cpp:141] Setting up loss1/fc
I0403 19:44:45.540452  9611 net.cpp:148] Top shape: 24 1024 (24576)
I0403 19:44:45.540467  9611 net.cpp:156] Memory required for data: 945992736
I0403 19:44:45.540488  9611 layer_factory.hpp:77] Creating layer loss1/relu_fc
I0403 19:44:45.540511  9611 net.cpp:91] Creating Layer loss1/relu_fc
I0403 19:44:45.540529  9611 net.cpp:425] loss1/relu_fc <- loss1/fc
I0403 19:44:45.540547  9611 net.cpp:386] loss1/relu_fc -> loss1/fc (in-place)
I0403 19:44:45.540767  9611 net.cpp:141] Setting up loss1/relu_fc
I0403 19:44:45.540791  9611 net.cpp:148] Top shape: 24 1024 (24576)
I0403 19:44:45.540807  9611 net.cpp:156] Memory required for data: 946091040
I0403 19:44:45.540820  9611 layer_factory.hpp:77] Creating layer loss1/drop_fc
I0403 19:44:45.540848  9611 net.cpp:91] Creating Layer loss1/drop_fc
I0403 19:44:45.540865  9611 net.cpp:425] loss1/drop_fc <- loss1/fc
I0403 19:44:45.540885  9611 net.cpp:386] loss1/drop_fc -> loss1/fc (in-place)
I0403 19:44:45.540938  9611 net.cpp:141] Setting up loss1/drop_fc
I0403 19:44:45.540961  9611 net.cpp:148] Top shape: 24 1024 (24576)
I0403 19:44:45.540976  9611 net.cpp:156] Memory required for data: 946189344
I0403 19:44:45.540989  9611 layer_factory.hpp:77] Creating layer loss1/classifier_plantvillage
I0403 19:44:45.541013  9611 net.cpp:91] Creating Layer loss1/classifier_plantvillage
I0403 19:44:45.541028  9611 net.cpp:425] loss1/classifier_plantvillage <- loss1/fc
I0403 19:44:45.541046  9611 net.cpp:399] loss1/classifier_plantvillage -> loss1/classifier_plantvillage
I0403 19:44:45.541975  9611 net.cpp:141] Setting up loss1/classifier_plantvillage
I0403 19:44:45.542002  9611 net.cpp:148] Top shape: 24 38 (912)
I0403 19:44:45.542017  9611 net.cpp:156] Memory required for data: 946192992
I0403 19:44:45.542034  9611 layer_factory.hpp:77] Creating layer loss1/classifier_plantvillage_loss1/classifier_plantvillage_0_split
I0403 19:44:45.542054  9611 net.cpp:91] Creating Layer loss1/classifier_plantvillage_loss1/classifier_plantvillage_0_split
I0403 19:44:45.542070  9611 net.cpp:425] loss1/classifier_plantvillage_loss1/classifier_plantvillage_0_split <- loss1/classifier_plantvillage
I0403 19:44:45.542088  9611 net.cpp:399] loss1/classifier_plantvillage_loss1/classifier_plantvillage_0_split -> loss1/classifier_plantvillage_loss1/classifier_plantvillage_0_split_0
I0403 19:44:45.542110  9611 net.cpp:399] loss1/classifier_plantvillage_loss1/classifier_plantvillage_0_split -> loss1/classifier_plantvillage_loss1/classifier_plantvillage_0_split_1
I0403 19:44:45.542130  9611 net.cpp:399] loss1/classifier_plantvillage_loss1/classifier_plantvillage_0_split -> loss1/classifier_plantvillage_loss1/classifier_plantvillage_0_split_2
I0403 19:44:45.542196  9611 net.cpp:141] Setting up loss1/classifier_plantvillage_loss1/classifier_plantvillage_0_split
I0403 19:44:45.542217  9611 net.cpp:148] Top shape: 24 38 (912)
I0403 19:44:45.542233  9611 net.cpp:148] Top shape: 24 38 (912)
I0403 19:44:45.542248  9611 net.cpp:148] Top shape: 24 38 (912)
I0403 19:44:45.542261  9611 net.cpp:156] Memory required for data: 946203936
I0403 19:44:45.542285  9611 layer_factory.hpp:77] Creating layer inception_4b/1x1
I0403 19:44:45.542312  9611 net.cpp:91] Creating Layer inception_4b/1x1
I0403 19:44:45.542356  9611 net.cpp:425] inception_4b/1x1 <- inception_4a/output_inception_4a/output_0_split_1
I0403 19:44:45.542376  9611 net.cpp:399] inception_4b/1x1 -> inception_4b/1x1
I0403 19:44:45.544252  9611 net.cpp:141] Setting up inception_4b/1x1
I0403 19:44:45.544286  9611 net.cpp:148] Top shape: 24 160 14 14 (752640)
I0403 19:44:45.544303  9611 net.cpp:156] Memory required for data: 949214496
I0403 19:44:45.544322  9611 layer_factory.hpp:77] Creating layer inception_4b/relu_1x1
I0403 19:44:45.544339  9611 net.cpp:91] Creating Layer inception_4b/relu_1x1
I0403 19:44:45.544355  9611 net.cpp:425] inception_4b/relu_1x1 <- inception_4b/1x1
I0403 19:44:45.544373  9611 net.cpp:386] inception_4b/relu_1x1 -> inception_4b/1x1 (in-place)
I0403 19:44:45.544551  9611 net.cpp:141] Setting up inception_4b/relu_1x1
I0403 19:44:45.544575  9611 net.cpp:148] Top shape: 24 160 14 14 (752640)
I0403 19:44:45.544589  9611 net.cpp:156] Memory required for data: 952225056
I0403 19:44:45.544605  9611 layer_factory.hpp:77] Creating layer inception_4b/3x3_reduce
I0403 19:44:45.544626  9611 net.cpp:91] Creating Layer inception_4b/3x3_reduce
I0403 19:44:45.544642  9611 net.cpp:425] inception_4b/3x3_reduce <- inception_4a/output_inception_4a/output_0_split_2
I0403 19:44:45.544663  9611 net.cpp:399] inception_4b/3x3_reduce -> inception_4b/3x3_reduce
I0403 19:44:45.546169  9611 net.cpp:141] Setting up inception_4b/3x3_reduce
I0403 19:44:45.546197  9611 net.cpp:148] Top shape: 24 112 14 14 (526848)
I0403 19:44:45.546213  9611 net.cpp:156] Memory required for data: 954332448
I0403 19:44:45.546231  9611 layer_factory.hpp:77] Creating layer inception_4b/relu_3x3_reduce
I0403 19:44:45.546252  9611 net.cpp:91] Creating Layer inception_4b/relu_3x3_reduce
I0403 19:44:45.546268  9611 net.cpp:425] inception_4b/relu_3x3_reduce <- inception_4b/3x3_reduce
I0403 19:44:45.546290  9611 net.cpp:386] inception_4b/relu_3x3_reduce -> inception_4b/3x3_reduce (in-place)
I0403 19:44:45.546572  9611 net.cpp:141] Setting up inception_4b/relu_3x3_reduce
I0403 19:44:45.546598  9611 net.cpp:148] Top shape: 24 112 14 14 (526848)
I0403 19:44:45.546613  9611 net.cpp:156] Memory required for data: 956439840
I0403 19:44:45.546628  9611 layer_factory.hpp:77] Creating layer inception_4b/3x3
I0403 19:44:45.546649  9611 net.cpp:91] Creating Layer inception_4b/3x3
I0403 19:44:45.546668  9611 net.cpp:425] inception_4b/3x3 <- inception_4b/3x3_reduce
I0403 19:44:45.546687  9611 net.cpp:399] inception_4b/3x3 -> inception_4b/3x3
I0403 19:44:45.549701  9611 net.cpp:141] Setting up inception_4b/3x3
I0403 19:44:45.549729  9611 net.cpp:148] Top shape: 24 224 14 14 (1053696)
I0403 19:44:45.549746  9611 net.cpp:156] Memory required for data: 960654624
I0403 19:44:45.549763  9611 layer_factory.hpp:77] Creating layer inception_4b/relu_3x3
I0403 19:44:45.549783  9611 net.cpp:91] Creating Layer inception_4b/relu_3x3
I0403 19:44:45.549799  9611 net.cpp:425] inception_4b/relu_3x3 <- inception_4b/3x3
I0403 19:44:45.549816  9611 net.cpp:386] inception_4b/relu_3x3 -> inception_4b/3x3 (in-place)
I0403 19:44:45.549994  9611 net.cpp:141] Setting up inception_4b/relu_3x3
I0403 19:44:45.550019  9611 net.cpp:148] Top shape: 24 224 14 14 (1053696)
I0403 19:44:45.550032  9611 net.cpp:156] Memory required for data: 964869408
I0403 19:44:45.550047  9611 layer_factory.hpp:77] Creating layer inception_4b/5x5_reduce
I0403 19:44:45.550070  9611 net.cpp:91] Creating Layer inception_4b/5x5_reduce
I0403 19:44:45.550086  9611 net.cpp:425] inception_4b/5x5_reduce <- inception_4a/output_inception_4a/output_0_split_3
I0403 19:44:45.550110  9611 net.cpp:399] inception_4b/5x5_reduce -> inception_4b/5x5_reduce
I0403 19:44:45.551192  9611 net.cpp:141] Setting up inception_4b/5x5_reduce
I0403 19:44:45.551219  9611 net.cpp:148] Top shape: 24 24 14 14 (112896)
I0403 19:44:45.551234  9611 net.cpp:156] Memory required for data: 965320992
I0403 19:44:45.551251  9611 layer_factory.hpp:77] Creating layer inception_4b/relu_5x5_reduce
I0403 19:44:45.551270  9611 net.cpp:91] Creating Layer inception_4b/relu_5x5_reduce
I0403 19:44:45.551306  9611 net.cpp:425] inception_4b/relu_5x5_reduce <- inception_4b/5x5_reduce
I0403 19:44:45.551326  9611 net.cpp:386] inception_4b/relu_5x5_reduce -> inception_4b/5x5_reduce (in-place)
I0403 19:44:45.551506  9611 net.cpp:141] Setting up inception_4b/relu_5x5_reduce
I0403 19:44:45.551529  9611 net.cpp:148] Top shape: 24 24 14 14 (112896)
I0403 19:44:45.551543  9611 net.cpp:156] Memory required for data: 965772576
I0403 19:44:45.551558  9611 layer_factory.hpp:77] Creating layer inception_4b/5x5
I0403 19:44:45.551580  9611 net.cpp:91] Creating Layer inception_4b/5x5
I0403 19:44:45.551597  9611 net.cpp:425] inception_4b/5x5 <- inception_4b/5x5_reduce
I0403 19:44:45.551617  9611 net.cpp:399] inception_4b/5x5 -> inception_4b/5x5
I0403 19:44:45.552842  9611 net.cpp:141] Setting up inception_4b/5x5
I0403 19:44:45.552872  9611 net.cpp:148] Top shape: 24 64 14 14 (301056)
I0403 19:44:45.552888  9611 net.cpp:156] Memory required for data: 966976800
I0403 19:44:45.552906  9611 layer_factory.hpp:77] Creating layer inception_4b/relu_5x5
I0403 19:44:45.552924  9611 net.cpp:91] Creating Layer inception_4b/relu_5x5
I0403 19:44:45.552939  9611 net.cpp:425] inception_4b/relu_5x5 <- inception_4b/5x5
I0403 19:44:45.552958  9611 net.cpp:386] inception_4b/relu_5x5 -> inception_4b/5x5 (in-place)
I0403 19:44:45.553233  9611 net.cpp:141] Setting up inception_4b/relu_5x5
I0403 19:44:45.553263  9611 net.cpp:148] Top shape: 24 64 14 14 (301056)
I0403 19:44:45.553283  9611 net.cpp:156] Memory required for data: 968181024
I0403 19:44:45.553299  9611 layer_factory.hpp:77] Creating layer inception_4b/pool
I0403 19:44:45.553318  9611 net.cpp:91] Creating Layer inception_4b/pool
I0403 19:44:45.553333  9611 net.cpp:425] inception_4b/pool <- inception_4a/output_inception_4a/output_0_split_4
I0403 19:44:45.553354  9611 net.cpp:399] inception_4b/pool -> inception_4b/pool
I0403 19:44:45.553416  9611 net.cpp:141] Setting up inception_4b/pool
I0403 19:44:45.553442  9611 net.cpp:148] Top shape: 24 512 14 14 (2408448)
I0403 19:44:45.553457  9611 net.cpp:156] Memory required for data: 977814816
I0403 19:44:45.553470  9611 layer_factory.hpp:77] Creating layer inception_4b/pool_proj
I0403 19:44:45.553493  9611 net.cpp:91] Creating Layer inception_4b/pool_proj
I0403 19:44:45.553510  9611 net.cpp:425] inception_4b/pool_proj <- inception_4b/pool
I0403 19:44:45.553529  9611 net.cpp:399] inception_4b/pool_proj -> inception_4b/pool_proj
I0403 19:44:45.554741  9611 net.cpp:141] Setting up inception_4b/pool_proj
I0403 19:44:45.554769  9611 net.cpp:148] Top shape: 24 64 14 14 (301056)
I0403 19:44:45.554785  9611 net.cpp:156] Memory required for data: 979019040
I0403 19:44:45.554802  9611 layer_factory.hpp:77] Creating layer inception_4b/relu_pool_proj
I0403 19:44:45.554822  9611 net.cpp:91] Creating Layer inception_4b/relu_pool_proj
I0403 19:44:45.554838  9611 net.cpp:425] inception_4b/relu_pool_proj <- inception_4b/pool_proj
I0403 19:44:45.554855  9611 net.cpp:386] inception_4b/relu_pool_proj -> inception_4b/pool_proj (in-place)
I0403 19:44:45.555030  9611 net.cpp:141] Setting up inception_4b/relu_pool_proj
I0403 19:44:45.555054  9611 net.cpp:148] Top shape: 24 64 14 14 (301056)
I0403 19:44:45.555068  9611 net.cpp:156] Memory required for data: 980223264
I0403 19:44:45.555083  9611 layer_factory.hpp:77] Creating layer inception_4b/output
I0403 19:44:45.555104  9611 net.cpp:91] Creating Layer inception_4b/output
I0403 19:44:45.555121  9611 net.cpp:425] inception_4b/output <- inception_4b/1x1
I0403 19:44:45.555136  9611 net.cpp:425] inception_4b/output <- inception_4b/3x3
I0403 19:44:45.555151  9611 net.cpp:425] inception_4b/output <- inception_4b/5x5
I0403 19:44:45.555166  9611 net.cpp:425] inception_4b/output <- inception_4b/pool_proj
I0403 19:44:45.555183  9611 net.cpp:399] inception_4b/output -> inception_4b/output
I0403 19:44:45.555229  9611 net.cpp:141] Setting up inception_4b/output
I0403 19:44:45.555253  9611 net.cpp:148] Top shape: 24 512 14 14 (2408448)
I0403 19:44:45.555266  9611 net.cpp:156] Memory required for data: 989857056
I0403 19:44:45.555299  9611 layer_factory.hpp:77] Creating layer inception_4b/output_inception_4b/output_0_split
I0403 19:44:45.555316  9611 net.cpp:91] Creating Layer inception_4b/output_inception_4b/output_0_split
I0403 19:44:45.555331  9611 net.cpp:425] inception_4b/output_inception_4b/output_0_split <- inception_4b/output
I0403 19:44:45.555349  9611 net.cpp:399] inception_4b/output_inception_4b/output_0_split -> inception_4b/output_inception_4b/output_0_split_0
I0403 19:44:45.555371  9611 net.cpp:399] inception_4b/output_inception_4b/output_0_split -> inception_4b/output_inception_4b/output_0_split_1
I0403 19:44:45.555392  9611 net.cpp:399] inception_4b/output_inception_4b/output_0_split -> inception_4b/output_inception_4b/output_0_split_2
I0403 19:44:45.555411  9611 net.cpp:399] inception_4b/output_inception_4b/output_0_split -> inception_4b/output_inception_4b/output_0_split_3
I0403 19:44:45.555495  9611 net.cpp:141] Setting up inception_4b/output_inception_4b/output_0_split
I0403 19:44:45.555521  9611 net.cpp:148] Top shape: 24 512 14 14 (2408448)
I0403 19:44:45.555536  9611 net.cpp:148] Top shape: 24 512 14 14 (2408448)
I0403 19:44:45.555552  9611 net.cpp:148] Top shape: 24 512 14 14 (2408448)
I0403 19:44:45.555565  9611 net.cpp:148] Top shape: 24 512 14 14 (2408448)
I0403 19:44:45.555579  9611 net.cpp:156] Memory required for data: 1028392224
I0403 19:44:45.555593  9611 layer_factory.hpp:77] Creating layer inception_4c/1x1
I0403 19:44:45.555614  9611 net.cpp:91] Creating Layer inception_4c/1x1
I0403 19:44:45.555631  9611 net.cpp:425] inception_4c/1x1 <- inception_4b/output_inception_4b/output_0_split_0
I0403 19:44:45.555649  9611 net.cpp:399] inception_4c/1x1 -> inception_4c/1x1
I0403 19:44:45.557092  9611 net.cpp:141] Setting up inception_4c/1x1
I0403 19:44:45.557121  9611 net.cpp:148] Top shape: 24 128 14 14 (602112)
I0403 19:44:45.557135  9611 net.cpp:156] Memory required for data: 1030800672
I0403 19:44:45.557153  9611 layer_factory.hpp:77] Creating layer inception_4c/relu_1x1
I0403 19:44:45.557174  9611 net.cpp:91] Creating Layer inception_4c/relu_1x1
I0403 19:44:45.557190  9611 net.cpp:425] inception_4c/relu_1x1 <- inception_4c/1x1
I0403 19:44:45.557207  9611 net.cpp:386] inception_4c/relu_1x1 -> inception_4c/1x1 (in-place)
I0403 19:44:45.557392  9611 net.cpp:141] Setting up inception_4c/relu_1x1
I0403 19:44:45.557420  9611 net.cpp:148] Top shape: 24 128 14 14 (602112)
I0403 19:44:45.557435  9611 net.cpp:156] Memory required for data: 1033209120
I0403 19:44:45.557448  9611 layer_factory.hpp:77] Creating layer inception_4c/3x3_reduce
I0403 19:44:45.557469  9611 net.cpp:91] Creating Layer inception_4c/3x3_reduce
I0403 19:44:45.557487  9611 net.cpp:425] inception_4c/3x3_reduce <- inception_4b/output_inception_4b/output_0_split_1
I0403 19:44:45.557505  9611 net.cpp:399] inception_4c/3x3_reduce -> inception_4c/3x3_reduce
I0403 19:44:45.559710  9611 net.cpp:141] Setting up inception_4c/3x3_reduce
I0403 19:44:45.559739  9611 net.cpp:148] Top shape: 24 128 14 14 (602112)
I0403 19:44:45.559754  9611 net.cpp:156] Memory required for data: 1035617568
I0403 19:44:45.559775  9611 layer_factory.hpp:77] Creating layer inception_4c/relu_3x3_reduce
I0403 19:44:45.559794  9611 net.cpp:91] Creating Layer inception_4c/relu_3x3_reduce
I0403 19:44:45.559810  9611 net.cpp:425] inception_4c/relu_3x3_reduce <- inception_4c/3x3_reduce
I0403 19:44:45.559830  9611 net.cpp:386] inception_4c/relu_3x3_reduce -> inception_4c/3x3_reduce (in-place)
I0403 19:44:45.560240  9611 net.cpp:141] Setting up inception_4c/relu_3x3_reduce
I0403 19:44:45.560267  9611 net.cpp:148] Top shape: 24 128 14 14 (602112)
I0403 19:44:45.560288  9611 net.cpp:156] Memory required for data: 1038026016
I0403 19:44:45.560304  9611 layer_factory.hpp:77] Creating layer inception_4c/3x3
I0403 19:44:45.560328  9611 net.cpp:91] Creating Layer inception_4c/3x3
I0403 19:44:45.560346  9611 net.cpp:425] inception_4c/3x3 <- inception_4c/3x3_reduce
I0403 19:44:45.560370  9611 net.cpp:399] inception_4c/3x3 -> inception_4c/3x3
I0403 19:44:45.564354  9611 net.cpp:141] Setting up inception_4c/3x3
I0403 19:44:45.564399  9611 net.cpp:148] Top shape: 24 256 14 14 (1204224)
I0403 19:44:45.564414  9611 net.cpp:156] Memory required for data: 1042842912
I0403 19:44:45.564448  9611 layer_factory.hpp:77] Creating layer inception_4c/relu_3x3
I0403 19:44:45.564470  9611 net.cpp:91] Creating Layer inception_4c/relu_3x3
I0403 19:44:45.564517  9611 net.cpp:425] inception_4c/relu_3x3 <- inception_4c/3x3
I0403 19:44:45.564535  9611 net.cpp:386] inception_4c/relu_3x3 -> inception_4c/3x3 (in-place)
I0403 19:44:45.564728  9611 net.cpp:141] Setting up inception_4c/relu_3x3
I0403 19:44:45.564780  9611 net.cpp:148] Top shape: 24 256 14 14 (1204224)
I0403 19:44:45.564821  9611 net.cpp:156] Memory required for data: 1047659808
I0403 19:44:45.564865  9611 layer_factory.hpp:77] Creating layer inception_4c/5x5_reduce
I0403 19:44:45.564896  9611 net.cpp:91] Creating Layer inception_4c/5x5_reduce
I0403 19:44:45.564923  9611 net.cpp:425] inception_4c/5x5_reduce <- inception_4b/output_inception_4b/output_0_split_2
I0403 19:44:45.564970  9611 net.cpp:399] inception_4c/5x5_reduce -> inception_4c/5x5_reduce
I0403 19:44:45.566084  9611 net.cpp:141] Setting up inception_4c/5x5_reduce
I0403 19:44:45.566114  9611 net.cpp:148] Top shape: 24 24 14 14 (112896)
I0403 19:44:45.566129  9611 net.cpp:156] Memory required for data: 1048111392
I0403 19:44:45.566161  9611 layer_factory.hpp:77] Creating layer inception_4c/relu_5x5_reduce
I0403 19:44:45.566202  9611 net.cpp:91] Creating Layer inception_4c/relu_5x5_reduce
I0403 19:44:45.566242  9611 net.cpp:425] inception_4c/relu_5x5_reduce <- inception_4c/5x5_reduce
I0403 19:44:45.566295  9611 net.cpp:386] inception_4c/relu_5x5_reduce -> inception_4c/5x5_reduce (in-place)
I0403 19:44:45.566505  9611 net.cpp:141] Setting up inception_4c/relu_5x5_reduce
I0403 19:44:45.566540  9611 net.cpp:148] Top shape: 24 24 14 14 (112896)
I0403 19:44:45.566561  9611 net.cpp:156] Memory required for data: 1048562976
I0403 19:44:45.566586  9611 layer_factory.hpp:77] Creating layer inception_4c/5x5
I0403 19:44:45.566622  9611 net.cpp:91] Creating Layer inception_4c/5x5
I0403 19:44:45.566650  9611 net.cpp:425] inception_4c/5x5 <- inception_4c/5x5_reduce
I0403 19:44:45.566676  9611 net.cpp:399] inception_4c/5x5 -> inception_4c/5x5
I0403 19:44:45.567960  9611 net.cpp:141] Setting up inception_4c/5x5
I0403 19:44:45.567988  9611 net.cpp:148] Top shape: 24 64 14 14 (301056)
I0403 19:44:45.568014  9611 net.cpp:156] Memory required for data: 1049767200
I0403 19:44:45.568059  9611 layer_factory.hpp:77] Creating layer inception_4c/relu_5x5
I0403 19:44:45.568102  9611 net.cpp:91] Creating Layer inception_4c/relu_5x5
I0403 19:44:45.568131  9611 net.cpp:425] inception_4c/relu_5x5 <- inception_4c/5x5
I0403 19:44:45.568161  9611 net.cpp:386] inception_4c/relu_5x5 -> inception_4c/5x5 (in-place)
I0403 19:44:45.568471  9611 net.cpp:141] Setting up inception_4c/relu_5x5
I0403 19:44:45.568523  9611 net.cpp:148] Top shape: 24 64 14 14 (301056)
I0403 19:44:45.568557  9611 net.cpp:156] Memory required for data: 1050971424
I0403 19:44:45.568598  9611 layer_factory.hpp:77] Creating layer inception_4c/pool
I0403 19:44:45.568648  9611 net.cpp:91] Creating Layer inception_4c/pool
I0403 19:44:45.568678  9611 net.cpp:425] inception_4c/pool <- inception_4b/output_inception_4b/output_0_split_3
I0403 19:44:45.568714  9611 net.cpp:399] inception_4c/pool -> inception_4c/pool
I0403 19:44:45.568796  9611 net.cpp:141] Setting up inception_4c/pool
I0403 19:44:45.568825  9611 net.cpp:148] Top shape: 24 512 14 14 (2408448)
I0403 19:44:45.568841  9611 net.cpp:156] Memory required for data: 1060605216
I0403 19:44:45.568871  9611 layer_factory.hpp:77] Creating layer inception_4c/pool_proj
I0403 19:44:45.568912  9611 net.cpp:91] Creating Layer inception_4c/pool_proj
I0403 19:44:45.568936  9611 net.cpp:425] inception_4c/pool_proj <- inception_4c/pool
I0403 19:44:45.568958  9611 net.cpp:399] inception_4c/pool_proj -> inception_4c/pool_proj
I0403 19:44:45.570284  9611 net.cpp:141] Setting up inception_4c/pool_proj
I0403 19:44:45.570328  9611 net.cpp:148] Top shape: 24 64 14 14 (301056)
I0403 19:44:45.570377  9611 net.cpp:156] Memory required for data: 1061809440
I0403 19:44:45.570413  9611 layer_factory.hpp:77] Creating layer inception_4c/relu_pool_proj
I0403 19:44:45.570446  9611 net.cpp:91] Creating Layer inception_4c/relu_pool_proj
I0403 19:44:45.570474  9611 net.cpp:425] inception_4c/relu_pool_proj <- inception_4c/pool_proj
I0403 19:44:45.570499  9611 net.cpp:386] inception_4c/relu_pool_proj -> inception_4c/pool_proj (in-place)
I0403 19:44:45.570734  9611 net.cpp:141] Setting up inception_4c/relu_pool_proj
I0403 19:44:45.570786  9611 net.cpp:148] Top shape: 24 64 14 14 (301056)
I0403 19:44:45.570822  9611 net.cpp:156] Memory required for data: 1063013664
I0403 19:44:45.570847  9611 layer_factory.hpp:77] Creating layer inception_4c/output
I0403 19:44:45.570888  9611 net.cpp:91] Creating Layer inception_4c/output
I0403 19:44:45.570932  9611 net.cpp:425] inception_4c/output <- inception_4c/1x1
I0403 19:44:45.570996  9611 net.cpp:425] inception_4c/output <- inception_4c/3x3
I0403 19:44:45.571043  9611 net.cpp:425] inception_4c/output <- inception_4c/5x5
I0403 19:44:45.571089  9611 net.cpp:425] inception_4c/output <- inception_4c/pool_proj
I0403 19:44:45.571141  9611 net.cpp:399] inception_4c/output -> inception_4c/output
I0403 19:44:45.571223  9611 net.cpp:141] Setting up inception_4c/output
I0403 19:44:45.571282  9611 net.cpp:148] Top shape: 24 512 14 14 (2408448)
I0403 19:44:45.571329  9611 net.cpp:156] Memory required for data: 1072647456
I0403 19:44:45.571377  9611 layer_factory.hpp:77] Creating layer inception_4c/output_inception_4c/output_0_split
I0403 19:44:45.571430  9611 net.cpp:91] Creating Layer inception_4c/output_inception_4c/output_0_split
I0403 19:44:45.571488  9611 net.cpp:425] inception_4c/output_inception_4c/output_0_split <- inception_4c/output
I0403 19:44:45.571550  9611 net.cpp:399] inception_4c/output_inception_4c/output_0_split -> inception_4c/output_inception_4c/output_0_split_0
I0403 19:44:45.571591  9611 net.cpp:399] inception_4c/output_inception_4c/output_0_split -> inception_4c/output_inception_4c/output_0_split_1
I0403 19:44:45.571627  9611 net.cpp:399] inception_4c/output_inception_4c/output_0_split -> inception_4c/output_inception_4c/output_0_split_2
I0403 19:44:45.571667  9611 net.cpp:399] inception_4c/output_inception_4c/output_0_split -> inception_4c/output_inception_4c/output_0_split_3
I0403 19:44:45.571789  9611 net.cpp:141] Setting up inception_4c/output_inception_4c/output_0_split
I0403 19:44:45.571840  9611 net.cpp:148] Top shape: 24 512 14 14 (2408448)
I0403 19:44:45.571897  9611 net.cpp:148] Top shape: 24 512 14 14 (2408448)
I0403 19:44:45.571940  9611 net.cpp:148] Top shape: 24 512 14 14 (2408448)
I0403 19:44:45.571990  9611 net.cpp:148] Top shape: 24 512 14 14 (2408448)
I0403 19:44:45.572042  9611 net.cpp:156] Memory required for data: 1111182624
I0403 19:44:45.572087  9611 layer_factory.hpp:77] Creating layer inception_4d/1x1
I0403 19:44:45.572111  9611 net.cpp:91] Creating Layer inception_4d/1x1
I0403 19:44:45.572131  9611 net.cpp:425] inception_4d/1x1 <- inception_4c/output_inception_4c/output_0_split_0
I0403 19:44:45.572150  9611 net.cpp:399] inception_4d/1x1 -> inception_4d/1x1
I0403 19:44:45.573608  9611 net.cpp:141] Setting up inception_4d/1x1
I0403 19:44:45.573640  9611 net.cpp:148] Top shape: 24 112 14 14 (526848)
I0403 19:44:45.573657  9611 net.cpp:156] Memory required for data: 1113290016
I0403 19:44:45.573675  9611 layer_factory.hpp:77] Creating layer inception_4d/relu_1x1
I0403 19:44:45.573694  9611 net.cpp:91] Creating Layer inception_4d/relu_1x1
I0403 19:44:45.573716  9611 net.cpp:425] inception_4d/relu_1x1 <- inception_4d/1x1
I0403 19:44:45.573735  9611 net.cpp:386] inception_4d/relu_1x1 -> inception_4d/1x1 (in-place)
I0403 19:44:45.573931  9611 net.cpp:141] Setting up inception_4d/relu_1x1
I0403 19:44:45.573969  9611 net.cpp:148] Top shape: 24 112 14 14 (526848)
I0403 19:44:45.573989  9611 net.cpp:156] Memory required for data: 1115397408
I0403 19:44:45.574009  9611 layer_factory.hpp:77] Creating layer inception_4d/3x3_reduce
I0403 19:44:45.574048  9611 net.cpp:91] Creating Layer inception_4d/3x3_reduce
I0403 19:44:45.574071  9611 net.cpp:425] inception_4d/3x3_reduce <- inception_4c/output_inception_4c/output_0_split_1
I0403 19:44:45.574101  9611 net.cpp:399] inception_4d/3x3_reduce -> inception_4d/3x3_reduce
I0403 19:44:45.575717  9611 net.cpp:141] Setting up inception_4d/3x3_reduce
I0403 19:44:45.575747  9611 net.cpp:148] Top shape: 24 144 14 14 (677376)
I0403 19:44:45.575762  9611 net.cpp:156] Memory required for data: 1118106912
I0403 19:44:45.575780  9611 layer_factory.hpp:77] Creating layer inception_4d/relu_3x3_reduce
I0403 19:44:45.575803  9611 net.cpp:91] Creating Layer inception_4d/relu_3x3_reduce
I0403 19:44:45.575819  9611 net.cpp:425] inception_4d/relu_3x3_reduce <- inception_4d/3x3_reduce
I0403 19:44:45.575836  9611 net.cpp:386] inception_4d/relu_3x3_reduce -> inception_4d/3x3_reduce (in-place)
I0403 19:44:45.576138  9611 net.cpp:141] Setting up inception_4d/relu_3x3_reduce
I0403 19:44:45.576165  9611 net.cpp:148] Top shape: 24 144 14 14 (677376)
I0403 19:44:45.576181  9611 net.cpp:156] Memory required for data: 1120816416
I0403 19:44:45.576196  9611 layer_factory.hpp:77] Creating layer inception_4d/3x3
I0403 19:44:45.576220  9611 net.cpp:91] Creating Layer inception_4d/3x3
I0403 19:44:45.576238  9611 net.cpp:425] inception_4d/3x3 <- inception_4d/3x3_reduce
I0403 19:44:45.576261  9611 net.cpp:399] inception_4d/3x3 -> inception_4d/3x3
I0403 19:44:45.580821  9611 net.cpp:141] Setting up inception_4d/3x3
I0403 19:44:45.580870  9611 net.cpp:148] Top shape: 24 288 14 14 (1354752)
I0403 19:44:45.580893  9611 net.cpp:156] Memory required for data: 1126235424
I0403 19:44:45.580912  9611 layer_factory.hpp:77] Creating layer inception_4d/relu_3x3
I0403 19:44:45.580932  9611 net.cpp:91] Creating Layer inception_4d/relu_3x3
I0403 19:44:45.580951  9611 net.cpp:425] inception_4d/relu_3x3 <- inception_4d/3x3
I0403 19:44:45.580972  9611 net.cpp:386] inception_4d/relu_3x3 -> inception_4d/3x3 (in-place)
I0403 19:44:45.581176  9611 net.cpp:141] Setting up inception_4d/relu_3x3
I0403 19:44:45.581203  9611 net.cpp:148] Top shape: 24 288 14 14 (1354752)
I0403 19:44:45.581219  9611 net.cpp:156] Memory required for data: 1131654432
I0403 19:44:45.581236  9611 layer_factory.hpp:77] Creating layer inception_4d/5x5_reduce
I0403 19:44:45.581259  9611 net.cpp:91] Creating Layer inception_4d/5x5_reduce
I0403 19:44:45.581284  9611 net.cpp:425] inception_4d/5x5_reduce <- inception_4c/output_inception_4c/output_0_split_2
I0403 19:44:45.581310  9611 net.cpp:399] inception_4d/5x5_reduce -> inception_4d/5x5_reduce
I0403 19:44:45.582556  9611 net.cpp:141] Setting up inception_4d/5x5_reduce
I0403 19:44:45.582587  9611 net.cpp:148] Top shape: 24 32 14 14 (150528)
I0403 19:44:45.582604  9611 net.cpp:156] Memory required for data: 1132256544
I0403 19:44:45.582624  9611 layer_factory.hpp:77] Creating layer inception_4d/relu_5x5_reduce
I0403 19:44:45.582643  9611 net.cpp:91] Creating Layer inception_4d/relu_5x5_reduce
I0403 19:44:45.582659  9611 net.cpp:425] inception_4d/relu_5x5_reduce <- inception_4d/5x5_reduce
I0403 19:44:45.582679  9611 net.cpp:386] inception_4d/relu_5x5_reduce -> inception_4d/5x5_reduce (in-place)
I0403 19:44:45.582885  9611 net.cpp:141] Setting up inception_4d/relu_5x5_reduce
I0403 19:44:45.582924  9611 net.cpp:148] Top shape: 24 32 14 14 (150528)
I0403 19:44:45.582939  9611 net.cpp:156] Memory required for data: 1132858656
I0403 19:44:45.582955  9611 layer_factory.hpp:77] Creating layer inception_4d/5x5
I0403 19:44:45.582979  9611 net.cpp:91] Creating Layer inception_4d/5x5
I0403 19:44:45.582999  9611 net.cpp:425] inception_4d/5x5 <- inception_4d/5x5_reduce
I0403 19:44:45.583021  9611 net.cpp:399] inception_4d/5x5 -> inception_4d/5x5
I0403 19:44:45.584601  9611 net.cpp:141] Setting up inception_4d/5x5
I0403 19:44:45.584630  9611 net.cpp:148] Top shape: 24 64 14 14 (301056)
I0403 19:44:45.584645  9611 net.cpp:156] Memory required for data: 1134062880
I0403 19:44:45.584664  9611 layer_factory.hpp:77] Creating layer inception_4d/relu_5x5
I0403 19:44:45.584712  9611 net.cpp:91] Creating Layer inception_4d/relu_5x5
I0403 19:44:45.584728  9611 net.cpp:425] inception_4d/relu_5x5 <- inception_4d/5x5
I0403 19:44:45.584746  9611 net.cpp:386] inception_4d/relu_5x5 -> inception_4d/5x5 (in-place)
I0403 19:44:45.585048  9611 net.cpp:141] Setting up inception_4d/relu_5x5
I0403 19:44:45.585075  9611 net.cpp:148] Top shape: 24 64 14 14 (301056)
I0403 19:44:45.585090  9611 net.cpp:156] Memory required for data: 1135267104
I0403 19:44:45.585104  9611 layer_factory.hpp:77] Creating layer inception_4d/pool
I0403 19:44:45.585124  9611 net.cpp:91] Creating Layer inception_4d/pool
I0403 19:44:45.585140  9611 net.cpp:425] inception_4d/pool <- inception_4c/output_inception_4c/output_0_split_3
I0403 19:44:45.585161  9611 net.cpp:399] inception_4d/pool -> inception_4d/pool
I0403 19:44:45.585243  9611 net.cpp:141] Setting up inception_4d/pool
I0403 19:44:45.585268  9611 net.cpp:148] Top shape: 24 512 14 14 (2408448)
I0403 19:44:45.585289  9611 net.cpp:156] Memory required for data: 1144900896
I0403 19:44:45.585304  9611 layer_factory.hpp:77] Creating layer inception_4d/pool_proj
I0403 19:44:45.585330  9611 net.cpp:91] Creating Layer inception_4d/pool_proj
I0403 19:44:45.585347  9611 net.cpp:425] inception_4d/pool_proj <- inception_4d/pool
I0403 19:44:45.585367  9611 net.cpp:399] inception_4d/pool_proj -> inception_4d/pool_proj
I0403 19:44:45.587258  9611 net.cpp:141] Setting up inception_4d/pool_proj
I0403 19:44:45.587308  9611 net.cpp:148] Top shape: 24 64 14 14 (301056)
I0403 19:44:45.587327  9611 net.cpp:156] Memory required for data: 1146105120
I0403 19:44:45.587347  9611 layer_factory.hpp:77] Creating layer inception_4d/relu_pool_proj
I0403 19:44:45.587365  9611 net.cpp:91] Creating Layer inception_4d/relu_pool_proj
I0403 19:44:45.587383  9611 net.cpp:425] inception_4d/relu_pool_proj <- inception_4d/pool_proj
I0403 19:44:45.587404  9611 net.cpp:386] inception_4d/relu_pool_proj -> inception_4d/pool_proj (in-place)
I0403 19:44:45.587635  9611 net.cpp:141] Setting up inception_4d/relu_pool_proj
I0403 19:44:45.587659  9611 net.cpp:148] Top shape: 24 64 14 14 (301056)
I0403 19:44:45.587674  9611 net.cpp:156] Memory required for data: 1147309344
I0403 19:44:45.587692  9611 layer_factory.hpp:77] Creating layer inception_4d/output
I0403 19:44:45.587709  9611 net.cpp:91] Creating Layer inception_4d/output
I0403 19:44:45.587724  9611 net.cpp:425] inception_4d/output <- inception_4d/1x1
I0403 19:44:45.587740  9611 net.cpp:425] inception_4d/output <- inception_4d/3x3
I0403 19:44:45.587757  9611 net.cpp:425] inception_4d/output <- inception_4d/5x5
I0403 19:44:45.587772  9611 net.cpp:425] inception_4d/output <- inception_4d/pool_proj
I0403 19:44:45.587792  9611 net.cpp:399] inception_4d/output -> inception_4d/output
I0403 19:44:45.587841  9611 net.cpp:141] Setting up inception_4d/output
I0403 19:44:45.587867  9611 net.cpp:148] Top shape: 24 528 14 14 (2483712)
I0403 19:44:45.587882  9611 net.cpp:156] Memory required for data: 1157244192
I0403 19:44:45.587898  9611 layer_factory.hpp:77] Creating layer inception_4d/output_inception_4d/output_0_split
I0403 19:44:45.587915  9611 net.cpp:91] Creating Layer inception_4d/output_inception_4d/output_0_split
I0403 19:44:45.587930  9611 net.cpp:425] inception_4d/output_inception_4d/output_0_split <- inception_4d/output
I0403 19:44:45.587951  9611 net.cpp:399] inception_4d/output_inception_4d/output_0_split -> inception_4d/output_inception_4d/output_0_split_0
I0403 19:44:45.587972  9611 net.cpp:399] inception_4d/output_inception_4d/output_0_split -> inception_4d/output_inception_4d/output_0_split_1
I0403 19:44:45.587995  9611 net.cpp:399] inception_4d/output_inception_4d/output_0_split -> inception_4d/output_inception_4d/output_0_split_2
I0403 19:44:45.588016  9611 net.cpp:399] inception_4d/output_inception_4d/output_0_split -> inception_4d/output_inception_4d/output_0_split_3
I0403 19:44:45.588037  9611 net.cpp:399] inception_4d/output_inception_4d/output_0_split -> inception_4d/output_inception_4d/output_0_split_4
I0403 19:44:45.588140  9611 net.cpp:141] Setting up inception_4d/output_inception_4d/output_0_split
I0403 19:44:45.588176  9611 net.cpp:148] Top shape: 24 528 14 14 (2483712)
I0403 19:44:45.588204  9611 net.cpp:148] Top shape: 24 528 14 14 (2483712)
I0403 19:44:45.588220  9611 net.cpp:148] Top shape: 24 528 14 14 (2483712)
I0403 19:44:45.588237  9611 net.cpp:148] Top shape: 24 528 14 14 (2483712)
I0403 19:44:45.588253  9611 net.cpp:148] Top shape: 24 528 14 14 (2483712)
I0403 19:44:45.588266  9611 net.cpp:156] Memory required for data: 1206918432
I0403 19:44:45.588286  9611 layer_factory.hpp:77] Creating layer loss2/ave_pool
I0403 19:44:45.588309  9611 net.cpp:91] Creating Layer loss2/ave_pool
I0403 19:44:45.588327  9611 net.cpp:425] loss2/ave_pool <- inception_4d/output_inception_4d/output_0_split_0
I0403 19:44:45.588349  9611 net.cpp:399] loss2/ave_pool -> loss2/ave_pool
I0403 19:44:45.588695  9611 net.cpp:141] Setting up loss2/ave_pool
I0403 19:44:45.588724  9611 net.cpp:148] Top shape: 24 528 4 4 (202752)
I0403 19:44:45.588739  9611 net.cpp:156] Memory required for data: 1207729440
I0403 19:44:45.588754  9611 layer_factory.hpp:77] Creating layer loss2/conv
I0403 19:44:45.588778  9611 net.cpp:91] Creating Layer loss2/conv
I0403 19:44:45.588795  9611 net.cpp:425] loss2/conv <- loss2/ave_pool
I0403 19:44:45.588815  9611 net.cpp:399] loss2/conv -> loss2/conv
I0403 19:44:45.590880  9611 net.cpp:141] Setting up loss2/conv
I0403 19:44:45.590910  9611 net.cpp:148] Top shape: 24 128 4 4 (49152)
I0403 19:44:45.590927  9611 net.cpp:156] Memory required for data: 1207926048
I0403 19:44:45.590946  9611 layer_factory.hpp:77] Creating layer loss2/relu_conv
I0403 19:44:45.590968  9611 net.cpp:91] Creating Layer loss2/relu_conv
I0403 19:44:45.590987  9611 net.cpp:425] loss2/relu_conv <- loss2/conv
I0403 19:44:45.591006  9611 net.cpp:386] loss2/relu_conv -> loss2/conv (in-place)
I0403 19:44:45.591316  9611 net.cpp:141] Setting up loss2/relu_conv
I0403 19:44:45.591344  9611 net.cpp:148] Top shape: 24 128 4 4 (49152)
I0403 19:44:45.591361  9611 net.cpp:156] Memory required for data: 1208122656
I0403 19:44:45.591377  9611 layer_factory.hpp:77] Creating layer loss2/fc
I0403 19:44:45.591399  9611 net.cpp:91] Creating Layer loss2/fc
I0403 19:44:45.591418  9611 net.cpp:425] loss2/fc <- loss2/conv
I0403 19:44:45.591439  9611 net.cpp:399] loss2/fc -> loss2/fc
I0403 19:44:45.610805  9611 net.cpp:141] Setting up loss2/fc
I0403 19:44:45.610868  9611 net.cpp:148] Top shape: 24 1024 (24576)
I0403 19:44:45.610884  9611 net.cpp:156] Memory required for data: 1208220960
I0403 19:44:45.610905  9611 layer_factory.hpp:77] Creating layer loss2/relu_fc
I0403 19:44:45.610927  9611 net.cpp:91] Creating Layer loss2/relu_fc
I0403 19:44:45.610946  9611 net.cpp:425] loss2/relu_fc <- loss2/fc
I0403 19:44:45.610970  9611 net.cpp:386] loss2/relu_fc -> loss2/fc (in-place)
I0403 19:44:45.673446  9611 net.cpp:141] Setting up loss2/relu_fc
I0403 19:44:45.673635  9611 net.cpp:148] Top shape: 24 1024 (24576)
I0403 19:44:45.673689  9611 net.cpp:156] Memory required for data: 1208319264
I0403 19:44:45.673733  9611 layer_factory.hpp:77] Creating layer loss2/drop_fc
I0403 19:44:45.673785  9611 net.cpp:91] Creating Layer loss2/drop_fc
I0403 19:44:45.673830  9611 net.cpp:425] loss2/drop_fc <- loss2/fc
I0403 19:44:45.673897  9611 net.cpp:386] loss2/drop_fc -> loss2/fc (in-place)
I0403 19:44:45.674057  9611 net.cpp:141] Setting up loss2/drop_fc
I0403 19:44:45.674118  9611 net.cpp:148] Top shape: 24 1024 (24576)
I0403 19:44:45.674154  9611 net.cpp:156] Memory required for data: 1208417568
I0403 19:44:45.674190  9611 layer_factory.hpp:77] Creating layer loss2/classifier_plantvillage
I0403 19:44:45.674247  9611 net.cpp:91] Creating Layer loss2/classifier_plantvillage
I0403 19:44:45.674302  9611 net.cpp:425] loss2/classifier_plantvillage <- loss2/fc
I0403 19:44:45.674360  9611 net.cpp:399] loss2/classifier_plantvillage -> loss2/classifier_plantvillage
I0403 19:44:45.675496  9611 net.cpp:141] Setting up loss2/classifier_plantvillage
I0403 19:44:45.675562  9611 net.cpp:148] Top shape: 24 38 (912)
I0403 19:44:45.675600  9611 net.cpp:156] Memory required for data: 1208421216
I0403 19:44:45.675714  9611 layer_factory.hpp:77] Creating layer loss2/classifier_plantvillage_loss2/classifier_plantvillage_0_split
I0403 19:44:45.675768  9611 net.cpp:91] Creating Layer loss2/classifier_plantvillage_loss2/classifier_plantvillage_0_split
I0403 19:44:45.675812  9611 net.cpp:425] loss2/classifier_plantvillage_loss2/classifier_plantvillage_0_split <- loss2/classifier_plantvillage
I0403 19:44:45.675858  9611 net.cpp:399] loss2/classifier_plantvillage_loss2/classifier_plantvillage_0_split -> loss2/classifier_plantvillage_loss2/classifier_plantvillage_0_split_0
I0403 19:44:45.675910  9611 net.cpp:399] loss2/classifier_plantvillage_loss2/classifier_plantvillage_0_split -> loss2/classifier_plantvillage_loss2/classifier_plantvillage_0_split_1
I0403 19:44:45.675964  9611 net.cpp:399] loss2/classifier_plantvillage_loss2/classifier_plantvillage_0_split -> loss2/classifier_plantvillage_loss2/classifier_plantvillage_0_split_2
I0403 19:44:45.676172  9611 net.cpp:141] Setting up loss2/classifier_plantvillage_loss2/classifier_plantvillage_0_split
I0403 19:44:45.676234  9611 net.cpp:148] Top shape: 24 38 (912)
I0403 19:44:45.676285  9611 net.cpp:148] Top shape: 24 38 (912)
I0403 19:44:45.676327  9611 net.cpp:148] Top shape: 24 38 (912)
I0403 19:44:45.676363  9611 net.cpp:156] Memory required for data: 1208432160
I0403 19:44:45.676400  9611 layer_factory.hpp:77] Creating layer inception_4e/1x1
I0403 19:44:45.676455  9611 net.cpp:91] Creating Layer inception_4e/1x1
I0403 19:44:45.676499  9611 net.cpp:425] inception_4e/1x1 <- inception_4d/output_inception_4d/output_0_split_1
I0403 19:44:45.676554  9611 net.cpp:399] inception_4e/1x1 -> inception_4e/1x1
I0403 19:44:45.740708  9611 net.cpp:141] Setting up inception_4e/1x1
I0403 19:44:45.740906  9611 net.cpp:148] Top shape: 24 256 14 14 (1204224)
I0403 19:44:45.740960  9611 net.cpp:156] Memory required for data: 1213249056
I0403 19:44:45.741643  9611 layer_factory.hpp:77] Creating layer inception_4e/relu_1x1
I0403 19:44:45.741755  9611 net.cpp:91] Creating Layer inception_4e/relu_1x1
I0403 19:44:45.741776  9611 net.cpp:425] inception_4e/relu_1x1 <- inception_4e/1x1
I0403 19:44:45.741799  9611 net.cpp:386] inception_4e/relu_1x1 -> inception_4e/1x1 (in-place)
I0403 19:44:45.756177  9611 net.cpp:141] Setting up inception_4e/relu_1x1
I0403 19:44:45.756320  9611 net.cpp:148] Top shape: 24 256 14 14 (1204224)
I0403 19:44:45.756345  9611 net.cpp:156] Memory required for data: 1218065952
I0403 19:44:45.756374  9611 layer_factory.hpp:77] Creating layer inception_4e/3x3_reduce
I0403 19:44:45.756413  9611 net.cpp:91] Creating Layer inception_4e/3x3_reduce
I0403 19:44:45.756438  9611 net.cpp:425] inception_4e/3x3_reduce <- inception_4d/output_inception_4d/output_0_split_2
I0403 19:44:45.756476  9611 net.cpp:399] inception_4e/3x3_reduce -> inception_4e/3x3_reduce
I0403 19:44:45.758944  9611 net.cpp:141] Setting up inception_4e/3x3_reduce
I0403 19:44:45.758991  9611 net.cpp:148] Top shape: 24 160 14 14 (752640)
I0403 19:44:45.759021  9611 net.cpp:156] Memory required for data: 1221076512
I0403 19:44:45.759073  9611 layer_factory.hpp:77] Creating layer inception_4e/relu_3x3_reduce
I0403 19:44:45.759121  9611 net.cpp:91] Creating Layer inception_4e/relu_3x3_reduce
I0403 19:44:45.759145  9611 net.cpp:425] inception_4e/relu_3x3_reduce <- inception_4e/3x3_reduce
I0403 19:44:45.759162  9611 net.cpp:386] inception_4e/relu_3x3_reduce -> inception_4e/3x3_reduce (in-place)
I0403 19:44:45.759361  9611 net.cpp:141] Setting up inception_4e/relu_3x3_reduce
I0403 19:44:45.759392  9611 net.cpp:148] Top shape: 24 160 14 14 (752640)
I0403 19:44:45.759407  9611 net.cpp:156] Memory required for data: 1224087072
I0403 19:44:45.759421  9611 layer_factory.hpp:77] Creating layer inception_4e/3x3
I0403 19:44:45.759443  9611 net.cpp:91] Creating Layer inception_4e/3x3
I0403 19:44:45.759464  9611 net.cpp:425] inception_4e/3x3 <- inception_4e/3x3_reduce
I0403 19:44:45.759486  9611 net.cpp:399] inception_4e/3x3 -> inception_4e/3x3
I0403 19:44:45.764680  9611 net.cpp:141] Setting up inception_4e/3x3
I0403 19:44:45.764740  9611 net.cpp:148] Top shape: 24 320 14 14 (1505280)
I0403 19:44:45.764765  9611 net.cpp:156] Memory required for data: 1230108192
I0403 19:44:45.764791  9611 layer_factory.hpp:77] Creating layer inception_4e/relu_3x3
I0403 19:44:45.764817  9611 net.cpp:91] Creating Layer inception_4e/relu_3x3
I0403 19:44:45.764837  9611 net.cpp:425] inception_4e/relu_3x3 <- inception_4e/3x3
I0403 19:44:45.764856  9611 net.cpp:386] inception_4e/relu_3x3 -> inception_4e/3x3 (in-place)
I0403 19:44:45.765293  9611 net.cpp:141] Setting up inception_4e/relu_3x3
I0403 19:44:45.765324  9611 net.cpp:148] Top shape: 24 320 14 14 (1505280)
I0403 19:44:45.765342  9611 net.cpp:156] Memory required for data: 1236129312
I0403 19:44:45.765358  9611 layer_factory.hpp:77] Creating layer inception_4e/5x5_reduce
I0403 19:44:45.765383  9611 net.cpp:91] Creating Layer inception_4e/5x5_reduce
I0403 19:44:45.765401  9611 net.cpp:425] inception_4e/5x5_reduce <- inception_4d/output_inception_4d/output_0_split_3
I0403 19:44:45.765421  9611 net.cpp:399] inception_4e/5x5_reduce -> inception_4e/5x5_reduce
I0403 19:44:45.766559  9611 net.cpp:141] Setting up inception_4e/5x5_reduce
I0403 19:44:45.766590  9611 net.cpp:148] Top shape: 24 32 14 14 (150528)
I0403 19:44:45.766607  9611 net.cpp:156] Memory required for data: 1236731424
I0403 19:44:45.766628  9611 layer_factory.hpp:77] Creating layer inception_4e/relu_5x5_reduce
I0403 19:44:45.766650  9611 net.cpp:91] Creating Layer inception_4e/relu_5x5_reduce
I0403 19:44:45.766669  9611 net.cpp:425] inception_4e/relu_5x5_reduce <- inception_4e/5x5_reduce
I0403 19:44:45.766688  9611 net.cpp:386] inception_4e/relu_5x5_reduce -> inception_4e/5x5_reduce (in-place)
I0403 19:44:45.767007  9611 net.cpp:141] Setting up inception_4e/relu_5x5_reduce
I0403 19:44:45.767035  9611 net.cpp:148] Top shape: 24 32 14 14 (150528)
I0403 19:44:45.767052  9611 net.cpp:156] Memory required for data: 1237333536
I0403 19:44:45.767069  9611 layer_factory.hpp:77] Creating layer inception_4e/5x5
I0403 19:44:45.767112  9611 net.cpp:91] Creating Layer inception_4e/5x5
I0403 19:44:45.767132  9611 net.cpp:425] inception_4e/5x5 <- inception_4e/5x5_reduce
I0403 19:44:45.767153  9611 net.cpp:399] inception_4e/5x5 -> inception_4e/5x5
I0403 19:44:45.769124  9611 net.cpp:141] Setting up inception_4e/5x5
I0403 19:44:45.769155  9611 net.cpp:148] Top shape: 24 128 14 14 (602112)
I0403 19:44:45.769183  9611 net.cpp:156] Memory required for data: 1239741984
I0403 19:44:45.769204  9611 layer_factory.hpp:77] Creating layer inception_4e/relu_5x5
I0403 19:44:45.769223  9611 net.cpp:91] Creating Layer inception_4e/relu_5x5
I0403 19:44:45.769242  9611 net.cpp:425] inception_4e/relu_5x5 <- inception_4e/5x5
I0403 19:44:45.769263  9611 net.cpp:386] inception_4e/relu_5x5 -> inception_4e/5x5 (in-place)
I0403 19:44:45.769484  9611 net.cpp:141] Setting up inception_4e/relu_5x5
I0403 19:44:45.769522  9611 net.cpp:148] Top shape: 24 128 14 14 (602112)
I0403 19:44:45.769538  9611 net.cpp:156] Memory required for data: 1242150432
I0403 19:44:45.769556  9611 layer_factory.hpp:77] Creating layer inception_4e/pool
I0403 19:44:45.769577  9611 net.cpp:91] Creating Layer inception_4e/pool
I0403 19:44:45.769595  9611 net.cpp:425] inception_4e/pool <- inception_4d/output_inception_4d/output_0_split_4
I0403 19:44:45.769613  9611 net.cpp:399] inception_4e/pool -> inception_4e/pool
I0403 19:44:45.769688  9611 net.cpp:141] Setting up inception_4e/pool
I0403 19:44:45.769713  9611 net.cpp:148] Top shape: 24 528 14 14 (2483712)
I0403 19:44:45.769729  9611 net.cpp:156] Memory required for data: 1252085280
I0403 19:44:45.769744  9611 layer_factory.hpp:77] Creating layer inception_4e/pool_proj
I0403 19:44:45.769767  9611 net.cpp:91] Creating Layer inception_4e/pool_proj
I0403 19:44:45.769785  9611 net.cpp:425] inception_4e/pool_proj <- inception_4e/pool
I0403 19:44:45.769807  9611 net.cpp:399] inception_4e/pool_proj -> inception_4e/pool_proj
I0403 19:44:45.771416  9611 net.cpp:141] Setting up inception_4e/pool_proj
I0403 19:44:45.771452  9611 net.cpp:148] Top shape: 24 128 14 14 (602112)
I0403 19:44:45.771492  9611 net.cpp:156] Memory required for data: 1254493728
I0403 19:44:45.771519  9611 layer_factory.hpp:77] Creating layer inception_4e/relu_pool_proj
I0403 19:44:45.771546  9611 net.cpp:91] Creating Layer inception_4e/relu_pool_proj
I0403 19:44:45.771571  9611 net.cpp:425] inception_4e/relu_pool_proj <- inception_4e/pool_proj
I0403 19:44:45.771596  9611 net.cpp:386] inception_4e/relu_pool_proj -> inception_4e/pool_proj (in-place)
I0403 19:44:45.771909  9611 net.cpp:141] Setting up inception_4e/relu_pool_proj
I0403 19:44:45.771939  9611 net.cpp:148] Top shape: 24 128 14 14 (602112)
I0403 19:44:45.771955  9611 net.cpp:156] Memory required for data: 1256902176
I0403 19:44:45.771973  9611 layer_factory.hpp:77] Creating layer inception_4e/output
I0403 19:44:45.771992  9611 net.cpp:91] Creating Layer inception_4e/output
I0403 19:44:45.772009  9611 net.cpp:425] inception_4e/output <- inception_4e/1x1
I0403 19:44:45.772027  9611 net.cpp:425] inception_4e/output <- inception_4e/3x3
I0403 19:44:45.772043  9611 net.cpp:425] inception_4e/output <- inception_4e/5x5
I0403 19:44:45.772060  9611 net.cpp:425] inception_4e/output <- inception_4e/pool_proj
I0403 19:44:45.772078  9611 net.cpp:399] inception_4e/output -> inception_4e/output
I0403 19:44:45.772135  9611 net.cpp:141] Setting up inception_4e/output
I0403 19:44:45.772159  9611 net.cpp:148] Top shape: 24 832 14 14 (3913728)
I0403 19:44:45.772176  9611 net.cpp:156] Memory required for data: 1272557088
I0403 19:44:45.772192  9611 layer_factory.hpp:77] Creating layer pool4/3x3_s2
I0403 19:44:45.772217  9611 net.cpp:91] Creating Layer pool4/3x3_s2
I0403 19:44:45.772234  9611 net.cpp:425] pool4/3x3_s2 <- inception_4e/output
I0403 19:44:45.772255  9611 net.cpp:399] pool4/3x3_s2 -> pool4/3x3_s2
I0403 19:44:45.772333  9611 net.cpp:141] Setting up pool4/3x3_s2
I0403 19:44:45.772359  9611 net.cpp:148] Top shape: 24 832 7 7 (978432)
I0403 19:44:45.772374  9611 net.cpp:156] Memory required for data: 1276470816
I0403 19:44:45.772389  9611 layer_factory.hpp:77] Creating layer pool4/3x3_s2_pool4/3x3_s2_0_split
I0403 19:44:45.772408  9611 net.cpp:91] Creating Layer pool4/3x3_s2_pool4/3x3_s2_0_split
I0403 19:44:45.772425  9611 net.cpp:425] pool4/3x3_s2_pool4/3x3_s2_0_split <- pool4/3x3_s2
I0403 19:44:45.772449  9611 net.cpp:399] pool4/3x3_s2_pool4/3x3_s2_0_split -> pool4/3x3_s2_pool4/3x3_s2_0_split_0
I0403 19:44:45.772477  9611 net.cpp:399] pool4/3x3_s2_pool4/3x3_s2_0_split -> pool4/3x3_s2_pool4/3x3_s2_0_split_1
I0403 19:44:45.772500  9611 net.cpp:399] pool4/3x3_s2_pool4/3x3_s2_0_split -> pool4/3x3_s2_pool4/3x3_s2_0_split_2
I0403 19:44:45.772521  9611 net.cpp:399] pool4/3x3_s2_pool4/3x3_s2_0_split -> pool4/3x3_s2_pool4/3x3_s2_0_split_3
I0403 19:44:45.772619  9611 net.cpp:141] Setting up pool4/3x3_s2_pool4/3x3_s2_0_split
I0403 19:44:45.772649  9611 net.cpp:148] Top shape: 24 832 7 7 (978432)
I0403 19:44:45.772667  9611 net.cpp:148] Top shape: 24 832 7 7 (978432)
I0403 19:44:45.772683  9611 net.cpp:148] Top shape: 24 832 7 7 (978432)
I0403 19:44:45.772699  9611 net.cpp:148] Top shape: 24 832 7 7 (978432)
I0403 19:44:45.772714  9611 net.cpp:156] Memory required for data: 1292125728
I0403 19:44:45.772729  9611 layer_factory.hpp:77] Creating layer inception_5a/1x1
I0403 19:44:45.772753  9611 net.cpp:91] Creating Layer inception_5a/1x1
I0403 19:44:45.772770  9611 net.cpp:425] inception_5a/1x1 <- pool4/3x3_s2_pool4/3x3_s2_0_split_0
I0403 19:44:45.772794  9611 net.cpp:399] inception_5a/1x1 -> inception_5a/1x1
I0403 19:44:45.775799  9611 net.cpp:141] Setting up inception_5a/1x1
I0403 19:44:45.775831  9611 net.cpp:148] Top shape: 24 256 7 7 (301056)
I0403 19:44:45.775848  9611 net.cpp:156] Memory required for data: 1293329952
I0403 19:44:45.775867  9611 layer_factory.hpp:77] Creating layer inception_5a/relu_1x1
I0403 19:44:45.775889  9611 net.cpp:91] Creating Layer inception_5a/relu_1x1
I0403 19:44:45.775907  9611 net.cpp:425] inception_5a/relu_1x1 <- inception_5a/1x1
I0403 19:44:45.775934  9611 net.cpp:386] inception_5a/relu_1x1 -> inception_5a/1x1 (in-place)
I0403 19:44:45.776269  9611 net.cpp:141] Setting up inception_5a/relu_1x1
I0403 19:44:45.776300  9611 net.cpp:148] Top shape: 24 256 7 7 (301056)
I0403 19:44:45.776316  9611 net.cpp:156] Memory required for data: 1294534176
I0403 19:44:45.776332  9611 layer_factory.hpp:77] Creating layer inception_5a/3x3_reduce
I0403 19:44:45.776355  9611 net.cpp:91] Creating Layer inception_5a/3x3_reduce
I0403 19:44:45.776374  9611 net.cpp:425] inception_5a/3x3_reduce <- pool4/3x3_s2_pool4/3x3_s2_0_split_1
I0403 19:44:45.776396  9611 net.cpp:399] inception_5a/3x3_reduce -> inception_5a/3x3_reduce
I0403 19:44:45.778944  9611 net.cpp:141] Setting up inception_5a/3x3_reduce
I0403 19:44:45.778988  9611 net.cpp:148] Top shape: 24 160 7 7 (188160)
I0403 19:44:45.779009  9611 net.cpp:156] Memory required for data: 1295286816
I0403 19:44:45.779032  9611 layer_factory.hpp:77] Creating layer inception_5a/relu_3x3_reduce
I0403 19:44:45.779054  9611 net.cpp:91] Creating Layer inception_5a/relu_3x3_reduce
I0403 19:44:45.779072  9611 net.cpp:425] inception_5a/relu_3x3_reduce <- inception_5a/3x3_reduce
I0403 19:44:45.779093  9611 net.cpp:386] inception_5a/relu_3x3_reduce -> inception_5a/3x3_reduce (in-place)
I0403 19:44:45.779299  9611 net.cpp:141] Setting up inception_5a/relu_3x3_reduce
I0403 19:44:45.779325  9611 net.cpp:148] Top shape: 24 160 7 7 (188160)
I0403 19:44:45.779340  9611 net.cpp:156] Memory required for data: 1296039456
I0403 19:44:45.779356  9611 layer_factory.hpp:77] Creating layer inception_5a/3x3
I0403 19:44:45.779381  9611 net.cpp:91] Creating Layer inception_5a/3x3
I0403 19:44:45.779398  9611 net.cpp:425] inception_5a/3x3 <- inception_5a/3x3_reduce
I0403 19:44:45.779422  9611 net.cpp:399] inception_5a/3x3 -> inception_5a/3x3
I0403 19:44:45.784740  9611 net.cpp:141] Setting up inception_5a/3x3
I0403 19:44:45.784781  9611 net.cpp:148] Top shape: 24 320 7 7 (376320)
I0403 19:44:45.784803  9611 net.cpp:156] Memory required for data: 1297544736
I0403 19:44:45.784822  9611 layer_factory.hpp:77] Creating layer inception_5a/relu_3x3
I0403 19:44:45.784842  9611 net.cpp:91] Creating Layer inception_5a/relu_3x3
I0403 19:44:45.784860  9611 net.cpp:425] inception_5a/relu_3x3 <- inception_5a/3x3
I0403 19:44:45.784881  9611 net.cpp:386] inception_5a/relu_3x3 -> inception_5a/3x3 (in-place)
I0403 19:44:45.785197  9611 net.cpp:141] Setting up inception_5a/relu_3x3
I0403 19:44:45.785231  9611 net.cpp:148] Top shape: 24 320 7 7 (376320)
I0403 19:44:45.785254  9611 net.cpp:156] Memory required for data: 1299050016
I0403 19:44:45.785281  9611 layer_factory.hpp:77] Creating layer inception_5a/5x5_reduce
I0403 19:44:45.785308  9611 net.cpp:91] Creating Layer inception_5a/5x5_reduce
I0403 19:44:45.785329  9611 net.cpp:425] inception_5a/5x5_reduce <- pool4/3x3_s2_pool4/3x3_s2_0_split_2
I0403 19:44:45.785351  9611 net.cpp:399] inception_5a/5x5_reduce -> inception_5a/5x5_reduce
I0403 19:44:45.786587  9611 net.cpp:141] Setting up inception_5a/5x5_reduce
I0403 19:44:45.786619  9611 net.cpp:148] Top shape: 24 32 7 7 (37632)
I0403 19:44:45.786639  9611 net.cpp:156] Memory required for data: 1299200544
I0403 19:44:45.786659  9611 layer_factory.hpp:77] Creating layer inception_5a/relu_5x5_reduce
I0403 19:44:45.786684  9611 net.cpp:91] Creating Layer inception_5a/relu_5x5_reduce
I0403 19:44:45.786703  9611 net.cpp:425] inception_5a/relu_5x5_reduce <- inception_5a/5x5_reduce
I0403 19:44:45.786723  9611 net.cpp:386] inception_5a/relu_5x5_reduce -> inception_5a/5x5_reduce (in-place)
I0403 19:44:45.787032  9611 net.cpp:141] Setting up inception_5a/relu_5x5_reduce
I0403 19:44:45.787061  9611 net.cpp:148] Top shape: 24 32 7 7 (37632)
I0403 19:44:45.787078  9611 net.cpp:156] Memory required for data: 1299351072
I0403 19:44:45.787099  9611 layer_factory.hpp:77] Creating layer inception_5a/5x5
I0403 19:44:45.787127  9611 net.cpp:91] Creating Layer inception_5a/5x5
I0403 19:44:45.787148  9611 net.cpp:425] inception_5a/5x5 <- inception_5a/5x5_reduce
I0403 19:44:45.787178  9611 net.cpp:399] inception_5a/5x5 -> inception_5a/5x5
I0403 19:44:45.789005  9611 net.cpp:141] Setting up inception_5a/5x5
I0403 19:44:45.789063  9611 net.cpp:148] Top shape: 24 128 7 7 (150528)
I0403 19:44:45.789079  9611 net.cpp:156] Memory required for data: 1299953184
I0403 19:44:45.789098  9611 layer_factory.hpp:77] Creating layer inception_5a/relu_5x5
I0403 19:44:45.789119  9611 net.cpp:91] Creating Layer inception_5a/relu_5x5
I0403 19:44:45.789135  9611 net.cpp:425] inception_5a/relu_5x5 <- inception_5a/5x5
I0403 19:44:45.789156  9611 net.cpp:386] inception_5a/relu_5x5 -> inception_5a/5x5 (in-place)
I0403 19:44:45.789363  9611 net.cpp:141] Setting up inception_5a/relu_5x5
I0403 19:44:45.789394  9611 net.cpp:148] Top shape: 24 128 7 7 (150528)
I0403 19:44:45.789409  9611 net.cpp:156] Memory required for data: 1300555296
I0403 19:44:45.789424  9611 layer_factory.hpp:77] Creating layer inception_5a/pool
I0403 19:44:45.789445  9611 net.cpp:91] Creating Layer inception_5a/pool
I0403 19:44:45.789463  9611 net.cpp:425] inception_5a/pool <- pool4/3x3_s2_pool4/3x3_s2_0_split_3
I0403 19:44:45.789482  9611 net.cpp:399] inception_5a/pool -> inception_5a/pool
I0403 19:44:45.789563  9611 net.cpp:141] Setting up inception_5a/pool
I0403 19:44:45.789587  9611 net.cpp:148] Top shape: 24 832 7 7 (978432)
I0403 19:44:45.789602  9611 net.cpp:156] Memory required for data: 1304469024
I0403 19:44:45.789618  9611 layer_factory.hpp:77] Creating layer inception_5a/pool_proj
I0403 19:44:45.789639  9611 net.cpp:91] Creating Layer inception_5a/pool_proj
I0403 19:44:45.789657  9611 net.cpp:425] inception_5a/pool_proj <- inception_5a/pool
I0403 19:44:45.789680  9611 net.cpp:399] inception_5a/pool_proj -> inception_5a/pool_proj
I0403 19:44:45.792126  9611 net.cpp:141] Setting up inception_5a/pool_proj
I0403 19:44:45.792162  9611 net.cpp:148] Top shape: 24 128 7 7 (150528)
I0403 19:44:45.792181  9611 net.cpp:156] Memory required for data: 1305071136
I0403 19:44:45.792199  9611 layer_factory.hpp:77] Creating layer inception_5a/relu_pool_proj
I0403 19:44:45.792218  9611 net.cpp:91] Creating Layer inception_5a/relu_pool_proj
I0403 19:44:45.792234  9611 net.cpp:425] inception_5a/relu_pool_proj <- inception_5a/pool_proj
I0403 19:44:45.792254  9611 net.cpp:386] inception_5a/relu_pool_proj -> inception_5a/pool_proj (in-place)
I0403 19:44:45.792577  9611 net.cpp:141] Setting up inception_5a/relu_pool_proj
I0403 19:44:45.792608  9611 net.cpp:148] Top shape: 24 128 7 7 (150528)
I0403 19:44:45.792624  9611 net.cpp:156] Memory required for data: 1305673248
I0403 19:44:45.792640  9611 layer_factory.hpp:77] Creating layer inception_5a/output
I0403 19:44:45.792659  9611 net.cpp:91] Creating Layer inception_5a/output
I0403 19:44:45.792675  9611 net.cpp:425] inception_5a/output <- inception_5a/1x1
I0403 19:44:45.792693  9611 net.cpp:425] inception_5a/output <- inception_5a/3x3
I0403 19:44:45.792711  9611 net.cpp:425] inception_5a/output <- inception_5a/5x5
I0403 19:44:45.792727  9611 net.cpp:425] inception_5a/output <- inception_5a/pool_proj
I0403 19:44:45.792748  9611 net.cpp:399] inception_5a/output -> inception_5a/output
I0403 19:44:45.792801  9611 net.cpp:141] Setting up inception_5a/output
I0403 19:44:45.792826  9611 net.cpp:148] Top shape: 24 832 7 7 (978432)
I0403 19:44:45.792850  9611 net.cpp:156] Memory required for data: 1309586976
I0403 19:44:45.792879  9611 layer_factory.hpp:77] Creating layer inception_5a/output_inception_5a/output_0_split
I0403 19:44:45.792902  9611 net.cpp:91] Creating Layer inception_5a/output_inception_5a/output_0_split
I0403 19:44:45.792920  9611 net.cpp:425] inception_5a/output_inception_5a/output_0_split <- inception_5a/output
I0403 19:44:45.792939  9611 net.cpp:399] inception_5a/output_inception_5a/output_0_split -> inception_5a/output_inception_5a/output_0_split_0
I0403 19:44:45.792968  9611 net.cpp:399] inception_5a/output_inception_5a/output_0_split -> inception_5a/output_inception_5a/output_0_split_1
I0403 19:44:45.792994  9611 net.cpp:399] inception_5a/output_inception_5a/output_0_split -> inception_5a/output_inception_5a/output_0_split_2
I0403 19:44:45.793018  9611 net.cpp:399] inception_5a/output_inception_5a/output_0_split -> inception_5a/output_inception_5a/output_0_split_3
I0403 19:44:45.793140  9611 net.cpp:141] Setting up inception_5a/output_inception_5a/output_0_split
I0403 19:44:45.793167  9611 net.cpp:148] Top shape: 24 832 7 7 (978432)
I0403 19:44:45.793186  9611 net.cpp:148] Top shape: 24 832 7 7 (978432)
I0403 19:44:45.793202  9611 net.cpp:148] Top shape: 24 832 7 7 (978432)
I0403 19:44:45.793218  9611 net.cpp:148] Top shape: 24 832 7 7 (978432)
I0403 19:44:45.793233  9611 net.cpp:156] Memory required for data: 1325241888
I0403 19:44:45.793248  9611 layer_factory.hpp:77] Creating layer inception_5b/1x1
I0403 19:44:45.793277  9611 net.cpp:91] Creating Layer inception_5b/1x1
I0403 19:44:45.793298  9611 net.cpp:425] inception_5b/1x1 <- inception_5a/output_inception_5a/output_0_split_0
I0403 19:44:45.793320  9611 net.cpp:399] inception_5b/1x1 -> inception_5b/1x1
I0403 19:44:45.797435  9611 net.cpp:141] Setting up inception_5b/1x1
I0403 19:44:45.797473  9611 net.cpp:148] Top shape: 24 384 7 7 (451584)
I0403 19:44:45.797492  9611 net.cpp:156] Memory required for data: 1327048224
I0403 19:44:45.797511  9611 layer_factory.hpp:77] Creating layer inception_5b/relu_1x1
I0403 19:44:45.797543  9611 net.cpp:91] Creating Layer inception_5b/relu_1x1
I0403 19:44:45.797559  9611 net.cpp:425] inception_5b/relu_1x1 <- inception_5b/1x1
I0403 19:44:45.797576  9611 net.cpp:386] inception_5b/relu_1x1 -> inception_5b/1x1 (in-place)
I0403 19:44:45.797900  9611 net.cpp:141] Setting up inception_5b/relu_1x1
I0403 19:44:45.797930  9611 net.cpp:148] Top shape: 24 384 7 7 (451584)
I0403 19:44:45.797946  9611 net.cpp:156] Memory required for data: 1328854560
I0403 19:44:45.797962  9611 layer_factory.hpp:77] Creating layer inception_5b/3x3_reduce
I0403 19:44:45.797986  9611 net.cpp:91] Creating Layer inception_5b/3x3_reduce
I0403 19:44:45.798004  9611 net.cpp:425] inception_5b/3x3_reduce <- inception_5a/output_inception_5a/output_0_split_1
I0403 19:44:45.798024  9611 net.cpp:399] inception_5b/3x3_reduce -> inception_5b/3x3_reduce
I0403 19:44:45.814523  9611 net.cpp:141] Setting up inception_5b/3x3_reduce
I0403 19:44:45.814582  9611 net.cpp:148] Top shape: 24 192 7 7 (225792)
I0403 19:44:45.814599  9611 net.cpp:156] Memory required for data: 1329757728
I0403 19:44:45.814620  9611 layer_factory.hpp:77] Creating layer inception_5b/relu_3x3_reduce
I0403 19:44:45.814640  9611 net.cpp:91] Creating Layer inception_5b/relu_3x3_reduce
I0403 19:44:45.814658  9611 net.cpp:425] inception_5b/relu_3x3_reduce <- inception_5b/3x3_reduce
I0403 19:44:45.814680  9611 net.cpp:386] inception_5b/relu_3x3_reduce -> inception_5b/3x3_reduce (in-place)
I0403 19:44:45.814882  9611 net.cpp:141] Setting up inception_5b/relu_3x3_reduce
I0403 19:44:45.814908  9611 net.cpp:148] Top shape: 24 192 7 7 (225792)
I0403 19:44:45.814924  9611 net.cpp:156] Memory required for data: 1330660896
I0403 19:44:45.814939  9611 layer_factory.hpp:77] Creating layer inception_5b/3x3
I0403 19:44:45.814963  9611 net.cpp:91] Creating Layer inception_5b/3x3
I0403 19:44:45.814983  9611 net.cpp:425] inception_5b/3x3 <- inception_5b/3x3_reduce
I0403 19:44:45.815006  9611 net.cpp:399] inception_5b/3x3 -> inception_5b/3x3
I0403 19:44:45.822196  9611 net.cpp:141] Setting up inception_5b/3x3
I0403 19:44:45.822242  9611 net.cpp:148] Top shape: 24 384 7 7 (451584)
I0403 19:44:45.822258  9611 net.cpp:156] Memory required for data: 1332467232
I0403 19:44:45.822291  9611 layer_factory.hpp:77] Creating layer inception_5b/relu_3x3
I0403 19:44:45.822312  9611 net.cpp:91] Creating Layer inception_5b/relu_3x3
I0403 19:44:45.822329  9611 net.cpp:425] inception_5b/relu_3x3 <- inception_5b/3x3
I0403 19:44:45.822350  9611 net.cpp:386] inception_5b/relu_3x3 -> inception_5b/3x3 (in-place)
I0403 19:44:45.822676  9611 net.cpp:141] Setting up inception_5b/relu_3x3
I0403 19:44:45.822705  9611 net.cpp:148] Top shape: 24 384 7 7 (451584)
I0403 19:44:45.822722  9611 net.cpp:156] Memory required for data: 1334273568
I0403 19:44:45.822746  9611 layer_factory.hpp:77] Creating layer inception_5b/5x5_reduce
I0403 19:44:45.822803  9611 net.cpp:91] Creating Layer inception_5b/5x5_reduce
I0403 19:44:45.822824  9611 net.cpp:425] inception_5b/5x5_reduce <- inception_5a/output_inception_5a/output_0_split_2
I0403 19:44:45.822844  9611 net.cpp:399] inception_5b/5x5_reduce -> inception_5b/5x5_reduce
I0403 19:44:45.824234  9611 net.cpp:141] Setting up inception_5b/5x5_reduce
I0403 19:44:45.824265  9611 net.cpp:148] Top shape: 24 48 7 7 (56448)
I0403 19:44:45.824285  9611 net.cpp:156] Memory required for data: 1334499360
I0403 19:44:45.824306  9611 layer_factory.hpp:77] Creating layer inception_5b/relu_5x5_reduce
I0403 19:44:45.824324  9611 net.cpp:91] Creating Layer inception_5b/relu_5x5_reduce
I0403 19:44:45.824340  9611 net.cpp:425] inception_5b/relu_5x5_reduce <- inception_5b/5x5_reduce
I0403 19:44:45.824360  9611 net.cpp:386] inception_5b/relu_5x5_reduce -> inception_5b/5x5_reduce (in-place)
I0403 19:44:45.824740  9611 net.cpp:141] Setting up inception_5b/relu_5x5_reduce
I0403 19:44:45.824769  9611 net.cpp:148] Top shape: 24 48 7 7 (56448)
I0403 19:44:45.824784  9611 net.cpp:156] Memory required for data: 1334725152
I0403 19:44:45.824798  9611 layer_factory.hpp:77] Creating layer inception_5b/5x5
I0403 19:44:45.824818  9611 net.cpp:91] Creating Layer inception_5b/5x5
I0403 19:44:45.824836  9611 net.cpp:425] inception_5b/5x5 <- inception_5b/5x5_reduce
I0403 19:44:45.824854  9611 net.cpp:399] inception_5b/5x5 -> inception_5b/5x5
I0403 19:44:45.827008  9611 net.cpp:141] Setting up inception_5b/5x5
I0403 19:44:45.827038  9611 net.cpp:148] Top shape: 24 128 7 7 (150528)
I0403 19:44:45.827052  9611 net.cpp:156] Memory required for data: 1335327264
I0403 19:44:45.827071  9611 layer_factory.hpp:77] Creating layer inception_5b/relu_5x5
I0403 19:44:45.827090  9611 net.cpp:91] Creating Layer inception_5b/relu_5x5
I0403 19:44:45.827110  9611 net.cpp:425] inception_5b/relu_5x5 <- inception_5b/5x5
I0403 19:44:45.827126  9611 net.cpp:386] inception_5b/relu_5x5 -> inception_5b/5x5 (in-place)
I0403 19:44:45.827329  9611 net.cpp:141] Setting up inception_5b/relu_5x5
I0403 19:44:45.827355  9611 net.cpp:148] Top shape: 24 128 7 7 (150528)
I0403 19:44:45.827370  9611 net.cpp:156] Memory required for data: 1335929376
I0403 19:44:45.827385  9611 layer_factory.hpp:77] Creating layer inception_5b/pool
I0403 19:44:45.827407  9611 net.cpp:91] Creating Layer inception_5b/pool
I0403 19:44:45.827425  9611 net.cpp:425] inception_5b/pool <- inception_5a/output_inception_5a/output_0_split_3
I0403 19:44:45.827445  9611 net.cpp:399] inception_5b/pool -> inception_5b/pool
I0403 19:44:45.827520  9611 net.cpp:141] Setting up inception_5b/pool
I0403 19:44:45.827544  9611 net.cpp:148] Top shape: 24 832 7 7 (978432)
I0403 19:44:45.827558  9611 net.cpp:156] Memory required for data: 1339843104
I0403 19:44:45.827574  9611 layer_factory.hpp:77] Creating layer inception_5b/pool_proj
I0403 19:44:45.827596  9611 net.cpp:91] Creating Layer inception_5b/pool_proj
I0403 19:44:45.827615  9611 net.cpp:425] inception_5b/pool_proj <- inception_5b/pool
I0403 19:44:45.827636  9611 net.cpp:399] inception_5b/pool_proj -> inception_5b/pool_proj
I0403 19:44:45.830014  9611 net.cpp:141] Setting up inception_5b/pool_proj
I0403 19:44:45.830044  9611 net.cpp:148] Top shape: 24 128 7 7 (150528)
I0403 19:44:45.830060  9611 net.cpp:156] Memory required for data: 1340445216
I0403 19:44:45.830078  9611 layer_factory.hpp:77] Creating layer inception_5b/relu_pool_proj
I0403 19:44:45.830096  9611 net.cpp:91] Creating Layer inception_5b/relu_pool_proj
I0403 19:44:45.830113  9611 net.cpp:425] inception_5b/relu_pool_proj <- inception_5b/pool_proj
I0403 19:44:45.830133  9611 net.cpp:386] inception_5b/relu_pool_proj -> inception_5b/pool_proj (in-place)
I0403 19:44:45.830448  9611 net.cpp:141] Setting up inception_5b/relu_pool_proj
I0403 19:44:45.830476  9611 net.cpp:148] Top shape: 24 128 7 7 (150528)
I0403 19:44:45.830490  9611 net.cpp:156] Memory required for data: 1341047328
I0403 19:44:45.830505  9611 layer_factory.hpp:77] Creating layer inception_5b/output
I0403 19:44:45.830523  9611 net.cpp:91] Creating Layer inception_5b/output
I0403 19:44:45.830559  9611 net.cpp:425] inception_5b/output <- inception_5b/1x1
I0403 19:44:45.830577  9611 net.cpp:425] inception_5b/output <- inception_5b/3x3
I0403 19:44:45.830593  9611 net.cpp:425] inception_5b/output <- inception_5b/5x5
I0403 19:44:45.830610  9611 net.cpp:425] inception_5b/output <- inception_5b/pool_proj
I0403 19:44:45.830629  9611 net.cpp:399] inception_5b/output -> inception_5b/output
I0403 19:44:45.830682  9611 net.cpp:141] Setting up inception_5b/output
I0403 19:44:45.830709  9611 net.cpp:148] Top shape: 24 1024 7 7 (1204224)
I0403 19:44:45.830725  9611 net.cpp:156] Memory required for data: 1345864224
I0403 19:44:45.830740  9611 layer_factory.hpp:77] Creating layer pool5/7x7_s1
I0403 19:44:45.830757  9611 net.cpp:91] Creating Layer pool5/7x7_s1
I0403 19:44:45.830773  9611 net.cpp:425] pool5/7x7_s1 <- inception_5b/output
I0403 19:44:45.830791  9611 net.cpp:399] pool5/7x7_s1 -> pool5/7x7_s1
I0403 19:44:45.831014  9611 net.cpp:141] Setting up pool5/7x7_s1
I0403 19:44:45.831040  9611 net.cpp:148] Top shape: 24 1024 1 1 (24576)
I0403 19:44:45.831055  9611 net.cpp:156] Memory required for data: 1345962528
I0403 19:44:45.831069  9611 layer_factory.hpp:77] Creating layer pool5/drop_7x7_s1
I0403 19:44:45.831087  9611 net.cpp:91] Creating Layer pool5/drop_7x7_s1
I0403 19:44:45.831102  9611 net.cpp:425] pool5/drop_7x7_s1 <- pool5/7x7_s1
I0403 19:44:45.831123  9611 net.cpp:386] pool5/drop_7x7_s1 -> pool5/7x7_s1 (in-place)
I0403 19:44:45.831176  9611 net.cpp:141] Setting up pool5/drop_7x7_s1
I0403 19:44:45.831202  9611 net.cpp:148] Top shape: 24 1024 1 1 (24576)
I0403 19:44:45.831217  9611 net.cpp:156] Memory required for data: 1346060832
I0403 19:44:45.831231  9611 layer_factory.hpp:77] Creating layer loss3/classifier_plantvillage
I0403 19:44:45.831251  9611 net.cpp:91] Creating Layer loss3/classifier_plantvillage
I0403 19:44:45.831266  9611 net.cpp:425] loss3/classifier_plantvillage <- pool5/7x7_s1
I0403 19:44:45.831292  9611 net.cpp:399] loss3/classifier_plantvillage -> loss3/classifier_plantvillage
I0403 19:44:45.831730  9611 net.cpp:141] Setting up loss3/classifier_plantvillage
I0403 19:44:45.831755  9611 net.cpp:148] Top shape: 24 38 (912)
I0403 19:44:45.831769  9611 net.cpp:156] Memory required for data: 1346064480
I0403 19:44:45.831789  9611 layer_factory.hpp:77] Creating layer loss3/classifier_plantvillage_loss3/classifier_plantvillage_0_split
I0403 19:44:45.831810  9611 net.cpp:91] Creating Layer loss3/classifier_plantvillage_loss3/classifier_plantvillage_0_split
I0403 19:44:45.831828  9611 net.cpp:425] loss3/classifier_plantvillage_loss3/classifier_plantvillage_0_split <- loss3/classifier_plantvillage
I0403 19:44:45.831845  9611 net.cpp:399] loss3/classifier_plantvillage_loss3/classifier_plantvillage_0_split -> loss3/classifier_plantvillage_loss3/classifier_plantvillage_0_split_0
I0403 19:44:45.831866  9611 net.cpp:399] loss3/classifier_plantvillage_loss3/classifier_plantvillage_0_split -> loss3/classifier_plantvillage_loss3/classifier_plantvillage_0_split_1
I0403 19:44:45.831889  9611 net.cpp:399] loss3/classifier_plantvillage_loss3/classifier_plantvillage_0_split -> loss3/classifier_plantvillage_loss3/classifier_plantvillage_0_split_2
I0403 19:44:45.831910  9611 net.cpp:399] loss3/classifier_plantvillage_loss3/classifier_plantvillage_0_split -> loss3/classifier_plantvillage_loss3/classifier_plantvillage_0_split_3
I0403 19:44:45.832012  9611 net.cpp:141] Setting up loss3/classifier_plantvillage_loss3/classifier_plantvillage_0_split
I0403 19:44:45.832036  9611 net.cpp:148] Top shape: 24 38 (912)
I0403 19:44:45.832053  9611 net.cpp:148] Top shape: 24 38 (912)
I0403 19:44:45.832070  9611 net.cpp:148] Top shape: 24 38 (912)
I0403 19:44:45.832085  9611 net.cpp:148] Top shape: 24 38 (912)
I0403 19:44:45.832099  9611 net.cpp:156] Memory required for data: 1346079072
I0403 19:44:45.832113  9611 layer_factory.hpp:77] Creating layer loss1/loss
I0403 19:44:45.832135  9611 net.cpp:91] Creating Layer loss1/loss
I0403 19:44:45.832154  9611 net.cpp:425] loss1/loss <- loss1/classifier_plantvillage_loss1/classifier_plantvillage_0_split_0
I0403 19:44:45.832185  9611 net.cpp:425] loss1/loss <- label_data_1_split_0
…
