…
I0403 19:35:51.338251  9430 net.cpp:313] The NetState phase (1) differed from the phase (0) specified by a rule in layer data
I0403 19:35:51.339390  9430 net.cpp:49] Initializing net from parameters: 
state {
  phase: TEST
}
layer {
  name: "data"
  type: "Data"
  top: "data"
  top: "label"
  include {
    phase: TEST
  }
  transform_param {
    mirror: false
    crop_size: 224
    mean_file: "/home/mohanty/data/final_dataset/lmdb/color-50-50/mean.binaryproto"
  }
  data_param {
    source: "/home/mohanty/data/final_dataset/lmdb/color-50-50/test_db"
    batch_size: 24
    backend: LMDB
  }
}
layer {
  name: "conv1/7x7_s2"
  type: "Convolution"
  bottom: "data"
  top: "conv1/7x7_s2"
  param {
    lr_mult: 1
    decay_mult: 1
  }
  param {
    lr_mult: 2
    decay_mult: 0
  }
  convolution_param {
    num_output: 64
    pad: 3
    kernel_size: 7
    stride: 2
    weight_filler {
      type: "xavier"
      std: 0.1
    }
    bias_filler {
      type: "constant"
      value: 0.2
    }
  }
}
layer {
  name: "conv1/relu_7x7"
  type: "ReLU"
  bottom: "conv1/7x7_s2"
  top: "conv1/7x7_s2"
}
layer {
  name: "pool1/3x3_s2"
  type: "Pooling"
  bottom: "conv1/7x7_s2"
  top: "pool1/3x3_s2"
  pooling_param {
    pool: MAX
    kernel_size: 3
    stride: 2
  }
}
layer {
  name: "pool1/norm1"
  type: "LRN"
  bottom: "pool1/3x3_s2"
  top: "pool1/norm1"
  lrn_param {
    local_size: 5
    alpha: 0.0001
    beta: 0.75
  }
}
layer {
  name: "conv2/3x3_reduce"
  type: "Convolution"
  bottom: "pool1/norm1"
  top: "conv2/3x3_reduce"
  param {
    lr_mult: 1
    decay_mult: 1
  }
  param {
    lr_mult: 2
    decay_mult: 0
  }
  convolution_param {
    num_output: 64
    kernel_size: 1
    weight_filler {
      type: "xavier"
      std: 0.1
    }
    bias_filler {
      type: "constant"
      value: 0.2
    }
  }
}
layer {
  name: "conv2/relu_3x3_reduce"
  type: "ReLU"
  bottom: "conv2/3x3_reduce"
  top: "conv2/3x3_reduce"
}
layer {
  name: "conv2/3x3"
  type: "Convolution"
  bottom: "conv2/3x3_reduce"
  top: "conv2/3x3"
  param {
    lr_mult: 1
    decay_mult: 1
  }
  param {
    lr_mult: 2
    decay_mult: 0
  }
  convolution_param {
    num_output: 192
    pad: 1
    kernel_size: 3
    weight_filler {
      type: "xavier"
      std: 0.03
    }
    bias_filler {
      type: "constant"
      value: 0.2
    }
  }
}
layer {
  name: "conv2/relu_3x3"
  type: "ReLU"
  bottom: "conv2/3x3"
  top: "conv2/3x3"
}
layer {
  name: "conv2/norm2"
  type: "LRN"
  bottom: "conv2/3x3"
  top: "conv2/norm2"
  lrn_param {
    local_size: 5
    alpha: 0.0001
    beta: 0.75
  }
}
layer {
  name: "pool2/3x3_s2"
  type: "Pooling"
  bottom: "conv2/norm2"
  top: "pool2/3x3_s2"
  pooling_param {
    pool: MAX
    kernel_size: 3
    stride: 2
  }
}
layer {
  name: "inception_3a/1x1"
  type: "Convolution"
  bottom: "pool2/3x3_s2"
  top: "inception_3a/1x1"
  param {
    lr_mult: 1
    decay_mult: 1
  }
  param {
    lr_mult: 2
    decay_mult: 0
  }
  convolution_param {
    num_output: 64
    kernel_size: 1
    weight_filler {
      type: "xavier"
      std: 0.03
    }
    bias_filler {
      type: "constant"
      value: 0.2
    }
  }
}
layer {
  name: "inception_3a/relu_1x1"
  type: "ReLU"
  bottom: "inception_3a/1x1"
  top: "inception_3a/1x1"
}
layer {
  name: "inception_3a/3x3_reduce"
  type: "Convolution"
  bottom: "pool2/3x3_s2"
  top: "inception_3a/3x3_reduce"
  param {
    lr_mult: 1
    decay_mult: 1
  }
  param {
    lr_mult: 2
    decay_mult: 0
  }
  convolution_param {
    num_output: 96
    kernel_size: 1
    weight_filler {
      type: "xavier"
      std: 0.09
    }
    bias_filler {
      type: "constant"
      value: 0.2
    }
  }
}
layer {
  name: "inception_3a/relu_3x3_reduce"
  type: "ReLU"
  bottom: "inception_3a/3x3_reduce"
  top: "inception_3a/3x3_reduce"
}
layer {
  name: "inception_3a/3x3"
  type: "Convolution"
  bottom: "inception_3a/3x3_reduce"
  top: "inception_3a/3x3"
  param {
    lr_mult: 1
    decay_mult: 1
  }
  param {
    lr_mult: 2
    decay_mult: 0
  }
  convolution_param {
    num_output: 128
    pad: 1
    kernel_size: 3
    weight_filler {
      type: "xavier"
      std: 0.03
    }
    bias_filler {
      type: "constant"
      value: 0.2
    }
  }
}
layer {
  name: "inception_3a/relu_3x3"
  type: "ReLU"
  bottom: "inception_3a/3x3"
  top: "inception_3a/3x3"
}
layer {
  name: "inception_3a/5x5_reduce"
  type: "Convolution"
  bottom: "pool2/3x3_s2"
  top: "inception_3a/5x5_reduce"
  param {
    lr_mult: 1
    decay_mult: 1
  }
  param {
    lr_mult: 2
    decay_mult: 0
  }
  convolution_param {
    num_output: 16
    kernel_size: 1
    weight_filler {
      type: "xavier"
      std: 0.2
    }
    bias_filler {
      type: "constant"
      value: 0.2
    }
  }
}
layer {
  name: "inception_3a/relu_5x5_reduce"
  type: "ReLU"
  bottom: "inception_3a/5x5_reduce"
  top: "inception_3a/5x5_reduce"
}
layer {
  name: "inception_3a/5x5"
  type: "Convolution"
  bottom: "inception_3a/5x5_reduce"
  top: "inception_3a/5x5"
  param {
    lr_mult: 1
    decay_mult: 1
  }
  param {
    lr_mult: 2
    decay_mult: 0
  }
  convolution_param {
    num_output: 32
    pad: 2
    kernel_size: 5
    weight_filler {
      type: "xavier"
      std: 0.03
    }
    bias_filler {
      type: "constant"
      value: 0.2
    }
  }
}
layer {
  name: "inception_3a/relu_5x5"
  type: "ReLU"
  bottom: "inception_3a/5x5"
  top: "inception_3a/5x5"
}
layer {
  name: "inception_3a/pool"
  type: "Pooling"
  bottom: "pool2/3x3_s2"
  top: "inception_3a/pool"
  pooling_param {
    pool: MAX
    kernel_size: 3
    stride: 1
    pad: 1
  }
}
layer {
  name: "inception_3a/pool_proj"
  type: "Convolution"
  bottom: "inception_3a/pool"
  top: "inception_3a/pool_proj"
  param {
    lr_mult: 1
    decay_mult: 1
  }
  param {
    lr_mult: 2
    decay_mult: 0
  }
  convolution_param {
    num_output: 32
    kernel_size: 1
    weight_filler {
      type: "xavier"
      std: 0.1
    }
    bias_filler {
      type: "constant"
      value: 0.2
    }
  }
}
layer {
  name: "inception_3a/relu_pool_proj"
  type: "ReLU"
  bottom: "inception_3a/pool_proj"
  top: "inception_3a/pool_proj"
}
layer {
  name: "inception_3a/output"
  type: "Concat"
  bottom: "inception_3a/1x1"
  bottom: "inception_3a/3x3"
  bottom: "inception_3a/5x5"
  bottom: "inception_3a/pool_proj"
  top: "inception_3a/output"
}
layer {
  name: "inception_3b/1x1"
  type: "Convolution"
  bottom: "inception_3a/output"
  top: "inception_3b/1x1"
  param {
    lr_mult: 1
    decay_mult: 1
  }
  param {
    lr_mult: 2
    decay_mult: 0
  }
  convolution_param {
    num_output: 128
    kernel_size: 1
    weight_filler {
      type: "xavier"
      std: 0.03
    }
    bias_filler {
      type: "constant"
      value: 0.2
    }
  }
}
layer {
  name: "inception_3b/relu_1x1"
  type: "ReLU"
  bottom: "inception_3b/1x1"
  top: "inception_3b/1x1"
}
layer {
  name: "inception_3b/3x3_reduce"
  type: "Convolution"
  bottom: "inception_3a/output"
  top: "inception_3b/3x3_reduce"
  param {
    lr_mult: 1
    decay_mult: 1
  }
  param {
    lr_mult: 2
    decay_mult: 0
  }
  convolution_param {
    num_output: 128
    kernel_size: 1
    weight_filler {
      type: "xavier"
      std: 0.09
    }
    bias_filler {
      type: "constant"
      value: 0.2
    }
  }
}
layer {
  name: "inception_3b/relu_3x3_reduce"
  type: "ReLU"
  bottom: "inception_3b/3x3_reduce"
  top: "inception_3b/3x3_reduce"
}
layer {
  name: "inception_3b/3x3"
  type: "Convolution"
  bottom: "inception_3b/3x3_reduce"
  top: "inception_3b/3x3"
  param {
    lr_mult: 1
    decay_mult: 1
  }
  param {
    lr_mult: 2
    decay_mult: 0
  }
  convolution_param {
    num_output: 192
    pad: 1
    kernel_size: 3
    weight_filler {
      type: "xavier"
      std: 0.03
    }
    bias_filler {
      type: "constant"
      value: 0.2
    }
  }
}
layer {
  name: "inception_3b/relu_3x3"
  type: "ReLU"
  bottom: "inception_3b/3x3"
  top: "inception_3b/3x3"
}
layer {
  name: "inception_3b/5x5_reduce"
  type: "Convolution"
  bottom: "inception_3a/output"
  top: "inception_3b/5x5_reduce"
  param {
    lr_mult: 1
    decay_mult: 1
  }
  param {
    lr_mult: 2
    decay_mult: 0
  }
  convolution_param {
    num_output: 32
    kernel_size: 1
    weight_filler {
      type: "xavier"
      std: 0.2
    }
    bias_filler {
      type: "constant"
      value: 0.2
    }
  }
}
layer {
  name: "inception_3b/relu_5x5_reduce"
  type: "ReLU"
  bottom: "inception_3b/5x5_reduce"
  top: "inception_3b/5x5_reduce"
}
layer {
  name: "inception_3b/5x5"
  type: "Convolution"
  bottom: "inception_3b/5x5_reduce"
  top: "inception_3b/5x5"
  param {
    lr_mult: 1
    decay_mult: 1
  }
  param {
    lr_mult: 2
    decay_mult: 0
  }
  convolution_param {
    num_output: 96
    pad: 2
    kernel_size: 5
    weight_filler {
      type: "xavier"
      std: 0.03
    }
    bias_filler {
      type: "constant"
      value: 0.2
    }
  }
}
layer {
  name: "inception_3b/relu_5x5"
  type: "ReLU"
  bottom: "inception_3b/5x5"
  top: "inception_3b/5x5"
}
layer {
  name: "inception_3b/pool"
  type: "Pooling"
  bottom: "inception_3a/output"
  top: "inception_3b/pool"
  pooling_param {
    pool: MAX
    kernel_size: 3
    stride: 1
    pad: 1
  }
}
layer {
  name: "inception_3b/pool_proj"
  type: "Convolution"
  bottom: "inception_3b/pool"
  top: "inception_3b/pool_proj"
  param {
    lr_mult: 1
    decay_mult: 1
  }
  param {
    lr_mult: 2
    decay_mult: 0
  }
  convolution_param {
    num_output: 64
    kernel_size: 1
    weight_filler {
      type: "xavier"
      std: 0.1
    }
    bias_filler {
      type: "constant"
      value: 0.2
    }
  }
}
layer {
  name: "inception_3b/relu_pool_proj"
  type: "ReLU"
  bottom: "inception_3b/pool_proj"
  top: "inception_3b/pool_proj"
}
layer {
  name: "inception_3b/output"
  type: "Concat"
  bottom: "inception_3b/1x1"
  bottom: "inception_3b/3x3"
  bottom: "inception_3b/5x5"
  bottom: "inception_3b/pool_proj"
  top: "inception_3b/output"
}
layer {
  name: "pool3/3x3_s2"
  type: "Pooling"
  bottom: "inception_3b/output"
  top: "pool3/3x3_s2"
  pooling_param {
    pool: MAX
    kernel_size: 3
    stride: 2
  }
}
layer {
  name: "inception_4a/1x1"
  type: "Convolution"
  bottom: "pool3/3x3_s2"
  top: "inception_4a/1x1"
  param {
    lr_mult: 1
    decay_mult: 1
  }
  param {
    lr_mult: 2
    decay_mult: 0
  }
  convolution_param {
    num_output: 192
    kernel_size: 1
    weight_filler {
      type: "xavier"
      std: 0.03
    }
    bias_filler {
      type: "constant"
      value: 0.2
    }
  }
}
layer {
  name: "inception_4a/relu_1x1"
  type: "ReLU"
  bottom: "inception_4a/1x1"
  top: "inception_4a/1x1"
}
layer {
  name: "inception_4a/3x3_reduce"
  type: "Convolution"
  bottom: "pool3/3x3_s2"
  top: "inception_4a/3x3_reduce"
  param {
    lr_mult: 1
    decay_mult: 1
  }
  param {
    lr_mult: 2
    decay_mult: 0
  }
  convolution_param {
    num_output: 96
    kernel_size: 1
    weight_filler {
      type: "xavier"
      std: 0.09
    }
    bias_filler {
      type: "constant"
      value: 0.2
    }
  }
}
layer {
  name: "inception_4a/relu_3x3_reduce"
  type: "ReLU"
  bottom: "inception_4a/3x3_reduce"
  top: "inception_4a/3x3_reduce"
}
layer {
  name: "inception_4a/3x3"
  type: "Convolution"
  bottom: "inception_4a/3x3_reduce"
  top: "inception_4a/3x3"
  param {
    lr_mult: 1
    decay_mult: 1
  }
  param {
    lr_mult: 2
    decay_mult: 0
  }
  convolution_param {
    num_output: 208
    pad: 1
    kernel_size: 3
    weight_filler {
      type: "xavier"
      std: 0.03
    }
    bias_filler {
      type: "constant"
      value: 0.2
    }
  }
}
layer {
  name: "inception_4a/relu_3x3"
  type: "ReLU"
  bottom: "inception_4a/3x3"
  top: "inception_4a/3x3"
}
layer {
  name: "inception_4a/5x5_reduce"
  type: "Convolution"
  bottom: "pool3/3x3_s2"
  top: "inception_4a/5x5_reduce"
  param {
    lr_mult: 1
    decay_mult: 1
  }
  param {
    lr_mult: 2
    decay_mult: 0
  }
  convolution_param {
    num_output: 16
    kernel_size: 1
    weight_filler {
      type: "xavier"
      std: 0.2
    }
    bias_filler {
      type: "constant"
      value: 0.2
    }
  }
}
layer {
  name: "inception_4a/relu_5x5_reduce"
  type: "ReLU"
  bottom: "inception_4a/5x5_reduce"
  top: "inception_4a/5x5_reduce"
}
layer {
  name: "inception_4a/5x5"
  type: "Convolution"
  bottom: "inception_4a/5x5_reduce"
  top: "inception_4a/5x5"
  param {
    lr_mult: 1
    decay_mult: 1
  }
  param {
    lr_mult: 2
    decay_mult: 0
  }
  convolution_param {
    num_output: 48
    pad: 2
    kernel_size: 5
    weight_filler {
      type: "xavier"
      std: 0.03
    }
    bias_filler {
      type: "constant"
      value: 0.2
    }
  }
}
layer {
  name: "inception_4a/relu_5x5"
  type: "ReLU"
  bottom: "inception_4a/5x5"
  top: "inception_4a/5x5"
}
layer {
  name: "inception_4a/pool"
  type: "Pooling"
  bottom: "pool3/3x3_s2"
  top: "inception_4a/pool"
  pooling_param {
    pool: MAX
    kernel_size: 3
    stride: 1
    pad: 1
  }
}
layer {
  name: "inception_4a/pool_proj"
  type: "Convolution"
  bottom: "inception_4a/pool"
  top: "inception_4a/pool_proj"
  param {
    lr_mult: 1
    decay_mult: 1
  }
  param {
    lr_mult: 2
    decay_mult: 0
  }
  convolution_param {
    num_output: 64
    kernel_size: 1
    weight_filler {
      type: "xavier"
      std: 0.1
    }
    bias_filler {
      type: "constant"
      value: 0.2
    }
  }
}
layer {
  name: "inception_4a/relu_pool_proj"
  type: "ReLU"
  bottom: "inception_4a/pool_proj"
  top: "inception_4a/pool_proj"
}
layer {
  name: "inception_4a/output"
  type: "Concat"
  bottom: "inception_4a/1x1"
  bottom: "inception_4a/3x3"
  bottom: "inception_4a/5x5"
  bottom: "inception_4a/pool_proj"
  top: "inception_4a/output"
}
layer {
  name: "loss1/ave_pool"
  type: "Pooling"
  bottom: "inception_4a/output"
  top: "loss1/ave_pool"
  pooling_param {
    pool: AVE
    kernel_size: 5
    stride: 3
  }
}
layer {
  name: "loss1/conv"
  type: "Convolution"
  bottom: "loss1/ave_pool"
  top: "loss1/conv"
  param {
    lr_mult: 1
    decay_mult: 1
  }
  param {
    lr_mult: 2
    decay_mult: 0
  }
  convolution_param {
    num_output: 128
    kernel_size: 1
    weight_filler {
      type: "xavier"
      std: 0.08
    }
    bias_filler {
      type: "constant"
      value: 0.2
    }
  }
}
layer {
  name: "loss1/relu_conv"
  type: "ReLU"
  bottom: "loss1/conv"
  top: "loss1/conv"
}
layer {
  name: "loss1/fc"
  type: "InnerProduct"
  bottom: "loss1/conv"
  top: "loss1/fc"
  param {
    lr_mult: 1
    decay_mult: 1
  }
  param {
    lr_mult: 2
    decay_mult: 0
  }
  inner_product_param {
    num_output: 1024
    weight_filler {
      type: "xavier"
      std: 0.02
    }
    bias_filler {
      type: "constant"
      value: 0.2
    }
  }
}
layer {
  name: "loss1/relu_fc"
  type: "ReLU"
  bottom: "loss1/fc"
  top: "loss1/fc"
}
layer {
  name: "loss1/drop_fc"
  type: "Dropout"
  bottom: "loss1/fc"
  top: "loss1/fc"
  dropout_param {
    dropout_ratio: 0.7
  }
}
layer {
  name: "loss1/classifier_plantvillage"
  type: "InnerProduct"
  bottom: "loss1/fc"
  top: "loss1/classifier_plantvillage"
  param {
    lr_mult: 1
    decay_mult: 1
  }
  param {
    lr_mult: 2
    decay_mult: 0
  }
  inner_product_param {
    num_output: 38
    weight_filler {
      type: "xavier"
      std: 0.0009765625
    }
    bias_filler {
      type: "constant"
      value: 0
    }
  }
}
layer {
  name: "inception_4b/1x1"
  type: "Convolution"
  bottom: "inception_4a/output"
  top: "inception_4b/1x1"
  param {
    lr_mult: 1
    decay_mult: 1
  }
  param {
    lr_mult: 2
    decay_mult: 0
  }
  convolution_param {
    num_output: 160
    kernel_size: 1
    weight_filler {
      type: "xavier"
      std: 0.03
    }
    bias_filler {
      type: "constant"
      value: 0.2
    }
  }
}
layer {
  name: "inception_4b/relu_1x1"
  type: "ReLU"
  bottom: "inception_4b/1x1"
  top: "inception_4b/1x1"
}
layer {
  name: "inception_4b/3x3_reduce"
  type: "Convolution"
  bottom: "inception_4a/output"
  top: "inception_4b/3x3_reduce"
  param {
    lr_mult: 1
    decay_mult: 1
  }
  param {
    lr_mult: 2
    decay_mult: 0
  }
  convolution_param {
    num_output: 112
    kernel_size: 1
    weight_filler {
      type: "xavier"
      std: 0.09
    }
    bias_filler {
      type: "constant"
      value: 0.2
    }
  }
}
layer {
  name: "inception_4b/relu_3x3_reduce"
  type: "ReLU"
  bottom: "inception_4b/3x3_reduce"
  top: "inception_4b/3x3_reduce"
}
layer {
  name: "inception_4b/3x3"
  type: "Convolution"
  bottom: "inception_4b/3x3_reduce"
  top: "inception_4b/3x3"
  param {
    lr_mult: 1
    decay_mult: 1
  }
  param {
    lr_mult: 2
    decay_mult: 0
  }
  convolution_param {
    num_output: 224
    pad: 1
    kernel_size: 3
    weight_filler {
      type: "xavier"
      std: 0.03
    }
    bias_filler {
      type: "constant"
      value: 0.2
    }
  }
}
layer {
  name: "inception_4b/relu_3x3"
  type: "ReLU"
  bottom: "inception_4b/3x3"
  top: "inception_4b/3x3"
}
layer {
  name: "inception_4b/5x5_reduce"
  type: "Convolution"
  bottom: "inception_4a/output"
  top: "inception_4b/5x5_reduce"
  param {
    lr_mult: 1
    decay_mult: 1
  }
  param {
    lr_mult: 2
    decay_mult: 0
  }
  convolution_param {
    num_output: 24
    kernel_size: 1
    weight_filler {
      type: "xavier"
      std: 0.2
    }
    bias_filler {
      type: "constant"
      value: 0.2
    }
  }
}
layer {
  name: "inception_4b/relu_5x5_reduce"
  type: "ReLU"
  bottom: "inception_4b/5x5_reduce"
  top: "inception_4b/5x5_reduce"
}
layer {
  name: "inception_4b/5x5"
  type: "Convolution"
  bottom: "inception_4b/5x5_reduce"
  top: "inception_4b/5x5"
  param {
    lr_mult: 1
    decay_mult: 1
  }
  param {
    lr_mult: 2
    decay_mult: 0
  }
  convolution_param {
    num_output: 64
    pad: 2
    kernel_size: 5
    weight_filler {
      type: "xavier"
      std: 0.03
    }
    bias_filler {
      type: "constant"
      value: 0.2
    }
  }
}
layer {
  name: "inception_4b/relu_5x5"
  type: "ReLU"
  bottom: "inception_4b/5x5"
  top: "inception_4b/5x5"
}
layer {
  name: "inception_4b/pool"
  type: "Pooling"
  bottom: "inception_4a/output"
  top: "inception_4b/pool"
  pooling_param {
    pool: MAX
    kernel_size: 3
    stride: 1
    pad: 1
  }
}
layer {
  name: "inception_4b/pool_proj"
  type: "Convolution"
  bottom: "inception_4b/pool"
  top: "inception_4b/pool_proj"
  param {
    lr_mult: 1
    decay_mult: 1
  }
  param {
    lr_mult: 2
    decay_mult: 0
  }
  convolution_param {
    num_output: 64
    kernel_size: 1
    weight_filler {
      type: "xavier"
      std: 0.1
    }
    bias_filler {
      type: "constant"
      value: 0.2
    }
  }
}
layer {
  name: "inception_4b/relu_pool_proj"
  type: "ReLU"
  bottom: "inception_4b/pool_proj"
  top: "inception_4b/pool_proj"
}
layer {
  name: "inception_4b/output"
  type: "Concat"
  bottom: "inception_4b/1x1"
  bottom: "inception_4b/3x3"
  bottom: "inception_4b/5x5"
  bottom: "inception_4b/pool_proj"
  top: "inception_4b/output"
}
layer {
  name: "inception_4c/1x1"
  type: "Convolution"
  bottom: "inception_4b/output"
  top: "inception_4c/1x1"
  param {
    lr_mult: 1
    decay_mult: 1
  }
  param {
    lr_mult: 2
    decay_mult: 0
  }
  convolution_param {
    num_output: 128
    kernel_size: 1
    weight_filler {
      type: "xavier"
      std: 0.03
    }
    bias_filler {
      type: "constant"
      value: 0.2
    }
  }
}
layer {
  name: "inception_4c/relu_1x1"
  type: "ReLU"
  bottom: "inception_4c/1x1"
  top: "inception_4c/1x1"
}
layer {
  name: "inception_4c/3x3_reduce"
  type: "Convolution"
  bottom: "inception_4b/output"
  top: "inception_4c/3x3_reduce"
  param {
    lr_mult: 1
    decay_mult: 1
  }
  param {
    lr_mult: 2
    decay_mult: 0
  }
  convolution_param {
    num_output: 128
    kernel_size: 1
    weight_filler {
      type: "xavier"
      std: 0.09
    }
    bias_filler {
      type: "constant"
      value: 0.2
    }
  }
}
layer {
  name: "inception_4c/relu_3x3_reduce"
  type: "ReLU"
  bottom: "inception_4c/3x3_reduce"
  top: "inception_4c/3x3_reduce"
}
layer {
  name: "inception_4c/3x3"
  type: "Convolution"
  bottom: "inception_4c/3x3_reduce"
  top: "inception_4c/3x3"
  param {
    lr_mult: 1
    decay_mult: 1
  }
  param {
    lr_mult: 2
    decay_mult: 0
  }
  convolution_param {
    num_output: 256
    pad: 1
    kernel_size: 3
    weight_filler {
      type: "xavier"
      std: 0.03
    }
    bias_filler {
      type: "constant"
      value: 0.2
    }
  }
}
layer {
  name: "inception_4c/relu_3x3"
  type: "ReLU"
  bottom: "inception_4c/3x3"
  top: "inception_4c/3x3"
}
layer {
  name: "inception_4c/5x5_reduce"
  type: "Convolution"
  bottom: "inception_4b/output"
  top: "inception_4c/5x5_reduce"
  param {
    lr_mult: 1
    decay_mult: 1
  }
  param {
    lr_mult: 2
    decay_mult: 0
  }
  convolution_param {
    num_output: 24
    kernel_size: 1
    weight_filler {
      type: "xavier"
      std: 0.2
    }
    bias_filler {
      type: "constant"
      value: 0.2
    }
  }
}
layer {
  name: "inception_4c/relu_5x5_reduce"
  type: "ReLU"
  bottom: "inception_4c/5x5_reduce"
  top: "inception_4c/5x5_reduce"
}
layer {
  name: "inception_4c/5x5"
  type: "Convolution"
  bottom: "inception_4c/5x5_reduce"
  top: "inception_4c/5x5"
  param {
    lr_mult: 1
    decay_mult: 1
  }
  param {
    lr_mult: 2
    decay_mult: 0
  }
  convolution_param {
    num_output: 64
    pad: 2
    kernel_size: 5
    weight_filler {
      type: "xavier"
      std: 0.03
    }
    bias_filler {
      type: "constant"
      value: 0.2
    }
  }
}
layer {
  name: "inception_4c/relu_5x5"
  type: "ReLU"
  bottom: "inception_4c/5x5"
  top: "inception_4c/5x5"
}
layer {
  name: "inception_4c/pool"
  type: "Pooling"
  bottom: "inception_4b/output"
  top: "inception_4c/pool"
  pooling_param {
    pool: MAX
    kernel_size: 3
    stride: 1
    pad: 1
  }
}
layer {
  name: "inception_4c/pool_proj"
  type: "Convolution"
  bottom: "inception_4c/pool"
  top: "inception_4c/pool_proj"
  param {
    lr_mult: 1
    decay_mult: 1
  }
  param {
    lr_mult: 2
    decay_mult: 0
  }
  convolution_param {
    num_output: 64
    kernel_size: 1
    weight_filler {
      type: "xavier"
      std: 0.1
    }
    bias_filler {
      type: "constant"
      value: 0.2
    }
  }
}
layer {
  name: "inception_4c/relu_pool_proj"
  type: "ReLU"
  bottom: "inception_4c/pool_proj"
  top: "inception_4c/pool_proj"
}
layer {
  name: "inception_4c/output"
  type: "Concat"
  bottom: "inception_4c/1x1"
  bottom: "inception_4c/3x3"
  bottom: "inception_4c/5x5"
  bottom: "inception_4c/pool_proj"
  top: "inception_4c/output"
}
layer {
  name: "inception_4d/1x1"
  type: "Convolution"
  bottom: "inception_4c/output"
  top: "inception_4d/1x1"
  param {
    lr_mult: 1
    decay_mult: 1
  }
  param {
    lr_mult: 2
    decay_mult: 0
  }
  convolution_param {
    num_output: 112
    kernel_size: 1
    weight_filler {
      type: "xavier"
      std: 0.03
    }
    bias_filler {
      type: "constant"
      value: 0.2
    }
  }
}
layer {
  name: "inception_4d/relu_1x1"
  type: "ReLU"
  bottom: "inception_4d/1x1"
  top: "inception_4d/1x1"
}
layer {
  name: "inception_4d/3x3_reduce"
  type: "Convolution"
  bottom: "inception_4c/output"
  top: "inception_4d/3x3_reduce"
  param {
    lr_mult: 1
    decay_mult: 1
  }
  param {
    lr_mult: 2
    decay_mult: 0
  }
  convolution_param {
    num_output: 144
    kernel_size: 1
    weight_filler {
      type: "xavier"
      std: 0.09
    }
    bias_filler {
      type: "constant"
      value: 0.2
    }
  }
}
layer {
  name: "inception_4d/relu_3x3_reduce"
  type: "ReLU"
  bottom: "inception_4d/3x3_reduce"
  top: "inception_4d/3x3_reduce"
}
layer {
  name: "inception_4d/3x3"
  type: "Convolution"
  bottom: "inception_4d/3x3_reduce"
  top: "inception_4d/3x3"
  param {
    lr_mult: 1
    decay_mult: 1
  }
  param {
    lr_mult: 2
    decay_mult: 0
  }
  convolution_param {
    num_output: 288
    pad: 1
    kernel_size: 3
    weight_filler {
      type: "xavier"
      std: 0.03
    }
    bias_filler {
      type: "constant"
      value: 0.2
    }
  }
}
layer {
  name: "inception_4d/relu_3x3"
  type: "ReLU"
  bottom: "inception_4d/3x3"
  top: "inception_4d/3x3"
}
layer {
  name: "inception_4d/5x5_reduce"
  type: "Convolution"
  bottom: "inception_4c/output"
  top: "inception_4d/5x5_reduce"
  param {
    lr_mult: 1
    decay_mult: 1
  }
  param {
    lr_mult: 2
    decay_mult: 0
  }
  convolution_param {
    num_output: 32
    kernel_size: 1
    weight_filler {
      type: "xavier"
      std: 0.2
    }
    bias_filler {
      type: "constant"
      value: 0.2
    }
  }
}
layer {
  name: "inception_4d/relu_5x5_reduce"
  type: "ReLU"
  bottom: "inception_4d/5x5_reduce"
  top: "inception_4d/5x5_reduce"
}
layer {
  name: "inception_4d/5x5"
  type: "Convolution"
  bottom: "inception_4d/5x5_reduce"
  top: "inception_4d/5x5"
  param {
    lr_mult: 1
    decay_mult: 1
  }
  param {
    lr_mult: 2
    decay_mult: 0
  }
  convolution_param {
    num_output: 64
    pad: 2
    kernel_size: 5
    weight_filler {
      type: "xavier"
      std: 0.03
    }
    bias_filler {
      type: "constant"
      value: 0.2
    }
  }
}
layer {
  name: "inception_4d/relu_5x5"
  type: "ReLU"
  bottom: "inception_4d/5x5"
  top: "inception_4d/5x5"
}
layer {
  name: "inception_4d/pool"
  type: "Pooling"
  bottom: "inception_4c/output"
  top: "inception_4d/pool"
  pooling_param {
    pool: MAX
    kernel_size: 3
    stride: 1
    pad: 1
  }
}
layer {
  name: "inception_4d/pool_proj"
  type: "Convolution"
  bottom: "inception_4d/pool"
  top: "inception_4d/pool_proj"
  param {
    lr_mult: 1
    decay_mult: 1
  }
  param {
    lr_mult: 2
    decay_mult: 0
  }
  convolution_param {
    num_output: 64
    kernel_size: 1
    weight_filler {
      type: "xavier"
      std: 0.1
    }
    bias_filler {
      type: "constant"
      value: 0.2
    }
  }
}
layer {
  name: "inception_4d/relu_pool_proj"
  type: "ReLU"
  bottom: "inception_4d/pool_proj"
  top: "inception_4d/pool_proj"
}
layer {
  name: "inception_4d/output"
  type: "Concat"
  bottom: "inception_4d/1x1"
  bottom: "inception_4d/3x3"
  bottom: "inception_4d/5x5"
  bottom: "inception_4d/pool_proj"
  top: "inception_4d/output"
}
layer {
  name: "loss2/ave_pool"
  type: "Pooling"
  bottom: "inception_4d/output"
  top: "loss2/ave_pool"
  pooling_param {
    pool: AVE
    kernel_size: 5
    stride: 3
  }
}
layer {
  name: "loss2/conv"
  type: "Convolution"
  bottom: "loss2/ave_pool"
  top: "loss2/conv"
  param {
    lr_mult: 1
    decay_mult: 1
  }
  param {
    lr_mult: 2
    decay_mult: 0
  }
  convolution_param {
    num_output: 128
    kernel_size: 1
    weight_filler {
      type: "xavier"
      std: 0.08
    }
    bias_filler {
      type: "constant"
      value: 0.2
    }
  }
}
layer {
  name: "loss2/relu_conv"
  type: "ReLU"
  bottom: "loss2/conv"
  top: "loss2/conv"
}
layer {
  name: "loss2/fc"
  type: "InnerProduct"
  bottom: "loss2/conv"
  top: "loss2/fc"
  param {
    lr_mult: 1
    decay_mult: 1
  }
  param {
    lr_mult: 2
    decay_mult: 0
  }
  inner_product_param {
    num_output: 1024
    weight_filler {
      type: "xavier"
      std: 0.02
    }
    bias_filler {
      type: "constant"
      value: 0.2
    }
  }
}
layer {
  name: "loss2/relu_fc"
  type: "ReLU"
  bottom: "loss2/fc"
  top: "loss2/fc"
}
layer {
  name: "loss2/drop_fc"
  type: "Dropout"
  bottom: "loss2/fc"
  top: "loss2/fc"
  dropout_param {
    dropout_ratio: 0.7
  }
}
layer {
  name: "loss2/classifier_plantvillage"
  type: "InnerProduct"
  bottom: "loss2/fc"
  top: "loss2/classifier_plantvillage"
  param {
    lr_mult: 1
    decay_mult: 1
  }
  param {
    lr_mult: 2
    decay_mult: 0
  }
  inner_product_param {
    num_output: 38
    weight_filler {
      type: "xavier"
      std: 0.0009765625
    }
    bias_filler {
      type: "constant"
      value: 0
    }
  }
}
layer {
  name: "inception_4e/1x1"
  type: "Convolution"
  bottom: "inception_4d/output"
  top: "inception_4e/1x1"
  param {
    lr_mult: 1
    decay_mult: 1
  }
  param {
    lr_mult: 2
    decay_mult: 0
  }
  convolution_param {
    num_output: 256
    kernel_size: 1
    weight_filler {
      type: "xavier"
      std: 0.03
    }
    bias_filler {
      type: "constant"
      value: 0.2
    }
  }
}
layer {
  name: "inception_4e/relu_1x1"
  type: "ReLU"
  bottom: "inception_4e/1x1"
  top: "inception_4e/1x1"
}
layer {
  name: "inception_4e/3x3_reduce"
  type: "Convolution"
  bottom: "inception_4d/output"
  top: "inception_4e/3x3_reduce"
  param {
    lr_mult: 1
    decay_mult: 1
  }
  param {
    lr_mult: 2
    decay_mult: 0
  }
  convolution_param {
    num_output: 160
    kernel_size: 1
    weight_filler {
      type: "xavier"
      std: 0.09
    }
    bias_filler {
      type: "constant"
      value: 0.2
    }
  }
}
layer {
  name: "inception_4e/relu_3x3_reduce"
  type: "ReLU"
  bottom: "inception_4e/3x3_reduce"
  top: "inception_4e/3x3_reduce"
}
layer {
  name: "inception_4e/3x3"
  type: "Convolution"
  bottom: "inception_4e/3x3_reduce"
  top: "inception_4e/3x3"
  param {
    lr_mult: 1
    decay_mult: 1
  }
  param {
    lr_mult: 2
    decay_mult: 0
  }
  convolution_param {
    num_output: 320
    pad: 1
    kernel_size: 3
    weight_filler {
      type: "xavier"
      std: 0.03
    }
    bias_filler {
      type: "constant"
      value: 0.2
    }
  }
}
layer {
  name: "inception_4e/relu_3x3"
  type: "ReLU"
  bottom: "inception_4e/3x3"
  top: "inception_4e/3x3"
}
layer {
  name: "inception_4e/5x5_reduce"
  type: "Convolution"
  bottom: "inception_4d/output"
  top: "inception_4e/5x5_reduce"
  param {
    lr_mult: 1
    decay_mult: 1
  }
  param {
    lr_mult: 2
    decay_mult: 0
  }
  convolution_param {
    num_output: 32
    kernel_size: 1
    weight_filler {
      type: "xavier"
      std: 0.2
    }
    bias_filler {
      type: "constant"
      value: 0.2
    }
  }
}
layer {
  name: "inception_4e/relu_5x5_reduce"
  type: "ReLU"
  bottom: "inception_4e/5x5_reduce"
  top: "inception_4e/5x5_reduce"
}
layer {
  name: "inception_4e/5x5"
  type: "Convolution"
  bottom: "inception_4e/5x5_reduce"
  top: "inception_4e/5x5"
  p
I0403 19:35:51.340915  9430 layer_factory.hpp:77] Creating layer data
I0403 19:35:51.341502  9430 net.cpp:91] Creating Layer data
I0403 19:35:51.341533  9430 net.cpp:399] data -> data
I0403 19:35:51.341585  9430 net.cpp:399] data -> label
I0403 19:35:51.341621  9430 data_transformer.cpp:25] Loading mean file from: /home/mohanty/data/final_dataset/lmdb/color-50-50/mean.binaryproto
I0403 19:35:51.342705  9433 db_lmdb.cpp:38] Opened lmdb /home/mohanty/data/final_dataset/lmdb/color-50-50/test_db
I0403 19:35:51.354840  9430 data_layer.cpp:41] output data size: 24,3,224,224
I0403 19:35:51.381916  9430 net.cpp:141] Setting up data
I0403 19:35:51.382009  9430 net.cpp:148] Top shape: 24 3 224 224 (3612672)
I0403 19:35:51.382032  9430 net.cpp:148] Top shape: 24 (24)
I0403 19:35:51.382047  9430 net.cpp:156] Memory required for data: 14450784
I0403 19:35:51.382076  9430 layer_factory.hpp:77] Creating layer label_data_1_split
I0403 19:35:51.382102  9430 net.cpp:91] Creating Layer label_data_1_split
I0403 19:35:51.382122  9430 net.cpp:425] label_data_1_split <- label
I0403 19:35:51.382153  9430 net.cpp:399] label_data_1_split -> label_data_1_split_0
I0403 19:35:51.382180  9430 net.cpp:399] label_data_1_split -> label_data_1_split_1
I0403 19:35:51.382201  9430 net.cpp:399] label_data_1_split -> label_data_1_split_2
I0403 19:35:51.382223  9430 net.cpp:399] label_data_1_split -> label_data_1_split_3
I0403 19:35:51.382247  9430 net.cpp:399] label_data_1_split -> label_data_1_split_4
I0403 19:35:51.382269  9430 net.cpp:399] label_data_1_split -> label_data_1_split_5
I0403 19:35:51.382289  9430 net.cpp:399] label_data_1_split -> label_data_1_split_6
I0403 19:35:51.382310  9430 net.cpp:399] label_data_1_split -> label_data_1_split_7
I0403 19:35:51.382330  9430 net.cpp:399] label_data_1_split -> label_data_1_split_8
I0403 19:35:51.382350  9430 net.cpp:399] label_data_1_split -> label_data_1_split_9
I0403 19:35:51.382470  9430 net.cpp:141] Setting up label_data_1_split
I0403 19:35:51.382493  9430 net.cpp:148] Top shape: 24 (24)
I0403 19:35:51.382511  9430 net.cpp:148] Top shape: 24 (24)
I0403 19:35:51.382527  9430 net.cpp:148] Top shape: 24 (24)
I0403 19:35:51.382544  9430 net.cpp:148] Top shape: 24 (24)
I0403 19:35:51.382558  9430 net.cpp:148] Top shape: 24 (24)
I0403 19:35:51.382573  9430 net.cpp:148] Top shape: 24 (24)
I0403 19:35:51.382589  9430 net.cpp:148] Top shape: 24 (24)
I0403 19:35:51.382606  9430 net.cpp:148] Top shape: 24 (24)
I0403 19:35:51.382622  9430 net.cpp:148] Top shape: 24 (24)
I0403 19:35:51.382638  9430 net.cpp:148] Top shape: 24 (24)
I0403 19:35:51.382683  9430 net.cpp:156] Memory required for data: 14451744
I0403 19:35:51.382699  9430 layer_factory.hpp:77] Creating layer conv1/7x7_s2
I0403 19:35:51.382732  9430 net.cpp:91] Creating Layer conv1/7x7_s2
I0403 19:35:51.382751  9430 net.cpp:425] conv1/7x7_s2 <- data
I0403 19:35:51.382771  9430 net.cpp:399] conv1/7x7_s2 -> conv1/7x7_s2
I0403 19:35:51.516628  9430 net.cpp:141] Setting up conv1/7x7_s2
I0403 19:35:51.516685  9430 net.cpp:148] Top shape: 24 64 112 112 (19267584)
I0403 19:35:51.516702  9430 net.cpp:156] Memory required for data: 91522080
I0403 19:35:51.516734  9430 layer_factory.hpp:77] Creating layer conv1/relu_7x7
I0403 19:35:51.516760  9430 net.cpp:91] Creating Layer conv1/relu_7x7
I0403 19:35:51.516779  9430 net.cpp:425] conv1/relu_7x7 <- conv1/7x7_s2
I0403 19:35:51.516798  9430 net.cpp:386] conv1/relu_7x7 -> conv1/7x7_s2 (in-place)
I0403 19:35:51.517053  9430 net.cpp:141] Setting up conv1/relu_7x7
I0403 19:35:51.517081  9430 net.cpp:148] Top shape: 24 64 112 112 (19267584)
I0403 19:35:51.517096  9430 net.cpp:156] Memory required for data: 168592416
I0403 19:35:51.517112  9430 layer_factory.hpp:77] Creating layer pool1/3x3_s2
I0403 19:35:51.517137  9430 net.cpp:91] Creating Layer pool1/3x3_s2
I0403 19:35:51.517154  9430 net.cpp:425] pool1/3x3_s2 <- conv1/7x7_s2
I0403 19:35:51.517173  9430 net.cpp:399] pool1/3x3_s2 -> pool1/3x3_s2
I0403 19:35:51.517248  9430 net.cpp:141] Setting up pool1/3x3_s2
I0403 19:35:51.517274  9430 net.cpp:148] Top shape: 24 64 56 56 (4816896)
I0403 19:35:51.517289  9430 net.cpp:156] Memory required for data: 187860000
I0403 19:35:51.517304  9430 layer_factory.hpp:77] Creating layer pool1/norm1
I0403 19:35:51.517328  9430 net.cpp:91] Creating Layer pool1/norm1
I0403 19:35:51.517345  9430 net.cpp:425] pool1/norm1 <- pool1/3x3_s2
I0403 19:35:51.517364  9430 net.cpp:399] pool1/norm1 -> pool1/norm1
I0403 19:35:51.517645  9430 net.cpp:141] Setting up pool1/norm1
I0403 19:35:51.517678  9430 net.cpp:148] Top shape: 24 64 56 56 (4816896)
I0403 19:35:51.517693  9430 net.cpp:156] Memory required for data: 207127584
I0403 19:35:51.517709  9430 layer_factory.hpp:77] Creating layer conv2/3x3_reduce
I0403 19:35:51.517734  9430 net.cpp:91] Creating Layer conv2/3x3_reduce
I0403 19:35:51.517750  9430 net.cpp:425] conv2/3x3_reduce <- pool1/norm1
I0403 19:35:51.517768  9430 net.cpp:399] conv2/3x3_reduce -> conv2/3x3_reduce
I0403 19:35:51.519075  9430 net.cpp:141] Setting up conv2/3x3_reduce
I0403 19:35:51.519106  9430 net.cpp:148] Top shape: 24 64 56 56 (4816896)
I0403 19:35:51.519122  9430 net.cpp:156] Memory required for data: 226395168
I0403 19:35:51.519145  9430 layer_factory.hpp:77] Creating layer conv2/relu_3x3_reduce
I0403 19:35:51.519165  9430 net.cpp:91] Creating Layer conv2/relu_3x3_reduce
I0403 19:35:51.519181  9430 net.cpp:425] conv2/relu_3x3_reduce <- conv2/3x3_reduce
I0403 19:35:51.519198  9430 net.cpp:386] conv2/relu_3x3_reduce -> conv2/3x3_reduce (in-place)
I0403 19:35:51.519455  9430 net.cpp:141] Setting up conv2/relu_3x3_reduce
I0403 19:35:51.519482  9430 net.cpp:148] Top shape: 24 64 56 56 (4816896)
I0403 19:35:51.519497  9430 net.cpp:156] Memory required for data: 245662752
I0403 19:35:51.519512  9430 layer_factory.hpp:77] Creating layer conv2/3x3
I0403 19:35:51.519536  9430 net.cpp:91] Creating Layer conv2/3x3
I0403 19:35:51.519551  9430 net.cpp:425] conv2/3x3 <- conv2/3x3_reduce
I0403 19:35:51.519570  9430 net.cpp:399] conv2/3x3 -> conv2/3x3
I0403 19:35:51.521762  9430 net.cpp:141] Setting up conv2/3x3
I0403 19:35:51.521793  9430 net.cpp:148] Top shape: 24 192 56 56 (14450688)
I0403 19:35:51.521811  9430 net.cpp:156] Memory required for data: 303465504
I0403 19:35:51.521832  9430 layer_factory.hpp:77] Creating layer conv2/relu_3x3
I0403 19:35:51.521850  9430 net.cpp:91] Creating Layer conv2/relu_3x3
I0403 19:35:51.521867  9430 net.cpp:425] conv2/relu_3x3 <- conv2/3x3
I0403 19:35:51.521883  9430 net.cpp:386] conv2/relu_3x3 -> conv2/3x3 (in-place)
I0403 19:35:51.522047  9430 net.cpp:141] Setting up conv2/relu_3x3
I0403 19:35:51.522071  9430 net.cpp:148] Top shape: 24 192 56 56 (14450688)
I0403 19:35:51.522117  9430 net.cpp:156] Memory required for data: 361268256
I0403 19:35:51.522133  9430 layer_factory.hpp:77] Creating layer conv2/norm2
I0403 19:35:51.522151  9430 net.cpp:91] Creating Layer conv2/norm2
I0403 19:35:51.522167  9430 net.cpp:425] conv2/norm2 <- conv2/3x3
I0403 19:35:51.522186  9430 net.cpp:399] conv2/norm2 -> conv2/norm2
I0403 19:35:51.522486  9430 net.cpp:141] Setting up conv2/norm2
I0403 19:35:51.522513  9430 net.cpp:148] Top shape: 24 192 56 56 (14450688)
I0403 19:35:51.522528  9430 net.cpp:156] Memory required for data: 419071008
I0403 19:35:51.522543  9430 layer_factory.hpp:77] Creating layer pool2/3x3_s2
I0403 19:35:51.522562  9430 net.cpp:91] Creating Layer pool2/3x3_s2
I0403 19:35:51.522578  9430 net.cpp:425] pool2/3x3_s2 <- conv2/norm2
I0403 19:35:51.522594  9430 net.cpp:399] pool2/3x3_s2 -> pool2/3x3_s2
I0403 19:35:51.522644  9430 net.cpp:141] Setting up pool2/3x3_s2
I0403 19:35:51.522666  9430 net.cpp:148] Top shape: 24 192 28 28 (3612672)
I0403 19:35:51.522681  9430 net.cpp:156] Memory required for data: 433521696
I0403 19:35:51.522696  9430 layer_factory.hpp:77] Creating layer pool2/3x3_s2_pool2/3x3_s2_0_split
I0403 19:35:51.522713  9430 net.cpp:91] Creating Layer pool2/3x3_s2_pool2/3x3_s2_0_split
I0403 19:35:51.522728  9430 net.cpp:425] pool2/3x3_s2_pool2/3x3_s2_0_split <- pool2/3x3_s2
I0403 19:35:51.522749  9430 net.cpp:399] pool2/3x3_s2_pool2/3x3_s2_0_split -> pool2/3x3_s2_pool2/3x3_s2_0_split_0
I0403 19:35:51.522770  9430 net.cpp:399] pool2/3x3_s2_pool2/3x3_s2_0_split -> pool2/3x3_s2_pool2/3x3_s2_0_split_1
I0403 19:35:51.522790  9430 net.cpp:399] pool2/3x3_s2_pool2/3x3_s2_0_split -> pool2/3x3_s2_pool2/3x3_s2_0_split_2
I0403 19:35:51.522809  9430 net.cpp:399] pool2/3x3_s2_pool2/3x3_s2_0_split -> pool2/3x3_s2_pool2/3x3_s2_0_split_3
I0403 19:35:51.522877  9430 net.cpp:141] Setting up pool2/3x3_s2_pool2/3x3_s2_0_split
I0403 19:35:51.522898  9430 net.cpp:148] Top shape: 24 192 28 28 (3612672)
I0403 19:35:51.522915  9430 net.cpp:148] Top shape: 24 192 28 28 (3612672)
I0403 19:35:51.522932  9430 net.cpp:148] Top shape: 24 192 28 28 (3612672)
I0403 19:35:51.522946  9430 net.cpp:148] Top shape: 24 192 28 28 (3612672)
I0403 19:35:51.522960  9430 net.cpp:156] Memory required for data: 491324448
I0403 19:35:51.522974  9430 layer_factory.hpp:77] Creating layer inception_3a/1x1
I0403 19:35:51.522994  9430 net.cpp:91] Creating Layer inception_3a/1x1
I0403 19:35:51.523011  9430 net.cpp:425] inception_3a/1x1 <- pool2/3x3_s2_pool2/3x3_s2_0_split_0
I0403 19:35:51.523030  9430 net.cpp:399] inception_3a/1x1 -> inception_3a/1x1
I0403 19:35:51.524591  9430 net.cpp:141] Setting up inception_3a/1x1
I0403 19:35:51.524622  9430 net.cpp:148] Top shape: 24 64 28 28 (1204224)
I0403 19:35:51.524638  9430 net.cpp:156] Memory required for data: 496141344
I0403 19:35:51.524657  9430 layer_factory.hpp:77] Creating layer inception_3a/relu_1x1
I0403 19:35:51.524677  9430 net.cpp:91] Creating Layer inception_3a/relu_1x1
I0403 19:35:51.524694  9430 net.cpp:425] inception_3a/relu_1x1 <- inception_3a/1x1
I0403 19:35:51.524713  9430 net.cpp:386] inception_3a/relu_1x1 -> inception_3a/1x1 (in-place)
I0403 19:35:51.524891  9430 net.cpp:141] Setting up inception_3a/relu_1x1
I0403 19:35:51.524917  9430 net.cpp:148] Top shape: 24 64 28 28 (1204224)
I0403 19:35:51.524933  9430 net.cpp:156] Memory required for data: 500958240
I0403 19:35:51.524947  9430 layer_factory.hpp:77] Creating layer inception_3a/3x3_reduce
I0403 19:35:51.524972  9430 net.cpp:91] Creating Layer inception_3a/3x3_reduce
I0403 19:35:51.524989  9430 net.cpp:425] inception_3a/3x3_reduce <- pool2/3x3_s2_pool2/3x3_s2_0_split_1
I0403 19:35:51.525008  9430 net.cpp:399] inception_3a/3x3_reduce -> inception_3a/3x3_reduce
I0403 19:35:51.526679  9430 net.cpp:141] Setting up inception_3a/3x3_reduce
I0403 19:35:51.526710  9430 net.cpp:148] Top shape: 24 96 28 28 (1806336)
I0403 19:35:51.526726  9430 net.cpp:156] Memory required for data: 508183584
I0403 19:35:51.526748  9430 layer_factory.hpp:77] Creating layer inception_3a/relu_3x3_reduce
I0403 19:35:51.526787  9430 net.cpp:91] Creating Layer inception_3a/relu_3x3_reduce
I0403 19:35:51.526804  9430 net.cpp:425] inception_3a/relu_3x3_reduce <- inception_3a/3x3_reduce
I0403 19:35:51.526824  9430 net.cpp:386] inception_3a/relu_3x3_reduce -> inception_3a/3x3_reduce (in-place)
I0403 19:35:51.527004  9430 net.cpp:141] Setting up inception_3a/relu_3x3_reduce
I0403 19:35:51.527030  9430 net.cpp:148] Top shape: 24 96 28 28 (1806336)
I0403 19:35:51.527045  9430 net.cpp:156] Memory required for data: 515408928
I0403 19:35:51.527060  9430 layer_factory.hpp:77] Creating layer inception_3a/3x3
I0403 19:35:51.527082  9430 net.cpp:91] Creating Layer inception_3a/3x3
I0403 19:35:51.527101  9430 net.cpp:425] inception_3a/3x3 <- inception_3a/3x3_reduce
I0403 19:35:51.527122  9430 net.cpp:399] inception_3a/3x3 -> inception_3a/3x3
I0403 19:35:51.528785  9430 net.cpp:141] Setting up inception_3a/3x3
I0403 19:35:51.528818  9430 net.cpp:148] Top shape: 24 128 28 28 (2408448)
I0403 19:35:51.528836  9430 net.cpp:156] Memory required for data: 525042720
I0403 19:35:51.528854  9430 layer_factory.hpp:77] Creating layer inception_3a/relu_3x3
I0403 19:35:51.528872  9430 net.cpp:91] Creating Layer inception_3a/relu_3x3
I0403 19:35:51.528888  9430 net.cpp:425] inception_3a/relu_3x3 <- inception_3a/3x3
I0403 19:35:51.528904  9430 net.cpp:386] inception_3a/relu_3x3 -> inception_3a/3x3 (in-place)
I0403 19:35:51.529181  9430 net.cpp:141] Setting up inception_3a/relu_3x3
I0403 19:35:51.529211  9430 net.cpp:148] Top shape: 24 128 28 28 (2408448)
I0403 19:35:51.529225  9430 net.cpp:156] Memory required for data: 534676512
I0403 19:35:51.529247  9430 layer_factory.hpp:77] Creating layer inception_3a/5x5_reduce
I0403 19:35:51.529273  9430 net.cpp:91] Creating Layer inception_3a/5x5_reduce
I0403 19:35:51.529296  9430 net.cpp:425] inception_3a/5x5_reduce <- pool2/3x3_s2_pool2/3x3_s2_0_split_2
I0403 19:35:51.529320  9430 net.cpp:399] inception_3a/5x5_reduce -> inception_3a/5x5_reduce
I0403 19:35:51.530325  9430 net.cpp:141] Setting up inception_3a/5x5_reduce
I0403 19:35:51.530356  9430 net.cpp:148] Top shape: 24 16 28 28 (301056)
I0403 19:35:51.530372  9430 net.cpp:156] Memory required for data: 535880736
I0403 19:35:51.530390  9430 layer_factory.hpp:77] Creating layer inception_3a/relu_5x5_reduce
I0403 19:35:51.530410  9430 net.cpp:91] Creating Layer inception_3a/relu_5x5_reduce
I0403 19:35:51.530426  9430 net.cpp:425] inception_3a/relu_5x5_reduce <- inception_3a/5x5_reduce
I0403 19:35:51.530446  9430 net.cpp:386] inception_3a/relu_5x5_reduce -> inception_3a/5x5_reduce (in-place)
I0403 19:35:51.530750  9430 net.cpp:141] Setting up inception_3a/relu_5x5_reduce
I0403 19:35:51.530776  9430 net.cpp:148] Top shape: 24 16 28 28 (301056)
I0403 19:35:51.530791  9430 net.cpp:156] Memory required for data: 537084960
I0403 19:35:51.530807  9430 layer_factory.hpp:77] Creating layer inception_3a/5x5
I0403 19:35:51.530830  9430 net.cpp:91] Creating Layer inception_3a/5x5
I0403 19:35:51.530848  9430 net.cpp:425] inception_3a/5x5 <- inception_3a/5x5_reduce
I0403 19:35:51.530869  9430 net.cpp:399] inception_3a/5x5 -> inception_3a/5x5
I0403 19:35:51.531924  9430 net.cpp:141] Setting up inception_3a/5x5
I0403 19:35:51.531955  9430 net.cpp:148] Top shape: 24 32 28 28 (602112)
I0403 19:35:51.531975  9430 net.cpp:156] Memory required for data: 539493408
I0403 19:35:51.531994  9430 layer_factory.hpp:77] Creating layer inception_3a/relu_5x5
I0403 19:35:51.532013  9430 net.cpp:91] Creating Layer inception_3a/relu_5x5
I0403 19:35:51.532032  9430 net.cpp:425] inception_3a/relu_5x5 <- inception_3a/5x5
I0403 19:35:51.532048  9430 net.cpp:386] inception_3a/relu_5x5 -> inception_3a/5x5 (in-place)
I0403 19:35:51.532227  9430 net.cpp:141] Setting up inception_3a/relu_5x5
I0403 19:35:51.532269  9430 net.cpp:148] Top shape: 24 32 28 28 (602112)
I0403 19:35:51.532286  9430 net.cpp:156] Memory required for data: 541901856
I0403 19:35:51.532304  9430 layer_factory.hpp:77] Creating layer inception_3a/pool
I0403 19:35:51.532322  9430 net.cpp:91] Creating Layer inception_3a/pool
I0403 19:35:51.532338  9430 net.cpp:425] inception_3a/pool <- pool2/3x3_s2_pool2/3x3_s2_0_split_3
I0403 19:35:51.532374  9430 net.cpp:399] inception_3a/pool -> inception_3a/pool
I0403 19:35:51.532433  9430 net.cpp:141] Setting up inception_3a/pool
I0403 19:35:51.532460  9430 net.cpp:148] Top shape: 24 192 28 28 (3612672)
I0403 19:35:51.532475  9430 net.cpp:156] Memory required for data: 556352544
I0403 19:35:51.532491  9430 layer_factory.hpp:77] Creating layer inception_3a/pool_proj
I0403 19:35:51.532511  9430 net.cpp:91] Creating Layer inception_3a/pool_proj
I0403 19:35:51.532528  9430 net.cpp:425] inception_3a/pool_proj <- inception_3a/pool
I0403 19:35:51.532551  9430 net.cpp:399] inception_3a/pool_proj -> inception_3a/pool_proj
I0403 19:35:51.533545  9430 net.cpp:141] Setting up inception_3a/pool_proj
I0403 19:35:51.533576  9430 net.cpp:148] Top shape: 24 32 28 28 (602112)
I0403 19:35:51.533592  9430 net.cpp:156] Memory required for data: 558760992
I0403 19:35:51.533617  9430 layer_factory.hpp:77] Creating layer inception_3a/relu_pool_proj
I0403 19:35:51.533638  9430 net.cpp:91] Creating Layer inception_3a/relu_pool_proj
I0403 19:35:51.533654  9430 net.cpp:425] inception_3a/relu_pool_proj <- inception_3a/pool_proj
I0403 19:35:51.533674  9430 net.cpp:386] inception_3a/relu_pool_proj -> inception_3a/pool_proj (in-place)
I0403 19:35:51.533958  9430 net.cpp:141] Setting up inception_3a/relu_pool_proj
I0403 19:35:51.533987  9430 net.cpp:148] Top shape: 24 32 28 28 (602112)
I0403 19:35:51.534003  9430 net.cpp:156] Memory required for data: 561169440
I0403 19:35:51.534019  9430 layer_factory.hpp:77] Creating layer inception_3a/output
I0403 19:35:51.534039  9430 net.cpp:91] Creating Layer inception_3a/output
I0403 19:35:51.534055  9430 net.cpp:425] inception_3a/output <- inception_3a/1x1
I0403 19:35:51.534071  9430 net.cpp:425] inception_3a/output <- inception_3a/3x3
I0403 19:35:51.534088  9430 net.cpp:425] inception_3a/output <- inception_3a/5x5
I0403 19:35:51.534103  9430 net.cpp:425] inception_3a/output <- inception_3a/pool_proj
I0403 19:35:51.534121  9430 net.cpp:399] inception_3a/output -> inception_3a/output
I0403 19:35:51.534171  9430 net.cpp:141] Setting up inception_3a/output
I0403 19:35:51.534196  9430 net.cpp:148] Top shape: 24 256 28 28 (4816896)
I0403 19:35:51.534211  9430 net.cpp:156] Memory required for data: 580437024
I0403 19:35:51.534225  9430 layer_factory.hpp:77] Creating layer inception_3a/output_inception_3a/output_0_split
I0403 19:35:51.534250  9430 net.cpp:91] Creating Layer inception_3a/output_inception_3a/output_0_split
I0403 19:35:51.534267  9430 net.cpp:425] inception_3a/output_inception_3a/output_0_split <- inception_3a/output
I0403 19:35:51.534286  9430 net.cpp:399] inception_3a/output_inception_3a/output_0_split -> inception_3a/output_inception_3a/output_0_split_0
I0403 19:35:51.534307  9430 net.cpp:399] inception_3a/output_inception_3a/output_0_split -> inception_3a/output_inception_3a/output_0_split_1
I0403 19:35:51.534332  9430 net.cpp:399] inception_3a/output_inception_3a/output_0_split -> inception_3a/output_inception_3a/output_0_split_2
I0403 19:35:51.534354  9430 net.cpp:399] inception_3a/output_inception_3a/output_0_split -> inception_3a/output_inception_3a/output_0_split_3
I0403 19:35:51.534430  9430 net.cpp:141] Setting up inception_3a/output_inception_3a/output_0_split
I0403 19:35:51.534454  9430 net.cpp:148] Top shape: 24 256 28 28 (4816896)
I0403 19:35:51.534471  9430 net.cpp:148] Top shape: 24 256 28 28 (4816896)
I0403 19:35:51.534488  9430 net.cpp:148] Top shape: 24 256 28 28 (4816896)
I0403 19:35:51.534504  9430 net.cpp:148] Top shape: 24 256 28 28 (4816896)
I0403 19:35:51.534519  9430 net.cpp:156] Memory required for data: 657507360
I0403 19:35:51.534534  9430 layer_factory.hpp:77] Creating layer inception_3b/1x1
I0403 19:35:51.534559  9430 net.cpp:91] Creating Layer inception_3b/1x1
I0403 19:35:51.534576  9430 net.cpp:425] inception_3b/1x1 <- inception_3a/output_inception_3a/output_0_split_0
I0403 19:35:51.534596  9430 net.cpp:399] inception_3b/1x1 -> inception_3b/1x1
I0403 19:35:51.535753  9430 net.cpp:141] Setting up inception_3b/1x1
I0403 19:35:51.535795  9430 net.cpp:148] Top shape: 24 128 28 28 (2408448)
I0403 19:35:51.535812  9430 net.cpp:156] Memory required for data: 667141152
I0403 19:35:51.535831  9430 layer_factory.hpp:77] Creating layer inception_3b/relu_1x1
I0403 19:35:51.535852  9430 net.cpp:91] Creating Layer inception_3b/relu_1x1
I0403 19:35:51.535871  9430 net.cpp:425] inception_3b/relu_1x1 <- inception_3b/1x1
I0403 19:35:51.535887  9430 net.cpp:386] inception_3b/relu_1x1 -> inception_3b/1x1 (in-place)
I0403 19:35:51.536064  9430 net.cpp:141] Setting up inception_3b/relu_1x1
I0403 19:35:51.536092  9430 net.cpp:148] Top shape: 24 128 28 28 (2408448)
I0403 19:35:51.536108  9430 net.cpp:156] Memory required for data: 676774944
I0403 19:35:51.536123  9430 layer_factory.hpp:77] Creating layer inception_3b/3x3_reduce
I0403 19:35:51.536145  9430 net.cpp:91] Creating Layer inception_3b/3x3_reduce
I0403 19:35:51.536164  9430 net.cpp:425] inception_3b/3x3_reduce <- inception_3a/output_inception_3a/output_0_split_1
I0403 19:35:51.536183  9430 net.cpp:399] inception_3b/3x3_reduce -> inception_3b/3x3_reduce
I0403 19:35:51.537350  9430 net.cpp:141] Setting up inception_3b/3x3_reduce
I0403 19:35:51.537380  9430 net.cpp:148] Top shape: 24 128 28 28 (2408448)
I0403 19:35:51.537398  9430 net.cpp:156] Memory required for data: 686408736
I0403 19:35:51.537417  9430 layer_factory.hpp:77] Creating layer inception_3b/relu_3x3_reduce
I0403 19:35:51.537441  9430 net.cpp:91] Creating Layer inception_3b/relu_3x3_reduce
I0403 19:35:51.537461  9430 net.cpp:425] inception_3b/relu_3x3_reduce <- inception_3b/3x3_reduce
I0403 19:35:51.537477  9430 net.cpp:386] inception_3b/relu_3x3_reduce -> inception_3b/3x3_reduce (in-place)
I0403 19:35:51.537653  9430 net.cpp:141] Setting up inception_3b/relu_3x3_reduce
I0403 19:35:51.537681  9430 net.cpp:148] Top shape: 24 128 28 28 (2408448)
I0403 19:35:51.537698  9430 net.cpp:156] Memory required for data: 696042528
I0403 19:35:51.537713  9430 layer_factory.hpp:77] Creating layer inception_3b/3x3
I0403 19:35:51.537737  9430 net.cpp:91] Creating Layer inception_3b/3x3
I0403 19:35:51.537756  9430 net.cpp:425] inception_3b/3x3 <- inception_3b/3x3_reduce
I0403 19:35:51.537777  9430 net.cpp:399] inception_3b/3x3 -> inception_3b/3x3
I0403 19:35:51.540740  9430 net.cpp:141] Setting up inception_3b/3x3
I0403 19:35:51.540772  9430 net.cpp:148] Top shape: 24 192 28 28 (3612672)
I0403 19:35:51.540791  9430 net.cpp:156] Memory required for data: 710493216
I0403 19:35:51.540812  9430 layer_factory.hpp:77] Creating layer inception_3b/relu_3x3
I0403 19:35:51.540830  9430 net.cpp:91] Creating Layer inception_3b/relu_3x3
I0403 19:35:51.540848  9430 net.cpp:425] inception_3b/relu_3x3 <- inception_3b/3x3
I0403 19:35:51.540866  9430 net.cpp:386] inception_3b/relu_3x3 -> inception_3b/3x3 (in-place)
I0403 19:35:51.541146  9430 net.cpp:141] Setting up inception_3b/relu_3x3
I0403 19:35:51.541191  9430 net.cpp:148] Top shape: 24 192 28 28 (3612672)
I0403 19:35:51.541208  9430 net.cpp:156] Memory required for data: 724943904
I0403 19:35:51.541225  9430 layer_factory.hpp:77] Creating layer inception_3b/5x5_reduce
I0403 19:35:51.541254  9430 net.cpp:91] Creating Layer inception_3b/5x5_reduce
I0403 19:35:51.541275  9430 net.cpp:425] inception_3b/5x5_reduce <- inception_3a/output_inception_3a/output_0_split_2
I0403 19:35:51.541297  9430 net.cpp:399] inception_3b/5x5_reduce -> inception_3b/5x5_reduce
I0403 19:35:51.542332  9430 net.cpp:141] Setting up inception_3b/5x5_reduce
I0403 19:35:51.542363  9430 net.cpp:148] Top shape: 24 32 28 28 (602112)
I0403 19:35:51.542381  9430 net.cpp:156] Memory required for data: 727352352
I0403 19:35:51.542398  9430 layer_factory.hpp:77] Creating layer inception_3b/relu_5x5_reduce
I0403 19:35:51.542418  9430 net.cpp:91] Creating Layer inception_3b/relu_5x5_reduce
I0403 19:35:51.542434  9430 net.cpp:425] inception_3b/relu_5x5_reduce <- inception_3b/5x5_reduce
I0403 19:35:51.542453  9430 net.cpp:386] inception_3b/relu_5x5_reduce -> inception_3b/5x5_reduce (in-place)
I0403 19:35:51.542634  9430 net.cpp:141] Setting up inception_3b/relu_5x5_reduce
I0403 19:35:51.542673  9430 net.cpp:148] Top shape: 24 32 28 28 (602112)
I0403 19:35:51.542690  9430 net.cpp:156] Memory required for data: 729760800
I0403 19:35:51.542706  9430 layer_factory.hpp:77] Creating layer inception_3b/5x5
I0403 19:35:51.542732  9430 net.cpp:91] Creating Layer inception_3b/5x5
I0403 19:35:51.542749  9430 net.cpp:425] inception_3b/5x5 <- inception_3b/5x5_reduce
I0403 19:35:51.542771  9430 net.cpp:399] inception_3b/5x5 -> inception_3b/5x5
I0403 19:35:51.544776  9430 net.cpp:141] Setting up inception_3b/5x5
I0403 19:35:51.544807  9430 net.cpp:148] Top shape: 24 96 28 28 (1806336)
I0403 19:35:51.544824  9430 net.cpp:156] Memory required for data: 736986144
I0403 19:35:51.544847  9430 layer_factory.hpp:77] Creating layer inception_3b/relu_5x5
I0403 19:35:51.544867  9430 net.cpp:91] Creating Layer inception_3b/relu_5x5
I0403 19:35:51.544884  9430 net.cpp:425] inception_3b/relu_5x5 <- inception_3b/5x5
I0403 19:35:51.544903  9430 net.cpp:386] inception_3b/relu_5x5 -> inception_3b/5x5 (in-place)
I0403 19:35:51.545099  9430 net.cpp:141] Setting up inception_3b/relu_5x5
I0403 19:35:51.545127  9430 net.cpp:148] Top shape: 24 96 28 28 (1806336)
I0403 19:35:51.545143  9430 net.cpp:156] Memory required for data: 744211488
I0403 19:35:51.545158  9430 layer_factory.hpp:77] Creating layer inception_3b/pool
I0403 19:35:51.545177  9430 net.cpp:91] Creating Layer inception_3b/pool
I0403 19:35:51.545197  9430 net.cpp:425] inception_3b/pool <- inception_3a/output_inception_3a/output_0_split_3
I0403 19:35:51.545214  9430 net.cpp:399] inception_3b/pool -> inception_3b/pool
I0403 19:35:51.545275  9430 net.cpp:141] Setting up inception_3b/pool
I0403 19:35:51.545301  9430 net.cpp:148] Top shape: 24 256 28 28 (4816896)
I0403 19:35:51.545317  9430 net.cpp:156] Memory required for data: 763479072
I0403 19:35:51.545333  9430 layer_factory.hpp:77] Creating layer inception_3b/pool_proj
I0403 19:35:51.545356  9430 net.cpp:91] Creating Layer inception_3b/pool_proj
I0403 19:35:51.545375  9430 net.cpp:425] inception_3b/pool_proj <- inception_3b/pool
I0403 19:35:51.545397  9430 net.cpp:399] inception_3b/pool_proj -> inception_3b/pool_proj
I0403 19:35:51.546519  9430 net.cpp:141] Setting up inception_3b/pool_proj
I0403 19:35:51.546550  9430 net.cpp:148] Top shape: 24 64 28 28 (1204224)
I0403 19:35:51.546566  9430 net.cpp:156] Memory required for data: 768295968
I0403 19:35:51.546586  9430 layer_factory.hpp:77] Creating layer inception_3b/relu_pool_proj
I0403 19:35:51.546604  9430 net.cpp:91] Creating Layer inception_3b/relu_pool_proj
I0403 19:35:51.546622  9430 net.cpp:425] inception_3b/relu_pool_proj <- inception_3b/pool_proj
I0403 19:35:51.546644  9430 net.cpp:386] inception_3b/relu_pool_proj -> inception_3b/pool_proj (in-place)
I0403 19:35:51.547051  9430 net.cpp:141] Setting up inception_3b/relu_pool_proj
I0403 19:35:51.547078  9430 net.cpp:148] Top shape: 24 64 28 28 (1204224)
I0403 19:35:51.547094  9430 net.cpp:156] Memory required for data: 773112864
I0403 19:35:51.547108  9430 layer_factory.hpp:77] Creating layer inception_3b/output
I0403 19:35:51.547127  9430 net.cpp:91] Creating Layer inception_3b/output
I0403 19:35:51.547142  9430 net.cpp:425] inception_3b/output <- inception_3b/1x1
I0403 19:35:51.547160  9430 net.cpp:425] inception_3b/output <- inception_3b/3x3
I0403 19:35:51.547176  9430 net.cpp:425] inception_3b/output <- inception_3b/5x5
I0403 19:35:51.547193  9430 net.cpp:425] inception_3b/output <- inception_3b/pool_proj
I0403 19:35:51.547211  9430 net.cpp:399] inception_3b/output -> inception_3b/output
I0403 19:35:51.547260  9430 net.cpp:141] Setting up inception_3b/output
I0403 19:35:51.547287  9430 net.cpp:148] Top shape: 24 480 28 28 (9031680)
I0403 19:35:51.547303  9430 net.cpp:156] Memory required for data: 809239584
I0403 19:35:51.547319  9430 layer_factory.hpp:77] Creating layer pool3/3x3_s2
I0403 19:35:51.547338  9430 net.cpp:91] Creating Layer pool3/3x3_s2
I0403 19:35:51.547353  9430 net.cpp:425] pool3/3x3_s2 <- inception_3b/output
I0403 19:35:51.547371  9430 net.cpp:399] pool3/3x3_s2 -> pool3/3x3_s2
I0403 19:35:51.547446  9430 net.cpp:141] Setting up pool3/3x3_s2
I0403 19:35:51.547471  9430 net.cpp:148] Top shape: 24 480 14 14 (2257920)
I0403 19:35:51.547485  9430 net.cpp:156] Memory required for data: 818271264
I0403 19:35:51.547500  9430 layer_factory.hpp:77] Creating layer pool3/3x3_s2_pool3/3x3_s2_0_split
I0403 19:35:51.547518  9430 net.cpp:91] Creating Layer pool3/3x3_s2_pool3/3x3_s2_0_split
I0403 19:35:51.547533  9430 net.cpp:425] pool3/3x3_s2_pool3/3x3_s2_0_split <- pool3/3x3_s2
I0403 19:35:51.547552  9430 net.cpp:399] pool3/3x3_s2_pool3/3x3_s2_0_split -> pool3/3x3_s2_pool3/3x3_s2_0_split_0
I0403 19:35:51.547574  9430 net.cpp:399] pool3/3x3_s2_pool3/3x3_s2_0_split -> pool3/3x3_s2_pool3/3x3_s2_0_split_1
I0403 19:35:51.547595  9430 net.cpp:399] pool3/3x3_s2_pool3/3x3_s2_0_split -> pool3/3x3_s2_pool3/3x3_s2_0_split_2
I0403 19:35:51.547615  9430 net.cpp:399] pool3/3x3_s2_pool3/3x3_s2_0_split -> pool3/3x3_s2_pool3/3x3_s2_0_split_3
I0403 19:35:51.547693  9430 net.cpp:141] Setting up pool3/3x3_s2_pool3/3x3_s2_0_split
I0403 19:35:51.547718  9430 net.cpp:148] Top shape: 24 480 14 14 (2257920)
I0403 19:35:51.547734  9430 net.cpp:148] Top shape: 24 480 14 14 (2257920)
I0403 19:35:51.547749  9430 net.cpp:148] Top shape: 24 480 14 14 (2257920)
I0403 19:35:51.547765  9430 net.cpp:148] Top shape: 24 480 14 14 (2257920)
I0403 19:35:51.547780  9430 net.cpp:156] Memory required for data: 854397984
I0403 19:35:51.547793  9430 layer_factory.hpp:77] Creating layer inception_4a/1x1
I0403 19:35:51.547816  9430 net.cpp:91] Creating Layer inception_4a/1x1
I0403 19:35:51.547833  9430 net.cpp:425] inception_4a/1x1 <- pool3/3x3_s2_pool3/3x3_s2_0_split_0
I0403 19:35:51.547855  9430 net.cpp:399] inception_4a/1x1 -> inception_4a/1x1
I0403 19:35:51.549484  9430 net.cpp:141] Setting up inception_4a/1x1
I0403 19:35:51.549513  9430 net.cpp:148] Top shape: 24 192 14 14 (903168)
I0403 19:35:51.549530  9430 net.cpp:156] Memory required for data: 858010656
I0403 19:35:51.549549  9430 layer_factory.hpp:77] Creating layer inception_4a/relu_1x1
I0403 19:35:51.549568  9430 net.cpp:91] Creating Layer inception_4a/relu_1x1
I0403 19:35:51.549585  9430 net.cpp:425] inception_4a/relu_1x1 <- inception_4a/1x1
I0403 19:35:51.549602  9430 net.cpp:386] inception_4a/relu_1x1 -> inception_4a/1x1 (in-place)
I0403 19:35:51.549773  9430 net.cpp:141] Setting up inception_4a/relu_1x1
I0403 19:35:51.549800  9430 net.cpp:148] Top shape: 24 192 14 14 (903168)
I0403 19:35:51.549815  9430 net.cpp:156] Memory required for data: 861623328
I0403 19:35:51.549830  9430 layer_factory.hpp:77] Creating layer inception_4a/3x3_reduce
I0403 19:35:51.549854  9430 net.cpp:91] Creating Layer inception_4a/3x3_reduce
I0403 19:35:51.549875  9430 net.cpp:425] inception_4a/3x3_reduce <- pool3/3x3_s2_pool3/3x3_s2_0_split_1
I0403 19:35:51.549895  9430 net.cpp:399] inception_4a/3x3_reduce -> inception_4a/3x3_reduce
I0403 19:35:51.551158  9430 net.cpp:141] Setting up inception_4a/3x3_reduce
I0403 19:35:51.551189  9430 net.cpp:148] Top shape: 24 96 14 14 (451584)
I0403 19:35:51.551206  9430 net.cpp:156] Memory required for data: 863429664
I0403 19:35:51.551232  9430 layer_factory.hpp:77] Creating layer inception_4a/relu_3x3_reduce
I0403 19:35:51.551259  9430 net.cpp:91] Creating Layer inception_4a/relu_3x3_reduce
I0403 19:35:51.551275  9430 net.cpp:425] inception_4a/relu_3x3_reduce <- inception_4a/3x3_reduce
I0403 19:35:51.551297  9430 net.cpp:386] inception_4a/relu_3x3_reduce -> inception_4a/3x3_reduce (in-place)
I0403 19:35:51.551468  9430 net.cpp:141] Setting up inception_4a/relu_3x3_reduce
I0403 19:35:51.551496  9430 net.cpp:148] Top shape: 24 96 14 14 (451584)
I0403 19:35:51.551511  9430 net.cpp:156] Memory required for data: 865236000
I0403 19:35:51.551527  9430 layer_factory.hpp:77] Creating layer inception_4a/3x3
I0403 19:35:51.551549  9430 net.cpp:91] Creating Layer inception_4a/3x3
I0403 19:35:51.551568  9430 net.cpp:425] inception_4a/3x3 <- inception_4a/3x3_reduce
I0403 19:35:51.551589  9430 net.cpp:399] inception_4a/3x3 -> inception_4a/3x3
I0403 19:35:51.554239  9430 net.cpp:141] Setting up inception_4a/3x3
I0403 19:35:51.554271  9430 net.cpp:148] Top shape: 24 208 14 14 (978432)
I0403 19:35:51.554287  9430 net.cpp:156] Memory required for data: 869149728
I0403 19:35:51.554306  9430 layer_factory.hpp:77] Creating layer inception_4a/relu_3x3
I0403 19:35:51.554328  9430 net.cpp:91] Creating Layer inception_4a/relu_3x3
I0403 19:35:51.554347  9430 net.cpp:425] inception_4a/relu_3x3 <- inception_4a/3x3
I0403 19:35:51.554365  9430 net.cpp:386] inception_4a/relu_3x3 -> inception_4a/3x3 (in-place)
I0403 19:35:51.554643  9430 net.cpp:141] Setting up inception_4a/relu_3x3
I0403 19:35:51.554671  9430 net.cpp:148] Top shape: 24 208 14 14 (978432)
I0403 19:35:51.554687  9430 net.cpp:156] Memory required for data: 873063456
I0403 19:35:51.554702  9430 layer_factory.hpp:77] Creating layer inception_4a/5x5_reduce
I0403 19:35:51.554725  9430 net.cpp:91] Creating Layer inception_4a/5x5_reduce
I0403 19:35:51.554744  9430 net.cpp:425] inception_4a/5x5_reduce <- pool3/3x3_s2_pool3/3x3_s2_0_split_2
I0403 19:35:51.554766  9430 net.cpp:399] inception_4a/5x5_reduce -> inception_4a/5x5_reduce
I0403 19:35:51.555783  9430 net.cpp:141] Setting up inception_4a/5x5_reduce
I0403 19:35:51.555814  9430 net.cpp:148] Top shape: 24 16 14 14 (75264)
I0403 19:35:51.555832  9430 net.cpp:156] Memory required for data: 873364512
I0403 19:35:51.555851  9430 layer_factory.hpp:77] Creating layer inception_4a/relu_5x5_reduce
I0403 19:35:51.555871  9430 net.cpp:91] Creating Layer inception_4a/relu_5x5_reduce
I0403 19:35:51.555887  9430 net.cpp:425] inception_4a/relu_5x5_reduce <- inception_4a/5x5_reduce
I0403 19:35:51.555904  9430 net.cpp:386] inception_4a/relu_5x5_reduce -> inception_4a/5x5_reduce (in-place)
I0403 19:35:51.556082  9430 net.cpp:141] Setting up inception_4a/relu_5x5_reduce
I0403 19:35:51.556109  9430 net.cpp:148] Top shape: 24 16 14 14 (75264)
I0403 19:35:51.556125  9430 net.cpp:156] Memory required for data: 873665568
I0403 19:35:51.556140  9430 layer_factory.hpp:77] Creating layer inception_4a/5x5
I0403 19:35:51.556162  9430 net.cpp:91] Creating Layer inception_4a/5x5
I0403 19:35:51.556180  9430 net.cpp:425] inception_4a/5x5 <- inception_4a/5x5_reduce
I0403 19:35:51.556198  9430 net.cpp:399] inception_4a/5x5 -> inception_4a/5x5
I0403 19:35:51.557282  9430 net.cpp:141] Setting up inception_4a/5x5
I0403 19:35:51.557312  9430 net.cpp:148] Top shape: 24 48 14 14 (225792)
I0403 19:35:51.557327  9430 net.cpp:156] Memory required for data: 874568736
I0403 19:35:51.557346  9430 layer_factory.hpp:77] Creating layer inception_4a/relu_5x5
I0403 19:35:51.557364  9430 net.cpp:91] Creating Layer inception_4a/relu_5x5
I0403 19:35:51.557380  9430 net.cpp:425] inception_4a/relu_5x5 <- inception_4a/5x5
I0403 19:35:51.557399  9430 net.cpp:386] inception_4a/relu_5x5 -> inception_4a/5x5 (in-place)
I0403 19:35:51.557582  9430 net.cpp:141] Setting up inception_4a/relu_5x5
I0403 19:35:51.557608  9430 net.cpp:148] Top shape: 24 48 14 14 (225792)
I0403 19:35:51.557622  9430 net.cpp:156] Memory required for data: 875471904
I0403 19:35:51.557637  9430 layer_factory.hpp:77] Creating layer inception_4a/pool
I0403 19:35:51.557657  9430 net.cpp:91] Creating Layer inception_4a/pool
I0403 19:35:51.557674  9430 net.cpp:425] inception_4a/pool <- pool3/3x3_s2_pool3/3x3_s2_0_split_3
I0403 19:35:51.557693  9430 net.cpp:399] inception_4a/pool -> inception_4a/pool
I0403 19:35:51.557754  9430 net.cpp:141] Setting up inception_4a/pool
I0403 19:35:51.557778  9430 net.cpp:148] Top shape: 24 480 14 14 (2257920)
I0403 19:35:51.557793  9430 net.cpp:156] Memory required for data: 884503584
I0403 19:35:51.557808  9430 layer_factory.hpp:77] Creating layer inception_4a/pool_proj
I0403 19:35:51.557829  9430 net.cpp:91] Creating Layer inception_4a/pool_proj
I0403 19:35:51.557847  9430 net.cpp:425] inception_4a/pool_proj <- inception_4a/pool
I0403 19:35:51.557868  9430 net.cpp:399] inception_4a/pool_proj -> inception_4a/pool_proj
I0403 19:35:51.559031  9430 net.cpp:141] Setting up inception_4a/pool_proj
I0403 19:35:51.559062  9430 net.cpp:148] Top shape: 24 64 14 14 (301056)
I0403 19:35:51.559092  9430 net.cpp:156] Memory required for data: 885707808
I0403 19:35:51.559113  9430 layer_factory.hpp:77] Creating layer inception_4a/relu_pool_proj
I0403 19:35:51.559133  9430 net.cpp:91] Creating Layer inception_4a/relu_pool_proj
I0403 19:35:51.559149  9430 net.cpp:425] inception_4a/relu_pool_proj <- inception_4a/pool_proj
I0403 19:35:51.559170  9430 net.cpp:386] inception_4a/relu_pool_proj -> inception_4a/pool_proj (in-place)
I0403 19:35:51.559469  9430 net.cpp:141] Setting up inception_4a/relu_pool_proj
I0403 19:35:51.559497  9430 net.cpp:148] Top shape: 24 64 14 14 (301056)
I0403 19:35:51.559514  9430 net.cpp:156] Memory required for data: 886912032
I0403 19:35:51.559532  9430 layer_factory.hpp:77] Creating layer inception_4a/output
I0403 19:35:51.559551  9430 net.cpp:91] Creating Layer inception_4a/output
I0403 19:35:51.559566  9430 net.cpp:425] inception_4a/output <- inception_4a/1x1
I0403 19:35:51.559583  9430 net.cpp:425] inception_4a/output <- inception_4a/3x3
I0403 19:35:51.559600  9430 net.cpp:425] inception_4a/output <- inception_4a/5x5
I0403 19:35:51.559617  9430 net.cpp:425] inception_4a/output <- inception_4a/pool_proj
I0403 19:35:51.559638  9430 net.cpp:399] inception_4a/output -> inception_4a/output
I0403 19:35:51.559682  9430 net.cpp:141] Setting up inception_4a/output
I0403 19:35:51.559708  9430 net.cpp:148] Top shape: 24 512 14 14 (2408448)
I0403 19:35:51.559725  9430 net.cpp:156] Memory required for data: 896545824
I0403 19:35:51.559741  9430 layer_factory.hpp:77] Creating layer inception_4a/output_inception_4a/output_0_split
I0403 19:35:51.559758  9430 net.cpp:91] Creating Layer inception_4a/output_inception_4a/output_0_split
I0403 19:35:51.559775  9430 net.cpp:425] inception_4a/output_inception_4a/output_0_split <- inception_4a/output
I0403 19:35:51.559798  9430 net.cpp:399] inception_4a/output_inception_4a/output_0_split -> inception_4a/output_inception_4a/output_0_split_0
I0403 19:35:51.559819  9430 net.cpp:399] inception_4a/output_inception_4a/output_0_split -> inception_4a/output_inception_4a/output_0_split_1
I0403 19:35:51.559840  9430 net.cpp:399] inception_4a/output_inception_4a/output_0_split -> inception_4a/output_inception_4a/output_0_split_2
I0403 19:35:51.559861  9430 net.cpp:399] inception_4a/output_inception_4a/output_0_split -> inception_4a/output_inception_4a/output_0_split_3
I0403 19:35:51.559882  9430 net.cpp:399] inception_4a/output_inception_4a/output_0_split -> inception_4a/output_inception_4a/output_0_split_4
I0403 19:35:51.559978  9430 net.cpp:141] Setting up inception_4a/output_inception_4a/output_0_split
I0403 19:35:51.560003  9430 net.cpp:148] Top shape: 24 512 14 14 (2408448)
I0403 19:35:51.560020  9430 net.cpp:148] Top shape: 24 512 14 14 (2408448)
I0403 19:35:51.560036  9430 net.cpp:148] Top shape: 24 512 14 14 (2408448)
I0403 19:35:51.560051  9430 net.cpp:148] Top shape: 24 512 14 14 (2408448)
I0403 19:35:51.560066  9430 net.cpp:148] Top shape: 24 512 14 14 (2408448)
I0403 19:35:51.560081  9430 net.cpp:156] Memory required for data: 944714784
I0403 19:35:51.560094  9430 layer_factory.hpp:77] Creating layer loss1/ave_pool
I0403 19:35:51.560112  9430 net.cpp:91] Creating Layer loss1/ave_pool
I0403 19:35:51.560127  9430 net.cpp:425] loss1/ave_pool <- inception_4a/output_inception_4a/output_0_split_0
I0403 19:35:51.560145  9430 net.cpp:399] loss1/ave_pool -> loss1/ave_pool
I0403 19:35:51.560386  9430 net.cpp:141] Setting up loss1/ave_pool
I0403 19:35:51.560413  9430 net.cpp:148] Top shape: 24 512 4 4 (196608)
I0403 19:35:51.560430  9430 net.cpp:156] Memory required for data: 945501216
I0403 19:35:51.560444  9430 layer_factory.hpp:77] Creating layer loss1/conv
I0403 19:35:51.560468  9430 net.cpp:91] Creating Layer loss1/conv
I0403 19:35:51.560485  9430 net.cpp:425] loss1/conv <- loss1/ave_pool
I0403 19:35:51.560508  9430 net.cpp:399] loss1/conv -> loss1/conv
I0403 19:35:51.561942  9430 net.cpp:141] Setting up loss1/conv
I0403 19:35:51.561971  9430 net.cpp:148] Top shape: 24 128 4 4 (49152)
I0403 19:35:51.561988  9430 net.cpp:156] Memory required for data: 945697824
I0403 19:35:51.562023  9430 layer_factory.hpp:77] Creating layer loss1/relu_conv
I0403 19:35:51.562047  9430 net.cpp:91] Creating Layer loss1/relu_conv
I0403 19:35:51.562064  9430 net.cpp:425] loss1/relu_conv <- loss1/conv
I0403 19:35:51.562083  9430 net.cpp:386] loss1/relu_conv -> loss1/conv (in-place)
I0403 19:35:51.562378  9430 net.cpp:141] Setting up loss1/relu_conv
I0403 19:35:51.562405  9430 net.cpp:148] Top shape: 24 128 4 4 (49152)
I0403 19:35:51.562422  9430 net.cpp:156] Memory required for data: 945894432
I0403 19:35:51.562438  9430 layer_factory.hpp:77] Creating layer loss1/fc
I0403 19:35:51.562465  9430 net.cpp:91] Creating Layer loss1/fc
I0403 19:35:51.562486  9430 net.cpp:425] loss1/fc <- loss1/conv
I0403 19:35:51.562508  9430 net.cpp:399] loss1/fc -> loss1/fc
I0403 19:35:51.580019  9430 net.cpp:141] Setting up loss1/fc
I0403 19:35:51.580060  9430 net.cpp:148] Top shape: 24 1024 (24576)
I0403 19:35:51.580076  9430 net.cpp:156] Memory required for data: 945992736
I0403 19:35:51.580095  9430 layer_factory.hpp:77] Creating layer loss1/relu_fc
I0403 19:35:51.580113  9430 net.cpp:91] Creating Layer loss1/relu_fc
I0403 19:35:51.580130  9430 net.cpp:425] loss1/relu_fc <- loss1/fc
I0403 19:35:51.580152  9430 net.cpp:386] loss1/relu_fc -> loss1/fc (in-place)
I0403 19:35:51.580356  9430 net.cpp:141] Setting up loss1/relu_fc
I0403 19:35:51.580381  9430 net.cpp:148] Top shape: 24 1024 (24576)
I0403 19:35:51.580396  9430 net.cpp:156] Memory required for data: 946091040
I0403 19:35:51.580411  9430 layer_factory.hpp:77] Creating layer loss1/drop_fc
I0403 19:35:51.580440  9430 net.cpp:91] Creating Layer loss1/drop_fc
I0403 19:35:51.580457  9430 net.cpp:425] loss1/drop_fc <- loss1/fc
I0403 19:35:51.580476  9430 net.cpp:386] loss1/drop_fc -> loss1/fc (in-place)
I0403 19:35:51.580526  9430 net.cpp:141] Setting up loss1/drop_fc
I0403 19:35:51.580551  9430 net.cpp:148] Top shape: 24 1024 (24576)
I0403 19:35:51.580567  9430 net.cpp:156] Memory required for data: 946189344
I0403 19:35:51.580582  9430 layer_factory.hpp:77] Creating layer loss1/classifier_plantvillage
I0403 19:35:51.580600  9430 net.cpp:91] Creating Layer loss1/classifier_plantvillage
I0403 19:35:51.580616  9430 net.cpp:425] loss1/classifier_plantvillage <- loss1/fc
I0403 19:35:51.580637  9430 net.cpp:399] loss1/classifier_plantvillage -> loss1/classifier_plantvillage
I0403 19:35:51.581542  9430 net.cpp:141] Setting up loss1/classifier_plantvillage
I0403 19:35:51.581569  9430 net.cpp:148] Top shape: 24 38 (912)
I0403 19:35:51.581584  9430 net.cpp:156] Memory required for data: 946192992
I0403 19:35:51.581604  9430 layer_factory.hpp:77] Creating layer loss1/classifier_plantvillage_loss1/classifier_plantvillage_0_split
I0403 19:35:51.581624  9430 net.cpp:91] Creating Layer loss1/classifier_plantvillage_loss1/classifier_plantvillage_0_split
I0403 19:35:51.581640  9430 net.cpp:425] loss1/classifier_plantvillage_loss1/classifier_plantvillage_0_split <- loss1/classifier_plantvillage
I0403 19:35:51.581657  9430 net.cpp:399] loss1/classifier_plantvillage_loss1/classifier_plantvillage_0_split -> loss1/classifier_plantvillage_loss1/classifier_plantvillage_0_split_0
I0403 19:35:51.581677  9430 net.cpp:399] loss1/classifier_plantvillage_loss1/classifier_plantvillage_0_split -> loss1/classifier_plantvillage_loss1/classifier_plantvillage_0_split_1
I0403 19:35:51.581697  9430 net.cpp:399] loss1/classifier_plantvillage_loss1/classifier_plantvillage_0_split -> loss1/classifier_plantvillage_loss1/classifier_plantvillage_0_split_2
I0403 19:35:51.581779  9430 net.cpp:141] Setting up loss1/classifier_plantvillage_loss1/classifier_plantvillage_0_split
I0403 19:35:51.581804  9430 net.cpp:148] Top shape: 24 38 (912)
I0403 19:35:51.581820  9430 net.cpp:148] Top shape: 24 38 (912)
I0403 19:35:51.581836  9430 net.cpp:148] Top shape: 24 38 (912)
I0403 19:35:51.581851  9430 net.cpp:156] Memory required for data: 946203936
I0403 19:35:51.581866  9430 layer_factory.hpp:77] Creating layer inception_4b/1x1
I0403 19:35:51.581887  9430 net.cpp:91] Creating Layer inception_4b/1x1
I0403 19:35:51.581919  9430 net.cpp:425] inception_4b/1x1 <- inception_4a/output_inception_4a/output_0_split_1
I0403 19:35:51.581943  9430 net.cpp:399] inception_4b/1x1 -> inception_4b/1x1
I0403 19:35:51.583663  9430 net.cpp:141] Setting up inception_4b/1x1
I0403 19:35:51.583691  9430 net.cpp:148] Top shape: 24 160 14 14 (752640)
I0403 19:35:51.583709  9430 net.cpp:156] Memory required for data: 949214496
I0403 19:35:51.583729  9430 layer_factory.hpp:77] Creating layer inception_4b/relu_1x1
I0403 19:35:51.583746  9430 net.cpp:91] Creating Layer inception_4b/relu_1x1
I0403 19:35:51.583762  9430 net.cpp:425] inception_4b/relu_1x1 <- inception_4b/1x1
I0403 19:35:51.583780  9430 net.cpp:386] inception_4b/relu_1x1 -> inception_4b/1x1 (in-place)
I0403 19:35:51.583958  9430 net.cpp:141] Setting up inception_4b/relu_1x1
I0403 19:35:51.583987  9430 net.cpp:148] Top shape: 24 160 14 14 (752640)
I0403 19:35:51.584003  9430 net.cpp:156] Memory required for data: 952225056
I0403 19:35:51.584018  9430 layer_factory.hpp:77] Creating layer inception_4b/3x3_reduce
I0403 19:35:51.584040  9430 net.cpp:91] Creating Layer inception_4b/3x3_reduce
I0403 19:35:51.584059  9430 net.cpp:425] inception_4b/3x3_reduce <- inception_4a/output_inception_4a/output_0_split_2
I0403 19:35:51.584076  9430 net.cpp:399] inception_4b/3x3_reduce -> inception_4b/3x3_reduce
I0403 19:35:51.585436  9430 net.cpp:141] Setting up inception_4b/3x3_reduce
I0403 19:35:51.585467  9430 net.cpp:148] Top shape: 24 112 14 14 (526848)
I0403 19:35:51.585485  9430 net.cpp:156] Memory required for data: 954332448
I0403 19:35:51.585505  9430 layer_factory.hpp:77] Creating layer inception_4b/relu_3x3_reduce
I0403 19:35:51.585525  9430 net.cpp:91] Creating Layer inception_4b/relu_3x3_reduce
I0403 19:35:51.585541  9430 net.cpp:425] inception_4b/relu_3x3_reduce <- inception_4b/3x3_reduce
I0403 19:35:51.585559  9430 net.cpp:386] inception_4b/relu_3x3_reduce -> inception_4b/3x3_reduce (in-place)
I0403 19:35:51.585841  9430 net.cpp:141] Setting up inception_4b/relu_3x3_reduce
I0403 19:35:51.585871  9430 net.cpp:148] Top shape: 24 112 14 14 (526848)
I0403 19:35:51.585888  9430 net.cpp:156] Memory required for data: 956439840
I0403 19:35:51.585904  9430 layer_factory.hpp:77] Creating layer inception_4b/3x3
I0403 19:35:51.585927  9430 net.cpp:91] Creating Layer inception_4b/3x3
I0403 19:35:51.585945  9430 net.cpp:425] inception_4b/3x3 <- inception_4b/3x3_reduce
I0403 19:35:51.585965  9430 net.cpp:399] inception_4b/3x3 -> inception_4b/3x3
I0403 19:35:51.588927  9430 net.cpp:141] Setting up inception_4b/3x3
I0403 19:35:51.588956  9430 net.cpp:148] Top shape: 24 224 14 14 (1053696)
I0403 19:35:51.588973  9430 net.cpp:156] Memory required for data: 960654624
I0403 19:35:51.588994  9430 layer_factory.hpp:77] Creating layer inception_4b/relu_3x3
I0403 19:35:51.589015  9430 net.cpp:91] Creating Layer inception_4b/relu_3x3
I0403 19:35:51.589032  9430 net.cpp:425] inception_4b/relu_3x3 <- inception_4b/3x3
I0403 19:35:51.589051  9430 net.cpp:386] inception_4b/relu_3x3 -> inception_4b/3x3 (in-place)
I0403 19:35:51.589236  9430 net.cpp:141] Setting up inception_4b/relu_3x3
I0403 19:35:51.589265  9430 net.cpp:148] Top shape: 24 224 14 14 (1053696)
I0403 19:35:51.589280  9430 net.cpp:156] Memory required for data: 964869408
I0403 19:35:51.589294  9430 layer_factory.hpp:77] Creating layer inception_4b/5x5_reduce
I0403 19:35:51.589318  9430 net.cpp:91] Creating Layer inception_4b/5x5_reduce
I0403 19:35:51.589336  9430 net.cpp:425] inception_4b/5x5_reduce <- inception_4a/output_inception_4a/output_0_split_3
I0403 19:35:51.589355  9430 net.cpp:399] inception_4b/5x5_reduce -> inception_4b/5x5_reduce
I0403 19:35:51.590441  9430 net.cpp:141] Setting up inception_4b/5x5_reduce
I0403 19:35:51.590472  9430 net.cpp:148] Top shape: 24 24 14 14 (112896)
I0403 19:35:51.590490  9430 net.cpp:156] Memory required for data: 965320992
I0403 19:35:51.590509  9430 layer_factory.hpp:77] Creating layer inception_4b/relu_5x5_reduce
I0403 19:35:51.590528  9430 net.cpp:91] Creating Layer inception_4b/relu_5x5_reduce
I0403 19:35:51.590567  9430 net.cpp:425] inception_4b/relu_5x5_reduce <- inception_4b/5x5_reduce
I0403 19:35:51.590589  9430 net.cpp:386] inception_4b/relu_5x5_reduce -> inception_4b/5x5_reduce (in-place)
I0403 19:35:51.590770  9430 net.cpp:141] Setting up inception_4b/relu_5x5_reduce
I0403 19:35:51.590796  9430 net.cpp:148] Top shape: 24 24 14 14 (112896)
I0403 19:35:51.590811  9430 net.cpp:156] Memory required for data: 965772576
I0403 19:35:51.590826  9430 layer_factory.hpp:77] Creating layer inception_4b/5x5
I0403 19:35:51.590847  9430 net.cpp:91] Creating Layer inception_4b/5x5
I0403 19:35:51.590865  9430 net.cpp:425] inception_4b/5x5 <- inception_4b/5x5_reduce
I0403 19:35:51.590888  9430 net.cpp:399] inception_4b/5x5 -> inception_4b/5x5
I0403 19:35:51.592123  9430 net.cpp:141] Setting up inception_4b/5x5
I0403 19:35:51.592152  9430 net.cpp:148] Top shape: 24 64 14 14 (301056)
I0403 19:35:51.592173  9430 net.cpp:156] Memory required for data: 966976800
I0403 19:35:51.592192  9430 layer_factory.hpp:77] Creating layer inception_4b/relu_5x5
I0403 19:35:51.592211  9430 net.cpp:91] Creating Layer inception_4b/relu_5x5
I0403 19:35:51.592227  9430 net.cpp:425] inception_4b/relu_5x5 <- inception_4b/5x5
I0403 19:35:51.592257  9430 net.cpp:386] inception_4b/relu_5x5 -> inception_4b/5x5 (in-place)
I0403 19:35:51.592551  9430 net.cpp:141] Setting up inception_4b/relu_5x5
I0403 19:35:51.592577  9430 net.cpp:148] Top shape: 24 64 14 14 (301056)
I0403 19:35:51.592594  9430 net.cpp:156] Memory required for data: 968181024
I0403 19:35:51.592609  9430 layer_factory.hpp:77] Creating layer inception_4b/pool
I0403 19:35:51.592628  9430 net.cpp:91] Creating Layer inception_4b/pool
I0403 19:35:51.592643  9430 net.cpp:425] inception_4b/pool <- inception_4a/output_inception_4a/output_0_split_4
I0403 19:35:51.592661  9430 net.cpp:399] inception_4b/pool -> inception_4b/pool
I0403 19:35:51.592725  9430 net.cpp:141] Setting up inception_4b/pool
I0403 19:35:51.592748  9430 net.cpp:148] Top shape: 24 512 14 14 (2408448)
I0403 19:35:51.592762  9430 net.cpp:156] Memory required for data: 977814816
I0403 19:35:51.592777  9430 layer_factory.hpp:77] Creating layer inception_4b/pool_proj
I0403 19:35:51.592798  9430 net.cpp:91] Creating Layer inception_4b/pool_proj
I0403 19:35:51.592815  9430 net.cpp:425] inception_4b/pool_proj <- inception_4b/pool
I0403 19:35:51.592835  9430 net.cpp:399] inception_4b/pool_proj -> inception_4b/pool_proj
I0403 19:35:51.594012  9430 net.cpp:141] Setting up inception_4b/pool_proj
I0403 19:35:51.594069  9430 net.cpp:148] Top shape: 24 64 14 14 (301056)
I0403 19:35:51.594091  9430 net.cpp:156] Memory required for data: 979019040
I0403 19:35:51.594115  9430 layer_factory.hpp:77] Creating layer inception_4b/relu_pool_proj
I0403 19:35:51.594138  9430 net.cpp:91] Creating Layer inception_4b/relu_pool_proj
I0403 19:35:51.594156  9430 net.cpp:425] inception_4b/relu_pool_proj <- inception_4b/pool_proj
I0403 19:35:51.594172  9430 net.cpp:386] inception_4b/relu_pool_proj -> inception_4b/pool_proj (in-place)
I0403 19:35:51.594383  9430 net.cpp:141] Setting up inception_4b/relu_pool_proj
I0403 19:35:51.594408  9430 net.cpp:148] Top shape: 24 64 14 14 (301056)
I0403 19:35:51.594430  9430 net.cpp:156] Memory required for data: 980223264
I0403 19:35:51.594445  9430 layer_factory.hpp:77] Creating layer inception_4b/output
I0403 19:35:51.594462  9430 net.cpp:91] Creating Layer inception_4b/output
I0403 19:35:51.594477  9430 net.cpp:425] inception_4b/output <- inception_4b/1x1
I0403 19:35:51.594492  9430 net.cpp:425] inception_4b/output <- inception_4b/3x3
I0403 19:35:51.594508  9430 net.cpp:425] inception_4b/output <- inception_4b/5x5
I0403 19:35:51.594524  9430 net.cpp:425] inception_4b/output <- inception_4b/pool_proj
I0403 19:35:51.594543  9430 net.cpp:399] inception_4b/output -> inception_4b/output
I0403 19:35:51.594588  9430 net.cpp:141] Setting up inception_4b/output
I0403 19:35:51.594612  9430 net.cpp:148] Top shape: 24 512 14 14 (2408448)
I0403 19:35:51.594627  9430 net.cpp:156] Memory required for data: 989857056
I0403 19:35:51.594655  9430 layer_factory.hpp:77] Creating layer inception_4b/output_inception_4b/output_0_split
I0403 19:35:51.594673  9430 net.cpp:91] Creating Layer inception_4b/output_inception_4b/output_0_split
I0403 19:35:51.594688  9430 net.cpp:425] inception_4b/output_inception_4b/output_0_split <- inception_4b/output
I0403 19:35:51.594705  9430 net.cpp:399] inception_4b/output_inception_4b/output_0_split -> inception_4b/output_inception_4b/output_0_split_0
I0403 19:35:51.594727  9430 net.cpp:399] inception_4b/output_inception_4b/output_0_split -> inception_4b/output_inception_4b/output_0_split_1
I0403 19:35:51.594746  9430 net.cpp:399] inception_4b/output_inception_4b/output_0_split -> inception_4b/output_inception_4b/output_0_split_2
I0403 19:35:51.594765  9430 net.cpp:399] inception_4b/output_inception_4b/output_0_split -> inception_4b/output_inception_4b/output_0_split_3
I0403 19:35:51.594846  9430 net.cpp:141] Setting up inception_4b/output_inception_4b/output_0_split
I0403 19:35:51.594869  9430 net.cpp:148] Top shape: 24 512 14 14 (2408448)
I0403 19:35:51.594885  9430 net.cpp:148] Top shape: 24 512 14 14 (2408448)
I0403 19:35:51.594899  9430 net.cpp:148] Top shape: 24 512 14 14 (2408448)
I0403 19:35:51.594914  9430 net.cpp:148] Top shape: 24 512 14 14 (2408448)
I0403 19:35:51.594928  9430 net.cpp:156] Memory required for data: 1028392224
I0403 19:35:51.594941  9430 layer_factory.hpp:77] Creating layer inception_4c/1x1
I0403 19:35:51.594964  9430 net.cpp:91] Creating Layer inception_4c/1x1
I0403 19:35:51.594980  9430 net.cpp:425] inception_4c/1x1 <- inception_4b/output_inception_4b/output_0_split_0
I0403 19:35:51.594998  9430 net.cpp:399] inception_4c/1x1 -> inception_4c/1x1
I0403 19:35:51.597429  9430 net.cpp:141] Setting up inception_4c/1x1
I0403 19:35:51.597456  9430 net.cpp:148] Top shape: 24 128 14 14 (602112)
I0403 19:35:51.597473  9430 net.cpp:156] Memory required for data: 1030800672
I0403 19:35:51.597492  9430 layer_factory.hpp:77] Creating layer inception_4c/relu_1x1
I0403 19:35:51.597513  9430 net.cpp:91] Creating Layer inception_4c/relu_1x1
I0403 19:35:51.597532  9430 net.cpp:425] inception_4c/relu_1x1 <- inception_4c/1x1
I0403 19:35:51.597549  9430 net.cpp:386] inception_4c/relu_1x1 -> inception_4c/1x1 (in-place)
I0403 19:35:51.597723  9430 net.cpp:141] Setting up inception_4c/relu_1x1
I0403 19:35:51.597748  9430 net.cpp:148] Top shape: 24 128 14 14 (602112)
I0403 19:35:51.597761  9430 net.cpp:156] Memory required for data: 1033209120
I0403 19:35:51.597775  9430 layer_factory.hpp:77] Creating layer inception_4c/3x3_reduce
I0403 19:35:51.597796  9430 net.cpp:91] Creating Layer inception_4c/3x3_reduce
I0403 19:35:51.597813  9430 net.cpp:425] inception_4c/3x3_reduce <- inception_4b/output_inception_4b/output_0_split_1
I0403 19:35:51.597834  9430 net.cpp:399] inception_4c/3x3_reduce -> inception_4c/3x3_reduce
I0403 19:35:51.599736  9430 net.cpp:141] Setting up inception_4c/3x3_reduce
I0403 19:35:51.599766  9430 net.cpp:148] Top shape: 24 128 14 14 (602112)
I0403 19:35:51.599781  9430 net.cpp:156] Memory required for data: 1035617568
I0403 19:35:51.599799  9430 layer_factory.hpp:77] Creating layer inception_4c/relu_3x3_reduce
I0403 19:35:51.599819  9430 net.cpp:91] Creating Layer inception_4c/relu_3x3_reduce
I0403 19:35:51.599836  9430 net.cpp:425] inception_4c/relu_3x3_reduce <- inception_4c/3x3_reduce
I0403 19:35:51.599853  9430 net.cpp:386] inception_4c/relu_3x3_reduce -> inception_4c/3x3_reduce (in-place)
I0403 19:35:51.600134  9430 net.cpp:141] Setting up inception_4c/relu_3x3_reduce
I0403 19:35:51.600162  9430 net.cpp:148] Top shape: 24 128 14 14 (602112)
I0403 19:35:51.600178  9430 net.cpp:156] Memory required for data: 1038026016
I0403 19:35:51.600193  9430 layer_factory.hpp:77] Creating layer inception_4c/3x3
I0403 19:35:51.600219  9430 net.cpp:91] Creating Layer inception_4c/3x3
I0403 19:35:51.600235  9430 net.cpp:425] inception_4c/3x3 <- inception_4c/3x3_reduce
I0403 19:35:51.600267  9430 net.cpp:399] inception_4c/3x3 -> inception_4c/3x3
I0403 19:35:51.603763  9430 net.cpp:141] Setting up inception_4c/3x3
I0403 19:35:51.603806  9430 net.cpp:148] Top shape: 24 256 14 14 (1204224)
I0403 19:35:51.603823  9430 net.cpp:156] Memory required for data: 1042842912
I0403 19:35:51.603857  9430 layer_factory.hpp:77] Creating layer inception_4c/relu_3x3
I0403 19:35:51.603876  9430 net.cpp:91] Creating Layer inception_4c/relu_3x3
I0403 19:35:51.603894  9430 net.cpp:425] inception_4c/relu_3x3 <- inception_4c/3x3
I0403 19:35:51.603914  9430 net.cpp:386] inception_4c/relu_3x3 -> inception_4c/3x3 (in-place)
I0403 19:35:51.604094  9430 net.cpp:141] Setting up inception_4c/relu_3x3
I0403 19:35:51.604121  9430 net.cpp:148] Top shape: 24 256 14 14 (1204224)
I0403 19:35:51.604136  9430 net.cpp:156] Memory required for data: 1047659808
I0403 19:35:51.604151  9430 layer_factory.hpp:77] Creating layer inception_4c/5x5_reduce
I0403 19:35:51.604173  9430 net.cpp:91] Creating Layer inception_4c/5x5_reduce
I0403 19:35:51.604190  9430 net.cpp:425] inception_4c/5x5_reduce <- inception_4b/output_inception_4b/output_0_split_2
I0403 19:35:51.604209  9430 net.cpp:399] inception_4c/5x5_reduce -> inception_4c/5x5_reduce
I0403 19:35:51.605296  9430 net.cpp:141] Setting up inception_4c/5x5_reduce
I0403 19:35:51.605324  9430 net.cpp:148] Top shape: 24 24 14 14 (112896)
I0403 19:35:51.605340  9430 net.cpp:156] Memory required for data: 1048111392
I0403 19:35:51.605360  9430 layer_factory.hpp:77] Creating layer inception_4c/relu_5x5_reduce
I0403 19:35:51.605378  9430 net.cpp:91] Creating Layer inception_4c/relu_5x5_reduce
I0403 19:35:51.605393  9430 net.cpp:425] inception_4c/relu_5x5_reduce <- inception_4c/5x5_reduce
I0403 19:35:51.605411  9430 net.cpp:386] inception_4c/relu_5x5_reduce -> inception_4c/5x5_reduce (in-place)
I0403 19:35:51.605594  9430 net.cpp:141] Setting up inception_4c/relu_5x5_reduce
I0403 19:35:51.605618  9430 net.cpp:148] Top shape: 24 24 14 14 (112896)
I0403 19:35:51.605633  9430 net.cpp:156] Memory required for data: 1048562976
I0403 19:35:51.605646  9430 layer_factory.hpp:77] Creating layer inception_4c/5x5
I0403 19:35:51.605669  9430 net.cpp:91] Creating Layer inception_4c/5x5
I0403 19:35:51.605685  9430 net.cpp:425] inception_4c/5x5 <- inception_4c/5x5_reduce
I0403 19:35:51.605706  9430 net.cpp:399] inception_4c/5x5 -> inception_4c/5x5
I0403 19:35:51.606930  9430 net.cpp:141] Setting up inception_4c/5x5
I0403 19:35:51.606957  9430 net.cpp:148] Top shape: 24 64 14 14 (301056)
I0403 19:35:51.606972  9430 net.cpp:156] Memory required for data: 1049767200
I0403 19:35:51.606991  9430 layer_factory.hpp:77] Creating layer inception_4c/relu_5x5
I0403 19:35:51.607008  9430 net.cpp:91] Creating Layer inception_4c/relu_5x5
I0403 19:35:51.607025  9430 net.cpp:425] inception_4c/relu_5x5 <- inception_4c/5x5
I0403 19:35:51.607048  9430 net.cpp:386] inception_4c/relu_5x5 -> inception_4c/5x5 (in-place)
I0403 19:35:51.607338  9430 net.cpp:141] Setting up inception_4c/relu_5x5
I0403 19:35:51.607364  9430 net.cpp:148] Top shape: 24 64 14 14 (301056)
I0403 19:35:51.607379  9430 net.cpp:156] Memory required for data: 1050971424
I0403 19:35:51.607393  9430 layer_factory.hpp:77] Creating layer inception_4c/pool
I0403 19:35:51.607410  9430 net.cpp:91] Creating Layer inception_4c/pool
I0403 19:35:51.607426  9430 net.cpp:425] inception_4c/pool <- inception_4b/output_inception_4b/output_0_split_3
I0403 19:35:51.607446  9430 net.cpp:399] inception_4c/pool -> inception_4c/pool
I0403 19:35:51.607511  9430 net.cpp:141] Setting up inception_4c/pool
I0403 19:35:51.607538  9430 net.cpp:148] Top shape: 24 512 14 14 (2408448)
I0403 19:35:51.607553  9430 net.cpp:156] Memory required for data: 1060605216
I0403 19:35:51.607568  9430 layer_factory.hpp:77] Creating layer inception_4c/pool_proj
I0403 19:35:51.607589  9430 net.cpp:91] Creating Layer inception_4c/pool_proj
I0403 19:35:51.607606  9430 net.cpp:425] inception_4c/pool_proj <- inception_4c/pool
I0403 19:35:51.607625  9430 net.cpp:399] inception_4c/pool_proj -> inception_4c/pool_proj
I0403 19:35:51.608824  9430 net.cpp:141] Setting up inception_4c/pool_proj
I0403 19:35:51.608855  9430 net.cpp:148] Top shape: 24 64 14 14 (301056)
I0403 19:35:51.608886  9430 net.cpp:156] Memory required for data: 1061809440
I0403 19:35:51.608904  9430 layer_factory.hpp:77] Creating layer inception_4c/relu_pool_proj
I0403 19:35:51.608923  9430 net.cpp:91] Creating Layer inception_4c/relu_pool_proj
I0403 19:35:51.608939  9430 net.cpp:425] inception_4c/relu_pool_proj <- inception_4c/pool_proj
I0403 19:35:51.608958  9430 net.cpp:386] inception_4c/relu_pool_proj -> inception_4c/pool_proj (in-place)
I0403 19:35:51.609138  9430 net.cpp:141] Setting up inception_4c/relu_pool_proj
I0403 19:35:51.609163  9430 net.cpp:148] Top shape: 24 64 14 14 (301056)
I0403 19:35:51.609176  9430 net.cpp:156] Memory required for data: 1063013664
I0403 19:35:51.609191  9430 layer_factory.hpp:77] Creating layer inception_4c/output
I0403 19:35:51.609207  9430 net.cpp:91] Creating Layer inception_4c/output
I0403 19:35:51.609225  9430 net.cpp:425] inception_4c/output <- inception_4c/1x1
I0403 19:35:51.609246  9430 net.cpp:425] inception_4c/output <- inception_4c/3x3
I0403 19:35:51.609269  9430 net.cpp:425] inception_4c/output <- inception_4c/5x5
I0403 19:35:51.609285  9430 net.cpp:425] inception_4c/output <- inception_4c/pool_proj
I0403 19:35:51.609304  9430 net.cpp:399] inception_4c/output -> inception_4c/output
I0403 19:35:51.609350  9430 net.cpp:141] Setting up inception_4c/output
I0403 19:35:51.609372  9430 net.cpp:148] Top shape: 24 512 14 14 (2408448)
I0403 19:35:51.609387  9430 net.cpp:156] Memory required for data: 1072647456
I0403 19:35:51.609401  9430 layer_factory.hpp:77] Creating layer inception_4c/output_inception_4c/output_0_split
I0403 19:35:51.609421  9430 net.cpp:91] Creating Layer inception_4c/output_inception_4c/output_0_split
I0403 19:35:51.609437  9430 net.cpp:425] inception_4c/output_inception_4c/output_0_split <- inception_4c/output
I0403 19:35:51.609454  9430 net.cpp:399] inception_4c/output_inception_4c/output_0_split -> inception_4c/output_inception_4c/output_0_split_0
I0403 19:35:51.609477  9430 net.cpp:399] inception_4c/output_inception_4c/output_0_split -> inception_4c/output_inception_4c/output_0_split_1
I0403 19:35:51.609496  9430 net.cpp:399] inception_4c/output_inception_4c/output_0_split -> inception_4c/output_inception_4c/output_0_split_2
I0403 19:35:51.609516  9430 net.cpp:399] inception_4c/output_inception_4c/output_0_split -> inception_4c/output_inception_4c/output_0_split_3
I0403 19:35:51.609599  9430 net.cpp:141] Setting up inception_4c/output_inception_4c/output_0_split
I0403 19:35:51.609622  9430 net.cpp:148] Top shape: 24 512 14 14 (2408448)
I0403 19:35:51.609637  9430 net.cpp:148] Top shape: 24 512 14 14 (2408448)
I0403 19:35:51.609652  9430 net.cpp:148] Top shape: 24 512 14 14 (2408448)
I0403 19:35:51.609668  9430 net.cpp:148] Top shape: 24 512 14 14 (2408448)
I0403 19:35:51.609680  9430 net.cpp:156] Memory required for data: 1111182624
I0403 19:35:51.609694  9430 layer_factory.hpp:77] Creating layer inception_4d/1x1
I0403 19:35:51.609716  9430 net.cpp:91] Creating Layer inception_4d/1x1
I0403 19:35:51.609733  9430 net.cpp:425] inception_4d/1x1 <- inception_4c/output_inception_4c/output_0_split_0
I0403 19:35:51.609753  9430 net.cpp:399] inception_4d/1x1 -> inception_4d/1x1
I0403 19:35:51.611099  9430 net.cpp:141] Setting up inception_4d/1x1
I0403 19:35:51.611127  9430 net.cpp:148] Top shape: 24 112 14 14 (526848)
I0403 19:35:51.611143  9430 net.cpp:156] Memory required for data: 1113290016
I0403 19:35:51.611162  9430 layer_factory.hpp:77] Creating layer inception_4d/relu_1x1
I0403 19:35:51.611182  9430 net.cpp:91] Creating Layer inception_4d/relu_1x1
I0403 19:35:51.611198  9430 net.cpp:425] inception_4d/relu_1x1 <- inception_4d/1x1
I0403 19:35:51.611218  9430 net.cpp:386] inception_4d/relu_1x1 -> inception_4d/1x1 (in-place)
I0403 19:35:51.611402  9430 net.cpp:141] Setting up inception_4d/relu_1x1
I0403 19:35:51.611428  9430 net.cpp:148] Top shape: 24 112 14 14 (526848)
I0403 19:35:51.611443  9430 net.cpp:156] Memory required for data: 1115397408
I0403 19:35:51.611459  9430 layer_factory.hpp:77] Creating layer inception_4d/3x3_reduce
I0403 19:35:51.611497  9430 net.cpp:91] Creating Layer inception_4d/3x3_reduce
I0403 19:35:51.611518  9430 net.cpp:425] inception_4d/3x3_reduce <- inception_4c/output_inception_4c/output_0_split_1
I0403 19:35:51.611537  9430 net.cpp:399] inception_4d/3x3_reduce -> inception_4d/3x3_reduce
I0403 19:35:51.613018  9430 net.cpp:141] Setting up inception_4d/3x3_reduce
I0403 19:35:51.613047  9430 net.cpp:148] Top shape: 24 144 14 14 (677376)
I0403 19:35:51.613064  9430 net.cpp:156] Memory required for data: 1118106912
I0403 19:35:51.613081  9430 layer_factory.hpp:77] Creating layer inception_4d/relu_3x3_reduce
I0403 19:35:51.613098  9430 net.cpp:91] Creating Layer inception_4d/relu_3x3_reduce
I0403 19:35:51.613114  9430 net.cpp:425] inception_4d/relu_3x3_reduce <- inception_4d/3x3_reduce
I0403 19:35:51.613133  9430 net.cpp:386] inception_4d/relu_3x3_reduce -> inception_4d/3x3_reduce (in-place)
I0403 19:35:51.613421  9430 net.cpp:141] Setting up inception_4d/relu_3x3_reduce
I0403 19:35:51.613447  9430 net.cpp:148] Top shape: 24 144 14 14 (677376)
I0403 19:35:51.613462  9430 net.cpp:156] Memory required for data: 1120816416
I0403 19:35:51.613476  9430 layer_factory.hpp:77] Creating layer inception_4d/3x3
I0403 19:35:51.613497  9430 net.cpp:91] Creating Layer inception_4d/3x3
I0403 19:35:51.613515  9430 net.cpp:425] inception_4d/3x3 <- inception_4d/3x3_reduce
I0403 19:35:51.613536  9430 net.cpp:399] inception_4d/3x3 -> inception_4d/3x3
I0403 19:35:51.617671  9430 net.cpp:141] Setting up inception_4d/3x3
I0403 19:35:51.617698  9430 net.cpp:148] Top shape: 24 288 14 14 (1354752)
I0403 19:35:51.617713  9430 net.cpp:156] Memory required for data: 1126235424
I0403 19:35:51.617730  9430 layer_factory.hpp:77] Creating layer inception_4d/relu_3x3
I0403 19:35:51.617750  9430 net.cpp:91] Creating Layer inception_4d/relu_3x3
I0403 19:35:51.617768  9430 net.cpp:425] inception_4d/relu_3x3 <- inception_4d/3x3
I0403 19:35:51.617785  9430 net.cpp:386] inception_4d/relu_3x3 -> inception_4d/3x3 (in-place)
I0403 19:35:51.617964  9430 net.cpp:141] Setting up inception_4d/relu_3x3
I0403 19:35:51.617992  9430 net.cpp:148] Top shape: 24 288 14 14 (1354752)
I0403 19:35:51.618008  9430 net.cpp:156] Memory required for data: 1131654432
I0403 19:35:51.618023  9430 layer_factory.hpp:77] Creating layer inception_4d/5x5_reduce
I0403 19:35:51.618044  9430 net.cpp:91] Creating Layer inception_4d/5x5_reduce
I0403 19:35:51.618062  9430 net.cpp:425] inception_4d/5x5_reduce <- inception_4c/output_inception_4c/output_0_split_2
I0403 19:35:51.618079  9430 net.cpp:399] inception_4d/5x5_reduce -> inception_4d/5x5_reduce
I0403 19:35:51.619249  9430 net.cpp:141] Setting up inception_4d/5x5_reduce
I0403 19:35:51.619277  9430 net.cpp:148] Top shape: 24 32 14 14 (150528)
I0403 19:35:51.619292  9430 net.cpp:156] Memory required for data: 1132256544
I0403 19:35:51.619312  9430 layer_factory.hpp:77] Creating layer inception_4d/relu_5x5_reduce
I0403 19:35:51.619331  9430 net.cpp:91] Creating Layer inception_4d/relu_5x5_reduce
I0403 19:35:51.619349  9430 net.cpp:425] inception_4d/relu_5x5_reduce <- inception_4d/5x5_reduce
I0403 19:35:51.619366  9430 net.cpp:386] inception_4d/relu_5x5_reduce -> inception_4d/5x5_reduce (in-place)
I0403 19:35:51.619559  9430 net.cpp:141] Setting up inception_4d/relu_5x5_reduce
I0403 19:35:51.619585  9430 net.cpp:148] Top shape: 24 32 14 14 (150528)
I0403 19:35:51.619601  9430 net.cpp:156] Memory required for data: 1132858656
I0403 19:35:51.619616  9430 layer_factory.hpp:77] Creating layer inception_4d/5x5
I0403 19:35:51.619638  9430 net.cpp:91] Creating Layer inception_4d/5x5
I0403 19:35:51.619655  9430 net.cpp:425] inception_4d/5x5 <- inception_4d/5x5_reduce
I0403 19:35:51.619674  9430 net.cpp:399] inception_4d/5x5 -> inception_4d/5x5
I0403 19:35:51.621146  9430 net.cpp:141] Setting up inception_4d/5x5
I0403 19:35:51.621178  9430 net.cpp:148] Top shape: 24 64 14 14 (301056)
I0403 19:35:51.621197  9430 net.cpp:156] Memory required for data: 1134062880
I0403 19:35:51.621217  9430 layer_factory.hpp:77] Creating layer inception_4d/relu_5x5
I0403 19:35:51.621258  9430 net.cpp:91] Creating Layer inception_4d/relu_5x5
I0403 19:35:51.621278  9430 net.cpp:425] inception_4d/relu_5x5 <- inception_4d/5x5
I0403 19:35:51.621299  9430 net.cpp:386] inception_4d/relu_5x5 -> inception_4d/5x5 (in-place)
I0403 19:35:51.621603  9430 net.cpp:141] Setting up inception_4d/relu_5x5
I0403 19:35:51.621633  9430 net.cpp:148] Top shape: 24 64 14 14 (301056)
I0403 19:35:51.621649  9430 net.cpp:156] Memory required for data: 1135267104
I0403 19:35:51.621664  9430 layer_factory.hpp:77] Creating layer inception_4d/pool
I0403 19:35:51.621681  9430 net.cpp:91] Creating Layer inception_4d/pool
I0403 19:35:51.621697  9430 net.cpp:425] inception_4d/pool <- inception_4c/output_inception_4c/output_0_split_3
I0403 19:35:51.621718  9430 net.cpp:399] inception_4d/pool -> inception_4d/pool
I0403 19:35:51.621784  9430 net.cpp:141] Setting up inception_4d/pool
I0403 19:35:51.621809  9430 net.cpp:148] Top shape: 24 512 14 14 (2408448)
I0403 19:35:51.621822  9430 net.cpp:156] Memory required for data: 1144900896
I0403 19:35:51.621837  9430 layer_factory.hpp:77] Creating layer inception_4d/pool_proj
I0403 19:35:51.621860  9430 net.cpp:91] Creating Layer inception_4d/pool_proj
I0403 19:35:51.621877  9430 net.cpp:425] inception_4d/pool_proj <- inception_4d/pool
I0403 19:35:51.621898  9430 net.cpp:399] inception_4d/pool_proj -> inception_4d/pool_proj
I0403 19:35:51.623719  9430 net.cpp:141] Setting up inception_4d/pool_proj
I0403 19:35:51.623747  9430 net.cpp:148] Top shape: 24 64 14 14 (301056)
I0403 19:35:51.623764  9430 net.cpp:156] Memory required for data: 1146105120
I0403 19:35:51.623793  9430 layer_factory.hpp:77] Creating layer inception_4d/relu_pool_proj
I0403 19:35:51.623814  9430 net.cpp:91] Creating Layer inception_4d/relu_pool_proj
I0403 19:35:51.623832  9430 net.cpp:425] inception_4d/relu_pool_proj <- inception_4d/pool_proj
I0403 19:35:51.623850  9430 net.cpp:386] inception_4d/relu_pool_proj -> inception_4d/pool_proj (in-place)
I0403 19:35:51.624042  9430 net.cpp:141] Setting up inception_4d/relu_pool_proj
I0403 19:35:51.624069  9430 net.cpp:148] Top shape: 24 64 14 14 (301056)
I0403 19:35:51.624086  9430 net.cpp:156] Memory required for data: 1147309344
I0403 19:35:51.624101  9430 layer_factory.hpp:77] Creating layer inception_4d/output
I0403 19:35:51.624119  9430 net.cpp:91] Creating Layer inception_4d/output
I0403 19:35:51.624135  9430 net.cpp:425] inception_4d/output <- inception_4d/1x1
I0403 19:35:51.624151  9430 net.cpp:425] inception_4d/output <- inception_4d/3x3
I0403 19:35:51.624168  9430 net.cpp:425] inception_4d/output <- inception_4d/5x5
I0403 19:35:51.624184  9430 net.cpp:425] inception_4d/output <- inception_4d/pool_proj
I0403 19:35:51.624202  9430 net.cpp:399] inception_4d/output -> inception_4d/output
I0403 19:35:51.624258  9430 net.cpp:141] Setting up inception_4d/output
I0403 19:35:51.624284  9430 net.cpp:148] Top shape: 24 528 14 14 (2483712)
I0403 19:35:51.624307  9430 net.cpp:156] Memory required for data: 1157244192
I0403 19:35:51.624322  9430 layer_factory.hpp:77] Creating layer inception_4d/output_inception_4d/output_0_split
I0403 19:35:51.624356  9430 net.cpp:91] Creating Layer inception_4d/output_inception_4d/output_0_split
I0403 19:35:51.624372  9430 net.cpp:425] inception_4d/output_inception_4d/output_0_split <- inception_4d/output
I0403 19:35:51.624389  9430 net.cpp:399] inception_4d/output_inception_4d/output_0_split -> inception_4d/output_inception_4d/output_0_split_0
I0403 19:35:51.624409  9430 net.cpp:399] inception_4d/output_inception_4d/output_0_split -> inception_4d/output_inception_4d/output_0_split_1
I0403 19:35:51.624430  9430 net.cpp:399] inception_4d/output_inception_4d/output_0_split -> inception_4d/output_inception_4d/output_0_split_2
I0403 19:35:51.624454  9430 net.cpp:399] inception_4d/output_inception_4d/output_0_split -> inception_4d/output_inception_4d/output_0_split_3
I0403 19:35:51.624475  9430 net.cpp:399] inception_4d/output_inception_4d/output_0_split -> inception_4d/output_inception_4d/output_0_split_4
I0403 19:35:51.624578  9430 net.cpp:141] Setting up inception_4d/output_inception_4d/output_0_split
I0403 19:35:51.624614  9430 net.cpp:148] Top shape: 24 528 14 14 (2483712)
I0403 19:35:51.624631  9430 net.cpp:148] Top shape: 24 528 14 14 (2483712)
I0403 19:35:51.624646  9430 net.cpp:148] Top shape: 24 528 14 14 (2483712)
I0403 19:35:51.624661  9430 net.cpp:148] Top shape: 24 528 14 14 (2483712)
I0403 19:35:51.624677  9430 net.cpp:148] Top shape: 24 528 14 14 (2483712)
I0403 19:35:51.624691  9430 net.cpp:156] Memory required for data: 1206918432
I0403 19:35:51.624706  9430 layer_factory.hpp:77] Creating layer loss2/ave_pool
I0403 19:35:51.624725  9430 net.cpp:91] Creating Layer loss2/ave_pool
I0403 19:35:51.624742  9430 net.cpp:425] loss2/ave_pool <- inception_4d/output_inception_4d/output_0_split_0
I0403 19:35:51.624760  9430 net.cpp:399] loss2/ave_pool -> loss2/ave_pool
I0403 19:35:51.625079  9430 net.cpp:141] Setting up loss2/ave_pool
I0403 19:35:51.625105  9430 net.cpp:148] Top shape: 24 528 4 4 (202752)
I0403 19:35:51.625121  9430 net.cpp:156] Memory required for data: 1207729440
I0403 19:35:51.625135  9430 layer_factory.hpp:77] Creating layer loss2/conv
I0403 19:35:51.625157  9430 net.cpp:91] Creating Layer loss2/conv
I0403 19:35:51.625176  9430 net.cpp:425] loss2/conv <- loss2/ave_pool
I0403 19:35:51.625197  9430 net.cpp:399] loss2/conv -> loss2/conv
I0403 19:35:51.627111  9430 net.cpp:141] Setting up loss2/conv
I0403 19:35:51.627143  9430 net.cpp:148] Top shape: 24 128 4 4 (49152)
I0403 19:35:51.627159  9430 net.cpp:156] Memory required for data: 1207926048
I0403 19:35:51.627179  9430 layer_factory.hpp:77] Creating layer loss2/relu_conv
I0403 19:35:51.627198  9430 net.cpp:91] Creating Layer loss2/relu_conv
I0403 19:35:51.627218  9430 net.cpp:425] loss2/relu_conv <- loss2/conv
I0403 19:35:51.627238  9430 net.cpp:386] loss2/relu_conv -> loss2/conv (in-place)
I0403 19:35:51.627560  9430 net.cpp:141] Setting up loss2/relu_conv
I0403 19:35:51.627588  9430 net.cpp:148] Top shape: 24 128 4 4 (49152)
I0403 19:35:51.627604  9430 net.cpp:156] Memory required for data: 1208122656
I0403 19:35:51.627619  9430 layer_factory.hpp:77] Creating layer loss2/fc
I0403 19:35:51.627638  9430 net.cpp:91] Creating Layer loss2/fc
I0403 19:35:51.627655  9430 net.cpp:425] loss2/fc <- loss2/conv
I0403 19:35:51.627676  9430 net.cpp:399] loss2/fc -> loss2/fc
I0403 19:35:51.645373  9430 net.cpp:141] Setting up loss2/fc
I0403 19:35:51.645433  9430 net.cpp:148] Top shape: 24 1024 (24576)
I0403 19:35:51.645449  9430 net.cpp:156] Memory required for data: 1208220960
I0403 19:35:51.645472  9430 layer_factory.hpp:77] Creating layer loss2/relu_fc
I0403 19:35:51.645491  9430 net.cpp:91] Creating Layer loss2/relu_fc
I0403 19:35:51.645510  9430 net.cpp:425] loss2/relu_fc <- loss2/fc
I0403 19:35:51.645530  9430 net.cpp:386] loss2/relu_fc -> loss2/fc (in-place)
I0403 19:35:51.645882  9430 net.cpp:141] Setting up loss2/relu_fc
I0403 19:35:51.645910  9430 net.cpp:148] Top shape: 24 1024 (24576)
I0403 19:35:51.645927  9430 net.cpp:156] Memory required for data: 1208319264
I0403 19:35:51.645952  9430 layer_factory.hpp:77] Creating layer loss2/drop_fc
I0403 19:35:51.645972  9430 net.cpp:91] Creating Layer loss2/drop_fc
I0403 19:35:51.645987  9430 net.cpp:425] loss2/drop_fc <- loss2/fc
I0403 19:35:51.646004  9430 net.cpp:386] loss2/drop_fc -> loss2/fc (in-place)
I0403 19:35:51.646056  9430 net.cpp:141] Setting up loss2/drop_fc
I0403 19:35:51.646080  9430 net.cpp:148] Top shape: 24 1024 (24576)
I0403 19:35:51.646095  9430 net.cpp:156] Memory required for data: 1208417568
I0403 19:35:51.646108  9430 layer_factory.hpp:77] Creating layer loss2/classifier_plantvillage
I0403 19:35:51.646131  9430 net.cpp:91] Creating Layer loss2/classifier_plantvillage
I0403 19:35:51.646147  9430 net.cpp:425] loss2/classifier_plantvillage <- loss2/fc
I0403 19:35:51.646164  9430 net.cpp:399] loss2/classifier_plantvillage -> loss2/classifier_plantvillage
I0403 19:35:51.646592  9430 net.cpp:141] Setting up loss2/classifier_plantvillage
I0403 19:35:51.646618  9430 net.cpp:148] Top shape: 24 38 (912)
I0403 19:35:51.646633  9430 net.cpp:156] Memory required for data: 1208421216
I0403 19:35:51.646677  9430 layer_factory.hpp:77] Creating layer loss2/classifier_plantvillage_loss2/classifier_plantvillage_0_split
I0403 19:35:51.646697  9430 net.cpp:91] Creating Layer loss2/classifier_plantvillage_loss2/classifier_plantvillage_0_split
I0403 19:35:51.646713  9430 net.cpp:425] loss2/classifier_plantvillage_loss2/classifier_plantvillage_0_split <- loss2/classifier_plantvillage
I0403 19:35:51.646741  9430 net.cpp:399] loss2/classifier_plantvillage_loss2/classifier_plantvillage_0_split -> loss2/classifier_plantvillage_loss2/classifier_plantvillage_0_split_0
I0403 19:35:51.646762  9430 net.cpp:399] loss2/classifier_plantvillage_loss2/classifier_plantvillage_0_split -> loss2/classifier_plantvillage_loss2/classifier_plantvillage_0_split_1
I0403 19:35:51.646785  9430 net.cpp:399] loss2/classifier_plantvillage_loss2/classifier_plantvillage_0_split -> loss2/classifier_plantvillage_loss2/classifier_plantvillage_0_split_2
I0403 19:35:51.646862  9430 net.cpp:141] Setting up loss2/classifier_plantvillage_loss2/classifier_plantvillage_0_split
I0403 19:35:51.646888  9430 net.cpp:148] Top shape: 24 38 (912)
I0403 19:35:51.646905  9430 net.cpp:148] Top shape: 24 38 (912)
I0403 19:35:51.646921  9430 net.cpp:148] Top shape: 24 38 (912)
I0403 19:35:51.646935  9430 net.cpp:156] Memory required for data: 1208432160
I0403 19:35:51.646950  9430 layer_factory.hpp:77] Creating layer inception_4e/1x1
I0403 19:35:51.646973  9430 net.cpp:91] Creating Layer inception_4e/1x1
I0403 19:35:51.646991  9430 net.cpp:425] inception_4e/1x1 <- inception_4d/output_inception_4d/output_0_split_1
I0403 19:35:51.647011  9430 net.cpp:399] inception_4e/1x1 -> inception_4e/1x1
I0403 19:35:51.648900  9430 net.cpp:141] Setting up inception_4e/1x1
I0403 19:35:51.648931  9430 net.cpp:148] Top shape: 24 256 14 14 (1204224)
I0403 19:35:51.648947  9430 net.cpp:156] Memory required for data: 1213249056
I0403 19:35:51.648967  9430 layer_factory.hpp:77] Creating layer inception_4e/relu_1x1
I0403 19:35:51.648985  9430 net.cpp:91] Creating Layer inception_4e/relu_1x1
I0403 19:35:51.649001  9430 net.cpp:425] inception_4e/relu_1x1 <- inception_4e/1x1
I0403 19:35:51.649022  9430 net.cpp:386] inception_4e/relu_1x1 -> inception_4e/1x1 (in-place)
I0403 19:35:51.649327  9430 net.cpp:141] Setting up inception_4e/relu_1x1
I0403 19:35:51.649355  9430 net.cpp:148] Top shape: 24 256 14 14 (1204224)
I0403 19:35:51.649371  9430 net.cpp:156] Memory required for data: 1218065952
I0403 19:35:51.649387  9430 layer_factory.hpp:77] Creating layer inception_4e/3x3_reduce
I0403 19:35:51.649410  9430 net.cpp:91] Creating Layer inception_4e/3x3_reduce
I0403 19:35:51.649428  9430 net.cpp:425] inception_4e/3x3_reduce <- inception_4d/output_inception_4d/output_0_split_2
I0403 19:35:51.649451  9430 net.cpp:399] inception_4e/3x3_reduce -> inception_4e/3x3_reduce
I0403 19:35:51.651594  9430 net.cpp:141] Setting up inception_4e/3x3_reduce
I0403 19:35:51.651626  9430 net.cpp:148] Top shape: 24 160 14 14 (752640)
I0403 19:35:51.651643  9430 net.cpp:156] Memory required for data: 1221076512
I0403 19:35:51.651664  9430 layer_factory.hpp:77] Creating layer inception_4e/relu_3x3_reduce
I0403 19:35:51.651681  9430 net.cpp:91] Creating Layer inception_4e/relu_3x3_reduce
I0403 19:35:51.651700  9430 net.cpp:425] inception_4e/relu_3x3_reduce <- inception_4e/3x3_reduce
I0403 19:35:51.651718  9430 net.cpp:386] inception_4e/relu_3x3_reduce -> inception_4e/3x3_reduce (in-place)
I0403 19:35:51.651908  9430 net.cpp:141] Setting up inception_4e/relu_3x3_reduce
I0403 19:35:51.651935  9430 net.cpp:148] Top shape: 24 160 14 14 (752640)
I0403 19:35:51.651950  9430 net.cpp:156] Memory required for data: 1224087072
I0403 19:35:51.651965  9430 layer_factory.hpp:77] Creating layer inception_4e/3x3
I0403 19:35:51.651988  9430 net.cpp:91] Creating Layer inception_4e/3x3
I0403 19:35:51.652006  9430 net.cpp:425] inception_4e/3x3 <- inception_4e/3x3_reduce
I0403 19:35:51.652027  9430 net.cpp:399] inception_4e/3x3 -> inception_4e/3x3
I0403 19:35:51.657049  9430 net.cpp:141] Setting up inception_4e/3x3
I0403 19:35:51.657094  9430 net.cpp:148] Top shape: 24 320 14 14 (1505280)
I0403 19:35:51.657109  9430 net.cpp:156] Memory required for data: 1230108192
I0403 19:35:51.657130  9430 layer_factory.hpp:77] Creating layer inception_4e/relu_3x3
I0403 19:35:51.657151  9430 net.cpp:91] Creating Layer inception_4e/relu_3x3
I0403 19:35:51.657168  9430 net.cpp:425] inception_4e/relu_3x3 <- inception_4e/3x3
I0403 19:35:51.657187  9430 net.cpp:386] inception_4e/relu_3x3 -> inception_4e/3x3 (in-place)
I0403 19:35:51.657492  9430 net.cpp:141] Setting up inception_4e/relu_3x3
I0403 19:35:51.657521  9430 net.cpp:148] Top shape: 24 320 14 14 (1505280)
I0403 19:35:51.657537  9430 net.cpp:156] Memory required for data: 1236129312
I0403 19:35:51.657553  9430 layer_factory.hpp:77] Creating layer inception_4e/5x5_reduce
I0403 19:35:51.657577  9430 net.cpp:91] Creating Layer inception_4e/5x5_reduce
I0403 19:35:51.657595  9430 net.cpp:425] inception_4e/5x5_reduce <- inception_4d/output_inception_4d/output_0_split_3
I0403 19:35:51.657618  9430 net.cpp:399] inception_4e/5x5_reduce -> inception_4e/5x5_reduce
I0403 19:35:51.658706  9430 net.cpp:141] Setting up inception_4e/5x5_reduce
I0403 19:35:51.658737  9430 net.cpp:148] Top shape: 24 32 14 14 (150528)
I0403 19:35:51.658754  9430 net.cpp:156] Memory required for data: 1236731424
I0403 19:35:51.658773  9430 layer_factory.hpp:77] Creating layer inception_4e/relu_5x5_reduce
I0403 19:35:51.658792  9430 net.cpp:91] Creating Layer inception_4e/relu_5x5_reduce
I0403 19:35:51.658807  9430 net.cpp:425] inception_4e/relu_5x5_reduce <- inception_4e/5x5_reduce
I0403 19:35:51.658828  9430 net.cpp:386] inception_4e/relu_5x5_reduce -> inception_4e/5x5_reduce (in-place)
I0403 19:35:51.659126  9430 net.cpp:141] Setting up inception_4e/relu_5x5_reduce
I0403 19:35:51.659154  9430 net.cpp:148] Top shape: 24 32 14 14 (150528)
I0403 19:35:51.659173  9430 net.cpp:156] Memory required for data: 1237333536
I0403 19:35:51.659188  9430 layer_factory.hpp:77] Creating layer inception_4e/5x5
I0403 19:35:51.659229  9430 net.cpp:91] Creating Layer inception_4e/5x5
I0403 19:35:51.659255  9430 net.cpp:425] inception_4e/5x5 <- inception_4e/5x5_reduce
I0403 19:35:51.659276  9430 net.cpp:399] inception_4e/5x5 -> inception_4e/5x5
I0403 19:35:51.661093  9430 net.cpp:141] Setting up inception_4e/5x5
I0403 19:35:51.661121  9430 net.cpp:148] Top shape: 24 128 14 14 (602112)
I0403 19:35:51.661139  9430 net.cpp:156] Memory required for data: 1239741984
I0403 19:35:51.661157  9430 layer_factory.hpp:77] Creating layer inception_4e/relu_5x5
I0403 19:35:51.661178  9430 net.cpp:91] Creating Layer inception_4e/relu_5x5
I0403 19:35:51.661195  9430 net.cpp:425] inception_4e/relu_5x5 <- inception_4e/5x5
I0403 19:35:51.661214  9430 net.cpp:386] inception_4e/relu_5x5 -> inception_4e/5x5 (in-place)
I0403 19:35:51.661412  9430 net.cpp:141] Setting up inception_4e/relu_5x5
I0403 19:35:51.661437  9430 net.cpp:148] Top shape: 24 128 14 14 (602112)
I0403 19:35:51.661453  9430 net.cpp:156] Memory required for data: 1242150432
I0403 19:35:51.661466  9430 layer_factory.hpp:77] Creating layer inception_4e/pool
I0403 19:35:51.661484  9430 net.cpp:91] Creating Layer inception_4e/pool
I0403 19:35:51.661500  9430 net.cpp:425] inception_4e/pool <- inception_4d/output_inception_4d/output_0_split_4
I0403 19:35:51.661520  9430 net.cpp:399] inception_4e/pool -> inception_4e/pool
I0403 19:35:51.661591  9430 net.cpp:141] Setting up inception_4e/pool
I0403 19:35:51.661613  9430 net.cpp:148] Top shape: 24 528 14 14 (2483712)
I0403 19:35:51.661628  9430 net.cpp:156] Memory required for data: 1252085280
I0403 19:35:51.661643  9430 layer_factory.hpp:77] Creating layer inception_4e/pool_proj
I0403 19:35:51.661667  9430 net.cpp:91] Creating Layer inception_4e/pool_proj
I0403 19:35:51.661685  9430 net.cpp:425] inception_4e/pool_proj <- inception_4e/pool
I0403 19:35:51.661703  9430 net.cpp:399] inception_4e/pool_proj -> inception_4e/pool_proj
I0403 19:35:51.663219  9430 net.cpp:141] Setting up inception_4e/pool_proj
I0403 19:35:51.663254  9430 net.cpp:148] Top shape: 24 128 14 14 (602112)
I0403 19:35:51.663283  9430 net.cpp:156] Memory required for data: 1254493728
I0403 19:35:51.663303  9430 layer_factory.hpp:77] Creating layer inception_4e/relu_pool_proj
I0403 19:35:51.663323  9430 net.cpp:91] Creating Layer inception_4e/relu_pool_proj
I0403 19:35:51.663341  9430 net.cpp:425] inception_4e/relu_pool_proj <- inception_4e/pool_proj
I0403 19:35:51.663358  9430 net.cpp:386] inception_4e/relu_pool_proj -> inception_4e/pool_proj (in-place)
I0403 19:35:51.663645  9430 net.cpp:141] Setting up inception_4e/relu_pool_proj
I0403 19:35:51.663671  9430 net.cpp:148] Top shape: 24 128 14 14 (602112)
I0403 19:35:51.663686  9430 net.cpp:156] Memory required for data: 1256902176
I0403 19:35:51.663700  9430 layer_factory.hpp:77] Creating layer inception_4e/output
I0403 19:35:51.663719  9430 net.cpp:91] Creating Layer inception_4e/output
I0403 19:35:51.663736  9430 net.cpp:425] inception_4e/output <- inception_4e/1x1
I0403 19:35:51.663753  9430 net.cpp:425] inception_4e/output <- inception_4e/3x3
I0403 19:35:51.663769  9430 net.cpp:425] inception_4e/output <- inception_4e/5x5
I0403 19:35:51.663784  9430 net.cpp:425] inception_4e/output <- inception_4e/pool_proj
I0403 19:35:51.663800  9430 net.cpp:399] inception_4e/output -> inception_4e/output
I0403 19:35:51.663852  9430 net.cpp:141] Setting up inception_4e/output
I0403 19:35:51.663875  9430 net.cpp:148] Top shape: 24 832 14 14 (3913728)
I0403 19:35:51.663890  9430 net.cpp:156] Memory required for data: 1272557088
I0403 19:35:51.663904  9430 layer_factory.hpp:77] Creating layer pool4/3x3_s2
I0403 19:35:51.663921  9430 net.cpp:91] Creating Layer pool4/3x3_s2
I0403 19:35:51.663936  9430 net.cpp:425] pool4/3x3_s2 <- inception_4e/output
I0403 19:35:51.663956  9430 net.cpp:399] pool4/3x3_s2 -> pool4/3x3_s2
I0403 19:35:51.664021  9430 net.cpp:141] Setting up pool4/3x3_s2
I0403 19:35:51.664044  9430 net.cpp:148] Top shape: 24 832 7 7 (978432)
I0403 19:35:51.664059  9430 net.cpp:156] Memory required for data: 1276470816
I0403 19:35:51.664072  9430 layer_factory.hpp:77] Creating layer pool4/3x3_s2_pool4/3x3_s2_0_split
I0403 19:35:51.664093  9430 net.cpp:91] Creating Layer pool4/3x3_s2_pool4/3x3_s2_0_split
I0403 19:35:51.664108  9430 net.cpp:425] pool4/3x3_s2_pool4/3x3_s2_0_split <- pool4/3x3_s2
I0403 19:35:51.664127  9430 net.cpp:399] pool4/3x3_s2_pool4/3x3_s2_0_split -> pool4/3x3_s2_pool4/3x3_s2_0_split_0
I0403 19:35:51.664147  9430 net.cpp:399] pool4/3x3_s2_pool4/3x3_s2_0_split -> pool4/3x3_s2_pool4/3x3_s2_0_split_1
I0403 19:35:51.664167  9430 net.cpp:399] pool4/3x3_s2_pool4/3x3_s2_0_split -> pool4/3x3_s2_pool4/3x3_s2_0_split_2
I0403 19:35:51.664186  9430 net.cpp:399] pool4/3x3_s2_pool4/3x3_s2_0_split -> pool4/3x3_s2_pool4/3x3_s2_0_split_3
I0403 19:35:51.664283  9430 net.cpp:141] Setting up pool4/3x3_s2_pool4/3x3_s2_0_split
I0403 19:35:51.664305  9430 net.cpp:148] Top shape: 24 832 7 7 (978432)
I0403 19:35:51.664324  9430 net.cpp:148] Top shape: 24 832 7 7 (978432)
I0403 19:35:51.664340  9430 net.cpp:148] Top shape: 24 832 7 7 (978432)
I0403 19:35:51.664355  9430 net.cpp:148] Top shape: 24 832 7 7 (978432)
I0403 19:35:51.664367  9430 net.cpp:156] Memory required for data: 1292125728
I0403 19:35:51.664381  9430 layer_factory.hpp:77] Creating layer inception_5a/1x1
I0403 19:35:51.664400  9430 net.cpp:91] Creating Layer inception_5a/1x1
I0403 19:35:51.664417  9430 net.cpp:425] inception_5a/1x1 <- pool4/3x3_s2_pool4/3x3_s2_0_split_0
I0403 19:35:51.664446  9430 net.cpp:399] inception_5a/1x1 -> inception_5a/1x1
I0403 19:35:51.667248  9430 net.cpp:141] Setting up inception_5a/1x1
I0403 19:35:51.667280  9430 net.cpp:148] Top shape: 24 256 7 7 (301056)
I0403 19:35:51.667296  9430 net.cpp:156] Memory required for data: 1293329952
I0403 19:35:51.667315  9430 layer_factory.hpp:77] Creating layer inception_5a/relu_1x1
I0403 19:35:51.667332  9430 net.cpp:91] Creating Layer inception_5a/relu_1x1
I0403 19:35:51.667348  9430 net.cpp:425] inception_5a/relu_1x1 <- inception_5a/1x1
I0403 19:35:51.667364  9430 net.cpp:386] inception_5a/relu_1x1 -> inception_5a/1x1 (in-place)
I0403 19:35:51.667675  9430 net.cpp:141] Setting up inception_5a/relu_1x1
I0403 19:35:51.667703  9430 net.cpp:148] Top shape: 24 256 7 7 (301056)
I0403 19:35:51.667719  9430 net.cpp:156] Memory required for data: 1294534176
I0403 19:35:51.667733  9430 layer_factory.hpp:77] Creating layer inception_5a/3x3_reduce
I0403 19:35:51.667755  9430 net.cpp:91] Creating Layer inception_5a/3x3_reduce
I0403 19:35:51.667773  9430 net.cpp:425] inception_5a/3x3_reduce <- pool4/3x3_s2_pool4/3x3_s2_0_split_1
I0403 19:35:51.667791  9430 net.cpp:399] inception_5a/3x3_reduce -> inception_5a/3x3_reduce
I0403 19:35:51.670263  9430 net.cpp:141] Setting up inception_5a/3x3_reduce
I0403 19:35:51.670294  9430 net.cpp:148] Top shape: 24 160 7 7 (188160)
I0403 19:35:51.670310  9430 net.cpp:156] Memory required for data: 1295286816
I0403 19:35:51.670331  9430 layer_factory.hpp:77] Creating layer inception_5a/relu_3x3_reduce
I0403 19:35:51.670351  9430 net.cpp:91] Creating Layer inception_5a/relu_3x3_reduce
I0403 19:35:51.670369  9430 net.cpp:425] inception_5a/relu_3x3_reduce <- inception_5a/3x3_reduce
I0403 19:35:51.670387  9430 net.cpp:386] inception_5a/relu_3x3_reduce -> inception_5a/3x3_reduce (in-place)
I0403 19:35:51.670577  9430 net.cpp:141] Setting up inception_5a/relu_3x3_reduce
I0403 19:35:51.670603  9430 net.cpp:148] Top shape: 24 160 7 7 (188160)
I0403 19:35:51.670620  9430 net.cpp:156] Memory required for data: 1296039456
I0403 19:35:51.670636  9430 layer_factory.hpp:77] Creating layer inception_5a/3x3
I0403 19:35:51.670661  9430 net.cpp:91] Creating Layer inception_5a/3x3
I0403 19:35:51.670681  9430 net.cpp:425] inception_5a/3x3 <- inception_5a/3x3_reduce
I0403 19:35:51.670701  9430 net.cpp:399] inception_5a/3x3 -> inception_5a/3x3
I0403 19:35:51.675655  9430 net.cpp:141] Setting up inception_5a/3x3
I0403 19:35:51.675685  9430 net.cpp:148] Top shape: 24 320 7 7 (376320)
I0403 19:35:51.675700  9430 net.cpp:156] Memory required for data: 1297544736
I0403 19:35:51.675719  9430 layer_factory.hpp:77] Creating layer inception_5a/relu_3x3
I0403 19:35:51.675740  9430 net.cpp:91] Creating Layer inception_5a/relu_3x3
I0403 19:35:51.675757  9430 net.cpp:425] inception_5a/relu_3x3 <- inception_5a/3x3
I0403 19:35:51.675773  9430 net.cpp:386] inception_5a/relu_3x3 -> inception_5a/3x3 (in-place)
I0403 19:35:51.676061  9430 net.cpp:141] Setting up inception_5a/relu_3x3
I0403 19:35:51.676089  9430 net.cpp:148] Top shape: 24 320 7 7 (376320)
I0403 19:35:51.676103  9430 net.cpp:156] Memory required for data: 1299050016
I0403 19:35:51.676118  9430 layer_factory.hpp:77] Creating layer inception_5a/5x5_reduce
I0403 19:35:51.676142  9430 net.cpp:91] Creating Layer inception_5a/5x5_reduce
I0403 19:35:51.676161  9430 net.cpp:425] inception_5a/5x5_reduce <- pool4/3x3_s2_pool4/3x3_s2_0_split_2
I0403 19:35:51.676179  9430 net.cpp:399] inception_5a/5x5_reduce -> inception_5a/5x5_reduce
I0403 19:35:51.677338  9430 net.cpp:141] Setting up inception_5a/5x5_reduce
I0403 19:35:51.677369  9430 net.cpp:148] Top shape: 24 32 7 7 (37632)
I0403 19:35:51.677387  9430 net.cpp:156] Memory required for data: 1299200544
I0403 19:35:51.677407  9430 layer_factory.hpp:77] Creating layer inception_5a/relu_5x5_reduce
I0403 19:35:51.677423  9430 net.cpp:91] Creating Layer inception_5a/relu_5x5_reduce
I0403 19:35:51.677439  9430 net.cpp:425] inception_5a/relu_5x5_reduce <- inception_5a/5x5_reduce
I0403 19:35:51.677459  9430 net.cpp:386] inception_5a/relu_5x5_reduce -> inception_5a/5x5_reduce (in-place)
I0403 19:35:51.677755  9430 net.cpp:141] Setting up inception_5a/relu_5x5_reduce
I0403 19:35:51.677783  9430 net.cpp:148] Top shape: 24 32 7 7 (37632)
I0403 19:35:51.677798  9430 net.cpp:156] Memory required for data: 1299351072
I0403 19:35:51.677814  9430 layer_factory.hpp:77] Creating layer inception_5a/5x5
I0403 19:35:51.677835  9430 net.cpp:91] Creating Layer inception_5a/5x5
I0403 19:35:51.677853  9430 net.cpp:425] inception_5a/5x5 <- inception_5a/5x5_reduce
I0403 19:35:51.677875  9430 net.cpp:399] inception_5a/5x5 -> inception_5a/5x5
I0403 19:35:51.679587  9430 net.cpp:141] Setting up inception_5a/5x5
I0403 19:35:51.679627  9430 net.cpp:148] Top shape: 24 128 7 7 (150528)
I0403 19:35:51.679643  9430 net.cpp:156] Memory required for data: 1299953184
I0403 19:35:51.679671  9430 layer_factory.hpp:77] Creating layer inception_5a/relu_5x5
I0403 19:35:51.679703  9430 net.cpp:91] Creating Layer inception_5a/relu_5x5
I0403 19:35:51.679721  9430 net.cpp:425] inception_5a/relu_5x5 <- inception_5a/5x5
I0403 19:35:51.679738  9430 net.cpp:386] inception_5a/relu_5x5 -> inception_5a/5x5 (in-place)
I0403 19:35:51.679944  9430 net.cpp:141] Setting up inception_5a/relu_5x5
I0403 19:35:51.679968  9430 net.cpp:148] Top shape: 24 128 7 7 (150528)
I0403 19:35:51.679983  9430 net.cpp:156] Memory required for data: 1300555296
I0403 19:35:51.679997  9430 layer_factory.hpp:77] Creating layer inception_5a/pool
I0403 19:35:51.680014  9430 net.cpp:91] Creating Layer inception_5a/pool
I0403 19:35:51.680032  9430 net.cpp:425] inception_5a/pool <- pool4/3x3_s2_pool4/3x3_s2_0_split_3
I0403 19:35:51.680052  9430 net.cpp:399] inception_5a/pool -> inception_5a/pool
I0403 19:35:51.680124  9430 net.cpp:141] Setting up inception_5a/pool
I0403 19:35:51.680146  9430 net.cpp:148] Top shape: 24 832 7 7 (978432)
I0403 19:35:51.680161  9430 net.cpp:156] Memory required for data: 1304469024
I0403 19:35:51.680176  9430 layer_factory.hpp:77] Creating layer inception_5a/pool_proj
I0403 19:35:51.680199  9430 net.cpp:91] Creating Layer inception_5a/pool_proj
I0403 19:35:51.680218  9430 net.cpp:425] inception_5a/pool_proj <- inception_5a/pool
I0403 19:35:51.680238  9430 net.cpp:399] inception_5a/pool_proj -> inception_5a/pool_proj
I0403 19:35:51.682520  9430 net.cpp:141] Setting up inception_5a/pool_proj
I0403 19:35:51.682551  9430 net.cpp:148] Top shape: 24 128 7 7 (150528)
I0403 19:35:51.682567  9430 net.cpp:156] Memory required for data: 1305071136
I0403 19:35:51.682586  9430 layer_factory.hpp:77] Creating layer inception_5a/relu_pool_proj
I0403 19:35:51.682610  9430 net.cpp:91] Creating Layer inception_5a/relu_pool_proj
I0403 19:35:51.682627  9430 net.cpp:425] inception_5a/relu_pool_proj <- inception_5a/pool_proj
I0403 19:35:51.682646  9430 net.cpp:386] inception_5a/relu_pool_proj -> inception_5a/pool_proj (in-place)
I0403 19:35:51.682939  9430 net.cpp:141] Setting up inception_5a/relu_pool_proj
I0403 19:35:51.682963  9430 net.cpp:148] Top shape: 24 128 7 7 (150528)
I0403 19:35:51.682978  9430 net.cpp:156] Memory required for data: 1305673248
I0403 19:35:51.682993  9430 layer_factory.hpp:77] Creating layer inception_5a/output
I0403 19:35:51.683013  9430 net.cpp:91] Creating Layer inception_5a/output
I0403 19:35:51.683029  9430 net.cpp:425] inception_5a/output <- inception_5a/1x1
I0403 19:35:51.683046  9430 net.cpp:425] inception_5a/output <- inception_5a/3x3
I0403 19:35:51.683061  9430 net.cpp:425] inception_5a/output <- inception_5a/5x5
I0403 19:35:51.683076  9430 net.cpp:425] inception_5a/output <- inception_5a/pool_proj
I0403 19:35:51.683094  9430 net.cpp:399] inception_5a/output -> inception_5a/output
I0403 19:35:51.683143  9430 net.cpp:141] Setting up inception_5a/output
I0403 19:35:51.683167  9430 net.cpp:148] Top shape: 24 832 7 7 (978432)
I0403 19:35:51.683182  9430 net.cpp:156] Memory required for data: 1309586976
I0403 19:35:51.683195  9430 layer_factory.hpp:77] Creating layer inception_5a/output_inception_5a/output_0_split
I0403 19:35:51.683212  9430 net.cpp:91] Creating Layer inception_5a/output_inception_5a/output_0_split
I0403 19:35:51.683228  9430 net.cpp:425] inception_5a/output_inception_5a/output_0_split <- inception_5a/output
I0403 19:35:51.683253  9430 net.cpp:399] inception_5a/output_inception_5a/output_0_split -> inception_5a/output_inception_5a/output_0_split_0
I0403 19:35:51.683274  9430 net.cpp:399] inception_5a/output_inception_5a/output_0_split -> inception_5a/output_inception_5a/output_0_split_1
I0403 19:35:51.683295  9430 net.cpp:399] inception_5a/output_inception_5a/output_0_split -> inception_5a/output_inception_5a/output_0_split_2
I0403 19:35:51.683315  9430 net.cpp:399] inception_5a/output_inception_5a/output_0_split -> inception_5a/output_inception_5a/output_0_split_3
I0403 19:35:51.683423  9430 net.cpp:141] Setting up inception_5a/output_inception_5a/output_0_split
I0403 19:35:51.683447  9430 net.cpp:148] Top shape: 24 832 7 7 (978432)
I0403 19:35:51.683465  9430 net.cpp:148] Top shape: 24 832 7 7 (978432)
I0403 19:35:51.683480  9430 net.cpp:148] Top shape: 24 832 7 7 (978432)
I0403 19:35:51.683495  9430 net.cpp:148] Top shape: 24 832 7 7 (978432)
I0403 19:35:51.683508  9430 net.cpp:156] Memory required for data: 1325241888
I0403 19:35:51.683522  9430 layer_factory.hpp:77] Creating layer inception_5b/1x1
I0403 19:35:51.683543  9430 net.cpp:91] Creating Layer inception_5b/1x1
I0403 19:35:51.683562  9430 net.cpp:425] inception_5b/1x1 <- inception_5a/output_inception_5a/output_0_split_0
I0403 19:35:51.683583  9430 net.cpp:399] inception_5b/1x1 -> inception_5b/1x1
I0403 19:35:51.687265  9430 net.cpp:141] Setting up inception_5b/1x1
I0403 19:35:51.687296  9430 net.cpp:148] Top shape: 24 384 7 7 (451584)
I0403 19:35:51.687312  9430 net.cpp:156] Memory required for data: 1327048224
I0403 19:35:51.687331  9430 layer_factory.hpp:77] Creating layer inception_5b/relu_1x1
I0403 19:35:51.687352  9430 net.cpp:91] Creating Layer inception_5b/relu_1x1
I0403 19:35:51.687369  9430 net.cpp:425] inception_5b/relu_1x1 <- inception_5b/1x1
I0403 19:35:51.687386  9430 net.cpp:386] inception_5b/relu_1x1 -> inception_5b/1x1 (in-place)
I0403 19:35:51.687683  9430 net.cpp:141] Setting up inception_5b/relu_1x1
I0403 19:35:51.687708  9430 net.cpp:148] Top shape: 24 384 7 7 (451584)
I0403 19:35:51.687723  9430 net.cpp:156] Memory required for data: 1328854560
I0403 19:35:51.687737  9430 layer_factory.hpp:77] Creating layer inception_5b/3x3_reduce
I0403 19:35:51.687762  9430 net.cpp:91] Creating Layer inception_5b/3x3_reduce
I0403 19:35:51.687779  9430 net.cpp:425] inception_5b/3x3_reduce <- inception_5a/output_inception_5a/output_0_split_1
I0403 19:35:51.687801  9430 net.cpp:399] inception_5b/3x3_reduce -> inception_5b/3x3_reduce
I0403 19:35:51.690410  9430 net.cpp:141] Setting up inception_5b/3x3_reduce
I0403 19:35:51.690440  9430 net.cpp:148] Top shape: 24 192 7 7 (225792)
I0403 19:35:51.690457  9430 net.cpp:156] Memory required for data: 1329757728
I0403 19:35:51.690476  9430 layer_factory.hpp:77] Creating layer inception_5b/relu_3x3_reduce
I0403 19:35:51.690496  9430 net.cpp:91] Creating Layer inception_5b/relu_3x3_reduce
I0403 19:35:51.690515  9430 net.cpp:425] inception_5b/relu_3x3_reduce <- inception_5b/3x3_reduce
I0403 19:35:51.690533  9430 net.cpp:386] inception_5b/relu_3x3_reduce -> inception_5b/3x3_reduce (in-place)
I0403 19:35:51.690724  9430 net.cpp:141] Setting up inception_5b/relu_3x3_reduce
I0403 19:35:51.690752  9430 net.cpp:148] Top shape: 24 192 7 7 (225792)
I0403 19:35:51.690767  9430 net.cpp:156] Memory required for data: 1330660896
I0403 19:35:51.690781  9430 layer_factory.hpp:77] Creating layer inception_5b/3x3
I0403 19:35:51.690804  9430 net.cpp:91] Creating Layer inception_5b/3x3
I0403 19:35:51.690820  9430 net.cpp:425] inception_5b/3x3 <- inception_5b/3x3_reduce
I0403 19:35:51.690839  9430 net.cpp:399] inception_5b/3x3 -> inception_5b/3x3
I0403 19:35:51.697435  9430 net.cpp:141] Setting up inception_5b/3x3
I0403 19:35:51.697464  9430 net.cpp:148] Top shape: 24 384 7 7 (451584)
I0403 19:35:51.697480  9430 net.cpp:156] Memory required for data: 1332467232
I0403 19:35:51.697499  9430 layer_factory.hpp:77] Creating layer inception_5b/relu_3x3
I0403 19:35:51.697520  9430 net.cpp:91] Creating Layer inception_5b/relu_3x3
I0403 19:35:51.697536  9430 net.cpp:425] inception_5b/relu_3x3 <- inception_5b/3x3
I0403 19:35:51.697553  9430 net.cpp:386] inception_5b/relu_3x3 -> inception_5b/3x3 (in-place)
I0403 19:35:51.697846  9430 net.cpp:141] Setting up inception_5b/relu_3x3
I0403 19:35:51.697873  9430 net.cpp:148] Top shape: 24 384 7 7 (451584)
I0403 19:35:51.697887  9430 net.cpp:156] Memory required for data: 1334273568
I0403 19:35:51.697901  9430 layer_factory.hpp:77] Creating layer inception_5b/5x5_reduce
I0403 19:35:51.697938  9430 net.cpp:91] Creating Layer inception_5b/5x5_reduce
I0403 19:35:51.697957  9430 net.cpp:425] inception_5b/5x5_reduce <- inception_5a/output_inception_5a/output_0_split_2
I0403 19:35:51.697978  9430 net.cpp:399] inception_5b/5x5_reduce -> inception_5b/5x5_reduce
I0403 19:35:51.699254  9430 net.cpp:141] Setting up inception_5b/5x5_reduce
I0403 19:35:51.699281  9430 net.cpp:148] Top shape: 24 48 7 7 (56448)
I0403 19:35:51.699298  9430 net.cpp:156] Memory required for data: 1334499360
I0403 19:35:51.699316  9430 layer_factory.hpp:77] Creating layer inception_5b/relu_5x5_reduce
I0403 19:35:51.699337  9430 net.cpp:91] Creating Layer inception_5b/relu_5x5_reduce
I0403 19:35:51.699354  9430 net.cpp:425] inception_5b/relu_5x5_reduce <- inception_5b/5x5_reduce
I0403 19:35:51.699373  9430 net.cpp:386] inception_5b/relu_5x5_reduce -> inception_5b/5x5_reduce (in-place)
I0403 19:35:51.699746  9430 net.cpp:141] Setting up inception_5b/relu_5x5_reduce
I0403 19:35:51.699772  9430 net.cpp:148] Top shape: 24 48 7 7 (56448)
I0403 19:35:51.699787  9430 net.cpp:156] Memory required for data: 1334725152
I0403 19:35:51.699801  9430 layer_factory.hpp:77] Creating layer inception_5b/5x5
I0403 19:35:51.699820  9430 net.cpp:91] Creating Layer inception_5b/5x5
I0403 19:35:51.699837  9430 net.cpp:425] inception_5b/5x5 <- inception_5b/5x5_reduce
I0403 19:35:51.699856  9430 net.cpp:399] inception_5b/5x5 -> inception_5b/5x5
I0403 19:35:51.701889  9430 net.cpp:141] Setting up inception_5b/5x5
I0403 19:35:51.701920  9430 net.cpp:148] Top shape: 24 128 7 7 (150528)
I0403 19:35:51.701936  9430 net.cpp:156] Memory required for data: 1335327264
I0403 19:35:51.701954  9430 layer_factory.hpp:77] Creating layer inception_5b/relu_5x5
I0403 19:35:51.701973  9430 net.cpp:91] Creating Layer inception_5b/relu_5x5
I0403 19:35:51.701990  9430 net.cpp:425] inception_5b/relu_5x5 <- inception_5b/5x5
I0403 19:35:51.702008  9430 net.cpp:386] inception_5b/relu_5x5 -> inception_5b/5x5 (in-place)
I0403 19:35:51.702203  9430 net.cpp:141] Setting up inception_5b/relu_5x5
I0403 19:35:51.702227  9430 net.cpp:148] Top shape: 24 128 7 7 (150528)
I0403 19:35:51.702253  9430 net.cpp:156] Memory required for data: 1335929376
I0403 19:35:51.702270  9430 layer_factory.hpp:77] Creating layer inception_5b/pool
I0403 19:35:51.702288  9430 net.cpp:91] Creating Layer inception_5b/pool
I0403 19:35:51.702304  9430 net.cpp:425] inception_5b/pool <- inception_5a/output_inception_5a/output_0_split_3
I0403 19:35:51.702325  9430 net.cpp:399] inception_5b/pool -> inception_5b/pool
I0403 19:35:51.702397  9430 net.cpp:141] Setting up inception_5b/pool
I0403 19:35:51.702422  9430 net.cpp:148] Top shape: 24 832 7 7 (978432)
I0403 19:35:51.702438  9430 net.cpp:156] Memory required for data: 1339843104
I0403 19:35:51.702452  9430 layer_factory.hpp:77] Creating layer inception_5b/pool_proj
I0403 19:35:51.702473  9430 net.cpp:91] Creating Layer inception_5b/pool_proj
I0403 19:35:51.702492  9430 net.cpp:425] inception_5b/pool_proj <- inception_5b/pool
I0403 19:35:51.702510  9430 net.cpp:399] inception_5b/pool_proj -> inception_5b/pool_proj
I0403 19:35:51.704777  9430 net.cpp:141] Setting up inception_5b/pool_proj
I0403 19:35:51.704807  9430 net.cpp:148] Top shape: 24 128 7 7 (150528)
I0403 19:35:51.704823  9430 net.cpp:156] Memory required for data: 1340445216
I0403 19:35:51.704843  9430 layer_factory.hpp:77] Creating layer inception_5b/relu_pool_proj
I0403 19:35:51.704865  9430 net.cpp:91] Creating Layer inception_5b/relu_pool_proj
I0403 19:35:51.704882  9430 net.cpp:425] inception_5b/relu_pool_proj <- inception_5b/pool_proj
I0403 19:35:51.704900  9430 net.cpp:386] inception_5b/relu_pool_proj -> inception_5b/pool_proj (in-place)
I0403 19:35:51.705193  9430 net.cpp:141] Setting up inception_5b/relu_pool_proj
I0403 19:35:51.705219  9430 net.cpp:148] Top shape: 24 128 7 7 (150528)
I0403 19:35:51.705234  9430 net.cpp:156] Memory required for data: 1341047328
I0403 19:35:51.705253  9430 layer_factory.hpp:77] Creating layer inception_5b/output
I0403 19:35:51.705274  9430 net.cpp:91] Creating Layer inception_5b/output
I0403 19:35:51.705304  9430 net.cpp:425] inception_5b/output <- inception_5b/1x1
I0403 19:35:51.705322  9430 net.cpp:425] inception_5b/output <- inception_5b/3x3
I0403 19:35:51.705338  9430 net.cpp:425] inception_5b/output <- inception_5b/5x5
I0403 19:35:51.705353  9430 net.cpp:425] inception_5b/output <- inception_5b/pool_proj
I0403 19:35:51.705369  9430 net.cpp:399] inception_5b/output -> inception_5b/output
I0403 19:35:51.705421  9430 net.cpp:141] Setting up inception_5b/output
I0403 19:35:51.705446  9430 net.cpp:148] Top shape: 24 1024 7 7 (1204224)
I0403 19:35:51.705459  9430 net.cpp:156] Memory required for data: 1345864224
I0403 19:35:51.705473  9430 layer_factory.hpp:77] Creating layer pool5/7x7_s1
I0403 19:35:51.705490  9430 net.cpp:91] Creating Layer pool5/7x7_s1
I0403 19:35:51.705505  9430 net.cpp:425] pool5/7x7_s1 <- inception_5b/output
I0403 19:35:51.705525  9430 net.cpp:399] pool5/7x7_s1 -> pool5/7x7_s1
I0403 19:35:51.705737  9430 net.cpp:141] Setting up pool5/7x7_s1
I0403 19:35:51.705765  9430 net.cpp:148] Top shape: 24 1024 1 1 (24576)
I0403 19:35:51.705780  9430 net.cpp:156] Memory required for data: 1345962528
I0403 19:35:51.705795  9430 layer_factory.hpp:77] Creating layer pool5/drop_7x7_s1
I0403 19:35:51.705811  9430 net.cpp:91] Creating Layer pool5/drop_7x7_s1
I0403 19:35:51.705827  9430 net.cpp:425] pool5/drop_7x7_s1 <- pool5/7x7_s1
I0403 19:35:51.705844  9430 net.cpp:386] pool5/drop_7x7_s1 -> pool5/7x7_s1 (in-place)
I0403 19:35:51.705893  9430 net.cpp:141] Setting up pool5/drop_7x7_s1
I0403 19:35:51.705916  9430 net.cpp:148] Top shape: 24 1024 1 1 (24576)
I0403 19:35:51.705931  9430 net.cpp:156] Memory required for data: 1346060832
I0403 19:35:51.705945  9430 layer_factory.hpp:77] Creating layer loss3/classifier_plantvillage
I0403 19:35:51.705966  9430 net.cpp:91] Creating Layer loss3/classifier_plantvillage
I0403 19:35:51.705983  9430 net.cpp:425] loss3/classifier_plantvillage <- pool5/7x7_s1
I0403 19:35:51.706001  9430 net.cpp:399] loss3/classifier_plantvillage -> loss3/classifier_plantvillage
I0403 19:35:51.706426  9430 net.cpp:141] Setting up loss3/classifier_plantvillage
I0403 19:35:51.706452  9430 net.cpp:148] Top shape: 24 38 (912)
I0403 19:35:51.706467  9430 net.cpp:156] Memory required for data: 1346064480
I0403 19:35:51.706488  9430 layer_factory.hpp:77] Creating layer loss3/classifier_plantvillage_loss3/classifier_plantvillage_0_split
I0403 19:35:51.706506  9430 net.cpp:91] Creating Layer loss3/classifier_plantvillage_loss3/classifier_plantvillage_0_split
I0403 19:35:51.706523  9430 net.cpp:425] loss3/classifier_plantvillage_loss3/classifier_plantvillage_0_split <- loss3/classifier_plantvillage
I0403 19:35:51.706547  9430 net.cpp:399] loss3/classifier_plantvillage_loss3/classifier_plantvillage_0_split -> loss3/classifier_plantvillage_loss3/classifier_plantvillage_0_split_0
I0403 19:35:51.706569  9430 net.cpp:399] loss3/classifier_plantvillage_loss3/classifier_plantvillage_0_split -> loss3/classifier_plantvillage_loss3/classifier_plantvillage_0_split_1
I0403 19:35:51.706598  9430 net.cpp:399] loss3/classifier_plantvillage_loss3/classifier_plantvillage_0_split -> loss3/classifier_plantvillage_loss3/classifier_plantvillage_0_split_2
I0403 19:35:51.706621  9430 net.cpp:399] loss3/classifier_plantvillage_loss3/classifier_plantvillage_0_split -> loss3/classifier_plantvillage_loss3/classifier_plantvillage_0_split_3
I0403 19:35:51.706724  9430 net.cpp:141] Setting up loss3/classifier_plantvillage_loss3/classifier_plantvillage_0_split
I0403 19:35:51.706748  9430 net.cpp:148] Top shape: 24 38 (912)
I0403 19:35:51.706764  9430 net.cpp:148] Top shape: 24 38 (912)
I0403 19:35:51.706779  9430 net.cpp:148] Top shape: 24 38 (912)
I0403 19:35:51.706794  9430 net.cpp:148] Top shape: 24 38 (912)
I0403 19:35:51.706806  9430 net.cpp:156] Memory required for data: 1346079072
I0403 19:35:51.706820  9430 layer_factory.hpp:77] Creating layer loss1/loss
I0403 19:35:51.706852  9430 net.cpp:91] Creating Layer loss1/loss
I0403 19:35:51.706871  9430 net.cpp:425] loss1/loss <- loss1/classifier_plantvillage_loss1/classifier_plantvillage_0_split_0
I0403 19:35:51.706900  9430 net.cpp:425] loss1/loss <- label_data_1_split_0
…
