…
I0403 19:20:10.042448  9115 net.cpp:313] The NetState phase (1) differed from the phase (0) specified by a rule in layer data
I0403 19:20:10.043582  9115 net.cpp:49] Initializing net from parameters: 
state {
  phase: TEST
}
layer {
  name: "data"
  type: "Data"
  top: "data"
  top: "label"
  include {
    phase: TEST
  }
  transform_param {
    mirror: false
    crop_size: 224
    mean_file: "/home/mohanty/data/final_dataset/lmdb/color-50-50/mean.binaryproto"
  }
  data_param {
    source: "/home/mohanty/data/final_dataset/lmdb/color-50-50/test_db"
    batch_size: 24
    backend: LMDB
  }
}
layer {
  name: "conv1/7x7_s2"
  type: "Convolution"
  bottom: "data"
  top: "conv1/7x7_s2"
  param {
    lr_mult: 1
    decay_mult: 1
  }
  param {
    lr_mult: 2
    decay_mult: 0
  }
  convolution_param {
    num_output: 64
    pad: 3
    kernel_size: 7
    stride: 2
    weight_filler {
      type: "xavier"
      std: 0.1
    }
    bias_filler {
      type: "constant"
      value: 0.2
    }
  }
}
layer {
  name: "conv1/relu_7x7"
  type: "ReLU"
  bottom: "conv1/7x7_s2"
  top: "conv1/7x7_s2"
}
layer {
  name: "pool1/3x3_s2"
  type: "Pooling"
  bottom: "conv1/7x7_s2"
  top: "pool1/3x3_s2"
  pooling_param {
    pool: MAX
    kernel_size: 3
    stride: 2
  }
}
layer {
  name: "pool1/norm1"
  type: "LRN"
  bottom: "pool1/3x3_s2"
  top: "pool1/norm1"
  lrn_param {
    local_size: 5
    alpha: 0.0001
    beta: 0.75
  }
}
layer {
  name: "conv2/3x3_reduce"
  type: "Convolution"
  bottom: "pool1/norm1"
  top: "conv2/3x3_reduce"
  param {
    lr_mult: 1
    decay_mult: 1
  }
  param {
    lr_mult: 2
    decay_mult: 0
  }
  convolution_param {
    num_output: 64
    kernel_size: 1
    weight_filler {
      type: "xavier"
      std: 0.1
    }
    bias_filler {
      type: "constant"
      value: 0.2
    }
  }
}
layer {
  name: "conv2/relu_3x3_reduce"
  type: "ReLU"
  bottom: "conv2/3x3_reduce"
  top: "conv2/3x3_reduce"
}
layer {
  name: "conv2/3x3"
  type: "Convolution"
  bottom: "conv2/3x3_reduce"
  top: "conv2/3x3"
  param {
    lr_mult: 1
    decay_mult: 1
  }
  param {
    lr_mult: 2
    decay_mult: 0
  }
  convolution_param {
    num_output: 192
    pad: 1
    kernel_size: 3
    weight_filler {
      type: "xavier"
      std: 0.03
    }
    bias_filler {
      type: "constant"
      value: 0.2
    }
  }
}
layer {
  name: "conv2/relu_3x3"
  type: "ReLU"
  bottom: "conv2/3x3"
  top: "conv2/3x3"
}
layer {
  name: "conv2/norm2"
  type: "LRN"
  bottom: "conv2/3x3"
  top: "conv2/norm2"
  lrn_param {
    local_size: 5
    alpha: 0.0001
    beta: 0.75
  }
}
layer {
  name: "pool2/3x3_s2"
  type: "Pooling"
  bottom: "conv2/norm2"
  top: "pool2/3x3_s2"
  pooling_param {
    pool: MAX
    kernel_size: 3
    stride: 2
  }
}
layer {
  name: "inception_3a/1x1"
  type: "Convolution"
  bottom: "pool2/3x3_s2"
  top: "inception_3a/1x1"
  param {
    lr_mult: 1
    decay_mult: 1
  }
  param {
    lr_mult: 2
    decay_mult: 0
  }
  convolution_param {
    num_output: 64
    kernel_size: 1
    weight_filler {
      type: "xavier"
      std: 0.03
    }
    bias_filler {
      type: "constant"
      value: 0.2
    }
  }
}
layer {
  name: "inception_3a/relu_1x1"
  type: "ReLU"
  bottom: "inception_3a/1x1"
  top: "inception_3a/1x1"
}
layer {
  name: "inception_3a/3x3_reduce"
  type: "Convolution"
  bottom: "pool2/3x3_s2"
  top: "inception_3a/3x3_reduce"
  param {
    lr_mult: 1
    decay_mult: 1
  }
  param {
    lr_mult: 2
    decay_mult: 0
  }
  convolution_param {
    num_output: 96
    kernel_size: 1
    weight_filler {
      type: "xavier"
      std: 0.09
    }
    bias_filler {
      type: "constant"
      value: 0.2
    }
  }
}
layer {
  name: "inception_3a/relu_3x3_reduce"
  type: "ReLU"
  bottom: "inception_3a/3x3_reduce"
  top: "inception_3a/3x3_reduce"
}
layer {
  name: "inception_3a/3x3"
  type: "Convolution"
  bottom: "inception_3a/3x3_reduce"
  top: "inception_3a/3x3"
  param {
    lr_mult: 1
    decay_mult: 1
  }
  param {
    lr_mult: 2
    decay_mult: 0
  }
  convolution_param {
    num_output: 128
    pad: 1
    kernel_size: 3
    weight_filler {
      type: "xavier"
      std: 0.03
    }
    bias_filler {
      type: "constant"
      value: 0.2
    }
  }
}
layer {
  name: "inception_3a/relu_3x3"
  type: "ReLU"
  bottom: "inception_3a/3x3"
  top: "inception_3a/3x3"
}
layer {
  name: "inception_3a/5x5_reduce"
  type: "Convolution"
  bottom: "pool2/3x3_s2"
  top: "inception_3a/5x5_reduce"
  param {
    lr_mult: 1
    decay_mult: 1
  }
  param {
    lr_mult: 2
    decay_mult: 0
  }
  convolution_param {
    num_output: 16
    kernel_size: 1
    weight_filler {
      type: "xavier"
      std: 0.2
    }
    bias_filler {
      type: "constant"
      value: 0.2
    }
  }
}
layer {
  name: "inception_3a/relu_5x5_reduce"
  type: "ReLU"
  bottom: "inception_3a/5x5_reduce"
  top: "inception_3a/5x5_reduce"
}
layer {
  name: "inception_3a/5x5"
  type: "Convolution"
  bottom: "inception_3a/5x5_reduce"
  top: "inception_3a/5x5"
  param {
    lr_mult: 1
    decay_mult: 1
  }
  param {
    lr_mult: 2
    decay_mult: 0
  }
  convolution_param {
    num_output: 32
    pad: 2
    kernel_size: 5
    weight_filler {
      type: "xavier"
      std: 0.03
    }
    bias_filler {
      type: "constant"
      value: 0.2
    }
  }
}
layer {
  name: "inception_3a/relu_5x5"
  type: "ReLU"
  bottom: "inception_3a/5x5"
  top: "inception_3a/5x5"
}
layer {
  name: "inception_3a/pool"
  type: "Pooling"
  bottom: "pool2/3x3_s2"
  top: "inception_3a/pool"
  pooling_param {
    pool: MAX
    kernel_size: 3
    stride: 1
    pad: 1
  }
}
layer {
  name: "inception_3a/pool_proj"
  type: "Convolution"
  bottom: "inception_3a/pool"
  top: "inception_3a/pool_proj"
  param {
    lr_mult: 1
    decay_mult: 1
  }
  param {
    lr_mult: 2
    decay_mult: 0
  }
  convolution_param {
    num_output: 32
    kernel_size: 1
    weight_filler {
      type: "xavier"
      std: 0.1
    }
    bias_filler {
      type: "constant"
      value: 0.2
    }
  }
}
layer {
  name: "inception_3a/relu_pool_proj"
  type: "ReLU"
  bottom: "inception_3a/pool_proj"
  top: "inception_3a/pool_proj"
}
layer {
  name: "inception_3a/output"
  type: "Concat"
  bottom: "inception_3a/1x1"
  bottom: "inception_3a/3x3"
  bottom: "inception_3a/5x5"
  bottom: "inception_3a/pool_proj"
  top: "inception_3a/output"
}
layer {
  name: "inception_3b/1x1"
  type: "Convolution"
  bottom: "inception_3a/output"
  top: "inception_3b/1x1"
  param {
    lr_mult: 1
    decay_mult: 1
  }
  param {
    lr_mult: 2
    decay_mult: 0
  }
  convolution_param {
    num_output: 128
    kernel_size: 1
    weight_filler {
      type: "xavier"
      std: 0.03
    }
    bias_filler {
      type: "constant"
      value: 0.2
    }
  }
}
layer {
  name: "inception_3b/relu_1x1"
  type: "ReLU"
  bottom: "inception_3b/1x1"
  top: "inception_3b/1x1"
}
layer {
  name: "inception_3b/3x3_reduce"
  type: "Convolution"
  bottom: "inception_3a/output"
  top: "inception_3b/3x3_reduce"
  param {
    lr_mult: 1
    decay_mult: 1
  }
  param {
    lr_mult: 2
    decay_mult: 0
  }
  convolution_param {
    num_output: 128
    kernel_size: 1
    weight_filler {
      type: "xavier"
      std: 0.09
    }
    bias_filler {
      type: "constant"
      value: 0.2
    }
  }
}
layer {
  name: "inception_3b/relu_3x3_reduce"
  type: "ReLU"
  bottom: "inception_3b/3x3_reduce"
  top: "inception_3b/3x3_reduce"
}
layer {
  name: "inception_3b/3x3"
  type: "Convolution"
  bottom: "inception_3b/3x3_reduce"
  top: "inception_3b/3x3"
  param {
    lr_mult: 1
    decay_mult: 1
  }
  param {
    lr_mult: 2
    decay_mult: 0
  }
  convolution_param {
    num_output: 192
    pad: 1
    kernel_size: 3
    weight_filler {
      type: "xavier"
      std: 0.03
    }
    bias_filler {
      type: "constant"
      value: 0.2
    }
  }
}
layer {
  name: "inception_3b/relu_3x3"
  type: "ReLU"
  bottom: "inception_3b/3x3"
  top: "inception_3b/3x3"
}
layer {
  name: "inception_3b/5x5_reduce"
  type: "Convolution"
  bottom: "inception_3a/output"
  top: "inception_3b/5x5_reduce"
  param {
    lr_mult: 1
    decay_mult: 1
  }
  param {
    lr_mult: 2
    decay_mult: 0
  }
  convolution_param {
    num_output: 32
    kernel_size: 1
    weight_filler {
      type: "xavier"
      std: 0.2
    }
    bias_filler {
      type: "constant"
      value: 0.2
    }
  }
}
layer {
  name: "inception_3b/relu_5x5_reduce"
  type: "ReLU"
  bottom: "inception_3b/5x5_reduce"
  top: "inception_3b/5x5_reduce"
}
layer {
  name: "inception_3b/5x5"
  type: "Convolution"
  bottom: "inception_3b/5x5_reduce"
  top: "inception_3b/5x5"
  param {
    lr_mult: 1
    decay_mult: 1
  }
  param {
    lr_mult: 2
    decay_mult: 0
  }
  convolution_param {
    num_output: 96
    pad: 2
    kernel_size: 5
    weight_filler {
      type: "xavier"
      std: 0.03
    }
    bias_filler {
      type: "constant"
      value: 0.2
    }
  }
}
layer {
  name: "inception_3b/relu_5x5"
  type: "ReLU"
  bottom: "inception_3b/5x5"
  top: "inception_3b/5x5"
}
layer {
  name: "inception_3b/pool"
  type: "Pooling"
  bottom: "inception_3a/output"
  top: "inception_3b/pool"
  pooling_param {
    pool: MAX
    kernel_size: 3
    stride: 1
    pad: 1
  }
}
layer {
  name: "inception_3b/pool_proj"
  type: "Convolution"
  bottom: "inception_3b/pool"
  top: "inception_3b/pool_proj"
  param {
    lr_mult: 1
    decay_mult: 1
  }
  param {
    lr_mult: 2
    decay_mult: 0
  }
  convolution_param {
    num_output: 64
    kernel_size: 1
    weight_filler {
      type: "xavier"
      std: 0.1
    }
    bias_filler {
      type: "constant"
      value: 0.2
    }
  }
}
layer {
  name: "inception_3b/relu_pool_proj"
  type: "ReLU"
  bottom: "inception_3b/pool_proj"
  top: "inception_3b/pool_proj"
}
layer {
  name: "inception_3b/output"
  type: "Concat"
  bottom: "inception_3b/1x1"
  bottom: "inception_3b/3x3"
  bottom: "inception_3b/5x5"
  bottom: "inception_3b/pool_proj"
  top: "inception_3b/output"
}
layer {
  name: "pool3/3x3_s2"
  type: "Pooling"
  bottom: "inception_3b/output"
  top: "pool3/3x3_s2"
  pooling_param {
    pool: MAX
    kernel_size: 3
    stride: 2
  }
}
layer {
  name: "inception_4a/1x1"
  type: "Convolution"
  bottom: "pool3/3x3_s2"
  top: "inception_4a/1x1"
  param {
    lr_mult: 1
    decay_mult: 1
  }
  param {
    lr_mult: 2
    decay_mult: 0
  }
  convolution_param {
    num_output: 192
    kernel_size: 1
    weight_filler {
      type: "xavier"
      std: 0.03
    }
    bias_filler {
      type: "constant"
      value: 0.2
    }
  }
}
layer {
  name: "inception_4a/relu_1x1"
  type: "ReLU"
  bottom: "inception_4a/1x1"
  top: "inception_4a/1x1"
}
layer {
  name: "inception_4a/3x3_reduce"
  type: "Convolution"
  bottom: "pool3/3x3_s2"
  top: "inception_4a/3x3_reduce"
  param {
    lr_mult: 1
    decay_mult: 1
  }
  param {
    lr_mult: 2
    decay_mult: 0
  }
  convolution_param {
    num_output: 96
    kernel_size: 1
    weight_filler {
      type: "xavier"
      std: 0.09
    }
    bias_filler {
      type: "constant"
      value: 0.2
    }
  }
}
layer {
  name: "inception_4a/relu_3x3_reduce"
  type: "ReLU"
  bottom: "inception_4a/3x3_reduce"
  top: "inception_4a/3x3_reduce"
}
layer {
  name: "inception_4a/3x3"
  type: "Convolution"
  bottom: "inception_4a/3x3_reduce"
  top: "inception_4a/3x3"
  param {
    lr_mult: 1
    decay_mult: 1
  }
  param {
    lr_mult: 2
    decay_mult: 0
  }
  convolution_param {
    num_output: 208
    pad: 1
    kernel_size: 3
    weight_filler {
      type: "xavier"
      std: 0.03
    }
    bias_filler {
      type: "constant"
      value: 0.2
    }
  }
}
layer {
  name: "inception_4a/relu_3x3"
  type: "ReLU"
  bottom: "inception_4a/3x3"
  top: "inception_4a/3x3"
}
layer {
  name: "inception_4a/5x5_reduce"
  type: "Convolution"
  bottom: "pool3/3x3_s2"
  top: "inception_4a/5x5_reduce"
  param {
    lr_mult: 1
    decay_mult: 1
  }
  param {
    lr_mult: 2
    decay_mult: 0
  }
  convolution_param {
    num_output: 16
    kernel_size: 1
    weight_filler {
      type: "xavier"
      std: 0.2
    }
    bias_filler {
      type: "constant"
      value: 0.2
    }
  }
}
layer {
  name: "inception_4a/relu_5x5_reduce"
  type: "ReLU"
  bottom: "inception_4a/5x5_reduce"
  top: "inception_4a/5x5_reduce"
}
layer {
  name: "inception_4a/5x5"
  type: "Convolution"
  bottom: "inception_4a/5x5_reduce"
  top: "inception_4a/5x5"
  param {
    lr_mult: 1
    decay_mult: 1
  }
  param {
    lr_mult: 2
    decay_mult: 0
  }
  convolution_param {
    num_output: 48
    pad: 2
    kernel_size: 5
    weight_filler {
      type: "xavier"
      std: 0.03
    }
    bias_filler {
      type: "constant"
      value: 0.2
    }
  }
}
layer {
  name: "inception_4a/relu_5x5"
  type: "ReLU"
  bottom: "inception_4a/5x5"
  top: "inception_4a/5x5"
}
layer {
  name: "inception_4a/pool"
  type: "Pooling"
  bottom: "pool3/3x3_s2"
  top: "inception_4a/pool"
  pooling_param {
    pool: MAX
    kernel_size: 3
    stride: 1
    pad: 1
  }
}
layer {
  name: "inception_4a/pool_proj"
  type: "Convolution"
  bottom: "inception_4a/pool"
  top: "inception_4a/pool_proj"
  param {
    lr_mult: 1
    decay_mult: 1
  }
  param {
    lr_mult: 2
    decay_mult: 0
  }
  convolution_param {
    num_output: 64
    kernel_size: 1
    weight_filler {
      type: "xavier"
      std: 0.1
    }
    bias_filler {
      type: "constant"
      value: 0.2
    }
  }
}
layer {
  name: "inception_4a/relu_pool_proj"
  type: "ReLU"
  bottom: "inception_4a/pool_proj"
  top: "inception_4a/pool_proj"
}
layer {
  name: "inception_4a/output"
  type: "Concat"
  bottom: "inception_4a/1x1"
  bottom: "inception_4a/3x3"
  bottom: "inception_4a/5x5"
  bottom: "inception_4a/pool_proj"
  top: "inception_4a/output"
}
layer {
  name: "loss1/ave_pool"
  type: "Pooling"
  bottom: "inception_4a/output"
  top: "loss1/ave_pool"
  pooling_param {
    pool: AVE
    kernel_size: 5
    stride: 3
  }
}
layer {
  name: "loss1/conv"
  type: "Convolution"
  bottom: "loss1/ave_pool"
  top: "loss1/conv"
  param {
    lr_mult: 1
    decay_mult: 1
  }
  param {
    lr_mult: 2
    decay_mult: 0
  }
  convolution_param {
    num_output: 128
    kernel_size: 1
    weight_filler {
      type: "xavier"
      std: 0.08
    }
    bias_filler {
      type: "constant"
      value: 0.2
    }
  }
}
layer {
  name: "loss1/relu_conv"
  type: "ReLU"
  bottom: "loss1/conv"
  top: "loss1/conv"
}
layer {
  name: "loss1/fc"
  type: "InnerProduct"
  bottom: "loss1/conv"
  top: "loss1/fc"
  param {
    lr_mult: 1
    decay_mult: 1
  }
  param {
    lr_mult: 2
    decay_mult: 0
  }
  inner_product_param {
    num_output: 1024
    weight_filler {
      type: "xavier"
      std: 0.02
    }
    bias_filler {
      type: "constant"
      value: 0.2
    }
  }
}
layer {
  name: "loss1/relu_fc"
  type: "ReLU"
  bottom: "loss1/fc"
  top: "loss1/fc"
}
layer {
  name: "loss1/drop_fc"
  type: "Dropout"
  bottom: "loss1/fc"
  top: "loss1/fc"
  dropout_param {
    dropout_ratio: 0.7
  }
}
layer {
  name: "loss1/classifier_plantvillage"
  type: "InnerProduct"
  bottom: "loss1/fc"
  top: "loss1/classifier_plantvillage"
  param {
    lr_mult: 1
    decay_mult: 1
  }
  param {
    lr_mult: 2
    decay_mult: 0
  }
  inner_product_param {
    num_output: 38
    weight_filler {
      type: "xavier"
      std: 0.0009765625
    }
    bias_filler {
      type: "constant"
      value: 0
    }
  }
}
layer {
  name: "inception_4b/1x1"
  type: "Convolution"
  bottom: "inception_4a/output"
  top: "inception_4b/1x1"
  param {
    lr_mult: 1
    decay_mult: 1
  }
  param {
    lr_mult: 2
    decay_mult: 0
  }
  convolution_param {
    num_output: 160
    kernel_size: 1
    weight_filler {
      type: "xavier"
      std: 0.03
    }
    bias_filler {
      type: "constant"
      value: 0.2
    }
  }
}
layer {
  name: "inception_4b/relu_1x1"
  type: "ReLU"
  bottom: "inception_4b/1x1"
  top: "inception_4b/1x1"
}
layer {
  name: "inception_4b/3x3_reduce"
  type: "Convolution"
  bottom: "inception_4a/output"
  top: "inception_4b/3x3_reduce"
  param {
    lr_mult: 1
    decay_mult: 1
  }
  param {
    lr_mult: 2
    decay_mult: 0
  }
  convolution_param {
    num_output: 112
    kernel_size: 1
    weight_filler {
      type: "xavier"
      std: 0.09
    }
    bias_filler {
      type: "constant"
      value: 0.2
    }
  }
}
layer {
  name: "inception_4b/relu_3x3_reduce"
  type: "ReLU"
  bottom: "inception_4b/3x3_reduce"
  top: "inception_4b/3x3_reduce"
}
layer {
  name: "inception_4b/3x3"
  type: "Convolution"
  bottom: "inception_4b/3x3_reduce"
  top: "inception_4b/3x3"
  param {
    lr_mult: 1
    decay_mult: 1
  }
  param {
    lr_mult: 2
    decay_mult: 0
  }
  convolution_param {
    num_output: 224
    pad: 1
    kernel_size: 3
    weight_filler {
      type: "xavier"
      std: 0.03
    }
    bias_filler {
      type: "constant"
      value: 0.2
    }
  }
}
layer {
  name: "inception_4b/relu_3x3"
  type: "ReLU"
  bottom: "inception_4b/3x3"
  top: "inception_4b/3x3"
}
layer {
  name: "inception_4b/5x5_reduce"
  type: "Convolution"
  bottom: "inception_4a/output"
  top: "inception_4b/5x5_reduce"
  param {
    lr_mult: 1
    decay_mult: 1
  }
  param {
    lr_mult: 2
    decay_mult: 0
  }
  convolution_param {
    num_output: 24
    kernel_size: 1
    weight_filler {
      type: "xavier"
      std: 0.2
    }
    bias_filler {
      type: "constant"
      value: 0.2
    }
  }
}
layer {
  name: "inception_4b/relu_5x5_reduce"
  type: "ReLU"
  bottom: "inception_4b/5x5_reduce"
  top: "inception_4b/5x5_reduce"
}
layer {
  name: "inception_4b/5x5"
  type: "Convolution"
  bottom: "inception_4b/5x5_reduce"
  top: "inception_4b/5x5"
  param {
    lr_mult: 1
    decay_mult: 1
  }
  param {
    lr_mult: 2
    decay_mult: 0
  }
  convolution_param {
    num_output: 64
    pad: 2
    kernel_size: 5
    weight_filler {
      type: "xavier"
      std: 0.03
    }
    bias_filler {
      type: "constant"
      value: 0.2
    }
  }
}
layer {
  name: "inception_4b/relu_5x5"
  type: "ReLU"
  bottom: "inception_4b/5x5"
  top: "inception_4b/5x5"
}
layer {
  name: "inception_4b/pool"
  type: "Pooling"
  bottom: "inception_4a/output"
  top: "inception_4b/pool"
  pooling_param {
    pool: MAX
    kernel_size: 3
    stride: 1
    pad: 1
  }
}
layer {
  name: "inception_4b/pool_proj"
  type: "Convolution"
  bottom: "inception_4b/pool"
  top: "inception_4b/pool_proj"
  param {
    lr_mult: 1
    decay_mult: 1
  }
  param {
    lr_mult: 2
    decay_mult: 0
  }
  convolution_param {
    num_output: 64
    kernel_size: 1
    weight_filler {
      type: "xavier"
      std: 0.1
    }
    bias_filler {
      type: "constant"
      value: 0.2
    }
  }
}
layer {
  name: "inception_4b/relu_pool_proj"
  type: "ReLU"
  bottom: "inception_4b/pool_proj"
  top: "inception_4b/pool_proj"
}
layer {
  name: "inception_4b/output"
  type: "Concat"
  bottom: "inception_4b/1x1"
  bottom: "inception_4b/3x3"
  bottom: "inception_4b/5x5"
  bottom: "inception_4b/pool_proj"
  top: "inception_4b/output"
}
layer {
  name: "inception_4c/1x1"
  type: "Convolution"
  bottom: "inception_4b/output"
  top: "inception_4c/1x1"
  param {
    lr_mult: 1
    decay_mult: 1
  }
  param {
    lr_mult: 2
    decay_mult: 0
  }
  convolution_param {
    num_output: 128
    kernel_size: 1
    weight_filler {
      type: "xavier"
      std: 0.03
    }
    bias_filler {
      type: "constant"
      value: 0.2
    }
  }
}
layer {
  name: "inception_4c/relu_1x1"
  type: "ReLU"
  bottom: "inception_4c/1x1"
  top: "inception_4c/1x1"
}
layer {
  name: "inception_4c/3x3_reduce"
  type: "Convolution"
  bottom: "inception_4b/output"
  top: "inception_4c/3x3_reduce"
  param {
    lr_mult: 1
    decay_mult: 1
  }
  param {
    lr_mult: 2
    decay_mult: 0
  }
  convolution_param {
    num_output: 128
    kernel_size: 1
    weight_filler {
      type: "xavier"
      std: 0.09
    }
    bias_filler {
      type: "constant"
      value: 0.2
    }
  }
}
layer {
  name: "inception_4c/relu_3x3_reduce"
  type: "ReLU"
  bottom: "inception_4c/3x3_reduce"
  top: "inception_4c/3x3_reduce"
}
layer {
  name: "inception_4c/3x3"
  type: "Convolution"
  bottom: "inception_4c/3x3_reduce"
  top: "inception_4c/3x3"
  param {
    lr_mult: 1
    decay_mult: 1
  }
  param {
    lr_mult: 2
    decay_mult: 0
  }
  convolution_param {
    num_output: 256
    pad: 1
    kernel_size: 3
    weight_filler {
      type: "xavier"
      std: 0.03
    }
    bias_filler {
      type: "constant"
      value: 0.2
    }
  }
}
layer {
  name: "inception_4c/relu_3x3"
  type: "ReLU"
  bottom: "inception_4c/3x3"
  top: "inception_4c/3x3"
}
layer {
  name: "inception_4c/5x5_reduce"
  type: "Convolution"
  bottom: "inception_4b/output"
  top: "inception_4c/5x5_reduce"
  param {
    lr_mult: 1
    decay_mult: 1
  }
  param {
    lr_mult: 2
    decay_mult: 0
  }
  convolution_param {
    num_output: 24
    kernel_size: 1
    weight_filler {
      type: "xavier"
      std: 0.2
    }
    bias_filler {
      type: "constant"
      value: 0.2
    }
  }
}
layer {
  name: "inception_4c/relu_5x5_reduce"
  type: "ReLU"
  bottom: "inception_4c/5x5_reduce"
  top: "inception_4c/5x5_reduce"
}
layer {
  name: "inception_4c/5x5"
  type: "Convolution"
  bottom: "inception_4c/5x5_reduce"
  top: "inception_4c/5x5"
  param {
    lr_mult: 1
    decay_mult: 1
  }
  param {
    lr_mult: 2
    decay_mult: 0
  }
  convolution_param {
    num_output: 64
    pad: 2
    kernel_size: 5
    weight_filler {
      type: "xavier"
      std: 0.03
    }
    bias_filler {
      type: "constant"
      value: 0.2
    }
  }
}
layer {
  name: "inception_4c/relu_5x5"
  type: "ReLU"
  bottom: "inception_4c/5x5"
  top: "inception_4c/5x5"
}
layer {
  name: "inception_4c/pool"
  type: "Pooling"
  bottom: "inception_4b/output"
  top: "inception_4c/pool"
  pooling_param {
    pool: MAX
    kernel_size: 3
    stride: 1
    pad: 1
  }
}
layer {
  name: "inception_4c/pool_proj"
  type: "Convolution"
  bottom: "inception_4c/pool"
  top: "inception_4c/pool_proj"
  param {
    lr_mult: 1
    decay_mult: 1
  }
  param {
    lr_mult: 2
    decay_mult: 0
  }
  convolution_param {
    num_output: 64
    kernel_size: 1
    weight_filler {
      type: "xavier"
      std: 0.1
    }
    bias_filler {
      type: "constant"
      value: 0.2
    }
  }
}
layer {
  name: "inception_4c/relu_pool_proj"
  type: "ReLU"
  bottom: "inception_4c/pool_proj"
  top: "inception_4c/pool_proj"
}
layer {
  name: "inception_4c/output"
  type: "Concat"
  bottom: "inception_4c/1x1"
  bottom: "inception_4c/3x3"
  bottom: "inception_4c/5x5"
  bottom: "inception_4c/pool_proj"
  top: "inception_4c/output"
}
layer {
  name: "inception_4d/1x1"
  type: "Convolution"
  bottom: "inception_4c/output"
  top: "inception_4d/1x1"
  param {
    lr_mult: 1
    decay_mult: 1
  }
  param {
    lr_mult: 2
    decay_mult: 0
  }
  convolution_param {
    num_output: 112
    kernel_size: 1
    weight_filler {
      type: "xavier"
      std: 0.03
    }
    bias_filler {
      type: "constant"
      value: 0.2
    }
  }
}
layer {
  name: "inception_4d/relu_1x1"
  type: "ReLU"
  bottom: "inception_4d/1x1"
  top: "inception_4d/1x1"
}
layer {
  name: "inception_4d/3x3_reduce"
  type: "Convolution"
  bottom: "inception_4c/output"
  top: "inception_4d/3x3_reduce"
  param {
    lr_mult: 1
    decay_mult: 1
  }
  param {
    lr_mult: 2
    decay_mult: 0
  }
  convolution_param {
    num_output: 144
    kernel_size: 1
    weight_filler {
      type: "xavier"
      std: 0.09
    }
    bias_filler {
      type: "constant"
      value: 0.2
    }
  }
}
layer {
  name: "inception_4d/relu_3x3_reduce"
  type: "ReLU"
  bottom: "inception_4d/3x3_reduce"
  top: "inception_4d/3x3_reduce"
}
layer {
  name: "inception_4d/3x3"
  type: "Convolution"
  bottom: "inception_4d/3x3_reduce"
  top: "inception_4d/3x3"
  param {
    lr_mult: 1
    decay_mult: 1
  }
  param {
    lr_mult: 2
    decay_mult: 0
  }
  convolution_param {
    num_output: 288
    pad: 1
    kernel_size: 3
    weight_filler {
      type: "xavier"
      std: 0.03
    }
    bias_filler {
      type: "constant"
      value: 0.2
    }
  }
}
layer {
  name: "inception_4d/relu_3x3"
  type: "ReLU"
  bottom: "inception_4d/3x3"
  top: "inception_4d/3x3"
}
layer {
  name: "inception_4d/5x5_reduce"
  type: "Convolution"
  bottom: "inception_4c/output"
  top: "inception_4d/5x5_reduce"
  param {
    lr_mult: 1
    decay_mult: 1
  }
  param {
    lr_mult: 2
    decay_mult: 0
  }
  convolution_param {
    num_output: 32
    kernel_size: 1
    weight_filler {
      type: "xavier"
      std: 0.2
    }
    bias_filler {
      type: "constant"
      value: 0.2
    }
  }
}
layer {
  name: "inception_4d/relu_5x5_reduce"
  type: "ReLU"
  bottom: "inception_4d/5x5_reduce"
  top: "inception_4d/5x5_reduce"
}
layer {
  name: "inception_4d/5x5"
  type: "Convolution"
  bottom: "inception_4d/5x5_reduce"
  top: "inception_4d/5x5"
  param {
    lr_mult: 1
    decay_mult: 1
  }
  param {
    lr_mult: 2
    decay_mult: 0
  }
  convolution_param {
    num_output: 64
    pad: 2
    kernel_size: 5
    weight_filler {
      type: "xavier"
      std: 0.03
    }
    bias_filler {
      type: "constant"
      value: 0.2
    }
  }
}
layer {
  name: "inception_4d/relu_5x5"
  type: "ReLU"
  bottom: "inception_4d/5x5"
  top: "inception_4d/5x5"
}
layer {
  name: "inception_4d/pool"
  type: "Pooling"
  bottom: "inception_4c/output"
  top: "inception_4d/pool"
  pooling_param {
    pool: MAX
    kernel_size: 3
    stride: 1
    pad: 1
  }
}
layer {
  name: "inception_4d/pool_proj"
  type: "Convolution"
  bottom: "inception_4d/pool"
  top: "inception_4d/pool_proj"
  param {
    lr_mult: 1
    decay_mult: 1
  }
  param {
    lr_mult: 2
    decay_mult: 0
  }
  convolution_param {
    num_output: 64
    kernel_size: 1
    weight_filler {
      type: "xavier"
      std: 0.1
    }
    bias_filler {
      type: "constant"
      value: 0.2
    }
  }
}
layer {
  name: "inception_4d/relu_pool_proj"
  type: "ReLU"
  bottom: "inception_4d/pool_proj"
  top: "inception_4d/pool_proj"
}
layer {
  name: "inception_4d/output"
  type: "Concat"
  bottom: "inception_4d/1x1"
  bottom: "inception_4d/3x3"
  bottom: "inception_4d/5x5"
  bottom: "inception_4d/pool_proj"
  top: "inception_4d/output"
}
layer {
  name: "loss2/ave_pool"
  type: "Pooling"
  bottom: "inception_4d/output"
  top: "loss2/ave_pool"
  pooling_param {
    pool: AVE
    kernel_size: 5
    stride: 3
  }
}
layer {
  name: "loss2/conv"
  type: "Convolution"
  bottom: "loss2/ave_pool"
  top: "loss2/conv"
  param {
    lr_mult: 1
    decay_mult: 1
  }
  param {
    lr_mult: 2
    decay_mult: 0
  }
  convolution_param {
    num_output: 128
    kernel_size: 1
    weight_filler {
      type: "xavier"
      std: 0.08
    }
    bias_filler {
      type: "constant"
      value: 0.2
    }
  }
}
layer {
  name: "loss2/relu_conv"
  type: "ReLU"
  bottom: "loss2/conv"
  top: "loss2/conv"
}
layer {
  name: "loss2/fc"
  type: "InnerProduct"
  bottom: "loss2/conv"
  top: "loss2/fc"
  param {
    lr_mult: 1
    decay_mult: 1
  }
  param {
    lr_mult: 2
    decay_mult: 0
  }
  inner_product_param {
    num_output: 1024
    weight_filler {
      type: "xavier"
      std: 0.02
    }
    bias_filler {
      type: "constant"
      value: 0.2
    }
  }
}
layer {
  name: "loss2/relu_fc"
  type: "ReLU"
  bottom: "loss2/fc"
  top: "loss2/fc"
}
layer {
  name: "loss2/drop_fc"
  type: "Dropout"
  bottom: "loss2/fc"
  top: "loss2/fc"
  dropout_param {
    dropout_ratio: 0.7
  }
}
layer {
  name: "loss2/classifier_plantvillage"
  type: "InnerProduct"
  bottom: "loss2/fc"
  top: "loss2/classifier_plantvillage"
  param {
    lr_mult: 1
    decay_mult: 1
  }
  param {
    lr_mult: 2
    decay_mult: 0
  }
  inner_product_param {
    num_output: 38
    weight_filler {
      type: "xavier"
      std: 0.0009765625
    }
    bias_filler {
      type: "constant"
      value: 0
    }
  }
}
layer {
  name: "inception_4e/1x1"
  type: "Convolution"
  bottom: "inception_4d/output"
  top: "inception_4e/1x1"
  param {
    lr_mult: 1
    decay_mult: 1
  }
  param {
    lr_mult: 2
    decay_mult: 0
  }
  convolution_param {
    num_output: 256
    kernel_size: 1
    weight_filler {
      type: "xavier"
      std: 0.03
    }
    bias_filler {
      type: "constant"
      value: 0.2
    }
  }
}
layer {
  name: "inception_4e/relu_1x1"
  type: "ReLU"
  bottom: "inception_4e/1x1"
  top: "inception_4e/1x1"
}
layer {
  name: "inception_4e/3x3_reduce"
  type: "Convolution"
  bottom: "inception_4d/output"
  top: "inception_4e/3x3_reduce"
  param {
    lr_mult: 1
    decay_mult: 1
  }
  param {
    lr_mult: 2
    decay_mult: 0
  }
  convolution_param {
    num_output: 160
    kernel_size: 1
    weight_filler {
      type: "xavier"
      std: 0.09
    }
    bias_filler {
      type: "constant"
      value: 0.2
    }
  }
}
layer {
  name: "inception_4e/relu_3x3_reduce"
  type: "ReLU"
  bottom: "inception_4e/3x3_reduce"
  top: "inception_4e/3x3_reduce"
}
layer {
  name: "inception_4e/3x3"
  type: "Convolution"
  bottom: "inception_4e/3x3_reduce"
  top: "inception_4e/3x3"
  param {
    lr_mult: 1
    decay_mult: 1
  }
  param {
    lr_mult: 2
    decay_mult: 0
  }
  convolution_param {
    num_output: 320
    pad: 1
    kernel_size: 3
    weight_filler {
      type: "xavier"
      std: 0.03
    }
    bias_filler {
      type: "constant"
      value: 0.2
    }
  }
}
layer {
  name: "inception_4e/relu_3x3"
  type: "ReLU"
  bottom: "inception_4e/3x3"
  top: "inception_4e/3x3"
}
layer {
  name: "inception_4e/5x5_reduce"
  type: "Convolution"
  bottom: "inception_4d/output"
  top: "inception_4e/5x5_reduce"
  param {
    lr_mult: 1
    decay_mult: 1
  }
  param {
    lr_mult: 2
    decay_mult: 0
  }
  convolution_param {
    num_output: 32
    kernel_size: 1
    weight_filler {
      type: "xavier"
      std: 0.2
    }
    bias_filler {
      type: "constant"
      value: 0.2
    }
  }
}
layer {
  name: "inception_4e/relu_5x5_reduce"
  type: "ReLU"
  bottom: "inception_4e/5x5_reduce"
  top: "inception_4e/5x5_reduce"
}
layer {
  name: "inception_4e/5x5"
  type: "Convolution"
  bottom: "inception_4e/5x5_reduce"
  top: "inception_4e/5x5"
  p
I0403 19:20:10.045013  9115 layer_factory.hpp:77] Creating layer data
I0403 19:20:10.045593  9115 net.cpp:91] Creating Layer data
I0403 19:20:10.045624  9115 net.cpp:399] data -> data
I0403 19:20:10.045672  9115 net.cpp:399] data -> label
I0403 19:20:10.045707  9115 data_transformer.cpp:25] Loading mean file from: /home/mohanty/data/final_dataset/lmdb/color-50-50/mean.binaryproto
I0403 19:20:10.046777  9117 db_lmdb.cpp:38] Opened lmdb /home/mohanty/data/final_dataset/lmdb/color-50-50/test_db
I0403 19:20:10.058704  9115 data_layer.cpp:41] output data size: 24,3,224,224
I0403 19:20:10.085522  9115 net.cpp:141] Setting up data
I0403 19:20:10.085615  9115 net.cpp:148] Top shape: 24 3 224 224 (3612672)
I0403 19:20:10.085639  9115 net.cpp:148] Top shape: 24 (24)
I0403 19:20:10.085654  9115 net.cpp:156] Memory required for data: 14450784
I0403 19:20:10.085685  9115 layer_factory.hpp:77] Creating layer label_data_1_split
I0403 19:20:10.085712  9115 net.cpp:91] Creating Layer label_data_1_split
I0403 19:20:10.085731  9115 net.cpp:425] label_data_1_split <- label
I0403 19:20:10.085765  9115 net.cpp:399] label_data_1_split -> label_data_1_split_0
I0403 19:20:10.085793  9115 net.cpp:399] label_data_1_split -> label_data_1_split_1
I0403 19:20:10.085815  9115 net.cpp:399] label_data_1_split -> label_data_1_split_2
I0403 19:20:10.085837  9115 net.cpp:399] label_data_1_split -> label_data_1_split_3
I0403 19:20:10.085858  9115 net.cpp:399] label_data_1_split -> label_data_1_split_4
I0403 19:20:10.085878  9115 net.cpp:399] label_data_1_split -> label_data_1_split_5
I0403 19:20:10.085898  9115 net.cpp:399] label_data_1_split -> label_data_1_split_6
I0403 19:20:10.085921  9115 net.cpp:399] label_data_1_split -> label_data_1_split_7
I0403 19:20:10.085940  9115 net.cpp:399] label_data_1_split -> label_data_1_split_8
I0403 19:20:10.085961  9115 net.cpp:399] label_data_1_split -> label_data_1_split_9
I0403 19:20:10.086081  9115 net.cpp:141] Setting up label_data_1_split
I0403 19:20:10.086107  9115 net.cpp:148] Top shape: 24 (24)
I0403 19:20:10.086130  9115 net.cpp:148] Top shape: 24 (24)
I0403 19:20:10.086148  9115 net.cpp:148] Top shape: 24 (24)
I0403 19:20:10.086164  9115 net.cpp:148] Top shape: 24 (24)
I0403 19:20:10.086180  9115 net.cpp:148] Top shape: 24 (24)
I0403 19:20:10.086196  9115 net.cpp:148] Top shape: 24 (24)
I0403 19:20:10.086213  9115 net.cpp:148] Top shape: 24 (24)
I0403 19:20:10.086230  9115 net.cpp:148] Top shape: 24 (24)
I0403 19:20:10.086246  9115 net.cpp:148] Top shape: 24 (24)
I0403 19:20:10.086263  9115 net.cpp:148] Top shape: 24 (24)
I0403 19:20:10.086315  9115 net.cpp:156] Memory required for data: 14451744
I0403 19:20:10.086333  9115 layer_factory.hpp:77] Creating layer conv1/7x7_s2
I0403 19:20:10.086366  9115 net.cpp:91] Creating Layer conv1/7x7_s2
I0403 19:20:10.086385  9115 net.cpp:425] conv1/7x7_s2 <- data
I0403 19:20:10.086416  9115 net.cpp:399] conv1/7x7_s2 -> conv1/7x7_s2
I0403 19:20:10.230072  9115 net.cpp:141] Setting up conv1/7x7_s2
I0403 19:20:10.230118  9115 net.cpp:148] Top shape: 24 64 112 112 (19267584)
I0403 19:20:10.230180  9115 net.cpp:156] Memory required for data: 91522080
I0403 19:20:10.230218  9115 layer_factory.hpp:77] Creating layer conv1/relu_7x7
I0403 19:20:10.230247  9115 net.cpp:91] Creating Layer conv1/relu_7x7
I0403 19:20:10.230267  9115 net.cpp:425] conv1/relu_7x7 <- conv1/7x7_s2
I0403 19:20:10.230291  9115 net.cpp:386] conv1/relu_7x7 -> conv1/7x7_s2 (in-place)
I0403 19:20:10.230561  9115 net.cpp:141] Setting up conv1/relu_7x7
I0403 19:20:10.230589  9115 net.cpp:148] Top shape: 24 64 112 112 (19267584)
I0403 19:20:10.230605  9115 net.cpp:156] Memory required for data: 168592416
I0403 19:20:10.230623  9115 layer_factory.hpp:77] Creating layer pool1/3x3_s2
I0403 19:20:10.230648  9115 net.cpp:91] Creating Layer pool1/3x3_s2
I0403 19:20:10.230667  9115 net.cpp:425] pool1/3x3_s2 <- conv1/7x7_s2
I0403 19:20:10.230687  9115 net.cpp:399] pool1/3x3_s2 -> pool1/3x3_s2
I0403 19:20:10.230762  9115 net.cpp:141] Setting up pool1/3x3_s2
I0403 19:20:10.230787  9115 net.cpp:148] Top shape: 24 64 56 56 (4816896)
I0403 19:20:10.230803  9115 net.cpp:156] Memory required for data: 187860000
I0403 19:20:10.230819  9115 layer_factory.hpp:77] Creating layer pool1/norm1
I0403 19:20:10.230845  9115 net.cpp:91] Creating Layer pool1/norm1
I0403 19:20:10.230865  9115 net.cpp:425] pool1/norm1 <- pool1/3x3_s2
I0403 19:20:10.230883  9115 net.cpp:399] pool1/norm1 -> pool1/norm1
I0403 19:20:10.231180  9115 net.cpp:141] Setting up pool1/norm1
I0403 19:20:10.231209  9115 net.cpp:148] Top shape: 24 64 56 56 (4816896)
I0403 19:20:10.231225  9115 net.cpp:156] Memory required for data: 207127584
I0403 19:20:10.231241  9115 layer_factory.hpp:77] Creating layer conv2/3x3_reduce
I0403 19:20:10.231267  9115 net.cpp:91] Creating Layer conv2/3x3_reduce
I0403 19:20:10.231290  9115 net.cpp:425] conv2/3x3_reduce <- pool1/norm1
I0403 19:20:10.231312  9115 net.cpp:399] conv2/3x3_reduce -> conv2/3x3_reduce
I0403 19:20:10.232789  9115 net.cpp:141] Setting up conv2/3x3_reduce
I0403 19:20:10.232820  9115 net.cpp:148] Top shape: 24 64 56 56 (4816896)
I0403 19:20:10.232837  9115 net.cpp:156] Memory required for data: 226395168
I0403 19:20:10.232861  9115 layer_factory.hpp:77] Creating layer conv2/relu_3x3_reduce
I0403 19:20:10.232883  9115 net.cpp:91] Creating Layer conv2/relu_3x3_reduce
I0403 19:20:10.232902  9115 net.cpp:425] conv2/relu_3x3_reduce <- conv2/3x3_reduce
I0403 19:20:10.232919  9115 net.cpp:386] conv2/relu_3x3_reduce -> conv2/3x3_reduce (in-place)
I0403 19:20:10.233206  9115 net.cpp:141] Setting up conv2/relu_3x3_reduce
I0403 19:20:10.233233  9115 net.cpp:148] Top shape: 24 64 56 56 (4816896)
I0403 19:20:10.233250  9115 net.cpp:156] Memory required for data: 245662752
I0403 19:20:10.233266  9115 layer_factory.hpp:77] Creating layer conv2/3x3
I0403 19:20:10.233299  9115 net.cpp:91] Creating Layer conv2/3x3
I0403 19:20:10.233319  9115 net.cpp:425] conv2/3x3 <- conv2/3x3_reduce
I0403 19:20:10.233338  9115 net.cpp:399] conv2/3x3 -> conv2/3x3
I0403 19:20:10.235817  9115 net.cpp:141] Setting up conv2/3x3
I0403 19:20:10.235849  9115 net.cpp:148] Top shape: 24 192 56 56 (14450688)
I0403 19:20:10.235867  9115 net.cpp:156] Memory required for data: 303465504
I0403 19:20:10.235889  9115 layer_factory.hpp:77] Creating layer conv2/relu_3x3
I0403 19:20:10.235913  9115 net.cpp:91] Creating Layer conv2/relu_3x3
I0403 19:20:10.235930  9115 net.cpp:425] conv2/relu_3x3 <- conv2/3x3
I0403 19:20:10.235949  9115 net.cpp:386] conv2/relu_3x3 -> conv2/3x3 (in-place)
I0403 19:20:10.236135  9115 net.cpp:141] Setting up conv2/relu_3x3
I0403 19:20:10.236161  9115 net.cpp:148] Top shape: 24 192 56 56 (14450688)
I0403 19:20:10.236208  9115 net.cpp:156] Memory required for data: 361268256
I0403 19:20:10.236225  9115 layer_factory.hpp:77] Creating layer conv2/norm2
I0403 19:20:10.236248  9115 net.cpp:91] Creating Layer conv2/norm2
I0403 19:20:10.236265  9115 net.cpp:425] conv2/norm2 <- conv2/3x3
I0403 19:20:10.236289  9115 net.cpp:399] conv2/norm2 -> conv2/norm2
I0403 19:20:10.236615  9115 net.cpp:141] Setting up conv2/norm2
I0403 19:20:10.236644  9115 net.cpp:148] Top shape: 24 192 56 56 (14450688)
I0403 19:20:10.236660  9115 net.cpp:156] Memory required for data: 419071008
I0403 19:20:10.236676  9115 layer_factory.hpp:77] Creating layer pool2/3x3_s2
I0403 19:20:10.236701  9115 net.cpp:91] Creating Layer pool2/3x3_s2
I0403 19:20:10.236717  9115 net.cpp:425] pool2/3x3_s2 <- conv2/norm2
I0403 19:20:10.236737  9115 net.cpp:399] pool2/3x3_s2 -> pool2/3x3_s2
I0403 19:20:10.236793  9115 net.cpp:141] Setting up pool2/3x3_s2
I0403 19:20:10.236819  9115 net.cpp:148] Top shape: 24 192 28 28 (3612672)
I0403 19:20:10.236834  9115 net.cpp:156] Memory required for data: 433521696
I0403 19:20:10.236848  9115 layer_factory.hpp:77] Creating layer pool2/3x3_s2_pool2/3x3_s2_0_split
I0403 19:20:10.236866  9115 net.cpp:91] Creating Layer pool2/3x3_s2_pool2/3x3_s2_0_split
I0403 19:20:10.236882  9115 net.cpp:425] pool2/3x3_s2_pool2/3x3_s2_0_split <- pool2/3x3_s2
I0403 19:20:10.236903  9115 net.cpp:399] pool2/3x3_s2_pool2/3x3_s2_0_split -> pool2/3x3_s2_pool2/3x3_s2_0_split_0
I0403 19:20:10.236924  9115 net.cpp:399] pool2/3x3_s2_pool2/3x3_s2_0_split -> pool2/3x3_s2_pool2/3x3_s2_0_split_1
I0403 19:20:10.236944  9115 net.cpp:399] pool2/3x3_s2_pool2/3x3_s2_0_split -> pool2/3x3_s2_pool2/3x3_s2_0_split_2
I0403 19:20:10.236965  9115 net.cpp:399] pool2/3x3_s2_pool2/3x3_s2_0_split -> pool2/3x3_s2_pool2/3x3_s2_0_split_3
I0403 19:20:10.237038  9115 net.cpp:141] Setting up pool2/3x3_s2_pool2/3x3_s2_0_split
I0403 19:20:10.237064  9115 net.cpp:148] Top shape: 24 192 28 28 (3612672)
I0403 19:20:10.237083  9115 net.cpp:148] Top shape: 24 192 28 28 (3612672)
I0403 19:20:10.237102  9115 net.cpp:148] Top shape: 24 192 28 28 (3612672)
I0403 19:20:10.237118  9115 net.cpp:148] Top shape: 24 192 28 28 (3612672)
I0403 19:20:10.237133  9115 net.cpp:156] Memory required for data: 491324448
I0403 19:20:10.237148  9115 layer_factory.hpp:77] Creating layer inception_3a/1x1
I0403 19:20:10.237171  9115 net.cpp:91] Creating Layer inception_3a/1x1
I0403 19:20:10.237191  9115 net.cpp:425] inception_3a/1x1 <- pool2/3x3_s2_pool2/3x3_s2_0_split_0
I0403 19:20:10.237211  9115 net.cpp:399] inception_3a/1x1 -> inception_3a/1x1
I0403 19:20:10.238878  9115 net.cpp:141] Setting up inception_3a/1x1
I0403 19:20:10.238910  9115 net.cpp:148] Top shape: 24 64 28 28 (1204224)
I0403 19:20:10.238929  9115 net.cpp:156] Memory required for data: 496141344
I0403 19:20:10.238948  9115 layer_factory.hpp:77] Creating layer inception_3a/relu_1x1
I0403 19:20:10.238971  9115 net.cpp:91] Creating Layer inception_3a/relu_1x1
I0403 19:20:10.238988  9115 net.cpp:425] inception_3a/relu_1x1 <- inception_3a/1x1
I0403 19:20:10.239007  9115 net.cpp:386] inception_3a/relu_1x1 -> inception_3a/1x1 (in-place)
I0403 19:20:10.239193  9115 net.cpp:141] Setting up inception_3a/relu_1x1
I0403 19:20:10.239224  9115 net.cpp:148] Top shape: 24 64 28 28 (1204224)
I0403 19:20:10.239241  9115 net.cpp:156] Memory required for data: 500958240
I0403 19:20:10.239259  9115 layer_factory.hpp:77] Creating layer inception_3a/3x3_reduce
I0403 19:20:10.239289  9115 net.cpp:91] Creating Layer inception_3a/3x3_reduce
I0403 19:20:10.239307  9115 net.cpp:425] inception_3a/3x3_reduce <- pool2/3x3_s2_pool2/3x3_s2_0_split_1
I0403 19:20:10.239327  9115 net.cpp:399] inception_3a/3x3_reduce -> inception_3a/3x3_reduce
I0403 19:20:10.241086  9115 net.cpp:141] Setting up inception_3a/3x3_reduce
I0403 19:20:10.241119  9115 net.cpp:148] Top shape: 24 96 28 28 (1806336)
I0403 19:20:10.241138  9115 net.cpp:156] Memory required for data: 508183584
I0403 19:20:10.241160  9115 layer_factory.hpp:77] Creating layer inception_3a/relu_3x3_reduce
I0403 19:20:10.241202  9115 net.cpp:91] Creating Layer inception_3a/relu_3x3_reduce
I0403 19:20:10.241225  9115 net.cpp:425] inception_3a/relu_3x3_reduce <- inception_3a/3x3_reduce
I0403 19:20:10.241245  9115 net.cpp:386] inception_3a/relu_3x3_reduce -> inception_3a/3x3_reduce (in-place)
I0403 19:20:10.241441  9115 net.cpp:141] Setting up inception_3a/relu_3x3_reduce
I0403 19:20:10.241468  9115 net.cpp:148] Top shape: 24 96 28 28 (1806336)
I0403 19:20:10.241483  9115 net.cpp:156] Memory required for data: 515408928
I0403 19:20:10.241499  9115 layer_factory.hpp:77] Creating layer inception_3a/3x3
I0403 19:20:10.241523  9115 net.cpp:91] Creating Layer inception_3a/3x3
I0403 19:20:10.241541  9115 net.cpp:425] inception_3a/3x3 <- inception_3a/3x3_reduce
I0403 19:20:10.241564  9115 net.cpp:399] inception_3a/3x3 -> inception_3a/3x3
I0403 19:20:10.243311  9115 net.cpp:141] Setting up inception_3a/3x3
I0403 19:20:10.243345  9115 net.cpp:148] Top shape: 24 128 28 28 (2408448)
I0403 19:20:10.243361  9115 net.cpp:156] Memory required for data: 525042720
I0403 19:20:10.243381  9115 layer_factory.hpp:77] Creating layer inception_3a/relu_3x3
I0403 19:20:10.243401  9115 net.cpp:91] Creating Layer inception_3a/relu_3x3
I0403 19:20:10.243417  9115 net.cpp:425] inception_3a/relu_3x3 <- inception_3a/3x3
I0403 19:20:10.243434  9115 net.cpp:386] inception_3a/relu_3x3 -> inception_3a/3x3 (in-place)
I0403 19:20:10.243726  9115 net.cpp:141] Setting up inception_3a/relu_3x3
I0403 19:20:10.243757  9115 net.cpp:148] Top shape: 24 128 28 28 (2408448)
I0403 19:20:10.243774  9115 net.cpp:156] Memory required for data: 534676512
I0403 19:20:10.243790  9115 layer_factory.hpp:77] Creating layer inception_3a/5x5_reduce
I0403 19:20:10.243813  9115 net.cpp:91] Creating Layer inception_3a/5x5_reduce
I0403 19:20:10.243831  9115 net.cpp:425] inception_3a/5x5_reduce <- pool2/3x3_s2_pool2/3x3_s2_0_split_2
I0403 19:20:10.243852  9115 net.cpp:399] inception_3a/5x5_reduce -> inception_3a/5x5_reduce
I0403 19:20:10.244866  9115 net.cpp:141] Setting up inception_3a/5x5_reduce
I0403 19:20:10.244899  9115 net.cpp:148] Top shape: 24 16 28 28 (301056)
I0403 19:20:10.244922  9115 net.cpp:156] Memory required for data: 535880736
I0403 19:20:10.244942  9115 layer_factory.hpp:77] Creating layer inception_3a/relu_5x5_reduce
I0403 19:20:10.244961  9115 net.cpp:91] Creating Layer inception_3a/relu_5x5_reduce
I0403 19:20:10.244978  9115 net.cpp:425] inception_3a/relu_5x5_reduce <- inception_3a/5x5_reduce
I0403 19:20:10.244999  9115 net.cpp:386] inception_3a/relu_5x5_reduce -> inception_3a/5x5_reduce (in-place)
I0403 19:20:10.245308  9115 net.cpp:141] Setting up inception_3a/relu_5x5_reduce
I0403 19:20:10.245337  9115 net.cpp:148] Top shape: 24 16 28 28 (301056)
I0403 19:20:10.245353  9115 net.cpp:156] Memory required for data: 537084960
I0403 19:20:10.245369  9115 layer_factory.hpp:77] Creating layer inception_3a/5x5
I0403 19:20:10.245393  9115 net.cpp:91] Creating Layer inception_3a/5x5
I0403 19:20:10.245412  9115 net.cpp:425] inception_3a/5x5 <- inception_3a/5x5_reduce
I0403 19:20:10.245434  9115 net.cpp:399] inception_3a/5x5 -> inception_3a/5x5
I0403 19:20:10.246498  9115 net.cpp:141] Setting up inception_3a/5x5
I0403 19:20:10.246531  9115 net.cpp:148] Top shape: 24 32 28 28 (602112)
I0403 19:20:10.246551  9115 net.cpp:156] Memory required for data: 539493408
I0403 19:20:10.246572  9115 layer_factory.hpp:77] Creating layer inception_3a/relu_5x5
I0403 19:20:10.246590  9115 net.cpp:91] Creating Layer inception_3a/relu_5x5
I0403 19:20:10.246608  9115 net.cpp:425] inception_3a/relu_5x5 <- inception_3a/5x5
I0403 19:20:10.246625  9115 net.cpp:386] inception_3a/relu_5x5 -> inception_3a/5x5 (in-place)
I0403 19:20:10.246812  9115 net.cpp:141] Setting up inception_3a/relu_5x5
I0403 19:20:10.246842  9115 net.cpp:148] Top shape: 24 32 28 28 (602112)
I0403 19:20:10.246860  9115 net.cpp:156] Memory required for data: 541901856
I0403 19:20:10.246876  9115 layer_factory.hpp:77] Creating layer inception_3a/pool
I0403 19:20:10.246894  9115 net.cpp:91] Creating Layer inception_3a/pool
I0403 19:20:10.246912  9115 net.cpp:425] inception_3a/pool <- pool2/3x3_s2_pool2/3x3_s2_0_split_3
I0403 19:20:10.246948  9115 net.cpp:399] inception_3a/pool -> inception_3a/pool
I0403 19:20:10.247010  9115 net.cpp:141] Setting up inception_3a/pool
I0403 19:20:10.247038  9115 net.cpp:148] Top shape: 24 192 28 28 (3612672)
I0403 19:20:10.247056  9115 net.cpp:156] Memory required for data: 556352544
I0403 19:20:10.247071  9115 layer_factory.hpp:77] Creating layer inception_3a/pool_proj
I0403 19:20:10.247093  9115 net.cpp:91] Creating Layer inception_3a/pool_proj
I0403 19:20:10.247112  9115 net.cpp:425] inception_3a/pool_proj <- inception_3a/pool
I0403 19:20:10.247136  9115 net.cpp:399] inception_3a/pool_proj -> inception_3a/pool_proj
I0403 19:20:10.248148  9115 net.cpp:141] Setting up inception_3a/pool_proj
I0403 19:20:10.248178  9115 net.cpp:148] Top shape: 24 32 28 28 (602112)
I0403 19:20:10.248194  9115 net.cpp:156] Memory required for data: 558760992
I0403 19:20:10.248219  9115 layer_factory.hpp:77] Creating layer inception_3a/relu_pool_proj
I0403 19:20:10.248240  9115 net.cpp:91] Creating Layer inception_3a/relu_pool_proj
I0403 19:20:10.248258  9115 net.cpp:425] inception_3a/relu_pool_proj <- inception_3a/pool_proj
I0403 19:20:10.248283  9115 net.cpp:386] inception_3a/relu_pool_proj -> inception_3a/pool_proj (in-place)
I0403 19:20:10.248572  9115 net.cpp:141] Setting up inception_3a/relu_pool_proj
I0403 19:20:10.248603  9115 net.cpp:148] Top shape: 24 32 28 28 (602112)
I0403 19:20:10.248620  9115 net.cpp:156] Memory required for data: 561169440
I0403 19:20:10.248636  9115 layer_factory.hpp:77] Creating layer inception_3a/output
I0403 19:20:10.248656  9115 net.cpp:91] Creating Layer inception_3a/output
I0403 19:20:10.248672  9115 net.cpp:425] inception_3a/output <- inception_3a/1x1
I0403 19:20:10.248689  9115 net.cpp:425] inception_3a/output <- inception_3a/3x3
I0403 19:20:10.248705  9115 net.cpp:425] inception_3a/output <- inception_3a/5x5
I0403 19:20:10.248723  9115 net.cpp:425] inception_3a/output <- inception_3a/pool_proj
I0403 19:20:10.248739  9115 net.cpp:399] inception_3a/output -> inception_3a/output
I0403 19:20:10.248790  9115 net.cpp:141] Setting up inception_3a/output
I0403 19:20:10.248814  9115 net.cpp:148] Top shape: 24 256 28 28 (4816896)
I0403 19:20:10.248829  9115 net.cpp:156] Memory required for data: 580437024
I0403 19:20:10.248845  9115 layer_factory.hpp:77] Creating layer inception_3a/output_inception_3a/output_0_split
I0403 19:20:10.248865  9115 net.cpp:91] Creating Layer inception_3a/output_inception_3a/output_0_split
I0403 19:20:10.248881  9115 net.cpp:425] inception_3a/output_inception_3a/output_0_split <- inception_3a/output
I0403 19:20:10.248900  9115 net.cpp:399] inception_3a/output_inception_3a/output_0_split -> inception_3a/output_inception_3a/output_0_split_0
I0403 19:20:10.248920  9115 net.cpp:399] inception_3a/output_inception_3a/output_0_split -> inception_3a/output_inception_3a/output_0_split_1
I0403 19:20:10.248946  9115 net.cpp:399] inception_3a/output_inception_3a/output_0_split -> inception_3a/output_inception_3a/output_0_split_2
I0403 19:20:10.248970  9115 net.cpp:399] inception_3a/output_inception_3a/output_0_split -> inception_3a/output_inception_3a/output_0_split_3
I0403 19:20:10.249049  9115 net.cpp:141] Setting up inception_3a/output_inception_3a/output_0_split
I0403 19:20:10.249075  9115 net.cpp:148] Top shape: 24 256 28 28 (4816896)
I0403 19:20:10.249094  9115 net.cpp:148] Top shape: 24 256 28 28 (4816896)
I0403 19:20:10.249109  9115 net.cpp:148] Top shape: 24 256 28 28 (4816896)
I0403 19:20:10.249126  9115 net.cpp:148] Top shape: 24 256 28 28 (4816896)
I0403 19:20:10.249141  9115 net.cpp:156] Memory required for data: 657507360
I0403 19:20:10.249157  9115 layer_factory.hpp:77] Creating layer inception_3b/1x1
I0403 19:20:10.249184  9115 net.cpp:91] Creating Layer inception_3b/1x1
I0403 19:20:10.249203  9115 net.cpp:425] inception_3b/1x1 <- inception_3a/output_inception_3a/output_0_split_0
I0403 19:20:10.249223  9115 net.cpp:399] inception_3b/1x1 -> inception_3b/1x1
I0403 19:20:10.250421  9115 net.cpp:141] Setting up inception_3b/1x1
I0403 19:20:10.250463  9115 net.cpp:148] Top shape: 24 128 28 28 (2408448)
I0403 19:20:10.250483  9115 net.cpp:156] Memory required for data: 667141152
I0403 19:20:10.250502  9115 layer_factory.hpp:77] Creating layer inception_3b/relu_1x1
I0403 19:20:10.250524  9115 net.cpp:91] Creating Layer inception_3b/relu_1x1
I0403 19:20:10.250542  9115 net.cpp:425] inception_3b/relu_1x1 <- inception_3b/1x1
I0403 19:20:10.250562  9115 net.cpp:386] inception_3b/relu_1x1 -> inception_3b/1x1 (in-place)
I0403 19:20:10.250746  9115 net.cpp:141] Setting up inception_3b/relu_1x1
I0403 19:20:10.250777  9115 net.cpp:148] Top shape: 24 128 28 28 (2408448)
I0403 19:20:10.250793  9115 net.cpp:156] Memory required for data: 676774944
I0403 19:20:10.250809  9115 layer_factory.hpp:77] Creating layer inception_3b/3x3_reduce
I0403 19:20:10.250833  9115 net.cpp:91] Creating Layer inception_3b/3x3_reduce
I0403 19:20:10.250851  9115 net.cpp:425] inception_3b/3x3_reduce <- inception_3a/output_inception_3a/output_0_split_1
I0403 19:20:10.250871  9115 net.cpp:399] inception_3b/3x3_reduce -> inception_3b/3x3_reduce
I0403 19:20:10.252074  9115 net.cpp:141] Setting up inception_3b/3x3_reduce
I0403 19:20:10.252104  9115 net.cpp:148] Top shape: 24 128 28 28 (2408448)
I0403 19:20:10.252120  9115 net.cpp:156] Memory required for data: 686408736
I0403 19:20:10.252138  9115 layer_factory.hpp:77] Creating layer inception_3b/relu_3x3_reduce
I0403 19:20:10.252161  9115 net.cpp:91] Creating Layer inception_3b/relu_3x3_reduce
I0403 19:20:10.252178  9115 net.cpp:425] inception_3b/relu_3x3_reduce <- inception_3b/3x3_reduce
I0403 19:20:10.252197  9115 net.cpp:386] inception_3b/relu_3x3_reduce -> inception_3b/3x3_reduce (in-place)
I0403 19:20:10.252394  9115 net.cpp:141] Setting up inception_3b/relu_3x3_reduce
I0403 19:20:10.252424  9115 net.cpp:148] Top shape: 24 128 28 28 (2408448)
I0403 19:20:10.252439  9115 net.cpp:156] Memory required for data: 696042528
I0403 19:20:10.252455  9115 layer_factory.hpp:77] Creating layer inception_3b/3x3
I0403 19:20:10.252482  9115 net.cpp:91] Creating Layer inception_3b/3x3
I0403 19:20:10.252501  9115 net.cpp:425] inception_3b/3x3 <- inception_3b/3x3_reduce
I0403 19:20:10.252524  9115 net.cpp:399] inception_3b/3x3 -> inception_3b/3x3
I0403 19:20:10.255576  9115 net.cpp:141] Setting up inception_3b/3x3
I0403 19:20:10.255610  9115 net.cpp:148] Top shape: 24 192 28 28 (3612672)
I0403 19:20:10.255630  9115 net.cpp:156] Memory required for data: 710493216
I0403 19:20:10.255650  9115 layer_factory.hpp:77] Creating layer inception_3b/relu_3x3
I0403 19:20:10.255671  9115 net.cpp:91] Creating Layer inception_3b/relu_3x3
I0403 19:20:10.255688  9115 net.cpp:425] inception_3b/relu_3x3 <- inception_3b/3x3
I0403 19:20:10.255707  9115 net.cpp:386] inception_3b/relu_3x3 -> inception_3b/3x3 (in-place)
I0403 19:20:10.256001  9115 net.cpp:141] Setting up inception_3b/relu_3x3
I0403 19:20:10.256032  9115 net.cpp:148] Top shape: 24 192 28 28 (3612672)
I0403 19:20:10.256049  9115 net.cpp:156] Memory required for data: 724943904
I0403 19:20:10.256065  9115 layer_factory.hpp:77] Creating layer inception_3b/5x5_reduce
I0403 19:20:10.256089  9115 net.cpp:91] Creating Layer inception_3b/5x5_reduce
I0403 19:20:10.256108  9115 net.cpp:425] inception_3b/5x5_reduce <- inception_3a/output_inception_3a/output_0_split_2
I0403 19:20:10.256129  9115 net.cpp:399] inception_3b/5x5_reduce -> inception_3b/5x5_reduce
I0403 19:20:10.257174  9115 net.cpp:141] Setting up inception_3b/5x5_reduce
I0403 19:20:10.257206  9115 net.cpp:148] Top shape: 24 32 28 28 (602112)
I0403 19:20:10.257223  9115 net.cpp:156] Memory required for data: 727352352
I0403 19:20:10.257243  9115 layer_factory.hpp:77] Creating layer inception_3b/relu_5x5_reduce
I0403 19:20:10.257262  9115 net.cpp:91] Creating Layer inception_3b/relu_5x5_reduce
I0403 19:20:10.257287  9115 net.cpp:425] inception_3b/relu_5x5_reduce <- inception_3b/5x5_reduce
I0403 19:20:10.257305  9115 net.cpp:386] inception_3b/relu_5x5_reduce -> inception_3b/5x5_reduce (in-place)
I0403 19:20:10.257489  9115 net.cpp:141] Setting up inception_3b/relu_5x5_reduce
I0403 19:20:10.257534  9115 net.cpp:148] Top shape: 24 32 28 28 (602112)
I0403 19:20:10.257550  9115 net.cpp:156] Memory required for data: 729760800
I0403 19:20:10.257566  9115 layer_factory.hpp:77] Creating layer inception_3b/5x5
I0403 19:20:10.257589  9115 net.cpp:91] Creating Layer inception_3b/5x5
I0403 19:20:10.257608  9115 net.cpp:425] inception_3b/5x5 <- inception_3b/5x5_reduce
I0403 19:20:10.257632  9115 net.cpp:399] inception_3b/5x5 -> inception_3b/5x5
I0403 19:20:10.259698  9115 net.cpp:141] Setting up inception_3b/5x5
I0403 19:20:10.259729  9115 net.cpp:148] Top shape: 24 96 28 28 (1806336)
I0403 19:20:10.259747  9115 net.cpp:156] Memory required for data: 736986144
I0403 19:20:10.259765  9115 layer_factory.hpp:77] Creating layer inception_3b/relu_5x5
I0403 19:20:10.259788  9115 net.cpp:91] Creating Layer inception_3b/relu_5x5
I0403 19:20:10.259804  9115 net.cpp:425] inception_3b/relu_5x5 <- inception_3b/5x5
I0403 19:20:10.259824  9115 net.cpp:386] inception_3b/relu_5x5 -> inception_3b/5x5 (in-place)
I0403 19:20:10.260028  9115 net.cpp:141] Setting up inception_3b/relu_5x5
I0403 19:20:10.260056  9115 net.cpp:148] Top shape: 24 96 28 28 (1806336)
I0403 19:20:10.260072  9115 net.cpp:156] Memory required for data: 744211488
I0403 19:20:10.260089  9115 layer_factory.hpp:77] Creating layer inception_3b/pool
I0403 19:20:10.260109  9115 net.cpp:91] Creating Layer inception_3b/pool
I0403 19:20:10.260126  9115 net.cpp:425] inception_3b/pool <- inception_3a/output_inception_3a/output_0_split_3
I0403 19:20:10.260146  9115 net.cpp:399] inception_3b/pool -> inception_3b/pool
I0403 19:20:10.260205  9115 net.cpp:141] Setting up inception_3b/pool
I0403 19:20:10.260231  9115 net.cpp:148] Top shape: 24 256 28 28 (4816896)
I0403 19:20:10.260246  9115 net.cpp:156] Memory required for data: 763479072
I0403 19:20:10.260260  9115 layer_factory.hpp:77] Creating layer inception_3b/pool_proj
I0403 19:20:10.260289  9115 net.cpp:91] Creating Layer inception_3b/pool_proj
I0403 19:20:10.260308  9115 net.cpp:425] inception_3b/pool_proj <- inception_3b/pool
I0403 19:20:10.260334  9115 net.cpp:399] inception_3b/pool_proj -> inception_3b/pool_proj
I0403 19:20:10.261453  9115 net.cpp:141] Setting up inception_3b/pool_proj
I0403 19:20:10.261484  9115 net.cpp:148] Top shape: 24 64 28 28 (1204224)
I0403 19:20:10.261502  9115 net.cpp:156] Memory required for data: 768295968
I0403 19:20:10.261521  9115 layer_factory.hpp:77] Creating layer inception_3b/relu_pool_proj
I0403 19:20:10.261541  9115 net.cpp:91] Creating Layer inception_3b/relu_pool_proj
I0403 19:20:10.261559  9115 net.cpp:425] inception_3b/relu_pool_proj <- inception_3b/pool_proj
I0403 19:20:10.261579  9115 net.cpp:386] inception_3b/relu_pool_proj -> inception_3b/pool_proj (in-place)
I0403 19:20:10.261991  9115 net.cpp:141] Setting up inception_3b/relu_pool_proj
I0403 19:20:10.262018  9115 net.cpp:148] Top shape: 24 64 28 28 (1204224)
I0403 19:20:10.262034  9115 net.cpp:156] Memory required for data: 773112864
I0403 19:20:10.262050  9115 layer_factory.hpp:77] Creating layer inception_3b/output
I0403 19:20:10.262068  9115 net.cpp:91] Creating Layer inception_3b/output
I0403 19:20:10.262084  9115 net.cpp:425] inception_3b/output <- inception_3b/1x1
I0403 19:20:10.262100  9115 net.cpp:425] inception_3b/output <- inception_3b/3x3
I0403 19:20:10.262117  9115 net.cpp:425] inception_3b/output <- inception_3b/5x5
I0403 19:20:10.262135  9115 net.cpp:425] inception_3b/output <- inception_3b/pool_proj
I0403 19:20:10.262154  9115 net.cpp:399] inception_3b/output -> inception_3b/output
I0403 19:20:10.262199  9115 net.cpp:141] Setting up inception_3b/output
I0403 19:20:10.262223  9115 net.cpp:148] Top shape: 24 480 28 28 (9031680)
I0403 19:20:10.262243  9115 net.cpp:156] Memory required for data: 809239584
I0403 19:20:10.262259  9115 layer_factory.hpp:77] Creating layer pool3/3x3_s2
I0403 19:20:10.262289  9115 net.cpp:91] Creating Layer pool3/3x3_s2
I0403 19:20:10.262307  9115 net.cpp:425] pool3/3x3_s2 <- inception_3b/output
I0403 19:20:10.262326  9115 net.cpp:399] pool3/3x3_s2 -> pool3/3x3_s2
I0403 19:20:10.262405  9115 net.cpp:141] Setting up pool3/3x3_s2
I0403 19:20:10.262431  9115 net.cpp:148] Top shape: 24 480 14 14 (2257920)
I0403 19:20:10.262446  9115 net.cpp:156] Memory required for data: 818271264
I0403 19:20:10.262462  9115 layer_factory.hpp:77] Creating layer pool3/3x3_s2_pool3/3x3_s2_0_split
I0403 19:20:10.262480  9115 net.cpp:91] Creating Layer pool3/3x3_s2_pool3/3x3_s2_0_split
I0403 19:20:10.262497  9115 net.cpp:425] pool3/3x3_s2_pool3/3x3_s2_0_split <- pool3/3x3_s2
I0403 19:20:10.262518  9115 net.cpp:399] pool3/3x3_s2_pool3/3x3_s2_0_split -> pool3/3x3_s2_pool3/3x3_s2_0_split_0
I0403 19:20:10.262539  9115 net.cpp:399] pool3/3x3_s2_pool3/3x3_s2_0_split -> pool3/3x3_s2_pool3/3x3_s2_0_split_1
I0403 19:20:10.262560  9115 net.cpp:399] pool3/3x3_s2_pool3/3x3_s2_0_split -> pool3/3x3_s2_pool3/3x3_s2_0_split_2
I0403 19:20:10.262581  9115 net.cpp:399] pool3/3x3_s2_pool3/3x3_s2_0_split -> pool3/3x3_s2_pool3/3x3_s2_0_split_3
I0403 19:20:10.262665  9115 net.cpp:141] Setting up pool3/3x3_s2_pool3/3x3_s2_0_split
I0403 19:20:10.262688  9115 net.cpp:148] Top shape: 24 480 14 14 (2257920)
I0403 19:20:10.262706  9115 net.cpp:148] Top shape: 24 480 14 14 (2257920)
I0403 19:20:10.262722  9115 net.cpp:148] Top shape: 24 480 14 14 (2257920)
I0403 19:20:10.262738  9115 net.cpp:148] Top shape: 24 480 14 14 (2257920)
I0403 19:20:10.262753  9115 net.cpp:156] Memory required for data: 854397984
I0403 19:20:10.262768  9115 layer_factory.hpp:77] Creating layer inception_4a/1x1
I0403 19:20:10.262792  9115 net.cpp:91] Creating Layer inception_4a/1x1
I0403 19:20:10.262809  9115 net.cpp:425] inception_4a/1x1 <- pool3/3x3_s2_pool3/3x3_s2_0_split_0
I0403 19:20:10.262832  9115 net.cpp:399] inception_4a/1x1 -> inception_4a/1x1
I0403 19:20:10.264502  9115 net.cpp:141] Setting up inception_4a/1x1
I0403 19:20:10.264530  9115 net.cpp:148] Top shape: 24 192 14 14 (903168)
I0403 19:20:10.264547  9115 net.cpp:156] Memory required for data: 858010656
I0403 19:20:10.264566  9115 layer_factory.hpp:77] Creating layer inception_4a/relu_1x1
I0403 19:20:10.264590  9115 net.cpp:91] Creating Layer inception_4a/relu_1x1
I0403 19:20:10.264610  9115 net.cpp:425] inception_4a/relu_1x1 <- inception_4a/1x1
I0403 19:20:10.264627  9115 net.cpp:386] inception_4a/relu_1x1 -> inception_4a/1x1 (in-place)
I0403 19:20:10.264814  9115 net.cpp:141] Setting up inception_4a/relu_1x1
I0403 19:20:10.264840  9115 net.cpp:148] Top shape: 24 192 14 14 (903168)
I0403 19:20:10.264856  9115 net.cpp:156] Memory required for data: 861623328
I0403 19:20:10.264871  9115 layer_factory.hpp:77] Creating layer inception_4a/3x3_reduce
I0403 19:20:10.264896  9115 net.cpp:91] Creating Layer inception_4a/3x3_reduce
I0403 19:20:10.264916  9115 net.cpp:425] inception_4a/3x3_reduce <- pool3/3x3_s2_pool3/3x3_s2_0_split_1
I0403 19:20:10.264937  9115 net.cpp:399] inception_4a/3x3_reduce -> inception_4a/3x3_reduce
I0403 19:20:10.266290  9115 net.cpp:141] Setting up inception_4a/3x3_reduce
I0403 19:20:10.266319  9115 net.cpp:148] Top shape: 24 96 14 14 (451584)
I0403 19:20:10.266336  9115 net.cpp:156] Memory required for data: 863429664
I0403 19:20:10.266363  9115 layer_factory.hpp:77] Creating layer inception_4a/relu_3x3_reduce
I0403 19:20:10.266384  9115 net.cpp:91] Creating Layer inception_4a/relu_3x3_reduce
I0403 19:20:10.266402  9115 net.cpp:425] inception_4a/relu_3x3_reduce <- inception_4a/3x3_reduce
I0403 19:20:10.266423  9115 net.cpp:386] inception_4a/relu_3x3_reduce -> inception_4a/3x3_reduce (in-place)
I0403 19:20:10.266613  9115 net.cpp:141] Setting up inception_4a/relu_3x3_reduce
I0403 19:20:10.266639  9115 net.cpp:148] Top shape: 24 96 14 14 (451584)
I0403 19:20:10.266656  9115 net.cpp:156] Memory required for data: 865236000
I0403 19:20:10.266672  9115 layer_factory.hpp:77] Creating layer inception_4a/3x3
I0403 19:20:10.266696  9115 net.cpp:91] Creating Layer inception_4a/3x3
I0403 19:20:10.266716  9115 net.cpp:425] inception_4a/3x3 <- inception_4a/3x3_reduce
I0403 19:20:10.266738  9115 net.cpp:399] inception_4a/3x3 -> inception_4a/3x3
I0403 19:20:10.269575  9115 net.cpp:141] Setting up inception_4a/3x3
I0403 19:20:10.269608  9115 net.cpp:148] Top shape: 24 208 14 14 (978432)
I0403 19:20:10.269624  9115 net.cpp:156] Memory required for data: 869149728
I0403 19:20:10.269644  9115 layer_factory.hpp:77] Creating layer inception_4a/relu_3x3
I0403 19:20:10.269665  9115 net.cpp:91] Creating Layer inception_4a/relu_3x3
I0403 19:20:10.269683  9115 net.cpp:425] inception_4a/relu_3x3 <- inception_4a/3x3
I0403 19:20:10.269702  9115 net.cpp:386] inception_4a/relu_3x3 -> inception_4a/3x3 (in-place)
I0403 19:20:10.270001  9115 net.cpp:141] Setting up inception_4a/relu_3x3
I0403 19:20:10.270030  9115 net.cpp:148] Top shape: 24 208 14 14 (978432)
I0403 19:20:10.270047  9115 net.cpp:156] Memory required for data: 873063456
I0403 19:20:10.270062  9115 layer_factory.hpp:77] Creating layer inception_4a/5x5_reduce
I0403 19:20:10.270087  9115 net.cpp:91] Creating Layer inception_4a/5x5_reduce
I0403 19:20:10.270107  9115 net.cpp:425] inception_4a/5x5_reduce <- pool3/3x3_s2_pool3/3x3_s2_0_split_2
I0403 19:20:10.270130  9115 net.cpp:399] inception_4a/5x5_reduce -> inception_4a/5x5_reduce
I0403 19:20:10.271221  9115 net.cpp:141] Setting up inception_4a/5x5_reduce
I0403 19:20:10.271250  9115 net.cpp:148] Top shape: 24 16 14 14 (75264)
I0403 19:20:10.271275  9115 net.cpp:156] Memory required for data: 873364512
I0403 19:20:10.271297  9115 layer_factory.hpp:77] Creating layer inception_4a/relu_5x5_reduce
I0403 19:20:10.271317  9115 net.cpp:91] Creating Layer inception_4a/relu_5x5_reduce
I0403 19:20:10.271334  9115 net.cpp:425] inception_4a/relu_5x5_reduce <- inception_4a/5x5_reduce
I0403 19:20:10.271353  9115 net.cpp:386] inception_4a/relu_5x5_reduce -> inception_4a/5x5_reduce (in-place)
I0403 19:20:10.271543  9115 net.cpp:141] Setting up inception_4a/relu_5x5_reduce
I0403 19:20:10.271574  9115 net.cpp:148] Top shape: 24 16 14 14 (75264)
I0403 19:20:10.271591  9115 net.cpp:156] Memory required for data: 873665568
I0403 19:20:10.271607  9115 layer_factory.hpp:77] Creating layer inception_4a/5x5
I0403 19:20:10.271632  9115 net.cpp:91] Creating Layer inception_4a/5x5
I0403 19:20:10.271651  9115 net.cpp:425] inception_4a/5x5 <- inception_4a/5x5_reduce
I0403 19:20:10.271670  9115 net.cpp:399] inception_4a/5x5 -> inception_4a/5x5
I0403 19:20:10.272830  9115 net.cpp:141] Setting up inception_4a/5x5
I0403 19:20:10.272861  9115 net.cpp:148] Top shape: 24 48 14 14 (225792)
I0403 19:20:10.272878  9115 net.cpp:156] Memory required for data: 874568736
I0403 19:20:10.272897  9115 layer_factory.hpp:77] Creating layer inception_4a/relu_5x5
I0403 19:20:10.272915  9115 net.cpp:91] Creating Layer inception_4a/relu_5x5
I0403 19:20:10.272933  9115 net.cpp:425] inception_4a/relu_5x5 <- inception_4a/5x5
I0403 19:20:10.272953  9115 net.cpp:386] inception_4a/relu_5x5 -> inception_4a/5x5 (in-place)
I0403 19:20:10.273145  9115 net.cpp:141] Setting up inception_4a/relu_5x5
I0403 19:20:10.273171  9115 net.cpp:148] Top shape: 24 48 14 14 (225792)
I0403 19:20:10.273190  9115 net.cpp:156] Memory required for data: 875471904
I0403 19:20:10.273205  9115 layer_factory.hpp:77] Creating layer inception_4a/pool
I0403 19:20:10.273226  9115 net.cpp:91] Creating Layer inception_4a/pool
I0403 19:20:10.273243  9115 net.cpp:425] inception_4a/pool <- pool3/3x3_s2_pool3/3x3_s2_0_split_3
I0403 19:20:10.273262  9115 net.cpp:399] inception_4a/pool -> inception_4a/pool
I0403 19:20:10.273332  9115 net.cpp:141] Setting up inception_4a/pool
I0403 19:20:10.273357  9115 net.cpp:148] Top shape: 24 480 14 14 (2257920)
I0403 19:20:10.273372  9115 net.cpp:156] Memory required for data: 884503584
I0403 19:20:10.273387  9115 layer_factory.hpp:77] Creating layer inception_4a/pool_proj
I0403 19:20:10.273411  9115 net.cpp:91] Creating Layer inception_4a/pool_proj
I0403 19:20:10.273430  9115 net.cpp:425] inception_4a/pool_proj <- inception_4a/pool
I0403 19:20:10.273453  9115 net.cpp:399] inception_4a/pool_proj -> inception_4a/pool_proj
I0403 19:20:10.274699  9115 net.cpp:141] Setting up inception_4a/pool_proj
I0403 19:20:10.274729  9115 net.cpp:148] Top shape: 24 64 14 14 (301056)
I0403 19:20:10.274763  9115 net.cpp:156] Memory required for data: 885707808
I0403 19:20:10.274785  9115 layer_factory.hpp:77] Creating layer inception_4a/relu_pool_proj
I0403 19:20:10.274802  9115 net.cpp:91] Creating Layer inception_4a/relu_pool_proj
I0403 19:20:10.274819  9115 net.cpp:425] inception_4a/relu_pool_proj <- inception_4a/pool_proj
I0403 19:20:10.274842  9115 net.cpp:386] inception_4a/relu_pool_proj -> inception_4a/pool_proj (in-place)
I0403 19:20:10.275141  9115 net.cpp:141] Setting up inception_4a/relu_pool_proj
I0403 19:20:10.275171  9115 net.cpp:148] Top shape: 24 64 14 14 (301056)
I0403 19:20:10.275188  9115 net.cpp:156] Memory required for data: 886912032
I0403 19:20:10.275204  9115 layer_factory.hpp:77] Creating layer inception_4a/output
I0403 19:20:10.275223  9115 net.cpp:91] Creating Layer inception_4a/output
I0403 19:20:10.275240  9115 net.cpp:425] inception_4a/output <- inception_4a/1x1
I0403 19:20:10.275259  9115 net.cpp:425] inception_4a/output <- inception_4a/3x3
I0403 19:20:10.275280  9115 net.cpp:425] inception_4a/output <- inception_4a/5x5
I0403 19:20:10.275298  9115 net.cpp:425] inception_4a/output <- inception_4a/pool_proj
I0403 19:20:10.275318  9115 net.cpp:399] inception_4a/output -> inception_4a/output
I0403 19:20:10.275365  9115 net.cpp:141] Setting up inception_4a/output
I0403 19:20:10.275393  9115 net.cpp:148] Top shape: 24 512 14 14 (2408448)
I0403 19:20:10.275409  9115 net.cpp:156] Memory required for data: 896545824
I0403 19:20:10.275424  9115 layer_factory.hpp:77] Creating layer inception_4a/output_inception_4a/output_0_split
I0403 19:20:10.275442  9115 net.cpp:91] Creating Layer inception_4a/output_inception_4a/output_0_split
I0403 19:20:10.275459  9115 net.cpp:425] inception_4a/output_inception_4a/output_0_split <- inception_4a/output
I0403 19:20:10.275480  9115 net.cpp:399] inception_4a/output_inception_4a/output_0_split -> inception_4a/output_inception_4a/output_0_split_0
I0403 19:20:10.275503  9115 net.cpp:399] inception_4a/output_inception_4a/output_0_split -> inception_4a/output_inception_4a/output_0_split_1
I0403 19:20:10.275524  9115 net.cpp:399] inception_4a/output_inception_4a/output_0_split -> inception_4a/output_inception_4a/output_0_split_2
I0403 19:20:10.275548  9115 net.cpp:399] inception_4a/output_inception_4a/output_0_split -> inception_4a/output_inception_4a/output_0_split_3
I0403 19:20:10.275569  9115 net.cpp:399] inception_4a/output_inception_4a/output_0_split -> inception_4a/output_inception_4a/output_0_split_4
I0403 19:20:10.275665  9115 net.cpp:141] Setting up inception_4a/output_inception_4a/output_0_split
I0403 19:20:10.275692  9115 net.cpp:148] Top shape: 24 512 14 14 (2408448)
I0403 19:20:10.275712  9115 net.cpp:148] Top shape: 24 512 14 14 (2408448)
I0403 19:20:10.275727  9115 net.cpp:148] Top shape: 24 512 14 14 (2408448)
I0403 19:20:10.275744  9115 net.cpp:148] Top shape: 24 512 14 14 (2408448)
I0403 19:20:10.275760  9115 net.cpp:148] Top shape: 24 512 14 14 (2408448)
I0403 19:20:10.275786  9115 net.cpp:156] Memory required for data: 944714784
I0403 19:20:10.275801  9115 layer_factory.hpp:77] Creating layer loss1/ave_pool
I0403 19:20:10.275820  9115 net.cpp:91] Creating Layer loss1/ave_pool
I0403 19:20:10.275835  9115 net.cpp:425] loss1/ave_pool <- inception_4a/output_inception_4a/output_0_split_0
I0403 19:20:10.275852  9115 net.cpp:399] loss1/ave_pool -> loss1/ave_pool
I0403 19:20:10.276072  9115 net.cpp:141] Setting up loss1/ave_pool
I0403 19:20:10.276099  9115 net.cpp:148] Top shape: 24 512 4 4 (196608)
I0403 19:20:10.276114  9115 net.cpp:156] Memory required for data: 945501216
I0403 19:20:10.276129  9115 layer_factory.hpp:77] Creating layer loss1/conv
I0403 19:20:10.276151  9115 net.cpp:91] Creating Layer loss1/conv
I0403 19:20:10.276170  9115 net.cpp:425] loss1/conv <- loss1/ave_pool
I0403 19:20:10.276192  9115 net.cpp:399] loss1/conv -> loss1/conv
I0403 19:20:10.277714  9115 net.cpp:141] Setting up loss1/conv
I0403 19:20:10.277743  9115 net.cpp:148] Top shape: 24 128 4 4 (49152)
I0403 19:20:10.277760  9115 net.cpp:156] Memory required for data: 945697824
I0403 19:20:10.277796  9115 layer_factory.hpp:77] Creating layer loss1/relu_conv
I0403 19:20:10.277820  9115 net.cpp:91] Creating Layer loss1/relu_conv
I0403 19:20:10.277839  9115 net.cpp:425] loss1/relu_conv <- loss1/conv
I0403 19:20:10.277859  9115 net.cpp:386] loss1/relu_conv -> loss1/conv (in-place)
I0403 19:20:10.278159  9115 net.cpp:141] Setting up loss1/relu_conv
I0403 19:20:10.278188  9115 net.cpp:148] Top shape: 24 128 4 4 (49152)
I0403 19:20:10.278204  9115 net.cpp:156] Memory required for data: 945894432
I0403 19:20:10.278220  9115 layer_factory.hpp:77] Creating layer loss1/fc
I0403 19:20:10.278249  9115 net.cpp:91] Creating Layer loss1/fc
I0403 19:20:10.278267  9115 net.cpp:425] loss1/fc <- loss1/conv
I0403 19:20:10.278293  9115 net.cpp:399] loss1/fc -> loss1/fc
I0403 19:20:10.297003  9115 net.cpp:141] Setting up loss1/fc
I0403 19:20:10.297041  9115 net.cpp:148] Top shape: 24 1024 (24576)
I0403 19:20:10.297060  9115 net.cpp:156] Memory required for data: 945992736
I0403 19:20:10.297080  9115 layer_factory.hpp:77] Creating layer loss1/relu_fc
I0403 19:20:10.297099  9115 net.cpp:91] Creating Layer loss1/relu_fc
I0403 19:20:10.297116  9115 net.cpp:425] loss1/relu_fc <- loss1/fc
I0403 19:20:10.297137  9115 net.cpp:386] loss1/relu_fc -> loss1/fc (in-place)
I0403 19:20:10.297335  9115 net.cpp:141] Setting up loss1/relu_fc
I0403 19:20:10.297361  9115 net.cpp:148] Top shape: 24 1024 (24576)
I0403 19:20:10.297377  9115 net.cpp:156] Memory required for data: 946091040
I0403 19:20:10.297392  9115 layer_factory.hpp:77] Creating layer loss1/drop_fc
I0403 19:20:10.297421  9115 net.cpp:91] Creating Layer loss1/drop_fc
I0403 19:20:10.297440  9115 net.cpp:425] loss1/drop_fc <- loss1/fc
I0403 19:20:10.297457  9115 net.cpp:386] loss1/drop_fc -> loss1/fc (in-place)
I0403 19:20:10.297508  9115 net.cpp:141] Setting up loss1/drop_fc
I0403 19:20:10.297535  9115 net.cpp:148] Top shape: 24 1024 (24576)
I0403 19:20:10.297552  9115 net.cpp:156] Memory required for data: 946189344
I0403 19:20:10.297569  9115 layer_factory.hpp:77] Creating layer loss1/classifier_plantvillage
I0403 19:20:10.297586  9115 net.cpp:91] Creating Layer loss1/classifier_plantvillage
I0403 19:20:10.297602  9115 net.cpp:425] loss1/classifier_plantvillage <- loss1/fc
I0403 19:20:10.297623  9115 net.cpp:399] loss1/classifier_plantvillage -> loss1/classifier_plantvillage
I0403 19:20:10.298576  9115 net.cpp:141] Setting up loss1/classifier_plantvillage
I0403 19:20:10.298605  9115 net.cpp:148] Top shape: 24 38 (912)
I0403 19:20:10.298620  9115 net.cpp:156] Memory required for data: 946192992
I0403 19:20:10.298640  9115 layer_factory.hpp:77] Creating layer loss1/classifier_plantvillage_loss1/classifier_plantvillage_0_split
I0403 19:20:10.298661  9115 net.cpp:91] Creating Layer loss1/classifier_plantvillage_loss1/classifier_plantvillage_0_split
I0403 19:20:10.298679  9115 net.cpp:425] loss1/classifier_plantvillage_loss1/classifier_plantvillage_0_split <- loss1/classifier_plantvillage
I0403 19:20:10.298698  9115 net.cpp:399] loss1/classifier_plantvillage_loss1/classifier_plantvillage_0_split -> loss1/classifier_plantvillage_loss1/classifier_plantvillage_0_split_0
I0403 19:20:10.298722  9115 net.cpp:399] loss1/classifier_plantvillage_loss1/classifier_plantvillage_0_split -> loss1/classifier_plantvillage_loss1/classifier_plantvillage_0_split_1
I0403 19:20:10.298744  9115 net.cpp:399] loss1/classifier_plantvillage_loss1/classifier_plantvillage_0_split -> loss1/classifier_plantvillage_loss1/classifier_plantvillage_0_split_2
I0403 19:20:10.298815  9115 net.cpp:141] Setting up loss1/classifier_plantvillage_loss1/classifier_plantvillage_0_split
I0403 19:20:10.298837  9115 net.cpp:148] Top shape: 24 38 (912)
I0403 19:20:10.298862  9115 net.cpp:148] Top shape: 24 38 (912)
I0403 19:20:10.298878  9115 net.cpp:148] Top shape: 24 38 (912)
I0403 19:20:10.298892  9115 net.cpp:156] Memory required for data: 946203936
I0403 19:20:10.298907  9115 layer_factory.hpp:77] Creating layer inception_4b/1x1
I0403 19:20:10.298928  9115 net.cpp:91] Creating Layer inception_4b/1x1
I0403 19:20:10.298961  9115 net.cpp:425] inception_4b/1x1 <- inception_4a/output_inception_4a/output_0_split_1
I0403 19:20:10.298985  9115 net.cpp:399] inception_4b/1x1 -> inception_4b/1x1
I0403 19:20:10.300688  9115 net.cpp:141] Setting up inception_4b/1x1
I0403 19:20:10.300716  9115 net.cpp:148] Top shape: 24 160 14 14 (752640)
I0403 19:20:10.300732  9115 net.cpp:156] Memory required for data: 949214496
I0403 19:20:10.300751  9115 layer_factory.hpp:77] Creating layer inception_4b/relu_1x1
I0403 19:20:10.300773  9115 net.cpp:91] Creating Layer inception_4b/relu_1x1
I0403 19:20:10.300791  9115 net.cpp:425] inception_4b/relu_1x1 <- inception_4b/1x1
I0403 19:20:10.300808  9115 net.cpp:386] inception_4b/relu_1x1 -> inception_4b/1x1 (in-place)
I0403 19:20:10.300997  9115 net.cpp:141] Setting up inception_4b/relu_1x1
I0403 19:20:10.301024  9115 net.cpp:148] Top shape: 24 160 14 14 (752640)
I0403 19:20:10.301040  9115 net.cpp:156] Memory required for data: 952225056
I0403 19:20:10.301055  9115 layer_factory.hpp:77] Creating layer inception_4b/3x3_reduce
I0403 19:20:10.301077  9115 net.cpp:91] Creating Layer inception_4b/3x3_reduce
I0403 19:20:10.301095  9115 net.cpp:425] inception_4b/3x3_reduce <- inception_4a/output_inception_4a/output_0_split_2
I0403 19:20:10.301115  9115 net.cpp:399] inception_4b/3x3_reduce -> inception_4b/3x3_reduce
I0403 19:20:10.302517  9115 net.cpp:141] Setting up inception_4b/3x3_reduce
I0403 19:20:10.302549  9115 net.cpp:148] Top shape: 24 112 14 14 (526848)
I0403 19:20:10.302566  9115 net.cpp:156] Memory required for data: 954332448
I0403 19:20:10.302585  9115 layer_factory.hpp:77] Creating layer inception_4b/relu_3x3_reduce
I0403 19:20:10.302603  9115 net.cpp:91] Creating Layer inception_4b/relu_3x3_reduce
I0403 19:20:10.302620  9115 net.cpp:425] inception_4b/relu_3x3_reduce <- inception_4b/3x3_reduce
I0403 19:20:10.302640  9115 net.cpp:386] inception_4b/relu_3x3_reduce -> inception_4b/3x3_reduce (in-place)
I0403 19:20:10.302947  9115 net.cpp:141] Setting up inception_4b/relu_3x3_reduce
I0403 19:20:10.302978  9115 net.cpp:148] Top shape: 24 112 14 14 (526848)
I0403 19:20:10.302995  9115 net.cpp:156] Memory required for data: 956439840
I0403 19:20:10.303012  9115 layer_factory.hpp:77] Creating layer inception_4b/3x3
I0403 19:20:10.303037  9115 net.cpp:91] Creating Layer inception_4b/3x3
I0403 19:20:10.303056  9115 net.cpp:425] inception_4b/3x3 <- inception_4b/3x3_reduce
I0403 19:20:10.303076  9115 net.cpp:399] inception_4b/3x3 -> inception_4b/3x3
I0403 19:20:10.306066  9115 net.cpp:141] Setting up inception_4b/3x3
I0403 19:20:10.306095  9115 net.cpp:148] Top shape: 24 224 14 14 (1053696)
I0403 19:20:10.306112  9115 net.cpp:156] Memory required for data: 960654624
I0403 19:20:10.306131  9115 layer_factory.hpp:77] Creating layer inception_4b/relu_3x3
I0403 19:20:10.306155  9115 net.cpp:91] Creating Layer inception_4b/relu_3x3
I0403 19:20:10.306174  9115 net.cpp:425] inception_4b/relu_3x3 <- inception_4b/3x3
I0403 19:20:10.306195  9115 net.cpp:386] inception_4b/relu_3x3 -> inception_4b/3x3 (in-place)
I0403 19:20:10.306378  9115 net.cpp:141] Setting up inception_4b/relu_3x3
I0403 19:20:10.306406  9115 net.cpp:148] Top shape: 24 224 14 14 (1053696)
I0403 19:20:10.306421  9115 net.cpp:156] Memory required for data: 964869408
I0403 19:20:10.306435  9115 layer_factory.hpp:77] Creating layer inception_4b/5x5_reduce
I0403 19:20:10.306459  9115 net.cpp:91] Creating Layer inception_4b/5x5_reduce
I0403 19:20:10.306478  9115 net.cpp:425] inception_4b/5x5_reduce <- inception_4a/output_inception_4a/output_0_split_3
I0403 19:20:10.306496  9115 net.cpp:399] inception_4b/5x5_reduce -> inception_4b/5x5_reduce
I0403 19:20:10.307605  9115 net.cpp:141] Setting up inception_4b/5x5_reduce
I0403 19:20:10.307634  9115 net.cpp:148] Top shape: 24 24 14 14 (112896)
I0403 19:20:10.307651  9115 net.cpp:156] Memory required for data: 965320992
I0403 19:20:10.307672  9115 layer_factory.hpp:77] Creating layer inception_4b/relu_5x5_reduce
I0403 19:20:10.307692  9115 net.cpp:91] Creating Layer inception_4b/relu_5x5_reduce
I0403 19:20:10.307723  9115 net.cpp:425] inception_4b/relu_5x5_reduce <- inception_4b/5x5_reduce
I0403 19:20:10.307740  9115 net.cpp:386] inception_4b/relu_5x5_reduce -> inception_4b/5x5_reduce (in-place)
I0403 19:20:10.307926  9115 net.cpp:141] Setting up inception_4b/relu_5x5_reduce
I0403 19:20:10.307951  9115 net.cpp:148] Top shape: 24 24 14 14 (112896)
I0403 19:20:10.307965  9115 net.cpp:156] Memory required for data: 965772576
I0403 19:20:10.307981  9115 layer_factory.hpp:77] Creating layer inception_4b/5x5
I0403 19:20:10.308002  9115 net.cpp:91] Creating Layer inception_4b/5x5
I0403 19:20:10.308019  9115 net.cpp:425] inception_4b/5x5 <- inception_4b/5x5_reduce
I0403 19:20:10.308042  9115 net.cpp:399] inception_4b/5x5 -> inception_4b/5x5
I0403 19:20:10.309262  9115 net.cpp:141] Setting up inception_4b/5x5
I0403 19:20:10.309306  9115 net.cpp:148] Top shape: 24 64 14 14 (301056)
I0403 19:20:10.309324  9115 net.cpp:156] Memory required for data: 966976800
I0403 19:20:10.309342  9115 layer_factory.hpp:77] Creating layer inception_4b/relu_5x5
I0403 19:20:10.309365  9115 net.cpp:91] Creating Layer inception_4b/relu_5x5
I0403 19:20:10.309382  9115 net.cpp:425] inception_4b/relu_5x5 <- inception_4b/5x5
I0403 19:20:10.309401  9115 net.cpp:386] inception_4b/relu_5x5 -> inception_4b/5x5 (in-place)
I0403 19:20:10.309703  9115 net.cpp:141] Setting up inception_4b/relu_5x5
I0403 19:20:10.309731  9115 net.cpp:148] Top shape: 24 64 14 14 (301056)
I0403 19:20:10.309746  9115 net.cpp:156] Memory required for data: 968181024
I0403 19:20:10.309761  9115 layer_factory.hpp:77] Creating layer inception_4b/pool
I0403 19:20:10.309780  9115 net.cpp:91] Creating Layer inception_4b/pool
I0403 19:20:10.309798  9115 net.cpp:425] inception_4b/pool <- inception_4a/output_inception_4a/output_0_split_4
I0403 19:20:10.309815  9115 net.cpp:399] inception_4b/pool -> inception_4b/pool
I0403 19:20:10.309880  9115 net.cpp:141] Setting up inception_4b/pool
I0403 19:20:10.309903  9115 net.cpp:148] Top shape: 24 512 14 14 (2408448)
I0403 19:20:10.309918  9115 net.cpp:156] Memory required for data: 977814816
I0403 19:20:10.309933  9115 layer_factory.hpp:77] Creating layer inception_4b/pool_proj
I0403 19:20:10.309955  9115 net.cpp:91] Creating Layer inception_4b/pool_proj
I0403 19:20:10.309973  9115 net.cpp:425] inception_4b/pool_proj <- inception_4b/pool
I0403 19:20:10.309993  9115 net.cpp:399] inception_4b/pool_proj -> inception_4b/pool_proj
I0403 19:20:10.311194  9115 net.cpp:141] Setting up inception_4b/pool_proj
I0403 19:20:10.311226  9115 net.cpp:148] Top shape: 24 64 14 14 (301056)
I0403 19:20:10.311242  9115 net.cpp:156] Memory required for data: 979019040
I0403 19:20:10.311260  9115 layer_factory.hpp:77] Creating layer inception_4b/relu_pool_proj
I0403 19:20:10.311283  9115 net.cpp:91] Creating Layer inception_4b/relu_pool_proj
I0403 19:20:10.311300  9115 net.cpp:425] inception_4b/relu_pool_proj <- inception_4b/pool_proj
I0403 19:20:10.311317  9115 net.cpp:386] inception_4b/relu_pool_proj -> inception_4b/pool_proj (in-place)
I0403 19:20:10.311501  9115 net.cpp:141] Setting up inception_4b/relu_pool_proj
I0403 19:20:10.311527  9115 net.cpp:148] Top shape: 24 64 14 14 (301056)
I0403 19:20:10.311542  9115 net.cpp:156] Memory required for data: 980223264
I0403 19:20:10.311558  9115 layer_factory.hpp:77] Creating layer inception_4b/output
I0403 19:20:10.311575  9115 net.cpp:91] Creating Layer inception_4b/output
I0403 19:20:10.311591  9115 net.cpp:425] inception_4b/output <- inception_4b/1x1
I0403 19:20:10.311609  9115 net.cpp:425] inception_4b/output <- inception_4b/3x3
I0403 19:20:10.311625  9115 net.cpp:425] inception_4b/output <- inception_4b/5x5
I0403 19:20:10.311640  9115 net.cpp:425] inception_4b/output <- inception_4b/pool_proj
I0403 19:20:10.311658  9115 net.cpp:399] inception_4b/output -> inception_4b/output
I0403 19:20:10.311703  9115 net.cpp:141] Setting up inception_4b/output
I0403 19:20:10.311727  9115 net.cpp:148] Top shape: 24 512 14 14 (2408448)
I0403 19:20:10.311741  9115 net.cpp:156] Memory required for data: 989857056
I0403 19:20:10.311770  9115 layer_factory.hpp:77] Creating layer inception_4b/output_inception_4b/output_0_split
I0403 19:20:10.311790  9115 net.cpp:91] Creating Layer inception_4b/output_inception_4b/output_0_split
I0403 19:20:10.311806  9115 net.cpp:425] inception_4b/output_inception_4b/output_0_split <- inception_4b/output
I0403 19:20:10.311825  9115 net.cpp:399] inception_4b/output_inception_4b/output_0_split -> inception_4b/output_inception_4b/output_0_split_0
I0403 19:20:10.311847  9115 net.cpp:399] inception_4b/output_inception_4b/output_0_split -> inception_4b/output_inception_4b/output_0_split_1
I0403 19:20:10.311868  9115 net.cpp:399] inception_4b/output_inception_4b/output_0_split -> inception_4b/output_inception_4b/output_0_split_2
I0403 19:20:10.311888  9115 net.cpp:399] inception_4b/output_inception_4b/output_0_split -> inception_4b/output_inception_4b/output_0_split_3
I0403 19:20:10.311970  9115 net.cpp:141] Setting up inception_4b/output_inception_4b/output_0_split
I0403 19:20:10.311993  9115 net.cpp:148] Top shape: 24 512 14 14 (2408448)
I0403 19:20:10.312011  9115 net.cpp:148] Top shape: 24 512 14 14 (2408448)
I0403 19:20:10.312026  9115 net.cpp:148] Top shape: 24 512 14 14 (2408448)
I0403 19:20:10.312042  9115 net.cpp:148] Top shape: 24 512 14 14 (2408448)
I0403 19:20:10.312057  9115 net.cpp:156] Memory required for data: 1028392224
I0403 19:20:10.312073  9115 layer_factory.hpp:77] Creating layer inception_4c/1x1
I0403 19:20:10.312095  9115 net.cpp:91] Creating Layer inception_4c/1x1
I0403 19:20:10.312115  9115 net.cpp:425] inception_4c/1x1 <- inception_4b/output_inception_4b/output_0_split_0
I0403 19:20:10.312137  9115 net.cpp:399] inception_4c/1x1 -> inception_4c/1x1
I0403 19:20:10.313623  9115 net.cpp:141] Setting up inception_4c/1x1
I0403 19:20:10.313653  9115 net.cpp:148] Top shape: 24 128 14 14 (602112)
I0403 19:20:10.313670  9115 net.cpp:156] Memory required for data: 1030800672
I0403 19:20:10.313688  9115 layer_factory.hpp:77] Creating layer inception_4c/relu_1x1
I0403 19:20:10.313706  9115 net.cpp:91] Creating Layer inception_4c/relu_1x1
I0403 19:20:10.313725  9115 net.cpp:425] inception_4c/relu_1x1 <- inception_4c/1x1
I0403 19:20:10.313743  9115 net.cpp:386] inception_4c/relu_1x1 -> inception_4c/1x1 (in-place)
I0403 19:20:10.313925  9115 net.cpp:141] Setting up inception_4c/relu_1x1
I0403 19:20:10.313949  9115 net.cpp:148] Top shape: 24 128 14 14 (602112)
I0403 19:20:10.313964  9115 net.cpp:156] Memory required for data: 1033209120
I0403 19:20:10.313979  9115 layer_factory.hpp:77] Creating layer inception_4c/3x3_reduce
I0403 19:20:10.314002  9115 net.cpp:91] Creating Layer inception_4c/3x3_reduce
I0403 19:20:10.314019  9115 net.cpp:425] inception_4c/3x3_reduce <- inception_4b/output_inception_4b/output_0_split_1
I0403 19:20:10.314040  9115 net.cpp:399] inception_4c/3x3_reduce -> inception_4c/3x3_reduce
I0403 19:20:10.315970  9115 net.cpp:141] Setting up inception_4c/3x3_reduce
I0403 19:20:10.315999  9115 net.cpp:148] Top shape: 24 128 14 14 (602112)
I0403 19:20:10.316015  9115 net.cpp:156] Memory required for data: 1035617568
I0403 19:20:10.316033  9115 layer_factory.hpp:77] Creating layer inception_4c/relu_3x3_reduce
I0403 19:20:10.316053  9115 net.cpp:91] Creating Layer inception_4c/relu_3x3_reduce
I0403 19:20:10.316071  9115 net.cpp:425] inception_4c/relu_3x3_reduce <- inception_4c/3x3_reduce
I0403 19:20:10.316087  9115 net.cpp:386] inception_4c/relu_3x3_reduce -> inception_4c/3x3_reduce (in-place)
I0403 19:20:10.316385  9115 net.cpp:141] Setting up inception_4c/relu_3x3_reduce
I0403 19:20:10.316411  9115 net.cpp:148] Top shape: 24 128 14 14 (602112)
I0403 19:20:10.316426  9115 net.cpp:156] Memory required for data: 1038026016
I0403 19:20:10.316442  9115 layer_factory.hpp:77] Creating layer inception_4c/3x3
I0403 19:20:10.316464  9115 net.cpp:91] Creating Layer inception_4c/3x3
I0403 19:20:10.316483  9115 net.cpp:425] inception_4c/3x3 <- inception_4c/3x3_reduce
I0403 19:20:10.316503  9115 net.cpp:399] inception_4c/3x3 -> inception_4c/3x3
I0403 19:20:10.320160  9115 net.cpp:141] Setting up inception_4c/3x3
I0403 19:20:10.320206  9115 net.cpp:148] Top shape: 24 256 14 14 (1204224)
I0403 19:20:10.320225  9115 net.cpp:156] Memory required for data: 1042842912
I0403 19:20:10.320257  9115 layer_factory.hpp:77] Creating layer inception_4c/relu_3x3
I0403 19:20:10.320282  9115 net.cpp:91] Creating Layer inception_4c/relu_3x3
I0403 19:20:10.320300  9115 net.cpp:425] inception_4c/relu_3x3 <- inception_4c/3x3
I0403 19:20:10.320318  9115 net.cpp:386] inception_4c/relu_3x3 -> inception_4c/3x3 (in-place)
I0403 19:20:10.320509  9115 net.cpp:141] Setting up inception_4c/relu_3x3
I0403 19:20:10.320538  9115 net.cpp:148] Top shape: 24 256 14 14 (1204224)
I0403 19:20:10.320554  9115 net.cpp:156] Memory required for data: 1047659808
I0403 19:20:10.320569  9115 layer_factory.hpp:77] Creating layer inception_4c/5x5_reduce
I0403 19:20:10.320592  9115 net.cpp:91] Creating Layer inception_4c/5x5_reduce
I0403 19:20:10.320611  9115 net.cpp:425] inception_4c/5x5_reduce <- inception_4b/output_inception_4b/output_0_split_2
I0403 19:20:10.320631  9115 net.cpp:399] inception_4c/5x5_reduce -> inception_4c/5x5_reduce
I0403 19:20:10.321760  9115 net.cpp:141] Setting up inception_4c/5x5_reduce
I0403 19:20:10.321789  9115 net.cpp:148] Top shape: 24 24 14 14 (112896)
I0403 19:20:10.321805  9115 net.cpp:156] Memory required for data: 1048111392
I0403 19:20:10.321823  9115 layer_factory.hpp:77] Creating layer inception_4c/relu_5x5_reduce
I0403 19:20:10.321844  9115 net.cpp:91] Creating Layer inception_4c/relu_5x5_reduce
I0403 19:20:10.321862  9115 net.cpp:425] inception_4c/relu_5x5_reduce <- inception_4c/5x5_reduce
I0403 19:20:10.321880  9115 net.cpp:386] inception_4c/relu_5x5_reduce -> inception_4c/5x5_reduce (in-place)
I0403 19:20:10.322072  9115 net.cpp:141] Setting up inception_4c/relu_5x5_reduce
I0403 19:20:10.322098  9115 net.cpp:148] Top shape: 24 24 14 14 (112896)
I0403 19:20:10.322113  9115 net.cpp:156] Memory required for data: 1048562976
I0403 19:20:10.322127  9115 layer_factory.hpp:77] Creating layer inception_4c/5x5
I0403 19:20:10.322150  9115 net.cpp:91] Creating Layer inception_4c/5x5
I0403 19:20:10.322170  9115 net.cpp:425] inception_4c/5x5 <- inception_4c/5x5_reduce
I0403 19:20:10.322192  9115 net.cpp:399] inception_4c/5x5 -> inception_4c/5x5
I0403 19:20:10.323490  9115 net.cpp:141] Setting up inception_4c/5x5
I0403 19:20:10.323521  9115 net.cpp:148] Top shape: 24 64 14 14 (301056)
I0403 19:20:10.323539  9115 net.cpp:156] Memory required for data: 1049767200
I0403 19:20:10.323557  9115 layer_factory.hpp:77] Creating layer inception_4c/relu_5x5
I0403 19:20:10.323575  9115 net.cpp:91] Creating Layer inception_4c/relu_5x5
I0403 19:20:10.323592  9115 net.cpp:425] inception_4c/relu_5x5 <- inception_4c/5x5
I0403 19:20:10.323612  9115 net.cpp:386] inception_4c/relu_5x5 -> inception_4c/5x5 (in-place)
I0403 19:20:10.323910  9115 net.cpp:141] Setting up inception_4c/relu_5x5
I0403 19:20:10.323940  9115 net.cpp:148] Top shape: 24 64 14 14 (301056)
I0403 19:20:10.323956  9115 net.cpp:156] Memory required for data: 1050971424
I0403 19:20:10.323971  9115 layer_factory.hpp:77] Creating layer inception_4c/pool
I0403 19:20:10.323989  9115 net.cpp:91] Creating Layer inception_4c/pool
I0403 19:20:10.324007  9115 net.cpp:425] inception_4c/pool <- inception_4b/output_inception_4b/output_0_split_3
I0403 19:20:10.324030  9115 net.cpp:399] inception_4c/pool -> inception_4c/pool
I0403 19:20:10.324097  9115 net.cpp:141] Setting up inception_4c/pool
I0403 19:20:10.324123  9115 net.cpp:148] Top shape: 24 512 14 14 (2408448)
I0403 19:20:10.324139  9115 net.cpp:156] Memory required for data: 1060605216
I0403 19:20:10.324154  9115 layer_factory.hpp:77] Creating layer inception_4c/pool_proj
I0403 19:20:10.324184  9115 net.cpp:91] Creating Layer inception_4c/pool_proj
I0403 19:20:10.324203  9115 net.cpp:425] inception_4c/pool_proj <- inception_4c/pool
I0403 19:20:10.324223  9115 net.cpp:399] inception_4c/pool_proj -> inception_4c/pool_proj
I0403 19:20:10.325487  9115 net.cpp:141] Setting up inception_4c/pool_proj
I0403 19:20:10.325536  9115 net.cpp:148] Top shape: 24 64 14 14 (301056)
I0403 19:20:10.325567  9115 net.cpp:156] Memory required for data: 1061809440
I0403 19:20:10.325605  9115 layer_factory.hpp:77] Creating layer inception_4c/relu_pool_proj
I0403 19:20:10.325644  9115 net.cpp:91] Creating Layer inception_4c/relu_pool_proj
I0403 19:20:10.325661  9115 net.cpp:425] inception_4c/relu_pool_proj <- inception_4c/pool_proj
I0403 19:20:10.325678  9115 net.cpp:386] inception_4c/relu_pool_proj -> inception_4c/pool_proj (in-place)
I0403 19:20:10.325867  9115 net.cpp:141] Setting up inception_4c/relu_pool_proj
I0403 19:20:10.325912  9115 net.cpp:148] Top shape: 24 64 14 14 (301056)
I0403 19:20:10.325937  9115 net.cpp:156] Memory required for data: 1063013664
I0403 19:20:10.325953  9115 layer_factory.hpp:77] Creating layer inception_4c/output
I0403 19:20:10.325984  9115 net.cpp:91] Creating Layer inception_4c/output
I0403 19:20:10.326012  9115 net.cpp:425] inception_4c/output <- inception_4c/1x1
I0403 19:20:10.326043  9115 net.cpp:425] inception_4c/output <- inception_4c/3x3
I0403 19:20:10.326078  9115 net.cpp:425] inception_4c/output <- inception_4c/5x5
I0403 19:20:10.326117  9115 net.cpp:425] inception_4c/output <- inception_4c/pool_proj
I0403 19:20:10.326162  9115 net.cpp:399] inception_4c/output -> inception_4c/output
I0403 19:20:10.326212  9115 net.cpp:141] Setting up inception_4c/output
I0403 19:20:10.326236  9115 net.cpp:148] Top shape: 24 512 14 14 (2408448)
I0403 19:20:10.326251  9115 net.cpp:156] Memory required for data: 1072647456
I0403 19:20:10.326266  9115 layer_factory.hpp:77] Creating layer inception_4c/output_inception_4c/output_0_split
I0403 19:20:10.326290  9115 net.cpp:91] Creating Layer inception_4c/output_inception_4c/output_0_split
I0403 19:20:10.326308  9115 net.cpp:425] inception_4c/output_inception_4c/output_0_split <- inception_4c/output
I0403 19:20:10.326326  9115 net.cpp:399] inception_4c/output_inception_4c/output_0_split -> inception_4c/output_inception_4c/output_0_split_0
I0403 19:20:10.326347  9115 net.cpp:399] inception_4c/output_inception_4c/output_0_split -> inception_4c/output_inception_4c/output_0_split_1
I0403 19:20:10.326371  9115 net.cpp:399] inception_4c/output_inception_4c/output_0_split -> inception_4c/output_inception_4c/output_0_split_2
I0403 19:20:10.326393  9115 net.cpp:399] inception_4c/output_inception_4c/output_0_split -> inception_4c/output_inception_4c/output_0_split_3
I0403 19:20:10.326494  9115 net.cpp:141] Setting up inception_4c/output_inception_4c/output_0_split
I0403 19:20:10.326519  9115 net.cpp:148] Top shape: 24 512 14 14 (2408448)
I0403 19:20:10.326536  9115 net.cpp:148] Top shape: 24 512 14 14 (2408448)
I0403 19:20:10.326553  9115 net.cpp:148] Top shape: 24 512 14 14 (2408448)
I0403 19:20:10.326570  9115 net.cpp:148] Top shape: 24 512 14 14 (2408448)
I0403 19:20:10.326584  9115 net.cpp:156] Memory required for data: 1111182624
I0403 19:20:10.326599  9115 layer_factory.hpp:77] Creating layer inception_4d/1x1
I0403 19:20:10.326622  9115 net.cpp:91] Creating Layer inception_4d/1x1
I0403 19:20:10.326640  9115 net.cpp:425] inception_4d/1x1 <- inception_4c/output_inception_4c/output_0_split_0
I0403 19:20:10.326663  9115 net.cpp:399] inception_4d/1x1 -> inception_4d/1x1
I0403 19:20:10.328145  9115 net.cpp:141] Setting up inception_4d/1x1
I0403 19:20:10.328176  9115 net.cpp:148] Top shape: 24 112 14 14 (526848)
I0403 19:20:10.328192  9115 net.cpp:156] Memory required for data: 1113290016
I0403 19:20:10.328212  9115 layer_factory.hpp:77] Creating layer inception_4d/relu_1x1
I0403 19:20:10.328233  9115 net.cpp:91] Creating Layer inception_4d/relu_1x1
I0403 19:20:10.328250  9115 net.cpp:425] inception_4d/relu_1x1 <- inception_4d/1x1
I0403 19:20:10.328269  9115 net.cpp:386] inception_4d/relu_1x1 -> inception_4d/1x1 (in-place)
I0403 19:20:10.328474  9115 net.cpp:141] Setting up inception_4d/relu_1x1
I0403 19:20:10.328500  9115 net.cpp:148] Top shape: 24 112 14 14 (526848)
I0403 19:20:10.328516  9115 net.cpp:156] Memory required for data: 1115397408
I0403 19:20:10.328532  9115 layer_factory.hpp:77] Creating layer inception_4d/3x3_reduce
I0403 19:20:10.328572  9115 net.cpp:91] Creating Layer inception_4d/3x3_reduce
I0403 19:20:10.328591  9115 net.cpp:425] inception_4d/3x3_reduce <- inception_4c/output_inception_4c/output_0_split_1
I0403 19:20:10.328611  9115 net.cpp:399] inception_4d/3x3_reduce -> inception_4d/3x3_reduce
I0403 19:20:10.330225  9115 net.cpp:141] Setting up inception_4d/3x3_reduce
I0403 19:20:10.330255  9115 net.cpp:148] Top shape: 24 144 14 14 (677376)
I0403 19:20:10.330274  9115 net.cpp:156] Memory required for data: 1118106912
I0403 19:20:10.330296  9115 layer_factory.hpp:77] Creating layer inception_4d/relu_3x3_reduce
I0403 19:20:10.330314  9115 net.cpp:91] Creating Layer inception_4d/relu_3x3_reduce
I0403 19:20:10.330332  9115 net.cpp:425] inception_4d/relu_3x3_reduce <- inception_4d/3x3_reduce
I0403 19:20:10.330353  9115 net.cpp:386] inception_4d/relu_3x3_reduce -> inception_4d/3x3_reduce (in-place)
I0403 19:20:10.330667  9115 net.cpp:141] Setting up inception_4d/relu_3x3_reduce
I0403 19:20:10.330693  9115 net.cpp:148] Top shape: 24 144 14 14 (677376)
I0403 19:20:10.330709  9115 net.cpp:156] Memory required for data: 1120816416
I0403 19:20:10.330725  9115 layer_factory.hpp:77] Creating layer inception_4d/3x3
I0403 19:20:10.330749  9115 net.cpp:91] Creating Layer inception_4d/3x3
I0403 19:20:10.330766  9115 net.cpp:425] inception_4d/3x3 <- inception_4d/3x3_reduce
I0403 19:20:10.330790  9115 net.cpp:399] inception_4d/3x3 -> inception_4d/3x3
I0403 19:20:10.335315  9115 net.cpp:141] Setting up inception_4d/3x3
I0403 19:20:10.335346  9115 net.cpp:148] Top shape: 24 288 14 14 (1354752)
I0403 19:20:10.335362  9115 net.cpp:156] Memory required for data: 1126235424
I0403 19:20:10.335382  9115 layer_factory.hpp:77] Creating layer inception_4d/relu_3x3
I0403 19:20:10.335403  9115 net.cpp:91] Creating Layer inception_4d/relu_3x3
I0403 19:20:10.335422  9115 net.cpp:425] inception_4d/relu_3x3 <- inception_4d/3x3
I0403 19:20:10.335440  9115 net.cpp:386] inception_4d/relu_3x3 -> inception_4d/3x3 (in-place)
I0403 19:20:10.335635  9115 net.cpp:141] Setting up inception_4d/relu_3x3
I0403 19:20:10.335664  9115 net.cpp:148] Top shape: 24 288 14 14 (1354752)
I0403 19:20:10.335680  9115 net.cpp:156] Memory required for data: 1131654432
I0403 19:20:10.335696  9115 layer_factory.hpp:77] Creating layer inception_4d/5x5_reduce
I0403 19:20:10.335719  9115 net.cpp:91] Creating Layer inception_4d/5x5_reduce
I0403 19:20:10.335738  9115 net.cpp:425] inception_4d/5x5_reduce <- inception_4c/output_inception_4c/output_0_split_2
I0403 19:20:10.335758  9115 net.cpp:399] inception_4d/5x5_reduce -> inception_4d/5x5_reduce
I0403 19:20:10.336982  9115 net.cpp:141] Setting up inception_4d/5x5_reduce
I0403 19:20:10.337012  9115 net.cpp:148] Top shape: 24 32 14 14 (150528)
I0403 19:20:10.337028  9115 net.cpp:156] Memory required for data: 1132256544
I0403 19:20:10.337047  9115 layer_factory.hpp:77] Creating layer inception_4d/relu_5x5_reduce
I0403 19:20:10.337069  9115 net.cpp:91] Creating Layer inception_4d/relu_5x5_reduce
I0403 19:20:10.337088  9115 net.cpp:425] inception_4d/relu_5x5_reduce <- inception_4d/5x5_reduce
I0403 19:20:10.337105  9115 net.cpp:386] inception_4d/relu_5x5_reduce -> inception_4d/5x5_reduce (in-place)
I0403 19:20:10.337316  9115 net.cpp:141] Setting up inception_4d/relu_5x5_reduce
I0403 19:20:10.337342  9115 net.cpp:148] Top shape: 24 32 14 14 (150528)
I0403 19:20:10.337358  9115 net.cpp:156] Memory required for data: 1132858656
I0403 19:20:10.337373  9115 layer_factory.hpp:77] Creating layer inception_4d/5x5
I0403 19:20:10.337399  9115 net.cpp:91] Creating Layer inception_4d/5x5
I0403 19:20:10.337417  9115 net.cpp:425] inception_4d/5x5 <- inception_4d/5x5_reduce
I0403 19:20:10.337437  9115 net.cpp:399] inception_4d/5x5 -> inception_4d/5x5
I0403 19:20:10.339010  9115 net.cpp:141] Setting up inception_4d/5x5
I0403 19:20:10.339041  9115 net.cpp:148] Top shape: 24 64 14 14 (301056)
I0403 19:20:10.339059  9115 net.cpp:156] Memory required for data: 1134062880
I0403 19:20:10.339079  9115 layer_factory.hpp:77] Creating layer inception_4d/relu_5x5
I0403 19:20:10.339114  9115 net.cpp:91] Creating Layer inception_4d/relu_5x5
I0403 19:20:10.339133  9115 net.cpp:425] inception_4d/relu_5x5 <- inception_4d/5x5
I0403 19:20:10.339154  9115 net.cpp:386] inception_4d/relu_5x5 -> inception_4d/5x5 (in-place)
I0403 19:20:10.339478  9115 net.cpp:141] Setting up inception_4d/relu_5x5
I0403 19:20:10.339507  9115 net.cpp:148] Top shape: 24 64 14 14 (301056)
I0403 19:20:10.339524  9115 net.cpp:156] Memory required for data: 1135267104
I0403 19:20:10.339541  9115 layer_factory.hpp:77] Creating layer inception_4d/pool
I0403 19:20:10.339560  9115 net.cpp:91] Creating Layer inception_4d/pool
I0403 19:20:10.339577  9115 net.cpp:425] inception_4d/pool <- inception_4c/output_inception_4c/output_0_split_3
I0403 19:20:10.339599  9115 net.cpp:399] inception_4d/pool -> inception_4d/pool
I0403 19:20:10.339670  9115 net.cpp:141] Setting up inception_4d/pool
I0403 19:20:10.339696  9115 net.cpp:148] Top shape: 24 512 14 14 (2408448)
I0403 19:20:10.339711  9115 net.cpp:156] Memory required for data: 1144900896
I0403 19:20:10.339727  9115 layer_factory.hpp:77] Creating layer inception_4d/pool_proj
I0403 19:20:10.339751  9115 net.cpp:91] Creating Layer inception_4d/pool_proj
I0403 19:20:10.339771  9115 net.cpp:425] inception_4d/pool_proj <- inception_4d/pool
I0403 19:20:10.339792  9115 net.cpp:399] inception_4d/pool_proj -> inception_4d/pool_proj
I0403 19:20:10.341663  9115 net.cpp:141] Setting up inception_4d/pool_proj
I0403 19:20:10.341696  9115 net.cpp:148] Top shape: 24 64 14 14 (301056)
I0403 19:20:10.341711  9115 net.cpp:156] Memory required for data: 1146105120
I0403 19:20:10.341730  9115 layer_factory.hpp:77] Creating layer inception_4d/relu_pool_proj
I0403 19:20:10.341752  9115 net.cpp:91] Creating Layer inception_4d/relu_pool_proj
I0403 19:20:10.341769  9115 net.cpp:425] inception_4d/relu_pool_proj <- inception_4d/pool_proj
I0403 19:20:10.341789  9115 net.cpp:386] inception_4d/relu_pool_proj -> inception_4d/pool_proj (in-place)
I0403 19:20:10.341986  9115 net.cpp:141] Setting up inception_4d/relu_pool_proj
I0403 19:20:10.342015  9115 net.cpp:148] Top shape: 24 64 14 14 (301056)
I0403 19:20:10.342032  9115 net.cpp:156] Memory required for data: 1147309344
I0403 19:20:10.342047  9115 layer_factory.hpp:77] Creating layer inception_4d/output
I0403 19:20:10.342066  9115 net.cpp:91] Creating Layer inception_4d/output
I0403 19:20:10.342082  9115 net.cpp:425] inception_4d/output <- inception_4d/1x1
I0403 19:20:10.342099  9115 net.cpp:425] inception_4d/output <- inception_4d/3x3
I0403 19:20:10.342116  9115 net.cpp:425] inception_4d/output <- inception_4d/5x5
I0403 19:20:10.342133  9115 net.cpp:425] inception_4d/output <- inception_4d/pool_proj
I0403 19:20:10.342151  9115 net.cpp:399] inception_4d/output -> inception_4d/output
I0403 19:20:10.342203  9115 net.cpp:141] Setting up inception_4d/output
I0403 19:20:10.342228  9115 net.cpp:148] Top shape: 24 528 14 14 (2483712)
I0403 19:20:10.342243  9115 net.cpp:156] Memory required for data: 1157244192
I0403 19:20:10.342258  9115 layer_factory.hpp:77] Creating layer inception_4d/output_inception_4d/output_0_split
I0403 19:20:10.342291  9115 net.cpp:91] Creating Layer inception_4d/output_inception_4d/output_0_split
I0403 19:20:10.342313  9115 net.cpp:425] inception_4d/output_inception_4d/output_0_split <- inception_4d/output
I0403 19:20:10.342331  9115 net.cpp:399] inception_4d/output_inception_4d/output_0_split -> inception_4d/output_inception_4d/output_0_split_0
I0403 19:20:10.342353  9115 net.cpp:399] inception_4d/output_inception_4d/output_0_split -> inception_4d/output_inception_4d/output_0_split_1
I0403 19:20:10.342375  9115 net.cpp:399] inception_4d/output_inception_4d/output_0_split -> inception_4d/output_inception_4d/output_0_split_2
I0403 19:20:10.342401  9115 net.cpp:399] inception_4d/output_inception_4d/output_0_split -> inception_4d/output_inception_4d/output_0_split_3
I0403 19:20:10.342422  9115 net.cpp:399] inception_4d/output_inception_4d/output_0_split -> inception_4d/output_inception_4d/output_0_split_4
I0403 19:20:10.342532  9115 net.cpp:141] Setting up inception_4d/output_inception_4d/output_0_split
I0403 19:20:10.342569  9115 net.cpp:148] Top shape: 24 528 14 14 (2483712)
I0403 19:20:10.342587  9115 net.cpp:148] Top shape: 24 528 14 14 (2483712)
I0403 19:20:10.342604  9115 net.cpp:148] Top shape: 24 528 14 14 (2483712)
I0403 19:20:10.342622  9115 net.cpp:148] Top shape: 24 528 14 14 (2483712)
I0403 19:20:10.342638  9115 net.cpp:148] Top shape: 24 528 14 14 (2483712)
I0403 19:20:10.342653  9115 net.cpp:156] Memory required for data: 1206918432
I0403 19:20:10.342667  9115 layer_factory.hpp:77] Creating layer loss2/ave_pool
I0403 19:20:10.342689  9115 net.cpp:91] Creating Layer loss2/ave_pool
I0403 19:20:10.342706  9115 net.cpp:425] loss2/ave_pool <- inception_4d/output_inception_4d/output_0_split_0
I0403 19:20:10.342726  9115 net.cpp:399] loss2/ave_pool -> loss2/ave_pool
I0403 19:20:10.343063  9115 net.cpp:141] Setting up loss2/ave_pool
I0403 19:20:10.343091  9115 net.cpp:148] Top shape: 24 528 4 4 (202752)
I0403 19:20:10.343107  9115 net.cpp:156] Memory required for data: 1207729440
I0403 19:20:10.343123  9115 layer_factory.hpp:77] Creating layer loss2/conv
I0403 19:20:10.343147  9115 net.cpp:91] Creating Layer loss2/conv
I0403 19:20:10.343166  9115 net.cpp:425] loss2/conv <- loss2/ave_pool
I0403 19:20:10.343191  9115 net.cpp:399] loss2/conv -> loss2/conv
I0403 19:20:10.345197  9115 net.cpp:141] Setting up loss2/conv
I0403 19:20:10.345230  9115 net.cpp:148] Top shape: 24 128 4 4 (49152)
I0403 19:20:10.345247  9115 net.cpp:156] Memory required for data: 1207926048
I0403 19:20:10.345268  9115 layer_factory.hpp:77] Creating layer loss2/relu_conv
I0403 19:20:10.345291  9115 net.cpp:91] Creating Layer loss2/relu_conv
I0403 19:20:10.345309  9115 net.cpp:425] loss2/relu_conv <- loss2/conv
I0403 19:20:10.345330  9115 net.cpp:386] loss2/relu_conv -> loss2/conv (in-place)
I0403 19:20:10.345634  9115 net.cpp:141] Setting up loss2/relu_conv
I0403 19:20:10.345665  9115 net.cpp:148] Top shape: 24 128 4 4 (49152)
I0403 19:20:10.345682  9115 net.cpp:156] Memory required for data: 1208122656
I0403 19:20:10.345698  9115 layer_factory.hpp:77] Creating layer loss2/fc
I0403 19:20:10.345718  9115 net.cpp:91] Creating Layer loss2/fc
I0403 19:20:10.345736  9115 net.cpp:425] loss2/fc <- loss2/conv
I0403 19:20:10.345757  9115 net.cpp:399] loss2/fc -> loss2/fc
I0403 19:20:10.363620  9115 net.cpp:141] Setting up loss2/fc
I0403 19:20:10.363672  9115 net.cpp:148] Top shape: 24 1024 (24576)
I0403 19:20:10.363687  9115 net.cpp:156] Memory required for data: 1208220960
I0403 19:20:10.363705  9115 layer_factory.hpp:77] Creating layer loss2/relu_fc
I0403 19:20:10.363724  9115 net.cpp:91] Creating Layer loss2/relu_fc
I0403 19:20:10.363742  9115 net.cpp:425] loss2/relu_fc <- loss2/fc
I0403 19:20:10.363759  9115 net.cpp:386] loss2/relu_fc -> loss2/fc (in-place)
I0403 19:20:10.364084  9115 net.cpp:141] Setting up loss2/relu_fc
I0403 19:20:10.364109  9115 net.cpp:148] Top shape: 24 1024 (24576)
I0403 19:20:10.364125  9115 net.cpp:156] Memory required for data: 1208319264
I0403 19:20:10.364138  9115 layer_factory.hpp:77] Creating layer loss2/drop_fc
I0403 19:20:10.364158  9115 net.cpp:91] Creating Layer loss2/drop_fc
I0403 19:20:10.364176  9115 net.cpp:425] loss2/drop_fc <- loss2/fc
I0403 19:20:10.364192  9115 net.cpp:386] loss2/drop_fc -> loss2/fc (in-place)
I0403 19:20:10.364243  9115 net.cpp:141] Setting up loss2/drop_fc
I0403 19:20:10.364265  9115 net.cpp:148] Top shape: 24 1024 (24576)
I0403 19:20:10.364284  9115 net.cpp:156] Memory required for data: 1208417568
I0403 19:20:10.364300  9115 layer_factory.hpp:77] Creating layer loss2/classifier_plantvillage
I0403 19:20:10.364320  9115 net.cpp:91] Creating Layer loss2/classifier_plantvillage
I0403 19:20:10.364336  9115 net.cpp:425] loss2/classifier_plantvillage <- loss2/fc
I0403 19:20:10.364354  9115 net.cpp:399] loss2/classifier_plantvillage -> loss2/classifier_plantvillage
I0403 19:20:10.364753  9115 net.cpp:141] Setting up loss2/classifier_plantvillage
I0403 19:20:10.364778  9115 net.cpp:148] Top shape: 24 38 (912)
I0403 19:20:10.364790  9115 net.cpp:156] Memory required for data: 1208421216
I0403 19:20:10.364828  9115 layer_factory.hpp:77] Creating layer loss2/classifier_plantvillage_loss2/classifier_plantvillage_0_split
I0403 19:20:10.364847  9115 net.cpp:91] Creating Layer loss2/classifier_plantvillage_loss2/classifier_plantvillage_0_split
I0403 19:20:10.364863  9115 net.cpp:425] loss2/classifier_plantvillage_loss2/classifier_plantvillage_0_split <- loss2/classifier_plantvillage
I0403 19:20:10.364883  9115 net.cpp:399] loss2/classifier_plantvillage_loss2/classifier_plantvillage_0_split -> loss2/classifier_plantvillage_loss2/classifier_plantvillage_0_split_0
I0403 19:20:10.364903  9115 net.cpp:399] loss2/classifier_plantvillage_loss2/classifier_plantvillage_0_split -> loss2/classifier_plantvillage_loss2/classifier_plantvillage_0_split_1
I0403 19:20:10.364923  9115 net.cpp:399] loss2/classifier_plantvillage_loss2/classifier_plantvillage_0_split -> loss2/classifier_plantvillage_loss2/classifier_plantvillage_0_split_2
I0403 19:20:10.364998  9115 net.cpp:141] Setting up loss2/classifier_plantvillage_loss2/classifier_plantvillage_0_split
I0403 19:20:10.365023  9115 net.cpp:148] Top shape: 24 38 (912)
I0403 19:20:10.365039  9115 net.cpp:148] Top shape: 24 38 (912)
I0403 19:20:10.365056  9115 net.cpp:148] Top shape: 24 38 (912)
I0403 19:20:10.365068  9115 net.cpp:156] Memory required for data: 1208432160
I0403 19:20:10.365082  9115 layer_factory.hpp:77] Creating layer inception_4e/1x1
I0403 19:20:10.365104  9115 net.cpp:91] Creating Layer inception_4e/1x1
I0403 19:20:10.365123  9115 net.cpp:425] inception_4e/1x1 <- inception_4d/output_inception_4d/output_0_split_1
I0403 19:20:10.365140  9115 net.cpp:399] inception_4e/1x1 -> inception_4e/1x1
I0403 19:20:10.366945  9115 net.cpp:141] Setting up inception_4e/1x1
I0403 19:20:10.366973  9115 net.cpp:148] Top shape: 24 256 14 14 (1204224)
I0403 19:20:10.366989  9115 net.cpp:156] Memory required for data: 1213249056
I0403 19:20:10.367007  9115 layer_factory.hpp:77] Creating layer inception_4e/relu_1x1
I0403 19:20:10.367024  9115 net.cpp:91] Creating Layer inception_4e/relu_1x1
I0403 19:20:10.367040  9115 net.cpp:425] inception_4e/relu_1x1 <- inception_4e/1x1
I0403 19:20:10.367059  9115 net.cpp:386] inception_4e/relu_1x1 -> inception_4e/1x1 (in-place)
I0403 19:20:10.367350  9115 net.cpp:141] Setting up inception_4e/relu_1x1
I0403 19:20:10.367378  9115 net.cpp:148] Top shape: 24 256 14 14 (1204224)
I0403 19:20:10.367394  9115 net.cpp:156] Memory required for data: 1218065952
I0403 19:20:10.367408  9115 layer_factory.hpp:77] Creating layer inception_4e/3x3_reduce
I0403 19:20:10.367430  9115 net.cpp:91] Creating Layer inception_4e/3x3_reduce
I0403 19:20:10.367447  9115 net.cpp:425] inception_4e/3x3_reduce <- inception_4d/output_inception_4d/output_0_split_2
I0403 19:20:10.367466  9115 net.cpp:399] inception_4e/3x3_reduce -> inception_4e/3x3_reduce
I0403 19:20:10.369531  9115 net.cpp:141] Setting up inception_4e/3x3_reduce
I0403 19:20:10.369561  9115 net.cpp:148] Top shape: 24 160 14 14 (752640)
I0403 19:20:10.369576  9115 net.cpp:156] Memory required for data: 1221076512
I0403 19:20:10.369595  9115 layer_factory.hpp:77] Creating layer inception_4e/relu_3x3_reduce
I0403 19:20:10.369612  9115 net.cpp:91] Creating Layer inception_4e/relu_3x3_reduce
I0403 19:20:10.369628  9115 net.cpp:425] inception_4e/relu_3x3_reduce <- inception_4e/3x3_reduce
I0403 19:20:10.369645  9115 net.cpp:386] inception_4e/relu_3x3_reduce -> inception_4e/3x3_reduce (in-place)
I0403 19:20:10.369840  9115 net.cpp:141] Setting up inception_4e/relu_3x3_reduce
I0403 19:20:10.369865  9115 net.cpp:148] Top shape: 24 160 14 14 (752640)
I0403 19:20:10.369879  9115 net.cpp:156] Memory required for data: 1224087072
I0403 19:20:10.369894  9115 layer_factory.hpp:77] Creating layer inception_4e/3x3
I0403 19:20:10.369916  9115 net.cpp:91] Creating Layer inception_4e/3x3
I0403 19:20:10.369935  9115 net.cpp:425] inception_4e/3x3 <- inception_4e/3x3_reduce
I0403 19:20:10.369956  9115 net.cpp:399] inception_4e/3x3 -> inception_4e/3x3
I0403 19:20:10.374954  9115 net.cpp:141] Setting up inception_4e/3x3
I0403 19:20:10.374994  9115 net.cpp:148] Top shape: 24 320 14 14 (1505280)
I0403 19:20:10.375010  9115 net.cpp:156] Memory required for data: 1230108192
I0403 19:20:10.375027  9115 layer_factory.hpp:77] Creating layer inception_4e/relu_3x3
I0403 19:20:10.375047  9115 net.cpp:91] Creating Layer inception_4e/relu_3x3
I0403 19:20:10.375064  9115 net.cpp:425] inception_4e/relu_3x3 <- inception_4e/3x3
I0403 19:20:10.375080  9115 net.cpp:386] inception_4e/relu_3x3 -> inception_4e/3x3 (in-place)
I0403 19:20:10.375381  9115 net.cpp:141] Setting up inception_4e/relu_3x3
I0403 19:20:10.375407  9115 net.cpp:148] Top shape: 24 320 14 14 (1505280)
I0403 19:20:10.375422  9115 net.cpp:156] Memory required for data: 1236129312
I0403 19:20:10.375437  9115 layer_factory.hpp:77] Creating layer inception_4e/5x5_reduce
I0403 19:20:10.375458  9115 net.cpp:91] Creating Layer inception_4e/5x5_reduce
I0403 19:20:10.375475  9115 net.cpp:425] inception_4e/5x5_reduce <- inception_4d/output_inception_4d/output_0_split_3
I0403 19:20:10.375496  9115 net.cpp:399] inception_4e/5x5_reduce -> inception_4e/5x5_reduce
I0403 19:20:10.376551  9115 net.cpp:141] Setting up inception_4e/5x5_reduce
I0403 19:20:10.376580  9115 net.cpp:148] Top shape: 24 32 14 14 (150528)
I0403 19:20:10.376595  9115 net.cpp:156] Memory required for data: 1236731424
I0403 19:20:10.376613  9115 layer_factory.hpp:77] Creating layer inception_4e/relu_5x5_reduce
I0403 19:20:10.376631  9115 net.cpp:91] Creating Layer inception_4e/relu_5x5_reduce
I0403 19:20:10.376646  9115 net.cpp:425] inception_4e/relu_5x5_reduce <- inception_4e/5x5_reduce
I0403 19:20:10.376664  9115 net.cpp:386] inception_4e/relu_5x5_reduce -> inception_4e/5x5_reduce (in-place)
I0403 19:20:10.376960  9115 net.cpp:141] Setting up inception_4e/relu_5x5_reduce
I0403 19:20:10.376988  9115 net.cpp:148] Top shape: 24 32 14 14 (150528)
I0403 19:20:10.377003  9115 net.cpp:156] Memory required for data: 1237333536
I0403 19:20:10.377018  9115 layer_factory.hpp:77] Creating layer inception_4e/5x5
I0403 19:20:10.377056  9115 net.cpp:91] Creating Layer inception_4e/5x5
I0403 19:20:10.377075  9115 net.cpp:425] inception_4e/5x5 <- inception_4e/5x5_reduce
I0403 19:20:10.377094  9115 net.cpp:399] inception_4e/5x5 -> inception_4e/5x5
I0403 19:20:10.378942  9115 net.cpp:141] Setting up inception_4e/5x5
I0403 19:20:10.378969  9115 net.cpp:148] Top shape: 24 128 14 14 (602112)
I0403 19:20:10.378984  9115 net.cpp:156] Memory required for data: 1239741984
I0403 19:20:10.379003  9115 layer_factory.hpp:77] Creating layer inception_4e/relu_5x5
I0403 19:20:10.379024  9115 net.cpp:91] Creating Layer inception_4e/relu_5x5
I0403 19:20:10.379040  9115 net.cpp:425] inception_4e/relu_5x5 <- inception_4e/5x5
I0403 19:20:10.379057  9115 net.cpp:386] inception_4e/relu_5x5 -> inception_4e/5x5 (in-place)
I0403 19:20:10.379253  9115 net.cpp:141] Setting up inception_4e/relu_5x5
I0403 19:20:10.379284  9115 net.cpp:148] Top shape: 24 128 14 14 (602112)
I0403 19:20:10.379300  9115 net.cpp:156] Memory required for data: 1242150432
I0403 19:20:10.379315  9115 layer_factory.hpp:77] Creating layer inception_4e/pool
I0403 19:20:10.379333  9115 net.cpp:91] Creating Layer inception_4e/pool
I0403 19:20:10.379361  9115 net.cpp:425] inception_4e/pool <- inception_4d/output_inception_4d/output_0_split_4
I0403 19:20:10.379381  9115 net.cpp:399] inception_4e/pool -> inception_4e/pool
I0403 19:20:10.379449  9115 net.cpp:141] Setting up inception_4e/pool
I0403 19:20:10.379472  9115 net.cpp:148] Top shape: 24 528 14 14 (2483712)
I0403 19:20:10.379487  9115 net.cpp:156] Memory required for data: 1252085280
I0403 19:20:10.379500  9115 layer_factory.hpp:77] Creating layer inception_4e/pool_proj
I0403 19:20:10.379524  9115 net.cpp:91] Creating Layer inception_4e/pool_proj
I0403 19:20:10.379541  9115 net.cpp:425] inception_4e/pool_proj <- inception_4e/pool
I0403 19:20:10.379559  9115 net.cpp:399] inception_4e/pool_proj -> inception_4e/pool_proj
I0403 19:20:10.381016  9115 net.cpp:141] Setting up inception_4e/pool_proj
I0403 19:20:10.381042  9115 net.cpp:148] Top shape: 24 128 14 14 (602112)
I0403 19:20:10.381070  9115 net.cpp:156] Memory required for data: 1254493728
I0403 19:20:10.381089  9115 layer_factory.hpp:77] Creating layer inception_4e/relu_pool_proj
I0403 19:20:10.381109  9115 net.cpp:91] Creating Layer inception_4e/relu_pool_proj
I0403 19:20:10.381125  9115 net.cpp:425] inception_4e/relu_pool_proj <- inception_4e/pool_proj
I0403 19:20:10.381142  9115 net.cpp:386] inception_4e/relu_pool_proj -> inception_4e/pool_proj (in-place)
I0403 19:20:10.381433  9115 net.cpp:141] Setting up inception_4e/relu_pool_proj
I0403 19:20:10.381458  9115 net.cpp:148] Top shape: 24 128 14 14 (602112)
I0403 19:20:10.381474  9115 net.cpp:156] Memory required for data: 1256902176
I0403 19:20:10.381487  9115 layer_factory.hpp:77] Creating layer inception_4e/output
I0403 19:20:10.381507  9115 net.cpp:91] Creating Layer inception_4e/output
I0403 19:20:10.381522  9115 net.cpp:425] inception_4e/output <- inception_4e/1x1
I0403 19:20:10.381538  9115 net.cpp:425] inception_4e/output <- inception_4e/3x3
I0403 19:20:10.381553  9115 net.cpp:425] inception_4e/output <- inception_4e/5x5
I0403 19:20:10.381568  9115 net.cpp:425] inception_4e/output <- inception_4e/pool_proj
I0403 19:20:10.381587  9115 net.cpp:399] inception_4e/output -> inception_4e/output
I0403 19:20:10.381638  9115 net.cpp:141] Setting up inception_4e/output
I0403 19:20:10.381659  9115 net.cpp:148] Top shape: 24 832 14 14 (3913728)
I0403 19:20:10.381675  9115 net.cpp:156] Memory required for data: 1272557088
I0403 19:20:10.381688  9115 layer_factory.hpp:77] Creating layer pool4/3x3_s2
I0403 19:20:10.381705  9115 net.cpp:91] Creating Layer pool4/3x3_s2
I0403 19:20:10.381721  9115 net.cpp:425] pool4/3x3_s2 <- inception_4e/output
I0403 19:20:10.381741  9115 net.cpp:399] pool4/3x3_s2 -> pool4/3x3_s2
I0403 19:20:10.381805  9115 net.cpp:141] Setting up pool4/3x3_s2
I0403 19:20:10.381829  9115 net.cpp:148] Top shape: 24 832 7 7 (978432)
I0403 19:20:10.381842  9115 net.cpp:156] Memory required for data: 1276470816
I0403 19:20:10.381856  9115 layer_factory.hpp:77] Creating layer pool4/3x3_s2_pool4/3x3_s2_0_split
I0403 19:20:10.381876  9115 net.cpp:91] Creating Layer pool4/3x3_s2_pool4/3x3_s2_0_split
I0403 19:20:10.381892  9115 net.cpp:425] pool4/3x3_s2_pool4/3x3_s2_0_split <- pool4/3x3_s2
I0403 19:20:10.381911  9115 net.cpp:399] pool4/3x3_s2_pool4/3x3_s2_0_split -> pool4/3x3_s2_pool4/3x3_s2_0_split_0
I0403 19:20:10.381932  9115 net.cpp:399] pool4/3x3_s2_pool4/3x3_s2_0_split -> pool4/3x3_s2_pool4/3x3_s2_0_split_1
I0403 19:20:10.381950  9115 net.cpp:399] pool4/3x3_s2_pool4/3x3_s2_0_split -> pool4/3x3_s2_pool4/3x3_s2_0_split_2
I0403 19:20:10.381969  9115 net.cpp:399] pool4/3x3_s2_pool4/3x3_s2_0_split -> pool4/3x3_s2_pool4/3x3_s2_0_split_3
I0403 19:20:10.382056  9115 net.cpp:141] Setting up pool4/3x3_s2_pool4/3x3_s2_0_split
I0403 19:20:10.382078  9115 net.cpp:148] Top shape: 24 832 7 7 (978432)
I0403 19:20:10.382094  9115 net.cpp:148] Top shape: 24 832 7 7 (978432)
I0403 19:20:10.382109  9115 net.cpp:148] Top shape: 24 832 7 7 (978432)
I0403 19:20:10.382125  9115 net.cpp:148] Top shape: 24 832 7 7 (978432)
I0403 19:20:10.382138  9115 net.cpp:156] Memory required for data: 1292125728
I0403 19:20:10.382153  9115 layer_factory.hpp:77] Creating layer inception_5a/1x1
I0403 19:20:10.382174  9115 net.cpp:91] Creating Layer inception_5a/1x1
I0403 19:20:10.382192  9115 net.cpp:425] inception_5a/1x1 <- pool4/3x3_s2_pool4/3x3_s2_0_split_0
I0403 19:20:10.382212  9115 net.cpp:399] inception_5a/1x1 -> inception_5a/1x1
I0403 19:20:10.385114  9115 net.cpp:141] Setting up inception_5a/1x1
I0403 19:20:10.385145  9115 net.cpp:148] Top shape: 24 256 7 7 (301056)
I0403 19:20:10.385161  9115 net.cpp:156] Memory required for data: 1293329952
I0403 19:20:10.385179  9115 layer_factory.hpp:77] Creating layer inception_5a/relu_1x1
I0403 19:20:10.385197  9115 net.cpp:91] Creating Layer inception_5a/relu_1x1
I0403 19:20:10.385215  9115 net.cpp:425] inception_5a/relu_1x1 <- inception_5a/1x1
I0403 19:20:10.385232  9115 net.cpp:386] inception_5a/relu_1x1 -> inception_5a/1x1 (in-place)
I0403 19:20:10.385548  9115 net.cpp:141] Setting up inception_5a/relu_1x1
I0403 19:20:10.385577  9115 net.cpp:148] Top shape: 24 256 7 7 (301056)
I0403 19:20:10.385593  9115 net.cpp:156] Memory required for data: 1294534176
I0403 19:20:10.385608  9115 layer_factory.hpp:77] Creating layer inception_5a/3x3_reduce
I0403 19:20:10.385632  9115 net.cpp:91] Creating Layer inception_5a/3x3_reduce
I0403 19:20:10.385649  9115 net.cpp:425] inception_5a/3x3_reduce <- pool4/3x3_s2_pool4/3x3_s2_0_split_1
I0403 19:20:10.385668  9115 net.cpp:399] inception_5a/3x3_reduce -> inception_5a/3x3_reduce
I0403 19:20:10.388128  9115 net.cpp:141] Setting up inception_5a/3x3_reduce
I0403 19:20:10.388157  9115 net.cpp:148] Top shape: 24 160 7 7 (188160)
I0403 19:20:10.388172  9115 net.cpp:156] Memory required for data: 1295286816
I0403 19:20:10.388193  9115 layer_factory.hpp:77] Creating layer inception_5a/relu_3x3_reduce
I0403 19:20:10.388214  9115 net.cpp:91] Creating Layer inception_5a/relu_3x3_reduce
I0403 19:20:10.388231  9115 net.cpp:425] inception_5a/relu_3x3_reduce <- inception_5a/3x3_reduce
I0403 19:20:10.388248  9115 net.cpp:386] inception_5a/relu_3x3_reduce -> inception_5a/3x3_reduce (in-place)
I0403 19:20:10.388458  9115 net.cpp:141] Setting up inception_5a/relu_3x3_reduce
I0403 19:20:10.388486  9115 net.cpp:148] Top shape: 24 160 7 7 (188160)
I0403 19:20:10.388504  9115 net.cpp:156] Memory required for data: 1296039456
I0403 19:20:10.388520  9115 layer_factory.hpp:77] Creating layer inception_5a/3x3
I0403 19:20:10.388540  9115 net.cpp:91] Creating Layer inception_5a/3x3
I0403 19:20:10.388557  9115 net.cpp:425] inception_5a/3x3 <- inception_5a/3x3_reduce
I0403 19:20:10.388592  9115 net.cpp:399] inception_5a/3x3 -> inception_5a/3x3
I0403 19:20:10.393637  9115 net.cpp:141] Setting up inception_5a/3x3
I0403 19:20:10.393667  9115 net.cpp:148] Top shape: 24 320 7 7 (376320)
I0403 19:20:10.393683  9115 net.cpp:156] Memory required for data: 1297544736
I0403 19:20:10.393702  9115 layer_factory.hpp:77] Creating layer inception_5a/relu_3x3
I0403 19:20:10.393723  9115 net.cpp:91] Creating Layer inception_5a/relu_3x3
I0403 19:20:10.393738  9115 net.cpp:425] inception_5a/relu_3x3 <- inception_5a/3x3
I0403 19:20:10.393755  9115 net.cpp:386] inception_5a/relu_3x3 -> inception_5a/3x3 (in-place)
I0403 19:20:10.394052  9115 net.cpp:141] Setting up inception_5a/relu_3x3
I0403 19:20:10.394079  9115 net.cpp:148] Top shape: 24 320 7 7 (376320)
I0403 19:20:10.394094  9115 net.cpp:156] Memory required for data: 1299050016
I0403 19:20:10.394109  9115 layer_factory.hpp:77] Creating layer inception_5a/5x5_reduce
I0403 19:20:10.394134  9115 net.cpp:91] Creating Layer inception_5a/5x5_reduce
I0403 19:20:10.394152  9115 net.cpp:425] inception_5a/5x5_reduce <- pool4/3x3_s2_pool4/3x3_s2_0_split_2
I0403 19:20:10.394172  9115 net.cpp:399] inception_5a/5x5_reduce -> inception_5a/5x5_reduce
I0403 19:20:10.395359  9115 net.cpp:141] Setting up inception_5a/5x5_reduce
I0403 19:20:10.395390  9115 net.cpp:148] Top shape: 24 32 7 7 (37632)
I0403 19:20:10.395407  9115 net.cpp:156] Memory required for data: 1299200544
I0403 19:20:10.395426  9115 layer_factory.hpp:77] Creating layer inception_5a/relu_5x5_reduce
I0403 19:20:10.395443  9115 net.cpp:91] Creating Layer inception_5a/relu_5x5_reduce
I0403 19:20:10.395459  9115 net.cpp:425] inception_5a/relu_5x5_reduce <- inception_5a/5x5_reduce
I0403 19:20:10.395476  9115 net.cpp:386] inception_5a/relu_5x5_reduce -> inception_5a/5x5_reduce (in-place)
I0403 19:20:10.395781  9115 net.cpp:141] Setting up inception_5a/relu_5x5_reduce
I0403 19:20:10.395808  9115 net.cpp:148] Top shape: 24 32 7 7 (37632)
I0403 19:20:10.395824  9115 net.cpp:156] Memory required for data: 1299351072
I0403 19:20:10.395839  9115 layer_factory.hpp:77] Creating layer inception_5a/5x5
I0403 19:20:10.395860  9115 net.cpp:91] Creating Layer inception_5a/5x5
I0403 19:20:10.395879  9115 net.cpp:425] inception_5a/5x5 <- inception_5a/5x5_reduce
I0403 19:20:10.395900  9115 net.cpp:399] inception_5a/5x5 -> inception_5a/5x5
I0403 19:20:10.397632  9115 net.cpp:141] Setting up inception_5a/5x5
I0403 19:20:10.397671  9115 net.cpp:148] Top shape: 24 128 7 7 (150528)
I0403 19:20:10.397687  9115 net.cpp:156] Memory required for data: 1299953184
I0403 19:20:10.397706  9115 layer_factory.hpp:77] Creating layer inception_5a/relu_5x5
I0403 19:20:10.397727  9115 net.cpp:91] Creating Layer inception_5a/relu_5x5
I0403 19:20:10.397744  9115 net.cpp:425] inception_5a/relu_5x5 <- inception_5a/5x5
I0403 19:20:10.397761  9115 net.cpp:386] inception_5a/relu_5x5 -> inception_5a/5x5 (in-place)
I0403 19:20:10.397953  9115 net.cpp:141] Setting up inception_5a/relu_5x5
I0403 19:20:10.397977  9115 net.cpp:148] Top shape: 24 128 7 7 (150528)
I0403 19:20:10.397992  9115 net.cpp:156] Memory required for data: 1300555296
I0403 19:20:10.398008  9115 layer_factory.hpp:77] Creating layer inception_5a/pool
I0403 19:20:10.398026  9115 net.cpp:91] Creating Layer inception_5a/pool
I0403 19:20:10.398041  9115 net.cpp:425] inception_5a/pool <- pool4/3x3_s2_pool4/3x3_s2_0_split_3
I0403 19:20:10.398062  9115 net.cpp:399] inception_5a/pool -> inception_5a/pool
I0403 19:20:10.398133  9115 net.cpp:141] Setting up inception_5a/pool
I0403 19:20:10.398156  9115 net.cpp:148] Top shape: 24 832 7 7 (978432)
I0403 19:20:10.398170  9115 net.cpp:156] Memory required for data: 1304469024
I0403 19:20:10.398187  9115 layer_factory.hpp:77] Creating layer inception_5a/pool_proj
I0403 19:20:10.398211  9115 net.cpp:91] Creating Layer inception_5a/pool_proj
I0403 19:20:10.398227  9115 net.cpp:425] inception_5a/pool_proj <- inception_5a/pool
I0403 19:20:10.398247  9115 net.cpp:399] inception_5a/pool_proj -> inception_5a/pool_proj
I0403 19:20:10.400569  9115 net.cpp:141] Setting up inception_5a/pool_proj
I0403 19:20:10.400599  9115 net.cpp:148] Top shape: 24 128 7 7 (150528)
I0403 19:20:10.400614  9115 net.cpp:156] Memory required for data: 1305071136
I0403 19:20:10.400631  9115 layer_factory.hpp:77] Creating layer inception_5a/relu_pool_proj
I0403 19:20:10.400651  9115 net.cpp:91] Creating Layer inception_5a/relu_pool_proj
I0403 19:20:10.400667  9115 net.cpp:425] inception_5a/relu_pool_proj <- inception_5a/pool_proj
I0403 19:20:10.400684  9115 net.cpp:386] inception_5a/relu_pool_proj -> inception_5a/pool_proj (in-place)
I0403 19:20:10.400974  9115 net.cpp:141] Setting up inception_5a/relu_pool_proj
I0403 19:20:10.401000  9115 net.cpp:148] Top shape: 24 128 7 7 (150528)
I0403 19:20:10.401013  9115 net.cpp:156] Memory required for data: 1305673248
I0403 19:20:10.401028  9115 layer_factory.hpp:77] Creating layer inception_5a/output
I0403 19:20:10.401047  9115 net.cpp:91] Creating Layer inception_5a/output
I0403 19:20:10.401063  9115 net.cpp:425] inception_5a/output <- inception_5a/1x1
I0403 19:20:10.401080  9115 net.cpp:425] inception_5a/output <- inception_5a/3x3
I0403 19:20:10.401095  9115 net.cpp:425] inception_5a/output <- inception_5a/5x5
I0403 19:20:10.401110  9115 net.cpp:425] inception_5a/output <- inception_5a/pool_proj
I0403 19:20:10.401126  9115 net.cpp:399] inception_5a/output -> inception_5a/output
I0403 19:20:10.401176  9115 net.cpp:141] Setting up inception_5a/output
I0403 19:20:10.401199  9115 net.cpp:148] Top shape: 24 832 7 7 (978432)
I0403 19:20:10.401214  9115 net.cpp:156] Memory required for data: 1309586976
I0403 19:20:10.401228  9115 layer_factory.hpp:77] Creating layer inception_5a/output_inception_5a/output_0_split
I0403 19:20:10.401244  9115 net.cpp:91] Creating Layer inception_5a/output_inception_5a/output_0_split
I0403 19:20:10.401259  9115 net.cpp:425] inception_5a/output_inception_5a/output_0_split <- inception_5a/output
I0403 19:20:10.401283  9115 net.cpp:399] inception_5a/output_inception_5a/output_0_split -> inception_5a/output_inception_5a/output_0_split_0
I0403 19:20:10.401304  9115 net.cpp:399] inception_5a/output_inception_5a/output_0_split -> inception_5a/output_inception_5a/output_0_split_1
I0403 19:20:10.401324  9115 net.cpp:399] inception_5a/output_inception_5a/output_0_split -> inception_5a/output_inception_5a/output_0_split_2
I0403 19:20:10.401343  9115 net.cpp:399] inception_5a/output_inception_5a/output_0_split -> inception_5a/output_inception_5a/output_0_split_3
I0403 19:20:10.401453  9115 net.cpp:141] Setting up inception_5a/output_inception_5a/output_0_split
I0403 19:20:10.401478  9115 net.cpp:148] Top shape: 24 832 7 7 (978432)
I0403 19:20:10.401494  9115 net.cpp:148] Top shape: 24 832 7 7 (978432)
I0403 19:20:10.401510  9115 net.cpp:148] Top shape: 24 832 7 7 (978432)
I0403 19:20:10.401525  9115 net.cpp:148] Top shape: 24 832 7 7 (978432)
I0403 19:20:10.401537  9115 net.cpp:156] Memory required for data: 1325241888
I0403 19:20:10.401551  9115 layer_factory.hpp:77] Creating layer inception_5b/1x1
I0403 19:20:10.401572  9115 net.cpp:91] Creating Layer inception_5b/1x1
I0403 19:20:10.401589  9115 net.cpp:425] inception_5b/1x1 <- inception_5a/output_inception_5a/output_0_split_0
I0403 19:20:10.401607  9115 net.cpp:399] inception_5b/1x1 -> inception_5b/1x1
I0403 19:20:10.405398  9115 net.cpp:141] Setting up inception_5b/1x1
I0403 19:20:10.405428  9115 net.cpp:148] Top shape: 24 384 7 7 (451584)
I0403 19:20:10.405444  9115 net.cpp:156] Memory required for data: 1327048224
I0403 19:20:10.405462  9115 layer_factory.hpp:77] Creating layer inception_5b/relu_1x1
I0403 19:20:10.405483  9115 net.cpp:91] Creating Layer inception_5b/relu_1x1
I0403 19:20:10.405499  9115 net.cpp:425] inception_5b/relu_1x1 <- inception_5b/1x1
I0403 19:20:10.405517  9115 net.cpp:386] inception_5b/relu_1x1 -> inception_5b/1x1 (in-place)
I0403 19:20:10.405835  9115 net.cpp:141] Setting up inception_5b/relu_1x1
I0403 19:20:10.405867  9115 net.cpp:148] Top shape: 24 384 7 7 (451584)
I0403 19:20:10.405884  9115 net.cpp:156] Memory required for data: 1328854560
I0403 19:20:10.405900  9115 layer_factory.hpp:77] Creating layer inception_5b/3x3_reduce
I0403 19:20:10.405921  9115 net.cpp:91] Creating Layer inception_5b/3x3_reduce
I0403 19:20:10.405938  9115 net.cpp:425] inception_5b/3x3_reduce <- inception_5a/output_inception_5a/output_0_split_1
I0403 19:20:10.405961  9115 net.cpp:399] inception_5b/3x3_reduce -> inception_5b/3x3_reduce
I0403 19:20:10.408641  9115 net.cpp:141] Setting up inception_5b/3x3_reduce
I0403 19:20:10.408671  9115 net.cpp:148] Top shape: 24 192 7 7 (225792)
I0403 19:20:10.408687  9115 net.cpp:156] Memory required for data: 1329757728
I0403 19:20:10.408706  9115 layer_factory.hpp:77] Creating layer inception_5b/relu_3x3_reduce
I0403 19:20:10.408727  9115 net.cpp:91] Creating Layer inception_5b/relu_3x3_reduce
I0403 19:20:10.408745  9115 net.cpp:425] inception_5b/relu_3x3_reduce <- inception_5b/3x3_reduce
I0403 19:20:10.408762  9115 net.cpp:386] inception_5b/relu_3x3_reduce -> inception_5b/3x3_reduce (in-place)
I0403 19:20:10.408953  9115 net.cpp:141] Setting up inception_5b/relu_3x3_reduce
I0403 19:20:10.408980  9115 net.cpp:148] Top shape: 24 192 7 7 (225792)
I0403 19:20:10.408996  9115 net.cpp:156] Memory required for data: 1330660896
I0403 19:20:10.409011  9115 layer_factory.hpp:77] Creating layer inception_5b/3x3
I0403 19:20:10.409034  9115 net.cpp:91] Creating Layer inception_5b/3x3
I0403 19:20:10.409050  9115 net.cpp:425] inception_5b/3x3 <- inception_5b/3x3_reduce
I0403 19:20:10.409070  9115 net.cpp:399] inception_5b/3x3 -> inception_5b/3x3
I0403 19:20:10.415794  9115 net.cpp:141] Setting up inception_5b/3x3
I0403 19:20:10.415825  9115 net.cpp:148] Top shape: 24 384 7 7 (451584)
I0403 19:20:10.415841  9115 net.cpp:156] Memory required for data: 1332467232
I0403 19:20:10.415859  9115 layer_factory.hpp:77] Creating layer inception_5b/relu_3x3
I0403 19:20:10.415880  9115 net.cpp:91] Creating Layer inception_5b/relu_3x3
I0403 19:20:10.415896  9115 net.cpp:425] inception_5b/relu_3x3 <- inception_5b/3x3
I0403 19:20:10.415915  9115 net.cpp:386] inception_5b/relu_3x3 -> inception_5b/3x3 (in-place)
I0403 19:20:10.416214  9115 net.cpp:141] Setting up inception_5b/relu_3x3
I0403 19:20:10.416241  9115 net.cpp:148] Top shape: 24 384 7 7 (451584)
I0403 19:20:10.416255  9115 net.cpp:156] Memory required for data: 1334273568
I0403 19:20:10.416275  9115 layer_factory.hpp:77] Creating layer inception_5b/5x5_reduce
I0403 19:20:10.416313  9115 net.cpp:91] Creating Layer inception_5b/5x5_reduce
I0403 19:20:10.416333  9115 net.cpp:425] inception_5b/5x5_reduce <- inception_5a/output_inception_5a/output_0_split_2
I0403 19:20:10.416354  9115 net.cpp:399] inception_5b/5x5_reduce -> inception_5b/5x5_reduce
I0403 19:20:10.417650  9115 net.cpp:141] Setting up inception_5b/5x5_reduce
I0403 19:20:10.417680  9115 net.cpp:148] Top shape: 24 48 7 7 (56448)
I0403 19:20:10.417695  9115 net.cpp:156] Memory required for data: 1334499360
I0403 19:20:10.417713  9115 layer_factory.hpp:77] Creating layer inception_5b/relu_5x5_reduce
I0403 19:20:10.417733  9115 net.cpp:91] Creating Layer inception_5b/relu_5x5_reduce
I0403 19:20:10.417750  9115 net.cpp:425] inception_5b/relu_5x5_reduce <- inception_5b/5x5_reduce
I0403 19:20:10.417768  9115 net.cpp:386] inception_5b/relu_5x5_reduce -> inception_5b/5x5_reduce (in-place)
I0403 19:20:10.418143  9115 net.cpp:141] Setting up inception_5b/relu_5x5_reduce
I0403 19:20:10.418170  9115 net.cpp:148] Top shape: 24 48 7 7 (56448)
I0403 19:20:10.418189  9115 net.cpp:156] Memory required for data: 1334725152
I0403 19:20:10.418202  9115 layer_factory.hpp:77] Creating layer inception_5b/5x5
I0403 19:20:10.418222  9115 net.cpp:91] Creating Layer inception_5b/5x5
I0403 19:20:10.418239  9115 net.cpp:425] inception_5b/5x5 <- inception_5b/5x5_reduce
I0403 19:20:10.418257  9115 net.cpp:399] inception_5b/5x5 -> inception_5b/5x5
I0403 19:20:10.420351  9115 net.cpp:141] Setting up inception_5b/5x5
I0403 19:20:10.420382  9115 net.cpp:148] Top shape: 24 128 7 7 (150528)
I0403 19:20:10.420398  9115 net.cpp:156] Memory required for data: 1335327264
I0403 19:20:10.420416  9115 layer_factory.hpp:77] Creating layer inception_5b/relu_5x5
I0403 19:20:10.420434  9115 net.cpp:91] Creating Layer inception_5b/relu_5x5
I0403 19:20:10.420451  9115 net.cpp:425] inception_5b/relu_5x5 <- inception_5b/5x5
I0403 19:20:10.420469  9115 net.cpp:386] inception_5b/relu_5x5 -> inception_5b/5x5 (in-place)
I0403 19:20:10.420665  9115 net.cpp:141] Setting up inception_5b/relu_5x5
I0403 19:20:10.420692  9115 net.cpp:148] Top shape: 24 128 7 7 (150528)
I0403 19:20:10.420708  9115 net.cpp:156] Memory required for data: 1335929376
I0403 19:20:10.420723  9115 layer_factory.hpp:77] Creating layer inception_5b/pool
I0403 19:20:10.420742  9115 net.cpp:91] Creating Layer inception_5b/pool
I0403 19:20:10.420758  9115 net.cpp:425] inception_5b/pool <- inception_5a/output_inception_5a/output_0_split_3
I0403 19:20:10.420778  9115 net.cpp:399] inception_5b/pool -> inception_5b/pool
I0403 19:20:10.420850  9115 net.cpp:141] Setting up inception_5b/pool
I0403 19:20:10.420876  9115 net.cpp:148] Top shape: 24 832 7 7 (978432)
I0403 19:20:10.420892  9115 net.cpp:156] Memory required for data: 1339843104
I0403 19:20:10.420907  9115 layer_factory.hpp:77] Creating layer inception_5b/pool_proj
I0403 19:20:10.420928  9115 net.cpp:91] Creating Layer inception_5b/pool_proj
I0403 19:20:10.420946  9115 net.cpp:425] inception_5b/pool_proj <- inception_5b/pool
I0403 19:20:10.420964  9115 net.cpp:399] inception_5b/pool_proj -> inception_5b/pool_proj
I0403 19:20:10.423287  9115 net.cpp:141] Setting up inception_5b/pool_proj
I0403 19:20:10.423316  9115 net.cpp:148] Top shape: 24 128 7 7 (150528)
I0403 19:20:10.423332  9115 net.cpp:156] Memory required for data: 1340445216
I0403 19:20:10.423352  9115 layer_factory.hpp:77] Creating layer inception_5b/relu_pool_proj
I0403 19:20:10.423373  9115 net.cpp:91] Creating Layer inception_5b/relu_pool_proj
I0403 19:20:10.423391  9115 net.cpp:425] inception_5b/relu_pool_proj <- inception_5b/pool_proj
I0403 19:20:10.423409  9115 net.cpp:386] inception_5b/relu_pool_proj -> inception_5b/pool_proj (in-place)
I0403 19:20:10.423710  9115 net.cpp:141] Setting up inception_5b/relu_pool_proj
I0403 19:20:10.423737  9115 net.cpp:148] Top shape: 24 128 7 7 (150528)
I0403 19:20:10.423751  9115 net.cpp:156] Memory required for data: 1341047328
I0403 19:20:10.423766  9115 layer_factory.hpp:77] Creating layer inception_5b/output
I0403 19:20:10.423785  9115 net.cpp:91] Creating Layer inception_5b/output
I0403 19:20:10.423815  9115 net.cpp:425] inception_5b/output <- inception_5b/1x1
I0403 19:20:10.423833  9115 net.cpp:425] inception_5b/output <- inception_5b/3x3
I0403 19:20:10.423849  9115 net.cpp:425] inception_5b/output <- inception_5b/5x5
I0403 19:20:10.423866  9115 net.cpp:425] inception_5b/output <- inception_5b/pool_proj
I0403 19:20:10.423883  9115 net.cpp:399] inception_5b/output -> inception_5b/output
I0403 19:20:10.423938  9115 net.cpp:141] Setting up inception_5b/output
I0403 19:20:10.423961  9115 net.cpp:148] Top shape: 24 1024 7 7 (1204224)
I0403 19:20:10.423975  9115 net.cpp:156] Memory required for data: 1345864224
I0403 19:20:10.423990  9115 layer_factory.hpp:77] Creating layer pool5/7x7_s1
I0403 19:20:10.424008  9115 net.cpp:91] Creating Layer pool5/7x7_s1
I0403 19:20:10.424023  9115 net.cpp:425] pool5/7x7_s1 <- inception_5b/output
I0403 19:20:10.424044  9115 net.cpp:399] pool5/7x7_s1 -> pool5/7x7_s1
I0403 19:20:10.424260  9115 net.cpp:141] Setting up pool5/7x7_s1
I0403 19:20:10.424289  9115 net.cpp:148] Top shape: 24 1024 1 1 (24576)
I0403 19:20:10.424305  9115 net.cpp:156] Memory required for data: 1345962528
I0403 19:20:10.424320  9115 layer_factory.hpp:77] Creating layer pool5/drop_7x7_s1
I0403 19:20:10.424340  9115 net.cpp:91] Creating Layer pool5/drop_7x7_s1
I0403 19:20:10.424357  9115 net.cpp:425] pool5/drop_7x7_s1 <- pool5/7x7_s1
I0403 19:20:10.424376  9115 net.cpp:386] pool5/drop_7x7_s1 -> pool5/7x7_s1 (in-place)
I0403 19:20:10.424427  9115 net.cpp:141] Setting up pool5/drop_7x7_s1
I0403 19:20:10.424449  9115 net.cpp:148] Top shape: 24 1024 1 1 (24576)
I0403 19:20:10.424463  9115 net.cpp:156] Memory required for data: 1346060832
I0403 19:20:10.424479  9115 layer_factory.hpp:77] Creating layer loss3/classifier_plantvillage
I0403 19:20:10.424500  9115 net.cpp:91] Creating Layer loss3/classifier_plantvillage
I0403 19:20:10.424517  9115 net.cpp:425] loss3/classifier_plantvillage <- pool5/7x7_s1
I0403 19:20:10.424535  9115 net.cpp:399] loss3/classifier_plantvillage -> loss3/classifier_plantvillage
I0403 19:20:10.424963  9115 net.cpp:141] Setting up loss3/classifier_plantvillage
I0403 19:20:10.424988  9115 net.cpp:148] Top shape: 24 38 (912)
I0403 19:20:10.425003  9115 net.cpp:156] Memory required for data: 1346064480
I0403 19:20:10.425020  9115 layer_factory.hpp:77] Creating layer loss3/classifier_plantvillage_loss3/classifier_plantvillage_0_split
I0403 19:20:10.425040  9115 net.cpp:91] Creating Layer loss3/classifier_plantvillage_loss3/classifier_plantvillage_0_split
I0403 19:20:10.425055  9115 net.cpp:425] loss3/classifier_plantvillage_loss3/classifier_plantvillage_0_split <- loss3/classifier_plantvillage
I0403 19:20:10.425076  9115 net.cpp:399] loss3/classifier_plantvillage_loss3/classifier_plantvillage_0_split -> loss3/classifier_plantvillage_loss3/classifier_plantvillage_0_split_0
I0403 19:20:10.425097  9115 net.cpp:399] loss3/classifier_plantvillage_loss3/classifier_plantvillage_0_split -> loss3/classifier_plantvillage_loss3/classifier_plantvillage_0_split_1
I0403 19:20:10.425117  9115 net.cpp:399] loss3/classifier_plantvillage_loss3/classifier_plantvillage_0_split -> loss3/classifier_plantvillage_loss3/classifier_plantvillage_0_split_2
I0403 19:20:10.425137  9115 net.cpp:399] loss3/classifier_plantvillage_loss3/classifier_plantvillage_0_split -> loss3/classifier_plantvillage_loss3/classifier_plantvillage_0_split_3
I0403 19:20:10.425242  9115 net.cpp:141] Setting up loss3/classifier_plantvillage_loss3/classifier_plantvillage_0_split
I0403 19:20:10.425266  9115 net.cpp:148] Top shape: 24 38 (912)
I0403 19:20:10.425287  9115 net.cpp:148] Top shape: 24 38 (912)
I0403 19:20:10.425304  9115 net.cpp:148] Top shape: 24 38 (912)
I0403 19:20:10.425320  9115 net.cpp:148] Top shape: 24 38 (912)
I0403 19:20:10.425333  9115 net.cpp:156] Memory required for data: 1346079072
I0403 19:20:10.425348  9115 layer_factory.hpp:77] Creating layer loss1/loss
I0403 19:20:10.425369  9115 net.cpp:91] Creating Layer loss1/loss
I0403 19:20:10.425389  9115 net.cpp:425] loss1/loss <- loss1/classifier_plantvillage_loss1/classifier_plantvillage_0_split_0
I0403 19:20:10.425418  9115 net.cpp:425] loss1/loss <- label_data_1_split_0
…
