…
I0403 19:30:37.974165  9324 net.cpp:313] The NetState phase (1) differed from the phase (0) specified by a rule in layer data
I0403 19:30:37.975309  9324 net.cpp:49] Initializing net from parameters: 
state {
  phase: TEST
}
layer {
  name: "data"
  type: "Data"
  top: "data"
  top: "label"
  include {
    phase: TEST
  }
  transform_param {
    mirror: false
    crop_size: 224
    mean_file: "/home/mohanty/data/final_dataset/lmdb/color-50-50/mean.binaryproto"
  }
  data_param {
    source: "/home/mohanty/data/final_dataset/lmdb/color-50-50/test_db"
    batch_size: 24
    backend: LMDB
  }
}
layer {
  name: "conv1/7x7_s2"
  type: "Convolution"
  bottom: "data"
  top: "conv1/7x7_s2"
  param {
    lr_mult: 1
    decay_mult: 1
  }
  param {
    lr_mult: 2
    decay_mult: 0
  }
  convolution_param {
    num_output: 64
    pad: 3
    kernel_size: 7
    stride: 2
    weight_filler {
      type: "xavier"
      std: 0.1
    }
    bias_filler {
      type: "constant"
      value: 0.2
    }
  }
}
layer {
  name: "conv1/relu_7x7"
  type: "ReLU"
  bottom: "conv1/7x7_s2"
  top: "conv1/7x7_s2"
}
layer {
  name: "pool1/3x3_s2"
  type: "Pooling"
  bottom: "conv1/7x7_s2"
  top: "pool1/3x3_s2"
  pooling_param {
    pool: MAX
    kernel_size: 3
    stride: 2
  }
}
layer {
  name: "pool1/norm1"
  type: "LRN"
  bottom: "pool1/3x3_s2"
  top: "pool1/norm1"
  lrn_param {
    local_size: 5
    alpha: 0.0001
    beta: 0.75
  }
}
layer {
  name: "conv2/3x3_reduce"
  type: "Convolution"
  bottom: "pool1/norm1"
  top: "conv2/3x3_reduce"
  param {
    lr_mult: 1
    decay_mult: 1
  }
  param {
    lr_mult: 2
    decay_mult: 0
  }
  convolution_param {
    num_output: 64
    kernel_size: 1
    weight_filler {
      type: "xavier"
      std: 0.1
    }
    bias_filler {
      type: "constant"
      value: 0.2
    }
  }
}
layer {
  name: "conv2/relu_3x3_reduce"
  type: "ReLU"
  bottom: "conv2/3x3_reduce"
  top: "conv2/3x3_reduce"
}
layer {
  name: "conv2/3x3"
  type: "Convolution"
  bottom: "conv2/3x3_reduce"
  top: "conv2/3x3"
  param {
    lr_mult: 1
    decay_mult: 1
  }
  param {
    lr_mult: 2
    decay_mult: 0
  }
  convolution_param {
    num_output: 192
    pad: 1
    kernel_size: 3
    weight_filler {
      type: "xavier"
      std: 0.03
    }
    bias_filler {
      type: "constant"
      value: 0.2
    }
  }
}
layer {
  name: "conv2/relu_3x3"
  type: "ReLU"
  bottom: "conv2/3x3"
  top: "conv2/3x3"
}
layer {
  name: "conv2/norm2"
  type: "LRN"
  bottom: "conv2/3x3"
  top: "conv2/norm2"
  lrn_param {
    local_size: 5
    alpha: 0.0001
    beta: 0.75
  }
}
layer {
  name: "pool2/3x3_s2"
  type: "Pooling"
  bottom: "conv2/norm2"
  top: "pool2/3x3_s2"
  pooling_param {
    pool: MAX
    kernel_size: 3
    stride: 2
  }
}
layer {
  name: "inception_3a/1x1"
  type: "Convolution"
  bottom: "pool2/3x3_s2"
  top: "inception_3a/1x1"
  param {
    lr_mult: 1
    decay_mult: 1
  }
  param {
    lr_mult: 2
    decay_mult: 0
  }
  convolution_param {
    num_output: 64
    kernel_size: 1
    weight_filler {
      type: "xavier"
      std: 0.03
    }
    bias_filler {
      type: "constant"
      value: 0.2
    }
  }
}
layer {
  name: "inception_3a/relu_1x1"
  type: "ReLU"
  bottom: "inception_3a/1x1"
  top: "inception_3a/1x1"
}
layer {
  name: "inception_3a/3x3_reduce"
  type: "Convolution"
  bottom: "pool2/3x3_s2"
  top: "inception_3a/3x3_reduce"
  param {
    lr_mult: 1
    decay_mult: 1
  }
  param {
    lr_mult: 2
    decay_mult: 0
  }
  convolution_param {
    num_output: 96
    kernel_size: 1
    weight_filler {
      type: "xavier"
      std: 0.09
    }
    bias_filler {
      type: "constant"
      value: 0.2
    }
  }
}
layer {
  name: "inception_3a/relu_3x3_reduce"
  type: "ReLU"
  bottom: "inception_3a/3x3_reduce"
  top: "inception_3a/3x3_reduce"
}
layer {
  name: "inception_3a/3x3"
  type: "Convolution"
  bottom: "inception_3a/3x3_reduce"
  top: "inception_3a/3x3"
  param {
    lr_mult: 1
    decay_mult: 1
  }
  param {
    lr_mult: 2
    decay_mult: 0
  }
  convolution_param {
    num_output: 128
    pad: 1
    kernel_size: 3
    weight_filler {
      type: "xavier"
      std: 0.03
    }
    bias_filler {
      type: "constant"
      value: 0.2
    }
  }
}
layer {
  name: "inception_3a/relu_3x3"
  type: "ReLU"
  bottom: "inception_3a/3x3"
  top: "inception_3a/3x3"
}
layer {
  name: "inception_3a/5x5_reduce"
  type: "Convolution"
  bottom: "pool2/3x3_s2"
  top: "inception_3a/5x5_reduce"
  param {
    lr_mult: 1
    decay_mult: 1
  }
  param {
    lr_mult: 2
    decay_mult: 0
  }
  convolution_param {
    num_output: 16
    kernel_size: 1
    weight_filler {
      type: "xavier"
      std: 0.2
    }
    bias_filler {
      type: "constant"
      value: 0.2
    }
  }
}
layer {
  name: "inception_3a/relu_5x5_reduce"
  type: "ReLU"
  bottom: "inception_3a/5x5_reduce"
  top: "inception_3a/5x5_reduce"
}
layer {
  name: "inception_3a/5x5"
  type: "Convolution"
  bottom: "inception_3a/5x5_reduce"
  top: "inception_3a/5x5"
  param {
    lr_mult: 1
    decay_mult: 1
  }
  param {
    lr_mult: 2
    decay_mult: 0
  }
  convolution_param {
    num_output: 32
    pad: 2
    kernel_size: 5
    weight_filler {
      type: "xavier"
      std: 0.03
    }
    bias_filler {
      type: "constant"
      value: 0.2
    }
  }
}
layer {
  name: "inception_3a/relu_5x5"
  type: "ReLU"
  bottom: "inception_3a/5x5"
  top: "inception_3a/5x5"
}
layer {
  name: "inception_3a/pool"
  type: "Pooling"
  bottom: "pool2/3x3_s2"
  top: "inception_3a/pool"
  pooling_param {
    pool: MAX
    kernel_size: 3
    stride: 1
    pad: 1
  }
}
layer {
  name: "inception_3a/pool_proj"
  type: "Convolution"
  bottom: "inception_3a/pool"
  top: "inception_3a/pool_proj"
  param {
    lr_mult: 1
    decay_mult: 1
  }
  param {
    lr_mult: 2
    decay_mult: 0
  }
  convolution_param {
    num_output: 32
    kernel_size: 1
    weight_filler {
      type: "xavier"
      std: 0.1
    }
    bias_filler {
      type: "constant"
      value: 0.2
    }
  }
}
layer {
  name: "inception_3a/relu_pool_proj"
  type: "ReLU"
  bottom: "inception_3a/pool_proj"
  top: "inception_3a/pool_proj"
}
layer {
  name: "inception_3a/output"
  type: "Concat"
  bottom: "inception_3a/1x1"
  bottom: "inception_3a/3x3"
  bottom: "inception_3a/5x5"
  bottom: "inception_3a/pool_proj"
  top: "inception_3a/output"
}
layer {
  name: "inception_3b/1x1"
  type: "Convolution"
  bottom: "inception_3a/output"
  top: "inception_3b/1x1"
  param {
    lr_mult: 1
    decay_mult: 1
  }
  param {
    lr_mult: 2
    decay_mult: 0
  }
  convolution_param {
    num_output: 128
    kernel_size: 1
    weight_filler {
      type: "xavier"
      std: 0.03
    }
    bias_filler {
      type: "constant"
      value: 0.2
    }
  }
}
layer {
  name: "inception_3b/relu_1x1"
  type: "ReLU"
  bottom: "inception_3b/1x1"
  top: "inception_3b/1x1"
}
layer {
  name: "inception_3b/3x3_reduce"
  type: "Convolution"
  bottom: "inception_3a/output"
  top: "inception_3b/3x3_reduce"
  param {
    lr_mult: 1
    decay_mult: 1
  }
  param {
    lr_mult: 2
    decay_mult: 0
  }
  convolution_param {
    num_output: 128
    kernel_size: 1
    weight_filler {
      type: "xavier"
      std: 0.09
    }
    bias_filler {
      type: "constant"
      value: 0.2
    }
  }
}
layer {
  name: "inception_3b/relu_3x3_reduce"
  type: "ReLU"
  bottom: "inception_3b/3x3_reduce"
  top: "inception_3b/3x3_reduce"
}
layer {
  name: "inception_3b/3x3"
  type: "Convolution"
  bottom: "inception_3b/3x3_reduce"
  top: "inception_3b/3x3"
  param {
    lr_mult: 1
    decay_mult: 1
  }
  param {
    lr_mult: 2
    decay_mult: 0
  }
  convolution_param {
    num_output: 192
    pad: 1
    kernel_size: 3
    weight_filler {
      type: "xavier"
      std: 0.03
    }
    bias_filler {
      type: "constant"
      value: 0.2
    }
  }
}
layer {
  name: "inception_3b/relu_3x3"
  type: "ReLU"
  bottom: "inception_3b/3x3"
  top: "inception_3b/3x3"
}
layer {
  name: "inception_3b/5x5_reduce"
  type: "Convolution"
  bottom: "inception_3a/output"
  top: "inception_3b/5x5_reduce"
  param {
    lr_mult: 1
    decay_mult: 1
  }
  param {
    lr_mult: 2
    decay_mult: 0
  }
  convolution_param {
    num_output: 32
    kernel_size: 1
    weight_filler {
      type: "xavier"
      std: 0.2
    }
    bias_filler {
      type: "constant"
      value: 0.2
    }
  }
}
layer {
  name: "inception_3b/relu_5x5_reduce"
  type: "ReLU"
  bottom: "inception_3b/5x5_reduce"
  top: "inception_3b/5x5_reduce"
}
layer {
  name: "inception_3b/5x5"
  type: "Convolution"
  bottom: "inception_3b/5x5_reduce"
  top: "inception_3b/5x5"
  param {
    lr_mult: 1
    decay_mult: 1
  }
  param {
    lr_mult: 2
    decay_mult: 0
  }
  convolution_param {
    num_output: 96
    pad: 2
    kernel_size: 5
    weight_filler {
      type: "xavier"
      std: 0.03
    }
    bias_filler {
      type: "constant"
      value: 0.2
    }
  }
}
layer {
  name: "inception_3b/relu_5x5"
  type: "ReLU"
  bottom: "inception_3b/5x5"
  top: "inception_3b/5x5"
}
layer {
  name: "inception_3b/pool"
  type: "Pooling"
  bottom: "inception_3a/output"
  top: "inception_3b/pool"
  pooling_param {
    pool: MAX
    kernel_size: 3
    stride: 1
    pad: 1
  }
}
layer {
  name: "inception_3b/pool_proj"
  type: "Convolution"
  bottom: "inception_3b/pool"
  top: "inception_3b/pool_proj"
  param {
    lr_mult: 1
    decay_mult: 1
  }
  param {
    lr_mult: 2
    decay_mult: 0
  }
  convolution_param {
    num_output: 64
    kernel_size: 1
    weight_filler {
      type: "xavier"
      std: 0.1
    }
    bias_filler {
      type: "constant"
      value: 0.2
    }
  }
}
layer {
  name: "inception_3b/relu_pool_proj"
  type: "ReLU"
  bottom: "inception_3b/pool_proj"
  top: "inception_3b/pool_proj"
}
layer {
  name: "inception_3b/output"
  type: "Concat"
  bottom: "inception_3b/1x1"
  bottom: "inception_3b/3x3"
  bottom: "inception_3b/5x5"
  bottom: "inception_3b/pool_proj"
  top: "inception_3b/output"
}
layer {
  name: "pool3/3x3_s2"
  type: "Pooling"
  bottom: "inception_3b/output"
  top: "pool3/3x3_s2"
  pooling_param {
    pool: MAX
    kernel_size: 3
    stride: 2
  }
}
layer {
  name: "inception_4a/1x1"
  type: "Convolution"
  bottom: "pool3/3x3_s2"
  top: "inception_4a/1x1"
  param {
    lr_mult: 1
    decay_mult: 1
  }
  param {
    lr_mult: 2
    decay_mult: 0
  }
  convolution_param {
    num_output: 192
    kernel_size: 1
    weight_filler {
      type: "xavier"
      std: 0.03
    }
    bias_filler {
      type: "constant"
      value: 0.2
    }
  }
}
layer {
  name: "inception_4a/relu_1x1"
  type: "ReLU"
  bottom: "inception_4a/1x1"
  top: "inception_4a/1x1"
}
layer {
  name: "inception_4a/3x3_reduce"
  type: "Convolution"
  bottom: "pool3/3x3_s2"
  top: "inception_4a/3x3_reduce"
  param {
    lr_mult: 1
    decay_mult: 1
  }
  param {
    lr_mult: 2
    decay_mult: 0
  }
  convolution_param {
    num_output: 96
    kernel_size: 1
    weight_filler {
      type: "xavier"
      std: 0.09
    }
    bias_filler {
      type: "constant"
      value: 0.2
    }
  }
}
layer {
  name: "inception_4a/relu_3x3_reduce"
  type: "ReLU"
  bottom: "inception_4a/3x3_reduce"
  top: "inception_4a/3x3_reduce"
}
layer {
  name: "inception_4a/3x3"
  type: "Convolution"
  bottom: "inception_4a/3x3_reduce"
  top: "inception_4a/3x3"
  param {
    lr_mult: 1
    decay_mult: 1
  }
  param {
    lr_mult: 2
    decay_mult: 0
  }
  convolution_param {
    num_output: 208
    pad: 1
    kernel_size: 3
    weight_filler {
      type: "xavier"
      std: 0.03
    }
    bias_filler {
      type: "constant"
      value: 0.2
    }
  }
}
layer {
  name: "inception_4a/relu_3x3"
  type: "ReLU"
  bottom: "inception_4a/3x3"
  top: "inception_4a/3x3"
}
layer {
  name: "inception_4a/5x5_reduce"
  type: "Convolution"
  bottom: "pool3/3x3_s2"
  top: "inception_4a/5x5_reduce"
  param {
    lr_mult: 1
    decay_mult: 1
  }
  param {
    lr_mult: 2
    decay_mult: 0
  }
  convolution_param {
    num_output: 16
    kernel_size: 1
    weight_filler {
      type: "xavier"
      std: 0.2
    }
    bias_filler {
      type: "constant"
      value: 0.2
    }
  }
}
layer {
  name: "inception_4a/relu_5x5_reduce"
  type: "ReLU"
  bottom: "inception_4a/5x5_reduce"
  top: "inception_4a/5x5_reduce"
}
layer {
  name: "inception_4a/5x5"
  type: "Convolution"
  bottom: "inception_4a/5x5_reduce"
  top: "inception_4a/5x5"
  param {
    lr_mult: 1
    decay_mult: 1
  }
  param {
    lr_mult: 2
    decay_mult: 0
  }
  convolution_param {
    num_output: 48
    pad: 2
    kernel_size: 5
    weight_filler {
      type: "xavier"
      std: 0.03
    }
    bias_filler {
      type: "constant"
      value: 0.2
    }
  }
}
layer {
  name: "inception_4a/relu_5x5"
  type: "ReLU"
  bottom: "inception_4a/5x5"
  top: "inception_4a/5x5"
}
layer {
  name: "inception_4a/pool"
  type: "Pooling"
  bottom: "pool3/3x3_s2"
  top: "inception_4a/pool"
  pooling_param {
    pool: MAX
    kernel_size: 3
    stride: 1
    pad: 1
  }
}
layer {
  name: "inception_4a/pool_proj"
  type: "Convolution"
  bottom: "inception_4a/pool"
  top: "inception_4a/pool_proj"
  param {
    lr_mult: 1
    decay_mult: 1
  }
  param {
    lr_mult: 2
    decay_mult: 0
  }
  convolution_param {
    num_output: 64
    kernel_size: 1
    weight_filler {
      type: "xavier"
      std: 0.1
    }
    bias_filler {
      type: "constant"
      value: 0.2
    }
  }
}
layer {
  name: "inception_4a/relu_pool_proj"
  type: "ReLU"
  bottom: "inception_4a/pool_proj"
  top: "inception_4a/pool_proj"
}
layer {
  name: "inception_4a/output"
  type: "Concat"
  bottom: "inception_4a/1x1"
  bottom: "inception_4a/3x3"
  bottom: "inception_4a/5x5"
  bottom: "inception_4a/pool_proj"
  top: "inception_4a/output"
}
layer {
  name: "loss1/ave_pool"
  type: "Pooling"
  bottom: "inception_4a/output"
  top: "loss1/ave_pool"
  pooling_param {
    pool: AVE
    kernel_size: 5
    stride: 3
  }
}
layer {
  name: "loss1/conv"
  type: "Convolution"
  bottom: "loss1/ave_pool"
  top: "loss1/conv"
  param {
    lr_mult: 1
    decay_mult: 1
  }
  param {
    lr_mult: 2
    decay_mult: 0
  }
  convolution_param {
    num_output: 128
    kernel_size: 1
    weight_filler {
      type: "xavier"
      std: 0.08
    }
    bias_filler {
      type: "constant"
      value: 0.2
    }
  }
}
layer {
  name: "loss1/relu_conv"
  type: "ReLU"
  bottom: "loss1/conv"
  top: "loss1/conv"
}
layer {
  name: "loss1/fc"
  type: "InnerProduct"
  bottom: "loss1/conv"
  top: "loss1/fc"
  param {
    lr_mult: 1
    decay_mult: 1
  }
  param {
    lr_mult: 2
    decay_mult: 0
  }
  inner_product_param {
    num_output: 1024
    weight_filler {
      type: "xavier"
      std: 0.02
    }
    bias_filler {
      type: "constant"
      value: 0.2
    }
  }
}
layer {
  name: "loss1/relu_fc"
  type: "ReLU"
  bottom: "loss1/fc"
  top: "loss1/fc"
}
layer {
  name: "loss1/drop_fc"
  type: "Dropout"
  bottom: "loss1/fc"
  top: "loss1/fc"
  dropout_param {
    dropout_ratio: 0.7
  }
}
layer {
  name: "loss1/classifier_plantvillage"
  type: "InnerProduct"
  bottom: "loss1/fc"
  top: "loss1/classifier_plantvillage"
  param {
    lr_mult: 1
    decay_mult: 1
  }
  param {
    lr_mult: 2
    decay_mult: 0
  }
  inner_product_param {
    num_output: 38
    weight_filler {
      type: "xavier"
      std: 0.0009765625
    }
    bias_filler {
      type: "constant"
      value: 0
    }
  }
}
layer {
  name: "inception_4b/1x1"
  type: "Convolution"
  bottom: "inception_4a/output"
  top: "inception_4b/1x1"
  param {
    lr_mult: 1
    decay_mult: 1
  }
  param {
    lr_mult: 2
    decay_mult: 0
  }
  convolution_param {
    num_output: 160
    kernel_size: 1
    weight_filler {
      type: "xavier"
      std: 0.03
    }
    bias_filler {
      type: "constant"
      value: 0.2
    }
  }
}
layer {
  name: "inception_4b/relu_1x1"
  type: "ReLU"
  bottom: "inception_4b/1x1"
  top: "inception_4b/1x1"
}
layer {
  name: "inception_4b/3x3_reduce"
  type: "Convolution"
  bottom: "inception_4a/output"
  top: "inception_4b/3x3_reduce"
  param {
    lr_mult: 1
    decay_mult: 1
  }
  param {
    lr_mult: 2
    decay_mult: 0
  }
  convolution_param {
    num_output: 112
    kernel_size: 1
    weight_filler {
      type: "xavier"
      std: 0.09
    }
    bias_filler {
      type: "constant"
      value: 0.2
    }
  }
}
layer {
  name: "inception_4b/relu_3x3_reduce"
  type: "ReLU"
  bottom: "inception_4b/3x3_reduce"
  top: "inception_4b/3x3_reduce"
}
layer {
  name: "inception_4b/3x3"
  type: "Convolution"
  bottom: "inception_4b/3x3_reduce"
  top: "inception_4b/3x3"
  param {
    lr_mult: 1
    decay_mult: 1
  }
  param {
    lr_mult: 2
    decay_mult: 0
  }
  convolution_param {
    num_output: 224
    pad: 1
    kernel_size: 3
    weight_filler {
      type: "xavier"
      std: 0.03
    }
    bias_filler {
      type: "constant"
      value: 0.2
    }
  }
}
layer {
  name: "inception_4b/relu_3x3"
  type: "ReLU"
  bottom: "inception_4b/3x3"
  top: "inception_4b/3x3"
}
layer {
  name: "inception_4b/5x5_reduce"
  type: "Convolution"
  bottom: "inception_4a/output"
  top: "inception_4b/5x5_reduce"
  param {
    lr_mult: 1
    decay_mult: 1
  }
  param {
    lr_mult: 2
    decay_mult: 0
  }
  convolution_param {
    num_output: 24
    kernel_size: 1
    weight_filler {
      type: "xavier"
      std: 0.2
    }
    bias_filler {
      type: "constant"
      value: 0.2
    }
  }
}
layer {
  name: "inception_4b/relu_5x5_reduce"
  type: "ReLU"
  bottom: "inception_4b/5x5_reduce"
  top: "inception_4b/5x5_reduce"
}
layer {
  name: "inception_4b/5x5"
  type: "Convolution"
  bottom: "inception_4b/5x5_reduce"
  top: "inception_4b/5x5"
  param {
    lr_mult: 1
    decay_mult: 1
  }
  param {
    lr_mult: 2
    decay_mult: 0
  }
  convolution_param {
    num_output: 64
    pad: 2
    kernel_size: 5
    weight_filler {
      type: "xavier"
      std: 0.03
    }
    bias_filler {
      type: "constant"
      value: 0.2
    }
  }
}
layer {
  name: "inception_4b/relu_5x5"
  type: "ReLU"
  bottom: "inception_4b/5x5"
  top: "inception_4b/5x5"
}
layer {
  name: "inception_4b/pool"
  type: "Pooling"
  bottom: "inception_4a/output"
  top: "inception_4b/pool"
  pooling_param {
    pool: MAX
    kernel_size: 3
    stride: 1
    pad: 1
  }
}
layer {
  name: "inception_4b/pool_proj"
  type: "Convolution"
  bottom: "inception_4b/pool"
  top: "inception_4b/pool_proj"
  param {
    lr_mult: 1
    decay_mult: 1
  }
  param {
    lr_mult: 2
    decay_mult: 0
  }
  convolution_param {
    num_output: 64
    kernel_size: 1
    weight_filler {
      type: "xavier"
      std: 0.1
    }
    bias_filler {
      type: "constant"
      value: 0.2
    }
  }
}
layer {
  name: "inception_4b/relu_pool_proj"
  type: "ReLU"
  bottom: "inception_4b/pool_proj"
  top: "inception_4b/pool_proj"
}
layer {
  name: "inception_4b/output"
  type: "Concat"
  bottom: "inception_4b/1x1"
  bottom: "inception_4b/3x3"
  bottom: "inception_4b/5x5"
  bottom: "inception_4b/pool_proj"
  top: "inception_4b/output"
}
layer {
  name: "inception_4c/1x1"
  type: "Convolution"
  bottom: "inception_4b/output"
  top: "inception_4c/1x1"
  param {
    lr_mult: 1
    decay_mult: 1
  }
  param {
    lr_mult: 2
    decay_mult: 0
  }
  convolution_param {
    num_output: 128
    kernel_size: 1
    weight_filler {
      type: "xavier"
      std: 0.03
    }
    bias_filler {
      type: "constant"
      value: 0.2
    }
  }
}
layer {
  name: "inception_4c/relu_1x1"
  type: "ReLU"
  bottom: "inception_4c/1x1"
  top: "inception_4c/1x1"
}
layer {
  name: "inception_4c/3x3_reduce"
  type: "Convolution"
  bottom: "inception_4b/output"
  top: "inception_4c/3x3_reduce"
  param {
    lr_mult: 1
    decay_mult: 1
  }
  param {
    lr_mult: 2
    decay_mult: 0
  }
  convolution_param {
    num_output: 128
    kernel_size: 1
    weight_filler {
      type: "xavier"
      std: 0.09
    }
    bias_filler {
      type: "constant"
      value: 0.2
    }
  }
}
layer {
  name: "inception_4c/relu_3x3_reduce"
  type: "ReLU"
  bottom: "inception_4c/3x3_reduce"
  top: "inception_4c/3x3_reduce"
}
layer {
  name: "inception_4c/3x3"
  type: "Convolution"
  bottom: "inception_4c/3x3_reduce"
  top: "inception_4c/3x3"
  param {
    lr_mult: 1
    decay_mult: 1
  }
  param {
    lr_mult: 2
    decay_mult: 0
  }
  convolution_param {
    num_output: 256
    pad: 1
    kernel_size: 3
    weight_filler {
      type: "xavier"
      std: 0.03
    }
    bias_filler {
      type: "constant"
      value: 0.2
    }
  }
}
layer {
  name: "inception_4c/relu_3x3"
  type: "ReLU"
  bottom: "inception_4c/3x3"
  top: "inception_4c/3x3"
}
layer {
  name: "inception_4c/5x5_reduce"
  type: "Convolution"
  bottom: "inception_4b/output"
  top: "inception_4c/5x5_reduce"
  param {
    lr_mult: 1
    decay_mult: 1
  }
  param {
    lr_mult: 2
    decay_mult: 0
  }
  convolution_param {
    num_output: 24
    kernel_size: 1
    weight_filler {
      type: "xavier"
      std: 0.2
    }
    bias_filler {
      type: "constant"
      value: 0.2
    }
  }
}
layer {
  name: "inception_4c/relu_5x5_reduce"
  type: "ReLU"
  bottom: "inception_4c/5x5_reduce"
  top: "inception_4c/5x5_reduce"
}
layer {
  name: "inception_4c/5x5"
  type: "Convolution"
  bottom: "inception_4c/5x5_reduce"
  top: "inception_4c/5x5"
  param {
    lr_mult: 1
    decay_mult: 1
  }
  param {
    lr_mult: 2
    decay_mult: 0
  }
  convolution_param {
    num_output: 64
    pad: 2
    kernel_size: 5
    weight_filler {
      type: "xavier"
      std: 0.03
    }
    bias_filler {
      type: "constant"
      value: 0.2
    }
  }
}
layer {
  name: "inception_4c/relu_5x5"
  type: "ReLU"
  bottom: "inception_4c/5x5"
  top: "inception_4c/5x5"
}
layer {
  name: "inception_4c/pool"
  type: "Pooling"
  bottom: "inception_4b/output"
  top: "inception_4c/pool"
  pooling_param {
    pool: MAX
    kernel_size: 3
    stride: 1
    pad: 1
  }
}
layer {
  name: "inception_4c/pool_proj"
  type: "Convolution"
  bottom: "inception_4c/pool"
  top: "inception_4c/pool_proj"
  param {
    lr_mult: 1
    decay_mult: 1
  }
  param {
    lr_mult: 2
    decay_mult: 0
  }
  convolution_param {
    num_output: 64
    kernel_size: 1
    weight_filler {
      type: "xavier"
      std: 0.1
    }
    bias_filler {
      type: "constant"
      value: 0.2
    }
  }
}
layer {
  name: "inception_4c/relu_pool_proj"
  type: "ReLU"
  bottom: "inception_4c/pool_proj"
  top: "inception_4c/pool_proj"
}
layer {
  name: "inception_4c/output"
  type: "Concat"
  bottom: "inception_4c/1x1"
  bottom: "inception_4c/3x3"
  bottom: "inception_4c/5x5"
  bottom: "inception_4c/pool_proj"
  top: "inception_4c/output"
}
layer {
  name: "inception_4d/1x1"
  type: "Convolution"
  bottom: "inception_4c/output"
  top: "inception_4d/1x1"
  param {
    lr_mult: 1
    decay_mult: 1
  }
  param {
    lr_mult: 2
    decay_mult: 0
  }
  convolution_param {
    num_output: 112
    kernel_size: 1
    weight_filler {
      type: "xavier"
      std: 0.03
    }
    bias_filler {
      type: "constant"
      value: 0.2
    }
  }
}
layer {
  name: "inception_4d/relu_1x1"
  type: "ReLU"
  bottom: "inception_4d/1x1"
  top: "inception_4d/1x1"
}
layer {
  name: "inception_4d/3x3_reduce"
  type: "Convolution"
  bottom: "inception_4c/output"
  top: "inception_4d/3x3_reduce"
  param {
    lr_mult: 1
    decay_mult: 1
  }
  param {
    lr_mult: 2
    decay_mult: 0
  }
  convolution_param {
    num_output: 144
    kernel_size: 1
    weight_filler {
      type: "xavier"
      std: 0.09
    }
    bias_filler {
      type: "constant"
      value: 0.2
    }
  }
}
layer {
  name: "inception_4d/relu_3x3_reduce"
  type: "ReLU"
  bottom: "inception_4d/3x3_reduce"
  top: "inception_4d/3x3_reduce"
}
layer {
  name: "inception_4d/3x3"
  type: "Convolution"
  bottom: "inception_4d/3x3_reduce"
  top: "inception_4d/3x3"
  param {
    lr_mult: 1
    decay_mult: 1
  }
  param {
    lr_mult: 2
    decay_mult: 0
  }
  convolution_param {
    num_output: 288
    pad: 1
    kernel_size: 3
    weight_filler {
      type: "xavier"
      std: 0.03
    }
    bias_filler {
      type: "constant"
      value: 0.2
    }
  }
}
layer {
  name: "inception_4d/relu_3x3"
  type: "ReLU"
  bottom: "inception_4d/3x3"
  top: "inception_4d/3x3"
}
layer {
  name: "inception_4d/5x5_reduce"
  type: "Convolution"
  bottom: "inception_4c/output"
  top: "inception_4d/5x5_reduce"
  param {
    lr_mult: 1
    decay_mult: 1
  }
  param {
    lr_mult: 2
    decay_mult: 0
  }
  convolution_param {
    num_output: 32
    kernel_size: 1
    weight_filler {
      type: "xavier"
      std: 0.2
    }
    bias_filler {
      type: "constant"
      value: 0.2
    }
  }
}
layer {
  name: "inception_4d/relu_5x5_reduce"
  type: "ReLU"
  bottom: "inception_4d/5x5_reduce"
  top: "inception_4d/5x5_reduce"
}
layer {
  name: "inception_4d/5x5"
  type: "Convolution"
  bottom: "inception_4d/5x5_reduce"
  top: "inception_4d/5x5"
  param {
    lr_mult: 1
    decay_mult: 1
  }
  param {
    lr_mult: 2
    decay_mult: 0
  }
  convolution_param {
    num_output: 64
    pad: 2
    kernel_size: 5
    weight_filler {
      type: "xavier"
      std: 0.03
    }
    bias_filler {
      type: "constant"
      value: 0.2
    }
  }
}
layer {
  name: "inception_4d/relu_5x5"
  type: "ReLU"
  bottom: "inception_4d/5x5"
  top: "inception_4d/5x5"
}
layer {
  name: "inception_4d/pool"
  type: "Pooling"
  bottom: "inception_4c/output"
  top: "inception_4d/pool"
  pooling_param {
    pool: MAX
    kernel_size: 3
    stride: 1
    pad: 1
  }
}
layer {
  name: "inception_4d/pool_proj"
  type: "Convolution"
  bottom: "inception_4d/pool"
  top: "inception_4d/pool_proj"
  param {
    lr_mult: 1
    decay_mult: 1
  }
  param {
    lr_mult: 2
    decay_mult: 0
  }
  convolution_param {
    num_output: 64
    kernel_size: 1
    weight_filler {
      type: "xavier"
      std: 0.1
    }
    bias_filler {
      type: "constant"
      value: 0.2
    }
  }
}
layer {
  name: "inception_4d/relu_pool_proj"
  type: "ReLU"
  bottom: "inception_4d/pool_proj"
  top: "inception_4d/pool_proj"
}
layer {
  name: "inception_4d/output"
  type: "Concat"
  bottom: "inception_4d/1x1"
  bottom: "inception_4d/3x3"
  bottom: "inception_4d/5x5"
  bottom: "inception_4d/pool_proj"
  top: "inception_4d/output"
}
layer {
  name: "loss2/ave_pool"
  type: "Pooling"
  bottom: "inception_4d/output"
  top: "loss2/ave_pool"
  pooling_param {
    pool: AVE
    kernel_size: 5
    stride: 3
  }
}
layer {
  name: "loss2/conv"
  type: "Convolution"
  bottom: "loss2/ave_pool"
  top: "loss2/conv"
  param {
    lr_mult: 1
    decay_mult: 1
  }
  param {
    lr_mult: 2
    decay_mult: 0
  }
  convolution_param {
    num_output: 128
    kernel_size: 1
    weight_filler {
      type: "xavier"
      std: 0.08
    }
    bias_filler {
      type: "constant"
      value: 0.2
    }
  }
}
layer {
  name: "loss2/relu_conv"
  type: "ReLU"
  bottom: "loss2/conv"
  top: "loss2/conv"
}
layer {
  name: "loss2/fc"
  type: "InnerProduct"
  bottom: "loss2/conv"
  top: "loss2/fc"
  param {
    lr_mult: 1
    decay_mult: 1
  }
  param {
    lr_mult: 2
    decay_mult: 0
  }
  inner_product_param {
    num_output: 1024
    weight_filler {
      type: "xavier"
      std: 0.02
    }
    bias_filler {
      type: "constant"
      value: 0.2
    }
  }
}
layer {
  name: "loss2/relu_fc"
  type: "ReLU"
  bottom: "loss2/fc"
  top: "loss2/fc"
}
layer {
  name: "loss2/drop_fc"
  type: "Dropout"
  bottom: "loss2/fc"
  top: "loss2/fc"
  dropout_param {
    dropout_ratio: 0.7
  }
}
layer {
  name: "loss2/classifier_plantvillage"
  type: "InnerProduct"
  bottom: "loss2/fc"
  top: "loss2/classifier_plantvillage"
  param {
    lr_mult: 1
    decay_mult: 1
  }
  param {
    lr_mult: 2
    decay_mult: 0
  }
  inner_product_param {
    num_output: 38
    weight_filler {
      type: "xavier"
      std: 0.0009765625
    }
    bias_filler {
      type: "constant"
      value: 0
    }
  }
}
layer {
  name: "inception_4e/1x1"
  type: "Convolution"
  bottom: "inception_4d/output"
  top: "inception_4e/1x1"
  param {
    lr_mult: 1
    decay_mult: 1
  }
  param {
    lr_mult: 2
    decay_mult: 0
  }
  convolution_param {
    num_output: 256
    kernel_size: 1
    weight_filler {
      type: "xavier"
      std: 0.03
    }
    bias_filler {
      type: "constant"
      value: 0.2
    }
  }
}
layer {
  name: "inception_4e/relu_1x1"
  type: "ReLU"
  bottom: "inception_4e/1x1"
  top: "inception_4e/1x1"
}
layer {
  name: "inception_4e/3x3_reduce"
  type: "Convolution"
  bottom: "inception_4d/output"
  top: "inception_4e/3x3_reduce"
  param {
    lr_mult: 1
    decay_mult: 1
  }
  param {
    lr_mult: 2
    decay_mult: 0
  }
  convolution_param {
    num_output: 160
    kernel_size: 1
    weight_filler {
      type: "xavier"
      std: 0.09
    }
    bias_filler {
      type: "constant"
      value: 0.2
    }
  }
}
layer {
  name: "inception_4e/relu_3x3_reduce"
  type: "ReLU"
  bottom: "inception_4e/3x3_reduce"
  top: "inception_4e/3x3_reduce"
}
layer {
  name: "inception_4e/3x3"
  type: "Convolution"
  bottom: "inception_4e/3x3_reduce"
  top: "inception_4e/3x3"
  param {
    lr_mult: 1
    decay_mult: 1
  }
  param {
    lr_mult: 2
    decay_mult: 0
  }
  convolution_param {
    num_output: 320
    pad: 1
    kernel_size: 3
    weight_filler {
      type: "xavier"
      std: 0.03
    }
    bias_filler {
      type: "constant"
      value: 0.2
    }
  }
}
layer {
  name: "inception_4e/relu_3x3"
  type: "ReLU"
  bottom: "inception_4e/3x3"
  top: "inception_4e/3x3"
}
layer {
  name: "inception_4e/5x5_reduce"
  type: "Convolution"
  bottom: "inception_4d/output"
  top: "inception_4e/5x5_reduce"
  param {
    lr_mult: 1
    decay_mult: 1
  }
  param {
    lr_mult: 2
    decay_mult: 0
  }
  convolution_param {
    num_output: 32
    kernel_size: 1
    weight_filler {
      type: "xavier"
      std: 0.2
    }
    bias_filler {
      type: "constant"
      value: 0.2
    }
  }
}
layer {
  name: "inception_4e/relu_5x5_reduce"
  type: "ReLU"
  bottom: "inception_4e/5x5_reduce"
  top: "inception_4e/5x5_reduce"
}
layer {
  name: "inception_4e/5x5"
  type: "Convolution"
  bottom: "inception_4e/5x5_reduce"
  top: "inception_4e/5x5"
  p
I0403 19:30:37.976819  9324 layer_factory.hpp:77] Creating layer data
I0403 19:30:37.977430  9324 net.cpp:91] Creating Layer data
I0403 19:30:37.977464  9324 net.cpp:399] data -> data
I0403 19:30:37.977516  9324 net.cpp:399] data -> label
I0403 19:30:37.977552  9324 data_transformer.cpp:25] Loading mean file from: /home/mohanty/data/final_dataset/lmdb/color-50-50/mean.binaryproto
I0403 19:30:37.978663  9326 db_lmdb.cpp:38] Opened lmdb /home/mohanty/data/final_dataset/lmdb/color-50-50/test_db
I0403 19:30:37.991116  9324 data_layer.cpp:41] output data size: 24,3,224,224
I0403 19:30:38.018993  9324 net.cpp:141] Setting up data
I0403 19:30:38.019084  9324 net.cpp:148] Top shape: 24 3 224 224 (3612672)
I0403 19:30:38.019115  9324 net.cpp:148] Top shape: 24 (24)
I0403 19:30:38.019134  9324 net.cpp:156] Memory required for data: 14450784
I0403 19:30:38.019165  9324 layer_factory.hpp:77] Creating layer label_data_1_split
I0403 19:30:38.019194  9324 net.cpp:91] Creating Layer label_data_1_split
I0403 19:30:38.019213  9324 net.cpp:425] label_data_1_split <- label
I0403 19:30:38.019248  9324 net.cpp:399] label_data_1_split -> label_data_1_split_0
I0403 19:30:38.019280  9324 net.cpp:399] label_data_1_split -> label_data_1_split_1
I0403 19:30:38.019306  9324 net.cpp:399] label_data_1_split -> label_data_1_split_2
I0403 19:30:38.019328  9324 net.cpp:399] label_data_1_split -> label_data_1_split_3
I0403 19:30:38.019351  9324 net.cpp:399] label_data_1_split -> label_data_1_split_4
I0403 19:30:38.019371  9324 net.cpp:399] label_data_1_split -> label_data_1_split_5
I0403 19:30:38.019392  9324 net.cpp:399] label_data_1_split -> label_data_1_split_6
I0403 19:30:38.019413  9324 net.cpp:399] label_data_1_split -> label_data_1_split_7
I0403 19:30:38.019434  9324 net.cpp:399] label_data_1_split -> label_data_1_split_8
I0403 19:30:38.019455  9324 net.cpp:399] label_data_1_split -> label_data_1_split_9
I0403 19:30:38.019577  9324 net.cpp:141] Setting up label_data_1_split
I0403 19:30:38.019601  9324 net.cpp:148] Top shape: 24 (24)
I0403 19:30:38.019618  9324 net.cpp:148] Top shape: 24 (24)
I0403 19:30:38.019635  9324 net.cpp:148] Top shape: 24 (24)
I0403 19:30:38.019651  9324 net.cpp:148] Top shape: 24 (24)
I0403 19:30:38.019667  9324 net.cpp:148] Top shape: 24 (24)
I0403 19:30:38.019683  9324 net.cpp:148] Top shape: 24 (24)
I0403 19:30:38.019700  9324 net.cpp:148] Top shape: 24 (24)
I0403 19:30:38.019716  9324 net.cpp:148] Top shape: 24 (24)
I0403 19:30:38.019731  9324 net.cpp:148] Top shape: 24 (24)
I0403 19:30:38.019747  9324 net.cpp:148] Top shape: 24 (24)
I0403 19:30:38.019793  9324 net.cpp:156] Memory required for data: 14451744
I0403 19:30:38.019809  9324 layer_factory.hpp:77] Creating layer conv1/7x7_s2
I0403 19:30:38.019842  9324 net.cpp:91] Creating Layer conv1/7x7_s2
I0403 19:30:38.019861  9324 net.cpp:425] conv1/7x7_s2 <- data
I0403 19:30:38.019881  9324 net.cpp:399] conv1/7x7_s2 -> conv1/7x7_s2
I0403 19:30:38.160048  9324 net.cpp:141] Setting up conv1/7x7_s2
I0403 19:30:38.160120  9324 net.cpp:148] Top shape: 24 64 112 112 (19267584)
I0403 19:30:38.160137  9324 net.cpp:156] Memory required for data: 91522080
I0403 19:30:38.160169  9324 layer_factory.hpp:77] Creating layer conv1/relu_7x7
I0403 19:30:38.160197  9324 net.cpp:91] Creating Layer conv1/relu_7x7
I0403 19:30:38.160217  9324 net.cpp:425] conv1/relu_7x7 <- conv1/7x7_s2
I0403 19:30:38.160235  9324 net.cpp:386] conv1/relu_7x7 -> conv1/7x7_s2 (in-place)
I0403 19:30:38.160506  9324 net.cpp:141] Setting up conv1/relu_7x7
I0403 19:30:38.160533  9324 net.cpp:148] Top shape: 24 64 112 112 (19267584)
I0403 19:30:38.160548  9324 net.cpp:156] Memory required for data: 168592416
I0403 19:30:38.160564  9324 layer_factory.hpp:77] Creating layer pool1/3x3_s2
I0403 19:30:38.160589  9324 net.cpp:91] Creating Layer pool1/3x3_s2
I0403 19:30:38.160607  9324 net.cpp:425] pool1/3x3_s2 <- conv1/7x7_s2
I0403 19:30:38.160625  9324 net.cpp:399] pool1/3x3_s2 -> pool1/3x3_s2
I0403 19:30:38.160701  9324 net.cpp:141] Setting up pool1/3x3_s2
I0403 19:30:38.160725  9324 net.cpp:148] Top shape: 24 64 56 56 (4816896)
I0403 19:30:38.160742  9324 net.cpp:156] Memory required for data: 187860000
I0403 19:30:38.160756  9324 layer_factory.hpp:77] Creating layer pool1/norm1
I0403 19:30:38.160781  9324 net.cpp:91] Creating Layer pool1/norm1
I0403 19:30:38.160799  9324 net.cpp:425] pool1/norm1 <- pool1/3x3_s2
I0403 19:30:38.160817  9324 net.cpp:399] pool1/norm1 -> pool1/norm1
I0403 19:30:38.161116  9324 net.cpp:141] Setting up pool1/norm1
I0403 19:30:38.161144  9324 net.cpp:148] Top shape: 24 64 56 56 (4816896)
I0403 19:30:38.161159  9324 net.cpp:156] Memory required for data: 207127584
I0403 19:30:38.161175  9324 layer_factory.hpp:77] Creating layer conv2/3x3_reduce
I0403 19:30:38.161200  9324 net.cpp:91] Creating Layer conv2/3x3_reduce
I0403 19:30:38.161216  9324 net.cpp:425] conv2/3x3_reduce <- pool1/norm1
I0403 19:30:38.161237  9324 net.cpp:399] conv2/3x3_reduce -> conv2/3x3_reduce
I0403 19:30:38.162602  9324 net.cpp:141] Setting up conv2/3x3_reduce
I0403 19:30:38.162632  9324 net.cpp:148] Top shape: 24 64 56 56 (4816896)
I0403 19:30:38.162647  9324 net.cpp:156] Memory required for data: 226395168
I0403 19:30:38.162668  9324 layer_factory.hpp:77] Creating layer conv2/relu_3x3_reduce
I0403 19:30:38.162690  9324 net.cpp:91] Creating Layer conv2/relu_3x3_reduce
I0403 19:30:38.162706  9324 net.cpp:425] conv2/relu_3x3_reduce <- conv2/3x3_reduce
I0403 19:30:38.162726  9324 net.cpp:386] conv2/relu_3x3_reduce -> conv2/3x3_reduce (in-place)
I0403 19:30:38.162983  9324 net.cpp:141] Setting up conv2/relu_3x3_reduce
I0403 19:30:38.163010  9324 net.cpp:148] Top shape: 24 64 56 56 (4816896)
I0403 19:30:38.163027  9324 net.cpp:156] Memory required for data: 245662752
I0403 19:30:38.163041  9324 layer_factory.hpp:77] Creating layer conv2/3x3
I0403 19:30:38.163064  9324 net.cpp:91] Creating Layer conv2/3x3
I0403 19:30:38.163081  9324 net.cpp:425] conv2/3x3 <- conv2/3x3_reduce
I0403 19:30:38.163100  9324 net.cpp:399] conv2/3x3 -> conv2/3x3
I0403 19:30:38.165397  9324 net.cpp:141] Setting up conv2/3x3
I0403 19:30:38.165429  9324 net.cpp:148] Top shape: 24 192 56 56 (14450688)
I0403 19:30:38.165447  9324 net.cpp:156] Memory required for data: 303465504
I0403 19:30:38.165470  9324 layer_factory.hpp:77] Creating layer conv2/relu_3x3
I0403 19:30:38.165490  9324 net.cpp:91] Creating Layer conv2/relu_3x3
I0403 19:30:38.165508  9324 net.cpp:425] conv2/relu_3x3 <- conv2/3x3
I0403 19:30:38.165525  9324 net.cpp:386] conv2/relu_3x3 -> conv2/3x3 (in-place)
I0403 19:30:38.165705  9324 net.cpp:141] Setting up conv2/relu_3x3
I0403 19:30:38.165730  9324 net.cpp:148] Top shape: 24 192 56 56 (14450688)
I0403 19:30:38.165776  9324 net.cpp:156] Memory required for data: 361268256
I0403 19:30:38.165792  9324 layer_factory.hpp:77] Creating layer conv2/norm2
I0403 19:30:38.165812  9324 net.cpp:91] Creating Layer conv2/norm2
I0403 19:30:38.165827  9324 net.cpp:425] conv2/norm2 <- conv2/3x3
I0403 19:30:38.165846  9324 net.cpp:399] conv2/norm2 -> conv2/norm2
I0403 19:30:38.166146  9324 net.cpp:141] Setting up conv2/norm2
I0403 19:30:38.166175  9324 net.cpp:148] Top shape: 24 192 56 56 (14450688)
I0403 19:30:38.166190  9324 net.cpp:156] Memory required for data: 419071008
I0403 19:30:38.166205  9324 layer_factory.hpp:77] Creating layer pool2/3x3_s2
I0403 19:30:38.166223  9324 net.cpp:91] Creating Layer pool2/3x3_s2
I0403 19:30:38.166237  9324 net.cpp:425] pool2/3x3_s2 <- conv2/norm2
I0403 19:30:38.166255  9324 net.cpp:399] pool2/3x3_s2 -> pool2/3x3_s2
I0403 19:30:38.166308  9324 net.cpp:141] Setting up pool2/3x3_s2
I0403 19:30:38.166332  9324 net.cpp:148] Top shape: 24 192 28 28 (3612672)
I0403 19:30:38.166347  9324 net.cpp:156] Memory required for data: 433521696
I0403 19:30:38.166369  9324 layer_factory.hpp:77] Creating layer pool2/3x3_s2_pool2/3x3_s2_0_split
I0403 19:30:38.166388  9324 net.cpp:91] Creating Layer pool2/3x3_s2_pool2/3x3_s2_0_split
I0403 19:30:38.166402  9324 net.cpp:425] pool2/3x3_s2_pool2/3x3_s2_0_split <- pool2/3x3_s2
I0403 19:30:38.166419  9324 net.cpp:399] pool2/3x3_s2_pool2/3x3_s2_0_split -> pool2/3x3_s2_pool2/3x3_s2_0_split_0
I0403 19:30:38.166440  9324 net.cpp:399] pool2/3x3_s2_pool2/3x3_s2_0_split -> pool2/3x3_s2_pool2/3x3_s2_0_split_1
I0403 19:30:38.166458  9324 net.cpp:399] pool2/3x3_s2_pool2/3x3_s2_0_split -> pool2/3x3_s2_pool2/3x3_s2_0_split_2
I0403 19:30:38.166477  9324 net.cpp:399] pool2/3x3_s2_pool2/3x3_s2_0_split -> pool2/3x3_s2_pool2/3x3_s2_0_split_3
I0403 19:30:38.166540  9324 net.cpp:141] Setting up pool2/3x3_s2_pool2/3x3_s2_0_split
I0403 19:30:38.166561  9324 net.cpp:148] Top shape: 24 192 28 28 (3612672)
I0403 19:30:38.166579  9324 net.cpp:148] Top shape: 24 192 28 28 (3612672)
I0403 19:30:38.166594  9324 net.cpp:148] Top shape: 24 192 28 28 (3612672)
I0403 19:30:38.166610  9324 net.cpp:148] Top shape: 24 192 28 28 (3612672)
I0403 19:30:38.166623  9324 net.cpp:156] Memory required for data: 491324448
I0403 19:30:38.166638  9324 layer_factory.hpp:77] Creating layer inception_3a/1x1
I0403 19:30:38.166658  9324 net.cpp:91] Creating Layer inception_3a/1x1
I0403 19:30:38.166674  9324 net.cpp:425] inception_3a/1x1 <- pool2/3x3_s2_pool2/3x3_s2_0_split_0
I0403 19:30:38.166693  9324 net.cpp:399] inception_3a/1x1 -> inception_3a/1x1
I0403 19:30:38.168251  9324 net.cpp:141] Setting up inception_3a/1x1
I0403 19:30:38.168287  9324 net.cpp:148] Top shape: 24 64 28 28 (1204224)
I0403 19:30:38.168304  9324 net.cpp:156] Memory required for data: 496141344
I0403 19:30:38.168325  9324 layer_factory.hpp:77] Creating layer inception_3a/relu_1x1
I0403 19:30:38.168344  9324 net.cpp:91] Creating Layer inception_3a/relu_1x1
I0403 19:30:38.168362  9324 net.cpp:425] inception_3a/relu_1x1 <- inception_3a/1x1
I0403 19:30:38.168383  9324 net.cpp:386] inception_3a/relu_1x1 -> inception_3a/1x1 (in-place)
I0403 19:30:38.168563  9324 net.cpp:141] Setting up inception_3a/relu_1x1
I0403 19:30:38.168591  9324 net.cpp:148] Top shape: 24 64 28 28 (1204224)
I0403 19:30:38.168606  9324 net.cpp:156] Memory required for data: 500958240
I0403 19:30:38.168622  9324 layer_factory.hpp:77] Creating layer inception_3a/3x3_reduce
I0403 19:30:38.168647  9324 net.cpp:91] Creating Layer inception_3a/3x3_reduce
I0403 19:30:38.168663  9324 net.cpp:425] inception_3a/3x3_reduce <- pool2/3x3_s2_pool2/3x3_s2_0_split_1
I0403 19:30:38.168684  9324 net.cpp:399] inception_3a/3x3_reduce -> inception_3a/3x3_reduce
I0403 19:30:38.170470  9324 net.cpp:141] Setting up inception_3a/3x3_reduce
I0403 19:30:38.170500  9324 net.cpp:148] Top shape: 24 96 28 28 (1806336)
I0403 19:30:38.170516  9324 net.cpp:156] Memory required for data: 508183584
I0403 19:30:38.170537  9324 layer_factory.hpp:77] Creating layer inception_3a/relu_3x3_reduce
I0403 19:30:38.170577  9324 net.cpp:91] Creating Layer inception_3a/relu_3x3_reduce
I0403 19:30:38.170594  9324 net.cpp:425] inception_3a/relu_3x3_reduce <- inception_3a/3x3_reduce
I0403 19:30:38.170613  9324 net.cpp:386] inception_3a/relu_3x3_reduce -> inception_3a/3x3_reduce (in-place)
I0403 19:30:38.170795  9324 net.cpp:141] Setting up inception_3a/relu_3x3_reduce
I0403 19:30:38.170822  9324 net.cpp:148] Top shape: 24 96 28 28 (1806336)
I0403 19:30:38.170838  9324 net.cpp:156] Memory required for data: 515408928
I0403 19:30:38.170853  9324 layer_factory.hpp:77] Creating layer inception_3a/3x3
I0403 19:30:38.170877  9324 net.cpp:91] Creating Layer inception_3a/3x3
I0403 19:30:38.170894  9324 net.cpp:425] inception_3a/3x3 <- inception_3a/3x3_reduce
I0403 19:30:38.170914  9324 net.cpp:399] inception_3a/3x3 -> inception_3a/3x3
I0403 19:30:38.172613  9324 net.cpp:141] Setting up inception_3a/3x3
I0403 19:30:38.172643  9324 net.cpp:148] Top shape: 24 128 28 28 (2408448)
I0403 19:30:38.172659  9324 net.cpp:156] Memory required for data: 525042720
I0403 19:30:38.172678  9324 layer_factory.hpp:77] Creating layer inception_3a/relu_3x3
I0403 19:30:38.172699  9324 net.cpp:91] Creating Layer inception_3a/relu_3x3
I0403 19:30:38.172716  9324 net.cpp:425] inception_3a/relu_3x3 <- inception_3a/3x3
I0403 19:30:38.172734  9324 net.cpp:386] inception_3a/relu_3x3 -> inception_3a/3x3 (in-place)
I0403 19:30:38.173009  9324 net.cpp:141] Setting up inception_3a/relu_3x3
I0403 19:30:38.173037  9324 net.cpp:148] Top shape: 24 128 28 28 (2408448)
I0403 19:30:38.173051  9324 net.cpp:156] Memory required for data: 534676512
I0403 19:30:38.173065  9324 layer_factory.hpp:77] Creating layer inception_3a/5x5_reduce
I0403 19:30:38.173089  9324 net.cpp:91] Creating Layer inception_3a/5x5_reduce
I0403 19:30:38.173105  9324 net.cpp:425] inception_3a/5x5_reduce <- pool2/3x3_s2_pool2/3x3_s2_0_split_2
I0403 19:30:38.173126  9324 net.cpp:399] inception_3a/5x5_reduce -> inception_3a/5x5_reduce
I0403 19:30:38.174114  9324 net.cpp:141] Setting up inception_3a/5x5_reduce
I0403 19:30:38.174142  9324 net.cpp:148] Top shape: 24 16 28 28 (301056)
I0403 19:30:38.174157  9324 net.cpp:156] Memory required for data: 535880736
I0403 19:30:38.174175  9324 layer_factory.hpp:77] Creating layer inception_3a/relu_5x5_reduce
I0403 19:30:38.174196  9324 net.cpp:91] Creating Layer inception_3a/relu_5x5_reduce
I0403 19:30:38.174213  9324 net.cpp:425] inception_3a/relu_5x5_reduce <- inception_3a/5x5_reduce
I0403 19:30:38.174232  9324 net.cpp:386] inception_3a/relu_5x5_reduce -> inception_3a/5x5_reduce (in-place)
I0403 19:30:38.174526  9324 net.cpp:141] Setting up inception_3a/relu_5x5_reduce
I0403 19:30:38.174553  9324 net.cpp:148] Top shape: 24 16 28 28 (301056)
I0403 19:30:38.174568  9324 net.cpp:156] Memory required for data: 537084960
I0403 19:30:38.174583  9324 layer_factory.hpp:77] Creating layer inception_3a/5x5
I0403 19:30:38.174607  9324 net.cpp:91] Creating Layer inception_3a/5x5
I0403 19:30:38.174624  9324 net.cpp:425] inception_3a/5x5 <- inception_3a/5x5_reduce
I0403 19:30:38.174643  9324 net.cpp:399] inception_3a/5x5 -> inception_3a/5x5
I0403 19:30:38.175649  9324 net.cpp:141] Setting up inception_3a/5x5
I0403 19:30:38.175676  9324 net.cpp:148] Top shape: 24 32 28 28 (602112)
I0403 19:30:38.175693  9324 net.cpp:156] Memory required for data: 539493408
I0403 19:30:38.175709  9324 layer_factory.hpp:77] Creating layer inception_3a/relu_5x5
I0403 19:30:38.175727  9324 net.cpp:91] Creating Layer inception_3a/relu_5x5
I0403 19:30:38.175745  9324 net.cpp:425] inception_3a/relu_5x5 <- inception_3a/5x5
I0403 19:30:38.175763  9324 net.cpp:386] inception_3a/relu_5x5 -> inception_3a/5x5 (in-place)
I0403 19:30:38.175935  9324 net.cpp:141] Setting up inception_3a/relu_5x5
I0403 19:30:38.175959  9324 net.cpp:148] Top shape: 24 32 28 28 (602112)
I0403 19:30:38.175973  9324 net.cpp:156] Memory required for data: 541901856
I0403 19:30:38.175988  9324 layer_factory.hpp:77] Creating layer inception_3a/pool
I0403 19:30:38.176008  9324 net.cpp:91] Creating Layer inception_3a/pool
I0403 19:30:38.176025  9324 net.cpp:425] inception_3a/pool <- pool2/3x3_s2_pool2/3x3_s2_0_split_3
I0403 19:30:38.176059  9324 net.cpp:399] inception_3a/pool -> inception_3a/pool
I0403 19:30:38.176117  9324 net.cpp:141] Setting up inception_3a/pool
I0403 19:30:38.176142  9324 net.cpp:148] Top shape: 24 192 28 28 (3612672)
I0403 19:30:38.176156  9324 net.cpp:156] Memory required for data: 556352544
I0403 19:30:38.176172  9324 layer_factory.hpp:77] Creating layer inception_3a/pool_proj
I0403 19:30:38.176193  9324 net.cpp:91] Creating Layer inception_3a/pool_proj
I0403 19:30:38.176211  9324 net.cpp:425] inception_3a/pool_proj <- inception_3a/pool
I0403 19:30:38.176245  9324 net.cpp:399] inception_3a/pool_proj -> inception_3a/pool_proj
I0403 19:30:38.177242  9324 net.cpp:141] Setting up inception_3a/pool_proj
I0403 19:30:38.177294  9324 net.cpp:148] Top shape: 24 32 28 28 (602112)
I0403 19:30:38.177335  9324 net.cpp:156] Memory required for data: 558760992
I0403 19:30:38.177357  9324 layer_factory.hpp:77] Creating layer inception_3a/relu_pool_proj
I0403 19:30:38.177379  9324 net.cpp:91] Creating Layer inception_3a/relu_pool_proj
I0403 19:30:38.177397  9324 net.cpp:425] inception_3a/relu_pool_proj <- inception_3a/pool_proj
I0403 19:30:38.177414  9324 net.cpp:386] inception_3a/relu_pool_proj -> inception_3a/pool_proj (in-place)
I0403 19:30:38.177700  9324 net.cpp:141] Setting up inception_3a/relu_pool_proj
I0403 19:30:38.177726  9324 net.cpp:148] Top shape: 24 32 28 28 (602112)
I0403 19:30:38.177739  9324 net.cpp:156] Memory required for data: 561169440
I0403 19:30:38.177754  9324 layer_factory.hpp:77] Creating layer inception_3a/output
I0403 19:30:38.177772  9324 net.cpp:91] Creating Layer inception_3a/output
I0403 19:30:38.177786  9324 net.cpp:425] inception_3a/output <- inception_3a/1x1
I0403 19:30:38.177810  9324 net.cpp:425] inception_3a/output <- inception_3a/3x3
I0403 19:30:38.177829  9324 net.cpp:425] inception_3a/output <- inception_3a/5x5
I0403 19:30:38.177844  9324 net.cpp:425] inception_3a/output <- inception_3a/pool_proj
I0403 19:30:38.177863  9324 net.cpp:399] inception_3a/output -> inception_3a/output
I0403 19:30:38.177908  9324 net.cpp:141] Setting up inception_3a/output
I0403 19:30:38.177933  9324 net.cpp:148] Top shape: 24 256 28 28 (4816896)
I0403 19:30:38.177948  9324 net.cpp:156] Memory required for data: 580437024
I0403 19:30:38.177963  9324 layer_factory.hpp:77] Creating layer inception_3a/output_inception_3a/output_0_split
I0403 19:30:38.177979  9324 net.cpp:91] Creating Layer inception_3a/output_inception_3a/output_0_split
I0403 19:30:38.177994  9324 net.cpp:425] inception_3a/output_inception_3a/output_0_split <- inception_3a/output
I0403 19:30:38.178011  9324 net.cpp:399] inception_3a/output_inception_3a/output_0_split -> inception_3a/output_inception_3a/output_0_split_0
I0403 19:30:38.178032  9324 net.cpp:399] inception_3a/output_inception_3a/output_0_split -> inception_3a/output_inception_3a/output_0_split_1
I0403 19:30:38.178056  9324 net.cpp:399] inception_3a/output_inception_3a/output_0_split -> inception_3a/output_inception_3a/output_0_split_2
I0403 19:30:38.178077  9324 net.cpp:399] inception_3a/output_inception_3a/output_0_split -> inception_3a/output_inception_3a/output_0_split_3
I0403 19:30:38.178153  9324 net.cpp:141] Setting up inception_3a/output_inception_3a/output_0_split
I0403 19:30:38.178179  9324 net.cpp:148] Top shape: 24 256 28 28 (4816896)
I0403 19:30:38.178196  9324 net.cpp:148] Top shape: 24 256 28 28 (4816896)
I0403 19:30:38.178211  9324 net.cpp:148] Top shape: 24 256 28 28 (4816896)
I0403 19:30:38.178227  9324 net.cpp:148] Top shape: 24 256 28 28 (4816896)
I0403 19:30:38.178241  9324 net.cpp:156] Memory required for data: 657507360
I0403 19:30:38.178256  9324 layer_factory.hpp:77] Creating layer inception_3b/1x1
I0403 19:30:38.178282  9324 net.cpp:91] Creating Layer inception_3b/1x1
I0403 19:30:38.178300  9324 net.cpp:425] inception_3b/1x1 <- inception_3a/output_inception_3a/output_0_split_0
I0403 19:30:38.178321  9324 net.cpp:399] inception_3b/1x1 -> inception_3b/1x1
I0403 19:30:38.179447  9324 net.cpp:141] Setting up inception_3b/1x1
I0403 19:30:38.179500  9324 net.cpp:148] Top shape: 24 128 28 28 (2408448)
I0403 19:30:38.179517  9324 net.cpp:156] Memory required for data: 667141152
I0403 19:30:38.179536  9324 layer_factory.hpp:77] Creating layer inception_3b/relu_1x1
I0403 19:30:38.179554  9324 net.cpp:91] Creating Layer inception_3b/relu_1x1
I0403 19:30:38.179570  9324 net.cpp:425] inception_3b/relu_1x1 <- inception_3b/1x1
I0403 19:30:38.179599  9324 net.cpp:386] inception_3b/relu_1x1 -> inception_3b/1x1 (in-place)
I0403 19:30:38.179775  9324 net.cpp:141] Setting up inception_3b/relu_1x1
I0403 19:30:38.179800  9324 net.cpp:148] Top shape: 24 128 28 28 (2408448)
I0403 19:30:38.179814  9324 net.cpp:156] Memory required for data: 676774944
I0403 19:30:38.179828  9324 layer_factory.hpp:77] Creating layer inception_3b/3x3_reduce
I0403 19:30:38.179852  9324 net.cpp:91] Creating Layer inception_3b/3x3_reduce
I0403 19:30:38.179868  9324 net.cpp:425] inception_3b/3x3_reduce <- inception_3a/output_inception_3a/output_0_split_1
I0403 19:30:38.179890  9324 net.cpp:399] inception_3b/3x3_reduce -> inception_3b/3x3_reduce
I0403 19:30:38.181041  9324 net.cpp:141] Setting up inception_3b/3x3_reduce
I0403 19:30:38.181071  9324 net.cpp:148] Top shape: 24 128 28 28 (2408448)
I0403 19:30:38.181087  9324 net.cpp:156] Memory required for data: 686408736
I0403 19:30:38.181104  9324 layer_factory.hpp:77] Creating layer inception_3b/relu_3x3_reduce
I0403 19:30:38.181121  9324 net.cpp:91] Creating Layer inception_3b/relu_3x3_reduce
I0403 19:30:38.181136  9324 net.cpp:425] inception_3b/relu_3x3_reduce <- inception_3b/3x3_reduce
I0403 19:30:38.181156  9324 net.cpp:386] inception_3b/relu_3x3_reduce -> inception_3b/3x3_reduce (in-place)
I0403 19:30:38.181346  9324 net.cpp:141] Setting up inception_3b/relu_3x3_reduce
I0403 19:30:38.181373  9324 net.cpp:148] Top shape: 24 128 28 28 (2408448)
I0403 19:30:38.181390  9324 net.cpp:156] Memory required for data: 696042528
I0403 19:30:38.181403  9324 layer_factory.hpp:77] Creating layer inception_3b/3x3
I0403 19:30:38.181430  9324 net.cpp:91] Creating Layer inception_3b/3x3
I0403 19:30:38.181449  9324 net.cpp:425] inception_3b/3x3 <- inception_3b/3x3_reduce
I0403 19:30:38.181468  9324 net.cpp:399] inception_3b/3x3 -> inception_3b/3x3
I0403 19:30:38.184377  9324 net.cpp:141] Setting up inception_3b/3x3
I0403 19:30:38.184406  9324 net.cpp:148] Top shape: 24 192 28 28 (3612672)
I0403 19:30:38.184427  9324 net.cpp:156] Memory required for data: 710493216
I0403 19:30:38.184445  9324 layer_factory.hpp:77] Creating layer inception_3b/relu_3x3
I0403 19:30:38.184464  9324 net.cpp:91] Creating Layer inception_3b/relu_3x3
I0403 19:30:38.184480  9324 net.cpp:425] inception_3b/relu_3x3 <- inception_3b/3x3
I0403 19:30:38.184500  9324 net.cpp:386] inception_3b/relu_3x3 -> inception_3b/3x3 (in-place)
I0403 19:30:38.184784  9324 net.cpp:141] Setting up inception_3b/relu_3x3
I0403 19:30:38.184811  9324 net.cpp:148] Top shape: 24 192 28 28 (3612672)
I0403 19:30:38.184826  9324 net.cpp:156] Memory required for data: 724943904
I0403 19:30:38.184841  9324 layer_factory.hpp:77] Creating layer inception_3b/5x5_reduce
I0403 19:30:38.184864  9324 net.cpp:91] Creating Layer inception_3b/5x5_reduce
I0403 19:30:38.184881  9324 net.cpp:425] inception_3b/5x5_reduce <- inception_3a/output_inception_3a/output_0_split_2
I0403 19:30:38.184905  9324 net.cpp:399] inception_3b/5x5_reduce -> inception_3b/5x5_reduce
I0403 19:30:38.185947  9324 net.cpp:141] Setting up inception_3b/5x5_reduce
I0403 19:30:38.185976  9324 net.cpp:148] Top shape: 24 32 28 28 (602112)
I0403 19:30:38.185992  9324 net.cpp:156] Memory required for data: 727352352
I0403 19:30:38.186008  9324 layer_factory.hpp:77] Creating layer inception_3b/relu_5x5_reduce
I0403 19:30:38.186027  9324 net.cpp:91] Creating Layer inception_3b/relu_5x5_reduce
I0403 19:30:38.186043  9324 net.cpp:425] inception_3b/relu_5x5_reduce <- inception_3b/5x5_reduce
I0403 19:30:38.186064  9324 net.cpp:386] inception_3b/relu_5x5_reduce -> inception_3b/5x5_reduce (in-place)
I0403 19:30:38.186249  9324 net.cpp:141] Setting up inception_3b/relu_5x5_reduce
I0403 19:30:38.186291  9324 net.cpp:148] Top shape: 24 32 28 28 (602112)
I0403 19:30:38.186308  9324 net.cpp:156] Memory required for data: 729760800
I0403 19:30:38.186323  9324 layer_factory.hpp:77] Creating layer inception_3b/5x5
I0403 19:30:38.186347  9324 net.cpp:91] Creating Layer inception_3b/5x5
I0403 19:30:38.186365  9324 net.cpp:425] inception_3b/5x5 <- inception_3b/5x5_reduce
I0403 19:30:38.186388  9324 net.cpp:399] inception_3b/5x5 -> inception_3b/5x5
I0403 19:30:38.188426  9324 net.cpp:141] Setting up inception_3b/5x5
I0403 19:30:38.188457  9324 net.cpp:148] Top shape: 24 96 28 28 (1806336)
I0403 19:30:38.188474  9324 net.cpp:156] Memory required for data: 736986144
I0403 19:30:38.188493  9324 layer_factory.hpp:77] Creating layer inception_3b/relu_5x5
I0403 19:30:38.188524  9324 net.cpp:91] Creating Layer inception_3b/relu_5x5
I0403 19:30:38.188539  9324 net.cpp:425] inception_3b/relu_5x5 <- inception_3b/5x5
I0403 19:30:38.188557  9324 net.cpp:386] inception_3b/relu_5x5 -> inception_3b/5x5 (in-place)
I0403 19:30:38.188760  9324 net.cpp:141] Setting up inception_3b/relu_5x5
I0403 19:30:38.188786  9324 net.cpp:148] Top shape: 24 96 28 28 (1806336)
I0403 19:30:38.188802  9324 net.cpp:156] Memory required for data: 744211488
I0403 19:30:38.188817  9324 layer_factory.hpp:77] Creating layer inception_3b/pool
I0403 19:30:38.188835  9324 net.cpp:91] Creating Layer inception_3b/pool
I0403 19:30:38.188853  9324 net.cpp:425] inception_3b/pool <- inception_3a/output_inception_3a/output_0_split_3
I0403 19:30:38.188882  9324 net.cpp:399] inception_3b/pool -> inception_3b/pool
I0403 19:30:38.188941  9324 net.cpp:141] Setting up inception_3b/pool
I0403 19:30:38.188964  9324 net.cpp:148] Top shape: 24 256 28 28 (4816896)
I0403 19:30:38.188978  9324 net.cpp:156] Memory required for data: 763479072
I0403 19:30:38.188993  9324 layer_factory.hpp:77] Creating layer inception_3b/pool_proj
I0403 19:30:38.189028  9324 net.cpp:91] Creating Layer inception_3b/pool_proj
I0403 19:30:38.189044  9324 net.cpp:425] inception_3b/pool_proj <- inception_3b/pool
I0403 19:30:38.189066  9324 net.cpp:399] inception_3b/pool_proj -> inception_3b/pool_proj
I0403 19:30:38.190242  9324 net.cpp:141] Setting up inception_3b/pool_proj
I0403 19:30:38.190274  9324 net.cpp:148] Top shape: 24 64 28 28 (1204224)
I0403 19:30:38.190291  9324 net.cpp:156] Memory required for data: 768295968
I0403 19:30:38.190310  9324 layer_factory.hpp:77] Creating layer inception_3b/relu_pool_proj
I0403 19:30:38.190333  9324 net.cpp:91] Creating Layer inception_3b/relu_pool_proj
I0403 19:30:38.190363  9324 net.cpp:425] inception_3b/relu_pool_proj <- inception_3b/pool_proj
I0403 19:30:38.190381  9324 net.cpp:386] inception_3b/relu_pool_proj -> inception_3b/pool_proj (in-place)
I0403 19:30:38.190786  9324 net.cpp:141] Setting up inception_3b/relu_pool_proj
I0403 19:30:38.190814  9324 net.cpp:148] Top shape: 24 64 28 28 (1204224)
I0403 19:30:38.190829  9324 net.cpp:156] Memory required for data: 773112864
I0403 19:30:38.190845  9324 layer_factory.hpp:77] Creating layer inception_3b/output
I0403 19:30:38.190865  9324 net.cpp:91] Creating Layer inception_3b/output
I0403 19:30:38.190881  9324 net.cpp:425] inception_3b/output <- inception_3b/1x1
I0403 19:30:38.190898  9324 net.cpp:425] inception_3b/output <- inception_3b/3x3
I0403 19:30:38.190914  9324 net.cpp:425] inception_3b/output <- inception_3b/5x5
I0403 19:30:38.190930  9324 net.cpp:425] inception_3b/output <- inception_3b/pool_proj
I0403 19:30:38.190948  9324 net.cpp:399] inception_3b/output -> inception_3b/output
I0403 19:30:38.190994  9324 net.cpp:141] Setting up inception_3b/output
I0403 19:30:38.191017  9324 net.cpp:148] Top shape: 24 480 28 28 (9031680)
I0403 19:30:38.191032  9324 net.cpp:156] Memory required for data: 809239584
I0403 19:30:38.191046  9324 layer_factory.hpp:77] Creating layer pool3/3x3_s2
I0403 19:30:38.191064  9324 net.cpp:91] Creating Layer pool3/3x3_s2
I0403 19:30:38.191081  9324 net.cpp:425] pool3/3x3_s2 <- inception_3b/output
I0403 19:30:38.191102  9324 net.cpp:399] pool3/3x3_s2 -> pool3/3x3_s2
I0403 19:30:38.191179  9324 net.cpp:141] Setting up pool3/3x3_s2
I0403 19:30:38.191203  9324 net.cpp:148] Top shape: 24 480 14 14 (2257920)
I0403 19:30:38.191231  9324 net.cpp:156] Memory required for data: 818271264
I0403 19:30:38.191246  9324 layer_factory.hpp:77] Creating layer pool3/3x3_s2_pool3/3x3_s2_0_split
I0403 19:30:38.191267  9324 net.cpp:91] Creating Layer pool3/3x3_s2_pool3/3x3_s2_0_split
I0403 19:30:38.191289  9324 net.cpp:425] pool3/3x3_s2_pool3/3x3_s2_0_split <- pool3/3x3_s2
I0403 19:30:38.191310  9324 net.cpp:399] pool3/3x3_s2_pool3/3x3_s2_0_split -> pool3/3x3_s2_pool3/3x3_s2_0_split_0
I0403 19:30:38.191332  9324 net.cpp:399] pool3/3x3_s2_pool3/3x3_s2_0_split -> pool3/3x3_s2_pool3/3x3_s2_0_split_1
I0403 19:30:38.191352  9324 net.cpp:399] pool3/3x3_s2_pool3/3x3_s2_0_split -> pool3/3x3_s2_pool3/3x3_s2_0_split_2
I0403 19:30:38.191372  9324 net.cpp:399] pool3/3x3_s2_pool3/3x3_s2_0_split -> pool3/3x3_s2_pool3/3x3_s2_0_split_3
I0403 19:30:38.191450  9324 net.cpp:141] Setting up pool3/3x3_s2_pool3/3x3_s2_0_split
I0403 19:30:38.191474  9324 net.cpp:148] Top shape: 24 480 14 14 (2257920)
I0403 19:30:38.191493  9324 net.cpp:148] Top shape: 24 480 14 14 (2257920)
I0403 19:30:38.191520  9324 net.cpp:148] Top shape: 24 480 14 14 (2257920)
I0403 19:30:38.191536  9324 net.cpp:148] Top shape: 24 480 14 14 (2257920)
I0403 19:30:38.191550  9324 net.cpp:156] Memory required for data: 854397984
I0403 19:30:38.191565  9324 layer_factory.hpp:77] Creating layer inception_4a/1x1
I0403 19:30:38.191587  9324 net.cpp:91] Creating Layer inception_4a/1x1
I0403 19:30:38.191606  9324 net.cpp:425] inception_4a/1x1 <- pool3/3x3_s2_pool3/3x3_s2_0_split_0
I0403 19:30:38.191627  9324 net.cpp:399] inception_4a/1x1 -> inception_4a/1x1
I0403 19:30:38.193245  9324 net.cpp:141] Setting up inception_4a/1x1
I0403 19:30:38.193282  9324 net.cpp:148] Top shape: 24 192 14 14 (903168)
I0403 19:30:38.193302  9324 net.cpp:156] Memory required for data: 858010656
I0403 19:30:38.193323  9324 layer_factory.hpp:77] Creating layer inception_4a/relu_1x1
I0403 19:30:38.193344  9324 net.cpp:91] Creating Layer inception_4a/relu_1x1
I0403 19:30:38.193362  9324 net.cpp:425] inception_4a/relu_1x1 <- inception_4a/1x1
I0403 19:30:38.193382  9324 net.cpp:386] inception_4a/relu_1x1 -> inception_4a/1x1 (in-place)
I0403 19:30:38.193575  9324 net.cpp:141] Setting up inception_4a/relu_1x1
I0403 19:30:38.193603  9324 net.cpp:148] Top shape: 24 192 14 14 (903168)
I0403 19:30:38.193619  9324 net.cpp:156] Memory required for data: 861623328
I0403 19:30:38.193636  9324 layer_factory.hpp:77] Creating layer inception_4a/3x3_reduce
I0403 19:30:38.193658  9324 net.cpp:91] Creating Layer inception_4a/3x3_reduce
I0403 19:30:38.193675  9324 net.cpp:425] inception_4a/3x3_reduce <- pool3/3x3_s2_pool3/3x3_s2_0_split_1
I0403 19:30:38.193696  9324 net.cpp:399] inception_4a/3x3_reduce -> inception_4a/3x3_reduce
I0403 19:30:38.195026  9324 net.cpp:141] Setting up inception_4a/3x3_reduce
I0403 19:30:38.195055  9324 net.cpp:148] Top shape: 24 96 14 14 (451584)
I0403 19:30:38.195072  9324 net.cpp:156] Memory required for data: 863429664
I0403 19:30:38.195098  9324 layer_factory.hpp:77] Creating layer inception_4a/relu_3x3_reduce
I0403 19:30:38.195119  9324 net.cpp:91] Creating Layer inception_4a/relu_3x3_reduce
I0403 19:30:38.195135  9324 net.cpp:425] inception_4a/relu_3x3_reduce <- inception_4a/3x3_reduce
I0403 19:30:38.195153  9324 net.cpp:386] inception_4a/relu_3x3_reduce -> inception_4a/3x3_reduce (in-place)
I0403 19:30:38.195348  9324 net.cpp:141] Setting up inception_4a/relu_3x3_reduce
I0403 19:30:38.195376  9324 net.cpp:148] Top shape: 24 96 14 14 (451584)
I0403 19:30:38.195392  9324 net.cpp:156] Memory required for data: 865236000
I0403 19:30:38.195407  9324 layer_factory.hpp:77] Creating layer inception_4a/3x3
I0403 19:30:38.195431  9324 net.cpp:91] Creating Layer inception_4a/3x3
I0403 19:30:38.195449  9324 net.cpp:425] inception_4a/3x3 <- inception_4a/3x3_reduce
I0403 19:30:38.195471  9324 net.cpp:399] inception_4a/3x3 -> inception_4a/3x3
I0403 19:30:38.198248  9324 net.cpp:141] Setting up inception_4a/3x3
I0403 19:30:38.198282  9324 net.cpp:148] Top shape: 24 208 14 14 (978432)
I0403 19:30:38.198298  9324 net.cpp:156] Memory required for data: 869149728
I0403 19:30:38.198318  9324 layer_factory.hpp:77] Creating layer inception_4a/relu_3x3
I0403 19:30:38.198338  9324 net.cpp:91] Creating Layer inception_4a/relu_3x3
I0403 19:30:38.198354  9324 net.cpp:425] inception_4a/relu_3x3 <- inception_4a/3x3
I0403 19:30:38.198374  9324 net.cpp:386] inception_4a/relu_3x3 -> inception_4a/3x3 (in-place)
I0403 19:30:38.198660  9324 net.cpp:141] Setting up inception_4a/relu_3x3
I0403 19:30:38.198688  9324 net.cpp:148] Top shape: 24 208 14 14 (978432)
I0403 19:30:38.198704  9324 net.cpp:156] Memory required for data: 873063456
I0403 19:30:38.198721  9324 layer_factory.hpp:77] Creating layer inception_4a/5x5_reduce
I0403 19:30:38.198745  9324 net.cpp:91] Creating Layer inception_4a/5x5_reduce
I0403 19:30:38.198765  9324 net.cpp:425] inception_4a/5x5_reduce <- pool3/3x3_s2_pool3/3x3_s2_0_split_2
I0403 19:30:38.198788  9324 net.cpp:399] inception_4a/5x5_reduce -> inception_4a/5x5_reduce
I0403 19:30:38.199849  9324 net.cpp:141] Setting up inception_4a/5x5_reduce
I0403 19:30:38.199878  9324 net.cpp:148] Top shape: 24 16 14 14 (75264)
I0403 19:30:38.199895  9324 net.cpp:156] Memory required for data: 873364512
I0403 19:30:38.199914  9324 layer_factory.hpp:77] Creating layer inception_4a/relu_5x5_reduce
I0403 19:30:38.199934  9324 net.cpp:91] Creating Layer inception_4a/relu_5x5_reduce
I0403 19:30:38.199950  9324 net.cpp:425] inception_4a/relu_5x5_reduce <- inception_4a/5x5_reduce
I0403 19:30:38.199970  9324 net.cpp:386] inception_4a/relu_5x5_reduce -> inception_4a/5x5_reduce (in-place)
I0403 19:30:38.200155  9324 net.cpp:141] Setting up inception_4a/relu_5x5_reduce
I0403 19:30:38.200181  9324 net.cpp:148] Top shape: 24 16 14 14 (75264)
I0403 19:30:38.200196  9324 net.cpp:156] Memory required for data: 873665568
I0403 19:30:38.200211  9324 layer_factory.hpp:77] Creating layer inception_4a/5x5
I0403 19:30:38.200232  9324 net.cpp:91] Creating Layer inception_4a/5x5
I0403 19:30:38.200250  9324 net.cpp:425] inception_4a/5x5 <- inception_4a/5x5_reduce
I0403 19:30:38.200276  9324 net.cpp:399] inception_4a/5x5 -> inception_4a/5x5
I0403 19:30:38.201397  9324 net.cpp:141] Setting up inception_4a/5x5
I0403 19:30:38.201426  9324 net.cpp:148] Top shape: 24 48 14 14 (225792)
I0403 19:30:38.201442  9324 net.cpp:156] Memory required for data: 874568736
I0403 19:30:38.201462  9324 layer_factory.hpp:77] Creating layer inception_4a/relu_5x5
I0403 19:30:38.201483  9324 net.cpp:91] Creating Layer inception_4a/relu_5x5
I0403 19:30:38.201513  9324 net.cpp:425] inception_4a/relu_5x5 <- inception_4a/5x5
I0403 19:30:38.201530  9324 net.cpp:386] inception_4a/relu_5x5 -> inception_4a/5x5 (in-place)
I0403 19:30:38.201715  9324 net.cpp:141] Setting up inception_4a/relu_5x5
I0403 19:30:38.201743  9324 net.cpp:148] Top shape: 24 48 14 14 (225792)
I0403 19:30:38.201758  9324 net.cpp:156] Memory required for data: 875471904
I0403 19:30:38.201774  9324 layer_factory.hpp:77] Creating layer inception_4a/pool
I0403 19:30:38.201792  9324 net.cpp:91] Creating Layer inception_4a/pool
I0403 19:30:38.201809  9324 net.cpp:425] inception_4a/pool <- pool3/3x3_s2_pool3/3x3_s2_0_split_3
I0403 19:30:38.201830  9324 net.cpp:399] inception_4a/pool -> inception_4a/pool
I0403 19:30:38.201894  9324 net.cpp:141] Setting up inception_4a/pool
I0403 19:30:38.201917  9324 net.cpp:148] Top shape: 24 480 14 14 (2257920)
I0403 19:30:38.201932  9324 net.cpp:156] Memory required for data: 884503584
I0403 19:30:38.201947  9324 layer_factory.hpp:77] Creating layer inception_4a/pool_proj
I0403 19:30:38.201970  9324 net.cpp:91] Creating Layer inception_4a/pool_proj
I0403 19:30:38.201988  9324 net.cpp:425] inception_4a/pool_proj <- inception_4a/pool
I0403 19:30:38.202009  9324 net.cpp:399] inception_4a/pool_proj -> inception_4a/pool_proj
I0403 19:30:38.203210  9324 net.cpp:141] Setting up inception_4a/pool_proj
I0403 19:30:38.203253  9324 net.cpp:148] Top shape: 24 64 14 14 (301056)
I0403 19:30:38.203290  9324 net.cpp:156] Memory required for data: 885707808
I0403 19:30:38.203312  9324 layer_factory.hpp:77] Creating layer inception_4a/relu_pool_proj
I0403 19:30:38.203336  9324 net.cpp:91] Creating Layer inception_4a/relu_pool_proj
I0403 19:30:38.203356  9324 net.cpp:425] inception_4a/relu_pool_proj <- inception_4a/pool_proj
I0403 19:30:38.203374  9324 net.cpp:386] inception_4a/relu_pool_proj -> inception_4a/pool_proj (in-place)
I0403 19:30:38.203682  9324 net.cpp:141] Setting up inception_4a/relu_pool_proj
I0403 19:30:38.203709  9324 net.cpp:148] Top shape: 24 64 14 14 (301056)
I0403 19:30:38.203724  9324 net.cpp:156] Memory required for data: 886912032
I0403 19:30:38.203739  9324 layer_factory.hpp:77] Creating layer inception_4a/output
I0403 19:30:38.203759  9324 net.cpp:91] Creating Layer inception_4a/output
I0403 19:30:38.203776  9324 net.cpp:425] inception_4a/output <- inception_4a/1x1
I0403 19:30:38.203794  9324 net.cpp:425] inception_4a/output <- inception_4a/3x3
I0403 19:30:38.203810  9324 net.cpp:425] inception_4a/output <- inception_4a/5x5
I0403 19:30:38.203826  9324 net.cpp:425] inception_4a/output <- inception_4a/pool_proj
I0403 19:30:38.203843  9324 net.cpp:399] inception_4a/output -> inception_4a/output
I0403 19:30:38.203893  9324 net.cpp:141] Setting up inception_4a/output
I0403 19:30:38.203917  9324 net.cpp:148] Top shape: 24 512 14 14 (2408448)
I0403 19:30:38.203933  9324 net.cpp:156] Memory required for data: 896545824
I0403 19:30:38.203948  9324 layer_factory.hpp:77] Creating layer inception_4a/output_inception_4a/output_0_split
I0403 19:30:38.203965  9324 net.cpp:91] Creating Layer inception_4a/output_inception_4a/output_0_split
I0403 19:30:38.203981  9324 net.cpp:425] inception_4a/output_inception_4a/output_0_split <- inception_4a/output
I0403 19:30:38.204001  9324 net.cpp:399] inception_4a/output_inception_4a/output_0_split -> inception_4a/output_inception_4a/output_0_split_0
I0403 19:30:38.204022  9324 net.cpp:399] inception_4a/output_inception_4a/output_0_split -> inception_4a/output_inception_4a/output_0_split_1
I0403 19:30:38.204043  9324 net.cpp:399] inception_4a/output_inception_4a/output_0_split -> inception_4a/output_inception_4a/output_0_split_2
I0403 19:30:38.204071  9324 net.cpp:399] inception_4a/output_inception_4a/output_0_split -> inception_4a/output_inception_4a/output_0_split_3
I0403 19:30:38.204092  9324 net.cpp:399] inception_4a/output_inception_4a/output_0_split -> inception_4a/output_inception_4a/output_0_split_4
I0403 19:30:38.204185  9324 net.cpp:141] Setting up inception_4a/output_inception_4a/output_0_split
I0403 19:30:38.204212  9324 net.cpp:148] Top shape: 24 512 14 14 (2408448)
I0403 19:30:38.204242  9324 net.cpp:148] Top shape: 24 512 14 14 (2408448)
I0403 19:30:38.204259  9324 net.cpp:148] Top shape: 24 512 14 14 (2408448)
I0403 19:30:38.204284  9324 net.cpp:148] Top shape: 24 512 14 14 (2408448)
I0403 19:30:38.204303  9324 net.cpp:148] Top shape: 24 512 14 14 (2408448)
I0403 19:30:38.204319  9324 net.cpp:156] Memory required for data: 944714784
I0403 19:30:38.204334  9324 layer_factory.hpp:77] Creating layer loss1/ave_pool
I0403 19:30:38.204354  9324 net.cpp:91] Creating Layer loss1/ave_pool
I0403 19:30:38.204370  9324 net.cpp:425] loss1/ave_pool <- inception_4a/output_inception_4a/output_0_split_0
I0403 19:30:38.204391  9324 net.cpp:399] loss1/ave_pool -> loss1/ave_pool
I0403 19:30:38.204618  9324 net.cpp:141] Setting up loss1/ave_pool
I0403 19:30:38.204653  9324 net.cpp:148] Top shape: 24 512 4 4 (196608)
I0403 19:30:38.204676  9324 net.cpp:156] Memory required for data: 945501216
I0403 19:30:38.204699  9324 layer_factory.hpp:77] Creating layer loss1/conv
I0403 19:30:38.204732  9324 net.cpp:91] Creating Layer loss1/conv
I0403 19:30:38.204751  9324 net.cpp:425] loss1/conv <- loss1/ave_pool
I0403 19:30:38.204771  9324 net.cpp:399] loss1/conv -> loss1/conv
I0403 19:30:38.206253  9324 net.cpp:141] Setting up loss1/conv
I0403 19:30:38.206284  9324 net.cpp:148] Top shape: 24 128 4 4 (49152)
I0403 19:30:38.206301  9324 net.cpp:156] Memory required for data: 945697824
I0403 19:30:38.206336  9324 layer_factory.hpp:77] Creating layer loss1/relu_conv
I0403 19:30:38.206357  9324 net.cpp:91] Creating Layer loss1/relu_conv
I0403 19:30:38.206373  9324 net.cpp:425] loss1/relu_conv <- loss1/conv
I0403 19:30:38.206393  9324 net.cpp:386] loss1/relu_conv -> loss1/conv (in-place)
I0403 19:30:38.206686  9324 net.cpp:141] Setting up loss1/relu_conv
I0403 19:30:38.206712  9324 net.cpp:148] Top shape: 24 128 4 4 (49152)
I0403 19:30:38.206727  9324 net.cpp:156] Memory required for data: 945894432
I0403 19:30:38.206743  9324 layer_factory.hpp:77] Creating layer loss1/fc
I0403 19:30:38.206768  9324 net.cpp:91] Creating Layer loss1/fc
I0403 19:30:38.206785  9324 net.cpp:425] loss1/fc <- loss1/conv
I0403 19:30:38.206807  9324 net.cpp:399] loss1/fc -> loss1/fc
I0403 19:30:38.224735  9324 net.cpp:141] Setting up loss1/fc
I0403 19:30:38.224776  9324 net.cpp:148] Top shape: 24 1024 (24576)
I0403 19:30:38.224793  9324 net.cpp:156] Memory required for data: 945992736
I0403 19:30:38.224812  9324 layer_factory.hpp:77] Creating layer loss1/relu_fc
I0403 19:30:38.224843  9324 net.cpp:91] Creating Layer loss1/relu_fc
I0403 19:30:38.224859  9324 net.cpp:425] loss1/relu_fc <- loss1/fc
I0403 19:30:38.224876  9324 net.cpp:386] loss1/relu_fc -> loss1/fc (in-place)
I0403 19:30:38.225072  9324 net.cpp:141] Setting up loss1/relu_fc
I0403 19:30:38.225097  9324 net.cpp:148] Top shape: 24 1024 (24576)
I0403 19:30:38.225112  9324 net.cpp:156] Memory required for data: 946091040
I0403 19:30:38.225139  9324 layer_factory.hpp:77] Creating layer loss1/drop_fc
I0403 19:30:38.225168  9324 net.cpp:91] Creating Layer loss1/drop_fc
I0403 19:30:38.225188  9324 net.cpp:425] loss1/drop_fc <- loss1/fc
I0403 19:30:38.225206  9324 net.cpp:386] loss1/drop_fc -> loss1/fc (in-place)
I0403 19:30:38.225257  9324 net.cpp:141] Setting up loss1/drop_fc
I0403 19:30:38.225283  9324 net.cpp:148] Top shape: 24 1024 (24576)
I0403 19:30:38.225298  9324 net.cpp:156] Memory required for data: 946189344
I0403 19:30:38.225313  9324 layer_factory.hpp:77] Creating layer loss1/classifier_plantvillage
I0403 19:30:38.225334  9324 net.cpp:91] Creating Layer loss1/classifier_plantvillage
I0403 19:30:38.225352  9324 net.cpp:425] loss1/classifier_plantvillage <- loss1/fc
I0403 19:30:38.225368  9324 net.cpp:399] loss1/classifier_plantvillage -> loss1/classifier_plantvillage
I0403 19:30:38.226238  9324 net.cpp:141] Setting up loss1/classifier_plantvillage
I0403 19:30:38.226268  9324 net.cpp:148] Top shape: 24 38 (912)
I0403 19:30:38.226300  9324 net.cpp:156] Memory required for data: 946192992
I0403 19:30:38.226320  9324 layer_factory.hpp:77] Creating layer loss1/classifier_plantvillage_loss1/classifier_plantvillage_0_split
I0403 19:30:38.226337  9324 net.cpp:91] Creating Layer loss1/classifier_plantvillage_loss1/classifier_plantvillage_0_split
I0403 19:30:38.226352  9324 net.cpp:425] loss1/classifier_plantvillage_loss1/classifier_plantvillage_0_split <- loss1/classifier_plantvillage
I0403 19:30:38.226371  9324 net.cpp:399] loss1/classifier_plantvillage_loss1/classifier_plantvillage_0_split -> loss1/classifier_plantvillage_loss1/classifier_plantvillage_0_split_0
I0403 19:30:38.226393  9324 net.cpp:399] loss1/classifier_plantvillage_loss1/classifier_plantvillage_0_split -> loss1/classifier_plantvillage_loss1/classifier_plantvillage_0_split_1
I0403 19:30:38.226416  9324 net.cpp:399] loss1/classifier_plantvillage_loss1/classifier_plantvillage_0_split -> loss1/classifier_plantvillage_loss1/classifier_plantvillage_0_split_2
I0403 19:30:38.226483  9324 net.cpp:141] Setting up loss1/classifier_plantvillage_loss1/classifier_plantvillage_0_split
I0403 19:30:38.226508  9324 net.cpp:148] Top shape: 24 38 (912)
I0403 19:30:38.226526  9324 net.cpp:148] Top shape: 24 38 (912)
I0403 19:30:38.226541  9324 net.cpp:148] Top shape: 24 38 (912)
I0403 19:30:38.226555  9324 net.cpp:156] Memory required for data: 946203936
I0403 19:30:38.226582  9324 layer_factory.hpp:77] Creating layer inception_4b/1x1
I0403 19:30:38.226601  9324 net.cpp:91] Creating Layer inception_4b/1x1
I0403 19:30:38.226635  9324 net.cpp:425] inception_4b/1x1 <- inception_4a/output_inception_4a/output_0_split_1
I0403 19:30:38.226656  9324 net.cpp:399] inception_4b/1x1 -> inception_4b/1x1
I0403 19:30:38.228304  9324 net.cpp:141] Setting up inception_4b/1x1
I0403 19:30:38.228333  9324 net.cpp:148] Top shape: 24 160 14 14 (752640)
I0403 19:30:38.228349  9324 net.cpp:156] Memory required for data: 949214496
I0403 19:30:38.228368  9324 layer_factory.hpp:77] Creating layer inception_4b/relu_1x1
I0403 19:30:38.228386  9324 net.cpp:91] Creating Layer inception_4b/relu_1x1
I0403 19:30:38.228404  9324 net.cpp:425] inception_4b/relu_1x1 <- inception_4b/1x1
I0403 19:30:38.228423  9324 net.cpp:386] inception_4b/relu_1x1 -> inception_4b/1x1 (in-place)
I0403 19:30:38.228611  9324 net.cpp:141] Setting up inception_4b/relu_1x1
I0403 19:30:38.228636  9324 net.cpp:148] Top shape: 24 160 14 14 (752640)
I0403 19:30:38.228649  9324 net.cpp:156] Memory required for data: 952225056
I0403 19:30:38.228664  9324 layer_factory.hpp:77] Creating layer inception_4b/3x3_reduce
I0403 19:30:38.228687  9324 net.cpp:91] Creating Layer inception_4b/3x3_reduce
I0403 19:30:38.228703  9324 net.cpp:425] inception_4b/3x3_reduce <- inception_4a/output_inception_4a/output_0_split_2
I0403 19:30:38.228723  9324 net.cpp:399] inception_4b/3x3_reduce -> inception_4b/3x3_reduce
I0403 19:30:38.230036  9324 net.cpp:141] Setting up inception_4b/3x3_reduce
I0403 19:30:38.230063  9324 net.cpp:148] Top shape: 24 112 14 14 (526848)
I0403 19:30:38.230078  9324 net.cpp:156] Memory required for data: 954332448
I0403 19:30:38.230096  9324 layer_factory.hpp:77] Creating layer inception_4b/relu_3x3_reduce
I0403 19:30:38.230118  9324 net.cpp:91] Creating Layer inception_4b/relu_3x3_reduce
I0403 19:30:38.230135  9324 net.cpp:425] inception_4b/relu_3x3_reduce <- inception_4b/3x3_reduce
I0403 19:30:38.230152  9324 net.cpp:386] inception_4b/relu_3x3_reduce -> inception_4b/3x3_reduce (in-place)
I0403 19:30:38.230458  9324 net.cpp:141] Setting up inception_4b/relu_3x3_reduce
I0403 19:30:38.230484  9324 net.cpp:148] Top shape: 24 112 14 14 (526848)
I0403 19:30:38.230499  9324 net.cpp:156] Memory required for data: 956439840
I0403 19:30:38.230512  9324 layer_factory.hpp:77] Creating layer inception_4b/3x3
I0403 19:30:38.230535  9324 net.cpp:91] Creating Layer inception_4b/3x3
I0403 19:30:38.230552  9324 net.cpp:425] inception_4b/3x3 <- inception_4b/3x3_reduce
I0403 19:30:38.230576  9324 net.cpp:399] inception_4b/3x3 -> inception_4b/3x3
I0403 19:30:38.233527  9324 net.cpp:141] Setting up inception_4b/3x3
I0403 19:30:38.233558  9324 net.cpp:148] Top shape: 24 224 14 14 (1053696)
I0403 19:30:38.233575  9324 net.cpp:156] Memory required for data: 960654624
I0403 19:30:38.233593  9324 layer_factory.hpp:77] Creating layer inception_4b/relu_3x3
I0403 19:30:38.233611  9324 net.cpp:91] Creating Layer inception_4b/relu_3x3
I0403 19:30:38.233628  9324 net.cpp:425] inception_4b/relu_3x3 <- inception_4b/3x3
I0403 19:30:38.233645  9324 net.cpp:386] inception_4b/relu_3x3 -> inception_4b/3x3 (in-place)
I0403 19:30:38.233822  9324 net.cpp:141] Setting up inception_4b/relu_3x3
I0403 19:30:38.233846  9324 net.cpp:148] Top shape: 24 224 14 14 (1053696)
I0403 19:30:38.233860  9324 net.cpp:156] Memory required for data: 964869408
I0403 19:30:38.233875  9324 layer_factory.hpp:77] Creating layer inception_4b/5x5_reduce
I0403 19:30:38.233897  9324 net.cpp:91] Creating Layer inception_4b/5x5_reduce
I0403 19:30:38.233914  9324 net.cpp:425] inception_4b/5x5_reduce <- inception_4a/output_inception_4a/output_0_split_3
I0403 19:30:38.233935  9324 net.cpp:399] inception_4b/5x5_reduce -> inception_4b/5x5_reduce
I0403 19:30:38.235018  9324 net.cpp:141] Setting up inception_4b/5x5_reduce
I0403 19:30:38.235045  9324 net.cpp:148] Top shape: 24 24 14 14 (112896)
I0403 19:30:38.235061  9324 net.cpp:156] Memory required for data: 965320992
I0403 19:30:38.235080  9324 layer_factory.hpp:77] Creating layer inception_4b/relu_5x5_reduce
I0403 19:30:38.235101  9324 net.cpp:91] Creating Layer inception_4b/relu_5x5_reduce
I0403 19:30:38.235131  9324 net.cpp:425] inception_4b/relu_5x5_reduce <- inception_4b/5x5_reduce
I0403 19:30:38.235149  9324 net.cpp:386] inception_4b/relu_5x5_reduce -> inception_4b/5x5_reduce (in-place)
I0403 19:30:38.235342  9324 net.cpp:141] Setting up inception_4b/relu_5x5_reduce
I0403 19:30:38.235368  9324 net.cpp:148] Top shape: 24 24 14 14 (112896)
I0403 19:30:38.235383  9324 net.cpp:156] Memory required for data: 965772576
I0403 19:30:38.235397  9324 layer_factory.hpp:77] Creating layer inception_4b/5x5
I0403 19:30:38.235421  9324 net.cpp:91] Creating Layer inception_4b/5x5
I0403 19:30:38.235440  9324 net.cpp:425] inception_4b/5x5 <- inception_4b/5x5_reduce
I0403 19:30:38.235460  9324 net.cpp:399] inception_4b/5x5 -> inception_4b/5x5
I0403 19:30:38.236711  9324 net.cpp:141] Setting up inception_4b/5x5
I0403 19:30:38.236738  9324 net.cpp:148] Top shape: 24 64 14 14 (301056)
I0403 19:30:38.236753  9324 net.cpp:156] Memory required for data: 966976800
I0403 19:30:38.236771  9324 layer_factory.hpp:77] Creating layer inception_4b/relu_5x5
I0403 19:30:38.236789  9324 net.cpp:91] Creating Layer inception_4b/relu_5x5
I0403 19:30:38.236805  9324 net.cpp:425] inception_4b/relu_5x5 <- inception_4b/5x5
I0403 19:30:38.236824  9324 net.cpp:386] inception_4b/relu_5x5 -> inception_4b/5x5 (in-place)
I0403 19:30:38.237114  9324 net.cpp:141] Setting up inception_4b/relu_5x5
I0403 19:30:38.237140  9324 net.cpp:148] Top shape: 24 64 14 14 (301056)
I0403 19:30:38.237156  9324 net.cpp:156] Memory required for data: 968181024
I0403 19:30:38.237170  9324 layer_factory.hpp:77] Creating layer inception_4b/pool
I0403 19:30:38.237195  9324 net.cpp:91] Creating Layer inception_4b/pool
I0403 19:30:38.237211  9324 net.cpp:425] inception_4b/pool <- inception_4a/output_inception_4a/output_0_split_4
I0403 19:30:38.237233  9324 net.cpp:399] inception_4b/pool -> inception_4b/pool
I0403 19:30:38.237304  9324 net.cpp:141] Setting up inception_4b/pool
I0403 19:30:38.237329  9324 net.cpp:148] Top shape: 24 512 14 14 (2408448)
I0403 19:30:38.237344  9324 net.cpp:156] Memory required for data: 977814816
I0403 19:30:38.237357  9324 layer_factory.hpp:77] Creating layer inception_4b/pool_proj
I0403 19:30:38.237381  9324 net.cpp:91] Creating Layer inception_4b/pool_proj
I0403 19:30:38.237399  9324 net.cpp:425] inception_4b/pool_proj <- inception_4b/pool
I0403 19:30:38.237417  9324 net.cpp:399] inception_4b/pool_proj -> inception_4b/pool_proj
I0403 19:30:38.238636  9324 net.cpp:141] Setting up inception_4b/pool_proj
I0403 19:30:38.238664  9324 net.cpp:148] Top shape: 24 64 14 14 (301056)
I0403 19:30:38.238679  9324 net.cpp:156] Memory required for data: 979019040
I0403 19:30:38.238698  9324 layer_factory.hpp:77] Creating layer inception_4b/relu_pool_proj
I0403 19:30:38.238715  9324 net.cpp:91] Creating Layer inception_4b/relu_pool_proj
I0403 19:30:38.238731  9324 net.cpp:425] inception_4b/relu_pool_proj <- inception_4b/pool_proj
I0403 19:30:38.238751  9324 net.cpp:386] inception_4b/relu_pool_proj -> inception_4b/pool_proj (in-place)
I0403 19:30:38.238929  9324 net.cpp:141] Setting up inception_4b/relu_pool_proj
I0403 19:30:38.238953  9324 net.cpp:148] Top shape: 24 64 14 14 (301056)
I0403 19:30:38.238968  9324 net.cpp:156] Memory required for data: 980223264
I0403 19:30:38.238982  9324 layer_factory.hpp:77] Creating layer inception_4b/output
I0403 19:30:38.239002  9324 net.cpp:91] Creating Layer inception_4b/output
I0403 19:30:38.239018  9324 net.cpp:425] inception_4b/output <- inception_4b/1x1
I0403 19:30:38.239034  9324 net.cpp:425] inception_4b/output <- inception_4b/3x3
I0403 19:30:38.239050  9324 net.cpp:425] inception_4b/output <- inception_4b/5x5
I0403 19:30:38.239066  9324 net.cpp:425] inception_4b/output <- inception_4b/pool_proj
I0403 19:30:38.239083  9324 net.cpp:399] inception_4b/output -> inception_4b/output
I0403 19:30:38.239130  9324 net.cpp:141] Setting up inception_4b/output
I0403 19:30:38.239153  9324 net.cpp:148] Top shape: 24 512 14 14 (2408448)
I0403 19:30:38.239168  9324 net.cpp:156] Memory required for data: 989857056
I0403 19:30:38.239198  9324 layer_factory.hpp:77] Creating layer inception_4b/output_inception_4b/output_0_split
I0403 19:30:38.239217  9324 net.cpp:91] Creating Layer inception_4b/output_inception_4b/output_0_split
I0403 19:30:38.239233  9324 net.cpp:425] inception_4b/output_inception_4b/output_0_split <- inception_4b/output
I0403 19:30:38.239251  9324 net.cpp:399] inception_4b/output_inception_4b/output_0_split -> inception_4b/output_inception_4b/output_0_split_0
I0403 19:30:38.239276  9324 net.cpp:399] inception_4b/output_inception_4b/output_0_split -> inception_4b/output_inception_4b/output_0_split_1
I0403 19:30:38.239311  9324 net.cpp:399] inception_4b/output_inception_4b/output_0_split -> inception_4b/output_inception_4b/output_0_split_2
I0403 19:30:38.239332  9324 net.cpp:399] inception_4b/output_inception_4b/output_0_split -> inception_4b/output_inception_4b/output_0_split_3
I0403 19:30:38.239419  9324 net.cpp:141] Setting up inception_4b/output_inception_4b/output_0_split
I0403 19:30:38.239444  9324 net.cpp:148] Top shape: 24 512 14 14 (2408448)
I0403 19:30:38.239459  9324 net.cpp:148] Top shape: 24 512 14 14 (2408448)
I0403 19:30:38.239475  9324 net.cpp:148] Top shape: 24 512 14 14 (2408448)
I0403 19:30:38.239491  9324 net.cpp:148] Top shape: 24 512 14 14 (2408448)
I0403 19:30:38.239506  9324 net.cpp:156] Memory required for data: 1028392224
I0403 19:30:38.239521  9324 layer_factory.hpp:77] Creating layer inception_4c/1x1
I0403 19:30:38.239544  9324 net.cpp:91] Creating Layer inception_4c/1x1
I0403 19:30:38.239562  9324 net.cpp:425] inception_4c/1x1 <- inception_4b/output_inception_4b/output_0_split_0
I0403 19:30:38.239595  9324 net.cpp:399] inception_4c/1x1 -> inception_4c/1x1
I0403 19:30:38.241042  9324 net.cpp:141] Setting up inception_4c/1x1
I0403 19:30:38.241072  9324 net.cpp:148] Top shape: 24 128 14 14 (602112)
I0403 19:30:38.241092  9324 net.cpp:156] Memory required for data: 1030800672
I0403 19:30:38.241111  9324 layer_factory.hpp:77] Creating layer inception_4c/relu_1x1
I0403 19:30:38.241129  9324 net.cpp:91] Creating Layer inception_4c/relu_1x1
I0403 19:30:38.241145  9324 net.cpp:425] inception_4c/relu_1x1 <- inception_4c/1x1
I0403 19:30:38.241163  9324 net.cpp:386] inception_4c/relu_1x1 -> inception_4c/1x1 (in-place)
I0403 19:30:38.241343  9324 net.cpp:141] Setting up inception_4c/relu_1x1
I0403 19:30:38.241370  9324 net.cpp:148] Top shape: 24 128 14 14 (602112)
I0403 19:30:38.241385  9324 net.cpp:156] Memory required for data: 1033209120
I0403 19:30:38.241400  9324 layer_factory.hpp:77] Creating layer inception_4c/3x3_reduce
I0403 19:30:38.241422  9324 net.cpp:91] Creating Layer inception_4c/3x3_reduce
I0403 19:30:38.241441  9324 net.cpp:425] inception_4c/3x3_reduce <- inception_4b/output_inception_4b/output_0_split_1
I0403 19:30:38.241458  9324 net.cpp:399] inception_4c/3x3_reduce -> inception_4c/3x3_reduce
I0403 19:30:38.243474  9324 net.cpp:141] Setting up inception_4c/3x3_reduce
I0403 19:30:38.243504  9324 net.cpp:148] Top shape: 24 128 14 14 (602112)
I0403 19:30:38.243520  9324 net.cpp:156] Memory required for data: 1035617568
I0403 19:30:38.243538  9324 layer_factory.hpp:77] Creating layer inception_4c/relu_3x3_reduce
I0403 19:30:38.243557  9324 net.cpp:91] Creating Layer inception_4c/relu_3x3_reduce
I0403 19:30:38.243585  9324 net.cpp:425] inception_4c/relu_3x3_reduce <- inception_4c/3x3_reduce
I0403 19:30:38.243604  9324 net.cpp:386] inception_4c/relu_3x3_reduce -> inception_4c/3x3_reduce (in-place)
I0403 19:30:38.243891  9324 net.cpp:141] Setting up inception_4c/relu_3x3_reduce
I0403 19:30:38.243917  9324 net.cpp:148] Top shape: 24 128 14 14 (602112)
I0403 19:30:38.243932  9324 net.cpp:156] Memory required for data: 1038026016
I0403 19:30:38.243947  9324 layer_factory.hpp:77] Creating layer inception_4c/3x3
I0403 19:30:38.243970  9324 net.cpp:91] Creating Layer inception_4c/3x3
I0403 19:30:38.243988  9324 net.cpp:425] inception_4c/3x3 <- inception_4c/3x3_reduce
I0403 19:30:38.244009  9324 net.cpp:399] inception_4c/3x3 -> inception_4c/3x3
I0403 19:30:38.247719  9324 net.cpp:141] Setting up inception_4c/3x3
I0403 19:30:38.247759  9324 net.cpp:148] Top shape: 24 256 14 14 (1204224)
I0403 19:30:38.247776  9324 net.cpp:156] Memory required for data: 1042842912
I0403 19:30:38.247807  9324 layer_factory.hpp:77] Creating layer inception_4c/relu_3x3
I0403 19:30:38.247828  9324 net.cpp:91] Creating Layer inception_4c/relu_3x3
I0403 19:30:38.247843  9324 net.cpp:425] inception_4c/relu_3x3 <- inception_4c/3x3
I0403 19:30:38.247862  9324 net.cpp:386] inception_4c/relu_3x3 -> inception_4c/3x3 (in-place)
I0403 19:30:38.248044  9324 net.cpp:141] Setting up inception_4c/relu_3x3
I0403 19:30:38.248067  9324 net.cpp:148] Top shape: 24 256 14 14 (1204224)
I0403 19:30:38.248081  9324 net.cpp:156] Memory required for data: 1047659808
I0403 19:30:38.248096  9324 layer_factory.hpp:77] Creating layer inception_4c/5x5_reduce
I0403 19:30:38.248118  9324 net.cpp:91] Creating Layer inception_4c/5x5_reduce
I0403 19:30:38.248136  9324 net.cpp:425] inception_4c/5x5_reduce <- inception_4b/output_inception_4b/output_0_split_2
I0403 19:30:38.248159  9324 net.cpp:399] inception_4c/5x5_reduce -> inception_4c/5x5_reduce
I0403 19:30:38.249296  9324 net.cpp:141] Setting up inception_4c/5x5_reduce
I0403 19:30:38.249325  9324 net.cpp:148] Top shape: 24 24 14 14 (112896)
I0403 19:30:38.249341  9324 net.cpp:156] Memory required for data: 1048111392
I0403 19:30:38.249359  9324 layer_factory.hpp:77] Creating layer inception_4c/relu_5x5_reduce
I0403 19:30:38.249380  9324 net.cpp:91] Creating Layer inception_4c/relu_5x5_reduce
I0403 19:30:38.249397  9324 net.cpp:425] inception_4c/relu_5x5_reduce <- inception_4c/5x5_reduce
I0403 19:30:38.249415  9324 net.cpp:386] inception_4c/relu_5x5_reduce -> inception_4c/5x5_reduce (in-place)
I0403 19:30:38.249614  9324 net.cpp:141] Setting up inception_4c/relu_5x5_reduce
I0403 19:30:38.249639  9324 net.cpp:148] Top shape: 24 24 14 14 (112896)
I0403 19:30:38.249655  9324 net.cpp:156] Memory required for data: 1048562976
I0403 19:30:38.249668  9324 layer_factory.hpp:77] Creating layer inception_4c/5x5
I0403 19:30:38.249691  9324 net.cpp:91] Creating Layer inception_4c/5x5
I0403 19:30:38.249711  9324 net.cpp:425] inception_4c/5x5 <- inception_4c/5x5_reduce
I0403 19:30:38.249729  9324 net.cpp:399] inception_4c/5x5 -> inception_4c/5x5
I0403 19:30:38.251003  9324 net.cpp:141] Setting up inception_4c/5x5
I0403 19:30:38.251031  9324 net.cpp:148] Top shape: 24 64 14 14 (301056)
I0403 19:30:38.251046  9324 net.cpp:156] Memory required for data: 1049767200
I0403 19:30:38.251065  9324 layer_factory.hpp:77] Creating layer inception_4c/relu_5x5
I0403 19:30:38.251085  9324 net.cpp:91] Creating Layer inception_4c/relu_5x5
I0403 19:30:38.251101  9324 net.cpp:425] inception_4c/relu_5x5 <- inception_4c/5x5
I0403 19:30:38.251118  9324 net.cpp:386] inception_4c/relu_5x5 -> inception_4c/5x5 (in-place)
I0403 19:30:38.251430  9324 net.cpp:141] Setting up inception_4c/relu_5x5
I0403 19:30:38.251456  9324 net.cpp:148] Top shape: 24 64 14 14 (301056)
I0403 19:30:38.251472  9324 net.cpp:156] Memory required for data: 1050971424
I0403 19:30:38.251487  9324 layer_factory.hpp:77] Creating layer inception_4c/pool
I0403 19:30:38.251507  9324 net.cpp:91] Creating Layer inception_4c/pool
I0403 19:30:38.251524  9324 net.cpp:425] inception_4c/pool <- inception_4b/output_inception_4b/output_0_split_3
I0403 19:30:38.251543  9324 net.cpp:399] inception_4c/pool -> inception_4c/pool
I0403 19:30:38.251622  9324 net.cpp:141] Setting up inception_4c/pool
I0403 19:30:38.251646  9324 net.cpp:148] Top shape: 24 512 14 14 (2408448)
I0403 19:30:38.251662  9324 net.cpp:156] Memory required for data: 1060605216
I0403 19:30:38.251677  9324 layer_factory.hpp:77] Creating layer inception_4c/pool_proj
I0403 19:30:38.251698  9324 net.cpp:91] Creating Layer inception_4c/pool_proj
I0403 19:30:38.251715  9324 net.cpp:425] inception_4c/pool_proj <- inception_4c/pool
I0403 19:30:38.251736  9324 net.cpp:399] inception_4c/pool_proj -> inception_4c/pool_proj
I0403 19:30:38.252991  9324 net.cpp:141] Setting up inception_4c/pool_proj
I0403 19:30:38.253020  9324 net.cpp:148] Top shape: 24 64 14 14 (301056)
I0403 19:30:38.253049  9324 net.cpp:156] Memory required for data: 1061809440
I0403 19:30:38.253068  9324 layer_factory.hpp:77] Creating layer inception_4c/relu_pool_proj
I0403 19:30:38.253087  9324 net.cpp:91] Creating Layer inception_4c/relu_pool_proj
I0403 19:30:38.253103  9324 net.cpp:425] inception_4c/relu_pool_proj <- inception_4c/pool_proj
I0403 19:30:38.253123  9324 net.cpp:386] inception_4c/relu_pool_proj -> inception_4c/pool_proj (in-place)
I0403 19:30:38.253320  9324 net.cpp:141] Setting up inception_4c/relu_pool_proj
I0403 19:30:38.253346  9324 net.cpp:148] Top shape: 24 64 14 14 (301056)
I0403 19:30:38.253361  9324 net.cpp:156] Memory required for data: 1063013664
I0403 19:30:38.253376  9324 layer_factory.hpp:77] Creating layer inception_4c/output
I0403 19:30:38.253396  9324 net.cpp:91] Creating Layer inception_4c/output
I0403 19:30:38.253413  9324 net.cpp:425] inception_4c/output <- inception_4c/1x1
I0403 19:30:38.253429  9324 net.cpp:425] inception_4c/output <- inception_4c/3x3
I0403 19:30:38.253446  9324 net.cpp:425] inception_4c/output <- inception_4c/5x5
I0403 19:30:38.253463  9324 net.cpp:425] inception_4c/output <- inception_4c/pool_proj
I0403 19:30:38.253479  9324 net.cpp:399] inception_4c/output -> inception_4c/output
I0403 19:30:38.253528  9324 net.cpp:141] Setting up inception_4c/output
I0403 19:30:38.253552  9324 net.cpp:148] Top shape: 24 512 14 14 (2408448)
I0403 19:30:38.253578  9324 net.cpp:156] Memory required for data: 1072647456
I0403 19:30:38.253593  9324 layer_factory.hpp:77] Creating layer inception_4c/output_inception_4c/output_0_split
I0403 19:30:38.253610  9324 net.cpp:91] Creating Layer inception_4c/output_inception_4c/output_0_split
I0403 19:30:38.253624  9324 net.cpp:425] inception_4c/output_inception_4c/output_0_split <- inception_4c/output
I0403 19:30:38.253644  9324 net.cpp:399] inception_4c/output_inception_4c/output_0_split -> inception_4c/output_inception_4c/output_0_split_0
I0403 19:30:38.253664  9324 net.cpp:399] inception_4c/output_inception_4c/output_0_split -> inception_4c/output_inception_4c/output_0_split_1
I0403 19:30:38.253685  9324 net.cpp:399] inception_4c/output_inception_4c/output_0_split -> inception_4c/output_inception_4c/output_0_split_2
I0403 19:30:38.253710  9324 net.cpp:399] inception_4c/output_inception_4c/output_0_split -> inception_4c/output_inception_4c/output_0_split_3
I0403 19:30:38.253794  9324 net.cpp:141] Setting up inception_4c/output_inception_4c/output_0_split
I0403 19:30:38.253820  9324 net.cpp:148] Top shape: 24 512 14 14 (2408448)
I0403 19:30:38.253836  9324 net.cpp:148] Top shape: 24 512 14 14 (2408448)
I0403 19:30:38.253852  9324 net.cpp:148] Top shape: 24 512 14 14 (2408448)
I0403 19:30:38.253867  9324 net.cpp:148] Top shape: 24 512 14 14 (2408448)
I0403 19:30:38.253881  9324 net.cpp:156] Memory required for data: 1111182624
I0403 19:30:38.253895  9324 layer_factory.hpp:77] Creating layer inception_4d/1x1
I0403 19:30:38.253918  9324 net.cpp:91] Creating Layer inception_4d/1x1
I0403 19:30:38.253936  9324 net.cpp:425] inception_4d/1x1 <- inception_4c/output_inception_4c/output_0_split_0
I0403 19:30:38.253957  9324 net.cpp:399] inception_4d/1x1 -> inception_4d/1x1
I0403 19:30:38.255383  9324 net.cpp:141] Setting up inception_4d/1x1
I0403 19:30:38.255421  9324 net.cpp:148] Top shape: 24 112 14 14 (526848)
I0403 19:30:38.255450  9324 net.cpp:156] Memory required for data: 1113290016
I0403 19:30:38.255467  9324 layer_factory.hpp:77] Creating layer inception_4d/relu_1x1
I0403 19:30:38.255486  9324 net.cpp:91] Creating Layer inception_4d/relu_1x1
I0403 19:30:38.255501  9324 net.cpp:425] inception_4d/relu_1x1 <- inception_4d/1x1
I0403 19:30:38.255522  9324 net.cpp:386] inception_4d/relu_1x1 -> inception_4d/1x1 (in-place)
I0403 19:30:38.255713  9324 net.cpp:141] Setting up inception_4d/relu_1x1
I0403 19:30:38.255746  9324 net.cpp:148] Top shape: 24 112 14 14 (526848)
I0403 19:30:38.255760  9324 net.cpp:156] Memory required for data: 1115397408
I0403 19:30:38.255774  9324 layer_factory.hpp:77] Creating layer inception_4d/3x3_reduce
I0403 19:30:38.255810  9324 net.cpp:91] Creating Layer inception_4d/3x3_reduce
I0403 19:30:38.255827  9324 net.cpp:425] inception_4d/3x3_reduce <- inception_4c/output_inception_4c/output_0_split_1
I0403 19:30:38.255851  9324 net.cpp:399] inception_4d/3x3_reduce -> inception_4d/3x3_reduce
I0403 19:30:38.257411  9324 net.cpp:141] Setting up inception_4d/3x3_reduce
I0403 19:30:38.257439  9324 net.cpp:148] Top shape: 24 144 14 14 (677376)
I0403 19:30:38.257457  9324 net.cpp:156] Memory required for data: 1118106912
I0403 19:30:38.257474  9324 layer_factory.hpp:77] Creating layer inception_4d/relu_3x3_reduce
I0403 19:30:38.257495  9324 net.cpp:91] Creating Layer inception_4d/relu_3x3_reduce
I0403 19:30:38.257524  9324 net.cpp:425] inception_4d/relu_3x3_reduce <- inception_4d/3x3_reduce
I0403 19:30:38.257541  9324 net.cpp:386] inception_4d/relu_3x3_reduce -> inception_4d/3x3_reduce (in-place)
I0403 19:30:38.257830  9324 net.cpp:141] Setting up inception_4d/relu_3x3_reduce
I0403 19:30:38.257856  9324 net.cpp:148] Top shape: 24 144 14 14 (677376)
I0403 19:30:38.257870  9324 net.cpp:156] Memory required for data: 1120816416
I0403 19:30:38.257885  9324 layer_factory.hpp:77] Creating layer inception_4d/3x3
I0403 19:30:38.257910  9324 net.cpp:91] Creating Layer inception_4d/3x3
I0403 19:30:38.257928  9324 net.cpp:425] inception_4d/3x3 <- inception_4d/3x3_reduce
I0403 19:30:38.257946  9324 net.cpp:399] inception_4d/3x3 -> inception_4d/3x3
I0403 19:30:38.262298  9324 net.cpp:141] Setting up inception_4d/3x3
I0403 19:30:38.262331  9324 net.cpp:148] Top shape: 24 288 14 14 (1354752)
I0403 19:30:38.262347  9324 net.cpp:156] Memory required for data: 1126235424
I0403 19:30:38.262367  9324 layer_factory.hpp:77] Creating layer inception_4d/relu_3x3
I0403 19:30:38.262383  9324 net.cpp:91] Creating Layer inception_4d/relu_3x3
I0403 19:30:38.262399  9324 net.cpp:425] inception_4d/relu_3x3 <- inception_4d/3x3
I0403 19:30:38.262419  9324 net.cpp:386] inception_4d/relu_3x3 -> inception_4d/3x3 (in-place)
I0403 19:30:38.262601  9324 net.cpp:141] Setting up inception_4d/relu_3x3
I0403 19:30:38.262625  9324 net.cpp:148] Top shape: 24 288 14 14 (1354752)
I0403 19:30:38.262640  9324 net.cpp:156] Memory required for data: 1131654432
I0403 19:30:38.262655  9324 layer_factory.hpp:77] Creating layer inception_4d/5x5_reduce
I0403 19:30:38.262677  9324 net.cpp:91] Creating Layer inception_4d/5x5_reduce
I0403 19:30:38.262694  9324 net.cpp:425] inception_4d/5x5_reduce <- inception_4c/output_inception_4c/output_0_split_2
I0403 19:30:38.262717  9324 net.cpp:399] inception_4d/5x5_reduce -> inception_4d/5x5_reduce
I0403 19:30:38.263897  9324 net.cpp:141] Setting up inception_4d/5x5_reduce
I0403 19:30:38.263931  9324 net.cpp:148] Top shape: 24 32 14 14 (150528)
I0403 19:30:38.263945  9324 net.cpp:156] Memory required for data: 1132256544
I0403 19:30:38.263963  9324 layer_factory.hpp:77] Creating layer inception_4d/relu_5x5_reduce
I0403 19:30:38.263981  9324 net.cpp:91] Creating Layer inception_4d/relu_5x5_reduce
I0403 19:30:38.263998  9324 net.cpp:425] inception_4d/relu_5x5_reduce <- inception_4d/5x5_reduce
I0403 19:30:38.264017  9324 net.cpp:386] inception_4d/relu_5x5_reduce -> inception_4d/5x5_reduce (in-place)
I0403 19:30:38.264207  9324 net.cpp:141] Setting up inception_4d/relu_5x5_reduce
I0403 19:30:38.264232  9324 net.cpp:148] Top shape: 24 32 14 14 (150528)
I0403 19:30:38.264246  9324 net.cpp:156] Memory required for data: 1132858656
I0403 19:30:38.264261  9324 layer_factory.hpp:77] Creating layer inception_4d/5x5
I0403 19:30:38.264287  9324 net.cpp:91] Creating Layer inception_4d/5x5
I0403 19:30:38.264305  9324 net.cpp:425] inception_4d/5x5 <- inception_4d/5x5_reduce
I0403 19:30:38.264327  9324 net.cpp:399] inception_4d/5x5 -> inception_4d/5x5
I0403 19:30:38.265837  9324 net.cpp:141] Setting up inception_4d/5x5
I0403 19:30:38.265895  9324 net.cpp:148] Top shape: 24 64 14 14 (301056)
I0403 19:30:38.265934  9324 net.cpp:156] Memory required for data: 1134062880
I0403 19:30:38.265952  9324 layer_factory.hpp:77] Creating layer inception_4d/relu_5x5
I0403 19:30:38.265987  9324 net.cpp:91] Creating Layer inception_4d/relu_5x5
I0403 19:30:38.266005  9324 net.cpp:425] inception_4d/relu_5x5 <- inception_4d/5x5
I0403 19:30:38.266022  9324 net.cpp:386] inception_4d/relu_5x5 -> inception_4d/5x5 (in-place)
I0403 19:30:38.266330  9324 net.cpp:141] Setting up inception_4d/relu_5x5
I0403 19:30:38.266356  9324 net.cpp:148] Top shape: 24 64 14 14 (301056)
I0403 19:30:38.266371  9324 net.cpp:156] Memory required for data: 1135267104
I0403 19:30:38.266386  9324 layer_factory.hpp:77] Creating layer inception_4d/pool
I0403 19:30:38.266407  9324 net.cpp:91] Creating Layer inception_4d/pool
I0403 19:30:38.266423  9324 net.cpp:425] inception_4d/pool <- inception_4c/output_inception_4c/output_0_split_3
I0403 19:30:38.266440  9324 net.cpp:399] inception_4d/pool -> inception_4d/pool
I0403 19:30:38.266508  9324 net.cpp:141] Setting up inception_4d/pool
I0403 19:30:38.266532  9324 net.cpp:148] Top shape: 24 512 14 14 (2408448)
I0403 19:30:38.266547  9324 net.cpp:156] Memory required for data: 1144900896
I0403 19:30:38.266562  9324 layer_factory.hpp:77] Creating layer inception_4d/pool_proj
I0403 19:30:38.266584  9324 net.cpp:91] Creating Layer inception_4d/pool_proj
I0403 19:30:38.266602  9324 net.cpp:425] inception_4d/pool_proj <- inception_4d/pool
I0403 19:30:38.266623  9324 net.cpp:399] inception_4d/pool_proj -> inception_4d/pool_proj
I0403 19:30:38.268436  9324 net.cpp:141] Setting up inception_4d/pool_proj
I0403 19:30:38.268468  9324 net.cpp:148] Top shape: 24 64 14 14 (301056)
I0403 19:30:38.268484  9324 net.cpp:156] Memory required for data: 1146105120
I0403 19:30:38.268515  9324 layer_factory.hpp:77] Creating layer inception_4d/relu_pool_proj
I0403 19:30:38.268533  9324 net.cpp:91] Creating Layer inception_4d/relu_pool_proj
I0403 19:30:38.268549  9324 net.cpp:425] inception_4d/relu_pool_proj <- inception_4d/pool_proj
I0403 19:30:38.268568  9324 net.cpp:386] inception_4d/relu_pool_proj -> inception_4d/pool_proj (in-place)
I0403 19:30:38.268753  9324 net.cpp:141] Setting up inception_4d/relu_pool_proj
I0403 19:30:38.268777  9324 net.cpp:148] Top shape: 24 64 14 14 (301056)
I0403 19:30:38.268791  9324 net.cpp:156] Memory required for data: 1147309344
I0403 19:30:38.268806  9324 layer_factory.hpp:77] Creating layer inception_4d/output
I0403 19:30:38.268823  9324 net.cpp:91] Creating Layer inception_4d/output
I0403 19:30:38.268838  9324 net.cpp:425] inception_4d/output <- inception_4d/1x1
I0403 19:30:38.268857  9324 net.cpp:425] inception_4d/output <- inception_4d/3x3
I0403 19:30:38.268875  9324 net.cpp:425] inception_4d/output <- inception_4d/5x5
I0403 19:30:38.268892  9324 net.cpp:425] inception_4d/output <- inception_4d/pool_proj
I0403 19:30:38.268910  9324 net.cpp:399] inception_4d/output -> inception_4d/output
I0403 19:30:38.268960  9324 net.cpp:141] Setting up inception_4d/output
I0403 19:30:38.268983  9324 net.cpp:148] Top shape: 24 528 14 14 (2483712)
I0403 19:30:38.268997  9324 net.cpp:156] Memory required for data: 1157244192
I0403 19:30:38.269012  9324 layer_factory.hpp:77] Creating layer inception_4d/output_inception_4d/output_0_split
I0403 19:30:38.269029  9324 net.cpp:91] Creating Layer inception_4d/output_inception_4d/output_0_split
I0403 19:30:38.269045  9324 net.cpp:425] inception_4d/output_inception_4d/output_0_split <- inception_4d/output
I0403 19:30:38.269067  9324 net.cpp:399] inception_4d/output_inception_4d/output_0_split -> inception_4d/output_inception_4d/output_0_split_0
I0403 19:30:38.269088  9324 net.cpp:399] inception_4d/output_inception_4d/output_0_split -> inception_4d/output_inception_4d/output_0_split_1
I0403 19:30:38.269109  9324 net.cpp:399] inception_4d/output_inception_4d/output_0_split -> inception_4d/output_inception_4d/output_0_split_2
I0403 19:30:38.269129  9324 net.cpp:399] inception_4d/output_inception_4d/output_0_split -> inception_4d/output_inception_4d/output_0_split_3
I0403 19:30:38.269147  9324 net.cpp:399] inception_4d/output_inception_4d/output_0_split -> inception_4d/output_inception_4d/output_0_split_4
I0403 19:30:38.269263  9324 net.cpp:141] Setting up inception_4d/output_inception_4d/output_0_split
I0403 19:30:38.269305  9324 net.cpp:148] Top shape: 24 528 14 14 (2483712)
I0403 19:30:38.269325  9324 net.cpp:148] Top shape: 24 528 14 14 (2483712)
I0403 19:30:38.269340  9324 net.cpp:148] Top shape: 24 528 14 14 (2483712)
I0403 19:30:38.269356  9324 net.cpp:148] Top shape: 24 528 14 14 (2483712)
I0403 19:30:38.269374  9324 net.cpp:148] Top shape: 24 528 14 14 (2483712)
I0403 19:30:38.269388  9324 net.cpp:156] Memory required for data: 1206918432
I0403 19:30:38.269403  9324 layer_factory.hpp:77] Creating layer loss2/ave_pool
I0403 19:30:38.269423  9324 net.cpp:91] Creating Layer loss2/ave_pool
I0403 19:30:38.269439  9324 net.cpp:425] loss2/ave_pool <- inception_4d/output_inception_4d/output_0_split_0
I0403 19:30:38.269457  9324 net.cpp:399] loss2/ave_pool -> loss2/ave_pool
I0403 19:30:38.269784  9324 net.cpp:141] Setting up loss2/ave_pool
I0403 19:30:38.269812  9324 net.cpp:148] Top shape: 24 528 4 4 (202752)
I0403 19:30:38.269829  9324 net.cpp:156] Memory required for data: 1207729440
I0403 19:30:38.269842  9324 layer_factory.hpp:77] Creating layer loss2/conv
I0403 19:30:38.269865  9324 net.cpp:91] Creating Layer loss2/conv
I0403 19:30:38.269882  9324 net.cpp:425] loss2/conv <- loss2/ave_pool
I0403 19:30:38.269901  9324 net.cpp:399] loss2/conv -> loss2/conv
I0403 19:30:38.271895  9324 net.cpp:141] Setting up loss2/conv
I0403 19:30:38.271924  9324 net.cpp:148] Top shape: 24 128 4 4 (49152)
I0403 19:30:38.271939  9324 net.cpp:156] Memory required for data: 1207926048
I0403 19:30:38.271958  9324 layer_factory.hpp:77] Creating layer loss2/relu_conv
I0403 19:30:38.271980  9324 net.cpp:91] Creating Layer loss2/relu_conv
I0403 19:30:38.271997  9324 net.cpp:425] loss2/relu_conv <- loss2/conv
I0403 19:30:38.272014  9324 net.cpp:386] loss2/relu_conv -> loss2/conv (in-place)
I0403 19:30:38.272338  9324 net.cpp:141] Setting up loss2/relu_conv
I0403 19:30:38.272367  9324 net.cpp:148] Top shape: 24 128 4 4 (49152)
I0403 19:30:38.272384  9324 net.cpp:156] Memory required for data: 1208122656
I0403 19:30:38.272400  9324 layer_factory.hpp:77] Creating layer loss2/fc
I0403 19:30:38.272423  9324 net.cpp:91] Creating Layer loss2/fc
I0403 19:30:38.272440  9324 net.cpp:425] loss2/fc <- loss2/conv
I0403 19:30:38.272460  9324 net.cpp:399] loss2/fc -> loss2/fc
I0403 19:30:38.291045  9324 net.cpp:141] Setting up loss2/fc
I0403 19:30:38.291096  9324 net.cpp:148] Top shape: 24 1024 (24576)
I0403 19:30:38.291111  9324 net.cpp:156] Memory required for data: 1208220960
I0403 19:30:38.291131  9324 layer_factory.hpp:77] Creating layer loss2/relu_fc
I0403 19:30:38.291152  9324 net.cpp:91] Creating Layer loss2/relu_fc
I0403 19:30:38.291169  9324 net.cpp:425] loss2/relu_fc <- loss2/fc
I0403 19:30:38.291193  9324 net.cpp:386] loss2/relu_fc -> loss2/fc (in-place)
I0403 19:30:38.291574  9324 net.cpp:141] Setting up loss2/relu_fc
I0403 19:30:38.291600  9324 net.cpp:148] Top shape: 24 1024 (24576)
I0403 19:30:38.291615  9324 net.cpp:156] Memory required for data: 1208319264
I0403 19:30:38.291630  9324 layer_factory.hpp:77] Creating layer loss2/drop_fc
I0403 19:30:38.291649  9324 net.cpp:91] Creating Layer loss2/drop_fc
I0403 19:30:38.291666  9324 net.cpp:425] loss2/drop_fc <- loss2/fc
I0403 19:30:38.291684  9324 net.cpp:386] loss2/drop_fc -> loss2/fc (in-place)
I0403 19:30:38.291735  9324 net.cpp:141] Setting up loss2/drop_fc
I0403 19:30:38.291760  9324 net.cpp:148] Top shape: 24 1024 (24576)
I0403 19:30:38.291775  9324 net.cpp:156] Memory required for data: 1208417568
I0403 19:30:38.291790  9324 layer_factory.hpp:77] Creating layer loss2/classifier_plantvillage
I0403 19:30:38.291808  9324 net.cpp:91] Creating Layer loss2/classifier_plantvillage
I0403 19:30:38.291824  9324 net.cpp:425] loss2/classifier_plantvillage <- loss2/fc
I0403 19:30:38.291846  9324 net.cpp:399] loss2/classifier_plantvillage -> loss2/classifier_plantvillage
I0403 19:30:38.292284  9324 net.cpp:141] Setting up loss2/classifier_plantvillage
I0403 19:30:38.292309  9324 net.cpp:148] Top shape: 24 38 (912)
I0403 19:30:38.292325  9324 net.cpp:156] Memory required for data: 1208421216
I0403 19:30:38.292369  9324 layer_factory.hpp:77] Creating layer loss2/classifier_plantvillage_loss2/classifier_plantvillage_0_split
I0403 19:30:38.292392  9324 net.cpp:91] Creating Layer loss2/classifier_plantvillage_loss2/classifier_plantvillage_0_split
I0403 19:30:38.292409  9324 net.cpp:425] loss2/classifier_plantvillage_loss2/classifier_plantvillage_0_split <- loss2/classifier_plantvillage
I0403 19:30:38.292428  9324 net.cpp:399] loss2/classifier_plantvillage_loss2/classifier_plantvillage_0_split -> loss2/classifier_plantvillage_loss2/classifier_plantvillage_0_split_0
I0403 19:30:38.292449  9324 net.cpp:399] loss2/classifier_plantvillage_loss2/classifier_plantvillage_0_split -> loss2/classifier_plantvillage_loss2/classifier_plantvillage_0_split_1
I0403 19:30:38.292474  9324 net.cpp:399] loss2/classifier_plantvillage_loss2/classifier_plantvillage_0_split -> loss2/classifier_plantvillage_loss2/classifier_plantvillage_0_split_2
I0403 19:30:38.292565  9324 net.cpp:141] Setting up loss2/classifier_plantvillage_loss2/classifier_plantvillage_0_split
I0403 19:30:38.292588  9324 net.cpp:148] Top shape: 24 38 (912)
I0403 19:30:38.292605  9324 net.cpp:148] Top shape: 24 38 (912)
I0403 19:30:38.292620  9324 net.cpp:148] Top shape: 24 38 (912)
I0403 19:30:38.292634  9324 net.cpp:156] Memory required for data: 1208432160
I0403 19:30:38.292649  9324 layer_factory.hpp:77] Creating layer inception_4e/1x1
I0403 19:30:38.292673  9324 net.cpp:91] Creating Layer inception_4e/1x1
I0403 19:30:38.292691  9324 net.cpp:425] inception_4e/1x1 <- inception_4d/output_inception_4d/output_0_split_1
I0403 19:30:38.292711  9324 net.cpp:399] inception_4e/1x1 -> inception_4e/1x1
I0403 19:30:38.294610  9324 net.cpp:141] Setting up inception_4e/1x1
I0403 19:30:38.294638  9324 net.cpp:148] Top shape: 24 256 14 14 (1204224)
I0403 19:30:38.294653  9324 net.cpp:156] Memory required for data: 1213249056
I0403 19:30:38.294672  9324 layer_factory.hpp:77] Creating layer inception_4e/relu_1x1
I0403 19:30:38.294694  9324 net.cpp:91] Creating Layer inception_4e/relu_1x1
I0403 19:30:38.294711  9324 net.cpp:425] inception_4e/relu_1x1 <- inception_4e/1x1
I0403 19:30:38.294728  9324 net.cpp:386] inception_4e/relu_1x1 -> inception_4e/1x1 (in-place)
I0403 19:30:38.295032  9324 net.cpp:141] Setting up inception_4e/relu_1x1
I0403 19:30:38.295058  9324 net.cpp:148] Top shape: 24 256 14 14 (1204224)
I0403 19:30:38.295073  9324 net.cpp:156] Memory required for data: 1218065952
I0403 19:30:38.295089  9324 layer_factory.hpp:77] Creating layer inception_4e/3x3_reduce
I0403 19:30:38.295111  9324 net.cpp:91] Creating Layer inception_4e/3x3_reduce
I0403 19:30:38.295130  9324 net.cpp:425] inception_4e/3x3_reduce <- inception_4d/output_inception_4d/output_0_split_2
I0403 19:30:38.295150  9324 net.cpp:399] inception_4e/3x3_reduce -> inception_4e/3x3_reduce
I0403 19:30:38.297379  9324 net.cpp:141] Setting up inception_4e/3x3_reduce
I0403 19:30:38.297407  9324 net.cpp:148] Top shape: 24 160 14 14 (752640)
I0403 19:30:38.297423  9324 net.cpp:156] Memory required for data: 1221076512
I0403 19:30:38.297442  9324 layer_factory.hpp:77] Creating layer inception_4e/relu_3x3_reduce
I0403 19:30:38.297463  9324 net.cpp:91] Creating Layer inception_4e/relu_3x3_reduce
I0403 19:30:38.297482  9324 net.cpp:425] inception_4e/relu_3x3_reduce <- inception_4e/3x3_reduce
I0403 19:30:38.297498  9324 net.cpp:386] inception_4e/relu_3x3_reduce -> inception_4e/3x3_reduce (in-place)
I0403 19:30:38.297695  9324 net.cpp:141] Setting up inception_4e/relu_3x3_reduce
I0403 19:30:38.297721  9324 net.cpp:148] Top shape: 24 160 14 14 (752640)
I0403 19:30:38.297737  9324 net.cpp:156] Memory required for data: 1224087072
I0403 19:30:38.297752  9324 layer_factory.hpp:77] Creating layer inception_4e/3x3
I0403 19:30:38.297771  9324 net.cpp:91] Creating Layer inception_4e/3x3
I0403 19:30:38.297787  9324 net.cpp:425] inception_4e/3x3 <- inception_4e/3x3_reduce
I0403 19:30:38.297809  9324 net.cpp:399] inception_4e/3x3 -> inception_4e/3x3
I0403 19:30:38.302876  9324 net.cpp:141] Setting up inception_4e/3x3
I0403 19:30:38.302919  9324 net.cpp:148] Top shape: 24 320 14 14 (1505280)
I0403 19:30:38.302937  9324 net.cpp:156] Memory required for data: 1230108192
I0403 19:30:38.302954  9324 layer_factory.hpp:77] Creating layer inception_4e/relu_3x3
I0403 19:30:38.302971  9324 net.cpp:91] Creating Layer inception_4e/relu_3x3
I0403 19:30:38.302988  9324 net.cpp:425] inception_4e/relu_3x3 <- inception_4e/3x3
I0403 19:30:38.303004  9324 net.cpp:386] inception_4e/relu_3x3 -> inception_4e/3x3 (in-place)
I0403 19:30:38.303311  9324 net.cpp:141] Setting up inception_4e/relu_3x3
I0403 19:30:38.303340  9324 net.cpp:148] Top shape: 24 320 14 14 (1505280)
I0403 19:30:38.303356  9324 net.cpp:156] Memory required for data: 1236129312
I0403 19:30:38.303372  9324 layer_factory.hpp:77] Creating layer inception_4e/5x5_reduce
I0403 19:30:38.303395  9324 net.cpp:91] Creating Layer inception_4e/5x5_reduce
I0403 19:30:38.303412  9324 net.cpp:425] inception_4e/5x5_reduce <- inception_4d/output_inception_4d/output_0_split_3
I0403 19:30:38.303431  9324 net.cpp:399] inception_4e/5x5_reduce -> inception_4e/5x5_reduce
I0403 19:30:38.304488  9324 net.cpp:141] Setting up inception_4e/5x5_reduce
I0403 19:30:38.304515  9324 net.cpp:148] Top shape: 24 32 14 14 (150528)
I0403 19:30:38.304530  9324 net.cpp:156] Memory required for data: 1236731424
I0403 19:30:38.304548  9324 layer_factory.hpp:77] Creating layer inception_4e/relu_5x5_reduce
I0403 19:30:38.304568  9324 net.cpp:91] Creating Layer inception_4e/relu_5x5_reduce
I0403 19:30:38.304584  9324 net.cpp:425] inception_4e/relu_5x5_reduce <- inception_4e/5x5_reduce
I0403 19:30:38.304600  9324 net.cpp:386] inception_4e/relu_5x5_reduce -> inception_4e/5x5_reduce (in-place)
I0403 19:30:38.304890  9324 net.cpp:141] Setting up inception_4e/relu_5x5_reduce
I0403 19:30:38.304915  9324 net.cpp:148] Top shape: 24 32 14 14 (150528)
I0403 19:30:38.304929  9324 net.cpp:156] Memory required for data: 1237333536
I0403 19:30:38.304944  9324 layer_factory.hpp:77] Creating layer inception_4e/5x5
I0403 19:30:38.304982  9324 net.cpp:91] Creating Layer inception_4e/5x5
I0403 19:30:38.305001  9324 net.cpp:425] inception_4e/5x5 <- inception_4e/5x5_reduce
I0403 19:30:38.305021  9324 net.cpp:399] inception_4e/5x5 -> inception_4e/5x5
I0403 19:30:38.306841  9324 net.cpp:141] Setting up inception_4e/5x5
I0403 19:30:38.306869  9324 net.cpp:148] Top shape: 24 128 14 14 (602112)
I0403 19:30:38.306884  9324 net.cpp:156] Memory required for data: 1239741984
I0403 19:30:38.306901  9324 layer_factory.hpp:77] Creating layer inception_4e/relu_5x5
I0403 19:30:38.306918  9324 net.cpp:91] Creating Layer inception_4e/relu_5x5
I0403 19:30:38.306933  9324 net.cpp:425] inception_4e/relu_5x5 <- inception_4e/5x5
I0403 19:30:38.306952  9324 net.cpp:386] inception_4e/relu_5x5 -> inception_4e/5x5 (in-place)
I0403 19:30:38.307142  9324 net.cpp:141] Setting up inception_4e/relu_5x5
I0403 19:30:38.307166  9324 net.cpp:148] Top shape: 24 128 14 14 (602112)
I0403 19:30:38.307181  9324 net.cpp:156] Memory required for data: 1242150432
I0403 19:30:38.307195  9324 layer_factory.hpp:77] Creating layer inception_4e/pool
I0403 19:30:38.307215  9324 net.cpp:91] Creating Layer inception_4e/pool
I0403 19:30:38.307231  9324 net.cpp:425] inception_4e/pool <- inception_4d/output_inception_4d/output_0_split_4
I0403 19:30:38.307248  9324 net.cpp:399] inception_4e/pool -> inception_4e/pool
I0403 19:30:38.307337  9324 net.cpp:141] Setting up inception_4e/pool
I0403 19:30:38.307359  9324 net.cpp:148] Top shape: 24 528 14 14 (2483712)
I0403 19:30:38.307374  9324 net.cpp:156] Memory required for data: 1252085280
I0403 19:30:38.307389  9324 layer_factory.hpp:77] Creating layer inception_4e/pool_proj
I0403 19:30:38.307411  9324 net.cpp:91] Creating Layer inception_4e/pool_proj
I0403 19:30:38.307430  9324 net.cpp:425] inception_4e/pool_proj <- inception_4e/pool
I0403 19:30:38.307451  9324 net.cpp:399] inception_4e/pool_proj -> inception_4e/pool_proj
I0403 19:30:38.308953  9324 net.cpp:141] Setting up inception_4e/pool_proj
I0403 19:30:38.308981  9324 net.cpp:148] Top shape: 24 128 14 14 (602112)
I0403 19:30:38.309011  9324 net.cpp:156] Memory required for data: 1254493728
I0403 19:30:38.309031  9324 layer_factory.hpp:77] Creating layer inception_4e/relu_pool_proj
I0403 19:30:38.309048  9324 net.cpp:91] Creating Layer inception_4e/relu_pool_proj
I0403 19:30:38.309064  9324 net.cpp:425] inception_4e/relu_pool_proj <- inception_4e/pool_proj
I0403 19:30:38.309083  9324 net.cpp:386] inception_4e/relu_pool_proj -> inception_4e/pool_proj (in-place)
I0403 19:30:38.309389  9324 net.cpp:141] Setting up inception_4e/relu_pool_proj
I0403 19:30:38.309417  9324 net.cpp:148] Top shape: 24 128 14 14 (602112)
I0403 19:30:38.309433  9324 net.cpp:156] Memory required for data: 1256902176
I0403 19:30:38.309448  9324 layer_factory.hpp:77] Creating layer inception_4e/output
I0403 19:30:38.309465  9324 net.cpp:91] Creating Layer inception_4e/output
I0403 19:30:38.309480  9324 net.cpp:425] inception_4e/output <- inception_4e/1x1
I0403 19:30:38.309496  9324 net.cpp:425] inception_4e/output <- inception_4e/3x3
I0403 19:30:38.309512  9324 net.cpp:425] inception_4e/output <- inception_4e/5x5
I0403 19:30:38.309528  9324 net.cpp:425] inception_4e/output <- inception_4e/pool_proj
I0403 19:30:38.309548  9324 net.cpp:399] inception_4e/output -> inception_4e/output
I0403 19:30:38.309608  9324 net.cpp:141] Setting up inception_4e/output
I0403 19:30:38.309631  9324 net.cpp:148] Top shape: 24 832 14 14 (3913728)
I0403 19:30:38.309645  9324 net.cpp:156] Memory required for data: 1272557088
I0403 19:30:38.309659  9324 layer_factory.hpp:77] Creating layer pool4/3x3_s2
I0403 19:30:38.309679  9324 net.cpp:91] Creating Layer pool4/3x3_s2
I0403 19:30:38.309695  9324 net.cpp:425] pool4/3x3_s2 <- inception_4e/output
I0403 19:30:38.309712  9324 net.cpp:399] pool4/3x3_s2 -> pool4/3x3_s2
I0403 19:30:38.309780  9324 net.cpp:141] Setting up pool4/3x3_s2
I0403 19:30:38.309803  9324 net.cpp:148] Top shape: 24 832 7 7 (978432)
I0403 19:30:38.309818  9324 net.cpp:156] Memory required for data: 1276470816
I0403 19:30:38.309831  9324 layer_factory.hpp:77] Creating layer pool4/3x3_s2_pool4/3x3_s2_0_split
I0403 19:30:38.309849  9324 net.cpp:91] Creating Layer pool4/3x3_s2_pool4/3x3_s2_0_split
I0403 19:30:38.309866  9324 net.cpp:425] pool4/3x3_s2_pool4/3x3_s2_0_split <- pool4/3x3_s2
I0403 19:30:38.309883  9324 net.cpp:399] pool4/3x3_s2_pool4/3x3_s2_0_split -> pool4/3x3_s2_pool4/3x3_s2_0_split_0
I0403 19:30:38.309902  9324 net.cpp:399] pool4/3x3_s2_pool4/3x3_s2_0_split -> pool4/3x3_s2_pool4/3x3_s2_0_split_1
I0403 19:30:38.309921  9324 net.cpp:399] pool4/3x3_s2_pool4/3x3_s2_0_split -> pool4/3x3_s2_pool4/3x3_s2_0_split_2
I0403 19:30:38.309942  9324 net.cpp:399] pool4/3x3_s2_pool4/3x3_s2_0_split -> pool4/3x3_s2_pool4/3x3_s2_0_split_3
I0403 19:30:38.310029  9324 net.cpp:141] Setting up pool4/3x3_s2_pool4/3x3_s2_0_split
I0403 19:30:38.310050  9324 net.cpp:148] Top shape: 24 832 7 7 (978432)
I0403 19:30:38.310066  9324 net.cpp:148] Top shape: 24 832 7 7 (978432)
I0403 19:30:38.310081  9324 net.cpp:148] Top shape: 24 832 7 7 (978432)
I0403 19:30:38.310096  9324 net.cpp:148] Top shape: 24 832 7 7 (978432)
I0403 19:30:38.310109  9324 net.cpp:156] Memory required for data: 1292125728
I0403 19:30:38.310124  9324 layer_factory.hpp:77] Creating layer inception_5a/1x1
I0403 19:30:38.310145  9324 net.cpp:91] Creating Layer inception_5a/1x1
I0403 19:30:38.310163  9324 net.cpp:425] inception_5a/1x1 <- pool4/3x3_s2_pool4/3x3_s2_0_split_0
I0403 19:30:38.310183  9324 net.cpp:399] inception_5a/1x1 -> inception_5a/1x1
I0403 19:30:38.313016  9324 net.cpp:141] Setting up inception_5a/1x1
I0403 19:30:38.313045  9324 net.cpp:148] Top shape: 24 256 7 7 (301056)
I0403 19:30:38.313060  9324 net.cpp:156] Memory required for data: 1293329952
I0403 19:30:38.313076  9324 layer_factory.hpp:77] Creating layer inception_5a/relu_1x1
I0403 19:30:38.313093  9324 net.cpp:91] Creating Layer inception_5a/relu_1x1
I0403 19:30:38.313109  9324 net.cpp:425] inception_5a/relu_1x1 <- inception_5a/1x1
I0403 19:30:38.313127  9324 net.cpp:386] inception_5a/relu_1x1 -> inception_5a/1x1 (in-place)
I0403 19:30:38.313451  9324 net.cpp:141] Setting up inception_5a/relu_1x1
I0403 19:30:38.313477  9324 net.cpp:148] Top shape: 24 256 7 7 (301056)
I0403 19:30:38.313491  9324 net.cpp:156] Memory required for data: 1294534176
I0403 19:30:38.313506  9324 layer_factory.hpp:77] Creating layer inception_5a/3x3_reduce
I0403 19:30:38.313529  9324 net.cpp:91] Creating Layer inception_5a/3x3_reduce
I0403 19:30:38.313546  9324 net.cpp:425] inception_5a/3x3_reduce <- pool4/3x3_s2_pool4/3x3_s2_0_split_1
I0403 19:30:38.313567  9324 net.cpp:399] inception_5a/3x3_reduce -> inception_5a/3x3_reduce
I0403 19:30:38.315989  9324 net.cpp:141] Setting up inception_5a/3x3_reduce
I0403 19:30:38.316018  9324 net.cpp:148] Top shape: 24 160 7 7 (188160)
I0403 19:30:38.316035  9324 net.cpp:156] Memory required for data: 1295286816
I0403 19:30:38.316052  9324 layer_factory.hpp:77] Creating layer inception_5a/relu_3x3_reduce
I0403 19:30:38.316069  9324 net.cpp:91] Creating Layer inception_5a/relu_3x3_reduce
I0403 19:30:38.316084  9324 net.cpp:425] inception_5a/relu_3x3_reduce <- inception_5a/3x3_reduce
I0403 19:30:38.316103  9324 net.cpp:386] inception_5a/relu_3x3_reduce -> inception_5a/3x3_reduce (in-place)
I0403 19:30:38.316299  9324 net.cpp:141] Setting up inception_5a/relu_3x3_reduce
I0403 19:30:38.316324  9324 net.cpp:148] Top shape: 24 160 7 7 (188160)
I0403 19:30:38.316339  9324 net.cpp:156] Memory required for data: 1296039456
I0403 19:30:38.316354  9324 layer_factory.hpp:77] Creating layer inception_5a/3x3
I0403 19:30:38.316377  9324 net.cpp:91] Creating Layer inception_5a/3x3
I0403 19:30:38.316395  9324 net.cpp:425] inception_5a/3x3 <- inception_5a/3x3_reduce
I0403 19:30:38.316417  9324 net.cpp:399] inception_5a/3x3 -> inception_5a/3x3
I0403 19:30:38.321390  9324 net.cpp:141] Setting up inception_5a/3x3
I0403 19:30:38.321419  9324 net.cpp:148] Top shape: 24 320 7 7 (376320)
I0403 19:30:38.321435  9324 net.cpp:156] Memory required for data: 1297544736
I0403 19:30:38.321454  9324 layer_factory.hpp:77] Creating layer inception_5a/relu_3x3
I0403 19:30:38.321475  9324 net.cpp:91] Creating Layer inception_5a/relu_3x3
I0403 19:30:38.321491  9324 net.cpp:425] inception_5a/relu_3x3 <- inception_5a/3x3
I0403 19:30:38.321509  9324 net.cpp:386] inception_5a/relu_3x3 -> inception_5a/3x3 (in-place)
I0403 19:30:38.321805  9324 net.cpp:141] Setting up inception_5a/relu_3x3
I0403 19:30:38.321835  9324 net.cpp:148] Top shape: 24 320 7 7 (376320)
I0403 19:30:38.321852  9324 net.cpp:156] Memory required for data: 1299050016
I0403 19:30:38.321867  9324 layer_factory.hpp:77] Creating layer inception_5a/5x5_reduce
I0403 19:30:38.321890  9324 net.cpp:91] Creating Layer inception_5a/5x5_reduce
I0403 19:30:38.321908  9324 net.cpp:425] inception_5a/5x5_reduce <- pool4/3x3_s2_pool4/3x3_s2_0_split_2
I0403 19:30:38.321929  9324 net.cpp:399] inception_5a/5x5_reduce -> inception_5a/5x5_reduce
I0403 19:30:38.323072  9324 net.cpp:141] Setting up inception_5a/5x5_reduce
I0403 19:30:38.323099  9324 net.cpp:148] Top shape: 24 32 7 7 (37632)
I0403 19:30:38.323114  9324 net.cpp:156] Memory required for data: 1299200544
I0403 19:30:38.323132  9324 layer_factory.hpp:77] Creating layer inception_5a/relu_5x5_reduce
I0403 19:30:38.323151  9324 net.cpp:91] Creating Layer inception_5a/relu_5x5_reduce
I0403 19:30:38.323168  9324 net.cpp:425] inception_5a/relu_5x5_reduce <- inception_5a/5x5_reduce
I0403 19:30:38.323187  9324 net.cpp:386] inception_5a/relu_5x5_reduce -> inception_5a/5x5_reduce (in-place)
I0403 19:30:38.323499  9324 net.cpp:141] Setting up inception_5a/relu_5x5_reduce
I0403 19:30:38.323532  9324 net.cpp:148] Top shape: 24 32 7 7 (37632)
I0403 19:30:38.323547  9324 net.cpp:156] Memory required for data: 1299351072
I0403 19:30:38.323575  9324 layer_factory.hpp:77] Creating layer inception_5a/5x5
I0403 19:30:38.323598  9324 net.cpp:91] Creating Layer inception_5a/5x5
I0403 19:30:38.323616  9324 net.cpp:425] inception_5a/5x5 <- inception_5a/5x5_reduce
I0403 19:30:38.323637  9324 net.cpp:399] inception_5a/5x5 -> inception_5a/5x5
I0403 19:30:38.325357  9324 net.cpp:141] Setting up inception_5a/5x5
I0403 19:30:38.325397  9324 net.cpp:148] Top shape: 24 128 7 7 (150528)
I0403 19:30:38.325412  9324 net.cpp:156] Memory required for data: 1299953184
I0403 19:30:38.325431  9324 layer_factory.hpp:77] Creating layer inception_5a/relu_5x5
I0403 19:30:38.325451  9324 net.cpp:91] Creating Layer inception_5a/relu_5x5
I0403 19:30:38.325467  9324 net.cpp:425] inception_5a/relu_5x5 <- inception_5a/5x5
I0403 19:30:38.325485  9324 net.cpp:386] inception_5a/relu_5x5 -> inception_5a/5x5 (in-place)
I0403 19:30:38.325681  9324 net.cpp:141] Setting up inception_5a/relu_5x5
I0403 19:30:38.325706  9324 net.cpp:148] Top shape: 24 128 7 7 (150528)
I0403 19:30:38.325719  9324 net.cpp:156] Memory required for data: 1300555296
I0403 19:30:38.325732  9324 layer_factory.hpp:77] Creating layer inception_5a/pool
I0403 19:30:38.325752  9324 net.cpp:91] Creating Layer inception_5a/pool
I0403 19:30:38.325767  9324 net.cpp:425] inception_5a/pool <- pool4/3x3_s2_pool4/3x3_s2_0_split_3
I0403 19:30:38.325785  9324 net.cpp:399] inception_5a/pool -> inception_5a/pool
I0403 19:30:38.325855  9324 net.cpp:141] Setting up inception_5a/pool
I0403 19:30:38.325877  9324 net.cpp:148] Top shape: 24 832 7 7 (978432)
I0403 19:30:38.325891  9324 net.cpp:156] Memory required for data: 1304469024
I0403 19:30:38.325906  9324 layer_factory.hpp:77] Creating layer inception_5a/pool_proj
I0403 19:30:38.325927  9324 net.cpp:91] Creating Layer inception_5a/pool_proj
I0403 19:30:38.325944  9324 net.cpp:425] inception_5a/pool_proj <- inception_5a/pool
I0403 19:30:38.325964  9324 net.cpp:399] inception_5a/pool_proj -> inception_5a/pool_proj
I0403 19:30:38.328243  9324 net.cpp:141] Setting up inception_5a/pool_proj
I0403 19:30:38.328269  9324 net.cpp:148] Top shape: 24 128 7 7 (150528)
I0403 19:30:38.328302  9324 net.cpp:156] Memory required for data: 1305071136
I0403 19:30:38.328321  9324 layer_factory.hpp:77] Creating layer inception_5a/relu_pool_proj
I0403 19:30:38.328338  9324 net.cpp:91] Creating Layer inception_5a/relu_pool_proj
I0403 19:30:38.328361  9324 net.cpp:425] inception_5a/relu_pool_proj <- inception_5a/pool_proj
I0403 19:30:38.328383  9324 net.cpp:386] inception_5a/relu_pool_proj -> inception_5a/pool_proj (in-place)
I0403 19:30:38.328691  9324 net.cpp:141] Setting up inception_5a/relu_pool_proj
I0403 19:30:38.328716  9324 net.cpp:148] Top shape: 24 128 7 7 (150528)
I0403 19:30:38.328730  9324 net.cpp:156] Memory required for data: 1305673248
I0403 19:30:38.328744  9324 layer_factory.hpp:77] Creating layer inception_5a/output
I0403 19:30:38.328761  9324 net.cpp:91] Creating Layer inception_5a/output
I0403 19:30:38.328776  9324 net.cpp:425] inception_5a/output <- inception_5a/1x1
I0403 19:30:38.328793  9324 net.cpp:425] inception_5a/output <- inception_5a/3x3
I0403 19:30:38.328809  9324 net.cpp:425] inception_5a/output <- inception_5a/5x5
I0403 19:30:38.328824  9324 net.cpp:425] inception_5a/output <- inception_5a/pool_proj
I0403 19:30:38.328843  9324 net.cpp:399] inception_5a/output -> inception_5a/output
I0403 19:30:38.328892  9324 net.cpp:141] Setting up inception_5a/output
I0403 19:30:38.328917  9324 net.cpp:148] Top shape: 24 832 7 7 (978432)
I0403 19:30:38.328933  9324 net.cpp:156] Memory required for data: 1309586976
I0403 19:30:38.328946  9324 layer_factory.hpp:77] Creating layer inception_5a/output_inception_5a/output_0_split
I0403 19:30:38.328964  9324 net.cpp:91] Creating Layer inception_5a/output_inception_5a/output_0_split
I0403 19:30:38.328979  9324 net.cpp:425] inception_5a/output_inception_5a/output_0_split <- inception_5a/output
I0403 19:30:38.328997  9324 net.cpp:399] inception_5a/output_inception_5a/output_0_split -> inception_5a/output_inception_5a/output_0_split_0
I0403 19:30:38.329016  9324 net.cpp:399] inception_5a/output_inception_5a/output_0_split -> inception_5a/output_inception_5a/output_0_split_1
I0403 19:30:38.329038  9324 net.cpp:399] inception_5a/output_inception_5a/output_0_split -> inception_5a/output_inception_5a/output_0_split_2
I0403 19:30:38.329058  9324 net.cpp:399] inception_5a/output_inception_5a/output_0_split -> inception_5a/output_inception_5a/output_0_split_3
I0403 19:30:38.329169  9324 net.cpp:141] Setting up inception_5a/output_inception_5a/output_0_split
I0403 19:30:38.329192  9324 net.cpp:148] Top shape: 24 832 7 7 (978432)
I0403 19:30:38.329208  9324 net.cpp:148] Top shape: 24 832 7 7 (978432)
I0403 19:30:38.329223  9324 net.cpp:148] Top shape: 24 832 7 7 (978432)
I0403 19:30:38.329238  9324 net.cpp:148] Top shape: 24 832 7 7 (978432)
I0403 19:30:38.329252  9324 net.cpp:156] Memory required for data: 1325241888
I0403 19:30:38.329265  9324 layer_factory.hpp:77] Creating layer inception_5b/1x1
I0403 19:30:38.329306  9324 net.cpp:91] Creating Layer inception_5b/1x1
I0403 19:30:38.329325  9324 net.cpp:425] inception_5b/1x1 <- inception_5a/output_inception_5a/output_0_split_0
I0403 19:30:38.329360  9324 net.cpp:399] inception_5b/1x1 -> inception_5b/1x1
I0403 19:30:38.333222  9324 net.cpp:141] Setting up inception_5b/1x1
I0403 19:30:38.333253  9324 net.cpp:148] Top shape: 24 384 7 7 (451584)
I0403 19:30:38.333274  9324 net.cpp:156] Memory required for data: 1327048224
I0403 19:30:38.333307  9324 layer_factory.hpp:77] Creating layer inception_5b/relu_1x1
I0403 19:30:38.333325  9324 net.cpp:91] Creating Layer inception_5b/relu_1x1
I0403 19:30:38.333343  9324 net.cpp:425] inception_5b/relu_1x1 <- inception_5b/1x1
I0403 19:30:38.333362  9324 net.cpp:386] inception_5b/relu_1x1 -> inception_5b/1x1 (in-place)
I0403 19:30:38.333680  9324 net.cpp:141] Setting up inception_5b/relu_1x1
I0403 19:30:38.333709  9324 net.cpp:148] Top shape: 24 384 7 7 (451584)
I0403 19:30:38.333724  9324 net.cpp:156] Memory required for data: 1328854560
I0403 19:30:38.333739  9324 layer_factory.hpp:77] Creating layer inception_5b/3x3_reduce
I0403 19:30:38.333760  9324 net.cpp:91] Creating Layer inception_5b/3x3_reduce
I0403 19:30:38.333778  9324 net.cpp:425] inception_5b/3x3_reduce <- inception_5a/output_inception_5a/output_0_split_1
I0403 19:30:38.333797  9324 net.cpp:399] inception_5b/3x3_reduce -> inception_5b/3x3_reduce
I0403 19:30:38.336493  9324 net.cpp:141] Setting up inception_5b/3x3_reduce
I0403 19:30:38.336522  9324 net.cpp:148] Top shape: 24 192 7 7 (225792)
I0403 19:30:38.336539  9324 net.cpp:156] Memory required for data: 1329757728
I0403 19:30:38.336556  9324 layer_factory.hpp:77] Creating layer inception_5b/relu_3x3_reduce
I0403 19:30:38.336575  9324 net.cpp:91] Creating Layer inception_5b/relu_3x3_reduce
I0403 19:30:38.336591  9324 net.cpp:425] inception_5b/relu_3x3_reduce <- inception_5b/3x3_reduce
I0403 19:30:38.336611  9324 net.cpp:386] inception_5b/relu_3x3_reduce -> inception_5b/3x3_reduce (in-place)
I0403 19:30:38.336801  9324 net.cpp:141] Setting up inception_5b/relu_3x3_reduce
I0403 19:30:38.336825  9324 net.cpp:148] Top shape: 24 192 7 7 (225792)
I0403 19:30:38.336840  9324 net.cpp:156] Memory required for data: 1330660896
I0403 19:30:38.336855  9324 layer_factory.hpp:77] Creating layer inception_5b/3x3
I0403 19:30:38.336877  9324 net.cpp:91] Creating Layer inception_5b/3x3
I0403 19:30:38.336894  9324 net.cpp:425] inception_5b/3x3 <- inception_5b/3x3_reduce
I0403 19:30:38.336916  9324 net.cpp:399] inception_5b/3x3 -> inception_5b/3x3
I0403 19:30:38.343922  9324 net.cpp:141] Setting up inception_5b/3x3
I0403 19:30:38.343951  9324 net.cpp:148] Top shape: 24 384 7 7 (451584)
I0403 19:30:38.343966  9324 net.cpp:156] Memory required for data: 1332467232
I0403 19:30:38.343986  9324 layer_factory.hpp:77] Creating layer inception_5b/relu_3x3
I0403 19:30:38.344003  9324 net.cpp:91] Creating Layer inception_5b/relu_3x3
I0403 19:30:38.344019  9324 net.cpp:425] inception_5b/relu_3x3 <- inception_5b/3x3
I0403 19:30:38.344039  9324 net.cpp:386] inception_5b/relu_3x3 -> inception_5b/3x3 (in-place)
I0403 19:30:38.344372  9324 net.cpp:141] Setting up inception_5b/relu_3x3
I0403 19:30:38.344401  9324 net.cpp:148] Top shape: 24 384 7 7 (451584)
I0403 19:30:38.344418  9324 net.cpp:156] Memory required for data: 1334273568
I0403 19:30:38.344434  9324 layer_factory.hpp:77] Creating layer inception_5b/5x5_reduce
I0403 19:30:38.344473  9324 net.cpp:91] Creating Layer inception_5b/5x5_reduce
I0403 19:30:38.344506  9324 net.cpp:425] inception_5b/5x5_reduce <- inception_5a/output_inception_5a/output_0_split_2
I0403 19:30:38.344528  9324 net.cpp:399] inception_5b/5x5_reduce -> inception_5b/5x5_reduce
I0403 19:30:38.345877  9324 net.cpp:141] Setting up inception_5b/5x5_reduce
I0403 19:30:38.345908  9324 net.cpp:148] Top shape: 24 48 7 7 (56448)
I0403 19:30:38.345924  9324 net.cpp:156] Memory required for data: 1334499360
I0403 19:30:38.345943  9324 layer_factory.hpp:77] Creating layer inception_5b/relu_5x5_reduce
I0403 19:30:38.345963  9324 net.cpp:91] Creating Layer inception_5b/relu_5x5_reduce
I0403 19:30:38.345978  9324 net.cpp:425] inception_5b/relu_5x5_reduce <- inception_5b/5x5_reduce
I0403 19:30:38.345999  9324 net.cpp:386] inception_5b/relu_5x5_reduce -> inception_5b/5x5_reduce (in-place)
I0403 19:30:38.346385  9324 net.cpp:141] Setting up inception_5b/relu_5x5_reduce
I0403 19:30:38.346413  9324 net.cpp:148] Top shape: 24 48 7 7 (56448)
I0403 19:30:38.346429  9324 net.cpp:156] Memory required for data: 1334725152
I0403 19:30:38.346444  9324 layer_factory.hpp:77] Creating layer inception_5b/5x5
I0403 19:30:38.346465  9324 net.cpp:91] Creating Layer inception_5b/5x5
I0403 19:30:38.346483  9324 net.cpp:425] inception_5b/5x5 <- inception_5b/5x5_reduce
I0403 19:30:38.346503  9324 net.cpp:399] inception_5b/5x5 -> inception_5b/5x5
I0403 19:30:38.348680  9324 net.cpp:141] Setting up inception_5b/5x5
I0403 19:30:38.348707  9324 net.cpp:148] Top shape: 24 128 7 7 (150528)
I0403 19:30:38.348722  9324 net.cpp:156] Memory required for data: 1335327264
I0403 19:30:38.348740  9324 layer_factory.hpp:77] Creating layer inception_5b/relu_5x5
I0403 19:30:38.348758  9324 net.cpp:91] Creating Layer inception_5b/relu_5x5
I0403 19:30:38.348774  9324 net.cpp:425] inception_5b/relu_5x5 <- inception_5b/5x5
I0403 19:30:38.348794  9324 net.cpp:386] inception_5b/relu_5x5 -> inception_5b/5x5 (in-place)
I0403 19:30:38.348986  9324 net.cpp:141] Setting up inception_5b/relu_5x5
I0403 19:30:38.349011  9324 net.cpp:148] Top shape: 24 128 7 7 (150528)
I0403 19:30:38.349025  9324 net.cpp:156] Memory required for data: 1335929376
I0403 19:30:38.349040  9324 layer_factory.hpp:77] Creating layer inception_5b/pool
I0403 19:30:38.349061  9324 net.cpp:91] Creating Layer inception_5b/pool
I0403 19:30:38.349077  9324 net.cpp:425] inception_5b/pool <- inception_5a/output_inception_5a/output_0_split_3
I0403 19:30:38.349097  9324 net.cpp:399] inception_5b/pool -> inception_5b/pool
I0403 19:30:38.349170  9324 net.cpp:141] Setting up inception_5b/pool
I0403 19:30:38.349196  9324 net.cpp:148] Top shape: 24 832 7 7 (978432)
I0403 19:30:38.349210  9324 net.cpp:156] Memory required for data: 1339843104
I0403 19:30:38.349225  9324 layer_factory.hpp:77] Creating layer inception_5b/pool_proj
I0403 19:30:38.349248  9324 net.cpp:91] Creating Layer inception_5b/pool_proj
I0403 19:30:38.349267  9324 net.cpp:425] inception_5b/pool_proj <- inception_5b/pool
I0403 19:30:38.349305  9324 net.cpp:399] inception_5b/pool_proj -> inception_5b/pool_proj
I0403 19:30:38.351662  9324 net.cpp:141] Setting up inception_5b/pool_proj
I0403 19:30:38.351691  9324 net.cpp:148] Top shape: 24 128 7 7 (150528)
I0403 19:30:38.351706  9324 net.cpp:156] Memory required for data: 1340445216
I0403 19:30:38.351725  9324 layer_factory.hpp:77] Creating layer inception_5b/relu_pool_proj
I0403 19:30:38.351743  9324 net.cpp:91] Creating Layer inception_5b/relu_pool_proj
I0403 19:30:38.351759  9324 net.cpp:425] inception_5b/relu_pool_proj <- inception_5b/pool_proj
I0403 19:30:38.351778  9324 net.cpp:386] inception_5b/relu_pool_proj -> inception_5b/pool_proj (in-place)
I0403 19:30:38.352077  9324 net.cpp:141] Setting up inception_5b/relu_pool_proj
I0403 19:30:38.352102  9324 net.cpp:148] Top shape: 24 128 7 7 (150528)
I0403 19:30:38.352118  9324 net.cpp:156] Memory required for data: 1341047328
I0403 19:30:38.352133  9324 layer_factory.hpp:77] Creating layer inception_5b/output
I0403 19:30:38.352150  9324 net.cpp:91] Creating Layer inception_5b/output
I0403 19:30:38.352181  9324 net.cpp:425] inception_5b/output <- inception_5b/1x1
I0403 19:30:38.352200  9324 net.cpp:425] inception_5b/output <- inception_5b/3x3
I0403 19:30:38.352216  9324 net.cpp:425] inception_5b/output <- inception_5b/5x5
I0403 19:30:38.352231  9324 net.cpp:425] inception_5b/output <- inception_5b/pool_proj
I0403 19:30:38.352252  9324 net.cpp:399] inception_5b/output -> inception_5b/output
I0403 19:30:38.352325  9324 net.cpp:141] Setting up inception_5b/output
I0403 19:30:38.352350  9324 net.cpp:148] Top shape: 24 1024 7 7 (1204224)
I0403 19:30:38.352365  9324 net.cpp:156] Memory required for data: 1345864224
I0403 19:30:38.352380  9324 layer_factory.hpp:77] Creating layer pool5/7x7_s1
I0403 19:30:38.352401  9324 net.cpp:91] Creating Layer pool5/7x7_s1
I0403 19:30:38.352418  9324 net.cpp:425] pool5/7x7_s1 <- inception_5b/output
I0403 19:30:38.352442  9324 net.cpp:399] pool5/7x7_s1 -> pool5/7x7_s1
I0403 19:30:38.352672  9324 net.cpp:141] Setting up pool5/7x7_s1
I0403 19:30:38.352697  9324 net.cpp:148] Top shape: 24 1024 1 1 (24576)
I0403 19:30:38.352712  9324 net.cpp:156] Memory required for data: 1345962528
I0403 19:30:38.352727  9324 layer_factory.hpp:77] Creating layer pool5/drop_7x7_s1
I0403 19:30:38.352746  9324 net.cpp:91] Creating Layer pool5/drop_7x7_s1
I0403 19:30:38.352761  9324 net.cpp:425] pool5/drop_7x7_s1 <- pool5/7x7_s1
I0403 19:30:38.352780  9324 net.cpp:386] pool5/drop_7x7_s1 -> pool5/7x7_s1 (in-place)
I0403 19:30:38.352830  9324 net.cpp:141] Setting up pool5/drop_7x7_s1
I0403 19:30:38.352855  9324 net.cpp:148] Top shape: 24 1024 1 1 (24576)
I0403 19:30:38.352870  9324 net.cpp:156] Memory required for data: 1346060832
I0403 19:30:38.352885  9324 layer_factory.hpp:77] Creating layer loss3/classifier_plantvillage
I0403 19:30:38.352903  9324 net.cpp:91] Creating Layer loss3/classifier_plantvillage
I0403 19:30:38.352919  9324 net.cpp:425] loss3/classifier_plantvillage <- pool5/7x7_s1
I0403 19:30:38.352939  9324 net.cpp:399] loss3/classifier_plantvillage -> loss3/classifier_plantvillage
I0403 19:30:38.353386  9324 net.cpp:141] Setting up loss3/classifier_plantvillage
I0403 19:30:38.353415  9324 net.cpp:148] Top shape: 24 38 (912)
I0403 19:30:38.353431  9324 net.cpp:156] Memory required for data: 1346064480
I0403 19:30:38.353449  9324 layer_factory.hpp:77] Creating layer loss3/classifier_plantvillage_loss3/classifier_plantvillage_0_split
I0403 19:30:38.353468  9324 net.cpp:91] Creating Layer loss3/classifier_plantvillage_loss3/classifier_plantvillage_0_split
I0403 19:30:38.353484  9324 net.cpp:425] loss3/classifier_plantvillage_loss3/classifier_plantvillage_0_split <- loss3/classifier_plantvillage
I0403 19:30:38.353503  9324 net.cpp:399] loss3/classifier_plantvillage_loss3/classifier_plantvillage_0_split -> loss3/classifier_plantvillage_loss3/classifier_plantvillage_0_split_0
I0403 19:30:38.353541  9324 net.cpp:399] loss3/classifier_plantvillage_loss3/classifier_plantvillage_0_split -> loss3/classifier_plantvillage_loss3/classifier_plantvillage_0_split_1
I0403 19:30:38.353579  9324 net.cpp:399] loss3/classifier_plantvillage_loss3/classifier_plantvillage_0_split -> loss3/classifier_plantvillage_loss3/classifier_plantvillage_0_split_2
I0403 19:30:38.353600  9324 net.cpp:399] loss3/classifier_plantvillage_loss3/classifier_plantvillage_0_split -> loss3/classifier_plantvillage_loss3/classifier_plantvillage_0_split_3
I0403 19:30:38.353700  9324 net.cpp:141] Setting up loss3/classifier_plantvillage_loss3/classifier_plantvillage_0_split
I0403 19:30:38.353725  9324 net.cpp:148] Top shape: 24 38 (912)
I0403 19:30:38.353754  9324 net.cpp:148] Top shape: 24 38 (912)
I0403 19:30:38.353770  9324 net.cpp:148] Top shape: 24 38 (912)
I0403 19:30:38.353785  9324 net.cpp:148] Top shape: 24 38 (912)
I0403 19:30:38.353799  9324 net.cpp:156] Memory required for data: 1346079072
I0403 19:30:38.353813  9324 layer_factory.hpp:77] Creating layer loss1/loss
I0403 19:30:38.353837  9324 net.cpp:91] Creating Layer loss1/loss
I0403 19:30:38.353854  9324 net.cpp:425] loss1/loss <- loss1/classifier_plantvillage_loss1/classifier_plantvillage_0_split_0
I0403 19:30:38.353885  9324 net.cpp:425] loss1/loss <- label_data_1_split_0
…
