…
I0403 19:18:24.556365  9074 net.cpp:313] The NetState phase (1) differed from the phase (0) specified by a rule in layer data
I0403 19:18:24.557556  9074 net.cpp:49] Initializing net from parameters: 
state {
  phase: TEST
}
layer {
  name: "data"
  type: "Data"
  top: "data"
  top: "label"
  include {
    phase: TEST
  }
  transform_param {
    mirror: false
    crop_size: 224
    mean_file: "/home/mohanty/data/final_dataset/lmdb/color-50-50/mean.binaryproto"
  }
  data_param {
    source: "/home/mohanty/data/final_dataset/lmdb/color-50-50/test_db"
    batch_size: 24
    backend: LMDB
  }
}
layer {
  name: "conv1/7x7_s2"
  type: "Convolution"
  bottom: "data"
  top: "conv1/7x7_s2"
  param {
    lr_mult: 1
    decay_mult: 1
  }
  param {
    lr_mult: 2
    decay_mult: 0
  }
  convolution_param {
    num_output: 64
    pad: 3
    kernel_size: 7
    stride: 2
    weight_filler {
      type: "xavier"
      std: 0.1
    }
    bias_filler {
      type: "constant"
      value: 0.2
    }
  }
}
layer {
  name: "conv1/relu_7x7"
  type: "ReLU"
  bottom: "conv1/7x7_s2"
  top: "conv1/7x7_s2"
}
layer {
  name: "pool1/3x3_s2"
  type: "Pooling"
  bottom: "conv1/7x7_s2"
  top: "pool1/3x3_s2"
  pooling_param {
    pool: MAX
    kernel_size: 3
    stride: 2
  }
}
layer {
  name: "pool1/norm1"
  type: "LRN"
  bottom: "pool1/3x3_s2"
  top: "pool1/norm1"
  lrn_param {
    local_size: 5
    alpha: 0.0001
    beta: 0.75
  }
}
layer {
  name: "conv2/3x3_reduce"
  type: "Convolution"
  bottom: "pool1/norm1"
  top: "conv2/3x3_reduce"
  param {
    lr_mult: 1
    decay_mult: 1
  }
  param {
    lr_mult: 2
    decay_mult: 0
  }
  convolution_param {
    num_output: 64
    kernel_size: 1
    weight_filler {
      type: "xavier"
      std: 0.1
    }
    bias_filler {
      type: "constant"
      value: 0.2
    }
  }
}
layer {
  name: "conv2/relu_3x3_reduce"
  type: "ReLU"
  bottom: "conv2/3x3_reduce"
  top: "conv2/3x3_reduce"
}
layer {
  name: "conv2/3x3"
  type: "Convolution"
  bottom: "conv2/3x3_reduce"
  top: "conv2/3x3"
  param {
    lr_mult: 1
    decay_mult: 1
  }
  param {
    lr_mult: 2
    decay_mult: 0
  }
  convolution_param {
    num_output: 192
    pad: 1
    kernel_size: 3
    weight_filler {
      type: "xavier"
      std: 0.03
    }
    bias_filler {
      type: "constant"
      value: 0.2
    }
  }
}
layer {
  name: "conv2/relu_3x3"
  type: "ReLU"
  bottom: "conv2/3x3"
  top: "conv2/3x3"
}
layer {
  name: "conv2/norm2"
  type: "LRN"
  bottom: "conv2/3x3"
  top: "conv2/norm2"
  lrn_param {
    local_size: 5
    alpha: 0.0001
    beta: 0.75
  }
}
layer {
  name: "pool2/3x3_s2"
  type: "Pooling"
  bottom: "conv2/norm2"
  top: "pool2/3x3_s2"
  pooling_param {
    pool: MAX
    kernel_size: 3
    stride: 2
  }
}
layer {
  name: "inception_3a/1x1"
  type: "Convolution"
  bottom: "pool2/3x3_s2"
  top: "inception_3a/1x1"
  param {
    lr_mult: 1
    decay_mult: 1
  }
  param {
    lr_mult: 2
    decay_mult: 0
  }
  convolution_param {
    num_output: 64
    kernel_size: 1
    weight_filler {
      type: "xavier"
      std: 0.03
    }
    bias_filler {
      type: "constant"
      value: 0.2
    }
  }
}
layer {
  name: "inception_3a/relu_1x1"
  type: "ReLU"
  bottom: "inception_3a/1x1"
  top: "inception_3a/1x1"
}
layer {
  name: "inception_3a/3x3_reduce"
  type: "Convolution"
  bottom: "pool2/3x3_s2"
  top: "inception_3a/3x3_reduce"
  param {
    lr_mult: 1
    decay_mult: 1
  }
  param {
    lr_mult: 2
    decay_mult: 0
  }
  convolution_param {
    num_output: 96
    kernel_size: 1
    weight_filler {
      type: "xavier"
      std: 0.09
    }
    bias_filler {
      type: "constant"
      value: 0.2
    }
  }
}
layer {
  name: "inception_3a/relu_3x3_reduce"
  type: "ReLU"
  bottom: "inception_3a/3x3_reduce"
  top: "inception_3a/3x3_reduce"
}
layer {
  name: "inception_3a/3x3"
  type: "Convolution"
  bottom: "inception_3a/3x3_reduce"
  top: "inception_3a/3x3"
  param {
    lr_mult: 1
    decay_mult: 1
  }
  param {
    lr_mult: 2
    decay_mult: 0
  }
  convolution_param {
    num_output: 128
    pad: 1
    kernel_size: 3
    weight_filler {
      type: "xavier"
      std: 0.03
    }
    bias_filler {
      type: "constant"
      value: 0.2
    }
  }
}
layer {
  name: "inception_3a/relu_3x3"
  type: "ReLU"
  bottom: "inception_3a/3x3"
  top: "inception_3a/3x3"
}
layer {
  name: "inception_3a/5x5_reduce"
  type: "Convolution"
  bottom: "pool2/3x3_s2"
  top: "inception_3a/5x5_reduce"
  param {
    lr_mult: 1
    decay_mult: 1
  }
  param {
    lr_mult: 2
    decay_mult: 0
  }
  convolution_param {
    num_output: 16
    kernel_size: 1
    weight_filler {
      type: "xavier"
      std: 0.2
    }
    bias_filler {
      type: "constant"
      value: 0.2
    }
  }
}
layer {
  name: "inception_3a/relu_5x5_reduce"
  type: "ReLU"
  bottom: "inception_3a/5x5_reduce"
  top: "inception_3a/5x5_reduce"
}
layer {
  name: "inception_3a/5x5"
  type: "Convolution"
  bottom: "inception_3a/5x5_reduce"
  top: "inception_3a/5x5"
  param {
    lr_mult: 1
    decay_mult: 1
  }
  param {
    lr_mult: 2
    decay_mult: 0
  }
  convolution_param {
    num_output: 32
    pad: 2
    kernel_size: 5
    weight_filler {
      type: "xavier"
      std: 0.03
    }
    bias_filler {
      type: "constant"
      value: 0.2
    }
  }
}
layer {
  name: "inception_3a/relu_5x5"
  type: "ReLU"
  bottom: "inception_3a/5x5"
  top: "inception_3a/5x5"
}
layer {
  name: "inception_3a/pool"
  type: "Pooling"
  bottom: "pool2/3x3_s2"
  top: "inception_3a/pool"
  pooling_param {
    pool: MAX
    kernel_size: 3
    stride: 1
    pad: 1
  }
}
layer {
  name: "inception_3a/pool_proj"
  type: "Convolution"
  bottom: "inception_3a/pool"
  top: "inception_3a/pool_proj"
  param {
    lr_mult: 1
    decay_mult: 1
  }
  param {
    lr_mult: 2
    decay_mult: 0
  }
  convolution_param {
    num_output: 32
    kernel_size: 1
    weight_filler {
      type: "xavier"
      std: 0.1
    }
    bias_filler {
      type: "constant"
      value: 0.2
    }
  }
}
layer {
  name: "inception_3a/relu_pool_proj"
  type: "ReLU"
  bottom: "inception_3a/pool_proj"
  top: "inception_3a/pool_proj"
}
layer {
  name: "inception_3a/output"
  type: "Concat"
  bottom: "inception_3a/1x1"
  bottom: "inception_3a/3x3"
  bottom: "inception_3a/5x5"
  bottom: "inception_3a/pool_proj"
  top: "inception_3a/output"
}
layer {
  name: "inception_3b/1x1"
  type: "Convolution"
  bottom: "inception_3a/output"
  top: "inception_3b/1x1"
  param {
    lr_mult: 1
    decay_mult: 1
  }
  param {
    lr_mult: 2
    decay_mult: 0
  }
  convolution_param {
    num_output: 128
    kernel_size: 1
    weight_filler {
      type: "xavier"
      std: 0.03
    }
    bias_filler {
      type: "constant"
      value: 0.2
    }
  }
}
layer {
  name: "inception_3b/relu_1x1"
  type: "ReLU"
  bottom: "inception_3b/1x1"
  top: "inception_3b/1x1"
}
layer {
  name: "inception_3b/3x3_reduce"
  type: "Convolution"
  bottom: "inception_3a/output"
  top: "inception_3b/3x3_reduce"
  param {
    lr_mult: 1
    decay_mult: 1
  }
  param {
    lr_mult: 2
    decay_mult: 0
  }
  convolution_param {
    num_output: 128
    kernel_size: 1
    weight_filler {
      type: "xavier"
      std: 0.09
    }
    bias_filler {
      type: "constant"
      value: 0.2
    }
  }
}
layer {
  name: "inception_3b/relu_3x3_reduce"
  type: "ReLU"
  bottom: "inception_3b/3x3_reduce"
  top: "inception_3b/3x3_reduce"
}
layer {
  name: "inception_3b/3x3"
  type: "Convolution"
  bottom: "inception_3b/3x3_reduce"
  top: "inception_3b/3x3"
  param {
    lr_mult: 1
    decay_mult: 1
  }
  param {
    lr_mult: 2
    decay_mult: 0
  }
  convolution_param {
    num_output: 192
    pad: 1
    kernel_size: 3
    weight_filler {
      type: "xavier"
      std: 0.03
    }
    bias_filler {
      type: "constant"
      value: 0.2
    }
  }
}
layer {
  name: "inception_3b/relu_3x3"
  type: "ReLU"
  bottom: "inception_3b/3x3"
  top: "inception_3b/3x3"
}
layer {
  name: "inception_3b/5x5_reduce"
  type: "Convolution"
  bottom: "inception_3a/output"
  top: "inception_3b/5x5_reduce"
  param {
    lr_mult: 1
    decay_mult: 1
  }
  param {
    lr_mult: 2
    decay_mult: 0
  }
  convolution_param {
    num_output: 32
    kernel_size: 1
    weight_filler {
      type: "xavier"
      std: 0.2
    }
    bias_filler {
      type: "constant"
      value: 0.2
    }
  }
}
layer {
  name: "inception_3b/relu_5x5_reduce"
  type: "ReLU"
  bottom: "inception_3b/5x5_reduce"
  top: "inception_3b/5x5_reduce"
}
layer {
  name: "inception_3b/5x5"
  type: "Convolution"
  bottom: "inception_3b/5x5_reduce"
  top: "inception_3b/5x5"
  param {
    lr_mult: 1
    decay_mult: 1
  }
  param {
    lr_mult: 2
    decay_mult: 0
  }
  convolution_param {
    num_output: 96
    pad: 2
    kernel_size: 5
    weight_filler {
      type: "xavier"
      std: 0.03
    }
    bias_filler {
      type: "constant"
      value: 0.2
    }
  }
}
layer {
  name: "inception_3b/relu_5x5"
  type: "ReLU"
  bottom: "inception_3b/5x5"
  top: "inception_3b/5x5"
}
layer {
  name: "inception_3b/pool"
  type: "Pooling"
  bottom: "inception_3a/output"
  top: "inception_3b/pool"
  pooling_param {
    pool: MAX
    kernel_size: 3
    stride: 1
    pad: 1
  }
}
layer {
  name: "inception_3b/pool_proj"
  type: "Convolution"
  bottom: "inception_3b/pool"
  top: "inception_3b/pool_proj"
  param {
    lr_mult: 1
    decay_mult: 1
  }
  param {
    lr_mult: 2
    decay_mult: 0
  }
  convolution_param {
    num_output: 64
    kernel_size: 1
    weight_filler {
      type: "xavier"
      std: 0.1
    }
    bias_filler {
      type: "constant"
      value: 0.2
    }
  }
}
layer {
  name: "inception_3b/relu_pool_proj"
  type: "ReLU"
  bottom: "inception_3b/pool_proj"
  top: "inception_3b/pool_proj"
}
layer {
  name: "inception_3b/output"
  type: "Concat"
  bottom: "inception_3b/1x1"
  bottom: "inception_3b/3x3"
  bottom: "inception_3b/5x5"
  bottom: "inception_3b/pool_proj"
  top: "inception_3b/output"
}
layer {
  name: "pool3/3x3_s2"
  type: "Pooling"
  bottom: "inception_3b/output"
  top: "pool3/3x3_s2"
  pooling_param {
    pool: MAX
    kernel_size: 3
    stride: 2
  }
}
layer {
  name: "inception_4a/1x1"
  type: "Convolution"
  bottom: "pool3/3x3_s2"
  top: "inception_4a/1x1"
  param {
    lr_mult: 1
    decay_mult: 1
  }
  param {
    lr_mult: 2
    decay_mult: 0
  }
  convolution_param {
    num_output: 192
    kernel_size: 1
    weight_filler {
      type: "xavier"
      std: 0.03
    }
    bias_filler {
      type: "constant"
      value: 0.2
    }
  }
}
layer {
  name: "inception_4a/relu_1x1"
  type: "ReLU"
  bottom: "inception_4a/1x1"
  top: "inception_4a/1x1"
}
layer {
  name: "inception_4a/3x3_reduce"
  type: "Convolution"
  bottom: "pool3/3x3_s2"
  top: "inception_4a/3x3_reduce"
  param {
    lr_mult: 1
    decay_mult: 1
  }
  param {
    lr_mult: 2
    decay_mult: 0
  }
  convolution_param {
    num_output: 96
    kernel_size: 1
    weight_filler {
      type: "xavier"
      std: 0.09
    }
    bias_filler {
      type: "constant"
      value: 0.2
    }
  }
}
layer {
  name: "inception_4a/relu_3x3_reduce"
  type: "ReLU"
  bottom: "inception_4a/3x3_reduce"
  top: "inception_4a/3x3_reduce"
}
layer {
  name: "inception_4a/3x3"
  type: "Convolution"
  bottom: "inception_4a/3x3_reduce"
  top: "inception_4a/3x3"
  param {
    lr_mult: 1
    decay_mult: 1
  }
  param {
    lr_mult: 2
    decay_mult: 0
  }
  convolution_param {
    num_output: 208
    pad: 1
    kernel_size: 3
    weight_filler {
      type: "xavier"
      std: 0.03
    }
    bias_filler {
      type: "constant"
      value: 0.2
    }
  }
}
layer {
  name: "inception_4a/relu_3x3"
  type: "ReLU"
  bottom: "inception_4a/3x3"
  top: "inception_4a/3x3"
}
layer {
  name: "inception_4a/5x5_reduce"
  type: "Convolution"
  bottom: "pool3/3x3_s2"
  top: "inception_4a/5x5_reduce"
  param {
    lr_mult: 1
    decay_mult: 1
  }
  param {
    lr_mult: 2
    decay_mult: 0
  }
  convolution_param {
    num_output: 16
    kernel_size: 1
    weight_filler {
      type: "xavier"
      std: 0.2
    }
    bias_filler {
      type: "constant"
      value: 0.2
    }
  }
}
layer {
  name: "inception_4a/relu_5x5_reduce"
  type: "ReLU"
  bottom: "inception_4a/5x5_reduce"
  top: "inception_4a/5x5_reduce"
}
layer {
  name: "inception_4a/5x5"
  type: "Convolution"
  bottom: "inception_4a/5x5_reduce"
  top: "inception_4a/5x5"
  param {
    lr_mult: 1
    decay_mult: 1
  }
  param {
    lr_mult: 2
    decay_mult: 0
  }
  convolution_param {
    num_output: 48
    pad: 2
    kernel_size: 5
    weight_filler {
      type: "xavier"
      std: 0.03
    }
    bias_filler {
      type: "constant"
      value: 0.2
    }
  }
}
layer {
  name: "inception_4a/relu_5x5"
  type: "ReLU"
  bottom: "inception_4a/5x5"
  top: "inception_4a/5x5"
}
layer {
  name: "inception_4a/pool"
  type: "Pooling"
  bottom: "pool3/3x3_s2"
  top: "inception_4a/pool"
  pooling_param {
    pool: MAX
    kernel_size: 3
    stride: 1
    pad: 1
  }
}
layer {
  name: "inception_4a/pool_proj"
  type: "Convolution"
  bottom: "inception_4a/pool"
  top: "inception_4a/pool_proj"
  param {
    lr_mult: 1
    decay_mult: 1
  }
  param {
    lr_mult: 2
    decay_mult: 0
  }
  convolution_param {
    num_output: 64
    kernel_size: 1
    weight_filler {
      type: "xavier"
      std: 0.1
    }
    bias_filler {
      type: "constant"
      value: 0.2
    }
  }
}
layer {
  name: "inception_4a/relu_pool_proj"
  type: "ReLU"
  bottom: "inception_4a/pool_proj"
  top: "inception_4a/pool_proj"
}
layer {
  name: "inception_4a/output"
  type: "Concat"
  bottom: "inception_4a/1x1"
  bottom: "inception_4a/3x3"
  bottom: "inception_4a/5x5"
  bottom: "inception_4a/pool_proj"
  top: "inception_4a/output"
}
layer {
  name: "loss1/ave_pool"
  type: "Pooling"
  bottom: "inception_4a/output"
  top: "loss1/ave_pool"
  pooling_param {
    pool: AVE
    kernel_size: 5
    stride: 3
  }
}
layer {
  name: "loss1/conv"
  type: "Convolution"
  bottom: "loss1/ave_pool"
  top: "loss1/conv"
  param {
    lr_mult: 1
    decay_mult: 1
  }
  param {
    lr_mult: 2
    decay_mult: 0
  }
  convolution_param {
    num_output: 128
    kernel_size: 1
    weight_filler {
      type: "xavier"
      std: 0.08
    }
    bias_filler {
      type: "constant"
      value: 0.2
    }
  }
}
layer {
  name: "loss1/relu_conv"
  type: "ReLU"
  bottom: "loss1/conv"
  top: "loss1/conv"
}
layer {
  name: "loss1/fc"
  type: "InnerProduct"
  bottom: "loss1/conv"
  top: "loss1/fc"
  param {
    lr_mult: 1
    decay_mult: 1
  }
  param {
    lr_mult: 2
    decay_mult: 0
  }
  inner_product_param {
    num_output: 1024
    weight_filler {
      type: "xavier"
      std: 0.02
    }
    bias_filler {
      type: "constant"
      value: 0.2
    }
  }
}
layer {
  name: "loss1/relu_fc"
  type: "ReLU"
  bottom: "loss1/fc"
  top: "loss1/fc"
}
layer {
  name: "loss1/drop_fc"
  type: "Dropout"
  bottom: "loss1/fc"
  top: "loss1/fc"
  dropout_param {
    dropout_ratio: 0.7
  }
}
layer {
  name: "loss1/classifier_plantvillage"
  type: "InnerProduct"
  bottom: "loss1/fc"
  top: "loss1/classifier_plantvillage"
  param {
    lr_mult: 1
    decay_mult: 1
  }
  param {
    lr_mult: 2
    decay_mult: 0
  }
  inner_product_param {
    num_output: 38
    weight_filler {
      type: "xavier"
      std: 0.0009765625
    }
    bias_filler {
      type: "constant"
      value: 0
    }
  }
}
layer {
  name: "inception_4b/1x1"
  type: "Convolution"
  bottom: "inception_4a/output"
  top: "inception_4b/1x1"
  param {
    lr_mult: 1
    decay_mult: 1
  }
  param {
    lr_mult: 2
    decay_mult: 0
  }
  convolution_param {
    num_output: 160
    kernel_size: 1
    weight_filler {
      type: "xavier"
      std: 0.03
    }
    bias_filler {
      type: "constant"
      value: 0.2
    }
  }
}
layer {
  name: "inception_4b/relu_1x1"
  type: "ReLU"
  bottom: "inception_4b/1x1"
  top: "inception_4b/1x1"
}
layer {
  name: "inception_4b/3x3_reduce"
  type: "Convolution"
  bottom: "inception_4a/output"
  top: "inception_4b/3x3_reduce"
  param {
    lr_mult: 1
    decay_mult: 1
  }
  param {
    lr_mult: 2
    decay_mult: 0
  }
  convolution_param {
    num_output: 112
    kernel_size: 1
    weight_filler {
      type: "xavier"
      std: 0.09
    }
    bias_filler {
      type: "constant"
      value: 0.2
    }
  }
}
layer {
  name: "inception_4b/relu_3x3_reduce"
  type: "ReLU"
  bottom: "inception_4b/3x3_reduce"
  top: "inception_4b/3x3_reduce"
}
layer {
  name: "inception_4b/3x3"
  type: "Convolution"
  bottom: "inception_4b/3x3_reduce"
  top: "inception_4b/3x3"
  param {
    lr_mult: 1
    decay_mult: 1
  }
  param {
    lr_mult: 2
    decay_mult: 0
  }
  convolution_param {
    num_output: 224
    pad: 1
    kernel_size: 3
    weight_filler {
      type: "xavier"
      std: 0.03
    }
    bias_filler {
      type: "constant"
      value: 0.2
    }
  }
}
layer {
  name: "inception_4b/relu_3x3"
  type: "ReLU"
  bottom: "inception_4b/3x3"
  top: "inception_4b/3x3"
}
layer {
  name: "inception_4b/5x5_reduce"
  type: "Convolution"
  bottom: "inception_4a/output"
  top: "inception_4b/5x5_reduce"
  param {
    lr_mult: 1
    decay_mult: 1
  }
  param {
    lr_mult: 2
    decay_mult: 0
  }
  convolution_param {
    num_output: 24
    kernel_size: 1
    weight_filler {
      type: "xavier"
      std: 0.2
    }
    bias_filler {
      type: "constant"
      value: 0.2
    }
  }
}
layer {
  name: "inception_4b/relu_5x5_reduce"
  type: "ReLU"
  bottom: "inception_4b/5x5_reduce"
  top: "inception_4b/5x5_reduce"
}
layer {
  name: "inception_4b/5x5"
  type: "Convolution"
  bottom: "inception_4b/5x5_reduce"
  top: "inception_4b/5x5"
  param {
    lr_mult: 1
    decay_mult: 1
  }
  param {
    lr_mult: 2
    decay_mult: 0
  }
  convolution_param {
    num_output: 64
    pad: 2
    kernel_size: 5
    weight_filler {
      type: "xavier"
      std: 0.03
    }
    bias_filler {
      type: "constant"
      value: 0.2
    }
  }
}
layer {
  name: "inception_4b/relu_5x5"
  type: "ReLU"
  bottom: "inception_4b/5x5"
  top: "inception_4b/5x5"
}
layer {
  name: "inception_4b/pool"
  type: "Pooling"
  bottom: "inception_4a/output"
  top: "inception_4b/pool"
  pooling_param {
    pool: MAX
    kernel_size: 3
    stride: 1
    pad: 1
  }
}
layer {
  name: "inception_4b/pool_proj"
  type: "Convolution"
  bottom: "inception_4b/pool"
  top: "inception_4b/pool_proj"
  param {
    lr_mult: 1
    decay_mult: 1
  }
  param {
    lr_mult: 2
    decay_mult: 0
  }
  convolution_param {
    num_output: 64
    kernel_size: 1
    weight_filler {
      type: "xavier"
      std: 0.1
    }
    bias_filler {
      type: "constant"
      value: 0.2
    }
  }
}
layer {
  name: "inception_4b/relu_pool_proj"
  type: "ReLU"
  bottom: "inception_4b/pool_proj"
  top: "inception_4b/pool_proj"
}
layer {
  name: "inception_4b/output"
  type: "Concat"
  bottom: "inception_4b/1x1"
  bottom: "inception_4b/3x3"
  bottom: "inception_4b/5x5"
  bottom: "inception_4b/pool_proj"
  top: "inception_4b/output"
}
layer {
  name: "inception_4c/1x1"
  type: "Convolution"
  bottom: "inception_4b/output"
  top: "inception_4c/1x1"
  param {
    lr_mult: 1
    decay_mult: 1
  }
  param {
    lr_mult: 2
    decay_mult: 0
  }
  convolution_param {
    num_output: 128
    kernel_size: 1
    weight_filler {
      type: "xavier"
      std: 0.03
    }
    bias_filler {
      type: "constant"
      value: 0.2
    }
  }
}
layer {
  name: "inception_4c/relu_1x1"
  type: "ReLU"
  bottom: "inception_4c/1x1"
  top: "inception_4c/1x1"
}
layer {
  name: "inception_4c/3x3_reduce"
  type: "Convolution"
  bottom: "inception_4b/output"
  top: "inception_4c/3x3_reduce"
  param {
    lr_mult: 1
    decay_mult: 1
  }
  param {
    lr_mult: 2
    decay_mult: 0
  }
  convolution_param {
    num_output: 128
    kernel_size: 1
    weight_filler {
      type: "xavier"
      std: 0.09
    }
    bias_filler {
      type: "constant"
      value: 0.2
    }
  }
}
layer {
  name: "inception_4c/relu_3x3_reduce"
  type: "ReLU"
  bottom: "inception_4c/3x3_reduce"
  top: "inception_4c/3x3_reduce"
}
layer {
  name: "inception_4c/3x3"
  type: "Convolution"
  bottom: "inception_4c/3x3_reduce"
  top: "inception_4c/3x3"
  param {
    lr_mult: 1
    decay_mult: 1
  }
  param {
    lr_mult: 2
    decay_mult: 0
  }
  convolution_param {
    num_output: 256
    pad: 1
    kernel_size: 3
    weight_filler {
      type: "xavier"
      std: 0.03
    }
    bias_filler {
      type: "constant"
      value: 0.2
    }
  }
}
layer {
  name: "inception_4c/relu_3x3"
  type: "ReLU"
  bottom: "inception_4c/3x3"
  top: "inception_4c/3x3"
}
layer {
  name: "inception_4c/5x5_reduce"
  type: "Convolution"
  bottom: "inception_4b/output"
  top: "inception_4c/5x5_reduce"
  param {
    lr_mult: 1
    decay_mult: 1
  }
  param {
    lr_mult: 2
    decay_mult: 0
  }
  convolution_param {
    num_output: 24
    kernel_size: 1
    weight_filler {
      type: "xavier"
      std: 0.2
    }
    bias_filler {
      type: "constant"
      value: 0.2
    }
  }
}
layer {
  name: "inception_4c/relu_5x5_reduce"
  type: "ReLU"
  bottom: "inception_4c/5x5_reduce"
  top: "inception_4c/5x5_reduce"
}
layer {
  name: "inception_4c/5x5"
  type: "Convolution"
  bottom: "inception_4c/5x5_reduce"
  top: "inception_4c/5x5"
  param {
    lr_mult: 1
    decay_mult: 1
  }
  param {
    lr_mult: 2
    decay_mult: 0
  }
  convolution_param {
    num_output: 64
    pad: 2
    kernel_size: 5
    weight_filler {
      type: "xavier"
      std: 0.03
    }
    bias_filler {
      type: "constant"
      value: 0.2
    }
  }
}
layer {
  name: "inception_4c/relu_5x5"
  type: "ReLU"
  bottom: "inception_4c/5x5"
  top: "inception_4c/5x5"
}
layer {
  name: "inception_4c/pool"
  type: "Pooling"
  bottom: "inception_4b/output"
  top: "inception_4c/pool"
  pooling_param {
    pool: MAX
    kernel_size: 3
    stride: 1
    pad: 1
  }
}
layer {
  name: "inception_4c/pool_proj"
  type: "Convolution"
  bottom: "inception_4c/pool"
  top: "inception_4c/pool_proj"
  param {
    lr_mult: 1
    decay_mult: 1
  }
  param {
    lr_mult: 2
    decay_mult: 0
  }
  convolution_param {
    num_output: 64
    kernel_size: 1
    weight_filler {
      type: "xavier"
      std: 0.1
    }
    bias_filler {
      type: "constant"
      value: 0.2
    }
  }
}
layer {
  name: "inception_4c/relu_pool_proj"
  type: "ReLU"
  bottom: "inception_4c/pool_proj"
  top: "inception_4c/pool_proj"
}
layer {
  name: "inception_4c/output"
  type: "Concat"
  bottom: "inception_4c/1x1"
  bottom: "inception_4c/3x3"
  bottom: "inception_4c/5x5"
  bottom: "inception_4c/pool_proj"
  top: "inception_4c/output"
}
layer {
  name: "inception_4d/1x1"
  type: "Convolution"
  bottom: "inception_4c/output"
  top: "inception_4d/1x1"
  param {
    lr_mult: 1
    decay_mult: 1
  }
  param {
    lr_mult: 2
    decay_mult: 0
  }
  convolution_param {
    num_output: 112
    kernel_size: 1
    weight_filler {
      type: "xavier"
      std: 0.03
    }
    bias_filler {
      type: "constant"
      value: 0.2
    }
  }
}
layer {
  name: "inception_4d/relu_1x1"
  type: "ReLU"
  bottom: "inception_4d/1x1"
  top: "inception_4d/1x1"
}
layer {
  name: "inception_4d/3x3_reduce"
  type: "Convolution"
  bottom: "inception_4c/output"
  top: "inception_4d/3x3_reduce"
  param {
    lr_mult: 1
    decay_mult: 1
  }
  param {
    lr_mult: 2
    decay_mult: 0
  }
  convolution_param {
    num_output: 144
    kernel_size: 1
    weight_filler {
      type: "xavier"
      std: 0.09
    }
    bias_filler {
      type: "constant"
      value: 0.2
    }
  }
}
layer {
  name: "inception_4d/relu_3x3_reduce"
  type: "ReLU"
  bottom: "inception_4d/3x3_reduce"
  top: "inception_4d/3x3_reduce"
}
layer {
  name: "inception_4d/3x3"
  type: "Convolution"
  bottom: "inception_4d/3x3_reduce"
  top: "inception_4d/3x3"
  param {
    lr_mult: 1
    decay_mult: 1
  }
  param {
    lr_mult: 2
    decay_mult: 0
  }
  convolution_param {
    num_output: 288
    pad: 1
    kernel_size: 3
    weight_filler {
      type: "xavier"
      std: 0.03
    }
    bias_filler {
      type: "constant"
      value: 0.2
    }
  }
}
layer {
  name: "inception_4d/relu_3x3"
  type: "ReLU"
  bottom: "inception_4d/3x3"
  top: "inception_4d/3x3"
}
layer {
  name: "inception_4d/5x5_reduce"
  type: "Convolution"
  bottom: "inception_4c/output"
  top: "inception_4d/5x5_reduce"
  param {
    lr_mult: 1
    decay_mult: 1
  }
  param {
    lr_mult: 2
    decay_mult: 0
  }
  convolution_param {
    num_output: 32
    kernel_size: 1
    weight_filler {
      type: "xavier"
      std: 0.2
    }
    bias_filler {
      type: "constant"
      value: 0.2
    }
  }
}
layer {
  name: "inception_4d/relu_5x5_reduce"
  type: "ReLU"
  bottom: "inception_4d/5x5_reduce"
  top: "inception_4d/5x5_reduce"
}
layer {
  name: "inception_4d/5x5"
  type: "Convolution"
  bottom: "inception_4d/5x5_reduce"
  top: "inception_4d/5x5"
  param {
    lr_mult: 1
    decay_mult: 1
  }
  param {
    lr_mult: 2
    decay_mult: 0
  }
  convolution_param {
    num_output: 64
    pad: 2
    kernel_size: 5
    weight_filler {
      type: "xavier"
      std: 0.03
    }
    bias_filler {
      type: "constant"
      value: 0.2
    }
  }
}
layer {
  name: "inception_4d/relu_5x5"
  type: "ReLU"
  bottom: "inception_4d/5x5"
  top: "inception_4d/5x5"
}
layer {
  name: "inception_4d/pool"
  type: "Pooling"
  bottom: "inception_4c/output"
  top: "inception_4d/pool"
  pooling_param {
    pool: MAX
    kernel_size: 3
    stride: 1
    pad: 1
  }
}
layer {
  name: "inception_4d/pool_proj"
  type: "Convolution"
  bottom: "inception_4d/pool"
  top: "inception_4d/pool_proj"
  param {
    lr_mult: 1
    decay_mult: 1
  }
  param {
    lr_mult: 2
    decay_mult: 0
  }
  convolution_param {
    num_output: 64
    kernel_size: 1
    weight_filler {
      type: "xavier"
      std: 0.1
    }
    bias_filler {
      type: "constant"
      value: 0.2
    }
  }
}
layer {
  name: "inception_4d/relu_pool_proj"
  type: "ReLU"
  bottom: "inception_4d/pool_proj"
  top: "inception_4d/pool_proj"
}
layer {
  name: "inception_4d/output"
  type: "Concat"
  bottom: "inception_4d/1x1"
  bottom: "inception_4d/3x3"
  bottom: "inception_4d/5x5"
  bottom: "inception_4d/pool_proj"
  top: "inception_4d/output"
}
layer {
  name: "loss2/ave_pool"
  type: "Pooling"
  bottom: "inception_4d/output"
  top: "loss2/ave_pool"
  pooling_param {
    pool: AVE
    kernel_size: 5
    stride: 3
  }
}
layer {
  name: "loss2/conv"
  type: "Convolution"
  bottom: "loss2/ave_pool"
  top: "loss2/conv"
  param {
    lr_mult: 1
    decay_mult: 1
  }
  param {
    lr_mult: 2
    decay_mult: 0
  }
  convolution_param {
    num_output: 128
    kernel_size: 1
    weight_filler {
      type: "xavier"
      std: 0.08
    }
    bias_filler {
      type: "constant"
      value: 0.2
    }
  }
}
layer {
  name: "loss2/relu_conv"
  type: "ReLU"
  bottom: "loss2/conv"
  top: "loss2/conv"
}
layer {
  name: "loss2/fc"
  type: "InnerProduct"
  bottom: "loss2/conv"
  top: "loss2/fc"
  param {
    lr_mult: 1
    decay_mult: 1
  }
  param {
    lr_mult: 2
    decay_mult: 0
  }
  inner_product_param {
    num_output: 1024
    weight_filler {
      type: "xavier"
      std: 0.02
    }
    bias_filler {
      type: "constant"
      value: 0.2
    }
  }
}
layer {
  name: "loss2/relu_fc"
  type: "ReLU"
  bottom: "loss2/fc"
  top: "loss2/fc"
}
layer {
  name: "loss2/drop_fc"
  type: "Dropout"
  bottom: "loss2/fc"
  top: "loss2/fc"
  dropout_param {
    dropout_ratio: 0.7
  }
}
layer {
  name: "loss2/classifier_plantvillage"
  type: "InnerProduct"
  bottom: "loss2/fc"
  top: "loss2/classifier_plantvillage"
  param {
    lr_mult: 1
    decay_mult: 1
  }
  param {
    lr_mult: 2
    decay_mult: 0
  }
  inner_product_param {
    num_output: 38
    weight_filler {
      type: "xavier"
      std: 0.0009765625
    }
    bias_filler {
      type: "constant"
      value: 0
    }
  }
}
layer {
  name: "inception_4e/1x1"
  type: "Convolution"
  bottom: "inception_4d/output"
  top: "inception_4e/1x1"
  param {
    lr_mult: 1
    decay_mult: 1
  }
  param {
    lr_mult: 2
    decay_mult: 0
  }
  convolution_param {
    num_output: 256
    kernel_size: 1
    weight_filler {
      type: "xavier"
      std: 0.03
    }
    bias_filler {
      type: "constant"
      value: 0.2
    }
  }
}
layer {
  name: "inception_4e/relu_1x1"
  type: "ReLU"
  bottom: "inception_4e/1x1"
  top: "inception_4e/1x1"
}
layer {
  name: "inception_4e/3x3_reduce"
  type: "Convolution"
  bottom: "inception_4d/output"
  top: "inception_4e/3x3_reduce"
  param {
    lr_mult: 1
    decay_mult: 1
  }
  param {
    lr_mult: 2
    decay_mult: 0
  }
  convolution_param {
    num_output: 160
    kernel_size: 1
    weight_filler {
      type: "xavier"
      std: 0.09
    }
    bias_filler {
      type: "constant"
      value: 0.2
    }
  }
}
layer {
  name: "inception_4e/relu_3x3_reduce"
  type: "ReLU"
  bottom: "inception_4e/3x3_reduce"
  top: "inception_4e/3x3_reduce"
}
layer {
  name: "inception_4e/3x3"
  type: "Convolution"
  bottom: "inception_4e/3x3_reduce"
  top: "inception_4e/3x3"
  param {
    lr_mult: 1
    decay_mult: 1
  }
  param {
    lr_mult: 2
    decay_mult: 0
  }
  convolution_param {
    num_output: 320
    pad: 1
    kernel_size: 3
    weight_filler {
      type: "xavier"
      std: 0.03
    }
    bias_filler {
      type: "constant"
      value: 0.2
    }
  }
}
layer {
  name: "inception_4e/relu_3x3"
  type: "ReLU"
  bottom: "inception_4e/3x3"
  top: "inception_4e/3x3"
}
layer {
  name: "inception_4e/5x5_reduce"
  type: "Convolution"
  bottom: "inception_4d/output"
  top: "inception_4e/5x5_reduce"
  param {
    lr_mult: 1
    decay_mult: 1
  }
  param {
    lr_mult: 2
    decay_mult: 0
  }
  convolution_param {
    num_output: 32
    kernel_size: 1
    weight_filler {
      type: "xavier"
      std: 0.2
    }
    bias_filler {
      type: "constant"
      value: 0.2
    }
  }
}
layer {
  name: "inception_4e/relu_5x5_reduce"
  type: "ReLU"
  bottom: "inception_4e/5x5_reduce"
  top: "inception_4e/5x5_reduce"
}
layer {
  name: "inception_4e/5x5"
  type: "Convolution"
  bottom: "inception_4e/5x5_reduce"
  top: "inception_4e/5x5"
  p
I0403 19:18:24.559068  9074 layer_factory.hpp:77] Creating layer data
I0403 19:18:24.559684  9074 net.cpp:91] Creating Layer data
I0403 19:18:24.559718  9074 net.cpp:399] data -> data
I0403 19:18:24.559770  9074 net.cpp:399] data -> label
I0403 19:18:24.559808  9074 data_transformer.cpp:25] Loading mean file from: /home/mohanty/data/final_dataset/lmdb/color-50-50/mean.binaryproto
I0403 19:18:24.566735  9076 db_lmdb.cpp:38] Opened lmdb /home/mohanty/data/final_dataset/lmdb/color-50-50/test_db
I0403 19:18:24.573454  9074 data_layer.cpp:41] output data size: 24,3,224,224
I0403 19:18:24.601085  9074 net.cpp:141] Setting up data
I0403 19:18:24.601182  9074 net.cpp:148] Top shape: 24 3 224 224 (3612672)
I0403 19:18:24.601205  9074 net.cpp:148] Top shape: 24 (24)
I0403 19:18:24.601223  9074 net.cpp:156] Memory required for data: 14450784
I0403 19:18:24.601258  9074 layer_factory.hpp:77] Creating layer label_data_1_split
I0403 19:18:24.601284  9074 net.cpp:91] Creating Layer label_data_1_split
I0403 19:18:24.601305  9074 net.cpp:425] label_data_1_split <- label
I0403 19:18:24.601339  9074 net.cpp:399] label_data_1_split -> label_data_1_split_0
I0403 19:18:24.601367  9074 net.cpp:399] label_data_1_split -> label_data_1_split_1
I0403 19:18:24.601390  9074 net.cpp:399] label_data_1_split -> label_data_1_split_2
I0403 19:18:24.601413  9074 net.cpp:399] label_data_1_split -> label_data_1_split_3
I0403 19:18:24.601433  9074 net.cpp:399] label_data_1_split -> label_data_1_split_4
I0403 19:18:24.601455  9074 net.cpp:399] label_data_1_split -> label_data_1_split_5
I0403 19:18:24.601475  9074 net.cpp:399] label_data_1_split -> label_data_1_split_6
I0403 19:18:24.601496  9074 net.cpp:399] label_data_1_split -> label_data_1_split_7
I0403 19:18:24.601516  9074 net.cpp:399] label_data_1_split -> label_data_1_split_8
I0403 19:18:24.601536  9074 net.cpp:399] label_data_1_split -> label_data_1_split_9
I0403 19:18:24.601655  9074 net.cpp:141] Setting up label_data_1_split
I0403 19:18:24.601680  9074 net.cpp:148] Top shape: 24 (24)
I0403 19:18:24.601697  9074 net.cpp:148] Top shape: 24 (24)
I0403 19:18:24.601713  9074 net.cpp:148] Top shape: 24 (24)
I0403 19:18:24.601729  9074 net.cpp:148] Top shape: 24 (24)
I0403 19:18:24.601745  9074 net.cpp:148] Top shape: 24 (24)
I0403 19:18:24.601761  9074 net.cpp:148] Top shape: 24 (24)
I0403 19:18:24.601778  9074 net.cpp:148] Top shape: 24 (24)
I0403 19:18:24.601794  9074 net.cpp:148] Top shape: 24 (24)
I0403 19:18:24.601809  9074 net.cpp:148] Top shape: 24 (24)
I0403 19:18:24.601826  9074 net.cpp:148] Top shape: 24 (24)
I0403 19:18:24.601872  9074 net.cpp:156] Memory required for data: 14451744
I0403 19:18:24.601888  9074 layer_factory.hpp:77] Creating layer conv1/7x7_s2
I0403 19:18:24.601922  9074 net.cpp:91] Creating Layer conv1/7x7_s2
I0403 19:18:24.601940  9074 net.cpp:425] conv1/7x7_s2 <- data
I0403 19:18:24.601960  9074 net.cpp:399] conv1/7x7_s2 -> conv1/7x7_s2
I0403 19:18:24.741426  9074 net.cpp:141] Setting up conv1/7x7_s2
I0403 19:18:24.741503  9074 net.cpp:148] Top shape: 24 64 112 112 (19267584)
I0403 19:18:24.741520  9074 net.cpp:156] Memory required for data: 91522080
I0403 19:18:24.741551  9074 layer_factory.hpp:77] Creating layer conv1/relu_7x7
I0403 19:18:24.741578  9074 net.cpp:91] Creating Layer conv1/relu_7x7
I0403 19:18:24.741596  9074 net.cpp:425] conv1/relu_7x7 <- conv1/7x7_s2
I0403 19:18:24.741616  9074 net.cpp:386] conv1/relu_7x7 -> conv1/7x7_s2 (in-place)
I0403 19:18:24.741885  9074 net.cpp:141] Setting up conv1/relu_7x7
I0403 19:18:24.741915  9074 net.cpp:148] Top shape: 24 64 112 112 (19267584)
I0403 19:18:24.741931  9074 net.cpp:156] Memory required for data: 168592416
I0403 19:18:24.741947  9074 layer_factory.hpp:77] Creating layer pool1/3x3_s2
I0403 19:18:24.741972  9074 net.cpp:91] Creating Layer pool1/3x3_s2
I0403 19:18:24.741991  9074 net.cpp:425] pool1/3x3_s2 <- conv1/7x7_s2
I0403 19:18:24.742012  9074 net.cpp:399] pool1/3x3_s2 -> pool1/3x3_s2
I0403 19:18:24.742091  9074 net.cpp:141] Setting up pool1/3x3_s2
I0403 19:18:24.742115  9074 net.cpp:148] Top shape: 24 64 56 56 (4816896)
I0403 19:18:24.742130  9074 net.cpp:156] Memory required for data: 187860000
I0403 19:18:24.742144  9074 layer_factory.hpp:77] Creating layer pool1/norm1
I0403 19:18:24.742172  9074 net.cpp:91] Creating Layer pool1/norm1
I0403 19:18:24.742192  9074 net.cpp:425] pool1/norm1 <- pool1/3x3_s2
I0403 19:18:24.742211  9074 net.cpp:399] pool1/norm1 -> pool1/norm1
I0403 19:18:24.742538  9074 net.cpp:141] Setting up pool1/norm1
I0403 19:18:24.742568  9074 net.cpp:148] Top shape: 24 64 56 56 (4816896)
I0403 19:18:24.742584  9074 net.cpp:156] Memory required for data: 207127584
I0403 19:18:24.742599  9074 layer_factory.hpp:77] Creating layer conv2/3x3_reduce
I0403 19:18:24.742627  9074 net.cpp:91] Creating Layer conv2/3x3_reduce
I0403 19:18:24.742645  9074 net.cpp:425] conv2/3x3_reduce <- pool1/norm1
I0403 19:18:24.742665  9074 net.cpp:399] conv2/3x3_reduce -> conv2/3x3_reduce
I0403 19:18:24.744105  9074 net.cpp:141] Setting up conv2/3x3_reduce
I0403 19:18:24.744135  9074 net.cpp:148] Top shape: 24 64 56 56 (4816896)
I0403 19:18:24.744151  9074 net.cpp:156] Memory required for data: 226395168
I0403 19:18:24.744173  9074 layer_factory.hpp:77] Creating layer conv2/relu_3x3_reduce
I0403 19:18:24.744195  9074 net.cpp:91] Creating Layer conv2/relu_3x3_reduce
I0403 19:18:24.744212  9074 net.cpp:425] conv2/relu_3x3_reduce <- conv2/3x3_reduce
I0403 19:18:24.744230  9074 net.cpp:386] conv2/relu_3x3_reduce -> conv2/3x3_reduce (in-place)
I0403 19:18:24.744508  9074 net.cpp:141] Setting up conv2/relu_3x3_reduce
I0403 19:18:24.744534  9074 net.cpp:148] Top shape: 24 64 56 56 (4816896)
I0403 19:18:24.744550  9074 net.cpp:156] Memory required for data: 245662752
I0403 19:18:24.744565  9074 layer_factory.hpp:77] Creating layer conv2/3x3
I0403 19:18:24.744588  9074 net.cpp:91] Creating Layer conv2/3x3
I0403 19:18:24.744609  9074 net.cpp:425] conv2/3x3 <- conv2/3x3_reduce
I0403 19:18:24.744628  9074 net.cpp:399] conv2/3x3 -> conv2/3x3
I0403 19:18:24.746965  9074 net.cpp:141] Setting up conv2/3x3
I0403 19:18:24.746996  9074 net.cpp:148] Top shape: 24 192 56 56 (14450688)
I0403 19:18:24.747012  9074 net.cpp:156] Memory required for data: 303465504
I0403 19:18:24.747035  9074 layer_factory.hpp:77] Creating layer conv2/relu_3x3
I0403 19:18:24.747056  9074 net.cpp:91] Creating Layer conv2/relu_3x3
I0403 19:18:24.747072  9074 net.cpp:425] conv2/relu_3x3 <- conv2/3x3
I0403 19:18:24.747090  9074 net.cpp:386] conv2/relu_3x3 -> conv2/3x3 (in-place)
I0403 19:18:24.747273  9074 net.cpp:141] Setting up conv2/relu_3x3
I0403 19:18:24.747301  9074 net.cpp:148] Top shape: 24 192 56 56 (14450688)
I0403 19:18:24.747349  9074 net.cpp:156] Memory required for data: 361268256
I0403 19:18:24.747366  9074 layer_factory.hpp:77] Creating layer conv2/norm2
I0403 19:18:24.747386  9074 net.cpp:91] Creating Layer conv2/norm2
I0403 19:18:24.747402  9074 net.cpp:425] conv2/norm2 <- conv2/3x3
I0403 19:18:24.747426  9074 net.cpp:399] conv2/norm2 -> conv2/norm2
I0403 19:18:24.747736  9074 net.cpp:141] Setting up conv2/norm2
I0403 19:18:24.747764  9074 net.cpp:148] Top shape: 24 192 56 56 (14450688)
I0403 19:18:24.747779  9074 net.cpp:156] Memory required for data: 419071008
I0403 19:18:24.747794  9074 layer_factory.hpp:77] Creating layer pool2/3x3_s2
I0403 19:18:24.747813  9074 net.cpp:91] Creating Layer pool2/3x3_s2
I0403 19:18:24.747828  9074 net.cpp:425] pool2/3x3_s2 <- conv2/norm2
I0403 19:18:24.747850  9074 net.cpp:399] pool2/3x3_s2 -> pool2/3x3_s2
I0403 19:18:24.747905  9074 net.cpp:141] Setting up pool2/3x3_s2
I0403 19:18:24.747927  9074 net.cpp:148] Top shape: 24 192 28 28 (3612672)
I0403 19:18:24.747942  9074 net.cpp:156] Memory required for data: 433521696
I0403 19:18:24.747957  9074 layer_factory.hpp:77] Creating layer pool2/3x3_s2_pool2/3x3_s2_0_split
I0403 19:18:24.747978  9074 net.cpp:91] Creating Layer pool2/3x3_s2_pool2/3x3_s2_0_split
I0403 19:18:24.747993  9074 net.cpp:425] pool2/3x3_s2_pool2/3x3_s2_0_split <- pool2/3x3_s2
I0403 19:18:24.748013  9074 net.cpp:399] pool2/3x3_s2_pool2/3x3_s2_0_split -> pool2/3x3_s2_pool2/3x3_s2_0_split_0
I0403 19:18:24.748034  9074 net.cpp:399] pool2/3x3_s2_pool2/3x3_s2_0_split -> pool2/3x3_s2_pool2/3x3_s2_0_split_1
I0403 19:18:24.748054  9074 net.cpp:399] pool2/3x3_s2_pool2/3x3_s2_0_split -> pool2/3x3_s2_pool2/3x3_s2_0_split_2
I0403 19:18:24.748075  9074 net.cpp:399] pool2/3x3_s2_pool2/3x3_s2_0_split -> pool2/3x3_s2_pool2/3x3_s2_0_split_3
I0403 19:18:24.748147  9074 net.cpp:141] Setting up pool2/3x3_s2_pool2/3x3_s2_0_split
I0403 19:18:24.748172  9074 net.cpp:148] Top shape: 24 192 28 28 (3612672)
I0403 19:18:24.748191  9074 net.cpp:148] Top shape: 24 192 28 28 (3612672)
I0403 19:18:24.748208  9074 net.cpp:148] Top shape: 24 192 28 28 (3612672)
I0403 19:18:24.748224  9074 net.cpp:148] Top shape: 24 192 28 28 (3612672)
I0403 19:18:24.748237  9074 net.cpp:156] Memory required for data: 491324448
I0403 19:18:24.748257  9074 layer_factory.hpp:77] Creating layer inception_3a/1x1
I0403 19:18:24.748278  9074 net.cpp:91] Creating Layer inception_3a/1x1
I0403 19:18:24.748294  9074 net.cpp:425] inception_3a/1x1 <- pool2/3x3_s2_pool2/3x3_s2_0_split_0
I0403 19:18:24.748316  9074 net.cpp:399] inception_3a/1x1 -> inception_3a/1x1
I0403 19:18:24.749881  9074 net.cpp:141] Setting up inception_3a/1x1
I0403 19:18:24.749912  9074 net.cpp:148] Top shape: 24 64 28 28 (1204224)
I0403 19:18:24.749929  9074 net.cpp:156] Memory required for data: 496141344
I0403 19:18:24.749948  9074 layer_factory.hpp:77] Creating layer inception_3a/relu_1x1
I0403 19:18:24.749969  9074 net.cpp:91] Creating Layer inception_3a/relu_1x1
I0403 19:18:24.749986  9074 net.cpp:425] inception_3a/relu_1x1 <- inception_3a/1x1
I0403 19:18:24.750004  9074 net.cpp:386] inception_3a/relu_1x1 -> inception_3a/1x1 (in-place)
I0403 19:18:24.750181  9074 net.cpp:141] Setting up inception_3a/relu_1x1
I0403 19:18:24.750207  9074 net.cpp:148] Top shape: 24 64 28 28 (1204224)
I0403 19:18:24.750222  9074 net.cpp:156] Memory required for data: 500958240
I0403 19:18:24.750237  9074 layer_factory.hpp:77] Creating layer inception_3a/3x3_reduce
I0403 19:18:24.750267  9074 net.cpp:91] Creating Layer inception_3a/3x3_reduce
I0403 19:18:24.750284  9074 net.cpp:425] inception_3a/3x3_reduce <- pool2/3x3_s2_pool2/3x3_s2_0_split_1
I0403 19:18:24.750303  9074 net.cpp:399] inception_3a/3x3_reduce -> inception_3a/3x3_reduce
I0403 19:18:24.752038  9074 net.cpp:141] Setting up inception_3a/3x3_reduce
I0403 19:18:24.752068  9074 net.cpp:148] Top shape: 24 96 28 28 (1806336)
I0403 19:18:24.752084  9074 net.cpp:156] Memory required for data: 508183584
I0403 19:18:24.752109  9074 layer_factory.hpp:77] Creating layer inception_3a/relu_3x3_reduce
I0403 19:18:24.752146  9074 net.cpp:91] Creating Layer inception_3a/relu_3x3_reduce
I0403 19:18:24.752164  9074 net.cpp:425] inception_3a/relu_3x3_reduce <- inception_3a/3x3_reduce
I0403 19:18:24.752184  9074 net.cpp:386] inception_3a/relu_3x3_reduce -> inception_3a/3x3_reduce (in-place)
I0403 19:18:24.752384  9074 net.cpp:141] Setting up inception_3a/relu_3x3_reduce
I0403 19:18:24.752410  9074 net.cpp:148] Top shape: 24 96 28 28 (1806336)
I0403 19:18:24.752425  9074 net.cpp:156] Memory required for data: 515408928
I0403 19:18:24.752440  9074 layer_factory.hpp:77] Creating layer inception_3a/3x3
I0403 19:18:24.752465  9074 net.cpp:91] Creating Layer inception_3a/3x3
I0403 19:18:24.752482  9074 net.cpp:425] inception_3a/3x3 <- inception_3a/3x3_reduce
I0403 19:18:24.752504  9074 net.cpp:399] inception_3a/3x3 -> inception_3a/3x3
I0403 19:18:24.754225  9074 net.cpp:141] Setting up inception_3a/3x3
I0403 19:18:24.754257  9074 net.cpp:148] Top shape: 24 128 28 28 (2408448)
I0403 19:18:24.754273  9074 net.cpp:156] Memory required for data: 525042720
I0403 19:18:24.754292  9074 layer_factory.hpp:77] Creating layer inception_3a/relu_3x3
I0403 19:18:24.754315  9074 net.cpp:91] Creating Layer inception_3a/relu_3x3
I0403 19:18:24.754331  9074 net.cpp:425] inception_3a/relu_3x3 <- inception_3a/3x3
I0403 19:18:24.754350  9074 net.cpp:386] inception_3a/relu_3x3 -> inception_3a/3x3 (in-place)
I0403 19:18:24.754637  9074 net.cpp:141] Setting up inception_3a/relu_3x3
I0403 19:18:24.754663  9074 net.cpp:148] Top shape: 24 128 28 28 (2408448)
I0403 19:18:24.754678  9074 net.cpp:156] Memory required for data: 534676512
I0403 19:18:24.754693  9074 layer_factory.hpp:77] Creating layer inception_3a/5x5_reduce
I0403 19:18:24.754716  9074 net.cpp:91] Creating Layer inception_3a/5x5_reduce
I0403 19:18:24.754734  9074 net.cpp:425] inception_3a/5x5_reduce <- pool2/3x3_s2_pool2/3x3_s2_0_split_2
I0403 19:18:24.754756  9074 net.cpp:399] inception_3a/5x5_reduce -> inception_3a/5x5_reduce
I0403 19:18:24.755743  9074 net.cpp:141] Setting up inception_3a/5x5_reduce
I0403 19:18:24.755774  9074 net.cpp:148] Top shape: 24 16 28 28 (301056)
I0403 19:18:24.755789  9074 net.cpp:156] Memory required for data: 535880736
I0403 19:18:24.755807  9074 layer_factory.hpp:77] Creating layer inception_3a/relu_5x5_reduce
I0403 19:18:24.755826  9074 net.cpp:91] Creating Layer inception_3a/relu_5x5_reduce
I0403 19:18:24.755841  9074 net.cpp:425] inception_3a/relu_5x5_reduce <- inception_3a/5x5_reduce
I0403 19:18:24.755858  9074 net.cpp:386] inception_3a/relu_5x5_reduce -> inception_3a/5x5_reduce (in-place)
I0403 19:18:24.756162  9074 net.cpp:141] Setting up inception_3a/relu_5x5_reduce
I0403 19:18:24.756191  9074 net.cpp:148] Top shape: 24 16 28 28 (301056)
I0403 19:18:24.756207  9074 net.cpp:156] Memory required for data: 537084960
I0403 19:18:24.756222  9074 layer_factory.hpp:77] Creating layer inception_3a/5x5
I0403 19:18:24.756247  9074 net.cpp:91] Creating Layer inception_3a/5x5
I0403 19:18:24.756266  9074 net.cpp:425] inception_3a/5x5 <- inception_3a/5x5_reduce
I0403 19:18:24.756288  9074 net.cpp:399] inception_3a/5x5 -> inception_3a/5x5
I0403 19:18:24.757334  9074 net.cpp:141] Setting up inception_3a/5x5
I0403 19:18:24.757362  9074 net.cpp:148] Top shape: 24 32 28 28 (602112)
I0403 19:18:24.757378  9074 net.cpp:156] Memory required for data: 539493408
I0403 19:18:24.757396  9074 layer_factory.hpp:77] Creating layer inception_3a/relu_5x5
I0403 19:18:24.757417  9074 net.cpp:91] Creating Layer inception_3a/relu_5x5
I0403 19:18:24.757433  9074 net.cpp:425] inception_3a/relu_5x5 <- inception_3a/5x5
I0403 19:18:24.757452  9074 net.cpp:386] inception_3a/relu_5x5 -> inception_3a/5x5 (in-place)
I0403 19:18:24.757630  9074 net.cpp:141] Setting up inception_3a/relu_5x5
I0403 19:18:24.757658  9074 net.cpp:148] Top shape: 24 32 28 28 (602112)
I0403 19:18:24.757673  9074 net.cpp:156] Memory required for data: 541901856
I0403 19:18:24.757688  9074 layer_factory.hpp:77] Creating layer inception_3a/pool
I0403 19:18:24.757706  9074 net.cpp:91] Creating Layer inception_3a/pool
I0403 19:18:24.757722  9074 net.cpp:425] inception_3a/pool <- pool2/3x3_s2_pool2/3x3_s2_0_split_3
I0403 19:18:24.757760  9074 net.cpp:399] inception_3a/pool -> inception_3a/pool
I0403 19:18:24.757819  9074 net.cpp:141] Setting up inception_3a/pool
I0403 19:18:24.757844  9074 net.cpp:148] Top shape: 24 192 28 28 (3612672)
I0403 19:18:24.757858  9074 net.cpp:156] Memory required for data: 556352544
I0403 19:18:24.757872  9074 layer_factory.hpp:77] Creating layer inception_3a/pool_proj
I0403 19:18:24.757896  9074 net.cpp:91] Creating Layer inception_3a/pool_proj
I0403 19:18:24.757913  9074 net.cpp:425] inception_3a/pool_proj <- inception_3a/pool
I0403 19:18:24.757936  9074 net.cpp:399] inception_3a/pool_proj -> inception_3a/pool_proj
I0403 19:18:24.758924  9074 net.cpp:141] Setting up inception_3a/pool_proj
I0403 19:18:24.758954  9074 net.cpp:148] Top shape: 24 32 28 28 (602112)
I0403 19:18:24.758968  9074 net.cpp:156] Memory required for data: 558760992
I0403 19:18:24.758993  9074 layer_factory.hpp:77] Creating layer inception_3a/relu_pool_proj
I0403 19:18:24.759014  9074 net.cpp:91] Creating Layer inception_3a/relu_pool_proj
I0403 19:18:24.759030  9074 net.cpp:425] inception_3a/relu_pool_proj <- inception_3a/pool_proj
I0403 19:18:24.759047  9074 net.cpp:386] inception_3a/relu_pool_proj -> inception_3a/pool_proj (in-place)
I0403 19:18:24.759351  9074 net.cpp:141] Setting up inception_3a/relu_pool_proj
I0403 19:18:24.759378  9074 net.cpp:148] Top shape: 24 32 28 28 (602112)
I0403 19:18:24.759393  9074 net.cpp:156] Memory required for data: 561169440
I0403 19:18:24.759408  9074 layer_factory.hpp:77] Creating layer inception_3a/output
I0403 19:18:24.759429  9074 net.cpp:91] Creating Layer inception_3a/output
I0403 19:18:24.759446  9074 net.cpp:425] inception_3a/output <- inception_3a/1x1
I0403 19:18:24.759465  9074 net.cpp:425] inception_3a/output <- inception_3a/3x3
I0403 19:18:24.759482  9074 net.cpp:425] inception_3a/output <- inception_3a/5x5
I0403 19:18:24.759498  9074 net.cpp:425] inception_3a/output <- inception_3a/pool_proj
I0403 19:18:24.759527  9074 net.cpp:399] inception_3a/output -> inception_3a/output
I0403 19:18:24.759575  9074 net.cpp:141] Setting up inception_3a/output
I0403 19:18:24.759598  9074 net.cpp:148] Top shape: 24 256 28 28 (4816896)
I0403 19:18:24.759613  9074 net.cpp:156] Memory required for data: 580437024
I0403 19:18:24.759627  9074 layer_factory.hpp:77] Creating layer inception_3a/output_inception_3a/output_0_split
I0403 19:18:24.759645  9074 net.cpp:91] Creating Layer inception_3a/output_inception_3a/output_0_split
I0403 19:18:24.759660  9074 net.cpp:425] inception_3a/output_inception_3a/output_0_split <- inception_3a/output
I0403 19:18:24.759680  9074 net.cpp:399] inception_3a/output_inception_3a/output_0_split -> inception_3a/output_inception_3a/output_0_split_0
I0403 19:18:24.759701  9074 net.cpp:399] inception_3a/output_inception_3a/output_0_split -> inception_3a/output_inception_3a/output_0_split_1
I0403 19:18:24.759726  9074 net.cpp:399] inception_3a/output_inception_3a/output_0_split -> inception_3a/output_inception_3a/output_0_split_2
I0403 19:18:24.759747  9074 net.cpp:399] inception_3a/output_inception_3a/output_0_split -> inception_3a/output_inception_3a/output_0_split_3
I0403 19:18:24.759824  9074 net.cpp:141] Setting up inception_3a/output_inception_3a/output_0_split
I0403 19:18:24.759846  9074 net.cpp:148] Top shape: 24 256 28 28 (4816896)
I0403 19:18:24.759863  9074 net.cpp:148] Top shape: 24 256 28 28 (4816896)
I0403 19:18:24.759879  9074 net.cpp:148] Top shape: 24 256 28 28 (4816896)
I0403 19:18:24.759896  9074 net.cpp:148] Top shape: 24 256 28 28 (4816896)
I0403 19:18:24.759908  9074 net.cpp:156] Memory required for data: 657507360
I0403 19:18:24.759923  9074 layer_factory.hpp:77] Creating layer inception_3b/1x1
I0403 19:18:24.759945  9074 net.cpp:91] Creating Layer inception_3b/1x1
I0403 19:18:24.759964  9074 net.cpp:425] inception_3b/1x1 <- inception_3a/output_inception_3a/output_0_split_0
I0403 19:18:24.759984  9074 net.cpp:399] inception_3b/1x1 -> inception_3b/1x1
I0403 19:18:24.761193  9074 net.cpp:141] Setting up inception_3b/1x1
I0403 19:18:24.761235  9074 net.cpp:148] Top shape: 24 128 28 28 (2408448)
I0403 19:18:24.761257  9074 net.cpp:156] Memory required for data: 667141152
I0403 19:18:24.761278  9074 layer_factory.hpp:77] Creating layer inception_3b/relu_1x1
I0403 19:18:24.761299  9074 net.cpp:91] Creating Layer inception_3b/relu_1x1
I0403 19:18:24.761317  9074 net.cpp:425] inception_3b/relu_1x1 <- inception_3b/1x1
I0403 19:18:24.761335  9074 net.cpp:386] inception_3b/relu_1x1 -> inception_3b/1x1 (in-place)
I0403 19:18:24.761520  9074 net.cpp:141] Setting up inception_3b/relu_1x1
I0403 19:18:24.761546  9074 net.cpp:148] Top shape: 24 128 28 28 (2408448)
I0403 19:18:24.761565  9074 net.cpp:156] Memory required for data: 676774944
I0403 19:18:24.761580  9074 layer_factory.hpp:77] Creating layer inception_3b/3x3_reduce
I0403 19:18:24.761601  9074 net.cpp:91] Creating Layer inception_3b/3x3_reduce
I0403 19:18:24.761617  9074 net.cpp:425] inception_3b/3x3_reduce <- inception_3a/output_inception_3a/output_0_split_1
I0403 19:18:24.761639  9074 net.cpp:399] inception_3b/3x3_reduce -> inception_3b/3x3_reduce
I0403 19:18:24.762843  9074 net.cpp:141] Setting up inception_3b/3x3_reduce
I0403 19:18:24.762873  9074 net.cpp:148] Top shape: 24 128 28 28 (2408448)
I0403 19:18:24.762890  9074 net.cpp:156] Memory required for data: 686408736
I0403 19:18:24.762909  9074 layer_factory.hpp:77] Creating layer inception_3b/relu_3x3_reduce
I0403 19:18:24.762931  9074 net.cpp:91] Creating Layer inception_3b/relu_3x3_reduce
I0403 19:18:24.762951  9074 net.cpp:425] inception_3b/relu_3x3_reduce <- inception_3b/3x3_reduce
I0403 19:18:24.762969  9074 net.cpp:386] inception_3b/relu_3x3_reduce -> inception_3b/3x3_reduce (in-place)
I0403 19:18:24.763151  9074 net.cpp:141] Setting up inception_3b/relu_3x3_reduce
I0403 19:18:24.763176  9074 net.cpp:148] Top shape: 24 128 28 28 (2408448)
I0403 19:18:24.763195  9074 net.cpp:156] Memory required for data: 696042528
I0403 19:18:24.763209  9074 layer_factory.hpp:77] Creating layer inception_3b/3x3
I0403 19:18:24.763237  9074 net.cpp:91] Creating Layer inception_3b/3x3
I0403 19:18:24.763262  9074 net.cpp:425] inception_3b/3x3 <- inception_3b/3x3_reduce
I0403 19:18:24.763280  9074 net.cpp:399] inception_3b/3x3 -> inception_3b/3x3
I0403 19:18:24.766319  9074 net.cpp:141] Setting up inception_3b/3x3
I0403 19:18:24.766347  9074 net.cpp:148] Top shape: 24 192 28 28 (3612672)
I0403 19:18:24.766363  9074 net.cpp:156] Memory required for data: 710493216
I0403 19:18:24.766383  9074 layer_factory.hpp:77] Creating layer inception_3b/relu_3x3
I0403 19:18:24.766403  9074 net.cpp:91] Creating Layer inception_3b/relu_3x3
I0403 19:18:24.766420  9074 net.cpp:425] inception_3b/relu_3x3 <- inception_3b/3x3
I0403 19:18:24.766438  9074 net.cpp:386] inception_3b/relu_3x3 -> inception_3b/3x3 (in-place)
I0403 19:18:24.766721  9074 net.cpp:141] Setting up inception_3b/relu_3x3
I0403 19:18:24.766748  9074 net.cpp:148] Top shape: 24 192 28 28 (3612672)
I0403 19:18:24.766762  9074 net.cpp:156] Memory required for data: 724943904
I0403 19:18:24.766787  9074 layer_factory.hpp:77] Creating layer inception_3b/5x5_reduce
I0403 19:18:24.766808  9074 net.cpp:91] Creating Layer inception_3b/5x5_reduce
I0403 19:18:24.766826  9074 net.cpp:425] inception_3b/5x5_reduce <- inception_3a/output_inception_3a/output_0_split_2
I0403 19:18:24.766849  9074 net.cpp:399] inception_3b/5x5_reduce -> inception_3b/5x5_reduce
I0403 19:18:24.767895  9074 net.cpp:141] Setting up inception_3b/5x5_reduce
I0403 19:18:24.767923  9074 net.cpp:148] Top shape: 24 32 28 28 (602112)
I0403 19:18:24.767938  9074 net.cpp:156] Memory required for data: 727352352
I0403 19:18:24.767958  9074 layer_factory.hpp:77] Creating layer inception_3b/relu_5x5_reduce
I0403 19:18:24.767979  9074 net.cpp:91] Creating Layer inception_3b/relu_5x5_reduce
I0403 19:18:24.767997  9074 net.cpp:425] inception_3b/relu_5x5_reduce <- inception_3b/5x5_reduce
I0403 19:18:24.768014  9074 net.cpp:386] inception_3b/relu_5x5_reduce -> inception_3b/5x5_reduce (in-place)
I0403 19:18:24.768193  9074 net.cpp:141] Setting up inception_3b/relu_5x5_reduce
I0403 19:18:24.768234  9074 net.cpp:148] Top shape: 24 32 28 28 (602112)
I0403 19:18:24.768254  9074 net.cpp:156] Memory required for data: 729760800
I0403 19:18:24.768270  9074 layer_factory.hpp:77] Creating layer inception_3b/5x5
I0403 19:18:24.768293  9074 net.cpp:91] Creating Layer inception_3b/5x5
I0403 19:18:24.768311  9074 net.cpp:425] inception_3b/5x5 <- inception_3b/5x5_reduce
I0403 19:18:24.768331  9074 net.cpp:399] inception_3b/5x5 -> inception_3b/5x5
I0403 19:18:24.770334  9074 net.cpp:141] Setting up inception_3b/5x5
I0403 19:18:24.770364  9074 net.cpp:148] Top shape: 24 96 28 28 (1806336)
I0403 19:18:24.770381  9074 net.cpp:156] Memory required for data: 736986144
I0403 19:18:24.770401  9074 layer_factory.hpp:77] Creating layer inception_3b/relu_5x5
I0403 19:18:24.770421  9074 net.cpp:91] Creating Layer inception_3b/relu_5x5
I0403 19:18:24.770438  9074 net.cpp:425] inception_3b/relu_5x5 <- inception_3b/5x5
I0403 19:18:24.770455  9074 net.cpp:386] inception_3b/relu_5x5 -> inception_3b/5x5 (in-place)
I0403 19:18:24.770653  9074 net.cpp:141] Setting up inception_3b/relu_5x5
I0403 19:18:24.770678  9074 net.cpp:148] Top shape: 24 96 28 28 (1806336)
I0403 19:18:24.770694  9074 net.cpp:156] Memory required for data: 744211488
I0403 19:18:24.770709  9074 layer_factory.hpp:77] Creating layer inception_3b/pool
I0403 19:18:24.770726  9074 net.cpp:91] Creating Layer inception_3b/pool
I0403 19:18:24.770743  9074 net.cpp:425] inception_3b/pool <- inception_3a/output_inception_3a/output_0_split_3
I0403 19:18:24.770761  9074 net.cpp:399] inception_3b/pool -> inception_3b/pool
I0403 19:18:24.770818  9074 net.cpp:141] Setting up inception_3b/pool
I0403 19:18:24.770841  9074 net.cpp:148] Top shape: 24 256 28 28 (4816896)
I0403 19:18:24.770856  9074 net.cpp:156] Memory required for data: 763479072
I0403 19:18:24.770871  9074 layer_factory.hpp:77] Creating layer inception_3b/pool_proj
I0403 19:18:24.770894  9074 net.cpp:91] Creating Layer inception_3b/pool_proj
I0403 19:18:24.770911  9074 net.cpp:425] inception_3b/pool_proj <- inception_3b/pool
I0403 19:18:24.770932  9074 net.cpp:399] inception_3b/pool_proj -> inception_3b/pool_proj
I0403 19:18:24.772012  9074 net.cpp:141] Setting up inception_3b/pool_proj
I0403 19:18:24.772042  9074 net.cpp:148] Top shape: 24 64 28 28 (1204224)
I0403 19:18:24.772058  9074 net.cpp:156] Memory required for data: 768295968
I0403 19:18:24.772078  9074 layer_factory.hpp:77] Creating layer inception_3b/relu_pool_proj
I0403 19:18:24.772097  9074 net.cpp:91] Creating Layer inception_3b/relu_pool_proj
I0403 19:18:24.772114  9074 net.cpp:425] inception_3b/relu_pool_proj <- inception_3b/pool_proj
I0403 19:18:24.772133  9074 net.cpp:386] inception_3b/relu_pool_proj -> inception_3b/pool_proj (in-place)
I0403 19:18:24.772542  9074 net.cpp:141] Setting up inception_3b/relu_pool_proj
I0403 19:18:24.772572  9074 net.cpp:148] Top shape: 24 64 28 28 (1204224)
I0403 19:18:24.772589  9074 net.cpp:156] Memory required for data: 773112864
I0403 19:18:24.772605  9074 layer_factory.hpp:77] Creating layer inception_3b/output
I0403 19:18:24.772622  9074 net.cpp:91] Creating Layer inception_3b/output
I0403 19:18:24.772639  9074 net.cpp:425] inception_3b/output <- inception_3b/1x1
I0403 19:18:24.772655  9074 net.cpp:425] inception_3b/output <- inception_3b/3x3
I0403 19:18:24.772670  9074 net.cpp:425] inception_3b/output <- inception_3b/5x5
I0403 19:18:24.772686  9074 net.cpp:425] inception_3b/output <- inception_3b/pool_proj
I0403 19:18:24.772702  9074 net.cpp:399] inception_3b/output -> inception_3b/output
I0403 19:18:24.772748  9074 net.cpp:141] Setting up inception_3b/output
I0403 19:18:24.772771  9074 net.cpp:148] Top shape: 24 480 28 28 (9031680)
I0403 19:18:24.772786  9074 net.cpp:156] Memory required for data: 809239584
I0403 19:18:24.772801  9074 layer_factory.hpp:77] Creating layer pool3/3x3_s2
I0403 19:18:24.772824  9074 net.cpp:91] Creating Layer pool3/3x3_s2
I0403 19:18:24.772840  9074 net.cpp:425] pool3/3x3_s2 <- inception_3b/output
I0403 19:18:24.772857  9074 net.cpp:399] pool3/3x3_s2 -> pool3/3x3_s2
I0403 19:18:24.772932  9074 net.cpp:141] Setting up pool3/3x3_s2
I0403 19:18:24.772955  9074 net.cpp:148] Top shape: 24 480 14 14 (2257920)
I0403 19:18:24.772969  9074 net.cpp:156] Memory required for data: 818271264
I0403 19:18:24.772984  9074 layer_factory.hpp:77] Creating layer pool3/3x3_s2_pool3/3x3_s2_0_split
I0403 19:18:24.773002  9074 net.cpp:91] Creating Layer pool3/3x3_s2_pool3/3x3_s2_0_split
I0403 19:18:24.773017  9074 net.cpp:425] pool3/3x3_s2_pool3/3x3_s2_0_split <- pool3/3x3_s2
I0403 19:18:24.773037  9074 net.cpp:399] pool3/3x3_s2_pool3/3x3_s2_0_split -> pool3/3x3_s2_pool3/3x3_s2_0_split_0
I0403 19:18:24.773057  9074 net.cpp:399] pool3/3x3_s2_pool3/3x3_s2_0_split -> pool3/3x3_s2_pool3/3x3_s2_0_split_1
I0403 19:18:24.773077  9074 net.cpp:399] pool3/3x3_s2_pool3/3x3_s2_0_split -> pool3/3x3_s2_pool3/3x3_s2_0_split_2
I0403 19:18:24.773097  9074 net.cpp:399] pool3/3x3_s2_pool3/3x3_s2_0_split -> pool3/3x3_s2_pool3/3x3_s2_0_split_3
I0403 19:18:24.773175  9074 net.cpp:141] Setting up pool3/3x3_s2_pool3/3x3_s2_0_split
I0403 19:18:24.773200  9074 net.cpp:148] Top shape: 24 480 14 14 (2257920)
I0403 19:18:24.773217  9074 net.cpp:148] Top shape: 24 480 14 14 (2257920)
I0403 19:18:24.773233  9074 net.cpp:148] Top shape: 24 480 14 14 (2257920)
I0403 19:18:24.773253  9074 net.cpp:148] Top shape: 24 480 14 14 (2257920)
I0403 19:18:24.773268  9074 net.cpp:156] Memory required for data: 854397984
I0403 19:18:24.773283  9074 layer_factory.hpp:77] Creating layer inception_4a/1x1
I0403 19:18:24.773305  9074 net.cpp:91] Creating Layer inception_4a/1x1
I0403 19:18:24.773324  9074 net.cpp:425] inception_4a/1x1 <- pool3/3x3_s2_pool3/3x3_s2_0_split_0
I0403 19:18:24.773342  9074 net.cpp:399] inception_4a/1x1 -> inception_4a/1x1
I0403 19:18:24.774952  9074 net.cpp:141] Setting up inception_4a/1x1
I0403 19:18:24.774983  9074 net.cpp:148] Top shape: 24 192 14 14 (903168)
I0403 19:18:24.775001  9074 net.cpp:156] Memory required for data: 858010656
I0403 19:18:24.775019  9074 layer_factory.hpp:77] Creating layer inception_4a/relu_1x1
I0403 19:18:24.775038  9074 net.cpp:91] Creating Layer inception_4a/relu_1x1
I0403 19:18:24.775054  9074 net.cpp:425] inception_4a/relu_1x1 <- inception_4a/1x1
I0403 19:18:24.775074  9074 net.cpp:386] inception_4a/relu_1x1 -> inception_4a/1x1 (in-place)
I0403 19:18:24.775262  9074 net.cpp:141] Setting up inception_4a/relu_1x1
I0403 19:18:24.775287  9074 net.cpp:148] Top shape: 24 192 14 14 (903168)
I0403 19:18:24.775302  9074 net.cpp:156] Memory required for data: 861623328
I0403 19:18:24.775317  9074 layer_factory.hpp:77] Creating layer inception_4a/3x3_reduce
I0403 19:18:24.775339  9074 net.cpp:91] Creating Layer inception_4a/3x3_reduce
I0403 19:18:24.775357  9074 net.cpp:425] inception_4a/3x3_reduce <- pool3/3x3_s2_pool3/3x3_s2_0_split_1
I0403 19:18:24.775378  9074 net.cpp:399] inception_4a/3x3_reduce -> inception_4a/3x3_reduce
I0403 19:18:24.776691  9074 net.cpp:141] Setting up inception_4a/3x3_reduce
I0403 19:18:24.776720  9074 net.cpp:148] Top shape: 24 96 14 14 (451584)
I0403 19:18:24.776734  9074 net.cpp:156] Memory required for data: 863429664
I0403 19:18:24.776760  9074 layer_factory.hpp:77] Creating layer inception_4a/relu_3x3_reduce
I0403 19:18:24.776782  9074 net.cpp:91] Creating Layer inception_4a/relu_3x3_reduce
I0403 19:18:24.776798  9074 net.cpp:425] inception_4a/relu_3x3_reduce <- inception_4a/3x3_reduce
I0403 19:18:24.776818  9074 net.cpp:386] inception_4a/relu_3x3_reduce -> inception_4a/3x3_reduce (in-place)
I0403 19:18:24.776999  9074 net.cpp:141] Setting up inception_4a/relu_3x3_reduce
I0403 19:18:24.777024  9074 net.cpp:148] Top shape: 24 96 14 14 (451584)
I0403 19:18:24.777040  9074 net.cpp:156] Memory required for data: 865236000
I0403 19:18:24.777053  9074 layer_factory.hpp:77] Creating layer inception_4a/3x3
I0403 19:18:24.777076  9074 net.cpp:91] Creating Layer inception_4a/3x3
I0403 19:18:24.777093  9074 net.cpp:425] inception_4a/3x3 <- inception_4a/3x3_reduce
I0403 19:18:24.777117  9074 net.cpp:399] inception_4a/3x3 -> inception_4a/3x3
I0403 19:18:24.779877  9074 net.cpp:141] Setting up inception_4a/3x3
I0403 19:18:24.779906  9074 net.cpp:148] Top shape: 24 208 14 14 (978432)
I0403 19:18:24.779922  9074 net.cpp:156] Memory required for data: 869149728
I0403 19:18:24.779940  9074 layer_factory.hpp:77] Creating layer inception_4a/relu_3x3
I0403 19:18:24.779960  9074 net.cpp:91] Creating Layer inception_4a/relu_3x3
I0403 19:18:24.779978  9074 net.cpp:425] inception_4a/relu_3x3 <- inception_4a/3x3
I0403 19:18:24.779994  9074 net.cpp:386] inception_4a/relu_3x3 -> inception_4a/3x3 (in-place)
I0403 19:18:24.780272  9074 net.cpp:141] Setting up inception_4a/relu_3x3
I0403 19:18:24.780297  9074 net.cpp:148] Top shape: 24 208 14 14 (978432)
I0403 19:18:24.780311  9074 net.cpp:156] Memory required for data: 873063456
I0403 19:18:24.780325  9074 layer_factory.hpp:77] Creating layer inception_4a/5x5_reduce
I0403 19:18:24.780349  9074 net.cpp:91] Creating Layer inception_4a/5x5_reduce
I0403 19:18:24.780366  9074 net.cpp:425] inception_4a/5x5_reduce <- pool3/3x3_s2_pool3/3x3_s2_0_split_2
I0403 19:18:24.780390  9074 net.cpp:399] inception_4a/5x5_reduce -> inception_4a/5x5_reduce
I0403 19:18:24.781400  9074 net.cpp:141] Setting up inception_4a/5x5_reduce
I0403 19:18:24.781427  9074 net.cpp:148] Top shape: 24 16 14 14 (75264)
I0403 19:18:24.781443  9074 net.cpp:156] Memory required for data: 873364512
I0403 19:18:24.781462  9074 layer_factory.hpp:77] Creating layer inception_4a/relu_5x5_reduce
I0403 19:18:24.781482  9074 net.cpp:91] Creating Layer inception_4a/relu_5x5_reduce
I0403 19:18:24.781498  9074 net.cpp:425] inception_4a/relu_5x5_reduce <- inception_4a/5x5_reduce
I0403 19:18:24.781515  9074 net.cpp:386] inception_4a/relu_5x5_reduce -> inception_4a/5x5_reduce (in-place)
I0403 19:18:24.781692  9074 net.cpp:141] Setting up inception_4a/relu_5x5_reduce
I0403 19:18:24.781719  9074 net.cpp:148] Top shape: 24 16 14 14 (75264)
I0403 19:18:24.781734  9074 net.cpp:156] Memory required for data: 873665568
I0403 19:18:24.781749  9074 layer_factory.hpp:77] Creating layer inception_4a/5x5
I0403 19:18:24.781771  9074 net.cpp:91] Creating Layer inception_4a/5x5
I0403 19:18:24.781788  9074 net.cpp:425] inception_4a/5x5 <- inception_4a/5x5_reduce
I0403 19:18:24.781807  9074 net.cpp:399] inception_4a/5x5 -> inception_4a/5x5
I0403 19:18:24.782886  9074 net.cpp:141] Setting up inception_4a/5x5
I0403 19:18:24.782914  9074 net.cpp:148] Top shape: 24 48 14 14 (225792)
I0403 19:18:24.782930  9074 net.cpp:156] Memory required for data: 874568736
I0403 19:18:24.782948  9074 layer_factory.hpp:77] Creating layer inception_4a/relu_5x5
I0403 19:18:24.782966  9074 net.cpp:91] Creating Layer inception_4a/relu_5x5
I0403 19:18:24.782981  9074 net.cpp:425] inception_4a/relu_5x5 <- inception_4a/5x5
I0403 19:18:24.782999  9074 net.cpp:386] inception_4a/relu_5x5 -> inception_4a/5x5 (in-place)
I0403 19:18:24.783175  9074 net.cpp:141] Setting up inception_4a/relu_5x5
I0403 19:18:24.783200  9074 net.cpp:148] Top shape: 24 48 14 14 (225792)
I0403 19:18:24.783213  9074 net.cpp:156] Memory required for data: 875471904
I0403 19:18:24.783243  9074 layer_factory.hpp:77] Creating layer inception_4a/pool
I0403 19:18:24.783263  9074 net.cpp:91] Creating Layer inception_4a/pool
I0403 19:18:24.783279  9074 net.cpp:425] inception_4a/pool <- pool3/3x3_s2_pool3/3x3_s2_0_split_3
I0403 19:18:24.783300  9074 net.cpp:399] inception_4a/pool -> inception_4a/pool
I0403 19:18:24.783363  9074 net.cpp:141] Setting up inception_4a/pool
I0403 19:18:24.783390  9074 net.cpp:148] Top shape: 24 480 14 14 (2257920)
I0403 19:18:24.783406  9074 net.cpp:156] Memory required for data: 884503584
I0403 19:18:24.783421  9074 layer_factory.hpp:77] Creating layer inception_4a/pool_proj
I0403 19:18:24.783444  9074 net.cpp:91] Creating Layer inception_4a/pool_proj
I0403 19:18:24.783463  9074 net.cpp:425] inception_4a/pool_proj <- inception_4a/pool
I0403 19:18:24.783483  9074 net.cpp:399] inception_4a/pool_proj -> inception_4a/pool_proj
I0403 19:18:24.784652  9074 net.cpp:141] Setting up inception_4a/pool_proj
I0403 19:18:24.784679  9074 net.cpp:148] Top shape: 24 64 14 14 (301056)
I0403 19:18:24.784708  9074 net.cpp:156] Memory required for data: 885707808
I0403 19:18:24.784729  9074 layer_factory.hpp:77] Creating layer inception_4a/relu_pool_proj
I0403 19:18:24.784747  9074 net.cpp:91] Creating Layer inception_4a/relu_pool_proj
I0403 19:18:24.784762  9074 net.cpp:425] inception_4a/relu_pool_proj <- inception_4a/pool_proj
I0403 19:18:24.784783  9074 net.cpp:386] inception_4a/relu_pool_proj -> inception_4a/pool_proj (in-place)
I0403 19:18:24.785060  9074 net.cpp:141] Setting up inception_4a/relu_pool_proj
I0403 19:18:24.785087  9074 net.cpp:148] Top shape: 24 64 14 14 (301056)
I0403 19:18:24.785101  9074 net.cpp:156] Memory required for data: 886912032
I0403 19:18:24.785116  9074 layer_factory.hpp:77] Creating layer inception_4a/output
I0403 19:18:24.785133  9074 net.cpp:91] Creating Layer inception_4a/output
I0403 19:18:24.785148  9074 net.cpp:425] inception_4a/output <- inception_4a/1x1
I0403 19:18:24.785166  9074 net.cpp:425] inception_4a/output <- inception_4a/3x3
I0403 19:18:24.785183  9074 net.cpp:425] inception_4a/output <- inception_4a/5x5
I0403 19:18:24.785198  9074 net.cpp:425] inception_4a/output <- inception_4a/pool_proj
I0403 19:18:24.785217  9074 net.cpp:399] inception_4a/output -> inception_4a/output
I0403 19:18:24.785264  9074 net.cpp:141] Setting up inception_4a/output
I0403 19:18:24.785290  9074 net.cpp:148] Top shape: 24 512 14 14 (2408448)
I0403 19:18:24.785305  9074 net.cpp:156] Memory required for data: 896545824
I0403 19:18:24.785321  9074 layer_factory.hpp:77] Creating layer inception_4a/output_inception_4a/output_0_split
I0403 19:18:24.785338  9074 net.cpp:91] Creating Layer inception_4a/output_inception_4a/output_0_split
I0403 19:18:24.785353  9074 net.cpp:425] inception_4a/output_inception_4a/output_0_split <- inception_4a/output
I0403 19:18:24.785370  9074 net.cpp:399] inception_4a/output_inception_4a/output_0_split -> inception_4a/output_inception_4a/output_0_split_0
I0403 19:18:24.785392  9074 net.cpp:399] inception_4a/output_inception_4a/output_0_split -> inception_4a/output_inception_4a/output_0_split_1
I0403 19:18:24.785415  9074 net.cpp:399] inception_4a/output_inception_4a/output_0_split -> inception_4a/output_inception_4a/output_0_split_2
I0403 19:18:24.785436  9074 net.cpp:399] inception_4a/output_inception_4a/output_0_split -> inception_4a/output_inception_4a/output_0_split_3
I0403 19:18:24.785456  9074 net.cpp:399] inception_4a/output_inception_4a/output_0_split -> inception_4a/output_inception_4a/output_0_split_4
I0403 19:18:24.785548  9074 net.cpp:141] Setting up inception_4a/output_inception_4a/output_0_split
I0403 19:18:24.785570  9074 net.cpp:148] Top shape: 24 512 14 14 (2408448)
I0403 19:18:24.785588  9074 net.cpp:148] Top shape: 24 512 14 14 (2408448)
I0403 19:18:24.785604  9074 net.cpp:148] Top shape: 24 512 14 14 (2408448)
I0403 19:18:24.785619  9074 net.cpp:148] Top shape: 24 512 14 14 (2408448)
I0403 19:18:24.785634  9074 net.cpp:148] Top shape: 24 512 14 14 (2408448)
I0403 19:18:24.785646  9074 net.cpp:156] Memory required for data: 944714784
I0403 19:18:24.785661  9074 layer_factory.hpp:77] Creating layer loss1/ave_pool
I0403 19:18:24.785681  9074 net.cpp:91] Creating Layer loss1/ave_pool
I0403 19:18:24.785698  9074 net.cpp:425] loss1/ave_pool <- inception_4a/output_inception_4a/output_0_split_0
I0403 19:18:24.785715  9074 net.cpp:399] loss1/ave_pool -> loss1/ave_pool
I0403 19:18:24.785926  9074 net.cpp:141] Setting up loss1/ave_pool
I0403 19:18:24.785953  9074 net.cpp:148] Top shape: 24 512 4 4 (196608)
I0403 19:18:24.785969  9074 net.cpp:156] Memory required for data: 945501216
I0403 19:18:24.785984  9074 layer_factory.hpp:77] Creating layer loss1/conv
I0403 19:18:24.786005  9074 net.cpp:91] Creating Layer loss1/conv
I0403 19:18:24.786022  9074 net.cpp:425] loss1/conv <- loss1/ave_pool
I0403 19:18:24.786043  9074 net.cpp:399] loss1/conv -> loss1/conv
I0403 19:18:24.787454  9074 net.cpp:141] Setting up loss1/conv
I0403 19:18:24.787482  9074 net.cpp:148] Top shape: 24 128 4 4 (49152)
I0403 19:18:24.787497  9074 net.cpp:156] Memory required for data: 945697824
I0403 19:18:24.787533  9074 layer_factory.hpp:77] Creating layer loss1/relu_conv
I0403 19:18:24.787554  9074 net.cpp:91] Creating Layer loss1/relu_conv
I0403 19:18:24.787571  9074 net.cpp:425] loss1/relu_conv <- loss1/conv
I0403 19:18:24.787590  9074 net.cpp:386] loss1/relu_conv -> loss1/conv (in-place)
I0403 19:18:24.787871  9074 net.cpp:141] Setting up loss1/relu_conv
I0403 19:18:24.787897  9074 net.cpp:148] Top shape: 24 128 4 4 (49152)
I0403 19:18:24.787911  9074 net.cpp:156] Memory required for data: 945894432
I0403 19:18:24.787926  9074 layer_factory.hpp:77] Creating layer loss1/fc
I0403 19:18:24.787952  9074 net.cpp:91] Creating Layer loss1/fc
I0403 19:18:24.787969  9074 net.cpp:425] loss1/fc <- loss1/conv
I0403 19:18:24.787987  9074 net.cpp:399] loss1/fc -> loss1/fc
I0403 19:18:24.805713  9074 net.cpp:141] Setting up loss1/fc
I0403 19:18:24.805752  9074 net.cpp:148] Top shape: 24 1024 (24576)
I0403 19:18:24.805768  9074 net.cpp:156] Memory required for data: 945992736
I0403 19:18:24.805788  9074 layer_factory.hpp:77] Creating layer loss1/relu_fc
I0403 19:18:24.805806  9074 net.cpp:91] Creating Layer loss1/relu_fc
I0403 19:18:24.805822  9074 net.cpp:425] loss1/relu_fc <- loss1/fc
I0403 19:18:24.805841  9074 net.cpp:386] loss1/relu_fc -> loss1/fc (in-place)
I0403 19:18:24.806041  9074 net.cpp:141] Setting up loss1/relu_fc
I0403 19:18:24.806064  9074 net.cpp:148] Top shape: 24 1024 (24576)
I0403 19:18:24.806078  9074 net.cpp:156] Memory required for data: 946091040
I0403 19:18:24.806093  9074 layer_factory.hpp:77] Creating layer loss1/drop_fc
I0403 19:18:24.806123  9074 net.cpp:91] Creating Layer loss1/drop_fc
I0403 19:18:24.806139  9074 net.cpp:425] loss1/drop_fc <- loss1/fc
I0403 19:18:24.806156  9074 net.cpp:386] loss1/drop_fc -> loss1/fc (in-place)
I0403 19:18:24.806206  9074 net.cpp:141] Setting up loss1/drop_fc
I0403 19:18:24.806231  9074 net.cpp:148] Top shape: 24 1024 (24576)
I0403 19:18:24.806265  9074 net.cpp:156] Memory required for data: 946189344
I0403 19:18:24.806282  9074 layer_factory.hpp:77] Creating layer loss1/classifier_plantvillage
I0403 19:18:24.806299  9074 net.cpp:91] Creating Layer loss1/classifier_plantvillage
I0403 19:18:24.806327  9074 net.cpp:425] loss1/classifier_plantvillage <- loss1/fc
I0403 19:18:24.806347  9074 net.cpp:399] loss1/classifier_plantvillage -> loss1/classifier_plantvillage
I0403 19:18:24.807301  9074 net.cpp:141] Setting up loss1/classifier_plantvillage
I0403 19:18:24.807330  9074 net.cpp:148] Top shape: 24 38 (912)
I0403 19:18:24.807345  9074 net.cpp:156] Memory required for data: 946192992
I0403 19:18:24.807364  9074 layer_factory.hpp:77] Creating layer loss1/classifier_plantvillage_loss1/classifier_plantvillage_0_split
I0403 19:18:24.807384  9074 net.cpp:91] Creating Layer loss1/classifier_plantvillage_loss1/classifier_plantvillage_0_split
I0403 19:18:24.807399  9074 net.cpp:425] loss1/classifier_plantvillage_loss1/classifier_plantvillage_0_split <- loss1/classifier_plantvillage
I0403 19:18:24.807420  9074 net.cpp:399] loss1/classifier_plantvillage_loss1/classifier_plantvillage_0_split -> loss1/classifier_plantvillage_loss1/classifier_plantvillage_0_split_0
I0403 19:18:24.807441  9074 net.cpp:399] loss1/classifier_plantvillage_loss1/classifier_plantvillage_0_split -> loss1/classifier_plantvillage_loss1/classifier_plantvillage_0_split_1
I0403 19:18:24.807462  9074 net.cpp:399] loss1/classifier_plantvillage_loss1/classifier_plantvillage_0_split -> loss1/classifier_plantvillage_loss1/classifier_plantvillage_0_split_2
I0403 19:18:24.807530  9074 net.cpp:141] Setting up loss1/classifier_plantvillage_loss1/classifier_plantvillage_0_split
I0403 19:18:24.807566  9074 net.cpp:148] Top shape: 24 38 (912)
I0403 19:18:24.807584  9074 net.cpp:148] Top shape: 24 38 (912)
I0403 19:18:24.807600  9074 net.cpp:148] Top shape: 24 38 (912)
I0403 19:18:24.807612  9074 net.cpp:156] Memory required for data: 946203936
I0403 19:18:24.807627  9074 layer_factory.hpp:77] Creating layer inception_4b/1x1
I0403 19:18:24.807648  9074 net.cpp:91] Creating Layer inception_4b/1x1
I0403 19:18:24.807682  9074 net.cpp:425] inception_4b/1x1 <- inception_4a/output_inception_4a/output_0_split_1
I0403 19:18:24.807703  9074 net.cpp:399] inception_4b/1x1 -> inception_4b/1x1
I0403 19:18:24.809373  9074 net.cpp:141] Setting up inception_4b/1x1
I0403 19:18:24.809402  9074 net.cpp:148] Top shape: 24 160 14 14 (752640)
I0403 19:18:24.809417  9074 net.cpp:156] Memory required for data: 949214496
I0403 19:18:24.809437  9074 layer_factory.hpp:77] Creating layer inception_4b/relu_1x1
I0403 19:18:24.809456  9074 net.cpp:91] Creating Layer inception_4b/relu_1x1
I0403 19:18:24.809473  9074 net.cpp:425] inception_4b/relu_1x1 <- inception_4b/1x1
I0403 19:18:24.809490  9074 net.cpp:386] inception_4b/relu_1x1 -> inception_4b/1x1 (in-place)
I0403 19:18:24.809669  9074 net.cpp:141] Setting up inception_4b/relu_1x1
I0403 19:18:24.809695  9074 net.cpp:148] Top shape: 24 160 14 14 (752640)
I0403 19:18:24.809710  9074 net.cpp:156] Memory required for data: 952225056
I0403 19:18:24.809725  9074 layer_factory.hpp:77] Creating layer inception_4b/3x3_reduce
I0403 19:18:24.809746  9074 net.cpp:91] Creating Layer inception_4b/3x3_reduce
I0403 19:18:24.809763  9074 net.cpp:425] inception_4b/3x3_reduce <- inception_4a/output_inception_4a/output_0_split_2
I0403 19:18:24.809782  9074 net.cpp:399] inception_4b/3x3_reduce -> inception_4b/3x3_reduce
I0403 19:18:24.811138  9074 net.cpp:141] Setting up inception_4b/3x3_reduce
I0403 19:18:24.811166  9074 net.cpp:148] Top shape: 24 112 14 14 (526848)
I0403 19:18:24.811183  9074 net.cpp:156] Memory required for data: 954332448
I0403 19:18:24.811202  9074 layer_factory.hpp:77] Creating layer inception_4b/relu_3x3_reduce
I0403 19:18:24.811223  9074 net.cpp:91] Creating Layer inception_4b/relu_3x3_reduce
I0403 19:18:24.811244  9074 net.cpp:425] inception_4b/relu_3x3_reduce <- inception_4b/3x3_reduce
I0403 19:18:24.811275  9074 net.cpp:386] inception_4b/relu_3x3_reduce -> inception_4b/3x3_reduce (in-place)
I0403 19:18:24.811576  9074 net.cpp:141] Setting up inception_4b/relu_3x3_reduce
I0403 19:18:24.811602  9074 net.cpp:148] Top shape: 24 112 14 14 (526848)
I0403 19:18:24.811616  9074 net.cpp:156] Memory required for data: 956439840
I0403 19:18:24.811630  9074 layer_factory.hpp:77] Creating layer inception_4b/3x3
I0403 19:18:24.811655  9074 net.cpp:91] Creating Layer inception_4b/3x3
I0403 19:18:24.811671  9074 net.cpp:425] inception_4b/3x3 <- inception_4b/3x3_reduce
I0403 19:18:24.811691  9074 net.cpp:399] inception_4b/3x3 -> inception_4b/3x3
I0403 19:18:24.814718  9074 net.cpp:141] Setting up inception_4b/3x3
I0403 19:18:24.814746  9074 net.cpp:148] Top shape: 24 224 14 14 (1053696)
I0403 19:18:24.814761  9074 net.cpp:156] Memory required for data: 960654624
I0403 19:18:24.814779  9074 layer_factory.hpp:77] Creating layer inception_4b/relu_3x3
I0403 19:18:24.814797  9074 net.cpp:91] Creating Layer inception_4b/relu_3x3
I0403 19:18:24.814815  9074 net.cpp:425] inception_4b/relu_3x3 <- inception_4b/3x3
I0403 19:18:24.814833  9074 net.cpp:386] inception_4b/relu_3x3 -> inception_4b/3x3 (in-place)
I0403 19:18:24.815016  9074 net.cpp:141] Setting up inception_4b/relu_3x3
I0403 19:18:24.815042  9074 net.cpp:148] Top shape: 24 224 14 14 (1053696)
I0403 19:18:24.815055  9074 net.cpp:156] Memory required for data: 964869408
I0403 19:18:24.815070  9074 layer_factory.hpp:77] Creating layer inception_4b/5x5_reduce
I0403 19:18:24.815091  9074 net.cpp:91] Creating Layer inception_4b/5x5_reduce
I0403 19:18:24.815109  9074 net.cpp:425] inception_4b/5x5_reduce <- inception_4a/output_inception_4a/output_0_split_3
I0403 19:18:24.815134  9074 net.cpp:399] inception_4b/5x5_reduce -> inception_4b/5x5_reduce
I0403 19:18:24.816258  9074 net.cpp:141] Setting up inception_4b/5x5_reduce
I0403 19:18:24.816287  9074 net.cpp:148] Top shape: 24 24 14 14 (112896)
I0403 19:18:24.816300  9074 net.cpp:156] Memory required for data: 965320992
I0403 19:18:24.816318  9074 layer_factory.hpp:77] Creating layer inception_4b/relu_5x5_reduce
I0403 19:18:24.816339  9074 net.cpp:91] Creating Layer inception_4b/relu_5x5_reduce
I0403 19:18:24.816370  9074 net.cpp:425] inception_4b/relu_5x5_reduce <- inception_4b/5x5_reduce
I0403 19:18:24.816387  9074 net.cpp:386] inception_4b/relu_5x5_reduce -> inception_4b/5x5_reduce (in-place)
I0403 19:18:24.816570  9074 net.cpp:141] Setting up inception_4b/relu_5x5_reduce
I0403 19:18:24.816596  9074 net.cpp:148] Top shape: 24 24 14 14 (112896)
I0403 19:18:24.816612  9074 net.cpp:156] Memory required for data: 965772576
I0403 19:18:24.816627  9074 layer_factory.hpp:77] Creating layer inception_4b/5x5
I0403 19:18:24.816649  9074 net.cpp:91] Creating Layer inception_4b/5x5
I0403 19:18:24.816666  9074 net.cpp:425] inception_4b/5x5 <- inception_4b/5x5_reduce
I0403 19:18:24.816685  9074 net.cpp:399] inception_4b/5x5 -> inception_4b/5x5
I0403 19:18:24.817941  9074 net.cpp:141] Setting up inception_4b/5x5
I0403 19:18:24.817970  9074 net.cpp:148] Top shape: 24 64 14 14 (301056)
I0403 19:18:24.817988  9074 net.cpp:156] Memory required for data: 966976800
I0403 19:18:24.818019  9074 layer_factory.hpp:77] Creating layer inception_4b/relu_5x5
I0403 19:18:24.818039  9074 net.cpp:91] Creating Layer inception_4b/relu_5x5
I0403 19:18:24.818056  9074 net.cpp:425] inception_4b/relu_5x5 <- inception_4b/5x5
I0403 19:18:24.818094  9074 net.cpp:386] inception_4b/relu_5x5 -> inception_4b/5x5 (in-place)
I0403 19:18:24.818387  9074 net.cpp:141] Setting up inception_4b/relu_5x5
I0403 19:18:24.818424  9074 net.cpp:148] Top shape: 24 64 14 14 (301056)
I0403 19:18:24.818462  9074 net.cpp:156] Memory required for data: 968181024
I0403 19:18:24.818480  9074 layer_factory.hpp:77] Creating layer inception_4b/pool
I0403 19:18:24.818507  9074 net.cpp:91] Creating Layer inception_4b/pool
I0403 19:18:24.818524  9074 net.cpp:425] inception_4b/pool <- inception_4a/output_inception_4a/output_0_split_4
I0403 19:18:24.818542  9074 net.cpp:399] inception_4b/pool -> inception_4b/pool
I0403 19:18:24.818608  9074 net.cpp:141] Setting up inception_4b/pool
I0403 19:18:24.818631  9074 net.cpp:148] Top shape: 24 512 14 14 (2408448)
I0403 19:18:24.818645  9074 net.cpp:156] Memory required for data: 977814816
I0403 19:18:24.818660  9074 layer_factory.hpp:77] Creating layer inception_4b/pool_proj
I0403 19:18:24.818681  9074 net.cpp:91] Creating Layer inception_4b/pool_proj
I0403 19:18:24.818698  9074 net.cpp:425] inception_4b/pool_proj <- inception_4b/pool
I0403 19:18:24.818730  9074 net.cpp:399] inception_4b/pool_proj -> inception_4b/pool_proj
I0403 19:18:24.819978  9074 net.cpp:141] Setting up inception_4b/pool_proj
I0403 19:18:24.820005  9074 net.cpp:148] Top shape: 24 64 14 14 (301056)
I0403 19:18:24.820020  9074 net.cpp:156] Memory required for data: 979019040
I0403 19:18:24.820039  9074 layer_factory.hpp:77] Creating layer inception_4b/relu_pool_proj
I0403 19:18:24.820060  9074 net.cpp:91] Creating Layer inception_4b/relu_pool_proj
I0403 19:18:24.820077  9074 net.cpp:425] inception_4b/relu_pool_proj <- inception_4b/pool_proj
I0403 19:18:24.820094  9074 net.cpp:386] inception_4b/relu_pool_proj -> inception_4b/pool_proj (in-place)
I0403 19:18:24.820281  9074 net.cpp:141] Setting up inception_4b/relu_pool_proj
I0403 19:18:24.820307  9074 net.cpp:148] Top shape: 24 64 14 14 (301056)
I0403 19:18:24.820322  9074 net.cpp:156] Memory required for data: 980223264
I0403 19:18:24.820336  9074 layer_factory.hpp:77] Creating layer inception_4b/output
I0403 19:18:24.820353  9074 net.cpp:91] Creating Layer inception_4b/output
I0403 19:18:24.820369  9074 net.cpp:425] inception_4b/output <- inception_4b/1x1
I0403 19:18:24.820385  9074 net.cpp:425] inception_4b/output <- inception_4b/3x3
I0403 19:18:24.820400  9074 net.cpp:425] inception_4b/output <- inception_4b/5x5
I0403 19:18:24.820415  9074 net.cpp:425] inception_4b/output <- inception_4b/pool_proj
I0403 19:18:24.820435  9074 net.cpp:399] inception_4b/output -> inception_4b/output
I0403 19:18:24.820479  9074 net.cpp:141] Setting up inception_4b/output
I0403 19:18:24.820502  9074 net.cpp:148] Top shape: 24 512 14 14 (2408448)
I0403 19:18:24.820516  9074 net.cpp:156] Memory required for data: 989857056
I0403 19:18:24.820544  9074 layer_factory.hpp:77] Creating layer inception_4b/output_inception_4b/output_0_split
I0403 19:18:24.820564  9074 net.cpp:91] Creating Layer inception_4b/output_inception_4b/output_0_split
I0403 19:18:24.820580  9074 net.cpp:425] inception_4b/output_inception_4b/output_0_split <- inception_4b/output
I0403 19:18:24.820598  9074 net.cpp:399] inception_4b/output_inception_4b/output_0_split -> inception_4b/output_inception_4b/output_0_split_0
I0403 19:18:24.820618  9074 net.cpp:399] inception_4b/output_inception_4b/output_0_split -> inception_4b/output_inception_4b/output_0_split_1
I0403 19:18:24.820638  9074 net.cpp:399] inception_4b/output_inception_4b/output_0_split -> inception_4b/output_inception_4b/output_0_split_2
I0403 19:18:24.820662  9074 net.cpp:399] inception_4b/output_inception_4b/output_0_split -> inception_4b/output_inception_4b/output_0_split_3
I0403 19:18:24.820747  9074 net.cpp:141] Setting up inception_4b/output_inception_4b/output_0_split
I0403 19:18:24.820770  9074 net.cpp:148] Top shape: 24 512 14 14 (2408448)
I0403 19:18:24.820785  9074 net.cpp:148] Top shape: 24 512 14 14 (2408448)
I0403 19:18:24.820801  9074 net.cpp:148] Top shape: 24 512 14 14 (2408448)
I0403 19:18:24.820816  9074 net.cpp:148] Top shape: 24 512 14 14 (2408448)
I0403 19:18:24.820829  9074 net.cpp:156] Memory required for data: 1028392224
I0403 19:18:24.820843  9074 layer_factory.hpp:77] Creating layer inception_4c/1x1
I0403 19:18:24.820865  9074 net.cpp:91] Creating Layer inception_4c/1x1
I0403 19:18:24.820883  9074 net.cpp:425] inception_4c/1x1 <- inception_4b/output_inception_4b/output_0_split_0
I0403 19:18:24.820902  9074 net.cpp:399] inception_4c/1x1 -> inception_4c/1x1
I0403 19:18:24.822347  9074 net.cpp:141] Setting up inception_4c/1x1
I0403 19:18:24.822378  9074 net.cpp:148] Top shape: 24 128 14 14 (602112)
I0403 19:18:24.822394  9074 net.cpp:156] Memory required for data: 1030800672
I0403 19:18:24.822413  9074 layer_factory.hpp:77] Creating layer inception_4c/relu_1x1
I0403 19:18:24.822430  9074 net.cpp:91] Creating Layer inception_4c/relu_1x1
I0403 19:18:24.822445  9074 net.cpp:425] inception_4c/relu_1x1 <- inception_4c/1x1
I0403 19:18:24.822465  9074 net.cpp:386] inception_4c/relu_1x1 -> inception_4c/1x1 (in-place)
I0403 19:18:24.822649  9074 net.cpp:141] Setting up inception_4c/relu_1x1
I0403 19:18:24.822674  9074 net.cpp:148] Top shape: 24 128 14 14 (602112)
I0403 19:18:24.822687  9074 net.cpp:156] Memory required for data: 1033209120
I0403 19:18:24.822702  9074 layer_factory.hpp:77] Creating layer inception_4c/3x3_reduce
I0403 19:18:24.822723  9074 net.cpp:91] Creating Layer inception_4c/3x3_reduce
I0403 19:18:24.822741  9074 net.cpp:425] inception_4c/3x3_reduce <- inception_4b/output_inception_4b/output_0_split_1
I0403 19:18:24.822762  9074 net.cpp:399] inception_4c/3x3_reduce -> inception_4c/3x3_reduce
I0403 19:18:24.824738  9074 net.cpp:141] Setting up inception_4c/3x3_reduce
I0403 19:18:24.824769  9074 net.cpp:148] Top shape: 24 128 14 14 (602112)
I0403 19:18:24.824784  9074 net.cpp:156] Memory required for data: 1035617568
I0403 19:18:24.824802  9074 layer_factory.hpp:77] Creating layer inception_4c/relu_3x3_reduce
I0403 19:18:24.824836  9074 net.cpp:91] Creating Layer inception_4c/relu_3x3_reduce
I0403 19:18:24.824851  9074 net.cpp:425] inception_4c/relu_3x3_reduce <- inception_4c/3x3_reduce
I0403 19:18:24.824868  9074 net.cpp:386] inception_4c/relu_3x3_reduce -> inception_4c/3x3_reduce (in-place)
I0403 19:18:24.825165  9074 net.cpp:141] Setting up inception_4c/relu_3x3_reduce
I0403 19:18:24.825191  9074 net.cpp:148] Top shape: 24 128 14 14 (602112)
I0403 19:18:24.825206  9074 net.cpp:156] Memory required for data: 1038026016
I0403 19:18:24.825220  9074 layer_factory.hpp:77] Creating layer inception_4c/3x3
I0403 19:18:24.825245  9074 net.cpp:91] Creating Layer inception_4c/3x3
I0403 19:18:24.825264  9074 net.cpp:425] inception_4c/3x3 <- inception_4c/3x3_reduce
I0403 19:18:24.825287  9074 net.cpp:399] inception_4c/3x3 -> inception_4c/3x3
I0403 19:18:24.828896  9074 net.cpp:141] Setting up inception_4c/3x3
I0403 19:18:24.828934  9074 net.cpp:148] Top shape: 24 256 14 14 (1204224)
I0403 19:18:24.828950  9074 net.cpp:156] Memory required for data: 1042842912
I0403 19:18:24.828982  9074 layer_factory.hpp:77] Creating layer inception_4c/relu_3x3
I0403 19:18:24.829005  9074 net.cpp:91] Creating Layer inception_4c/relu_3x3
I0403 19:18:24.829022  9074 net.cpp:425] inception_4c/relu_3x3 <- inception_4c/3x3
I0403 19:18:24.829038  9074 net.cpp:386] inception_4c/relu_3x3 -> inception_4c/3x3 (in-place)
I0403 19:18:24.829216  9074 net.cpp:141] Setting up inception_4c/relu_3x3
I0403 19:18:24.829243  9074 net.cpp:148] Top shape: 24 256 14 14 (1204224)
I0403 19:18:24.829259  9074 net.cpp:156] Memory required for data: 1047659808
I0403 19:18:24.829272  9074 layer_factory.hpp:77] Creating layer inception_4c/5x5_reduce
I0403 19:18:24.829293  9074 net.cpp:91] Creating Layer inception_4c/5x5_reduce
I0403 19:18:24.829313  9074 net.cpp:425] inception_4c/5x5_reduce <- inception_4b/output_inception_4b/output_0_split_2
I0403 19:18:24.829331  9074 net.cpp:399] inception_4c/5x5_reduce -> inception_4c/5x5_reduce
I0403 19:18:24.830389  9074 net.cpp:141] Setting up inception_4c/5x5_reduce
I0403 19:18:24.830415  9074 net.cpp:148] Top shape: 24 24 14 14 (112896)
I0403 19:18:24.830430  9074 net.cpp:156] Memory required for data: 1048111392
I0403 19:18:24.830446  9074 layer_factory.hpp:77] Creating layer inception_4c/relu_5x5_reduce
I0403 19:18:24.830466  9074 net.cpp:91] Creating Layer inception_4c/relu_5x5_reduce
I0403 19:18:24.830482  9074 net.cpp:425] inception_4c/relu_5x5_reduce <- inception_4c/5x5_reduce
I0403 19:18:24.830498  9074 net.cpp:386] inception_4c/relu_5x5_reduce -> inception_4c/5x5_reduce (in-place)
I0403 19:18:24.830677  9074 net.cpp:141] Setting up inception_4c/relu_5x5_reduce
I0403 19:18:24.830703  9074 net.cpp:148] Top shape: 24 24 14 14 (112896)
I0403 19:18:24.830716  9074 net.cpp:156] Memory required for data: 1048562976
I0403 19:18:24.830730  9074 layer_factory.hpp:77] Creating layer inception_4c/5x5
I0403 19:18:24.830751  9074 net.cpp:91] Creating Layer inception_4c/5x5
I0403 19:18:24.830768  9074 net.cpp:425] inception_4c/5x5 <- inception_4c/5x5_reduce
I0403 19:18:24.830786  9074 net.cpp:399] inception_4c/5x5 -> inception_4c/5x5
I0403 19:18:24.832020  9074 net.cpp:141] Setting up inception_4c/5x5
I0403 19:18:24.832047  9074 net.cpp:148] Top shape: 24 64 14 14 (301056)
I0403 19:18:24.832062  9074 net.cpp:156] Memory required for data: 1049767200
I0403 19:18:24.832080  9074 layer_factory.hpp:77] Creating layer inception_4c/relu_5x5
I0403 19:18:24.832096  9074 net.cpp:91] Creating Layer inception_4c/relu_5x5
I0403 19:18:24.832111  9074 net.cpp:425] inception_4c/relu_5x5 <- inception_4c/5x5
I0403 19:18:24.832129  9074 net.cpp:386] inception_4c/relu_5x5 -> inception_4c/5x5 (in-place)
I0403 19:18:24.832476  9074 net.cpp:141] Setting up inception_4c/relu_5x5
I0403 19:18:24.832505  9074 net.cpp:148] Top shape: 24 64 14 14 (301056)
I0403 19:18:24.832520  9074 net.cpp:156] Memory required for data: 1050971424
I0403 19:18:24.832535  9074 layer_factory.hpp:77] Creating layer inception_4c/pool
I0403 19:18:24.832563  9074 net.cpp:91] Creating Layer inception_4c/pool
I0403 19:18:24.832579  9074 net.cpp:425] inception_4c/pool <- inception_4b/output_inception_4b/output_0_split_3
I0403 19:18:24.832598  9074 net.cpp:399] inception_4c/pool -> inception_4c/pool
I0403 19:18:24.832661  9074 net.cpp:141] Setting up inception_4c/pool
I0403 19:18:24.832684  9074 net.cpp:148] Top shape: 24 512 14 14 (2408448)
I0403 19:18:24.832697  9074 net.cpp:156] Memory required for data: 1060605216
I0403 19:18:24.832711  9074 layer_factory.hpp:77] Creating layer inception_4c/pool_proj
I0403 19:18:24.832732  9074 net.cpp:91] Creating Layer inception_4c/pool_proj
I0403 19:18:24.832749  9074 net.cpp:425] inception_4c/pool_proj <- inception_4c/pool
I0403 19:18:24.832768  9074 net.cpp:399] inception_4c/pool_proj -> inception_4c/pool_proj
I0403 19:18:24.833959  9074 net.cpp:141] Setting up inception_4c/pool_proj
I0403 19:18:24.833987  9074 net.cpp:148] Top shape: 24 64 14 14 (301056)
I0403 19:18:24.834014  9074 net.cpp:156] Memory required for data: 1061809440
I0403 19:18:24.834033  9074 layer_factory.hpp:77] Creating layer inception_4c/relu_pool_proj
I0403 19:18:24.834053  9074 net.cpp:91] Creating Layer inception_4c/relu_pool_proj
I0403 19:18:24.834069  9074 net.cpp:425] inception_4c/relu_pool_proj <- inception_4c/pool_proj
I0403 19:18:24.834086  9074 net.cpp:386] inception_4c/relu_pool_proj -> inception_4c/pool_proj (in-place)
I0403 19:18:24.834269  9074 net.cpp:141] Setting up inception_4c/relu_pool_proj
I0403 19:18:24.834295  9074 net.cpp:148] Top shape: 24 64 14 14 (301056)
I0403 19:18:24.834309  9074 net.cpp:156] Memory required for data: 1063013664
I0403 19:18:24.834323  9074 layer_factory.hpp:77] Creating layer inception_4c/output
I0403 19:18:24.834341  9074 net.cpp:91] Creating Layer inception_4c/output
I0403 19:18:24.834355  9074 net.cpp:425] inception_4c/output <- inception_4c/1x1
I0403 19:18:24.834370  9074 net.cpp:425] inception_4c/output <- inception_4c/3x3
I0403 19:18:24.834385  9074 net.cpp:425] inception_4c/output <- inception_4c/5x5
I0403 19:18:24.834400  9074 net.cpp:425] inception_4c/output <- inception_4c/pool_proj
I0403 19:18:24.834416  9074 net.cpp:399] inception_4c/output -> inception_4c/output
I0403 19:18:24.834463  9074 net.cpp:141] Setting up inception_4c/output
I0403 19:18:24.834486  9074 net.cpp:148] Top shape: 24 512 14 14 (2408448)
I0403 19:18:24.834499  9074 net.cpp:156] Memory required for data: 1072647456
I0403 19:18:24.834512  9074 layer_factory.hpp:77] Creating layer inception_4c/output_inception_4c/output_0_split
I0403 19:18:24.834532  9074 net.cpp:91] Creating Layer inception_4c/output_inception_4c/output_0_split
I0403 19:18:24.834547  9074 net.cpp:425] inception_4c/output_inception_4c/output_0_split <- inception_4c/output
I0403 19:18:24.834563  9074 net.cpp:399] inception_4c/output_inception_4c/output_0_split -> inception_4c/output_inception_4c/output_0_split_0
I0403 19:18:24.834583  9074 net.cpp:399] inception_4c/output_inception_4c/output_0_split -> inception_4c/output_inception_4c/output_0_split_1
I0403 19:18:24.834602  9074 net.cpp:399] inception_4c/output_inception_4c/output_0_split -> inception_4c/output_inception_4c/output_0_split_2
I0403 19:18:24.834625  9074 net.cpp:399] inception_4c/output_inception_4c/output_0_split -> inception_4c/output_inception_4c/output_0_split_3
I0403 19:18:24.834710  9074 net.cpp:141] Setting up inception_4c/output_inception_4c/output_0_split
I0403 19:18:24.834733  9074 net.cpp:148] Top shape: 24 512 14 14 (2408448)
I0403 19:18:24.834748  9074 net.cpp:148] Top shape: 24 512 14 14 (2408448)
I0403 19:18:24.834764  9074 net.cpp:148] Top shape: 24 512 14 14 (2408448)
I0403 19:18:24.834777  9074 net.cpp:148] Top shape: 24 512 14 14 (2408448)
I0403 19:18:24.834790  9074 net.cpp:156] Memory required for data: 1111182624
I0403 19:18:24.834805  9074 layer_factory.hpp:77] Creating layer inception_4d/1x1
I0403 19:18:24.834825  9074 net.cpp:91] Creating Layer inception_4d/1x1
I0403 19:18:24.834841  9074 net.cpp:425] inception_4d/1x1 <- inception_4c/output_inception_4c/output_0_split_0
I0403 19:18:24.834861  9074 net.cpp:399] inception_4d/1x1 -> inception_4d/1x1
I0403 19:18:24.836252  9074 net.cpp:141] Setting up inception_4d/1x1
I0403 19:18:24.836278  9074 net.cpp:148] Top shape: 24 112 14 14 (526848)
I0403 19:18:24.836293  9074 net.cpp:156] Memory required for data: 1113290016
I0403 19:18:24.836311  9074 layer_factory.hpp:77] Creating layer inception_4d/relu_1x1
I0403 19:18:24.836330  9074 net.cpp:91] Creating Layer inception_4d/relu_1x1
I0403 19:18:24.836346  9074 net.cpp:425] inception_4d/relu_1x1 <- inception_4d/1x1
I0403 19:18:24.836362  9074 net.cpp:386] inception_4d/relu_1x1 -> inception_4d/1x1 (in-place)
I0403 19:18:24.836541  9074 net.cpp:141] Setting up inception_4d/relu_1x1
I0403 19:18:24.836565  9074 net.cpp:148] Top shape: 24 112 14 14 (526848)
I0403 19:18:24.836578  9074 net.cpp:156] Memory required for data: 1115397408
I0403 19:18:24.836593  9074 layer_factory.hpp:77] Creating layer inception_4d/3x3_reduce
I0403 19:18:24.836627  9074 net.cpp:91] Creating Layer inception_4d/3x3_reduce
I0403 19:18:24.836645  9074 net.cpp:425] inception_4d/3x3_reduce <- inception_4c/output_inception_4c/output_0_split_1
I0403 19:18:24.836665  9074 net.cpp:399] inception_4d/3x3_reduce -> inception_4d/3x3_reduce
I0403 19:18:24.838138  9074 net.cpp:141] Setting up inception_4d/3x3_reduce
I0403 19:18:24.838166  9074 net.cpp:148] Top shape: 24 144 14 14 (677376)
I0403 19:18:24.838182  9074 net.cpp:156] Memory required for data: 1118106912
I0403 19:18:24.838201  9074 layer_factory.hpp:77] Creating layer inception_4d/relu_3x3_reduce
I0403 19:18:24.838217  9074 net.cpp:91] Creating Layer inception_4d/relu_3x3_reduce
I0403 19:18:24.838232  9074 net.cpp:425] inception_4d/relu_3x3_reduce <- inception_4d/3x3_reduce
I0403 19:18:24.838255  9074 net.cpp:386] inception_4d/relu_3x3_reduce -> inception_4d/3x3_reduce (in-place)
I0403 19:18:24.838538  9074 net.cpp:141] Setting up inception_4d/relu_3x3_reduce
I0403 19:18:24.838565  9074 net.cpp:148] Top shape: 24 144 14 14 (677376)
I0403 19:18:24.838580  9074 net.cpp:156] Memory required for data: 1120816416
I0403 19:18:24.838594  9074 layer_factory.hpp:77] Creating layer inception_4d/3x3
I0403 19:18:24.838616  9074 net.cpp:91] Creating Layer inception_4d/3x3
I0403 19:18:24.838632  9074 net.cpp:425] inception_4d/3x3 <- inception_4d/3x3_reduce
I0403 19:18:24.838652  9074 net.cpp:399] inception_4d/3x3 -> inception_4d/3x3
I0403 19:18:24.842932  9074 net.cpp:141] Setting up inception_4d/3x3
I0403 19:18:24.842962  9074 net.cpp:148] Top shape: 24 288 14 14 (1354752)
I0403 19:18:24.842988  9074 net.cpp:156] Memory required for data: 1126235424
I0403 19:18:24.843006  9074 layer_factory.hpp:77] Creating layer inception_4d/relu_3x3
I0403 19:18:24.843024  9074 net.cpp:91] Creating Layer inception_4d/relu_3x3
I0403 19:18:24.843040  9074 net.cpp:425] inception_4d/relu_3x3 <- inception_4d/3x3
I0403 19:18:24.843058  9074 net.cpp:386] inception_4d/relu_3x3 -> inception_4d/3x3 (in-place)
I0403 19:18:24.843246  9074 net.cpp:141] Setting up inception_4d/relu_3x3
I0403 19:18:24.843271  9074 net.cpp:148] Top shape: 24 288 14 14 (1354752)
I0403 19:18:24.843286  9074 net.cpp:156] Memory required for data: 1131654432
I0403 19:18:24.843302  9074 layer_factory.hpp:77] Creating layer inception_4d/5x5_reduce
I0403 19:18:24.843324  9074 net.cpp:91] Creating Layer inception_4d/5x5_reduce
I0403 19:18:24.843341  9074 net.cpp:425] inception_4d/5x5_reduce <- inception_4c/output_inception_4c/output_0_split_2
I0403 19:18:24.843363  9074 net.cpp:399] inception_4d/5x5_reduce -> inception_4d/5x5_reduce
I0403 19:18:24.844514  9074 net.cpp:141] Setting up inception_4d/5x5_reduce
I0403 19:18:24.844544  9074 net.cpp:148] Top shape: 24 32 14 14 (150528)
I0403 19:18:24.844560  9074 net.cpp:156] Memory required for data: 1132256544
I0403 19:18:24.844580  9074 layer_factory.hpp:77] Creating layer inception_4d/relu_5x5_reduce
I0403 19:18:24.844600  9074 net.cpp:91] Creating Layer inception_4d/relu_5x5_reduce
I0403 19:18:24.844617  9074 net.cpp:425] inception_4d/relu_5x5_reduce <- inception_4d/5x5_reduce
I0403 19:18:24.844635  9074 net.cpp:386] inception_4d/relu_5x5_reduce -> inception_4d/5x5_reduce (in-place)
I0403 19:18:24.844833  9074 net.cpp:141] Setting up inception_4d/relu_5x5_reduce
I0403 19:18:24.844859  9074 net.cpp:148] Top shape: 24 32 14 14 (150528)
I0403 19:18:24.844874  9074 net.cpp:156] Memory required for data: 1132858656
I0403 19:18:24.844889  9074 layer_factory.hpp:77] Creating layer inception_4d/5x5
I0403 19:18:24.844913  9074 net.cpp:91] Creating Layer inception_4d/5x5
I0403 19:18:24.844933  9074 net.cpp:425] inception_4d/5x5 <- inception_4d/5x5_reduce
I0403 19:18:24.844952  9074 net.cpp:399] inception_4d/5x5 -> inception_4d/5x5
I0403 19:18:24.846478  9074 net.cpp:141] Setting up inception_4d/5x5
I0403 19:18:24.846506  9074 net.cpp:148] Top shape: 24 64 14 14 (301056)
I0403 19:18:24.846523  9074 net.cpp:156] Memory required for data: 1134062880
I0403 19:18:24.846542  9074 layer_factory.hpp:77] Creating layer inception_4d/relu_5x5
I0403 19:18:24.846577  9074 net.cpp:91] Creating Layer inception_4d/relu_5x5
I0403 19:18:24.846596  9074 net.cpp:425] inception_4d/relu_5x5 <- inception_4d/5x5
I0403 19:18:24.846612  9074 net.cpp:386] inception_4d/relu_5x5 -> inception_4d/5x5 (in-place)
I0403 19:18:24.846920  9074 net.cpp:141] Setting up inception_4d/relu_5x5
I0403 19:18:24.846946  9074 net.cpp:148] Top shape: 24 64 14 14 (301056)
I0403 19:18:24.846962  9074 net.cpp:156] Memory required for data: 1135267104
I0403 19:18:24.846977  9074 layer_factory.hpp:77] Creating layer inception_4d/pool
I0403 19:18:24.846998  9074 net.cpp:91] Creating Layer inception_4d/pool
I0403 19:18:24.847015  9074 net.cpp:425] inception_4d/pool <- inception_4c/output_inception_4c/output_0_split_3
I0403 19:18:24.847033  9074 net.cpp:399] inception_4d/pool -> inception_4d/pool
I0403 19:18:24.847103  9074 net.cpp:141] Setting up inception_4d/pool
I0403 19:18:24.847128  9074 net.cpp:148] Top shape: 24 512 14 14 (2408448)
I0403 19:18:24.847143  9074 net.cpp:156] Memory required for data: 1144900896
I0403 19:18:24.847158  9074 layer_factory.hpp:77] Creating layer inception_4d/pool_proj
I0403 19:18:24.847180  9074 net.cpp:91] Creating Layer inception_4d/pool_proj
I0403 19:18:24.847199  9074 net.cpp:425] inception_4d/pool_proj <- inception_4d/pool
I0403 19:18:24.847220  9074 net.cpp:399] inception_4d/pool_proj -> inception_4d/pool_proj
I0403 19:18:24.849071  9074 net.cpp:141] Setting up inception_4d/pool_proj
I0403 19:18:24.849099  9074 net.cpp:148] Top shape: 24 64 14 14 (301056)
I0403 19:18:24.849115  9074 net.cpp:156] Memory required for data: 1146105120
I0403 19:18:24.849135  9074 layer_factory.hpp:77] Creating layer inception_4d/relu_pool_proj
I0403 19:18:24.849153  9074 net.cpp:91] Creating Layer inception_4d/relu_pool_proj
I0403 19:18:24.849169  9074 net.cpp:425] inception_4d/relu_pool_proj <- inception_4d/pool_proj
I0403 19:18:24.849191  9074 net.cpp:386] inception_4d/relu_pool_proj -> inception_4d/pool_proj (in-place)
I0403 19:18:24.849390  9074 net.cpp:141] Setting up inception_4d/relu_pool_proj
I0403 19:18:24.849416  9074 net.cpp:148] Top shape: 24 64 14 14 (301056)
I0403 19:18:24.849429  9074 net.cpp:156] Memory required for data: 1147309344
I0403 19:18:24.849444  9074 layer_factory.hpp:77] Creating layer inception_4d/output
I0403 19:18:24.849464  9074 net.cpp:91] Creating Layer inception_4d/output
I0403 19:18:24.849480  9074 net.cpp:425] inception_4d/output <- inception_4d/1x1
I0403 19:18:24.849496  9074 net.cpp:425] inception_4d/output <- inception_4d/3x3
I0403 19:18:24.849512  9074 net.cpp:425] inception_4d/output <- inception_4d/5x5
I0403 19:18:24.849529  9074 net.cpp:425] inception_4d/output <- inception_4d/pool_proj
I0403 19:18:24.849545  9074 net.cpp:399] inception_4d/output -> inception_4d/output
I0403 19:18:24.849596  9074 net.cpp:141] Setting up inception_4d/output
I0403 19:18:24.849619  9074 net.cpp:148] Top shape: 24 528 14 14 (2483712)
I0403 19:18:24.849633  9074 net.cpp:156] Memory required for data: 1157244192
I0403 19:18:24.849648  9074 layer_factory.hpp:77] Creating layer inception_4d/output_inception_4d/output_0_split
I0403 19:18:24.849666  9074 net.cpp:91] Creating Layer inception_4d/output_inception_4d/output_0_split
I0403 19:18:24.849681  9074 net.cpp:425] inception_4d/output_inception_4d/output_0_split <- inception_4d/output
I0403 19:18:24.849701  9074 net.cpp:399] inception_4d/output_inception_4d/output_0_split -> inception_4d/output_inception_4d/output_0_split_0
I0403 19:18:24.849726  9074 net.cpp:399] inception_4d/output_inception_4d/output_0_split -> inception_4d/output_inception_4d/output_0_split_1
I0403 19:18:24.849747  9074 net.cpp:399] inception_4d/output_inception_4d/output_0_split -> inception_4d/output_inception_4d/output_0_split_2
I0403 19:18:24.849767  9074 net.cpp:399] inception_4d/output_inception_4d/output_0_split -> inception_4d/output_inception_4d/output_0_split_3
I0403 19:18:24.849787  9074 net.cpp:399] inception_4d/output_inception_4d/output_0_split -> inception_4d/output_inception_4d/output_0_split_4
I0403 19:18:24.849896  9074 net.cpp:141] Setting up inception_4d/output_inception_4d/output_0_split
I0403 19:18:24.849933  9074 net.cpp:148] Top shape: 24 528 14 14 (2483712)
I0403 19:18:24.849951  9074 net.cpp:148] Top shape: 24 528 14 14 (2483712)
I0403 19:18:24.849966  9074 net.cpp:148] Top shape: 24 528 14 14 (2483712)
I0403 19:18:24.849982  9074 net.cpp:148] Top shape: 24 528 14 14 (2483712)
I0403 19:18:24.849997  9074 net.cpp:148] Top shape: 24 528 14 14 (2483712)
I0403 19:18:24.850010  9074 net.cpp:156] Memory required for data: 1206918432
I0403 19:18:24.850024  9074 layer_factory.hpp:77] Creating layer loss2/ave_pool
I0403 19:18:24.850042  9074 net.cpp:91] Creating Layer loss2/ave_pool
I0403 19:18:24.850059  9074 net.cpp:425] loss2/ave_pool <- inception_4d/output_inception_4d/output_0_split_0
I0403 19:18:24.850080  9074 net.cpp:399] loss2/ave_pool -> loss2/ave_pool
I0403 19:18:24.850409  9074 net.cpp:141] Setting up loss2/ave_pool
I0403 19:18:24.850436  9074 net.cpp:148] Top shape: 24 528 4 4 (202752)
I0403 19:18:24.850451  9074 net.cpp:156] Memory required for data: 1207729440
I0403 19:18:24.850466  9074 layer_factory.hpp:77] Creating layer loss2/conv
I0403 19:18:24.850489  9074 net.cpp:91] Creating Layer loss2/conv
I0403 19:18:24.850507  9074 net.cpp:425] loss2/conv <- loss2/ave_pool
I0403 19:18:24.850529  9074 net.cpp:399] loss2/conv -> loss2/conv
I0403 19:18:24.852496  9074 net.cpp:141] Setting up loss2/conv
I0403 19:18:24.852529  9074 net.cpp:148] Top shape: 24 128 4 4 (49152)
I0403 19:18:24.852545  9074 net.cpp:156] Memory required for data: 1207926048
I0403 19:18:24.852563  9074 layer_factory.hpp:77] Creating layer loss2/relu_conv
I0403 19:18:24.852581  9074 net.cpp:91] Creating Layer loss2/relu_conv
I0403 19:18:24.852598  9074 net.cpp:425] loss2/relu_conv <- loss2/conv
I0403 19:18:24.852615  9074 net.cpp:386] loss2/relu_conv -> loss2/conv (in-place)
I0403 19:18:24.852908  9074 net.cpp:141] Setting up loss2/relu_conv
I0403 19:18:24.852937  9074 net.cpp:148] Top shape: 24 128 4 4 (49152)
I0403 19:18:24.852953  9074 net.cpp:156] Memory required for data: 1208122656
I0403 19:18:24.852968  9074 layer_factory.hpp:77] Creating layer loss2/fc
I0403 19:18:24.852988  9074 net.cpp:91] Creating Layer loss2/fc
I0403 19:18:24.853004  9074 net.cpp:425] loss2/fc <- loss2/conv
I0403 19:18:24.853025  9074 net.cpp:399] loss2/fc -> loss2/fc
I0403 19:18:24.870924  9074 net.cpp:141] Setting up loss2/fc
I0403 19:18:24.870986  9074 net.cpp:148] Top shape: 24 1024 (24576)
I0403 19:18:24.871001  9074 net.cpp:156] Memory required for data: 1208220960
I0403 19:18:24.871021  9074 layer_factory.hpp:77] Creating layer loss2/relu_fc
I0403 19:18:24.871045  9074 net.cpp:91] Creating Layer loss2/relu_fc
I0403 19:18:24.871063  9074 net.cpp:425] loss2/relu_fc <- loss2/fc
I0403 19:18:24.871081  9074 net.cpp:386] loss2/relu_fc -> loss2/fc (in-place)
I0403 19:18:24.871450  9074 net.cpp:141] Setting up loss2/relu_fc
I0403 19:18:24.871476  9074 net.cpp:148] Top shape: 24 1024 (24576)
I0403 19:18:24.871491  9074 net.cpp:156] Memory required for data: 1208319264
I0403 19:18:24.871506  9074 layer_factory.hpp:77] Creating layer loss2/drop_fc
I0403 19:18:24.871527  9074 net.cpp:91] Creating Layer loss2/drop_fc
I0403 19:18:24.871556  9074 net.cpp:425] loss2/drop_fc <- loss2/fc
I0403 19:18:24.871573  9074 net.cpp:386] loss2/drop_fc -> loss2/fc (in-place)
I0403 19:18:24.871623  9074 net.cpp:141] Setting up loss2/drop_fc
I0403 19:18:24.871647  9074 net.cpp:148] Top shape: 24 1024 (24576)
I0403 19:18:24.871662  9074 net.cpp:156] Memory required for data: 1208417568
I0403 19:18:24.871676  9074 layer_factory.hpp:77] Creating layer loss2/classifier_plantvillage
I0403 19:18:24.871695  9074 net.cpp:91] Creating Layer loss2/classifier_plantvillage
I0403 19:18:24.871711  9074 net.cpp:425] loss2/classifier_plantvillage <- loss2/fc
I0403 19:18:24.871732  9074 net.cpp:399] loss2/classifier_plantvillage -> loss2/classifier_plantvillage
I0403 19:18:24.872153  9074 net.cpp:141] Setting up loss2/classifier_plantvillage
I0403 19:18:24.872177  9074 net.cpp:148] Top shape: 24 38 (912)
I0403 19:18:24.872192  9074 net.cpp:156] Memory required for data: 1208421216
I0403 19:18:24.872231  9074 layer_factory.hpp:77] Creating layer loss2/classifier_plantvillage_loss2/classifier_plantvillage_0_split
I0403 19:18:24.872262  9074 net.cpp:91] Creating Layer loss2/classifier_plantvillage_loss2/classifier_plantvillage_0_split
I0403 19:18:24.872280  9074 net.cpp:425] loss2/classifier_plantvillage_loss2/classifier_plantvillage_0_split <- loss2/classifier_plantvillage
I0403 19:18:24.872298  9074 net.cpp:399] loss2/classifier_plantvillage_loss2/classifier_plantvillage_0_split -> loss2/classifier_plantvillage_loss2/classifier_plantvillage_0_split_0
I0403 19:18:24.872328  9074 net.cpp:399] loss2/classifier_plantvillage_loss2/classifier_plantvillage_0_split -> loss2/classifier_plantvillage_loss2/classifier_plantvillage_0_split_1
I0403 19:18:24.872350  9074 net.cpp:399] loss2/classifier_plantvillage_loss2/classifier_plantvillage_0_split -> loss2/classifier_plantvillage_loss2/classifier_plantvillage_0_split_2
I0403 19:18:24.872429  9074 net.cpp:141] Setting up loss2/classifier_plantvillage_loss2/classifier_plantvillage_0_split
I0403 19:18:24.872452  9074 net.cpp:148] Top shape: 24 38 (912)
I0403 19:18:24.872468  9074 net.cpp:148] Top shape: 24 38 (912)
I0403 19:18:24.872483  9074 net.cpp:148] Top shape: 24 38 (912)
I0403 19:18:24.872496  9074 net.cpp:156] Memory required for data: 1208432160
I0403 19:18:24.872510  9074 layer_factory.hpp:77] Creating layer inception_4e/1x1
I0403 19:18:24.872534  9074 net.cpp:91] Creating Layer inception_4e/1x1
I0403 19:18:24.872552  9074 net.cpp:425] inception_4e/1x1 <- inception_4d/output_inception_4d/output_0_split_1
I0403 19:18:24.872573  9074 net.cpp:399] inception_4e/1x1 -> inception_4e/1x1
I0403 19:18:24.874438  9074 net.cpp:141] Setting up inception_4e/1x1
I0403 19:18:24.874467  9074 net.cpp:148] Top shape: 24 256 14 14 (1204224)
I0403 19:18:24.874485  9074 net.cpp:156] Memory required for data: 1213249056
I0403 19:18:24.874502  9074 layer_factory.hpp:77] Creating layer inception_4e/relu_1x1
I0403 19:18:24.874521  9074 net.cpp:91] Creating Layer inception_4e/relu_1x1
I0403 19:18:24.874536  9074 net.cpp:425] inception_4e/relu_1x1 <- inception_4e/1x1
I0403 19:18:24.874557  9074 net.cpp:386] inception_4e/relu_1x1 -> inception_4e/1x1 (in-place)
I0403 19:18:24.874851  9074 net.cpp:141] Setting up inception_4e/relu_1x1
I0403 19:18:24.874878  9074 net.cpp:148] Top shape: 24 256 14 14 (1204224)
I0403 19:18:24.874894  9074 net.cpp:156] Memory required for data: 1218065952
I0403 19:18:24.874908  9074 layer_factory.hpp:77] Creating layer inception_4e/3x3_reduce
I0403 19:18:24.874930  9074 net.cpp:91] Creating Layer inception_4e/3x3_reduce
I0403 19:18:24.874948  9074 net.cpp:425] inception_4e/3x3_reduce <- inception_4d/output_inception_4d/output_0_split_2
I0403 19:18:24.874966  9074 net.cpp:399] inception_4e/3x3_reduce -> inception_4e/3x3_reduce
I0403 19:18:24.877104  9074 net.cpp:141] Setting up inception_4e/3x3_reduce
I0403 19:18:24.877135  9074 net.cpp:148] Top shape: 24 160 14 14 (752640)
I0403 19:18:24.877151  9074 net.cpp:156] Memory required for data: 1221076512
I0403 19:18:24.877168  9074 layer_factory.hpp:77] Creating layer inception_4e/relu_3x3_reduce
I0403 19:18:24.877192  9074 net.cpp:91] Creating Layer inception_4e/relu_3x3_reduce
I0403 19:18:24.877208  9074 net.cpp:425] inception_4e/relu_3x3_reduce <- inception_4e/3x3_reduce
I0403 19:18:24.877225  9074 net.cpp:386] inception_4e/relu_3x3_reduce -> inception_4e/3x3_reduce (in-place)
I0403 19:18:24.877418  9074 net.cpp:141] Setting up inception_4e/relu_3x3_reduce
I0403 19:18:24.877444  9074 net.cpp:148] Top shape: 24 160 14 14 (752640)
I0403 19:18:24.877460  9074 net.cpp:156] Memory required for data: 1224087072
I0403 19:18:24.877473  9074 layer_factory.hpp:77] Creating layer inception_4e/3x3
I0403 19:18:24.877496  9074 net.cpp:91] Creating Layer inception_4e/3x3
I0403 19:18:24.877512  9074 net.cpp:425] inception_4e/3x3 <- inception_4e/3x3_reduce
I0403 19:18:24.877531  9074 net.cpp:399] inception_4e/3x3 -> inception_4e/3x3
I0403 19:18:24.882583  9074 net.cpp:141] Setting up inception_4e/3x3
I0403 19:18:24.882628  9074 net.cpp:148] Top shape: 24 320 14 14 (1505280)
I0403 19:18:24.882644  9074 net.cpp:156] Memory required for data: 1230108192
I0403 19:18:24.882663  9074 layer_factory.hpp:77] Creating layer inception_4e/relu_3x3
I0403 19:18:24.882683  9074 net.cpp:91] Creating Layer inception_4e/relu_3x3
I0403 19:18:24.882699  9074 net.cpp:425] inception_4e/relu_3x3 <- inception_4e/3x3
I0403 19:18:24.882720  9074 net.cpp:386] inception_4e/relu_3x3 -> inception_4e/3x3 (in-place)
I0403 19:18:24.883020  9074 net.cpp:141] Setting up inception_4e/relu_3x3
I0403 19:18:24.883046  9074 net.cpp:148] Top shape: 24 320 14 14 (1505280)
I0403 19:18:24.883061  9074 net.cpp:156] Memory required for data: 1236129312
I0403 19:18:24.883076  9074 layer_factory.hpp:77] Creating layer inception_4e/5x5_reduce
I0403 19:18:24.883100  9074 net.cpp:91] Creating Layer inception_4e/5x5_reduce
I0403 19:18:24.883116  9074 net.cpp:425] inception_4e/5x5_reduce <- inception_4d/output_inception_4d/output_0_split_3
I0403 19:18:24.883137  9074 net.cpp:399] inception_4e/5x5_reduce -> inception_4e/5x5_reduce
I0403 19:18:24.884253  9074 net.cpp:141] Setting up inception_4e/5x5_reduce
I0403 19:18:24.884280  9074 net.cpp:148] Top shape: 24 32 14 14 (150528)
I0403 19:18:24.884295  9074 net.cpp:156] Memory required for data: 1236731424
I0403 19:18:24.884315  9074 layer_factory.hpp:77] Creating layer inception_4e/relu_5x5_reduce
I0403 19:18:24.884335  9074 net.cpp:91] Creating Layer inception_4e/relu_5x5_reduce
I0403 19:18:24.884351  9074 net.cpp:425] inception_4e/relu_5x5_reduce <- inception_4e/5x5_reduce
I0403 19:18:24.884367  9074 net.cpp:386] inception_4e/relu_5x5_reduce -> inception_4e/5x5_reduce (in-place)
I0403 19:18:24.884665  9074 net.cpp:141] Setting up inception_4e/relu_5x5_reduce
I0403 19:18:24.884690  9074 net.cpp:148] Top shape: 24 32 14 14 (150528)
I0403 19:18:24.884704  9074 net.cpp:156] Memory required for data: 1237333536
I0403 19:18:24.884719  9074 layer_factory.hpp:77] Creating layer inception_4e/5x5
I0403 19:18:24.884758  9074 net.cpp:91] Creating Layer inception_4e/5x5
I0403 19:18:24.884776  9074 net.cpp:425] inception_4e/5x5 <- inception_4e/5x5_reduce
I0403 19:18:24.884795  9074 net.cpp:399] inception_4e/5x5 -> inception_4e/5x5
I0403 19:18:24.886646  9074 net.cpp:141] Setting up inception_4e/5x5
I0403 19:18:24.886674  9074 net.cpp:148] Top shape: 24 128 14 14 (602112)
I0403 19:18:24.886689  9074 net.cpp:156] Memory required for data: 1239741984
I0403 19:18:24.886708  9074 layer_factory.hpp:77] Creating layer inception_4e/relu_5x5
I0403 19:18:24.886728  9074 net.cpp:91] Creating Layer inception_4e/relu_5x5
I0403 19:18:24.886744  9074 net.cpp:425] inception_4e/relu_5x5 <- inception_4e/5x5
I0403 19:18:24.886761  9074 net.cpp:386] inception_4e/relu_5x5 -> inception_4e/5x5 (in-place)
I0403 19:18:24.886960  9074 net.cpp:141] Setting up inception_4e/relu_5x5
I0403 19:18:24.886986  9074 net.cpp:148] Top shape: 24 128 14 14 (602112)
I0403 19:18:24.887001  9074 net.cpp:156] Memory required for data: 1242150432
I0403 19:18:24.887015  9074 layer_factory.hpp:77] Creating layer inception_4e/pool
I0403 19:18:24.887034  9074 net.cpp:91] Creating Layer inception_4e/pool
I0403 19:18:24.887050  9074 net.cpp:425] inception_4e/pool <- inception_4d/output_inception_4d/output_0_split_4
I0403 19:18:24.887068  9074 net.cpp:399] inception_4e/pool -> inception_4e/pool
I0403 19:18:24.887140  9074 net.cpp:141] Setting up inception_4e/pool
I0403 19:18:24.887163  9074 net.cpp:148] Top shape: 24 528 14 14 (2483712)
I0403 19:18:24.887177  9074 net.cpp:156] Memory required for data: 1252085280
I0403 19:18:24.887193  9074 layer_factory.hpp:77] Creating layer inception_4e/pool_proj
I0403 19:18:24.887214  9074 net.cpp:91] Creating Layer inception_4e/pool_proj
I0403 19:18:24.887233  9074 net.cpp:425] inception_4e/pool_proj <- inception_4e/pool
I0403 19:18:24.887269  9074 net.cpp:399] inception_4e/pool_proj -> inception_4e/pool_proj
I0403 19:18:24.888793  9074 net.cpp:141] Setting up inception_4e/pool_proj
I0403 19:18:24.888820  9074 net.cpp:148] Top shape: 24 128 14 14 (602112)
I0403 19:18:24.888849  9074 net.cpp:156] Memory required for data: 1254493728
I0403 19:18:24.888866  9074 layer_factory.hpp:77] Creating layer inception_4e/relu_pool_proj
I0403 19:18:24.888886  9074 net.cpp:91] Creating Layer inception_4e/relu_pool_proj
I0403 19:18:24.888903  9074 net.cpp:425] inception_4e/relu_pool_proj <- inception_4e/pool_proj
I0403 19:18:24.888919  9074 net.cpp:386] inception_4e/relu_pool_proj -> inception_4e/pool_proj (in-place)
I0403 19:18:24.889201  9074 net.cpp:141] Setting up inception_4e/relu_pool_proj
I0403 19:18:24.889226  9074 net.cpp:148] Top shape: 24 128 14 14 (602112)
I0403 19:18:24.889243  9074 net.cpp:156] Memory required for data: 1256902176
I0403 19:18:24.889259  9074 layer_factory.hpp:77] Creating layer inception_4e/output
I0403 19:18:24.889276  9074 net.cpp:91] Creating Layer inception_4e/output
I0403 19:18:24.889292  9074 net.cpp:425] inception_4e/output <- inception_4e/1x1
I0403 19:18:24.889307  9074 net.cpp:425] inception_4e/output <- inception_4e/3x3
I0403 19:18:24.889322  9074 net.cpp:425] inception_4e/output <- inception_4e/5x5
I0403 19:18:24.889336  9074 net.cpp:425] inception_4e/output <- inception_4e/pool_proj
I0403 19:18:24.889354  9074 net.cpp:399] inception_4e/output -> inception_4e/output
I0403 19:18:24.889405  9074 net.cpp:141] Setting up inception_4e/output
I0403 19:18:24.889428  9074 net.cpp:148] Top shape: 24 832 14 14 (3913728)
I0403 19:18:24.889442  9074 net.cpp:156] Memory required for data: 1272557088
I0403 19:18:24.889456  9074 layer_factory.hpp:77] Creating layer pool4/3x3_s2
I0403 19:18:24.889472  9074 net.cpp:91] Creating Layer pool4/3x3_s2
I0403 19:18:24.889487  9074 net.cpp:425] pool4/3x3_s2 <- inception_4e/output
I0403 19:18:24.889506  9074 net.cpp:399] pool4/3x3_s2 -> pool4/3x3_s2
I0403 19:18:24.889572  9074 net.cpp:141] Setting up pool4/3x3_s2
I0403 19:18:24.889595  9074 net.cpp:148] Top shape: 24 832 7 7 (978432)
I0403 19:18:24.889608  9074 net.cpp:156] Memory required for data: 1276470816
I0403 19:18:24.889621  9074 layer_factory.hpp:77] Creating layer pool4/3x3_s2_pool4/3x3_s2_0_split
I0403 19:18:24.889641  9074 net.cpp:91] Creating Layer pool4/3x3_s2_pool4/3x3_s2_0_split
I0403 19:18:24.889657  9074 net.cpp:425] pool4/3x3_s2_pool4/3x3_s2_0_split <- pool4/3x3_s2
I0403 19:18:24.889673  9074 net.cpp:399] pool4/3x3_s2_pool4/3x3_s2_0_split -> pool4/3x3_s2_pool4/3x3_s2_0_split_0
I0403 19:18:24.889693  9074 net.cpp:399] pool4/3x3_s2_pool4/3x3_s2_0_split -> pool4/3x3_s2_pool4/3x3_s2_0_split_1
I0403 19:18:24.889715  9074 net.cpp:399] pool4/3x3_s2_pool4/3x3_s2_0_split -> pool4/3x3_s2_pool4/3x3_s2_0_split_2
I0403 19:18:24.889735  9074 net.cpp:399] pool4/3x3_s2_pool4/3x3_s2_0_split -> pool4/3x3_s2_pool4/3x3_s2_0_split_3
I0403 19:18:24.889824  9074 net.cpp:141] Setting up pool4/3x3_s2_pool4/3x3_s2_0_split
I0403 19:18:24.889847  9074 net.cpp:148] Top shape: 24 832 7 7 (978432)
I0403 19:18:24.889863  9074 net.cpp:148] Top shape: 24 832 7 7 (978432)
I0403 19:18:24.889878  9074 net.cpp:148] Top shape: 24 832 7 7 (978432)
I0403 19:18:24.889892  9074 net.cpp:148] Top shape: 24 832 7 7 (978432)
I0403 19:18:24.889905  9074 net.cpp:156] Memory required for data: 1292125728
I0403 19:18:24.889919  9074 layer_factory.hpp:77] Creating layer inception_5a/1x1
I0403 19:18:24.889942  9074 net.cpp:91] Creating Layer inception_5a/1x1
I0403 19:18:24.889958  9074 net.cpp:425] inception_5a/1x1 <- pool4/3x3_s2_pool4/3x3_s2_0_split_0
I0403 19:18:24.889978  9074 net.cpp:399] inception_5a/1x1 -> inception_5a/1x1
I0403 19:18:24.892796  9074 net.cpp:141] Setting up inception_5a/1x1
I0403 19:18:24.892823  9074 net.cpp:148] Top shape: 24 256 7 7 (301056)
I0403 19:18:24.892838  9074 net.cpp:156] Memory required for data: 1293329952
I0403 19:18:24.892855  9074 layer_factory.hpp:77] Creating layer inception_5a/relu_1x1
I0403 19:18:24.892875  9074 net.cpp:91] Creating Layer inception_5a/relu_1x1
I0403 19:18:24.892892  9074 net.cpp:425] inception_5a/relu_1x1 <- inception_5a/1x1
I0403 19:18:24.892910  9074 net.cpp:386] inception_5a/relu_1x1 -> inception_5a/1x1 (in-place)
I0403 19:18:24.893213  9074 net.cpp:141] Setting up inception_5a/relu_1x1
I0403 19:18:24.893244  9074 net.cpp:148] Top shape: 24 256 7 7 (301056)
I0403 19:18:24.893272  9074 net.cpp:156] Memory required for data: 1294534176
I0403 19:18:24.893287  9074 layer_factory.hpp:77] Creating layer inception_5a/3x3_reduce
I0403 19:18:24.893323  9074 net.cpp:91] Creating Layer inception_5a/3x3_reduce
I0403 19:18:24.893340  9074 net.cpp:425] inception_5a/3x3_reduce <- pool4/3x3_s2_pool4/3x3_s2_0_split_1
I0403 19:18:24.893362  9074 net.cpp:399] inception_5a/3x3_reduce -> inception_5a/3x3_reduce
I0403 19:18:24.895886  9074 net.cpp:141] Setting up inception_5a/3x3_reduce
I0403 19:18:24.895915  9074 net.cpp:148] Top shape: 24 160 7 7 (188160)
I0403 19:18:24.895931  9074 net.cpp:156] Memory required for data: 1295286816
I0403 19:18:24.895948  9074 layer_factory.hpp:77] Creating layer inception_5a/relu_3x3_reduce
I0403 19:18:24.895967  9074 net.cpp:91] Creating Layer inception_5a/relu_3x3_reduce
I0403 19:18:24.895983  9074 net.cpp:425] inception_5a/relu_3x3_reduce <- inception_5a/3x3_reduce
I0403 19:18:24.896003  9074 net.cpp:386] inception_5a/relu_3x3_reduce -> inception_5a/3x3_reduce (in-place)
I0403 19:18:24.896190  9074 net.cpp:141] Setting up inception_5a/relu_3x3_reduce
I0403 19:18:24.896214  9074 net.cpp:148] Top shape: 24 160 7 7 (188160)
I0403 19:18:24.896229  9074 net.cpp:156] Memory required for data: 1296039456
I0403 19:18:24.896247  9074 layer_factory.hpp:77] Creating layer inception_5a/3x3
I0403 19:18:24.896271  9074 net.cpp:91] Creating Layer inception_5a/3x3
I0403 19:18:24.896289  9074 net.cpp:425] inception_5a/3x3 <- inception_5a/3x3_reduce
I0403 19:18:24.896311  9074 net.cpp:399] inception_5a/3x3 -> inception_5a/3x3
I0403 19:18:24.901384  9074 net.cpp:141] Setting up inception_5a/3x3
I0403 19:18:24.901413  9074 net.cpp:148] Top shape: 24 320 7 7 (376320)
I0403 19:18:24.901429  9074 net.cpp:156] Memory required for data: 1297544736
I0403 19:18:24.901448  9074 layer_factory.hpp:77] Creating layer inception_5a/relu_3x3
I0403 19:18:24.901468  9074 net.cpp:91] Creating Layer inception_5a/relu_3x3
I0403 19:18:24.901484  9074 net.cpp:425] inception_5a/relu_3x3 <- inception_5a/3x3
I0403 19:18:24.901501  9074 net.cpp:386] inception_5a/relu_3x3 -> inception_5a/3x3 (in-place)
I0403 19:18:24.901795  9074 net.cpp:141] Setting up inception_5a/relu_3x3
I0403 19:18:24.901823  9074 net.cpp:148] Top shape: 24 320 7 7 (376320)
I0403 19:18:24.901836  9074 net.cpp:156] Memory required for data: 1299050016
I0403 19:18:24.901851  9074 layer_factory.hpp:77] Creating layer inception_5a/5x5_reduce
I0403 19:18:24.901873  9074 net.cpp:91] Creating Layer inception_5a/5x5_reduce
I0403 19:18:24.901890  9074 net.cpp:425] inception_5a/5x5_reduce <- pool4/3x3_s2_pool4/3x3_s2_0_split_2
I0403 19:18:24.901912  9074 net.cpp:399] inception_5a/5x5_reduce -> inception_5a/5x5_reduce
I0403 19:18:24.903105  9074 net.cpp:141] Setting up inception_5a/5x5_reduce
I0403 19:18:24.903136  9074 net.cpp:148] Top shape: 24 32 7 7 (37632)
I0403 19:18:24.903151  9074 net.cpp:156] Memory required for data: 1299200544
I0403 19:18:24.903169  9074 layer_factory.hpp:77] Creating layer inception_5a/relu_5x5_reduce
I0403 19:18:24.903190  9074 net.cpp:91] Creating Layer inception_5a/relu_5x5_reduce
I0403 19:18:24.903206  9074 net.cpp:425] inception_5a/relu_5x5_reduce <- inception_5a/5x5_reduce
I0403 19:18:24.903223  9074 net.cpp:386] inception_5a/relu_5x5_reduce -> inception_5a/5x5_reduce (in-place)
I0403 19:18:24.903558  9074 net.cpp:141] Setting up inception_5a/relu_5x5_reduce
I0403 19:18:24.903586  9074 net.cpp:148] Top shape: 24 32 7 7 (37632)
I0403 19:18:24.903602  9074 net.cpp:156] Memory required for data: 1299351072
I0403 19:18:24.903617  9074 layer_factory.hpp:77] Creating layer inception_5a/5x5
I0403 19:18:24.903640  9074 net.cpp:91] Creating Layer inception_5a/5x5
I0403 19:18:24.903656  9074 net.cpp:425] inception_5a/5x5 <- inception_5a/5x5_reduce
I0403 19:18:24.903676  9074 net.cpp:399] inception_5a/5x5 -> inception_5a/5x5
I0403 19:18:24.905413  9074 net.cpp:141] Setting up inception_5a/5x5
I0403 19:18:24.905455  9074 net.cpp:148] Top shape: 24 128 7 7 (150528)
I0403 19:18:24.905470  9074 net.cpp:156] Memory required for data: 1299953184
I0403 19:18:24.905488  9074 layer_factory.hpp:77] Creating layer inception_5a/relu_5x5
I0403 19:18:24.905508  9074 net.cpp:91] Creating Layer inception_5a/relu_5x5
I0403 19:18:24.905525  9074 net.cpp:425] inception_5a/relu_5x5 <- inception_5a/5x5
I0403 19:18:24.905544  9074 net.cpp:386] inception_5a/relu_5x5 -> inception_5a/5x5 (in-place)
I0403 19:18:24.905735  9074 net.cpp:141] Setting up inception_5a/relu_5x5
I0403 19:18:24.905761  9074 net.cpp:148] Top shape: 24 128 7 7 (150528)
I0403 19:18:24.905776  9074 net.cpp:156] Memory required for data: 1300555296
I0403 19:18:24.905791  9074 layer_factory.hpp:77] Creating layer inception_5a/pool
I0403 19:18:24.905808  9074 net.cpp:91] Creating Layer inception_5a/pool
I0403 19:18:24.905824  9074 net.cpp:425] inception_5a/pool <- pool4/3x3_s2_pool4/3x3_s2_0_split_3
I0403 19:18:24.905841  9074 net.cpp:399] inception_5a/pool -> inception_5a/pool
I0403 19:18:24.905915  9074 net.cpp:141] Setting up inception_5a/pool
I0403 19:18:24.905937  9074 net.cpp:148] Top shape: 24 832 7 7 (978432)
I0403 19:18:24.905951  9074 net.cpp:156] Memory required for data: 1304469024
I0403 19:18:24.905966  9074 layer_factory.hpp:77] Creating layer inception_5a/pool_proj
I0403 19:18:24.905987  9074 net.cpp:91] Creating Layer inception_5a/pool_proj
I0403 19:18:24.906005  9074 net.cpp:425] inception_5a/pool_proj <- inception_5a/pool
I0403 19:18:24.906025  9074 net.cpp:399] inception_5a/pool_proj -> inception_5a/pool_proj
I0403 19:18:24.908359  9074 net.cpp:141] Setting up inception_5a/pool_proj
I0403 19:18:24.908390  9074 net.cpp:148] Top shape: 24 128 7 7 (150528)
I0403 19:18:24.908404  9074 net.cpp:156] Memory required for data: 1305071136
I0403 19:18:24.908422  9074 layer_factory.hpp:77] Creating layer inception_5a/relu_pool_proj
I0403 19:18:24.908442  9074 net.cpp:91] Creating Layer inception_5a/relu_pool_proj
I0403 19:18:24.908459  9074 net.cpp:425] inception_5a/relu_pool_proj <- inception_5a/pool_proj
I0403 19:18:24.908478  9074 net.cpp:386] inception_5a/relu_pool_proj -> inception_5a/pool_proj (in-place)
I0403 19:18:24.908779  9074 net.cpp:141] Setting up inception_5a/relu_pool_proj
I0403 19:18:24.908804  9074 net.cpp:148] Top shape: 24 128 7 7 (150528)
I0403 19:18:24.908819  9074 net.cpp:156] Memory required for data: 1305673248
I0403 19:18:24.908833  9074 layer_factory.hpp:77] Creating layer inception_5a/output
I0403 19:18:24.908851  9074 net.cpp:91] Creating Layer inception_5a/output
I0403 19:18:24.908865  9074 net.cpp:425] inception_5a/output <- inception_5a/1x1
I0403 19:18:24.908881  9074 net.cpp:425] inception_5a/output <- inception_5a/3x3
I0403 19:18:24.908901  9074 net.cpp:425] inception_5a/output <- inception_5a/5x5
I0403 19:18:24.908917  9074 net.cpp:425] inception_5a/output <- inception_5a/pool_proj
I0403 19:18:24.908934  9074 net.cpp:399] inception_5a/output -> inception_5a/output
I0403 19:18:24.908983  9074 net.cpp:141] Setting up inception_5a/output
I0403 19:18:24.909008  9074 net.cpp:148] Top shape: 24 832 7 7 (978432)
I0403 19:18:24.909024  9074 net.cpp:156] Memory required for data: 1309586976
I0403 19:18:24.909037  9074 layer_factory.hpp:77] Creating layer inception_5a/output_inception_5a/output_0_split
I0403 19:18:24.909054  9074 net.cpp:91] Creating Layer inception_5a/output_inception_5a/output_0_split
I0403 19:18:24.909070  9074 net.cpp:425] inception_5a/output_inception_5a/output_0_split <- inception_5a/output
I0403 19:18:24.909090  9074 net.cpp:399] inception_5a/output_inception_5a/output_0_split -> inception_5a/output_inception_5a/output_0_split_0
I0403 19:18:24.909111  9074 net.cpp:399] inception_5a/output_inception_5a/output_0_split -> inception_5a/output_inception_5a/output_0_split_1
I0403 19:18:24.909131  9074 net.cpp:399] inception_5a/output_inception_5a/output_0_split -> inception_5a/output_inception_5a/output_0_split_2
I0403 19:18:24.909149  9074 net.cpp:399] inception_5a/output_inception_5a/output_0_split -> inception_5a/output_inception_5a/output_0_split_3
I0403 19:18:24.909270  9074 net.cpp:141] Setting up inception_5a/output_inception_5a/output_0_split
I0403 19:18:24.909296  9074 net.cpp:148] Top shape: 24 832 7 7 (978432)
I0403 19:18:24.909313  9074 net.cpp:148] Top shape: 24 832 7 7 (978432)
I0403 19:18:24.909328  9074 net.cpp:148] Top shape: 24 832 7 7 (978432)
I0403 19:18:24.909343  9074 net.cpp:148] Top shape: 24 832 7 7 (978432)
I0403 19:18:24.909356  9074 net.cpp:156] Memory required for data: 1325241888
I0403 19:18:24.909371  9074 layer_factory.hpp:77] Creating layer inception_5b/1x1
I0403 19:18:24.909394  9074 net.cpp:91] Creating Layer inception_5b/1x1
I0403 19:18:24.909411  9074 net.cpp:425] inception_5b/1x1 <- inception_5a/output_inception_5a/output_0_split_0
I0403 19:18:24.909430  9074 net.cpp:399] inception_5b/1x1 -> inception_5b/1x1
I0403 19:18:24.913280  9074 net.cpp:141] Setting up inception_5b/1x1
I0403 19:18:24.913310  9074 net.cpp:148] Top shape: 24 384 7 7 (451584)
I0403 19:18:24.913324  9074 net.cpp:156] Memory required for data: 1327048224
I0403 19:18:24.913342  9074 layer_factory.hpp:77] Creating layer inception_5b/relu_1x1
I0403 19:18:24.913360  9074 net.cpp:91] Creating Layer inception_5b/relu_1x1
I0403 19:18:24.913375  9074 net.cpp:425] inception_5b/relu_1x1 <- inception_5b/1x1
I0403 19:18:24.913394  9074 net.cpp:386] inception_5b/relu_1x1 -> inception_5b/1x1 (in-place)
I0403 19:18:24.913691  9074 net.cpp:141] Setting up inception_5b/relu_1x1
I0403 19:18:24.913717  9074 net.cpp:148] Top shape: 24 384 7 7 (451584)
I0403 19:18:24.913732  9074 net.cpp:156] Memory required for data: 1328854560
I0403 19:18:24.913745  9074 layer_factory.hpp:77] Creating layer inception_5b/3x3_reduce
I0403 19:18:24.913768  9074 net.cpp:91] Creating Layer inception_5b/3x3_reduce
I0403 19:18:24.913785  9074 net.cpp:425] inception_5b/3x3_reduce <- inception_5a/output_inception_5a/output_0_split_1
I0403 19:18:24.913806  9074 net.cpp:399] inception_5b/3x3_reduce -> inception_5b/3x3_reduce
I0403 19:18:24.916409  9074 net.cpp:141] Setting up inception_5b/3x3_reduce
I0403 19:18:24.916437  9074 net.cpp:148] Top shape: 24 192 7 7 (225792)
I0403 19:18:24.916452  9074 net.cpp:156] Memory required for data: 1329757728
I0403 19:18:24.916471  9074 layer_factory.hpp:77] Creating layer inception_5b/relu_3x3_reduce
I0403 19:18:24.916491  9074 net.cpp:91] Creating Layer inception_5b/relu_3x3_reduce
I0403 19:18:24.916506  9074 net.cpp:425] inception_5b/relu_3x3_reduce <- inception_5b/3x3_reduce
I0403 19:18:24.916522  9074 net.cpp:386] inception_5b/relu_3x3_reduce -> inception_5b/3x3_reduce (in-place)
I0403 19:18:24.916707  9074 net.cpp:141] Setting up inception_5b/relu_3x3_reduce
I0403 19:18:24.916730  9074 net.cpp:148] Top shape: 24 192 7 7 (225792)
I0403 19:18:24.916744  9074 net.cpp:156] Memory required for data: 1330660896
I0403 19:18:24.916759  9074 layer_factory.hpp:77] Creating layer inception_5b/3x3
I0403 19:18:24.916780  9074 net.cpp:91] Creating Layer inception_5b/3x3
I0403 19:18:24.916800  9074 net.cpp:425] inception_5b/3x3 <- inception_5b/3x3_reduce
I0403 19:18:24.916818  9074 net.cpp:399] inception_5b/3x3 -> inception_5b/3x3
I0403 19:18:24.923399  9074 net.cpp:141] Setting up inception_5b/3x3
I0403 19:18:24.923429  9074 net.cpp:148] Top shape: 24 384 7 7 (451584)
I0403 19:18:24.923444  9074 net.cpp:156] Memory required for data: 1332467232
I0403 19:18:24.923462  9074 layer_factory.hpp:77] Creating layer inception_5b/relu_3x3
I0403 19:18:24.923482  9074 net.cpp:91] Creating Layer inception_5b/relu_3x3
I0403 19:18:24.923498  9074 net.cpp:425] inception_5b/relu_3x3 <- inception_5b/3x3
I0403 19:18:24.923516  9074 net.cpp:386] inception_5b/relu_3x3 -> inception_5b/3x3 (in-place)
I0403 19:18:24.923825  9074 net.cpp:141] Setting up inception_5b/relu_3x3
I0403 19:18:24.923849  9074 net.cpp:148] Top shape: 24 384 7 7 (451584)
I0403 19:18:24.923863  9074 net.cpp:156] Memory required for data: 1334273568
I0403 19:18:24.923878  9074 layer_factory.hpp:77] Creating layer inception_5b/5x5_reduce
I0403 19:18:24.923914  9074 net.cpp:91] Creating Layer inception_5b/5x5_reduce
I0403 19:18:24.923931  9074 net.cpp:425] inception_5b/5x5_reduce <- inception_5a/output_inception_5a/output_0_split_2
I0403 19:18:24.923952  9074 net.cpp:399] inception_5b/5x5_reduce -> inception_5b/5x5_reduce
I0403 19:18:24.925209  9074 net.cpp:141] Setting up inception_5b/5x5_reduce
I0403 19:18:24.925235  9074 net.cpp:148] Top shape: 24 48 7 7 (56448)
I0403 19:18:24.925254  9074 net.cpp:156] Memory required for data: 1334499360
I0403 19:18:24.925273  9074 layer_factory.hpp:77] Creating layer inception_5b/relu_5x5_reduce
I0403 19:18:24.925293  9074 net.cpp:91] Creating Layer inception_5b/relu_5x5_reduce
I0403 19:18:24.925309  9074 net.cpp:425] inception_5b/relu_5x5_reduce <- inception_5b/5x5_reduce
I0403 19:18:24.925326  9074 net.cpp:386] inception_5b/relu_5x5_reduce -> inception_5b/5x5_reduce (in-place)
I0403 19:18:24.925693  9074 net.cpp:141] Setting up inception_5b/relu_5x5_reduce
I0403 19:18:24.925719  9074 net.cpp:148] Top shape: 24 48 7 7 (56448)
I0403 19:18:24.925732  9074 net.cpp:156] Memory required for data: 1334725152
I0403 19:18:24.925746  9074 layer_factory.hpp:77] Creating layer inception_5b/5x5
I0403 19:18:24.925765  9074 net.cpp:91] Creating Layer inception_5b/5x5
I0403 19:18:24.925781  9074 net.cpp:425] inception_5b/5x5 <- inception_5b/5x5_reduce
I0403 19:18:24.925799  9074 net.cpp:399] inception_5b/5x5 -> inception_5b/5x5
I0403 19:18:24.927845  9074 net.cpp:141] Setting up inception_5b/5x5
I0403 19:18:24.927871  9074 net.cpp:148] Top shape: 24 128 7 7 (150528)
I0403 19:18:24.927886  9074 net.cpp:156] Memory required for data: 1335327264
I0403 19:18:24.927904  9074 layer_factory.hpp:77] Creating layer inception_5b/relu_5x5
I0403 19:18:24.927925  9074 net.cpp:91] Creating Layer inception_5b/relu_5x5
I0403 19:18:24.927942  9074 net.cpp:425] inception_5b/relu_5x5 <- inception_5b/5x5
I0403 19:18:24.927958  9074 net.cpp:386] inception_5b/relu_5x5 -> inception_5b/5x5 (in-place)
I0403 19:18:24.928148  9074 net.cpp:141] Setting up inception_5b/relu_5x5
I0403 19:18:24.928174  9074 net.cpp:148] Top shape: 24 128 7 7 (150528)
I0403 19:18:24.928190  9074 net.cpp:156] Memory required for data: 1335929376
I0403 19:18:24.928205  9074 layer_factory.hpp:77] Creating layer inception_5b/pool
I0403 19:18:24.928222  9074 net.cpp:91] Creating Layer inception_5b/pool
I0403 19:18:24.928238  9074 net.cpp:425] inception_5b/pool <- inception_5a/output_inception_5a/output_0_split_3
I0403 19:18:24.928262  9074 net.cpp:399] inception_5b/pool -> inception_5b/pool
I0403 19:18:24.928334  9074 net.cpp:141] Setting up inception_5b/pool
I0403 19:18:24.928357  9074 net.cpp:148] Top shape: 24 832 7 7 (978432)
I0403 19:18:24.928371  9074 net.cpp:156] Memory required for data: 1339843104
I0403 19:18:24.928385  9074 layer_factory.hpp:77] Creating layer inception_5b/pool_proj
I0403 19:18:24.928406  9074 net.cpp:91] Creating Layer inception_5b/pool_proj
I0403 19:18:24.928423  9074 net.cpp:425] inception_5b/pool_proj <- inception_5b/pool
I0403 19:18:24.928443  9074 net.cpp:399] inception_5b/pool_proj -> inception_5b/pool_proj
I0403 19:18:24.930693  9074 net.cpp:141] Setting up inception_5b/pool_proj
I0403 19:18:24.930722  9074 net.cpp:148] Top shape: 24 128 7 7 (150528)
I0403 19:18:24.930737  9074 net.cpp:156] Memory required for data: 1340445216
I0403 19:18:24.930754  9074 layer_factory.hpp:77] Creating layer inception_5b/relu_pool_proj
I0403 19:18:24.930774  9074 net.cpp:91] Creating Layer inception_5b/relu_pool_proj
I0403 19:18:24.930790  9074 net.cpp:425] inception_5b/relu_pool_proj <- inception_5b/pool_proj
I0403 19:18:24.930807  9074 net.cpp:386] inception_5b/relu_pool_proj -> inception_5b/pool_proj (in-place)
I0403 19:18:24.931100  9074 net.cpp:141] Setting up inception_5b/relu_pool_proj
I0403 19:18:24.931125  9074 net.cpp:148] Top shape: 24 128 7 7 (150528)
I0403 19:18:24.931139  9074 net.cpp:156] Memory required for data: 1341047328
I0403 19:18:24.931154  9074 layer_factory.hpp:77] Creating layer inception_5b/output
I0403 19:18:24.931171  9074 net.cpp:91] Creating Layer inception_5b/output
I0403 19:18:24.931200  9074 net.cpp:425] inception_5b/output <- inception_5b/1x1
I0403 19:18:24.931216  9074 net.cpp:425] inception_5b/output <- inception_5b/3x3
I0403 19:18:24.931232  9074 net.cpp:425] inception_5b/output <- inception_5b/5x5
I0403 19:18:24.931252  9074 net.cpp:425] inception_5b/output <- inception_5b/pool_proj
I0403 19:18:24.931272  9074 net.cpp:399] inception_5b/output -> inception_5b/output
I0403 19:18:24.931326  9074 net.cpp:141] Setting up inception_5b/output
I0403 19:18:24.931349  9074 net.cpp:148] Top shape: 24 1024 7 7 (1204224)
I0403 19:18:24.931363  9074 net.cpp:156] Memory required for data: 1345864224
I0403 19:18:24.931376  9074 layer_factory.hpp:77] Creating layer pool5/7x7_s1
I0403 19:18:24.931393  9074 net.cpp:91] Creating Layer pool5/7x7_s1
I0403 19:18:24.931408  9074 net.cpp:425] pool5/7x7_s1 <- inception_5b/output
I0403 19:18:24.931427  9074 net.cpp:399] pool5/7x7_s1 -> pool5/7x7_s1
I0403 19:18:24.931638  9074 net.cpp:141] Setting up pool5/7x7_s1
I0403 19:18:24.931671  9074 net.cpp:148] Top shape: 24 1024 1 1 (24576)
I0403 19:18:24.931686  9074 net.cpp:156] Memory required for data: 1345962528
I0403 19:18:24.931700  9074 layer_factory.hpp:77] Creating layer pool5/drop_7x7_s1
I0403 19:18:24.931720  9074 net.cpp:91] Creating Layer pool5/drop_7x7_s1
I0403 19:18:24.931735  9074 net.cpp:425] pool5/drop_7x7_s1 <- pool5/7x7_s1
I0403 19:18:24.931752  9074 net.cpp:386] pool5/drop_7x7_s1 -> pool5/7x7_s1 (in-place)
I0403 19:18:24.931803  9074 net.cpp:141] Setting up pool5/drop_7x7_s1
I0403 19:18:24.931825  9074 net.cpp:148] Top shape: 24 1024 1 1 (24576)
I0403 19:18:24.931839  9074 net.cpp:156] Memory required for data: 1346060832
I0403 19:18:24.931854  9074 layer_factory.hpp:77] Creating layer loss3/classifier_plantvillage
I0403 19:18:24.931871  9074 net.cpp:91] Creating Layer loss3/classifier_plantvillage
I0403 19:18:24.931886  9074 net.cpp:425] loss3/classifier_plantvillage <- pool5/7x7_s1
I0403 19:18:24.931907  9074 net.cpp:399] loss3/classifier_plantvillage -> loss3/classifier_plantvillage
I0403 19:18:24.932344  9074 net.cpp:141] Setting up loss3/classifier_plantvillage
I0403 19:18:24.932368  9074 net.cpp:148] Top shape: 24 38 (912)
I0403 19:18:24.932382  9074 net.cpp:156] Memory required for data: 1346064480
I0403 19:18:24.932399  9074 layer_factory.hpp:77] Creating layer loss3/classifier_plantvillage_loss3/classifier_plantvillage_0_split
I0403 19:18:24.932416  9074 net.cpp:91] Creating Layer loss3/classifier_plantvillage_loss3/classifier_plantvillage_0_split
I0403 19:18:24.932432  9074 net.cpp:425] loss3/classifier_plantvillage_loss3/classifier_plantvillage_0_split <- loss3/classifier_plantvillage
I0403 19:18:24.932451  9074 net.cpp:399] loss3/classifier_plantvillage_loss3/classifier_plantvillage_0_split -> loss3/classifier_plantvillage_loss3/classifier_plantvillage_0_split_0
I0403 19:18:24.932471  9074 net.cpp:399] loss3/classifier_plantvillage_loss3/classifier_plantvillage_0_split -> loss3/classifier_plantvillage_loss3/classifier_plantvillage_0_split_1
I0403 19:18:24.932490  9074 net.cpp:399] loss3/classifier_plantvillage_loss3/classifier_plantvillage_0_split -> loss3/classifier_plantvillage_loss3/classifier_plantvillage_0_split_2
I0403 19:18:24.932509  9074 net.cpp:399] loss3/classifier_plantvillage_loss3/classifier_plantvillage_0_split -> loss3/classifier_plantvillage_loss3/classifier_plantvillage_0_split_3
I0403 19:18:24.932608  9074 net.cpp:141] Setting up loss3/classifier_plantvillage_loss3/classifier_plantvillage_0_split
I0403 19:18:24.932631  9074 net.cpp:148] Top shape: 24 38 (912)
I0403 19:18:24.932646  9074 net.cpp:148] Top shape: 24 38 (912)
I0403 19:18:24.932660  9074 net.cpp:148] Top shape: 24 38 (912)
I0403 19:18:24.932675  9074 net.cpp:148] Top shape: 24 38 (912)
I0403 19:18:24.932688  9074 net.cpp:156] Memory required for data: 1346079072
I0403 19:18:24.932703  9074 layer_factory.hpp:77] Creating layer loss1/loss
I0403 19:18:24.932723  9074 net.cpp:91] Creating Layer loss1/loss
I0403 19:18:24.932740  9074 net.cpp:425] loss1/loss <- loss1/classifier_plantvillage_loss1/classifier_plantvillage_0_split_0
I0403 19:18:24.932770  9074 net.cpp:425] loss1/loss <- label_data_1_split_0
…
