…
I0403 20:07:29.684190 10608 net.cpp:313] The NetState phase (1) differed from the phase (0) specified by a rule in layer data
I0403 20:07:29.685618 10608 net.cpp:49] Initializing net from parameters: 
state {
  phase: TEST
}
layer {
  name: "data"
  type: "Data"
  top: "data"
  top: "label"
  include {
    phase: TEST
  }
  transform_param {
    mirror: false
    crop_size: 224
    mean_file: "/home/mohanty/data/final_dataset/lmdb/color-50-50/mean.binaryproto"
  }
  data_param {
    source: "/home/mohanty/data/final_dataset/lmdb/color-50-50/test_db"
    batch_size: 24
    backend: LMDB
  }
}
layer {
  name: "conv1/7x7_s2"
  type: "Convolution"
  bottom: "data"
  top: "conv1/7x7_s2"
  param {
    lr_mult: 1
    decay_mult: 1
  }
  param {
    lr_mult: 2
    decay_mult: 0
  }
  convolution_param {
    num_output: 64
    pad: 3
    kernel_size: 7
    stride: 2
    weight_filler {
      type: "xavier"
      std: 0.1
    }
    bias_filler {
      type: "constant"
      value: 0.2
    }
  }
}
layer {
  name: "conv1/relu_7x7"
  type: "ReLU"
  bottom: "conv1/7x7_s2"
  top: "conv1/7x7_s2"
}
layer {
  name: "pool1/3x3_s2"
  type: "Pooling"
  bottom: "conv1/7x7_s2"
  top: "pool1/3x3_s2"
  pooling_param {
    pool: MAX
    kernel_size: 3
    stride: 2
  }
}
layer {
  name: "pool1/norm1"
  type: "LRN"
  bottom: "pool1/3x3_s2"
  top: "pool1/norm1"
  lrn_param {
    local_size: 5
    alpha: 0.0001
    beta: 0.75
  }
}
layer {
  name: "conv2/3x3_reduce"
  type: "Convolution"
  bottom: "pool1/norm1"
  top: "conv2/3x3_reduce"
  param {
    lr_mult: 1
    decay_mult: 1
  }
  param {
    lr_mult: 2
    decay_mult: 0
  }
  convolution_param {
    num_output: 64
    kernel_size: 1
    weight_filler {
      type: "xavier"
      std: 0.1
    }
    bias_filler {
      type: "constant"
      value: 0.2
    }
  }
}
layer {
  name: "conv2/relu_3x3_reduce"
  type: "ReLU"
  bottom: "conv2/3x3_reduce"
  top: "conv2/3x3_reduce"
}
layer {
  name: "conv2/3x3"
  type: "Convolution"
  bottom: "conv2/3x3_reduce"
  top: "conv2/3x3"
  param {
    lr_mult: 1
    decay_mult: 1
  }
  param {
    lr_mult: 2
    decay_mult: 0
  }
  convolution_param {
    num_output: 192
    pad: 1
    kernel_size: 3
    weight_filler {
      type: "xavier"
      std: 0.03
    }
    bias_filler {
      type: "constant"
      value: 0.2
    }
  }
}
layer {
  name: "conv2/relu_3x3"
  type: "ReLU"
  bottom: "conv2/3x3"
  top: "conv2/3x3"
}
layer {
  name: "conv2/norm2"
  type: "LRN"
  bottom: "conv2/3x3"
  top: "conv2/norm2"
  lrn_param {
    local_size: 5
    alpha: 0.0001
    beta: 0.75
  }
}
layer {
  name: "pool2/3x3_s2"
  type: "Pooling"
  bottom: "conv2/norm2"
  top: "pool2/3x3_s2"
  pooling_param {
    pool: MAX
    kernel_size: 3
    stride: 2
  }
}
layer {
  name: "inception_3a/1x1"
  type: "Convolution"
  bottom: "pool2/3x3_s2"
  top: "inception_3a/1x1"
  param {
    lr_mult: 1
    decay_mult: 1
  }
  param {
    lr_mult: 2
    decay_mult: 0
  }
  convolution_param {
    num_output: 64
    kernel_size: 1
    weight_filler {
      type: "xavier"
      std: 0.03
    }
    bias_filler {
      type: "constant"
      value: 0.2
    }
  }
}
layer {
  name: "inception_3a/relu_1x1"
  type: "ReLU"
  bottom: "inception_3a/1x1"
  top: "inception_3a/1x1"
}
layer {
  name: "inception_3a/3x3_reduce"
  type: "Convolution"
  bottom: "pool2/3x3_s2"
  top: "inception_3a/3x3_reduce"
  param {
    lr_mult: 1
    decay_mult: 1
  }
  param {
    lr_mult: 2
    decay_mult: 0
  }
  convolution_param {
    num_output: 96
    kernel_size: 1
    weight_filler {
      type: "xavier"
      std: 0.09
    }
    bias_filler {
      type: "constant"
      value: 0.2
    }
  }
}
layer {
  name: "inception_3a/relu_3x3_reduce"
  type: "ReLU"
  bottom: "inception_3a/3x3_reduce"
  top: "inception_3a/3x3_reduce"
}
layer {
  name: "inception_3a/3x3"
  type: "Convolution"
  bottom: "inception_3a/3x3_reduce"
  top: "inception_3a/3x3"
  param {
    lr_mult: 1
    decay_mult: 1
  }
  param {
    lr_mult: 2
    decay_mult: 0
  }
  convolution_param {
    num_output: 128
    pad: 1
    kernel_size: 3
    weight_filler {
      type: "xavier"
      std: 0.03
    }
    bias_filler {
      type: "constant"
      value: 0.2
    }
  }
}
layer {
  name: "inception_3a/relu_3x3"
  type: "ReLU"
  bottom: "inception_3a/3x3"
  top: "inception_3a/3x3"
}
layer {
  name: "inception_3a/5x5_reduce"
  type: "Convolution"
  bottom: "pool2/3x3_s2"
  top: "inception_3a/5x5_reduce"
  param {
    lr_mult: 1
    decay_mult: 1
  }
  param {
    lr_mult: 2
    decay_mult: 0
  }
  convolution_param {
    num_output: 16
    kernel_size: 1
    weight_filler {
      type: "xavier"
      std: 0.2
    }
    bias_filler {
      type: "constant"
      value: 0.2
    }
  }
}
layer {
  name: "inception_3a/relu_5x5_reduce"
  type: "ReLU"
  bottom: "inception_3a/5x5_reduce"
  top: "inception_3a/5x5_reduce"
}
layer {
  name: "inception_3a/5x5"
  type: "Convolution"
  bottom: "inception_3a/5x5_reduce"
  top: "inception_3a/5x5"
  param {
    lr_mult: 1
    decay_mult: 1
  }
  param {
    lr_mult: 2
    decay_mult: 0
  }
  convolution_param {
    num_output: 32
    pad: 2
    kernel_size: 5
    weight_filler {
      type: "xavier"
      std: 0.03
    }
    bias_filler {
      type: "constant"
      value: 0.2
    }
  }
}
layer {
  name: "inception_3a/relu_5x5"
  type: "ReLU"
  bottom: "inception_3a/5x5"
  top: "inception_3a/5x5"
}
layer {
  name: "inception_3a/pool"
  type: "Pooling"
  bottom: "pool2/3x3_s2"
  top: "inception_3a/pool"
  pooling_param {
    pool: MAX
    kernel_size: 3
    stride: 1
    pad: 1
  }
}
layer {
  name: "inception_3a/pool_proj"
  type: "Convolution"
  bottom: "inception_3a/pool"
  top: "inception_3a/pool_proj"
  param {
    lr_mult: 1
    decay_mult: 1
  }
  param {
    lr_mult: 2
    decay_mult: 0
  }
  convolution_param {
    num_output: 32
    kernel_size: 1
    weight_filler {
      type: "xavier"
      std: 0.1
    }
    bias_filler {
      type: "constant"
      value: 0.2
    }
  }
}
layer {
  name: "inception_3a/relu_pool_proj"
  type: "ReLU"
  bottom: "inception_3a/pool_proj"
  top: "inception_3a/pool_proj"
}
layer {
  name: "inception_3a/output"
  type: "Concat"
  bottom: "inception_3a/1x1"
  bottom: "inception_3a/3x3"
  bottom: "inception_3a/5x5"
  bottom: "inception_3a/pool_proj"
  top: "inception_3a/output"
}
layer {
  name: "inception_3b/1x1"
  type: "Convolution"
  bottom: "inception_3a/output"
  top: "inception_3b/1x1"
  param {
    lr_mult: 1
    decay_mult: 1
  }
  param {
    lr_mult: 2
    decay_mult: 0
  }
  convolution_param {
    num_output: 128
    kernel_size: 1
    weight_filler {
      type: "xavier"
      std: 0.03
    }
    bias_filler {
      type: "constant"
      value: 0.2
    }
  }
}
layer {
  name: "inception_3b/relu_1x1"
  type: "ReLU"
  bottom: "inception_3b/1x1"
  top: "inception_3b/1x1"
}
layer {
  name: "inception_3b/3x3_reduce"
  type: "Convolution"
  bottom: "inception_3a/output"
  top: "inception_3b/3x3_reduce"
  param {
    lr_mult: 1
    decay_mult: 1
  }
  param {
    lr_mult: 2
    decay_mult: 0
  }
  convolution_param {
    num_output: 128
    kernel_size: 1
    weight_filler {
      type: "xavier"
      std: 0.09
    }
    bias_filler {
      type: "constant"
      value: 0.2
    }
  }
}
layer {
  name: "inception_3b/relu_3x3_reduce"
  type: "ReLU"
  bottom: "inception_3b/3x3_reduce"
  top: "inception_3b/3x3_reduce"
}
layer {
  name: "inception_3b/3x3"
  type: "Convolution"
  bottom: "inception_3b/3x3_reduce"
  top: "inception_3b/3x3"
  param {
    lr_mult: 1
    decay_mult: 1
  }
  param {
    lr_mult: 2
    decay_mult: 0
  }
  convolution_param {
    num_output: 192
    pad: 1
    kernel_size: 3
    weight_filler {
      type: "xavier"
      std: 0.03
    }
    bias_filler {
      type: "constant"
      value: 0.2
    }
  }
}
layer {
  name: "inception_3b/relu_3x3"
  type: "ReLU"
  bottom: "inception_3b/3x3"
  top: "inception_3b/3x3"
}
layer {
  name: "inception_3b/5x5_reduce"
  type: "Convolution"
  bottom: "inception_3a/output"
  top: "inception_3b/5x5_reduce"
  param {
    lr_mult: 1
    decay_mult: 1
  }
  param {
    lr_mult: 2
    decay_mult: 0
  }
  convolution_param {
    num_output: 32
    kernel_size: 1
    weight_filler {
      type: "xavier"
      std: 0.2
    }
    bias_filler {
      type: "constant"
      value: 0.2
    }
  }
}
layer {
  name: "inception_3b/relu_5x5_reduce"
  type: "ReLU"
  bottom: "inception_3b/5x5_reduce"
  top: "inception_3b/5x5_reduce"
}
layer {
  name: "inception_3b/5x5"
  type: "Convolution"
  bottom: "inception_3b/5x5_reduce"
  top: "inception_3b/5x5"
  param {
    lr_mult: 1
    decay_mult: 1
  }
  param {
    lr_mult: 2
    decay_mult: 0
  }
  convolution_param {
    num_output: 96
    pad: 2
    kernel_size: 5
    weight_filler {
      type: "xavier"
      std: 0.03
    }
    bias_filler {
      type: "constant"
      value: 0.2
    }
  }
}
layer {
  name: "inception_3b/relu_5x5"
  type: "ReLU"
  bottom: "inception_3b/5x5"
  top: "inception_3b/5x5"
}
layer {
  name: "inception_3b/pool"
  type: "Pooling"
  bottom: "inception_3a/output"
  top: "inception_3b/pool"
  pooling_param {
    pool: MAX
    kernel_size: 3
    stride: 1
    pad: 1
  }
}
layer {
  name: "inception_3b/pool_proj"
  type: "Convolution"
  bottom: "inception_3b/pool"
  top: "inception_3b/pool_proj"
  param {
    lr_mult: 1
    decay_mult: 1
  }
  param {
    lr_mult: 2
    decay_mult: 0
  }
  convolution_param {
    num_output: 64
    kernel_size: 1
    weight_filler {
      type: "xavier"
      std: 0.1
    }
    bias_filler {
      type: "constant"
      value: 0.2
    }
  }
}
layer {
  name: "inception_3b/relu_pool_proj"
  type: "ReLU"
  bottom: "inception_3b/pool_proj"
  top: "inception_3b/pool_proj"
}
layer {
  name: "inception_3b/output"
  type: "Concat"
  bottom: "inception_3b/1x1"
  bottom: "inception_3b/3x3"
  bottom: "inception_3b/5x5"
  bottom: "inception_3b/pool_proj"
  top: "inception_3b/output"
}
layer {
  name: "pool3/3x3_s2"
  type: "Pooling"
  bottom: "inception_3b/output"
  top: "pool3/3x3_s2"
  pooling_param {
    pool: MAX
    kernel_size: 3
    stride: 2
  }
}
layer {
  name: "inception_4a/1x1"
  type: "Convolution"
  bottom: "pool3/3x3_s2"
  top: "inception_4a/1x1"
  param {
    lr_mult: 1
    decay_mult: 1
  }
  param {
    lr_mult: 2
    decay_mult: 0
  }
  convolution_param {
    num_output: 192
    kernel_size: 1
    weight_filler {
      type: "xavier"
      std: 0.03
    }
    bias_filler {
      type: "constant"
      value: 0.2
    }
  }
}
layer {
  name: "inception_4a/relu_1x1"
  type: "ReLU"
  bottom: "inception_4a/1x1"
  top: "inception_4a/1x1"
}
layer {
  name: "inception_4a/3x3_reduce"
  type: "Convolution"
  bottom: "pool3/3x3_s2"
  top: "inception_4a/3x3_reduce"
  param {
    lr_mult: 1
    decay_mult: 1
  }
  param {
    lr_mult: 2
    decay_mult: 0
  }
  convolution_param {
    num_output: 96
    kernel_size: 1
    weight_filler {
      type: "xavier"
      std: 0.09
    }
    bias_filler {
      type: "constant"
      value: 0.2
    }
  }
}
layer {
  name: "inception_4a/relu_3x3_reduce"
  type: "ReLU"
  bottom: "inception_4a/3x3_reduce"
  top: "inception_4a/3x3_reduce"
}
layer {
  name: "inception_4a/3x3"
  type: "Convolution"
  bottom: "inception_4a/3x3_reduce"
  top: "inception_4a/3x3"
  param {
    lr_mult: 1
    decay_mult: 1
  }
  param {
    lr_mult: 2
    decay_mult: 0
  }
  convolution_param {
    num_output: 208
    pad: 1
    kernel_size: 3
    weight_filler {
      type: "xavier"
      std: 0.03
    }
    bias_filler {
      type: "constant"
      value: 0.2
    }
  }
}
layer {
  name: "inception_4a/relu_3x3"
  type: "ReLU"
  bottom: "inception_4a/3x3"
  top: "inception_4a/3x3"
}
layer {
  name: "inception_4a/5x5_reduce"
  type: "Convolution"
  bottom: "pool3/3x3_s2"
  top: "inception_4a/5x5_reduce"
  param {
    lr_mult: 1
    decay_mult: 1
  }
  param {
    lr_mult: 2
    decay_mult: 0
  }
  convolution_param {
    num_output: 16
    kernel_size: 1
    weight_filler {
      type: "xavier"
      std: 0.2
    }
    bias_filler {
      type: "constant"
      value: 0.2
    }
  }
}
layer {
  name: "inception_4a/relu_5x5_reduce"
  type: "ReLU"
  bottom: "inception_4a/5x5_reduce"
  top: "inception_4a/5x5_reduce"
}
layer {
  name: "inception_4a/5x5"
  type: "Convolution"
  bottom: "inception_4a/5x5_reduce"
  top: "inception_4a/5x5"
  param {
    lr_mult: 1
    decay_mult: 1
  }
  param {
    lr_mult: 2
    decay_mult: 0
  }
  convolution_param {
    num_output: 48
    pad: 2
    kernel_size: 5
    weight_filler {
      type: "xavier"
      std: 0.03
    }
    bias_filler {
      type: "constant"
      value: 0.2
    }
  }
}
layer {
  name: "inception_4a/relu_5x5"
  type: "ReLU"
  bottom: "inception_4a/5x5"
  top: "inception_4a/5x5"
}
layer {
  name: "inception_4a/pool"
  type: "Pooling"
  bottom: "pool3/3x3_s2"
  top: "inception_4a/pool"
  pooling_param {
    pool: MAX
    kernel_size: 3
    stride: 1
    pad: 1
  }
}
layer {
  name: "inception_4a/pool_proj"
  type: "Convolution"
  bottom: "inception_4a/pool"
  top: "inception_4a/pool_proj"
  param {
    lr_mult: 1
    decay_mult: 1
  }
  param {
    lr_mult: 2
    decay_mult: 0
  }
  convolution_param {
    num_output: 64
    kernel_size: 1
    weight_filler {
      type: "xavier"
      std: 0.1
    }
    bias_filler {
      type: "constant"
      value: 0.2
    }
  }
}
layer {
  name: "inception_4a/relu_pool_proj"
  type: "ReLU"
  bottom: "inception_4a/pool_proj"
  top: "inception_4a/pool_proj"
}
layer {
  name: "inception_4a/output"
  type: "Concat"
  bottom: "inception_4a/1x1"
  bottom: "inception_4a/3x3"
  bottom: "inception_4a/5x5"
  bottom: "inception_4a/pool_proj"
  top: "inception_4a/output"
}
layer {
  name: "loss1/ave_pool"
  type: "Pooling"
  bottom: "inception_4a/output"
  top: "loss1/ave_pool"
  pooling_param {
    pool: AVE
    kernel_size: 5
    stride: 3
  }
}
layer {
  name: "loss1/conv"
  type: "Convolution"
  bottom: "loss1/ave_pool"
  top: "loss1/conv"
  param {
    lr_mult: 1
    decay_mult: 1
  }
  param {
    lr_mult: 2
    decay_mult: 0
  }
  convolution_param {
    num_output: 128
    kernel_size: 1
    weight_filler {
      type: "xavier"
      std: 0.08
    }
    bias_filler {
      type: "constant"
      value: 0.2
    }
  }
}
layer {
  name: "loss1/relu_conv"
  type: "ReLU"
  bottom: "loss1/conv"
  top: "loss1/conv"
}
layer {
  name: "loss1/fc"
  type: "InnerProduct"
  bottom: "loss1/conv"
  top: "loss1/fc"
  param {
    lr_mult: 1
    decay_mult: 1
  }
  param {
    lr_mult: 2
    decay_mult: 0
  }
  inner_product_param {
    num_output: 1024
    weight_filler {
      type: "xavier"
      std: 0.02
    }
    bias_filler {
      type: "constant"
      value: 0.2
    }
  }
}
layer {
  name: "loss1/relu_fc"
  type: "ReLU"
  bottom: "loss1/fc"
  top: "loss1/fc"
}
layer {
  name: "loss1/drop_fc"
  type: "Dropout"
  bottom: "loss1/fc"
  top: "loss1/fc"
  dropout_param {
    dropout_ratio: 0.7
  }
}
layer {
  name: "loss1/classifier_plantvillage"
  type: "InnerProduct"
  bottom: "loss1/fc"
  top: "loss1/classifier_plantvillage"
  param {
    lr_mult: 1
    decay_mult: 1
  }
  param {
    lr_mult: 2
    decay_mult: 0
  }
  inner_product_param {
    num_output: 38
    weight_filler {
      type: "xavier"
      std: 0.0009765625
    }
    bias_filler {
      type: "constant"
      value: 0
    }
  }
}
layer {
  name: "inception_4b/1x1"
  type: "Convolution"
  bottom: "inception_4a/output"
  top: "inception_4b/1x1"
  param {
    lr_mult: 1
    decay_mult: 1
  }
  param {
    lr_mult: 2
    decay_mult: 0
  }
  convolution_param {
    num_output: 160
    kernel_size: 1
    weight_filler {
      type: "xavier"
      std: 0.03
    }
    bias_filler {
      type: "constant"
      value: 0.2
    }
  }
}
layer {
  name: "inception_4b/relu_1x1"
  type: "ReLU"
  bottom: "inception_4b/1x1"
  top: "inception_4b/1x1"
}
layer {
  name: "inception_4b/3x3_reduce"
  type: "Convolution"
  bottom: "inception_4a/output"
  top: "inception_4b/3x3_reduce"
  param {
    lr_mult: 1
    decay_mult: 1
  }
  param {
    lr_mult: 2
    decay_mult: 0
  }
  convolution_param {
    num_output: 112
    kernel_size: 1
    weight_filler {
      type: "xavier"
      std: 0.09
    }
    bias_filler {
      type: "constant"
      value: 0.2
    }
  }
}
layer {
  name: "inception_4b/relu_3x3_reduce"
  type: "ReLU"
  bottom: "inception_4b/3x3_reduce"
  top: "inception_4b/3x3_reduce"
}
layer {
  name: "inception_4b/3x3"
  type: "Convolution"
  bottom: "inception_4b/3x3_reduce"
  top: "inception_4b/3x3"
  param {
    lr_mult: 1
    decay_mult: 1
  }
  param {
    lr_mult: 2
    decay_mult: 0
  }
  convolution_param {
    num_output: 224
    pad: 1
    kernel_size: 3
    weight_filler {
      type: "xavier"
      std: 0.03
    }
    bias_filler {
      type: "constant"
      value: 0.2
    }
  }
}
layer {
  name: "inception_4b/relu_3x3"
  type: "ReLU"
  bottom: "inception_4b/3x3"
  top: "inception_4b/3x3"
}
layer {
  name: "inception_4b/5x5_reduce"
  type: "Convolution"
  bottom: "inception_4a/output"
  top: "inception_4b/5x5_reduce"
  param {
    lr_mult: 1
    decay_mult: 1
  }
  param {
    lr_mult: 2
    decay_mult: 0
  }
  convolution_param {
    num_output: 24
    kernel_size: 1
    weight_filler {
      type: "xavier"
      std: 0.2
    }
    bias_filler {
      type: "constant"
      value: 0.2
    }
  }
}
layer {
  name: "inception_4b/relu_5x5_reduce"
  type: "ReLU"
  bottom: "inception_4b/5x5_reduce"
  top: "inception_4b/5x5_reduce"
}
layer {
  name: "inception_4b/5x5"
  type: "Convolution"
  bottom: "inception_4b/5x5_reduce"
  top: "inception_4b/5x5"
  param {
    lr_mult: 1
    decay_mult: 1
  }
  param {
    lr_mult: 2
    decay_mult: 0
  }
  convolution_param {
    num_output: 64
    pad: 2
    kernel_size: 5
    weight_filler {
      type: "xavier"
      std: 0.03
    }
    bias_filler {
      type: "constant"
      value: 0.2
    }
  }
}
layer {
  name: "inception_4b/relu_5x5"
  type: "ReLU"
  bottom: "inception_4b/5x5"
  top: "inception_4b/5x5"
}
layer {
  name: "inception_4b/pool"
  type: "Pooling"
  bottom: "inception_4a/output"
  top: "inception_4b/pool"
  pooling_param {
    pool: MAX
    kernel_size: 3
    stride: 1
    pad: 1
  }
}
layer {
  name: "inception_4b/pool_proj"
  type: "Convolution"
  bottom: "inception_4b/pool"
  top: "inception_4b/pool_proj"
  param {
    lr_mult: 1
    decay_mult: 1
  }
  param {
    lr_mult: 2
    decay_mult: 0
  }
  convolution_param {
    num_output: 64
    kernel_size: 1
    weight_filler {
      type: "xavier"
      std: 0.1
    }
    bias_filler {
      type: "constant"
      value: 0.2
    }
  }
}
layer {
  name: "inception_4b/relu_pool_proj"
  type: "ReLU"
  bottom: "inception_4b/pool_proj"
  top: "inception_4b/pool_proj"
}
layer {
  name: "inception_4b/output"
  type: "Concat"
  bottom: "inception_4b/1x1"
  bottom: "inception_4b/3x3"
  bottom: "inception_4b/5x5"
  bottom: "inception_4b/pool_proj"
  top: "inception_4b/output"
}
layer {
  name: "inception_4c/1x1"
  type: "Convolution"
  bottom: "inception_4b/output"
  top: "inception_4c/1x1"
  param {
    lr_mult: 1
    decay_mult: 1
  }
  param {
    lr_mult: 2
    decay_mult: 0
  }
  convolution_param {
    num_output: 128
    kernel_size: 1
    weight_filler {
      type: "xavier"
      std: 0.03
    }
    bias_filler {
      type: "constant"
      value: 0.2
    }
  }
}
layer {
  name: "inception_4c/relu_1x1"
  type: "ReLU"
  bottom: "inception_4c/1x1"
  top: "inception_4c/1x1"
}
layer {
  name: "inception_4c/3x3_reduce"
  type: "Convolution"
  bottom: "inception_4b/output"
  top: "inception_4c/3x3_reduce"
  param {
    lr_mult: 1
    decay_mult: 1
  }
  param {
    lr_mult: 2
    decay_mult: 0
  }
  convolution_param {
    num_output: 128
    kernel_size: 1
    weight_filler {
      type: "xavier"
      std: 0.09
    }
    bias_filler {
      type: "constant"
      value: 0.2
    }
  }
}
layer {
  name: "inception_4c/relu_3x3_reduce"
  type: "ReLU"
  bottom: "inception_4c/3x3_reduce"
  top: "inception_4c/3x3_reduce"
}
layer {
  name: "inception_4c/3x3"
  type: "Convolution"
  bottom: "inception_4c/3x3_reduce"
  top: "inception_4c/3x3"
  param {
    lr_mult: 1
    decay_mult: 1
  }
  param {
    lr_mult: 2
    decay_mult: 0
  }
  convolution_param {
    num_output: 256
    pad: 1
    kernel_size: 3
    weight_filler {
      type: "xavier"
      std: 0.03
    }
    bias_filler {
      type: "constant"
      value: 0.2
    }
  }
}
layer {
  name: "inception_4c/relu_3x3"
  type: "ReLU"
  bottom: "inception_4c/3x3"
  top: "inception_4c/3x3"
}
layer {
  name: "inception_4c/5x5_reduce"
  type: "Convolution"
  bottom: "inception_4b/output"
  top: "inception_4c/5x5_reduce"
  param {
    lr_mult: 1
    decay_mult: 1
  }
  param {
    lr_mult: 2
    decay_mult: 0
  }
  convolution_param {
    num_output: 24
    kernel_size: 1
    weight_filler {
      type: "xavier"
      std: 0.2
    }
    bias_filler {
      type: "constant"
      value: 0.2
    }
  }
}
layer {
  name: "inception_4c/relu_5x5_reduce"
  type: "ReLU"
  bottom: "inception_4c/5x5_reduce"
  top: "inception_4c/5x5_reduce"
}
layer {
  name: "inception_4c/5x5"
  type: "Convolution"
  bottom: "inception_4c/5x5_reduce"
  top: "inception_4c/5x5"
  param {
    lr_mult: 1
    decay_mult: 1
  }
  param {
    lr_mult: 2
    decay_mult: 0
  }
  convolution_param {
    num_output: 64
    pad: 2
    kernel_size: 5
    weight_filler {
      type: "xavier"
      std: 0.03
    }
    bias_filler {
      type: "constant"
      value: 0.2
    }
  }
}
layer {
  name: "inception_4c/relu_5x5"
  type: "ReLU"
  bottom: "inception_4c/5x5"
  top: "inception_4c/5x5"
}
layer {
  name: "inception_4c/pool"
  type: "Pooling"
  bottom: "inception_4b/output"
  top: "inception_4c/pool"
  pooling_param {
    pool: MAX
    kernel_size: 3
    stride: 1
    pad: 1
  }
}
layer {
  name: "inception_4c/pool_proj"
  type: "Convolution"
  bottom: "inception_4c/pool"
  top: "inception_4c/pool_proj"
  param {
    lr_mult: 1
    decay_mult: 1
  }
  param {
    lr_mult: 2
    decay_mult: 0
  }
  convolution_param {
    num_output: 64
    kernel_size: 1
    weight_filler {
      type: "xavier"
      std: 0.1
    }
    bias_filler {
      type: "constant"
      value: 0.2
    }
  }
}
layer {
  name: "inception_4c/relu_pool_proj"
  type: "ReLU"
  bottom: "inception_4c/pool_proj"
  top: "inception_4c/pool_proj"
}
layer {
  name: "inception_4c/output"
  type: "Concat"
  bottom: "inception_4c/1x1"
  bottom: "inception_4c/3x3"
  bottom: "inception_4c/5x5"
  bottom: "inception_4c/pool_proj"
  top: "inception_4c/output"
}
layer {
  name: "inception_4d/1x1"
  type: "Convolution"
  bottom: "inception_4c/output"
  top: "inception_4d/1x1"
  param {
    lr_mult: 1
    decay_mult: 1
  }
  param {
    lr_mult: 2
    decay_mult: 0
  }
  convolution_param {
    num_output: 112
    kernel_size: 1
    weight_filler {
      type: "xavier"
      std: 0.03
    }
    bias_filler {
      type: "constant"
      value: 0.2
    }
  }
}
layer {
  name: "inception_4d/relu_1x1"
  type: "ReLU"
  bottom: "inception_4d/1x1"
  top: "inception_4d/1x1"
}
layer {
  name: "inception_4d/3x3_reduce"
  type: "Convolution"
  bottom: "inception_4c/output"
  top: "inception_4d/3x3_reduce"
  param {
    lr_mult: 1
    decay_mult: 1
  }
  param {
    lr_mult: 2
    decay_mult: 0
  }
  convolution_param {
    num_output: 144
    kernel_size: 1
    weight_filler {
      type: "xavier"
      std: 0.09
    }
    bias_filler {
      type: "constant"
      value: 0.2
    }
  }
}
layer {
  name: "inception_4d/relu_3x3_reduce"
  type: "ReLU"
  bottom: "inception_4d/3x3_reduce"
  top: "inception_4d/3x3_reduce"
}
layer {
  name: "inception_4d/3x3"
  type: "Convolution"
  bottom: "inception_4d/3x3_reduce"
  top: "inception_4d/3x3"
  param {
    lr_mult: 1
    decay_mult: 1
  }
  param {
    lr_mult: 2
    decay_mult: 0
  }
  convolution_param {
    num_output: 288
    pad: 1
    kernel_size: 3
    weight_filler {
      type: "xavier"
      std: 0.03
    }
    bias_filler {
      type: "constant"
      value: 0.2
    }
  }
}
layer {
  name: "inception_4d/relu_3x3"
  type: "ReLU"
  bottom: "inception_4d/3x3"
  top: "inception_4d/3x3"
}
layer {
  name: "inception_4d/5x5_reduce"
  type: "Convolution"
  bottom: "inception_4c/output"
  top: "inception_4d/5x5_reduce"
  param {
    lr_mult: 1
    decay_mult: 1
  }
  param {
    lr_mult: 2
    decay_mult: 0
  }
  convolution_param {
    num_output: 32
    kernel_size: 1
    weight_filler {
      type: "xavier"
      std: 0.2
    }
    bias_filler {
      type: "constant"
      value: 0.2
    }
  }
}
layer {
  name: "inception_4d/relu_5x5_reduce"
  type: "ReLU"
  bottom: "inception_4d/5x5_reduce"
  top: "inception_4d/5x5_reduce"
}
layer {
  name: "inception_4d/5x5"
  type: "Convolution"
  bottom: "inception_4d/5x5_reduce"
  top: "inception_4d/5x5"
  param {
    lr_mult: 1
    decay_mult: 1
  }
  param {
    lr_mult: 2
    decay_mult: 0
  }
  convolution_param {
    num_output: 64
    pad: 2
    kernel_size: 5
    weight_filler {
      type: "xavier"
      std: 0.03
    }
    bias_filler {
      type: "constant"
      value: 0.2
    }
  }
}
layer {
  name: "inception_4d/relu_5x5"
  type: "ReLU"
  bottom: "inception_4d/5x5"
  top: "inception_4d/5x5"
}
layer {
  name: "inception_4d/pool"
  type: "Pooling"
  bottom: "inception_4c/output"
  top: "inception_4d/pool"
  pooling_param {
    pool: MAX
    kernel_size: 3
    stride: 1
    pad: 1
  }
}
layer {
  name: "inception_4d/pool_proj"
  type: "Convolution"
  bottom: "inception_4d/pool"
  top: "inception_4d/pool_proj"
  param {
    lr_mult: 1
    decay_mult: 1
  }
  param {
    lr_mult: 2
    decay_mult: 0
  }
  convolution_param {
    num_output: 64
    kernel_size: 1
    weight_filler {
      type: "xavier"
      std: 0.1
    }
    bias_filler {
      type: "constant"
      value: 0.2
    }
  }
}
layer {
  name: "inception_4d/relu_pool_proj"
  type: "ReLU"
  bottom: "inception_4d/pool_proj"
  top: "inception_4d/pool_proj"
}
layer {
  name: "inception_4d/output"
  type: "Concat"
  bottom: "inception_4d/1x1"
  bottom: "inception_4d/3x3"
  bottom: "inception_4d/5x5"
  bottom: "inception_4d/pool_proj"
  top: "inception_4d/output"
}
layer {
  name: "loss2/ave_pool"
  type: "Pooling"
  bottom: "inception_4d/output"
  top: "loss2/ave_pool"
  pooling_param {
    pool: AVE
    kernel_size: 5
    stride: 3
  }
}
layer {
  name: "loss2/conv"
  type: "Convolution"
  bottom: "loss2/ave_pool"
  top: "loss2/conv"
  param {
    lr_mult: 1
    decay_mult: 1
  }
  param {
    lr_mult: 2
    decay_mult: 0
  }
  convolution_param {
    num_output: 128
    kernel_size: 1
    weight_filler {
      type: "xavier"
      std: 0.08
    }
    bias_filler {
      type: "constant"
      value: 0.2
    }
  }
}
layer {
  name: "loss2/relu_conv"
  type: "ReLU"
  bottom: "loss2/conv"
  top: "loss2/conv"
}
layer {
  name: "loss2/fc"
  type: "InnerProduct"
  bottom: "loss2/conv"
  top: "loss2/fc"
  param {
    lr_mult: 1
    decay_mult: 1
  }
  param {
    lr_mult: 2
    decay_mult: 0
  }
  inner_product_param {
    num_output: 1024
    weight_filler {
      type: "xavier"
      std: 0.02
    }
    bias_filler {
      type: "constant"
      value: 0.2
    }
  }
}
layer {
  name: "loss2/relu_fc"
  type: "ReLU"
  bottom: "loss2/fc"
  top: "loss2/fc"
}
layer {
  name: "loss2/drop_fc"
  type: "Dropout"
  bottom: "loss2/fc"
  top: "loss2/fc"
  dropout_param {
    dropout_ratio: 0.7
  }
}
layer {
  name: "loss2/classifier_plantvillage"
  type: "InnerProduct"
  bottom: "loss2/fc"
  top: "loss2/classifier_plantvillage"
  param {
    lr_mult: 1
    decay_mult: 1
  }
  param {
    lr_mult: 2
    decay_mult: 0
  }
  inner_product_param {
    num_output: 38
    weight_filler {
      type: "xavier"
      std: 0.0009765625
    }
    bias_filler {
      type: "constant"
      value: 0
    }
  }
}
layer {
  name: "inception_4e/1x1"
  type: "Convolution"
  bottom: "inception_4d/output"
  top: "inception_4e/1x1"
  param {
    lr_mult: 1
    decay_mult: 1
  }
  param {
    lr_mult: 2
    decay_mult: 0
  }
  convolution_param {
    num_output: 256
    kernel_size: 1
    weight_filler {
      type: "xavier"
      std: 0.03
    }
    bias_filler {
      type: "constant"
      value: 0.2
    }
  }
}
layer {
  name: "inception_4e/relu_1x1"
  type: "ReLU"
  bottom: "inception_4e/1x1"
  top: "inception_4e/1x1"
}
layer {
  name: "inception_4e/3x3_reduce"
  type: "Convolution"
  bottom: "inception_4d/output"
  top: "inception_4e/3x3_reduce"
  param {
    lr_mult: 1
    decay_mult: 1
  }
  param {
    lr_mult: 2
    decay_mult: 0
  }
  convolution_param {
    num_output: 160
    kernel_size: 1
    weight_filler {
      type: "xavier"
      std: 0.09
    }
    bias_filler {
      type: "constant"
      value: 0.2
    }
  }
}
layer {
  name: "inception_4e/relu_3x3_reduce"
  type: "ReLU"
  bottom: "inception_4e/3x3_reduce"
  top: "inception_4e/3x3_reduce"
}
layer {
  name: "inception_4e/3x3"
  type: "Convolution"
  bottom: "inception_4e/3x3_reduce"
  top: "inception_4e/3x3"
  param {
    lr_mult: 1
    decay_mult: 1
  }
  param {
    lr_mult: 2
    decay_mult: 0
  }
  convolution_param {
    num_output: 320
    pad: 1
    kernel_size: 3
    weight_filler {
      type: "xavier"
      std: 0.03
    }
    bias_filler {
      type: "constant"
      value: 0.2
    }
  }
}
layer {
  name: "inception_4e/relu_3x3"
  type: "ReLU"
  bottom: "inception_4e/3x3"
  top: "inception_4e/3x3"
}
layer {
  name: "inception_4e/5x5_reduce"
  type: "Convolution"
  bottom: "inception_4d/output"
  top: "inception_4e/5x5_reduce"
  param {
    lr_mult: 1
    decay_mult: 1
  }
  param {
    lr_mult: 2
    decay_mult: 0
  }
  convolution_param {
    num_output: 32
    kernel_size: 1
    weight_filler {
      type: "xavier"
      std: 0.2
    }
    bias_filler {
      type: "constant"
      value: 0.2
    }
  }
}
layer {
  name: "inception_4e/relu_5x5_reduce"
  type: "ReLU"
  bottom: "inception_4e/5x5_reduce"
  top: "inception_4e/5x5_reduce"
}
layer {
  name: "inception_4e/5x5"
  type: "Convolution"
  bottom: "inception_4e/5x5_reduce"
  top: "inception_4e/5x5"
  p
I0403 20:07:29.687970 10608 layer_factory.hpp:77] Creating layer data
I0403 20:07:29.688726 10608 net.cpp:91] Creating Layer data
I0403 20:07:29.688763 10608 net.cpp:399] data -> data
I0403 20:07:29.688828 10608 net.cpp:399] data -> label
I0403 20:07:29.688874 10608 data_transformer.cpp:25] Loading mean file from: /home/mohanty/data/final_dataset/lmdb/color-50-50/mean.binaryproto
I0403 20:07:29.690150 10610 db_lmdb.cpp:38] Opened lmdb /home/mohanty/data/final_dataset/lmdb/color-50-50/test_db
I0403 20:07:29.705837 10608 data_layer.cpp:41] output data size: 24,3,224,224
I0403 20:07:29.738061 10608 net.cpp:141] Setting up data
I0403 20:07:29.738168 10608 net.cpp:148] Top shape: 24 3 224 224 (3612672)
I0403 20:07:29.738198 10608 net.cpp:148] Top shape: 24 (24)
I0403 20:07:29.738219 10608 net.cpp:156] Memory required for data: 14450784
I0403 20:07:29.738260 10608 layer_factory.hpp:77] Creating layer label_data_1_split
I0403 20:07:29.738297 10608 net.cpp:91] Creating Layer label_data_1_split
I0403 20:07:29.738320 10608 net.cpp:425] label_data_1_split <- label
I0403 20:07:29.738359 10608 net.cpp:399] label_data_1_split -> label_data_1_split_0
I0403 20:07:29.738394 10608 net.cpp:399] label_data_1_split -> label_data_1_split_1
I0403 20:07:29.738420 10608 net.cpp:399] label_data_1_split -> label_data_1_split_2
I0403 20:07:29.738450 10608 net.cpp:399] label_data_1_split -> label_data_1_split_3
I0403 20:07:29.738476 10608 net.cpp:399] label_data_1_split -> label_data_1_split_4
I0403 20:07:29.738500 10608 net.cpp:399] label_data_1_split -> label_data_1_split_5
I0403 20:07:29.738523 10608 net.cpp:399] label_data_1_split -> label_data_1_split_6
I0403 20:07:29.738550 10608 net.cpp:399] label_data_1_split -> label_data_1_split_7
I0403 20:07:29.738575 10608 net.cpp:399] label_data_1_split -> label_data_1_split_8
I0403 20:07:29.738600 10608 net.cpp:399] label_data_1_split -> label_data_1_split_9
I0403 20:07:29.738744 10608 net.cpp:141] Setting up label_data_1_split
I0403 20:07:29.738772 10608 net.cpp:148] Top shape: 24 (24)
I0403 20:07:29.738792 10608 net.cpp:148] Top shape: 24 (24)
I0403 20:07:29.738812 10608 net.cpp:148] Top shape: 24 (24)
I0403 20:07:29.738832 10608 net.cpp:148] Top shape: 24 (24)
I0403 20:07:29.738852 10608 net.cpp:148] Top shape: 24 (24)
I0403 20:07:29.738872 10608 net.cpp:148] Top shape: 24 (24)
I0403 20:07:29.738891 10608 net.cpp:148] Top shape: 24 (24)
I0403 20:07:29.738912 10608 net.cpp:148] Top shape: 24 (24)
I0403 20:07:29.738931 10608 net.cpp:148] Top shape: 24 (24)
I0403 20:07:29.738952 10608 net.cpp:148] Top shape: 24 (24)
I0403 20:07:29.739009 10608 net.cpp:156] Memory required for data: 14451744
I0403 20:07:29.739032 10608 layer_factory.hpp:77] Creating layer conv1/7x7_s2
I0403 20:07:29.739071 10608 net.cpp:91] Creating Layer conv1/7x7_s2
I0403 20:07:29.739094 10608 net.cpp:425] conv1/7x7_s2 <- data
I0403 20:07:29.739119 10608 net.cpp:399] conv1/7x7_s2 -> conv1/7x7_s2
I0403 20:07:29.907104 10608 net.cpp:141] Setting up conv1/7x7_s2
I0403 20:07:29.907222 10608 net.cpp:148] Top shape: 24 64 112 112 (19267584)
I0403 20:07:29.907249 10608 net.cpp:156] Memory required for data: 91522080
I0403 20:07:29.907290 10608 layer_factory.hpp:77] Creating layer conv1/relu_7x7
I0403 20:07:29.907325 10608 net.cpp:91] Creating Layer conv1/relu_7x7
I0403 20:07:29.907347 10608 net.cpp:425] conv1/relu_7x7 <- conv1/7x7_s2
I0403 20:07:29.907371 10608 net.cpp:386] conv1/relu_7x7 -> conv1/7x7_s2 (in-place)
I0403 20:07:29.907673 10608 net.cpp:141] Setting up conv1/relu_7x7
I0403 20:07:29.907706 10608 net.cpp:148] Top shape: 24 64 112 112 (19267584)
I0403 20:07:29.907727 10608 net.cpp:156] Memory required for data: 168592416
I0403 20:07:29.907747 10608 layer_factory.hpp:77] Creating layer pool1/3x3_s2
I0403 20:07:29.907776 10608 net.cpp:91] Creating Layer pool1/3x3_s2
I0403 20:07:29.907799 10608 net.cpp:425] pool1/3x3_s2 <- conv1/7x7_s2
I0403 20:07:29.907821 10608 net.cpp:399] pool1/3x3_s2 -> pool1/3x3_s2
I0403 20:07:29.907910 10608 net.cpp:141] Setting up pool1/3x3_s2
I0403 20:07:29.907939 10608 net.cpp:148] Top shape: 24 64 56 56 (4816896)
I0403 20:07:29.907958 10608 net.cpp:156] Memory required for data: 187860000
I0403 20:07:29.907979 10608 layer_factory.hpp:77] Creating layer pool1/norm1
I0403 20:07:29.908013 10608 net.cpp:91] Creating Layer pool1/norm1
I0403 20:07:29.908040 10608 net.cpp:425] pool1/norm1 <- pool1/3x3_s2
I0403 20:07:29.908063 10608 net.cpp:399] pool1/norm1 -> pool1/norm1
I0403 20:07:29.908406 10608 net.cpp:141] Setting up pool1/norm1
I0403 20:07:29.908438 10608 net.cpp:148] Top shape: 24 64 56 56 (4816896)
I0403 20:07:29.908458 10608 net.cpp:156] Memory required for data: 207127584
I0403 20:07:29.908478 10608 layer_factory.hpp:77] Creating layer conv2/3x3_reduce
I0403 20:07:29.908509 10608 net.cpp:91] Creating Layer conv2/3x3_reduce
I0403 20:07:29.908531 10608 net.cpp:425] conv2/3x3_reduce <- pool1/norm1
I0403 20:07:29.908555 10608 net.cpp:399] conv2/3x3_reduce -> conv2/3x3_reduce
I0403 20:07:29.910162 10608 net.cpp:141] Setting up conv2/3x3_reduce
I0403 20:07:29.910199 10608 net.cpp:148] Top shape: 24 64 56 56 (4816896)
I0403 20:07:29.910218 10608 net.cpp:156] Memory required for data: 226395168
I0403 20:07:29.910250 10608 layer_factory.hpp:77] Creating layer conv2/relu_3x3_reduce
I0403 20:07:29.910276 10608 net.cpp:91] Creating Layer conv2/relu_3x3_reduce
I0403 20:07:29.910297 10608 net.cpp:425] conv2/relu_3x3_reduce <- conv2/3x3_reduce
I0403 20:07:29.910320 10608 net.cpp:386] conv2/relu_3x3_reduce -> conv2/3x3_reduce (in-place)
I0403 20:07:29.910617 10608 net.cpp:141] Setting up conv2/relu_3x3_reduce
I0403 20:07:29.910650 10608 net.cpp:148] Top shape: 24 64 56 56 (4816896)
I0403 20:07:29.910670 10608 net.cpp:156] Memory required for data: 245662752
I0403 20:07:29.910688 10608 layer_factory.hpp:77] Creating layer conv2/3x3
I0403 20:07:29.910717 10608 net.cpp:91] Creating Layer conv2/3x3
I0403 20:07:29.910738 10608 net.cpp:425] conv2/3x3 <- conv2/3x3_reduce
I0403 20:07:29.910761 10608 net.cpp:399] conv2/3x3 -> conv2/3x3
I0403 20:07:29.913452 10608 net.cpp:141] Setting up conv2/3x3
I0403 20:07:29.913491 10608 net.cpp:148] Top shape: 24 192 56 56 (14450688)
I0403 20:07:29.913513 10608 net.cpp:156] Memory required for data: 303465504
I0403 20:07:29.913542 10608 layer_factory.hpp:77] Creating layer conv2/relu_3x3
I0403 20:07:29.913566 10608 net.cpp:91] Creating Layer conv2/relu_3x3
I0403 20:07:29.913586 10608 net.cpp:425] conv2/relu_3x3 <- conv2/3x3
I0403 20:07:29.913609 10608 net.cpp:386] conv2/relu_3x3 -> conv2/3x3 (in-place)
I0403 20:07:29.913807 10608 net.cpp:141] Setting up conv2/relu_3x3
I0403 20:07:29.913841 10608 net.cpp:148] Top shape: 24 192 56 56 (14450688)
I0403 20:07:29.913898 10608 net.cpp:156] Memory required for data: 361268256
I0403 20:07:29.913920 10608 layer_factory.hpp:77] Creating layer conv2/norm2
I0403 20:07:29.913944 10608 net.cpp:91] Creating Layer conv2/norm2
I0403 20:07:29.913965 10608 net.cpp:425] conv2/norm2 <- conv2/3x3
I0403 20:07:29.913988 10608 net.cpp:399] conv2/norm2 -> conv2/norm2
I0403 20:07:29.914335 10608 net.cpp:141] Setting up conv2/norm2
I0403 20:07:29.914372 10608 net.cpp:148] Top shape: 24 192 56 56 (14450688)
I0403 20:07:29.914393 10608 net.cpp:156] Memory required for data: 419071008
I0403 20:07:29.914414 10608 layer_factory.hpp:77] Creating layer pool2/3x3_s2
I0403 20:07:29.914438 10608 net.cpp:91] Creating Layer pool2/3x3_s2
I0403 20:07:29.914458 10608 net.cpp:425] pool2/3x3_s2 <- conv2/norm2
I0403 20:07:29.914481 10608 net.cpp:399] pool2/3x3_s2 -> pool2/3x3_s2
I0403 20:07:29.914544 10608 net.cpp:141] Setting up pool2/3x3_s2
I0403 20:07:29.914572 10608 net.cpp:148] Top shape: 24 192 28 28 (3612672)
I0403 20:07:29.914590 10608 net.cpp:156] Memory required for data: 433521696
I0403 20:07:29.914609 10608 layer_factory.hpp:77] Creating layer pool2/3x3_s2_pool2/3x3_s2_0_split
I0403 20:07:29.914631 10608 net.cpp:91] Creating Layer pool2/3x3_s2_pool2/3x3_s2_0_split
I0403 20:07:29.914651 10608 net.cpp:425] pool2/3x3_s2_pool2/3x3_s2_0_split <- pool2/3x3_s2
I0403 20:07:29.914672 10608 net.cpp:399] pool2/3x3_s2_pool2/3x3_s2_0_split -> pool2/3x3_s2_pool2/3x3_s2_0_split_0
I0403 20:07:29.914696 10608 net.cpp:399] pool2/3x3_s2_pool2/3x3_s2_0_split -> pool2/3x3_s2_pool2/3x3_s2_0_split_1
I0403 20:07:29.914721 10608 net.cpp:399] pool2/3x3_s2_pool2/3x3_s2_0_split -> pool2/3x3_s2_pool2/3x3_s2_0_split_2
I0403 20:07:29.914744 10608 net.cpp:399] pool2/3x3_s2_pool2/3x3_s2_0_split -> pool2/3x3_s2_pool2/3x3_s2_0_split_3
I0403 20:07:29.914821 10608 net.cpp:141] Setting up pool2/3x3_s2_pool2/3x3_s2_0_split
I0403 20:07:29.914847 10608 net.cpp:148] Top shape: 24 192 28 28 (3612672)
I0403 20:07:29.914868 10608 net.cpp:148] Top shape: 24 192 28 28 (3612672)
I0403 20:07:29.914890 10608 net.cpp:148] Top shape: 24 192 28 28 (3612672)
I0403 20:07:29.914911 10608 net.cpp:148] Top shape: 24 192 28 28 (3612672)
I0403 20:07:29.914927 10608 net.cpp:156] Memory required for data: 491324448
I0403 20:07:29.914945 10608 layer_factory.hpp:77] Creating layer inception_3a/1x1
I0403 20:07:29.914971 10608 net.cpp:91] Creating Layer inception_3a/1x1
I0403 20:07:29.914993 10608 net.cpp:425] inception_3a/1x1 <- pool2/3x3_s2_pool2/3x3_s2_0_split_0
I0403 20:07:29.915015 10608 net.cpp:399] inception_3a/1x1 -> inception_3a/1x1
I0403 20:07:29.916877 10608 net.cpp:141] Setting up inception_3a/1x1
I0403 20:07:29.916913 10608 net.cpp:148] Top shape: 24 64 28 28 (1204224)
I0403 20:07:29.916932 10608 net.cpp:156] Memory required for data: 496141344
I0403 20:07:29.916955 10608 layer_factory.hpp:77] Creating layer inception_3a/relu_1x1
I0403 20:07:29.916981 10608 net.cpp:91] Creating Layer inception_3a/relu_1x1
I0403 20:07:29.917002 10608 net.cpp:425] inception_3a/relu_1x1 <- inception_3a/1x1
I0403 20:07:29.917024 10608 net.cpp:386] inception_3a/relu_1x1 -> inception_3a/1x1 (in-place)
I0403 20:07:29.917248 10608 net.cpp:141] Setting up inception_3a/relu_1x1
I0403 20:07:29.917282 10608 net.cpp:148] Top shape: 24 64 28 28 (1204224)
I0403 20:07:29.917301 10608 net.cpp:156] Memory required for data: 500958240
I0403 20:07:29.917320 10608 layer_factory.hpp:77] Creating layer inception_3a/3x3_reduce
I0403 20:07:29.917347 10608 net.cpp:91] Creating Layer inception_3a/3x3_reduce
I0403 20:07:29.917371 10608 net.cpp:425] inception_3a/3x3_reduce <- pool2/3x3_s2_pool2/3x3_s2_0_split_1
I0403 20:07:29.917397 10608 net.cpp:399] inception_3a/3x3_reduce -> inception_3a/3x3_reduce
I0403 20:07:29.919430 10608 net.cpp:141] Setting up inception_3a/3x3_reduce
I0403 20:07:29.919467 10608 net.cpp:148] Top shape: 24 96 28 28 (1806336)
I0403 20:07:29.919486 10608 net.cpp:156] Memory required for data: 508183584
I0403 20:07:29.919517 10608 layer_factory.hpp:77] Creating layer inception_3a/relu_3x3_reduce
I0403 20:07:29.919560 10608 net.cpp:91] Creating Layer inception_3a/relu_3x3_reduce
I0403 20:07:29.919581 10608 net.cpp:425] inception_3a/relu_3x3_reduce <- inception_3a/3x3_reduce
I0403 20:07:29.919606 10608 net.cpp:386] inception_3a/relu_3x3_reduce -> inception_3a/3x3_reduce (in-place)
I0403 20:07:29.919829 10608 net.cpp:141] Setting up inception_3a/relu_3x3_reduce
I0403 20:07:29.919862 10608 net.cpp:148] Top shape: 24 96 28 28 (1806336)
I0403 20:07:29.919879 10608 net.cpp:156] Memory required for data: 515408928
I0403 20:07:29.919898 10608 layer_factory.hpp:77] Creating layer inception_3a/3x3
I0403 20:07:29.919925 10608 net.cpp:91] Creating Layer inception_3a/3x3
I0403 20:07:29.919947 10608 net.cpp:425] inception_3a/3x3 <- inception_3a/3x3_reduce
I0403 20:07:29.919976 10608 net.cpp:399] inception_3a/3x3 -> inception_3a/3x3
I0403 20:07:29.921993 10608 net.cpp:141] Setting up inception_3a/3x3
I0403 20:07:29.922032 10608 net.cpp:148] Top shape: 24 128 28 28 (2408448)
I0403 20:07:29.922054 10608 net.cpp:156] Memory required for data: 525042720
I0403 20:07:29.922076 10608 layer_factory.hpp:77] Creating layer inception_3a/relu_3x3
I0403 20:07:29.922101 10608 net.cpp:91] Creating Layer inception_3a/relu_3x3
I0403 20:07:29.922121 10608 net.cpp:425] inception_3a/relu_3x3 <- inception_3a/3x3
I0403 20:07:29.922145 10608 net.cpp:386] inception_3a/relu_3x3 -> inception_3a/3x3 (in-place)
I0403 20:07:29.922487 10608 net.cpp:141] Setting up inception_3a/relu_3x3
I0403 20:07:29.922523 10608 net.cpp:148] Top shape: 24 128 28 28 (2408448)
I0403 20:07:29.922554 10608 net.cpp:156] Memory required for data: 534676512
I0403 20:07:29.922572 10608 layer_factory.hpp:77] Creating layer inception_3a/5x5_reduce
I0403 20:07:29.922600 10608 net.cpp:91] Creating Layer inception_3a/5x5_reduce
I0403 20:07:29.922622 10608 net.cpp:425] inception_3a/5x5_reduce <- pool2/3x3_s2_pool2/3x3_s2_0_split_2
I0403 20:07:29.922647 10608 net.cpp:399] inception_3a/5x5_reduce -> inception_3a/5x5_reduce
I0403 20:07:29.923806 10608 net.cpp:141] Setting up inception_3a/5x5_reduce
I0403 20:07:29.923843 10608 net.cpp:148] Top shape: 24 16 28 28 (301056)
I0403 20:07:29.923864 10608 net.cpp:156] Memory required for data: 535880736
I0403 20:07:29.923887 10608 layer_factory.hpp:77] Creating layer inception_3a/relu_5x5_reduce
I0403 20:07:29.923910 10608 net.cpp:91] Creating Layer inception_3a/relu_5x5_reduce
I0403 20:07:29.923931 10608 net.cpp:425] inception_3a/relu_5x5_reduce <- inception_3a/5x5_reduce
I0403 20:07:29.923956 10608 net.cpp:386] inception_3a/relu_5x5_reduce -> inception_3a/5x5_reduce (in-place)
I0403 20:07:29.924299 10608 net.cpp:141] Setting up inception_3a/relu_5x5_reduce
I0403 20:07:29.924330 10608 net.cpp:148] Top shape: 24 16 28 28 (301056)
I0403 20:07:29.924350 10608 net.cpp:156] Memory required for data: 537084960
I0403 20:07:29.924370 10608 layer_factory.hpp:77] Creating layer inception_3a/5x5
I0403 20:07:29.924396 10608 net.cpp:91] Creating Layer inception_3a/5x5
I0403 20:07:29.924417 10608 net.cpp:425] inception_3a/5x5 <- inception_3a/5x5_reduce
I0403 20:07:29.924449 10608 net.cpp:399] inception_3a/5x5 -> inception_3a/5x5
I0403 20:07:29.925668 10608 net.cpp:141] Setting up inception_3a/5x5
I0403 20:07:29.925704 10608 net.cpp:148] Top shape: 24 32 28 28 (602112)
I0403 20:07:29.925722 10608 net.cpp:156] Memory required for data: 539493408
I0403 20:07:29.925745 10608 layer_factory.hpp:77] Creating layer inception_3a/relu_5x5
I0403 20:07:29.925770 10608 net.cpp:91] Creating Layer inception_3a/relu_5x5
I0403 20:07:29.925791 10608 net.cpp:425] inception_3a/relu_5x5 <- inception_3a/5x5
I0403 20:07:29.925812 10608 net.cpp:386] inception_3a/relu_5x5 -> inception_3a/5x5 (in-place)
I0403 20:07:29.926022 10608 net.cpp:141] Setting up inception_3a/relu_5x5
I0403 20:07:29.926051 10608 net.cpp:148] Top shape: 24 32 28 28 (602112)
I0403 20:07:29.926070 10608 net.cpp:156] Memory required for data: 541901856
I0403 20:07:29.926090 10608 layer_factory.hpp:77] Creating layer inception_3a/pool
I0403 20:07:29.926111 10608 net.cpp:91] Creating Layer inception_3a/pool
I0403 20:07:29.926131 10608 net.cpp:425] inception_3a/pool <- pool2/3x3_s2_pool2/3x3_s2_0_split_3
I0403 20:07:29.926174 10608 net.cpp:399] inception_3a/pool -> inception_3a/pool
I0403 20:07:29.926252 10608 net.cpp:141] Setting up inception_3a/pool
I0403 20:07:29.926281 10608 net.cpp:148] Top shape: 24 192 28 28 (3612672)
I0403 20:07:29.926301 10608 net.cpp:156] Memory required for data: 556352544
I0403 20:07:29.926318 10608 layer_factory.hpp:77] Creating layer inception_3a/pool_proj
I0403 20:07:29.926349 10608 net.cpp:91] Creating Layer inception_3a/pool_proj
I0403 20:07:29.926372 10608 net.cpp:425] inception_3a/pool_proj <- inception_3a/pool
I0403 20:07:29.926394 10608 net.cpp:399] inception_3a/pool_proj -> inception_3a/pool_proj
I0403 20:07:29.927552 10608 net.cpp:141] Setting up inception_3a/pool_proj
I0403 20:07:29.927587 10608 net.cpp:148] Top shape: 24 32 28 28 (602112)
I0403 20:07:29.927606 10608 net.cpp:156] Memory required for data: 558760992
I0403 20:07:29.927634 10608 layer_factory.hpp:77] Creating layer inception_3a/relu_pool_proj
I0403 20:07:29.927660 10608 net.cpp:91] Creating Layer inception_3a/relu_pool_proj
I0403 20:07:29.927680 10608 net.cpp:425] inception_3a/relu_pool_proj <- inception_3a/pool_proj
I0403 20:07:29.927706 10608 net.cpp:386] inception_3a/relu_pool_proj -> inception_3a/pool_proj (in-place)
I0403 20:07:29.928030 10608 net.cpp:141] Setting up inception_3a/relu_pool_proj
I0403 20:07:29.928066 10608 net.cpp:148] Top shape: 24 32 28 28 (602112)
I0403 20:07:29.928086 10608 net.cpp:156] Memory required for data: 561169440
I0403 20:07:29.928104 10608 layer_factory.hpp:77] Creating layer inception_3a/output
I0403 20:07:29.928127 10608 net.cpp:91] Creating Layer inception_3a/output
I0403 20:07:29.928146 10608 net.cpp:425] inception_3a/output <- inception_3a/1x1
I0403 20:07:29.928169 10608 net.cpp:425] inception_3a/output <- inception_3a/3x3
I0403 20:07:29.928187 10608 net.cpp:425] inception_3a/output <- inception_3a/5x5
I0403 20:07:29.928207 10608 net.cpp:425] inception_3a/output <- inception_3a/pool_proj
I0403 20:07:29.928228 10608 net.cpp:399] inception_3a/output -> inception_3a/output
I0403 20:07:29.928293 10608 net.cpp:141] Setting up inception_3a/output
I0403 20:07:29.928323 10608 net.cpp:148] Top shape: 24 256 28 28 (4816896)
I0403 20:07:29.928341 10608 net.cpp:156] Memory required for data: 580437024
I0403 20:07:29.928359 10608 layer_factory.hpp:77] Creating layer inception_3a/output_inception_3a/output_0_split
I0403 20:07:29.928380 10608 net.cpp:91] Creating Layer inception_3a/output_inception_3a/output_0_split
I0403 20:07:29.928398 10608 net.cpp:425] inception_3a/output_inception_3a/output_0_split <- inception_3a/output
I0403 20:07:29.928427 10608 net.cpp:399] inception_3a/output_inception_3a/output_0_split -> inception_3a/output_inception_3a/output_0_split_0
I0403 20:07:29.928454 10608 net.cpp:399] inception_3a/output_inception_3a/output_0_split -> inception_3a/output_inception_3a/output_0_split_1
I0403 20:07:29.928486 10608 net.cpp:399] inception_3a/output_inception_3a/output_0_split -> inception_3a/output_inception_3a/output_0_split_2
I0403 20:07:29.928514 10608 net.cpp:399] inception_3a/output_inception_3a/output_0_split -> inception_3a/output_inception_3a/output_0_split_3
I0403 20:07:29.928602 10608 net.cpp:141] Setting up inception_3a/output_inception_3a/output_0_split
I0403 20:07:29.928629 10608 net.cpp:148] Top shape: 24 256 28 28 (4816896)
I0403 20:07:29.928653 10608 net.cpp:148] Top shape: 24 256 28 28 (4816896)
I0403 20:07:29.928673 10608 net.cpp:148] Top shape: 24 256 28 28 (4816896)
I0403 20:07:29.928694 10608 net.cpp:148] Top shape: 24 256 28 28 (4816896)
I0403 20:07:29.928710 10608 net.cpp:156] Memory required for data: 657507360
I0403 20:07:29.928730 10608 layer_factory.hpp:77] Creating layer inception_3b/1x1
I0403 20:07:29.928755 10608 net.cpp:91] Creating Layer inception_3b/1x1
I0403 20:07:29.928776 10608 net.cpp:425] inception_3b/1x1 <- inception_3a/output_inception_3a/output_0_split_0
I0403 20:07:29.928802 10608 net.cpp:399] inception_3b/1x1 -> inception_3b/1x1
I0403 20:07:29.930172 10608 net.cpp:141] Setting up inception_3b/1x1
I0403 20:07:29.930222 10608 net.cpp:148] Top shape: 24 128 28 28 (2408448)
I0403 20:07:29.930246 10608 net.cpp:156] Memory required for data: 667141152
I0403 20:07:29.930270 10608 layer_factory.hpp:77] Creating layer inception_3b/relu_1x1
I0403 20:07:29.930297 10608 net.cpp:91] Creating Layer inception_3b/relu_1x1
I0403 20:07:29.930317 10608 net.cpp:425] inception_3b/relu_1x1 <- inception_3b/1x1
I0403 20:07:29.930340 10608 net.cpp:386] inception_3b/relu_1x1 -> inception_3b/1x1 (in-place)
I0403 20:07:29.930554 10608 net.cpp:141] Setting up inception_3b/relu_1x1
I0403 20:07:29.930588 10608 net.cpp:148] Top shape: 24 128 28 28 (2408448)
I0403 20:07:29.930608 10608 net.cpp:156] Memory required for data: 676774944
I0403 20:07:29.930625 10608 layer_factory.hpp:77] Creating layer inception_3b/3x3_reduce
I0403 20:07:29.930654 10608 net.cpp:91] Creating Layer inception_3b/3x3_reduce
I0403 20:07:29.930675 10608 net.cpp:425] inception_3b/3x3_reduce <- inception_3a/output_inception_3a/output_0_split_1
I0403 20:07:29.930698 10608 net.cpp:399] inception_3b/3x3_reduce -> inception_3b/3x3_reduce
I0403 20:07:29.932071 10608 net.cpp:141] Setting up inception_3b/3x3_reduce
I0403 20:07:29.932106 10608 net.cpp:148] Top shape: 24 128 28 28 (2408448)
I0403 20:07:29.932126 10608 net.cpp:156] Memory required for data: 686408736
I0403 20:07:29.932148 10608 layer_factory.hpp:77] Creating layer inception_3b/relu_3x3_reduce
I0403 20:07:29.932174 10608 net.cpp:91] Creating Layer inception_3b/relu_3x3_reduce
I0403 20:07:29.932196 10608 net.cpp:425] inception_3b/relu_3x3_reduce <- inception_3b/3x3_reduce
I0403 20:07:29.932217 10608 net.cpp:386] inception_3b/relu_3x3_reduce -> inception_3b/3x3_reduce (in-place)
I0403 20:07:29.932441 10608 net.cpp:141] Setting up inception_3b/relu_3x3_reduce
I0403 20:07:29.932476 10608 net.cpp:148] Top shape: 24 128 28 28 (2408448)
I0403 20:07:29.932495 10608 net.cpp:156] Memory required for data: 696042528
I0403 20:07:29.932513 10608 layer_factory.hpp:77] Creating layer inception_3b/3x3
I0403 20:07:29.932544 10608 net.cpp:91] Creating Layer inception_3b/3x3
I0403 20:07:29.932566 10608 net.cpp:425] inception_3b/3x3 <- inception_3b/3x3_reduce
I0403 20:07:29.932596 10608 net.cpp:399] inception_3b/3x3 -> inception_3b/3x3
I0403 20:07:29.936116 10608 net.cpp:141] Setting up inception_3b/3x3
I0403 20:07:29.936156 10608 net.cpp:148] Top shape: 24 192 28 28 (3612672)
I0403 20:07:29.936175 10608 net.cpp:156] Memory required for data: 710493216
I0403 20:07:29.936199 10608 layer_factory.hpp:77] Creating layer inception_3b/relu_3x3
I0403 20:07:29.936223 10608 net.cpp:91] Creating Layer inception_3b/relu_3x3
I0403 20:07:29.936249 10608 net.cpp:425] inception_3b/relu_3x3 <- inception_3b/3x3
I0403 20:07:29.936277 10608 net.cpp:386] inception_3b/relu_3x3 -> inception_3b/3x3 (in-place)
I0403 20:07:29.936605 10608 net.cpp:141] Setting up inception_3b/relu_3x3
I0403 20:07:29.936640 10608 net.cpp:148] Top shape: 24 192 28 28 (3612672)
I0403 20:07:29.936661 10608 net.cpp:156] Memory required for data: 724943904
I0403 20:07:29.936679 10608 layer_factory.hpp:77] Creating layer inception_3b/5x5_reduce
I0403 20:07:29.936708 10608 net.cpp:91] Creating Layer inception_3b/5x5_reduce
I0403 20:07:29.936731 10608 net.cpp:425] inception_3b/5x5_reduce <- inception_3a/output_inception_3a/output_0_split_2
I0403 20:07:29.936754 10608 net.cpp:399] inception_3b/5x5_reduce -> inception_3b/5x5_reduce
I0403 20:07:29.937947 10608 net.cpp:141] Setting up inception_3b/5x5_reduce
I0403 20:07:29.937981 10608 net.cpp:148] Top shape: 24 32 28 28 (602112)
I0403 20:07:29.938001 10608 net.cpp:156] Memory required for data: 727352352
I0403 20:07:29.938024 10608 layer_factory.hpp:77] Creating layer inception_3b/relu_5x5_reduce
I0403 20:07:29.938050 10608 net.cpp:91] Creating Layer inception_3b/relu_5x5_reduce
I0403 20:07:29.938069 10608 net.cpp:425] inception_3b/relu_5x5_reduce <- inception_3b/5x5_reduce
I0403 20:07:29.938091 10608 net.cpp:386] inception_3b/relu_5x5_reduce -> inception_3b/5x5_reduce (in-place)
I0403 20:07:29.938321 10608 net.cpp:141] Setting up inception_3b/relu_5x5_reduce
I0403 20:07:29.938366 10608 net.cpp:148] Top shape: 24 32 28 28 (602112)
I0403 20:07:29.938386 10608 net.cpp:156] Memory required for data: 729760800
I0403 20:07:29.938405 10608 layer_factory.hpp:77] Creating layer inception_3b/5x5
I0403 20:07:29.938433 10608 net.cpp:91] Creating Layer inception_3b/5x5
I0403 20:07:29.938454 10608 net.cpp:425] inception_3b/5x5 <- inception_3b/5x5_reduce
I0403 20:07:29.938480 10608 net.cpp:399] inception_3b/5x5 -> inception_3b/5x5
I0403 20:07:29.940835 10608 net.cpp:141] Setting up inception_3b/5x5
I0403 20:07:29.940881 10608 net.cpp:148] Top shape: 24 96 28 28 (1806336)
I0403 20:07:29.940901 10608 net.cpp:156] Memory required for data: 736986144
I0403 20:07:29.940923 10608 layer_factory.hpp:77] Creating layer inception_3b/relu_5x5
I0403 20:07:29.940949 10608 net.cpp:91] Creating Layer inception_3b/relu_5x5
I0403 20:07:29.940970 10608 net.cpp:425] inception_3b/relu_5x5 <- inception_3b/5x5
I0403 20:07:29.940994 10608 net.cpp:386] inception_3b/relu_5x5 -> inception_3b/5x5 (in-place)
I0403 20:07:29.941232 10608 net.cpp:141] Setting up inception_3b/relu_5x5
I0403 20:07:29.941269 10608 net.cpp:148] Top shape: 24 96 28 28 (1806336)
I0403 20:07:29.941289 10608 net.cpp:156] Memory required for data: 744211488
I0403 20:07:29.941306 10608 layer_factory.hpp:77] Creating layer inception_3b/pool
I0403 20:07:29.941330 10608 net.cpp:91] Creating Layer inception_3b/pool
I0403 20:07:29.941349 10608 net.cpp:425] inception_3b/pool <- inception_3a/output_inception_3a/output_0_split_3
I0403 20:07:29.941375 10608 net.cpp:399] inception_3b/pool -> inception_3b/pool
I0403 20:07:29.941442 10608 net.cpp:141] Setting up inception_3b/pool
I0403 20:07:29.941470 10608 net.cpp:148] Top shape: 24 256 28 28 (4816896)
I0403 20:07:29.941489 10608 net.cpp:156] Memory required for data: 763479072
I0403 20:07:29.941507 10608 layer_factory.hpp:77] Creating layer inception_3b/pool_proj
I0403 20:07:29.941534 10608 net.cpp:91] Creating Layer inception_3b/pool_proj
I0403 20:07:29.941556 10608 net.cpp:425] inception_3b/pool_proj <- inception_3b/pool
I0403 20:07:29.941581 10608 net.cpp:399] inception_3b/pool_proj -> inception_3b/pool_proj
I0403 20:07:29.942867 10608 net.cpp:141] Setting up inception_3b/pool_proj
I0403 20:07:29.942903 10608 net.cpp:148] Top shape: 24 64 28 28 (1204224)
I0403 20:07:29.942924 10608 net.cpp:156] Memory required for data: 768295968
I0403 20:07:29.942946 10608 layer_factory.hpp:77] Creating layer inception_3b/relu_pool_proj
I0403 20:07:29.942968 10608 net.cpp:91] Creating Layer inception_3b/relu_pool_proj
I0403 20:07:29.942989 10608 net.cpp:425] inception_3b/relu_pool_proj <- inception_3b/pool_proj
I0403 20:07:29.943016 10608 net.cpp:386] inception_3b/relu_pool_proj -> inception_3b/pool_proj (in-place)
I0403 20:07:29.943469 10608 net.cpp:141] Setting up inception_3b/relu_pool_proj
I0403 20:07:29.943506 10608 net.cpp:148] Top shape: 24 64 28 28 (1204224)
I0403 20:07:29.943526 10608 net.cpp:156] Memory required for data: 773112864
I0403 20:07:29.943544 10608 layer_factory.hpp:77] Creating layer inception_3b/output
I0403 20:07:29.943567 10608 net.cpp:91] Creating Layer inception_3b/output
I0403 20:07:29.943585 10608 net.cpp:425] inception_3b/output <- inception_3b/1x1
I0403 20:07:29.943608 10608 net.cpp:425] inception_3b/output <- inception_3b/3x3
I0403 20:07:29.943627 10608 net.cpp:425] inception_3b/output <- inception_3b/5x5
I0403 20:07:29.943647 10608 net.cpp:425] inception_3b/output <- inception_3b/pool_proj
I0403 20:07:29.943670 10608 net.cpp:399] inception_3b/output -> inception_3b/output
I0403 20:07:29.943724 10608 net.cpp:141] Setting up inception_3b/output
I0403 20:07:29.943753 10608 net.cpp:148] Top shape: 24 480 28 28 (9031680)
I0403 20:07:29.943773 10608 net.cpp:156] Memory required for data: 809239584
I0403 20:07:29.943791 10608 layer_factory.hpp:77] Creating layer pool3/3x3_s2
I0403 20:07:29.943819 10608 net.cpp:91] Creating Layer pool3/3x3_s2
I0403 20:07:29.943840 10608 net.cpp:425] pool3/3x3_s2 <- inception_3b/output
I0403 20:07:29.943863 10608 net.cpp:399] pool3/3x3_s2 -> pool3/3x3_s2
I0403 20:07:29.943953 10608 net.cpp:141] Setting up pool3/3x3_s2
I0403 20:07:29.943981 10608 net.cpp:148] Top shape: 24 480 14 14 (2257920)
I0403 20:07:29.944000 10608 net.cpp:156] Memory required for data: 818271264
I0403 20:07:29.944017 10608 layer_factory.hpp:77] Creating layer pool3/3x3_s2_pool3/3x3_s2_0_split
I0403 20:07:29.944039 10608 net.cpp:91] Creating Layer pool3/3x3_s2_pool3/3x3_s2_0_split
I0403 20:07:29.944061 10608 net.cpp:425] pool3/3x3_s2_pool3/3x3_s2_0_split <- pool3/3x3_s2
I0403 20:07:29.944083 10608 net.cpp:399] pool3/3x3_s2_pool3/3x3_s2_0_split -> pool3/3x3_s2_pool3/3x3_s2_0_split_0
I0403 20:07:29.944108 10608 net.cpp:399] pool3/3x3_s2_pool3/3x3_s2_0_split -> pool3/3x3_s2_pool3/3x3_s2_0_split_1
I0403 20:07:29.944133 10608 net.cpp:399] pool3/3x3_s2_pool3/3x3_s2_0_split -> pool3/3x3_s2_pool3/3x3_s2_0_split_2
I0403 20:07:29.944156 10608 net.cpp:399] pool3/3x3_s2_pool3/3x3_s2_0_split -> pool3/3x3_s2_pool3/3x3_s2_0_split_3
I0403 20:07:29.944253 10608 net.cpp:141] Setting up pool3/3x3_s2_pool3/3x3_s2_0_split
I0403 20:07:29.944283 10608 net.cpp:148] Top shape: 24 480 14 14 (2257920)
I0403 20:07:29.944303 10608 net.cpp:148] Top shape: 24 480 14 14 (2257920)
I0403 20:07:29.944324 10608 net.cpp:148] Top shape: 24 480 14 14 (2257920)
I0403 20:07:29.944344 10608 net.cpp:148] Top shape: 24 480 14 14 (2257920)
I0403 20:07:29.944362 10608 net.cpp:156] Memory required for data: 854397984
I0403 20:07:29.944380 10608 layer_factory.hpp:77] Creating layer inception_4a/1x1
I0403 20:07:29.944408 10608 net.cpp:91] Creating Layer inception_4a/1x1
I0403 20:07:29.944430 10608 net.cpp:425] inception_4a/1x1 <- pool3/3x3_s2_pool3/3x3_s2_0_split_0
I0403 20:07:29.944458 10608 net.cpp:399] inception_4a/1x1 -> inception_4a/1x1
I0403 20:07:29.946372 10608 net.cpp:141] Setting up inception_4a/1x1
I0403 20:07:29.946406 10608 net.cpp:148] Top shape: 24 192 14 14 (903168)
I0403 20:07:29.946427 10608 net.cpp:156] Memory required for data: 858010656
I0403 20:07:29.946450 10608 layer_factory.hpp:77] Creating layer inception_4a/relu_1x1
I0403 20:07:29.946475 10608 net.cpp:91] Creating Layer inception_4a/relu_1x1
I0403 20:07:29.946496 10608 net.cpp:425] inception_4a/relu_1x1 <- inception_4a/1x1
I0403 20:07:29.946521 10608 net.cpp:386] inception_4a/relu_1x1 -> inception_4a/1x1 (in-place)
I0403 20:07:29.946741 10608 net.cpp:141] Setting up inception_4a/relu_1x1
I0403 20:07:29.946774 10608 net.cpp:148] Top shape: 24 192 14 14 (903168)
I0403 20:07:29.946791 10608 net.cpp:156] Memory required for data: 861623328
I0403 20:07:29.946810 10608 layer_factory.hpp:77] Creating layer inception_4a/3x3_reduce
I0403 20:07:29.946838 10608 net.cpp:91] Creating Layer inception_4a/3x3_reduce
I0403 20:07:29.946861 10608 net.cpp:425] inception_4a/3x3_reduce <- pool3/3x3_s2_pool3/3x3_s2_0_split_1
I0403 20:07:29.946887 10608 net.cpp:399] inception_4a/3x3_reduce -> inception_4a/3x3_reduce
I0403 20:07:29.948437 10608 net.cpp:141] Setting up inception_4a/3x3_reduce
I0403 20:07:29.948472 10608 net.cpp:148] Top shape: 24 96 14 14 (451584)
I0403 20:07:29.948492 10608 net.cpp:156] Memory required for data: 863429664
I0403 20:07:29.948523 10608 layer_factory.hpp:77] Creating layer inception_4a/relu_3x3_reduce
I0403 20:07:29.948549 10608 net.cpp:91] Creating Layer inception_4a/relu_3x3_reduce
I0403 20:07:29.948570 10608 net.cpp:425] inception_4a/relu_3x3_reduce <- inception_4a/3x3_reduce
I0403 20:07:29.948596 10608 net.cpp:386] inception_4a/relu_3x3_reduce -> inception_4a/3x3_reduce (in-place)
I0403 20:07:29.948809 10608 net.cpp:141] Setting up inception_4a/relu_3x3_reduce
I0403 20:07:29.948839 10608 net.cpp:148] Top shape: 24 96 14 14 (451584)
I0403 20:07:29.948858 10608 net.cpp:156] Memory required for data: 865236000
I0403 20:07:29.948879 10608 layer_factory.hpp:77] Creating layer inception_4a/3x3
I0403 20:07:29.948906 10608 net.cpp:91] Creating Layer inception_4a/3x3
I0403 20:07:29.948927 10608 net.cpp:425] inception_4a/3x3 <- inception_4a/3x3_reduce
I0403 20:07:29.948953 10608 net.cpp:399] inception_4a/3x3 -> inception_4a/3x3
I0403 20:07:29.952215 10608 net.cpp:141] Setting up inception_4a/3x3
I0403 20:07:29.952265 10608 net.cpp:148] Top shape: 24 208 14 14 (978432)
I0403 20:07:29.952287 10608 net.cpp:156] Memory required for data: 869149728
I0403 20:07:29.952311 10608 layer_factory.hpp:77] Creating layer inception_4a/relu_3x3
I0403 20:07:29.952337 10608 net.cpp:91] Creating Layer inception_4a/relu_3x3
I0403 20:07:29.952358 10608 net.cpp:425] inception_4a/relu_3x3 <- inception_4a/3x3
I0403 20:07:29.952380 10608 net.cpp:386] inception_4a/relu_3x3 -> inception_4a/3x3 (in-place)
I0403 20:07:29.952716 10608 net.cpp:141] Setting up inception_4a/relu_3x3
I0403 20:07:29.952750 10608 net.cpp:148] Top shape: 24 208 14 14 (978432)
I0403 20:07:29.952769 10608 net.cpp:156] Memory required for data: 873063456
I0403 20:07:29.952788 10608 layer_factory.hpp:77] Creating layer inception_4a/5x5_reduce
I0403 20:07:29.952817 10608 net.cpp:91] Creating Layer inception_4a/5x5_reduce
I0403 20:07:29.952841 10608 net.cpp:425] inception_4a/5x5_reduce <- pool3/3x3_s2_pool3/3x3_s2_0_split_2
I0403 20:07:29.952868 10608 net.cpp:399] inception_4a/5x5_reduce -> inception_4a/5x5_reduce
I0403 20:07:29.954099 10608 net.cpp:141] Setting up inception_4a/5x5_reduce
I0403 20:07:29.954134 10608 net.cpp:148] Top shape: 24 16 14 14 (75264)
I0403 20:07:29.954154 10608 net.cpp:156] Memory required for data: 873364512
I0403 20:07:29.954179 10608 layer_factory.hpp:77] Creating layer inception_4a/relu_5x5_reduce
I0403 20:07:29.954205 10608 net.cpp:91] Creating Layer inception_4a/relu_5x5_reduce
I0403 20:07:29.954226 10608 net.cpp:425] inception_4a/relu_5x5_reduce <- inception_4a/5x5_reduce
I0403 20:07:29.954252 10608 net.cpp:386] inception_4a/relu_5x5_reduce -> inception_4a/5x5_reduce (in-place)
I0403 20:07:29.954474 10608 net.cpp:141] Setting up inception_4a/relu_5x5_reduce
I0403 20:07:29.954507 10608 net.cpp:148] Top shape: 24 16 14 14 (75264)
I0403 20:07:29.954525 10608 net.cpp:156] Memory required for data: 873665568
I0403 20:07:29.954545 10608 layer_factory.hpp:77] Creating layer inception_4a/5x5
I0403 20:07:29.954571 10608 net.cpp:91] Creating Layer inception_4a/5x5
I0403 20:07:29.954594 10608 net.cpp:425] inception_4a/5x5 <- inception_4a/5x5_reduce
I0403 20:07:29.954622 10608 net.cpp:399] inception_4a/5x5 -> inception_4a/5x5
I0403 20:07:29.955953 10608 net.cpp:141] Setting up inception_4a/5x5
I0403 20:07:29.955991 10608 net.cpp:148] Top shape: 24 48 14 14 (225792)
I0403 20:07:29.956012 10608 net.cpp:156] Memory required for data: 874568736
I0403 20:07:29.956034 10608 layer_factory.hpp:77] Creating layer inception_4a/relu_5x5
I0403 20:07:29.956058 10608 net.cpp:91] Creating Layer inception_4a/relu_5x5
I0403 20:07:29.956076 10608 net.cpp:425] inception_4a/relu_5x5 <- inception_4a/5x5
I0403 20:07:29.956102 10608 net.cpp:386] inception_4a/relu_5x5 -> inception_4a/5x5 (in-place)
I0403 20:07:29.956326 10608 net.cpp:141] Setting up inception_4a/relu_5x5
I0403 20:07:29.956357 10608 net.cpp:148] Top shape: 24 48 14 14 (225792)
I0403 20:07:29.956375 10608 net.cpp:156] Memory required for data: 875471904
I0403 20:07:29.956394 10608 layer_factory.hpp:77] Creating layer inception_4a/pool
I0403 20:07:29.956416 10608 net.cpp:91] Creating Layer inception_4a/pool
I0403 20:07:29.956437 10608 net.cpp:425] inception_4a/pool <- pool3/3x3_s2_pool3/3x3_s2_0_split_3
I0403 20:07:29.956462 10608 net.cpp:399] inception_4a/pool -> inception_4a/pool
I0403 20:07:29.956540 10608 net.cpp:141] Setting up inception_4a/pool
I0403 20:07:29.956568 10608 net.cpp:148] Top shape: 24 480 14 14 (2257920)
I0403 20:07:29.956586 10608 net.cpp:156] Memory required for data: 884503584
I0403 20:07:29.956605 10608 layer_factory.hpp:77] Creating layer inception_4a/pool_proj
I0403 20:07:29.956632 10608 net.cpp:91] Creating Layer inception_4a/pool_proj
I0403 20:07:29.956655 10608 net.cpp:425] inception_4a/pool_proj <- inception_4a/pool
I0403 20:07:29.956679 10608 net.cpp:399] inception_4a/pool_proj -> inception_4a/pool_proj
I0403 20:07:29.958088 10608 net.cpp:141] Setting up inception_4a/pool_proj
I0403 20:07:29.958125 10608 net.cpp:148] Top shape: 24 64 14 14 (301056)
I0403 20:07:29.958163 10608 net.cpp:156] Memory required for data: 885707808
I0403 20:07:29.958186 10608 layer_factory.hpp:77] Creating layer inception_4a/relu_pool_proj
I0403 20:07:29.958211 10608 net.cpp:91] Creating Layer inception_4a/relu_pool_proj
I0403 20:07:29.958233 10608 net.cpp:425] inception_4a/relu_pool_proj <- inception_4a/pool_proj
I0403 20:07:29.958263 10608 net.cpp:386] inception_4a/relu_pool_proj -> inception_4a/pool_proj (in-place)
I0403 20:07:29.958602 10608 net.cpp:141] Setting up inception_4a/relu_pool_proj
I0403 20:07:29.958636 10608 net.cpp:148] Top shape: 24 64 14 14 (301056)
I0403 20:07:29.958654 10608 net.cpp:156] Memory required for data: 886912032
I0403 20:07:29.958673 10608 layer_factory.hpp:77] Creating layer inception_4a/output
I0403 20:07:29.958695 10608 net.cpp:91] Creating Layer inception_4a/output
I0403 20:07:29.958715 10608 net.cpp:425] inception_4a/output <- inception_4a/1x1
I0403 20:07:29.958736 10608 net.cpp:425] inception_4a/output <- inception_4a/3x3
I0403 20:07:29.958756 10608 net.cpp:425] inception_4a/output <- inception_4a/5x5
I0403 20:07:29.958776 10608 net.cpp:425] inception_4a/output <- inception_4a/pool_proj
I0403 20:07:29.958801 10608 net.cpp:399] inception_4a/output -> inception_4a/output
I0403 20:07:29.958855 10608 net.cpp:141] Setting up inception_4a/output
I0403 20:07:29.958886 10608 net.cpp:148] Top shape: 24 512 14 14 (2408448)
I0403 20:07:29.958905 10608 net.cpp:156] Memory required for data: 896545824
I0403 20:07:29.958923 10608 layer_factory.hpp:77] Creating layer inception_4a/output_inception_4a/output_0_split
I0403 20:07:29.958945 10608 net.cpp:91] Creating Layer inception_4a/output_inception_4a/output_0_split
I0403 20:07:29.958966 10608 net.cpp:425] inception_4a/output_inception_4a/output_0_split <- inception_4a/output
I0403 20:07:29.958991 10608 net.cpp:399] inception_4a/output_inception_4a/output_0_split -> inception_4a/output_inception_4a/output_0_split_0
I0403 20:07:29.959017 10608 net.cpp:399] inception_4a/output_inception_4a/output_0_split -> inception_4a/output_inception_4a/output_0_split_1
I0403 20:07:29.959043 10608 net.cpp:399] inception_4a/output_inception_4a/output_0_split -> inception_4a/output_inception_4a/output_0_split_2
I0403 20:07:29.959069 10608 net.cpp:399] inception_4a/output_inception_4a/output_0_split -> inception_4a/output_inception_4a/output_0_split_3
I0403 20:07:29.959095 10608 net.cpp:399] inception_4a/output_inception_4a/output_0_split -> inception_4a/output_inception_4a/output_0_split_4
I0403 20:07:29.959210 10608 net.cpp:141] Setting up inception_4a/output_inception_4a/output_0_split
I0403 20:07:29.959244 10608 net.cpp:148] Top shape: 24 512 14 14 (2408448)
I0403 20:07:29.959266 10608 net.cpp:148] Top shape: 24 512 14 14 (2408448)
I0403 20:07:29.959287 10608 net.cpp:148] Top shape: 24 512 14 14 (2408448)
I0403 20:07:29.959306 10608 net.cpp:148] Top shape: 24 512 14 14 (2408448)
I0403 20:07:29.959326 10608 net.cpp:148] Top shape: 24 512 14 14 (2408448)
I0403 20:07:29.959342 10608 net.cpp:156] Memory required for data: 944714784
I0403 20:07:29.959360 10608 layer_factory.hpp:77] Creating layer loss1/ave_pool
I0403 20:07:29.959384 10608 net.cpp:91] Creating Layer loss1/ave_pool
I0403 20:07:29.959405 10608 net.cpp:425] loss1/ave_pool <- inception_4a/output_inception_4a/output_0_split_0
I0403 20:07:29.959427 10608 net.cpp:399] loss1/ave_pool -> loss1/ave_pool
I0403 20:07:29.959681 10608 net.cpp:141] Setting up loss1/ave_pool
I0403 20:07:29.959712 10608 net.cpp:148] Top shape: 24 512 4 4 (196608)
I0403 20:07:29.959731 10608 net.cpp:156] Memory required for data: 945501216
I0403 20:07:29.959749 10608 layer_factory.hpp:77] Creating layer loss1/conv
I0403 20:07:29.959777 10608 net.cpp:91] Creating Layer loss1/conv
I0403 20:07:29.959800 10608 net.cpp:425] loss1/conv <- loss1/ave_pool
I0403 20:07:29.959825 10608 net.cpp:399] loss1/conv -> loss1/conv
I0403 20:07:29.961542 10608 net.cpp:141] Setting up loss1/conv
I0403 20:07:29.961577 10608 net.cpp:148] Top shape: 24 128 4 4 (49152)
I0403 20:07:29.961597 10608 net.cpp:156] Memory required for data: 945697824
I0403 20:07:29.961638 10608 layer_factory.hpp:77] Creating layer loss1/relu_conv
I0403 20:07:29.961666 10608 net.cpp:91] Creating Layer loss1/relu_conv
I0403 20:07:29.961688 10608 net.cpp:425] loss1/relu_conv <- loss1/conv
I0403 20:07:29.961709 10608 net.cpp:386] loss1/relu_conv -> loss1/conv (in-place)
I0403 20:07:29.962045 10608 net.cpp:141] Setting up loss1/relu_conv
I0403 20:07:29.962079 10608 net.cpp:148] Top shape: 24 128 4 4 (49152)
I0403 20:07:29.962097 10608 net.cpp:156] Memory required for data: 945894432
I0403 20:07:29.962117 10608 layer_factory.hpp:77] Creating layer loss1/fc
I0403 20:07:29.962148 10608 net.cpp:91] Creating Layer loss1/fc
I0403 20:07:29.962170 10608 net.cpp:425] loss1/fc <- loss1/conv
I0403 20:07:29.962196 10608 net.cpp:399] loss1/fc -> loss1/fc
I0403 20:07:29.984277 10608 net.cpp:141] Setting up loss1/fc
I0403 20:07:29.984323 10608 net.cpp:148] Top shape: 24 1024 (24576)
I0403 20:07:29.984341 10608 net.cpp:156] Memory required for data: 945992736
I0403 20:07:29.984366 10608 layer_factory.hpp:77] Creating layer loss1/relu_fc
I0403 20:07:29.984391 10608 net.cpp:91] Creating Layer loss1/relu_fc
I0403 20:07:29.984411 10608 net.cpp:425] loss1/relu_fc <- loss1/fc
I0403 20:07:29.984436 10608 net.cpp:386] loss1/relu_fc -> loss1/fc (in-place)
I0403 20:07:29.984668 10608 net.cpp:141] Setting up loss1/relu_fc
I0403 20:07:29.984699 10608 net.cpp:148] Top shape: 24 1024 (24576)
I0403 20:07:29.984717 10608 net.cpp:156] Memory required for data: 946091040
I0403 20:07:29.984736 10608 layer_factory.hpp:77] Creating layer loss1/drop_fc
I0403 20:07:29.984771 10608 net.cpp:91] Creating Layer loss1/drop_fc
I0403 20:07:29.984794 10608 net.cpp:425] loss1/drop_fc <- loss1/fc
I0403 20:07:29.984817 10608 net.cpp:386] loss1/drop_fc -> loss1/fc (in-place)
I0403 20:07:29.984886 10608 net.cpp:141] Setting up loss1/drop_fc
I0403 20:07:29.984916 10608 net.cpp:148] Top shape: 24 1024 (24576)
I0403 20:07:29.984935 10608 net.cpp:156] Memory required for data: 946189344
I0403 20:07:29.984954 10608 layer_factory.hpp:77] Creating layer loss1/classifier_plantvillage
I0403 20:07:29.984978 10608 net.cpp:91] Creating Layer loss1/classifier_plantvillage
I0403 20:07:29.984999 10608 net.cpp:425] loss1/classifier_plantvillage <- loss1/fc
I0403 20:07:29.985028 10608 net.cpp:399] loss1/classifier_plantvillage -> loss1/classifier_plantvillage
I0403 20:07:29.986145 10608 net.cpp:141] Setting up loss1/classifier_plantvillage
I0403 20:07:29.986181 10608 net.cpp:148] Top shape: 24 38 (912)
I0403 20:07:29.986199 10608 net.cpp:156] Memory required for data: 946192992
I0403 20:07:29.986222 10608 layer_factory.hpp:77] Creating layer loss1/classifier_plantvillage_loss1/classifier_plantvillage_0_split
I0403 20:07:29.986254 10608 net.cpp:91] Creating Layer loss1/classifier_plantvillage_loss1/classifier_plantvillage_0_split
I0403 20:07:29.986279 10608 net.cpp:425] loss1/classifier_plantvillage_loss1/classifier_plantvillage_0_split <- loss1/classifier_plantvillage
I0403 20:07:29.986301 10608 net.cpp:399] loss1/classifier_plantvillage_loss1/classifier_plantvillage_0_split -> loss1/classifier_plantvillage_loss1/classifier_plantvillage_0_split_0
I0403 20:07:29.986328 10608 net.cpp:399] loss1/classifier_plantvillage_loss1/classifier_plantvillage_0_split -> loss1/classifier_plantvillage_loss1/classifier_plantvillage_0_split_1
I0403 20:07:29.986356 10608 net.cpp:399] loss1/classifier_plantvillage_loss1/classifier_plantvillage_0_split -> loss1/classifier_plantvillage_loss1/classifier_plantvillage_0_split_2
I0403 20:07:29.986440 10608 net.cpp:141] Setting up loss1/classifier_plantvillage_loss1/classifier_plantvillage_0_split
I0403 20:07:29.986469 10608 net.cpp:148] Top shape: 24 38 (912)
I0403 20:07:29.986490 10608 net.cpp:148] Top shape: 24 38 (912)
I0403 20:07:29.986510 10608 net.cpp:148] Top shape: 24 38 (912)
I0403 20:07:29.986528 10608 net.cpp:156] Memory required for data: 946203936
I0403 20:07:29.986547 10608 layer_factory.hpp:77] Creating layer inception_4b/1x1
I0403 20:07:29.986575 10608 net.cpp:91] Creating Layer inception_4b/1x1
I0403 20:07:29.986616 10608 net.cpp:425] inception_4b/1x1 <- inception_4a/output_inception_4a/output_0_split_1
I0403 20:07:29.986642 10608 net.cpp:399] inception_4b/1x1 -> inception_4b/1x1
I0403 20:07:29.988610 10608 net.cpp:141] Setting up inception_4b/1x1
I0403 20:07:29.988646 10608 net.cpp:148] Top shape: 24 160 14 14 (752640)
I0403 20:07:29.988667 10608 net.cpp:156] Memory required for data: 949214496
I0403 20:07:29.988692 10608 layer_factory.hpp:77] Creating layer inception_4b/relu_1x1
I0403 20:07:29.988718 10608 net.cpp:91] Creating Layer inception_4b/relu_1x1
I0403 20:07:29.988739 10608 net.cpp:425] inception_4b/relu_1x1 <- inception_4b/1x1
I0403 20:07:29.988761 10608 net.cpp:386] inception_4b/relu_1x1 -> inception_4b/1x1 (in-place)
I0403 20:07:29.988987 10608 net.cpp:141] Setting up inception_4b/relu_1x1
I0403 20:07:29.989018 10608 net.cpp:148] Top shape: 24 160 14 14 (752640)
I0403 20:07:29.989037 10608 net.cpp:156] Memory required for data: 952225056
I0403 20:07:29.989054 10608 layer_factory.hpp:77] Creating layer inception_4b/3x3_reduce
I0403 20:07:29.989083 10608 net.cpp:91] Creating Layer inception_4b/3x3_reduce
I0403 20:07:29.989104 10608 net.cpp:425] inception_4b/3x3_reduce <- inception_4a/output_inception_4a/output_0_split_2
I0403 20:07:29.989132 10608 net.cpp:399] inception_4b/3x3_reduce -> inception_4b/3x3_reduce
I0403 20:07:29.990785 10608 net.cpp:141] Setting up inception_4b/3x3_reduce
I0403 20:07:29.990824 10608 net.cpp:148] Top shape: 24 112 14 14 (526848)
I0403 20:07:29.990845 10608 net.cpp:156] Memory required for data: 954332448
I0403 20:07:29.990869 10608 layer_factory.hpp:77] Creating layer inception_4b/relu_3x3_reduce
I0403 20:07:29.990890 10608 net.cpp:91] Creating Layer inception_4b/relu_3x3_reduce
I0403 20:07:29.990911 10608 net.cpp:425] inception_4b/relu_3x3_reduce <- inception_4b/3x3_reduce
I0403 20:07:29.990936 10608 net.cpp:386] inception_4b/relu_3x3_reduce -> inception_4b/3x3_reduce (in-place)
I0403 20:07:29.991283 10608 net.cpp:141] Setting up inception_4b/relu_3x3_reduce
I0403 20:07:29.991319 10608 net.cpp:148] Top shape: 24 112 14 14 (526848)
I0403 20:07:29.991340 10608 net.cpp:156] Memory required for data: 956439840
I0403 20:07:29.991358 10608 layer_factory.hpp:77] Creating layer inception_4b/3x3
I0403 20:07:29.991387 10608 net.cpp:91] Creating Layer inception_4b/3x3
I0403 20:07:29.991410 10608 net.cpp:425] inception_4b/3x3 <- inception_4b/3x3_reduce
I0403 20:07:29.991436 10608 net.cpp:399] inception_4b/3x3 -> inception_4b/3x3
I0403 20:07:29.995110 10608 net.cpp:141] Setting up inception_4b/3x3
I0403 20:07:29.995146 10608 net.cpp:148] Top shape: 24 224 14 14 (1053696)
I0403 20:07:29.995167 10608 net.cpp:156] Memory required for data: 960654624
I0403 20:07:29.995190 10608 layer_factory.hpp:77] Creating layer inception_4b/relu_3x3
I0403 20:07:29.995218 10608 net.cpp:91] Creating Layer inception_4b/relu_3x3
I0403 20:07:29.995244 10608 net.cpp:425] inception_4b/relu_3x3 <- inception_4b/3x3
I0403 20:07:29.995268 10608 net.cpp:386] inception_4b/relu_3x3 -> inception_4b/3x3 (in-place)
I0403 20:07:29.995493 10608 net.cpp:141] Setting up inception_4b/relu_3x3
I0403 20:07:29.995524 10608 net.cpp:148] Top shape: 24 224 14 14 (1053696)
I0403 20:07:29.995546 10608 net.cpp:156] Memory required for data: 964869408
I0403 20:07:29.995565 10608 layer_factory.hpp:77] Creating layer inception_4b/5x5_reduce
I0403 20:07:29.995591 10608 net.cpp:91] Creating Layer inception_4b/5x5_reduce
I0403 20:07:29.995612 10608 net.cpp:425] inception_4b/5x5_reduce <- inception_4a/output_inception_4a/output_0_split_3
I0403 20:07:29.995640 10608 net.cpp:399] inception_4b/5x5_reduce -> inception_4b/5x5_reduce
I0403 20:07:29.996971 10608 net.cpp:141] Setting up inception_4b/5x5_reduce
I0403 20:07:29.997009 10608 net.cpp:148] Top shape: 24 24 14 14 (112896)
I0403 20:07:29.997031 10608 net.cpp:156] Memory required for data: 965320992
I0403 20:07:29.997056 10608 layer_factory.hpp:77] Creating layer inception_4b/relu_5x5_reduce
I0403 20:07:29.997078 10608 net.cpp:91] Creating Layer inception_4b/relu_5x5_reduce
I0403 20:07:29.997117 10608 net.cpp:425] inception_4b/relu_5x5_reduce <- inception_4b/5x5_reduce
I0403 20:07:29.997139 10608 net.cpp:386] inception_4b/relu_5x5_reduce -> inception_4b/5x5_reduce (in-place)
I0403 20:07:29.997373 10608 net.cpp:141] Setting up inception_4b/relu_5x5_reduce
I0403 20:07:29.997406 10608 net.cpp:148] Top shape: 24 24 14 14 (112896)
I0403 20:07:29.997424 10608 net.cpp:156] Memory required for data: 965772576
I0403 20:07:29.997443 10608 layer_factory.hpp:77] Creating layer inception_4b/5x5
I0403 20:07:29.997473 10608 net.cpp:91] Creating Layer inception_4b/5x5
I0403 20:07:29.997494 10608 net.cpp:425] inception_4b/5x5 <- inception_4b/5x5_reduce
I0403 20:07:29.997521 10608 net.cpp:399] inception_4b/5x5 -> inception_4b/5x5
I0403 20:07:29.999022 10608 net.cpp:141] Setting up inception_4b/5x5
I0403 20:07:29.999058 10608 net.cpp:148] Top shape: 24 64 14 14 (301056)
I0403 20:07:29.999078 10608 net.cpp:156] Memory required for data: 966976800
I0403 20:07:29.999101 10608 layer_factory.hpp:77] Creating layer inception_4b/relu_5x5
I0403 20:07:29.999127 10608 net.cpp:91] Creating Layer inception_4b/relu_5x5
I0403 20:07:29.999148 10608 net.cpp:425] inception_4b/relu_5x5 <- inception_4b/5x5
I0403 20:07:29.999171 10608 net.cpp:386] inception_4b/relu_5x5 -> inception_4b/5x5 (in-place)
I0403 20:07:29.999526 10608 net.cpp:141] Setting up inception_4b/relu_5x5
I0403 20:07:29.999558 10608 net.cpp:148] Top shape: 24 64 14 14 (301056)
I0403 20:07:29.999577 10608 net.cpp:156] Memory required for data: 968181024
I0403 20:07:29.999598 10608 layer_factory.hpp:77] Creating layer inception_4b/pool
I0403 20:07:29.999625 10608 net.cpp:91] Creating Layer inception_4b/pool
I0403 20:07:29.999650 10608 net.cpp:425] inception_4b/pool <- inception_4a/output_inception_4a/output_0_split_4
I0403 20:07:29.999673 10608 net.cpp:399] inception_4b/pool -> inception_4b/pool
I0403 20:07:29.999754 10608 net.cpp:141] Setting up inception_4b/pool
I0403 20:07:29.999784 10608 net.cpp:148] Top shape: 24 512 14 14 (2408448)
I0403 20:07:29.999801 10608 net.cpp:156] Memory required for data: 977814816
I0403 20:07:29.999821 10608 layer_factory.hpp:77] Creating layer inception_4b/pool_proj
I0403 20:07:29.999850 10608 net.cpp:91] Creating Layer inception_4b/pool_proj
I0403 20:07:29.999872 10608 net.cpp:425] inception_4b/pool_proj <- inception_4b/pool
I0403 20:07:29.999900 10608 net.cpp:399] inception_4b/pool_proj -> inception_4b/pool_proj
I0403 20:07:30.001379 10608 net.cpp:141] Setting up inception_4b/pool_proj
I0403 20:07:30.001416 10608 net.cpp:148] Top shape: 24 64 14 14 (301056)
I0403 20:07:30.001437 10608 net.cpp:156] Memory required for data: 979019040
I0403 20:07:30.001461 10608 layer_factory.hpp:77] Creating layer inception_4b/relu_pool_proj
I0403 20:07:30.001485 10608 net.cpp:91] Creating Layer inception_4b/relu_pool_proj
I0403 20:07:30.001507 10608 net.cpp:425] inception_4b/relu_pool_proj <- inception_4b/pool_proj
I0403 20:07:30.001533 10608 net.cpp:386] inception_4b/relu_pool_proj -> inception_4b/pool_proj (in-place)
I0403 20:07:30.001754 10608 net.cpp:141] Setting up inception_4b/relu_pool_proj
I0403 20:07:30.001785 10608 net.cpp:148] Top shape: 24 64 14 14 (301056)
I0403 20:07:30.001803 10608 net.cpp:156] Memory required for data: 980223264
I0403 20:07:30.001822 10608 layer_factory.hpp:77] Creating layer inception_4b/output
I0403 20:07:30.001844 10608 net.cpp:91] Creating Layer inception_4b/output
I0403 20:07:30.001865 10608 net.cpp:425] inception_4b/output <- inception_4b/1x1
I0403 20:07:30.001886 10608 net.cpp:425] inception_4b/output <- inception_4b/3x3
I0403 20:07:30.001907 10608 net.cpp:425] inception_4b/output <- inception_4b/5x5
I0403 20:07:30.001927 10608 net.cpp:425] inception_4b/output <- inception_4b/pool_proj
I0403 20:07:30.001952 10608 net.cpp:399] inception_4b/output -> inception_4b/output
I0403 20:07:30.002008 10608 net.cpp:141] Setting up inception_4b/output
I0403 20:07:30.002040 10608 net.cpp:148] Top shape: 24 512 14 14 (2408448)
I0403 20:07:30.002059 10608 net.cpp:156] Memory required for data: 989857056
I0403 20:07:30.002095 10608 layer_factory.hpp:77] Creating layer inception_4b/output_inception_4b/output_0_split
I0403 20:07:30.002117 10608 net.cpp:91] Creating Layer inception_4b/output_inception_4b/output_0_split
I0403 20:07:30.002137 10608 net.cpp:425] inception_4b/output_inception_4b/output_0_split <- inception_4b/output
I0403 20:07:30.002161 10608 net.cpp:399] inception_4b/output_inception_4b/output_0_split -> inception_4b/output_inception_4b/output_0_split_0
I0403 20:07:30.002185 10608 net.cpp:399] inception_4b/output_inception_4b/output_0_split -> inception_4b/output_inception_4b/output_0_split_1
I0403 20:07:30.002215 10608 net.cpp:399] inception_4b/output_inception_4b/output_0_split -> inception_4b/output_inception_4b/output_0_split_2
I0403 20:07:30.002255 10608 net.cpp:399] inception_4b/output_inception_4b/output_0_split -> inception_4b/output_inception_4b/output_0_split_3
I0403 20:07:30.002372 10608 net.cpp:141] Setting up inception_4b/output_inception_4b/output_0_split
I0403 20:07:30.002399 10608 net.cpp:148] Top shape: 24 512 14 14 (2408448)
I0403 20:07:30.002419 10608 net.cpp:148] Top shape: 24 512 14 14 (2408448)
I0403 20:07:30.002440 10608 net.cpp:148] Top shape: 24 512 14 14 (2408448)
I0403 20:07:30.002460 10608 net.cpp:148] Top shape: 24 512 14 14 (2408448)
I0403 20:07:30.002485 10608 net.cpp:156] Memory required for data: 1028392224
I0403 20:07:30.002506 10608 layer_factory.hpp:77] Creating layer inception_4c/1x1
I0403 20:07:30.002532 10608 net.cpp:91] Creating Layer inception_4c/1x1
I0403 20:07:30.002555 10608 net.cpp:425] inception_4c/1x1 <- inception_4b/output_inception_4b/output_0_split_0
I0403 20:07:30.002583 10608 net.cpp:399] inception_4c/1x1 -> inception_4c/1x1
I0403 20:07:30.004339 10608 net.cpp:141] Setting up inception_4c/1x1
I0403 20:07:30.004374 10608 net.cpp:148] Top shape: 24 128 14 14 (602112)
I0403 20:07:30.004396 10608 net.cpp:156] Memory required for data: 1030800672
I0403 20:07:30.004420 10608 layer_factory.hpp:77] Creating layer inception_4c/relu_1x1
I0403 20:07:30.004441 10608 net.cpp:91] Creating Layer inception_4c/relu_1x1
I0403 20:07:30.004462 10608 net.cpp:425] inception_4c/relu_1x1 <- inception_4c/1x1
I0403 20:07:30.004487 10608 net.cpp:386] inception_4c/relu_1x1 -> inception_4c/1x1 (in-place)
I0403 20:07:30.004709 10608 net.cpp:141] Setting up inception_4c/relu_1x1
I0403 20:07:30.004739 10608 net.cpp:148] Top shape: 24 128 14 14 (602112)
I0403 20:07:30.004758 10608 net.cpp:156] Memory required for data: 1033209120
I0403 20:07:30.004776 10608 layer_factory.hpp:77] Creating layer inception_4c/3x3_reduce
I0403 20:07:30.004804 10608 net.cpp:91] Creating Layer inception_4c/3x3_reduce
I0403 20:07:30.004828 10608 net.cpp:425] inception_4c/3x3_reduce <- inception_4b/output_inception_4b/output_0_split_1
I0403 20:07:30.004858 10608 net.cpp:399] inception_4c/3x3_reduce -> inception_4c/3x3_reduce
I0403 20:07:30.007253 10608 net.cpp:141] Setting up inception_4c/3x3_reduce
I0403 20:07:30.007290 10608 net.cpp:148] Top shape: 24 128 14 14 (602112)
I0403 20:07:30.007310 10608 net.cpp:156] Memory required for data: 1035617568
I0403 20:07:30.007334 10608 layer_factory.hpp:77] Creating layer inception_4c/relu_3x3_reduce
I0403 20:07:30.007361 10608 net.cpp:91] Creating Layer inception_4c/relu_3x3_reduce
I0403 20:07:30.007382 10608 net.cpp:425] inception_4c/relu_3x3_reduce <- inception_4c/3x3_reduce
I0403 20:07:30.007405 10608 net.cpp:386] inception_4c/relu_3x3_reduce -> inception_4c/3x3_reduce (in-place)
I0403 20:07:30.007756 10608 net.cpp:141] Setting up inception_4c/relu_3x3_reduce
I0403 20:07:30.007789 10608 net.cpp:148] Top shape: 24 128 14 14 (602112)
I0403 20:07:30.007808 10608 net.cpp:156] Memory required for data: 1038026016
I0403 20:07:30.007827 10608 layer_factory.hpp:77] Creating layer inception_4c/3x3
I0403 20:07:30.007858 10608 net.cpp:91] Creating Layer inception_4c/3x3
I0403 20:07:30.007880 10608 net.cpp:425] inception_4c/3x3 <- inception_4c/3x3_reduce
I0403 20:07:30.007910 10608 net.cpp:399] inception_4c/3x3 -> inception_4c/3x3
I0403 20:07:30.012332 10608 net.cpp:141] Setting up inception_4c/3x3
I0403 20:07:30.012383 10608 net.cpp:148] Top shape: 24 256 14 14 (1204224)
I0403 20:07:30.012404 10608 net.cpp:156] Memory required for data: 1042842912
I0403 20:07:30.012446 10608 layer_factory.hpp:77] Creating layer inception_4c/relu_3x3
I0403 20:07:30.012475 10608 net.cpp:91] Creating Layer inception_4c/relu_3x3
I0403 20:07:30.012497 10608 net.cpp:425] inception_4c/relu_3x3 <- inception_4c/3x3
I0403 20:07:30.012518 10608 net.cpp:386] inception_4c/relu_3x3 -> inception_4c/3x3 (in-place)
I0403 20:07:30.012748 10608 net.cpp:141] Setting up inception_4c/relu_3x3
I0403 20:07:30.012783 10608 net.cpp:148] Top shape: 24 256 14 14 (1204224)
I0403 20:07:30.012802 10608 net.cpp:156] Memory required for data: 1047659808
I0403 20:07:30.012822 10608 layer_factory.hpp:77] Creating layer inception_4c/5x5_reduce
I0403 20:07:30.012853 10608 net.cpp:91] Creating Layer inception_4c/5x5_reduce
I0403 20:07:30.012876 10608 net.cpp:425] inception_4c/5x5_reduce <- inception_4b/output_inception_4b/output_0_split_2
I0403 20:07:30.012899 10608 net.cpp:399] inception_4c/5x5_reduce -> inception_4c/5x5_reduce
I0403 20:07:30.014237 10608 net.cpp:141] Setting up inception_4c/5x5_reduce
I0403 20:07:30.014281 10608 net.cpp:148] Top shape: 24 24 14 14 (112896)
I0403 20:07:30.014304 10608 net.cpp:156] Memory required for data: 1048111392
I0403 20:07:30.014328 10608 layer_factory.hpp:77] Creating layer inception_4c/relu_5x5_reduce
I0403 20:07:30.014351 10608 net.cpp:91] Creating Layer inception_4c/relu_5x5_reduce
I0403 20:07:30.014371 10608 net.cpp:425] inception_4c/relu_5x5_reduce <- inception_4c/5x5_reduce
I0403 20:07:30.014394 10608 net.cpp:386] inception_4c/relu_5x5_reduce -> inception_4c/5x5_reduce (in-place)
I0403 20:07:30.014627 10608 net.cpp:141] Setting up inception_4c/relu_5x5_reduce
I0403 20:07:30.014658 10608 net.cpp:148] Top shape: 24 24 14 14 (112896)
I0403 20:07:30.014678 10608 net.cpp:156] Memory required for data: 1048562976
I0403 20:07:30.014695 10608 layer_factory.hpp:77] Creating layer inception_4c/5x5
I0403 20:07:30.014724 10608 net.cpp:91] Creating Layer inception_4c/5x5
I0403 20:07:30.014746 10608 net.cpp:425] inception_4c/5x5 <- inception_4c/5x5_reduce
I0403 20:07:30.014773 10608 net.cpp:399] inception_4c/5x5 -> inception_4c/5x5
I0403 20:07:30.016302 10608 net.cpp:141] Setting up inception_4c/5x5
I0403 20:07:30.016337 10608 net.cpp:148] Top shape: 24 64 14 14 (301056)
I0403 20:07:30.016356 10608 net.cpp:156] Memory required for data: 1049767200
I0403 20:07:30.016379 10608 layer_factory.hpp:77] Creating layer inception_4c/relu_5x5
I0403 20:07:30.016402 10608 net.cpp:91] Creating Layer inception_4c/relu_5x5
I0403 20:07:30.016424 10608 net.cpp:425] inception_4c/relu_5x5 <- inception_4c/5x5
I0403 20:07:30.016450 10608 net.cpp:386] inception_4c/relu_5x5 -> inception_4c/5x5 (in-place)
I0403 20:07:30.016805 10608 net.cpp:141] Setting up inception_4c/relu_5x5
I0403 20:07:30.016839 10608 net.cpp:148] Top shape: 24 64 14 14 (301056)
I0403 20:07:30.016856 10608 net.cpp:156] Memory required for data: 1050971424
I0403 20:07:30.016875 10608 layer_factory.hpp:77] Creating layer inception_4c/pool
I0403 20:07:30.016896 10608 net.cpp:91] Creating Layer inception_4c/pool
I0403 20:07:30.016916 10608 net.cpp:425] inception_4c/pool <- inception_4b/output_inception_4b/output_0_split_3
I0403 20:07:30.016943 10608 net.cpp:399] inception_4c/pool -> inception_4c/pool
I0403 20:07:30.017024 10608 net.cpp:141] Setting up inception_4c/pool
I0403 20:07:30.017055 10608 net.cpp:148] Top shape: 24 512 14 14 (2408448)
I0403 20:07:30.017072 10608 net.cpp:156] Memory required for data: 1060605216
I0403 20:07:30.017091 10608 layer_factory.hpp:77] Creating layer inception_4c/pool_proj
I0403 20:07:30.017122 10608 net.cpp:91] Creating Layer inception_4c/pool_proj
I0403 20:07:30.017144 10608 net.cpp:425] inception_4c/pool_proj <- inception_4c/pool
I0403 20:07:30.017168 10608 net.cpp:399] inception_4c/pool_proj -> inception_4c/pool_proj
I0403 20:07:30.018689 10608 net.cpp:141] Setting up inception_4c/pool_proj
I0403 20:07:30.018724 10608 net.cpp:148] Top shape: 24 64 14 14 (301056)
I0403 20:07:30.018762 10608 net.cpp:156] Memory required for data: 1061809440
I0403 20:07:30.018786 10608 layer_factory.hpp:77] Creating layer inception_4c/relu_pool_proj
I0403 20:07:30.018812 10608 net.cpp:91] Creating Layer inception_4c/relu_pool_proj
I0403 20:07:30.018833 10608 net.cpp:425] inception_4c/relu_pool_proj <- inception_4c/pool_proj
I0403 20:07:30.018857 10608 net.cpp:386] inception_4c/relu_pool_proj -> inception_4c/pool_proj (in-place)
I0403 20:07:30.019086 10608 net.cpp:141] Setting up inception_4c/relu_pool_proj
I0403 20:07:30.019119 10608 net.cpp:148] Top shape: 24 64 14 14 (301056)
I0403 20:07:30.019137 10608 net.cpp:156] Memory required for data: 1063013664
I0403 20:07:30.019156 10608 layer_factory.hpp:77] Creating layer inception_4c/output
I0403 20:07:30.019177 10608 net.cpp:91] Creating Layer inception_4c/output
I0403 20:07:30.019197 10608 net.cpp:425] inception_4c/output <- inception_4c/1x1
I0403 20:07:30.019217 10608 net.cpp:425] inception_4c/output <- inception_4c/3x3
I0403 20:07:30.019237 10608 net.cpp:425] inception_4c/output <- inception_4c/5x5
I0403 20:07:30.019265 10608 net.cpp:425] inception_4c/output <- inception_4c/pool_proj
I0403 20:07:30.019291 10608 net.cpp:399] inception_4c/output -> inception_4c/output
I0403 20:07:30.019351 10608 net.cpp:141] Setting up inception_4c/output
I0403 20:07:30.019382 10608 net.cpp:148] Top shape: 24 512 14 14 (2408448)
I0403 20:07:30.019402 10608 net.cpp:156] Memory required for data: 1072647456
I0403 20:07:30.019420 10608 layer_factory.hpp:77] Creating layer inception_4c/output_inception_4c/output_0_split
I0403 20:07:30.019443 10608 net.cpp:91] Creating Layer inception_4c/output_inception_4c/output_0_split
I0403 20:07:30.019461 10608 net.cpp:425] inception_4c/output_inception_4c/output_0_split <- inception_4c/output
I0403 20:07:30.019484 10608 net.cpp:399] inception_4c/output_inception_4c/output_0_split -> inception_4c/output_inception_4c/output_0_split_0
I0403 20:07:30.019508 10608 net.cpp:399] inception_4c/output_inception_4c/output_0_split -> inception_4c/output_inception_4c/output_0_split_1
I0403 20:07:30.019537 10608 net.cpp:399] inception_4c/output_inception_4c/output_0_split -> inception_4c/output_inception_4c/output_0_split_2
I0403 20:07:30.019565 10608 net.cpp:399] inception_4c/output_inception_4c/output_0_split -> inception_4c/output_inception_4c/output_0_split_3
I0403 20:07:30.019673 10608 net.cpp:141] Setting up inception_4c/output_inception_4c/output_0_split
I0403 20:07:30.019702 10608 net.cpp:148] Top shape: 24 512 14 14 (2408448)
I0403 20:07:30.019723 10608 net.cpp:148] Top shape: 24 512 14 14 (2408448)
I0403 20:07:30.019743 10608 net.cpp:148] Top shape: 24 512 14 14 (2408448)
I0403 20:07:30.019762 10608 net.cpp:148] Top shape: 24 512 14 14 (2408448)
I0403 20:07:30.019779 10608 net.cpp:156] Memory required for data: 1111182624
I0403 20:07:30.019798 10608 layer_factory.hpp:77] Creating layer inception_4d/1x1
I0403 20:07:30.019825 10608 net.cpp:91] Creating Layer inception_4d/1x1
I0403 20:07:30.019850 10608 net.cpp:425] inception_4d/1x1 <- inception_4c/output_inception_4c/output_0_split_0
I0403 20:07:30.019876 10608 net.cpp:399] inception_4d/1x1 -> inception_4d/1x1
I0403 20:07:30.021582 10608 net.cpp:141] Setting up inception_4d/1x1
I0403 20:07:30.021618 10608 net.cpp:148] Top shape: 24 112 14 14 (526848)
I0403 20:07:30.021639 10608 net.cpp:156] Memory required for data: 1113290016
I0403 20:07:30.021661 10608 layer_factory.hpp:77] Creating layer inception_4d/relu_1x1
I0403 20:07:30.021687 10608 net.cpp:91] Creating Layer inception_4d/relu_1x1
I0403 20:07:30.021709 10608 net.cpp:425] inception_4d/relu_1x1 <- inception_4d/1x1
I0403 20:07:30.021733 10608 net.cpp:386] inception_4d/relu_1x1 -> inception_4d/1x1 (in-place)
I0403 20:07:30.021965 10608 net.cpp:141] Setting up inception_4d/relu_1x1
I0403 20:07:30.021997 10608 net.cpp:148] Top shape: 24 112 14 14 (526848)
I0403 20:07:30.022017 10608 net.cpp:156] Memory required for data: 1115397408
I0403 20:07:30.022037 10608 layer_factory.hpp:77] Creating layer inception_4d/3x3_reduce
I0403 20:07:30.022081 10608 net.cpp:91] Creating Layer inception_4d/3x3_reduce
I0403 20:07:30.022106 10608 net.cpp:425] inception_4d/3x3_reduce <- inception_4c/output_inception_4c/output_0_split_1
I0403 20:07:30.022130 10608 net.cpp:399] inception_4d/3x3_reduce -> inception_4d/3x3_reduce
I0403 20:07:30.024018 10608 net.cpp:141] Setting up inception_4d/3x3_reduce
I0403 20:07:30.024054 10608 net.cpp:148] Top shape: 24 144 14 14 (677376)
I0403 20:07:30.024075 10608 net.cpp:156] Memory required for data: 1118106912
I0403 20:07:30.024098 10608 layer_factory.hpp:77] Creating layer inception_4d/relu_3x3_reduce
I0403 20:07:30.024122 10608 net.cpp:91] Creating Layer inception_4d/relu_3x3_reduce
I0403 20:07:30.024147 10608 net.cpp:425] inception_4d/relu_3x3_reduce <- inception_4d/3x3_reduce
I0403 20:07:30.024168 10608 net.cpp:386] inception_4d/relu_3x3_reduce -> inception_4d/3x3_reduce (in-place)
I0403 20:07:30.024529 10608 net.cpp:141] Setting up inception_4d/relu_3x3_reduce
I0403 20:07:30.024562 10608 net.cpp:148] Top shape: 24 144 14 14 (677376)
I0403 20:07:30.024581 10608 net.cpp:156] Memory required for data: 1120816416
I0403 20:07:30.024600 10608 layer_factory.hpp:77] Creating layer inception_4d/3x3
I0403 20:07:30.024628 10608 net.cpp:91] Creating Layer inception_4d/3x3
I0403 20:07:30.024651 10608 net.cpp:425] inception_4d/3x3 <- inception_4d/3x3_reduce
I0403 20:07:30.024677 10608 net.cpp:399] inception_4d/3x3 -> inception_4d/3x3
I0403 20:07:30.029955 10608 net.cpp:141] Setting up inception_4d/3x3
I0403 20:07:30.029992 10608 net.cpp:148] Top shape: 24 288 14 14 (1354752)
I0403 20:07:30.030012 10608 net.cpp:156] Memory required for data: 1126235424
I0403 20:07:30.030035 10608 layer_factory.hpp:77] Creating layer inception_4d/relu_3x3
I0403 20:07:30.030060 10608 net.cpp:91] Creating Layer inception_4d/relu_3x3
I0403 20:07:30.030081 10608 net.cpp:425] inception_4d/relu_3x3 <- inception_4d/3x3
I0403 20:07:30.030102 10608 net.cpp:386] inception_4d/relu_3x3 -> inception_4d/3x3 (in-place)
I0403 20:07:30.030338 10608 net.cpp:141] Setting up inception_4d/relu_3x3
I0403 20:07:30.030371 10608 net.cpp:148] Top shape: 24 288 14 14 (1354752)
I0403 20:07:30.030391 10608 net.cpp:156] Memory required for data: 1131654432
I0403 20:07:30.030410 10608 layer_factory.hpp:77] Creating layer inception_4d/5x5_reduce
I0403 20:07:30.030436 10608 net.cpp:91] Creating Layer inception_4d/5x5_reduce
I0403 20:07:30.030458 10608 net.cpp:425] inception_4d/5x5_reduce <- inception_4c/output_inception_4c/output_0_split_2
I0403 20:07:30.030483 10608 net.cpp:399] inception_4d/5x5_reduce -> inception_4d/5x5_reduce
I0403 20:07:30.031894 10608 net.cpp:141] Setting up inception_4d/5x5_reduce
I0403 20:07:30.031929 10608 net.cpp:148] Top shape: 24 32 14 14 (150528)
I0403 20:07:30.031949 10608 net.cpp:156] Memory required for data: 1132256544
I0403 20:07:30.031972 10608 layer_factory.hpp:77] Creating layer inception_4d/relu_5x5_reduce
I0403 20:07:30.031997 10608 net.cpp:91] Creating Layer inception_4d/relu_5x5_reduce
I0403 20:07:30.032018 10608 net.cpp:425] inception_4d/relu_5x5_reduce <- inception_4d/5x5_reduce
I0403 20:07:30.032040 10608 net.cpp:386] inception_4d/relu_5x5_reduce -> inception_4d/5x5_reduce (in-place)
I0403 20:07:30.032284 10608 net.cpp:141] Setting up inception_4d/relu_5x5_reduce
I0403 20:07:30.032320 10608 net.cpp:148] Top shape: 24 32 14 14 (150528)
I0403 20:07:30.032340 10608 net.cpp:156] Memory required for data: 1132858656
I0403 20:07:30.032358 10608 layer_factory.hpp:77] Creating layer inception_4d/5x5
I0403 20:07:30.032387 10608 net.cpp:91] Creating Layer inception_4d/5x5
I0403 20:07:30.032408 10608 net.cpp:425] inception_4d/5x5 <- inception_4d/5x5_reduce
I0403 20:07:30.032433 10608 net.cpp:399] inception_4d/5x5 -> inception_4d/5x5
I0403 20:07:30.034210 10608 net.cpp:141] Setting up inception_4d/5x5
I0403 20:07:30.034255 10608 net.cpp:148] Top shape: 24 64 14 14 (301056)
I0403 20:07:30.034276 10608 net.cpp:156] Memory required for data: 1134062880
I0403 20:07:30.034301 10608 layer_factory.hpp:77] Creating layer inception_4d/relu_5x5
I0403 20:07:30.034339 10608 net.cpp:91] Creating Layer inception_4d/relu_5x5
I0403 20:07:30.034361 10608 net.cpp:425] inception_4d/relu_5x5 <- inception_4d/5x5
I0403 20:07:30.034386 10608 net.cpp:386] inception_4d/relu_5x5 -> inception_4d/5x5 (in-place)
I0403 20:07:30.034749 10608 net.cpp:141] Setting up inception_4d/relu_5x5
I0403 20:07:30.034785 10608 net.cpp:148] Top shape: 24 64 14 14 (301056)
I0403 20:07:30.034806 10608 net.cpp:156] Memory required for data: 1135267104
I0403 20:07:30.034823 10608 layer_factory.hpp:77] Creating layer inception_4d/pool
I0403 20:07:30.034847 10608 net.cpp:91] Creating Layer inception_4d/pool
I0403 20:07:30.034867 10608 net.cpp:425] inception_4d/pool <- inception_4c/output_inception_4c/output_0_split_3
I0403 20:07:30.034893 10608 net.cpp:399] inception_4d/pool -> inception_4d/pool
I0403 20:07:30.034975 10608 net.cpp:141] Setting up inception_4d/pool
I0403 20:07:30.035003 10608 net.cpp:148] Top shape: 24 512 14 14 (2408448)
I0403 20:07:30.035022 10608 net.cpp:156] Memory required for data: 1144900896
I0403 20:07:30.035039 10608 layer_factory.hpp:77] Creating layer inception_4d/pool_proj
I0403 20:07:30.035068 10608 net.cpp:91] Creating Layer inception_4d/pool_proj
I0403 20:07:30.035089 10608 net.cpp:425] inception_4d/pool_proj <- inception_4d/pool
I0403 20:07:30.035114 10608 net.cpp:399] inception_4d/pool_proj -> inception_4d/pool_proj
I0403 20:07:30.037277 10608 net.cpp:141] Setting up inception_4d/pool_proj
I0403 20:07:30.037313 10608 net.cpp:148] Top shape: 24 64 14 14 (301056)
I0403 20:07:30.037333 10608 net.cpp:156] Memory required for data: 1146105120
I0403 20:07:30.037355 10608 layer_factory.hpp:77] Creating layer inception_4d/relu_pool_proj
I0403 20:07:30.037381 10608 net.cpp:91] Creating Layer inception_4d/relu_pool_proj
I0403 20:07:30.037402 10608 net.cpp:425] inception_4d/relu_pool_proj <- inception_4d/pool_proj
I0403 20:07:30.037423 10608 net.cpp:386] inception_4d/relu_pool_proj -> inception_4d/pool_proj (in-place)
I0403 20:07:30.037654 10608 net.cpp:141] Setting up inception_4d/relu_pool_proj
I0403 20:07:30.037688 10608 net.cpp:148] Top shape: 24 64 14 14 (301056)
I0403 20:07:30.037706 10608 net.cpp:156] Memory required for data: 1147309344
I0403 20:07:30.037724 10608 layer_factory.hpp:77] Creating layer inception_4d/output
I0403 20:07:30.037746 10608 net.cpp:91] Creating Layer inception_4d/output
I0403 20:07:30.037765 10608 net.cpp:425] inception_4d/output <- inception_4d/1x1
I0403 20:07:30.037786 10608 net.cpp:425] inception_4d/output <- inception_4d/3x3
I0403 20:07:30.037806 10608 net.cpp:425] inception_4d/output <- inception_4d/5x5
I0403 20:07:30.037825 10608 net.cpp:425] inception_4d/output <- inception_4d/pool_proj
I0403 20:07:30.037847 10608 net.cpp:399] inception_4d/output -> inception_4d/output
I0403 20:07:30.037907 10608 net.cpp:141] Setting up inception_4d/output
I0403 20:07:30.037935 10608 net.cpp:148] Top shape: 24 528 14 14 (2483712)
I0403 20:07:30.037953 10608 net.cpp:156] Memory required for data: 1157244192
I0403 20:07:30.037971 10608 layer_factory.hpp:77] Creating layer inception_4d/output_inception_4d/output_0_split
I0403 20:07:30.037995 10608 net.cpp:91] Creating Layer inception_4d/output_inception_4d/output_0_split
I0403 20:07:30.038015 10608 net.cpp:425] inception_4d/output_inception_4d/output_0_split <- inception_4d/output
I0403 20:07:30.038038 10608 net.cpp:399] inception_4d/output_inception_4d/output_0_split -> inception_4d/output_inception_4d/output_0_split_0
I0403 20:07:30.038064 10608 net.cpp:399] inception_4d/output_inception_4d/output_0_split -> inception_4d/output_inception_4d/output_0_split_1
I0403 20:07:30.038094 10608 net.cpp:399] inception_4d/output_inception_4d/output_0_split -> inception_4d/output_inception_4d/output_0_split_2
I0403 20:07:30.038121 10608 net.cpp:399] inception_4d/output_inception_4d/output_0_split -> inception_4d/output_inception_4d/output_0_split_3
I0403 20:07:30.038146 10608 net.cpp:399] inception_4d/output_inception_4d/output_0_split -> inception_4d/output_inception_4d/output_0_split_4
I0403 20:07:30.038281 10608 net.cpp:141] Setting up inception_4d/output_inception_4d/output_0_split
I0403 20:07:30.038326 10608 net.cpp:148] Top shape: 24 528 14 14 (2483712)
I0403 20:07:30.038347 10608 net.cpp:148] Top shape: 24 528 14 14 (2483712)
I0403 20:07:30.038365 10608 net.cpp:148] Top shape: 24 528 14 14 (2483712)
I0403 20:07:30.038384 10608 net.cpp:148] Top shape: 24 528 14 14 (2483712)
I0403 20:07:30.038403 10608 net.cpp:148] Top shape: 24 528 14 14 (2483712)
I0403 20:07:30.038421 10608 net.cpp:156] Memory required for data: 1206918432
I0403 20:07:30.038439 10608 layer_factory.hpp:77] Creating layer loss2/ave_pool
I0403 20:07:30.038463 10608 net.cpp:91] Creating Layer loss2/ave_pool
I0403 20:07:30.038482 10608 net.cpp:425] loss2/ave_pool <- inception_4d/output_inception_4d/output_0_split_0
I0403 20:07:30.038507 10608 net.cpp:399] loss2/ave_pool -> loss2/ave_pool
I0403 20:07:30.038899 10608 net.cpp:141] Setting up loss2/ave_pool
I0403 20:07:30.038933 10608 net.cpp:148] Top shape: 24 528 4 4 (202752)
I0403 20:07:30.038951 10608 net.cpp:156] Memory required for data: 1207729440
I0403 20:07:30.038970 10608 layer_factory.hpp:77] Creating layer loss2/conv
I0403 20:07:30.038997 10608 net.cpp:91] Creating Layer loss2/conv
I0403 20:07:30.039019 10608 net.cpp:425] loss2/conv <- loss2/ave_pool
I0403 20:07:30.039046 10608 net.cpp:399] loss2/conv -> loss2/conv
I0403 20:07:30.041368 10608 net.cpp:141] Setting up loss2/conv
I0403 20:07:30.041406 10608 net.cpp:148] Top shape: 24 128 4 4 (49152)
I0403 20:07:30.041429 10608 net.cpp:156] Memory required for data: 1207926048
I0403 20:07:30.041451 10608 layer_factory.hpp:77] Creating layer loss2/relu_conv
I0403 20:07:30.041472 10608 net.cpp:91] Creating Layer loss2/relu_conv
I0403 20:07:30.041493 10608 net.cpp:425] loss2/relu_conv <- loss2/conv
I0403 20:07:30.041517 10608 net.cpp:386] loss2/relu_conv -> loss2/conv (in-place)
I0403 20:07:30.041862 10608 net.cpp:141] Setting up loss2/relu_conv
I0403 20:07:30.041898 10608 net.cpp:148] Top shape: 24 128 4 4 (49152)
I0403 20:07:30.041916 10608 net.cpp:156] Memory required for data: 1208122656
I0403 20:07:30.041935 10608 layer_factory.hpp:77] Creating layer loss2/fc
I0403 20:07:30.041957 10608 net.cpp:91] Creating Layer loss2/fc
I0403 20:07:30.041977 10608 net.cpp:425] loss2/fc <- loss2/conv
I0403 20:07:30.042004 10608 net.cpp:399] loss2/fc -> loss2/fc
I0403 20:07:30.064255 10608 net.cpp:141] Setting up loss2/fc
I0403 20:07:30.064304 10608 net.cpp:148] Top shape: 24 1024 (24576)
I0403 20:07:30.064326 10608 net.cpp:156] Memory required for data: 1208220960
I0403 20:07:30.064352 10608 layer_factory.hpp:77] Creating layer loss2/relu_fc
I0403 20:07:30.064379 10608 net.cpp:91] Creating Layer loss2/relu_fc
I0403 20:07:30.064404 10608 net.cpp:425] loss2/relu_fc <- loss2/fc
I0403 20:07:30.064427 10608 net.cpp:386] loss2/relu_fc -> loss2/fc (in-place)
I0403 20:07:30.064800 10608 net.cpp:141] Setting up loss2/relu_fc
I0403 20:07:30.064833 10608 net.cpp:148] Top shape: 24 1024 (24576)
I0403 20:07:30.064851 10608 net.cpp:156] Memory required for data: 1208319264
I0403 20:07:30.064869 10608 layer_factory.hpp:77] Creating layer loss2/drop_fc
I0403 20:07:30.064896 10608 net.cpp:91] Creating Layer loss2/drop_fc
I0403 20:07:30.064918 10608 net.cpp:425] loss2/drop_fc <- loss2/fc
I0403 20:07:30.064939 10608 net.cpp:386] loss2/drop_fc -> loss2/fc (in-place)
I0403 20:07:30.065001 10608 net.cpp:141] Setting up loss2/drop_fc
I0403 20:07:30.065031 10608 net.cpp:148] Top shape: 24 1024 (24576)
I0403 20:07:30.065048 10608 net.cpp:156] Memory required for data: 1208417568
I0403 20:07:30.065068 10608 layer_factory.hpp:77] Creating layer loss2/classifier_plantvillage
I0403 20:07:30.065090 10608 net.cpp:91] Creating Layer loss2/classifier_plantvillage
I0403 20:07:30.065110 10608 net.cpp:425] loss2/classifier_plantvillage <- loss2/fc
I0403 20:07:30.065140 10608 net.cpp:399] loss2/classifier_plantvillage -> loss2/classifier_plantvillage
I0403 20:07:30.065646 10608 net.cpp:141] Setting up loss2/classifier_plantvillage
I0403 20:07:30.065678 10608 net.cpp:148] Top shape: 24 38 (912)
I0403 20:07:30.065696 10608 net.cpp:156] Memory required for data: 1208421216
I0403 20:07:30.065738 10608 layer_factory.hpp:77] Creating layer loss2/classifier_plantvillage_loss2/classifier_plantvillage_0_split
I0403 20:07:30.065763 10608 net.cpp:91] Creating Layer loss2/classifier_plantvillage_loss2/classifier_plantvillage_0_split
I0403 20:07:30.065783 10608 net.cpp:425] loss2/classifier_plantvillage_loss2/classifier_plantvillage_0_split <- loss2/classifier_plantvillage
I0403 20:07:30.065807 10608 net.cpp:399] loss2/classifier_plantvillage_loss2/classifier_plantvillage_0_split -> loss2/classifier_plantvillage_loss2/classifier_plantvillage_0_split_0
I0403 20:07:30.065834 10608 net.cpp:399] loss2/classifier_plantvillage_loss2/classifier_plantvillage_0_split -> loss2/classifier_plantvillage_loss2/classifier_plantvillage_0_split_1
I0403 20:07:30.065862 10608 net.cpp:399] loss2/classifier_plantvillage_loss2/classifier_plantvillage_0_split -> loss2/classifier_plantvillage_loss2/classifier_plantvillage_0_split_2
I0403 20:07:30.065956 10608 net.cpp:141] Setting up loss2/classifier_plantvillage_loss2/classifier_plantvillage_0_split
I0403 20:07:30.065987 10608 net.cpp:148] Top shape: 24 38 (912)
I0403 20:07:30.066009 10608 net.cpp:148] Top shape: 24 38 (912)
I0403 20:07:30.066030 10608 net.cpp:148] Top shape: 24 38 (912)
I0403 20:07:30.066047 10608 net.cpp:156] Memory required for data: 1208432160
I0403 20:07:30.066066 10608 layer_factory.hpp:77] Creating layer inception_4e/1x1
I0403 20:07:30.066092 10608 net.cpp:91] Creating Layer inception_4e/1x1
I0403 20:07:30.066112 10608 net.cpp:425] inception_4e/1x1 <- inception_4d/output_inception_4d/output_0_split_1
I0403 20:07:30.066135 10608 net.cpp:399] inception_4e/1x1 -> inception_4e/1x1
I0403 20:07:30.068404 10608 net.cpp:141] Setting up inception_4e/1x1
I0403 20:07:30.068439 10608 net.cpp:148] Top shape: 24 256 14 14 (1204224)
I0403 20:07:30.068459 10608 net.cpp:156] Memory required for data: 1213249056
I0403 20:07:30.068481 10608 layer_factory.hpp:77] Creating layer inception_4e/relu_1x1
I0403 20:07:30.068505 10608 net.cpp:91] Creating Layer inception_4e/relu_1x1
I0403 20:07:30.068523 10608 net.cpp:425] inception_4e/relu_1x1 <- inception_4e/1x1
I0403 20:07:30.068547 10608 net.cpp:386] inception_4e/relu_1x1 -> inception_4e/1x1 (in-place)
I0403 20:07:30.068919 10608 net.cpp:141] Setting up inception_4e/relu_1x1
I0403 20:07:30.068953 10608 net.cpp:148] Top shape: 24 256 14 14 (1204224)
I0403 20:07:30.068970 10608 net.cpp:156] Memory required for data: 1218065952
I0403 20:07:30.068989 10608 layer_factory.hpp:77] Creating layer inception_4e/3x3_reduce
I0403 20:07:30.069016 10608 net.cpp:91] Creating Layer inception_4e/3x3_reduce
I0403 20:07:30.069037 10608 net.cpp:425] inception_4e/3x3_reduce <- inception_4d/output_inception_4d/output_0_split_2
I0403 20:07:30.069069 10608 net.cpp:399] inception_4e/3x3_reduce -> inception_4e/3x3_reduce
I0403 20:07:30.071702 10608 net.cpp:141] Setting up inception_4e/3x3_reduce
I0403 20:07:30.071741 10608 net.cpp:148] Top shape: 24 160 14 14 (752640)
I0403 20:07:30.071763 10608 net.cpp:156] Memory required for data: 1221076512
I0403 20:07:30.071786 10608 layer_factory.hpp:77] Creating layer inception_4e/relu_3x3_reduce
I0403 20:07:30.071810 10608 net.cpp:91] Creating Layer inception_4e/relu_3x3_reduce
I0403 20:07:30.071830 10608 net.cpp:425] inception_4e/relu_3x3_reduce <- inception_4e/3x3_reduce
I0403 20:07:30.071854 10608 net.cpp:386] inception_4e/relu_3x3_reduce -> inception_4e/3x3_reduce (in-place)
I0403 20:07:30.072087 10608 net.cpp:141] Setting up inception_4e/relu_3x3_reduce
I0403 20:07:30.072116 10608 net.cpp:148] Top shape: 24 160 14 14 (752640)
I0403 20:07:30.072134 10608 net.cpp:156] Memory required for data: 1224087072
I0403 20:07:30.072154 10608 layer_factory.hpp:77] Creating layer inception_4e/3x3
I0403 20:07:30.072182 10608 net.cpp:91] Creating Layer inception_4e/3x3
I0403 20:07:30.072204 10608 net.cpp:425] inception_4e/3x3 <- inception_4e/3x3_reduce
I0403 20:07:30.072233 10608 net.cpp:399] inception_4e/3x3 -> inception_4e/3x3
I0403 20:07:30.078512 10608 net.cpp:141] Setting up inception_4e/3x3
I0403 20:07:30.078564 10608 net.cpp:148] Top shape: 24 320 14 14 (1505280)
I0403 20:07:30.078585 10608 net.cpp:156] Memory required for data: 1230108192
I0403 20:07:30.078608 10608 layer_factory.hpp:77] Creating layer inception_4e/relu_3x3
I0403 20:07:30.078630 10608 net.cpp:91] Creating Layer inception_4e/relu_3x3
I0403 20:07:30.078652 10608 net.cpp:425] inception_4e/relu_3x3 <- inception_4e/3x3
I0403 20:07:30.078676 10608 net.cpp:386] inception_4e/relu_3x3 -> inception_4e/3x3 (in-place)
I0403 20:07:30.079042 10608 net.cpp:141] Setting up inception_4e/relu_3x3
I0403 20:07:30.079076 10608 net.cpp:148] Top shape: 24 320 14 14 (1505280)
I0403 20:07:30.079094 10608 net.cpp:156] Memory required for data: 1236129312
I0403 20:07:30.079113 10608 layer_factory.hpp:77] Creating layer inception_4e/5x5_reduce
I0403 20:07:30.079145 10608 net.cpp:91] Creating Layer inception_4e/5x5_reduce
I0403 20:07:30.079169 10608 net.cpp:425] inception_4e/5x5_reduce <- inception_4d/output_inception_4d/output_0_split_3
I0403 20:07:30.079195 10608 net.cpp:399] inception_4e/5x5_reduce -> inception_4e/5x5_reduce
I0403 20:07:30.080526 10608 net.cpp:141] Setting up inception_4e/5x5_reduce
I0403 20:07:30.080564 10608 net.cpp:148] Top shape: 24 32 14 14 (150528)
I0403 20:07:30.080585 10608 net.cpp:156] Memory required for data: 1236731424
I0403 20:07:30.080608 10608 layer_factory.hpp:77] Creating layer inception_4e/relu_5x5_reduce
I0403 20:07:30.080631 10608 net.cpp:91] Creating Layer inception_4e/relu_5x5_reduce
I0403 20:07:30.080651 10608 net.cpp:425] inception_4e/relu_5x5_reduce <- inception_4e/5x5_reduce
I0403 20:07:30.080675 10608 net.cpp:386] inception_4e/relu_5x5_reduce -> inception_4e/5x5_reduce (in-place)
I0403 20:07:30.081038 10608 net.cpp:141] Setting up inception_4e/relu_5x5_reduce
I0403 20:07:30.081074 10608 net.cpp:148] Top shape: 24 32 14 14 (150528)
I0403 20:07:30.081095 10608 net.cpp:156] Memory required for data: 1237333536
I0403 20:07:30.081115 10608 layer_factory.hpp:77] Creating layer inception_4e/5x5
I0403 20:07:30.081162 10608 net.cpp:91] Creating Layer inception_4e/5x5
I0403 20:07:30.081187 10608 net.cpp:425] inception_4e/5x5 <- inception_4e/5x5_reduce
I0403 20:07:30.081212 10608 net.cpp:399] inception_4e/5x5 -> inception_4e/5x5
I0403 20:07:30.083480 10608 net.cpp:141] Setting up inception_4e/5x5
I0403 20:07:30.083515 10608 net.cpp:148] Top shape: 24 128 14 14 (602112)
I0403 20:07:30.083540 10608 net.cpp:156] Memory required for data: 1239741984
I0403 20:07:30.083564 10608 layer_factory.hpp:77] Creating layer inception_4e/relu_5x5
I0403 20:07:30.083586 10608 net.cpp:91] Creating Layer inception_4e/relu_5x5
I0403 20:07:30.083606 10608 net.cpp:425] inception_4e/relu_5x5 <- inception_4e/5x5
I0403 20:07:30.083628 10608 net.cpp:386] inception_4e/relu_5x5 -> inception_4e/5x5 (in-place)
I0403 20:07:30.083874 10608 net.cpp:141] Setting up inception_4e/relu_5x5
I0403 20:07:30.083909 10608 net.cpp:148] Top shape: 24 128 14 14 (602112)
I0403 20:07:30.083927 10608 net.cpp:156] Memory required for data: 1242150432
I0403 20:07:30.083946 10608 layer_factory.hpp:77] Creating layer inception_4e/pool
I0403 20:07:30.083969 10608 net.cpp:91] Creating Layer inception_4e/pool
I0403 20:07:30.083989 10608 net.cpp:425] inception_4e/pool <- inception_4d/output_inception_4d/output_0_split_4
I0403 20:07:30.084015 10608 net.cpp:399] inception_4e/pool -> inception_4e/pool
I0403 20:07:30.084102 10608 net.cpp:141] Setting up inception_4e/pool
I0403 20:07:30.084134 10608 net.cpp:148] Top shape: 24 528 14 14 (2483712)
I0403 20:07:30.084153 10608 net.cpp:156] Memory required for data: 1252085280
I0403 20:07:30.084172 10608 layer_factory.hpp:77] Creating layer inception_4e/pool_proj
I0403 20:07:30.084197 10608 net.cpp:91] Creating Layer inception_4e/pool_proj
I0403 20:07:30.084218 10608 net.cpp:425] inception_4e/pool_proj <- inception_4e/pool
I0403 20:07:30.084249 10608 net.cpp:399] inception_4e/pool_proj -> inception_4e/pool_proj
I0403 20:07:30.086127 10608 net.cpp:141] Setting up inception_4e/pool_proj
I0403 20:07:30.086163 10608 net.cpp:148] Top shape: 24 128 14 14 (602112)
I0403 20:07:30.086199 10608 net.cpp:156] Memory required for data: 1254493728
I0403 20:07:30.086225 10608 layer_factory.hpp:77] Creating layer inception_4e/relu_pool_proj
I0403 20:07:30.086257 10608 net.cpp:91] Creating Layer inception_4e/relu_pool_proj
I0403 20:07:30.086280 10608 net.cpp:425] inception_4e/relu_pool_proj <- inception_4e/pool_proj
I0403 20:07:30.086303 10608 net.cpp:386] inception_4e/relu_pool_proj -> inception_4e/pool_proj (in-place)
I0403 20:07:30.086665 10608 net.cpp:141] Setting up inception_4e/relu_pool_proj
I0403 20:07:30.086697 10608 net.cpp:148] Top shape: 24 128 14 14 (602112)
I0403 20:07:30.086716 10608 net.cpp:156] Memory required for data: 1256902176
I0403 20:07:30.086735 10608 layer_factory.hpp:77] Creating layer inception_4e/output
I0403 20:07:30.086760 10608 net.cpp:91] Creating Layer inception_4e/output
I0403 20:07:30.086782 10608 net.cpp:425] inception_4e/output <- inception_4e/1x1
I0403 20:07:30.086804 10608 net.cpp:425] inception_4e/output <- inception_4e/3x3
I0403 20:07:30.086823 10608 net.cpp:425] inception_4e/output <- inception_4e/5x5
I0403 20:07:30.086844 10608 net.cpp:425] inception_4e/output <- inception_4e/pool_proj
I0403 20:07:30.086865 10608 net.cpp:399] inception_4e/output -> inception_4e/output
I0403 20:07:30.086928 10608 net.cpp:141] Setting up inception_4e/output
I0403 20:07:30.086958 10608 net.cpp:148] Top shape: 24 832 14 14 (3913728)
I0403 20:07:30.086977 10608 net.cpp:156] Memory required for data: 1272557088
I0403 20:07:30.086995 10608 layer_factory.hpp:77] Creating layer pool4/3x3_s2
I0403 20:07:30.087016 10608 net.cpp:91] Creating Layer pool4/3x3_s2
I0403 20:07:30.087036 10608 net.cpp:425] pool4/3x3_s2 <- inception_4e/output
I0403 20:07:30.087064 10608 net.cpp:399] pool4/3x3_s2 -> pool4/3x3_s2
I0403 20:07:30.087147 10608 net.cpp:141] Setting up pool4/3x3_s2
I0403 20:07:30.087180 10608 net.cpp:148] Top shape: 24 832 7 7 (978432)
I0403 20:07:30.087200 10608 net.cpp:156] Memory required for data: 1276470816
I0403 20:07:30.087219 10608 layer_factory.hpp:77] Creating layer pool4/3x3_s2_pool4/3x3_s2_0_split
I0403 20:07:30.087247 10608 net.cpp:91] Creating Layer pool4/3x3_s2_pool4/3x3_s2_0_split
I0403 20:07:30.087270 10608 net.cpp:425] pool4/3x3_s2_pool4/3x3_s2_0_split <- pool4/3x3_s2
I0403 20:07:30.087292 10608 net.cpp:399] pool4/3x3_s2_pool4/3x3_s2_0_split -> pool4/3x3_s2_pool4/3x3_s2_0_split_0
I0403 20:07:30.087321 10608 net.cpp:399] pool4/3x3_s2_pool4/3x3_s2_0_split -> pool4/3x3_s2_pool4/3x3_s2_0_split_1
I0403 20:07:30.087349 10608 net.cpp:399] pool4/3x3_s2_pool4/3x3_s2_0_split -> pool4/3x3_s2_pool4/3x3_s2_0_split_2
I0403 20:07:30.087373 10608 net.cpp:399] pool4/3x3_s2_pool4/3x3_s2_0_split -> pool4/3x3_s2_pool4/3x3_s2_0_split_3
I0403 20:07:30.087489 10608 net.cpp:141] Setting up pool4/3x3_s2_pool4/3x3_s2_0_split
I0403 20:07:30.087519 10608 net.cpp:148] Top shape: 24 832 7 7 (978432)
I0403 20:07:30.087539 10608 net.cpp:148] Top shape: 24 832 7 7 (978432)
I0403 20:07:30.087559 10608 net.cpp:148] Top shape: 24 832 7 7 (978432)
I0403 20:07:30.087579 10608 net.cpp:148] Top shape: 24 832 7 7 (978432)
I0403 20:07:30.087596 10608 net.cpp:156] Memory required for data: 1292125728
I0403 20:07:30.087615 10608 layer_factory.hpp:77] Creating layer inception_5a/1x1
I0403 20:07:30.087644 10608 net.cpp:91] Creating Layer inception_5a/1x1
I0403 20:07:30.087668 10608 net.cpp:425] inception_5a/1x1 <- pool4/3x3_s2_pool4/3x3_s2_0_split_0
I0403 20:07:30.087693 10608 net.cpp:399] inception_5a/1x1 -> inception_5a/1x1
I0403 20:07:30.091230 10608 net.cpp:141] Setting up inception_5a/1x1
I0403 20:07:30.091272 10608 net.cpp:148] Top shape: 24 256 7 7 (301056)
I0403 20:07:30.091294 10608 net.cpp:156] Memory required for data: 1293329952
I0403 20:07:30.091320 10608 layer_factory.hpp:77] Creating layer inception_5a/relu_1x1
I0403 20:07:30.091344 10608 net.cpp:91] Creating Layer inception_5a/relu_1x1
I0403 20:07:30.091366 10608 net.cpp:425] inception_5a/relu_1x1 <- inception_5a/1x1
I0403 20:07:30.091388 10608 net.cpp:386] inception_5a/relu_1x1 -> inception_5a/1x1 (in-place)
I0403 20:07:30.091774 10608 net.cpp:141] Setting up inception_5a/relu_1x1
I0403 20:07:30.091810 10608 net.cpp:148] Top shape: 24 256 7 7 (301056)
I0403 20:07:30.091830 10608 net.cpp:156] Memory required for data: 1294534176
I0403 20:07:30.091850 10608 layer_factory.hpp:77] Creating layer inception_5a/3x3_reduce
I0403 20:07:30.091876 10608 net.cpp:91] Creating Layer inception_5a/3x3_reduce
I0403 20:07:30.091899 10608 net.cpp:425] inception_5a/3x3_reduce <- pool4/3x3_s2_pool4/3x3_s2_0_split_1
I0403 20:07:30.091923 10608 net.cpp:399] inception_5a/3x3_reduce -> inception_5a/3x3_reduce
I0403 20:07:30.094972 10608 net.cpp:141] Setting up inception_5a/3x3_reduce
I0403 20:07:30.095010 10608 net.cpp:148] Top shape: 24 160 7 7 (188160)
I0403 20:07:30.095029 10608 net.cpp:156] Memory required for data: 1295286816
I0403 20:07:30.095052 10608 layer_factory.hpp:77] Creating layer inception_5a/relu_3x3_reduce
I0403 20:07:30.095077 10608 net.cpp:91] Creating Layer inception_5a/relu_3x3_reduce
I0403 20:07:30.095098 10608 net.cpp:425] inception_5a/relu_3x3_reduce <- inception_5a/3x3_reduce
I0403 20:07:30.095120 10608 net.cpp:386] inception_5a/relu_3x3_reduce -> inception_5a/3x3_reduce (in-place)
I0403 20:07:30.095360 10608 net.cpp:141] Setting up inception_5a/relu_3x3_reduce
I0403 20:07:30.095391 10608 net.cpp:148] Top shape: 24 160 7 7 (188160)
I0403 20:07:30.095408 10608 net.cpp:156] Memory required for data: 1296039456
I0403 20:07:30.095427 10608 layer_factory.hpp:77] Creating layer inception_5a/3x3
I0403 20:07:30.095458 10608 net.cpp:91] Creating Layer inception_5a/3x3
I0403 20:07:30.095481 10608 net.cpp:425] inception_5a/3x3 <- inception_5a/3x3_reduce
I0403 20:07:30.095504 10608 net.cpp:399] inception_5a/3x3 -> inception_5a/3x3
I0403 20:07:30.101783 10608 net.cpp:141] Setting up inception_5a/3x3
I0403 20:07:30.101824 10608 net.cpp:148] Top shape: 24 320 7 7 (376320)
I0403 20:07:30.101843 10608 net.cpp:156] Memory required for data: 1297544736
I0403 20:07:30.101867 10608 layer_factory.hpp:77] Creating layer inception_5a/relu_3x3
I0403 20:07:30.101889 10608 net.cpp:91] Creating Layer inception_5a/relu_3x3
I0403 20:07:30.101909 10608 net.cpp:425] inception_5a/relu_3x3 <- inception_5a/3x3
I0403 20:07:30.101932 10608 net.cpp:386] inception_5a/relu_3x3 -> inception_5a/3x3 (in-place)
I0403 20:07:30.102303 10608 net.cpp:141] Setting up inception_5a/relu_3x3
I0403 20:07:30.102339 10608 net.cpp:148] Top shape: 24 320 7 7 (376320)
I0403 20:07:30.102360 10608 net.cpp:156] Memory required for data: 1299050016
I0403 20:07:30.102378 10608 layer_factory.hpp:77] Creating layer inception_5a/5x5_reduce
I0403 20:07:30.102406 10608 net.cpp:91] Creating Layer inception_5a/5x5_reduce
I0403 20:07:30.102427 10608 net.cpp:425] inception_5a/5x5_reduce <- pool4/3x3_s2_pool4/3x3_s2_0_split_2
I0403 20:07:30.102452 10608 net.cpp:399] inception_5a/5x5_reduce -> inception_5a/5x5_reduce
I0403 20:07:30.103902 10608 net.cpp:141] Setting up inception_5a/5x5_reduce
I0403 20:07:30.103940 10608 net.cpp:148] Top shape: 24 32 7 7 (37632)
I0403 20:07:30.103961 10608 net.cpp:156] Memory required for data: 1299200544
I0403 20:07:30.103986 10608 layer_factory.hpp:77] Creating layer inception_5a/relu_5x5_reduce
I0403 20:07:30.104007 10608 net.cpp:91] Creating Layer inception_5a/relu_5x5_reduce
I0403 20:07:30.104027 10608 net.cpp:425] inception_5a/relu_5x5_reduce <- inception_5a/5x5_reduce
I0403 20:07:30.104056 10608 net.cpp:386] inception_5a/relu_5x5_reduce -> inception_5a/5x5_reduce (in-place)
I0403 20:07:30.104420 10608 net.cpp:141] Setting up inception_5a/relu_5x5_reduce
I0403 20:07:30.104455 10608 net.cpp:148] Top shape: 24 32 7 7 (37632)
I0403 20:07:30.104475 10608 net.cpp:156] Memory required for data: 1299351072
I0403 20:07:30.104495 10608 layer_factory.hpp:77] Creating layer inception_5a/5x5
I0403 20:07:30.104521 10608 net.cpp:91] Creating Layer inception_5a/5x5
I0403 20:07:30.104544 10608 net.cpp:425] inception_5a/5x5 <- inception_5a/5x5_reduce
I0403 20:07:30.104568 10608 net.cpp:399] inception_5a/5x5 -> inception_5a/5x5
I0403 20:07:30.106696 10608 net.cpp:141] Setting up inception_5a/5x5
I0403 20:07:30.106748 10608 net.cpp:148] Top shape: 24 128 7 7 (150528)
I0403 20:07:30.106770 10608 net.cpp:156] Memory required for data: 1299953184
I0403 20:07:30.106792 10608 layer_factory.hpp:77] Creating layer inception_5a/relu_5x5
I0403 20:07:30.106814 10608 net.cpp:91] Creating Layer inception_5a/relu_5x5
I0403 20:07:30.106835 10608 net.cpp:425] inception_5a/relu_5x5 <- inception_5a/5x5
I0403 20:07:30.106858 10608 net.cpp:386] inception_5a/relu_5x5 -> inception_5a/5x5 (in-place)
I0403 20:07:30.107096 10608 net.cpp:141] Setting up inception_5a/relu_5x5
I0403 20:07:30.107130 10608 net.cpp:148] Top shape: 24 128 7 7 (150528)
I0403 20:07:30.107148 10608 net.cpp:156] Memory required for data: 1300555296
I0403 20:07:30.107167 10608 layer_factory.hpp:77] Creating layer inception_5a/pool
I0403 20:07:30.107188 10608 net.cpp:91] Creating Layer inception_5a/pool
I0403 20:07:30.107208 10608 net.cpp:425] inception_5a/pool <- pool4/3x3_s2_pool4/3x3_s2_0_split_3
I0403 20:07:30.107234 10608 net.cpp:399] inception_5a/pool -> inception_5a/pool
I0403 20:07:30.107328 10608 net.cpp:141] Setting up inception_5a/pool
I0403 20:07:30.107360 10608 net.cpp:148] Top shape: 24 832 7 7 (978432)
I0403 20:07:30.107378 10608 net.cpp:156] Memory required for data: 1304469024
I0403 20:07:30.107396 10608 layer_factory.hpp:77] Creating layer inception_5a/pool_proj
I0403 20:07:30.107424 10608 net.cpp:91] Creating Layer inception_5a/pool_proj
I0403 20:07:30.107446 10608 net.cpp:425] inception_5a/pool_proj <- inception_5a/pool
I0403 20:07:30.107470 10608 net.cpp:399] inception_5a/pool_proj -> inception_5a/pool_proj
I0403 20:07:30.110265 10608 net.cpp:141] Setting up inception_5a/pool_proj
I0403 20:07:30.110301 10608 net.cpp:148] Top shape: 24 128 7 7 (150528)
I0403 20:07:30.110321 10608 net.cpp:156] Memory required for data: 1305071136
I0403 20:07:30.110344 10608 layer_factory.hpp:77] Creating layer inception_5a/relu_pool_proj
I0403 20:07:30.110370 10608 net.cpp:91] Creating Layer inception_5a/relu_pool_proj
I0403 20:07:30.110391 10608 net.cpp:425] inception_5a/relu_pool_proj <- inception_5a/pool_proj
I0403 20:07:30.110414 10608 net.cpp:386] inception_5a/relu_pool_proj -> inception_5a/pool_proj (in-place)
I0403 20:07:30.110770 10608 net.cpp:141] Setting up inception_5a/relu_pool_proj
I0403 20:07:30.110803 10608 net.cpp:148] Top shape: 24 128 7 7 (150528)
I0403 20:07:30.110821 10608 net.cpp:156] Memory required for data: 1305673248
I0403 20:07:30.110841 10608 layer_factory.hpp:77] Creating layer inception_5a/output
I0403 20:07:30.110864 10608 net.cpp:91] Creating Layer inception_5a/output
I0403 20:07:30.110887 10608 net.cpp:425] inception_5a/output <- inception_5a/1x1
I0403 20:07:30.110906 10608 net.cpp:425] inception_5a/output <- inception_5a/3x3
I0403 20:07:30.110925 10608 net.cpp:425] inception_5a/output <- inception_5a/5x5
I0403 20:07:30.110945 10608 net.cpp:425] inception_5a/output <- inception_5a/pool_proj
I0403 20:07:30.110966 10608 net.cpp:399] inception_5a/output -> inception_5a/output
I0403 20:07:30.111029 10608 net.cpp:141] Setting up inception_5a/output
I0403 20:07:30.111057 10608 net.cpp:148] Top shape: 24 832 7 7 (978432)
I0403 20:07:30.111075 10608 net.cpp:156] Memory required for data: 1309586976
I0403 20:07:30.111093 10608 layer_factory.hpp:77] Creating layer inception_5a/output_inception_5a/output_0_split
I0403 20:07:30.111119 10608 net.cpp:91] Creating Layer inception_5a/output_inception_5a/output_0_split
I0403 20:07:30.111140 10608 net.cpp:425] inception_5a/output_inception_5a/output_0_split <- inception_5a/output
I0403 20:07:30.111165 10608 net.cpp:399] inception_5a/output_inception_5a/output_0_split -> inception_5a/output_inception_5a/output_0_split_0
I0403 20:07:30.111191 10608 net.cpp:399] inception_5a/output_inception_5a/output_0_split -> inception_5a/output_inception_5a/output_0_split_1
I0403 20:07:30.111215 10608 net.cpp:399] inception_5a/output_inception_5a/output_0_split -> inception_5a/output_inception_5a/output_0_split_2
I0403 20:07:30.111248 10608 net.cpp:399] inception_5a/output_inception_5a/output_0_split -> inception_5a/output_inception_5a/output_0_split_3
I0403 20:07:30.111389 10608 net.cpp:141] Setting up inception_5a/output_inception_5a/output_0_split
I0403 20:07:30.111423 10608 net.cpp:148] Top shape: 24 832 7 7 (978432)
I0403 20:07:30.111443 10608 net.cpp:148] Top shape: 24 832 7 7 (978432)
I0403 20:07:30.111464 10608 net.cpp:148] Top shape: 24 832 7 7 (978432)
I0403 20:07:30.111484 10608 net.cpp:148] Top shape: 24 832 7 7 (978432)
I0403 20:07:30.111500 10608 net.cpp:156] Memory required for data: 1325241888
I0403 20:07:30.111518 10608 layer_factory.hpp:77] Creating layer inception_5b/1x1
I0403 20:07:30.111546 10608 net.cpp:91] Creating Layer inception_5b/1x1
I0403 20:07:30.111568 10608 net.cpp:425] inception_5b/1x1 <- inception_5a/output_inception_5a/output_0_split_0
I0403 20:07:30.111593 10608 net.cpp:399] inception_5b/1x1 -> inception_5b/1x1
I0403 20:07:30.116600 10608 net.cpp:141] Setting up inception_5b/1x1
I0403 20:07:30.116639 10608 net.cpp:148] Top shape: 24 384 7 7 (451584)
I0403 20:07:30.116660 10608 net.cpp:156] Memory required for data: 1327048224
I0403 20:07:30.116683 10608 layer_factory.hpp:77] Creating layer inception_5b/relu_1x1
I0403 20:07:30.116709 10608 net.cpp:91] Creating Layer inception_5b/relu_1x1
I0403 20:07:30.116731 10608 net.cpp:425] inception_5b/relu_1x1 <- inception_5b/1x1
I0403 20:07:30.116755 10608 net.cpp:386] inception_5b/relu_1x1 -> inception_5b/1x1 (in-place)
I0403 20:07:30.117128 10608 net.cpp:141] Setting up inception_5b/relu_1x1
I0403 20:07:30.117161 10608 net.cpp:148] Top shape: 24 384 7 7 (451584)
I0403 20:07:30.117179 10608 net.cpp:156] Memory required for data: 1328854560
I0403 20:07:30.117198 10608 layer_factory.hpp:77] Creating layer inception_5b/3x3_reduce
I0403 20:07:30.117226 10608 net.cpp:91] Creating Layer inception_5b/3x3_reduce
I0403 20:07:30.117254 10608 net.cpp:425] inception_5b/3x3_reduce <- inception_5a/output_inception_5a/output_0_split_1
I0403 20:07:30.117282 10608 net.cpp:399] inception_5b/3x3_reduce -> inception_5b/3x3_reduce
I0403 20:07:30.120589 10608 net.cpp:141] Setting up inception_5b/3x3_reduce
I0403 20:07:30.120626 10608 net.cpp:148] Top shape: 24 192 7 7 (225792)
I0403 20:07:30.120646 10608 net.cpp:156] Memory required for data: 1329757728
I0403 20:07:30.120669 10608 layer_factory.hpp:77] Creating layer inception_5b/relu_3x3_reduce
I0403 20:07:30.120697 10608 net.cpp:91] Creating Layer inception_5b/relu_3x3_reduce
I0403 20:07:30.120718 10608 net.cpp:425] inception_5b/relu_3x3_reduce <- inception_5b/3x3_reduce
I0403 20:07:30.120739 10608 net.cpp:386] inception_5b/relu_3x3_reduce -> inception_5b/3x3_reduce (in-place)
I0403 20:07:30.120976 10608 net.cpp:141] Setting up inception_5b/relu_3x3_reduce
I0403 20:07:30.121009 10608 net.cpp:148] Top shape: 24 192 7 7 (225792)
I0403 20:07:30.121031 10608 net.cpp:156] Memory required for data: 1330660896
I0403 20:07:30.121049 10608 layer_factory.hpp:77] Creating layer inception_5b/3x3
I0403 20:07:30.121076 10608 net.cpp:91] Creating Layer inception_5b/3x3
I0403 20:07:30.121098 10608 net.cpp:425] inception_5b/3x3 <- inception_5b/3x3_reduce
I0403 20:07:30.121122 10608 net.cpp:399] inception_5b/3x3 -> inception_5b/3x3
I0403 20:07:30.129596 10608 net.cpp:141] Setting up inception_5b/3x3
I0403 20:07:30.129633 10608 net.cpp:148] Top shape: 24 384 7 7 (451584)
I0403 20:07:30.129653 10608 net.cpp:156] Memory required for data: 1332467232
I0403 20:07:30.129678 10608 layer_factory.hpp:77] Creating layer inception_5b/relu_3x3
I0403 20:07:30.129708 10608 net.cpp:91] Creating Layer inception_5b/relu_3x3
I0403 20:07:30.129729 10608 net.cpp:425] inception_5b/relu_3x3 <- inception_5b/3x3
I0403 20:07:30.129751 10608 net.cpp:386] inception_5b/relu_3x3 -> inception_5b/3x3 (in-place)
I0403 20:07:30.130122 10608 net.cpp:141] Setting up inception_5b/relu_3x3
I0403 20:07:30.130156 10608 net.cpp:148] Top shape: 24 384 7 7 (451584)
I0403 20:07:30.130174 10608 net.cpp:156] Memory required for data: 1334273568
I0403 20:07:30.130192 10608 layer_factory.hpp:77] Creating layer inception_5b/5x5_reduce
I0403 20:07:30.130245 10608 net.cpp:91] Creating Layer inception_5b/5x5_reduce
I0403 20:07:30.130271 10608 net.cpp:425] inception_5b/5x5_reduce <- inception_5a/output_inception_5a/output_0_split_2
I0403 20:07:30.130301 10608 net.cpp:399] inception_5b/5x5_reduce -> inception_5b/5x5_reduce
I0403 20:07:30.131896 10608 net.cpp:141] Setting up inception_5b/5x5_reduce
I0403 20:07:30.131930 10608 net.cpp:148] Top shape: 24 48 7 7 (56448)
I0403 20:07:30.131948 10608 net.cpp:156] Memory required for data: 1334499360
I0403 20:07:30.131971 10608 layer_factory.hpp:77] Creating layer inception_5b/relu_5x5_reduce
I0403 20:07:30.131997 10608 net.cpp:91] Creating Layer inception_5b/relu_5x5_reduce
I0403 20:07:30.132019 10608 net.cpp:425] inception_5b/relu_5x5_reduce <- inception_5b/5x5_reduce
I0403 20:07:30.132040 10608 net.cpp:386] inception_5b/relu_5x5_reduce -> inception_5b/5x5_reduce (in-place)
I0403 20:07:30.132516 10608 net.cpp:141] Setting up inception_5b/relu_5x5_reduce
I0403 20:07:30.132550 10608 net.cpp:148] Top shape: 24 48 7 7 (56448)
I0403 20:07:30.132568 10608 net.cpp:156] Memory required for data: 1334725152
I0403 20:07:30.132587 10608 layer_factory.hpp:77] Creating layer inception_5b/5x5
I0403 20:07:30.132612 10608 net.cpp:91] Creating Layer inception_5b/5x5
I0403 20:07:30.132635 10608 net.cpp:425] inception_5b/5x5 <- inception_5b/5x5_reduce
I0403 20:07:30.132660 10608 net.cpp:399] inception_5b/5x5 -> inception_5b/5x5
I0403 20:07:30.135200 10608 net.cpp:141] Setting up inception_5b/5x5
I0403 20:07:30.135243 10608 net.cpp:148] Top shape: 24 128 7 7 (150528)
I0403 20:07:30.135267 10608 net.cpp:156] Memory required for data: 1335327264
I0403 20:07:30.135290 10608 layer_factory.hpp:77] Creating layer inception_5b/relu_5x5
I0403 20:07:30.135313 10608 net.cpp:91] Creating Layer inception_5b/relu_5x5
I0403 20:07:30.135334 10608 net.cpp:425] inception_5b/relu_5x5 <- inception_5b/5x5
I0403 20:07:30.135359 10608 net.cpp:386] inception_5b/relu_5x5 -> inception_5b/5x5 (in-place)
I0403 20:07:30.135603 10608 net.cpp:141] Setting up inception_5b/relu_5x5
I0403 20:07:30.135633 10608 net.cpp:148] Top shape: 24 128 7 7 (150528)
I0403 20:07:30.135653 10608 net.cpp:156] Memory required for data: 1335929376
I0403 20:07:30.135671 10608 layer_factory.hpp:77] Creating layer inception_5b/pool
I0403 20:07:30.135694 10608 net.cpp:91] Creating Layer inception_5b/pool
I0403 20:07:30.135715 10608 net.cpp:425] inception_5b/pool <- inception_5a/output_inception_5a/output_0_split_3
I0403 20:07:30.135740 10608 net.cpp:399] inception_5b/pool -> inception_5b/pool
I0403 20:07:30.135829 10608 net.cpp:141] Setting up inception_5b/pool
I0403 20:07:30.135859 10608 net.cpp:148] Top shape: 24 832 7 7 (978432)
I0403 20:07:30.135876 10608 net.cpp:156] Memory required for data: 1339843104
I0403 20:07:30.135895 10608 layer_factory.hpp:77] Creating layer inception_5b/pool_proj
I0403 20:07:30.135926 10608 net.cpp:91] Creating Layer inception_5b/pool_proj
I0403 20:07:30.135948 10608 net.cpp:425] inception_5b/pool_proj <- inception_5b/pool
I0403 20:07:30.135972 10608 net.cpp:399] inception_5b/pool_proj -> inception_5b/pool_proj
I0403 20:07:30.138840 10608 net.cpp:141] Setting up inception_5b/pool_proj
I0403 20:07:30.138880 10608 net.cpp:148] Top shape: 24 128 7 7 (150528)
I0403 20:07:30.138900 10608 net.cpp:156] Memory required for data: 1340445216
I0403 20:07:30.138923 10608 layer_factory.hpp:77] Creating layer inception_5b/relu_pool_proj
I0403 20:07:30.138950 10608 net.cpp:91] Creating Layer inception_5b/relu_pool_proj
I0403 20:07:30.138970 10608 net.cpp:425] inception_5b/relu_pool_proj <- inception_5b/pool_proj
I0403 20:07:30.138993 10608 net.cpp:386] inception_5b/relu_pool_proj -> inception_5b/pool_proj (in-place)
I0403 20:07:30.139360 10608 net.cpp:141] Setting up inception_5b/relu_pool_proj
I0403 20:07:30.139394 10608 net.cpp:148] Top shape: 24 128 7 7 (150528)
I0403 20:07:30.139412 10608 net.cpp:156] Memory required for data: 1341047328
I0403 20:07:30.139431 10608 layer_factory.hpp:77] Creating layer inception_5b/output
I0403 20:07:30.139456 10608 net.cpp:91] Creating Layer inception_5b/output
I0403 20:07:30.139493 10608 net.cpp:425] inception_5b/output <- inception_5b/1x1
I0403 20:07:30.139515 10608 net.cpp:425] inception_5b/output <- inception_5b/3x3
I0403 20:07:30.139536 10608 net.cpp:425] inception_5b/output <- inception_5b/5x5
I0403 20:07:30.139557 10608 net.cpp:425] inception_5b/output <- inception_5b/pool_proj
I0403 20:07:30.139578 10608 net.cpp:399] inception_5b/output -> inception_5b/output
I0403 20:07:30.139643 10608 net.cpp:141] Setting up inception_5b/output
I0403 20:07:30.139672 10608 net.cpp:148] Top shape: 24 1024 7 7 (1204224)
I0403 20:07:30.139690 10608 net.cpp:156] Memory required for data: 1345864224
I0403 20:07:30.139708 10608 layer_factory.hpp:77] Creating layer pool5/7x7_s1
I0403 20:07:30.139731 10608 net.cpp:91] Creating Layer pool5/7x7_s1
I0403 20:07:30.139755 10608 net.cpp:425] pool5/7x7_s1 <- inception_5b/output
I0403 20:07:30.139778 10608 net.cpp:399] pool5/7x7_s1 -> pool5/7x7_s1
I0403 20:07:30.140046 10608 net.cpp:141] Setting up pool5/7x7_s1
I0403 20:07:30.140079 10608 net.cpp:148] Top shape: 24 1024 1 1 (24576)
I0403 20:07:30.140100 10608 net.cpp:156] Memory required for data: 1345962528
I0403 20:07:30.140118 10608 layer_factory.hpp:77] Creating layer pool5/drop_7x7_s1
I0403 20:07:30.140141 10608 net.cpp:91] Creating Layer pool5/drop_7x7_s1
I0403 20:07:30.140161 10608 net.cpp:425] pool5/drop_7x7_s1 <- pool5/7x7_s1
I0403 20:07:30.140182 10608 net.cpp:386] pool5/drop_7x7_s1 -> pool5/7x7_s1 (in-place)
I0403 20:07:30.140251 10608 net.cpp:141] Setting up pool5/drop_7x7_s1
I0403 20:07:30.140280 10608 net.cpp:148] Top shape: 24 1024 1 1 (24576)
I0403 20:07:30.140300 10608 net.cpp:156] Memory required for data: 1346060832
I0403 20:07:30.140317 10608 layer_factory.hpp:77] Creating layer loss3/classifier_plantvillage
I0403 20:07:30.140346 10608 net.cpp:91] Creating Layer loss3/classifier_plantvillage
I0403 20:07:30.140367 10608 net.cpp:425] loss3/classifier_plantvillage <- pool5/7x7_s1
I0403 20:07:30.140388 10608 net.cpp:399] loss3/classifier_plantvillage -> loss3/classifier_plantvillage
I0403 20:07:30.140921 10608 net.cpp:141] Setting up loss3/classifier_plantvillage
I0403 20:07:30.140951 10608 net.cpp:148] Top shape: 24 38 (912)
I0403 20:07:30.140969 10608 net.cpp:156] Memory required for data: 1346064480
I0403 20:07:30.140992 10608 layer_factory.hpp:77] Creating layer loss3/classifier_plantvillage_loss3/classifier_plantvillage_0_split
I0403 20:07:30.141016 10608 net.cpp:91] Creating Layer loss3/classifier_plantvillage_loss3/classifier_plantvillage_0_split
I0403 20:07:30.141034 10608 net.cpp:425] loss3/classifier_plantvillage_loss3/classifier_plantvillage_0_split <- loss3/classifier_plantvillage
I0403 20:07:30.141062 10608 net.cpp:399] loss3/classifier_plantvillage_loss3/classifier_plantvillage_0_split -> loss3/classifier_plantvillage_loss3/classifier_plantvillage_0_split_0
I0403 20:07:30.141090 10608 net.cpp:399] loss3/classifier_plantvillage_loss3/classifier_plantvillage_0_split -> loss3/classifier_plantvillage_loss3/classifier_plantvillage_0_split_1
I0403 20:07:30.141116 10608 net.cpp:399] loss3/classifier_plantvillage_loss3/classifier_plantvillage_0_split -> loss3/classifier_plantvillage_loss3/classifier_plantvillage_0_split_2
I0403 20:07:30.141144 10608 net.cpp:399] loss3/classifier_plantvillage_loss3/classifier_plantvillage_0_split -> loss3/classifier_plantvillage_loss3/classifier_plantvillage_0_split_3
I0403 20:07:30.141281 10608 net.cpp:141] Setting up loss3/classifier_plantvillage_loss3/classifier_plantvillage_0_split
I0403 20:07:30.141314 10608 net.cpp:148] Top shape: 24 38 (912)
I0403 20:07:30.141335 10608 net.cpp:148] Top shape: 24 38 (912)
I0403 20:07:30.141355 10608 net.cpp:148] Top shape: 24 38 (912)
I0403 20:07:30.141374 10608 net.cpp:148] Top shape: 24 38 (912)
I0403 20:07:30.141392 10608 net.cpp:156] Memory required for data: 1346079072
I0403 20:07:30.141410 10608 layer_factory.hpp:77] Creating layer loss1/loss
I0403 20:07:30.141439 10608 net.cpp:91] Creating Layer loss1/loss
I0403 20:07:30.141460 10608 net.cpp:425] loss1/loss <- loss1/classifier_plantvillage_loss1/classifier_plantvillage_0_split_0
I0403 20:07:30.141497 10608 net.cpp:425] loss1/loss <- label_data_1_split_0
…
