…
I0403 19:16:39.769703  9040 net.cpp:313] The NetState phase (1) differed from the phase (0) specified by a rule in layer data
I0403 19:16:39.770856  9040 net.cpp:49] Initializing net from parameters: 
state {
  phase: TEST
}
layer {
  name: "data"
  type: "Data"
  top: "data"
  top: "label"
  include {
    phase: TEST
  }
  transform_param {
    mirror: false
    crop_size: 224
    mean_file: "/home/mohanty/data/final_dataset/lmdb/color-50-50/mean.binaryproto"
  }
  data_param {
    source: "/home/mohanty/data/final_dataset/lmdb/color-50-50/test_db"
    batch_size: 24
    backend: LMDB
  }
}
layer {
  name: "conv1/7x7_s2"
  type: "Convolution"
  bottom: "data"
  top: "conv1/7x7_s2"
  param {
    lr_mult: 1
    decay_mult: 1
  }
  param {
    lr_mult: 2
    decay_mult: 0
  }
  convolution_param {
    num_output: 64
    pad: 3
    kernel_size: 7
    stride: 2
    weight_filler {
      type: "xavier"
      std: 0.1
    }
    bias_filler {
      type: "constant"
      value: 0.2
    }
  }
}
layer {
  name: "conv1/relu_7x7"
  type: "ReLU"
  bottom: "conv1/7x7_s2"
  top: "conv1/7x7_s2"
}
layer {
  name: "pool1/3x3_s2"
  type: "Pooling"
  bottom: "conv1/7x7_s2"
  top: "pool1/3x3_s2"
  pooling_param {
    pool: MAX
    kernel_size: 3
    stride: 2
  }
}
layer {
  name: "pool1/norm1"
  type: "LRN"
  bottom: "pool1/3x3_s2"
  top: "pool1/norm1"
  lrn_param {
    local_size: 5
    alpha: 0.0001
    beta: 0.75
  }
}
layer {
  name: "conv2/3x3_reduce"
  type: "Convolution"
  bottom: "pool1/norm1"
  top: "conv2/3x3_reduce"
  param {
    lr_mult: 1
    decay_mult: 1
  }
  param {
    lr_mult: 2
    decay_mult: 0
  }
  convolution_param {
    num_output: 64
    kernel_size: 1
    weight_filler {
      type: "xavier"
      std: 0.1
    }
    bias_filler {
      type: "constant"
      value: 0.2
    }
  }
}
layer {
  name: "conv2/relu_3x3_reduce"
  type: "ReLU"
  bottom: "conv2/3x3_reduce"
  top: "conv2/3x3_reduce"
}
layer {
  name: "conv2/3x3"
  type: "Convolution"
  bottom: "conv2/3x3_reduce"
  top: "conv2/3x3"
  param {
    lr_mult: 1
    decay_mult: 1
  }
  param {
    lr_mult: 2
    decay_mult: 0
  }
  convolution_param {
    num_output: 192
    pad: 1
    kernel_size: 3
    weight_filler {
      type: "xavier"
      std: 0.03
    }
    bias_filler {
      type: "constant"
      value: 0.2
    }
  }
}
layer {
  name: "conv2/relu_3x3"
  type: "ReLU"
  bottom: "conv2/3x3"
  top: "conv2/3x3"
}
layer {
  name: "conv2/norm2"
  type: "LRN"
  bottom: "conv2/3x3"
  top: "conv2/norm2"
  lrn_param {
    local_size: 5
    alpha: 0.0001
    beta: 0.75
  }
}
layer {
  name: "pool2/3x3_s2"
  type: "Pooling"
  bottom: "conv2/norm2"
  top: "pool2/3x3_s2"
  pooling_param {
    pool: MAX
    kernel_size: 3
    stride: 2
  }
}
layer {
  name: "inception_3a/1x1"
  type: "Convolution"
  bottom: "pool2/3x3_s2"
  top: "inception_3a/1x1"
  param {
    lr_mult: 1
    decay_mult: 1
  }
  param {
    lr_mult: 2
    decay_mult: 0
  }
  convolution_param {
    num_output: 64
    kernel_size: 1
    weight_filler {
      type: "xavier"
      std: 0.03
    }
    bias_filler {
      type: "constant"
      value: 0.2
    }
  }
}
layer {
  name: "inception_3a/relu_1x1"
  type: "ReLU"
  bottom: "inception_3a/1x1"
  top: "inception_3a/1x1"
}
layer {
  name: "inception_3a/3x3_reduce"
  type: "Convolution"
  bottom: "pool2/3x3_s2"
  top: "inception_3a/3x3_reduce"
  param {
    lr_mult: 1
    decay_mult: 1
  }
  param {
    lr_mult: 2
    decay_mult: 0
  }
  convolution_param {
    num_output: 96
    kernel_size: 1
    weight_filler {
      type: "xavier"
      std: 0.09
    }
    bias_filler {
      type: "constant"
      value: 0.2
    }
  }
}
layer {
  name: "inception_3a/relu_3x3_reduce"
  type: "ReLU"
  bottom: "inception_3a/3x3_reduce"
  top: "inception_3a/3x3_reduce"
}
layer {
  name: "inception_3a/3x3"
  type: "Convolution"
  bottom: "inception_3a/3x3_reduce"
  top: "inception_3a/3x3"
  param {
    lr_mult: 1
    decay_mult: 1
  }
  param {
    lr_mult: 2
    decay_mult: 0
  }
  convolution_param {
    num_output: 128
    pad: 1
    kernel_size: 3
    weight_filler {
      type: "xavier"
      std: 0.03
    }
    bias_filler {
      type: "constant"
      value: 0.2
    }
  }
}
layer {
  name: "inception_3a/relu_3x3"
  type: "ReLU"
  bottom: "inception_3a/3x3"
  top: "inception_3a/3x3"
}
layer {
  name: "inception_3a/5x5_reduce"
  type: "Convolution"
  bottom: "pool2/3x3_s2"
  top: "inception_3a/5x5_reduce"
  param {
    lr_mult: 1
    decay_mult: 1
  }
  param {
    lr_mult: 2
    decay_mult: 0
  }
  convolution_param {
    num_output: 16
    kernel_size: 1
    weight_filler {
      type: "xavier"
      std: 0.2
    }
    bias_filler {
      type: "constant"
      value: 0.2
    }
  }
}
layer {
  name: "inception_3a/relu_5x5_reduce"
  type: "ReLU"
  bottom: "inception_3a/5x5_reduce"
  top: "inception_3a/5x5_reduce"
}
layer {
  name: "inception_3a/5x5"
  type: "Convolution"
  bottom: "inception_3a/5x5_reduce"
  top: "inception_3a/5x5"
  param {
    lr_mult: 1
    decay_mult: 1
  }
  param {
    lr_mult: 2
    decay_mult: 0
  }
  convolution_param {
    num_output: 32
    pad: 2
    kernel_size: 5
    weight_filler {
      type: "xavier"
      std: 0.03
    }
    bias_filler {
      type: "constant"
      value: 0.2
    }
  }
}
layer {
  name: "inception_3a/relu_5x5"
  type: "ReLU"
  bottom: "inception_3a/5x5"
  top: "inception_3a/5x5"
}
layer {
  name: "inception_3a/pool"
  type: "Pooling"
  bottom: "pool2/3x3_s2"
  top: "inception_3a/pool"
  pooling_param {
    pool: MAX
    kernel_size: 3
    stride: 1
    pad: 1
  }
}
layer {
  name: "inception_3a/pool_proj"
  type: "Convolution"
  bottom: "inception_3a/pool"
  top: "inception_3a/pool_proj"
  param {
    lr_mult: 1
    decay_mult: 1
  }
  param {
    lr_mult: 2
    decay_mult: 0
  }
  convolution_param {
    num_output: 32
    kernel_size: 1
    weight_filler {
      type: "xavier"
      std: 0.1
    }
    bias_filler {
      type: "constant"
      value: 0.2
    }
  }
}
layer {
  name: "inception_3a/relu_pool_proj"
  type: "ReLU"
  bottom: "inception_3a/pool_proj"
  top: "inception_3a/pool_proj"
}
layer {
  name: "inception_3a/output"
  type: "Concat"
  bottom: "inception_3a/1x1"
  bottom: "inception_3a/3x3"
  bottom: "inception_3a/5x5"
  bottom: "inception_3a/pool_proj"
  top: "inception_3a/output"
}
layer {
  name: "inception_3b/1x1"
  type: "Convolution"
  bottom: "inception_3a/output"
  top: "inception_3b/1x1"
  param {
    lr_mult: 1
    decay_mult: 1
  }
  param {
    lr_mult: 2
    decay_mult: 0
  }
  convolution_param {
    num_output: 128
    kernel_size: 1
    weight_filler {
      type: "xavier"
      std: 0.03
    }
    bias_filler {
      type: "constant"
      value: 0.2
    }
  }
}
layer {
  name: "inception_3b/relu_1x1"
  type: "ReLU"
  bottom: "inception_3b/1x1"
  top: "inception_3b/1x1"
}
layer {
  name: "inception_3b/3x3_reduce"
  type: "Convolution"
  bottom: "inception_3a/output"
  top: "inception_3b/3x3_reduce"
  param {
    lr_mult: 1
    decay_mult: 1
  }
  param {
    lr_mult: 2
    decay_mult: 0
  }
  convolution_param {
    num_output: 128
    kernel_size: 1
    weight_filler {
      type: "xavier"
      std: 0.09
    }
    bias_filler {
      type: "constant"
      value: 0.2
    }
  }
}
layer {
  name: "inception_3b/relu_3x3_reduce"
  type: "ReLU"
  bottom: "inception_3b/3x3_reduce"
  top: "inception_3b/3x3_reduce"
}
layer {
  name: "inception_3b/3x3"
  type: "Convolution"
  bottom: "inception_3b/3x3_reduce"
  top: "inception_3b/3x3"
  param {
    lr_mult: 1
    decay_mult: 1
  }
  param {
    lr_mult: 2
    decay_mult: 0
  }
  convolution_param {
    num_output: 192
    pad: 1
    kernel_size: 3
    weight_filler {
      type: "xavier"
      std: 0.03
    }
    bias_filler {
      type: "constant"
      value: 0.2
    }
  }
}
layer {
  name: "inception_3b/relu_3x3"
  type: "ReLU"
  bottom: "inception_3b/3x3"
  top: "inception_3b/3x3"
}
layer {
  name: "inception_3b/5x5_reduce"
  type: "Convolution"
  bottom: "inception_3a/output"
  top: "inception_3b/5x5_reduce"
  param {
    lr_mult: 1
    decay_mult: 1
  }
  param {
    lr_mult: 2
    decay_mult: 0
  }
  convolution_param {
    num_output: 32
    kernel_size: 1
    weight_filler {
      type: "xavier"
      std: 0.2
    }
    bias_filler {
      type: "constant"
      value: 0.2
    }
  }
}
layer {
  name: "inception_3b/relu_5x5_reduce"
  type: "ReLU"
  bottom: "inception_3b/5x5_reduce"
  top: "inception_3b/5x5_reduce"
}
layer {
  name: "inception_3b/5x5"
  type: "Convolution"
  bottom: "inception_3b/5x5_reduce"
  top: "inception_3b/5x5"
  param {
    lr_mult: 1
    decay_mult: 1
  }
  param {
    lr_mult: 2
    decay_mult: 0
  }
  convolution_param {
    num_output: 96
    pad: 2
    kernel_size: 5
    weight_filler {
      type: "xavier"
      std: 0.03
    }
    bias_filler {
      type: "constant"
      value: 0.2
    }
  }
}
layer {
  name: "inception_3b/relu_5x5"
  type: "ReLU"
  bottom: "inception_3b/5x5"
  top: "inception_3b/5x5"
}
layer {
  name: "inception_3b/pool"
  type: "Pooling"
  bottom: "inception_3a/output"
  top: "inception_3b/pool"
  pooling_param {
    pool: MAX
    kernel_size: 3
    stride: 1
    pad: 1
  }
}
layer {
  name: "inception_3b/pool_proj"
  type: "Convolution"
  bottom: "inception_3b/pool"
  top: "inception_3b/pool_proj"
  param {
    lr_mult: 1
    decay_mult: 1
  }
  param {
    lr_mult: 2
    decay_mult: 0
  }
  convolution_param {
    num_output: 64
    kernel_size: 1
    weight_filler {
      type: "xavier"
      std: 0.1
    }
    bias_filler {
      type: "constant"
      value: 0.2
    }
  }
}
layer {
  name: "inception_3b/relu_pool_proj"
  type: "ReLU"
  bottom: "inception_3b/pool_proj"
  top: "inception_3b/pool_proj"
}
layer {
  name: "inception_3b/output"
  type: "Concat"
  bottom: "inception_3b/1x1"
  bottom: "inception_3b/3x3"
  bottom: "inception_3b/5x5"
  bottom: "inception_3b/pool_proj"
  top: "inception_3b/output"
}
layer {
  name: "pool3/3x3_s2"
  type: "Pooling"
  bottom: "inception_3b/output"
  top: "pool3/3x3_s2"
  pooling_param {
    pool: MAX
    kernel_size: 3
    stride: 2
  }
}
layer {
  name: "inception_4a/1x1"
  type: "Convolution"
  bottom: "pool3/3x3_s2"
  top: "inception_4a/1x1"
  param {
    lr_mult: 1
    decay_mult: 1
  }
  param {
    lr_mult: 2
    decay_mult: 0
  }
  convolution_param {
    num_output: 192
    kernel_size: 1
    weight_filler {
      type: "xavier"
      std: 0.03
    }
    bias_filler {
      type: "constant"
      value: 0.2
    }
  }
}
layer {
  name: "inception_4a/relu_1x1"
  type: "ReLU"
  bottom: "inception_4a/1x1"
  top: "inception_4a/1x1"
}
layer {
  name: "inception_4a/3x3_reduce"
  type: "Convolution"
  bottom: "pool3/3x3_s2"
  top: "inception_4a/3x3_reduce"
  param {
    lr_mult: 1
    decay_mult: 1
  }
  param {
    lr_mult: 2
    decay_mult: 0
  }
  convolution_param {
    num_output: 96
    kernel_size: 1
    weight_filler {
      type: "xavier"
      std: 0.09
    }
    bias_filler {
      type: "constant"
      value: 0.2
    }
  }
}
layer {
  name: "inception_4a/relu_3x3_reduce"
  type: "ReLU"
  bottom: "inception_4a/3x3_reduce"
  top: "inception_4a/3x3_reduce"
}
layer {
  name: "inception_4a/3x3"
  type: "Convolution"
  bottom: "inception_4a/3x3_reduce"
  top: "inception_4a/3x3"
  param {
    lr_mult: 1
    decay_mult: 1
  }
  param {
    lr_mult: 2
    decay_mult: 0
  }
  convolution_param {
    num_output: 208
    pad: 1
    kernel_size: 3
    weight_filler {
      type: "xavier"
      std: 0.03
    }
    bias_filler {
      type: "constant"
      value: 0.2
    }
  }
}
layer {
  name: "inception_4a/relu_3x3"
  type: "ReLU"
  bottom: "inception_4a/3x3"
  top: "inception_4a/3x3"
}
layer {
  name: "inception_4a/5x5_reduce"
  type: "Convolution"
  bottom: "pool3/3x3_s2"
  top: "inception_4a/5x5_reduce"
  param {
    lr_mult: 1
    decay_mult: 1
  }
  param {
    lr_mult: 2
    decay_mult: 0
  }
  convolution_param {
    num_output: 16
    kernel_size: 1
    weight_filler {
      type: "xavier"
      std: 0.2
    }
    bias_filler {
      type: "constant"
      value: 0.2
    }
  }
}
layer {
  name: "inception_4a/relu_5x5_reduce"
  type: "ReLU"
  bottom: "inception_4a/5x5_reduce"
  top: "inception_4a/5x5_reduce"
}
layer {
  name: "inception_4a/5x5"
  type: "Convolution"
  bottom: "inception_4a/5x5_reduce"
  top: "inception_4a/5x5"
  param {
    lr_mult: 1
    decay_mult: 1
  }
  param {
    lr_mult: 2
    decay_mult: 0
  }
  convolution_param {
    num_output: 48
    pad: 2
    kernel_size: 5
    weight_filler {
      type: "xavier"
      std: 0.03
    }
    bias_filler {
      type: "constant"
      value: 0.2
    }
  }
}
layer {
  name: "inception_4a/relu_5x5"
  type: "ReLU"
  bottom: "inception_4a/5x5"
  top: "inception_4a/5x5"
}
layer {
  name: "inception_4a/pool"
  type: "Pooling"
  bottom: "pool3/3x3_s2"
  top: "inception_4a/pool"
  pooling_param {
    pool: MAX
    kernel_size: 3
    stride: 1
    pad: 1
  }
}
layer {
  name: "inception_4a/pool_proj"
  type: "Convolution"
  bottom: "inception_4a/pool"
  top: "inception_4a/pool_proj"
  param {
    lr_mult: 1
    decay_mult: 1
  }
  param {
    lr_mult: 2
    decay_mult: 0
  }
  convolution_param {
    num_output: 64
    kernel_size: 1
    weight_filler {
      type: "xavier"
      std: 0.1
    }
    bias_filler {
      type: "constant"
      value: 0.2
    }
  }
}
layer {
  name: "inception_4a/relu_pool_proj"
  type: "ReLU"
  bottom: "inception_4a/pool_proj"
  top: "inception_4a/pool_proj"
}
layer {
  name: "inception_4a/output"
  type: "Concat"
  bottom: "inception_4a/1x1"
  bottom: "inception_4a/3x3"
  bottom: "inception_4a/5x5"
  bottom: "inception_4a/pool_proj"
  top: "inception_4a/output"
}
layer {
  name: "loss1/ave_pool"
  type: "Pooling"
  bottom: "inception_4a/output"
  top: "loss1/ave_pool"
  pooling_param {
    pool: AVE
    kernel_size: 5
    stride: 3
  }
}
layer {
  name: "loss1/conv"
  type: "Convolution"
  bottom: "loss1/ave_pool"
  top: "loss1/conv"
  param {
    lr_mult: 1
    decay_mult: 1
  }
  param {
    lr_mult: 2
    decay_mult: 0
  }
  convolution_param {
    num_output: 128
    kernel_size: 1
    weight_filler {
      type: "xavier"
      std: 0.08
    }
    bias_filler {
      type: "constant"
      value: 0.2
    }
  }
}
layer {
  name: "loss1/relu_conv"
  type: "ReLU"
  bottom: "loss1/conv"
  top: "loss1/conv"
}
layer {
  name: "loss1/fc"
  type: "InnerProduct"
  bottom: "loss1/conv"
  top: "loss1/fc"
  param {
    lr_mult: 1
    decay_mult: 1
  }
  param {
    lr_mult: 2
    decay_mult: 0
  }
  inner_product_param {
    num_output: 1024
    weight_filler {
      type: "xavier"
      std: 0.02
    }
    bias_filler {
      type: "constant"
      value: 0.2
    }
  }
}
layer {
  name: "loss1/relu_fc"
  type: "ReLU"
  bottom: "loss1/fc"
  top: "loss1/fc"
}
layer {
  name: "loss1/drop_fc"
  type: "Dropout"
  bottom: "loss1/fc"
  top: "loss1/fc"
  dropout_param {
    dropout_ratio: 0.7
  }
}
layer {
  name: "loss1/classifier_plantvillage"
  type: "InnerProduct"
  bottom: "loss1/fc"
  top: "loss1/classifier_plantvillage"
  param {
    lr_mult: 1
    decay_mult: 1
  }
  param {
    lr_mult: 2
    decay_mult: 0
  }
  inner_product_param {
    num_output: 38
    weight_filler {
      type: "xavier"
      std: 0.0009765625
    }
    bias_filler {
      type: "constant"
      value: 0
    }
  }
}
layer {
  name: "inception_4b/1x1"
  type: "Convolution"
  bottom: "inception_4a/output"
  top: "inception_4b/1x1"
  param {
    lr_mult: 1
    decay_mult: 1
  }
  param {
    lr_mult: 2
    decay_mult: 0
  }
  convolution_param {
    num_output: 160
    kernel_size: 1
    weight_filler {
      type: "xavier"
      std: 0.03
    }
    bias_filler {
      type: "constant"
      value: 0.2
    }
  }
}
layer {
  name: "inception_4b/relu_1x1"
  type: "ReLU"
  bottom: "inception_4b/1x1"
  top: "inception_4b/1x1"
}
layer {
  name: "inception_4b/3x3_reduce"
  type: "Convolution"
  bottom: "inception_4a/output"
  top: "inception_4b/3x3_reduce"
  param {
    lr_mult: 1
    decay_mult: 1
  }
  param {
    lr_mult: 2
    decay_mult: 0
  }
  convolution_param {
    num_output: 112
    kernel_size: 1
    weight_filler {
      type: "xavier"
      std: 0.09
    }
    bias_filler {
      type: "constant"
      value: 0.2
    }
  }
}
layer {
  name: "inception_4b/relu_3x3_reduce"
  type: "ReLU"
  bottom: "inception_4b/3x3_reduce"
  top: "inception_4b/3x3_reduce"
}
layer {
  name: "inception_4b/3x3"
  type: "Convolution"
  bottom: "inception_4b/3x3_reduce"
  top: "inception_4b/3x3"
  param {
    lr_mult: 1
    decay_mult: 1
  }
  param {
    lr_mult: 2
    decay_mult: 0
  }
  convolution_param {
    num_output: 224
    pad: 1
    kernel_size: 3
    weight_filler {
      type: "xavier"
      std: 0.03
    }
    bias_filler {
      type: "constant"
      value: 0.2
    }
  }
}
layer {
  name: "inception_4b/relu_3x3"
  type: "ReLU"
  bottom: "inception_4b/3x3"
  top: "inception_4b/3x3"
}
layer {
  name: "inception_4b/5x5_reduce"
  type: "Convolution"
  bottom: "inception_4a/output"
  top: "inception_4b/5x5_reduce"
  param {
    lr_mult: 1
    decay_mult: 1
  }
  param {
    lr_mult: 2
    decay_mult: 0
  }
  convolution_param {
    num_output: 24
    kernel_size: 1
    weight_filler {
      type: "xavier"
      std: 0.2
    }
    bias_filler {
      type: "constant"
      value: 0.2
    }
  }
}
layer {
  name: "inception_4b/relu_5x5_reduce"
  type: "ReLU"
  bottom: "inception_4b/5x5_reduce"
  top: "inception_4b/5x5_reduce"
}
layer {
  name: "inception_4b/5x5"
  type: "Convolution"
  bottom: "inception_4b/5x5_reduce"
  top: "inception_4b/5x5"
  param {
    lr_mult: 1
    decay_mult: 1
  }
  param {
    lr_mult: 2
    decay_mult: 0
  }
  convolution_param {
    num_output: 64
    pad: 2
    kernel_size: 5
    weight_filler {
      type: "xavier"
      std: 0.03
    }
    bias_filler {
      type: "constant"
      value: 0.2
    }
  }
}
layer {
  name: "inception_4b/relu_5x5"
  type: "ReLU"
  bottom: "inception_4b/5x5"
  top: "inception_4b/5x5"
}
layer {
  name: "inception_4b/pool"
  type: "Pooling"
  bottom: "inception_4a/output"
  top: "inception_4b/pool"
  pooling_param {
    pool: MAX
    kernel_size: 3
    stride: 1
    pad: 1
  }
}
layer {
  name: "inception_4b/pool_proj"
  type: "Convolution"
  bottom: "inception_4b/pool"
  top: "inception_4b/pool_proj"
  param {
    lr_mult: 1
    decay_mult: 1
  }
  param {
    lr_mult: 2
    decay_mult: 0
  }
  convolution_param {
    num_output: 64
    kernel_size: 1
    weight_filler {
      type: "xavier"
      std: 0.1
    }
    bias_filler {
      type: "constant"
      value: 0.2
    }
  }
}
layer {
  name: "inception_4b/relu_pool_proj"
  type: "ReLU"
  bottom: "inception_4b/pool_proj"
  top: "inception_4b/pool_proj"
}
layer {
  name: "inception_4b/output"
  type: "Concat"
  bottom: "inception_4b/1x1"
  bottom: "inception_4b/3x3"
  bottom: "inception_4b/5x5"
  bottom: "inception_4b/pool_proj"
  top: "inception_4b/output"
}
layer {
  name: "inception_4c/1x1"
  type: "Convolution"
  bottom: "inception_4b/output"
  top: "inception_4c/1x1"
  param {
    lr_mult: 1
    decay_mult: 1
  }
  param {
    lr_mult: 2
    decay_mult: 0
  }
  convolution_param {
    num_output: 128
    kernel_size: 1
    weight_filler {
      type: "xavier"
      std: 0.03
    }
    bias_filler {
      type: "constant"
      value: 0.2
    }
  }
}
layer {
  name: "inception_4c/relu_1x1"
  type: "ReLU"
  bottom: "inception_4c/1x1"
  top: "inception_4c/1x1"
}
layer {
  name: "inception_4c/3x3_reduce"
  type: "Convolution"
  bottom: "inception_4b/output"
  top: "inception_4c/3x3_reduce"
  param {
    lr_mult: 1
    decay_mult: 1
  }
  param {
    lr_mult: 2
    decay_mult: 0
  }
  convolution_param {
    num_output: 128
    kernel_size: 1
    weight_filler {
      type: "xavier"
      std: 0.09
    }
    bias_filler {
      type: "constant"
      value: 0.2
    }
  }
}
layer {
  name: "inception_4c/relu_3x3_reduce"
  type: "ReLU"
  bottom: "inception_4c/3x3_reduce"
  top: "inception_4c/3x3_reduce"
}
layer {
  name: "inception_4c/3x3"
  type: "Convolution"
  bottom: "inception_4c/3x3_reduce"
  top: "inception_4c/3x3"
  param {
    lr_mult: 1
    decay_mult: 1
  }
  param {
    lr_mult: 2
    decay_mult: 0
  }
  convolution_param {
    num_output: 256
    pad: 1
    kernel_size: 3
    weight_filler {
      type: "xavier"
      std: 0.03
    }
    bias_filler {
      type: "constant"
      value: 0.2
    }
  }
}
layer {
  name: "inception_4c/relu_3x3"
  type: "ReLU"
  bottom: "inception_4c/3x3"
  top: "inception_4c/3x3"
}
layer {
  name: "inception_4c/5x5_reduce"
  type: "Convolution"
  bottom: "inception_4b/output"
  top: "inception_4c/5x5_reduce"
  param {
    lr_mult: 1
    decay_mult: 1
  }
  param {
    lr_mult: 2
    decay_mult: 0
  }
  convolution_param {
    num_output: 24
    kernel_size: 1
    weight_filler {
      type: "xavier"
      std: 0.2
    }
    bias_filler {
      type: "constant"
      value: 0.2
    }
  }
}
layer {
  name: "inception_4c/relu_5x5_reduce"
  type: "ReLU"
  bottom: "inception_4c/5x5_reduce"
  top: "inception_4c/5x5_reduce"
}
layer {
  name: "inception_4c/5x5"
  type: "Convolution"
  bottom: "inception_4c/5x5_reduce"
  top: "inception_4c/5x5"
  param {
    lr_mult: 1
    decay_mult: 1
  }
  param {
    lr_mult: 2
    decay_mult: 0
  }
  convolution_param {
    num_output: 64
    pad: 2
    kernel_size: 5
    weight_filler {
      type: "xavier"
      std: 0.03
    }
    bias_filler {
      type: "constant"
      value: 0.2
    }
  }
}
layer {
  name: "inception_4c/relu_5x5"
  type: "ReLU"
  bottom: "inception_4c/5x5"
  top: "inception_4c/5x5"
}
layer {
  name: "inception_4c/pool"
  type: "Pooling"
  bottom: "inception_4b/output"
  top: "inception_4c/pool"
  pooling_param {
    pool: MAX
    kernel_size: 3
    stride: 1
    pad: 1
  }
}
layer {
  name: "inception_4c/pool_proj"
  type: "Convolution"
  bottom: "inception_4c/pool"
  top: "inception_4c/pool_proj"
  param {
    lr_mult: 1
    decay_mult: 1
  }
  param {
    lr_mult: 2
    decay_mult: 0
  }
  convolution_param {
    num_output: 64
    kernel_size: 1
    weight_filler {
      type: "xavier"
      std: 0.1
    }
    bias_filler {
      type: "constant"
      value: 0.2
    }
  }
}
layer {
  name: "inception_4c/relu_pool_proj"
  type: "ReLU"
  bottom: "inception_4c/pool_proj"
  top: "inception_4c/pool_proj"
}
layer {
  name: "inception_4c/output"
  type: "Concat"
  bottom: "inception_4c/1x1"
  bottom: "inception_4c/3x3"
  bottom: "inception_4c/5x5"
  bottom: "inception_4c/pool_proj"
  top: "inception_4c/output"
}
layer {
  name: "inception_4d/1x1"
  type: "Convolution"
  bottom: "inception_4c/output"
  top: "inception_4d/1x1"
  param {
    lr_mult: 1
    decay_mult: 1
  }
  param {
    lr_mult: 2
    decay_mult: 0
  }
  convolution_param {
    num_output: 112
    kernel_size: 1
    weight_filler {
      type: "xavier"
      std: 0.03
    }
    bias_filler {
      type: "constant"
      value: 0.2
    }
  }
}
layer {
  name: "inception_4d/relu_1x1"
  type: "ReLU"
  bottom: "inception_4d/1x1"
  top: "inception_4d/1x1"
}
layer {
  name: "inception_4d/3x3_reduce"
  type: "Convolution"
  bottom: "inception_4c/output"
  top: "inception_4d/3x3_reduce"
  param {
    lr_mult: 1
    decay_mult: 1
  }
  param {
    lr_mult: 2
    decay_mult: 0
  }
  convolution_param {
    num_output: 144
    kernel_size: 1
    weight_filler {
      type: "xavier"
      std: 0.09
    }
    bias_filler {
      type: "constant"
      value: 0.2
    }
  }
}
layer {
  name: "inception_4d/relu_3x3_reduce"
  type: "ReLU"
  bottom: "inception_4d/3x3_reduce"
  top: "inception_4d/3x3_reduce"
}
layer {
  name: "inception_4d/3x3"
  type: "Convolution"
  bottom: "inception_4d/3x3_reduce"
  top: "inception_4d/3x3"
  param {
    lr_mult: 1
    decay_mult: 1
  }
  param {
    lr_mult: 2
    decay_mult: 0
  }
  convolution_param {
    num_output: 288
    pad: 1
    kernel_size: 3
    weight_filler {
      type: "xavier"
      std: 0.03
    }
    bias_filler {
      type: "constant"
      value: 0.2
    }
  }
}
layer {
  name: "inception_4d/relu_3x3"
  type: "ReLU"
  bottom: "inception_4d/3x3"
  top: "inception_4d/3x3"
}
layer {
  name: "inception_4d/5x5_reduce"
  type: "Convolution"
  bottom: "inception_4c/output"
  top: "inception_4d/5x5_reduce"
  param {
    lr_mult: 1
    decay_mult: 1
  }
  param {
    lr_mult: 2
    decay_mult: 0
  }
  convolution_param {
    num_output: 32
    kernel_size: 1
    weight_filler {
      type: "xavier"
      std: 0.2
    }
    bias_filler {
      type: "constant"
      value: 0.2
    }
  }
}
layer {
  name: "inception_4d/relu_5x5_reduce"
  type: "ReLU"
  bottom: "inception_4d/5x5_reduce"
  top: "inception_4d/5x5_reduce"
}
layer {
  name: "inception_4d/5x5"
  type: "Convolution"
  bottom: "inception_4d/5x5_reduce"
  top: "inception_4d/5x5"
  param {
    lr_mult: 1
    decay_mult: 1
  }
  param {
    lr_mult: 2
    decay_mult: 0
  }
  convolution_param {
    num_output: 64
    pad: 2
    kernel_size: 5
    weight_filler {
      type: "xavier"
      std: 0.03
    }
    bias_filler {
      type: "constant"
      value: 0.2
    }
  }
}
layer {
  name: "inception_4d/relu_5x5"
  type: "ReLU"
  bottom: "inception_4d/5x5"
  top: "inception_4d/5x5"
}
layer {
  name: "inception_4d/pool"
  type: "Pooling"
  bottom: "inception_4c/output"
  top: "inception_4d/pool"
  pooling_param {
    pool: MAX
    kernel_size: 3
    stride: 1
    pad: 1
  }
}
layer {
  name: "inception_4d/pool_proj"
  type: "Convolution"
  bottom: "inception_4d/pool"
  top: "inception_4d/pool_proj"
  param {
    lr_mult: 1
    decay_mult: 1
  }
  param {
    lr_mult: 2
    decay_mult: 0
  }
  convolution_param {
    num_output: 64
    kernel_size: 1
    weight_filler {
      type: "xavier"
      std: 0.1
    }
    bias_filler {
      type: "constant"
      value: 0.2
    }
  }
}
layer {
  name: "inception_4d/relu_pool_proj"
  type: "ReLU"
  bottom: "inception_4d/pool_proj"
  top: "inception_4d/pool_proj"
}
layer {
  name: "inception_4d/output"
  type: "Concat"
  bottom: "inception_4d/1x1"
  bottom: "inception_4d/3x3"
  bottom: "inception_4d/5x5"
  bottom: "inception_4d/pool_proj"
  top: "inception_4d/output"
}
layer {
  name: "loss2/ave_pool"
  type: "Pooling"
  bottom: "inception_4d/output"
  top: "loss2/ave_pool"
  pooling_param {
    pool: AVE
    kernel_size: 5
    stride: 3
  }
}
layer {
  name: "loss2/conv"
  type: "Convolution"
  bottom: "loss2/ave_pool"
  top: "loss2/conv"
  param {
    lr_mult: 1
    decay_mult: 1
  }
  param {
    lr_mult: 2
    decay_mult: 0
  }
  convolution_param {
    num_output: 128
    kernel_size: 1
    weight_filler {
      type: "xavier"
      std: 0.08
    }
    bias_filler {
      type: "constant"
      value: 0.2
    }
  }
}
layer {
  name: "loss2/relu_conv"
  type: "ReLU"
  bottom: "loss2/conv"
  top: "loss2/conv"
}
layer {
  name: "loss2/fc"
  type: "InnerProduct"
  bottom: "loss2/conv"
  top: "loss2/fc"
  param {
    lr_mult: 1
    decay_mult: 1
  }
  param {
    lr_mult: 2
    decay_mult: 0
  }
  inner_product_param {
    num_output: 1024
    weight_filler {
      type: "xavier"
      std: 0.02
    }
    bias_filler {
      type: "constant"
      value: 0.2
    }
  }
}
layer {
  name: "loss2/relu_fc"
  type: "ReLU"
  bottom: "loss2/fc"
  top: "loss2/fc"
}
layer {
  name: "loss2/drop_fc"
  type: "Dropout"
  bottom: "loss2/fc"
  top: "loss2/fc"
  dropout_param {
    dropout_ratio: 0.7
  }
}
layer {
  name: "loss2/classifier_plantvillage"
  type: "InnerProduct"
  bottom: "loss2/fc"
  top: "loss2/classifier_plantvillage"
  param {
    lr_mult: 1
    decay_mult: 1
  }
  param {
    lr_mult: 2
    decay_mult: 0
  }
  inner_product_param {
    num_output: 38
    weight_filler {
      type: "xavier"
      std: 0.0009765625
    }
    bias_filler {
      type: "constant"
      value: 0
    }
  }
}
layer {
  name: "inception_4e/1x1"
  type: "Convolution"
  bottom: "inception_4d/output"
  top: "inception_4e/1x1"
  param {
    lr_mult: 1
    decay_mult: 1
  }
  param {
    lr_mult: 2
    decay_mult: 0
  }
  convolution_param {
    num_output: 256
    kernel_size: 1
    weight_filler {
      type: "xavier"
      std: 0.03
    }
    bias_filler {
      type: "constant"
      value: 0.2
    }
  }
}
layer {
  name: "inception_4e/relu_1x1"
  type: "ReLU"
  bottom: "inception_4e/1x1"
  top: "inception_4e/1x1"
}
layer {
  name: "inception_4e/3x3_reduce"
  type: "Convolution"
  bottom: "inception_4d/output"
  top: "inception_4e/3x3_reduce"
  param {
    lr_mult: 1
    decay_mult: 1
  }
  param {
    lr_mult: 2
    decay_mult: 0
  }
  convolution_param {
    num_output: 160
    kernel_size: 1
    weight_filler {
      type: "xavier"
      std: 0.09
    }
    bias_filler {
      type: "constant"
      value: 0.2
    }
  }
}
layer {
  name: "inception_4e/relu_3x3_reduce"
  type: "ReLU"
  bottom: "inception_4e/3x3_reduce"
  top: "inception_4e/3x3_reduce"
}
layer {
  name: "inception_4e/3x3"
  type: "Convolution"
  bottom: "inception_4e/3x3_reduce"
  top: "inception_4e/3x3"
  param {
    lr_mult: 1
    decay_mult: 1
  }
  param {
    lr_mult: 2
    decay_mult: 0
  }
  convolution_param {
    num_output: 320
    pad: 1
    kernel_size: 3
    weight_filler {
      type: "xavier"
      std: 0.03
    }
    bias_filler {
      type: "constant"
      value: 0.2
    }
  }
}
layer {
  name: "inception_4e/relu_3x3"
  type: "ReLU"
  bottom: "inception_4e/3x3"
  top: "inception_4e/3x3"
}
layer {
  name: "inception_4e/5x5_reduce"
  type: "Convolution"
  bottom: "inception_4d/output"
  top: "inception_4e/5x5_reduce"
  param {
    lr_mult: 1
    decay_mult: 1
  }
  param {
    lr_mult: 2
    decay_mult: 0
  }
  convolution_param {
    num_output: 32
    kernel_size: 1
    weight_filler {
      type: "xavier"
      std: 0.2
    }
    bias_filler {
      type: "constant"
      value: 0.2
    }
  }
}
layer {
  name: "inception_4e/relu_5x5_reduce"
  type: "ReLU"
  bottom: "inception_4e/5x5_reduce"
  top: "inception_4e/5x5_reduce"
}
layer {
  name: "inception_4e/5x5"
  type: "Convolution"
  bottom: "inception_4e/5x5_reduce"
  top: "inception_4e/5x5"
  p
I0403 19:16:39.774880  9040 layer_factory.hpp:77] Creating layer data
I0403 19:16:39.775481  9040 net.cpp:91] Creating Layer data
I0403 19:16:39.775516  9040 net.cpp:399] data -> data
I0403 19:16:39.775568  9040 net.cpp:399] data -> label
I0403 19:16:39.775604  9040 data_transformer.cpp:25] Loading mean file from: /home/mohanty/data/final_dataset/lmdb/color-50-50/mean.binaryproto
I0403 19:16:39.927351  9042 db_lmdb.cpp:38] Opened lmdb /home/mohanty/data/final_dataset/lmdb/color-50-50/test_db
I0403 19:16:39.962672  9040 data_layer.cpp:41] output data size: 24,3,224,224
I0403 19:16:40.030213  9040 net.cpp:141] Setting up data
I0403 19:16:40.030282  9040 net.cpp:148] Top shape: 24 3 224 224 (3612672)
I0403 19:16:40.030309  9040 net.cpp:148] Top shape: 24 (24)
I0403 19:16:40.030326  9040 net.cpp:156] Memory required for data: 14450784
I0403 19:16:40.030359  9040 layer_factory.hpp:77] Creating layer label_data_1_split
I0403 19:16:40.030386  9040 net.cpp:91] Creating Layer label_data_1_split
I0403 19:16:40.030406  9040 net.cpp:425] label_data_1_split <- label
I0403 19:16:40.030443  9040 net.cpp:399] label_data_1_split -> label_data_1_split_0
I0403 19:16:40.030472  9040 net.cpp:399] label_data_1_split -> label_data_1_split_1
I0403 19:16:40.030494  9040 net.cpp:399] label_data_1_split -> label_data_1_split_2
I0403 19:16:40.030516  9040 net.cpp:399] label_data_1_split -> label_data_1_split_3
I0403 19:16:40.030536  9040 net.cpp:399] label_data_1_split -> label_data_1_split_4
I0403 19:16:40.030557  9040 net.cpp:399] label_data_1_split -> label_data_1_split_5
I0403 19:16:40.030578  9040 net.cpp:399] label_data_1_split -> label_data_1_split_6
I0403 19:16:40.030599  9040 net.cpp:399] label_data_1_split -> label_data_1_split_7
I0403 19:16:40.030621  9040 net.cpp:399] label_data_1_split -> label_data_1_split_8
I0403 19:16:40.030642  9040 net.cpp:399] label_data_1_split -> label_data_1_split_9
I0403 19:16:40.030763  9040 net.cpp:141] Setting up label_data_1_split
I0403 19:16:40.030788  9040 net.cpp:148] Top shape: 24 (24)
I0403 19:16:40.030807  9040 net.cpp:148] Top shape: 24 (24)
I0403 19:16:40.030824  9040 net.cpp:148] Top shape: 24 (24)
I0403 19:16:40.030840  9040 net.cpp:148] Top shape: 24 (24)
I0403 19:16:40.030858  9040 net.cpp:148] Top shape: 24 (24)
I0403 19:16:40.030874  9040 net.cpp:148] Top shape: 24 (24)
I0403 19:16:40.030890  9040 net.cpp:148] Top shape: 24 (24)
I0403 19:16:40.030907  9040 net.cpp:148] Top shape: 24 (24)
I0403 19:16:40.030923  9040 net.cpp:148] Top shape: 24 (24)
I0403 19:16:40.030941  9040 net.cpp:148] Top shape: 24 (24)
I0403 19:16:40.030982  9040 net.cpp:156] Memory required for data: 14451744
I0403 19:16:40.030999  9040 layer_factory.hpp:77] Creating layer conv1/7x7_s2
I0403 19:16:40.031033  9040 net.cpp:91] Creating Layer conv1/7x7_s2
I0403 19:16:40.031054  9040 net.cpp:425] conv1/7x7_s2 <- data
I0403 19:16:40.031075  9040 net.cpp:399] conv1/7x7_s2 -> conv1/7x7_s2
I0403 19:16:40.176599  9040 net.cpp:141] Setting up conv1/7x7_s2
I0403 19:16:40.176662  9040 net.cpp:148] Top shape: 24 64 112 112 (19267584)
I0403 19:16:40.176681  9040 net.cpp:156] Memory required for data: 91522080
I0403 19:16:40.176713  9040 layer_factory.hpp:77] Creating layer conv1/relu_7x7
I0403 19:16:40.176741  9040 net.cpp:91] Creating Layer conv1/relu_7x7
I0403 19:16:40.176762  9040 net.cpp:425] conv1/relu_7x7 <- conv1/7x7_s2
I0403 19:16:40.176782  9040 net.cpp:386] conv1/relu_7x7 -> conv1/7x7_s2 (in-place)
I0403 19:16:40.177057  9040 net.cpp:141] Setting up conv1/relu_7x7
I0403 19:16:40.177089  9040 net.cpp:148] Top shape: 24 64 112 112 (19267584)
I0403 19:16:40.177108  9040 net.cpp:156] Memory required for data: 168592416
I0403 19:16:40.177124  9040 layer_factory.hpp:77] Creating layer pool1/3x3_s2
I0403 19:16:40.177150  9040 net.cpp:91] Creating Layer pool1/3x3_s2
I0403 19:16:40.177170  9040 net.cpp:425] pool1/3x3_s2 <- conv1/7x7_s2
I0403 19:16:40.177191  9040 net.cpp:399] pool1/3x3_s2 -> pool1/3x3_s2
I0403 19:16:40.177278  9040 net.cpp:141] Setting up pool1/3x3_s2
I0403 19:16:40.177304  9040 net.cpp:148] Top shape: 24 64 56 56 (4816896)
I0403 19:16:40.177320  9040 net.cpp:156] Memory required for data: 187860000
I0403 19:16:40.177336  9040 layer_factory.hpp:77] Creating layer pool1/norm1
I0403 19:16:40.177366  9040 net.cpp:91] Creating Layer pool1/norm1
I0403 19:16:40.177384  9040 net.cpp:425] pool1/norm1 <- pool1/3x3_s2
I0403 19:16:40.177403  9040 net.cpp:399] pool1/norm1 -> pool1/norm1
I0403 19:16:40.177858  9040 net.cpp:141] Setting up pool1/norm1
I0403 19:16:40.177887  9040 net.cpp:148] Top shape: 24 64 56 56 (4816896)
I0403 19:16:40.177903  9040 net.cpp:156] Memory required for data: 207127584
I0403 19:16:40.177920  9040 layer_factory.hpp:77] Creating layer conv2/3x3_reduce
I0403 19:16:40.177948  9040 net.cpp:91] Creating Layer conv2/3x3_reduce
I0403 19:16:40.177968  9040 net.cpp:425] conv2/3x3_reduce <- pool1/norm1
I0403 19:16:40.177989  9040 net.cpp:399] conv2/3x3_reduce -> conv2/3x3_reduce
I0403 19:16:40.179561  9040 net.cpp:141] Setting up conv2/3x3_reduce
I0403 19:16:40.179594  9040 net.cpp:148] Top shape: 24 64 56 56 (4816896)
I0403 19:16:40.179611  9040 net.cpp:156] Memory required for data: 226395168
I0403 19:16:40.179636  9040 layer_factory.hpp:77] Creating layer conv2/relu_3x3_reduce
I0403 19:16:40.179656  9040 net.cpp:91] Creating Layer conv2/relu_3x3_reduce
I0403 19:16:40.179672  9040 net.cpp:425] conv2/relu_3x3_reduce <- conv2/3x3_reduce
I0403 19:16:40.179694  9040 net.cpp:386] conv2/relu_3x3_reduce -> conv2/3x3_reduce (in-place)
I0403 19:16:40.179980  9040 net.cpp:141] Setting up conv2/relu_3x3_reduce
I0403 19:16:40.180011  9040 net.cpp:148] Top shape: 24 64 56 56 (4816896)
I0403 19:16:40.180028  9040 net.cpp:156] Memory required for data: 245662752
I0403 19:16:40.180045  9040 layer_factory.hpp:77] Creating layer conv2/3x3
I0403 19:16:40.180070  9040 net.cpp:91] Creating Layer conv2/3x3
I0403 19:16:40.180089  9040 net.cpp:425] conv2/3x3 <- conv2/3x3_reduce
I0403 19:16:40.180110  9040 net.cpp:399] conv2/3x3 -> conv2/3x3
I0403 19:16:40.182674  9040 net.cpp:141] Setting up conv2/3x3
I0403 19:16:40.182710  9040 net.cpp:148] Top shape: 24 192 56 56 (14450688)
I0403 19:16:40.182730  9040 net.cpp:156] Memory required for data: 303465504
I0403 19:16:40.182755  9040 layer_factory.hpp:77] Creating layer conv2/relu_3x3
I0403 19:16:40.182775  9040 net.cpp:91] Creating Layer conv2/relu_3x3
I0403 19:16:40.182792  9040 net.cpp:425] conv2/relu_3x3 <- conv2/3x3
I0403 19:16:40.182814  9040 net.cpp:386] conv2/relu_3x3 -> conv2/3x3 (in-place)
I0403 19:16:40.183006  9040 net.cpp:141] Setting up conv2/relu_3x3
I0403 19:16:40.183061  9040 net.cpp:148] Top shape: 24 192 56 56 (14450688)
I0403 19:16:40.183228  9040 net.cpp:156] Memory required for data: 361268256
I0403 19:16:40.183251  9040 layer_factory.hpp:77] Creating layer conv2/norm2
I0403 19:16:40.183275  9040 net.cpp:91] Creating Layer conv2/norm2
I0403 19:16:40.183295  9040 net.cpp:425] conv2/norm2 <- conv2/3x3
I0403 19:16:40.183315  9040 net.cpp:399] conv2/norm2 -> conv2/norm2
I0403 19:16:40.183637  9040 net.cpp:141] Setting up conv2/norm2
I0403 19:16:40.183665  9040 net.cpp:148] Top shape: 24 192 56 56 (14450688)
I0403 19:16:40.183682  9040 net.cpp:156] Memory required for data: 419071008
I0403 19:16:40.183698  9040 layer_factory.hpp:77] Creating layer pool2/3x3_s2
I0403 19:16:40.183722  9040 net.cpp:91] Creating Layer pool2/3x3_s2
I0403 19:16:40.183742  9040 net.cpp:425] pool2/3x3_s2 <- conv2/norm2
I0403 19:16:40.183761  9040 net.cpp:399] pool2/3x3_s2 -> pool2/3x3_s2
I0403 19:16:40.183823  9040 net.cpp:141] Setting up pool2/3x3_s2
I0403 19:16:40.183848  9040 net.cpp:148] Top shape: 24 192 28 28 (3612672)
I0403 19:16:40.183864  9040 net.cpp:156] Memory required for data: 433521696
I0403 19:16:40.183881  9040 layer_factory.hpp:77] Creating layer pool2/3x3_s2_pool2/3x3_s2_0_split
I0403 19:16:40.183902  9040 net.cpp:91] Creating Layer pool2/3x3_s2_pool2/3x3_s2_0_split
I0403 19:16:40.183919  9040 net.cpp:425] pool2/3x3_s2_pool2/3x3_s2_0_split <- pool2/3x3_s2
I0403 19:16:40.183938  9040 net.cpp:399] pool2/3x3_s2_pool2/3x3_s2_0_split -> pool2/3x3_s2_pool2/3x3_s2_0_split_0
I0403 19:16:40.183959  9040 net.cpp:399] pool2/3x3_s2_pool2/3x3_s2_0_split -> pool2/3x3_s2_pool2/3x3_s2_0_split_1
I0403 19:16:40.183980  9040 net.cpp:399] pool2/3x3_s2_pool2/3x3_s2_0_split -> pool2/3x3_s2_pool2/3x3_s2_0_split_2
I0403 19:16:40.184001  9040 net.cpp:399] pool2/3x3_s2_pool2/3x3_s2_0_split -> pool2/3x3_s2_pool2/3x3_s2_0_split_3
I0403 19:16:40.184075  9040 net.cpp:141] Setting up pool2/3x3_s2_pool2/3x3_s2_0_split
I0403 19:16:40.184099  9040 net.cpp:148] Top shape: 24 192 28 28 (3612672)
I0403 19:16:40.184118  9040 net.cpp:148] Top shape: 24 192 28 28 (3612672)
I0403 19:16:40.184134  9040 net.cpp:148] Top shape: 24 192 28 28 (3612672)
I0403 19:16:40.184151  9040 net.cpp:148] Top shape: 24 192 28 28 (3612672)
I0403 19:16:40.184165  9040 net.cpp:156] Memory required for data: 491324448
I0403 19:16:40.184183  9040 layer_factory.hpp:77] Creating layer inception_3a/1x1
I0403 19:16:40.184207  9040 net.cpp:91] Creating Layer inception_3a/1x1
I0403 19:16:40.184226  9040 net.cpp:425] inception_3a/1x1 <- pool2/3x3_s2_pool2/3x3_s2_0_split_0
I0403 19:16:40.184254  9040 net.cpp:399] inception_3a/1x1 -> inception_3a/1x1
I0403 19:16:40.186013  9040 net.cpp:141] Setting up inception_3a/1x1
I0403 19:16:40.186048  9040 net.cpp:148] Top shape: 24 64 28 28 (1204224)
I0403 19:16:40.186066  9040 net.cpp:156] Memory required for data: 496141344
I0403 19:16:40.186086  9040 layer_factory.hpp:77] Creating layer inception_3a/relu_1x1
I0403 19:16:40.186105  9040 net.cpp:91] Creating Layer inception_3a/relu_1x1
I0403 19:16:40.186122  9040 net.cpp:425] inception_3a/relu_1x1 <- inception_3a/1x1
I0403 19:16:40.186141  9040 net.cpp:386] inception_3a/relu_1x1 -> inception_3a/1x1 (in-place)
I0403 19:16:40.186339  9040 net.cpp:141] Setting up inception_3a/relu_1x1
I0403 19:16:40.186365  9040 net.cpp:148] Top shape: 24 64 28 28 (1204224)
I0403 19:16:40.186381  9040 net.cpp:156] Memory required for data: 500958240
I0403 19:16:40.186398  9040 layer_factory.hpp:77] Creating layer inception_3a/3x3_reduce
I0403 19:16:40.186422  9040 net.cpp:91] Creating Layer inception_3a/3x3_reduce
I0403 19:16:40.186440  9040 net.cpp:425] inception_3a/3x3_reduce <- pool2/3x3_s2_pool2/3x3_s2_0_split_1
I0403 19:16:40.186463  9040 net.cpp:399] inception_3a/3x3_reduce -> inception_3a/3x3_reduce
I0403 19:16:40.188356  9040 net.cpp:141] Setting up inception_3a/3x3_reduce
I0403 19:16:40.188390  9040 net.cpp:148] Top shape: 24 96 28 28 (1806336)
I0403 19:16:40.188408  9040 net.cpp:156] Memory required for data: 508183584
I0403 19:16:40.188433  9040 layer_factory.hpp:77] Creating layer inception_3a/relu_3x3_reduce
I0403 19:16:40.188472  9040 net.cpp:91] Creating Layer inception_3a/relu_3x3_reduce
I0403 19:16:40.188493  9040 net.cpp:425] inception_3a/relu_3x3_reduce <- inception_3a/3x3_reduce
I0403 19:16:40.188513  9040 net.cpp:386] inception_3a/relu_3x3_reduce -> inception_3a/3x3_reduce (in-place)
I0403 19:16:40.188820  9040 net.cpp:141] Setting up inception_3a/relu_3x3_reduce
I0403 19:16:40.188846  9040 net.cpp:148] Top shape: 24 96 28 28 (1806336)
I0403 19:16:40.188861  9040 net.cpp:156] Memory required for data: 515408928
I0403 19:16:40.188877  9040 layer_factory.hpp:77] Creating layer inception_3a/3x3
I0403 19:16:40.188902  9040 net.cpp:91] Creating Layer inception_3a/3x3
I0403 19:16:40.188921  9040 net.cpp:425] inception_3a/3x3 <- inception_3a/3x3_reduce
I0403 19:16:40.188941  9040 net.cpp:399] inception_3a/3x3 -> inception_3a/3x3
I0403 19:16:40.190758  9040 net.cpp:141] Setting up inception_3a/3x3
I0403 19:16:40.190788  9040 net.cpp:148] Top shape: 24 128 28 28 (2408448)
I0403 19:16:40.190804  9040 net.cpp:156] Memory required for data: 525042720
I0403 19:16:40.190824  9040 layer_factory.hpp:77] Creating layer inception_3a/relu_3x3
I0403 19:16:40.190842  9040 net.cpp:91] Creating Layer inception_3a/relu_3x3
I0403 19:16:40.190860  9040 net.cpp:425] inception_3a/relu_3x3 <- inception_3a/3x3
I0403 19:16:40.190881  9040 net.cpp:386] inception_3a/relu_3x3 -> inception_3a/3x3 (in-place)
I0403 19:16:40.191164  9040 net.cpp:141] Setting up inception_3a/relu_3x3
I0403 19:16:40.191191  9040 net.cpp:148] Top shape: 24 128 28 28 (2408448)
I0403 19:16:40.191207  9040 net.cpp:156] Memory required for data: 534676512
I0403 19:16:40.191223  9040 layer_factory.hpp:77] Creating layer inception_3a/5x5_reduce
I0403 19:16:40.191251  9040 net.cpp:91] Creating Layer inception_3a/5x5_reduce
I0403 19:16:40.191270  9040 net.cpp:425] inception_3a/5x5_reduce <- pool2/3x3_s2_pool2/3x3_s2_0_split_2
I0403 19:16:40.191293  9040 net.cpp:399] inception_3a/5x5_reduce -> inception_3a/5x5_reduce
I0403 19:16:40.192406  9040 net.cpp:141] Setting up inception_3a/5x5_reduce
I0403 19:16:40.192437  9040 net.cpp:148] Top shape: 24 16 28 28 (301056)
I0403 19:16:40.192454  9040 net.cpp:156] Memory required for data: 535880736
I0403 19:16:40.192473  9040 layer_factory.hpp:77] Creating layer inception_3a/relu_5x5_reduce
I0403 19:16:40.192492  9040 net.cpp:91] Creating Layer inception_3a/relu_5x5_reduce
I0403 19:16:40.192509  9040 net.cpp:425] inception_3a/relu_5x5_reduce <- inception_3a/5x5_reduce
I0403 19:16:40.192529  9040 net.cpp:386] inception_3a/relu_5x5_reduce -> inception_3a/5x5_reduce (in-place)
I0403 19:16:40.192826  9040 net.cpp:141] Setting up inception_3a/relu_5x5_reduce
I0403 19:16:40.192853  9040 net.cpp:148] Top shape: 24 16 28 28 (301056)
I0403 19:16:40.192868  9040 net.cpp:156] Memory required for data: 537084960
I0403 19:16:40.192884  9040 layer_factory.hpp:77] Creating layer inception_3a/5x5
I0403 19:16:40.192908  9040 net.cpp:91] Creating Layer inception_3a/5x5
I0403 19:16:40.192926  9040 net.cpp:425] inception_3a/5x5 <- inception_3a/5x5_reduce
I0403 19:16:40.192948  9040 net.cpp:399] inception_3a/5x5 -> inception_3a/5x5
I0403 19:16:40.194087  9040 net.cpp:141] Setting up inception_3a/5x5
I0403 19:16:40.194119  9040 net.cpp:148] Top shape: 24 32 28 28 (602112)
I0403 19:16:40.194136  9040 net.cpp:156] Memory required for data: 539493408
I0403 19:16:40.194157  9040 layer_factory.hpp:77] Creating layer inception_3a/relu_5x5
I0403 19:16:40.194177  9040 net.cpp:91] Creating Layer inception_3a/relu_5x5
I0403 19:16:40.194196  9040 net.cpp:425] inception_3a/relu_5x5 <- inception_3a/5x5
I0403 19:16:40.194218  9040 net.cpp:386] inception_3a/relu_5x5 -> inception_3a/5x5 (in-place)
I0403 19:16:40.194411  9040 net.cpp:141] Setting up inception_3a/relu_5x5
I0403 19:16:40.194438  9040 net.cpp:148] Top shape: 24 32 28 28 (602112)
I0403 19:16:40.194455  9040 net.cpp:156] Memory required for data: 541901856
I0403 19:16:40.194473  9040 layer_factory.hpp:77] Creating layer inception_3a/pool
I0403 19:16:40.194494  9040 net.cpp:91] Creating Layer inception_3a/pool
I0403 19:16:40.194514  9040 net.cpp:425] inception_3a/pool <- pool2/3x3_s2_pool2/3x3_s2_0_split_3
I0403 19:16:40.194550  9040 net.cpp:399] inception_3a/pool -> inception_3a/pool
I0403 19:16:40.194613  9040 net.cpp:141] Setting up inception_3a/pool
I0403 19:16:40.194638  9040 net.cpp:148] Top shape: 24 192 28 28 (3612672)
I0403 19:16:40.194654  9040 net.cpp:156] Memory required for data: 556352544
I0403 19:16:40.194670  9040 layer_factory.hpp:77] Creating layer inception_3a/pool_proj
I0403 19:16:40.194694  9040 net.cpp:91] Creating Layer inception_3a/pool_proj
I0403 19:16:40.194715  9040 net.cpp:425] inception_3a/pool_proj <- inception_3a/pool
I0403 19:16:40.194738  9040 net.cpp:399] inception_3a/pool_proj -> inception_3a/pool_proj
I0403 19:16:40.195727  9040 net.cpp:141] Setting up inception_3a/pool_proj
I0403 19:16:40.195757  9040 net.cpp:148] Top shape: 24 32 28 28 (602112)
I0403 19:16:40.195775  9040 net.cpp:156] Memory required for data: 558760992
I0403 19:16:40.195801  9040 layer_factory.hpp:77] Creating layer inception_3a/relu_pool_proj
I0403 19:16:40.195822  9040 net.cpp:91] Creating Layer inception_3a/relu_pool_proj
I0403 19:16:40.195838  9040 net.cpp:425] inception_3a/relu_pool_proj <- inception_3a/pool_proj
I0403 19:16:40.195860  9040 net.cpp:386] inception_3a/relu_pool_proj -> inception_3a/pool_proj (in-place)
I0403 19:16:40.196141  9040 net.cpp:141] Setting up inception_3a/relu_pool_proj
I0403 19:16:40.196168  9040 net.cpp:148] Top shape: 24 32 28 28 (602112)
I0403 19:16:40.196185  9040 net.cpp:156] Memory required for data: 561169440
I0403 19:16:40.196200  9040 layer_factory.hpp:77] Creating layer inception_3a/output
I0403 19:16:40.196220  9040 net.cpp:91] Creating Layer inception_3a/output
I0403 19:16:40.196236  9040 net.cpp:425] inception_3a/output <- inception_3a/1x1
I0403 19:16:40.196259  9040 net.cpp:425] inception_3a/output <- inception_3a/3x3
I0403 19:16:40.196275  9040 net.cpp:425] inception_3a/output <- inception_3a/5x5
I0403 19:16:40.196292  9040 net.cpp:425] inception_3a/output <- inception_3a/pool_proj
I0403 19:16:40.196312  9040 net.cpp:399] inception_3a/output -> inception_3a/output
I0403 19:16:40.196362  9040 net.cpp:141] Setting up inception_3a/output
I0403 19:16:40.196388  9040 net.cpp:148] Top shape: 24 256 28 28 (4816896)
I0403 19:16:40.196404  9040 net.cpp:156] Memory required for data: 580437024
I0403 19:16:40.196420  9040 layer_factory.hpp:77] Creating layer inception_3a/output_inception_3a/output_0_split
I0403 19:16:40.196437  9040 net.cpp:91] Creating Layer inception_3a/output_inception_3a/output_0_split
I0403 19:16:40.196455  9040 net.cpp:425] inception_3a/output_inception_3a/output_0_split <- inception_3a/output
I0403 19:16:40.196472  9040 net.cpp:399] inception_3a/output_inception_3a/output_0_split -> inception_3a/output_inception_3a/output_0_split_0
I0403 19:16:40.196493  9040 net.cpp:399] inception_3a/output_inception_3a/output_0_split -> inception_3a/output_inception_3a/output_0_split_1
I0403 19:16:40.196519  9040 net.cpp:399] inception_3a/output_inception_3a/output_0_split -> inception_3a/output_inception_3a/output_0_split_2
I0403 19:16:40.196542  9040 net.cpp:399] inception_3a/output_inception_3a/output_0_split -> inception_3a/output_inception_3a/output_0_split_3
I0403 19:16:40.196621  9040 net.cpp:141] Setting up inception_3a/output_inception_3a/output_0_split
I0403 19:16:40.196646  9040 net.cpp:148] Top shape: 24 256 28 28 (4816896)
I0403 19:16:40.196666  9040 net.cpp:148] Top shape: 24 256 28 28 (4816896)
I0403 19:16:40.196682  9040 net.cpp:148] Top shape: 24 256 28 28 (4816896)
I0403 19:16:40.196698  9040 net.cpp:148] Top shape: 24 256 28 28 (4816896)
I0403 19:16:40.196713  9040 net.cpp:156] Memory required for data: 657507360
I0403 19:16:40.196729  9040 layer_factory.hpp:77] Creating layer inception_3b/1x1
I0403 19:16:40.196753  9040 net.cpp:91] Creating Layer inception_3b/1x1
I0403 19:16:40.196770  9040 net.cpp:425] inception_3b/1x1 <- inception_3a/output_inception_3a/output_0_split_0
I0403 19:16:40.196791  9040 net.cpp:399] inception_3b/1x1 -> inception_3b/1x1
I0403 19:16:40.197949  9040 net.cpp:141] Setting up inception_3b/1x1
I0403 19:16:40.197991  9040 net.cpp:148] Top shape: 24 128 28 28 (2408448)
I0403 19:16:40.198009  9040 net.cpp:156] Memory required for data: 667141152
I0403 19:16:40.198034  9040 layer_factory.hpp:77] Creating layer inception_3b/relu_1x1
I0403 19:16:40.198053  9040 net.cpp:91] Creating Layer inception_3b/relu_1x1
I0403 19:16:40.198071  9040 net.cpp:425] inception_3b/relu_1x1 <- inception_3b/1x1
I0403 19:16:40.198089  9040 net.cpp:386] inception_3b/relu_1x1 -> inception_3b/1x1 (in-place)
I0403 19:16:40.198276  9040 net.cpp:141] Setting up inception_3b/relu_1x1
I0403 19:16:40.198302  9040 net.cpp:148] Top shape: 24 128 28 28 (2408448)
I0403 19:16:40.198318  9040 net.cpp:156] Memory required for data: 676774944
I0403 19:16:40.198333  9040 layer_factory.hpp:77] Creating layer inception_3b/3x3_reduce
I0403 19:16:40.198355  9040 net.cpp:91] Creating Layer inception_3b/3x3_reduce
I0403 19:16:40.198374  9040 net.cpp:425] inception_3b/3x3_reduce <- inception_3a/output_inception_3a/output_0_split_1
I0403 19:16:40.198395  9040 net.cpp:399] inception_3b/3x3_reduce -> inception_3b/3x3_reduce
I0403 19:16:40.199554  9040 net.cpp:141] Setting up inception_3b/3x3_reduce
I0403 19:16:40.199587  9040 net.cpp:148] Top shape: 24 128 28 28 (2408448)
I0403 19:16:40.199606  9040 net.cpp:156] Memory required for data: 686408736
I0403 19:16:40.199627  9040 layer_factory.hpp:77] Creating layer inception_3b/relu_3x3_reduce
I0403 19:16:40.199646  9040 net.cpp:91] Creating Layer inception_3b/relu_3x3_reduce
I0403 19:16:40.199664  9040 net.cpp:425] inception_3b/relu_3x3_reduce <- inception_3b/3x3_reduce
I0403 19:16:40.199682  9040 net.cpp:386] inception_3b/relu_3x3_reduce -> inception_3b/3x3_reduce (in-place)
I0403 19:16:40.199863  9040 net.cpp:141] Setting up inception_3b/relu_3x3_reduce
I0403 19:16:40.199888  9040 net.cpp:148] Top shape: 24 128 28 28 (2408448)
I0403 19:16:40.199904  9040 net.cpp:156] Memory required for data: 696042528
I0403 19:16:40.199919  9040 layer_factory.hpp:77] Creating layer inception_3b/3x3
I0403 19:16:40.199944  9040 net.cpp:91] Creating Layer inception_3b/3x3
I0403 19:16:40.199964  9040 net.cpp:425] inception_3b/3x3 <- inception_3b/3x3_reduce
I0403 19:16:40.199986  9040 net.cpp:399] inception_3b/3x3 -> inception_3b/3x3
I0403 19:16:40.203023  9040 net.cpp:141] Setting up inception_3b/3x3
I0403 19:16:40.203057  9040 net.cpp:148] Top shape: 24 192 28 28 (3612672)
I0403 19:16:40.203073  9040 net.cpp:156] Memory required for data: 710493216
I0403 19:16:40.203094  9040 layer_factory.hpp:77] Creating layer inception_3b/relu_3x3
I0403 19:16:40.203112  9040 net.cpp:91] Creating Layer inception_3b/relu_3x3
I0403 19:16:40.203137  9040 net.cpp:425] inception_3b/relu_3x3 <- inception_3b/3x3
I0403 19:16:40.203160  9040 net.cpp:386] inception_3b/relu_3x3 -> inception_3b/3x3 (in-place)
I0403 19:16:40.203450  9040 net.cpp:141] Setting up inception_3b/relu_3x3
I0403 19:16:40.203481  9040 net.cpp:148] Top shape: 24 192 28 28 (3612672)
I0403 19:16:40.203505  9040 net.cpp:156] Memory required for data: 724943904
I0403 19:16:40.203521  9040 layer_factory.hpp:77] Creating layer inception_3b/5x5_reduce
I0403 19:16:40.203555  9040 net.cpp:91] Creating Layer inception_3b/5x5_reduce
I0403 19:16:40.203574  9040 net.cpp:425] inception_3b/5x5_reduce <- inception_3a/output_inception_3a/output_0_split_2
I0403 19:16:40.203598  9040 net.cpp:399] inception_3b/5x5_reduce -> inception_3b/5x5_reduce
I0403 19:16:40.204653  9040 net.cpp:141] Setting up inception_3b/5x5_reduce
I0403 19:16:40.204682  9040 net.cpp:148] Top shape: 24 32 28 28 (602112)
I0403 19:16:40.204699  9040 net.cpp:156] Memory required for data: 727352352
I0403 19:16:40.204718  9040 layer_factory.hpp:77] Creating layer inception_3b/relu_5x5_reduce
I0403 19:16:40.204737  9040 net.cpp:91] Creating Layer inception_3b/relu_5x5_reduce
I0403 19:16:40.204754  9040 net.cpp:425] inception_3b/relu_5x5_reduce <- inception_3b/5x5_reduce
I0403 19:16:40.204776  9040 net.cpp:386] inception_3b/relu_5x5_reduce -> inception_3b/5x5_reduce (in-place)
I0403 19:16:40.204963  9040 net.cpp:141] Setting up inception_3b/relu_5x5_reduce
I0403 19:16:40.205003  9040 net.cpp:148] Top shape: 24 32 28 28 (602112)
I0403 19:16:40.205019  9040 net.cpp:156] Memory required for data: 729760800
I0403 19:16:40.205035  9040 layer_factory.hpp:77] Creating layer inception_3b/5x5
I0403 19:16:40.205060  9040 net.cpp:91] Creating Layer inception_3b/5x5
I0403 19:16:40.205080  9040 net.cpp:425] inception_3b/5x5 <- inception_3b/5x5_reduce
I0403 19:16:40.205102  9040 net.cpp:399] inception_3b/5x5 -> inception_3b/5x5
I0403 19:16:40.207161  9040 net.cpp:141] Setting up inception_3b/5x5
I0403 19:16:40.207198  9040 net.cpp:148] Top shape: 24 96 28 28 (1806336)
I0403 19:16:40.207217  9040 net.cpp:156] Memory required for data: 736986144
I0403 19:16:40.207244  9040 layer_factory.hpp:77] Creating layer inception_3b/relu_5x5
I0403 19:16:40.207267  9040 net.cpp:91] Creating Layer inception_3b/relu_5x5
I0403 19:16:40.207286  9040 net.cpp:425] inception_3b/relu_5x5 <- inception_3b/5x5
I0403 19:16:40.207305  9040 net.cpp:386] inception_3b/relu_5x5 -> inception_3b/5x5 (in-place)
I0403 19:16:40.207511  9040 net.cpp:141] Setting up inception_3b/relu_5x5
I0403 19:16:40.207540  9040 net.cpp:148] Top shape: 24 96 28 28 (1806336)
I0403 19:16:40.207556  9040 net.cpp:156] Memory required for data: 744211488
I0403 19:16:40.207573  9040 layer_factory.hpp:77] Creating layer inception_3b/pool
I0403 19:16:40.207592  9040 net.cpp:91] Creating Layer inception_3b/pool
I0403 19:16:40.207608  9040 net.cpp:425] inception_3b/pool <- inception_3a/output_inception_3a/output_0_split_3
I0403 19:16:40.207628  9040 net.cpp:399] inception_3b/pool -> inception_3b/pool
I0403 19:16:40.207690  9040 net.cpp:141] Setting up inception_3b/pool
I0403 19:16:40.207716  9040 net.cpp:148] Top shape: 24 256 28 28 (4816896)
I0403 19:16:40.207733  9040 net.cpp:156] Memory required for data: 763479072
I0403 19:16:40.207749  9040 layer_factory.hpp:77] Creating layer inception_3b/pool_proj
I0403 19:16:40.207772  9040 net.cpp:91] Creating Layer inception_3b/pool_proj
I0403 19:16:40.207790  9040 net.cpp:425] inception_3b/pool_proj <- inception_3b/pool
I0403 19:16:40.207811  9040 net.cpp:399] inception_3b/pool_proj -> inception_3b/pool_proj
I0403 19:16:40.208926  9040 net.cpp:141] Setting up inception_3b/pool_proj
I0403 19:16:40.208957  9040 net.cpp:148] Top shape: 24 64 28 28 (1204224)
I0403 19:16:40.208976  9040 net.cpp:156] Memory required for data: 768295968
I0403 19:16:40.208995  9040 layer_factory.hpp:77] Creating layer inception_3b/relu_pool_proj
I0403 19:16:40.209022  9040 net.cpp:91] Creating Layer inception_3b/relu_pool_proj
I0403 19:16:40.209040  9040 net.cpp:425] inception_3b/relu_pool_proj <- inception_3b/pool_proj
I0403 19:16:40.209060  9040 net.cpp:386] inception_3b/relu_pool_proj -> inception_3b/pool_proj (in-place)
I0403 19:16:40.209471  9040 net.cpp:141] Setting up inception_3b/relu_pool_proj
I0403 19:16:40.209501  9040 net.cpp:148] Top shape: 24 64 28 28 (1204224)
I0403 19:16:40.209518  9040 net.cpp:156] Memory required for data: 773112864
I0403 19:16:40.209535  9040 layer_factory.hpp:77] Creating layer inception_3b/output
I0403 19:16:40.209553  9040 net.cpp:91] Creating Layer inception_3b/output
I0403 19:16:40.209570  9040 net.cpp:425] inception_3b/output <- inception_3b/1x1
I0403 19:16:40.209589  9040 net.cpp:425] inception_3b/output <- inception_3b/3x3
I0403 19:16:40.209605  9040 net.cpp:425] inception_3b/output <- inception_3b/5x5
I0403 19:16:40.209622  9040 net.cpp:425] inception_3b/output <- inception_3b/pool_proj
I0403 19:16:40.209643  9040 net.cpp:399] inception_3b/output -> inception_3b/output
I0403 19:16:40.209691  9040 net.cpp:141] Setting up inception_3b/output
I0403 19:16:40.209718  9040 net.cpp:148] Top shape: 24 480 28 28 (9031680)
I0403 19:16:40.209733  9040 net.cpp:156] Memory required for data: 809239584
I0403 19:16:40.209749  9040 layer_factory.hpp:77] Creating layer pool3/3x3_s2
I0403 19:16:40.209769  9040 net.cpp:91] Creating Layer pool3/3x3_s2
I0403 19:16:40.209785  9040 net.cpp:425] pool3/3x3_s2 <- inception_3b/output
I0403 19:16:40.209806  9040 net.cpp:399] pool3/3x3_s2 -> pool3/3x3_s2
I0403 19:16:40.209883  9040 net.cpp:141] Setting up pool3/3x3_s2
I0403 19:16:40.209908  9040 net.cpp:148] Top shape: 24 480 14 14 (2257920)
I0403 19:16:40.209924  9040 net.cpp:156] Memory required for data: 818271264
I0403 19:16:40.209939  9040 layer_factory.hpp:77] Creating layer pool3/3x3_s2_pool3/3x3_s2_0_split
I0403 19:16:40.209960  9040 net.cpp:91] Creating Layer pool3/3x3_s2_pool3/3x3_s2_0_split
I0403 19:16:40.209978  9040 net.cpp:425] pool3/3x3_s2_pool3/3x3_s2_0_split <- pool3/3x3_s2
I0403 19:16:40.209997  9040 net.cpp:399] pool3/3x3_s2_pool3/3x3_s2_0_split -> pool3/3x3_s2_pool3/3x3_s2_0_split_0
I0403 19:16:40.210018  9040 net.cpp:399] pool3/3x3_s2_pool3/3x3_s2_0_split -> pool3/3x3_s2_pool3/3x3_s2_0_split_1
I0403 19:16:40.210042  9040 net.cpp:399] pool3/3x3_s2_pool3/3x3_s2_0_split -> pool3/3x3_s2_pool3/3x3_s2_0_split_2
I0403 19:16:40.210063  9040 net.cpp:399] pool3/3x3_s2_pool3/3x3_s2_0_split -> pool3/3x3_s2_pool3/3x3_s2_0_split_3
I0403 19:16:40.210145  9040 net.cpp:141] Setting up pool3/3x3_s2_pool3/3x3_s2_0_split
I0403 19:16:40.210170  9040 net.cpp:148] Top shape: 24 480 14 14 (2257920)
I0403 19:16:40.210188  9040 net.cpp:148] Top shape: 24 480 14 14 (2257920)
I0403 19:16:40.210206  9040 net.cpp:148] Top shape: 24 480 14 14 (2257920)
I0403 19:16:40.210222  9040 net.cpp:148] Top shape: 24 480 14 14 (2257920)
I0403 19:16:40.210237  9040 net.cpp:156] Memory required for data: 854397984
I0403 19:16:40.210258  9040 layer_factory.hpp:77] Creating layer inception_4a/1x1
I0403 19:16:40.210283  9040 net.cpp:91] Creating Layer inception_4a/1x1
I0403 19:16:40.210301  9040 net.cpp:425] inception_4a/1x1 <- pool3/3x3_s2_pool3/3x3_s2_0_split_0
I0403 19:16:40.210325  9040 net.cpp:399] inception_4a/1x1 -> inception_4a/1x1
I0403 19:16:40.211977  9040 net.cpp:141] Setting up inception_4a/1x1
I0403 19:16:40.212007  9040 net.cpp:148] Top shape: 24 192 14 14 (903168)
I0403 19:16:40.212024  9040 net.cpp:156] Memory required for data: 858010656
I0403 19:16:40.212044  9040 layer_factory.hpp:77] Creating layer inception_4a/relu_1x1
I0403 19:16:40.212066  9040 net.cpp:91] Creating Layer inception_4a/relu_1x1
I0403 19:16:40.212085  9040 net.cpp:425] inception_4a/relu_1x1 <- inception_4a/1x1
I0403 19:16:40.212103  9040 net.cpp:386] inception_4a/relu_1x1 -> inception_4a/1x1 (in-place)
I0403 19:16:40.212306  9040 net.cpp:141] Setting up inception_4a/relu_1x1
I0403 19:16:40.212335  9040 net.cpp:148] Top shape: 24 192 14 14 (903168)
I0403 19:16:40.212352  9040 net.cpp:156] Memory required for data: 861623328
I0403 19:16:40.212368  9040 layer_factory.hpp:77] Creating layer inception_4a/3x3_reduce
I0403 19:16:40.212391  9040 net.cpp:91] Creating Layer inception_4a/3x3_reduce
I0403 19:16:40.212410  9040 net.cpp:425] inception_4a/3x3_reduce <- pool3/3x3_s2_pool3/3x3_s2_0_split_1
I0403 19:16:40.212430  9040 net.cpp:399] inception_4a/3x3_reduce -> inception_4a/3x3_reduce
I0403 19:16:40.213788  9040 net.cpp:141] Setting up inception_4a/3x3_reduce
I0403 19:16:40.213819  9040 net.cpp:148] Top shape: 24 96 14 14 (451584)
I0403 19:16:40.213835  9040 net.cpp:156] Memory required for data: 863429664
I0403 19:16:40.213866  9040 layer_factory.hpp:77] Creating layer inception_4a/relu_3x3_reduce
I0403 19:16:40.213891  9040 net.cpp:91] Creating Layer inception_4a/relu_3x3_reduce
I0403 19:16:40.213909  9040 net.cpp:425] inception_4a/relu_3x3_reduce <- inception_4a/3x3_reduce
I0403 19:16:40.213929  9040 net.cpp:386] inception_4a/relu_3x3_reduce -> inception_4a/3x3_reduce (in-place)
I0403 19:16:40.214120  9040 net.cpp:141] Setting up inception_4a/relu_3x3_reduce
I0403 19:16:40.214146  9040 net.cpp:148] Top shape: 24 96 14 14 (451584)
I0403 19:16:40.214161  9040 net.cpp:156] Memory required for data: 865236000
I0403 19:16:40.214179  9040 layer_factory.hpp:77] Creating layer inception_4a/3x3
I0403 19:16:40.214203  9040 net.cpp:91] Creating Layer inception_4a/3x3
I0403 19:16:40.214222  9040 net.cpp:425] inception_4a/3x3 <- inception_4a/3x3_reduce
I0403 19:16:40.214247  9040 net.cpp:399] inception_4a/3x3 -> inception_4a/3x3
I0403 19:16:40.217016  9040 net.cpp:141] Setting up inception_4a/3x3
I0403 19:16:40.217049  9040 net.cpp:148] Top shape: 24 208 14 14 (978432)
I0403 19:16:40.217068  9040 net.cpp:156] Memory required for data: 869149728
I0403 19:16:40.217089  9040 layer_factory.hpp:77] Creating layer inception_4a/relu_3x3
I0403 19:16:40.217108  9040 net.cpp:91] Creating Layer inception_4a/relu_3x3
I0403 19:16:40.217125  9040 net.cpp:425] inception_4a/relu_3x3 <- inception_4a/3x3
I0403 19:16:40.217145  9040 net.cpp:386] inception_4a/relu_3x3 -> inception_4a/3x3 (in-place)
I0403 19:16:40.217442  9040 net.cpp:141] Setting up inception_4a/relu_3x3
I0403 19:16:40.217473  9040 net.cpp:148] Top shape: 24 208 14 14 (978432)
I0403 19:16:40.217490  9040 net.cpp:156] Memory required for data: 873063456
I0403 19:16:40.217506  9040 layer_factory.hpp:77] Creating layer inception_4a/5x5_reduce
I0403 19:16:40.217530  9040 net.cpp:91] Creating Layer inception_4a/5x5_reduce
I0403 19:16:40.217550  9040 net.cpp:425] inception_4a/5x5_reduce <- pool3/3x3_s2_pool3/3x3_s2_0_split_2
I0403 19:16:40.217571  9040 net.cpp:399] inception_4a/5x5_reduce -> inception_4a/5x5_reduce
I0403 19:16:40.218637  9040 net.cpp:141] Setting up inception_4a/5x5_reduce
I0403 19:16:40.218668  9040 net.cpp:148] Top shape: 24 16 14 14 (75264)
I0403 19:16:40.218685  9040 net.cpp:156] Memory required for data: 873364512
I0403 19:16:40.218705  9040 layer_factory.hpp:77] Creating layer inception_4a/relu_5x5_reduce
I0403 19:16:40.218724  9040 net.cpp:91] Creating Layer inception_4a/relu_5x5_reduce
I0403 19:16:40.218742  9040 net.cpp:425] inception_4a/relu_5x5_reduce <- inception_4a/5x5_reduce
I0403 19:16:40.218763  9040 net.cpp:386] inception_4a/relu_5x5_reduce -> inception_4a/5x5_reduce (in-place)
I0403 19:16:40.218950  9040 net.cpp:141] Setting up inception_4a/relu_5x5_reduce
I0403 19:16:40.218977  9040 net.cpp:148] Top shape: 24 16 14 14 (75264)
I0403 19:16:40.218993  9040 net.cpp:156] Memory required for data: 873665568
I0403 19:16:40.219009  9040 layer_factory.hpp:77] Creating layer inception_4a/5x5
I0403 19:16:40.219033  9040 net.cpp:91] Creating Layer inception_4a/5x5
I0403 19:16:40.219053  9040 net.cpp:425] inception_4a/5x5 <- inception_4a/5x5_reduce
I0403 19:16:40.219075  9040 net.cpp:399] inception_4a/5x5 -> inception_4a/5x5
I0403 19:16:40.220197  9040 net.cpp:141] Setting up inception_4a/5x5
I0403 19:16:40.220227  9040 net.cpp:148] Top shape: 24 48 14 14 (225792)
I0403 19:16:40.220249  9040 net.cpp:156] Memory required for data: 874568736
I0403 19:16:40.220270  9040 layer_factory.hpp:77] Creating layer inception_4a/relu_5x5
I0403 19:16:40.220293  9040 net.cpp:91] Creating Layer inception_4a/relu_5x5
I0403 19:16:40.220311  9040 net.cpp:425] inception_4a/relu_5x5 <- inception_4a/5x5
I0403 19:16:40.220330  9040 net.cpp:386] inception_4a/relu_5x5 -> inception_4a/5x5 (in-place)
I0403 19:16:40.220520  9040 net.cpp:141] Setting up inception_4a/relu_5x5
I0403 19:16:40.220546  9040 net.cpp:148] Top shape: 24 48 14 14 (225792)
I0403 19:16:40.220564  9040 net.cpp:156] Memory required for data: 875471904
I0403 19:16:40.220580  9040 layer_factory.hpp:77] Creating layer inception_4a/pool
I0403 19:16:40.220599  9040 net.cpp:91] Creating Layer inception_4a/pool
I0403 19:16:40.220618  9040 net.cpp:425] inception_4a/pool <- pool3/3x3_s2_pool3/3x3_s2_0_split_3
I0403 19:16:40.220638  9040 net.cpp:399] inception_4a/pool -> inception_4a/pool
I0403 19:16:40.220702  9040 net.cpp:141] Setting up inception_4a/pool
I0403 19:16:40.220728  9040 net.cpp:148] Top shape: 24 480 14 14 (2257920)
I0403 19:16:40.220744  9040 net.cpp:156] Memory required for data: 884503584
I0403 19:16:40.220759  9040 layer_factory.hpp:77] Creating layer inception_4a/pool_proj
I0403 19:16:40.220783  9040 net.cpp:91] Creating Layer inception_4a/pool_proj
I0403 19:16:40.220803  9040 net.cpp:425] inception_4a/pool_proj <- inception_4a/pool
I0403 19:16:40.220825  9040 net.cpp:399] inception_4a/pool_proj -> inception_4a/pool_proj
I0403 19:16:40.222024  9040 net.cpp:141] Setting up inception_4a/pool_proj
I0403 19:16:40.222054  9040 net.cpp:148] Top shape: 24 64 14 14 (301056)
I0403 19:16:40.222086  9040 net.cpp:156] Memory required for data: 885707808
I0403 19:16:40.222107  9040 layer_factory.hpp:77] Creating layer inception_4a/relu_pool_proj
I0403 19:16:40.222129  9040 net.cpp:91] Creating Layer inception_4a/relu_pool_proj
I0403 19:16:40.222148  9040 net.cpp:425] inception_4a/relu_pool_proj <- inception_4a/pool_proj
I0403 19:16:40.222168  9040 net.cpp:386] inception_4a/relu_pool_proj -> inception_4a/pool_proj (in-place)
I0403 19:16:40.222475  9040 net.cpp:141] Setting up inception_4a/relu_pool_proj
I0403 19:16:40.222503  9040 net.cpp:148] Top shape: 24 64 14 14 (301056)
I0403 19:16:40.222520  9040 net.cpp:156] Memory required for data: 886912032
I0403 19:16:40.222537  9040 layer_factory.hpp:77] Creating layer inception_4a/output
I0403 19:16:40.222558  9040 net.cpp:91] Creating Layer inception_4a/output
I0403 19:16:40.222575  9040 net.cpp:425] inception_4a/output <- inception_4a/1x1
I0403 19:16:40.222592  9040 net.cpp:425] inception_4a/output <- inception_4a/3x3
I0403 19:16:40.222609  9040 net.cpp:425] inception_4a/output <- inception_4a/5x5
I0403 19:16:40.222626  9040 net.cpp:425] inception_4a/output <- inception_4a/pool_proj
I0403 19:16:40.222643  9040 net.cpp:399] inception_4a/output -> inception_4a/output
I0403 19:16:40.222692  9040 net.cpp:141] Setting up inception_4a/output
I0403 19:16:40.222715  9040 net.cpp:148] Top shape: 24 512 14 14 (2408448)
I0403 19:16:40.222731  9040 net.cpp:156] Memory required for data: 896545824
I0403 19:16:40.222748  9040 layer_factory.hpp:77] Creating layer inception_4a/output_inception_4a/output_0_split
I0403 19:16:40.222765  9040 net.cpp:91] Creating Layer inception_4a/output_inception_4a/output_0_split
I0403 19:16:40.222782  9040 net.cpp:425] inception_4a/output_inception_4a/output_0_split <- inception_4a/output
I0403 19:16:40.222803  9040 net.cpp:399] inception_4a/output_inception_4a/output_0_split -> inception_4a/output_inception_4a/output_0_split_0
I0403 19:16:40.222826  9040 net.cpp:399] inception_4a/output_inception_4a/output_0_split -> inception_4a/output_inception_4a/output_0_split_1
I0403 19:16:40.222847  9040 net.cpp:399] inception_4a/output_inception_4a/output_0_split -> inception_4a/output_inception_4a/output_0_split_2
I0403 19:16:40.222869  9040 net.cpp:399] inception_4a/output_inception_4a/output_0_split -> inception_4a/output_inception_4a/output_0_split_3
I0403 19:16:40.222892  9040 net.cpp:399] inception_4a/output_inception_4a/output_0_split -> inception_4a/output_inception_4a/output_0_split_4
I0403 19:16:40.222986  9040 net.cpp:141] Setting up inception_4a/output_inception_4a/output_0_split
I0403 19:16:40.223011  9040 net.cpp:148] Top shape: 24 512 14 14 (2408448)
I0403 19:16:40.223028  9040 net.cpp:148] Top shape: 24 512 14 14 (2408448)
I0403 19:16:40.223045  9040 net.cpp:148] Top shape: 24 512 14 14 (2408448)
I0403 19:16:40.223062  9040 net.cpp:148] Top shape: 24 512 14 14 (2408448)
I0403 19:16:40.223078  9040 net.cpp:148] Top shape: 24 512 14 14 (2408448)
I0403 19:16:40.223093  9040 net.cpp:156] Memory required for data: 944714784
I0403 19:16:40.223107  9040 layer_factory.hpp:77] Creating layer loss1/ave_pool
I0403 19:16:40.223126  9040 net.cpp:91] Creating Layer loss1/ave_pool
I0403 19:16:40.223143  9040 net.cpp:425] loss1/ave_pool <- inception_4a/output_inception_4a/output_0_split_0
I0403 19:16:40.223165  9040 net.cpp:399] loss1/ave_pool -> loss1/ave_pool
I0403 19:16:40.223388  9040 net.cpp:141] Setting up loss1/ave_pool
I0403 19:16:40.223414  9040 net.cpp:148] Top shape: 24 512 4 4 (196608)
I0403 19:16:40.223430  9040 net.cpp:156] Memory required for data: 945501216
I0403 19:16:40.223445  9040 layer_factory.hpp:77] Creating layer loss1/conv
I0403 19:16:40.223469  9040 net.cpp:91] Creating Layer loss1/conv
I0403 19:16:40.223487  9040 net.cpp:425] loss1/conv <- loss1/ave_pool
I0403 19:16:40.223510  9040 net.cpp:399] loss1/conv -> loss1/conv
I0403 19:16:40.224974  9040 net.cpp:141] Setting up loss1/conv
I0403 19:16:40.225008  9040 net.cpp:148] Top shape: 24 128 4 4 (49152)
I0403 19:16:40.225026  9040 net.cpp:156] Memory required for data: 945697824
I0403 19:16:40.225060  9040 layer_factory.hpp:77] Creating layer loss1/relu_conv
I0403 19:16:40.225080  9040 net.cpp:91] Creating Layer loss1/relu_conv
I0403 19:16:40.225097  9040 net.cpp:425] loss1/relu_conv <- loss1/conv
I0403 19:16:40.225116  9040 net.cpp:386] loss1/relu_conv -> loss1/conv (in-place)
I0403 19:16:40.225414  9040 net.cpp:141] Setting up loss1/relu_conv
I0403 19:16:40.225442  9040 net.cpp:148] Top shape: 24 128 4 4 (49152)
I0403 19:16:40.225458  9040 net.cpp:156] Memory required for data: 945894432
I0403 19:16:40.225474  9040 layer_factory.hpp:77] Creating layer loss1/fc
I0403 19:16:40.225498  9040 net.cpp:91] Creating Layer loss1/fc
I0403 19:16:40.225518  9040 net.cpp:425] loss1/fc <- loss1/conv
I0403 19:16:40.225541  9040 net.cpp:399] loss1/fc -> loss1/fc
I0403 19:16:40.243767  9040 net.cpp:141] Setting up loss1/fc
I0403 19:16:40.243824  9040 net.cpp:148] Top shape: 24 1024 (24576)
I0403 19:16:40.243840  9040 net.cpp:156] Memory required for data: 945992736
I0403 19:16:40.243862  9040 layer_factory.hpp:77] Creating layer loss1/relu_fc
I0403 19:16:40.243885  9040 net.cpp:91] Creating Layer loss1/relu_fc
I0403 19:16:40.243903  9040 net.cpp:425] loss1/relu_fc <- loss1/fc
I0403 19:16:40.243922  9040 net.cpp:386] loss1/relu_fc -> loss1/fc (in-place)
I0403 19:16:40.244140  9040 net.cpp:141] Setting up loss1/relu_fc
I0403 19:16:40.244170  9040 net.cpp:148] Top shape: 24 1024 (24576)
I0403 19:16:40.244189  9040 net.cpp:156] Memory required for data: 946091040
I0403 19:16:40.244204  9040 layer_factory.hpp:77] Creating layer loss1/drop_fc
I0403 19:16:40.244232  9040 net.cpp:91] Creating Layer loss1/drop_fc
I0403 19:16:40.244256  9040 net.cpp:425] loss1/drop_fc <- loss1/fc
I0403 19:16:40.244276  9040 net.cpp:386] loss1/drop_fc -> loss1/fc (in-place)
I0403 19:16:40.244333  9040 net.cpp:141] Setting up loss1/drop_fc
I0403 19:16:40.244357  9040 net.cpp:148] Top shape: 24 1024 (24576)
I0403 19:16:40.244374  9040 net.cpp:156] Memory required for data: 946189344
I0403 19:16:40.244390  9040 layer_factory.hpp:77] Creating layer loss1/classifier_plantvillage
I0403 19:16:40.244412  9040 net.cpp:91] Creating Layer loss1/classifier_plantvillage
I0403 19:16:40.244429  9040 net.cpp:425] loss1/classifier_plantvillage <- loss1/fc
I0403 19:16:40.244449  9040 net.cpp:399] loss1/classifier_plantvillage -> loss1/classifier_plantvillage
I0403 19:16:40.245388  9040 net.cpp:141] Setting up loss1/classifier_plantvillage
I0403 19:16:40.245420  9040 net.cpp:148] Top shape: 24 38 (912)
I0403 19:16:40.245440  9040 net.cpp:156] Memory required for data: 946192992
I0403 19:16:40.245458  9040 layer_factory.hpp:77] Creating layer loss1/classifier_plantvillage_loss1/classifier_plantvillage_0_split
I0403 19:16:40.245478  9040 net.cpp:91] Creating Layer loss1/classifier_plantvillage_loss1/classifier_plantvillage_0_split
I0403 19:16:40.245496  9040 net.cpp:425] loss1/classifier_plantvillage_loss1/classifier_plantvillage_0_split <- loss1/classifier_plantvillage
I0403 19:16:40.245515  9040 net.cpp:399] loss1/classifier_plantvillage_loss1/classifier_plantvillage_0_split -> loss1/classifier_plantvillage_loss1/classifier_plantvillage_0_split_0
I0403 19:16:40.245537  9040 net.cpp:399] loss1/classifier_plantvillage_loss1/classifier_plantvillage_0_split -> loss1/classifier_plantvillage_loss1/classifier_plantvillage_0_split_1
I0403 19:16:40.245559  9040 net.cpp:399] loss1/classifier_plantvillage_loss1/classifier_plantvillage_0_split -> loss1/classifier_plantvillage_loss1/classifier_plantvillage_0_split_2
I0403 19:16:40.245627  9040 net.cpp:141] Setting up loss1/classifier_plantvillage_loss1/classifier_plantvillage_0_split
I0403 19:16:40.245652  9040 net.cpp:148] Top shape: 24 38 (912)
I0403 19:16:40.245669  9040 net.cpp:148] Top shape: 24 38 (912)
I0403 19:16:40.245687  9040 net.cpp:148] Top shape: 24 38 (912)
I0403 19:16:40.245702  9040 net.cpp:156] Memory required for data: 946203936
I0403 19:16:40.245717  9040 layer_factory.hpp:77] Creating layer inception_4b/1x1
I0403 19:16:40.245738  9040 net.cpp:91] Creating Layer inception_4b/1x1
I0403 19:16:40.245776  9040 net.cpp:425] inception_4b/1x1 <- inception_4a/output_inception_4a/output_0_split_1
I0403 19:16:40.245800  9040 net.cpp:399] inception_4b/1x1 -> inception_4b/1x1
I0403 19:16:40.247545  9040 net.cpp:141] Setting up inception_4b/1x1
I0403 19:16:40.247577  9040 net.cpp:148] Top shape: 24 160 14 14 (752640)
I0403 19:16:40.247596  9040 net.cpp:156] Memory required for data: 949214496
I0403 19:16:40.247618  9040 layer_factory.hpp:77] Creating layer inception_4b/relu_1x1
I0403 19:16:40.247637  9040 net.cpp:91] Creating Layer inception_4b/relu_1x1
I0403 19:16:40.247654  9040 net.cpp:425] inception_4b/relu_1x1 <- inception_4b/1x1
I0403 19:16:40.247675  9040 net.cpp:386] inception_4b/relu_1x1 -> inception_4b/1x1 (in-place)
I0403 19:16:40.247864  9040 net.cpp:141] Setting up inception_4b/relu_1x1
I0403 19:16:40.247900  9040 net.cpp:148] Top shape: 24 160 14 14 (752640)
I0403 19:16:40.247915  9040 net.cpp:156] Memory required for data: 952225056
I0403 19:16:40.247931  9040 layer_factory.hpp:77] Creating layer inception_4b/3x3_reduce
I0403 19:16:40.247956  9040 net.cpp:91] Creating Layer inception_4b/3x3_reduce
I0403 19:16:40.247974  9040 net.cpp:425] inception_4b/3x3_reduce <- inception_4a/output_inception_4a/output_0_split_2
I0403 19:16:40.247998  9040 net.cpp:399] inception_4b/3x3_reduce -> inception_4b/3x3_reduce
I0403 19:16:40.249369  9040 net.cpp:141] Setting up inception_4b/3x3_reduce
I0403 19:16:40.249397  9040 net.cpp:148] Top shape: 24 112 14 14 (526848)
I0403 19:16:40.249413  9040 net.cpp:156] Memory required for data: 954332448
I0403 19:16:40.249433  9040 layer_factory.hpp:77] Creating layer inception_4b/relu_3x3_reduce
I0403 19:16:40.249454  9040 net.cpp:91] Creating Layer inception_4b/relu_3x3_reduce
I0403 19:16:40.249471  9040 net.cpp:425] inception_4b/relu_3x3_reduce <- inception_4b/3x3_reduce
I0403 19:16:40.249490  9040 net.cpp:386] inception_4b/relu_3x3_reduce -> inception_4b/3x3_reduce (in-place)
I0403 19:16:40.249775  9040 net.cpp:141] Setting up inception_4b/relu_3x3_reduce
I0403 19:16:40.249804  9040 net.cpp:148] Top shape: 24 112 14 14 (526848)
I0403 19:16:40.249841  9040 net.cpp:156] Memory required for data: 956439840
I0403 19:16:40.249856  9040 layer_factory.hpp:77] Creating layer inception_4b/3x3
I0403 19:16:40.249879  9040 net.cpp:91] Creating Layer inception_4b/3x3
I0403 19:16:40.249897  9040 net.cpp:425] inception_4b/3x3 <- inception_4b/3x3_reduce
I0403 19:16:40.249919  9040 net.cpp:399] inception_4b/3x3 -> inception_4b/3x3
I0403 19:16:40.252902  9040 net.cpp:141] Setting up inception_4b/3x3
I0403 19:16:40.252934  9040 net.cpp:148] Top shape: 24 224 14 14 (1053696)
I0403 19:16:40.252951  9040 net.cpp:156] Memory required for data: 960654624
I0403 19:16:40.252971  9040 layer_factory.hpp:77] Creating layer inception_4b/relu_3x3
I0403 19:16:40.252992  9040 net.cpp:91] Creating Layer inception_4b/relu_3x3
I0403 19:16:40.253010  9040 net.cpp:425] inception_4b/relu_3x3 <- inception_4b/3x3
I0403 19:16:40.253027  9040 net.cpp:386] inception_4b/relu_3x3 -> inception_4b/3x3 (in-place)
I0403 19:16:40.253212  9040 net.cpp:141] Setting up inception_4b/relu_3x3
I0403 19:16:40.253243  9040 net.cpp:148] Top shape: 24 224 14 14 (1053696)
I0403 19:16:40.253262  9040 net.cpp:156] Memory required for data: 964869408
I0403 19:16:40.253276  9040 layer_factory.hpp:77] Creating layer inception_4b/5x5_reduce
I0403 19:16:40.253298  9040 net.cpp:91] Creating Layer inception_4b/5x5_reduce
I0403 19:16:40.253316  9040 net.cpp:425] inception_4b/5x5_reduce <- inception_4a/output_inception_4a/output_0_split_3
I0403 19:16:40.253335  9040 net.cpp:399] inception_4b/5x5_reduce -> inception_4b/5x5_reduce
I0403 19:16:40.254417  9040 net.cpp:141] Setting up inception_4b/5x5_reduce
I0403 19:16:40.254447  9040 net.cpp:148] Top shape: 24 24 14 14 (112896)
I0403 19:16:40.254463  9040 net.cpp:156] Memory required for data: 965320992
I0403 19:16:40.254482  9040 layer_factory.hpp:77] Creating layer inception_4b/relu_5x5_reduce
I0403 19:16:40.254501  9040 net.cpp:91] Creating Layer inception_4b/relu_5x5_reduce
I0403 19:16:40.254533  9040 net.cpp:425] inception_4b/relu_5x5_reduce <- inception_4b/5x5_reduce
I0403 19:16:40.254554  9040 net.cpp:386] inception_4b/relu_5x5_reduce -> inception_4b/5x5_reduce (in-place)
I0403 19:16:40.254740  9040 net.cpp:141] Setting up inception_4b/relu_5x5_reduce
I0403 19:16:40.254765  9040 net.cpp:148] Top shape: 24 24 14 14 (112896)
I0403 19:16:40.254781  9040 net.cpp:156] Memory required for data: 965772576
I0403 19:16:40.254796  9040 layer_factory.hpp:77] Creating layer inception_4b/5x5
I0403 19:16:40.254817  9040 net.cpp:91] Creating Layer inception_4b/5x5
I0403 19:16:40.254837  9040 net.cpp:425] inception_4b/5x5 <- inception_4b/5x5_reduce
I0403 19:16:40.254858  9040 net.cpp:399] inception_4b/5x5 -> inception_4b/5x5
I0403 19:16:40.256110  9040 net.cpp:141] Setting up inception_4b/5x5
I0403 19:16:40.256144  9040 net.cpp:148] Top shape: 24 64 14 14 (301056)
I0403 19:16:40.256161  9040 net.cpp:156] Memory required for data: 966976800
I0403 19:16:40.256181  9040 layer_factory.hpp:77] Creating layer inception_4b/relu_5x5
I0403 19:16:40.256201  9040 net.cpp:91] Creating Layer inception_4b/relu_5x5
I0403 19:16:40.256218  9040 net.cpp:425] inception_4b/relu_5x5 <- inception_4b/5x5
I0403 19:16:40.256245  9040 net.cpp:386] inception_4b/relu_5x5 -> inception_4b/5x5 (in-place)
I0403 19:16:40.256543  9040 net.cpp:141] Setting up inception_4b/relu_5x5
I0403 19:16:40.256574  9040 net.cpp:148] Top shape: 24 64 14 14 (301056)
I0403 19:16:40.256592  9040 net.cpp:156] Memory required for data: 968181024
I0403 19:16:40.256609  9040 layer_factory.hpp:77] Creating layer inception_4b/pool
I0403 19:16:40.256629  9040 net.cpp:91] Creating Layer inception_4b/pool
I0403 19:16:40.256647  9040 net.cpp:425] inception_4b/pool <- inception_4a/output_inception_4a/output_0_split_4
I0403 19:16:40.256669  9040 net.cpp:399] inception_4b/pool -> inception_4b/pool
I0403 19:16:40.256737  9040 net.cpp:141] Setting up inception_4b/pool
I0403 19:16:40.256763  9040 net.cpp:148] Top shape: 24 512 14 14 (2408448)
I0403 19:16:40.256779  9040 net.cpp:156] Memory required for data: 977814816
I0403 19:16:40.256796  9040 layer_factory.hpp:77] Creating layer inception_4b/pool_proj
I0403 19:16:40.256820  9040 net.cpp:91] Creating Layer inception_4b/pool_proj
I0403 19:16:40.256842  9040 net.cpp:425] inception_4b/pool_proj <- inception_4b/pool
I0403 19:16:40.256862  9040 net.cpp:399] inception_4b/pool_proj -> inception_4b/pool_proj
I0403 19:16:40.258133  9040 net.cpp:141] Setting up inception_4b/pool_proj
I0403 19:16:40.258162  9040 net.cpp:148] Top shape: 24 64 14 14 (301056)
I0403 19:16:40.258177  9040 net.cpp:156] Memory required for data: 979019040
I0403 19:16:40.258195  9040 layer_factory.hpp:77] Creating layer inception_4b/relu_pool_proj
I0403 19:16:40.258213  9040 net.cpp:91] Creating Layer inception_4b/relu_pool_proj
I0403 19:16:40.258230  9040 net.cpp:425] inception_4b/relu_pool_proj <- inception_4b/pool_proj
I0403 19:16:40.258255  9040 net.cpp:386] inception_4b/relu_pool_proj -> inception_4b/pool_proj (in-place)
I0403 19:16:40.258441  9040 net.cpp:141] Setting up inception_4b/relu_pool_proj
I0403 19:16:40.258466  9040 net.cpp:148] Top shape: 24 64 14 14 (301056)
I0403 19:16:40.258481  9040 net.cpp:156] Memory required for data: 980223264
I0403 19:16:40.258496  9040 layer_factory.hpp:77] Creating layer inception_4b/output
I0403 19:16:40.258514  9040 net.cpp:91] Creating Layer inception_4b/output
I0403 19:16:40.258538  9040 net.cpp:425] inception_4b/output <- inception_4b/1x1
I0403 19:16:40.258555  9040 net.cpp:425] inception_4b/output <- inception_4b/3x3
I0403 19:16:40.258572  9040 net.cpp:425] inception_4b/output <- inception_4b/5x5
I0403 19:16:40.258589  9040 net.cpp:425] inception_4b/output <- inception_4b/pool_proj
I0403 19:16:40.258605  9040 net.cpp:399] inception_4b/output -> inception_4b/output
I0403 19:16:40.258651  9040 net.cpp:141] Setting up inception_4b/output
I0403 19:16:40.258676  9040 net.cpp:148] Top shape: 24 512 14 14 (2408448)
I0403 19:16:40.258692  9040 net.cpp:156] Memory required for data: 989857056
I0403 19:16:40.258719  9040 layer_factory.hpp:77] Creating layer inception_4b/output_inception_4b/output_0_split
I0403 19:16:40.258738  9040 net.cpp:91] Creating Layer inception_4b/output_inception_4b/output_0_split
I0403 19:16:40.258754  9040 net.cpp:425] inception_4b/output_inception_4b/output_0_split <- inception_4b/output
I0403 19:16:40.258774  9040 net.cpp:399] inception_4b/output_inception_4b/output_0_split -> inception_4b/output_inception_4b/output_0_split_0
I0403 19:16:40.258796  9040 net.cpp:399] inception_4b/output_inception_4b/output_0_split -> inception_4b/output_inception_4b/output_0_split_1
I0403 19:16:40.258816  9040 net.cpp:399] inception_4b/output_inception_4b/output_0_split -> inception_4b/output_inception_4b/output_0_split_2
I0403 19:16:40.258836  9040 net.cpp:399] inception_4b/output_inception_4b/output_0_split -> inception_4b/output_inception_4b/output_0_split_3
I0403 19:16:40.258919  9040 net.cpp:141] Setting up inception_4b/output_inception_4b/output_0_split
I0403 19:16:40.258944  9040 net.cpp:148] Top shape: 24 512 14 14 (2408448)
I0403 19:16:40.258961  9040 net.cpp:148] Top shape: 24 512 14 14 (2408448)
I0403 19:16:40.258977  9040 net.cpp:148] Top shape: 24 512 14 14 (2408448)
I0403 19:16:40.258993  9040 net.cpp:148] Top shape: 24 512 14 14 (2408448)
I0403 19:16:40.259008  9040 net.cpp:156] Memory required for data: 1028392224
I0403 19:16:40.259022  9040 layer_factory.hpp:77] Creating layer inception_4c/1x1
I0403 19:16:40.259045  9040 net.cpp:91] Creating Layer inception_4c/1x1
I0403 19:16:40.259064  9040 net.cpp:425] inception_4c/1x1 <- inception_4b/output_inception_4b/output_0_split_0
I0403 19:16:40.259083  9040 net.cpp:399] inception_4c/1x1 -> inception_4c/1x1
I0403 19:16:40.260532  9040 net.cpp:141] Setting up inception_4c/1x1
I0403 19:16:40.260562  9040 net.cpp:148] Top shape: 24 128 14 14 (602112)
I0403 19:16:40.260578  9040 net.cpp:156] Memory required for data: 1030800672
I0403 19:16:40.260599  9040 layer_factory.hpp:77] Creating layer inception_4c/relu_1x1
I0403 19:16:40.260620  9040 net.cpp:91] Creating Layer inception_4c/relu_1x1
I0403 19:16:40.260637  9040 net.cpp:425] inception_4c/relu_1x1 <- inception_4c/1x1
I0403 19:16:40.260656  9040 net.cpp:386] inception_4c/relu_1x1 -> inception_4c/1x1 (in-place)
I0403 19:16:40.260845  9040 net.cpp:141] Setting up inception_4c/relu_1x1
I0403 19:16:40.260871  9040 net.cpp:148] Top shape: 24 128 14 14 (602112)
I0403 19:16:40.260886  9040 net.cpp:156] Memory required for data: 1033209120
I0403 19:16:40.260902  9040 layer_factory.hpp:77] Creating layer inception_4c/3x3_reduce
I0403 19:16:40.260926  9040 net.cpp:91] Creating Layer inception_4c/3x3_reduce
I0403 19:16:40.260946  9040 net.cpp:425] inception_4c/3x3_reduce <- inception_4b/output_inception_4b/output_0_split_1
I0403 19:16:40.260967  9040 net.cpp:399] inception_4c/3x3_reduce -> inception_4c/3x3_reduce
I0403 19:16:40.262923  9040 net.cpp:141] Setting up inception_4c/3x3_reduce
I0403 19:16:40.262956  9040 net.cpp:148] Top shape: 24 128 14 14 (602112)
I0403 19:16:40.262974  9040 net.cpp:156] Memory required for data: 1035617568
I0403 19:16:40.262995  9040 layer_factory.hpp:77] Creating layer inception_4c/relu_3x3_reduce
I0403 19:16:40.263015  9040 net.cpp:91] Creating Layer inception_4c/relu_3x3_reduce
I0403 19:16:40.263031  9040 net.cpp:425] inception_4c/relu_3x3_reduce <- inception_4c/3x3_reduce
I0403 19:16:40.263051  9040 net.cpp:386] inception_4c/relu_3x3_reduce -> inception_4c/3x3_reduce (in-place)
I0403 19:16:40.263351  9040 net.cpp:141] Setting up inception_4c/relu_3x3_reduce
I0403 19:16:40.263381  9040 net.cpp:148] Top shape: 24 128 14 14 (602112)
I0403 19:16:40.263396  9040 net.cpp:156] Memory required for data: 1038026016
I0403 19:16:40.263412  9040 layer_factory.hpp:77] Creating layer inception_4c/3x3
I0403 19:16:40.263437  9040 net.cpp:91] Creating Layer inception_4c/3x3
I0403 19:16:40.263454  9040 net.cpp:425] inception_4c/3x3 <- inception_4c/3x3_reduce
I0403 19:16:40.263473  9040 net.cpp:399] inception_4c/3x3 -> inception_4c/3x3
I0403 19:16:40.267058  9040 net.cpp:141] Setting up inception_4c/3x3
I0403 19:16:40.267101  9040 net.cpp:148] Top shape: 24 256 14 14 (1204224)
I0403 19:16:40.267118  9040 net.cpp:156] Memory required for data: 1042842912
I0403 19:16:40.267151  9040 layer_factory.hpp:77] Creating layer inception_4c/relu_3x3
I0403 19:16:40.267174  9040 net.cpp:91] Creating Layer inception_4c/relu_3x3
I0403 19:16:40.267192  9040 net.cpp:425] inception_4c/relu_3x3 <- inception_4c/3x3
I0403 19:16:40.267212  9040 net.cpp:386] inception_4c/relu_3x3 -> inception_4c/3x3 (in-place)
I0403 19:16:40.267403  9040 net.cpp:141] Setting up inception_4c/relu_3x3
I0403 19:16:40.267431  9040 net.cpp:148] Top shape: 24 256 14 14 (1204224)
I0403 19:16:40.267446  9040 net.cpp:156] Memory required for data: 1047659808
I0403 19:16:40.267462  9040 layer_factory.hpp:77] Creating layer inception_4c/5x5_reduce
I0403 19:16:40.267493  9040 net.cpp:91] Creating Layer inception_4c/5x5_reduce
I0403 19:16:40.267511  9040 net.cpp:425] inception_4c/5x5_reduce <- inception_4b/output_inception_4b/output_0_split_2
I0403 19:16:40.267534  9040 net.cpp:399] inception_4c/5x5_reduce -> inception_4c/5x5_reduce
I0403 19:16:40.268620  9040 net.cpp:141] Setting up inception_4c/5x5_reduce
I0403 19:16:40.268651  9040 net.cpp:148] Top shape: 24 24 14 14 (112896)
I0403 19:16:40.268667  9040 net.cpp:156] Memory required for data: 1048111392
I0403 19:16:40.268687  9040 layer_factory.hpp:77] Creating layer inception_4c/relu_5x5_reduce
I0403 19:16:40.268704  9040 net.cpp:91] Creating Layer inception_4c/relu_5x5_reduce
I0403 19:16:40.268720  9040 net.cpp:425] inception_4c/relu_5x5_reduce <- inception_4c/5x5_reduce
I0403 19:16:40.268740  9040 net.cpp:386] inception_4c/relu_5x5_reduce -> inception_4c/5x5_reduce (in-place)
I0403 19:16:40.268928  9040 net.cpp:141] Setting up inception_4c/relu_5x5_reduce
I0403 19:16:40.268952  9040 net.cpp:148] Top shape: 24 24 14 14 (112896)
I0403 19:16:40.268967  9040 net.cpp:156] Memory required for data: 1048562976
I0403 19:16:40.268983  9040 layer_factory.hpp:77] Creating layer inception_4c/5x5
I0403 19:16:40.269006  9040 net.cpp:91] Creating Layer inception_4c/5x5
I0403 19:16:40.269023  9040 net.cpp:425] inception_4c/5x5 <- inception_4c/5x5_reduce
I0403 19:16:40.269045  9040 net.cpp:399] inception_4c/5x5 -> inception_4c/5x5
I0403 19:16:40.270311  9040 net.cpp:141] Setting up inception_4c/5x5
I0403 19:16:40.270339  9040 net.cpp:148] Top shape: 24 64 14 14 (301056)
I0403 19:16:40.270355  9040 net.cpp:156] Memory required for data: 1049767200
I0403 19:16:40.270375  9040 layer_factory.hpp:77] Creating layer inception_4c/relu_5x5
I0403 19:16:40.270395  9040 net.cpp:91] Creating Layer inception_4c/relu_5x5
I0403 19:16:40.270413  9040 net.cpp:425] inception_4c/relu_5x5 <- inception_4c/5x5
I0403 19:16:40.270431  9040 net.cpp:386] inception_4c/relu_5x5 -> inception_4c/5x5 (in-place)
I0403 19:16:40.270733  9040 net.cpp:141] Setting up inception_4c/relu_5x5
I0403 19:16:40.270759  9040 net.cpp:148] Top shape: 24 64 14 14 (301056)
I0403 19:16:40.270774  9040 net.cpp:156] Memory required for data: 1050971424
I0403 19:16:40.270789  9040 layer_factory.hpp:77] Creating layer inception_4c/pool
I0403 19:16:40.270810  9040 net.cpp:91] Creating Layer inception_4c/pool
I0403 19:16:40.270826  9040 net.cpp:425] inception_4c/pool <- inception_4b/output_inception_4b/output_0_split_3
I0403 19:16:40.270845  9040 net.cpp:399] inception_4c/pool -> inception_4c/pool
I0403 19:16:40.270912  9040 net.cpp:141] Setting up inception_4c/pool
I0403 19:16:40.270937  9040 net.cpp:148] Top shape: 24 512 14 14 (2408448)
I0403 19:16:40.270952  9040 net.cpp:156] Memory required for data: 1060605216
I0403 19:16:40.270967  9040 layer_factory.hpp:77] Creating layer inception_4c/pool_proj
I0403 19:16:40.270989  9040 net.cpp:91] Creating Layer inception_4c/pool_proj
I0403 19:16:40.271008  9040 net.cpp:425] inception_4c/pool_proj <- inception_4c/pool
I0403 19:16:40.271031  9040 net.cpp:399] inception_4c/pool_proj -> inception_4c/pool_proj
I0403 19:16:40.272276  9040 net.cpp:141] Setting up inception_4c/pool_proj
I0403 19:16:40.272306  9040 net.cpp:148] Top shape: 24 64 14 14 (301056)
I0403 19:16:40.272336  9040 net.cpp:156] Memory required for data: 1061809440
I0403 19:16:40.272356  9040 layer_factory.hpp:77] Creating layer inception_4c/relu_pool_proj
I0403 19:16:40.272374  9040 net.cpp:91] Creating Layer inception_4c/relu_pool_proj
I0403 19:16:40.272392  9040 net.cpp:425] inception_4c/relu_pool_proj <- inception_4c/pool_proj
I0403 19:16:40.272411  9040 net.cpp:386] inception_4c/relu_pool_proj -> inception_4c/pool_proj (in-place)
I0403 19:16:40.272599  9040 net.cpp:141] Setting up inception_4c/relu_pool_proj
I0403 19:16:40.272625  9040 net.cpp:148] Top shape: 24 64 14 14 (301056)
I0403 19:16:40.272639  9040 net.cpp:156] Memory required for data: 1063013664
I0403 19:16:40.272655  9040 layer_factory.hpp:77] Creating layer inception_4c/output
I0403 19:16:40.272671  9040 net.cpp:91] Creating Layer inception_4c/output
I0403 19:16:40.272688  9040 net.cpp:425] inception_4c/output <- inception_4c/1x1
I0403 19:16:40.272704  9040 net.cpp:425] inception_4c/output <- inception_4c/3x3
I0403 19:16:40.272724  9040 net.cpp:425] inception_4c/output <- inception_4c/5x5
I0403 19:16:40.272740  9040 net.cpp:425] inception_4c/output <- inception_4c/pool_proj
I0403 19:16:40.272758  9040 net.cpp:399] inception_4c/output -> inception_4c/output
I0403 19:16:40.272804  9040 net.cpp:141] Setting up inception_4c/output
I0403 19:16:40.272830  9040 net.cpp:148] Top shape: 24 512 14 14 (2408448)
I0403 19:16:40.272845  9040 net.cpp:156] Memory required for data: 1072647456
I0403 19:16:40.272860  9040 layer_factory.hpp:77] Creating layer inception_4c/output_inception_4c/output_0_split
I0403 19:16:40.272877  9040 net.cpp:91] Creating Layer inception_4c/output_inception_4c/output_0_split
I0403 19:16:40.272892  9040 net.cpp:425] inception_4c/output_inception_4c/output_0_split <- inception_4c/output
I0403 19:16:40.272912  9040 net.cpp:399] inception_4c/output_inception_4c/output_0_split -> inception_4c/output_inception_4c/output_0_split_0
I0403 19:16:40.272934  9040 net.cpp:399] inception_4c/output_inception_4c/output_0_split -> inception_4c/output_inception_4c/output_0_split_1
I0403 19:16:40.272954  9040 net.cpp:399] inception_4c/output_inception_4c/output_0_split -> inception_4c/output_inception_4c/output_0_split_2
I0403 19:16:40.272975  9040 net.cpp:399] inception_4c/output_inception_4c/output_0_split -> inception_4c/output_inception_4c/output_0_split_3
I0403 19:16:40.273062  9040 net.cpp:141] Setting up inception_4c/output_inception_4c/output_0_split
I0403 19:16:40.273088  9040 net.cpp:148] Top shape: 24 512 14 14 (2408448)
I0403 19:16:40.273105  9040 net.cpp:148] Top shape: 24 512 14 14 (2408448)
I0403 19:16:40.273121  9040 net.cpp:148] Top shape: 24 512 14 14 (2408448)
I0403 19:16:40.273136  9040 net.cpp:148] Top shape: 24 512 14 14 (2408448)
I0403 19:16:40.273150  9040 net.cpp:156] Memory required for data: 1111182624
I0403 19:16:40.273165  9040 layer_factory.hpp:77] Creating layer inception_4d/1x1
I0403 19:16:40.273187  9040 net.cpp:91] Creating Layer inception_4d/1x1
I0403 19:16:40.273205  9040 net.cpp:425] inception_4d/1x1 <- inception_4c/output_inception_4c/output_0_split_0
I0403 19:16:40.273226  9040 net.cpp:399] inception_4d/1x1 -> inception_4d/1x1
I0403 19:16:40.274621  9040 net.cpp:141] Setting up inception_4d/1x1
I0403 19:16:40.274651  9040 net.cpp:148] Top shape: 24 112 14 14 (526848)
I0403 19:16:40.274673  9040 net.cpp:156] Memory required for data: 1113290016
I0403 19:16:40.274693  9040 layer_factory.hpp:77] Creating layer inception_4d/relu_1x1
I0403 19:16:40.274711  9040 net.cpp:91] Creating Layer inception_4d/relu_1x1
I0403 19:16:40.274729  9040 net.cpp:425] inception_4d/relu_1x1 <- inception_4d/1x1
I0403 19:16:40.274745  9040 net.cpp:386] inception_4d/relu_1x1 -> inception_4d/1x1 (in-place)
I0403 19:16:40.274932  9040 net.cpp:141] Setting up inception_4d/relu_1x1
I0403 19:16:40.274960  9040 net.cpp:148] Top shape: 24 112 14 14 (526848)
I0403 19:16:40.274974  9040 net.cpp:156] Memory required for data: 1115397408
I0403 19:16:40.274991  9040 layer_factory.hpp:77] Creating layer inception_4d/3x3_reduce
I0403 19:16:40.275029  9040 net.cpp:91] Creating Layer inception_4d/3x3_reduce
I0403 19:16:40.275049  9040 net.cpp:425] inception_4d/3x3_reduce <- inception_4c/output_inception_4c/output_0_split_1
I0403 19:16:40.275069  9040 net.cpp:399] inception_4d/3x3_reduce -> inception_4d/3x3_reduce
I0403 19:16:40.276646  9040 net.cpp:141] Setting up inception_4d/3x3_reduce
I0403 19:16:40.276674  9040 net.cpp:148] Top shape: 24 144 14 14 (677376)
I0403 19:16:40.276690  9040 net.cpp:156] Memory required for data: 1118106912
I0403 19:16:40.276708  9040 layer_factory.hpp:77] Creating layer inception_4d/relu_3x3_reduce
I0403 19:16:40.276731  9040 net.cpp:91] Creating Layer inception_4d/relu_3x3_reduce
I0403 19:16:40.276747  9040 net.cpp:425] inception_4d/relu_3x3_reduce <- inception_4d/3x3_reduce
I0403 19:16:40.276765  9040 net.cpp:386] inception_4d/relu_3x3_reduce -> inception_4d/3x3_reduce (in-place)
I0403 19:16:40.277057  9040 net.cpp:141] Setting up inception_4d/relu_3x3_reduce
I0403 19:16:40.277084  9040 net.cpp:148] Top shape: 24 144 14 14 (677376)
I0403 19:16:40.277101  9040 net.cpp:156] Memory required for data: 1120816416
I0403 19:16:40.277115  9040 layer_factory.hpp:77] Creating layer inception_4d/3x3
I0403 19:16:40.277138  9040 net.cpp:91] Creating Layer inception_4d/3x3
I0403 19:16:40.277156  9040 net.cpp:425] inception_4d/3x3 <- inception_4d/3x3_reduce
I0403 19:16:40.277178  9040 net.cpp:399] inception_4d/3x3 -> inception_4d/3x3
I0403 19:16:40.281431  9040 net.cpp:141] Setting up inception_4d/3x3
I0403 19:16:40.281461  9040 net.cpp:148] Top shape: 24 288 14 14 (1354752)
I0403 19:16:40.281478  9040 net.cpp:156] Memory required for data: 1126235424
I0403 19:16:40.281497  9040 layer_factory.hpp:77] Creating layer inception_4d/relu_3x3
I0403 19:16:40.281518  9040 net.cpp:91] Creating Layer inception_4d/relu_3x3
I0403 19:16:40.281538  9040 net.cpp:425] inception_4d/relu_3x3 <- inception_4d/3x3
I0403 19:16:40.281555  9040 net.cpp:386] inception_4d/relu_3x3 -> inception_4d/3x3 (in-place)
I0403 19:16:40.281744  9040 net.cpp:141] Setting up inception_4d/relu_3x3
I0403 19:16:40.281769  9040 net.cpp:148] Top shape: 24 288 14 14 (1354752)
I0403 19:16:40.281783  9040 net.cpp:156] Memory required for data: 1131654432
I0403 19:16:40.281798  9040 layer_factory.hpp:77] Creating layer inception_4d/5x5_reduce
I0403 19:16:40.281821  9040 net.cpp:91] Creating Layer inception_4d/5x5_reduce
I0403 19:16:40.281838  9040 net.cpp:425] inception_4d/5x5_reduce <- inception_4c/output_inception_4c/output_0_split_2
I0403 19:16:40.281860  9040 net.cpp:399] inception_4d/5x5_reduce -> inception_4d/5x5_reduce
I0403 19:16:40.283022  9040 net.cpp:141] Setting up inception_4d/5x5_reduce
I0403 19:16:40.283054  9040 net.cpp:148] Top shape: 24 32 14 14 (150528)
I0403 19:16:40.283074  9040 net.cpp:156] Memory required for data: 1132256544
I0403 19:16:40.283093  9040 layer_factory.hpp:77] Creating layer inception_4d/relu_5x5_reduce
I0403 19:16:40.283113  9040 net.cpp:91] Creating Layer inception_4d/relu_5x5_reduce
I0403 19:16:40.283131  9040 net.cpp:425] inception_4d/relu_5x5_reduce <- inception_4d/5x5_reduce
I0403 19:16:40.283150  9040 net.cpp:386] inception_4d/relu_5x5_reduce -> inception_4d/5x5_reduce (in-place)
I0403 19:16:40.283349  9040 net.cpp:141] Setting up inception_4d/relu_5x5_reduce
I0403 19:16:40.283376  9040 net.cpp:148] Top shape: 24 32 14 14 (150528)
I0403 19:16:40.283392  9040 net.cpp:156] Memory required for data: 1132858656
I0403 19:16:40.283407  9040 layer_factory.hpp:77] Creating layer inception_4d/5x5
I0403 19:16:40.283430  9040 net.cpp:91] Creating Layer inception_4d/5x5
I0403 19:16:40.283448  9040 net.cpp:425] inception_4d/5x5 <- inception_4d/5x5_reduce
I0403 19:16:40.283470  9040 net.cpp:399] inception_4d/5x5 -> inception_4d/5x5
I0403 19:16:40.284940  9040 net.cpp:141] Setting up inception_4d/5x5
I0403 19:16:40.284970  9040 net.cpp:148] Top shape: 24 64 14 14 (301056)
I0403 19:16:40.284986  9040 net.cpp:156] Memory required for data: 1134062880
I0403 19:16:40.285006  9040 layer_factory.hpp:77] Creating layer inception_4d/relu_5x5
I0403 19:16:40.285038  9040 net.cpp:91] Creating Layer inception_4d/relu_5x5
I0403 19:16:40.285059  9040 net.cpp:425] inception_4d/relu_5x5 <- inception_4d/5x5
I0403 19:16:40.285079  9040 net.cpp:386] inception_4d/relu_5x5 -> inception_4d/5x5 (in-place)
I0403 19:16:40.285383  9040 net.cpp:141] Setting up inception_4d/relu_5x5
I0403 19:16:40.285409  9040 net.cpp:148] Top shape: 24 64 14 14 (301056)
I0403 19:16:40.285425  9040 net.cpp:156] Memory required for data: 1135267104
I0403 19:16:40.285440  9040 layer_factory.hpp:77] Creating layer inception_4d/pool
I0403 19:16:40.285459  9040 net.cpp:91] Creating Layer inception_4d/pool
I0403 19:16:40.285475  9040 net.cpp:425] inception_4d/pool <- inception_4c/output_inception_4c/output_0_split_3
I0403 19:16:40.285496  9040 net.cpp:399] inception_4d/pool -> inception_4d/pool
I0403 19:16:40.285563  9040 net.cpp:141] Setting up inception_4d/pool
I0403 19:16:40.285589  9040 net.cpp:148] Top shape: 24 512 14 14 (2408448)
I0403 19:16:40.285604  9040 net.cpp:156] Memory required for data: 1144900896
I0403 19:16:40.285620  9040 layer_factory.hpp:77] Creating layer inception_4d/pool_proj
I0403 19:16:40.285642  9040 net.cpp:91] Creating Layer inception_4d/pool_proj
I0403 19:16:40.285660  9040 net.cpp:425] inception_4d/pool_proj <- inception_4d/pool
I0403 19:16:40.285681  9040 net.cpp:399] inception_4d/pool_proj -> inception_4d/pool_proj
I0403 19:16:40.287434  9040 net.cpp:141] Setting up inception_4d/pool_proj
I0403 19:16:40.287466  9040 net.cpp:148] Top shape: 24 64 14 14 (301056)
I0403 19:16:40.287482  9040 net.cpp:156] Memory required for data: 1146105120
I0403 19:16:40.287500  9040 layer_factory.hpp:77] Creating layer inception_4d/relu_pool_proj
I0403 19:16:40.287521  9040 net.cpp:91] Creating Layer inception_4d/relu_pool_proj
I0403 19:16:40.287539  9040 net.cpp:425] inception_4d/relu_pool_proj <- inception_4d/pool_proj
I0403 19:16:40.287557  9040 net.cpp:386] inception_4d/relu_pool_proj -> inception_4d/pool_proj (in-place)
I0403 19:16:40.287745  9040 net.cpp:141] Setting up inception_4d/relu_pool_proj
I0403 19:16:40.287771  9040 net.cpp:148] Top shape: 24 64 14 14 (301056)
I0403 19:16:40.287786  9040 net.cpp:156] Memory required for data: 1147309344
I0403 19:16:40.287801  9040 layer_factory.hpp:77] Creating layer inception_4d/output
I0403 19:16:40.287818  9040 net.cpp:91] Creating Layer inception_4d/output
I0403 19:16:40.287834  9040 net.cpp:425] inception_4d/output <- inception_4d/1x1
I0403 19:16:40.287853  9040 net.cpp:425] inception_4d/output <- inception_4d/3x3
I0403 19:16:40.287869  9040 net.cpp:425] inception_4d/output <- inception_4d/5x5
I0403 19:16:40.287885  9040 net.cpp:425] inception_4d/output <- inception_4d/pool_proj
I0403 19:16:40.287904  9040 net.cpp:399] inception_4d/output -> inception_4d/output
I0403 19:16:40.287952  9040 net.cpp:141] Setting up inception_4d/output
I0403 19:16:40.287979  9040 net.cpp:148] Top shape: 24 528 14 14 (2483712)
I0403 19:16:40.287995  9040 net.cpp:156] Memory required for data: 1157244192
I0403 19:16:40.288010  9040 layer_factory.hpp:77] Creating layer inception_4d/output_inception_4d/output_0_split
I0403 19:16:40.288028  9040 net.cpp:91] Creating Layer inception_4d/output_inception_4d/output_0_split
I0403 19:16:40.288044  9040 net.cpp:425] inception_4d/output_inception_4d/output_0_split <- inception_4d/output
I0403 19:16:40.288063  9040 net.cpp:399] inception_4d/output_inception_4d/output_0_split -> inception_4d/output_inception_4d/output_0_split_0
I0403 19:16:40.288086  9040 net.cpp:399] inception_4d/output_inception_4d/output_0_split -> inception_4d/output_inception_4d/output_0_split_1
I0403 19:16:40.288108  9040 net.cpp:399] inception_4d/output_inception_4d/output_0_split -> inception_4d/output_inception_4d/output_0_split_2
I0403 19:16:40.288130  9040 net.cpp:399] inception_4d/output_inception_4d/output_0_split -> inception_4d/output_inception_4d/output_0_split_3
I0403 19:16:40.288151  9040 net.cpp:399] inception_4d/output_inception_4d/output_0_split -> inception_4d/output_inception_4d/output_0_split_4
I0403 19:16:40.288259  9040 net.cpp:141] Setting up inception_4d/output_inception_4d/output_0_split
I0403 19:16:40.288295  9040 net.cpp:148] Top shape: 24 528 14 14 (2483712)
I0403 19:16:40.288312  9040 net.cpp:148] Top shape: 24 528 14 14 (2483712)
I0403 19:16:40.288329  9040 net.cpp:148] Top shape: 24 528 14 14 (2483712)
I0403 19:16:40.288346  9040 net.cpp:148] Top shape: 24 528 14 14 (2483712)
I0403 19:16:40.288362  9040 net.cpp:148] Top shape: 24 528 14 14 (2483712)
I0403 19:16:40.288374  9040 net.cpp:156] Memory required for data: 1206918432
I0403 19:16:40.288389  9040 layer_factory.hpp:77] Creating layer loss2/ave_pool
I0403 19:16:40.288409  9040 net.cpp:91] Creating Layer loss2/ave_pool
I0403 19:16:40.288427  9040 net.cpp:425] loss2/ave_pool <- inception_4d/output_inception_4d/output_0_split_0
I0403 19:16:40.288447  9040 net.cpp:399] loss2/ave_pool -> loss2/ave_pool
I0403 19:16:40.288761  9040 net.cpp:141] Setting up loss2/ave_pool
I0403 19:16:40.288789  9040 net.cpp:148] Top shape: 24 528 4 4 (202752)
I0403 19:16:40.288805  9040 net.cpp:156] Memory required for data: 1207729440
I0403 19:16:40.288820  9040 layer_factory.hpp:77] Creating layer loss2/conv
I0403 19:16:40.288843  9040 net.cpp:91] Creating Layer loss2/conv
I0403 19:16:40.288862  9040 net.cpp:425] loss2/conv <- loss2/ave_pool
I0403 19:16:40.288882  9040 net.cpp:399] loss2/conv -> loss2/conv
I0403 19:16:40.290781  9040 net.cpp:141] Setting up loss2/conv
I0403 19:16:40.290812  9040 net.cpp:148] Top shape: 24 128 4 4 (49152)
I0403 19:16:40.290828  9040 net.cpp:156] Memory required for data: 1207926048
I0403 19:16:40.290848  9040 layer_factory.hpp:77] Creating layer loss2/relu_conv
I0403 19:16:40.290868  9040 net.cpp:91] Creating Layer loss2/relu_conv
I0403 19:16:40.290885  9040 net.cpp:425] loss2/relu_conv <- loss2/conv
I0403 19:16:40.290906  9040 net.cpp:386] loss2/relu_conv -> loss2/conv (in-place)
I0403 19:16:40.291198  9040 net.cpp:141] Setting up loss2/relu_conv
I0403 19:16:40.291225  9040 net.cpp:148] Top shape: 24 128 4 4 (49152)
I0403 19:16:40.291244  9040 net.cpp:156] Memory required for data: 1208122656
I0403 19:16:40.291261  9040 layer_factory.hpp:77] Creating layer loss2/fc
I0403 19:16:40.291281  9040 net.cpp:91] Creating Layer loss2/fc
I0403 19:16:40.291298  9040 net.cpp:425] loss2/fc <- loss2/conv
I0403 19:16:40.291321  9040 net.cpp:399] loss2/fc -> loss2/fc
I0403 19:16:40.309541  9040 net.cpp:141] Setting up loss2/fc
I0403 19:16:40.309604  9040 net.cpp:148] Top shape: 24 1024 (24576)
I0403 19:16:40.309622  9040 net.cpp:156] Memory required for data: 1208220960
I0403 19:16:40.309643  9040 layer_factory.hpp:77] Creating layer loss2/relu_fc
I0403 19:16:40.309666  9040 net.cpp:91] Creating Layer loss2/relu_fc
I0403 19:16:40.309685  9040 net.cpp:425] loss2/relu_fc <- loss2/fc
I0403 19:16:40.309705  9040 net.cpp:386] loss2/relu_fc -> loss2/fc (in-place)
I0403 19:16:40.310071  9040 net.cpp:141] Setting up loss2/relu_fc
I0403 19:16:40.310101  9040 net.cpp:148] Top shape: 24 1024 (24576)
I0403 19:16:40.310117  9040 net.cpp:156] Memory required for data: 1208319264
I0403 19:16:40.310133  9040 layer_factory.hpp:77] Creating layer loss2/drop_fc
I0403 19:16:40.310153  9040 net.cpp:91] Creating Layer loss2/drop_fc
I0403 19:16:40.310169  9040 net.cpp:425] loss2/drop_fc <- loss2/fc
I0403 19:16:40.310189  9040 net.cpp:386] loss2/drop_fc -> loss2/fc (in-place)
I0403 19:16:40.310248  9040 net.cpp:141] Setting up loss2/drop_fc
I0403 19:16:40.310272  9040 net.cpp:148] Top shape: 24 1024 (24576)
I0403 19:16:40.310288  9040 net.cpp:156] Memory required for data: 1208417568
I0403 19:16:40.310304  9040 layer_factory.hpp:77] Creating layer loss2/classifier_plantvillage
I0403 19:16:40.310327  9040 net.cpp:91] Creating Layer loss2/classifier_plantvillage
I0403 19:16:40.310345  9040 net.cpp:425] loss2/classifier_plantvillage <- loss2/fc
I0403 19:16:40.310364  9040 net.cpp:399] loss2/classifier_plantvillage -> loss2/classifier_plantvillage
I0403 19:16:40.310788  9040 net.cpp:141] Setting up loss2/classifier_plantvillage
I0403 19:16:40.310814  9040 net.cpp:148] Top shape: 24 38 (912)
I0403 19:16:40.310829  9040 net.cpp:156] Memory required for data: 1208421216
I0403 19:16:40.310868  9040 layer_factory.hpp:77] Creating layer loss2/classifier_plantvillage_loss2/classifier_plantvillage_0_split
I0403 19:16:40.310886  9040 net.cpp:91] Creating Layer loss2/classifier_plantvillage_loss2/classifier_plantvillage_0_split
I0403 19:16:40.310904  9040 net.cpp:425] loss2/classifier_plantvillage_loss2/classifier_plantvillage_0_split <- loss2/classifier_plantvillage
I0403 19:16:40.310926  9040 net.cpp:399] loss2/classifier_plantvillage_loss2/classifier_plantvillage_0_split -> loss2/classifier_plantvillage_loss2/classifier_plantvillage_0_split_0
I0403 19:16:40.310950  9040 net.cpp:399] loss2/classifier_plantvillage_loss2/classifier_plantvillage_0_split -> loss2/classifier_plantvillage_loss2/classifier_plantvillage_0_split_1
I0403 19:16:40.310971  9040 net.cpp:399] loss2/classifier_plantvillage_loss2/classifier_plantvillage_0_split -> loss2/classifier_plantvillage_loss2/classifier_plantvillage_0_split_2
I0403 19:16:40.311053  9040 net.cpp:141] Setting up loss2/classifier_plantvillage_loss2/classifier_plantvillage_0_split
I0403 19:16:40.311077  9040 net.cpp:148] Top shape: 24 38 (912)
I0403 19:16:40.311094  9040 net.cpp:148] Top shape: 24 38 (912)
I0403 19:16:40.311110  9040 net.cpp:148] Top shape: 24 38 (912)
I0403 19:16:40.311126  9040 net.cpp:156] Memory required for data: 1208432160
I0403 19:16:40.311141  9040 layer_factory.hpp:77] Creating layer inception_4e/1x1
I0403 19:16:40.311166  9040 net.cpp:91] Creating Layer inception_4e/1x1
I0403 19:16:40.311187  9040 net.cpp:425] inception_4e/1x1 <- inception_4d/output_inception_4d/output_0_split_1
I0403 19:16:40.311208  9040 net.cpp:399] inception_4e/1x1 -> inception_4e/1x1
I0403 19:16:40.313148  9040 net.cpp:141] Setting up inception_4e/1x1
I0403 19:16:40.313179  9040 net.cpp:148] Top shape: 24 256 14 14 (1204224)
I0403 19:16:40.313197  9040 net.cpp:156] Memory required for data: 1213249056
I0403 19:16:40.313218  9040 layer_factory.hpp:77] Creating layer inception_4e/relu_1x1
I0403 19:16:40.313246  9040 net.cpp:91] Creating Layer inception_4e/relu_1x1
I0403 19:16:40.313267  9040 net.cpp:425] inception_4e/relu_1x1 <- inception_4e/1x1
I0403 19:16:40.313287  9040 net.cpp:386] inception_4e/relu_1x1 -> inception_4e/1x1 (in-place)
I0403 19:16:40.313597  9040 net.cpp:141] Setting up inception_4e/relu_1x1
I0403 19:16:40.313626  9040 net.cpp:148] Top shape: 24 256 14 14 (1204224)
I0403 19:16:40.313642  9040 net.cpp:156] Memory required for data: 1218065952
I0403 19:16:40.313659  9040 layer_factory.hpp:77] Creating layer inception_4e/3x3_reduce
I0403 19:16:40.313683  9040 net.cpp:91] Creating Layer inception_4e/3x3_reduce
I0403 19:16:40.313701  9040 net.cpp:425] inception_4e/3x3_reduce <- inception_4d/output_inception_4d/output_0_split_2
I0403 19:16:40.313724  9040 net.cpp:399] inception_4e/3x3_reduce -> inception_4e/3x3_reduce
I0403 19:16:40.315961  9040 net.cpp:141] Setting up inception_4e/3x3_reduce
I0403 19:16:40.315994  9040 net.cpp:148] Top shape: 24 160 14 14 (752640)
I0403 19:16:40.316011  9040 net.cpp:156] Memory required for data: 1221076512
I0403 19:16:40.316031  9040 layer_factory.hpp:77] Creating layer inception_4e/relu_3x3_reduce
I0403 19:16:40.316051  9040 net.cpp:91] Creating Layer inception_4e/relu_3x3_reduce
I0403 19:16:40.316068  9040 net.cpp:425] inception_4e/relu_3x3_reduce <- inception_4e/3x3_reduce
I0403 19:16:40.316089  9040 net.cpp:386] inception_4e/relu_3x3_reduce -> inception_4e/3x3_reduce (in-place)
I0403 19:16:40.316288  9040 net.cpp:141] Setting up inception_4e/relu_3x3_reduce
I0403 19:16:40.316315  9040 net.cpp:148] Top shape: 24 160 14 14 (752640)
I0403 19:16:40.316330  9040 net.cpp:156] Memory required for data: 1224087072
I0403 19:16:40.316346  9040 layer_factory.hpp:77] Creating layer inception_4e/3x3
I0403 19:16:40.316370  9040 net.cpp:91] Creating Layer inception_4e/3x3
I0403 19:16:40.316388  9040 net.cpp:425] inception_4e/3x3 <- inception_4e/3x3_reduce
I0403 19:16:40.316411  9040 net.cpp:399] inception_4e/3x3 -> inception_4e/3x3
I0403 19:16:40.321578  9040 net.cpp:141] Setting up inception_4e/3x3
I0403 19:16:40.321624  9040 net.cpp:148] Top shape: 24 320 14 14 (1505280)
I0403 19:16:40.321642  9040 net.cpp:156] Memory required for data: 1230108192
I0403 19:16:40.321663  9040 layer_factory.hpp:77] Creating layer inception_4e/relu_3x3
I0403 19:16:40.321684  9040 net.cpp:91] Creating Layer inception_4e/relu_3x3
I0403 19:16:40.321702  9040 net.cpp:425] inception_4e/relu_3x3 <- inception_4e/3x3
I0403 19:16:40.321722  9040 net.cpp:386] inception_4e/relu_3x3 -> inception_4e/3x3 (in-place)
I0403 19:16:40.322039  9040 net.cpp:141] Setting up inception_4e/relu_3x3
I0403 19:16:40.322070  9040 net.cpp:148] Top shape: 24 320 14 14 (1505280)
I0403 19:16:40.322089  9040 net.cpp:156] Memory required for data: 1236129312
I0403 19:16:40.322106  9040 layer_factory.hpp:77] Creating layer inception_4e/5x5_reduce
I0403 19:16:40.322127  9040 net.cpp:91] Creating Layer inception_4e/5x5_reduce
I0403 19:16:40.322145  9040 net.cpp:425] inception_4e/5x5_reduce <- inception_4d/output_inception_4d/output_0_split_3
I0403 19:16:40.322170  9040 net.cpp:399] inception_4e/5x5_reduce -> inception_4e/5x5_reduce
I0403 19:16:40.323313  9040 net.cpp:141] Setting up inception_4e/5x5_reduce
I0403 19:16:40.323343  9040 net.cpp:148] Top shape: 24 32 14 14 (150528)
I0403 19:16:40.323360  9040 net.cpp:156] Memory required for data: 1236731424
I0403 19:16:40.323381  9040 layer_factory.hpp:77] Creating layer inception_4e/relu_5x5_reduce
I0403 19:16:40.323400  9040 net.cpp:91] Creating Layer inception_4e/relu_5x5_reduce
I0403 19:16:40.323421  9040 net.cpp:425] inception_4e/relu_5x5_reduce <- inception_4e/5x5_reduce
I0403 19:16:40.323441  9040 net.cpp:386] inception_4e/relu_5x5_reduce -> inception_4e/5x5_reduce (in-place)
I0403 19:16:40.323755  9040 net.cpp:141] Setting up inception_4e/relu_5x5_reduce
I0403 19:16:40.323782  9040 net.cpp:148] Top shape: 24 32 14 14 (150528)
I0403 19:16:40.323808  9040 net.cpp:156] Memory required for data: 1237333536
I0403 19:16:40.323825  9040 layer_factory.hpp:77] Creating layer inception_4e/5x5
I0403 19:16:40.323871  9040 net.cpp:91] Creating Layer inception_4e/5x5
I0403 19:16:40.323894  9040 net.cpp:425] inception_4e/5x5 <- inception_4e/5x5_reduce
I0403 19:16:40.323915  9040 net.cpp:399] inception_4e/5x5 -> inception_4e/5x5
I0403 19:16:40.325832  9040 net.cpp:141] Setting up inception_4e/5x5
I0403 19:16:40.325865  9040 net.cpp:148] Top shape: 24 128 14 14 (602112)
I0403 19:16:40.325881  9040 net.cpp:156] Memory required for data: 1239741984
I0403 19:16:40.325903  9040 layer_factory.hpp:77] Creating layer inception_4e/relu_5x5
I0403 19:16:40.325922  9040 net.cpp:91] Creating Layer inception_4e/relu_5x5
I0403 19:16:40.325942  9040 net.cpp:425] inception_4e/relu_5x5 <- inception_4e/5x5
I0403 19:16:40.325961  9040 net.cpp:386] inception_4e/relu_5x5 -> inception_4e/5x5 (in-place)
I0403 19:16:40.326169  9040 net.cpp:141] Setting up inception_4e/relu_5x5
I0403 19:16:40.326198  9040 net.cpp:148] Top shape: 24 128 14 14 (602112)
I0403 19:16:40.326215  9040 net.cpp:156] Memory required for data: 1242150432
I0403 19:16:40.326231  9040 layer_factory.hpp:77] Creating layer inception_4e/pool
I0403 19:16:40.326257  9040 net.cpp:91] Creating Layer inception_4e/pool
I0403 19:16:40.326277  9040 net.cpp:425] inception_4e/pool <- inception_4d/output_inception_4d/output_0_split_4
I0403 19:16:40.326298  9040 net.cpp:399] inception_4e/pool -> inception_4e/pool
I0403 19:16:40.326373  9040 net.cpp:141] Setting up inception_4e/pool
I0403 19:16:40.326400  9040 net.cpp:148] Top shape: 24 528 14 14 (2483712)
I0403 19:16:40.326416  9040 net.cpp:156] Memory required for data: 1252085280
I0403 19:16:40.326432  9040 layer_factory.hpp:77] Creating layer inception_4e/pool_proj
I0403 19:16:40.326457  9040 net.cpp:91] Creating Layer inception_4e/pool_proj
I0403 19:16:40.326478  9040 net.cpp:425] inception_4e/pool_proj <- inception_4e/pool
I0403 19:16:40.326498  9040 net.cpp:399] inception_4e/pool_proj -> inception_4e/pool_proj
I0403 19:16:40.328066  9040 net.cpp:141] Setting up inception_4e/pool_proj
I0403 19:16:40.328099  9040 net.cpp:148] Top shape: 24 128 14 14 (602112)
I0403 19:16:40.328130  9040 net.cpp:156] Memory required for data: 1254493728
I0403 19:16:40.328150  9040 layer_factory.hpp:77] Creating layer inception_4e/relu_pool_proj
I0403 19:16:40.328169  9040 net.cpp:91] Creating Layer inception_4e/relu_pool_proj
I0403 19:16:40.328189  9040 net.cpp:425] inception_4e/relu_pool_proj <- inception_4e/pool_proj
I0403 19:16:40.328210  9040 net.cpp:386] inception_4e/relu_pool_proj -> inception_4e/pool_proj (in-place)
I0403 19:16:40.328521  9040 net.cpp:141] Setting up inception_4e/relu_pool_proj
I0403 19:16:40.328549  9040 net.cpp:148] Top shape: 24 128 14 14 (602112)
I0403 19:16:40.328567  9040 net.cpp:156] Memory required for data: 1256902176
I0403 19:16:40.328582  9040 layer_factory.hpp:77] Creating layer inception_4e/output
I0403 19:16:40.328601  9040 net.cpp:91] Creating Layer inception_4e/output
I0403 19:16:40.328619  9040 net.cpp:425] inception_4e/output <- inception_4e/1x1
I0403 19:16:40.328635  9040 net.cpp:425] inception_4e/output <- inception_4e/3x3
I0403 19:16:40.328651  9040 net.cpp:425] inception_4e/output <- inception_4e/5x5
I0403 19:16:40.328668  9040 net.cpp:425] inception_4e/output <- inception_4e/pool_proj
I0403 19:16:40.328685  9040 net.cpp:399] inception_4e/output -> inception_4e/output
I0403 19:16:40.328739  9040 net.cpp:141] Setting up inception_4e/output
I0403 19:16:40.328764  9040 net.cpp:148] Top shape: 24 832 14 14 (3913728)
I0403 19:16:40.328779  9040 net.cpp:156] Memory required for data: 1272557088
I0403 19:16:40.328794  9040 layer_factory.hpp:77] Creating layer pool4/3x3_s2
I0403 19:16:40.328816  9040 net.cpp:91] Creating Layer pool4/3x3_s2
I0403 19:16:40.328835  9040 net.cpp:425] pool4/3x3_s2 <- inception_4e/output
I0403 19:16:40.328855  9040 net.cpp:399] pool4/3x3_s2 -> pool4/3x3_s2
I0403 19:16:40.328927  9040 net.cpp:141] Setting up pool4/3x3_s2
I0403 19:16:40.328951  9040 net.cpp:148] Top shape: 24 832 7 7 (978432)
I0403 19:16:40.328966  9040 net.cpp:156] Memory required for data: 1276470816
I0403 19:16:40.328981  9040 layer_factory.hpp:77] Creating layer pool4/3x3_s2_pool4/3x3_s2_0_split
I0403 19:16:40.328999  9040 net.cpp:91] Creating Layer pool4/3x3_s2_pool4/3x3_s2_0_split
I0403 19:16:40.329016  9040 net.cpp:425] pool4/3x3_s2_pool4/3x3_s2_0_split <- pool4/3x3_s2
I0403 19:16:40.329037  9040 net.cpp:399] pool4/3x3_s2_pool4/3x3_s2_0_split -> pool4/3x3_s2_pool4/3x3_s2_0_split_0
I0403 19:16:40.329059  9040 net.cpp:399] pool4/3x3_s2_pool4/3x3_s2_0_split -> pool4/3x3_s2_pool4/3x3_s2_0_split_1
I0403 19:16:40.329080  9040 net.cpp:399] pool4/3x3_s2_pool4/3x3_s2_0_split -> pool4/3x3_s2_pool4/3x3_s2_0_split_2
I0403 19:16:40.329102  9040 net.cpp:399] pool4/3x3_s2_pool4/3x3_s2_0_split -> pool4/3x3_s2_pool4/3x3_s2_0_split_3
I0403 19:16:40.329195  9040 net.cpp:141] Setting up pool4/3x3_s2_pool4/3x3_s2_0_split
I0403 19:16:40.329221  9040 net.cpp:148] Top shape: 24 832 7 7 (978432)
I0403 19:16:40.329242  9040 net.cpp:148] Top shape: 24 832 7 7 (978432)
I0403 19:16:40.329262  9040 net.cpp:148] Top shape: 24 832 7 7 (978432)
I0403 19:16:40.329277  9040 net.cpp:148] Top shape: 24 832 7 7 (978432)
I0403 19:16:40.329293  9040 net.cpp:156] Memory required for data: 1292125728
I0403 19:16:40.329309  9040 layer_factory.hpp:77] Creating layer inception_5a/1x1
I0403 19:16:40.329334  9040 net.cpp:91] Creating Layer inception_5a/1x1
I0403 19:16:40.329352  9040 net.cpp:425] inception_5a/1x1 <- pool4/3x3_s2_pool4/3x3_s2_0_split_0
I0403 19:16:40.329372  9040 net.cpp:399] inception_5a/1x1 -> inception_5a/1x1
I0403 19:16:40.332327  9040 net.cpp:141] Setting up inception_5a/1x1
I0403 19:16:40.332360  9040 net.cpp:148] Top shape: 24 256 7 7 (301056)
I0403 19:16:40.332377  9040 net.cpp:156] Memory required for data: 1293329952
I0403 19:16:40.332396  9040 layer_factory.hpp:77] Creating layer inception_5a/relu_1x1
I0403 19:16:40.332415  9040 net.cpp:91] Creating Layer inception_5a/relu_1x1
I0403 19:16:40.332433  9040 net.cpp:425] inception_5a/relu_1x1 <- inception_5a/1x1
I0403 19:16:40.332454  9040 net.cpp:386] inception_5a/relu_1x1 -> inception_5a/1x1 (in-place)
I0403 19:16:40.332782  9040 net.cpp:141] Setting up inception_5a/relu_1x1
I0403 19:16:40.332810  9040 net.cpp:148] Top shape: 24 256 7 7 (301056)
I0403 19:16:40.332828  9040 net.cpp:156] Memory required for data: 1294534176
I0403 19:16:40.332844  9040 layer_factory.hpp:77] Creating layer inception_5a/3x3_reduce
I0403 19:16:40.332867  9040 net.cpp:91] Creating Layer inception_5a/3x3_reduce
I0403 19:16:40.332886  9040 net.cpp:425] inception_5a/3x3_reduce <- pool4/3x3_s2_pool4/3x3_s2_0_split_1
I0403 19:16:40.332909  9040 net.cpp:399] inception_5a/3x3_reduce -> inception_5a/3x3_reduce
I0403 19:16:40.335455  9040 net.cpp:141] Setting up inception_5a/3x3_reduce
I0403 19:16:40.335500  9040 net.cpp:148] Top shape: 24 160 7 7 (188160)
I0403 19:16:40.335517  9040 net.cpp:156] Memory required for data: 1295286816
I0403 19:16:40.335537  9040 layer_factory.hpp:77] Creating layer inception_5a/relu_3x3_reduce
I0403 19:16:40.335559  9040 net.cpp:91] Creating Layer inception_5a/relu_3x3_reduce
I0403 19:16:40.335578  9040 net.cpp:425] inception_5a/relu_3x3_reduce <- inception_5a/3x3_reduce
I0403 19:16:40.335597  9040 net.cpp:386] inception_5a/relu_3x3_reduce -> inception_5a/3x3_reduce (in-place)
I0403 19:16:40.335796  9040 net.cpp:141] Setting up inception_5a/relu_3x3_reduce
I0403 19:16:40.335824  9040 net.cpp:148] Top shape: 24 160 7 7 (188160)
I0403 19:16:40.335839  9040 net.cpp:156] Memory required for data: 1296039456
I0403 19:16:40.335855  9040 layer_factory.hpp:77] Creating layer inception_5a/3x3
I0403 19:16:40.335880  9040 net.cpp:91] Creating Layer inception_5a/3x3
I0403 19:16:40.335898  9040 net.cpp:425] inception_5a/3x3 <- inception_5a/3x3_reduce
I0403 19:16:40.335921  9040 net.cpp:399] inception_5a/3x3 -> inception_5a/3x3
I0403 19:16:40.341015  9040 net.cpp:141] Setting up inception_5a/3x3
I0403 19:16:40.341050  9040 net.cpp:148] Top shape: 24 320 7 7 (376320)
I0403 19:16:40.341068  9040 net.cpp:156] Memory required for data: 1297544736
I0403 19:16:40.341089  9040 layer_factory.hpp:77] Creating layer inception_5a/relu_3x3
I0403 19:16:40.341109  9040 net.cpp:91] Creating Layer inception_5a/relu_3x3
I0403 19:16:40.341125  9040 net.cpp:425] inception_5a/relu_3x3 <- inception_5a/3x3
I0403 19:16:40.341145  9040 net.cpp:386] inception_5a/relu_3x3 -> inception_5a/3x3 (in-place)
I0403 19:16:40.341449  9040 net.cpp:141] Setting up inception_5a/relu_3x3
I0403 19:16:40.341478  9040 net.cpp:148] Top shape: 24 320 7 7 (376320)
I0403 19:16:40.341495  9040 net.cpp:156] Memory required for data: 1299050016
I0403 19:16:40.341511  9040 layer_factory.hpp:77] Creating layer inception_5a/5x5_reduce
I0403 19:16:40.341534  9040 net.cpp:91] Creating Layer inception_5a/5x5_reduce
I0403 19:16:40.341553  9040 net.cpp:425] inception_5a/5x5_reduce <- pool4/3x3_s2_pool4/3x3_s2_0_split_2
I0403 19:16:40.341572  9040 net.cpp:399] inception_5a/5x5_reduce -> inception_5a/5x5_reduce
I0403 19:16:40.342766  9040 net.cpp:141] Setting up inception_5a/5x5_reduce
I0403 19:16:40.342797  9040 net.cpp:148] Top shape: 24 32 7 7 (37632)
I0403 19:16:40.342815  9040 net.cpp:156] Memory required for data: 1299200544
I0403 19:16:40.342835  9040 layer_factory.hpp:77] Creating layer inception_5a/relu_5x5_reduce
I0403 19:16:40.342854  9040 net.cpp:91] Creating Layer inception_5a/relu_5x5_reduce
I0403 19:16:40.342871  9040 net.cpp:425] inception_5a/relu_5x5_reduce <- inception_5a/5x5_reduce
I0403 19:16:40.342891  9040 net.cpp:386] inception_5a/relu_5x5_reduce -> inception_5a/5x5_reduce (in-place)
I0403 19:16:40.343197  9040 net.cpp:141] Setting up inception_5a/relu_5x5_reduce
I0403 19:16:40.343225  9040 net.cpp:148] Top shape: 24 32 7 7 (37632)
I0403 19:16:40.343243  9040 net.cpp:156] Memory required for data: 1299351072
I0403 19:16:40.343260  9040 layer_factory.hpp:77] Creating layer inception_5a/5x5
I0403 19:16:40.343282  9040 net.cpp:91] Creating Layer inception_5a/5x5
I0403 19:16:40.343300  9040 net.cpp:425] inception_5a/5x5 <- inception_5a/5x5_reduce
I0403 19:16:40.343322  9040 net.cpp:399] inception_5a/5x5 -> inception_5a/5x5
I0403 19:16:40.345084  9040 net.cpp:141] Setting up inception_5a/5x5
I0403 19:16:40.345137  9040 net.cpp:148] Top shape: 24 128 7 7 (150528)
I0403 19:16:40.345157  9040 net.cpp:156] Memory required for data: 1299953184
I0403 19:16:40.345177  9040 layer_factory.hpp:77] Creating layer inception_5a/relu_5x5
I0403 19:16:40.345197  9040 net.cpp:91] Creating Layer inception_5a/relu_5x5
I0403 19:16:40.345216  9040 net.cpp:425] inception_5a/relu_5x5 <- inception_5a/5x5
I0403 19:16:40.345237  9040 net.cpp:386] inception_5a/relu_5x5 -> inception_5a/5x5 (in-place)
I0403 19:16:40.345448  9040 net.cpp:141] Setting up inception_5a/relu_5x5
I0403 19:16:40.345474  9040 net.cpp:148] Top shape: 24 128 7 7 (150528)
I0403 19:16:40.345491  9040 net.cpp:156] Memory required for data: 1300555296
I0403 19:16:40.345507  9040 layer_factory.hpp:77] Creating layer inception_5a/pool
I0403 19:16:40.345527  9040 net.cpp:91] Creating Layer inception_5a/pool
I0403 19:16:40.345546  9040 net.cpp:425] inception_5a/pool <- pool4/3x3_s2_pool4/3x3_s2_0_split_3
I0403 19:16:40.345567  9040 net.cpp:399] inception_5a/pool -> inception_5a/pool
I0403 19:16:40.345641  9040 net.cpp:141] Setting up inception_5a/pool
I0403 19:16:40.345667  9040 net.cpp:148] Top shape: 24 832 7 7 (978432)
I0403 19:16:40.345684  9040 net.cpp:156] Memory required for data: 1304469024
I0403 19:16:40.345700  9040 layer_factory.hpp:77] Creating layer inception_5a/pool_proj
I0403 19:16:40.345724  9040 net.cpp:91] Creating Layer inception_5a/pool_proj
I0403 19:16:40.345743  9040 net.cpp:425] inception_5a/pool_proj <- inception_5a/pool
I0403 19:16:40.345763  9040 net.cpp:399] inception_5a/pool_proj -> inception_5a/pool_proj
I0403 19:16:40.348107  9040 net.cpp:141] Setting up inception_5a/pool_proj
I0403 19:16:40.348141  9040 net.cpp:148] Top shape: 24 128 7 7 (150528)
I0403 19:16:40.348157  9040 net.cpp:156] Memory required for data: 1305071136
I0403 19:16:40.348178  9040 layer_factory.hpp:77] Creating layer inception_5a/relu_pool_proj
I0403 19:16:40.348196  9040 net.cpp:91] Creating Layer inception_5a/relu_pool_proj
I0403 19:16:40.348213  9040 net.cpp:425] inception_5a/relu_pool_proj <- inception_5a/pool_proj
I0403 19:16:40.348230  9040 net.cpp:386] inception_5a/relu_pool_proj -> inception_5a/pool_proj (in-place)
I0403 19:16:40.348537  9040 net.cpp:141] Setting up inception_5a/relu_pool_proj
I0403 19:16:40.348567  9040 net.cpp:148] Top shape: 24 128 7 7 (150528)
I0403 19:16:40.348582  9040 net.cpp:156] Memory required for data: 1305673248
I0403 19:16:40.348598  9040 layer_factory.hpp:77] Creating layer inception_5a/output
I0403 19:16:40.348615  9040 net.cpp:91] Creating Layer inception_5a/output
I0403 19:16:40.348631  9040 net.cpp:425] inception_5a/output <- inception_5a/1x1
I0403 19:16:40.348649  9040 net.cpp:425] inception_5a/output <- inception_5a/3x3
I0403 19:16:40.348664  9040 net.cpp:425] inception_5a/output <- inception_5a/5x5
I0403 19:16:40.348680  9040 net.cpp:425] inception_5a/output <- inception_5a/pool_proj
I0403 19:16:40.348697  9040 net.cpp:399] inception_5a/output -> inception_5a/output
I0403 19:16:40.348750  9040 net.cpp:141] Setting up inception_5a/output
I0403 19:16:40.348773  9040 net.cpp:148] Top shape: 24 832 7 7 (978432)
I0403 19:16:40.348788  9040 net.cpp:156] Memory required for data: 1309586976
I0403 19:16:40.348803  9040 layer_factory.hpp:77] Creating layer inception_5a/output_inception_5a/output_0_split
I0403 19:16:40.348822  9040 net.cpp:91] Creating Layer inception_5a/output_inception_5a/output_0_split
I0403 19:16:40.348839  9040 net.cpp:425] inception_5a/output_inception_5a/output_0_split <- inception_5a/output
I0403 19:16:40.348857  9040 net.cpp:399] inception_5a/output_inception_5a/output_0_split -> inception_5a/output_inception_5a/output_0_split_0
I0403 19:16:40.348880  9040 net.cpp:399] inception_5a/output_inception_5a/output_0_split -> inception_5a/output_inception_5a/output_0_split_1
I0403 19:16:40.348901  9040 net.cpp:399] inception_5a/output_inception_5a/output_0_split -> inception_5a/output_inception_5a/output_0_split_2
I0403 19:16:40.348922  9040 net.cpp:399] inception_5a/output_inception_5a/output_0_split -> inception_5a/output_inception_5a/output_0_split_3
I0403 19:16:40.349035  9040 net.cpp:141] Setting up inception_5a/output_inception_5a/output_0_split
I0403 19:16:40.349058  9040 net.cpp:148] Top shape: 24 832 7 7 (978432)
I0403 19:16:40.349076  9040 net.cpp:148] Top shape: 24 832 7 7 (978432)
I0403 19:16:40.349092  9040 net.cpp:148] Top shape: 24 832 7 7 (978432)
I0403 19:16:40.349108  9040 net.cpp:148] Top shape: 24 832 7 7 (978432)
I0403 19:16:40.349123  9040 net.cpp:156] Memory required for data: 1325241888
I0403 19:16:40.349138  9040 layer_factory.hpp:77] Creating layer inception_5b/1x1
I0403 19:16:40.349160  9040 net.cpp:91] Creating Layer inception_5b/1x1
I0403 19:16:40.349179  9040 net.cpp:425] inception_5b/1x1 <- inception_5a/output_inception_5a/output_0_split_0
I0403 19:16:40.349200  9040 net.cpp:399] inception_5b/1x1 -> inception_5b/1x1
I0403 19:16:40.353052  9040 net.cpp:141] Setting up inception_5b/1x1
I0403 19:16:40.353085  9040 net.cpp:148] Top shape: 24 384 7 7 (451584)
I0403 19:16:40.353102  9040 net.cpp:156] Memory required for data: 1327048224
I0403 19:16:40.353121  9040 layer_factory.hpp:77] Creating layer inception_5b/relu_1x1
I0403 19:16:40.353142  9040 net.cpp:91] Creating Layer inception_5b/relu_1x1
I0403 19:16:40.353159  9040 net.cpp:425] inception_5b/relu_1x1 <- inception_5b/1x1
I0403 19:16:40.353178  9040 net.cpp:386] inception_5b/relu_1x1 -> inception_5b/1x1 (in-place)
I0403 19:16:40.353497  9040 net.cpp:141] Setting up inception_5b/relu_1x1
I0403 19:16:40.353529  9040 net.cpp:148] Top shape: 24 384 7 7 (451584)
I0403 19:16:40.353545  9040 net.cpp:156] Memory required for data: 1328854560
I0403 19:16:40.353560  9040 layer_factory.hpp:77] Creating layer inception_5b/3x3_reduce
I0403 19:16:40.353586  9040 net.cpp:91] Creating Layer inception_5b/3x3_reduce
I0403 19:16:40.353605  9040 net.cpp:425] inception_5b/3x3_reduce <- inception_5a/output_inception_5a/output_0_split_1
I0403 19:16:40.353626  9040 net.cpp:399] inception_5b/3x3_reduce -> inception_5b/3x3_reduce
I0403 19:16:40.356328  9040 net.cpp:141] Setting up inception_5b/3x3_reduce
I0403 19:16:40.356362  9040 net.cpp:148] Top shape: 24 192 7 7 (225792)
I0403 19:16:40.356379  9040 net.cpp:156] Memory required for data: 1329757728
I0403 19:16:40.356400  9040 layer_factory.hpp:77] Creating layer inception_5b/relu_3x3_reduce
I0403 19:16:40.356418  9040 net.cpp:91] Creating Layer inception_5b/relu_3x3_reduce
I0403 19:16:40.356436  9040 net.cpp:425] inception_5b/relu_3x3_reduce <- inception_5b/3x3_reduce
I0403 19:16:40.356454  9040 net.cpp:386] inception_5b/relu_3x3_reduce -> inception_5b/3x3_reduce (in-place)
I0403 19:16:40.356648  9040 net.cpp:141] Setting up inception_5b/relu_3x3_reduce
I0403 19:16:40.356675  9040 net.cpp:148] Top shape: 24 192 7 7 (225792)
I0403 19:16:40.356690  9040 net.cpp:156] Memory required for data: 1330660896
I0403 19:16:40.356706  9040 layer_factory.hpp:77] Creating layer inception_5b/3x3
I0403 19:16:40.356729  9040 net.cpp:91] Creating Layer inception_5b/3x3
I0403 19:16:40.356747  9040 net.cpp:425] inception_5b/3x3 <- inception_5b/3x3_reduce
I0403 19:16:40.356770  9040 net.cpp:399] inception_5b/3x3 -> inception_5b/3x3
I0403 19:16:40.363489  9040 net.cpp:141] Setting up inception_5b/3x3
I0403 19:16:40.363523  9040 net.cpp:148] Top shape: 24 384 7 7 (451584)
I0403 19:16:40.363539  9040 net.cpp:156] Memory required for data: 1332467232
I0403 19:16:40.363559  9040 layer_factory.hpp:77] Creating layer inception_5b/relu_3x3
I0403 19:16:40.363579  9040 net.cpp:91] Creating Layer inception_5b/relu_3x3
I0403 19:16:40.363595  9040 net.cpp:425] inception_5b/relu_3x3 <- inception_5b/3x3
I0403 19:16:40.363612  9040 net.cpp:386] inception_5b/relu_3x3 -> inception_5b/3x3 (in-place)
I0403 19:16:40.363917  9040 net.cpp:141] Setting up inception_5b/relu_3x3
I0403 19:16:40.363946  9040 net.cpp:148] Top shape: 24 384 7 7 (451584)
I0403 19:16:40.363962  9040 net.cpp:156] Memory required for data: 1334273568
I0403 19:16:40.363978  9040 layer_factory.hpp:77] Creating layer inception_5b/5x5_reduce
I0403 19:16:40.364015  9040 net.cpp:91] Creating Layer inception_5b/5x5_reduce
I0403 19:16:40.364035  9040 net.cpp:425] inception_5b/5x5_reduce <- inception_5a/output_inception_5a/output_0_split_2
I0403 19:16:40.364055  9040 net.cpp:399] inception_5b/5x5_reduce -> inception_5b/5x5_reduce
I0403 19:16:40.365348  9040 net.cpp:141] Setting up inception_5b/5x5_reduce
I0403 19:16:40.365378  9040 net.cpp:148] Top shape: 24 48 7 7 (56448)
I0403 19:16:40.365394  9040 net.cpp:156] Memory required for data: 1334499360
I0403 19:16:40.365417  9040 layer_factory.hpp:77] Creating layer inception_5b/relu_5x5_reduce
I0403 19:16:40.365435  9040 net.cpp:91] Creating Layer inception_5b/relu_5x5_reduce
I0403 19:16:40.365453  9040 net.cpp:425] inception_5b/relu_5x5_reduce <- inception_5b/5x5_reduce
I0403 19:16:40.365470  9040 net.cpp:386] inception_5b/relu_5x5_reduce -> inception_5b/5x5_reduce (in-place)
I0403 19:16:40.365847  9040 net.cpp:141] Setting up inception_5b/relu_5x5_reduce
I0403 19:16:40.365874  9040 net.cpp:148] Top shape: 24 48 7 7 (56448)
I0403 19:16:40.365890  9040 net.cpp:156] Memory required for data: 1334725152
I0403 19:16:40.365905  9040 layer_factory.hpp:77] Creating layer inception_5b/5x5
I0403 19:16:40.365926  9040 net.cpp:91] Creating Layer inception_5b/5x5
I0403 19:16:40.365943  9040 net.cpp:425] inception_5b/5x5 <- inception_5b/5x5_reduce
I0403 19:16:40.365962  9040 net.cpp:399] inception_5b/5x5 -> inception_5b/5x5
I0403 19:16:40.368080  9040 net.cpp:141] Setting up inception_5b/5x5
I0403 19:16:40.368109  9040 net.cpp:148] Top shape: 24 128 7 7 (150528)
I0403 19:16:40.368127  9040 net.cpp:156] Memory required for data: 1335327264
I0403 19:16:40.368145  9040 layer_factory.hpp:77] Creating layer inception_5b/relu_5x5
I0403 19:16:40.368165  9040 net.cpp:91] Creating Layer inception_5b/relu_5x5
I0403 19:16:40.368185  9040 net.cpp:425] inception_5b/relu_5x5 <- inception_5b/5x5
I0403 19:16:40.368204  9040 net.cpp:386] inception_5b/relu_5x5 -> inception_5b/5x5 (in-place)
I0403 19:16:40.368408  9040 net.cpp:141] Setting up inception_5b/relu_5x5
I0403 19:16:40.368433  9040 net.cpp:148] Top shape: 24 128 7 7 (150528)
I0403 19:16:40.368448  9040 net.cpp:156] Memory required for data: 1335929376
I0403 19:16:40.368463  9040 layer_factory.hpp:77] Creating layer inception_5b/pool
I0403 19:16:40.368484  9040 net.cpp:91] Creating Layer inception_5b/pool
I0403 19:16:40.368502  9040 net.cpp:425] inception_5b/pool <- inception_5a/output_inception_5a/output_0_split_3
I0403 19:16:40.368521  9040 net.cpp:399] inception_5b/pool -> inception_5b/pool
I0403 19:16:40.368595  9040 net.cpp:141] Setting up inception_5b/pool
I0403 19:16:40.368619  9040 net.cpp:148] Top shape: 24 832 7 7 (978432)
I0403 19:16:40.368634  9040 net.cpp:156] Memory required for data: 1339843104
I0403 19:16:40.368649  9040 layer_factory.hpp:77] Creating layer inception_5b/pool_proj
I0403 19:16:40.368671  9040 net.cpp:91] Creating Layer inception_5b/pool_proj
I0403 19:16:40.368690  9040 net.cpp:425] inception_5b/pool_proj <- inception_5b/pool
I0403 19:16:40.368711  9040 net.cpp:399] inception_5b/pool_proj -> inception_5b/pool_proj
I0403 19:16:40.371054  9040 net.cpp:141] Setting up inception_5b/pool_proj
I0403 19:16:40.371088  9040 net.cpp:148] Top shape: 24 128 7 7 (150528)
I0403 19:16:40.371106  9040 net.cpp:156] Memory required for data: 1340445216
I0403 19:16:40.371126  9040 layer_factory.hpp:77] Creating layer inception_5b/relu_pool_proj
I0403 19:16:40.371145  9040 net.cpp:91] Creating Layer inception_5b/relu_pool_proj
I0403 19:16:40.371163  9040 net.cpp:425] inception_5b/relu_pool_proj <- inception_5b/pool_proj
I0403 19:16:40.371186  9040 net.cpp:386] inception_5b/relu_pool_proj -> inception_5b/pool_proj (in-place)
I0403 19:16:40.371495  9040 net.cpp:141] Setting up inception_5b/relu_pool_proj
I0403 19:16:40.371523  9040 net.cpp:148] Top shape: 24 128 7 7 (150528)
I0403 19:16:40.371539  9040 net.cpp:156] Memory required for data: 1341047328
I0403 19:16:40.371554  9040 layer_factory.hpp:77] Creating layer inception_5b/output
I0403 19:16:40.371572  9040 net.cpp:91] Creating Layer inception_5b/output
I0403 19:16:40.371603  9040 net.cpp:425] inception_5b/output <- inception_5b/1x1
I0403 19:16:40.371623  9040 net.cpp:425] inception_5b/output <- inception_5b/3x3
I0403 19:16:40.371639  9040 net.cpp:425] inception_5b/output <- inception_5b/5x5
I0403 19:16:40.371654  9040 net.cpp:425] inception_5b/output <- inception_5b/pool_proj
I0403 19:16:40.371672  9040 net.cpp:399] inception_5b/output -> inception_5b/output
I0403 19:16:40.371726  9040 net.cpp:141] Setting up inception_5b/output
I0403 19:16:40.371750  9040 net.cpp:148] Top shape: 24 1024 7 7 (1204224)
I0403 19:16:40.371765  9040 net.cpp:156] Memory required for data: 1345864224
I0403 19:16:40.371781  9040 layer_factory.hpp:77] Creating layer pool5/7x7_s1
I0403 19:16:40.371803  9040 net.cpp:91] Creating Layer pool5/7x7_s1
I0403 19:16:40.371819  9040 net.cpp:425] pool5/7x7_s1 <- inception_5b/output
I0403 19:16:40.371839  9040 net.cpp:399] pool5/7x7_s1 -> pool5/7x7_s1
I0403 19:16:40.372059  9040 net.cpp:141] Setting up pool5/7x7_s1
I0403 19:16:40.372087  9040 net.cpp:148] Top shape: 24 1024 1 1 (24576)
I0403 19:16:40.372102  9040 net.cpp:156] Memory required for data: 1345962528
I0403 19:16:40.372118  9040 layer_factory.hpp:77] Creating layer pool5/drop_7x7_s1
I0403 19:16:40.372136  9040 net.cpp:91] Creating Layer pool5/drop_7x7_s1
I0403 19:16:40.372153  9040 net.cpp:425] pool5/drop_7x7_s1 <- pool5/7x7_s1
I0403 19:16:40.372172  9040 net.cpp:386] pool5/drop_7x7_s1 -> pool5/7x7_s1 (in-place)
I0403 19:16:40.372225  9040 net.cpp:141] Setting up pool5/drop_7x7_s1
I0403 19:16:40.372258  9040 net.cpp:148] Top shape: 24 1024 1 1 (24576)
I0403 19:16:40.372275  9040 net.cpp:156] Memory required for data: 1346060832
I0403 19:16:40.372290  9040 layer_factory.hpp:77] Creating layer loss3/classifier_plantvillage
I0403 19:16:40.372313  9040 net.cpp:91] Creating Layer loss3/classifier_plantvillage
I0403 19:16:40.372330  9040 net.cpp:425] loss3/classifier_plantvillage <- pool5/7x7_s1
I0403 19:16:40.372351  9040 net.cpp:399] loss3/classifier_plantvillage -> loss3/classifier_plantvillage
I0403 19:16:40.372781  9040 net.cpp:141] Setting up loss3/classifier_plantvillage
I0403 19:16:40.372804  9040 net.cpp:148] Top shape: 24 38 (912)
I0403 19:16:40.372819  9040 net.cpp:156] Memory required for data: 1346064480
I0403 19:16:40.372838  9040 layer_factory.hpp:77] Creating layer loss3/classifier_plantvillage_loss3/classifier_plantvillage_0_split
I0403 19:16:40.372859  9040 net.cpp:91] Creating Layer loss3/classifier_plantvillage_loss3/classifier_plantvillage_0_split
I0403 19:16:40.372875  9040 net.cpp:425] loss3/classifier_plantvillage_loss3/classifier_plantvillage_0_split <- loss3/classifier_plantvillage
I0403 19:16:40.372894  9040 net.cpp:399] loss3/classifier_plantvillage_loss3/classifier_plantvillage_0_split -> loss3/classifier_plantvillage_loss3/classifier_plantvillage_0_split_0
I0403 19:16:40.372913  9040 net.cpp:399] loss3/classifier_plantvillage_loss3/classifier_plantvillage_0_split -> loss3/classifier_plantvillage_loss3/classifier_plantvillage_0_split_1
I0403 19:16:40.372934  9040 net.cpp:399] loss3/classifier_plantvillage_loss3/classifier_plantvillage_0_split -> loss3/classifier_plantvillage_loss3/classifier_plantvillage_0_split_2
I0403 19:16:40.372956  9040 net.cpp:399] loss3/classifier_plantvillage_loss3/classifier_plantvillage_0_split -> loss3/classifier_plantvillage_loss3/classifier_plantvillage_0_split_3
I0403 19:16:40.373056  9040 net.cpp:141] Setting up loss3/classifier_plantvillage_loss3/classifier_plantvillage_0_split
I0403 19:16:40.373080  9040 net.cpp:148] Top shape: 24 38 (912)
I0403 19:16:40.373096  9040 net.cpp:148] Top shape: 24 38 (912)
I0403 19:16:40.373112  9040 net.cpp:148] Top shape: 24 38 (912)
I0403 19:16:40.373127  9040 net.cpp:148] Top shape: 24 38 (912)
I0403 19:16:40.373142  9040 net.cpp:156] Memory required for data: 1346079072
I0403 19:16:40.373157  9040 layer_factory.hpp:77] Creating layer loss1/loss
I0403 19:16:40.373179  9040 net.cpp:91] Creating Layer loss1/loss
I0403 19:16:40.373198  9040 net.cpp:425] loss1/loss <- loss1/classifier_plantvillage_loss1/classifier_plantvillage_0_split_0
I0403 19:16:40.373229  9040 net.cpp:425] loss1/loss <- label_data_1_split_0
…
