…
I0403 20:09:14.439983 10704 net.cpp:313] The NetState phase (1) differed from the phase (0) specified by a rule in layer data
I0403 20:09:14.442663 10704 net.cpp:49] Initializing net from parameters: 
state {
  phase: TEST
}
layer {
  name: "data"
  type: "Data"
  top: "data"
  top: "label"
  include {
    phase: TEST
  }
  transform_param {
    mirror: false
    crop_size: 224
    mean_file: "/home/mohanty/data/final_dataset/lmdb/color-50-50/mean.binaryproto"
  }
  data_param {
    source: "/home/mohanty/data/final_dataset/lmdb/color-50-50/test_db"
    batch_size: 24
    backend: LMDB
  }
}
layer {
  name: "conv1/7x7_s2"
  type: "Convolution"
  bottom: "data"
  top: "conv1/7x7_s2"
  param {
    lr_mult: 1
    decay_mult: 1
  }
  param {
    lr_mult: 2
    decay_mult: 0
  }
  convolution_param {
    num_output: 64
    pad: 3
    kernel_size: 7
    stride: 2
    weight_filler {
      type: "xavier"
      std: 0.1
    }
    bias_filler {
      type: "constant"
      value: 0.2
    }
  }
}
layer {
  name: "conv1/relu_7x7"
  type: "ReLU"
  bottom: "conv1/7x7_s2"
  top: "conv1/7x7_s2"
}
layer {
  name: "pool1/3x3_s2"
  type: "Pooling"
  bottom: "conv1/7x7_s2"
  top: "pool1/3x3_s2"
  pooling_param {
    pool: MAX
    kernel_size: 3
    stride: 2
  }
}
layer {
  name: "pool1/norm1"
  type: "LRN"
  bottom: "pool1/3x3_s2"
  top: "pool1/norm1"
  lrn_param {
    local_size: 5
    alpha: 0.0001
    beta: 0.75
  }
}
layer {
  name: "conv2/3x3_reduce"
  type: "Convolution"
  bottom: "pool1/norm1"
  top: "conv2/3x3_reduce"
  param {
    lr_mult: 1
    decay_mult: 1
  }
  param {
    lr_mult: 2
    decay_mult: 0
  }
  convolution_param {
    num_output: 64
    kernel_size: 1
    weight_filler {
      type: "xavier"
      std: 0.1
    }
    bias_filler {
      type: "constant"
      value: 0.2
    }
  }
}
layer {
  name: "conv2/relu_3x3_reduce"
  type: "ReLU"
  bottom: "conv2/3x3_reduce"
  top: "conv2/3x3_reduce"
}
layer {
  name: "conv2/3x3"
  type: "Convolution"
  bottom: "conv2/3x3_reduce"
  top: "conv2/3x3"
  param {
    lr_mult: 1
    decay_mult: 1
  }
  param {
    lr_mult: 2
    decay_mult: 0
  }
  convolution_param {
    num_output: 192
    pad: 1
    kernel_size: 3
    weight_filler {
      type: "xavier"
      std: 0.03
    }
    bias_filler {
      type: "constant"
      value: 0.2
    }
  }
}
layer {
  name: "conv2/relu_3x3"
  type: "ReLU"
  bottom: "conv2/3x3"
  top: "conv2/3x3"
}
layer {
  name: "conv2/norm2"
  type: "LRN"
  bottom: "conv2/3x3"
  top: "conv2/norm2"
  lrn_param {
    local_size: 5
    alpha: 0.0001
    beta: 0.75
  }
}
layer {
  name: "pool2/3x3_s2"
  type: "Pooling"
  bottom: "conv2/norm2"
  top: "pool2/3x3_s2"
  pooling_param {
    pool: MAX
    kernel_size: 3
    stride: 2
  }
}
layer {
  name: "inception_3a/1x1"
  type: "Convolution"
  bottom: "pool2/3x3_s2"
  top: "inception_3a/1x1"
  param {
    lr_mult: 1
    decay_mult: 1
  }
  param {
    lr_mult: 2
    decay_mult: 0
  }
  convolution_param {
    num_output: 64
    kernel_size: 1
    weight_filler {
      type: "xavier"
      std: 0.03
    }
    bias_filler {
      type: "constant"
      value: 0.2
    }
  }
}
layer {
  name: "inception_3a/relu_1x1"
  type: "ReLU"
  bottom: "inception_3a/1x1"
  top: "inception_3a/1x1"
}
layer {
  name: "inception_3a/3x3_reduce"
  type: "Convolution"
  bottom: "pool2/3x3_s2"
  top: "inception_3a/3x3_reduce"
  param {
    lr_mult: 1
    decay_mult: 1
  }
  param {
    lr_mult: 2
    decay_mult: 0
  }
  convolution_param {
    num_output: 96
    kernel_size: 1
    weight_filler {
      type: "xavier"
      std: 0.09
    }
    bias_filler {
      type: "constant"
      value: 0.2
    }
  }
}
layer {
  name: "inception_3a/relu_3x3_reduce"
  type: "ReLU"
  bottom: "inception_3a/3x3_reduce"
  top: "inception_3a/3x3_reduce"
}
layer {
  name: "inception_3a/3x3"
  type: "Convolution"
  bottom: "inception_3a/3x3_reduce"
  top: "inception_3a/3x3"
  param {
    lr_mult: 1
    decay_mult: 1
  }
  param {
    lr_mult: 2
    decay_mult: 0
  }
  convolution_param {
    num_output: 128
    pad: 1
    kernel_size: 3
    weight_filler {
      type: "xavier"
      std: 0.03
    }
    bias_filler {
      type: "constant"
      value: 0.2
    }
  }
}
layer {
  name: "inception_3a/relu_3x3"
  type: "ReLU"
  bottom: "inception_3a/3x3"
  top: "inception_3a/3x3"
}
layer {
  name: "inception_3a/5x5_reduce"
  type: "Convolution"
  bottom: "pool2/3x3_s2"
  top: "inception_3a/5x5_reduce"
  param {
    lr_mult: 1
    decay_mult: 1
  }
  param {
    lr_mult: 2
    decay_mult: 0
  }
  convolution_param {
    num_output: 16
    kernel_size: 1
    weight_filler {
      type: "xavier"
      std: 0.2
    }
    bias_filler {
      type: "constant"
      value: 0.2
    }
  }
}
layer {
  name: "inception_3a/relu_5x5_reduce"
  type: "ReLU"
  bottom: "inception_3a/5x5_reduce"
  top: "inception_3a/5x5_reduce"
}
layer {
  name: "inception_3a/5x5"
  type: "Convolution"
  bottom: "inception_3a/5x5_reduce"
  top: "inception_3a/5x5"
  param {
    lr_mult: 1
    decay_mult: 1
  }
  param {
    lr_mult: 2
    decay_mult: 0
  }
  convolution_param {
    num_output: 32
    pad: 2
    kernel_size: 5
    weight_filler {
      type: "xavier"
      std: 0.03
    }
    bias_filler {
      type: "constant"
      value: 0.2
    }
  }
}
layer {
  name: "inception_3a/relu_5x5"
  type: "ReLU"
  bottom: "inception_3a/5x5"
  top: "inception_3a/5x5"
}
layer {
  name: "inception_3a/pool"
  type: "Pooling"
  bottom: "pool2/3x3_s2"
  top: "inception_3a/pool"
  pooling_param {
    pool: MAX
    kernel_size: 3
    stride: 1
    pad: 1
  }
}
layer {
  name: "inception_3a/pool_proj"
  type: "Convolution"
  bottom: "inception_3a/pool"
  top: "inception_3a/pool_proj"
  param {
    lr_mult: 1
    decay_mult: 1
  }
  param {
    lr_mult: 2
    decay_mult: 0
  }
  convolution_param {
    num_output: 32
    kernel_size: 1
    weight_filler {
      type: "xavier"
      std: 0.1
    }
    bias_filler {
      type: "constant"
      value: 0.2
    }
  }
}
layer {
  name: "inception_3a/relu_pool_proj"
  type: "ReLU"
  bottom: "inception_3a/pool_proj"
  top: "inception_3a/pool_proj"
}
layer {
  name: "inception_3a/output"
  type: "Concat"
  bottom: "inception_3a/1x1"
  bottom: "inception_3a/3x3"
  bottom: "inception_3a/5x5"
  bottom: "inception_3a/pool_proj"
  top: "inception_3a/output"
}
layer {
  name: "inception_3b/1x1"
  type: "Convolution"
  bottom: "inception_3a/output"
  top: "inception_3b/1x1"
  param {
    lr_mult: 1
    decay_mult: 1
  }
  param {
    lr_mult: 2
    decay_mult: 0
  }
  convolution_param {
    num_output: 128
    kernel_size: 1
    weight_filler {
      type: "xavier"
      std: 0.03
    }
    bias_filler {
      type: "constant"
      value: 0.2
    }
  }
}
layer {
  name: "inception_3b/relu_1x1"
  type: "ReLU"
  bottom: "inception_3b/1x1"
  top: "inception_3b/1x1"
}
layer {
  name: "inception_3b/3x3_reduce"
  type: "Convolution"
  bottom: "inception_3a/output"
  top: "inception_3b/3x3_reduce"
  param {
    lr_mult: 1
    decay_mult: 1
  }
  param {
    lr_mult: 2
    decay_mult: 0
  }
  convolution_param {
    num_output: 128
    kernel_size: 1
    weight_filler {
      type: "xavier"
      std: 0.09
    }
    bias_filler {
      type: "constant"
      value: 0.2
    }
  }
}
layer {
  name: "inception_3b/relu_3x3_reduce"
  type: "ReLU"
  bottom: "inception_3b/3x3_reduce"
  top: "inception_3b/3x3_reduce"
}
layer {
  name: "inception_3b/3x3"
  type: "Convolution"
  bottom: "inception_3b/3x3_reduce"
  top: "inception_3b/3x3"
  param {
    lr_mult: 1
    decay_mult: 1
  }
  param {
    lr_mult: 2
    decay_mult: 0
  }
  convolution_param {
    num_output: 192
    pad: 1
    kernel_size: 3
    weight_filler {
      type: "xavier"
      std: 0.03
    }
    bias_filler {
      type: "constant"
      value: 0.2
    }
  }
}
layer {
  name: "inception_3b/relu_3x3"
  type: "ReLU"
  bottom: "inception_3b/3x3"
  top: "inception_3b/3x3"
}
layer {
  name: "inception_3b/5x5_reduce"
  type: "Convolution"
  bottom: "inception_3a/output"
  top: "inception_3b/5x5_reduce"
  param {
    lr_mult: 1
    decay_mult: 1
  }
  param {
    lr_mult: 2
    decay_mult: 0
  }
  convolution_param {
    num_output: 32
    kernel_size: 1
    weight_filler {
      type: "xavier"
      std: 0.2
    }
    bias_filler {
      type: "constant"
      value: 0.2
    }
  }
}
layer {
  name: "inception_3b/relu_5x5_reduce"
  type: "ReLU"
  bottom: "inception_3b/5x5_reduce"
  top: "inception_3b/5x5_reduce"
}
layer {
  name: "inception_3b/5x5"
  type: "Convolution"
  bottom: "inception_3b/5x5_reduce"
  top: "inception_3b/5x5"
  param {
    lr_mult: 1
    decay_mult: 1
  }
  param {
    lr_mult: 2
    decay_mult: 0
  }
  convolution_param {
    num_output: 96
    pad: 2
    kernel_size: 5
    weight_filler {
      type: "xavier"
      std: 0.03
    }
    bias_filler {
      type: "constant"
      value: 0.2
    }
  }
}
layer {
  name: "inception_3b/relu_5x5"
  type: "ReLU"
  bottom: "inception_3b/5x5"
  top: "inception_3b/5x5"
}
layer {
  name: "inception_3b/pool"
  type: "Pooling"
  bottom: "inception_3a/output"
  top: "inception_3b/pool"
  pooling_param {
    pool: MAX
    kernel_size: 3
    stride: 1
    pad: 1
  }
}
layer {
  name: "inception_3b/pool_proj"
  type: "Convolution"
  bottom: "inception_3b/pool"
  top: "inception_3b/pool_proj"
  param {
    lr_mult: 1
    decay_mult: 1
  }
  param {
    lr_mult: 2
    decay_mult: 0
  }
  convolution_param {
    num_output: 64
    kernel_size: 1
    weight_filler {
      type: "xavier"
      std: 0.1
    }
    bias_filler {
      type: "constant"
      value: 0.2
    }
  }
}
layer {
  name: "inception_3b/relu_pool_proj"
  type: "ReLU"
  bottom: "inception_3b/pool_proj"
  top: "inception_3b/pool_proj"
}
layer {
  name: "inception_3b/output"
  type: "Concat"
  bottom: "inception_3b/1x1"
  bottom: "inception_3b/3x3"
  bottom: "inception_3b/5x5"
  bottom: "inception_3b/pool_proj"
  top: "inception_3b/output"
}
layer {
  name: "pool3/3x3_s2"
  type: "Pooling"
  bottom: "inception_3b/output"
  top: "pool3/3x3_s2"
  pooling_param {
    pool: MAX
    kernel_size: 3
    stride: 2
  }
}
layer {
  name: "inception_4a/1x1"
  type: "Convolution"
  bottom: "pool3/3x3_s2"
  top: "inception_4a/1x1"
  param {
    lr_mult: 1
    decay_mult: 1
  }
  param {
    lr_mult: 2
    decay_mult: 0
  }
  convolution_param {
    num_output: 192
    kernel_size: 1
    weight_filler {
      type: "xavier"
      std: 0.03
    }
    bias_filler {
      type: "constant"
      value: 0.2
    }
  }
}
layer {
  name: "inception_4a/relu_1x1"
  type: "ReLU"
  bottom: "inception_4a/1x1"
  top: "inception_4a/1x1"
}
layer {
  name: "inception_4a/3x3_reduce"
  type: "Convolution"
  bottom: "pool3/3x3_s2"
  top: "inception_4a/3x3_reduce"
  param {
    lr_mult: 1
    decay_mult: 1
  }
  param {
    lr_mult: 2
    decay_mult: 0
  }
  convolution_param {
    num_output: 96
    kernel_size: 1
    weight_filler {
      type: "xavier"
      std: 0.09
    }
    bias_filler {
      type: "constant"
      value: 0.2
    }
  }
}
layer {
  name: "inception_4a/relu_3x3_reduce"
  type: "ReLU"
  bottom: "inception_4a/3x3_reduce"
  top: "inception_4a/3x3_reduce"
}
layer {
  name: "inception_4a/3x3"
  type: "Convolution"
  bottom: "inception_4a/3x3_reduce"
  top: "inception_4a/3x3"
  param {
    lr_mult: 1
    decay_mult: 1
  }
  param {
    lr_mult: 2
    decay_mult: 0
  }
  convolution_param {
    num_output: 208
    pad: 1
    kernel_size: 3
    weight_filler {
      type: "xavier"
      std: 0.03
    }
    bias_filler {
      type: "constant"
      value: 0.2
    }
  }
}
layer {
  name: "inception_4a/relu_3x3"
  type: "ReLU"
  bottom: "inception_4a/3x3"
  top: "inception_4a/3x3"
}
layer {
  name: "inception_4a/5x5_reduce"
  type: "Convolution"
  bottom: "pool3/3x3_s2"
  top: "inception_4a/5x5_reduce"
  param {
    lr_mult: 1
    decay_mult: 1
  }
  param {
    lr_mult: 2
    decay_mult: 0
  }
  convolution_param {
    num_output: 16
    kernel_size: 1
    weight_filler {
      type: "xavier"
      std: 0.2
    }
    bias_filler {
      type: "constant"
      value: 0.2
    }
  }
}
layer {
  name: "inception_4a/relu_5x5_reduce"
  type: "ReLU"
  bottom: "inception_4a/5x5_reduce"
  top: "inception_4a/5x5_reduce"
}
layer {
  name: "inception_4a/5x5"
  type: "Convolution"
  bottom: "inception_4a/5x5_reduce"
  top: "inception_4a/5x5"
  param {
    lr_mult: 1
    decay_mult: 1
  }
  param {
    lr_mult: 2
    decay_mult: 0
  }
  convolution_param {
    num_output: 48
    pad: 2
    kernel_size: 5
    weight_filler {
      type: "xavier"
      std: 0.03
    }
    bias_filler {
      type: "constant"
      value: 0.2
    }
  }
}
layer {
  name: "inception_4a/relu_5x5"
  type: "ReLU"
  bottom: "inception_4a/5x5"
  top: "inception_4a/5x5"
}
layer {
  name: "inception_4a/pool"
  type: "Pooling"
  bottom: "pool3/3x3_s2"
  top: "inception_4a/pool"
  pooling_param {
    pool: MAX
    kernel_size: 3
    stride: 1
    pad: 1
  }
}
layer {
  name: "inception_4a/pool_proj"
  type: "Convolution"
  bottom: "inception_4a/pool"
  top: "inception_4a/pool_proj"
  param {
    lr_mult: 1
    decay_mult: 1
  }
  param {
    lr_mult: 2
    decay_mult: 0
  }
  convolution_param {
    num_output: 64
    kernel_size: 1
    weight_filler {
      type: "xavier"
      std: 0.1
    }
    bias_filler {
      type: "constant"
      value: 0.2
    }
  }
}
layer {
  name: "inception_4a/relu_pool_proj"
  type: "ReLU"
  bottom: "inception_4a/pool_proj"
  top: "inception_4a/pool_proj"
}
layer {
  name: "inception_4a/output"
  type: "Concat"
  bottom: "inception_4a/1x1"
  bottom: "inception_4a/3x3"
  bottom: "inception_4a/5x5"
  bottom: "inception_4a/pool_proj"
  top: "inception_4a/output"
}
layer {
  name: "loss1/ave_pool"
  type: "Pooling"
  bottom: "inception_4a/output"
  top: "loss1/ave_pool"
  pooling_param {
    pool: AVE
    kernel_size: 5
    stride: 3
  }
}
layer {
  name: "loss1/conv"
  type: "Convolution"
  bottom: "loss1/ave_pool"
  top: "loss1/conv"
  param {
    lr_mult: 1
    decay_mult: 1
  }
  param {
    lr_mult: 2
    decay_mult: 0
  }
  convolution_param {
    num_output: 128
    kernel_size: 1
    weight_filler {
      type: "xavier"
      std: 0.08
    }
    bias_filler {
      type: "constant"
      value: 0.2
    }
  }
}
layer {
  name: "loss1/relu_conv"
  type: "ReLU"
  bottom: "loss1/conv"
  top: "loss1/conv"
}
layer {
  name: "loss1/fc"
  type: "InnerProduct"
  bottom: "loss1/conv"
  top: "loss1/fc"
  param {
    lr_mult: 1
    decay_mult: 1
  }
  param {
    lr_mult: 2
    decay_mult: 0
  }
  inner_product_param {
    num_output: 1024
    weight_filler {
      type: "xavier"
      std: 0.02
    }
    bias_filler {
      type: "constant"
      value: 0.2
    }
  }
}
layer {
  name: "loss1/relu_fc"
  type: "ReLU"
  bottom: "loss1/fc"
  top: "loss1/fc"
}
layer {
  name: "loss1/drop_fc"
  type: "Dropout"
  bottom: "loss1/fc"
  top: "loss1/fc"
  dropout_param {
    dropout_ratio: 0.7
  }
}
layer {
  name: "loss1/classifier_plantvillage"
  type: "InnerProduct"
  bottom: "loss1/fc"
  top: "loss1/classifier_plantvillage"
  param {
    lr_mult: 1
    decay_mult: 1
  }
  param {
    lr_mult: 2
    decay_mult: 0
  }
  inner_product_param {
    num_output: 38
    weight_filler {
      type: "xavier"
      std: 0.0009765625
    }
    bias_filler {
      type: "constant"
      value: 0
    }
  }
}
layer {
  name: "inception_4b/1x1"
  type: "Convolution"
  bottom: "inception_4a/output"
  top: "inception_4b/1x1"
  param {
    lr_mult: 1
    decay_mult: 1
  }
  param {
    lr_mult: 2
    decay_mult: 0
  }
  convolution_param {
    num_output: 160
    kernel_size: 1
    weight_filler {
      type: "xavier"
      std: 0.03
    }
    bias_filler {
      type: "constant"
      value: 0.2
    }
  }
}
layer {
  name: "inception_4b/relu_1x1"
  type: "ReLU"
  bottom: "inception_4b/1x1"
  top: "inception_4b/1x1"
}
layer {
  name: "inception_4b/3x3_reduce"
  type: "Convolution"
  bottom: "inception_4a/output"
  top: "inception_4b/3x3_reduce"
  param {
    lr_mult: 1
    decay_mult: 1
  }
  param {
    lr_mult: 2
    decay_mult: 0
  }
  convolution_param {
    num_output: 112
    kernel_size: 1
    weight_filler {
      type: "xavier"
      std: 0.09
    }
    bias_filler {
      type: "constant"
      value: 0.2
    }
  }
}
layer {
  name: "inception_4b/relu_3x3_reduce"
  type: "ReLU"
  bottom: "inception_4b/3x3_reduce"
  top: "inception_4b/3x3_reduce"
}
layer {
  name: "inception_4b/3x3"
  type: "Convolution"
  bottom: "inception_4b/3x3_reduce"
  top: "inception_4b/3x3"
  param {
    lr_mult: 1
    decay_mult: 1
  }
  param {
    lr_mult: 2
    decay_mult: 0
  }
  convolution_param {
    num_output: 224
    pad: 1
    kernel_size: 3
    weight_filler {
      type: "xavier"
      std: 0.03
    }
    bias_filler {
      type: "constant"
      value: 0.2
    }
  }
}
layer {
  name: "inception_4b/relu_3x3"
  type: "ReLU"
  bottom: "inception_4b/3x3"
  top: "inception_4b/3x3"
}
layer {
  name: "inception_4b/5x5_reduce"
  type: "Convolution"
  bottom: "inception_4a/output"
  top: "inception_4b/5x5_reduce"
  param {
    lr_mult: 1
    decay_mult: 1
  }
  param {
    lr_mult: 2
    decay_mult: 0
  }
  convolution_param {
    num_output: 24
    kernel_size: 1
    weight_filler {
      type: "xavier"
      std: 0.2
    }
    bias_filler {
      type: "constant"
      value: 0.2
    }
  }
}
layer {
  name: "inception_4b/relu_5x5_reduce"
  type: "ReLU"
  bottom: "inception_4b/5x5_reduce"
  top: "inception_4b/5x5_reduce"
}
layer {
  name: "inception_4b/5x5"
  type: "Convolution"
  bottom: "inception_4b/5x5_reduce"
  top: "inception_4b/5x5"
  param {
    lr_mult: 1
    decay_mult: 1
  }
  param {
    lr_mult: 2
    decay_mult: 0
  }
  convolution_param {
    num_output: 64
    pad: 2
    kernel_size: 5
    weight_filler {
      type: "xavier"
      std: 0.03
    }
    bias_filler {
      type: "constant"
      value: 0.2
    }
  }
}
layer {
  name: "inception_4b/relu_5x5"
  type: "ReLU"
  bottom: "inception_4b/5x5"
  top: "inception_4b/5x5"
}
layer {
  name: "inception_4b/pool"
  type: "Pooling"
  bottom: "inception_4a/output"
  top: "inception_4b/pool"
  pooling_param {
    pool: MAX
    kernel_size: 3
    stride: 1
    pad: 1
  }
}
layer {
  name: "inception_4b/pool_proj"
  type: "Convolution"
  bottom: "inception_4b/pool"
  top: "inception_4b/pool_proj"
  param {
    lr_mult: 1
    decay_mult: 1
  }
  param {
    lr_mult: 2
    decay_mult: 0
  }
  convolution_param {
    num_output: 64
    kernel_size: 1
    weight_filler {
      type: "xavier"
      std: 0.1
    }
    bias_filler {
      type: "constant"
      value: 0.2
    }
  }
}
layer {
  name: "inception_4b/relu_pool_proj"
  type: "ReLU"
  bottom: "inception_4b/pool_proj"
  top: "inception_4b/pool_proj"
}
layer {
  name: "inception_4b/output"
  type: "Concat"
  bottom: "inception_4b/1x1"
  bottom: "inception_4b/3x3"
  bottom: "inception_4b/5x5"
  bottom: "inception_4b/pool_proj"
  top: "inception_4b/output"
}
layer {
  name: "inception_4c/1x1"
  type: "Convolution"
  bottom: "inception_4b/output"
  top: "inception_4c/1x1"
  param {
    lr_mult: 1
    decay_mult: 1
  }
  param {
    lr_mult: 2
    decay_mult: 0
  }
  convolution_param {
    num_output: 128
    kernel_size: 1
    weight_filler {
      type: "xavier"
      std: 0.03
    }
    bias_filler {
      type: "constant"
      value: 0.2
    }
  }
}
layer {
  name: "inception_4c/relu_1x1"
  type: "ReLU"
  bottom: "inception_4c/1x1"
  top: "inception_4c/1x1"
}
layer {
  name: "inception_4c/3x3_reduce"
  type: "Convolution"
  bottom: "inception_4b/output"
  top: "inception_4c/3x3_reduce"
  param {
    lr_mult: 1
    decay_mult: 1
  }
  param {
    lr_mult: 2
    decay_mult: 0
  }
  convolution_param {
    num_output: 128
    kernel_size: 1
    weight_filler {
      type: "xavier"
      std: 0.09
    }
    bias_filler {
      type: "constant"
      value: 0.2
    }
  }
}
layer {
  name: "inception_4c/relu_3x3_reduce"
  type: "ReLU"
  bottom: "inception_4c/3x3_reduce"
  top: "inception_4c/3x3_reduce"
}
layer {
  name: "inception_4c/3x3"
  type: "Convolution"
  bottom: "inception_4c/3x3_reduce"
  top: "inception_4c/3x3"
  param {
    lr_mult: 1
    decay_mult: 1
  }
  param {
    lr_mult: 2
    decay_mult: 0
  }
  convolution_param {
    num_output: 256
    pad: 1
    kernel_size: 3
    weight_filler {
      type: "xavier"
      std: 0.03
    }
    bias_filler {
      type: "constant"
      value: 0.2
    }
  }
}
layer {
  name: "inception_4c/relu_3x3"
  type: "ReLU"
  bottom: "inception_4c/3x3"
  top: "inception_4c/3x3"
}
layer {
  name: "inception_4c/5x5_reduce"
  type: "Convolution"
  bottom: "inception_4b/output"
  top: "inception_4c/5x5_reduce"
  param {
    lr_mult: 1
    decay_mult: 1
  }
  param {
    lr_mult: 2
    decay_mult: 0
  }
  convolution_param {
    num_output: 24
    kernel_size: 1
    weight_filler {
      type: "xavier"
      std: 0.2
    }
    bias_filler {
      type: "constant"
      value: 0.2
    }
  }
}
layer {
  name: "inception_4c/relu_5x5_reduce"
  type: "ReLU"
  bottom: "inception_4c/5x5_reduce"
  top: "inception_4c/5x5_reduce"
}
layer {
  name: "inception_4c/5x5"
  type: "Convolution"
  bottom: "inception_4c/5x5_reduce"
  top: "inception_4c/5x5"
  param {
    lr_mult: 1
    decay_mult: 1
  }
  param {
    lr_mult: 2
    decay_mult: 0
  }
  convolution_param {
    num_output: 64
    pad: 2
    kernel_size: 5
    weight_filler {
      type: "xavier"
      std: 0.03
    }
    bias_filler {
      type: "constant"
      value: 0.2
    }
  }
}
layer {
  name: "inception_4c/relu_5x5"
  type: "ReLU"
  bottom: "inception_4c/5x5"
  top: "inception_4c/5x5"
}
layer {
  name: "inception_4c/pool"
  type: "Pooling"
  bottom: "inception_4b/output"
  top: "inception_4c/pool"
  pooling_param {
    pool: MAX
    kernel_size: 3
    stride: 1
    pad: 1
  }
}
layer {
  name: "inception_4c/pool_proj"
  type: "Convolution"
  bottom: "inception_4c/pool"
  top: "inception_4c/pool_proj"
  param {
    lr_mult: 1
    decay_mult: 1
  }
  param {
    lr_mult: 2
    decay_mult: 0
  }
  convolution_param {
    num_output: 64
    kernel_size: 1
    weight_filler {
      type: "xavier"
      std: 0.1
    }
    bias_filler {
      type: "constant"
      value: 0.2
    }
  }
}
layer {
  name: "inception_4c/relu_pool_proj"
  type: "ReLU"
  bottom: "inception_4c/pool_proj"
  top: "inception_4c/pool_proj"
}
layer {
  name: "inception_4c/output"
  type: "Concat"
  bottom: "inception_4c/1x1"
  bottom: "inception_4c/3x3"
  bottom: "inception_4c/5x5"
  bottom: "inception_4c/pool_proj"
  top: "inception_4c/output"
}
layer {
  name: "inception_4d/1x1"
  type: "Convolution"
  bottom: "inception_4c/output"
  top: "inception_4d/1x1"
  param {
    lr_mult: 1
    decay_mult: 1
  }
  param {
    lr_mult: 2
    decay_mult: 0
  }
  convolution_param {
    num_output: 112
    kernel_size: 1
    weight_filler {
      type: "xavier"
      std: 0.03
    }
    bias_filler {
      type: "constant"
      value: 0.2
    }
  }
}
layer {
  name: "inception_4d/relu_1x1"
  type: "ReLU"
  bottom: "inception_4d/1x1"
  top: "inception_4d/1x1"
}
layer {
  name: "inception_4d/3x3_reduce"
  type: "Convolution"
  bottom: "inception_4c/output"
  top: "inception_4d/3x3_reduce"
  param {
    lr_mult: 1
    decay_mult: 1
  }
  param {
    lr_mult: 2
    decay_mult: 0
  }
  convolution_param {
    num_output: 144
    kernel_size: 1
    weight_filler {
      type: "xavier"
      std: 0.09
    }
    bias_filler {
      type: "constant"
      value: 0.2
    }
  }
}
layer {
  name: "inception_4d/relu_3x3_reduce"
  type: "ReLU"
  bottom: "inception_4d/3x3_reduce"
  top: "inception_4d/3x3_reduce"
}
layer {
  name: "inception_4d/3x3"
  type: "Convolution"
  bottom: "inception_4d/3x3_reduce"
  top: "inception_4d/3x3"
  param {
    lr_mult: 1
    decay_mult: 1
  }
  param {
    lr_mult: 2
    decay_mult: 0
  }
  convolution_param {
    num_output: 288
    pad: 1
    kernel_size: 3
    weight_filler {
      type: "xavier"
      std: 0.03
    }
    bias_filler {
      type: "constant"
      value: 0.2
    }
  }
}
layer {
  name: "inception_4d/relu_3x3"
  type: "ReLU"
  bottom: "inception_4d/3x3"
  top: "inception_4d/3x3"
}
layer {
  name: "inception_4d/5x5_reduce"
  type: "Convolution"
  bottom: "inception_4c/output"
  top: "inception_4d/5x5_reduce"
  param {
    lr_mult: 1
    decay_mult: 1
  }
  param {
    lr_mult: 2
    decay_mult: 0
  }
  convolution_param {
    num_output: 32
    kernel_size: 1
    weight_filler {
      type: "xavier"
      std: 0.2
    }
    bias_filler {
      type: "constant"
      value: 0.2
    }
  }
}
layer {
  name: "inception_4d/relu_5x5_reduce"
  type: "ReLU"
  bottom: "inception_4d/5x5_reduce"
  top: "inception_4d/5x5_reduce"
}
layer {
  name: "inception_4d/5x5"
  type: "Convolution"
  bottom: "inception_4d/5x5_reduce"
  top: "inception_4d/5x5"
  param {
    lr_mult: 1
    decay_mult: 1
  }
  param {
    lr_mult: 2
    decay_mult: 0
  }
  convolution_param {
    num_output: 64
    pad: 2
    kernel_size: 5
    weight_filler {
      type: "xavier"
      std: 0.03
    }
    bias_filler {
      type: "constant"
      value: 0.2
    }
  }
}
layer {
  name: "inception_4d/relu_5x5"
  type: "ReLU"
  bottom: "inception_4d/5x5"
  top: "inception_4d/5x5"
}
layer {
  name: "inception_4d/pool"
  type: "Pooling"
  bottom: "inception_4c/output"
  top: "inception_4d/pool"
  pooling_param {
    pool: MAX
    kernel_size: 3
    stride: 1
    pad: 1
  }
}
layer {
  name: "inception_4d/pool_proj"
  type: "Convolution"
  bottom: "inception_4d/pool"
  top: "inception_4d/pool_proj"
  param {
    lr_mult: 1
    decay_mult: 1
  }
  param {
    lr_mult: 2
    decay_mult: 0
  }
  convolution_param {
    num_output: 64
    kernel_size: 1
    weight_filler {
      type: "xavier"
      std: 0.1
    }
    bias_filler {
      type: "constant"
      value: 0.2
    }
  }
}
layer {
  name: "inception_4d/relu_pool_proj"
  type: "ReLU"
  bottom: "inception_4d/pool_proj"
  top: "inception_4d/pool_proj"
}
layer {
  name: "inception_4d/output"
  type: "Concat"
  bottom: "inception_4d/1x1"
  bottom: "inception_4d/3x3"
  bottom: "inception_4d/5x5"
  bottom: "inception_4d/pool_proj"
  top: "inception_4d/output"
}
layer {
  name: "loss2/ave_pool"
  type: "Pooling"
  bottom: "inception_4d/output"
  top: "loss2/ave_pool"
  pooling_param {
    pool: AVE
    kernel_size: 5
    stride: 3
  }
}
layer {
  name: "loss2/conv"
  type: "Convolution"
  bottom: "loss2/ave_pool"
  top: "loss2/conv"
  param {
    lr_mult: 1
    decay_mult: 1
  }
  param {
    lr_mult: 2
    decay_mult: 0
  }
  convolution_param {
    num_output: 128
    kernel_size: 1
    weight_filler {
      type: "xavier"
      std: 0.08
    }
    bias_filler {
      type: "constant"
      value: 0.2
    }
  }
}
layer {
  name: "loss2/relu_conv"
  type: "ReLU"
  bottom: "loss2/conv"
  top: "loss2/conv"
}
layer {
  name: "loss2/fc"
  type: "InnerProduct"
  bottom: "loss2/conv"
  top: "loss2/fc"
  param {
    lr_mult: 1
    decay_mult: 1
  }
  param {
    lr_mult: 2
    decay_mult: 0
  }
  inner_product_param {
    num_output: 1024
    weight_filler {
      type: "xavier"
      std: 0.02
    }
    bias_filler {
      type: "constant"
      value: 0.2
    }
  }
}
layer {
  name: "loss2/relu_fc"
  type: "ReLU"
  bottom: "loss2/fc"
  top: "loss2/fc"
}
layer {
  name: "loss2/drop_fc"
  type: "Dropout"
  bottom: "loss2/fc"
  top: "loss2/fc"
  dropout_param {
    dropout_ratio: 0.7
  }
}
layer {
  name: "loss2/classifier_plantvillage"
  type: "InnerProduct"
  bottom: "loss2/fc"
  top: "loss2/classifier_plantvillage"
  param {
    lr_mult: 1
    decay_mult: 1
  }
  param {
    lr_mult: 2
    decay_mult: 0
  }
  inner_product_param {
    num_output: 38
    weight_filler {
      type: "xavier"
      std: 0.0009765625
    }
    bias_filler {
      type: "constant"
      value: 0
    }
  }
}
layer {
  name: "inception_4e/1x1"
  type: "Convolution"
  bottom: "inception_4d/output"
  top: "inception_4e/1x1"
  param {
    lr_mult: 1
    decay_mult: 1
  }
  param {
    lr_mult: 2
    decay_mult: 0
  }
  convolution_param {
    num_output: 256
    kernel_size: 1
    weight_filler {
      type: "xavier"
      std: 0.03
    }
    bias_filler {
      type: "constant"
      value: 0.2
    }
  }
}
layer {
  name: "inception_4e/relu_1x1"
  type: "ReLU"
  bottom: "inception_4e/1x1"
  top: "inception_4e/1x1"
}
layer {
  name: "inception_4e/3x3_reduce"
  type: "Convolution"
  bottom: "inception_4d/output"
  top: "inception_4e/3x3_reduce"
  param {
    lr_mult: 1
    decay_mult: 1
  }
  param {
    lr_mult: 2
    decay_mult: 0
  }
  convolution_param {
    num_output: 160
    kernel_size: 1
    weight_filler {
      type: "xavier"
      std: 0.09
    }
    bias_filler {
      type: "constant"
      value: 0.2
    }
  }
}
layer {
  name: "inception_4e/relu_3x3_reduce"
  type: "ReLU"
  bottom: "inception_4e/3x3_reduce"
  top: "inception_4e/3x3_reduce"
}
layer {
  name: "inception_4e/3x3"
  type: "Convolution"
  bottom: "inception_4e/3x3_reduce"
  top: "inception_4e/3x3"
  param {
    lr_mult: 1
    decay_mult: 1
  }
  param {
    lr_mult: 2
    decay_mult: 0
  }
  convolution_param {
    num_output: 320
    pad: 1
    kernel_size: 3
    weight_filler {
      type: "xavier"
      std: 0.03
    }
    bias_filler {
      type: "constant"
      value: 0.2
    }
  }
}
layer {
  name: "inception_4e/relu_3x3"
  type: "ReLU"
  bottom: "inception_4e/3x3"
  top: "inception_4e/3x3"
}
layer {
  name: "inception_4e/5x5_reduce"
  type: "Convolution"
  bottom: "inception_4d/output"
  top: "inception_4e/5x5_reduce"
  param {
    lr_mult: 1
    decay_mult: 1
  }
  param {
    lr_mult: 2
    decay_mult: 0
  }
  convolution_param {
    num_output: 32
    kernel_size: 1
    weight_filler {
      type: "xavier"
      std: 0.2
    }
    bias_filler {
      type: "constant"
      value: 0.2
    }
  }
}
layer {
  name: "inception_4e/relu_5x5_reduce"
  type: "ReLU"
  bottom: "inception_4e/5x5_reduce"
  top: "inception_4e/5x5_reduce"
}
layer {
  name: "inception_4e/5x5"
  type: "Convolution"
  bottom: "inception_4e/5x5_reduce"
  top: "inception_4e/5x5"
  p
I0403 20:09:14.445201 10704 layer_factory.hpp:77] Creating layer data
I0403 20:09:14.445950 10704 net.cpp:91] Creating Layer data
I0403 20:09:14.445989 10704 net.cpp:399] data -> data
I0403 20:09:14.446050 10704 net.cpp:399] data -> label
I0403 20:09:14.446094 10704 data_transformer.cpp:25] Loading mean file from: /home/mohanty/data/final_dataset/lmdb/color-50-50/mean.binaryproto
I0403 20:09:14.447518 10708 db_lmdb.cpp:38] Opened lmdb /home/mohanty/data/final_dataset/lmdb/color-50-50/test_db
I0403 20:09:14.463321 10704 data_layer.cpp:41] output data size: 24,3,224,224
I0403 20:09:14.496544 10704 net.cpp:141] Setting up data
I0403 20:09:14.496652 10704 net.cpp:148] Top shape: 24 3 224 224 (3612672)
I0403 20:09:14.496681 10704 net.cpp:148] Top shape: 24 (24)
I0403 20:09:14.496701 10704 net.cpp:156] Memory required for data: 14450784
I0403 20:09:14.496737 10704 layer_factory.hpp:77] Creating layer label_data_1_split
I0403 20:09:14.496770 10704 net.cpp:91] Creating Layer label_data_1_split
I0403 20:09:14.496794 10704 net.cpp:425] label_data_1_split <- label
I0403 20:09:14.496836 10704 net.cpp:399] label_data_1_split -> label_data_1_split_0
I0403 20:09:14.496870 10704 net.cpp:399] label_data_1_split -> label_data_1_split_1
I0403 20:09:14.496898 10704 net.cpp:399] label_data_1_split -> label_data_1_split_2
I0403 20:09:14.496924 10704 net.cpp:399] label_data_1_split -> label_data_1_split_3
I0403 20:09:14.496949 10704 net.cpp:399] label_data_1_split -> label_data_1_split_4
I0403 20:09:14.496974 10704 net.cpp:399] label_data_1_split -> label_data_1_split_5
I0403 20:09:14.496999 10704 net.cpp:399] label_data_1_split -> label_data_1_split_6
I0403 20:09:14.497025 10704 net.cpp:399] label_data_1_split -> label_data_1_split_7
I0403 20:09:14.497051 10704 net.cpp:399] label_data_1_split -> label_data_1_split_8
I0403 20:09:14.497076 10704 net.cpp:399] label_data_1_split -> label_data_1_split_9
I0403 20:09:14.497215 10704 net.cpp:141] Setting up label_data_1_split
I0403 20:09:14.497252 10704 net.cpp:148] Top shape: 24 (24)
I0403 20:09:14.497277 10704 net.cpp:148] Top shape: 24 (24)
I0403 20:09:14.497298 10704 net.cpp:148] Top shape: 24 (24)
I0403 20:09:14.497316 10704 net.cpp:148] Top shape: 24 (24)
I0403 20:09:14.497335 10704 net.cpp:148] Top shape: 24 (24)
I0403 20:09:14.497354 10704 net.cpp:148] Top shape: 24 (24)
I0403 20:09:14.497373 10704 net.cpp:148] Top shape: 24 (24)
I0403 20:09:14.497393 10704 net.cpp:148] Top shape: 24 (24)
I0403 20:09:14.497411 10704 net.cpp:148] Top shape: 24 (24)
I0403 20:09:14.497431 10704 net.cpp:148] Top shape: 24 (24)
I0403 20:09:14.497485 10704 net.cpp:156] Memory required for data: 14451744
I0403 20:09:14.497508 10704 layer_factory.hpp:77] Creating layer conv1/7x7_s2
I0403 20:09:14.497546 10704 net.cpp:91] Creating Layer conv1/7x7_s2
I0403 20:09:14.497570 10704 net.cpp:425] conv1/7x7_s2 <- data
I0403 20:09:14.497593 10704 net.cpp:399] conv1/7x7_s2 -> conv1/7x7_s2
I0403 20:09:14.664835 10704 net.cpp:141] Setting up conv1/7x7_s2
I0403 20:09:14.664957 10704 net.cpp:148] Top shape: 24 64 112 112 (19267584)
I0403 20:09:14.664978 10704 net.cpp:156] Memory required for data: 91522080
I0403 20:09:14.665016 10704 layer_factory.hpp:77] Creating layer conv1/relu_7x7
I0403 20:09:14.665047 10704 net.cpp:91] Creating Layer conv1/relu_7x7
I0403 20:09:14.665069 10704 net.cpp:425] conv1/relu_7x7 <- conv1/7x7_s2
I0403 20:09:14.665093 10704 net.cpp:386] conv1/relu_7x7 -> conv1/7x7_s2 (in-place)
I0403 20:09:14.665417 10704 net.cpp:141] Setting up conv1/relu_7x7
I0403 20:09:14.665452 10704 net.cpp:148] Top shape: 24 64 112 112 (19267584)
I0403 20:09:14.665470 10704 net.cpp:156] Memory required for data: 168592416
I0403 20:09:14.665489 10704 layer_factory.hpp:77] Creating layer pool1/3x3_s2
I0403 20:09:14.665524 10704 net.cpp:91] Creating Layer pool1/3x3_s2
I0403 20:09:14.665547 10704 net.cpp:425] pool1/3x3_s2 <- conv1/7x7_s2
I0403 20:09:14.665570 10704 net.cpp:399] pool1/3x3_s2 -> pool1/3x3_s2
I0403 20:09:14.665663 10704 net.cpp:141] Setting up pool1/3x3_s2
I0403 20:09:14.665693 10704 net.cpp:148] Top shape: 24 64 56 56 (4816896)
I0403 20:09:14.665711 10704 net.cpp:156] Memory required for data: 187860000
I0403 20:09:14.665730 10704 layer_factory.hpp:77] Creating layer pool1/norm1
I0403 20:09:14.665760 10704 net.cpp:91] Creating Layer pool1/norm1
I0403 20:09:14.665781 10704 net.cpp:425] pool1/norm1 <- pool1/3x3_s2
I0403 20:09:14.665809 10704 net.cpp:399] pool1/norm1 -> pool1/norm1
I0403 20:09:14.666193 10704 net.cpp:141] Setting up pool1/norm1
I0403 20:09:14.666225 10704 net.cpp:148] Top shape: 24 64 56 56 (4816896)
I0403 20:09:14.666251 10704 net.cpp:156] Memory required for data: 207127584
I0403 20:09:14.666272 10704 layer_factory.hpp:77] Creating layer conv2/3x3_reduce
I0403 20:09:14.666306 10704 net.cpp:91] Creating Layer conv2/3x3_reduce
I0403 20:09:14.666328 10704 net.cpp:425] conv2/3x3_reduce <- pool1/norm1
I0403 20:09:14.666353 10704 net.cpp:399] conv2/3x3_reduce -> conv2/3x3_reduce
I0403 20:09:14.668062 10704 net.cpp:141] Setting up conv2/3x3_reduce
I0403 20:09:14.668102 10704 net.cpp:148] Top shape: 24 64 56 56 (4816896)
I0403 20:09:14.668123 10704 net.cpp:156] Memory required for data: 226395168
I0403 20:09:14.668150 10704 layer_factory.hpp:77] Creating layer conv2/relu_3x3_reduce
I0403 20:09:14.668174 10704 net.cpp:91] Creating Layer conv2/relu_3x3_reduce
I0403 20:09:14.668193 10704 net.cpp:425] conv2/relu_3x3_reduce <- conv2/3x3_reduce
I0403 20:09:14.668217 10704 net.cpp:386] conv2/relu_3x3_reduce -> conv2/3x3_reduce (in-place)
I0403 20:09:14.668541 10704 net.cpp:141] Setting up conv2/relu_3x3_reduce
I0403 20:09:14.668576 10704 net.cpp:148] Top shape: 24 64 56 56 (4816896)
I0403 20:09:14.668596 10704 net.cpp:156] Memory required for data: 245662752
I0403 20:09:14.668615 10704 layer_factory.hpp:77] Creating layer conv2/3x3
I0403 20:09:14.668647 10704 net.cpp:91] Creating Layer conv2/3x3
I0403 20:09:14.668669 10704 net.cpp:425] conv2/3x3 <- conv2/3x3_reduce
I0403 20:09:14.668694 10704 net.cpp:399] conv2/3x3 -> conv2/3x3
I0403 20:09:14.671476 10704 net.cpp:141] Setting up conv2/3x3
I0403 20:09:14.671516 10704 net.cpp:148] Top shape: 24 192 56 56 (14450688)
I0403 20:09:14.671537 10704 net.cpp:156] Memory required for data: 303465504
I0403 20:09:14.671564 10704 layer_factory.hpp:77] Creating layer conv2/relu_3x3
I0403 20:09:14.671586 10704 net.cpp:91] Creating Layer conv2/relu_3x3
I0403 20:09:14.671607 10704 net.cpp:425] conv2/relu_3x3 <- conv2/3x3
I0403 20:09:14.671632 10704 net.cpp:386] conv2/relu_3x3 -> conv2/3x3 (in-place)
I0403 20:09:14.671851 10704 net.cpp:141] Setting up conv2/relu_3x3
I0403 20:09:14.671882 10704 net.cpp:148] Top shape: 24 192 56 56 (14450688)
I0403 20:09:14.671941 10704 net.cpp:156] Memory required for data: 361268256
I0403 20:09:14.671962 10704 layer_factory.hpp:77] Creating layer conv2/norm2
I0403 20:09:14.671988 10704 net.cpp:91] Creating Layer conv2/norm2
I0403 20:09:14.672008 10704 net.cpp:425] conv2/norm2 <- conv2/3x3
I0403 20:09:14.672029 10704 net.cpp:399] conv2/norm2 -> conv2/norm2
I0403 20:09:14.672408 10704 net.cpp:141] Setting up conv2/norm2
I0403 20:09:14.672442 10704 net.cpp:148] Top shape: 24 192 56 56 (14450688)
I0403 20:09:14.672461 10704 net.cpp:156] Memory required for data: 419071008
I0403 20:09:14.672480 10704 layer_factory.hpp:77] Creating layer pool2/3x3_s2
I0403 20:09:14.672507 10704 net.cpp:91] Creating Layer pool2/3x3_s2
I0403 20:09:14.672528 10704 net.cpp:425] pool2/3x3_s2 <- conv2/norm2
I0403 20:09:14.672549 10704 net.cpp:399] pool2/3x3_s2 -> pool2/3x3_s2
I0403 20:09:14.672622 10704 net.cpp:141] Setting up pool2/3x3_s2
I0403 20:09:14.672652 10704 net.cpp:148] Top shape: 24 192 28 28 (3612672)
I0403 20:09:14.672670 10704 net.cpp:156] Memory required for data: 433521696
I0403 20:09:14.672690 10704 layer_factory.hpp:77] Creating layer pool2/3x3_s2_pool2/3x3_s2_0_split
I0403 20:09:14.672716 10704 net.cpp:91] Creating Layer pool2/3x3_s2_pool2/3x3_s2_0_split
I0403 20:09:14.672737 10704 net.cpp:425] pool2/3x3_s2_pool2/3x3_s2_0_split <- pool2/3x3_s2
I0403 20:09:14.672760 10704 net.cpp:399] pool2/3x3_s2_pool2/3x3_s2_0_split -> pool2/3x3_s2_pool2/3x3_s2_0_split_0
I0403 20:09:14.672783 10704 net.cpp:399] pool2/3x3_s2_pool2/3x3_s2_0_split -> pool2/3x3_s2_pool2/3x3_s2_0_split_1
I0403 20:09:14.672808 10704 net.cpp:399] pool2/3x3_s2_pool2/3x3_s2_0_split -> pool2/3x3_s2_pool2/3x3_s2_0_split_2
I0403 20:09:14.672832 10704 net.cpp:399] pool2/3x3_s2_pool2/3x3_s2_0_split -> pool2/3x3_s2_pool2/3x3_s2_0_split_3
I0403 20:09:14.672921 10704 net.cpp:141] Setting up pool2/3x3_s2_pool2/3x3_s2_0_split
I0403 20:09:14.672950 10704 net.cpp:148] Top shape: 24 192 28 28 (3612672)
I0403 20:09:14.672971 10704 net.cpp:148] Top shape: 24 192 28 28 (3612672)
I0403 20:09:14.672991 10704 net.cpp:148] Top shape: 24 192 28 28 (3612672)
I0403 20:09:14.673010 10704 net.cpp:148] Top shape: 24 192 28 28 (3612672)
I0403 20:09:14.673027 10704 net.cpp:156] Memory required for data: 491324448
I0403 20:09:14.673048 10704 layer_factory.hpp:77] Creating layer inception_3a/1x1
I0403 20:09:14.673076 10704 net.cpp:91] Creating Layer inception_3a/1x1
I0403 20:09:14.673099 10704 net.cpp:425] inception_3a/1x1 <- pool2/3x3_s2_pool2/3x3_s2_0_split_0
I0403 20:09:14.673125 10704 net.cpp:399] inception_3a/1x1 -> inception_3a/1x1
I0403 20:09:14.675026 10704 net.cpp:141] Setting up inception_3a/1x1
I0403 20:09:14.675068 10704 net.cpp:148] Top shape: 24 64 28 28 (1204224)
I0403 20:09:14.675091 10704 net.cpp:156] Memory required for data: 496141344
I0403 20:09:14.675117 10704 layer_factory.hpp:77] Creating layer inception_3a/relu_1x1
I0403 20:09:14.675139 10704 net.cpp:91] Creating Layer inception_3a/relu_1x1
I0403 20:09:14.675160 10704 net.cpp:425] inception_3a/relu_1x1 <- inception_3a/1x1
I0403 20:09:14.675182 10704 net.cpp:386] inception_3a/relu_1x1 -> inception_3a/1x1 (in-place)
I0403 20:09:14.675408 10704 net.cpp:141] Setting up inception_3a/relu_1x1
I0403 20:09:14.675441 10704 net.cpp:148] Top shape: 24 64 28 28 (1204224)
I0403 20:09:14.675462 10704 net.cpp:156] Memory required for data: 500958240
I0403 20:09:14.675484 10704 layer_factory.hpp:77] Creating layer inception_3a/3x3_reduce
I0403 20:09:14.675513 10704 net.cpp:91] Creating Layer inception_3a/3x3_reduce
I0403 20:09:14.675534 10704 net.cpp:425] inception_3a/3x3_reduce <- pool2/3x3_s2_pool2/3x3_s2_0_split_1
I0403 20:09:14.675562 10704 net.cpp:399] inception_3a/3x3_reduce -> inception_3a/3x3_reduce
I0403 20:09:14.677600 10704 net.cpp:141] Setting up inception_3a/3x3_reduce
I0403 20:09:14.677640 10704 net.cpp:148] Top shape: 24 96 28 28 (1806336)
I0403 20:09:14.677662 10704 net.cpp:156] Memory required for data: 508183584
I0403 20:09:14.677690 10704 layer_factory.hpp:77] Creating layer inception_3a/relu_3x3_reduce
I0403 20:09:14.677736 10704 net.cpp:91] Creating Layer inception_3a/relu_3x3_reduce
I0403 20:09:14.677758 10704 net.cpp:425] inception_3a/relu_3x3_reduce <- inception_3a/3x3_reduce
I0403 20:09:14.677780 10704 net.cpp:386] inception_3a/relu_3x3_reduce -> inception_3a/3x3_reduce (in-place)
I0403 20:09:14.678001 10704 net.cpp:141] Setting up inception_3a/relu_3x3_reduce
I0403 20:09:14.678033 10704 net.cpp:148] Top shape: 24 96 28 28 (1806336)
I0403 20:09:14.678052 10704 net.cpp:156] Memory required for data: 515408928
I0403 20:09:14.678071 10704 layer_factory.hpp:77] Creating layer inception_3a/3x3
I0403 20:09:14.678102 10704 net.cpp:91] Creating Layer inception_3a/3x3
I0403 20:09:14.678122 10704 net.cpp:425] inception_3a/3x3 <- inception_3a/3x3_reduce
I0403 20:09:14.678146 10704 net.cpp:399] inception_3a/3x3 -> inception_3a/3x3
I0403 20:09:14.680158 10704 net.cpp:141] Setting up inception_3a/3x3
I0403 20:09:14.680194 10704 net.cpp:148] Top shape: 24 128 28 28 (2408448)
I0403 20:09:14.680214 10704 net.cpp:156] Memory required for data: 525042720
I0403 20:09:14.680238 10704 layer_factory.hpp:77] Creating layer inception_3a/relu_3x3
I0403 20:09:14.680266 10704 net.cpp:91] Creating Layer inception_3a/relu_3x3
I0403 20:09:14.680287 10704 net.cpp:425] inception_3a/relu_3x3 <- inception_3a/3x3
I0403 20:09:14.680312 10704 net.cpp:386] inception_3a/relu_3x3 -> inception_3a/3x3 (in-place)
I0403 20:09:14.680647 10704 net.cpp:141] Setting up inception_3a/relu_3x3
I0403 20:09:14.680680 10704 net.cpp:148] Top shape: 24 128 28 28 (2408448)
I0403 20:09:14.680698 10704 net.cpp:156] Memory required for data: 534676512
I0403 20:09:14.680717 10704 layer_factory.hpp:77] Creating layer inception_3a/5x5_reduce
I0403 20:09:14.680747 10704 net.cpp:91] Creating Layer inception_3a/5x5_reduce
I0403 20:09:14.680769 10704 net.cpp:425] inception_3a/5x5_reduce <- pool2/3x3_s2_pool2/3x3_s2_0_split_2
I0403 20:09:14.680795 10704 net.cpp:399] inception_3a/5x5_reduce -> inception_3a/5x5_reduce
I0403 20:09:14.681951 10704 net.cpp:141] Setting up inception_3a/5x5_reduce
I0403 20:09:14.681985 10704 net.cpp:148] Top shape: 24 16 28 28 (301056)
I0403 20:09:14.682005 10704 net.cpp:156] Memory required for data: 535880736
I0403 20:09:14.682027 10704 layer_factory.hpp:77] Creating layer inception_3a/relu_5x5_reduce
I0403 20:09:14.682049 10704 net.cpp:91] Creating Layer inception_3a/relu_5x5_reduce
I0403 20:09:14.682070 10704 net.cpp:425] inception_3a/relu_5x5_reduce <- inception_3a/5x5_reduce
I0403 20:09:14.682096 10704 net.cpp:386] inception_3a/relu_5x5_reduce -> inception_3a/5x5_reduce (in-place)
I0403 20:09:14.682453 10704 net.cpp:141] Setting up inception_3a/relu_5x5_reduce
I0403 20:09:14.682497 10704 net.cpp:148] Top shape: 24 16 28 28 (301056)
I0403 20:09:14.682517 10704 net.cpp:156] Memory required for data: 537084960
I0403 20:09:14.682534 10704 layer_factory.hpp:77] Creating layer inception_3a/5x5
I0403 20:09:14.682562 10704 net.cpp:91] Creating Layer inception_3a/5x5
I0403 20:09:14.682585 10704 net.cpp:425] inception_3a/5x5 <- inception_3a/5x5_reduce
I0403 20:09:14.682613 10704 net.cpp:399] inception_3a/5x5 -> inception_3a/5x5
I0403 20:09:14.683838 10704 net.cpp:141] Setting up inception_3a/5x5
I0403 20:09:14.683876 10704 net.cpp:148] Top shape: 24 32 28 28 (602112)
I0403 20:09:14.683897 10704 net.cpp:156] Memory required for data: 539493408
I0403 20:09:14.683919 10704 layer_factory.hpp:77] Creating layer inception_3a/relu_5x5
I0403 20:09:14.683943 10704 net.cpp:91] Creating Layer inception_3a/relu_5x5
I0403 20:09:14.683962 10704 net.cpp:425] inception_3a/relu_5x5 <- inception_3a/5x5
I0403 20:09:14.683987 10704 net.cpp:386] inception_3a/relu_5x5 -> inception_3a/5x5 (in-place)
I0403 20:09:14.684206 10704 net.cpp:141] Setting up inception_3a/relu_5x5
I0403 20:09:14.684237 10704 net.cpp:148] Top shape: 24 32 28 28 (602112)
I0403 20:09:14.684263 10704 net.cpp:156] Memory required for data: 541901856
I0403 20:09:14.684281 10704 layer_factory.hpp:77] Creating layer inception_3a/pool
I0403 20:09:14.684308 10704 net.cpp:91] Creating Layer inception_3a/pool
I0403 20:09:14.684329 10704 net.cpp:425] inception_3a/pool <- pool2/3x3_s2_pool2/3x3_s2_0_split_3
I0403 20:09:14.684368 10704 net.cpp:399] inception_3a/pool -> inception_3a/pool
I0403 20:09:14.684440 10704 net.cpp:141] Setting up inception_3a/pool
I0403 20:09:14.684469 10704 net.cpp:148] Top shape: 24 192 28 28 (3612672)
I0403 20:09:14.684487 10704 net.cpp:156] Memory required for data: 556352544
I0403 20:09:14.684505 10704 layer_factory.hpp:77] Creating layer inception_3a/pool_proj
I0403 20:09:14.684532 10704 net.cpp:91] Creating Layer inception_3a/pool_proj
I0403 20:09:14.684553 10704 net.cpp:425] inception_3a/pool_proj <- inception_3a/pool
I0403 20:09:14.684581 10704 net.cpp:399] inception_3a/pool_proj -> inception_3a/pool_proj
I0403 20:09:14.685745 10704 net.cpp:141] Setting up inception_3a/pool_proj
I0403 20:09:14.685781 10704 net.cpp:148] Top shape: 24 32 28 28 (602112)
I0403 20:09:14.685803 10704 net.cpp:156] Memory required for data: 558760992
I0403 20:09:14.685832 10704 layer_factory.hpp:77] Creating layer inception_3a/relu_pool_proj
I0403 20:09:14.685855 10704 net.cpp:91] Creating Layer inception_3a/relu_pool_proj
I0403 20:09:14.685874 10704 net.cpp:425] inception_3a/relu_pool_proj <- inception_3a/pool_proj
I0403 20:09:14.685897 10704 net.cpp:386] inception_3a/relu_pool_proj -> inception_3a/pool_proj (in-place)
I0403 20:09:14.686228 10704 net.cpp:141] Setting up inception_3a/relu_pool_proj
I0403 20:09:14.686266 10704 net.cpp:148] Top shape: 24 32 28 28 (602112)
I0403 20:09:14.686286 10704 net.cpp:156] Memory required for data: 561169440
I0403 20:09:14.686305 10704 layer_factory.hpp:77] Creating layer inception_3a/output
I0403 20:09:14.686331 10704 net.cpp:91] Creating Layer inception_3a/output
I0403 20:09:14.686350 10704 net.cpp:425] inception_3a/output <- inception_3a/1x1
I0403 20:09:14.686369 10704 net.cpp:425] inception_3a/output <- inception_3a/3x3
I0403 20:09:14.686390 10704 net.cpp:425] inception_3a/output <- inception_3a/5x5
I0403 20:09:14.686410 10704 net.cpp:425] inception_3a/output <- inception_3a/pool_proj
I0403 20:09:14.686434 10704 net.cpp:399] inception_3a/output -> inception_3a/output
I0403 20:09:14.686489 10704 net.cpp:141] Setting up inception_3a/output
I0403 20:09:14.686520 10704 net.cpp:148] Top shape: 24 256 28 28 (4816896)
I0403 20:09:14.686539 10704 net.cpp:156] Memory required for data: 580437024
I0403 20:09:14.686558 10704 layer_factory.hpp:77] Creating layer inception_3a/output_inception_3a/output_0_split
I0403 20:09:14.686579 10704 net.cpp:91] Creating Layer inception_3a/output_inception_3a/output_0_split
I0403 20:09:14.686599 10704 net.cpp:425] inception_3a/output_inception_3a/output_0_split <- inception_3a/output
I0403 20:09:14.686619 10704 net.cpp:399] inception_3a/output_inception_3a/output_0_split -> inception_3a/output_inception_3a/output_0_split_0
I0403 20:09:14.686645 10704 net.cpp:399] inception_3a/output_inception_3a/output_0_split -> inception_3a/output_inception_3a/output_0_split_1
I0403 20:09:14.686673 10704 net.cpp:399] inception_3a/output_inception_3a/output_0_split -> inception_3a/output_inception_3a/output_0_split_2
I0403 20:09:14.686699 10704 net.cpp:399] inception_3a/output_inception_3a/output_0_split -> inception_3a/output_inception_3a/output_0_split_3
I0403 20:09:14.686789 10704 net.cpp:141] Setting up inception_3a/output_inception_3a/output_0_split
I0403 20:09:14.686820 10704 net.cpp:148] Top shape: 24 256 28 28 (4816896)
I0403 20:09:14.686843 10704 net.cpp:148] Top shape: 24 256 28 28 (4816896)
I0403 20:09:14.686862 10704 net.cpp:148] Top shape: 24 256 28 28 (4816896)
I0403 20:09:14.686882 10704 net.cpp:148] Top shape: 24 256 28 28 (4816896)
I0403 20:09:14.686898 10704 net.cpp:156] Memory required for data: 657507360
I0403 20:09:14.686916 10704 layer_factory.hpp:77] Creating layer inception_3b/1x1
I0403 20:09:14.686944 10704 net.cpp:91] Creating Layer inception_3b/1x1
I0403 20:09:14.686967 10704 net.cpp:425] inception_3b/1x1 <- inception_3a/output_inception_3a/output_0_split_0
I0403 20:09:14.686991 10704 net.cpp:399] inception_3b/1x1 -> inception_3b/1x1
I0403 20:09:14.688370 10704 net.cpp:141] Setting up inception_3b/1x1
I0403 20:09:14.688422 10704 net.cpp:148] Top shape: 24 128 28 28 (2408448)
I0403 20:09:14.688444 10704 net.cpp:156] Memory required for data: 667141152
I0403 20:09:14.688468 10704 layer_factory.hpp:77] Creating layer inception_3b/relu_1x1
I0403 20:09:14.688491 10704 net.cpp:91] Creating Layer inception_3b/relu_1x1
I0403 20:09:14.688510 10704 net.cpp:425] inception_3b/relu_1x1 <- inception_3b/1x1
I0403 20:09:14.688534 10704 net.cpp:386] inception_3b/relu_1x1 -> inception_3b/1x1 (in-place)
I0403 20:09:14.688753 10704 net.cpp:141] Setting up inception_3b/relu_1x1
I0403 20:09:14.688784 10704 net.cpp:148] Top shape: 24 128 28 28 (2408448)
I0403 20:09:14.688802 10704 net.cpp:156] Memory required for data: 676774944
I0403 20:09:14.688822 10704 layer_factory.hpp:77] Creating layer inception_3b/3x3_reduce
I0403 20:09:14.688849 10704 net.cpp:91] Creating Layer inception_3b/3x3_reduce
I0403 20:09:14.688873 10704 net.cpp:425] inception_3b/3x3_reduce <- inception_3a/output_inception_3a/output_0_split_1
I0403 20:09:14.688899 10704 net.cpp:399] inception_3b/3x3_reduce -> inception_3b/3x3_reduce
I0403 20:09:14.690270 10704 net.cpp:141] Setting up inception_3b/3x3_reduce
I0403 20:09:14.690310 10704 net.cpp:148] Top shape: 24 128 28 28 (2408448)
I0403 20:09:14.690330 10704 net.cpp:156] Memory required for data: 686408736
I0403 20:09:14.690353 10704 layer_factory.hpp:77] Creating layer inception_3b/relu_3x3_reduce
I0403 20:09:14.690376 10704 net.cpp:91] Creating Layer inception_3b/relu_3x3_reduce
I0403 20:09:14.690395 10704 net.cpp:425] inception_3b/relu_3x3_reduce <- inception_3b/3x3_reduce
I0403 20:09:14.690417 10704 net.cpp:386] inception_3b/relu_3x3_reduce -> inception_3b/3x3_reduce (in-place)
I0403 20:09:14.690631 10704 net.cpp:141] Setting up inception_3b/relu_3x3_reduce
I0403 20:09:14.690664 10704 net.cpp:148] Top shape: 24 128 28 28 (2408448)
I0403 20:09:14.690682 10704 net.cpp:156] Memory required for data: 696042528
I0403 20:09:14.690701 10704 layer_factory.hpp:77] Creating layer inception_3b/3x3
I0403 20:09:14.690731 10704 net.cpp:91] Creating Layer inception_3b/3x3
I0403 20:09:14.690753 10704 net.cpp:425] inception_3b/3x3 <- inception_3b/3x3_reduce
I0403 20:09:14.690779 10704 net.cpp:399] inception_3b/3x3 -> inception_3b/3x3
I0403 20:09:14.694341 10704 net.cpp:141] Setting up inception_3b/3x3
I0403 20:09:14.694377 10704 net.cpp:148] Top shape: 24 192 28 28 (3612672)
I0403 20:09:14.694397 10704 net.cpp:156] Memory required for data: 710493216
I0403 20:09:14.694422 10704 layer_factory.hpp:77] Creating layer inception_3b/relu_3x3
I0403 20:09:14.694444 10704 net.cpp:91] Creating Layer inception_3b/relu_3x3
I0403 20:09:14.694463 10704 net.cpp:425] inception_3b/relu_3x3 <- inception_3b/3x3
I0403 20:09:14.694489 10704 net.cpp:386] inception_3b/relu_3x3 -> inception_3b/3x3 (in-place)
I0403 20:09:14.694818 10704 net.cpp:141] Setting up inception_3b/relu_3x3
I0403 20:09:14.694850 10704 net.cpp:148] Top shape: 24 192 28 28 (3612672)
I0403 20:09:14.694869 10704 net.cpp:156] Memory required for data: 724943904
I0403 20:09:14.694887 10704 layer_factory.hpp:77] Creating layer inception_3b/5x5_reduce
I0403 20:09:14.694916 10704 net.cpp:91] Creating Layer inception_3b/5x5_reduce
I0403 20:09:14.694937 10704 net.cpp:425] inception_3b/5x5_reduce <- inception_3a/output_inception_3a/output_0_split_2
I0403 20:09:14.694965 10704 net.cpp:399] inception_3b/5x5_reduce -> inception_3b/5x5_reduce
I0403 20:09:14.696167 10704 net.cpp:141] Setting up inception_3b/5x5_reduce
I0403 20:09:14.696202 10704 net.cpp:148] Top shape: 24 32 28 28 (602112)
I0403 20:09:14.696220 10704 net.cpp:156] Memory required for data: 727352352
I0403 20:09:14.696250 10704 layer_factory.hpp:77] Creating layer inception_3b/relu_5x5_reduce
I0403 20:09:14.696275 10704 net.cpp:91] Creating Layer inception_3b/relu_5x5_reduce
I0403 20:09:14.696296 10704 net.cpp:425] inception_3b/relu_5x5_reduce <- inception_3b/5x5_reduce
I0403 20:09:14.696322 10704 net.cpp:386] inception_3b/relu_5x5_reduce -> inception_3b/5x5_reduce (in-place)
I0403 20:09:14.696538 10704 net.cpp:141] Setting up inception_3b/relu_5x5_reduce
I0403 20:09:14.696583 10704 net.cpp:148] Top shape: 24 32 28 28 (602112)
I0403 20:09:14.696604 10704 net.cpp:156] Memory required for data: 729760800
I0403 20:09:14.696621 10704 layer_factory.hpp:77] Creating layer inception_3b/5x5
I0403 20:09:14.696650 10704 net.cpp:91] Creating Layer inception_3b/5x5
I0403 20:09:14.696671 10704 net.cpp:425] inception_3b/5x5 <- inception_3b/5x5_reduce
I0403 20:09:14.696696 10704 net.cpp:399] inception_3b/5x5 -> inception_3b/5x5
I0403 20:09:14.699056 10704 net.cpp:141] Setting up inception_3b/5x5
I0403 20:09:14.699096 10704 net.cpp:148] Top shape: 24 96 28 28 (1806336)
I0403 20:09:14.699116 10704 net.cpp:156] Memory required for data: 736986144
I0403 20:09:14.699141 10704 layer_factory.hpp:77] Creating layer inception_3b/relu_5x5
I0403 20:09:14.699163 10704 net.cpp:91] Creating Layer inception_3b/relu_5x5
I0403 20:09:14.699184 10704 net.cpp:425] inception_3b/relu_5x5 <- inception_3b/5x5
I0403 20:09:14.699205 10704 net.cpp:386] inception_3b/relu_5x5 -> inception_3b/5x5 (in-place)
I0403 20:09:14.699445 10704 net.cpp:141] Setting up inception_3b/relu_5x5
I0403 20:09:14.699476 10704 net.cpp:148] Top shape: 24 96 28 28 (1806336)
I0403 20:09:14.699496 10704 net.cpp:156] Memory required for data: 744211488
I0403 20:09:14.699514 10704 layer_factory.hpp:77] Creating layer inception_3b/pool
I0403 20:09:14.699537 10704 net.cpp:91] Creating Layer inception_3b/pool
I0403 20:09:14.699556 10704 net.cpp:425] inception_3b/pool <- inception_3a/output_inception_3a/output_0_split_3
I0403 20:09:14.699579 10704 net.cpp:399] inception_3b/pool -> inception_3b/pool
I0403 20:09:14.699645 10704 net.cpp:141] Setting up inception_3b/pool
I0403 20:09:14.699677 10704 net.cpp:148] Top shape: 24 256 28 28 (4816896)
I0403 20:09:14.699697 10704 net.cpp:156] Memory required for data: 763479072
I0403 20:09:14.699717 10704 layer_factory.hpp:77] Creating layer inception_3b/pool_proj
I0403 20:09:14.699741 10704 net.cpp:91] Creating Layer inception_3b/pool_proj
I0403 20:09:14.699762 10704 net.cpp:425] inception_3b/pool_proj <- inception_3b/pool
I0403 20:09:14.699786 10704 net.cpp:399] inception_3b/pool_proj -> inception_3b/pool_proj
I0403 20:09:14.701066 10704 net.cpp:141] Setting up inception_3b/pool_proj
I0403 20:09:14.701099 10704 net.cpp:148] Top shape: 24 64 28 28 (1204224)
I0403 20:09:14.701118 10704 net.cpp:156] Memory required for data: 768295968
I0403 20:09:14.701143 10704 layer_factory.hpp:77] Creating layer inception_3b/relu_pool_proj
I0403 20:09:14.701169 10704 net.cpp:91] Creating Layer inception_3b/relu_pool_proj
I0403 20:09:14.701190 10704 net.cpp:425] inception_3b/relu_pool_proj <- inception_3b/pool_proj
I0403 20:09:14.701212 10704 net.cpp:386] inception_3b/relu_pool_proj -> inception_3b/pool_proj (in-place)
I0403 20:09:14.701668 10704 net.cpp:141] Setting up inception_3b/relu_pool_proj
I0403 20:09:14.701700 10704 net.cpp:148] Top shape: 24 64 28 28 (1204224)
I0403 20:09:14.701720 10704 net.cpp:156] Memory required for data: 773112864
I0403 20:09:14.701740 10704 layer_factory.hpp:77] Creating layer inception_3b/output
I0403 20:09:14.701761 10704 net.cpp:91] Creating Layer inception_3b/output
I0403 20:09:14.701781 10704 net.cpp:425] inception_3b/output <- inception_3b/1x1
I0403 20:09:14.701802 10704 net.cpp:425] inception_3b/output <- inception_3b/3x3
I0403 20:09:14.701822 10704 net.cpp:425] inception_3b/output <- inception_3b/5x5
I0403 20:09:14.701843 10704 net.cpp:425] inception_3b/output <- inception_3b/pool_proj
I0403 20:09:14.701866 10704 net.cpp:399] inception_3b/output -> inception_3b/output
I0403 20:09:14.701920 10704 net.cpp:141] Setting up inception_3b/output
I0403 20:09:14.701951 10704 net.cpp:148] Top shape: 24 480 28 28 (9031680)
I0403 20:09:14.701969 10704 net.cpp:156] Memory required for data: 809239584
I0403 20:09:14.701988 10704 layer_factory.hpp:77] Creating layer pool3/3x3_s2
I0403 20:09:14.702009 10704 net.cpp:91] Creating Layer pool3/3x3_s2
I0403 20:09:14.702030 10704 net.cpp:425] pool3/3x3_s2 <- inception_3b/output
I0403 20:09:14.702055 10704 net.cpp:399] pool3/3x3_s2 -> pool3/3x3_s2
I0403 20:09:14.702142 10704 net.cpp:141] Setting up pool3/3x3_s2
I0403 20:09:14.702172 10704 net.cpp:148] Top shape: 24 480 14 14 (2257920)
I0403 20:09:14.702190 10704 net.cpp:156] Memory required for data: 818271264
I0403 20:09:14.702208 10704 layer_factory.hpp:77] Creating layer pool3/3x3_s2_pool3/3x3_s2_0_split
I0403 20:09:14.702232 10704 net.cpp:91] Creating Layer pool3/3x3_s2_pool3/3x3_s2_0_split
I0403 20:09:14.702267 10704 net.cpp:425] pool3/3x3_s2_pool3/3x3_s2_0_split <- pool3/3x3_s2
I0403 20:09:14.702291 10704 net.cpp:399] pool3/3x3_s2_pool3/3x3_s2_0_split -> pool3/3x3_s2_pool3/3x3_s2_0_split_0
I0403 20:09:14.702316 10704 net.cpp:399] pool3/3x3_s2_pool3/3x3_s2_0_split -> pool3/3x3_s2_pool3/3x3_s2_0_split_1
I0403 20:09:14.702342 10704 net.cpp:399] pool3/3x3_s2_pool3/3x3_s2_0_split -> pool3/3x3_s2_pool3/3x3_s2_0_split_2
I0403 20:09:14.702368 10704 net.cpp:399] pool3/3x3_s2_pool3/3x3_s2_0_split -> pool3/3x3_s2_pool3/3x3_s2_0_split_3
I0403 20:09:14.702460 10704 net.cpp:141] Setting up pool3/3x3_s2_pool3/3x3_s2_0_split
I0403 20:09:14.702488 10704 net.cpp:148] Top shape: 24 480 14 14 (2257920)
I0403 20:09:14.702508 10704 net.cpp:148] Top shape: 24 480 14 14 (2257920)
I0403 20:09:14.702527 10704 net.cpp:148] Top shape: 24 480 14 14 (2257920)
I0403 20:09:14.702545 10704 net.cpp:148] Top shape: 24 480 14 14 (2257920)
I0403 20:09:14.702563 10704 net.cpp:156] Memory required for data: 854397984
I0403 20:09:14.702580 10704 layer_factory.hpp:77] Creating layer inception_4a/1x1
I0403 20:09:14.702608 10704 net.cpp:91] Creating Layer inception_4a/1x1
I0403 20:09:14.702630 10704 net.cpp:425] inception_4a/1x1 <- pool3/3x3_s2_pool3/3x3_s2_0_split_0
I0403 20:09:14.702656 10704 net.cpp:399] inception_4a/1x1 -> inception_4a/1x1
I0403 20:09:14.704562 10704 net.cpp:141] Setting up inception_4a/1x1
I0403 20:09:14.704597 10704 net.cpp:148] Top shape: 24 192 14 14 (903168)
I0403 20:09:14.704617 10704 net.cpp:156] Memory required for data: 858010656
I0403 20:09:14.704641 10704 layer_factory.hpp:77] Creating layer inception_4a/relu_1x1
I0403 20:09:14.704666 10704 net.cpp:91] Creating Layer inception_4a/relu_1x1
I0403 20:09:14.704685 10704 net.cpp:425] inception_4a/relu_1x1 <- inception_4a/1x1
I0403 20:09:14.704707 10704 net.cpp:386] inception_4a/relu_1x1 -> inception_4a/1x1 (in-place)
I0403 20:09:14.704921 10704 net.cpp:141] Setting up inception_4a/relu_1x1
I0403 20:09:14.704957 10704 net.cpp:148] Top shape: 24 192 14 14 (903168)
I0403 20:09:14.704977 10704 net.cpp:156] Memory required for data: 861623328
I0403 20:09:14.704995 10704 layer_factory.hpp:77] Creating layer inception_4a/3x3_reduce
I0403 20:09:14.705023 10704 net.cpp:91] Creating Layer inception_4a/3x3_reduce
I0403 20:09:14.705042 10704 net.cpp:425] inception_4a/3x3_reduce <- pool3/3x3_s2_pool3/3x3_s2_0_split_1
I0403 20:09:14.705067 10704 net.cpp:399] inception_4a/3x3_reduce -> inception_4a/3x3_reduce
I0403 20:09:14.706599 10704 net.cpp:141] Setting up inception_4a/3x3_reduce
I0403 20:09:14.706634 10704 net.cpp:148] Top shape: 24 96 14 14 (451584)
I0403 20:09:14.706655 10704 net.cpp:156] Memory required for data: 863429664
I0403 20:09:14.706686 10704 layer_factory.hpp:77] Creating layer inception_4a/relu_3x3_reduce
I0403 20:09:14.706712 10704 net.cpp:91] Creating Layer inception_4a/relu_3x3_reduce
I0403 20:09:14.706733 10704 net.cpp:425] inception_4a/relu_3x3_reduce <- inception_4a/3x3_reduce
I0403 20:09:14.706756 10704 net.cpp:386] inception_4a/relu_3x3_reduce -> inception_4a/3x3_reduce (in-place)
I0403 20:09:14.706969 10704 net.cpp:141] Setting up inception_4a/relu_3x3_reduce
I0403 20:09:14.707000 10704 net.cpp:148] Top shape: 24 96 14 14 (451584)
I0403 20:09:14.707020 10704 net.cpp:156] Memory required for data: 865236000
I0403 20:09:14.707039 10704 layer_factory.hpp:77] Creating layer inception_4a/3x3
I0403 20:09:14.707068 10704 net.cpp:91] Creating Layer inception_4a/3x3
I0403 20:09:14.707092 10704 net.cpp:425] inception_4a/3x3 <- inception_4a/3x3_reduce
I0403 20:09:14.707115 10704 net.cpp:399] inception_4a/3x3 -> inception_4a/3x3
I0403 20:09:14.710367 10704 net.cpp:141] Setting up inception_4a/3x3
I0403 20:09:14.710407 10704 net.cpp:148] Top shape: 24 208 14 14 (978432)
I0403 20:09:14.710429 10704 net.cpp:156] Memory required for data: 869149728
I0403 20:09:14.710451 10704 layer_factory.hpp:77] Creating layer inception_4a/relu_3x3
I0403 20:09:14.710475 10704 net.cpp:91] Creating Layer inception_4a/relu_3x3
I0403 20:09:14.710495 10704 net.cpp:425] inception_4a/relu_3x3 <- inception_4a/3x3
I0403 20:09:14.710516 10704 net.cpp:386] inception_4a/relu_3x3 -> inception_4a/3x3 (in-place)
I0403 20:09:14.710860 10704 net.cpp:141] Setting up inception_4a/relu_3x3
I0403 20:09:14.710896 10704 net.cpp:148] Top shape: 24 208 14 14 (978432)
I0403 20:09:14.710916 10704 net.cpp:156] Memory required for data: 873063456
I0403 20:09:14.710935 10704 layer_factory.hpp:77] Creating layer inception_4a/5x5_reduce
I0403 20:09:14.710963 10704 net.cpp:91] Creating Layer inception_4a/5x5_reduce
I0403 20:09:14.710984 10704 net.cpp:425] inception_4a/5x5_reduce <- pool3/3x3_s2_pool3/3x3_s2_0_split_2
I0403 20:09:14.711009 10704 net.cpp:399] inception_4a/5x5_reduce -> inception_4a/5x5_reduce
I0403 20:09:14.712263 10704 net.cpp:141] Setting up inception_4a/5x5_reduce
I0403 20:09:14.712301 10704 net.cpp:148] Top shape: 24 16 14 14 (75264)
I0403 20:09:14.712321 10704 net.cpp:156] Memory required for data: 873364512
I0403 20:09:14.712344 10704 layer_factory.hpp:77] Creating layer inception_4a/relu_5x5_reduce
I0403 20:09:14.712366 10704 net.cpp:91] Creating Layer inception_4a/relu_5x5_reduce
I0403 20:09:14.712386 10704 net.cpp:425] inception_4a/relu_5x5_reduce <- inception_4a/5x5_reduce
I0403 20:09:14.712412 10704 net.cpp:386] inception_4a/relu_5x5_reduce -> inception_4a/5x5_reduce (in-place)
I0403 20:09:14.712635 10704 net.cpp:141] Setting up inception_4a/relu_5x5_reduce
I0403 20:09:14.712666 10704 net.cpp:148] Top shape: 24 16 14 14 (75264)
I0403 20:09:14.712685 10704 net.cpp:156] Memory required for data: 873665568
I0403 20:09:14.712704 10704 layer_factory.hpp:77] Creating layer inception_4a/5x5
I0403 20:09:14.712733 10704 net.cpp:91] Creating Layer inception_4a/5x5
I0403 20:09:14.712754 10704 net.cpp:425] inception_4a/5x5 <- inception_4a/5x5_reduce
I0403 20:09:14.712781 10704 net.cpp:399] inception_4a/5x5 -> inception_4a/5x5
I0403 20:09:14.714098 10704 net.cpp:141] Setting up inception_4a/5x5
I0403 20:09:14.714133 10704 net.cpp:148] Top shape: 24 48 14 14 (225792)
I0403 20:09:14.714153 10704 net.cpp:156] Memory required for data: 874568736
I0403 20:09:14.714176 10704 layer_factory.hpp:77] Creating layer inception_4a/relu_5x5
I0403 20:09:14.714202 10704 net.cpp:91] Creating Layer inception_4a/relu_5x5
I0403 20:09:14.714222 10704 net.cpp:425] inception_4a/relu_5x5 <- inception_4a/5x5
I0403 20:09:14.714251 10704 net.cpp:386] inception_4a/relu_5x5 -> inception_4a/5x5 (in-place)
I0403 20:09:14.714470 10704 net.cpp:141] Setting up inception_4a/relu_5x5
I0403 20:09:14.714503 10704 net.cpp:148] Top shape: 24 48 14 14 (225792)
I0403 20:09:14.714524 10704 net.cpp:156] Memory required for data: 875471904
I0403 20:09:14.714543 10704 layer_factory.hpp:77] Creating layer inception_4a/pool
I0403 20:09:14.714565 10704 net.cpp:91] Creating Layer inception_4a/pool
I0403 20:09:14.714586 10704 net.cpp:425] inception_4a/pool <- pool3/3x3_s2_pool3/3x3_s2_0_split_3
I0403 20:09:14.714608 10704 net.cpp:399] inception_4a/pool -> inception_4a/pool
I0403 20:09:14.714690 10704 net.cpp:141] Setting up inception_4a/pool
I0403 20:09:14.714720 10704 net.cpp:148] Top shape: 24 480 14 14 (2257920)
I0403 20:09:14.714738 10704 net.cpp:156] Memory required for data: 884503584
I0403 20:09:14.714757 10704 layer_factory.hpp:77] Creating layer inception_4a/pool_proj
I0403 20:09:14.714786 10704 net.cpp:91] Creating Layer inception_4a/pool_proj
I0403 20:09:14.714807 10704 net.cpp:425] inception_4a/pool_proj <- inception_4a/pool
I0403 20:09:14.714833 10704 net.cpp:399] inception_4a/pool_proj -> inception_4a/pool_proj
I0403 20:09:14.716269 10704 net.cpp:141] Setting up inception_4a/pool_proj
I0403 20:09:14.716310 10704 net.cpp:148] Top shape: 24 64 14 14 (301056)
I0403 20:09:14.716348 10704 net.cpp:156] Memory required for data: 885707808
I0403 20:09:14.716372 10704 layer_factory.hpp:77] Creating layer inception_4a/relu_pool_proj
I0403 20:09:14.716399 10704 net.cpp:91] Creating Layer inception_4a/relu_pool_proj
I0403 20:09:14.716420 10704 net.cpp:425] inception_4a/relu_pool_proj <- inception_4a/pool_proj
I0403 20:09:14.716442 10704 net.cpp:386] inception_4a/relu_pool_proj -> inception_4a/pool_proj (in-place)
I0403 20:09:14.716783 10704 net.cpp:141] Setting up inception_4a/relu_pool_proj
I0403 20:09:14.716816 10704 net.cpp:148] Top shape: 24 64 14 14 (301056)
I0403 20:09:14.716835 10704 net.cpp:156] Memory required for data: 886912032
I0403 20:09:14.716855 10704 layer_factory.hpp:77] Creating layer inception_4a/output
I0403 20:09:14.716879 10704 net.cpp:91] Creating Layer inception_4a/output
I0403 20:09:14.716900 10704 net.cpp:425] inception_4a/output <- inception_4a/1x1
I0403 20:09:14.716922 10704 net.cpp:425] inception_4a/output <- inception_4a/3x3
I0403 20:09:14.716941 10704 net.cpp:425] inception_4a/output <- inception_4a/5x5
I0403 20:09:14.716963 10704 net.cpp:425] inception_4a/output <- inception_4a/pool_proj
I0403 20:09:14.716985 10704 net.cpp:399] inception_4a/output -> inception_4a/output
I0403 20:09:14.717041 10704 net.cpp:141] Setting up inception_4a/output
I0403 20:09:14.717072 10704 net.cpp:148] Top shape: 24 512 14 14 (2408448)
I0403 20:09:14.717089 10704 net.cpp:156] Memory required for data: 896545824
I0403 20:09:14.717108 10704 layer_factory.hpp:77] Creating layer inception_4a/output_inception_4a/output_0_split
I0403 20:09:14.717130 10704 net.cpp:91] Creating Layer inception_4a/output_inception_4a/output_0_split
I0403 20:09:14.717150 10704 net.cpp:425] inception_4a/output_inception_4a/output_0_split <- inception_4a/output
I0403 20:09:14.717175 10704 net.cpp:399] inception_4a/output_inception_4a/output_0_split -> inception_4a/output_inception_4a/output_0_split_0
I0403 20:09:14.717201 10704 net.cpp:399] inception_4a/output_inception_4a/output_0_split -> inception_4a/output_inception_4a/output_0_split_1
I0403 20:09:14.717227 10704 net.cpp:399] inception_4a/output_inception_4a/output_0_split -> inception_4a/output_inception_4a/output_0_split_2
I0403 20:09:14.717262 10704 net.cpp:399] inception_4a/output_inception_4a/output_0_split -> inception_4a/output_inception_4a/output_0_split_3
I0403 20:09:14.717289 10704 net.cpp:399] inception_4a/output_inception_4a/output_0_split -> inception_4a/output_inception_4a/output_0_split_4
I0403 20:09:14.717406 10704 net.cpp:141] Setting up inception_4a/output_inception_4a/output_0_split
I0403 20:09:14.717435 10704 net.cpp:148] Top shape: 24 512 14 14 (2408448)
I0403 20:09:14.717458 10704 net.cpp:148] Top shape: 24 512 14 14 (2408448)
I0403 20:09:14.717478 10704 net.cpp:148] Top shape: 24 512 14 14 (2408448)
I0403 20:09:14.717497 10704 net.cpp:148] Top shape: 24 512 14 14 (2408448)
I0403 20:09:14.717517 10704 net.cpp:148] Top shape: 24 512 14 14 (2408448)
I0403 20:09:14.717535 10704 net.cpp:156] Memory required for data: 944714784
I0403 20:09:14.717555 10704 layer_factory.hpp:77] Creating layer loss1/ave_pool
I0403 20:09:14.717576 10704 net.cpp:91] Creating Layer loss1/ave_pool
I0403 20:09:14.717597 10704 net.cpp:425] loss1/ave_pool <- inception_4a/output_inception_4a/output_0_split_0
I0403 20:09:14.717622 10704 net.cpp:399] loss1/ave_pool -> loss1/ave_pool
I0403 20:09:14.717878 10704 net.cpp:141] Setting up loss1/ave_pool
I0403 20:09:14.717911 10704 net.cpp:148] Top shape: 24 512 4 4 (196608)
I0403 20:09:14.717929 10704 net.cpp:156] Memory required for data: 945501216
I0403 20:09:14.717948 10704 layer_factory.hpp:77] Creating layer loss1/conv
I0403 20:09:14.717977 10704 net.cpp:91] Creating Layer loss1/conv
I0403 20:09:14.717998 10704 net.cpp:425] loss1/conv <- loss1/ave_pool
I0403 20:09:14.718025 10704 net.cpp:399] loss1/conv -> loss1/conv
I0403 20:09:14.719758 10704 net.cpp:141] Setting up loss1/conv
I0403 20:09:14.719796 10704 net.cpp:148] Top shape: 24 128 4 4 (49152)
I0403 20:09:14.719816 10704 net.cpp:156] Memory required for data: 945697824
I0403 20:09:14.719859 10704 layer_factory.hpp:77] Creating layer loss1/relu_conv
I0403 20:09:14.719882 10704 net.cpp:91] Creating Layer loss1/relu_conv
I0403 20:09:14.719902 10704 net.cpp:425] loss1/relu_conv <- loss1/conv
I0403 20:09:14.719924 10704 net.cpp:386] loss1/relu_conv -> loss1/conv (in-place)
I0403 20:09:14.720270 10704 net.cpp:141] Setting up loss1/relu_conv
I0403 20:09:14.720307 10704 net.cpp:148] Top shape: 24 128 4 4 (49152)
I0403 20:09:14.720326 10704 net.cpp:156] Memory required for data: 945894432
I0403 20:09:14.720346 10704 layer_factory.hpp:77] Creating layer loss1/fc
I0403 20:09:14.720376 10704 net.cpp:91] Creating Layer loss1/fc
I0403 20:09:14.720398 10704 net.cpp:425] loss1/fc <- loss1/conv
I0403 20:09:14.720425 10704 net.cpp:399] loss1/fc -> loss1/fc
I0403 20:09:14.742612 10704 net.cpp:141] Setting up loss1/fc
I0403 20:09:14.742657 10704 net.cpp:148] Top shape: 24 1024 (24576)
I0403 20:09:14.742678 10704 net.cpp:156] Memory required for data: 945992736
I0403 20:09:14.742702 10704 layer_factory.hpp:77] Creating layer loss1/relu_fc
I0403 20:09:14.742725 10704 net.cpp:91] Creating Layer loss1/relu_fc
I0403 20:09:14.742744 10704 net.cpp:425] loss1/relu_fc <- loss1/fc
I0403 20:09:14.742765 10704 net.cpp:386] loss1/relu_fc -> loss1/fc (in-place)
I0403 20:09:14.742998 10704 net.cpp:141] Setting up loss1/relu_fc
I0403 20:09:14.743032 10704 net.cpp:148] Top shape: 24 1024 (24576)
I0403 20:09:14.743052 10704 net.cpp:156] Memory required for data: 946091040
I0403 20:09:14.743070 10704 layer_factory.hpp:77] Creating layer loss1/drop_fc
I0403 20:09:14.743103 10704 net.cpp:91] Creating Layer loss1/drop_fc
I0403 20:09:14.743125 10704 net.cpp:425] loss1/drop_fc <- loss1/fc
I0403 20:09:14.743149 10704 net.cpp:386] loss1/drop_fc -> loss1/fc (in-place)
I0403 20:09:14.743213 10704 net.cpp:141] Setting up loss1/drop_fc
I0403 20:09:14.743248 10704 net.cpp:148] Top shape: 24 1024 (24576)
I0403 20:09:14.743269 10704 net.cpp:156] Memory required for data: 946189344
I0403 20:09:14.743289 10704 layer_factory.hpp:77] Creating layer loss1/classifier_plantvillage
I0403 20:09:14.743322 10704 net.cpp:91] Creating Layer loss1/classifier_plantvillage
I0403 20:09:14.743345 10704 net.cpp:425] loss1/classifier_plantvillage <- loss1/fc
I0403 20:09:14.743367 10704 net.cpp:399] loss1/classifier_plantvillage -> loss1/classifier_plantvillage
I0403 20:09:14.744483 10704 net.cpp:141] Setting up loss1/classifier_plantvillage
I0403 20:09:14.744523 10704 net.cpp:148] Top shape: 24 38 (912)
I0403 20:09:14.744542 10704 net.cpp:156] Memory required for data: 946192992
I0403 20:09:14.744566 10704 layer_factory.hpp:77] Creating layer loss1/classifier_plantvillage_loss1/classifier_plantvillage_0_split
I0403 20:09:14.744590 10704 net.cpp:91] Creating Layer loss1/classifier_plantvillage_loss1/classifier_plantvillage_0_split
I0403 20:09:14.744607 10704 net.cpp:425] loss1/classifier_plantvillage_loss1/classifier_plantvillage_0_split <- loss1/classifier_plantvillage
I0403 20:09:14.744632 10704 net.cpp:399] loss1/classifier_plantvillage_loss1/classifier_plantvillage_0_split -> loss1/classifier_plantvillage_loss1/classifier_plantvillage_0_split_0
I0403 20:09:14.744657 10704 net.cpp:399] loss1/classifier_plantvillage_loss1/classifier_plantvillage_0_split -> loss1/classifier_plantvillage_loss1/classifier_plantvillage_0_split_1
I0403 20:09:14.744683 10704 net.cpp:399] loss1/classifier_plantvillage_loss1/classifier_plantvillage_0_split -> loss1/classifier_plantvillage_loss1/classifier_plantvillage_0_split_2
I0403 20:09:14.744765 10704 net.cpp:141] Setting up loss1/classifier_plantvillage_loss1/classifier_plantvillage_0_split
I0403 20:09:14.744793 10704 net.cpp:148] Top shape: 24 38 (912)
I0403 20:09:14.744814 10704 net.cpp:148] Top shape: 24 38 (912)
I0403 20:09:14.744834 10704 net.cpp:148] Top shape: 24 38 (912)
I0403 20:09:14.744853 10704 net.cpp:156] Memory required for data: 946203936
I0403 20:09:14.744871 10704 layer_factory.hpp:77] Creating layer inception_4b/1x1
I0403 20:09:14.744895 10704 net.cpp:91] Creating Layer inception_4b/1x1
I0403 20:09:14.744935 10704 net.cpp:425] inception_4b/1x1 <- inception_4a/output_inception_4a/output_0_split_1
I0403 20:09:14.744963 10704 net.cpp:399] inception_4b/1x1 -> inception_4b/1x1
I0403 20:09:14.746948 10704 net.cpp:141] Setting up inception_4b/1x1
I0403 20:09:14.746986 10704 net.cpp:148] Top shape: 24 160 14 14 (752640)
I0403 20:09:14.747009 10704 net.cpp:156] Memory required for data: 949214496
I0403 20:09:14.747031 10704 layer_factory.hpp:77] Creating layer inception_4b/relu_1x1
I0403 20:09:14.747054 10704 net.cpp:91] Creating Layer inception_4b/relu_1x1
I0403 20:09:14.747074 10704 net.cpp:425] inception_4b/relu_1x1 <- inception_4b/1x1
I0403 20:09:14.747098 10704 net.cpp:386] inception_4b/relu_1x1 -> inception_4b/1x1 (in-place)
I0403 20:09:14.747328 10704 net.cpp:141] Setting up inception_4b/relu_1x1
I0403 20:09:14.747361 10704 net.cpp:148] Top shape: 24 160 14 14 (752640)
I0403 20:09:14.747380 10704 net.cpp:156] Memory required for data: 952225056
I0403 20:09:14.747400 10704 layer_factory.hpp:77] Creating layer inception_4b/3x3_reduce
I0403 20:09:14.747428 10704 net.cpp:91] Creating Layer inception_4b/3x3_reduce
I0403 20:09:14.747449 10704 net.cpp:425] inception_4b/3x3_reduce <- inception_4a/output_inception_4a/output_0_split_2
I0403 20:09:14.747475 10704 net.cpp:399] inception_4b/3x3_reduce -> inception_4b/3x3_reduce
I0403 20:09:14.749132 10704 net.cpp:141] Setting up inception_4b/3x3_reduce
I0403 20:09:14.749167 10704 net.cpp:148] Top shape: 24 112 14 14 (526848)
I0403 20:09:14.749187 10704 net.cpp:156] Memory required for data: 954332448
I0403 20:09:14.749212 10704 layer_factory.hpp:77] Creating layer inception_4b/relu_3x3_reduce
I0403 20:09:14.749235 10704 net.cpp:91] Creating Layer inception_4b/relu_3x3_reduce
I0403 20:09:14.749264 10704 net.cpp:425] inception_4b/relu_3x3_reduce <- inception_4b/3x3_reduce
I0403 20:09:14.749286 10704 net.cpp:386] inception_4b/relu_3x3_reduce -> inception_4b/3x3_reduce (in-place)
I0403 20:09:14.749626 10704 net.cpp:141] Setting up inception_4b/relu_3x3_reduce
I0403 20:09:14.749660 10704 net.cpp:148] Top shape: 24 112 14 14 (526848)
I0403 20:09:14.749680 10704 net.cpp:156] Memory required for data: 956439840
I0403 20:09:14.749698 10704 layer_factory.hpp:77] Creating layer inception_4b/3x3
I0403 20:09:14.749725 10704 net.cpp:91] Creating Layer inception_4b/3x3
I0403 20:09:14.749747 10704 net.cpp:425] inception_4b/3x3 <- inception_4b/3x3_reduce
I0403 20:09:14.749775 10704 net.cpp:399] inception_4b/3x3 -> inception_4b/3x3
I0403 20:09:14.753439 10704 net.cpp:141] Setting up inception_4b/3x3
I0403 20:09:14.753475 10704 net.cpp:148] Top shape: 24 224 14 14 (1053696)
I0403 20:09:14.753494 10704 net.cpp:156] Memory required for data: 960654624
I0403 20:09:14.753520 10704 layer_factory.hpp:77] Creating layer inception_4b/relu_3x3
I0403 20:09:14.753545 10704 net.cpp:91] Creating Layer inception_4b/relu_3x3
I0403 20:09:14.753566 10704 net.cpp:425] inception_4b/relu_3x3 <- inception_4b/3x3
I0403 20:09:14.753587 10704 net.cpp:386] inception_4b/relu_3x3 -> inception_4b/3x3 (in-place)
I0403 20:09:14.753823 10704 net.cpp:141] Setting up inception_4b/relu_3x3
I0403 20:09:14.753857 10704 net.cpp:148] Top shape: 24 224 14 14 (1053696)
I0403 20:09:14.753876 10704 net.cpp:156] Memory required for data: 964869408
I0403 20:09:14.753895 10704 layer_factory.hpp:77] Creating layer inception_4b/5x5_reduce
I0403 20:09:14.753923 10704 net.cpp:91] Creating Layer inception_4b/5x5_reduce
I0403 20:09:14.753945 10704 net.cpp:425] inception_4b/5x5_reduce <- inception_4a/output_inception_4a/output_0_split_3
I0403 20:09:14.753968 10704 net.cpp:399] inception_4b/5x5_reduce -> inception_4b/5x5_reduce
I0403 20:09:14.755313 10704 net.cpp:141] Setting up inception_4b/5x5_reduce
I0403 20:09:14.755350 10704 net.cpp:148] Top shape: 24 24 14 14 (112896)
I0403 20:09:14.755372 10704 net.cpp:156] Memory required for data: 965320992
I0403 20:09:14.755395 10704 layer_factory.hpp:77] Creating layer inception_4b/relu_5x5_reduce
I0403 20:09:14.755417 10704 net.cpp:91] Creating Layer inception_4b/relu_5x5_reduce
I0403 20:09:14.755455 10704 net.cpp:425] inception_4b/relu_5x5_reduce <- inception_4b/5x5_reduce
I0403 20:09:14.755482 10704 net.cpp:386] inception_4b/relu_5x5_reduce -> inception_4b/5x5_reduce (in-place)
I0403 20:09:14.755710 10704 net.cpp:141] Setting up inception_4b/relu_5x5_reduce
I0403 20:09:14.755743 10704 net.cpp:148] Top shape: 24 24 14 14 (112896)
I0403 20:09:14.755761 10704 net.cpp:156] Memory required for data: 965772576
I0403 20:09:14.755779 10704 layer_factory.hpp:77] Creating layer inception_4b/5x5
I0403 20:09:14.755806 10704 net.cpp:91] Creating Layer inception_4b/5x5
I0403 20:09:14.755830 10704 net.cpp:425] inception_4b/5x5 <- inception_4b/5x5_reduce
I0403 20:09:14.755856 10704 net.cpp:399] inception_4b/5x5 -> inception_4b/5x5
I0403 20:09:14.757374 10704 net.cpp:141] Setting up inception_4b/5x5
I0403 20:09:14.757412 10704 net.cpp:148] Top shape: 24 64 14 14 (301056)
I0403 20:09:14.757433 10704 net.cpp:156] Memory required for data: 966976800
I0403 20:09:14.757457 10704 layer_factory.hpp:77] Creating layer inception_4b/relu_5x5
I0403 20:09:14.757480 10704 net.cpp:91] Creating Layer inception_4b/relu_5x5
I0403 20:09:14.757500 10704 net.cpp:425] inception_4b/relu_5x5 <- inception_4b/5x5
I0403 20:09:14.757526 10704 net.cpp:386] inception_4b/relu_5x5 -> inception_4b/5x5 (in-place)
I0403 20:09:14.757869 10704 net.cpp:141] Setting up inception_4b/relu_5x5
I0403 20:09:14.757904 10704 net.cpp:148] Top shape: 24 64 14 14 (301056)
I0403 20:09:14.757923 10704 net.cpp:156] Memory required for data: 968181024
I0403 20:09:14.757942 10704 layer_factory.hpp:77] Creating layer inception_4b/pool
I0403 20:09:14.757966 10704 net.cpp:91] Creating Layer inception_4b/pool
I0403 20:09:14.757987 10704 net.cpp:425] inception_4b/pool <- inception_4a/output_inception_4a/output_0_split_4
I0403 20:09:14.758019 10704 net.cpp:399] inception_4b/pool -> inception_4b/pool
I0403 20:09:14.758100 10704 net.cpp:141] Setting up inception_4b/pool
I0403 20:09:14.758129 10704 net.cpp:148] Top shape: 24 512 14 14 (2408448)
I0403 20:09:14.758147 10704 net.cpp:156] Memory required for data: 977814816
I0403 20:09:14.758168 10704 layer_factory.hpp:77] Creating layer inception_4b/pool_proj
I0403 20:09:14.758199 10704 net.cpp:91] Creating Layer inception_4b/pool_proj
I0403 20:09:14.758222 10704 net.cpp:425] inception_4b/pool_proj <- inception_4b/pool
I0403 20:09:14.758251 10704 net.cpp:399] inception_4b/pool_proj -> inception_4b/pool_proj
I0403 20:09:14.759727 10704 net.cpp:141] Setting up inception_4b/pool_proj
I0403 20:09:14.759763 10704 net.cpp:148] Top shape: 24 64 14 14 (301056)
I0403 20:09:14.759783 10704 net.cpp:156] Memory required for data: 979019040
I0403 20:09:14.759806 10704 layer_factory.hpp:77] Creating layer inception_4b/relu_pool_proj
I0403 20:09:14.759829 10704 net.cpp:91] Creating Layer inception_4b/relu_pool_proj
I0403 20:09:14.759848 10704 net.cpp:425] inception_4b/relu_pool_proj <- inception_4b/pool_proj
I0403 20:09:14.759874 10704 net.cpp:386] inception_4b/relu_pool_proj -> inception_4b/pool_proj (in-place)
I0403 20:09:14.760099 10704 net.cpp:141] Setting up inception_4b/relu_pool_proj
I0403 20:09:14.760133 10704 net.cpp:148] Top shape: 24 64 14 14 (301056)
I0403 20:09:14.760151 10704 net.cpp:156] Memory required for data: 980223264
I0403 20:09:14.760171 10704 layer_factory.hpp:77] Creating layer inception_4b/output
I0403 20:09:14.760196 10704 net.cpp:91] Creating Layer inception_4b/output
I0403 20:09:14.760217 10704 net.cpp:425] inception_4b/output <- inception_4b/1x1
I0403 20:09:14.760237 10704 net.cpp:425] inception_4b/output <- inception_4b/3x3
I0403 20:09:14.760265 10704 net.cpp:425] inception_4b/output <- inception_4b/5x5
I0403 20:09:14.760287 10704 net.cpp:425] inception_4b/output <- inception_4b/pool_proj
I0403 20:09:14.760308 10704 net.cpp:399] inception_4b/output -> inception_4b/output
I0403 20:09:14.760363 10704 net.cpp:141] Setting up inception_4b/output
I0403 20:09:14.760396 10704 net.cpp:148] Top shape: 24 512 14 14 (2408448)
I0403 20:09:14.760416 10704 net.cpp:156] Memory required for data: 989857056
I0403 20:09:14.760452 10704 layer_factory.hpp:77] Creating layer inception_4b/output_inception_4b/output_0_split
I0403 20:09:14.760474 10704 net.cpp:91] Creating Layer inception_4b/output_inception_4b/output_0_split
I0403 20:09:14.760494 10704 net.cpp:425] inception_4b/output_inception_4b/output_0_split <- inception_4b/output
I0403 20:09:14.760519 10704 net.cpp:399] inception_4b/output_inception_4b/output_0_split -> inception_4b/output_inception_4b/output_0_split_0
I0403 20:09:14.760545 10704 net.cpp:399] inception_4b/output_inception_4b/output_0_split -> inception_4b/output_inception_4b/output_0_split_1
I0403 20:09:14.760571 10704 net.cpp:399] inception_4b/output_inception_4b/output_0_split -> inception_4b/output_inception_4b/output_0_split_2
I0403 20:09:14.760596 10704 net.cpp:399] inception_4b/output_inception_4b/output_0_split -> inception_4b/output_inception_4b/output_0_split_3
I0403 20:09:14.760699 10704 net.cpp:141] Setting up inception_4b/output_inception_4b/output_0_split
I0403 20:09:14.760730 10704 net.cpp:148] Top shape: 24 512 14 14 (2408448)
I0403 20:09:14.760752 10704 net.cpp:148] Top shape: 24 512 14 14 (2408448)
I0403 20:09:14.760771 10704 net.cpp:148] Top shape: 24 512 14 14 (2408448)
I0403 20:09:14.760790 10704 net.cpp:148] Top shape: 24 512 14 14 (2408448)
I0403 20:09:14.760807 10704 net.cpp:156] Memory required for data: 1028392224
I0403 20:09:14.760828 10704 layer_factory.hpp:77] Creating layer inception_4c/1x1
I0403 20:09:14.760856 10704 net.cpp:91] Creating Layer inception_4c/1x1
I0403 20:09:14.760879 10704 net.cpp:425] inception_4c/1x1 <- inception_4b/output_inception_4b/output_0_split_0
I0403 20:09:14.760903 10704 net.cpp:399] inception_4c/1x1 -> inception_4c/1x1
I0403 20:09:14.762686 10704 net.cpp:141] Setting up inception_4c/1x1
I0403 20:09:14.762723 10704 net.cpp:148] Top shape: 24 128 14 14 (602112)
I0403 20:09:14.762743 10704 net.cpp:156] Memory required for data: 1030800672
I0403 20:09:14.762766 10704 layer_factory.hpp:77] Creating layer inception_4c/relu_1x1
I0403 20:09:14.762791 10704 net.cpp:91] Creating Layer inception_4c/relu_1x1
I0403 20:09:14.762814 10704 net.cpp:425] inception_4c/relu_1x1 <- inception_4c/1x1
I0403 20:09:14.762835 10704 net.cpp:386] inception_4c/relu_1x1 -> inception_4c/1x1 (in-place)
I0403 20:09:14.763062 10704 net.cpp:141] Setting up inception_4c/relu_1x1
I0403 20:09:14.763098 10704 net.cpp:148] Top shape: 24 128 14 14 (602112)
I0403 20:09:14.763116 10704 net.cpp:156] Memory required for data: 1033209120
I0403 20:09:14.763134 10704 layer_factory.hpp:77] Creating layer inception_4c/3x3_reduce
I0403 20:09:14.763164 10704 net.cpp:91] Creating Layer inception_4c/3x3_reduce
I0403 20:09:14.763186 10704 net.cpp:425] inception_4c/3x3_reduce <- inception_4b/output_inception_4b/output_0_split_1
I0403 20:09:14.763211 10704 net.cpp:399] inception_4c/3x3_reduce -> inception_4c/3x3_reduce
I0403 20:09:14.765604 10704 net.cpp:141] Setting up inception_4c/3x3_reduce
I0403 20:09:14.765645 10704 net.cpp:148] Top shape: 24 128 14 14 (602112)
I0403 20:09:14.765666 10704 net.cpp:156] Memory required for data: 1035617568
I0403 20:09:14.765691 10704 layer_factory.hpp:77] Creating layer inception_4c/relu_3x3_reduce
I0403 20:09:14.765713 10704 net.cpp:91] Creating Layer inception_4c/relu_3x3_reduce
I0403 20:09:14.765733 10704 net.cpp:425] inception_4c/relu_3x3_reduce <- inception_4c/3x3_reduce
I0403 20:09:14.765759 10704 net.cpp:386] inception_4c/relu_3x3_reduce -> inception_4c/3x3_reduce (in-place)
I0403 20:09:14.766113 10704 net.cpp:141] Setting up inception_4c/relu_3x3_reduce
I0403 20:09:14.766149 10704 net.cpp:148] Top shape: 24 128 14 14 (602112)
I0403 20:09:14.766168 10704 net.cpp:156] Memory required for data: 1038026016
I0403 20:09:14.766187 10704 layer_factory.hpp:77] Creating layer inception_4c/3x3
I0403 20:09:14.766216 10704 net.cpp:91] Creating Layer inception_4c/3x3
I0403 20:09:14.766244 10704 net.cpp:425] inception_4c/3x3 <- inception_4c/3x3_reduce
I0403 20:09:14.766270 10704 net.cpp:399] inception_4c/3x3 -> inception_4c/3x3
I0403 20:09:14.770697 10704 net.cpp:141] Setting up inception_4c/3x3
I0403 20:09:14.770747 10704 net.cpp:148] Top shape: 24 256 14 14 (1204224)
I0403 20:09:14.770768 10704 net.cpp:156] Memory required for data: 1042842912
I0403 20:09:14.770809 10704 layer_factory.hpp:77] Creating layer inception_4c/relu_3x3
I0403 20:09:14.770835 10704 net.cpp:91] Creating Layer inception_4c/relu_3x3
I0403 20:09:14.770856 10704 net.cpp:425] inception_4c/relu_3x3 <- inception_4c/3x3
I0403 20:09:14.770881 10704 net.cpp:386] inception_4c/relu_3x3 -> inception_4c/3x3 (in-place)
I0403 20:09:14.771111 10704 net.cpp:141] Setting up inception_4c/relu_3x3
I0403 20:09:14.771142 10704 net.cpp:148] Top shape: 24 256 14 14 (1204224)
I0403 20:09:14.771160 10704 net.cpp:156] Memory required for data: 1047659808
I0403 20:09:14.771179 10704 layer_factory.hpp:77] Creating layer inception_4c/5x5_reduce
I0403 20:09:14.771209 10704 net.cpp:91] Creating Layer inception_4c/5x5_reduce
I0403 20:09:14.771232 10704 net.cpp:425] inception_4c/5x5_reduce <- inception_4b/output_inception_4b/output_0_split_2
I0403 20:09:14.771266 10704 net.cpp:399] inception_4c/5x5_reduce -> inception_4c/5x5_reduce
I0403 20:09:14.772635 10704 net.cpp:141] Setting up inception_4c/5x5_reduce
I0403 20:09:14.772675 10704 net.cpp:148] Top shape: 24 24 14 14 (112896)
I0403 20:09:14.772696 10704 net.cpp:156] Memory required for data: 1048111392
I0403 20:09:14.772721 10704 layer_factory.hpp:77] Creating layer inception_4c/relu_5x5_reduce
I0403 20:09:14.772742 10704 net.cpp:91] Creating Layer inception_4c/relu_5x5_reduce
I0403 20:09:14.772763 10704 net.cpp:425] inception_4c/relu_5x5_reduce <- inception_4c/5x5_reduce
I0403 20:09:14.772789 10704 net.cpp:386] inception_4c/relu_5x5_reduce -> inception_4c/5x5_reduce (in-place)
I0403 20:09:14.773018 10704 net.cpp:141] Setting up inception_4c/relu_5x5_reduce
I0403 20:09:14.773049 10704 net.cpp:148] Top shape: 24 24 14 14 (112896)
I0403 20:09:14.773069 10704 net.cpp:156] Memory required for data: 1048562976
I0403 20:09:14.773088 10704 layer_factory.hpp:77] Creating layer inception_4c/5x5
I0403 20:09:14.773115 10704 net.cpp:91] Creating Layer inception_4c/5x5
I0403 20:09:14.773139 10704 net.cpp:425] inception_4c/5x5 <- inception_4c/5x5_reduce
I0403 20:09:14.773165 10704 net.cpp:399] inception_4c/5x5 -> inception_4c/5x5
I0403 20:09:14.774703 10704 net.cpp:141] Setting up inception_4c/5x5
I0403 20:09:14.774737 10704 net.cpp:148] Top shape: 24 64 14 14 (301056)
I0403 20:09:14.774757 10704 net.cpp:156] Memory required for data: 1049767200
I0403 20:09:14.774780 10704 layer_factory.hpp:77] Creating layer inception_4c/relu_5x5
I0403 20:09:14.774806 10704 net.cpp:91] Creating Layer inception_4c/relu_5x5
I0403 20:09:14.774827 10704 net.cpp:425] inception_4c/relu_5x5 <- inception_4c/5x5
I0403 20:09:14.774849 10704 net.cpp:386] inception_4c/relu_5x5 -> inception_4c/5x5 (in-place)
I0403 20:09:14.775198 10704 net.cpp:141] Setting up inception_4c/relu_5x5
I0403 20:09:14.775230 10704 net.cpp:148] Top shape: 24 64 14 14 (301056)
I0403 20:09:14.775257 10704 net.cpp:156] Memory required for data: 1050971424
I0403 20:09:14.775277 10704 layer_factory.hpp:77] Creating layer inception_4c/pool
I0403 20:09:14.775303 10704 net.cpp:91] Creating Layer inception_4c/pool
I0403 20:09:14.775326 10704 net.cpp:425] inception_4c/pool <- inception_4b/output_inception_4b/output_0_split_3
I0403 20:09:14.775348 10704 net.cpp:399] inception_4c/pool -> inception_4c/pool
I0403 20:09:14.775431 10704 net.cpp:141] Setting up inception_4c/pool
I0403 20:09:14.775461 10704 net.cpp:148] Top shape: 24 512 14 14 (2408448)
I0403 20:09:14.775481 10704 net.cpp:156] Memory required for data: 1060605216
I0403 20:09:14.775501 10704 layer_factory.hpp:77] Creating layer inception_4c/pool_proj
I0403 20:09:14.775527 10704 net.cpp:91] Creating Layer inception_4c/pool_proj
I0403 20:09:14.775550 10704 net.cpp:425] inception_4c/pool_proj <- inception_4c/pool
I0403 20:09:14.775578 10704 net.cpp:399] inception_4c/pool_proj -> inception_4c/pool_proj
I0403 20:09:14.777082 10704 net.cpp:141] Setting up inception_4c/pool_proj
I0403 20:09:14.777117 10704 net.cpp:148] Top shape: 24 64 14 14 (301056)
I0403 20:09:14.777158 10704 net.cpp:156] Memory required for data: 1061809440
I0403 20:09:14.777184 10704 layer_factory.hpp:77] Creating layer inception_4c/relu_pool_proj
I0403 20:09:14.777206 10704 net.cpp:91] Creating Layer inception_4c/relu_pool_proj
I0403 20:09:14.777227 10704 net.cpp:425] inception_4c/relu_pool_proj <- inception_4c/pool_proj
I0403 20:09:14.777261 10704 net.cpp:386] inception_4c/relu_pool_proj -> inception_4c/pool_proj (in-place)
I0403 20:09:14.777493 10704 net.cpp:141] Setting up inception_4c/relu_pool_proj
I0403 20:09:14.777524 10704 net.cpp:148] Top shape: 24 64 14 14 (301056)
I0403 20:09:14.777544 10704 net.cpp:156] Memory required for data: 1063013664
I0403 20:09:14.777562 10704 layer_factory.hpp:77] Creating layer inception_4c/output
I0403 20:09:14.777585 10704 net.cpp:91] Creating Layer inception_4c/output
I0403 20:09:14.777607 10704 net.cpp:425] inception_4c/output <- inception_4c/1x1
I0403 20:09:14.777628 10704 net.cpp:425] inception_4c/output <- inception_4c/3x3
I0403 20:09:14.777649 10704 net.cpp:425] inception_4c/output <- inception_4c/5x5
I0403 20:09:14.777669 10704 net.cpp:425] inception_4c/output <- inception_4c/pool_proj
I0403 20:09:14.777693 10704 net.cpp:399] inception_4c/output -> inception_4c/output
I0403 20:09:14.777748 10704 net.cpp:141] Setting up inception_4c/output
I0403 20:09:14.777782 10704 net.cpp:148] Top shape: 24 512 14 14 (2408448)
I0403 20:09:14.777801 10704 net.cpp:156] Memory required for data: 1072647456
I0403 20:09:14.777819 10704 layer_factory.hpp:77] Creating layer inception_4c/output_inception_4c/output_0_split
I0403 20:09:14.777842 10704 net.cpp:91] Creating Layer inception_4c/output_inception_4c/output_0_split
I0403 20:09:14.777863 10704 net.cpp:425] inception_4c/output_inception_4c/output_0_split <- inception_4c/output
I0403 20:09:14.777887 10704 net.cpp:399] inception_4c/output_inception_4c/output_0_split -> inception_4c/output_inception_4c/output_0_split_0
I0403 20:09:14.777912 10704 net.cpp:399] inception_4c/output_inception_4c/output_0_split -> inception_4c/output_inception_4c/output_0_split_1
I0403 20:09:14.777938 10704 net.cpp:399] inception_4c/output_inception_4c/output_0_split -> inception_4c/output_inception_4c/output_0_split_2
I0403 20:09:14.777966 10704 net.cpp:399] inception_4c/output_inception_4c/output_0_split -> inception_4c/output_inception_4c/output_0_split_3
I0403 20:09:14.778069 10704 net.cpp:141] Setting up inception_4c/output_inception_4c/output_0_split
I0403 20:09:14.778102 10704 net.cpp:148] Top shape: 24 512 14 14 (2408448)
I0403 20:09:14.778126 10704 net.cpp:148] Top shape: 24 512 14 14 (2408448)
I0403 20:09:14.778146 10704 net.cpp:148] Top shape: 24 512 14 14 (2408448)
I0403 20:09:14.778165 10704 net.cpp:148] Top shape: 24 512 14 14 (2408448)
I0403 20:09:14.778183 10704 net.cpp:156] Memory required for data: 1111182624
I0403 20:09:14.778203 10704 layer_factory.hpp:77] Creating layer inception_4d/1x1
I0403 20:09:14.778230 10704 net.cpp:91] Creating Layer inception_4d/1x1
I0403 20:09:14.778257 10704 net.cpp:425] inception_4d/1x1 <- inception_4c/output_inception_4c/output_0_split_0
I0403 20:09:14.778283 10704 net.cpp:399] inception_4d/1x1 -> inception_4d/1x1
I0403 20:09:14.779980 10704 net.cpp:141] Setting up inception_4d/1x1
I0403 20:09:14.780019 10704 net.cpp:148] Top shape: 24 112 14 14 (526848)
I0403 20:09:14.780040 10704 net.cpp:156] Memory required for data: 1113290016
I0403 20:09:14.780063 10704 layer_factory.hpp:77] Creating layer inception_4d/relu_1x1
I0403 20:09:14.780086 10704 net.cpp:91] Creating Layer inception_4d/relu_1x1
I0403 20:09:14.780105 10704 net.cpp:425] inception_4d/relu_1x1 <- inception_4d/1x1
I0403 20:09:14.780128 10704 net.cpp:386] inception_4d/relu_1x1 -> inception_4d/1x1 (in-place)
I0403 20:09:14.780365 10704 net.cpp:141] Setting up inception_4d/relu_1x1
I0403 20:09:14.780400 10704 net.cpp:148] Top shape: 24 112 14 14 (526848)
I0403 20:09:14.780418 10704 net.cpp:156] Memory required for data: 1115397408
I0403 20:09:14.780436 10704 layer_factory.hpp:77] Creating layer inception_4d/3x3_reduce
I0403 20:09:14.780480 10704 net.cpp:91] Creating Layer inception_4d/3x3_reduce
I0403 20:09:14.780504 10704 net.cpp:425] inception_4d/3x3_reduce <- inception_4c/output_inception_4c/output_0_split_1
I0403 20:09:14.780527 10704 net.cpp:399] inception_4d/3x3_reduce -> inception_4d/3x3_reduce
I0403 20:09:14.782404 10704 net.cpp:141] Setting up inception_4d/3x3_reduce
I0403 20:09:14.782441 10704 net.cpp:148] Top shape: 24 144 14 14 (677376)
I0403 20:09:14.782464 10704 net.cpp:156] Memory required for data: 1118106912
I0403 20:09:14.782487 10704 layer_factory.hpp:77] Creating layer inception_4d/relu_3x3_reduce
I0403 20:09:14.782517 10704 net.cpp:91] Creating Layer inception_4d/relu_3x3_reduce
I0403 20:09:14.782541 10704 net.cpp:425] inception_4d/relu_3x3_reduce <- inception_4d/3x3_reduce
I0403 20:09:14.782564 10704 net.cpp:386] inception_4d/relu_3x3_reduce -> inception_4d/3x3_reduce (in-place)
I0403 20:09:14.782917 10704 net.cpp:141] Setting up inception_4d/relu_3x3_reduce
I0403 20:09:14.782948 10704 net.cpp:148] Top shape: 24 144 14 14 (677376)
I0403 20:09:14.782968 10704 net.cpp:156] Memory required for data: 1120816416
I0403 20:09:14.782986 10704 layer_factory.hpp:77] Creating layer inception_4d/3x3
I0403 20:09:14.783013 10704 net.cpp:91] Creating Layer inception_4d/3x3
I0403 20:09:14.783035 10704 net.cpp:425] inception_4d/3x3 <- inception_4d/3x3_reduce
I0403 20:09:14.783063 10704 net.cpp:399] inception_4d/3x3 -> inception_4d/3x3
I0403 20:09:14.788378 10704 net.cpp:141] Setting up inception_4d/3x3
I0403 20:09:14.788414 10704 net.cpp:148] Top shape: 24 288 14 14 (1354752)
I0403 20:09:14.788434 10704 net.cpp:156] Memory required for data: 1126235424
I0403 20:09:14.788461 10704 layer_factory.hpp:77] Creating layer inception_4d/relu_3x3
I0403 20:09:14.788486 10704 net.cpp:91] Creating Layer inception_4d/relu_3x3
I0403 20:09:14.788506 10704 net.cpp:425] inception_4d/relu_3x3 <- inception_4d/3x3
I0403 20:09:14.788528 10704 net.cpp:386] inception_4d/relu_3x3 -> inception_4d/3x3 (in-place)
I0403 20:09:14.788760 10704 net.cpp:141] Setting up inception_4d/relu_3x3
I0403 20:09:14.788791 10704 net.cpp:148] Top shape: 24 288 14 14 (1354752)
I0403 20:09:14.788810 10704 net.cpp:156] Memory required for data: 1131654432
I0403 20:09:14.788828 10704 layer_factory.hpp:77] Creating layer inception_4d/5x5_reduce
I0403 20:09:14.788856 10704 net.cpp:91] Creating Layer inception_4d/5x5_reduce
I0403 20:09:14.788877 10704 net.cpp:425] inception_4d/5x5_reduce <- inception_4c/output_inception_4c/output_0_split_2
I0403 20:09:14.788905 10704 net.cpp:399] inception_4d/5x5_reduce -> inception_4d/5x5_reduce
I0403 20:09:14.790328 10704 net.cpp:141] Setting up inception_4d/5x5_reduce
I0403 20:09:14.790367 10704 net.cpp:148] Top shape: 24 32 14 14 (150528)
I0403 20:09:14.790387 10704 net.cpp:156] Memory required for data: 1132256544
I0403 20:09:14.790411 10704 layer_factory.hpp:77] Creating layer inception_4d/relu_5x5_reduce
I0403 20:09:14.790433 10704 net.cpp:91] Creating Layer inception_4d/relu_5x5_reduce
I0403 20:09:14.790454 10704 net.cpp:425] inception_4d/relu_5x5_reduce <- inception_4d/5x5_reduce
I0403 20:09:14.790475 10704 net.cpp:386] inception_4d/relu_5x5_reduce -> inception_4d/5x5_reduce (in-place)
I0403 20:09:14.790716 10704 net.cpp:141] Setting up inception_4d/relu_5x5_reduce
I0403 20:09:14.790748 10704 net.cpp:148] Top shape: 24 32 14 14 (150528)
I0403 20:09:14.790767 10704 net.cpp:156] Memory required for data: 1132858656
I0403 20:09:14.790787 10704 layer_factory.hpp:77] Creating layer inception_4d/5x5
I0403 20:09:14.790815 10704 net.cpp:91] Creating Layer inception_4d/5x5
I0403 20:09:14.790838 10704 net.cpp:425] inception_4d/5x5 <- inception_4d/5x5_reduce
I0403 20:09:14.790863 10704 net.cpp:399] inception_4d/5x5 -> inception_4d/5x5
I0403 20:09:14.792670 10704 net.cpp:141] Setting up inception_4d/5x5
I0403 20:09:14.792706 10704 net.cpp:148] Top shape: 24 64 14 14 (301056)
I0403 20:09:14.792726 10704 net.cpp:156] Memory required for data: 1134062880
I0403 20:09:14.792750 10704 layer_factory.hpp:77] Creating layer inception_4d/relu_5x5
I0403 20:09:14.792793 10704 net.cpp:91] Creating Layer inception_4d/relu_5x5
I0403 20:09:14.792815 10704 net.cpp:425] inception_4d/relu_5x5 <- inception_4d/5x5
I0403 20:09:14.792836 10704 net.cpp:386] inception_4d/relu_5x5 -> inception_4d/5x5 (in-place)
I0403 20:09:14.793200 10704 net.cpp:141] Setting up inception_4d/relu_5x5
I0403 20:09:14.793232 10704 net.cpp:148] Top shape: 24 64 14 14 (301056)
I0403 20:09:14.793258 10704 net.cpp:156] Memory required for data: 1135267104
I0403 20:09:14.793277 10704 layer_factory.hpp:77] Creating layer inception_4d/pool
I0403 20:09:14.793300 10704 net.cpp:91] Creating Layer inception_4d/pool
I0403 20:09:14.793320 10704 net.cpp:425] inception_4d/pool <- inception_4c/output_inception_4c/output_0_split_3
I0403 20:09:14.793346 10704 net.cpp:399] inception_4d/pool -> inception_4d/pool
I0403 20:09:14.793429 10704 net.cpp:141] Setting up inception_4d/pool
I0403 20:09:14.793460 10704 net.cpp:148] Top shape: 24 512 14 14 (2408448)
I0403 20:09:14.793478 10704 net.cpp:156] Memory required for data: 1144900896
I0403 20:09:14.793496 10704 layer_factory.hpp:77] Creating layer inception_4d/pool_proj
I0403 20:09:14.793524 10704 net.cpp:91] Creating Layer inception_4d/pool_proj
I0403 20:09:14.793545 10704 net.cpp:425] inception_4d/pool_proj <- inception_4d/pool
I0403 20:09:14.793570 10704 net.cpp:399] inception_4d/pool_proj -> inception_4d/pool_proj
I0403 20:09:14.795716 10704 net.cpp:141] Setting up inception_4d/pool_proj
I0403 20:09:14.795758 10704 net.cpp:148] Top shape: 24 64 14 14 (301056)
I0403 20:09:14.795779 10704 net.cpp:156] Memory required for data: 1146105120
I0403 20:09:14.795802 10704 layer_factory.hpp:77] Creating layer inception_4d/relu_pool_proj
I0403 20:09:14.795825 10704 net.cpp:91] Creating Layer inception_4d/relu_pool_proj
I0403 20:09:14.795845 10704 net.cpp:425] inception_4d/relu_pool_proj <- inception_4d/pool_proj
I0403 20:09:14.795869 10704 net.cpp:386] inception_4d/relu_pool_proj -> inception_4d/pool_proj (in-place)
I0403 20:09:14.796099 10704 net.cpp:141] Setting up inception_4d/relu_pool_proj
I0403 20:09:14.796130 10704 net.cpp:148] Top shape: 24 64 14 14 (301056)
I0403 20:09:14.796149 10704 net.cpp:156] Memory required for data: 1147309344
I0403 20:09:14.796166 10704 layer_factory.hpp:77] Creating layer inception_4d/output
I0403 20:09:14.796188 10704 net.cpp:91] Creating Layer inception_4d/output
I0403 20:09:14.796207 10704 net.cpp:425] inception_4d/output <- inception_4d/1x1
I0403 20:09:14.796227 10704 net.cpp:425] inception_4d/output <- inception_4d/3x3
I0403 20:09:14.796254 10704 net.cpp:425] inception_4d/output <- inception_4d/5x5
I0403 20:09:14.796277 10704 net.cpp:425] inception_4d/output <- inception_4d/pool_proj
I0403 20:09:14.796299 10704 net.cpp:399] inception_4d/output -> inception_4d/output
I0403 20:09:14.796360 10704 net.cpp:141] Setting up inception_4d/output
I0403 20:09:14.796391 10704 net.cpp:148] Top shape: 24 528 14 14 (2483712)
I0403 20:09:14.796409 10704 net.cpp:156] Memory required for data: 1157244192
I0403 20:09:14.796429 10704 layer_factory.hpp:77] Creating layer inception_4d/output_inception_4d/output_0_split
I0403 20:09:14.796450 10704 net.cpp:91] Creating Layer inception_4d/output_inception_4d/output_0_split
I0403 20:09:14.796469 10704 net.cpp:425] inception_4d/output_inception_4d/output_0_split <- inception_4d/output
I0403 20:09:14.796491 10704 net.cpp:399] inception_4d/output_inception_4d/output_0_split -> inception_4d/output_inception_4d/output_0_split_0
I0403 20:09:14.796519 10704 net.cpp:399] inception_4d/output_inception_4d/output_0_split -> inception_4d/output_inception_4d/output_0_split_1
I0403 20:09:14.796547 10704 net.cpp:399] inception_4d/output_inception_4d/output_0_split -> inception_4d/output_inception_4d/output_0_split_2
I0403 20:09:14.796573 10704 net.cpp:399] inception_4d/output_inception_4d/output_0_split -> inception_4d/output_inception_4d/output_0_split_3
I0403 20:09:14.796597 10704 net.cpp:399] inception_4d/output_inception_4d/output_0_split -> inception_4d/output_inception_4d/output_0_split_4
I0403 20:09:14.796727 10704 net.cpp:141] Setting up inception_4d/output_inception_4d/output_0_split
I0403 20:09:14.796772 10704 net.cpp:148] Top shape: 24 528 14 14 (2483712)
I0403 20:09:14.796792 10704 net.cpp:148] Top shape: 24 528 14 14 (2483712)
I0403 20:09:14.796815 10704 net.cpp:148] Top shape: 24 528 14 14 (2483712)
I0403 20:09:14.796835 10704 net.cpp:148] Top shape: 24 528 14 14 (2483712)
I0403 20:09:14.796854 10704 net.cpp:148] Top shape: 24 528 14 14 (2483712)
I0403 20:09:14.796870 10704 net.cpp:156] Memory required for data: 1206918432
I0403 20:09:14.796888 10704 layer_factory.hpp:77] Creating layer loss2/ave_pool
I0403 20:09:14.796911 10704 net.cpp:91] Creating Layer loss2/ave_pool
I0403 20:09:14.796931 10704 net.cpp:425] loss2/ave_pool <- inception_4d/output_inception_4d/output_0_split_0
I0403 20:09:14.796952 10704 net.cpp:399] loss2/ave_pool -> loss2/ave_pool
I0403 20:09:14.797338 10704 net.cpp:141] Setting up loss2/ave_pool
I0403 20:09:14.797374 10704 net.cpp:148] Top shape: 24 528 4 4 (202752)
I0403 20:09:14.797394 10704 net.cpp:156] Memory required for data: 1207729440
I0403 20:09:14.797413 10704 layer_factory.hpp:77] Creating layer loss2/conv
I0403 20:09:14.797441 10704 net.cpp:91] Creating Layer loss2/conv
I0403 20:09:14.797462 10704 net.cpp:425] loss2/conv <- loss2/ave_pool
I0403 20:09:14.797487 10704 net.cpp:399] loss2/conv -> loss2/conv
I0403 20:09:14.799806 10704 net.cpp:141] Setting up loss2/conv
I0403 20:09:14.799842 10704 net.cpp:148] Top shape: 24 128 4 4 (49152)
I0403 20:09:14.799860 10704 net.cpp:156] Memory required for data: 1207926048
I0403 20:09:14.799885 10704 layer_factory.hpp:77] Creating layer loss2/relu_conv
I0403 20:09:14.799907 10704 net.cpp:91] Creating Layer loss2/relu_conv
I0403 20:09:14.799928 10704 net.cpp:425] loss2/relu_conv <- loss2/conv
I0403 20:09:14.799952 10704 net.cpp:386] loss2/relu_conv -> loss2/conv (in-place)
I0403 20:09:14.800313 10704 net.cpp:141] Setting up loss2/relu_conv
I0403 20:09:14.800346 10704 net.cpp:148] Top shape: 24 128 4 4 (49152)
I0403 20:09:14.800364 10704 net.cpp:156] Memory required for data: 1208122656
I0403 20:09:14.800384 10704 layer_factory.hpp:77] Creating layer loss2/fc
I0403 20:09:14.800406 10704 net.cpp:91] Creating Layer loss2/fc
I0403 20:09:14.800427 10704 net.cpp:425] loss2/fc <- loss2/conv
I0403 20:09:14.800451 10704 net.cpp:399] loss2/fc -> loss2/fc
I0403 20:09:14.822490 10704 net.cpp:141] Setting up loss2/fc
I0403 20:09:14.822537 10704 net.cpp:148] Top shape: 24 1024 (24576)
I0403 20:09:14.822559 10704 net.cpp:156] Memory required for data: 1208220960
I0403 20:09:14.822584 10704 layer_factory.hpp:77] Creating layer loss2/relu_fc
I0403 20:09:14.822605 10704 net.cpp:91] Creating Layer loss2/relu_fc
I0403 20:09:14.822626 10704 net.cpp:425] loss2/relu_fc <- loss2/fc
I0403 20:09:14.822648 10704 net.cpp:386] loss2/relu_fc -> loss2/fc (in-place)
I0403 20:09:14.823021 10704 net.cpp:141] Setting up loss2/relu_fc
I0403 20:09:14.823055 10704 net.cpp:148] Top shape: 24 1024 (24576)
I0403 20:09:14.823076 10704 net.cpp:156] Memory required for data: 1208319264
I0403 20:09:14.823094 10704 layer_factory.hpp:77] Creating layer loss2/drop_fc
I0403 20:09:14.823117 10704 net.cpp:91] Creating Layer loss2/drop_fc
I0403 20:09:14.823137 10704 net.cpp:425] loss2/drop_fc <- loss2/fc
I0403 20:09:14.823158 10704 net.cpp:386] loss2/drop_fc -> loss2/fc (in-place)
I0403 20:09:14.823220 10704 net.cpp:141] Setting up loss2/drop_fc
I0403 20:09:14.823254 10704 net.cpp:148] Top shape: 24 1024 (24576)
I0403 20:09:14.823274 10704 net.cpp:156] Memory required for data: 1208417568
I0403 20:09:14.823292 10704 layer_factory.hpp:77] Creating layer loss2/classifier_plantvillage
I0403 20:09:14.823323 10704 net.cpp:91] Creating Layer loss2/classifier_plantvillage
I0403 20:09:14.823344 10704 net.cpp:425] loss2/classifier_plantvillage <- loss2/fc
I0403 20:09:14.823367 10704 net.cpp:399] loss2/classifier_plantvillage -> loss2/classifier_plantvillage
I0403 20:09:14.823868 10704 net.cpp:141] Setting up loss2/classifier_plantvillage
I0403 20:09:14.823899 10704 net.cpp:148] Top shape: 24 38 (912)
I0403 20:09:14.823917 10704 net.cpp:156] Memory required for data: 1208421216
I0403 20:09:14.823961 10704 layer_factory.hpp:77] Creating layer loss2/classifier_plantvillage_loss2/classifier_plantvillage_0_split
I0403 20:09:14.823984 10704 net.cpp:91] Creating Layer loss2/classifier_plantvillage_loss2/classifier_plantvillage_0_split
I0403 20:09:14.824004 10704 net.cpp:425] loss2/classifier_plantvillage_loss2/classifier_plantvillage_0_split <- loss2/classifier_plantvillage
I0403 20:09:14.824030 10704 net.cpp:399] loss2/classifier_plantvillage_loss2/classifier_plantvillage_0_split -> loss2/classifier_plantvillage_loss2/classifier_plantvillage_0_split_0
I0403 20:09:14.824056 10704 net.cpp:399] loss2/classifier_plantvillage_loss2/classifier_plantvillage_0_split -> loss2/classifier_plantvillage_loss2/classifier_plantvillage_0_split_1
I0403 20:09:14.824081 10704 net.cpp:399] loss2/classifier_plantvillage_loss2/classifier_plantvillage_0_split -> loss2/classifier_plantvillage_loss2/classifier_plantvillage_0_split_2
I0403 20:09:14.824178 10704 net.cpp:141] Setting up loss2/classifier_plantvillage_loss2/classifier_plantvillage_0_split
I0403 20:09:14.824206 10704 net.cpp:148] Top shape: 24 38 (912)
I0403 20:09:14.824226 10704 net.cpp:148] Top shape: 24 38 (912)
I0403 20:09:14.824251 10704 net.cpp:148] Top shape: 24 38 (912)
I0403 20:09:14.824270 10704 net.cpp:156] Memory required for data: 1208432160
I0403 20:09:14.824290 10704 layer_factory.hpp:77] Creating layer inception_4e/1x1
I0403 20:09:14.824317 10704 net.cpp:91] Creating Layer inception_4e/1x1
I0403 20:09:14.824338 10704 net.cpp:425] inception_4e/1x1 <- inception_4d/output_inception_4d/output_0_split_1
I0403 20:09:14.824362 10704 net.cpp:399] inception_4e/1x1 -> inception_4e/1x1
I0403 20:09:14.826645 10704 net.cpp:141] Setting up inception_4e/1x1
I0403 20:09:14.826681 10704 net.cpp:148] Top shape: 24 256 14 14 (1204224)
I0403 20:09:14.826700 10704 net.cpp:156] Memory required for data: 1213249056
I0403 20:09:14.826724 10704 layer_factory.hpp:77] Creating layer inception_4e/relu_1x1
I0403 20:09:14.826748 10704 net.cpp:91] Creating Layer inception_4e/relu_1x1
I0403 20:09:14.826769 10704 net.cpp:425] inception_4e/relu_1x1 <- inception_4e/1x1
I0403 20:09:14.826791 10704 net.cpp:386] inception_4e/relu_1x1 -> inception_4e/1x1 (in-place)
I0403 20:09:14.827152 10704 net.cpp:141] Setting up inception_4e/relu_1x1
I0403 20:09:14.827183 10704 net.cpp:148] Top shape: 24 256 14 14 (1204224)
I0403 20:09:14.827203 10704 net.cpp:156] Memory required for data: 1218065952
I0403 20:09:14.827220 10704 layer_factory.hpp:77] Creating layer inception_4e/3x3_reduce
I0403 20:09:14.827255 10704 net.cpp:91] Creating Layer inception_4e/3x3_reduce
I0403 20:09:14.827280 10704 net.cpp:425] inception_4e/3x3_reduce <- inception_4d/output_inception_4d/output_0_split_2
I0403 20:09:14.827306 10704 net.cpp:399] inception_4e/3x3_reduce -> inception_4e/3x3_reduce
I0403 20:09:14.829931 10704 net.cpp:141] Setting up inception_4e/3x3_reduce
I0403 20:09:14.829968 10704 net.cpp:148] Top shape: 24 160 14 14 (752640)
I0403 20:09:14.829988 10704 net.cpp:156] Memory required for data: 1221076512
I0403 20:09:14.830011 10704 layer_factory.hpp:77] Creating layer inception_4e/relu_3x3_reduce
I0403 20:09:14.830034 10704 net.cpp:91] Creating Layer inception_4e/relu_3x3_reduce
I0403 20:09:14.830054 10704 net.cpp:425] inception_4e/relu_3x3_reduce <- inception_4e/3x3_reduce
I0403 20:09:14.830080 10704 net.cpp:386] inception_4e/relu_3x3_reduce -> inception_4e/3x3_reduce (in-place)
I0403 20:09:14.830319 10704 net.cpp:141] Setting up inception_4e/relu_3x3_reduce
I0403 20:09:14.830350 10704 net.cpp:148] Top shape: 24 160 14 14 (752640)
I0403 20:09:14.830369 10704 net.cpp:156] Memory required for data: 1224087072
I0403 20:09:14.830387 10704 layer_factory.hpp:77] Creating layer inception_4e/3x3
I0403 20:09:14.830416 10704 net.cpp:91] Creating Layer inception_4e/3x3
I0403 20:09:14.830438 10704 net.cpp:425] inception_4e/3x3 <- inception_4e/3x3_reduce
I0403 20:09:14.830466 10704 net.cpp:399] inception_4e/3x3 -> inception_4e/3x3
I0403 20:09:14.836745 10704 net.cpp:141] Setting up inception_4e/3x3
I0403 20:09:14.836796 10704 net.cpp:148] Top shape: 24 320 14 14 (1505280)
I0403 20:09:14.836817 10704 net.cpp:156] Memory required for data: 1230108192
I0403 20:09:14.836839 10704 layer_factory.hpp:77] Creating layer inception_4e/relu_3x3
I0403 20:09:14.836865 10704 net.cpp:91] Creating Layer inception_4e/relu_3x3
I0403 20:09:14.836886 10704 net.cpp:425] inception_4e/relu_3x3 <- inception_4e/3x3
I0403 20:09:14.836908 10704 net.cpp:386] inception_4e/relu_3x3 -> inception_4e/3x3 (in-place)
I0403 20:09:14.837277 10704 net.cpp:141] Setting up inception_4e/relu_3x3
I0403 20:09:14.837313 10704 net.cpp:148] Top shape: 24 320 14 14 (1505280)
I0403 20:09:14.837333 10704 net.cpp:156] Memory required for data: 1236129312
I0403 20:09:14.837352 10704 layer_factory.hpp:77] Creating layer inception_4e/5x5_reduce
I0403 20:09:14.837381 10704 net.cpp:91] Creating Layer inception_4e/5x5_reduce
I0403 20:09:14.837404 10704 net.cpp:425] inception_4e/5x5_reduce <- inception_4d/output_inception_4d/output_0_split_3
I0403 20:09:14.837429 10704 net.cpp:399] inception_4e/5x5_reduce -> inception_4e/5x5_reduce
I0403 20:09:14.838757 10704 net.cpp:141] Setting up inception_4e/5x5_reduce
I0403 20:09:14.838791 10704 net.cpp:148] Top shape: 24 32 14 14 (150528)
I0403 20:09:14.838810 10704 net.cpp:156] Memory required for data: 1236731424
I0403 20:09:14.838835 10704 layer_factory.hpp:77] Creating layer inception_4e/relu_5x5_reduce
I0403 20:09:14.838860 10704 net.cpp:91] Creating Layer inception_4e/relu_5x5_reduce
I0403 20:09:14.838881 10704 net.cpp:425] inception_4e/relu_5x5_reduce <- inception_4e/5x5_reduce
I0403 20:09:14.838902 10704 net.cpp:386] inception_4e/relu_5x5_reduce -> inception_4e/5x5_reduce (in-place)
I0403 20:09:14.839268 10704 net.cpp:141] Setting up inception_4e/relu_5x5_reduce
I0403 20:09:14.839301 10704 net.cpp:148] Top shape: 24 32 14 14 (150528)
I0403 20:09:14.839321 10704 net.cpp:156] Memory required for data: 1237333536
I0403 20:09:14.839340 10704 layer_factory.hpp:77] Creating layer inception_4e/5x5
I0403 20:09:14.839391 10704 net.cpp:91] Creating Layer inception_4e/5x5
I0403 20:09:14.839414 10704 net.cpp:425] inception_4e/5x5 <- inception_4e/5x5_reduce
I0403 20:09:14.839439 10704 net.cpp:399] inception_4e/5x5 -> inception_4e/5x5
I0403 20:09:14.841686 10704 net.cpp:141] Setting up inception_4e/5x5
I0403 20:09:14.841723 10704 net.cpp:148] Top shape: 24 128 14 14 (602112)
I0403 20:09:14.841743 10704 net.cpp:156] Memory required for data: 1239741984
I0403 20:09:14.841768 10704 layer_factory.hpp:77] Creating layer inception_4e/relu_5x5
I0403 20:09:14.841790 10704 net.cpp:91] Creating Layer inception_4e/relu_5x5
I0403 20:09:14.841810 10704 net.cpp:425] inception_4e/relu_5x5 <- inception_4e/5x5
I0403 20:09:14.841835 10704 net.cpp:386] inception_4e/relu_5x5 -> inception_4e/5x5 (in-place)
I0403 20:09:14.842077 10704 net.cpp:141] Setting up inception_4e/relu_5x5
I0403 20:09:14.842109 10704 net.cpp:148] Top shape: 24 128 14 14 (602112)
I0403 20:09:14.842128 10704 net.cpp:156] Memory required for data: 1242150432
I0403 20:09:14.842146 10704 layer_factory.hpp:77] Creating layer inception_4e/pool
I0403 20:09:14.842167 10704 net.cpp:91] Creating Layer inception_4e/pool
I0403 20:09:14.842187 10704 net.cpp:425] inception_4e/pool <- inception_4d/output_inception_4d/output_0_split_4
I0403 20:09:14.842212 10704 net.cpp:399] inception_4e/pool -> inception_4e/pool
I0403 20:09:14.842314 10704 net.cpp:141] Setting up inception_4e/pool
I0403 20:09:14.842344 10704 net.cpp:148] Top shape: 24 528 14 14 (2483712)
I0403 20:09:14.842362 10704 net.cpp:156] Memory required for data: 1252085280
I0403 20:09:14.842381 10704 layer_factory.hpp:77] Creating layer inception_4e/pool_proj
I0403 20:09:14.842411 10704 net.cpp:91] Creating Layer inception_4e/pool_proj
I0403 20:09:14.842433 10704 net.cpp:425] inception_4e/pool_proj <- inception_4e/pool
I0403 20:09:14.842458 10704 net.cpp:399] inception_4e/pool_proj -> inception_4e/pool_proj
I0403 20:09:14.844317 10704 net.cpp:141] Setting up inception_4e/pool_proj
I0403 20:09:14.844354 10704 net.cpp:148] Top shape: 24 128 14 14 (602112)
I0403 20:09:14.844393 10704 net.cpp:156] Memory required for data: 1254493728
I0403 20:09:14.844416 10704 layer_factory.hpp:77] Creating layer inception_4e/relu_pool_proj
I0403 20:09:14.844439 10704 net.cpp:91] Creating Layer inception_4e/relu_pool_proj
I0403 20:09:14.844460 10704 net.cpp:425] inception_4e/relu_pool_proj <- inception_4e/pool_proj
I0403 20:09:14.844485 10704 net.cpp:386] inception_4e/relu_pool_proj -> inception_4e/pool_proj (in-place)
I0403 20:09:14.844835 10704 net.cpp:141] Setting up inception_4e/relu_pool_proj
I0403 20:09:14.844871 10704 net.cpp:148] Top shape: 24 128 14 14 (602112)
I0403 20:09:14.844892 10704 net.cpp:156] Memory required for data: 1256902176
I0403 20:09:14.844910 10704 layer_factory.hpp:77] Creating layer inception_4e/output
I0403 20:09:14.844933 10704 net.cpp:91] Creating Layer inception_4e/output
I0403 20:09:14.844952 10704 net.cpp:425] inception_4e/output <- inception_4e/1x1
I0403 20:09:14.844974 10704 net.cpp:425] inception_4e/output <- inception_4e/3x3
I0403 20:09:14.844993 10704 net.cpp:425] inception_4e/output <- inception_4e/5x5
I0403 20:09:14.845013 10704 net.cpp:425] inception_4e/output <- inception_4e/pool_proj
I0403 20:09:14.845034 10704 net.cpp:399] inception_4e/output -> inception_4e/output
I0403 20:09:14.845098 10704 net.cpp:141] Setting up inception_4e/output
I0403 20:09:14.845127 10704 net.cpp:148] Top shape: 24 832 14 14 (3913728)
I0403 20:09:14.845145 10704 net.cpp:156] Memory required for data: 1272557088
I0403 20:09:14.845165 10704 layer_factory.hpp:77] Creating layer pool4/3x3_s2
I0403 20:09:14.845188 10704 net.cpp:91] Creating Layer pool4/3x3_s2
I0403 20:09:14.845211 10704 net.cpp:425] pool4/3x3_s2 <- inception_4e/output
I0403 20:09:14.845234 10704 net.cpp:399] pool4/3x3_s2 -> pool4/3x3_s2
I0403 20:09:14.845326 10704 net.cpp:141] Setting up pool4/3x3_s2
I0403 20:09:14.845357 10704 net.cpp:148] Top shape: 24 832 7 7 (978432)
I0403 20:09:14.845376 10704 net.cpp:156] Memory required for data: 1276470816
I0403 20:09:14.845393 10704 layer_factory.hpp:77] Creating layer pool4/3x3_s2_pool4/3x3_s2_0_split
I0403 20:09:14.845414 10704 net.cpp:91] Creating Layer pool4/3x3_s2_pool4/3x3_s2_0_split
I0403 20:09:14.845435 10704 net.cpp:425] pool4/3x3_s2_pool4/3x3_s2_0_split <- pool4/3x3_s2
I0403 20:09:14.845464 10704 net.cpp:399] pool4/3x3_s2_pool4/3x3_s2_0_split -> pool4/3x3_s2_pool4/3x3_s2_0_split_0
I0403 20:09:14.845491 10704 net.cpp:399] pool4/3x3_s2_pool4/3x3_s2_0_split -> pool4/3x3_s2_pool4/3x3_s2_0_split_1
I0403 20:09:14.845515 10704 net.cpp:399] pool4/3x3_s2_pool4/3x3_s2_0_split -> pool4/3x3_s2_pool4/3x3_s2_0_split_2
I0403 20:09:14.845541 10704 net.cpp:399] pool4/3x3_s2_pool4/3x3_s2_0_split -> pool4/3x3_s2_pool4/3x3_s2_0_split_3
I0403 20:09:14.845654 10704 net.cpp:141] Setting up pool4/3x3_s2_pool4/3x3_s2_0_split
I0403 20:09:14.845685 10704 net.cpp:148] Top shape: 24 832 7 7 (978432)
I0403 20:09:14.845706 10704 net.cpp:148] Top shape: 24 832 7 7 (978432)
I0403 20:09:14.845726 10704 net.cpp:148] Top shape: 24 832 7 7 (978432)
I0403 20:09:14.845746 10704 net.cpp:148] Top shape: 24 832 7 7 (978432)
I0403 20:09:14.845763 10704 net.cpp:156] Memory required for data: 1292125728
I0403 20:09:14.845782 10704 layer_factory.hpp:77] Creating layer inception_5a/1x1
I0403 20:09:14.845808 10704 net.cpp:91] Creating Layer inception_5a/1x1
I0403 20:09:14.845830 10704 net.cpp:425] inception_5a/1x1 <- pool4/3x3_s2_pool4/3x3_s2_0_split_0
I0403 20:09:14.845854 10704 net.cpp:399] inception_5a/1x1 -> inception_5a/1x1
I0403 20:09:14.849393 10704 net.cpp:141] Setting up inception_5a/1x1
I0403 20:09:14.849428 10704 net.cpp:148] Top shape: 24 256 7 7 (301056)
I0403 20:09:14.849448 10704 net.cpp:156] Memory required for data: 1293329952
I0403 20:09:14.849472 10704 layer_factory.hpp:77] Creating layer inception_5a/relu_1x1
I0403 20:09:14.849493 10704 net.cpp:91] Creating Layer inception_5a/relu_1x1
I0403 20:09:14.849514 10704 net.cpp:425] inception_5a/relu_1x1 <- inception_5a/1x1
I0403 20:09:14.849539 10704 net.cpp:386] inception_5a/relu_1x1 -> inception_5a/1x1 (in-place)
I0403 20:09:14.849920 10704 net.cpp:141] Setting up inception_5a/relu_1x1
I0403 20:09:14.849953 10704 net.cpp:148] Top shape: 24 256 7 7 (301056)
I0403 20:09:14.849972 10704 net.cpp:156] Memory required for data: 1294534176
I0403 20:09:14.849992 10704 layer_factory.hpp:77] Creating layer inception_5a/3x3_reduce
I0403 20:09:14.850020 10704 net.cpp:91] Creating Layer inception_5a/3x3_reduce
I0403 20:09:14.850044 10704 net.cpp:425] inception_5a/3x3_reduce <- pool4/3x3_s2_pool4/3x3_s2_0_split_1
I0403 20:09:14.850070 10704 net.cpp:399] inception_5a/3x3_reduce -> inception_5a/3x3_reduce
I0403 20:09:14.853123 10704 net.cpp:141] Setting up inception_5a/3x3_reduce
I0403 20:09:14.853160 10704 net.cpp:148] Top shape: 24 160 7 7 (188160)
I0403 20:09:14.853179 10704 net.cpp:156] Memory required for data: 1295286816
I0403 20:09:14.853202 10704 layer_factory.hpp:77] Creating layer inception_5a/relu_3x3_reduce
I0403 20:09:14.853227 10704 net.cpp:91] Creating Layer inception_5a/relu_3x3_reduce
I0403 20:09:14.853255 10704 net.cpp:425] inception_5a/relu_3x3_reduce <- inception_5a/3x3_reduce
I0403 20:09:14.853278 10704 net.cpp:386] inception_5a/relu_3x3_reduce -> inception_5a/3x3_reduce (in-place)
I0403 20:09:14.853514 10704 net.cpp:141] Setting up inception_5a/relu_3x3_reduce
I0403 20:09:14.853546 10704 net.cpp:148] Top shape: 24 160 7 7 (188160)
I0403 20:09:14.853564 10704 net.cpp:156] Memory required for data: 1296039456
I0403 20:09:14.853584 10704 layer_factory.hpp:77] Creating layer inception_5a/3x3
I0403 20:09:14.853613 10704 net.cpp:91] Creating Layer inception_5a/3x3
I0403 20:09:14.853636 10704 net.cpp:425] inception_5a/3x3 <- inception_5a/3x3_reduce
I0403 20:09:14.853662 10704 net.cpp:399] inception_5a/3x3 -> inception_5a/3x3
I0403 20:09:14.859983 10704 net.cpp:141] Setting up inception_5a/3x3
I0403 20:09:14.860026 10704 net.cpp:148] Top shape: 24 320 7 7 (376320)
I0403 20:09:14.860049 10704 net.cpp:156] Memory required for data: 1297544736
I0403 20:09:14.860075 10704 layer_factory.hpp:77] Creating layer inception_5a/relu_3x3
I0403 20:09:14.860100 10704 net.cpp:91] Creating Layer inception_5a/relu_3x3
I0403 20:09:14.860121 10704 net.cpp:425] inception_5a/relu_3x3 <- inception_5a/3x3
I0403 20:09:14.860148 10704 net.cpp:386] inception_5a/relu_3x3 -> inception_5a/3x3 (in-place)
I0403 20:09:14.860523 10704 net.cpp:141] Setting up inception_5a/relu_3x3
I0403 20:09:14.860559 10704 net.cpp:148] Top shape: 24 320 7 7 (376320)
I0403 20:09:14.860580 10704 net.cpp:156] Memory required for data: 1299050016
I0403 20:09:14.860600 10704 layer_factory.hpp:77] Creating layer inception_5a/5x5_reduce
I0403 20:09:14.860630 10704 net.cpp:91] Creating Layer inception_5a/5x5_reduce
I0403 20:09:14.860651 10704 net.cpp:425] inception_5a/5x5_reduce <- pool4/3x3_s2_pool4/3x3_s2_0_split_2
I0403 20:09:14.860677 10704 net.cpp:399] inception_5a/5x5_reduce -> inception_5a/5x5_reduce
I0403 20:09:14.862133 10704 net.cpp:141] Setting up inception_5a/5x5_reduce
I0403 20:09:14.862169 10704 net.cpp:148] Top shape: 24 32 7 7 (37632)
I0403 20:09:14.862190 10704 net.cpp:156] Memory required for data: 1299200544
I0403 20:09:14.862215 10704 layer_factory.hpp:77] Creating layer inception_5a/relu_5x5_reduce
I0403 20:09:14.862236 10704 net.cpp:91] Creating Layer inception_5a/relu_5x5_reduce
I0403 20:09:14.862275 10704 net.cpp:425] inception_5a/relu_5x5_reduce <- inception_5a/5x5_reduce
I0403 20:09:14.862301 10704 net.cpp:386] inception_5a/relu_5x5_reduce -> inception_5a/5x5_reduce (in-place)
I0403 20:09:14.862669 10704 net.cpp:141] Setting up inception_5a/relu_5x5_reduce
I0403 20:09:14.862701 10704 net.cpp:148] Top shape: 24 32 7 7 (37632)
I0403 20:09:14.862720 10704 net.cpp:156] Memory required for data: 1299351072
I0403 20:09:14.862738 10704 layer_factory.hpp:77] Creating layer inception_5a/5x5
I0403 20:09:14.862767 10704 net.cpp:91] Creating Layer inception_5a/5x5
I0403 20:09:14.862789 10704 net.cpp:425] inception_5a/5x5 <- inception_5a/5x5_reduce
I0403 20:09:14.862815 10704 net.cpp:399] inception_5a/5x5 -> inception_5a/5x5
I0403 20:09:14.864943 10704 net.cpp:141] Setting up inception_5a/5x5
I0403 20:09:14.864994 10704 net.cpp:148] Top shape: 24 128 7 7 (150528)
I0403 20:09:14.865015 10704 net.cpp:156] Memory required for data: 1299953184
I0403 20:09:14.865037 10704 layer_factory.hpp:77] Creating layer inception_5a/relu_5x5
I0403 20:09:14.865059 10704 net.cpp:91] Creating Layer inception_5a/relu_5x5
I0403 20:09:14.865079 10704 net.cpp:425] inception_5a/relu_5x5 <- inception_5a/5x5
I0403 20:09:14.865103 10704 net.cpp:386] inception_5a/relu_5x5 -> inception_5a/5x5 (in-place)
I0403 20:09:14.865348 10704 net.cpp:141] Setting up inception_5a/relu_5x5
I0403 20:09:14.865380 10704 net.cpp:148] Top shape: 24 128 7 7 (150528)
I0403 20:09:14.865398 10704 net.cpp:156] Memory required for data: 1300555296
I0403 20:09:14.865417 10704 layer_factory.hpp:77] Creating layer inception_5a/pool
I0403 20:09:14.865439 10704 net.cpp:91] Creating Layer inception_5a/pool
I0403 20:09:14.865459 10704 net.cpp:425] inception_5a/pool <- pool4/3x3_s2_pool4/3x3_s2_0_split_3
I0403 20:09:14.865485 10704 net.cpp:399] inception_5a/pool -> inception_5a/pool
I0403 20:09:14.865572 10704 net.cpp:141] Setting up inception_5a/pool
I0403 20:09:14.865602 10704 net.cpp:148] Top shape: 24 832 7 7 (978432)
I0403 20:09:14.865620 10704 net.cpp:156] Memory required for data: 1304469024
I0403 20:09:14.865638 10704 layer_factory.hpp:77] Creating layer inception_5a/pool_proj
I0403 20:09:14.865669 10704 net.cpp:91] Creating Layer inception_5a/pool_proj
I0403 20:09:14.865689 10704 net.cpp:425] inception_5a/pool_proj <- inception_5a/pool
I0403 20:09:14.865713 10704 net.cpp:399] inception_5a/pool_proj -> inception_5a/pool_proj
I0403 20:09:14.868491 10704 net.cpp:141] Setting up inception_5a/pool_proj
I0403 20:09:14.868531 10704 net.cpp:148] Top shape: 24 128 7 7 (150528)
I0403 20:09:14.868552 10704 net.cpp:156] Memory required for data: 1305071136
I0403 20:09:14.868576 10704 layer_factory.hpp:77] Creating layer inception_5a/relu_pool_proj
I0403 20:09:14.868597 10704 net.cpp:91] Creating Layer inception_5a/relu_pool_proj
I0403 20:09:14.868618 10704 net.cpp:425] inception_5a/relu_pool_proj <- inception_5a/pool_proj
I0403 20:09:14.868639 10704 net.cpp:386] inception_5a/relu_pool_proj -> inception_5a/pool_proj (in-place)
I0403 20:09:14.868999 10704 net.cpp:141] Setting up inception_5a/relu_pool_proj
I0403 20:09:14.869035 10704 net.cpp:148] Top shape: 24 128 7 7 (150528)
I0403 20:09:14.869055 10704 net.cpp:156] Memory required for data: 1305673248
I0403 20:09:14.869072 10704 layer_factory.hpp:77] Creating layer inception_5a/output
I0403 20:09:14.869094 10704 net.cpp:91] Creating Layer inception_5a/output
I0403 20:09:14.869113 10704 net.cpp:425] inception_5a/output <- inception_5a/1x1
I0403 20:09:14.869134 10704 net.cpp:425] inception_5a/output <- inception_5a/3x3
I0403 20:09:14.869154 10704 net.cpp:425] inception_5a/output <- inception_5a/5x5
I0403 20:09:14.869174 10704 net.cpp:425] inception_5a/output <- inception_5a/pool_proj
I0403 20:09:14.869195 10704 net.cpp:399] inception_5a/output -> inception_5a/output
I0403 20:09:14.869266 10704 net.cpp:141] Setting up inception_5a/output
I0403 20:09:14.869294 10704 net.cpp:148] Top shape: 24 832 7 7 (978432)
I0403 20:09:14.869313 10704 net.cpp:156] Memory required for data: 1309586976
I0403 20:09:14.869331 10704 layer_factory.hpp:77] Creating layer inception_5a/output_inception_5a/output_0_split
I0403 20:09:14.869354 10704 net.cpp:91] Creating Layer inception_5a/output_inception_5a/output_0_split
I0403 20:09:14.869375 10704 net.cpp:425] inception_5a/output_inception_5a/output_0_split <- inception_5a/output
I0403 20:09:14.869397 10704 net.cpp:399] inception_5a/output_inception_5a/output_0_split -> inception_5a/output_inception_5a/output_0_split_0
I0403 20:09:14.869423 10704 net.cpp:399] inception_5a/output_inception_5a/output_0_split -> inception_5a/output_inception_5a/output_0_split_1
I0403 20:09:14.869448 10704 net.cpp:399] inception_5a/output_inception_5a/output_0_split -> inception_5a/output_inception_5a/output_0_split_2
I0403 20:09:14.869474 10704 net.cpp:399] inception_5a/output_inception_5a/output_0_split -> inception_5a/output_inception_5a/output_0_split_3
I0403 20:09:14.869614 10704 net.cpp:141] Setting up inception_5a/output_inception_5a/output_0_split
I0403 20:09:14.869643 10704 net.cpp:148] Top shape: 24 832 7 7 (978432)
I0403 20:09:14.869663 10704 net.cpp:148] Top shape: 24 832 7 7 (978432)
I0403 20:09:14.869683 10704 net.cpp:148] Top shape: 24 832 7 7 (978432)
I0403 20:09:14.869702 10704 net.cpp:148] Top shape: 24 832 7 7 (978432)
I0403 20:09:14.869719 10704 net.cpp:156] Memory required for data: 1325241888
I0403 20:09:14.869736 10704 layer_factory.hpp:77] Creating layer inception_5b/1x1
I0403 20:09:14.869765 10704 net.cpp:91] Creating Layer inception_5b/1x1
I0403 20:09:14.869786 10704 net.cpp:425] inception_5b/1x1 <- inception_5a/output_inception_5a/output_0_split_0
I0403 20:09:14.869812 10704 net.cpp:399] inception_5b/1x1 -> inception_5b/1x1
I0403 20:09:14.874428 10704 net.cpp:141] Setting up inception_5b/1x1
I0403 20:09:14.874465 10704 net.cpp:148] Top shape: 24 384 7 7 (451584)
I0403 20:09:14.874485 10704 net.cpp:156] Memory required for data: 1327048224
I0403 20:09:14.874508 10704 layer_factory.hpp:77] Creating layer inception_5b/relu_1x1
I0403 20:09:14.874534 10704 net.cpp:91] Creating Layer inception_5b/relu_1x1
I0403 20:09:14.874555 10704 net.cpp:425] inception_5b/relu_1x1 <- inception_5b/1x1
I0403 20:09:14.874577 10704 net.cpp:386] inception_5b/relu_1x1 -> inception_5b/1x1 (in-place)
I0403 20:09:14.874950 10704 net.cpp:141] Setting up inception_5b/relu_1x1
I0403 20:09:14.874982 10704 net.cpp:148] Top shape: 24 384 7 7 (451584)
I0403 20:09:14.875001 10704 net.cpp:156] Memory required for data: 1328854560
I0403 20:09:14.875020 10704 layer_factory.hpp:77] Creating layer inception_5b/3x3_reduce
I0403 20:09:14.875051 10704 net.cpp:91] Creating Layer inception_5b/3x3_reduce
I0403 20:09:14.875073 10704 net.cpp:425] inception_5b/3x3_reduce <- inception_5a/output_inception_5a/output_0_split_1
I0403 20:09:14.875097 10704 net.cpp:399] inception_5b/3x3_reduce -> inception_5b/3x3_reduce
I0403 20:09:14.878394 10704 net.cpp:141] Setting up inception_5b/3x3_reduce
I0403 20:09:14.878433 10704 net.cpp:148] Top shape: 24 192 7 7 (225792)
I0403 20:09:14.878453 10704 net.cpp:156] Memory required for data: 1329757728
I0403 20:09:14.878478 10704 layer_factory.hpp:77] Creating layer inception_5b/relu_3x3_reduce
I0403 20:09:14.878499 10704 net.cpp:91] Creating Layer inception_5b/relu_3x3_reduce
I0403 20:09:14.878520 10704 net.cpp:425] inception_5b/relu_3x3_reduce <- inception_5b/3x3_reduce
I0403 20:09:14.878540 10704 net.cpp:386] inception_5b/relu_3x3_reduce -> inception_5b/3x3_reduce (in-place)
I0403 20:09:14.878778 10704 net.cpp:141] Setting up inception_5b/relu_3x3_reduce
I0403 20:09:14.878810 10704 net.cpp:148] Top shape: 24 192 7 7 (225792)
I0403 20:09:14.878829 10704 net.cpp:156] Memory required for data: 1330660896
I0403 20:09:14.878847 10704 layer_factory.hpp:77] Creating layer inception_5b/3x3
I0403 20:09:14.878875 10704 net.cpp:91] Creating Layer inception_5b/3x3
I0403 20:09:14.878896 10704 net.cpp:425] inception_5b/3x3 <- inception_5b/3x3_reduce
I0403 20:09:14.878923 10704 net.cpp:399] inception_5b/3x3 -> inception_5b/3x3
I0403 20:09:14.887328 10704 net.cpp:141] Setting up inception_5b/3x3
I0403 20:09:14.887369 10704 net.cpp:148] Top shape: 24 384 7 7 (451584)
I0403 20:09:14.887393 10704 net.cpp:156] Memory required for data: 1332467232
I0403 20:09:14.887418 10704 layer_factory.hpp:77] Creating layer inception_5b/relu_3x3
I0403 20:09:14.887439 10704 net.cpp:91] Creating Layer inception_5b/relu_3x3
I0403 20:09:14.887461 10704 net.cpp:425] inception_5b/relu_3x3 <- inception_5b/3x3
I0403 20:09:14.887485 10704 net.cpp:386] inception_5b/relu_3x3 -> inception_5b/3x3 (in-place)
I0403 20:09:14.887848 10704 net.cpp:141] Setting up inception_5b/relu_3x3
I0403 20:09:14.887884 10704 net.cpp:148] Top shape: 24 384 7 7 (451584)
I0403 20:09:14.887904 10704 net.cpp:156] Memory required for data: 1334273568
I0403 20:09:14.887923 10704 layer_factory.hpp:77] Creating layer inception_5b/5x5_reduce
I0403 20:09:14.887975 10704 net.cpp:91] Creating Layer inception_5b/5x5_reduce
I0403 20:09:14.887998 10704 net.cpp:425] inception_5b/5x5_reduce <- inception_5a/output_inception_5a/output_0_split_2
I0403 20:09:14.888022 10704 net.cpp:399] inception_5b/5x5_reduce -> inception_5b/5x5_reduce
I0403 20:09:14.889608 10704 net.cpp:141] Setting up inception_5b/5x5_reduce
I0403 20:09:14.889645 10704 net.cpp:148] Top shape: 24 48 7 7 (56448)
I0403 20:09:14.889665 10704 net.cpp:156] Memory required for data: 1334499360
I0403 20:09:14.889688 10704 layer_factory.hpp:77] Creating layer inception_5b/relu_5x5_reduce
I0403 20:09:14.889711 10704 net.cpp:91] Creating Layer inception_5b/relu_5x5_reduce
I0403 20:09:14.889731 10704 net.cpp:425] inception_5b/relu_5x5_reduce <- inception_5b/5x5_reduce
I0403 20:09:14.889756 10704 net.cpp:386] inception_5b/relu_5x5_reduce -> inception_5b/5x5_reduce (in-place)
I0403 20:09:14.890219 10704 net.cpp:141] Setting up inception_5b/relu_5x5_reduce
I0403 20:09:14.890259 10704 net.cpp:148] Top shape: 24 48 7 7 (56448)
I0403 20:09:14.890278 10704 net.cpp:156] Memory required for data: 1334725152
I0403 20:09:14.890298 10704 layer_factory.hpp:77] Creating layer inception_5b/5x5
I0403 20:09:14.890323 10704 net.cpp:91] Creating Layer inception_5b/5x5
I0403 20:09:14.890346 10704 net.cpp:425] inception_5b/5x5 <- inception_5b/5x5_reduce
I0403 20:09:14.890369 10704 net.cpp:399] inception_5b/5x5 -> inception_5b/5x5
I0403 20:09:14.892925 10704 net.cpp:141] Setting up inception_5b/5x5
I0403 20:09:14.892959 10704 net.cpp:148] Top shape: 24 128 7 7 (150528)
I0403 20:09:14.892978 10704 net.cpp:156] Memory required for data: 1335327264
I0403 20:09:14.893000 10704 layer_factory.hpp:77] Creating layer inception_5b/relu_5x5
I0403 20:09:14.893023 10704 net.cpp:91] Creating Layer inception_5b/relu_5x5
I0403 20:09:14.893044 10704 net.cpp:425] inception_5b/relu_5x5 <- inception_5b/5x5
I0403 20:09:14.893069 10704 net.cpp:386] inception_5b/relu_5x5 -> inception_5b/5x5 (in-place)
I0403 20:09:14.893319 10704 net.cpp:141] Setting up inception_5b/relu_5x5
I0403 20:09:14.893350 10704 net.cpp:148] Top shape: 24 128 7 7 (150528)
I0403 20:09:14.893368 10704 net.cpp:156] Memory required for data: 1335929376
I0403 20:09:14.893386 10704 layer_factory.hpp:77] Creating layer inception_5b/pool
I0403 20:09:14.893412 10704 net.cpp:91] Creating Layer inception_5b/pool
I0403 20:09:14.893435 10704 net.cpp:425] inception_5b/pool <- inception_5a/output_inception_5a/output_0_split_3
I0403 20:09:14.893457 10704 net.cpp:399] inception_5b/pool -> inception_5b/pool
I0403 20:09:14.893548 10704 net.cpp:141] Setting up inception_5b/pool
I0403 20:09:14.893578 10704 net.cpp:148] Top shape: 24 832 7 7 (978432)
I0403 20:09:14.893595 10704 net.cpp:156] Memory required for data: 1339843104
I0403 20:09:14.893615 10704 layer_factory.hpp:77] Creating layer inception_5b/pool_proj
I0403 20:09:14.893642 10704 net.cpp:91] Creating Layer inception_5b/pool_proj
I0403 20:09:14.893663 10704 net.cpp:425] inception_5b/pool_proj <- inception_5b/pool
I0403 20:09:14.893689 10704 net.cpp:399] inception_5b/pool_proj -> inception_5b/pool_proj
I0403 20:09:14.896546 10704 net.cpp:141] Setting up inception_5b/pool_proj
I0403 20:09:14.896585 10704 net.cpp:148] Top shape: 24 128 7 7 (150528)
I0403 20:09:14.896607 10704 net.cpp:156] Memory required for data: 1340445216
I0403 20:09:14.896631 10704 layer_factory.hpp:77] Creating layer inception_5b/relu_pool_proj
I0403 20:09:14.896654 10704 net.cpp:91] Creating Layer inception_5b/relu_pool_proj
I0403 20:09:14.896674 10704 net.cpp:425] inception_5b/relu_pool_proj <- inception_5b/pool_proj
I0403 20:09:14.896698 10704 net.cpp:386] inception_5b/relu_pool_proj -> inception_5b/pool_proj (in-place)
I0403 20:09:14.897065 10704 net.cpp:141] Setting up inception_5b/relu_pool_proj
I0403 20:09:14.897102 10704 net.cpp:148] Top shape: 24 128 7 7 (150528)
I0403 20:09:14.897122 10704 net.cpp:156] Memory required for data: 1341047328
I0403 20:09:14.897142 10704 layer_factory.hpp:77] Creating layer inception_5b/output
I0403 20:09:14.897164 10704 net.cpp:91] Creating Layer inception_5b/output
I0403 20:09:14.897202 10704 net.cpp:425] inception_5b/output <- inception_5b/1x1
I0403 20:09:14.897224 10704 net.cpp:425] inception_5b/output <- inception_5b/3x3
I0403 20:09:14.897249 10704 net.cpp:425] inception_5b/output <- inception_5b/5x5
I0403 20:09:14.897274 10704 net.cpp:425] inception_5b/output <- inception_5b/pool_proj
I0403 20:09:14.897297 10704 net.cpp:399] inception_5b/output -> inception_5b/output
I0403 20:09:14.897362 10704 net.cpp:141] Setting up inception_5b/output
I0403 20:09:14.897392 10704 net.cpp:148] Top shape: 24 1024 7 7 (1204224)
I0403 20:09:14.897410 10704 net.cpp:156] Memory required for data: 1345864224
I0403 20:09:14.897428 10704 layer_factory.hpp:77] Creating layer pool5/7x7_s1
I0403 20:09:14.897454 10704 net.cpp:91] Creating Layer pool5/7x7_s1
I0403 20:09:14.897476 10704 net.cpp:425] pool5/7x7_s1 <- inception_5b/output
I0403 20:09:14.897500 10704 net.cpp:399] pool5/7x7_s1 -> pool5/7x7_s1
I0403 20:09:14.897768 10704 net.cpp:141] Setting up pool5/7x7_s1
I0403 20:09:14.897801 10704 net.cpp:148] Top shape: 24 1024 1 1 (24576)
I0403 20:09:14.897821 10704 net.cpp:156] Memory required for data: 1345962528
I0403 20:09:14.897840 10704 layer_factory.hpp:77] Creating layer pool5/drop_7x7_s1
I0403 20:09:14.897862 10704 net.cpp:91] Creating Layer pool5/drop_7x7_s1
I0403 20:09:14.897881 10704 net.cpp:425] pool5/drop_7x7_s1 <- pool5/7x7_s1
I0403 20:09:14.897907 10704 net.cpp:386] pool5/drop_7x7_s1 -> pool5/7x7_s1 (in-place)
I0403 20:09:14.897969 10704 net.cpp:141] Setting up pool5/drop_7x7_s1
I0403 20:09:14.897997 10704 net.cpp:148] Top shape: 24 1024 1 1 (24576)
I0403 20:09:14.898015 10704 net.cpp:156] Memory required for data: 1346060832
I0403 20:09:14.898035 10704 layer_factory.hpp:77] Creating layer loss3/classifier_plantvillage
I0403 20:09:14.898061 10704 net.cpp:91] Creating Layer loss3/classifier_plantvillage
I0403 20:09:14.898082 10704 net.cpp:425] loss3/classifier_plantvillage <- pool5/7x7_s1
I0403 20:09:14.898108 10704 net.cpp:399] loss3/classifier_plantvillage -> loss3/classifier_plantvillage
I0403 20:09:14.898640 10704 net.cpp:141] Setting up loss3/classifier_plantvillage
I0403 20:09:14.898672 10704 net.cpp:148] Top shape: 24 38 (912)
I0403 20:09:14.898690 10704 net.cpp:156] Memory required for data: 1346064480
I0403 20:09:14.898715 10704 layer_factory.hpp:77] Creating layer loss3/classifier_plantvillage_loss3/classifier_plantvillage_0_split
I0403 20:09:14.898741 10704 net.cpp:91] Creating Layer loss3/classifier_plantvillage_loss3/classifier_plantvillage_0_split
I0403 20:09:14.898761 10704 net.cpp:425] loss3/classifier_plantvillage_loss3/classifier_plantvillage_0_split <- loss3/classifier_plantvillage
I0403 20:09:14.898783 10704 net.cpp:399] loss3/classifier_plantvillage_loss3/classifier_plantvillage_0_split -> loss3/classifier_plantvillage_loss3/classifier_plantvillage_0_split_0
I0403 20:09:14.898808 10704 net.cpp:399] loss3/classifier_plantvillage_loss3/classifier_plantvillage_0_split -> loss3/classifier_plantvillage_loss3/classifier_plantvillage_0_split_1
I0403 20:09:14.898833 10704 net.cpp:399] loss3/classifier_plantvillage_loss3/classifier_plantvillage_0_split -> loss3/classifier_plantvillage_loss3/classifier_plantvillage_0_split_2
I0403 20:09:14.898860 10704 net.cpp:399] loss3/classifier_plantvillage_loss3/classifier_plantvillage_0_split -> loss3/classifier_plantvillage_loss3/classifier_plantvillage_0_split_3
I0403 20:09:14.898985 10704 net.cpp:141] Setting up loss3/classifier_plantvillage_loss3/classifier_plantvillage_0_split
I0403 20:09:14.899015 10704 net.cpp:148] Top shape: 24 38 (912)
I0403 20:09:14.899035 10704 net.cpp:148] Top shape: 24 38 (912)
I0403 20:09:14.899055 10704 net.cpp:148] Top shape: 24 38 (912)
I0403 20:09:14.899075 10704 net.cpp:148] Top shape: 24 38 (912)
I0403 20:09:14.899092 10704 net.cpp:156] Memory required for data: 1346079072
I0403 20:09:14.899109 10704 layer_factory.hpp:77] Creating layer loss1/loss
I0403 20:09:14.899138 10704 net.cpp:91] Creating Layer loss1/loss
I0403 20:09:14.899160 10704 net.cpp:425] loss1/loss <- loss1/classifier_plantvillage_loss1/classifier_plantvillage_0_split_0
I0403 20:09:14.899199 10704 net.cpp:425] loss1/loss <- label_data_1_split_0
…
